…
I0403 12:52:45.805852  9804 net.cpp:313] The NetState phase (1) differed from the phase (0) specified by a rule in layer data
I0403 12:52:45.806164  9804 net.cpp:49] Initializing net from parameters: 
state {
  phase: TEST
}
layer {
  name: "data"
  type: "Data"
  top: "data"
  top: "label"
  include {
    phase: TEST
  }
  transform_param {
    crop_size: 227
    mean_file: "/home/mohanty/data/final_dataset/lmdb/grayscale-50-50/mean.binaryproto"
  }
  data_param {
    source: "/home/mohanty/data/final_dataset/lmdb/grayscale-50-50/test_db"
    batch_size: 100
    backend: LMDB
  }
}
layer {
  name: "conv1"
  type: "Convolution"
  bottom: "data"
  top: "conv1"
  param {
    lr_mult: 1
    decay_mult: 1
  }
  param {
    lr_mult: 2
    decay_mult: 0
  }
  convolution_param {
    num_output: 96
    kernel_size: 11
    stride: 4
    weight_filler {
      type: "gaussian"
      std: 0.01
    }
    bias_filler {
      type: "constant"
      value: 0
    }
  }
}
layer {
  name: "relu1"
  type: "ReLU"
  bottom: "conv1"
  top: "conv1"
}
layer {
  name: "norm1"
  type: "LRN"
  bottom: "conv1"
  top: "norm1"
  lrn_param {
    local_size: 5
    alpha: 0.0001
    beta: 0.75
  }
}
layer {
  name: "pool1"
  type: "Pooling"
  bottom: "norm1"
  top: "pool1"
  pooling_param {
    pool: MAX
    kernel_size: 3
    stride: 2
  }
}
layer {
  name: "conv2"
  type: "Convolution"
  bottom: "pool1"
  top: "conv2"
  param {
    lr_mult: 1
    decay_mult: 1
  }
  param {
    lr_mult: 2
    decay_mult: 0
  }
  convolution_param {
    num_output: 256
    pad: 2
    kernel_size: 5
    group: 2
    weight_filler {
      type: "gaussian"
      std: 0.01
    }
    bias_filler {
      type: "constant"
      value: 0.1
    }
  }
}
layer {
  name: "relu2"
  type: "ReLU"
  bottom: "conv2"
  top: "conv2"
}
layer {
  name: "norm2"
  type: "LRN"
  bottom: "conv2"
  top: "norm2"
  lrn_param {
    local_size: 5
    alpha: 0.0001
    beta: 0.75
  }
}
layer {
  name: "pool2"
  type: "Pooling"
  bottom: "norm2"
  top: "pool2"
  pooling_param {
    pool: MAX
    kernel_size: 3
    stride: 2
  }
}
layer {
  name: "conv3"
  type: "Convolution"
  bottom: "pool2"
  top: "conv3"
  param {
    lr_mult: 1
    decay_mult: 1
  }
  param {
    lr_mult: 2
    decay_mult: 0
  }
  convolution_param {
    num_output: 384
    pad: 1
    kernel_size: 3
    weight_filler {
      type: "gaussian"
      std: 0.01
    }
    bias_filler {
      type: "constant"
      value: 0
    }
  }
}
layer {
  name: "relu3"
  type: "ReLU"
  bottom: "conv3"
  top: "conv3"
}
layer {
  name: "conv4"
  type: "Convolution"
  bottom: "conv3"
  top: "conv4"
  param {
    lr_mult: 1
    decay_mult: 1
  }
  param {
    lr_mult: 2
    decay_mult: 0
  }
  convolution_param {
    num_output: 384
    pad: 1
    kernel_size: 3
    group: 2
    weight_filler {
      type: "gaussian"
      std: 0.01
    }
    bias_filler {
      type: "constant"
      value: 0.1
    }
  }
}
layer {
  name: "relu4"
  type: "ReLU"
  bottom: "conv4"
  top: "conv4"
}
layer {
  name: "conv5"
  type: "Convolution"
  bottom: "conv4"
  top: "conv5"
  param {
    lr_mult: 1
    decay_mult: 1
  }
  param {
    lr_mult: 2
    decay_mult: 0
  }
  convolution_param {
    num_output: 256
    pad: 1
    kernel_size: 3
    group: 2
    weight_filler {
      type: "gaussian"
      std: 0.01
    }
    bias_filler {
      type: "constant"
      value: 0.1
    }
  }
}
layer {
  name: "relu5"
  type: "ReLU"
  bottom: "conv5"
  top: "conv5"
}
layer {
  name: "pool5"
  type: "Pooling"
  bottom: "conv5"
  top: "pool5"
  pooling_param {
    pool: MAX
    kernel_size: 3
    stride: 2
  }
}
layer {
  name: "fc6"
  type: "InnerProduct"
  bottom: "pool5"
  top: "fc6"
  param {
    lr_mult: 1
    decay_mult: 1
  }
  param {
    lr_mult: 2
    decay_mult: 0
  }
  inner_product_param {
    num_output: 4096
    weight_filler {
      type: "gaussian"
      std: 0.005
    }
    bias_filler {
      type: "constant"
      value: 0.1
    }
  }
}
layer {
  name: "relu6"
  type: "ReLU"
  bottom: "fc6"
  top: "fc6"
}
layer {
  name: "drop6"
  type: "Dropout"
  bottom: "fc6"
  top: "fc6"
  dropout_param {
    dropout_ratio: 0.5
  }
}
layer {
  name: "fc7"
  type: "InnerProduct"
  bottom: "fc6"
  top: "fc7"
  param {
    lr_mult: 1
    decay_mult: 1
  }
  param {
    lr_mult: 2
    decay_mult: 0
  }
  inner_product_param {
    num_output: 4096
    weight_filler {
      type: "gaussian"
      std: 0.005
    }
    bias_filler {
      type: "constant"
      value: 0.1
    }
  }
}
layer {
  name: "relu7"
  type: "ReLU"
  bottom: "fc7"
  top: "fc7"
}
layer {
  name: "drop7"
  type: "Dropout"
  bottom: "fc7"
  top: "fc7"
  dropout_param {
    dropout_ratio: 0.5
  }
}
layer {
  name: "fc8_plantvillage"
  type: "InnerProduct"
  bottom: "fc7"
  top: "fc8_plantvillage"
  param {
    lr_mult: 1
    decay_mult: 1
  }
  param {
    lr_mult: 2
    decay_mult: 0
  }
  inner_product_param {
    num_output: 38
    weight_filler {
      type: "gaussian"
      std: 0.01
    }
    bias_filler {
      type: "constant"
      value: 0
    }
  }
}
layer {
  name: "prob"
  type: "Softmax"
  bottom: "fc8_plantvillage"
  top: "prob"
  include {
    phase: TEST
  }
}
layer {
  name: "hdf5out"
  type: "HDF5Output"
  bottom: "prob"
  bottom: "label"
  include {
    phase: TEST
  }
  hdf5_output_param {
    file_name: "hdf5_dumps/iter_1602.h5"
  }
}
layer {
  name: "loss"
  type: "SoftmaxWithLoss"
  bottom: "fc8_plantvillage"
  bottom: "label"
  top: "loss"
}
layer {
  name: "accuracy"
  type: "Accuracy"
  bottom: "fc8_plantvillage"
  bottom: "label"
  top: "accuracy"
  include {
    phase: TEST
  }
}
I0403 12:52:45.806828  9804 layer_factory.hpp:77] Creating layer data
I0403 12:52:45.807483  9804 net.cpp:91] Creating Layer data
I0403 12:52:45.807513  9804 net.cpp:399] data -> data
I0403 12:52:45.807569  9804 net.cpp:399] data -> label
I0403 12:52:45.807621  9804 data_transformer.cpp:25] Loading mean file from: /home/mohanty/data/final_dataset/lmdb/grayscale-50-50/mean.binaryproto
I0403 12:52:45.808748  9807 db_lmdb.cpp:38] Opened lmdb /home/mohanty/data/final_dataset/lmdb/grayscale-50-50/test_db
I0403 12:52:45.822083  9804 data_layer.cpp:41] output data size: 100,3,227,227
I0403 12:52:45.939470  9804 net.cpp:141] Setting up data
I0403 12:52:45.939530  9804 net.cpp:148] Top shape: 100 3 227 227 (15458700)
I0403 12:52:45.939556  9804 net.cpp:148] Top shape: 100 (100)
I0403 12:52:45.939571  9804 net.cpp:156] Memory required for data: 61835200
I0403 12:52:45.939599  9804 layer_factory.hpp:77] Creating layer label_data_1_split
I0403 12:52:45.939623  9804 net.cpp:91] Creating Layer label_data_1_split
I0403 12:52:45.939640  9804 net.cpp:425] label_data_1_split <- label
I0403 12:52:45.939671  9804 net.cpp:399] label_data_1_split -> label_data_1_split_0
I0403 12:52:45.939697  9804 net.cpp:399] label_data_1_split -> label_data_1_split_1
I0403 12:52:45.939715  9804 net.cpp:399] label_data_1_split -> label_data_1_split_2
I0403 12:52:45.939776  9804 net.cpp:141] Setting up label_data_1_split
I0403 12:52:45.939800  9804 net.cpp:148] Top shape: 100 (100)
I0403 12:52:45.939815  9804 net.cpp:148] Top shape: 100 (100)
I0403 12:52:45.939831  9804 net.cpp:148] Top shape: 100 (100)
I0403 12:52:45.939844  9804 net.cpp:156] Memory required for data: 61836400
I0403 12:52:45.939858  9804 layer_factory.hpp:77] Creating layer conv1
I0403 12:52:45.939889  9804 net.cpp:91] Creating Layer conv1
I0403 12:52:45.939906  9804 net.cpp:425] conv1 <- data
I0403 12:52:45.939925  9804 net.cpp:399] conv1 -> conv1
I0403 12:52:46.081634  9804 net.cpp:141] Setting up conv1
I0403 12:52:46.081713  9804 net.cpp:148] Top shape: 100 96 55 55 (29040000)
I0403 12:52:46.081732  9804 net.cpp:156] Memory required for data: 177996400
I0403 12:52:46.081768  9804 layer_factory.hpp:77] Creating layer relu1
I0403 12:52:46.081796  9804 net.cpp:91] Creating Layer relu1
I0403 12:52:46.081827  9804 net.cpp:425] relu1 <- conv1
I0403 12:52:46.081846  9804 net.cpp:386] relu1 -> conv1 (in-place)
I0403 12:52:46.082181  9804 net.cpp:141] Setting up relu1
I0403 12:52:46.082211  9804 net.cpp:148] Top shape: 100 96 55 55 (29040000)
I0403 12:52:46.082259  9804 net.cpp:156] Memory required for data: 294156400
I0403 12:52:46.082275  9804 layer_factory.hpp:77] Creating layer norm1
I0403 12:52:46.082304  9804 net.cpp:91] Creating Layer norm1
I0403 12:52:46.082321  9804 net.cpp:425] norm1 <- conv1
I0403 12:52:46.082345  9804 net.cpp:399] norm1 -> norm1
I0403 12:52:46.082677  9804 net.cpp:141] Setting up norm1
I0403 12:52:46.082706  9804 net.cpp:148] Top shape: 100 96 55 55 (29040000)
I0403 12:52:46.082722  9804 net.cpp:156] Memory required for data: 410316400
I0403 12:52:46.082737  9804 layer_factory.hpp:77] Creating layer pool1
I0403 12:52:46.082759  9804 net.cpp:91] Creating Layer pool1
I0403 12:52:46.082777  9804 net.cpp:425] pool1 <- norm1
I0403 12:52:46.082798  9804 net.cpp:399] pool1 -> pool1
I0403 12:52:46.082869  9804 net.cpp:141] Setting up pool1
I0403 12:52:46.082893  9804 net.cpp:148] Top shape: 100 96 27 27 (6998400)
I0403 12:52:46.082908  9804 net.cpp:156] Memory required for data: 438310000
I0403 12:52:46.082923  9804 layer_factory.hpp:77] Creating layer conv2
I0403 12:52:46.082952  9804 net.cpp:91] Creating Layer conv2
I0403 12:52:46.082969  9804 net.cpp:425] conv2 <- pool1
I0403 12:52:46.082994  9804 net.cpp:399] conv2 -> conv2
I0403 12:52:46.098213  9804 net.cpp:141] Setting up conv2
I0403 12:52:46.098260  9804 net.cpp:148] Top shape: 100 256 27 27 (18662400)
I0403 12:52:46.098278  9804 net.cpp:156] Memory required for data: 512959600
I0403 12:52:46.098301  9804 layer_factory.hpp:77] Creating layer relu2
I0403 12:52:46.098321  9804 net.cpp:91] Creating Layer relu2
I0403 12:52:46.098337  9804 net.cpp:425] relu2 <- conv2
I0403 12:52:46.098357  9804 net.cpp:386] relu2 -> conv2 (in-place)
I0403 12:52:46.098654  9804 net.cpp:141] Setting up relu2
I0403 12:52:46.098681  9804 net.cpp:148] Top shape: 100 256 27 27 (18662400)
I0403 12:52:46.098697  9804 net.cpp:156] Memory required for data: 587609200
I0403 12:52:46.098712  9804 layer_factory.hpp:77] Creating layer norm2
I0403 12:52:46.098737  9804 net.cpp:91] Creating Layer norm2
I0403 12:52:46.098753  9804 net.cpp:425] norm2 <- conv2
I0403 12:52:46.098772  9804 net.cpp:399] norm2 -> norm2
I0403 12:52:46.098975  9804 net.cpp:141] Setting up norm2
I0403 12:52:46.099004  9804 net.cpp:148] Top shape: 100 256 27 27 (18662400)
I0403 12:52:46.099020  9804 net.cpp:156] Memory required for data: 662258800
I0403 12:52:46.099033  9804 layer_factory.hpp:77] Creating layer pool2
I0403 12:52:46.099050  9804 net.cpp:91] Creating Layer pool2
I0403 12:52:46.099066  9804 net.cpp:425] pool2 <- norm2
I0403 12:52:46.099084  9804 net.cpp:399] pool2 -> pool2
I0403 12:52:46.099135  9804 net.cpp:141] Setting up pool2
I0403 12:52:46.099161  9804 net.cpp:148] Top shape: 100 256 13 13 (4326400)
I0403 12:52:46.099176  9804 net.cpp:156] Memory required for data: 679564400
I0403 12:52:46.099190  9804 layer_factory.hpp:77] Creating layer conv3
I0403 12:52:46.099211  9804 net.cpp:91] Creating Layer conv3
I0403 12:52:46.099251  9804 net.cpp:425] conv3 <- pool2
I0403 12:52:46.099277  9804 net.cpp:399] conv3 -> conv3
I0403 12:52:46.137977  9804 net.cpp:141] Setting up conv3
I0403 12:52:46.138052  9804 net.cpp:148] Top shape: 100 384 13 13 (6489600)
I0403 12:52:46.138068  9804 net.cpp:156] Memory required for data: 705522800
I0403 12:52:46.138094  9804 layer_factory.hpp:77] Creating layer relu3
I0403 12:52:46.138116  9804 net.cpp:91] Creating Layer relu3
I0403 12:52:46.138134  9804 net.cpp:425] relu3 <- conv3
I0403 12:52:46.138155  9804 net.cpp:386] relu3 -> conv3 (in-place)
I0403 12:52:46.138478  9804 net.cpp:141] Setting up relu3
I0403 12:52:46.138505  9804 net.cpp:148] Top shape: 100 384 13 13 (6489600)
I0403 12:52:46.138520  9804 net.cpp:156] Memory required for data: 731481200
I0403 12:52:46.138540  9804 layer_factory.hpp:77] Creating layer conv4
I0403 12:52:46.138566  9804 net.cpp:91] Creating Layer conv4
I0403 12:52:46.138583  9804 net.cpp:425] conv4 <- conv3
I0403 12:52:46.138604  9804 net.cpp:399] conv4 -> conv4
I0403 12:52:46.169229  9804 net.cpp:141] Setting up conv4
I0403 12:52:46.169303  9804 net.cpp:148] Top shape: 100 384 13 13 (6489600)
I0403 12:52:46.169355  9804 net.cpp:156] Memory required for data: 757439600
I0403 12:52:46.169378  9804 layer_factory.hpp:77] Creating layer relu4
I0403 12:52:46.169399  9804 net.cpp:91] Creating Layer relu4
I0403 12:52:46.169415  9804 net.cpp:425] relu4 <- conv4
I0403 12:52:46.169435  9804 net.cpp:386] relu4 -> conv4 (in-place)
I0403 12:52:46.169724  9804 net.cpp:141] Setting up relu4
I0403 12:52:46.169754  9804 net.cpp:148] Top shape: 100 384 13 13 (6489600)
I0403 12:52:46.169771  9804 net.cpp:156] Memory required for data: 783398000
I0403 12:52:46.169786  9804 layer_factory.hpp:77] Creating layer conv5
I0403 12:52:46.169814  9804 net.cpp:91] Creating Layer conv5
I0403 12:52:46.169832  9804 net.cpp:425] conv5 <- conv4
I0403 12:52:46.169852  9804 net.cpp:399] conv5 -> conv5
I0403 12:52:46.191093  9804 net.cpp:141] Setting up conv5
I0403 12:52:46.191151  9804 net.cpp:148] Top shape: 100 256 13 13 (4326400)
I0403 12:52:46.191170  9804 net.cpp:156] Memory required for data: 800703600
I0403 12:52:46.191195  9804 layer_factory.hpp:77] Creating layer relu5
I0403 12:52:46.191216  9804 net.cpp:91] Creating Layer relu5
I0403 12:52:46.191232  9804 net.cpp:425] relu5 <- conv5
I0403 12:52:46.191253  9804 net.cpp:386] relu5 -> conv5 (in-place)
I0403 12:52:46.191540  9804 net.cpp:141] Setting up relu5
I0403 12:52:46.191567  9804 net.cpp:148] Top shape: 100 256 13 13 (4326400)
I0403 12:52:46.191583  9804 net.cpp:156] Memory required for data: 818009200
I0403 12:52:46.191598  9804 layer_factory.hpp:77] Creating layer pool5
I0403 12:52:46.191623  9804 net.cpp:91] Creating Layer pool5
I0403 12:52:46.191642  9804 net.cpp:425] pool5 <- conv5
I0403 12:52:46.191660  9804 net.cpp:399] pool5 -> pool5
I0403 12:52:46.191722  9804 net.cpp:141] Setting up pool5
I0403 12:52:46.191746  9804 net.cpp:148] Top shape: 100 256 6 6 (921600)
I0403 12:52:46.191761  9804 net.cpp:156] Memory required for data: 821695600
I0403 12:52:46.191776  9804 layer_factory.hpp:77] Creating layer fc6
I0403 12:52:46.191803  9804 net.cpp:91] Creating Layer fc6
I0403 12:52:46.191820  9804 net.cpp:425] fc6 <- pool5
I0403 12:52:46.191841  9804 net.cpp:399] fc6 -> fc6
I0403 12:52:47.767552  9804 net.cpp:141] Setting up fc6
I0403 12:52:47.767632  9804 net.cpp:148] Top shape: 100 4096 (409600)
I0403 12:52:47.767649  9804 net.cpp:156] Memory required for data: 823334000
I0403 12:52:47.767671  9804 layer_factory.hpp:77] Creating layer relu6
I0403 12:52:47.767693  9804 net.cpp:91] Creating Layer relu6
I0403 12:52:47.767709  9804 net.cpp:425] relu6 <- fc6
I0403 12:52:47.767727  9804 net.cpp:386] relu6 -> fc6 (in-place)
I0403 12:52:47.767949  9804 net.cpp:141] Setting up relu6
I0403 12:52:47.767976  9804 net.cpp:148] Top shape: 100 4096 (409600)
I0403 12:52:47.767990  9804 net.cpp:156] Memory required for data: 824972400
I0403 12:52:47.768004  9804 layer_factory.hpp:77] Creating layer drop6
I0403 12:52:47.768023  9804 net.cpp:91] Creating Layer drop6
I0403 12:52:47.768038  9804 net.cpp:425] drop6 <- fc6
I0403 12:52:47.768056  9804 net.cpp:386] drop6 -> fc6 (in-place)
I0403 12:52:47.768107  9804 net.cpp:141] Setting up drop6
I0403 12:52:47.768129  9804 net.cpp:148] Top shape: 100 4096 (409600)
I0403 12:52:47.768143  9804 net.cpp:156] Memory required for data: 826610800
I0403 12:52:47.768158  9804 layer_factory.hpp:77] Creating layer fc7
I0403 12:52:47.768180  9804 net.cpp:91] Creating Layer fc7
I0403 12:52:47.768196  9804 net.cpp:425] fc7 <- fc6
I0403 12:52:47.768216  9804 net.cpp:399] fc7 -> fc7
I0403 12:52:48.453033  9804 net.cpp:141] Setting up fc7
I0403 12:52:48.453114  9804 net.cpp:148] Top shape: 100 4096 (409600)
I0403 12:52:48.453130  9804 net.cpp:156] Memory required for data: 828249200
I0403 12:52:48.453150  9804 layer_factory.hpp:77] Creating layer relu7
I0403 12:52:48.453172  9804 net.cpp:91] Creating Layer relu7
I0403 12:52:48.453189  9804 net.cpp:425] relu7 <- fc7
I0403 12:52:48.453210  9804 net.cpp:386] relu7 -> fc7 (in-place)
I0403 12:52:48.453634  9804 net.cpp:141] Setting up relu7
I0403 12:52:48.453660  9804 net.cpp:148] Top shape: 100 4096 (409600)
I0403 12:52:48.453717  9804 net.cpp:156] Memory required for data: 829887600
I0403 12:52:48.453733  9804 layer_factory.hpp:77] Creating layer drop7
I0403 12:52:48.453752  9804 net.cpp:91] Creating Layer drop7
I0403 12:52:48.453766  9804 net.cpp:425] drop7 <- fc7
I0403 12:52:48.453785  9804 net.cpp:386] drop7 -> fc7 (in-place)
I0403 12:52:48.453829  9804 net.cpp:141] Setting up drop7
I0403 12:52:48.453853  9804 net.cpp:148] Top shape: 100 4096 (409600)
I0403 12:52:48.453868  9804 net.cpp:156] Memory required for data: 831526000
I0403 12:52:48.453882  9804 layer_factory.hpp:77] Creating layer fc8_plantvillage
I0403 12:52:48.453902  9804 net.cpp:91] Creating Layer fc8_plantvillage
I0403 12:52:48.453915  9804 net.cpp:425] fc8_plantvillage <- fc7
I0403 12:52:48.453935  9804 net.cpp:399] fc8_plantvillage -> fc8_plantvillage
I0403 12:52:48.460692  9804 net.cpp:141] Setting up fc8_plantvillage
I0403 12:52:48.460721  9804 net.cpp:148] Top shape: 100 38 (3800)
I0403 12:52:48.460736  9804 net.cpp:156] Memory required for data: 831541200
I0403 12:52:48.460754  9804 layer_factory.hpp:77] Creating layer fc8_plantvillage_fc8_plantvillage_0_split
I0403 12:52:48.460772  9804 net.cpp:91] Creating Layer fc8_plantvillage_fc8_plantvillage_0_split
I0403 12:52:48.460788  9804 net.cpp:425] fc8_plantvillage_fc8_plantvillage_0_split <- fc8_plantvillage
I0403 12:52:48.460806  9804 net.cpp:399] fc8_plantvillage_fc8_plantvillage_0_split -> fc8_plantvillage_fc8_plantvillage_0_split_0
I0403 12:52:48.460827  9804 net.cpp:399] fc8_plantvillage_fc8_plantvillage_0_split -> fc8_plantvillage_fc8_plantvillage_0_split_1
I0403 12:52:48.460846  9804 net.cpp:399] fc8_plantvillage_fc8_plantvillage_0_split -> fc8_plantvillage_fc8_plantvillage_0_split_2
I0403 12:52:48.460923  9804 net.cpp:141] Setting up fc8_plantvillage_fc8_plantvillage_0_split
I0403 12:52:48.460949  9804 net.cpp:148] Top shape: 100 38 (3800)
I0403 12:52:48.460966  9804 net.cpp:148] Top shape: 100 38 (3800)
I0403 12:52:48.460981  9804 net.cpp:148] Top shape: 100 38 (3800)
I0403 12:52:48.460995  9804 net.cpp:156] Memory required for data: 831586800
I0403 12:52:48.461009  9804 layer_factory.hpp:77] Creating layer prob
I0403 12:52:48.461027  9804 net.cpp:91] Creating Layer prob
I0403 12:52:48.461042  9804 net.cpp:425] prob <- fc8_plantvillage_fc8_plantvillage_0_split_0
I0403 12:52:48.461060  9804 net.cpp:399] prob -> prob
I0403 12:52:48.461284  9804 net.cpp:141] Setting up prob
I0403 12:52:48.461309  9804 net.cpp:148] Top shape: 100 38 (3800)
I0403 12:52:48.461323  9804 net.cpp:156] Memory required for data: 831602000
I0403 12:52:48.461338  9804 layer_factory.hpp:77] Creating layer hdf5out
I0403 12:52:48.461355  9804 net.cpp:91] Creating Layer hdf5out
I0403 12:52:48.461371  9804 net.cpp:425] hdf5out <- prob
I0403 12:52:48.461387  9804 net.cpp:425] hdf5out <- label_data_1_split_0
I0403 12:52:48.464030  9804 net.cpp:141] Setting up hdf5out
…
