…
I0403 12:57:33.230466  9937 net.cpp:313] The NetState phase (1) differed from the phase (0) specified by a rule in layer data
I0403 12:57:33.230792  9937 net.cpp:49] Initializing net from parameters: 
state {
  phase: TEST
}
layer {
  name: "data"
  type: "Data"
  top: "data"
  top: "label"
  include {
    phase: TEST
  }
  transform_param {
    crop_size: 227
    mean_file: "/home/mohanty/data/final_dataset/lmdb/grayscale-50-50/mean.binaryproto"
  }
  data_param {
    source: "/home/mohanty/data/final_dataset/lmdb/grayscale-50-50/test_db"
    batch_size: 100
    backend: LMDB
  }
}
layer {
  name: "conv1"
  type: "Convolution"
  bottom: "data"
  top: "conv1"
  param {
    lr_mult: 1
    decay_mult: 1
  }
  param {
    lr_mult: 2
    decay_mult: 0
  }
  convolution_param {
    num_output: 96
    kernel_size: 11
    stride: 4
    weight_filler {
      type: "gaussian"
      std: 0.01
    }
    bias_filler {
      type: "constant"
      value: 0
    }
  }
}
layer {
  name: "relu1"
  type: "ReLU"
  bottom: "conv1"
  top: "conv1"
}
layer {
  name: "norm1"
  type: "LRN"
  bottom: "conv1"
  top: "norm1"
  lrn_param {
    local_size: 5
    alpha: 0.0001
    beta: 0.75
  }
}
layer {
  name: "pool1"
  type: "Pooling"
  bottom: "norm1"
  top: "pool1"
  pooling_param {
    pool: MAX
    kernel_size: 3
    stride: 2
  }
}
layer {
  name: "conv2"
  type: "Convolution"
  bottom: "pool1"
  top: "conv2"
  param {
    lr_mult: 1
    decay_mult: 1
  }
  param {
    lr_mult: 2
    decay_mult: 0
  }
  convolution_param {
    num_output: 256
    pad: 2
    kernel_size: 5
    group: 2
    weight_filler {
      type: "gaussian"
      std: 0.01
    }
    bias_filler {
      type: "constant"
      value: 0.1
    }
  }
}
layer {
  name: "relu2"
  type: "ReLU"
  bottom: "conv2"
  top: "conv2"
}
layer {
  name: "norm2"
  type: "LRN"
  bottom: "conv2"
  top: "norm2"
  lrn_param {
    local_size: 5
    alpha: 0.0001
    beta: 0.75
  }
}
layer {
  name: "pool2"
  type: "Pooling"
  bottom: "norm2"
  top: "pool2"
  pooling_param {
    pool: MAX
    kernel_size: 3
    stride: 2
  }
}
layer {
  name: "conv3"
  type: "Convolution"
  bottom: "pool2"
  top: "conv3"
  param {
    lr_mult: 1
    decay_mult: 1
  }
  param {
    lr_mult: 2
    decay_mult: 0
  }
  convolution_param {
    num_output: 384
    pad: 1
    kernel_size: 3
    weight_filler {
      type: "gaussian"
      std: 0.01
    }
    bias_filler {
      type: "constant"
      value: 0
    }
  }
}
layer {
  name: "relu3"
  type: "ReLU"
  bottom: "conv3"
  top: "conv3"
}
layer {
  name: "conv4"
  type: "Convolution"
  bottom: "conv3"
  top: "conv4"
  param {
    lr_mult: 1
    decay_mult: 1
  }
  param {
    lr_mult: 2
    decay_mult: 0
  }
  convolution_param {
    num_output: 384
    pad: 1
    kernel_size: 3
    group: 2
    weight_filler {
      type: "gaussian"
      std: 0.01
    }
    bias_filler {
      type: "constant"
      value: 0.1
    }
  }
}
layer {
  name: "relu4"
  type: "ReLU"
  bottom: "conv4"
  top: "conv4"
}
layer {
  name: "conv5"
  type: "Convolution"
  bottom: "conv4"
  top: "conv5"
  param {
    lr_mult: 1
    decay_mult: 1
  }
  param {
    lr_mult: 2
    decay_mult: 0
  }
  convolution_param {
    num_output: 256
    pad: 1
    kernel_size: 3
    group: 2
    weight_filler {
      type: "gaussian"
      std: 0.01
    }
    bias_filler {
      type: "constant"
      value: 0.1
    }
  }
}
layer {
  name: "relu5"
  type: "ReLU"
  bottom: "conv5"
  top: "conv5"
}
layer {
  name: "pool5"
  type: "Pooling"
  bottom: "conv5"
  top: "pool5"
  pooling_param {
    pool: MAX
    kernel_size: 3
    stride: 2
  }
}
layer {
  name: "fc6"
  type: "InnerProduct"
  bottom: "pool5"
  top: "fc6"
  param {
    lr_mult: 1
    decay_mult: 1
  }
  param {
    lr_mult: 2
    decay_mult: 0
  }
  inner_product_param {
    num_output: 4096
    weight_filler {
      type: "gaussian"
      std: 0.005
    }
    bias_filler {
      type: "constant"
      value: 0.1
    }
  }
}
layer {
  name: "relu6"
  type: "ReLU"
  bottom: "fc6"
  top: "fc6"
}
layer {
  name: "drop6"
  type: "Dropout"
  bottom: "fc6"
  top: "fc6"
  dropout_param {
    dropout_ratio: 0.5
  }
}
layer {
  name: "fc7"
  type: "InnerProduct"
  bottom: "fc6"
  top: "fc7"
  param {
    lr_mult: 1
    decay_mult: 1
  }
  param {
    lr_mult: 2
    decay_mult: 0
  }
  inner_product_param {
    num_output: 4096
    weight_filler {
      type: "gaussian"
      std: 0.005
    }
    bias_filler {
      type: "constant"
      value: 0.1
    }
  }
}
layer {
  name: "relu7"
  type: "ReLU"
  bottom: "fc7"
  top: "fc7"
}
layer {
  name: "drop7"
  type: "Dropout"
  bottom: "fc7"
  top: "fc7"
  dropout_param {
    dropout_ratio: 0.5
  }
}
layer {
  name: "fc8_plantvillage"
  type: "InnerProduct"
  bottom: "fc7"
  top: "fc8_plantvillage"
  param {
    lr_mult: 1
    decay_mult: 1
  }
  param {
    lr_mult: 2
    decay_mult: 0
  }
  inner_product_param {
    num_output: 38
    weight_filler {
      type: "gaussian"
      std: 0.01
    }
    bias_filler {
      type: "constant"
      value: 0
    }
  }
}
layer {
  name: "prob"
  type: "Softmax"
  bottom: "fc8_plantvillage"
  top: "prob"
  include {
    phase: TEST
  }
}
layer {
  name: "hdf5out"
  type: "HDF5Output"
  bottom: "prob"
  bottom: "label"
  include {
    phase: TEST
  }
  hdf5_output_param {
    file_name: "hdf5_dumps/iter_2937.h5"
  }
}
layer {
  name: "loss"
  type: "SoftmaxWithLoss"
  bottom: "fc8_plantvillage"
  bottom: "label"
  top: "loss"
}
layer {
  name: "accuracy"
  type: "Accuracy"
  bottom: "fc8_plantvillage"
  bottom: "label"
  top: "accuracy"
  include {
    phase: TEST
  }
}
I0403 12:57:33.231364  9937 layer_factory.hpp:77] Creating layer data
I0403 12:57:33.232019  9937 net.cpp:91] Creating Layer data
I0403 12:57:33.232050  9937 net.cpp:399] data -> data
I0403 12:57:33.232100  9937 net.cpp:399] data -> label
I0403 12:57:33.232141  9937 data_transformer.cpp:25] Loading mean file from: /home/mohanty/data/final_dataset/lmdb/grayscale-50-50/mean.binaryproto
I0403 12:57:33.233275  9942 db_lmdb.cpp:38] Opened lmdb /home/mohanty/data/final_dataset/lmdb/grayscale-50-50/test_db
I0403 12:57:33.246711  9937 data_layer.cpp:41] output data size: 100,3,227,227
I0403 12:57:33.363692  9937 net.cpp:141] Setting up data
I0403 12:57:33.363790  9937 net.cpp:148] Top shape: 100 3 227 227 (15458700)
I0403 12:57:33.363813  9937 net.cpp:148] Top shape: 100 (100)
I0403 12:57:33.363829  9937 net.cpp:156] Memory required for data: 61835200
I0403 12:57:33.363857  9937 layer_factory.hpp:77] Creating layer label_data_1_split
I0403 12:57:33.363883  9937 net.cpp:91] Creating Layer label_data_1_split
I0403 12:57:33.363901  9937 net.cpp:425] label_data_1_split <- label
I0403 12:57:33.363934  9937 net.cpp:399] label_data_1_split -> label_data_1_split_0
I0403 12:57:33.363960  9937 net.cpp:399] label_data_1_split -> label_data_1_split_1
I0403 12:57:33.363981  9937 net.cpp:399] label_data_1_split -> label_data_1_split_2
I0403 12:57:33.364044  9937 net.cpp:141] Setting up label_data_1_split
I0403 12:57:33.364069  9937 net.cpp:148] Top shape: 100 (100)
I0403 12:57:33.364086  9937 net.cpp:148] Top shape: 100 (100)
I0403 12:57:33.364101  9937 net.cpp:148] Top shape: 100 (100)
I0403 12:57:33.364115  9937 net.cpp:156] Memory required for data: 61836400
I0403 12:57:33.364130  9937 layer_factory.hpp:77] Creating layer conv1
I0403 12:57:33.364161  9937 net.cpp:91] Creating Layer conv1
I0403 12:57:33.364178  9937 net.cpp:425] conv1 <- data
I0403 12:57:33.364197  9937 net.cpp:399] conv1 -> conv1
I0403 12:57:33.501022  9937 net.cpp:141] Setting up conv1
I0403 12:57:33.501103  9937 net.cpp:148] Top shape: 100 96 55 55 (29040000)
I0403 12:57:33.501121  9937 net.cpp:156] Memory required for data: 177996400
I0403 12:57:33.501152  9937 layer_factory.hpp:77] Creating layer relu1
I0403 12:57:33.501180  9937 net.cpp:91] Creating Layer relu1
I0403 12:57:33.501199  9937 net.cpp:425] relu1 <- conv1
I0403 12:57:33.501217  9937 net.cpp:386] relu1 -> conv1 (in-place)
I0403 12:57:33.501474  9937 net.cpp:141] Setting up relu1
I0403 12:57:33.501502  9937 net.cpp:148] Top shape: 100 96 55 55 (29040000)
I0403 12:57:33.501559  9937 net.cpp:156] Memory required for data: 294156400
I0403 12:57:33.501576  9937 layer_factory.hpp:77] Creating layer norm1
I0403 12:57:33.501603  9937 net.cpp:91] Creating Layer norm1
I0403 12:57:33.501622  9937 net.cpp:425] norm1 <- conv1
I0403 12:57:33.501641  9937 net.cpp:399] norm1 -> norm1
I0403 12:57:33.501967  9937 net.cpp:141] Setting up norm1
I0403 12:57:33.501996  9937 net.cpp:148] Top shape: 100 96 55 55 (29040000)
I0403 12:57:33.502012  9937 net.cpp:156] Memory required for data: 410316400
I0403 12:57:33.502027  9937 layer_factory.hpp:77] Creating layer pool1
I0403 12:57:33.502051  9937 net.cpp:91] Creating Layer pool1
I0403 12:57:33.502069  9937 net.cpp:425] pool1 <- norm1
I0403 12:57:33.502087  9937 net.cpp:399] pool1 -> pool1
I0403 12:57:33.502157  9937 net.cpp:141] Setting up pool1
I0403 12:57:33.502182  9937 net.cpp:148] Top shape: 100 96 27 27 (6998400)
I0403 12:57:33.502198  9937 net.cpp:156] Memory required for data: 438310000
I0403 12:57:33.502213  9937 layer_factory.hpp:77] Creating layer conv2
I0403 12:57:33.502243  9937 net.cpp:91] Creating Layer conv2
I0403 12:57:33.502261  9937 net.cpp:425] conv2 <- pool1
I0403 12:57:33.502282  9937 net.cpp:399] conv2 -> conv2
I0403 12:57:33.518416  9937 net.cpp:141] Setting up conv2
I0403 12:57:33.518466  9937 net.cpp:148] Top shape: 100 256 27 27 (18662400)
I0403 12:57:33.518482  9937 net.cpp:156] Memory required for data: 512959600
I0403 12:57:33.518512  9937 layer_factory.hpp:77] Creating layer relu2
I0403 12:57:33.518535  9937 net.cpp:91] Creating Layer relu2
I0403 12:57:33.518551  9937 net.cpp:425] relu2 <- conv2
I0403 12:57:33.518569  9937 net.cpp:386] relu2 -> conv2 (in-place)
I0403 12:57:33.518853  9937 net.cpp:141] Setting up relu2
I0403 12:57:33.518882  9937 net.cpp:148] Top shape: 100 256 27 27 (18662400)
I0403 12:57:33.518900  9937 net.cpp:156] Memory required for data: 587609200
I0403 12:57:33.518915  9937 layer_factory.hpp:77] Creating layer norm2
I0403 12:57:33.518936  9937 net.cpp:91] Creating Layer norm2
I0403 12:57:33.518954  9937 net.cpp:425] norm2 <- conv2
I0403 12:57:33.518972  9937 net.cpp:399] norm2 -> norm2
I0403 12:57:33.519170  9937 net.cpp:141] Setting up norm2
I0403 12:57:33.519202  9937 net.cpp:148] Top shape: 100 256 27 27 (18662400)
I0403 12:57:33.519217  9937 net.cpp:156] Memory required for data: 662258800
I0403 12:57:33.519232  9937 layer_factory.hpp:77] Creating layer pool2
I0403 12:57:33.519253  9937 net.cpp:91] Creating Layer pool2
I0403 12:57:33.519269  9937 net.cpp:425] pool2 <- norm2
I0403 12:57:33.519286  9937 net.cpp:399] pool2 -> pool2
I0403 12:57:33.519340  9937 net.cpp:141] Setting up pool2
I0403 12:57:33.519362  9937 net.cpp:148] Top shape: 100 256 13 13 (4326400)
I0403 12:57:33.519376  9937 net.cpp:156] Memory required for data: 679564400
I0403 12:57:33.519390  9937 layer_factory.hpp:77] Creating layer conv3
I0403 12:57:33.519413  9937 net.cpp:91] Creating Layer conv3
I0403 12:57:33.519430  9937 net.cpp:425] conv3 <- pool2
I0403 12:57:33.519450  9937 net.cpp:399] conv3 -> conv3
I0403 12:57:33.561786  9937 net.cpp:141] Setting up conv3
I0403 12:57:33.561866  9937 net.cpp:148] Top shape: 100 384 13 13 (6489600)
I0403 12:57:33.561882  9937 net.cpp:156] Memory required for data: 705522800
I0403 12:57:33.561908  9937 layer_factory.hpp:77] Creating layer relu3
I0403 12:57:33.561933  9937 net.cpp:91] Creating Layer relu3
I0403 12:57:33.561951  9937 net.cpp:425] relu3 <- conv3
I0403 12:57:33.561970  9937 net.cpp:386] relu3 -> conv3 (in-place)
I0403 12:57:33.562252  9937 net.cpp:141] Setting up relu3
I0403 12:57:33.562279  9937 net.cpp:148] Top shape: 100 384 13 13 (6489600)
I0403 12:57:33.562295  9937 net.cpp:156] Memory required for data: 731481200
I0403 12:57:33.562310  9937 layer_factory.hpp:77] Creating layer conv4
I0403 12:57:33.562338  9937 net.cpp:91] Creating Layer conv4
I0403 12:57:33.562357  9937 net.cpp:425] conv4 <- conv3
I0403 12:57:33.562376  9937 net.cpp:399] conv4 -> conv4
I0403 12:57:33.594784  9937 net.cpp:141] Setting up conv4
I0403 12:57:33.594856  9937 net.cpp:148] Top shape: 100 384 13 13 (6489600)
I0403 12:57:33.594912  9937 net.cpp:156] Memory required for data: 757439600
I0403 12:57:33.594933  9937 layer_factory.hpp:77] Creating layer relu4
I0403 12:57:33.594960  9937 net.cpp:91] Creating Layer relu4
I0403 12:57:33.594983  9937 net.cpp:425] relu4 <- conv4
I0403 12:57:33.595002  9937 net.cpp:386] relu4 -> conv4 (in-place)
I0403 12:57:33.595288  9937 net.cpp:141] Setting up relu4
I0403 12:57:33.595314  9937 net.cpp:148] Top shape: 100 384 13 13 (6489600)
I0403 12:57:33.595330  9937 net.cpp:156] Memory required for data: 783398000
I0403 12:57:33.595345  9937 layer_factory.hpp:77] Creating layer conv5
I0403 12:57:33.595371  9937 net.cpp:91] Creating Layer conv5
I0403 12:57:33.595389  9937 net.cpp:425] conv5 <- conv4
I0403 12:57:33.595409  9937 net.cpp:399] conv5 -> conv5
I0403 12:57:33.618312  9937 net.cpp:141] Setting up conv5
I0403 12:57:33.618350  9937 net.cpp:148] Top shape: 100 256 13 13 (4326400)
I0403 12:57:33.618367  9937 net.cpp:156] Memory required for data: 800703600
I0403 12:57:33.618410  9937 layer_factory.hpp:77] Creating layer relu5
I0403 12:57:33.618438  9937 net.cpp:91] Creating Layer relu5
I0403 12:57:33.618454  9937 net.cpp:425] relu5 <- conv5
I0403 12:57:33.618474  9937 net.cpp:386] relu5 -> conv5 (in-place)
I0403 12:57:33.618759  9937 net.cpp:141] Setting up relu5
I0403 12:57:33.618785  9937 net.cpp:148] Top shape: 100 256 13 13 (4326400)
I0403 12:57:33.618810  9937 net.cpp:156] Memory required for data: 818009200
I0403 12:57:33.618824  9937 layer_factory.hpp:77] Creating layer pool5
I0403 12:57:33.618849  9937 net.cpp:91] Creating Layer pool5
I0403 12:57:33.618871  9937 net.cpp:425] pool5 <- conv5
I0403 12:57:33.618890  9937 net.cpp:399] pool5 -> pool5
I0403 12:57:33.618962  9937 net.cpp:141] Setting up pool5
I0403 12:57:33.618984  9937 net.cpp:148] Top shape: 100 256 6 6 (921600)
I0403 12:57:33.618999  9937 net.cpp:156] Memory required for data: 821695600
I0403 12:57:33.619014  9937 layer_factory.hpp:77] Creating layer fc6
I0403 12:57:33.619041  9937 net.cpp:91] Creating Layer fc6
I0403 12:57:33.619060  9937 net.cpp:425] fc6 <- pool5
I0403 12:57:33.619078  9937 net.cpp:399] fc6 -> fc6
I0403 12:57:35.182668  9937 net.cpp:141] Setting up fc6
I0403 12:57:35.182749  9937 net.cpp:148] Top shape: 100 4096 (409600)
I0403 12:57:35.182765  9937 net.cpp:156] Memory required for data: 823334000
I0403 12:57:35.182786  9937 layer_factory.hpp:77] Creating layer relu6
I0403 12:57:35.182809  9937 net.cpp:91] Creating Layer relu6
I0403 12:57:35.182826  9937 net.cpp:425] relu6 <- fc6
I0403 12:57:35.182847  9937 net.cpp:386] relu6 -> fc6 (in-place)
I0403 12:57:35.183082  9937 net.cpp:141] Setting up relu6
I0403 12:57:35.183109  9937 net.cpp:148] Top shape: 100 4096 (409600)
I0403 12:57:35.183123  9937 net.cpp:156] Memory required for data: 824972400
I0403 12:57:35.183138  9937 layer_factory.hpp:77] Creating layer drop6
I0403 12:57:35.183161  9937 net.cpp:91] Creating Layer drop6
I0403 12:57:35.183176  9937 net.cpp:425] drop6 <- fc6
I0403 12:57:35.183193  9937 net.cpp:386] drop6 -> fc6 (in-place)
I0403 12:57:35.183248  9937 net.cpp:141] Setting up drop6
I0403 12:57:35.183272  9937 net.cpp:148] Top shape: 100 4096 (409600)
I0403 12:57:35.183286  9937 net.cpp:156] Memory required for data: 826610800
I0403 12:57:35.183301  9937 layer_factory.hpp:77] Creating layer fc7
I0403 12:57:35.183320  9937 net.cpp:91] Creating Layer fc7
I0403 12:57:35.183336  9937 net.cpp:425] fc7 <- fc6
I0403 12:57:35.183357  9937 net.cpp:399] fc7 -> fc7
I0403 12:57:35.870096  9937 net.cpp:141] Setting up fc7
I0403 12:57:35.870138  9937 net.cpp:148] Top shape: 100 4096 (409600)
I0403 12:57:35.870153  9937 net.cpp:156] Memory required for data: 828249200
I0403 12:57:35.870173  9937 layer_factory.hpp:77] Creating layer relu7
I0403 12:57:35.870196  9937 net.cpp:91] Creating Layer relu7
I0403 12:57:35.870214  9937 net.cpp:425] relu7 <- fc7
I0403 12:57:35.870234  9937 net.cpp:386] relu7 -> fc7 (in-place)
I0403 12:57:35.870645  9937 net.cpp:141] Setting up relu7
I0403 12:57:35.870669  9937 net.cpp:148] Top shape: 100 4096 (409600)
I0403 12:57:35.870718  9937 net.cpp:156] Memory required for data: 829887600
I0403 12:57:35.870733  9937 layer_factory.hpp:77] Creating layer drop7
I0403 12:57:35.870754  9937 net.cpp:91] Creating Layer drop7
I0403 12:57:35.870769  9937 net.cpp:425] drop7 <- fc7
I0403 12:57:35.870785  9937 net.cpp:386] drop7 -> fc7 (in-place)
I0403 12:57:35.870831  9937 net.cpp:141] Setting up drop7
I0403 12:57:35.870851  9937 net.cpp:148] Top shape: 100 4096 (409600)
I0403 12:57:35.870865  9937 net.cpp:156] Memory required for data: 831526000
I0403 12:57:35.870878  9937 layer_factory.hpp:77] Creating layer fc8_plantvillage
I0403 12:57:35.870898  9937 net.cpp:91] Creating Layer fc8_plantvillage
I0403 12:57:35.870910  9937 net.cpp:425] fc8_plantvillage <- fc7
I0403 12:57:35.870930  9937 net.cpp:399] fc8_plantvillage -> fc8_plantvillage
I0403 12:57:35.877637  9937 net.cpp:141] Setting up fc8_plantvillage
I0403 12:57:35.877666  9937 net.cpp:148] Top shape: 100 38 (3800)
I0403 12:57:35.877682  9937 net.cpp:156] Memory required for data: 831541200
I0403 12:57:35.877699  9937 layer_factory.hpp:77] Creating layer fc8_plantvillage_fc8_plantvillage_0_split
I0403 12:57:35.877717  9937 net.cpp:91] Creating Layer fc8_plantvillage_fc8_plantvillage_0_split
I0403 12:57:35.877732  9937 net.cpp:425] fc8_plantvillage_fc8_plantvillage_0_split <- fc8_plantvillage
I0403 12:57:35.877748  9937 net.cpp:399] fc8_plantvillage_fc8_plantvillage_0_split -> fc8_plantvillage_fc8_plantvillage_0_split_0
I0403 12:57:35.877765  9937 net.cpp:399] fc8_plantvillage_fc8_plantvillage_0_split -> fc8_plantvillage_fc8_plantvillage_0_split_1
I0403 12:57:35.877784  9937 net.cpp:399] fc8_plantvillage_fc8_plantvillage_0_split -> fc8_plantvillage_fc8_plantvillage_0_split_2
I0403 12:57:35.877858  9937 net.cpp:141] Setting up fc8_plantvillage_fc8_plantvillage_0_split
I0403 12:57:35.877881  9937 net.cpp:148] Top shape: 100 38 (3800)
I0403 12:57:35.877895  9937 net.cpp:148] Top shape: 100 38 (3800)
I0403 12:57:35.877910  9937 net.cpp:148] Top shape: 100 38 (3800)
I0403 12:57:35.877923  9937 net.cpp:156] Memory required for data: 831586800
I0403 12:57:35.877936  9937 layer_factory.hpp:77] Creating layer prob
I0403 12:57:35.877954  9937 net.cpp:91] Creating Layer prob
I0403 12:57:35.877967  9937 net.cpp:425] prob <- fc8_plantvillage_fc8_plantvillage_0_split_0
I0403 12:57:35.877985  9937 net.cpp:399] prob -> prob
I0403 12:57:35.878206  9937 net.cpp:141] Setting up prob
I0403 12:57:35.878231  9937 net.cpp:148] Top shape: 100 38 (3800)
I0403 12:57:35.878245  9937 net.cpp:156] Memory required for data: 831602000
I0403 12:57:35.878258  9937 layer_factory.hpp:77] Creating layer hdf5out
I0403 12:57:35.878279  9937 net.cpp:91] Creating Layer hdf5out
I0403 12:57:35.878295  9937 net.cpp:425] hdf5out <- prob
I0403 12:57:35.878310  9937 net.cpp:425] hdf5out <- label_data_1_split_0
I0403 12:57:35.880722  9937 net.cpp:141] Setting up hdf5out
…
