…
I0403 12:53:42.891011  9837 net.cpp:313] The NetState phase (1) differed from the phase (0) specified by a rule in layer data
I0403 12:53:42.891329  9837 net.cpp:49] Initializing net from parameters: 
state {
  phase: TEST
}
layer {
  name: "data"
  type: "Data"
  top: "data"
  top: "label"
  include {
    phase: TEST
  }
  transform_param {
    crop_size: 227
    mean_file: "/home/mohanty/data/final_dataset/lmdb/grayscale-50-50/mean.binaryproto"
  }
  data_param {
    source: "/home/mohanty/data/final_dataset/lmdb/grayscale-50-50/test_db"
    batch_size: 100
    backend: LMDB
  }
}
layer {
  name: "conv1"
  type: "Convolution"
  bottom: "data"
  top: "conv1"
  param {
    lr_mult: 1
    decay_mult: 1
  }
  param {
    lr_mult: 2
    decay_mult: 0
  }
  convolution_param {
    num_output: 96
    kernel_size: 11
    stride: 4
    weight_filler {
      type: "gaussian"
      std: 0.01
    }
    bias_filler {
      type: "constant"
      value: 0
    }
  }
}
layer {
  name: "relu1"
  type: "ReLU"
  bottom: "conv1"
  top: "conv1"
}
layer {
  name: "norm1"
  type: "LRN"
  bottom: "conv1"
  top: "norm1"
  lrn_param {
    local_size: 5
    alpha: 0.0001
    beta: 0.75
  }
}
layer {
  name: "pool1"
  type: "Pooling"
  bottom: "norm1"
  top: "pool1"
  pooling_param {
    pool: MAX
    kernel_size: 3
    stride: 2
  }
}
layer {
  name: "conv2"
  type: "Convolution"
  bottom: "pool1"
  top: "conv2"
  param {
    lr_mult: 1
    decay_mult: 1
  }
  param {
    lr_mult: 2
    decay_mult: 0
  }
  convolution_param {
    num_output: 256
    pad: 2
    kernel_size: 5
    group: 2
    weight_filler {
      type: "gaussian"
      std: 0.01
    }
    bias_filler {
      type: "constant"
      value: 0.1
    }
  }
}
layer {
  name: "relu2"
  type: "ReLU"
  bottom: "conv2"
  top: "conv2"
}
layer {
  name: "norm2"
  type: "LRN"
  bottom: "conv2"
  top: "norm2"
  lrn_param {
    local_size: 5
    alpha: 0.0001
    beta: 0.75
  }
}
layer {
  name: "pool2"
  type: "Pooling"
  bottom: "norm2"
  top: "pool2"
  pooling_param {
    pool: MAX
    kernel_size: 3
    stride: 2
  }
}
layer {
  name: "conv3"
  type: "Convolution"
  bottom: "pool2"
  top: "conv3"
  param {
    lr_mult: 1
    decay_mult: 1
  }
  param {
    lr_mult: 2
    decay_mult: 0
  }
  convolution_param {
    num_output: 384
    pad: 1
    kernel_size: 3
    weight_filler {
      type: "gaussian"
      std: 0.01
    }
    bias_filler {
      type: "constant"
      value: 0
    }
  }
}
layer {
  name: "relu3"
  type: "ReLU"
  bottom: "conv3"
  top: "conv3"
}
layer {
  name: "conv4"
  type: "Convolution"
  bottom: "conv3"
  top: "conv4"
  param {
    lr_mult: 1
    decay_mult: 1
  }
  param {
    lr_mult: 2
    decay_mult: 0
  }
  convolution_param {
    num_output: 384
    pad: 1
    kernel_size: 3
    group: 2
    weight_filler {
      type: "gaussian"
      std: 0.01
    }
    bias_filler {
      type: "constant"
      value: 0.1
    }
  }
}
layer {
  name: "relu4"
  type: "ReLU"
  bottom: "conv4"
  top: "conv4"
}
layer {
  name: "conv5"
  type: "Convolution"
  bottom: "conv4"
  top: "conv5"
  param {
    lr_mult: 1
    decay_mult: 1
  }
  param {
    lr_mult: 2
    decay_mult: 0
  }
  convolution_param {
    num_output: 256
    pad: 1
    kernel_size: 3
    group: 2
    weight_filler {
      type: "gaussian"
      std: 0.01
    }
    bias_filler {
      type: "constant"
      value: 0.1
    }
  }
}
layer {
  name: "relu5"
  type: "ReLU"
  bottom: "conv5"
  top: "conv5"
}
layer {
  name: "pool5"
  type: "Pooling"
  bottom: "conv5"
  top: "pool5"
  pooling_param {
    pool: MAX
    kernel_size: 3
    stride: 2
  }
}
layer {
  name: "fc6"
  type: "InnerProduct"
  bottom: "pool5"
  top: "fc6"
  param {
    lr_mult: 1
    decay_mult: 1
  }
  param {
    lr_mult: 2
    decay_mult: 0
  }
  inner_product_param {
    num_output: 4096
    weight_filler {
      type: "gaussian"
      std: 0.005
    }
    bias_filler {
      type: "constant"
      value: 0.1
    }
  }
}
layer {
  name: "relu6"
  type: "ReLU"
  bottom: "fc6"
  top: "fc6"
}
layer {
  name: "drop6"
  type: "Dropout"
  bottom: "fc6"
  top: "fc6"
  dropout_param {
    dropout_ratio: 0.5
  }
}
layer {
  name: "fc7"
  type: "InnerProduct"
  bottom: "fc6"
  top: "fc7"
  param {
    lr_mult: 1
    decay_mult: 1
  }
  param {
    lr_mult: 2
    decay_mult: 0
  }
  inner_product_param {
    num_output: 4096
    weight_filler {
      type: "gaussian"
      std: 0.005
    }
    bias_filler {
      type: "constant"
      value: 0.1
    }
  }
}
layer {
  name: "relu7"
  type: "ReLU"
  bottom: "fc7"
  top: "fc7"
}
layer {
  name: "drop7"
  type: "Dropout"
  bottom: "fc7"
  top: "fc7"
  dropout_param {
    dropout_ratio: 0.5
  }
}
layer {
  name: "fc8_plantvillage"
  type: "InnerProduct"
  bottom: "fc7"
  top: "fc8_plantvillage"
  param {
    lr_mult: 1
    decay_mult: 1
  }
  param {
    lr_mult: 2
    decay_mult: 0
  }
  inner_product_param {
    num_output: 38
    weight_filler {
      type: "gaussian"
      std: 0.01
    }
    bias_filler {
      type: "constant"
      value: 0
    }
  }
}
layer {
  name: "prob"
  type: "Softmax"
  bottom: "fc8_plantvillage"
  top: "prob"
  include {
    phase: TEST
  }
}
layer {
  name: "hdf5out"
  type: "HDF5Output"
  bottom: "prob"
  bottom: "label"
  include {
    phase: TEST
  }
  hdf5_output_param {
    file_name: "hdf5_dumps/iter_1869.h5"
  }
}
layer {
  name: "loss"
  type: "SoftmaxWithLoss"
  bottom: "fc8_plantvillage"
  bottom: "label"
  top: "loss"
}
layer {
  name: "accuracy"
  type: "Accuracy"
  bottom: "fc8_plantvillage"
  bottom: "label"
  top: "accuracy"
  include {
    phase: TEST
  }
}
I0403 12:53:42.891913  9837 layer_factory.hpp:77] Creating layer data
I0403 12:53:42.892580  9837 net.cpp:91] Creating Layer data
I0403 12:53:42.892613  9837 net.cpp:399] data -> data
I0403 12:53:42.892664  9837 net.cpp:399] data -> label
I0403 12:53:42.892700  9837 data_transformer.cpp:25] Loading mean file from: /home/mohanty/data/final_dataset/lmdb/grayscale-50-50/mean.binaryproto
I0403 12:53:42.893808  9843 db_lmdb.cpp:38] Opened lmdb /home/mohanty/data/final_dataset/lmdb/grayscale-50-50/test_db
I0403 12:53:42.907075  9837 data_layer.cpp:41] output data size: 100,3,227,227
I0403 12:53:43.026315  9837 net.cpp:141] Setting up data
I0403 12:53:43.026414  9837 net.cpp:148] Top shape: 100 3 227 227 (15458700)
I0403 12:53:43.026437  9837 net.cpp:148] Top shape: 100 (100)
I0403 12:53:43.026453  9837 net.cpp:156] Memory required for data: 61835200
I0403 12:53:43.026480  9837 layer_factory.hpp:77] Creating layer label_data_1_split
I0403 12:53:43.026505  9837 net.cpp:91] Creating Layer label_data_1_split
I0403 12:53:43.026523  9837 net.cpp:425] label_data_1_split <- label
I0403 12:53:43.026559  9837 net.cpp:399] label_data_1_split -> label_data_1_split_0
I0403 12:53:43.026587  9837 net.cpp:399] label_data_1_split -> label_data_1_split_1
I0403 12:53:43.026608  9837 net.cpp:399] label_data_1_split -> label_data_1_split_2
I0403 12:53:43.026670  9837 net.cpp:141] Setting up label_data_1_split
I0403 12:53:43.026693  9837 net.cpp:148] Top shape: 100 (100)
I0403 12:53:43.026710  9837 net.cpp:148] Top shape: 100 (100)
I0403 12:53:43.026726  9837 net.cpp:148] Top shape: 100 (100)
I0403 12:53:43.026738  9837 net.cpp:156] Memory required for data: 61836400
I0403 12:53:43.026753  9837 layer_factory.hpp:77] Creating layer conv1
I0403 12:53:43.026784  9837 net.cpp:91] Creating Layer conv1
I0403 12:53:43.026803  9837 net.cpp:425] conv1 <- data
I0403 12:53:43.026821  9837 net.cpp:399] conv1 -> conv1
I0403 12:53:43.168073  9837 net.cpp:141] Setting up conv1
I0403 12:53:43.168162  9837 net.cpp:148] Top shape: 100 96 55 55 (29040000)
I0403 12:53:43.168179  9837 net.cpp:156] Memory required for data: 177996400
I0403 12:53:43.168210  9837 layer_factory.hpp:77] Creating layer relu1
I0403 12:53:43.168237  9837 net.cpp:91] Creating Layer relu1
I0403 12:53:43.168256  9837 net.cpp:425] relu1 <- conv1
I0403 12:53:43.168274  9837 net.cpp:386] relu1 -> conv1 (in-place)
I0403 12:53:43.168550  9837 net.cpp:141] Setting up relu1
I0403 12:53:43.168579  9837 net.cpp:148] Top shape: 100 96 55 55 (29040000)
I0403 12:53:43.168630  9837 net.cpp:156] Memory required for data: 294156400
I0403 12:53:43.168647  9837 layer_factory.hpp:77] Creating layer norm1
I0403 12:53:43.168673  9837 net.cpp:91] Creating Layer norm1
I0403 12:53:43.168690  9837 net.cpp:425] norm1 <- conv1
I0403 12:53:43.168711  9837 net.cpp:399] norm1 -> norm1
I0403 12:53:43.169067  9837 net.cpp:141] Setting up norm1
I0403 12:53:43.169095  9837 net.cpp:148] Top shape: 100 96 55 55 (29040000)
I0403 12:53:43.169111  9837 net.cpp:156] Memory required for data: 410316400
I0403 12:53:43.169126  9837 layer_factory.hpp:77] Creating layer pool1
I0403 12:53:43.169147  9837 net.cpp:91] Creating Layer pool1
I0403 12:53:43.169164  9837 net.cpp:425] pool1 <- norm1
I0403 12:53:43.169184  9837 net.cpp:399] pool1 -> pool1
I0403 12:53:43.169255  9837 net.cpp:141] Setting up pool1
I0403 12:53:43.169291  9837 net.cpp:148] Top shape: 100 96 27 27 (6998400)
I0403 12:53:43.169309  9837 net.cpp:156] Memory required for data: 438310000
I0403 12:53:43.169323  9837 layer_factory.hpp:77] Creating layer conv2
I0403 12:53:43.169351  9837 net.cpp:91] Creating Layer conv2
I0403 12:53:43.169369  9837 net.cpp:425] conv2 <- pool1
I0403 12:53:43.169387  9837 net.cpp:399] conv2 -> conv2
I0403 12:53:43.184931  9837 net.cpp:141] Setting up conv2
I0403 12:53:43.184995  9837 net.cpp:148] Top shape: 100 256 27 27 (18662400)
I0403 12:53:43.185012  9837 net.cpp:156] Memory required for data: 512959600
I0403 12:53:43.185035  9837 layer_factory.hpp:77] Creating layer relu2
I0403 12:53:43.185057  9837 net.cpp:91] Creating Layer relu2
I0403 12:53:43.185075  9837 net.cpp:425] relu2 <- conv2
I0403 12:53:43.185091  9837 net.cpp:386] relu2 -> conv2 (in-place)
I0403 12:53:43.185366  9837 net.cpp:141] Setting up relu2
I0403 12:53:43.185392  9837 net.cpp:148] Top shape: 100 256 27 27 (18662400)
I0403 12:53:43.185407  9837 net.cpp:156] Memory required for data: 587609200
I0403 12:53:43.185421  9837 layer_factory.hpp:77] Creating layer norm2
I0403 12:53:43.185443  9837 net.cpp:91] Creating Layer norm2
I0403 12:53:43.185461  9837 net.cpp:425] norm2 <- conv2
I0403 12:53:43.185478  9837 net.cpp:399] norm2 -> norm2
I0403 12:53:43.185688  9837 net.cpp:141] Setting up norm2
I0403 12:53:43.185713  9837 net.cpp:148] Top shape: 100 256 27 27 (18662400)
I0403 12:53:43.185726  9837 net.cpp:156] Memory required for data: 662258800
I0403 12:53:43.185739  9837 layer_factory.hpp:77] Creating layer pool2
I0403 12:53:43.185756  9837 net.cpp:91] Creating Layer pool2
I0403 12:53:43.185771  9837 net.cpp:425] pool2 <- norm2
I0403 12:53:43.185791  9837 net.cpp:399] pool2 -> pool2
I0403 12:53:43.185842  9837 net.cpp:141] Setting up pool2
I0403 12:53:43.185868  9837 net.cpp:148] Top shape: 100 256 13 13 (4326400)
I0403 12:53:43.185883  9837 net.cpp:156] Memory required for data: 679564400
I0403 12:53:43.185895  9837 layer_factory.hpp:77] Creating layer conv3
I0403 12:53:43.185919  9837 net.cpp:91] Creating Layer conv3
I0403 12:53:43.185935  9837 net.cpp:425] conv3 <- pool2
I0403 12:53:43.185952  9837 net.cpp:399] conv3 -> conv3
I0403 12:53:43.224644  9837 net.cpp:141] Setting up conv3
I0403 12:53:43.224719  9837 net.cpp:148] Top shape: 100 384 13 13 (6489600)
I0403 12:53:43.224735  9837 net.cpp:156] Memory required for data: 705522800
I0403 12:53:43.224761  9837 layer_factory.hpp:77] Creating layer relu3
I0403 12:53:43.224784  9837 net.cpp:91] Creating Layer relu3
I0403 12:53:43.224802  9837 net.cpp:425] relu3 <- conv3
I0403 12:53:43.224822  9837 net.cpp:386] relu3 -> conv3 (in-place)
I0403 12:53:43.225101  9837 net.cpp:141] Setting up relu3
I0403 12:53:43.225129  9837 net.cpp:148] Top shape: 100 384 13 13 (6489600)
I0403 12:53:43.225144  9837 net.cpp:156] Memory required for data: 731481200
I0403 12:53:43.225159  9837 layer_factory.hpp:77] Creating layer conv4
I0403 12:53:43.225210  9837 net.cpp:91] Creating Layer conv4
I0403 12:53:43.225232  9837 net.cpp:425] conv4 <- conv3
I0403 12:53:43.225257  9837 net.cpp:399] conv4 -> conv4
I0403 12:53:43.255712  9837 net.cpp:141] Setting up conv4
I0403 12:53:43.255779  9837 net.cpp:148] Top shape: 100 384 13 13 (6489600)
I0403 12:53:43.255831  9837 net.cpp:156] Memory required for data: 757439600
I0403 12:53:43.255852  9837 layer_factory.hpp:77] Creating layer relu4
I0403 12:53:43.255874  9837 net.cpp:91] Creating Layer relu4
I0403 12:53:43.255890  9837 net.cpp:425] relu4 <- conv4
I0403 12:53:43.255913  9837 net.cpp:386] relu4 -> conv4 (in-place)
I0403 12:53:43.256196  9837 net.cpp:141] Setting up relu4
I0403 12:53:43.256222  9837 net.cpp:148] Top shape: 100 384 13 13 (6489600)
I0403 12:53:43.256237  9837 net.cpp:156] Memory required for data: 783398000
I0403 12:53:43.256253  9837 layer_factory.hpp:77] Creating layer conv5
I0403 12:53:43.256278  9837 net.cpp:91] Creating Layer conv5
I0403 12:53:43.256296  9837 net.cpp:425] conv5 <- conv4
I0403 12:53:43.256316  9837 net.cpp:399] conv5 -> conv5
I0403 12:53:43.277362  9837 net.cpp:141] Setting up conv5
I0403 12:53:43.277418  9837 net.cpp:148] Top shape: 100 256 13 13 (4326400)
I0403 12:53:43.277434  9837 net.cpp:156] Memory required for data: 800703600
I0403 12:53:43.277459  9837 layer_factory.hpp:77] Creating layer relu5
I0403 12:53:43.277482  9837 net.cpp:91] Creating Layer relu5
I0403 12:53:43.277498  9837 net.cpp:425] relu5 <- conv5
I0403 12:53:43.277519  9837 net.cpp:386] relu5 -> conv5 (in-place)
I0403 12:53:43.277804  9837 net.cpp:141] Setting up relu5
I0403 12:53:43.277832  9837 net.cpp:148] Top shape: 100 256 13 13 (4326400)
I0403 12:53:43.277848  9837 net.cpp:156] Memory required for data: 818009200
I0403 12:53:43.277863  9837 layer_factory.hpp:77] Creating layer pool5
I0403 12:53:43.277885  9837 net.cpp:91] Creating Layer pool5
I0403 12:53:43.277902  9837 net.cpp:425] pool5 <- conv5
I0403 12:53:43.277920  9837 net.cpp:399] pool5 -> pool5
I0403 12:53:43.277983  9837 net.cpp:141] Setting up pool5
I0403 12:53:43.278007  9837 net.cpp:148] Top shape: 100 256 6 6 (921600)
I0403 12:53:43.278022  9837 net.cpp:156] Memory required for data: 821695600
I0403 12:53:43.278035  9837 layer_factory.hpp:77] Creating layer fc6
I0403 12:53:43.278061  9837 net.cpp:91] Creating Layer fc6
I0403 12:53:43.278079  9837 net.cpp:425] fc6 <- pool5
I0403 12:53:43.278100  9837 net.cpp:399] fc6 -> fc6
I0403 12:53:44.849292  9837 net.cpp:141] Setting up fc6
I0403 12:53:44.849370  9837 net.cpp:148] Top shape: 100 4096 (409600)
I0403 12:53:44.849387  9837 net.cpp:156] Memory required for data: 823334000
I0403 12:53:44.849408  9837 layer_factory.hpp:77] Creating layer relu6
I0403 12:53:44.849431  9837 net.cpp:91] Creating Layer relu6
I0403 12:53:44.849448  9837 net.cpp:425] relu6 <- fc6
I0403 12:53:44.849468  9837 net.cpp:386] relu6 -> fc6 (in-place)
I0403 12:53:44.849716  9837 net.cpp:141] Setting up relu6
I0403 12:53:44.849741  9837 net.cpp:148] Top shape: 100 4096 (409600)
I0403 12:53:44.849756  9837 net.cpp:156] Memory required for data: 824972400
I0403 12:53:44.849771  9837 layer_factory.hpp:77] Creating layer drop6
I0403 12:53:44.849788  9837 net.cpp:91] Creating Layer drop6
I0403 12:53:44.849804  9837 net.cpp:425] drop6 <- fc6
I0403 12:53:44.849823  9837 net.cpp:386] drop6 -> fc6 (in-place)
I0403 12:53:44.849875  9837 net.cpp:141] Setting up drop6
I0403 12:53:44.849901  9837 net.cpp:148] Top shape: 100 4096 (409600)
I0403 12:53:44.849917  9837 net.cpp:156] Memory required for data: 826610800
I0403 12:53:44.849932  9837 layer_factory.hpp:77] Creating layer fc7
I0403 12:53:44.849952  9837 net.cpp:91] Creating Layer fc7
I0403 12:53:44.849968  9837 net.cpp:425] fc7 <- fc6
I0403 12:53:44.849988  9837 net.cpp:399] fc7 -> fc7
I0403 12:53:45.537639  9837 net.cpp:141] Setting up fc7
I0403 12:53:45.537681  9837 net.cpp:148] Top shape: 100 4096 (409600)
I0403 12:53:45.537698  9837 net.cpp:156] Memory required for data: 828249200
I0403 12:53:45.537717  9837 layer_factory.hpp:77] Creating layer relu7
I0403 12:53:45.537737  9837 net.cpp:91] Creating Layer relu7
I0403 12:53:45.537755  9837 net.cpp:425] relu7 <- fc7
I0403 12:53:45.537775  9837 net.cpp:386] relu7 -> fc7 (in-place)
I0403 12:53:45.538182  9837 net.cpp:141] Setting up relu7
I0403 12:53:45.538208  9837 net.cpp:148] Top shape: 100 4096 (409600)
I0403 12:53:45.538264  9837 net.cpp:156] Memory required for data: 829887600
I0403 12:53:45.538280  9837 layer_factory.hpp:77] Creating layer drop7
I0403 12:53:45.538297  9837 net.cpp:91] Creating Layer drop7
I0403 12:53:45.538312  9837 net.cpp:425] drop7 <- fc7
I0403 12:53:45.538331  9837 net.cpp:386] drop7 -> fc7 (in-place)
I0403 12:53:45.538386  9837 net.cpp:141] Setting up drop7
I0403 12:53:45.538410  9837 net.cpp:148] Top shape: 100 4096 (409600)
I0403 12:53:45.538425  9837 net.cpp:156] Memory required for data: 831526000
I0403 12:53:45.538439  9837 layer_factory.hpp:77] Creating layer fc8_plantvillage
I0403 12:53:45.538457  9837 net.cpp:91] Creating Layer fc8_plantvillage
I0403 12:53:45.538472  9837 net.cpp:425] fc8_plantvillage <- fc7
I0403 12:53:45.538491  9837 net.cpp:399] fc8_plantvillage -> fc8_plantvillage
I0403 12:53:45.545193  9837 net.cpp:141] Setting up fc8_plantvillage
I0403 12:53:45.545222  9837 net.cpp:148] Top shape: 100 38 (3800)
I0403 12:53:45.545236  9837 net.cpp:156] Memory required for data: 831541200
I0403 12:53:45.545253  9837 layer_factory.hpp:77] Creating layer fc8_plantvillage_fc8_plantvillage_0_split
I0403 12:53:45.545272  9837 net.cpp:91] Creating Layer fc8_plantvillage_fc8_plantvillage_0_split
I0403 12:53:45.545287  9837 net.cpp:425] fc8_plantvillage_fc8_plantvillage_0_split <- fc8_plantvillage
I0403 12:53:45.545303  9837 net.cpp:399] fc8_plantvillage_fc8_plantvillage_0_split -> fc8_plantvillage_fc8_plantvillage_0_split_0
I0403 12:53:45.545322  9837 net.cpp:399] fc8_plantvillage_fc8_plantvillage_0_split -> fc8_plantvillage_fc8_plantvillage_0_split_1
I0403 12:53:45.545341  9837 net.cpp:399] fc8_plantvillage_fc8_plantvillage_0_split -> fc8_plantvillage_fc8_plantvillage_0_split_2
I0403 12:53:45.545415  9837 net.cpp:141] Setting up fc8_plantvillage_fc8_plantvillage_0_split
I0403 12:53:45.545440  9837 net.cpp:148] Top shape: 100 38 (3800)
I0403 12:53:45.545456  9837 net.cpp:148] Top shape: 100 38 (3800)
I0403 12:53:45.545471  9837 net.cpp:148] Top shape: 100 38 (3800)
I0403 12:53:45.545485  9837 net.cpp:156] Memory required for data: 831586800
I0403 12:53:45.545497  9837 layer_factory.hpp:77] Creating layer prob
I0403 12:53:45.545516  9837 net.cpp:91] Creating Layer prob
I0403 12:53:45.545531  9837 net.cpp:425] prob <- fc8_plantvillage_fc8_plantvillage_0_split_0
I0403 12:53:45.545569  9837 net.cpp:399] prob -> prob
I0403 12:53:45.545811  9837 net.cpp:141] Setting up prob
I0403 12:53:45.545837  9837 net.cpp:148] Top shape: 100 38 (3800)
I0403 12:53:45.545852  9837 net.cpp:156] Memory required for data: 831602000
I0403 12:53:45.545867  9837 layer_factory.hpp:77] Creating layer hdf5out
I0403 12:53:45.545886  9837 net.cpp:91] Creating Layer hdf5out
I0403 12:53:45.545907  9837 net.cpp:425] hdf5out <- prob
I0403 12:53:45.545934  9837 net.cpp:425] hdf5out <- label_data_1_split_0
I0403 12:53:45.548271  9837 net.cpp:141] Setting up hdf5out
…
