…
I0403 12:50:52.109817  9757 net.cpp:313] The NetState phase (1) differed from the phase (0) specified by a rule in layer data
I0403 12:50:52.110123  9757 net.cpp:49] Initializing net from parameters: 
state {
  phase: TEST
}
layer {
  name: "data"
  type: "Data"
  top: "data"
  top: "label"
  include {
    phase: TEST
  }
  transform_param {
    crop_size: 227
    mean_file: "/home/mohanty/data/final_dataset/lmdb/grayscale-50-50/mean.binaryproto"
  }
  data_param {
    source: "/home/mohanty/data/final_dataset/lmdb/grayscale-50-50/test_db"
    batch_size: 100
    backend: LMDB
  }
}
layer {
  name: "conv1"
  type: "Convolution"
  bottom: "data"
  top: "conv1"
  param {
    lr_mult: 1
    decay_mult: 1
  }
  param {
    lr_mult: 2
    decay_mult: 0
  }
  convolution_param {
    num_output: 96
    kernel_size: 11
    stride: 4
    weight_filler {
      type: "gaussian"
      std: 0.01
    }
    bias_filler {
      type: "constant"
      value: 0
    }
  }
}
layer {
  name: "relu1"
  type: "ReLU"
  bottom: "conv1"
  top: "conv1"
}
layer {
  name: "norm1"
  type: "LRN"
  bottom: "conv1"
  top: "norm1"
  lrn_param {
    local_size: 5
    alpha: 0.0001
    beta: 0.75
  }
}
layer {
  name: "pool1"
  type: "Pooling"
  bottom: "norm1"
  top: "pool1"
  pooling_param {
    pool: MAX
    kernel_size: 3
    stride: 2
  }
}
layer {
  name: "conv2"
  type: "Convolution"
  bottom: "pool1"
  top: "conv2"
  param {
    lr_mult: 1
    decay_mult: 1
  }
  param {
    lr_mult: 2
    decay_mult: 0
  }
  convolution_param {
    num_output: 256
    pad: 2
    kernel_size: 5
    group: 2
    weight_filler {
      type: "gaussian"
      std: 0.01
    }
    bias_filler {
      type: "constant"
      value: 0.1
    }
  }
}
layer {
  name: "relu2"
  type: "ReLU"
  bottom: "conv2"
  top: "conv2"
}
layer {
  name: "norm2"
  type: "LRN"
  bottom: "conv2"
  top: "norm2"
  lrn_param {
    local_size: 5
    alpha: 0.0001
    beta: 0.75
  }
}
layer {
  name: "pool2"
  type: "Pooling"
  bottom: "norm2"
  top: "pool2"
  pooling_param {
    pool: MAX
    kernel_size: 3
    stride: 2
  }
}
layer {
  name: "conv3"
  type: "Convolution"
  bottom: "pool2"
  top: "conv3"
  param {
    lr_mult: 1
    decay_mult: 1
  }
  param {
    lr_mult: 2
    decay_mult: 0
  }
  convolution_param {
    num_output: 384
    pad: 1
    kernel_size: 3
    weight_filler {
      type: "gaussian"
      std: 0.01
    }
    bias_filler {
      type: "constant"
      value: 0
    }
  }
}
layer {
  name: "relu3"
  type: "ReLU"
  bottom: "conv3"
  top: "conv3"
}
layer {
  name: "conv4"
  type: "Convolution"
  bottom: "conv3"
  top: "conv4"
  param {
    lr_mult: 1
    decay_mult: 1
  }
  param {
    lr_mult: 2
    decay_mult: 0
  }
  convolution_param {
    num_output: 384
    pad: 1
    kernel_size: 3
    group: 2
    weight_filler {
      type: "gaussian"
      std: 0.01
    }
    bias_filler {
      type: "constant"
      value: 0.1
    }
  }
}
layer {
  name: "relu4"
  type: "ReLU"
  bottom: "conv4"
  top: "conv4"
}
layer {
  name: "conv5"
  type: "Convolution"
  bottom: "conv4"
  top: "conv5"
  param {
    lr_mult: 1
    decay_mult: 1
  }
  param {
    lr_mult: 2
    decay_mult: 0
  }
  convolution_param {
    num_output: 256
    pad: 1
    kernel_size: 3
    group: 2
    weight_filler {
      type: "gaussian"
      std: 0.01
    }
    bias_filler {
      type: "constant"
      value: 0.1
    }
  }
}
layer {
  name: "relu5"
  type: "ReLU"
  bottom: "conv5"
  top: "conv5"
}
layer {
  name: "pool5"
  type: "Pooling"
  bottom: "conv5"
  top: "pool5"
  pooling_param {
    pool: MAX
    kernel_size: 3
    stride: 2
  }
}
layer {
  name: "fc6"
  type: "InnerProduct"
  bottom: "pool5"
  top: "fc6"
  param {
    lr_mult: 1
    decay_mult: 1
  }
  param {
    lr_mult: 2
    decay_mult: 0
  }
  inner_product_param {
    num_output: 4096
    weight_filler {
      type: "gaussian"
      std: 0.005
    }
    bias_filler {
      type: "constant"
      value: 0.1
    }
  }
}
layer {
  name: "relu6"
  type: "ReLU"
  bottom: "fc6"
  top: "fc6"
}
layer {
  name: "drop6"
  type: "Dropout"
  bottom: "fc6"
  top: "fc6"
  dropout_param {
    dropout_ratio: 0.5
  }
}
layer {
  name: "fc7"
  type: "InnerProduct"
  bottom: "fc6"
  top: "fc7"
  param {
    lr_mult: 1
    decay_mult: 1
  }
  param {
    lr_mult: 2
    decay_mult: 0
  }
  inner_product_param {
    num_output: 4096
    weight_filler {
      type: "gaussian"
      std: 0.005
    }
    bias_filler {
      type: "constant"
      value: 0.1
    }
  }
}
layer {
  name: "relu7"
  type: "ReLU"
  bottom: "fc7"
  top: "fc7"
}
layer {
  name: "drop7"
  type: "Dropout"
  bottom: "fc7"
  top: "fc7"
  dropout_param {
    dropout_ratio: 0.5
  }
}
layer {
  name: "fc8_plantvillage"
  type: "InnerProduct"
  bottom: "fc7"
  top: "fc8_plantvillage"
  param {
    lr_mult: 1
    decay_mult: 1
  }
  param {
    lr_mult: 2
    decay_mult: 0
  }
  inner_product_param {
    num_output: 38
    weight_filler {
      type: "gaussian"
      std: 0.01
    }
    bias_filler {
      type: "constant"
      value: 0
    }
  }
}
layer {
  name: "prob"
  type: "Softmax"
  bottom: "fc8_plantvillage"
  top: "prob"
  include {
    phase: TEST
  }
}
layer {
  name: "hdf5out"
  type: "HDF5Output"
  bottom: "prob"
  bottom: "label"
  include {
    phase: TEST
  }
  hdf5_output_param {
    file_name: "hdf5_dumps/iter_1068.h5"
  }
}
layer {
  name: "loss"
  type: "SoftmaxWithLoss"
  bottom: "fc8_plantvillage"
  bottom: "label"
  top: "loss"
}
layer {
  name: "accuracy"
  type: "Accuracy"
  bottom: "fc8_plantvillage"
  bottom: "label"
  top: "accuracy"
  include {
    phase: TEST
  }
}
I0403 12:50:52.110700  9757 layer_factory.hpp:77] Creating layer data
I0403 12:50:52.111361  9757 net.cpp:91] Creating Layer data
I0403 12:50:52.111395  9757 net.cpp:399] data -> data
I0403 12:50:52.111448  9757 net.cpp:399] data -> label
I0403 12:50:52.111485  9757 data_transformer.cpp:25] Loading mean file from: /home/mohanty/data/final_dataset/lmdb/grayscale-50-50/mean.binaryproto
I0403 12:50:52.112681  9760 db_lmdb.cpp:38] Opened lmdb /home/mohanty/data/final_dataset/lmdb/grayscale-50-50/test_db
I0403 12:50:52.125994  9757 data_layer.cpp:41] output data size: 100,3,227,227
I0403 12:50:52.242632  9757 net.cpp:141] Setting up data
I0403 12:50:52.242725  9757 net.cpp:148] Top shape: 100 3 227 227 (15458700)
I0403 12:50:52.242748  9757 net.cpp:148] Top shape: 100 (100)
I0403 12:50:52.242763  9757 net.cpp:156] Memory required for data: 61835200
I0403 12:50:52.242791  9757 layer_factory.hpp:77] Creating layer label_data_1_split
I0403 12:50:52.242816  9757 net.cpp:91] Creating Layer label_data_1_split
I0403 12:50:52.242835  9757 net.cpp:425] label_data_1_split <- label
I0403 12:50:52.242866  9757 net.cpp:399] label_data_1_split -> label_data_1_split_0
I0403 12:50:52.242893  9757 net.cpp:399] label_data_1_split -> label_data_1_split_1
I0403 12:50:52.242913  9757 net.cpp:399] label_data_1_split -> label_data_1_split_2
I0403 12:50:52.242976  9757 net.cpp:141] Setting up label_data_1_split
I0403 12:50:52.243000  9757 net.cpp:148] Top shape: 100 (100)
I0403 12:50:52.243016  9757 net.cpp:148] Top shape: 100 (100)
I0403 12:50:52.243033  9757 net.cpp:148] Top shape: 100 (100)
I0403 12:50:52.243047  9757 net.cpp:156] Memory required for data: 61836400
I0403 12:50:52.243062  9757 layer_factory.hpp:77] Creating layer conv1
I0403 12:50:52.243093  9757 net.cpp:91] Creating Layer conv1
I0403 12:50:52.243110  9757 net.cpp:425] conv1 <- data
I0403 12:50:52.243130  9757 net.cpp:399] conv1 -> conv1
I0403 12:50:52.382164  9757 net.cpp:141] Setting up conv1
I0403 12:50:52.382246  9757 net.cpp:148] Top shape: 100 96 55 55 (29040000)
I0403 12:50:52.382263  9757 net.cpp:156] Memory required for data: 177996400
I0403 12:50:52.382295  9757 layer_factory.hpp:77] Creating layer relu1
I0403 12:50:52.382324  9757 net.cpp:91] Creating Layer relu1
I0403 12:50:52.382344  9757 net.cpp:425] relu1 <- conv1
I0403 12:50:52.382362  9757 net.cpp:386] relu1 -> conv1 (in-place)
I0403 12:50:52.382634  9757 net.cpp:141] Setting up relu1
I0403 12:50:52.382663  9757 net.cpp:148] Top shape: 100 96 55 55 (29040000)
I0403 12:50:52.382715  9757 net.cpp:156] Memory required for data: 294156400
I0403 12:50:52.382731  9757 layer_factory.hpp:77] Creating layer norm1
I0403 12:50:52.382758  9757 net.cpp:91] Creating Layer norm1
I0403 12:50:52.382777  9757 net.cpp:425] norm1 <- conv1
I0403 12:50:52.382794  9757 net.cpp:399] norm1 -> norm1
I0403 12:50:52.383111  9757 net.cpp:141] Setting up norm1
I0403 12:50:52.383139  9757 net.cpp:148] Top shape: 100 96 55 55 (29040000)
I0403 12:50:52.383157  9757 net.cpp:156] Memory required for data: 410316400
I0403 12:50:52.383172  9757 layer_factory.hpp:77] Creating layer pool1
I0403 12:50:52.383194  9757 net.cpp:91] Creating Layer pool1
I0403 12:50:52.383213  9757 net.cpp:425] pool1 <- norm1
I0403 12:50:52.383229  9757 net.cpp:399] pool1 -> pool1
I0403 12:50:52.383299  9757 net.cpp:141] Setting up pool1
I0403 12:50:52.383325  9757 net.cpp:148] Top shape: 100 96 27 27 (6998400)
I0403 12:50:52.383342  9757 net.cpp:156] Memory required for data: 438310000
I0403 12:50:52.383358  9757 layer_factory.hpp:77] Creating layer conv2
I0403 12:50:52.383381  9757 net.cpp:91] Creating Layer conv2
I0403 12:50:52.383399  9757 net.cpp:425] conv2 <- pool1
I0403 12:50:52.383417  9757 net.cpp:399] conv2 -> conv2
I0403 12:50:52.399024  9757 net.cpp:141] Setting up conv2
I0403 12:50:52.399077  9757 net.cpp:148] Top shape: 100 256 27 27 (18662400)
I0403 12:50:52.399096  9757 net.cpp:156] Memory required for data: 512959600
I0403 12:50:52.399118  9757 layer_factory.hpp:77] Creating layer relu2
I0403 12:50:52.399140  9757 net.cpp:91] Creating Layer relu2
I0403 12:50:52.399158  9757 net.cpp:425] relu2 <- conv2
I0403 12:50:52.399178  9757 net.cpp:386] relu2 -> conv2 (in-place)
I0403 12:50:52.399490  9757 net.cpp:141] Setting up relu2
I0403 12:50:52.399523  9757 net.cpp:148] Top shape: 100 256 27 27 (18662400)
I0403 12:50:52.399538  9757 net.cpp:156] Memory required for data: 587609200
I0403 12:50:52.399554  9757 layer_factory.hpp:77] Creating layer norm2
I0403 12:50:52.399577  9757 net.cpp:91] Creating Layer norm2
I0403 12:50:52.399595  9757 net.cpp:425] norm2 <- conv2
I0403 12:50:52.399612  9757 net.cpp:399] norm2 -> norm2
I0403 12:50:52.399811  9757 net.cpp:141] Setting up norm2
I0403 12:50:52.399839  9757 net.cpp:148] Top shape: 100 256 27 27 (18662400)
I0403 12:50:52.399857  9757 net.cpp:156] Memory required for data: 662258800
I0403 12:50:52.399871  9757 layer_factory.hpp:77] Creating layer pool2
I0403 12:50:52.399889  9757 net.cpp:91] Creating Layer pool2
I0403 12:50:52.399904  9757 net.cpp:425] pool2 <- norm2
I0403 12:50:52.399924  9757 net.cpp:399] pool2 -> pool2
I0403 12:50:52.399976  9757 net.cpp:141] Setting up pool2
I0403 12:50:52.400002  9757 net.cpp:148] Top shape: 100 256 13 13 (4326400)
I0403 12:50:52.400017  9757 net.cpp:156] Memory required for data: 679564400
I0403 12:50:52.400030  9757 layer_factory.hpp:77] Creating layer conv3
I0403 12:50:52.400055  9757 net.cpp:91] Creating Layer conv3
I0403 12:50:52.400073  9757 net.cpp:425] conv3 <- pool2
I0403 12:50:52.400094  9757 net.cpp:399] conv3 -> conv3
I0403 12:50:52.439080  9757 net.cpp:141] Setting up conv3
I0403 12:50:52.439157  9757 net.cpp:148] Top shape: 100 384 13 13 (6489600)
I0403 12:50:52.439173  9757 net.cpp:156] Memory required for data: 705522800
I0403 12:50:52.439199  9757 layer_factory.hpp:77] Creating layer relu3
I0403 12:50:52.439223  9757 net.cpp:91] Creating Layer relu3
I0403 12:50:52.439239  9757 net.cpp:425] relu3 <- conv3
I0403 12:50:52.439262  9757 net.cpp:386] relu3 -> conv3 (in-place)
I0403 12:50:52.439545  9757 net.cpp:141] Setting up relu3
I0403 12:50:52.439574  9757 net.cpp:148] Top shape: 100 384 13 13 (6489600)
I0403 12:50:52.439589  9757 net.cpp:156] Memory required for data: 731481200
I0403 12:50:52.439604  9757 layer_factory.hpp:77] Creating layer conv4
I0403 12:50:52.439630  9757 net.cpp:91] Creating Layer conv4
I0403 12:50:52.439648  9757 net.cpp:425] conv4 <- conv3
I0403 12:50:52.439669  9757 net.cpp:399] conv4 -> conv4
I0403 12:50:52.470150  9757 net.cpp:141] Setting up conv4
I0403 12:50:52.470226  9757 net.cpp:148] Top shape: 100 384 13 13 (6489600)
I0403 12:50:52.470274  9757 net.cpp:156] Memory required for data: 757439600
I0403 12:50:52.470296  9757 layer_factory.hpp:77] Creating layer relu4
I0403 12:50:52.470319  9757 net.cpp:91] Creating Layer relu4
I0403 12:50:52.470336  9757 net.cpp:425] relu4 <- conv4
I0403 12:50:52.470355  9757 net.cpp:386] relu4 -> conv4 (in-place)
I0403 12:50:52.470641  9757 net.cpp:141] Setting up relu4
I0403 12:50:52.470671  9757 net.cpp:148] Top shape: 100 384 13 13 (6489600)
I0403 12:50:52.470688  9757 net.cpp:156] Memory required for data: 783398000
I0403 12:50:52.470703  9757 layer_factory.hpp:77] Creating layer conv5
I0403 12:50:52.470731  9757 net.cpp:91] Creating Layer conv5
I0403 12:50:52.470748  9757 net.cpp:425] conv5 <- conv4
I0403 12:50:52.470767  9757 net.cpp:399] conv5 -> conv5
I0403 12:50:52.491684  9757 net.cpp:141] Setting up conv5
I0403 12:50:52.491730  9757 net.cpp:148] Top shape: 100 256 13 13 (4326400)
I0403 12:50:52.491749  9757 net.cpp:156] Memory required for data: 800703600
I0403 12:50:52.491773  9757 layer_factory.hpp:77] Creating layer relu5
I0403 12:50:52.491794  9757 net.cpp:91] Creating Layer relu5
I0403 12:50:52.491811  9757 net.cpp:425] relu5 <- conv5
I0403 12:50:52.491832  9757 net.cpp:386] relu5 -> conv5 (in-place)
I0403 12:50:52.492118  9757 net.cpp:141] Setting up relu5
I0403 12:50:52.492147  9757 net.cpp:148] Top shape: 100 256 13 13 (4326400)
I0403 12:50:52.492164  9757 net.cpp:156] Memory required for data: 818009200
I0403 12:50:52.492179  9757 layer_factory.hpp:77] Creating layer pool5
I0403 12:50:52.492203  9757 net.cpp:91] Creating Layer pool5
I0403 12:50:52.492220  9757 net.cpp:425] pool5 <- conv5
I0403 12:50:52.492238  9757 net.cpp:399] pool5 -> pool5
I0403 12:50:52.492301  9757 net.cpp:141] Setting up pool5
I0403 12:50:52.492326  9757 net.cpp:148] Top shape: 100 256 6 6 (921600)
I0403 12:50:52.492341  9757 net.cpp:156] Memory required for data: 821695600
I0403 12:50:52.492355  9757 layer_factory.hpp:77] Creating layer fc6
I0403 12:50:52.492382  9757 net.cpp:91] Creating Layer fc6
I0403 12:50:52.492399  9757 net.cpp:425] fc6 <- pool5
I0403 12:50:52.492419  9757 net.cpp:399] fc6 -> fc6
I0403 12:50:54.072491  9757 net.cpp:141] Setting up fc6
I0403 12:50:54.072585  9757 net.cpp:148] Top shape: 100 4096 (409600)
I0403 12:50:54.072602  9757 net.cpp:156] Memory required for data: 823334000
I0403 12:50:54.072624  9757 layer_factory.hpp:77] Creating layer relu6
I0403 12:50:54.072645  9757 net.cpp:91] Creating Layer relu6
I0403 12:50:54.072664  9757 net.cpp:425] relu6 <- fc6
I0403 12:50:54.072682  9757 net.cpp:386] relu6 -> fc6 (in-place)
I0403 12:50:54.072897  9757 net.cpp:141] Setting up relu6
I0403 12:50:54.072926  9757 net.cpp:148] Top shape: 100 4096 (409600)
I0403 12:50:54.072942  9757 net.cpp:156] Memory required for data: 824972400
I0403 12:50:54.072957  9757 layer_factory.hpp:77] Creating layer drop6
I0403 12:50:54.072974  9757 net.cpp:91] Creating Layer drop6
I0403 12:50:54.072989  9757 net.cpp:425] drop6 <- fc6
I0403 12:50:54.073009  9757 net.cpp:386] drop6 -> fc6 (in-place)
I0403 12:50:54.073060  9757 net.cpp:141] Setting up drop6
I0403 12:50:54.073083  9757 net.cpp:148] Top shape: 100 4096 (409600)
I0403 12:50:54.073097  9757 net.cpp:156] Memory required for data: 826610800
I0403 12:50:54.073112  9757 layer_factory.hpp:77] Creating layer fc7
I0403 12:50:54.073132  9757 net.cpp:91] Creating Layer fc7
I0403 12:50:54.073149  9757 net.cpp:425] fc7 <- fc6
I0403 12:50:54.073168  9757 net.cpp:399] fc7 -> fc7
I0403 12:50:54.769001  9757 net.cpp:141] Setting up fc7
I0403 12:50:54.769074  9757 net.cpp:148] Top shape: 100 4096 (409600)
I0403 12:50:54.769091  9757 net.cpp:156] Memory required for data: 828249200
I0403 12:50:54.769112  9757 layer_factory.hpp:77] Creating layer relu7
I0403 12:50:54.769135  9757 net.cpp:91] Creating Layer relu7
I0403 12:50:54.769153  9757 net.cpp:425] relu7 <- fc7
I0403 12:50:54.769173  9757 net.cpp:386] relu7 -> fc7 (in-place)
I0403 12:50:54.769613  9757 net.cpp:141] Setting up relu7
I0403 12:50:54.769642  9757 net.cpp:148] Top shape: 100 4096 (409600)
I0403 12:50:54.769693  9757 net.cpp:156] Memory required for data: 829887600
I0403 12:50:54.769711  9757 layer_factory.hpp:77] Creating layer drop7
I0403 12:50:54.769731  9757 net.cpp:91] Creating Layer drop7
I0403 12:50:54.769747  9757 net.cpp:425] drop7 <- fc7
I0403 12:50:54.769764  9757 net.cpp:386] drop7 -> fc7 (in-place)
I0403 12:50:54.769814  9757 net.cpp:141] Setting up drop7
I0403 12:50:54.769850  9757 net.cpp:148] Top shape: 100 4096 (409600)
I0403 12:50:54.769875  9757 net.cpp:156] Memory required for data: 831526000
I0403 12:50:54.769888  9757 layer_factory.hpp:77] Creating layer fc8_plantvillage
I0403 12:50:54.769911  9757 net.cpp:91] Creating Layer fc8_plantvillage
I0403 12:50:54.769927  9757 net.cpp:425] fc8_plantvillage <- fc7
I0403 12:50:54.769945  9757 net.cpp:399] fc8_plantvillage -> fc8_plantvillage
I0403 12:50:54.777029  9757 net.cpp:141] Setting up fc8_plantvillage
I0403 12:50:54.777060  9757 net.cpp:148] Top shape: 100 38 (3800)
I0403 12:50:54.777076  9757 net.cpp:156] Memory required for data: 831541200
I0403 12:50:54.777094  9757 layer_factory.hpp:77] Creating layer fc8_plantvillage_fc8_plantvillage_0_split
I0403 12:50:54.777113  9757 net.cpp:91] Creating Layer fc8_plantvillage_fc8_plantvillage_0_split
I0403 12:50:54.777129  9757 net.cpp:425] fc8_plantvillage_fc8_plantvillage_0_split <- fc8_plantvillage
I0403 12:50:54.777150  9757 net.cpp:399] fc8_plantvillage_fc8_plantvillage_0_split -> fc8_plantvillage_fc8_plantvillage_0_split_0
I0403 12:50:54.777171  9757 net.cpp:399] fc8_plantvillage_fc8_plantvillage_0_split -> fc8_plantvillage_fc8_plantvillage_0_split_1
I0403 12:50:54.777192  9757 net.cpp:399] fc8_plantvillage_fc8_plantvillage_0_split -> fc8_plantvillage_fc8_plantvillage_0_split_2
I0403 12:50:54.777273  9757 net.cpp:141] Setting up fc8_plantvillage_fc8_plantvillage_0_split
I0403 12:50:54.777302  9757 net.cpp:148] Top shape: 100 38 (3800)
I0403 12:50:54.777319  9757 net.cpp:148] Top shape: 100 38 (3800)
I0403 12:50:54.777336  9757 net.cpp:148] Top shape: 100 38 (3800)
I0403 12:50:54.777350  9757 net.cpp:156] Memory required for data: 831586800
I0403 12:50:54.777365  9757 layer_factory.hpp:77] Creating layer prob
I0403 12:50:54.777384  9757 net.cpp:91] Creating Layer prob
I0403 12:50:54.777400  9757 net.cpp:425] prob <- fc8_plantvillage_fc8_plantvillage_0_split_0
I0403 12:50:54.777418  9757 net.cpp:399] prob -> prob
I0403 12:50:54.777663  9757 net.cpp:141] Setting up prob
I0403 12:50:54.777695  9757 net.cpp:148] Top shape: 100 38 (3800)
I0403 12:50:54.777712  9757 net.cpp:156] Memory required for data: 831602000
I0403 12:50:54.777729  9757 layer_factory.hpp:77] Creating layer hdf5out
I0403 12:50:54.777747  9757 net.cpp:91] Creating Layer hdf5out
I0403 12:50:54.777763  9757 net.cpp:425] hdf5out <- prob
I0403 12:50:54.777779  9757 net.cpp:425] hdf5out <- label_data_1_split_0
I0403 12:50:54.780133  9757 net.cpp:141] Setting up hdf5out
…
