…
I0403 13:06:08.980660 10195 net.cpp:313] The NetState phase (1) differed from the phase (0) specified by a rule in layer data
I0403 13:06:08.980965 10195 net.cpp:49] Initializing net from parameters: 
state {
  phase: TEST
}
layer {
  name: "data"
  type: "Data"
  top: "data"
  top: "label"
  include {
    phase: TEST
  }
  transform_param {
    crop_size: 227
    mean_file: "/home/mohanty/data/final_dataset/lmdb/grayscale-50-50/mean.binaryproto"
  }
  data_param {
    source: "/home/mohanty/data/final_dataset/lmdb/grayscale-50-50/test_db"
    batch_size: 100
    backend: LMDB
  }
}
layer {
  name: "conv1"
  type: "Convolution"
  bottom: "data"
  top: "conv1"
  param {
    lr_mult: 1
    decay_mult: 1
  }
  param {
    lr_mult: 2
    decay_mult: 0
  }
  convolution_param {
    num_output: 96
    kernel_size: 11
    stride: 4
    weight_filler {
      type: "gaussian"
      std: 0.01
    }
    bias_filler {
      type: "constant"
      value: 0
    }
  }
}
layer {
  name: "relu1"
  type: "ReLU"
  bottom: "conv1"
  top: "conv1"
}
layer {
  name: "norm1"
  type: "LRN"
  bottom: "conv1"
  top: "norm1"
  lrn_param {
    local_size: 5
    alpha: 0.0001
    beta: 0.75
  }
}
layer {
  name: "pool1"
  type: "Pooling"
  bottom: "norm1"
  top: "pool1"
  pooling_param {
    pool: MAX
    kernel_size: 3
    stride: 2
  }
}
layer {
  name: "conv2"
  type: "Convolution"
  bottom: "pool1"
  top: "conv2"
  param {
    lr_mult: 1
    decay_mult: 1
  }
  param {
    lr_mult: 2
    decay_mult: 0
  }
  convolution_param {
    num_output: 256
    pad: 2
    kernel_size: 5
    group: 2
    weight_filler {
      type: "gaussian"
      std: 0.01
    }
    bias_filler {
      type: "constant"
      value: 0.1
    }
  }
}
layer {
  name: "relu2"
  type: "ReLU"
  bottom: "conv2"
  top: "conv2"
}
layer {
  name: "norm2"
  type: "LRN"
  bottom: "conv2"
  top: "norm2"
  lrn_param {
    local_size: 5
    alpha: 0.0001
    beta: 0.75
  }
}
layer {
  name: "pool2"
  type: "Pooling"
  bottom: "norm2"
  top: "pool2"
  pooling_param {
    pool: MAX
    kernel_size: 3
    stride: 2
  }
}
layer {
  name: "conv3"
  type: "Convolution"
  bottom: "pool2"
  top: "conv3"
  param {
    lr_mult: 1
    decay_mult: 1
  }
  param {
    lr_mult: 2
    decay_mult: 0
  }
  convolution_param {
    num_output: 384
    pad: 1
    kernel_size: 3
    weight_filler {
      type: "gaussian"
      std: 0.01
    }
    bias_filler {
      type: "constant"
      value: 0
    }
  }
}
layer {
  name: "relu3"
  type: "ReLU"
  bottom: "conv3"
  top: "conv3"
}
layer {
  name: "conv4"
  type: "Convolution"
  bottom: "conv3"
  top: "conv4"
  param {
    lr_mult: 1
    decay_mult: 1
  }
  param {
    lr_mult: 2
    decay_mult: 0
  }
  convolution_param {
    num_output: 384
    pad: 1
    kernel_size: 3
    group: 2
    weight_filler {
      type: "gaussian"
      std: 0.01
    }
    bias_filler {
      type: "constant"
      value: 0.1
    }
  }
}
layer {
  name: "relu4"
  type: "ReLU"
  bottom: "conv4"
  top: "conv4"
}
layer {
  name: "conv5"
  type: "Convolution"
  bottom: "conv4"
  top: "conv5"
  param {
    lr_mult: 1
    decay_mult: 1
  }
  param {
    lr_mult: 2
    decay_mult: 0
  }
  convolution_param {
    num_output: 256
    pad: 1
    kernel_size: 3
    group: 2
    weight_filler {
      type: "gaussian"
      std: 0.01
    }
    bias_filler {
      type: "constant"
      value: 0.1
    }
  }
}
layer {
  name: "relu5"
  type: "ReLU"
  bottom: "conv5"
  top: "conv5"
}
layer {
  name: "pool5"
  type: "Pooling"
  bottom: "conv5"
  top: "pool5"
  pooling_param {
    pool: MAX
    kernel_size: 3
    stride: 2
  }
}
layer {
  name: "fc6"
  type: "InnerProduct"
  bottom: "pool5"
  top: "fc6"
  param {
    lr_mult: 1
    decay_mult: 1
  }
  param {
    lr_mult: 2
    decay_mult: 0
  }
  inner_product_param {
    num_output: 4096
    weight_filler {
      type: "gaussian"
      std: 0.005
    }
    bias_filler {
      type: "constant"
      value: 0.1
    }
  }
}
layer {
  name: "relu6"
  type: "ReLU"
  bottom: "fc6"
  top: "fc6"
}
layer {
  name: "drop6"
  type: "Dropout"
  bottom: "fc6"
  top: "fc6"
  dropout_param {
    dropout_ratio: 0.5
  }
}
layer {
  name: "fc7"
  type: "InnerProduct"
  bottom: "fc6"
  top: "fc7"
  param {
    lr_mult: 1
    decay_mult: 1
  }
  param {
    lr_mult: 2
    decay_mult: 0
  }
  inner_product_param {
    num_output: 4096
    weight_filler {
      type: "gaussian"
      std: 0.005
    }
    bias_filler {
      type: "constant"
      value: 0.1
    }
  }
}
layer {
  name: "relu7"
  type: "ReLU"
  bottom: "fc7"
  top: "fc7"
}
layer {
  name: "drop7"
  type: "Dropout"
  bottom: "fc7"
  top: "fc7"
  dropout_param {
    dropout_ratio: 0.5
  }
}
layer {
  name: "fc8_plantvillage"
  type: "InnerProduct"
  bottom: "fc7"
  top: "fc8_plantvillage"
  param {
    lr_mult: 1
    decay_mult: 1
  }
  param {
    lr_mult: 2
    decay_mult: 0
  }
  inner_product_param {
    num_output: 38
    weight_filler {
      type: "gaussian"
      std: 0.01
    }
    bias_filler {
      type: "constant"
      value: 0
    }
  }
}
layer {
  name: "prob"
  type: "Softmax"
  bottom: "fc8_plantvillage"
  top: "prob"
  include {
    phase: TEST
  }
}
layer {
  name: "hdf5out"
  type: "HDF5Output"
  bottom: "prob"
  bottom: "label"
  include {
    phase: TEST
  }
  hdf5_output_param {
    file_name: "hdf5_dumps/iter_5340.h5"
  }
}
layer {
  name: "loss"
  type: "SoftmaxWithLoss"
  bottom: "fc8_plantvillage"
  bottom: "label"
  top: "loss"
}
layer {
  name: "accuracy"
  type: "Accuracy"
  bottom: "fc8_plantvillage"
  bottom: "label"
  top: "accuracy"
  include {
    phase: TEST
  }
}
I0403 13:06:08.981551 10195 layer_factory.hpp:77] Creating layer data
I0403 13:06:08.982213 10195 net.cpp:91] Creating Layer data
I0403 13:06:08.982244 10195 net.cpp:399] data -> data
I0403 13:06:08.982296 10195 net.cpp:399] data -> label
I0403 13:06:08.982333 10195 data_transformer.cpp:25] Loading mean file from: /home/mohanty/data/final_dataset/lmdb/grayscale-50-50/mean.binaryproto
I0403 13:06:08.983526 10198 db_lmdb.cpp:38] Opened lmdb /home/mohanty/data/final_dataset/lmdb/grayscale-50-50/test_db
I0403 13:06:08.997051 10195 data_layer.cpp:41] output data size: 100,3,227,227
I0403 13:06:09.118080 10195 net.cpp:141] Setting up data
I0403 13:06:09.118175 10195 net.cpp:148] Top shape: 100 3 227 227 (15458700)
I0403 13:06:09.118197 10195 net.cpp:148] Top shape: 100 (100)
I0403 13:06:09.118212 10195 net.cpp:156] Memory required for data: 61835200
I0403 13:06:09.118242 10195 layer_factory.hpp:77] Creating layer label_data_1_split
I0403 13:06:09.118268 10195 net.cpp:91] Creating Layer label_data_1_split
I0403 13:06:09.118285 10195 net.cpp:425] label_data_1_split <- label
I0403 13:06:09.118317 10195 net.cpp:399] label_data_1_split -> label_data_1_split_0
I0403 13:06:09.118345 10195 net.cpp:399] label_data_1_split -> label_data_1_split_1
I0403 13:06:09.118366 10195 net.cpp:399] label_data_1_split -> label_data_1_split_2
I0403 13:06:09.118432 10195 net.cpp:141] Setting up label_data_1_split
I0403 13:06:09.118454 10195 net.cpp:148] Top shape: 100 (100)
I0403 13:06:09.118471 10195 net.cpp:148] Top shape: 100 (100)
I0403 13:06:09.118486 10195 net.cpp:148] Top shape: 100 (100)
I0403 13:06:09.118501 10195 net.cpp:156] Memory required for data: 61836400
I0403 13:06:09.118515 10195 layer_factory.hpp:77] Creating layer conv1
I0403 13:06:09.118551 10195 net.cpp:91] Creating Layer conv1
I0403 13:06:09.118571 10195 net.cpp:425] conv1 <- data
I0403 13:06:09.118590 10195 net.cpp:399] conv1 -> conv1
I0403 13:06:09.260903 10195 net.cpp:141] Setting up conv1
I0403 13:06:09.260982 10195 net.cpp:148] Top shape: 100 96 55 55 (29040000)
I0403 13:06:09.260998 10195 net.cpp:156] Memory required for data: 177996400
I0403 13:06:09.261029 10195 layer_factory.hpp:77] Creating layer relu1
I0403 13:06:09.261056 10195 net.cpp:91] Creating Layer relu1
I0403 13:06:09.261075 10195 net.cpp:425] relu1 <- conv1
I0403 13:06:09.261093 10195 net.cpp:386] relu1 -> conv1 (in-place)
I0403 13:06:09.261389 10195 net.cpp:141] Setting up relu1
I0403 13:06:09.261416 10195 net.cpp:148] Top shape: 100 96 55 55 (29040000)
I0403 13:06:09.261466 10195 net.cpp:156] Memory required for data: 294156400
I0403 13:06:09.261482 10195 layer_factory.hpp:77] Creating layer norm1
I0403 13:06:09.261508 10195 net.cpp:91] Creating Layer norm1
I0403 13:06:09.261525 10195 net.cpp:425] norm1 <- conv1
I0403 13:06:09.261549 10195 net.cpp:399] norm1 -> norm1
I0403 13:06:09.261876 10195 net.cpp:141] Setting up norm1
I0403 13:06:09.261904 10195 net.cpp:148] Top shape: 100 96 55 55 (29040000)
I0403 13:06:09.261919 10195 net.cpp:156] Memory required for data: 410316400
I0403 13:06:09.261934 10195 layer_factory.hpp:77] Creating layer pool1
I0403 13:06:09.261956 10195 net.cpp:91] Creating Layer pool1
I0403 13:06:09.261972 10195 net.cpp:425] pool1 <- norm1
I0403 13:06:09.261992 10195 net.cpp:399] pool1 -> pool1
I0403 13:06:09.262063 10195 net.cpp:141] Setting up pool1
I0403 13:06:09.262089 10195 net.cpp:148] Top shape: 100 96 27 27 (6998400)
I0403 13:06:09.262104 10195 net.cpp:156] Memory required for data: 438310000
I0403 13:06:09.262118 10195 layer_factory.hpp:77] Creating layer conv2
I0403 13:06:09.262145 10195 net.cpp:91] Creating Layer conv2
I0403 13:06:09.262161 10195 net.cpp:425] conv2 <- pool1
I0403 13:06:09.262179 10195 net.cpp:399] conv2 -> conv2
I0403 13:06:09.277865 10195 net.cpp:141] Setting up conv2
I0403 13:06:09.277916 10195 net.cpp:148] Top shape: 100 256 27 27 (18662400)
I0403 13:06:09.277932 10195 net.cpp:156] Memory required for data: 512959600
I0403 13:06:09.277954 10195 layer_factory.hpp:77] Creating layer relu2
I0403 13:06:09.277973 10195 net.cpp:91] Creating Layer relu2
I0403 13:06:09.277989 10195 net.cpp:425] relu2 <- conv2
I0403 13:06:09.278009 10195 net.cpp:386] relu2 -> conv2 (in-place)
I0403 13:06:09.278292 10195 net.cpp:141] Setting up relu2
I0403 13:06:09.278319 10195 net.cpp:148] Top shape: 100 256 27 27 (18662400)
I0403 13:06:09.278336 10195 net.cpp:156] Memory required for data: 587609200
I0403 13:06:09.278349 10195 layer_factory.hpp:77] Creating layer norm2
I0403 13:06:09.278373 10195 net.cpp:91] Creating Layer norm2
I0403 13:06:09.278389 10195 net.cpp:425] norm2 <- conv2
I0403 13:06:09.278409 10195 net.cpp:399] norm2 -> norm2
I0403 13:06:09.278640 10195 net.cpp:141] Setting up norm2
I0403 13:06:09.278667 10195 net.cpp:148] Top shape: 100 256 27 27 (18662400)
I0403 13:06:09.278683 10195 net.cpp:156] Memory required for data: 662258800
I0403 13:06:09.278697 10195 layer_factory.hpp:77] Creating layer pool2
I0403 13:06:09.278717 10195 net.cpp:91] Creating Layer pool2
I0403 13:06:09.278731 10195 net.cpp:425] pool2 <- norm2
I0403 13:06:09.278750 10195 net.cpp:399] pool2 -> pool2
I0403 13:06:09.278805 10195 net.cpp:141] Setting up pool2
I0403 13:06:09.278828 10195 net.cpp:148] Top shape: 100 256 13 13 (4326400)
I0403 13:06:09.278842 10195 net.cpp:156] Memory required for data: 679564400
I0403 13:06:09.278858 10195 layer_factory.hpp:77] Creating layer conv3
I0403 13:06:09.278882 10195 net.cpp:91] Creating Layer conv3
I0403 13:06:09.278898 10195 net.cpp:425] conv3 <- pool2
I0403 13:06:09.278918 10195 net.cpp:399] conv3 -> conv3
I0403 13:06:09.319139 10195 net.cpp:141] Setting up conv3
I0403 13:06:09.319214 10195 net.cpp:148] Top shape: 100 384 13 13 (6489600)
I0403 13:06:09.319231 10195 net.cpp:156] Memory required for data: 705522800
I0403 13:06:09.319255 10195 layer_factory.hpp:77] Creating layer relu3
I0403 13:06:09.319278 10195 net.cpp:91] Creating Layer relu3
I0403 13:06:09.319303 10195 net.cpp:425] relu3 <- conv3
I0403 13:06:09.319321 10195 net.cpp:386] relu3 -> conv3 (in-place)
I0403 13:06:09.319607 10195 net.cpp:141] Setting up relu3
I0403 13:06:09.319633 10195 net.cpp:148] Top shape: 100 384 13 13 (6489600)
I0403 13:06:09.319648 10195 net.cpp:156] Memory required for data: 731481200
I0403 13:06:09.319664 10195 layer_factory.hpp:77] Creating layer conv4
I0403 13:06:09.319689 10195 net.cpp:91] Creating Layer conv4
I0403 13:06:09.319706 10195 net.cpp:425] conv4 <- conv3
I0403 13:06:09.319728 10195 net.cpp:399] conv4 -> conv4
I0403 13:06:09.351078 10195 net.cpp:141] Setting up conv4
I0403 13:06:09.351137 10195 net.cpp:148] Top shape: 100 384 13 13 (6489600)
I0403 13:06:09.351189 10195 net.cpp:156] Memory required for data: 757439600
I0403 13:06:09.351210 10195 layer_factory.hpp:77] Creating layer relu4
I0403 13:06:09.351233 10195 net.cpp:91] Creating Layer relu4
I0403 13:06:09.351248 10195 net.cpp:425] relu4 <- conv4
I0403 13:06:09.351270 10195 net.cpp:386] relu4 -> conv4 (in-place)
I0403 13:06:09.351550 10195 net.cpp:141] Setting up relu4
I0403 13:06:09.351580 10195 net.cpp:148] Top shape: 100 384 13 13 (6489600)
I0403 13:06:09.351596 10195 net.cpp:156] Memory required for data: 783398000
I0403 13:06:09.351611 10195 layer_factory.hpp:77] Creating layer conv5
I0403 13:06:09.351635 10195 net.cpp:91] Creating Layer conv5
I0403 13:06:09.351652 10195 net.cpp:425] conv5 <- conv4
I0403 13:06:09.351670 10195 net.cpp:399] conv5 -> conv5
I0403 13:06:09.373148 10195 net.cpp:141] Setting up conv5
I0403 13:06:09.373208 10195 net.cpp:148] Top shape: 100 256 13 13 (4326400)
I0403 13:06:09.373224 10195 net.cpp:156] Memory required for data: 800703600
I0403 13:06:09.373247 10195 layer_factory.hpp:77] Creating layer relu5
I0403 13:06:09.373268 10195 net.cpp:91] Creating Layer relu5
I0403 13:06:09.373284 10195 net.cpp:425] relu5 <- conv5
I0403 13:06:09.373306 10195 net.cpp:386] relu5 -> conv5 (in-place)
I0403 13:06:09.373584 10195 net.cpp:141] Setting up relu5
I0403 13:06:09.373610 10195 net.cpp:148] Top shape: 100 256 13 13 (4326400)
I0403 13:06:09.373670 10195 net.cpp:156] Memory required for data: 818009200
I0403 13:06:09.373692 10195 layer_factory.hpp:77] Creating layer pool5
I0403 13:06:09.373715 10195 net.cpp:91] Creating Layer pool5
I0403 13:06:09.373733 10195 net.cpp:425] pool5 <- conv5
I0403 13:06:09.373750 10195 net.cpp:399] pool5 -> pool5
I0403 13:06:09.373812 10195 net.cpp:141] Setting up pool5
I0403 13:06:09.373836 10195 net.cpp:148] Top shape: 100 256 6 6 (921600)
I0403 13:06:09.373849 10195 net.cpp:156] Memory required for data: 821695600
I0403 13:06:09.373863 10195 layer_factory.hpp:77] Creating layer fc6
I0403 13:06:09.373889 10195 net.cpp:91] Creating Layer fc6
I0403 13:06:09.373906 10195 net.cpp:425] fc6 <- pool5
I0403 13:06:09.373926 10195 net.cpp:399] fc6 -> fc6
I0403 13:06:10.928289 10195 net.cpp:141] Setting up fc6
I0403 13:06:10.928366 10195 net.cpp:148] Top shape: 100 4096 (409600)
I0403 13:06:10.928382 10195 net.cpp:156] Memory required for data: 823334000
I0403 13:06:10.928401 10195 layer_factory.hpp:77] Creating layer relu6
I0403 13:06:10.928426 10195 net.cpp:91] Creating Layer relu6
I0403 13:06:10.928443 10195 net.cpp:425] relu6 <- fc6
I0403 13:06:10.928463 10195 net.cpp:386] relu6 -> fc6 (in-place)
I0403 13:06:10.928690 10195 net.cpp:141] Setting up relu6
I0403 13:06:10.928715 10195 net.cpp:148] Top shape: 100 4096 (409600)
I0403 13:06:10.928730 10195 net.cpp:156] Memory required for data: 824972400
I0403 13:06:10.928745 10195 layer_factory.hpp:77] Creating layer drop6
I0403 13:06:10.928774 10195 net.cpp:91] Creating Layer drop6
I0403 13:06:10.928789 10195 net.cpp:425] drop6 <- fc6
I0403 13:06:10.928810 10195 net.cpp:386] drop6 -> fc6 (in-place)
I0403 13:06:10.928861 10195 net.cpp:141] Setting up drop6
I0403 13:06:10.928889 10195 net.cpp:148] Top shape: 100 4096 (409600)
I0403 13:06:10.928903 10195 net.cpp:156] Memory required for data: 826610800
I0403 13:06:10.928918 10195 layer_factory.hpp:77] Creating layer fc7
I0403 13:06:10.928938 10195 net.cpp:91] Creating Layer fc7
I0403 13:06:10.928953 10195 net.cpp:425] fc7 <- fc6
I0403 13:06:10.928973 10195 net.cpp:399] fc7 -> fc7
I0403 13:06:11.618924 10195 net.cpp:141] Setting up fc7
I0403 13:06:11.618989 10195 net.cpp:148] Top shape: 100 4096 (409600)
I0403 13:06:11.619004 10195 net.cpp:156] Memory required for data: 828249200
I0403 13:06:11.619025 10195 layer_factory.hpp:77] Creating layer relu7
I0403 13:06:11.619046 10195 net.cpp:91] Creating Layer relu7
I0403 13:06:11.619062 10195 net.cpp:425] relu7 <- fc7
I0403 13:06:11.619083 10195 net.cpp:386] relu7 -> fc7 (in-place)
I0403 13:06:11.619485 10195 net.cpp:141] Setting up relu7
I0403 13:06:11.619510 10195 net.cpp:148] Top shape: 100 4096 (409600)
I0403 13:06:11.619571 10195 net.cpp:156] Memory required for data: 829887600
I0403 13:06:11.619586 10195 layer_factory.hpp:77] Creating layer drop7
I0403 13:06:11.619606 10195 net.cpp:91] Creating Layer drop7
I0403 13:06:11.619619 10195 net.cpp:425] drop7 <- fc7
I0403 13:06:11.619638 10195 net.cpp:386] drop7 -> fc7 (in-place)
I0403 13:06:11.619680 10195 net.cpp:141] Setting up drop7
I0403 13:06:11.619704 10195 net.cpp:148] Top shape: 100 4096 (409600)
I0403 13:06:11.619719 10195 net.cpp:156] Memory required for data: 831526000
I0403 13:06:11.619731 10195 layer_factory.hpp:77] Creating layer fc8_plantvillage
I0403 13:06:11.619750 10195 net.cpp:91] Creating Layer fc8_plantvillage
I0403 13:06:11.619765 10195 net.cpp:425] fc8_plantvillage <- fc7
I0403 13:06:11.619783 10195 net.cpp:399] fc8_plantvillage -> fc8_plantvillage
I0403 13:06:11.626466 10195 net.cpp:141] Setting up fc8_plantvillage
I0403 13:06:11.626492 10195 net.cpp:148] Top shape: 100 38 (3800)
I0403 13:06:11.626507 10195 net.cpp:156] Memory required for data: 831541200
I0403 13:06:11.626524 10195 layer_factory.hpp:77] Creating layer fc8_plantvillage_fc8_plantvillage_0_split
I0403 13:06:11.626549 10195 net.cpp:91] Creating Layer fc8_plantvillage_fc8_plantvillage_0_split
I0403 13:06:11.626565 10195 net.cpp:425] fc8_plantvillage_fc8_plantvillage_0_split <- fc8_plantvillage
I0403 13:06:11.626585 10195 net.cpp:399] fc8_plantvillage_fc8_plantvillage_0_split -> fc8_plantvillage_fc8_plantvillage_0_split_0
I0403 13:06:11.626605 10195 net.cpp:399] fc8_plantvillage_fc8_plantvillage_0_split -> fc8_plantvillage_fc8_plantvillage_0_split_1
I0403 13:06:11.626624 10195 net.cpp:399] fc8_plantvillage_fc8_plantvillage_0_split -> fc8_plantvillage_fc8_plantvillage_0_split_2
I0403 13:06:11.626701 10195 net.cpp:141] Setting up fc8_plantvillage_fc8_plantvillage_0_split
I0403 13:06:11.626724 10195 net.cpp:148] Top shape: 100 38 (3800)
I0403 13:06:11.626739 10195 net.cpp:148] Top shape: 100 38 (3800)
I0403 13:06:11.626754 10195 net.cpp:148] Top shape: 100 38 (3800)
I0403 13:06:11.626767 10195 net.cpp:156] Memory required for data: 831586800
I0403 13:06:11.626781 10195 layer_factory.hpp:77] Creating layer prob
I0403 13:06:11.626798 10195 net.cpp:91] Creating Layer prob
I0403 13:06:11.626813 10195 net.cpp:425] prob <- fc8_plantvillage_fc8_plantvillage_0_split_0
I0403 13:06:11.626832 10195 net.cpp:399] prob -> prob
I0403 13:06:11.627058 10195 net.cpp:141] Setting up prob
I0403 13:06:11.627084 10195 net.cpp:148] Top shape: 100 38 (3800)
I0403 13:06:11.627099 10195 net.cpp:156] Memory required for data: 831602000
I0403 13:06:11.627115 10195 layer_factory.hpp:77] Creating layer hdf5out
I0403 13:06:11.627132 10195 net.cpp:91] Creating Layer hdf5out
I0403 13:06:11.627147 10195 net.cpp:425] hdf5out <- prob
I0403 13:06:11.627163 10195 net.cpp:425] hdf5out <- label_data_1_split_0
I0403 13:06:11.629586 10195 net.cpp:141] Setting up hdf5out
…
