…
I0403 13:04:14.849264 10146 net.cpp:313] The NetState phase (1) differed from the phase (0) specified by a rule in layer data
I0403 13:04:14.849591 10146 net.cpp:49] Initializing net from parameters: 
state {
  phase: TEST
}
layer {
  name: "data"
  type: "Data"
  top: "data"
  top: "label"
  include {
    phase: TEST
  }
  transform_param {
    crop_size: 227
    mean_file: "/home/mohanty/data/final_dataset/lmdb/grayscale-50-50/mean.binaryproto"
  }
  data_param {
    source: "/home/mohanty/data/final_dataset/lmdb/grayscale-50-50/test_db"
    batch_size: 100
    backend: LMDB
  }
}
layer {
  name: "conv1"
  type: "Convolution"
  bottom: "data"
  top: "conv1"
  param {
    lr_mult: 1
    decay_mult: 1
  }
  param {
    lr_mult: 2
    decay_mult: 0
  }
  convolution_param {
    num_output: 96
    kernel_size: 11
    stride: 4
    weight_filler {
      type: "gaussian"
      std: 0.01
    }
    bias_filler {
      type: "constant"
      value: 0
    }
  }
}
layer {
  name: "relu1"
  type: "ReLU"
  bottom: "conv1"
  top: "conv1"
}
layer {
  name: "norm1"
  type: "LRN"
  bottom: "conv1"
  top: "norm1"
  lrn_param {
    local_size: 5
    alpha: 0.0001
    beta: 0.75
  }
}
layer {
  name: "pool1"
  type: "Pooling"
  bottom: "norm1"
  top: "pool1"
  pooling_param {
    pool: MAX
    kernel_size: 3
    stride: 2
  }
}
layer {
  name: "conv2"
  type: "Convolution"
  bottom: "pool1"
  top: "conv2"
  param {
    lr_mult: 1
    decay_mult: 1
  }
  param {
    lr_mult: 2
    decay_mult: 0
  }
  convolution_param {
    num_output: 256
    pad: 2
    kernel_size: 5
    group: 2
    weight_filler {
      type: "gaussian"
      std: 0.01
    }
    bias_filler {
      type: "constant"
      value: 0.1
    }
  }
}
layer {
  name: "relu2"
  type: "ReLU"
  bottom: "conv2"
  top: "conv2"
}
layer {
  name: "norm2"
  type: "LRN"
  bottom: "conv2"
  top: "norm2"
  lrn_param {
    local_size: 5
    alpha: 0.0001
    beta: 0.75
  }
}
layer {
  name: "pool2"
  type: "Pooling"
  bottom: "norm2"
  top: "pool2"
  pooling_param {
    pool: MAX
    kernel_size: 3
    stride: 2
  }
}
layer {
  name: "conv3"
  type: "Convolution"
  bottom: "pool2"
  top: "conv3"
  param {
    lr_mult: 1
    decay_mult: 1
  }
  param {
    lr_mult: 2
    decay_mult: 0
  }
  convolution_param {
    num_output: 384
    pad: 1
    kernel_size: 3
    weight_filler {
      type: "gaussian"
      std: 0.01
    }
    bias_filler {
      type: "constant"
      value: 0
    }
  }
}
layer {
  name: "relu3"
  type: "ReLU"
  bottom: "conv3"
  top: "conv3"
}
layer {
  name: "conv4"
  type: "Convolution"
  bottom: "conv3"
  top: "conv4"
  param {
    lr_mult: 1
    decay_mult: 1
  }
  param {
    lr_mult: 2
    decay_mult: 0
  }
  convolution_param {
    num_output: 384
    pad: 1
    kernel_size: 3
    group: 2
    weight_filler {
      type: "gaussian"
      std: 0.01
    }
    bias_filler {
      type: "constant"
      value: 0.1
    }
  }
}
layer {
  name: "relu4"
  type: "ReLU"
  bottom: "conv4"
  top: "conv4"
}
layer {
  name: "conv5"
  type: "Convolution"
  bottom: "conv4"
  top: "conv5"
  param {
    lr_mult: 1
    decay_mult: 1
  }
  param {
    lr_mult: 2
    decay_mult: 0
  }
  convolution_param {
    num_output: 256
    pad: 1
    kernel_size: 3
    group: 2
    weight_filler {
      type: "gaussian"
      std: 0.01
    }
    bias_filler {
      type: "constant"
      value: 0.1
    }
  }
}
layer {
  name: "relu5"
  type: "ReLU"
  bottom: "conv5"
  top: "conv5"
}
layer {
  name: "pool5"
  type: "Pooling"
  bottom: "conv5"
  top: "pool5"
  pooling_param {
    pool: MAX
    kernel_size: 3
    stride: 2
  }
}
layer {
  name: "fc6"
  type: "InnerProduct"
  bottom: "pool5"
  top: "fc6"
  param {
    lr_mult: 1
    decay_mult: 1
  }
  param {
    lr_mult: 2
    decay_mult: 0
  }
  inner_product_param {
    num_output: 4096
    weight_filler {
      type: "gaussian"
      std: 0.005
    }
    bias_filler {
      type: "constant"
      value: 0.1
    }
  }
}
layer {
  name: "relu6"
  type: "ReLU"
  bottom: "fc6"
  top: "fc6"
}
layer {
  name: "drop6"
  type: "Dropout"
  bottom: "fc6"
  top: "fc6"
  dropout_param {
    dropout_ratio: 0.5
  }
}
layer {
  name: "fc7"
  type: "InnerProduct"
  bottom: "fc6"
  top: "fc7"
  param {
    lr_mult: 1
    decay_mult: 1
  }
  param {
    lr_mult: 2
    decay_mult: 0
  }
  inner_product_param {
    num_output: 4096
    weight_filler {
      type: "gaussian"
      std: 0.005
    }
    bias_filler {
      type: "constant"
      value: 0.1
    }
  }
}
layer {
  name: "relu7"
  type: "ReLU"
  bottom: "fc7"
  top: "fc7"
}
layer {
  name: "drop7"
  type: "Dropout"
  bottom: "fc7"
  top: "fc7"
  dropout_param {
    dropout_ratio: 0.5
  }
}
layer {
  name: "fc8_plantvillage"
  type: "InnerProduct"
  bottom: "fc7"
  top: "fc8_plantvillage"
  param {
    lr_mult: 1
    decay_mult: 1
  }
  param {
    lr_mult: 2
    decay_mult: 0
  }
  inner_product_param {
    num_output: 38
    weight_filler {
      type: "gaussian"
      std: 0.01
    }
    bias_filler {
      type: "constant"
      value: 0
    }
  }
}
layer {
  name: "prob"
  type: "Softmax"
  bottom: "fc8_plantvillage"
  top: "prob"
  include {
    phase: TEST
  }
}
layer {
  name: "hdf5out"
  type: "HDF5Output"
  bottom: "prob"
  bottom: "label"
  include {
    phase: TEST
  }
  hdf5_output_param {
    file_name: "hdf5_dumps/iter_4806.h5"
  }
}
layer {
  name: "loss"
  type: "SoftmaxWithLoss"
  bottom: "fc8_plantvillage"
  bottom: "label"
  top: "loss"
}
layer {
  name: "accuracy"
  type: "Accuracy"
  bottom: "fc8_plantvillage"
  bottom: "label"
  top: "accuracy"
  include {
    phase: TEST
  }
}
I0403 13:04:14.850158 10146 layer_factory.hpp:77] Creating layer data
I0403 13:04:14.850814 10146 net.cpp:91] Creating Layer data
I0403 13:04:14.850847 10146 net.cpp:399] data -> data
I0403 13:04:14.850898 10146 net.cpp:399] data -> label
I0403 13:04:14.850936 10146 data_transformer.cpp:25] Loading mean file from: /home/mohanty/data/final_dataset/lmdb/grayscale-50-50/mean.binaryproto
I0403 13:04:14.852094 10149 db_lmdb.cpp:38] Opened lmdb /home/mohanty/data/final_dataset/lmdb/grayscale-50-50/test_db
I0403 13:04:14.865489 10146 data_layer.cpp:41] output data size: 100,3,227,227
I0403 13:04:14.986057 10146 net.cpp:141] Setting up data
I0403 13:04:14.986117 10146 net.cpp:148] Top shape: 100 3 227 227 (15458700)
I0403 13:04:14.986140 10146 net.cpp:148] Top shape: 100 (100)
I0403 13:04:14.986156 10146 net.cpp:156] Memory required for data: 61835200
I0403 13:04:14.986184 10146 layer_factory.hpp:77] Creating layer label_data_1_split
I0403 13:04:14.986209 10146 net.cpp:91] Creating Layer label_data_1_split
I0403 13:04:14.986227 10146 net.cpp:425] label_data_1_split <- label
I0403 13:04:14.986260 10146 net.cpp:399] label_data_1_split -> label_data_1_split_0
I0403 13:04:14.986287 10146 net.cpp:399] label_data_1_split -> label_data_1_split_1
I0403 13:04:14.986307 10146 net.cpp:399] label_data_1_split -> label_data_1_split_2
I0403 13:04:14.986371 10146 net.cpp:141] Setting up label_data_1_split
I0403 13:04:14.986394 10146 net.cpp:148] Top shape: 100 (100)
I0403 13:04:14.986410 10146 net.cpp:148] Top shape: 100 (100)
I0403 13:04:14.986428 10146 net.cpp:148] Top shape: 100 (100)
I0403 13:04:14.986441 10146 net.cpp:156] Memory required for data: 61836400
I0403 13:04:14.986455 10146 layer_factory.hpp:77] Creating layer conv1
I0403 13:04:14.986487 10146 net.cpp:91] Creating Layer conv1
I0403 13:04:14.986506 10146 net.cpp:425] conv1 <- data
I0403 13:04:14.986524 10146 net.cpp:399] conv1 -> conv1
I0403 13:04:15.124969 10146 net.cpp:141] Setting up conv1
I0403 13:04:15.125047 10146 net.cpp:148] Top shape: 100 96 55 55 (29040000)
I0403 13:04:15.125066 10146 net.cpp:156] Memory required for data: 177996400
I0403 13:04:15.125097 10146 layer_factory.hpp:77] Creating layer relu1
I0403 13:04:15.125126 10146 net.cpp:91] Creating Layer relu1
I0403 13:04:15.125145 10146 net.cpp:425] relu1 <- conv1
I0403 13:04:15.125165 10146 net.cpp:386] relu1 -> conv1 (in-place)
I0403 13:04:15.125435 10146 net.cpp:141] Setting up relu1
I0403 13:04:15.125464 10146 net.cpp:148] Top shape: 100 96 55 55 (29040000)
I0403 13:04:15.125519 10146 net.cpp:156] Memory required for data: 294156400
I0403 13:04:15.125543 10146 layer_factory.hpp:77] Creating layer norm1
I0403 13:04:15.125574 10146 net.cpp:91] Creating Layer norm1
I0403 13:04:15.125593 10146 net.cpp:425] norm1 <- conv1
I0403 13:04:15.125612 10146 net.cpp:399] norm1 -> norm1
I0403 13:04:15.125937 10146 net.cpp:141] Setting up norm1
I0403 13:04:15.125967 10146 net.cpp:148] Top shape: 100 96 55 55 (29040000)
I0403 13:04:15.125983 10146 net.cpp:156] Memory required for data: 410316400
I0403 13:04:15.125998 10146 layer_factory.hpp:77] Creating layer pool1
I0403 13:04:15.126022 10146 net.cpp:91] Creating Layer pool1
I0403 13:04:15.126039 10146 net.cpp:425] pool1 <- norm1
I0403 13:04:15.126057 10146 net.cpp:399] pool1 -> pool1
I0403 13:04:15.126129 10146 net.cpp:141] Setting up pool1
I0403 13:04:15.126154 10146 net.cpp:148] Top shape: 100 96 27 27 (6998400)
I0403 13:04:15.126169 10146 net.cpp:156] Memory required for data: 438310000
I0403 13:04:15.126184 10146 layer_factory.hpp:77] Creating layer conv2
I0403 13:04:15.126210 10146 net.cpp:91] Creating Layer conv2
I0403 13:04:15.126227 10146 net.cpp:425] conv2 <- pool1
I0403 13:04:15.126246 10146 net.cpp:399] conv2 -> conv2
I0403 13:04:15.141216 10146 net.cpp:141] Setting up conv2
I0403 13:04:15.141258 10146 net.cpp:148] Top shape: 100 256 27 27 (18662400)
I0403 13:04:15.141274 10146 net.cpp:156] Memory required for data: 512959600
I0403 13:04:15.141299 10146 layer_factory.hpp:77] Creating layer relu2
I0403 13:04:15.141320 10146 net.cpp:91] Creating Layer relu2
I0403 13:04:15.141338 10146 net.cpp:425] relu2 <- conv2
I0403 13:04:15.141360 10146 net.cpp:386] relu2 -> conv2 (in-place)
I0403 13:04:15.141644 10146 net.cpp:141] Setting up relu2
I0403 13:04:15.141670 10146 net.cpp:148] Top shape: 100 256 27 27 (18662400)
I0403 13:04:15.141685 10146 net.cpp:156] Memory required for data: 587609200
I0403 13:04:15.141700 10146 layer_factory.hpp:77] Creating layer norm2
I0403 13:04:15.141723 10146 net.cpp:91] Creating Layer norm2
I0403 13:04:15.141739 10146 net.cpp:425] norm2 <- conv2
I0403 13:04:15.141759 10146 net.cpp:399] norm2 -> norm2
I0403 13:04:15.141957 10146 net.cpp:141] Setting up norm2
I0403 13:04:15.141981 10146 net.cpp:148] Top shape: 100 256 27 27 (18662400)
I0403 13:04:15.141996 10146 net.cpp:156] Memory required for data: 662258800
I0403 13:04:15.142010 10146 layer_factory.hpp:77] Creating layer pool2
I0403 13:04:15.142029 10146 net.cpp:91] Creating Layer pool2
I0403 13:04:15.142042 10146 net.cpp:425] pool2 <- norm2
I0403 13:04:15.142061 10146 net.cpp:399] pool2 -> pool2
I0403 13:04:15.142114 10146 net.cpp:141] Setting up pool2
I0403 13:04:15.142138 10146 net.cpp:148] Top shape: 100 256 13 13 (4326400)
I0403 13:04:15.142151 10146 net.cpp:156] Memory required for data: 679564400
I0403 13:04:15.142165 10146 layer_factory.hpp:77] Creating layer conv3
I0403 13:04:15.142191 10146 net.cpp:91] Creating Layer conv3
I0403 13:04:15.142207 10146 net.cpp:425] conv3 <- pool2
I0403 13:04:15.142225 10146 net.cpp:399] conv3 -> conv3
I0403 13:04:15.185235 10146 net.cpp:141] Setting up conv3
I0403 13:04:15.185312 10146 net.cpp:148] Top shape: 100 384 13 13 (6489600)
I0403 13:04:15.185328 10146 net.cpp:156] Memory required for data: 705522800
I0403 13:04:15.185353 10146 layer_factory.hpp:77] Creating layer relu3
I0403 13:04:15.185379 10146 net.cpp:91] Creating Layer relu3
I0403 13:04:15.185397 10146 net.cpp:425] relu3 <- conv3
I0403 13:04:15.185416 10146 net.cpp:386] relu3 -> conv3 (in-place)
I0403 13:04:15.185691 10146 net.cpp:141] Setting up relu3
I0403 13:04:15.185719 10146 net.cpp:148] Top shape: 100 384 13 13 (6489600)
I0403 13:04:15.185734 10146 net.cpp:156] Memory required for data: 731481200
I0403 13:04:15.185747 10146 layer_factory.hpp:77] Creating layer conv4
I0403 13:04:15.185775 10146 net.cpp:91] Creating Layer conv4
I0403 13:04:15.185792 10146 net.cpp:425] conv4 <- conv3
I0403 13:04:15.185813 10146 net.cpp:399] conv4 -> conv4
I0403 13:04:15.215586 10146 net.cpp:141] Setting up conv4
I0403 13:04:15.215657 10146 net.cpp:148] Top shape: 100 384 13 13 (6489600)
I0403 13:04:15.215716 10146 net.cpp:156] Memory required for data: 757439600
I0403 13:04:15.215740 10146 layer_factory.hpp:77] Creating layer relu4
I0403 13:04:15.215761 10146 net.cpp:91] Creating Layer relu4
I0403 13:04:15.215778 10146 net.cpp:425] relu4 <- conv4
I0403 13:04:15.215800 10146 net.cpp:386] relu4 -> conv4 (in-place)
I0403 13:04:15.216083 10146 net.cpp:141] Setting up relu4
I0403 13:04:15.216115 10146 net.cpp:148] Top shape: 100 384 13 13 (6489600)
I0403 13:04:15.216136 10146 net.cpp:156] Memory required for data: 783398000
I0403 13:04:15.216152 10146 layer_factory.hpp:77] Creating layer conv5
I0403 13:04:15.216177 10146 net.cpp:91] Creating Layer conv5
I0403 13:04:15.216195 10146 net.cpp:425] conv5 <- conv4
I0403 13:04:15.216217 10146 net.cpp:399] conv5 -> conv5
I0403 13:04:15.236810 10146 net.cpp:141] Setting up conv5
I0403 13:04:15.236873 10146 net.cpp:148] Top shape: 100 256 13 13 (4326400)
I0403 13:04:15.236891 10146 net.cpp:156] Memory required for data: 800703600
I0403 13:04:15.236914 10146 layer_factory.hpp:77] Creating layer relu5
I0403 13:04:15.236937 10146 net.cpp:91] Creating Layer relu5
I0403 13:04:15.236953 10146 net.cpp:425] relu5 <- conv5
I0403 13:04:15.236974 10146 net.cpp:386] relu5 -> conv5 (in-place)
I0403 13:04:15.237258 10146 net.cpp:141] Setting up relu5
I0403 13:04:15.237285 10146 net.cpp:148] Top shape: 100 256 13 13 (4326400)
I0403 13:04:15.237300 10146 net.cpp:156] Memory required for data: 818009200
I0403 13:04:15.237315 10146 layer_factory.hpp:77] Creating layer pool5
I0403 13:04:15.237339 10146 net.cpp:91] Creating Layer pool5
I0403 13:04:15.237355 10146 net.cpp:425] pool5 <- conv5
I0403 13:04:15.237375 10146 net.cpp:399] pool5 -> pool5
I0403 13:04:15.237438 10146 net.cpp:141] Setting up pool5
I0403 13:04:15.237462 10146 net.cpp:148] Top shape: 100 256 6 6 (921600)
I0403 13:04:15.237478 10146 net.cpp:156] Memory required for data: 821695600
I0403 13:04:15.237491 10146 layer_factory.hpp:77] Creating layer fc6
I0403 13:04:15.237521 10146 net.cpp:91] Creating Layer fc6
I0403 13:04:15.237543 10146 net.cpp:425] fc6 <- pool5
I0403 13:04:15.237565 10146 net.cpp:399] fc6 -> fc6
I0403 13:04:16.788718 10146 net.cpp:141] Setting up fc6
I0403 13:04:16.788787 10146 net.cpp:148] Top shape: 100 4096 (409600)
I0403 13:04:16.788803 10146 net.cpp:156] Memory required for data: 823334000
I0403 13:04:16.788825 10146 layer_factory.hpp:77] Creating layer relu6
I0403 13:04:16.788844 10146 net.cpp:91] Creating Layer relu6
I0403 13:04:16.788861 10146 net.cpp:425] relu6 <- fc6
I0403 13:04:16.788882 10146 net.cpp:386] relu6 -> fc6 (in-place)
I0403 13:04:16.789108 10146 net.cpp:141] Setting up relu6
I0403 13:04:16.789132 10146 net.cpp:148] Top shape: 100 4096 (409600)
I0403 13:04:16.789146 10146 net.cpp:156] Memory required for data: 824972400
I0403 13:04:16.789160 10146 layer_factory.hpp:77] Creating layer drop6
I0403 13:04:16.789178 10146 net.cpp:91] Creating Layer drop6
I0403 13:04:16.789192 10146 net.cpp:425] drop6 <- fc6
I0403 13:04:16.789213 10146 net.cpp:386] drop6 -> fc6 (in-place)
I0403 13:04:16.789263 10146 net.cpp:141] Setting up drop6
I0403 13:04:16.789288 10146 net.cpp:148] Top shape: 100 4096 (409600)
I0403 13:04:16.789304 10146 net.cpp:156] Memory required for data: 826610800
I0403 13:04:16.789317 10146 layer_factory.hpp:77] Creating layer fc7
I0403 13:04:16.789338 10146 net.cpp:91] Creating Layer fc7
I0403 13:04:16.789353 10146 net.cpp:425] fc7 <- fc6
I0403 13:04:16.789371 10146 net.cpp:399] fc7 -> fc7
I0403 13:04:17.474355 10146 net.cpp:141] Setting up fc7
I0403 13:04:17.474432 10146 net.cpp:148] Top shape: 100 4096 (409600)
I0403 13:04:17.474448 10146 net.cpp:156] Memory required for data: 828249200
I0403 13:04:17.474468 10146 layer_factory.hpp:77] Creating layer relu7
I0403 13:04:17.474489 10146 net.cpp:91] Creating Layer relu7
I0403 13:04:17.474505 10146 net.cpp:425] relu7 <- fc7
I0403 13:04:17.474526 10146 net.cpp:386] relu7 -> fc7 (in-place)
I0403 13:04:17.474956 10146 net.cpp:141] Setting up relu7
I0403 13:04:17.474983 10146 net.cpp:148] Top shape: 100 4096 (409600)
I0403 13:04:17.475040 10146 net.cpp:156] Memory required for data: 829887600
I0403 13:04:17.475055 10146 layer_factory.hpp:77] Creating layer drop7
I0403 13:04:17.475074 10146 net.cpp:91] Creating Layer drop7
I0403 13:04:17.475088 10146 net.cpp:425] drop7 <- fc7
I0403 13:04:17.475108 10146 net.cpp:386] drop7 -> fc7 (in-place)
I0403 13:04:17.475152 10146 net.cpp:141] Setting up drop7
I0403 13:04:17.475174 10146 net.cpp:148] Top shape: 100 4096 (409600)
I0403 13:04:17.475190 10146 net.cpp:156] Memory required for data: 831526000
I0403 13:04:17.475203 10146 layer_factory.hpp:77] Creating layer fc8_plantvillage
I0403 13:04:17.475222 10146 net.cpp:91] Creating Layer fc8_plantvillage
I0403 13:04:17.475237 10146 net.cpp:425] fc8_plantvillage <- fc7
I0403 13:04:17.475256 10146 net.cpp:399] fc8_plantvillage -> fc8_plantvillage
I0403 13:04:17.482219 10146 net.cpp:141] Setting up fc8_plantvillage
I0403 13:04:17.482247 10146 net.cpp:148] Top shape: 100 38 (3800)
I0403 13:04:17.482264 10146 net.cpp:156] Memory required for data: 831541200
I0403 13:04:17.482282 10146 layer_factory.hpp:77] Creating layer fc8_plantvillage_fc8_plantvillage_0_split
I0403 13:04:17.482300 10146 net.cpp:91] Creating Layer fc8_plantvillage_fc8_plantvillage_0_split
I0403 13:04:17.482316 10146 net.cpp:425] fc8_plantvillage_fc8_plantvillage_0_split <- fc8_plantvillage
I0403 13:04:17.482336 10146 net.cpp:399] fc8_plantvillage_fc8_plantvillage_0_split -> fc8_plantvillage_fc8_plantvillage_0_split_0
I0403 13:04:17.482357 10146 net.cpp:399] fc8_plantvillage_fc8_plantvillage_0_split -> fc8_plantvillage_fc8_plantvillage_0_split_1
I0403 13:04:17.482377 10146 net.cpp:399] fc8_plantvillage_fc8_plantvillage_0_split -> fc8_plantvillage_fc8_plantvillage_0_split_2
I0403 13:04:17.482455 10146 net.cpp:141] Setting up fc8_plantvillage_fc8_plantvillage_0_split
I0403 13:04:17.482480 10146 net.cpp:148] Top shape: 100 38 (3800)
I0403 13:04:17.482496 10146 net.cpp:148] Top shape: 100 38 (3800)
I0403 13:04:17.482511 10146 net.cpp:148] Top shape: 100 38 (3800)
I0403 13:04:17.482525 10146 net.cpp:156] Memory required for data: 831586800
I0403 13:04:17.482544 10146 layer_factory.hpp:77] Creating layer prob
I0403 13:04:17.482564 10146 net.cpp:91] Creating Layer prob
I0403 13:04:17.482579 10146 net.cpp:425] prob <- fc8_plantvillage_fc8_plantvillage_0_split_0
I0403 13:04:17.482599 10146 net.cpp:399] prob -> prob
I0403 13:04:17.482832 10146 net.cpp:141] Setting up prob
I0403 13:04:17.482858 10146 net.cpp:148] Top shape: 100 38 (3800)
I0403 13:04:17.482873 10146 net.cpp:156] Memory required for data: 831602000
I0403 13:04:17.482887 10146 layer_factory.hpp:77] Creating layer hdf5out
I0403 13:04:17.482906 10146 net.cpp:91] Creating Layer hdf5out
I0403 13:04:17.482921 10146 net.cpp:425] hdf5out <- prob
I0403 13:04:17.482938 10146 net.cpp:425] hdf5out <- label_data_1_split_0
I0403 13:04:17.485219 10146 net.cpp:141] Setting up hdf5out
…
