…
I0403 12:51:48.928474  9778 net.cpp:313] The NetState phase (1) differed from the phase (0) specified by a rule in layer data
I0403 12:51:48.928791  9778 net.cpp:49] Initializing net from parameters: 
state {
  phase: TEST
}
layer {
  name: "data"
  type: "Data"
  top: "data"
  top: "label"
  include {
    phase: TEST
  }
  transform_param {
    crop_size: 227
    mean_file: "/home/mohanty/data/final_dataset/lmdb/grayscale-50-50/mean.binaryproto"
  }
  data_param {
    source: "/home/mohanty/data/final_dataset/lmdb/grayscale-50-50/test_db"
    batch_size: 100
    backend: LMDB
  }
}
layer {
  name: "conv1"
  type: "Convolution"
  bottom: "data"
  top: "conv1"
  param {
    lr_mult: 1
    decay_mult: 1
  }
  param {
    lr_mult: 2
    decay_mult: 0
  }
  convolution_param {
    num_output: 96
    kernel_size: 11
    stride: 4
    weight_filler {
      type: "gaussian"
      std: 0.01
    }
    bias_filler {
      type: "constant"
      value: 0
    }
  }
}
layer {
  name: "relu1"
  type: "ReLU"
  bottom: "conv1"
  top: "conv1"
}
layer {
  name: "norm1"
  type: "LRN"
  bottom: "conv1"
  top: "norm1"
  lrn_param {
    local_size: 5
    alpha: 0.0001
    beta: 0.75
  }
}
layer {
  name: "pool1"
  type: "Pooling"
  bottom: "norm1"
  top: "pool1"
  pooling_param {
    pool: MAX
    kernel_size: 3
    stride: 2
  }
}
layer {
  name: "conv2"
  type: "Convolution"
  bottom: "pool1"
  top: "conv2"
  param {
    lr_mult: 1
    decay_mult: 1
  }
  param {
    lr_mult: 2
    decay_mult: 0
  }
  convolution_param {
    num_output: 256
    pad: 2
    kernel_size: 5
    group: 2
    weight_filler {
      type: "gaussian"
      std: 0.01
    }
    bias_filler {
      type: "constant"
      value: 0.1
    }
  }
}
layer {
  name: "relu2"
  type: "ReLU"
  bottom: "conv2"
  top: "conv2"
}
layer {
  name: "norm2"
  type: "LRN"
  bottom: "conv2"
  top: "norm2"
  lrn_param {
    local_size: 5
    alpha: 0.0001
    beta: 0.75
  }
}
layer {
  name: "pool2"
  type: "Pooling"
  bottom: "norm2"
  top: "pool2"
  pooling_param {
    pool: MAX
    kernel_size: 3
    stride: 2
  }
}
layer {
  name: "conv3"
  type: "Convolution"
  bottom: "pool2"
  top: "conv3"
  param {
    lr_mult: 1
    decay_mult: 1
  }
  param {
    lr_mult: 2
    decay_mult: 0
  }
  convolution_param {
    num_output: 384
    pad: 1
    kernel_size: 3
    weight_filler {
      type: "gaussian"
      std: 0.01
    }
    bias_filler {
      type: "constant"
      value: 0
    }
  }
}
layer {
  name: "relu3"
  type: "ReLU"
  bottom: "conv3"
  top: "conv3"
}
layer {
  name: "conv4"
  type: "Convolution"
  bottom: "conv3"
  top: "conv4"
  param {
    lr_mult: 1
    decay_mult: 1
  }
  param {
    lr_mult: 2
    decay_mult: 0
  }
  convolution_param {
    num_output: 384
    pad: 1
    kernel_size: 3
    group: 2
    weight_filler {
      type: "gaussian"
      std: 0.01
    }
    bias_filler {
      type: "constant"
      value: 0.1
    }
  }
}
layer {
  name: "relu4"
  type: "ReLU"
  bottom: "conv4"
  top: "conv4"
}
layer {
  name: "conv5"
  type: "Convolution"
  bottom: "conv4"
  top: "conv5"
  param {
    lr_mult: 1
    decay_mult: 1
  }
  param {
    lr_mult: 2
    decay_mult: 0
  }
  convolution_param {
    num_output: 256
    pad: 1
    kernel_size: 3
    group: 2
    weight_filler {
      type: "gaussian"
      std: 0.01
    }
    bias_filler {
      type: "constant"
      value: 0.1
    }
  }
}
layer {
  name: "relu5"
  type: "ReLU"
  bottom: "conv5"
  top: "conv5"
}
layer {
  name: "pool5"
  type: "Pooling"
  bottom: "conv5"
  top: "pool5"
  pooling_param {
    pool: MAX
    kernel_size: 3
    stride: 2
  }
}
layer {
  name: "fc6"
  type: "InnerProduct"
  bottom: "pool5"
  top: "fc6"
  param {
    lr_mult: 1
    decay_mult: 1
  }
  param {
    lr_mult: 2
    decay_mult: 0
  }
  inner_product_param {
    num_output: 4096
    weight_filler {
      type: "gaussian"
      std: 0.005
    }
    bias_filler {
      type: "constant"
      value: 0.1
    }
  }
}
layer {
  name: "relu6"
  type: "ReLU"
  bottom: "fc6"
  top: "fc6"
}
layer {
  name: "drop6"
  type: "Dropout"
  bottom: "fc6"
  top: "fc6"
  dropout_param {
    dropout_ratio: 0.5
  }
}
layer {
  name: "fc7"
  type: "InnerProduct"
  bottom: "fc6"
  top: "fc7"
  param {
    lr_mult: 1
    decay_mult: 1
  }
  param {
    lr_mult: 2
    decay_mult: 0
  }
  inner_product_param {
    num_output: 4096
    weight_filler {
      type: "gaussian"
      std: 0.005
    }
    bias_filler {
      type: "constant"
      value: 0.1
    }
  }
}
layer {
  name: "relu7"
  type: "ReLU"
  bottom: "fc7"
  top: "fc7"
}
layer {
  name: "drop7"
  type: "Dropout"
  bottom: "fc7"
  top: "fc7"
  dropout_param {
    dropout_ratio: 0.5
  }
}
layer {
  name: "fc8_plantvillage"
  type: "InnerProduct"
  bottom: "fc7"
  top: "fc8_plantvillage"
  param {
    lr_mult: 1
    decay_mult: 1
  }
  param {
    lr_mult: 2
    decay_mult: 0
  }
  inner_product_param {
    num_output: 38
    weight_filler {
      type: "gaussian"
      std: 0.01
    }
    bias_filler {
      type: "constant"
      value: 0
    }
  }
}
layer {
  name: "prob"
  type: "Softmax"
  bottom: "fc8_plantvillage"
  top: "prob"
  include {
    phase: TEST
  }
}
layer {
  name: "hdf5out"
  type: "HDF5Output"
  bottom: "prob"
  bottom: "label"
  include {
    phase: TEST
  }
  hdf5_output_param {
    file_name: "hdf5_dumps/iter_1335.h5"
  }
}
layer {
  name: "loss"
  type: "SoftmaxWithLoss"
  bottom: "fc8_plantvillage"
  bottom: "label"
  top: "loss"
}
layer {
  name: "accuracy"
  type: "Accuracy"
  bottom: "fc8_plantvillage"
  bottom: "label"
  top: "accuracy"
  include {
    phase: TEST
  }
}
I0403 12:51:48.929402  9778 layer_factory.hpp:77] Creating layer data
I0403 12:51:48.930073  9778 net.cpp:91] Creating Layer data
I0403 12:51:48.930104  9778 net.cpp:399] data -> data
I0403 12:51:48.930157  9778 net.cpp:399] data -> label
I0403 12:51:48.930194  9778 data_transformer.cpp:25] Loading mean file from: /home/mohanty/data/final_dataset/lmdb/grayscale-50-50/mean.binaryproto
I0403 12:51:48.931372  9785 db_lmdb.cpp:38] Opened lmdb /home/mohanty/data/final_dataset/lmdb/grayscale-50-50/test_db
I0403 12:51:48.944720  9778 data_layer.cpp:41] output data size: 100,3,227,227
I0403 12:51:49.066658  9778 net.cpp:141] Setting up data
I0403 12:51:49.066756  9778 net.cpp:148] Top shape: 100 3 227 227 (15458700)
I0403 12:51:49.066779  9778 net.cpp:148] Top shape: 100 (100)
I0403 12:51:49.066797  9778 net.cpp:156] Memory required for data: 61835200
I0403 12:51:49.066826  9778 layer_factory.hpp:77] Creating layer label_data_1_split
I0403 12:51:49.066854  9778 net.cpp:91] Creating Layer label_data_1_split
I0403 12:51:49.066871  9778 net.cpp:425] label_data_1_split <- label
I0403 12:51:49.066905  9778 net.cpp:399] label_data_1_split -> label_data_1_split_0
I0403 12:51:49.066934  9778 net.cpp:399] label_data_1_split -> label_data_1_split_1
I0403 12:51:49.066957  9778 net.cpp:399] label_data_1_split -> label_data_1_split_2
I0403 12:51:49.067024  9778 net.cpp:141] Setting up label_data_1_split
I0403 12:51:49.067050  9778 net.cpp:148] Top shape: 100 (100)
I0403 12:51:49.067067  9778 net.cpp:148] Top shape: 100 (100)
I0403 12:51:49.067085  9778 net.cpp:148] Top shape: 100 (100)
I0403 12:51:49.067100  9778 net.cpp:156] Memory required for data: 61836400
I0403 12:51:49.067114  9778 layer_factory.hpp:77] Creating layer conv1
I0403 12:51:49.067147  9778 net.cpp:91] Creating Layer conv1
I0403 12:51:49.067164  9778 net.cpp:425] conv1 <- data
I0403 12:51:49.067183  9778 net.cpp:399] conv1 -> conv1
I0403 12:51:49.209921  9778 net.cpp:141] Setting up conv1
I0403 12:51:49.210000  9778 net.cpp:148] Top shape: 100 96 55 55 (29040000)
I0403 12:51:49.210017  9778 net.cpp:156] Memory required for data: 177996400
I0403 12:51:49.210049  9778 layer_factory.hpp:77] Creating layer relu1
I0403 12:51:49.210078  9778 net.cpp:91] Creating Layer relu1
I0403 12:51:49.210096  9778 net.cpp:425] relu1 <- conv1
I0403 12:51:49.210116  9778 net.cpp:386] relu1 -> conv1 (in-place)
I0403 12:51:49.210374  9778 net.cpp:141] Setting up relu1
I0403 12:51:49.210402  9778 net.cpp:148] Top shape: 100 96 55 55 (29040000)
I0403 12:51:49.210490  9778 net.cpp:156] Memory required for data: 294156400
I0403 12:51:49.210511  9778 layer_factory.hpp:77] Creating layer norm1
I0403 12:51:49.210541  9778 net.cpp:91] Creating Layer norm1
I0403 12:51:49.210558  9778 net.cpp:425] norm1 <- conv1
I0403 12:51:49.210577  9778 net.cpp:399] norm1 -> norm1
I0403 12:51:49.210886  9778 net.cpp:141] Setting up norm1
I0403 12:51:49.210912  9778 net.cpp:148] Top shape: 100 96 55 55 (29040000)
I0403 12:51:49.210928  9778 net.cpp:156] Memory required for data: 410316400
I0403 12:51:49.210942  9778 layer_factory.hpp:77] Creating layer pool1
I0403 12:51:49.210965  9778 net.cpp:91] Creating Layer pool1
I0403 12:51:49.210983  9778 net.cpp:425] pool1 <- norm1
I0403 12:51:49.210999  9778 net.cpp:399] pool1 -> pool1
I0403 12:51:49.211066  9778 net.cpp:141] Setting up pool1
I0403 12:51:49.211091  9778 net.cpp:148] Top shape: 100 96 27 27 (6998400)
I0403 12:51:49.211105  9778 net.cpp:156] Memory required for data: 438310000
I0403 12:51:49.211120  9778 layer_factory.hpp:77] Creating layer conv2
I0403 12:51:49.211144  9778 net.cpp:91] Creating Layer conv2
I0403 12:51:49.211160  9778 net.cpp:425] conv2 <- pool1
I0403 12:51:49.211179  9778 net.cpp:399] conv2 -> conv2
I0403 12:51:49.226430  9778 net.cpp:141] Setting up conv2
I0403 12:51:49.226480  9778 net.cpp:148] Top shape: 100 256 27 27 (18662400)
I0403 12:51:49.226495  9778 net.cpp:156] Memory required for data: 512959600
I0403 12:51:49.226526  9778 layer_factory.hpp:77] Creating layer relu2
I0403 12:51:49.226549  9778 net.cpp:91] Creating Layer relu2
I0403 12:51:49.226565  9778 net.cpp:425] relu2 <- conv2
I0403 12:51:49.226583  9778 net.cpp:386] relu2 -> conv2 (in-place)
I0403 12:51:49.226864  9778 net.cpp:141] Setting up relu2
I0403 12:51:49.226894  9778 net.cpp:148] Top shape: 100 256 27 27 (18662400)
I0403 12:51:49.226910  9778 net.cpp:156] Memory required for data: 587609200
I0403 12:51:49.226925  9778 layer_factory.hpp:77] Creating layer norm2
I0403 12:51:49.226945  9778 net.cpp:91] Creating Layer norm2
I0403 12:51:49.226963  9778 net.cpp:425] norm2 <- conv2
I0403 12:51:49.226981  9778 net.cpp:399] norm2 -> norm2
I0403 12:51:49.227185  9778 net.cpp:141] Setting up norm2
I0403 12:51:49.227211  9778 net.cpp:148] Top shape: 100 256 27 27 (18662400)
I0403 12:51:49.227226  9778 net.cpp:156] Memory required for data: 662258800
I0403 12:51:49.227241  9778 layer_factory.hpp:77] Creating layer pool2
I0403 12:51:49.227262  9778 net.cpp:91] Creating Layer pool2
I0403 12:51:49.227278  9778 net.cpp:425] pool2 <- norm2
I0403 12:51:49.227298  9778 net.cpp:399] pool2 -> pool2
I0403 12:51:49.227351  9778 net.cpp:141] Setting up pool2
I0403 12:51:49.227375  9778 net.cpp:148] Top shape: 100 256 13 13 (4326400)
I0403 12:51:49.227388  9778 net.cpp:156] Memory required for data: 679564400
I0403 12:51:49.227402  9778 layer_factory.hpp:77] Creating layer conv3
I0403 12:51:49.227426  9778 net.cpp:91] Creating Layer conv3
I0403 12:51:49.227442  9778 net.cpp:425] conv3 <- pool2
I0403 12:51:49.227463  9778 net.cpp:399] conv3 -> conv3
I0403 12:51:49.266340  9778 net.cpp:141] Setting up conv3
I0403 12:51:49.266382  9778 net.cpp:148] Top shape: 100 384 13 13 (6489600)
I0403 12:51:49.266399  9778 net.cpp:156] Memory required for data: 705522800
I0403 12:51:49.266425  9778 layer_factory.hpp:77] Creating layer relu3
I0403 12:51:49.266451  9778 net.cpp:91] Creating Layer relu3
I0403 12:51:49.266469  9778 net.cpp:425] relu3 <- conv3
I0403 12:51:49.266487  9778 net.cpp:386] relu3 -> conv3 (in-place)
I0403 12:51:49.266811  9778 net.cpp:141] Setting up relu3
I0403 12:51:49.266839  9778 net.cpp:148] Top shape: 100 384 13 13 (6489600)
I0403 12:51:49.266854  9778 net.cpp:156] Memory required for data: 731481200
I0403 12:51:49.266868  9778 layer_factory.hpp:77] Creating layer conv4
I0403 12:51:49.266896  9778 net.cpp:91] Creating Layer conv4
I0403 12:51:49.266912  9778 net.cpp:425] conv4 <- conv3
I0403 12:51:49.266932  9778 net.cpp:399] conv4 -> conv4
I0403 12:51:49.297637  9778 net.cpp:141] Setting up conv4
I0403 12:51:49.297708  9778 net.cpp:148] Top shape: 100 384 13 13 (6489600)
I0403 12:51:49.297762  9778 net.cpp:156] Memory required for data: 757439600
I0403 12:51:49.297783  9778 layer_factory.hpp:77] Creating layer relu4
I0403 12:51:49.297807  9778 net.cpp:91] Creating Layer relu4
I0403 12:51:49.297826  9778 net.cpp:425] relu4 <- conv4
I0403 12:51:49.297844  9778 net.cpp:386] relu4 -> conv4 (in-place)
I0403 12:51:49.298125  9778 net.cpp:141] Setting up relu4
I0403 12:51:49.298151  9778 net.cpp:148] Top shape: 100 384 13 13 (6489600)
I0403 12:51:49.298166  9778 net.cpp:156] Memory required for data: 783398000
I0403 12:51:49.298180  9778 layer_factory.hpp:77] Creating layer conv5
I0403 12:51:49.298204  9778 net.cpp:91] Creating Layer conv5
I0403 12:51:49.298221  9778 net.cpp:425] conv5 <- conv4
I0403 12:51:49.298241  9778 net.cpp:399] conv5 -> conv5
I0403 12:51:49.319016  9778 net.cpp:141] Setting up conv5
I0403 12:51:49.319069  9778 net.cpp:148] Top shape: 100 256 13 13 (4326400)
I0403 12:51:49.319085  9778 net.cpp:156] Memory required for data: 800703600
I0403 12:51:49.319113  9778 layer_factory.hpp:77] Creating layer relu5
I0403 12:51:49.319134  9778 net.cpp:91] Creating Layer relu5
I0403 12:51:49.319150  9778 net.cpp:425] relu5 <- conv5
I0403 12:51:49.319169  9778 net.cpp:386] relu5 -> conv5 (in-place)
I0403 12:51:49.319453  9778 net.cpp:141] Setting up relu5
I0403 12:51:49.319483  9778 net.cpp:148] Top shape: 100 256 13 13 (4326400)
I0403 12:51:49.319499  9778 net.cpp:156] Memory required for data: 818009200
I0403 12:51:49.319519  9778 layer_factory.hpp:77] Creating layer pool5
I0403 12:51:49.319542  9778 net.cpp:91] Creating Layer pool5
I0403 12:51:49.319560  9778 net.cpp:425] pool5 <- conv5
I0403 12:51:49.319581  9778 net.cpp:399] pool5 -> pool5
I0403 12:51:49.319644  9778 net.cpp:141] Setting up pool5
I0403 12:51:49.319669  9778 net.cpp:148] Top shape: 100 256 6 6 (921600)
I0403 12:51:49.319684  9778 net.cpp:156] Memory required for data: 821695600
I0403 12:51:49.319697  9778 layer_factory.hpp:77] Creating layer fc6
I0403 12:51:49.319726  9778 net.cpp:91] Creating Layer fc6
I0403 12:51:49.319743  9778 net.cpp:425] fc6 <- pool5
I0403 12:51:49.319764  9778 net.cpp:399] fc6 -> fc6
I0403 12:51:50.876494  9778 net.cpp:141] Setting up fc6
I0403 12:51:50.876541  9778 net.cpp:148] Top shape: 100 4096 (409600)
I0403 12:51:50.876559  9778 net.cpp:156] Memory required for data: 823334000
I0403 12:51:50.876580  9778 layer_factory.hpp:77] Creating layer relu6
I0403 12:51:50.876602  9778 net.cpp:91] Creating Layer relu6
I0403 12:51:50.876619  9778 net.cpp:425] relu6 <- fc6
I0403 12:51:50.876641  9778 net.cpp:386] relu6 -> fc6 (in-place)
I0403 12:51:50.876858  9778 net.cpp:141] Setting up relu6
I0403 12:51:50.876883  9778 net.cpp:148] Top shape: 100 4096 (409600)
I0403 12:51:50.876896  9778 net.cpp:156] Memory required for data: 824972400
I0403 12:51:50.876910  9778 layer_factory.hpp:77] Creating layer drop6
I0403 12:51:50.876930  9778 net.cpp:91] Creating Layer drop6
I0403 12:51:50.876946  9778 net.cpp:425] drop6 <- fc6
I0403 12:51:50.876962  9778 net.cpp:386] drop6 -> fc6 (in-place)
I0403 12:51:50.877012  9778 net.cpp:141] Setting up drop6
I0403 12:51:50.877033  9778 net.cpp:148] Top shape: 100 4096 (409600)
I0403 12:51:50.877048  9778 net.cpp:156] Memory required for data: 826610800
I0403 12:51:50.877061  9778 layer_factory.hpp:77] Creating layer fc7
I0403 12:51:50.877082  9778 net.cpp:91] Creating Layer fc7
I0403 12:51:50.877097  9778 net.cpp:425] fc7 <- fc6
I0403 12:51:50.877115  9778 net.cpp:399] fc7 -> fc7
I0403 12:51:51.561389  9778 net.cpp:141] Setting up fc7
I0403 12:51:51.561466  9778 net.cpp:148] Top shape: 100 4096 (409600)
I0403 12:51:51.561482  9778 net.cpp:156] Memory required for data: 828249200
I0403 12:51:51.561502  9778 layer_factory.hpp:77] Creating layer relu7
I0403 12:51:51.561534  9778 net.cpp:91] Creating Layer relu7
I0403 12:51:51.561553  9778 net.cpp:425] relu7 <- fc7
I0403 12:51:51.561571  9778 net.cpp:386] relu7 -> fc7 (in-place)
I0403 12:51:51.561985  9778 net.cpp:141] Setting up relu7
I0403 12:51:51.562011  9778 net.cpp:148] Top shape: 100 4096 (409600)
I0403 12:51:51.562067  9778 net.cpp:156] Memory required for data: 829887600
I0403 12:51:51.562082  9778 layer_factory.hpp:77] Creating layer drop7
I0403 12:51:51.562103  9778 net.cpp:91] Creating Layer drop7
I0403 12:51:51.562119  9778 net.cpp:425] drop7 <- fc7
I0403 12:51:51.562134  9778 net.cpp:386] drop7 -> fc7 (in-place)
I0403 12:51:51.562178  9778 net.cpp:141] Setting up drop7
I0403 12:51:51.562201  9778 net.cpp:148] Top shape: 100 4096 (409600)
I0403 12:51:51.562214  9778 net.cpp:156] Memory required for data: 831526000
I0403 12:51:51.562228  9778 layer_factory.hpp:77] Creating layer fc8_plantvillage
I0403 12:51:51.562247  9778 net.cpp:91] Creating Layer fc8_plantvillage
I0403 12:51:51.562261  9778 net.cpp:425] fc8_plantvillage <- fc7
I0403 12:51:51.562280  9778 net.cpp:399] fc8_plantvillage -> fc8_plantvillage
I0403 12:51:51.569013  9778 net.cpp:141] Setting up fc8_plantvillage
I0403 12:51:51.569046  9778 net.cpp:148] Top shape: 100 38 (3800)
I0403 12:51:51.569062  9778 net.cpp:156] Memory required for data: 831541200
I0403 12:51:51.569080  9778 layer_factory.hpp:77] Creating layer fc8_plantvillage_fc8_plantvillage_0_split
I0403 12:51:51.569099  9778 net.cpp:91] Creating Layer fc8_plantvillage_fc8_plantvillage_0_split
I0403 12:51:51.569116  9778 net.cpp:425] fc8_plantvillage_fc8_plantvillage_0_split <- fc8_plantvillage
I0403 12:51:51.569133  9778 net.cpp:399] fc8_plantvillage_fc8_plantvillage_0_split -> fc8_plantvillage_fc8_plantvillage_0_split_0
I0403 12:51:51.569152  9778 net.cpp:399] fc8_plantvillage_fc8_plantvillage_0_split -> fc8_plantvillage_fc8_plantvillage_0_split_1
I0403 12:51:51.569171  9778 net.cpp:399] fc8_plantvillage_fc8_plantvillage_0_split -> fc8_plantvillage_fc8_plantvillage_0_split_2
I0403 12:51:51.569248  9778 net.cpp:141] Setting up fc8_plantvillage_fc8_plantvillage_0_split
I0403 12:51:51.569272  9778 net.cpp:148] Top shape: 100 38 (3800)
I0403 12:51:51.569288  9778 net.cpp:148] Top shape: 100 38 (3800)
I0403 12:51:51.569301  9778 net.cpp:148] Top shape: 100 38 (3800)
I0403 12:51:51.569314  9778 net.cpp:156] Memory required for data: 831586800
I0403 12:51:51.569329  9778 layer_factory.hpp:77] Creating layer prob
I0403 12:51:51.569346  9778 net.cpp:91] Creating Layer prob
I0403 12:51:51.569360  9778 net.cpp:425] prob <- fc8_plantvillage_fc8_plantvillage_0_split_0
I0403 12:51:51.569377  9778 net.cpp:399] prob -> prob
I0403 12:51:51.569614  9778 net.cpp:141] Setting up prob
I0403 12:51:51.569639  9778 net.cpp:148] Top shape: 100 38 (3800)
I0403 12:51:51.569654  9778 net.cpp:156] Memory required for data: 831602000
I0403 12:51:51.569669  9778 layer_factory.hpp:77] Creating layer hdf5out
I0403 12:51:51.569691  9778 net.cpp:91] Creating Layer hdf5out
I0403 12:51:51.569710  9778 net.cpp:425] hdf5out <- prob
I0403 12:51:51.569725  9778 net.cpp:425] hdf5out <- label_data_1_split_0
I0403 12:51:51.572144  9778 net.cpp:141] Setting up hdf5out
…
