…
I0403 12:58:30.165050  9960 net.cpp:313] The NetState phase (1) differed from the phase (0) specified by a rule in layer data
I0403 12:58:30.165350  9960 net.cpp:49] Initializing net from parameters: 
state {
  phase: TEST
}
layer {
  name: "data"
  type: "Data"
  top: "data"
  top: "label"
  include {
    phase: TEST
  }
  transform_param {
    crop_size: 227
    mean_file: "/home/mohanty/data/final_dataset/lmdb/grayscale-50-50/mean.binaryproto"
  }
  data_param {
    source: "/home/mohanty/data/final_dataset/lmdb/grayscale-50-50/test_db"
    batch_size: 100
    backend: LMDB
  }
}
layer {
  name: "conv1"
  type: "Convolution"
  bottom: "data"
  top: "conv1"
  param {
    lr_mult: 1
    decay_mult: 1
  }
  param {
    lr_mult: 2
    decay_mult: 0
  }
  convolution_param {
    num_output: 96
    kernel_size: 11
    stride: 4
    weight_filler {
      type: "gaussian"
      std: 0.01
    }
    bias_filler {
      type: "constant"
      value: 0
    }
  }
}
layer {
  name: "relu1"
  type: "ReLU"
  bottom: "conv1"
  top: "conv1"
}
layer {
  name: "norm1"
  type: "LRN"
  bottom: "conv1"
  top: "norm1"
  lrn_param {
    local_size: 5
    alpha: 0.0001
    beta: 0.75
  }
}
layer {
  name: "pool1"
  type: "Pooling"
  bottom: "norm1"
  top: "pool1"
  pooling_param {
    pool: MAX
    kernel_size: 3
    stride: 2
  }
}
layer {
  name: "conv2"
  type: "Convolution"
  bottom: "pool1"
  top: "conv2"
  param {
    lr_mult: 1
    decay_mult: 1
  }
  param {
    lr_mult: 2
    decay_mult: 0
  }
  convolution_param {
    num_output: 256
    pad: 2
    kernel_size: 5
    group: 2
    weight_filler {
      type: "gaussian"
      std: 0.01
    }
    bias_filler {
      type: "constant"
      value: 0.1
    }
  }
}
layer {
  name: "relu2"
  type: "ReLU"
  bottom: "conv2"
  top: "conv2"
}
layer {
  name: "norm2"
  type: "LRN"
  bottom: "conv2"
  top: "norm2"
  lrn_param {
    local_size: 5
    alpha: 0.0001
    beta: 0.75
  }
}
layer {
  name: "pool2"
  type: "Pooling"
  bottom: "norm2"
  top: "pool2"
  pooling_param {
    pool: MAX
    kernel_size: 3
    stride: 2
  }
}
layer {
  name: "conv3"
  type: "Convolution"
  bottom: "pool2"
  top: "conv3"
  param {
    lr_mult: 1
    decay_mult: 1
  }
  param {
    lr_mult: 2
    decay_mult: 0
  }
  convolution_param {
    num_output: 384
    pad: 1
    kernel_size: 3
    weight_filler {
      type: "gaussian"
      std: 0.01
    }
    bias_filler {
      type: "constant"
      value: 0
    }
  }
}
layer {
  name: "relu3"
  type: "ReLU"
  bottom: "conv3"
  top: "conv3"
}
layer {
  name: "conv4"
  type: "Convolution"
  bottom: "conv3"
  top: "conv4"
  param {
    lr_mult: 1
    decay_mult: 1
  }
  param {
    lr_mult: 2
    decay_mult: 0
  }
  convolution_param {
    num_output: 384
    pad: 1
    kernel_size: 3
    group: 2
    weight_filler {
      type: "gaussian"
      std: 0.01
    }
    bias_filler {
      type: "constant"
      value: 0.1
    }
  }
}
layer {
  name: "relu4"
  type: "ReLU"
  bottom: "conv4"
  top: "conv4"
}
layer {
  name: "conv5"
  type: "Convolution"
  bottom: "conv4"
  top: "conv5"
  param {
    lr_mult: 1
    decay_mult: 1
  }
  param {
    lr_mult: 2
    decay_mult: 0
  }
  convolution_param {
    num_output: 256
    pad: 1
    kernel_size: 3
    group: 2
    weight_filler {
      type: "gaussian"
      std: 0.01
    }
    bias_filler {
      type: "constant"
      value: 0.1
    }
  }
}
layer {
  name: "relu5"
  type: "ReLU"
  bottom: "conv5"
  top: "conv5"
}
layer {
  name: "pool5"
  type: "Pooling"
  bottom: "conv5"
  top: "pool5"
  pooling_param {
    pool: MAX
    kernel_size: 3
    stride: 2
  }
}
layer {
  name: "fc6"
  type: "InnerProduct"
  bottom: "pool5"
  top: "fc6"
  param {
    lr_mult: 1
    decay_mult: 1
  }
  param {
    lr_mult: 2
    decay_mult: 0
  }
  inner_product_param {
    num_output: 4096
    weight_filler {
      type: "gaussian"
      std: 0.005
    }
    bias_filler {
      type: "constant"
      value: 0.1
    }
  }
}
layer {
  name: "relu6"
  type: "ReLU"
  bottom: "fc6"
  top: "fc6"
}
layer {
  name: "drop6"
  type: "Dropout"
  bottom: "fc6"
  top: "fc6"
  dropout_param {
    dropout_ratio: 0.5
  }
}
layer {
  name: "fc7"
  type: "InnerProduct"
  bottom: "fc6"
  top: "fc7"
  param {
    lr_mult: 1
    decay_mult: 1
  }
  param {
    lr_mult: 2
    decay_mult: 0
  }
  inner_product_param {
    num_output: 4096
    weight_filler {
      type: "gaussian"
      std: 0.005
    }
    bias_filler {
      type: "constant"
      value: 0.1
    }
  }
}
layer {
  name: "relu7"
  type: "ReLU"
  bottom: "fc7"
  top: "fc7"
}
layer {
  name: "drop7"
  type: "Dropout"
  bottom: "fc7"
  top: "fc7"
  dropout_param {
    dropout_ratio: 0.5
  }
}
layer {
  name: "fc8_plantvillage"
  type: "InnerProduct"
  bottom: "fc7"
  top: "fc8_plantvillage"
  param {
    lr_mult: 1
    decay_mult: 1
  }
  param {
    lr_mult: 2
    decay_mult: 0
  }
  inner_product_param {
    num_output: 38
    weight_filler {
      type: "gaussian"
      std: 0.01
    }
    bias_filler {
      type: "constant"
      value: 0
    }
  }
}
layer {
  name: "prob"
  type: "Softmax"
  bottom: "fc8_plantvillage"
  top: "prob"
  include {
    phase: TEST
  }
}
layer {
  name: "hdf5out"
  type: "HDF5Output"
  bottom: "prob"
  bottom: "label"
  include {
    phase: TEST
  }
  hdf5_output_param {
    file_name: "hdf5_dumps/iter_3204.h5"
  }
}
layer {
  name: "loss"
  type: "SoftmaxWithLoss"
  bottom: "fc8_plantvillage"
  bottom: "label"
  top: "loss"
}
layer {
  name: "accuracy"
  type: "Accuracy"
  bottom: "fc8_plantvillage"
  bottom: "label"
  top: "accuracy"
  include {
    phase: TEST
  }
}
I0403 12:58:30.165971  9960 layer_factory.hpp:77] Creating layer data
I0403 12:58:30.166638  9960 net.cpp:91] Creating Layer data
I0403 12:58:30.166672  9960 net.cpp:399] data -> data
I0403 12:58:30.166723  9960 net.cpp:399] data -> label
I0403 12:58:30.166759  9960 data_transformer.cpp:25] Loading mean file from: /home/mohanty/data/final_dataset/lmdb/grayscale-50-50/mean.binaryproto
I0403 12:58:30.167898  9963 db_lmdb.cpp:38] Opened lmdb /home/mohanty/data/final_dataset/lmdb/grayscale-50-50/test_db
I0403 12:58:30.181284  9960 data_layer.cpp:41] output data size: 100,3,227,227
I0403 12:58:30.297890  9960 net.cpp:141] Setting up data
I0403 12:58:30.297982  9960 net.cpp:148] Top shape: 100 3 227 227 (15458700)
I0403 12:58:30.298004  9960 net.cpp:148] Top shape: 100 (100)
I0403 12:58:30.298019  9960 net.cpp:156] Memory required for data: 61835200
I0403 12:58:30.298046  9960 layer_factory.hpp:77] Creating layer label_data_1_split
I0403 12:58:30.298071  9960 net.cpp:91] Creating Layer label_data_1_split
I0403 12:58:30.298089  9960 net.cpp:425] label_data_1_split <- label
I0403 12:58:30.298121  9960 net.cpp:399] label_data_1_split -> label_data_1_split_0
I0403 12:58:30.298148  9960 net.cpp:399] label_data_1_split -> label_data_1_split_1
I0403 12:58:30.298168  9960 net.cpp:399] label_data_1_split -> label_data_1_split_2
I0403 12:58:30.298233  9960 net.cpp:141] Setting up label_data_1_split
I0403 12:58:30.298256  9960 net.cpp:148] Top shape: 100 (100)
I0403 12:58:30.298274  9960 net.cpp:148] Top shape: 100 (100)
I0403 12:58:30.298290  9960 net.cpp:148] Top shape: 100 (100)
I0403 12:58:30.298303  9960 net.cpp:156] Memory required for data: 61836400
I0403 12:58:30.298317  9960 layer_factory.hpp:77] Creating layer conv1
I0403 12:58:30.298349  9960 net.cpp:91] Creating Layer conv1
I0403 12:58:30.298367  9960 net.cpp:425] conv1 <- data
I0403 12:58:30.298388  9960 net.cpp:399] conv1 -> conv1
I0403 12:58:30.437204  9960 net.cpp:141] Setting up conv1
I0403 12:58:30.437280  9960 net.cpp:148] Top shape: 100 96 55 55 (29040000)
I0403 12:58:30.437297  9960 net.cpp:156] Memory required for data: 177996400
I0403 12:58:30.437328  9960 layer_factory.hpp:77] Creating layer relu1
I0403 12:58:30.437356  9960 net.cpp:91] Creating Layer relu1
I0403 12:58:30.437374  9960 net.cpp:425] relu1 <- conv1
I0403 12:58:30.437392  9960 net.cpp:386] relu1 -> conv1 (in-place)
I0403 12:58:30.437657  9960 net.cpp:141] Setting up relu1
I0403 12:58:30.437685  9960 net.cpp:148] Top shape: 100 96 55 55 (29040000)
I0403 12:58:30.437736  9960 net.cpp:156] Memory required for data: 294156400
I0403 12:58:30.437753  9960 layer_factory.hpp:77] Creating layer norm1
I0403 12:58:30.437780  9960 net.cpp:91] Creating Layer norm1
I0403 12:58:30.437798  9960 net.cpp:425] norm1 <- conv1
I0403 12:58:30.437815  9960 net.cpp:399] norm1 -> norm1
I0403 12:58:30.438127  9960 net.cpp:141] Setting up norm1
I0403 12:58:30.438155  9960 net.cpp:148] Top shape: 100 96 55 55 (29040000)
I0403 12:58:30.438171  9960 net.cpp:156] Memory required for data: 410316400
I0403 12:58:30.438186  9960 layer_factory.hpp:77] Creating layer pool1
I0403 12:58:30.438210  9960 net.cpp:91] Creating Layer pool1
I0403 12:58:30.438226  9960 net.cpp:425] pool1 <- norm1
I0403 12:58:30.438244  9960 net.cpp:399] pool1 -> pool1
I0403 12:58:30.438313  9960 net.cpp:141] Setting up pool1
I0403 12:58:30.438338  9960 net.cpp:148] Top shape: 100 96 27 27 (6998400)
I0403 12:58:30.438352  9960 net.cpp:156] Memory required for data: 438310000
I0403 12:58:30.438367  9960 layer_factory.hpp:77] Creating layer conv2
I0403 12:58:30.438391  9960 net.cpp:91] Creating Layer conv2
I0403 12:58:30.438407  9960 net.cpp:425] conv2 <- pool1
I0403 12:58:30.438426  9960 net.cpp:399] conv2 -> conv2
I0403 12:58:30.453691  9960 net.cpp:141] Setting up conv2
I0403 12:58:30.453745  9960 net.cpp:148] Top shape: 100 256 27 27 (18662400)
I0403 12:58:30.453763  9960 net.cpp:156] Memory required for data: 512959600
I0403 12:58:30.453786  9960 layer_factory.hpp:77] Creating layer relu2
I0403 12:58:30.453807  9960 net.cpp:91] Creating Layer relu2
I0403 12:58:30.453824  9960 net.cpp:425] relu2 <- conv2
I0403 12:58:30.453871  9960 net.cpp:386] relu2 -> conv2 (in-place)
I0403 12:58:30.454159  9960 net.cpp:141] Setting up relu2
I0403 12:58:30.454190  9960 net.cpp:148] Top shape: 100 256 27 27 (18662400)
I0403 12:58:30.454205  9960 net.cpp:156] Memory required for data: 587609200
I0403 12:58:30.454222  9960 layer_factory.hpp:77] Creating layer norm2
I0403 12:58:30.454246  9960 net.cpp:91] Creating Layer norm2
I0403 12:58:30.454262  9960 net.cpp:425] norm2 <- conv2
I0403 12:58:30.454280  9960 net.cpp:399] norm2 -> norm2
I0403 12:58:30.454480  9960 net.cpp:141] Setting up norm2
I0403 12:58:30.454506  9960 net.cpp:148] Top shape: 100 256 27 27 (18662400)
I0403 12:58:30.454521  9960 net.cpp:156] Memory required for data: 662258800
I0403 12:58:30.454548  9960 layer_factory.hpp:77] Creating layer pool2
I0403 12:58:30.454587  9960 net.cpp:91] Creating Layer pool2
I0403 12:58:30.454605  9960 net.cpp:425] pool2 <- norm2
I0403 12:58:30.454625  9960 net.cpp:399] pool2 -> pool2
I0403 12:58:30.454681  9960 net.cpp:141] Setting up pool2
I0403 12:58:30.454705  9960 net.cpp:148] Top shape: 100 256 13 13 (4326400)
I0403 12:58:30.454720  9960 net.cpp:156] Memory required for data: 679564400
I0403 12:58:30.454735  9960 layer_factory.hpp:77] Creating layer conv3
I0403 12:58:30.454761  9960 net.cpp:91] Creating Layer conv3
I0403 12:58:30.454777  9960 net.cpp:425] conv3 <- pool2
I0403 12:58:30.454798  9960 net.cpp:399] conv3 -> conv3
I0403 12:58:30.494393  9960 net.cpp:141] Setting up conv3
I0403 12:58:30.494472  9960 net.cpp:148] Top shape: 100 384 13 13 (6489600)
I0403 12:58:30.494489  9960 net.cpp:156] Memory required for data: 705522800
I0403 12:58:30.494515  9960 layer_factory.hpp:77] Creating layer relu3
I0403 12:58:30.494549  9960 net.cpp:91] Creating Layer relu3
I0403 12:58:30.494570  9960 net.cpp:425] relu3 <- conv3
I0403 12:58:30.494590  9960 net.cpp:386] relu3 -> conv3 (in-place)
I0403 12:58:30.494874  9960 net.cpp:141] Setting up relu3
I0403 12:58:30.494904  9960 net.cpp:148] Top shape: 100 384 13 13 (6489600)
I0403 12:58:30.494920  9960 net.cpp:156] Memory required for data: 731481200
I0403 12:58:30.494935  9960 layer_factory.hpp:77] Creating layer conv4
I0403 12:58:30.494961  9960 net.cpp:91] Creating Layer conv4
I0403 12:58:30.494977  9960 net.cpp:425] conv4 <- conv3
I0403 12:58:30.494997  9960 net.cpp:399] conv4 -> conv4
I0403 12:58:30.525493  9960 net.cpp:141] Setting up conv4
I0403 12:58:30.525568  9960 net.cpp:148] Top shape: 100 384 13 13 (6489600)
I0403 12:58:30.525619  9960 net.cpp:156] Memory required for data: 757439600
I0403 12:58:30.525641  9960 layer_factory.hpp:77] Creating layer relu4
I0403 12:58:30.525665  9960 net.cpp:91] Creating Layer relu4
I0403 12:58:30.525683  9960 net.cpp:425] relu4 <- conv4
I0403 12:58:30.525702  9960 net.cpp:386] relu4 -> conv4 (in-place)
I0403 12:58:30.525991  9960 net.cpp:141] Setting up relu4
I0403 12:58:30.526018  9960 net.cpp:148] Top shape: 100 384 13 13 (6489600)
I0403 12:58:30.526034  9960 net.cpp:156] Memory required for data: 783398000
I0403 12:58:30.526049  9960 layer_factory.hpp:77] Creating layer conv5
I0403 12:58:30.526074  9960 net.cpp:91] Creating Layer conv5
I0403 12:58:30.526092  9960 net.cpp:425] conv5 <- conv4
I0403 12:58:30.526113  9960 net.cpp:399] conv5 -> conv5
I0403 12:58:30.546984  9960 net.cpp:141] Setting up conv5
I0403 12:58:30.547030  9960 net.cpp:148] Top shape: 100 256 13 13 (4326400)
I0403 12:58:30.547047  9960 net.cpp:156] Memory required for data: 800703600
I0403 12:58:30.547071  9960 layer_factory.hpp:77] Creating layer relu5
I0403 12:58:30.547096  9960 net.cpp:91] Creating Layer relu5
I0403 12:58:30.547116  9960 net.cpp:425] relu5 <- conv5
I0403 12:58:30.547135  9960 net.cpp:386] relu5 -> conv5 (in-place)
I0403 12:58:30.547407  9960 net.cpp:141] Setting up relu5
I0403 12:58:30.547436  9960 net.cpp:148] Top shape: 100 256 13 13 (4326400)
I0403 12:58:30.547451  9960 net.cpp:156] Memory required for data: 818009200
I0403 12:58:30.547466  9960 layer_factory.hpp:77] Creating layer pool5
I0403 12:58:30.547487  9960 net.cpp:91] Creating Layer pool5
I0403 12:58:30.547502  9960 net.cpp:425] pool5 <- conv5
I0403 12:58:30.547525  9960 net.cpp:399] pool5 -> pool5
I0403 12:58:30.547588  9960 net.cpp:141] Setting up pool5
I0403 12:58:30.547615  9960 net.cpp:148] Top shape: 100 256 6 6 (921600)
I0403 12:58:30.547629  9960 net.cpp:156] Memory required for data: 821695600
I0403 12:58:30.547644  9960 layer_factory.hpp:77] Creating layer fc6
I0403 12:58:30.547670  9960 net.cpp:91] Creating Layer fc6
I0403 12:58:30.547688  9960 net.cpp:425] fc6 <- pool5
I0403 12:58:30.547708  9960 net.cpp:399] fc6 -> fc6
I0403 12:58:32.114722  9960 net.cpp:141] Setting up fc6
I0403 12:58:32.114804  9960 net.cpp:148] Top shape: 100 4096 (409600)
I0403 12:58:32.114820  9960 net.cpp:156] Memory required for data: 823334000
I0403 12:58:32.114840  9960 layer_factory.hpp:77] Creating layer relu6
I0403 12:58:32.114866  9960 net.cpp:91] Creating Layer relu6
I0403 12:58:32.114884  9960 net.cpp:425] relu6 <- fc6
I0403 12:58:32.114903  9960 net.cpp:386] relu6 -> fc6 (in-place)
I0403 12:58:32.115131  9960 net.cpp:141] Setting up relu6
I0403 12:58:32.115159  9960 net.cpp:148] Top shape: 100 4096 (409600)
I0403 12:58:32.115175  9960 net.cpp:156] Memory required for data: 824972400
I0403 12:58:32.115190  9960 layer_factory.hpp:77] Creating layer drop6
I0403 12:58:32.115208  9960 net.cpp:91] Creating Layer drop6
I0403 12:58:32.115222  9960 net.cpp:425] drop6 <- fc6
I0403 12:58:32.115239  9960 net.cpp:386] drop6 -> fc6 (in-place)
I0403 12:58:32.115291  9960 net.cpp:141] Setting up drop6
I0403 12:58:32.115314  9960 net.cpp:148] Top shape: 100 4096 (409600)
I0403 12:58:32.115329  9960 net.cpp:156] Memory required for data: 826610800
I0403 12:58:32.115342  9960 layer_factory.hpp:77] Creating layer fc7
I0403 12:58:32.115365  9960 net.cpp:91] Creating Layer fc7
I0403 12:58:32.115381  9960 net.cpp:425] fc7 <- fc6
I0403 12:58:32.115398  9960 net.cpp:399] fc7 -> fc7
I0403 12:58:32.800115  9960 net.cpp:141] Setting up fc7
I0403 12:58:32.800158  9960 net.cpp:148] Top shape: 100 4096 (409600)
I0403 12:58:32.800173  9960 net.cpp:156] Memory required for data: 828249200
I0403 12:58:32.800192  9960 layer_factory.hpp:77] Creating layer relu7
I0403 12:58:32.800225  9960 net.cpp:91] Creating Layer relu7
I0403 12:58:32.800242  9960 net.cpp:425] relu7 <- fc7
I0403 12:58:32.800259  9960 net.cpp:386] relu7 -> fc7 (in-place)
I0403 12:58:32.800660  9960 net.cpp:141] Setting up relu7
I0403 12:58:32.800688  9960 net.cpp:148] Top shape: 100 4096 (409600)
I0403 12:58:32.800732  9960 net.cpp:156] Memory required for data: 829887600
I0403 12:58:32.800747  9960 layer_factory.hpp:77] Creating layer drop7
I0403 12:58:32.800765  9960 net.cpp:91] Creating Layer drop7
I0403 12:58:32.800779  9960 net.cpp:425] drop7 <- fc7
I0403 12:58:32.800796  9960 net.cpp:386] drop7 -> fc7 (in-place)
I0403 12:58:32.800837  9960 net.cpp:141] Setting up drop7
I0403 12:58:32.800859  9960 net.cpp:148] Top shape: 100 4096 (409600)
I0403 12:58:32.800873  9960 net.cpp:156] Memory required for data: 831526000
I0403 12:58:32.800886  9960 layer_factory.hpp:77] Creating layer fc8_plantvillage
I0403 12:58:32.800907  9960 net.cpp:91] Creating Layer fc8_plantvillage
I0403 12:58:32.800922  9960 net.cpp:425] fc8_plantvillage <- fc7
I0403 12:58:32.800940  9960 net.cpp:399] fc8_plantvillage -> fc8_plantvillage
I0403 12:58:32.807657  9960 net.cpp:141] Setting up fc8_plantvillage
I0403 12:58:32.807687  9960 net.cpp:148] Top shape: 100 38 (3800)
I0403 12:58:32.807701  9960 net.cpp:156] Memory required for data: 831541200
I0403 12:58:32.807718  9960 layer_factory.hpp:77] Creating layer fc8_plantvillage_fc8_plantvillage_0_split
I0403 12:58:32.807735  9960 net.cpp:91] Creating Layer fc8_plantvillage_fc8_plantvillage_0_split
I0403 12:58:32.807750  9960 net.cpp:425] fc8_plantvillage_fc8_plantvillage_0_split <- fc8_plantvillage
I0403 12:58:32.807770  9960 net.cpp:399] fc8_plantvillage_fc8_plantvillage_0_split -> fc8_plantvillage_fc8_plantvillage_0_split_0
I0403 12:58:32.807790  9960 net.cpp:399] fc8_plantvillage_fc8_plantvillage_0_split -> fc8_plantvillage_fc8_plantvillage_0_split_1
I0403 12:58:32.807809  9960 net.cpp:399] fc8_plantvillage_fc8_plantvillage_0_split -> fc8_plantvillage_fc8_plantvillage_0_split_2
I0403 12:58:32.807885  9960 net.cpp:141] Setting up fc8_plantvillage_fc8_plantvillage_0_split
I0403 12:58:32.807909  9960 net.cpp:148] Top shape: 100 38 (3800)
I0403 12:58:32.807924  9960 net.cpp:148] Top shape: 100 38 (3800)
I0403 12:58:32.807939  9960 net.cpp:148] Top shape: 100 38 (3800)
I0403 12:58:32.807952  9960 net.cpp:156] Memory required for data: 831586800
I0403 12:58:32.807966  9960 layer_factory.hpp:77] Creating layer prob
I0403 12:58:32.807986  9960 net.cpp:91] Creating Layer prob
I0403 12:58:32.808001  9960 net.cpp:425] prob <- fc8_plantvillage_fc8_plantvillage_0_split_0
I0403 12:58:32.808018  9960 net.cpp:399] prob -> prob
I0403 12:58:32.808239  9960 net.cpp:141] Setting up prob
I0403 12:58:32.808269  9960 net.cpp:148] Top shape: 100 38 (3800)
I0403 12:58:32.808284  9960 net.cpp:156] Memory required for data: 831602000
I0403 12:58:32.808297  9960 layer_factory.hpp:77] Creating layer hdf5out
I0403 12:58:32.808315  9960 net.cpp:91] Creating Layer hdf5out
I0403 12:58:32.808331  9960 net.cpp:425] hdf5out <- prob
I0403 12:58:32.808346  9960 net.cpp:425] hdf5out <- label_data_1_split_0
I0403 12:58:32.810556  9960 net.cpp:141] Setting up hdf5out
…
