…
I0403 13:11:52.818622 10479 net.cpp:313] The NetState phase (1) differed from the phase (0) specified by a rule in layer data
I0403 13:11:52.818908 10479 net.cpp:49] Initializing net from parameters: 
state {
  phase: TEST
}
layer {
  name: "data"
  type: "Data"
  top: "data"
  top: "label"
  include {
    phase: TEST
  }
  transform_param {
    crop_size: 227
    mean_file: "/home/mohanty/data/final_dataset/lmdb/grayscale-50-50/mean.binaryproto"
  }
  data_param {
    source: "/home/mohanty/data/final_dataset/lmdb/grayscale-50-50/test_db"
    batch_size: 100
    backend: LMDB
  }
}
layer {
  name: "conv1"
  type: "Convolution"
  bottom: "data"
  top: "conv1"
  param {
    lr_mult: 1
    decay_mult: 1
  }
  param {
    lr_mult: 2
    decay_mult: 0
  }
  convolution_param {
    num_output: 96
    kernel_size: 11
    stride: 4
    weight_filler {
      type: "gaussian"
      std: 0.01
    }
    bias_filler {
      type: "constant"
      value: 0
    }
  }
}
layer {
  name: "relu1"
  type: "ReLU"
  bottom: "conv1"
  top: "conv1"
}
layer {
  name: "norm1"
  type: "LRN"
  bottom: "conv1"
  top: "norm1"
  lrn_param {
    local_size: 5
    alpha: 0.0001
    beta: 0.75
  }
}
layer {
  name: "pool1"
  type: "Pooling"
  bottom: "norm1"
  top: "pool1"
  pooling_param {
    pool: MAX
    kernel_size: 3
    stride: 2
  }
}
layer {
  name: "conv2"
  type: "Convolution"
  bottom: "pool1"
  top: "conv2"
  param {
    lr_mult: 1
    decay_mult: 1
  }
  param {
    lr_mult: 2
    decay_mult: 0
  }
  convolution_param {
    num_output: 256
    pad: 2
    kernel_size: 5
    group: 2
    weight_filler {
      type: "gaussian"
      std: 0.01
    }
    bias_filler {
      type: "constant"
      value: 0.1
    }
  }
}
layer {
  name: "relu2"
  type: "ReLU"
  bottom: "conv2"
  top: "conv2"
}
layer {
  name: "norm2"
  type: "LRN"
  bottom: "conv2"
  top: "norm2"
  lrn_param {
    local_size: 5
    alpha: 0.0001
    beta: 0.75
  }
}
layer {
  name: "pool2"
  type: "Pooling"
  bottom: "norm2"
  top: "pool2"
  pooling_param {
    pool: MAX
    kernel_size: 3
    stride: 2
  }
}
layer {
  name: "conv3"
  type: "Convolution"
  bottom: "pool2"
  top: "conv3"
  param {
    lr_mult: 1
    decay_mult: 1
  }
  param {
    lr_mult: 2
    decay_mult: 0
  }
  convolution_param {
    num_output: 384
    pad: 1
    kernel_size: 3
    weight_filler {
      type: "gaussian"
      std: 0.01
    }
    bias_filler {
      type: "constant"
      value: 0
    }
  }
}
layer {
  name: "relu3"
  type: "ReLU"
  bottom: "conv3"
  top: "conv3"
}
layer {
  name: "conv4"
  type: "Convolution"
  bottom: "conv3"
  top: "conv4"
  param {
    lr_mult: 1
    decay_mult: 1
  }
  param {
    lr_mult: 2
    decay_mult: 0
  }
  convolution_param {
    num_output: 384
    pad: 1
    kernel_size: 3
    group: 2
    weight_filler {
      type: "gaussian"
      std: 0.01
    }
    bias_filler {
      type: "constant"
      value: 0.1
    }
  }
}
layer {
  name: "relu4"
  type: "ReLU"
  bottom: "conv4"
  top: "conv4"
}
layer {
  name: "conv5"
  type: "Convolution"
  bottom: "conv4"
  top: "conv5"
  param {
    lr_mult: 1
    decay_mult: 1
  }
  param {
    lr_mult: 2
    decay_mult: 0
  }
  convolution_param {
    num_output: 256
    pad: 1
    kernel_size: 3
    group: 2
    weight_filler {
      type: "gaussian"
      std: 0.01
    }
    bias_filler {
      type: "constant"
      value: 0.1
    }
  }
}
layer {
  name: "relu5"
  type: "ReLU"
  bottom: "conv5"
  top: "conv5"
}
layer {
  name: "pool5"
  type: "Pooling"
  bottom: "conv5"
  top: "pool5"
  pooling_param {
    pool: MAX
    kernel_size: 3
    stride: 2
  }
}
layer {
  name: "fc6"
  type: "InnerProduct"
  bottom: "pool5"
  top: "fc6"
  param {
    lr_mult: 1
    decay_mult: 1
  }
  param {
    lr_mult: 2
    decay_mult: 0
  }
  inner_product_param {
    num_output: 4096
    weight_filler {
      type: "gaussian"
      std: 0.005
    }
    bias_filler {
      type: "constant"
      value: 0.1
    }
  }
}
layer {
  name: "relu6"
  type: "ReLU"
  bottom: "fc6"
  top: "fc6"
}
layer {
  name: "drop6"
  type: "Dropout"
  bottom: "fc6"
  top: "fc6"
  dropout_param {
    dropout_ratio: 0.5
  }
}
layer {
  name: "fc7"
  type: "InnerProduct"
  bottom: "fc6"
  top: "fc7"
  param {
    lr_mult: 1
    decay_mult: 1
  }
  param {
    lr_mult: 2
    decay_mult: 0
  }
  inner_product_param {
    num_output: 4096
    weight_filler {
      type: "gaussian"
      std: 0.005
    }
    bias_filler {
      type: "constant"
      value: 0.1
    }
  }
}
layer {
  name: "relu7"
  type: "ReLU"
  bottom: "fc7"
  top: "fc7"
}
layer {
  name: "drop7"
  type: "Dropout"
  bottom: "fc7"
  top: "fc7"
  dropout_param {
    dropout_ratio: 0.5
  }
}
layer {
  name: "fc8_plantvillage"
  type: "InnerProduct"
  bottom: "fc7"
  top: "fc8_plantvillage"
  param {
    lr_mult: 1
    decay_mult: 1
  }
  param {
    lr_mult: 2
    decay_mult: 0
  }
  inner_product_param {
    num_output: 38
    weight_filler {
      type: "gaussian"
      std: 0.01
    }
    bias_filler {
      type: "constant"
      value: 0
    }
  }
}
layer {
  name: "prob"
  type: "Softmax"
  bottom: "fc8_plantvillage"
  top: "prob"
  include {
    phase: TEST
  }
}
layer {
  name: "hdf5out"
  type: "HDF5Output"
  bottom: "prob"
  bottom: "label"
  include {
    phase: TEST
  }
  hdf5_output_param {
    file_name: "hdf5_dumps/iter_6942.h5"
  }
}
layer {
  name: "loss"
  type: "SoftmaxWithLoss"
  bottom: "fc8_plantvillage"
  bottom: "label"
  top: "loss"
}
layer {
  name: "accuracy"
  type: "Accuracy"
  bottom: "fc8_plantvillage"
  bottom: "label"
  top: "accuracy"
  include {
    phase: TEST
  }
}
I0403 13:11:52.819466 10479 layer_factory.hpp:77] Creating layer data
I0403 13:11:52.820130 10479 net.cpp:91] Creating Layer data
I0403 13:11:52.820163 10479 net.cpp:399] data -> data
I0403 13:11:52.820224 10479 net.cpp:399] data -> label
I0403 13:11:52.820262 10479 data_transformer.cpp:25] Loading mean file from: /home/mohanty/data/final_dataset/lmdb/grayscale-50-50/mean.binaryproto
I0403 13:11:52.821449 10482 db_lmdb.cpp:38] Opened lmdb /home/mohanty/data/final_dataset/lmdb/grayscale-50-50/test_db
I0403 13:11:52.834853 10479 data_layer.cpp:41] output data size: 100,3,227,227
I0403 13:11:52.953024 10479 net.cpp:141] Setting up data
I0403 13:11:52.953117 10479 net.cpp:148] Top shape: 100 3 227 227 (15458700)
I0403 13:11:52.953140 10479 net.cpp:148] Top shape: 100 (100)
I0403 13:11:52.953155 10479 net.cpp:156] Memory required for data: 61835200
I0403 13:11:52.953183 10479 layer_factory.hpp:77] Creating layer label_data_1_split
I0403 13:11:52.953209 10479 net.cpp:91] Creating Layer label_data_1_split
I0403 13:11:52.953227 10479 net.cpp:425] label_data_1_split <- label
I0403 13:11:52.953259 10479 net.cpp:399] label_data_1_split -> label_data_1_split_0
I0403 13:11:52.953286 10479 net.cpp:399] label_data_1_split -> label_data_1_split_1
I0403 13:11:52.953306 10479 net.cpp:399] label_data_1_split -> label_data_1_split_2
I0403 13:11:52.953369 10479 net.cpp:141] Setting up label_data_1_split
I0403 13:11:52.953392 10479 net.cpp:148] Top shape: 100 (100)
I0403 13:11:52.953409 10479 net.cpp:148] Top shape: 100 (100)
I0403 13:11:52.953425 10479 net.cpp:148] Top shape: 100 (100)
I0403 13:11:52.953439 10479 net.cpp:156] Memory required for data: 61836400
I0403 13:11:52.953454 10479 layer_factory.hpp:77] Creating layer conv1
I0403 13:11:52.953485 10479 net.cpp:91] Creating Layer conv1
I0403 13:11:52.953503 10479 net.cpp:425] conv1 <- data
I0403 13:11:52.953522 10479 net.cpp:399] conv1 -> conv1
I0403 13:11:53.096892 10479 net.cpp:141] Setting up conv1
I0403 13:11:53.096968 10479 net.cpp:148] Top shape: 100 96 55 55 (29040000)
I0403 13:11:53.096987 10479 net.cpp:156] Memory required for data: 177996400
I0403 13:11:53.097018 10479 layer_factory.hpp:77] Creating layer relu1
I0403 13:11:53.097045 10479 net.cpp:91] Creating Layer relu1
I0403 13:11:53.097064 10479 net.cpp:425] relu1 <- conv1
I0403 13:11:53.097084 10479 net.cpp:386] relu1 -> conv1 (in-place)
I0403 13:11:53.097340 10479 net.cpp:141] Setting up relu1
I0403 13:11:53.097368 10479 net.cpp:148] Top shape: 100 96 55 55 (29040000)
I0403 13:11:53.097417 10479 net.cpp:156] Memory required for data: 294156400
I0403 13:11:53.097434 10479 layer_factory.hpp:77] Creating layer norm1
I0403 13:11:53.097461 10479 net.cpp:91] Creating Layer norm1
I0403 13:11:53.097479 10479 net.cpp:425] norm1 <- conv1
I0403 13:11:53.097498 10479 net.cpp:399] norm1 -> norm1
I0403 13:11:53.097838 10479 net.cpp:141] Setting up norm1
I0403 13:11:53.097867 10479 net.cpp:148] Top shape: 100 96 55 55 (29040000)
I0403 13:11:53.097882 10479 net.cpp:156] Memory required for data: 410316400
I0403 13:11:53.097898 10479 layer_factory.hpp:77] Creating layer pool1
I0403 13:11:53.097921 10479 net.cpp:91] Creating Layer pool1
I0403 13:11:53.097939 10479 net.cpp:425] pool1 <- norm1
I0403 13:11:53.097955 10479 net.cpp:399] pool1 -> pool1
I0403 13:11:53.098022 10479 net.cpp:141] Setting up pool1
I0403 13:11:53.098045 10479 net.cpp:148] Top shape: 100 96 27 27 (6998400)
I0403 13:11:53.098062 10479 net.cpp:156] Memory required for data: 438310000
I0403 13:11:53.098075 10479 layer_factory.hpp:77] Creating layer conv2
I0403 13:11:53.098099 10479 net.cpp:91] Creating Layer conv2
I0403 13:11:53.098116 10479 net.cpp:425] conv2 <- pool1
I0403 13:11:53.098134 10479 net.cpp:399] conv2 -> conv2
I0403 13:11:53.113380 10479 net.cpp:141] Setting up conv2
I0403 13:11:53.113432 10479 net.cpp:148] Top shape: 100 256 27 27 (18662400)
I0403 13:11:53.113450 10479 net.cpp:156] Memory required for data: 512959600
I0403 13:11:53.113473 10479 layer_factory.hpp:77] Creating layer relu2
I0403 13:11:53.113497 10479 net.cpp:91] Creating Layer relu2
I0403 13:11:53.113517 10479 net.cpp:425] relu2 <- conv2
I0403 13:11:53.113535 10479 net.cpp:386] relu2 -> conv2 (in-place)
I0403 13:11:53.113888 10479 net.cpp:141] Setting up relu2
I0403 13:11:53.113917 10479 net.cpp:148] Top shape: 100 256 27 27 (18662400)
I0403 13:11:53.113934 10479 net.cpp:156] Memory required for data: 587609200
I0403 13:11:53.113950 10479 layer_factory.hpp:77] Creating layer norm2
I0403 13:11:53.113970 10479 net.cpp:91] Creating Layer norm2
I0403 13:11:53.113986 10479 net.cpp:425] norm2 <- conv2
I0403 13:11:53.114006 10479 net.cpp:399] norm2 -> norm2
I0403 13:11:53.114204 10479 net.cpp:141] Setting up norm2
I0403 13:11:53.114230 10479 net.cpp:148] Top shape: 100 256 27 27 (18662400)
I0403 13:11:53.114245 10479 net.cpp:156] Memory required for data: 662258800
I0403 13:11:53.114260 10479 layer_factory.hpp:77] Creating layer pool2
I0403 13:11:53.114281 10479 net.cpp:91] Creating Layer pool2
I0403 13:11:53.114298 10479 net.cpp:425] pool2 <- norm2
I0403 13:11:53.114316 10479 net.cpp:399] pool2 -> pool2
I0403 13:11:53.114369 10479 net.cpp:141] Setting up pool2
I0403 13:11:53.114392 10479 net.cpp:148] Top shape: 100 256 13 13 (4326400)
I0403 13:11:53.114408 10479 net.cpp:156] Memory required for data: 679564400
I0403 13:11:53.114423 10479 layer_factory.hpp:77] Creating layer conv3
I0403 13:11:53.114447 10479 net.cpp:91] Creating Layer conv3
I0403 13:11:53.114465 10479 net.cpp:425] conv3 <- pool2
I0403 13:11:53.114485 10479 net.cpp:399] conv3 -> conv3
I0403 13:11:53.153646 10479 net.cpp:141] Setting up conv3
I0403 13:11:53.153719 10479 net.cpp:148] Top shape: 100 384 13 13 (6489600)
I0403 13:11:53.153738 10479 net.cpp:156] Memory required for data: 705522800
I0403 13:11:53.153765 10479 layer_factory.hpp:77] Creating layer relu3
I0403 13:11:53.153789 10479 net.cpp:91] Creating Layer relu3
I0403 13:11:53.153807 10479 net.cpp:425] relu3 <- conv3
I0403 13:11:53.153826 10479 net.cpp:386] relu3 -> conv3 (in-place)
I0403 13:11:53.154109 10479 net.cpp:141] Setting up relu3
I0403 13:11:53.154135 10479 net.cpp:148] Top shape: 100 384 13 13 (6489600)
I0403 13:11:53.154155 10479 net.cpp:156] Memory required for data: 731481200
I0403 13:11:53.154170 10479 layer_factory.hpp:77] Creating layer conv4
I0403 13:11:53.154193 10479 net.cpp:91] Creating Layer conv4
I0403 13:11:53.154211 10479 net.cpp:425] conv4 <- conv3
I0403 13:11:53.154232 10479 net.cpp:399] conv4 -> conv4
I0403 13:11:53.185048 10479 net.cpp:141] Setting up conv4
I0403 13:11:53.185086 10479 net.cpp:148] Top shape: 100 384 13 13 (6489600)
I0403 13:11:53.185137 10479 net.cpp:156] Memory required for data: 757439600
I0403 13:11:53.185158 10479 layer_factory.hpp:77] Creating layer relu4
I0403 13:11:53.185183 10479 net.cpp:91] Creating Layer relu4
I0403 13:11:53.185201 10479 net.cpp:425] relu4 <- conv4
I0403 13:11:53.185220 10479 net.cpp:386] relu4 -> conv4 (in-place)
I0403 13:11:53.185508 10479 net.cpp:141] Setting up relu4
I0403 13:11:53.185534 10479 net.cpp:148] Top shape: 100 384 13 13 (6489600)
I0403 13:11:53.185556 10479 net.cpp:156] Memory required for data: 783398000
I0403 13:11:53.185571 10479 layer_factory.hpp:77] Creating layer conv5
I0403 13:11:53.185598 10479 net.cpp:91] Creating Layer conv5
I0403 13:11:53.185616 10479 net.cpp:425] conv5 <- conv4
I0403 13:11:53.185637 10479 net.cpp:399] conv5 -> conv5
I0403 13:11:53.206675 10479 net.cpp:141] Setting up conv5
I0403 13:11:53.206740 10479 net.cpp:148] Top shape: 100 256 13 13 (4326400)
I0403 13:11:53.206758 10479 net.cpp:156] Memory required for data: 800703600
I0403 13:11:53.206784 10479 layer_factory.hpp:77] Creating layer relu5
I0403 13:11:53.206810 10479 net.cpp:91] Creating Layer relu5
I0403 13:11:53.206830 10479 net.cpp:425] relu5 <- conv5
I0403 13:11:53.206848 10479 net.cpp:386] relu5 -> conv5 (in-place)
I0403 13:11:53.207147 10479 net.cpp:141] Setting up relu5
I0403 13:11:53.207175 10479 net.cpp:148] Top shape: 100 256 13 13 (4326400)
I0403 13:11:53.207190 10479 net.cpp:156] Memory required for data: 818009200
I0403 13:11:53.207203 10479 layer_factory.hpp:77] Creating layer pool5
I0403 13:11:53.207227 10479 net.cpp:91] Creating Layer pool5
I0403 13:11:53.207244 10479 net.cpp:425] pool5 <- conv5
I0403 13:11:53.207268 10479 net.cpp:399] pool5 -> pool5
I0403 13:11:53.207326 10479 net.cpp:141] Setting up pool5
I0403 13:11:53.207350 10479 net.cpp:148] Top shape: 100 256 6 6 (921600)
I0403 13:11:53.207365 10479 net.cpp:156] Memory required for data: 821695600
I0403 13:11:53.207379 10479 layer_factory.hpp:77] Creating layer fc6
I0403 13:11:53.207407 10479 net.cpp:91] Creating Layer fc6
I0403 13:11:53.207424 10479 net.cpp:425] fc6 <- pool5
I0403 13:11:53.207442 10479 net.cpp:399] fc6 -> fc6
I0403 13:11:54.780077 10479 net.cpp:141] Setting up fc6
I0403 13:11:54.780153 10479 net.cpp:148] Top shape: 100 4096 (409600)
I0403 13:11:54.780189 10479 net.cpp:156] Memory required for data: 823334000
I0403 13:11:54.780213 10479 layer_factory.hpp:77] Creating layer relu6
I0403 13:11:54.780237 10479 net.cpp:91] Creating Layer relu6
I0403 13:11:54.780256 10479 net.cpp:425] relu6 <- fc6
I0403 13:11:54.780279 10479 net.cpp:386] relu6 -> fc6 (in-place)
I0403 13:11:54.780513 10479 net.cpp:141] Setting up relu6
I0403 13:11:54.780567 10479 net.cpp:148] Top shape: 100 4096 (409600)
I0403 13:11:54.780585 10479 net.cpp:156] Memory required for data: 824972400
I0403 13:11:54.780599 10479 layer_factory.hpp:77] Creating layer drop6
I0403 13:11:54.780622 10479 net.cpp:91] Creating Layer drop6
I0403 13:11:54.780647 10479 net.cpp:425] drop6 <- fc6
I0403 13:11:54.780676 10479 net.cpp:386] drop6 -> fc6 (in-place)
I0403 13:11:54.780736 10479 net.cpp:141] Setting up drop6
I0403 13:11:54.780761 10479 net.cpp:148] Top shape: 100 4096 (409600)
I0403 13:11:54.780776 10479 net.cpp:156] Memory required for data: 826610800
I0403 13:11:54.780797 10479 layer_factory.hpp:77] Creating layer fc7
I0403 13:11:54.780823 10479 net.cpp:91] Creating Layer fc7
I0403 13:11:54.780838 10479 net.cpp:425] fc7 <- fc6
I0403 13:11:54.780858 10479 net.cpp:399] fc7 -> fc7
I0403 13:11:55.517041 10479 net.cpp:141] Setting up fc7
I0403 13:11:55.517123 10479 net.cpp:148] Top shape: 100 4096 (409600)
I0403 13:11:55.517140 10479 net.cpp:156] Memory required for data: 828249200
I0403 13:11:55.517161 10479 layer_factory.hpp:77] Creating layer relu7
I0403 13:11:55.517184 10479 net.cpp:91] Creating Layer relu7
I0403 13:11:55.517200 10479 net.cpp:425] relu7 <- fc7
I0403 13:11:55.517220 10479 net.cpp:386] relu7 -> fc7 (in-place)
I0403 13:11:57.295930 10479 net.cpp:141] Setting up relu7
I0403 13:11:57.296025 10479 net.cpp:148] Top shape: 100 4096 (409600)
I0403 13:11:57.296098 10479 net.cpp:156] Memory required for data: 829887600
I0403 13:11:57.296118 10479 layer_factory.hpp:77] Creating layer drop7
I0403 13:11:57.296145 10479 net.cpp:91] Creating Layer drop7
I0403 13:11:57.296164 10479 net.cpp:425] drop7 <- fc7
I0403 13:11:57.296185 10479 net.cpp:386] drop7 -> fc7 (in-place)
I0403 13:11:57.296246 10479 net.cpp:141] Setting up drop7
I0403 13:11:57.296279 10479 net.cpp:148] Top shape: 100 4096 (409600)
I0403 13:11:57.296293 10479 net.cpp:156] Memory required for data: 831526000
I0403 13:11:57.296308 10479 layer_factory.hpp:77] Creating layer fc8_plantvillage
I0403 13:11:57.296326 10479 net.cpp:91] Creating Layer fc8_plantvillage
I0403 13:11:57.296344 10479 net.cpp:425] fc8_plantvillage <- fc7
I0403 13:11:57.296361 10479 net.cpp:399] fc8_plantvillage -> fc8_plantvillage
I0403 13:11:57.303315 10479 net.cpp:141] Setting up fc8_plantvillage
I0403 13:11:57.303344 10479 net.cpp:148] Top shape: 100 38 (3800)
I0403 13:11:57.303359 10479 net.cpp:156] Memory required for data: 831541200
I0403 13:11:57.303378 10479 layer_factory.hpp:77] Creating layer fc8_plantvillage_fc8_plantvillage_0_split
I0403 13:11:57.303400 10479 net.cpp:91] Creating Layer fc8_plantvillage_fc8_plantvillage_0_split
I0403 13:11:57.303416 10479 net.cpp:425] fc8_plantvillage_fc8_plantvillage_0_split <- fc8_plantvillage
I0403 13:11:57.303432 10479 net.cpp:399] fc8_plantvillage_fc8_plantvillage_0_split -> fc8_plantvillage_fc8_plantvillage_0_split_0
I0403 13:11:57.303452 10479 net.cpp:399] fc8_plantvillage_fc8_plantvillage_0_split -> fc8_plantvillage_fc8_plantvillage_0_split_1
I0403 13:11:57.303475 10479 net.cpp:399] fc8_plantvillage_fc8_plantvillage_0_split -> fc8_plantvillage_fc8_plantvillage_0_split_2
I0403 13:11:57.303550 10479 net.cpp:141] Setting up fc8_plantvillage_fc8_plantvillage_0_split
I0403 13:11:57.303573 10479 net.cpp:148] Top shape: 100 38 (3800)
I0403 13:11:57.303589 10479 net.cpp:148] Top shape: 100 38 (3800)
I0403 13:11:57.303604 10479 net.cpp:148] Top shape: 100 38 (3800)
I0403 13:11:57.303617 10479 net.cpp:156] Memory required for data: 831586800
I0403 13:11:57.303632 10479 layer_factory.hpp:77] Creating layer prob
I0403 13:11:57.303652 10479 net.cpp:91] Creating Layer prob
I0403 13:11:57.303668 10479 net.cpp:425] prob <- fc8_plantvillage_fc8_plantvillage_0_split_0
I0403 13:11:57.303684 10479 net.cpp:399] prob -> prob
I0403 13:11:57.303897 10479 net.cpp:141] Setting up prob
I0403 13:11:57.303922 10479 net.cpp:148] Top shape: 100 38 (3800)
I0403 13:11:57.303936 10479 net.cpp:156] Memory required for data: 831602000
I0403 13:11:57.303951 10479 layer_factory.hpp:77] Creating layer hdf5out
I0403 13:11:57.303972 10479 net.cpp:91] Creating Layer hdf5out
I0403 13:11:57.303987 10479 net.cpp:425] hdf5out <- prob
I0403 13:11:57.304003 10479 net.cpp:425] hdf5out <- label_data_1_split_0
I0403 13:11:57.310045 10479 net.cpp:141] Setting up hdf5out
…
