…
I0403 13:10:54.974885 10448 net.cpp:313] The NetState phase (1) differed from the phase (0) specified by a rule in layer data
I0403 13:10:54.975211 10448 net.cpp:49] Initializing net from parameters: 
state {
  phase: TEST
}
layer {
  name: "data"
  type: "Data"
  top: "data"
  top: "label"
  include {
    phase: TEST
  }
  transform_param {
    crop_size: 227
    mean_file: "/home/mohanty/data/final_dataset/lmdb/grayscale-50-50/mean.binaryproto"
  }
  data_param {
    source: "/home/mohanty/data/final_dataset/lmdb/grayscale-50-50/test_db"
    batch_size: 100
    backend: LMDB
  }
}
layer {
  name: "conv1"
  type: "Convolution"
  bottom: "data"
  top: "conv1"
  param {
    lr_mult: 1
    decay_mult: 1
  }
  param {
    lr_mult: 2
    decay_mult: 0
  }
  convolution_param {
    num_output: 96
    kernel_size: 11
    stride: 4
    weight_filler {
      type: "gaussian"
      std: 0.01
    }
    bias_filler {
      type: "constant"
      value: 0
    }
  }
}
layer {
  name: "relu1"
  type: "ReLU"
  bottom: "conv1"
  top: "conv1"
}
layer {
  name: "norm1"
  type: "LRN"
  bottom: "conv1"
  top: "norm1"
  lrn_param {
    local_size: 5
    alpha: 0.0001
    beta: 0.75
  }
}
layer {
  name: "pool1"
  type: "Pooling"
  bottom: "norm1"
  top: "pool1"
  pooling_param {
    pool: MAX
    kernel_size: 3
    stride: 2
  }
}
layer {
  name: "conv2"
  type: "Convolution"
  bottom: "pool1"
  top: "conv2"
  param {
    lr_mult: 1
    decay_mult: 1
  }
  param {
    lr_mult: 2
    decay_mult: 0
  }
  convolution_param {
    num_output: 256
    pad: 2
    kernel_size: 5
    group: 2
    weight_filler {
      type: "gaussian"
      std: 0.01
    }
    bias_filler {
      type: "constant"
      value: 0.1
    }
  }
}
layer {
  name: "relu2"
  type: "ReLU"
  bottom: "conv2"
  top: "conv2"
}
layer {
  name: "norm2"
  type: "LRN"
  bottom: "conv2"
  top: "norm2"
  lrn_param {
    local_size: 5
    alpha: 0.0001
    beta: 0.75
  }
}
layer {
  name: "pool2"
  type: "Pooling"
  bottom: "norm2"
  top: "pool2"
  pooling_param {
    pool: MAX
    kernel_size: 3
    stride: 2
  }
}
layer {
  name: "conv3"
  type: "Convolution"
  bottom: "pool2"
  top: "conv3"
  param {
    lr_mult: 1
    decay_mult: 1
  }
  param {
    lr_mult: 2
    decay_mult: 0
  }
  convolution_param {
    num_output: 384
    pad: 1
    kernel_size: 3
    weight_filler {
      type: "gaussian"
      std: 0.01
    }
    bias_filler {
      type: "constant"
      value: 0
    }
  }
}
layer {
  name: "relu3"
  type: "ReLU"
  bottom: "conv3"
  top: "conv3"
}
layer {
  name: "conv4"
  type: "Convolution"
  bottom: "conv3"
  top: "conv4"
  param {
    lr_mult: 1
    decay_mult: 1
  }
  param {
    lr_mult: 2
    decay_mult: 0
  }
  convolution_param {
    num_output: 384
    pad: 1
    kernel_size: 3
    group: 2
    weight_filler {
      type: "gaussian"
      std: 0.01
    }
    bias_filler {
      type: "constant"
      value: 0.1
    }
  }
}
layer {
  name: "relu4"
  type: "ReLU"
  bottom: "conv4"
  top: "conv4"
}
layer {
  name: "conv5"
  type: "Convolution"
  bottom: "conv4"
  top: "conv5"
  param {
    lr_mult: 1
    decay_mult: 1
  }
  param {
    lr_mult: 2
    decay_mult: 0
  }
  convolution_param {
    num_output: 256
    pad: 1
    kernel_size: 3
    group: 2
    weight_filler {
      type: "gaussian"
      std: 0.01
    }
    bias_filler {
      type: "constant"
      value: 0.1
    }
  }
}
layer {
  name: "relu5"
  type: "ReLU"
  bottom: "conv5"
  top: "conv5"
}
layer {
  name: "pool5"
  type: "Pooling"
  bottom: "conv5"
  top: "pool5"
  pooling_param {
    pool: MAX
    kernel_size: 3
    stride: 2
  }
}
layer {
  name: "fc6"
  type: "InnerProduct"
  bottom: "pool5"
  top: "fc6"
  param {
    lr_mult: 1
    decay_mult: 1
  }
  param {
    lr_mult: 2
    decay_mult: 0
  }
  inner_product_param {
    num_output: 4096
    weight_filler {
      type: "gaussian"
      std: 0.005
    }
    bias_filler {
      type: "constant"
      value: 0.1
    }
  }
}
layer {
  name: "relu6"
  type: "ReLU"
  bottom: "fc6"
  top: "fc6"
}
layer {
  name: "drop6"
  type: "Dropout"
  bottom: "fc6"
  top: "fc6"
  dropout_param {
    dropout_ratio: 0.5
  }
}
layer {
  name: "fc7"
  type: "InnerProduct"
  bottom: "fc6"
  top: "fc7"
  param {
    lr_mult: 1
    decay_mult: 1
  }
  param {
    lr_mult: 2
    decay_mult: 0
  }
  inner_product_param {
    num_output: 4096
    weight_filler {
      type: "gaussian"
      std: 0.005
    }
    bias_filler {
      type: "constant"
      value: 0.1
    }
  }
}
layer {
  name: "relu7"
  type: "ReLU"
  bottom: "fc7"
  top: "fc7"
}
layer {
  name: "drop7"
  type: "Dropout"
  bottom: "fc7"
  top: "fc7"
  dropout_param {
    dropout_ratio: 0.5
  }
}
layer {
  name: "fc8_plantvillage"
  type: "InnerProduct"
  bottom: "fc7"
  top: "fc8_plantvillage"
  param {
    lr_mult: 1
    decay_mult: 1
  }
  param {
    lr_mult: 2
    decay_mult: 0
  }
  inner_product_param {
    num_output: 38
    weight_filler {
      type: "gaussian"
      std: 0.01
    }
    bias_filler {
      type: "constant"
      value: 0
    }
  }
}
layer {
  name: "prob"
  type: "Softmax"
  bottom: "fc8_plantvillage"
  top: "prob"
  include {
    phase: TEST
  }
}
layer {
  name: "hdf5out"
  type: "HDF5Output"
  bottom: "prob"
  bottom: "label"
  include {
    phase: TEST
  }
  hdf5_output_param {
    file_name: "hdf5_dumps/iter_6675.h5"
  }
}
layer {
  name: "loss"
  type: "SoftmaxWithLoss"
  bottom: "fc8_plantvillage"
  bottom: "label"
  top: "loss"
}
layer {
  name: "accuracy"
  type: "Accuracy"
  bottom: "fc8_plantvillage"
  bottom: "label"
  top: "accuracy"
  include {
    phase: TEST
  }
}
I0403 13:10:54.975802 10448 layer_factory.hpp:77] Creating layer data
I0403 13:10:54.976470 10448 net.cpp:91] Creating Layer data
I0403 13:10:54.976503 10448 net.cpp:399] data -> data
I0403 13:10:54.976559 10448 net.cpp:399] data -> label
I0403 13:10:54.976598 10448 data_transformer.cpp:25] Loading mean file from: /home/mohanty/data/final_dataset/lmdb/grayscale-50-50/mean.binaryproto
I0403 13:10:54.977692 10451 db_lmdb.cpp:38] Opened lmdb /home/mohanty/data/final_dataset/lmdb/grayscale-50-50/test_db
I0403 13:10:54.991138 10448 data_layer.cpp:41] output data size: 100,3,227,227
I0403 13:10:55.111573 10448 net.cpp:141] Setting up data
I0403 13:10:55.111665 10448 net.cpp:148] Top shape: 100 3 227 227 (15458700)
I0403 13:10:55.111686 10448 net.cpp:148] Top shape: 100 (100)
I0403 13:10:55.111701 10448 net.cpp:156] Memory required for data: 61835200
I0403 13:10:55.111728 10448 layer_factory.hpp:77] Creating layer label_data_1_split
I0403 13:10:55.111753 10448 net.cpp:91] Creating Layer label_data_1_split
I0403 13:10:55.111771 10448 net.cpp:425] label_data_1_split <- label
I0403 13:10:55.111802 10448 net.cpp:399] label_data_1_split -> label_data_1_split_0
I0403 13:10:55.111829 10448 net.cpp:399] label_data_1_split -> label_data_1_split_1
I0403 13:10:55.111850 10448 net.cpp:399] label_data_1_split -> label_data_1_split_2
I0403 13:10:55.111912 10448 net.cpp:141] Setting up label_data_1_split
I0403 13:10:55.111935 10448 net.cpp:148] Top shape: 100 (100)
I0403 13:10:55.111951 10448 net.cpp:148] Top shape: 100 (100)
I0403 13:10:55.111966 10448 net.cpp:148] Top shape: 100 (100)
I0403 13:10:55.111979 10448 net.cpp:156] Memory required for data: 61836400
I0403 13:10:55.111994 10448 layer_factory.hpp:77] Creating layer conv1
I0403 13:10:55.112025 10448 net.cpp:91] Creating Layer conv1
I0403 13:10:55.112043 10448 net.cpp:425] conv1 <- data
I0403 13:10:55.112061 10448 net.cpp:399] conv1 -> conv1
I0403 13:10:55.251842 10448 net.cpp:141] Setting up conv1
I0403 13:10:55.251891 10448 net.cpp:148] Top shape: 100 96 55 55 (29040000)
I0403 13:10:55.251909 10448 net.cpp:156] Memory required for data: 177996400
I0403 13:10:55.251938 10448 layer_factory.hpp:77] Creating layer relu1
I0403 13:10:55.251965 10448 net.cpp:91] Creating Layer relu1
I0403 13:10:55.251982 10448 net.cpp:425] relu1 <- conv1
I0403 13:10:55.252001 10448 net.cpp:386] relu1 -> conv1 (in-place)
I0403 13:10:55.252250 10448 net.cpp:141] Setting up relu1
I0403 13:10:55.252276 10448 net.cpp:148] Top shape: 100 96 55 55 (29040000)
I0403 13:10:55.252331 10448 net.cpp:156] Memory required for data: 294156400
I0403 13:10:55.252346 10448 layer_factory.hpp:77] Creating layer norm1
I0403 13:10:55.252372 10448 net.cpp:91] Creating Layer norm1
I0403 13:10:55.252390 10448 net.cpp:425] norm1 <- conv1
I0403 13:10:55.252408 10448 net.cpp:399] norm1 -> norm1
I0403 13:10:55.252739 10448 net.cpp:141] Setting up norm1
I0403 13:10:55.252766 10448 net.cpp:148] Top shape: 100 96 55 55 (29040000)
I0403 13:10:55.252782 10448 net.cpp:156] Memory required for data: 410316400
I0403 13:10:55.252797 10448 layer_factory.hpp:77] Creating layer pool1
I0403 13:10:55.252820 10448 net.cpp:91] Creating Layer pool1
I0403 13:10:55.252836 10448 net.cpp:425] pool1 <- norm1
I0403 13:10:55.252852 10448 net.cpp:399] pool1 -> pool1
I0403 13:10:55.252930 10448 net.cpp:141] Setting up pool1
I0403 13:10:55.252956 10448 net.cpp:148] Top shape: 100 96 27 27 (6998400)
I0403 13:10:55.252974 10448 net.cpp:156] Memory required for data: 438310000
I0403 13:10:55.252988 10448 layer_factory.hpp:77] Creating layer conv2
I0403 13:10:55.253011 10448 net.cpp:91] Creating Layer conv2
I0403 13:10:55.253027 10448 net.cpp:425] conv2 <- pool1
I0403 13:10:55.253046 10448 net.cpp:399] conv2 -> conv2
I0403 13:10:55.268069 10448 net.cpp:141] Setting up conv2
I0403 13:10:55.268117 10448 net.cpp:148] Top shape: 100 256 27 27 (18662400)
I0403 13:10:55.268133 10448 net.cpp:156] Memory required for data: 512959600
I0403 13:10:55.268156 10448 layer_factory.hpp:77] Creating layer relu2
I0403 13:10:55.268177 10448 net.cpp:91] Creating Layer relu2
I0403 13:10:55.268194 10448 net.cpp:425] relu2 <- conv2
I0403 13:10:55.268211 10448 net.cpp:386] relu2 -> conv2 (in-place)
I0403 13:10:55.268482 10448 net.cpp:141] Setting up relu2
I0403 13:10:55.268508 10448 net.cpp:148] Top shape: 100 256 27 27 (18662400)
I0403 13:10:55.268523 10448 net.cpp:156] Memory required for data: 587609200
I0403 13:10:55.268542 10448 layer_factory.hpp:77] Creating layer norm2
I0403 13:10:55.268566 10448 net.cpp:91] Creating Layer norm2
I0403 13:10:55.268584 10448 net.cpp:425] norm2 <- conv2
I0403 13:10:55.268602 10448 net.cpp:399] norm2 -> norm2
I0403 13:10:55.268801 10448 net.cpp:141] Setting up norm2
I0403 13:10:55.268826 10448 net.cpp:148] Top shape: 100 256 27 27 (18662400)
I0403 13:10:55.268842 10448 net.cpp:156] Memory required for data: 662258800
I0403 13:10:55.268857 10448 layer_factory.hpp:77] Creating layer pool2
I0403 13:10:55.268873 10448 net.cpp:91] Creating Layer pool2
I0403 13:10:55.268888 10448 net.cpp:425] pool2 <- norm2
I0403 13:10:55.268908 10448 net.cpp:399] pool2 -> pool2
I0403 13:10:55.268959 10448 net.cpp:141] Setting up pool2
I0403 13:10:55.268982 10448 net.cpp:148] Top shape: 100 256 13 13 (4326400)
I0403 13:10:55.268997 10448 net.cpp:156] Memory required for data: 679564400
I0403 13:10:55.269011 10448 layer_factory.hpp:77] Creating layer conv3
I0403 13:10:55.269033 10448 net.cpp:91] Creating Layer conv3
I0403 13:10:55.269050 10448 net.cpp:425] conv3 <- pool2
I0403 13:10:55.269070 10448 net.cpp:399] conv3 -> conv3
I0403 13:10:55.308224 10448 net.cpp:141] Setting up conv3
I0403 13:10:55.308307 10448 net.cpp:148] Top shape: 100 384 13 13 (6489600)
I0403 13:10:55.308325 10448 net.cpp:156] Memory required for data: 705522800
I0403 13:10:55.308348 10448 layer_factory.hpp:77] Creating layer relu3
I0403 13:10:55.308370 10448 net.cpp:91] Creating Layer relu3
I0403 13:10:55.308387 10448 net.cpp:425] relu3 <- conv3
I0403 13:10:55.308409 10448 net.cpp:386] relu3 -> conv3 (in-place)
I0403 13:10:55.308696 10448 net.cpp:141] Setting up relu3
I0403 13:10:55.308722 10448 net.cpp:148] Top shape: 100 384 13 13 (6489600)
I0403 13:10:55.308737 10448 net.cpp:156] Memory required for data: 731481200
I0403 13:10:55.308753 10448 layer_factory.hpp:77] Creating layer conv4
I0403 13:10:55.308778 10448 net.cpp:91] Creating Layer conv4
I0403 13:10:55.308794 10448 net.cpp:425] conv4 <- conv3
I0403 13:10:55.308815 10448 net.cpp:399] conv4 -> conv4
I0403 13:10:55.339004 10448 net.cpp:141] Setting up conv4
I0403 13:10:55.339067 10448 net.cpp:148] Top shape: 100 384 13 13 (6489600)
I0403 13:10:55.339117 10448 net.cpp:156] Memory required for data: 757439600
I0403 13:10:55.339138 10448 layer_factory.hpp:77] Creating layer relu4
I0403 13:10:55.339160 10448 net.cpp:91] Creating Layer relu4
I0403 13:10:55.339176 10448 net.cpp:425] relu4 <- conv4
I0403 13:10:55.339198 10448 net.cpp:386] relu4 -> conv4 (in-place)
I0403 13:10:55.339484 10448 net.cpp:141] Setting up relu4
I0403 13:10:55.339510 10448 net.cpp:148] Top shape: 100 384 13 13 (6489600)
I0403 13:10:55.339526 10448 net.cpp:156] Memory required for data: 783398000
I0403 13:10:55.339545 10448 layer_factory.hpp:77] Creating layer conv5
I0403 13:10:55.339572 10448 net.cpp:91] Creating Layer conv5
I0403 13:10:55.339591 10448 net.cpp:425] conv5 <- conv4
I0403 13:10:55.339612 10448 net.cpp:399] conv5 -> conv5
I0403 13:10:55.360649 10448 net.cpp:141] Setting up conv5
I0403 13:10:55.360704 10448 net.cpp:148] Top shape: 100 256 13 13 (4326400)
I0403 13:10:55.360720 10448 net.cpp:156] Memory required for data: 800703600
I0403 13:10:55.360745 10448 layer_factory.hpp:77] Creating layer relu5
I0403 13:10:55.360770 10448 net.cpp:91] Creating Layer relu5
I0403 13:10:55.360787 10448 net.cpp:425] relu5 <- conv5
I0403 13:10:55.360806 10448 net.cpp:386] relu5 -> conv5 (in-place)
I0403 13:10:55.361096 10448 net.cpp:141] Setting up relu5
I0403 13:10:55.361124 10448 net.cpp:148] Top shape: 100 256 13 13 (4326400)
I0403 13:10:55.361140 10448 net.cpp:156] Memory required for data: 818009200
I0403 13:10:55.361155 10448 layer_factory.hpp:77] Creating layer pool5
I0403 13:10:55.361178 10448 net.cpp:91] Creating Layer pool5
I0403 13:10:55.361196 10448 net.cpp:425] pool5 <- conv5
I0403 13:10:55.361213 10448 net.cpp:399] pool5 -> pool5
I0403 13:10:55.361292 10448 net.cpp:141] Setting up pool5
I0403 13:10:55.361317 10448 net.cpp:148] Top shape: 100 256 6 6 (921600)
I0403 13:10:55.361332 10448 net.cpp:156] Memory required for data: 821695600
I0403 13:10:55.361347 10448 layer_factory.hpp:77] Creating layer fc6
I0403 13:10:55.361376 10448 net.cpp:91] Creating Layer fc6
I0403 13:10:55.361393 10448 net.cpp:425] fc6 <- pool5
I0403 13:10:55.361415 10448 net.cpp:399] fc6 -> fc6
I0403 13:10:56.921821 10448 net.cpp:141] Setting up fc6
I0403 13:10:56.921895 10448 net.cpp:148] Top shape: 100 4096 (409600)
I0403 13:10:56.921911 10448 net.cpp:156] Memory required for data: 823334000
I0403 13:10:56.921932 10448 layer_factory.hpp:77] Creating layer relu6
I0403 13:10:56.921954 10448 net.cpp:91] Creating Layer relu6
I0403 13:10:56.921972 10448 net.cpp:425] relu6 <- fc6
I0403 13:10:56.921990 10448 net.cpp:386] relu6 -> fc6 (in-place)
I0403 13:10:56.922221 10448 net.cpp:141] Setting up relu6
I0403 13:10:56.922247 10448 net.cpp:148] Top shape: 100 4096 (409600)
I0403 13:10:56.922261 10448 net.cpp:156] Memory required for data: 824972400
I0403 13:10:56.922276 10448 layer_factory.hpp:77] Creating layer drop6
I0403 13:10:56.922294 10448 net.cpp:91] Creating Layer drop6
I0403 13:10:56.922309 10448 net.cpp:425] drop6 <- fc6
I0403 13:10:56.922327 10448 net.cpp:386] drop6 -> fc6 (in-place)
I0403 13:10:56.922379 10448 net.cpp:141] Setting up drop6
I0403 13:10:56.922402 10448 net.cpp:148] Top shape: 100 4096 (409600)
I0403 13:10:56.922418 10448 net.cpp:156] Memory required for data: 826610800
I0403 13:10:56.922431 10448 layer_factory.hpp:77] Creating layer fc7
I0403 13:10:56.922451 10448 net.cpp:91] Creating Layer fc7
I0403 13:10:56.922467 10448 net.cpp:425] fc7 <- fc6
I0403 13:10:56.922487 10448 net.cpp:399] fc7 -> fc7
I0403 13:10:57.613279 10448 net.cpp:141] Setting up fc7
I0403 13:10:57.613320 10448 net.cpp:148] Top shape: 100 4096 (409600)
I0403 13:10:57.613337 10448 net.cpp:156] Memory required for data: 828249200
I0403 13:10:57.613356 10448 layer_factory.hpp:77] Creating layer relu7
I0403 13:10:57.613378 10448 net.cpp:91] Creating Layer relu7
I0403 13:10:57.613394 10448 net.cpp:425] relu7 <- fc7
I0403 13:10:57.613415 10448 net.cpp:386] relu7 -> fc7 (in-place)
I0403 13:10:57.613832 10448 net.cpp:141] Setting up relu7
I0403 13:10:57.613858 10448 net.cpp:148] Top shape: 100 4096 (409600)
I0403 13:10:57.613914 10448 net.cpp:156] Memory required for data: 829887600
I0403 13:10:57.613930 10448 layer_factory.hpp:77] Creating layer drop7
I0403 13:10:57.613950 10448 net.cpp:91] Creating Layer drop7
I0403 13:10:57.613965 10448 net.cpp:425] drop7 <- fc7
I0403 13:10:57.613986 10448 net.cpp:386] drop7 -> fc7 (in-place)
I0403 13:10:57.614029 10448 net.cpp:141] Setting up drop7
I0403 13:10:57.614055 10448 net.cpp:148] Top shape: 100 4096 (409600)
I0403 13:10:57.614070 10448 net.cpp:156] Memory required for data: 831526000
I0403 13:10:57.614084 10448 layer_factory.hpp:77] Creating layer fc8_plantvillage
I0403 13:10:57.614104 10448 net.cpp:91] Creating Layer fc8_plantvillage
I0403 13:10:57.614120 10448 net.cpp:425] fc8_plantvillage <- fc7
I0403 13:10:57.614138 10448 net.cpp:399] fc8_plantvillage -> fc8_plantvillage
I0403 13:10:57.621093 10448 net.cpp:141] Setting up fc8_plantvillage
I0403 13:10:57.621122 10448 net.cpp:148] Top shape: 100 38 (3800)
I0403 13:10:57.621139 10448 net.cpp:156] Memory required for data: 831541200
I0403 13:10:57.621156 10448 layer_factory.hpp:77] Creating layer fc8_plantvillage_fc8_plantvillage_0_split
I0403 13:10:57.621178 10448 net.cpp:91] Creating Layer fc8_plantvillage_fc8_plantvillage_0_split
I0403 13:10:57.621194 10448 net.cpp:425] fc8_plantvillage_fc8_plantvillage_0_split <- fc8_plantvillage
I0403 13:10:57.621212 10448 net.cpp:399] fc8_plantvillage_fc8_plantvillage_0_split -> fc8_plantvillage_fc8_plantvillage_0_split_0
I0403 13:10:57.621232 10448 net.cpp:399] fc8_plantvillage_fc8_plantvillage_0_split -> fc8_plantvillage_fc8_plantvillage_0_split_1
I0403 13:10:57.621251 10448 net.cpp:399] fc8_plantvillage_fc8_plantvillage_0_split -> fc8_plantvillage_fc8_plantvillage_0_split_2
I0403 13:10:57.621333 10448 net.cpp:141] Setting up fc8_plantvillage_fc8_plantvillage_0_split
I0403 13:10:57.621357 10448 net.cpp:148] Top shape: 100 38 (3800)
I0403 13:10:57.621374 10448 net.cpp:148] Top shape: 100 38 (3800)
I0403 13:10:57.621390 10448 net.cpp:148] Top shape: 100 38 (3800)
I0403 13:10:57.621403 10448 net.cpp:156] Memory required for data: 831586800
I0403 13:10:57.621418 10448 layer_factory.hpp:77] Creating layer prob
I0403 13:10:57.621436 10448 net.cpp:91] Creating Layer prob
I0403 13:10:57.621453 10448 net.cpp:425] prob <- fc8_plantvillage_fc8_plantvillage_0_split_0
I0403 13:10:57.621470 10448 net.cpp:399] prob -> prob
I0403 13:10:57.621708 10448 net.cpp:141] Setting up prob
I0403 13:10:57.621734 10448 net.cpp:148] Top shape: 100 38 (3800)
I0403 13:10:57.621749 10448 net.cpp:156] Memory required for data: 831602000
I0403 13:10:57.621764 10448 layer_factory.hpp:77] Creating layer hdf5out
I0403 13:10:57.621783 10448 net.cpp:91] Creating Layer hdf5out
I0403 13:10:57.621798 10448 net.cpp:425] hdf5out <- prob
I0403 13:10:57.621814 10448 net.cpp:425] hdf5out <- label_data_1_split_0
I0403 13:10:57.624140 10448 net.cpp:141] Setting up hdf5out
…
