…
I0403 13:12:52.409013 10513 net.cpp:313] The NetState phase (1) differed from the phase (0) specified by a rule in layer data
I0403 13:12:52.409337 10513 net.cpp:49] Initializing net from parameters: 
state {
  phase: TEST
}
layer {
  name: "data"
  type: "Data"
  top: "data"
  top: "label"
  include {
    phase: TEST
  }
  transform_param {
    crop_size: 227
    mean_file: "/home/mohanty/data/final_dataset/lmdb/grayscale-50-50/mean.binaryproto"
  }
  data_param {
    source: "/home/mohanty/data/final_dataset/lmdb/grayscale-50-50/test_db"
    batch_size: 100
    backend: LMDB
  }
}
layer {
  name: "conv1"
  type: "Convolution"
  bottom: "data"
  top: "conv1"
  param {
    lr_mult: 1
    decay_mult: 1
  }
  param {
    lr_mult: 2
    decay_mult: 0
  }
  convolution_param {
    num_output: 96
    kernel_size: 11
    stride: 4
    weight_filler {
      type: "gaussian"
      std: 0.01
    }
    bias_filler {
      type: "constant"
      value: 0
    }
  }
}
layer {
  name: "relu1"
  type: "ReLU"
  bottom: "conv1"
  top: "conv1"
}
layer {
  name: "norm1"
  type: "LRN"
  bottom: "conv1"
  top: "norm1"
  lrn_param {
    local_size: 5
    alpha: 0.0001
    beta: 0.75
  }
}
layer {
  name: "pool1"
  type: "Pooling"
  bottom: "norm1"
  top: "pool1"
  pooling_param {
    pool: MAX
    kernel_size: 3
    stride: 2
  }
}
layer {
  name: "conv2"
  type: "Convolution"
  bottom: "pool1"
  top: "conv2"
  param {
    lr_mult: 1
    decay_mult: 1
  }
  param {
    lr_mult: 2
    decay_mult: 0
  }
  convolution_param {
    num_output: 256
    pad: 2
    kernel_size: 5
    group: 2
    weight_filler {
      type: "gaussian"
      std: 0.01
    }
    bias_filler {
      type: "constant"
      value: 0.1
    }
  }
}
layer {
  name: "relu2"
  type: "ReLU"
  bottom: "conv2"
  top: "conv2"
}
layer {
  name: "norm2"
  type: "LRN"
  bottom: "conv2"
  top: "norm2"
  lrn_param {
    local_size: 5
    alpha: 0.0001
    beta: 0.75
  }
}
layer {
  name: "pool2"
  type: "Pooling"
  bottom: "norm2"
  top: "pool2"
  pooling_param {
    pool: MAX
    kernel_size: 3
    stride: 2
  }
}
layer {
  name: "conv3"
  type: "Convolution"
  bottom: "pool2"
  top: "conv3"
  param {
    lr_mult: 1
    decay_mult: 1
  }
  param {
    lr_mult: 2
    decay_mult: 0
  }
  convolution_param {
    num_output: 384
    pad: 1
    kernel_size: 3
    weight_filler {
      type: "gaussian"
      std: 0.01
    }
    bias_filler {
      type: "constant"
      value: 0
    }
  }
}
layer {
  name: "relu3"
  type: "ReLU"
  bottom: "conv3"
  top: "conv3"
}
layer {
  name: "conv4"
  type: "Convolution"
  bottom: "conv3"
  top: "conv4"
  param {
    lr_mult: 1
    decay_mult: 1
  }
  param {
    lr_mult: 2
    decay_mult: 0
  }
  convolution_param {
    num_output: 384
    pad: 1
    kernel_size: 3
    group: 2
    weight_filler {
      type: "gaussian"
      std: 0.01
    }
    bias_filler {
      type: "constant"
      value: 0.1
    }
  }
}
layer {
  name: "relu4"
  type: "ReLU"
  bottom: "conv4"
  top: "conv4"
}
layer {
  name: "conv5"
  type: "Convolution"
  bottom: "conv4"
  top: "conv5"
  param {
    lr_mult: 1
    decay_mult: 1
  }
  param {
    lr_mult: 2
    decay_mult: 0
  }
  convolution_param {
    num_output: 256
    pad: 1
    kernel_size: 3
    group: 2
    weight_filler {
      type: "gaussian"
      std: 0.01
    }
    bias_filler {
      type: "constant"
      value: 0.1
    }
  }
}
layer {
  name: "relu5"
  type: "ReLU"
  bottom: "conv5"
  top: "conv5"
}
layer {
  name: "pool5"
  type: "Pooling"
  bottom: "conv5"
  top: "pool5"
  pooling_param {
    pool: MAX
    kernel_size: 3
    stride: 2
  }
}
layer {
  name: "fc6"
  type: "InnerProduct"
  bottom: "pool5"
  top: "fc6"
  param {
    lr_mult: 1
    decay_mult: 1
  }
  param {
    lr_mult: 2
    decay_mult: 0
  }
  inner_product_param {
    num_output: 4096
    weight_filler {
      type: "gaussian"
      std: 0.005
    }
    bias_filler {
      type: "constant"
      value: 0.1
    }
  }
}
layer {
  name: "relu6"
  type: "ReLU"
  bottom: "fc6"
  top: "fc6"
}
layer {
  name: "drop6"
  type: "Dropout"
  bottom: "fc6"
  top: "fc6"
  dropout_param {
    dropout_ratio: 0.5
  }
}
layer {
  name: "fc7"
  type: "InnerProduct"
  bottom: "fc6"
  top: "fc7"
  param {
    lr_mult: 1
    decay_mult: 1
  }
  param {
    lr_mult: 2
    decay_mult: 0
  }
  inner_product_param {
    num_output: 4096
    weight_filler {
      type: "gaussian"
      std: 0.005
    }
    bias_filler {
      type: "constant"
      value: 0.1
    }
  }
}
layer {
  name: "relu7"
  type: "ReLU"
  bottom: "fc7"
  top: "fc7"
}
layer {
  name: "drop7"
  type: "Dropout"
  bottom: "fc7"
  top: "fc7"
  dropout_param {
    dropout_ratio: 0.5
  }
}
layer {
  name: "fc8_plantvillage"
  type: "InnerProduct"
  bottom: "fc7"
  top: "fc8_plantvillage"
  param {
    lr_mult: 1
    decay_mult: 1
  }
  param {
    lr_mult: 2
    decay_mult: 0
  }
  inner_product_param {
    num_output: 38
    weight_filler {
      type: "gaussian"
      std: 0.01
    }
    bias_filler {
      type: "constant"
      value: 0
    }
  }
}
layer {
  name: "prob"
  type: "Softmax"
  bottom: "fc8_plantvillage"
  top: "prob"
  include {
    phase: TEST
  }
}
layer {
  name: "hdf5out"
  type: "HDF5Output"
  bottom: "prob"
  bottom: "label"
  include {
    phase: TEST
  }
  hdf5_output_param {
    file_name: "hdf5_dumps/iter_7209.h5"
  }
}
layer {
  name: "loss"
  type: "SoftmaxWithLoss"
  bottom: "fc8_plantvillage"
  bottom: "label"
  top: "loss"
}
layer {
  name: "accuracy"
  type: "Accuracy"
  bottom: "fc8_plantvillage"
  bottom: "label"
  top: "accuracy"
  include {
    phase: TEST
  }
}
I0403 13:12:52.409924 10513 layer_factory.hpp:77] Creating layer data
I0403 13:12:52.410598 10513 net.cpp:91] Creating Layer data
I0403 13:12:52.410629 10513 net.cpp:399] data -> data
I0403 13:12:52.410682 10513 net.cpp:399] data -> label
I0403 13:12:52.410719 10513 data_transformer.cpp:25] Loading mean file from: /home/mohanty/data/final_dataset/lmdb/grayscale-50-50/mean.binaryproto
I0403 13:12:52.423640 10516 db_lmdb.cpp:38] Opened lmdb /home/mohanty/data/final_dataset/lmdb/grayscale-50-50/test_db
I0403 13:12:52.430495 10513 data_layer.cpp:41] output data size: 100,3,227,227
I0403 13:12:52.562077 10513 net.cpp:141] Setting up data
I0403 13:12:52.562172 10513 net.cpp:148] Top shape: 100 3 227 227 (15458700)
I0403 13:12:52.562196 10513 net.cpp:148] Top shape: 100 (100)
I0403 13:12:52.562212 10513 net.cpp:156] Memory required for data: 61835200
I0403 13:12:52.562244 10513 layer_factory.hpp:77] Creating layer label_data_1_split
I0403 13:12:52.562275 10513 net.cpp:91] Creating Layer label_data_1_split
I0403 13:12:52.562294 10513 net.cpp:425] label_data_1_split <- label
I0403 13:12:52.562330 10513 net.cpp:399] label_data_1_split -> label_data_1_split_0
I0403 13:12:52.562360 10513 net.cpp:399] label_data_1_split -> label_data_1_split_1
I0403 13:12:52.562384 10513 net.cpp:399] label_data_1_split -> label_data_1_split_2
I0403 13:12:52.562460 10513 net.cpp:141] Setting up label_data_1_split
I0403 13:12:52.562491 10513 net.cpp:148] Top shape: 100 (100)
I0403 13:12:52.562515 10513 net.cpp:148] Top shape: 100 (100)
I0403 13:12:52.562556 10513 net.cpp:148] Top shape: 100 (100)
I0403 13:12:52.562573 10513 net.cpp:156] Memory required for data: 61836400
I0403 13:12:52.562590 10513 layer_factory.hpp:77] Creating layer conv1
I0403 13:12:52.562623 10513 net.cpp:91] Creating Layer conv1
I0403 13:12:52.562644 10513 net.cpp:425] conv1 <- data
I0403 13:12:52.562664 10513 net.cpp:399] conv1 -> conv1
I0403 13:12:52.735942 10513 net.cpp:141] Setting up conv1
I0403 13:12:52.736009 10513 net.cpp:148] Top shape: 100 96 55 55 (29040000)
I0403 13:12:52.736029 10513 net.cpp:156] Memory required for data: 177996400
I0403 13:12:52.736063 10513 layer_factory.hpp:77] Creating layer relu1
I0403 13:12:52.736093 10513 net.cpp:91] Creating Layer relu1
I0403 13:12:52.736111 10513 net.cpp:425] relu1 <- conv1
I0403 13:12:52.736132 10513 net.cpp:386] relu1 -> conv1 (in-place)
I0403 13:12:52.736407 10513 net.cpp:141] Setting up relu1
I0403 13:12:52.736435 10513 net.cpp:148] Top shape: 100 96 55 55 (29040000)
I0403 13:12:52.736479 10513 net.cpp:156] Memory required for data: 294156400
I0403 13:12:52.736497 10513 layer_factory.hpp:77] Creating layer norm1
I0403 13:12:52.736526 10513 net.cpp:91] Creating Layer norm1
I0403 13:12:52.736551 10513 net.cpp:425] norm1 <- conv1
I0403 13:12:52.736569 10513 net.cpp:399] norm1 -> norm1
I0403 13:12:52.736882 10513 net.cpp:141] Setting up norm1
I0403 13:12:52.736910 10513 net.cpp:148] Top shape: 100 96 55 55 (29040000)
I0403 13:12:52.736928 10513 net.cpp:156] Memory required for data: 410316400
I0403 13:12:52.736943 10513 layer_factory.hpp:77] Creating layer pool1
I0403 13:12:52.736969 10513 net.cpp:91] Creating Layer pool1
I0403 13:12:52.736987 10513 net.cpp:425] pool1 <- norm1
I0403 13:12:52.737005 10513 net.cpp:399] pool1 -> pool1
I0403 13:12:52.737076 10513 net.cpp:141] Setting up pool1
I0403 13:12:52.737100 10513 net.cpp:148] Top shape: 100 96 27 27 (6998400)
I0403 13:12:52.737118 10513 net.cpp:156] Memory required for data: 438310000
I0403 13:12:52.737133 10513 layer_factory.hpp:77] Creating layer conv2
I0403 13:12:52.737159 10513 net.cpp:91] Creating Layer conv2
I0403 13:12:52.737175 10513 net.cpp:425] conv2 <- pool1
I0403 13:12:52.737195 10513 net.cpp:399] conv2 -> conv2
I0403 13:12:52.752581 10513 net.cpp:141] Setting up conv2
I0403 13:12:52.752683 10513 net.cpp:148] Top shape: 100 256 27 27 (18662400)
I0403 13:12:52.752703 10513 net.cpp:156] Memory required for data: 512959600
I0403 13:12:52.752743 10513 layer_factory.hpp:77] Creating layer relu2
I0403 13:12:52.752768 10513 net.cpp:91] Creating Layer relu2
I0403 13:12:52.752785 10513 net.cpp:425] relu2 <- conv2
I0403 13:12:52.752806 10513 net.cpp:386] relu2 -> conv2 (in-place)
I0403 13:12:52.753092 10513 net.cpp:141] Setting up relu2
I0403 13:12:52.753119 10513 net.cpp:148] Top shape: 100 256 27 27 (18662400)
I0403 13:12:52.753135 10513 net.cpp:156] Memory required for data: 587609200
I0403 13:12:52.753150 10513 layer_factory.hpp:77] Creating layer norm2
I0403 13:12:52.753175 10513 net.cpp:91] Creating Layer norm2
I0403 13:12:52.753190 10513 net.cpp:425] norm2 <- conv2
I0403 13:12:52.753209 10513 net.cpp:399] norm2 -> norm2
I0403 13:12:52.753403 10513 net.cpp:141] Setting up norm2
I0403 13:12:52.753430 10513 net.cpp:148] Top shape: 100 256 27 27 (18662400)
I0403 13:12:52.753445 10513 net.cpp:156] Memory required for data: 662258800
I0403 13:12:52.753460 10513 layer_factory.hpp:77] Creating layer pool2
I0403 13:12:52.753480 10513 net.cpp:91] Creating Layer pool2
I0403 13:12:52.753496 10513 net.cpp:425] pool2 <- norm2
I0403 13:12:52.753515 10513 net.cpp:399] pool2 -> pool2
I0403 13:12:52.753585 10513 net.cpp:141] Setting up pool2
I0403 13:12:52.753609 10513 net.cpp:148] Top shape: 100 256 13 13 (4326400)
I0403 13:12:52.753624 10513 net.cpp:156] Memory required for data: 679564400
I0403 13:12:52.753639 10513 layer_factory.hpp:77] Creating layer conv3
I0403 13:12:52.753664 10513 net.cpp:91] Creating Layer conv3
I0403 13:12:52.753679 10513 net.cpp:425] conv3 <- pool2
I0403 13:12:52.753698 10513 net.cpp:399] conv3 -> conv3
I0403 13:12:52.793174 10513 net.cpp:141] Setting up conv3
I0403 13:12:52.793241 10513 net.cpp:148] Top shape: 100 384 13 13 (6489600)
I0403 13:12:52.793261 10513 net.cpp:156] Memory required for data: 705522800
I0403 13:12:52.793288 10513 layer_factory.hpp:77] Creating layer relu3
I0403 13:12:52.793313 10513 net.cpp:91] Creating Layer relu3
I0403 13:12:52.793330 10513 net.cpp:425] relu3 <- conv3
I0403 13:12:52.793352 10513 net.cpp:386] relu3 -> conv3 (in-place)
I0403 13:12:52.793637 10513 net.cpp:141] Setting up relu3
I0403 13:12:52.793664 10513 net.cpp:148] Top shape: 100 384 13 13 (6489600)
I0403 13:12:52.793681 10513 net.cpp:156] Memory required for data: 731481200
I0403 13:12:52.793697 10513 layer_factory.hpp:77] Creating layer conv4
I0403 13:12:52.793722 10513 net.cpp:91] Creating Layer conv4
I0403 13:12:52.793740 10513 net.cpp:425] conv4 <- conv3
I0403 13:12:52.793790 10513 net.cpp:399] conv4 -> conv4
I0403 13:12:52.824297 10513 net.cpp:141] Setting up conv4
I0403 13:12:52.824450 10513 net.cpp:148] Top shape: 100 384 13 13 (6489600)
I0403 13:12:52.824509 10513 net.cpp:156] Memory required for data: 757439600
I0403 13:12:52.824533 10513 layer_factory.hpp:77] Creating layer relu4
I0403 13:12:52.824573 10513 net.cpp:91] Creating Layer relu4
I0403 13:12:52.824591 10513 net.cpp:425] relu4 <- conv4
I0403 13:12:52.824615 10513 net.cpp:386] relu4 -> conv4 (in-place)
I0403 13:12:52.824909 10513 net.cpp:141] Setting up relu4
I0403 13:12:52.824936 10513 net.cpp:148] Top shape: 100 384 13 13 (6489600)
I0403 13:12:52.824951 10513 net.cpp:156] Memory required for data: 783398000
I0403 13:12:52.824966 10513 layer_factory.hpp:77] Creating layer conv5
I0403 13:12:52.824995 10513 net.cpp:91] Creating Layer conv5
I0403 13:12:52.825012 10513 net.cpp:425] conv5 <- conv4
I0403 13:12:52.825033 10513 net.cpp:399] conv5 -> conv5
I0403 13:12:52.846112 10513 net.cpp:141] Setting up conv5
I0403 13:12:52.846194 10513 net.cpp:148] Top shape: 100 256 13 13 (4326400)
I0403 13:12:52.846210 10513 net.cpp:156] Memory required for data: 800703600
I0403 13:12:52.846236 10513 layer_factory.hpp:77] Creating layer relu5
I0403 13:12:52.846263 10513 net.cpp:91] Creating Layer relu5
I0403 13:12:52.846282 10513 net.cpp:425] relu5 <- conv5
I0403 13:12:52.846300 10513 net.cpp:386] relu5 -> conv5 (in-place)
I0403 13:12:52.846592 10513 net.cpp:141] Setting up relu5
I0403 13:12:52.846618 10513 net.cpp:148] Top shape: 100 256 13 13 (4326400)
I0403 13:12:52.846633 10513 net.cpp:156] Memory required for data: 818009200
I0403 13:12:52.846648 10513 layer_factory.hpp:77] Creating layer pool5
I0403 13:12:52.846673 10513 net.cpp:91] Creating Layer pool5
I0403 13:12:52.846689 10513 net.cpp:425] pool5 <- conv5
I0403 13:12:52.846707 10513 net.cpp:399] pool5 -> pool5
I0403 13:12:52.846771 10513 net.cpp:141] Setting up pool5
I0403 13:12:52.846792 10513 net.cpp:148] Top shape: 100 256 6 6 (921600)
I0403 13:12:52.846807 10513 net.cpp:156] Memory required for data: 821695600
I0403 13:12:52.846822 10513 layer_factory.hpp:77] Creating layer fc6
I0403 13:12:52.846850 10513 net.cpp:91] Creating Layer fc6
I0403 13:12:52.846868 10513 net.cpp:425] fc6 <- pool5
I0403 13:12:52.846885 10513 net.cpp:399] fc6 -> fc6
I0403 13:12:54.404139 10513 net.cpp:141] Setting up fc6
I0403 13:12:54.404216 10513 net.cpp:148] Top shape: 100 4096 (409600)
I0403 13:12:54.404232 10513 net.cpp:156] Memory required for data: 823334000
I0403 13:12:54.404252 10513 layer_factory.hpp:77] Creating layer relu6
I0403 13:12:54.404274 10513 net.cpp:91] Creating Layer relu6
I0403 13:12:54.404291 10513 net.cpp:425] relu6 <- fc6
I0403 13:12:54.404312 10513 net.cpp:386] relu6 -> fc6 (in-place)
I0403 13:12:54.404527 10513 net.cpp:141] Setting up relu6
I0403 13:12:54.404564 10513 net.cpp:148] Top shape: 100 4096 (409600)
I0403 13:12:54.404580 10513 net.cpp:156] Memory required for data: 824972400
I0403 13:12:54.404594 10513 layer_factory.hpp:77] Creating layer drop6
I0403 13:12:54.404616 10513 net.cpp:91] Creating Layer drop6
I0403 13:12:54.404633 10513 net.cpp:425] drop6 <- fc6
I0403 13:12:54.404649 10513 net.cpp:386] drop6 -> fc6 (in-place)
I0403 13:12:54.404701 10513 net.cpp:141] Setting up drop6
I0403 13:12:54.404724 10513 net.cpp:148] Top shape: 100 4096 (409600)
I0403 13:12:54.404738 10513 net.cpp:156] Memory required for data: 826610800
I0403 13:12:54.404752 10513 layer_factory.hpp:77] Creating layer fc7
I0403 13:12:54.404772 10513 net.cpp:91] Creating Layer fc7
I0403 13:12:54.404786 10513 net.cpp:425] fc7 <- fc6
I0403 13:12:54.404805 10513 net.cpp:399] fc7 -> fc7
I0403 13:12:55.104502 10513 net.cpp:141] Setting up fc7
I0403 13:12:55.104600 10513 net.cpp:148] Top shape: 100 4096 (409600)
I0403 13:12:55.104619 10513 net.cpp:156] Memory required for data: 828249200
I0403 13:12:55.104640 10513 layer_factory.hpp:77] Creating layer relu7
I0403 13:12:55.104665 10513 net.cpp:91] Creating Layer relu7
I0403 13:12:55.104683 10513 net.cpp:425] relu7 <- fc7
I0403 13:12:55.104703 10513 net.cpp:386] relu7 -> fc7 (in-place)
I0403 13:12:55.105141 10513 net.cpp:141] Setting up relu7
I0403 13:12:55.105167 10513 net.cpp:148] Top shape: 100 4096 (409600)
I0403 13:12:55.105221 10513 net.cpp:156] Memory required for data: 829887600
I0403 13:12:55.105237 10513 layer_factory.hpp:77] Creating layer drop7
I0403 13:12:55.105255 10513 net.cpp:91] Creating Layer drop7
I0403 13:12:55.105270 10513 net.cpp:425] drop7 <- fc7
I0403 13:12:55.105290 10513 net.cpp:386] drop7 -> fc7 (in-place)
I0403 13:12:55.105337 10513 net.cpp:141] Setting up drop7
I0403 13:12:55.105360 10513 net.cpp:148] Top shape: 100 4096 (409600)
I0403 13:12:55.105375 10513 net.cpp:156] Memory required for data: 831526000
I0403 13:12:55.105387 10513 layer_factory.hpp:77] Creating layer fc8_plantvillage
I0403 13:12:55.105407 10513 net.cpp:91] Creating Layer fc8_plantvillage
I0403 13:12:55.105422 10513 net.cpp:425] fc8_plantvillage <- fc7
I0403 13:12:55.105443 10513 net.cpp:399] fc8_plantvillage -> fc8_plantvillage
I0403 13:12:55.112195 10513 net.cpp:141] Setting up fc8_plantvillage
I0403 13:12:55.112224 10513 net.cpp:148] Top shape: 100 38 (3800)
I0403 13:12:55.112241 10513 net.cpp:156] Memory required for data: 831541200
I0403 13:12:55.112257 10513 layer_factory.hpp:77] Creating layer fc8_plantvillage_fc8_plantvillage_0_split
I0403 13:12:55.112277 10513 net.cpp:91] Creating Layer fc8_plantvillage_fc8_plantvillage_0_split
I0403 13:12:55.112290 10513 net.cpp:425] fc8_plantvillage_fc8_plantvillage_0_split <- fc8_plantvillage
I0403 13:12:55.112308 10513 net.cpp:399] fc8_plantvillage_fc8_plantvillage_0_split -> fc8_plantvillage_fc8_plantvillage_0_split_0
I0403 13:12:55.112337 10513 net.cpp:399] fc8_plantvillage_fc8_plantvillage_0_split -> fc8_plantvillage_fc8_plantvillage_0_split_1
I0403 13:12:55.112357 10513 net.cpp:399] fc8_plantvillage_fc8_plantvillage_0_split -> fc8_plantvillage_fc8_plantvillage_0_split_2
I0403 13:12:55.112437 10513 net.cpp:141] Setting up fc8_plantvillage_fc8_plantvillage_0_split
I0403 13:12:55.112462 10513 net.cpp:148] Top shape: 100 38 (3800)
I0403 13:12:55.112476 10513 net.cpp:148] Top shape: 100 38 (3800)
I0403 13:12:55.112493 10513 net.cpp:148] Top shape: 100 38 (3800)
I0403 13:12:55.112505 10513 net.cpp:156] Memory required for data: 831586800
I0403 13:12:55.112520 10513 layer_factory.hpp:77] Creating layer prob
I0403 13:12:55.112541 10513 net.cpp:91] Creating Layer prob
I0403 13:12:55.112560 10513 net.cpp:425] prob <- fc8_plantvillage_fc8_plantvillage_0_split_0
I0403 13:12:55.112576 10513 net.cpp:399] prob -> prob
I0403 13:12:55.112810 10513 net.cpp:141] Setting up prob
I0403 13:12:55.112836 10513 net.cpp:148] Top shape: 100 38 (3800)
I0403 13:12:55.112851 10513 net.cpp:156] Memory required for data: 831602000
I0403 13:12:55.112865 10513 layer_factory.hpp:77] Creating layer hdf5out
I0403 13:12:55.112887 10513 net.cpp:91] Creating Layer hdf5out
I0403 13:12:55.112903 10513 net.cpp:425] hdf5out <- prob
I0403 13:12:55.112920 10513 net.cpp:425] hdf5out <- label_data_1_split_0
I0403 13:12:55.115345 10513 net.cpp:141] Setting up hdf5out
…
