…
I0403 12:59:27.217392  9997 net.cpp:313] The NetState phase (1) differed from the phase (0) specified by a rule in layer data
I0403 12:59:27.217721  9997 net.cpp:49] Initializing net from parameters: 
state {
  phase: TEST
}
layer {
  name: "data"
  type: "Data"
  top: "data"
  top: "label"
  include {
    phase: TEST
  }
  transform_param {
    crop_size: 227
    mean_file: "/home/mohanty/data/final_dataset/lmdb/grayscale-50-50/mean.binaryproto"
  }
  data_param {
    source: "/home/mohanty/data/final_dataset/lmdb/grayscale-50-50/test_db"
    batch_size: 100
    backend: LMDB
  }
}
layer {
  name: "conv1"
  type: "Convolution"
  bottom: "data"
  top: "conv1"
  param {
    lr_mult: 1
    decay_mult: 1
  }
  param {
    lr_mult: 2
    decay_mult: 0
  }
  convolution_param {
    num_output: 96
    kernel_size: 11
    stride: 4
    weight_filler {
      type: "gaussian"
      std: 0.01
    }
    bias_filler {
      type: "constant"
      value: 0
    }
  }
}
layer {
  name: "relu1"
  type: "ReLU"
  bottom: "conv1"
  top: "conv1"
}
layer {
  name: "norm1"
  type: "LRN"
  bottom: "conv1"
  top: "norm1"
  lrn_param {
    local_size: 5
    alpha: 0.0001
    beta: 0.75
  }
}
layer {
  name: "pool1"
  type: "Pooling"
  bottom: "norm1"
  top: "pool1"
  pooling_param {
    pool: MAX
    kernel_size: 3
    stride: 2
  }
}
layer {
  name: "conv2"
  type: "Convolution"
  bottom: "pool1"
  top: "conv2"
  param {
    lr_mult: 1
    decay_mult: 1
  }
  param {
    lr_mult: 2
    decay_mult: 0
  }
  convolution_param {
    num_output: 256
    pad: 2
    kernel_size: 5
    group: 2
    weight_filler {
      type: "gaussian"
      std: 0.01
    }
    bias_filler {
      type: "constant"
      value: 0.1
    }
  }
}
layer {
  name: "relu2"
  type: "ReLU"
  bottom: "conv2"
  top: "conv2"
}
layer {
  name: "norm2"
  type: "LRN"
  bottom: "conv2"
  top: "norm2"
  lrn_param {
    local_size: 5
    alpha: 0.0001
    beta: 0.75
  }
}
layer {
  name: "pool2"
  type: "Pooling"
  bottom: "norm2"
  top: "pool2"
  pooling_param {
    pool: MAX
    kernel_size: 3
    stride: 2
  }
}
layer {
  name: "conv3"
  type: "Convolution"
  bottom: "pool2"
  top: "conv3"
  param {
    lr_mult: 1
    decay_mult: 1
  }
  param {
    lr_mult: 2
    decay_mult: 0
  }
  convolution_param {
    num_output: 384
    pad: 1
    kernel_size: 3
    weight_filler {
      type: "gaussian"
      std: 0.01
    }
    bias_filler {
      type: "constant"
      value: 0
    }
  }
}
layer {
  name: "relu3"
  type: "ReLU"
  bottom: "conv3"
  top: "conv3"
}
layer {
  name: "conv4"
  type: "Convolution"
  bottom: "conv3"
  top: "conv4"
  param {
    lr_mult: 1
    decay_mult: 1
  }
  param {
    lr_mult: 2
    decay_mult: 0
  }
  convolution_param {
    num_output: 384
    pad: 1
    kernel_size: 3
    group: 2
    weight_filler {
      type: "gaussian"
      std: 0.01
    }
    bias_filler {
      type: "constant"
      value: 0.1
    }
  }
}
layer {
  name: "relu4"
  type: "ReLU"
  bottom: "conv4"
  top: "conv4"
}
layer {
  name: "conv5"
  type: "Convolution"
  bottom: "conv4"
  top: "conv5"
  param {
    lr_mult: 1
    decay_mult: 1
  }
  param {
    lr_mult: 2
    decay_mult: 0
  }
  convolution_param {
    num_output: 256
    pad: 1
    kernel_size: 3
    group: 2
    weight_filler {
      type: "gaussian"
      std: 0.01
    }
    bias_filler {
      type: "constant"
      value: 0.1
    }
  }
}
layer {
  name: "relu5"
  type: "ReLU"
  bottom: "conv5"
  top: "conv5"
}
layer {
  name: "pool5"
  type: "Pooling"
  bottom: "conv5"
  top: "pool5"
  pooling_param {
    pool: MAX
    kernel_size: 3
    stride: 2
  }
}
layer {
  name: "fc6"
  type: "InnerProduct"
  bottom: "pool5"
  top: "fc6"
  param {
    lr_mult: 1
    decay_mult: 1
  }
  param {
    lr_mult: 2
    decay_mult: 0
  }
  inner_product_param {
    num_output: 4096
    weight_filler {
      type: "gaussian"
      std: 0.005
    }
    bias_filler {
      type: "constant"
      value: 0.1
    }
  }
}
layer {
  name: "relu6"
  type: "ReLU"
  bottom: "fc6"
  top: "fc6"
}
layer {
  name: "drop6"
  type: "Dropout"
  bottom: "fc6"
  top: "fc6"
  dropout_param {
    dropout_ratio: 0.5
  }
}
layer {
  name: "fc7"
  type: "InnerProduct"
  bottom: "fc6"
  top: "fc7"
  param {
    lr_mult: 1
    decay_mult: 1
  }
  param {
    lr_mult: 2
    decay_mult: 0
  }
  inner_product_param {
    num_output: 4096
    weight_filler {
      type: "gaussian"
      std: 0.005
    }
    bias_filler {
      type: "constant"
      value: 0.1
    }
  }
}
layer {
  name: "relu7"
  type: "ReLU"
  bottom: "fc7"
  top: "fc7"
}
layer {
  name: "drop7"
  type: "Dropout"
  bottom: "fc7"
  top: "fc7"
  dropout_param {
    dropout_ratio: 0.5
  }
}
layer {
  name: "fc8_plantvillage"
  type: "InnerProduct"
  bottom: "fc7"
  top: "fc8_plantvillage"
  param {
    lr_mult: 1
    decay_mult: 1
  }
  param {
    lr_mult: 2
    decay_mult: 0
  }
  inner_product_param {
    num_output: 38
    weight_filler {
      type: "gaussian"
      std: 0.01
    }
    bias_filler {
      type: "constant"
      value: 0
    }
  }
}
layer {
  name: "prob"
  type: "Softmax"
  bottom: "fc8_plantvillage"
  top: "prob"
  include {
    phase: TEST
  }
}
layer {
  name: "hdf5out"
  type: "HDF5Output"
  bottom: "prob"
  bottom: "label"
  include {
    phase: TEST
  }
  hdf5_output_param {
    file_name: "hdf5_dumps/iter_3471.h5"
  }
}
layer {
  name: "loss"
  type: "SoftmaxWithLoss"
  bottom: "fc8_plantvillage"
  bottom: "label"
  top: "loss"
}
layer {
  name: "accuracy"
  type: "Accuracy"
  bottom: "fc8_plantvillage"
  bottom: "label"
  top: "accuracy"
  include {
    phase: TEST
  }
}
I0403 12:59:27.218297  9997 layer_factory.hpp:77] Creating layer data
I0403 12:59:27.218945  9997 net.cpp:91] Creating Layer data
I0403 12:59:27.218976  9997 net.cpp:399] data -> data
I0403 12:59:27.219027  9997 net.cpp:399] data -> label
I0403 12:59:27.219064  9997 data_transformer.cpp:25] Loading mean file from: /home/mohanty/data/final_dataset/lmdb/grayscale-50-50/mean.binaryproto
I0403 12:59:27.220162 10000 db_lmdb.cpp:38] Opened lmdb /home/mohanty/data/final_dataset/lmdb/grayscale-50-50/test_db
I0403 12:59:27.233279  9997 data_layer.cpp:41] output data size: 100,3,227,227
I0403 12:59:27.350558  9997 net.cpp:141] Setting up data
I0403 12:59:27.350616  9997 net.cpp:148] Top shape: 100 3 227 227 (15458700)
I0403 12:59:27.350637  9997 net.cpp:148] Top shape: 100 (100)
I0403 12:59:27.350652  9997 net.cpp:156] Memory required for data: 61835200
I0403 12:59:27.350679  9997 layer_factory.hpp:77] Creating layer label_data_1_split
I0403 12:59:27.350704  9997 net.cpp:91] Creating Layer label_data_1_split
I0403 12:59:27.350721  9997 net.cpp:425] label_data_1_split <- label
I0403 12:59:27.350754  9997 net.cpp:399] label_data_1_split -> label_data_1_split_0
I0403 12:59:27.350780  9997 net.cpp:399] label_data_1_split -> label_data_1_split_1
I0403 12:59:27.350800  9997 net.cpp:399] label_data_1_split -> label_data_1_split_2
I0403 12:59:27.350862  9997 net.cpp:141] Setting up label_data_1_split
I0403 12:59:27.350884  9997 net.cpp:148] Top shape: 100 (100)
I0403 12:59:27.350900  9997 net.cpp:148] Top shape: 100 (100)
I0403 12:59:27.350916  9997 net.cpp:148] Top shape: 100 (100)
I0403 12:59:27.350929  9997 net.cpp:156] Memory required for data: 61836400
I0403 12:59:27.350944  9997 layer_factory.hpp:77] Creating layer conv1
I0403 12:59:27.350973  9997 net.cpp:91] Creating Layer conv1
I0403 12:59:27.350991  9997 net.cpp:425] conv1 <- data
I0403 12:59:27.351009  9997 net.cpp:399] conv1 -> conv1
I0403 12:59:27.489207  9997 net.cpp:141] Setting up conv1
I0403 12:59:27.489256  9997 net.cpp:148] Top shape: 100 96 55 55 (29040000)
I0403 12:59:27.489275  9997 net.cpp:156] Memory required for data: 177996400
I0403 12:59:27.489307  9997 layer_factory.hpp:77] Creating layer relu1
I0403 12:59:27.489336  9997 net.cpp:91] Creating Layer relu1
I0403 12:59:27.489354  9997 net.cpp:425] relu1 <- conv1
I0403 12:59:27.489373  9997 net.cpp:386] relu1 -> conv1 (in-place)
I0403 12:59:27.489641  9997 net.cpp:141] Setting up relu1
I0403 12:59:27.489670  9997 net.cpp:148] Top shape: 100 96 55 55 (29040000)
I0403 12:59:27.489719  9997 net.cpp:156] Memory required for data: 294156400
I0403 12:59:27.489735  9997 layer_factory.hpp:77] Creating layer norm1
I0403 12:59:27.489764  9997 net.cpp:91] Creating Layer norm1
I0403 12:59:27.489783  9997 net.cpp:425] norm1 <- conv1
I0403 12:59:27.489800  9997 net.cpp:399] norm1 -> norm1
I0403 12:59:27.490120  9997 net.cpp:141] Setting up norm1
I0403 12:59:27.490147  9997 net.cpp:148] Top shape: 100 96 55 55 (29040000)
I0403 12:59:27.490164  9997 net.cpp:156] Memory required for data: 410316400
I0403 12:59:27.490178  9997 layer_factory.hpp:77] Creating layer pool1
I0403 12:59:27.490200  9997 net.cpp:91] Creating Layer pool1
I0403 12:59:27.490216  9997 net.cpp:425] pool1 <- norm1
I0403 12:59:27.490233  9997 net.cpp:399] pool1 -> pool1
I0403 12:59:27.490299  9997 net.cpp:141] Setting up pool1
I0403 12:59:27.490324  9997 net.cpp:148] Top shape: 100 96 27 27 (6998400)
I0403 12:59:27.490337  9997 net.cpp:156] Memory required for data: 438310000
I0403 12:59:27.490351  9997 layer_factory.hpp:77] Creating layer conv2
I0403 12:59:27.490375  9997 net.cpp:91] Creating Layer conv2
I0403 12:59:27.490389  9997 net.cpp:425] conv2 <- pool1
I0403 12:59:27.490407  9997 net.cpp:399] conv2 -> conv2
I0403 12:59:27.505190  9997 net.cpp:141] Setting up conv2
I0403 12:59:27.505246  9997 net.cpp:148] Top shape: 100 256 27 27 (18662400)
I0403 12:59:27.505276  9997 net.cpp:156] Memory required for data: 512959600
I0403 12:59:27.505300  9997 layer_factory.hpp:77] Creating layer relu2
I0403 12:59:27.505321  9997 net.cpp:91] Creating Layer relu2
I0403 12:59:27.505337  9997 net.cpp:425] relu2 <- conv2
I0403 12:59:27.505357  9997 net.cpp:386] relu2 -> conv2 (in-place)
I0403 12:59:27.505647  9997 net.cpp:141] Setting up relu2
I0403 12:59:27.505676  9997 net.cpp:148] Top shape: 100 256 27 27 (18662400)
I0403 12:59:27.505689  9997 net.cpp:156] Memory required for data: 587609200
I0403 12:59:27.505704  9997 layer_factory.hpp:77] Creating layer norm2
I0403 12:59:27.505724  9997 net.cpp:91] Creating Layer norm2
I0403 12:59:27.505740  9997 net.cpp:425] norm2 <- conv2
I0403 12:59:27.505759  9997 net.cpp:399] norm2 -> norm2
I0403 12:59:27.505950  9997 net.cpp:141] Setting up norm2
I0403 12:59:27.505977  9997 net.cpp:148] Top shape: 100 256 27 27 (18662400)
I0403 12:59:27.505992  9997 net.cpp:156] Memory required for data: 662258800
I0403 12:59:27.506007  9997 layer_factory.hpp:77] Creating layer pool2
I0403 12:59:27.506024  9997 net.cpp:91] Creating Layer pool2
I0403 12:59:27.506039  9997 net.cpp:425] pool2 <- norm2
I0403 12:59:27.506057  9997 net.cpp:399] pool2 -> pool2
I0403 12:59:27.506106  9997 net.cpp:141] Setting up pool2
I0403 12:59:27.506129  9997 net.cpp:148] Top shape: 100 256 13 13 (4326400)
I0403 12:59:27.506144  9997 net.cpp:156] Memory required for data: 679564400
I0403 12:59:27.506158  9997 layer_factory.hpp:77] Creating layer conv3
I0403 12:59:27.506181  9997 net.cpp:91] Creating Layer conv3
I0403 12:59:27.506196  9997 net.cpp:425] conv3 <- pool2
I0403 12:59:27.506214  9997 net.cpp:399] conv3 -> conv3
I0403 12:59:27.548451  9997 net.cpp:141] Setting up conv3
I0403 12:59:27.548535  9997 net.cpp:148] Top shape: 100 384 13 13 (6489600)
I0403 12:59:27.548554  9997 net.cpp:156] Memory required for data: 705522800
I0403 12:59:27.548580  9997 layer_factory.hpp:77] Creating layer relu3
I0403 12:59:27.548604  9997 net.cpp:91] Creating Layer relu3
I0403 12:59:27.548621  9997 net.cpp:425] relu3 <- conv3
I0403 12:59:27.548641  9997 net.cpp:386] relu3 -> conv3 (in-place)
I0403 12:59:27.548925  9997 net.cpp:141] Setting up relu3
I0403 12:59:27.548957  9997 net.cpp:148] Top shape: 100 384 13 13 (6489600)
I0403 12:59:27.548974  9997 net.cpp:156] Memory required for data: 731481200
I0403 12:59:27.548990  9997 layer_factory.hpp:77] Creating layer conv4
I0403 12:59:27.549015  9997 net.cpp:91] Creating Layer conv4
I0403 12:59:27.549032  9997 net.cpp:425] conv4 <- conv3
I0403 12:59:27.549052  9997 net.cpp:399] conv4 -> conv4
I0403 12:59:27.578800  9997 net.cpp:141] Setting up conv4
I0403 12:59:27.578871  9997 net.cpp:148] Top shape: 100 384 13 13 (6489600)
I0403 12:59:27.578922  9997 net.cpp:156] Memory required for data: 757439600
I0403 12:59:27.578944  9997 layer_factory.hpp:77] Creating layer relu4
I0403 12:59:27.578971  9997 net.cpp:91] Creating Layer relu4
I0403 12:59:27.578991  9997 net.cpp:425] relu4 <- conv4
I0403 12:59:27.579011  9997 net.cpp:386] relu4 -> conv4 (in-place)
I0403 12:59:27.579319  9997 net.cpp:141] Setting up relu4
I0403 12:59:27.579346  9997 net.cpp:148] Top shape: 100 384 13 13 (6489600)
I0403 12:59:27.579361  9997 net.cpp:156] Memory required for data: 783398000
I0403 12:59:27.579376  9997 layer_factory.hpp:77] Creating layer conv5
I0403 12:59:27.579402  9997 net.cpp:91] Creating Layer conv5
I0403 12:59:27.579421  9997 net.cpp:425] conv5 <- conv4
I0403 12:59:27.579442  9997 net.cpp:399] conv5 -> conv5
I0403 12:59:27.600000  9997 net.cpp:141] Setting up conv5
I0403 12:59:27.600056  9997 net.cpp:148] Top shape: 100 256 13 13 (4326400)
I0403 12:59:27.600074  9997 net.cpp:156] Memory required for data: 800703600
I0403 12:59:27.600098  9997 layer_factory.hpp:77] Creating layer relu5
I0403 12:59:27.600122  9997 net.cpp:91] Creating Layer relu5
I0403 12:59:27.600142  9997 net.cpp:425] relu5 <- conv5
I0403 12:59:27.600162  9997 net.cpp:386] relu5 -> conv5 (in-place)
I0403 12:59:27.600440  9997 net.cpp:141] Setting up relu5
I0403 12:59:27.600472  9997 net.cpp:148] Top shape: 100 256 13 13 (4326400)
I0403 12:59:27.600491  9997 net.cpp:156] Memory required for data: 818009200
I0403 12:59:27.600510  9997 layer_factory.hpp:77] Creating layer pool5
I0403 12:59:27.600533  9997 net.cpp:91] Creating Layer pool5
I0403 12:59:27.600556  9997 net.cpp:425] pool5 <- conv5
I0403 12:59:27.600577  9997 net.cpp:399] pool5 -> pool5
I0403 12:59:27.600638  9997 net.cpp:141] Setting up pool5
I0403 12:59:27.600666  9997 net.cpp:148] Top shape: 100 256 6 6 (921600)
I0403 12:59:27.600682  9997 net.cpp:156] Memory required for data: 821695600
I0403 12:59:27.600697  9997 layer_factory.hpp:77] Creating layer fc6
I0403 12:59:27.600723  9997 net.cpp:91] Creating Layer fc6
I0403 12:59:27.600744  9997 net.cpp:425] fc6 <- pool5
I0403 12:59:27.600767  9997 net.cpp:399] fc6 -> fc6
I0403 12:59:29.157543  9997 net.cpp:141] Setting up fc6
I0403 12:59:29.157623  9997 net.cpp:148] Top shape: 100 4096 (409600)
I0403 12:59:29.157639  9997 net.cpp:156] Memory required for data: 823334000
I0403 12:59:29.157661  9997 layer_factory.hpp:77] Creating layer relu6
I0403 12:59:29.157686  9997 net.cpp:91] Creating Layer relu6
I0403 12:59:29.157703  9997 net.cpp:425] relu6 <- fc6
I0403 12:59:29.157723  9997 net.cpp:386] relu6 -> fc6 (in-place)
I0403 12:59:29.157941  9997 net.cpp:141] Setting up relu6
I0403 12:59:29.157969  9997 net.cpp:148] Top shape: 100 4096 (409600)
I0403 12:59:29.157985  9997 net.cpp:156] Memory required for data: 824972400
I0403 12:59:29.157999  9997 layer_factory.hpp:77] Creating layer drop6
I0403 12:59:29.158018  9997 net.cpp:91] Creating Layer drop6
I0403 12:59:29.158033  9997 net.cpp:425] drop6 <- fc6
I0403 12:59:29.158051  9997 net.cpp:386] drop6 -> fc6 (in-place)
I0403 12:59:29.158102  9997 net.cpp:141] Setting up drop6
I0403 12:59:29.158128  9997 net.cpp:148] Top shape: 100 4096 (409600)
I0403 12:59:29.158141  9997 net.cpp:156] Memory required for data: 826610800
I0403 12:59:29.158155  9997 layer_factory.hpp:77] Creating layer fc7
I0403 12:59:29.158177  9997 net.cpp:91] Creating Layer fc7
I0403 12:59:29.158195  9997 net.cpp:425] fc7 <- fc6
I0403 12:59:29.158211  9997 net.cpp:399] fc7 -> fc7
I0403 12:59:29.843803  9997 net.cpp:141] Setting up fc7
I0403 12:59:29.843886  9997 net.cpp:148] Top shape: 100 4096 (409600)
I0403 12:59:29.843902  9997 net.cpp:156] Memory required for data: 828249200
I0403 12:59:29.843924  9997 layer_factory.hpp:77] Creating layer relu7
I0403 12:59:29.843945  9997 net.cpp:91] Creating Layer relu7
I0403 12:59:29.843962  9997 net.cpp:425] relu7 <- fc7
I0403 12:59:29.843982  9997 net.cpp:386] relu7 -> fc7 (in-place)
I0403 12:59:29.844388  9997 net.cpp:141] Setting up relu7
I0403 12:59:29.844419  9997 net.cpp:148] Top shape: 100 4096 (409600)
I0403 12:59:29.844472  9997 net.cpp:156] Memory required for data: 829887600
I0403 12:59:29.844490  9997 layer_factory.hpp:77] Creating layer drop7
I0403 12:59:29.844518  9997 net.cpp:91] Creating Layer drop7
I0403 12:59:29.844537  9997 net.cpp:425] drop7 <- fc7
I0403 12:59:29.844554  9997 net.cpp:386] drop7 -> fc7 (in-place)
I0403 12:59:29.844600  9997 net.cpp:141] Setting up drop7
I0403 12:59:29.844624  9997 net.cpp:148] Top shape: 100 4096 (409600)
I0403 12:59:29.844637  9997 net.cpp:156] Memory required for data: 831526000
I0403 12:59:29.844652  9997 layer_factory.hpp:77] Creating layer fc8_plantvillage
I0403 12:59:29.844674  9997 net.cpp:91] Creating Layer fc8_plantvillage
I0403 12:59:29.844689  9997 net.cpp:425] fc8_plantvillage <- fc7
I0403 12:59:29.844707  9997 net.cpp:399] fc8_plantvillage -> fc8_plantvillage
I0403 12:59:29.851418  9997 net.cpp:141] Setting up fc8_plantvillage
I0403 12:59:29.851445  9997 net.cpp:148] Top shape: 100 38 (3800)
I0403 12:59:29.851460  9997 net.cpp:156] Memory required for data: 831541200
I0403 12:59:29.851478  9997 layer_factory.hpp:77] Creating layer fc8_plantvillage_fc8_plantvillage_0_split
I0403 12:59:29.851496  9997 net.cpp:91] Creating Layer fc8_plantvillage_fc8_plantvillage_0_split
I0403 12:59:29.851516  9997 net.cpp:425] fc8_plantvillage_fc8_plantvillage_0_split <- fc8_plantvillage
I0403 12:59:29.851536  9997 net.cpp:399] fc8_plantvillage_fc8_plantvillage_0_split -> fc8_plantvillage_fc8_plantvillage_0_split_0
I0403 12:59:29.851557  9997 net.cpp:399] fc8_plantvillage_fc8_plantvillage_0_split -> fc8_plantvillage_fc8_plantvillage_0_split_1
I0403 12:59:29.851577  9997 net.cpp:399] fc8_plantvillage_fc8_plantvillage_0_split -> fc8_plantvillage_fc8_plantvillage_0_split_2
I0403 12:59:29.851663  9997 net.cpp:141] Setting up fc8_plantvillage_fc8_plantvillage_0_split
I0403 12:59:29.851686  9997 net.cpp:148] Top shape: 100 38 (3800)
I0403 12:59:29.851702  9997 net.cpp:148] Top shape: 100 38 (3800)
I0403 12:59:29.851717  9997 net.cpp:148] Top shape: 100 38 (3800)
I0403 12:59:29.851730  9997 net.cpp:156] Memory required for data: 831586800
I0403 12:59:29.851744  9997 layer_factory.hpp:77] Creating layer prob
I0403 12:59:29.851764  9997 net.cpp:91] Creating Layer prob
I0403 12:59:29.851780  9997 net.cpp:425] prob <- fc8_plantvillage_fc8_plantvillage_0_split_0
I0403 12:59:29.851799  9997 net.cpp:399] prob -> prob
I0403 12:59:29.852020  9997 net.cpp:141] Setting up prob
I0403 12:59:29.852048  9997 net.cpp:148] Top shape: 100 38 (3800)
I0403 12:59:29.852064  9997 net.cpp:156] Memory required for data: 831602000
I0403 12:59:29.852078  9997 layer_factory.hpp:77] Creating layer hdf5out
I0403 12:59:29.852097  9997 net.cpp:91] Creating Layer hdf5out
I0403 12:59:29.852113  9997 net.cpp:425] hdf5out <- prob
I0403 12:59:29.852129  9997 net.cpp:425] hdf5out <- label_data_1_split_0
I0403 12:59:29.854708  9997 net.cpp:141] Setting up hdf5out
…
