…
I0403 13:16:45.858929 10648 net.cpp:313] The NetState phase (1) differed from the phase (0) specified by a rule in layer data
I0403 13:16:45.859231 10648 net.cpp:49] Initializing net from parameters: 
state {
  phase: TEST
}
layer {
  name: "data"
  type: "Data"
  top: "data"
  top: "label"
  include {
    phase: TEST
  }
  transform_param {
    crop_size: 227
    mean_file: "/home/mohanty/data/final_dataset/lmdb/grayscale-50-50/mean.binaryproto"
  }
  data_param {
    source: "/home/mohanty/data/final_dataset/lmdb/grayscale-50-50/test_db"
    batch_size: 100
    backend: LMDB
  }
}
layer {
  name: "conv1"
  type: "Convolution"
  bottom: "data"
  top: "conv1"
  param {
    lr_mult: 1
    decay_mult: 1
  }
  param {
    lr_mult: 2
    decay_mult: 0
  }
  convolution_param {
    num_output: 96
    kernel_size: 11
    stride: 4
    weight_filler {
      type: "gaussian"
      std: 0.01
    }
    bias_filler {
      type: "constant"
      value: 0
    }
  }
}
layer {
  name: "relu1"
  type: "ReLU"
  bottom: "conv1"
  top: "conv1"
}
layer {
  name: "norm1"
  type: "LRN"
  bottom: "conv1"
  top: "norm1"
  lrn_param {
    local_size: 5
    alpha: 0.0001
    beta: 0.75
  }
}
layer {
  name: "pool1"
  type: "Pooling"
  bottom: "norm1"
  top: "pool1"
  pooling_param {
    pool: MAX
    kernel_size: 3
    stride: 2
  }
}
layer {
  name: "conv2"
  type: "Convolution"
  bottom: "pool1"
  top: "conv2"
  param {
    lr_mult: 1
    decay_mult: 1
  }
  param {
    lr_mult: 2
    decay_mult: 0
  }
  convolution_param {
    num_output: 256
    pad: 2
    kernel_size: 5
    group: 2
    weight_filler {
      type: "gaussian"
      std: 0.01
    }
    bias_filler {
      type: "constant"
      value: 0.1
    }
  }
}
layer {
  name: "relu2"
  type: "ReLU"
  bottom: "conv2"
  top: "conv2"
}
layer {
  name: "norm2"
  type: "LRN"
  bottom: "conv2"
  top: "norm2"
  lrn_param {
    local_size: 5
    alpha: 0.0001
    beta: 0.75
  }
}
layer {
  name: "pool2"
  type: "Pooling"
  bottom: "norm2"
  top: "pool2"
  pooling_param {
    pool: MAX
    kernel_size: 3
    stride: 2
  }
}
layer {
  name: "conv3"
  type: "Convolution"
  bottom: "pool2"
  top: "conv3"
  param {
    lr_mult: 1
    decay_mult: 1
  }
  param {
    lr_mult: 2
    decay_mult: 0
  }
  convolution_param {
    num_output: 384
    pad: 1
    kernel_size: 3
    weight_filler {
      type: "gaussian"
      std: 0.01
    }
    bias_filler {
      type: "constant"
      value: 0
    }
  }
}
layer {
  name: "relu3"
  type: "ReLU"
  bottom: "conv3"
  top: "conv3"
}
layer {
  name: "conv4"
  type: "Convolution"
  bottom: "conv3"
  top: "conv4"
  param {
    lr_mult: 1
    decay_mult: 1
  }
  param {
    lr_mult: 2
    decay_mult: 0
  }
  convolution_param {
    num_output: 384
    pad: 1
    kernel_size: 3
    group: 2
    weight_filler {
      type: "gaussian"
      std: 0.01
    }
    bias_filler {
      type: "constant"
      value: 0.1
    }
  }
}
layer {
  name: "relu4"
  type: "ReLU"
  bottom: "conv4"
  top: "conv4"
}
layer {
  name: "conv5"
  type: "Convolution"
  bottom: "conv4"
  top: "conv5"
  param {
    lr_mult: 1
    decay_mult: 1
  }
  param {
    lr_mult: 2
    decay_mult: 0
  }
  convolution_param {
    num_output: 256
    pad: 1
    kernel_size: 3
    group: 2
    weight_filler {
      type: "gaussian"
      std: 0.01
    }
    bias_filler {
      type: "constant"
      value: 0.1
    }
  }
}
layer {
  name: "relu5"
  type: "ReLU"
  bottom: "conv5"
  top: "conv5"
}
layer {
  name: "pool5"
  type: "Pooling"
  bottom: "conv5"
  top: "pool5"
  pooling_param {
    pool: MAX
    kernel_size: 3
    stride: 2
  }
}
layer {
  name: "fc6"
  type: "InnerProduct"
  bottom: "pool5"
  top: "fc6"
  param {
    lr_mult: 1
    decay_mult: 1
  }
  param {
    lr_mult: 2
    decay_mult: 0
  }
  inner_product_param {
    num_output: 4096
    weight_filler {
      type: "gaussian"
      std: 0.005
    }
    bias_filler {
      type: "constant"
      value: 0.1
    }
  }
}
layer {
  name: "relu6"
  type: "ReLU"
  bottom: "fc6"
  top: "fc6"
}
layer {
  name: "drop6"
  type: "Dropout"
  bottom: "fc6"
  top: "fc6"
  dropout_param {
    dropout_ratio: 0.5
  }
}
layer {
  name: "fc7"
  type: "InnerProduct"
  bottom: "fc6"
  top: "fc7"
  param {
    lr_mult: 1
    decay_mult: 1
  }
  param {
    lr_mult: 2
    decay_mult: 0
  }
  inner_product_param {
    num_output: 4096
    weight_filler {
      type: "gaussian"
      std: 0.005
    }
    bias_filler {
      type: "constant"
      value: 0.1
    }
  }
}
layer {
  name: "relu7"
  type: "ReLU"
  bottom: "fc7"
  top: "fc7"
}
layer {
  name: "drop7"
  type: "Dropout"
  bottom: "fc7"
  top: "fc7"
  dropout_param {
    dropout_ratio: 0.5
  }
}
layer {
  name: "fc8_plantvillage"
  type: "InnerProduct"
  bottom: "fc7"
  top: "fc8_plantvillage"
  param {
    lr_mult: 1
    decay_mult: 1
  }
  param {
    lr_mult: 2
    decay_mult: 0
  }
  inner_product_param {
    num_output: 38
    weight_filler {
      type: "gaussian"
      std: 0.01
    }
    bias_filler {
      type: "constant"
      value: 0
    }
  }
}
layer {
  name: "prob"
  type: "Softmax"
  bottom: "fc8_plantvillage"
  top: "prob"
  include {
    phase: TEST
  }
}
layer {
  name: "hdf5out"
  type: "HDF5Output"
  bottom: "prob"
  bottom: "label"
  include {
    phase: TEST
  }
  hdf5_output_param {
    file_name: "hdf5_dumps/iter_8023.h5"
  }
}
layer {
  name: "loss"
  type: "SoftmaxWithLoss"
  bottom: "fc8_plantvillage"
  bottom: "label"
  top: "loss"
}
layer {
  name: "accuracy"
  type: "Accuracy"
  bottom: "fc8_plantvillage"
  bottom: "label"
  top: "accuracy"
  include {
    phase: TEST
  }
}
I0403 13:16:45.859845 10648 layer_factory.hpp:77] Creating layer data
I0403 13:16:45.860496 10648 net.cpp:91] Creating Layer data
I0403 13:16:45.860534 10648 net.cpp:399] data -> data
I0403 13:16:45.860587 10648 net.cpp:399] data -> label
I0403 13:16:45.860623 10648 data_transformer.cpp:25] Loading mean file from: /home/mohanty/data/final_dataset/lmdb/grayscale-50-50/mean.binaryproto
I0403 13:16:45.861773 10652 db_lmdb.cpp:38] Opened lmdb /home/mohanty/data/final_dataset/lmdb/grayscale-50-50/test_db
I0403 13:16:45.875383 10648 data_layer.cpp:41] output data size: 100,3,227,227
I0403 13:16:45.998020 10648 net.cpp:141] Setting up data
I0403 13:16:45.998081 10648 net.cpp:148] Top shape: 100 3 227 227 (15458700)
I0403 13:16:45.998105 10648 net.cpp:148] Top shape: 100 (100)
I0403 13:16:45.998121 10648 net.cpp:156] Memory required for data: 61835200
I0403 13:16:45.998149 10648 layer_factory.hpp:77] Creating layer label_data_1_split
I0403 13:16:45.998175 10648 net.cpp:91] Creating Layer label_data_1_split
I0403 13:16:45.998193 10648 net.cpp:425] label_data_1_split <- label
I0403 13:16:45.998226 10648 net.cpp:399] label_data_1_split -> label_data_1_split_0
I0403 13:16:45.998253 10648 net.cpp:399] label_data_1_split -> label_data_1_split_1
I0403 13:16:45.998273 10648 net.cpp:399] label_data_1_split -> label_data_1_split_2
I0403 13:16:45.998338 10648 net.cpp:141] Setting up label_data_1_split
I0403 13:16:45.998363 10648 net.cpp:148] Top shape: 100 (100)
I0403 13:16:45.998379 10648 net.cpp:148] Top shape: 100 (100)
I0403 13:16:45.998394 10648 net.cpp:148] Top shape: 100 (100)
I0403 13:16:45.998409 10648 net.cpp:156] Memory required for data: 61836400
I0403 13:16:45.998423 10648 layer_factory.hpp:77] Creating layer conv1
I0403 13:16:45.998456 10648 net.cpp:91] Creating Layer conv1
I0403 13:16:45.998474 10648 net.cpp:425] conv1 <- data
I0403 13:16:45.998493 10648 net.cpp:399] conv1 -> conv1
I0403 13:16:46.137025 10648 net.cpp:141] Setting up conv1
I0403 13:16:46.137104 10648 net.cpp:148] Top shape: 100 96 55 55 (29040000)
I0403 13:16:46.137121 10648 net.cpp:156] Memory required for data: 177996400
I0403 13:16:46.137152 10648 layer_factory.hpp:77] Creating layer relu1
I0403 13:16:46.137181 10648 net.cpp:91] Creating Layer relu1
I0403 13:16:46.137199 10648 net.cpp:425] relu1 <- conv1
I0403 13:16:46.137218 10648 net.cpp:386] relu1 -> conv1 (in-place)
I0403 13:16:46.137478 10648 net.cpp:141] Setting up relu1
I0403 13:16:46.137511 10648 net.cpp:148] Top shape: 100 96 55 55 (29040000)
I0403 13:16:46.137570 10648 net.cpp:156] Memory required for data: 294156400
I0403 13:16:46.137586 10648 layer_factory.hpp:77] Creating layer norm1
I0403 13:16:46.137614 10648 net.cpp:91] Creating Layer norm1
I0403 13:16:46.137632 10648 net.cpp:425] norm1 <- conv1
I0403 13:16:46.137650 10648 net.cpp:399] norm1 -> norm1
I0403 13:16:46.137965 10648 net.cpp:141] Setting up norm1
I0403 13:16:46.137994 10648 net.cpp:148] Top shape: 100 96 55 55 (29040000)
I0403 13:16:46.138010 10648 net.cpp:156] Memory required for data: 410316400
I0403 13:16:46.138023 10648 layer_factory.hpp:77] Creating layer pool1
I0403 13:16:46.138046 10648 net.cpp:91] Creating Layer pool1
I0403 13:16:46.138062 10648 net.cpp:425] pool1 <- norm1
I0403 13:16:46.138079 10648 net.cpp:399] pool1 -> pool1
I0403 13:16:46.138147 10648 net.cpp:141] Setting up pool1
I0403 13:16:46.138170 10648 net.cpp:148] Top shape: 100 96 27 27 (6998400)
I0403 13:16:46.138186 10648 net.cpp:156] Memory required for data: 438310000
I0403 13:16:46.138201 10648 layer_factory.hpp:77] Creating layer conv2
I0403 13:16:46.138226 10648 net.cpp:91] Creating Layer conv2
I0403 13:16:46.138242 10648 net.cpp:425] conv2 <- pool1
I0403 13:16:46.138259 10648 net.cpp:399] conv2 -> conv2
I0403 13:16:46.153174 10648 net.cpp:141] Setting up conv2
I0403 13:16:46.153224 10648 net.cpp:148] Top shape: 100 256 27 27 (18662400)
I0403 13:16:46.153240 10648 net.cpp:156] Memory required for data: 512959600
I0403 13:16:46.153262 10648 layer_factory.hpp:77] Creating layer relu2
I0403 13:16:46.153283 10648 net.cpp:91] Creating Layer relu2
I0403 13:16:46.153300 10648 net.cpp:425] relu2 <- conv2
I0403 13:16:46.153316 10648 net.cpp:386] relu2 -> conv2 (in-place)
I0403 13:16:46.153597 10648 net.cpp:141] Setting up relu2
I0403 13:16:46.153625 10648 net.cpp:148] Top shape: 100 256 27 27 (18662400)
I0403 13:16:46.153640 10648 net.cpp:156] Memory required for data: 587609200
I0403 13:16:46.153653 10648 layer_factory.hpp:77] Creating layer norm2
I0403 13:16:46.153676 10648 net.cpp:91] Creating Layer norm2
I0403 13:16:46.153692 10648 net.cpp:425] norm2 <- conv2
I0403 13:16:46.153712 10648 net.cpp:399] norm2 -> norm2
I0403 13:16:46.153920 10648 net.cpp:141] Setting up norm2
I0403 13:16:46.153946 10648 net.cpp:148] Top shape: 100 256 27 27 (18662400)
I0403 13:16:46.153961 10648 net.cpp:156] Memory required for data: 662258800
I0403 13:16:46.153975 10648 layer_factory.hpp:77] Creating layer pool2
I0403 13:16:46.153993 10648 net.cpp:91] Creating Layer pool2
I0403 13:16:46.154009 10648 net.cpp:425] pool2 <- norm2
I0403 13:16:46.154028 10648 net.cpp:399] pool2 -> pool2
I0403 13:16:46.154081 10648 net.cpp:141] Setting up pool2
I0403 13:16:46.154104 10648 net.cpp:148] Top shape: 100 256 13 13 (4326400)
I0403 13:16:46.154119 10648 net.cpp:156] Memory required for data: 679564400
I0403 13:16:46.154132 10648 layer_factory.hpp:77] Creating layer conv3
I0403 13:16:46.154158 10648 net.cpp:91] Creating Layer conv3
I0403 13:16:46.154175 10648 net.cpp:425] conv3 <- pool2
I0403 13:16:46.154194 10648 net.cpp:399] conv3 -> conv3
I0403 13:16:46.196753 10648 net.cpp:141] Setting up conv3
I0403 13:16:46.196816 10648 net.cpp:148] Top shape: 100 384 13 13 (6489600)
I0403 13:16:46.196833 10648 net.cpp:156] Memory required for data: 705522800
I0403 13:16:46.196859 10648 layer_factory.hpp:77] Creating layer relu3
I0403 13:16:46.196885 10648 net.cpp:91] Creating Layer relu3
I0403 13:16:46.196903 10648 net.cpp:425] relu3 <- conv3
I0403 13:16:46.196923 10648 net.cpp:386] relu3 -> conv3 (in-place)
I0403 13:16:46.197197 10648 net.cpp:141] Setting up relu3
I0403 13:16:46.197224 10648 net.cpp:148] Top shape: 100 384 13 13 (6489600)
I0403 13:16:46.197239 10648 net.cpp:156] Memory required for data: 731481200
I0403 13:16:46.197254 10648 layer_factory.hpp:77] Creating layer conv4
I0403 13:16:46.197283 10648 net.cpp:91] Creating Layer conv4
I0403 13:16:46.197301 10648 net.cpp:425] conv4 <- conv3
I0403 13:16:46.197324 10648 net.cpp:399] conv4 -> conv4
I0403 13:16:46.227061 10648 net.cpp:141] Setting up conv4
I0403 13:16:46.227130 10648 net.cpp:148] Top shape: 100 384 13 13 (6489600)
I0403 13:16:46.227182 10648 net.cpp:156] Memory required for data: 757439600
I0403 13:16:46.227205 10648 layer_factory.hpp:77] Creating layer relu4
I0403 13:16:46.227227 10648 net.cpp:91] Creating Layer relu4
I0403 13:16:46.227246 10648 net.cpp:425] relu4 <- conv4
I0403 13:16:46.227267 10648 net.cpp:386] relu4 -> conv4 (in-place)
I0403 13:16:46.227560 10648 net.cpp:141] Setting up relu4
I0403 13:16:46.227589 10648 net.cpp:148] Top shape: 100 384 13 13 (6489600)
I0403 13:16:46.227605 10648 net.cpp:156] Memory required for data: 783398000
I0403 13:16:46.227622 10648 layer_factory.hpp:77] Creating layer conv5
I0403 13:16:46.227646 10648 net.cpp:91] Creating Layer conv5
I0403 13:16:46.227663 10648 net.cpp:425] conv5 <- conv4
I0403 13:16:46.227685 10648 net.cpp:399] conv5 -> conv5
I0403 13:16:46.249464 10648 net.cpp:141] Setting up conv5
I0403 13:16:46.249519 10648 net.cpp:148] Top shape: 100 256 13 13 (4326400)
I0403 13:16:46.249537 10648 net.cpp:156] Memory required for data: 800703600
I0403 13:16:46.249570 10648 layer_factory.hpp:77] Creating layer relu5
I0403 13:16:46.249590 10648 net.cpp:91] Creating Layer relu5
I0403 13:16:46.249606 10648 net.cpp:425] relu5 <- conv5
I0403 13:16:46.249627 10648 net.cpp:386] relu5 -> conv5 (in-place)
I0403 13:16:46.249914 10648 net.cpp:141] Setting up relu5
I0403 13:16:46.249941 10648 net.cpp:148] Top shape: 100 256 13 13 (4326400)
I0403 13:16:46.249956 10648 net.cpp:156] Memory required for data: 818009200
I0403 13:16:46.249971 10648 layer_factory.hpp:77] Creating layer pool5
I0403 13:16:46.249994 10648 net.cpp:91] Creating Layer pool5
I0403 13:16:46.250011 10648 net.cpp:425] pool5 <- conv5
I0403 13:16:46.250030 10648 net.cpp:399] pool5 -> pool5
I0403 13:16:46.250093 10648 net.cpp:141] Setting up pool5
I0403 13:16:46.250118 10648 net.cpp:148] Top shape: 100 256 6 6 (921600)
I0403 13:16:46.250131 10648 net.cpp:156] Memory required for data: 821695600
I0403 13:16:46.250146 10648 layer_factory.hpp:77] Creating layer fc6
I0403 13:16:46.250175 10648 net.cpp:91] Creating Layer fc6
I0403 13:16:46.250193 10648 net.cpp:425] fc6 <- pool5
I0403 13:16:46.250211 10648 net.cpp:399] fc6 -> fc6
I0403 13:16:47.812185 10648 net.cpp:141] Setting up fc6
I0403 13:16:47.812263 10648 net.cpp:148] Top shape: 100 4096 (409600)
I0403 13:16:47.812281 10648 net.cpp:156] Memory required for data: 823334000
I0403 13:16:47.812304 10648 layer_factory.hpp:77] Creating layer relu6
I0403 13:16:47.812325 10648 net.cpp:91] Creating Layer relu6
I0403 13:16:47.812341 10648 net.cpp:425] relu6 <- fc6
I0403 13:16:47.812362 10648 net.cpp:386] relu6 -> fc6 (in-place)
I0403 13:16:47.812595 10648 net.cpp:141] Setting up relu6
I0403 13:16:47.812620 10648 net.cpp:148] Top shape: 100 4096 (409600)
I0403 13:16:47.812635 10648 net.cpp:156] Memory required for data: 824972400
I0403 13:16:47.812662 10648 layer_factory.hpp:77] Creating layer drop6
I0403 13:16:47.812680 10648 net.cpp:91] Creating Layer drop6
I0403 13:16:47.812695 10648 net.cpp:425] drop6 <- fc6
I0403 13:16:47.812714 10648 net.cpp:386] drop6 -> fc6 (in-place)
I0403 13:16:47.812767 10648 net.cpp:141] Setting up drop6
I0403 13:16:47.812793 10648 net.cpp:148] Top shape: 100 4096 (409600)
I0403 13:16:47.812808 10648 net.cpp:156] Memory required for data: 826610800
I0403 13:16:47.812824 10648 layer_factory.hpp:77] Creating layer fc7
I0403 13:16:47.812844 10648 net.cpp:91] Creating Layer fc7
I0403 13:16:47.812858 10648 net.cpp:425] fc7 <- fc6
I0403 13:16:47.812880 10648 net.cpp:399] fc7 -> fc7
I0403 13:16:48.497542 10648 net.cpp:141] Setting up fc7
I0403 13:16:48.497620 10648 net.cpp:148] Top shape: 100 4096 (409600)
I0403 13:16:48.497637 10648 net.cpp:156] Memory required for data: 828249200
I0403 13:16:48.497658 10648 layer_factory.hpp:77] Creating layer relu7
I0403 13:16:48.497678 10648 net.cpp:91] Creating Layer relu7
I0403 13:16:48.497731 10648 net.cpp:425] relu7 <- fc7
I0403 13:16:48.497750 10648 net.cpp:386] relu7 -> fc7 (in-place)
I0403 13:16:48.498177 10648 net.cpp:141] Setting up relu7
I0403 13:16:48.498203 10648 net.cpp:148] Top shape: 100 4096 (409600)
I0403 13:16:48.498257 10648 net.cpp:156] Memory required for data: 829887600
I0403 13:16:48.498273 10648 layer_factory.hpp:77] Creating layer drop7
I0403 13:16:48.498291 10648 net.cpp:91] Creating Layer drop7
I0403 13:16:48.498306 10648 net.cpp:425] drop7 <- fc7
I0403 13:16:48.498325 10648 net.cpp:386] drop7 -> fc7 (in-place)
I0403 13:16:48.498369 10648 net.cpp:141] Setting up drop7
I0403 13:16:48.498394 10648 net.cpp:148] Top shape: 100 4096 (409600)
I0403 13:16:48.498409 10648 net.cpp:156] Memory required for data: 831526000
I0403 13:16:48.498422 10648 layer_factory.hpp:77] Creating layer fc8_plantvillage
I0403 13:16:48.498441 10648 net.cpp:91] Creating Layer fc8_plantvillage
I0403 13:16:48.498456 10648 net.cpp:425] fc8_plantvillage <- fc7
I0403 13:16:48.498476 10648 net.cpp:399] fc8_plantvillage -> fc8_plantvillage
I0403 13:16:48.505199 10648 net.cpp:141] Setting up fc8_plantvillage
I0403 13:16:48.505226 10648 net.cpp:148] Top shape: 100 38 (3800)
I0403 13:16:48.505241 10648 net.cpp:156] Memory required for data: 831541200
I0403 13:16:48.505259 10648 layer_factory.hpp:77] Creating layer fc8_plantvillage_fc8_plantvillage_0_split
I0403 13:16:48.505277 10648 net.cpp:91] Creating Layer fc8_plantvillage_fc8_plantvillage_0_split
I0403 13:16:48.505291 10648 net.cpp:425] fc8_plantvillage_fc8_plantvillage_0_split <- fc8_plantvillage
I0403 13:16:48.505312 10648 net.cpp:399] fc8_plantvillage_fc8_plantvillage_0_split -> fc8_plantvillage_fc8_plantvillage_0_split_0
I0403 13:16:48.505333 10648 net.cpp:399] fc8_plantvillage_fc8_plantvillage_0_split -> fc8_plantvillage_fc8_plantvillage_0_split_1
I0403 13:16:48.505353 10648 net.cpp:399] fc8_plantvillage_fc8_plantvillage_0_split -> fc8_plantvillage_fc8_plantvillage_0_split_2
I0403 13:16:48.505431 10648 net.cpp:141] Setting up fc8_plantvillage_fc8_plantvillage_0_split
I0403 13:16:48.505455 10648 net.cpp:148] Top shape: 100 38 (3800)
I0403 13:16:48.505470 10648 net.cpp:148] Top shape: 100 38 (3800)
I0403 13:16:48.505484 10648 net.cpp:148] Top shape: 100 38 (3800)
I0403 13:16:48.505497 10648 net.cpp:156] Memory required for data: 831586800
I0403 13:16:48.505517 10648 layer_factory.hpp:77] Creating layer prob
I0403 13:16:48.505537 10648 net.cpp:91] Creating Layer prob
I0403 13:16:48.505553 10648 net.cpp:425] prob <- fc8_plantvillage_fc8_plantvillage_0_split_0
I0403 13:16:48.505573 10648 net.cpp:399] prob -> prob
I0403 13:16:48.505800 10648 net.cpp:141] Setting up prob
I0403 13:16:48.505825 10648 net.cpp:148] Top shape: 100 38 (3800)
I0403 13:16:48.505838 10648 net.cpp:156] Memory required for data: 831602000
I0403 13:16:48.505852 10648 layer_factory.hpp:77] Creating layer hdf5out
I0403 13:16:48.505870 10648 net.cpp:91] Creating Layer hdf5out
I0403 13:16:48.505885 10648 net.cpp:425] hdf5out <- prob
I0403 13:16:48.505903 10648 net.cpp:425] hdf5out <- label_data_1_split_0
I0403 13:16:48.508659 10648 net.cpp:141] Setting up hdf5out
…
