…
I0403 13:15:45.240164 10614 net.cpp:313] The NetState phase (1) differed from the phase (0) specified by a rule in layer data
I0403 13:15:45.240461 10614 net.cpp:49] Initializing net from parameters: 
state {
  phase: TEST
}
layer {
  name: "data"
  type: "Data"
  top: "data"
  top: "label"
  include {
    phase: TEST
  }
  transform_param {
    crop_size: 227
    mean_file: "/home/mohanty/data/final_dataset/lmdb/grayscale-50-50/mean.binaryproto"
  }
  data_param {
    source: "/home/mohanty/data/final_dataset/lmdb/grayscale-50-50/test_db"
    batch_size: 100
    backend: LMDB
  }
}
layer {
  name: "conv1"
  type: "Convolution"
  bottom: "data"
  top: "conv1"
  param {
    lr_mult: 1
    decay_mult: 1
  }
  param {
    lr_mult: 2
    decay_mult: 0
  }
  convolution_param {
    num_output: 96
    kernel_size: 11
    stride: 4
    weight_filler {
      type: "gaussian"
      std: 0.01
    }
    bias_filler {
      type: "constant"
      value: 0
    }
  }
}
layer {
  name: "relu1"
  type: "ReLU"
  bottom: "conv1"
  top: "conv1"
}
layer {
  name: "norm1"
  type: "LRN"
  bottom: "conv1"
  top: "norm1"
  lrn_param {
    local_size: 5
    alpha: 0.0001
    beta: 0.75
  }
}
layer {
  name: "pool1"
  type: "Pooling"
  bottom: "norm1"
  top: "pool1"
  pooling_param {
    pool: MAX
    kernel_size: 3
    stride: 2
  }
}
layer {
  name: "conv2"
  type: "Convolution"
  bottom: "pool1"
  top: "conv2"
  param {
    lr_mult: 1
    decay_mult: 1
  }
  param {
    lr_mult: 2
    decay_mult: 0
  }
  convolution_param {
    num_output: 256
    pad: 2
    kernel_size: 5
    group: 2
    weight_filler {
      type: "gaussian"
      std: 0.01
    }
    bias_filler {
      type: "constant"
      value: 0.1
    }
  }
}
layer {
  name: "relu2"
  type: "ReLU"
  bottom: "conv2"
  top: "conv2"
}
layer {
  name: "norm2"
  type: "LRN"
  bottom: "conv2"
  top: "norm2"
  lrn_param {
    local_size: 5
    alpha: 0.0001
    beta: 0.75
  }
}
layer {
  name: "pool2"
  type: "Pooling"
  bottom: "norm2"
  top: "pool2"
  pooling_param {
    pool: MAX
    kernel_size: 3
    stride: 2
  }
}
layer {
  name: "conv3"
  type: "Convolution"
  bottom: "pool2"
  top: "conv3"
  param {
    lr_mult: 1
    decay_mult: 1
  }
  param {
    lr_mult: 2
    decay_mult: 0
  }
  convolution_param {
    num_output: 384
    pad: 1
    kernel_size: 3
    weight_filler {
      type: "gaussian"
      std: 0.01
    }
    bias_filler {
      type: "constant"
      value: 0
    }
  }
}
layer {
  name: "relu3"
  type: "ReLU"
  bottom: "conv3"
  top: "conv3"
}
layer {
  name: "conv4"
  type: "Convolution"
  bottom: "conv3"
  top: "conv4"
  param {
    lr_mult: 1
    decay_mult: 1
  }
  param {
    lr_mult: 2
    decay_mult: 0
  }
  convolution_param {
    num_output: 384
    pad: 1
    kernel_size: 3
    group: 2
    weight_filler {
      type: "gaussian"
      std: 0.01
    }
    bias_filler {
      type: "constant"
      value: 0.1
    }
  }
}
layer {
  name: "relu4"
  type: "ReLU"
  bottom: "conv4"
  top: "conv4"
}
layer {
  name: "conv5"
  type: "Convolution"
  bottom: "conv4"
  top: "conv5"
  param {
    lr_mult: 1
    decay_mult: 1
  }
  param {
    lr_mult: 2
    decay_mult: 0
  }
  convolution_param {
    num_output: 256
    pad: 1
    kernel_size: 3
    group: 2
    weight_filler {
      type: "gaussian"
      std: 0.01
    }
    bias_filler {
      type: "constant"
      value: 0.1
    }
  }
}
layer {
  name: "relu5"
  type: "ReLU"
  bottom: "conv5"
  top: "conv5"
}
layer {
  name: "pool5"
  type: "Pooling"
  bottom: "conv5"
  top: "pool5"
  pooling_param {
    pool: MAX
    kernel_size: 3
    stride: 2
  }
}
layer {
  name: "fc6"
  type: "InnerProduct"
  bottom: "pool5"
  top: "fc6"
  param {
    lr_mult: 1
    decay_mult: 1
  }
  param {
    lr_mult: 2
    decay_mult: 0
  }
  inner_product_param {
    num_output: 4096
    weight_filler {
      type: "gaussian"
      std: 0.005
    }
    bias_filler {
      type: "constant"
      value: 0.1
    }
  }
}
layer {
  name: "relu6"
  type: "ReLU"
  bottom: "fc6"
  top: "fc6"
}
layer {
  name: "drop6"
  type: "Dropout"
  bottom: "fc6"
  top: "fc6"
  dropout_param {
    dropout_ratio: 0.5
  }
}
layer {
  name: "fc7"
  type: "InnerProduct"
  bottom: "fc6"
  top: "fc7"
  param {
    lr_mult: 1
    decay_mult: 1
  }
  param {
    lr_mult: 2
    decay_mult: 0
  }
  inner_product_param {
    num_output: 4096
    weight_filler {
      type: "gaussian"
      std: 0.005
    }
    bias_filler {
      type: "constant"
      value: 0.1
    }
  }
}
layer {
  name: "relu7"
  type: "ReLU"
  bottom: "fc7"
  top: "fc7"
}
layer {
  name: "drop7"
  type: "Dropout"
  bottom: "fc7"
  top: "fc7"
  dropout_param {
    dropout_ratio: 0.5
  }
}
layer {
  name: "fc8_plantvillage"
  type: "InnerProduct"
  bottom: "fc7"
  top: "fc8_plantvillage"
  param {
    lr_mult: 1
    decay_mult: 1
  }
  param {
    lr_mult: 2
    decay_mult: 0
  }
  inner_product_param {
    num_output: 38
    weight_filler {
      type: "gaussian"
      std: 0.01
    }
    bias_filler {
      type: "constant"
      value: 0
    }
  }
}
layer {
  name: "prob"
  type: "Softmax"
  bottom: "fc8_plantvillage"
  top: "prob"
  include {
    phase: TEST
  }
}
layer {
  name: "hdf5out"
  type: "HDF5Output"
  bottom: "prob"
  bottom: "label"
  include {
    phase: TEST
  }
  hdf5_output_param {
    file_name: "hdf5_dumps/iter_8010.h5"
  }
}
layer {
  name: "loss"
  type: "SoftmaxWithLoss"
  bottom: "fc8_plantvillage"
  bottom: "label"
  top: "loss"
}
layer {
  name: "accuracy"
  type: "Accuracy"
  bottom: "fc8_plantvillage"
  bottom: "label"
  top: "accuracy"
  include {
    phase: TEST
  }
}
I0403 13:15:45.241111 10614 layer_factory.hpp:77] Creating layer data
I0403 13:15:45.241739 10614 net.cpp:91] Creating Layer data
I0403 13:15:45.241772 10614 net.cpp:399] data -> data
I0403 13:15:45.241822 10614 net.cpp:399] data -> label
I0403 13:15:45.241857 10614 data_transformer.cpp:25] Loading mean file from: /home/mohanty/data/final_dataset/lmdb/grayscale-50-50/mean.binaryproto
I0403 13:15:45.244186 10616 db_lmdb.cpp:38] Opened lmdb /home/mohanty/data/final_dataset/lmdb/grayscale-50-50/test_db
I0403 13:15:45.255903 10614 data_layer.cpp:41] output data size: 100,3,227,227
I0403 13:15:45.478879 10614 net.cpp:141] Setting up data
I0403 13:15:45.478950 10614 net.cpp:148] Top shape: 100 3 227 227 (15458700)
I0403 13:15:45.478974 10614 net.cpp:148] Top shape: 100 (100)
I0403 13:15:45.478991 10614 net.cpp:156] Memory required for data: 61835200
I0403 13:15:45.479017 10614 layer_factory.hpp:77] Creating layer label_data_1_split
I0403 13:15:45.479043 10614 net.cpp:91] Creating Layer label_data_1_split
I0403 13:15:45.479060 10614 net.cpp:425] label_data_1_split <- label
I0403 13:15:45.479089 10614 net.cpp:399] label_data_1_split -> label_data_1_split_0
I0403 13:15:45.479116 10614 net.cpp:399] label_data_1_split -> label_data_1_split_1
I0403 13:15:45.479136 10614 net.cpp:399] label_data_1_split -> label_data_1_split_2
I0403 13:15:45.479205 10614 net.cpp:141] Setting up label_data_1_split
I0403 13:15:45.479229 10614 net.cpp:148] Top shape: 100 (100)
I0403 13:15:45.479245 10614 net.cpp:148] Top shape: 100 (100)
I0403 13:15:45.479261 10614 net.cpp:148] Top shape: 100 (100)
I0403 13:15:45.479277 10614 net.cpp:156] Memory required for data: 61836400
I0403 13:15:45.479291 10614 layer_factory.hpp:77] Creating layer conv1
I0403 13:15:45.479323 10614 net.cpp:91] Creating Layer conv1
I0403 13:15:45.479342 10614 net.cpp:425] conv1 <- data
I0403 13:15:45.479362 10614 net.cpp:399] conv1 -> conv1
I0403 13:15:47.877920 10614 net.cpp:141] Setting up conv1
I0403 13:15:47.878010 10614 net.cpp:148] Top shape: 100 96 55 55 (29040000)
I0403 13:15:47.878031 10614 net.cpp:156] Memory required for data: 177996400
I0403 13:15:47.878067 10614 layer_factory.hpp:77] Creating layer relu1
I0403 13:15:47.878099 10614 net.cpp:91] Creating Layer relu1
I0403 13:15:47.878121 10614 net.cpp:425] relu1 <- conv1
I0403 13:15:47.878144 10614 net.cpp:386] relu1 -> conv1 (in-place)
I0403 13:15:47.884060 10614 net.cpp:141] Setting up relu1
I0403 13:15:47.884151 10614 net.cpp:148] Top shape: 100 96 55 55 (29040000)
I0403 13:15:47.884220 10614 net.cpp:156] Memory required for data: 294156400
I0403 13:15:47.884243 10614 layer_factory.hpp:77] Creating layer norm1
I0403 13:15:47.884286 10614 net.cpp:91] Creating Layer norm1
I0403 13:15:47.884310 10614 net.cpp:425] norm1 <- conv1
I0403 13:15:47.884335 10614 net.cpp:399] norm1 -> norm1
I0403 13:15:47.884800 10614 net.cpp:141] Setting up norm1
I0403 13:15:47.884836 10614 net.cpp:148] Top shape: 100 96 55 55 (29040000)
I0403 13:15:47.884855 10614 net.cpp:156] Memory required for data: 410316400
I0403 13:15:47.884873 10614 layer_factory.hpp:77] Creating layer pool1
I0403 13:15:47.884902 10614 net.cpp:91] Creating Layer pool1
I0403 13:15:47.884923 10614 net.cpp:425] pool1 <- norm1
I0403 13:15:47.884945 10614 net.cpp:399] pool1 -> pool1
I0403 13:15:47.885025 10614 net.cpp:141] Setting up pool1
I0403 13:15:47.885056 10614 net.cpp:148] Top shape: 100 96 27 27 (6998400)
I0403 13:15:47.885073 10614 net.cpp:156] Memory required for data: 438310000
I0403 13:15:47.885090 10614 layer_factory.hpp:77] Creating layer conv2
I0403 13:15:47.885121 10614 net.cpp:91] Creating Layer conv2
I0403 13:15:47.885139 10614 net.cpp:425] conv2 <- pool1
I0403 13:15:47.885161 10614 net.cpp:399] conv2 -> conv2
I0403 13:15:47.920130 10614 net.cpp:141] Setting up conv2
I0403 13:15:47.920229 10614 net.cpp:148] Top shape: 100 256 27 27 (18662400)
I0403 13:15:47.920249 10614 net.cpp:156] Memory required for data: 512959600
I0403 13:15:47.920284 10614 layer_factory.hpp:77] Creating layer relu2
I0403 13:15:47.920312 10614 net.cpp:91] Creating Layer relu2
I0403 13:15:47.920333 10614 net.cpp:425] relu2 <- conv2
I0403 13:15:47.920357 10614 net.cpp:386] relu2 -> conv2 (in-place)
I0403 13:15:47.920791 10614 net.cpp:141] Setting up relu2
I0403 13:15:47.920833 10614 net.cpp:148] Top shape: 100 256 27 27 (18662400)
I0403 13:15:47.920851 10614 net.cpp:156] Memory required for data: 587609200
I0403 13:15:47.920868 10614 layer_factory.hpp:77] Creating layer norm2
I0403 13:15:47.920897 10614 net.cpp:91] Creating Layer norm2
I0403 13:15:47.920915 10614 net.cpp:425] norm2 <- conv2
I0403 13:15:47.920936 10614 net.cpp:399] norm2 -> norm2
I0403 13:15:47.921165 10614 net.cpp:141] Setting up norm2
I0403 13:15:47.921195 10614 net.cpp:148] Top shape: 100 256 27 27 (18662400)
I0403 13:15:47.921213 10614 net.cpp:156] Memory required for data: 662258800
I0403 13:15:47.921231 10614 layer_factory.hpp:77] Creating layer pool2
I0403 13:15:47.921254 10614 net.cpp:91] Creating Layer pool2
I0403 13:15:47.921272 10614 net.cpp:425] pool2 <- norm2
I0403 13:15:47.921294 10614 net.cpp:399] pool2 -> pool2
I0403 13:15:47.921414 10614 net.cpp:141] Setting up pool2
I0403 13:15:47.921445 10614 net.cpp:148] Top shape: 100 256 13 13 (4326400)
I0403 13:15:47.921463 10614 net.cpp:156] Memory required for data: 679564400
I0403 13:15:47.921481 10614 layer_factory.hpp:77] Creating layer conv3
I0403 13:15:47.921509 10614 net.cpp:91] Creating Layer conv3
I0403 13:15:47.921528 10614 net.cpp:425] conv3 <- pool2
I0403 13:15:47.921557 10614 net.cpp:399] conv3 -> conv3
I0403 13:15:47.974731 10614 net.cpp:141] Setting up conv3
I0403 13:15:47.974817 10614 net.cpp:148] Top shape: 100 384 13 13 (6489600)
I0403 13:15:47.974836 10614 net.cpp:156] Memory required for data: 705522800
I0403 13:15:47.974867 10614 layer_factory.hpp:77] Creating layer relu3
I0403 13:15:47.974895 10614 net.cpp:91] Creating Layer relu3
I0403 13:15:47.974915 10614 net.cpp:425] relu3 <- conv3
I0403 13:15:47.974938 10614 net.cpp:386] relu3 -> conv3 (in-place)
I0403 13:15:47.975294 10614 net.cpp:141] Setting up relu3
I0403 13:15:47.975327 10614 net.cpp:148] Top shape: 100 384 13 13 (6489600)
I0403 13:15:47.975347 10614 net.cpp:156] Memory required for data: 731481200
I0403 13:15:47.975364 10614 layer_factory.hpp:77] Creating layer conv4
I0403 13:15:47.975392 10614 net.cpp:91] Creating Layer conv4
I0403 13:15:47.975411 10614 net.cpp:425] conv4 <- conv3
I0403 13:15:47.975433 10614 net.cpp:399] conv4 -> conv4
I0403 13:15:48.011493 10614 net.cpp:141] Setting up conv4
I0403 13:15:48.011584 10614 net.cpp:148] Top shape: 100 384 13 13 (6489600)
I0403 13:15:48.011647 10614 net.cpp:156] Memory required for data: 757439600
I0403 13:15:48.011674 10614 layer_factory.hpp:77] Creating layer relu4
I0403 13:15:48.011700 10614 net.cpp:91] Creating Layer relu4
I0403 13:15:48.011721 10614 net.cpp:425] relu4 <- conv4
I0403 13:15:48.011744 10614 net.cpp:386] relu4 -> conv4 (in-place)
I0403 13:15:48.012073 10614 net.cpp:141] Setting up relu4
I0403 13:15:48.012105 10614 net.cpp:148] Top shape: 100 384 13 13 (6489600)
I0403 13:15:48.012123 10614 net.cpp:156] Memory required for data: 783398000
I0403 13:15:48.012141 10614 layer_factory.hpp:77] Creating layer conv5
I0403 13:15:48.012172 10614 net.cpp:91] Creating Layer conv5
I0403 13:15:48.012193 10614 net.cpp:425] conv5 <- conv4
I0403 13:15:48.012223 10614 net.cpp:399] conv5 -> conv5
I0403 13:15:48.037201 10614 net.cpp:141] Setting up conv5
I0403 13:15:48.037281 10614 net.cpp:148] Top shape: 100 256 13 13 (4326400)
I0403 13:15:48.037302 10614 net.cpp:156] Memory required for data: 800703600
I0403 13:15:48.037333 10614 layer_factory.hpp:77] Creating layer relu5
I0403 13:15:48.037360 10614 net.cpp:91] Creating Layer relu5
I0403 13:15:48.037384 10614 net.cpp:425] relu5 <- conv5
I0403 13:15:48.037407 10614 net.cpp:386] relu5 -> conv5 (in-place)
I0403 13:15:48.037744 10614 net.cpp:141] Setting up relu5
I0403 13:15:48.037775 10614 net.cpp:148] Top shape: 100 256 13 13 (4326400)
I0403 13:15:48.037793 10614 net.cpp:156] Memory required for data: 818009200
I0403 13:15:48.037811 10614 layer_factory.hpp:77] Creating layer pool5
I0403 13:15:48.037840 10614 net.cpp:91] Creating Layer pool5
I0403 13:15:48.037861 10614 net.cpp:425] pool5 <- conv5
I0403 13:15:48.037883 10614 net.cpp:399] pool5 -> pool5
I0403 13:15:48.037956 10614 net.cpp:141] Setting up pool5
I0403 13:15:48.037983 10614 net.cpp:148] Top shape: 100 256 6 6 (921600)
I0403 13:15:48.038000 10614 net.cpp:156] Memory required for data: 821695600
I0403 13:15:48.038018 10614 layer_factory.hpp:77] Creating layer fc6
I0403 13:15:48.038048 10614 net.cpp:91] Creating Layer fc6
I0403 13:15:48.038069 10614 net.cpp:425] fc6 <- pool5
I0403 13:15:48.038094 10614 net.cpp:399] fc6 -> fc6
I0403 13:15:49.655562 10614 net.cpp:141] Setting up fc6
I0403 13:15:49.655654 10614 net.cpp:148] Top shape: 100 4096 (409600)
I0403 13:15:49.655670 10614 net.cpp:156] Memory required for data: 823334000
I0403 13:15:49.655691 10614 layer_factory.hpp:77] Creating layer relu6
I0403 13:15:49.655714 10614 net.cpp:91] Creating Layer relu6
I0403 13:15:49.655730 10614 net.cpp:425] relu6 <- fc6
I0403 13:15:49.655748 10614 net.cpp:386] relu6 -> fc6 (in-place)
I0403 13:15:49.655982 10614 net.cpp:141] Setting up relu6
I0403 13:15:49.656004 10614 net.cpp:148] Top shape: 100 4096 (409600)
I0403 13:15:49.656018 10614 net.cpp:156] Memory required for data: 824972400
I0403 13:15:49.656031 10614 layer_factory.hpp:77] Creating layer drop6
I0403 13:15:49.656049 10614 net.cpp:91] Creating Layer drop6
I0403 13:15:49.656064 10614 net.cpp:425] drop6 <- fc6
I0403 13:15:49.656081 10614 net.cpp:386] drop6 -> fc6 (in-place)
I0403 13:15:49.656131 10614 net.cpp:141] Setting up drop6
I0403 13:15:49.656154 10614 net.cpp:148] Top shape: 100 4096 (409600)
I0403 13:15:49.656169 10614 net.cpp:156] Memory required for data: 826610800
I0403 13:15:49.656183 10614 layer_factory.hpp:77] Creating layer fc7
I0403 13:15:49.656201 10614 net.cpp:91] Creating Layer fc7
I0403 13:15:49.656215 10614 net.cpp:425] fc7 <- fc6
I0403 13:15:49.656234 10614 net.cpp:399] fc7 -> fc7
I0403 13:15:50.323660 10614 net.cpp:141] Setting up fc7
I0403 13:15:50.323745 10614 net.cpp:148] Top shape: 100 4096 (409600)
I0403 13:15:50.323761 10614 net.cpp:156] Memory required for data: 828249200
I0403 13:15:50.323782 10614 layer_factory.hpp:77] Creating layer relu7
I0403 13:15:50.323804 10614 net.cpp:91] Creating Layer relu7
I0403 13:15:50.323822 10614 net.cpp:425] relu7 <- fc7
I0403 13:15:50.323843 10614 net.cpp:386] relu7 -> fc7 (in-place)
I0403 13:15:50.324270 10614 net.cpp:141] Setting up relu7
I0403 13:15:50.324295 10614 net.cpp:148] Top shape: 100 4096 (409600)
I0403 13:15:50.324364 10614 net.cpp:156] Memory required for data: 829887600
I0403 13:15:50.324380 10614 layer_factory.hpp:77] Creating layer drop7
I0403 13:15:50.324398 10614 net.cpp:91] Creating Layer drop7
I0403 13:15:50.324414 10614 net.cpp:425] drop7 <- fc7
I0403 13:15:50.324432 10614 net.cpp:386] drop7 -> fc7 (in-place)
I0403 13:15:50.324473 10614 net.cpp:141] Setting up drop7
I0403 13:15:50.324496 10614 net.cpp:148] Top shape: 100 4096 (409600)
I0403 13:15:50.324512 10614 net.cpp:156] Memory required for data: 831526000
I0403 13:15:50.324525 10614 layer_factory.hpp:77] Creating layer fc8_plantvillage
I0403 13:15:50.324554 10614 net.cpp:91] Creating Layer fc8_plantvillage
I0403 13:15:50.324573 10614 net.cpp:425] fc8_plantvillage <- fc7
I0403 13:15:50.324592 10614 net.cpp:399] fc8_plantvillage -> fc8_plantvillage
I0403 13:15:50.331279 10614 net.cpp:141] Setting up fc8_plantvillage
I0403 13:15:50.331306 10614 net.cpp:148] Top shape: 100 38 (3800)
I0403 13:15:50.331321 10614 net.cpp:156] Memory required for data: 831541200
I0403 13:15:50.331337 10614 layer_factory.hpp:77] Creating layer fc8_plantvillage_fc8_plantvillage_0_split
I0403 13:15:50.331357 10614 net.cpp:91] Creating Layer fc8_plantvillage_fc8_plantvillage_0_split
I0403 13:15:50.331372 10614 net.cpp:425] fc8_plantvillage_fc8_plantvillage_0_split <- fc8_plantvillage
I0403 13:15:50.331388 10614 net.cpp:399] fc8_plantvillage_fc8_plantvillage_0_split -> fc8_plantvillage_fc8_plantvillage_0_split_0
I0403 13:15:50.331406 10614 net.cpp:399] fc8_plantvillage_fc8_plantvillage_0_split -> fc8_plantvillage_fc8_plantvillage_0_split_1
I0403 13:15:50.331426 10614 net.cpp:399] fc8_plantvillage_fc8_plantvillage_0_split -> fc8_plantvillage_fc8_plantvillage_0_split_2
I0403 13:15:50.331501 10614 net.cpp:141] Setting up fc8_plantvillage_fc8_plantvillage_0_split
I0403 13:15:50.331522 10614 net.cpp:148] Top shape: 100 38 (3800)
I0403 13:15:50.331542 10614 net.cpp:148] Top shape: 100 38 (3800)
I0403 13:15:50.331557 10614 net.cpp:148] Top shape: 100 38 (3800)
I0403 13:15:50.331570 10614 net.cpp:156] Memory required for data: 831586800
I0403 13:15:50.331584 10614 layer_factory.hpp:77] Creating layer prob
I0403 13:15:50.331601 10614 net.cpp:91] Creating Layer prob
I0403 13:15:50.331615 10614 net.cpp:425] prob <- fc8_plantvillage_fc8_plantvillage_0_split_0
I0403 13:15:50.331631 10614 net.cpp:399] prob -> prob
I0403 13:15:50.331845 10614 net.cpp:141] Setting up prob
I0403 13:15:50.331877 10614 net.cpp:148] Top shape: 100 38 (3800)
I0403 13:15:50.331892 10614 net.cpp:156] Memory required for data: 831602000
I0403 13:15:50.331905 10614 layer_factory.hpp:77] Creating layer hdf5out
I0403 13:15:50.331923 10614 net.cpp:91] Creating Layer hdf5out
I0403 13:15:50.331938 10614 net.cpp:425] hdf5out <- prob
I0403 13:15:50.331954 10614 net.cpp:425] hdf5out <- label_data_1_split_0
I0403 13:15:50.334487 10614 net.cpp:141] Setting up hdf5out
…
