…
I0403 12:49:55.467645  9729 net.cpp:313] The NetState phase (1) differed from the phase (0) specified by a rule in layer data
I0403 12:49:55.467962  9729 net.cpp:49] Initializing net from parameters: 
state {
  phase: TEST
}
layer {
  name: "data"
  type: "Data"
  top: "data"
  top: "label"
  include {
    phase: TEST
  }
  transform_param {
    crop_size: 227
    mean_file: "/home/mohanty/data/final_dataset/lmdb/grayscale-50-50/mean.binaryproto"
  }
  data_param {
    source: "/home/mohanty/data/final_dataset/lmdb/grayscale-50-50/test_db"
    batch_size: 100
    backend: LMDB
  }
}
layer {
  name: "conv1"
  type: "Convolution"
  bottom: "data"
  top: "conv1"
  param {
    lr_mult: 1
    decay_mult: 1
  }
  param {
    lr_mult: 2
    decay_mult: 0
  }
  convolution_param {
    num_output: 96
    kernel_size: 11
    stride: 4
    weight_filler {
      type: "gaussian"
      std: 0.01
    }
    bias_filler {
      type: "constant"
      value: 0
    }
  }
}
layer {
  name: "relu1"
  type: "ReLU"
  bottom: "conv1"
  top: "conv1"
}
layer {
  name: "norm1"
  type: "LRN"
  bottom: "conv1"
  top: "norm1"
  lrn_param {
    local_size: 5
    alpha: 0.0001
    beta: 0.75
  }
}
layer {
  name: "pool1"
  type: "Pooling"
  bottom: "norm1"
  top: "pool1"
  pooling_param {
    pool: MAX
    kernel_size: 3
    stride: 2
  }
}
layer {
  name: "conv2"
  type: "Convolution"
  bottom: "pool1"
  top: "conv2"
  param {
    lr_mult: 1
    decay_mult: 1
  }
  param {
    lr_mult: 2
    decay_mult: 0
  }
  convolution_param {
    num_output: 256
    pad: 2
    kernel_size: 5
    group: 2
    weight_filler {
      type: "gaussian"
      std: 0.01
    }
    bias_filler {
      type: "constant"
      value: 0.1
    }
  }
}
layer {
  name: "relu2"
  type: "ReLU"
  bottom: "conv2"
  top: "conv2"
}
layer {
  name: "norm2"
  type: "LRN"
  bottom: "conv2"
  top: "norm2"
  lrn_param {
    local_size: 5
    alpha: 0.0001
    beta: 0.75
  }
}
layer {
  name: "pool2"
  type: "Pooling"
  bottom: "norm2"
  top: "pool2"
  pooling_param {
    pool: MAX
    kernel_size: 3
    stride: 2
  }
}
layer {
  name: "conv3"
  type: "Convolution"
  bottom: "pool2"
  top: "conv3"
  param {
    lr_mult: 1
    decay_mult: 1
  }
  param {
    lr_mult: 2
    decay_mult: 0
  }
  convolution_param {
    num_output: 384
    pad: 1
    kernel_size: 3
    weight_filler {
      type: "gaussian"
      std: 0.01
    }
    bias_filler {
      type: "constant"
      value: 0
    }
  }
}
layer {
  name: "relu3"
  type: "ReLU"
  bottom: "conv3"
  top: "conv3"
}
layer {
  name: "conv4"
  type: "Convolution"
  bottom: "conv3"
  top: "conv4"
  param {
    lr_mult: 1
    decay_mult: 1
  }
  param {
    lr_mult: 2
    decay_mult: 0
  }
  convolution_param {
    num_output: 384
    pad: 1
    kernel_size: 3
    group: 2
    weight_filler {
      type: "gaussian"
      std: 0.01
    }
    bias_filler {
      type: "constant"
      value: 0.1
    }
  }
}
layer {
  name: "relu4"
  type: "ReLU"
  bottom: "conv4"
  top: "conv4"
}
layer {
  name: "conv5"
  type: "Convolution"
  bottom: "conv4"
  top: "conv5"
  param {
    lr_mult: 1
    decay_mult: 1
  }
  param {
    lr_mult: 2
    decay_mult: 0
  }
  convolution_param {
    num_output: 256
    pad: 1
    kernel_size: 3
    group: 2
    weight_filler {
      type: "gaussian"
      std: 0.01
    }
    bias_filler {
      type: "constant"
      value: 0.1
    }
  }
}
layer {
  name: "relu5"
  type: "ReLU"
  bottom: "conv5"
  top: "conv5"
}
layer {
  name: "pool5"
  type: "Pooling"
  bottom: "conv5"
  top: "pool5"
  pooling_param {
    pool: MAX
    kernel_size: 3
    stride: 2
  }
}
layer {
  name: "fc6"
  type: "InnerProduct"
  bottom: "pool5"
  top: "fc6"
  param {
    lr_mult: 1
    decay_mult: 1
  }
  param {
    lr_mult: 2
    decay_mult: 0
  }
  inner_product_param {
    num_output: 4096
    weight_filler {
      type: "gaussian"
      std: 0.005
    }
    bias_filler {
      type: "constant"
      value: 0.1
    }
  }
}
layer {
  name: "relu6"
  type: "ReLU"
  bottom: "fc6"
  top: "fc6"
}
layer {
  name: "drop6"
  type: "Dropout"
  bottom: "fc6"
  top: "fc6"
  dropout_param {
    dropout_ratio: 0.5
  }
}
layer {
  name: "fc7"
  type: "InnerProduct"
  bottom: "fc6"
  top: "fc7"
  param {
    lr_mult: 1
    decay_mult: 1
  }
  param {
    lr_mult: 2
    decay_mult: 0
  }
  inner_product_param {
    num_output: 4096
    weight_filler {
      type: "gaussian"
      std: 0.005
    }
    bias_filler {
      type: "constant"
      value: 0.1
    }
  }
}
layer {
  name: "relu7"
  type: "ReLU"
  bottom: "fc7"
  top: "fc7"
}
layer {
  name: "drop7"
  type: "Dropout"
  bottom: "fc7"
  top: "fc7"
  dropout_param {
    dropout_ratio: 0.5
  }
}
layer {
  name: "fc8_plantvillage"
  type: "InnerProduct"
  bottom: "fc7"
  top: "fc8_plantvillage"
  param {
    lr_mult: 1
    decay_mult: 1
  }
  param {
    lr_mult: 2
    decay_mult: 0
  }
  inner_product_param {
    num_output: 38
    weight_filler {
      type: "gaussian"
      std: 0.01
    }
    bias_filler {
      type: "constant"
      value: 0
    }
  }
}
layer {
  name: "prob"
  type: "Softmax"
  bottom: "fc8_plantvillage"
  top: "prob"
  include {
    phase: TEST
  }
}
layer {
  name: "hdf5out"
  type: "HDF5Output"
  bottom: "prob"
  bottom: "label"
  include {
    phase: TEST
  }
  hdf5_output_param {
    file_name: "hdf5_dumps/iter_801.h5"
  }
}
layer {
  name: "loss"
  type: "SoftmaxWithLoss"
  bottom: "fc8_plantvillage"
  bottom: "label"
  top: "loss"
}
layer {
  name: "accuracy"
  type: "Accuracy"
  bottom: "fc8_plantvillage"
  bottom: "label"
  top: "accuracy"
  include {
    phase: TEST
  }
}
I0403 12:49:55.468554  9729 layer_factory.hpp:77] Creating layer data
I0403 12:49:55.469213  9729 net.cpp:91] Creating Layer data
I0403 12:49:55.469254  9729 net.cpp:399] data -> data
I0403 12:49:55.469308  9729 net.cpp:399] data -> label
I0403 12:49:55.469346  9729 data_transformer.cpp:25] Loading mean file from: /home/mohanty/data/final_dataset/lmdb/grayscale-50-50/mean.binaryproto
I0403 12:49:55.470536  9732 db_lmdb.cpp:38] Opened lmdb /home/mohanty/data/final_dataset/lmdb/grayscale-50-50/test_db
I0403 12:49:55.483806  9729 data_layer.cpp:41] output data size: 100,3,227,227
I0403 12:49:55.604368  9729 net.cpp:141] Setting up data
I0403 12:49:55.604462  9729 net.cpp:148] Top shape: 100 3 227 227 (15458700)
I0403 12:49:55.604485  9729 net.cpp:148] Top shape: 100 (100)
I0403 12:49:55.604501  9729 net.cpp:156] Memory required for data: 61835200
I0403 12:49:55.604531  9729 layer_factory.hpp:77] Creating layer label_data_1_split
I0403 12:49:55.604568  9729 net.cpp:91] Creating Layer label_data_1_split
I0403 12:49:55.604588  9729 net.cpp:425] label_data_1_split <- label
I0403 12:49:55.604621  9729 net.cpp:399] label_data_1_split -> label_data_1_split_0
I0403 12:49:55.604648  9729 net.cpp:399] label_data_1_split -> label_data_1_split_1
I0403 12:49:55.604670  9729 net.cpp:399] label_data_1_split -> label_data_1_split_2
I0403 12:49:55.604732  9729 net.cpp:141] Setting up label_data_1_split
I0403 12:49:55.604758  9729 net.cpp:148] Top shape: 100 (100)
I0403 12:49:55.604773  9729 net.cpp:148] Top shape: 100 (100)
I0403 12:49:55.604789  9729 net.cpp:148] Top shape: 100 (100)
I0403 12:49:55.604804  9729 net.cpp:156] Memory required for data: 61836400
I0403 12:49:55.604818  9729 layer_factory.hpp:77] Creating layer conv1
I0403 12:49:55.604849  9729 net.cpp:91] Creating Layer conv1
I0403 12:49:55.604868  9729 net.cpp:425] conv1 <- data
I0403 12:49:55.604888  9729 net.cpp:399] conv1 -> conv1
I0403 12:49:55.747261  9729 net.cpp:141] Setting up conv1
I0403 12:49:55.747340  9729 net.cpp:148] Top shape: 100 96 55 55 (29040000)
I0403 12:49:55.747359  9729 net.cpp:156] Memory required for data: 177996400
I0403 12:49:55.747392  9729 layer_factory.hpp:77] Creating layer relu1
I0403 12:49:55.747421  9729 net.cpp:91] Creating Layer relu1
I0403 12:49:55.747442  9729 net.cpp:425] relu1 <- conv1
I0403 12:49:55.747462  9729 net.cpp:386] relu1 -> conv1 (in-place)
I0403 12:49:55.747750  9729 net.cpp:141] Setting up relu1
I0403 12:49:55.747781  9729 net.cpp:148] Top shape: 100 96 55 55 (29040000)
I0403 12:49:55.747829  9729 net.cpp:156] Memory required for data: 294156400
I0403 12:49:55.747846  9729 layer_factory.hpp:77] Creating layer norm1
I0403 12:49:55.747877  9729 net.cpp:91] Creating Layer norm1
I0403 12:49:55.747896  9729 net.cpp:425] norm1 <- conv1
I0403 12:49:55.747915  9729 net.cpp:399] norm1 -> norm1
I0403 12:49:55.748245  9729 net.cpp:141] Setting up norm1
I0403 12:49:55.748275  9729 net.cpp:148] Top shape: 100 96 55 55 (29040000)
I0403 12:49:55.748292  9729 net.cpp:156] Memory required for data: 410316400
I0403 12:49:55.748307  9729 layer_factory.hpp:77] Creating layer pool1
I0403 12:49:55.748334  9729 net.cpp:91] Creating Layer pool1
I0403 12:49:55.748353  9729 net.cpp:425] pool1 <- norm1
I0403 12:49:55.748370  9729 net.cpp:399] pool1 -> pool1
I0403 12:49:55.748445  9729 net.cpp:141] Setting up pool1
I0403 12:49:55.748469  9729 net.cpp:148] Top shape: 100 96 27 27 (6998400)
I0403 12:49:55.748484  9729 net.cpp:156] Memory required for data: 438310000
I0403 12:49:55.748499  9729 layer_factory.hpp:77] Creating layer conv2
I0403 12:49:55.748525  9729 net.cpp:91] Creating Layer conv2
I0403 12:49:55.748549  9729 net.cpp:425] conv2 <- pool1
I0403 12:49:55.748572  9729 net.cpp:399] conv2 -> conv2
I0403 12:49:55.763995  9729 net.cpp:141] Setting up conv2
I0403 12:49:55.764047  9729 net.cpp:148] Top shape: 100 256 27 27 (18662400)
I0403 12:49:55.764065  9729 net.cpp:156] Memory required for data: 512959600
I0403 12:49:55.764089  9729 layer_factory.hpp:77] Creating layer relu2
I0403 12:49:55.764114  9729 net.cpp:91] Creating Layer relu2
I0403 12:49:55.764134  9729 net.cpp:425] relu2 <- conv2
I0403 12:49:55.764153  9729 net.cpp:386] relu2 -> conv2 (in-place)
I0403 12:49:55.764438  9729 net.cpp:141] Setting up relu2
I0403 12:49:55.764466  9729 net.cpp:148] Top shape: 100 256 27 27 (18662400)
I0403 12:49:55.764482  9729 net.cpp:156] Memory required for data: 587609200
I0403 12:49:55.764497  9729 layer_factory.hpp:77] Creating layer norm2
I0403 12:49:55.764520  9729 net.cpp:91] Creating Layer norm2
I0403 12:49:55.764549  9729 net.cpp:425] norm2 <- conv2
I0403 12:49:55.764572  9729 net.cpp:399] norm2 -> norm2
I0403 12:49:55.764785  9729 net.cpp:141] Setting up norm2
I0403 12:49:55.764811  9729 net.cpp:148] Top shape: 100 256 27 27 (18662400)
I0403 12:49:55.764827  9729 net.cpp:156] Memory required for data: 662258800
I0403 12:49:55.764842  9729 layer_factory.hpp:77] Creating layer pool2
I0403 12:49:55.764860  9729 net.cpp:91] Creating Layer pool2
I0403 12:49:55.764878  9729 net.cpp:425] pool2 <- norm2
I0403 12:49:55.764900  9729 net.cpp:399] pool2 -> pool2
I0403 12:49:55.764956  9729 net.cpp:141] Setting up pool2
I0403 12:49:55.764981  9729 net.cpp:148] Top shape: 100 256 13 13 (4326400)
I0403 12:49:55.764996  9729 net.cpp:156] Memory required for data: 679564400
I0403 12:49:55.765010  9729 layer_factory.hpp:77] Creating layer conv3
I0403 12:49:55.765036  9729 net.cpp:91] Creating Layer conv3
I0403 12:49:55.765053  9729 net.cpp:425] conv3 <- pool2
I0403 12:49:55.765074  9729 net.cpp:399] conv3 -> conv3
I0403 12:49:55.810291  9729 net.cpp:141] Setting up conv3
I0403 12:49:55.810367  9729 net.cpp:148] Top shape: 100 384 13 13 (6489600)
I0403 12:49:55.810385  9729 net.cpp:156] Memory required for data: 705522800
I0403 12:49:55.810413  9729 layer_factory.hpp:77] Creating layer relu3
I0403 12:49:55.810441  9729 net.cpp:91] Creating Layer relu3
I0403 12:49:55.810459  9729 net.cpp:425] relu3 <- conv3
I0403 12:49:55.810478  9729 net.cpp:386] relu3 -> conv3 (in-place)
I0403 12:49:55.810780  9729 net.cpp:141] Setting up relu3
I0403 12:49:55.810811  9729 net.cpp:148] Top shape: 100 384 13 13 (6489600)
I0403 12:49:55.810828  9729 net.cpp:156] Memory required for data: 731481200
I0403 12:49:55.810843  9729 layer_factory.hpp:77] Creating layer conv4
I0403 12:49:55.810870  9729 net.cpp:91] Creating Layer conv4
I0403 12:49:55.810889  9729 net.cpp:425] conv4 <- conv3
I0403 12:49:55.810917  9729 net.cpp:399] conv4 -> conv4
I0403 12:49:55.841336  9729 net.cpp:141] Setting up conv4
I0403 12:49:55.841403  9729 net.cpp:148] Top shape: 100 384 13 13 (6489600)
I0403 12:49:55.841454  9729 net.cpp:156] Memory required for data: 757439600
I0403 12:49:55.841475  9729 layer_factory.hpp:77] Creating layer relu4
I0403 12:49:55.841497  9729 net.cpp:91] Creating Layer relu4
I0403 12:49:55.841518  9729 net.cpp:425] relu4 <- conv4
I0403 12:49:55.841541  9729 net.cpp:386] relu4 -> conv4 (in-place)
I0403 12:49:55.841830  9729 net.cpp:141] Setting up relu4
I0403 12:49:55.841861  9729 net.cpp:148] Top shape: 100 384 13 13 (6489600)
I0403 12:49:55.841881  9729 net.cpp:156] Memory required for data: 783398000
I0403 12:49:55.841895  9729 layer_factory.hpp:77] Creating layer conv5
I0403 12:49:55.841922  9729 net.cpp:91] Creating Layer conv5
I0403 12:49:55.841939  9729 net.cpp:425] conv5 <- conv4
I0403 12:49:55.841960  9729 net.cpp:399] conv5 -> conv5
I0403 12:49:55.862895  9729 net.cpp:141] Setting up conv5
I0403 12:49:55.862951  9729 net.cpp:148] Top shape: 100 256 13 13 (4326400)
I0403 12:49:55.862967  9729 net.cpp:156] Memory required for data: 800703600
I0403 12:49:55.862992  9729 layer_factory.hpp:77] Creating layer relu5
I0403 12:49:55.863015  9729 net.cpp:91] Creating Layer relu5
I0403 12:49:55.863034  9729 net.cpp:425] relu5 <- conv5
I0403 12:49:55.863051  9729 net.cpp:386] relu5 -> conv5 (in-place)
I0403 12:49:55.863343  9729 net.cpp:141] Setting up relu5
I0403 12:49:55.863371  9729 net.cpp:148] Top shape: 100 256 13 13 (4326400)
I0403 12:49:55.863386  9729 net.cpp:156] Memory required for data: 818009200
I0403 12:49:55.863402  9729 layer_factory.hpp:77] Creating layer pool5
I0403 12:49:55.863426  9729 net.cpp:91] Creating Layer pool5
I0403 12:49:55.863445  9729 net.cpp:425] pool5 <- conv5
I0403 12:49:55.863463  9729 net.cpp:399] pool5 -> pool5
I0403 12:49:55.863528  9729 net.cpp:141] Setting up pool5
I0403 12:49:55.863556  9729 net.cpp:148] Top shape: 100 256 6 6 (921600)
I0403 12:49:55.863572  9729 net.cpp:156] Memory required for data: 821695600
I0403 12:49:55.863587  9729 layer_factory.hpp:77] Creating layer fc6
I0403 12:49:55.863628  9729 net.cpp:91] Creating Layer fc6
I0403 12:49:55.863646  9729 net.cpp:425] fc6 <- pool5
I0403 12:49:55.863664  9729 net.cpp:399] fc6 -> fc6
I0403 12:49:57.441601  9729 net.cpp:141] Setting up fc6
I0403 12:49:57.441640  9729 net.cpp:148] Top shape: 100 4096 (409600)
I0403 12:49:57.441656  9729 net.cpp:156] Memory required for data: 823334000
I0403 12:49:57.441678  9729 layer_factory.hpp:77] Creating layer relu6
I0403 12:49:57.441699  9729 net.cpp:91] Creating Layer relu6
I0403 12:49:57.441715  9729 net.cpp:425] relu6 <- fc6
I0403 12:49:57.441736  9729 net.cpp:386] relu6 -> fc6 (in-place)
I0403 12:49:57.441961  9729 net.cpp:141] Setting up relu6
I0403 12:49:57.441985  9729 net.cpp:148] Top shape: 100 4096 (409600)
I0403 12:49:57.442000  9729 net.cpp:156] Memory required for data: 824972400
I0403 12:49:57.442015  9729 layer_factory.hpp:77] Creating layer drop6
I0403 12:49:57.442034  9729 net.cpp:91] Creating Layer drop6
I0403 12:49:57.442049  9729 net.cpp:425] drop6 <- fc6
I0403 12:49:57.442067  9729 net.cpp:386] drop6 -> fc6 (in-place)
I0403 12:49:57.442121  9729 net.cpp:141] Setting up drop6
I0403 12:49:57.442144  9729 net.cpp:148] Top shape: 100 4096 (409600)
I0403 12:49:57.442158  9729 net.cpp:156] Memory required for data: 826610800
I0403 12:49:57.442173  9729 layer_factory.hpp:77] Creating layer fc7
I0403 12:49:57.442193  9729 net.cpp:91] Creating Layer fc7
I0403 12:49:57.442208  9729 net.cpp:425] fc7 <- fc6
I0403 12:49:57.442241  9729 net.cpp:399] fc7 -> fc7
I0403 12:49:58.126430  9729 net.cpp:141] Setting up fc7
I0403 12:49:58.126499  9729 net.cpp:148] Top shape: 100 4096 (409600)
I0403 12:49:58.126515  9729 net.cpp:156] Memory required for data: 828249200
I0403 12:49:58.126540  9729 layer_factory.hpp:77] Creating layer relu7
I0403 12:49:58.126566  9729 net.cpp:91] Creating Layer relu7
I0403 12:49:58.126585  9729 net.cpp:425] relu7 <- fc7
I0403 12:49:58.126606  9729 net.cpp:386] relu7 -> fc7 (in-place)
I0403 12:49:58.127007  9729 net.cpp:141] Setting up relu7
I0403 12:49:58.127033  9729 net.cpp:148] Top shape: 100 4096 (409600)
I0403 12:49:58.127079  9729 net.cpp:156] Memory required for data: 829887600
I0403 12:49:58.127095  9729 layer_factory.hpp:77] Creating layer drop7
I0403 12:49:58.127116  9729 net.cpp:91] Creating Layer drop7
I0403 12:49:58.127132  9729 net.cpp:425] drop7 <- fc7
I0403 12:49:58.127148  9729 net.cpp:386] drop7 -> fc7 (in-place)
I0403 12:49:58.127189  9729 net.cpp:141] Setting up drop7
I0403 12:49:58.127214  9729 net.cpp:148] Top shape: 100 4096 (409600)
I0403 12:49:58.127229  9729 net.cpp:156] Memory required for data: 831526000
I0403 12:49:58.127243  9729 layer_factory.hpp:77] Creating layer fc8_plantvillage
I0403 12:49:58.127262  9729 net.cpp:91] Creating Layer fc8_plantvillage
I0403 12:49:58.127276  9729 net.cpp:425] fc8_plantvillage <- fc7
I0403 12:49:58.127296  9729 net.cpp:399] fc8_plantvillage -> fc8_plantvillage
I0403 12:49:58.134043  9729 net.cpp:141] Setting up fc8_plantvillage
I0403 12:49:58.134073  9729 net.cpp:148] Top shape: 100 38 (3800)
I0403 12:49:58.134088  9729 net.cpp:156] Memory required for data: 831541200
I0403 12:49:58.134106  9729 layer_factory.hpp:77] Creating layer fc8_plantvillage_fc8_plantvillage_0_split
I0403 12:49:58.134127  9729 net.cpp:91] Creating Layer fc8_plantvillage_fc8_plantvillage_0_split
I0403 12:49:58.134145  9729 net.cpp:425] fc8_plantvillage_fc8_plantvillage_0_split <- fc8_plantvillage
I0403 12:49:58.134161  9729 net.cpp:399] fc8_plantvillage_fc8_plantvillage_0_split -> fc8_plantvillage_fc8_plantvillage_0_split_0
I0403 12:49:58.134181  9729 net.cpp:399] fc8_plantvillage_fc8_plantvillage_0_split -> fc8_plantvillage_fc8_plantvillage_0_split_1
I0403 12:49:58.134202  9729 net.cpp:399] fc8_plantvillage_fc8_plantvillage_0_split -> fc8_plantvillage_fc8_plantvillage_0_split_2
I0403 12:49:58.134279  9729 net.cpp:141] Setting up fc8_plantvillage_fc8_plantvillage_0_split
I0403 12:49:58.134302  9729 net.cpp:148] Top shape: 100 38 (3800)
I0403 12:49:58.134318  9729 net.cpp:148] Top shape: 100 38 (3800)
I0403 12:49:58.134333  9729 net.cpp:148] Top shape: 100 38 (3800)
I0403 12:49:58.134347  9729 net.cpp:156] Memory required for data: 831586800
I0403 12:49:58.134361  9729 layer_factory.hpp:77] Creating layer prob
I0403 12:49:58.134379  9729 net.cpp:91] Creating Layer prob
I0403 12:49:58.134394  9729 net.cpp:425] prob <- fc8_plantvillage_fc8_plantvillage_0_split_0
I0403 12:49:58.134414  9729 net.cpp:399] prob -> prob
I0403 12:49:58.134649  9729 net.cpp:141] Setting up prob
I0403 12:49:58.134675  9729 net.cpp:148] Top shape: 100 38 (3800)
I0403 12:49:58.134690  9729 net.cpp:156] Memory required for data: 831602000
I0403 12:49:58.134704  9729 layer_factory.hpp:77] Creating layer hdf5out
I0403 12:49:58.134726  9729 net.cpp:91] Creating Layer hdf5out
I0403 12:49:58.134742  9729 net.cpp:425] hdf5out <- prob
I0403 12:49:58.134757  9729 net.cpp:425] hdf5out <- label_data_1_split_0
I0403 12:49:58.137161  9729 net.cpp:141] Setting up hdf5out
…
