…
I0403 13:05:11.868257 10171 net.cpp:313] The NetState phase (1) differed from the phase (0) specified by a rule in layer data
I0403 13:05:11.868580 10171 net.cpp:49] Initializing net from parameters: 
state {
  phase: TEST
}
layer {
  name: "data"
  type: "Data"
  top: "data"
  top: "label"
  include {
    phase: TEST
  }
  transform_param {
    crop_size: 227
    mean_file: "/home/mohanty/data/final_dataset/lmdb/grayscale-50-50/mean.binaryproto"
  }
  data_param {
    source: "/home/mohanty/data/final_dataset/lmdb/grayscale-50-50/test_db"
    batch_size: 100
    backend: LMDB
  }
}
layer {
  name: "conv1"
  type: "Convolution"
  bottom: "data"
  top: "conv1"
  param {
    lr_mult: 1
    decay_mult: 1
  }
  param {
    lr_mult: 2
    decay_mult: 0
  }
  convolution_param {
    num_output: 96
    kernel_size: 11
    stride: 4
    weight_filler {
      type: "gaussian"
      std: 0.01
    }
    bias_filler {
      type: "constant"
      value: 0
    }
  }
}
layer {
  name: "relu1"
  type: "ReLU"
  bottom: "conv1"
  top: "conv1"
}
layer {
  name: "norm1"
  type: "LRN"
  bottom: "conv1"
  top: "norm1"
  lrn_param {
    local_size: 5
    alpha: 0.0001
    beta: 0.75
  }
}
layer {
  name: "pool1"
  type: "Pooling"
  bottom: "norm1"
  top: "pool1"
  pooling_param {
    pool: MAX
    kernel_size: 3
    stride: 2
  }
}
layer {
  name: "conv2"
  type: "Convolution"
  bottom: "pool1"
  top: "conv2"
  param {
    lr_mult: 1
    decay_mult: 1
  }
  param {
    lr_mult: 2
    decay_mult: 0
  }
  convolution_param {
    num_output: 256
    pad: 2
    kernel_size: 5
    group: 2
    weight_filler {
      type: "gaussian"
      std: 0.01
    }
    bias_filler {
      type: "constant"
      value: 0.1
    }
  }
}
layer {
  name: "relu2"
  type: "ReLU"
  bottom: "conv2"
  top: "conv2"
}
layer {
  name: "norm2"
  type: "LRN"
  bottom: "conv2"
  top: "norm2"
  lrn_param {
    local_size: 5
    alpha: 0.0001
    beta: 0.75
  }
}
layer {
  name: "pool2"
  type: "Pooling"
  bottom: "norm2"
  top: "pool2"
  pooling_param {
    pool: MAX
    kernel_size: 3
    stride: 2
  }
}
layer {
  name: "conv3"
  type: "Convolution"
  bottom: "pool2"
  top: "conv3"
  param {
    lr_mult: 1
    decay_mult: 1
  }
  param {
    lr_mult: 2
    decay_mult: 0
  }
  convolution_param {
    num_output: 384
    pad: 1
    kernel_size: 3
    weight_filler {
      type: "gaussian"
      std: 0.01
    }
    bias_filler {
      type: "constant"
      value: 0
    }
  }
}
layer {
  name: "relu3"
  type: "ReLU"
  bottom: "conv3"
  top: "conv3"
}
layer {
  name: "conv4"
  type: "Convolution"
  bottom: "conv3"
  top: "conv4"
  param {
    lr_mult: 1
    decay_mult: 1
  }
  param {
    lr_mult: 2
    decay_mult: 0
  }
  convolution_param {
    num_output: 384
    pad: 1
    kernel_size: 3
    group: 2
    weight_filler {
      type: "gaussian"
      std: 0.01
    }
    bias_filler {
      type: "constant"
      value: 0.1
    }
  }
}
layer {
  name: "relu4"
  type: "ReLU"
  bottom: "conv4"
  top: "conv4"
}
layer {
  name: "conv5"
  type: "Convolution"
  bottom: "conv4"
  top: "conv5"
  param {
    lr_mult: 1
    decay_mult: 1
  }
  param {
    lr_mult: 2
    decay_mult: 0
  }
  convolution_param {
    num_output: 256
    pad: 1
    kernel_size: 3
    group: 2
    weight_filler {
      type: "gaussian"
      std: 0.01
    }
    bias_filler {
      type: "constant"
      value: 0.1
    }
  }
}
layer {
  name: "relu5"
  type: "ReLU"
  bottom: "conv5"
  top: "conv5"
}
layer {
  name: "pool5"
  type: "Pooling"
  bottom: "conv5"
  top: "pool5"
  pooling_param {
    pool: MAX
    kernel_size: 3
    stride: 2
  }
}
layer {
  name: "fc6"
  type: "InnerProduct"
  bottom: "pool5"
  top: "fc6"
  param {
    lr_mult: 1
    decay_mult: 1
  }
  param {
    lr_mult: 2
    decay_mult: 0
  }
  inner_product_param {
    num_output: 4096
    weight_filler {
      type: "gaussian"
      std: 0.005
    }
    bias_filler {
      type: "constant"
      value: 0.1
    }
  }
}
layer {
  name: "relu6"
  type: "ReLU"
  bottom: "fc6"
  top: "fc6"
}
layer {
  name: "drop6"
  type: "Dropout"
  bottom: "fc6"
  top: "fc6"
  dropout_param {
    dropout_ratio: 0.5
  }
}
layer {
  name: "fc7"
  type: "InnerProduct"
  bottom: "fc6"
  top: "fc7"
  param {
    lr_mult: 1
    decay_mult: 1
  }
  param {
    lr_mult: 2
    decay_mult: 0
  }
  inner_product_param {
    num_output: 4096
    weight_filler {
      type: "gaussian"
      std: 0.005
    }
    bias_filler {
      type: "constant"
      value: 0.1
    }
  }
}
layer {
  name: "relu7"
  type: "ReLU"
  bottom: "fc7"
  top: "fc7"
}
layer {
  name: "drop7"
  type: "Dropout"
  bottom: "fc7"
  top: "fc7"
  dropout_param {
    dropout_ratio: 0.5
  }
}
layer {
  name: "fc8_plantvillage"
  type: "InnerProduct"
  bottom: "fc7"
  top: "fc8_plantvillage"
  param {
    lr_mult: 1
    decay_mult: 1
  }
  param {
    lr_mult: 2
    decay_mult: 0
  }
  inner_product_param {
    num_output: 38
    weight_filler {
      type: "gaussian"
      std: 0.01
    }
    bias_filler {
      type: "constant"
      value: 0
    }
  }
}
layer {
  name: "prob"
  type: "Softmax"
  bottom: "fc8_plantvillage"
  top: "prob"
  include {
    phase: TEST
  }
}
layer {
  name: "hdf5out"
  type: "HDF5Output"
  bottom: "prob"
  bottom: "label"
  include {
    phase: TEST
  }
  hdf5_output_param {
    file_name: "hdf5_dumps/iter_5073.h5"
  }
}
layer {
  name: "loss"
  type: "SoftmaxWithLoss"
  bottom: "fc8_plantvillage"
  bottom: "label"
  top: "loss"
}
layer {
  name: "accuracy"
  type: "Accuracy"
  bottom: "fc8_plantvillage"
  bottom: "label"
  top: "accuracy"
  include {
    phase: TEST
  }
}
I0403 13:05:11.869192 10171 layer_factory.hpp:77] Creating layer data
I0403 13:05:11.869864 10171 net.cpp:91] Creating Layer data
I0403 13:05:11.869905 10171 net.cpp:399] data -> data
I0403 13:05:11.869957 10171 net.cpp:399] data -> label
I0403 13:05:11.869993 10171 data_transformer.cpp:25] Loading mean file from: /home/mohanty/data/final_dataset/lmdb/grayscale-50-50/mean.binaryproto
I0403 13:05:11.871160 10174 db_lmdb.cpp:38] Opened lmdb /home/mohanty/data/final_dataset/lmdb/grayscale-50-50/test_db
I0403 13:05:11.884799 10171 data_layer.cpp:41] output data size: 100,3,227,227
I0403 13:05:12.006348 10171 net.cpp:141] Setting up data
I0403 13:05:12.006443 10171 net.cpp:148] Top shape: 100 3 227 227 (15458700)
I0403 13:05:12.006467 10171 net.cpp:148] Top shape: 100 (100)
I0403 13:05:12.006484 10171 net.cpp:156] Memory required for data: 61835200
I0403 13:05:12.006513 10171 layer_factory.hpp:77] Creating layer label_data_1_split
I0403 13:05:12.006542 10171 net.cpp:91] Creating Layer label_data_1_split
I0403 13:05:12.006563 10171 net.cpp:425] label_data_1_split <- label
I0403 13:05:12.006598 10171 net.cpp:399] label_data_1_split -> label_data_1_split_0
I0403 13:05:12.006626 10171 net.cpp:399] label_data_1_split -> label_data_1_split_1
I0403 13:05:12.006649 10171 net.cpp:399] label_data_1_split -> label_data_1_split_2
I0403 13:05:12.006714 10171 net.cpp:141] Setting up label_data_1_split
I0403 13:05:12.006741 10171 net.cpp:148] Top shape: 100 (100)
I0403 13:05:12.006758 10171 net.cpp:148] Top shape: 100 (100)
I0403 13:05:12.006777 10171 net.cpp:148] Top shape: 100 (100)
I0403 13:05:12.006791 10171 net.cpp:156] Memory required for data: 61836400
I0403 13:05:12.006808 10171 layer_factory.hpp:77] Creating layer conv1
I0403 13:05:12.006839 10171 net.cpp:91] Creating Layer conv1
I0403 13:05:12.006860 10171 net.cpp:425] conv1 <- data
I0403 13:05:12.006881 10171 net.cpp:399] conv1 -> conv1
I0403 13:05:12.148728 10171 net.cpp:141] Setting up conv1
I0403 13:05:12.148809 10171 net.cpp:148] Top shape: 100 96 55 55 (29040000)
I0403 13:05:12.148829 10171 net.cpp:156] Memory required for data: 177996400
I0403 13:05:12.148861 10171 layer_factory.hpp:77] Creating layer relu1
I0403 13:05:12.148890 10171 net.cpp:91] Creating Layer relu1
I0403 13:05:12.148907 10171 net.cpp:425] relu1 <- conv1
I0403 13:05:12.148931 10171 net.cpp:386] relu1 -> conv1 (in-place)
I0403 13:05:12.149216 10171 net.cpp:141] Setting up relu1
I0403 13:05:12.149245 10171 net.cpp:148] Top shape: 100 96 55 55 (29040000)
I0403 13:05:12.149323 10171 net.cpp:156] Memory required for data: 294156400
I0403 13:05:12.149348 10171 layer_factory.hpp:77] Creating layer norm1
I0403 13:05:12.149380 10171 net.cpp:91] Creating Layer norm1
I0403 13:05:12.149401 10171 net.cpp:425] norm1 <- conv1
I0403 13:05:12.149420 10171 net.cpp:399] norm1 -> norm1
I0403 13:05:12.149765 10171 net.cpp:141] Setting up norm1
I0403 13:05:12.149792 10171 net.cpp:148] Top shape: 100 96 55 55 (29040000)
I0403 13:05:12.149808 10171 net.cpp:156] Memory required for data: 410316400
I0403 13:05:12.149824 10171 layer_factory.hpp:77] Creating layer pool1
I0403 13:05:12.149849 10171 net.cpp:91] Creating Layer pool1
I0403 13:05:12.149868 10171 net.cpp:425] pool1 <- norm1
I0403 13:05:12.149885 10171 net.cpp:399] pool1 -> pool1
I0403 13:05:12.149957 10171 net.cpp:141] Setting up pool1
I0403 13:05:12.149982 10171 net.cpp:148] Top shape: 100 96 27 27 (6998400)
I0403 13:05:12.149997 10171 net.cpp:156] Memory required for data: 438310000
I0403 13:05:12.150013 10171 layer_factory.hpp:77] Creating layer conv2
I0403 13:05:12.150039 10171 net.cpp:91] Creating Layer conv2
I0403 13:05:12.150056 10171 net.cpp:425] conv2 <- pool1
I0403 13:05:12.150077 10171 net.cpp:399] conv2 -> conv2
I0403 13:05:12.165853 10171 net.cpp:141] Setting up conv2
I0403 13:05:12.165910 10171 net.cpp:148] Top shape: 100 256 27 27 (18662400)
I0403 13:05:12.165928 10171 net.cpp:156] Memory required for data: 512959600
I0403 13:05:12.165953 10171 layer_factory.hpp:77] Creating layer relu2
I0403 13:05:12.165980 10171 net.cpp:91] Creating Layer relu2
I0403 13:05:12.166002 10171 net.cpp:425] relu2 <- conv2
I0403 13:05:12.166023 10171 net.cpp:386] relu2 -> conv2 (in-place)
I0403 13:05:12.166316 10171 net.cpp:141] Setting up relu2
I0403 13:05:12.166343 10171 net.cpp:148] Top shape: 100 256 27 27 (18662400)
I0403 13:05:12.166359 10171 net.cpp:156] Memory required for data: 587609200
I0403 13:05:12.166375 10171 layer_factory.hpp:77] Creating layer norm2
I0403 13:05:12.166399 10171 net.cpp:91] Creating Layer norm2
I0403 13:05:12.166416 10171 net.cpp:425] norm2 <- conv2
I0403 13:05:12.166436 10171 net.cpp:399] norm2 -> norm2
I0403 13:05:12.166651 10171 net.cpp:141] Setting up norm2
I0403 13:05:12.166677 10171 net.cpp:148] Top shape: 100 256 27 27 (18662400)
I0403 13:05:12.166693 10171 net.cpp:156] Memory required for data: 662258800
I0403 13:05:12.166708 10171 layer_factory.hpp:77] Creating layer pool2
I0403 13:05:12.166728 10171 net.cpp:91] Creating Layer pool2
I0403 13:05:12.166745 10171 net.cpp:425] pool2 <- norm2
I0403 13:05:12.166764 10171 net.cpp:399] pool2 -> pool2
I0403 13:05:12.166820 10171 net.cpp:141] Setting up pool2
I0403 13:05:12.166843 10171 net.cpp:148] Top shape: 100 256 13 13 (4326400)
I0403 13:05:12.166859 10171 net.cpp:156] Memory required for data: 679564400
I0403 13:05:12.166874 10171 layer_factory.hpp:77] Creating layer conv3
I0403 13:05:12.166899 10171 net.cpp:91] Creating Layer conv3
I0403 13:05:12.166916 10171 net.cpp:425] conv3 <- pool2
I0403 13:05:12.166937 10171 net.cpp:399] conv3 -> conv3
I0403 13:05:12.207080 10171 net.cpp:141] Setting up conv3
I0403 13:05:12.207156 10171 net.cpp:148] Top shape: 100 384 13 13 (6489600)
I0403 13:05:12.207175 10171 net.cpp:156] Memory required for data: 705522800
I0403 13:05:12.207203 10171 layer_factory.hpp:77] Creating layer relu3
I0403 13:05:12.207227 10171 net.cpp:91] Creating Layer relu3
I0403 13:05:12.207247 10171 net.cpp:425] relu3 <- conv3
I0403 13:05:12.207265 10171 net.cpp:386] relu3 -> conv3 (in-place)
I0403 13:05:12.207563 10171 net.cpp:141] Setting up relu3
I0403 13:05:12.207592 10171 net.cpp:148] Top shape: 100 384 13 13 (6489600)
I0403 13:05:12.207607 10171 net.cpp:156] Memory required for data: 731481200
I0403 13:05:12.207623 10171 layer_factory.hpp:77] Creating layer conv4
I0403 13:05:12.207648 10171 net.cpp:91] Creating Layer conv4
I0403 13:05:12.207665 10171 net.cpp:425] conv4 <- conv3
I0403 13:05:12.207686 10171 net.cpp:399] conv4 -> conv4
I0403 13:05:12.239111 10171 net.cpp:141] Setting up conv4
I0403 13:05:12.239183 10171 net.cpp:148] Top shape: 100 384 13 13 (6489600)
I0403 13:05:12.239235 10171 net.cpp:156] Memory required for data: 757439600
I0403 13:05:12.239259 10171 layer_factory.hpp:77] Creating layer relu4
I0403 13:05:12.239284 10171 net.cpp:91] Creating Layer relu4
I0403 13:05:12.239302 10171 net.cpp:425] relu4 <- conv4
I0403 13:05:12.239322 10171 net.cpp:386] relu4 -> conv4 (in-place)
I0403 13:05:12.239680 10171 net.cpp:141] Setting up relu4
I0403 13:05:12.239708 10171 net.cpp:148] Top shape: 100 384 13 13 (6489600)
I0403 13:05:12.239724 10171 net.cpp:156] Memory required for data: 783398000
I0403 13:05:12.239739 10171 layer_factory.hpp:77] Creating layer conv5
I0403 13:05:12.239765 10171 net.cpp:91] Creating Layer conv5
I0403 13:05:12.239784 10171 net.cpp:425] conv5 <- conv4
I0403 13:05:12.239806 10171 net.cpp:399] conv5 -> conv5
I0403 13:05:12.261421 10171 net.cpp:141] Setting up conv5
I0403 13:05:12.261461 10171 net.cpp:148] Top shape: 100 256 13 13 (4326400)
I0403 13:05:12.261478 10171 net.cpp:156] Memory required for data: 800703600
I0403 13:05:12.261504 10171 layer_factory.hpp:77] Creating layer relu5
I0403 13:05:12.261545 10171 net.cpp:91] Creating Layer relu5
I0403 13:05:12.261567 10171 net.cpp:425] relu5 <- conv5
I0403 13:05:12.261586 10171 net.cpp:386] relu5 -> conv5 (in-place)
I0403 13:05:12.261875 10171 net.cpp:141] Setting up relu5
I0403 13:05:12.261903 10171 net.cpp:148] Top shape: 100 256 13 13 (4326400)
I0403 13:05:12.261919 10171 net.cpp:156] Memory required for data: 818009200
I0403 13:05:12.261934 10171 layer_factory.hpp:77] Creating layer pool5
I0403 13:05:12.261958 10171 net.cpp:91] Creating Layer pool5
I0403 13:05:12.261976 10171 net.cpp:425] pool5 <- conv5
I0403 13:05:12.261996 10171 net.cpp:399] pool5 -> pool5
I0403 13:05:12.262056 10171 net.cpp:141] Setting up pool5
I0403 13:05:12.262081 10171 net.cpp:148] Top shape: 100 256 6 6 (921600)
I0403 13:05:12.262096 10171 net.cpp:156] Memory required for data: 821695600
I0403 13:05:12.262110 10171 layer_factory.hpp:77] Creating layer fc6
I0403 13:05:12.262140 10171 net.cpp:91] Creating Layer fc6
I0403 13:05:12.262157 10171 net.cpp:425] fc6 <- pool5
I0403 13:05:12.262176 10171 net.cpp:399] fc6 -> fc6
I0403 13:05:13.835865 10171 net.cpp:141] Setting up fc6
I0403 13:05:13.835942 10171 net.cpp:148] Top shape: 100 4096 (409600)
I0403 13:05:13.835958 10171 net.cpp:156] Memory required for data: 823334000
I0403 13:05:13.835980 10171 layer_factory.hpp:77] Creating layer relu6
I0403 13:05:13.836002 10171 net.cpp:91] Creating Layer relu6
I0403 13:05:13.836019 10171 net.cpp:425] relu6 <- fc6
I0403 13:05:13.836041 10171 net.cpp:386] relu6 -> fc6 (in-place)
I0403 13:05:13.836275 10171 net.cpp:141] Setting up relu6
I0403 13:05:13.836302 10171 net.cpp:148] Top shape: 100 4096 (409600)
I0403 13:05:13.836318 10171 net.cpp:156] Memory required for data: 824972400
I0403 13:05:13.836331 10171 layer_factory.hpp:77] Creating layer drop6
I0403 13:05:13.836356 10171 net.cpp:91] Creating Layer drop6
I0403 13:05:13.836372 10171 net.cpp:425] drop6 <- fc6
I0403 13:05:13.836390 10171 net.cpp:386] drop6 -> fc6 (in-place)
I0403 13:05:13.836441 10171 net.cpp:141] Setting up drop6
I0403 13:05:13.836464 10171 net.cpp:148] Top shape: 100 4096 (409600)
I0403 13:05:13.836478 10171 net.cpp:156] Memory required for data: 826610800
I0403 13:05:13.836493 10171 layer_factory.hpp:77] Creating layer fc7
I0403 13:05:13.836513 10171 net.cpp:91] Creating Layer fc7
I0403 13:05:13.836527 10171 net.cpp:425] fc7 <- fc6
I0403 13:05:13.836552 10171 net.cpp:399] fc7 -> fc7
I0403 13:05:14.518396 10171 net.cpp:141] Setting up fc7
I0403 13:05:14.518437 10171 net.cpp:148] Top shape: 100 4096 (409600)
I0403 13:05:14.518453 10171 net.cpp:156] Memory required for data: 828249200
I0403 13:05:14.518474 10171 layer_factory.hpp:77] Creating layer relu7
I0403 13:05:14.518499 10171 net.cpp:91] Creating Layer relu7
I0403 13:05:14.518518 10171 net.cpp:425] relu7 <- fc7
I0403 13:05:14.518542 10171 net.cpp:386] relu7 -> fc7 (in-place)
I0403 13:05:14.518954 10171 net.cpp:141] Setting up relu7
I0403 13:05:14.518980 10171 net.cpp:148] Top shape: 100 4096 (409600)
I0403 13:05:14.519037 10171 net.cpp:156] Memory required for data: 829887600
I0403 13:05:14.519052 10171 layer_factory.hpp:77] Creating layer drop7
I0403 13:05:14.519074 10171 net.cpp:91] Creating Layer drop7
I0403 13:05:14.519090 10171 net.cpp:425] drop7 <- fc7
I0403 13:05:14.519106 10171 net.cpp:386] drop7 -> fc7 (in-place)
I0403 13:05:14.519153 10171 net.cpp:141] Setting up drop7
I0403 13:05:14.519176 10171 net.cpp:148] Top shape: 100 4096 (409600)
I0403 13:05:14.519189 10171 net.cpp:156] Memory required for data: 831526000
I0403 13:05:14.519204 10171 layer_factory.hpp:77] Creating layer fc8_plantvillage
I0403 13:05:14.519223 10171 net.cpp:91] Creating Layer fc8_plantvillage
I0403 13:05:14.519238 10171 net.cpp:425] fc8_plantvillage <- fc7
I0403 13:05:14.519258 10171 net.cpp:399] fc8_plantvillage -> fc8_plantvillage
I0403 13:05:14.525948 10171 net.cpp:141] Setting up fc8_plantvillage
I0403 13:05:14.525977 10171 net.cpp:148] Top shape: 100 38 (3800)
I0403 13:05:14.525995 10171 net.cpp:156] Memory required for data: 831541200
I0403 13:05:14.526011 10171 layer_factory.hpp:77] Creating layer fc8_plantvillage_fc8_plantvillage_0_split
I0403 13:05:14.526044 10171 net.cpp:91] Creating Layer fc8_plantvillage_fc8_plantvillage_0_split
I0403 13:05:14.526060 10171 net.cpp:425] fc8_plantvillage_fc8_plantvillage_0_split <- fc8_plantvillage
I0403 13:05:14.526077 10171 net.cpp:399] fc8_plantvillage_fc8_plantvillage_0_split -> fc8_plantvillage_fc8_plantvillage_0_split_0
I0403 13:05:14.526096 10171 net.cpp:399] fc8_plantvillage_fc8_plantvillage_0_split -> fc8_plantvillage_fc8_plantvillage_0_split_1
I0403 13:05:14.526118 10171 net.cpp:399] fc8_plantvillage_fc8_plantvillage_0_split -> fc8_plantvillage_fc8_plantvillage_0_split_2
I0403 13:05:14.526195 10171 net.cpp:141] Setting up fc8_plantvillage_fc8_plantvillage_0_split
I0403 13:05:14.526218 10171 net.cpp:148] Top shape: 100 38 (3800)
I0403 13:05:14.526234 10171 net.cpp:148] Top shape: 100 38 (3800)
I0403 13:05:14.526248 10171 net.cpp:148] Top shape: 100 38 (3800)
I0403 13:05:14.526263 10171 net.cpp:156] Memory required for data: 831586800
I0403 13:05:14.526278 10171 layer_factory.hpp:77] Creating layer prob
I0403 13:05:14.526295 10171 net.cpp:91] Creating Layer prob
I0403 13:05:14.526309 10171 net.cpp:425] prob <- fc8_plantvillage_fc8_plantvillage_0_split_0
I0403 13:05:14.526338 10171 net.cpp:399] prob -> prob
I0403 13:05:14.526563 10171 net.cpp:141] Setting up prob
I0403 13:05:14.526588 10171 net.cpp:148] Top shape: 100 38 (3800)
I0403 13:05:14.526602 10171 net.cpp:156] Memory required for data: 831602000
I0403 13:05:14.526617 10171 layer_factory.hpp:77] Creating layer hdf5out
I0403 13:05:14.526643 10171 net.cpp:91] Creating Layer hdf5out
I0403 13:05:14.526659 10171 net.cpp:425] hdf5out <- prob
I0403 13:05:14.526674 10171 net.cpp:425] hdf5out <- label_data_1_split_0
I0403 13:05:14.529181 10171 net.cpp:141] Setting up hdf5out
…
