…
I0403 13:02:18.436295 10082 net.cpp:313] The NetState phase (1) differed from the phase (0) specified by a rule in layer data
I0403 13:02:18.436630 10082 net.cpp:49] Initializing net from parameters: 
state {
  phase: TEST
}
layer {
  name: "data"
  type: "Data"
  top: "data"
  top: "label"
  include {
    phase: TEST
  }
  transform_param {
    crop_size: 227
    mean_file: "/home/mohanty/data/final_dataset/lmdb/grayscale-50-50/mean.binaryproto"
  }
  data_param {
    source: "/home/mohanty/data/final_dataset/lmdb/grayscale-50-50/test_db"
    batch_size: 100
    backend: LMDB
  }
}
layer {
  name: "conv1"
  type: "Convolution"
  bottom: "data"
  top: "conv1"
  param {
    lr_mult: 1
    decay_mult: 1
  }
  param {
    lr_mult: 2
    decay_mult: 0
  }
  convolution_param {
    num_output: 96
    kernel_size: 11
    stride: 4
    weight_filler {
      type: "gaussian"
      std: 0.01
    }
    bias_filler {
      type: "constant"
      value: 0
    }
  }
}
layer {
  name: "relu1"
  type: "ReLU"
  bottom: "conv1"
  top: "conv1"
}
layer {
  name: "norm1"
  type: "LRN"
  bottom: "conv1"
  top: "norm1"
  lrn_param {
    local_size: 5
    alpha: 0.0001
    beta: 0.75
  }
}
layer {
  name: "pool1"
  type: "Pooling"
  bottom: "norm1"
  top: "pool1"
  pooling_param {
    pool: MAX
    kernel_size: 3
    stride: 2
  }
}
layer {
  name: "conv2"
  type: "Convolution"
  bottom: "pool1"
  top: "conv2"
  param {
    lr_mult: 1
    decay_mult: 1
  }
  param {
    lr_mult: 2
    decay_mult: 0
  }
  convolution_param {
    num_output: 256
    pad: 2
    kernel_size: 5
    group: 2
    weight_filler {
      type: "gaussian"
      std: 0.01
    }
    bias_filler {
      type: "constant"
      value: 0.1
    }
  }
}
layer {
  name: "relu2"
  type: "ReLU"
  bottom: "conv2"
  top: "conv2"
}
layer {
  name: "norm2"
  type: "LRN"
  bottom: "conv2"
  top: "norm2"
  lrn_param {
    local_size: 5
    alpha: 0.0001
    beta: 0.75
  }
}
layer {
  name: "pool2"
  type: "Pooling"
  bottom: "norm2"
  top: "pool2"
  pooling_param {
    pool: MAX
    kernel_size: 3
    stride: 2
  }
}
layer {
  name: "conv3"
  type: "Convolution"
  bottom: "pool2"
  top: "conv3"
  param {
    lr_mult: 1
    decay_mult: 1
  }
  param {
    lr_mult: 2
    decay_mult: 0
  }
  convolution_param {
    num_output: 384
    pad: 1
    kernel_size: 3
    weight_filler {
      type: "gaussian"
      std: 0.01
    }
    bias_filler {
      type: "constant"
      value: 0
    }
  }
}
layer {
  name: "relu3"
  type: "ReLU"
  bottom: "conv3"
  top: "conv3"
}
layer {
  name: "conv4"
  type: "Convolution"
  bottom: "conv3"
  top: "conv4"
  param {
    lr_mult: 1
    decay_mult: 1
  }
  param {
    lr_mult: 2
    decay_mult: 0
  }
  convolution_param {
    num_output: 384
    pad: 1
    kernel_size: 3
    group: 2
    weight_filler {
      type: "gaussian"
      std: 0.01
    }
    bias_filler {
      type: "constant"
      value: 0.1
    }
  }
}
layer {
  name: "relu4"
  type: "ReLU"
  bottom: "conv4"
  top: "conv4"
}
layer {
  name: "conv5"
  type: "Convolution"
  bottom: "conv4"
  top: "conv5"
  param {
    lr_mult: 1
    decay_mult: 1
  }
  param {
    lr_mult: 2
    decay_mult: 0
  }
  convolution_param {
    num_output: 256
    pad: 1
    kernel_size: 3
    group: 2
    weight_filler {
      type: "gaussian"
      std: 0.01
    }
    bias_filler {
      type: "constant"
      value: 0.1
    }
  }
}
layer {
  name: "relu5"
  type: "ReLU"
  bottom: "conv5"
  top: "conv5"
}
layer {
  name: "pool5"
  type: "Pooling"
  bottom: "conv5"
  top: "pool5"
  pooling_param {
    pool: MAX
    kernel_size: 3
    stride: 2
  }
}
layer {
  name: "fc6"
  type: "InnerProduct"
  bottom: "pool5"
  top: "fc6"
  param {
    lr_mult: 1
    decay_mult: 1
  }
  param {
    lr_mult: 2
    decay_mult: 0
  }
  inner_product_param {
    num_output: 4096
    weight_filler {
      type: "gaussian"
      std: 0.005
    }
    bias_filler {
      type: "constant"
      value: 0.1
    }
  }
}
layer {
  name: "relu6"
  type: "ReLU"
  bottom: "fc6"
  top: "fc6"
}
layer {
  name: "drop6"
  type: "Dropout"
  bottom: "fc6"
  top: "fc6"
  dropout_param {
    dropout_ratio: 0.5
  }
}
layer {
  name: "fc7"
  type: "InnerProduct"
  bottom: "fc6"
  top: "fc7"
  param {
    lr_mult: 1
    decay_mult: 1
  }
  param {
    lr_mult: 2
    decay_mult: 0
  }
  inner_product_param {
    num_output: 4096
    weight_filler {
      type: "gaussian"
      std: 0.005
    }
    bias_filler {
      type: "constant"
      value: 0.1
    }
  }
}
layer {
  name: "relu7"
  type: "ReLU"
  bottom: "fc7"
  top: "fc7"
}
layer {
  name: "drop7"
  type: "Dropout"
  bottom: "fc7"
  top: "fc7"
  dropout_param {
    dropout_ratio: 0.5
  }
}
layer {
  name: "fc8_plantvillage"
  type: "InnerProduct"
  bottom: "fc7"
  top: "fc8_plantvillage"
  param {
    lr_mult: 1
    decay_mult: 1
  }
  param {
    lr_mult: 2
    decay_mult: 0
  }
  inner_product_param {
    num_output: 38
    weight_filler {
      type: "gaussian"
      std: 0.01
    }
    bias_filler {
      type: "constant"
      value: 0
    }
  }
}
layer {
  name: "prob"
  type: "Softmax"
  bottom: "fc8_plantvillage"
  top: "prob"
  include {
    phase: TEST
  }
}
layer {
  name: "hdf5out"
  type: "HDF5Output"
  bottom: "prob"
  bottom: "label"
  include {
    phase: TEST
  }
  hdf5_output_param {
    file_name: "hdf5_dumps/iter_4272.h5"
  }
}
layer {
  name: "loss"
  type: "SoftmaxWithLoss"
  bottom: "fc8_plantvillage"
  bottom: "label"
  top: "loss"
}
layer {
  name: "accuracy"
  type: "Accuracy"
  bottom: "fc8_plantvillage"
  bottom: "label"
  top: "accuracy"
  include {
    phase: TEST
  }
}
I0403 13:02:18.437198 10082 layer_factory.hpp:77] Creating layer data
I0403 13:02:18.437868 10082 net.cpp:91] Creating Layer data
I0403 13:02:18.437898 10082 net.cpp:399] data -> data
I0403 13:02:18.437952 10082 net.cpp:399] data -> label
I0403 13:02:18.437988 10082 data_transformer.cpp:25] Loading mean file from: /home/mohanty/data/final_dataset/lmdb/grayscale-50-50/mean.binaryproto
I0403 13:02:18.439182 10087 db_lmdb.cpp:38] Opened lmdb /home/mohanty/data/final_dataset/lmdb/grayscale-50-50/test_db
I0403 13:02:18.452191 10082 data_layer.cpp:41] output data size: 100,3,227,227
I0403 13:02:18.568894 10082 net.cpp:141] Setting up data
I0403 13:02:18.568986 10082 net.cpp:148] Top shape: 100 3 227 227 (15458700)
I0403 13:02:18.569008 10082 net.cpp:148] Top shape: 100 (100)
I0403 13:02:18.569023 10082 net.cpp:156] Memory required for data: 61835200
I0403 13:02:18.569051 10082 layer_factory.hpp:77] Creating layer label_data_1_split
I0403 13:02:18.569075 10082 net.cpp:91] Creating Layer label_data_1_split
I0403 13:02:18.569092 10082 net.cpp:425] label_data_1_split <- label
I0403 13:02:18.569124 10082 net.cpp:399] label_data_1_split -> label_data_1_split_0
I0403 13:02:18.569150 10082 net.cpp:399] label_data_1_split -> label_data_1_split_1
I0403 13:02:18.569170 10082 net.cpp:399] label_data_1_split -> label_data_1_split_2
I0403 13:02:18.569232 10082 net.cpp:141] Setting up label_data_1_split
I0403 13:02:18.569254 10082 net.cpp:148] Top shape: 100 (100)
I0403 13:02:18.569272 10082 net.cpp:148] Top shape: 100 (100)
I0403 13:02:18.569288 10082 net.cpp:148] Top shape: 100 (100)
I0403 13:02:18.569300 10082 net.cpp:156] Memory required for data: 61836400
I0403 13:02:18.569314 10082 layer_factory.hpp:77] Creating layer conv1
I0403 13:02:18.569345 10082 net.cpp:91] Creating Layer conv1
I0403 13:02:18.569363 10082 net.cpp:425] conv1 <- data
I0403 13:02:18.569382 10082 net.cpp:399] conv1 -> conv1
I0403 13:02:18.710022 10082 net.cpp:141] Setting up conv1
I0403 13:02:18.710083 10082 net.cpp:148] Top shape: 100 96 55 55 (29040000)
I0403 13:02:18.710101 10082 net.cpp:156] Memory required for data: 177996400
I0403 13:02:18.710132 10082 layer_factory.hpp:77] Creating layer relu1
I0403 13:02:18.710160 10082 net.cpp:91] Creating Layer relu1
I0403 13:02:18.710176 10082 net.cpp:425] relu1 <- conv1
I0403 13:02:18.710197 10082 net.cpp:386] relu1 -> conv1 (in-place)
I0403 13:02:18.710482 10082 net.cpp:141] Setting up relu1
I0403 13:02:18.710510 10082 net.cpp:148] Top shape: 100 96 55 55 (29040000)
I0403 13:02:18.710564 10082 net.cpp:156] Memory required for data: 294156400
I0403 13:02:18.710582 10082 layer_factory.hpp:77] Creating layer norm1
I0403 13:02:18.710610 10082 net.cpp:91] Creating Layer norm1
I0403 13:02:18.710628 10082 net.cpp:425] norm1 <- conv1
I0403 13:02:18.710647 10082 net.cpp:399] norm1 -> norm1
I0403 13:02:18.710990 10082 net.cpp:141] Setting up norm1
I0403 13:02:18.711019 10082 net.cpp:148] Top shape: 100 96 55 55 (29040000)
I0403 13:02:18.711033 10082 net.cpp:156] Memory required for data: 410316400
I0403 13:02:18.711047 10082 layer_factory.hpp:77] Creating layer pool1
I0403 13:02:18.711072 10082 net.cpp:91] Creating Layer pool1
I0403 13:02:18.711091 10082 net.cpp:425] pool1 <- norm1
I0403 13:02:18.711107 10082 net.cpp:399] pool1 -> pool1
I0403 13:02:18.711179 10082 net.cpp:141] Setting up pool1
I0403 13:02:18.711202 10082 net.cpp:148] Top shape: 100 96 27 27 (6998400)
I0403 13:02:18.711216 10082 net.cpp:156] Memory required for data: 438310000
I0403 13:02:18.711230 10082 layer_factory.hpp:77] Creating layer conv2
I0403 13:02:18.711256 10082 net.cpp:91] Creating Layer conv2
I0403 13:02:18.711272 10082 net.cpp:425] conv2 <- pool1
I0403 13:02:18.711292 10082 net.cpp:399] conv2 -> conv2
I0403 13:02:18.726594 10082 net.cpp:141] Setting up conv2
I0403 13:02:18.726639 10082 net.cpp:148] Top shape: 100 256 27 27 (18662400)
I0403 13:02:18.726655 10082 net.cpp:156] Memory required for data: 512959600
I0403 13:02:18.726677 10082 layer_factory.hpp:77] Creating layer relu2
I0403 13:02:18.726701 10082 net.cpp:91] Creating Layer relu2
I0403 13:02:18.726717 10082 net.cpp:425] relu2 <- conv2
I0403 13:02:18.726734 10082 net.cpp:386] relu2 -> conv2 (in-place)
I0403 13:02:18.727053 10082 net.cpp:141] Setting up relu2
I0403 13:02:18.727083 10082 net.cpp:148] Top shape: 100 256 27 27 (18662400)
I0403 13:02:18.727099 10082 net.cpp:156] Memory required for data: 587609200
I0403 13:02:18.727114 10082 layer_factory.hpp:77] Creating layer norm2
I0403 13:02:18.727134 10082 net.cpp:91] Creating Layer norm2
I0403 13:02:18.727150 10082 net.cpp:425] norm2 <- conv2
I0403 13:02:18.727169 10082 net.cpp:399] norm2 -> norm2
I0403 13:02:18.727371 10082 net.cpp:141] Setting up norm2
I0403 13:02:18.727396 10082 net.cpp:148] Top shape: 100 256 27 27 (18662400)
I0403 13:02:18.727411 10082 net.cpp:156] Memory required for data: 662258800
I0403 13:02:18.727427 10082 layer_factory.hpp:77] Creating layer pool2
I0403 13:02:18.727447 10082 net.cpp:91] Creating Layer pool2
I0403 13:02:18.727463 10082 net.cpp:425] pool2 <- norm2
I0403 13:02:18.727480 10082 net.cpp:399] pool2 -> pool2
I0403 13:02:18.727535 10082 net.cpp:141] Setting up pool2
I0403 13:02:18.727561 10082 net.cpp:148] Top shape: 100 256 13 13 (4326400)
I0403 13:02:18.727576 10082 net.cpp:156] Memory required for data: 679564400
I0403 13:02:18.727591 10082 layer_factory.hpp:77] Creating layer conv3
I0403 13:02:18.727613 10082 net.cpp:91] Creating Layer conv3
I0403 13:02:18.727630 10082 net.cpp:425] conv3 <- pool2
I0403 13:02:18.727649 10082 net.cpp:399] conv3 -> conv3
I0403 13:02:18.767248 10082 net.cpp:141] Setting up conv3
I0403 13:02:18.767333 10082 net.cpp:148] Top shape: 100 384 13 13 (6489600)
I0403 13:02:18.767349 10082 net.cpp:156] Memory required for data: 705522800
I0403 13:02:18.767377 10082 layer_factory.hpp:77] Creating layer relu3
I0403 13:02:18.767402 10082 net.cpp:91] Creating Layer relu3
I0403 13:02:18.767421 10082 net.cpp:425] relu3 <- conv3
I0403 13:02:18.767439 10082 net.cpp:386] relu3 -> conv3 (in-place)
I0403 13:02:18.767738 10082 net.cpp:141] Setting up relu3
I0403 13:02:18.767766 10082 net.cpp:148] Top shape: 100 384 13 13 (6489600)
I0403 13:02:18.767782 10082 net.cpp:156] Memory required for data: 731481200
I0403 13:02:18.767797 10082 layer_factory.hpp:77] Creating layer conv4
I0403 13:02:18.767824 10082 net.cpp:91] Creating Layer conv4
I0403 13:02:18.767841 10082 net.cpp:425] conv4 <- conv3
I0403 13:02:18.767863 10082 net.cpp:399] conv4 -> conv4
I0403 13:02:18.799388 10082 net.cpp:141] Setting up conv4
I0403 13:02:18.799461 10082 net.cpp:148] Top shape: 100 384 13 13 (6489600)
I0403 13:02:18.799521 10082 net.cpp:156] Memory required for data: 757439600
I0403 13:02:18.799549 10082 layer_factory.hpp:77] Creating layer relu4
I0403 13:02:18.799577 10082 net.cpp:91] Creating Layer relu4
I0403 13:02:18.799597 10082 net.cpp:425] relu4 <- conv4
I0403 13:02:18.799617 10082 net.cpp:386] relu4 -> conv4 (in-place)
I0403 13:02:18.799916 10082 net.cpp:141] Setting up relu4
I0403 13:02:18.799944 10082 net.cpp:148] Top shape: 100 384 13 13 (6489600)
I0403 13:02:18.799962 10082 net.cpp:156] Memory required for data: 783398000
I0403 13:02:18.799976 10082 layer_factory.hpp:77] Creating layer conv5
I0403 13:02:18.800004 10082 net.cpp:91] Creating Layer conv5
I0403 13:02:18.800021 10082 net.cpp:425] conv5 <- conv4
I0403 13:02:18.800043 10082 net.cpp:399] conv5 -> conv5
I0403 13:02:18.821847 10082 net.cpp:141] Setting up conv5
I0403 13:02:18.821908 10082 net.cpp:148] Top shape: 100 256 13 13 (4326400)
I0403 13:02:18.821926 10082 net.cpp:156] Memory required for data: 800703600
I0403 13:02:18.821950 10082 layer_factory.hpp:77] Creating layer relu5
I0403 13:02:18.821979 10082 net.cpp:91] Creating Layer relu5
I0403 13:02:18.821997 10082 net.cpp:425] relu5 <- conv5
I0403 13:02:18.822017 10082 net.cpp:386] relu5 -> conv5 (in-place)
I0403 13:02:18.822309 10082 net.cpp:141] Setting up relu5
I0403 13:02:18.822338 10082 net.cpp:148] Top shape: 100 256 13 13 (4326400)
I0403 13:02:18.822355 10082 net.cpp:156] Memory required for data: 818009200
I0403 13:02:18.822370 10082 layer_factory.hpp:77] Creating layer pool5
I0403 13:02:18.822394 10082 net.cpp:91] Creating Layer pool5
I0403 13:02:18.822412 10082 net.cpp:425] pool5 <- conv5
I0403 13:02:18.822432 10082 net.cpp:399] pool5 -> pool5
I0403 13:02:18.822497 10082 net.cpp:141] Setting up pool5
I0403 13:02:18.822521 10082 net.cpp:148] Top shape: 100 256 6 6 (921600)
I0403 13:02:18.822540 10082 net.cpp:156] Memory required for data: 821695600
I0403 13:02:18.822556 10082 layer_factory.hpp:77] Creating layer fc6
I0403 13:02:18.822587 10082 net.cpp:91] Creating Layer fc6
I0403 13:02:18.822605 10082 net.cpp:425] fc6 <- pool5
I0403 13:02:18.822624 10082 net.cpp:399] fc6 -> fc6
I0403 13:02:20.393523 10082 net.cpp:141] Setting up fc6
I0403 13:02:20.393604 10082 net.cpp:148] Top shape: 100 4096 (409600)
I0403 13:02:20.393620 10082 net.cpp:156] Memory required for data: 823334000
I0403 13:02:20.393641 10082 layer_factory.hpp:77] Creating layer relu6
I0403 13:02:20.393663 10082 net.cpp:91] Creating Layer relu6
I0403 13:02:20.393679 10082 net.cpp:425] relu6 <- fc6
I0403 13:02:20.393702 10082 net.cpp:386] relu6 -> fc6 (in-place)
I0403 13:02:20.393935 10082 net.cpp:141] Setting up relu6
I0403 13:02:20.393960 10082 net.cpp:148] Top shape: 100 4096 (409600)
I0403 13:02:20.393975 10082 net.cpp:156] Memory required for data: 824972400
I0403 13:02:20.393988 10082 layer_factory.hpp:77] Creating layer drop6
I0403 13:02:20.394008 10082 net.cpp:91] Creating Layer drop6
I0403 13:02:20.394024 10082 net.cpp:425] drop6 <- fc6
I0403 13:02:20.394040 10082 net.cpp:386] drop6 -> fc6 (in-place)
I0403 13:02:20.394091 10082 net.cpp:141] Setting up drop6
I0403 13:02:20.394114 10082 net.cpp:148] Top shape: 100 4096 (409600)
I0403 13:02:20.394127 10082 net.cpp:156] Memory required for data: 826610800
I0403 13:02:20.394141 10082 layer_factory.hpp:77] Creating layer fc7
I0403 13:02:20.394160 10082 net.cpp:91] Creating Layer fc7
I0403 13:02:20.394176 10082 net.cpp:425] fc7 <- fc6
I0403 13:02:20.394193 10082 net.cpp:399] fc7 -> fc7
I0403 13:02:21.081514 10082 net.cpp:141] Setting up fc7
I0403 13:02:21.081562 10082 net.cpp:148] Top shape: 100 4096 (409600)
I0403 13:02:21.081579 10082 net.cpp:156] Memory required for data: 828249200
I0403 13:02:21.081599 10082 layer_factory.hpp:77] Creating layer relu7
I0403 13:02:21.081620 10082 net.cpp:91] Creating Layer relu7
I0403 13:02:21.081636 10082 net.cpp:425] relu7 <- fc7
I0403 13:02:21.081655 10082 net.cpp:386] relu7 -> fc7 (in-place)
I0403 13:02:21.082073 10082 net.cpp:141] Setting up relu7
I0403 13:02:21.082099 10082 net.cpp:148] Top shape: 100 4096 (409600)
I0403 13:02:21.082147 10082 net.cpp:156] Memory required for data: 829887600
I0403 13:02:21.082162 10082 layer_factory.hpp:77] Creating layer drop7
I0403 13:02:21.082185 10082 net.cpp:91] Creating Layer drop7
I0403 13:02:21.082204 10082 net.cpp:425] drop7 <- fc7
I0403 13:02:21.082232 10082 net.cpp:386] drop7 -> fc7 (in-place)
I0403 13:02:21.082274 10082 net.cpp:141] Setting up drop7
I0403 13:02:21.082295 10082 net.cpp:148] Top shape: 100 4096 (409600)
I0403 13:02:21.082309 10082 net.cpp:156] Memory required for data: 831526000
I0403 13:02:21.082321 10082 layer_factory.hpp:77] Creating layer fc8_plantvillage
I0403 13:02:21.082340 10082 net.cpp:91] Creating Layer fc8_plantvillage
I0403 13:02:21.082356 10082 net.cpp:425] fc8_plantvillage <- fc7
I0403 13:02:21.082373 10082 net.cpp:399] fc8_plantvillage -> fc8_plantvillage
I0403 13:02:21.089098 10082 net.cpp:141] Setting up fc8_plantvillage
I0403 13:02:21.089126 10082 net.cpp:148] Top shape: 100 38 (3800)
I0403 13:02:21.089141 10082 net.cpp:156] Memory required for data: 831541200
I0403 13:02:21.089159 10082 layer_factory.hpp:77] Creating layer fc8_plantvillage_fc8_plantvillage_0_split
I0403 13:02:21.089179 10082 net.cpp:91] Creating Layer fc8_plantvillage_fc8_plantvillage_0_split
I0403 13:02:21.089195 10082 net.cpp:425] fc8_plantvillage_fc8_plantvillage_0_split <- fc8_plantvillage
I0403 13:02:21.089210 10082 net.cpp:399] fc8_plantvillage_fc8_plantvillage_0_split -> fc8_plantvillage_fc8_plantvillage_0_split_0
I0403 13:02:21.089229 10082 net.cpp:399] fc8_plantvillage_fc8_plantvillage_0_split -> fc8_plantvillage_fc8_plantvillage_0_split_1
I0403 13:02:21.089254 10082 net.cpp:399] fc8_plantvillage_fc8_plantvillage_0_split -> fc8_plantvillage_fc8_plantvillage_0_split_2
I0403 13:02:21.089340 10082 net.cpp:141] Setting up fc8_plantvillage_fc8_plantvillage_0_split
I0403 13:02:21.089366 10082 net.cpp:148] Top shape: 100 38 (3800)
I0403 13:02:21.089381 10082 net.cpp:148] Top shape: 100 38 (3800)
I0403 13:02:21.089396 10082 net.cpp:148] Top shape: 100 38 (3800)
I0403 13:02:21.089408 10082 net.cpp:156] Memory required for data: 831586800
I0403 13:02:21.089422 10082 layer_factory.hpp:77] Creating layer prob
I0403 13:02:21.089442 10082 net.cpp:91] Creating Layer prob
I0403 13:02:21.089457 10082 net.cpp:425] prob <- fc8_plantvillage_fc8_plantvillage_0_split_0
I0403 13:02:21.089474 10082 net.cpp:399] prob -> prob
I0403 13:02:21.089714 10082 net.cpp:141] Setting up prob
I0403 13:02:21.089738 10082 net.cpp:148] Top shape: 100 38 (3800)
I0403 13:02:21.089752 10082 net.cpp:156] Memory required for data: 831602000
I0403 13:02:21.089766 10082 layer_factory.hpp:77] Creating layer hdf5out
I0403 13:02:21.089787 10082 net.cpp:91] Creating Layer hdf5out
I0403 13:02:21.089802 10082 net.cpp:425] hdf5out <- prob
I0403 13:02:21.089818 10082 net.cpp:425] hdf5out <- label_data_1_split_0
I0403 13:02:21.092095 10082 net.cpp:141] Setting up hdf5out
…
