…
I0403 12:55:37.435258  9885 net.cpp:313] The NetState phase (1) differed from the phase (0) specified by a rule in layer data
I0403 12:55:37.435582  9885 net.cpp:49] Initializing net from parameters: 
state {
  phase: TEST
}
layer {
  name: "data"
  type: "Data"
  top: "data"
  top: "label"
  include {
    phase: TEST
  }
  transform_param {
    crop_size: 227
    mean_file: "/home/mohanty/data/final_dataset/lmdb/grayscale-50-50/mean.binaryproto"
  }
  data_param {
    source: "/home/mohanty/data/final_dataset/lmdb/grayscale-50-50/test_db"
    batch_size: 100
    backend: LMDB
  }
}
layer {
  name: "conv1"
  type: "Convolution"
  bottom: "data"
  top: "conv1"
  param {
    lr_mult: 1
    decay_mult: 1
  }
  param {
    lr_mult: 2
    decay_mult: 0
  }
  convolution_param {
    num_output: 96
    kernel_size: 11
    stride: 4
    weight_filler {
      type: "gaussian"
      std: 0.01
    }
    bias_filler {
      type: "constant"
      value: 0
    }
  }
}
layer {
  name: "relu1"
  type: "ReLU"
  bottom: "conv1"
  top: "conv1"
}
layer {
  name: "norm1"
  type: "LRN"
  bottom: "conv1"
  top: "norm1"
  lrn_param {
    local_size: 5
    alpha: 0.0001
    beta: 0.75
  }
}
layer {
  name: "pool1"
  type: "Pooling"
  bottom: "norm1"
  top: "pool1"
  pooling_param {
    pool: MAX
    kernel_size: 3
    stride: 2
  }
}
layer {
  name: "conv2"
  type: "Convolution"
  bottom: "pool1"
  top: "conv2"
  param {
    lr_mult: 1
    decay_mult: 1
  }
  param {
    lr_mult: 2
    decay_mult: 0
  }
  convolution_param {
    num_output: 256
    pad: 2
    kernel_size: 5
    group: 2
    weight_filler {
      type: "gaussian"
      std: 0.01
    }
    bias_filler {
      type: "constant"
      value: 0.1
    }
  }
}
layer {
  name: "relu2"
  type: "ReLU"
  bottom: "conv2"
  top: "conv2"
}
layer {
  name: "norm2"
  type: "LRN"
  bottom: "conv2"
  top: "norm2"
  lrn_param {
    local_size: 5
    alpha: 0.0001
    beta: 0.75
  }
}
layer {
  name: "pool2"
  type: "Pooling"
  bottom: "norm2"
  top: "pool2"
  pooling_param {
    pool: MAX
    kernel_size: 3
    stride: 2
  }
}
layer {
  name: "conv3"
  type: "Convolution"
  bottom: "pool2"
  top: "conv3"
  param {
    lr_mult: 1
    decay_mult: 1
  }
  param {
    lr_mult: 2
    decay_mult: 0
  }
  convolution_param {
    num_output: 384
    pad: 1
    kernel_size: 3
    weight_filler {
      type: "gaussian"
      std: 0.01
    }
    bias_filler {
      type: "constant"
      value: 0
    }
  }
}
layer {
  name: "relu3"
  type: "ReLU"
  bottom: "conv3"
  top: "conv3"
}
layer {
  name: "conv4"
  type: "Convolution"
  bottom: "conv3"
  top: "conv4"
  param {
    lr_mult: 1
    decay_mult: 1
  }
  param {
    lr_mult: 2
    decay_mult: 0
  }
  convolution_param {
    num_output: 384
    pad: 1
    kernel_size: 3
    group: 2
    weight_filler {
      type: "gaussian"
      std: 0.01
    }
    bias_filler {
      type: "constant"
      value: 0.1
    }
  }
}
layer {
  name: "relu4"
  type: "ReLU"
  bottom: "conv4"
  top: "conv4"
}
layer {
  name: "conv5"
  type: "Convolution"
  bottom: "conv4"
  top: "conv5"
  param {
    lr_mult: 1
    decay_mult: 1
  }
  param {
    lr_mult: 2
    decay_mult: 0
  }
  convolution_param {
    num_output: 256
    pad: 1
    kernel_size: 3
    group: 2
    weight_filler {
      type: "gaussian"
      std: 0.01
    }
    bias_filler {
      type: "constant"
      value: 0.1
    }
  }
}
layer {
  name: "relu5"
  type: "ReLU"
  bottom: "conv5"
  top: "conv5"
}
layer {
  name: "pool5"
  type: "Pooling"
  bottom: "conv5"
  top: "pool5"
  pooling_param {
    pool: MAX
    kernel_size: 3
    stride: 2
  }
}
layer {
  name: "fc6"
  type: "InnerProduct"
  bottom: "pool5"
  top: "fc6"
  param {
    lr_mult: 1
    decay_mult: 1
  }
  param {
    lr_mult: 2
    decay_mult: 0
  }
  inner_product_param {
    num_output: 4096
    weight_filler {
      type: "gaussian"
      std: 0.005
    }
    bias_filler {
      type: "constant"
      value: 0.1
    }
  }
}
layer {
  name: "relu6"
  type: "ReLU"
  bottom: "fc6"
  top: "fc6"
}
layer {
  name: "drop6"
  type: "Dropout"
  bottom: "fc6"
  top: "fc6"
  dropout_param {
    dropout_ratio: 0.5
  }
}
layer {
  name: "fc7"
  type: "InnerProduct"
  bottom: "fc6"
  top: "fc7"
  param {
    lr_mult: 1
    decay_mult: 1
  }
  param {
    lr_mult: 2
    decay_mult: 0
  }
  inner_product_param {
    num_output: 4096
    weight_filler {
      type: "gaussian"
      std: 0.005
    }
    bias_filler {
      type: "constant"
      value: 0.1
    }
  }
}
layer {
  name: "relu7"
  type: "ReLU"
  bottom: "fc7"
  top: "fc7"
}
layer {
  name: "drop7"
  type: "Dropout"
  bottom: "fc7"
  top: "fc7"
  dropout_param {
    dropout_ratio: 0.5
  }
}
layer {
  name: "fc8_plantvillage"
  type: "InnerProduct"
  bottom: "fc7"
  top: "fc8_plantvillage"
  param {
    lr_mult: 1
    decay_mult: 1
  }
  param {
    lr_mult: 2
    decay_mult: 0
  }
  inner_product_param {
    num_output: 38
    weight_filler {
      type: "gaussian"
      std: 0.01
    }
    bias_filler {
      type: "constant"
      value: 0
    }
  }
}
layer {
  name: "prob"
  type: "Softmax"
  bottom: "fc8_plantvillage"
  top: "prob"
  include {
    phase: TEST
  }
}
layer {
  name: "hdf5out"
  type: "HDF5Output"
  bottom: "prob"
  bottom: "label"
  include {
    phase: TEST
  }
  hdf5_output_param {
    file_name: "hdf5_dumps/iter_2403.h5"
  }
}
layer {
  name: "loss"
  type: "SoftmaxWithLoss"
  bottom: "fc8_plantvillage"
  bottom: "label"
  top: "loss"
}
layer {
  name: "accuracy"
  type: "Accuracy"
  bottom: "fc8_plantvillage"
  bottom: "label"
  top: "accuracy"
  include {
    phase: TEST
  }
}
I0403 12:55:37.436228  9885 layer_factory.hpp:77] Creating layer data
I0403 12:55:37.436910  9885 net.cpp:91] Creating Layer data
I0403 12:55:37.436940  9885 net.cpp:399] data -> data
I0403 12:55:37.436993  9885 net.cpp:399] data -> label
I0403 12:55:37.437031  9885 data_transformer.cpp:25] Loading mean file from: /home/mohanty/data/final_dataset/lmdb/grayscale-50-50/mean.binaryproto
I0403 12:55:37.438201  9888 db_lmdb.cpp:38] Opened lmdb /home/mohanty/data/final_dataset/lmdb/grayscale-50-50/test_db
I0403 12:55:37.451501  9885 data_layer.cpp:41] output data size: 100,3,227,227
I0403 12:55:37.571017  9885 net.cpp:141] Setting up data
I0403 12:55:37.571117  9885 net.cpp:148] Top shape: 100 3 227 227 (15458700)
I0403 12:55:37.571141  9885 net.cpp:148] Top shape: 100 (100)
I0403 12:55:37.571157  9885 net.cpp:156] Memory required for data: 61835200
I0403 12:55:37.571187  9885 layer_factory.hpp:77] Creating layer label_data_1_split
I0403 12:55:37.571223  9885 net.cpp:91] Creating Layer label_data_1_split
I0403 12:55:37.571240  9885 net.cpp:425] label_data_1_split <- label
I0403 12:55:37.571274  9885 net.cpp:399] label_data_1_split -> label_data_1_split_0
I0403 12:55:37.571302  9885 net.cpp:399] label_data_1_split -> label_data_1_split_1
I0403 12:55:37.571323  9885 net.cpp:399] label_data_1_split -> label_data_1_split_2
I0403 12:55:37.571390  9885 net.cpp:141] Setting up label_data_1_split
I0403 12:55:37.571414  9885 net.cpp:148] Top shape: 100 (100)
I0403 12:55:37.571430  9885 net.cpp:148] Top shape: 100 (100)
I0403 12:55:37.571447  9885 net.cpp:148] Top shape: 100 (100)
I0403 12:55:37.571461  9885 net.cpp:156] Memory required for data: 61836400
I0403 12:55:37.571476  9885 layer_factory.hpp:77] Creating layer conv1
I0403 12:55:37.571522  9885 net.cpp:91] Creating Layer conv1
I0403 12:55:37.571542  9885 net.cpp:425] conv1 <- data
I0403 12:55:37.571562  9885 net.cpp:399] conv1 -> conv1
I0403 12:55:37.715929  9885 net.cpp:141] Setting up conv1
I0403 12:55:37.715989  9885 net.cpp:148] Top shape: 100 96 55 55 (29040000)
I0403 12:55:37.716007  9885 net.cpp:156] Memory required for data: 177996400
I0403 12:55:37.716040  9885 layer_factory.hpp:77] Creating layer relu1
I0403 12:55:37.716068  9885 net.cpp:91] Creating Layer relu1
I0403 12:55:37.716086  9885 net.cpp:425] relu1 <- conv1
I0403 12:55:37.716105  9885 net.cpp:386] relu1 -> conv1 (in-place)
I0403 12:55:37.716369  9885 net.cpp:141] Setting up relu1
I0403 12:55:37.716398  9885 net.cpp:148] Top shape: 100 96 55 55 (29040000)
I0403 12:55:37.716452  9885 net.cpp:156] Memory required for data: 294156400
I0403 12:55:37.716470  9885 layer_factory.hpp:77] Creating layer norm1
I0403 12:55:37.716497  9885 net.cpp:91] Creating Layer norm1
I0403 12:55:37.716521  9885 net.cpp:425] norm1 <- conv1
I0403 12:55:37.716541  9885 net.cpp:399] norm1 -> norm1
I0403 12:55:37.716858  9885 net.cpp:141] Setting up norm1
I0403 12:55:37.716887  9885 net.cpp:148] Top shape: 100 96 55 55 (29040000)
I0403 12:55:37.716902  9885 net.cpp:156] Memory required for data: 410316400
I0403 12:55:37.716918  9885 layer_factory.hpp:77] Creating layer pool1
I0403 12:55:37.716941  9885 net.cpp:91] Creating Layer pool1
I0403 12:55:37.716958  9885 net.cpp:425] pool1 <- norm1
I0403 12:55:37.716976  9885 net.cpp:399] pool1 -> pool1
I0403 12:55:37.717046  9885 net.cpp:141] Setting up pool1
I0403 12:55:37.717069  9885 net.cpp:148] Top shape: 100 96 27 27 (6998400)
I0403 12:55:37.717084  9885 net.cpp:156] Memory required for data: 438310000
I0403 12:55:37.717100  9885 layer_factory.hpp:77] Creating layer conv2
I0403 12:55:37.717125  9885 net.cpp:91] Creating Layer conv2
I0403 12:55:37.717142  9885 net.cpp:425] conv2 <- pool1
I0403 12:55:37.717159  9885 net.cpp:399] conv2 -> conv2
I0403 12:55:37.732784  9885 net.cpp:141] Setting up conv2
I0403 12:55:37.732837  9885 net.cpp:148] Top shape: 100 256 27 27 (18662400)
I0403 12:55:37.732854  9885 net.cpp:156] Memory required for data: 512959600
I0403 12:55:37.732878  9885 layer_factory.hpp:77] Creating layer relu2
I0403 12:55:37.732899  9885 net.cpp:91] Creating Layer relu2
I0403 12:55:37.732916  9885 net.cpp:425] relu2 <- conv2
I0403 12:55:37.732936  9885 net.cpp:386] relu2 -> conv2 (in-place)
I0403 12:55:37.733224  9885 net.cpp:141] Setting up relu2
I0403 12:55:37.733253  9885 net.cpp:148] Top shape: 100 256 27 27 (18662400)
I0403 12:55:37.733268  9885 net.cpp:156] Memory required for data: 587609200
I0403 12:55:37.733283  9885 layer_factory.hpp:77] Creating layer norm2
I0403 12:55:37.733306  9885 net.cpp:91] Creating Layer norm2
I0403 12:55:37.733325  9885 net.cpp:425] norm2 <- conv2
I0403 12:55:37.733343  9885 net.cpp:399] norm2 -> norm2
I0403 12:55:37.733594  9885 net.cpp:141] Setting up norm2
I0403 12:55:37.733621  9885 net.cpp:148] Top shape: 100 256 27 27 (18662400)
I0403 12:55:37.733636  9885 net.cpp:156] Memory required for data: 662258800
I0403 12:55:37.733652  9885 layer_factory.hpp:77] Creating layer pool2
I0403 12:55:37.733671  9885 net.cpp:91] Creating Layer pool2
I0403 12:55:37.733690  9885 net.cpp:425] pool2 <- norm2
I0403 12:55:37.733710  9885 net.cpp:399] pool2 -> pool2
I0403 12:55:37.733765  9885 net.cpp:141] Setting up pool2
I0403 12:55:37.733788  9885 net.cpp:148] Top shape: 100 256 13 13 (4326400)
I0403 12:55:37.733803  9885 net.cpp:156] Memory required for data: 679564400
I0403 12:55:37.733819  9885 layer_factory.hpp:77] Creating layer conv3
I0403 12:55:37.733844  9885 net.cpp:91] Creating Layer conv3
I0403 12:55:37.733861  9885 net.cpp:425] conv3 <- pool2
I0403 12:55:37.733880  9885 net.cpp:399] conv3 -> conv3
I0403 12:55:37.773669  9885 net.cpp:141] Setting up conv3
I0403 12:55:37.773710  9885 net.cpp:148] Top shape: 100 384 13 13 (6489600)
I0403 12:55:37.773727  9885 net.cpp:156] Memory required for data: 705522800
I0403 12:55:37.773752  9885 layer_factory.hpp:77] Creating layer relu3
I0403 12:55:37.773774  9885 net.cpp:91] Creating Layer relu3
I0403 12:55:37.773792  9885 net.cpp:425] relu3 <- conv3
I0403 12:55:37.773814  9885 net.cpp:386] relu3 -> conv3 (in-place)
I0403 12:55:37.774083  9885 net.cpp:141] Setting up relu3
I0403 12:55:37.774109  9885 net.cpp:148] Top shape: 100 384 13 13 (6489600)
I0403 12:55:37.774124  9885 net.cpp:156] Memory required for data: 731481200
I0403 12:55:37.774138  9885 layer_factory.hpp:77] Creating layer conv4
I0403 12:55:37.774163  9885 net.cpp:91] Creating Layer conv4
I0403 12:55:37.774180  9885 net.cpp:425] conv4 <- conv3
I0403 12:55:37.774200  9885 net.cpp:399] conv4 -> conv4
I0403 12:55:37.804402  9885 net.cpp:141] Setting up conv4
I0403 12:55:37.804488  9885 net.cpp:148] Top shape: 100 384 13 13 (6489600)
I0403 12:55:37.804548  9885 net.cpp:156] Memory required for data: 757439600
I0403 12:55:37.804571  9885 layer_factory.hpp:77] Creating layer relu4
I0403 12:55:37.804594  9885 net.cpp:91] Creating Layer relu4
I0403 12:55:37.804610  9885 net.cpp:425] relu4 <- conv4
I0403 12:55:37.804633  9885 net.cpp:386] relu4 -> conv4 (in-place)
I0403 12:55:37.804924  9885 net.cpp:141] Setting up relu4
I0403 12:55:37.804951  9885 net.cpp:148] Top shape: 100 384 13 13 (6489600)
I0403 12:55:37.804967  9885 net.cpp:156] Memory required for data: 783398000
I0403 12:55:37.804982  9885 layer_factory.hpp:77] Creating layer conv5
I0403 12:55:37.805007  9885 net.cpp:91] Creating Layer conv5
I0403 12:55:37.805023  9885 net.cpp:425] conv5 <- conv4
I0403 12:55:37.805042  9885 net.cpp:399] conv5 -> conv5
I0403 12:55:37.825812  9885 net.cpp:141] Setting up conv5
I0403 12:55:37.825863  9885 net.cpp:148] Top shape: 100 256 13 13 (4326400)
I0403 12:55:37.825880  9885 net.cpp:156] Memory required for data: 800703600
I0403 12:55:37.825904  9885 layer_factory.hpp:77] Creating layer relu5
I0403 12:55:37.825924  9885 net.cpp:91] Creating Layer relu5
I0403 12:55:37.825942  9885 net.cpp:425] relu5 <- conv5
I0403 12:55:37.825961  9885 net.cpp:386] relu5 -> conv5 (in-place)
I0403 12:55:37.826247  9885 net.cpp:141] Setting up relu5
I0403 12:55:37.826274  9885 net.cpp:148] Top shape: 100 256 13 13 (4326400)
I0403 12:55:37.826289  9885 net.cpp:156] Memory required for data: 818009200
I0403 12:55:37.826305  9885 layer_factory.hpp:77] Creating layer pool5
I0403 12:55:37.826329  9885 net.cpp:91] Creating Layer pool5
I0403 12:55:37.826346  9885 net.cpp:425] pool5 <- conv5
I0403 12:55:37.826365  9885 net.cpp:399] pool5 -> pool5
I0403 12:55:37.826428  9885 net.cpp:141] Setting up pool5
I0403 12:55:37.826452  9885 net.cpp:148] Top shape: 100 256 6 6 (921600)
I0403 12:55:37.826467  9885 net.cpp:156] Memory required for data: 821695600
I0403 12:55:37.826481  9885 layer_factory.hpp:77] Creating layer fc6
I0403 12:55:37.826511  9885 net.cpp:91] Creating Layer fc6
I0403 12:55:37.826530  9885 net.cpp:425] fc6 <- pool5
I0403 12:55:37.826552  9885 net.cpp:399] fc6 -> fc6
I0403 12:55:39.420887  9885 net.cpp:141] Setting up fc6
I0403 12:55:39.420966  9885 net.cpp:148] Top shape: 100 4096 (409600)
I0403 12:55:39.420982  9885 net.cpp:156] Memory required for data: 823334000
I0403 12:55:39.421003  9885 layer_factory.hpp:77] Creating layer relu6
I0403 12:55:39.421026  9885 net.cpp:91] Creating Layer relu6
I0403 12:55:39.421044  9885 net.cpp:425] relu6 <- fc6
I0403 12:55:39.421063  9885 net.cpp:386] relu6 -> fc6 (in-place)
I0403 12:55:39.421294  9885 net.cpp:141] Setting up relu6
I0403 12:55:39.421319  9885 net.cpp:148] Top shape: 100 4096 (409600)
I0403 12:55:39.421331  9885 net.cpp:156] Memory required for data: 824972400
I0403 12:55:39.421345  9885 layer_factory.hpp:77] Creating layer drop6
I0403 12:55:39.421365  9885 net.cpp:91] Creating Layer drop6
I0403 12:55:39.421378  9885 net.cpp:425] drop6 <- fc6
I0403 12:55:39.421396  9885 net.cpp:386] drop6 -> fc6 (in-place)
I0403 12:55:39.421448  9885 net.cpp:141] Setting up drop6
I0403 12:55:39.421473  9885 net.cpp:148] Top shape: 100 4096 (409600)
I0403 12:55:39.421488  9885 net.cpp:156] Memory required for data: 826610800
I0403 12:55:39.421501  9885 layer_factory.hpp:77] Creating layer fc7
I0403 12:55:39.421541  9885 net.cpp:91] Creating Layer fc7
I0403 12:55:39.421557  9885 net.cpp:425] fc7 <- fc6
I0403 12:55:39.421576  9885 net.cpp:399] fc7 -> fc7
I0403 12:55:41.835932  9885 net.cpp:141] Setting up fc7
I0403 12:55:41.836017  9885 net.cpp:148] Top shape: 100 4096 (409600)
I0403 12:55:41.836033  9885 net.cpp:156] Memory required for data: 828249200
I0403 12:55:41.836055  9885 layer_factory.hpp:77] Creating layer relu7
I0403 12:55:41.836077  9885 net.cpp:91] Creating Layer relu7
I0403 12:55:41.836094  9885 net.cpp:425] relu7 <- fc7
I0403 12:55:41.836115  9885 net.cpp:386] relu7 -> fc7 (in-place)
I0403 12:55:41.836504  9885 net.cpp:141] Setting up relu7
I0403 12:55:41.836531  9885 net.cpp:148] Top shape: 100 4096 (409600)
I0403 12:55:41.836592  9885 net.cpp:156] Memory required for data: 829887600
I0403 12:55:41.836611  9885 layer_factory.hpp:77] Creating layer drop7
I0403 12:55:41.836629  9885 net.cpp:91] Creating Layer drop7
I0403 12:55:41.836644  9885 net.cpp:425] drop7 <- fc7
I0403 12:55:41.836665  9885 net.cpp:386] drop7 -> fc7 (in-place)
I0403 12:55:41.836709  9885 net.cpp:141] Setting up drop7
I0403 12:55:41.836730  9885 net.cpp:148] Top shape: 100 4096 (409600)
I0403 12:55:41.836745  9885 net.cpp:156] Memory required for data: 831526000
I0403 12:55:41.836758  9885 layer_factory.hpp:77] Creating layer fc8_plantvillage
I0403 12:55:41.836781  9885 net.cpp:91] Creating Layer fc8_plantvillage
I0403 12:55:41.836796  9885 net.cpp:425] fc8_plantvillage <- fc7
I0403 12:55:41.836814  9885 net.cpp:399] fc8_plantvillage -> fc8_plantvillage
I0403 12:55:41.843734  9885 net.cpp:141] Setting up fc8_plantvillage
I0403 12:55:41.843767  9885 net.cpp:148] Top shape: 100 38 (3800)
I0403 12:55:41.843783  9885 net.cpp:156] Memory required for data: 831541200
I0403 12:55:41.843801  9885 layer_factory.hpp:77] Creating layer fc8_plantvillage_fc8_plantvillage_0_split
I0403 12:55:41.843819  9885 net.cpp:91] Creating Layer fc8_plantvillage_fc8_plantvillage_0_split
I0403 12:55:41.843834  9885 net.cpp:425] fc8_plantvillage_fc8_plantvillage_0_split <- fc8_plantvillage
I0403 12:55:41.843854  9885 net.cpp:399] fc8_plantvillage_fc8_plantvillage_0_split -> fc8_plantvillage_fc8_plantvillage_0_split_0
I0403 12:55:41.843875  9885 net.cpp:399] fc8_plantvillage_fc8_plantvillage_0_split -> fc8_plantvillage_fc8_plantvillage_0_split_1
I0403 12:55:41.843895  9885 net.cpp:399] fc8_plantvillage_fc8_plantvillage_0_split -> fc8_plantvillage_fc8_plantvillage_0_split_2
I0403 12:55:41.843973  9885 net.cpp:141] Setting up fc8_plantvillage_fc8_plantvillage_0_split
I0403 12:55:41.843997  9885 net.cpp:148] Top shape: 100 38 (3800)
I0403 12:55:41.844012  9885 net.cpp:148] Top shape: 100 38 (3800)
I0403 12:55:41.844027  9885 net.cpp:148] Top shape: 100 38 (3800)
I0403 12:55:41.844041  9885 net.cpp:156] Memory required for data: 831586800
I0403 12:55:41.844055  9885 layer_factory.hpp:77] Creating layer prob
I0403 12:55:41.844074  9885 net.cpp:91] Creating Layer prob
I0403 12:55:41.844089  9885 net.cpp:425] prob <- fc8_plantvillage_fc8_plantvillage_0_split_0
I0403 12:55:41.844110  9885 net.cpp:399] prob -> prob
I0403 12:55:41.844341  9885 net.cpp:141] Setting up prob
I0403 12:55:41.844370  9885 net.cpp:148] Top shape: 100 38 (3800)
I0403 12:55:41.844386  9885 net.cpp:156] Memory required for data: 831602000
I0403 12:55:41.844401  9885 layer_factory.hpp:77] Creating layer hdf5out
I0403 12:55:41.844420  9885 net.cpp:91] Creating Layer hdf5out
I0403 12:55:41.844435  9885 net.cpp:425] hdf5out <- prob
I0403 12:55:41.844451  9885 net.cpp:425] hdf5out <- label_data_1_split_0
I0403 12:55:41.846904  9885 net.cpp:141] Setting up hdf5out
…
