…
I0403 13:03:15.530097 10105 net.cpp:313] The NetState phase (1) differed from the phase (0) specified by a rule in layer data
I0403 13:03:15.530390 10105 net.cpp:49] Initializing net from parameters: 
state {
  phase: TEST
}
layer {
  name: "data"
  type: "Data"
  top: "data"
  top: "label"
  include {
    phase: TEST
  }
  transform_param {
    crop_size: 227
    mean_file: "/home/mohanty/data/final_dataset/lmdb/grayscale-50-50/mean.binaryproto"
  }
  data_param {
    source: "/home/mohanty/data/final_dataset/lmdb/grayscale-50-50/test_db"
    batch_size: 100
    backend: LMDB
  }
}
layer {
  name: "conv1"
  type: "Convolution"
  bottom: "data"
  top: "conv1"
  param {
    lr_mult: 1
    decay_mult: 1
  }
  param {
    lr_mult: 2
    decay_mult: 0
  }
  convolution_param {
    num_output: 96
    kernel_size: 11
    stride: 4
    weight_filler {
      type: "gaussian"
      std: 0.01
    }
    bias_filler {
      type: "constant"
      value: 0
    }
  }
}
layer {
  name: "relu1"
  type: "ReLU"
  bottom: "conv1"
  top: "conv1"
}
layer {
  name: "norm1"
  type: "LRN"
  bottom: "conv1"
  top: "norm1"
  lrn_param {
    local_size: 5
    alpha: 0.0001
    beta: 0.75
  }
}
layer {
  name: "pool1"
  type: "Pooling"
  bottom: "norm1"
  top: "pool1"
  pooling_param {
    pool: MAX
    kernel_size: 3
    stride: 2
  }
}
layer {
  name: "conv2"
  type: "Convolution"
  bottom: "pool1"
  top: "conv2"
  param {
    lr_mult: 1
    decay_mult: 1
  }
  param {
    lr_mult: 2
    decay_mult: 0
  }
  convolution_param {
    num_output: 256
    pad: 2
    kernel_size: 5
    group: 2
    weight_filler {
      type: "gaussian"
      std: 0.01
    }
    bias_filler {
      type: "constant"
      value: 0.1
    }
  }
}
layer {
  name: "relu2"
  type: "ReLU"
  bottom: "conv2"
  top: "conv2"
}
layer {
  name: "norm2"
  type: "LRN"
  bottom: "conv2"
  top: "norm2"
  lrn_param {
    local_size: 5
    alpha: 0.0001
    beta: 0.75
  }
}
layer {
  name: "pool2"
  type: "Pooling"
  bottom: "norm2"
  top: "pool2"
  pooling_param {
    pool: MAX
    kernel_size: 3
    stride: 2
  }
}
layer {
  name: "conv3"
  type: "Convolution"
  bottom: "pool2"
  top: "conv3"
  param {
    lr_mult: 1
    decay_mult: 1
  }
  param {
    lr_mult: 2
    decay_mult: 0
  }
  convolution_param {
    num_output: 384
    pad: 1
    kernel_size: 3
    weight_filler {
      type: "gaussian"
      std: 0.01
    }
    bias_filler {
      type: "constant"
      value: 0
    }
  }
}
layer {
  name: "relu3"
  type: "ReLU"
  bottom: "conv3"
  top: "conv3"
}
layer {
  name: "conv4"
  type: "Convolution"
  bottom: "conv3"
  top: "conv4"
  param {
    lr_mult: 1
    decay_mult: 1
  }
  param {
    lr_mult: 2
    decay_mult: 0
  }
  convolution_param {
    num_output: 384
    pad: 1
    kernel_size: 3
    group: 2
    weight_filler {
      type: "gaussian"
      std: 0.01
    }
    bias_filler {
      type: "constant"
      value: 0.1
    }
  }
}
layer {
  name: "relu4"
  type: "ReLU"
  bottom: "conv4"
  top: "conv4"
}
layer {
  name: "conv5"
  type: "Convolution"
  bottom: "conv4"
  top: "conv5"
  param {
    lr_mult: 1
    decay_mult: 1
  }
  param {
    lr_mult: 2
    decay_mult: 0
  }
  convolution_param {
    num_output: 256
    pad: 1
    kernel_size: 3
    group: 2
    weight_filler {
      type: "gaussian"
      std: 0.01
    }
    bias_filler {
      type: "constant"
      value: 0.1
    }
  }
}
layer {
  name: "relu5"
  type: "ReLU"
  bottom: "conv5"
  top: "conv5"
}
layer {
  name: "pool5"
  type: "Pooling"
  bottom: "conv5"
  top: "pool5"
  pooling_param {
    pool: MAX
    kernel_size: 3
    stride: 2
  }
}
layer {
  name: "fc6"
  type: "InnerProduct"
  bottom: "pool5"
  top: "fc6"
  param {
    lr_mult: 1
    decay_mult: 1
  }
  param {
    lr_mult: 2
    decay_mult: 0
  }
  inner_product_param {
    num_output: 4096
    weight_filler {
      type: "gaussian"
      std: 0.005
    }
    bias_filler {
      type: "constant"
      value: 0.1
    }
  }
}
layer {
  name: "relu6"
  type: "ReLU"
  bottom: "fc6"
  top: "fc6"
}
layer {
  name: "drop6"
  type: "Dropout"
  bottom: "fc6"
  top: "fc6"
  dropout_param {
    dropout_ratio: 0.5
  }
}
layer {
  name: "fc7"
  type: "InnerProduct"
  bottom: "fc6"
  top: "fc7"
  param {
    lr_mult: 1
    decay_mult: 1
  }
  param {
    lr_mult: 2
    decay_mult: 0
  }
  inner_product_param {
    num_output: 4096
    weight_filler {
      type: "gaussian"
      std: 0.005
    }
    bias_filler {
      type: "constant"
      value: 0.1
    }
  }
}
layer {
  name: "relu7"
  type: "ReLU"
  bottom: "fc7"
  top: "fc7"
}
layer {
  name: "drop7"
  type: "Dropout"
  bottom: "fc7"
  top: "fc7"
  dropout_param {
    dropout_ratio: 0.5
  }
}
layer {
  name: "fc8_plantvillage"
  type: "InnerProduct"
  bottom: "fc7"
  top: "fc8_plantvillage"
  param {
    lr_mult: 1
    decay_mult: 1
  }
  param {
    lr_mult: 2
    decay_mult: 0
  }
  inner_product_param {
    num_output: 38
    weight_filler {
      type: "gaussian"
      std: 0.01
    }
    bias_filler {
      type: "constant"
      value: 0
    }
  }
}
layer {
  name: "prob"
  type: "Softmax"
  bottom: "fc8_plantvillage"
  top: "prob"
  include {
    phase: TEST
  }
}
layer {
  name: "hdf5out"
  type: "HDF5Output"
  bottom: "prob"
  bottom: "label"
  include {
    phase: TEST
  }
  hdf5_output_param {
    file_name: "hdf5_dumps/iter_4539.h5"
  }
}
layer {
  name: "loss"
  type: "SoftmaxWithLoss"
  bottom: "fc8_plantvillage"
  bottom: "label"
  top: "loss"
}
layer {
  name: "accuracy"
  type: "Accuracy"
  bottom: "fc8_plantvillage"
  bottom: "label"
  top: "accuracy"
  include {
    phase: TEST
  }
}
I0403 13:03:15.531039 10105 layer_factory.hpp:77] Creating layer data
I0403 13:03:15.531698 10105 net.cpp:91] Creating Layer data
I0403 13:03:15.531731 10105 net.cpp:399] data -> data
I0403 13:03:15.531781 10105 net.cpp:399] data -> label
I0403 13:03:15.531829 10105 data_transformer.cpp:25] Loading mean file from: /home/mohanty/data/final_dataset/lmdb/grayscale-50-50/mean.binaryproto
I0403 13:03:15.533218 10108 db_lmdb.cpp:38] Opened lmdb /home/mohanty/data/final_dataset/lmdb/grayscale-50-50/test_db
I0403 13:03:15.548085 10105 data_layer.cpp:41] output data size: 100,3,227,227
I0403 13:03:15.753073 10105 net.cpp:141] Setting up data
I0403 13:03:15.753144 10105 net.cpp:148] Top shape: 100 3 227 227 (15458700)
I0403 13:03:15.753168 10105 net.cpp:148] Top shape: 100 (100)
I0403 13:03:15.753185 10105 net.cpp:156] Memory required for data: 61835200
I0403 13:03:15.753211 10105 layer_factory.hpp:77] Creating layer label_data_1_split
I0403 13:03:15.753237 10105 net.cpp:91] Creating Layer label_data_1_split
I0403 13:03:15.753253 10105 net.cpp:425] label_data_1_split <- label
I0403 13:03:15.753281 10105 net.cpp:399] label_data_1_split -> label_data_1_split_0
I0403 13:03:15.753314 10105 net.cpp:399] label_data_1_split -> label_data_1_split_1
I0403 13:03:15.753334 10105 net.cpp:399] label_data_1_split -> label_data_1_split_2
I0403 13:03:15.753396 10105 net.cpp:141] Setting up label_data_1_split
I0403 13:03:15.753422 10105 net.cpp:148] Top shape: 100 (100)
I0403 13:03:15.753439 10105 net.cpp:148] Top shape: 100 (100)
I0403 13:03:15.753458 10105 net.cpp:148] Top shape: 100 (100)
I0403 13:03:15.753473 10105 net.cpp:156] Memory required for data: 61836400
I0403 13:03:15.753487 10105 layer_factory.hpp:77] Creating layer conv1
I0403 13:03:15.753520 10105 net.cpp:91] Creating Layer conv1
I0403 13:03:15.753542 10105 net.cpp:425] conv1 <- data
I0403 13:03:15.753563 10105 net.cpp:399] conv1 -> conv1
I0403 13:03:17.974495 10105 net.cpp:141] Setting up conv1
I0403 13:03:17.974594 10105 net.cpp:148] Top shape: 100 96 55 55 (29040000)
I0403 13:03:17.974613 10105 net.cpp:156] Memory required for data: 177996400
I0403 13:03:17.974647 10105 layer_factory.hpp:77] Creating layer relu1
I0403 13:03:17.974673 10105 net.cpp:91] Creating Layer relu1
I0403 13:03:17.974691 10105 net.cpp:425] relu1 <- conv1
I0403 13:03:17.974711 10105 net.cpp:386] relu1 -> conv1 (in-place)
I0403 13:03:17.980597 10105 net.cpp:141] Setting up relu1
I0403 13:03:17.980684 10105 net.cpp:148] Top shape: 100 96 55 55 (29040000)
I0403 13:03:17.980747 10105 net.cpp:156] Memory required for data: 294156400
I0403 13:03:17.980767 10105 layer_factory.hpp:77] Creating layer norm1
I0403 13:03:17.980806 10105 net.cpp:91] Creating Layer norm1
I0403 13:03:17.980825 10105 net.cpp:425] norm1 <- conv1
I0403 13:03:17.980847 10105 net.cpp:399] norm1 -> norm1
I0403 13:03:17.981319 10105 net.cpp:141] Setting up norm1
I0403 13:03:17.981349 10105 net.cpp:148] Top shape: 100 96 55 55 (29040000)
I0403 13:03:17.981364 10105 net.cpp:156] Memory required for data: 410316400
I0403 13:03:17.981379 10105 layer_factory.hpp:77] Creating layer pool1
I0403 13:03:17.981405 10105 net.cpp:91] Creating Layer pool1
I0403 13:03:17.981421 10105 net.cpp:425] pool1 <- norm1
I0403 13:03:17.981441 10105 net.cpp:399] pool1 -> pool1
I0403 13:03:17.981519 10105 net.cpp:141] Setting up pool1
I0403 13:03:17.981549 10105 net.cpp:148] Top shape: 100 96 27 27 (6998400)
I0403 13:03:17.981565 10105 net.cpp:156] Memory required for data: 438310000
I0403 13:03:17.981580 10105 layer_factory.hpp:77] Creating layer conv2
I0403 13:03:17.981617 10105 net.cpp:91] Creating Layer conv2
I0403 13:03:17.981634 10105 net.cpp:425] conv2 <- pool1
I0403 13:03:17.981652 10105 net.cpp:399] conv2 -> conv2
I0403 13:03:18.015566 10105 net.cpp:141] Setting up conv2
I0403 13:03:18.015666 10105 net.cpp:148] Top shape: 100 256 27 27 (18662400)
I0403 13:03:18.015683 10105 net.cpp:156] Memory required for data: 512959600
I0403 13:03:18.015710 10105 layer_factory.hpp:77] Creating layer relu2
I0403 13:03:18.015733 10105 net.cpp:91] Creating Layer relu2
I0403 13:03:18.015749 10105 net.cpp:425] relu2 <- conv2
I0403 13:03:18.015769 10105 net.cpp:386] relu2 -> conv2 (in-place)
I0403 13:03:18.016166 10105 net.cpp:141] Setting up relu2
I0403 13:03:18.016192 10105 net.cpp:148] Top shape: 100 256 27 27 (18662400)
I0403 13:03:18.016207 10105 net.cpp:156] Memory required for data: 587609200
I0403 13:03:18.016222 10105 layer_factory.hpp:77] Creating layer norm2
I0403 13:03:18.016247 10105 net.cpp:91] Creating Layer norm2
I0403 13:03:18.016264 10105 net.cpp:425] norm2 <- conv2
I0403 13:03:18.016283 10105 net.cpp:399] norm2 -> norm2
I0403 13:03:18.016502 10105 net.cpp:141] Setting up norm2
I0403 13:03:18.016530 10105 net.cpp:148] Top shape: 100 256 27 27 (18662400)
I0403 13:03:18.016551 10105 net.cpp:156] Memory required for data: 662258800
I0403 13:03:18.016566 10105 layer_factory.hpp:77] Creating layer pool2
I0403 13:03:18.016597 10105 net.cpp:91] Creating Layer pool2
I0403 13:03:18.016612 10105 net.cpp:425] pool2 <- norm2
I0403 13:03:18.016628 10105 net.cpp:399] pool2 -> pool2
I0403 13:03:18.016680 10105 net.cpp:141] Setting up pool2
I0403 13:03:18.016702 10105 net.cpp:148] Top shape: 100 256 13 13 (4326400)
I0403 13:03:18.016716 10105 net.cpp:156] Memory required for data: 679564400
I0403 13:03:18.016731 10105 layer_factory.hpp:77] Creating layer conv3
I0403 13:03:18.016755 10105 net.cpp:91] Creating Layer conv3
I0403 13:03:18.016772 10105 net.cpp:425] conv3 <- pool2
I0403 13:03:18.016791 10105 net.cpp:399] conv3 -> conv3
I0403 13:03:18.063632 10105 net.cpp:141] Setting up conv3
I0403 13:03:18.063717 10105 net.cpp:148] Top shape: 100 384 13 13 (6489600)
I0403 13:03:18.063735 10105 net.cpp:156] Memory required for data: 705522800
I0403 13:03:18.063760 10105 layer_factory.hpp:77] Creating layer relu3
I0403 13:03:18.063781 10105 net.cpp:91] Creating Layer relu3
I0403 13:03:18.063798 10105 net.cpp:425] relu3 <- conv3
I0403 13:03:18.063818 10105 net.cpp:386] relu3 -> conv3 (in-place)
I0403 13:03:18.064090 10105 net.cpp:141] Setting up relu3
I0403 13:03:18.064118 10105 net.cpp:148] Top shape: 100 384 13 13 (6489600)
I0403 13:03:18.064134 10105 net.cpp:156] Memory required for data: 731481200
I0403 13:03:18.064148 10105 layer_factory.hpp:77] Creating layer conv4
I0403 13:03:18.064173 10105 net.cpp:91] Creating Layer conv4
I0403 13:03:18.064189 10105 net.cpp:425] conv4 <- conv3
I0403 13:03:18.064208 10105 net.cpp:399] conv4 -> conv4
I0403 13:03:18.093957 10105 net.cpp:141] Setting up conv4
I0403 13:03:18.094030 10105 net.cpp:148] Top shape: 100 384 13 13 (6489600)
I0403 13:03:18.094076 10105 net.cpp:156] Memory required for data: 757439600
I0403 13:03:18.094099 10105 layer_factory.hpp:77] Creating layer relu4
I0403 13:03:18.094123 10105 net.cpp:91] Creating Layer relu4
I0403 13:03:18.094141 10105 net.cpp:425] relu4 <- conv4
I0403 13:03:18.094159 10105 net.cpp:386] relu4 -> conv4 (in-place)
I0403 13:03:18.094449 10105 net.cpp:141] Setting up relu4
I0403 13:03:18.094477 10105 net.cpp:148] Top shape: 100 384 13 13 (6489600)
I0403 13:03:18.094492 10105 net.cpp:156] Memory required for data: 783398000
I0403 13:03:18.094507 10105 layer_factory.hpp:77] Creating layer conv5
I0403 13:03:18.094532 10105 net.cpp:91] Creating Layer conv5
I0403 13:03:18.094564 10105 net.cpp:425] conv5 <- conv4
I0403 13:03:18.094596 10105 net.cpp:399] conv5 -> conv5
I0403 13:03:18.115183 10105 net.cpp:141] Setting up conv5
I0403 13:03:18.115252 10105 net.cpp:148] Top shape: 100 256 13 13 (4326400)
I0403 13:03:18.115269 10105 net.cpp:156] Memory required for data: 800703600
I0403 13:03:18.115293 10105 layer_factory.hpp:77] Creating layer relu5
I0403 13:03:18.115316 10105 net.cpp:91] Creating Layer relu5
I0403 13:03:18.115334 10105 net.cpp:425] relu5 <- conv5
I0403 13:03:18.115351 10105 net.cpp:386] relu5 -> conv5 (in-place)
I0403 13:03:18.115628 10105 net.cpp:141] Setting up relu5
I0403 13:03:18.115658 10105 net.cpp:148] Top shape: 100 256 13 13 (4326400)
I0403 13:03:18.115674 10105 net.cpp:156] Memory required for data: 818009200
I0403 13:03:18.115687 10105 layer_factory.hpp:77] Creating layer pool5
I0403 13:03:18.115710 10105 net.cpp:91] Creating Layer pool5
I0403 13:03:18.115725 10105 net.cpp:425] pool5 <- conv5
I0403 13:03:18.115746 10105 net.cpp:399] pool5 -> pool5
I0403 13:03:18.115806 10105 net.cpp:141] Setting up pool5
I0403 13:03:18.115831 10105 net.cpp:148] Top shape: 100 256 6 6 (921600)
I0403 13:03:18.115844 10105 net.cpp:156] Memory required for data: 821695600
I0403 13:03:18.115859 10105 layer_factory.hpp:77] Creating layer fc6
I0403 13:03:18.115886 10105 net.cpp:91] Creating Layer fc6
I0403 13:03:18.115903 10105 net.cpp:425] fc6 <- pool5
I0403 13:03:18.115923 10105 net.cpp:399] fc6 -> fc6
I0403 13:03:19.685027 10105 net.cpp:141] Setting up fc6
I0403 13:03:19.685106 10105 net.cpp:148] Top shape: 100 4096 (409600)
I0403 13:03:19.685122 10105 net.cpp:156] Memory required for data: 823334000
I0403 13:03:19.685142 10105 layer_factory.hpp:77] Creating layer relu6
I0403 13:03:19.685165 10105 net.cpp:91] Creating Layer relu6
I0403 13:03:19.685183 10105 net.cpp:425] relu6 <- fc6
I0403 13:03:19.685200 10105 net.cpp:386] relu6 -> fc6 (in-place)
I0403 13:03:19.685427 10105 net.cpp:141] Setting up relu6
I0403 13:03:19.685452 10105 net.cpp:148] Top shape: 100 4096 (409600)
I0403 13:03:19.685467 10105 net.cpp:156] Memory required for data: 824972400
I0403 13:03:19.685482 10105 layer_factory.hpp:77] Creating layer drop6
I0403 13:03:19.685500 10105 net.cpp:91] Creating Layer drop6
I0403 13:03:19.685514 10105 net.cpp:425] drop6 <- fc6
I0403 13:03:19.685529 10105 net.cpp:386] drop6 -> fc6 (in-place)
I0403 13:03:19.685606 10105 net.cpp:141] Setting up drop6
I0403 13:03:19.685628 10105 net.cpp:148] Top shape: 100 4096 (409600)
I0403 13:03:19.685642 10105 net.cpp:156] Memory required for data: 826610800
I0403 13:03:19.685657 10105 layer_factory.hpp:77] Creating layer fc7
I0403 13:03:19.685678 10105 net.cpp:91] Creating Layer fc7
I0403 13:03:19.685694 10105 net.cpp:425] fc7 <- fc6
I0403 13:03:19.685710 10105 net.cpp:399] fc7 -> fc7
I0403 13:03:20.351155 10105 net.cpp:141] Setting up fc7
I0403 13:03:20.351238 10105 net.cpp:148] Top shape: 100 4096 (409600)
I0403 13:03:20.351253 10105 net.cpp:156] Memory required for data: 828249200
I0403 13:03:20.351274 10105 layer_factory.hpp:77] Creating layer relu7
I0403 13:03:20.351296 10105 net.cpp:91] Creating Layer relu7
I0403 13:03:20.351313 10105 net.cpp:425] relu7 <- fc7
I0403 13:03:20.351331 10105 net.cpp:386] relu7 -> fc7 (in-place)
I0403 13:03:20.351724 10105 net.cpp:141] Setting up relu7
I0403 13:03:20.351752 10105 net.cpp:148] Top shape: 100 4096 (409600)
I0403 13:03:20.351807 10105 net.cpp:156] Memory required for data: 829887600
I0403 13:03:20.351822 10105 layer_factory.hpp:77] Creating layer drop7
I0403 13:03:20.351840 10105 net.cpp:91] Creating Layer drop7
I0403 13:03:20.351855 10105 net.cpp:425] drop7 <- fc7
I0403 13:03:20.351872 10105 net.cpp:386] drop7 -> fc7 (in-place)
I0403 13:03:20.351915 10105 net.cpp:141] Setting up drop7
I0403 13:03:20.351936 10105 net.cpp:148] Top shape: 100 4096 (409600)
I0403 13:03:20.351950 10105 net.cpp:156] Memory required for data: 831526000
I0403 13:03:20.351963 10105 layer_factory.hpp:77] Creating layer fc8_plantvillage
I0403 13:03:20.351984 10105 net.cpp:91] Creating Layer fc8_plantvillage
I0403 13:03:20.352000 10105 net.cpp:425] fc8_plantvillage <- fc7
I0403 13:03:20.352016 10105 net.cpp:399] fc8_plantvillage -> fc8_plantvillage
I0403 13:03:20.358531 10105 net.cpp:141] Setting up fc8_plantvillage
I0403 13:03:20.358563 10105 net.cpp:148] Top shape: 100 38 (3800)
I0403 13:03:20.358578 10105 net.cpp:156] Memory required for data: 831541200
I0403 13:03:20.358595 10105 layer_factory.hpp:77] Creating layer fc8_plantvillage_fc8_plantvillage_0_split
I0403 13:03:20.358613 10105 net.cpp:91] Creating Layer fc8_plantvillage_fc8_plantvillage_0_split
I0403 13:03:20.358628 10105 net.cpp:425] fc8_plantvillage_fc8_plantvillage_0_split <- fc8_plantvillage
I0403 13:03:20.358644 10105 net.cpp:399] fc8_plantvillage_fc8_plantvillage_0_split -> fc8_plantvillage_fc8_plantvillage_0_split_0
I0403 13:03:20.358664 10105 net.cpp:399] fc8_plantvillage_fc8_plantvillage_0_split -> fc8_plantvillage_fc8_plantvillage_0_split_1
I0403 13:03:20.358685 10105 net.cpp:399] fc8_plantvillage_fc8_plantvillage_0_split -> fc8_plantvillage_fc8_plantvillage_0_split_2
I0403 13:03:20.358759 10105 net.cpp:141] Setting up fc8_plantvillage_fc8_plantvillage_0_split
I0403 13:03:20.358782 10105 net.cpp:148] Top shape: 100 38 (3800)
I0403 13:03:20.358796 10105 net.cpp:148] Top shape: 100 38 (3800)
I0403 13:03:20.358810 10105 net.cpp:148] Top shape: 100 38 (3800)
I0403 13:03:20.358822 10105 net.cpp:156] Memory required for data: 831586800
I0403 13:03:20.358835 10105 layer_factory.hpp:77] Creating layer prob
I0403 13:03:20.358853 10105 net.cpp:91] Creating Layer prob
I0403 13:03:20.358866 10105 net.cpp:425] prob <- fc8_plantvillage_fc8_plantvillage_0_split_0
I0403 13:03:20.358883 10105 net.cpp:399] prob -> prob
I0403 13:03:20.359097 10105 net.cpp:141] Setting up prob
I0403 13:03:20.359122 10105 net.cpp:148] Top shape: 100 38 (3800)
I0403 13:03:20.359135 10105 net.cpp:156] Memory required for data: 831602000
I0403 13:03:20.359149 10105 layer_factory.hpp:77] Creating layer hdf5out
I0403 13:03:20.359169 10105 net.cpp:91] Creating Layer hdf5out
I0403 13:03:20.359185 10105 net.cpp:425] hdf5out <- prob
I0403 13:03:20.359200 10105 net.cpp:425] hdf5out <- label_data_1_split_0
I0403 13:03:20.361717 10105 net.cpp:141] Setting up hdf5out
…
