…
I0403 13:09:57.031061 10414 net.cpp:313] The NetState phase (1) differed from the phase (0) specified by a rule in layer data
I0403 13:09:57.031361 10414 net.cpp:49] Initializing net from parameters: 
state {
  phase: TEST
}
layer {
  name: "data"
  type: "Data"
  top: "data"
  top: "label"
  include {
    phase: TEST
  }
  transform_param {
    crop_size: 227
    mean_file: "/home/mohanty/data/final_dataset/lmdb/grayscale-50-50/mean.binaryproto"
  }
  data_param {
    source: "/home/mohanty/data/final_dataset/lmdb/grayscale-50-50/test_db"
    batch_size: 100
    backend: LMDB
  }
}
layer {
  name: "conv1"
  type: "Convolution"
  bottom: "data"
  top: "conv1"
  param {
    lr_mult: 1
    decay_mult: 1
  }
  param {
    lr_mult: 2
    decay_mult: 0
  }
  convolution_param {
    num_output: 96
    kernel_size: 11
    stride: 4
    weight_filler {
      type: "gaussian"
      std: 0.01
    }
    bias_filler {
      type: "constant"
      value: 0
    }
  }
}
layer {
  name: "relu1"
  type: "ReLU"
  bottom: "conv1"
  top: "conv1"
}
layer {
  name: "norm1"
  type: "LRN"
  bottom: "conv1"
  top: "norm1"
  lrn_param {
    local_size: 5
    alpha: 0.0001
    beta: 0.75
  }
}
layer {
  name: "pool1"
  type: "Pooling"
  bottom: "norm1"
  top: "pool1"
  pooling_param {
    pool: MAX
    kernel_size: 3
    stride: 2
  }
}
layer {
  name: "conv2"
  type: "Convolution"
  bottom: "pool1"
  top: "conv2"
  param {
    lr_mult: 1
    decay_mult: 1
  }
  param {
    lr_mult: 2
    decay_mult: 0
  }
  convolution_param {
    num_output: 256
    pad: 2
    kernel_size: 5
    group: 2
    weight_filler {
      type: "gaussian"
      std: 0.01
    }
    bias_filler {
      type: "constant"
      value: 0.1
    }
  }
}
layer {
  name: "relu2"
  type: "ReLU"
  bottom: "conv2"
  top: "conv2"
}
layer {
  name: "norm2"
  type: "LRN"
  bottom: "conv2"
  top: "norm2"
  lrn_param {
    local_size: 5
    alpha: 0.0001
    beta: 0.75
  }
}
layer {
  name: "pool2"
  type: "Pooling"
  bottom: "norm2"
  top: "pool2"
  pooling_param {
    pool: MAX
    kernel_size: 3
    stride: 2
  }
}
layer {
  name: "conv3"
  type: "Convolution"
  bottom: "pool2"
  top: "conv3"
  param {
    lr_mult: 1
    decay_mult: 1
  }
  param {
    lr_mult: 2
    decay_mult: 0
  }
  convolution_param {
    num_output: 384
    pad: 1
    kernel_size: 3
    weight_filler {
      type: "gaussian"
      std: 0.01
    }
    bias_filler {
      type: "constant"
      value: 0
    }
  }
}
layer {
  name: "relu3"
  type: "ReLU"
  bottom: "conv3"
  top: "conv3"
}
layer {
  name: "conv4"
  type: "Convolution"
  bottom: "conv3"
  top: "conv4"
  param {
    lr_mult: 1
    decay_mult: 1
  }
  param {
    lr_mult: 2
    decay_mult: 0
  }
  convolution_param {
    num_output: 384
    pad: 1
    kernel_size: 3
    group: 2
    weight_filler {
      type: "gaussian"
      std: 0.01
    }
    bias_filler {
      type: "constant"
      value: 0.1
    }
  }
}
layer {
  name: "relu4"
  type: "ReLU"
  bottom: "conv4"
  top: "conv4"
}
layer {
  name: "conv5"
  type: "Convolution"
  bottom: "conv4"
  top: "conv5"
  param {
    lr_mult: 1
    decay_mult: 1
  }
  param {
    lr_mult: 2
    decay_mult: 0
  }
  convolution_param {
    num_output: 256
    pad: 1
    kernel_size: 3
    group: 2
    weight_filler {
      type: "gaussian"
      std: 0.01
    }
    bias_filler {
      type: "constant"
      value: 0.1
    }
  }
}
layer {
  name: "relu5"
  type: "ReLU"
  bottom: "conv5"
  top: "conv5"
}
layer {
  name: "pool5"
  type: "Pooling"
  bottom: "conv5"
  top: "pool5"
  pooling_param {
    pool: MAX
    kernel_size: 3
    stride: 2
  }
}
layer {
  name: "fc6"
  type: "InnerProduct"
  bottom: "pool5"
  top: "fc6"
  param {
    lr_mult: 1
    decay_mult: 1
  }
  param {
    lr_mult: 2
    decay_mult: 0
  }
  inner_product_param {
    num_output: 4096
    weight_filler {
      type: "gaussian"
      std: 0.005
    }
    bias_filler {
      type: "constant"
      value: 0.1
    }
  }
}
layer {
  name: "relu6"
  type: "ReLU"
  bottom: "fc6"
  top: "fc6"
}
layer {
  name: "drop6"
  type: "Dropout"
  bottom: "fc6"
  top: "fc6"
  dropout_param {
    dropout_ratio: 0.5
  }
}
layer {
  name: "fc7"
  type: "InnerProduct"
  bottom: "fc6"
  top: "fc7"
  param {
    lr_mult: 1
    decay_mult: 1
  }
  param {
    lr_mult: 2
    decay_mult: 0
  }
  inner_product_param {
    num_output: 4096
    weight_filler {
      type: "gaussian"
      std: 0.005
    }
    bias_filler {
      type: "constant"
      value: 0.1
    }
  }
}
layer {
  name: "relu7"
  type: "ReLU"
  bottom: "fc7"
  top: "fc7"
}
layer {
  name: "drop7"
  type: "Dropout"
  bottom: "fc7"
  top: "fc7"
  dropout_param {
    dropout_ratio: 0.5
  }
}
layer {
  name: "fc8_plantvillage"
  type: "InnerProduct"
  bottom: "fc7"
  top: "fc8_plantvillage"
  param {
    lr_mult: 1
    decay_mult: 1
  }
  param {
    lr_mult: 2
    decay_mult: 0
  }
  inner_product_param {
    num_output: 38
    weight_filler {
      type: "gaussian"
      std: 0.01
    }
    bias_filler {
      type: "constant"
      value: 0
    }
  }
}
layer {
  name: "prob"
  type: "Softmax"
  bottom: "fc8_plantvillage"
  top: "prob"
  include {
    phase: TEST
  }
}
layer {
  name: "hdf5out"
  type: "HDF5Output"
  bottom: "prob"
  bottom: "label"
  include {
    phase: TEST
  }
  hdf5_output_param {
    file_name: "hdf5_dumps/iter_6408.h5"
  }
}
layer {
  name: "loss"
  type: "SoftmaxWithLoss"
  bottom: "fc8_plantvillage"
  bottom: "label"
  top: "loss"
}
layer {
  name: "accuracy"
  type: "Accuracy"
  bottom: "fc8_plantvillage"
  bottom: "label"
  top: "accuracy"
  include {
    phase: TEST
  }
}
I0403 13:09:57.032088 10414 layer_factory.hpp:77] Creating layer data
I0403 13:09:57.032747 10414 net.cpp:91] Creating Layer data
I0403 13:09:57.032780 10414 net.cpp:399] data -> data
I0403 13:09:57.032831 10414 net.cpp:399] data -> label
I0403 13:09:57.032868 10414 data_transformer.cpp:25] Loading mean file from: /home/mohanty/data/final_dataset/lmdb/grayscale-50-50/mean.binaryproto
I0403 13:09:57.034021 10417 db_lmdb.cpp:38] Opened lmdb /home/mohanty/data/final_dataset/lmdb/grayscale-50-50/test_db
I0403 13:09:57.047595 10414 data_layer.cpp:41] output data size: 100,3,227,227
I0403 13:09:57.167192 10414 net.cpp:141] Setting up data
I0403 13:09:57.167286 10414 net.cpp:148] Top shape: 100 3 227 227 (15458700)
I0403 13:09:57.167309 10414 net.cpp:148] Top shape: 100 (100)
I0403 13:09:57.167325 10414 net.cpp:156] Memory required for data: 61835200
I0403 13:09:57.167356 10414 layer_factory.hpp:77] Creating layer label_data_1_split
I0403 13:09:57.167382 10414 net.cpp:91] Creating Layer label_data_1_split
I0403 13:09:57.167402 10414 net.cpp:425] label_data_1_split <- label
I0403 13:09:57.167434 10414 net.cpp:399] label_data_1_split -> label_data_1_split_0
I0403 13:09:57.167462 10414 net.cpp:399] label_data_1_split -> label_data_1_split_1
I0403 13:09:57.167482 10414 net.cpp:399] label_data_1_split -> label_data_1_split_2
I0403 13:09:57.167551 10414 net.cpp:141] Setting up label_data_1_split
I0403 13:09:57.167575 10414 net.cpp:148] Top shape: 100 (100)
I0403 13:09:57.167592 10414 net.cpp:148] Top shape: 100 (100)
I0403 13:09:57.167606 10414 net.cpp:148] Top shape: 100 (100)
I0403 13:09:57.167620 10414 net.cpp:156] Memory required for data: 61836400
I0403 13:09:57.167635 10414 layer_factory.hpp:77] Creating layer conv1
I0403 13:09:57.167666 10414 net.cpp:91] Creating Layer conv1
I0403 13:09:57.167685 10414 net.cpp:425] conv1 <- data
I0403 13:09:57.167703 10414 net.cpp:399] conv1 -> conv1
I0403 13:09:57.305459 10414 net.cpp:141] Setting up conv1
I0403 13:09:57.305527 10414 net.cpp:148] Top shape: 100 96 55 55 (29040000)
I0403 13:09:57.305549 10414 net.cpp:156] Memory required for data: 177996400
I0403 13:09:57.305583 10414 layer_factory.hpp:77] Creating layer relu1
I0403 13:09:57.305614 10414 net.cpp:91] Creating Layer relu1
I0403 13:09:57.305634 10414 net.cpp:425] relu1 <- conv1
I0403 13:09:57.305652 10414 net.cpp:386] relu1 -> conv1 (in-place)
I0403 13:09:57.305909 10414 net.cpp:141] Setting up relu1
I0403 13:09:57.305937 10414 net.cpp:148] Top shape: 100 96 55 55 (29040000)
I0403 13:09:57.305985 10414 net.cpp:156] Memory required for data: 294156400
I0403 13:09:57.306002 10414 layer_factory.hpp:77] Creating layer norm1
I0403 13:09:57.306030 10414 net.cpp:91] Creating Layer norm1
I0403 13:09:57.306047 10414 net.cpp:425] norm1 <- conv1
I0403 13:09:57.306066 10414 net.cpp:399] norm1 -> norm1
I0403 13:09:57.306372 10414 net.cpp:141] Setting up norm1
I0403 13:09:57.306401 10414 net.cpp:148] Top shape: 100 96 55 55 (29040000)
I0403 13:09:57.306416 10414 net.cpp:156] Memory required for data: 410316400
I0403 13:09:57.306432 10414 layer_factory.hpp:77] Creating layer pool1
I0403 13:09:57.306453 10414 net.cpp:91] Creating Layer pool1
I0403 13:09:57.306470 10414 net.cpp:425] pool1 <- norm1
I0403 13:09:57.306488 10414 net.cpp:399] pool1 -> pool1
I0403 13:09:57.306568 10414 net.cpp:141] Setting up pool1
I0403 13:09:57.306593 10414 net.cpp:148] Top shape: 100 96 27 27 (6998400)
I0403 13:09:57.306608 10414 net.cpp:156] Memory required for data: 438310000
I0403 13:09:57.306622 10414 layer_factory.hpp:77] Creating layer conv2
I0403 13:09:57.306646 10414 net.cpp:91] Creating Layer conv2
I0403 13:09:57.306663 10414 net.cpp:425] conv2 <- pool1
I0403 13:09:57.306681 10414 net.cpp:399] conv2 -> conv2
I0403 13:09:57.321549 10414 net.cpp:141] Setting up conv2
I0403 13:09:57.321598 10414 net.cpp:148] Top shape: 100 256 27 27 (18662400)
I0403 13:09:57.321615 10414 net.cpp:156] Memory required for data: 512959600
I0403 13:09:57.321638 10414 layer_factory.hpp:77] Creating layer relu2
I0403 13:09:57.321660 10414 net.cpp:91] Creating Layer relu2
I0403 13:09:57.321676 10414 net.cpp:425] relu2 <- conv2
I0403 13:09:57.321693 10414 net.cpp:386] relu2 -> conv2 (in-place)
I0403 13:09:57.321969 10414 net.cpp:141] Setting up relu2
I0403 13:09:57.321996 10414 net.cpp:148] Top shape: 100 256 27 27 (18662400)
I0403 13:09:57.322012 10414 net.cpp:156] Memory required for data: 587609200
I0403 13:09:57.322027 10414 layer_factory.hpp:77] Creating layer norm2
I0403 13:09:57.322048 10414 net.cpp:91] Creating Layer norm2
I0403 13:09:57.322068 10414 net.cpp:425] norm2 <- conv2
I0403 13:09:57.322088 10414 net.cpp:399] norm2 -> norm2
I0403 13:09:57.322279 10414 net.cpp:141] Setting up norm2
I0403 13:09:57.322305 10414 net.cpp:148] Top shape: 100 256 27 27 (18662400)
I0403 13:09:57.322320 10414 net.cpp:156] Memory required for data: 662258800
I0403 13:09:57.322336 10414 layer_factory.hpp:77] Creating layer pool2
I0403 13:09:57.322355 10414 net.cpp:91] Creating Layer pool2
I0403 13:09:57.322370 10414 net.cpp:425] pool2 <- norm2
I0403 13:09:57.322387 10414 net.cpp:399] pool2 -> pool2
I0403 13:09:57.322438 10414 net.cpp:141] Setting up pool2
I0403 13:09:57.322460 10414 net.cpp:148] Top shape: 100 256 13 13 (4326400)
I0403 13:09:57.322475 10414 net.cpp:156] Memory required for data: 679564400
I0403 13:09:57.322490 10414 layer_factory.hpp:77] Creating layer conv3
I0403 13:09:57.322512 10414 net.cpp:91] Creating Layer conv3
I0403 13:09:57.322543 10414 net.cpp:425] conv3 <- pool2
I0403 13:09:57.322563 10414 net.cpp:399] conv3 -> conv3
I0403 13:09:57.365211 10414 net.cpp:141] Setting up conv3
I0403 13:09:57.365290 10414 net.cpp:148] Top shape: 100 384 13 13 (6489600)
I0403 13:09:57.365309 10414 net.cpp:156] Memory required for data: 705522800
I0403 13:09:57.365337 10414 layer_factory.hpp:77] Creating layer relu3
I0403 13:09:57.365361 10414 net.cpp:91] Creating Layer relu3
I0403 13:09:57.365380 10414 net.cpp:425] relu3 <- conv3
I0403 13:09:57.365398 10414 net.cpp:386] relu3 -> conv3 (in-place)
I0403 13:09:57.365699 10414 net.cpp:141] Setting up relu3
I0403 13:09:57.365725 10414 net.cpp:148] Top shape: 100 384 13 13 (6489600)
I0403 13:09:57.365744 10414 net.cpp:156] Memory required for data: 731481200
I0403 13:09:57.365762 10414 layer_factory.hpp:77] Creating layer conv4
I0403 13:09:57.365785 10414 net.cpp:91] Creating Layer conv4
I0403 13:09:57.365803 10414 net.cpp:425] conv4 <- conv3
I0403 13:09:57.365823 10414 net.cpp:399] conv4 -> conv4
I0403 13:09:57.395810 10414 net.cpp:141] Setting up conv4
I0403 13:09:57.395877 10414 net.cpp:148] Top shape: 100 384 13 13 (6489600)
I0403 13:09:57.395933 10414 net.cpp:156] Memory required for data: 757439600
I0403 13:09:57.395957 10414 layer_factory.hpp:77] Creating layer relu4
I0403 13:09:57.395983 10414 net.cpp:91] Creating Layer relu4
I0403 13:09:57.396003 10414 net.cpp:425] relu4 <- conv4
I0403 13:09:57.396023 10414 net.cpp:386] relu4 -> conv4 (in-place)
I0403 13:09:57.396335 10414 net.cpp:141] Setting up relu4
I0403 13:09:57.396363 10414 net.cpp:148] Top shape: 100 384 13 13 (6489600)
I0403 13:09:57.396379 10414 net.cpp:156] Memory required for data: 783398000
I0403 13:09:57.396394 10414 layer_factory.hpp:77] Creating layer conv5
I0403 13:09:57.396421 10414 net.cpp:91] Creating Layer conv5
I0403 13:09:57.396438 10414 net.cpp:425] conv5 <- conv4
I0403 13:09:57.396459 10414 net.cpp:399] conv5 -> conv5
I0403 13:09:57.417095 10414 net.cpp:141] Setting up conv5
I0403 13:09:57.417135 10414 net.cpp:148] Top shape: 100 256 13 13 (4326400)
I0403 13:09:57.417151 10414 net.cpp:156] Memory required for data: 800703600
I0403 13:09:57.417177 10414 layer_factory.hpp:77] Creating layer relu5
I0403 13:09:57.417201 10414 net.cpp:91] Creating Layer relu5
I0403 13:09:57.417219 10414 net.cpp:425] relu5 <- conv5
I0403 13:09:57.417238 10414 net.cpp:386] relu5 -> conv5 (in-place)
I0403 13:09:57.417518 10414 net.cpp:141] Setting up relu5
I0403 13:09:57.417551 10414 net.cpp:148] Top shape: 100 256 13 13 (4326400)
I0403 13:09:57.417567 10414 net.cpp:156] Memory required for data: 818009200
I0403 13:09:57.417582 10414 layer_factory.hpp:77] Creating layer pool5
I0403 13:09:57.417608 10414 net.cpp:91] Creating Layer pool5
I0403 13:09:57.417625 10414 net.cpp:425] pool5 <- conv5
I0403 13:09:57.417646 10414 net.cpp:399] pool5 -> pool5
I0403 13:09:57.417707 10414 net.cpp:141] Setting up pool5
I0403 13:09:57.417732 10414 net.cpp:148] Top shape: 100 256 6 6 (921600)
I0403 13:09:57.417747 10414 net.cpp:156] Memory required for data: 821695600
I0403 13:09:57.417760 10414 layer_factory.hpp:77] Creating layer fc6
I0403 13:09:57.417789 10414 net.cpp:91] Creating Layer fc6
I0403 13:09:57.417809 10414 net.cpp:425] fc6 <- pool5
I0403 13:09:57.417825 10414 net.cpp:399] fc6 -> fc6
I0403 13:09:58.975332 10414 net.cpp:141] Setting up fc6
I0403 13:09:58.975409 10414 net.cpp:148] Top shape: 100 4096 (409600)
I0403 13:09:58.975425 10414 net.cpp:156] Memory required for data: 823334000
I0403 13:09:58.975446 10414 layer_factory.hpp:77] Creating layer relu6
I0403 13:09:58.975469 10414 net.cpp:91] Creating Layer relu6
I0403 13:09:58.975486 10414 net.cpp:425] relu6 <- fc6
I0403 13:09:58.975508 10414 net.cpp:386] relu6 -> fc6 (in-place)
I0403 13:09:58.975764 10414 net.cpp:141] Setting up relu6
I0403 13:09:58.975790 10414 net.cpp:148] Top shape: 100 4096 (409600)
I0403 13:09:58.975805 10414 net.cpp:156] Memory required for data: 824972400
I0403 13:09:58.975819 10414 layer_factory.hpp:77] Creating layer drop6
I0403 13:09:58.975841 10414 net.cpp:91] Creating Layer drop6
I0403 13:09:58.975857 10414 net.cpp:425] drop6 <- fc6
I0403 13:09:58.975874 10414 net.cpp:386] drop6 -> fc6 (in-place)
I0403 13:09:58.975927 10414 net.cpp:141] Setting up drop6
I0403 13:09:58.975950 10414 net.cpp:148] Top shape: 100 4096 (409600)
I0403 13:09:58.975965 10414 net.cpp:156] Memory required for data: 826610800
I0403 13:09:58.975980 10414 layer_factory.hpp:77] Creating layer fc7
I0403 13:09:58.975999 10414 net.cpp:91] Creating Layer fc7
I0403 13:09:58.976016 10414 net.cpp:425] fc7 <- fc6
I0403 13:09:58.976038 10414 net.cpp:399] fc7 -> fc7
I0403 13:09:59.659909 10414 net.cpp:141] Setting up fc7
I0403 13:09:59.659987 10414 net.cpp:148] Top shape: 100 4096 (409600)
I0403 13:09:59.660006 10414 net.cpp:156] Memory required for data: 828249200
I0403 13:09:59.660025 10414 layer_factory.hpp:77] Creating layer relu7
I0403 13:09:59.660048 10414 net.cpp:91] Creating Layer relu7
I0403 13:09:59.660065 10414 net.cpp:425] relu7 <- fc7
I0403 13:09:59.660084 10414 net.cpp:386] relu7 -> fc7 (in-place)
I0403 13:09:59.660483 10414 net.cpp:141] Setting up relu7
I0403 13:09:59.660511 10414 net.cpp:148] Top shape: 100 4096 (409600)
I0403 13:09:59.660570 10414 net.cpp:156] Memory required for data: 829887600
I0403 13:09:59.660588 10414 layer_factory.hpp:77] Creating layer drop7
I0403 13:09:59.660609 10414 net.cpp:91] Creating Layer drop7
I0403 13:09:59.660626 10414 net.cpp:425] drop7 <- fc7
I0403 13:09:59.660642 10414 net.cpp:386] drop7 -> fc7 (in-place)
I0403 13:09:59.660687 10414 net.cpp:141] Setting up drop7
I0403 13:09:59.660709 10414 net.cpp:148] Top shape: 100 4096 (409600)
I0403 13:09:59.660722 10414 net.cpp:156] Memory required for data: 831526000
I0403 13:09:59.660737 10414 layer_factory.hpp:77] Creating layer fc8_plantvillage
I0403 13:09:59.660758 10414 net.cpp:91] Creating Layer fc8_plantvillage
I0403 13:09:59.660774 10414 net.cpp:425] fc8_plantvillage <- fc7
I0403 13:09:59.660791 10414 net.cpp:399] fc8_plantvillage -> fc8_plantvillage
I0403 13:09:59.667505 10414 net.cpp:141] Setting up fc8_plantvillage
I0403 13:09:59.667532 10414 net.cpp:148] Top shape: 100 38 (3800)
I0403 13:09:59.667554 10414 net.cpp:156] Memory required for data: 831541200
I0403 13:09:59.667572 10414 layer_factory.hpp:77] Creating layer fc8_plantvillage_fc8_plantvillage_0_split
I0403 13:09:59.667593 10414 net.cpp:91] Creating Layer fc8_plantvillage_fc8_plantvillage_0_split
I0403 13:09:59.667609 10414 net.cpp:425] fc8_plantvillage_fc8_plantvillage_0_split <- fc8_plantvillage
I0403 13:09:59.667626 10414 net.cpp:399] fc8_plantvillage_fc8_plantvillage_0_split -> fc8_plantvillage_fc8_plantvillage_0_split_0
I0403 13:09:59.667645 10414 net.cpp:399] fc8_plantvillage_fc8_plantvillage_0_split -> fc8_plantvillage_fc8_plantvillage_0_split_1
I0403 13:09:59.667667 10414 net.cpp:399] fc8_plantvillage_fc8_plantvillage_0_split -> fc8_plantvillage_fc8_plantvillage_0_split_2
I0403 13:09:59.667745 10414 net.cpp:141] Setting up fc8_plantvillage_fc8_plantvillage_0_split
I0403 13:09:59.667768 10414 net.cpp:148] Top shape: 100 38 (3800)
I0403 13:09:59.667783 10414 net.cpp:148] Top shape: 100 38 (3800)
I0403 13:09:59.667798 10414 net.cpp:148] Top shape: 100 38 (3800)
I0403 13:09:59.667811 10414 net.cpp:156] Memory required for data: 831586800
I0403 13:09:59.667825 10414 layer_factory.hpp:77] Creating layer prob
I0403 13:09:59.667846 10414 net.cpp:91] Creating Layer prob
I0403 13:09:59.667861 10414 net.cpp:425] prob <- fc8_plantvillage_fc8_plantvillage_0_split_0
I0403 13:09:59.667878 10414 net.cpp:399] prob -> prob
I0403 13:09:59.668107 10414 net.cpp:141] Setting up prob
I0403 13:09:59.668133 10414 net.cpp:148] Top shape: 100 38 (3800)
I0403 13:09:59.668146 10414 net.cpp:156] Memory required for data: 831602000
I0403 13:09:59.668160 10414 layer_factory.hpp:77] Creating layer hdf5out
I0403 13:09:59.668181 10414 net.cpp:91] Creating Layer hdf5out
I0403 13:09:59.668197 10414 net.cpp:425] hdf5out <- prob
I0403 13:09:59.668212 10414 net.cpp:425] hdf5out <- label_data_1_split_0
I0403 13:09:59.670557 10414 net.cpp:141] Setting up hdf5out
…
