…
I0403 13:14:47.538193 10586 net.cpp:313] The NetState phase (1) differed from the phase (0) specified by a rule in layer data
I0403 13:14:47.538498 10586 net.cpp:49] Initializing net from parameters: 
state {
  phase: TEST
}
layer {
  name: "data"
  type: "Data"
  top: "data"
  top: "label"
  include {
    phase: TEST
  }
  transform_param {
    crop_size: 227
    mean_file: "/home/mohanty/data/final_dataset/lmdb/grayscale-50-50/mean.binaryproto"
  }
  data_param {
    source: "/home/mohanty/data/final_dataset/lmdb/grayscale-50-50/test_db"
    batch_size: 100
    backend: LMDB
  }
}
layer {
  name: "conv1"
  type: "Convolution"
  bottom: "data"
  top: "conv1"
  param {
    lr_mult: 1
    decay_mult: 1
  }
  param {
    lr_mult: 2
    decay_mult: 0
  }
  convolution_param {
    num_output: 96
    kernel_size: 11
    stride: 4
    weight_filler {
      type: "gaussian"
      std: 0.01
    }
    bias_filler {
      type: "constant"
      value: 0
    }
  }
}
layer {
  name: "relu1"
  type: "ReLU"
  bottom: "conv1"
  top: "conv1"
}
layer {
  name: "norm1"
  type: "LRN"
  bottom: "conv1"
  top: "norm1"
  lrn_param {
    local_size: 5
    alpha: 0.0001
    beta: 0.75
  }
}
layer {
  name: "pool1"
  type: "Pooling"
  bottom: "norm1"
  top: "pool1"
  pooling_param {
    pool: MAX
    kernel_size: 3
    stride: 2
  }
}
layer {
  name: "conv2"
  type: "Convolution"
  bottom: "pool1"
  top: "conv2"
  param {
    lr_mult: 1
    decay_mult: 1
  }
  param {
    lr_mult: 2
    decay_mult: 0
  }
  convolution_param {
    num_output: 256
    pad: 2
    kernel_size: 5
    group: 2
    weight_filler {
      type: "gaussian"
      std: 0.01
    }
    bias_filler {
      type: "constant"
      value: 0.1
    }
  }
}
layer {
  name: "relu2"
  type: "ReLU"
  bottom: "conv2"
  top: "conv2"
}
layer {
  name: "norm2"
  type: "LRN"
  bottom: "conv2"
  top: "norm2"
  lrn_param {
    local_size: 5
    alpha: 0.0001
    beta: 0.75
  }
}
layer {
  name: "pool2"
  type: "Pooling"
  bottom: "norm2"
  top: "pool2"
  pooling_param {
    pool: MAX
    kernel_size: 3
    stride: 2
  }
}
layer {
  name: "conv3"
  type: "Convolution"
  bottom: "pool2"
  top: "conv3"
  param {
    lr_mult: 1
    decay_mult: 1
  }
  param {
    lr_mult: 2
    decay_mult: 0
  }
  convolution_param {
    num_output: 384
    pad: 1
    kernel_size: 3
    weight_filler {
      type: "gaussian"
      std: 0.01
    }
    bias_filler {
      type: "constant"
      value: 0
    }
  }
}
layer {
  name: "relu3"
  type: "ReLU"
  bottom: "conv3"
  top: "conv3"
}
layer {
  name: "conv4"
  type: "Convolution"
  bottom: "conv3"
  top: "conv4"
  param {
    lr_mult: 1
    decay_mult: 1
  }
  param {
    lr_mult: 2
    decay_mult: 0
  }
  convolution_param {
    num_output: 384
    pad: 1
    kernel_size: 3
    group: 2
    weight_filler {
      type: "gaussian"
      std: 0.01
    }
    bias_filler {
      type: "constant"
      value: 0.1
    }
  }
}
layer {
  name: "relu4"
  type: "ReLU"
  bottom: "conv4"
  top: "conv4"
}
layer {
  name: "conv5"
  type: "Convolution"
  bottom: "conv4"
  top: "conv5"
  param {
    lr_mult: 1
    decay_mult: 1
  }
  param {
    lr_mult: 2
    decay_mult: 0
  }
  convolution_param {
    num_output: 256
    pad: 1
    kernel_size: 3
    group: 2
    weight_filler {
      type: "gaussian"
      std: 0.01
    }
    bias_filler {
      type: "constant"
      value: 0.1
    }
  }
}
layer {
  name: "relu5"
  type: "ReLU"
  bottom: "conv5"
  top: "conv5"
}
layer {
  name: "pool5"
  type: "Pooling"
  bottom: "conv5"
  top: "pool5"
  pooling_param {
    pool: MAX
    kernel_size: 3
    stride: 2
  }
}
layer {
  name: "fc6"
  type: "InnerProduct"
  bottom: "pool5"
  top: "fc6"
  param {
    lr_mult: 1
    decay_mult: 1
  }
  param {
    lr_mult: 2
    decay_mult: 0
  }
  inner_product_param {
    num_output: 4096
    weight_filler {
      type: "gaussian"
      std: 0.005
    }
    bias_filler {
      type: "constant"
      value: 0.1
    }
  }
}
layer {
  name: "relu6"
  type: "ReLU"
  bottom: "fc6"
  top: "fc6"
}
layer {
  name: "drop6"
  type: "Dropout"
  bottom: "fc6"
  top: "fc6"
  dropout_param {
    dropout_ratio: 0.5
  }
}
layer {
  name: "fc7"
  type: "InnerProduct"
  bottom: "fc6"
  top: "fc7"
  param {
    lr_mult: 1
    decay_mult: 1
  }
  param {
    lr_mult: 2
    decay_mult: 0
  }
  inner_product_param {
    num_output: 4096
    weight_filler {
      type: "gaussian"
      std: 0.005
    }
    bias_filler {
      type: "constant"
      value: 0.1
    }
  }
}
layer {
  name: "relu7"
  type: "ReLU"
  bottom: "fc7"
  top: "fc7"
}
layer {
  name: "drop7"
  type: "Dropout"
  bottom: "fc7"
  top: "fc7"
  dropout_param {
    dropout_ratio: 0.5
  }
}
layer {
  name: "fc8_plantvillage"
  type: "InnerProduct"
  bottom: "fc7"
  top: "fc8_plantvillage"
  param {
    lr_mult: 1
    decay_mult: 1
  }
  param {
    lr_mult: 2
    decay_mult: 0
  }
  inner_product_param {
    num_output: 38
    weight_filler {
      type: "gaussian"
      std: 0.01
    }
    bias_filler {
      type: "constant"
      value: 0
    }
  }
}
layer {
  name: "prob"
  type: "Softmax"
  bottom: "fc8_plantvillage"
  top: "prob"
  include {
    phase: TEST
  }
}
layer {
  name: "hdf5out"
  type: "HDF5Output"
  bottom: "prob"
  bottom: "label"
  include {
    phase: TEST
  }
  hdf5_output_param {
    file_name: "hdf5_dumps/iter_7743.h5"
  }
}
layer {
  name: "loss"
  type: "SoftmaxWithLoss"
  bottom: "fc8_plantvillage"
  bottom: "label"
  top: "loss"
}
layer {
  name: "accuracy"
  type: "Accuracy"
  bottom: "fc8_plantvillage"
  bottom: "label"
  top: "accuracy"
  include {
    phase: TEST
  }
}
I0403 13:14:47.539314 10586 layer_factory.hpp:77] Creating layer data
I0403 13:14:47.540019 10586 net.cpp:91] Creating Layer data
I0403 13:14:47.540053 10586 net.cpp:399] data -> data
I0403 13:14:47.540105 10586 net.cpp:399] data -> label
I0403 13:14:47.540141 10586 data_transformer.cpp:25] Loading mean file from: /home/mohanty/data/final_dataset/lmdb/grayscale-50-50/mean.binaryproto
I0403 13:14:47.541316 10590 db_lmdb.cpp:38] Opened lmdb /home/mohanty/data/final_dataset/lmdb/grayscale-50-50/test_db
I0403 13:14:47.554857 10586 data_layer.cpp:41] output data size: 100,3,227,227
I0403 13:14:47.673686 10586 net.cpp:141] Setting up data
I0403 13:14:47.673769 10586 net.cpp:148] Top shape: 100 3 227 227 (15458700)
I0403 13:14:47.673794 10586 net.cpp:148] Top shape: 100 (100)
I0403 13:14:47.673812 10586 net.cpp:156] Memory required for data: 61835200
I0403 13:14:47.673842 10586 layer_factory.hpp:77] Creating layer label_data_1_split
I0403 13:14:47.673869 10586 net.cpp:91] Creating Layer label_data_1_split
I0403 13:14:47.673887 10586 net.cpp:425] label_data_1_split <- label
I0403 13:14:47.673920 10586 net.cpp:399] label_data_1_split -> label_data_1_split_0
I0403 13:14:47.673950 10586 net.cpp:399] label_data_1_split -> label_data_1_split_1
I0403 13:14:47.673971 10586 net.cpp:399] label_data_1_split -> label_data_1_split_2
I0403 13:14:47.674036 10586 net.cpp:141] Setting up label_data_1_split
I0403 13:14:47.674062 10586 net.cpp:148] Top shape: 100 (100)
I0403 13:14:47.674079 10586 net.cpp:148] Top shape: 100 (100)
I0403 13:14:47.674108 10586 net.cpp:148] Top shape: 100 (100)
I0403 13:14:47.674121 10586 net.cpp:156] Memory required for data: 61836400
I0403 13:14:47.674136 10586 layer_factory.hpp:77] Creating layer conv1
I0403 13:14:47.674168 10586 net.cpp:91] Creating Layer conv1
I0403 13:14:47.674186 10586 net.cpp:425] conv1 <- data
I0403 13:14:47.674206 10586 net.cpp:399] conv1 -> conv1
I0403 13:14:47.814774 10586 net.cpp:141] Setting up conv1
I0403 13:14:47.814851 10586 net.cpp:148] Top shape: 100 96 55 55 (29040000)
I0403 13:14:47.814869 10586 net.cpp:156] Memory required for data: 177996400
I0403 13:14:47.814900 10586 layer_factory.hpp:77] Creating layer relu1
I0403 13:14:47.814927 10586 net.cpp:91] Creating Layer relu1
I0403 13:14:47.814946 10586 net.cpp:425] relu1 <- conv1
I0403 13:14:47.814965 10586 net.cpp:386] relu1 -> conv1 (in-place)
I0403 13:14:47.815233 10586 net.cpp:141] Setting up relu1
I0403 13:14:47.815261 10586 net.cpp:148] Top shape: 100 96 55 55 (29040000)
I0403 13:14:47.815317 10586 net.cpp:156] Memory required for data: 294156400
I0403 13:14:47.815335 10586 layer_factory.hpp:77] Creating layer norm1
I0403 13:14:47.815361 10586 net.cpp:91] Creating Layer norm1
I0403 13:14:47.815381 10586 net.cpp:425] norm1 <- conv1
I0403 13:14:47.815399 10586 net.cpp:399] norm1 -> norm1
I0403 13:14:47.815718 10586 net.cpp:141] Setting up norm1
I0403 13:14:47.815747 10586 net.cpp:148] Top shape: 100 96 55 55 (29040000)
I0403 13:14:47.815763 10586 net.cpp:156] Memory required for data: 410316400
I0403 13:14:47.815778 10586 layer_factory.hpp:77] Creating layer pool1
I0403 13:14:47.815805 10586 net.cpp:91] Creating Layer pool1
I0403 13:14:47.815824 10586 net.cpp:425] pool1 <- norm1
I0403 13:14:47.815841 10586 net.cpp:399] pool1 -> pool1
I0403 13:14:47.815910 10586 net.cpp:141] Setting up pool1
I0403 13:14:47.815935 10586 net.cpp:148] Top shape: 100 96 27 27 (6998400)
I0403 13:14:47.815951 10586 net.cpp:156] Memory required for data: 438310000
I0403 13:14:47.815965 10586 layer_factory.hpp:77] Creating layer conv2
I0403 13:14:47.815990 10586 net.cpp:91] Creating Layer conv2
I0403 13:14:47.816007 10586 net.cpp:425] conv2 <- pool1
I0403 13:14:47.816026 10586 net.cpp:399] conv2 -> conv2
I0403 13:14:47.831725 10586 net.cpp:141] Setting up conv2
I0403 13:14:47.831774 10586 net.cpp:148] Top shape: 100 256 27 27 (18662400)
I0403 13:14:47.831792 10586 net.cpp:156] Memory required for data: 512959600
I0403 13:14:47.831817 10586 layer_factory.hpp:77] Creating layer relu2
I0403 13:14:47.831837 10586 net.cpp:91] Creating Layer relu2
I0403 13:14:47.831854 10586 net.cpp:425] relu2 <- conv2
I0403 13:14:47.831874 10586 net.cpp:386] relu2 -> conv2 (in-place)
I0403 13:14:47.832186 10586 net.cpp:141] Setting up relu2
I0403 13:14:47.832214 10586 net.cpp:148] Top shape: 100 256 27 27 (18662400)
I0403 13:14:47.832229 10586 net.cpp:156] Memory required for data: 587609200
I0403 13:14:47.832244 10586 layer_factory.hpp:77] Creating layer norm2
I0403 13:14:47.832267 10586 net.cpp:91] Creating Layer norm2
I0403 13:14:47.832298 10586 net.cpp:425] norm2 <- conv2
I0403 13:14:47.832317 10586 net.cpp:399] norm2 -> norm2
I0403 13:14:47.832521 10586 net.cpp:141] Setting up norm2
I0403 13:14:47.832551 10586 net.cpp:148] Top shape: 100 256 27 27 (18662400)
I0403 13:14:47.832566 10586 net.cpp:156] Memory required for data: 662258800
I0403 13:14:47.832587 10586 layer_factory.hpp:77] Creating layer pool2
I0403 13:14:47.832604 10586 net.cpp:91] Creating Layer pool2
I0403 13:14:47.832620 10586 net.cpp:425] pool2 <- norm2
I0403 13:14:47.832640 10586 net.cpp:399] pool2 -> pool2
I0403 13:14:47.832695 10586 net.cpp:141] Setting up pool2
I0403 13:14:47.832718 10586 net.cpp:148] Top shape: 100 256 13 13 (4326400)
I0403 13:14:47.832733 10586 net.cpp:156] Memory required for data: 679564400
I0403 13:14:47.832747 10586 layer_factory.hpp:77] Creating layer conv3
I0403 13:14:47.832773 10586 net.cpp:91] Creating Layer conv3
I0403 13:14:47.832790 10586 net.cpp:425] conv3 <- pool2
I0403 13:14:47.832808 10586 net.cpp:399] conv3 -> conv3
I0403 13:14:47.872937 10586 net.cpp:141] Setting up conv3
I0403 13:14:47.873013 10586 net.cpp:148] Top shape: 100 384 13 13 (6489600)
I0403 13:14:47.873030 10586 net.cpp:156] Memory required for data: 705522800
I0403 13:14:47.873056 10586 layer_factory.hpp:77] Creating layer relu3
I0403 13:14:47.873085 10586 net.cpp:91] Creating Layer relu3
I0403 13:14:47.873116 10586 net.cpp:425] relu3 <- conv3
I0403 13:14:47.873134 10586 net.cpp:386] relu3 -> conv3 (in-place)
I0403 13:14:47.873414 10586 net.cpp:141] Setting up relu3
I0403 13:14:47.873440 10586 net.cpp:148] Top shape: 100 384 13 13 (6489600)
I0403 13:14:47.873456 10586 net.cpp:156] Memory required for data: 731481200
I0403 13:14:47.873471 10586 layer_factory.hpp:77] Creating layer conv4
I0403 13:14:47.873497 10586 net.cpp:91] Creating Layer conv4
I0403 13:14:47.873514 10586 net.cpp:425] conv4 <- conv3
I0403 13:14:47.873535 10586 net.cpp:399] conv4 -> conv4
I0403 13:14:47.904698 10586 net.cpp:141] Setting up conv4
I0403 13:14:47.904772 10586 net.cpp:148] Top shape: 100 384 13 13 (6489600)
I0403 13:14:47.904831 10586 net.cpp:156] Memory required for data: 757439600
I0403 13:14:47.904855 10586 layer_factory.hpp:77] Creating layer relu4
I0403 13:14:47.904876 10586 net.cpp:91] Creating Layer relu4
I0403 13:14:47.904894 10586 net.cpp:425] relu4 <- conv4
I0403 13:14:47.904917 10586 net.cpp:386] relu4 -> conv4 (in-place)
I0403 13:14:47.905213 10586 net.cpp:141] Setting up relu4
I0403 13:14:47.905246 10586 net.cpp:148] Top shape: 100 384 13 13 (6489600)
I0403 13:14:47.905266 10586 net.cpp:156] Memory required for data: 783398000
I0403 13:14:47.905282 10586 layer_factory.hpp:77] Creating layer conv5
I0403 13:14:47.905308 10586 net.cpp:91] Creating Layer conv5
I0403 13:14:47.905328 10586 net.cpp:425] conv5 <- conv4
I0403 13:14:47.905349 10586 net.cpp:399] conv5 -> conv5
I0403 13:14:47.927023 10586 net.cpp:141] Setting up conv5
I0403 13:14:47.927074 10586 net.cpp:148] Top shape: 100 256 13 13 (4326400)
I0403 13:14:47.927090 10586 net.cpp:156] Memory required for data: 800703600
I0403 13:14:47.927115 10586 layer_factory.hpp:77] Creating layer relu5
I0403 13:14:47.927136 10586 net.cpp:91] Creating Layer relu5
I0403 13:14:47.927153 10586 net.cpp:425] relu5 <- conv5
I0403 13:14:47.927175 10586 net.cpp:386] relu5 -> conv5 (in-place)
I0403 13:14:47.927466 10586 net.cpp:141] Setting up relu5
I0403 13:14:47.927495 10586 net.cpp:148] Top shape: 100 256 13 13 (4326400)
I0403 13:14:47.927510 10586 net.cpp:156] Memory required for data: 818009200
I0403 13:14:47.927533 10586 layer_factory.hpp:77] Creating layer pool5
I0403 13:14:47.927563 10586 net.cpp:91] Creating Layer pool5
I0403 13:14:47.927582 10586 net.cpp:425] pool5 <- conv5
I0403 13:14:47.927602 10586 net.cpp:399] pool5 -> pool5
I0403 13:14:47.927665 10586 net.cpp:141] Setting up pool5
I0403 13:14:47.927690 10586 net.cpp:148] Top shape: 100 256 6 6 (921600)
I0403 13:14:47.927705 10586 net.cpp:156] Memory required for data: 821695600
I0403 13:14:47.927719 10586 layer_factory.hpp:77] Creating layer fc6
I0403 13:14:47.927749 10586 net.cpp:91] Creating Layer fc6
I0403 13:14:47.927767 10586 net.cpp:425] fc6 <- pool5
I0403 13:14:47.927786 10586 net.cpp:399] fc6 -> fc6
I0403 13:14:49.535207 10586 net.cpp:141] Setting up fc6
I0403 13:14:49.535281 10586 net.cpp:148] Top shape: 100 4096 (409600)
I0403 13:14:49.535297 10586 net.cpp:156] Memory required for data: 823334000
I0403 13:14:49.535318 10586 layer_factory.hpp:77] Creating layer relu6
I0403 13:14:49.535339 10586 net.cpp:91] Creating Layer relu6
I0403 13:14:49.535354 10586 net.cpp:425] relu6 <- fc6
I0403 13:14:49.535387 10586 net.cpp:386] relu6 -> fc6 (in-place)
I0403 13:14:49.535620 10586 net.cpp:141] Setting up relu6
I0403 13:14:49.535645 10586 net.cpp:148] Top shape: 100 4096 (409600)
I0403 13:14:49.535660 10586 net.cpp:156] Memory required for data: 824972400
I0403 13:14:49.535676 10586 layer_factory.hpp:77] Creating layer drop6
I0403 13:14:49.535706 10586 net.cpp:91] Creating Layer drop6
I0403 13:14:49.535719 10586 net.cpp:425] drop6 <- fc6
I0403 13:14:49.535742 10586 net.cpp:386] drop6 -> fc6 (in-place)
I0403 13:14:49.535794 10586 net.cpp:141] Setting up drop6
I0403 13:14:49.535818 10586 net.cpp:148] Top shape: 100 4096 (409600)
I0403 13:14:49.535832 10586 net.cpp:156] Memory required for data: 826610800
I0403 13:14:49.535846 10586 layer_factory.hpp:77] Creating layer fc7
I0403 13:14:49.535864 10586 net.cpp:91] Creating Layer fc7
I0403 13:14:49.535879 10586 net.cpp:425] fc7 <- fc6
I0403 13:14:49.535897 10586 net.cpp:399] fc7 -> fc7
I0403 13:14:50.236903 10586 net.cpp:141] Setting up fc7
I0403 13:14:50.236969 10586 net.cpp:148] Top shape: 100 4096 (409600)
I0403 13:14:50.236984 10586 net.cpp:156] Memory required for data: 828249200
I0403 13:14:50.237004 10586 layer_factory.hpp:77] Creating layer relu7
I0403 13:14:50.237025 10586 net.cpp:91] Creating Layer relu7
I0403 13:14:50.237041 10586 net.cpp:425] relu7 <- fc7
I0403 13:14:50.237062 10586 net.cpp:386] relu7 -> fc7 (in-place)
I0403 13:14:50.237480 10586 net.cpp:141] Setting up relu7
I0403 13:14:50.237505 10586 net.cpp:148] Top shape: 100 4096 (409600)
I0403 13:14:50.237560 10586 net.cpp:156] Memory required for data: 829887600
I0403 13:14:50.237574 10586 layer_factory.hpp:77] Creating layer drop7
I0403 13:14:50.237592 10586 net.cpp:91] Creating Layer drop7
I0403 13:14:50.237607 10586 net.cpp:425] drop7 <- fc7
I0403 13:14:50.237628 10586 net.cpp:386] drop7 -> fc7 (in-place)
I0403 13:14:50.237671 10586 net.cpp:141] Setting up drop7
I0403 13:14:50.237709 10586 net.cpp:148] Top shape: 100 4096 (409600)
I0403 13:14:50.237725 10586 net.cpp:156] Memory required for data: 831526000
I0403 13:14:50.237738 10586 layer_factory.hpp:77] Creating layer fc8_plantvillage
I0403 13:14:50.237757 10586 net.cpp:91] Creating Layer fc8_plantvillage
I0403 13:14:50.237772 10586 net.cpp:425] fc8_plantvillage <- fc7
I0403 13:14:50.237792 10586 net.cpp:399] fc8_plantvillage -> fc8_plantvillage
I0403 13:14:50.244725 10586 net.cpp:141] Setting up fc8_plantvillage
I0403 13:14:50.244755 10586 net.cpp:148] Top shape: 100 38 (3800)
I0403 13:14:50.244771 10586 net.cpp:156] Memory required for data: 831541200
I0403 13:14:50.244787 10586 layer_factory.hpp:77] Creating layer fc8_plantvillage_fc8_plantvillage_0_split
I0403 13:14:50.244807 10586 net.cpp:91] Creating Layer fc8_plantvillage_fc8_plantvillage_0_split
I0403 13:14:50.244822 10586 net.cpp:425] fc8_plantvillage_fc8_plantvillage_0_split <- fc8_plantvillage
I0403 13:14:50.244842 10586 net.cpp:399] fc8_plantvillage_fc8_plantvillage_0_split -> fc8_plantvillage_fc8_plantvillage_0_split_0
I0403 13:14:50.244874 10586 net.cpp:399] fc8_plantvillage_fc8_plantvillage_0_split -> fc8_plantvillage_fc8_plantvillage_0_split_1
I0403 13:14:50.244894 10586 net.cpp:399] fc8_plantvillage_fc8_plantvillage_0_split -> fc8_plantvillage_fc8_plantvillage_0_split_2
I0403 13:14:50.244971 10586 net.cpp:141] Setting up fc8_plantvillage_fc8_plantvillage_0_split
I0403 13:14:50.244994 10586 net.cpp:148] Top shape: 100 38 (3800)
I0403 13:14:50.245010 10586 net.cpp:148] Top shape: 100 38 (3800)
I0403 13:14:50.245025 10586 net.cpp:148] Top shape: 100 38 (3800)
I0403 13:14:50.245038 10586 net.cpp:156] Memory required for data: 831586800
I0403 13:14:50.245053 10586 layer_factory.hpp:77] Creating layer prob
I0403 13:14:50.245069 10586 net.cpp:91] Creating Layer prob
I0403 13:14:50.245085 10586 net.cpp:425] prob <- fc8_plantvillage_fc8_plantvillage_0_split_0
I0403 13:14:50.245105 10586 net.cpp:399] prob -> prob
I0403 13:14:50.245331 10586 net.cpp:141] Setting up prob
I0403 13:14:50.245355 10586 net.cpp:148] Top shape: 100 38 (3800)
I0403 13:14:50.245370 10586 net.cpp:156] Memory required for data: 831602000
I0403 13:14:50.245383 10586 layer_factory.hpp:77] Creating layer hdf5out
I0403 13:14:50.245403 10586 net.cpp:91] Creating Layer hdf5out
I0403 13:14:50.245417 10586 net.cpp:425] hdf5out <- prob
I0403 13:14:50.245432 10586 net.cpp:425] hdf5out <- label_data_1_split_0
I0403 13:14:50.247721 10586 net.cpp:141] Setting up hdf5out
…
