…
I0403 13:13:49.835580 10554 net.cpp:313] The NetState phase (1) differed from the phase (0) specified by a rule in layer data
I0403 13:13:49.835888 10554 net.cpp:49] Initializing net from parameters: 
state {
  phase: TEST
}
layer {
  name: "data"
  type: "Data"
  top: "data"
  top: "label"
  include {
    phase: TEST
  }
  transform_param {
    crop_size: 227
    mean_file: "/home/mohanty/data/final_dataset/lmdb/grayscale-50-50/mean.binaryproto"
  }
  data_param {
    source: "/home/mohanty/data/final_dataset/lmdb/grayscale-50-50/test_db"
    batch_size: 100
    backend: LMDB
  }
}
layer {
  name: "conv1"
  type: "Convolution"
  bottom: "data"
  top: "conv1"
  param {
    lr_mult: 1
    decay_mult: 1
  }
  param {
    lr_mult: 2
    decay_mult: 0
  }
  convolution_param {
    num_output: 96
    kernel_size: 11
    stride: 4
    weight_filler {
      type: "gaussian"
      std: 0.01
    }
    bias_filler {
      type: "constant"
      value: 0
    }
  }
}
layer {
  name: "relu1"
  type: "ReLU"
  bottom: "conv1"
  top: "conv1"
}
layer {
  name: "norm1"
  type: "LRN"
  bottom: "conv1"
  top: "norm1"
  lrn_param {
    local_size: 5
    alpha: 0.0001
    beta: 0.75
  }
}
layer {
  name: "pool1"
  type: "Pooling"
  bottom: "norm1"
  top: "pool1"
  pooling_param {
    pool: MAX
    kernel_size: 3
    stride: 2
  }
}
layer {
  name: "conv2"
  type: "Convolution"
  bottom: "pool1"
  top: "conv2"
  param {
    lr_mult: 1
    decay_mult: 1
  }
  param {
    lr_mult: 2
    decay_mult: 0
  }
  convolution_param {
    num_output: 256
    pad: 2
    kernel_size: 5
    group: 2
    weight_filler {
      type: "gaussian"
      std: 0.01
    }
    bias_filler {
      type: "constant"
      value: 0.1
    }
  }
}
layer {
  name: "relu2"
  type: "ReLU"
  bottom: "conv2"
  top: "conv2"
}
layer {
  name: "norm2"
  type: "LRN"
  bottom: "conv2"
  top: "norm2"
  lrn_param {
    local_size: 5
    alpha: 0.0001
    beta: 0.75
  }
}
layer {
  name: "pool2"
  type: "Pooling"
  bottom: "norm2"
  top: "pool2"
  pooling_param {
    pool: MAX
    kernel_size: 3
    stride: 2
  }
}
layer {
  name: "conv3"
  type: "Convolution"
  bottom: "pool2"
  top: "conv3"
  param {
    lr_mult: 1
    decay_mult: 1
  }
  param {
    lr_mult: 2
    decay_mult: 0
  }
  convolution_param {
    num_output: 384
    pad: 1
    kernel_size: 3
    weight_filler {
      type: "gaussian"
      std: 0.01
    }
    bias_filler {
      type: "constant"
      value: 0
    }
  }
}
layer {
  name: "relu3"
  type: "ReLU"
  bottom: "conv3"
  top: "conv3"
}
layer {
  name: "conv4"
  type: "Convolution"
  bottom: "conv3"
  top: "conv4"
  param {
    lr_mult: 1
    decay_mult: 1
  }
  param {
    lr_mult: 2
    decay_mult: 0
  }
  convolution_param {
    num_output: 384
    pad: 1
    kernel_size: 3
    group: 2
    weight_filler {
      type: "gaussian"
      std: 0.01
    }
    bias_filler {
      type: "constant"
      value: 0.1
    }
  }
}
layer {
  name: "relu4"
  type: "ReLU"
  bottom: "conv4"
  top: "conv4"
}
layer {
  name: "conv5"
  type: "Convolution"
  bottom: "conv4"
  top: "conv5"
  param {
    lr_mult: 1
    decay_mult: 1
  }
  param {
    lr_mult: 2
    decay_mult: 0
  }
  convolution_param {
    num_output: 256
    pad: 1
    kernel_size: 3
    group: 2
    weight_filler {
      type: "gaussian"
      std: 0.01
    }
    bias_filler {
      type: "constant"
      value: 0.1
    }
  }
}
layer {
  name: "relu5"
  type: "ReLU"
  bottom: "conv5"
  top: "conv5"
}
layer {
  name: "pool5"
  type: "Pooling"
  bottom: "conv5"
  top: "pool5"
  pooling_param {
    pool: MAX
    kernel_size: 3
    stride: 2
  }
}
layer {
  name: "fc6"
  type: "InnerProduct"
  bottom: "pool5"
  top: "fc6"
  param {
    lr_mult: 1
    decay_mult: 1
  }
  param {
    lr_mult: 2
    decay_mult: 0
  }
  inner_product_param {
    num_output: 4096
    weight_filler {
      type: "gaussian"
      std: 0.005
    }
    bias_filler {
      type: "constant"
      value: 0.1
    }
  }
}
layer {
  name: "relu6"
  type: "ReLU"
  bottom: "fc6"
  top: "fc6"
}
layer {
  name: "drop6"
  type: "Dropout"
  bottom: "fc6"
  top: "fc6"
  dropout_param {
    dropout_ratio: 0.5
  }
}
layer {
  name: "fc7"
  type: "InnerProduct"
  bottom: "fc6"
  top: "fc7"
  param {
    lr_mult: 1
    decay_mult: 1
  }
  param {
    lr_mult: 2
    decay_mult: 0
  }
  inner_product_param {
    num_output: 4096
    weight_filler {
      type: "gaussian"
      std: 0.005
    }
    bias_filler {
      type: "constant"
      value: 0.1
    }
  }
}
layer {
  name: "relu7"
  type: "ReLU"
  bottom: "fc7"
  top: "fc7"
}
layer {
  name: "drop7"
  type: "Dropout"
  bottom: "fc7"
  top: "fc7"
  dropout_param {
    dropout_ratio: 0.5
  }
}
layer {
  name: "fc8_plantvillage"
  type: "InnerProduct"
  bottom: "fc7"
  top: "fc8_plantvillage"
  param {
    lr_mult: 1
    decay_mult: 1
  }
  param {
    lr_mult: 2
    decay_mult: 0
  }
  inner_product_param {
    num_output: 38
    weight_filler {
      type: "gaussian"
      std: 0.01
    }
    bias_filler {
      type: "constant"
      value: 0
    }
  }
}
layer {
  name: "prob"
  type: "Softmax"
  bottom: "fc8_plantvillage"
  top: "prob"
  include {
    phase: TEST
  }
}
layer {
  name: "hdf5out"
  type: "HDF5Output"
  bottom: "prob"
  bottom: "label"
  include {
    phase: TEST
  }
  hdf5_output_param {
    file_name: "hdf5_dumps/iter_7476.h5"
  }
}
layer {
  name: "loss"
  type: "SoftmaxWithLoss"
  bottom: "fc8_plantvillage"
  bottom: "label"
  top: "loss"
}
layer {
  name: "accuracy"
  type: "Accuracy"
  bottom: "fc8_plantvillage"
  bottom: "label"
  top: "accuracy"
  include {
    phase: TEST
  }
}
I0403 13:13:49.836463 10554 layer_factory.hpp:77] Creating layer data
I0403 13:13:49.837507 10554 net.cpp:91] Creating Layer data
I0403 13:13:49.837541 10554 net.cpp:399] data -> data
I0403 13:13:49.837594 10554 net.cpp:399] data -> label
I0403 13:13:49.837631 10554 data_transformer.cpp:25] Loading mean file from: /home/mohanty/data/final_dataset/lmdb/grayscale-50-50/mean.binaryproto
I0403 13:13:49.838810 10560 db_lmdb.cpp:38] Opened lmdb /home/mohanty/data/final_dataset/lmdb/grayscale-50-50/test_db
I0403 13:13:49.852185 10554 data_layer.cpp:41] output data size: 100,3,227,227
I0403 13:13:49.971555 10554 net.cpp:141] Setting up data
I0403 13:13:49.971649 10554 net.cpp:148] Top shape: 100 3 227 227 (15458700)
I0403 13:13:49.971673 10554 net.cpp:148] Top shape: 100 (100)
I0403 13:13:49.971688 10554 net.cpp:156] Memory required for data: 61835200
I0403 13:13:49.971717 10554 layer_factory.hpp:77] Creating layer label_data_1_split
I0403 13:13:49.971743 10554 net.cpp:91] Creating Layer label_data_1_split
I0403 13:13:49.971762 10554 net.cpp:425] label_data_1_split <- label
I0403 13:13:49.971794 10554 net.cpp:399] label_data_1_split -> label_data_1_split_0
I0403 13:13:49.971822 10554 net.cpp:399] label_data_1_split -> label_data_1_split_1
I0403 13:13:49.971844 10554 net.cpp:399] label_data_1_split -> label_data_1_split_2
I0403 13:13:49.971907 10554 net.cpp:141] Setting up label_data_1_split
I0403 13:13:49.971931 10554 net.cpp:148] Top shape: 100 (100)
I0403 13:13:49.971948 10554 net.cpp:148] Top shape: 100 (100)
I0403 13:13:49.971964 10554 net.cpp:148] Top shape: 100 (100)
I0403 13:13:49.971978 10554 net.cpp:156] Memory required for data: 61836400
I0403 13:13:49.971993 10554 layer_factory.hpp:77] Creating layer conv1
I0403 13:13:49.972025 10554 net.cpp:91] Creating Layer conv1
I0403 13:13:49.972043 10554 net.cpp:425] conv1 <- data
I0403 13:13:49.972064 10554 net.cpp:399] conv1 -> conv1
I0403 13:13:50.109346 10554 net.cpp:141] Setting up conv1
I0403 13:13:50.109390 10554 net.cpp:148] Top shape: 100 96 55 55 (29040000)
I0403 13:13:50.109406 10554 net.cpp:156] Memory required for data: 177996400
I0403 13:13:50.109437 10554 layer_factory.hpp:77] Creating layer relu1
I0403 13:13:50.109464 10554 net.cpp:91] Creating Layer relu1
I0403 13:13:50.109483 10554 net.cpp:425] relu1 <- conv1
I0403 13:13:50.109503 10554 net.cpp:386] relu1 -> conv1 (in-place)
I0403 13:13:50.109765 10554 net.cpp:141] Setting up relu1
I0403 13:13:50.109791 10554 net.cpp:148] Top shape: 100 96 55 55 (29040000)
I0403 13:13:50.109841 10554 net.cpp:156] Memory required for data: 294156400
I0403 13:13:50.109858 10554 layer_factory.hpp:77] Creating layer norm1
I0403 13:13:50.109884 10554 net.cpp:91] Creating Layer norm1
I0403 13:13:50.109902 10554 net.cpp:425] norm1 <- conv1
I0403 13:13:50.109920 10554 net.cpp:399] norm1 -> norm1
I0403 13:13:50.110242 10554 net.cpp:141] Setting up norm1
I0403 13:13:50.110273 10554 net.cpp:148] Top shape: 100 96 55 55 (29040000)
I0403 13:13:50.110290 10554 net.cpp:156] Memory required for data: 410316400
I0403 13:13:50.110306 10554 layer_factory.hpp:77] Creating layer pool1
I0403 13:13:50.110329 10554 net.cpp:91] Creating Layer pool1
I0403 13:13:50.110347 10554 net.cpp:425] pool1 <- norm1
I0403 13:13:50.110364 10554 net.cpp:399] pool1 -> pool1
I0403 13:13:50.110431 10554 net.cpp:141] Setting up pool1
I0403 13:13:50.110455 10554 net.cpp:148] Top shape: 100 96 27 27 (6998400)
I0403 13:13:50.110471 10554 net.cpp:156] Memory required for data: 438310000
I0403 13:13:50.110486 10554 layer_factory.hpp:77] Creating layer conv2
I0403 13:13:50.110512 10554 net.cpp:91] Creating Layer conv2
I0403 13:13:50.110544 10554 net.cpp:425] conv2 <- pool1
I0403 13:13:50.110564 10554 net.cpp:399] conv2 -> conv2
I0403 13:13:50.125790 10554 net.cpp:141] Setting up conv2
I0403 13:13:50.125844 10554 net.cpp:148] Top shape: 100 256 27 27 (18662400)
I0403 13:13:50.125860 10554 net.cpp:156] Memory required for data: 512959600
I0403 13:13:50.125883 10554 layer_factory.hpp:77] Creating layer relu2
I0403 13:13:50.125906 10554 net.cpp:91] Creating Layer relu2
I0403 13:13:50.125923 10554 net.cpp:425] relu2 <- conv2
I0403 13:13:50.125941 10554 net.cpp:386] relu2 -> conv2 (in-place)
I0403 13:13:50.126220 10554 net.cpp:141] Setting up relu2
I0403 13:13:50.126247 10554 net.cpp:148] Top shape: 100 256 27 27 (18662400)
I0403 13:13:50.126265 10554 net.cpp:156] Memory required for data: 587609200
I0403 13:13:50.126279 10554 layer_factory.hpp:77] Creating layer norm2
I0403 13:13:50.126302 10554 net.cpp:91] Creating Layer norm2
I0403 13:13:50.126319 10554 net.cpp:425] norm2 <- conv2
I0403 13:13:50.126339 10554 net.cpp:399] norm2 -> norm2
I0403 13:13:50.126544 10554 net.cpp:141] Setting up norm2
I0403 13:13:50.126570 10554 net.cpp:148] Top shape: 100 256 27 27 (18662400)
I0403 13:13:50.126586 10554 net.cpp:156] Memory required for data: 662258800
I0403 13:13:50.126600 10554 layer_factory.hpp:77] Creating layer pool2
I0403 13:13:50.126617 10554 net.cpp:91] Creating Layer pool2
I0403 13:13:50.126637 10554 net.cpp:425] pool2 <- norm2
I0403 13:13:50.126654 10554 net.cpp:399] pool2 -> pool2
I0403 13:13:50.126708 10554 net.cpp:141] Setting up pool2
I0403 13:13:50.126729 10554 net.cpp:148] Top shape: 100 256 13 13 (4326400)
I0403 13:13:50.126744 10554 net.cpp:156] Memory required for data: 679564400
I0403 13:13:50.126759 10554 layer_factory.hpp:77] Creating layer conv3
I0403 13:13:50.126781 10554 net.cpp:91] Creating Layer conv3
I0403 13:13:50.126798 10554 net.cpp:425] conv3 <- pool2
I0403 13:13:50.126818 10554 net.cpp:399] conv3 -> conv3
I0403 13:13:50.170269 10554 net.cpp:141] Setting up conv3
I0403 13:13:50.170346 10554 net.cpp:148] Top shape: 100 384 13 13 (6489600)
I0403 13:13:50.170375 10554 net.cpp:156] Memory required for data: 705522800
I0403 13:13:50.170400 10554 layer_factory.hpp:77] Creating layer relu3
I0403 13:13:50.170425 10554 net.cpp:91] Creating Layer relu3
I0403 13:13:50.170442 10554 net.cpp:425] relu3 <- conv3
I0403 13:13:50.170461 10554 net.cpp:386] relu3 -> conv3 (in-place)
I0403 13:13:50.170740 10554 net.cpp:141] Setting up relu3
I0403 13:13:50.170766 10554 net.cpp:148] Top shape: 100 384 13 13 (6489600)
I0403 13:13:50.170783 10554 net.cpp:156] Memory required for data: 731481200
I0403 13:13:50.170796 10554 layer_factory.hpp:77] Creating layer conv4
I0403 13:13:50.170820 10554 net.cpp:91] Creating Layer conv4
I0403 13:13:50.170837 10554 net.cpp:425] conv4 <- conv3
I0403 13:13:50.170860 10554 net.cpp:399] conv4 -> conv4
I0403 13:13:50.200356 10554 net.cpp:141] Setting up conv4
I0403 13:13:50.200423 10554 net.cpp:148] Top shape: 100 384 13 13 (6489600)
I0403 13:13:50.200472 10554 net.cpp:156] Memory required for data: 757439600
I0403 13:13:50.200495 10554 layer_factory.hpp:77] Creating layer relu4
I0403 13:13:50.200516 10554 net.cpp:91] Creating Layer relu4
I0403 13:13:50.200533 10554 net.cpp:425] relu4 <- conv4
I0403 13:13:50.200559 10554 net.cpp:386] relu4 -> conv4 (in-place)
I0403 13:13:50.200855 10554 net.cpp:141] Setting up relu4
I0403 13:13:50.200883 10554 net.cpp:148] Top shape: 100 384 13 13 (6489600)
I0403 13:13:50.200898 10554 net.cpp:156] Memory required for data: 783398000
I0403 13:13:50.200913 10554 layer_factory.hpp:77] Creating layer conv5
I0403 13:13:50.200938 10554 net.cpp:91] Creating Layer conv5
I0403 13:13:50.200956 10554 net.cpp:425] conv5 <- conv4
I0403 13:13:50.200976 10554 net.cpp:399] conv5 -> conv5
I0403 13:13:50.221444 10554 net.cpp:141] Setting up conv5
I0403 13:13:50.221493 10554 net.cpp:148] Top shape: 100 256 13 13 (4326400)
I0403 13:13:50.221509 10554 net.cpp:156] Memory required for data: 800703600
I0403 13:13:50.221534 10554 layer_factory.hpp:77] Creating layer relu5
I0403 13:13:50.221561 10554 net.cpp:91] Creating Layer relu5
I0403 13:13:50.221580 10554 net.cpp:425] relu5 <- conv5
I0403 13:13:50.221597 10554 net.cpp:386] relu5 -> conv5 (in-place)
I0403 13:13:50.221884 10554 net.cpp:141] Setting up relu5
I0403 13:13:50.221911 10554 net.cpp:148] Top shape: 100 256 13 13 (4326400)
I0403 13:13:50.221926 10554 net.cpp:156] Memory required for data: 818009200
I0403 13:13:50.221941 10554 layer_factory.hpp:77] Creating layer pool5
I0403 13:13:50.221967 10554 net.cpp:91] Creating Layer pool5
I0403 13:13:50.221984 10554 net.cpp:425] pool5 <- conv5
I0403 13:13:50.222002 10554 net.cpp:399] pool5 -> pool5
I0403 13:13:50.222064 10554 net.cpp:141] Setting up pool5
I0403 13:13:50.222087 10554 net.cpp:148] Top shape: 100 256 6 6 (921600)
I0403 13:13:50.222102 10554 net.cpp:156] Memory required for data: 821695600
I0403 13:13:50.222117 10554 layer_factory.hpp:77] Creating layer fc6
I0403 13:13:50.222146 10554 net.cpp:91] Creating Layer fc6
I0403 13:13:50.222164 10554 net.cpp:425] fc6 <- pool5
I0403 13:13:50.222182 10554 net.cpp:399] fc6 -> fc6
I0403 13:13:51.818608 10554 net.cpp:141] Setting up fc6
I0403 13:13:51.818684 10554 net.cpp:148] Top shape: 100 4096 (409600)
I0403 13:13:51.818701 10554 net.cpp:156] Memory required for data: 823334000
I0403 13:13:51.818722 10554 layer_factory.hpp:77] Creating layer relu6
I0403 13:13:51.818742 10554 net.cpp:91] Creating Layer relu6
I0403 13:13:51.818759 10554 net.cpp:425] relu6 <- fc6
I0403 13:13:51.818780 10554 net.cpp:386] relu6 -> fc6 (in-place)
I0403 13:13:51.818994 10554 net.cpp:141] Setting up relu6
I0403 13:13:51.819018 10554 net.cpp:148] Top shape: 100 4096 (409600)
I0403 13:13:51.819033 10554 net.cpp:156] Memory required for data: 824972400
I0403 13:13:51.819047 10554 layer_factory.hpp:77] Creating layer drop6
I0403 13:13:51.819066 10554 net.cpp:91] Creating Layer drop6
I0403 13:13:51.819113 10554 net.cpp:425] drop6 <- fc6
I0403 13:13:51.819129 10554 net.cpp:386] drop6 -> fc6 (in-place)
I0403 13:13:51.819181 10554 net.cpp:141] Setting up drop6
I0403 13:13:51.819208 10554 net.cpp:148] Top shape: 100 4096 (409600)
I0403 13:13:51.819224 10554 net.cpp:156] Memory required for data: 826610800
I0403 13:13:51.819239 10554 layer_factory.hpp:77] Creating layer fc7
I0403 13:13:51.819259 10554 net.cpp:91] Creating Layer fc7
I0403 13:13:51.819274 10554 net.cpp:425] fc7 <- fc6
I0403 13:13:51.819295 10554 net.cpp:399] fc7 -> fc7
I0403 13:13:52.523859 10554 net.cpp:141] Setting up fc7
I0403 13:13:52.523934 10554 net.cpp:148] Top shape: 100 4096 (409600)
I0403 13:13:52.523950 10554 net.cpp:156] Memory required for data: 828249200
I0403 13:13:52.523972 10554 layer_factory.hpp:77] Creating layer relu7
I0403 13:13:52.523993 10554 net.cpp:91] Creating Layer relu7
I0403 13:13:52.524008 10554 net.cpp:425] relu7 <- fc7
I0403 13:13:52.524029 10554 net.cpp:386] relu7 -> fc7 (in-place)
I0403 13:13:52.524427 10554 net.cpp:141] Setting up relu7
I0403 13:13:52.524454 10554 net.cpp:148] Top shape: 100 4096 (409600)
I0403 13:13:52.524503 10554 net.cpp:156] Memory required for data: 829887600
I0403 13:13:52.524518 10554 layer_factory.hpp:77] Creating layer drop7
I0403 13:13:52.524549 10554 net.cpp:91] Creating Layer drop7
I0403 13:13:52.524567 10554 net.cpp:425] drop7 <- fc7
I0403 13:13:52.524587 10554 net.cpp:386] drop7 -> fc7 (in-place)
I0403 13:13:52.524631 10554 net.cpp:141] Setting up drop7
I0403 13:13:52.524657 10554 net.cpp:148] Top shape: 100 4096 (409600)
I0403 13:13:52.524670 10554 net.cpp:156] Memory required for data: 831526000
I0403 13:13:52.524684 10554 layer_factory.hpp:77] Creating layer fc8_plantvillage
I0403 13:13:52.524703 10554 net.cpp:91] Creating Layer fc8_plantvillage
I0403 13:13:52.524718 10554 net.cpp:425] fc8_plantvillage <- fc7
I0403 13:13:52.524739 10554 net.cpp:399] fc8_plantvillage -> fc8_plantvillage
I0403 13:13:52.531647 10554 net.cpp:141] Setting up fc8_plantvillage
I0403 13:13:52.531675 10554 net.cpp:148] Top shape: 100 38 (3800)
I0403 13:13:52.531690 10554 net.cpp:156] Memory required for data: 831541200
I0403 13:13:52.531708 10554 layer_factory.hpp:77] Creating layer fc8_plantvillage_fc8_plantvillage_0_split
I0403 13:13:52.531728 10554 net.cpp:91] Creating Layer fc8_plantvillage_fc8_plantvillage_0_split
I0403 13:13:52.531744 10554 net.cpp:425] fc8_plantvillage_fc8_plantvillage_0_split <- fc8_plantvillage
I0403 13:13:52.531761 10554 net.cpp:399] fc8_plantvillage_fc8_plantvillage_0_split -> fc8_plantvillage_fc8_plantvillage_0_split_0
I0403 13:13:52.531780 10554 net.cpp:399] fc8_plantvillage_fc8_plantvillage_0_split -> fc8_plantvillage_fc8_plantvillage_0_split_1
I0403 13:13:52.531800 10554 net.cpp:399] fc8_plantvillage_fc8_plantvillage_0_split -> fc8_plantvillage_fc8_plantvillage_0_split_2
I0403 13:13:52.531891 10554 net.cpp:141] Setting up fc8_plantvillage_fc8_plantvillage_0_split
I0403 13:13:52.531915 10554 net.cpp:148] Top shape: 100 38 (3800)
I0403 13:13:52.531931 10554 net.cpp:148] Top shape: 100 38 (3800)
I0403 13:13:52.531947 10554 net.cpp:148] Top shape: 100 38 (3800)
I0403 13:13:52.531961 10554 net.cpp:156] Memory required for data: 831586800
I0403 13:13:52.531975 10554 layer_factory.hpp:77] Creating layer prob
I0403 13:13:52.531994 10554 net.cpp:91] Creating Layer prob
I0403 13:13:52.532009 10554 net.cpp:425] prob <- fc8_plantvillage_fc8_plantvillage_0_split_0
I0403 13:13:52.532027 10554 net.cpp:399] prob -> prob
I0403 13:13:52.532256 10554 net.cpp:141] Setting up prob
I0403 13:13:52.532284 10554 net.cpp:148] Top shape: 100 38 (3800)
I0403 13:13:52.532299 10554 net.cpp:156] Memory required for data: 831602000
I0403 13:13:52.532313 10554 layer_factory.hpp:77] Creating layer hdf5out
I0403 13:13:52.532343 10554 net.cpp:91] Creating Layer hdf5out
I0403 13:13:52.532358 10554 net.cpp:425] hdf5out <- prob
I0403 13:13:52.532374 10554 net.cpp:425] hdf5out <- label_data_1_split_0
I0403 13:13:52.534888 10554 net.cpp:141] Setting up hdf5out
…
