…
I0403 21:35:50.725991 23585 net.cpp:313] The NetState phase (1) differed from the phase (0) specified by a rule in layer data
I0403 21:35:50.727391 23585 net.cpp:49] Initializing net from parameters: 
state {
  phase: TEST
}
layer {
  name: "data"
  type: "Data"
  top: "data"
  top: "label"
  include {
    phase: TEST
  }
  transform_param {
    mirror: false
    crop_size: 224
    mean_file: "/home/mohanty/data/final_dataset/lmdb/segmented-80-20/mean.binaryproto"
  }
  data_param {
    source: "/home/mohanty/data/final_dataset/lmdb/segmented-80-20/test_db"
    batch_size: 24
    backend: LMDB
  }
}
layer {
  name: "conv1/7x7_s2"
  type: "Convolution"
  bottom: "data"
  top: "conv1/7x7_s2"
  param {
    lr_mult: 1
    decay_mult: 1
  }
  param {
    lr_mult: 2
    decay_mult: 0
  }
  convolution_param {
    num_output: 64
    pad: 3
    kernel_size: 7
    stride: 2
    weight_filler {
      type: "xavier"
      std: 0.1
    }
    bias_filler {
      type: "constant"
      value: 0.2
    }
  }
}
layer {
  name: "conv1/relu_7x7"
  type: "ReLU"
  bottom: "conv1/7x7_s2"
  top: "conv1/7x7_s2"
}
layer {
  name: "pool1/3x3_s2"
  type: "Pooling"
  bottom: "conv1/7x7_s2"
  top: "pool1/3x3_s2"
  pooling_param {
    pool: MAX
    kernel_size: 3
    stride: 2
  }
}
layer {
  name: "pool1/norm1"
  type: "LRN"
  bottom: "pool1/3x3_s2"
  top: "pool1/norm1"
  lrn_param {
    local_size: 5
    alpha: 0.0001
    beta: 0.75
  }
}
layer {
  name: "conv2/3x3_reduce"
  type: "Convolution"
  bottom: "pool1/norm1"
  top: "conv2/3x3_reduce"
  param {
    lr_mult: 1
    decay_mult: 1
  }
  param {
    lr_mult: 2
    decay_mult: 0
  }
  convolution_param {
    num_output: 64
    kernel_size: 1
    weight_filler {
      type: "xavier"
      std: 0.1
    }
    bias_filler {
      type: "constant"
      value: 0.2
    }
  }
}
layer {
  name: "conv2/relu_3x3_reduce"
  type: "ReLU"
  bottom: "conv2/3x3_reduce"
  top: "conv2/3x3_reduce"
}
layer {
  name: "conv2/3x3"
  type: "Convolution"
  bottom: "conv2/3x3_reduce"
  top: "conv2/3x3"
  param {
    lr_mult: 1
    decay_mult: 1
  }
  param {
    lr_mult: 2
    decay_mult: 0
  }
  convolution_param {
    num_output: 192
    pad: 1
    kernel_size: 3
    weight_filler {
      type: "xavier"
      std: 0.03
    }
    bias_filler {
      type: "constant"
      value: 0.2
    }
  }
}
layer {
  name: "conv2/relu_3x3"
  type: "ReLU"
  bottom: "conv2/3x3"
  top: "conv2/3x3"
}
layer {
  name: "conv2/norm2"
  type: "LRN"
  bottom: "conv2/3x3"
  top: "conv2/norm2"
  lrn_param {
    local_size: 5
    alpha: 0.0001
    beta: 0.75
  }
}
layer {
  name: "pool2/3x3_s2"
  type: "Pooling"
  bottom: "conv2/norm2"
  top: "pool2/3x3_s2"
  pooling_param {
    pool: MAX
    kernel_size: 3
    stride: 2
  }
}
layer {
  name: "inception_3a/1x1"
  type: "Convolution"
  bottom: "pool2/3x3_s2"
  top: "inception_3a/1x1"
  param {
    lr_mult: 1
    decay_mult: 1
  }
  param {
    lr_mult: 2
    decay_mult: 0
  }
  convolution_param {
    num_output: 64
    kernel_size: 1
    weight_filler {
      type: "xavier"
      std: 0.03
    }
    bias_filler {
      type: "constant"
      value: 0.2
    }
  }
}
layer {
  name: "inception_3a/relu_1x1"
  type: "ReLU"
  bottom: "inception_3a/1x1"
  top: "inception_3a/1x1"
}
layer {
  name: "inception_3a/3x3_reduce"
  type: "Convolution"
  bottom: "pool2/3x3_s2"
  top: "inception_3a/3x3_reduce"
  param {
    lr_mult: 1
    decay_mult: 1
  }
  param {
    lr_mult: 2
    decay_mult: 0
  }
  convolution_param {
    num_output: 96
    kernel_size: 1
    weight_filler {
      type: "xavier"
      std: 0.09
    }
    bias_filler {
      type: "constant"
      value: 0.2
    }
  }
}
layer {
  name: "inception_3a/relu_3x3_reduce"
  type: "ReLU"
  bottom: "inception_3a/3x3_reduce"
  top: "inception_3a/3x3_reduce"
}
layer {
  name: "inception_3a/3x3"
  type: "Convolution"
  bottom: "inception_3a/3x3_reduce"
  top: "inception_3a/3x3"
  param {
    lr_mult: 1
    decay_mult: 1
  }
  param {
    lr_mult: 2
    decay_mult: 0
  }
  convolution_param {
    num_output: 128
    pad: 1
    kernel_size: 3
    weight_filler {
      type: "xavier"
      std: 0.03
    }
    bias_filler {
      type: "constant"
      value: 0.2
    }
  }
}
layer {
  name: "inception_3a/relu_3x3"
  type: "ReLU"
  bottom: "inception_3a/3x3"
  top: "inception_3a/3x3"
}
layer {
  name: "inception_3a/5x5_reduce"
  type: "Convolution"
  bottom: "pool2/3x3_s2"
  top: "inception_3a/5x5_reduce"
  param {
    lr_mult: 1
    decay_mult: 1
  }
  param {
    lr_mult: 2
    decay_mult: 0
  }
  convolution_param {
    num_output: 16
    kernel_size: 1
    weight_filler {
      type: "xavier"
      std: 0.2
    }
    bias_filler {
      type: "constant"
      value: 0.2
    }
  }
}
layer {
  name: "inception_3a/relu_5x5_reduce"
  type: "ReLU"
  bottom: "inception_3a/5x5_reduce"
  top: "inception_3a/5x5_reduce"
}
layer {
  name: "inception_3a/5x5"
  type: "Convolution"
  bottom: "inception_3a/5x5_reduce"
  top: "inception_3a/5x5"
  param {
    lr_mult: 1
    decay_mult: 1
  }
  param {
    lr_mult: 2
    decay_mult: 0
  }
  convolution_param {
    num_output: 32
    pad: 2
    kernel_size: 5
    weight_filler {
      type: "xavier"
      std: 0.03
    }
    bias_filler {
      type: "constant"
      value: 0.2
    }
  }
}
layer {
  name: "inception_3a/relu_5x5"
  type: "ReLU"
  bottom: "inception_3a/5x5"
  top: "inception_3a/5x5"
}
layer {
  name: "inception_3a/pool"
  type: "Pooling"
  bottom: "pool2/3x3_s2"
  top: "inception_3a/pool"
  pooling_param {
    pool: MAX
    kernel_size: 3
    stride: 1
    pad: 1
  }
}
layer {
  name: "inception_3a/pool_proj"
  type: "Convolution"
  bottom: "inception_3a/pool"
  top: "inception_3a/pool_proj"
  param {
    lr_mult: 1
    decay_mult: 1
  }
  param {
    lr_mult: 2
    decay_mult: 0
  }
  convolution_param {
    num_output: 32
    kernel_size: 1
    weight_filler {
      type: "xavier"
      std: 0.1
    }
    bias_filler {
      type: "constant"
      value: 0.2
    }
  }
}
layer {
  name: "inception_3a/relu_pool_proj"
  type: "ReLU"
  bottom: "inception_3a/pool_proj"
  top: "inception_3a/pool_proj"
}
layer {
  name: "inception_3a/output"
  type: "Concat"
  bottom: "inception_3a/1x1"
  bottom: "inception_3a/3x3"
  bottom: "inception_3a/5x5"
  bottom: "inception_3a/pool_proj"
  top: "inception_3a/output"
}
layer {
  name: "inception_3b/1x1"
  type: "Convolution"
  bottom: "inception_3a/output"
  top: "inception_3b/1x1"
  param {
    lr_mult: 1
    decay_mult: 1
  }
  param {
    lr_mult: 2
    decay_mult: 0
  }
  convolution_param {
    num_output: 128
    kernel_size: 1
    weight_filler {
      type: "xavier"
      std: 0.03
    }
    bias_filler {
      type: "constant"
      value: 0.2
    }
  }
}
layer {
  name: "inception_3b/relu_1x1"
  type: "ReLU"
  bottom: "inception_3b/1x1"
  top: "inception_3b/1x1"
}
layer {
  name: "inception_3b/3x3_reduce"
  type: "Convolution"
  bottom: "inception_3a/output"
  top: "inception_3b/3x3_reduce"
  param {
    lr_mult: 1
    decay_mult: 1
  }
  param {
    lr_mult: 2
    decay_mult: 0
  }
  convolution_param {
    num_output: 128
    kernel_size: 1
    weight_filler {
      type: "xavier"
      std: 0.09
    }
    bias_filler {
      type: "constant"
      value: 0.2
    }
  }
}
layer {
  name: "inception_3b/relu_3x3_reduce"
  type: "ReLU"
  bottom: "inception_3b/3x3_reduce"
  top: "inception_3b/3x3_reduce"
}
layer {
  name: "inception_3b/3x3"
  type: "Convolution"
  bottom: "inception_3b/3x3_reduce"
  top: "inception_3b/3x3"
  param {
    lr_mult: 1
    decay_mult: 1
  }
  param {
    lr_mult: 2
    decay_mult: 0
  }
  convolution_param {
    num_output: 192
    pad: 1
    kernel_size: 3
    weight_filler {
      type: "xavier"
      std: 0.03
    }
    bias_filler {
      type: "constant"
      value: 0.2
    }
  }
}
layer {
  name: "inception_3b/relu_3x3"
  type: "ReLU"
  bottom: "inception_3b/3x3"
  top: "inception_3b/3x3"
}
layer {
  name: "inception_3b/5x5_reduce"
  type: "Convolution"
  bottom: "inception_3a/output"
  top: "inception_3b/5x5_reduce"
  param {
    lr_mult: 1
    decay_mult: 1
  }
  param {
    lr_mult: 2
    decay_mult: 0
  }
  convolution_param {
    num_output: 32
    kernel_size: 1
    weight_filler {
      type: "xavier"
      std: 0.2
    }
    bias_filler {
      type: "constant"
      value: 0.2
    }
  }
}
layer {
  name: "inception_3b/relu_5x5_reduce"
  type: "ReLU"
  bottom: "inception_3b/5x5_reduce"
  top: "inception_3b/5x5_reduce"
}
layer {
  name: "inception_3b/5x5"
  type: "Convolution"
  bottom: "inception_3b/5x5_reduce"
  top: "inception_3b/5x5"
  param {
    lr_mult: 1
    decay_mult: 1
  }
  param {
    lr_mult: 2
    decay_mult: 0
  }
  convolution_param {
    num_output: 96
    pad: 2
    kernel_size: 5
    weight_filler {
      type: "xavier"
      std: 0.03
    }
    bias_filler {
      type: "constant"
      value: 0.2
    }
  }
}
layer {
  name: "inception_3b/relu_5x5"
  type: "ReLU"
  bottom: "inception_3b/5x5"
  top: "inception_3b/5x5"
}
layer {
  name: "inception_3b/pool"
  type: "Pooling"
  bottom: "inception_3a/output"
  top: "inception_3b/pool"
  pooling_param {
    pool: MAX
    kernel_size: 3
    stride: 1
    pad: 1
  }
}
layer {
  name: "inception_3b/pool_proj"
  type: "Convolution"
  bottom: "inception_3b/pool"
  top: "inception_3b/pool_proj"
  param {
    lr_mult: 1
    decay_mult: 1
  }
  param {
    lr_mult: 2
    decay_mult: 0
  }
  convolution_param {
    num_output: 64
    kernel_size: 1
    weight_filler {
      type: "xavier"
      std: 0.1
    }
    bias_filler {
      type: "constant"
      value: 0.2
    }
  }
}
layer {
  name: "inception_3b/relu_pool_proj"
  type: "ReLU"
  bottom: "inception_3b/pool_proj"
  top: "inception_3b/pool_proj"
}
layer {
  name: "inception_3b/output"
  type: "Concat"
  bottom: "inception_3b/1x1"
  bottom: "inception_3b/3x3"
  bottom: "inception_3b/5x5"
  bottom: "inception_3b/pool_proj"
  top: "inception_3b/output"
}
layer {
  name: "pool3/3x3_s2"
  type: "Pooling"
  bottom: "inception_3b/output"
  top: "pool3/3x3_s2"
  pooling_param {
    pool: MAX
    kernel_size: 3
    stride: 2
  }
}
layer {
  name: "inception_4a/1x1"
  type: "Convolution"
  bottom: "pool3/3x3_s2"
  top: "inception_4a/1x1"
  param {
    lr_mult: 1
    decay_mult: 1
  }
  param {
    lr_mult: 2
    decay_mult: 0
  }
  convolution_param {
    num_output: 192
    kernel_size: 1
    weight_filler {
      type: "xavier"
      std: 0.03
    }
    bias_filler {
      type: "constant"
      value: 0.2
    }
  }
}
layer {
  name: "inception_4a/relu_1x1"
  type: "ReLU"
  bottom: "inception_4a/1x1"
  top: "inception_4a/1x1"
}
layer {
  name: "inception_4a/3x3_reduce"
  type: "Convolution"
  bottom: "pool3/3x3_s2"
  top: "inception_4a/3x3_reduce"
  param {
    lr_mult: 1
    decay_mult: 1
  }
  param {
    lr_mult: 2
    decay_mult: 0
  }
  convolution_param {
    num_output: 96
    kernel_size: 1
    weight_filler {
      type: "xavier"
      std: 0.09
    }
    bias_filler {
      type: "constant"
      value: 0.2
    }
  }
}
layer {
  name: "inception_4a/relu_3x3_reduce"
  type: "ReLU"
  bottom: "inception_4a/3x3_reduce"
  top: "inception_4a/3x3_reduce"
}
layer {
  name: "inception_4a/3x3"
  type: "Convolution"
  bottom: "inception_4a/3x3_reduce"
  top: "inception_4a/3x3"
  param {
    lr_mult: 1
    decay_mult: 1
  }
  param {
    lr_mult: 2
    decay_mult: 0
  }
  convolution_param {
    num_output: 208
    pad: 1
    kernel_size: 3
    weight_filler {
      type: "xavier"
      std: 0.03
    }
    bias_filler {
      type: "constant"
      value: 0.2
    }
  }
}
layer {
  name: "inception_4a/relu_3x3"
  type: "ReLU"
  bottom: "inception_4a/3x3"
  top: "inception_4a/3x3"
}
layer {
  name: "inception_4a/5x5_reduce"
  type: "Convolution"
  bottom: "pool3/3x3_s2"
  top: "inception_4a/5x5_reduce"
  param {
    lr_mult: 1
    decay_mult: 1
  }
  param {
    lr_mult: 2
    decay_mult: 0
  }
  convolution_param {
    num_output: 16
    kernel_size: 1
    weight_filler {
      type: "xavier"
      std: 0.2
    }
    bias_filler {
      type: "constant"
      value: 0.2
    }
  }
}
layer {
  name: "inception_4a/relu_5x5_reduce"
  type: "ReLU"
  bottom: "inception_4a/5x5_reduce"
  top: "inception_4a/5x5_reduce"
}
layer {
  name: "inception_4a/5x5"
  type: "Convolution"
  bottom: "inception_4a/5x5_reduce"
  top: "inception_4a/5x5"
  param {
    lr_mult: 1
    decay_mult: 1
  }
  param {
    lr_mult: 2
    decay_mult: 0
  }
  convolution_param {
    num_output: 48
    pad: 2
    kernel_size: 5
    weight_filler {
      type: "xavier"
      std: 0.03
    }
    bias_filler {
      type: "constant"
      value: 0.2
    }
  }
}
layer {
  name: "inception_4a/relu_5x5"
  type: "ReLU"
  bottom: "inception_4a/5x5"
  top: "inception_4a/5x5"
}
layer {
  name: "inception_4a/pool"
  type: "Pooling"
  bottom: "pool3/3x3_s2"
  top: "inception_4a/pool"
  pooling_param {
    pool: MAX
    kernel_size: 3
    stride: 1
    pad: 1
  }
}
layer {
  name: "inception_4a/pool_proj"
  type: "Convolution"
  bottom: "inception_4a/pool"
  top: "inception_4a/pool_proj"
  param {
    lr_mult: 1
    decay_mult: 1
  }
  param {
    lr_mult: 2
    decay_mult: 0
  }
  convolution_param {
    num_output: 64
    kernel_size: 1
    weight_filler {
      type: "xavier"
      std: 0.1
    }
    bias_filler {
      type: "constant"
      value: 0.2
    }
  }
}
layer {
  name: "inception_4a/relu_pool_proj"
  type: "ReLU"
  bottom: "inception_4a/pool_proj"
  top: "inception_4a/pool_proj"
}
layer {
  name: "inception_4a/output"
  type: "Concat"
  bottom: "inception_4a/1x1"
  bottom: "inception_4a/3x3"
  bottom: "inception_4a/5x5"
  bottom: "inception_4a/pool_proj"
  top: "inception_4a/output"
}
layer {
  name: "loss1/ave_pool"
  type: "Pooling"
  bottom: "inception_4a/output"
  top: "loss1/ave_pool"
  pooling_param {
    pool: AVE
    kernel_size: 5
    stride: 3
  }
}
layer {
  name: "loss1/conv"
  type: "Convolution"
  bottom: "loss1/ave_pool"
  top: "loss1/conv"
  param {
    lr_mult: 1
    decay_mult: 1
  }
  param {
    lr_mult: 2
    decay_mult: 0
  }
  convolution_param {
    num_output: 128
    kernel_size: 1
    weight_filler {
      type: "xavier"
      std: 0.08
    }
    bias_filler {
      type: "constant"
      value: 0.2
    }
  }
}
layer {
  name: "loss1/relu_conv"
  type: "ReLU"
  bottom: "loss1/conv"
  top: "loss1/conv"
}
layer {
  name: "loss1/fc"
  type: "InnerProduct"
  bottom: "loss1/conv"
  top: "loss1/fc"
  param {
    lr_mult: 1
    decay_mult: 1
  }
  param {
    lr_mult: 2
    decay_mult: 0
  }
  inner_product_param {
    num_output: 1024
    weight_filler {
      type: "xavier"
      std: 0.02
    }
    bias_filler {
      type: "constant"
      value: 0.2
    }
  }
}
layer {
  name: "loss1/relu_fc"
  type: "ReLU"
  bottom: "loss1/fc"
  top: "loss1/fc"
}
layer {
  name: "loss1/drop_fc"
  type: "Dropout"
  bottom: "loss1/fc"
  top: "loss1/fc"
  dropout_param {
    dropout_ratio: 0.7
  }
}
layer {
  name: "loss1/classifier_plantvillage"
  type: "InnerProduct"
  bottom: "loss1/fc"
  top: "loss1/classifier_plantvillage"
  param {
    lr_mult: 1
    decay_mult: 1
  }
  param {
    lr_mult: 2
    decay_mult: 0
  }
  inner_product_param {
    num_output: 38
    weight_filler {
      type: "xavier"
      std: 0.0009765625
    }
    bias_filler {
      type: "constant"
      value: 0
    }
  }
}
layer {
  name: "inception_4b/1x1"
  type: "Convolution"
  bottom: "inception_4a/output"
  top: "inception_4b/1x1"
  param {
    lr_mult: 1
    decay_mult: 1
  }
  param {
    lr_mult: 2
    decay_mult: 0
  }
  convolution_param {
    num_output: 160
    kernel_size: 1
    weight_filler {
      type: "xavier"
      std: 0.03
    }
    bias_filler {
      type: "constant"
      value: 0.2
    }
  }
}
layer {
  name: "inception_4b/relu_1x1"
  type: "ReLU"
  bottom: "inception_4b/1x1"
  top: "inception_4b/1x1"
}
layer {
  name: "inception_4b/3x3_reduce"
  type: "Convolution"
  bottom: "inception_4a/output"
  top: "inception_4b/3x3_reduce"
  param {
    lr_mult: 1
    decay_mult: 1
  }
  param {
    lr_mult: 2
    decay_mult: 0
  }
  convolution_param {
    num_output: 112
    kernel_size: 1
    weight_filler {
      type: "xavier"
      std: 0.09
    }
    bias_filler {
      type: "constant"
      value: 0.2
    }
  }
}
layer {
  name: "inception_4b/relu_3x3_reduce"
  type: "ReLU"
  bottom: "inception_4b/3x3_reduce"
  top: "inception_4b/3x3_reduce"
}
layer {
  name: "inception_4b/3x3"
  type: "Convolution"
  bottom: "inception_4b/3x3_reduce"
  top: "inception_4b/3x3"
  param {
    lr_mult: 1
    decay_mult: 1
  }
  param {
    lr_mult: 2
    decay_mult: 0
  }
  convolution_param {
    num_output: 224
    pad: 1
    kernel_size: 3
    weight_filler {
      type: "xavier"
      std: 0.03
    }
    bias_filler {
      type: "constant"
      value: 0.2
    }
  }
}
layer {
  name: "inception_4b/relu_3x3"
  type: "ReLU"
  bottom: "inception_4b/3x3"
  top: "inception_4b/3x3"
}
layer {
  name: "inception_4b/5x5_reduce"
  type: "Convolution"
  bottom: "inception_4a/output"
  top: "inception_4b/5x5_reduce"
  param {
    lr_mult: 1
    decay_mult: 1
  }
  param {
    lr_mult: 2
    decay_mult: 0
  }
  convolution_param {
    num_output: 24
    kernel_size: 1
    weight_filler {
      type: "xavier"
      std: 0.2
    }
    bias_filler {
      type: "constant"
      value: 0.2
    }
  }
}
layer {
  name: "inception_4b/relu_5x5_reduce"
  type: "ReLU"
  bottom: "inception_4b/5x5_reduce"
  top: "inception_4b/5x5_reduce"
}
layer {
  name: "inception_4b/5x5"
  type: "Convolution"
  bottom: "inception_4b/5x5_reduce"
  top: "inception_4b/5x5"
  param {
    lr_mult: 1
    decay_mult: 1
  }
  param {
    lr_mult: 2
    decay_mult: 0
  }
  convolution_param {
    num_output: 64
    pad: 2
    kernel_size: 5
    weight_filler {
      type: "xavier"
      std: 0.03
    }
    bias_filler {
      type: "constant"
      value: 0.2
    }
  }
}
layer {
  name: "inception_4b/relu_5x5"
  type: "ReLU"
  bottom: "inception_4b/5x5"
  top: "inception_4b/5x5"
}
layer {
  name: "inception_4b/pool"
  type: "Pooling"
  bottom: "inception_4a/output"
  top: "inception_4b/pool"
  pooling_param {
    pool: MAX
    kernel_size: 3
    stride: 1
    pad: 1
  }
}
layer {
  name: "inception_4b/pool_proj"
  type: "Convolution"
  bottom: "inception_4b/pool"
  top: "inception_4b/pool_proj"
  param {
    lr_mult: 1
    decay_mult: 1
  }
  param {
    lr_mult: 2
    decay_mult: 0
  }
  convolution_param {
    num_output: 64
    kernel_size: 1
    weight_filler {
      type: "xavier"
      std: 0.1
    }
    bias_filler {
      type: "constant"
      value: 0.2
    }
  }
}
layer {
  name: "inception_4b/relu_pool_proj"
  type: "ReLU"
  bottom: "inception_4b/pool_proj"
  top: "inception_4b/pool_proj"
}
layer {
  name: "inception_4b/output"
  type: "Concat"
  bottom: "inception_4b/1x1"
  bottom: "inception_4b/3x3"
  bottom: "inception_4b/5x5"
  bottom: "inception_4b/pool_proj"
  top: "inception_4b/output"
}
layer {
  name: "inception_4c/1x1"
  type: "Convolution"
  bottom: "inception_4b/output"
  top: "inception_4c/1x1"
  param {
    lr_mult: 1
    decay_mult: 1
  }
  param {
    lr_mult: 2
    decay_mult: 0
  }
  convolution_param {
    num_output: 128
    kernel_size: 1
    weight_filler {
      type: "xavier"
      std: 0.03
    }
    bias_filler {
      type: "constant"
      value: 0.2
    }
  }
}
layer {
  name: "inception_4c/relu_1x1"
  type: "ReLU"
  bottom: "inception_4c/1x1"
  top: "inception_4c/1x1"
}
layer {
  name: "inception_4c/3x3_reduce"
  type: "Convolution"
  bottom: "inception_4b/output"
  top: "inception_4c/3x3_reduce"
  param {
    lr_mult: 1
    decay_mult: 1
  }
  param {
    lr_mult: 2
    decay_mult: 0
  }
  convolution_param {
    num_output: 128
    kernel_size: 1
    weight_filler {
      type: "xavier"
      std: 0.09
    }
    bias_filler {
      type: "constant"
      value: 0.2
    }
  }
}
layer {
  name: "inception_4c/relu_3x3_reduce"
  type: "ReLU"
  bottom: "inception_4c/3x3_reduce"
  top: "inception_4c/3x3_reduce"
}
layer {
  name: "inception_4c/3x3"
  type: "Convolution"
  bottom: "inception_4c/3x3_reduce"
  top: "inception_4c/3x3"
  param {
    lr_mult: 1
    decay_mult: 1
  }
  param {
    lr_mult: 2
    decay_mult: 0
  }
  convolution_param {
    num_output: 256
    pad: 1
    kernel_size: 3
    weight_filler {
      type: "xavier"
      std: 0.03
    }
    bias_filler {
      type: "constant"
      value: 0.2
    }
  }
}
layer {
  name: "inception_4c/relu_3x3"
  type: "ReLU"
  bottom: "inception_4c/3x3"
  top: "inception_4c/3x3"
}
layer {
  name: "inception_4c/5x5_reduce"
  type: "Convolution"
  bottom: "inception_4b/output"
  top: "inception_4c/5x5_reduce"
  param {
    lr_mult: 1
    decay_mult: 1
  }
  param {
    lr_mult: 2
    decay_mult: 0
  }
  convolution_param {
    num_output: 24
    kernel_size: 1
    weight_filler {
      type: "xavier"
      std: 0.2
    }
    bias_filler {
      type: "constant"
      value: 0.2
    }
  }
}
layer {
  name: "inception_4c/relu_5x5_reduce"
  type: "ReLU"
  bottom: "inception_4c/5x5_reduce"
  top: "inception_4c/5x5_reduce"
}
layer {
  name: "inception_4c/5x5"
  type: "Convolution"
  bottom: "inception_4c/5x5_reduce"
  top: "inception_4c/5x5"
  param {
    lr_mult: 1
    decay_mult: 1
  }
  param {
    lr_mult: 2
    decay_mult: 0
  }
  convolution_param {
    num_output: 64
    pad: 2
    kernel_size: 5
    weight_filler {
      type: "xavier"
      std: 0.03
    }
    bias_filler {
      type: "constant"
      value: 0.2
    }
  }
}
layer {
  name: "inception_4c/relu_5x5"
  type: "ReLU"
  bottom: "inception_4c/5x5"
  top: "inception_4c/5x5"
}
layer {
  name: "inception_4c/pool"
  type: "Pooling"
  bottom: "inception_4b/output"
  top: "inception_4c/pool"
  pooling_param {
    pool: MAX
    kernel_size: 3
    stride: 1
    pad: 1
  }
}
layer {
  name: "inception_4c/pool_proj"
  type: "Convolution"
  bottom: "inception_4c/pool"
  top: "inception_4c/pool_proj"
  param {
    lr_mult: 1
    decay_mult: 1
  }
  param {
    lr_mult: 2
    decay_mult: 0
  }
  convolution_param {
    num_output: 64
    kernel_size: 1
    weight_filler {
      type: "xavier"
      std: 0.1
    }
    bias_filler {
      type: "constant"
      value: 0.2
    }
  }
}
layer {
  name: "inception_4c/relu_pool_proj"
  type: "ReLU"
  bottom: "inception_4c/pool_proj"
  top: "inception_4c/pool_proj"
}
layer {
  name: "inception_4c/output"
  type: "Concat"
  bottom: "inception_4c/1x1"
  bottom: "inception_4c/3x3"
  bottom: "inception_4c/5x5"
  bottom: "inception_4c/pool_proj"
  top: "inception_4c/output"
}
layer {
  name: "inception_4d/1x1"
  type: "Convolution"
  bottom: "inception_4c/output"
  top: "inception_4d/1x1"
  param {
    lr_mult: 1
    decay_mult: 1
  }
  param {
    lr_mult: 2
    decay_mult: 0
  }
  convolution_param {
    num_output: 112
    kernel_size: 1
    weight_filler {
      type: "xavier"
      std: 0.03
    }
    bias_filler {
      type: "constant"
      value: 0.2
    }
  }
}
layer {
  name: "inception_4d/relu_1x1"
  type: "ReLU"
  bottom: "inception_4d/1x1"
  top: "inception_4d/1x1"
}
layer {
  name: "inception_4d/3x3_reduce"
  type: "Convolution"
  bottom: "inception_4c/output"
  top: "inception_4d/3x3_reduce"
  param {
    lr_mult: 1
    decay_mult: 1
  }
  param {
    lr_mult: 2
    decay_mult: 0
  }
  convolution_param {
    num_output: 144
    kernel_size: 1
    weight_filler {
      type: "xavier"
      std: 0.09
    }
    bias_filler {
      type: "constant"
      value: 0.2
    }
  }
}
layer {
  name: "inception_4d/relu_3x3_reduce"
  type: "ReLU"
  bottom: "inception_4d/3x3_reduce"
  top: "inception_4d/3x3_reduce"
}
layer {
  name: "inception_4d/3x3"
  type: "Convolution"
  bottom: "inception_4d/3x3_reduce"
  top: "inception_4d/3x3"
  param {
    lr_mult: 1
    decay_mult: 1
  }
  param {
    lr_mult: 2
    decay_mult: 0
  }
  convolution_param {
    num_output: 288
    pad: 1
    kernel_size: 3
    weight_filler {
      type: "xavier"
      std: 0.03
    }
    bias_filler {
      type: "constant"
      value: 0.2
    }
  }
}
layer {
  name: "inception_4d/relu_3x3"
  type: "ReLU"
  bottom: "inception_4d/3x3"
  top: "inception_4d/3x3"
}
layer {
  name: "inception_4d/5x5_reduce"
  type: "Convolution"
  bottom: "inception_4c/output"
  top: "inception_4d/5x5_reduce"
  param {
    lr_mult: 1
    decay_mult: 1
  }
  param {
    lr_mult: 2
    decay_mult: 0
  }
  convolution_param {
    num_output: 32
    kernel_size: 1
    weight_filler {
      type: "xavier"
      std: 0.2
    }
    bias_filler {
      type: "constant"
      value: 0.2
    }
  }
}
layer {
  name: "inception_4d/relu_5x5_reduce"
  type: "ReLU"
  bottom: "inception_4d/5x5_reduce"
  top: "inception_4d/5x5_reduce"
}
layer {
  name: "inception_4d/5x5"
  type: "Convolution"
  bottom: "inception_4d/5x5_reduce"
  top: "inception_4d/5x5"
  param {
    lr_mult: 1
    decay_mult: 1
  }
  param {
    lr_mult: 2
    decay_mult: 0
  }
  convolution_param {
    num_output: 64
    pad: 2
    kernel_size: 5
    weight_filler {
      type: "xavier"
      std: 0.03
    }
    bias_filler {
      type: "constant"
      value: 0.2
    }
  }
}
layer {
  name: "inception_4d/relu_5x5"
  type: "ReLU"
  bottom: "inception_4d/5x5"
  top: "inception_4d/5x5"
}
layer {
  name: "inception_4d/pool"
  type: "Pooling"
  bottom: "inception_4c/output"
  top: "inception_4d/pool"
  pooling_param {
    pool: MAX
    kernel_size: 3
    stride: 1
    pad: 1
  }
}
layer {
  name: "inception_4d/pool_proj"
  type: "Convolution"
  bottom: "inception_4d/pool"
  top: "inception_4d/pool_proj"
  param {
    lr_mult: 1
    decay_mult: 1
  }
  param {
    lr_mult: 2
    decay_mult: 0
  }
  convolution_param {
    num_output: 64
    kernel_size: 1
    weight_filler {
      type: "xavier"
      std: 0.1
    }
    bias_filler {
      type: "constant"
      value: 0.2
    }
  }
}
layer {
  name: "inception_4d/relu_pool_proj"
  type: "ReLU"
  bottom: "inception_4d/pool_proj"
  top: "inception_4d/pool_proj"
}
layer {
  name: "inception_4d/output"
  type: "Concat"
  bottom: "inception_4d/1x1"
  bottom: "inception_4d/3x3"
  bottom: "inception_4d/5x5"
  bottom: "inception_4d/pool_proj"
  top: "inception_4d/output"
}
layer {
  name: "loss2/ave_pool"
  type: "Pooling"
  bottom: "inception_4d/output"
  top: "loss2/ave_pool"
  pooling_param {
    pool: AVE
    kernel_size: 5
    stride: 3
  }
}
layer {
  name: "loss2/conv"
  type: "Convolution"
  bottom: "loss2/ave_pool"
  top: "loss2/conv"
  param {
    lr_mult: 1
    decay_mult: 1
  }
  param {
    lr_mult: 2
    decay_mult: 0
  }
  convolution_param {
    num_output: 128
    kernel_size: 1
    weight_filler {
      type: "xavier"
      std: 0.08
    }
    bias_filler {
      type: "constant"
      value: 0.2
    }
  }
}
layer {
  name: "loss2/relu_conv"
  type: "ReLU"
  bottom: "loss2/conv"
  top: "loss2/conv"
}
layer {
  name: "loss2/fc"
  type: "InnerProduct"
  bottom: "loss2/conv"
  top: "loss2/fc"
  param {
    lr_mult: 1
    decay_mult: 1
  }
  param {
    lr_mult: 2
    decay_mult: 0
  }
  inner_product_param {
    num_output: 1024
    weight_filler {
      type: "xavier"
      std: 0.02
    }
    bias_filler {
      type: "constant"
      value: 0.2
    }
  }
}
layer {
  name: "loss2/relu_fc"
  type: "ReLU"
  bottom: "loss2/fc"
  top: "loss2/fc"
}
layer {
  name: "loss2/drop_fc"
  type: "Dropout"
  bottom: "loss2/fc"
  top: "loss2/fc"
  dropout_param {
    dropout_ratio: 0.7
  }
}
layer {
  name: "loss2/classifier_plantvillage"
  type: "InnerProduct"
  bottom: "loss2/fc"
  top: "loss2/classifier_plantvillage"
  param {
    lr_mult: 1
    decay_mult: 1
  }
  param {
    lr_mult: 2
    decay_mult: 0
  }
  inner_product_param {
    num_output: 38
    weight_filler {
      type: "xavier"
      std: 0.0009765625
    }
    bias_filler {
      type: "constant"
      value: 0
    }
  }
}
layer {
  name: "inception_4e/1x1"
  type: "Convolution"
  bottom: "inception_4d/output"
  top: "inception_4e/1x1"
  param {
    lr_mult: 1
    decay_mult: 1
  }
  param {
    lr_mult: 2
    decay_mult: 0
  }
  convolution_param {
    num_output: 256
    kernel_size: 1
    weight_filler {
      type: "xavier"
      std: 0.03
    }
    bias_filler {
      type: "constant"
      value: 0.2
    }
  }
}
layer {
  name: "inception_4e/relu_1x1"
  type: "ReLU"
  bottom: "inception_4e/1x1"
  top: "inception_4e/1x1"
}
layer {
  name: "inception_4e/3x3_reduce"
  type: "Convolution"
  bottom: "inception_4d/output"
  top: "inception_4e/3x3_reduce"
  param {
    lr_mult: 1
    decay_mult: 1
  }
  param {
    lr_mult: 2
    decay_mult: 0
  }
  convolution_param {
    num_output: 160
    kernel_size: 1
    weight_filler {
      type: "xavier"
      std: 0.09
    }
    bias_filler {
      type: "constant"
      value: 0.2
    }
  }
}
layer {
  name: "inception_4e/relu_3x3_reduce"
  type: "ReLU"
  bottom: "inception_4e/3x3_reduce"
  top: "inception_4e/3x3_reduce"
}
layer {
  name: "inception_4e/3x3"
  type: "Convolution"
  bottom: "inception_4e/3x3_reduce"
  top: "inception_4e/3x3"
  param {
    lr_mult: 1
    decay_mult: 1
  }
  param {
    lr_mult: 2
    decay_mult: 0
  }
  convolution_param {
    num_output: 320
    pad: 1
    kernel_size: 3
    weight_filler {
      type: "xavier"
      std: 0.03
    }
    bias_filler {
      type: "constant"
      value: 0.2
    }
  }
}
layer {
  name: "inception_4e/relu_3x3"
  type: "ReLU"
  bottom: "inception_4e/3x3"
  top: "inception_4e/3x3"
}
layer {
  name: "inception_4e/5x5_reduce"
  type: "Convolution"
  bottom: "inception_4d/output"
  top: "inception_4e/5x5_reduce"
  param {
    lr_mult: 1
    decay_mult: 1
  }
  param {
    lr_mult: 2
    decay_mult: 0
  }
  convolution_param {
    num_output: 32
    kernel_size: 1
    weight_filler {
      type: "xavier"
      std: 0.2
    }
    bias_filler {
      type: "constant"
      value: 0.2
    }
  }
}
layer {
  name: "inception_4e/relu_5x5_reduce"
  type: "ReLU"
  bottom: "inception_4e/5x5_reduce"
  top: "inception_4e/5x5_reduce"
}
layer {
  name: "inception_4e/5x5"
  type: "Convolution"
  bottom: "inception_4e/5x5_reduce"
  top: "inception_4e/
I0403 21:35:50.730485 23585 layer_factory.hpp:77] Creating layer data
I0403 21:35:50.731371 23585 net.cpp:91] Creating Layer data
I0403 21:35:50.731403 23585 net.cpp:399] data -> data
I0403 21:35:50.731500 23585 net.cpp:399] data -> label
I0403 21:35:50.731578 23585 data_transformer.cpp:25] Loading mean file from: /home/mohanty/data/final_dataset/lmdb/segmented-80-20/mean.binaryproto
I0403 21:35:50.850281 23590 db_lmdb.cpp:38] Opened lmdb /home/mohanty/data/final_dataset/lmdb/segmented-80-20/test_db
I0403 21:35:50.865447 23585 data_layer.cpp:41] output data size: 24,3,224,224
I0403 21:35:50.894460 23585 net.cpp:141] Setting up data
I0403 21:35:50.894558 23585 net.cpp:148] Top shape: 24 3 224 224 (3612672)
I0403 21:35:50.894583 23585 net.cpp:148] Top shape: 24 (24)
I0403 21:35:50.894600 23585 net.cpp:156] Memory required for data: 14450784
I0403 21:35:50.894631 23585 layer_factory.hpp:77] Creating layer label_data_1_split
I0403 21:35:50.894665 23585 net.cpp:91] Creating Layer label_data_1_split
I0403 21:35:50.894685 23585 net.cpp:425] label_data_1_split <- label
I0403 21:35:50.894719 23585 net.cpp:399] label_data_1_split -> label_data_1_split_0
I0403 21:35:50.894750 23585 net.cpp:399] label_data_1_split -> label_data_1_split_1
I0403 21:35:50.894773 23585 net.cpp:399] label_data_1_split -> label_data_1_split_2
I0403 21:35:50.894796 23585 net.cpp:399] label_data_1_split -> label_data_1_split_3
I0403 21:35:50.894819 23585 net.cpp:399] label_data_1_split -> label_data_1_split_4
I0403 21:35:50.894841 23585 net.cpp:399] label_data_1_split -> label_data_1_split_5
I0403 21:35:50.894865 23585 net.cpp:399] label_data_1_split -> label_data_1_split_6
I0403 21:35:50.894887 23585 net.cpp:399] label_data_1_split -> label_data_1_split_7
I0403 21:35:50.894912 23585 net.cpp:399] label_data_1_split -> label_data_1_split_8
I0403 21:35:50.894942 23585 net.cpp:399] label_data_1_split -> label_data_1_split_9
I0403 21:35:50.895067 23585 net.cpp:141] Setting up label_data_1_split
I0403 21:35:50.895093 23585 net.cpp:148] Top shape: 24 (24)
I0403 21:35:50.895112 23585 net.cpp:148] Top shape: 24 (24)
I0403 21:35:50.895128 23585 net.cpp:148] Top shape: 24 (24)
I0403 21:35:50.895145 23585 net.cpp:148] Top shape: 24 (24)
I0403 21:35:50.895162 23585 net.cpp:148] Top shape: 24 (24)
I0403 21:35:50.895180 23585 net.cpp:148] Top shape: 24 (24)
I0403 21:35:50.895202 23585 net.cpp:148] Top shape: 24 (24)
I0403 21:35:50.895221 23585 net.cpp:148] Top shape: 24 (24)
I0403 21:35:50.895239 23585 net.cpp:148] Top shape: 24 (24)
I0403 21:35:50.895256 23585 net.cpp:148] Top shape: 24 (24)
I0403 21:35:50.895306 23585 net.cpp:156] Memory required for data: 14451744
I0403 21:35:50.895324 23585 layer_factory.hpp:77] Creating layer conv1/7x7_s2
I0403 21:35:50.895373 23585 net.cpp:91] Creating Layer conv1/7x7_s2
I0403 21:35:50.895396 23585 net.cpp:425] conv1/7x7_s2 <- data
I0403 21:35:50.895417 23585 net.cpp:399] conv1/7x7_s2 -> conv1/7x7_s2
I0403 21:35:52.599493 23585 net.cpp:141] Setting up conv1/7x7_s2
I0403 21:35:52.599557 23585 net.cpp:148] Top shape: 24 64 112 112 (19267584)
I0403 21:35:52.599576 23585 net.cpp:156] Memory required for data: 91522080
I0403 21:35:52.599611 23585 layer_factory.hpp:77] Creating layer conv1/relu_7x7
I0403 21:35:52.599658 23585 net.cpp:91] Creating Layer conv1/relu_7x7
I0403 21:35:52.599697 23585 net.cpp:425] conv1/relu_7x7 <- conv1/7x7_s2
I0403 21:35:52.599717 23585 net.cpp:386] conv1/relu_7x7 -> conv1/7x7_s2 (in-place)
I0403 21:35:52.599993 23585 net.cpp:141] Setting up conv1/relu_7x7
I0403 21:35:52.600020 23585 net.cpp:148] Top shape: 24 64 112 112 (19267584)
I0403 21:35:52.600036 23585 net.cpp:156] Memory required for data: 168592416
I0403 21:35:52.600052 23585 layer_factory.hpp:77] Creating layer pool1/3x3_s2
I0403 21:35:52.600090 23585 net.cpp:91] Creating Layer pool1/3x3_s2
I0403 21:35:52.600111 23585 net.cpp:425] pool1/3x3_s2 <- conv1/7x7_s2
I0403 21:35:52.600129 23585 net.cpp:399] pool1/3x3_s2 -> pool1/3x3_s2
I0403 21:35:52.600244 23585 net.cpp:141] Setting up pool1/3x3_s2
I0403 21:35:52.600270 23585 net.cpp:148] Top shape: 24 64 56 56 (4816896)
I0403 21:35:52.600284 23585 net.cpp:156] Memory required for data: 187860000
I0403 21:35:52.600299 23585 layer_factory.hpp:77] Creating layer pool1/norm1
I0403 21:35:52.600335 23585 net.cpp:91] Creating Layer pool1/norm1
I0403 21:35:52.600355 23585 net.cpp:425] pool1/norm1 <- pool1/3x3_s2
I0403 21:35:52.600373 23585 net.cpp:399] pool1/norm1 -> pool1/norm1
I0403 21:35:52.600672 23585 net.cpp:141] Setting up pool1/norm1
I0403 21:35:52.600699 23585 net.cpp:148] Top shape: 24 64 56 56 (4816896)
I0403 21:35:52.600715 23585 net.cpp:156] Memory required for data: 207127584
I0403 21:35:52.600730 23585 layer_factory.hpp:77] Creating layer conv2/3x3_reduce
I0403 21:35:52.600756 23585 net.cpp:91] Creating Layer conv2/3x3_reduce
I0403 21:35:52.600775 23585 net.cpp:425] conv2/3x3_reduce <- pool1/norm1
I0403 21:35:52.600793 23585 net.cpp:399] conv2/3x3_reduce -> conv2/3x3_reduce
I0403 21:35:52.602166 23585 net.cpp:141] Setting up conv2/3x3_reduce
I0403 21:35:52.602206 23585 net.cpp:148] Top shape: 24 64 56 56 (4816896)
I0403 21:35:52.602222 23585 net.cpp:156] Memory required for data: 226395168
I0403 21:35:52.602251 23585 layer_factory.hpp:77] Creating layer conv2/relu_3x3_reduce
I0403 21:35:52.602270 23585 net.cpp:91] Creating Layer conv2/relu_3x3_reduce
I0403 21:35:52.602288 23585 net.cpp:425] conv2/relu_3x3_reduce <- conv2/3x3_reduce
I0403 21:35:52.602308 23585 net.cpp:386] conv2/relu_3x3_reduce -> conv2/3x3_reduce (in-place)
I0403 21:35:52.602566 23585 net.cpp:141] Setting up conv2/relu_3x3_reduce
I0403 21:35:52.602592 23585 net.cpp:148] Top shape: 24 64 56 56 (4816896)
I0403 21:35:52.602607 23585 net.cpp:156] Memory required for data: 245662752
I0403 21:35:52.602622 23585 layer_factory.hpp:77] Creating layer conv2/3x3
I0403 21:35:52.602645 23585 net.cpp:91] Creating Layer conv2/3x3
I0403 21:35:52.602663 23585 net.cpp:425] conv2/3x3 <- conv2/3x3_reduce
I0403 21:35:52.602681 23585 net.cpp:399] conv2/3x3 -> conv2/3x3
I0403 21:35:52.604924 23585 net.cpp:141] Setting up conv2/3x3
I0403 21:35:52.604955 23585 net.cpp:148] Top shape: 24 192 56 56 (14450688)
I0403 21:35:52.604972 23585 net.cpp:156] Memory required for data: 303465504
I0403 21:35:52.604993 23585 layer_factory.hpp:77] Creating layer conv2/relu_3x3
I0403 21:35:52.605013 23585 net.cpp:91] Creating Layer conv2/relu_3x3
I0403 21:35:52.605031 23585 net.cpp:425] conv2/relu_3x3 <- conv2/3x3
I0403 21:35:52.605049 23585 net.cpp:386] conv2/relu_3x3 -> conv2/3x3 (in-place)
I0403 21:35:52.605204 23585 net.cpp:141] Setting up conv2/relu_3x3
I0403 21:35:52.605233 23585 net.cpp:148] Top shape: 24 192 56 56 (14450688)
I0403 21:35:52.605279 23585 net.cpp:156] Memory required for data: 361268256
I0403 21:35:52.605296 23585 layer_factory.hpp:77] Creating layer conv2/norm2
I0403 21:35:52.605316 23585 net.cpp:91] Creating Layer conv2/norm2
I0403 21:35:52.605334 23585 net.cpp:425] conv2/norm2 <- conv2/3x3
I0403 21:35:52.605351 23585 net.cpp:399] conv2/norm2 -> conv2/norm2
I0403 21:35:52.605629 23585 net.cpp:141] Setting up conv2/norm2
I0403 21:35:52.605659 23585 net.cpp:148] Top shape: 24 192 56 56 (14450688)
I0403 21:35:52.605674 23585 net.cpp:156] Memory required for data: 419071008
I0403 21:35:52.605690 23585 layer_factory.hpp:77] Creating layer pool2/3x3_s2
I0403 21:35:52.605707 23585 net.cpp:91] Creating Layer pool2/3x3_s2
I0403 21:35:52.605722 23585 net.cpp:425] pool2/3x3_s2 <- conv2/norm2
I0403 21:35:52.605741 23585 net.cpp:399] pool2/3x3_s2 -> pool2/3x3_s2
I0403 21:35:52.605793 23585 net.cpp:141] Setting up pool2/3x3_s2
I0403 21:35:52.605816 23585 net.cpp:148] Top shape: 24 192 28 28 (3612672)
I0403 21:35:52.605832 23585 net.cpp:156] Memory required for data: 433521696
I0403 21:35:52.605847 23585 layer_factory.hpp:77] Creating layer pool2/3x3_s2_pool2/3x3_s2_0_split
I0403 21:35:52.605867 23585 net.cpp:91] Creating Layer pool2/3x3_s2_pool2/3x3_s2_0_split
I0403 21:35:52.605883 23585 net.cpp:425] pool2/3x3_s2_pool2/3x3_s2_0_split <- pool2/3x3_s2
I0403 21:35:52.605901 23585 net.cpp:399] pool2/3x3_s2_pool2/3x3_s2_0_split -> pool2/3x3_s2_pool2/3x3_s2_0_split_0
I0403 21:35:52.605921 23585 net.cpp:399] pool2/3x3_s2_pool2/3x3_s2_0_split -> pool2/3x3_s2_pool2/3x3_s2_0_split_1
I0403 21:35:52.605944 23585 net.cpp:399] pool2/3x3_s2_pool2/3x3_s2_0_split -> pool2/3x3_s2_pool2/3x3_s2_0_split_2
I0403 21:35:52.605964 23585 net.cpp:399] pool2/3x3_s2_pool2/3x3_s2_0_split -> pool2/3x3_s2_pool2/3x3_s2_0_split_3
I0403 21:35:52.606031 23585 net.cpp:141] Setting up pool2/3x3_s2_pool2/3x3_s2_0_split
I0403 21:35:52.606055 23585 net.cpp:148] Top shape: 24 192 28 28 (3612672)
I0403 21:35:52.606071 23585 net.cpp:148] Top shape: 24 192 28 28 (3612672)
I0403 21:35:52.606086 23585 net.cpp:148] Top shape: 24 192 28 28 (3612672)
I0403 21:35:52.606102 23585 net.cpp:148] Top shape: 24 192 28 28 (3612672)
I0403 21:35:52.606117 23585 net.cpp:156] Memory required for data: 491324448
I0403 21:35:52.606132 23585 layer_factory.hpp:77] Creating layer inception_3a/1x1
I0403 21:35:52.606154 23585 net.cpp:91] Creating Layer inception_3a/1x1
I0403 21:35:52.606185 23585 net.cpp:425] inception_3a/1x1 <- pool2/3x3_s2_pool2/3x3_s2_0_split_0
I0403 21:35:52.606206 23585 net.cpp:399] inception_3a/1x1 -> inception_3a/1x1
I0403 21:35:52.607769 23585 net.cpp:141] Setting up inception_3a/1x1
I0403 21:35:52.607795 23585 net.cpp:148] Top shape: 24 64 28 28 (1204224)
I0403 21:35:52.607812 23585 net.cpp:156] Memory required for data: 496141344
I0403 21:35:52.607831 23585 layer_factory.hpp:77] Creating layer inception_3a/relu_1x1
I0403 21:35:52.607849 23585 net.cpp:91] Creating Layer inception_3a/relu_1x1
I0403 21:35:52.607866 23585 net.cpp:425] inception_3a/relu_1x1 <- inception_3a/1x1
I0403 21:35:52.607884 23585 net.cpp:386] inception_3a/relu_1x1 -> inception_3a/1x1 (in-place)
I0403 21:35:52.608054 23585 net.cpp:141] Setting up inception_3a/relu_1x1
I0403 21:35:52.608079 23585 net.cpp:148] Top shape: 24 64 28 28 (1204224)
I0403 21:35:52.608094 23585 net.cpp:156] Memory required for data: 500958240
I0403 21:35:52.608110 23585 layer_factory.hpp:77] Creating layer inception_3a/3x3_reduce
I0403 21:35:52.608132 23585 net.cpp:91] Creating Layer inception_3a/3x3_reduce
I0403 21:35:52.608150 23585 net.cpp:425] inception_3a/3x3_reduce <- pool2/3x3_s2_pool2/3x3_s2_0_split_1
I0403 21:35:52.608170 23585 net.cpp:399] inception_3a/3x3_reduce -> inception_3a/3x3_reduce
I0403 21:35:52.609925 23585 net.cpp:141] Setting up inception_3a/3x3_reduce
I0403 21:35:52.609956 23585 net.cpp:148] Top shape: 24 96 28 28 (1806336)
I0403 21:35:52.609972 23585 net.cpp:156] Memory required for data: 508183584
I0403 21:35:52.609994 23585 layer_factory.hpp:77] Creating layer inception_3a/relu_3x3_reduce
I0403 21:35:52.610035 23585 net.cpp:91] Creating Layer inception_3a/relu_3x3_reduce
I0403 21:35:52.610054 23585 net.cpp:425] inception_3a/relu_3x3_reduce <- inception_3a/3x3_reduce
I0403 21:35:52.610072 23585 net.cpp:386] inception_3a/relu_3x3_reduce -> inception_3a/3x3_reduce (in-place)
I0403 21:35:52.610266 23585 net.cpp:141] Setting up inception_3a/relu_3x3_reduce
I0403 21:35:52.610294 23585 net.cpp:148] Top shape: 24 96 28 28 (1806336)
I0403 21:35:52.610309 23585 net.cpp:156] Memory required for data: 515408928
I0403 21:35:52.610326 23585 layer_factory.hpp:77] Creating layer inception_3a/3x3
I0403 21:35:52.610348 23585 net.cpp:91] Creating Layer inception_3a/3x3
I0403 21:35:52.610368 23585 net.cpp:425] inception_3a/3x3 <- inception_3a/3x3_reduce
I0403 21:35:52.610390 23585 net.cpp:399] inception_3a/3x3 -> inception_3a/3x3
I0403 21:35:52.612004 23585 net.cpp:141] Setting up inception_3a/3x3
I0403 21:35:52.612032 23585 net.cpp:148] Top shape: 24 128 28 28 (2408448)
I0403 21:35:52.612048 23585 net.cpp:156] Memory required for data: 525042720
I0403 21:35:52.612068 23585 layer_factory.hpp:77] Creating layer inception_3a/relu_3x3
I0403 21:35:52.612090 23585 net.cpp:91] Creating Layer inception_3a/relu_3x3
I0403 21:35:52.612108 23585 net.cpp:425] inception_3a/relu_3x3 <- inception_3a/3x3
I0403 21:35:52.612126 23585 net.cpp:386] inception_3a/relu_3x3 -> inception_3a/3x3 (in-place)
I0403 21:35:52.612397 23585 net.cpp:141] Setting up inception_3a/relu_3x3
I0403 21:35:52.612423 23585 net.cpp:148] Top shape: 24 128 28 28 (2408448)
I0403 21:35:52.612439 23585 net.cpp:156] Memory required for data: 534676512
I0403 21:35:52.612455 23585 layer_factory.hpp:77] Creating layer inception_3a/5x5_reduce
I0403 21:35:52.612478 23585 net.cpp:91] Creating Layer inception_3a/5x5_reduce
I0403 21:35:52.612495 23585 net.cpp:425] inception_3a/5x5_reduce <- pool2/3x3_s2_pool2/3x3_s2_0_split_2
I0403 21:35:52.612516 23585 net.cpp:399] inception_3a/5x5_reduce -> inception_3a/5x5_reduce
I0403 21:35:52.613504 23585 net.cpp:141] Setting up inception_3a/5x5_reduce
I0403 21:35:52.613531 23585 net.cpp:148] Top shape: 24 16 28 28 (301056)
I0403 21:35:52.613546 23585 net.cpp:156] Memory required for data: 535880736
I0403 21:35:52.613565 23585 layer_factory.hpp:77] Creating layer inception_3a/relu_5x5_reduce
I0403 21:35:52.613584 23585 net.cpp:91] Creating Layer inception_3a/relu_5x5_reduce
I0403 21:35:52.613602 23585 net.cpp:425] inception_3a/relu_5x5_reduce <- inception_3a/5x5_reduce
I0403 21:35:52.613620 23585 net.cpp:386] inception_3a/relu_5x5_reduce -> inception_3a/5x5_reduce (in-place)
I0403 21:35:52.613916 23585 net.cpp:141] Setting up inception_3a/relu_5x5_reduce
I0403 21:35:52.613943 23585 net.cpp:148] Top shape: 24 16 28 28 (301056)
I0403 21:35:52.613962 23585 net.cpp:156] Memory required for data: 537084960
I0403 21:35:52.613978 23585 layer_factory.hpp:77] Creating layer inception_3a/5x5
I0403 21:35:52.613998 23585 net.cpp:91] Creating Layer inception_3a/5x5
I0403 21:35:52.614017 23585 net.cpp:425] inception_3a/5x5 <- inception_3a/5x5_reduce
I0403 21:35:52.614037 23585 net.cpp:399] inception_3a/5x5 -> inception_3a/5x5
I0403 21:35:52.615078 23585 net.cpp:141] Setting up inception_3a/5x5
I0403 21:35:52.615104 23585 net.cpp:148] Top shape: 24 32 28 28 (602112)
I0403 21:35:52.615120 23585 net.cpp:156] Memory required for data: 539493408
I0403 21:35:52.615139 23585 layer_factory.hpp:77] Creating layer inception_3a/relu_5x5
I0403 21:35:52.615160 23585 net.cpp:91] Creating Layer inception_3a/relu_5x5
I0403 21:35:52.615180 23585 net.cpp:425] inception_3a/relu_5x5 <- inception_3a/5x5
I0403 21:35:52.615196 23585 net.cpp:386] inception_3a/relu_5x5 -> inception_3a/5x5 (in-place)
I0403 21:35:52.615387 23585 net.cpp:141] Setting up inception_3a/relu_5x5
I0403 21:35:52.615413 23585 net.cpp:148] Top shape: 24 32 28 28 (602112)
I0403 21:35:52.615429 23585 net.cpp:156] Memory required for data: 541901856
I0403 21:35:52.615445 23585 layer_factory.hpp:77] Creating layer inception_3a/pool
I0403 21:35:52.615468 23585 net.cpp:91] Creating Layer inception_3a/pool
I0403 21:35:52.615497 23585 net.cpp:425] inception_3a/pool <- pool2/3x3_s2_pool2/3x3_s2_0_split_3
I0403 21:35:52.615517 23585 net.cpp:399] inception_3a/pool -> inception_3a/pool
I0403 21:35:52.615577 23585 net.cpp:141] Setting up inception_3a/pool
I0403 21:35:52.615602 23585 net.cpp:148] Top shape: 24 192 28 28 (3612672)
I0403 21:35:52.615617 23585 net.cpp:156] Memory required for data: 556352544
I0403 21:35:52.615633 23585 layer_factory.hpp:77] Creating layer inception_3a/pool_proj
I0403 21:35:52.615655 23585 net.cpp:91] Creating Layer inception_3a/pool_proj
I0403 21:35:52.615672 23585 net.cpp:425] inception_3a/pool_proj <- inception_3a/pool
I0403 21:35:52.615699 23585 net.cpp:399] inception_3a/pool_proj -> inception_3a/pool_proj
I0403 21:35:52.616685 23585 net.cpp:141] Setting up inception_3a/pool_proj
I0403 21:35:52.616716 23585 net.cpp:148] Top shape: 24 32 28 28 (602112)
I0403 21:35:52.616735 23585 net.cpp:156] Memory required for data: 558760992
I0403 21:35:52.616757 23585 layer_factory.hpp:77] Creating layer inception_3a/relu_pool_proj
I0403 21:35:52.616780 23585 net.cpp:91] Creating Layer inception_3a/relu_pool_proj
I0403 21:35:52.616797 23585 net.cpp:425] inception_3a/relu_pool_proj <- inception_3a/pool_proj
I0403 21:35:52.616816 23585 net.cpp:386] inception_3a/relu_pool_proj -> inception_3a/pool_proj (in-place)
I0403 21:35:52.617087 23585 net.cpp:141] Setting up inception_3a/relu_pool_proj
I0403 21:35:52.617113 23585 net.cpp:148] Top shape: 24 32 28 28 (602112)
I0403 21:35:52.617130 23585 net.cpp:156] Memory required for data: 561169440
I0403 21:35:52.617146 23585 layer_factory.hpp:77] Creating layer inception_3a/output
I0403 21:35:52.617163 23585 net.cpp:91] Creating Layer inception_3a/output
I0403 21:35:52.617182 23585 net.cpp:425] inception_3a/output <- inception_3a/1x1
I0403 21:35:52.617199 23585 net.cpp:425] inception_3a/output <- inception_3a/3x3
I0403 21:35:52.617220 23585 net.cpp:425] inception_3a/output <- inception_3a/5x5
I0403 21:35:52.617244 23585 net.cpp:425] inception_3a/output <- inception_3a/pool_proj
I0403 21:35:52.617262 23585 net.cpp:399] inception_3a/output -> inception_3a/output
I0403 21:35:52.617323 23585 net.cpp:141] Setting up inception_3a/output
I0403 21:35:52.617352 23585 net.cpp:148] Top shape: 24 256 28 28 (4816896)
I0403 21:35:52.617368 23585 net.cpp:156] Memory required for data: 580437024
I0403 21:35:52.617384 23585 layer_factory.hpp:77] Creating layer inception_3a/output_inception_3a/output_0_split
I0403 21:35:52.617401 23585 net.cpp:91] Creating Layer inception_3a/output_inception_3a/output_0_split
I0403 21:35:52.617418 23585 net.cpp:425] inception_3a/output_inception_3a/output_0_split <- inception_3a/output
I0403 21:35:52.617437 23585 net.cpp:399] inception_3a/output_inception_3a/output_0_split -> inception_3a/output_inception_3a/output_0_split_0
I0403 21:35:52.617460 23585 net.cpp:399] inception_3a/output_inception_3a/output_0_split -> inception_3a/output_inception_3a/output_0_split_1
I0403 21:35:52.617483 23585 net.cpp:399] inception_3a/output_inception_3a/output_0_split -> inception_3a/output_inception_3a/output_0_split_2
I0403 21:35:52.617504 23585 net.cpp:399] inception_3a/output_inception_3a/output_0_split -> inception_3a/output_inception_3a/output_0_split_3
I0403 21:35:52.617581 23585 net.cpp:141] Setting up inception_3a/output_inception_3a/output_0_split
I0403 21:35:52.617605 23585 net.cpp:148] Top shape: 24 256 28 28 (4816896)
I0403 21:35:52.617622 23585 net.cpp:148] Top shape: 24 256 28 28 (4816896)
I0403 21:35:52.617640 23585 net.cpp:148] Top shape: 24 256 28 28 (4816896)
I0403 21:35:52.617655 23585 net.cpp:148] Top shape: 24 256 28 28 (4816896)
I0403 21:35:52.617671 23585 net.cpp:156] Memory required for data: 657507360
I0403 21:35:52.617686 23585 layer_factory.hpp:77] Creating layer inception_3b/1x1
I0403 21:35:52.617708 23585 net.cpp:91] Creating Layer inception_3b/1x1
I0403 21:35:52.617727 23585 net.cpp:425] inception_3b/1x1 <- inception_3a/output_inception_3a/output_0_split_0
I0403 21:35:52.617748 23585 net.cpp:399] inception_3b/1x1 -> inception_3b/1x1
I0403 21:35:52.618919 23585 net.cpp:141] Setting up inception_3b/1x1
I0403 21:35:52.618963 23585 net.cpp:148] Top shape: 24 128 28 28 (2408448)
I0403 21:35:52.618980 23585 net.cpp:156] Memory required for data: 667141152
I0403 21:35:52.618999 23585 layer_factory.hpp:77] Creating layer inception_3b/relu_1x1
I0403 21:35:52.619019 23585 net.cpp:91] Creating Layer inception_3b/relu_1x1
I0403 21:35:52.619035 23585 net.cpp:425] inception_3b/relu_1x1 <- inception_3b/1x1
I0403 21:35:52.619056 23585 net.cpp:386] inception_3b/relu_1x1 -> inception_3b/1x1 (in-place)
I0403 21:35:52.619236 23585 net.cpp:141] Setting up inception_3b/relu_1x1
I0403 21:35:52.619262 23585 net.cpp:148] Top shape: 24 128 28 28 (2408448)
I0403 21:35:52.619278 23585 net.cpp:156] Memory required for data: 676774944
I0403 21:35:52.619294 23585 layer_factory.hpp:77] Creating layer inception_3b/3x3_reduce
I0403 21:35:52.619321 23585 net.cpp:91] Creating Layer inception_3b/3x3_reduce
I0403 21:35:52.619339 23585 net.cpp:425] inception_3b/3x3_reduce <- inception_3a/output_inception_3a/output_0_split_1
I0403 21:35:52.619361 23585 net.cpp:399] inception_3b/3x3_reduce -> inception_3b/3x3_reduce
I0403 21:35:52.620520 23585 net.cpp:141] Setting up inception_3b/3x3_reduce
I0403 21:35:52.620551 23585 net.cpp:148] Top shape: 24 128 28 28 (2408448)
I0403 21:35:52.620568 23585 net.cpp:156] Memory required for data: 686408736
I0403 21:35:52.620587 23585 layer_factory.hpp:77] Creating layer inception_3b/relu_3x3_reduce
I0403 21:35:52.620605 23585 net.cpp:91] Creating Layer inception_3b/relu_3x3_reduce
I0403 21:35:52.620623 23585 net.cpp:425] inception_3b/relu_3x3_reduce <- inception_3b/3x3_reduce
I0403 21:35:52.620645 23585 net.cpp:386] inception_3b/relu_3x3_reduce -> inception_3b/3x3_reduce (in-place)
I0403 21:35:52.620817 23585 net.cpp:141] Setting up inception_3b/relu_3x3_reduce
I0403 21:35:52.620843 23585 net.cpp:148] Top shape: 24 128 28 28 (2408448)
I0403 21:35:52.620858 23585 net.cpp:156] Memory required for data: 696042528
I0403 21:35:52.620874 23585 layer_factory.hpp:77] Creating layer inception_3b/3x3
I0403 21:35:52.620900 23585 net.cpp:91] Creating Layer inception_3b/3x3
I0403 21:35:52.620919 23585 net.cpp:425] inception_3b/3x3 <- inception_3b/3x3_reduce
I0403 21:35:52.620939 23585 net.cpp:399] inception_3b/3x3 -> inception_3b/3x3
I0403 21:35:52.623903 23585 net.cpp:141] Setting up inception_3b/3x3
I0403 21:35:52.623930 23585 net.cpp:148] Top shape: 24 192 28 28 (3612672)
I0403 21:35:52.623949 23585 net.cpp:156] Memory required for data: 710493216
I0403 21:35:52.623968 23585 layer_factory.hpp:77] Creating layer inception_3b/relu_3x3
I0403 21:35:52.623989 23585 net.cpp:91] Creating Layer inception_3b/relu_3x3
I0403 21:35:52.624007 23585 net.cpp:425] inception_3b/relu_3x3 <- inception_3b/3x3
I0403 21:35:52.624027 23585 net.cpp:386] inception_3b/relu_3x3 -> inception_3b/3x3 (in-place)
I0403 21:35:52.624308 23585 net.cpp:141] Setting up inception_3b/relu_3x3
I0403 21:35:52.624336 23585 net.cpp:148] Top shape: 24 192 28 28 (3612672)
I0403 21:35:52.624351 23585 net.cpp:156] Memory required for data: 724943904
I0403 21:35:52.624367 23585 layer_factory.hpp:77] Creating layer inception_3b/5x5_reduce
I0403 21:35:52.624392 23585 net.cpp:91] Creating Layer inception_3b/5x5_reduce
I0403 21:35:52.624410 23585 net.cpp:425] inception_3b/5x5_reduce <- inception_3a/output_inception_3a/output_0_split_2
I0403 21:35:52.624433 23585 net.cpp:399] inception_3b/5x5_reduce -> inception_3b/5x5_reduce
I0403 21:35:52.625429 23585 net.cpp:141] Setting up inception_3b/5x5_reduce
I0403 21:35:52.625458 23585 net.cpp:148] Top shape: 24 32 28 28 (602112)
I0403 21:35:52.625474 23585 net.cpp:156] Memory required for data: 727352352
I0403 21:35:52.625494 23585 layer_factory.hpp:77] Creating layer inception_3b/relu_5x5_reduce
I0403 21:35:52.625514 23585 net.cpp:91] Creating Layer inception_3b/relu_5x5_reduce
I0403 21:35:52.625532 23585 net.cpp:425] inception_3b/relu_5x5_reduce <- inception_3b/5x5_reduce
I0403 21:35:52.625550 23585 net.cpp:386] inception_3b/relu_5x5_reduce -> inception_3b/5x5_reduce (in-place)
I0403 21:35:52.625743 23585 net.cpp:141] Setting up inception_3b/relu_5x5_reduce
I0403 21:35:52.625769 23585 net.cpp:148] Top shape: 24 32 28 28 (602112)
I0403 21:35:52.625785 23585 net.cpp:156] Memory required for data: 729760800
I0403 21:35:52.625802 23585 layer_factory.hpp:77] Creating layer inception_3b/5x5
I0403 21:35:52.625824 23585 net.cpp:91] Creating Layer inception_3b/5x5
I0403 21:35:52.625844 23585 net.cpp:425] inception_3b/5x5 <- inception_3b/5x5_reduce
I0403 21:35:52.625866 23585 net.cpp:399] inception_3b/5x5 -> inception_3b/5x5
I0403 21:35:52.627890 23585 net.cpp:141] Setting up inception_3b/5x5
I0403 21:35:52.627923 23585 net.cpp:148] Top shape: 24 96 28 28 (1806336)
I0403 21:35:52.627941 23585 net.cpp:156] Memory required for data: 736986144
I0403 21:35:52.627964 23585 layer_factory.hpp:77] Creating layer inception_3b/relu_5x5
I0403 21:35:52.627982 23585 net.cpp:91] Creating Layer inception_3b/relu_5x5
I0403 21:35:52.628000 23585 net.cpp:425] inception_3b/relu_5x5 <- inception_3b/5x5
I0403 21:35:52.628021 23585 net.cpp:386] inception_3b/relu_5x5 -> inception_3b/5x5 (in-place)
I0403 21:35:52.628213 23585 net.cpp:141] Setting up inception_3b/relu_5x5
I0403 21:35:52.628250 23585 net.cpp:148] Top shape: 24 96 28 28 (1806336)
I0403 21:35:52.628268 23585 net.cpp:156] Memory required for data: 744211488
I0403 21:35:52.628284 23585 layer_factory.hpp:77] Creating layer inception_3b/pool
I0403 21:35:52.628304 23585 net.cpp:91] Creating Layer inception_3b/pool
I0403 21:35:52.628321 23585 net.cpp:425] inception_3b/pool <- inception_3a/output_inception_3a/output_0_split_3
I0403 21:35:52.628340 23585 net.cpp:399] inception_3b/pool -> inception_3b/pool
I0403 21:35:52.628397 23585 net.cpp:141] Setting up inception_3b/pool
I0403 21:35:52.628422 23585 net.cpp:148] Top shape: 24 256 28 28 (4816896)
I0403 21:35:52.628437 23585 net.cpp:156] Memory required for data: 763479072
I0403 21:35:52.628451 23585 layer_factory.hpp:77] Creating layer inception_3b/pool_proj
I0403 21:35:52.628476 23585 net.cpp:91] Creating Layer inception_3b/pool_proj
I0403 21:35:52.628495 23585 net.cpp:425] inception_3b/pool_proj <- inception_3b/pool
I0403 21:35:52.628515 23585 net.cpp:399] inception_3b/pool_proj -> inception_3b/pool_proj
I0403 21:35:52.629601 23585 net.cpp:141] Setting up inception_3b/pool_proj
I0403 21:35:52.629628 23585 net.cpp:148] Top shape: 24 64 28 28 (1204224)
I0403 21:35:52.629644 23585 net.cpp:156] Memory required for data: 768295968
I0403 21:35:52.629663 23585 layer_factory.hpp:77] Creating layer inception_3b/relu_pool_proj
I0403 21:35:52.629684 23585 net.cpp:91] Creating Layer inception_3b/relu_pool_proj
I0403 21:35:52.629703 23585 net.cpp:425] inception_3b/relu_pool_proj <- inception_3b/pool_proj
I0403 21:35:52.629720 23585 net.cpp:386] inception_3b/relu_pool_proj -> inception_3b/pool_proj (in-place)
I0403 21:35:52.630117 23585 net.cpp:141] Setting up inception_3b/relu_pool_proj
I0403 21:35:52.630144 23585 net.cpp:148] Top shape: 24 64 28 28 (1204224)
I0403 21:35:52.630159 23585 net.cpp:156] Memory required for data: 773112864
I0403 21:35:52.630187 23585 layer_factory.hpp:77] Creating layer inception_3b/output
I0403 21:35:52.630208 23585 net.cpp:91] Creating Layer inception_3b/output
I0403 21:35:52.630225 23585 net.cpp:425] inception_3b/output <- inception_3b/1x1
I0403 21:35:52.630249 23585 net.cpp:425] inception_3b/output <- inception_3b/3x3
I0403 21:35:52.630267 23585 net.cpp:425] inception_3b/output <- inception_3b/5x5
I0403 21:35:52.630285 23585 net.cpp:425] inception_3b/output <- inception_3b/pool_proj
I0403 21:35:52.630301 23585 net.cpp:399] inception_3b/output -> inception_3b/output
I0403 21:35:52.630349 23585 net.cpp:141] Setting up inception_3b/output
I0403 21:35:52.630374 23585 net.cpp:148] Top shape: 24 480 28 28 (9031680)
I0403 21:35:52.630390 23585 net.cpp:156] Memory required for data: 809239584
I0403 21:35:52.630405 23585 layer_factory.hpp:77] Creating layer pool3/3x3_s2
I0403 21:35:52.630424 23585 net.cpp:91] Creating Layer pool3/3x3_s2
I0403 21:35:52.630442 23585 net.cpp:425] pool3/3x3_s2 <- inception_3b/output
I0403 21:35:52.630491 23585 net.cpp:399] pool3/3x3_s2 -> pool3/3x3_s2
I0403 21:35:52.630549 23585 net.cpp:141] Setting up pool3/3x3_s2
I0403 21:35:52.630575 23585 net.cpp:148] Top shape: 24 480 14 14 (2257920)
I0403 21:35:52.630592 23585 net.cpp:156] Memory required for data: 818271264
I0403 21:35:52.630609 23585 layer_factory.hpp:77] Creating layer pool3/3x3_s2_pool3/3x3_s2_0_split
I0403 21:35:52.630625 23585 net.cpp:91] Creating Layer pool3/3x3_s2_pool3/3x3_s2_0_split
I0403 21:35:52.630640 23585 net.cpp:425] pool3/3x3_s2_pool3/3x3_s2_0_split <- pool3/3x3_s2
I0403 21:35:52.630659 23585 net.cpp:399] pool3/3x3_s2_pool3/3x3_s2_0_split -> pool3/3x3_s2_pool3/3x3_s2_0_split_0
I0403 21:35:52.630681 23585 net.cpp:399] pool3/3x3_s2_pool3/3x3_s2_0_split -> pool3/3x3_s2_pool3/3x3_s2_0_split_1
I0403 21:35:52.630704 23585 net.cpp:399] pool3/3x3_s2_pool3/3x3_s2_0_split -> pool3/3x3_s2_pool3/3x3_s2_0_split_2
I0403 21:35:52.630724 23585 net.cpp:399] pool3/3x3_s2_pool3/3x3_s2_0_split -> pool3/3x3_s2_pool3/3x3_s2_0_split_3
I0403 21:35:52.630802 23585 net.cpp:141] Setting up pool3/3x3_s2_pool3/3x3_s2_0_split
I0403 21:35:52.630826 23585 net.cpp:148] Top shape: 24 480 14 14 (2257920)
I0403 21:35:52.630842 23585 net.cpp:148] Top shape: 24 480 14 14 (2257920)
I0403 21:35:52.630858 23585 net.cpp:148] Top shape: 24 480 14 14 (2257920)
I0403 21:35:52.630874 23585 net.cpp:148] Top shape: 24 480 14 14 (2257920)
I0403 21:35:52.630888 23585 net.cpp:156] Memory required for data: 854397984
I0403 21:35:52.630903 23585 layer_factory.hpp:77] Creating layer inception_4a/1x1
I0403 21:35:52.630925 23585 net.cpp:91] Creating Layer inception_4a/1x1
I0403 21:35:52.630947 23585 net.cpp:425] inception_4a/1x1 <- pool3/3x3_s2_pool3/3x3_s2_0_split_0
I0403 21:35:52.630967 23585 net.cpp:399] inception_4a/1x1 -> inception_4a/1x1
I0403 21:35:52.632580 23585 net.cpp:141] Setting up inception_4a/1x1
I0403 21:35:52.632608 23585 net.cpp:148] Top shape: 24 192 14 14 (903168)
I0403 21:35:52.632625 23585 net.cpp:156] Memory required for data: 858010656
I0403 21:35:52.632644 23585 layer_factory.hpp:77] Creating layer inception_4a/relu_1x1
I0403 21:35:52.632665 23585 net.cpp:91] Creating Layer inception_4a/relu_1x1
I0403 21:35:52.632683 23585 net.cpp:425] inception_4a/relu_1x1 <- inception_4a/1x1
I0403 21:35:52.632701 23585 net.cpp:386] inception_4a/relu_1x1 -> inception_4a/1x1 (in-place)
I0403 21:35:52.632880 23585 net.cpp:141] Setting up inception_4a/relu_1x1
I0403 21:35:52.632906 23585 net.cpp:148] Top shape: 24 192 14 14 (903168)
I0403 21:35:52.632923 23585 net.cpp:156] Memory required for data: 861623328
I0403 21:35:52.632939 23585 layer_factory.hpp:77] Creating layer inception_4a/3x3_reduce
I0403 21:35:52.632962 23585 net.cpp:91] Creating Layer inception_4a/3x3_reduce
I0403 21:35:52.632982 23585 net.cpp:425] inception_4a/3x3_reduce <- pool3/3x3_s2_pool3/3x3_s2_0_split_1
I0403 21:35:52.633002 23585 net.cpp:399] inception_4a/3x3_reduce -> inception_4a/3x3_reduce
I0403 21:35:52.634312 23585 net.cpp:141] Setting up inception_4a/3x3_reduce
I0403 21:35:52.634343 23585 net.cpp:148] Top shape: 24 96 14 14 (451584)
I0403 21:35:52.634361 23585 net.cpp:156] Memory required for data: 863429664
I0403 21:35:52.634385 23585 layer_factory.hpp:77] Creating layer inception_4a/relu_3x3_reduce
I0403 21:35:52.634409 23585 net.cpp:91] Creating Layer inception_4a/relu_3x3_reduce
I0403 21:35:52.634428 23585 net.cpp:425] inception_4a/relu_3x3_reduce <- inception_4a/3x3_reduce
I0403 21:35:52.634449 23585 net.cpp:386] inception_4a/relu_3x3_reduce -> inception_4a/3x3_reduce (in-place)
I0403 21:35:52.634635 23585 net.cpp:141] Setting up inception_4a/relu_3x3_reduce
I0403 21:35:52.634662 23585 net.cpp:148] Top shape: 24 96 14 14 (451584)
I0403 21:35:52.634678 23585 net.cpp:156] Memory required for data: 865236000
I0403 21:35:52.634695 23585 layer_factory.hpp:77] Creating layer inception_4a/3x3
I0403 21:35:52.634716 23585 net.cpp:91] Creating Layer inception_4a/3x3
I0403 21:35:52.634737 23585 net.cpp:425] inception_4a/3x3 <- inception_4a/3x3_reduce
I0403 21:35:52.634757 23585 net.cpp:399] inception_4a/3x3 -> inception_4a/3x3
I0403 21:35:52.637470 23585 net.cpp:141] Setting up inception_4a/3x3
I0403 21:35:52.637501 23585 net.cpp:148] Top shape: 24 208 14 14 (978432)
I0403 21:35:52.637518 23585 net.cpp:156] Memory required for data: 869149728
I0403 21:35:52.637537 23585 layer_factory.hpp:77] Creating layer inception_4a/relu_3x3
I0403 21:35:52.637557 23585 net.cpp:91] Creating Layer inception_4a/relu_3x3
I0403 21:35:52.637574 23585 net.cpp:425] inception_4a/relu_3x3 <- inception_4a/3x3
I0403 21:35:52.637593 23585 net.cpp:386] inception_4a/relu_3x3 -> inception_4a/3x3 (in-place)
I0403 21:35:52.637871 23585 net.cpp:141] Setting up inception_4a/relu_3x3
I0403 21:35:52.637898 23585 net.cpp:148] Top shape: 24 208 14 14 (978432)
I0403 21:35:52.637914 23585 net.cpp:156] Memory required for data: 873063456
I0403 21:35:52.637929 23585 layer_factory.hpp:77] Creating layer inception_4a/5x5_reduce
I0403 21:35:52.637953 23585 net.cpp:91] Creating Layer inception_4a/5x5_reduce
I0403 21:35:52.637970 23585 net.cpp:425] inception_4a/5x5_reduce <- pool3/3x3_s2_pool3/3x3_s2_0_split_2
I0403 21:35:52.637990 23585 net.cpp:399] inception_4a/5x5_reduce -> inception_4a/5x5_reduce
I0403 21:35:52.639036 23585 net.cpp:141] Setting up inception_4a/5x5_reduce
I0403 21:35:52.639063 23585 net.cpp:148] Top shape: 24 16 14 14 (75264)
I0403 21:35:52.639081 23585 net.cpp:156] Memory required for data: 873364512
I0403 21:35:52.639098 23585 layer_factory.hpp:77] Creating layer inception_4a/relu_5x5_reduce
I0403 21:35:52.639117 23585 net.cpp:91] Creating Layer inception_4a/relu_5x5_reduce
I0403 21:35:52.639138 23585 net.cpp:425] inception_4a/relu_5x5_reduce <- inception_4a/5x5_reduce
I0403 21:35:52.639155 23585 net.cpp:386] inception_4a/relu_5x5_reduce -> inception_4a/5x5_reduce (in-place)
I0403 21:35:52.639334 23585 net.cpp:141] Setting up inception_4a/relu_5x5_reduce
I0403 21:35:52.639359 23585 net.cpp:148] Top shape: 24 16 14 14 (75264)
I0403 21:35:52.639375 23585 net.cpp:156] Memory required for data: 873665568
I0403 21:35:52.639390 23585 layer_factory.hpp:77] Creating layer inception_4a/5x5
I0403 21:35:52.639412 23585 net.cpp:91] Creating Layer inception_4a/5x5
I0403 21:35:52.639431 23585 net.cpp:425] inception_4a/5x5 <- inception_4a/5x5_reduce
I0403 21:35:52.639453 23585 net.cpp:399] inception_4a/5x5 -> inception_4a/5x5
I0403 21:35:52.640527 23585 net.cpp:141] Setting up inception_4a/5x5
I0403 21:35:52.640553 23585 net.cpp:148] Top shape: 24 48 14 14 (225792)
I0403 21:35:52.640568 23585 net.cpp:156] Memory required for data: 874568736
I0403 21:35:52.640588 23585 layer_factory.hpp:77] Creating layer inception_4a/relu_5x5
I0403 21:35:52.640609 23585 net.cpp:91] Creating Layer inception_4a/relu_5x5
I0403 21:35:52.640627 23585 net.cpp:425] inception_4a/relu_5x5 <- inception_4a/5x5
I0403 21:35:52.640645 23585 net.cpp:386] inception_4a/relu_5x5 -> inception_4a/5x5 (in-place)
I0403 21:35:52.640821 23585 net.cpp:141] Setting up inception_4a/relu_5x5
I0403 21:35:52.640849 23585 net.cpp:148] Top shape: 24 48 14 14 (225792)
I0403 21:35:52.640866 23585 net.cpp:156] Memory required for data: 875471904
I0403 21:35:52.640880 23585 layer_factory.hpp:77] Creating layer inception_4a/pool
I0403 21:35:52.640897 23585 net.cpp:91] Creating Layer inception_4a/pool
I0403 21:35:52.640913 23585 net.cpp:425] inception_4a/pool <- pool3/3x3_s2_pool3/3x3_s2_0_split_3
I0403 21:35:52.640934 23585 net.cpp:399] inception_4a/pool -> inception_4a/pool
I0403 21:35:52.640996 23585 net.cpp:141] Setting up inception_4a/pool
I0403 21:35:52.641019 23585 net.cpp:148] Top shape: 24 480 14 14 (2257920)
I0403 21:35:52.641036 23585 net.cpp:156] Memory required for data: 884503584
I0403 21:35:52.641050 23585 layer_factory.hpp:77] Creating layer inception_4a/pool_proj
I0403 21:35:52.641072 23585 net.cpp:91] Creating Layer inception_4a/pool_proj
I0403 21:35:52.641090 23585 net.cpp:425] inception_4a/pool_proj <- inception_4a/pool
I0403 21:35:52.641111 23585 net.cpp:399] inception_4a/pool_proj -> inception_4a/pool_proj
I0403 21:35:52.642271 23585 net.cpp:141] Setting up inception_4a/pool_proj
I0403 21:35:52.642303 23585 net.cpp:148] Top shape: 24 64 14 14 (301056)
I0403 21:35:52.642335 23585 net.cpp:156] Memory required for data: 885707808
I0403 21:35:52.642356 23585 layer_factory.hpp:77] Creating layer inception_4a/relu_pool_proj
I0403 21:35:52.642375 23585 net.cpp:91] Creating Layer inception_4a/relu_pool_proj
I0403 21:35:52.642392 23585 net.cpp:425] inception_4a/relu_pool_proj <- inception_4a/pool_proj
I0403 21:35:52.642410 23585 net.cpp:386] inception_4a/relu_pool_proj -> inception_4a/pool_proj (in-place)
I0403 21:35:52.642706 23585 net.cpp:141] Setting up inception_4a/relu_pool_proj
I0403 21:35:52.642735 23585 net.cpp:148] Top shape: 24 64 14 14 (301056)
I0403 21:35:52.642750 23585 net.cpp:156] Memory required for data: 886912032
I0403 21:35:52.642766 23585 layer_factory.hpp:77] Creating layer inception_4a/output
I0403 21:35:52.642783 23585 net.cpp:91] Creating Layer inception_4a/output
I0403 21:35:52.642799 23585 net.cpp:425] inception_4a/output <- inception_4a/1x1
I0403 21:35:52.642817 23585 net.cpp:425] inception_4a/output <- inception_4a/3x3
I0403 21:35:52.642832 23585 net.cpp:425] inception_4a/output <- inception_4a/5x5
I0403 21:35:52.642848 23585 net.cpp:425] inception_4a/output <- inception_4a/pool_proj
I0403 21:35:52.642864 23585 net.cpp:399] inception_4a/output -> inception_4a/output
I0403 21:35:52.642910 23585 net.cpp:141] Setting up inception_4a/output
I0403 21:35:52.642933 23585 net.cpp:148] Top shape: 24 512 14 14 (2408448)
I0403 21:35:52.642948 23585 net.cpp:156] Memory required for data: 896545824
I0403 21:35:52.642966 23585 layer_factory.hpp:77] Creating layer inception_4a/output_inception_4a/output_0_split
I0403 21:35:52.642985 23585 net.cpp:91] Creating Layer inception_4a/output_inception_4a/output_0_split
I0403 21:35:52.643002 23585 net.cpp:425] inception_4a/output_inception_4a/output_0_split <- inception_4a/output
I0403 21:35:52.643019 23585 net.cpp:399] inception_4a/output_inception_4a/output_0_split -> inception_4a/output_inception_4a/output_0_split_0
I0403 21:35:52.643040 23585 net.cpp:399] inception_4a/output_inception_4a/output_0_split -> inception_4a/output_inception_4a/output_0_split_1
I0403 21:35:52.643061 23585 net.cpp:399] inception_4a/output_inception_4a/output_0_split -> inception_4a/output_inception_4a/output_0_split_2
I0403 21:35:52.643084 23585 net.cpp:399] inception_4a/output_inception_4a/output_0_split -> inception_4a/output_inception_4a/output_0_split_3
I0403 21:35:52.643106 23585 net.cpp:399] inception_4a/output_inception_4a/output_0_split -> inception_4a/output_inception_4a/output_0_split_4
I0403 21:35:52.643201 23585 net.cpp:141] Setting up inception_4a/output_inception_4a/output_0_split
I0403 21:35:52.643224 23585 net.cpp:148] Top shape: 24 512 14 14 (2408448)
I0403 21:35:52.643247 23585 net.cpp:148] Top shape: 24 512 14 14 (2408448)
I0403 21:35:52.643265 23585 net.cpp:148] Top shape: 24 512 14 14 (2408448)
I0403 21:35:52.643280 23585 net.cpp:148] Top shape: 24 512 14 14 (2408448)
I0403 21:35:52.643296 23585 net.cpp:148] Top shape: 24 512 14 14 (2408448)
I0403 21:35:52.643311 23585 net.cpp:156] Memory required for data: 944714784
I0403 21:35:52.643324 23585 layer_factory.hpp:77] Creating layer loss1/ave_pool
I0403 21:35:52.643342 23585 net.cpp:91] Creating Layer loss1/ave_pool
I0403 21:35:52.643359 23585 net.cpp:425] loss1/ave_pool <- inception_4a/output_inception_4a/output_0_split_0
I0403 21:35:52.643379 23585 net.cpp:399] loss1/ave_pool -> loss1/ave_pool
I0403 21:35:52.643594 23585 net.cpp:141] Setting up loss1/ave_pool
I0403 21:35:52.643622 23585 net.cpp:148] Top shape: 24 512 4 4 (196608)
I0403 21:35:52.643638 23585 net.cpp:156] Memory required for data: 945501216
I0403 21:35:52.643653 23585 layer_factory.hpp:77] Creating layer loss1/conv
I0403 21:35:52.643674 23585 net.cpp:91] Creating Layer loss1/conv
I0403 21:35:52.643693 23585 net.cpp:425] loss1/conv <- loss1/ave_pool
I0403 21:35:52.643712 23585 net.cpp:399] loss1/conv -> loss1/conv
I0403 21:35:52.645117 23585 net.cpp:141] Setting up loss1/conv
I0403 21:35:52.645146 23585 net.cpp:148] Top shape: 24 128 4 4 (49152)
I0403 21:35:52.645189 23585 net.cpp:156] Memory required for data: 945697824
I0403 21:35:52.645210 23585 layer_factory.hpp:77] Creating layer loss1/relu_conv
I0403 21:35:52.645236 23585 net.cpp:91] Creating Layer loss1/relu_conv
I0403 21:35:52.645256 23585 net.cpp:425] loss1/relu_conv <- loss1/conv
I0403 21:35:52.645277 23585 net.cpp:386] loss1/relu_conv -> loss1/conv (in-place)
I0403 21:35:52.645576 23585 net.cpp:141] Setting up loss1/relu_conv
I0403 21:35:52.645602 23585 net.cpp:148] Top shape: 24 128 4 4 (49152)
I0403 21:35:52.645618 23585 net.cpp:156] Memory required for data: 945894432
I0403 21:35:52.645635 23585 layer_factory.hpp:77] Creating layer loss1/fc
I0403 21:35:52.645673 23585 net.cpp:91] Creating Layer loss1/fc
I0403 21:35:52.645694 23585 net.cpp:425] loss1/fc <- loss1/conv
I0403 21:35:52.645716 23585 net.cpp:399] loss1/fc -> loss1/fc
I0403 21:35:52.663851 23585 net.cpp:141] Setting up loss1/fc
I0403 21:35:52.663892 23585 net.cpp:148] Top shape: 24 1024 (24576)
I0403 21:35:52.663908 23585 net.cpp:156] Memory required for data: 945992736
I0403 21:35:52.663926 23585 layer_factory.hpp:77] Creating layer loss1/relu_fc
I0403 21:35:52.663949 23585 net.cpp:91] Creating Layer loss1/relu_fc
I0403 21:35:52.663966 23585 net.cpp:425] loss1/relu_fc <- loss1/fc
I0403 21:35:52.663986 23585 net.cpp:386] loss1/relu_fc -> loss1/fc (in-place)
I0403 21:35:52.664183 23585 net.cpp:141] Setting up loss1/relu_fc
I0403 21:35:52.664208 23585 net.cpp:148] Top shape: 24 1024 (24576)
I0403 21:35:52.664223 23585 net.cpp:156] Memory required for data: 946091040
I0403 21:35:52.664243 23585 layer_factory.hpp:77] Creating layer loss1/drop_fc
I0403 21:35:52.664271 23585 net.cpp:91] Creating Layer loss1/drop_fc
I0403 21:35:52.664291 23585 net.cpp:425] loss1/drop_fc <- loss1/fc
I0403 21:35:52.664311 23585 net.cpp:386] loss1/drop_fc -> loss1/fc (in-place)
I0403 21:35:52.664379 23585 net.cpp:141] Setting up loss1/drop_fc
I0403 21:35:52.664402 23585 net.cpp:148] Top shape: 24 1024 (24576)
I0403 21:35:52.664417 23585 net.cpp:156] Memory required for data: 946189344
I0403 21:35:52.664433 23585 layer_factory.hpp:77] Creating layer loss1/classifier_plantvillage
I0403 21:35:52.664455 23585 net.cpp:91] Creating Layer loss1/classifier_plantvillage
I0403 21:35:52.664472 23585 net.cpp:425] loss1/classifier_plantvillage <- loss1/fc
I0403 21:35:52.664494 23585 net.cpp:399] loss1/classifier_plantvillage -> loss1/classifier_plantvillage
I0403 21:35:52.665410 23585 net.cpp:141] Setting up loss1/classifier_plantvillage
I0403 21:35:52.665441 23585 net.cpp:148] Top shape: 24 38 (912)
I0403 21:35:52.665458 23585 net.cpp:156] Memory required for data: 946192992
I0403 21:35:52.665477 23585 layer_factory.hpp:77] Creating layer loss1/classifier_plantvillage_loss1/classifier_plantvillage_0_split
I0403 21:35:52.665494 23585 net.cpp:91] Creating Layer loss1/classifier_plantvillage_loss1/classifier_plantvillage_0_split
I0403 21:35:52.665511 23585 net.cpp:425] loss1/classifier_plantvillage_loss1/classifier_plantvillage_0_split <- loss1/classifier_plantvillage
I0403 21:35:52.665531 23585 net.cpp:399] loss1/classifier_plantvillage_loss1/classifier_plantvillage_0_split -> loss1/classifier_plantvillage_loss1/classifier_plantvillage_0_split_0
I0403 21:35:52.665554 23585 net.cpp:399] loss1/classifier_plantvillage_loss1/classifier_plantvillage_0_split -> loss1/classifier_plantvillage_loss1/classifier_plantvillage_0_split_1
I0403 21:35:52.665575 23585 net.cpp:399] loss1/classifier_plantvillage_loss1/classifier_plantvillage_0_split -> loss1/classifier_plantvillage_loss1/classifier_plantvillage_0_split_2
I0403 21:35:52.665639 23585 net.cpp:141] Setting up loss1/classifier_plantvillage_loss1/classifier_plantvillage_0_split
I0403 21:35:52.665663 23585 net.cpp:148] Top shape: 24 38 (912)
I0403 21:35:52.665678 23585 net.cpp:148] Top shape: 24 38 (912)
I0403 21:35:52.665694 23585 net.cpp:148] Top shape: 24 38 (912)
I0403 21:35:52.665707 23585 net.cpp:156] Memory required for data: 946203936
I0403 21:35:52.665724 23585 layer_factory.hpp:77] Creating layer inception_4b/1x1
I0403 21:35:52.665746 23585 net.cpp:91] Creating Layer inception_4b/1x1
I0403 21:35:52.665782 23585 net.cpp:425] inception_4b/1x1 <- inception_4a/output_inception_4a/output_0_split_1
I0403 21:35:52.665802 23585 net.cpp:399] inception_4b/1x1 -> inception_4b/1x1
I0403 21:35:52.667474 23585 net.cpp:141] Setting up inception_4b/1x1
I0403 21:35:52.667503 23585 net.cpp:148] Top shape: 24 160 14 14 (752640)
I0403 21:35:52.667520 23585 net.cpp:156] Memory required for data: 949214496
I0403 21:35:52.667538 23585 layer_factory.hpp:77] Creating layer inception_4b/relu_1x1
I0403 21:35:52.667557 23585 net.cpp:91] Creating Layer inception_4b/relu_1x1
I0403 21:35:52.667577 23585 net.cpp:425] inception_4b/relu_1x1 <- inception_4b/1x1
I0403 21:35:52.667595 23585 net.cpp:386] inception_4b/relu_1x1 -> inception_4b/1x1 (in-place)
I0403 21:35:52.667775 23585 net.cpp:141] Setting up inception_4b/relu_1x1
I0403 21:35:52.667800 23585 net.cpp:148] Top shape: 24 160 14 14 (752640)
I0403 21:35:52.667815 23585 net.cpp:156] Memory required for data: 952225056
I0403 21:35:52.667830 23585 layer_factory.hpp:77] Creating layer inception_4b/3x3_reduce
I0403 21:35:52.667853 23585 net.cpp:91] Creating Layer inception_4b/3x3_reduce
I0403 21:35:52.667872 23585 net.cpp:425] inception_4b/3x3_reduce <- inception_4a/output_inception_4a/output_0_split_2
I0403 21:35:52.667893 23585 net.cpp:399] inception_4b/3x3_reduce -> inception_4b/3x3_reduce
I0403 21:35:52.669263 23585 net.cpp:141] Setting up inception_4b/3x3_reduce
I0403 21:35:52.669303 23585 net.cpp:148] Top shape: 24 112 14 14 (526848)
I0403 21:35:52.669320 23585 net.cpp:156] Memory required for data: 954332448
I0403 21:35:52.669339 23585 layer_factory.hpp:77] Creating layer inception_4b/relu_3x3_reduce
I0403 21:35:52.669359 23585 net.cpp:91] Creating Layer inception_4b/relu_3x3_reduce
I0403 21:35:52.669378 23585 net.cpp:425] inception_4b/relu_3x3_reduce <- inception_4b/3x3_reduce
I0403 21:35:52.669396 23585 net.cpp:386] inception_4b/relu_3x3_reduce -> inception_4b/3x3_reduce (in-place)
I0403 21:35:52.669672 23585 net.cpp:141] Setting up inception_4b/relu_3x3_reduce
I0403 21:35:52.669699 23585 net.cpp:148] Top shape: 24 112 14 14 (526848)
I0403 21:35:52.669714 23585 net.cpp:156] Memory required for data: 956439840
I0403 21:35:52.669729 23585 layer_factory.hpp:77] Creating layer inception_4b/3x3
I0403 21:35:52.669751 23585 net.cpp:91] Creating Layer inception_4b/3x3
I0403 21:35:52.669770 23585 net.cpp:425] inception_4b/3x3 <- inception_4b/3x3_reduce
I0403 21:35:52.669792 23585 net.cpp:399] inception_4b/3x3 -> inception_4b/3x3
I0403 21:35:52.672775 23585 net.cpp:141] Setting up inception_4b/3x3
I0403 21:35:52.672806 23585 net.cpp:148] Top shape: 24 224 14 14 (1053696)
I0403 21:35:52.672823 23585 net.cpp:156] Memory required for data: 960654624
I0403 21:35:52.672842 23585 layer_factory.hpp:77] Creating layer inception_4b/relu_3x3
I0403 21:35:52.672863 23585 net.cpp:91] Creating Layer inception_4b/relu_3x3
I0403 21:35:52.672879 23585 net.cpp:425] inception_4b/relu_3x3 <- inception_4b/3x3
I0403 21:35:52.672899 23585 net.cpp:386] inception_4b/relu_3x3 -> inception_4b/3x3 (in-place)
I0403 21:35:52.673076 23585 net.cpp:141] Setting up inception_4b/relu_3x3
I0403 21:35:52.673102 23585 net.cpp:148] Top shape: 24 224 14 14 (1053696)
I0403 21:35:52.673117 23585 net.cpp:156] Memory required for data: 964869408
I0403 21:35:52.673132 23585 layer_factory.hpp:77] Creating layer inception_4b/5x5_reduce
I0403 21:35:52.673154 23585 net.cpp:91] Creating Layer inception_4b/5x5_reduce
I0403 21:35:52.673173 23585 net.cpp:425] inception_4b/5x5_reduce <- inception_4a/output_inception_4a/output_0_split_3
I0403 21:35:52.673197 23585 net.cpp:399] inception_4b/5x5_reduce -> inception_4b/5x5_reduce
I0403 21:35:52.674304 23585 net.cpp:141] Setting up inception_4b/5x5_reduce
I0403 21:35:52.674331 23585 net.cpp:148] Top shape: 24 24 14 14 (112896)
I0403 21:35:52.674348 23585 net.cpp:156] Memory required for data: 965320992
I0403 21:35:52.674366 23585 layer_factory.hpp:77] Creating layer inception_4b/relu_5x5_reduce
I0403 21:35:52.674387 23585 net.cpp:91] Creating Layer inception_4b/relu_5x5_reduce
I0403 21:35:52.674419 23585 net.cpp:425] inception_4b/relu_5x5_reduce <- inception_4b/5x5_reduce
I0403 21:35:52.674438 23585 net.cpp:386] inception_4b/relu_5x5_reduce -> inception_4b/5x5_reduce (in-place)
I0403 21:35:52.674630 23585 net.cpp:141] Setting up inception_4b/relu_5x5_reduce
I0403 21:35:52.674655 23585 net.cpp:148] Top shape: 24 24 14 14 (112896)
I0403 21:35:52.674674 23585 net.cpp:156] Memory required for data: 965772576
I0403 21:35:52.674690 23585 layer_factory.hpp:77] Creating layer inception_4b/5x5
I0403 21:35:52.674708 23585 net.cpp:91] Creating Layer inception_4b/5x5
I0403 21:35:52.674726 23585 net.cpp:425] inception_4b/5x5 <- inception_4b/5x5_reduce
I0403 21:35:52.674746 23585 net.cpp:399] inception_4b/5x5 -> inception_4b/5x5
I0403 21:35:52.675950 23585 net.cpp:141] Setting up inception_4b/5x5
I0403 21:35:52.675978 23585 net.cpp:148] Top shape: 24 64 14 14 (301056)
I0403 21:35:52.675994 23585 net.cpp:156] Memory required for data: 966976800
I0403 21:35:52.676013 23585 layer_factory.hpp:77] Creating layer inception_4b/relu_5x5
I0403 21:35:52.676030 23585 net.cpp:91] Creating Layer inception_4b/relu_5x5
I0403 21:35:52.676051 23585 net.cpp:425] inception_4b/relu_5x5 <- inception_4b/5x5
I0403 21:35:52.676069 23585 net.cpp:386] inception_4b/relu_5x5 -> inception_4b/5x5 (in-place)
I0403 21:35:52.676352 23585 net.cpp:141] Setting up inception_4b/relu_5x5
I0403 21:35:52.676378 23585 net.cpp:148] Top shape: 24 64 14 14 (301056)
I0403 21:35:52.676393 23585 net.cpp:156] Memory required for data: 968181024
I0403 21:35:52.676409 23585 layer_factory.hpp:77] Creating layer inception_4b/pool
I0403 21:35:52.676429 23585 net.cpp:91] Creating Layer inception_4b/pool
I0403 21:35:52.676445 23585 net.cpp:425] inception_4b/pool <- inception_4a/output_inception_4a/output_0_split_4
I0403 21:35:52.676465 23585 net.cpp:399] inception_4b/pool -> inception_4b/pool
I0403 21:35:52.676527 23585 net.cpp:141] Setting up inception_4b/pool
I0403 21:35:52.676553 23585 net.cpp:148] Top shape: 24 512 14 14 (2408448)
I0403 21:35:52.676568 23585 net.cpp:156] Memory required for data: 977814816
I0403 21:35:52.676584 23585 layer_factory.hpp:77] Creating layer inception_4b/pool_proj
I0403 21:35:52.676606 23585 net.cpp:91] Creating Layer inception_4b/pool_proj
I0403 21:35:52.676625 23585 net.cpp:425] inception_4b/pool_proj <- inception_4b/pool
I0403 21:35:52.676642 23585 net.cpp:399] inception_4b/pool_proj -> inception_4b/pool_proj
I0403 21:35:52.677840 23585 net.cpp:141] Setting up inception_4b/pool_proj
I0403 21:35:52.677867 23585 net.cpp:148] Top shape: 24 64 14 14 (301056)
I0403 21:35:52.677883 23585 net.cpp:156] Memory required for data: 979019040
I0403 21:35:52.677902 23585 layer_factory.hpp:77] Creating layer inception_4b/relu_pool_proj
I0403 21:35:52.677922 23585 net.cpp:91] Creating Layer inception_4b/relu_pool_proj
I0403 21:35:52.677939 23585 net.cpp:425] inception_4b/relu_pool_proj <- inception_4b/pool_proj
I0403 21:35:52.677958 23585 net.cpp:386] inception_4b/relu_pool_proj -> inception_4b/pool_proj (in-place)
I0403 21:35:52.678135 23585 net.cpp:141] Setting up inception_4b/relu_pool_proj
I0403 21:35:52.678160 23585 net.cpp:148] Top shape: 24 64 14 14 (301056)
I0403 21:35:52.678189 23585 net.cpp:156] Memory required for data: 980223264
I0403 21:35:52.678205 23585 layer_factory.hpp:77] Creating layer inception_4b/output
I0403 21:35:52.678225 23585 net.cpp:91] Creating Layer inception_4b/output
I0403 21:35:52.678292 23585 net.cpp:425] inception_4b/output <- inception_4b/1x1
I0403 21:35:52.678309 23585 net.cpp:425] inception_4b/output <- inception_4b/3x3
I0403 21:35:52.678328 23585 net.cpp:425] inception_4b/output <- inception_4b/5x5
I0403 21:35:52.678344 23585 net.cpp:425] inception_4b/output <- inception_4b/pool_proj
I0403 21:35:52.678364 23585 net.cpp:399] inception_4b/output -> inception_4b/output
I0403 21:35:52.678411 23585 net.cpp:141] Setting up inception_4b/output
I0403 21:35:52.678434 23585 net.cpp:148] Top shape: 24 512 14 14 (2408448)
I0403 21:35:52.678450 23585 net.cpp:156] Memory required for data: 989857056
I0403 21:35:52.678493 23585 layer_factory.hpp:77] Creating layer inception_4b/output_inception_4b/output_0_split
I0403 21:35:52.678511 23585 net.cpp:91] Creating Layer inception_4b/output_inception_4b/output_0_split
I0403 21:35:52.678529 23585 net.cpp:425] inception_4b/output_inception_4b/output_0_split <- inception_4b/output
I0403 21:35:52.678550 23585 net.cpp:399] inception_4b/output_inception_4b/output_0_split -> inception_4b/output_inception_4b/output_0_split_0
I0403 21:35:52.678571 23585 net.cpp:399] inception_4b/output_inception_4b/output_0_split -> inception_4b/output_inception_4b/output_0_split_1
I0403 21:35:52.678593 23585 net.cpp:399] inception_4b/output_inception_4b/output_0_split -> inception_4b/output_inception_4b/output_0_split_2
I0403 21:35:52.678614 23585 net.cpp:399] inception_4b/output_inception_4b/output_0_split -> inception_4b/output_inception_4b/output_0_split_3
I0403 21:35:52.678700 23585 net.cpp:141] Setting up inception_4b/output_inception_4b/output_0_split
I0403 21:35:52.678726 23585 net.cpp:148] Top shape: 24 512 14 14 (2408448)
I0403 21:35:52.678745 23585 net.cpp:148] Top shape: 24 512 14 14 (2408448)
I0403 21:35:52.678761 23585 net.cpp:148] Top shape: 24 512 14 14 (2408448)
I0403 21:35:52.678776 23585 net.cpp:148] Top shape: 24 512 14 14 (2408448)
I0403 21:35:52.678789 23585 net.cpp:156] Memory required for data: 1028392224
I0403 21:35:52.678804 23585 layer_factory.hpp:77] Creating layer inception_4c/1x1
I0403 21:35:52.678825 23585 net.cpp:91] Creating Layer inception_4c/1x1
I0403 21:35:52.678844 23585 net.cpp:425] inception_4c/1x1 <- inception_4b/output_inception_4b/output_0_split_0
I0403 21:35:52.678863 23585 net.cpp:399] inception_4c/1x1 -> inception_4c/1x1
I0403 21:35:52.680279 23585 net.cpp:141] Setting up inception_4c/1x1
I0403 21:35:52.680307 23585 net.cpp:148] Top shape: 24 128 14 14 (602112)
I0403 21:35:52.680325 23585 net.cpp:156] Memory required for data: 1030800672
I0403 21:35:52.680343 23585 layer_factory.hpp:77] Creating layer inception_4c/relu_1x1
I0403 21:35:52.680366 23585 net.cpp:91] Creating Layer inception_4c/relu_1x1
I0403 21:35:52.680385 23585 net.cpp:425] inception_4c/relu_1x1 <- inception_4c/1x1
I0403 21:35:52.680403 23585 net.cpp:386] inception_4c/relu_1x1 -> inception_4c/1x1 (in-place)
I0403 21:35:52.680593 23585 net.cpp:141] Setting up inception_4c/relu_1x1
I0403 21:35:52.680618 23585 net.cpp:148] Top shape: 24 128 14 14 (602112)
I0403 21:35:52.680634 23585 net.cpp:156] Memory required for data: 1033209120
I0403 21:35:52.680649 23585 layer_factory.hpp:77] Creating layer inception_4c/3x3_reduce
I0403 21:35:52.680670 23585 net.cpp:91] Creating Layer inception_4c/3x3_reduce
I0403 21:35:52.680688 23585 net.cpp:425] inception_4c/3x3_reduce <- inception_4b/output_inception_4b/output_0_split_1
I0403 21:35:52.680709 23585 net.cpp:399] inception_4c/3x3_reduce -> inception_4c/3x3_reduce
I0403 21:35:52.682654 23585 net.cpp:141] Setting up inception_4c/3x3_reduce
I0403 21:35:52.682682 23585 net.cpp:148] Top shape: 24 128 14 14 (602112)
I0403 21:35:52.682699 23585 net.cpp:156] Memory required for data: 1035617568
I0403 21:35:52.682718 23585 layer_factory.hpp:77] Creating layer inception_4c/relu_3x3_reduce
I0403 21:35:52.682736 23585 net.cpp:91] Creating Layer inception_4c/relu_3x3_reduce
I0403 21:35:52.682754 23585 net.cpp:425] inception_4c/relu_3x3_reduce <- inception_4c/3x3_reduce
I0403 21:35:52.682773 23585 net.cpp:386] inception_4c/relu_3x3_reduce -> inception_4c/3x3_reduce (in-place)
I0403 21:35:52.683054 23585 net.cpp:141] Setting up inception_4c/relu_3x3_reduce
I0403 21:35:52.683080 23585 net.cpp:148] Top shape: 24 128 14 14 (602112)
I0403 21:35:52.683095 23585 net.cpp:156] Memory required for data: 1038026016
I0403 21:35:52.683111 23585 layer_factory.hpp:77] Creating layer inception_4c/3x3
I0403 21:35:52.683135 23585 net.cpp:91] Creating Layer inception_4c/3x3
I0403 21:35:52.683153 23585 net.cpp:425] inception_4c/3x3 <- inception_4c/3x3_reduce
I0403 21:35:52.683176 23585 net.cpp:399] inception_4c/3x3 -> inception_4c/3x3
I0403 21:35:52.686775 23585 net.cpp:141] Setting up inception_4c/3x3
I0403 21:35:52.686816 23585 net.cpp:148] Top shape: 24 256 14 14 (1204224)
I0403 21:35:52.686832 23585 net.cpp:156] Memory required for data: 1042842912
I0403 21:35:52.686866 23585 layer_factory.hpp:77] Creating layer inception_4c/relu_3x3
I0403 21:35:52.686889 23585 net.cpp:91] Creating Layer inception_4c/relu_3x3
I0403 21:35:52.686908 23585 net.cpp:425] inception_4c/relu_3x3 <- inception_4c/3x3
I0403 21:35:52.686926 23585 net.cpp:386] inception_4c/relu_3x3 -> inception_4c/3x3 (in-place)
I0403 21:35:52.687103 23585 net.cpp:141] Setting up inception_4c/relu_3x3
I0403 21:35:52.687129 23585 net.cpp:148] Top shape: 24 256 14 14 (1204224)
I0403 21:35:52.687144 23585 net.cpp:156] Memory required for data: 1047659808
I0403 21:35:52.687160 23585 layer_factory.hpp:77] Creating layer inception_4c/5x5_reduce
I0403 21:35:52.687182 23585 net.cpp:91] Creating Layer inception_4c/5x5_reduce
I0403 21:35:52.687201 23585 net.cpp:425] inception_4c/5x5_reduce <- inception_4b/output_inception_4b/output_0_split_2
I0403 21:35:52.687222 23585 net.cpp:399] inception_4c/5x5_reduce -> inception_4c/5x5_reduce
I0403 21:35:52.688316 23585 net.cpp:141] Setting up inception_4c/5x5_reduce
I0403 21:35:52.688345 23585 net.cpp:148] Top shape: 24 24 14 14 (112896)
I0403 21:35:52.688361 23585 net.cpp:156] Memory required for data: 1048111392
I0403 21:35:52.688380 23585 layer_factory.hpp:77] Creating layer inception_4c/relu_5x5_reduce
I0403 21:35:52.688398 23585 net.cpp:91] Creating Layer inception_4c/relu_5x5_reduce
I0403 21:35:52.688416 23585 net.cpp:425] inception_4c/relu_5x5_reduce <- inception_4c/5x5_reduce
I0403 21:35:52.688436 23585 net.cpp:386] inception_4c/relu_5x5_reduce -> inception_4c/5x5_reduce (in-place)
I0403 21:35:52.688621 23585 net.cpp:141] Setting up inception_4c/relu_5x5_reduce
I0403 21:35:52.688645 23585 net.cpp:148] Top shape: 24 24 14 14 (112896)
I0403 21:35:52.688659 23585 net.cpp:156] Memory required for data: 1048562976
I0403 21:35:52.688674 23585 layer_factory.hpp:77] Creating layer inception_4c/5x5
I0403 21:35:52.688696 23585 net.cpp:91] Creating Layer inception_4c/5x5
I0403 21:35:52.688715 23585 net.cpp:425] inception_4c/5x5 <- inception_4c/5x5_reduce
I0403 21:35:52.688738 23585 net.cpp:399] inception_4c/5x5 -> inception_4c/5x5
I0403 21:35:52.689959 23585 net.cpp:141] Setting up inception_4c/5x5
I0403 21:35:52.689986 23585 net.cpp:148] Top shape: 24 64 14 14 (301056)
I0403 21:35:52.690001 23585 net.cpp:156] Memory required for data: 1049767200
I0403 21:35:52.690021 23585 layer_factory.hpp:77] Creating layer inception_4c/relu_5x5
I0403 21:35:52.690040 23585 net.cpp:91] Creating Layer inception_4c/relu_5x5
I0403 21:35:52.690059 23585 net.cpp:425] inception_4c/relu_5x5 <- inception_4c/5x5
I0403 21:35:52.690076 23585 net.cpp:386] inception_4c/relu_5x5 -> inception_4c/5x5 (in-place)
I0403 21:35:52.690387 23585 net.cpp:141] Setting up inception_4c/relu_5x5
I0403 21:35:52.690414 23585 net.cpp:148] Top shape: 24 64 14 14 (301056)
I0403 21:35:52.690430 23585 net.cpp:156] Memory required for data: 1050971424
I0403 21:35:52.690446 23585 layer_factory.hpp:77] Creating layer inception_4c/pool
I0403 21:35:52.690479 23585 net.cpp:91] Creating Layer inception_4c/pool
I0403 21:35:52.690497 23585 net.cpp:425] inception_4c/pool <- inception_4b/output_inception_4b/output_0_split_3
I0403 21:35:52.690516 23585 net.cpp:399] inception_4c/pool -> inception_4c/pool
I0403 21:35:52.690582 23585 net.cpp:141] Setting up inception_4c/pool
I0403 21:35:52.690605 23585 net.cpp:148] Top shape: 24 512 14 14 (2408448)
I0403 21:35:52.690620 23585 net.cpp:156] Memory required for data: 1060605216
I0403 21:35:52.690636 23585 layer_factory.hpp:77] Creating layer inception_4c/pool_proj
I0403 21:35:52.690657 23585 net.cpp:91] Creating Layer inception_4c/pool_proj
I0403 21:35:52.690675 23585 net.cpp:425] inception_4c/pool_proj <- inception_4c/pool
I0403 21:35:52.690696 23585 net.cpp:399] inception_4c/pool_proj -> inception_4c/pool_proj
I0403 21:35:52.691892 23585 net.cpp:141] Setting up inception_4c/pool_proj
I0403 21:35:52.691920 23585 net.cpp:148] Top shape: 24 64 14 14 (301056)
I0403 21:35:52.691949 23585 net.cpp:156] Memory required for data: 1061809440
I0403 21:35:52.691968 23585 layer_factory.hpp:77] Creating layer inception_4c/relu_pool_proj
I0403 21:35:52.691989 23585 net.cpp:91] Creating Layer inception_4c/relu_pool_proj
I0403 21:35:52.692008 23585 net.cpp:425] inception_4c/relu_pool_proj <- inception_4c/pool_proj
I0403 21:35:52.692025 23585 net.cpp:386] inception_4c/relu_pool_proj -> inception_4c/pool_proj (in-place)
I0403 21:35:52.692204 23585 net.cpp:141] Setting up inception_4c/relu_pool_proj
I0403 21:35:52.692234 23585 net.cpp:148] Top shape: 24 64 14 14 (301056)
I0403 21:35:52.692250 23585 net.cpp:156] Memory required for data: 1063013664
I0403 21:35:52.692266 23585 layer_factory.hpp:77] Creating layer inception_4c/output
I0403 21:35:52.692286 23585 net.cpp:91] Creating Layer inception_4c/output
I0403 21:35:52.692302 23585 net.cpp:425] inception_4c/output <- inception_4c/1x1
I0403 21:35:52.692320 23585 net.cpp:425] inception_4c/output <- inception_4c/3x3
I0403 21:35:52.692339 23585 net.cpp:425] inception_4c/output <- inception_4c/5x5
I0403 21:35:52.692356 23585 net.cpp:425] inception_4c/output <- inception_4c/pool_proj
I0403 21:35:52.692373 23585 net.cpp:399] inception_4c/output -> inception_4c/output
I0403 21:35:52.692420 23585 net.cpp:141] Setting up inception_4c/output
I0403 21:35:52.692443 23585 net.cpp:148] Top shape: 24 512 14 14 (2408448)
I0403 21:35:52.692458 23585 net.cpp:156] Memory required for data: 1072647456
I0403 21:35:52.692474 23585 layer_factory.hpp:77] Creating layer inception_4c/output_inception_4c/output_0_split
I0403 21:35:52.692492 23585 net.cpp:91] Creating Layer inception_4c/output_inception_4c/output_0_split
I0403 21:35:52.692507 23585 net.cpp:425] inception_4c/output_inception_4c/output_0_split <- inception_4c/output
I0403 21:35:52.692528 23585 net.cpp:399] inception_4c/output_inception_4c/output_0_split -> inception_4c/output_inception_4c/output_0_split_0
I0403 21:35:52.692548 23585 net.cpp:399] inception_4c/output_inception_4c/output_0_split -> inception_4c/output_inception_4c/output_0_split_1
I0403 21:35:52.692569 23585 net.cpp:399] inception_4c/output_inception_4c/output_0_split -> inception_4c/output_inception_4c/output_0_split_2
I0403 21:35:52.692591 23585 net.cpp:399] inception_4c/output_inception_4c/output_0_split -> inception_4c/output_inception_4c/output_0_split_3
I0403 21:35:52.692678 23585 net.cpp:141] Setting up inception_4c/output_inception_4c/output_0_split
I0403 21:35:52.692704 23585 net.cpp:148] Top shape: 24 512 14 14 (2408448)
I0403 21:35:52.692721 23585 net.cpp:148] Top shape: 24 512 14 14 (2408448)
I0403 21:35:52.692739 23585 net.cpp:148] Top shape: 24 512 14 14 (2408448)
I0403 21:35:52.692754 23585 net.cpp:148] Top shape: 24 512 14 14 (2408448)
I0403 21:35:52.692767 23585 net.cpp:156] Memory required for data: 1111182624
I0403 21:35:52.692783 23585 layer_factory.hpp:77] Creating layer inception_4d/1x1
I0403 21:35:52.692806 23585 net.cpp:91] Creating Layer inception_4d/1x1
I0403 21:35:52.692823 23585 net.cpp:425] inception_4d/1x1 <- inception_4c/output_inception_4c/output_0_split_0
I0403 21:35:52.692842 23585 net.cpp:399] inception_4d/1x1 -> inception_4d/1x1
I0403 21:35:52.694201 23585 net.cpp:141] Setting up inception_4d/1x1
I0403 21:35:52.694236 23585 net.cpp:148] Top shape: 24 112 14 14 (526848)
I0403 21:35:52.694255 23585 net.cpp:156] Memory required for data: 1113290016
I0403 21:35:52.694275 23585 layer_factory.hpp:77] Creating layer inception_4d/relu_1x1
I0403 21:35:52.694294 23585 net.cpp:91] Creating Layer inception_4d/relu_1x1
I0403 21:35:52.694311 23585 net.cpp:425] inception_4d/relu_1x1 <- inception_4d/1x1
I0403 21:35:52.694332 23585 net.cpp:386] inception_4d/relu_1x1 -> inception_4d/1x1 (in-place)
I0403 21:35:52.694531 23585 net.cpp:141] Setting up inception_4d/relu_1x1
I0403 21:35:52.694558 23585 net.cpp:148] Top shape: 24 112 14 14 (526848)
I0403 21:35:52.694573 23585 net.cpp:156] Memory required for data: 1115397408
I0403 21:35:52.694589 23585 layer_factory.hpp:77] Creating layer inception_4d/3x3_reduce
I0403 21:35:52.694624 23585 net.cpp:91] Creating Layer inception_4d/3x3_reduce
I0403 21:35:52.694644 23585 net.cpp:425] inception_4d/3x3_reduce <- inception_4c/output_inception_4c/output_0_split_1
I0403 21:35:52.694666 23585 net.cpp:399] inception_4d/3x3_reduce -> inception_4d/3x3_reduce
I0403 21:35:52.696188 23585 net.cpp:141] Setting up inception_4d/3x3_reduce
I0403 21:35:52.696219 23585 net.cpp:148] Top shape: 24 144 14 14 (677376)
I0403 21:35:52.696243 23585 net.cpp:156] Memory required for data: 1118106912
I0403 21:35:52.696262 23585 layer_factory.hpp:77] Creating layer inception_4d/relu_3x3_reduce
I0403 21:35:52.696287 23585 net.cpp:91] Creating Layer inception_4d/relu_3x3_reduce
I0403 21:35:52.696305 23585 net.cpp:425] inception_4d/relu_3x3_reduce <- inception_4d/3x3_reduce
I0403 21:35:52.696324 23585 net.cpp:386] inception_4d/relu_3x3_reduce -> inception_4d/3x3_reduce (in-place)
I0403 21:35:52.696617 23585 net.cpp:141] Setting up inception_4d/relu_3x3_reduce
I0403 21:35:52.696646 23585 net.cpp:148] Top shape: 24 144 14 14 (677376)
I0403 21:35:52.696665 23585 net.cpp:156] Memory required for data: 1120816416
I0403 21:35:52.696681 23585 layer_factory.hpp:77] Creating layer inception_4d/3x3
I0403 21:35:52.696702 23585 net.cpp:91] Creating Layer inception_4d/3x3
I0403 21:35:52.696718 23585 net.cpp:425] inception_4d/3x3 <- inception_4d/3x3_reduce
I0403 21:35:52.696741 23585 net.cpp:399] inception_4d/3x3 -> inception_4d/3x3
I0403 21:35:52.701105 23585 net.cpp:141] Setting up inception_4d/3x3
I0403 21:35:52.701134 23585 net.cpp:148] Top shape: 24 288 14 14 (1354752)
I0403 21:35:52.701151 23585 net.cpp:156] Memory required for data: 1126235424
I0403 21:35:52.701170 23585 layer_factory.hpp:77] Creating layer inception_4d/relu_3x3
I0403 21:35:52.701189 23585 net.cpp:91] Creating Layer inception_4d/relu_3x3
I0403 21:35:52.701205 23585 net.cpp:425] inception_4d/relu_3x3 <- inception_4d/3x3
I0403 21:35:52.701225 23585 net.cpp:386] inception_4d/relu_3x3 -> inception_4d/3x3 (in-place)
I0403 21:35:52.701421 23585 net.cpp:141] Setting up inception_4d/relu_3x3
I0403 21:35:52.701447 23585 net.cpp:148] Top shape: 24 288 14 14 (1354752)
I0403 21:35:52.701462 23585 net.cpp:156] Memory required for data: 1131654432
I0403 21:35:52.701478 23585 layer_factory.hpp:77] Creating layer inception_4d/5x5_reduce
I0403 21:35:52.701504 23585 net.cpp:91] Creating Layer inception_4d/5x5_reduce
I0403 21:35:52.701524 23585 net.cpp:425] inception_4d/5x5_reduce <- inception_4c/output_inception_4c/output_0_split_2
I0403 21:35:52.701545 23585 net.cpp:399] inception_4d/5x5_reduce -> inception_4d/5x5_reduce
I0403 21:35:52.702745 23585 net.cpp:141] Setting up inception_4d/5x5_reduce
I0403 21:35:52.702776 23585 net.cpp:148] Top shape: 24 32 14 14 (150528)
I0403 21:35:52.702795 23585 net.cpp:156] Memory required for data: 1132256544
I0403 21:35:52.702814 23585 layer_factory.hpp:77] Creating layer inception_4d/relu_5x5_reduce
I0403 21:35:52.702832 23585 net.cpp:91] Creating Layer inception_4d/relu_5x5_reduce
I0403 21:35:52.702849 23585 net.cpp:425] inception_4d/relu_5x5_reduce <- inception_4d/5x5_reduce
I0403 21:35:52.702872 23585 net.cpp:386] inception_4d/relu_5x5_reduce -> inception_4d/5x5_reduce (in-place)
I0403 21:35:52.703060 23585 net.cpp:141] Setting up inception_4d/relu_5x5_reduce
I0403 21:35:52.703086 23585 net.cpp:148] Top shape: 24 32 14 14 (150528)
I0403 21:35:52.703102 23585 net.cpp:156] Memory required for data: 1132858656
I0403 21:35:52.703117 23585 layer_factory.hpp:77] Creating layer inception_4d/5x5
I0403 21:35:52.703140 23585 net.cpp:91] Creating Layer inception_4d/5x5
I0403 21:35:52.703158 23585 net.cpp:425] inception_4d/5x5 <- inception_4d/5x5_reduce
I0403 21:35:52.703179 23585 net.cpp:399] inception_4d/5x5 -> inception_4d/5x5
I0403 21:35:52.704691 23585 net.cpp:141] Setting up inception_4d/5x5
I0403 21:35:52.704720 23585 net.cpp:148] Top shape: 24 64 14 14 (301056)
I0403 21:35:52.704735 23585 net.cpp:156] Memory required for data: 1134062880
I0403 21:35:52.704756 23585 layer_factory.hpp:77] Creating layer inception_4d/relu_5x5
I0403 21:35:52.704792 23585 net.cpp:91] Creating Layer inception_4d/relu_5x5
I0403 21:35:52.704810 23585 net.cpp:425] inception_4d/relu_5x5 <- inception_4d/5x5
I0403 21:35:52.704830 23585 net.cpp:386] inception_4d/relu_5x5 -> inception_4d/5x5 (in-place)
I0403 21:35:52.705133 23585 net.cpp:141] Setting up inception_4d/relu_5x5
I0403 21:35:52.705159 23585 net.cpp:148] Top shape: 24 64 14 14 (301056)
I0403 21:35:52.705175 23585 net.cpp:156] Memory required for data: 1135267104
I0403 21:35:52.705191 23585 layer_factory.hpp:77] Creating layer inception_4d/pool
I0403 21:35:52.705211 23585 net.cpp:91] Creating Layer inception_4d/pool
I0403 21:35:52.705234 23585 net.cpp:425] inception_4d/pool <- inception_4c/output_inception_4c/output_0_split_3
I0403 21:35:52.705255 23585 net.cpp:399] inception_4d/pool -> inception_4d/pool
I0403 21:35:52.705328 23585 net.cpp:141] Setting up inception_4d/pool
I0403 21:35:52.705353 23585 net.cpp:148] Top shape: 24 512 14 14 (2408448)
I0403 21:35:52.705369 23585 net.cpp:156] Memory required for data: 1144900896
I0403 21:35:52.705385 23585 layer_factory.hpp:77] Creating layer inception_4d/pool_proj
I0403 21:35:52.705407 23585 net.cpp:91] Creating Layer inception_4d/pool_proj
I0403 21:35:52.705426 23585 net.cpp:425] inception_4d/pool_proj <- inception_4d/pool
I0403 21:35:52.705448 23585 net.cpp:399] inception_4d/pool_proj -> inception_4d/pool_proj
I0403 21:35:52.707274 23585 net.cpp:141] Setting up inception_4d/pool_proj
I0403 21:35:52.707305 23585 net.cpp:148] Top shape: 24 64 14 14 (301056)
I0403 21:35:52.707322 23585 net.cpp:156] Memory required for data: 1146105120
I0403 21:35:52.707341 23585 layer_factory.hpp:77] Creating layer inception_4d/relu_pool_proj
I0403 21:35:52.707361 23585 net.cpp:91] Creating Layer inception_4d/relu_pool_proj
I0403 21:35:52.707378 23585 net.cpp:425] inception_4d/relu_pool_proj <- inception_4d/pool_proj
I0403 21:35:52.707398 23585 net.cpp:386] inception_4d/relu_pool_proj -> inception_4d/pool_proj (in-place)
I0403 21:35:52.707587 23585 net.cpp:141] Setting up inception_4d/relu_pool_proj
I0403 21:35:52.707613 23585 net.cpp:148] Top shape: 24 64 14 14 (301056)
I0403 21:35:52.707629 23585 net.cpp:156] Memory required for data: 1147309344
I0403 21:35:52.707645 23585 layer_factory.hpp:77] Creating layer inception_4d/output
I0403 21:35:52.707662 23585 net.cpp:91] Creating Layer inception_4d/output
I0403 21:35:52.707682 23585 net.cpp:425] inception_4d/output <- inception_4d/1x1
I0403 21:35:52.707701 23585 net.cpp:425] inception_4d/output <- inception_4d/3x3
I0403 21:35:52.707720 23585 net.cpp:425] inception_4d/output <- inception_4d/5x5
I0403 21:35:52.707736 23585 net.cpp:425] inception_4d/output <- inception_4d/pool_proj
I0403 21:35:52.707756 23585 net.cpp:399] inception_4d/output -> inception_4d/output
I0403 21:35:52.707803 23585 net.cpp:141] Setting up inception_4d/output
I0403 21:35:52.707830 23585 net.cpp:148] Top shape: 24 528 14 14 (2483712)
I0403 21:35:52.707849 23585 net.cpp:156] Memory required for data: 1157244192
I0403 21:35:52.707864 23585 layer_factory.hpp:77] Creating layer inception_4d/output_inception_4d/output_0_split
I0403 21:35:52.707883 23585 net.cpp:91] Creating Layer inception_4d/output_inception_4d/output_0_split
I0403 21:35:52.707901 23585 net.cpp:425] inception_4d/output_inception_4d/output_0_split <- inception_4d/output
I0403 21:35:52.707922 23585 net.cpp:399] inception_4d/output_inception_4d/output_0_split -> inception_4d/output_inception_4d/output_0_split_0
I0403 21:35:52.707945 23585 net.cpp:399] inception_4d/output_inception_4d/output_0_split -> inception_4d/output_inception_4d/output_0_split_1
I0403 21:35:52.707968 23585 net.cpp:399] inception_4d/output_inception_4d/output_0_split -> inception_4d/output_inception_4d/output_0_split_2
I0403 21:35:52.707989 23585 net.cpp:399] inception_4d/output_inception_4d/output_0_split -> inception_4d/output_inception_4d/output_0_split_3
I0403 21:35:52.708011 23585 net.cpp:399] inception_4d/output_inception_4d/output_0_split -> inception_4d/output_inception_4d/output_0_split_4
I0403 21:35:52.708117 23585 net.cpp:141] Setting up inception_4d/output_inception_4d/output_0_split
I0403 21:35:52.708153 23585 net.cpp:148] Top shape: 24 528 14 14 (2483712)
I0403 21:35:52.708173 23585 net.cpp:148] Top shape: 24 528 14 14 (2483712)
I0403 21:35:52.708191 23585 net.cpp:148] Top shape: 24 528 14 14 (2483712)
I0403 21:35:52.708209 23585 net.cpp:148] Top shape: 24 528 14 14 (2483712)
I0403 21:35:52.708225 23585 net.cpp:148] Top shape: 24 528 14 14 (2483712)
I0403 21:35:52.708253 23585 net.cpp:156] Memory required for data: 1206918432
I0403 21:35:52.708271 23585 layer_factory.hpp:77] Creating layer loss2/ave_pool
I0403 21:35:52.708289 23585 net.cpp:91] Creating Layer loss2/ave_pool
I0403 21:35:52.708307 23585 net.cpp:425] loss2/ave_pool <- inception_4d/output_inception_4d/output_0_split_0
I0403 21:35:52.708329 23585 net.cpp:399] loss2/ave_pool -> loss2/ave_pool
I0403 21:35:52.708647 23585 net.cpp:141] Setting up loss2/ave_pool
I0403 21:35:52.708674 23585 net.cpp:148] Top shape: 24 528 4 4 (202752)
I0403 21:35:52.708690 23585 net.cpp:156] Memory required for data: 1207729440
I0403 21:35:52.708708 23585 layer_factory.hpp:77] Creating layer loss2/conv
I0403 21:35:52.708729 23585 net.cpp:91] Creating Layer loss2/conv
I0403 21:35:52.708748 23585 net.cpp:425] loss2/conv <- loss2/ave_pool
I0403 21:35:52.708770 23585 net.cpp:399] loss2/conv -> loss2/conv
I0403 21:35:52.710760 23585 net.cpp:141] Setting up loss2/conv
I0403 21:35:52.710788 23585 net.cpp:148] Top shape: 24 128 4 4 (49152)
I0403 21:35:52.710805 23585 net.cpp:156] Memory required for data: 1207926048
I0403 21:35:52.710824 23585 layer_factory.hpp:77] Creating layer loss2/relu_conv
I0403 21:35:52.710846 23585 net.cpp:91] Creating Layer loss2/relu_conv
I0403 21:35:52.710865 23585 net.cpp:425] loss2/relu_conv <- loss2/conv
I0403 21:35:52.710886 23585 net.cpp:386] loss2/relu_conv -> loss2/conv (in-place)
I0403 21:35:52.711172 23585 net.cpp:141] Setting up loss2/relu_conv
I0403 21:35:52.711200 23585 net.cpp:148] Top shape: 24 128 4 4 (49152)
I0403 21:35:52.711216 23585 net.cpp:156] Memory required for data: 1208122656
I0403 21:35:52.711238 23585 layer_factory.hpp:77] Creating layer loss2/fc
I0403 21:35:52.711261 23585 net.cpp:91] Creating Layer loss2/fc
I0403 21:35:52.711280 23585 net.cpp:425] loss2/fc <- loss2/conv
I0403 21:35:52.711300 23585 net.cpp:399] loss2/fc -> loss2/fc
I0403 21:35:52.728798 23585 net.cpp:141] Setting up loss2/fc
I0403 21:35:52.728834 23585 net.cpp:148] Top shape: 24 1024 (24576)
I0403 21:35:52.728850 23585 net.cpp:156] Memory required for data: 1208220960
I0403 21:35:52.728869 23585 layer_factory.hpp:77] Creating layer loss2/relu_fc
I0403 21:35:52.728889 23585 net.cpp:91] Creating Layer loss2/relu_fc
I0403 21:35:52.728907 23585 net.cpp:425] loss2/relu_fc <- loss2/fc
I0403 21:35:52.728927 23585 net.cpp:386] loss2/relu_fc -> loss2/fc (in-place)
I0403 21:35:52.729226 23585 net.cpp:141] Setting up loss2/relu_fc
I0403 21:35:52.729256 23585 net.cpp:148] Top shape: 24 1024 (24576)
I0403 21:35:52.729271 23585 net.cpp:156] Memory required for data: 1208319264
I0403 21:35:52.729287 23585 layer_factory.hpp:77] Creating layer loss2/drop_fc
I0403 21:35:52.729306 23585 net.cpp:91] Creating Layer loss2/drop_fc
I0403 21:35:52.729322 23585 net.cpp:425] loss2/drop_fc <- loss2/fc
I0403 21:35:52.729342 23585 net.cpp:386] loss2/drop_fc -> loss2/fc (in-place)
I0403 21:35:52.729389 23585 net.cpp:141] Setting up loss2/drop_fc
I0403 21:35:52.729416 23585 net.cpp:148] Top shape: 24 1024 (24576)
I0403 21:35:52.729432 23585 net.cpp:156] Memory required for data: 1208417568
I0403 21:35:52.729449 23585 layer_factory.hpp:77] Creating layer loss2/classifier_plantvillage
I0403 21:35:52.729467 23585 net.cpp:91] Creating Layer loss2/classifier_plantvillage
I0403 21:35:52.729483 23585 net.cpp:425] loss2/classifier_plantvillage <- loss2/fc
I0403 21:35:52.729504 23585 net.cpp:399] loss2/classifier_plantvillage -> loss2/classifier_plantvillage
I0403 21:35:52.729897 23585 net.cpp:141] Setting up loss2/classifier_plantvillage
I0403 21:35:52.729923 23585 net.cpp:148] Top shape: 24 38 (912)
I0403 21:35:52.729959 23585 net.cpp:156] Memory required for data: 1208421216
I0403 21:35:52.729979 23585 layer_factory.hpp:77] Creating layer loss2/classifier_plantvillage_loss2/classifier_plantvillage_0_split
I0403 21:35:52.729997 23585 net.cpp:91] Creating Layer loss2/classifier_plantvillage_loss2/classifier_plantvillage_0_split
I0403 21:35:52.730015 23585 net.cpp:425] loss2/classifier_plantvillage_loss2/classifier_plantvillage_0_split <- loss2/classifier_plantvillage
I0403 21:35:52.730032 23585 net.cpp:399] loss2/classifier_plantvillage_loss2/classifier_plantvillage_0_split -> loss2/classifier_plantvillage_loss2/classifier_plantvillage_0_split_0
I0403 21:35:52.730053 23585 net.cpp:399] loss2/classifier_plantvillage_loss2/classifier_plantvillage_0_split -> loss2/classifier_plantvillage_loss2/classifier_plantvillage_0_split_1
I0403 21:35:52.730077 23585 net.cpp:399] loss2/classifier_plantvillage_loss2/classifier_plantvillage_0_split -> loss2/classifier_plantvillage_loss2/classifier_plantvillage_0_split_2
I0403 21:35:52.730154 23585 net.cpp:141] Setting up loss2/classifier_plantvillage_loss2/classifier_plantvillage_0_split
I0403 21:35:52.730190 23585 net.cpp:148] Top shape: 24 38 (912)
I0403 21:35:52.730207 23585 net.cpp:148] Top shape: 24 38 (912)
I0403 21:35:52.730224 23585 net.cpp:148] Top shape: 24 38 (912)
I0403 21:35:52.730244 23585 net.cpp:156] Memory required for data: 1208432160
I0403 21:35:52.730260 23585 layer_factory.hpp:77] Creating layer inception_4e/1x1
I0403 21:35:52.730281 23585 net.cpp:91] Creating Layer inception_4e/1x1
I0403 21:35:52.730298 23585 net.cpp:425] inception_4e/1x1 <- inception_4d/output_inception_4d/output_0_split_1
I0403 21:35:52.730320 23585 net.cpp:399] inception_4e/1x1 -> inception_4e/1x1
I0403 21:35:52.732120 23585 net.cpp:141] Setting up inception_4e/1x1
I0403 21:35:52.732148 23585 net.cpp:148] Top shape: 24 256 14 14 (1204224)
I0403 21:35:52.732164 23585 net.cpp:156] Memory required for data: 1213249056
I0403 21:35:52.732182 23585 layer_factory.hpp:77] Creating layer inception_4e/relu_1x1
I0403 21:35:52.732203 23585 net.cpp:91] Creating Layer inception_4e/relu_1x1
I0403 21:35:52.732220 23585 net.cpp:425] inception_4e/relu_1x1 <- inception_4e/1x1
I0403 21:35:52.732244 23585 net.cpp:386] inception_4e/relu_1x1 -> inception_4e/1x1 (in-place)
I0403 21:35:52.732537 23585 net.cpp:141] Setting up inception_4e/relu_1x1
I0403 21:35:52.732563 23585 net.cpp:148] Top shape: 24 256 14 14 (1204224)
I0403 21:35:52.732579 23585 net.cpp:156] Memory required for data: 1218065952
I0403 21:35:52.732594 23585 layer_factory.hpp:77] Creating layer inception_4e/3x3_reduce
I0403 21:35:52.732617 23585 net.cpp:91] Creating Layer inception_4e/3x3_reduce
I0403 21:35:52.732635 23585 net.cpp:425] inception_4e/3x3_reduce <- inception_4d/output_inception_4d/output_0_split_2
I0403 21:35:52.732656 23585 net.cpp:399] inception_4e/3x3_reduce -> inception_4e/3x3_reduce
I0403 21:35:52.734810 23585 net.cpp:141] Setting up inception_4e/3x3_reduce
I0403 21:35:52.734838 23585 net.cpp:148] Top shape: 24 160 14 14 (752640)
I0403 21:35:52.734854 23585 net.cpp:156] Memory required for data: 1221076512
I0403 21:35:52.734872 23585 layer_factory.hpp:77] Creating layer inception_4e/relu_3x3_reduce
I0403 21:35:52.734892 23585 net.cpp:91] Creating Layer inception_4e/relu_3x3_reduce
I0403 21:35:52.734911 23585 net.cpp:425] inception_4e/relu_3x3_reduce <- inception_4e/3x3_reduce
I0403 21:35:52.734930 23585 net.cpp:386] inception_4e/relu_3x3_reduce -> inception_4e/3x3_reduce (in-place)
I0403 21:35:52.735113 23585 net.cpp:141] Setting up inception_4e/relu_3x3_reduce
I0403 21:35:52.735138 23585 net.cpp:148] Top shape: 24 160 14 14 (752640)
I0403 21:35:52.735153 23585 net.cpp:156] Memory required for data: 1224087072
I0403 21:35:52.735168 23585 layer_factory.hpp:77] Creating layer inception_4e/3x3
I0403 21:35:52.735191 23585 net.cpp:91] Creating Layer inception_4e/3x3
I0403 21:35:52.735210 23585 net.cpp:425] inception_4e/3x3 <- inception_4e/3x3_reduce
I0403 21:35:52.735234 23585 net.cpp:399] inception_4e/3x3 -> inception_4e/3x3
I0403 21:35:52.740224 23585 net.cpp:141] Setting up inception_4e/3x3
I0403 21:35:52.740268 23585 net.cpp:148] Top shape: 24 320 14 14 (1505280)
I0403 21:35:52.740284 23585 net.cpp:156] Memory required for data: 1230108192
I0403 21:35:52.740303 23585 layer_factory.hpp:77] Creating layer inception_4e/relu_3x3
I0403 21:35:52.740324 23585 net.cpp:91] Creating Layer inception_4e/relu_3x3
I0403 21:35:52.740344 23585 net.cpp:425] inception_4e/relu_3x3 <- inception_4e/3x3
I0403 21:35:52.740360 23585 net.cpp:386] inception_4e/relu_3x3 -> inception_4e/3x3 (in-place)
I0403 21:35:52.740655 23585 net.cpp:141] Setting up inception_4e/relu_3x3
I0403 21:35:52.740684 23585 net.cpp:148] Top shape: 24 320 14 14 (1505280)
I0403 21:35:52.740700 23585 net.cpp:156] Memory required for data: 1236129312
I0403 21:35:52.740716 23585 layer_factory.hpp:77] Creating layer inception_4e/5x5_reduce
I0403 21:35:52.740739 23585 net.cpp:91] Creating Layer inception_4e/5x5_reduce
I0403 21:35:52.740757 23585 net.cpp:425] inception_4e/5x5_reduce <- inception_4d/output_inception_4d/output_0_split_3
I0403 21:35:52.740777 23585 net.cpp:399] inception_4e/5x5_reduce -> inception_4e/5x5_reduce
I0403 21:35:52.741865 23585 net.cpp:141] Setting up inception_4e/5x5_reduce
I0403 21:35:52.741894 23585 net.cpp:148] Top shape: 24 32 14 14 (150528)
I0403 21:35:52.741909 23585 net.cpp:156] Memory required for data: 1236731424
I0403 21:35:52.741926 23585 layer_factory.hpp:77] Creating layer inception_4e/relu_5x5_reduce
I0403 21:35:52.741946 23585 net.cpp:91] Creating Layer inception_4e/relu_5x5_reduce
I0403 21:35:52.741963 23585 net.cpp:425] inception_4e/relu_5x5_reduce <- inception_4e/5x5_reduce
I0403 21:35:52.741981 23585 net.cpp:386] inception_4e/relu_5x5_reduce -> inception_4e/5x5_reduce (in-place)
I0403 21:35:52.742295 23585 net.cpp:141] Setting up inception_4e/relu_5x5_reduce
I0403 21:35:52.742321 23585 net.cpp:148] Top shape: 24 32 14 14 (150528)
I0403 21:35:52.742338 23585 net.cpp:156] Memory required for data: 1237333536
I0403 21:35:52.742353 23585 layer_factory.hpp:77] Creating layer inception_4e/5x5
I0403 21:35:52.742391 23585 net.cpp:91] Creating Layer inception_4e/5x5
I0403 21:35:52.742411 23585 net.cpp:425] inception_4e/5x5 <- inception_4e/5x5_reduce
I0403 21:35:52.742434 23585 net.cpp:399] inception_4e/5x5 -> inception_4e/5x5
I0403 21:35:52.744273 23585 net.cpp:141] Setting up inception_4e/5x5
I0403 21:35:52.744302 23585 net.cpp:148] Top shape: 24 128 14 14 (602112)
I0403 21:35:52.744318 23585 net.cpp:156] Memory required for data: 1239741984
I0403 21:35:52.744338 23585 layer_factory.hpp:77] Creating layer inception_4e/relu_5x5
I0403 21:35:52.744357 23585 net.cpp:91] Creating Layer inception_4e/relu_5x5
I0403 21:35:52.744374 23585 net.cpp:425] inception_4e/relu_5x5 <- inception_4e/5x5
I0403 21:35:52.744395 23585 net.cpp:386] inception_4e/relu_5x5 -> inception_4e/5x5 (in-place)
I0403 21:35:52.744603 23585 net.cpp:141] Setting up inception_4e/relu_5x5
I0403 21:35:52.744628 23585 net.cpp:148] Top shape: 24 128 14 14 (602112)
I0403 21:35:52.744643 23585 net.cpp:156] Memory required for data: 1242150432
I0403 21:35:52.744658 23585 layer_factory.hpp:77] Creating layer inception_4e/pool
I0403 21:35:52.744678 23585 net.cpp:91] Creating Layer inception_4e/pool
I0403 21:35:52.744696 23585 net.cpp:425] inception_4e/pool <- inception_4d/output_inception_4d/output_0_split_4
I0403 21:35:52.744715 23585 net.cpp:399] inception_4e/pool -> inception_4e/pool
I0403 21:35:52.744786 23585 net.cpp:141] Setting up inception_4e/pool
I0403 21:35:52.744809 23585 net.cpp:148] Top shape: 24 528 14 14 (2483712)
I0403 21:35:52.744824 23585 net.cpp:156] Memory required for data: 1252085280
I0403 21:35:52.744839 23585 layer_factory.hpp:77] Creating layer inception_4e/pool_proj
I0403 21:35:52.744861 23585 net.cpp:91] Creating Layer inception_4e/pool_proj
I0403 21:35:52.744879 23585 net.cpp:425] inception_4e/pool_proj <- inception_4e/pool
I0403 21:35:52.744900 23585 net.cpp:399] inception_4e/pool_proj -> inception_4e/pool_proj
I0403 21:35:52.746407 23585 net.cpp:141] Setting up inception_4e/pool_proj
I0403 21:35:52.746446 23585 net.cpp:148] Top shape: 24 128 14 14 (602112)
I0403 21:35:52.746476 23585 net.cpp:156] Memory required for data: 1254493728
I0403 21:35:52.746495 23585 layer_factory.hpp:77] Creating layer inception_4e/relu_pool_proj
I0403 21:35:52.746515 23585 net.cpp:91] Creating Layer inception_4e/relu_pool_proj
I0403 21:35:52.746532 23585 net.cpp:425] inception_4e/relu_pool_proj <- inception_4e/pool_proj
I0403 21:35:52.746552 23585 net.cpp:386] inception_4e/relu_pool_proj -> inception_4e/pool_proj (in-place)
I0403 21:35:52.746842 23585 net.cpp:141] Setting up inception_4e/relu_pool_proj
I0403 21:35:52.746868 23585 net.cpp:148] Top shape: 24 128 14 14 (602112)
I0403 21:35:52.746883 23585 net.cpp:156] Memory required for data: 1256902176
I0403 21:35:52.746899 23585 layer_factory.hpp:77] Creating layer inception_4e/output
I0403 21:35:52.746917 23585 net.cpp:91] Creating Layer inception_4e/output
I0403 21:35:52.746933 23585 net.cpp:425] inception_4e/output <- inception_4e/1x1
I0403 21:35:52.746950 23585 net.cpp:425] inception_4e/output <- inception_4e/3x3
I0403 21:35:52.746966 23585 net.cpp:425] inception_4e/output <- inception_4e/5x5
I0403 21:35:52.746984 23585 net.cpp:425] inception_4e/output <- inception_4e/pool_proj
I0403 21:35:52.747004 23585 net.cpp:399] inception_4e/output -> inception_4e/output
I0403 21:35:52.747053 23585 net.cpp:141] Setting up inception_4e/output
I0403 21:35:52.747078 23585 net.cpp:148] Top shape: 24 832 14 14 (3913728)
I0403 21:35:52.747094 23585 net.cpp:156] Memory required for data: 1272557088
I0403 21:35:52.747110 23585 layer_factory.hpp:77] Creating layer pool4/3x3_s2
I0403 21:35:52.747128 23585 net.cpp:91] Creating Layer pool4/3x3_s2
I0403 21:35:52.747144 23585 net.cpp:425] pool4/3x3_s2 <- inception_4e/output
I0403 21:35:52.747162 23585 net.cpp:399] pool4/3x3_s2 -> pool4/3x3_s2
I0403 21:35:52.747234 23585 net.cpp:141] Setting up pool4/3x3_s2
I0403 21:35:52.747258 23585 net.cpp:148] Top shape: 24 832 7 7 (978432)
I0403 21:35:52.747274 23585 net.cpp:156] Memory required for data: 1276470816
I0403 21:35:52.747289 23585 layer_factory.hpp:77] Creating layer pool4/3x3_s2_pool4/3x3_s2_0_split
I0403 21:35:52.747306 23585 net.cpp:91] Creating Layer pool4/3x3_s2_pool4/3x3_s2_0_split
I0403 21:35:52.747323 23585 net.cpp:425] pool4/3x3_s2_pool4/3x3_s2_0_split <- pool4/3x3_s2
I0403 21:35:52.747344 23585 net.cpp:399] pool4/3x3_s2_pool4/3x3_s2_0_split -> pool4/3x3_s2_pool4/3x3_s2_0_split_0
I0403 21:35:52.747365 23585 net.cpp:399] pool4/3x3_s2_pool4/3x3_s2_0_split -> pool4/3x3_s2_pool4/3x3_s2_0_split_1
I0403 21:35:52.747386 23585 net.cpp:399] pool4/3x3_s2_pool4/3x3_s2_0_split -> pool4/3x3_s2_pool4/3x3_s2_0_split_2
I0403 21:35:52.747406 23585 net.cpp:399] pool4/3x3_s2_pool4/3x3_s2_0_split -> pool4/3x3_s2_pool4/3x3_s2_0_split_3
I0403 21:35:52.747500 23585 net.cpp:141] Setting up pool4/3x3_s2_pool4/3x3_s2_0_split
I0403 21:35:52.747524 23585 net.cpp:148] Top shape: 24 832 7 7 (978432)
I0403 21:35:52.747540 23585 net.cpp:148] Top shape: 24 832 7 7 (978432)
I0403 21:35:52.747556 23585 net.cpp:148] Top shape: 24 832 7 7 (978432)
I0403 21:35:52.747572 23585 net.cpp:148] Top shape: 24 832 7 7 (978432)
I0403 21:35:52.747586 23585 net.cpp:156] Memory required for data: 1292125728
I0403 21:35:52.747601 23585 layer_factory.hpp:77] Creating layer inception_5a/1x1
I0403 21:35:52.747623 23585 net.cpp:91] Creating Layer inception_5a/1x1
I0403 21:35:52.747642 23585 net.cpp:425] inception_5a/1x1 <- pool4/3x3_s2_pool4/3x3_s2_0_split_0
I0403 21:35:52.747663 23585 net.cpp:399] inception_5a/1x1 -> inception_5a/1x1
I0403 21:35:52.750573 23585 net.cpp:141] Setting up inception_5a/1x1
I0403 21:35:52.750600 23585 net.cpp:148] Top shape: 24 256 7 7 (301056)
I0403 21:35:52.750617 23585 net.cpp:156] Memory required for data: 1293329952
I0403 21:35:52.750636 23585 layer_factory.hpp:77] Creating layer inception_5a/relu_1x1
I0403 21:35:52.750658 23585 net.cpp:91] Creating Layer inception_5a/relu_1x1
I0403 21:35:52.750674 23585 net.cpp:425] inception_5a/relu_1x1 <- inception_5a/1x1
I0403 21:35:52.750692 23585 net.cpp:386] inception_5a/relu_1x1 -> inception_5a/1x1 (in-place)
I0403 21:35:52.750999 23585 net.cpp:141] Setting up inception_5a/relu_1x1
I0403 21:35:52.751025 23585 net.cpp:148] Top shape: 24 256 7 7 (301056)
I0403 21:35:52.751041 23585 net.cpp:156] Memory required for data: 1294534176
I0403 21:35:52.751056 23585 layer_factory.hpp:77] Creating layer inception_5a/3x3_reduce
I0403 21:35:52.751078 23585 net.cpp:91] Creating Layer inception_5a/3x3_reduce
I0403 21:35:52.751097 23585 net.cpp:425] inception_5a/3x3_reduce <- pool4/3x3_s2_pool4/3x3_s2_0_split_1
I0403 21:35:52.751119 23585 net.cpp:399] inception_5a/3x3_reduce -> inception_5a/3x3_reduce
I0403 21:35:52.753594 23585 net.cpp:141] Setting up inception_5a/3x3_reduce
I0403 21:35:52.753626 23585 net.cpp:148] Top shape: 24 160 7 7 (188160)
I0403 21:35:52.753644 23585 net.cpp:156] Memory required for data: 1295286816
I0403 21:35:52.753664 23585 layer_factory.hpp:77] Creating layer inception_5a/relu_3x3_reduce
I0403 21:35:52.753682 23585 net.cpp:91] Creating Layer inception_5a/relu_3x3_reduce
I0403 21:35:52.753700 23585 net.cpp:425] inception_5a/relu_3x3_reduce <- inception_5a/3x3_reduce
I0403 21:35:52.753720 23585 net.cpp:386] inception_5a/relu_3x3_reduce -> inception_5a/3x3_reduce (in-place)
I0403 21:35:52.753916 23585 net.cpp:141] Setting up inception_5a/relu_3x3_reduce
I0403 21:35:52.753943 23585 net.cpp:148] Top shape: 24 160 7 7 (188160)
I0403 21:35:52.753960 23585 net.cpp:156] Memory required for data: 1296039456
I0403 21:35:52.753976 23585 layer_factory.hpp:77] Creating layer inception_5a/3x3
I0403 21:35:52.753999 23585 net.cpp:91] Creating Layer inception_5a/3x3
I0403 21:35:52.754017 23585 net.cpp:425] inception_5a/3x3 <- inception_5a/3x3_reduce
I0403 21:35:52.754040 23585 net.cpp:399] inception_5a/3x3 -> inception_5a/3x3
I0403 21:35:52.759232 23585 net.cpp:141] Setting up inception_5a/3x3
I0403 21:35:52.759263 23585 net.cpp:148] Top shape: 24 320 7 7 (376320)
I0403 21:35:52.759280 23585 net.cpp:156] Memory required for data: 1297544736
I0403 21:35:52.759299 23585 layer_factory.hpp:77] Creating layer inception_5a/relu_3x3
I0403 21:35:52.759320 23585 net.cpp:91] Creating Layer inception_5a/relu_3x3
I0403 21:35:52.759337 23585 net.cpp:425] inception_5a/relu_3x3 <- inception_5a/3x3
I0403 21:35:52.759357 23585 net.cpp:386] inception_5a/relu_3x3 -> inception_5a/3x3 (in-place)
I0403 21:35:52.759662 23585 net.cpp:141] Setting up inception_5a/relu_3x3
I0403 21:35:52.759690 23585 net.cpp:148] Top shape: 24 320 7 7 (376320)
I0403 21:35:52.759706 23585 net.cpp:156] Memory required for data: 1299050016
I0403 21:35:52.759721 23585 layer_factory.hpp:77] Creating layer inception_5a/5x5_reduce
I0403 21:35:52.759744 23585 net.cpp:91] Creating Layer inception_5a/5x5_reduce
I0403 21:35:52.759764 23585 net.cpp:425] inception_5a/5x5_reduce <- pool4/3x3_s2_pool4/3x3_s2_0_split_2
I0403 21:35:52.759786 23585 net.cpp:399] inception_5a/5x5_reduce -> inception_5a/5x5_reduce
I0403 21:35:52.760985 23585 net.cpp:141] Setting up inception_5a/5x5_reduce
I0403 21:35:52.761018 23585 net.cpp:148] Top shape: 24 32 7 7 (37632)
I0403 21:35:52.761035 23585 net.cpp:156] Memory required for data: 1299200544
I0403 21:35:52.761055 23585 layer_factory.hpp:77] Creating layer inception_5a/relu_5x5_reduce
I0403 21:35:52.761075 23585 net.cpp:91] Creating Layer inception_5a/relu_5x5_reduce
I0403 21:35:52.761092 23585 net.cpp:425] inception_5a/relu_5x5_reduce <- inception_5a/5x5_reduce
I0403 21:35:52.761111 23585 net.cpp:386] inception_5a/relu_5x5_reduce -> inception_5a/5x5_reduce (in-place)
I0403 21:35:52.761416 23585 net.cpp:141] Setting up inception_5a/relu_5x5_reduce
I0403 21:35:52.761442 23585 net.cpp:148] Top shape: 24 32 7 7 (37632)
I0403 21:35:52.761459 23585 net.cpp:156] Memory required for data: 1299351072
I0403 21:35:52.761476 23585 layer_factory.hpp:77] Creating layer inception_5a/5x5
I0403 21:35:52.761498 23585 net.cpp:91] Creating Layer inception_5a/5x5
I0403 21:35:52.761517 23585 net.cpp:425] inception_5a/5x5 <- inception_5a/5x5_reduce
I0403 21:35:52.761538 23585 net.cpp:399] inception_5a/5x5 -> inception_5a/5x5
I0403 21:35:52.763329 23585 net.cpp:141] Setting up inception_5a/5x5
I0403 21:35:52.763368 23585 net.cpp:148] Top shape: 24 128 7 7 (150528)
I0403 21:35:52.763386 23585 net.cpp:156] Memory required for data: 1299953184
I0403 21:35:52.763404 23585 layer_factory.hpp:77] Creating layer inception_5a/relu_5x5
I0403 21:35:52.763423 23585 net.cpp:91] Creating Layer inception_5a/relu_5x5
I0403 21:35:52.763440 23585 net.cpp:425] inception_5a/relu_5x5 <- inception_5a/5x5
I0403 21:35:52.763460 23585 net.cpp:386] inception_5a/relu_5x5 -> inception_5a/5x5 (in-place)
I0403 21:35:52.763656 23585 net.cpp:141] Setting up inception_5a/relu_5x5
I0403 21:35:52.763684 23585 net.cpp:148] Top shape: 24 128 7 7 (150528)
I0403 21:35:52.763698 23585 net.cpp:156] Memory required for data: 1300555296
I0403 21:35:52.763715 23585 layer_factory.hpp:77] Creating layer inception_5a/pool
I0403 21:35:52.763737 23585 net.cpp:91] Creating Layer inception_5a/pool
I0403 21:35:52.763756 23585 net.cpp:425] inception_5a/pool <- pool4/3x3_s2_pool4/3x3_s2_0_split_3
I0403 21:35:52.763775 23585 net.cpp:399] inception_5a/pool -> inception_5a/pool
I0403 21:35:52.763849 23585 net.cpp:141] Setting up inception_5a/pool
I0403 21:35:52.763875 23585 net.cpp:148] Top shape: 24 832 7 7 (978432)
I0403 21:35:52.763890 23585 net.cpp:156] Memory required for data: 1304469024
I0403 21:35:52.763906 23585 layer_factory.hpp:77] Creating layer inception_5a/pool_proj
I0403 21:35:52.763927 23585 net.cpp:91] Creating Layer inception_5a/pool_proj
I0403 21:35:52.763947 23585 net.cpp:425] inception_5a/pool_proj <- inception_5a/pool
I0403 21:35:52.763969 23585 net.cpp:399] inception_5a/pool_proj -> inception_5a/pool_proj
I0403 21:35:52.766321 23585 net.cpp:141] Setting up inception_5a/pool_proj
I0403 21:35:52.766355 23585 net.cpp:148] Top shape: 24 128 7 7 (150528)
I0403 21:35:52.766373 23585 net.cpp:156] Memory required for data: 1305071136
I0403 21:35:52.766393 23585 layer_factory.hpp:77] Creating layer inception_5a/relu_pool_proj
I0403 21:35:52.766413 23585 net.cpp:91] Creating Layer inception_5a/relu_pool_proj
I0403 21:35:52.766432 23585 net.cpp:425] inception_5a/relu_pool_proj <- inception_5a/pool_proj
I0403 21:35:52.766453 23585 net.cpp:386] inception_5a/relu_pool_proj -> inception_5a/pool_proj (in-place)
I0403 21:35:52.766765 23585 net.cpp:141] Setting up inception_5a/relu_pool_proj
I0403 21:35:52.766794 23585 net.cpp:148] Top shape: 24 128 7 7 (150528)
I0403 21:35:52.766811 23585 net.cpp:156] Memory required for data: 1305673248
I0403 21:35:52.766827 23585 layer_factory.hpp:77] Creating layer inception_5a/output
I0403 21:35:52.766846 23585 net.cpp:91] Creating Layer inception_5a/output
I0403 21:35:52.766863 23585 net.cpp:425] inception_5a/output <- inception_5a/1x1
I0403 21:35:52.766881 23585 net.cpp:425] inception_5a/output <- inception_5a/3x3
I0403 21:35:52.766897 23585 net.cpp:425] inception_5a/output <- inception_5a/5x5
I0403 21:35:52.766914 23585 net.cpp:425] inception_5a/output <- inception_5a/pool_proj
I0403 21:35:52.766934 23585 net.cpp:399] inception_5a/output -> inception_5a/output
I0403 21:35:52.766986 23585 net.cpp:141] Setting up inception_5a/output
I0403 21:35:52.767011 23585 net.cpp:148] Top shape: 24 832 7 7 (978432)
I0403 21:35:52.767026 23585 net.cpp:156] Memory required for data: 1309586976
I0403 21:35:52.767042 23585 layer_factory.hpp:77] Creating layer inception_5a/output_inception_5a/output_0_split
I0403 21:35:52.767061 23585 net.cpp:91] Creating Layer inception_5a/output_inception_5a/output_0_split
I0403 21:35:52.767081 23585 net.cpp:425] inception_5a/output_inception_5a/output_0_split <- inception_5a/output
I0403 21:35:52.767099 23585 net.cpp:399] inception_5a/output_inception_5a/output_0_split -> inception_5a/output_inception_5a/output_0_split_0
I0403 21:35:52.767124 23585 net.cpp:399] inception_5a/output_inception_5a/output_0_split -> inception_5a/output_inception_5a/output_0_split_1
I0403 21:35:52.767148 23585 net.cpp:399] inception_5a/output_inception_5a/output_0_split -> inception_5a/output_inception_5a/output_0_split_2
I0403 21:35:52.767171 23585 net.cpp:399] inception_5a/output_inception_5a/output_0_split -> inception_5a/output_inception_5a/output_0_split_3
I0403 21:35:52.767290 23585 net.cpp:141] Setting up inception_5a/output_inception_5a/output_0_split
I0403 21:35:52.767315 23585 net.cpp:148] Top shape: 24 832 7 7 (978432)
I0403 21:35:52.767333 23585 net.cpp:148] Top shape: 24 832 7 7 (978432)
I0403 21:35:52.767350 23585 net.cpp:148] Top shape: 24 832 7 7 (978432)
I0403 21:35:52.767367 23585 net.cpp:148] Top shape: 24 832 7 7 (978432)
I0403 21:35:52.767382 23585 net.cpp:156] Memory required for data: 1325241888
I0403 21:35:52.767397 23585 layer_factory.hpp:77] Creating layer inception_5b/1x1
I0403 21:35:52.767424 23585 net.cpp:91] Creating Layer inception_5b/1x1
I0403 21:35:52.767443 23585 net.cpp:425] inception_5b/1x1 <- inception_5a/output_inception_5a/output_0_split_0
I0403 21:35:52.767467 23585 net.cpp:399] inception_5b/1x1 -> inception_5b/1x1
I0403 21:35:52.771317 23585 net.cpp:141] Setting up inception_5b/1x1
I0403 21:35:52.771348 23585 net.cpp:148] Top shape: 24 384 7 7 (451584)
I0403 21:35:52.771366 23585 net.cpp:156] Memory required for data: 1327048224
I0403 21:35:52.771386 23585 layer_factory.hpp:77] Creating layer inception_5b/relu_1x1
I0403 21:35:52.771405 23585 net.cpp:91] Creating Layer inception_5b/relu_1x1
I0403 21:35:52.771422 23585 net.cpp:425] inception_5b/relu_1x1 <- inception_5b/1x1
I0403 21:35:52.771443 23585 net.cpp:386] inception_5b/relu_1x1 -> inception_5b/1x1 (in-place)
I0403 21:35:52.771744 23585 net.cpp:141] Setting up inception_5b/relu_1x1
I0403 21:35:52.771771 23585 net.cpp:148] Top shape: 24 384 7 7 (451584)
I0403 21:35:52.771788 23585 net.cpp:156] Memory required for data: 1328854560
I0403 21:35:52.771805 23585 layer_factory.hpp:77] Creating layer inception_5b/3x3_reduce
I0403 21:35:52.771827 23585 net.cpp:91] Creating Layer inception_5b/3x3_reduce
I0403 21:35:52.771845 23585 net.cpp:425] inception_5b/3x3_reduce <- inception_5a/output_inception_5a/output_0_split_1
I0403 21:35:52.771865 23585 net.cpp:399] inception_5b/3x3_reduce -> inception_5b/3x3_reduce
I0403 21:35:52.774570 23585 net.cpp:141] Setting up inception_5b/3x3_reduce
I0403 21:35:52.774602 23585 net.cpp:148] Top shape: 24 192 7 7 (225792)
I0403 21:35:52.774621 23585 net.cpp:156] Memory required for data: 1329757728
I0403 21:35:52.774639 23585 layer_factory.hpp:77] Creating layer inception_5b/relu_3x3_reduce
I0403 21:35:52.774658 23585 net.cpp:91] Creating Layer inception_5b/relu_3x3_reduce
I0403 21:35:52.774677 23585 net.cpp:425] inception_5b/relu_3x3_reduce <- inception_5b/3x3_reduce
I0403 21:35:52.774696 23585 net.cpp:386] inception_5b/relu_3x3_reduce -> inception_5b/3x3_reduce (in-place)
I0403 21:35:52.774888 23585 net.cpp:141] Setting up inception_5b/relu_3x3_reduce
I0403 21:35:52.774914 23585 net.cpp:148] Top shape: 24 192 7 7 (225792)
I0403 21:35:52.774929 23585 net.cpp:156] Memory required for data: 1330660896
I0403 21:35:52.774943 23585 layer_factory.hpp:77] Creating layer inception_5b/3x3
I0403 21:35:52.774967 23585 net.cpp:91] Creating Layer inception_5b/3x3
I0403 21:35:52.774986 23585 net.cpp:425] inception_5b/3x3 <- inception_5b/3x3_reduce
I0403 21:35:52.775008 23585 net.cpp:399] inception_5b/3x3 -> inception_5b/3x3
I0403 21:35:52.781675 23585 net.cpp:141] Setting up inception_5b/3x3
I0403 21:35:52.781707 23585 net.cpp:148] Top shape: 24 384 7 7 (451584)
I0403 21:35:52.781723 23585 net.cpp:156] Memory required for data: 1332467232
I0403 21:35:52.781744 23585 layer_factory.hpp:77] Creating layer inception_5b/relu_3x3
I0403 21:35:52.781761 23585 net.cpp:91] Creating Layer inception_5b/relu_3x3
I0403 21:35:52.781779 23585 net.cpp:425] inception_5b/relu_3x3 <- inception_5b/3x3
I0403 21:35:52.781798 23585 net.cpp:386] inception_5b/relu_3x3 -> inception_5b/3x3 (in-place)
I0403 21:35:52.782093 23585 net.cpp:141] Setting up inception_5b/relu_3x3
I0403 21:35:52.782120 23585 net.cpp:148] Top shape: 24 384 7 7 (451584)
I0403 21:35:52.782137 23585 net.cpp:156] Memory required for data: 1334273568
I0403 21:35:52.782153 23585 layer_factory.hpp:77] Creating layer inception_5b/5x5_reduce
I0403 21:35:52.782203 23585 net.cpp:91] Creating Layer inception_5b/5x5_reduce
I0403 21:35:52.782223 23585 net.cpp:425] inception_5b/5x5_reduce <- inception_5a/output_inception_5a/output_0_split_2
I0403 21:35:52.782253 23585 net.cpp:399] inception_5b/5x5_reduce -> inception_5b/5x5_reduce
I0403 21:35:52.783565 23585 net.cpp:141] Setting up inception_5b/5x5_reduce
I0403 21:35:52.783592 23585 net.cpp:148] Top shape: 24 48 7 7 (56448)
I0403 21:35:52.783609 23585 net.cpp:156] Memory required for data: 1334499360
I0403 21:35:52.783627 23585 layer_factory.hpp:77] Creating layer inception_5b/relu_5x5_reduce
I0403 21:35:52.783644 23585 net.cpp:91] Creating Layer inception_5b/relu_5x5_reduce
I0403 21:35:52.783661 23585 net.cpp:425] inception_5b/relu_5x5_reduce <- inception_5b/5x5_reduce
I0403 21:35:52.783680 23585 net.cpp:386] inception_5b/relu_5x5_reduce -> inception_5b/5x5_reduce (in-place)
I0403 21:35:52.784050 23585 net.cpp:141] Setting up inception_5b/relu_5x5_reduce
I0403 21:35:52.784078 23585 net.cpp:148] Top shape: 24 48 7 7 (56448)
I0403 21:35:52.784093 23585 net.cpp:156] Memory required for data: 1334725152
I0403 21:35:52.784109 23585 layer_factory.hpp:77] Creating layer inception_5b/5x5
I0403 21:35:52.784129 23585 net.cpp:91] Creating Layer inception_5b/5x5
I0403 21:35:52.784147 23585 net.cpp:425] inception_5b/5x5 <- inception_5b/5x5_reduce
I0403 21:35:52.784165 23585 net.cpp:399] inception_5b/5x5 -> inception_5b/5x5
I0403 21:35:52.786200 23585 net.cpp:141] Setting up inception_5b/5x5
I0403 21:35:52.786231 23585 net.cpp:148] Top shape: 24 128 7 7 (150528)
I0403 21:35:52.786250 23585 net.cpp:156] Memory required for data: 1335327264
I0403 21:35:52.786270 23585 layer_factory.hpp:77] Creating layer inception_5b/relu_5x5
I0403 21:35:52.786291 23585 net.cpp:91] Creating Layer inception_5b/relu_5x5
I0403 21:35:52.786311 23585 net.cpp:425] inception_5b/relu_5x5 <- inception_5b/5x5
I0403 21:35:52.786329 23585 net.cpp:386] inception_5b/relu_5x5 -> inception_5b/5x5 (in-place)
I0403 21:35:52.786535 23585 net.cpp:141] Setting up inception_5b/relu_5x5
I0403 21:35:52.786561 23585 net.cpp:148] Top shape: 24 128 7 7 (150528)
I0403 21:35:52.786576 23585 net.cpp:156] Memory required for data: 1335929376
I0403 21:35:52.786592 23585 layer_factory.hpp:77] Creating layer inception_5b/pool
I0403 21:35:52.786613 23585 net.cpp:91] Creating Layer inception_5b/pool
I0403 21:35:52.786633 23585 net.cpp:425] inception_5b/pool <- inception_5a/output_inception_5a/output_0_split_3
I0403 21:35:52.786653 23585 net.cpp:399] inception_5b/pool -> inception_5b/pool
I0403 21:35:52.786726 23585 net.cpp:141] Setting up inception_5b/pool
I0403 21:35:52.786751 23585 net.cpp:148] Top shape: 24 832 7 7 (978432)
I0403 21:35:52.786767 23585 net.cpp:156] Memory required for data: 1339843104
I0403 21:35:52.786782 23585 layer_factory.hpp:77] Creating layer inception_5b/pool_proj
I0403 21:35:52.786804 23585 net.cpp:91] Creating Layer inception_5b/pool_proj
I0403 21:35:52.786823 23585 net.cpp:425] inception_5b/pool_proj <- inception_5b/pool
I0403 21:35:52.786844 23585 net.cpp:399] inception_5b/pool_proj -> inception_5b/pool_proj
I0403 21:35:52.789135 23585 net.cpp:141] Setting up inception_5b/pool_proj
I0403 21:35:52.789165 23585 net.cpp:148] Top shape: 24 128 7 7 (150528)
I0403 21:35:52.789180 23585 net.cpp:156] Memory required for data: 1340445216
I0403 21:35:52.789201 23585 layer_factory.hpp:77] Creating layer inception_5b/relu_pool_proj
I0403 21:35:52.789219 23585 net.cpp:91] Creating Layer inception_5b/relu_pool_proj
I0403 21:35:52.789243 23585 net.cpp:425] inception_5b/relu_pool_proj <- inception_5b/pool_proj
I0403 21:35:52.789264 23585 net.cpp:386] inception_5b/relu_pool_proj -> inception_5b/pool_proj (in-place)
I0403 21:35:52.789561 23585 net.cpp:141] Setting up inception_5b/relu_pool_proj
I0403 21:35:52.789588 23585 net.cpp:148] Top shape: 24 128 7 7 (150528)
I0403 21:35:52.789604 23585 net.cpp:156] Memory required for data: 1341047328
I0403 21:35:52.789620 23585 layer_factory.hpp:77] Creating layer inception_5b/output
I0403 21:35:52.789638 23585 net.cpp:91] Creating Layer inception_5b/output
I0403 21:35:52.789670 23585 net.cpp:425] inception_5b/output <- inception_5b/1x1
I0403 21:35:52.789688 23585 net.cpp:425] inception_5b/output <- inception_5b/3x3
I0403 21:35:52.789705 23585 net.cpp:425] inception_5b/output <- inception_5b/5x5
I0403 21:35:52.789721 23585 net.cpp:425] inception_5b/output <- inception_5b/pool_proj
I0403 21:35:52.789742 23585 net.cpp:399] inception_5b/output -> inception_5b/output
I0403 21:35:52.789795 23585 net.cpp:141] Setting up inception_5b/output
I0403 21:35:52.789821 23585 net.cpp:148] Top shape: 24 1024 7 7 (1204224)
I0403 21:35:52.789839 23585 net.cpp:156] Memory required for data: 1345864224
I0403 21:35:52.789854 23585 layer_factory.hpp:77] Creating layer pool5/7x7_s1
I0403 21:35:52.789871 23585 net.cpp:91] Creating Layer pool5/7x7_s1
I0403 21:35:52.789888 23585 net.cpp:425] pool5/7x7_s1 <- inception_5b/output
I0403 21:35:52.789907 23585 net.cpp:399] pool5/7x7_s1 -> pool5/7x7_s1
I0403 21:35:52.790124 23585 net.cpp:141] Setting up pool5/7x7_s1
I0403 21:35:52.790150 23585 net.cpp:148] Top shape: 24 1024 1 1 (24576)
I0403 21:35:52.790166 23585 net.cpp:156] Memory required for data: 1345962528
I0403 21:35:52.790194 23585 layer_factory.hpp:77] Creating layer pool5/drop_7x7_s1
I0403 21:35:52.790212 23585 net.cpp:91] Creating Layer pool5/drop_7x7_s1
I0403 21:35:52.790235 23585 net.cpp:425] pool5/drop_7x7_s1 <- pool5/7x7_s1
I0403 21:35:52.790257 23585 net.cpp:386] pool5/drop_7x7_s1 -> pool5/7x7_s1 (in-place)
I0403 21:35:52.790310 23585 net.cpp:141] Setting up pool5/drop_7x7_s1
I0403 21:35:52.790336 23585 net.cpp:148] Top shape: 24 1024 1 1 (24576)
I0403 21:35:52.790354 23585 net.cpp:156] Memory required for data: 1346060832
I0403 21:35:52.790369 23585 layer_factory.hpp:77] Creating layer loss3/classifier_plantvillage
I0403 21:35:52.790390 23585 net.cpp:91] Creating Layer loss3/classifier_plantvillage
I0403 21:35:52.790407 23585 net.cpp:425] loss3/classifier_plantvillage <- pool5/7x7_s1
I0403 21:35:52.790429 23585 net.cpp:399] loss3/classifier_plantvillage -> loss3/classifier_plantvillage
I0403 21:35:52.790863 23585 net.cpp:141] Setting up loss3/classifier_plantvillage
I0403 21:35:52.790887 23585 net.cpp:148] Top shape: 24 38 (912)
I0403 21:35:52.790902 23585 net.cpp:156] Memory required for data: 1346064480
I0403 21:35:52.790921 23585 layer_factory.hpp:77] Creating layer loss3/classifier_plantvillage_loss3/classifier_plantvillage_0_split
I0403 21:35:52.790942 23585 net.cpp:91] Creating Layer loss3/classifier_plantvillage_loss3/classifier_plantvillage_0_split
I0403 21:35:52.790962 23585 net.cpp:425] loss3/classifier_plantvillage_loss3/classifier_plantvillage_0_split <- loss3/classifier_plantvillage
I0403 21:35:52.790980 23585 net.cpp:399] loss3/classifier_plantvillage_loss3/classifier_plantvillage_0_split -> loss3/classifier_plantvillage_loss3/classifier_plantvillage_0_split_0
I0403 21:35:52.791004 23585 net.cpp:399] loss3/classifier_plantvillage_loss3/classifier_plantvillage_0_split -> loss3/classifier_plantvillage_loss3/classifier_plantvillage_0_split_1
I0403 21:35:52.791025 23585 net.cpp:399] loss3/classifier_plantvillage_loss3/classifier_plantvillage_0_split -> loss3/classifier_plantvillage_loss3/classifier_plantvillage_0_split_2
I0403 21:35:52.791048 23585 net.cpp:399] loss3/classifier_plantvillage_loss3/classifier_plantvillage_0_split -> loss3/classifier_plantvillage_loss3/classifier_plantvillage_0_split_3
I0403 21:35:52.791149 23585 net.cpp:141] Setting up loss3/classifier_plantvillage_loss3/classifier_plantvillage_0_split
I0403 21:35:52.791173 23585 net.cpp:148] Top shape: 24 38 (912)
I0403 21:35:52.791189 23585 net.cpp:148] Top shape: 24 38 (912)
I0403 21:35:52.791205 23585 net.cpp:148] Top shape: 24 38 (912)
I0403 21:35:52.791220 23585 net.cpp:148] Top shape: 24 38 (912)
I0403 21:35:52.791239 23585 net.cpp:156] Memory required for data: 1346079072
I0403 21:35:52.791256 23585 layer_factory.hpp:77] Creating layer loss1/loss
I0403 21:35:52.791302 23585 net.cpp:91] Creating Layer loss1/loss
I0403 21:35:52.791322 23585 net.cpp:425] loss1/loss <- loss1/classifier_plantvillage_loss1/classifier_plantvillage_0_split_0
I0403 21:35:52.791353 23585 net.cpp:425] loss1/loss <- label_data_1_split_0
…
