…
I0403 21:37:17.678544 23651 net.cpp:313] The NetState phase (1) differed from the phase (0) specified by a rule in layer data
I0403 21:37:17.679643 23651 net.cpp:49] Initializing net from parameters: 
state {
  phase: TEST
}
layer {
  name: "data"
  type: "Data"
  top: "data"
  top: "label"
  include {
    phase: TEST
  }
  transform_param {
    mirror: false
    crop_size: 224
    mean_file: "/home/mohanty/data/final_dataset/lmdb/segmented-80-20/mean.binaryproto"
  }
  data_param {
    source: "/home/mohanty/data/final_dataset/lmdb/segmented-80-20/test_db"
    batch_size: 24
    backend: LMDB
  }
}
layer {
  name: "conv1/7x7_s2"
  type: "Convolution"
  bottom: "data"
  top: "conv1/7x7_s2"
  param {
    lr_mult: 1
    decay_mult: 1
  }
  param {
    lr_mult: 2
    decay_mult: 0
  }
  convolution_param {
    num_output: 64
    pad: 3
    kernel_size: 7
    stride: 2
    weight_filler {
      type: "xavier"
      std: 0.1
    }
    bias_filler {
      type: "constant"
      value: 0.2
    }
  }
}
layer {
  name: "conv1/relu_7x7"
  type: "ReLU"
  bottom: "conv1/7x7_s2"
  top: "conv1/7x7_s2"
}
layer {
  name: "pool1/3x3_s2"
  type: "Pooling"
  bottom: "conv1/7x7_s2"
  top: "pool1/3x3_s2"
  pooling_param {
    pool: MAX
    kernel_size: 3
    stride: 2
  }
}
layer {
  name: "pool1/norm1"
  type: "LRN"
  bottom: "pool1/3x3_s2"
  top: "pool1/norm1"
  lrn_param {
    local_size: 5
    alpha: 0.0001
    beta: 0.75
  }
}
layer {
  name: "conv2/3x3_reduce"
  type: "Convolution"
  bottom: "pool1/norm1"
  top: "conv2/3x3_reduce"
  param {
    lr_mult: 1
    decay_mult: 1
  }
  param {
    lr_mult: 2
    decay_mult: 0
  }
  convolution_param {
    num_output: 64
    kernel_size: 1
    weight_filler {
      type: "xavier"
      std: 0.1
    }
    bias_filler {
      type: "constant"
      value: 0.2
    }
  }
}
layer {
  name: "conv2/relu_3x3_reduce"
  type: "ReLU"
  bottom: "conv2/3x3_reduce"
  top: "conv2/3x3_reduce"
}
layer {
  name: "conv2/3x3"
  type: "Convolution"
  bottom: "conv2/3x3_reduce"
  top: "conv2/3x3"
  param {
    lr_mult: 1
    decay_mult: 1
  }
  param {
    lr_mult: 2
    decay_mult: 0
  }
  convolution_param {
    num_output: 192
    pad: 1
    kernel_size: 3
    weight_filler {
      type: "xavier"
      std: 0.03
    }
    bias_filler {
      type: "constant"
      value: 0.2
    }
  }
}
layer {
  name: "conv2/relu_3x3"
  type: "ReLU"
  bottom: "conv2/3x3"
  top: "conv2/3x3"
}
layer {
  name: "conv2/norm2"
  type: "LRN"
  bottom: "conv2/3x3"
  top: "conv2/norm2"
  lrn_param {
    local_size: 5
    alpha: 0.0001
    beta: 0.75
  }
}
layer {
  name: "pool2/3x3_s2"
  type: "Pooling"
  bottom: "conv2/norm2"
  top: "pool2/3x3_s2"
  pooling_param {
    pool: MAX
    kernel_size: 3
    stride: 2
  }
}
layer {
  name: "inception_3a/1x1"
  type: "Convolution"
  bottom: "pool2/3x3_s2"
  top: "inception_3a/1x1"
  param {
    lr_mult: 1
    decay_mult: 1
  }
  param {
    lr_mult: 2
    decay_mult: 0
  }
  convolution_param {
    num_output: 64
    kernel_size: 1
    weight_filler {
      type: "xavier"
      std: 0.03
    }
    bias_filler {
      type: "constant"
      value: 0.2
    }
  }
}
layer {
  name: "inception_3a/relu_1x1"
  type: "ReLU"
  bottom: "inception_3a/1x1"
  top: "inception_3a/1x1"
}
layer {
  name: "inception_3a/3x3_reduce"
  type: "Convolution"
  bottom: "pool2/3x3_s2"
  top: "inception_3a/3x3_reduce"
  param {
    lr_mult: 1
    decay_mult: 1
  }
  param {
    lr_mult: 2
    decay_mult: 0
  }
  convolution_param {
    num_output: 96
    kernel_size: 1
    weight_filler {
      type: "xavier"
      std: 0.09
    }
    bias_filler {
      type: "constant"
      value: 0.2
    }
  }
}
layer {
  name: "inception_3a/relu_3x3_reduce"
  type: "ReLU"
  bottom: "inception_3a/3x3_reduce"
  top: "inception_3a/3x3_reduce"
}
layer {
  name: "inception_3a/3x3"
  type: "Convolution"
  bottom: "inception_3a/3x3_reduce"
  top: "inception_3a/3x3"
  param {
    lr_mult: 1
    decay_mult: 1
  }
  param {
    lr_mult: 2
    decay_mult: 0
  }
  convolution_param {
    num_output: 128
    pad: 1
    kernel_size: 3
    weight_filler {
      type: "xavier"
      std: 0.03
    }
    bias_filler {
      type: "constant"
      value: 0.2
    }
  }
}
layer {
  name: "inception_3a/relu_3x3"
  type: "ReLU"
  bottom: "inception_3a/3x3"
  top: "inception_3a/3x3"
}
layer {
  name: "inception_3a/5x5_reduce"
  type: "Convolution"
  bottom: "pool2/3x3_s2"
  top: "inception_3a/5x5_reduce"
  param {
    lr_mult: 1
    decay_mult: 1
  }
  param {
    lr_mult: 2
    decay_mult: 0
  }
  convolution_param {
    num_output: 16
    kernel_size: 1
    weight_filler {
      type: "xavier"
      std: 0.2
    }
    bias_filler {
      type: "constant"
      value: 0.2
    }
  }
}
layer {
  name: "inception_3a/relu_5x5_reduce"
  type: "ReLU"
  bottom: "inception_3a/5x5_reduce"
  top: "inception_3a/5x5_reduce"
}
layer {
  name: "inception_3a/5x5"
  type: "Convolution"
  bottom: "inception_3a/5x5_reduce"
  top: "inception_3a/5x5"
  param {
    lr_mult: 1
    decay_mult: 1
  }
  param {
    lr_mult: 2
    decay_mult: 0
  }
  convolution_param {
    num_output: 32
    pad: 2
    kernel_size: 5
    weight_filler {
      type: "xavier"
      std: 0.03
    }
    bias_filler {
      type: "constant"
      value: 0.2
    }
  }
}
layer {
  name: "inception_3a/relu_5x5"
  type: "ReLU"
  bottom: "inception_3a/5x5"
  top: "inception_3a/5x5"
}
layer {
  name: "inception_3a/pool"
  type: "Pooling"
  bottom: "pool2/3x3_s2"
  top: "inception_3a/pool"
  pooling_param {
    pool: MAX
    kernel_size: 3
    stride: 1
    pad: 1
  }
}
layer {
  name: "inception_3a/pool_proj"
  type: "Convolution"
  bottom: "inception_3a/pool"
  top: "inception_3a/pool_proj"
  param {
    lr_mult: 1
    decay_mult: 1
  }
  param {
    lr_mult: 2
    decay_mult: 0
  }
  convolution_param {
    num_output: 32
    kernel_size: 1
    weight_filler {
      type: "xavier"
      std: 0.1
    }
    bias_filler {
      type: "constant"
      value: 0.2
    }
  }
}
layer {
  name: "inception_3a/relu_pool_proj"
  type: "ReLU"
  bottom: "inception_3a/pool_proj"
  top: "inception_3a/pool_proj"
}
layer {
  name: "inception_3a/output"
  type: "Concat"
  bottom: "inception_3a/1x1"
  bottom: "inception_3a/3x3"
  bottom: "inception_3a/5x5"
  bottom: "inception_3a/pool_proj"
  top: "inception_3a/output"
}
layer {
  name: "inception_3b/1x1"
  type: "Convolution"
  bottom: "inception_3a/output"
  top: "inception_3b/1x1"
  param {
    lr_mult: 1
    decay_mult: 1
  }
  param {
    lr_mult: 2
    decay_mult: 0
  }
  convolution_param {
    num_output: 128
    kernel_size: 1
    weight_filler {
      type: "xavier"
      std: 0.03
    }
    bias_filler {
      type: "constant"
      value: 0.2
    }
  }
}
layer {
  name: "inception_3b/relu_1x1"
  type: "ReLU"
  bottom: "inception_3b/1x1"
  top: "inception_3b/1x1"
}
layer {
  name: "inception_3b/3x3_reduce"
  type: "Convolution"
  bottom: "inception_3a/output"
  top: "inception_3b/3x3_reduce"
  param {
    lr_mult: 1
    decay_mult: 1
  }
  param {
    lr_mult: 2
    decay_mult: 0
  }
  convolution_param {
    num_output: 128
    kernel_size: 1
    weight_filler {
      type: "xavier"
      std: 0.09
    }
    bias_filler {
      type: "constant"
      value: 0.2
    }
  }
}
layer {
  name: "inception_3b/relu_3x3_reduce"
  type: "ReLU"
  bottom: "inception_3b/3x3_reduce"
  top: "inception_3b/3x3_reduce"
}
layer {
  name: "inception_3b/3x3"
  type: "Convolution"
  bottom: "inception_3b/3x3_reduce"
  top: "inception_3b/3x3"
  param {
    lr_mult: 1
    decay_mult: 1
  }
  param {
    lr_mult: 2
    decay_mult: 0
  }
  convolution_param {
    num_output: 192
    pad: 1
    kernel_size: 3
    weight_filler {
      type: "xavier"
      std: 0.03
    }
    bias_filler {
      type: "constant"
      value: 0.2
    }
  }
}
layer {
  name: "inception_3b/relu_3x3"
  type: "ReLU"
  bottom: "inception_3b/3x3"
  top: "inception_3b/3x3"
}
layer {
  name: "inception_3b/5x5_reduce"
  type: "Convolution"
  bottom: "inception_3a/output"
  top: "inception_3b/5x5_reduce"
  param {
    lr_mult: 1
    decay_mult: 1
  }
  param {
    lr_mult: 2
    decay_mult: 0
  }
  convolution_param {
    num_output: 32
    kernel_size: 1
    weight_filler {
      type: "xavier"
      std: 0.2
    }
    bias_filler {
      type: "constant"
      value: 0.2
    }
  }
}
layer {
  name: "inception_3b/relu_5x5_reduce"
  type: "ReLU"
  bottom: "inception_3b/5x5_reduce"
  top: "inception_3b/5x5_reduce"
}
layer {
  name: "inception_3b/5x5"
  type: "Convolution"
  bottom: "inception_3b/5x5_reduce"
  top: "inception_3b/5x5"
  param {
    lr_mult: 1
    decay_mult: 1
  }
  param {
    lr_mult: 2
    decay_mult: 0
  }
  convolution_param {
    num_output: 96
    pad: 2
    kernel_size: 5
    weight_filler {
      type: "xavier"
      std: 0.03
    }
    bias_filler {
      type: "constant"
      value: 0.2
    }
  }
}
layer {
  name: "inception_3b/relu_5x5"
  type: "ReLU"
  bottom: "inception_3b/5x5"
  top: "inception_3b/5x5"
}
layer {
  name: "inception_3b/pool"
  type: "Pooling"
  bottom: "inception_3a/output"
  top: "inception_3b/pool"
  pooling_param {
    pool: MAX
    kernel_size: 3
    stride: 1
    pad: 1
  }
}
layer {
  name: "inception_3b/pool_proj"
  type: "Convolution"
  bottom: "inception_3b/pool"
  top: "inception_3b/pool_proj"
  param {
    lr_mult: 1
    decay_mult: 1
  }
  param {
    lr_mult: 2
    decay_mult: 0
  }
  convolution_param {
    num_output: 64
    kernel_size: 1
    weight_filler {
      type: "xavier"
      std: 0.1
    }
    bias_filler {
      type: "constant"
      value: 0.2
    }
  }
}
layer {
  name: "inception_3b/relu_pool_proj"
  type: "ReLU"
  bottom: "inception_3b/pool_proj"
  top: "inception_3b/pool_proj"
}
layer {
  name: "inception_3b/output"
  type: "Concat"
  bottom: "inception_3b/1x1"
  bottom: "inception_3b/3x3"
  bottom: "inception_3b/5x5"
  bottom: "inception_3b/pool_proj"
  top: "inception_3b/output"
}
layer {
  name: "pool3/3x3_s2"
  type: "Pooling"
  bottom: "inception_3b/output"
  top: "pool3/3x3_s2"
  pooling_param {
    pool: MAX
    kernel_size: 3
    stride: 2
  }
}
layer {
  name: "inception_4a/1x1"
  type: "Convolution"
  bottom: "pool3/3x3_s2"
  top: "inception_4a/1x1"
  param {
    lr_mult: 1
    decay_mult: 1
  }
  param {
    lr_mult: 2
    decay_mult: 0
  }
  convolution_param {
    num_output: 192
    kernel_size: 1
    weight_filler {
      type: "xavier"
      std: 0.03
    }
    bias_filler {
      type: "constant"
      value: 0.2
    }
  }
}
layer {
  name: "inception_4a/relu_1x1"
  type: "ReLU"
  bottom: "inception_4a/1x1"
  top: "inception_4a/1x1"
}
layer {
  name: "inception_4a/3x3_reduce"
  type: "Convolution"
  bottom: "pool3/3x3_s2"
  top: "inception_4a/3x3_reduce"
  param {
    lr_mult: 1
    decay_mult: 1
  }
  param {
    lr_mult: 2
    decay_mult: 0
  }
  convolution_param {
    num_output: 96
    kernel_size: 1
    weight_filler {
      type: "xavier"
      std: 0.09
    }
    bias_filler {
      type: "constant"
      value: 0.2
    }
  }
}
layer {
  name: "inception_4a/relu_3x3_reduce"
  type: "ReLU"
  bottom: "inception_4a/3x3_reduce"
  top: "inception_4a/3x3_reduce"
}
layer {
  name: "inception_4a/3x3"
  type: "Convolution"
  bottom: "inception_4a/3x3_reduce"
  top: "inception_4a/3x3"
  param {
    lr_mult: 1
    decay_mult: 1
  }
  param {
    lr_mult: 2
    decay_mult: 0
  }
  convolution_param {
    num_output: 208
    pad: 1
    kernel_size: 3
    weight_filler {
      type: "xavier"
      std: 0.03
    }
    bias_filler {
      type: "constant"
      value: 0.2
    }
  }
}
layer {
  name: "inception_4a/relu_3x3"
  type: "ReLU"
  bottom: "inception_4a/3x3"
  top: "inception_4a/3x3"
}
layer {
  name: "inception_4a/5x5_reduce"
  type: "Convolution"
  bottom: "pool3/3x3_s2"
  top: "inception_4a/5x5_reduce"
  param {
    lr_mult: 1
    decay_mult: 1
  }
  param {
    lr_mult: 2
    decay_mult: 0
  }
  convolution_param {
    num_output: 16
    kernel_size: 1
    weight_filler {
      type: "xavier"
      std: 0.2
    }
    bias_filler {
      type: "constant"
      value: 0.2
    }
  }
}
layer {
  name: "inception_4a/relu_5x5_reduce"
  type: "ReLU"
  bottom: "inception_4a/5x5_reduce"
  top: "inception_4a/5x5_reduce"
}
layer {
  name: "inception_4a/5x5"
  type: "Convolution"
  bottom: "inception_4a/5x5_reduce"
  top: "inception_4a/5x5"
  param {
    lr_mult: 1
    decay_mult: 1
  }
  param {
    lr_mult: 2
    decay_mult: 0
  }
  convolution_param {
    num_output: 48
    pad: 2
    kernel_size: 5
    weight_filler {
      type: "xavier"
      std: 0.03
    }
    bias_filler {
      type: "constant"
      value: 0.2
    }
  }
}
layer {
  name: "inception_4a/relu_5x5"
  type: "ReLU"
  bottom: "inception_4a/5x5"
  top: "inception_4a/5x5"
}
layer {
  name: "inception_4a/pool"
  type: "Pooling"
  bottom: "pool3/3x3_s2"
  top: "inception_4a/pool"
  pooling_param {
    pool: MAX
    kernel_size: 3
    stride: 1
    pad: 1
  }
}
layer {
  name: "inception_4a/pool_proj"
  type: "Convolution"
  bottom: "inception_4a/pool"
  top: "inception_4a/pool_proj"
  param {
    lr_mult: 1
    decay_mult: 1
  }
  param {
    lr_mult: 2
    decay_mult: 0
  }
  convolution_param {
    num_output: 64
    kernel_size: 1
    weight_filler {
      type: "xavier"
      std: 0.1
    }
    bias_filler {
      type: "constant"
      value: 0.2
    }
  }
}
layer {
  name: "inception_4a/relu_pool_proj"
  type: "ReLU"
  bottom: "inception_4a/pool_proj"
  top: "inception_4a/pool_proj"
}
layer {
  name: "inception_4a/output"
  type: "Concat"
  bottom: "inception_4a/1x1"
  bottom: "inception_4a/3x3"
  bottom: "inception_4a/5x5"
  bottom: "inception_4a/pool_proj"
  top: "inception_4a/output"
}
layer {
  name: "loss1/ave_pool"
  type: "Pooling"
  bottom: "inception_4a/output"
  top: "loss1/ave_pool"
  pooling_param {
    pool: AVE
    kernel_size: 5
    stride: 3
  }
}
layer {
  name: "loss1/conv"
  type: "Convolution"
  bottom: "loss1/ave_pool"
  top: "loss1/conv"
  param {
    lr_mult: 1
    decay_mult: 1
  }
  param {
    lr_mult: 2
    decay_mult: 0
  }
  convolution_param {
    num_output: 128
    kernel_size: 1
    weight_filler {
      type: "xavier"
      std: 0.08
    }
    bias_filler {
      type: "constant"
      value: 0.2
    }
  }
}
layer {
  name: "loss1/relu_conv"
  type: "ReLU"
  bottom: "loss1/conv"
  top: "loss1/conv"
}
layer {
  name: "loss1/fc"
  type: "InnerProduct"
  bottom: "loss1/conv"
  top: "loss1/fc"
  param {
    lr_mult: 1
    decay_mult: 1
  }
  param {
    lr_mult: 2
    decay_mult: 0
  }
  inner_product_param {
    num_output: 1024
    weight_filler {
      type: "xavier"
      std: 0.02
    }
    bias_filler {
      type: "constant"
      value: 0.2
    }
  }
}
layer {
  name: "loss1/relu_fc"
  type: "ReLU"
  bottom: "loss1/fc"
  top: "loss1/fc"
}
layer {
  name: "loss1/drop_fc"
  type: "Dropout"
  bottom: "loss1/fc"
  top: "loss1/fc"
  dropout_param {
    dropout_ratio: 0.7
  }
}
layer {
  name: "loss1/classifier_plantvillage"
  type: "InnerProduct"
  bottom: "loss1/fc"
  top: "loss1/classifier_plantvillage"
  param {
    lr_mult: 1
    decay_mult: 1
  }
  param {
    lr_mult: 2
    decay_mult: 0
  }
  inner_product_param {
    num_output: 38
    weight_filler {
      type: "xavier"
      std: 0.0009765625
    }
    bias_filler {
      type: "constant"
      value: 0
    }
  }
}
layer {
  name: "inception_4b/1x1"
  type: "Convolution"
  bottom: "inception_4a/output"
  top: "inception_4b/1x1"
  param {
    lr_mult: 1
    decay_mult: 1
  }
  param {
    lr_mult: 2
    decay_mult: 0
  }
  convolution_param {
    num_output: 160
    kernel_size: 1
    weight_filler {
      type: "xavier"
      std: 0.03
    }
    bias_filler {
      type: "constant"
      value: 0.2
    }
  }
}
layer {
  name: "inception_4b/relu_1x1"
  type: "ReLU"
  bottom: "inception_4b/1x1"
  top: "inception_4b/1x1"
}
layer {
  name: "inception_4b/3x3_reduce"
  type: "Convolution"
  bottom: "inception_4a/output"
  top: "inception_4b/3x3_reduce"
  param {
    lr_mult: 1
    decay_mult: 1
  }
  param {
    lr_mult: 2
    decay_mult: 0
  }
  convolution_param {
    num_output: 112
    kernel_size: 1
    weight_filler {
      type: "xavier"
      std: 0.09
    }
    bias_filler {
      type: "constant"
      value: 0.2
    }
  }
}
layer {
  name: "inception_4b/relu_3x3_reduce"
  type: "ReLU"
  bottom: "inception_4b/3x3_reduce"
  top: "inception_4b/3x3_reduce"
}
layer {
  name: "inception_4b/3x3"
  type: "Convolution"
  bottom: "inception_4b/3x3_reduce"
  top: "inception_4b/3x3"
  param {
    lr_mult: 1
    decay_mult: 1
  }
  param {
    lr_mult: 2
    decay_mult: 0
  }
  convolution_param {
    num_output: 224
    pad: 1
    kernel_size: 3
    weight_filler {
      type: "xavier"
      std: 0.03
    }
    bias_filler {
      type: "constant"
      value: 0.2
    }
  }
}
layer {
  name: "inception_4b/relu_3x3"
  type: "ReLU"
  bottom: "inception_4b/3x3"
  top: "inception_4b/3x3"
}
layer {
  name: "inception_4b/5x5_reduce"
  type: "Convolution"
  bottom: "inception_4a/output"
  top: "inception_4b/5x5_reduce"
  param {
    lr_mult: 1
    decay_mult: 1
  }
  param {
    lr_mult: 2
    decay_mult: 0
  }
  convolution_param {
    num_output: 24
    kernel_size: 1
    weight_filler {
      type: "xavier"
      std: 0.2
    }
    bias_filler {
      type: "constant"
      value: 0.2
    }
  }
}
layer {
  name: "inception_4b/relu_5x5_reduce"
  type: "ReLU"
  bottom: "inception_4b/5x5_reduce"
  top: "inception_4b/5x5_reduce"
}
layer {
  name: "inception_4b/5x5"
  type: "Convolution"
  bottom: "inception_4b/5x5_reduce"
  top: "inception_4b/5x5"
  param {
    lr_mult: 1
    decay_mult: 1
  }
  param {
    lr_mult: 2
    decay_mult: 0
  }
  convolution_param {
    num_output: 64
    pad: 2
    kernel_size: 5
    weight_filler {
      type: "xavier"
      std: 0.03
    }
    bias_filler {
      type: "constant"
      value: 0.2
    }
  }
}
layer {
  name: "inception_4b/relu_5x5"
  type: "ReLU"
  bottom: "inception_4b/5x5"
  top: "inception_4b/5x5"
}
layer {
  name: "inception_4b/pool"
  type: "Pooling"
  bottom: "inception_4a/output"
  top: "inception_4b/pool"
  pooling_param {
    pool: MAX
    kernel_size: 3
    stride: 1
    pad: 1
  }
}
layer {
  name: "inception_4b/pool_proj"
  type: "Convolution"
  bottom: "inception_4b/pool"
  top: "inception_4b/pool_proj"
  param {
    lr_mult: 1
    decay_mult: 1
  }
  param {
    lr_mult: 2
    decay_mult: 0
  }
  convolution_param {
    num_output: 64
    kernel_size: 1
    weight_filler {
      type: "xavier"
      std: 0.1
    }
    bias_filler {
      type: "constant"
      value: 0.2
    }
  }
}
layer {
  name: "inception_4b/relu_pool_proj"
  type: "ReLU"
  bottom: "inception_4b/pool_proj"
  top: "inception_4b/pool_proj"
}
layer {
  name: "inception_4b/output"
  type: "Concat"
  bottom: "inception_4b/1x1"
  bottom: "inception_4b/3x3"
  bottom: "inception_4b/5x5"
  bottom: "inception_4b/pool_proj"
  top: "inception_4b/output"
}
layer {
  name: "inception_4c/1x1"
  type: "Convolution"
  bottom: "inception_4b/output"
  top: "inception_4c/1x1"
  param {
    lr_mult: 1
    decay_mult: 1
  }
  param {
    lr_mult: 2
    decay_mult: 0
  }
  convolution_param {
    num_output: 128
    kernel_size: 1
    weight_filler {
      type: "xavier"
      std: 0.03
    }
    bias_filler {
      type: "constant"
      value: 0.2
    }
  }
}
layer {
  name: "inception_4c/relu_1x1"
  type: "ReLU"
  bottom: "inception_4c/1x1"
  top: "inception_4c/1x1"
}
layer {
  name: "inception_4c/3x3_reduce"
  type: "Convolution"
  bottom: "inception_4b/output"
  top: "inception_4c/3x3_reduce"
  param {
    lr_mult: 1
    decay_mult: 1
  }
  param {
    lr_mult: 2
    decay_mult: 0
  }
  convolution_param {
    num_output: 128
    kernel_size: 1
    weight_filler {
      type: "xavier"
      std: 0.09
    }
    bias_filler {
      type: "constant"
      value: 0.2
    }
  }
}
layer {
  name: "inception_4c/relu_3x3_reduce"
  type: "ReLU"
  bottom: "inception_4c/3x3_reduce"
  top: "inception_4c/3x3_reduce"
}
layer {
  name: "inception_4c/3x3"
  type: "Convolution"
  bottom: "inception_4c/3x3_reduce"
  top: "inception_4c/3x3"
  param {
    lr_mult: 1
    decay_mult: 1
  }
  param {
    lr_mult: 2
    decay_mult: 0
  }
  convolution_param {
    num_output: 256
    pad: 1
    kernel_size: 3
    weight_filler {
      type: "xavier"
      std: 0.03
    }
    bias_filler {
      type: "constant"
      value: 0.2
    }
  }
}
layer {
  name: "inception_4c/relu_3x3"
  type: "ReLU"
  bottom: "inception_4c/3x3"
  top: "inception_4c/3x3"
}
layer {
  name: "inception_4c/5x5_reduce"
  type: "Convolution"
  bottom: "inception_4b/output"
  top: "inception_4c/5x5_reduce"
  param {
    lr_mult: 1
    decay_mult: 1
  }
  param {
    lr_mult: 2
    decay_mult: 0
  }
  convolution_param {
    num_output: 24
    kernel_size: 1
    weight_filler {
      type: "xavier"
      std: 0.2
    }
    bias_filler {
      type: "constant"
      value: 0.2
    }
  }
}
layer {
  name: "inception_4c/relu_5x5_reduce"
  type: "ReLU"
  bottom: "inception_4c/5x5_reduce"
  top: "inception_4c/5x5_reduce"
}
layer {
  name: "inception_4c/5x5"
  type: "Convolution"
  bottom: "inception_4c/5x5_reduce"
  top: "inception_4c/5x5"
  param {
    lr_mult: 1
    decay_mult: 1
  }
  param {
    lr_mult: 2
    decay_mult: 0
  }
  convolution_param {
    num_output: 64
    pad: 2
    kernel_size: 5
    weight_filler {
      type: "xavier"
      std: 0.03
    }
    bias_filler {
      type: "constant"
      value: 0.2
    }
  }
}
layer {
  name: "inception_4c/relu_5x5"
  type: "ReLU"
  bottom: "inception_4c/5x5"
  top: "inception_4c/5x5"
}
layer {
  name: "inception_4c/pool"
  type: "Pooling"
  bottom: "inception_4b/output"
  top: "inception_4c/pool"
  pooling_param {
    pool: MAX
    kernel_size: 3
    stride: 1
    pad: 1
  }
}
layer {
  name: "inception_4c/pool_proj"
  type: "Convolution"
  bottom: "inception_4c/pool"
  top: "inception_4c/pool_proj"
  param {
    lr_mult: 1
    decay_mult: 1
  }
  param {
    lr_mult: 2
    decay_mult: 0
  }
  convolution_param {
    num_output: 64
    kernel_size: 1
    weight_filler {
      type: "xavier"
      std: 0.1
    }
    bias_filler {
      type: "constant"
      value: 0.2
    }
  }
}
layer {
  name: "inception_4c/relu_pool_proj"
  type: "ReLU"
  bottom: "inception_4c/pool_proj"
  top: "inception_4c/pool_proj"
}
layer {
  name: "inception_4c/output"
  type: "Concat"
  bottom: "inception_4c/1x1"
  bottom: "inception_4c/3x3"
  bottom: "inception_4c/5x5"
  bottom: "inception_4c/pool_proj"
  top: "inception_4c/output"
}
layer {
  name: "inception_4d/1x1"
  type: "Convolution"
  bottom: "inception_4c/output"
  top: "inception_4d/1x1"
  param {
    lr_mult: 1
    decay_mult: 1
  }
  param {
    lr_mult: 2
    decay_mult: 0
  }
  convolution_param {
    num_output: 112
    kernel_size: 1
    weight_filler {
      type: "xavier"
      std: 0.03
    }
    bias_filler {
      type: "constant"
      value: 0.2
    }
  }
}
layer {
  name: "inception_4d/relu_1x1"
  type: "ReLU"
  bottom: "inception_4d/1x1"
  top: "inception_4d/1x1"
}
layer {
  name: "inception_4d/3x3_reduce"
  type: "Convolution"
  bottom: "inception_4c/output"
  top: "inception_4d/3x3_reduce"
  param {
    lr_mult: 1
    decay_mult: 1
  }
  param {
    lr_mult: 2
    decay_mult: 0
  }
  convolution_param {
    num_output: 144
    kernel_size: 1
    weight_filler {
      type: "xavier"
      std: 0.09
    }
    bias_filler {
      type: "constant"
      value: 0.2
    }
  }
}
layer {
  name: "inception_4d/relu_3x3_reduce"
  type: "ReLU"
  bottom: "inception_4d/3x3_reduce"
  top: "inception_4d/3x3_reduce"
}
layer {
  name: "inception_4d/3x3"
  type: "Convolution"
  bottom: "inception_4d/3x3_reduce"
  top: "inception_4d/3x3"
  param {
    lr_mult: 1
    decay_mult: 1
  }
  param {
    lr_mult: 2
    decay_mult: 0
  }
  convolution_param {
    num_output: 288
    pad: 1
    kernel_size: 3
    weight_filler {
      type: "xavier"
      std: 0.03
    }
    bias_filler {
      type: "constant"
      value: 0.2
    }
  }
}
layer {
  name: "inception_4d/relu_3x3"
  type: "ReLU"
  bottom: "inception_4d/3x3"
  top: "inception_4d/3x3"
}
layer {
  name: "inception_4d/5x5_reduce"
  type: "Convolution"
  bottom: "inception_4c/output"
  top: "inception_4d/5x5_reduce"
  param {
    lr_mult: 1
    decay_mult: 1
  }
  param {
    lr_mult: 2
    decay_mult: 0
  }
  convolution_param {
    num_output: 32
    kernel_size: 1
    weight_filler {
      type: "xavier"
      std: 0.2
    }
    bias_filler {
      type: "constant"
      value: 0.2
    }
  }
}
layer {
  name: "inception_4d/relu_5x5_reduce"
  type: "ReLU"
  bottom: "inception_4d/5x5_reduce"
  top: "inception_4d/5x5_reduce"
}
layer {
  name: "inception_4d/5x5"
  type: "Convolution"
  bottom: "inception_4d/5x5_reduce"
  top: "inception_4d/5x5"
  param {
    lr_mult: 1
    decay_mult: 1
  }
  param {
    lr_mult: 2
    decay_mult: 0
  }
  convolution_param {
    num_output: 64
    pad: 2
    kernel_size: 5
    weight_filler {
      type: "xavier"
      std: 0.03
    }
    bias_filler {
      type: "constant"
      value: 0.2
    }
  }
}
layer {
  name: "inception_4d/relu_5x5"
  type: "ReLU"
  bottom: "inception_4d/5x5"
  top: "inception_4d/5x5"
}
layer {
  name: "inception_4d/pool"
  type: "Pooling"
  bottom: "inception_4c/output"
  top: "inception_4d/pool"
  pooling_param {
    pool: MAX
    kernel_size: 3
    stride: 1
    pad: 1
  }
}
layer {
  name: "inception_4d/pool_proj"
  type: "Convolution"
  bottom: "inception_4d/pool"
  top: "inception_4d/pool_proj"
  param {
    lr_mult: 1
    decay_mult: 1
  }
  param {
    lr_mult: 2
    decay_mult: 0
  }
  convolution_param {
    num_output: 64
    kernel_size: 1
    weight_filler {
      type: "xavier"
      std: 0.1
    }
    bias_filler {
      type: "constant"
      value: 0.2
    }
  }
}
layer {
  name: "inception_4d/relu_pool_proj"
  type: "ReLU"
  bottom: "inception_4d/pool_proj"
  top: "inception_4d/pool_proj"
}
layer {
  name: "inception_4d/output"
  type: "Concat"
  bottom: "inception_4d/1x1"
  bottom: "inception_4d/3x3"
  bottom: "inception_4d/5x5"
  bottom: "inception_4d/pool_proj"
  top: "inception_4d/output"
}
layer {
  name: "loss2/ave_pool"
  type: "Pooling"
  bottom: "inception_4d/output"
  top: "loss2/ave_pool"
  pooling_param {
    pool: AVE
    kernel_size: 5
    stride: 3
  }
}
layer {
  name: "loss2/conv"
  type: "Convolution"
  bottom: "loss2/ave_pool"
  top: "loss2/conv"
  param {
    lr_mult: 1
    decay_mult: 1
  }
  param {
    lr_mult: 2
    decay_mult: 0
  }
  convolution_param {
    num_output: 128
    kernel_size: 1
    weight_filler {
      type: "xavier"
      std: 0.08
    }
    bias_filler {
      type: "constant"
      value: 0.2
    }
  }
}
layer {
  name: "loss2/relu_conv"
  type: "ReLU"
  bottom: "loss2/conv"
  top: "loss2/conv"
}
layer {
  name: "loss2/fc"
  type: "InnerProduct"
  bottom: "loss2/conv"
  top: "loss2/fc"
  param {
    lr_mult: 1
    decay_mult: 1
  }
  param {
    lr_mult: 2
    decay_mult: 0
  }
  inner_product_param {
    num_output: 1024
    weight_filler {
      type: "xavier"
      std: 0.02
    }
    bias_filler {
      type: "constant"
      value: 0.2
    }
  }
}
layer {
  name: "loss2/relu_fc"
  type: "ReLU"
  bottom: "loss2/fc"
  top: "loss2/fc"
}
layer {
  name: "loss2/drop_fc"
  type: "Dropout"
  bottom: "loss2/fc"
  top: "loss2/fc"
  dropout_param {
    dropout_ratio: 0.7
  }
}
layer {
  name: "loss2/classifier_plantvillage"
  type: "InnerProduct"
  bottom: "loss2/fc"
  top: "loss2/classifier_plantvillage"
  param {
    lr_mult: 1
    decay_mult: 1
  }
  param {
    lr_mult: 2
    decay_mult: 0
  }
  inner_product_param {
    num_output: 38
    weight_filler {
      type: "xavier"
      std: 0.0009765625
    }
    bias_filler {
      type: "constant"
      value: 0
    }
  }
}
layer {
  name: "inception_4e/1x1"
  type: "Convolution"
  bottom: "inception_4d/output"
  top: "inception_4e/1x1"
  param {
    lr_mult: 1
    decay_mult: 1
  }
  param {
    lr_mult: 2
    decay_mult: 0
  }
  convolution_param {
    num_output: 256
    kernel_size: 1
    weight_filler {
      type: "xavier"
      std: 0.03
    }
    bias_filler {
      type: "constant"
      value: 0.2
    }
  }
}
layer {
  name: "inception_4e/relu_1x1"
  type: "ReLU"
  bottom: "inception_4e/1x1"
  top: "inception_4e/1x1"
}
layer {
  name: "inception_4e/3x3_reduce"
  type: "Convolution"
  bottom: "inception_4d/output"
  top: "inception_4e/3x3_reduce"
  param {
    lr_mult: 1
    decay_mult: 1
  }
  param {
    lr_mult: 2
    decay_mult: 0
  }
  convolution_param {
    num_output: 160
    kernel_size: 1
    weight_filler {
      type: "xavier"
      std: 0.09
    }
    bias_filler {
      type: "constant"
      value: 0.2
    }
  }
}
layer {
  name: "inception_4e/relu_3x3_reduce"
  type: "ReLU"
  bottom: "inception_4e/3x3_reduce"
  top: "inception_4e/3x3_reduce"
}
layer {
  name: "inception_4e/3x3"
  type: "Convolution"
  bottom: "inception_4e/3x3_reduce"
  top: "inception_4e/3x3"
  param {
    lr_mult: 1
    decay_mult: 1
  }
  param {
    lr_mult: 2
    decay_mult: 0
  }
  convolution_param {
    num_output: 320
    pad: 1
    kernel_size: 3
    weight_filler {
      type: "xavier"
      std: 0.03
    }
    bias_filler {
      type: "constant"
      value: 0.2
    }
  }
}
layer {
  name: "inception_4e/relu_3x3"
  type: "ReLU"
  bottom: "inception_4e/3x3"
  top: "inception_4e/3x3"
}
layer {
  name: "inception_4e/5x5_reduce"
  type: "Convolution"
  bottom: "inception_4d/output"
  top: "inception_4e/5x5_reduce"
  param {
    lr_mult: 1
    decay_mult: 1
  }
  param {
    lr_mult: 2
    decay_mult: 0
  }
  convolution_param {
    num_output: 32
    kernel_size: 1
    weight_filler {
      type: "xavier"
      std: 0.2
    }
    bias_filler {
      type: "constant"
      value: 0.2
    }
  }
}
layer {
  name: "inception_4e/relu_5x5_reduce"
  type: "ReLU"
  bottom: "inception_4e/5x5_reduce"
  top: "inception_4e/5x5_reduce"
}
layer {
  name: "inception_4e/5x5"
  type: "Convolution"
  bottom: "inception_4e/5x5_reduce"
  top: "inception_4e/
I0403 21:37:17.680842 23651 layer_factory.hpp:77] Creating layer data
I0403 21:37:17.681447 23651 net.cpp:91] Creating Layer data
I0403 21:37:17.681478 23651 net.cpp:399] data -> data
I0403 21:37:17.681538 23651 net.cpp:399] data -> label
I0403 21:37:17.681576 23651 data_transformer.cpp:25] Loading mean file from: /home/mohanty/data/final_dataset/lmdb/segmented-80-20/mean.binaryproto
I0403 21:37:17.682718 23654 db_lmdb.cpp:38] Opened lmdb /home/mohanty/data/final_dataset/lmdb/segmented-80-20/test_db
I0403 21:37:17.694046 23651 data_layer.cpp:41] output data size: 24,3,224,224
I0403 21:37:17.721631 23651 net.cpp:141] Setting up data
I0403 21:37:17.721715 23651 net.cpp:148] Top shape: 24 3 224 224 (3612672)
I0403 21:37:17.721740 23651 net.cpp:148] Top shape: 24 (24)
I0403 21:37:17.721755 23651 net.cpp:156] Memory required for data: 14450784
I0403 21:37:17.721784 23651 layer_factory.hpp:77] Creating layer label_data_1_split
I0403 21:37:17.721812 23651 net.cpp:91] Creating Layer label_data_1_split
I0403 21:37:17.721833 23651 net.cpp:425] label_data_1_split <- label
I0403 21:37:17.721868 23651 net.cpp:399] label_data_1_split -> label_data_1_split_0
I0403 21:37:17.721895 23651 net.cpp:399] label_data_1_split -> label_data_1_split_1
I0403 21:37:17.721917 23651 net.cpp:399] label_data_1_split -> label_data_1_split_2
I0403 21:37:17.721941 23651 net.cpp:399] label_data_1_split -> label_data_1_split_3
I0403 21:37:17.721963 23651 net.cpp:399] label_data_1_split -> label_data_1_split_4
I0403 21:37:17.721984 23651 net.cpp:399] label_data_1_split -> label_data_1_split_5
I0403 21:37:17.722005 23651 net.cpp:399] label_data_1_split -> label_data_1_split_6
I0403 21:37:17.722026 23651 net.cpp:399] label_data_1_split -> label_data_1_split_7
I0403 21:37:17.722046 23651 net.cpp:399] label_data_1_split -> label_data_1_split_8
I0403 21:37:17.722069 23651 net.cpp:399] label_data_1_split -> label_data_1_split_9
I0403 21:37:17.722185 23651 net.cpp:141] Setting up label_data_1_split
I0403 21:37:17.722214 23651 net.cpp:148] Top shape: 24 (24)
I0403 21:37:17.722234 23651 net.cpp:148] Top shape: 24 (24)
I0403 21:37:17.722251 23651 net.cpp:148] Top shape: 24 (24)
I0403 21:37:17.722267 23651 net.cpp:148] Top shape: 24 (24)
I0403 21:37:17.722283 23651 net.cpp:148] Top shape: 24 (24)
I0403 21:37:17.722300 23651 net.cpp:148] Top shape: 24 (24)
I0403 21:37:17.722316 23651 net.cpp:148] Top shape: 24 (24)
I0403 21:37:17.722332 23651 net.cpp:148] Top shape: 24 (24)
I0403 21:37:17.722349 23651 net.cpp:148] Top shape: 24 (24)
I0403 21:37:17.722365 23651 net.cpp:148] Top shape: 24 (24)
I0403 21:37:17.722419 23651 net.cpp:156] Memory required for data: 14451744
I0403 21:37:17.722436 23651 layer_factory.hpp:77] Creating layer conv1/7x7_s2
I0403 21:37:17.722470 23651 net.cpp:91] Creating Layer conv1/7x7_s2
I0403 21:37:17.722488 23651 net.cpp:425] conv1/7x7_s2 <- data
I0403 21:37:17.722509 23651 net.cpp:399] conv1/7x7_s2 -> conv1/7x7_s2
I0403 21:37:17.863874 23651 net.cpp:141] Setting up conv1/7x7_s2
I0403 21:37:17.863953 23651 net.cpp:148] Top shape: 24 64 112 112 (19267584)
I0403 21:37:17.863972 23651 net.cpp:156] Memory required for data: 91522080
I0403 21:37:17.864006 23651 layer_factory.hpp:77] Creating layer conv1/relu_7x7
I0403 21:37:17.864034 23651 net.cpp:91] Creating Layer conv1/relu_7x7
I0403 21:37:17.864053 23651 net.cpp:425] conv1/relu_7x7 <- conv1/7x7_s2
I0403 21:37:17.864074 23651 net.cpp:386] conv1/relu_7x7 -> conv1/7x7_s2 (in-place)
I0403 21:37:17.864336 23651 net.cpp:141] Setting up conv1/relu_7x7
I0403 21:37:17.864363 23651 net.cpp:148] Top shape: 24 64 112 112 (19267584)
I0403 21:37:17.864380 23651 net.cpp:156] Memory required for data: 168592416
I0403 21:37:17.864398 23651 layer_factory.hpp:77] Creating layer pool1/3x3_s2
I0403 21:37:17.864423 23651 net.cpp:91] Creating Layer pool1/3x3_s2
I0403 21:37:17.864441 23651 net.cpp:425] pool1/3x3_s2 <- conv1/7x7_s2
I0403 21:37:17.864462 23651 net.cpp:399] pool1/3x3_s2 -> pool1/3x3_s2
I0403 21:37:17.864536 23651 net.cpp:141] Setting up pool1/3x3_s2
I0403 21:37:17.864562 23651 net.cpp:148] Top shape: 24 64 56 56 (4816896)
I0403 21:37:17.864578 23651 net.cpp:156] Memory required for data: 187860000
I0403 21:37:17.864593 23651 layer_factory.hpp:77] Creating layer pool1/norm1
I0403 21:37:17.864619 23651 net.cpp:91] Creating Layer pool1/norm1
I0403 21:37:17.864637 23651 net.cpp:425] pool1/norm1 <- pool1/3x3_s2
I0403 21:37:17.864657 23651 net.cpp:399] pool1/norm1 -> pool1/norm1
I0403 21:37:17.864940 23651 net.cpp:141] Setting up pool1/norm1
I0403 21:37:17.864969 23651 net.cpp:148] Top shape: 24 64 56 56 (4816896)
I0403 21:37:17.864986 23651 net.cpp:156] Memory required for data: 207127584
I0403 21:37:17.865003 23651 layer_factory.hpp:77] Creating layer conv2/3x3_reduce
I0403 21:37:17.865031 23651 net.cpp:91] Creating Layer conv2/3x3_reduce
I0403 21:37:17.865051 23651 net.cpp:425] conv2/3x3_reduce <- pool1/norm1
I0403 21:37:17.865070 23651 net.cpp:399] conv2/3x3_reduce -> conv2/3x3_reduce
I0403 21:37:17.866504 23651 net.cpp:141] Setting up conv2/3x3_reduce
I0403 21:37:17.866534 23651 net.cpp:148] Top shape: 24 64 56 56 (4816896)
I0403 21:37:17.866552 23651 net.cpp:156] Memory required for data: 226395168
I0403 21:37:17.866575 23651 layer_factory.hpp:77] Creating layer conv2/relu_3x3_reduce
I0403 21:37:17.866596 23651 net.cpp:91] Creating Layer conv2/relu_3x3_reduce
I0403 21:37:17.866614 23651 net.cpp:425] conv2/relu_3x3_reduce <- conv2/3x3_reduce
I0403 21:37:17.866634 23651 net.cpp:386] conv2/relu_3x3_reduce -> conv2/3x3_reduce (in-place)
I0403 21:37:17.866904 23651 net.cpp:141] Setting up conv2/relu_3x3_reduce
I0403 21:37:17.866931 23651 net.cpp:148] Top shape: 24 64 56 56 (4816896)
I0403 21:37:17.866946 23651 net.cpp:156] Memory required for data: 245662752
I0403 21:37:17.866963 23651 layer_factory.hpp:77] Creating layer conv2/3x3
I0403 21:37:17.866991 23651 net.cpp:91] Creating Layer conv2/3x3
I0403 21:37:17.867009 23651 net.cpp:425] conv2/3x3 <- conv2/3x3_reduce
I0403 21:37:17.867029 23651 net.cpp:399] conv2/3x3 -> conv2/3x3
I0403 21:37:17.869333 23651 net.cpp:141] Setting up conv2/3x3
I0403 21:37:17.869364 23651 net.cpp:148] Top shape: 24 192 56 56 (14450688)
I0403 21:37:17.869382 23651 net.cpp:156] Memory required for data: 303465504
I0403 21:37:17.869405 23651 layer_factory.hpp:77] Creating layer conv2/relu_3x3
I0403 21:37:17.869427 23651 net.cpp:91] Creating Layer conv2/relu_3x3
I0403 21:37:17.869446 23651 net.cpp:425] conv2/relu_3x3 <- conv2/3x3
I0403 21:37:17.869465 23651 net.cpp:386] conv2/relu_3x3 -> conv2/3x3 (in-place)
I0403 21:37:17.869643 23651 net.cpp:141] Setting up conv2/relu_3x3
I0403 21:37:17.869669 23651 net.cpp:148] Top shape: 24 192 56 56 (14450688)
I0403 21:37:17.869724 23651 net.cpp:156] Memory required for data: 361268256
I0403 21:37:17.869741 23651 layer_factory.hpp:77] Creating layer conv2/norm2
I0403 21:37:17.869760 23651 net.cpp:91] Creating Layer conv2/norm2
I0403 21:37:17.869776 23651 net.cpp:425] conv2/norm2 <- conv2/3x3
I0403 21:37:17.869798 23651 net.cpp:399] conv2/norm2 -> conv2/norm2
I0403 21:37:17.870103 23651 net.cpp:141] Setting up conv2/norm2
I0403 21:37:17.870131 23651 net.cpp:148] Top shape: 24 192 56 56 (14450688)
I0403 21:37:17.870148 23651 net.cpp:156] Memory required for data: 419071008
I0403 21:37:17.870164 23651 layer_factory.hpp:77] Creating layer pool2/3x3_s2
I0403 21:37:17.870185 23651 net.cpp:91] Creating Layer pool2/3x3_s2
I0403 21:37:17.870208 23651 net.cpp:425] pool2/3x3_s2 <- conv2/norm2
I0403 21:37:17.870229 23651 net.cpp:399] pool2/3x3_s2 -> pool2/3x3_s2
I0403 21:37:17.870283 23651 net.cpp:141] Setting up pool2/3x3_s2
I0403 21:37:17.870307 23651 net.cpp:148] Top shape: 24 192 28 28 (3612672)
I0403 21:37:17.870323 23651 net.cpp:156] Memory required for data: 433521696
I0403 21:37:17.870339 23651 layer_factory.hpp:77] Creating layer pool2/3x3_s2_pool2/3x3_s2_0_split
I0403 21:37:17.870358 23651 net.cpp:91] Creating Layer pool2/3x3_s2_pool2/3x3_s2_0_split
I0403 21:37:17.870375 23651 net.cpp:425] pool2/3x3_s2_pool2/3x3_s2_0_split <- pool2/3x3_s2
I0403 21:37:17.870398 23651 net.cpp:399] pool2/3x3_s2_pool2/3x3_s2_0_split -> pool2/3x3_s2_pool2/3x3_s2_0_split_0
I0403 21:37:17.870419 23651 net.cpp:399] pool2/3x3_s2_pool2/3x3_s2_0_split -> pool2/3x3_s2_pool2/3x3_s2_0_split_1
I0403 21:37:17.870440 23651 net.cpp:399] pool2/3x3_s2_pool2/3x3_s2_0_split -> pool2/3x3_s2_pool2/3x3_s2_0_split_2
I0403 21:37:17.870460 23651 net.cpp:399] pool2/3x3_s2_pool2/3x3_s2_0_split -> pool2/3x3_s2_pool2/3x3_s2_0_split_3
I0403 21:37:17.870532 23651 net.cpp:141] Setting up pool2/3x3_s2_pool2/3x3_s2_0_split
I0403 21:37:17.870558 23651 net.cpp:148] Top shape: 24 192 28 28 (3612672)
I0403 21:37:17.870578 23651 net.cpp:148] Top shape: 24 192 28 28 (3612672)
I0403 21:37:17.870594 23651 net.cpp:148] Top shape: 24 192 28 28 (3612672)
I0403 21:37:17.870610 23651 net.cpp:148] Top shape: 24 192 28 28 (3612672)
I0403 21:37:17.870625 23651 net.cpp:156] Memory required for data: 491324448
I0403 21:37:17.870640 23651 layer_factory.hpp:77] Creating layer inception_3a/1x1
I0403 21:37:17.870664 23651 net.cpp:91] Creating Layer inception_3a/1x1
I0403 21:37:17.870682 23651 net.cpp:425] inception_3a/1x1 <- pool2/3x3_s2_pool2/3x3_s2_0_split_0
I0403 21:37:17.870702 23651 net.cpp:399] inception_3a/1x1 -> inception_3a/1x1
I0403 21:37:17.872285 23651 net.cpp:141] Setting up inception_3a/1x1
I0403 21:37:17.872318 23651 net.cpp:148] Top shape: 24 64 28 28 (1204224)
I0403 21:37:17.872335 23651 net.cpp:156] Memory required for data: 496141344
I0403 21:37:17.872356 23651 layer_factory.hpp:77] Creating layer inception_3a/relu_1x1
I0403 21:37:17.872378 23651 net.cpp:91] Creating Layer inception_3a/relu_1x1
I0403 21:37:17.872398 23651 net.cpp:425] inception_3a/relu_1x1 <- inception_3a/1x1
I0403 21:37:17.872417 23651 net.cpp:386] inception_3a/relu_1x1 -> inception_3a/1x1 (in-place)
I0403 21:37:17.872609 23651 net.cpp:141] Setting up inception_3a/relu_1x1
I0403 21:37:17.872637 23651 net.cpp:148] Top shape: 24 64 28 28 (1204224)
I0403 21:37:17.872655 23651 net.cpp:156] Memory required for data: 500958240
I0403 21:37:17.872671 23651 layer_factory.hpp:77] Creating layer inception_3a/3x3_reduce
I0403 21:37:17.872694 23651 net.cpp:91] Creating Layer inception_3a/3x3_reduce
I0403 21:37:17.872712 23651 net.cpp:425] inception_3a/3x3_reduce <- pool2/3x3_s2_pool2/3x3_s2_0_split_1
I0403 21:37:17.872732 23651 net.cpp:399] inception_3a/3x3_reduce -> inception_3a/3x3_reduce
I0403 21:37:17.874469 23651 net.cpp:141] Setting up inception_3a/3x3_reduce
I0403 21:37:17.874500 23651 net.cpp:148] Top shape: 24 96 28 28 (1806336)
I0403 21:37:17.874517 23651 net.cpp:156] Memory required for data: 508183584
I0403 21:37:17.874539 23651 layer_factory.hpp:77] Creating layer inception_3a/relu_3x3_reduce
I0403 21:37:17.874578 23651 net.cpp:91] Creating Layer inception_3a/relu_3x3_reduce
I0403 21:37:17.874598 23651 net.cpp:425] inception_3a/relu_3x3_reduce <- inception_3a/3x3_reduce
I0403 21:37:17.874619 23651 net.cpp:386] inception_3a/relu_3x3_reduce -> inception_3a/3x3_reduce (in-place)
I0403 21:37:17.874799 23651 net.cpp:141] Setting up inception_3a/relu_3x3_reduce
I0403 21:37:17.874825 23651 net.cpp:148] Top shape: 24 96 28 28 (1806336)
I0403 21:37:17.874840 23651 net.cpp:156] Memory required for data: 515408928
I0403 21:37:17.874857 23651 layer_factory.hpp:77] Creating layer inception_3a/3x3
I0403 21:37:17.874881 23651 net.cpp:91] Creating Layer inception_3a/3x3
I0403 21:37:17.874898 23651 net.cpp:425] inception_3a/3x3 <- inception_3a/3x3_reduce
I0403 21:37:17.874922 23651 net.cpp:399] inception_3a/3x3 -> inception_3a/3x3
I0403 21:37:17.876559 23651 net.cpp:141] Setting up inception_3a/3x3
I0403 21:37:17.876591 23651 net.cpp:148] Top shape: 24 128 28 28 (2408448)
I0403 21:37:17.876608 23651 net.cpp:156] Memory required for data: 525042720
I0403 21:37:17.876628 23651 layer_factory.hpp:77] Creating layer inception_3a/relu_3x3
I0403 21:37:17.876648 23651 net.cpp:91] Creating Layer inception_3a/relu_3x3
I0403 21:37:17.876664 23651 net.cpp:425] inception_3a/relu_3x3 <- inception_3a/3x3
I0403 21:37:17.876682 23651 net.cpp:386] inception_3a/relu_3x3 -> inception_3a/3x3 (in-place)
I0403 21:37:17.876955 23651 net.cpp:141] Setting up inception_3a/relu_3x3
I0403 21:37:17.876986 23651 net.cpp:148] Top shape: 24 128 28 28 (2408448)
I0403 21:37:17.877002 23651 net.cpp:156] Memory required for data: 534676512
I0403 21:37:17.877019 23651 layer_factory.hpp:77] Creating layer inception_3a/5x5_reduce
I0403 21:37:17.877043 23651 net.cpp:91] Creating Layer inception_3a/5x5_reduce
I0403 21:37:17.877061 23651 net.cpp:425] inception_3a/5x5_reduce <- pool2/3x3_s2_pool2/3x3_s2_0_split_2
I0403 21:37:17.877081 23651 net.cpp:399] inception_3a/5x5_reduce -> inception_3a/5x5_reduce
I0403 21:37:17.878037 23651 net.cpp:141] Setting up inception_3a/5x5_reduce
I0403 21:37:17.878068 23651 net.cpp:148] Top shape: 24 16 28 28 (301056)
I0403 21:37:17.878087 23651 net.cpp:156] Memory required for data: 535880736
I0403 21:37:17.878106 23651 layer_factory.hpp:77] Creating layer inception_3a/relu_5x5_reduce
I0403 21:37:17.878124 23651 net.cpp:91] Creating Layer inception_3a/relu_5x5_reduce
I0403 21:37:17.878141 23651 net.cpp:425] inception_3a/relu_5x5_reduce <- inception_3a/5x5_reduce
I0403 21:37:17.878164 23651 net.cpp:386] inception_3a/relu_5x5_reduce -> inception_3a/5x5_reduce (in-place)
I0403 21:37:17.878471 23651 net.cpp:141] Setting up inception_3a/relu_5x5_reduce
I0403 21:37:17.878499 23651 net.cpp:148] Top shape: 24 16 28 28 (301056)
I0403 21:37:17.878516 23651 net.cpp:156] Memory required for data: 537084960
I0403 21:37:17.878533 23651 layer_factory.hpp:77] Creating layer inception_3a/5x5
I0403 21:37:17.878556 23651 net.cpp:91] Creating Layer inception_3a/5x5
I0403 21:37:17.878576 23651 net.cpp:425] inception_3a/5x5 <- inception_3a/5x5_reduce
I0403 21:37:17.878597 23651 net.cpp:399] inception_3a/5x5 -> inception_3a/5x5
I0403 21:37:17.879643 23651 net.cpp:141] Setting up inception_3a/5x5
I0403 21:37:17.879673 23651 net.cpp:148] Top shape: 24 32 28 28 (602112)
I0403 21:37:17.879689 23651 net.cpp:156] Memory required for data: 539493408
I0403 21:37:17.879709 23651 layer_factory.hpp:77] Creating layer inception_3a/relu_5x5
I0403 21:37:17.879732 23651 net.cpp:91] Creating Layer inception_3a/relu_5x5
I0403 21:37:17.879750 23651 net.cpp:425] inception_3a/relu_5x5 <- inception_3a/5x5
I0403 21:37:17.879767 23651 net.cpp:386] inception_3a/relu_5x5 -> inception_3a/5x5 (in-place)
I0403 21:37:17.879940 23651 net.cpp:141] Setting up inception_3a/relu_5x5
I0403 21:37:17.879968 23651 net.cpp:148] Top shape: 24 32 28 28 (602112)
I0403 21:37:17.879984 23651 net.cpp:156] Memory required for data: 541901856
I0403 21:37:17.880000 23651 layer_factory.hpp:77] Creating layer inception_3a/pool
I0403 21:37:17.880019 23651 net.cpp:91] Creating Layer inception_3a/pool
I0403 21:37:17.880051 23651 net.cpp:425] inception_3a/pool <- pool2/3x3_s2_pool2/3x3_s2_0_split_3
I0403 21:37:17.880074 23651 net.cpp:399] inception_3a/pool -> inception_3a/pool
I0403 21:37:17.880133 23651 net.cpp:141] Setting up inception_3a/pool
I0403 21:37:17.880162 23651 net.cpp:148] Top shape: 24 192 28 28 (3612672)
I0403 21:37:17.880177 23651 net.cpp:156] Memory required for data: 556352544
I0403 21:37:17.880193 23651 layer_factory.hpp:77] Creating layer inception_3a/pool_proj
I0403 21:37:17.880219 23651 net.cpp:91] Creating Layer inception_3a/pool_proj
I0403 21:37:17.880239 23651 net.cpp:425] inception_3a/pool_proj <- inception_3a/pool
I0403 21:37:17.880262 23651 net.cpp:399] inception_3a/pool_proj -> inception_3a/pool_proj
I0403 21:37:17.881232 23651 net.cpp:141] Setting up inception_3a/pool_proj
I0403 21:37:17.881260 23651 net.cpp:148] Top shape: 24 32 28 28 (602112)
I0403 21:37:17.881278 23651 net.cpp:156] Memory required for data: 558760992
I0403 21:37:17.881302 23651 layer_factory.hpp:77] Creating layer inception_3a/relu_pool_proj
I0403 21:37:17.881324 23651 net.cpp:91] Creating Layer inception_3a/relu_pool_proj
I0403 21:37:17.881340 23651 net.cpp:425] inception_3a/relu_pool_proj <- inception_3a/pool_proj
I0403 21:37:17.881361 23651 net.cpp:386] inception_3a/relu_pool_proj -> inception_3a/pool_proj (in-place)
I0403 21:37:17.881640 23651 net.cpp:141] Setting up inception_3a/relu_pool_proj
I0403 21:37:17.881670 23651 net.cpp:148] Top shape: 24 32 28 28 (602112)
I0403 21:37:17.881687 23651 net.cpp:156] Memory required for data: 561169440
I0403 21:37:17.881703 23651 layer_factory.hpp:77] Creating layer inception_3a/output
I0403 21:37:17.881722 23651 net.cpp:91] Creating Layer inception_3a/output
I0403 21:37:17.881741 23651 net.cpp:425] inception_3a/output <- inception_3a/1x1
I0403 21:37:17.881758 23651 net.cpp:425] inception_3a/output <- inception_3a/3x3
I0403 21:37:17.881775 23651 net.cpp:425] inception_3a/output <- inception_3a/5x5
I0403 21:37:17.881791 23651 net.cpp:425] inception_3a/output <- inception_3a/pool_proj
I0403 21:37:17.881808 23651 net.cpp:399] inception_3a/output -> inception_3a/output
I0403 21:37:17.881857 23651 net.cpp:141] Setting up inception_3a/output
I0403 21:37:17.881881 23651 net.cpp:148] Top shape: 24 256 28 28 (4816896)
I0403 21:37:17.881898 23651 net.cpp:156] Memory required for data: 580437024
I0403 21:37:17.881913 23651 layer_factory.hpp:77] Creating layer inception_3a/output_inception_3a/output_0_split
I0403 21:37:17.881933 23651 net.cpp:91] Creating Layer inception_3a/output_inception_3a/output_0_split
I0403 21:37:17.881953 23651 net.cpp:425] inception_3a/output_inception_3a/output_0_split <- inception_3a/output
I0403 21:37:17.881973 23651 net.cpp:399] inception_3a/output_inception_3a/output_0_split -> inception_3a/output_inception_3a/output_0_split_0
I0403 21:37:17.881994 23651 net.cpp:399] inception_3a/output_inception_3a/output_0_split -> inception_3a/output_inception_3a/output_0_split_1
I0403 21:37:17.882021 23651 net.cpp:399] inception_3a/output_inception_3a/output_0_split -> inception_3a/output_inception_3a/output_0_split_2
I0403 21:37:17.882045 23651 net.cpp:399] inception_3a/output_inception_3a/output_0_split -> inception_3a/output_inception_3a/output_0_split_3
I0403 21:37:17.882119 23651 net.cpp:141] Setting up inception_3a/output_inception_3a/output_0_split
I0403 21:37:17.882144 23651 net.cpp:148] Top shape: 24 256 28 28 (4816896)
I0403 21:37:17.882163 23651 net.cpp:148] Top shape: 24 256 28 28 (4816896)
I0403 21:37:17.882180 23651 net.cpp:148] Top shape: 24 256 28 28 (4816896)
I0403 21:37:17.882201 23651 net.cpp:148] Top shape: 24 256 28 28 (4816896)
I0403 21:37:17.882218 23651 net.cpp:156] Memory required for data: 657507360
I0403 21:37:17.882235 23651 layer_factory.hpp:77] Creating layer inception_3b/1x1
I0403 21:37:17.882257 23651 net.cpp:91] Creating Layer inception_3b/1x1
I0403 21:37:17.882278 23651 net.cpp:425] inception_3b/1x1 <- inception_3a/output_inception_3a/output_0_split_0
I0403 21:37:17.882298 23651 net.cpp:399] inception_3b/1x1 -> inception_3b/1x1
I0403 21:37:17.883426 23651 net.cpp:141] Setting up inception_3b/1x1
I0403 21:37:17.883466 23651 net.cpp:148] Top shape: 24 128 28 28 (2408448)
I0403 21:37:17.883484 23651 net.cpp:156] Memory required for data: 667141152
I0403 21:37:17.883504 23651 layer_factory.hpp:77] Creating layer inception_3b/relu_1x1
I0403 21:37:17.883525 23651 net.cpp:91] Creating Layer inception_3b/relu_1x1
I0403 21:37:17.883544 23651 net.cpp:425] inception_3b/relu_1x1 <- inception_3b/1x1
I0403 21:37:17.883563 23651 net.cpp:386] inception_3b/relu_1x1 -> inception_3b/1x1 (in-place)
I0403 21:37:17.883736 23651 net.cpp:141] Setting up inception_3b/relu_1x1
I0403 21:37:17.883765 23651 net.cpp:148] Top shape: 24 128 28 28 (2408448)
I0403 21:37:17.883782 23651 net.cpp:156] Memory required for data: 676774944
I0403 21:37:17.883798 23651 layer_factory.hpp:77] Creating layer inception_3b/3x3_reduce
I0403 21:37:17.883822 23651 net.cpp:91] Creating Layer inception_3b/3x3_reduce
I0403 21:37:17.883841 23651 net.cpp:425] inception_3b/3x3_reduce <- inception_3a/output_inception_3a/output_0_split_1
I0403 21:37:17.883862 23651 net.cpp:399] inception_3b/3x3_reduce -> inception_3b/3x3_reduce
I0403 21:37:17.884985 23651 net.cpp:141] Setting up inception_3b/3x3_reduce
I0403 21:37:17.885015 23651 net.cpp:148] Top shape: 24 128 28 28 (2408448)
I0403 21:37:17.885031 23651 net.cpp:156] Memory required for data: 686408736
I0403 21:37:17.885051 23651 layer_factory.hpp:77] Creating layer inception_3b/relu_3x3_reduce
I0403 21:37:17.885072 23651 net.cpp:91] Creating Layer inception_3b/relu_3x3_reduce
I0403 21:37:17.885092 23651 net.cpp:425] inception_3b/relu_3x3_reduce <- inception_3b/3x3_reduce
I0403 21:37:17.885112 23651 net.cpp:386] inception_3b/relu_3x3_reduce -> inception_3b/3x3_reduce (in-place)
I0403 21:37:17.885288 23651 net.cpp:141] Setting up inception_3b/relu_3x3_reduce
I0403 21:37:17.885316 23651 net.cpp:148] Top shape: 24 128 28 28 (2408448)
I0403 21:37:17.885334 23651 net.cpp:156] Memory required for data: 696042528
I0403 21:37:17.885350 23651 layer_factory.hpp:77] Creating layer inception_3b/3x3
I0403 21:37:17.885376 23651 net.cpp:91] Creating Layer inception_3b/3x3
I0403 21:37:17.885396 23651 net.cpp:425] inception_3b/3x3 <- inception_3b/3x3_reduce
I0403 21:37:17.885421 23651 net.cpp:399] inception_3b/3x3 -> inception_3b/3x3
I0403 21:37:17.888355 23651 net.cpp:141] Setting up inception_3b/3x3
I0403 21:37:17.888386 23651 net.cpp:148] Top shape: 24 192 28 28 (3612672)
I0403 21:37:17.888403 23651 net.cpp:156] Memory required for data: 710493216
I0403 21:37:17.888424 23651 layer_factory.hpp:77] Creating layer inception_3b/relu_3x3
I0403 21:37:17.888444 23651 net.cpp:91] Creating Layer inception_3b/relu_3x3
I0403 21:37:17.888460 23651 net.cpp:425] inception_3b/relu_3x3 <- inception_3b/3x3
I0403 21:37:17.888478 23651 net.cpp:386] inception_3b/relu_3x3 -> inception_3b/3x3 (in-place)
I0403 21:37:17.888752 23651 net.cpp:141] Setting up inception_3b/relu_3x3
I0403 21:37:17.888782 23651 net.cpp:148] Top shape: 24 192 28 28 (3612672)
I0403 21:37:17.888799 23651 net.cpp:156] Memory required for data: 724943904
I0403 21:37:17.888815 23651 layer_factory.hpp:77] Creating layer inception_3b/5x5_reduce
I0403 21:37:17.888839 23651 net.cpp:91] Creating Layer inception_3b/5x5_reduce
I0403 21:37:17.888857 23651 net.cpp:425] inception_3b/5x5_reduce <- inception_3a/output_inception_3a/output_0_split_2
I0403 21:37:17.888877 23651 net.cpp:399] inception_3b/5x5_reduce -> inception_3b/5x5_reduce
I0403 21:37:17.889859 23651 net.cpp:141] Setting up inception_3b/5x5_reduce
I0403 21:37:17.889890 23651 net.cpp:148] Top shape: 24 32 28 28 (602112)
I0403 21:37:17.889909 23651 net.cpp:156] Memory required for data: 727352352
I0403 21:37:17.889928 23651 layer_factory.hpp:77] Creating layer inception_3b/relu_5x5_reduce
I0403 21:37:17.889946 23651 net.cpp:91] Creating Layer inception_3b/relu_5x5_reduce
I0403 21:37:17.889964 23651 net.cpp:425] inception_3b/relu_5x5_reduce <- inception_3b/5x5_reduce
I0403 21:37:17.889982 23651 net.cpp:386] inception_3b/relu_5x5_reduce -> inception_3b/5x5_reduce (in-place)
I0403 21:37:17.890189 23651 net.cpp:141] Setting up inception_3b/relu_5x5_reduce
I0403 21:37:17.890223 23651 net.cpp:148] Top shape: 24 32 28 28 (602112)
I0403 21:37:17.890240 23651 net.cpp:156] Memory required for data: 729760800
I0403 21:37:17.890257 23651 layer_factory.hpp:77] Creating layer inception_3b/5x5
I0403 21:37:17.890280 23651 net.cpp:91] Creating Layer inception_3b/5x5
I0403 21:37:17.890300 23651 net.cpp:425] inception_3b/5x5 <- inception_3b/5x5_reduce
I0403 21:37:17.890321 23651 net.cpp:399] inception_3b/5x5 -> inception_3b/5x5
I0403 21:37:17.892307 23651 net.cpp:141] Setting up inception_3b/5x5
I0403 21:37:17.892336 23651 net.cpp:148] Top shape: 24 96 28 28 (1806336)
I0403 21:37:17.892354 23651 net.cpp:156] Memory required for data: 736986144
I0403 21:37:17.892374 23651 layer_factory.hpp:77] Creating layer inception_3b/relu_5x5
I0403 21:37:17.892396 23651 net.cpp:91] Creating Layer inception_3b/relu_5x5
I0403 21:37:17.892416 23651 net.cpp:425] inception_3b/relu_5x5 <- inception_3b/5x5
I0403 21:37:17.892433 23651 net.cpp:386] inception_3b/relu_5x5 -> inception_3b/5x5 (in-place)
I0403 21:37:17.892627 23651 net.cpp:141] Setting up inception_3b/relu_5x5
I0403 21:37:17.892654 23651 net.cpp:148] Top shape: 24 96 28 28 (1806336)
I0403 21:37:17.892671 23651 net.cpp:156] Memory required for data: 744211488
I0403 21:37:17.892688 23651 layer_factory.hpp:77] Creating layer inception_3b/pool
I0403 21:37:17.892706 23651 net.cpp:91] Creating Layer inception_3b/pool
I0403 21:37:17.892724 23651 net.cpp:425] inception_3b/pool <- inception_3a/output_inception_3a/output_0_split_3
I0403 21:37:17.892743 23651 net.cpp:399] inception_3b/pool -> inception_3b/pool
I0403 21:37:17.892799 23651 net.cpp:141] Setting up inception_3b/pool
I0403 21:37:17.892823 23651 net.cpp:148] Top shape: 24 256 28 28 (4816896)
I0403 21:37:17.892839 23651 net.cpp:156] Memory required for data: 763479072
I0403 21:37:17.892854 23651 layer_factory.hpp:77] Creating layer inception_3b/pool_proj
I0403 21:37:17.892879 23651 net.cpp:91] Creating Layer inception_3b/pool_proj
I0403 21:37:17.892897 23651 net.cpp:425] inception_3b/pool_proj <- inception_3b/pool
I0403 21:37:17.892920 23651 net.cpp:399] inception_3b/pool_proj -> inception_3b/pool_proj
I0403 21:37:17.893980 23651 net.cpp:141] Setting up inception_3b/pool_proj
I0403 21:37:17.894008 23651 net.cpp:148] Top shape: 24 64 28 28 (1204224)
I0403 21:37:17.894026 23651 net.cpp:156] Memory required for data: 768295968
I0403 21:37:17.894044 23651 layer_factory.hpp:77] Creating layer inception_3b/relu_pool_proj
I0403 21:37:17.894073 23651 net.cpp:91] Creating Layer inception_3b/relu_pool_proj
I0403 21:37:17.894089 23651 net.cpp:425] inception_3b/relu_pool_proj <- inception_3b/pool_proj
I0403 21:37:17.894110 23651 net.cpp:386] inception_3b/relu_pool_proj -> inception_3b/pool_proj (in-place)
I0403 21:37:17.894546 23651 net.cpp:141] Setting up inception_3b/relu_pool_proj
I0403 21:37:17.894575 23651 net.cpp:148] Top shape: 24 64 28 28 (1204224)
I0403 21:37:17.894592 23651 net.cpp:156] Memory required for data: 773112864
I0403 21:37:17.894608 23651 layer_factory.hpp:77] Creating layer inception_3b/output
I0403 21:37:17.894626 23651 net.cpp:91] Creating Layer inception_3b/output
I0403 21:37:17.894642 23651 net.cpp:425] inception_3b/output <- inception_3b/1x1
I0403 21:37:17.894660 23651 net.cpp:425] inception_3b/output <- inception_3b/3x3
I0403 21:37:17.894676 23651 net.cpp:425] inception_3b/output <- inception_3b/5x5
I0403 21:37:17.894692 23651 net.cpp:425] inception_3b/output <- inception_3b/pool_proj
I0403 21:37:17.894711 23651 net.cpp:399] inception_3b/output -> inception_3b/output
I0403 21:37:17.894755 23651 net.cpp:141] Setting up inception_3b/output
I0403 21:37:17.894780 23651 net.cpp:148] Top shape: 24 480 28 28 (9031680)
I0403 21:37:17.894795 23651 net.cpp:156] Memory required for data: 809239584
I0403 21:37:17.894810 23651 layer_factory.hpp:77] Creating layer pool3/3x3_s2
I0403 21:37:17.894831 23651 net.cpp:91] Creating Layer pool3/3x3_s2
I0403 21:37:17.894848 23651 net.cpp:425] pool3/3x3_s2 <- inception_3b/output
I0403 21:37:17.894883 23651 net.cpp:399] pool3/3x3_s2 -> pool3/3x3_s2
I0403 21:37:17.894944 23651 net.cpp:141] Setting up pool3/3x3_s2
I0403 21:37:17.894969 23651 net.cpp:148] Top shape: 24 480 14 14 (2257920)
I0403 21:37:17.894985 23651 net.cpp:156] Memory required for data: 818271264
I0403 21:37:17.895001 23651 layer_factory.hpp:77] Creating layer pool3/3x3_s2_pool3/3x3_s2_0_split
I0403 21:37:17.895020 23651 net.cpp:91] Creating Layer pool3/3x3_s2_pool3/3x3_s2_0_split
I0403 21:37:17.895035 23651 net.cpp:425] pool3/3x3_s2_pool3/3x3_s2_0_split <- pool3/3x3_s2
I0403 21:37:17.895056 23651 net.cpp:399] pool3/3x3_s2_pool3/3x3_s2_0_split -> pool3/3x3_s2_pool3/3x3_s2_0_split_0
I0403 21:37:17.895077 23651 net.cpp:399] pool3/3x3_s2_pool3/3x3_s2_0_split -> pool3/3x3_s2_pool3/3x3_s2_0_split_1
I0403 21:37:17.895098 23651 net.cpp:399] pool3/3x3_s2_pool3/3x3_s2_0_split -> pool3/3x3_s2_pool3/3x3_s2_0_split_2
I0403 21:37:17.895118 23651 net.cpp:399] pool3/3x3_s2_pool3/3x3_s2_0_split -> pool3/3x3_s2_pool3/3x3_s2_0_split_3
I0403 21:37:17.895213 23651 net.cpp:141] Setting up pool3/3x3_s2_pool3/3x3_s2_0_split
I0403 21:37:17.895241 23651 net.cpp:148] Top shape: 24 480 14 14 (2257920)
I0403 21:37:17.895259 23651 net.cpp:148] Top shape: 24 480 14 14 (2257920)
I0403 21:37:17.895277 23651 net.cpp:148] Top shape: 24 480 14 14 (2257920)
I0403 21:37:17.895292 23651 net.cpp:148] Top shape: 24 480 14 14 (2257920)
I0403 21:37:17.895308 23651 net.cpp:156] Memory required for data: 854397984
I0403 21:37:17.895323 23651 layer_factory.hpp:77] Creating layer inception_4a/1x1
I0403 21:37:17.895347 23651 net.cpp:91] Creating Layer inception_4a/1x1
I0403 21:37:17.895366 23651 net.cpp:425] inception_4a/1x1 <- pool3/3x3_s2_pool3/3x3_s2_0_split_0
I0403 21:37:17.895390 23651 net.cpp:399] inception_4a/1x1 -> inception_4a/1x1
I0403 21:37:17.897032 23651 net.cpp:141] Setting up inception_4a/1x1
I0403 21:37:17.897060 23651 net.cpp:148] Top shape: 24 192 14 14 (903168)
I0403 21:37:17.897078 23651 net.cpp:156] Memory required for data: 858010656
I0403 21:37:17.897096 23651 layer_factory.hpp:77] Creating layer inception_4a/relu_1x1
I0403 21:37:17.897119 23651 net.cpp:91] Creating Layer inception_4a/relu_1x1
I0403 21:37:17.897137 23651 net.cpp:425] inception_4a/relu_1x1 <- inception_4a/1x1
I0403 21:37:17.897156 23651 net.cpp:386] inception_4a/relu_1x1 -> inception_4a/1x1 (in-place)
I0403 21:37:17.897354 23651 net.cpp:141] Setting up inception_4a/relu_1x1
I0403 21:37:17.897382 23651 net.cpp:148] Top shape: 24 192 14 14 (903168)
I0403 21:37:17.897397 23651 net.cpp:156] Memory required for data: 861623328
I0403 21:37:17.897413 23651 layer_factory.hpp:77] Creating layer inception_4a/3x3_reduce
I0403 21:37:17.897438 23651 net.cpp:91] Creating Layer inception_4a/3x3_reduce
I0403 21:37:17.897456 23651 net.cpp:425] inception_4a/3x3_reduce <- pool3/3x3_s2_pool3/3x3_s2_0_split_1
I0403 21:37:17.897490 23651 net.cpp:399] inception_4a/3x3_reduce -> inception_4a/3x3_reduce
I0403 21:37:17.898753 23651 net.cpp:141] Setting up inception_4a/3x3_reduce
I0403 21:37:17.898782 23651 net.cpp:148] Top shape: 24 96 14 14 (451584)
I0403 21:37:17.898798 23651 net.cpp:156] Memory required for data: 863429664
I0403 21:37:17.898823 23651 layer_factory.hpp:77] Creating layer inception_4a/relu_3x3_reduce
I0403 21:37:17.898844 23651 net.cpp:91] Creating Layer inception_4a/relu_3x3_reduce
I0403 21:37:17.898861 23651 net.cpp:425] inception_4a/relu_3x3_reduce <- inception_4a/3x3_reduce
I0403 21:37:17.898881 23651 net.cpp:386] inception_4a/relu_3x3_reduce -> inception_4a/3x3_reduce (in-place)
I0403 21:37:17.899055 23651 net.cpp:141] Setting up inception_4a/relu_3x3_reduce
I0403 21:37:17.899080 23651 net.cpp:148] Top shape: 24 96 14 14 (451584)
I0403 21:37:17.899096 23651 net.cpp:156] Memory required for data: 865236000
I0403 21:37:17.899112 23651 layer_factory.hpp:77] Creating layer inception_4a/3x3
I0403 21:37:17.899134 23651 net.cpp:91] Creating Layer inception_4a/3x3
I0403 21:37:17.899153 23651 net.cpp:425] inception_4a/3x3 <- inception_4a/3x3_reduce
I0403 21:37:17.899175 23651 net.cpp:399] inception_4a/3x3 -> inception_4a/3x3
I0403 21:37:17.901856 23651 net.cpp:141] Setting up inception_4a/3x3
I0403 21:37:17.901886 23651 net.cpp:148] Top shape: 24 208 14 14 (978432)
I0403 21:37:17.901902 23651 net.cpp:156] Memory required for data: 869149728
I0403 21:37:17.901923 23651 layer_factory.hpp:77] Creating layer inception_4a/relu_3x3
I0403 21:37:17.901944 23651 net.cpp:91] Creating Layer inception_4a/relu_3x3
I0403 21:37:17.901962 23651 net.cpp:425] inception_4a/relu_3x3 <- inception_4a/3x3
I0403 21:37:17.901981 23651 net.cpp:386] inception_4a/relu_3x3 -> inception_4a/3x3 (in-place)
I0403 21:37:17.902264 23651 net.cpp:141] Setting up inception_4a/relu_3x3
I0403 21:37:17.902292 23651 net.cpp:148] Top shape: 24 208 14 14 (978432)
I0403 21:37:17.902308 23651 net.cpp:156] Memory required for data: 873063456
I0403 21:37:17.902325 23651 layer_factory.hpp:77] Creating layer inception_4a/5x5_reduce
I0403 21:37:17.902348 23651 net.cpp:91] Creating Layer inception_4a/5x5_reduce
I0403 21:37:17.902366 23651 net.cpp:425] inception_4a/5x5_reduce <- pool3/3x3_s2_pool3/3x3_s2_0_split_2
I0403 21:37:17.902389 23651 net.cpp:399] inception_4a/5x5_reduce -> inception_4a/5x5_reduce
I0403 21:37:17.903419 23651 net.cpp:141] Setting up inception_4a/5x5_reduce
I0403 21:37:17.903447 23651 net.cpp:148] Top shape: 24 16 14 14 (75264)
I0403 21:37:17.903478 23651 net.cpp:156] Memory required for data: 873364512
I0403 21:37:17.903498 23651 layer_factory.hpp:77] Creating layer inception_4a/relu_5x5_reduce
I0403 21:37:17.903520 23651 net.cpp:91] Creating Layer inception_4a/relu_5x5_reduce
I0403 21:37:17.903537 23651 net.cpp:425] inception_4a/relu_5x5_reduce <- inception_4a/5x5_reduce
I0403 21:37:17.903555 23651 net.cpp:386] inception_4a/relu_5x5_reduce -> inception_4a/5x5_reduce (in-place)
I0403 21:37:17.903736 23651 net.cpp:141] Setting up inception_4a/relu_5x5_reduce
I0403 21:37:17.903765 23651 net.cpp:148] Top shape: 24 16 14 14 (75264)
I0403 21:37:17.903781 23651 net.cpp:156] Memory required for data: 873665568
I0403 21:37:17.903797 23651 layer_factory.hpp:77] Creating layer inception_4a/5x5
I0403 21:37:17.903820 23651 net.cpp:91] Creating Layer inception_4a/5x5
I0403 21:37:17.903841 23651 net.cpp:425] inception_4a/5x5 <- inception_4a/5x5_reduce
I0403 21:37:17.903861 23651 net.cpp:399] inception_4a/5x5 -> inception_4a/5x5
I0403 21:37:17.904968 23651 net.cpp:141] Setting up inception_4a/5x5
I0403 21:37:17.904996 23651 net.cpp:148] Top shape: 24 48 14 14 (225792)
I0403 21:37:17.905014 23651 net.cpp:156] Memory required for data: 874568736
I0403 21:37:17.905033 23651 layer_factory.hpp:77] Creating layer inception_4a/relu_5x5
I0403 21:37:17.905052 23651 net.cpp:91] Creating Layer inception_4a/relu_5x5
I0403 21:37:17.905071 23651 net.cpp:425] inception_4a/relu_5x5 <- inception_4a/5x5
I0403 21:37:17.905092 23651 net.cpp:386] inception_4a/relu_5x5 -> inception_4a/5x5 (in-place)
I0403 21:37:17.905272 23651 net.cpp:141] Setting up inception_4a/relu_5x5
I0403 21:37:17.905298 23651 net.cpp:148] Top shape: 24 48 14 14 (225792)
I0403 21:37:17.905314 23651 net.cpp:156] Memory required for data: 875471904
I0403 21:37:17.905330 23651 layer_factory.hpp:77] Creating layer inception_4a/pool
I0403 21:37:17.905351 23651 net.cpp:91] Creating Layer inception_4a/pool
I0403 21:37:17.905370 23651 net.cpp:425] inception_4a/pool <- pool3/3x3_s2_pool3/3x3_s2_0_split_3
I0403 21:37:17.905390 23651 net.cpp:399] inception_4a/pool -> inception_4a/pool
I0403 21:37:17.905454 23651 net.cpp:141] Setting up inception_4a/pool
I0403 21:37:17.905478 23651 net.cpp:148] Top shape: 24 480 14 14 (2257920)
I0403 21:37:17.905493 23651 net.cpp:156] Memory required for data: 884503584
I0403 21:37:17.905508 23651 layer_factory.hpp:77] Creating layer inception_4a/pool_proj
I0403 21:37:17.905531 23651 net.cpp:91] Creating Layer inception_4a/pool_proj
I0403 21:37:17.905550 23651 net.cpp:425] inception_4a/pool_proj <- inception_4a/pool
I0403 21:37:17.905570 23651 net.cpp:399] inception_4a/pool_proj -> inception_4a/pool_proj
I0403 21:37:17.906761 23651 net.cpp:141] Setting up inception_4a/pool_proj
I0403 21:37:17.906790 23651 net.cpp:148] Top shape: 24 64 14 14 (301056)
I0403 21:37:17.906819 23651 net.cpp:156] Memory required for data: 885707808
I0403 21:37:17.906841 23651 layer_factory.hpp:77] Creating layer inception_4a/relu_pool_proj
I0403 21:37:17.906859 23651 net.cpp:91] Creating Layer inception_4a/relu_pool_proj
I0403 21:37:17.906877 23651 net.cpp:425] inception_4a/relu_pool_proj <- inception_4a/pool_proj
I0403 21:37:17.906898 23651 net.cpp:386] inception_4a/relu_pool_proj -> inception_4a/pool_proj (in-place)
I0403 21:37:17.907182 23651 net.cpp:141] Setting up inception_4a/relu_pool_proj
I0403 21:37:17.907213 23651 net.cpp:148] Top shape: 24 64 14 14 (301056)
I0403 21:37:17.907229 23651 net.cpp:156] Memory required for data: 886912032
I0403 21:37:17.907245 23651 layer_factory.hpp:77] Creating layer inception_4a/output
I0403 21:37:17.907264 23651 net.cpp:91] Creating Layer inception_4a/output
I0403 21:37:17.907280 23651 net.cpp:425] inception_4a/output <- inception_4a/1x1
I0403 21:37:17.907297 23651 net.cpp:425] inception_4a/output <- inception_4a/3x3
I0403 21:37:17.907313 23651 net.cpp:425] inception_4a/output <- inception_4a/5x5
I0403 21:37:17.907330 23651 net.cpp:425] inception_4a/output <- inception_4a/pool_proj
I0403 21:37:17.907351 23651 net.cpp:399] inception_4a/output -> inception_4a/output
I0403 21:37:17.907394 23651 net.cpp:141] Setting up inception_4a/output
I0403 21:37:17.907420 23651 net.cpp:148] Top shape: 24 512 14 14 (2408448)
I0403 21:37:17.907438 23651 net.cpp:156] Memory required for data: 896545824
I0403 21:37:17.907452 23651 layer_factory.hpp:77] Creating layer inception_4a/output_inception_4a/output_0_split
I0403 21:37:17.907471 23651 net.cpp:91] Creating Layer inception_4a/output_inception_4a/output_0_split
I0403 21:37:17.907487 23651 net.cpp:425] inception_4a/output_inception_4a/output_0_split <- inception_4a/output
I0403 21:37:17.907506 23651 net.cpp:399] inception_4a/output_inception_4a/output_0_split -> inception_4a/output_inception_4a/output_0_split_0
I0403 21:37:17.907531 23651 net.cpp:399] inception_4a/output_inception_4a/output_0_split -> inception_4a/output_inception_4a/output_0_split_1
I0403 21:37:17.907552 23651 net.cpp:399] inception_4a/output_inception_4a/output_0_split -> inception_4a/output_inception_4a/output_0_split_2
I0403 21:37:17.907573 23651 net.cpp:399] inception_4a/output_inception_4a/output_0_split -> inception_4a/output_inception_4a/output_0_split_3
I0403 21:37:17.907594 23651 net.cpp:399] inception_4a/output_inception_4a/output_0_split -> inception_4a/output_inception_4a/output_0_split_4
I0403 21:37:17.907690 23651 net.cpp:141] Setting up inception_4a/output_inception_4a/output_0_split
I0403 21:37:17.907713 23651 net.cpp:148] Top shape: 24 512 14 14 (2408448)
I0403 21:37:17.907733 23651 net.cpp:148] Top shape: 24 512 14 14 (2408448)
I0403 21:37:17.907752 23651 net.cpp:148] Top shape: 24 512 14 14 (2408448)
I0403 21:37:17.907768 23651 net.cpp:148] Top shape: 24 512 14 14 (2408448)
I0403 21:37:17.907783 23651 net.cpp:148] Top shape: 24 512 14 14 (2408448)
I0403 21:37:17.907798 23651 net.cpp:156] Memory required for data: 944714784
I0403 21:37:17.907814 23651 layer_factory.hpp:77] Creating layer loss1/ave_pool
I0403 21:37:17.907831 23651 net.cpp:91] Creating Layer loss1/ave_pool
I0403 21:37:17.907847 23651 net.cpp:425] loss1/ave_pool <- inception_4a/output_inception_4a/output_0_split_0
I0403 21:37:17.907866 23651 net.cpp:399] loss1/ave_pool -> loss1/ave_pool
I0403 21:37:17.908072 23651 net.cpp:141] Setting up loss1/ave_pool
I0403 21:37:17.908098 23651 net.cpp:148] Top shape: 24 512 4 4 (196608)
I0403 21:37:17.908114 23651 net.cpp:156] Memory required for data: 945501216
I0403 21:37:17.908129 23651 layer_factory.hpp:77] Creating layer loss1/conv
I0403 21:37:17.908152 23651 net.cpp:91] Creating Layer loss1/conv
I0403 21:37:17.908171 23651 net.cpp:425] loss1/conv <- loss1/ave_pool
I0403 21:37:17.908192 23651 net.cpp:399] loss1/conv -> loss1/conv
I0403 21:37:17.909610 23651 net.cpp:141] Setting up loss1/conv
I0403 21:37:17.909638 23651 net.cpp:148] Top shape: 24 128 4 4 (49152)
I0403 21:37:17.909668 23651 net.cpp:156] Memory required for data: 945697824
I0403 21:37:17.909690 23651 layer_factory.hpp:77] Creating layer loss1/relu_conv
I0403 21:37:17.909711 23651 net.cpp:91] Creating Layer loss1/relu_conv
I0403 21:37:17.909729 23651 net.cpp:425] loss1/relu_conv <- loss1/conv
I0403 21:37:17.909747 23651 net.cpp:386] loss1/relu_conv -> loss1/conv (in-place)
I0403 21:37:17.910032 23651 net.cpp:141] Setting up loss1/relu_conv
I0403 21:37:17.910058 23651 net.cpp:148] Top shape: 24 128 4 4 (49152)
I0403 21:37:17.910075 23651 net.cpp:156] Memory required for data: 945894432
I0403 21:37:17.910090 23651 layer_factory.hpp:77] Creating layer loss1/fc
I0403 21:37:17.910116 23651 net.cpp:91] Creating Layer loss1/fc
I0403 21:37:17.910135 23651 net.cpp:425] loss1/fc <- loss1/conv
I0403 21:37:17.910154 23651 net.cpp:399] loss1/fc -> loss1/fc
I0403 21:37:17.928134 23651 net.cpp:141] Setting up loss1/fc
I0403 21:37:17.928169 23651 net.cpp:148] Top shape: 24 1024 (24576)
I0403 21:37:17.928185 23651 net.cpp:156] Memory required for data: 945992736
I0403 21:37:17.928213 23651 layer_factory.hpp:77] Creating layer loss1/relu_fc
I0403 21:37:17.928236 23651 net.cpp:91] Creating Layer loss1/relu_fc
I0403 21:37:17.928252 23651 net.cpp:425] loss1/relu_fc <- loss1/fc
I0403 21:37:17.928273 23651 net.cpp:386] loss1/relu_fc -> loss1/fc (in-place)
I0403 21:37:17.928467 23651 net.cpp:141] Setting up loss1/relu_fc
I0403 21:37:17.928493 23651 net.cpp:148] Top shape: 24 1024 (24576)
I0403 21:37:17.928508 23651 net.cpp:156] Memory required for data: 946091040
I0403 21:37:17.928524 23651 layer_factory.hpp:77] Creating layer loss1/drop_fc
I0403 21:37:17.928552 23651 net.cpp:91] Creating Layer loss1/drop_fc
I0403 21:37:17.928571 23651 net.cpp:425] loss1/drop_fc <- loss1/fc
I0403 21:37:17.928589 23651 net.cpp:386] loss1/drop_fc -> loss1/fc (in-place)
I0403 21:37:17.928639 23651 net.cpp:141] Setting up loss1/drop_fc
I0403 21:37:17.928668 23651 net.cpp:148] Top shape: 24 1024 (24576)
I0403 21:37:17.928684 23651 net.cpp:156] Memory required for data: 946189344
I0403 21:37:17.928700 23651 layer_factory.hpp:77] Creating layer loss1/classifier_plantvillage
I0403 21:37:17.928719 23651 net.cpp:91] Creating Layer loss1/classifier_plantvillage
I0403 21:37:17.928735 23651 net.cpp:425] loss1/classifier_plantvillage <- loss1/fc
I0403 21:37:17.928757 23651 net.cpp:399] loss1/classifier_plantvillage -> loss1/classifier_plantvillage
I0403 21:37:17.929713 23651 net.cpp:141] Setting up loss1/classifier_plantvillage
I0403 21:37:17.929740 23651 net.cpp:148] Top shape: 24 38 (912)
I0403 21:37:17.929756 23651 net.cpp:156] Memory required for data: 946192992
I0403 21:37:17.929776 23651 layer_factory.hpp:77] Creating layer loss1/classifier_plantvillage_loss1/classifier_plantvillage_0_split
I0403 21:37:17.929796 23651 net.cpp:91] Creating Layer loss1/classifier_plantvillage_loss1/classifier_plantvillage_0_split
I0403 21:37:17.929816 23651 net.cpp:425] loss1/classifier_plantvillage_loss1/classifier_plantvillage_0_split <- loss1/classifier_plantvillage
I0403 21:37:17.929834 23651 net.cpp:399] loss1/classifier_plantvillage_loss1/classifier_plantvillage_0_split -> loss1/classifier_plantvillage_loss1/classifier_plantvillage_0_split_0
I0403 21:37:17.929855 23651 net.cpp:399] loss1/classifier_plantvillage_loss1/classifier_plantvillage_0_split -> loss1/classifier_plantvillage_loss1/classifier_plantvillage_0_split_1
I0403 21:37:17.929877 23651 net.cpp:399] loss1/classifier_plantvillage_loss1/classifier_plantvillage_0_split -> loss1/classifier_plantvillage_loss1/classifier_plantvillage_0_split_2
I0403 21:37:17.929942 23651 net.cpp:141] Setting up loss1/classifier_plantvillage_loss1/classifier_plantvillage_0_split
I0403 21:37:17.929970 23651 net.cpp:148] Top shape: 24 38 (912)
I0403 21:37:17.929987 23651 net.cpp:148] Top shape: 24 38 (912)
I0403 21:37:17.930004 23651 net.cpp:148] Top shape: 24 38 (912)
I0403 21:37:17.930019 23651 net.cpp:156] Memory required for data: 946203936
I0403 21:37:17.930034 23651 layer_factory.hpp:77] Creating layer inception_4b/1x1
I0403 21:37:17.930057 23651 net.cpp:91] Creating Layer inception_4b/1x1
I0403 21:37:17.930089 23651 net.cpp:425] inception_4b/1x1 <- inception_4a/output_inception_4a/output_0_split_1
I0403 21:37:17.930114 23651 net.cpp:399] inception_4b/1x1 -> inception_4b/1x1
I0403 21:37:17.931746 23651 net.cpp:141] Setting up inception_4b/1x1
I0403 21:37:17.931776 23651 net.cpp:148] Top shape: 24 160 14 14 (752640)
I0403 21:37:17.931792 23651 net.cpp:156] Memory required for data: 949214496
I0403 21:37:17.931812 23651 layer_factory.hpp:77] Creating layer inception_4b/relu_1x1
I0403 21:37:17.931833 23651 net.cpp:91] Creating Layer inception_4b/relu_1x1
I0403 21:37:17.931850 23651 net.cpp:425] inception_4b/relu_1x1 <- inception_4b/1x1
I0403 21:37:17.931869 23651 net.cpp:386] inception_4b/relu_1x1 -> inception_4b/1x1 (in-place)
I0403 21:37:17.932054 23651 net.cpp:141] Setting up inception_4b/relu_1x1
I0403 21:37:17.932081 23651 net.cpp:148] Top shape: 24 160 14 14 (752640)
I0403 21:37:17.932098 23651 net.cpp:156] Memory required for data: 952225056
I0403 21:37:17.932113 23651 layer_factory.hpp:77] Creating layer inception_4b/3x3_reduce
I0403 21:37:17.932137 23651 net.cpp:91] Creating Layer inception_4b/3x3_reduce
I0403 21:37:17.932155 23651 net.cpp:425] inception_4b/3x3_reduce <- inception_4a/output_inception_4a/output_0_split_2
I0403 21:37:17.932175 23651 net.cpp:399] inception_4b/3x3_reduce -> inception_4b/3x3_reduce
I0403 21:37:17.933519 23651 net.cpp:141] Setting up inception_4b/3x3_reduce
I0403 21:37:17.933552 23651 net.cpp:148] Top shape: 24 112 14 14 (526848)
I0403 21:37:17.933568 23651 net.cpp:156] Memory required for data: 954332448
I0403 21:37:17.933588 23651 layer_factory.hpp:77] Creating layer inception_4b/relu_3x3_reduce
I0403 21:37:17.933607 23651 net.cpp:91] Creating Layer inception_4b/relu_3x3_reduce
I0403 21:37:17.933624 23651 net.cpp:425] inception_4b/relu_3x3_reduce <- inception_4b/3x3_reduce
I0403 21:37:17.933645 23651 net.cpp:386] inception_4b/relu_3x3_reduce -> inception_4b/3x3_reduce (in-place)
I0403 21:37:17.933924 23651 net.cpp:141] Setting up inception_4b/relu_3x3_reduce
I0403 21:37:17.933953 23651 net.cpp:148] Top shape: 24 112 14 14 (526848)
I0403 21:37:17.933969 23651 net.cpp:156] Memory required for data: 956439840
I0403 21:37:17.933985 23651 layer_factory.hpp:77] Creating layer inception_4b/3x3
I0403 21:37:17.934008 23651 net.cpp:91] Creating Layer inception_4b/3x3
I0403 21:37:17.934026 23651 net.cpp:425] inception_4b/3x3 <- inception_4b/3x3_reduce
I0403 21:37:17.934046 23651 net.cpp:399] inception_4b/3x3 -> inception_4b/3x3
I0403 21:37:17.937094 23651 net.cpp:141] Setting up inception_4b/3x3
I0403 21:37:17.937124 23651 net.cpp:148] Top shape: 24 224 14 14 (1053696)
I0403 21:37:17.937139 23651 net.cpp:156] Memory required for data: 960654624
I0403 21:37:17.937160 23651 layer_factory.hpp:77] Creating layer inception_4b/relu_3x3
I0403 21:37:17.937180 23651 net.cpp:91] Creating Layer inception_4b/relu_3x3
I0403 21:37:17.937201 23651 net.cpp:425] inception_4b/relu_3x3 <- inception_4b/3x3
I0403 21:37:17.937222 23651 net.cpp:386] inception_4b/relu_3x3 -> inception_4b/3x3 (in-place)
I0403 21:37:17.937402 23651 net.cpp:141] Setting up inception_4b/relu_3x3
I0403 21:37:17.937427 23651 net.cpp:148] Top shape: 24 224 14 14 (1053696)
I0403 21:37:17.937443 23651 net.cpp:156] Memory required for data: 964869408
I0403 21:37:17.937459 23651 layer_factory.hpp:77] Creating layer inception_4b/5x5_reduce
I0403 21:37:17.937485 23651 net.cpp:91] Creating Layer inception_4b/5x5_reduce
I0403 21:37:17.937505 23651 net.cpp:425] inception_4b/5x5_reduce <- inception_4a/output_inception_4a/output_0_split_3
I0403 21:37:17.937525 23651 net.cpp:399] inception_4b/5x5_reduce -> inception_4b/5x5_reduce
I0403 21:37:17.938642 23651 net.cpp:141] Setting up inception_4b/5x5_reduce
I0403 21:37:17.938670 23651 net.cpp:148] Top shape: 24 24 14 14 (112896)
I0403 21:37:17.938686 23651 net.cpp:156] Memory required for data: 965320992
I0403 21:37:17.938707 23651 layer_factory.hpp:77] Creating layer inception_4b/relu_5x5_reduce
I0403 21:37:17.938727 23651 net.cpp:91] Creating Layer inception_4b/relu_5x5_reduce
I0403 21:37:17.938760 23651 net.cpp:425] inception_4b/relu_5x5_reduce <- inception_4b/5x5_reduce
I0403 21:37:17.938779 23651 net.cpp:386] inception_4b/relu_5x5_reduce -> inception_4b/5x5_reduce (in-place)
I0403 21:37:17.938963 23651 net.cpp:141] Setting up inception_4b/relu_5x5_reduce
I0403 21:37:17.938989 23651 net.cpp:148] Top shape: 24 24 14 14 (112896)
I0403 21:37:17.939004 23651 net.cpp:156] Memory required for data: 965772576
I0403 21:37:17.939020 23651 layer_factory.hpp:77] Creating layer inception_4b/5x5
I0403 21:37:17.939043 23651 net.cpp:91] Creating Layer inception_4b/5x5
I0403 21:37:17.939060 23651 net.cpp:425] inception_4b/5x5 <- inception_4b/5x5_reduce
I0403 21:37:17.939082 23651 net.cpp:399] inception_4b/5x5 -> inception_4b/5x5
I0403 21:37:17.940309 23651 net.cpp:141] Setting up inception_4b/5x5
I0403 21:37:17.940336 23651 net.cpp:148] Top shape: 24 64 14 14 (301056)
I0403 21:37:17.940353 23651 net.cpp:156] Memory required for data: 966976800
I0403 21:37:17.940373 23651 layer_factory.hpp:77] Creating layer inception_4b/relu_5x5
I0403 21:37:17.940397 23651 net.cpp:91] Creating Layer inception_4b/relu_5x5
I0403 21:37:17.940415 23651 net.cpp:425] inception_4b/relu_5x5 <- inception_4b/5x5
I0403 21:37:17.940433 23651 net.cpp:386] inception_4b/relu_5x5 -> inception_4b/5x5 (in-place)
I0403 21:37:17.940722 23651 net.cpp:141] Setting up inception_4b/relu_5x5
I0403 21:37:17.940749 23651 net.cpp:148] Top shape: 24 64 14 14 (301056)
I0403 21:37:17.940765 23651 net.cpp:156] Memory required for data: 968181024
I0403 21:37:17.940780 23651 layer_factory.hpp:77] Creating layer inception_4b/pool
I0403 21:37:17.940801 23651 net.cpp:91] Creating Layer inception_4b/pool
I0403 21:37:17.940819 23651 net.cpp:425] inception_4b/pool <- inception_4a/output_inception_4a/output_0_split_4
I0403 21:37:17.940840 23651 net.cpp:399] inception_4b/pool -> inception_4b/pool
I0403 21:37:17.940907 23651 net.cpp:141] Setting up inception_4b/pool
I0403 21:37:17.940932 23651 net.cpp:148] Top shape: 24 512 14 14 (2408448)
I0403 21:37:17.940946 23651 net.cpp:156] Memory required for data: 977814816
I0403 21:37:17.940963 23651 layer_factory.hpp:77] Creating layer inception_4b/pool_proj
I0403 21:37:17.940985 23651 net.cpp:91] Creating Layer inception_4b/pool_proj
I0403 21:37:17.941004 23651 net.cpp:425] inception_4b/pool_proj <- inception_4b/pool
I0403 21:37:17.941026 23651 net.cpp:399] inception_4b/pool_proj -> inception_4b/pool_proj
I0403 21:37:17.942242 23651 net.cpp:141] Setting up inception_4b/pool_proj
I0403 21:37:17.942273 23651 net.cpp:148] Top shape: 24 64 14 14 (301056)
I0403 21:37:17.942291 23651 net.cpp:156] Memory required for data: 979019040
I0403 21:37:17.942311 23651 layer_factory.hpp:77] Creating layer inception_4b/relu_pool_proj
I0403 21:37:17.942329 23651 net.cpp:91] Creating Layer inception_4b/relu_pool_proj
I0403 21:37:17.942348 23651 net.cpp:425] inception_4b/relu_pool_proj <- inception_4b/pool_proj
I0403 21:37:17.942365 23651 net.cpp:386] inception_4b/relu_pool_proj -> inception_4b/pool_proj (in-place)
I0403 21:37:17.942550 23651 net.cpp:141] Setting up inception_4b/relu_pool_proj
I0403 21:37:17.942576 23651 net.cpp:148] Top shape: 24 64 14 14 (301056)
I0403 21:37:17.942591 23651 net.cpp:156] Memory required for data: 980223264
I0403 21:37:17.942607 23651 layer_factory.hpp:77] Creating layer inception_4b/output
I0403 21:37:17.942625 23651 net.cpp:91] Creating Layer inception_4b/output
I0403 21:37:17.942641 23651 net.cpp:425] inception_4b/output <- inception_4b/1x1
I0403 21:37:17.942658 23651 net.cpp:425] inception_4b/output <- inception_4b/3x3
I0403 21:37:17.942675 23651 net.cpp:425] inception_4b/output <- inception_4b/5x5
I0403 21:37:17.942692 23651 net.cpp:425] inception_4b/output <- inception_4b/pool_proj
I0403 21:37:17.942711 23651 net.cpp:399] inception_4b/output -> inception_4b/output
I0403 21:37:17.942757 23651 net.cpp:141] Setting up inception_4b/output
I0403 21:37:17.942781 23651 net.cpp:148] Top shape: 24 512 14 14 (2408448)
I0403 21:37:17.942796 23651 net.cpp:156] Memory required for data: 989857056
I0403 21:37:17.942826 23651 layer_factory.hpp:77] Creating layer inception_4b/output_inception_4b/output_0_split
I0403 21:37:17.942847 23651 net.cpp:91] Creating Layer inception_4b/output_inception_4b/output_0_split
I0403 21:37:17.942865 23651 net.cpp:425] inception_4b/output_inception_4b/output_0_split <- inception_4b/output
I0403 21:37:17.942884 23651 net.cpp:399] inception_4b/output_inception_4b/output_0_split -> inception_4b/output_inception_4b/output_0_split_0
I0403 21:37:17.942908 23651 net.cpp:399] inception_4b/output_inception_4b/output_0_split -> inception_4b/output_inception_4b/output_0_split_1
I0403 21:37:17.942929 23651 net.cpp:399] inception_4b/output_inception_4b/output_0_split -> inception_4b/output_inception_4b/output_0_split_2
I0403 21:37:17.942950 23651 net.cpp:399] inception_4b/output_inception_4b/output_0_split -> inception_4b/output_inception_4b/output_0_split_3
I0403 21:37:17.943037 23651 net.cpp:141] Setting up inception_4b/output_inception_4b/output_0_split
I0403 21:37:17.943060 23651 net.cpp:148] Top shape: 24 512 14 14 (2408448)
I0403 21:37:17.943078 23651 net.cpp:148] Top shape: 24 512 14 14 (2408448)
I0403 21:37:17.943094 23651 net.cpp:148] Top shape: 24 512 14 14 (2408448)
I0403 21:37:17.943109 23651 net.cpp:148] Top shape: 24 512 14 14 (2408448)
I0403 21:37:17.943125 23651 net.cpp:156] Memory required for data: 1028392224
I0403 21:37:17.943138 23651 layer_factory.hpp:77] Creating layer inception_4c/1x1
I0403 21:37:17.943161 23651 net.cpp:91] Creating Layer inception_4c/1x1
I0403 21:37:17.943192 23651 net.cpp:425] inception_4c/1x1 <- inception_4b/output_inception_4b/output_0_split_0
I0403 21:37:17.943219 23651 net.cpp:399] inception_4c/1x1 -> inception_4c/1x1
I0403 21:37:17.944670 23651 net.cpp:141] Setting up inception_4c/1x1
I0403 21:37:17.944699 23651 net.cpp:148] Top shape: 24 128 14 14 (602112)
I0403 21:37:17.944715 23651 net.cpp:156] Memory required for data: 1030800672
I0403 21:37:17.944735 23651 layer_factory.hpp:77] Creating layer inception_4c/relu_1x1
I0403 21:37:17.944753 23651 net.cpp:91] Creating Layer inception_4c/relu_1x1
I0403 21:37:17.944771 23651 net.cpp:425] inception_4c/relu_1x1 <- inception_4c/1x1
I0403 21:37:17.944792 23651 net.cpp:386] inception_4c/relu_1x1 -> inception_4c/1x1 (in-place)
I0403 21:37:17.944969 23651 net.cpp:141] Setting up inception_4c/relu_1x1
I0403 21:37:17.944994 23651 net.cpp:148] Top shape: 24 128 14 14 (602112)
I0403 21:37:17.945009 23651 net.cpp:156] Memory required for data: 1033209120
I0403 21:37:17.945025 23651 layer_factory.hpp:77] Creating layer inception_4c/3x3_reduce
I0403 21:37:17.945049 23651 net.cpp:91] Creating Layer inception_4c/3x3_reduce
I0403 21:37:17.945067 23651 net.cpp:425] inception_4c/3x3_reduce <- inception_4b/output_inception_4b/output_0_split_1
I0403 21:37:17.945089 23651 net.cpp:399] inception_4c/3x3_reduce -> inception_4c/3x3_reduce
I0403 21:37:17.947047 23651 net.cpp:141] Setting up inception_4c/3x3_reduce
I0403 21:37:17.947077 23651 net.cpp:148] Top shape: 24 128 14 14 (602112)
I0403 21:37:17.947093 23651 net.cpp:156] Memory required for data: 1035617568
I0403 21:37:17.947113 23651 layer_factory.hpp:77] Creating layer inception_4c/relu_3x3_reduce
I0403 21:37:17.947134 23651 net.cpp:91] Creating Layer inception_4c/relu_3x3_reduce
I0403 21:37:17.947152 23651 net.cpp:425] inception_4c/relu_3x3_reduce <- inception_4c/3x3_reduce
I0403 21:37:17.947170 23651 net.cpp:386] inception_4c/relu_3x3_reduce -> inception_4c/3x3_reduce (in-place)
I0403 21:37:17.947458 23651 net.cpp:141] Setting up inception_4c/relu_3x3_reduce
I0403 21:37:17.947484 23651 net.cpp:148] Top shape: 24 128 14 14 (602112)
I0403 21:37:17.947500 23651 net.cpp:156] Memory required for data: 1038026016
I0403 21:37:17.947516 23651 layer_factory.hpp:77] Creating layer inception_4c/3x3
I0403 21:37:17.947540 23651 net.cpp:91] Creating Layer inception_4c/3x3
I0403 21:37:17.947561 23651 net.cpp:425] inception_4c/3x3 <- inception_4c/3x3_reduce
I0403 21:37:17.947581 23651 net.cpp:399] inception_4c/3x3 -> inception_4c/3x3
I0403 21:37:17.951207 23651 net.cpp:141] Setting up inception_4c/3x3
I0403 21:37:17.951252 23651 net.cpp:148] Top shape: 24 256 14 14 (1204224)
I0403 21:37:17.951272 23651 net.cpp:156] Memory required for data: 1042842912
I0403 21:37:17.951305 23651 layer_factory.hpp:77] Creating layer inception_4c/relu_3x3
I0403 21:37:17.951326 23651 net.cpp:91] Creating Layer inception_4c/relu_3x3
I0403 21:37:17.951344 23651 net.cpp:425] inception_4c/relu_3x3 <- inception_4c/3x3
I0403 21:37:17.951362 23651 net.cpp:386] inception_4c/relu_3x3 -> inception_4c/3x3 (in-place)
I0403 21:37:17.951563 23651 net.cpp:141] Setting up inception_4c/relu_3x3
I0403 21:37:17.951591 23651 net.cpp:148] Top shape: 24 256 14 14 (1204224)
I0403 21:37:17.951607 23651 net.cpp:156] Memory required for data: 1047659808
I0403 21:37:17.951623 23651 layer_factory.hpp:77] Creating layer inception_4c/5x5_reduce
I0403 21:37:17.951647 23651 net.cpp:91] Creating Layer inception_4c/5x5_reduce
I0403 21:37:17.951665 23651 net.cpp:425] inception_4c/5x5_reduce <- inception_4b/output_inception_4b/output_0_split_2
I0403 21:37:17.951685 23651 net.cpp:399] inception_4c/5x5_reduce -> inception_4c/5x5_reduce
I0403 21:37:17.952770 23651 net.cpp:141] Setting up inception_4c/5x5_reduce
I0403 21:37:17.952800 23651 net.cpp:148] Top shape: 24 24 14 14 (112896)
I0403 21:37:17.952814 23651 net.cpp:156] Memory required for data: 1048111392
I0403 21:37:17.952834 23651 layer_factory.hpp:77] Creating layer inception_4c/relu_5x5_reduce
I0403 21:37:17.952855 23651 net.cpp:91] Creating Layer inception_4c/relu_5x5_reduce
I0403 21:37:17.952874 23651 net.cpp:425] inception_4c/relu_5x5_reduce <- inception_4c/5x5_reduce
I0403 21:37:17.952893 23651 net.cpp:386] inception_4c/relu_5x5_reduce -> inception_4c/5x5_reduce (in-place)
I0403 21:37:17.953078 23651 net.cpp:141] Setting up inception_4c/relu_5x5_reduce
I0403 21:37:17.953104 23651 net.cpp:148] Top shape: 24 24 14 14 (112896)
I0403 21:37:17.953119 23651 net.cpp:156] Memory required for data: 1048562976
I0403 21:37:17.953135 23651 layer_factory.hpp:77] Creating layer inception_4c/5x5
I0403 21:37:17.953158 23651 net.cpp:91] Creating Layer inception_4c/5x5
I0403 21:37:17.953177 23651 net.cpp:425] inception_4c/5x5 <- inception_4c/5x5_reduce
I0403 21:37:17.953203 23651 net.cpp:399] inception_4c/5x5 -> inception_4c/5x5
I0403 21:37:17.954500 23651 net.cpp:141] Setting up inception_4c/5x5
I0403 21:37:17.954543 23651 net.cpp:148] Top shape: 24 64 14 14 (301056)
I0403 21:37:17.954560 23651 net.cpp:156] Memory required for data: 1049767200
I0403 21:37:17.954579 23651 layer_factory.hpp:77] Creating layer inception_4c/relu_5x5
I0403 21:37:17.954599 23651 net.cpp:91] Creating Layer inception_4c/relu_5x5
I0403 21:37:17.954617 23651 net.cpp:425] inception_4c/relu_5x5 <- inception_4c/5x5
I0403 21:37:17.954637 23651 net.cpp:386] inception_4c/relu_5x5 -> inception_4c/5x5 (in-place)
I0403 21:37:17.954928 23651 net.cpp:141] Setting up inception_4c/relu_5x5
I0403 21:37:17.954959 23651 net.cpp:148] Top shape: 24 64 14 14 (301056)
I0403 21:37:17.954977 23651 net.cpp:156] Memory required for data: 1050971424
I0403 21:37:17.954993 23651 layer_factory.hpp:77] Creating layer inception_4c/pool
I0403 21:37:17.955010 23651 net.cpp:91] Creating Layer inception_4c/pool
I0403 21:37:17.955029 23651 net.cpp:425] inception_4c/pool <- inception_4b/output_inception_4b/output_0_split_3
I0403 21:37:17.955049 23651 net.cpp:399] inception_4c/pool -> inception_4c/pool
I0403 21:37:17.955114 23651 net.cpp:141] Setting up inception_4c/pool
I0403 21:37:17.955140 23651 net.cpp:148] Top shape: 24 512 14 14 (2408448)
I0403 21:37:17.955157 23651 net.cpp:156] Memory required for data: 1060605216
I0403 21:37:17.955173 23651 layer_factory.hpp:77] Creating layer inception_4c/pool_proj
I0403 21:37:17.955194 23651 net.cpp:91] Creating Layer inception_4c/pool_proj
I0403 21:37:17.955217 23651 net.cpp:425] inception_4c/pool_proj <- inception_4c/pool
I0403 21:37:17.955236 23651 net.cpp:399] inception_4c/pool_proj -> inception_4c/pool_proj
I0403 21:37:17.956460 23651 net.cpp:141] Setting up inception_4c/pool_proj
I0403 21:37:17.956492 23651 net.cpp:148] Top shape: 24 64 14 14 (301056)
I0403 21:37:17.956522 23651 net.cpp:156] Memory required for data: 1061809440
I0403 21:37:17.956542 23651 layer_factory.hpp:77] Creating layer inception_4c/relu_pool_proj
I0403 21:37:17.956563 23651 net.cpp:91] Creating Layer inception_4c/relu_pool_proj
I0403 21:37:17.956580 23651 net.cpp:425] inception_4c/relu_pool_proj <- inception_4c/pool_proj
I0403 21:37:17.956598 23651 net.cpp:386] inception_4c/relu_pool_proj -> inception_4c/pool_proj (in-place)
I0403 21:37:17.956779 23651 net.cpp:141] Setting up inception_4c/relu_pool_proj
I0403 21:37:17.956806 23651 net.cpp:148] Top shape: 24 64 14 14 (301056)
I0403 21:37:17.956822 23651 net.cpp:156] Memory required for data: 1063013664
I0403 21:37:17.956838 23651 layer_factory.hpp:77] Creating layer inception_4c/output
I0403 21:37:17.956857 23651 net.cpp:91] Creating Layer inception_4c/output
I0403 21:37:17.956873 23651 net.cpp:425] inception_4c/output <- inception_4c/1x1
I0403 21:37:17.956890 23651 net.cpp:425] inception_4c/output <- inception_4c/3x3
I0403 21:37:17.956907 23651 net.cpp:425] inception_4c/output <- inception_4c/5x5
I0403 21:37:17.956923 23651 net.cpp:425] inception_4c/output <- inception_4c/pool_proj
I0403 21:37:17.956943 23651 net.cpp:399] inception_4c/output -> inception_4c/output
I0403 21:37:17.956990 23651 net.cpp:141] Setting up inception_4c/output
I0403 21:37:17.957015 23651 net.cpp:148] Top shape: 24 512 14 14 (2408448)
I0403 21:37:17.957029 23651 net.cpp:156] Memory required for data: 1072647456
I0403 21:37:17.957046 23651 layer_factory.hpp:77] Creating layer inception_4c/output_inception_4c/output_0_split
I0403 21:37:17.957065 23651 net.cpp:91] Creating Layer inception_4c/output_inception_4c/output_0_split
I0403 21:37:17.957082 23651 net.cpp:425] inception_4c/output_inception_4c/output_0_split <- inception_4c/output
I0403 21:37:17.957101 23651 net.cpp:399] inception_4c/output_inception_4c/output_0_split -> inception_4c/output_inception_4c/output_0_split_0
I0403 21:37:17.957121 23651 net.cpp:399] inception_4c/output_inception_4c/output_0_split -> inception_4c/output_inception_4c/output_0_split_1
I0403 21:37:17.957144 23651 net.cpp:399] inception_4c/output_inception_4c/output_0_split -> inception_4c/output_inception_4c/output_0_split_2
I0403 21:37:17.957165 23651 net.cpp:399] inception_4c/output_inception_4c/output_0_split -> inception_4c/output_inception_4c/output_0_split_3
I0403 21:37:17.957273 23651 net.cpp:141] Setting up inception_4c/output_inception_4c/output_0_split
I0403 21:37:17.957298 23651 net.cpp:148] Top shape: 24 512 14 14 (2408448)
I0403 21:37:17.957315 23651 net.cpp:148] Top shape: 24 512 14 14 (2408448)
I0403 21:37:17.957332 23651 net.cpp:148] Top shape: 24 512 14 14 (2408448)
I0403 21:37:17.957348 23651 net.cpp:148] Top shape: 24 512 14 14 (2408448)
I0403 21:37:17.957363 23651 net.cpp:156] Memory required for data: 1111182624
I0403 21:37:17.957378 23651 layer_factory.hpp:77] Creating layer inception_4d/1x1
I0403 21:37:17.957402 23651 net.cpp:91] Creating Layer inception_4d/1x1
I0403 21:37:17.957420 23651 net.cpp:425] inception_4d/1x1 <- inception_4c/output_inception_4c/output_0_split_0
I0403 21:37:17.957443 23651 net.cpp:399] inception_4d/1x1 -> inception_4d/1x1
I0403 21:37:17.958868 23651 net.cpp:141] Setting up inception_4d/1x1
I0403 21:37:17.958896 23651 net.cpp:148] Top shape: 24 112 14 14 (526848)
I0403 21:37:17.958912 23651 net.cpp:156] Memory required for data: 1113290016
I0403 21:37:17.958932 23651 layer_factory.hpp:77] Creating layer inception_4d/relu_1x1
I0403 21:37:17.958953 23651 net.cpp:91] Creating Layer inception_4d/relu_1x1
I0403 21:37:17.958971 23651 net.cpp:425] inception_4d/relu_1x1 <- inception_4d/1x1
I0403 21:37:17.958989 23651 net.cpp:386] inception_4d/relu_1x1 -> inception_4d/1x1 (in-place)
I0403 21:37:17.959188 23651 net.cpp:141] Setting up inception_4d/relu_1x1
I0403 21:37:17.959218 23651 net.cpp:148] Top shape: 24 112 14 14 (526848)
I0403 21:37:17.959234 23651 net.cpp:156] Memory required for data: 1115397408
I0403 21:37:17.959251 23651 layer_factory.hpp:77] Creating layer inception_4d/3x3_reduce
I0403 21:37:17.959291 23651 net.cpp:91] Creating Layer inception_4d/3x3_reduce
I0403 21:37:17.959311 23651 net.cpp:425] inception_4d/3x3_reduce <- inception_4c/output_inception_4c/output_0_split_1
I0403 21:37:17.959332 23651 net.cpp:399] inception_4d/3x3_reduce -> inception_4d/3x3_reduce
I0403 21:37:17.960880 23651 net.cpp:141] Setting up inception_4d/3x3_reduce
I0403 21:37:17.960906 23651 net.cpp:148] Top shape: 24 144 14 14 (677376)
I0403 21:37:17.960923 23651 net.cpp:156] Memory required for data: 1118106912
I0403 21:37:17.960942 23651 layer_factory.hpp:77] Creating layer inception_4d/relu_3x3_reduce
I0403 21:37:17.960963 23651 net.cpp:91] Creating Layer inception_4d/relu_3x3_reduce
I0403 21:37:17.960979 23651 net.cpp:425] inception_4d/relu_3x3_reduce <- inception_4d/3x3_reduce
I0403 21:37:17.961000 23651 net.cpp:386] inception_4d/relu_3x3_reduce -> inception_4d/3x3_reduce (in-place)
I0403 21:37:17.961308 23651 net.cpp:141] Setting up inception_4d/relu_3x3_reduce
I0403 21:37:17.961335 23651 net.cpp:148] Top shape: 24 144 14 14 (677376)
I0403 21:37:17.961352 23651 net.cpp:156] Memory required for data: 1120816416
I0403 21:37:17.961369 23651 layer_factory.hpp:77] Creating layer inception_4d/3x3
I0403 21:37:17.961392 23651 net.cpp:91] Creating Layer inception_4d/3x3
I0403 21:37:17.961410 23651 net.cpp:425] inception_4d/3x3 <- inception_4d/3x3_reduce
I0403 21:37:17.961433 23651 net.cpp:399] inception_4d/3x3 -> inception_4d/3x3
I0403 21:37:17.965708 23651 net.cpp:141] Setting up inception_4d/3x3
I0403 21:37:17.965739 23651 net.cpp:148] Top shape: 24 288 14 14 (1354752)
I0403 21:37:17.965755 23651 net.cpp:156] Memory required for data: 1126235424
I0403 21:37:17.965775 23651 layer_factory.hpp:77] Creating layer inception_4d/relu_3x3
I0403 21:37:17.965795 23651 net.cpp:91] Creating Layer inception_4d/relu_3x3
I0403 21:37:17.965813 23651 net.cpp:425] inception_4d/relu_3x3 <- inception_4d/3x3
I0403 21:37:17.965831 23651 net.cpp:386] inception_4d/relu_3x3 -> inception_4d/3x3 (in-place)
I0403 21:37:17.966012 23651 net.cpp:141] Setting up inception_4d/relu_3x3
I0403 21:37:17.966039 23651 net.cpp:148] Top shape: 24 288 14 14 (1354752)
I0403 21:37:17.966054 23651 net.cpp:156] Memory required for data: 1131654432
I0403 21:37:17.966069 23651 layer_factory.hpp:77] Creating layer inception_4d/5x5_reduce
I0403 21:37:17.966092 23651 net.cpp:91] Creating Layer inception_4d/5x5_reduce
I0403 21:37:17.966110 23651 net.cpp:425] inception_4d/5x5_reduce <- inception_4c/output_inception_4c/output_0_split_2
I0403 21:37:17.966130 23651 net.cpp:399] inception_4d/5x5_reduce -> inception_4d/5x5_reduce
I0403 21:37:17.967293 23651 net.cpp:141] Setting up inception_4d/5x5_reduce
I0403 21:37:17.967322 23651 net.cpp:148] Top shape: 24 32 14 14 (150528)
I0403 21:37:17.967339 23651 net.cpp:156] Memory required for data: 1132256544
I0403 21:37:17.967358 23651 layer_factory.hpp:77] Creating layer inception_4d/relu_5x5_reduce
I0403 21:37:17.967380 23651 net.cpp:91] Creating Layer inception_4d/relu_5x5_reduce
I0403 21:37:17.967398 23651 net.cpp:425] inception_4d/relu_5x5_reduce <- inception_4d/5x5_reduce
I0403 21:37:17.967417 23651 net.cpp:386] inception_4d/relu_5x5_reduce -> inception_4d/5x5_reduce (in-place)
I0403 21:37:17.967618 23651 net.cpp:141] Setting up inception_4d/relu_5x5_reduce
I0403 21:37:17.967643 23651 net.cpp:148] Top shape: 24 32 14 14 (150528)
I0403 21:37:17.967658 23651 net.cpp:156] Memory required for data: 1132858656
I0403 21:37:17.967674 23651 layer_factory.hpp:77] Creating layer inception_4d/5x5
I0403 21:37:17.967699 23651 net.cpp:91] Creating Layer inception_4d/5x5
I0403 21:37:17.967716 23651 net.cpp:425] inception_4d/5x5 <- inception_4d/5x5_reduce
I0403 21:37:17.967737 23651 net.cpp:399] inception_4d/5x5 -> inception_4d/5x5
I0403 21:37:17.969246 23651 net.cpp:141] Setting up inception_4d/5x5
I0403 21:37:17.969275 23651 net.cpp:148] Top shape: 24 64 14 14 (301056)
I0403 21:37:17.969293 23651 net.cpp:156] Memory required for data: 1134062880
I0403 21:37:17.969313 23651 layer_factory.hpp:77] Creating layer inception_4d/relu_5x5
I0403 21:37:17.969347 23651 net.cpp:91] Creating Layer inception_4d/relu_5x5
I0403 21:37:17.969365 23651 net.cpp:425] inception_4d/relu_5x5 <- inception_4d/5x5
I0403 21:37:17.969386 23651 net.cpp:386] inception_4d/relu_5x5 -> inception_4d/5x5 (in-place)
I0403 21:37:17.969691 23651 net.cpp:141] Setting up inception_4d/relu_5x5
I0403 21:37:17.969718 23651 net.cpp:148] Top shape: 24 64 14 14 (301056)
I0403 21:37:17.969735 23651 net.cpp:156] Memory required for data: 1135267104
I0403 21:37:17.969751 23651 layer_factory.hpp:77] Creating layer inception_4d/pool
I0403 21:37:17.969770 23651 net.cpp:91] Creating Layer inception_4d/pool
I0403 21:37:17.969787 23651 net.cpp:425] inception_4d/pool <- inception_4c/output_inception_4c/output_0_split_3
I0403 21:37:17.969808 23651 net.cpp:399] inception_4d/pool -> inception_4d/pool
I0403 21:37:17.969876 23651 net.cpp:141] Setting up inception_4d/pool
I0403 21:37:17.969899 23651 net.cpp:148] Top shape: 24 512 14 14 (2408448)
I0403 21:37:17.969914 23651 net.cpp:156] Memory required for data: 1144900896
I0403 21:37:17.969929 23651 layer_factory.hpp:77] Creating layer inception_4d/pool_proj
I0403 21:37:17.969952 23651 net.cpp:91] Creating Layer inception_4d/pool_proj
I0403 21:37:17.969970 23651 net.cpp:425] inception_4d/pool_proj <- inception_4d/pool
I0403 21:37:17.969992 23651 net.cpp:399] inception_4d/pool_proj -> inception_4d/pool_proj
I0403 21:37:17.971782 23651 net.cpp:141] Setting up inception_4d/pool_proj
I0403 21:37:17.971812 23651 net.cpp:148] Top shape: 24 64 14 14 (301056)
I0403 21:37:17.971829 23651 net.cpp:156] Memory required for data: 1146105120
I0403 21:37:17.971849 23651 layer_factory.hpp:77] Creating layer inception_4d/relu_pool_proj
I0403 21:37:17.971870 23651 net.cpp:91] Creating Layer inception_4d/relu_pool_proj
I0403 21:37:17.971887 23651 net.cpp:425] inception_4d/relu_pool_proj <- inception_4d/pool_proj
I0403 21:37:17.971906 23651 net.cpp:386] inception_4d/relu_pool_proj -> inception_4d/pool_proj (in-place)
I0403 21:37:17.972090 23651 net.cpp:141] Setting up inception_4d/relu_pool_proj
I0403 21:37:17.972117 23651 net.cpp:148] Top shape: 24 64 14 14 (301056)
I0403 21:37:17.972134 23651 net.cpp:156] Memory required for data: 1147309344
I0403 21:37:17.972149 23651 layer_factory.hpp:77] Creating layer inception_4d/output
I0403 21:37:17.972167 23651 net.cpp:91] Creating Layer inception_4d/output
I0403 21:37:17.972183 23651 net.cpp:425] inception_4d/output <- inception_4d/1x1
I0403 21:37:17.972204 23651 net.cpp:425] inception_4d/output <- inception_4d/3x3
I0403 21:37:17.972223 23651 net.cpp:425] inception_4d/output <- inception_4d/5x5
I0403 21:37:17.972239 23651 net.cpp:425] inception_4d/output <- inception_4d/pool_proj
I0403 21:37:17.972257 23651 net.cpp:399] inception_4d/output -> inception_4d/output
I0403 21:37:17.972306 23651 net.cpp:141] Setting up inception_4d/output
I0403 21:37:17.972329 23651 net.cpp:148] Top shape: 24 528 14 14 (2483712)
I0403 21:37:17.972344 23651 net.cpp:156] Memory required for data: 1157244192
I0403 21:37:17.972360 23651 layer_factory.hpp:77] Creating layer inception_4d/output_inception_4d/output_0_split
I0403 21:37:17.972381 23651 net.cpp:91] Creating Layer inception_4d/output_inception_4d/output_0_split
I0403 21:37:17.972398 23651 net.cpp:425] inception_4d/output_inception_4d/output_0_split <- inception_4d/output
I0403 21:37:17.972416 23651 net.cpp:399] inception_4d/output_inception_4d/output_0_split -> inception_4d/output_inception_4d/output_0_split_0
I0403 21:37:17.972436 23651 net.cpp:399] inception_4d/output_inception_4d/output_0_split -> inception_4d/output_inception_4d/output_0_split_1
I0403 21:37:17.972458 23651 net.cpp:399] inception_4d/output_inception_4d/output_0_split -> inception_4d/output_inception_4d/output_0_split_2
I0403 21:37:17.972481 23651 net.cpp:399] inception_4d/output_inception_4d/output_0_split -> inception_4d/output_inception_4d/output_0_split_3
I0403 21:37:17.972502 23651 net.cpp:399] inception_4d/output_inception_4d/output_0_split -> inception_4d/output_inception_4d/output_0_split_4
I0403 21:37:17.972606 23651 net.cpp:141] Setting up inception_4d/output_inception_4d/output_0_split
I0403 21:37:17.972642 23651 net.cpp:148] Top shape: 24 528 14 14 (2483712)
I0403 21:37:17.972661 23651 net.cpp:148] Top shape: 24 528 14 14 (2483712)
I0403 21:37:17.972676 23651 net.cpp:148] Top shape: 24 528 14 14 (2483712)
I0403 21:37:17.972693 23651 net.cpp:148] Top shape: 24 528 14 14 (2483712)
I0403 21:37:17.972709 23651 net.cpp:148] Top shape: 24 528 14 14 (2483712)
I0403 21:37:17.972724 23651 net.cpp:156] Memory required for data: 1206918432
I0403 21:37:17.972740 23651 layer_factory.hpp:77] Creating layer loss2/ave_pool
I0403 21:37:17.972761 23651 net.cpp:91] Creating Layer loss2/ave_pool
I0403 21:37:17.972779 23651 net.cpp:425] loss2/ave_pool <- inception_4d/output_inception_4d/output_0_split_0
I0403 21:37:17.972798 23651 net.cpp:399] loss2/ave_pool -> loss2/ave_pool
I0403 21:37:17.973119 23651 net.cpp:141] Setting up loss2/ave_pool
I0403 21:37:17.973145 23651 net.cpp:148] Top shape: 24 528 4 4 (202752)
I0403 21:37:17.973161 23651 net.cpp:156] Memory required for data: 1207729440
I0403 21:37:17.973177 23651 layer_factory.hpp:77] Creating layer loss2/conv
I0403 21:37:17.973204 23651 net.cpp:91] Creating Layer loss2/conv
I0403 21:37:17.973223 23651 net.cpp:425] loss2/conv <- loss2/ave_pool
I0403 21:37:17.973247 23651 net.cpp:399] loss2/conv -> loss2/conv
I0403 21:37:17.975142 23651 net.cpp:141] Setting up loss2/conv
I0403 21:37:17.975184 23651 net.cpp:148] Top shape: 24 128 4 4 (49152)
I0403 21:37:17.975206 23651 net.cpp:156] Memory required for data: 1207926048
I0403 21:37:17.975229 23651 layer_factory.hpp:77] Creating layer loss2/relu_conv
I0403 21:37:17.975247 23651 net.cpp:91] Creating Layer loss2/relu_conv
I0403 21:37:17.975265 23651 net.cpp:425] loss2/relu_conv <- loss2/conv
I0403 21:37:17.975286 23651 net.cpp:386] loss2/relu_conv -> loss2/conv (in-place)
I0403 21:37:17.975606 23651 net.cpp:141] Setting up loss2/relu_conv
I0403 21:37:17.975636 23651 net.cpp:148] Top shape: 24 128 4 4 (49152)
I0403 21:37:17.975653 23651 net.cpp:156] Memory required for data: 1208122656
I0403 21:37:17.975669 23651 layer_factory.hpp:77] Creating layer loss2/fc
I0403 21:37:17.975690 23651 net.cpp:91] Creating Layer loss2/fc
I0403 21:37:17.975708 23651 net.cpp:425] loss2/fc <- loss2/conv
I0403 21:37:17.975739 23651 net.cpp:399] loss2/fc -> loss2/fc
I0403 21:37:17.993643 23651 net.cpp:141] Setting up loss2/fc
I0403 21:37:17.993679 23651 net.cpp:148] Top shape: 24 1024 (24576)
I0403 21:37:17.993696 23651 net.cpp:156] Memory required for data: 1208220960
I0403 21:37:17.993716 23651 layer_factory.hpp:77] Creating layer loss2/relu_fc
I0403 21:37:17.993734 23651 net.cpp:91] Creating Layer loss2/relu_fc
I0403 21:37:17.993752 23651 net.cpp:425] loss2/relu_fc <- loss2/fc
I0403 21:37:17.993770 23651 net.cpp:386] loss2/relu_fc -> loss2/fc (in-place)
I0403 21:37:17.994071 23651 net.cpp:141] Setting up loss2/relu_fc
I0403 21:37:17.994096 23651 net.cpp:148] Top shape: 24 1024 (24576)
I0403 21:37:17.994112 23651 net.cpp:156] Memory required for data: 1208319264
I0403 21:37:17.994128 23651 layer_factory.hpp:77] Creating layer loss2/drop_fc
I0403 21:37:17.994148 23651 net.cpp:91] Creating Layer loss2/drop_fc
I0403 21:37:17.994166 23651 net.cpp:425] loss2/drop_fc <- loss2/fc
I0403 21:37:17.994184 23651 net.cpp:386] loss2/drop_fc -> loss2/fc (in-place)
I0403 21:37:17.994240 23651 net.cpp:141] Setting up loss2/drop_fc
I0403 21:37:17.994263 23651 net.cpp:148] Top shape: 24 1024 (24576)
I0403 21:37:17.994278 23651 net.cpp:156] Memory required for data: 1208417568
I0403 21:37:17.994294 23651 layer_factory.hpp:77] Creating layer loss2/classifier_plantvillage
I0403 21:37:17.994315 23651 net.cpp:91] Creating Layer loss2/classifier_plantvillage
I0403 21:37:17.994333 23651 net.cpp:425] loss2/classifier_plantvillage <- loss2/fc
I0403 21:37:17.994351 23651 net.cpp:399] loss2/classifier_plantvillage -> loss2/classifier_plantvillage
I0403 21:37:17.994756 23651 net.cpp:141] Setting up loss2/classifier_plantvillage
I0403 21:37:17.994781 23651 net.cpp:148] Top shape: 24 38 (912)
I0403 21:37:17.994813 23651 net.cpp:156] Memory required for data: 1208421216
I0403 21:37:17.994835 23651 layer_factory.hpp:77] Creating layer loss2/classifier_plantvillage_loss2/classifier_plantvillage_0_split
I0403 21:37:17.994853 23651 net.cpp:91] Creating Layer loss2/classifier_plantvillage_loss2/classifier_plantvillage_0_split
I0403 21:37:17.994870 23651 net.cpp:425] loss2/classifier_plantvillage_loss2/classifier_plantvillage_0_split <- loss2/classifier_plantvillage
I0403 21:37:17.994891 23651 net.cpp:399] loss2/classifier_plantvillage_loss2/classifier_plantvillage_0_split -> loss2/classifier_plantvillage_loss2/classifier_plantvillage_0_split_0
I0403 21:37:17.994913 23651 net.cpp:399] loss2/classifier_plantvillage_loss2/classifier_plantvillage_0_split -> loss2/classifier_plantvillage_loss2/classifier_plantvillage_0_split_1
I0403 21:37:17.994935 23651 net.cpp:399] loss2/classifier_plantvillage_loss2/classifier_plantvillage_0_split -> loss2/classifier_plantvillage_loss2/classifier_plantvillage_0_split_2
I0403 21:37:17.995014 23651 net.cpp:141] Setting up loss2/classifier_plantvillage_loss2/classifier_plantvillage_0_split
I0403 21:37:17.995041 23651 net.cpp:148] Top shape: 24 38 (912)
I0403 21:37:17.995059 23651 net.cpp:148] Top shape: 24 38 (912)
I0403 21:37:17.995075 23651 net.cpp:148] Top shape: 24 38 (912)
I0403 21:37:17.995090 23651 net.cpp:156] Memory required for data: 1208432160
I0403 21:37:17.995105 23651 layer_factory.hpp:77] Creating layer inception_4e/1x1
I0403 21:37:17.995127 23651 net.cpp:91] Creating Layer inception_4e/1x1
I0403 21:37:17.995146 23651 net.cpp:425] inception_4e/1x1 <- inception_4d/output_inception_4d/output_0_split_1
I0403 21:37:17.995164 23651 net.cpp:399] inception_4e/1x1 -> inception_4e/1x1
I0403 21:37:17.996987 23651 net.cpp:141] Setting up inception_4e/1x1
I0403 21:37:17.997017 23651 net.cpp:148] Top shape: 24 256 14 14 (1204224)
I0403 21:37:17.997033 23651 net.cpp:156] Memory required for data: 1213249056
I0403 21:37:17.997053 23651 layer_factory.hpp:77] Creating layer inception_4e/relu_1x1
I0403 21:37:17.997071 23651 net.cpp:91] Creating Layer inception_4e/relu_1x1
I0403 21:37:17.997088 23651 net.cpp:425] inception_4e/relu_1x1 <- inception_4e/1x1
I0403 21:37:17.997108 23651 net.cpp:386] inception_4e/relu_1x1 -> inception_4e/1x1 (in-place)
I0403 21:37:17.997406 23651 net.cpp:141] Setting up inception_4e/relu_1x1
I0403 21:37:17.997436 23651 net.cpp:148] Top shape: 24 256 14 14 (1204224)
I0403 21:37:17.997452 23651 net.cpp:156] Memory required for data: 1218065952
I0403 21:37:17.997467 23651 layer_factory.hpp:77] Creating layer inception_4e/3x3_reduce
I0403 21:37:17.997490 23651 net.cpp:91] Creating Layer inception_4e/3x3_reduce
I0403 21:37:17.997509 23651 net.cpp:425] inception_4e/3x3_reduce <- inception_4d/output_inception_4d/output_0_split_2
I0403 21:37:17.997527 23651 net.cpp:399] inception_4e/3x3_reduce -> inception_4e/3x3_reduce
I0403 21:37:17.999701 23651 net.cpp:141] Setting up inception_4e/3x3_reduce
I0403 21:37:17.999732 23651 net.cpp:148] Top shape: 24 160 14 14 (752640)
I0403 21:37:17.999749 23651 net.cpp:156] Memory required for data: 1221076512
I0403 21:37:17.999769 23651 layer_factory.hpp:77] Creating layer inception_4e/relu_3x3_reduce
I0403 21:37:17.999788 23651 net.cpp:91] Creating Layer inception_4e/relu_3x3_reduce
I0403 21:37:17.999804 23651 net.cpp:425] inception_4e/relu_3x3_reduce <- inception_4e/3x3_reduce
I0403 21:37:17.999822 23651 net.cpp:386] inception_4e/relu_3x3_reduce -> inception_4e/3x3_reduce (in-place)
I0403 21:37:18.000010 23651 net.cpp:141] Setting up inception_4e/relu_3x3_reduce
I0403 21:37:18.000036 23651 net.cpp:148] Top shape: 24 160 14 14 (752640)
I0403 21:37:18.000051 23651 net.cpp:156] Memory required for data: 1224087072
I0403 21:37:18.000067 23651 layer_factory.hpp:77] Creating layer inception_4e/3x3
I0403 21:37:18.000090 23651 net.cpp:91] Creating Layer inception_4e/3x3
I0403 21:37:18.000109 23651 net.cpp:425] inception_4e/3x3 <- inception_4e/3x3_reduce
I0403 21:37:18.000131 23651 net.cpp:399] inception_4e/3x3 -> inception_4e/3x3
I0403 21:37:18.005183 23651 net.cpp:141] Setting up inception_4e/3x3
I0403 21:37:18.005229 23651 net.cpp:148] Top shape: 24 320 14 14 (1505280)
I0403 21:37:18.005247 23651 net.cpp:156] Memory required for data: 1230108192
I0403 21:37:18.005267 23651 layer_factory.hpp:77] Creating layer inception_4e/relu_3x3
I0403 21:37:18.005288 23651 net.cpp:91] Creating Layer inception_4e/relu_3x3
I0403 21:37:18.005306 23651 net.cpp:425] inception_4e/relu_3x3 <- inception_4e/3x3
I0403 21:37:18.005324 23651 net.cpp:386] inception_4e/relu_3x3 -> inception_4e/3x3 (in-place)
I0403 21:37:18.005622 23651 net.cpp:141] Setting up inception_4e/relu_3x3
I0403 21:37:18.005648 23651 net.cpp:148] Top shape: 24 320 14 14 (1505280)
I0403 21:37:18.005664 23651 net.cpp:156] Memory required for data: 1236129312
I0403 21:37:18.005679 23651 layer_factory.hpp:77] Creating layer inception_4e/5x5_reduce
I0403 21:37:18.005702 23651 net.cpp:91] Creating Layer inception_4e/5x5_reduce
I0403 21:37:18.005720 23651 net.cpp:425] inception_4e/5x5_reduce <- inception_4d/output_inception_4d/output_0_split_3
I0403 21:37:18.005743 23651 net.cpp:399] inception_4e/5x5_reduce -> inception_4e/5x5_reduce
I0403 21:37:18.006819 23651 net.cpp:141] Setting up inception_4e/5x5_reduce
I0403 21:37:18.006849 23651 net.cpp:148] Top shape: 24 32 14 14 (150528)
I0403 21:37:18.006865 23651 net.cpp:156] Memory required for data: 1236731424
I0403 21:37:18.006886 23651 layer_factory.hpp:77] Creating layer inception_4e/relu_5x5_reduce
I0403 21:37:18.006903 23651 net.cpp:91] Creating Layer inception_4e/relu_5x5_reduce
I0403 21:37:18.006921 23651 net.cpp:425] inception_4e/relu_5x5_reduce <- inception_4e/5x5_reduce
I0403 21:37:18.006942 23651 net.cpp:386] inception_4e/relu_5x5_reduce -> inception_4e/5x5_reduce (in-place)
I0403 21:37:18.007262 23651 net.cpp:141] Setting up inception_4e/relu_5x5_reduce
I0403 21:37:18.007292 23651 net.cpp:148] Top shape: 24 32 14 14 (150528)
I0403 21:37:18.007309 23651 net.cpp:156] Memory required for data: 1237333536
I0403 21:37:18.007325 23651 layer_factory.hpp:77] Creating layer inception_4e/5x5
I0403 21:37:18.007365 23651 net.cpp:91] Creating Layer inception_4e/5x5
I0403 21:37:18.007385 23651 net.cpp:425] inception_4e/5x5 <- inception_4e/5x5_reduce
I0403 21:37:18.007406 23651 net.cpp:399] inception_4e/5x5 -> inception_4e/5x5
I0403 21:37:18.009353 23651 net.cpp:141] Setting up inception_4e/5x5
I0403 21:37:18.009382 23651 net.cpp:148] Top shape: 24 128 14 14 (602112)
I0403 21:37:18.009399 23651 net.cpp:156] Memory required for data: 1239741984
I0403 21:37:18.009419 23651 layer_factory.hpp:77] Creating layer inception_4e/relu_5x5
I0403 21:37:18.009441 23651 net.cpp:91] Creating Layer inception_4e/relu_5x5
I0403 21:37:18.009460 23651 net.cpp:425] inception_4e/relu_5x5 <- inception_4e/5x5
I0403 21:37:18.009479 23651 net.cpp:386] inception_4e/relu_5x5 -> inception_4e/5x5 (in-place)
I0403 21:37:18.009688 23651 net.cpp:141] Setting up inception_4e/relu_5x5
I0403 21:37:18.009714 23651 net.cpp:148] Top shape: 24 128 14 14 (602112)
I0403 21:37:18.009730 23651 net.cpp:156] Memory required for data: 1242150432
I0403 21:37:18.009745 23651 layer_factory.hpp:77] Creating layer inception_4e/pool
I0403 21:37:18.009763 23651 net.cpp:91] Creating Layer inception_4e/pool
I0403 21:37:18.009779 23651 net.cpp:425] inception_4e/pool <- inception_4d/output_inception_4d/output_0_split_4
I0403 21:37:18.009800 23651 net.cpp:399] inception_4e/pool -> inception_4e/pool
I0403 21:37:18.009871 23651 net.cpp:141] Setting up inception_4e/pool
I0403 21:37:18.009894 23651 net.cpp:148] Top shape: 24 528 14 14 (2483712)
I0403 21:37:18.009910 23651 net.cpp:156] Memory required for data: 1252085280
I0403 21:37:18.009927 23651 layer_factory.hpp:77] Creating layer inception_4e/pool_proj
I0403 21:37:18.009950 23651 net.cpp:91] Creating Layer inception_4e/pool_proj
I0403 21:37:18.009968 23651 net.cpp:425] inception_4e/pool_proj <- inception_4e/pool
I0403 21:37:18.009987 23651 net.cpp:399] inception_4e/pool_proj -> inception_4e/pool_proj
I0403 21:37:18.011487 23651 net.cpp:141] Setting up inception_4e/pool_proj
I0403 21:37:18.011528 23651 net.cpp:148] Top shape: 24 128 14 14 (602112)
I0403 21:37:18.011544 23651 net.cpp:156] Memory required for data: 1254493728
I0403 21:37:18.011564 23651 layer_factory.hpp:77] Creating layer inception_4e/relu_pool_proj
I0403 21:37:18.011584 23651 net.cpp:91] Creating Layer inception_4e/relu_pool_proj
I0403 21:37:18.011602 23651 net.cpp:425] inception_4e/relu_pool_proj <- inception_4e/pool_proj
I0403 21:37:18.011620 23651 net.cpp:386] inception_4e/relu_pool_proj -> inception_4e/pool_proj (in-place)
I0403 21:37:18.011919 23651 net.cpp:141] Setting up inception_4e/relu_pool_proj
I0403 21:37:18.011946 23651 net.cpp:148] Top shape: 24 128 14 14 (602112)
I0403 21:37:18.011961 23651 net.cpp:156] Memory required for data: 1256902176
I0403 21:37:18.011977 23651 layer_factory.hpp:77] Creating layer inception_4e/output
I0403 21:37:18.011997 23651 net.cpp:91] Creating Layer inception_4e/output
I0403 21:37:18.012014 23651 net.cpp:425] inception_4e/output <- inception_4e/1x1
I0403 21:37:18.012032 23651 net.cpp:425] inception_4e/output <- inception_4e/3x3
I0403 21:37:18.012049 23651 net.cpp:425] inception_4e/output <- inception_4e/5x5
I0403 21:37:18.012066 23651 net.cpp:425] inception_4e/output <- inception_4e/pool_proj
I0403 21:37:18.012084 23651 net.cpp:399] inception_4e/output -> inception_4e/output
I0403 21:37:18.012135 23651 net.cpp:141] Setting up inception_4e/output
I0403 21:37:18.012159 23651 net.cpp:148] Top shape: 24 832 14 14 (3913728)
I0403 21:37:18.012174 23651 net.cpp:156] Memory required for data: 1272557088
I0403 21:37:18.012189 23651 layer_factory.hpp:77] Creating layer pool4/3x3_s2
I0403 21:37:18.012222 23651 net.cpp:91] Creating Layer pool4/3x3_s2
I0403 21:37:18.012240 23651 net.cpp:425] pool4/3x3_s2 <- inception_4e/output
I0403 21:37:18.012261 23651 net.cpp:399] pool4/3x3_s2 -> pool4/3x3_s2
I0403 21:37:18.012328 23651 net.cpp:141] Setting up pool4/3x3_s2
I0403 21:37:18.012352 23651 net.cpp:148] Top shape: 24 832 7 7 (978432)
I0403 21:37:18.012367 23651 net.cpp:156] Memory required for data: 1276470816
I0403 21:37:18.012383 23651 layer_factory.hpp:77] Creating layer pool4/3x3_s2_pool4/3x3_s2_0_split
I0403 21:37:18.012404 23651 net.cpp:91] Creating Layer pool4/3x3_s2_pool4/3x3_s2_0_split
I0403 21:37:18.012423 23651 net.cpp:425] pool4/3x3_s2_pool4/3x3_s2_0_split <- pool4/3x3_s2
I0403 21:37:18.012442 23651 net.cpp:399] pool4/3x3_s2_pool4/3x3_s2_0_split -> pool4/3x3_s2_pool4/3x3_s2_0_split_0
I0403 21:37:18.012464 23651 net.cpp:399] pool4/3x3_s2_pool4/3x3_s2_0_split -> pool4/3x3_s2_pool4/3x3_s2_0_split_1
I0403 21:37:18.012485 23651 net.cpp:399] pool4/3x3_s2_pool4/3x3_s2_0_split -> pool4/3x3_s2_pool4/3x3_s2_0_split_2
I0403 21:37:18.012506 23651 net.cpp:399] pool4/3x3_s2_pool4/3x3_s2_0_split -> pool4/3x3_s2_pool4/3x3_s2_0_split_3
I0403 21:37:18.012595 23651 net.cpp:141] Setting up pool4/3x3_s2_pool4/3x3_s2_0_split
I0403 21:37:18.012619 23651 net.cpp:148] Top shape: 24 832 7 7 (978432)
I0403 21:37:18.012636 23651 net.cpp:148] Top shape: 24 832 7 7 (978432)
I0403 21:37:18.012652 23651 net.cpp:148] Top shape: 24 832 7 7 (978432)
I0403 21:37:18.012668 23651 net.cpp:148] Top shape: 24 832 7 7 (978432)
I0403 21:37:18.012682 23651 net.cpp:156] Memory required for data: 1292125728
I0403 21:37:18.012698 23651 layer_factory.hpp:77] Creating layer inception_5a/1x1
I0403 21:37:18.012722 23651 net.cpp:91] Creating Layer inception_5a/1x1
I0403 21:37:18.012739 23651 net.cpp:425] inception_5a/1x1 <- pool4/3x3_s2_pool4/3x3_s2_0_split_0
I0403 21:37:18.012761 23651 net.cpp:399] inception_5a/1x1 -> inception_5a/1x1
I0403 21:37:18.015758 23651 net.cpp:141] Setting up inception_5a/1x1
I0403 21:37:18.015789 23651 net.cpp:148] Top shape: 24 256 7 7 (301056)
I0403 21:37:18.015807 23651 net.cpp:156] Memory required for data: 1293329952
I0403 21:37:18.015827 23651 layer_factory.hpp:77] Creating layer inception_5a/relu_1x1
I0403 21:37:18.015846 23651 net.cpp:91] Creating Layer inception_5a/relu_1x1
I0403 21:37:18.015862 23651 net.cpp:425] inception_5a/relu_1x1 <- inception_5a/1x1
I0403 21:37:18.015880 23651 net.cpp:386] inception_5a/relu_1x1 -> inception_5a/1x1 (in-place)
I0403 21:37:18.016207 23651 net.cpp:141] Setting up inception_5a/relu_1x1
I0403 21:37:18.016237 23651 net.cpp:148] Top shape: 24 256 7 7 (301056)
I0403 21:37:18.016254 23651 net.cpp:156] Memory required for data: 1294534176
I0403 21:37:18.016270 23651 layer_factory.hpp:77] Creating layer inception_5a/3x3_reduce
I0403 21:37:18.016294 23651 net.cpp:91] Creating Layer inception_5a/3x3_reduce
I0403 21:37:18.016312 23651 net.cpp:425] inception_5a/3x3_reduce <- pool4/3x3_s2_pool4/3x3_s2_0_split_1
I0403 21:37:18.016332 23651 net.cpp:399] inception_5a/3x3_reduce -> inception_5a/3x3_reduce
I0403 21:37:18.018859 23651 net.cpp:141] Setting up inception_5a/3x3_reduce
I0403 21:37:18.018889 23651 net.cpp:148] Top shape: 24 160 7 7 (188160)
I0403 21:37:18.018906 23651 net.cpp:156] Memory required for data: 1295286816
I0403 21:37:18.018925 23651 layer_factory.hpp:77] Creating layer inception_5a/relu_3x3_reduce
I0403 21:37:18.018946 23651 net.cpp:91] Creating Layer inception_5a/relu_3x3_reduce
I0403 21:37:18.018965 23651 net.cpp:425] inception_5a/relu_3x3_reduce <- inception_5a/3x3_reduce
I0403 21:37:18.018982 23651 net.cpp:386] inception_5a/relu_3x3_reduce -> inception_5a/3x3_reduce (in-place)
I0403 21:37:18.019170 23651 net.cpp:141] Setting up inception_5a/relu_3x3_reduce
I0403 21:37:18.019201 23651 net.cpp:148] Top shape: 24 160 7 7 (188160)
I0403 21:37:18.019219 23651 net.cpp:156] Memory required for data: 1296039456
I0403 21:37:18.019235 23651 layer_factory.hpp:77] Creating layer inception_5a/3x3
I0403 21:37:18.019255 23651 net.cpp:91] Creating Layer inception_5a/3x3
I0403 21:37:18.019273 23651 net.cpp:425] inception_5a/3x3 <- inception_5a/3x3_reduce
I0403 21:37:18.019295 23651 net.cpp:399] inception_5a/3x3 -> inception_5a/3x3
I0403 21:37:18.024384 23651 net.cpp:141] Setting up inception_5a/3x3
I0403 21:37:18.024415 23651 net.cpp:148] Top shape: 24 320 7 7 (376320)
I0403 21:37:18.024433 23651 net.cpp:156] Memory required for data: 1297544736
I0403 21:37:18.024452 23651 layer_factory.hpp:77] Creating layer inception_5a/relu_3x3
I0403 21:37:18.024485 23651 net.cpp:91] Creating Layer inception_5a/relu_3x3
I0403 21:37:18.024503 23651 net.cpp:425] inception_5a/relu_3x3 <- inception_5a/3x3
I0403 21:37:18.024523 23651 net.cpp:386] inception_5a/relu_3x3 -> inception_5a/3x3 (in-place)
I0403 21:37:18.024816 23651 net.cpp:141] Setting up inception_5a/relu_3x3
I0403 21:37:18.024842 23651 net.cpp:148] Top shape: 24 320 7 7 (376320)
I0403 21:37:18.024857 23651 net.cpp:156] Memory required for data: 1299050016
I0403 21:37:18.024873 23651 layer_factory.hpp:77] Creating layer inception_5a/5x5_reduce
I0403 21:37:18.024899 23651 net.cpp:91] Creating Layer inception_5a/5x5_reduce
I0403 21:37:18.024919 23651 net.cpp:425] inception_5a/5x5_reduce <- pool4/3x3_s2_pool4/3x3_s2_0_split_2
I0403 21:37:18.024937 23651 net.cpp:399] inception_5a/5x5_reduce -> inception_5a/5x5_reduce
I0403 21:37:18.026147 23651 net.cpp:141] Setting up inception_5a/5x5_reduce
I0403 21:37:18.026178 23651 net.cpp:148] Top shape: 24 32 7 7 (37632)
I0403 21:37:18.026195 23651 net.cpp:156] Memory required for data: 1299200544
I0403 21:37:18.026219 23651 layer_factory.hpp:77] Creating layer inception_5a/relu_5x5_reduce
I0403 21:37:18.026239 23651 net.cpp:91] Creating Layer inception_5a/relu_5x5_reduce
I0403 21:37:18.026257 23651 net.cpp:425] inception_5a/relu_5x5_reduce <- inception_5a/5x5_reduce
I0403 21:37:18.026274 23651 net.cpp:386] inception_5a/relu_5x5_reduce -> inception_5a/5x5_reduce (in-place)
I0403 21:37:18.026577 23651 net.cpp:141] Setting up inception_5a/relu_5x5_reduce
I0403 21:37:18.026607 23651 net.cpp:148] Top shape: 24 32 7 7 (37632)
I0403 21:37:18.026623 23651 net.cpp:156] Memory required for data: 1299351072
I0403 21:37:18.026638 23651 layer_factory.hpp:77] Creating layer inception_5a/5x5
I0403 21:37:18.026661 23651 net.cpp:91] Creating Layer inception_5a/5x5
I0403 21:37:18.026679 23651 net.cpp:425] inception_5a/5x5 <- inception_5a/5x5_reduce
I0403 21:37:18.026701 23651 net.cpp:399] inception_5a/5x5 -> inception_5a/5x5
I0403 21:37:18.028434 23651 net.cpp:141] Setting up inception_5a/5x5
I0403 21:37:18.028475 23651 net.cpp:148] Top shape: 24 128 7 7 (150528)
I0403 21:37:18.028491 23651 net.cpp:156] Memory required for data: 1299953184
I0403 21:37:18.028512 23651 layer_factory.hpp:77] Creating layer inception_5a/relu_5x5
I0403 21:37:18.028532 23651 net.cpp:91] Creating Layer inception_5a/relu_5x5
I0403 21:37:18.028550 23651 net.cpp:425] inception_5a/relu_5x5 <- inception_5a/5x5
I0403 21:37:18.028568 23651 net.cpp:386] inception_5a/relu_5x5 -> inception_5a/5x5 (in-place)
I0403 21:37:18.028761 23651 net.cpp:141] Setting up inception_5a/relu_5x5
I0403 21:37:18.028786 23651 net.cpp:148] Top shape: 24 128 7 7 (150528)
I0403 21:37:18.028802 23651 net.cpp:156] Memory required for data: 1300555296
I0403 21:37:18.028818 23651 layer_factory.hpp:77] Creating layer inception_5a/pool
I0403 21:37:18.028836 23651 net.cpp:91] Creating Layer inception_5a/pool
I0403 21:37:18.028853 23651 net.cpp:425] inception_5a/pool <- pool4/3x3_s2_pool4/3x3_s2_0_split_3
I0403 21:37:18.028874 23651 net.cpp:399] inception_5a/pool -> inception_5a/pool
I0403 21:37:18.028945 23651 net.cpp:141] Setting up inception_5a/pool
I0403 21:37:18.028970 23651 net.cpp:148] Top shape: 24 832 7 7 (978432)
I0403 21:37:18.028985 23651 net.cpp:156] Memory required for data: 1304469024
I0403 21:37:18.029001 23651 layer_factory.hpp:77] Creating layer inception_5a/pool_proj
I0403 21:37:18.029026 23651 net.cpp:91] Creating Layer inception_5a/pool_proj
I0403 21:37:18.029044 23651 net.cpp:425] inception_5a/pool_proj <- inception_5a/pool
I0403 21:37:18.029064 23651 net.cpp:399] inception_5a/pool_proj -> inception_5a/pool_proj
I0403 21:37:18.031450 23651 net.cpp:141] Setting up inception_5a/pool_proj
I0403 21:37:18.031492 23651 net.cpp:148] Top shape: 24 128 7 7 (150528)
I0403 21:37:18.031508 23651 net.cpp:156] Memory required for data: 1305071136
I0403 21:37:18.031527 23651 layer_factory.hpp:77] Creating layer inception_5a/relu_pool_proj
I0403 21:37:18.031548 23651 net.cpp:91] Creating Layer inception_5a/relu_pool_proj
I0403 21:37:18.031564 23651 net.cpp:425] inception_5a/relu_pool_proj <- inception_5a/pool_proj
I0403 21:37:18.031582 23651 net.cpp:386] inception_5a/relu_pool_proj -> inception_5a/pool_proj (in-place)
I0403 21:37:18.031884 23651 net.cpp:141] Setting up inception_5a/relu_pool_proj
I0403 21:37:18.031910 23651 net.cpp:148] Top shape: 24 128 7 7 (150528)
I0403 21:37:18.031926 23651 net.cpp:156] Memory required for data: 1305673248
I0403 21:37:18.031941 23651 layer_factory.hpp:77] Creating layer inception_5a/output
I0403 21:37:18.031963 23651 net.cpp:91] Creating Layer inception_5a/output
I0403 21:37:18.031980 23651 net.cpp:425] inception_5a/output <- inception_5a/1x1
I0403 21:37:18.031998 23651 net.cpp:425] inception_5a/output <- inception_5a/3x3
I0403 21:37:18.032016 23651 net.cpp:425] inception_5a/output <- inception_5a/5x5
I0403 21:37:18.032032 23651 net.cpp:425] inception_5a/output <- inception_5a/pool_proj
I0403 21:37:18.032049 23651 net.cpp:399] inception_5a/output -> inception_5a/output
I0403 21:37:18.032100 23651 net.cpp:141] Setting up inception_5a/output
I0403 21:37:18.032124 23651 net.cpp:148] Top shape: 24 832 7 7 (978432)
I0403 21:37:18.032140 23651 net.cpp:156] Memory required for data: 1309586976
I0403 21:37:18.032155 23651 layer_factory.hpp:77] Creating layer inception_5a/output_inception_5a/output_0_split
I0403 21:37:18.032184 23651 net.cpp:91] Creating Layer inception_5a/output_inception_5a/output_0_split
I0403 21:37:18.032205 23651 net.cpp:425] inception_5a/output_inception_5a/output_0_split <- inception_5a/output
I0403 21:37:18.032227 23651 net.cpp:399] inception_5a/output_inception_5a/output_0_split -> inception_5a/output_inception_5a/output_0_split_0
I0403 21:37:18.032250 23651 net.cpp:399] inception_5a/output_inception_5a/output_0_split -> inception_5a/output_inception_5a/output_0_split_1
I0403 21:37:18.032272 23651 net.cpp:399] inception_5a/output_inception_5a/output_0_split -> inception_5a/output_inception_5a/output_0_split_2
I0403 21:37:18.032294 23651 net.cpp:399] inception_5a/output_inception_5a/output_0_split -> inception_5a/output_inception_5a/output_0_split_3
I0403 21:37:18.032412 23651 net.cpp:141] Setting up inception_5a/output_inception_5a/output_0_split
I0403 21:37:18.032438 23651 net.cpp:148] Top shape: 24 832 7 7 (978432)
I0403 21:37:18.032457 23651 net.cpp:148] Top shape: 24 832 7 7 (978432)
I0403 21:37:18.032485 23651 net.cpp:148] Top shape: 24 832 7 7 (978432)
I0403 21:37:18.032501 23651 net.cpp:148] Top shape: 24 832 7 7 (978432)
I0403 21:37:18.032516 23651 net.cpp:156] Memory required for data: 1325241888
I0403 21:37:18.032531 23651 layer_factory.hpp:77] Creating layer inception_5b/1x1
I0403 21:37:18.032553 23651 net.cpp:91] Creating Layer inception_5b/1x1
I0403 21:37:18.032572 23651 net.cpp:425] inception_5b/1x1 <- inception_5a/output_inception_5a/output_0_split_0
I0403 21:37:18.032590 23651 net.cpp:399] inception_5b/1x1 -> inception_5b/1x1
I0403 21:37:18.036397 23651 net.cpp:141] Setting up inception_5b/1x1
I0403 21:37:18.036427 23651 net.cpp:148] Top shape: 24 384 7 7 (451584)
I0403 21:37:18.036444 23651 net.cpp:156] Memory required for data: 1327048224
I0403 21:37:18.036463 23651 layer_factory.hpp:77] Creating layer inception_5b/relu_1x1
I0403 21:37:18.036484 23651 net.cpp:91] Creating Layer inception_5b/relu_1x1
I0403 21:37:18.036501 23651 net.cpp:425] inception_5b/relu_1x1 <- inception_5b/1x1
I0403 21:37:18.036520 23651 net.cpp:386] inception_5b/relu_1x1 -> inception_5b/1x1 (in-place)
I0403 21:37:18.036828 23651 net.cpp:141] Setting up inception_5b/relu_1x1
I0403 21:37:18.036854 23651 net.cpp:148] Top shape: 24 384 7 7 (451584)
I0403 21:37:18.036869 23651 net.cpp:156] Memory required for data: 1328854560
I0403 21:37:18.036885 23651 layer_factory.hpp:77] Creating layer inception_5b/3x3_reduce
I0403 21:37:18.036907 23651 net.cpp:91] Creating Layer inception_5b/3x3_reduce
I0403 21:37:18.036926 23651 net.cpp:425] inception_5b/3x3_reduce <- inception_5a/output_inception_5a/output_0_split_1
I0403 21:37:18.036948 23651 net.cpp:399] inception_5b/3x3_reduce -> inception_5b/3x3_reduce
I0403 21:37:18.039670 23651 net.cpp:141] Setting up inception_5b/3x3_reduce
I0403 21:37:18.039702 23651 net.cpp:148] Top shape: 24 192 7 7 (225792)
I0403 21:37:18.039718 23651 net.cpp:156] Memory required for data: 1329757728
I0403 21:37:18.039737 23651 layer_factory.hpp:77] Creating layer inception_5b/relu_3x3_reduce
I0403 21:37:18.039758 23651 net.cpp:91] Creating Layer inception_5b/relu_3x3_reduce
I0403 21:37:18.039777 23651 net.cpp:425] inception_5b/relu_3x3_reduce <- inception_5b/3x3_reduce
I0403 21:37:18.039795 23651 net.cpp:386] inception_5b/relu_3x3_reduce -> inception_5b/3x3_reduce (in-place)
I0403 21:37:18.039986 23651 net.cpp:141] Setting up inception_5b/relu_3x3_reduce
I0403 21:37:18.040014 23651 net.cpp:148] Top shape: 24 192 7 7 (225792)
I0403 21:37:18.040030 23651 net.cpp:156] Memory required for data: 1330660896
I0403 21:37:18.040045 23651 layer_factory.hpp:77] Creating layer inception_5b/3x3
I0403 21:37:18.040068 23651 net.cpp:91] Creating Layer inception_5b/3x3
I0403 21:37:18.040086 23651 net.cpp:425] inception_5b/3x3 <- inception_5b/3x3_reduce
I0403 21:37:18.040105 23651 net.cpp:399] inception_5b/3x3 -> inception_5b/3x3
I0403 21:37:18.046869 23651 net.cpp:141] Setting up inception_5b/3x3
I0403 21:37:18.046896 23651 net.cpp:148] Top shape: 24 384 7 7 (451584)
I0403 21:37:18.046912 23651 net.cpp:156] Memory required for data: 1332467232
I0403 21:37:18.046932 23651 layer_factory.hpp:77] Creating layer inception_5b/relu_3x3
I0403 21:37:18.046953 23651 net.cpp:91] Creating Layer inception_5b/relu_3x3
I0403 21:37:18.046972 23651 net.cpp:425] inception_5b/relu_3x3 <- inception_5b/3x3
I0403 21:37:18.046988 23651 net.cpp:386] inception_5b/relu_3x3 -> inception_5b/3x3 (in-place)
I0403 21:37:18.047312 23651 net.cpp:141] Setting up inception_5b/relu_3x3
I0403 21:37:18.047339 23651 net.cpp:148] Top shape: 24 384 7 7 (451584)
I0403 21:37:18.047355 23651 net.cpp:156] Memory required for data: 1334273568
I0403 21:37:18.047371 23651 layer_factory.hpp:77] Creating layer inception_5b/5x5_reduce
I0403 21:37:18.047411 23651 net.cpp:91] Creating Layer inception_5b/5x5_reduce
I0403 21:37:18.047432 23651 net.cpp:425] inception_5b/5x5_reduce <- inception_5a/output_inception_5a/output_0_split_2
I0403 21:37:18.047454 23651 net.cpp:399] inception_5b/5x5_reduce -> inception_5b/5x5_reduce
I0403 21:37:18.048758 23651 net.cpp:141] Setting up inception_5b/5x5_reduce
I0403 21:37:18.048786 23651 net.cpp:148] Top shape: 24 48 7 7 (56448)
I0403 21:37:18.048802 23651 net.cpp:156] Memory required for data: 1334499360
I0403 21:37:18.048822 23651 layer_factory.hpp:77] Creating layer inception_5b/relu_5x5_reduce
I0403 21:37:18.048843 23651 net.cpp:91] Creating Layer inception_5b/relu_5x5_reduce
I0403 21:37:18.048861 23651 net.cpp:425] inception_5b/relu_5x5_reduce <- inception_5b/5x5_reduce
I0403 21:37:18.048879 23651 net.cpp:386] inception_5b/relu_5x5_reduce -> inception_5b/5x5_reduce (in-place)
I0403 21:37:18.049262 23651 net.cpp:141] Setting up inception_5b/relu_5x5_reduce
I0403 21:37:18.049288 23651 net.cpp:148] Top shape: 24 48 7 7 (56448)
I0403 21:37:18.049304 23651 net.cpp:156] Memory required for data: 1334725152
I0403 21:37:18.049319 23651 layer_factory.hpp:77] Creating layer inception_5b/5x5
I0403 21:37:18.049340 23651 net.cpp:91] Creating Layer inception_5b/5x5
I0403 21:37:18.049356 23651 net.cpp:425] inception_5b/5x5 <- inception_5b/5x5_reduce
I0403 21:37:18.049376 23651 net.cpp:399] inception_5b/5x5 -> inception_5b/5x5
I0403 21:37:18.051478 23651 net.cpp:141] Setting up inception_5b/5x5
I0403 21:37:18.051508 23651 net.cpp:148] Top shape: 24 128 7 7 (150528)
I0403 21:37:18.051525 23651 net.cpp:156] Memory required for data: 1335327264
I0403 21:37:18.051544 23651 layer_factory.hpp:77] Creating layer inception_5b/relu_5x5
I0403 21:37:18.051563 23651 net.cpp:91] Creating Layer inception_5b/relu_5x5
I0403 21:37:18.051579 23651 net.cpp:425] inception_5b/relu_5x5 <- inception_5b/5x5
I0403 21:37:18.051597 23651 net.cpp:386] inception_5b/relu_5x5 -> inception_5b/5x5 (in-place)
I0403 21:37:18.051795 23651 net.cpp:141] Setting up inception_5b/relu_5x5
I0403 21:37:18.051822 23651 net.cpp:148] Top shape: 24 128 7 7 (150528)
I0403 21:37:18.051838 23651 net.cpp:156] Memory required for data: 1335929376
I0403 21:37:18.051854 23651 layer_factory.hpp:77] Creating layer inception_5b/pool
I0403 21:37:18.051872 23651 net.cpp:91] Creating Layer inception_5b/pool
I0403 21:37:18.051889 23651 net.cpp:425] inception_5b/pool <- inception_5a/output_inception_5a/output_0_split_3
I0403 21:37:18.051910 23651 net.cpp:399] inception_5b/pool -> inception_5b/pool
I0403 21:37:18.051983 23651 net.cpp:141] Setting up inception_5b/pool
I0403 21:37:18.052009 23651 net.cpp:148] Top shape: 24 832 7 7 (978432)
I0403 21:37:18.052026 23651 net.cpp:156] Memory required for data: 1339843104
I0403 21:37:18.052040 23651 layer_factory.hpp:77] Creating layer inception_5b/pool_proj
I0403 21:37:18.052062 23651 net.cpp:91] Creating Layer inception_5b/pool_proj
I0403 21:37:18.052081 23651 net.cpp:425] inception_5b/pool_proj <- inception_5b/pool
I0403 21:37:18.052101 23651 net.cpp:399] inception_5b/pool_proj -> inception_5b/pool_proj
I0403 21:37:18.054445 23651 net.cpp:141] Setting up inception_5b/pool_proj
I0403 21:37:18.054476 23651 net.cpp:148] Top shape: 24 128 7 7 (150528)
I0403 21:37:18.054491 23651 net.cpp:156] Memory required for data: 1340445216
I0403 21:37:18.054510 23651 layer_factory.hpp:77] Creating layer inception_5b/relu_pool_proj
I0403 21:37:18.054533 23651 net.cpp:91] Creating Layer inception_5b/relu_pool_proj
I0403 21:37:18.054550 23651 net.cpp:425] inception_5b/relu_pool_proj <- inception_5b/pool_proj
I0403 21:37:18.054569 23651 net.cpp:386] inception_5b/relu_pool_proj -> inception_5b/pool_proj (in-place)
I0403 21:37:18.054869 23651 net.cpp:141] Setting up inception_5b/relu_pool_proj
I0403 21:37:18.054895 23651 net.cpp:148] Top shape: 24 128 7 7 (150528)
I0403 21:37:18.054911 23651 net.cpp:156] Memory required for data: 1341047328
I0403 21:37:18.054927 23651 layer_factory.hpp:77] Creating layer inception_5b/output
I0403 21:37:18.054947 23651 net.cpp:91] Creating Layer inception_5b/output
I0403 21:37:18.054978 23651 net.cpp:425] inception_5b/output <- inception_5b/1x1
I0403 21:37:18.054997 23651 net.cpp:425] inception_5b/output <- inception_5b/3x3
I0403 21:37:18.055014 23651 net.cpp:425] inception_5b/output <- inception_5b/5x5
I0403 21:37:18.055032 23651 net.cpp:425] inception_5b/output <- inception_5b/pool_proj
I0403 21:37:18.055049 23651 net.cpp:399] inception_5b/output -> inception_5b/output
I0403 21:37:18.055104 23651 net.cpp:141] Setting up inception_5b/output
I0403 21:37:18.055129 23651 net.cpp:148] Top shape: 24 1024 7 7 (1204224)
I0403 21:37:18.055145 23651 net.cpp:156] Memory required for data: 1345864224
I0403 21:37:18.055160 23651 layer_factory.hpp:77] Creating layer pool5/7x7_s1
I0403 21:37:18.055177 23651 net.cpp:91] Creating Layer pool5/7x7_s1
I0403 21:37:18.055194 23651 net.cpp:425] pool5/7x7_s1 <- inception_5b/output
I0403 21:37:18.055220 23651 net.cpp:399] pool5/7x7_s1 -> pool5/7x7_s1
I0403 21:37:18.055438 23651 net.cpp:141] Setting up pool5/7x7_s1
I0403 21:37:18.055464 23651 net.cpp:148] Top shape: 24 1024 1 1 (24576)
I0403 21:37:18.055480 23651 net.cpp:156] Memory required for data: 1345962528
I0403 21:37:18.055495 23651 layer_factory.hpp:77] Creating layer pool5/drop_7x7_s1
I0403 21:37:18.055516 23651 net.cpp:91] Creating Layer pool5/drop_7x7_s1
I0403 21:37:18.055533 23651 net.cpp:425] pool5/drop_7x7_s1 <- pool5/7x7_s1
I0403 21:37:18.055552 23651 net.cpp:386] pool5/drop_7x7_s1 -> pool5/7x7_s1 (in-place)
I0403 21:37:18.055604 23651 net.cpp:141] Setting up pool5/drop_7x7_s1
I0403 21:37:18.055627 23651 net.cpp:148] Top shape: 24 1024 1 1 (24576)
I0403 21:37:18.055642 23651 net.cpp:156] Memory required for data: 1346060832
I0403 21:37:18.055658 23651 layer_factory.hpp:77] Creating layer loss3/classifier_plantvillage
I0403 21:37:18.055680 23651 net.cpp:91] Creating Layer loss3/classifier_plantvillage
I0403 21:37:18.055698 23651 net.cpp:425] loss3/classifier_plantvillage <- pool5/7x7_s1
I0403 21:37:18.055717 23651 net.cpp:399] loss3/classifier_plantvillage -> loss3/classifier_plantvillage
I0403 21:37:18.056149 23651 net.cpp:141] Setting up loss3/classifier_plantvillage
I0403 21:37:18.056174 23651 net.cpp:148] Top shape: 24 38 (912)
I0403 21:37:18.056190 23651 net.cpp:156] Memory required for data: 1346064480
I0403 21:37:18.056212 23651 layer_factory.hpp:77] Creating layer loss3/classifier_plantvillage_loss3/classifier_plantvillage_0_split
I0403 21:37:18.056232 23651 net.cpp:91] Creating Layer loss3/classifier_plantvillage_loss3/classifier_plantvillage_0_split
I0403 21:37:18.056249 23651 net.cpp:425] loss3/classifier_plantvillage_loss3/classifier_plantvillage_0_split <- loss3/classifier_plantvillage
I0403 21:37:18.056272 23651 net.cpp:399] loss3/classifier_plantvillage_loss3/classifier_plantvillage_0_split -> loss3/classifier_plantvillage_loss3/classifier_plantvillage_0_split_0
I0403 21:37:18.056293 23651 net.cpp:399] loss3/classifier_plantvillage_loss3/classifier_plantvillage_0_split -> loss3/classifier_plantvillage_loss3/classifier_plantvillage_0_split_1
I0403 21:37:18.056315 23651 net.cpp:399] loss3/classifier_plantvillage_loss3/classifier_plantvillage_0_split -> loss3/classifier_plantvillage_loss3/classifier_plantvillage_0_split_2
I0403 21:37:18.056335 23651 net.cpp:399] loss3/classifier_plantvillage_loss3/classifier_plantvillage_0_split -> loss3/classifier_plantvillage_loss3/classifier_plantvillage_0_split_3
I0403 21:37:18.056438 23651 net.cpp:141] Setting up loss3/classifier_plantvillage_loss3/classifier_plantvillage_0_split
I0403 21:37:18.056463 23651 net.cpp:148] Top shape: 24 38 (912)
I0403 21:37:18.056479 23651 net.cpp:148] Top shape: 24 38 (912)
I0403 21:37:18.056495 23651 net.cpp:148] Top shape: 24 38 (912)
I0403 21:37:18.056510 23651 net.cpp:148] Top shape: 24 38 (912)
I0403 21:37:18.056524 23651 net.cpp:156] Memory required for data: 1346079072
I0403 21:37:18.056540 23651 layer_factory.hpp:77] Creating layer loss1/loss
I0403 21:37:18.056562 23651 net.cpp:91] Creating Layer loss1/loss
I0403 21:37:18.056581 23651 net.cpp:425] loss1/loss <- loss1/classifier_plantvillage_loss1/classifier_plantvillage_0_split_0
I0403 21:37:18.056612 23651 net.cpp:425] loss1/loss <- label_data_1_split_0
…
