…
I0403 21:41:33.798754 23893 net.cpp:313] The NetState phase (1) differed from the phase (0) specified by a rule in layer data
I0403 21:41:33.799870 23893 net.cpp:49] Initializing net from parameters: 
state {
  phase: TEST
}
layer {
  name: "data"
  type: "Data"
  top: "data"
  top: "label"
  include {
    phase: TEST
  }
  transform_param {
    mirror: false
    crop_size: 224
    mean_file: "/home/mohanty/data/final_dataset/lmdb/segmented-80-20/mean.binaryproto"
  }
  data_param {
    source: "/home/mohanty/data/final_dataset/lmdb/segmented-80-20/test_db"
    batch_size: 24
    backend: LMDB
  }
}
layer {
  name: "conv1/7x7_s2"
  type: "Convolution"
  bottom: "data"
  top: "conv1/7x7_s2"
  param {
    lr_mult: 1
    decay_mult: 1
  }
  param {
    lr_mult: 2
    decay_mult: 0
  }
  convolution_param {
    num_output: 64
    pad: 3
    kernel_size: 7
    stride: 2
    weight_filler {
      type: "xavier"
      std: 0.1
    }
    bias_filler {
      type: "constant"
      value: 0.2
    }
  }
}
layer {
  name: "conv1/relu_7x7"
  type: "ReLU"
  bottom: "conv1/7x7_s2"
  top: "conv1/7x7_s2"
}
layer {
  name: "pool1/3x3_s2"
  type: "Pooling"
  bottom: "conv1/7x7_s2"
  top: "pool1/3x3_s2"
  pooling_param {
    pool: MAX
    kernel_size: 3
    stride: 2
  }
}
layer {
  name: "pool1/norm1"
  type: "LRN"
  bottom: "pool1/3x3_s2"
  top: "pool1/norm1"
  lrn_param {
    local_size: 5
    alpha: 0.0001
    beta: 0.75
  }
}
layer {
  name: "conv2/3x3_reduce"
  type: "Convolution"
  bottom: "pool1/norm1"
  top: "conv2/3x3_reduce"
  param {
    lr_mult: 1
    decay_mult: 1
  }
  param {
    lr_mult: 2
    decay_mult: 0
  }
  convolution_param {
    num_output: 64
    kernel_size: 1
    weight_filler {
      type: "xavier"
      std: 0.1
    }
    bias_filler {
      type: "constant"
      value: 0.2
    }
  }
}
layer {
  name: "conv2/relu_3x3_reduce"
  type: "ReLU"
  bottom: "conv2/3x3_reduce"
  top: "conv2/3x3_reduce"
}
layer {
  name: "conv2/3x3"
  type: "Convolution"
  bottom: "conv2/3x3_reduce"
  top: "conv2/3x3"
  param {
    lr_mult: 1
    decay_mult: 1
  }
  param {
    lr_mult: 2
    decay_mult: 0
  }
  convolution_param {
    num_output: 192
    pad: 1
    kernel_size: 3
    weight_filler {
      type: "xavier"
      std: 0.03
    }
    bias_filler {
      type: "constant"
      value: 0.2
    }
  }
}
layer {
  name: "conv2/relu_3x3"
  type: "ReLU"
  bottom: "conv2/3x3"
  top: "conv2/3x3"
}
layer {
  name: "conv2/norm2"
  type: "LRN"
  bottom: "conv2/3x3"
  top: "conv2/norm2"
  lrn_param {
    local_size: 5
    alpha: 0.0001
    beta: 0.75
  }
}
layer {
  name: "pool2/3x3_s2"
  type: "Pooling"
  bottom: "conv2/norm2"
  top: "pool2/3x3_s2"
  pooling_param {
    pool: MAX
    kernel_size: 3
    stride: 2
  }
}
layer {
  name: "inception_3a/1x1"
  type: "Convolution"
  bottom: "pool2/3x3_s2"
  top: "inception_3a/1x1"
  param {
    lr_mult: 1
    decay_mult: 1
  }
  param {
    lr_mult: 2
    decay_mult: 0
  }
  convolution_param {
    num_output: 64
    kernel_size: 1
    weight_filler {
      type: "xavier"
      std: 0.03
    }
    bias_filler {
      type: "constant"
      value: 0.2
    }
  }
}
layer {
  name: "inception_3a/relu_1x1"
  type: "ReLU"
  bottom: "inception_3a/1x1"
  top: "inception_3a/1x1"
}
layer {
  name: "inception_3a/3x3_reduce"
  type: "Convolution"
  bottom: "pool2/3x3_s2"
  top: "inception_3a/3x3_reduce"
  param {
    lr_mult: 1
    decay_mult: 1
  }
  param {
    lr_mult: 2
    decay_mult: 0
  }
  convolution_param {
    num_output: 96
    kernel_size: 1
    weight_filler {
      type: "xavier"
      std: 0.09
    }
    bias_filler {
      type: "constant"
      value: 0.2
    }
  }
}
layer {
  name: "inception_3a/relu_3x3_reduce"
  type: "ReLU"
  bottom: "inception_3a/3x3_reduce"
  top: "inception_3a/3x3_reduce"
}
layer {
  name: "inception_3a/3x3"
  type: "Convolution"
  bottom: "inception_3a/3x3_reduce"
  top: "inception_3a/3x3"
  param {
    lr_mult: 1
    decay_mult: 1
  }
  param {
    lr_mult: 2
    decay_mult: 0
  }
  convolution_param {
    num_output: 128
    pad: 1
    kernel_size: 3
    weight_filler {
      type: "xavier"
      std: 0.03
    }
    bias_filler {
      type: "constant"
      value: 0.2
    }
  }
}
layer {
  name: "inception_3a/relu_3x3"
  type: "ReLU"
  bottom: "inception_3a/3x3"
  top: "inception_3a/3x3"
}
layer {
  name: "inception_3a/5x5_reduce"
  type: "Convolution"
  bottom: "pool2/3x3_s2"
  top: "inception_3a/5x5_reduce"
  param {
    lr_mult: 1
    decay_mult: 1
  }
  param {
    lr_mult: 2
    decay_mult: 0
  }
  convolution_param {
    num_output: 16
    kernel_size: 1
    weight_filler {
      type: "xavier"
      std: 0.2
    }
    bias_filler {
      type: "constant"
      value: 0.2
    }
  }
}
layer {
  name: "inception_3a/relu_5x5_reduce"
  type: "ReLU"
  bottom: "inception_3a/5x5_reduce"
  top: "inception_3a/5x5_reduce"
}
layer {
  name: "inception_3a/5x5"
  type: "Convolution"
  bottom: "inception_3a/5x5_reduce"
  top: "inception_3a/5x5"
  param {
    lr_mult: 1
    decay_mult: 1
  }
  param {
    lr_mult: 2
    decay_mult: 0
  }
  convolution_param {
    num_output: 32
    pad: 2
    kernel_size: 5
    weight_filler {
      type: "xavier"
      std: 0.03
    }
    bias_filler {
      type: "constant"
      value: 0.2
    }
  }
}
layer {
  name: "inception_3a/relu_5x5"
  type: "ReLU"
  bottom: "inception_3a/5x5"
  top: "inception_3a/5x5"
}
layer {
  name: "inception_3a/pool"
  type: "Pooling"
  bottom: "pool2/3x3_s2"
  top: "inception_3a/pool"
  pooling_param {
    pool: MAX
    kernel_size: 3
    stride: 1
    pad: 1
  }
}
layer {
  name: "inception_3a/pool_proj"
  type: "Convolution"
  bottom: "inception_3a/pool"
  top: "inception_3a/pool_proj"
  param {
    lr_mult: 1
    decay_mult: 1
  }
  param {
    lr_mult: 2
    decay_mult: 0
  }
  convolution_param {
    num_output: 32
    kernel_size: 1
    weight_filler {
      type: "xavier"
      std: 0.1
    }
    bias_filler {
      type: "constant"
      value: 0.2
    }
  }
}
layer {
  name: "inception_3a/relu_pool_proj"
  type: "ReLU"
  bottom: "inception_3a/pool_proj"
  top: "inception_3a/pool_proj"
}
layer {
  name: "inception_3a/output"
  type: "Concat"
  bottom: "inception_3a/1x1"
  bottom: "inception_3a/3x3"
  bottom: "inception_3a/5x5"
  bottom: "inception_3a/pool_proj"
  top: "inception_3a/output"
}
layer {
  name: "inception_3b/1x1"
  type: "Convolution"
  bottom: "inception_3a/output"
  top: "inception_3b/1x1"
  param {
    lr_mult: 1
    decay_mult: 1
  }
  param {
    lr_mult: 2
    decay_mult: 0
  }
  convolution_param {
    num_output: 128
    kernel_size: 1
    weight_filler {
      type: "xavier"
      std: 0.03
    }
    bias_filler {
      type: "constant"
      value: 0.2
    }
  }
}
layer {
  name: "inception_3b/relu_1x1"
  type: "ReLU"
  bottom: "inception_3b/1x1"
  top: "inception_3b/1x1"
}
layer {
  name: "inception_3b/3x3_reduce"
  type: "Convolution"
  bottom: "inception_3a/output"
  top: "inception_3b/3x3_reduce"
  param {
    lr_mult: 1
    decay_mult: 1
  }
  param {
    lr_mult: 2
    decay_mult: 0
  }
  convolution_param {
    num_output: 128
    kernel_size: 1
    weight_filler {
      type: "xavier"
      std: 0.09
    }
    bias_filler {
      type: "constant"
      value: 0.2
    }
  }
}
layer {
  name: "inception_3b/relu_3x3_reduce"
  type: "ReLU"
  bottom: "inception_3b/3x3_reduce"
  top: "inception_3b/3x3_reduce"
}
layer {
  name: "inception_3b/3x3"
  type: "Convolution"
  bottom: "inception_3b/3x3_reduce"
  top: "inception_3b/3x3"
  param {
    lr_mult: 1
    decay_mult: 1
  }
  param {
    lr_mult: 2
    decay_mult: 0
  }
  convolution_param {
    num_output: 192
    pad: 1
    kernel_size: 3
    weight_filler {
      type: "xavier"
      std: 0.03
    }
    bias_filler {
      type: "constant"
      value: 0.2
    }
  }
}
layer {
  name: "inception_3b/relu_3x3"
  type: "ReLU"
  bottom: "inception_3b/3x3"
  top: "inception_3b/3x3"
}
layer {
  name: "inception_3b/5x5_reduce"
  type: "Convolution"
  bottom: "inception_3a/output"
  top: "inception_3b/5x5_reduce"
  param {
    lr_mult: 1
    decay_mult: 1
  }
  param {
    lr_mult: 2
    decay_mult: 0
  }
  convolution_param {
    num_output: 32
    kernel_size: 1
    weight_filler {
      type: "xavier"
      std: 0.2
    }
    bias_filler {
      type: "constant"
      value: 0.2
    }
  }
}
layer {
  name: "inception_3b/relu_5x5_reduce"
  type: "ReLU"
  bottom: "inception_3b/5x5_reduce"
  top: "inception_3b/5x5_reduce"
}
layer {
  name: "inception_3b/5x5"
  type: "Convolution"
  bottom: "inception_3b/5x5_reduce"
  top: "inception_3b/5x5"
  param {
    lr_mult: 1
    decay_mult: 1
  }
  param {
    lr_mult: 2
    decay_mult: 0
  }
  convolution_param {
    num_output: 96
    pad: 2
    kernel_size: 5
    weight_filler {
      type: "xavier"
      std: 0.03
    }
    bias_filler {
      type: "constant"
      value: 0.2
    }
  }
}
layer {
  name: "inception_3b/relu_5x5"
  type: "ReLU"
  bottom: "inception_3b/5x5"
  top: "inception_3b/5x5"
}
layer {
  name: "inception_3b/pool"
  type: "Pooling"
  bottom: "inception_3a/output"
  top: "inception_3b/pool"
  pooling_param {
    pool: MAX
    kernel_size: 3
    stride: 1
    pad: 1
  }
}
layer {
  name: "inception_3b/pool_proj"
  type: "Convolution"
  bottom: "inception_3b/pool"
  top: "inception_3b/pool_proj"
  param {
    lr_mult: 1
    decay_mult: 1
  }
  param {
    lr_mult: 2
    decay_mult: 0
  }
  convolution_param {
    num_output: 64
    kernel_size: 1
    weight_filler {
      type: "xavier"
      std: 0.1
    }
    bias_filler {
      type: "constant"
      value: 0.2
    }
  }
}
layer {
  name: "inception_3b/relu_pool_proj"
  type: "ReLU"
  bottom: "inception_3b/pool_proj"
  top: "inception_3b/pool_proj"
}
layer {
  name: "inception_3b/output"
  type: "Concat"
  bottom: "inception_3b/1x1"
  bottom: "inception_3b/3x3"
  bottom: "inception_3b/5x5"
  bottom: "inception_3b/pool_proj"
  top: "inception_3b/output"
}
layer {
  name: "pool3/3x3_s2"
  type: "Pooling"
  bottom: "inception_3b/output"
  top: "pool3/3x3_s2"
  pooling_param {
    pool: MAX
    kernel_size: 3
    stride: 2
  }
}
layer {
  name: "inception_4a/1x1"
  type: "Convolution"
  bottom: "pool3/3x3_s2"
  top: "inception_4a/1x1"
  param {
    lr_mult: 1
    decay_mult: 1
  }
  param {
    lr_mult: 2
    decay_mult: 0
  }
  convolution_param {
    num_output: 192
    kernel_size: 1
    weight_filler {
      type: "xavier"
      std: 0.03
    }
    bias_filler {
      type: "constant"
      value: 0.2
    }
  }
}
layer {
  name: "inception_4a/relu_1x1"
  type: "ReLU"
  bottom: "inception_4a/1x1"
  top: "inception_4a/1x1"
}
layer {
  name: "inception_4a/3x3_reduce"
  type: "Convolution"
  bottom: "pool3/3x3_s2"
  top: "inception_4a/3x3_reduce"
  param {
    lr_mult: 1
    decay_mult: 1
  }
  param {
    lr_mult: 2
    decay_mult: 0
  }
  convolution_param {
    num_output: 96
    kernel_size: 1
    weight_filler {
      type: "xavier"
      std: 0.09
    }
    bias_filler {
      type: "constant"
      value: 0.2
    }
  }
}
layer {
  name: "inception_4a/relu_3x3_reduce"
  type: "ReLU"
  bottom: "inception_4a/3x3_reduce"
  top: "inception_4a/3x3_reduce"
}
layer {
  name: "inception_4a/3x3"
  type: "Convolution"
  bottom: "inception_4a/3x3_reduce"
  top: "inception_4a/3x3"
  param {
    lr_mult: 1
    decay_mult: 1
  }
  param {
    lr_mult: 2
    decay_mult: 0
  }
  convolution_param {
    num_output: 208
    pad: 1
    kernel_size: 3
    weight_filler {
      type: "xavier"
      std: 0.03
    }
    bias_filler {
      type: "constant"
      value: 0.2
    }
  }
}
layer {
  name: "inception_4a/relu_3x3"
  type: "ReLU"
  bottom: "inception_4a/3x3"
  top: "inception_4a/3x3"
}
layer {
  name: "inception_4a/5x5_reduce"
  type: "Convolution"
  bottom: "pool3/3x3_s2"
  top: "inception_4a/5x5_reduce"
  param {
    lr_mult: 1
    decay_mult: 1
  }
  param {
    lr_mult: 2
    decay_mult: 0
  }
  convolution_param {
    num_output: 16
    kernel_size: 1
    weight_filler {
      type: "xavier"
      std: 0.2
    }
    bias_filler {
      type: "constant"
      value: 0.2
    }
  }
}
layer {
  name: "inception_4a/relu_5x5_reduce"
  type: "ReLU"
  bottom: "inception_4a/5x5_reduce"
  top: "inception_4a/5x5_reduce"
}
layer {
  name: "inception_4a/5x5"
  type: "Convolution"
  bottom: "inception_4a/5x5_reduce"
  top: "inception_4a/5x5"
  param {
    lr_mult: 1
    decay_mult: 1
  }
  param {
    lr_mult: 2
    decay_mult: 0
  }
  convolution_param {
    num_output: 48
    pad: 2
    kernel_size: 5
    weight_filler {
      type: "xavier"
      std: 0.03
    }
    bias_filler {
      type: "constant"
      value: 0.2
    }
  }
}
layer {
  name: "inception_4a/relu_5x5"
  type: "ReLU"
  bottom: "inception_4a/5x5"
  top: "inception_4a/5x5"
}
layer {
  name: "inception_4a/pool"
  type: "Pooling"
  bottom: "pool3/3x3_s2"
  top: "inception_4a/pool"
  pooling_param {
    pool: MAX
    kernel_size: 3
    stride: 1
    pad: 1
  }
}
layer {
  name: "inception_4a/pool_proj"
  type: "Convolution"
  bottom: "inception_4a/pool"
  top: "inception_4a/pool_proj"
  param {
    lr_mult: 1
    decay_mult: 1
  }
  param {
    lr_mult: 2
    decay_mult: 0
  }
  convolution_param {
    num_output: 64
    kernel_size: 1
    weight_filler {
      type: "xavier"
      std: 0.1
    }
    bias_filler {
      type: "constant"
      value: 0.2
    }
  }
}
layer {
  name: "inception_4a/relu_pool_proj"
  type: "ReLU"
  bottom: "inception_4a/pool_proj"
  top: "inception_4a/pool_proj"
}
layer {
  name: "inception_4a/output"
  type: "Concat"
  bottom: "inception_4a/1x1"
  bottom: "inception_4a/3x3"
  bottom: "inception_4a/5x5"
  bottom: "inception_4a/pool_proj"
  top: "inception_4a/output"
}
layer {
  name: "loss1/ave_pool"
  type: "Pooling"
  bottom: "inception_4a/output"
  top: "loss1/ave_pool"
  pooling_param {
    pool: AVE
    kernel_size: 5
    stride: 3
  }
}
layer {
  name: "loss1/conv"
  type: "Convolution"
  bottom: "loss1/ave_pool"
  top: "loss1/conv"
  param {
    lr_mult: 1
    decay_mult: 1
  }
  param {
    lr_mult: 2
    decay_mult: 0
  }
  convolution_param {
    num_output: 128
    kernel_size: 1
    weight_filler {
      type: "xavier"
      std: 0.08
    }
    bias_filler {
      type: "constant"
      value: 0.2
    }
  }
}
layer {
  name: "loss1/relu_conv"
  type: "ReLU"
  bottom: "loss1/conv"
  top: "loss1/conv"
}
layer {
  name: "loss1/fc"
  type: "InnerProduct"
  bottom: "loss1/conv"
  top: "loss1/fc"
  param {
    lr_mult: 1
    decay_mult: 1
  }
  param {
    lr_mult: 2
    decay_mult: 0
  }
  inner_product_param {
    num_output: 1024
    weight_filler {
      type: "xavier"
      std: 0.02
    }
    bias_filler {
      type: "constant"
      value: 0.2
    }
  }
}
layer {
  name: "loss1/relu_fc"
  type: "ReLU"
  bottom: "loss1/fc"
  top: "loss1/fc"
}
layer {
  name: "loss1/drop_fc"
  type: "Dropout"
  bottom: "loss1/fc"
  top: "loss1/fc"
  dropout_param {
    dropout_ratio: 0.7
  }
}
layer {
  name: "loss1/classifier_plantvillage"
  type: "InnerProduct"
  bottom: "loss1/fc"
  top: "loss1/classifier_plantvillage"
  param {
    lr_mult: 1
    decay_mult: 1
  }
  param {
    lr_mult: 2
    decay_mult: 0
  }
  inner_product_param {
    num_output: 38
    weight_filler {
      type: "xavier"
      std: 0.0009765625
    }
    bias_filler {
      type: "constant"
      value: 0
    }
  }
}
layer {
  name: "inception_4b/1x1"
  type: "Convolution"
  bottom: "inception_4a/output"
  top: "inception_4b/1x1"
  param {
    lr_mult: 1
    decay_mult: 1
  }
  param {
    lr_mult: 2
    decay_mult: 0
  }
  convolution_param {
    num_output: 160
    kernel_size: 1
    weight_filler {
      type: "xavier"
      std: 0.03
    }
    bias_filler {
      type: "constant"
      value: 0.2
    }
  }
}
layer {
  name: "inception_4b/relu_1x1"
  type: "ReLU"
  bottom: "inception_4b/1x1"
  top: "inception_4b/1x1"
}
layer {
  name: "inception_4b/3x3_reduce"
  type: "Convolution"
  bottom: "inception_4a/output"
  top: "inception_4b/3x3_reduce"
  param {
    lr_mult: 1
    decay_mult: 1
  }
  param {
    lr_mult: 2
    decay_mult: 0
  }
  convolution_param {
    num_output: 112
    kernel_size: 1
    weight_filler {
      type: "xavier"
      std: 0.09
    }
    bias_filler {
      type: "constant"
      value: 0.2
    }
  }
}
layer {
  name: "inception_4b/relu_3x3_reduce"
  type: "ReLU"
  bottom: "inception_4b/3x3_reduce"
  top: "inception_4b/3x3_reduce"
}
layer {
  name: "inception_4b/3x3"
  type: "Convolution"
  bottom: "inception_4b/3x3_reduce"
  top: "inception_4b/3x3"
  param {
    lr_mult: 1
    decay_mult: 1
  }
  param {
    lr_mult: 2
    decay_mult: 0
  }
  convolution_param {
    num_output: 224
    pad: 1
    kernel_size: 3
    weight_filler {
      type: "xavier"
      std: 0.03
    }
    bias_filler {
      type: "constant"
      value: 0.2
    }
  }
}
layer {
  name: "inception_4b/relu_3x3"
  type: "ReLU"
  bottom: "inception_4b/3x3"
  top: "inception_4b/3x3"
}
layer {
  name: "inception_4b/5x5_reduce"
  type: "Convolution"
  bottom: "inception_4a/output"
  top: "inception_4b/5x5_reduce"
  param {
    lr_mult: 1
    decay_mult: 1
  }
  param {
    lr_mult: 2
    decay_mult: 0
  }
  convolution_param {
    num_output: 24
    kernel_size: 1
    weight_filler {
      type: "xavier"
      std: 0.2
    }
    bias_filler {
      type: "constant"
      value: 0.2
    }
  }
}
layer {
  name: "inception_4b/relu_5x5_reduce"
  type: "ReLU"
  bottom: "inception_4b/5x5_reduce"
  top: "inception_4b/5x5_reduce"
}
layer {
  name: "inception_4b/5x5"
  type: "Convolution"
  bottom: "inception_4b/5x5_reduce"
  top: "inception_4b/5x5"
  param {
    lr_mult: 1
    decay_mult: 1
  }
  param {
    lr_mult: 2
    decay_mult: 0
  }
  convolution_param {
    num_output: 64
    pad: 2
    kernel_size: 5
    weight_filler {
      type: "xavier"
      std: 0.03
    }
    bias_filler {
      type: "constant"
      value: 0.2
    }
  }
}
layer {
  name: "inception_4b/relu_5x5"
  type: "ReLU"
  bottom: "inception_4b/5x5"
  top: "inception_4b/5x5"
}
layer {
  name: "inception_4b/pool"
  type: "Pooling"
  bottom: "inception_4a/output"
  top: "inception_4b/pool"
  pooling_param {
    pool: MAX
    kernel_size: 3
    stride: 1
    pad: 1
  }
}
layer {
  name: "inception_4b/pool_proj"
  type: "Convolution"
  bottom: "inception_4b/pool"
  top: "inception_4b/pool_proj"
  param {
    lr_mult: 1
    decay_mult: 1
  }
  param {
    lr_mult: 2
    decay_mult: 0
  }
  convolution_param {
    num_output: 64
    kernel_size: 1
    weight_filler {
      type: "xavier"
      std: 0.1
    }
    bias_filler {
      type: "constant"
      value: 0.2
    }
  }
}
layer {
  name: "inception_4b/relu_pool_proj"
  type: "ReLU"
  bottom: "inception_4b/pool_proj"
  top: "inception_4b/pool_proj"
}
layer {
  name: "inception_4b/output"
  type: "Concat"
  bottom: "inception_4b/1x1"
  bottom: "inception_4b/3x3"
  bottom: "inception_4b/5x5"
  bottom: "inception_4b/pool_proj"
  top: "inception_4b/output"
}
layer {
  name: "inception_4c/1x1"
  type: "Convolution"
  bottom: "inception_4b/output"
  top: "inception_4c/1x1"
  param {
    lr_mult: 1
    decay_mult: 1
  }
  param {
    lr_mult: 2
    decay_mult: 0
  }
  convolution_param {
    num_output: 128
    kernel_size: 1
    weight_filler {
      type: "xavier"
      std: 0.03
    }
    bias_filler {
      type: "constant"
      value: 0.2
    }
  }
}
layer {
  name: "inception_4c/relu_1x1"
  type: "ReLU"
  bottom: "inception_4c/1x1"
  top: "inception_4c/1x1"
}
layer {
  name: "inception_4c/3x3_reduce"
  type: "Convolution"
  bottom: "inception_4b/output"
  top: "inception_4c/3x3_reduce"
  param {
    lr_mult: 1
    decay_mult: 1
  }
  param {
    lr_mult: 2
    decay_mult: 0
  }
  convolution_param {
    num_output: 128
    kernel_size: 1
    weight_filler {
      type: "xavier"
      std: 0.09
    }
    bias_filler {
      type: "constant"
      value: 0.2
    }
  }
}
layer {
  name: "inception_4c/relu_3x3_reduce"
  type: "ReLU"
  bottom: "inception_4c/3x3_reduce"
  top: "inception_4c/3x3_reduce"
}
layer {
  name: "inception_4c/3x3"
  type: "Convolution"
  bottom: "inception_4c/3x3_reduce"
  top: "inception_4c/3x3"
  param {
    lr_mult: 1
    decay_mult: 1
  }
  param {
    lr_mult: 2
    decay_mult: 0
  }
  convolution_param {
    num_output: 256
    pad: 1
    kernel_size: 3
    weight_filler {
      type: "xavier"
      std: 0.03
    }
    bias_filler {
      type: "constant"
      value: 0.2
    }
  }
}
layer {
  name: "inception_4c/relu_3x3"
  type: "ReLU"
  bottom: "inception_4c/3x3"
  top: "inception_4c/3x3"
}
layer {
  name: "inception_4c/5x5_reduce"
  type: "Convolution"
  bottom: "inception_4b/output"
  top: "inception_4c/5x5_reduce"
  param {
    lr_mult: 1
    decay_mult: 1
  }
  param {
    lr_mult: 2
    decay_mult: 0
  }
  convolution_param {
    num_output: 24
    kernel_size: 1
    weight_filler {
      type: "xavier"
      std: 0.2
    }
    bias_filler {
      type: "constant"
      value: 0.2
    }
  }
}
layer {
  name: "inception_4c/relu_5x5_reduce"
  type: "ReLU"
  bottom: "inception_4c/5x5_reduce"
  top: "inception_4c/5x5_reduce"
}
layer {
  name: "inception_4c/5x5"
  type: "Convolution"
  bottom: "inception_4c/5x5_reduce"
  top: "inception_4c/5x5"
  param {
    lr_mult: 1
    decay_mult: 1
  }
  param {
    lr_mult: 2
    decay_mult: 0
  }
  convolution_param {
    num_output: 64
    pad: 2
    kernel_size: 5
    weight_filler {
      type: "xavier"
      std: 0.03
    }
    bias_filler {
      type: "constant"
      value: 0.2
    }
  }
}
layer {
  name: "inception_4c/relu_5x5"
  type: "ReLU"
  bottom: "inception_4c/5x5"
  top: "inception_4c/5x5"
}
layer {
  name: "inception_4c/pool"
  type: "Pooling"
  bottom: "inception_4b/output"
  top: "inception_4c/pool"
  pooling_param {
    pool: MAX
    kernel_size: 3
    stride: 1
    pad: 1
  }
}
layer {
  name: "inception_4c/pool_proj"
  type: "Convolution"
  bottom: "inception_4c/pool"
  top: "inception_4c/pool_proj"
  param {
    lr_mult: 1
    decay_mult: 1
  }
  param {
    lr_mult: 2
    decay_mult: 0
  }
  convolution_param {
    num_output: 64
    kernel_size: 1
    weight_filler {
      type: "xavier"
      std: 0.1
    }
    bias_filler {
      type: "constant"
      value: 0.2
    }
  }
}
layer {
  name: "inception_4c/relu_pool_proj"
  type: "ReLU"
  bottom: "inception_4c/pool_proj"
  top: "inception_4c/pool_proj"
}
layer {
  name: "inception_4c/output"
  type: "Concat"
  bottom: "inception_4c/1x1"
  bottom: "inception_4c/3x3"
  bottom: "inception_4c/5x5"
  bottom: "inception_4c/pool_proj"
  top: "inception_4c/output"
}
layer {
  name: "inception_4d/1x1"
  type: "Convolution"
  bottom: "inception_4c/output"
  top: "inception_4d/1x1"
  param {
    lr_mult: 1
    decay_mult: 1
  }
  param {
    lr_mult: 2
    decay_mult: 0
  }
  convolution_param {
    num_output: 112
    kernel_size: 1
    weight_filler {
      type: "xavier"
      std: 0.03
    }
    bias_filler {
      type: "constant"
      value: 0.2
    }
  }
}
layer {
  name: "inception_4d/relu_1x1"
  type: "ReLU"
  bottom: "inception_4d/1x1"
  top: "inception_4d/1x1"
}
layer {
  name: "inception_4d/3x3_reduce"
  type: "Convolution"
  bottom: "inception_4c/output"
  top: "inception_4d/3x3_reduce"
  param {
    lr_mult: 1
    decay_mult: 1
  }
  param {
    lr_mult: 2
    decay_mult: 0
  }
  convolution_param {
    num_output: 144
    kernel_size: 1
    weight_filler {
      type: "xavier"
      std: 0.09
    }
    bias_filler {
      type: "constant"
      value: 0.2
    }
  }
}
layer {
  name: "inception_4d/relu_3x3_reduce"
  type: "ReLU"
  bottom: "inception_4d/3x3_reduce"
  top: "inception_4d/3x3_reduce"
}
layer {
  name: "inception_4d/3x3"
  type: "Convolution"
  bottom: "inception_4d/3x3_reduce"
  top: "inception_4d/3x3"
  param {
    lr_mult: 1
    decay_mult: 1
  }
  param {
    lr_mult: 2
    decay_mult: 0
  }
  convolution_param {
    num_output: 288
    pad: 1
    kernel_size: 3
    weight_filler {
      type: "xavier"
      std: 0.03
    }
    bias_filler {
      type: "constant"
      value: 0.2
    }
  }
}
layer {
  name: "inception_4d/relu_3x3"
  type: "ReLU"
  bottom: "inception_4d/3x3"
  top: "inception_4d/3x3"
}
layer {
  name: "inception_4d/5x5_reduce"
  type: "Convolution"
  bottom: "inception_4c/output"
  top: "inception_4d/5x5_reduce"
  param {
    lr_mult: 1
    decay_mult: 1
  }
  param {
    lr_mult: 2
    decay_mult: 0
  }
  convolution_param {
    num_output: 32
    kernel_size: 1
    weight_filler {
      type: "xavier"
      std: 0.2
    }
    bias_filler {
      type: "constant"
      value: 0.2
    }
  }
}
layer {
  name: "inception_4d/relu_5x5_reduce"
  type: "ReLU"
  bottom: "inception_4d/5x5_reduce"
  top: "inception_4d/5x5_reduce"
}
layer {
  name: "inception_4d/5x5"
  type: "Convolution"
  bottom: "inception_4d/5x5_reduce"
  top: "inception_4d/5x5"
  param {
    lr_mult: 1
    decay_mult: 1
  }
  param {
    lr_mult: 2
    decay_mult: 0
  }
  convolution_param {
    num_output: 64
    pad: 2
    kernel_size: 5
    weight_filler {
      type: "xavier"
      std: 0.03
    }
    bias_filler {
      type: "constant"
      value: 0.2
    }
  }
}
layer {
  name: "inception_4d/relu_5x5"
  type: "ReLU"
  bottom: "inception_4d/5x5"
  top: "inception_4d/5x5"
}
layer {
  name: "inception_4d/pool"
  type: "Pooling"
  bottom: "inception_4c/output"
  top: "inception_4d/pool"
  pooling_param {
    pool: MAX
    kernel_size: 3
    stride: 1
    pad: 1
  }
}
layer {
  name: "inception_4d/pool_proj"
  type: "Convolution"
  bottom: "inception_4d/pool"
  top: "inception_4d/pool_proj"
  param {
    lr_mult: 1
    decay_mult: 1
  }
  param {
    lr_mult: 2
    decay_mult: 0
  }
  convolution_param {
    num_output: 64
    kernel_size: 1
    weight_filler {
      type: "xavier"
      std: 0.1
    }
    bias_filler {
      type: "constant"
      value: 0.2
    }
  }
}
layer {
  name: "inception_4d/relu_pool_proj"
  type: "ReLU"
  bottom: "inception_4d/pool_proj"
  top: "inception_4d/pool_proj"
}
layer {
  name: "inception_4d/output"
  type: "Concat"
  bottom: "inception_4d/1x1"
  bottom: "inception_4d/3x3"
  bottom: "inception_4d/5x5"
  bottom: "inception_4d/pool_proj"
  top: "inception_4d/output"
}
layer {
  name: "loss2/ave_pool"
  type: "Pooling"
  bottom: "inception_4d/output"
  top: "loss2/ave_pool"
  pooling_param {
    pool: AVE
    kernel_size: 5
    stride: 3
  }
}
layer {
  name: "loss2/conv"
  type: "Convolution"
  bottom: "loss2/ave_pool"
  top: "loss2/conv"
  param {
    lr_mult: 1
    decay_mult: 1
  }
  param {
    lr_mult: 2
    decay_mult: 0
  }
  convolution_param {
    num_output: 128
    kernel_size: 1
    weight_filler {
      type: "xavier"
      std: 0.08
    }
    bias_filler {
      type: "constant"
      value: 0.2
    }
  }
}
layer {
  name: "loss2/relu_conv"
  type: "ReLU"
  bottom: "loss2/conv"
  top: "loss2/conv"
}
layer {
  name: "loss2/fc"
  type: "InnerProduct"
  bottom: "loss2/conv"
  top: "loss2/fc"
  param {
    lr_mult: 1
    decay_mult: 1
  }
  param {
    lr_mult: 2
    decay_mult: 0
  }
  inner_product_param {
    num_output: 1024
    weight_filler {
      type: "xavier"
      std: 0.02
    }
    bias_filler {
      type: "constant"
      value: 0.2
    }
  }
}
layer {
  name: "loss2/relu_fc"
  type: "ReLU"
  bottom: "loss2/fc"
  top: "loss2/fc"
}
layer {
  name: "loss2/drop_fc"
  type: "Dropout"
  bottom: "loss2/fc"
  top: "loss2/fc"
  dropout_param {
    dropout_ratio: 0.7
  }
}
layer {
  name: "loss2/classifier_plantvillage"
  type: "InnerProduct"
  bottom: "loss2/fc"
  top: "loss2/classifier_plantvillage"
  param {
    lr_mult: 1
    decay_mult: 1
  }
  param {
    lr_mult: 2
    decay_mult: 0
  }
  inner_product_param {
    num_output: 38
    weight_filler {
      type: "xavier"
      std: 0.0009765625
    }
    bias_filler {
      type: "constant"
      value: 0
    }
  }
}
layer {
  name: "inception_4e/1x1"
  type: "Convolution"
  bottom: "inception_4d/output"
  top: "inception_4e/1x1"
  param {
    lr_mult: 1
    decay_mult: 1
  }
  param {
    lr_mult: 2
    decay_mult: 0
  }
  convolution_param {
    num_output: 256
    kernel_size: 1
    weight_filler {
      type: "xavier"
      std: 0.03
    }
    bias_filler {
      type: "constant"
      value: 0.2
    }
  }
}
layer {
  name: "inception_4e/relu_1x1"
  type: "ReLU"
  bottom: "inception_4e/1x1"
  top: "inception_4e/1x1"
}
layer {
  name: "inception_4e/3x3_reduce"
  type: "Convolution"
  bottom: "inception_4d/output"
  top: "inception_4e/3x3_reduce"
  param {
    lr_mult: 1
    decay_mult: 1
  }
  param {
    lr_mult: 2
    decay_mult: 0
  }
  convolution_param {
    num_output: 160
    kernel_size: 1
    weight_filler {
      type: "xavier"
      std: 0.09
    }
    bias_filler {
      type: "constant"
      value: 0.2
    }
  }
}
layer {
  name: "inception_4e/relu_3x3_reduce"
  type: "ReLU"
  bottom: "inception_4e/3x3_reduce"
  top: "inception_4e/3x3_reduce"
}
layer {
  name: "inception_4e/3x3"
  type: "Convolution"
  bottom: "inception_4e/3x3_reduce"
  top: "inception_4e/3x3"
  param {
    lr_mult: 1
    decay_mult: 1
  }
  param {
    lr_mult: 2
    decay_mult: 0
  }
  convolution_param {
    num_output: 320
    pad: 1
    kernel_size: 3
    weight_filler {
      type: "xavier"
      std: 0.03
    }
    bias_filler {
      type: "constant"
      value: 0.2
    }
  }
}
layer {
  name: "inception_4e/relu_3x3"
  type: "ReLU"
  bottom: "inception_4e/3x3"
  top: "inception_4e/3x3"
}
layer {
  name: "inception_4e/5x5_reduce"
  type: "Convolution"
  bottom: "inception_4d/output"
  top: "inception_4e/5x5_reduce"
  param {
    lr_mult: 1
    decay_mult: 1
  }
  param {
    lr_mult: 2
    decay_mult: 0
  }
  convolution_param {
    num_output: 32
    kernel_size: 1
    weight_filler {
      type: "xavier"
      std: 0.2
    }
    bias_filler {
      type: "constant"
      value: 0.2
    }
  }
}
layer {
  name: "inception_4e/relu_5x5_reduce"
  type: "ReLU"
  bottom: "inception_4e/5x5_reduce"
  top: "inception_4e/5x5_reduce"
}
layer {
  name: "inception_4e/5x5"
  type: "Convolution"
  bottom: "inception_4e/5x5_reduce"
  top: "inception_4e/
I0403 21:41:33.801122 23893 layer_factory.hpp:77] Creating layer data
I0403 21:41:33.801723 23893 net.cpp:91] Creating Layer data
I0403 21:41:33.801759 23893 net.cpp:399] data -> data
I0403 21:41:33.801813 23893 net.cpp:399] data -> label
I0403 21:41:33.801852 23893 data_transformer.cpp:25] Loading mean file from: /home/mohanty/data/final_dataset/lmdb/segmented-80-20/mean.binaryproto
I0403 21:41:33.802990 23895 db_lmdb.cpp:38] Opened lmdb /home/mohanty/data/final_dataset/lmdb/segmented-80-20/test_db
I0403 21:41:33.814679 23893 data_layer.cpp:41] output data size: 24,3,224,224
I0403 21:41:33.842259 23893 net.cpp:141] Setting up data
I0403 21:41:33.842346 23893 net.cpp:148] Top shape: 24 3 224 224 (3612672)
I0403 21:41:33.842370 23893 net.cpp:148] Top shape: 24 (24)
I0403 21:41:33.842386 23893 net.cpp:156] Memory required for data: 14450784
I0403 21:41:33.842413 23893 layer_factory.hpp:77] Creating layer label_data_1_split
I0403 21:41:33.842442 23893 net.cpp:91] Creating Layer label_data_1_split
I0403 21:41:33.842461 23893 net.cpp:425] label_data_1_split <- label
I0403 21:41:33.842496 23893 net.cpp:399] label_data_1_split -> label_data_1_split_0
I0403 21:41:33.842525 23893 net.cpp:399] label_data_1_split -> label_data_1_split_1
I0403 21:41:33.842548 23893 net.cpp:399] label_data_1_split -> label_data_1_split_2
I0403 21:41:33.842571 23893 net.cpp:399] label_data_1_split -> label_data_1_split_3
I0403 21:41:33.842592 23893 net.cpp:399] label_data_1_split -> label_data_1_split_4
I0403 21:41:33.842612 23893 net.cpp:399] label_data_1_split -> label_data_1_split_5
I0403 21:41:33.842633 23893 net.cpp:399] label_data_1_split -> label_data_1_split_6
I0403 21:41:33.842655 23893 net.cpp:399] label_data_1_split -> label_data_1_split_7
I0403 21:41:33.842677 23893 net.cpp:399] label_data_1_split -> label_data_1_split_8
I0403 21:41:33.842700 23893 net.cpp:399] label_data_1_split -> label_data_1_split_9
I0403 21:41:33.842816 23893 net.cpp:141] Setting up label_data_1_split
I0403 21:41:33.842841 23893 net.cpp:148] Top shape: 24 (24)
I0403 21:41:33.842859 23893 net.cpp:148] Top shape: 24 (24)
I0403 21:41:33.842875 23893 net.cpp:148] Top shape: 24 (24)
I0403 21:41:33.842892 23893 net.cpp:148] Top shape: 24 (24)
I0403 21:41:33.842908 23893 net.cpp:148] Top shape: 24 (24)
I0403 21:41:33.842923 23893 net.cpp:148] Top shape: 24 (24)
I0403 21:41:33.842941 23893 net.cpp:148] Top shape: 24 (24)
I0403 21:41:33.842958 23893 net.cpp:148] Top shape: 24 (24)
I0403 21:41:33.842974 23893 net.cpp:148] Top shape: 24 (24)
I0403 21:41:33.842991 23893 net.cpp:148] Top shape: 24 (24)
I0403 21:41:33.843046 23893 net.cpp:156] Memory required for data: 14451744
I0403 21:41:33.843063 23893 layer_factory.hpp:77] Creating layer conv1/7x7_s2
I0403 21:41:33.843096 23893 net.cpp:91] Creating Layer conv1/7x7_s2
I0403 21:41:33.843114 23893 net.cpp:425] conv1/7x7_s2 <- data
I0403 21:41:33.843135 23893 net.cpp:399] conv1/7x7_s2 -> conv1/7x7_s2
I0403 21:41:33.985038 23893 net.cpp:141] Setting up conv1/7x7_s2
I0403 21:41:33.985115 23893 net.cpp:148] Top shape: 24 64 112 112 (19267584)
I0403 21:41:33.985131 23893 net.cpp:156] Memory required for data: 91522080
I0403 21:41:33.985163 23893 layer_factory.hpp:77] Creating layer conv1/relu_7x7
I0403 21:41:33.985193 23893 net.cpp:91] Creating Layer conv1/relu_7x7
I0403 21:41:33.985213 23893 net.cpp:425] conv1/relu_7x7 <- conv1/7x7_s2
I0403 21:41:33.985235 23893 net.cpp:386] conv1/relu_7x7 -> conv1/7x7_s2 (in-place)
I0403 21:41:33.985502 23893 net.cpp:141] Setting up conv1/relu_7x7
I0403 21:41:33.985528 23893 net.cpp:148] Top shape: 24 64 112 112 (19267584)
I0403 21:41:33.985543 23893 net.cpp:156] Memory required for data: 168592416
I0403 21:41:33.985558 23893 layer_factory.hpp:77] Creating layer pool1/3x3_s2
I0403 21:41:33.985586 23893 net.cpp:91] Creating Layer pool1/3x3_s2
I0403 21:41:33.985605 23893 net.cpp:425] pool1/3x3_s2 <- conv1/7x7_s2
I0403 21:41:33.985623 23893 net.cpp:399] pool1/3x3_s2 -> pool1/3x3_s2
I0403 21:41:33.985702 23893 net.cpp:141] Setting up pool1/3x3_s2
I0403 21:41:33.985725 23893 net.cpp:148] Top shape: 24 64 56 56 (4816896)
I0403 21:41:33.985740 23893 net.cpp:156] Memory required for data: 187860000
I0403 21:41:33.985756 23893 layer_factory.hpp:77] Creating layer pool1/norm1
I0403 21:41:33.985781 23893 net.cpp:91] Creating Layer pool1/norm1
I0403 21:41:33.985800 23893 net.cpp:425] pool1/norm1 <- pool1/3x3_s2
I0403 21:41:33.985817 23893 net.cpp:399] pool1/norm1 -> pool1/norm1
I0403 21:41:33.986106 23893 net.cpp:141] Setting up pool1/norm1
I0403 21:41:33.986134 23893 net.cpp:148] Top shape: 24 64 56 56 (4816896)
I0403 21:41:33.986148 23893 net.cpp:156] Memory required for data: 207127584
I0403 21:41:33.986165 23893 layer_factory.hpp:77] Creating layer conv2/3x3_reduce
I0403 21:41:33.986191 23893 net.cpp:91] Creating Layer conv2/3x3_reduce
I0403 21:41:33.986207 23893 net.cpp:425] conv2/3x3_reduce <- pool1/norm1
I0403 21:41:33.986232 23893 net.cpp:399] conv2/3x3_reduce -> conv2/3x3_reduce
I0403 21:41:33.987619 23893 net.cpp:141] Setting up conv2/3x3_reduce
I0403 21:41:33.987648 23893 net.cpp:148] Top shape: 24 64 56 56 (4816896)
I0403 21:41:33.987664 23893 net.cpp:156] Memory required for data: 226395168
I0403 21:41:33.987685 23893 layer_factory.hpp:77] Creating layer conv2/relu_3x3_reduce
I0403 21:41:33.987705 23893 net.cpp:91] Creating Layer conv2/relu_3x3_reduce
I0403 21:41:33.987721 23893 net.cpp:425] conv2/relu_3x3_reduce <- conv2/3x3_reduce
I0403 21:41:33.987741 23893 net.cpp:386] conv2/relu_3x3_reduce -> conv2/3x3_reduce (in-place)
I0403 21:41:33.987999 23893 net.cpp:141] Setting up conv2/relu_3x3_reduce
I0403 21:41:33.988025 23893 net.cpp:148] Top shape: 24 64 56 56 (4816896)
I0403 21:41:33.988040 23893 net.cpp:156] Memory required for data: 245662752
I0403 21:41:33.988055 23893 layer_factory.hpp:77] Creating layer conv2/3x3
I0403 21:41:33.988080 23893 net.cpp:91] Creating Layer conv2/3x3
I0403 21:41:33.988096 23893 net.cpp:425] conv2/3x3 <- conv2/3x3_reduce
I0403 21:41:33.988118 23893 net.cpp:399] conv2/3x3 -> conv2/3x3
I0403 21:41:33.990360 23893 net.cpp:141] Setting up conv2/3x3
I0403 21:41:33.990391 23893 net.cpp:148] Top shape: 24 192 56 56 (14450688)
I0403 21:41:33.990406 23893 net.cpp:156] Memory required for data: 303465504
I0403 21:41:33.990427 23893 layer_factory.hpp:77] Creating layer conv2/relu_3x3
I0403 21:41:33.990447 23893 net.cpp:91] Creating Layer conv2/relu_3x3
I0403 21:41:33.990464 23893 net.cpp:425] conv2/relu_3x3 <- conv2/3x3
I0403 21:41:33.990491 23893 net.cpp:386] conv2/relu_3x3 -> conv2/3x3 (in-place)
I0403 21:41:33.990661 23893 net.cpp:141] Setting up conv2/relu_3x3
I0403 21:41:33.990689 23893 net.cpp:148] Top shape: 24 192 56 56 (14450688)
I0403 21:41:33.990736 23893 net.cpp:156] Memory required for data: 361268256
I0403 21:41:33.990752 23893 layer_factory.hpp:77] Creating layer conv2/norm2
I0403 21:41:33.990770 23893 net.cpp:91] Creating Layer conv2/norm2
I0403 21:41:33.990787 23893 net.cpp:425] conv2/norm2 <- conv2/3x3
I0403 21:41:33.990808 23893 net.cpp:399] conv2/norm2 -> conv2/norm2
I0403 21:41:33.991101 23893 net.cpp:141] Setting up conv2/norm2
I0403 21:41:33.991127 23893 net.cpp:148] Top shape: 24 192 56 56 (14450688)
I0403 21:41:33.991142 23893 net.cpp:156] Memory required for data: 419071008
I0403 21:41:33.991158 23893 layer_factory.hpp:77] Creating layer pool2/3x3_s2
I0403 21:41:33.991181 23893 net.cpp:91] Creating Layer pool2/3x3_s2
I0403 21:41:33.991196 23893 net.cpp:425] pool2/3x3_s2 <- conv2/norm2
I0403 21:41:33.991215 23893 net.cpp:399] pool2/3x3_s2 -> pool2/3x3_s2
I0403 21:41:33.991271 23893 net.cpp:141] Setting up pool2/3x3_s2
I0403 21:41:33.991294 23893 net.cpp:148] Top shape: 24 192 28 28 (3612672)
I0403 21:41:33.991309 23893 net.cpp:156] Memory required for data: 433521696
I0403 21:41:33.991324 23893 layer_factory.hpp:77] Creating layer pool2/3x3_s2_pool2/3x3_s2_0_split
I0403 21:41:33.991343 23893 net.cpp:91] Creating Layer pool2/3x3_s2_pool2/3x3_s2_0_split
I0403 21:41:33.991359 23893 net.cpp:425] pool2/3x3_s2_pool2/3x3_s2_0_split <- pool2/3x3_s2
I0403 21:41:33.991377 23893 net.cpp:399] pool2/3x3_s2_pool2/3x3_s2_0_split -> pool2/3x3_s2_pool2/3x3_s2_0_split_0
I0403 21:41:33.991397 23893 net.cpp:399] pool2/3x3_s2_pool2/3x3_s2_0_split -> pool2/3x3_s2_pool2/3x3_s2_0_split_1
I0403 21:41:33.991420 23893 net.cpp:399] pool2/3x3_s2_pool2/3x3_s2_0_split -> pool2/3x3_s2_pool2/3x3_s2_0_split_2
I0403 21:41:33.991439 23893 net.cpp:399] pool2/3x3_s2_pool2/3x3_s2_0_split -> pool2/3x3_s2_pool2/3x3_s2_0_split_3
I0403 21:41:33.991508 23893 net.cpp:141] Setting up pool2/3x3_s2_pool2/3x3_s2_0_split
I0403 21:41:33.991531 23893 net.cpp:148] Top shape: 24 192 28 28 (3612672)
I0403 21:41:33.991547 23893 net.cpp:148] Top shape: 24 192 28 28 (3612672)
I0403 21:41:33.991564 23893 net.cpp:148] Top shape: 24 192 28 28 (3612672)
I0403 21:41:33.991578 23893 net.cpp:148] Top shape: 24 192 28 28 (3612672)
I0403 21:41:33.991592 23893 net.cpp:156] Memory required for data: 491324448
I0403 21:41:33.991606 23893 layer_factory.hpp:77] Creating layer inception_3a/1x1
I0403 21:41:33.991629 23893 net.cpp:91] Creating Layer inception_3a/1x1
I0403 21:41:33.991646 23893 net.cpp:425] inception_3a/1x1 <- pool2/3x3_s2_pool2/3x3_s2_0_split_0
I0403 21:41:33.991667 23893 net.cpp:399] inception_3a/1x1 -> inception_3a/1x1
I0403 21:41:33.993161 23893 net.cpp:141] Setting up inception_3a/1x1
I0403 21:41:33.993191 23893 net.cpp:148] Top shape: 24 64 28 28 (1204224)
I0403 21:41:33.993206 23893 net.cpp:156] Memory required for data: 496141344
I0403 21:41:33.993224 23893 layer_factory.hpp:77] Creating layer inception_3a/relu_1x1
I0403 21:41:33.993248 23893 net.cpp:91] Creating Layer inception_3a/relu_1x1
I0403 21:41:33.993264 23893 net.cpp:425] inception_3a/relu_1x1 <- inception_3a/1x1
I0403 21:41:33.993285 23893 net.cpp:386] inception_3a/relu_1x1 -> inception_3a/1x1 (in-place)
I0403 21:41:33.993451 23893 net.cpp:141] Setting up inception_3a/relu_1x1
I0403 21:41:33.993476 23893 net.cpp:148] Top shape: 24 64 28 28 (1204224)
I0403 21:41:33.993491 23893 net.cpp:156] Memory required for data: 500958240
I0403 21:41:33.993506 23893 layer_factory.hpp:77] Creating layer inception_3a/3x3_reduce
I0403 21:41:33.993528 23893 net.cpp:91] Creating Layer inception_3a/3x3_reduce
I0403 21:41:33.993546 23893 net.cpp:425] inception_3a/3x3_reduce <- pool2/3x3_s2_pool2/3x3_s2_0_split_1
I0403 21:41:33.993567 23893 net.cpp:399] inception_3a/3x3_reduce -> inception_3a/3x3_reduce
I0403 21:41:33.995225 23893 net.cpp:141] Setting up inception_3a/3x3_reduce
I0403 21:41:33.995259 23893 net.cpp:148] Top shape: 24 96 28 28 (1806336)
I0403 21:41:33.995275 23893 net.cpp:156] Memory required for data: 508183584
I0403 21:41:33.995297 23893 layer_factory.hpp:77] Creating layer inception_3a/relu_3x3_reduce
I0403 21:41:33.995337 23893 net.cpp:91] Creating Layer inception_3a/relu_3x3_reduce
I0403 21:41:33.995355 23893 net.cpp:425] inception_3a/relu_3x3_reduce <- inception_3a/3x3_reduce
I0403 21:41:33.995373 23893 net.cpp:386] inception_3a/relu_3x3_reduce -> inception_3a/3x3_reduce (in-place)
I0403 21:41:33.995548 23893 net.cpp:141] Setting up inception_3a/relu_3x3_reduce
I0403 21:41:33.995574 23893 net.cpp:148] Top shape: 24 96 28 28 (1806336)
I0403 21:41:33.995590 23893 net.cpp:156] Memory required for data: 515408928
I0403 21:41:33.995605 23893 layer_factory.hpp:77] Creating layer inception_3a/3x3
I0403 21:41:33.995627 23893 net.cpp:91] Creating Layer inception_3a/3x3
I0403 21:41:33.995645 23893 net.cpp:425] inception_3a/3x3 <- inception_3a/3x3_reduce
I0403 21:41:33.995666 23893 net.cpp:399] inception_3a/3x3 -> inception_3a/3x3
I0403 21:41:33.997264 23893 net.cpp:141] Setting up inception_3a/3x3
I0403 21:41:33.997293 23893 net.cpp:148] Top shape: 24 128 28 28 (2408448)
I0403 21:41:33.997308 23893 net.cpp:156] Memory required for data: 525042720
I0403 21:41:33.997328 23893 layer_factory.hpp:77] Creating layer inception_3a/relu_3x3
I0403 21:41:33.997349 23893 net.cpp:91] Creating Layer inception_3a/relu_3x3
I0403 21:41:33.997365 23893 net.cpp:425] inception_3a/relu_3x3 <- inception_3a/3x3
I0403 21:41:33.997383 23893 net.cpp:386] inception_3a/relu_3x3 -> inception_3a/3x3 (in-place)
I0403 21:41:33.997653 23893 net.cpp:141] Setting up inception_3a/relu_3x3
I0403 21:41:33.997679 23893 net.cpp:148] Top shape: 24 128 28 28 (2408448)
I0403 21:41:33.997694 23893 net.cpp:156] Memory required for data: 534676512
I0403 21:41:33.997709 23893 layer_factory.hpp:77] Creating layer inception_3a/5x5_reduce
I0403 21:41:33.997731 23893 net.cpp:91] Creating Layer inception_3a/5x5_reduce
I0403 21:41:33.997748 23893 net.cpp:425] inception_3a/5x5_reduce <- pool2/3x3_s2_pool2/3x3_s2_0_split_2
I0403 21:41:33.997769 23893 net.cpp:399] inception_3a/5x5_reduce -> inception_3a/5x5_reduce
I0403 21:41:33.998720 23893 net.cpp:141] Setting up inception_3a/5x5_reduce
I0403 21:41:33.998749 23893 net.cpp:148] Top shape: 24 16 28 28 (301056)
I0403 21:41:33.998764 23893 net.cpp:156] Memory required for data: 535880736
I0403 21:41:33.998783 23893 layer_factory.hpp:77] Creating layer inception_3a/relu_5x5_reduce
I0403 21:41:33.998803 23893 net.cpp:91] Creating Layer inception_3a/relu_5x5_reduce
I0403 21:41:33.998821 23893 net.cpp:425] inception_3a/relu_5x5_reduce <- inception_3a/5x5_reduce
I0403 21:41:33.998839 23893 net.cpp:386] inception_3a/relu_5x5_reduce -> inception_3a/5x5_reduce (in-place)
I0403 21:41:33.999127 23893 net.cpp:141] Setting up inception_3a/relu_5x5_reduce
I0403 21:41:33.999155 23893 net.cpp:148] Top shape: 24 16 28 28 (301056)
I0403 21:41:33.999171 23893 net.cpp:156] Memory required for data: 537084960
I0403 21:41:33.999186 23893 layer_factory.hpp:77] Creating layer inception_3a/5x5
I0403 21:41:33.999207 23893 net.cpp:91] Creating Layer inception_3a/5x5
I0403 21:41:33.999223 23893 net.cpp:425] inception_3a/5x5 <- inception_3a/5x5_reduce
I0403 21:41:33.999250 23893 net.cpp:399] inception_3a/5x5 -> inception_3a/5x5
I0403 21:41:34.000219 23893 net.cpp:141] Setting up inception_3a/5x5
I0403 21:41:34.000252 23893 net.cpp:148] Top shape: 24 32 28 28 (602112)
I0403 21:41:34.000268 23893 net.cpp:156] Memory required for data: 539493408
I0403 21:41:34.000288 23893 layer_factory.hpp:77] Creating layer inception_3a/relu_5x5
I0403 21:41:34.000309 23893 net.cpp:91] Creating Layer inception_3a/relu_5x5
I0403 21:41:34.000327 23893 net.cpp:425] inception_3a/relu_5x5 <- inception_3a/5x5
I0403 21:41:34.000345 23893 net.cpp:386] inception_3a/relu_5x5 -> inception_3a/5x5 (in-place)
I0403 21:41:34.000510 23893 net.cpp:141] Setting up inception_3a/relu_5x5
I0403 21:41:34.000535 23893 net.cpp:148] Top shape: 24 32 28 28 (602112)
I0403 21:41:34.000550 23893 net.cpp:156] Memory required for data: 541901856
I0403 21:41:34.000563 23893 layer_factory.hpp:77] Creating layer inception_3a/pool
I0403 21:41:34.000583 23893 net.cpp:91] Creating Layer inception_3a/pool
I0403 21:41:34.000613 23893 net.cpp:425] inception_3a/pool <- pool2/3x3_s2_pool2/3x3_s2_0_split_3
I0403 21:41:34.000632 23893 net.cpp:399] inception_3a/pool -> inception_3a/pool
I0403 21:41:34.000687 23893 net.cpp:141] Setting up inception_3a/pool
I0403 21:41:34.000711 23893 net.cpp:148] Top shape: 24 192 28 28 (3612672)
I0403 21:41:34.000726 23893 net.cpp:156] Memory required for data: 556352544
I0403 21:41:34.000741 23893 layer_factory.hpp:77] Creating layer inception_3a/pool_proj
I0403 21:41:34.000763 23893 net.cpp:91] Creating Layer inception_3a/pool_proj
I0403 21:41:34.000780 23893 net.cpp:425] inception_3a/pool_proj <- inception_3a/pool
I0403 21:41:34.000802 23893 net.cpp:399] inception_3a/pool_proj -> inception_3a/pool_proj
I0403 21:41:34.001744 23893 net.cpp:141] Setting up inception_3a/pool_proj
I0403 21:41:34.001773 23893 net.cpp:148] Top shape: 24 32 28 28 (602112)
I0403 21:41:34.001791 23893 net.cpp:156] Memory required for data: 558760992
I0403 21:41:34.001813 23893 layer_factory.hpp:77] Creating layer inception_3a/relu_pool_proj
I0403 21:41:34.001837 23893 net.cpp:91] Creating Layer inception_3a/relu_pool_proj
I0403 21:41:34.001855 23893 net.cpp:425] inception_3a/relu_pool_proj <- inception_3a/pool_proj
I0403 21:41:34.001873 23893 net.cpp:386] inception_3a/relu_pool_proj -> inception_3a/pool_proj (in-place)
I0403 21:41:34.002135 23893 net.cpp:141] Setting up inception_3a/relu_pool_proj
I0403 21:41:34.002161 23893 net.cpp:148] Top shape: 24 32 28 28 (602112)
I0403 21:41:34.002176 23893 net.cpp:156] Memory required for data: 561169440
I0403 21:41:34.002192 23893 layer_factory.hpp:77] Creating layer inception_3a/output
I0403 21:41:34.002209 23893 net.cpp:91] Creating Layer inception_3a/output
I0403 21:41:34.002225 23893 net.cpp:425] inception_3a/output <- inception_3a/1x1
I0403 21:41:34.002251 23893 net.cpp:425] inception_3a/output <- inception_3a/3x3
I0403 21:41:34.002270 23893 net.cpp:425] inception_3a/output <- inception_3a/5x5
I0403 21:41:34.002286 23893 net.cpp:425] inception_3a/output <- inception_3a/pool_proj
I0403 21:41:34.002303 23893 net.cpp:399] inception_3a/output -> inception_3a/output
I0403 21:41:34.002347 23893 net.cpp:141] Setting up inception_3a/output
I0403 21:41:34.002374 23893 net.cpp:148] Top shape: 24 256 28 28 (4816896)
I0403 21:41:34.002389 23893 net.cpp:156] Memory required for data: 580437024
I0403 21:41:34.002405 23893 layer_factory.hpp:77] Creating layer inception_3a/output_inception_3a/output_0_split
I0403 21:41:34.002421 23893 net.cpp:91] Creating Layer inception_3a/output_inception_3a/output_0_split
I0403 21:41:34.002436 23893 net.cpp:425] inception_3a/output_inception_3a/output_0_split <- inception_3a/output
I0403 21:41:34.002455 23893 net.cpp:399] inception_3a/output_inception_3a/output_0_split -> inception_3a/output_inception_3a/output_0_split_0
I0403 21:41:34.002475 23893 net.cpp:399] inception_3a/output_inception_3a/output_0_split -> inception_3a/output_inception_3a/output_0_split_1
I0403 21:41:34.002498 23893 net.cpp:399] inception_3a/output_inception_3a/output_0_split -> inception_3a/output_inception_3a/output_0_split_2
I0403 21:41:34.002519 23893 net.cpp:399] inception_3a/output_inception_3a/output_0_split -> inception_3a/output_inception_3a/output_0_split_3
I0403 21:41:34.002593 23893 net.cpp:141] Setting up inception_3a/output_inception_3a/output_0_split
I0403 21:41:34.002615 23893 net.cpp:148] Top shape: 24 256 28 28 (4816896)
I0403 21:41:34.002631 23893 net.cpp:148] Top shape: 24 256 28 28 (4816896)
I0403 21:41:34.002646 23893 net.cpp:148] Top shape: 24 256 28 28 (4816896)
I0403 21:41:34.002661 23893 net.cpp:148] Top shape: 24 256 28 28 (4816896)
I0403 21:41:34.002676 23893 net.cpp:156] Memory required for data: 657507360
I0403 21:41:34.002691 23893 layer_factory.hpp:77] Creating layer inception_3b/1x1
I0403 21:41:34.002713 23893 net.cpp:91] Creating Layer inception_3b/1x1
I0403 21:41:34.002730 23893 net.cpp:425] inception_3b/1x1 <- inception_3a/output_inception_3a/output_0_split_0
I0403 21:41:34.002751 23893 net.cpp:399] inception_3b/1x1 -> inception_3b/1x1
I0403 21:41:34.003885 23893 net.cpp:141] Setting up inception_3b/1x1
I0403 21:41:34.003926 23893 net.cpp:148] Top shape: 24 128 28 28 (2408448)
I0403 21:41:34.003942 23893 net.cpp:156] Memory required for data: 667141152
I0403 21:41:34.003962 23893 layer_factory.hpp:77] Creating layer inception_3b/relu_1x1
I0403 21:41:34.003980 23893 net.cpp:91] Creating Layer inception_3b/relu_1x1
I0403 21:41:34.003998 23893 net.cpp:425] inception_3b/relu_1x1 <- inception_3b/1x1
I0403 21:41:34.004017 23893 net.cpp:386] inception_3b/relu_1x1 -> inception_3b/1x1 (in-place)
I0403 21:41:34.004191 23893 net.cpp:141] Setting up inception_3b/relu_1x1
I0403 21:41:34.004217 23893 net.cpp:148] Top shape: 24 128 28 28 (2408448)
I0403 21:41:34.004238 23893 net.cpp:156] Memory required for data: 676774944
I0403 21:41:34.004256 23893 layer_factory.hpp:77] Creating layer inception_3b/3x3_reduce
I0403 21:41:34.004278 23893 net.cpp:91] Creating Layer inception_3b/3x3_reduce
I0403 21:41:34.004297 23893 net.cpp:425] inception_3b/3x3_reduce <- inception_3a/output_inception_3a/output_0_split_1
I0403 21:41:34.004317 23893 net.cpp:399] inception_3b/3x3_reduce -> inception_3b/3x3_reduce
I0403 21:41:34.005436 23893 net.cpp:141] Setting up inception_3b/3x3_reduce
I0403 21:41:34.005470 23893 net.cpp:148] Top shape: 24 128 28 28 (2408448)
I0403 21:41:34.005488 23893 net.cpp:156] Memory required for data: 686408736
I0403 21:41:34.005509 23893 layer_factory.hpp:77] Creating layer inception_3b/relu_3x3_reduce
I0403 21:41:34.005527 23893 net.cpp:91] Creating Layer inception_3b/relu_3x3_reduce
I0403 21:41:34.005544 23893 net.cpp:425] inception_3b/relu_3x3_reduce <- inception_3b/3x3_reduce
I0403 21:41:34.005563 23893 net.cpp:386] inception_3b/relu_3x3_reduce -> inception_3b/3x3_reduce (in-place)
I0403 21:41:34.005733 23893 net.cpp:141] Setting up inception_3b/relu_3x3_reduce
I0403 21:41:34.005759 23893 net.cpp:148] Top shape: 24 128 28 28 (2408448)
I0403 21:41:34.005774 23893 net.cpp:156] Memory required for data: 696042528
I0403 21:41:34.005789 23893 layer_factory.hpp:77] Creating layer inception_3b/3x3
I0403 21:41:34.005815 23893 net.cpp:91] Creating Layer inception_3b/3x3
I0403 21:41:34.005833 23893 net.cpp:425] inception_3b/3x3 <- inception_3b/3x3_reduce
I0403 21:41:34.005853 23893 net.cpp:399] inception_3b/3x3 -> inception_3b/3x3
I0403 21:41:34.008759 23893 net.cpp:141] Setting up inception_3b/3x3
I0403 21:41:34.008788 23893 net.cpp:148] Top shape: 24 192 28 28 (3612672)
I0403 21:41:34.008805 23893 net.cpp:156] Memory required for data: 710493216
I0403 21:41:34.008824 23893 layer_factory.hpp:77] Creating layer inception_3b/relu_3x3
I0403 21:41:34.008846 23893 net.cpp:91] Creating Layer inception_3b/relu_3x3
I0403 21:41:34.008863 23893 net.cpp:425] inception_3b/relu_3x3 <- inception_3b/3x3
I0403 21:41:34.008882 23893 net.cpp:386] inception_3b/relu_3x3 -> inception_3b/3x3 (in-place)
I0403 21:41:34.009162 23893 net.cpp:141] Setting up inception_3b/relu_3x3
I0403 21:41:34.009189 23893 net.cpp:148] Top shape: 24 192 28 28 (3612672)
I0403 21:41:34.009205 23893 net.cpp:156] Memory required for data: 724943904
I0403 21:41:34.009220 23893 layer_factory.hpp:77] Creating layer inception_3b/5x5_reduce
I0403 21:41:34.009249 23893 net.cpp:91] Creating Layer inception_3b/5x5_reduce
I0403 21:41:34.009268 23893 net.cpp:425] inception_3b/5x5_reduce <- inception_3a/output_inception_3a/output_0_split_2
I0403 21:41:34.009292 23893 net.cpp:399] inception_3b/5x5_reduce -> inception_3b/5x5_reduce
I0403 21:41:34.010278 23893 net.cpp:141] Setting up inception_3b/5x5_reduce
I0403 21:41:34.010306 23893 net.cpp:148] Top shape: 24 32 28 28 (602112)
I0403 21:41:34.010323 23893 net.cpp:156] Memory required for data: 727352352
I0403 21:41:34.010341 23893 layer_factory.hpp:77] Creating layer inception_3b/relu_5x5_reduce
I0403 21:41:34.010362 23893 net.cpp:91] Creating Layer inception_3b/relu_5x5_reduce
I0403 21:41:34.010380 23893 net.cpp:425] inception_3b/relu_5x5_reduce <- inception_3b/5x5_reduce
I0403 21:41:34.010398 23893 net.cpp:386] inception_3b/relu_5x5_reduce -> inception_3b/5x5_reduce (in-place)
I0403 21:41:34.010586 23893 net.cpp:141] Setting up inception_3b/relu_5x5_reduce
I0403 21:41:34.010612 23893 net.cpp:148] Top shape: 24 32 28 28 (602112)
I0403 21:41:34.010627 23893 net.cpp:156] Memory required for data: 729760800
I0403 21:41:34.010643 23893 layer_factory.hpp:77] Creating layer inception_3b/5x5
I0403 21:41:34.010665 23893 net.cpp:91] Creating Layer inception_3b/5x5
I0403 21:41:34.010685 23893 net.cpp:425] inception_3b/5x5 <- inception_3b/5x5_reduce
I0403 21:41:34.010704 23893 net.cpp:399] inception_3b/5x5 -> inception_3b/5x5
I0403 21:41:34.012686 23893 net.cpp:141] Setting up inception_3b/5x5
I0403 21:41:34.012717 23893 net.cpp:148] Top shape: 24 96 28 28 (1806336)
I0403 21:41:34.012734 23893 net.cpp:156] Memory required for data: 736986144
I0403 21:41:34.012753 23893 layer_factory.hpp:77] Creating layer inception_3b/relu_5x5
I0403 21:41:34.012773 23893 net.cpp:91] Creating Layer inception_3b/relu_5x5
I0403 21:41:34.012789 23893 net.cpp:425] inception_3b/relu_5x5 <- inception_3b/5x5
I0403 21:41:34.012811 23893 net.cpp:386] inception_3b/relu_5x5 -> inception_3b/5x5 (in-place)
I0403 21:41:34.013000 23893 net.cpp:141] Setting up inception_3b/relu_5x5
I0403 21:41:34.013025 23893 net.cpp:148] Top shape: 24 96 28 28 (1806336)
I0403 21:41:34.013041 23893 net.cpp:156] Memory required for data: 744211488
I0403 21:41:34.013056 23893 layer_factory.hpp:77] Creating layer inception_3b/pool
I0403 21:41:34.013073 23893 net.cpp:91] Creating Layer inception_3b/pool
I0403 21:41:34.013089 23893 net.cpp:425] inception_3b/pool <- inception_3a/output_inception_3a/output_0_split_3
I0403 21:41:34.013108 23893 net.cpp:399] inception_3b/pool -> inception_3b/pool
I0403 21:41:34.013164 23893 net.cpp:141] Setting up inception_3b/pool
I0403 21:41:34.013188 23893 net.cpp:148] Top shape: 24 256 28 28 (4816896)
I0403 21:41:34.013205 23893 net.cpp:156] Memory required for data: 763479072
I0403 21:41:34.013221 23893 layer_factory.hpp:77] Creating layer inception_3b/pool_proj
I0403 21:41:34.013250 23893 net.cpp:91] Creating Layer inception_3b/pool_proj
I0403 21:41:34.013270 23893 net.cpp:425] inception_3b/pool_proj <- inception_3b/pool
I0403 21:41:34.013289 23893 net.cpp:399] inception_3b/pool_proj -> inception_3b/pool_proj
I0403 21:41:34.014330 23893 net.cpp:141] Setting up inception_3b/pool_proj
I0403 21:41:34.014358 23893 net.cpp:148] Top shape: 24 64 28 28 (1204224)
I0403 21:41:34.014374 23893 net.cpp:156] Memory required for data: 768295968
I0403 21:41:34.014395 23893 layer_factory.hpp:77] Creating layer inception_3b/relu_pool_proj
I0403 21:41:34.014415 23893 net.cpp:91] Creating Layer inception_3b/relu_pool_proj
I0403 21:41:34.014432 23893 net.cpp:425] inception_3b/relu_pool_proj <- inception_3b/pool_proj
I0403 21:41:34.014451 23893 net.cpp:386] inception_3b/relu_pool_proj -> inception_3b/pool_proj (in-place)
I0403 21:41:34.014838 23893 net.cpp:141] Setting up inception_3b/relu_pool_proj
I0403 21:41:34.014865 23893 net.cpp:148] Top shape: 24 64 28 28 (1204224)
I0403 21:41:34.014883 23893 net.cpp:156] Memory required for data: 773112864
I0403 21:41:34.014897 23893 layer_factory.hpp:77] Creating layer inception_3b/output
I0403 21:41:34.014917 23893 net.cpp:91] Creating Layer inception_3b/output
I0403 21:41:34.014935 23893 net.cpp:425] inception_3b/output <- inception_3b/1x1
I0403 21:41:34.014955 23893 net.cpp:425] inception_3b/output <- inception_3b/3x3
I0403 21:41:34.014971 23893 net.cpp:425] inception_3b/output <- inception_3b/5x5
I0403 21:41:34.014988 23893 net.cpp:425] inception_3b/output <- inception_3b/pool_proj
I0403 21:41:34.015005 23893 net.cpp:399] inception_3b/output -> inception_3b/output
I0403 21:41:34.015050 23893 net.cpp:141] Setting up inception_3b/output
I0403 21:41:34.015075 23893 net.cpp:148] Top shape: 24 480 28 28 (9031680)
I0403 21:41:34.015089 23893 net.cpp:156] Memory required for data: 809239584
I0403 21:41:34.015105 23893 layer_factory.hpp:77] Creating layer pool3/3x3_s2
I0403 21:41:34.015123 23893 net.cpp:91] Creating Layer pool3/3x3_s2
I0403 21:41:34.015139 23893 net.cpp:425] pool3/3x3_s2 <- inception_3b/output
I0403 21:41:34.015174 23893 net.cpp:399] pool3/3x3_s2 -> pool3/3x3_s2
I0403 21:41:34.015240 23893 net.cpp:141] Setting up pool3/3x3_s2
I0403 21:41:34.015266 23893 net.cpp:148] Top shape: 24 480 14 14 (2257920)
I0403 21:41:34.015282 23893 net.cpp:156] Memory required for data: 818271264
I0403 21:41:34.015298 23893 layer_factory.hpp:77] Creating layer pool3/3x3_s2_pool3/3x3_s2_0_split
I0403 21:41:34.015316 23893 net.cpp:91] Creating Layer pool3/3x3_s2_pool3/3x3_s2_0_split
I0403 21:41:34.015332 23893 net.cpp:425] pool3/3x3_s2_pool3/3x3_s2_0_split <- pool3/3x3_s2
I0403 21:41:34.015349 23893 net.cpp:399] pool3/3x3_s2_pool3/3x3_s2_0_split -> pool3/3x3_s2_pool3/3x3_s2_0_split_0
I0403 21:41:34.015372 23893 net.cpp:399] pool3/3x3_s2_pool3/3x3_s2_0_split -> pool3/3x3_s2_pool3/3x3_s2_0_split_1
I0403 21:41:34.015393 23893 net.cpp:399] pool3/3x3_s2_pool3/3x3_s2_0_split -> pool3/3x3_s2_pool3/3x3_s2_0_split_2
I0403 21:41:34.015413 23893 net.cpp:399] pool3/3x3_s2_pool3/3x3_s2_0_split -> pool3/3x3_s2_pool3/3x3_s2_0_split_3
I0403 21:41:34.015491 23893 net.cpp:141] Setting up pool3/3x3_s2_pool3/3x3_s2_0_split
I0403 21:41:34.015516 23893 net.cpp:148] Top shape: 24 480 14 14 (2257920)
I0403 21:41:34.015533 23893 net.cpp:148] Top shape: 24 480 14 14 (2257920)
I0403 21:41:34.015549 23893 net.cpp:148] Top shape: 24 480 14 14 (2257920)
I0403 21:41:34.015564 23893 net.cpp:148] Top shape: 24 480 14 14 (2257920)
I0403 21:41:34.015579 23893 net.cpp:156] Memory required for data: 854397984
I0403 21:41:34.015594 23893 layer_factory.hpp:77] Creating layer inception_4a/1x1
I0403 21:41:34.015616 23893 net.cpp:91] Creating Layer inception_4a/1x1
I0403 21:41:34.015635 23893 net.cpp:425] inception_4a/1x1 <- pool3/3x3_s2_pool3/3x3_s2_0_split_0
I0403 21:41:34.015655 23893 net.cpp:399] inception_4a/1x1 -> inception_4a/1x1
I0403 21:41:34.017205 23893 net.cpp:141] Setting up inception_4a/1x1
I0403 21:41:34.017237 23893 net.cpp:148] Top shape: 24 192 14 14 (903168)
I0403 21:41:34.017256 23893 net.cpp:156] Memory required for data: 858010656
I0403 21:41:34.017277 23893 layer_factory.hpp:77] Creating layer inception_4a/relu_1x1
I0403 21:41:34.017297 23893 net.cpp:91] Creating Layer inception_4a/relu_1x1
I0403 21:41:34.017313 23893 net.cpp:425] inception_4a/relu_1x1 <- inception_4a/1x1
I0403 21:41:34.017331 23893 net.cpp:386] inception_4a/relu_1x1 -> inception_4a/1x1 (in-place)
I0403 21:41:34.017506 23893 net.cpp:141] Setting up inception_4a/relu_1x1
I0403 21:41:34.017532 23893 net.cpp:148] Top shape: 24 192 14 14 (903168)
I0403 21:41:34.017547 23893 net.cpp:156] Memory required for data: 861623328
I0403 21:41:34.017563 23893 layer_factory.hpp:77] Creating layer inception_4a/3x3_reduce
I0403 21:41:34.017585 23893 net.cpp:91] Creating Layer inception_4a/3x3_reduce
I0403 21:41:34.017603 23893 net.cpp:425] inception_4a/3x3_reduce <- pool3/3x3_s2_pool3/3x3_s2_0_split_1
I0403 21:41:34.017626 23893 net.cpp:399] inception_4a/3x3_reduce -> inception_4a/3x3_reduce
I0403 21:41:34.018883 23893 net.cpp:141] Setting up inception_4a/3x3_reduce
I0403 21:41:34.018914 23893 net.cpp:148] Top shape: 24 96 14 14 (451584)
I0403 21:41:34.018930 23893 net.cpp:156] Memory required for data: 863429664
I0403 21:41:34.018954 23893 layer_factory.hpp:77] Creating layer inception_4a/relu_3x3_reduce
I0403 21:41:34.018975 23893 net.cpp:91] Creating Layer inception_4a/relu_3x3_reduce
I0403 21:41:34.018993 23893 net.cpp:425] inception_4a/relu_3x3_reduce <- inception_4a/3x3_reduce
I0403 21:41:34.019011 23893 net.cpp:386] inception_4a/relu_3x3_reduce -> inception_4a/3x3_reduce (in-place)
I0403 21:41:34.019186 23893 net.cpp:141] Setting up inception_4a/relu_3x3_reduce
I0403 21:41:34.019212 23893 net.cpp:148] Top shape: 24 96 14 14 (451584)
I0403 21:41:34.019230 23893 net.cpp:156] Memory required for data: 865236000
I0403 21:41:34.019248 23893 layer_factory.hpp:77] Creating layer inception_4a/3x3
I0403 21:41:34.019273 23893 net.cpp:91] Creating Layer inception_4a/3x3
I0403 21:41:34.019292 23893 net.cpp:425] inception_4a/3x3 <- inception_4a/3x3_reduce
I0403 21:41:34.019315 23893 net.cpp:399] inception_4a/3x3 -> inception_4a/3x3
I0403 21:41:34.021987 23893 net.cpp:141] Setting up inception_4a/3x3
I0403 21:41:34.022018 23893 net.cpp:148] Top shape: 24 208 14 14 (978432)
I0403 21:41:34.022034 23893 net.cpp:156] Memory required for data: 869149728
I0403 21:41:34.022053 23893 layer_factory.hpp:77] Creating layer inception_4a/relu_3x3
I0403 21:41:34.022070 23893 net.cpp:91] Creating Layer inception_4a/relu_3x3
I0403 21:41:34.022088 23893 net.cpp:425] inception_4a/relu_3x3 <- inception_4a/3x3
I0403 21:41:34.022107 23893 net.cpp:386] inception_4a/relu_3x3 -> inception_4a/3x3 (in-place)
I0403 21:41:34.022480 23893 net.cpp:141] Setting up inception_4a/relu_3x3
I0403 21:41:34.022510 23893 net.cpp:148] Top shape: 24 208 14 14 (978432)
I0403 21:41:34.022526 23893 net.cpp:156] Memory required for data: 873063456
I0403 21:41:34.022541 23893 layer_factory.hpp:77] Creating layer inception_4a/5x5_reduce
I0403 21:41:34.022564 23893 net.cpp:91] Creating Layer inception_4a/5x5_reduce
I0403 21:41:34.022583 23893 net.cpp:425] inception_4a/5x5_reduce <- pool3/3x3_s2_pool3/3x3_s2_0_split_2
I0403 21:41:34.022604 23893 net.cpp:399] inception_4a/5x5_reduce -> inception_4a/5x5_reduce
I0403 21:41:34.023597 23893 net.cpp:141] Setting up inception_4a/5x5_reduce
I0403 21:41:34.023625 23893 net.cpp:148] Top shape: 24 16 14 14 (75264)
I0403 21:41:34.023640 23893 net.cpp:156] Memory required for data: 873364512
I0403 21:41:34.023659 23893 layer_factory.hpp:77] Creating layer inception_4a/relu_5x5_reduce
I0403 21:41:34.023679 23893 net.cpp:91] Creating Layer inception_4a/relu_5x5_reduce
I0403 21:41:34.023699 23893 net.cpp:425] inception_4a/relu_5x5_reduce <- inception_4a/5x5_reduce
I0403 21:41:34.023715 23893 net.cpp:386] inception_4a/relu_5x5_reduce -> inception_4a/5x5_reduce (in-place)
I0403 21:41:34.023891 23893 net.cpp:141] Setting up inception_4a/relu_5x5_reduce
I0403 21:41:34.023916 23893 net.cpp:148] Top shape: 24 16 14 14 (75264)
I0403 21:41:34.023931 23893 net.cpp:156] Memory required for data: 873665568
I0403 21:41:34.023946 23893 layer_factory.hpp:77] Creating layer inception_4a/5x5
I0403 21:41:34.023968 23893 net.cpp:91] Creating Layer inception_4a/5x5
I0403 21:41:34.023986 23893 net.cpp:425] inception_4a/5x5 <- inception_4a/5x5_reduce
I0403 21:41:34.024006 23893 net.cpp:399] inception_4a/5x5 -> inception_4a/5x5
I0403 21:41:34.025063 23893 net.cpp:141] Setting up inception_4a/5x5
I0403 21:41:34.025089 23893 net.cpp:148] Top shape: 24 48 14 14 (225792)
I0403 21:41:34.025104 23893 net.cpp:156] Memory required for data: 874568736
I0403 21:41:34.025123 23893 layer_factory.hpp:77] Creating layer inception_4a/relu_5x5
I0403 21:41:34.025143 23893 net.cpp:91] Creating Layer inception_4a/relu_5x5
I0403 21:41:34.025161 23893 net.cpp:425] inception_4a/relu_5x5 <- inception_4a/5x5
I0403 21:41:34.025178 23893 net.cpp:386] inception_4a/relu_5x5 -> inception_4a/5x5 (in-place)
I0403 21:41:34.025355 23893 net.cpp:141] Setting up inception_4a/relu_5x5
I0403 21:41:34.025382 23893 net.cpp:148] Top shape: 24 48 14 14 (225792)
I0403 21:41:34.025398 23893 net.cpp:156] Memory required for data: 875471904
I0403 21:41:34.025414 23893 layer_factory.hpp:77] Creating layer inception_4a/pool
I0403 21:41:34.025431 23893 net.cpp:91] Creating Layer inception_4a/pool
I0403 21:41:34.025447 23893 net.cpp:425] inception_4a/pool <- pool3/3x3_s2_pool3/3x3_s2_0_split_3
I0403 21:41:34.025467 23893 net.cpp:399] inception_4a/pool -> inception_4a/pool
I0403 21:41:34.025527 23893 net.cpp:141] Setting up inception_4a/pool
I0403 21:41:34.025550 23893 net.cpp:148] Top shape: 24 480 14 14 (2257920)
I0403 21:41:34.025564 23893 net.cpp:156] Memory required for data: 884503584
I0403 21:41:34.025579 23893 layer_factory.hpp:77] Creating layer inception_4a/pool_proj
I0403 21:41:34.025601 23893 net.cpp:91] Creating Layer inception_4a/pool_proj
I0403 21:41:34.025617 23893 net.cpp:425] inception_4a/pool_proj <- inception_4a/pool
I0403 21:41:34.025638 23893 net.cpp:399] inception_4a/pool_proj -> inception_4a/pool_proj
I0403 21:41:34.026759 23893 net.cpp:141] Setting up inception_4a/pool_proj
I0403 21:41:34.026792 23893 net.cpp:148] Top shape: 24 64 14 14 (301056)
I0403 21:41:34.026823 23893 net.cpp:156] Memory required for data: 885707808
I0403 21:41:34.026842 23893 layer_factory.hpp:77] Creating layer inception_4a/relu_pool_proj
I0403 21:41:34.026860 23893 net.cpp:91] Creating Layer inception_4a/relu_pool_proj
I0403 21:41:34.026877 23893 net.cpp:425] inception_4a/relu_pool_proj <- inception_4a/pool_proj
I0403 21:41:34.026895 23893 net.cpp:386] inception_4a/relu_pool_proj -> inception_4a/pool_proj (in-place)
I0403 21:41:34.027174 23893 net.cpp:141] Setting up inception_4a/relu_pool_proj
I0403 21:41:34.027206 23893 net.cpp:148] Top shape: 24 64 14 14 (301056)
I0403 21:41:34.027222 23893 net.cpp:156] Memory required for data: 886912032
I0403 21:41:34.027240 23893 layer_factory.hpp:77] Creating layer inception_4a/output
I0403 21:41:34.027258 23893 net.cpp:91] Creating Layer inception_4a/output
I0403 21:41:34.027274 23893 net.cpp:425] inception_4a/output <- inception_4a/1x1
I0403 21:41:34.027292 23893 net.cpp:425] inception_4a/output <- inception_4a/3x3
I0403 21:41:34.027309 23893 net.cpp:425] inception_4a/output <- inception_4a/5x5
I0403 21:41:34.027324 23893 net.cpp:425] inception_4a/output <- inception_4a/pool_proj
I0403 21:41:34.027341 23893 net.cpp:399] inception_4a/output -> inception_4a/output
I0403 21:41:34.027385 23893 net.cpp:141] Setting up inception_4a/output
I0403 21:41:34.027410 23893 net.cpp:148] Top shape: 24 512 14 14 (2408448)
I0403 21:41:34.027425 23893 net.cpp:156] Memory required for data: 896545824
I0403 21:41:34.027439 23893 layer_factory.hpp:77] Creating layer inception_4a/output_inception_4a/output_0_split
I0403 21:41:34.027459 23893 net.cpp:91] Creating Layer inception_4a/output_inception_4a/output_0_split
I0403 21:41:34.027483 23893 net.cpp:425] inception_4a/output_inception_4a/output_0_split <- inception_4a/output
I0403 21:41:34.027501 23893 net.cpp:399] inception_4a/output_inception_4a/output_0_split -> inception_4a/output_inception_4a/output_0_split_0
I0403 21:41:34.027523 23893 net.cpp:399] inception_4a/output_inception_4a/output_0_split -> inception_4a/output_inception_4a/output_0_split_1
I0403 21:41:34.027544 23893 net.cpp:399] inception_4a/output_inception_4a/output_0_split -> inception_4a/output_inception_4a/output_0_split_2
I0403 21:41:34.027565 23893 net.cpp:399] inception_4a/output_inception_4a/output_0_split -> inception_4a/output_inception_4a/output_0_split_3
I0403 21:41:34.027587 23893 net.cpp:399] inception_4a/output_inception_4a/output_0_split -> inception_4a/output_inception_4a/output_0_split_4
I0403 21:41:34.027681 23893 net.cpp:141] Setting up inception_4a/output_inception_4a/output_0_split
I0403 21:41:34.027705 23893 net.cpp:148] Top shape: 24 512 14 14 (2408448)
I0403 21:41:34.027721 23893 net.cpp:148] Top shape: 24 512 14 14 (2408448)
I0403 21:41:34.027737 23893 net.cpp:148] Top shape: 24 512 14 14 (2408448)
I0403 21:41:34.027752 23893 net.cpp:148] Top shape: 24 512 14 14 (2408448)
I0403 21:41:34.027767 23893 net.cpp:148] Top shape: 24 512 14 14 (2408448)
I0403 21:41:34.027782 23893 net.cpp:156] Memory required for data: 944714784
I0403 21:41:34.027796 23893 layer_factory.hpp:77] Creating layer loss1/ave_pool
I0403 21:41:34.027813 23893 net.cpp:91] Creating Layer loss1/ave_pool
I0403 21:41:34.027830 23893 net.cpp:425] loss1/ave_pool <- inception_4a/output_inception_4a/output_0_split_0
I0403 21:41:34.027879 23893 net.cpp:399] loss1/ave_pool -> loss1/ave_pool
I0403 21:41:34.028079 23893 net.cpp:141] Setting up loss1/ave_pool
I0403 21:41:34.028107 23893 net.cpp:148] Top shape: 24 512 4 4 (196608)
I0403 21:41:34.028136 23893 net.cpp:156] Memory required for data: 945501216
I0403 21:41:34.028151 23893 layer_factory.hpp:77] Creating layer loss1/conv
I0403 21:41:34.028173 23893 net.cpp:91] Creating Layer loss1/conv
I0403 21:41:34.028190 23893 net.cpp:425] loss1/conv <- loss1/ave_pool
I0403 21:41:34.028209 23893 net.cpp:399] loss1/conv -> loss1/conv
I0403 21:41:34.029573 23893 net.cpp:141] Setting up loss1/conv
I0403 21:41:34.029602 23893 net.cpp:148] Top shape: 24 128 4 4 (49152)
I0403 21:41:34.029631 23893 net.cpp:156] Memory required for data: 945697824
I0403 21:41:34.029651 23893 layer_factory.hpp:77] Creating layer loss1/relu_conv
I0403 21:41:34.029670 23893 net.cpp:91] Creating Layer loss1/relu_conv
I0403 21:41:34.029686 23893 net.cpp:425] loss1/relu_conv <- loss1/conv
I0403 21:41:34.029706 23893 net.cpp:386] loss1/relu_conv -> loss1/conv (in-place)
I0403 21:41:34.029980 23893 net.cpp:141] Setting up loss1/relu_conv
I0403 21:41:34.030006 23893 net.cpp:148] Top shape: 24 128 4 4 (49152)
I0403 21:41:34.030022 23893 net.cpp:156] Memory required for data: 945894432
I0403 21:41:34.030037 23893 layer_factory.hpp:77] Creating layer loss1/fc
I0403 21:41:34.030061 23893 net.cpp:91] Creating Layer loss1/fc
I0403 21:41:34.030079 23893 net.cpp:425] loss1/fc <- loss1/conv
I0403 21:41:34.030100 23893 net.cpp:399] loss1/fc -> loss1/fc
I0403 21:41:34.047437 23893 net.cpp:141] Setting up loss1/fc
I0403 21:41:34.047472 23893 net.cpp:148] Top shape: 24 1024 (24576)
I0403 21:41:34.047487 23893 net.cpp:156] Memory required for data: 945992736
I0403 21:41:34.047507 23893 layer_factory.hpp:77] Creating layer loss1/relu_fc
I0403 21:41:34.047528 23893 net.cpp:91] Creating Layer loss1/relu_fc
I0403 21:41:34.047546 23893 net.cpp:425] loss1/relu_fc <- loss1/fc
I0403 21:41:34.047564 23893 net.cpp:386] loss1/relu_fc -> loss1/fc (in-place)
I0403 21:41:34.047746 23893 net.cpp:141] Setting up loss1/relu_fc
I0403 21:41:34.047771 23893 net.cpp:148] Top shape: 24 1024 (24576)
I0403 21:41:34.047785 23893 net.cpp:156] Memory required for data: 946091040
I0403 21:41:34.047801 23893 layer_factory.hpp:77] Creating layer loss1/drop_fc
I0403 21:41:34.047827 23893 net.cpp:91] Creating Layer loss1/drop_fc
I0403 21:41:34.047843 23893 net.cpp:425] loss1/drop_fc <- loss1/fc
I0403 21:41:34.047863 23893 net.cpp:386] loss1/drop_fc -> loss1/fc (in-place)
I0403 21:41:34.047914 23893 net.cpp:141] Setting up loss1/drop_fc
I0403 21:41:34.047937 23893 net.cpp:148] Top shape: 24 1024 (24576)
I0403 21:41:34.047953 23893 net.cpp:156] Memory required for data: 946189344
I0403 21:41:34.047968 23893 layer_factory.hpp:77] Creating layer loss1/classifier_plantvillage
I0403 21:41:34.047991 23893 net.cpp:91] Creating Layer loss1/classifier_plantvillage
I0403 21:41:34.048007 23893 net.cpp:425] loss1/classifier_plantvillage <- loss1/fc
I0403 21:41:34.048027 23893 net.cpp:399] loss1/classifier_plantvillage -> loss1/classifier_plantvillage
I0403 21:41:34.048941 23893 net.cpp:141] Setting up loss1/classifier_plantvillage
I0403 21:41:34.048972 23893 net.cpp:148] Top shape: 24 38 (912)
I0403 21:41:34.048990 23893 net.cpp:156] Memory required for data: 946192992
I0403 21:41:34.049010 23893 layer_factory.hpp:77] Creating layer loss1/classifier_plantvillage_loss1/classifier_plantvillage_0_split
I0403 21:41:34.049028 23893 net.cpp:91] Creating Layer loss1/classifier_plantvillage_loss1/classifier_plantvillage_0_split
I0403 21:41:34.049044 23893 net.cpp:425] loss1/classifier_plantvillage_loss1/classifier_plantvillage_0_split <- loss1/classifier_plantvillage
I0403 21:41:34.049063 23893 net.cpp:399] loss1/classifier_plantvillage_loss1/classifier_plantvillage_0_split -> loss1/classifier_plantvillage_loss1/classifier_plantvillage_0_split_0
I0403 21:41:34.049085 23893 net.cpp:399] loss1/classifier_plantvillage_loss1/classifier_plantvillage_0_split -> loss1/classifier_plantvillage_loss1/classifier_plantvillage_0_split_1
I0403 21:41:34.049105 23893 net.cpp:399] loss1/classifier_plantvillage_loss1/classifier_plantvillage_0_split -> loss1/classifier_plantvillage_loss1/classifier_plantvillage_0_split_2
I0403 21:41:34.049171 23893 net.cpp:141] Setting up loss1/classifier_plantvillage_loss1/classifier_plantvillage_0_split
I0403 21:41:34.049196 23893 net.cpp:148] Top shape: 24 38 (912)
I0403 21:41:34.049211 23893 net.cpp:148] Top shape: 24 38 (912)
I0403 21:41:34.049226 23893 net.cpp:148] Top shape: 24 38 (912)
I0403 21:41:34.049245 23893 net.cpp:156] Memory required for data: 946203936
I0403 21:41:34.049260 23893 layer_factory.hpp:77] Creating layer inception_4b/1x1
I0403 21:41:34.049283 23893 net.cpp:91] Creating Layer inception_4b/1x1
I0403 21:41:34.049316 23893 net.cpp:425] inception_4b/1x1 <- inception_4a/output_inception_4a/output_0_split_1
I0403 21:41:34.049336 23893 net.cpp:399] inception_4b/1x1 -> inception_4b/1x1
I0403 21:41:34.050971 23893 net.cpp:141] Setting up inception_4b/1x1
I0403 21:41:34.051002 23893 net.cpp:148] Top shape: 24 160 14 14 (752640)
I0403 21:41:34.051017 23893 net.cpp:156] Memory required for data: 949214496
I0403 21:41:34.051036 23893 layer_factory.hpp:77] Creating layer inception_4b/relu_1x1
I0403 21:41:34.051055 23893 net.cpp:91] Creating Layer inception_4b/relu_1x1
I0403 21:41:34.051075 23893 net.cpp:425] inception_4b/relu_1x1 <- inception_4b/1x1
I0403 21:41:34.051093 23893 net.cpp:386] inception_4b/relu_1x1 -> inception_4b/1x1 (in-place)
I0403 21:41:34.051275 23893 net.cpp:141] Setting up inception_4b/relu_1x1
I0403 21:41:34.051301 23893 net.cpp:148] Top shape: 24 160 14 14 (752640)
I0403 21:41:34.051316 23893 net.cpp:156] Memory required for data: 952225056
I0403 21:41:34.051332 23893 layer_factory.hpp:77] Creating layer inception_4b/3x3_reduce
I0403 21:41:34.051355 23893 net.cpp:91] Creating Layer inception_4b/3x3_reduce
I0403 21:41:34.051373 23893 net.cpp:425] inception_4b/3x3_reduce <- inception_4a/output_inception_4a/output_0_split_2
I0403 21:41:34.051394 23893 net.cpp:399] inception_4b/3x3_reduce -> inception_4b/3x3_reduce
I0403 21:41:34.052750 23893 net.cpp:141] Setting up inception_4b/3x3_reduce
I0403 21:41:34.052778 23893 net.cpp:148] Top shape: 24 112 14 14 (526848)
I0403 21:41:34.052795 23893 net.cpp:156] Memory required for data: 954332448
I0403 21:41:34.052815 23893 layer_factory.hpp:77] Creating layer inception_4b/relu_3x3_reduce
I0403 21:41:34.052836 23893 net.cpp:91] Creating Layer inception_4b/relu_3x3_reduce
I0403 21:41:34.052855 23893 net.cpp:425] inception_4b/relu_3x3_reduce <- inception_4b/3x3_reduce
I0403 21:41:34.052873 23893 net.cpp:386] inception_4b/relu_3x3_reduce -> inception_4b/3x3_reduce (in-place)
I0403 21:41:34.053154 23893 net.cpp:141] Setting up inception_4b/relu_3x3_reduce
I0403 21:41:34.053181 23893 net.cpp:148] Top shape: 24 112 14 14 (526848)
I0403 21:41:34.053197 23893 net.cpp:156] Memory required for data: 956439840
I0403 21:41:34.053212 23893 layer_factory.hpp:77] Creating layer inception_4b/3x3
I0403 21:41:34.053241 23893 net.cpp:91] Creating Layer inception_4b/3x3
I0403 21:41:34.053261 23893 net.cpp:425] inception_4b/3x3 <- inception_4b/3x3_reduce
I0403 21:41:34.053282 23893 net.cpp:399] inception_4b/3x3 -> inception_4b/3x3
I0403 21:41:34.056285 23893 net.cpp:141] Setting up inception_4b/3x3
I0403 21:41:34.056318 23893 net.cpp:148] Top shape: 24 224 14 14 (1053696)
I0403 21:41:34.056334 23893 net.cpp:156] Memory required for data: 960654624
I0403 21:41:34.056354 23893 layer_factory.hpp:77] Creating layer inception_4b/relu_3x3
I0403 21:41:34.056373 23893 net.cpp:91] Creating Layer inception_4b/relu_3x3
I0403 21:41:34.056391 23893 net.cpp:425] inception_4b/relu_3x3 <- inception_4b/3x3
I0403 21:41:34.056411 23893 net.cpp:386] inception_4b/relu_3x3 -> inception_4b/3x3 (in-place)
I0403 21:41:34.056592 23893 net.cpp:141] Setting up inception_4b/relu_3x3
I0403 21:41:34.056617 23893 net.cpp:148] Top shape: 24 224 14 14 (1053696)
I0403 21:41:34.056632 23893 net.cpp:156] Memory required for data: 964869408
I0403 21:41:34.056648 23893 layer_factory.hpp:77] Creating layer inception_4b/5x5_reduce
I0403 21:41:34.056670 23893 net.cpp:91] Creating Layer inception_4b/5x5_reduce
I0403 21:41:34.056687 23893 net.cpp:425] inception_4b/5x5_reduce <- inception_4a/output_inception_4a/output_0_split_3
I0403 21:41:34.056711 23893 net.cpp:399] inception_4b/5x5_reduce -> inception_4b/5x5_reduce
I0403 21:41:34.057804 23893 net.cpp:141] Setting up inception_4b/5x5_reduce
I0403 21:41:34.057833 23893 net.cpp:148] Top shape: 24 24 14 14 (112896)
I0403 21:41:34.057849 23893 net.cpp:156] Memory required for data: 965320992
I0403 21:41:34.057868 23893 layer_factory.hpp:77] Creating layer inception_4b/relu_5x5_reduce
I0403 21:41:34.057890 23893 net.cpp:91] Creating Layer inception_4b/relu_5x5_reduce
I0403 21:41:34.057921 23893 net.cpp:425] inception_4b/relu_5x5_reduce <- inception_4b/5x5_reduce
I0403 21:41:34.057942 23893 net.cpp:386] inception_4b/relu_5x5_reduce -> inception_4b/5x5_reduce (in-place)
I0403 21:41:34.058128 23893 net.cpp:141] Setting up inception_4b/relu_5x5_reduce
I0403 21:41:34.058154 23893 net.cpp:148] Top shape: 24 24 14 14 (112896)
I0403 21:41:34.058173 23893 net.cpp:156] Memory required for data: 965772576
I0403 21:41:34.058188 23893 layer_factory.hpp:77] Creating layer inception_4b/5x5
I0403 21:41:34.058209 23893 net.cpp:91] Creating Layer inception_4b/5x5
I0403 21:41:34.058236 23893 net.cpp:425] inception_4b/5x5 <- inception_4b/5x5_reduce
I0403 21:41:34.058262 23893 net.cpp:399] inception_4b/5x5 -> inception_4b/5x5
I0403 21:41:34.059499 23893 net.cpp:141] Setting up inception_4b/5x5
I0403 21:41:34.059528 23893 net.cpp:148] Top shape: 24 64 14 14 (301056)
I0403 21:41:34.059545 23893 net.cpp:156] Memory required for data: 966976800
I0403 21:41:34.059563 23893 layer_factory.hpp:77] Creating layer inception_4b/relu_5x5
I0403 21:41:34.059583 23893 net.cpp:91] Creating Layer inception_4b/relu_5x5
I0403 21:41:34.059604 23893 net.cpp:425] inception_4b/relu_5x5 <- inception_4b/5x5
I0403 21:41:34.059623 23893 net.cpp:386] inception_4b/relu_5x5 -> inception_4b/5x5 (in-place)
I0403 21:41:34.059934 23893 net.cpp:141] Setting up inception_4b/relu_5x5
I0403 21:41:34.059973 23893 net.cpp:148] Top shape: 24 64 14 14 (301056)
I0403 21:41:34.059988 23893 net.cpp:156] Memory required for data: 968181024
I0403 21:41:34.060004 23893 layer_factory.hpp:77] Creating layer inception_4b/pool
I0403 21:41:34.060024 23893 net.cpp:91] Creating Layer inception_4b/pool
I0403 21:41:34.060040 23893 net.cpp:425] inception_4b/pool <- inception_4a/output_inception_4a/output_0_split_4
I0403 21:41:34.060060 23893 net.cpp:399] inception_4b/pool -> inception_4b/pool
I0403 21:41:34.060124 23893 net.cpp:141] Setting up inception_4b/pool
I0403 21:41:34.060151 23893 net.cpp:148] Top shape: 24 512 14 14 (2408448)
I0403 21:41:34.060168 23893 net.cpp:156] Memory required for data: 977814816
I0403 21:41:34.060183 23893 layer_factory.hpp:77] Creating layer inception_4b/pool_proj
I0403 21:41:34.060204 23893 net.cpp:91] Creating Layer inception_4b/pool_proj
I0403 21:41:34.060223 23893 net.cpp:425] inception_4b/pool_proj <- inception_4b/pool
I0403 21:41:34.060247 23893 net.cpp:399] inception_4b/pool_proj -> inception_4b/pool_proj
I0403 21:41:34.061451 23893 net.cpp:141] Setting up inception_4b/pool_proj
I0403 21:41:34.061480 23893 net.cpp:148] Top shape: 24 64 14 14 (301056)
I0403 21:41:34.061496 23893 net.cpp:156] Memory required for data: 979019040
I0403 21:41:34.061517 23893 layer_factory.hpp:77] Creating layer inception_4b/relu_pool_proj
I0403 21:41:34.061537 23893 net.cpp:91] Creating Layer inception_4b/relu_pool_proj
I0403 21:41:34.061555 23893 net.cpp:425] inception_4b/relu_pool_proj <- inception_4b/pool_proj
I0403 21:41:34.061573 23893 net.cpp:386] inception_4b/relu_pool_proj -> inception_4b/pool_proj (in-place)
I0403 21:41:34.061758 23893 net.cpp:141] Setting up inception_4b/relu_pool_proj
I0403 21:41:34.061784 23893 net.cpp:148] Top shape: 24 64 14 14 (301056)
I0403 21:41:34.061800 23893 net.cpp:156] Memory required for data: 980223264
I0403 21:41:34.061815 23893 layer_factory.hpp:77] Creating layer inception_4b/output
I0403 21:41:34.061835 23893 net.cpp:91] Creating Layer inception_4b/output
I0403 21:41:34.061852 23893 net.cpp:425] inception_4b/output <- inception_4b/1x1
I0403 21:41:34.061871 23893 net.cpp:425] inception_4b/output <- inception_4b/3x3
I0403 21:41:34.061887 23893 net.cpp:425] inception_4b/output <- inception_4b/5x5
I0403 21:41:34.061904 23893 net.cpp:425] inception_4b/output <- inception_4b/pool_proj
I0403 21:41:34.061921 23893 net.cpp:399] inception_4b/output -> inception_4b/output
I0403 21:41:34.061969 23893 net.cpp:141] Setting up inception_4b/output
I0403 21:41:34.061993 23893 net.cpp:148] Top shape: 24 512 14 14 (2408448)
I0403 21:41:34.062008 23893 net.cpp:156] Memory required for data: 989857056
I0403 21:41:34.062037 23893 layer_factory.hpp:77] Creating layer inception_4b/output_inception_4b/output_0_split
I0403 21:41:34.062057 23893 net.cpp:91] Creating Layer inception_4b/output_inception_4b/output_0_split
I0403 21:41:34.062073 23893 net.cpp:425] inception_4b/output_inception_4b/output_0_split <- inception_4b/output
I0403 21:41:34.062093 23893 net.cpp:399] inception_4b/output_inception_4b/output_0_split -> inception_4b/output_inception_4b/output_0_split_0
I0403 21:41:34.062115 23893 net.cpp:399] inception_4b/output_inception_4b/output_0_split -> inception_4b/output_inception_4b/output_0_split_1
I0403 21:41:34.062136 23893 net.cpp:399] inception_4b/output_inception_4b/output_0_split -> inception_4b/output_inception_4b/output_0_split_2
I0403 21:41:34.062157 23893 net.cpp:399] inception_4b/output_inception_4b/output_0_split -> inception_4b/output_inception_4b/output_0_split_3
I0403 21:41:34.062249 23893 net.cpp:141] Setting up inception_4b/output_inception_4b/output_0_split
I0403 21:41:34.062276 23893 net.cpp:148] Top shape: 24 512 14 14 (2408448)
I0403 21:41:34.062294 23893 net.cpp:148] Top shape: 24 512 14 14 (2408448)
I0403 21:41:34.062310 23893 net.cpp:148] Top shape: 24 512 14 14 (2408448)
I0403 21:41:34.062326 23893 net.cpp:148] Top shape: 24 512 14 14 (2408448)
I0403 21:41:34.062340 23893 net.cpp:156] Memory required for data: 1028392224
I0403 21:41:34.062356 23893 layer_factory.hpp:77] Creating layer inception_4c/1x1
I0403 21:41:34.062379 23893 net.cpp:91] Creating Layer inception_4c/1x1
I0403 21:41:34.062397 23893 net.cpp:425] inception_4c/1x1 <- inception_4b/output_inception_4b/output_0_split_0
I0403 21:41:34.062418 23893 net.cpp:399] inception_4c/1x1 -> inception_4c/1x1
I0403 21:41:34.063851 23893 net.cpp:141] Setting up inception_4c/1x1
I0403 21:41:34.063880 23893 net.cpp:148] Top shape: 24 128 14 14 (602112)
I0403 21:41:34.063896 23893 net.cpp:156] Memory required for data: 1030800672
I0403 21:41:34.063916 23893 layer_factory.hpp:77] Creating layer inception_4c/relu_1x1
I0403 21:41:34.063938 23893 net.cpp:91] Creating Layer inception_4c/relu_1x1
I0403 21:41:34.063959 23893 net.cpp:425] inception_4c/relu_1x1 <- inception_4c/1x1
I0403 21:41:34.063977 23893 net.cpp:386] inception_4c/relu_1x1 -> inception_4c/1x1 (in-place)
I0403 21:41:34.064159 23893 net.cpp:141] Setting up inception_4c/relu_1x1
I0403 21:41:34.064185 23893 net.cpp:148] Top shape: 24 128 14 14 (602112)
I0403 21:41:34.064200 23893 net.cpp:156] Memory required for data: 1033209120
I0403 21:41:34.064216 23893 layer_factory.hpp:77] Creating layer inception_4c/3x3_reduce
I0403 21:41:34.064245 23893 net.cpp:91] Creating Layer inception_4c/3x3_reduce
I0403 21:41:34.064265 23893 net.cpp:425] inception_4c/3x3_reduce <- inception_4b/output_inception_4b/output_0_split_1
I0403 21:41:34.064287 23893 net.cpp:399] inception_4c/3x3_reduce -> inception_4c/3x3_reduce
I0403 21:41:34.066249 23893 net.cpp:141] Setting up inception_4c/3x3_reduce
I0403 21:41:34.066279 23893 net.cpp:148] Top shape: 24 128 14 14 (602112)
I0403 21:41:34.066295 23893 net.cpp:156] Memory required for data: 1035617568
I0403 21:41:34.066314 23893 layer_factory.hpp:77] Creating layer inception_4c/relu_3x3_reduce
I0403 21:41:34.066334 23893 net.cpp:91] Creating Layer inception_4c/relu_3x3_reduce
I0403 21:41:34.066350 23893 net.cpp:425] inception_4c/relu_3x3_reduce <- inception_4c/3x3_reduce
I0403 21:41:34.066371 23893 net.cpp:386] inception_4c/relu_3x3_reduce -> inception_4c/3x3_reduce (in-place)
I0403 21:41:34.066663 23893 net.cpp:141] Setting up inception_4c/relu_3x3_reduce
I0403 21:41:34.066689 23893 net.cpp:148] Top shape: 24 128 14 14 (602112)
I0403 21:41:34.066704 23893 net.cpp:156] Memory required for data: 1038026016
I0403 21:41:34.066720 23893 layer_factory.hpp:77] Creating layer inception_4c/3x3
I0403 21:41:34.066743 23893 net.cpp:91] Creating Layer inception_4c/3x3
I0403 21:41:34.066761 23893 net.cpp:425] inception_4c/3x3 <- inception_4c/3x3_reduce
I0403 21:41:34.066782 23893 net.cpp:399] inception_4c/3x3 -> inception_4c/3x3
I0403 21:41:34.070417 23893 net.cpp:141] Setting up inception_4c/3x3
I0403 21:41:34.070458 23893 net.cpp:148] Top shape: 24 256 14 14 (1204224)
I0403 21:41:34.070474 23893 net.cpp:156] Memory required for data: 1042842912
I0403 21:41:34.070507 23893 layer_factory.hpp:77] Creating layer inception_4c/relu_3x3
I0403 21:41:34.070529 23893 net.cpp:91] Creating Layer inception_4c/relu_3x3
I0403 21:41:34.070547 23893 net.cpp:425] inception_4c/relu_3x3 <- inception_4c/3x3
I0403 21:41:34.070566 23893 net.cpp:386] inception_4c/relu_3x3 -> inception_4c/3x3 (in-place)
I0403 21:41:34.070742 23893 net.cpp:141] Setting up inception_4c/relu_3x3
I0403 21:41:34.070768 23893 net.cpp:148] Top shape: 24 256 14 14 (1204224)
I0403 21:41:34.070783 23893 net.cpp:156] Memory required for data: 1047659808
I0403 21:41:34.070798 23893 layer_factory.hpp:77] Creating layer inception_4c/5x5_reduce
I0403 21:41:34.070821 23893 net.cpp:91] Creating Layer inception_4c/5x5_reduce
I0403 21:41:34.070839 23893 net.cpp:425] inception_4c/5x5_reduce <- inception_4b/output_inception_4b/output_0_split_2
I0403 21:41:34.070860 23893 net.cpp:399] inception_4c/5x5_reduce -> inception_4c/5x5_reduce
I0403 21:41:34.071935 23893 net.cpp:141] Setting up inception_4c/5x5_reduce
I0403 21:41:34.071964 23893 net.cpp:148] Top shape: 24 24 14 14 (112896)
I0403 21:41:34.071980 23893 net.cpp:156] Memory required for data: 1048111392
I0403 21:41:34.072000 23893 layer_factory.hpp:77] Creating layer inception_4c/relu_5x5_reduce
I0403 21:41:34.072018 23893 net.cpp:91] Creating Layer inception_4c/relu_5x5_reduce
I0403 21:41:34.072034 23893 net.cpp:425] inception_4c/relu_5x5_reduce <- inception_4c/5x5_reduce
I0403 21:41:34.072053 23893 net.cpp:386] inception_4c/relu_5x5_reduce -> inception_4c/5x5_reduce (in-place)
I0403 21:41:34.072235 23893 net.cpp:141] Setting up inception_4c/relu_5x5_reduce
I0403 21:41:34.072260 23893 net.cpp:148] Top shape: 24 24 14 14 (112896)
I0403 21:41:34.072275 23893 net.cpp:156] Memory required for data: 1048562976
I0403 21:41:34.072290 23893 layer_factory.hpp:77] Creating layer inception_4c/5x5
I0403 21:41:34.072312 23893 net.cpp:91] Creating Layer inception_4c/5x5
I0403 21:41:34.072329 23893 net.cpp:425] inception_4c/5x5 <- inception_4c/5x5_reduce
I0403 21:41:34.072353 23893 net.cpp:399] inception_4c/5x5 -> inception_4c/5x5
I0403 21:41:34.073572 23893 net.cpp:141] Setting up inception_4c/5x5
I0403 21:41:34.073601 23893 net.cpp:148] Top shape: 24 64 14 14 (301056)
I0403 21:41:34.073616 23893 net.cpp:156] Memory required for data: 1049767200
I0403 21:41:34.073634 23893 layer_factory.hpp:77] Creating layer inception_4c/relu_5x5
I0403 21:41:34.073654 23893 net.cpp:91] Creating Layer inception_4c/relu_5x5
I0403 21:41:34.073671 23893 net.cpp:425] inception_4c/relu_5x5 <- inception_4c/5x5
I0403 21:41:34.073688 23893 net.cpp:386] inception_4c/relu_5x5 -> inception_4c/5x5 (in-place)
I0403 21:41:34.073967 23893 net.cpp:141] Setting up inception_4c/relu_5x5
I0403 21:41:34.073994 23893 net.cpp:148] Top shape: 24 64 14 14 (301056)
I0403 21:41:34.074009 23893 net.cpp:156] Memory required for data: 1050971424
I0403 21:41:34.074024 23893 layer_factory.hpp:77] Creating layer inception_4c/pool
I0403 21:41:34.074044 23893 net.cpp:91] Creating Layer inception_4c/pool
I0403 21:41:34.074060 23893 net.cpp:425] inception_4c/pool <- inception_4b/output_inception_4b/output_0_split_3
I0403 21:41:34.074079 23893 net.cpp:399] inception_4c/pool -> inception_4c/pool
I0403 21:41:34.074142 23893 net.cpp:141] Setting up inception_4c/pool
I0403 21:41:34.074167 23893 net.cpp:148] Top shape: 24 512 14 14 (2408448)
I0403 21:41:34.074182 23893 net.cpp:156] Memory required for data: 1060605216
I0403 21:41:34.074196 23893 layer_factory.hpp:77] Creating layer inception_4c/pool_proj
I0403 21:41:34.074218 23893 net.cpp:91] Creating Layer inception_4c/pool_proj
I0403 21:41:34.074241 23893 net.cpp:425] inception_4c/pool_proj <- inception_4c/pool
I0403 21:41:34.074264 23893 net.cpp:399] inception_4c/pool_proj -> inception_4c/pool_proj
I0403 21:41:34.075451 23893 net.cpp:141] Setting up inception_4c/pool_proj
I0403 21:41:34.075489 23893 net.cpp:148] Top shape: 24 64 14 14 (301056)
I0403 21:41:34.075518 23893 net.cpp:156] Memory required for data: 1061809440
I0403 21:41:34.075537 23893 layer_factory.hpp:77] Creating layer inception_4c/relu_pool_proj
I0403 21:41:34.075557 23893 net.cpp:91] Creating Layer inception_4c/relu_pool_proj
I0403 21:41:34.075575 23893 net.cpp:425] inception_4c/relu_pool_proj <- inception_4c/pool_proj
I0403 21:41:34.075593 23893 net.cpp:386] inception_4c/relu_pool_proj -> inception_4c/pool_proj (in-place)
I0403 21:41:34.075773 23893 net.cpp:141] Setting up inception_4c/relu_pool_proj
I0403 21:41:34.075798 23893 net.cpp:148] Top shape: 24 64 14 14 (301056)
I0403 21:41:34.075814 23893 net.cpp:156] Memory required for data: 1063013664
I0403 21:41:34.075827 23893 layer_factory.hpp:77] Creating layer inception_4c/output
I0403 21:41:34.075846 23893 net.cpp:91] Creating Layer inception_4c/output
I0403 21:41:34.075863 23893 net.cpp:425] inception_4c/output <- inception_4c/1x1
I0403 21:41:34.075881 23893 net.cpp:425] inception_4c/output <- inception_4c/3x3
I0403 21:41:34.075898 23893 net.cpp:425] inception_4c/output <- inception_4c/5x5
I0403 21:41:34.075913 23893 net.cpp:425] inception_4c/output <- inception_4c/pool_proj
I0403 21:41:34.075930 23893 net.cpp:399] inception_4c/output -> inception_4c/output
I0403 21:41:34.075981 23893 net.cpp:141] Setting up inception_4c/output
I0403 21:41:34.076004 23893 net.cpp:148] Top shape: 24 512 14 14 (2408448)
I0403 21:41:34.076019 23893 net.cpp:156] Memory required for data: 1072647456
I0403 21:41:34.076045 23893 layer_factory.hpp:77] Creating layer inception_4c/output_inception_4c/output_0_split
I0403 21:41:34.076062 23893 net.cpp:91] Creating Layer inception_4c/output_inception_4c/output_0_split
I0403 21:41:34.076078 23893 net.cpp:425] inception_4c/output_inception_4c/output_0_split <- inception_4c/output
I0403 21:41:34.076098 23893 net.cpp:399] inception_4c/output_inception_4c/output_0_split -> inception_4c/output_inception_4c/output_0_split_0
I0403 21:41:34.076120 23893 net.cpp:399] inception_4c/output_inception_4c/output_0_split -> inception_4c/output_inception_4c/output_0_split_1
I0403 21:41:34.076141 23893 net.cpp:399] inception_4c/output_inception_4c/output_0_split -> inception_4c/output_inception_4c/output_0_split_2
I0403 21:41:34.076164 23893 net.cpp:399] inception_4c/output_inception_4c/output_0_split -> inception_4c/output_inception_4c/output_0_split_3
I0403 21:41:34.076257 23893 net.cpp:141] Setting up inception_4c/output_inception_4c/output_0_split
I0403 21:41:34.076284 23893 net.cpp:148] Top shape: 24 512 14 14 (2408448)
I0403 21:41:34.076302 23893 net.cpp:148] Top shape: 24 512 14 14 (2408448)
I0403 21:41:34.076318 23893 net.cpp:148] Top shape: 24 512 14 14 (2408448)
I0403 21:41:34.076333 23893 net.cpp:148] Top shape: 24 512 14 14 (2408448)
I0403 21:41:34.076349 23893 net.cpp:156] Memory required for data: 1111182624
I0403 21:41:34.076375 23893 layer_factory.hpp:77] Creating layer inception_4d/1x1
I0403 21:41:34.076397 23893 net.cpp:91] Creating Layer inception_4d/1x1
I0403 21:41:34.076416 23893 net.cpp:425] inception_4d/1x1 <- inception_4c/output_inception_4c/output_0_split_0
I0403 21:41:34.076433 23893 net.cpp:399] inception_4d/1x1 -> inception_4d/1x1
I0403 21:41:34.077776 23893 net.cpp:141] Setting up inception_4d/1x1
I0403 21:41:34.077807 23893 net.cpp:148] Top shape: 24 112 14 14 (526848)
I0403 21:41:34.077823 23893 net.cpp:156] Memory required for data: 1113290016
I0403 21:41:34.077841 23893 layer_factory.hpp:77] Creating layer inception_4d/relu_1x1
I0403 21:41:34.077859 23893 net.cpp:91] Creating Layer inception_4d/relu_1x1
I0403 21:41:34.077877 23893 net.cpp:425] inception_4d/relu_1x1 <- inception_4d/1x1
I0403 21:41:34.077896 23893 net.cpp:386] inception_4d/relu_1x1 -> inception_4d/1x1 (in-place)
I0403 21:41:34.078078 23893 net.cpp:141] Setting up inception_4d/relu_1x1
I0403 21:41:34.078102 23893 net.cpp:148] Top shape: 24 112 14 14 (526848)
I0403 21:41:34.078116 23893 net.cpp:156] Memory required for data: 1115397408
I0403 21:41:34.078130 23893 layer_factory.hpp:77] Creating layer inception_4d/3x3_reduce
I0403 21:41:34.078166 23893 net.cpp:91] Creating Layer inception_4d/3x3_reduce
I0403 21:41:34.078186 23893 net.cpp:425] inception_4d/3x3_reduce <- inception_4c/output_inception_4c/output_0_split_1
I0403 21:41:34.078208 23893 net.cpp:399] inception_4d/3x3_reduce -> inception_4d/3x3_reduce
I0403 21:41:34.079699 23893 net.cpp:141] Setting up inception_4d/3x3_reduce
I0403 21:41:34.079730 23893 net.cpp:148] Top shape: 24 144 14 14 (677376)
I0403 21:41:34.079746 23893 net.cpp:156] Memory required for data: 1118106912
I0403 21:41:34.079764 23893 layer_factory.hpp:77] Creating layer inception_4d/relu_3x3_reduce
I0403 21:41:34.079782 23893 net.cpp:91] Creating Layer inception_4d/relu_3x3_reduce
I0403 21:41:34.079799 23893 net.cpp:425] inception_4d/relu_3x3_reduce <- inception_4d/3x3_reduce
I0403 21:41:34.079818 23893 net.cpp:386] inception_4d/relu_3x3_reduce -> inception_4d/3x3_reduce (in-place)
I0403 21:41:34.080101 23893 net.cpp:141] Setting up inception_4d/relu_3x3_reduce
I0403 21:41:34.080132 23893 net.cpp:148] Top shape: 24 144 14 14 (677376)
I0403 21:41:34.080148 23893 net.cpp:156] Memory required for data: 1120816416
I0403 21:41:34.080163 23893 layer_factory.hpp:77] Creating layer inception_4d/3x3
I0403 21:41:34.080183 23893 net.cpp:91] Creating Layer inception_4d/3x3
I0403 21:41:34.080199 23893 net.cpp:425] inception_4d/3x3 <- inception_4d/3x3_reduce
I0403 21:41:34.080221 23893 net.cpp:399] inception_4d/3x3 -> inception_4d/3x3
I0403 21:41:34.084388 23893 net.cpp:141] Setting up inception_4d/3x3
I0403 21:41:34.084417 23893 net.cpp:148] Top shape: 24 288 14 14 (1354752)
I0403 21:41:34.084434 23893 net.cpp:156] Memory required for data: 1126235424
I0403 21:41:34.084452 23893 layer_factory.hpp:77] Creating layer inception_4d/relu_3x3
I0403 21:41:34.084472 23893 net.cpp:91] Creating Layer inception_4d/relu_3x3
I0403 21:41:34.084489 23893 net.cpp:425] inception_4d/relu_3x3 <- inception_4d/3x3
I0403 21:41:34.084509 23893 net.cpp:386] inception_4d/relu_3x3 -> inception_4d/3x3 (in-place)
I0403 21:41:34.084693 23893 net.cpp:141] Setting up inception_4d/relu_3x3
I0403 21:41:34.084718 23893 net.cpp:148] Top shape: 24 288 14 14 (1354752)
I0403 21:41:34.084733 23893 net.cpp:156] Memory required for data: 1131654432
I0403 21:41:34.084748 23893 layer_factory.hpp:77] Creating layer inception_4d/5x5_reduce
I0403 21:41:34.084769 23893 net.cpp:91] Creating Layer inception_4d/5x5_reduce
I0403 21:41:34.084787 23893 net.cpp:425] inception_4d/5x5_reduce <- inception_4c/output_inception_4c/output_0_split_2
I0403 21:41:34.084808 23893 net.cpp:399] inception_4d/5x5_reduce -> inception_4d/5x5_reduce
I0403 21:41:34.085954 23893 net.cpp:141] Setting up inception_4d/5x5_reduce
I0403 21:41:34.085984 23893 net.cpp:148] Top shape: 24 32 14 14 (150528)
I0403 21:41:34.086000 23893 net.cpp:156] Memory required for data: 1132256544
I0403 21:41:34.086020 23893 layer_factory.hpp:77] Creating layer inception_4d/relu_5x5_reduce
I0403 21:41:34.086037 23893 net.cpp:91] Creating Layer inception_4d/relu_5x5_reduce
I0403 21:41:34.086055 23893 net.cpp:425] inception_4d/relu_5x5_reduce <- inception_4d/5x5_reduce
I0403 21:41:34.086074 23893 net.cpp:386] inception_4d/relu_5x5_reduce -> inception_4d/5x5_reduce (in-place)
I0403 21:41:34.086266 23893 net.cpp:141] Setting up inception_4d/relu_5x5_reduce
I0403 21:41:34.086292 23893 net.cpp:148] Top shape: 24 32 14 14 (150528)
I0403 21:41:34.086307 23893 net.cpp:156] Memory required for data: 1132858656
I0403 21:41:34.086323 23893 layer_factory.hpp:77] Creating layer inception_4d/5x5
I0403 21:41:34.086344 23893 net.cpp:91] Creating Layer inception_4d/5x5
I0403 21:41:34.086361 23893 net.cpp:425] inception_4d/5x5 <- inception_4d/5x5_reduce
I0403 21:41:34.086382 23893 net.cpp:399] inception_4d/5x5 -> inception_4d/5x5
I0403 21:41:34.087843 23893 net.cpp:141] Setting up inception_4d/5x5
I0403 21:41:34.087872 23893 net.cpp:148] Top shape: 24 64 14 14 (301056)
I0403 21:41:34.087888 23893 net.cpp:156] Memory required for data: 1134062880
I0403 21:41:34.087908 23893 layer_factory.hpp:77] Creating layer inception_4d/relu_5x5
I0403 21:41:34.087944 23893 net.cpp:91] Creating Layer inception_4d/relu_5x5
I0403 21:41:34.087963 23893 net.cpp:425] inception_4d/relu_5x5 <- inception_4d/5x5
I0403 21:41:34.087980 23893 net.cpp:386] inception_4d/relu_5x5 -> inception_4d/5x5 (in-place)
I0403 21:41:34.088302 23893 net.cpp:141] Setting up inception_4d/relu_5x5
I0403 21:41:34.088330 23893 net.cpp:148] Top shape: 24 64 14 14 (301056)
I0403 21:41:34.088346 23893 net.cpp:156] Memory required for data: 1135267104
I0403 21:41:34.088361 23893 layer_factory.hpp:77] Creating layer inception_4d/pool
I0403 21:41:34.088382 23893 net.cpp:91] Creating Layer inception_4d/pool
I0403 21:41:34.088398 23893 net.cpp:425] inception_4d/pool <- inception_4c/output_inception_4c/output_0_split_3
I0403 21:41:34.088418 23893 net.cpp:399] inception_4d/pool -> inception_4d/pool
I0403 21:41:34.088486 23893 net.cpp:141] Setting up inception_4d/pool
I0403 21:41:34.088511 23893 net.cpp:148] Top shape: 24 512 14 14 (2408448)
I0403 21:41:34.088526 23893 net.cpp:156] Memory required for data: 1144900896
I0403 21:41:34.088541 23893 layer_factory.hpp:77] Creating layer inception_4d/pool_proj
I0403 21:41:34.088563 23893 net.cpp:91] Creating Layer inception_4d/pool_proj
I0403 21:41:34.088589 23893 net.cpp:425] inception_4d/pool_proj <- inception_4d/pool
I0403 21:41:34.088611 23893 net.cpp:399] inception_4d/pool_proj -> inception_4d/pool_proj
I0403 21:41:34.090397 23893 net.cpp:141] Setting up inception_4d/pool_proj
I0403 21:41:34.090426 23893 net.cpp:148] Top shape: 24 64 14 14 (301056)
I0403 21:41:34.090443 23893 net.cpp:156] Memory required for data: 1146105120
I0403 21:41:34.090462 23893 layer_factory.hpp:77] Creating layer inception_4d/relu_pool_proj
I0403 21:41:34.090481 23893 net.cpp:91] Creating Layer inception_4d/relu_pool_proj
I0403 21:41:34.090499 23893 net.cpp:425] inception_4d/relu_pool_proj <- inception_4d/pool_proj
I0403 21:41:34.090520 23893 net.cpp:386] inception_4d/relu_pool_proj -> inception_4d/pool_proj (in-place)
I0403 21:41:34.090705 23893 net.cpp:141] Setting up inception_4d/relu_pool_proj
I0403 21:41:34.090731 23893 net.cpp:148] Top shape: 24 64 14 14 (301056)
I0403 21:41:34.090746 23893 net.cpp:156] Memory required for data: 1147309344
I0403 21:41:34.090761 23893 layer_factory.hpp:77] Creating layer inception_4d/output
I0403 21:41:34.090780 23893 net.cpp:91] Creating Layer inception_4d/output
I0403 21:41:34.090801 23893 net.cpp:425] inception_4d/output <- inception_4d/1x1
I0403 21:41:34.090817 23893 net.cpp:425] inception_4d/output <- inception_4d/3x3
I0403 21:41:34.090834 23893 net.cpp:425] inception_4d/output <- inception_4d/5x5
I0403 21:41:34.090850 23893 net.cpp:425] inception_4d/output <- inception_4d/pool_proj
I0403 21:41:34.090867 23893 net.cpp:399] inception_4d/output -> inception_4d/output
I0403 21:41:34.090914 23893 net.cpp:141] Setting up inception_4d/output
I0403 21:41:34.090942 23893 net.cpp:148] Top shape: 24 528 14 14 (2483712)
I0403 21:41:34.090960 23893 net.cpp:156] Memory required for data: 1157244192
I0403 21:41:34.090975 23893 layer_factory.hpp:77] Creating layer inception_4d/output_inception_4d/output_0_split
I0403 21:41:34.090993 23893 net.cpp:91] Creating Layer inception_4d/output_inception_4d/output_0_split
I0403 21:41:34.091009 23893 net.cpp:425] inception_4d/output_inception_4d/output_0_split <- inception_4d/output
I0403 21:41:34.091033 23893 net.cpp:399] inception_4d/output_inception_4d/output_0_split -> inception_4d/output_inception_4d/output_0_split_0
I0403 21:41:34.091056 23893 net.cpp:399] inception_4d/output_inception_4d/output_0_split -> inception_4d/output_inception_4d/output_0_split_1
I0403 21:41:34.091078 23893 net.cpp:399] inception_4d/output_inception_4d/output_0_split -> inception_4d/output_inception_4d/output_0_split_2
I0403 21:41:34.091099 23893 net.cpp:399] inception_4d/output_inception_4d/output_0_split -> inception_4d/output_inception_4d/output_0_split_3
I0403 21:41:34.091120 23893 net.cpp:399] inception_4d/output_inception_4d/output_0_split -> inception_4d/output_inception_4d/output_0_split_4
I0403 21:41:34.091235 23893 net.cpp:141] Setting up inception_4d/output_inception_4d/output_0_split
I0403 21:41:34.091272 23893 net.cpp:148] Top shape: 24 528 14 14 (2483712)
I0403 21:41:34.091294 23893 net.cpp:148] Top shape: 24 528 14 14 (2483712)
I0403 21:41:34.091310 23893 net.cpp:148] Top shape: 24 528 14 14 (2483712)
I0403 21:41:34.091327 23893 net.cpp:148] Top shape: 24 528 14 14 (2483712)
I0403 21:41:34.091343 23893 net.cpp:148] Top shape: 24 528 14 14 (2483712)
I0403 21:41:34.091357 23893 net.cpp:156] Memory required for data: 1206918432
I0403 21:41:34.091372 23893 layer_factory.hpp:77] Creating layer loss2/ave_pool
I0403 21:41:34.091390 23893 net.cpp:91] Creating Layer loss2/ave_pool
I0403 21:41:34.091408 23893 net.cpp:425] loss2/ave_pool <- inception_4d/output_inception_4d/output_0_split_0
I0403 21:41:34.091428 23893 net.cpp:399] loss2/ave_pool -> loss2/ave_pool
I0403 21:41:34.091744 23893 net.cpp:141] Setting up loss2/ave_pool
I0403 21:41:34.091771 23893 net.cpp:148] Top shape: 24 528 4 4 (202752)
I0403 21:41:34.091786 23893 net.cpp:156] Memory required for data: 1207729440
I0403 21:41:34.091802 23893 layer_factory.hpp:77] Creating layer loss2/conv
I0403 21:41:34.091825 23893 net.cpp:91] Creating Layer loss2/conv
I0403 21:41:34.091843 23893 net.cpp:425] loss2/conv <- loss2/ave_pool
I0403 21:41:34.091864 23893 net.cpp:399] loss2/conv -> loss2/conv
I0403 21:41:34.093781 23893 net.cpp:141] Setting up loss2/conv
I0403 21:41:34.093811 23893 net.cpp:148] Top shape: 24 128 4 4 (49152)
I0403 21:41:34.093827 23893 net.cpp:156] Memory required for data: 1207926048
I0403 21:41:34.093847 23893 layer_factory.hpp:77] Creating layer loss2/relu_conv
I0403 21:41:34.093868 23893 net.cpp:91] Creating Layer loss2/relu_conv
I0403 21:41:34.093888 23893 net.cpp:425] loss2/relu_conv <- loss2/conv
I0403 21:41:34.093905 23893 net.cpp:386] loss2/relu_conv -> loss2/conv (in-place)
I0403 21:41:34.094194 23893 net.cpp:141] Setting up loss2/relu_conv
I0403 21:41:34.094221 23893 net.cpp:148] Top shape: 24 128 4 4 (49152)
I0403 21:41:34.094241 23893 net.cpp:156] Memory required for data: 1208122656
I0403 21:41:34.094259 23893 layer_factory.hpp:77] Creating layer loss2/fc
I0403 21:41:34.094280 23893 net.cpp:91] Creating Layer loss2/fc
I0403 21:41:34.094297 23893 net.cpp:425] loss2/fc <- loss2/conv
I0403 21:41:34.094316 23893 net.cpp:399] loss2/fc -> loss2/fc
I0403 21:41:34.111873 23893 net.cpp:141] Setting up loss2/fc
I0403 21:41:34.111908 23893 net.cpp:148] Top shape: 24 1024 (24576)
I0403 21:41:34.111925 23893 net.cpp:156] Memory required for data: 1208220960
I0403 21:41:34.111944 23893 layer_factory.hpp:77] Creating layer loss2/relu_fc
I0403 21:41:34.111963 23893 net.cpp:91] Creating Layer loss2/relu_fc
I0403 21:41:34.111981 23893 net.cpp:425] loss2/relu_fc <- loss2/fc
I0403 21:41:34.112001 23893 net.cpp:386] loss2/relu_fc -> loss2/fc (in-place)
I0403 21:41:34.112303 23893 net.cpp:141] Setting up loss2/relu_fc
I0403 21:41:34.112329 23893 net.cpp:148] Top shape: 24 1024 (24576)
I0403 21:41:34.112344 23893 net.cpp:156] Memory required for data: 1208319264
I0403 21:41:34.112360 23893 layer_factory.hpp:77] Creating layer loss2/drop_fc
I0403 21:41:34.112377 23893 net.cpp:91] Creating Layer loss2/drop_fc
I0403 21:41:34.112393 23893 net.cpp:425] loss2/drop_fc <- loss2/fc
I0403 21:41:34.112413 23893 net.cpp:386] loss2/drop_fc -> loss2/fc (in-place)
I0403 21:41:34.112462 23893 net.cpp:141] Setting up loss2/drop_fc
I0403 21:41:34.112489 23893 net.cpp:148] Top shape: 24 1024 (24576)
I0403 21:41:34.112505 23893 net.cpp:156] Memory required for data: 1208417568
I0403 21:41:34.112520 23893 layer_factory.hpp:77] Creating layer loss2/classifier_plantvillage
I0403 21:41:34.112540 23893 net.cpp:91] Creating Layer loss2/classifier_plantvillage
I0403 21:41:34.112555 23893 net.cpp:425] loss2/classifier_plantvillage <- loss2/fc
I0403 21:41:34.112576 23893 net.cpp:399] loss2/classifier_plantvillage -> loss2/classifier_plantvillage
I0403 21:41:34.112970 23893 net.cpp:141] Setting up loss2/classifier_plantvillage
I0403 21:41:34.112998 23893 net.cpp:148] Top shape: 24 38 (912)
I0403 21:41:34.113030 23893 net.cpp:156] Memory required for data: 1208421216
I0403 21:41:34.113049 23893 layer_factory.hpp:77] Creating layer loss2/classifier_plantvillage_loss2/classifier_plantvillage_0_split
I0403 21:41:34.113068 23893 net.cpp:91] Creating Layer loss2/classifier_plantvillage_loss2/classifier_plantvillage_0_split
I0403 21:41:34.113085 23893 net.cpp:425] loss2/classifier_plantvillage_loss2/classifier_plantvillage_0_split <- loss2/classifier_plantvillage
I0403 21:41:34.113103 23893 net.cpp:399] loss2/classifier_plantvillage_loss2/classifier_plantvillage_0_split -> loss2/classifier_plantvillage_loss2/classifier_plantvillage_0_split_0
I0403 21:41:34.113124 23893 net.cpp:399] loss2/classifier_plantvillage_loss2/classifier_plantvillage_0_split -> loss2/classifier_plantvillage_loss2/classifier_plantvillage_0_split_1
I0403 21:41:34.113145 23893 net.cpp:399] loss2/classifier_plantvillage_loss2/classifier_plantvillage_0_split -> loss2/classifier_plantvillage_loss2/classifier_plantvillage_0_split_2
I0403 21:41:34.113224 23893 net.cpp:141] Setting up loss2/classifier_plantvillage_loss2/classifier_plantvillage_0_split
I0403 21:41:34.113251 23893 net.cpp:148] Top shape: 24 38 (912)
I0403 21:41:34.113268 23893 net.cpp:148] Top shape: 24 38 (912)
I0403 21:41:34.113284 23893 net.cpp:148] Top shape: 24 38 (912)
I0403 21:41:34.113298 23893 net.cpp:156] Memory required for data: 1208432160
I0403 21:41:34.113313 23893 layer_factory.hpp:77] Creating layer inception_4e/1x1
I0403 21:41:34.113332 23893 net.cpp:91] Creating Layer inception_4e/1x1
I0403 21:41:34.113349 23893 net.cpp:425] inception_4e/1x1 <- inception_4d/output_inception_4d/output_0_split_1
I0403 21:41:34.113371 23893 net.cpp:399] inception_4e/1x1 -> inception_4e/1x1
I0403 21:41:34.115159 23893 net.cpp:141] Setting up inception_4e/1x1
I0403 21:41:34.115196 23893 net.cpp:148] Top shape: 24 256 14 14 (1204224)
I0403 21:41:34.115211 23893 net.cpp:156] Memory required for data: 1213249056
I0403 21:41:34.115233 23893 layer_factory.hpp:77] Creating layer inception_4e/relu_1x1
I0403 21:41:34.115258 23893 net.cpp:91] Creating Layer inception_4e/relu_1x1
I0403 21:41:34.115278 23893 net.cpp:425] inception_4e/relu_1x1 <- inception_4e/1x1
I0403 21:41:34.115295 23893 net.cpp:386] inception_4e/relu_1x1 -> inception_4e/1x1 (in-place)
I0403 21:41:34.115589 23893 net.cpp:141] Setting up inception_4e/relu_1x1
I0403 21:41:34.115615 23893 net.cpp:148] Top shape: 24 256 14 14 (1204224)
I0403 21:41:34.115630 23893 net.cpp:156] Memory required for data: 1218065952
I0403 21:41:34.115645 23893 layer_factory.hpp:77] Creating layer inception_4e/3x3_reduce
I0403 21:41:34.115667 23893 net.cpp:91] Creating Layer inception_4e/3x3_reduce
I0403 21:41:34.115686 23893 net.cpp:425] inception_4e/3x3_reduce <- inception_4d/output_inception_4d/output_0_split_2
I0403 21:41:34.115705 23893 net.cpp:399] inception_4e/3x3_reduce -> inception_4e/3x3_reduce
I0403 21:41:34.117794 23893 net.cpp:141] Setting up inception_4e/3x3_reduce
I0403 21:41:34.117823 23893 net.cpp:148] Top shape: 24 160 14 14 (752640)
I0403 21:41:34.117841 23893 net.cpp:156] Memory required for data: 1221076512
I0403 21:41:34.117859 23893 layer_factory.hpp:77] Creating layer inception_4e/relu_3x3_reduce
I0403 21:41:34.117880 23893 net.cpp:91] Creating Layer inception_4e/relu_3x3_reduce
I0403 21:41:34.117897 23893 net.cpp:425] inception_4e/relu_3x3_reduce <- inception_4e/3x3_reduce
I0403 21:41:34.117915 23893 net.cpp:386] inception_4e/relu_3x3_reduce -> inception_4e/3x3_reduce (in-place)
I0403 21:41:34.118096 23893 net.cpp:141] Setting up inception_4e/relu_3x3_reduce
I0403 21:41:34.118122 23893 net.cpp:148] Top shape: 24 160 14 14 (752640)
I0403 21:41:34.118136 23893 net.cpp:156] Memory required for data: 1224087072
I0403 21:41:34.118150 23893 layer_factory.hpp:77] Creating layer inception_4e/3x3
I0403 21:41:34.118188 23893 net.cpp:91] Creating Layer inception_4e/3x3
I0403 21:41:34.118206 23893 net.cpp:425] inception_4e/3x3 <- inception_4e/3x3_reduce
I0403 21:41:34.118224 23893 net.cpp:399] inception_4e/3x3 -> inception_4e/3x3
I0403 21:41:34.123147 23893 net.cpp:141] Setting up inception_4e/3x3
I0403 21:41:34.123196 23893 net.cpp:148] Top shape: 24 320 14 14 (1505280)
I0403 21:41:34.123214 23893 net.cpp:156] Memory required for data: 1230108192
I0403 21:41:34.123236 23893 layer_factory.hpp:77] Creating layer inception_4e/relu_3x3
I0403 21:41:34.123258 23893 net.cpp:91] Creating Layer inception_4e/relu_3x3
I0403 21:41:34.123277 23893 net.cpp:425] inception_4e/relu_3x3 <- inception_4e/3x3
I0403 21:41:34.123296 23893 net.cpp:386] inception_4e/relu_3x3 -> inception_4e/3x3 (in-place)
I0403 21:41:34.123600 23893 net.cpp:141] Setting up inception_4e/relu_3x3
I0403 21:41:34.123628 23893 net.cpp:148] Top shape: 24 320 14 14 (1505280)
I0403 21:41:34.123644 23893 net.cpp:156] Memory required for data: 1236129312
I0403 21:41:34.123659 23893 layer_factory.hpp:77] Creating layer inception_4e/5x5_reduce
I0403 21:41:34.123682 23893 net.cpp:91] Creating Layer inception_4e/5x5_reduce
I0403 21:41:34.123699 23893 net.cpp:425] inception_4e/5x5_reduce <- inception_4d/output_inception_4d/output_0_split_3
I0403 21:41:34.123718 23893 net.cpp:399] inception_4e/5x5_reduce -> inception_4e/5x5_reduce
I0403 21:41:34.124768 23893 net.cpp:141] Setting up inception_4e/5x5_reduce
I0403 21:41:34.124795 23893 net.cpp:148] Top shape: 24 32 14 14 (150528)
I0403 21:41:34.124811 23893 net.cpp:156] Memory required for data: 1236731424
I0403 21:41:34.124830 23893 layer_factory.hpp:77] Creating layer inception_4e/relu_5x5_reduce
I0403 21:41:34.124850 23893 net.cpp:91] Creating Layer inception_4e/relu_5x5_reduce
I0403 21:41:34.124866 23893 net.cpp:425] inception_4e/relu_5x5_reduce <- inception_4e/5x5_reduce
I0403 21:41:34.124884 23893 net.cpp:386] inception_4e/relu_5x5_reduce -> inception_4e/5x5_reduce (in-place)
I0403 21:41:34.125174 23893 net.cpp:141] Setting up inception_4e/relu_5x5_reduce
I0403 21:41:34.125200 23893 net.cpp:148] Top shape: 24 32 14 14 (150528)
I0403 21:41:34.125216 23893 net.cpp:156] Memory required for data: 1237333536
I0403 21:41:34.125237 23893 layer_factory.hpp:77] Creating layer inception_4e/5x5
I0403 21:41:34.125274 23893 net.cpp:91] Creating Layer inception_4e/5x5
I0403 21:41:34.125293 23893 net.cpp:425] inception_4e/5x5 <- inception_4e/5x5_reduce
I0403 21:41:34.125315 23893 net.cpp:399] inception_4e/5x5 -> inception_4e/5x5
I0403 21:41:34.127117 23893 net.cpp:141] Setting up inception_4e/5x5
I0403 21:41:34.127146 23893 net.cpp:148] Top shape: 24 128 14 14 (602112)
I0403 21:41:34.127161 23893 net.cpp:156] Memory required for data: 1239741984
I0403 21:41:34.127182 23893 layer_factory.hpp:77] Creating layer inception_4e/relu_5x5
I0403 21:41:34.127200 23893 net.cpp:91] Creating Layer inception_4e/relu_5x5
I0403 21:41:34.127218 23893 net.cpp:425] inception_4e/relu_5x5 <- inception_4e/5x5
I0403 21:41:34.127241 23893 net.cpp:386] inception_4e/relu_5x5 -> inception_4e/5x5 (in-place)
I0403 21:41:34.127435 23893 net.cpp:141] Setting up inception_4e/relu_5x5
I0403 21:41:34.127461 23893 net.cpp:148] Top shape: 24 128 14 14 (602112)
I0403 21:41:34.127475 23893 net.cpp:156] Memory required for data: 1242150432
I0403 21:41:34.127490 23893 layer_factory.hpp:77] Creating layer inception_4e/pool
I0403 21:41:34.127509 23893 net.cpp:91] Creating Layer inception_4e/pool
I0403 21:41:34.127527 23893 net.cpp:425] inception_4e/pool <- inception_4d/output_inception_4d/output_0_split_4
I0403 21:41:34.127545 23893 net.cpp:399] inception_4e/pool -> inception_4e/pool
I0403 21:41:34.127619 23893 net.cpp:141] Setting up inception_4e/pool
I0403 21:41:34.127642 23893 net.cpp:148] Top shape: 24 528 14 14 (2483712)
I0403 21:41:34.127658 23893 net.cpp:156] Memory required for data: 1252085280
I0403 21:41:34.127672 23893 layer_factory.hpp:77] Creating layer inception_4e/pool_proj
I0403 21:41:34.127694 23893 net.cpp:91] Creating Layer inception_4e/pool_proj
I0403 21:41:34.127712 23893 net.cpp:425] inception_4e/pool_proj <- inception_4e/pool
I0403 21:41:34.127733 23893 net.cpp:399] inception_4e/pool_proj -> inception_4e/pool_proj
I0403 21:41:34.129214 23893 net.cpp:141] Setting up inception_4e/pool_proj
I0403 21:41:34.129256 23893 net.cpp:148] Top shape: 24 128 14 14 (602112)
I0403 21:41:34.129273 23893 net.cpp:156] Memory required for data: 1254493728
I0403 21:41:34.129292 23893 layer_factory.hpp:77] Creating layer inception_4e/relu_pool_proj
I0403 21:41:34.129309 23893 net.cpp:91] Creating Layer inception_4e/relu_pool_proj
I0403 21:41:34.129326 23893 net.cpp:425] inception_4e/relu_pool_proj <- inception_4e/pool_proj
I0403 21:41:34.129348 23893 net.cpp:386] inception_4e/relu_pool_proj -> inception_4e/pool_proj (in-place)
I0403 21:41:34.129640 23893 net.cpp:141] Setting up inception_4e/relu_pool_proj
I0403 21:41:34.129667 23893 net.cpp:148] Top shape: 24 128 14 14 (602112)
I0403 21:41:34.129681 23893 net.cpp:156] Memory required for data: 1256902176
I0403 21:41:34.129696 23893 layer_factory.hpp:77] Creating layer inception_4e/output
I0403 21:41:34.129714 23893 net.cpp:91] Creating Layer inception_4e/output
I0403 21:41:34.129730 23893 net.cpp:425] inception_4e/output <- inception_4e/1x1
I0403 21:41:34.129745 23893 net.cpp:425] inception_4e/output <- inception_4e/3x3
I0403 21:41:34.129761 23893 net.cpp:425] inception_4e/output <- inception_4e/5x5
I0403 21:41:34.129776 23893 net.cpp:425] inception_4e/output <- inception_4e/pool_proj
I0403 21:41:34.129796 23893 net.cpp:399] inception_4e/output -> inception_4e/output
I0403 21:41:34.129844 23893 net.cpp:141] Setting up inception_4e/output
I0403 21:41:34.129871 23893 net.cpp:148] Top shape: 24 832 14 14 (3913728)
I0403 21:41:34.129887 23893 net.cpp:156] Memory required for data: 1272557088
I0403 21:41:34.129901 23893 layer_factory.hpp:77] Creating layer pool4/3x3_s2
I0403 21:41:34.129919 23893 net.cpp:91] Creating Layer pool4/3x3_s2
I0403 21:41:34.129935 23893 net.cpp:425] pool4/3x3_s2 <- inception_4e/output
I0403 21:41:34.129954 23893 net.cpp:399] pool4/3x3_s2 -> pool4/3x3_s2
I0403 21:41:34.130023 23893 net.cpp:141] Setting up pool4/3x3_s2
I0403 21:41:34.130048 23893 net.cpp:148] Top shape: 24 832 7 7 (978432)
I0403 21:41:34.130061 23893 net.cpp:156] Memory required for data: 1276470816
I0403 21:41:34.130075 23893 layer_factory.hpp:77] Creating layer pool4/3x3_s2_pool4/3x3_s2_0_split
I0403 21:41:34.130092 23893 net.cpp:91] Creating Layer pool4/3x3_s2_pool4/3x3_s2_0_split
I0403 21:41:34.130110 23893 net.cpp:425] pool4/3x3_s2_pool4/3x3_s2_0_split <- pool4/3x3_s2
I0403 21:41:34.130130 23893 net.cpp:399] pool4/3x3_s2_pool4/3x3_s2_0_split -> pool4/3x3_s2_pool4/3x3_s2_0_split_0
I0403 21:41:34.130151 23893 net.cpp:399] pool4/3x3_s2_pool4/3x3_s2_0_split -> pool4/3x3_s2_pool4/3x3_s2_0_split_1
I0403 21:41:34.130172 23893 net.cpp:399] pool4/3x3_s2_pool4/3x3_s2_0_split -> pool4/3x3_s2_pool4/3x3_s2_0_split_2
I0403 21:41:34.130192 23893 net.cpp:399] pool4/3x3_s2_pool4/3x3_s2_0_split -> pool4/3x3_s2_pool4/3x3_s2_0_split_3
I0403 21:41:34.130290 23893 net.cpp:141] Setting up pool4/3x3_s2_pool4/3x3_s2_0_split
I0403 21:41:34.130314 23893 net.cpp:148] Top shape: 24 832 7 7 (978432)
I0403 21:41:34.130331 23893 net.cpp:148] Top shape: 24 832 7 7 (978432)
I0403 21:41:34.130347 23893 net.cpp:148] Top shape: 24 832 7 7 (978432)
I0403 21:41:34.130363 23893 net.cpp:148] Top shape: 24 832 7 7 (978432)
I0403 21:41:34.130378 23893 net.cpp:156] Memory required for data: 1292125728
I0403 21:41:34.130391 23893 layer_factory.hpp:77] Creating layer inception_5a/1x1
I0403 21:41:34.130414 23893 net.cpp:91] Creating Layer inception_5a/1x1
I0403 21:41:34.130431 23893 net.cpp:425] inception_5a/1x1 <- pool4/3x3_s2_pool4/3x3_s2_0_split_0
I0403 21:41:34.130453 23893 net.cpp:399] inception_5a/1x1 -> inception_5a/1x1
I0403 21:41:34.133265 23893 net.cpp:141] Setting up inception_5a/1x1
I0403 21:41:34.133294 23893 net.cpp:148] Top shape: 24 256 7 7 (301056)
I0403 21:41:34.133311 23893 net.cpp:156] Memory required for data: 1293329952
I0403 21:41:34.133330 23893 layer_factory.hpp:77] Creating layer inception_5a/relu_1x1
I0403 21:41:34.133352 23893 net.cpp:91] Creating Layer inception_5a/relu_1x1
I0403 21:41:34.133369 23893 net.cpp:425] inception_5a/relu_1x1 <- inception_5a/1x1
I0403 21:41:34.133388 23893 net.cpp:386] inception_5a/relu_1x1 -> inception_5a/1x1 (in-place)
I0403 21:41:34.133693 23893 net.cpp:141] Setting up inception_5a/relu_1x1
I0403 21:41:34.133719 23893 net.cpp:148] Top shape: 24 256 7 7 (301056)
I0403 21:41:34.133735 23893 net.cpp:156] Memory required for data: 1294534176
I0403 21:41:34.133750 23893 layer_factory.hpp:77] Creating layer inception_5a/3x3_reduce
I0403 21:41:34.133774 23893 net.cpp:91] Creating Layer inception_5a/3x3_reduce
I0403 21:41:34.133792 23893 net.cpp:425] inception_5a/3x3_reduce <- pool4/3x3_s2_pool4/3x3_s2_0_split_1
I0403 21:41:34.133813 23893 net.cpp:399] inception_5a/3x3_reduce -> inception_5a/3x3_reduce
I0403 21:41:34.136224 23893 net.cpp:141] Setting up inception_5a/3x3_reduce
I0403 21:41:34.136257 23893 net.cpp:148] Top shape: 24 160 7 7 (188160)
I0403 21:41:34.136275 23893 net.cpp:156] Memory required for data: 1295286816
I0403 21:41:34.136293 23893 layer_factory.hpp:77] Creating layer inception_5a/relu_3x3_reduce
I0403 21:41:34.136312 23893 net.cpp:91] Creating Layer inception_5a/relu_3x3_reduce
I0403 21:41:34.136328 23893 net.cpp:425] inception_5a/relu_3x3_reduce <- inception_5a/3x3_reduce
I0403 21:41:34.136348 23893 net.cpp:386] inception_5a/relu_3x3_reduce -> inception_5a/3x3_reduce (in-place)
I0403 21:41:34.136536 23893 net.cpp:141] Setting up inception_5a/relu_3x3_reduce
I0403 21:41:34.136562 23893 net.cpp:148] Top shape: 24 160 7 7 (188160)
I0403 21:41:34.136577 23893 net.cpp:156] Memory required for data: 1296039456
I0403 21:41:34.136592 23893 layer_factory.hpp:77] Creating layer inception_5a/3x3
I0403 21:41:34.136615 23893 net.cpp:91] Creating Layer inception_5a/3x3
I0403 21:41:34.136633 23893 net.cpp:425] inception_5a/3x3 <- inception_5a/3x3_reduce
I0403 21:41:34.136656 23893 net.cpp:399] inception_5a/3x3 -> inception_5a/3x3
I0403 21:41:34.141603 23893 net.cpp:141] Setting up inception_5a/3x3
I0403 21:41:34.141633 23893 net.cpp:148] Top shape: 24 320 7 7 (376320)
I0403 21:41:34.141650 23893 net.cpp:156] Memory required for data: 1297544736
I0403 21:41:34.141670 23893 layer_factory.hpp:77] Creating layer inception_5a/relu_3x3
I0403 21:41:34.141688 23893 net.cpp:91] Creating Layer inception_5a/relu_3x3
I0403 21:41:34.141705 23893 net.cpp:425] inception_5a/relu_3x3 <- inception_5a/3x3
I0403 21:41:34.141724 23893 net.cpp:386] inception_5a/relu_3x3 -> inception_5a/3x3 (in-place)
I0403 21:41:34.142015 23893 net.cpp:141] Setting up inception_5a/relu_3x3
I0403 21:41:34.142041 23893 net.cpp:148] Top shape: 24 320 7 7 (376320)
I0403 21:41:34.142057 23893 net.cpp:156] Memory required for data: 1299050016
I0403 21:41:34.142073 23893 layer_factory.hpp:77] Creating layer inception_5a/5x5_reduce
I0403 21:41:34.142096 23893 net.cpp:91] Creating Layer inception_5a/5x5_reduce
I0403 21:41:34.142113 23893 net.cpp:425] inception_5a/5x5_reduce <- pool4/3x3_s2_pool4/3x3_s2_0_split_2
I0403 21:41:34.142134 23893 net.cpp:399] inception_5a/5x5_reduce -> inception_5a/5x5_reduce
I0403 21:41:34.143285 23893 net.cpp:141] Setting up inception_5a/5x5_reduce
I0403 21:41:34.143316 23893 net.cpp:148] Top shape: 24 32 7 7 (37632)
I0403 21:41:34.143332 23893 net.cpp:156] Memory required for data: 1299200544
I0403 21:41:34.143350 23893 layer_factory.hpp:77] Creating layer inception_5a/relu_5x5_reduce
I0403 21:41:34.143369 23893 net.cpp:91] Creating Layer inception_5a/relu_5x5_reduce
I0403 21:41:34.143386 23893 net.cpp:425] inception_5a/relu_5x5_reduce <- inception_5a/5x5_reduce
I0403 21:41:34.143404 23893 net.cpp:386] inception_5a/relu_5x5_reduce -> inception_5a/5x5_reduce (in-place)
I0403 21:41:34.143694 23893 net.cpp:141] Setting up inception_5a/relu_5x5_reduce
I0403 21:41:34.143720 23893 net.cpp:148] Top shape: 24 32 7 7 (37632)
I0403 21:41:34.143736 23893 net.cpp:156] Memory required for data: 1299351072
I0403 21:41:34.143751 23893 layer_factory.hpp:77] Creating layer inception_5a/5x5
I0403 21:41:34.143774 23893 net.cpp:91] Creating Layer inception_5a/5x5
I0403 21:41:34.143792 23893 net.cpp:425] inception_5a/5x5 <- inception_5a/5x5_reduce
I0403 21:41:34.143813 23893 net.cpp:399] inception_5a/5x5 -> inception_5a/5x5
I0403 21:41:34.145503 23893 net.cpp:141] Setting up inception_5a/5x5
I0403 21:41:34.145542 23893 net.cpp:148] Top shape: 24 128 7 7 (150528)
I0403 21:41:34.145558 23893 net.cpp:156] Memory required for data: 1299953184
I0403 21:41:34.145577 23893 layer_factory.hpp:77] Creating layer inception_5a/relu_5x5
I0403 21:41:34.145596 23893 net.cpp:91] Creating Layer inception_5a/relu_5x5
I0403 21:41:34.145613 23893 net.cpp:425] inception_5a/relu_5x5 <- inception_5a/5x5
I0403 21:41:34.145633 23893 net.cpp:386] inception_5a/relu_5x5 -> inception_5a/5x5 (in-place)
I0403 21:41:34.145823 23893 net.cpp:141] Setting up inception_5a/relu_5x5
I0403 21:41:34.145848 23893 net.cpp:148] Top shape: 24 128 7 7 (150528)
I0403 21:41:34.145862 23893 net.cpp:156] Memory required for data: 1300555296
I0403 21:41:34.145876 23893 layer_factory.hpp:77] Creating layer inception_5a/pool
I0403 21:41:34.145897 23893 net.cpp:91] Creating Layer inception_5a/pool
I0403 21:41:34.145916 23893 net.cpp:425] inception_5a/pool <- pool4/3x3_s2_pool4/3x3_s2_0_split_3
I0403 21:41:34.145934 23893 net.cpp:399] inception_5a/pool -> inception_5a/pool
I0403 21:41:34.146005 23893 net.cpp:141] Setting up inception_5a/pool
I0403 21:41:34.146029 23893 net.cpp:148] Top shape: 24 832 7 7 (978432)
I0403 21:41:34.146044 23893 net.cpp:156] Memory required for data: 1304469024
I0403 21:41:34.146059 23893 layer_factory.hpp:77] Creating layer inception_5a/pool_proj
I0403 21:41:34.146080 23893 net.cpp:91] Creating Layer inception_5a/pool_proj
I0403 21:41:34.146100 23893 net.cpp:425] inception_5a/pool_proj <- inception_5a/pool
I0403 21:41:34.146119 23893 net.cpp:399] inception_5a/pool_proj -> inception_5a/pool_proj
I0403 21:41:34.148470 23893 net.cpp:141] Setting up inception_5a/pool_proj
I0403 21:41:34.148502 23893 net.cpp:148] Top shape: 24 128 7 7 (150528)
I0403 21:41:34.148519 23893 net.cpp:156] Memory required for data: 1305071136
I0403 21:41:34.148540 23893 layer_factory.hpp:77] Creating layer inception_5a/relu_pool_proj
I0403 21:41:34.148557 23893 net.cpp:91] Creating Layer inception_5a/relu_pool_proj
I0403 21:41:34.148576 23893 net.cpp:425] inception_5a/relu_pool_proj <- inception_5a/pool_proj
I0403 21:41:34.148594 23893 net.cpp:386] inception_5a/relu_pool_proj -> inception_5a/pool_proj (in-place)
I0403 21:41:34.148888 23893 net.cpp:141] Setting up inception_5a/relu_pool_proj
I0403 21:41:34.148917 23893 net.cpp:148] Top shape: 24 128 7 7 (150528)
I0403 21:41:34.148934 23893 net.cpp:156] Memory required for data: 1305673248
I0403 21:41:34.148952 23893 layer_factory.hpp:77] Creating layer inception_5a/output
I0403 21:41:34.148969 23893 net.cpp:91] Creating Layer inception_5a/output
I0403 21:41:34.148986 23893 net.cpp:425] inception_5a/output <- inception_5a/1x1
I0403 21:41:34.149003 23893 net.cpp:425] inception_5a/output <- inception_5a/3x3
I0403 21:41:34.149019 23893 net.cpp:425] inception_5a/output <- inception_5a/5x5
I0403 21:41:34.149036 23893 net.cpp:425] inception_5a/output <- inception_5a/pool_proj
I0403 21:41:34.149056 23893 net.cpp:399] inception_5a/output -> inception_5a/output
I0403 21:41:34.149106 23893 net.cpp:141] Setting up inception_5a/output
I0403 21:41:34.149132 23893 net.cpp:148] Top shape: 24 832 7 7 (978432)
I0403 21:41:34.149147 23893 net.cpp:156] Memory required for data: 1309586976
I0403 21:41:34.149163 23893 layer_factory.hpp:77] Creating layer inception_5a/output_inception_5a/output_0_split
I0403 21:41:34.149190 23893 net.cpp:91] Creating Layer inception_5a/output_inception_5a/output_0_split
I0403 21:41:34.149209 23893 net.cpp:425] inception_5a/output_inception_5a/output_0_split <- inception_5a/output
I0403 21:41:34.149230 23893 net.cpp:399] inception_5a/output_inception_5a/output_0_split -> inception_5a/output_inception_5a/output_0_split_0
I0403 21:41:34.149256 23893 net.cpp:399] inception_5a/output_inception_5a/output_0_split -> inception_5a/output_inception_5a/output_0_split_1
I0403 21:41:34.149279 23893 net.cpp:399] inception_5a/output_inception_5a/output_0_split -> inception_5a/output_inception_5a/output_0_split_2
I0403 21:41:34.149301 23893 net.cpp:399] inception_5a/output_inception_5a/output_0_split -> inception_5a/output_inception_5a/output_0_split_3
I0403 21:41:34.149417 23893 net.cpp:141] Setting up inception_5a/output_inception_5a/output_0_split
I0403 21:41:34.149442 23893 net.cpp:148] Top shape: 24 832 7 7 (978432)
I0403 21:41:34.149459 23893 net.cpp:148] Top shape: 24 832 7 7 (978432)
I0403 21:41:34.149477 23893 net.cpp:148] Top shape: 24 832 7 7 (978432)
I0403 21:41:34.149493 23893 net.cpp:148] Top shape: 24 832 7 7 (978432)
I0403 21:41:34.149507 23893 net.cpp:156] Memory required for data: 1325241888
I0403 21:41:34.149521 23893 layer_factory.hpp:77] Creating layer inception_5b/1x1
I0403 21:41:34.149544 23893 net.cpp:91] Creating Layer inception_5b/1x1
I0403 21:41:34.149564 23893 net.cpp:425] inception_5b/1x1 <- inception_5a/output_inception_5a/output_0_split_0
I0403 21:41:34.149585 23893 net.cpp:399] inception_5b/1x1 -> inception_5b/1x1
I0403 21:41:34.153583 23893 net.cpp:141] Setting up inception_5b/1x1
I0403 21:41:34.153615 23893 net.cpp:148] Top shape: 24 384 7 7 (451584)
I0403 21:41:34.153631 23893 net.cpp:156] Memory required for data: 1327048224
I0403 21:41:34.153651 23893 layer_factory.hpp:77] Creating layer inception_5b/relu_1x1
I0403 21:41:34.153671 23893 net.cpp:91] Creating Layer inception_5b/relu_1x1
I0403 21:41:34.153688 23893 net.cpp:425] inception_5b/relu_1x1 <- inception_5b/1x1
I0403 21:41:34.153707 23893 net.cpp:386] inception_5b/relu_1x1 -> inception_5b/1x1 (in-place)
I0403 21:41:34.154011 23893 net.cpp:141] Setting up inception_5b/relu_1x1
I0403 21:41:34.154039 23893 net.cpp:148] Top shape: 24 384 7 7 (451584)
I0403 21:41:34.154055 23893 net.cpp:156] Memory required for data: 1328854560
I0403 21:41:34.154072 23893 layer_factory.hpp:77] Creating layer inception_5b/3x3_reduce
I0403 21:41:34.154095 23893 net.cpp:91] Creating Layer inception_5b/3x3_reduce
I0403 21:41:34.154114 23893 net.cpp:425] inception_5b/3x3_reduce <- inception_5a/output_inception_5a/output_0_split_1
I0403 21:41:34.154134 23893 net.cpp:399] inception_5b/3x3_reduce -> inception_5b/3x3_reduce
I0403 21:41:34.156824 23893 net.cpp:141] Setting up inception_5b/3x3_reduce
I0403 21:41:34.156857 23893 net.cpp:148] Top shape: 24 192 7 7 (225792)
I0403 21:41:34.156875 23893 net.cpp:156] Memory required for data: 1329757728
I0403 21:41:34.156894 23893 layer_factory.hpp:77] Creating layer inception_5b/relu_3x3_reduce
I0403 21:41:34.156914 23893 net.cpp:91] Creating Layer inception_5b/relu_3x3_reduce
I0403 21:41:34.156931 23893 net.cpp:425] inception_5b/relu_3x3_reduce <- inception_5b/3x3_reduce
I0403 21:41:34.156955 23893 net.cpp:386] inception_5b/relu_3x3_reduce -> inception_5b/3x3_reduce (in-place)
I0403 21:41:34.157146 23893 net.cpp:141] Setting up inception_5b/relu_3x3_reduce
I0403 21:41:34.157173 23893 net.cpp:148] Top shape: 24 192 7 7 (225792)
I0403 21:41:34.157188 23893 net.cpp:156] Memory required for data: 1330660896
I0403 21:41:34.157204 23893 layer_factory.hpp:77] Creating layer inception_5b/3x3
I0403 21:41:34.157227 23893 net.cpp:91] Creating Layer inception_5b/3x3
I0403 21:41:34.157250 23893 net.cpp:425] inception_5b/3x3 <- inception_5b/3x3_reduce
I0403 21:41:34.157272 23893 net.cpp:399] inception_5b/3x3 -> inception_5b/3x3
I0403 21:41:34.164090 23893 net.cpp:141] Setting up inception_5b/3x3
I0403 21:41:34.164121 23893 net.cpp:148] Top shape: 24 384 7 7 (451584)
I0403 21:41:34.164139 23893 net.cpp:156] Memory required for data: 1332467232
I0403 21:41:34.164157 23893 layer_factory.hpp:77] Creating layer inception_5b/relu_3x3
I0403 21:41:34.164186 23893 net.cpp:91] Creating Layer inception_5b/relu_3x3
I0403 21:41:34.164202 23893 net.cpp:425] inception_5b/relu_3x3 <- inception_5b/3x3
I0403 21:41:34.164222 23893 net.cpp:386] inception_5b/relu_3x3 -> inception_5b/3x3 (in-place)
I0403 21:41:34.164516 23893 net.cpp:141] Setting up inception_5b/relu_3x3
I0403 21:41:34.164542 23893 net.cpp:148] Top shape: 24 384 7 7 (451584)
I0403 21:41:34.164558 23893 net.cpp:156] Memory required for data: 1334273568
I0403 21:41:34.164573 23893 layer_factory.hpp:77] Creating layer inception_5b/5x5_reduce
I0403 21:41:34.164610 23893 net.cpp:91] Creating Layer inception_5b/5x5_reduce
I0403 21:41:34.164629 23893 net.cpp:425] inception_5b/5x5_reduce <- inception_5a/output_inception_5a/output_0_split_2
I0403 21:41:34.164651 23893 net.cpp:399] inception_5b/5x5_reduce -> inception_5b/5x5_reduce
I0403 21:41:34.165916 23893 net.cpp:141] Setting up inception_5b/5x5_reduce
I0403 21:41:34.165946 23893 net.cpp:148] Top shape: 24 48 7 7 (56448)
I0403 21:41:34.165961 23893 net.cpp:156] Memory required for data: 1334499360
I0403 21:41:34.165980 23893 layer_factory.hpp:77] Creating layer inception_5b/relu_5x5_reduce
I0403 21:41:34.165998 23893 net.cpp:91] Creating Layer inception_5b/relu_5x5_reduce
I0403 21:41:34.166018 23893 net.cpp:425] inception_5b/relu_5x5_reduce <- inception_5b/5x5_reduce
I0403 21:41:34.166038 23893 net.cpp:386] inception_5b/relu_5x5_reduce -> inception_5b/5x5_reduce (in-place)
I0403 21:41:34.166426 23893 net.cpp:141] Setting up inception_5b/relu_5x5_reduce
I0403 21:41:34.166453 23893 net.cpp:148] Top shape: 24 48 7 7 (56448)
I0403 21:41:34.166468 23893 net.cpp:156] Memory required for data: 1334725152
I0403 21:41:34.166483 23893 layer_factory.hpp:77] Creating layer inception_5b/5x5
I0403 21:41:34.166503 23893 net.cpp:91] Creating Layer inception_5b/5x5
I0403 21:41:34.166522 23893 net.cpp:425] inception_5b/5x5 <- inception_5b/5x5_reduce
I0403 21:41:34.166541 23893 net.cpp:399] inception_5b/5x5 -> inception_5b/5x5
I0403 21:41:34.168557 23893 net.cpp:141] Setting up inception_5b/5x5
I0403 21:41:34.168584 23893 net.cpp:148] Top shape: 24 128 7 7 (150528)
I0403 21:41:34.168601 23893 net.cpp:156] Memory required for data: 1335327264
I0403 21:41:34.168619 23893 layer_factory.hpp:77] Creating layer inception_5b/relu_5x5
I0403 21:41:34.168640 23893 net.cpp:91] Creating Layer inception_5b/relu_5x5
I0403 21:41:34.168658 23893 net.cpp:425] inception_5b/relu_5x5 <- inception_5b/5x5
I0403 21:41:34.168676 23893 net.cpp:386] inception_5b/relu_5x5 -> inception_5b/5x5 (in-place)
I0403 21:41:34.168866 23893 net.cpp:141] Setting up inception_5b/relu_5x5
I0403 21:41:34.168891 23893 net.cpp:148] Top shape: 24 128 7 7 (150528)
I0403 21:41:34.168905 23893 net.cpp:156] Memory required for data: 1335929376
I0403 21:41:34.168920 23893 layer_factory.hpp:77] Creating layer inception_5b/pool
I0403 21:41:34.168941 23893 net.cpp:91] Creating Layer inception_5b/pool
I0403 21:41:34.168959 23893 net.cpp:425] inception_5b/pool <- inception_5a/output_inception_5a/output_0_split_3
I0403 21:41:34.168977 23893 net.cpp:399] inception_5b/pool -> inception_5b/pool
I0403 21:41:34.169049 23893 net.cpp:141] Setting up inception_5b/pool
I0403 21:41:34.169073 23893 net.cpp:148] Top shape: 24 832 7 7 (978432)
I0403 21:41:34.169088 23893 net.cpp:156] Memory required for data: 1339843104
I0403 21:41:34.169103 23893 layer_factory.hpp:77] Creating layer inception_5b/pool_proj
I0403 21:41:34.169126 23893 net.cpp:91] Creating Layer inception_5b/pool_proj
I0403 21:41:34.169143 23893 net.cpp:425] inception_5b/pool_proj <- inception_5b/pool
I0403 21:41:34.169164 23893 net.cpp:399] inception_5b/pool_proj -> inception_5b/pool_proj
I0403 21:41:34.171452 23893 net.cpp:141] Setting up inception_5b/pool_proj
I0403 21:41:34.171490 23893 net.cpp:148] Top shape: 24 128 7 7 (150528)
I0403 21:41:34.171506 23893 net.cpp:156] Memory required for data: 1340445216
I0403 21:41:34.171536 23893 layer_factory.hpp:77] Creating layer inception_5b/relu_pool_proj
I0403 21:41:34.171555 23893 net.cpp:91] Creating Layer inception_5b/relu_pool_proj
I0403 21:41:34.171572 23893 net.cpp:425] inception_5b/relu_pool_proj <- inception_5b/pool_proj
I0403 21:41:34.171591 23893 net.cpp:386] inception_5b/relu_pool_proj -> inception_5b/pool_proj (in-place)
I0403 21:41:34.171888 23893 net.cpp:141] Setting up inception_5b/relu_pool_proj
I0403 21:41:34.171914 23893 net.cpp:148] Top shape: 24 128 7 7 (150528)
I0403 21:41:34.171931 23893 net.cpp:156] Memory required for data: 1341047328
I0403 21:41:34.171946 23893 layer_factory.hpp:77] Creating layer inception_5b/output
I0403 21:41:34.171964 23893 net.cpp:91] Creating Layer inception_5b/output
I0403 21:41:34.171995 23893 net.cpp:425] inception_5b/output <- inception_5b/1x1
I0403 21:41:34.172013 23893 net.cpp:425] inception_5b/output <- inception_5b/3x3
I0403 21:41:34.172030 23893 net.cpp:425] inception_5b/output <- inception_5b/5x5
I0403 21:41:34.172045 23893 net.cpp:425] inception_5b/output <- inception_5b/pool_proj
I0403 21:41:34.172065 23893 net.cpp:399] inception_5b/output -> inception_5b/output
I0403 21:41:34.172114 23893 net.cpp:141] Setting up inception_5b/output
I0403 21:41:34.172142 23893 net.cpp:148] Top shape: 24 1024 7 7 (1204224)
I0403 21:41:34.172158 23893 net.cpp:156] Memory required for data: 1345864224
I0403 21:41:34.172173 23893 layer_factory.hpp:77] Creating layer pool5/7x7_s1
I0403 21:41:34.172190 23893 net.cpp:91] Creating Layer pool5/7x7_s1
I0403 21:41:34.172206 23893 net.cpp:425] pool5/7x7_s1 <- inception_5b/output
I0403 21:41:34.172224 23893 net.cpp:399] pool5/7x7_s1 -> pool5/7x7_s1
I0403 21:41:34.172446 23893 net.cpp:141] Setting up pool5/7x7_s1
I0403 21:41:34.172472 23893 net.cpp:148] Top shape: 24 1024 1 1 (24576)
I0403 21:41:34.172487 23893 net.cpp:156] Memory required for data: 1345962528
I0403 21:41:34.172502 23893 layer_factory.hpp:77] Creating layer pool5/drop_7x7_s1
I0403 21:41:34.172519 23893 net.cpp:91] Creating Layer pool5/drop_7x7_s1
I0403 21:41:34.172535 23893 net.cpp:425] pool5/drop_7x7_s1 <- pool5/7x7_s1
I0403 21:41:34.172554 23893 net.cpp:386] pool5/drop_7x7_s1 -> pool5/7x7_s1 (in-place)
I0403 21:41:34.172603 23893 net.cpp:141] Setting up pool5/drop_7x7_s1
I0403 21:41:34.172629 23893 net.cpp:148] Top shape: 24 1024 1 1 (24576)
I0403 21:41:34.172644 23893 net.cpp:156] Memory required for data: 1346060832
I0403 21:41:34.172660 23893 layer_factory.hpp:77] Creating layer loss3/classifier_plantvillage
I0403 21:41:34.172678 23893 net.cpp:91] Creating Layer loss3/classifier_plantvillage
I0403 21:41:34.172694 23893 net.cpp:425] loss3/classifier_plantvillage <- pool5/7x7_s1
I0403 21:41:34.172715 23893 net.cpp:399] loss3/classifier_plantvillage -> loss3/classifier_plantvillage
I0403 21:41:34.173133 23893 net.cpp:141] Setting up loss3/classifier_plantvillage
I0403 21:41:34.173158 23893 net.cpp:148] Top shape: 24 38 (912)
I0403 21:41:34.173174 23893 net.cpp:156] Memory required for data: 1346064480
I0403 21:41:34.173192 23893 layer_factory.hpp:77] Creating layer loss3/classifier_plantvillage_loss3/classifier_plantvillage_0_split
I0403 21:41:34.173214 23893 net.cpp:91] Creating Layer loss3/classifier_plantvillage_loss3/classifier_plantvillage_0_split
I0403 21:41:34.173235 23893 net.cpp:425] loss3/classifier_plantvillage_loss3/classifier_plantvillage_0_split <- loss3/classifier_plantvillage
I0403 21:41:34.173255 23893 net.cpp:399] loss3/classifier_plantvillage_loss3/classifier_plantvillage_0_split -> loss3/classifier_plantvillage_loss3/classifier_plantvillage_0_split_0
I0403 21:41:34.173280 23893 net.cpp:399] loss3/classifier_plantvillage_loss3/classifier_plantvillage_0_split -> loss3/classifier_plantvillage_loss3/classifier_plantvillage_0_split_1
I0403 21:41:34.173301 23893 net.cpp:399] loss3/classifier_plantvillage_loss3/classifier_plantvillage_0_split -> loss3/classifier_plantvillage_loss3/classifier_plantvillage_0_split_2
I0403 21:41:34.173321 23893 net.cpp:399] loss3/classifier_plantvillage_loss3/classifier_plantvillage_0_split -> loss3/classifier_plantvillage_loss3/classifier_plantvillage_0_split_3
I0403 21:41:34.173421 23893 net.cpp:141] Setting up loss3/classifier_plantvillage_loss3/classifier_plantvillage_0_split
I0403 21:41:34.173445 23893 net.cpp:148] Top shape: 24 38 (912)
I0403 21:41:34.173461 23893 net.cpp:148] Top shape: 24 38 (912)
I0403 21:41:34.173477 23893 net.cpp:148] Top shape: 24 38 (912)
I0403 21:41:34.173492 23893 net.cpp:148] Top shape: 24 38 (912)
I0403 21:41:34.173506 23893 net.cpp:156] Memory required for data: 1346079072
I0403 21:41:34.173521 23893 layer_factory.hpp:77] Creating layer loss1/loss
I0403 21:41:34.173542 23893 net.cpp:91] Creating Layer loss1/loss
I0403 21:41:34.173559 23893 net.cpp:425] loss1/loss <- loss1/classifier_plantvillage_loss1/classifier_plantvillage_0_split_0
I0403 21:41:34.173590 23893 net.cpp:425] loss1/loss <- label_data_1_split_0
…
