…
I0403 21:47:16.333287 24243 net.cpp:313] The NetState phase (1) differed from the phase (0) specified by a rule in layer data
I0403 21:47:16.334415 24243 net.cpp:49] Initializing net from parameters: 
state {
  phase: TEST
}
layer {
  name: "data"
  type: "Data"
  top: "data"
  top: "label"
  include {
    phase: TEST
  }
  transform_param {
    mirror: false
    crop_size: 224
    mean_file: "/home/mohanty/data/final_dataset/lmdb/segmented-80-20/mean.binaryproto"
  }
  data_param {
    source: "/home/mohanty/data/final_dataset/lmdb/segmented-80-20/test_db"
    batch_size: 24
    backend: LMDB
  }
}
layer {
  name: "conv1/7x7_s2"
  type: "Convolution"
  bottom: "data"
  top: "conv1/7x7_s2"
  param {
    lr_mult: 1
    decay_mult: 1
  }
  param {
    lr_mult: 2
    decay_mult: 0
  }
  convolution_param {
    num_output: 64
    pad: 3
    kernel_size: 7
    stride: 2
    weight_filler {
      type: "xavier"
      std: 0.1
    }
    bias_filler {
      type: "constant"
      value: 0.2
    }
  }
}
layer {
  name: "conv1/relu_7x7"
  type: "ReLU"
  bottom: "conv1/7x7_s2"
  top: "conv1/7x7_s2"
}
layer {
  name: "pool1/3x3_s2"
  type: "Pooling"
  bottom: "conv1/7x7_s2"
  top: "pool1/3x3_s2"
  pooling_param {
    pool: MAX
    kernel_size: 3
    stride: 2
  }
}
layer {
  name: "pool1/norm1"
  type: "LRN"
  bottom: "pool1/3x3_s2"
  top: "pool1/norm1"
  lrn_param {
    local_size: 5
    alpha: 0.0001
    beta: 0.75
  }
}
layer {
  name: "conv2/3x3_reduce"
  type: "Convolution"
  bottom: "pool1/norm1"
  top: "conv2/3x3_reduce"
  param {
    lr_mult: 1
    decay_mult: 1
  }
  param {
    lr_mult: 2
    decay_mult: 0
  }
  convolution_param {
    num_output: 64
    kernel_size: 1
    weight_filler {
      type: "xavier"
      std: 0.1
    }
    bias_filler {
      type: "constant"
      value: 0.2
    }
  }
}
layer {
  name: "conv2/relu_3x3_reduce"
  type: "ReLU"
  bottom: "conv2/3x3_reduce"
  top: "conv2/3x3_reduce"
}
layer {
  name: "conv2/3x3"
  type: "Convolution"
  bottom: "conv2/3x3_reduce"
  top: "conv2/3x3"
  param {
    lr_mult: 1
    decay_mult: 1
  }
  param {
    lr_mult: 2
    decay_mult: 0
  }
  convolution_param {
    num_output: 192
    pad: 1
    kernel_size: 3
    weight_filler {
      type: "xavier"
      std: 0.03
    }
    bias_filler {
      type: "constant"
      value: 0.2
    }
  }
}
layer {
  name: "conv2/relu_3x3"
  type: "ReLU"
  bottom: "conv2/3x3"
  top: "conv2/3x3"
}
layer {
  name: "conv2/norm2"
  type: "LRN"
  bottom: "conv2/3x3"
  top: "conv2/norm2"
  lrn_param {
    local_size: 5
    alpha: 0.0001
    beta: 0.75
  }
}
layer {
  name: "pool2/3x3_s2"
  type: "Pooling"
  bottom: "conv2/norm2"
  top: "pool2/3x3_s2"
  pooling_param {
    pool: MAX
    kernel_size: 3
    stride: 2
  }
}
layer {
  name: "inception_3a/1x1"
  type: "Convolution"
  bottom: "pool2/3x3_s2"
  top: "inception_3a/1x1"
  param {
    lr_mult: 1
    decay_mult: 1
  }
  param {
    lr_mult: 2
    decay_mult: 0
  }
  convolution_param {
    num_output: 64
    kernel_size: 1
    weight_filler {
      type: "xavier"
      std: 0.03
    }
    bias_filler {
      type: "constant"
      value: 0.2
    }
  }
}
layer {
  name: "inception_3a/relu_1x1"
  type: "ReLU"
  bottom: "inception_3a/1x1"
  top: "inception_3a/1x1"
}
layer {
  name: "inception_3a/3x3_reduce"
  type: "Convolution"
  bottom: "pool2/3x3_s2"
  top: "inception_3a/3x3_reduce"
  param {
    lr_mult: 1
    decay_mult: 1
  }
  param {
    lr_mult: 2
    decay_mult: 0
  }
  convolution_param {
    num_output: 96
    kernel_size: 1
    weight_filler {
      type: "xavier"
      std: 0.09
    }
    bias_filler {
      type: "constant"
      value: 0.2
    }
  }
}
layer {
  name: "inception_3a/relu_3x3_reduce"
  type: "ReLU"
  bottom: "inception_3a/3x3_reduce"
  top: "inception_3a/3x3_reduce"
}
layer {
  name: "inception_3a/3x3"
  type: "Convolution"
  bottom: "inception_3a/3x3_reduce"
  top: "inception_3a/3x3"
  param {
    lr_mult: 1
    decay_mult: 1
  }
  param {
    lr_mult: 2
    decay_mult: 0
  }
  convolution_param {
    num_output: 128
    pad: 1
    kernel_size: 3
    weight_filler {
      type: "xavier"
      std: 0.03
    }
    bias_filler {
      type: "constant"
      value: 0.2
    }
  }
}
layer {
  name: "inception_3a/relu_3x3"
  type: "ReLU"
  bottom: "inception_3a/3x3"
  top: "inception_3a/3x3"
}
layer {
  name: "inception_3a/5x5_reduce"
  type: "Convolution"
  bottom: "pool2/3x3_s2"
  top: "inception_3a/5x5_reduce"
  param {
    lr_mult: 1
    decay_mult: 1
  }
  param {
    lr_mult: 2
    decay_mult: 0
  }
  convolution_param {
    num_output: 16
    kernel_size: 1
    weight_filler {
      type: "xavier"
      std: 0.2
    }
    bias_filler {
      type: "constant"
      value: 0.2
    }
  }
}
layer {
  name: "inception_3a/relu_5x5_reduce"
  type: "ReLU"
  bottom: "inception_3a/5x5_reduce"
  top: "inception_3a/5x5_reduce"
}
layer {
  name: "inception_3a/5x5"
  type: "Convolution"
  bottom: "inception_3a/5x5_reduce"
  top: "inception_3a/5x5"
  param {
    lr_mult: 1
    decay_mult: 1
  }
  param {
    lr_mult: 2
    decay_mult: 0
  }
  convolution_param {
    num_output: 32
    pad: 2
    kernel_size: 5
    weight_filler {
      type: "xavier"
      std: 0.03
    }
    bias_filler {
      type: "constant"
      value: 0.2
    }
  }
}
layer {
  name: "inception_3a/relu_5x5"
  type: "ReLU"
  bottom: "inception_3a/5x5"
  top: "inception_3a/5x5"
}
layer {
  name: "inception_3a/pool"
  type: "Pooling"
  bottom: "pool2/3x3_s2"
  top: "inception_3a/pool"
  pooling_param {
    pool: MAX
    kernel_size: 3
    stride: 1
    pad: 1
  }
}
layer {
  name: "inception_3a/pool_proj"
  type: "Convolution"
  bottom: "inception_3a/pool"
  top: "inception_3a/pool_proj"
  param {
    lr_mult: 1
    decay_mult: 1
  }
  param {
    lr_mult: 2
    decay_mult: 0
  }
  convolution_param {
    num_output: 32
    kernel_size: 1
    weight_filler {
      type: "xavier"
      std: 0.1
    }
    bias_filler {
      type: "constant"
      value: 0.2
    }
  }
}
layer {
  name: "inception_3a/relu_pool_proj"
  type: "ReLU"
  bottom: "inception_3a/pool_proj"
  top: "inception_3a/pool_proj"
}
layer {
  name: "inception_3a/output"
  type: "Concat"
  bottom: "inception_3a/1x1"
  bottom: "inception_3a/3x3"
  bottom: "inception_3a/5x5"
  bottom: "inception_3a/pool_proj"
  top: "inception_3a/output"
}
layer {
  name: "inception_3b/1x1"
  type: "Convolution"
  bottom: "inception_3a/output"
  top: "inception_3b/1x1"
  param {
    lr_mult: 1
    decay_mult: 1
  }
  param {
    lr_mult: 2
    decay_mult: 0
  }
  convolution_param {
    num_output: 128
    kernel_size: 1
    weight_filler {
      type: "xavier"
      std: 0.03
    }
    bias_filler {
      type: "constant"
      value: 0.2
    }
  }
}
layer {
  name: "inception_3b/relu_1x1"
  type: "ReLU"
  bottom: "inception_3b/1x1"
  top: "inception_3b/1x1"
}
layer {
  name: "inception_3b/3x3_reduce"
  type: "Convolution"
  bottom: "inception_3a/output"
  top: "inception_3b/3x3_reduce"
  param {
    lr_mult: 1
    decay_mult: 1
  }
  param {
    lr_mult: 2
    decay_mult: 0
  }
  convolution_param {
    num_output: 128
    kernel_size: 1
    weight_filler {
      type: "xavier"
      std: 0.09
    }
    bias_filler {
      type: "constant"
      value: 0.2
    }
  }
}
layer {
  name: "inception_3b/relu_3x3_reduce"
  type: "ReLU"
  bottom: "inception_3b/3x3_reduce"
  top: "inception_3b/3x3_reduce"
}
layer {
  name: "inception_3b/3x3"
  type: "Convolution"
  bottom: "inception_3b/3x3_reduce"
  top: "inception_3b/3x3"
  param {
    lr_mult: 1
    decay_mult: 1
  }
  param {
    lr_mult: 2
    decay_mult: 0
  }
  convolution_param {
    num_output: 192
    pad: 1
    kernel_size: 3
    weight_filler {
      type: "xavier"
      std: 0.03
    }
    bias_filler {
      type: "constant"
      value: 0.2
    }
  }
}
layer {
  name: "inception_3b/relu_3x3"
  type: "ReLU"
  bottom: "inception_3b/3x3"
  top: "inception_3b/3x3"
}
layer {
  name: "inception_3b/5x5_reduce"
  type: "Convolution"
  bottom: "inception_3a/output"
  top: "inception_3b/5x5_reduce"
  param {
    lr_mult: 1
    decay_mult: 1
  }
  param {
    lr_mult: 2
    decay_mult: 0
  }
  convolution_param {
    num_output: 32
    kernel_size: 1
    weight_filler {
      type: "xavier"
      std: 0.2
    }
    bias_filler {
      type: "constant"
      value: 0.2
    }
  }
}
layer {
  name: "inception_3b/relu_5x5_reduce"
  type: "ReLU"
  bottom: "inception_3b/5x5_reduce"
  top: "inception_3b/5x5_reduce"
}
layer {
  name: "inception_3b/5x5"
  type: "Convolution"
  bottom: "inception_3b/5x5_reduce"
  top: "inception_3b/5x5"
  param {
    lr_mult: 1
    decay_mult: 1
  }
  param {
    lr_mult: 2
    decay_mult: 0
  }
  convolution_param {
    num_output: 96
    pad: 2
    kernel_size: 5
    weight_filler {
      type: "xavier"
      std: 0.03
    }
    bias_filler {
      type: "constant"
      value: 0.2
    }
  }
}
layer {
  name: "inception_3b/relu_5x5"
  type: "ReLU"
  bottom: "inception_3b/5x5"
  top: "inception_3b/5x5"
}
layer {
  name: "inception_3b/pool"
  type: "Pooling"
  bottom: "inception_3a/output"
  top: "inception_3b/pool"
  pooling_param {
    pool: MAX
    kernel_size: 3
    stride: 1
    pad: 1
  }
}
layer {
  name: "inception_3b/pool_proj"
  type: "Convolution"
  bottom: "inception_3b/pool"
  top: "inception_3b/pool_proj"
  param {
    lr_mult: 1
    decay_mult: 1
  }
  param {
    lr_mult: 2
    decay_mult: 0
  }
  convolution_param {
    num_output: 64
    kernel_size: 1
    weight_filler {
      type: "xavier"
      std: 0.1
    }
    bias_filler {
      type: "constant"
      value: 0.2
    }
  }
}
layer {
  name: "inception_3b/relu_pool_proj"
  type: "ReLU"
  bottom: "inception_3b/pool_proj"
  top: "inception_3b/pool_proj"
}
layer {
  name: "inception_3b/output"
  type: "Concat"
  bottom: "inception_3b/1x1"
  bottom: "inception_3b/3x3"
  bottom: "inception_3b/5x5"
  bottom: "inception_3b/pool_proj"
  top: "inception_3b/output"
}
layer {
  name: "pool3/3x3_s2"
  type: "Pooling"
  bottom: "inception_3b/output"
  top: "pool3/3x3_s2"
  pooling_param {
    pool: MAX
    kernel_size: 3
    stride: 2
  }
}
layer {
  name: "inception_4a/1x1"
  type: "Convolution"
  bottom: "pool3/3x3_s2"
  top: "inception_4a/1x1"
  param {
    lr_mult: 1
    decay_mult: 1
  }
  param {
    lr_mult: 2
    decay_mult: 0
  }
  convolution_param {
    num_output: 192
    kernel_size: 1
    weight_filler {
      type: "xavier"
      std: 0.03
    }
    bias_filler {
      type: "constant"
      value: 0.2
    }
  }
}
layer {
  name: "inception_4a/relu_1x1"
  type: "ReLU"
  bottom: "inception_4a/1x1"
  top: "inception_4a/1x1"
}
layer {
  name: "inception_4a/3x3_reduce"
  type: "Convolution"
  bottom: "pool3/3x3_s2"
  top: "inception_4a/3x3_reduce"
  param {
    lr_mult: 1
    decay_mult: 1
  }
  param {
    lr_mult: 2
    decay_mult: 0
  }
  convolution_param {
    num_output: 96
    kernel_size: 1
    weight_filler {
      type: "xavier"
      std: 0.09
    }
    bias_filler {
      type: "constant"
      value: 0.2
    }
  }
}
layer {
  name: "inception_4a/relu_3x3_reduce"
  type: "ReLU"
  bottom: "inception_4a/3x3_reduce"
  top: "inception_4a/3x3_reduce"
}
layer {
  name: "inception_4a/3x3"
  type: "Convolution"
  bottom: "inception_4a/3x3_reduce"
  top: "inception_4a/3x3"
  param {
    lr_mult: 1
    decay_mult: 1
  }
  param {
    lr_mult: 2
    decay_mult: 0
  }
  convolution_param {
    num_output: 208
    pad: 1
    kernel_size: 3
    weight_filler {
      type: "xavier"
      std: 0.03
    }
    bias_filler {
      type: "constant"
      value: 0.2
    }
  }
}
layer {
  name: "inception_4a/relu_3x3"
  type: "ReLU"
  bottom: "inception_4a/3x3"
  top: "inception_4a/3x3"
}
layer {
  name: "inception_4a/5x5_reduce"
  type: "Convolution"
  bottom: "pool3/3x3_s2"
  top: "inception_4a/5x5_reduce"
  param {
    lr_mult: 1
    decay_mult: 1
  }
  param {
    lr_mult: 2
    decay_mult: 0
  }
  convolution_param {
    num_output: 16
    kernel_size: 1
    weight_filler {
      type: "xavier"
      std: 0.2
    }
    bias_filler {
      type: "constant"
      value: 0.2
    }
  }
}
layer {
  name: "inception_4a/relu_5x5_reduce"
  type: "ReLU"
  bottom: "inception_4a/5x5_reduce"
  top: "inception_4a/5x5_reduce"
}
layer {
  name: "inception_4a/5x5"
  type: "Convolution"
  bottom: "inception_4a/5x5_reduce"
  top: "inception_4a/5x5"
  param {
    lr_mult: 1
    decay_mult: 1
  }
  param {
    lr_mult: 2
    decay_mult: 0
  }
  convolution_param {
    num_output: 48
    pad: 2
    kernel_size: 5
    weight_filler {
      type: "xavier"
      std: 0.03
    }
    bias_filler {
      type: "constant"
      value: 0.2
    }
  }
}
layer {
  name: "inception_4a/relu_5x5"
  type: "ReLU"
  bottom: "inception_4a/5x5"
  top: "inception_4a/5x5"
}
layer {
  name: "inception_4a/pool"
  type: "Pooling"
  bottom: "pool3/3x3_s2"
  top: "inception_4a/pool"
  pooling_param {
    pool: MAX
    kernel_size: 3
    stride: 1
    pad: 1
  }
}
layer {
  name: "inception_4a/pool_proj"
  type: "Convolution"
  bottom: "inception_4a/pool"
  top: "inception_4a/pool_proj"
  param {
    lr_mult: 1
    decay_mult: 1
  }
  param {
    lr_mult: 2
    decay_mult: 0
  }
  convolution_param {
    num_output: 64
    kernel_size: 1
    weight_filler {
      type: "xavier"
      std: 0.1
    }
    bias_filler {
      type: "constant"
      value: 0.2
    }
  }
}
layer {
  name: "inception_4a/relu_pool_proj"
  type: "ReLU"
  bottom: "inception_4a/pool_proj"
  top: "inception_4a/pool_proj"
}
layer {
  name: "inception_4a/output"
  type: "Concat"
  bottom: "inception_4a/1x1"
  bottom: "inception_4a/3x3"
  bottom: "inception_4a/5x5"
  bottom: "inception_4a/pool_proj"
  top: "inception_4a/output"
}
layer {
  name: "loss1/ave_pool"
  type: "Pooling"
  bottom: "inception_4a/output"
  top: "loss1/ave_pool"
  pooling_param {
    pool: AVE
    kernel_size: 5
    stride: 3
  }
}
layer {
  name: "loss1/conv"
  type: "Convolution"
  bottom: "loss1/ave_pool"
  top: "loss1/conv"
  param {
    lr_mult: 1
    decay_mult: 1
  }
  param {
    lr_mult: 2
    decay_mult: 0
  }
  convolution_param {
    num_output: 128
    kernel_size: 1
    weight_filler {
      type: "xavier"
      std: 0.08
    }
    bias_filler {
      type: "constant"
      value: 0.2
    }
  }
}
layer {
  name: "loss1/relu_conv"
  type: "ReLU"
  bottom: "loss1/conv"
  top: "loss1/conv"
}
layer {
  name: "loss1/fc"
  type: "InnerProduct"
  bottom: "loss1/conv"
  top: "loss1/fc"
  param {
    lr_mult: 1
    decay_mult: 1
  }
  param {
    lr_mult: 2
    decay_mult: 0
  }
  inner_product_param {
    num_output: 1024
    weight_filler {
      type: "xavier"
      std: 0.02
    }
    bias_filler {
      type: "constant"
      value: 0.2
    }
  }
}
layer {
  name: "loss1/relu_fc"
  type: "ReLU"
  bottom: "loss1/fc"
  top: "loss1/fc"
}
layer {
  name: "loss1/drop_fc"
  type: "Dropout"
  bottom: "loss1/fc"
  top: "loss1/fc"
  dropout_param {
    dropout_ratio: 0.7
  }
}
layer {
  name: "loss1/classifier_plantvillage"
  type: "InnerProduct"
  bottom: "loss1/fc"
  top: "loss1/classifier_plantvillage"
  param {
    lr_mult: 1
    decay_mult: 1
  }
  param {
    lr_mult: 2
    decay_mult: 0
  }
  inner_product_param {
    num_output: 38
    weight_filler {
      type: "xavier"
      std: 0.0009765625
    }
    bias_filler {
      type: "constant"
      value: 0
    }
  }
}
layer {
  name: "inception_4b/1x1"
  type: "Convolution"
  bottom: "inception_4a/output"
  top: "inception_4b/1x1"
  param {
    lr_mult: 1
    decay_mult: 1
  }
  param {
    lr_mult: 2
    decay_mult: 0
  }
  convolution_param {
    num_output: 160
    kernel_size: 1
    weight_filler {
      type: "xavier"
      std: 0.03
    }
    bias_filler {
      type: "constant"
      value: 0.2
    }
  }
}
layer {
  name: "inception_4b/relu_1x1"
  type: "ReLU"
  bottom: "inception_4b/1x1"
  top: "inception_4b/1x1"
}
layer {
  name: "inception_4b/3x3_reduce"
  type: "Convolution"
  bottom: "inception_4a/output"
  top: "inception_4b/3x3_reduce"
  param {
    lr_mult: 1
    decay_mult: 1
  }
  param {
    lr_mult: 2
    decay_mult: 0
  }
  convolution_param {
    num_output: 112
    kernel_size: 1
    weight_filler {
      type: "xavier"
      std: 0.09
    }
    bias_filler {
      type: "constant"
      value: 0.2
    }
  }
}
layer {
  name: "inception_4b/relu_3x3_reduce"
  type: "ReLU"
  bottom: "inception_4b/3x3_reduce"
  top: "inception_4b/3x3_reduce"
}
layer {
  name: "inception_4b/3x3"
  type: "Convolution"
  bottom: "inception_4b/3x3_reduce"
  top: "inception_4b/3x3"
  param {
    lr_mult: 1
    decay_mult: 1
  }
  param {
    lr_mult: 2
    decay_mult: 0
  }
  convolution_param {
    num_output: 224
    pad: 1
    kernel_size: 3
    weight_filler {
      type: "xavier"
      std: 0.03
    }
    bias_filler {
      type: "constant"
      value: 0.2
    }
  }
}
layer {
  name: "inception_4b/relu_3x3"
  type: "ReLU"
  bottom: "inception_4b/3x3"
  top: "inception_4b/3x3"
}
layer {
  name: "inception_4b/5x5_reduce"
  type: "Convolution"
  bottom: "inception_4a/output"
  top: "inception_4b/5x5_reduce"
  param {
    lr_mult: 1
    decay_mult: 1
  }
  param {
    lr_mult: 2
    decay_mult: 0
  }
  convolution_param {
    num_output: 24
    kernel_size: 1
    weight_filler {
      type: "xavier"
      std: 0.2
    }
    bias_filler {
      type: "constant"
      value: 0.2
    }
  }
}
layer {
  name: "inception_4b/relu_5x5_reduce"
  type: "ReLU"
  bottom: "inception_4b/5x5_reduce"
  top: "inception_4b/5x5_reduce"
}
layer {
  name: "inception_4b/5x5"
  type: "Convolution"
  bottom: "inception_4b/5x5_reduce"
  top: "inception_4b/5x5"
  param {
    lr_mult: 1
    decay_mult: 1
  }
  param {
    lr_mult: 2
    decay_mult: 0
  }
  convolution_param {
    num_output: 64
    pad: 2
    kernel_size: 5
    weight_filler {
      type: "xavier"
      std: 0.03
    }
    bias_filler {
      type: "constant"
      value: 0.2
    }
  }
}
layer {
  name: "inception_4b/relu_5x5"
  type: "ReLU"
  bottom: "inception_4b/5x5"
  top: "inception_4b/5x5"
}
layer {
  name: "inception_4b/pool"
  type: "Pooling"
  bottom: "inception_4a/output"
  top: "inception_4b/pool"
  pooling_param {
    pool: MAX
    kernel_size: 3
    stride: 1
    pad: 1
  }
}
layer {
  name: "inception_4b/pool_proj"
  type: "Convolution"
  bottom: "inception_4b/pool"
  top: "inception_4b/pool_proj"
  param {
    lr_mult: 1
    decay_mult: 1
  }
  param {
    lr_mult: 2
    decay_mult: 0
  }
  convolution_param {
    num_output: 64
    kernel_size: 1
    weight_filler {
      type: "xavier"
      std: 0.1
    }
    bias_filler {
      type: "constant"
      value: 0.2
    }
  }
}
layer {
  name: "inception_4b/relu_pool_proj"
  type: "ReLU"
  bottom: "inception_4b/pool_proj"
  top: "inception_4b/pool_proj"
}
layer {
  name: "inception_4b/output"
  type: "Concat"
  bottom: "inception_4b/1x1"
  bottom: "inception_4b/3x3"
  bottom: "inception_4b/5x5"
  bottom: "inception_4b/pool_proj"
  top: "inception_4b/output"
}
layer {
  name: "inception_4c/1x1"
  type: "Convolution"
  bottom: "inception_4b/output"
  top: "inception_4c/1x1"
  param {
    lr_mult: 1
    decay_mult: 1
  }
  param {
    lr_mult: 2
    decay_mult: 0
  }
  convolution_param {
    num_output: 128
    kernel_size: 1
    weight_filler {
      type: "xavier"
      std: 0.03
    }
    bias_filler {
      type: "constant"
      value: 0.2
    }
  }
}
layer {
  name: "inception_4c/relu_1x1"
  type: "ReLU"
  bottom: "inception_4c/1x1"
  top: "inception_4c/1x1"
}
layer {
  name: "inception_4c/3x3_reduce"
  type: "Convolution"
  bottom: "inception_4b/output"
  top: "inception_4c/3x3_reduce"
  param {
    lr_mult: 1
    decay_mult: 1
  }
  param {
    lr_mult: 2
    decay_mult: 0
  }
  convolution_param {
    num_output: 128
    kernel_size: 1
    weight_filler {
      type: "xavier"
      std: 0.09
    }
    bias_filler {
      type: "constant"
      value: 0.2
    }
  }
}
layer {
  name: "inception_4c/relu_3x3_reduce"
  type: "ReLU"
  bottom: "inception_4c/3x3_reduce"
  top: "inception_4c/3x3_reduce"
}
layer {
  name: "inception_4c/3x3"
  type: "Convolution"
  bottom: "inception_4c/3x3_reduce"
  top: "inception_4c/3x3"
  param {
    lr_mult: 1
    decay_mult: 1
  }
  param {
    lr_mult: 2
    decay_mult: 0
  }
  convolution_param {
    num_output: 256
    pad: 1
    kernel_size: 3
    weight_filler {
      type: "xavier"
      std: 0.03
    }
    bias_filler {
      type: "constant"
      value: 0.2
    }
  }
}
layer {
  name: "inception_4c/relu_3x3"
  type: "ReLU"
  bottom: "inception_4c/3x3"
  top: "inception_4c/3x3"
}
layer {
  name: "inception_4c/5x5_reduce"
  type: "Convolution"
  bottom: "inception_4b/output"
  top: "inception_4c/5x5_reduce"
  param {
    lr_mult: 1
    decay_mult: 1
  }
  param {
    lr_mult: 2
    decay_mult: 0
  }
  convolution_param {
    num_output: 24
    kernel_size: 1
    weight_filler {
      type: "xavier"
      std: 0.2
    }
    bias_filler {
      type: "constant"
      value: 0.2
    }
  }
}
layer {
  name: "inception_4c/relu_5x5_reduce"
  type: "ReLU"
  bottom: "inception_4c/5x5_reduce"
  top: "inception_4c/5x5_reduce"
}
layer {
  name: "inception_4c/5x5"
  type: "Convolution"
  bottom: "inception_4c/5x5_reduce"
  top: "inception_4c/5x5"
  param {
    lr_mult: 1
    decay_mult: 1
  }
  param {
    lr_mult: 2
    decay_mult: 0
  }
  convolution_param {
    num_output: 64
    pad: 2
    kernel_size: 5
    weight_filler {
      type: "xavier"
      std: 0.03
    }
    bias_filler {
      type: "constant"
      value: 0.2
    }
  }
}
layer {
  name: "inception_4c/relu_5x5"
  type: "ReLU"
  bottom: "inception_4c/5x5"
  top: "inception_4c/5x5"
}
layer {
  name: "inception_4c/pool"
  type: "Pooling"
  bottom: "inception_4b/output"
  top: "inception_4c/pool"
  pooling_param {
    pool: MAX
    kernel_size: 3
    stride: 1
    pad: 1
  }
}
layer {
  name: "inception_4c/pool_proj"
  type: "Convolution"
  bottom: "inception_4c/pool"
  top: "inception_4c/pool_proj"
  param {
    lr_mult: 1
    decay_mult: 1
  }
  param {
    lr_mult: 2
    decay_mult: 0
  }
  convolution_param {
    num_output: 64
    kernel_size: 1
    weight_filler {
      type: "xavier"
      std: 0.1
    }
    bias_filler {
      type: "constant"
      value: 0.2
    }
  }
}
layer {
  name: "inception_4c/relu_pool_proj"
  type: "ReLU"
  bottom: "inception_4c/pool_proj"
  top: "inception_4c/pool_proj"
}
layer {
  name: "inception_4c/output"
  type: "Concat"
  bottom: "inception_4c/1x1"
  bottom: "inception_4c/3x3"
  bottom: "inception_4c/5x5"
  bottom: "inception_4c/pool_proj"
  top: "inception_4c/output"
}
layer {
  name: "inception_4d/1x1"
  type: "Convolution"
  bottom: "inception_4c/output"
  top: "inception_4d/1x1"
  param {
    lr_mult: 1
    decay_mult: 1
  }
  param {
    lr_mult: 2
    decay_mult: 0
  }
  convolution_param {
    num_output: 112
    kernel_size: 1
    weight_filler {
      type: "xavier"
      std: 0.03
    }
    bias_filler {
      type: "constant"
      value: 0.2
    }
  }
}
layer {
  name: "inception_4d/relu_1x1"
  type: "ReLU"
  bottom: "inception_4d/1x1"
  top: "inception_4d/1x1"
}
layer {
  name: "inception_4d/3x3_reduce"
  type: "Convolution"
  bottom: "inception_4c/output"
  top: "inception_4d/3x3_reduce"
  param {
    lr_mult: 1
    decay_mult: 1
  }
  param {
    lr_mult: 2
    decay_mult: 0
  }
  convolution_param {
    num_output: 144
    kernel_size: 1
    weight_filler {
      type: "xavier"
      std: 0.09
    }
    bias_filler {
      type: "constant"
      value: 0.2
    }
  }
}
layer {
  name: "inception_4d/relu_3x3_reduce"
  type: "ReLU"
  bottom: "inception_4d/3x3_reduce"
  top: "inception_4d/3x3_reduce"
}
layer {
  name: "inception_4d/3x3"
  type: "Convolution"
  bottom: "inception_4d/3x3_reduce"
  top: "inception_4d/3x3"
  param {
    lr_mult: 1
    decay_mult: 1
  }
  param {
    lr_mult: 2
    decay_mult: 0
  }
  convolution_param {
    num_output: 288
    pad: 1
    kernel_size: 3
    weight_filler {
      type: "xavier"
      std: 0.03
    }
    bias_filler {
      type: "constant"
      value: 0.2
    }
  }
}
layer {
  name: "inception_4d/relu_3x3"
  type: "ReLU"
  bottom: "inception_4d/3x3"
  top: "inception_4d/3x3"
}
layer {
  name: "inception_4d/5x5_reduce"
  type: "Convolution"
  bottom: "inception_4c/output"
  top: "inception_4d/5x5_reduce"
  param {
    lr_mult: 1
    decay_mult: 1
  }
  param {
    lr_mult: 2
    decay_mult: 0
  }
  convolution_param {
    num_output: 32
    kernel_size: 1
    weight_filler {
      type: "xavier"
      std: 0.2
    }
    bias_filler {
      type: "constant"
      value: 0.2
    }
  }
}
layer {
  name: "inception_4d/relu_5x5_reduce"
  type: "ReLU"
  bottom: "inception_4d/5x5_reduce"
  top: "inception_4d/5x5_reduce"
}
layer {
  name: "inception_4d/5x5"
  type: "Convolution"
  bottom: "inception_4d/5x5_reduce"
  top: "inception_4d/5x5"
  param {
    lr_mult: 1
    decay_mult: 1
  }
  param {
    lr_mult: 2
    decay_mult: 0
  }
  convolution_param {
    num_output: 64
    pad: 2
    kernel_size: 5
    weight_filler {
      type: "xavier"
      std: 0.03
    }
    bias_filler {
      type: "constant"
      value: 0.2
    }
  }
}
layer {
  name: "inception_4d/relu_5x5"
  type: "ReLU"
  bottom: "inception_4d/5x5"
  top: "inception_4d/5x5"
}
layer {
  name: "inception_4d/pool"
  type: "Pooling"
  bottom: "inception_4c/output"
  top: "inception_4d/pool"
  pooling_param {
    pool: MAX
    kernel_size: 3
    stride: 1
    pad: 1
  }
}
layer {
  name: "inception_4d/pool_proj"
  type: "Convolution"
  bottom: "inception_4d/pool"
  top: "inception_4d/pool_proj"
  param {
    lr_mult: 1
    decay_mult: 1
  }
  param {
    lr_mult: 2
    decay_mult: 0
  }
  convolution_param {
    num_output: 64
    kernel_size: 1
    weight_filler {
      type: "xavier"
      std: 0.1
    }
    bias_filler {
      type: "constant"
      value: 0.2
    }
  }
}
layer {
  name: "inception_4d/relu_pool_proj"
  type: "ReLU"
  bottom: "inception_4d/pool_proj"
  top: "inception_4d/pool_proj"
}
layer {
  name: "inception_4d/output"
  type: "Concat"
  bottom: "inception_4d/1x1"
  bottom: "inception_4d/3x3"
  bottom: "inception_4d/5x5"
  bottom: "inception_4d/pool_proj"
  top: "inception_4d/output"
}
layer {
  name: "loss2/ave_pool"
  type: "Pooling"
  bottom: "inception_4d/output"
  top: "loss2/ave_pool"
  pooling_param {
    pool: AVE
    kernel_size: 5
    stride: 3
  }
}
layer {
  name: "loss2/conv"
  type: "Convolution"
  bottom: "loss2/ave_pool"
  top: "loss2/conv"
  param {
    lr_mult: 1
    decay_mult: 1
  }
  param {
    lr_mult: 2
    decay_mult: 0
  }
  convolution_param {
    num_output: 128
    kernel_size: 1
    weight_filler {
      type: "xavier"
      std: 0.08
    }
    bias_filler {
      type: "constant"
      value: 0.2
    }
  }
}
layer {
  name: "loss2/relu_conv"
  type: "ReLU"
  bottom: "loss2/conv"
  top: "loss2/conv"
}
layer {
  name: "loss2/fc"
  type: "InnerProduct"
  bottom: "loss2/conv"
  top: "loss2/fc"
  param {
    lr_mult: 1
    decay_mult: 1
  }
  param {
    lr_mult: 2
    decay_mult: 0
  }
  inner_product_param {
    num_output: 1024
    weight_filler {
      type: "xavier"
      std: 0.02
    }
    bias_filler {
      type: "constant"
      value: 0.2
    }
  }
}
layer {
  name: "loss2/relu_fc"
  type: "ReLU"
  bottom: "loss2/fc"
  top: "loss2/fc"
}
layer {
  name: "loss2/drop_fc"
  type: "Dropout"
  bottom: "loss2/fc"
  top: "loss2/fc"
  dropout_param {
    dropout_ratio: 0.7
  }
}
layer {
  name: "loss2/classifier_plantvillage"
  type: "InnerProduct"
  bottom: "loss2/fc"
  top: "loss2/classifier_plantvillage"
  param {
    lr_mult: 1
    decay_mult: 1
  }
  param {
    lr_mult: 2
    decay_mult: 0
  }
  inner_product_param {
    num_output: 38
    weight_filler {
      type: "xavier"
      std: 0.0009765625
    }
    bias_filler {
      type: "constant"
      value: 0
    }
  }
}
layer {
  name: "inception_4e/1x1"
  type: "Convolution"
  bottom: "inception_4d/output"
  top: "inception_4e/1x1"
  param {
    lr_mult: 1
    decay_mult: 1
  }
  param {
    lr_mult: 2
    decay_mult: 0
  }
  convolution_param {
    num_output: 256
    kernel_size: 1
    weight_filler {
      type: "xavier"
      std: 0.03
    }
    bias_filler {
      type: "constant"
      value: 0.2
    }
  }
}
layer {
  name: "inception_4e/relu_1x1"
  type: "ReLU"
  bottom: "inception_4e/1x1"
  top: "inception_4e/1x1"
}
layer {
  name: "inception_4e/3x3_reduce"
  type: "Convolution"
  bottom: "inception_4d/output"
  top: "inception_4e/3x3_reduce"
  param {
    lr_mult: 1
    decay_mult: 1
  }
  param {
    lr_mult: 2
    decay_mult: 0
  }
  convolution_param {
    num_output: 160
    kernel_size: 1
    weight_filler {
      type: "xavier"
      std: 0.09
    }
    bias_filler {
      type: "constant"
      value: 0.2
    }
  }
}
layer {
  name: "inception_4e/relu_3x3_reduce"
  type: "ReLU"
  bottom: "inception_4e/3x3_reduce"
  top: "inception_4e/3x3_reduce"
}
layer {
  name: "inception_4e/3x3"
  type: "Convolution"
  bottom: "inception_4e/3x3_reduce"
  top: "inception_4e/3x3"
  param {
    lr_mult: 1
    decay_mult: 1
  }
  param {
    lr_mult: 2
    decay_mult: 0
  }
  convolution_param {
    num_output: 320
    pad: 1
    kernel_size: 3
    weight_filler {
      type: "xavier"
      std: 0.03
    }
    bias_filler {
      type: "constant"
      value: 0.2
    }
  }
}
layer {
  name: "inception_4e/relu_3x3"
  type: "ReLU"
  bottom: "inception_4e/3x3"
  top: "inception_4e/3x3"
}
layer {
  name: "inception_4e/5x5_reduce"
  type: "Convolution"
  bottom: "inception_4d/output"
  top: "inception_4e/5x5_reduce"
  param {
    lr_mult: 1
    decay_mult: 1
  }
  param {
    lr_mult: 2
    decay_mult: 0
  }
  convolution_param {
    num_output: 32
    kernel_size: 1
    weight_filler {
      type: "xavier"
      std: 0.2
    }
    bias_filler {
      type: "constant"
      value: 0.2
    }
  }
}
layer {
  name: "inception_4e/relu_5x5_reduce"
  type: "ReLU"
  bottom: "inception_4e/5x5_reduce"
  top: "inception_4e/5x5_reduce"
}
layer {
  name: "inception_4e/5x5"
  type: "Convolution"
  bottom: "inception_4e/5x5_reduce"
  top: "inception_4e/
I0403 21:47:16.335660 24243 layer_factory.hpp:77] Creating layer data
I0403 21:47:16.336243 24243 net.cpp:91] Creating Layer data
I0403 21:47:16.336274 24243 net.cpp:399] data -> data
I0403 21:47:16.336328 24243 net.cpp:399] data -> label
I0403 21:47:16.336366 24243 data_transformer.cpp:25] Loading mean file from: /home/mohanty/data/final_dataset/lmdb/segmented-80-20/mean.binaryproto
I0403 21:47:16.337497 24245 db_lmdb.cpp:38] Opened lmdb /home/mohanty/data/final_dataset/lmdb/segmented-80-20/test_db
I0403 21:47:16.349036 24243 data_layer.cpp:41] output data size: 24,3,224,224
I0403 21:47:16.376433 24243 net.cpp:141] Setting up data
I0403 21:47:16.376518 24243 net.cpp:148] Top shape: 24 3 224 224 (3612672)
I0403 21:47:16.376540 24243 net.cpp:148] Top shape: 24 (24)
I0403 21:47:16.376556 24243 net.cpp:156] Memory required for data: 14450784
I0403 21:47:16.376585 24243 layer_factory.hpp:77] Creating layer label_data_1_split
I0403 21:47:16.376612 24243 net.cpp:91] Creating Layer label_data_1_split
I0403 21:47:16.376631 24243 net.cpp:425] label_data_1_split <- label
I0403 21:47:16.376663 24243 net.cpp:399] label_data_1_split -> label_data_1_split_0
I0403 21:47:16.376691 24243 net.cpp:399] label_data_1_split -> label_data_1_split_1
I0403 21:47:16.376714 24243 net.cpp:399] label_data_1_split -> label_data_1_split_2
I0403 21:47:16.376736 24243 net.cpp:399] label_data_1_split -> label_data_1_split_3
I0403 21:47:16.376757 24243 net.cpp:399] label_data_1_split -> label_data_1_split_4
I0403 21:47:16.376778 24243 net.cpp:399] label_data_1_split -> label_data_1_split_5
I0403 21:47:16.376798 24243 net.cpp:399] label_data_1_split -> label_data_1_split_6
I0403 21:47:16.376819 24243 net.cpp:399] label_data_1_split -> label_data_1_split_7
I0403 21:47:16.376842 24243 net.cpp:399] label_data_1_split -> label_data_1_split_8
I0403 21:47:16.376863 24243 net.cpp:399] label_data_1_split -> label_data_1_split_9
I0403 21:47:16.376976 24243 net.cpp:141] Setting up label_data_1_split
I0403 21:47:16.377001 24243 net.cpp:148] Top shape: 24 (24)
I0403 21:47:16.377017 24243 net.cpp:148] Top shape: 24 (24)
I0403 21:47:16.377033 24243 net.cpp:148] Top shape: 24 (24)
I0403 21:47:16.377050 24243 net.cpp:148] Top shape: 24 (24)
I0403 21:47:16.377066 24243 net.cpp:148] Top shape: 24 (24)
I0403 21:47:16.377084 24243 net.cpp:148] Top shape: 24 (24)
I0403 21:47:16.377100 24243 net.cpp:148] Top shape: 24 (24)
I0403 21:47:16.377116 24243 net.cpp:148] Top shape: 24 (24)
I0403 21:47:16.377131 24243 net.cpp:148] Top shape: 24 (24)
I0403 21:47:16.377148 24243 net.cpp:148] Top shape: 24 (24)
I0403 21:47:16.377202 24243 net.cpp:156] Memory required for data: 14451744
I0403 21:47:16.377219 24243 layer_factory.hpp:77] Creating layer conv1/7x7_s2
I0403 21:47:16.377256 24243 net.cpp:91] Creating Layer conv1/7x7_s2
I0403 21:47:16.377277 24243 net.cpp:425] conv1/7x7_s2 <- data
I0403 21:47:16.377297 24243 net.cpp:399] conv1/7x7_s2 -> conv1/7x7_s2
I0403 21:47:16.516998 24243 net.cpp:141] Setting up conv1/7x7_s2
I0403 21:47:16.517074 24243 net.cpp:148] Top shape: 24 64 112 112 (19267584)
I0403 21:47:16.517093 24243 net.cpp:156] Memory required for data: 91522080
I0403 21:47:16.517124 24243 layer_factory.hpp:77] Creating layer conv1/relu_7x7
I0403 21:47:16.517153 24243 net.cpp:91] Creating Layer conv1/relu_7x7
I0403 21:47:16.517173 24243 net.cpp:425] conv1/relu_7x7 <- conv1/7x7_s2
I0403 21:47:16.517191 24243 net.cpp:386] conv1/relu_7x7 -> conv1/7x7_s2 (in-place)
I0403 21:47:16.517438 24243 net.cpp:141] Setting up conv1/relu_7x7
I0403 21:47:16.517464 24243 net.cpp:148] Top shape: 24 64 112 112 (19267584)
I0403 21:47:16.517480 24243 net.cpp:156] Memory required for data: 168592416
I0403 21:47:16.517496 24243 layer_factory.hpp:77] Creating layer pool1/3x3_s2
I0403 21:47:16.517521 24243 net.cpp:91] Creating Layer pool1/3x3_s2
I0403 21:47:16.517539 24243 net.cpp:425] pool1/3x3_s2 <- conv1/7x7_s2
I0403 21:47:16.517559 24243 net.cpp:399] pool1/3x3_s2 -> pool1/3x3_s2
I0403 21:47:16.517629 24243 net.cpp:141] Setting up pool1/3x3_s2
I0403 21:47:16.517654 24243 net.cpp:148] Top shape: 24 64 56 56 (4816896)
I0403 21:47:16.517670 24243 net.cpp:156] Memory required for data: 187860000
I0403 21:47:16.517685 24243 layer_factory.hpp:77] Creating layer pool1/norm1
I0403 21:47:16.517710 24243 net.cpp:91] Creating Layer pool1/norm1
I0403 21:47:16.517729 24243 net.cpp:425] pool1/norm1 <- pool1/3x3_s2
I0403 21:47:16.517747 24243 net.cpp:399] pool1/norm1 -> pool1/norm1
I0403 21:47:16.518020 24243 net.cpp:141] Setting up pool1/norm1
I0403 21:47:16.518048 24243 net.cpp:148] Top shape: 24 64 56 56 (4816896)
I0403 21:47:16.518064 24243 net.cpp:156] Memory required for data: 207127584
I0403 21:47:16.518079 24243 layer_factory.hpp:77] Creating layer conv2/3x3_reduce
I0403 21:47:16.518105 24243 net.cpp:91] Creating Layer conv2/3x3_reduce
I0403 21:47:16.518122 24243 net.cpp:425] conv2/3x3_reduce <- pool1/norm1
I0403 21:47:16.518141 24243 net.cpp:399] conv2/3x3_reduce -> conv2/3x3_reduce
I0403 21:47:16.519506 24243 net.cpp:141] Setting up conv2/3x3_reduce
I0403 21:47:16.519536 24243 net.cpp:148] Top shape: 24 64 56 56 (4816896)
I0403 21:47:16.519552 24243 net.cpp:156] Memory required for data: 226395168
I0403 21:47:16.519573 24243 layer_factory.hpp:77] Creating layer conv2/relu_3x3_reduce
I0403 21:47:16.519593 24243 net.cpp:91] Creating Layer conv2/relu_3x3_reduce
I0403 21:47:16.519609 24243 net.cpp:425] conv2/relu_3x3_reduce <- conv2/3x3_reduce
I0403 21:47:16.519629 24243 net.cpp:386] conv2/relu_3x3_reduce -> conv2/3x3_reduce (in-place)
I0403 21:47:16.519893 24243 net.cpp:141] Setting up conv2/relu_3x3_reduce
I0403 21:47:16.519928 24243 net.cpp:148] Top shape: 24 64 56 56 (4816896)
I0403 21:47:16.519945 24243 net.cpp:156] Memory required for data: 245662752
I0403 21:47:16.519960 24243 layer_factory.hpp:77] Creating layer conv2/3x3
I0403 21:47:16.519984 24243 net.cpp:91] Creating Layer conv2/3x3
I0403 21:47:16.520004 24243 net.cpp:425] conv2/3x3 <- conv2/3x3_reduce
I0403 21:47:16.520025 24243 net.cpp:399] conv2/3x3 -> conv2/3x3
I0403 21:47:16.522289 24243 net.cpp:141] Setting up conv2/3x3
I0403 21:47:16.522318 24243 net.cpp:148] Top shape: 24 192 56 56 (14450688)
I0403 21:47:16.522336 24243 net.cpp:156] Memory required for data: 303465504
I0403 21:47:16.522356 24243 layer_factory.hpp:77] Creating layer conv2/relu_3x3
I0403 21:47:16.522377 24243 net.cpp:91] Creating Layer conv2/relu_3x3
I0403 21:47:16.522392 24243 net.cpp:425] conv2/relu_3x3 <- conv2/3x3
I0403 21:47:16.522413 24243 net.cpp:386] conv2/relu_3x3 -> conv2/3x3 (in-place)
I0403 21:47:16.522590 24243 net.cpp:141] Setting up conv2/relu_3x3
I0403 21:47:16.522615 24243 net.cpp:148] Top shape: 24 192 56 56 (14450688)
I0403 21:47:16.522665 24243 net.cpp:156] Memory required for data: 361268256
I0403 21:47:16.522680 24243 layer_factory.hpp:77] Creating layer conv2/norm2
I0403 21:47:16.522704 24243 net.cpp:91] Creating Layer conv2/norm2
I0403 21:47:16.522722 24243 net.cpp:425] conv2/norm2 <- conv2/3x3
I0403 21:47:16.522743 24243 net.cpp:399] conv2/norm2 -> conv2/norm2
I0403 21:47:16.523038 24243 net.cpp:141] Setting up conv2/norm2
I0403 21:47:16.523067 24243 net.cpp:148] Top shape: 24 192 56 56 (14450688)
I0403 21:47:16.523083 24243 net.cpp:156] Memory required for data: 419071008
I0403 21:47:16.523098 24243 layer_factory.hpp:77] Creating layer pool2/3x3_s2
I0403 21:47:16.523116 24243 net.cpp:91] Creating Layer pool2/3x3_s2
I0403 21:47:16.523133 24243 net.cpp:425] pool2/3x3_s2 <- conv2/norm2
I0403 21:47:16.523154 24243 net.cpp:399] pool2/3x3_s2 -> pool2/3x3_s2
I0403 21:47:16.523205 24243 net.cpp:141] Setting up pool2/3x3_s2
I0403 21:47:16.523231 24243 net.cpp:148] Top shape: 24 192 28 28 (3612672)
I0403 21:47:16.523248 24243 net.cpp:156] Memory required for data: 433521696
I0403 21:47:16.523264 24243 layer_factory.hpp:77] Creating layer pool2/3x3_s2_pool2/3x3_s2_0_split
I0403 21:47:16.523284 24243 net.cpp:91] Creating Layer pool2/3x3_s2_pool2/3x3_s2_0_split
I0403 21:47:16.523303 24243 net.cpp:425] pool2/3x3_s2_pool2/3x3_s2_0_split <- pool2/3x3_s2
I0403 21:47:16.523319 24243 net.cpp:399] pool2/3x3_s2_pool2/3x3_s2_0_split -> pool2/3x3_s2_pool2/3x3_s2_0_split_0
I0403 21:47:16.523339 24243 net.cpp:399] pool2/3x3_s2_pool2/3x3_s2_0_split -> pool2/3x3_s2_pool2/3x3_s2_0_split_1
I0403 21:47:16.523362 24243 net.cpp:399] pool2/3x3_s2_pool2/3x3_s2_0_split -> pool2/3x3_s2_pool2/3x3_s2_0_split_2
I0403 21:47:16.523383 24243 net.cpp:399] pool2/3x3_s2_pool2/3x3_s2_0_split -> pool2/3x3_s2_pool2/3x3_s2_0_split_3
I0403 21:47:16.523452 24243 net.cpp:141] Setting up pool2/3x3_s2_pool2/3x3_s2_0_split
I0403 21:47:16.523475 24243 net.cpp:148] Top shape: 24 192 28 28 (3612672)
I0403 21:47:16.523494 24243 net.cpp:148] Top shape: 24 192 28 28 (3612672)
I0403 21:47:16.523509 24243 net.cpp:148] Top shape: 24 192 28 28 (3612672)
I0403 21:47:16.523524 24243 net.cpp:148] Top shape: 24 192 28 28 (3612672)
I0403 21:47:16.523538 24243 net.cpp:156] Memory required for data: 491324448
I0403 21:47:16.523553 24243 layer_factory.hpp:77] Creating layer inception_3a/1x1
I0403 21:47:16.523576 24243 net.cpp:91] Creating Layer inception_3a/1x1
I0403 21:47:16.523593 24243 net.cpp:425] inception_3a/1x1 <- pool2/3x3_s2_pool2/3x3_s2_0_split_0
I0403 21:47:16.523613 24243 net.cpp:399] inception_3a/1x1 -> inception_3a/1x1
I0403 21:47:16.525123 24243 net.cpp:141] Setting up inception_3a/1x1
I0403 21:47:16.525154 24243 net.cpp:148] Top shape: 24 64 28 28 (1204224)
I0403 21:47:16.525172 24243 net.cpp:156] Memory required for data: 496141344
I0403 21:47:16.525192 24243 layer_factory.hpp:77] Creating layer inception_3a/relu_1x1
I0403 21:47:16.525213 24243 net.cpp:91] Creating Layer inception_3a/relu_1x1
I0403 21:47:16.525231 24243 net.cpp:425] inception_3a/relu_1x1 <- inception_3a/1x1
I0403 21:47:16.525254 24243 net.cpp:386] inception_3a/relu_1x1 -> inception_3a/1x1 (in-place)
I0403 21:47:16.525425 24243 net.cpp:141] Setting up inception_3a/relu_1x1
I0403 21:47:16.525450 24243 net.cpp:148] Top shape: 24 64 28 28 (1204224)
I0403 21:47:16.525465 24243 net.cpp:156] Memory required for data: 500958240
I0403 21:47:16.525481 24243 layer_factory.hpp:77] Creating layer inception_3a/3x3_reduce
I0403 21:47:16.525503 24243 net.cpp:91] Creating Layer inception_3a/3x3_reduce
I0403 21:47:16.525521 24243 net.cpp:425] inception_3a/3x3_reduce <- pool2/3x3_s2_pool2/3x3_s2_0_split_1
I0403 21:47:16.525542 24243 net.cpp:399] inception_3a/3x3_reduce -> inception_3a/3x3_reduce
I0403 21:47:16.527205 24243 net.cpp:141] Setting up inception_3a/3x3_reduce
I0403 21:47:16.527238 24243 net.cpp:148] Top shape: 24 96 28 28 (1806336)
I0403 21:47:16.527257 24243 net.cpp:156] Memory required for data: 508183584
I0403 21:47:16.527278 24243 layer_factory.hpp:77] Creating layer inception_3a/relu_3x3_reduce
I0403 21:47:16.527317 24243 net.cpp:91] Creating Layer inception_3a/relu_3x3_reduce
I0403 21:47:16.527335 24243 net.cpp:425] inception_3a/relu_3x3_reduce <- inception_3a/3x3_reduce
I0403 21:47:16.527353 24243 net.cpp:386] inception_3a/relu_3x3_reduce -> inception_3a/3x3_reduce (in-place)
I0403 21:47:16.527524 24243 net.cpp:141] Setting up inception_3a/relu_3x3_reduce
I0403 21:47:16.527551 24243 net.cpp:148] Top shape: 24 96 28 28 (1806336)
I0403 21:47:16.527567 24243 net.cpp:156] Memory required for data: 515408928
I0403 21:47:16.527583 24243 layer_factory.hpp:77] Creating layer inception_3a/3x3
I0403 21:47:16.527608 24243 net.cpp:91] Creating Layer inception_3a/3x3
I0403 21:47:16.527627 24243 net.cpp:425] inception_3a/3x3 <- inception_3a/3x3_reduce
I0403 21:47:16.527647 24243 net.cpp:399] inception_3a/3x3 -> inception_3a/3x3
I0403 21:47:16.529244 24243 net.cpp:141] Setting up inception_3a/3x3
I0403 21:47:16.529273 24243 net.cpp:148] Top shape: 24 128 28 28 (2408448)
I0403 21:47:16.529289 24243 net.cpp:156] Memory required for data: 525042720
I0403 21:47:16.529309 24243 layer_factory.hpp:77] Creating layer inception_3a/relu_3x3
I0403 21:47:16.529330 24243 net.cpp:91] Creating Layer inception_3a/relu_3x3
I0403 21:47:16.529348 24243 net.cpp:425] inception_3a/relu_3x3 <- inception_3a/3x3
I0403 21:47:16.529366 24243 net.cpp:386] inception_3a/relu_3x3 -> inception_3a/3x3 (in-place)
I0403 21:47:16.529629 24243 net.cpp:141] Setting up inception_3a/relu_3x3
I0403 21:47:16.529656 24243 net.cpp:148] Top shape: 24 128 28 28 (2408448)
I0403 21:47:16.529673 24243 net.cpp:156] Memory required for data: 534676512
I0403 21:47:16.529688 24243 layer_factory.hpp:77] Creating layer inception_3a/5x5_reduce
I0403 21:47:16.529711 24243 net.cpp:91] Creating Layer inception_3a/5x5_reduce
I0403 21:47:16.529729 24243 net.cpp:425] inception_3a/5x5_reduce <- pool2/3x3_s2_pool2/3x3_s2_0_split_2
I0403 21:47:16.529750 24243 net.cpp:399] inception_3a/5x5_reduce -> inception_3a/5x5_reduce
I0403 21:47:16.530680 24243 net.cpp:141] Setting up inception_3a/5x5_reduce
I0403 21:47:16.530709 24243 net.cpp:148] Top shape: 24 16 28 28 (301056)
I0403 21:47:16.530725 24243 net.cpp:156] Memory required for data: 535880736
I0403 21:47:16.530743 24243 layer_factory.hpp:77] Creating layer inception_3a/relu_5x5_reduce
I0403 21:47:16.530762 24243 net.cpp:91] Creating Layer inception_3a/relu_5x5_reduce
I0403 21:47:16.530781 24243 net.cpp:425] inception_3a/relu_5x5_reduce <- inception_3a/5x5_reduce
I0403 21:47:16.530798 24243 net.cpp:386] inception_3a/relu_5x5_reduce -> inception_3a/5x5_reduce (in-place)
I0403 21:47:16.531090 24243 net.cpp:141] Setting up inception_3a/relu_5x5_reduce
I0403 21:47:16.531116 24243 net.cpp:148] Top shape: 24 16 28 28 (301056)
I0403 21:47:16.531131 24243 net.cpp:156] Memory required for data: 537084960
I0403 21:47:16.531147 24243 layer_factory.hpp:77] Creating layer inception_3a/5x5
I0403 21:47:16.531168 24243 net.cpp:91] Creating Layer inception_3a/5x5
I0403 21:47:16.531186 24243 net.cpp:425] inception_3a/5x5 <- inception_3a/5x5_reduce
I0403 21:47:16.531210 24243 net.cpp:399] inception_3a/5x5 -> inception_3a/5x5
I0403 21:47:16.532189 24243 net.cpp:141] Setting up inception_3a/5x5
I0403 21:47:16.532217 24243 net.cpp:148] Top shape: 24 32 28 28 (602112)
I0403 21:47:16.532248 24243 net.cpp:156] Memory required for data: 539493408
I0403 21:47:16.532266 24243 layer_factory.hpp:77] Creating layer inception_3a/relu_5x5
I0403 21:47:16.532286 24243 net.cpp:91] Creating Layer inception_3a/relu_5x5
I0403 21:47:16.532335 24243 net.cpp:425] inception_3a/relu_5x5 <- inception_3a/5x5
I0403 21:47:16.532354 24243 net.cpp:386] inception_3a/relu_5x5 -> inception_3a/5x5 (in-place)
I0403 21:47:16.532524 24243 net.cpp:141] Setting up inception_3a/relu_5x5
I0403 21:47:16.532551 24243 net.cpp:148] Top shape: 24 32 28 28 (602112)
I0403 21:47:16.532567 24243 net.cpp:156] Memory required for data: 541901856
I0403 21:47:16.532593 24243 layer_factory.hpp:77] Creating layer inception_3a/pool
I0403 21:47:16.532613 24243 net.cpp:91] Creating Layer inception_3a/pool
I0403 21:47:16.532644 24243 net.cpp:425] inception_3a/pool <- pool2/3x3_s2_pool2/3x3_s2_0_split_3
I0403 21:47:16.532663 24243 net.cpp:399] inception_3a/pool -> inception_3a/pool
I0403 21:47:16.532719 24243 net.cpp:141] Setting up inception_3a/pool
I0403 21:47:16.532742 24243 net.cpp:148] Top shape: 24 192 28 28 (3612672)
I0403 21:47:16.532758 24243 net.cpp:156] Memory required for data: 556352544
I0403 21:47:16.532773 24243 layer_factory.hpp:77] Creating layer inception_3a/pool_proj
I0403 21:47:16.532795 24243 net.cpp:91] Creating Layer inception_3a/pool_proj
I0403 21:47:16.532814 24243 net.cpp:425] inception_3a/pool_proj <- inception_3a/pool
I0403 21:47:16.532835 24243 net.cpp:399] inception_3a/pool_proj -> inception_3a/pool_proj
I0403 21:47:16.533793 24243 net.cpp:141] Setting up inception_3a/pool_proj
I0403 21:47:16.533823 24243 net.cpp:148] Top shape: 24 32 28 28 (602112)
I0403 21:47:16.533840 24243 net.cpp:156] Memory required for data: 558760992
I0403 21:47:16.533862 24243 layer_factory.hpp:77] Creating layer inception_3a/relu_pool_proj
I0403 21:47:16.533885 24243 net.cpp:91] Creating Layer inception_3a/relu_pool_proj
I0403 21:47:16.533903 24243 net.cpp:425] inception_3a/relu_pool_proj <- inception_3a/pool_proj
I0403 21:47:16.533923 24243 net.cpp:386] inception_3a/relu_pool_proj -> inception_3a/pool_proj (in-place)
I0403 21:47:16.534194 24243 net.cpp:141] Setting up inception_3a/relu_pool_proj
I0403 21:47:16.534221 24243 net.cpp:148] Top shape: 24 32 28 28 (602112)
I0403 21:47:16.534257 24243 net.cpp:156] Memory required for data: 561169440
I0403 21:47:16.534276 24243 layer_factory.hpp:77] Creating layer inception_3a/output
I0403 21:47:16.534293 24243 net.cpp:91] Creating Layer inception_3a/output
I0403 21:47:16.534309 24243 net.cpp:425] inception_3a/output <- inception_3a/1x1
I0403 21:47:16.534327 24243 net.cpp:425] inception_3a/output <- inception_3a/3x3
I0403 21:47:16.534343 24243 net.cpp:425] inception_3a/output <- inception_3a/5x5
I0403 21:47:16.534359 24243 net.cpp:425] inception_3a/output <- inception_3a/pool_proj
I0403 21:47:16.534384 24243 net.cpp:399] inception_3a/output -> inception_3a/output
I0403 21:47:16.534430 24243 net.cpp:141] Setting up inception_3a/output
I0403 21:47:16.534457 24243 net.cpp:148] Top shape: 24 256 28 28 (4816896)
I0403 21:47:16.534482 24243 net.cpp:156] Memory required for data: 580437024
I0403 21:47:16.534497 24243 layer_factory.hpp:77] Creating layer inception_3a/output_inception_3a/output_0_split
I0403 21:47:16.534514 24243 net.cpp:91] Creating Layer inception_3a/output_inception_3a/output_0_split
I0403 21:47:16.534530 24243 net.cpp:425] inception_3a/output_inception_3a/output_0_split <- inception_3a/output
I0403 21:47:16.534551 24243 net.cpp:399] inception_3a/output_inception_3a/output_0_split -> inception_3a/output_inception_3a/output_0_split_0
I0403 21:47:16.534572 24243 net.cpp:399] inception_3a/output_inception_3a/output_0_split -> inception_3a/output_inception_3a/output_0_split_1
I0403 21:47:16.534596 24243 net.cpp:399] inception_3a/output_inception_3a/output_0_split -> inception_3a/output_inception_3a/output_0_split_2
I0403 21:47:16.534617 24243 net.cpp:399] inception_3a/output_inception_3a/output_0_split -> inception_3a/output_inception_3a/output_0_split_3
I0403 21:47:16.534692 24243 net.cpp:141] Setting up inception_3a/output_inception_3a/output_0_split
I0403 21:47:16.534715 24243 net.cpp:148] Top shape: 24 256 28 28 (4816896)
I0403 21:47:16.534732 24243 net.cpp:148] Top shape: 24 256 28 28 (4816896)
I0403 21:47:16.534750 24243 net.cpp:148] Top shape: 24 256 28 28 (4816896)
I0403 21:47:16.534766 24243 net.cpp:148] Top shape: 24 256 28 28 (4816896)
I0403 21:47:16.534780 24243 net.cpp:156] Memory required for data: 657507360
I0403 21:47:16.534795 24243 layer_factory.hpp:77] Creating layer inception_3b/1x1
I0403 21:47:16.534818 24243 net.cpp:91] Creating Layer inception_3b/1x1
I0403 21:47:16.534835 24243 net.cpp:425] inception_3b/1x1 <- inception_3a/output_inception_3a/output_0_split_0
I0403 21:47:16.534858 24243 net.cpp:399] inception_3b/1x1 -> inception_3b/1x1
I0403 21:47:16.535981 24243 net.cpp:141] Setting up inception_3b/1x1
I0403 21:47:16.536022 24243 net.cpp:148] Top shape: 24 128 28 28 (2408448)
I0403 21:47:16.536039 24243 net.cpp:156] Memory required for data: 667141152
I0403 21:47:16.536058 24243 layer_factory.hpp:77] Creating layer inception_3b/relu_1x1
I0403 21:47:16.536077 24243 net.cpp:91] Creating Layer inception_3b/relu_1x1
I0403 21:47:16.536094 24243 net.cpp:425] inception_3b/relu_1x1 <- inception_3b/1x1
I0403 21:47:16.536114 24243 net.cpp:386] inception_3b/relu_1x1 -> inception_3b/1x1 (in-place)
I0403 21:47:16.536295 24243 net.cpp:141] Setting up inception_3b/relu_1x1
I0403 21:47:16.536321 24243 net.cpp:148] Top shape: 24 128 28 28 (2408448)
I0403 21:47:16.536337 24243 net.cpp:156] Memory required for data: 676774944
I0403 21:47:16.536353 24243 layer_factory.hpp:77] Creating layer inception_3b/3x3_reduce
I0403 21:47:16.536376 24243 net.cpp:91] Creating Layer inception_3b/3x3_reduce
I0403 21:47:16.536394 24243 net.cpp:425] inception_3b/3x3_reduce <- inception_3a/output_inception_3a/output_0_split_1
I0403 21:47:16.536417 24243 net.cpp:399] inception_3b/3x3_reduce -> inception_3b/3x3_reduce
I0403 21:47:16.537546 24243 net.cpp:141] Setting up inception_3b/3x3_reduce
I0403 21:47:16.537576 24243 net.cpp:148] Top shape: 24 128 28 28 (2408448)
I0403 21:47:16.537595 24243 net.cpp:156] Memory required for data: 686408736
I0403 21:47:16.537614 24243 layer_factory.hpp:77] Creating layer inception_3b/relu_3x3_reduce
I0403 21:47:16.537633 24243 net.cpp:91] Creating Layer inception_3b/relu_3x3_reduce
I0403 21:47:16.537650 24243 net.cpp:425] inception_3b/relu_3x3_reduce <- inception_3b/3x3_reduce
I0403 21:47:16.537670 24243 net.cpp:386] inception_3b/relu_3x3_reduce -> inception_3b/3x3_reduce (in-place)
I0403 21:47:16.537842 24243 net.cpp:141] Setting up inception_3b/relu_3x3_reduce
I0403 21:47:16.537866 24243 net.cpp:148] Top shape: 24 128 28 28 (2408448)
I0403 21:47:16.537883 24243 net.cpp:156] Memory required for data: 696042528
I0403 21:47:16.537899 24243 layer_factory.hpp:77] Creating layer inception_3b/3x3
I0403 21:47:16.537927 24243 net.cpp:91] Creating Layer inception_3b/3x3
I0403 21:47:16.537947 24243 net.cpp:425] inception_3b/3x3 <- inception_3b/3x3_reduce
I0403 21:47:16.537967 24243 net.cpp:399] inception_3b/3x3 -> inception_3b/3x3
I0403 21:47:16.540904 24243 net.cpp:141] Setting up inception_3b/3x3
I0403 21:47:16.540933 24243 net.cpp:148] Top shape: 24 192 28 28 (3612672)
I0403 21:47:16.540952 24243 net.cpp:156] Memory required for data: 710493216
I0403 21:47:16.540972 24243 layer_factory.hpp:77] Creating layer inception_3b/relu_3x3
I0403 21:47:16.540993 24243 net.cpp:91] Creating Layer inception_3b/relu_3x3
I0403 21:47:16.541012 24243 net.cpp:425] inception_3b/relu_3x3 <- inception_3b/3x3
I0403 21:47:16.541029 24243 net.cpp:386] inception_3b/relu_3x3 -> inception_3b/3x3 (in-place)
I0403 21:47:16.541308 24243 net.cpp:141] Setting up inception_3b/relu_3x3
I0403 21:47:16.541335 24243 net.cpp:148] Top shape: 24 192 28 28 (3612672)
I0403 21:47:16.541352 24243 net.cpp:156] Memory required for data: 724943904
I0403 21:47:16.541366 24243 layer_factory.hpp:77] Creating layer inception_3b/5x5_reduce
I0403 21:47:16.541390 24243 net.cpp:91] Creating Layer inception_3b/5x5_reduce
I0403 21:47:16.541409 24243 net.cpp:425] inception_3b/5x5_reduce <- inception_3a/output_inception_3a/output_0_split_2
I0403 21:47:16.541431 24243 net.cpp:399] inception_3b/5x5_reduce -> inception_3b/5x5_reduce
I0403 21:47:16.542418 24243 net.cpp:141] Setting up inception_3b/5x5_reduce
I0403 21:47:16.542446 24243 net.cpp:148] Top shape: 24 32 28 28 (602112)
I0403 21:47:16.542474 24243 net.cpp:156] Memory required for data: 727352352
I0403 21:47:16.542492 24243 layer_factory.hpp:77] Creating layer inception_3b/relu_5x5_reduce
I0403 21:47:16.542513 24243 net.cpp:91] Creating Layer inception_3b/relu_5x5_reduce
I0403 21:47:16.542531 24243 net.cpp:425] inception_3b/relu_5x5_reduce <- inception_3b/5x5_reduce
I0403 21:47:16.542551 24243 net.cpp:386] inception_3b/relu_5x5_reduce -> inception_3b/5x5_reduce (in-place)
I0403 21:47:16.542744 24243 net.cpp:141] Setting up inception_3b/relu_5x5_reduce
I0403 21:47:16.542770 24243 net.cpp:148] Top shape: 24 32 28 28 (602112)
I0403 21:47:16.542786 24243 net.cpp:156] Memory required for data: 729760800
I0403 21:47:16.542803 24243 layer_factory.hpp:77] Creating layer inception_3b/5x5
I0403 21:47:16.542825 24243 net.cpp:91] Creating Layer inception_3b/5x5
I0403 21:47:16.542843 24243 net.cpp:425] inception_3b/5x5 <- inception_3b/5x5_reduce
I0403 21:47:16.542866 24243 net.cpp:399] inception_3b/5x5 -> inception_3b/5x5
I0403 21:47:16.544834 24243 net.cpp:141] Setting up inception_3b/5x5
I0403 21:47:16.544867 24243 net.cpp:148] Top shape: 24 96 28 28 (1806336)
I0403 21:47:16.544884 24243 net.cpp:156] Memory required for data: 736986144
I0403 21:47:16.544904 24243 layer_factory.hpp:77] Creating layer inception_3b/relu_5x5
I0403 21:47:16.544924 24243 net.cpp:91] Creating Layer inception_3b/relu_5x5
I0403 21:47:16.544941 24243 net.cpp:425] inception_3b/relu_5x5 <- inception_3b/5x5
I0403 21:47:16.544965 24243 net.cpp:386] inception_3b/relu_5x5 -> inception_3b/5x5 (in-place)
I0403 21:47:16.545159 24243 net.cpp:141] Setting up inception_3b/relu_5x5
I0403 21:47:16.545186 24243 net.cpp:148] Top shape: 24 96 28 28 (1806336)
I0403 21:47:16.545202 24243 net.cpp:156] Memory required for data: 744211488
I0403 21:47:16.545217 24243 layer_factory.hpp:77] Creating layer inception_3b/pool
I0403 21:47:16.545241 24243 net.cpp:91] Creating Layer inception_3b/pool
I0403 21:47:16.545261 24243 net.cpp:425] inception_3b/pool <- inception_3a/output_inception_3a/output_0_split_3
I0403 21:47:16.545281 24243 net.cpp:399] inception_3b/pool -> inception_3b/pool
I0403 21:47:16.545336 24243 net.cpp:141] Setting up inception_3b/pool
I0403 21:47:16.545361 24243 net.cpp:148] Top shape: 24 256 28 28 (4816896)
I0403 21:47:16.545377 24243 net.cpp:156] Memory required for data: 763479072
I0403 21:47:16.545392 24243 layer_factory.hpp:77] Creating layer inception_3b/pool_proj
I0403 21:47:16.545418 24243 net.cpp:91] Creating Layer inception_3b/pool_proj
I0403 21:47:16.545435 24243 net.cpp:425] inception_3b/pool_proj <- inception_3b/pool
I0403 21:47:16.545454 24243 net.cpp:399] inception_3b/pool_proj -> inception_3b/pool_proj
I0403 21:47:16.546500 24243 net.cpp:141] Setting up inception_3b/pool_proj
I0403 21:47:16.546528 24243 net.cpp:148] Top shape: 24 64 28 28 (1204224)
I0403 21:47:16.546545 24243 net.cpp:156] Memory required for data: 768295968
I0403 21:47:16.546564 24243 layer_factory.hpp:77] Creating layer inception_3b/relu_pool_proj
I0403 21:47:16.546586 24243 net.cpp:91] Creating Layer inception_3b/relu_pool_proj
I0403 21:47:16.546604 24243 net.cpp:425] inception_3b/relu_pool_proj <- inception_3b/pool_proj
I0403 21:47:16.546622 24243 net.cpp:386] inception_3b/relu_pool_proj -> inception_3b/pool_proj (in-place)
I0403 21:47:16.547010 24243 net.cpp:141] Setting up inception_3b/relu_pool_proj
I0403 21:47:16.547037 24243 net.cpp:148] Top shape: 24 64 28 28 (1204224)
I0403 21:47:16.547055 24243 net.cpp:156] Memory required for data: 773112864
I0403 21:47:16.547070 24243 layer_factory.hpp:77] Creating layer inception_3b/output
I0403 21:47:16.547091 24243 net.cpp:91] Creating Layer inception_3b/output
I0403 21:47:16.547107 24243 net.cpp:425] inception_3b/output <- inception_3b/1x1
I0403 21:47:16.547125 24243 net.cpp:425] inception_3b/output <- inception_3b/3x3
I0403 21:47:16.547142 24243 net.cpp:425] inception_3b/output <- inception_3b/5x5
I0403 21:47:16.547159 24243 net.cpp:425] inception_3b/output <- inception_3b/pool_proj
I0403 21:47:16.547176 24243 net.cpp:399] inception_3b/output -> inception_3b/output
I0403 21:47:16.547221 24243 net.cpp:141] Setting up inception_3b/output
I0403 21:47:16.547250 24243 net.cpp:148] Top shape: 24 480 28 28 (9031680)
I0403 21:47:16.547266 24243 net.cpp:156] Memory required for data: 809239584
I0403 21:47:16.547282 24243 layer_factory.hpp:77] Creating layer pool3/3x3_s2
I0403 21:47:16.547300 24243 net.cpp:91] Creating Layer pool3/3x3_s2
I0403 21:47:16.547317 24243 net.cpp:425] pool3/3x3_s2 <- inception_3b/output
I0403 21:47:16.547354 24243 net.cpp:399] pool3/3x3_s2 -> pool3/3x3_s2
I0403 21:47:16.547413 24243 net.cpp:141] Setting up pool3/3x3_s2
I0403 21:47:16.547441 24243 net.cpp:148] Top shape: 24 480 14 14 (2257920)
I0403 21:47:16.547457 24243 net.cpp:156] Memory required for data: 818271264
I0403 21:47:16.547472 24243 layer_factory.hpp:77] Creating layer pool3/3x3_s2_pool3/3x3_s2_0_split
I0403 21:47:16.547492 24243 net.cpp:91] Creating Layer pool3/3x3_s2_pool3/3x3_s2_0_split
I0403 21:47:16.547508 24243 net.cpp:425] pool3/3x3_s2_pool3/3x3_s2_0_split <- pool3/3x3_s2
I0403 21:47:16.547525 24243 net.cpp:399] pool3/3x3_s2_pool3/3x3_s2_0_split -> pool3/3x3_s2_pool3/3x3_s2_0_split_0
I0403 21:47:16.547547 24243 net.cpp:399] pool3/3x3_s2_pool3/3x3_s2_0_split -> pool3/3x3_s2_pool3/3x3_s2_0_split_1
I0403 21:47:16.547569 24243 net.cpp:399] pool3/3x3_s2_pool3/3x3_s2_0_split -> pool3/3x3_s2_pool3/3x3_s2_0_split_2
I0403 21:47:16.547590 24243 net.cpp:399] pool3/3x3_s2_pool3/3x3_s2_0_split -> pool3/3x3_s2_pool3/3x3_s2_0_split_3
I0403 21:47:16.547668 24243 net.cpp:141] Setting up pool3/3x3_s2_pool3/3x3_s2_0_split
I0403 21:47:16.547693 24243 net.cpp:148] Top shape: 24 480 14 14 (2257920)
I0403 21:47:16.547710 24243 net.cpp:148] Top shape: 24 480 14 14 (2257920)
I0403 21:47:16.547726 24243 net.cpp:148] Top shape: 24 480 14 14 (2257920)
I0403 21:47:16.547742 24243 net.cpp:148] Top shape: 24 480 14 14 (2257920)
I0403 21:47:16.547756 24243 net.cpp:156] Memory required for data: 854397984
I0403 21:47:16.547772 24243 layer_factory.hpp:77] Creating layer inception_4a/1x1
I0403 21:47:16.547796 24243 net.cpp:91] Creating Layer inception_4a/1x1
I0403 21:47:16.547813 24243 net.cpp:425] inception_4a/1x1 <- pool3/3x3_s2_pool3/3x3_s2_0_split_0
I0403 21:47:16.547835 24243 net.cpp:399] inception_4a/1x1 -> inception_4a/1x1
I0403 21:47:16.549399 24243 net.cpp:141] Setting up inception_4a/1x1
I0403 21:47:16.549427 24243 net.cpp:148] Top shape: 24 192 14 14 (903168)
I0403 21:47:16.549445 24243 net.cpp:156] Memory required for data: 858010656
I0403 21:47:16.549465 24243 layer_factory.hpp:77] Creating layer inception_4a/relu_1x1
I0403 21:47:16.549486 24243 net.cpp:91] Creating Layer inception_4a/relu_1x1
I0403 21:47:16.549504 24243 net.cpp:425] inception_4a/relu_1x1 <- inception_4a/1x1
I0403 21:47:16.549522 24243 net.cpp:386] inception_4a/relu_1x1 -> inception_4a/1x1 (in-place)
I0403 21:47:16.549702 24243 net.cpp:141] Setting up inception_4a/relu_1x1
I0403 21:47:16.549728 24243 net.cpp:148] Top shape: 24 192 14 14 (903168)
I0403 21:47:16.549743 24243 net.cpp:156] Memory required for data: 861623328
I0403 21:47:16.549759 24243 layer_factory.hpp:77] Creating layer inception_4a/3x3_reduce
I0403 21:47:16.549782 24243 net.cpp:91] Creating Layer inception_4a/3x3_reduce
I0403 21:47:16.549800 24243 net.cpp:425] inception_4a/3x3_reduce <- pool3/3x3_s2_pool3/3x3_s2_0_split_1
I0403 21:47:16.549823 24243 net.cpp:399] inception_4a/3x3_reduce -> inception_4a/3x3_reduce
I0403 21:47:16.551090 24243 net.cpp:141] Setting up inception_4a/3x3_reduce
I0403 21:47:16.551120 24243 net.cpp:148] Top shape: 24 96 14 14 (451584)
I0403 21:47:16.551138 24243 net.cpp:156] Memory required for data: 863429664
I0403 21:47:16.551162 24243 layer_factory.hpp:77] Creating layer inception_4a/relu_3x3_reduce
I0403 21:47:16.551183 24243 net.cpp:91] Creating Layer inception_4a/relu_3x3_reduce
I0403 21:47:16.551201 24243 net.cpp:425] inception_4a/relu_3x3_reduce <- inception_4a/3x3_reduce
I0403 21:47:16.551219 24243 net.cpp:386] inception_4a/relu_3x3_reduce -> inception_4a/3x3_reduce (in-place)
I0403 21:47:16.551400 24243 net.cpp:141] Setting up inception_4a/relu_3x3_reduce
I0403 21:47:16.551429 24243 net.cpp:148] Top shape: 24 96 14 14 (451584)
I0403 21:47:16.551446 24243 net.cpp:156] Memory required for data: 865236000
I0403 21:47:16.551462 24243 layer_factory.hpp:77] Creating layer inception_4a/3x3
I0403 21:47:16.551486 24243 net.cpp:91] Creating Layer inception_4a/3x3
I0403 21:47:16.551502 24243 net.cpp:425] inception_4a/3x3 <- inception_4a/3x3_reduce
I0403 21:47:16.551523 24243 net.cpp:399] inception_4a/3x3 -> inception_4a/3x3
I0403 21:47:16.554184 24243 net.cpp:141] Setting up inception_4a/3x3
I0403 21:47:16.554215 24243 net.cpp:148] Top shape: 24 208 14 14 (978432)
I0403 21:47:16.554237 24243 net.cpp:156] Memory required for data: 869149728
I0403 21:47:16.554257 24243 layer_factory.hpp:77] Creating layer inception_4a/relu_3x3
I0403 21:47:16.554276 24243 net.cpp:91] Creating Layer inception_4a/relu_3x3
I0403 21:47:16.554292 24243 net.cpp:425] inception_4a/relu_3x3 <- inception_4a/3x3
I0403 21:47:16.554312 24243 net.cpp:386] inception_4a/relu_3x3 -> inception_4a/3x3 (in-place)
I0403 21:47:16.554591 24243 net.cpp:141] Setting up inception_4a/relu_3x3
I0403 21:47:16.554620 24243 net.cpp:148] Top shape: 24 208 14 14 (978432)
I0403 21:47:16.554636 24243 net.cpp:156] Memory required for data: 873063456
I0403 21:47:16.554651 24243 layer_factory.hpp:77] Creating layer inception_4a/5x5_reduce
I0403 21:47:16.554674 24243 net.cpp:91] Creating Layer inception_4a/5x5_reduce
I0403 21:47:16.554692 24243 net.cpp:425] inception_4a/5x5_reduce <- pool3/3x3_s2_pool3/3x3_s2_0_split_2
I0403 21:47:16.554713 24243 net.cpp:399] inception_4a/5x5_reduce -> inception_4a/5x5_reduce
I0403 21:47:16.555696 24243 net.cpp:141] Setting up inception_4a/5x5_reduce
I0403 21:47:16.555722 24243 net.cpp:148] Top shape: 24 16 14 14 (75264)
I0403 21:47:16.555738 24243 net.cpp:156] Memory required for data: 873364512
I0403 21:47:16.555757 24243 layer_factory.hpp:77] Creating layer inception_4a/relu_5x5_reduce
I0403 21:47:16.555775 24243 net.cpp:91] Creating Layer inception_4a/relu_5x5_reduce
I0403 21:47:16.555793 24243 net.cpp:425] inception_4a/relu_5x5_reduce <- inception_4a/5x5_reduce
I0403 21:47:16.555814 24243 net.cpp:386] inception_4a/relu_5x5_reduce -> inception_4a/5x5_reduce (in-place)
I0403 21:47:16.555984 24243 net.cpp:141] Setting up inception_4a/relu_5x5_reduce
I0403 21:47:16.556008 24243 net.cpp:148] Top shape: 24 16 14 14 (75264)
I0403 21:47:16.556025 24243 net.cpp:156] Memory required for data: 873665568
I0403 21:47:16.556040 24243 layer_factory.hpp:77] Creating layer inception_4a/5x5
I0403 21:47:16.556061 24243 net.cpp:91] Creating Layer inception_4a/5x5
I0403 21:47:16.556079 24243 net.cpp:425] inception_4a/5x5 <- inception_4a/5x5_reduce
I0403 21:47:16.556102 24243 net.cpp:399] inception_4a/5x5 -> inception_4a/5x5
I0403 21:47:16.557153 24243 net.cpp:141] Setting up inception_4a/5x5
I0403 21:47:16.557181 24243 net.cpp:148] Top shape: 24 48 14 14 (225792)
I0403 21:47:16.557198 24243 net.cpp:156] Memory required for data: 874568736
I0403 21:47:16.557216 24243 layer_factory.hpp:77] Creating layer inception_4a/relu_5x5
I0403 21:47:16.557240 24243 net.cpp:91] Creating Layer inception_4a/relu_5x5
I0403 21:47:16.557260 24243 net.cpp:425] inception_4a/relu_5x5 <- inception_4a/5x5
I0403 21:47:16.557277 24243 net.cpp:386] inception_4a/relu_5x5 -> inception_4a/5x5 (in-place)
I0403 21:47:16.557451 24243 net.cpp:141] Setting up inception_4a/relu_5x5
I0403 21:47:16.557476 24243 net.cpp:148] Top shape: 24 48 14 14 (225792)
I0403 21:47:16.557492 24243 net.cpp:156] Memory required for data: 875471904
I0403 21:47:16.557507 24243 layer_factory.hpp:77] Creating layer inception_4a/pool
I0403 21:47:16.557525 24243 net.cpp:91] Creating Layer inception_4a/pool
I0403 21:47:16.557541 24243 net.cpp:425] inception_4a/pool <- pool3/3x3_s2_pool3/3x3_s2_0_split_3
I0403 21:47:16.557561 24243 net.cpp:399] inception_4a/pool -> inception_4a/pool
I0403 21:47:16.557620 24243 net.cpp:141] Setting up inception_4a/pool
I0403 21:47:16.557643 24243 net.cpp:148] Top shape: 24 480 14 14 (2257920)
I0403 21:47:16.557658 24243 net.cpp:156] Memory required for data: 884503584
I0403 21:47:16.557673 24243 layer_factory.hpp:77] Creating layer inception_4a/pool_proj
I0403 21:47:16.557695 24243 net.cpp:91] Creating Layer inception_4a/pool_proj
I0403 21:47:16.557713 24243 net.cpp:425] inception_4a/pool_proj <- inception_4a/pool
I0403 21:47:16.557734 24243 net.cpp:399] inception_4a/pool_proj -> inception_4a/pool_proj
I0403 21:47:16.558863 24243 net.cpp:141] Setting up inception_4a/pool_proj
I0403 21:47:16.558895 24243 net.cpp:148] Top shape: 24 64 14 14 (301056)
I0403 21:47:16.558925 24243 net.cpp:156] Memory required for data: 885707808
I0403 21:47:16.558946 24243 layer_factory.hpp:77] Creating layer inception_4a/relu_pool_proj
I0403 21:47:16.558964 24243 net.cpp:91] Creating Layer inception_4a/relu_pool_proj
I0403 21:47:16.558980 24243 net.cpp:425] inception_4a/relu_pool_proj <- inception_4a/pool_proj
I0403 21:47:16.558998 24243 net.cpp:386] inception_4a/relu_pool_proj -> inception_4a/pool_proj (in-place)
I0403 21:47:16.559276 24243 net.cpp:141] Setting up inception_4a/relu_pool_proj
I0403 21:47:16.559304 24243 net.cpp:148] Top shape: 24 64 14 14 (301056)
I0403 21:47:16.559320 24243 net.cpp:156] Memory required for data: 886912032
I0403 21:47:16.559337 24243 layer_factory.hpp:77] Creating layer inception_4a/output
I0403 21:47:16.559355 24243 net.cpp:91] Creating Layer inception_4a/output
I0403 21:47:16.559370 24243 net.cpp:425] inception_4a/output <- inception_4a/1x1
I0403 21:47:16.559388 24243 net.cpp:425] inception_4a/output <- inception_4a/3x3
I0403 21:47:16.559404 24243 net.cpp:425] inception_4a/output <- inception_4a/5x5
I0403 21:47:16.559420 24243 net.cpp:425] inception_4a/output <- inception_4a/pool_proj
I0403 21:47:16.559438 24243 net.cpp:399] inception_4a/output -> inception_4a/output
I0403 21:47:16.559484 24243 net.cpp:141] Setting up inception_4a/output
I0403 21:47:16.559506 24243 net.cpp:148] Top shape: 24 512 14 14 (2408448)
I0403 21:47:16.559521 24243 net.cpp:156] Memory required for data: 896545824
I0403 21:47:16.559537 24243 layer_factory.hpp:77] Creating layer inception_4a/output_inception_4a/output_0_split
I0403 21:47:16.559556 24243 net.cpp:91] Creating Layer inception_4a/output_inception_4a/output_0_split
I0403 21:47:16.559574 24243 net.cpp:425] inception_4a/output_inception_4a/output_0_split <- inception_4a/output
I0403 21:47:16.559593 24243 net.cpp:399] inception_4a/output_inception_4a/output_0_split -> inception_4a/output_inception_4a/output_0_split_0
I0403 21:47:16.559613 24243 net.cpp:399] inception_4a/output_inception_4a/output_0_split -> inception_4a/output_inception_4a/output_0_split_1
I0403 21:47:16.559633 24243 net.cpp:399] inception_4a/output_inception_4a/output_0_split -> inception_4a/output_inception_4a/output_0_split_2
I0403 21:47:16.559655 24243 net.cpp:399] inception_4a/output_inception_4a/output_0_split -> inception_4a/output_inception_4a/output_0_split_3
I0403 21:47:16.559675 24243 net.cpp:399] inception_4a/output_inception_4a/output_0_split -> inception_4a/output_inception_4a/output_0_split_4
I0403 21:47:16.559770 24243 net.cpp:141] Setting up inception_4a/output_inception_4a/output_0_split
I0403 21:47:16.559793 24243 net.cpp:148] Top shape: 24 512 14 14 (2408448)
I0403 21:47:16.559810 24243 net.cpp:148] Top shape: 24 512 14 14 (2408448)
I0403 21:47:16.559826 24243 net.cpp:148] Top shape: 24 512 14 14 (2408448)
I0403 21:47:16.559842 24243 net.cpp:148] Top shape: 24 512 14 14 (2408448)
I0403 21:47:16.559859 24243 net.cpp:148] Top shape: 24 512 14 14 (2408448)
I0403 21:47:16.559875 24243 net.cpp:156] Memory required for data: 944714784
I0403 21:47:16.559890 24243 layer_factory.hpp:77] Creating layer loss1/ave_pool
I0403 21:47:16.559906 24243 net.cpp:91] Creating Layer loss1/ave_pool
I0403 21:47:16.559922 24243 net.cpp:425] loss1/ave_pool <- inception_4a/output_inception_4a/output_0_split_0
I0403 21:47:16.559943 24243 net.cpp:399] loss1/ave_pool -> loss1/ave_pool
I0403 21:47:16.560142 24243 net.cpp:141] Setting up loss1/ave_pool
I0403 21:47:16.560169 24243 net.cpp:148] Top shape: 24 512 4 4 (196608)
I0403 21:47:16.560185 24243 net.cpp:156] Memory required for data: 945501216
I0403 21:47:16.560202 24243 layer_factory.hpp:77] Creating layer loss1/conv
I0403 21:47:16.560221 24243 net.cpp:91] Creating Layer loss1/conv
I0403 21:47:16.560243 24243 net.cpp:425] loss1/conv <- loss1/ave_pool
I0403 21:47:16.560264 24243 net.cpp:399] loss1/conv -> loss1/conv
I0403 21:47:16.561622 24243 net.cpp:141] Setting up loss1/conv
I0403 21:47:16.561653 24243 net.cpp:148] Top shape: 24 128 4 4 (49152)
I0403 21:47:16.561682 24243 net.cpp:156] Memory required for data: 945697824
I0403 21:47:16.561702 24243 layer_factory.hpp:77] Creating layer loss1/relu_conv
I0403 21:47:16.561720 24243 net.cpp:91] Creating Layer loss1/relu_conv
I0403 21:47:16.561736 24243 net.cpp:425] loss1/relu_conv <- loss1/conv
I0403 21:47:16.561756 24243 net.cpp:386] loss1/relu_conv -> loss1/conv (in-place)
I0403 21:47:16.562028 24243 net.cpp:141] Setting up loss1/relu_conv
I0403 21:47:16.562057 24243 net.cpp:148] Top shape: 24 128 4 4 (49152)
I0403 21:47:16.562073 24243 net.cpp:156] Memory required for data: 945894432
I0403 21:47:16.562088 24243 layer_factory.hpp:77] Creating layer loss1/fc
I0403 21:47:16.562111 24243 net.cpp:91] Creating Layer loss1/fc
I0403 21:47:16.562131 24243 net.cpp:425] loss1/fc <- loss1/conv
I0403 21:47:16.562152 24243 net.cpp:399] loss1/fc -> loss1/fc
I0403 21:47:16.579499 24243 net.cpp:141] Setting up loss1/fc
I0403 21:47:16.579533 24243 net.cpp:148] Top shape: 24 1024 (24576)
I0403 21:47:16.579550 24243 net.cpp:156] Memory required for data: 945992736
I0403 21:47:16.579569 24243 layer_factory.hpp:77] Creating layer loss1/relu_fc
I0403 21:47:16.579591 24243 net.cpp:91] Creating Layer loss1/relu_fc
I0403 21:47:16.579607 24243 net.cpp:425] loss1/relu_fc <- loss1/fc
I0403 21:47:16.579627 24243 net.cpp:386] loss1/relu_fc -> loss1/fc (in-place)
I0403 21:47:16.579809 24243 net.cpp:141] Setting up loss1/relu_fc
I0403 21:47:16.579834 24243 net.cpp:148] Top shape: 24 1024 (24576)
I0403 21:47:16.579849 24243 net.cpp:156] Memory required for data: 946091040
I0403 21:47:16.579865 24243 layer_factory.hpp:77] Creating layer loss1/drop_fc
I0403 21:47:16.579890 24243 net.cpp:91] Creating Layer loss1/drop_fc
I0403 21:47:16.579910 24243 net.cpp:425] loss1/drop_fc <- loss1/fc
I0403 21:47:16.579931 24243 net.cpp:386] loss1/drop_fc -> loss1/fc (in-place)
I0403 21:47:16.579979 24243 net.cpp:141] Setting up loss1/drop_fc
I0403 21:47:16.580003 24243 net.cpp:148] Top shape: 24 1024 (24576)
I0403 21:47:16.580018 24243 net.cpp:156] Memory required for data: 946189344
I0403 21:47:16.580034 24243 layer_factory.hpp:77] Creating layer loss1/classifier_plantvillage
I0403 21:47:16.580056 24243 net.cpp:91] Creating Layer loss1/classifier_plantvillage
I0403 21:47:16.580075 24243 net.cpp:425] loss1/classifier_plantvillage <- loss1/fc
I0403 21:47:16.580093 24243 net.cpp:399] loss1/classifier_plantvillage -> loss1/classifier_plantvillage
I0403 21:47:16.581003 24243 net.cpp:141] Setting up loss1/classifier_plantvillage
I0403 21:47:16.581033 24243 net.cpp:148] Top shape: 24 38 (912)
I0403 21:47:16.581051 24243 net.cpp:156] Memory required for data: 946192992
I0403 21:47:16.581070 24243 layer_factory.hpp:77] Creating layer loss1/classifier_plantvillage_loss1/classifier_plantvillage_0_split
I0403 21:47:16.581089 24243 net.cpp:91] Creating Layer loss1/classifier_plantvillage_loss1/classifier_plantvillage_0_split
I0403 21:47:16.581105 24243 net.cpp:425] loss1/classifier_plantvillage_loss1/classifier_plantvillage_0_split <- loss1/classifier_plantvillage
I0403 21:47:16.581125 24243 net.cpp:399] loss1/classifier_plantvillage_loss1/classifier_plantvillage_0_split -> loss1/classifier_plantvillage_loss1/classifier_plantvillage_0_split_0
I0403 21:47:16.581146 24243 net.cpp:399] loss1/classifier_plantvillage_loss1/classifier_plantvillage_0_split -> loss1/classifier_plantvillage_loss1/classifier_plantvillage_0_split_1
I0403 21:47:16.581166 24243 net.cpp:399] loss1/classifier_plantvillage_loss1/classifier_plantvillage_0_split -> loss1/classifier_plantvillage_loss1/classifier_plantvillage_0_split_2
I0403 21:47:16.581248 24243 net.cpp:141] Setting up loss1/classifier_plantvillage_loss1/classifier_plantvillage_0_split
I0403 21:47:16.581272 24243 net.cpp:148] Top shape: 24 38 (912)
I0403 21:47:16.581298 24243 net.cpp:148] Top shape: 24 38 (912)
I0403 21:47:16.581315 24243 net.cpp:148] Top shape: 24 38 (912)
I0403 21:47:16.581328 24243 net.cpp:156] Memory required for data: 946203936
I0403 21:47:16.581344 24243 layer_factory.hpp:77] Creating layer inception_4b/1x1
I0403 21:47:16.581367 24243 net.cpp:91] Creating Layer inception_4b/1x1
I0403 21:47:16.581401 24243 net.cpp:425] inception_4b/1x1 <- inception_4a/output_inception_4a/output_0_split_1
I0403 21:47:16.581423 24243 net.cpp:399] inception_4b/1x1 -> inception_4b/1x1
I0403 21:47:16.583094 24243 net.cpp:141] Setting up inception_4b/1x1
I0403 21:47:16.583122 24243 net.cpp:148] Top shape: 24 160 14 14 (752640)
I0403 21:47:16.583139 24243 net.cpp:156] Memory required for data: 949214496
I0403 21:47:16.583158 24243 layer_factory.hpp:77] Creating layer inception_4b/relu_1x1
I0403 21:47:16.583178 24243 net.cpp:91] Creating Layer inception_4b/relu_1x1
I0403 21:47:16.583194 24243 net.cpp:425] inception_4b/relu_1x1 <- inception_4b/1x1
I0403 21:47:16.583219 24243 net.cpp:386] inception_4b/relu_1x1 -> inception_4b/1x1 (in-place)
I0403 21:47:16.583405 24243 net.cpp:141] Setting up inception_4b/relu_1x1
I0403 21:47:16.583431 24243 net.cpp:148] Top shape: 24 160 14 14 (752640)
I0403 21:47:16.583446 24243 net.cpp:156] Memory required for data: 952225056
I0403 21:47:16.583462 24243 layer_factory.hpp:77] Creating layer inception_4b/3x3_reduce
I0403 21:47:16.583485 24243 net.cpp:91] Creating Layer inception_4b/3x3_reduce
I0403 21:47:16.583503 24243 net.cpp:425] inception_4b/3x3_reduce <- inception_4a/output_inception_4a/output_0_split_2
I0403 21:47:16.583525 24243 net.cpp:399] inception_4b/3x3_reduce -> inception_4b/3x3_reduce
I0403 21:47:16.584877 24243 net.cpp:141] Setting up inception_4b/3x3_reduce
I0403 21:47:16.584905 24243 net.cpp:148] Top shape: 24 112 14 14 (526848)
I0403 21:47:16.584923 24243 net.cpp:156] Memory required for data: 954332448
I0403 21:47:16.584941 24243 layer_factory.hpp:77] Creating layer inception_4b/relu_3x3_reduce
I0403 21:47:16.584964 24243 net.cpp:91] Creating Layer inception_4b/relu_3x3_reduce
I0403 21:47:16.584982 24243 net.cpp:425] inception_4b/relu_3x3_reduce <- inception_4b/3x3_reduce
I0403 21:47:16.585000 24243 net.cpp:386] inception_4b/relu_3x3_reduce -> inception_4b/3x3_reduce (in-place)
I0403 21:47:16.585285 24243 net.cpp:141] Setting up inception_4b/relu_3x3_reduce
I0403 21:47:16.585314 24243 net.cpp:148] Top shape: 24 112 14 14 (526848)
I0403 21:47:16.585330 24243 net.cpp:156] Memory required for data: 956439840
I0403 21:47:16.585345 24243 layer_factory.hpp:77] Creating layer inception_4b/3x3
I0403 21:47:16.585368 24243 net.cpp:91] Creating Layer inception_4b/3x3
I0403 21:47:16.585386 24243 net.cpp:425] inception_4b/3x3 <- inception_4b/3x3_reduce
I0403 21:47:16.585408 24243 net.cpp:399] inception_4b/3x3 -> inception_4b/3x3
I0403 21:47:16.588454 24243 net.cpp:141] Setting up inception_4b/3x3
I0403 21:47:16.588484 24243 net.cpp:148] Top shape: 24 224 14 14 (1053696)
I0403 21:47:16.588500 24243 net.cpp:156] Memory required for data: 960654624
I0403 21:47:16.588522 24243 layer_factory.hpp:77] Creating layer inception_4b/relu_3x3
I0403 21:47:16.588541 24243 net.cpp:91] Creating Layer inception_4b/relu_3x3
I0403 21:47:16.588558 24243 net.cpp:425] inception_4b/relu_3x3 <- inception_4b/3x3
I0403 21:47:16.588577 24243 net.cpp:386] inception_4b/relu_3x3 -> inception_4b/3x3 (in-place)
I0403 21:47:16.588758 24243 net.cpp:141] Setting up inception_4b/relu_3x3
I0403 21:47:16.588784 24243 net.cpp:148] Top shape: 24 224 14 14 (1053696)
I0403 21:47:16.588800 24243 net.cpp:156] Memory required for data: 964869408
I0403 21:47:16.588816 24243 layer_factory.hpp:77] Creating layer inception_4b/5x5_reduce
I0403 21:47:16.588840 24243 net.cpp:91] Creating Layer inception_4b/5x5_reduce
I0403 21:47:16.588857 24243 net.cpp:425] inception_4b/5x5_reduce <- inception_4a/output_inception_4a/output_0_split_3
I0403 21:47:16.588881 24243 net.cpp:399] inception_4b/5x5_reduce -> inception_4b/5x5_reduce
I0403 21:47:16.589962 24243 net.cpp:141] Setting up inception_4b/5x5_reduce
I0403 21:47:16.589992 24243 net.cpp:148] Top shape: 24 24 14 14 (112896)
I0403 21:47:16.590008 24243 net.cpp:156] Memory required for data: 965320992
I0403 21:47:16.590026 24243 layer_factory.hpp:77] Creating layer inception_4b/relu_5x5_reduce
I0403 21:47:16.590045 24243 net.cpp:91] Creating Layer inception_4b/relu_5x5_reduce
I0403 21:47:16.590078 24243 net.cpp:425] inception_4b/relu_5x5_reduce <- inception_4b/5x5_reduce
I0403 21:47:16.590100 24243 net.cpp:386] inception_4b/relu_5x5_reduce -> inception_4b/5x5_reduce (in-place)
I0403 21:47:16.590288 24243 net.cpp:141] Setting up inception_4b/relu_5x5_reduce
I0403 21:47:16.590314 24243 net.cpp:148] Top shape: 24 24 14 14 (112896)
I0403 21:47:16.590330 24243 net.cpp:156] Memory required for data: 965772576
I0403 21:47:16.590345 24243 layer_factory.hpp:77] Creating layer inception_4b/5x5
I0403 21:47:16.590369 24243 net.cpp:91] Creating Layer inception_4b/5x5
I0403 21:47:16.590387 24243 net.cpp:425] inception_4b/5x5 <- inception_4b/5x5_reduce
I0403 21:47:16.590409 24243 net.cpp:399] inception_4b/5x5 -> inception_4b/5x5
I0403 21:47:16.591652 24243 net.cpp:141] Setting up inception_4b/5x5
I0403 21:47:16.591681 24243 net.cpp:148] Top shape: 24 64 14 14 (301056)
I0403 21:47:16.591697 24243 net.cpp:156] Memory required for data: 966976800
I0403 21:47:16.591717 24243 layer_factory.hpp:77] Creating layer inception_4b/relu_5x5
I0403 21:47:16.591737 24243 net.cpp:91] Creating Layer inception_4b/relu_5x5
I0403 21:47:16.591755 24243 net.cpp:425] inception_4b/relu_5x5 <- inception_4b/5x5
I0403 21:47:16.591776 24243 net.cpp:386] inception_4b/relu_5x5 -> inception_4b/5x5 (in-place)
I0403 21:47:16.592059 24243 net.cpp:141] Setting up inception_4b/relu_5x5
I0403 21:47:16.592093 24243 net.cpp:148] Top shape: 24 64 14 14 (301056)
I0403 21:47:16.592108 24243 net.cpp:156] Memory required for data: 968181024
I0403 21:47:16.592124 24243 layer_factory.hpp:77] Creating layer inception_4b/pool
I0403 21:47:16.592144 24243 net.cpp:91] Creating Layer inception_4b/pool
I0403 21:47:16.592161 24243 net.cpp:425] inception_4b/pool <- inception_4a/output_inception_4a/output_0_split_4
I0403 21:47:16.592183 24243 net.cpp:399] inception_4b/pool -> inception_4b/pool
I0403 21:47:16.592252 24243 net.cpp:141] Setting up inception_4b/pool
I0403 21:47:16.592279 24243 net.cpp:148] Top shape: 24 512 14 14 (2408448)
I0403 21:47:16.592295 24243 net.cpp:156] Memory required for data: 977814816
I0403 21:47:16.592311 24243 layer_factory.hpp:77] Creating layer inception_4b/pool_proj
I0403 21:47:16.592334 24243 net.cpp:91] Creating Layer inception_4b/pool_proj
I0403 21:47:16.592353 24243 net.cpp:425] inception_4b/pool_proj <- inception_4b/pool
I0403 21:47:16.592372 24243 net.cpp:399] inception_4b/pool_proj -> inception_4b/pool_proj
I0403 21:47:16.593580 24243 net.cpp:141] Setting up inception_4b/pool_proj
I0403 21:47:16.593607 24243 net.cpp:148] Top shape: 24 64 14 14 (301056)
I0403 21:47:16.593623 24243 net.cpp:156] Memory required for data: 979019040
I0403 21:47:16.593642 24243 layer_factory.hpp:77] Creating layer inception_4b/relu_pool_proj
I0403 21:47:16.593663 24243 net.cpp:91] Creating Layer inception_4b/relu_pool_proj
I0403 21:47:16.593682 24243 net.cpp:425] inception_4b/relu_pool_proj <- inception_4b/pool_proj
I0403 21:47:16.593699 24243 net.cpp:386] inception_4b/relu_pool_proj -> inception_4b/pool_proj (in-place)
I0403 21:47:16.593880 24243 net.cpp:141] Setting up inception_4b/relu_pool_proj
I0403 21:47:16.593906 24243 net.cpp:148] Top shape: 24 64 14 14 (301056)
I0403 21:47:16.593922 24243 net.cpp:156] Memory required for data: 980223264
I0403 21:47:16.593938 24243 layer_factory.hpp:77] Creating layer inception_4b/output
I0403 21:47:16.593960 24243 net.cpp:91] Creating Layer inception_4b/output
I0403 21:47:16.593976 24243 net.cpp:425] inception_4b/output <- inception_4b/1x1
I0403 21:47:16.593994 24243 net.cpp:425] inception_4b/output <- inception_4b/3x3
I0403 21:47:16.594012 24243 net.cpp:425] inception_4b/output <- inception_4b/5x5
I0403 21:47:16.594028 24243 net.cpp:425] inception_4b/output <- inception_4b/pool_proj
I0403 21:47:16.594045 24243 net.cpp:399] inception_4b/output -> inception_4b/output
I0403 21:47:16.594094 24243 net.cpp:141] Setting up inception_4b/output
I0403 21:47:16.594117 24243 net.cpp:148] Top shape: 24 512 14 14 (2408448)
I0403 21:47:16.594132 24243 net.cpp:156] Memory required for data: 989857056
I0403 21:47:16.594163 24243 layer_factory.hpp:77] Creating layer inception_4b/output_inception_4b/output_0_split
I0403 21:47:16.594185 24243 net.cpp:91] Creating Layer inception_4b/output_inception_4b/output_0_split
I0403 21:47:16.594203 24243 net.cpp:425] inception_4b/output_inception_4b/output_0_split <- inception_4b/output
I0403 21:47:16.594223 24243 net.cpp:399] inception_4b/output_inception_4b/output_0_split -> inception_4b/output_inception_4b/output_0_split_0
I0403 21:47:16.594250 24243 net.cpp:399] inception_4b/output_inception_4b/output_0_split -> inception_4b/output_inception_4b/output_0_split_1
I0403 21:47:16.594271 24243 net.cpp:399] inception_4b/output_inception_4b/output_0_split -> inception_4b/output_inception_4b/output_0_split_2
I0403 21:47:16.594293 24243 net.cpp:399] inception_4b/output_inception_4b/output_0_split -> inception_4b/output_inception_4b/output_0_split_3
I0403 21:47:16.594383 24243 net.cpp:141] Setting up inception_4b/output_inception_4b/output_0_split
I0403 21:47:16.594410 24243 net.cpp:148] Top shape: 24 512 14 14 (2408448)
I0403 21:47:16.594429 24243 net.cpp:148] Top shape: 24 512 14 14 (2408448)
I0403 21:47:16.594446 24243 net.cpp:148] Top shape: 24 512 14 14 (2408448)
I0403 21:47:16.594462 24243 net.cpp:148] Top shape: 24 512 14 14 (2408448)
I0403 21:47:16.594481 24243 net.cpp:156] Memory required for data: 1028392224
I0403 21:47:16.594496 24243 layer_factory.hpp:77] Creating layer inception_4c/1x1
I0403 21:47:16.594521 24243 net.cpp:91] Creating Layer inception_4c/1x1
I0403 21:47:16.594540 24243 net.cpp:425] inception_4c/1x1 <- inception_4b/output_inception_4b/output_0_split_0
I0403 21:47:16.594559 24243 net.cpp:399] inception_4c/1x1 -> inception_4c/1x1
I0403 21:47:16.596000 24243 net.cpp:141] Setting up inception_4c/1x1
I0403 21:47:16.596029 24243 net.cpp:148] Top shape: 24 128 14 14 (602112)
I0403 21:47:16.596046 24243 net.cpp:156] Memory required for data: 1030800672
I0403 21:47:16.596066 24243 layer_factory.hpp:77] Creating layer inception_4c/relu_1x1
I0403 21:47:16.596087 24243 net.cpp:91] Creating Layer inception_4c/relu_1x1
I0403 21:47:16.596107 24243 net.cpp:425] inception_4c/relu_1x1 <- inception_4c/1x1
I0403 21:47:16.596125 24243 net.cpp:386] inception_4c/relu_1x1 -> inception_4c/1x1 (in-place)
I0403 21:47:16.596312 24243 net.cpp:141] Setting up inception_4c/relu_1x1
I0403 21:47:16.596338 24243 net.cpp:148] Top shape: 24 128 14 14 (602112)
I0403 21:47:16.596354 24243 net.cpp:156] Memory required for data: 1033209120
I0403 21:47:16.596370 24243 layer_factory.hpp:77] Creating layer inception_4c/3x3_reduce
I0403 21:47:16.596393 24243 net.cpp:91] Creating Layer inception_4c/3x3_reduce
I0403 21:47:16.596411 24243 net.cpp:425] inception_4c/3x3_reduce <- inception_4b/output_inception_4b/output_0_split_1
I0403 21:47:16.596433 24243 net.cpp:399] inception_4c/3x3_reduce -> inception_4c/3x3_reduce
I0403 21:47:16.598433 24243 net.cpp:141] Setting up inception_4c/3x3_reduce
I0403 21:47:16.598462 24243 net.cpp:148] Top shape: 24 128 14 14 (602112)
I0403 21:47:16.598482 24243 net.cpp:156] Memory required for data: 1035617568
I0403 21:47:16.598501 24243 layer_factory.hpp:77] Creating layer inception_4c/relu_3x3_reduce
I0403 21:47:16.598520 24243 net.cpp:91] Creating Layer inception_4c/relu_3x3_reduce
I0403 21:47:16.598536 24243 net.cpp:425] inception_4c/relu_3x3_reduce <- inception_4c/3x3_reduce
I0403 21:47:16.598556 24243 net.cpp:386] inception_4c/relu_3x3_reduce -> inception_4c/3x3_reduce (in-place)
I0403 21:47:16.598850 24243 net.cpp:141] Setting up inception_4c/relu_3x3_reduce
I0403 21:47:16.598877 24243 net.cpp:148] Top shape: 24 128 14 14 (602112)
I0403 21:47:16.598893 24243 net.cpp:156] Memory required for data: 1038026016
I0403 21:47:16.598909 24243 layer_factory.hpp:77] Creating layer inception_4c/3x3
I0403 21:47:16.598933 24243 net.cpp:91] Creating Layer inception_4c/3x3
I0403 21:47:16.598953 24243 net.cpp:425] inception_4c/3x3 <- inception_4c/3x3_reduce
I0403 21:47:16.598975 24243 net.cpp:399] inception_4c/3x3 -> inception_4c/3x3
I0403 21:47:16.602561 24243 net.cpp:141] Setting up inception_4c/3x3
I0403 21:47:16.602602 24243 net.cpp:148] Top shape: 24 256 14 14 (1204224)
I0403 21:47:16.602620 24243 net.cpp:156] Memory required for data: 1042842912
I0403 21:47:16.602654 24243 layer_factory.hpp:77] Creating layer inception_4c/relu_3x3
I0403 21:47:16.602679 24243 net.cpp:91] Creating Layer inception_4c/relu_3x3
I0403 21:47:16.602696 24243 net.cpp:425] inception_4c/relu_3x3 <- inception_4c/3x3
I0403 21:47:16.602713 24243 net.cpp:386] inception_4c/relu_3x3 -> inception_4c/3x3 (in-place)
I0403 21:47:16.602893 24243 net.cpp:141] Setting up inception_4c/relu_3x3
I0403 21:47:16.602918 24243 net.cpp:148] Top shape: 24 256 14 14 (1204224)
I0403 21:47:16.602933 24243 net.cpp:156] Memory required for data: 1047659808
I0403 21:47:16.602948 24243 layer_factory.hpp:77] Creating layer inception_4c/5x5_reduce
I0403 21:47:16.602972 24243 net.cpp:91] Creating Layer inception_4c/5x5_reduce
I0403 21:47:16.602989 24243 net.cpp:425] inception_4c/5x5_reduce <- inception_4b/output_inception_4b/output_0_split_2
I0403 21:47:16.603011 24243 net.cpp:399] inception_4c/5x5_reduce -> inception_4c/5x5_reduce
I0403 21:47:16.604079 24243 net.cpp:141] Setting up inception_4c/5x5_reduce
I0403 21:47:16.604107 24243 net.cpp:148] Top shape: 24 24 14 14 (112896)
I0403 21:47:16.604123 24243 net.cpp:156] Memory required for data: 1048111392
I0403 21:47:16.604141 24243 layer_factory.hpp:77] Creating layer inception_4c/relu_5x5_reduce
I0403 21:47:16.604161 24243 net.cpp:91] Creating Layer inception_4c/relu_5x5_reduce
I0403 21:47:16.604178 24243 net.cpp:425] inception_4c/relu_5x5_reduce <- inception_4c/5x5_reduce
I0403 21:47:16.604198 24243 net.cpp:386] inception_4c/relu_5x5_reduce -> inception_4c/5x5_reduce (in-place)
I0403 21:47:16.604383 24243 net.cpp:141] Setting up inception_4c/relu_5x5_reduce
I0403 21:47:16.604408 24243 net.cpp:148] Top shape: 24 24 14 14 (112896)
I0403 21:47:16.604423 24243 net.cpp:156] Memory required for data: 1048562976
I0403 21:47:16.604439 24243 layer_factory.hpp:77] Creating layer inception_4c/5x5
I0403 21:47:16.604461 24243 net.cpp:91] Creating Layer inception_4c/5x5
I0403 21:47:16.604480 24243 net.cpp:425] inception_4c/5x5 <- inception_4c/5x5_reduce
I0403 21:47:16.604501 24243 net.cpp:399] inception_4c/5x5 -> inception_4c/5x5
I0403 21:47:16.605717 24243 net.cpp:141] Setting up inception_4c/5x5
I0403 21:47:16.605746 24243 net.cpp:148] Top shape: 24 64 14 14 (301056)
I0403 21:47:16.605762 24243 net.cpp:156] Memory required for data: 1049767200
I0403 21:47:16.605780 24243 layer_factory.hpp:77] Creating layer inception_4c/relu_5x5
I0403 21:47:16.605801 24243 net.cpp:91] Creating Layer inception_4c/relu_5x5
I0403 21:47:16.605818 24243 net.cpp:425] inception_4c/relu_5x5 <- inception_4c/5x5
I0403 21:47:16.605837 24243 net.cpp:386] inception_4c/relu_5x5 -> inception_4c/5x5 (in-place)
I0403 21:47:16.606122 24243 net.cpp:141] Setting up inception_4c/relu_5x5
I0403 21:47:16.606148 24243 net.cpp:148] Top shape: 24 64 14 14 (301056)
I0403 21:47:16.606163 24243 net.cpp:156] Memory required for data: 1050971424
I0403 21:47:16.606189 24243 layer_factory.hpp:77] Creating layer inception_4c/pool
I0403 21:47:16.606209 24243 net.cpp:91] Creating Layer inception_4c/pool
I0403 21:47:16.606226 24243 net.cpp:425] inception_4c/pool <- inception_4b/output_inception_4b/output_0_split_3
I0403 21:47:16.606251 24243 net.cpp:399] inception_4c/pool -> inception_4c/pool
I0403 21:47:16.606317 24243 net.cpp:141] Setting up inception_4c/pool
I0403 21:47:16.606340 24243 net.cpp:148] Top shape: 24 512 14 14 (2408448)
I0403 21:47:16.606355 24243 net.cpp:156] Memory required for data: 1060605216
I0403 21:47:16.606371 24243 layer_factory.hpp:77] Creating layer inception_4c/pool_proj
I0403 21:47:16.606394 24243 net.cpp:91] Creating Layer inception_4c/pool_proj
I0403 21:47:16.606411 24243 net.cpp:425] inception_4c/pool_proj <- inception_4c/pool
I0403 21:47:16.606432 24243 net.cpp:399] inception_4c/pool_proj -> inception_4c/pool_proj
I0403 21:47:16.607628 24243 net.cpp:141] Setting up inception_4c/pool_proj
I0403 21:47:16.607656 24243 net.cpp:148] Top shape: 24 64 14 14 (301056)
I0403 21:47:16.607686 24243 net.cpp:156] Memory required for data: 1061809440
I0403 21:47:16.607707 24243 layer_factory.hpp:77] Creating layer inception_4c/relu_pool_proj
I0403 21:47:16.607728 24243 net.cpp:91] Creating Layer inception_4c/relu_pool_proj
I0403 21:47:16.607746 24243 net.cpp:425] inception_4c/relu_pool_proj <- inception_4c/pool_proj
I0403 21:47:16.607764 24243 net.cpp:386] inception_4c/relu_pool_proj -> inception_4c/pool_proj (in-place)
I0403 21:47:16.607942 24243 net.cpp:141] Setting up inception_4c/relu_pool_proj
I0403 21:47:16.607969 24243 net.cpp:148] Top shape: 24 64 14 14 (301056)
I0403 21:47:16.607983 24243 net.cpp:156] Memory required for data: 1063013664
I0403 21:47:16.607998 24243 layer_factory.hpp:77] Creating layer inception_4c/output
I0403 21:47:16.608017 24243 net.cpp:91] Creating Layer inception_4c/output
I0403 21:47:16.608036 24243 net.cpp:425] inception_4c/output <- inception_4c/1x1
I0403 21:47:16.608052 24243 net.cpp:425] inception_4c/output <- inception_4c/3x3
I0403 21:47:16.608069 24243 net.cpp:425] inception_4c/output <- inception_4c/5x5
I0403 21:47:16.608086 24243 net.cpp:425] inception_4c/output <- inception_4c/pool_proj
I0403 21:47:16.608103 24243 net.cpp:399] inception_4c/output -> inception_4c/output
I0403 21:47:16.608151 24243 net.cpp:141] Setting up inception_4c/output
I0403 21:47:16.608175 24243 net.cpp:148] Top shape: 24 512 14 14 (2408448)
I0403 21:47:16.608189 24243 net.cpp:156] Memory required for data: 1072647456
I0403 21:47:16.608204 24243 layer_factory.hpp:77] Creating layer inception_4c/output_inception_4c/output_0_split
I0403 21:47:16.608222 24243 net.cpp:91] Creating Layer inception_4c/output_inception_4c/output_0_split
I0403 21:47:16.608249 24243 net.cpp:425] inception_4c/output_inception_4c/output_0_split <- inception_4c/output
I0403 21:47:16.608271 24243 net.cpp:399] inception_4c/output_inception_4c/output_0_split -> inception_4c/output_inception_4c/output_0_split_0
I0403 21:47:16.608294 24243 net.cpp:399] inception_4c/output_inception_4c/output_0_split -> inception_4c/output_inception_4c/output_0_split_1
I0403 21:47:16.608314 24243 net.cpp:399] inception_4c/output_inception_4c/output_0_split -> inception_4c/output_inception_4c/output_0_split_2
I0403 21:47:16.608335 24243 net.cpp:399] inception_4c/output_inception_4c/output_0_split -> inception_4c/output_inception_4c/output_0_split_3
I0403 21:47:16.608423 24243 net.cpp:141] Setting up inception_4c/output_inception_4c/output_0_split
I0403 21:47:16.608449 24243 net.cpp:148] Top shape: 24 512 14 14 (2408448)
I0403 21:47:16.608466 24243 net.cpp:148] Top shape: 24 512 14 14 (2408448)
I0403 21:47:16.608482 24243 net.cpp:148] Top shape: 24 512 14 14 (2408448)
I0403 21:47:16.608497 24243 net.cpp:148] Top shape: 24 512 14 14 (2408448)
I0403 21:47:16.608511 24243 net.cpp:156] Memory required for data: 1111182624
I0403 21:47:16.608526 24243 layer_factory.hpp:77] Creating layer inception_4d/1x1
I0403 21:47:16.608548 24243 net.cpp:91] Creating Layer inception_4d/1x1
I0403 21:47:16.608566 24243 net.cpp:425] inception_4d/1x1 <- inception_4c/output_inception_4c/output_0_split_0
I0403 21:47:16.608585 24243 net.cpp:399] inception_4d/1x1 -> inception_4d/1x1
I0403 21:47:16.609941 24243 net.cpp:141] Setting up inception_4d/1x1
I0403 21:47:16.609971 24243 net.cpp:148] Top shape: 24 112 14 14 (526848)
I0403 21:47:16.609987 24243 net.cpp:156] Memory required for data: 1113290016
I0403 21:47:16.610007 24243 layer_factory.hpp:77] Creating layer inception_4d/relu_1x1
I0403 21:47:16.610025 24243 net.cpp:91] Creating Layer inception_4d/relu_1x1
I0403 21:47:16.610041 24243 net.cpp:425] inception_4d/relu_1x1 <- inception_4d/1x1
I0403 21:47:16.610060 24243 net.cpp:386] inception_4d/relu_1x1 -> inception_4d/1x1 (in-place)
I0403 21:47:16.610257 24243 net.cpp:141] Setting up inception_4d/relu_1x1
I0403 21:47:16.610283 24243 net.cpp:148] Top shape: 24 112 14 14 (526848)
I0403 21:47:16.610298 24243 net.cpp:156] Memory required for data: 1115397408
I0403 21:47:16.610314 24243 layer_factory.hpp:77] Creating layer inception_4d/3x3_reduce
I0403 21:47:16.610350 24243 net.cpp:91] Creating Layer inception_4d/3x3_reduce
I0403 21:47:16.610369 24243 net.cpp:425] inception_4d/3x3_reduce <- inception_4c/output_inception_4c/output_0_split_1
I0403 21:47:16.610390 24243 net.cpp:399] inception_4d/3x3_reduce -> inception_4d/3x3_reduce
I0403 21:47:16.611887 24243 net.cpp:141] Setting up inception_4d/3x3_reduce
I0403 21:47:16.611915 24243 net.cpp:148] Top shape: 24 144 14 14 (677376)
I0403 21:47:16.611935 24243 net.cpp:156] Memory required for data: 1118106912
I0403 21:47:16.611955 24243 layer_factory.hpp:77] Creating layer inception_4d/relu_3x3_reduce
I0403 21:47:16.611974 24243 net.cpp:91] Creating Layer inception_4d/relu_3x3_reduce
I0403 21:47:16.611989 24243 net.cpp:425] inception_4d/relu_3x3_reduce <- inception_4d/3x3_reduce
I0403 21:47:16.612007 24243 net.cpp:386] inception_4d/relu_3x3_reduce -> inception_4d/3x3_reduce (in-place)
I0403 21:47:16.612303 24243 net.cpp:141] Setting up inception_4d/relu_3x3_reduce
I0403 21:47:16.612329 24243 net.cpp:148] Top shape: 24 144 14 14 (677376)
I0403 21:47:16.612347 24243 net.cpp:156] Memory required for data: 1120816416
I0403 21:47:16.612362 24243 layer_factory.hpp:77] Creating layer inception_4d/3x3
I0403 21:47:16.612382 24243 net.cpp:91] Creating Layer inception_4d/3x3
I0403 21:47:16.612401 24243 net.cpp:425] inception_4d/3x3 <- inception_4d/3x3_reduce
I0403 21:47:16.612422 24243 net.cpp:399] inception_4d/3x3 -> inception_4d/3x3
I0403 21:47:16.616613 24243 net.cpp:141] Setting up inception_4d/3x3
I0403 21:47:16.616643 24243 net.cpp:148] Top shape: 24 288 14 14 (1354752)
I0403 21:47:16.616660 24243 net.cpp:156] Memory required for data: 1126235424
I0403 21:47:16.616678 24243 layer_factory.hpp:77] Creating layer inception_4d/relu_3x3
I0403 21:47:16.616696 24243 net.cpp:91] Creating Layer inception_4d/relu_3x3
I0403 21:47:16.616714 24243 net.cpp:425] inception_4d/relu_3x3 <- inception_4d/3x3
I0403 21:47:16.616734 24243 net.cpp:386] inception_4d/relu_3x3 -> inception_4d/3x3 (in-place)
I0403 21:47:16.616916 24243 net.cpp:141] Setting up inception_4d/relu_3x3
I0403 21:47:16.616941 24243 net.cpp:148] Top shape: 24 288 14 14 (1354752)
I0403 21:47:16.616958 24243 net.cpp:156] Memory required for data: 1131654432
I0403 21:47:16.616974 24243 layer_factory.hpp:77] Creating layer inception_4d/5x5_reduce
I0403 21:47:16.616997 24243 net.cpp:91] Creating Layer inception_4d/5x5_reduce
I0403 21:47:16.617014 24243 net.cpp:425] inception_4d/5x5_reduce <- inception_4c/output_inception_4c/output_0_split_2
I0403 21:47:16.617041 24243 net.cpp:399] inception_4d/5x5_reduce -> inception_4d/5x5_reduce
I0403 21:47:16.618162 24243 net.cpp:141] Setting up inception_4d/5x5_reduce
I0403 21:47:16.618201 24243 net.cpp:148] Top shape: 24 32 14 14 (150528)
I0403 21:47:16.618218 24243 net.cpp:156] Memory required for data: 1132256544
I0403 21:47:16.618249 24243 layer_factory.hpp:77] Creating layer inception_4d/relu_5x5_reduce
I0403 21:47:16.618270 24243 net.cpp:91] Creating Layer inception_4d/relu_5x5_reduce
I0403 21:47:16.618288 24243 net.cpp:425] inception_4d/relu_5x5_reduce <- inception_4d/5x5_reduce
I0403 21:47:16.618307 24243 net.cpp:386] inception_4d/relu_5x5_reduce -> inception_4d/5x5_reduce (in-place)
I0403 21:47:16.618491 24243 net.cpp:141] Setting up inception_4d/relu_5x5_reduce
I0403 21:47:16.618516 24243 net.cpp:148] Top shape: 24 32 14 14 (150528)
I0403 21:47:16.618531 24243 net.cpp:156] Memory required for data: 1132858656
I0403 21:47:16.618546 24243 layer_factory.hpp:77] Creating layer inception_4d/5x5
I0403 21:47:16.618569 24243 net.cpp:91] Creating Layer inception_4d/5x5
I0403 21:47:16.618587 24243 net.cpp:425] inception_4d/5x5 <- inception_4d/5x5_reduce
I0403 21:47:16.618607 24243 net.cpp:399] inception_4d/5x5 -> inception_4d/5x5
I0403 21:47:16.620095 24243 net.cpp:141] Setting up inception_4d/5x5
I0403 21:47:16.620124 24243 net.cpp:148] Top shape: 24 64 14 14 (301056)
I0403 21:47:16.620141 24243 net.cpp:156] Memory required for data: 1134062880
I0403 21:47:16.620160 24243 layer_factory.hpp:77] Creating layer inception_4d/relu_5x5
I0403 21:47:16.620196 24243 net.cpp:91] Creating Layer inception_4d/relu_5x5
I0403 21:47:16.620224 24243 net.cpp:425] inception_4d/relu_5x5 <- inception_4d/5x5
I0403 21:47:16.620249 24243 net.cpp:386] inception_4d/relu_5x5 -> inception_4d/5x5 (in-place)
I0403 21:47:16.620548 24243 net.cpp:141] Setting up inception_4d/relu_5x5
I0403 21:47:16.620575 24243 net.cpp:148] Top shape: 24 64 14 14 (301056)
I0403 21:47:16.620592 24243 net.cpp:156] Memory required for data: 1135267104
I0403 21:47:16.620609 24243 layer_factory.hpp:77] Creating layer inception_4d/pool
I0403 21:47:16.620626 24243 net.cpp:91] Creating Layer inception_4d/pool
I0403 21:47:16.620642 24243 net.cpp:425] inception_4d/pool <- inception_4c/output_inception_4c/output_0_split_3
I0403 21:47:16.620664 24243 net.cpp:399] inception_4d/pool -> inception_4d/pool
I0403 21:47:16.620733 24243 net.cpp:141] Setting up inception_4d/pool
I0403 21:47:16.620759 24243 net.cpp:148] Top shape: 24 512 14 14 (2408448)
I0403 21:47:16.620776 24243 net.cpp:156] Memory required for data: 1144900896
I0403 21:47:16.620791 24243 layer_factory.hpp:77] Creating layer inception_4d/pool_proj
I0403 21:47:16.620818 24243 net.cpp:91] Creating Layer inception_4d/pool_proj
I0403 21:47:16.620837 24243 net.cpp:425] inception_4d/pool_proj <- inception_4d/pool
I0403 21:47:16.620859 24243 net.cpp:399] inception_4d/pool_proj -> inception_4d/pool_proj
I0403 21:47:16.622658 24243 net.cpp:141] Setting up inception_4d/pool_proj
I0403 21:47:16.622690 24243 net.cpp:148] Top shape: 24 64 14 14 (301056)
I0403 21:47:16.622707 24243 net.cpp:156] Memory required for data: 1146105120
I0403 21:47:16.622726 24243 layer_factory.hpp:77] Creating layer inception_4d/relu_pool_proj
I0403 21:47:16.622745 24243 net.cpp:91] Creating Layer inception_4d/relu_pool_proj
I0403 21:47:16.622762 24243 net.cpp:425] inception_4d/relu_pool_proj <- inception_4d/pool_proj
I0403 21:47:16.622783 24243 net.cpp:386] inception_4d/relu_pool_proj -> inception_4d/pool_proj (in-place)
I0403 21:47:16.622972 24243 net.cpp:141] Setting up inception_4d/relu_pool_proj
I0403 21:47:16.622998 24243 net.cpp:148] Top shape: 24 64 14 14 (301056)
I0403 21:47:16.623014 24243 net.cpp:156] Memory required for data: 1147309344
I0403 21:47:16.623029 24243 layer_factory.hpp:77] Creating layer inception_4d/output
I0403 21:47:16.623047 24243 net.cpp:91] Creating Layer inception_4d/output
I0403 21:47:16.623064 24243 net.cpp:425] inception_4d/output <- inception_4d/1x1
I0403 21:47:16.623082 24243 net.cpp:425] inception_4d/output <- inception_4d/3x3
I0403 21:47:16.623102 24243 net.cpp:425] inception_4d/output <- inception_4d/5x5
I0403 21:47:16.623119 24243 net.cpp:425] inception_4d/output <- inception_4d/pool_proj
I0403 21:47:16.623137 24243 net.cpp:399] inception_4d/output -> inception_4d/output
I0403 21:47:16.623184 24243 net.cpp:141] Setting up inception_4d/output
I0403 21:47:16.623211 24243 net.cpp:148] Top shape: 24 528 14 14 (2483712)
I0403 21:47:16.623231 24243 net.cpp:156] Memory required for data: 1157244192
I0403 21:47:16.623250 24243 layer_factory.hpp:77] Creating layer inception_4d/output_inception_4d/output_0_split
I0403 21:47:16.623270 24243 net.cpp:91] Creating Layer inception_4d/output_inception_4d/output_0_split
I0403 21:47:16.623286 24243 net.cpp:425] inception_4d/output_inception_4d/output_0_split <- inception_4d/output
I0403 21:47:16.623308 24243 net.cpp:399] inception_4d/output_inception_4d/output_0_split -> inception_4d/output_inception_4d/output_0_split_0
I0403 21:47:16.623332 24243 net.cpp:399] inception_4d/output_inception_4d/output_0_split -> inception_4d/output_inception_4d/output_0_split_1
I0403 21:47:16.623353 24243 net.cpp:399] inception_4d/output_inception_4d/output_0_split -> inception_4d/output_inception_4d/output_0_split_2
I0403 21:47:16.623374 24243 net.cpp:399] inception_4d/output_inception_4d/output_0_split -> inception_4d/output_inception_4d/output_0_split_3
I0403 21:47:16.623395 24243 net.cpp:399] inception_4d/output_inception_4d/output_0_split -> inception_4d/output_inception_4d/output_0_split_4
I0403 21:47:16.623500 24243 net.cpp:141] Setting up inception_4d/output_inception_4d/output_0_split
I0403 21:47:16.623536 24243 net.cpp:148] Top shape: 24 528 14 14 (2483712)
I0403 21:47:16.623558 24243 net.cpp:148] Top shape: 24 528 14 14 (2483712)
I0403 21:47:16.623575 24243 net.cpp:148] Top shape: 24 528 14 14 (2483712)
I0403 21:47:16.623591 24243 net.cpp:148] Top shape: 24 528 14 14 (2483712)
I0403 21:47:16.623608 24243 net.cpp:148] Top shape: 24 528 14 14 (2483712)
I0403 21:47:16.623623 24243 net.cpp:156] Memory required for data: 1206918432
I0403 21:47:16.623637 24243 layer_factory.hpp:77] Creating layer loss2/ave_pool
I0403 21:47:16.623656 24243 net.cpp:91] Creating Layer loss2/ave_pool
I0403 21:47:16.623672 24243 net.cpp:425] loss2/ave_pool <- inception_4d/output_inception_4d/output_0_split_0
I0403 21:47:16.623694 24243 net.cpp:399] loss2/ave_pool -> loss2/ave_pool
I0403 21:47:16.624011 24243 net.cpp:141] Setting up loss2/ave_pool
I0403 21:47:16.624038 24243 net.cpp:148] Top shape: 24 528 4 4 (202752)
I0403 21:47:16.624055 24243 net.cpp:156] Memory required for data: 1207729440
I0403 21:47:16.624071 24243 layer_factory.hpp:77] Creating layer loss2/conv
I0403 21:47:16.624094 24243 net.cpp:91] Creating Layer loss2/conv
I0403 21:47:16.624114 24243 net.cpp:425] loss2/conv <- loss2/ave_pool
I0403 21:47:16.624136 24243 net.cpp:399] loss2/conv -> loss2/conv
I0403 21:47:16.626056 24243 net.cpp:141] Setting up loss2/conv
I0403 21:47:16.626086 24243 net.cpp:148] Top shape: 24 128 4 4 (49152)
I0403 21:47:16.626103 24243 net.cpp:156] Memory required for data: 1207926048
I0403 21:47:16.626122 24243 layer_factory.hpp:77] Creating layer loss2/relu_conv
I0403 21:47:16.626144 24243 net.cpp:91] Creating Layer loss2/relu_conv
I0403 21:47:16.626163 24243 net.cpp:425] loss2/relu_conv <- loss2/conv
I0403 21:47:16.626191 24243 net.cpp:386] loss2/relu_conv -> loss2/conv (in-place)
I0403 21:47:16.626487 24243 net.cpp:141] Setting up loss2/relu_conv
I0403 21:47:16.626515 24243 net.cpp:148] Top shape: 24 128 4 4 (49152)
I0403 21:47:16.626531 24243 net.cpp:156] Memory required for data: 1208122656
I0403 21:47:16.626548 24243 layer_factory.hpp:77] Creating layer loss2/fc
I0403 21:47:16.626569 24243 net.cpp:91] Creating Layer loss2/fc
I0403 21:47:16.626587 24243 net.cpp:425] loss2/fc <- loss2/conv
I0403 21:47:16.626607 24243 net.cpp:399] loss2/fc -> loss2/fc
I0403 21:47:16.644129 24243 net.cpp:141] Setting up loss2/fc
I0403 21:47:16.644165 24243 net.cpp:148] Top shape: 24 1024 (24576)
I0403 21:47:16.644181 24243 net.cpp:156] Memory required for data: 1208220960
I0403 21:47:16.644201 24243 layer_factory.hpp:77] Creating layer loss2/relu_fc
I0403 21:47:16.644218 24243 net.cpp:91] Creating Layer loss2/relu_fc
I0403 21:47:16.644240 24243 net.cpp:425] loss2/relu_fc <- loss2/fc
I0403 21:47:16.644261 24243 net.cpp:386] loss2/relu_fc -> loss2/fc (in-place)
I0403 21:47:16.644559 24243 net.cpp:141] Setting up loss2/relu_fc
I0403 21:47:16.644587 24243 net.cpp:148] Top shape: 24 1024 (24576)
I0403 21:47:16.644603 24243 net.cpp:156] Memory required for data: 1208319264
I0403 21:47:16.644618 24243 layer_factory.hpp:77] Creating layer loss2/drop_fc
I0403 21:47:16.644637 24243 net.cpp:91] Creating Layer loss2/drop_fc
I0403 21:47:16.644654 24243 net.cpp:425] loss2/drop_fc <- loss2/fc
I0403 21:47:16.644675 24243 net.cpp:386] loss2/drop_fc -> loss2/fc (in-place)
I0403 21:47:16.644722 24243 net.cpp:141] Setting up loss2/drop_fc
I0403 21:47:16.644747 24243 net.cpp:148] Top shape: 24 1024 (24576)
I0403 21:47:16.644762 24243 net.cpp:156] Memory required for data: 1208417568
I0403 21:47:16.644776 24243 layer_factory.hpp:77] Creating layer loss2/classifier_plantvillage
I0403 21:47:16.644799 24243 net.cpp:91] Creating Layer loss2/classifier_plantvillage
I0403 21:47:16.644817 24243 net.cpp:425] loss2/classifier_plantvillage <- loss2/fc
I0403 21:47:16.644839 24243 net.cpp:399] loss2/classifier_plantvillage -> loss2/classifier_plantvillage
I0403 21:47:16.645234 24243 net.cpp:141] Setting up loss2/classifier_plantvillage
I0403 21:47:16.645262 24243 net.cpp:148] Top shape: 24 38 (912)
I0403 21:47:16.645295 24243 net.cpp:156] Memory required for data: 1208421216
I0403 21:47:16.645314 24243 layer_factory.hpp:77] Creating layer loss2/classifier_plantvillage_loss2/classifier_plantvillage_0_split
I0403 21:47:16.645333 24243 net.cpp:91] Creating Layer loss2/classifier_plantvillage_loss2/classifier_plantvillage_0_split
I0403 21:47:16.645349 24243 net.cpp:425] loss2/classifier_plantvillage_loss2/classifier_plantvillage_0_split <- loss2/classifier_plantvillage
I0403 21:47:16.645366 24243 net.cpp:399] loss2/classifier_plantvillage_loss2/classifier_plantvillage_0_split -> loss2/classifier_plantvillage_loss2/classifier_plantvillage_0_split_0
I0403 21:47:16.645387 24243 net.cpp:399] loss2/classifier_plantvillage_loss2/classifier_plantvillage_0_split -> loss2/classifier_plantvillage_loss2/classifier_plantvillage_0_split_1
I0403 21:47:16.645409 24243 net.cpp:399] loss2/classifier_plantvillage_loss2/classifier_plantvillage_0_split -> loss2/classifier_plantvillage_loss2/classifier_plantvillage_0_split_2
I0403 21:47:16.645488 24243 net.cpp:141] Setting up loss2/classifier_plantvillage_loss2/classifier_plantvillage_0_split
I0403 21:47:16.645511 24243 net.cpp:148] Top shape: 24 38 (912)
I0403 21:47:16.645529 24243 net.cpp:148] Top shape: 24 38 (912)
I0403 21:47:16.645544 24243 net.cpp:148] Top shape: 24 38 (912)
I0403 21:47:16.645558 24243 net.cpp:156] Memory required for data: 1208432160
I0403 21:47:16.645572 24243 layer_factory.hpp:77] Creating layer inception_4e/1x1
I0403 21:47:16.645592 24243 net.cpp:91] Creating Layer inception_4e/1x1
I0403 21:47:16.645609 24243 net.cpp:425] inception_4e/1x1 <- inception_4d/output_inception_4d/output_0_split_1
I0403 21:47:16.645632 24243 net.cpp:399] inception_4e/1x1 -> inception_4e/1x1
I0403 21:47:16.647411 24243 net.cpp:141] Setting up inception_4e/1x1
I0403 21:47:16.647439 24243 net.cpp:148] Top shape: 24 256 14 14 (1204224)
I0403 21:47:16.647456 24243 net.cpp:156] Memory required for data: 1213249056
I0403 21:47:16.647475 24243 layer_factory.hpp:77] Creating layer inception_4e/relu_1x1
I0403 21:47:16.647495 24243 net.cpp:91] Creating Layer inception_4e/relu_1x1
I0403 21:47:16.647512 24243 net.cpp:425] inception_4e/relu_1x1 <- inception_4e/1x1
I0403 21:47:16.647531 24243 net.cpp:386] inception_4e/relu_1x1 -> inception_4e/1x1 (in-place)
I0403 21:47:16.647819 24243 net.cpp:141] Setting up inception_4e/relu_1x1
I0403 21:47:16.647845 24243 net.cpp:148] Top shape: 24 256 14 14 (1204224)
I0403 21:47:16.647861 24243 net.cpp:156] Memory required for data: 1218065952
I0403 21:47:16.647876 24243 layer_factory.hpp:77] Creating layer inception_4e/3x3_reduce
I0403 21:47:16.647902 24243 net.cpp:91] Creating Layer inception_4e/3x3_reduce
I0403 21:47:16.647922 24243 net.cpp:425] inception_4e/3x3_reduce <- inception_4d/output_inception_4d/output_0_split_2
I0403 21:47:16.647943 24243 net.cpp:399] inception_4e/3x3_reduce -> inception_4e/3x3_reduce
I0403 21:47:16.650033 24243 net.cpp:141] Setting up inception_4e/3x3_reduce
I0403 21:47:16.650063 24243 net.cpp:148] Top shape: 24 160 14 14 (752640)
I0403 21:47:16.650080 24243 net.cpp:156] Memory required for data: 1221076512
I0403 21:47:16.650099 24243 layer_factory.hpp:77] Creating layer inception_4e/relu_3x3_reduce
I0403 21:47:16.650120 24243 net.cpp:91] Creating Layer inception_4e/relu_3x3_reduce
I0403 21:47:16.650137 24243 net.cpp:425] inception_4e/relu_3x3_reduce <- inception_4e/3x3_reduce
I0403 21:47:16.650156 24243 net.cpp:386] inception_4e/relu_3x3_reduce -> inception_4e/3x3_reduce (in-place)
I0403 21:47:16.650342 24243 net.cpp:141] Setting up inception_4e/relu_3x3_reduce
I0403 21:47:16.650368 24243 net.cpp:148] Top shape: 24 160 14 14 (752640)
I0403 21:47:16.650383 24243 net.cpp:156] Memory required for data: 1224087072
I0403 21:47:16.650398 24243 layer_factory.hpp:77] Creating layer inception_4e/3x3
I0403 21:47:16.650421 24243 net.cpp:91] Creating Layer inception_4e/3x3
I0403 21:47:16.650439 24243 net.cpp:425] inception_4e/3x3 <- inception_4e/3x3_reduce
I0403 21:47:16.650459 24243 net.cpp:399] inception_4e/3x3 -> inception_4e/3x3
I0403 21:47:16.655352 24243 net.cpp:141] Setting up inception_4e/3x3
I0403 21:47:16.655393 24243 net.cpp:148] Top shape: 24 320 14 14 (1505280)
I0403 21:47:16.655411 24243 net.cpp:156] Memory required for data: 1230108192
I0403 21:47:16.655431 24243 layer_factory.hpp:77] Creating layer inception_4e/relu_3x3
I0403 21:47:16.655452 24243 net.cpp:91] Creating Layer inception_4e/relu_3x3
I0403 21:47:16.655469 24243 net.cpp:425] inception_4e/relu_3x3 <- inception_4e/3x3
I0403 21:47:16.655488 24243 net.cpp:386] inception_4e/relu_3x3 -> inception_4e/3x3 (in-place)
I0403 21:47:16.655779 24243 net.cpp:141] Setting up inception_4e/relu_3x3
I0403 21:47:16.655808 24243 net.cpp:148] Top shape: 24 320 14 14 (1505280)
I0403 21:47:16.655824 24243 net.cpp:156] Memory required for data: 1236129312
I0403 21:47:16.655839 24243 layer_factory.hpp:77] Creating layer inception_4e/5x5_reduce
I0403 21:47:16.655864 24243 net.cpp:91] Creating Layer inception_4e/5x5_reduce
I0403 21:47:16.655882 24243 net.cpp:425] inception_4e/5x5_reduce <- inception_4d/output_inception_4d/output_0_split_3
I0403 21:47:16.655903 24243 net.cpp:399] inception_4e/5x5_reduce -> inception_4e/5x5_reduce
I0403 21:47:16.656955 24243 net.cpp:141] Setting up inception_4e/5x5_reduce
I0403 21:47:16.656982 24243 net.cpp:148] Top shape: 24 32 14 14 (150528)
I0403 21:47:16.656998 24243 net.cpp:156] Memory required for data: 1236731424
I0403 21:47:16.657017 24243 layer_factory.hpp:77] Creating layer inception_4e/relu_5x5_reduce
I0403 21:47:16.657037 24243 net.cpp:91] Creating Layer inception_4e/relu_5x5_reduce
I0403 21:47:16.657057 24243 net.cpp:425] inception_4e/relu_5x5_reduce <- inception_4e/5x5_reduce
I0403 21:47:16.657074 24243 net.cpp:386] inception_4e/relu_5x5_reduce -> inception_4e/5x5_reduce (in-place)
I0403 21:47:16.657418 24243 net.cpp:141] Setting up inception_4e/relu_5x5_reduce
I0403 21:47:16.657444 24243 net.cpp:148] Top shape: 24 32 14 14 (150528)
I0403 21:47:16.657459 24243 net.cpp:156] Memory required for data: 1237333536
I0403 21:47:16.657475 24243 layer_factory.hpp:77] Creating layer inception_4e/5x5
I0403 21:47:16.657511 24243 net.cpp:91] Creating Layer inception_4e/5x5
I0403 21:47:16.657531 24243 net.cpp:425] inception_4e/5x5 <- inception_4e/5x5_reduce
I0403 21:47:16.657552 24243 net.cpp:399] inception_4e/5x5 -> inception_4e/5x5
I0403 21:47:16.659379 24243 net.cpp:141] Setting up inception_4e/5x5
I0403 21:47:16.659407 24243 net.cpp:148] Top shape: 24 128 14 14 (602112)
I0403 21:47:16.659423 24243 net.cpp:156] Memory required for data: 1239741984
I0403 21:47:16.659443 24243 layer_factory.hpp:77] Creating layer inception_4e/relu_5x5
I0403 21:47:16.659461 24243 net.cpp:91] Creating Layer inception_4e/relu_5x5
I0403 21:47:16.659477 24243 net.cpp:425] inception_4e/relu_5x5 <- inception_4e/5x5
I0403 21:47:16.659497 24243 net.cpp:386] inception_4e/relu_5x5 -> inception_4e/5x5 (in-place)
I0403 21:47:16.659690 24243 net.cpp:141] Setting up inception_4e/relu_5x5
I0403 21:47:16.659715 24243 net.cpp:148] Top shape: 24 128 14 14 (602112)
I0403 21:47:16.659730 24243 net.cpp:156] Memory required for data: 1242150432
I0403 21:47:16.659746 24243 layer_factory.hpp:77] Creating layer inception_4e/pool
I0403 21:47:16.659765 24243 net.cpp:91] Creating Layer inception_4e/pool
I0403 21:47:16.659781 24243 net.cpp:425] inception_4e/pool <- inception_4d/output_inception_4d/output_0_split_4
I0403 21:47:16.659801 24243 net.cpp:399] inception_4e/pool -> inception_4e/pool
I0403 21:47:16.659869 24243 net.cpp:141] Setting up inception_4e/pool
I0403 21:47:16.659893 24243 net.cpp:148] Top shape: 24 528 14 14 (2483712)
I0403 21:47:16.659909 24243 net.cpp:156] Memory required for data: 1252085280
I0403 21:47:16.659924 24243 layer_factory.hpp:77] Creating layer inception_4e/pool_proj
I0403 21:47:16.659945 24243 net.cpp:91] Creating Layer inception_4e/pool_proj
I0403 21:47:16.659965 24243 net.cpp:425] inception_4e/pool_proj <- inception_4e/pool
I0403 21:47:16.659984 24243 net.cpp:399] inception_4e/pool_proj -> inception_4e/pool_proj
I0403 21:47:16.661489 24243 net.cpp:141] Setting up inception_4e/pool_proj
I0403 21:47:16.661527 24243 net.cpp:148] Top shape: 24 128 14 14 (602112)
I0403 21:47:16.661543 24243 net.cpp:156] Memory required for data: 1254493728
I0403 21:47:16.661561 24243 layer_factory.hpp:77] Creating layer inception_4e/relu_pool_proj
I0403 21:47:16.661579 24243 net.cpp:91] Creating Layer inception_4e/relu_pool_proj
I0403 21:47:16.661597 24243 net.cpp:425] inception_4e/relu_pool_proj <- inception_4e/pool_proj
I0403 21:47:16.661617 24243 net.cpp:386] inception_4e/relu_pool_proj -> inception_4e/pool_proj (in-place)
I0403 21:47:16.661908 24243 net.cpp:141] Setting up inception_4e/relu_pool_proj
I0403 21:47:16.661934 24243 net.cpp:148] Top shape: 24 128 14 14 (602112)
I0403 21:47:16.661952 24243 net.cpp:156] Memory required for data: 1256902176
I0403 21:47:16.661968 24243 layer_factory.hpp:77] Creating layer inception_4e/output
I0403 21:47:16.661986 24243 net.cpp:91] Creating Layer inception_4e/output
I0403 21:47:16.662003 24243 net.cpp:425] inception_4e/output <- inception_4e/1x1
I0403 21:47:16.662020 24243 net.cpp:425] inception_4e/output <- inception_4e/3x3
I0403 21:47:16.662037 24243 net.cpp:425] inception_4e/output <- inception_4e/5x5
I0403 21:47:16.662052 24243 net.cpp:425] inception_4e/output <- inception_4e/pool_proj
I0403 21:47:16.662071 24243 net.cpp:399] inception_4e/output -> inception_4e/output
I0403 21:47:16.662120 24243 net.cpp:141] Setting up inception_4e/output
I0403 21:47:16.662147 24243 net.cpp:148] Top shape: 24 832 14 14 (3913728)
I0403 21:47:16.662163 24243 net.cpp:156] Memory required for data: 1272557088
I0403 21:47:16.662189 24243 layer_factory.hpp:77] Creating layer pool4/3x3_s2
I0403 21:47:16.662206 24243 net.cpp:91] Creating Layer pool4/3x3_s2
I0403 21:47:16.662222 24243 net.cpp:425] pool4/3x3_s2 <- inception_4e/output
I0403 21:47:16.662246 24243 net.cpp:399] pool4/3x3_s2 -> pool4/3x3_s2
I0403 21:47:16.662315 24243 net.cpp:141] Setting up pool4/3x3_s2
I0403 21:47:16.662340 24243 net.cpp:148] Top shape: 24 832 7 7 (978432)
I0403 21:47:16.662356 24243 net.cpp:156] Memory required for data: 1276470816
I0403 21:47:16.662371 24243 layer_factory.hpp:77] Creating layer pool4/3x3_s2_pool4/3x3_s2_0_split
I0403 21:47:16.662389 24243 net.cpp:91] Creating Layer pool4/3x3_s2_pool4/3x3_s2_0_split
I0403 21:47:16.662403 24243 net.cpp:425] pool4/3x3_s2_pool4/3x3_s2_0_split <- pool4/3x3_s2
I0403 21:47:16.662425 24243 net.cpp:399] pool4/3x3_s2_pool4/3x3_s2_0_split -> pool4/3x3_s2_pool4/3x3_s2_0_split_0
I0403 21:47:16.662446 24243 net.cpp:399] pool4/3x3_s2_pool4/3x3_s2_0_split -> pool4/3x3_s2_pool4/3x3_s2_0_split_1
I0403 21:47:16.662477 24243 net.cpp:399] pool4/3x3_s2_pool4/3x3_s2_0_split -> pool4/3x3_s2_pool4/3x3_s2_0_split_2
I0403 21:47:16.662497 24243 net.cpp:399] pool4/3x3_s2_pool4/3x3_s2_0_split -> pool4/3x3_s2_pool4/3x3_s2_0_split_3
I0403 21:47:16.662587 24243 net.cpp:141] Setting up pool4/3x3_s2_pool4/3x3_s2_0_split
I0403 21:47:16.662611 24243 net.cpp:148] Top shape: 24 832 7 7 (978432)
I0403 21:47:16.662629 24243 net.cpp:148] Top shape: 24 832 7 7 (978432)
I0403 21:47:16.662645 24243 net.cpp:148] Top shape: 24 832 7 7 (978432)
I0403 21:47:16.662662 24243 net.cpp:148] Top shape: 24 832 7 7 (978432)
I0403 21:47:16.662675 24243 net.cpp:156] Memory required for data: 1292125728
I0403 21:47:16.662690 24243 layer_factory.hpp:77] Creating layer inception_5a/1x1
I0403 21:47:16.662713 24243 net.cpp:91] Creating Layer inception_5a/1x1
I0403 21:47:16.662731 24243 net.cpp:425] inception_5a/1x1 <- pool4/3x3_s2_pool4/3x3_s2_0_split_0
I0403 21:47:16.662752 24243 net.cpp:399] inception_5a/1x1 -> inception_5a/1x1
I0403 21:47:16.665558 24243 net.cpp:141] Setting up inception_5a/1x1
I0403 21:47:16.665587 24243 net.cpp:148] Top shape: 24 256 7 7 (301056)
I0403 21:47:16.665603 24243 net.cpp:156] Memory required for data: 1293329952
I0403 21:47:16.665621 24243 layer_factory.hpp:77] Creating layer inception_5a/relu_1x1
I0403 21:47:16.665642 24243 net.cpp:91] Creating Layer inception_5a/relu_1x1
I0403 21:47:16.665659 24243 net.cpp:425] inception_5a/relu_1x1 <- inception_5a/1x1
I0403 21:47:16.665678 24243 net.cpp:386] inception_5a/relu_1x1 -> inception_5a/1x1 (in-place)
I0403 21:47:16.665987 24243 net.cpp:141] Setting up inception_5a/relu_1x1
I0403 21:47:16.666014 24243 net.cpp:148] Top shape: 24 256 7 7 (301056)
I0403 21:47:16.666030 24243 net.cpp:156] Memory required for data: 1294534176
I0403 21:47:16.666045 24243 layer_factory.hpp:77] Creating layer inception_5a/3x3_reduce
I0403 21:47:16.666069 24243 net.cpp:91] Creating Layer inception_5a/3x3_reduce
I0403 21:47:16.666086 24243 net.cpp:425] inception_5a/3x3_reduce <- pool4/3x3_s2_pool4/3x3_s2_0_split_1
I0403 21:47:16.666108 24243 net.cpp:399] inception_5a/3x3_reduce -> inception_5a/3x3_reduce
I0403 21:47:16.668553 24243 net.cpp:141] Setting up inception_5a/3x3_reduce
I0403 21:47:16.668586 24243 net.cpp:148] Top shape: 24 160 7 7 (188160)
I0403 21:47:16.668603 24243 net.cpp:156] Memory required for data: 1295286816
I0403 21:47:16.668622 24243 layer_factory.hpp:77] Creating layer inception_5a/relu_3x3_reduce
I0403 21:47:16.668640 24243 net.cpp:91] Creating Layer inception_5a/relu_3x3_reduce
I0403 21:47:16.668658 24243 net.cpp:425] inception_5a/relu_3x3_reduce <- inception_5a/3x3_reduce
I0403 21:47:16.668675 24243 net.cpp:386] inception_5a/relu_3x3_reduce -> inception_5a/3x3_reduce (in-place)
I0403 21:47:16.668862 24243 net.cpp:141] Setting up inception_5a/relu_3x3_reduce
I0403 21:47:16.668887 24243 net.cpp:148] Top shape: 24 160 7 7 (188160)
I0403 21:47:16.668903 24243 net.cpp:156] Memory required for data: 1296039456
I0403 21:47:16.668931 24243 layer_factory.hpp:77] Creating layer inception_5a/3x3
I0403 21:47:16.668954 24243 net.cpp:91] Creating Layer inception_5a/3x3
I0403 21:47:16.668974 24243 net.cpp:425] inception_5a/3x3 <- inception_5a/3x3_reduce
I0403 21:47:16.668998 24243 net.cpp:399] inception_5a/3x3 -> inception_5a/3x3
I0403 21:47:16.674002 24243 net.cpp:141] Setting up inception_5a/3x3
I0403 21:47:16.674031 24243 net.cpp:148] Top shape: 24 320 7 7 (376320)
I0403 21:47:16.674047 24243 net.cpp:156] Memory required for data: 1297544736
I0403 21:47:16.674067 24243 layer_factory.hpp:77] Creating layer inception_5a/relu_3x3
I0403 21:47:16.674085 24243 net.cpp:91] Creating Layer inception_5a/relu_3x3
I0403 21:47:16.674103 24243 net.cpp:425] inception_5a/relu_3x3 <- inception_5a/3x3
I0403 21:47:16.674123 24243 net.cpp:386] inception_5a/relu_3x3 -> inception_5a/3x3 (in-place)
I0403 21:47:16.674424 24243 net.cpp:141] Setting up inception_5a/relu_3x3
I0403 21:47:16.674451 24243 net.cpp:148] Top shape: 24 320 7 7 (376320)
I0403 21:47:16.674468 24243 net.cpp:156] Memory required for data: 1299050016
I0403 21:47:16.674487 24243 layer_factory.hpp:77] Creating layer inception_5a/5x5_reduce
I0403 21:47:16.674510 24243 net.cpp:91] Creating Layer inception_5a/5x5_reduce
I0403 21:47:16.674528 24243 net.cpp:425] inception_5a/5x5_reduce <- pool4/3x3_s2_pool4/3x3_s2_0_split_2
I0403 21:47:16.674549 24243 net.cpp:399] inception_5a/5x5_reduce -> inception_5a/5x5_reduce
I0403 21:47:16.675710 24243 net.cpp:141] Setting up inception_5a/5x5_reduce
I0403 21:47:16.675739 24243 net.cpp:148] Top shape: 24 32 7 7 (37632)
I0403 21:47:16.675755 24243 net.cpp:156] Memory required for data: 1299200544
I0403 21:47:16.675775 24243 layer_factory.hpp:77] Creating layer inception_5a/relu_5x5_reduce
I0403 21:47:16.675794 24243 net.cpp:91] Creating Layer inception_5a/relu_5x5_reduce
I0403 21:47:16.675812 24243 net.cpp:425] inception_5a/relu_5x5_reduce <- inception_5a/5x5_reduce
I0403 21:47:16.675829 24243 net.cpp:386] inception_5a/relu_5x5_reduce -> inception_5a/5x5_reduce (in-place)
I0403 21:47:16.676121 24243 net.cpp:141] Setting up inception_5a/relu_5x5_reduce
I0403 21:47:16.676147 24243 net.cpp:148] Top shape: 24 32 7 7 (37632)
I0403 21:47:16.676162 24243 net.cpp:156] Memory required for data: 1299351072
I0403 21:47:16.676178 24243 layer_factory.hpp:77] Creating layer inception_5a/5x5
I0403 21:47:16.676200 24243 net.cpp:91] Creating Layer inception_5a/5x5
I0403 21:47:16.676219 24243 net.cpp:425] inception_5a/5x5 <- inception_5a/5x5_reduce
I0403 21:47:16.676246 24243 net.cpp:399] inception_5a/5x5 -> inception_5a/5x5
I0403 21:47:16.677922 24243 net.cpp:141] Setting up inception_5a/5x5
I0403 21:47:16.677963 24243 net.cpp:148] Top shape: 24 128 7 7 (150528)
I0403 21:47:16.677980 24243 net.cpp:156] Memory required for data: 1299953184
I0403 21:47:16.677999 24243 layer_factory.hpp:77] Creating layer inception_5a/relu_5x5
I0403 21:47:16.678016 24243 net.cpp:91] Creating Layer inception_5a/relu_5x5
I0403 21:47:16.678035 24243 net.cpp:425] inception_5a/relu_5x5 <- inception_5a/5x5
I0403 21:47:16.678056 24243 net.cpp:386] inception_5a/relu_5x5 -> inception_5a/5x5 (in-place)
I0403 21:47:16.678282 24243 net.cpp:141] Setting up inception_5a/relu_5x5
I0403 21:47:16.678308 24243 net.cpp:148] Top shape: 24 128 7 7 (150528)
I0403 21:47:16.678324 24243 net.cpp:156] Memory required for data: 1300555296
I0403 21:47:16.678339 24243 layer_factory.hpp:77] Creating layer inception_5a/pool
I0403 21:47:16.678359 24243 net.cpp:91] Creating Layer inception_5a/pool
I0403 21:47:16.678376 24243 net.cpp:425] inception_5a/pool <- pool4/3x3_s2_pool4/3x3_s2_0_split_3
I0403 21:47:16.678395 24243 net.cpp:399] inception_5a/pool -> inception_5a/pool
I0403 21:47:16.678477 24243 net.cpp:141] Setting up inception_5a/pool
I0403 21:47:16.678500 24243 net.cpp:148] Top shape: 24 832 7 7 (978432)
I0403 21:47:16.678514 24243 net.cpp:156] Memory required for data: 1304469024
I0403 21:47:16.678529 24243 layer_factory.hpp:77] Creating layer inception_5a/pool_proj
I0403 21:47:16.678550 24243 net.cpp:91] Creating Layer inception_5a/pool_proj
I0403 21:47:16.678568 24243 net.cpp:425] inception_5a/pool_proj <- inception_5a/pool
I0403 21:47:16.678591 24243 net.cpp:399] inception_5a/pool_proj -> inception_5a/pool_proj
I0403 21:47:16.680902 24243 net.cpp:141] Setting up inception_5a/pool_proj
I0403 21:47:16.680933 24243 net.cpp:148] Top shape: 24 128 7 7 (150528)
I0403 21:47:16.680953 24243 net.cpp:156] Memory required for data: 1305071136
I0403 21:47:16.680973 24243 layer_factory.hpp:77] Creating layer inception_5a/relu_pool_proj
I0403 21:47:16.680991 24243 net.cpp:91] Creating Layer inception_5a/relu_pool_proj
I0403 21:47:16.681010 24243 net.cpp:425] inception_5a/relu_pool_proj <- inception_5a/pool_proj
I0403 21:47:16.681031 24243 net.cpp:386] inception_5a/relu_pool_proj -> inception_5a/pool_proj (in-place)
I0403 21:47:16.681329 24243 net.cpp:141] Setting up inception_5a/relu_pool_proj
I0403 21:47:16.681359 24243 net.cpp:148] Top shape: 24 128 7 7 (150528)
I0403 21:47:16.681376 24243 net.cpp:156] Memory required for data: 1305673248
I0403 21:47:16.681392 24243 layer_factory.hpp:77] Creating layer inception_5a/output
I0403 21:47:16.681411 24243 net.cpp:91] Creating Layer inception_5a/output
I0403 21:47:16.681427 24243 net.cpp:425] inception_5a/output <- inception_5a/1x1
I0403 21:47:16.681445 24243 net.cpp:425] inception_5a/output <- inception_5a/3x3
I0403 21:47:16.681463 24243 net.cpp:425] inception_5a/output <- inception_5a/5x5
I0403 21:47:16.681478 24243 net.cpp:425] inception_5a/output <- inception_5a/pool_proj
I0403 21:47:16.681499 24243 net.cpp:399] inception_5a/output -> inception_5a/output
I0403 21:47:16.681550 24243 net.cpp:141] Setting up inception_5a/output
I0403 21:47:16.681574 24243 net.cpp:148] Top shape: 24 832 7 7 (978432)
I0403 21:47:16.681589 24243 net.cpp:156] Memory required for data: 1309586976
I0403 21:47:16.681605 24243 layer_factory.hpp:77] Creating layer inception_5a/output_inception_5a/output_0_split
I0403 21:47:16.681627 24243 net.cpp:91] Creating Layer inception_5a/output_inception_5a/output_0_split
I0403 21:47:16.681644 24243 net.cpp:425] inception_5a/output_inception_5a/output_0_split <- inception_5a/output
I0403 21:47:16.681663 24243 net.cpp:399] inception_5a/output_inception_5a/output_0_split -> inception_5a/output_inception_5a/output_0_split_0
I0403 21:47:16.681685 24243 net.cpp:399] inception_5a/output_inception_5a/output_0_split -> inception_5a/output_inception_5a/output_0_split_1
I0403 21:47:16.681710 24243 net.cpp:399] inception_5a/output_inception_5a/output_0_split -> inception_5a/output_inception_5a/output_0_split_2
I0403 21:47:16.681732 24243 net.cpp:399] inception_5a/output_inception_5a/output_0_split -> inception_5a/output_inception_5a/output_0_split_3
I0403 21:47:16.681843 24243 net.cpp:141] Setting up inception_5a/output_inception_5a/output_0_split
I0403 21:47:16.681869 24243 net.cpp:148] Top shape: 24 832 7 7 (978432)
I0403 21:47:16.681886 24243 net.cpp:148] Top shape: 24 832 7 7 (978432)
I0403 21:47:16.681903 24243 net.cpp:148] Top shape: 24 832 7 7 (978432)
I0403 21:47:16.681920 24243 net.cpp:148] Top shape: 24 832 7 7 (978432)
I0403 21:47:16.681934 24243 net.cpp:156] Memory required for data: 1325241888
I0403 21:47:16.681954 24243 layer_factory.hpp:77] Creating layer inception_5b/1x1
I0403 21:47:16.681978 24243 net.cpp:91] Creating Layer inception_5b/1x1
I0403 21:47:16.681998 24243 net.cpp:425] inception_5b/1x1 <- inception_5a/output_inception_5a/output_0_split_0
I0403 21:47:16.682019 24243 net.cpp:399] inception_5b/1x1 -> inception_5b/1x1
I0403 21:47:16.685829 24243 net.cpp:141] Setting up inception_5b/1x1
I0403 21:47:16.685863 24243 net.cpp:148] Top shape: 24 384 7 7 (451584)
I0403 21:47:16.685879 24243 net.cpp:156] Memory required for data: 1327048224
I0403 21:47:16.685899 24243 layer_factory.hpp:77] Creating layer inception_5b/relu_1x1
I0403 21:47:16.685916 24243 net.cpp:91] Creating Layer inception_5b/relu_1x1
I0403 21:47:16.685935 24243 net.cpp:425] inception_5b/relu_1x1 <- inception_5b/1x1
I0403 21:47:16.685956 24243 net.cpp:386] inception_5b/relu_1x1 -> inception_5b/1x1 (in-place)
I0403 21:47:16.686280 24243 net.cpp:141] Setting up inception_5b/relu_1x1
I0403 21:47:16.686308 24243 net.cpp:148] Top shape: 24 384 7 7 (451584)
I0403 21:47:16.686326 24243 net.cpp:156] Memory required for data: 1328854560
I0403 21:47:16.686342 24243 layer_factory.hpp:77] Creating layer inception_5b/3x3_reduce
I0403 21:47:16.686364 24243 net.cpp:91] Creating Layer inception_5b/3x3_reduce
I0403 21:47:16.686384 24243 net.cpp:425] inception_5b/3x3_reduce <- inception_5a/output_inception_5a/output_0_split_1
I0403 21:47:16.686404 24243 net.cpp:399] inception_5b/3x3_reduce -> inception_5b/3x3_reduce
I0403 21:47:16.689159 24243 net.cpp:141] Setting up inception_5b/3x3_reduce
I0403 21:47:16.689191 24243 net.cpp:148] Top shape: 24 192 7 7 (225792)
I0403 21:47:16.689209 24243 net.cpp:156] Memory required for data: 1329757728
I0403 21:47:16.689234 24243 layer_factory.hpp:77] Creating layer inception_5b/relu_3x3_reduce
I0403 21:47:16.689254 24243 net.cpp:91] Creating Layer inception_5b/relu_3x3_reduce
I0403 21:47:16.689270 24243 net.cpp:425] inception_5b/relu_3x3_reduce <- inception_5b/3x3_reduce
I0403 21:47:16.689291 24243 net.cpp:386] inception_5b/relu_3x3_reduce -> inception_5b/3x3_reduce (in-place)
I0403 21:47:16.689481 24243 net.cpp:141] Setting up inception_5b/relu_3x3_reduce
I0403 21:47:16.689507 24243 net.cpp:148] Top shape: 24 192 7 7 (225792)
I0403 21:47:16.689522 24243 net.cpp:156] Memory required for data: 1330660896
I0403 21:47:16.689538 24243 layer_factory.hpp:77] Creating layer inception_5b/3x3
I0403 21:47:16.689561 24243 net.cpp:91] Creating Layer inception_5b/3x3
I0403 21:47:16.689579 24243 net.cpp:425] inception_5b/3x3 <- inception_5b/3x3_reduce
I0403 21:47:16.689605 24243 net.cpp:399] inception_5b/3x3 -> inception_5b/3x3
I0403 21:47:16.696590 24243 net.cpp:141] Setting up inception_5b/3x3
I0403 21:47:16.696622 24243 net.cpp:148] Top shape: 24 384 7 7 (451584)
I0403 21:47:16.696640 24243 net.cpp:156] Memory required for data: 1332467232
I0403 21:47:16.696660 24243 layer_factory.hpp:77] Creating layer inception_5b/relu_3x3
I0403 21:47:16.696678 24243 net.cpp:91] Creating Layer inception_5b/relu_3x3
I0403 21:47:16.696696 24243 net.cpp:425] inception_5b/relu_3x3 <- inception_5b/3x3
I0403 21:47:16.696715 24243 net.cpp:386] inception_5b/relu_3x3 -> inception_5b/3x3 (in-place)
I0403 21:47:16.697021 24243 net.cpp:141] Setting up inception_5b/relu_3x3
I0403 21:47:16.697051 24243 net.cpp:148] Top shape: 24 384 7 7 (451584)
I0403 21:47:16.697065 24243 net.cpp:156] Memory required for data: 1334273568
I0403 21:47:16.697082 24243 layer_factory.hpp:77] Creating layer inception_5b/5x5_reduce
I0403 21:47:16.697118 24243 net.cpp:91] Creating Layer inception_5b/5x5_reduce
I0403 21:47:16.697139 24243 net.cpp:425] inception_5b/5x5_reduce <- inception_5a/output_inception_5a/output_0_split_2
I0403 21:47:16.697159 24243 net.cpp:399] inception_5b/5x5_reduce -> inception_5b/5x5_reduce
I0403 21:47:16.698441 24243 net.cpp:141] Setting up inception_5b/5x5_reduce
I0403 21:47:16.698478 24243 net.cpp:148] Top shape: 24 48 7 7 (56448)
I0403 21:47:16.698495 24243 net.cpp:156] Memory required for data: 1334499360
I0403 21:47:16.698514 24243 layer_factory.hpp:77] Creating layer inception_5b/relu_5x5_reduce
I0403 21:47:16.698532 24243 net.cpp:91] Creating Layer inception_5b/relu_5x5_reduce
I0403 21:47:16.698549 24243 net.cpp:425] inception_5b/relu_5x5_reduce <- inception_5b/5x5_reduce
I0403 21:47:16.698570 24243 net.cpp:386] inception_5b/relu_5x5_reduce -> inception_5b/5x5_reduce (in-place)
I0403 21:47:16.698941 24243 net.cpp:141] Setting up inception_5b/relu_5x5_reduce
I0403 21:47:16.698968 24243 net.cpp:148] Top shape: 24 48 7 7 (56448)
I0403 21:47:16.698984 24243 net.cpp:156] Memory required for data: 1334725152
I0403 21:47:16.698999 24243 layer_factory.hpp:77] Creating layer inception_5b/5x5
I0403 21:47:16.699020 24243 net.cpp:91] Creating Layer inception_5b/5x5
I0403 21:47:16.699038 24243 net.cpp:425] inception_5b/5x5 <- inception_5b/5x5_reduce
I0403 21:47:16.699057 24243 net.cpp:399] inception_5b/5x5 -> inception_5b/5x5
I0403 21:47:16.701076 24243 net.cpp:141] Setting up inception_5b/5x5
I0403 21:47:16.701103 24243 net.cpp:148] Top shape: 24 128 7 7 (150528)
I0403 21:47:16.701120 24243 net.cpp:156] Memory required for data: 1335327264
I0403 21:47:16.701139 24243 layer_factory.hpp:77] Creating layer inception_5b/relu_5x5
I0403 21:47:16.701159 24243 net.cpp:91] Creating Layer inception_5b/relu_5x5
I0403 21:47:16.701179 24243 net.cpp:425] inception_5b/relu_5x5 <- inception_5b/5x5
I0403 21:47:16.701197 24243 net.cpp:386] inception_5b/relu_5x5 -> inception_5b/5x5 (in-place)
I0403 21:47:16.701391 24243 net.cpp:141] Setting up inception_5b/relu_5x5
I0403 21:47:16.701416 24243 net.cpp:148] Top shape: 24 128 7 7 (150528)
I0403 21:47:16.701432 24243 net.cpp:156] Memory required for data: 1335929376
I0403 21:47:16.701447 24243 layer_factory.hpp:77] Creating layer inception_5b/pool
I0403 21:47:16.701467 24243 net.cpp:91] Creating Layer inception_5b/pool
I0403 21:47:16.701485 24243 net.cpp:425] inception_5b/pool <- inception_5a/output_inception_5a/output_0_split_3
I0403 21:47:16.701505 24243 net.cpp:399] inception_5b/pool -> inception_5b/pool
I0403 21:47:16.701578 24243 net.cpp:141] Setting up inception_5b/pool
I0403 21:47:16.701602 24243 net.cpp:148] Top shape: 24 832 7 7 (978432)
I0403 21:47:16.701617 24243 net.cpp:156] Memory required for data: 1339843104
I0403 21:47:16.701633 24243 layer_factory.hpp:77] Creating layer inception_5b/pool_proj
I0403 21:47:16.701655 24243 net.cpp:91] Creating Layer inception_5b/pool_proj
I0403 21:47:16.701674 24243 net.cpp:425] inception_5b/pool_proj <- inception_5b/pool
I0403 21:47:16.701695 24243 net.cpp:399] inception_5b/pool_proj -> inception_5b/pool_proj
I0403 21:47:16.704004 24243 net.cpp:141] Setting up inception_5b/pool_proj
I0403 21:47:16.704033 24243 net.cpp:148] Top shape: 24 128 7 7 (150528)
I0403 21:47:16.704049 24243 net.cpp:156] Memory required for data: 1340445216
I0403 21:47:16.704068 24243 layer_factory.hpp:77] Creating layer inception_5b/relu_pool_proj
I0403 21:47:16.704089 24243 net.cpp:91] Creating Layer inception_5b/relu_pool_proj
I0403 21:47:16.704107 24243 net.cpp:425] inception_5b/relu_pool_proj <- inception_5b/pool_proj
I0403 21:47:16.704125 24243 net.cpp:386] inception_5b/relu_pool_proj -> inception_5b/pool_proj (in-place)
I0403 21:47:16.704428 24243 net.cpp:141] Setting up inception_5b/relu_pool_proj
I0403 21:47:16.704454 24243 net.cpp:148] Top shape: 24 128 7 7 (150528)
I0403 21:47:16.704470 24243 net.cpp:156] Memory required for data: 1341047328
I0403 21:47:16.704485 24243 layer_factory.hpp:77] Creating layer inception_5b/output
I0403 21:47:16.704504 24243 net.cpp:91] Creating Layer inception_5b/output
I0403 21:47:16.704535 24243 net.cpp:425] inception_5b/output <- inception_5b/1x1
I0403 21:47:16.704552 24243 net.cpp:425] inception_5b/output <- inception_5b/3x3
I0403 21:47:16.704569 24243 net.cpp:425] inception_5b/output <- inception_5b/5x5
I0403 21:47:16.704586 24243 net.cpp:425] inception_5b/output <- inception_5b/pool_proj
I0403 21:47:16.704605 24243 net.cpp:399] inception_5b/output -> inception_5b/output
I0403 21:47:16.704658 24243 net.cpp:141] Setting up inception_5b/output
I0403 21:47:16.704685 24243 net.cpp:148] Top shape: 24 1024 7 7 (1204224)
I0403 21:47:16.704701 24243 net.cpp:156] Memory required for data: 1345864224
I0403 21:47:16.704717 24243 layer_factory.hpp:77] Creating layer pool5/7x7_s1
I0403 21:47:16.704735 24243 net.cpp:91] Creating Layer pool5/7x7_s1
I0403 21:47:16.704751 24243 net.cpp:425] pool5/7x7_s1 <- inception_5b/output
I0403 21:47:16.704771 24243 net.cpp:399] pool5/7x7_s1 -> pool5/7x7_s1
I0403 21:47:16.704985 24243 net.cpp:141] Setting up pool5/7x7_s1
I0403 21:47:16.705010 24243 net.cpp:148] Top shape: 24 1024 1 1 (24576)
I0403 21:47:16.705025 24243 net.cpp:156] Memory required for data: 1345962528
I0403 21:47:16.705041 24243 layer_factory.hpp:77] Creating layer pool5/drop_7x7_s1
I0403 21:47:16.705060 24243 net.cpp:91] Creating Layer pool5/drop_7x7_s1
I0403 21:47:16.705076 24243 net.cpp:425] pool5/drop_7x7_s1 <- pool5/7x7_s1
I0403 21:47:16.705096 24243 net.cpp:386] pool5/drop_7x7_s1 -> pool5/7x7_s1 (in-place)
I0403 21:47:16.705144 24243 net.cpp:141] Setting up pool5/drop_7x7_s1
I0403 21:47:16.705170 24243 net.cpp:148] Top shape: 24 1024 1 1 (24576)
I0403 21:47:16.705185 24243 net.cpp:156] Memory required for data: 1346060832
I0403 21:47:16.705201 24243 layer_factory.hpp:77] Creating layer loss3/classifier_plantvillage
I0403 21:47:16.705221 24243 net.cpp:91] Creating Layer loss3/classifier_plantvillage
I0403 21:47:16.705242 24243 net.cpp:425] loss3/classifier_plantvillage <- pool5/7x7_s1
I0403 21:47:16.705263 24243 net.cpp:399] loss3/classifier_plantvillage -> loss3/classifier_plantvillage
I0403 21:47:16.705684 24243 net.cpp:141] Setting up loss3/classifier_plantvillage
I0403 21:47:16.705709 24243 net.cpp:148] Top shape: 24 38 (912)
I0403 21:47:16.705725 24243 net.cpp:156] Memory required for data: 1346064480
I0403 21:47:16.705744 24243 layer_factory.hpp:77] Creating layer loss3/classifier_plantvillage_loss3/classifier_plantvillage_0_split
I0403 21:47:16.705765 24243 net.cpp:91] Creating Layer loss3/classifier_plantvillage_loss3/classifier_plantvillage_0_split
I0403 21:47:16.705783 24243 net.cpp:425] loss3/classifier_plantvillage_loss3/classifier_plantvillage_0_split <- loss3/classifier_plantvillage
I0403 21:47:16.705802 24243 net.cpp:399] loss3/classifier_plantvillage_loss3/classifier_plantvillage_0_split -> loss3/classifier_plantvillage_loss3/classifier_plantvillage_0_split_0
I0403 21:47:16.705824 24243 net.cpp:399] loss3/classifier_plantvillage_loss3/classifier_plantvillage_0_split -> loss3/classifier_plantvillage_loss3/classifier_plantvillage_0_split_1
I0403 21:47:16.705847 24243 net.cpp:399] loss3/classifier_plantvillage_loss3/classifier_plantvillage_0_split -> loss3/classifier_plantvillage_loss3/classifier_plantvillage_0_split_2
I0403 21:47:16.705868 24243 net.cpp:399] loss3/classifier_plantvillage_loss3/classifier_plantvillage_0_split -> loss3/classifier_plantvillage_loss3/classifier_plantvillage_0_split_3
I0403 21:47:16.705968 24243 net.cpp:141] Setting up loss3/classifier_plantvillage_loss3/classifier_plantvillage_0_split
I0403 21:47:16.705993 24243 net.cpp:148] Top shape: 24 38 (912)
I0403 21:47:16.706010 24243 net.cpp:148] Top shape: 24 38 (912)
I0403 21:47:16.706027 24243 net.cpp:148] Top shape: 24 38 (912)
I0403 21:47:16.706042 24243 net.cpp:148] Top shape: 24 38 (912)
I0403 21:47:16.706056 24243 net.cpp:156] Memory required for data: 1346079072
I0403 21:47:16.706071 24243 layer_factory.hpp:77] Creating layer loss1/loss
I0403 21:47:16.706094 24243 net.cpp:91] Creating Layer loss1/loss
I0403 21:47:16.706110 24243 net.cpp:425] loss1/loss <- loss1/classifier_plantvillage_loss1/classifier_plantvillage_0_split_0
I0403 21:47:16.706142 24243 net.cpp:425] loss1/loss <- label_data_1_split_0
…
