…
I0403 21:43:41.941488 24022 net.cpp:313] The NetState phase (1) differed from the phase (0) specified by a rule in layer data
I0403 21:43:41.942662 24022 net.cpp:49] Initializing net from parameters: 
state {
  phase: TEST
}
layer {
  name: "data"
  type: "Data"
  top: "data"
  top: "label"
  include {
    phase: TEST
  }
  transform_param {
    mirror: false
    crop_size: 224
    mean_file: "/home/mohanty/data/final_dataset/lmdb/segmented-80-20/mean.binaryproto"
  }
  data_param {
    source: "/home/mohanty/data/final_dataset/lmdb/segmented-80-20/test_db"
    batch_size: 24
    backend: LMDB
  }
}
layer {
  name: "conv1/7x7_s2"
  type: "Convolution"
  bottom: "data"
  top: "conv1/7x7_s2"
  param {
    lr_mult: 1
    decay_mult: 1
  }
  param {
    lr_mult: 2
    decay_mult: 0
  }
  convolution_param {
    num_output: 64
    pad: 3
    kernel_size: 7
    stride: 2
    weight_filler {
      type: "xavier"
      std: 0.1
    }
    bias_filler {
      type: "constant"
      value: 0.2
    }
  }
}
layer {
  name: "conv1/relu_7x7"
  type: "ReLU"
  bottom: "conv1/7x7_s2"
  top: "conv1/7x7_s2"
}
layer {
  name: "pool1/3x3_s2"
  type: "Pooling"
  bottom: "conv1/7x7_s2"
  top: "pool1/3x3_s2"
  pooling_param {
    pool: MAX
    kernel_size: 3
    stride: 2
  }
}
layer {
  name: "pool1/norm1"
  type: "LRN"
  bottom: "pool1/3x3_s2"
  top: "pool1/norm1"
  lrn_param {
    local_size: 5
    alpha: 0.0001
    beta: 0.75
  }
}
layer {
  name: "conv2/3x3_reduce"
  type: "Convolution"
  bottom: "pool1/norm1"
  top: "conv2/3x3_reduce"
  param {
    lr_mult: 1
    decay_mult: 1
  }
  param {
    lr_mult: 2
    decay_mult: 0
  }
  convolution_param {
    num_output: 64
    kernel_size: 1
    weight_filler {
      type: "xavier"
      std: 0.1
    }
    bias_filler {
      type: "constant"
      value: 0.2
    }
  }
}
layer {
  name: "conv2/relu_3x3_reduce"
  type: "ReLU"
  bottom: "conv2/3x3_reduce"
  top: "conv2/3x3_reduce"
}
layer {
  name: "conv2/3x3"
  type: "Convolution"
  bottom: "conv2/3x3_reduce"
  top: "conv2/3x3"
  param {
    lr_mult: 1
    decay_mult: 1
  }
  param {
    lr_mult: 2
    decay_mult: 0
  }
  convolution_param {
    num_output: 192
    pad: 1
    kernel_size: 3
    weight_filler {
      type: "xavier"
      std: 0.03
    }
    bias_filler {
      type: "constant"
      value: 0.2
    }
  }
}
layer {
  name: "conv2/relu_3x3"
  type: "ReLU"
  bottom: "conv2/3x3"
  top: "conv2/3x3"
}
layer {
  name: "conv2/norm2"
  type: "LRN"
  bottom: "conv2/3x3"
  top: "conv2/norm2"
  lrn_param {
    local_size: 5
    alpha: 0.0001
    beta: 0.75
  }
}
layer {
  name: "pool2/3x3_s2"
  type: "Pooling"
  bottom: "conv2/norm2"
  top: "pool2/3x3_s2"
  pooling_param {
    pool: MAX
    kernel_size: 3
    stride: 2
  }
}
layer {
  name: "inception_3a/1x1"
  type: "Convolution"
  bottom: "pool2/3x3_s2"
  top: "inception_3a/1x1"
  param {
    lr_mult: 1
    decay_mult: 1
  }
  param {
    lr_mult: 2
    decay_mult: 0
  }
  convolution_param {
    num_output: 64
    kernel_size: 1
    weight_filler {
      type: "xavier"
      std: 0.03
    }
    bias_filler {
      type: "constant"
      value: 0.2
    }
  }
}
layer {
  name: "inception_3a/relu_1x1"
  type: "ReLU"
  bottom: "inception_3a/1x1"
  top: "inception_3a/1x1"
}
layer {
  name: "inception_3a/3x3_reduce"
  type: "Convolution"
  bottom: "pool2/3x3_s2"
  top: "inception_3a/3x3_reduce"
  param {
    lr_mult: 1
    decay_mult: 1
  }
  param {
    lr_mult: 2
    decay_mult: 0
  }
  convolution_param {
    num_output: 96
    kernel_size: 1
    weight_filler {
      type: "xavier"
      std: 0.09
    }
    bias_filler {
      type: "constant"
      value: 0.2
    }
  }
}
layer {
  name: "inception_3a/relu_3x3_reduce"
  type: "ReLU"
  bottom: "inception_3a/3x3_reduce"
  top: "inception_3a/3x3_reduce"
}
layer {
  name: "inception_3a/3x3"
  type: "Convolution"
  bottom: "inception_3a/3x3_reduce"
  top: "inception_3a/3x3"
  param {
    lr_mult: 1
    decay_mult: 1
  }
  param {
    lr_mult: 2
    decay_mult: 0
  }
  convolution_param {
    num_output: 128
    pad: 1
    kernel_size: 3
    weight_filler {
      type: "xavier"
      std: 0.03
    }
    bias_filler {
      type: "constant"
      value: 0.2
    }
  }
}
layer {
  name: "inception_3a/relu_3x3"
  type: "ReLU"
  bottom: "inception_3a/3x3"
  top: "inception_3a/3x3"
}
layer {
  name: "inception_3a/5x5_reduce"
  type: "Convolution"
  bottom: "pool2/3x3_s2"
  top: "inception_3a/5x5_reduce"
  param {
    lr_mult: 1
    decay_mult: 1
  }
  param {
    lr_mult: 2
    decay_mult: 0
  }
  convolution_param {
    num_output: 16
    kernel_size: 1
    weight_filler {
      type: "xavier"
      std: 0.2
    }
    bias_filler {
      type: "constant"
      value: 0.2
    }
  }
}
layer {
  name: "inception_3a/relu_5x5_reduce"
  type: "ReLU"
  bottom: "inception_3a/5x5_reduce"
  top: "inception_3a/5x5_reduce"
}
layer {
  name: "inception_3a/5x5"
  type: "Convolution"
  bottom: "inception_3a/5x5_reduce"
  top: "inception_3a/5x5"
  param {
    lr_mult: 1
    decay_mult: 1
  }
  param {
    lr_mult: 2
    decay_mult: 0
  }
  convolution_param {
    num_output: 32
    pad: 2
    kernel_size: 5
    weight_filler {
      type: "xavier"
      std: 0.03
    }
    bias_filler {
      type: "constant"
      value: 0.2
    }
  }
}
layer {
  name: "inception_3a/relu_5x5"
  type: "ReLU"
  bottom: "inception_3a/5x5"
  top: "inception_3a/5x5"
}
layer {
  name: "inception_3a/pool"
  type: "Pooling"
  bottom: "pool2/3x3_s2"
  top: "inception_3a/pool"
  pooling_param {
    pool: MAX
    kernel_size: 3
    stride: 1
    pad: 1
  }
}
layer {
  name: "inception_3a/pool_proj"
  type: "Convolution"
  bottom: "inception_3a/pool"
  top: "inception_3a/pool_proj"
  param {
    lr_mult: 1
    decay_mult: 1
  }
  param {
    lr_mult: 2
    decay_mult: 0
  }
  convolution_param {
    num_output: 32
    kernel_size: 1
    weight_filler {
      type: "xavier"
      std: 0.1
    }
    bias_filler {
      type: "constant"
      value: 0.2
    }
  }
}
layer {
  name: "inception_3a/relu_pool_proj"
  type: "ReLU"
  bottom: "inception_3a/pool_proj"
  top: "inception_3a/pool_proj"
}
layer {
  name: "inception_3a/output"
  type: "Concat"
  bottom: "inception_3a/1x1"
  bottom: "inception_3a/3x3"
  bottom: "inception_3a/5x5"
  bottom: "inception_3a/pool_proj"
  top: "inception_3a/output"
}
layer {
  name: "inception_3b/1x1"
  type: "Convolution"
  bottom: "inception_3a/output"
  top: "inception_3b/1x1"
  param {
    lr_mult: 1
    decay_mult: 1
  }
  param {
    lr_mult: 2
    decay_mult: 0
  }
  convolution_param {
    num_output: 128
    kernel_size: 1
    weight_filler {
      type: "xavier"
      std: 0.03
    }
    bias_filler {
      type: "constant"
      value: 0.2
    }
  }
}
layer {
  name: "inception_3b/relu_1x1"
  type: "ReLU"
  bottom: "inception_3b/1x1"
  top: "inception_3b/1x1"
}
layer {
  name: "inception_3b/3x3_reduce"
  type: "Convolution"
  bottom: "inception_3a/output"
  top: "inception_3b/3x3_reduce"
  param {
    lr_mult: 1
    decay_mult: 1
  }
  param {
    lr_mult: 2
    decay_mult: 0
  }
  convolution_param {
    num_output: 128
    kernel_size: 1
    weight_filler {
      type: "xavier"
      std: 0.09
    }
    bias_filler {
      type: "constant"
      value: 0.2
    }
  }
}
layer {
  name: "inception_3b/relu_3x3_reduce"
  type: "ReLU"
  bottom: "inception_3b/3x3_reduce"
  top: "inception_3b/3x3_reduce"
}
layer {
  name: "inception_3b/3x3"
  type: "Convolution"
  bottom: "inception_3b/3x3_reduce"
  top: "inception_3b/3x3"
  param {
    lr_mult: 1
    decay_mult: 1
  }
  param {
    lr_mult: 2
    decay_mult: 0
  }
  convolution_param {
    num_output: 192
    pad: 1
    kernel_size: 3
    weight_filler {
      type: "xavier"
      std: 0.03
    }
    bias_filler {
      type: "constant"
      value: 0.2
    }
  }
}
layer {
  name: "inception_3b/relu_3x3"
  type: "ReLU"
  bottom: "inception_3b/3x3"
  top: "inception_3b/3x3"
}
layer {
  name: "inception_3b/5x5_reduce"
  type: "Convolution"
  bottom: "inception_3a/output"
  top: "inception_3b/5x5_reduce"
  param {
    lr_mult: 1
    decay_mult: 1
  }
  param {
    lr_mult: 2
    decay_mult: 0
  }
  convolution_param {
    num_output: 32
    kernel_size: 1
    weight_filler {
      type: "xavier"
      std: 0.2
    }
    bias_filler {
      type: "constant"
      value: 0.2
    }
  }
}
layer {
  name: "inception_3b/relu_5x5_reduce"
  type: "ReLU"
  bottom: "inception_3b/5x5_reduce"
  top: "inception_3b/5x5_reduce"
}
layer {
  name: "inception_3b/5x5"
  type: "Convolution"
  bottom: "inception_3b/5x5_reduce"
  top: "inception_3b/5x5"
  param {
    lr_mult: 1
    decay_mult: 1
  }
  param {
    lr_mult: 2
    decay_mult: 0
  }
  convolution_param {
    num_output: 96
    pad: 2
    kernel_size: 5
    weight_filler {
      type: "xavier"
      std: 0.03
    }
    bias_filler {
      type: "constant"
      value: 0.2
    }
  }
}
layer {
  name: "inception_3b/relu_5x5"
  type: "ReLU"
  bottom: "inception_3b/5x5"
  top: "inception_3b/5x5"
}
layer {
  name: "inception_3b/pool"
  type: "Pooling"
  bottom: "inception_3a/output"
  top: "inception_3b/pool"
  pooling_param {
    pool: MAX
    kernel_size: 3
    stride: 1
    pad: 1
  }
}
layer {
  name: "inception_3b/pool_proj"
  type: "Convolution"
  bottom: "inception_3b/pool"
  top: "inception_3b/pool_proj"
  param {
    lr_mult: 1
    decay_mult: 1
  }
  param {
    lr_mult: 2
    decay_mult: 0
  }
  convolution_param {
    num_output: 64
    kernel_size: 1
    weight_filler {
      type: "xavier"
      std: 0.1
    }
    bias_filler {
      type: "constant"
      value: 0.2
    }
  }
}
layer {
  name: "inception_3b/relu_pool_proj"
  type: "ReLU"
  bottom: "inception_3b/pool_proj"
  top: "inception_3b/pool_proj"
}
layer {
  name: "inception_3b/output"
  type: "Concat"
  bottom: "inception_3b/1x1"
  bottom: "inception_3b/3x3"
  bottom: "inception_3b/5x5"
  bottom: "inception_3b/pool_proj"
  top: "inception_3b/output"
}
layer {
  name: "pool3/3x3_s2"
  type: "Pooling"
  bottom: "inception_3b/output"
  top: "pool3/3x3_s2"
  pooling_param {
    pool: MAX
    kernel_size: 3
    stride: 2
  }
}
layer {
  name: "inception_4a/1x1"
  type: "Convolution"
  bottom: "pool3/3x3_s2"
  top: "inception_4a/1x1"
  param {
    lr_mult: 1
    decay_mult: 1
  }
  param {
    lr_mult: 2
    decay_mult: 0
  }
  convolution_param {
    num_output: 192
    kernel_size: 1
    weight_filler {
      type: "xavier"
      std: 0.03
    }
    bias_filler {
      type: "constant"
      value: 0.2
    }
  }
}
layer {
  name: "inception_4a/relu_1x1"
  type: "ReLU"
  bottom: "inception_4a/1x1"
  top: "inception_4a/1x1"
}
layer {
  name: "inception_4a/3x3_reduce"
  type: "Convolution"
  bottom: "pool3/3x3_s2"
  top: "inception_4a/3x3_reduce"
  param {
    lr_mult: 1
    decay_mult: 1
  }
  param {
    lr_mult: 2
    decay_mult: 0
  }
  convolution_param {
    num_output: 96
    kernel_size: 1
    weight_filler {
      type: "xavier"
      std: 0.09
    }
    bias_filler {
      type: "constant"
      value: 0.2
    }
  }
}
layer {
  name: "inception_4a/relu_3x3_reduce"
  type: "ReLU"
  bottom: "inception_4a/3x3_reduce"
  top: "inception_4a/3x3_reduce"
}
layer {
  name: "inception_4a/3x3"
  type: "Convolution"
  bottom: "inception_4a/3x3_reduce"
  top: "inception_4a/3x3"
  param {
    lr_mult: 1
    decay_mult: 1
  }
  param {
    lr_mult: 2
    decay_mult: 0
  }
  convolution_param {
    num_output: 208
    pad: 1
    kernel_size: 3
    weight_filler {
      type: "xavier"
      std: 0.03
    }
    bias_filler {
      type: "constant"
      value: 0.2
    }
  }
}
layer {
  name: "inception_4a/relu_3x3"
  type: "ReLU"
  bottom: "inception_4a/3x3"
  top: "inception_4a/3x3"
}
layer {
  name: "inception_4a/5x5_reduce"
  type: "Convolution"
  bottom: "pool3/3x3_s2"
  top: "inception_4a/5x5_reduce"
  param {
    lr_mult: 1
    decay_mult: 1
  }
  param {
    lr_mult: 2
    decay_mult: 0
  }
  convolution_param {
    num_output: 16
    kernel_size: 1
    weight_filler {
      type: "xavier"
      std: 0.2
    }
    bias_filler {
      type: "constant"
      value: 0.2
    }
  }
}
layer {
  name: "inception_4a/relu_5x5_reduce"
  type: "ReLU"
  bottom: "inception_4a/5x5_reduce"
  top: "inception_4a/5x5_reduce"
}
layer {
  name: "inception_4a/5x5"
  type: "Convolution"
  bottom: "inception_4a/5x5_reduce"
  top: "inception_4a/5x5"
  param {
    lr_mult: 1
    decay_mult: 1
  }
  param {
    lr_mult: 2
    decay_mult: 0
  }
  convolution_param {
    num_output: 48
    pad: 2
    kernel_size: 5
    weight_filler {
      type: "xavier"
      std: 0.03
    }
    bias_filler {
      type: "constant"
      value: 0.2
    }
  }
}
layer {
  name: "inception_4a/relu_5x5"
  type: "ReLU"
  bottom: "inception_4a/5x5"
  top: "inception_4a/5x5"
}
layer {
  name: "inception_4a/pool"
  type: "Pooling"
  bottom: "pool3/3x3_s2"
  top: "inception_4a/pool"
  pooling_param {
    pool: MAX
    kernel_size: 3
    stride: 1
    pad: 1
  }
}
layer {
  name: "inception_4a/pool_proj"
  type: "Convolution"
  bottom: "inception_4a/pool"
  top: "inception_4a/pool_proj"
  param {
    lr_mult: 1
    decay_mult: 1
  }
  param {
    lr_mult: 2
    decay_mult: 0
  }
  convolution_param {
    num_output: 64
    kernel_size: 1
    weight_filler {
      type: "xavier"
      std: 0.1
    }
    bias_filler {
      type: "constant"
      value: 0.2
    }
  }
}
layer {
  name: "inception_4a/relu_pool_proj"
  type: "ReLU"
  bottom: "inception_4a/pool_proj"
  top: "inception_4a/pool_proj"
}
layer {
  name: "inception_4a/output"
  type: "Concat"
  bottom: "inception_4a/1x1"
  bottom: "inception_4a/3x3"
  bottom: "inception_4a/5x5"
  bottom: "inception_4a/pool_proj"
  top: "inception_4a/output"
}
layer {
  name: "loss1/ave_pool"
  type: "Pooling"
  bottom: "inception_4a/output"
  top: "loss1/ave_pool"
  pooling_param {
    pool: AVE
    kernel_size: 5
    stride: 3
  }
}
layer {
  name: "loss1/conv"
  type: "Convolution"
  bottom: "loss1/ave_pool"
  top: "loss1/conv"
  param {
    lr_mult: 1
    decay_mult: 1
  }
  param {
    lr_mult: 2
    decay_mult: 0
  }
  convolution_param {
    num_output: 128
    kernel_size: 1
    weight_filler {
      type: "xavier"
      std: 0.08
    }
    bias_filler {
      type: "constant"
      value: 0.2
    }
  }
}
layer {
  name: "loss1/relu_conv"
  type: "ReLU"
  bottom: "loss1/conv"
  top: "loss1/conv"
}
layer {
  name: "loss1/fc"
  type: "InnerProduct"
  bottom: "loss1/conv"
  top: "loss1/fc"
  param {
    lr_mult: 1
    decay_mult: 1
  }
  param {
    lr_mult: 2
    decay_mult: 0
  }
  inner_product_param {
    num_output: 1024
    weight_filler {
      type: "xavier"
      std: 0.02
    }
    bias_filler {
      type: "constant"
      value: 0.2
    }
  }
}
layer {
  name: "loss1/relu_fc"
  type: "ReLU"
  bottom: "loss1/fc"
  top: "loss1/fc"
}
layer {
  name: "loss1/drop_fc"
  type: "Dropout"
  bottom: "loss1/fc"
  top: "loss1/fc"
  dropout_param {
    dropout_ratio: 0.7
  }
}
layer {
  name: "loss1/classifier_plantvillage"
  type: "InnerProduct"
  bottom: "loss1/fc"
  top: "loss1/classifier_plantvillage"
  param {
    lr_mult: 1
    decay_mult: 1
  }
  param {
    lr_mult: 2
    decay_mult: 0
  }
  inner_product_param {
    num_output: 38
    weight_filler {
      type: "xavier"
      std: 0.0009765625
    }
    bias_filler {
      type: "constant"
      value: 0
    }
  }
}
layer {
  name: "inception_4b/1x1"
  type: "Convolution"
  bottom: "inception_4a/output"
  top: "inception_4b/1x1"
  param {
    lr_mult: 1
    decay_mult: 1
  }
  param {
    lr_mult: 2
    decay_mult: 0
  }
  convolution_param {
    num_output: 160
    kernel_size: 1
    weight_filler {
      type: "xavier"
      std: 0.03
    }
    bias_filler {
      type: "constant"
      value: 0.2
    }
  }
}
layer {
  name: "inception_4b/relu_1x1"
  type: "ReLU"
  bottom: "inception_4b/1x1"
  top: "inception_4b/1x1"
}
layer {
  name: "inception_4b/3x3_reduce"
  type: "Convolution"
  bottom: "inception_4a/output"
  top: "inception_4b/3x3_reduce"
  param {
    lr_mult: 1
    decay_mult: 1
  }
  param {
    lr_mult: 2
    decay_mult: 0
  }
  convolution_param {
    num_output: 112
    kernel_size: 1
    weight_filler {
      type: "xavier"
      std: 0.09
    }
    bias_filler {
      type: "constant"
      value: 0.2
    }
  }
}
layer {
  name: "inception_4b/relu_3x3_reduce"
  type: "ReLU"
  bottom: "inception_4b/3x3_reduce"
  top: "inception_4b/3x3_reduce"
}
layer {
  name: "inception_4b/3x3"
  type: "Convolution"
  bottom: "inception_4b/3x3_reduce"
  top: "inception_4b/3x3"
  param {
    lr_mult: 1
    decay_mult: 1
  }
  param {
    lr_mult: 2
    decay_mult: 0
  }
  convolution_param {
    num_output: 224
    pad: 1
    kernel_size: 3
    weight_filler {
      type: "xavier"
      std: 0.03
    }
    bias_filler {
      type: "constant"
      value: 0.2
    }
  }
}
layer {
  name: "inception_4b/relu_3x3"
  type: "ReLU"
  bottom: "inception_4b/3x3"
  top: "inception_4b/3x3"
}
layer {
  name: "inception_4b/5x5_reduce"
  type: "Convolution"
  bottom: "inception_4a/output"
  top: "inception_4b/5x5_reduce"
  param {
    lr_mult: 1
    decay_mult: 1
  }
  param {
    lr_mult: 2
    decay_mult: 0
  }
  convolution_param {
    num_output: 24
    kernel_size: 1
    weight_filler {
      type: "xavier"
      std: 0.2
    }
    bias_filler {
      type: "constant"
      value: 0.2
    }
  }
}
layer {
  name: "inception_4b/relu_5x5_reduce"
  type: "ReLU"
  bottom: "inception_4b/5x5_reduce"
  top: "inception_4b/5x5_reduce"
}
layer {
  name: "inception_4b/5x5"
  type: "Convolution"
  bottom: "inception_4b/5x5_reduce"
  top: "inception_4b/5x5"
  param {
    lr_mult: 1
    decay_mult: 1
  }
  param {
    lr_mult: 2
    decay_mult: 0
  }
  convolution_param {
    num_output: 64
    pad: 2
    kernel_size: 5
    weight_filler {
      type: "xavier"
      std: 0.03
    }
    bias_filler {
      type: "constant"
      value: 0.2
    }
  }
}
layer {
  name: "inception_4b/relu_5x5"
  type: "ReLU"
  bottom: "inception_4b/5x5"
  top: "inception_4b/5x5"
}
layer {
  name: "inception_4b/pool"
  type: "Pooling"
  bottom: "inception_4a/output"
  top: "inception_4b/pool"
  pooling_param {
    pool: MAX
    kernel_size: 3
    stride: 1
    pad: 1
  }
}
layer {
  name: "inception_4b/pool_proj"
  type: "Convolution"
  bottom: "inception_4b/pool"
  top: "inception_4b/pool_proj"
  param {
    lr_mult: 1
    decay_mult: 1
  }
  param {
    lr_mult: 2
    decay_mult: 0
  }
  convolution_param {
    num_output: 64
    kernel_size: 1
    weight_filler {
      type: "xavier"
      std: 0.1
    }
    bias_filler {
      type: "constant"
      value: 0.2
    }
  }
}
layer {
  name: "inception_4b/relu_pool_proj"
  type: "ReLU"
  bottom: "inception_4b/pool_proj"
  top: "inception_4b/pool_proj"
}
layer {
  name: "inception_4b/output"
  type: "Concat"
  bottom: "inception_4b/1x1"
  bottom: "inception_4b/3x3"
  bottom: "inception_4b/5x5"
  bottom: "inception_4b/pool_proj"
  top: "inception_4b/output"
}
layer {
  name: "inception_4c/1x1"
  type: "Convolution"
  bottom: "inception_4b/output"
  top: "inception_4c/1x1"
  param {
    lr_mult: 1
    decay_mult: 1
  }
  param {
    lr_mult: 2
    decay_mult: 0
  }
  convolution_param {
    num_output: 128
    kernel_size: 1
    weight_filler {
      type: "xavier"
      std: 0.03
    }
    bias_filler {
      type: "constant"
      value: 0.2
    }
  }
}
layer {
  name: "inception_4c/relu_1x1"
  type: "ReLU"
  bottom: "inception_4c/1x1"
  top: "inception_4c/1x1"
}
layer {
  name: "inception_4c/3x3_reduce"
  type: "Convolution"
  bottom: "inception_4b/output"
  top: "inception_4c/3x3_reduce"
  param {
    lr_mult: 1
    decay_mult: 1
  }
  param {
    lr_mult: 2
    decay_mult: 0
  }
  convolution_param {
    num_output: 128
    kernel_size: 1
    weight_filler {
      type: "xavier"
      std: 0.09
    }
    bias_filler {
      type: "constant"
      value: 0.2
    }
  }
}
layer {
  name: "inception_4c/relu_3x3_reduce"
  type: "ReLU"
  bottom: "inception_4c/3x3_reduce"
  top: "inception_4c/3x3_reduce"
}
layer {
  name: "inception_4c/3x3"
  type: "Convolution"
  bottom: "inception_4c/3x3_reduce"
  top: "inception_4c/3x3"
  param {
    lr_mult: 1
    decay_mult: 1
  }
  param {
    lr_mult: 2
    decay_mult: 0
  }
  convolution_param {
    num_output: 256
    pad: 1
    kernel_size: 3
    weight_filler {
      type: "xavier"
      std: 0.03
    }
    bias_filler {
      type: "constant"
      value: 0.2
    }
  }
}
layer {
  name: "inception_4c/relu_3x3"
  type: "ReLU"
  bottom: "inception_4c/3x3"
  top: "inception_4c/3x3"
}
layer {
  name: "inception_4c/5x5_reduce"
  type: "Convolution"
  bottom: "inception_4b/output"
  top: "inception_4c/5x5_reduce"
  param {
    lr_mult: 1
    decay_mult: 1
  }
  param {
    lr_mult: 2
    decay_mult: 0
  }
  convolution_param {
    num_output: 24
    kernel_size: 1
    weight_filler {
      type: "xavier"
      std: 0.2
    }
    bias_filler {
      type: "constant"
      value: 0.2
    }
  }
}
layer {
  name: "inception_4c/relu_5x5_reduce"
  type: "ReLU"
  bottom: "inception_4c/5x5_reduce"
  top: "inception_4c/5x5_reduce"
}
layer {
  name: "inception_4c/5x5"
  type: "Convolution"
  bottom: "inception_4c/5x5_reduce"
  top: "inception_4c/5x5"
  param {
    lr_mult: 1
    decay_mult: 1
  }
  param {
    lr_mult: 2
    decay_mult: 0
  }
  convolution_param {
    num_output: 64
    pad: 2
    kernel_size: 5
    weight_filler {
      type: "xavier"
      std: 0.03
    }
    bias_filler {
      type: "constant"
      value: 0.2
    }
  }
}
layer {
  name: "inception_4c/relu_5x5"
  type: "ReLU"
  bottom: "inception_4c/5x5"
  top: "inception_4c/5x5"
}
layer {
  name: "inception_4c/pool"
  type: "Pooling"
  bottom: "inception_4b/output"
  top: "inception_4c/pool"
  pooling_param {
    pool: MAX
    kernel_size: 3
    stride: 1
    pad: 1
  }
}
layer {
  name: "inception_4c/pool_proj"
  type: "Convolution"
  bottom: "inception_4c/pool"
  top: "inception_4c/pool_proj"
  param {
    lr_mult: 1
    decay_mult: 1
  }
  param {
    lr_mult: 2
    decay_mult: 0
  }
  convolution_param {
    num_output: 64
    kernel_size: 1
    weight_filler {
      type: "xavier"
      std: 0.1
    }
    bias_filler {
      type: "constant"
      value: 0.2
    }
  }
}
layer {
  name: "inception_4c/relu_pool_proj"
  type: "ReLU"
  bottom: "inception_4c/pool_proj"
  top: "inception_4c/pool_proj"
}
layer {
  name: "inception_4c/output"
  type: "Concat"
  bottom: "inception_4c/1x1"
  bottom: "inception_4c/3x3"
  bottom: "inception_4c/5x5"
  bottom: "inception_4c/pool_proj"
  top: "inception_4c/output"
}
layer {
  name: "inception_4d/1x1"
  type: "Convolution"
  bottom: "inception_4c/output"
  top: "inception_4d/1x1"
  param {
    lr_mult: 1
    decay_mult: 1
  }
  param {
    lr_mult: 2
    decay_mult: 0
  }
  convolution_param {
    num_output: 112
    kernel_size: 1
    weight_filler {
      type: "xavier"
      std: 0.03
    }
    bias_filler {
      type: "constant"
      value: 0.2
    }
  }
}
layer {
  name: "inception_4d/relu_1x1"
  type: "ReLU"
  bottom: "inception_4d/1x1"
  top: "inception_4d/1x1"
}
layer {
  name: "inception_4d/3x3_reduce"
  type: "Convolution"
  bottom: "inception_4c/output"
  top: "inception_4d/3x3_reduce"
  param {
    lr_mult: 1
    decay_mult: 1
  }
  param {
    lr_mult: 2
    decay_mult: 0
  }
  convolution_param {
    num_output: 144
    kernel_size: 1
    weight_filler {
      type: "xavier"
      std: 0.09
    }
    bias_filler {
      type: "constant"
      value: 0.2
    }
  }
}
layer {
  name: "inception_4d/relu_3x3_reduce"
  type: "ReLU"
  bottom: "inception_4d/3x3_reduce"
  top: "inception_4d/3x3_reduce"
}
layer {
  name: "inception_4d/3x3"
  type: "Convolution"
  bottom: "inception_4d/3x3_reduce"
  top: "inception_4d/3x3"
  param {
    lr_mult: 1
    decay_mult: 1
  }
  param {
    lr_mult: 2
    decay_mult: 0
  }
  convolution_param {
    num_output: 288
    pad: 1
    kernel_size: 3
    weight_filler {
      type: "xavier"
      std: 0.03
    }
    bias_filler {
      type: "constant"
      value: 0.2
    }
  }
}
layer {
  name: "inception_4d/relu_3x3"
  type: "ReLU"
  bottom: "inception_4d/3x3"
  top: "inception_4d/3x3"
}
layer {
  name: "inception_4d/5x5_reduce"
  type: "Convolution"
  bottom: "inception_4c/output"
  top: "inception_4d/5x5_reduce"
  param {
    lr_mult: 1
    decay_mult: 1
  }
  param {
    lr_mult: 2
    decay_mult: 0
  }
  convolution_param {
    num_output: 32
    kernel_size: 1
    weight_filler {
      type: "xavier"
      std: 0.2
    }
    bias_filler {
      type: "constant"
      value: 0.2
    }
  }
}
layer {
  name: "inception_4d/relu_5x5_reduce"
  type: "ReLU"
  bottom: "inception_4d/5x5_reduce"
  top: "inception_4d/5x5_reduce"
}
layer {
  name: "inception_4d/5x5"
  type: "Convolution"
  bottom: "inception_4d/5x5_reduce"
  top: "inception_4d/5x5"
  param {
    lr_mult: 1
    decay_mult: 1
  }
  param {
    lr_mult: 2
    decay_mult: 0
  }
  convolution_param {
    num_output: 64
    pad: 2
    kernel_size: 5
    weight_filler {
      type: "xavier"
      std: 0.03
    }
    bias_filler {
      type: "constant"
      value: 0.2
    }
  }
}
layer {
  name: "inception_4d/relu_5x5"
  type: "ReLU"
  bottom: "inception_4d/5x5"
  top: "inception_4d/5x5"
}
layer {
  name: "inception_4d/pool"
  type: "Pooling"
  bottom: "inception_4c/output"
  top: "inception_4d/pool"
  pooling_param {
    pool: MAX
    kernel_size: 3
    stride: 1
    pad: 1
  }
}
layer {
  name: "inception_4d/pool_proj"
  type: "Convolution"
  bottom: "inception_4d/pool"
  top: "inception_4d/pool_proj"
  param {
    lr_mult: 1
    decay_mult: 1
  }
  param {
    lr_mult: 2
    decay_mult: 0
  }
  convolution_param {
    num_output: 64
    kernel_size: 1
    weight_filler {
      type: "xavier"
      std: 0.1
    }
    bias_filler {
      type: "constant"
      value: 0.2
    }
  }
}
layer {
  name: "inception_4d/relu_pool_proj"
  type: "ReLU"
  bottom: "inception_4d/pool_proj"
  top: "inception_4d/pool_proj"
}
layer {
  name: "inception_4d/output"
  type: "Concat"
  bottom: "inception_4d/1x1"
  bottom: "inception_4d/3x3"
  bottom: "inception_4d/5x5"
  bottom: "inception_4d/pool_proj"
  top: "inception_4d/output"
}
layer {
  name: "loss2/ave_pool"
  type: "Pooling"
  bottom: "inception_4d/output"
  top: "loss2/ave_pool"
  pooling_param {
    pool: AVE
    kernel_size: 5
    stride: 3
  }
}
layer {
  name: "loss2/conv"
  type: "Convolution"
  bottom: "loss2/ave_pool"
  top: "loss2/conv"
  param {
    lr_mult: 1
    decay_mult: 1
  }
  param {
    lr_mult: 2
    decay_mult: 0
  }
  convolution_param {
    num_output: 128
    kernel_size: 1
    weight_filler {
      type: "xavier"
      std: 0.08
    }
    bias_filler {
      type: "constant"
      value: 0.2
    }
  }
}
layer {
  name: "loss2/relu_conv"
  type: "ReLU"
  bottom: "loss2/conv"
  top: "loss2/conv"
}
layer {
  name: "loss2/fc"
  type: "InnerProduct"
  bottom: "loss2/conv"
  top: "loss2/fc"
  param {
    lr_mult: 1
    decay_mult: 1
  }
  param {
    lr_mult: 2
    decay_mult: 0
  }
  inner_product_param {
    num_output: 1024
    weight_filler {
      type: "xavier"
      std: 0.02
    }
    bias_filler {
      type: "constant"
      value: 0.2
    }
  }
}
layer {
  name: "loss2/relu_fc"
  type: "ReLU"
  bottom: "loss2/fc"
  top: "loss2/fc"
}
layer {
  name: "loss2/drop_fc"
  type: "Dropout"
  bottom: "loss2/fc"
  top: "loss2/fc"
  dropout_param {
    dropout_ratio: 0.7
  }
}
layer {
  name: "loss2/classifier_plantvillage"
  type: "InnerProduct"
  bottom: "loss2/fc"
  top: "loss2/classifier_plantvillage"
  param {
    lr_mult: 1
    decay_mult: 1
  }
  param {
    lr_mult: 2
    decay_mult: 0
  }
  inner_product_param {
    num_output: 38
    weight_filler {
      type: "xavier"
      std: 0.0009765625
    }
    bias_filler {
      type: "constant"
      value: 0
    }
  }
}
layer {
  name: "inception_4e/1x1"
  type: "Convolution"
  bottom: "inception_4d/output"
  top: "inception_4e/1x1"
  param {
    lr_mult: 1
    decay_mult: 1
  }
  param {
    lr_mult: 2
    decay_mult: 0
  }
  convolution_param {
    num_output: 256
    kernel_size: 1
    weight_filler {
      type: "xavier"
      std: 0.03
    }
    bias_filler {
      type: "constant"
      value: 0.2
    }
  }
}
layer {
  name: "inception_4e/relu_1x1"
  type: "ReLU"
  bottom: "inception_4e/1x1"
  top: "inception_4e/1x1"
}
layer {
  name: "inception_4e/3x3_reduce"
  type: "Convolution"
  bottom: "inception_4d/output"
  top: "inception_4e/3x3_reduce"
  param {
    lr_mult: 1
    decay_mult: 1
  }
  param {
    lr_mult: 2
    decay_mult: 0
  }
  convolution_param {
    num_output: 160
    kernel_size: 1
    weight_filler {
      type: "xavier"
      std: 0.09
    }
    bias_filler {
      type: "constant"
      value: 0.2
    }
  }
}
layer {
  name: "inception_4e/relu_3x3_reduce"
  type: "ReLU"
  bottom: "inception_4e/3x3_reduce"
  top: "inception_4e/3x3_reduce"
}
layer {
  name: "inception_4e/3x3"
  type: "Convolution"
  bottom: "inception_4e/3x3_reduce"
  top: "inception_4e/3x3"
  param {
    lr_mult: 1
    decay_mult: 1
  }
  param {
    lr_mult: 2
    decay_mult: 0
  }
  convolution_param {
    num_output: 320
    pad: 1
    kernel_size: 3
    weight_filler {
      type: "xavier"
      std: 0.03
    }
    bias_filler {
      type: "constant"
      value: 0.2
    }
  }
}
layer {
  name: "inception_4e/relu_3x3"
  type: "ReLU"
  bottom: "inception_4e/3x3"
  top: "inception_4e/3x3"
}
layer {
  name: "inception_4e/5x5_reduce"
  type: "Convolution"
  bottom: "inception_4d/output"
  top: "inception_4e/5x5_reduce"
  param {
    lr_mult: 1
    decay_mult: 1
  }
  param {
    lr_mult: 2
    decay_mult: 0
  }
  convolution_param {
    num_output: 32
    kernel_size: 1
    weight_filler {
      type: "xavier"
      std: 0.2
    }
    bias_filler {
      type: "constant"
      value: 0.2
    }
  }
}
layer {
  name: "inception_4e/relu_5x5_reduce"
  type: "ReLU"
  bottom: "inception_4e/5x5_reduce"
  top: "inception_4e/5x5_reduce"
}
layer {
  name: "inception_4e/5x5"
  type: "Convolution"
  bottom: "inception_4e/5x5_reduce"
  top: "inception_4e/
I0403 21:43:41.943868 24022 layer_factory.hpp:77] Creating layer data
I0403 21:43:41.944475 24022 net.cpp:91] Creating Layer data
I0403 21:43:41.944509 24022 net.cpp:399] data -> data
I0403 21:43:41.944573 24022 net.cpp:399] data -> label
I0403 21:43:41.944612 24022 data_transformer.cpp:25] Loading mean file from: /home/mohanty/data/final_dataset/lmdb/segmented-80-20/mean.binaryproto
I0403 21:43:41.945770 24025 db_lmdb.cpp:38] Opened lmdb /home/mohanty/data/final_dataset/lmdb/segmented-80-20/test_db
I0403 21:43:41.957275 24022 data_layer.cpp:41] output data size: 24,3,224,224
I0403 21:43:41.984278 24022 net.cpp:141] Setting up data
I0403 21:43:41.984361 24022 net.cpp:148] Top shape: 24 3 224 224 (3612672)
I0403 21:43:41.984385 24022 net.cpp:148] Top shape: 24 (24)
I0403 21:43:41.984400 24022 net.cpp:156] Memory required for data: 14450784
I0403 21:43:41.984427 24022 layer_factory.hpp:77] Creating layer label_data_1_split
I0403 21:43:41.984454 24022 net.cpp:91] Creating Layer label_data_1_split
I0403 21:43:41.984472 24022 net.cpp:425] label_data_1_split <- label
I0403 21:43:41.984504 24022 net.cpp:399] label_data_1_split -> label_data_1_split_0
I0403 21:43:41.984532 24022 net.cpp:399] label_data_1_split -> label_data_1_split_1
I0403 21:43:41.984554 24022 net.cpp:399] label_data_1_split -> label_data_1_split_2
I0403 21:43:41.984575 24022 net.cpp:399] label_data_1_split -> label_data_1_split_3
I0403 21:43:41.984594 24022 net.cpp:399] label_data_1_split -> label_data_1_split_4
I0403 21:43:41.984614 24022 net.cpp:399] label_data_1_split -> label_data_1_split_5
I0403 21:43:41.984634 24022 net.cpp:399] label_data_1_split -> label_data_1_split_6
I0403 21:43:41.984654 24022 net.cpp:399] label_data_1_split -> label_data_1_split_7
I0403 21:43:41.984673 24022 net.cpp:399] label_data_1_split -> label_data_1_split_8
I0403 21:43:41.984694 24022 net.cpp:399] label_data_1_split -> label_data_1_split_9
I0403 21:43:41.984809 24022 net.cpp:141] Setting up label_data_1_split
I0403 21:43:41.984833 24022 net.cpp:148] Top shape: 24 (24)
I0403 21:43:41.984850 24022 net.cpp:148] Top shape: 24 (24)
I0403 21:43:41.984865 24022 net.cpp:148] Top shape: 24 (24)
I0403 21:43:41.984881 24022 net.cpp:148] Top shape: 24 (24)
I0403 21:43:41.984896 24022 net.cpp:148] Top shape: 24 (24)
I0403 21:43:41.984911 24022 net.cpp:148] Top shape: 24 (24)
I0403 21:43:41.984927 24022 net.cpp:148] Top shape: 24 (24)
I0403 21:43:41.984943 24022 net.cpp:148] Top shape: 24 (24)
I0403 21:43:41.984961 24022 net.cpp:148] Top shape: 24 (24)
I0403 21:43:41.984977 24022 net.cpp:148] Top shape: 24 (24)
I0403 21:43:41.985020 24022 net.cpp:156] Memory required for data: 14451744
I0403 21:43:41.985038 24022 layer_factory.hpp:77] Creating layer conv1/7x7_s2
I0403 21:43:41.985069 24022 net.cpp:91] Creating Layer conv1/7x7_s2
I0403 21:43:41.985087 24022 net.cpp:425] conv1/7x7_s2 <- data
I0403 21:43:41.985107 24022 net.cpp:399] conv1/7x7_s2 -> conv1/7x7_s2
I0403 21:43:42.125195 24022 net.cpp:141] Setting up conv1/7x7_s2
I0403 21:43:42.125275 24022 net.cpp:148] Top shape: 24 64 112 112 (19267584)
I0403 21:43:42.125293 24022 net.cpp:156] Memory required for data: 91522080
I0403 21:43:42.125324 24022 layer_factory.hpp:77] Creating layer conv1/relu_7x7
I0403 21:43:42.125350 24022 net.cpp:91] Creating Layer conv1/relu_7x7
I0403 21:43:42.125370 24022 net.cpp:425] conv1/relu_7x7 <- conv1/7x7_s2
I0403 21:43:42.125388 24022 net.cpp:386] conv1/relu_7x7 -> conv1/7x7_s2 (in-place)
I0403 21:43:42.125633 24022 net.cpp:141] Setting up conv1/relu_7x7
I0403 21:43:42.125659 24022 net.cpp:148] Top shape: 24 64 112 112 (19267584)
I0403 21:43:42.125675 24022 net.cpp:156] Memory required for data: 168592416
I0403 21:43:42.125690 24022 layer_factory.hpp:77] Creating layer pool1/3x3_s2
I0403 21:43:42.125715 24022 net.cpp:91] Creating Layer pool1/3x3_s2
I0403 21:43:42.125732 24022 net.cpp:425] pool1/3x3_s2 <- conv1/7x7_s2
I0403 21:43:42.125752 24022 net.cpp:399] pool1/3x3_s2 -> pool1/3x3_s2
I0403 21:43:42.125824 24022 net.cpp:141] Setting up pool1/3x3_s2
I0403 21:43:42.125849 24022 net.cpp:148] Top shape: 24 64 56 56 (4816896)
I0403 21:43:42.125864 24022 net.cpp:156] Memory required for data: 187860000
I0403 21:43:42.125880 24022 layer_factory.hpp:77] Creating layer pool1/norm1
I0403 21:43:42.125902 24022 net.cpp:91] Creating Layer pool1/norm1
I0403 21:43:42.125919 24022 net.cpp:425] pool1/norm1 <- pool1/3x3_s2
I0403 21:43:42.125937 24022 net.cpp:399] pool1/norm1 -> pool1/norm1
I0403 21:43:42.126215 24022 net.cpp:141] Setting up pool1/norm1
I0403 21:43:42.126242 24022 net.cpp:148] Top shape: 24 64 56 56 (4816896)
I0403 21:43:42.126258 24022 net.cpp:156] Memory required for data: 207127584
I0403 21:43:42.126273 24022 layer_factory.hpp:77] Creating layer conv2/3x3_reduce
I0403 21:43:42.126298 24022 net.cpp:91] Creating Layer conv2/3x3_reduce
I0403 21:43:42.126314 24022 net.cpp:425] conv2/3x3_reduce <- pool1/norm1
I0403 21:43:42.126334 24022 net.cpp:399] conv2/3x3_reduce -> conv2/3x3_reduce
I0403 21:43:42.127624 24022 net.cpp:141] Setting up conv2/3x3_reduce
I0403 21:43:42.127653 24022 net.cpp:148] Top shape: 24 64 56 56 (4816896)
I0403 21:43:42.127671 24022 net.cpp:156] Memory required for data: 226395168
I0403 21:43:42.127691 24022 layer_factory.hpp:77] Creating layer conv2/relu_3x3_reduce
I0403 21:43:42.127709 24022 net.cpp:91] Creating Layer conv2/relu_3x3_reduce
I0403 21:43:42.127725 24022 net.cpp:425] conv2/relu_3x3_reduce <- conv2/3x3_reduce
I0403 21:43:42.127742 24022 net.cpp:386] conv2/relu_3x3_reduce -> conv2/3x3_reduce (in-place)
I0403 21:43:42.127996 24022 net.cpp:141] Setting up conv2/relu_3x3_reduce
I0403 21:43:42.128022 24022 net.cpp:148] Top shape: 24 64 56 56 (4816896)
I0403 21:43:42.128037 24022 net.cpp:156] Memory required for data: 245662752
I0403 21:43:42.128051 24022 layer_factory.hpp:77] Creating layer conv2/3x3
I0403 21:43:42.128074 24022 net.cpp:91] Creating Layer conv2/3x3
I0403 21:43:42.128092 24022 net.cpp:425] conv2/3x3 <- conv2/3x3_reduce
I0403 21:43:42.128113 24022 net.cpp:399] conv2/3x3 -> conv2/3x3
I0403 21:43:42.130367 24022 net.cpp:141] Setting up conv2/3x3
I0403 21:43:42.130396 24022 net.cpp:148] Top shape: 24 192 56 56 (14450688)
I0403 21:43:42.130414 24022 net.cpp:156] Memory required for data: 303465504
I0403 21:43:42.130437 24022 layer_factory.hpp:77] Creating layer conv2/relu_3x3
I0403 21:43:42.130456 24022 net.cpp:91] Creating Layer conv2/relu_3x3
I0403 21:43:42.130471 24022 net.cpp:425] conv2/relu_3x3 <- conv2/3x3
I0403 21:43:42.130489 24022 net.cpp:386] conv2/relu_3x3 -> conv2/3x3 (in-place)
I0403 21:43:42.130661 24022 net.cpp:141] Setting up conv2/relu_3x3
I0403 21:43:42.130688 24022 net.cpp:148] Top shape: 24 192 56 56 (14450688)
I0403 21:43:42.130733 24022 net.cpp:156] Memory required for data: 361268256
I0403 21:43:42.130748 24022 layer_factory.hpp:77] Creating layer conv2/norm2
I0403 21:43:42.130769 24022 net.cpp:91] Creating Layer conv2/norm2
I0403 21:43:42.130787 24022 net.cpp:425] conv2/norm2 <- conv2/3x3
I0403 21:43:42.130805 24022 net.cpp:399] conv2/norm2 -> conv2/norm2
I0403 21:43:42.131101 24022 net.cpp:141] Setting up conv2/norm2
I0403 21:43:42.131129 24022 net.cpp:148] Top shape: 24 192 56 56 (14450688)
I0403 21:43:42.131145 24022 net.cpp:156] Memory required for data: 419071008
I0403 21:43:42.131160 24022 layer_factory.hpp:77] Creating layer pool2/3x3_s2
I0403 21:43:42.131178 24022 net.cpp:91] Creating Layer pool2/3x3_s2
I0403 21:43:42.131194 24022 net.cpp:425] pool2/3x3_s2 <- conv2/norm2
I0403 21:43:42.131217 24022 net.cpp:399] pool2/3x3_s2 -> pool2/3x3_s2
I0403 21:43:42.131270 24022 net.cpp:141] Setting up pool2/3x3_s2
I0403 21:43:42.131294 24022 net.cpp:148] Top shape: 24 192 28 28 (3612672)
I0403 21:43:42.131309 24022 net.cpp:156] Memory required for data: 433521696
I0403 21:43:42.131322 24022 layer_factory.hpp:77] Creating layer pool2/3x3_s2_pool2/3x3_s2_0_split
I0403 21:43:42.131340 24022 net.cpp:91] Creating Layer pool2/3x3_s2_pool2/3x3_s2_0_split
I0403 21:43:42.131356 24022 net.cpp:425] pool2/3x3_s2_pool2/3x3_s2_0_split <- pool2/3x3_s2
I0403 21:43:42.131376 24022 net.cpp:399] pool2/3x3_s2_pool2/3x3_s2_0_split -> pool2/3x3_s2_pool2/3x3_s2_0_split_0
I0403 21:43:42.131397 24022 net.cpp:399] pool2/3x3_s2_pool2/3x3_s2_0_split -> pool2/3x3_s2_pool2/3x3_s2_0_split_1
I0403 21:43:42.131415 24022 net.cpp:399] pool2/3x3_s2_pool2/3x3_s2_0_split -> pool2/3x3_s2_pool2/3x3_s2_0_split_2
I0403 21:43:42.131435 24022 net.cpp:399] pool2/3x3_s2_pool2/3x3_s2_0_split -> pool2/3x3_s2_pool2/3x3_s2_0_split_3
I0403 21:43:42.131505 24022 net.cpp:141] Setting up pool2/3x3_s2_pool2/3x3_s2_0_split
I0403 21:43:42.131526 24022 net.cpp:148] Top shape: 24 192 28 28 (3612672)
I0403 21:43:42.131543 24022 net.cpp:148] Top shape: 24 192 28 28 (3612672)
I0403 21:43:42.131559 24022 net.cpp:148] Top shape: 24 192 28 28 (3612672)
I0403 21:43:42.131574 24022 net.cpp:148] Top shape: 24 192 28 28 (3612672)
I0403 21:43:42.131588 24022 net.cpp:156] Memory required for data: 491324448
I0403 21:43:42.131603 24022 layer_factory.hpp:77] Creating layer inception_3a/1x1
I0403 21:43:42.131626 24022 net.cpp:91] Creating Layer inception_3a/1x1
I0403 21:43:42.131644 24022 net.cpp:425] inception_3a/1x1 <- pool2/3x3_s2_pool2/3x3_s2_0_split_0
I0403 21:43:42.131661 24022 net.cpp:399] inception_3a/1x1 -> inception_3a/1x1
I0403 21:43:42.133180 24022 net.cpp:141] Setting up inception_3a/1x1
I0403 21:43:42.133213 24022 net.cpp:148] Top shape: 24 64 28 28 (1204224)
I0403 21:43:42.133240 24022 net.cpp:156] Memory required for data: 496141344
I0403 21:43:42.133260 24022 layer_factory.hpp:77] Creating layer inception_3a/relu_1x1
I0403 21:43:42.133280 24022 net.cpp:91] Creating Layer inception_3a/relu_1x1
I0403 21:43:42.133297 24022 net.cpp:425] inception_3a/relu_1x1 <- inception_3a/1x1
I0403 21:43:42.133316 24022 net.cpp:386] inception_3a/relu_1x1 -> inception_3a/1x1 (in-place)
I0403 21:43:42.133481 24022 net.cpp:141] Setting up inception_3a/relu_1x1
I0403 21:43:42.133507 24022 net.cpp:148] Top shape: 24 64 28 28 (1204224)
I0403 21:43:42.133522 24022 net.cpp:156] Memory required for data: 500958240
I0403 21:43:42.133538 24022 layer_factory.hpp:77] Creating layer inception_3a/3x3_reduce
I0403 21:43:42.133560 24022 net.cpp:91] Creating Layer inception_3a/3x3_reduce
I0403 21:43:42.133576 24022 net.cpp:425] inception_3a/3x3_reduce <- pool2/3x3_s2_pool2/3x3_s2_0_split_1
I0403 21:43:42.133595 24022 net.cpp:399] inception_3a/3x3_reduce -> inception_3a/3x3_reduce
I0403 21:43:42.135239 24022 net.cpp:141] Setting up inception_3a/3x3_reduce
I0403 21:43:42.135268 24022 net.cpp:148] Top shape: 24 96 28 28 (1806336)
I0403 21:43:42.135284 24022 net.cpp:156] Memory required for data: 508183584
I0403 21:43:42.135310 24022 layer_factory.hpp:77] Creating layer inception_3a/relu_3x3_reduce
I0403 21:43:42.135344 24022 net.cpp:91] Creating Layer inception_3a/relu_3x3_reduce
I0403 21:43:42.135362 24022 net.cpp:425] inception_3a/relu_3x3_reduce <- inception_3a/3x3_reduce
I0403 21:43:42.135380 24022 net.cpp:386] inception_3a/relu_3x3_reduce -> inception_3a/3x3_reduce (in-place)
I0403 21:43:42.135558 24022 net.cpp:141] Setting up inception_3a/relu_3x3_reduce
I0403 21:43:42.135582 24022 net.cpp:148] Top shape: 24 96 28 28 (1806336)
I0403 21:43:42.135597 24022 net.cpp:156] Memory required for data: 515408928
I0403 21:43:42.135612 24022 layer_factory.hpp:77] Creating layer inception_3a/3x3
I0403 21:43:42.135635 24022 net.cpp:91] Creating Layer inception_3a/3x3
I0403 21:43:42.135653 24022 net.cpp:425] inception_3a/3x3 <- inception_3a/3x3_reduce
I0403 21:43:42.135673 24022 net.cpp:399] inception_3a/3x3 -> inception_3a/3x3
I0403 21:43:42.137253 24022 net.cpp:141] Setting up inception_3a/3x3
I0403 21:43:42.137279 24022 net.cpp:148] Top shape: 24 128 28 28 (2408448)
I0403 21:43:42.137295 24022 net.cpp:156] Memory required for data: 525042720
I0403 21:43:42.137313 24022 layer_factory.hpp:77] Creating layer inception_3a/relu_3x3
I0403 21:43:42.137332 24022 net.cpp:91] Creating Layer inception_3a/relu_3x3
I0403 21:43:42.137349 24022 net.cpp:425] inception_3a/relu_3x3 <- inception_3a/3x3
I0403 21:43:42.137367 24022 net.cpp:386] inception_3a/relu_3x3 -> inception_3a/3x3 (in-place)
I0403 21:43:42.137631 24022 net.cpp:141] Setting up inception_3a/relu_3x3
I0403 21:43:42.137658 24022 net.cpp:148] Top shape: 24 128 28 28 (2408448)
I0403 21:43:42.137673 24022 net.cpp:156] Memory required for data: 534676512
I0403 21:43:42.137688 24022 layer_factory.hpp:77] Creating layer inception_3a/5x5_reduce
I0403 21:43:42.137712 24022 net.cpp:91] Creating Layer inception_3a/5x5_reduce
I0403 21:43:42.137729 24022 net.cpp:425] inception_3a/5x5_reduce <- pool2/3x3_s2_pool2/3x3_s2_0_split_2
I0403 21:43:42.137748 24022 net.cpp:399] inception_3a/5x5_reduce -> inception_3a/5x5_reduce
I0403 21:43:42.138684 24022 net.cpp:141] Setting up inception_3a/5x5_reduce
I0403 21:43:42.138713 24022 net.cpp:148] Top shape: 24 16 28 28 (301056)
I0403 21:43:42.138730 24022 net.cpp:156] Memory required for data: 535880736
I0403 21:43:42.138748 24022 layer_factory.hpp:77] Creating layer inception_3a/relu_5x5_reduce
I0403 21:43:42.138766 24022 net.cpp:91] Creating Layer inception_3a/relu_5x5_reduce
I0403 21:43:42.138780 24022 net.cpp:425] inception_3a/relu_5x5_reduce <- inception_3a/5x5_reduce
I0403 21:43:42.138802 24022 net.cpp:386] inception_3a/relu_5x5_reduce -> inception_3a/5x5_reduce (in-place)
I0403 21:43:42.139087 24022 net.cpp:141] Setting up inception_3a/relu_5x5_reduce
I0403 21:43:42.139117 24022 net.cpp:148] Top shape: 24 16 28 28 (301056)
I0403 21:43:42.139133 24022 net.cpp:156] Memory required for data: 537084960
I0403 21:43:42.139148 24022 layer_factory.hpp:77] Creating layer inception_3a/5x5
I0403 21:43:42.139170 24022 net.cpp:91] Creating Layer inception_3a/5x5
I0403 21:43:42.139189 24022 net.cpp:425] inception_3a/5x5 <- inception_3a/5x5_reduce
I0403 21:43:42.139212 24022 net.cpp:399] inception_3a/5x5 -> inception_3a/5x5
I0403 21:43:42.140207 24022 net.cpp:141] Setting up inception_3a/5x5
I0403 21:43:42.140246 24022 net.cpp:148] Top shape: 24 32 28 28 (602112)
I0403 21:43:42.140261 24022 net.cpp:156] Memory required for data: 539493408
I0403 21:43:42.140280 24022 layer_factory.hpp:77] Creating layer inception_3a/relu_5x5
I0403 21:43:42.140300 24022 net.cpp:91] Creating Layer inception_3a/relu_5x5
I0403 21:43:42.140316 24022 net.cpp:425] inception_3a/relu_5x5 <- inception_3a/5x5
I0403 21:43:42.140334 24022 net.cpp:386] inception_3a/relu_5x5 -> inception_3a/5x5 (in-place)
I0403 21:43:42.140498 24022 net.cpp:141] Setting up inception_3a/relu_5x5
I0403 21:43:42.140525 24022 net.cpp:148] Top shape: 24 32 28 28 (602112)
I0403 21:43:42.140540 24022 net.cpp:156] Memory required for data: 541901856
I0403 21:43:42.140555 24022 layer_factory.hpp:77] Creating layer inception_3a/pool
I0403 21:43:42.140573 24022 net.cpp:91] Creating Layer inception_3a/pool
I0403 21:43:42.140602 24022 net.cpp:425] inception_3a/pool <- pool2/3x3_s2_pool2/3x3_s2_0_split_3
I0403 21:43:42.140622 24022 net.cpp:399] inception_3a/pool -> inception_3a/pool
I0403 21:43:42.140679 24022 net.cpp:141] Setting up inception_3a/pool
I0403 21:43:42.140704 24022 net.cpp:148] Top shape: 24 192 28 28 (3612672)
I0403 21:43:42.140718 24022 net.cpp:156] Memory required for data: 556352544
I0403 21:43:42.140733 24022 layer_factory.hpp:77] Creating layer inception_3a/pool_proj
I0403 21:43:42.140753 24022 net.cpp:91] Creating Layer inception_3a/pool_proj
I0403 21:43:42.140774 24022 net.cpp:425] inception_3a/pool_proj <- inception_3a/pool
I0403 21:43:42.140794 24022 net.cpp:399] inception_3a/pool_proj -> inception_3a/pool_proj
I0403 21:43:42.141726 24022 net.cpp:141] Setting up inception_3a/pool_proj
I0403 21:43:42.141753 24022 net.cpp:148] Top shape: 24 32 28 28 (602112)
I0403 21:43:42.141769 24022 net.cpp:156] Memory required for data: 558760992
I0403 21:43:42.141793 24022 layer_factory.hpp:77] Creating layer inception_3a/relu_pool_proj
I0403 21:43:42.141813 24022 net.cpp:91] Creating Layer inception_3a/relu_pool_proj
I0403 21:43:42.141829 24022 net.cpp:425] inception_3a/relu_pool_proj <- inception_3a/pool_proj
I0403 21:43:42.141849 24022 net.cpp:386] inception_3a/relu_pool_proj -> inception_3a/pool_proj (in-place)
I0403 21:43:42.142112 24022 net.cpp:141] Setting up inception_3a/relu_pool_proj
I0403 21:43:42.142138 24022 net.cpp:148] Top shape: 24 32 28 28 (602112)
I0403 21:43:42.142153 24022 net.cpp:156] Memory required for data: 561169440
I0403 21:43:42.142168 24022 layer_factory.hpp:77] Creating layer inception_3a/output
I0403 21:43:42.142187 24022 net.cpp:91] Creating Layer inception_3a/output
I0403 21:43:42.142209 24022 net.cpp:425] inception_3a/output <- inception_3a/1x1
I0403 21:43:42.142226 24022 net.cpp:425] inception_3a/output <- inception_3a/3x3
I0403 21:43:42.142241 24022 net.cpp:425] inception_3a/output <- inception_3a/5x5
I0403 21:43:42.142256 24022 net.cpp:425] inception_3a/output <- inception_3a/pool_proj
I0403 21:43:42.142273 24022 net.cpp:399] inception_3a/output -> inception_3a/output
I0403 21:43:42.142319 24022 net.cpp:141] Setting up inception_3a/output
I0403 21:43:42.142343 24022 net.cpp:148] Top shape: 24 256 28 28 (4816896)
I0403 21:43:42.142357 24022 net.cpp:156] Memory required for data: 580437024
I0403 21:43:42.142371 24022 layer_factory.hpp:77] Creating layer inception_3a/output_inception_3a/output_0_split
I0403 21:43:42.142390 24022 net.cpp:91] Creating Layer inception_3a/output_inception_3a/output_0_split
I0403 21:43:42.142405 24022 net.cpp:425] inception_3a/output_inception_3a/output_0_split <- inception_3a/output
I0403 21:43:42.142423 24022 net.cpp:399] inception_3a/output_inception_3a/output_0_split -> inception_3a/output_inception_3a/output_0_split_0
I0403 21:43:42.142444 24022 net.cpp:399] inception_3a/output_inception_3a/output_0_split -> inception_3a/output_inception_3a/output_0_split_1
I0403 21:43:42.142467 24022 net.cpp:399] inception_3a/output_inception_3a/output_0_split -> inception_3a/output_inception_3a/output_0_split_2
I0403 21:43:42.142489 24022 net.cpp:399] inception_3a/output_inception_3a/output_0_split -> inception_3a/output_inception_3a/output_0_split_3
I0403 21:43:42.142560 24022 net.cpp:141] Setting up inception_3a/output_inception_3a/output_0_split
I0403 21:43:42.142582 24022 net.cpp:148] Top shape: 24 256 28 28 (4816896)
I0403 21:43:42.142601 24022 net.cpp:148] Top shape: 24 256 28 28 (4816896)
I0403 21:43:42.142619 24022 net.cpp:148] Top shape: 24 256 28 28 (4816896)
I0403 21:43:42.142637 24022 net.cpp:148] Top shape: 24 256 28 28 (4816896)
I0403 21:43:42.142650 24022 net.cpp:156] Memory required for data: 657507360
I0403 21:43:42.142664 24022 layer_factory.hpp:77] Creating layer inception_3b/1x1
I0403 21:43:42.142683 24022 net.cpp:91] Creating Layer inception_3b/1x1
I0403 21:43:42.142699 24022 net.cpp:425] inception_3b/1x1 <- inception_3a/output_inception_3a/output_0_split_0
I0403 21:43:42.142719 24022 net.cpp:399] inception_3b/1x1 -> inception_3b/1x1
I0403 21:43:42.143823 24022 net.cpp:141] Setting up inception_3b/1x1
I0403 21:43:42.143862 24022 net.cpp:148] Top shape: 24 128 28 28 (2408448)
I0403 21:43:42.143877 24022 net.cpp:156] Memory required for data: 667141152
I0403 21:43:42.143896 24022 layer_factory.hpp:77] Creating layer inception_3b/relu_1x1
I0403 21:43:42.143916 24022 net.cpp:91] Creating Layer inception_3b/relu_1x1
I0403 21:43:42.143934 24022 net.cpp:425] inception_3b/relu_1x1 <- inception_3b/1x1
I0403 21:43:42.143954 24022 net.cpp:386] inception_3b/relu_1x1 -> inception_3b/1x1 (in-place)
I0403 21:43:42.144124 24022 net.cpp:141] Setting up inception_3b/relu_1x1
I0403 21:43:42.144148 24022 net.cpp:148] Top shape: 24 128 28 28 (2408448)
I0403 21:43:42.144165 24022 net.cpp:156] Memory required for data: 676774944
I0403 21:43:42.144177 24022 layer_factory.hpp:77] Creating layer inception_3b/3x3_reduce
I0403 21:43:42.144206 24022 net.cpp:91] Creating Layer inception_3b/3x3_reduce
I0403 21:43:42.144223 24022 net.cpp:425] inception_3b/3x3_reduce <- inception_3a/output_inception_3a/output_0_split_1
I0403 21:43:42.144243 24022 net.cpp:399] inception_3b/3x3_reduce -> inception_3b/3x3_reduce
I0403 21:43:42.145339 24022 net.cpp:141] Setting up inception_3b/3x3_reduce
I0403 21:43:42.145365 24022 net.cpp:148] Top shape: 24 128 28 28 (2408448)
I0403 21:43:42.145381 24022 net.cpp:156] Memory required for data: 686408736
I0403 21:43:42.145400 24022 layer_factory.hpp:77] Creating layer inception_3b/relu_3x3_reduce
I0403 21:43:42.145419 24022 net.cpp:91] Creating Layer inception_3b/relu_3x3_reduce
I0403 21:43:42.145437 24022 net.cpp:425] inception_3b/relu_3x3_reduce <- inception_3b/3x3_reduce
I0403 21:43:42.145455 24022 net.cpp:386] inception_3b/relu_3x3_reduce -> inception_3b/3x3_reduce (in-place)
I0403 21:43:42.145622 24022 net.cpp:141] Setting up inception_3b/relu_3x3_reduce
I0403 21:43:42.145649 24022 net.cpp:148] Top shape: 24 128 28 28 (2408448)
I0403 21:43:42.145664 24022 net.cpp:156] Memory required for data: 696042528
I0403 21:43:42.145679 24022 layer_factory.hpp:77] Creating layer inception_3b/3x3
I0403 21:43:42.145704 24022 net.cpp:91] Creating Layer inception_3b/3x3
I0403 21:43:42.145720 24022 net.cpp:425] inception_3b/3x3 <- inception_3b/3x3_reduce
I0403 21:43:42.145740 24022 net.cpp:399] inception_3b/3x3 -> inception_3b/3x3
I0403 21:43:42.148658 24022 net.cpp:141] Setting up inception_3b/3x3
I0403 21:43:42.148687 24022 net.cpp:148] Top shape: 24 192 28 28 (3612672)
I0403 21:43:42.148704 24022 net.cpp:156] Memory required for data: 710493216
I0403 21:43:42.148723 24022 layer_factory.hpp:77] Creating layer inception_3b/relu_3x3
I0403 21:43:42.148744 24022 net.cpp:91] Creating Layer inception_3b/relu_3x3
I0403 21:43:42.148762 24022 net.cpp:425] inception_3b/relu_3x3 <- inception_3b/3x3
I0403 21:43:42.148779 24022 net.cpp:386] inception_3b/relu_3x3 -> inception_3b/3x3 (in-place)
I0403 21:43:42.149055 24022 net.cpp:141] Setting up inception_3b/relu_3x3
I0403 21:43:42.149083 24022 net.cpp:148] Top shape: 24 192 28 28 (3612672)
I0403 21:43:42.149098 24022 net.cpp:156] Memory required for data: 724943904
I0403 21:43:42.149114 24022 layer_factory.hpp:77] Creating layer inception_3b/5x5_reduce
I0403 21:43:42.149139 24022 net.cpp:91] Creating Layer inception_3b/5x5_reduce
I0403 21:43:42.149159 24022 net.cpp:425] inception_3b/5x5_reduce <- inception_3a/output_inception_3a/output_0_split_2
I0403 21:43:42.149178 24022 net.cpp:399] inception_3b/5x5_reduce -> inception_3b/5x5_reduce
I0403 21:43:42.150156 24022 net.cpp:141] Setting up inception_3b/5x5_reduce
I0403 21:43:42.150184 24022 net.cpp:148] Top shape: 24 32 28 28 (602112)
I0403 21:43:42.150205 24022 net.cpp:156] Memory required for data: 727352352
I0403 21:43:42.150224 24022 layer_factory.hpp:77] Creating layer inception_3b/relu_5x5_reduce
I0403 21:43:42.150244 24022 net.cpp:91] Creating Layer inception_3b/relu_5x5_reduce
I0403 21:43:42.150262 24022 net.cpp:425] inception_3b/relu_5x5_reduce <- inception_3b/5x5_reduce
I0403 21:43:42.150279 24022 net.cpp:386] inception_3b/relu_5x5_reduce -> inception_3b/5x5_reduce (in-place)
I0403 21:43:42.150471 24022 net.cpp:141] Setting up inception_3b/relu_5x5_reduce
I0403 21:43:42.150499 24022 net.cpp:148] Top shape: 24 32 28 28 (602112)
I0403 21:43:42.150514 24022 net.cpp:156] Memory required for data: 729760800
I0403 21:43:42.150529 24022 layer_factory.hpp:77] Creating layer inception_3b/5x5
I0403 21:43:42.150552 24022 net.cpp:91] Creating Layer inception_3b/5x5
I0403 21:43:42.150570 24022 net.cpp:425] inception_3b/5x5 <- inception_3b/5x5_reduce
I0403 21:43:42.150593 24022 net.cpp:399] inception_3b/5x5 -> inception_3b/5x5
I0403 21:43:42.152556 24022 net.cpp:141] Setting up inception_3b/5x5
I0403 21:43:42.152586 24022 net.cpp:148] Top shape: 24 96 28 28 (1806336)
I0403 21:43:42.152603 24022 net.cpp:156] Memory required for data: 736986144
I0403 21:43:42.152622 24022 layer_factory.hpp:77] Creating layer inception_3b/relu_5x5
I0403 21:43:42.152643 24022 net.cpp:91] Creating Layer inception_3b/relu_5x5
I0403 21:43:42.152662 24022 net.cpp:425] inception_3b/relu_5x5 <- inception_3b/5x5
I0403 21:43:42.152679 24022 net.cpp:386] inception_3b/relu_5x5 -> inception_3b/5x5 (in-place)
I0403 21:43:42.152868 24022 net.cpp:141] Setting up inception_3b/relu_5x5
I0403 21:43:42.152895 24022 net.cpp:148] Top shape: 24 96 28 28 (1806336)
I0403 21:43:42.152910 24022 net.cpp:156] Memory required for data: 744211488
I0403 21:43:42.152925 24022 layer_factory.hpp:77] Creating layer inception_3b/pool
I0403 21:43:42.152942 24022 net.cpp:91] Creating Layer inception_3b/pool
I0403 21:43:42.152959 24022 net.cpp:425] inception_3b/pool <- inception_3a/output_inception_3a/output_0_split_3
I0403 21:43:42.152979 24022 net.cpp:399] inception_3b/pool -> inception_3b/pool
I0403 21:43:42.153035 24022 net.cpp:141] Setting up inception_3b/pool
I0403 21:43:42.153059 24022 net.cpp:148] Top shape: 24 256 28 28 (4816896)
I0403 21:43:42.153074 24022 net.cpp:156] Memory required for data: 763479072
I0403 21:43:42.153087 24022 layer_factory.hpp:77] Creating layer inception_3b/pool_proj
I0403 21:43:42.153110 24022 net.cpp:91] Creating Layer inception_3b/pool_proj
I0403 21:43:42.153128 24022 net.cpp:425] inception_3b/pool_proj <- inception_3b/pool
I0403 21:43:42.153148 24022 net.cpp:399] inception_3b/pool_proj -> inception_3b/pool_proj
I0403 21:43:42.154191 24022 net.cpp:141] Setting up inception_3b/pool_proj
I0403 21:43:42.154222 24022 net.cpp:148] Top shape: 24 64 28 28 (1204224)
I0403 21:43:42.154238 24022 net.cpp:156] Memory required for data: 768295968
I0403 21:43:42.154258 24022 layer_factory.hpp:77] Creating layer inception_3b/relu_pool_proj
I0403 21:43:42.154278 24022 net.cpp:91] Creating Layer inception_3b/relu_pool_proj
I0403 21:43:42.154294 24022 net.cpp:425] inception_3b/relu_pool_proj <- inception_3b/pool_proj
I0403 21:43:42.154314 24022 net.cpp:386] inception_3b/relu_pool_proj -> inception_3b/pool_proj (in-place)
I0403 21:43:42.154705 24022 net.cpp:141] Setting up inception_3b/relu_pool_proj
I0403 21:43:42.154732 24022 net.cpp:148] Top shape: 24 64 28 28 (1204224)
I0403 21:43:42.154748 24022 net.cpp:156] Memory required for data: 773112864
I0403 21:43:42.154764 24022 layer_factory.hpp:77] Creating layer inception_3b/output
I0403 21:43:42.154781 24022 net.cpp:91] Creating Layer inception_3b/output
I0403 21:43:42.154796 24022 net.cpp:425] inception_3b/output <- inception_3b/1x1
I0403 21:43:42.154814 24022 net.cpp:425] inception_3b/output <- inception_3b/3x3
I0403 21:43:42.154829 24022 net.cpp:425] inception_3b/output <- inception_3b/5x5
I0403 21:43:42.154845 24022 net.cpp:425] inception_3b/output <- inception_3b/pool_proj
I0403 21:43:42.154865 24022 net.cpp:399] inception_3b/output -> inception_3b/output
I0403 21:43:42.154908 24022 net.cpp:141] Setting up inception_3b/output
I0403 21:43:42.154932 24022 net.cpp:148] Top shape: 24 480 28 28 (9031680)
I0403 21:43:42.154947 24022 net.cpp:156] Memory required for data: 809239584
I0403 21:43:42.154963 24022 layer_factory.hpp:77] Creating layer pool3/3x3_s2
I0403 21:43:42.154988 24022 net.cpp:91] Creating Layer pool3/3x3_s2
I0403 21:43:42.155004 24022 net.cpp:425] pool3/3x3_s2 <- inception_3b/output
I0403 21:43:42.155038 24022 net.cpp:399] pool3/3x3_s2 -> pool3/3x3_s2
I0403 21:43:42.155098 24022 net.cpp:141] Setting up pool3/3x3_s2
I0403 21:43:42.155122 24022 net.cpp:148] Top shape: 24 480 14 14 (2257920)
I0403 21:43:42.155138 24022 net.cpp:156] Memory required for data: 818271264
I0403 21:43:42.155153 24022 layer_factory.hpp:77] Creating layer pool3/3x3_s2_pool3/3x3_s2_0_split
I0403 21:43:42.155170 24022 net.cpp:91] Creating Layer pool3/3x3_s2_pool3/3x3_s2_0_split
I0403 21:43:42.155186 24022 net.cpp:425] pool3/3x3_s2_pool3/3x3_s2_0_split <- pool3/3x3_s2
I0403 21:43:42.155212 24022 net.cpp:399] pool3/3x3_s2_pool3/3x3_s2_0_split -> pool3/3x3_s2_pool3/3x3_s2_0_split_0
I0403 21:43:42.155233 24022 net.cpp:399] pool3/3x3_s2_pool3/3x3_s2_0_split -> pool3/3x3_s2_pool3/3x3_s2_0_split_1
I0403 21:43:42.155253 24022 net.cpp:399] pool3/3x3_s2_pool3/3x3_s2_0_split -> pool3/3x3_s2_pool3/3x3_s2_0_split_2
I0403 21:43:42.155275 24022 net.cpp:399] pool3/3x3_s2_pool3/3x3_s2_0_split -> pool3/3x3_s2_pool3/3x3_s2_0_split_3
I0403 21:43:42.155349 24022 net.cpp:141] Setting up pool3/3x3_s2_pool3/3x3_s2_0_split
I0403 21:43:42.155375 24022 net.cpp:148] Top shape: 24 480 14 14 (2257920)
I0403 21:43:42.155391 24022 net.cpp:148] Top shape: 24 480 14 14 (2257920)
I0403 21:43:42.155406 24022 net.cpp:148] Top shape: 24 480 14 14 (2257920)
I0403 21:43:42.155421 24022 net.cpp:148] Top shape: 24 480 14 14 (2257920)
I0403 21:43:42.155436 24022 net.cpp:156] Memory required for data: 854397984
I0403 21:43:42.155449 24022 layer_factory.hpp:77] Creating layer inception_4a/1x1
I0403 21:43:42.155472 24022 net.cpp:91] Creating Layer inception_4a/1x1
I0403 21:43:42.155491 24022 net.cpp:425] inception_4a/1x1 <- pool3/3x3_s2_pool3/3x3_s2_0_split_0
I0403 21:43:42.155513 24022 net.cpp:399] inception_4a/1x1 -> inception_4a/1x1
I0403 21:43:42.157063 24022 net.cpp:141] Setting up inception_4a/1x1
I0403 21:43:42.157093 24022 net.cpp:148] Top shape: 24 192 14 14 (903168)
I0403 21:43:42.157109 24022 net.cpp:156] Memory required for data: 858010656
I0403 21:43:42.157127 24022 layer_factory.hpp:77] Creating layer inception_4a/relu_1x1
I0403 21:43:42.157146 24022 net.cpp:91] Creating Layer inception_4a/relu_1x1
I0403 21:43:42.157163 24022 net.cpp:425] inception_4a/relu_1x1 <- inception_4a/1x1
I0403 21:43:42.157183 24022 net.cpp:386] inception_4a/relu_1x1 -> inception_4a/1x1 (in-place)
I0403 21:43:42.157363 24022 net.cpp:141] Setting up inception_4a/relu_1x1
I0403 21:43:42.157389 24022 net.cpp:148] Top shape: 24 192 14 14 (903168)
I0403 21:43:42.157404 24022 net.cpp:156] Memory required for data: 861623328
I0403 21:43:42.157420 24022 layer_factory.hpp:77] Creating layer inception_4a/3x3_reduce
I0403 21:43:42.157443 24022 net.cpp:91] Creating Layer inception_4a/3x3_reduce
I0403 21:43:42.157460 24022 net.cpp:425] inception_4a/3x3_reduce <- pool3/3x3_s2_pool3/3x3_s2_0_split_1
I0403 21:43:42.157481 24022 net.cpp:399] inception_4a/3x3_reduce -> inception_4a/3x3_reduce
I0403 21:43:42.158761 24022 net.cpp:141] Setting up inception_4a/3x3_reduce
I0403 21:43:42.158788 24022 net.cpp:148] Top shape: 24 96 14 14 (451584)
I0403 21:43:42.158804 24022 net.cpp:156] Memory required for data: 863429664
I0403 21:43:42.158830 24022 layer_factory.hpp:77] Creating layer inception_4a/relu_3x3_reduce
I0403 21:43:42.158851 24022 net.cpp:91] Creating Layer inception_4a/relu_3x3_reduce
I0403 21:43:42.158867 24022 net.cpp:425] inception_4a/relu_3x3_reduce <- inception_4a/3x3_reduce
I0403 21:43:42.158885 24022 net.cpp:386] inception_4a/relu_3x3_reduce -> inception_4a/3x3_reduce (in-place)
I0403 21:43:42.159060 24022 net.cpp:141] Setting up inception_4a/relu_3x3_reduce
I0403 21:43:42.159086 24022 net.cpp:148] Top shape: 24 96 14 14 (451584)
I0403 21:43:42.159101 24022 net.cpp:156] Memory required for data: 865236000
I0403 21:43:42.159117 24022 layer_factory.hpp:77] Creating layer inception_4a/3x3
I0403 21:43:42.159138 24022 net.cpp:91] Creating Layer inception_4a/3x3
I0403 21:43:42.159155 24022 net.cpp:425] inception_4a/3x3 <- inception_4a/3x3_reduce
I0403 21:43:42.159178 24022 net.cpp:399] inception_4a/3x3 -> inception_4a/3x3
I0403 21:43:42.161869 24022 net.cpp:141] Setting up inception_4a/3x3
I0403 21:43:42.161898 24022 net.cpp:148] Top shape: 24 208 14 14 (978432)
I0403 21:43:42.161914 24022 net.cpp:156] Memory required for data: 869149728
I0403 21:43:42.161933 24022 layer_factory.hpp:77] Creating layer inception_4a/relu_3x3
I0403 21:43:42.161952 24022 net.cpp:91] Creating Layer inception_4a/relu_3x3
I0403 21:43:42.161969 24022 net.cpp:425] inception_4a/relu_3x3 <- inception_4a/3x3
I0403 21:43:42.161988 24022 net.cpp:386] inception_4a/relu_3x3 -> inception_4a/3x3 (in-place)
I0403 21:43:42.162269 24022 net.cpp:141] Setting up inception_4a/relu_3x3
I0403 21:43:42.162297 24022 net.cpp:148] Top shape: 24 208 14 14 (978432)
I0403 21:43:42.162312 24022 net.cpp:156] Memory required for data: 873063456
I0403 21:43:42.162327 24022 layer_factory.hpp:77] Creating layer inception_4a/5x5_reduce
I0403 21:43:42.162348 24022 net.cpp:91] Creating Layer inception_4a/5x5_reduce
I0403 21:43:42.162367 24022 net.cpp:425] inception_4a/5x5_reduce <- pool3/3x3_s2_pool3/3x3_s2_0_split_2
I0403 21:43:42.162389 24022 net.cpp:399] inception_4a/5x5_reduce -> inception_4a/5x5_reduce
I0403 21:43:42.163403 24022 net.cpp:141] Setting up inception_4a/5x5_reduce
I0403 21:43:42.163430 24022 net.cpp:148] Top shape: 24 16 14 14 (75264)
I0403 21:43:42.163446 24022 net.cpp:156] Memory required for data: 873364512
I0403 21:43:42.163466 24022 layer_factory.hpp:77] Creating layer inception_4a/relu_5x5_reduce
I0403 21:43:42.163488 24022 net.cpp:91] Creating Layer inception_4a/relu_5x5_reduce
I0403 21:43:42.163506 24022 net.cpp:425] inception_4a/relu_5x5_reduce <- inception_4a/5x5_reduce
I0403 21:43:42.163523 24022 net.cpp:386] inception_4a/relu_5x5_reduce -> inception_4a/5x5_reduce (in-place)
I0403 21:43:42.163702 24022 net.cpp:141] Setting up inception_4a/relu_5x5_reduce
I0403 21:43:42.163730 24022 net.cpp:148] Top shape: 24 16 14 14 (75264)
I0403 21:43:42.163748 24022 net.cpp:156] Memory required for data: 873665568
I0403 21:43:42.163763 24022 layer_factory.hpp:77] Creating layer inception_4a/5x5
I0403 21:43:42.163785 24022 net.cpp:91] Creating Layer inception_4a/5x5
I0403 21:43:42.163803 24022 net.cpp:425] inception_4a/5x5 <- inception_4a/5x5_reduce
I0403 21:43:42.163823 24022 net.cpp:399] inception_4a/5x5 -> inception_4a/5x5
I0403 21:43:42.164901 24022 net.cpp:141] Setting up inception_4a/5x5
I0403 21:43:42.164945 24022 net.cpp:148] Top shape: 24 48 14 14 (225792)
I0403 21:43:42.164961 24022 net.cpp:156] Memory required for data: 874568736
I0403 21:43:42.164979 24022 layer_factory.hpp:77] Creating layer inception_4a/relu_5x5
I0403 21:43:42.164996 24022 net.cpp:91] Creating Layer inception_4a/relu_5x5
I0403 21:43:42.165012 24022 net.cpp:425] inception_4a/relu_5x5 <- inception_4a/5x5
I0403 21:43:42.165032 24022 net.cpp:386] inception_4a/relu_5x5 -> inception_4a/5x5 (in-place)
I0403 21:43:42.165211 24022 net.cpp:141] Setting up inception_4a/relu_5x5
I0403 21:43:42.165237 24022 net.cpp:148] Top shape: 24 48 14 14 (225792)
I0403 21:43:42.165251 24022 net.cpp:156] Memory required for data: 875471904
I0403 21:43:42.165266 24022 layer_factory.hpp:77] Creating layer inception_4a/pool
I0403 21:43:42.165282 24022 net.cpp:91] Creating Layer inception_4a/pool
I0403 21:43:42.165298 24022 net.cpp:425] inception_4a/pool <- pool3/3x3_s2_pool3/3x3_s2_0_split_3
I0403 21:43:42.165319 24022 net.cpp:399] inception_4a/pool -> inception_4a/pool
I0403 21:43:42.165379 24022 net.cpp:141] Setting up inception_4a/pool
I0403 21:43:42.165401 24022 net.cpp:148] Top shape: 24 480 14 14 (2257920)
I0403 21:43:42.165416 24022 net.cpp:156] Memory required for data: 884503584
I0403 21:43:42.165431 24022 layer_factory.hpp:77] Creating layer inception_4a/pool_proj
I0403 21:43:42.165453 24022 net.cpp:91] Creating Layer inception_4a/pool_proj
I0403 21:43:42.165472 24022 net.cpp:425] inception_4a/pool_proj <- inception_4a/pool
I0403 21:43:42.165489 24022 net.cpp:399] inception_4a/pool_proj -> inception_4a/pool_proj
I0403 21:43:42.166607 24022 net.cpp:141] Setting up inception_4a/pool_proj
I0403 21:43:42.166642 24022 net.cpp:148] Top shape: 24 64 14 14 (301056)
I0403 21:43:42.166672 24022 net.cpp:156] Memory required for data: 885707808
I0403 21:43:42.166692 24022 layer_factory.hpp:77] Creating layer inception_4a/relu_pool_proj
I0403 21:43:42.166712 24022 net.cpp:91] Creating Layer inception_4a/relu_pool_proj
I0403 21:43:42.166728 24022 net.cpp:425] inception_4a/relu_pool_proj <- inception_4a/pool_proj
I0403 21:43:42.166748 24022 net.cpp:386] inception_4a/relu_pool_proj -> inception_4a/pool_proj (in-place)
I0403 21:43:42.167021 24022 net.cpp:141] Setting up inception_4a/relu_pool_proj
I0403 21:43:42.167050 24022 net.cpp:148] Top shape: 24 64 14 14 (301056)
I0403 21:43:42.167065 24022 net.cpp:156] Memory required for data: 886912032
I0403 21:43:42.167080 24022 layer_factory.hpp:77] Creating layer inception_4a/output
I0403 21:43:42.167098 24022 net.cpp:91] Creating Layer inception_4a/output
I0403 21:43:42.167114 24022 net.cpp:425] inception_4a/output <- inception_4a/1x1
I0403 21:43:42.167129 24022 net.cpp:425] inception_4a/output <- inception_4a/3x3
I0403 21:43:42.167143 24022 net.cpp:425] inception_4a/output <- inception_4a/5x5
I0403 21:43:42.167160 24022 net.cpp:425] inception_4a/output <- inception_4a/pool_proj
I0403 21:43:42.167179 24022 net.cpp:399] inception_4a/output -> inception_4a/output
I0403 21:43:42.167227 24022 net.cpp:141] Setting up inception_4a/output
I0403 21:43:42.167251 24022 net.cpp:148] Top shape: 24 512 14 14 (2408448)
I0403 21:43:42.167266 24022 net.cpp:156] Memory required for data: 896545824
I0403 21:43:42.167280 24022 layer_factory.hpp:77] Creating layer inception_4a/output_inception_4a/output_0_split
I0403 21:43:42.167299 24022 net.cpp:91] Creating Layer inception_4a/output_inception_4a/output_0_split
I0403 21:43:42.167315 24022 net.cpp:425] inception_4a/output_inception_4a/output_0_split <- inception_4a/output
I0403 21:43:42.167333 24022 net.cpp:399] inception_4a/output_inception_4a/output_0_split -> inception_4a/output_inception_4a/output_0_split_0
I0403 21:43:42.167356 24022 net.cpp:399] inception_4a/output_inception_4a/output_0_split -> inception_4a/output_inception_4a/output_0_split_1
I0403 21:43:42.167376 24022 net.cpp:399] inception_4a/output_inception_4a/output_0_split -> inception_4a/output_inception_4a/output_0_split_2
I0403 21:43:42.167395 24022 net.cpp:399] inception_4a/output_inception_4a/output_0_split -> inception_4a/output_inception_4a/output_0_split_3
I0403 21:43:42.167414 24022 net.cpp:399] inception_4a/output_inception_4a/output_0_split -> inception_4a/output_inception_4a/output_0_split_4
I0403 21:43:42.167502 24022 net.cpp:141] Setting up inception_4a/output_inception_4a/output_0_split
I0403 21:43:42.167526 24022 net.cpp:148] Top shape: 24 512 14 14 (2408448)
I0403 21:43:42.167543 24022 net.cpp:148] Top shape: 24 512 14 14 (2408448)
I0403 21:43:42.167558 24022 net.cpp:148] Top shape: 24 512 14 14 (2408448)
I0403 21:43:42.167573 24022 net.cpp:148] Top shape: 24 512 14 14 (2408448)
I0403 21:43:42.167588 24022 net.cpp:148] Top shape: 24 512 14 14 (2408448)
I0403 21:43:42.167601 24022 net.cpp:156] Memory required for data: 944714784
I0403 21:43:42.167616 24022 layer_factory.hpp:77] Creating layer loss1/ave_pool
I0403 21:43:42.167636 24022 net.cpp:91] Creating Layer loss1/ave_pool
I0403 21:43:42.167651 24022 net.cpp:425] loss1/ave_pool <- inception_4a/output_inception_4a/output_0_split_0
I0403 21:43:42.167670 24022 net.cpp:399] loss1/ave_pool -> loss1/ave_pool
I0403 21:43:42.167866 24022 net.cpp:141] Setting up loss1/ave_pool
I0403 21:43:42.167892 24022 net.cpp:148] Top shape: 24 512 4 4 (196608)
I0403 21:43:42.167907 24022 net.cpp:156] Memory required for data: 945501216
I0403 21:43:42.167922 24022 layer_factory.hpp:77] Creating layer loss1/conv
I0403 21:43:42.167944 24022 net.cpp:91] Creating Layer loss1/conv
I0403 21:43:42.167961 24022 net.cpp:425] loss1/conv <- loss1/ave_pool
I0403 21:43:42.167982 24022 net.cpp:399] loss1/conv -> loss1/conv
I0403 21:43:42.169342 24022 net.cpp:141] Setting up loss1/conv
I0403 21:43:42.169369 24022 net.cpp:148] Top shape: 24 128 4 4 (49152)
I0403 21:43:42.169399 24022 net.cpp:156] Memory required for data: 945697824
I0403 21:43:42.169417 24022 layer_factory.hpp:77] Creating layer loss1/relu_conv
I0403 21:43:42.169438 24022 net.cpp:91] Creating Layer loss1/relu_conv
I0403 21:43:42.169456 24022 net.cpp:425] loss1/relu_conv <- loss1/conv
I0403 21:43:42.169472 24022 net.cpp:386] loss1/relu_conv -> loss1/conv (in-place)
I0403 21:43:42.169745 24022 net.cpp:141] Setting up loss1/relu_conv
I0403 21:43:42.169771 24022 net.cpp:148] Top shape: 24 128 4 4 (49152)
I0403 21:43:42.169786 24022 net.cpp:156] Memory required for data: 945894432
I0403 21:43:42.169800 24022 layer_factory.hpp:77] Creating layer loss1/fc
I0403 21:43:42.169826 24022 net.cpp:91] Creating Layer loss1/fc
I0403 21:43:42.169844 24022 net.cpp:425] loss1/fc <- loss1/conv
I0403 21:43:42.169862 24022 net.cpp:399] loss1/fc -> loss1/fc
I0403 21:43:42.187199 24022 net.cpp:141] Setting up loss1/fc
I0403 21:43:42.187233 24022 net.cpp:148] Top shape: 24 1024 (24576)
I0403 21:43:42.187249 24022 net.cpp:156] Memory required for data: 945992736
I0403 21:43:42.187268 24022 layer_factory.hpp:77] Creating layer loss1/relu_fc
I0403 21:43:42.187285 24022 net.cpp:91] Creating Layer loss1/relu_fc
I0403 21:43:42.187301 24022 net.cpp:425] loss1/relu_fc <- loss1/fc
I0403 21:43:42.187320 24022 net.cpp:386] loss1/relu_fc -> loss1/fc (in-place)
I0403 21:43:42.187500 24022 net.cpp:141] Setting up loss1/relu_fc
I0403 21:43:42.187525 24022 net.cpp:148] Top shape: 24 1024 (24576)
I0403 21:43:42.187539 24022 net.cpp:156] Memory required for data: 946091040
I0403 21:43:42.187553 24022 layer_factory.hpp:77] Creating layer loss1/drop_fc
I0403 21:43:42.187580 24022 net.cpp:91] Creating Layer loss1/drop_fc
I0403 21:43:42.187597 24022 net.cpp:425] loss1/drop_fc <- loss1/fc
I0403 21:43:42.187615 24022 net.cpp:386] loss1/drop_fc -> loss1/fc (in-place)
I0403 21:43:42.187665 24022 net.cpp:141] Setting up loss1/drop_fc
I0403 21:43:42.187691 24022 net.cpp:148] Top shape: 24 1024 (24576)
I0403 21:43:42.187707 24022 net.cpp:156] Memory required for data: 946189344
I0403 21:43:42.187727 24022 layer_factory.hpp:77] Creating layer loss1/classifier_plantvillage
I0403 21:43:42.187744 24022 net.cpp:91] Creating Layer loss1/classifier_plantvillage
I0403 21:43:42.187762 24022 net.cpp:425] loss1/classifier_plantvillage <- loss1/fc
I0403 21:43:42.187783 24022 net.cpp:399] loss1/classifier_plantvillage -> loss1/classifier_plantvillage
I0403 21:43:42.188705 24022 net.cpp:141] Setting up loss1/classifier_plantvillage
I0403 21:43:42.188733 24022 net.cpp:148] Top shape: 24 38 (912)
I0403 21:43:42.188748 24022 net.cpp:156] Memory required for data: 946192992
I0403 21:43:42.188767 24022 layer_factory.hpp:77] Creating layer loss1/classifier_plantvillage_loss1/classifier_plantvillage_0_split
I0403 21:43:42.188784 24022 net.cpp:91] Creating Layer loss1/classifier_plantvillage_loss1/classifier_plantvillage_0_split
I0403 21:43:42.188802 24022 net.cpp:425] loss1/classifier_plantvillage_loss1/classifier_plantvillage_0_split <- loss1/classifier_plantvillage
I0403 21:43:42.188822 24022 net.cpp:399] loss1/classifier_plantvillage_loss1/classifier_plantvillage_0_split -> loss1/classifier_plantvillage_loss1/classifier_plantvillage_0_split_0
I0403 21:43:42.188843 24022 net.cpp:399] loss1/classifier_plantvillage_loss1/classifier_plantvillage_0_split -> loss1/classifier_plantvillage_loss1/classifier_plantvillage_0_split_1
I0403 21:43:42.188863 24022 net.cpp:399] loss1/classifier_plantvillage_loss1/classifier_plantvillage_0_split -> loss1/classifier_plantvillage_loss1/classifier_plantvillage_0_split_2
I0403 21:43:42.188930 24022 net.cpp:141] Setting up loss1/classifier_plantvillage_loss1/classifier_plantvillage_0_split
I0403 21:43:42.188956 24022 net.cpp:148] Top shape: 24 38 (912)
I0403 21:43:42.188971 24022 net.cpp:148] Top shape: 24 38 (912)
I0403 21:43:42.188987 24022 net.cpp:148] Top shape: 24 38 (912)
I0403 21:43:42.189002 24022 net.cpp:156] Memory required for data: 946203936
I0403 21:43:42.189015 24022 layer_factory.hpp:77] Creating layer inception_4b/1x1
I0403 21:43:42.189036 24022 net.cpp:91] Creating Layer inception_4b/1x1
I0403 21:43:42.189070 24022 net.cpp:425] inception_4b/1x1 <- inception_4a/output_inception_4a/output_0_split_1
I0403 21:43:42.189091 24022 net.cpp:399] inception_4b/1x1 -> inception_4b/1x1
I0403 21:43:42.190690 24022 net.cpp:141] Setting up inception_4b/1x1
I0403 21:43:42.190719 24022 net.cpp:148] Top shape: 24 160 14 14 (752640)
I0403 21:43:42.190735 24022 net.cpp:156] Memory required for data: 949214496
I0403 21:43:42.190754 24022 layer_factory.hpp:77] Creating layer inception_4b/relu_1x1
I0403 21:43:42.190774 24022 net.cpp:91] Creating Layer inception_4b/relu_1x1
I0403 21:43:42.190793 24022 net.cpp:425] inception_4b/relu_1x1 <- inception_4b/1x1
I0403 21:43:42.190810 24022 net.cpp:386] inception_4b/relu_1x1 -> inception_4b/1x1 (in-place)
I0403 21:43:42.190984 24022 net.cpp:141] Setting up inception_4b/relu_1x1
I0403 21:43:42.191011 24022 net.cpp:148] Top shape: 24 160 14 14 (752640)
I0403 21:43:42.191026 24022 net.cpp:156] Memory required for data: 952225056
I0403 21:43:42.191041 24022 layer_factory.hpp:77] Creating layer inception_4b/3x3_reduce
I0403 21:43:42.191063 24022 net.cpp:91] Creating Layer inception_4b/3x3_reduce
I0403 21:43:42.191081 24022 net.cpp:425] inception_4b/3x3_reduce <- inception_4a/output_inception_4a/output_0_split_2
I0403 21:43:42.191099 24022 net.cpp:399] inception_4b/3x3_reduce -> inception_4b/3x3_reduce
I0403 21:43:42.192423 24022 net.cpp:141] Setting up inception_4b/3x3_reduce
I0403 21:43:42.192454 24022 net.cpp:148] Top shape: 24 112 14 14 (526848)
I0403 21:43:42.192471 24022 net.cpp:156] Memory required for data: 954332448
I0403 21:43:42.192490 24022 layer_factory.hpp:77] Creating layer inception_4b/relu_3x3_reduce
I0403 21:43:42.192509 24022 net.cpp:91] Creating Layer inception_4b/relu_3x3_reduce
I0403 21:43:42.192526 24022 net.cpp:425] inception_4b/relu_3x3_reduce <- inception_4b/3x3_reduce
I0403 21:43:42.192543 24022 net.cpp:386] inception_4b/relu_3x3_reduce -> inception_4b/3x3_reduce (in-place)
I0403 21:43:42.192823 24022 net.cpp:141] Setting up inception_4b/relu_3x3_reduce
I0403 21:43:42.192852 24022 net.cpp:148] Top shape: 24 112 14 14 (526848)
I0403 21:43:42.192867 24022 net.cpp:156] Memory required for data: 956439840
I0403 21:43:42.192881 24022 layer_factory.hpp:77] Creating layer inception_4b/3x3
I0403 21:43:42.192904 24022 net.cpp:91] Creating Layer inception_4b/3x3
I0403 21:43:42.192922 24022 net.cpp:425] inception_4b/3x3 <- inception_4b/3x3_reduce
I0403 21:43:42.192940 24022 net.cpp:399] inception_4b/3x3 -> inception_4b/3x3
I0403 21:43:42.195850 24022 net.cpp:141] Setting up inception_4b/3x3
I0403 21:43:42.195880 24022 net.cpp:148] Top shape: 24 224 14 14 (1053696)
I0403 21:43:42.195896 24022 net.cpp:156] Memory required for data: 960654624
I0403 21:43:42.195915 24022 layer_factory.hpp:77] Creating layer inception_4b/relu_3x3
I0403 21:43:42.195933 24022 net.cpp:91] Creating Layer inception_4b/relu_3x3
I0403 21:43:42.195950 24022 net.cpp:425] inception_4b/relu_3x3 <- inception_4b/3x3
I0403 21:43:42.195968 24022 net.cpp:386] inception_4b/relu_3x3 -> inception_4b/3x3 (in-place)
I0403 21:43:42.196146 24022 net.cpp:141] Setting up inception_4b/relu_3x3
I0403 21:43:42.196171 24022 net.cpp:148] Top shape: 24 224 14 14 (1053696)
I0403 21:43:42.196185 24022 net.cpp:156] Memory required for data: 964869408
I0403 21:43:42.196218 24022 layer_factory.hpp:77] Creating layer inception_4b/5x5_reduce
I0403 21:43:42.196244 24022 net.cpp:91] Creating Layer inception_4b/5x5_reduce
I0403 21:43:42.196271 24022 net.cpp:425] inception_4b/5x5_reduce <- inception_4a/output_inception_4a/output_0_split_3
I0403 21:43:42.196295 24022 net.cpp:399] inception_4b/5x5_reduce -> inception_4b/5x5_reduce
I0403 21:43:42.197412 24022 net.cpp:141] Setting up inception_4b/5x5_reduce
I0403 21:43:42.197440 24022 net.cpp:148] Top shape: 24 24 14 14 (112896)
I0403 21:43:42.197459 24022 net.cpp:156] Memory required for data: 965320992
I0403 21:43:42.197479 24022 layer_factory.hpp:77] Creating layer inception_4b/relu_5x5_reduce
I0403 21:43:42.197496 24022 net.cpp:91] Creating Layer inception_4b/relu_5x5_reduce
I0403 21:43:42.197536 24022 net.cpp:425] inception_4b/relu_5x5_reduce <- inception_4b/5x5_reduce
I0403 21:43:42.197556 24022 net.cpp:386] inception_4b/relu_5x5_reduce -> inception_4b/5x5_reduce (in-place)
I0403 21:43:42.197744 24022 net.cpp:141] Setting up inception_4b/relu_5x5_reduce
I0403 21:43:42.197772 24022 net.cpp:148] Top shape: 24 24 14 14 (112896)
I0403 21:43:42.197788 24022 net.cpp:156] Memory required for data: 965772576
I0403 21:43:42.197803 24022 layer_factory.hpp:77] Creating layer inception_4b/5x5
I0403 21:43:42.197826 24022 net.cpp:91] Creating Layer inception_4b/5x5
I0403 21:43:42.197844 24022 net.cpp:425] inception_4b/5x5 <- inception_4b/5x5_reduce
I0403 21:43:42.197863 24022 net.cpp:399] inception_4b/5x5 -> inception_4b/5x5
I0403 21:43:42.199100 24022 net.cpp:141] Setting up inception_4b/5x5
I0403 21:43:42.199128 24022 net.cpp:148] Top shape: 24 64 14 14 (301056)
I0403 21:43:42.199146 24022 net.cpp:156] Memory required for data: 966976800
I0403 21:43:42.199163 24022 layer_factory.hpp:77] Creating layer inception_4b/relu_5x5
I0403 21:43:42.199183 24022 net.cpp:91] Creating Layer inception_4b/relu_5x5
I0403 21:43:42.199205 24022 net.cpp:425] inception_4b/relu_5x5 <- inception_4b/5x5
I0403 21:43:42.199225 24022 net.cpp:386] inception_4b/relu_5x5 -> inception_4b/5x5 (in-place)
I0403 21:43:42.199512 24022 net.cpp:141] Setting up inception_4b/relu_5x5
I0403 21:43:42.199539 24022 net.cpp:148] Top shape: 24 64 14 14 (301056)
I0403 21:43:42.199554 24022 net.cpp:156] Memory required for data: 968181024
I0403 21:43:42.199569 24022 layer_factory.hpp:77] Creating layer inception_4b/pool
I0403 21:43:42.199591 24022 net.cpp:91] Creating Layer inception_4b/pool
I0403 21:43:42.199609 24022 net.cpp:425] inception_4b/pool <- inception_4a/output_inception_4a/output_0_split_4
I0403 21:43:42.199628 24022 net.cpp:399] inception_4b/pool -> inception_4b/pool
I0403 21:43:42.199694 24022 net.cpp:141] Setting up inception_4b/pool
I0403 21:43:42.199717 24022 net.cpp:148] Top shape: 24 512 14 14 (2408448)
I0403 21:43:42.199733 24022 net.cpp:156] Memory required for data: 977814816
I0403 21:43:42.199746 24022 layer_factory.hpp:77] Creating layer inception_4b/pool_proj
I0403 21:43:42.199769 24022 net.cpp:91] Creating Layer inception_4b/pool_proj
I0403 21:43:42.199787 24022 net.cpp:425] inception_4b/pool_proj <- inception_4b/pool
I0403 21:43:42.199808 24022 net.cpp:399] inception_4b/pool_proj -> inception_4b/pool_proj
I0403 21:43:42.201012 24022 net.cpp:141] Setting up inception_4b/pool_proj
I0403 21:43:42.201040 24022 net.cpp:148] Top shape: 24 64 14 14 (301056)
I0403 21:43:42.201056 24022 net.cpp:156] Memory required for data: 979019040
I0403 21:43:42.201076 24022 layer_factory.hpp:77] Creating layer inception_4b/relu_pool_proj
I0403 21:43:42.201095 24022 net.cpp:91] Creating Layer inception_4b/relu_pool_proj
I0403 21:43:42.201113 24022 net.cpp:425] inception_4b/relu_pool_proj <- inception_4b/pool_proj
I0403 21:43:42.201131 24022 net.cpp:386] inception_4b/relu_pool_proj -> inception_4b/pool_proj (in-place)
I0403 21:43:42.201321 24022 net.cpp:141] Setting up inception_4b/relu_pool_proj
I0403 21:43:42.201347 24022 net.cpp:148] Top shape: 24 64 14 14 (301056)
I0403 21:43:42.201362 24022 net.cpp:156] Memory required for data: 980223264
I0403 21:43:42.201376 24022 layer_factory.hpp:77] Creating layer inception_4b/output
I0403 21:43:42.201395 24022 net.cpp:91] Creating Layer inception_4b/output
I0403 21:43:42.201411 24022 net.cpp:425] inception_4b/output <- inception_4b/1x1
I0403 21:43:42.201426 24022 net.cpp:425] inception_4b/output <- inception_4b/3x3
I0403 21:43:42.201442 24022 net.cpp:425] inception_4b/output <- inception_4b/5x5
I0403 21:43:42.201458 24022 net.cpp:425] inception_4b/output <- inception_4b/pool_proj
I0403 21:43:42.201478 24022 net.cpp:399] inception_4b/output -> inception_4b/output
I0403 21:43:42.201524 24022 net.cpp:141] Setting up inception_4b/output
I0403 21:43:42.201547 24022 net.cpp:148] Top shape: 24 512 14 14 (2408448)
I0403 21:43:42.201565 24022 net.cpp:156] Memory required for data: 989857056
I0403 21:43:42.201597 24022 layer_factory.hpp:77] Creating layer inception_4b/output_inception_4b/output_0_split
I0403 21:43:42.201617 24022 net.cpp:91] Creating Layer inception_4b/output_inception_4b/output_0_split
I0403 21:43:42.201632 24022 net.cpp:425] inception_4b/output_inception_4b/output_0_split <- inception_4b/output
I0403 21:43:42.201649 24022 net.cpp:399] inception_4b/output_inception_4b/output_0_split -> inception_4b/output_inception_4b/output_0_split_0
I0403 21:43:42.201670 24022 net.cpp:399] inception_4b/output_inception_4b/output_0_split -> inception_4b/output_inception_4b/output_0_split_1
I0403 21:43:42.201690 24022 net.cpp:399] inception_4b/output_inception_4b/output_0_split -> inception_4b/output_inception_4b/output_0_split_2
I0403 21:43:42.201714 24022 net.cpp:399] inception_4b/output_inception_4b/output_0_split -> inception_4b/output_inception_4b/output_0_split_3
I0403 21:43:42.201800 24022 net.cpp:141] Setting up inception_4b/output_inception_4b/output_0_split
I0403 21:43:42.201823 24022 net.cpp:148] Top shape: 24 512 14 14 (2408448)
I0403 21:43:42.201841 24022 net.cpp:148] Top shape: 24 512 14 14 (2408448)
I0403 21:43:42.201858 24022 net.cpp:148] Top shape: 24 512 14 14 (2408448)
I0403 21:43:42.201874 24022 net.cpp:148] Top shape: 24 512 14 14 (2408448)
I0403 21:43:42.201887 24022 net.cpp:156] Memory required for data: 1028392224
I0403 21:43:42.201902 24022 layer_factory.hpp:77] Creating layer inception_4c/1x1
I0403 21:43:42.201925 24022 net.cpp:91] Creating Layer inception_4c/1x1
I0403 21:43:42.201942 24022 net.cpp:425] inception_4c/1x1 <- inception_4b/output_inception_4b/output_0_split_0
I0403 21:43:42.201967 24022 net.cpp:399] inception_4c/1x1 -> inception_4c/1x1
I0403 21:43:42.203405 24022 net.cpp:141] Setting up inception_4c/1x1
I0403 21:43:42.203434 24022 net.cpp:148] Top shape: 24 128 14 14 (602112)
I0403 21:43:42.203450 24022 net.cpp:156] Memory required for data: 1030800672
I0403 21:43:42.203469 24022 layer_factory.hpp:77] Creating layer inception_4c/relu_1x1
I0403 21:43:42.203486 24022 net.cpp:91] Creating Layer inception_4c/relu_1x1
I0403 21:43:42.203505 24022 net.cpp:425] inception_4c/relu_1x1 <- inception_4c/1x1
I0403 21:43:42.203524 24022 net.cpp:386] inception_4c/relu_1x1 -> inception_4c/1x1 (in-place)
I0403 21:43:42.203707 24022 net.cpp:141] Setting up inception_4c/relu_1x1
I0403 21:43:42.203733 24022 net.cpp:148] Top shape: 24 128 14 14 (602112)
I0403 21:43:42.203748 24022 net.cpp:156] Memory required for data: 1033209120
I0403 21:43:42.203763 24022 layer_factory.hpp:77] Creating layer inception_4c/3x3_reduce
I0403 21:43:42.203785 24022 net.cpp:91] Creating Layer inception_4c/3x3_reduce
I0403 21:43:42.203802 24022 net.cpp:425] inception_4c/3x3_reduce <- inception_4b/output_inception_4b/output_0_split_1
I0403 21:43:42.203825 24022 net.cpp:399] inception_4c/3x3_reduce -> inception_4c/3x3_reduce
I0403 21:43:42.205796 24022 net.cpp:141] Setting up inception_4c/3x3_reduce
I0403 21:43:42.205824 24022 net.cpp:148] Top shape: 24 128 14 14 (602112)
I0403 21:43:42.205840 24022 net.cpp:156] Memory required for data: 1035617568
I0403 21:43:42.205859 24022 layer_factory.hpp:77] Creating layer inception_4c/relu_3x3_reduce
I0403 21:43:42.205880 24022 net.cpp:91] Creating Layer inception_4c/relu_3x3_reduce
I0403 21:43:42.205898 24022 net.cpp:425] inception_4c/relu_3x3_reduce <- inception_4c/3x3_reduce
I0403 21:43:42.205915 24022 net.cpp:386] inception_4c/relu_3x3_reduce -> inception_4c/3x3_reduce (in-place)
I0403 21:43:42.206212 24022 net.cpp:141] Setting up inception_4c/relu_3x3_reduce
I0403 21:43:42.206239 24022 net.cpp:148] Top shape: 24 128 14 14 (602112)
I0403 21:43:42.206255 24022 net.cpp:156] Memory required for data: 1038026016
I0403 21:43:42.206270 24022 layer_factory.hpp:77] Creating layer inception_4c/3x3
I0403 21:43:42.206293 24022 net.cpp:91] Creating Layer inception_4c/3x3
I0403 21:43:42.206312 24022 net.cpp:425] inception_4c/3x3 <- inception_4c/3x3_reduce
I0403 21:43:42.206334 24022 net.cpp:399] inception_4c/3x3 -> inception_4c/3x3
I0403 21:43:42.209975 24022 net.cpp:141] Setting up inception_4c/3x3
I0403 21:43:42.210017 24022 net.cpp:148] Top shape: 24 256 14 14 (1204224)
I0403 21:43:42.210034 24022 net.cpp:156] Memory required for data: 1042842912
I0403 21:43:42.210067 24022 layer_factory.hpp:77] Creating layer inception_4c/relu_3x3
I0403 21:43:42.210089 24022 net.cpp:91] Creating Layer inception_4c/relu_3x3
I0403 21:43:42.210108 24022 net.cpp:425] inception_4c/relu_3x3 <- inception_4c/3x3
I0403 21:43:42.210125 24022 net.cpp:386] inception_4c/relu_3x3 -> inception_4c/3x3 (in-place)
I0403 21:43:42.210312 24022 net.cpp:141] Setting up inception_4c/relu_3x3
I0403 21:43:42.210341 24022 net.cpp:148] Top shape: 24 256 14 14 (1204224)
I0403 21:43:42.210357 24022 net.cpp:156] Memory required for data: 1047659808
I0403 21:43:42.210372 24022 layer_factory.hpp:77] Creating layer inception_4c/5x5_reduce
I0403 21:43:42.210392 24022 net.cpp:91] Creating Layer inception_4c/5x5_reduce
I0403 21:43:42.210409 24022 net.cpp:425] inception_4c/5x5_reduce <- inception_4b/output_inception_4b/output_0_split_2
I0403 21:43:42.210432 24022 net.cpp:399] inception_4c/5x5_reduce -> inception_4c/5x5_reduce
I0403 21:43:42.211526 24022 net.cpp:141] Setting up inception_4c/5x5_reduce
I0403 21:43:42.211555 24022 net.cpp:148] Top shape: 24 24 14 14 (112896)
I0403 21:43:42.211571 24022 net.cpp:156] Memory required for data: 1048111392
I0403 21:43:42.211590 24022 layer_factory.hpp:77] Creating layer inception_4c/relu_5x5_reduce
I0403 21:43:42.211611 24022 net.cpp:91] Creating Layer inception_4c/relu_5x5_reduce
I0403 21:43:42.211627 24022 net.cpp:425] inception_4c/relu_5x5_reduce <- inception_4c/5x5_reduce
I0403 21:43:42.211647 24022 net.cpp:386] inception_4c/relu_5x5_reduce -> inception_4c/5x5_reduce (in-place)
I0403 21:43:42.211838 24022 net.cpp:141] Setting up inception_4c/relu_5x5_reduce
I0403 21:43:42.211865 24022 net.cpp:148] Top shape: 24 24 14 14 (112896)
I0403 21:43:42.211880 24022 net.cpp:156] Memory required for data: 1048562976
I0403 21:43:42.211895 24022 layer_factory.hpp:77] Creating layer inception_4c/5x5
I0403 21:43:42.211917 24022 net.cpp:91] Creating Layer inception_4c/5x5
I0403 21:43:42.211935 24022 net.cpp:425] inception_4c/5x5 <- inception_4c/5x5_reduce
I0403 21:43:42.211956 24022 net.cpp:399] inception_4c/5x5 -> inception_4c/5x5
I0403 21:43:42.213210 24022 net.cpp:141] Setting up inception_4c/5x5
I0403 21:43:42.213240 24022 net.cpp:148] Top shape: 24 64 14 14 (301056)
I0403 21:43:42.213258 24022 net.cpp:156] Memory required for data: 1049767200
I0403 21:43:42.213276 24022 layer_factory.hpp:77] Creating layer inception_4c/relu_5x5
I0403 21:43:42.213294 24022 net.cpp:91] Creating Layer inception_4c/relu_5x5
I0403 21:43:42.213312 24022 net.cpp:425] inception_4c/relu_5x5 <- inception_4c/5x5
I0403 21:43:42.213335 24022 net.cpp:386] inception_4c/relu_5x5 -> inception_4c/5x5 (in-place)
I0403 21:43:42.213626 24022 net.cpp:141] Setting up inception_4c/relu_5x5
I0403 21:43:42.213654 24022 net.cpp:148] Top shape: 24 64 14 14 (301056)
I0403 21:43:42.213668 24022 net.cpp:156] Memory required for data: 1050971424
I0403 21:43:42.213685 24022 layer_factory.hpp:77] Creating layer inception_4c/pool
I0403 21:43:42.213702 24022 net.cpp:91] Creating Layer inception_4c/pool
I0403 21:43:42.213718 24022 net.cpp:425] inception_4c/pool <- inception_4b/output_inception_4b/output_0_split_3
I0403 21:43:42.213740 24022 net.cpp:399] inception_4c/pool -> inception_4c/pool
I0403 21:43:42.213805 24022 net.cpp:141] Setting up inception_4c/pool
I0403 21:43:42.213830 24022 net.cpp:148] Top shape: 24 512 14 14 (2408448)
I0403 21:43:42.213845 24022 net.cpp:156] Memory required for data: 1060605216
I0403 21:43:42.213860 24022 layer_factory.hpp:77] Creating layer inception_4c/pool_proj
I0403 21:43:42.213884 24022 net.cpp:91] Creating Layer inception_4c/pool_proj
I0403 21:43:42.213902 24022 net.cpp:425] inception_4c/pool_proj <- inception_4c/pool
I0403 21:43:42.213920 24022 net.cpp:399] inception_4c/pool_proj -> inception_4c/pool_proj
I0403 21:43:42.215145 24022 net.cpp:141] Setting up inception_4c/pool_proj
I0403 21:43:42.215173 24022 net.cpp:148] Top shape: 24 64 14 14 (301056)
I0403 21:43:42.215207 24022 net.cpp:156] Memory required for data: 1061809440
I0403 21:43:42.215229 24022 layer_factory.hpp:77] Creating layer inception_4c/relu_pool_proj
I0403 21:43:42.215248 24022 net.cpp:91] Creating Layer inception_4c/relu_pool_proj
I0403 21:43:42.215266 24022 net.cpp:425] inception_4c/relu_pool_proj <- inception_4c/pool_proj
I0403 21:43:42.215283 24022 net.cpp:386] inception_4c/relu_pool_proj -> inception_4c/pool_proj (in-place)
I0403 21:43:42.215463 24022 net.cpp:141] Setting up inception_4c/relu_pool_proj
I0403 21:43:42.215493 24022 net.cpp:148] Top shape: 24 64 14 14 (301056)
I0403 21:43:42.215508 24022 net.cpp:156] Memory required for data: 1063013664
I0403 21:43:42.215523 24022 layer_factory.hpp:77] Creating layer inception_4c/output
I0403 21:43:42.215540 24022 net.cpp:91] Creating Layer inception_4c/output
I0403 21:43:42.215555 24022 net.cpp:425] inception_4c/output <- inception_4c/1x1
I0403 21:43:42.215572 24022 net.cpp:425] inception_4c/output <- inception_4c/3x3
I0403 21:43:42.215587 24022 net.cpp:425] inception_4c/output <- inception_4c/5x5
I0403 21:43:42.215603 24022 net.cpp:425] inception_4c/output <- inception_4c/pool_proj
I0403 21:43:42.215620 24022 net.cpp:399] inception_4c/output -> inception_4c/output
I0403 21:43:42.215665 24022 net.cpp:141] Setting up inception_4c/output
I0403 21:43:42.215689 24022 net.cpp:148] Top shape: 24 512 14 14 (2408448)
I0403 21:43:42.215703 24022 net.cpp:156] Memory required for data: 1072647456
I0403 21:43:42.215718 24022 layer_factory.hpp:77] Creating layer inception_4c/output_inception_4c/output_0_split
I0403 21:43:42.215739 24022 net.cpp:91] Creating Layer inception_4c/output_inception_4c/output_0_split
I0403 21:43:42.215755 24022 net.cpp:425] inception_4c/output_inception_4c/output_0_split <- inception_4c/output
I0403 21:43:42.215772 24022 net.cpp:399] inception_4c/output_inception_4c/output_0_split -> inception_4c/output_inception_4c/output_0_split_0
I0403 21:43:42.215791 24022 net.cpp:399] inception_4c/output_inception_4c/output_0_split -> inception_4c/output_inception_4c/output_0_split_1
I0403 21:43:42.215811 24022 net.cpp:399] inception_4c/output_inception_4c/output_0_split -> inception_4c/output_inception_4c/output_0_split_2
I0403 21:43:42.215833 24022 net.cpp:399] inception_4c/output_inception_4c/output_0_split -> inception_4c/output_inception_4c/output_0_split_3
I0403 21:43:42.215920 24022 net.cpp:141] Setting up inception_4c/output_inception_4c/output_0_split
I0403 21:43:42.215945 24022 net.cpp:148] Top shape: 24 512 14 14 (2408448)
I0403 21:43:42.215961 24022 net.cpp:148] Top shape: 24 512 14 14 (2408448)
I0403 21:43:42.215977 24022 net.cpp:148] Top shape: 24 512 14 14 (2408448)
I0403 21:43:42.215992 24022 net.cpp:148] Top shape: 24 512 14 14 (2408448)
I0403 21:43:42.216006 24022 net.cpp:156] Memory required for data: 1111182624
I0403 21:43:42.216020 24022 layer_factory.hpp:77] Creating layer inception_4d/1x1
I0403 21:43:42.216042 24022 net.cpp:91] Creating Layer inception_4d/1x1
I0403 21:43:42.216059 24022 net.cpp:425] inception_4d/1x1 <- inception_4c/output_inception_4c/output_0_split_0
I0403 21:43:42.216079 24022 net.cpp:399] inception_4d/1x1 -> inception_4d/1x1
I0403 21:43:42.217433 24022 net.cpp:141] Setting up inception_4d/1x1
I0403 21:43:42.217461 24022 net.cpp:148] Top shape: 24 112 14 14 (526848)
I0403 21:43:42.217478 24022 net.cpp:156] Memory required for data: 1113290016
I0403 21:43:42.217496 24022 layer_factory.hpp:77] Creating layer inception_4d/relu_1x1
I0403 21:43:42.217514 24022 net.cpp:91] Creating Layer inception_4d/relu_1x1
I0403 21:43:42.217530 24022 net.cpp:425] inception_4d/relu_1x1 <- inception_4d/1x1
I0403 21:43:42.217548 24022 net.cpp:386] inception_4d/relu_1x1 -> inception_4d/1x1 (in-place)
I0403 21:43:42.217730 24022 net.cpp:141] Setting up inception_4d/relu_1x1
I0403 21:43:42.217754 24022 net.cpp:148] Top shape: 24 112 14 14 (526848)
I0403 21:43:42.217769 24022 net.cpp:156] Memory required for data: 1115397408
I0403 21:43:42.217784 24022 layer_factory.hpp:77] Creating layer inception_4d/3x3_reduce
I0403 21:43:42.217821 24022 net.cpp:91] Creating Layer inception_4d/3x3_reduce
I0403 21:43:42.217840 24022 net.cpp:425] inception_4d/3x3_reduce <- inception_4c/output_inception_4c/output_0_split_1
I0403 21:43:42.217870 24022 net.cpp:399] inception_4d/3x3_reduce -> inception_4d/3x3_reduce
I0403 21:43:42.219355 24022 net.cpp:141] Setting up inception_4d/3x3_reduce
I0403 21:43:42.219384 24022 net.cpp:148] Top shape: 24 144 14 14 (677376)
I0403 21:43:42.219401 24022 net.cpp:156] Memory required for data: 1118106912
I0403 21:43:42.219420 24022 layer_factory.hpp:77] Creating layer inception_4d/relu_3x3_reduce
I0403 21:43:42.219439 24022 net.cpp:91] Creating Layer inception_4d/relu_3x3_reduce
I0403 21:43:42.219455 24022 net.cpp:425] inception_4d/relu_3x3_reduce <- inception_4d/3x3_reduce
I0403 21:43:42.219475 24022 net.cpp:386] inception_4d/relu_3x3_reduce -> inception_4d/3x3_reduce (in-place)
I0403 21:43:42.219765 24022 net.cpp:141] Setting up inception_4d/relu_3x3_reduce
I0403 21:43:42.219794 24022 net.cpp:148] Top shape: 24 144 14 14 (677376)
I0403 21:43:42.219810 24022 net.cpp:156] Memory required for data: 1120816416
I0403 21:43:42.219825 24022 layer_factory.hpp:77] Creating layer inception_4d/3x3
I0403 21:43:42.219847 24022 net.cpp:91] Creating Layer inception_4d/3x3
I0403 21:43:42.219864 24022 net.cpp:425] inception_4d/3x3 <- inception_4d/3x3_reduce
I0403 21:43:42.219885 24022 net.cpp:399] inception_4d/3x3 -> inception_4d/3x3
I0403 21:43:42.224063 24022 net.cpp:141] Setting up inception_4d/3x3
I0403 21:43:42.224092 24022 net.cpp:148] Top shape: 24 288 14 14 (1354752)
I0403 21:43:42.224109 24022 net.cpp:156] Memory required for data: 1126235424
I0403 21:43:42.224128 24022 layer_factory.hpp:77] Creating layer inception_4d/relu_3x3
I0403 21:43:42.224150 24022 net.cpp:91] Creating Layer inception_4d/relu_3x3
I0403 21:43:42.224169 24022 net.cpp:425] inception_4d/relu_3x3 <- inception_4d/3x3
I0403 21:43:42.224185 24022 net.cpp:386] inception_4d/relu_3x3 -> inception_4d/3x3 (in-place)
I0403 21:43:42.224371 24022 net.cpp:141] Setting up inception_4d/relu_3x3
I0403 21:43:42.224396 24022 net.cpp:148] Top shape: 24 288 14 14 (1354752)
I0403 21:43:42.224411 24022 net.cpp:156] Memory required for data: 1131654432
I0403 21:43:42.224424 24022 layer_factory.hpp:77] Creating layer inception_4d/5x5_reduce
I0403 21:43:42.224447 24022 net.cpp:91] Creating Layer inception_4d/5x5_reduce
I0403 21:43:42.224464 24022 net.cpp:425] inception_4d/5x5_reduce <- inception_4c/output_inception_4c/output_0_split_2
I0403 21:43:42.224484 24022 net.cpp:399] inception_4d/5x5_reduce -> inception_4d/5x5_reduce
I0403 21:43:42.225602 24022 net.cpp:141] Setting up inception_4d/5x5_reduce
I0403 21:43:42.225630 24022 net.cpp:148] Top shape: 24 32 14 14 (150528)
I0403 21:43:42.225646 24022 net.cpp:156] Memory required for data: 1132256544
I0403 21:43:42.225664 24022 layer_factory.hpp:77] Creating layer inception_4d/relu_5x5_reduce
I0403 21:43:42.225683 24022 net.cpp:91] Creating Layer inception_4d/relu_5x5_reduce
I0403 21:43:42.225702 24022 net.cpp:425] inception_4d/relu_5x5_reduce <- inception_4d/5x5_reduce
I0403 21:43:42.225718 24022 net.cpp:386] inception_4d/relu_5x5_reduce -> inception_4d/5x5_reduce (in-place)
I0403 21:43:42.225903 24022 net.cpp:141] Setting up inception_4d/relu_5x5_reduce
I0403 21:43:42.225931 24022 net.cpp:148] Top shape: 24 32 14 14 (150528)
I0403 21:43:42.225947 24022 net.cpp:156] Memory required for data: 1132858656
I0403 21:43:42.225962 24022 layer_factory.hpp:77] Creating layer inception_4d/5x5
I0403 21:43:42.225981 24022 net.cpp:91] Creating Layer inception_4d/5x5
I0403 21:43:42.225998 24022 net.cpp:425] inception_4d/5x5 <- inception_4d/5x5_reduce
I0403 21:43:42.226019 24022 net.cpp:399] inception_4d/5x5 -> inception_4d/5x5
I0403 21:43:42.227463 24022 net.cpp:141] Setting up inception_4d/5x5
I0403 21:43:42.227494 24022 net.cpp:148] Top shape: 24 64 14 14 (301056)
I0403 21:43:42.227509 24022 net.cpp:156] Memory required for data: 1134062880
I0403 21:43:42.227530 24022 layer_factory.hpp:77] Creating layer inception_4d/relu_5x5
I0403 21:43:42.227562 24022 net.cpp:91] Creating Layer inception_4d/relu_5x5
I0403 21:43:42.227581 24022 net.cpp:425] inception_4d/relu_5x5 <- inception_4d/5x5
I0403 21:43:42.227598 24022 net.cpp:386] inception_4d/relu_5x5 -> inception_4d/5x5 (in-place)
I0403 21:43:42.227892 24022 net.cpp:141] Setting up inception_4d/relu_5x5
I0403 21:43:42.227921 24022 net.cpp:148] Top shape: 24 64 14 14 (301056)
I0403 21:43:42.227937 24022 net.cpp:156] Memory required for data: 1135267104
I0403 21:43:42.227954 24022 layer_factory.hpp:77] Creating layer inception_4d/pool
I0403 21:43:42.227972 24022 net.cpp:91] Creating Layer inception_4d/pool
I0403 21:43:42.227987 24022 net.cpp:425] inception_4d/pool <- inception_4c/output_inception_4c/output_0_split_3
I0403 21:43:42.228004 24022 net.cpp:399] inception_4d/pool -> inception_4d/pool
I0403 21:43:42.228070 24022 net.cpp:141] Setting up inception_4d/pool
I0403 21:43:42.228094 24022 net.cpp:148] Top shape: 24 512 14 14 (2408448)
I0403 21:43:42.228108 24022 net.cpp:156] Memory required for data: 1144900896
I0403 21:43:42.228124 24022 layer_factory.hpp:77] Creating layer inception_4d/pool_proj
I0403 21:43:42.228147 24022 net.cpp:91] Creating Layer inception_4d/pool_proj
I0403 21:43:42.228163 24022 net.cpp:425] inception_4d/pool_proj <- inception_4d/pool
I0403 21:43:42.228184 24022 net.cpp:399] inception_4d/pool_proj -> inception_4d/pool_proj
I0403 21:43:42.229926 24022 net.cpp:141] Setting up inception_4d/pool_proj
I0403 21:43:42.229957 24022 net.cpp:148] Top shape: 24 64 14 14 (301056)
I0403 21:43:42.229974 24022 net.cpp:156] Memory required for data: 1146105120
I0403 21:43:42.229992 24022 layer_factory.hpp:77] Creating layer inception_4d/relu_pool_proj
I0403 21:43:42.230012 24022 net.cpp:91] Creating Layer inception_4d/relu_pool_proj
I0403 21:43:42.230031 24022 net.cpp:425] inception_4d/relu_pool_proj <- inception_4d/pool_proj
I0403 21:43:42.230047 24022 net.cpp:386] inception_4d/relu_pool_proj -> inception_4d/pool_proj (in-place)
I0403 21:43:42.230237 24022 net.cpp:141] Setting up inception_4d/relu_pool_proj
I0403 21:43:42.230262 24022 net.cpp:148] Top shape: 24 64 14 14 (301056)
I0403 21:43:42.230276 24022 net.cpp:156] Memory required for data: 1147309344
I0403 21:43:42.230291 24022 layer_factory.hpp:77] Creating layer inception_4d/output
I0403 21:43:42.230314 24022 net.cpp:91] Creating Layer inception_4d/output
I0403 21:43:42.230330 24022 net.cpp:425] inception_4d/output <- inception_4d/1x1
I0403 21:43:42.230346 24022 net.cpp:425] inception_4d/output <- inception_4d/3x3
I0403 21:43:42.230363 24022 net.cpp:425] inception_4d/output <- inception_4d/5x5
I0403 21:43:42.230379 24022 net.cpp:425] inception_4d/output <- inception_4d/pool_proj
I0403 21:43:42.230396 24022 net.cpp:399] inception_4d/output -> inception_4d/output
I0403 21:43:42.230443 24022 net.cpp:141] Setting up inception_4d/output
I0403 21:43:42.230466 24022 net.cpp:148] Top shape: 24 528 14 14 (2483712)
I0403 21:43:42.230480 24022 net.cpp:156] Memory required for data: 1157244192
I0403 21:43:42.230495 24022 layer_factory.hpp:77] Creating layer inception_4d/output_inception_4d/output_0_split
I0403 21:43:42.230514 24022 net.cpp:91] Creating Layer inception_4d/output_inception_4d/output_0_split
I0403 21:43:42.230530 24022 net.cpp:425] inception_4d/output_inception_4d/output_0_split <- inception_4d/output
I0403 21:43:42.230548 24022 net.cpp:399] inception_4d/output_inception_4d/output_0_split -> inception_4d/output_inception_4d/output_0_split_0
I0403 21:43:42.230568 24022 net.cpp:399] inception_4d/output_inception_4d/output_0_split -> inception_4d/output_inception_4d/output_0_split_1
I0403 21:43:42.230590 24022 net.cpp:399] inception_4d/output_inception_4d/output_0_split -> inception_4d/output_inception_4d/output_0_split_2
I0403 21:43:42.230614 24022 net.cpp:399] inception_4d/output_inception_4d/output_0_split -> inception_4d/output_inception_4d/output_0_split_3
I0403 21:43:42.230636 24022 net.cpp:399] inception_4d/output_inception_4d/output_0_split -> inception_4d/output_inception_4d/output_0_split_4
I0403 21:43:42.230736 24022 net.cpp:141] Setting up inception_4d/output_inception_4d/output_0_split
I0403 21:43:42.230772 24022 net.cpp:148] Top shape: 24 528 14 14 (2483712)
I0403 21:43:42.230790 24022 net.cpp:148] Top shape: 24 528 14 14 (2483712)
I0403 21:43:42.230806 24022 net.cpp:148] Top shape: 24 528 14 14 (2483712)
I0403 21:43:42.230821 24022 net.cpp:148] Top shape: 24 528 14 14 (2483712)
I0403 21:43:42.230837 24022 net.cpp:148] Top shape: 24 528 14 14 (2483712)
I0403 21:43:42.230851 24022 net.cpp:156] Memory required for data: 1206918432
I0403 21:43:42.230866 24022 layer_factory.hpp:77] Creating layer loss2/ave_pool
I0403 21:43:42.230883 24022 net.cpp:91] Creating Layer loss2/ave_pool
I0403 21:43:42.230898 24022 net.cpp:425] loss2/ave_pool <- inception_4d/output_inception_4d/output_0_split_0
I0403 21:43:42.230919 24022 net.cpp:399] loss2/ave_pool -> loss2/ave_pool
I0403 21:43:42.231256 24022 net.cpp:141] Setting up loss2/ave_pool
I0403 21:43:42.231283 24022 net.cpp:148] Top shape: 24 528 4 4 (202752)
I0403 21:43:42.231298 24022 net.cpp:156] Memory required for data: 1207729440
I0403 21:43:42.231312 24022 layer_factory.hpp:77] Creating layer loss2/conv
I0403 21:43:42.231335 24022 net.cpp:91] Creating Layer loss2/conv
I0403 21:43:42.231353 24022 net.cpp:425] loss2/conv <- loss2/ave_pool
I0403 21:43:42.231375 24022 net.cpp:399] loss2/conv -> loss2/conv
I0403 21:43:42.233299 24022 net.cpp:141] Setting up loss2/conv
I0403 21:43:42.233330 24022 net.cpp:148] Top shape: 24 128 4 4 (49152)
I0403 21:43:42.233347 24022 net.cpp:156] Memory required for data: 1207926048
I0403 21:43:42.233366 24022 layer_factory.hpp:77] Creating layer loss2/relu_conv
I0403 21:43:42.233384 24022 net.cpp:91] Creating Layer loss2/relu_conv
I0403 21:43:42.233402 24022 net.cpp:425] loss2/relu_conv <- loss2/conv
I0403 21:43:42.233422 24022 net.cpp:386] loss2/relu_conv -> loss2/conv (in-place)
I0403 21:43:42.233713 24022 net.cpp:141] Setting up loss2/relu_conv
I0403 21:43:42.233742 24022 net.cpp:148] Top shape: 24 128 4 4 (49152)
I0403 21:43:42.233758 24022 net.cpp:156] Memory required for data: 1208122656
I0403 21:43:42.233774 24022 layer_factory.hpp:77] Creating layer loss2/fc
I0403 21:43:42.233793 24022 net.cpp:91] Creating Layer loss2/fc
I0403 21:43:42.233810 24022 net.cpp:425] loss2/fc <- loss2/conv
I0403 21:43:42.233834 24022 net.cpp:399] loss2/fc -> loss2/fc
I0403 21:43:42.251513 24022 net.cpp:141] Setting up loss2/fc
I0403 21:43:42.251548 24022 net.cpp:148] Top shape: 24 1024 (24576)
I0403 21:43:42.251564 24022 net.cpp:156] Memory required for data: 1208220960
I0403 21:43:42.251582 24022 layer_factory.hpp:77] Creating layer loss2/relu_fc
I0403 21:43:42.251602 24022 net.cpp:91] Creating Layer loss2/relu_fc
I0403 21:43:42.251621 24022 net.cpp:425] loss2/relu_fc <- loss2/fc
I0403 21:43:42.251639 24022 net.cpp:386] loss2/relu_fc -> loss2/fc (in-place)
I0403 21:43:42.251946 24022 net.cpp:141] Setting up loss2/relu_fc
I0403 21:43:42.251972 24022 net.cpp:148] Top shape: 24 1024 (24576)
I0403 21:43:42.251987 24022 net.cpp:156] Memory required for data: 1208319264
I0403 21:43:42.252002 24022 layer_factory.hpp:77] Creating layer loss2/drop_fc
I0403 21:43:42.252023 24022 net.cpp:91] Creating Layer loss2/drop_fc
I0403 21:43:42.252040 24022 net.cpp:425] loss2/drop_fc <- loss2/fc
I0403 21:43:42.252058 24022 net.cpp:386] loss2/drop_fc -> loss2/fc (in-place)
I0403 21:43:42.252107 24022 net.cpp:141] Setting up loss2/drop_fc
I0403 21:43:42.252130 24022 net.cpp:148] Top shape: 24 1024 (24576)
I0403 21:43:42.252145 24022 net.cpp:156] Memory required for data: 1208417568
I0403 21:43:42.252159 24022 layer_factory.hpp:77] Creating layer loss2/classifier_plantvillage
I0403 21:43:42.252177 24022 net.cpp:91] Creating Layer loss2/classifier_plantvillage
I0403 21:43:42.252193 24022 net.cpp:425] loss2/classifier_plantvillage <- loss2/fc
I0403 21:43:42.252228 24022 net.cpp:399] loss2/classifier_plantvillage -> loss2/classifier_plantvillage
I0403 21:43:42.252624 24022 net.cpp:141] Setting up loss2/classifier_plantvillage
I0403 21:43:42.252650 24022 net.cpp:148] Top shape: 24 38 (912)
I0403 21:43:42.252682 24022 net.cpp:156] Memory required for data: 1208421216
I0403 21:43:42.252702 24022 layer_factory.hpp:77] Creating layer loss2/classifier_plantvillage_loss2/classifier_plantvillage_0_split
I0403 21:43:42.252720 24022 net.cpp:91] Creating Layer loss2/classifier_plantvillage_loss2/classifier_plantvillage_0_split
I0403 21:43:42.252737 24022 net.cpp:425] loss2/classifier_plantvillage_loss2/classifier_plantvillage_0_split <- loss2/classifier_plantvillage
I0403 21:43:42.252756 24022 net.cpp:399] loss2/classifier_plantvillage_loss2/classifier_plantvillage_0_split -> loss2/classifier_plantvillage_loss2/classifier_plantvillage_0_split_0
I0403 21:43:42.252777 24022 net.cpp:399] loss2/classifier_plantvillage_loss2/classifier_plantvillage_0_split -> loss2/classifier_plantvillage_loss2/classifier_plantvillage_0_split_1
I0403 21:43:42.252799 24022 net.cpp:399] loss2/classifier_plantvillage_loss2/classifier_plantvillage_0_split -> loss2/classifier_plantvillage_loss2/classifier_plantvillage_0_split_2
I0403 21:43:42.252878 24022 net.cpp:141] Setting up loss2/classifier_plantvillage_loss2/classifier_plantvillage_0_split
I0403 21:43:42.252902 24022 net.cpp:148] Top shape: 24 38 (912)
I0403 21:43:42.252918 24022 net.cpp:148] Top shape: 24 38 (912)
I0403 21:43:42.252933 24022 net.cpp:148] Top shape: 24 38 (912)
I0403 21:43:42.252945 24022 net.cpp:156] Memory required for data: 1208432160
I0403 21:43:42.252962 24022 layer_factory.hpp:77] Creating layer inception_4e/1x1
I0403 21:43:42.252985 24022 net.cpp:91] Creating Layer inception_4e/1x1
I0403 21:43:42.253003 24022 net.cpp:425] inception_4e/1x1 <- inception_4d/output_inception_4d/output_0_split_1
I0403 21:43:42.253022 24022 net.cpp:399] inception_4e/1x1 -> inception_4e/1x1
I0403 21:43:42.254797 24022 net.cpp:141] Setting up inception_4e/1x1
I0403 21:43:42.254827 24022 net.cpp:148] Top shape: 24 256 14 14 (1204224)
I0403 21:43:42.254843 24022 net.cpp:156] Memory required for data: 1213249056
I0403 21:43:42.254863 24022 layer_factory.hpp:77] Creating layer inception_4e/relu_1x1
I0403 21:43:42.254879 24022 net.cpp:91] Creating Layer inception_4e/relu_1x1
I0403 21:43:42.254895 24022 net.cpp:425] inception_4e/relu_1x1 <- inception_4e/1x1
I0403 21:43:42.254914 24022 net.cpp:386] inception_4e/relu_1x1 -> inception_4e/1x1 (in-place)
I0403 21:43:42.255204 24022 net.cpp:141] Setting up inception_4e/relu_1x1
I0403 21:43:42.255233 24022 net.cpp:148] Top shape: 24 256 14 14 (1204224)
I0403 21:43:42.255249 24022 net.cpp:156] Memory required for data: 1218065952
I0403 21:43:42.255264 24022 layer_factory.hpp:77] Creating layer inception_4e/3x3_reduce
I0403 21:43:42.255287 24022 net.cpp:91] Creating Layer inception_4e/3x3_reduce
I0403 21:43:42.255306 24022 net.cpp:425] inception_4e/3x3_reduce <- inception_4d/output_inception_4d/output_0_split_2
I0403 21:43:42.255324 24022 net.cpp:399] inception_4e/3x3_reduce -> inception_4e/3x3_reduce
I0403 21:43:42.257408 24022 net.cpp:141] Setting up inception_4e/3x3_reduce
I0403 21:43:42.257436 24022 net.cpp:148] Top shape: 24 160 14 14 (752640)
I0403 21:43:42.257452 24022 net.cpp:156] Memory required for data: 1221076512
I0403 21:43:42.257470 24022 layer_factory.hpp:77] Creating layer inception_4e/relu_3x3_reduce
I0403 21:43:42.257490 24022 net.cpp:91] Creating Layer inception_4e/relu_3x3_reduce
I0403 21:43:42.257508 24022 net.cpp:425] inception_4e/relu_3x3_reduce <- inception_4e/3x3_reduce
I0403 21:43:42.257525 24022 net.cpp:386] inception_4e/relu_3x3_reduce -> inception_4e/3x3_reduce (in-place)
I0403 21:43:42.257709 24022 net.cpp:141] Setting up inception_4e/relu_3x3_reduce
I0403 21:43:42.257735 24022 net.cpp:148] Top shape: 24 160 14 14 (752640)
I0403 21:43:42.257750 24022 net.cpp:156] Memory required for data: 1224087072
I0403 21:43:42.257764 24022 layer_factory.hpp:77] Creating layer inception_4e/3x3
I0403 21:43:42.257786 24022 net.cpp:91] Creating Layer inception_4e/3x3
I0403 21:43:42.257803 24022 net.cpp:425] inception_4e/3x3 <- inception_4e/3x3_reduce
I0403 21:43:42.257825 24022 net.cpp:399] inception_4e/3x3 -> inception_4e/3x3
I0403 21:43:42.262728 24022 net.cpp:141] Setting up inception_4e/3x3
I0403 21:43:42.262768 24022 net.cpp:148] Top shape: 24 320 14 14 (1505280)
I0403 21:43:42.262785 24022 net.cpp:156] Memory required for data: 1230108192
I0403 21:43:42.262804 24022 layer_factory.hpp:77] Creating layer inception_4e/relu_3x3
I0403 21:43:42.262821 24022 net.cpp:91] Creating Layer inception_4e/relu_3x3
I0403 21:43:42.262838 24022 net.cpp:425] inception_4e/relu_3x3 <- inception_4e/3x3
I0403 21:43:42.262858 24022 net.cpp:386] inception_4e/relu_3x3 -> inception_4e/3x3 (in-place)
I0403 21:43:42.263156 24022 net.cpp:141] Setting up inception_4e/relu_3x3
I0403 21:43:42.263182 24022 net.cpp:148] Top shape: 24 320 14 14 (1505280)
I0403 21:43:42.263200 24022 net.cpp:156] Memory required for data: 1236129312
I0403 21:43:42.263216 24022 layer_factory.hpp:77] Creating layer inception_4e/5x5_reduce
I0403 21:43:42.263238 24022 net.cpp:91] Creating Layer inception_4e/5x5_reduce
I0403 21:43:42.263257 24022 net.cpp:425] inception_4e/5x5_reduce <- inception_4d/output_inception_4d/output_0_split_3
I0403 21:43:42.263279 24022 net.cpp:399] inception_4e/5x5_reduce -> inception_4e/5x5_reduce
I0403 21:43:42.264328 24022 net.cpp:141] Setting up inception_4e/5x5_reduce
I0403 21:43:42.264358 24022 net.cpp:148] Top shape: 24 32 14 14 (150528)
I0403 21:43:42.264374 24022 net.cpp:156] Memory required for data: 1236731424
I0403 21:43:42.264392 24022 layer_factory.hpp:77] Creating layer inception_4e/relu_5x5_reduce
I0403 21:43:42.264410 24022 net.cpp:91] Creating Layer inception_4e/relu_5x5_reduce
I0403 21:43:42.264425 24022 net.cpp:425] inception_4e/relu_5x5_reduce <- inception_4e/5x5_reduce
I0403 21:43:42.264443 24022 net.cpp:386] inception_4e/relu_5x5_reduce -> inception_4e/5x5_reduce (in-place)
I0403 21:43:42.264744 24022 net.cpp:141] Setting up inception_4e/relu_5x5_reduce
I0403 21:43:42.264770 24022 net.cpp:148] Top shape: 24 32 14 14 (150528)
I0403 21:43:42.264787 24022 net.cpp:156] Memory required for data: 1237333536
I0403 21:43:42.264802 24022 layer_factory.hpp:77] Creating layer inception_4e/5x5
I0403 21:43:42.264840 24022 net.cpp:91] Creating Layer inception_4e/5x5
I0403 21:43:42.264859 24022 net.cpp:425] inception_4e/5x5 <- inception_4e/5x5_reduce
I0403 21:43:42.264878 24022 net.cpp:399] inception_4e/5x5 -> inception_4e/5x5
I0403 21:43:42.266685 24022 net.cpp:141] Setting up inception_4e/5x5
I0403 21:43:42.266713 24022 net.cpp:148] Top shape: 24 128 14 14 (602112)
I0403 21:43:42.266729 24022 net.cpp:156] Memory required for data: 1239741984
I0403 21:43:42.266748 24022 layer_factory.hpp:77] Creating layer inception_4e/relu_5x5
I0403 21:43:42.266769 24022 net.cpp:91] Creating Layer inception_4e/relu_5x5
I0403 21:43:42.266787 24022 net.cpp:425] inception_4e/relu_5x5 <- inception_4e/5x5
I0403 21:43:42.266803 24022 net.cpp:386] inception_4e/relu_5x5 -> inception_4e/5x5 (in-place)
I0403 21:43:42.267000 24022 net.cpp:141] Setting up inception_4e/relu_5x5
I0403 21:43:42.267027 24022 net.cpp:148] Top shape: 24 128 14 14 (602112)
I0403 21:43:42.267042 24022 net.cpp:156] Memory required for data: 1242150432
I0403 21:43:42.267057 24022 layer_factory.hpp:77] Creating layer inception_4e/pool
I0403 21:43:42.267074 24022 net.cpp:91] Creating Layer inception_4e/pool
I0403 21:43:42.267089 24022 net.cpp:425] inception_4e/pool <- inception_4d/output_inception_4d/output_0_split_4
I0403 21:43:42.267108 24022 net.cpp:399] inception_4e/pool -> inception_4e/pool
I0403 21:43:42.267177 24022 net.cpp:141] Setting up inception_4e/pool
I0403 21:43:42.267204 24022 net.cpp:148] Top shape: 24 528 14 14 (2483712)
I0403 21:43:42.267221 24022 net.cpp:156] Memory required for data: 1252085280
I0403 21:43:42.267237 24022 layer_factory.hpp:77] Creating layer inception_4e/pool_proj
I0403 21:43:42.267258 24022 net.cpp:91] Creating Layer inception_4e/pool_proj
I0403 21:43:42.267276 24022 net.cpp:425] inception_4e/pool_proj <- inception_4e/pool
I0403 21:43:42.267295 24022 net.cpp:399] inception_4e/pool_proj -> inception_4e/pool_proj
I0403 21:43:42.268782 24022 net.cpp:141] Setting up inception_4e/pool_proj
I0403 21:43:42.268821 24022 net.cpp:148] Top shape: 24 128 14 14 (602112)
I0403 21:43:42.268836 24022 net.cpp:156] Memory required for data: 1254493728
I0403 21:43:42.268856 24022 layer_factory.hpp:77] Creating layer inception_4e/relu_pool_proj
I0403 21:43:42.268875 24022 net.cpp:91] Creating Layer inception_4e/relu_pool_proj
I0403 21:43:42.268893 24022 net.cpp:425] inception_4e/relu_pool_proj <- inception_4e/pool_proj
I0403 21:43:42.268910 24022 net.cpp:386] inception_4e/relu_pool_proj -> inception_4e/pool_proj (in-place)
I0403 21:43:42.269201 24022 net.cpp:141] Setting up inception_4e/relu_pool_proj
I0403 21:43:42.269227 24022 net.cpp:148] Top shape: 24 128 14 14 (602112)
I0403 21:43:42.269243 24022 net.cpp:156] Memory required for data: 1256902176
I0403 21:43:42.269258 24022 layer_factory.hpp:77] Creating layer inception_4e/output
I0403 21:43:42.269278 24022 net.cpp:91] Creating Layer inception_4e/output
I0403 21:43:42.269294 24022 net.cpp:425] inception_4e/output <- inception_4e/1x1
I0403 21:43:42.269311 24022 net.cpp:425] inception_4e/output <- inception_4e/3x3
I0403 21:43:42.269327 24022 net.cpp:425] inception_4e/output <- inception_4e/5x5
I0403 21:43:42.269343 24022 net.cpp:425] inception_4e/output <- inception_4e/pool_proj
I0403 21:43:42.269361 24022 net.cpp:399] inception_4e/output -> inception_4e/output
I0403 21:43:42.269407 24022 net.cpp:141] Setting up inception_4e/output
I0403 21:43:42.269433 24022 net.cpp:148] Top shape: 24 832 14 14 (3913728)
I0403 21:43:42.269448 24022 net.cpp:156] Memory required for data: 1272557088
I0403 21:43:42.269464 24022 layer_factory.hpp:77] Creating layer pool4/3x3_s2
I0403 21:43:42.269480 24022 net.cpp:91] Creating Layer pool4/3x3_s2
I0403 21:43:42.269496 24022 net.cpp:425] pool4/3x3_s2 <- inception_4e/output
I0403 21:43:42.269516 24022 net.cpp:399] pool4/3x3_s2 -> pool4/3x3_s2
I0403 21:43:42.269582 24022 net.cpp:141] Setting up pool4/3x3_s2
I0403 21:43:42.269606 24022 net.cpp:148] Top shape: 24 832 7 7 (978432)
I0403 21:43:42.269623 24022 net.cpp:156] Memory required for data: 1276470816
I0403 21:43:42.269637 24022 layer_factory.hpp:77] Creating layer pool4/3x3_s2_pool4/3x3_s2_0_split
I0403 21:43:42.269655 24022 net.cpp:91] Creating Layer pool4/3x3_s2_pool4/3x3_s2_0_split
I0403 21:43:42.269671 24022 net.cpp:425] pool4/3x3_s2_pool4/3x3_s2_0_split <- pool4/3x3_s2
I0403 21:43:42.269687 24022 net.cpp:399] pool4/3x3_s2_pool4/3x3_s2_0_split -> pool4/3x3_s2_pool4/3x3_s2_0_split_0
I0403 21:43:42.269706 24022 net.cpp:399] pool4/3x3_s2_pool4/3x3_s2_0_split -> pool4/3x3_s2_pool4/3x3_s2_0_split_1
I0403 21:43:42.269729 24022 net.cpp:399] pool4/3x3_s2_pool4/3x3_s2_0_split -> pool4/3x3_s2_pool4/3x3_s2_0_split_2
I0403 21:43:42.269750 24022 net.cpp:399] pool4/3x3_s2_pool4/3x3_s2_0_split -> pool4/3x3_s2_pool4/3x3_s2_0_split_3
I0403 21:43:42.269840 24022 net.cpp:141] Setting up pool4/3x3_s2_pool4/3x3_s2_0_split
I0403 21:43:42.269862 24022 net.cpp:148] Top shape: 24 832 7 7 (978432)
I0403 21:43:42.269879 24022 net.cpp:148] Top shape: 24 832 7 7 (978432)
I0403 21:43:42.269894 24022 net.cpp:148] Top shape: 24 832 7 7 (978432)
I0403 21:43:42.269909 24022 net.cpp:148] Top shape: 24 832 7 7 (978432)
I0403 21:43:42.269924 24022 net.cpp:156] Memory required for data: 1292125728
I0403 21:43:42.269938 24022 layer_factory.hpp:77] Creating layer inception_5a/1x1
I0403 21:43:42.269963 24022 net.cpp:91] Creating Layer inception_5a/1x1
I0403 21:43:42.269979 24022 net.cpp:425] inception_5a/1x1 <- pool4/3x3_s2_pool4/3x3_s2_0_split_0
I0403 21:43:42.269999 24022 net.cpp:399] inception_5a/1x1 -> inception_5a/1x1
I0403 21:43:42.272810 24022 net.cpp:141] Setting up inception_5a/1x1
I0403 21:43:42.272838 24022 net.cpp:148] Top shape: 24 256 7 7 (301056)
I0403 21:43:42.272855 24022 net.cpp:156] Memory required for data: 1293329952
I0403 21:43:42.272873 24022 layer_factory.hpp:77] Creating layer inception_5a/relu_1x1
I0403 21:43:42.272892 24022 net.cpp:91] Creating Layer inception_5a/relu_1x1
I0403 21:43:42.272909 24022 net.cpp:425] inception_5a/relu_1x1 <- inception_5a/1x1
I0403 21:43:42.272927 24022 net.cpp:386] inception_5a/relu_1x1 -> inception_5a/1x1 (in-place)
I0403 21:43:42.273237 24022 net.cpp:141] Setting up inception_5a/relu_1x1
I0403 21:43:42.273263 24022 net.cpp:148] Top shape: 24 256 7 7 (301056)
I0403 21:43:42.273278 24022 net.cpp:156] Memory required for data: 1294534176
I0403 21:43:42.273294 24022 layer_factory.hpp:77] Creating layer inception_5a/3x3_reduce
I0403 21:43:42.273318 24022 net.cpp:91] Creating Layer inception_5a/3x3_reduce
I0403 21:43:42.273335 24022 net.cpp:425] inception_5a/3x3_reduce <- pool4/3x3_s2_pool4/3x3_s2_0_split_1
I0403 21:43:42.273355 24022 net.cpp:399] inception_5a/3x3_reduce -> inception_5a/3x3_reduce
I0403 21:43:42.275754 24022 net.cpp:141] Setting up inception_5a/3x3_reduce
I0403 21:43:42.275784 24022 net.cpp:148] Top shape: 24 160 7 7 (188160)
I0403 21:43:42.275800 24022 net.cpp:156] Memory required for data: 1295286816
I0403 21:43:42.275818 24022 layer_factory.hpp:77] Creating layer inception_5a/relu_3x3_reduce
I0403 21:43:42.275838 24022 net.cpp:91] Creating Layer inception_5a/relu_3x3_reduce
I0403 21:43:42.275856 24022 net.cpp:425] inception_5a/relu_3x3_reduce <- inception_5a/3x3_reduce
I0403 21:43:42.275873 24022 net.cpp:386] inception_5a/relu_3x3_reduce -> inception_5a/3x3_reduce (in-place)
I0403 21:43:42.276060 24022 net.cpp:141] Setting up inception_5a/relu_3x3_reduce
I0403 21:43:42.276087 24022 net.cpp:148] Top shape: 24 160 7 7 (188160)
I0403 21:43:42.276101 24022 net.cpp:156] Memory required for data: 1296039456
I0403 21:43:42.276116 24022 layer_factory.hpp:77] Creating layer inception_5a/3x3
I0403 21:43:42.276137 24022 net.cpp:91] Creating Layer inception_5a/3x3
I0403 21:43:42.276154 24022 net.cpp:425] inception_5a/3x3 <- inception_5a/3x3_reduce
I0403 21:43:42.276178 24022 net.cpp:399] inception_5a/3x3 -> inception_5a/3x3
I0403 21:43:42.281110 24022 net.cpp:141] Setting up inception_5a/3x3
I0403 21:43:42.281139 24022 net.cpp:148] Top shape: 24 320 7 7 (376320)
I0403 21:43:42.281155 24022 net.cpp:156] Memory required for data: 1297544736
I0403 21:43:42.281173 24022 layer_factory.hpp:77] Creating layer inception_5a/relu_3x3
I0403 21:43:42.281193 24022 net.cpp:91] Creating Layer inception_5a/relu_3x3
I0403 21:43:42.281216 24022 net.cpp:425] inception_5a/relu_3x3 <- inception_5a/3x3
I0403 21:43:42.281235 24022 net.cpp:386] inception_5a/relu_3x3 -> inception_5a/3x3 (in-place)
I0403 21:43:42.281533 24022 net.cpp:141] Setting up inception_5a/relu_3x3
I0403 21:43:42.281560 24022 net.cpp:148] Top shape: 24 320 7 7 (376320)
I0403 21:43:42.281575 24022 net.cpp:156] Memory required for data: 1299050016
I0403 21:43:42.281590 24022 layer_factory.hpp:77] Creating layer inception_5a/5x5_reduce
I0403 21:43:42.281612 24022 net.cpp:91] Creating Layer inception_5a/5x5_reduce
I0403 21:43:42.281630 24022 net.cpp:425] inception_5a/5x5_reduce <- pool4/3x3_s2_pool4/3x3_s2_0_split_2
I0403 21:43:42.281651 24022 net.cpp:399] inception_5a/5x5_reduce -> inception_5a/5x5_reduce
I0403 21:43:42.282804 24022 net.cpp:141] Setting up inception_5a/5x5_reduce
I0403 21:43:42.282835 24022 net.cpp:148] Top shape: 24 32 7 7 (37632)
I0403 21:43:42.282852 24022 net.cpp:156] Memory required for data: 1299200544
I0403 21:43:42.282871 24022 layer_factory.hpp:77] Creating layer inception_5a/relu_5x5_reduce
I0403 21:43:42.282889 24022 net.cpp:91] Creating Layer inception_5a/relu_5x5_reduce
I0403 21:43:42.282905 24022 net.cpp:425] inception_5a/relu_5x5_reduce <- inception_5a/5x5_reduce
I0403 21:43:42.282922 24022 net.cpp:386] inception_5a/relu_5x5_reduce -> inception_5a/5x5_reduce (in-place)
I0403 21:43:42.283226 24022 net.cpp:141] Setting up inception_5a/relu_5x5_reduce
I0403 21:43:42.283253 24022 net.cpp:148] Top shape: 24 32 7 7 (37632)
I0403 21:43:42.283269 24022 net.cpp:156] Memory required for data: 1299351072
I0403 21:43:42.283285 24022 layer_factory.hpp:77] Creating layer inception_5a/5x5
I0403 21:43:42.283308 24022 net.cpp:91] Creating Layer inception_5a/5x5
I0403 21:43:42.283325 24022 net.cpp:425] inception_5a/5x5 <- inception_5a/5x5_reduce
I0403 21:43:42.283344 24022 net.cpp:399] inception_5a/5x5 -> inception_5a/5x5
I0403 21:43:42.285027 24022 net.cpp:141] Setting up inception_5a/5x5
I0403 21:43:42.285065 24022 net.cpp:148] Top shape: 24 128 7 7 (150528)
I0403 21:43:42.285082 24022 net.cpp:156] Memory required for data: 1299953184
I0403 21:43:42.285100 24022 layer_factory.hpp:77] Creating layer inception_5a/relu_5x5
I0403 21:43:42.285120 24022 net.cpp:91] Creating Layer inception_5a/relu_5x5
I0403 21:43:42.285137 24022 net.cpp:425] inception_5a/relu_5x5 <- inception_5a/5x5
I0403 21:43:42.285156 24022 net.cpp:386] inception_5a/relu_5x5 -> inception_5a/5x5 (in-place)
I0403 21:43:42.285351 24022 net.cpp:141] Setting up inception_5a/relu_5x5
I0403 21:43:42.285378 24022 net.cpp:148] Top shape: 24 128 7 7 (150528)
I0403 21:43:42.285394 24022 net.cpp:156] Memory required for data: 1300555296
I0403 21:43:42.285409 24022 layer_factory.hpp:77] Creating layer inception_5a/pool
I0403 21:43:42.285426 24022 net.cpp:91] Creating Layer inception_5a/pool
I0403 21:43:42.285442 24022 net.cpp:425] inception_5a/pool <- pool4/3x3_s2_pool4/3x3_s2_0_split_3
I0403 21:43:42.285462 24022 net.cpp:399] inception_5a/pool -> inception_5a/pool
I0403 21:43:42.285531 24022 net.cpp:141] Setting up inception_5a/pool
I0403 21:43:42.285555 24022 net.cpp:148] Top shape: 24 832 7 7 (978432)
I0403 21:43:42.285569 24022 net.cpp:156] Memory required for data: 1304469024
I0403 21:43:42.285584 24022 layer_factory.hpp:77] Creating layer inception_5a/pool_proj
I0403 21:43:42.285606 24022 net.cpp:91] Creating Layer inception_5a/pool_proj
I0403 21:43:42.285624 24022 net.cpp:425] inception_5a/pool_proj <- inception_5a/pool
I0403 21:43:42.285645 24022 net.cpp:399] inception_5a/pool_proj -> inception_5a/pool_proj
I0403 21:43:42.287890 24022 net.cpp:141] Setting up inception_5a/pool_proj
I0403 21:43:42.287919 24022 net.cpp:148] Top shape: 24 128 7 7 (150528)
I0403 21:43:42.287935 24022 net.cpp:156] Memory required for data: 1305071136
I0403 21:43:42.287955 24022 layer_factory.hpp:77] Creating layer inception_5a/relu_pool_proj
I0403 21:43:42.287976 24022 net.cpp:91] Creating Layer inception_5a/relu_pool_proj
I0403 21:43:42.287993 24022 net.cpp:425] inception_5a/relu_pool_proj <- inception_5a/pool_proj
I0403 21:43:42.288012 24022 net.cpp:386] inception_5a/relu_pool_proj -> inception_5a/pool_proj (in-place)
I0403 21:43:42.288311 24022 net.cpp:141] Setting up inception_5a/relu_pool_proj
I0403 21:43:42.288338 24022 net.cpp:148] Top shape: 24 128 7 7 (150528)
I0403 21:43:42.288353 24022 net.cpp:156] Memory required for data: 1305673248
I0403 21:43:42.288368 24022 layer_factory.hpp:77] Creating layer inception_5a/output
I0403 21:43:42.288385 24022 net.cpp:91] Creating Layer inception_5a/output
I0403 21:43:42.288403 24022 net.cpp:425] inception_5a/output <- inception_5a/1x1
I0403 21:43:42.288419 24022 net.cpp:425] inception_5a/output <- inception_5a/3x3
I0403 21:43:42.288435 24022 net.cpp:425] inception_5a/output <- inception_5a/5x5
I0403 21:43:42.288451 24022 net.cpp:425] inception_5a/output <- inception_5a/pool_proj
I0403 21:43:42.288470 24022 net.cpp:399] inception_5a/output -> inception_5a/output
I0403 21:43:42.288523 24022 net.cpp:141] Setting up inception_5a/output
I0403 21:43:42.288547 24022 net.cpp:148] Top shape: 24 832 7 7 (978432)
I0403 21:43:42.288561 24022 net.cpp:156] Memory required for data: 1309586976
I0403 21:43:42.288576 24022 layer_factory.hpp:77] Creating layer inception_5a/output_inception_5a/output_0_split
I0403 21:43:42.288594 24022 net.cpp:91] Creating Layer inception_5a/output_inception_5a/output_0_split
I0403 21:43:42.288609 24022 net.cpp:425] inception_5a/output_inception_5a/output_0_split <- inception_5a/output
I0403 21:43:42.288627 24022 net.cpp:399] inception_5a/output_inception_5a/output_0_split -> inception_5a/output_inception_5a/output_0_split_0
I0403 21:43:42.288648 24022 net.cpp:399] inception_5a/output_inception_5a/output_0_split -> inception_5a/output_inception_5a/output_0_split_1
I0403 21:43:42.288671 24022 net.cpp:399] inception_5a/output_inception_5a/output_0_split -> inception_5a/output_inception_5a/output_0_split_2
I0403 21:43:42.288689 24022 net.cpp:399] inception_5a/output_inception_5a/output_0_split -> inception_5a/output_inception_5a/output_0_split_3
I0403 21:43:42.288803 24022 net.cpp:141] Setting up inception_5a/output_inception_5a/output_0_split
I0403 21:43:42.288830 24022 net.cpp:148] Top shape: 24 832 7 7 (978432)
I0403 21:43:42.288847 24022 net.cpp:148] Top shape: 24 832 7 7 (978432)
I0403 21:43:42.288863 24022 net.cpp:148] Top shape: 24 832 7 7 (978432)
I0403 21:43:42.288878 24022 net.cpp:148] Top shape: 24 832 7 7 (978432)
I0403 21:43:42.288892 24022 net.cpp:156] Memory required for data: 1325241888
I0403 21:43:42.288907 24022 layer_factory.hpp:77] Creating layer inception_5b/1x1
I0403 21:43:42.288928 24022 net.cpp:91] Creating Layer inception_5b/1x1
I0403 21:43:42.288946 24022 net.cpp:425] inception_5b/1x1 <- inception_5a/output_inception_5a/output_0_split_0
I0403 21:43:42.288967 24022 net.cpp:399] inception_5b/1x1 -> inception_5b/1x1
I0403 21:43:42.292759 24022 net.cpp:141] Setting up inception_5b/1x1
I0403 21:43:42.292789 24022 net.cpp:148] Top shape: 24 384 7 7 (451584)
I0403 21:43:42.292807 24022 net.cpp:156] Memory required for data: 1327048224
I0403 21:43:42.292825 24022 layer_factory.hpp:77] Creating layer inception_5b/relu_1x1
I0403 21:43:42.292846 24022 net.cpp:91] Creating Layer inception_5b/relu_1x1
I0403 21:43:42.292865 24022 net.cpp:425] inception_5b/relu_1x1 <- inception_5b/1x1
I0403 21:43:42.292883 24022 net.cpp:386] inception_5b/relu_1x1 -> inception_5b/1x1 (in-place)
I0403 21:43:42.293190 24022 net.cpp:141] Setting up inception_5b/relu_1x1
I0403 21:43:42.293221 24022 net.cpp:148] Top shape: 24 384 7 7 (451584)
I0403 21:43:42.293239 24022 net.cpp:156] Memory required for data: 1328854560
I0403 21:43:42.293254 24022 layer_factory.hpp:77] Creating layer inception_5b/3x3_reduce
I0403 21:43:42.293277 24022 net.cpp:91] Creating Layer inception_5b/3x3_reduce
I0403 21:43:42.293297 24022 net.cpp:425] inception_5b/3x3_reduce <- inception_5a/output_inception_5a/output_0_split_1
I0403 21:43:42.293319 24022 net.cpp:399] inception_5b/3x3_reduce -> inception_5b/3x3_reduce
I0403 21:43:42.296017 24022 net.cpp:141] Setting up inception_5b/3x3_reduce
I0403 21:43:42.296047 24022 net.cpp:148] Top shape: 24 192 7 7 (225792)
I0403 21:43:42.296064 24022 net.cpp:156] Memory required for data: 1329757728
I0403 21:43:42.296083 24022 layer_factory.hpp:77] Creating layer inception_5b/relu_3x3_reduce
I0403 21:43:42.296104 24022 net.cpp:91] Creating Layer inception_5b/relu_3x3_reduce
I0403 21:43:42.296123 24022 net.cpp:425] inception_5b/relu_3x3_reduce <- inception_5b/3x3_reduce
I0403 21:43:42.296141 24022 net.cpp:386] inception_5b/relu_3x3_reduce -> inception_5b/3x3_reduce (in-place)
I0403 21:43:42.296339 24022 net.cpp:141] Setting up inception_5b/relu_3x3_reduce
I0403 21:43:42.296366 24022 net.cpp:148] Top shape: 24 192 7 7 (225792)
I0403 21:43:42.296382 24022 net.cpp:156] Memory required for data: 1330660896
I0403 21:43:42.296398 24022 layer_factory.hpp:77] Creating layer inception_5b/3x3
I0403 21:43:42.296418 24022 net.cpp:91] Creating Layer inception_5b/3x3
I0403 21:43:42.296448 24022 net.cpp:425] inception_5b/3x3 <- inception_5b/3x3_reduce
I0403 21:43:42.296470 24022 net.cpp:399] inception_5b/3x3 -> inception_5b/3x3
I0403 21:43:42.303330 24022 net.cpp:141] Setting up inception_5b/3x3
I0403 21:43:42.303360 24022 net.cpp:148] Top shape: 24 384 7 7 (451584)
I0403 21:43:42.303376 24022 net.cpp:156] Memory required for data: 1332467232
I0403 21:43:42.303395 24022 layer_factory.hpp:77] Creating layer inception_5b/relu_3x3
I0403 21:43:42.303416 24022 net.cpp:91] Creating Layer inception_5b/relu_3x3
I0403 21:43:42.303434 24022 net.cpp:425] inception_5b/relu_3x3 <- inception_5b/3x3
I0403 21:43:42.303452 24022 net.cpp:386] inception_5b/relu_3x3 -> inception_5b/3x3 (in-place)
I0403 21:43:42.303750 24022 net.cpp:141] Setting up inception_5b/relu_3x3
I0403 21:43:42.303777 24022 net.cpp:148] Top shape: 24 384 7 7 (451584)
I0403 21:43:42.303793 24022 net.cpp:156] Memory required for data: 1334273568
I0403 21:43:42.303808 24022 layer_factory.hpp:77] Creating layer inception_5b/5x5_reduce
I0403 21:43:42.303846 24022 net.cpp:91] Creating Layer inception_5b/5x5_reduce
I0403 21:43:42.303867 24022 net.cpp:425] inception_5b/5x5_reduce <- inception_5a/output_inception_5a/output_0_split_2
I0403 21:43:42.303890 24022 net.cpp:399] inception_5b/5x5_reduce -> inception_5b/5x5_reduce
I0403 21:43:42.305176 24022 net.cpp:141] Setting up inception_5b/5x5_reduce
I0403 21:43:42.305208 24022 net.cpp:148] Top shape: 24 48 7 7 (56448)
I0403 21:43:42.305227 24022 net.cpp:156] Memory required for data: 1334499360
I0403 21:43:42.305245 24022 layer_factory.hpp:77] Creating layer inception_5b/relu_5x5_reduce
I0403 21:43:42.305265 24022 net.cpp:91] Creating Layer inception_5b/relu_5x5_reduce
I0403 21:43:42.305284 24022 net.cpp:425] inception_5b/relu_5x5_reduce <- inception_5b/5x5_reduce
I0403 21:43:42.305301 24022 net.cpp:386] inception_5b/relu_5x5_reduce -> inception_5b/5x5_reduce (in-place)
I0403 21:43:42.305681 24022 net.cpp:141] Setting up inception_5b/relu_5x5_reduce
I0403 21:43:42.305709 24022 net.cpp:148] Top shape: 24 48 7 7 (56448)
I0403 21:43:42.305726 24022 net.cpp:156] Memory required for data: 1334725152
I0403 21:43:42.305740 24022 layer_factory.hpp:77] Creating layer inception_5b/5x5
I0403 21:43:42.305760 24022 net.cpp:91] Creating Layer inception_5b/5x5
I0403 21:43:42.305778 24022 net.cpp:425] inception_5b/5x5 <- inception_5b/5x5_reduce
I0403 21:43:42.305799 24022 net.cpp:399] inception_5b/5x5 -> inception_5b/5x5
I0403 21:43:42.307894 24022 net.cpp:141] Setting up inception_5b/5x5
I0403 21:43:42.307922 24022 net.cpp:148] Top shape: 24 128 7 7 (150528)
I0403 21:43:42.307939 24022 net.cpp:156] Memory required for data: 1335327264
I0403 21:43:42.307965 24022 layer_factory.hpp:77] Creating layer inception_5b/relu_5x5
I0403 21:43:42.307984 24022 net.cpp:91] Creating Layer inception_5b/relu_5x5
I0403 21:43:42.308001 24022 net.cpp:425] inception_5b/relu_5x5 <- inception_5b/5x5
I0403 21:43:42.308019 24022 net.cpp:386] inception_5b/relu_5x5 -> inception_5b/5x5 (in-place)
I0403 21:43:42.308230 24022 net.cpp:141] Setting up inception_5b/relu_5x5
I0403 21:43:42.308257 24022 net.cpp:148] Top shape: 24 128 7 7 (150528)
I0403 21:43:42.308274 24022 net.cpp:156] Memory required for data: 1335929376
I0403 21:43:42.308287 24022 layer_factory.hpp:77] Creating layer inception_5b/pool
I0403 21:43:42.308305 24022 net.cpp:91] Creating Layer inception_5b/pool
I0403 21:43:42.308322 24022 net.cpp:425] inception_5b/pool <- inception_5a/output_inception_5a/output_0_split_3
I0403 21:43:42.308344 24022 net.cpp:399] inception_5b/pool -> inception_5b/pool
I0403 21:43:42.308418 24022 net.cpp:141] Setting up inception_5b/pool
I0403 21:43:42.308451 24022 net.cpp:148] Top shape: 24 832 7 7 (978432)
I0403 21:43:42.308466 24022 net.cpp:156] Memory required for data: 1339843104
I0403 21:43:42.308480 24022 layer_factory.hpp:77] Creating layer inception_5b/pool_proj
I0403 21:43:42.308504 24022 net.cpp:91] Creating Layer inception_5b/pool_proj
I0403 21:43:42.308522 24022 net.cpp:425] inception_5b/pool_proj <- inception_5b/pool
I0403 21:43:42.308542 24022 net.cpp:399] inception_5b/pool_proj -> inception_5b/pool_proj
I0403 21:43:42.310828 24022 net.cpp:141] Setting up inception_5b/pool_proj
I0403 21:43:42.310858 24022 net.cpp:148] Top shape: 24 128 7 7 (150528)
I0403 21:43:42.310874 24022 net.cpp:156] Memory required for data: 1340445216
I0403 21:43:42.310892 24022 layer_factory.hpp:77] Creating layer inception_5b/relu_pool_proj
I0403 21:43:42.310914 24022 net.cpp:91] Creating Layer inception_5b/relu_pool_proj
I0403 21:43:42.310932 24022 net.cpp:425] inception_5b/relu_pool_proj <- inception_5b/pool_proj
I0403 21:43:42.310950 24022 net.cpp:386] inception_5b/relu_pool_proj -> inception_5b/pool_proj (in-place)
I0403 21:43:42.311249 24022 net.cpp:141] Setting up inception_5b/relu_pool_proj
I0403 21:43:42.311275 24022 net.cpp:148] Top shape: 24 128 7 7 (150528)
I0403 21:43:42.311290 24022 net.cpp:156] Memory required for data: 1341047328
I0403 21:43:42.311305 24022 layer_factory.hpp:77] Creating layer inception_5b/output
I0403 21:43:42.311324 24022 net.cpp:91] Creating Layer inception_5b/output
I0403 21:43:42.311354 24022 net.cpp:425] inception_5b/output <- inception_5b/1x1
I0403 21:43:42.311372 24022 net.cpp:425] inception_5b/output <- inception_5b/3x3
I0403 21:43:42.311388 24022 net.cpp:425] inception_5b/output <- inception_5b/5x5
I0403 21:43:42.311404 24022 net.cpp:425] inception_5b/output <- inception_5b/pool_proj
I0403 21:43:42.311421 24022 net.cpp:399] inception_5b/output -> inception_5b/output
I0403 21:43:42.311475 24022 net.cpp:141] Setting up inception_5b/output
I0403 21:43:42.311498 24022 net.cpp:148] Top shape: 24 1024 7 7 (1204224)
I0403 21:43:42.311513 24022 net.cpp:156] Memory required for data: 1345864224
I0403 21:43:42.311528 24022 layer_factory.hpp:77] Creating layer pool5/7x7_s1
I0403 21:43:42.311545 24022 net.cpp:91] Creating Layer pool5/7x7_s1
I0403 21:43:42.311561 24022 net.cpp:425] pool5/7x7_s1 <- inception_5b/output
I0403 21:43:42.311583 24022 net.cpp:399] pool5/7x7_s1 -> pool5/7x7_s1
I0403 21:43:42.311800 24022 net.cpp:141] Setting up pool5/7x7_s1
I0403 21:43:42.311826 24022 net.cpp:148] Top shape: 24 1024 1 1 (24576)
I0403 21:43:42.311844 24022 net.cpp:156] Memory required for data: 1345962528
I0403 21:43:42.311859 24022 layer_factory.hpp:77] Creating layer pool5/drop_7x7_s1
I0403 21:43:42.311877 24022 net.cpp:91] Creating Layer pool5/drop_7x7_s1
I0403 21:43:42.311894 24022 net.cpp:425] pool5/drop_7x7_s1 <- pool5/7x7_s1
I0403 21:43:42.311913 24022 net.cpp:386] pool5/drop_7x7_s1 -> pool5/7x7_s1 (in-place)
I0403 21:43:42.311964 24022 net.cpp:141] Setting up pool5/drop_7x7_s1
I0403 21:43:42.311986 24022 net.cpp:148] Top shape: 24 1024 1 1 (24576)
I0403 21:43:42.312001 24022 net.cpp:156] Memory required for data: 1346060832
I0403 21:43:42.312016 24022 layer_factory.hpp:77] Creating layer loss3/classifier_plantvillage
I0403 21:43:42.312036 24022 net.cpp:91] Creating Layer loss3/classifier_plantvillage
I0403 21:43:42.312052 24022 net.cpp:425] loss3/classifier_plantvillage <- pool5/7x7_s1
I0403 21:43:42.312072 24022 net.cpp:399] loss3/classifier_plantvillage -> loss3/classifier_plantvillage
I0403 21:43:42.312492 24022 net.cpp:141] Setting up loss3/classifier_plantvillage
I0403 21:43:42.312517 24022 net.cpp:148] Top shape: 24 38 (912)
I0403 21:43:42.312531 24022 net.cpp:156] Memory required for data: 1346064480
I0403 21:43:42.312551 24022 layer_factory.hpp:77] Creating layer loss3/classifier_plantvillage_loss3/classifier_plantvillage_0_split
I0403 21:43:42.312567 24022 net.cpp:91] Creating Layer loss3/classifier_plantvillage_loss3/classifier_plantvillage_0_split
I0403 21:43:42.312583 24022 net.cpp:425] loss3/classifier_plantvillage_loss3/classifier_plantvillage_0_split <- loss3/classifier_plantvillage
I0403 21:43:42.312604 24022 net.cpp:399] loss3/classifier_plantvillage_loss3/classifier_plantvillage_0_split -> loss3/classifier_plantvillage_loss3/classifier_plantvillage_0_split_0
I0403 21:43:42.312625 24022 net.cpp:399] loss3/classifier_plantvillage_loss3/classifier_plantvillage_0_split -> loss3/classifier_plantvillage_loss3/classifier_plantvillage_0_split_1
I0403 21:43:42.312646 24022 net.cpp:399] loss3/classifier_plantvillage_loss3/classifier_plantvillage_0_split -> loss3/classifier_plantvillage_loss3/classifier_plantvillage_0_split_2
I0403 21:43:42.312667 24022 net.cpp:399] loss3/classifier_plantvillage_loss3/classifier_plantvillage_0_split -> loss3/classifier_plantvillage_loss3/classifier_plantvillage_0_split_3
I0403 21:43:42.312768 24022 net.cpp:141] Setting up loss3/classifier_plantvillage_loss3/classifier_plantvillage_0_split
I0403 21:43:42.312794 24022 net.cpp:148] Top shape: 24 38 (912)
I0403 21:43:42.312813 24022 net.cpp:148] Top shape: 24 38 (912)
I0403 21:43:42.312829 24022 net.cpp:148] Top shape: 24 38 (912)
I0403 21:43:42.312844 24022 net.cpp:148] Top shape: 24 38 (912)
I0403 21:43:42.312857 24022 net.cpp:156] Memory required for data: 1346079072
I0403 21:43:42.312872 24022 layer_factory.hpp:77] Creating layer loss1/loss
I0403 21:43:42.312893 24022 net.cpp:91] Creating Layer loss1/loss
I0403 21:43:42.312909 24022 net.cpp:425] loss1/loss <- loss1/classifier_plantvillage_loss1/classifier_plantvillage_0_split_0
I0403 21:43:42.312940 24022 net.cpp:425] loss1/loss <- label_data_1_split_0
…
