…
I0403 21:52:17.043135 24534 net.cpp:313] The NetState phase (1) differed from the phase (0) specified by a rule in layer data
I0403 21:52:17.044234 24534 net.cpp:49] Initializing net from parameters: 
state {
  phase: TEST
}
layer {
  name: "data"
  type: "Data"
  top: "data"
  top: "label"
  include {
    phase: TEST
  }
  transform_param {
    mirror: false
    crop_size: 224
    mean_file: "/home/mohanty/data/final_dataset/lmdb/segmented-80-20/mean.binaryproto"
  }
  data_param {
    source: "/home/mohanty/data/final_dataset/lmdb/segmented-80-20/test_db"
    batch_size: 24
    backend: LMDB
  }
}
layer {
  name: "conv1/7x7_s2"
  type: "Convolution"
  bottom: "data"
  top: "conv1/7x7_s2"
  param {
    lr_mult: 1
    decay_mult: 1
  }
  param {
    lr_mult: 2
    decay_mult: 0
  }
  convolution_param {
    num_output: 64
    pad: 3
    kernel_size: 7
    stride: 2
    weight_filler {
      type: "xavier"
      std: 0.1
    }
    bias_filler {
      type: "constant"
      value: 0.2
    }
  }
}
layer {
  name: "conv1/relu_7x7"
  type: "ReLU"
  bottom: "conv1/7x7_s2"
  top: "conv1/7x7_s2"
}
layer {
  name: "pool1/3x3_s2"
  type: "Pooling"
  bottom: "conv1/7x7_s2"
  top: "pool1/3x3_s2"
  pooling_param {
    pool: MAX
    kernel_size: 3
    stride: 2
  }
}
layer {
  name: "pool1/norm1"
  type: "LRN"
  bottom: "pool1/3x3_s2"
  top: "pool1/norm1"
  lrn_param {
    local_size: 5
    alpha: 0.0001
    beta: 0.75
  }
}
layer {
  name: "conv2/3x3_reduce"
  type: "Convolution"
  bottom: "pool1/norm1"
  top: "conv2/3x3_reduce"
  param {
    lr_mult: 1
    decay_mult: 1
  }
  param {
    lr_mult: 2
    decay_mult: 0
  }
  convolution_param {
    num_output: 64
    kernel_size: 1
    weight_filler {
      type: "xavier"
      std: 0.1
    }
    bias_filler {
      type: "constant"
      value: 0.2
    }
  }
}
layer {
  name: "conv2/relu_3x3_reduce"
  type: "ReLU"
  bottom: "conv2/3x3_reduce"
  top: "conv2/3x3_reduce"
}
layer {
  name: "conv2/3x3"
  type: "Convolution"
  bottom: "conv2/3x3_reduce"
  top: "conv2/3x3"
  param {
    lr_mult: 1
    decay_mult: 1
  }
  param {
    lr_mult: 2
    decay_mult: 0
  }
  convolution_param {
    num_output: 192
    pad: 1
    kernel_size: 3
    weight_filler {
      type: "xavier"
      std: 0.03
    }
    bias_filler {
      type: "constant"
      value: 0.2
    }
  }
}
layer {
  name: "conv2/relu_3x3"
  type: "ReLU"
  bottom: "conv2/3x3"
  top: "conv2/3x3"
}
layer {
  name: "conv2/norm2"
  type: "LRN"
  bottom: "conv2/3x3"
  top: "conv2/norm2"
  lrn_param {
    local_size: 5
    alpha: 0.0001
    beta: 0.75
  }
}
layer {
  name: "pool2/3x3_s2"
  type: "Pooling"
  bottom: "conv2/norm2"
  top: "pool2/3x3_s2"
  pooling_param {
    pool: MAX
    kernel_size: 3
    stride: 2
  }
}
layer {
  name: "inception_3a/1x1"
  type: "Convolution"
  bottom: "pool2/3x3_s2"
  top: "inception_3a/1x1"
  param {
    lr_mult: 1
    decay_mult: 1
  }
  param {
    lr_mult: 2
    decay_mult: 0
  }
  convolution_param {
    num_output: 64
    kernel_size: 1
    weight_filler {
      type: "xavier"
      std: 0.03
    }
    bias_filler {
      type: "constant"
      value: 0.2
    }
  }
}
layer {
  name: "inception_3a/relu_1x1"
  type: "ReLU"
  bottom: "inception_3a/1x1"
  top: "inception_3a/1x1"
}
layer {
  name: "inception_3a/3x3_reduce"
  type: "Convolution"
  bottom: "pool2/3x3_s2"
  top: "inception_3a/3x3_reduce"
  param {
    lr_mult: 1
    decay_mult: 1
  }
  param {
    lr_mult: 2
    decay_mult: 0
  }
  convolution_param {
    num_output: 96
    kernel_size: 1
    weight_filler {
      type: "xavier"
      std: 0.09
    }
    bias_filler {
      type: "constant"
      value: 0.2
    }
  }
}
layer {
  name: "inception_3a/relu_3x3_reduce"
  type: "ReLU"
  bottom: "inception_3a/3x3_reduce"
  top: "inception_3a/3x3_reduce"
}
layer {
  name: "inception_3a/3x3"
  type: "Convolution"
  bottom: "inception_3a/3x3_reduce"
  top: "inception_3a/3x3"
  param {
    lr_mult: 1
    decay_mult: 1
  }
  param {
    lr_mult: 2
    decay_mult: 0
  }
  convolution_param {
    num_output: 128
    pad: 1
    kernel_size: 3
    weight_filler {
      type: "xavier"
      std: 0.03
    }
    bias_filler {
      type: "constant"
      value: 0.2
    }
  }
}
layer {
  name: "inception_3a/relu_3x3"
  type: "ReLU"
  bottom: "inception_3a/3x3"
  top: "inception_3a/3x3"
}
layer {
  name: "inception_3a/5x5_reduce"
  type: "Convolution"
  bottom: "pool2/3x3_s2"
  top: "inception_3a/5x5_reduce"
  param {
    lr_mult: 1
    decay_mult: 1
  }
  param {
    lr_mult: 2
    decay_mult: 0
  }
  convolution_param {
    num_output: 16
    kernel_size: 1
    weight_filler {
      type: "xavier"
      std: 0.2
    }
    bias_filler {
      type: "constant"
      value: 0.2
    }
  }
}
layer {
  name: "inception_3a/relu_5x5_reduce"
  type: "ReLU"
  bottom: "inception_3a/5x5_reduce"
  top: "inception_3a/5x5_reduce"
}
layer {
  name: "inception_3a/5x5"
  type: "Convolution"
  bottom: "inception_3a/5x5_reduce"
  top: "inception_3a/5x5"
  param {
    lr_mult: 1
    decay_mult: 1
  }
  param {
    lr_mult: 2
    decay_mult: 0
  }
  convolution_param {
    num_output: 32
    pad: 2
    kernel_size: 5
    weight_filler {
      type: "xavier"
      std: 0.03
    }
    bias_filler {
      type: "constant"
      value: 0.2
    }
  }
}
layer {
  name: "inception_3a/relu_5x5"
  type: "ReLU"
  bottom: "inception_3a/5x5"
  top: "inception_3a/5x5"
}
layer {
  name: "inception_3a/pool"
  type: "Pooling"
  bottom: "pool2/3x3_s2"
  top: "inception_3a/pool"
  pooling_param {
    pool: MAX
    kernel_size: 3
    stride: 1
    pad: 1
  }
}
layer {
  name: "inception_3a/pool_proj"
  type: "Convolution"
  bottom: "inception_3a/pool"
  top: "inception_3a/pool_proj"
  param {
    lr_mult: 1
    decay_mult: 1
  }
  param {
    lr_mult: 2
    decay_mult: 0
  }
  convolution_param {
    num_output: 32
    kernel_size: 1
    weight_filler {
      type: "xavier"
      std: 0.1
    }
    bias_filler {
      type: "constant"
      value: 0.2
    }
  }
}
layer {
  name: "inception_3a/relu_pool_proj"
  type: "ReLU"
  bottom: "inception_3a/pool_proj"
  top: "inception_3a/pool_proj"
}
layer {
  name: "inception_3a/output"
  type: "Concat"
  bottom: "inception_3a/1x1"
  bottom: "inception_3a/3x3"
  bottom: "inception_3a/5x5"
  bottom: "inception_3a/pool_proj"
  top: "inception_3a/output"
}
layer {
  name: "inception_3b/1x1"
  type: "Convolution"
  bottom: "inception_3a/output"
  top: "inception_3b/1x1"
  param {
    lr_mult: 1
    decay_mult: 1
  }
  param {
    lr_mult: 2
    decay_mult: 0
  }
  convolution_param {
    num_output: 128
    kernel_size: 1
    weight_filler {
      type: "xavier"
      std: 0.03
    }
    bias_filler {
      type: "constant"
      value: 0.2
    }
  }
}
layer {
  name: "inception_3b/relu_1x1"
  type: "ReLU"
  bottom: "inception_3b/1x1"
  top: "inception_3b/1x1"
}
layer {
  name: "inception_3b/3x3_reduce"
  type: "Convolution"
  bottom: "inception_3a/output"
  top: "inception_3b/3x3_reduce"
  param {
    lr_mult: 1
    decay_mult: 1
  }
  param {
    lr_mult: 2
    decay_mult: 0
  }
  convolution_param {
    num_output: 128
    kernel_size: 1
    weight_filler {
      type: "xavier"
      std: 0.09
    }
    bias_filler {
      type: "constant"
      value: 0.2
    }
  }
}
layer {
  name: "inception_3b/relu_3x3_reduce"
  type: "ReLU"
  bottom: "inception_3b/3x3_reduce"
  top: "inception_3b/3x3_reduce"
}
layer {
  name: "inception_3b/3x3"
  type: "Convolution"
  bottom: "inception_3b/3x3_reduce"
  top: "inception_3b/3x3"
  param {
    lr_mult: 1
    decay_mult: 1
  }
  param {
    lr_mult: 2
    decay_mult: 0
  }
  convolution_param {
    num_output: 192
    pad: 1
    kernel_size: 3
    weight_filler {
      type: "xavier"
      std: 0.03
    }
    bias_filler {
      type: "constant"
      value: 0.2
    }
  }
}
layer {
  name: "inception_3b/relu_3x3"
  type: "ReLU"
  bottom: "inception_3b/3x3"
  top: "inception_3b/3x3"
}
layer {
  name: "inception_3b/5x5_reduce"
  type: "Convolution"
  bottom: "inception_3a/output"
  top: "inception_3b/5x5_reduce"
  param {
    lr_mult: 1
    decay_mult: 1
  }
  param {
    lr_mult: 2
    decay_mult: 0
  }
  convolution_param {
    num_output: 32
    kernel_size: 1
    weight_filler {
      type: "xavier"
      std: 0.2
    }
    bias_filler {
      type: "constant"
      value: 0.2
    }
  }
}
layer {
  name: "inception_3b/relu_5x5_reduce"
  type: "ReLU"
  bottom: "inception_3b/5x5_reduce"
  top: "inception_3b/5x5_reduce"
}
layer {
  name: "inception_3b/5x5"
  type: "Convolution"
  bottom: "inception_3b/5x5_reduce"
  top: "inception_3b/5x5"
  param {
    lr_mult: 1
    decay_mult: 1
  }
  param {
    lr_mult: 2
    decay_mult: 0
  }
  convolution_param {
    num_output: 96
    pad: 2
    kernel_size: 5
    weight_filler {
      type: "xavier"
      std: 0.03
    }
    bias_filler {
      type: "constant"
      value: 0.2
    }
  }
}
layer {
  name: "inception_3b/relu_5x5"
  type: "ReLU"
  bottom: "inception_3b/5x5"
  top: "inception_3b/5x5"
}
layer {
  name: "inception_3b/pool"
  type: "Pooling"
  bottom: "inception_3a/output"
  top: "inception_3b/pool"
  pooling_param {
    pool: MAX
    kernel_size: 3
    stride: 1
    pad: 1
  }
}
layer {
  name: "inception_3b/pool_proj"
  type: "Convolution"
  bottom: "inception_3b/pool"
  top: "inception_3b/pool_proj"
  param {
    lr_mult: 1
    decay_mult: 1
  }
  param {
    lr_mult: 2
    decay_mult: 0
  }
  convolution_param {
    num_output: 64
    kernel_size: 1
    weight_filler {
      type: "xavier"
      std: 0.1
    }
    bias_filler {
      type: "constant"
      value: 0.2
    }
  }
}
layer {
  name: "inception_3b/relu_pool_proj"
  type: "ReLU"
  bottom: "inception_3b/pool_proj"
  top: "inception_3b/pool_proj"
}
layer {
  name: "inception_3b/output"
  type: "Concat"
  bottom: "inception_3b/1x1"
  bottom: "inception_3b/3x3"
  bottom: "inception_3b/5x5"
  bottom: "inception_3b/pool_proj"
  top: "inception_3b/output"
}
layer {
  name: "pool3/3x3_s2"
  type: "Pooling"
  bottom: "inception_3b/output"
  top: "pool3/3x3_s2"
  pooling_param {
    pool: MAX
    kernel_size: 3
    stride: 2
  }
}
layer {
  name: "inception_4a/1x1"
  type: "Convolution"
  bottom: "pool3/3x3_s2"
  top: "inception_4a/1x1"
  param {
    lr_mult: 1
    decay_mult: 1
  }
  param {
    lr_mult: 2
    decay_mult: 0
  }
  convolution_param {
    num_output: 192
    kernel_size: 1
    weight_filler {
      type: "xavier"
      std: 0.03
    }
    bias_filler {
      type: "constant"
      value: 0.2
    }
  }
}
layer {
  name: "inception_4a/relu_1x1"
  type: "ReLU"
  bottom: "inception_4a/1x1"
  top: "inception_4a/1x1"
}
layer {
  name: "inception_4a/3x3_reduce"
  type: "Convolution"
  bottom: "pool3/3x3_s2"
  top: "inception_4a/3x3_reduce"
  param {
    lr_mult: 1
    decay_mult: 1
  }
  param {
    lr_mult: 2
    decay_mult: 0
  }
  convolution_param {
    num_output: 96
    kernel_size: 1
    weight_filler {
      type: "xavier"
      std: 0.09
    }
    bias_filler {
      type: "constant"
      value: 0.2
    }
  }
}
layer {
  name: "inception_4a/relu_3x3_reduce"
  type: "ReLU"
  bottom: "inception_4a/3x3_reduce"
  top: "inception_4a/3x3_reduce"
}
layer {
  name: "inception_4a/3x3"
  type: "Convolution"
  bottom: "inception_4a/3x3_reduce"
  top: "inception_4a/3x3"
  param {
    lr_mult: 1
    decay_mult: 1
  }
  param {
    lr_mult: 2
    decay_mult: 0
  }
  convolution_param {
    num_output: 208
    pad: 1
    kernel_size: 3
    weight_filler {
      type: "xavier"
      std: 0.03
    }
    bias_filler {
      type: "constant"
      value: 0.2
    }
  }
}
layer {
  name: "inception_4a/relu_3x3"
  type: "ReLU"
  bottom: "inception_4a/3x3"
  top: "inception_4a/3x3"
}
layer {
  name: "inception_4a/5x5_reduce"
  type: "Convolution"
  bottom: "pool3/3x3_s2"
  top: "inception_4a/5x5_reduce"
  param {
    lr_mult: 1
    decay_mult: 1
  }
  param {
    lr_mult: 2
    decay_mult: 0
  }
  convolution_param {
    num_output: 16
    kernel_size: 1
    weight_filler {
      type: "xavier"
      std: 0.2
    }
    bias_filler {
      type: "constant"
      value: 0.2
    }
  }
}
layer {
  name: "inception_4a/relu_5x5_reduce"
  type: "ReLU"
  bottom: "inception_4a/5x5_reduce"
  top: "inception_4a/5x5_reduce"
}
layer {
  name: "inception_4a/5x5"
  type: "Convolution"
  bottom: "inception_4a/5x5_reduce"
  top: "inception_4a/5x5"
  param {
    lr_mult: 1
    decay_mult: 1
  }
  param {
    lr_mult: 2
    decay_mult: 0
  }
  convolution_param {
    num_output: 48
    pad: 2
    kernel_size: 5
    weight_filler {
      type: "xavier"
      std: 0.03
    }
    bias_filler {
      type: "constant"
      value: 0.2
    }
  }
}
layer {
  name: "inception_4a/relu_5x5"
  type: "ReLU"
  bottom: "inception_4a/5x5"
  top: "inception_4a/5x5"
}
layer {
  name: "inception_4a/pool"
  type: "Pooling"
  bottom: "pool3/3x3_s2"
  top: "inception_4a/pool"
  pooling_param {
    pool: MAX
    kernel_size: 3
    stride: 1
    pad: 1
  }
}
layer {
  name: "inception_4a/pool_proj"
  type: "Convolution"
  bottom: "inception_4a/pool"
  top: "inception_4a/pool_proj"
  param {
    lr_mult: 1
    decay_mult: 1
  }
  param {
    lr_mult: 2
    decay_mult: 0
  }
  convolution_param {
    num_output: 64
    kernel_size: 1
    weight_filler {
      type: "xavier"
      std: 0.1
    }
    bias_filler {
      type: "constant"
      value: 0.2
    }
  }
}
layer {
  name: "inception_4a/relu_pool_proj"
  type: "ReLU"
  bottom: "inception_4a/pool_proj"
  top: "inception_4a/pool_proj"
}
layer {
  name: "inception_4a/output"
  type: "Concat"
  bottom: "inception_4a/1x1"
  bottom: "inception_4a/3x3"
  bottom: "inception_4a/5x5"
  bottom: "inception_4a/pool_proj"
  top: "inception_4a/output"
}
layer {
  name: "loss1/ave_pool"
  type: "Pooling"
  bottom: "inception_4a/output"
  top: "loss1/ave_pool"
  pooling_param {
    pool: AVE
    kernel_size: 5
    stride: 3
  }
}
layer {
  name: "loss1/conv"
  type: "Convolution"
  bottom: "loss1/ave_pool"
  top: "loss1/conv"
  param {
    lr_mult: 1
    decay_mult: 1
  }
  param {
    lr_mult: 2
    decay_mult: 0
  }
  convolution_param {
    num_output: 128
    kernel_size: 1
    weight_filler {
      type: "xavier"
      std: 0.08
    }
    bias_filler {
      type: "constant"
      value: 0.2
    }
  }
}
layer {
  name: "loss1/relu_conv"
  type: "ReLU"
  bottom: "loss1/conv"
  top: "loss1/conv"
}
layer {
  name: "loss1/fc"
  type: "InnerProduct"
  bottom: "loss1/conv"
  top: "loss1/fc"
  param {
    lr_mult: 1
    decay_mult: 1
  }
  param {
    lr_mult: 2
    decay_mult: 0
  }
  inner_product_param {
    num_output: 1024
    weight_filler {
      type: "xavier"
      std: 0.02
    }
    bias_filler {
      type: "constant"
      value: 0.2
    }
  }
}
layer {
  name: "loss1/relu_fc"
  type: "ReLU"
  bottom: "loss1/fc"
  top: "loss1/fc"
}
layer {
  name: "loss1/drop_fc"
  type: "Dropout"
  bottom: "loss1/fc"
  top: "loss1/fc"
  dropout_param {
    dropout_ratio: 0.7
  }
}
layer {
  name: "loss1/classifier_plantvillage"
  type: "InnerProduct"
  bottom: "loss1/fc"
  top: "loss1/classifier_plantvillage"
  param {
    lr_mult: 1
    decay_mult: 1
  }
  param {
    lr_mult: 2
    decay_mult: 0
  }
  inner_product_param {
    num_output: 38
    weight_filler {
      type: "xavier"
      std: 0.0009765625
    }
    bias_filler {
      type: "constant"
      value: 0
    }
  }
}
layer {
  name: "inception_4b/1x1"
  type: "Convolution"
  bottom: "inception_4a/output"
  top: "inception_4b/1x1"
  param {
    lr_mult: 1
    decay_mult: 1
  }
  param {
    lr_mult: 2
    decay_mult: 0
  }
  convolution_param {
    num_output: 160
    kernel_size: 1
    weight_filler {
      type: "xavier"
      std: 0.03
    }
    bias_filler {
      type: "constant"
      value: 0.2
    }
  }
}
layer {
  name: "inception_4b/relu_1x1"
  type: "ReLU"
  bottom: "inception_4b/1x1"
  top: "inception_4b/1x1"
}
layer {
  name: "inception_4b/3x3_reduce"
  type: "Convolution"
  bottom: "inception_4a/output"
  top: "inception_4b/3x3_reduce"
  param {
    lr_mult: 1
    decay_mult: 1
  }
  param {
    lr_mult: 2
    decay_mult: 0
  }
  convolution_param {
    num_output: 112
    kernel_size: 1
    weight_filler {
      type: "xavier"
      std: 0.09
    }
    bias_filler {
      type: "constant"
      value: 0.2
    }
  }
}
layer {
  name: "inception_4b/relu_3x3_reduce"
  type: "ReLU"
  bottom: "inception_4b/3x3_reduce"
  top: "inception_4b/3x3_reduce"
}
layer {
  name: "inception_4b/3x3"
  type: "Convolution"
  bottom: "inception_4b/3x3_reduce"
  top: "inception_4b/3x3"
  param {
    lr_mult: 1
    decay_mult: 1
  }
  param {
    lr_mult: 2
    decay_mult: 0
  }
  convolution_param {
    num_output: 224
    pad: 1
    kernel_size: 3
    weight_filler {
      type: "xavier"
      std: 0.03
    }
    bias_filler {
      type: "constant"
      value: 0.2
    }
  }
}
layer {
  name: "inception_4b/relu_3x3"
  type: "ReLU"
  bottom: "inception_4b/3x3"
  top: "inception_4b/3x3"
}
layer {
  name: "inception_4b/5x5_reduce"
  type: "Convolution"
  bottom: "inception_4a/output"
  top: "inception_4b/5x5_reduce"
  param {
    lr_mult: 1
    decay_mult: 1
  }
  param {
    lr_mult: 2
    decay_mult: 0
  }
  convolution_param {
    num_output: 24
    kernel_size: 1
    weight_filler {
      type: "xavier"
      std: 0.2
    }
    bias_filler {
      type: "constant"
      value: 0.2
    }
  }
}
layer {
  name: "inception_4b/relu_5x5_reduce"
  type: "ReLU"
  bottom: "inception_4b/5x5_reduce"
  top: "inception_4b/5x5_reduce"
}
layer {
  name: "inception_4b/5x5"
  type: "Convolution"
  bottom: "inception_4b/5x5_reduce"
  top: "inception_4b/5x5"
  param {
    lr_mult: 1
    decay_mult: 1
  }
  param {
    lr_mult: 2
    decay_mult: 0
  }
  convolution_param {
    num_output: 64
    pad: 2
    kernel_size: 5
    weight_filler {
      type: "xavier"
      std: 0.03
    }
    bias_filler {
      type: "constant"
      value: 0.2
    }
  }
}
layer {
  name: "inception_4b/relu_5x5"
  type: "ReLU"
  bottom: "inception_4b/5x5"
  top: "inception_4b/5x5"
}
layer {
  name: "inception_4b/pool"
  type: "Pooling"
  bottom: "inception_4a/output"
  top: "inception_4b/pool"
  pooling_param {
    pool: MAX
    kernel_size: 3
    stride: 1
    pad: 1
  }
}
layer {
  name: "inception_4b/pool_proj"
  type: "Convolution"
  bottom: "inception_4b/pool"
  top: "inception_4b/pool_proj"
  param {
    lr_mult: 1
    decay_mult: 1
  }
  param {
    lr_mult: 2
    decay_mult: 0
  }
  convolution_param {
    num_output: 64
    kernel_size: 1
    weight_filler {
      type: "xavier"
      std: 0.1
    }
    bias_filler {
      type: "constant"
      value: 0.2
    }
  }
}
layer {
  name: "inception_4b/relu_pool_proj"
  type: "ReLU"
  bottom: "inception_4b/pool_proj"
  top: "inception_4b/pool_proj"
}
layer {
  name: "inception_4b/output"
  type: "Concat"
  bottom: "inception_4b/1x1"
  bottom: "inception_4b/3x3"
  bottom: "inception_4b/5x5"
  bottom: "inception_4b/pool_proj"
  top: "inception_4b/output"
}
layer {
  name: "inception_4c/1x1"
  type: "Convolution"
  bottom: "inception_4b/output"
  top: "inception_4c/1x1"
  param {
    lr_mult: 1
    decay_mult: 1
  }
  param {
    lr_mult: 2
    decay_mult: 0
  }
  convolution_param {
    num_output: 128
    kernel_size: 1
    weight_filler {
      type: "xavier"
      std: 0.03
    }
    bias_filler {
      type: "constant"
      value: 0.2
    }
  }
}
layer {
  name: "inception_4c/relu_1x1"
  type: "ReLU"
  bottom: "inception_4c/1x1"
  top: "inception_4c/1x1"
}
layer {
  name: "inception_4c/3x3_reduce"
  type: "Convolution"
  bottom: "inception_4b/output"
  top: "inception_4c/3x3_reduce"
  param {
    lr_mult: 1
    decay_mult: 1
  }
  param {
    lr_mult: 2
    decay_mult: 0
  }
  convolution_param {
    num_output: 128
    kernel_size: 1
    weight_filler {
      type: "xavier"
      std: 0.09
    }
    bias_filler {
      type: "constant"
      value: 0.2
    }
  }
}
layer {
  name: "inception_4c/relu_3x3_reduce"
  type: "ReLU"
  bottom: "inception_4c/3x3_reduce"
  top: "inception_4c/3x3_reduce"
}
layer {
  name: "inception_4c/3x3"
  type: "Convolution"
  bottom: "inception_4c/3x3_reduce"
  top: "inception_4c/3x3"
  param {
    lr_mult: 1
    decay_mult: 1
  }
  param {
    lr_mult: 2
    decay_mult: 0
  }
  convolution_param {
    num_output: 256
    pad: 1
    kernel_size: 3
    weight_filler {
      type: "xavier"
      std: 0.03
    }
    bias_filler {
      type: "constant"
      value: 0.2
    }
  }
}
layer {
  name: "inception_4c/relu_3x3"
  type: "ReLU"
  bottom: "inception_4c/3x3"
  top: "inception_4c/3x3"
}
layer {
  name: "inception_4c/5x5_reduce"
  type: "Convolution"
  bottom: "inception_4b/output"
  top: "inception_4c/5x5_reduce"
  param {
    lr_mult: 1
    decay_mult: 1
  }
  param {
    lr_mult: 2
    decay_mult: 0
  }
  convolution_param {
    num_output: 24
    kernel_size: 1
    weight_filler {
      type: "xavier"
      std: 0.2
    }
    bias_filler {
      type: "constant"
      value: 0.2
    }
  }
}
layer {
  name: "inception_4c/relu_5x5_reduce"
  type: "ReLU"
  bottom: "inception_4c/5x5_reduce"
  top: "inception_4c/5x5_reduce"
}
layer {
  name: "inception_4c/5x5"
  type: "Convolution"
  bottom: "inception_4c/5x5_reduce"
  top: "inception_4c/5x5"
  param {
    lr_mult: 1
    decay_mult: 1
  }
  param {
    lr_mult: 2
    decay_mult: 0
  }
  convolution_param {
    num_output: 64
    pad: 2
    kernel_size: 5
    weight_filler {
      type: "xavier"
      std: 0.03
    }
    bias_filler {
      type: "constant"
      value: 0.2
    }
  }
}
layer {
  name: "inception_4c/relu_5x5"
  type: "ReLU"
  bottom: "inception_4c/5x5"
  top: "inception_4c/5x5"
}
layer {
  name: "inception_4c/pool"
  type: "Pooling"
  bottom: "inception_4b/output"
  top: "inception_4c/pool"
  pooling_param {
    pool: MAX
    kernel_size: 3
    stride: 1
    pad: 1
  }
}
layer {
  name: "inception_4c/pool_proj"
  type: "Convolution"
  bottom: "inception_4c/pool"
  top: "inception_4c/pool_proj"
  param {
    lr_mult: 1
    decay_mult: 1
  }
  param {
    lr_mult: 2
    decay_mult: 0
  }
  convolution_param {
    num_output: 64
    kernel_size: 1
    weight_filler {
      type: "xavier"
      std: 0.1
    }
    bias_filler {
      type: "constant"
      value: 0.2
    }
  }
}
layer {
  name: "inception_4c/relu_pool_proj"
  type: "ReLU"
  bottom: "inception_4c/pool_proj"
  top: "inception_4c/pool_proj"
}
layer {
  name: "inception_4c/output"
  type: "Concat"
  bottom: "inception_4c/1x1"
  bottom: "inception_4c/3x3"
  bottom: "inception_4c/5x5"
  bottom: "inception_4c/pool_proj"
  top: "inception_4c/output"
}
layer {
  name: "inception_4d/1x1"
  type: "Convolution"
  bottom: "inception_4c/output"
  top: "inception_4d/1x1"
  param {
    lr_mult: 1
    decay_mult: 1
  }
  param {
    lr_mult: 2
    decay_mult: 0
  }
  convolution_param {
    num_output: 112
    kernel_size: 1
    weight_filler {
      type: "xavier"
      std: 0.03
    }
    bias_filler {
      type: "constant"
      value: 0.2
    }
  }
}
layer {
  name: "inception_4d/relu_1x1"
  type: "ReLU"
  bottom: "inception_4d/1x1"
  top: "inception_4d/1x1"
}
layer {
  name: "inception_4d/3x3_reduce"
  type: "Convolution"
  bottom: "inception_4c/output"
  top: "inception_4d/3x3_reduce"
  param {
    lr_mult: 1
    decay_mult: 1
  }
  param {
    lr_mult: 2
    decay_mult: 0
  }
  convolution_param {
    num_output: 144
    kernel_size: 1
    weight_filler {
      type: "xavier"
      std: 0.09
    }
    bias_filler {
      type: "constant"
      value: 0.2
    }
  }
}
layer {
  name: "inception_4d/relu_3x3_reduce"
  type: "ReLU"
  bottom: "inception_4d/3x3_reduce"
  top: "inception_4d/3x3_reduce"
}
layer {
  name: "inception_4d/3x3"
  type: "Convolution"
  bottom: "inception_4d/3x3_reduce"
  top: "inception_4d/3x3"
  param {
    lr_mult: 1
    decay_mult: 1
  }
  param {
    lr_mult: 2
    decay_mult: 0
  }
  convolution_param {
    num_output: 288
    pad: 1
    kernel_size: 3
    weight_filler {
      type: "xavier"
      std: 0.03
    }
    bias_filler {
      type: "constant"
      value: 0.2
    }
  }
}
layer {
  name: "inception_4d/relu_3x3"
  type: "ReLU"
  bottom: "inception_4d/3x3"
  top: "inception_4d/3x3"
}
layer {
  name: "inception_4d/5x5_reduce"
  type: "Convolution"
  bottom: "inception_4c/output"
  top: "inception_4d/5x5_reduce"
  param {
    lr_mult: 1
    decay_mult: 1
  }
  param {
    lr_mult: 2
    decay_mult: 0
  }
  convolution_param {
    num_output: 32
    kernel_size: 1
    weight_filler {
      type: "xavier"
      std: 0.2
    }
    bias_filler {
      type: "constant"
      value: 0.2
    }
  }
}
layer {
  name: "inception_4d/relu_5x5_reduce"
  type: "ReLU"
  bottom: "inception_4d/5x5_reduce"
  top: "inception_4d/5x5_reduce"
}
layer {
  name: "inception_4d/5x5"
  type: "Convolution"
  bottom: "inception_4d/5x5_reduce"
  top: "inception_4d/5x5"
  param {
    lr_mult: 1
    decay_mult: 1
  }
  param {
    lr_mult: 2
    decay_mult: 0
  }
  convolution_param {
    num_output: 64
    pad: 2
    kernel_size: 5
    weight_filler {
      type: "xavier"
      std: 0.03
    }
    bias_filler {
      type: "constant"
      value: 0.2
    }
  }
}
layer {
  name: "inception_4d/relu_5x5"
  type: "ReLU"
  bottom: "inception_4d/5x5"
  top: "inception_4d/5x5"
}
layer {
  name: "inception_4d/pool"
  type: "Pooling"
  bottom: "inception_4c/output"
  top: "inception_4d/pool"
  pooling_param {
    pool: MAX
    kernel_size: 3
    stride: 1
    pad: 1
  }
}
layer {
  name: "inception_4d/pool_proj"
  type: "Convolution"
  bottom: "inception_4d/pool"
  top: "inception_4d/pool_proj"
  param {
    lr_mult: 1
    decay_mult: 1
  }
  param {
    lr_mult: 2
    decay_mult: 0
  }
  convolution_param {
    num_output: 64
    kernel_size: 1
    weight_filler {
      type: "xavier"
      std: 0.1
    }
    bias_filler {
      type: "constant"
      value: 0.2
    }
  }
}
layer {
  name: "inception_4d/relu_pool_proj"
  type: "ReLU"
  bottom: "inception_4d/pool_proj"
  top: "inception_4d/pool_proj"
}
layer {
  name: "inception_4d/output"
  type: "Concat"
  bottom: "inception_4d/1x1"
  bottom: "inception_4d/3x3"
  bottom: "inception_4d/5x5"
  bottom: "inception_4d/pool_proj"
  top: "inception_4d/output"
}
layer {
  name: "loss2/ave_pool"
  type: "Pooling"
  bottom: "inception_4d/output"
  top: "loss2/ave_pool"
  pooling_param {
    pool: AVE
    kernel_size: 5
    stride: 3
  }
}
layer {
  name: "loss2/conv"
  type: "Convolution"
  bottom: "loss2/ave_pool"
  top: "loss2/conv"
  param {
    lr_mult: 1
    decay_mult: 1
  }
  param {
    lr_mult: 2
    decay_mult: 0
  }
  convolution_param {
    num_output: 128
    kernel_size: 1
    weight_filler {
      type: "xavier"
      std: 0.08
    }
    bias_filler {
      type: "constant"
      value: 0.2
    }
  }
}
layer {
  name: "loss2/relu_conv"
  type: "ReLU"
  bottom: "loss2/conv"
  top: "loss2/conv"
}
layer {
  name: "loss2/fc"
  type: "InnerProduct"
  bottom: "loss2/conv"
  top: "loss2/fc"
  param {
    lr_mult: 1
    decay_mult: 1
  }
  param {
    lr_mult: 2
    decay_mult: 0
  }
  inner_product_param {
    num_output: 1024
    weight_filler {
      type: "xavier"
      std: 0.02
    }
    bias_filler {
      type: "constant"
      value: 0.2
    }
  }
}
layer {
  name: "loss2/relu_fc"
  type: "ReLU"
  bottom: "loss2/fc"
  top: "loss2/fc"
}
layer {
  name: "loss2/drop_fc"
  type: "Dropout"
  bottom: "loss2/fc"
  top: "loss2/fc"
  dropout_param {
    dropout_ratio: 0.7
  }
}
layer {
  name: "loss2/classifier_plantvillage"
  type: "InnerProduct"
  bottom: "loss2/fc"
  top: "loss2/classifier_plantvillage"
  param {
    lr_mult: 1
    decay_mult: 1
  }
  param {
    lr_mult: 2
    decay_mult: 0
  }
  inner_product_param {
    num_output: 38
    weight_filler {
      type: "xavier"
      std: 0.0009765625
    }
    bias_filler {
      type: "constant"
      value: 0
    }
  }
}
layer {
  name: "inception_4e/1x1"
  type: "Convolution"
  bottom: "inception_4d/output"
  top: "inception_4e/1x1"
  param {
    lr_mult: 1
    decay_mult: 1
  }
  param {
    lr_mult: 2
    decay_mult: 0
  }
  convolution_param {
    num_output: 256
    kernel_size: 1
    weight_filler {
      type: "xavier"
      std: 0.03
    }
    bias_filler {
      type: "constant"
      value: 0.2
    }
  }
}
layer {
  name: "inception_4e/relu_1x1"
  type: "ReLU"
  bottom: "inception_4e/1x1"
  top: "inception_4e/1x1"
}
layer {
  name: "inception_4e/3x3_reduce"
  type: "Convolution"
  bottom: "inception_4d/output"
  top: "inception_4e/3x3_reduce"
  param {
    lr_mult: 1
    decay_mult: 1
  }
  param {
    lr_mult: 2
    decay_mult: 0
  }
  convolution_param {
    num_output: 160
    kernel_size: 1
    weight_filler {
      type: "xavier"
      std: 0.09
    }
    bias_filler {
      type: "constant"
      value: 0.2
    }
  }
}
layer {
  name: "inception_4e/relu_3x3_reduce"
  type: "ReLU"
  bottom: "inception_4e/3x3_reduce"
  top: "inception_4e/3x3_reduce"
}
layer {
  name: "inception_4e/3x3"
  type: "Convolution"
  bottom: "inception_4e/3x3_reduce"
  top: "inception_4e/3x3"
  param {
    lr_mult: 1
    decay_mult: 1
  }
  param {
    lr_mult: 2
    decay_mult: 0
  }
  convolution_param {
    num_output: 320
    pad: 1
    kernel_size: 3
    weight_filler {
      type: "xavier"
      std: 0.03
    }
    bias_filler {
      type: "constant"
      value: 0.2
    }
  }
}
layer {
  name: "inception_4e/relu_3x3"
  type: "ReLU"
  bottom: "inception_4e/3x3"
  top: "inception_4e/3x3"
}
layer {
  name: "inception_4e/5x5_reduce"
  type: "Convolution"
  bottom: "inception_4d/output"
  top: "inception_4e/5x5_reduce"
  param {
    lr_mult: 1
    decay_mult: 1
  }
  param {
    lr_mult: 2
    decay_mult: 0
  }
  convolution_param {
    num_output: 32
    kernel_size: 1
    weight_filler {
      type: "xavier"
      std: 0.2
    }
    bias_filler {
      type: "constant"
      value: 0.2
    }
  }
}
layer {
  name: "inception_4e/relu_5x5_reduce"
  type: "ReLU"
  bottom: "inception_4e/5x5_reduce"
  top: "inception_4e/5x5_reduce"
}
layer {
  name: "inception_4e/5x5"
  type: "Convolution"
  bottom: "inception_4e/5x5_reduce"
  top: "inception_4e/
I0403 21:52:17.045418 24534 layer_factory.hpp:77] Creating layer data
I0403 21:52:17.046020 24534 net.cpp:91] Creating Layer data
I0403 21:52:17.046053 24534 net.cpp:399] data -> data
I0403 21:52:17.046105 24534 net.cpp:399] data -> label
I0403 21:52:17.046142 24534 data_transformer.cpp:25] Loading mean file from: /home/mohanty/data/final_dataset/lmdb/segmented-80-20/mean.binaryproto
I0403 21:52:17.047281 24537 db_lmdb.cpp:38] Opened lmdb /home/mohanty/data/final_dataset/lmdb/segmented-80-20/test_db
I0403 21:52:17.058905 24534 data_layer.cpp:41] output data size: 24,3,224,224
I0403 21:52:17.086047 24534 net.cpp:141] Setting up data
I0403 21:52:17.086130 24534 net.cpp:148] Top shape: 24 3 224 224 (3612672)
I0403 21:52:17.086154 24534 net.cpp:148] Top shape: 24 (24)
I0403 21:52:17.086170 24534 net.cpp:156] Memory required for data: 14450784
I0403 21:52:17.086202 24534 layer_factory.hpp:77] Creating layer label_data_1_split
I0403 21:52:17.086232 24534 net.cpp:91] Creating Layer label_data_1_split
I0403 21:52:17.086252 24534 net.cpp:425] label_data_1_split <- label
I0403 21:52:17.086287 24534 net.cpp:399] label_data_1_split -> label_data_1_split_0
I0403 21:52:17.086315 24534 net.cpp:399] label_data_1_split -> label_data_1_split_1
I0403 21:52:17.086338 24534 net.cpp:399] label_data_1_split -> label_data_1_split_2
I0403 21:52:17.086360 24534 net.cpp:399] label_data_1_split -> label_data_1_split_3
I0403 21:52:17.086381 24534 net.cpp:399] label_data_1_split -> label_data_1_split_4
I0403 21:52:17.086402 24534 net.cpp:399] label_data_1_split -> label_data_1_split_5
I0403 21:52:17.086422 24534 net.cpp:399] label_data_1_split -> label_data_1_split_6
I0403 21:52:17.086443 24534 net.cpp:399] label_data_1_split -> label_data_1_split_7
I0403 21:52:17.086464 24534 net.cpp:399] label_data_1_split -> label_data_1_split_8
I0403 21:52:17.086484 24534 net.cpp:399] label_data_1_split -> label_data_1_split_9
I0403 21:52:17.086603 24534 net.cpp:141] Setting up label_data_1_split
I0403 21:52:17.086627 24534 net.cpp:148] Top shape: 24 (24)
I0403 21:52:17.086645 24534 net.cpp:148] Top shape: 24 (24)
I0403 21:52:17.086661 24534 net.cpp:148] Top shape: 24 (24)
I0403 21:52:17.086678 24534 net.cpp:148] Top shape: 24 (24)
I0403 21:52:17.086694 24534 net.cpp:148] Top shape: 24 (24)
I0403 21:52:17.086710 24534 net.cpp:148] Top shape: 24 (24)
I0403 21:52:17.086727 24534 net.cpp:148] Top shape: 24 (24)
I0403 21:52:17.086743 24534 net.cpp:148] Top shape: 24 (24)
I0403 21:52:17.086760 24534 net.cpp:148] Top shape: 24 (24)
I0403 21:52:17.086776 24534 net.cpp:148] Top shape: 24 (24)
I0403 21:52:17.086823 24534 net.cpp:156] Memory required for data: 14451744
I0403 21:52:17.086840 24534 layer_factory.hpp:77] Creating layer conv1/7x7_s2
I0403 21:52:17.086881 24534 net.cpp:91] Creating Layer conv1/7x7_s2
I0403 21:52:17.086901 24534 net.cpp:425] conv1/7x7_s2 <- data
I0403 21:52:17.086921 24534 net.cpp:399] conv1/7x7_s2 -> conv1/7x7_s2
I0403 21:52:17.226598 24534 net.cpp:141] Setting up conv1/7x7_s2
I0403 21:52:17.226678 24534 net.cpp:148] Top shape: 24 64 112 112 (19267584)
I0403 21:52:17.226696 24534 net.cpp:156] Memory required for data: 91522080
I0403 21:52:17.226727 24534 layer_factory.hpp:77] Creating layer conv1/relu_7x7
I0403 21:52:17.226755 24534 net.cpp:91] Creating Layer conv1/relu_7x7
I0403 21:52:17.226775 24534 net.cpp:425] conv1/relu_7x7 <- conv1/7x7_s2
I0403 21:52:17.226797 24534 net.cpp:386] conv1/relu_7x7 -> conv1/7x7_s2 (in-place)
I0403 21:52:17.227066 24534 net.cpp:141] Setting up conv1/relu_7x7
I0403 21:52:17.227092 24534 net.cpp:148] Top shape: 24 64 112 112 (19267584)
I0403 21:52:17.227108 24534 net.cpp:156] Memory required for data: 168592416
I0403 21:52:17.227123 24534 layer_factory.hpp:77] Creating layer pool1/3x3_s2
I0403 21:52:17.227149 24534 net.cpp:91] Creating Layer pool1/3x3_s2
I0403 21:52:17.227166 24534 net.cpp:425] pool1/3x3_s2 <- conv1/7x7_s2
I0403 21:52:17.227188 24534 net.cpp:399] pool1/3x3_s2 -> pool1/3x3_s2
I0403 21:52:17.227272 24534 net.cpp:141] Setting up pool1/3x3_s2
I0403 21:52:17.227296 24534 net.cpp:148] Top shape: 24 64 56 56 (4816896)
I0403 21:52:17.227311 24534 net.cpp:156] Memory required for data: 187860000
I0403 21:52:17.227327 24534 layer_factory.hpp:77] Creating layer pool1/norm1
I0403 21:52:17.227354 24534 net.cpp:91] Creating Layer pool1/norm1
I0403 21:52:17.227372 24534 net.cpp:425] pool1/norm1 <- pool1/3x3_s2
I0403 21:52:17.227393 24534 net.cpp:399] pool1/norm1 -> pool1/norm1
I0403 21:52:17.227684 24534 net.cpp:141] Setting up pool1/norm1
I0403 21:52:17.227712 24534 net.cpp:148] Top shape: 24 64 56 56 (4816896)
I0403 21:52:17.227727 24534 net.cpp:156] Memory required for data: 207127584
I0403 21:52:17.227743 24534 layer_factory.hpp:77] Creating layer conv2/3x3_reduce
I0403 21:52:17.227771 24534 net.cpp:91] Creating Layer conv2/3x3_reduce
I0403 21:52:17.227787 24534 net.cpp:425] conv2/3x3_reduce <- pool1/norm1
I0403 21:52:17.227809 24534 net.cpp:399] conv2/3x3_reduce -> conv2/3x3_reduce
I0403 21:52:17.229183 24534 net.cpp:141] Setting up conv2/3x3_reduce
I0403 21:52:17.229220 24534 net.cpp:148] Top shape: 24 64 56 56 (4816896)
I0403 21:52:17.229238 24534 net.cpp:156] Memory required for data: 226395168
I0403 21:52:17.229259 24534 layer_factory.hpp:77] Creating layer conv2/relu_3x3_reduce
I0403 21:52:17.229279 24534 net.cpp:91] Creating Layer conv2/relu_3x3_reduce
I0403 21:52:17.229296 24534 net.cpp:425] conv2/relu_3x3_reduce <- conv2/3x3_reduce
I0403 21:52:17.229315 24534 net.cpp:386] conv2/relu_3x3_reduce -> conv2/3x3_reduce (in-place)
I0403 21:52:17.229573 24534 net.cpp:141] Setting up conv2/relu_3x3_reduce
I0403 21:52:17.229600 24534 net.cpp:148] Top shape: 24 64 56 56 (4816896)
I0403 21:52:17.229617 24534 net.cpp:156] Memory required for data: 245662752
I0403 21:52:17.229634 24534 layer_factory.hpp:77] Creating layer conv2/3x3
I0403 21:52:17.229657 24534 net.cpp:91] Creating Layer conv2/3x3
I0403 21:52:17.229674 24534 net.cpp:425] conv2/3x3 <- conv2/3x3_reduce
I0403 21:52:17.229693 24534 net.cpp:399] conv2/3x3 -> conv2/3x3
I0403 21:52:17.231923 24534 net.cpp:141] Setting up conv2/3x3
I0403 21:52:17.231956 24534 net.cpp:148] Top shape: 24 192 56 56 (14450688)
I0403 21:52:17.231973 24534 net.cpp:156] Memory required for data: 303465504
I0403 21:52:17.231994 24534 layer_factory.hpp:77] Creating layer conv2/relu_3x3
I0403 21:52:17.232014 24534 net.cpp:91] Creating Layer conv2/relu_3x3
I0403 21:52:17.232031 24534 net.cpp:425] conv2/relu_3x3 <- conv2/3x3
I0403 21:52:17.232049 24534 net.cpp:386] conv2/relu_3x3 -> conv2/3x3 (in-place)
I0403 21:52:17.232228 24534 net.cpp:141] Setting up conv2/relu_3x3
I0403 21:52:17.232252 24534 net.cpp:148] Top shape: 24 192 56 56 (14450688)
I0403 21:52:17.232300 24534 net.cpp:156] Memory required for data: 361268256
I0403 21:52:17.232317 24534 layer_factory.hpp:77] Creating layer conv2/norm2
I0403 21:52:17.232338 24534 net.cpp:91] Creating Layer conv2/norm2
I0403 21:52:17.232357 24534 net.cpp:425] conv2/norm2 <- conv2/3x3
I0403 21:52:17.232374 24534 net.cpp:399] conv2/norm2 -> conv2/norm2
I0403 21:52:17.232666 24534 net.cpp:141] Setting up conv2/norm2
I0403 21:52:17.232692 24534 net.cpp:148] Top shape: 24 192 56 56 (14450688)
I0403 21:52:17.232707 24534 net.cpp:156] Memory required for data: 419071008
I0403 21:52:17.232723 24534 layer_factory.hpp:77] Creating layer pool2/3x3_s2
I0403 21:52:17.232743 24534 net.cpp:91] Creating Layer pool2/3x3_s2
I0403 21:52:17.232761 24534 net.cpp:425] pool2/3x3_s2 <- conv2/norm2
I0403 21:52:17.232780 24534 net.cpp:399] pool2/3x3_s2 -> pool2/3x3_s2
I0403 21:52:17.232833 24534 net.cpp:141] Setting up pool2/3x3_s2
I0403 21:52:17.232857 24534 net.cpp:148] Top shape: 24 192 28 28 (3612672)
I0403 21:52:17.232872 24534 net.cpp:156] Memory required for data: 433521696
I0403 21:52:17.232887 24534 layer_factory.hpp:77] Creating layer pool2/3x3_s2_pool2/3x3_s2_0_split
I0403 21:52:17.232906 24534 net.cpp:91] Creating Layer pool2/3x3_s2_pool2/3x3_s2_0_split
I0403 21:52:17.232923 24534 net.cpp:425] pool2/3x3_s2_pool2/3x3_s2_0_split <- pool2/3x3_s2
I0403 21:52:17.232941 24534 net.cpp:399] pool2/3x3_s2_pool2/3x3_s2_0_split -> pool2/3x3_s2_pool2/3x3_s2_0_split_0
I0403 21:52:17.232962 24534 net.cpp:399] pool2/3x3_s2_pool2/3x3_s2_0_split -> pool2/3x3_s2_pool2/3x3_s2_0_split_1
I0403 21:52:17.232982 24534 net.cpp:399] pool2/3x3_s2_pool2/3x3_s2_0_split -> pool2/3x3_s2_pool2/3x3_s2_0_split_2
I0403 21:52:17.233003 24534 net.cpp:399] pool2/3x3_s2_pool2/3x3_s2_0_split -> pool2/3x3_s2_pool2/3x3_s2_0_split_3
I0403 21:52:17.233074 24534 net.cpp:141] Setting up pool2/3x3_s2_pool2/3x3_s2_0_split
I0403 21:52:17.233100 24534 net.cpp:148] Top shape: 24 192 28 28 (3612672)
I0403 21:52:17.233117 24534 net.cpp:148] Top shape: 24 192 28 28 (3612672)
I0403 21:52:17.233134 24534 net.cpp:148] Top shape: 24 192 28 28 (3612672)
I0403 21:52:17.233150 24534 net.cpp:148] Top shape: 24 192 28 28 (3612672)
I0403 21:52:17.233163 24534 net.cpp:156] Memory required for data: 491324448
I0403 21:52:17.233178 24534 layer_factory.hpp:77] Creating layer inception_3a/1x1
I0403 21:52:17.233206 24534 net.cpp:91] Creating Layer inception_3a/1x1
I0403 21:52:17.233224 24534 net.cpp:425] inception_3a/1x1 <- pool2/3x3_s2_pool2/3x3_s2_0_split_0
I0403 21:52:17.233245 24534 net.cpp:399] inception_3a/1x1 -> inception_3a/1x1
I0403 21:52:17.234771 24534 net.cpp:141] Setting up inception_3a/1x1
I0403 21:52:17.234800 24534 net.cpp:148] Top shape: 24 64 28 28 (1204224)
I0403 21:52:17.234817 24534 net.cpp:156] Memory required for data: 496141344
I0403 21:52:17.234838 24534 layer_factory.hpp:77] Creating layer inception_3a/relu_1x1
I0403 21:52:17.234858 24534 net.cpp:91] Creating Layer inception_3a/relu_1x1
I0403 21:52:17.234876 24534 net.cpp:425] inception_3a/relu_1x1 <- inception_3a/1x1
I0403 21:52:17.234894 24534 net.cpp:386] inception_3a/relu_1x1 -> inception_3a/1x1 (in-place)
I0403 21:52:17.235064 24534 net.cpp:141] Setting up inception_3a/relu_1x1
I0403 21:52:17.235090 24534 net.cpp:148] Top shape: 24 64 28 28 (1204224)
I0403 21:52:17.235105 24534 net.cpp:156] Memory required for data: 500958240
I0403 21:52:17.235121 24534 layer_factory.hpp:77] Creating layer inception_3a/3x3_reduce
I0403 21:52:17.235143 24534 net.cpp:91] Creating Layer inception_3a/3x3_reduce
I0403 21:52:17.235162 24534 net.cpp:425] inception_3a/3x3_reduce <- pool2/3x3_s2_pool2/3x3_s2_0_split_1
I0403 21:52:17.235184 24534 net.cpp:399] inception_3a/3x3_reduce -> inception_3a/3x3_reduce
I0403 21:52:17.236841 24534 net.cpp:141] Setting up inception_3a/3x3_reduce
I0403 21:52:17.236872 24534 net.cpp:148] Top shape: 24 96 28 28 (1806336)
I0403 21:52:17.236889 24534 net.cpp:156] Memory required for data: 508183584
I0403 21:52:17.236912 24534 layer_factory.hpp:77] Creating layer inception_3a/relu_3x3_reduce
I0403 21:52:17.236946 24534 net.cpp:91] Creating Layer inception_3a/relu_3x3_reduce
I0403 21:52:17.236965 24534 net.cpp:425] inception_3a/relu_3x3_reduce <- inception_3a/3x3_reduce
I0403 21:52:17.236986 24534 net.cpp:386] inception_3a/relu_3x3_reduce -> inception_3a/3x3_reduce (in-place)
I0403 21:52:17.237161 24534 net.cpp:141] Setting up inception_3a/relu_3x3_reduce
I0403 21:52:17.237186 24534 net.cpp:148] Top shape: 24 96 28 28 (1806336)
I0403 21:52:17.237207 24534 net.cpp:156] Memory required for data: 515408928
I0403 21:52:17.237224 24534 layer_factory.hpp:77] Creating layer inception_3a/3x3
I0403 21:52:17.237251 24534 net.cpp:91] Creating Layer inception_3a/3x3
I0403 21:52:17.237269 24534 net.cpp:425] inception_3a/3x3 <- inception_3a/3x3_reduce
I0403 21:52:17.237292 24534 net.cpp:399] inception_3a/3x3 -> inception_3a/3x3
I0403 21:52:17.238881 24534 net.cpp:141] Setting up inception_3a/3x3
I0403 21:52:17.238911 24534 net.cpp:148] Top shape: 24 128 28 28 (2408448)
I0403 21:52:17.238930 24534 net.cpp:156] Memory required for data: 525042720
I0403 21:52:17.238950 24534 layer_factory.hpp:77] Creating layer inception_3a/relu_3x3
I0403 21:52:17.238967 24534 net.cpp:91] Creating Layer inception_3a/relu_3x3
I0403 21:52:17.238984 24534 net.cpp:425] inception_3a/relu_3x3 <- inception_3a/3x3
I0403 21:52:17.239004 24534 net.cpp:386] inception_3a/relu_3x3 -> inception_3a/3x3 (in-place)
I0403 21:52:17.239269 24534 net.cpp:141] Setting up inception_3a/relu_3x3
I0403 21:52:17.239298 24534 net.cpp:148] Top shape: 24 128 28 28 (2408448)
I0403 21:52:17.239315 24534 net.cpp:156] Memory required for data: 534676512
I0403 21:52:17.239331 24534 layer_factory.hpp:77] Creating layer inception_3a/5x5_reduce
I0403 21:52:17.239352 24534 net.cpp:91] Creating Layer inception_3a/5x5_reduce
I0403 21:52:17.239370 24534 net.cpp:425] inception_3a/5x5_reduce <- pool2/3x3_s2_pool2/3x3_s2_0_split_2
I0403 21:52:17.239389 24534 net.cpp:399] inception_3a/5x5_reduce -> inception_3a/5x5_reduce
I0403 21:52:17.240313 24534 net.cpp:141] Setting up inception_3a/5x5_reduce
I0403 21:52:17.240340 24534 net.cpp:148] Top shape: 24 16 28 28 (301056)
I0403 21:52:17.240356 24534 net.cpp:156] Memory required for data: 535880736
I0403 21:52:17.240375 24534 layer_factory.hpp:77] Creating layer inception_3a/relu_5x5_reduce
I0403 21:52:17.240392 24534 net.cpp:91] Creating Layer inception_3a/relu_5x5_reduce
I0403 21:52:17.240408 24534 net.cpp:425] inception_3a/relu_5x5_reduce <- inception_3a/5x5_reduce
I0403 21:52:17.240430 24534 net.cpp:386] inception_3a/relu_5x5_reduce -> inception_3a/5x5_reduce (in-place)
I0403 21:52:17.240715 24534 net.cpp:141] Setting up inception_3a/relu_5x5_reduce
I0403 21:52:17.240741 24534 net.cpp:148] Top shape: 24 16 28 28 (301056)
I0403 21:52:17.240756 24534 net.cpp:156] Memory required for data: 537084960
I0403 21:52:17.240770 24534 layer_factory.hpp:77] Creating layer inception_3a/5x5
I0403 21:52:17.240797 24534 net.cpp:91] Creating Layer inception_3a/5x5
I0403 21:52:17.240814 24534 net.cpp:425] inception_3a/5x5 <- inception_3a/5x5_reduce
I0403 21:52:17.240835 24534 net.cpp:399] inception_3a/5x5 -> inception_3a/5x5
I0403 21:52:17.241811 24534 net.cpp:141] Setting up inception_3a/5x5
I0403 21:52:17.241842 24534 net.cpp:148] Top shape: 24 32 28 28 (602112)
I0403 21:52:17.241858 24534 net.cpp:156] Memory required for data: 539493408
I0403 21:52:17.241878 24534 layer_factory.hpp:77] Creating layer inception_3a/relu_5x5
I0403 21:52:17.241904 24534 net.cpp:91] Creating Layer inception_3a/relu_5x5
I0403 21:52:17.241925 24534 net.cpp:425] inception_3a/relu_5x5 <- inception_3a/5x5
I0403 21:52:17.241945 24534 net.cpp:386] inception_3a/relu_5x5 -> inception_3a/5x5 (in-place)
I0403 21:52:17.242115 24534 net.cpp:141] Setting up inception_3a/relu_5x5
I0403 21:52:17.242139 24534 net.cpp:148] Top shape: 24 32 28 28 (602112)
I0403 21:52:17.242154 24534 net.cpp:156] Memory required for data: 541901856
I0403 21:52:17.242171 24534 layer_factory.hpp:77] Creating layer inception_3a/pool
I0403 21:52:17.242189 24534 net.cpp:91] Creating Layer inception_3a/pool
I0403 21:52:17.242233 24534 net.cpp:425] inception_3a/pool <- pool2/3x3_s2_pool2/3x3_s2_0_split_3
I0403 21:52:17.242255 24534 net.cpp:399] inception_3a/pool -> inception_3a/pool
I0403 21:52:17.242313 24534 net.cpp:141] Setting up inception_3a/pool
I0403 21:52:17.242336 24534 net.cpp:148] Top shape: 24 192 28 28 (3612672)
I0403 21:52:17.242352 24534 net.cpp:156] Memory required for data: 556352544
I0403 21:52:17.242367 24534 layer_factory.hpp:77] Creating layer inception_3a/pool_proj
I0403 21:52:17.242393 24534 net.cpp:91] Creating Layer inception_3a/pool_proj
I0403 21:52:17.242411 24534 net.cpp:425] inception_3a/pool_proj <- inception_3a/pool
I0403 21:52:17.242429 24534 net.cpp:399] inception_3a/pool_proj -> inception_3a/pool_proj
I0403 21:52:17.243362 24534 net.cpp:141] Setting up inception_3a/pool_proj
I0403 21:52:17.243391 24534 net.cpp:148] Top shape: 24 32 28 28 (602112)
I0403 21:52:17.243407 24534 net.cpp:156] Memory required for data: 558760992
I0403 21:52:17.243430 24534 layer_factory.hpp:77] Creating layer inception_3a/relu_pool_proj
I0403 21:52:17.243450 24534 net.cpp:91] Creating Layer inception_3a/relu_pool_proj
I0403 21:52:17.243476 24534 net.cpp:425] inception_3a/relu_pool_proj <- inception_3a/pool_proj
I0403 21:52:17.243496 24534 net.cpp:386] inception_3a/relu_pool_proj -> inception_3a/pool_proj (in-place)
I0403 21:52:17.243762 24534 net.cpp:141] Setting up inception_3a/relu_pool_proj
I0403 21:52:17.243794 24534 net.cpp:148] Top shape: 24 32 28 28 (602112)
I0403 21:52:17.243811 24534 net.cpp:156] Memory required for data: 561169440
I0403 21:52:17.243827 24534 layer_factory.hpp:77] Creating layer inception_3a/output
I0403 21:52:17.243845 24534 net.cpp:91] Creating Layer inception_3a/output
I0403 21:52:17.243861 24534 net.cpp:425] inception_3a/output <- inception_3a/1x1
I0403 21:52:17.243878 24534 net.cpp:425] inception_3a/output <- inception_3a/3x3
I0403 21:52:17.243894 24534 net.cpp:425] inception_3a/output <- inception_3a/5x5
I0403 21:52:17.243911 24534 net.cpp:425] inception_3a/output <- inception_3a/pool_proj
I0403 21:52:17.243934 24534 net.cpp:399] inception_3a/output -> inception_3a/output
I0403 21:52:17.243979 24534 net.cpp:141] Setting up inception_3a/output
I0403 21:52:17.244002 24534 net.cpp:148] Top shape: 24 256 28 28 (4816896)
I0403 21:52:17.244019 24534 net.cpp:156] Memory required for data: 580437024
I0403 21:52:17.244034 24534 layer_factory.hpp:77] Creating layer inception_3a/output_inception_3a/output_0_split
I0403 21:52:17.244055 24534 net.cpp:91] Creating Layer inception_3a/output_inception_3a/output_0_split
I0403 21:52:17.244071 24534 net.cpp:425] inception_3a/output_inception_3a/output_0_split <- inception_3a/output
I0403 21:52:17.244089 24534 net.cpp:399] inception_3a/output_inception_3a/output_0_split -> inception_3a/output_inception_3a/output_0_split_0
I0403 21:52:17.244109 24534 net.cpp:399] inception_3a/output_inception_3a/output_0_split -> inception_3a/output_inception_3a/output_0_split_1
I0403 21:52:17.244134 24534 net.cpp:399] inception_3a/output_inception_3a/output_0_split -> inception_3a/output_inception_3a/output_0_split_2
I0403 21:52:17.244156 24534 net.cpp:399] inception_3a/output_inception_3a/output_0_split -> inception_3a/output_inception_3a/output_0_split_3
I0403 21:52:17.244233 24534 net.cpp:141] Setting up inception_3a/output_inception_3a/output_0_split
I0403 21:52:17.244259 24534 net.cpp:148] Top shape: 24 256 28 28 (4816896)
I0403 21:52:17.244277 24534 net.cpp:148] Top shape: 24 256 28 28 (4816896)
I0403 21:52:17.244294 24534 net.cpp:148] Top shape: 24 256 28 28 (4816896)
I0403 21:52:17.244310 24534 net.cpp:148] Top shape: 24 256 28 28 (4816896)
I0403 21:52:17.244325 24534 net.cpp:156] Memory required for data: 657507360
I0403 21:52:17.244340 24534 layer_factory.hpp:77] Creating layer inception_3b/1x1
I0403 21:52:17.244364 24534 net.cpp:91] Creating Layer inception_3b/1x1
I0403 21:52:17.244382 24534 net.cpp:425] inception_3b/1x1 <- inception_3a/output_inception_3a/output_0_split_0
I0403 21:52:17.244401 24534 net.cpp:399] inception_3b/1x1 -> inception_3b/1x1
I0403 21:52:17.245507 24534 net.cpp:141] Setting up inception_3b/1x1
I0403 21:52:17.245548 24534 net.cpp:148] Top shape: 24 128 28 28 (2408448)
I0403 21:52:17.245568 24534 net.cpp:156] Memory required for data: 667141152
I0403 21:52:17.245586 24534 layer_factory.hpp:77] Creating layer inception_3b/relu_1x1
I0403 21:52:17.245605 24534 net.cpp:91] Creating Layer inception_3b/relu_1x1
I0403 21:52:17.245622 24534 net.cpp:425] inception_3b/relu_1x1 <- inception_3b/1x1
I0403 21:52:17.245640 24534 net.cpp:386] inception_3b/relu_1x1 -> inception_3b/1x1 (in-place)
I0403 21:52:17.245806 24534 net.cpp:141] Setting up inception_3b/relu_1x1
I0403 21:52:17.245834 24534 net.cpp:148] Top shape: 24 128 28 28 (2408448)
I0403 21:52:17.245851 24534 net.cpp:156] Memory required for data: 676774944
I0403 21:52:17.245867 24534 layer_factory.hpp:77] Creating layer inception_3b/3x3_reduce
I0403 21:52:17.245890 24534 net.cpp:91] Creating Layer inception_3b/3x3_reduce
I0403 21:52:17.245908 24534 net.cpp:425] inception_3b/3x3_reduce <- inception_3a/output_inception_3a/output_0_split_1
I0403 21:52:17.245929 24534 net.cpp:399] inception_3b/3x3_reduce -> inception_3b/3x3_reduce
I0403 21:52:17.247026 24534 net.cpp:141] Setting up inception_3b/3x3_reduce
I0403 21:52:17.247054 24534 net.cpp:148] Top shape: 24 128 28 28 (2408448)
I0403 21:52:17.247071 24534 net.cpp:156] Memory required for data: 686408736
I0403 21:52:17.247090 24534 layer_factory.hpp:77] Creating layer inception_3b/relu_3x3_reduce
I0403 21:52:17.247113 24534 net.cpp:91] Creating Layer inception_3b/relu_3x3_reduce
I0403 21:52:17.247130 24534 net.cpp:425] inception_3b/relu_3x3_reduce <- inception_3b/3x3_reduce
I0403 21:52:17.247148 24534 net.cpp:386] inception_3b/relu_3x3_reduce -> inception_3b/3x3_reduce (in-place)
I0403 21:52:17.247324 24534 net.cpp:141] Setting up inception_3b/relu_3x3_reduce
I0403 21:52:17.247350 24534 net.cpp:148] Top shape: 24 128 28 28 (2408448)
I0403 21:52:17.247365 24534 net.cpp:156] Memory required for data: 696042528
I0403 21:52:17.247381 24534 layer_factory.hpp:77] Creating layer inception_3b/3x3
I0403 21:52:17.247406 24534 net.cpp:91] Creating Layer inception_3b/3x3
I0403 21:52:17.247423 24534 net.cpp:425] inception_3b/3x3 <- inception_3b/3x3_reduce
I0403 21:52:17.247445 24534 net.cpp:399] inception_3b/3x3 -> inception_3b/3x3
I0403 21:52:17.250365 24534 net.cpp:141] Setting up inception_3b/3x3
I0403 21:52:17.250398 24534 net.cpp:148] Top shape: 24 192 28 28 (3612672)
I0403 21:52:17.250417 24534 net.cpp:156] Memory required for data: 710493216
I0403 21:52:17.250437 24534 layer_factory.hpp:77] Creating layer inception_3b/relu_3x3
I0403 21:52:17.250454 24534 net.cpp:91] Creating Layer inception_3b/relu_3x3
I0403 21:52:17.250471 24534 net.cpp:425] inception_3b/relu_3x3 <- inception_3b/3x3
I0403 21:52:17.250493 24534 net.cpp:386] inception_3b/relu_3x3 -> inception_3b/3x3 (in-place)
I0403 21:52:17.250772 24534 net.cpp:141] Setting up inception_3b/relu_3x3
I0403 21:52:17.250802 24534 net.cpp:148] Top shape: 24 192 28 28 (3612672)
I0403 21:52:17.250819 24534 net.cpp:156] Memory required for data: 724943904
I0403 21:52:17.250835 24534 layer_factory.hpp:77] Creating layer inception_3b/5x5_reduce
I0403 21:52:17.250859 24534 net.cpp:91] Creating Layer inception_3b/5x5_reduce
I0403 21:52:17.250879 24534 net.cpp:425] inception_3b/5x5_reduce <- inception_3a/output_inception_3a/output_0_split_2
I0403 21:52:17.250900 24534 net.cpp:399] inception_3b/5x5_reduce -> inception_3b/5x5_reduce
I0403 21:52:17.251898 24534 net.cpp:141] Setting up inception_3b/5x5_reduce
I0403 21:52:17.251930 24534 net.cpp:148] Top shape: 24 32 28 28 (602112)
I0403 21:52:17.251948 24534 net.cpp:156] Memory required for data: 727352352
I0403 21:52:17.251968 24534 layer_factory.hpp:77] Creating layer inception_3b/relu_5x5_reduce
I0403 21:52:17.251987 24534 net.cpp:91] Creating Layer inception_3b/relu_5x5_reduce
I0403 21:52:17.252003 24534 net.cpp:425] inception_3b/relu_5x5_reduce <- inception_3b/5x5_reduce
I0403 21:52:17.252024 24534 net.cpp:386] inception_3b/relu_5x5_reduce -> inception_3b/5x5_reduce (in-place)
I0403 21:52:17.252220 24534 net.cpp:141] Setting up inception_3b/relu_5x5_reduce
I0403 21:52:17.252249 24534 net.cpp:148] Top shape: 24 32 28 28 (602112)
I0403 21:52:17.252264 24534 net.cpp:156] Memory required for data: 729760800
I0403 21:52:17.252280 24534 layer_factory.hpp:77] Creating layer inception_3b/5x5
I0403 21:52:17.252305 24534 net.cpp:91] Creating Layer inception_3b/5x5
I0403 21:52:17.252322 24534 net.cpp:425] inception_3b/5x5 <- inception_3b/5x5_reduce
I0403 21:52:17.252346 24534 net.cpp:399] inception_3b/5x5 -> inception_3b/5x5
I0403 21:52:17.254324 24534 net.cpp:141] Setting up inception_3b/5x5
I0403 21:52:17.254354 24534 net.cpp:148] Top shape: 24 96 28 28 (1806336)
I0403 21:52:17.254372 24534 net.cpp:156] Memory required for data: 736986144
I0403 21:52:17.254392 24534 layer_factory.hpp:77] Creating layer inception_3b/relu_5x5
I0403 21:52:17.254413 24534 net.cpp:91] Creating Layer inception_3b/relu_5x5
I0403 21:52:17.254432 24534 net.cpp:425] inception_3b/relu_5x5 <- inception_3b/5x5
I0403 21:52:17.254451 24534 net.cpp:386] inception_3b/relu_5x5 -> inception_3b/5x5 (in-place)
I0403 21:52:17.254647 24534 net.cpp:141] Setting up inception_3b/relu_5x5
I0403 21:52:17.254673 24534 net.cpp:148] Top shape: 24 96 28 28 (1806336)
I0403 21:52:17.254689 24534 net.cpp:156] Memory required for data: 744211488
I0403 21:52:17.254705 24534 layer_factory.hpp:77] Creating layer inception_3b/pool
I0403 21:52:17.254724 24534 net.cpp:91] Creating Layer inception_3b/pool
I0403 21:52:17.254740 24534 net.cpp:425] inception_3b/pool <- inception_3a/output_inception_3a/output_0_split_3
I0403 21:52:17.254760 24534 net.cpp:399] inception_3b/pool -> inception_3b/pool
I0403 21:52:17.254817 24534 net.cpp:141] Setting up inception_3b/pool
I0403 21:52:17.254842 24534 net.cpp:148] Top shape: 24 256 28 28 (4816896)
I0403 21:52:17.254858 24534 net.cpp:156] Memory required for data: 763479072
I0403 21:52:17.254873 24534 layer_factory.hpp:77] Creating layer inception_3b/pool_proj
I0403 21:52:17.254899 24534 net.cpp:91] Creating Layer inception_3b/pool_proj
I0403 21:52:17.254916 24534 net.cpp:425] inception_3b/pool_proj <- inception_3b/pool
I0403 21:52:17.254936 24534 net.cpp:399] inception_3b/pool_proj -> inception_3b/pool_proj
I0403 21:52:17.255985 24534 net.cpp:141] Setting up inception_3b/pool_proj
I0403 21:52:17.256012 24534 net.cpp:148] Top shape: 24 64 28 28 (1204224)
I0403 21:52:17.256029 24534 net.cpp:156] Memory required for data: 768295968
I0403 21:52:17.256049 24534 layer_factory.hpp:77] Creating layer inception_3b/relu_pool_proj
I0403 21:52:17.256069 24534 net.cpp:91] Creating Layer inception_3b/relu_pool_proj
I0403 21:52:17.256088 24534 net.cpp:425] inception_3b/relu_pool_proj <- inception_3b/pool_proj
I0403 21:52:17.256106 24534 net.cpp:386] inception_3b/relu_pool_proj -> inception_3b/pool_proj (in-place)
I0403 21:52:17.256500 24534 net.cpp:141] Setting up inception_3b/relu_pool_proj
I0403 21:52:17.256527 24534 net.cpp:148] Top shape: 24 64 28 28 (1204224)
I0403 21:52:17.256543 24534 net.cpp:156] Memory required for data: 773112864
I0403 21:52:17.256561 24534 layer_factory.hpp:77] Creating layer inception_3b/output
I0403 21:52:17.256578 24534 net.cpp:91] Creating Layer inception_3b/output
I0403 21:52:17.256594 24534 net.cpp:425] inception_3b/output <- inception_3b/1x1
I0403 21:52:17.256611 24534 net.cpp:425] inception_3b/output <- inception_3b/3x3
I0403 21:52:17.256628 24534 net.cpp:425] inception_3b/output <- inception_3b/5x5
I0403 21:52:17.256645 24534 net.cpp:425] inception_3b/output <- inception_3b/pool_proj
I0403 21:52:17.256665 24534 net.cpp:399] inception_3b/output -> inception_3b/output
I0403 21:52:17.256711 24534 net.cpp:141] Setting up inception_3b/output
I0403 21:52:17.256736 24534 net.cpp:148] Top shape: 24 480 28 28 (9031680)
I0403 21:52:17.256753 24534 net.cpp:156] Memory required for data: 809239584
I0403 21:52:17.256768 24534 layer_factory.hpp:77] Creating layer pool3/3x3_s2
I0403 21:52:17.256788 24534 net.cpp:91] Creating Layer pool3/3x3_s2
I0403 21:52:17.256805 24534 net.cpp:425] pool3/3x3_s2 <- inception_3b/output
I0403 21:52:17.256842 24534 net.cpp:399] pool3/3x3_s2 -> pool3/3x3_s2
I0403 21:52:17.256903 24534 net.cpp:141] Setting up pool3/3x3_s2
I0403 21:52:17.256929 24534 net.cpp:148] Top shape: 24 480 14 14 (2257920)
I0403 21:52:17.256944 24534 net.cpp:156] Memory required for data: 818271264
I0403 21:52:17.256960 24534 layer_factory.hpp:77] Creating layer pool3/3x3_s2_pool3/3x3_s2_0_split
I0403 21:52:17.256980 24534 net.cpp:91] Creating Layer pool3/3x3_s2_pool3/3x3_s2_0_split
I0403 21:52:17.256996 24534 net.cpp:425] pool3/3x3_s2_pool3/3x3_s2_0_split <- pool3/3x3_s2
I0403 21:52:17.257014 24534 net.cpp:399] pool3/3x3_s2_pool3/3x3_s2_0_split -> pool3/3x3_s2_pool3/3x3_s2_0_split_0
I0403 21:52:17.257035 24534 net.cpp:399] pool3/3x3_s2_pool3/3x3_s2_0_split -> pool3/3x3_s2_pool3/3x3_s2_0_split_1
I0403 21:52:17.257055 24534 net.cpp:399] pool3/3x3_s2_pool3/3x3_s2_0_split -> pool3/3x3_s2_pool3/3x3_s2_0_split_2
I0403 21:52:17.257076 24534 net.cpp:399] pool3/3x3_s2_pool3/3x3_s2_0_split -> pool3/3x3_s2_pool3/3x3_s2_0_split_3
I0403 21:52:17.257156 24534 net.cpp:141] Setting up pool3/3x3_s2_pool3/3x3_s2_0_split
I0403 21:52:17.257179 24534 net.cpp:148] Top shape: 24 480 14 14 (2257920)
I0403 21:52:17.257200 24534 net.cpp:148] Top shape: 24 480 14 14 (2257920)
I0403 21:52:17.257218 24534 net.cpp:148] Top shape: 24 480 14 14 (2257920)
I0403 21:52:17.257235 24534 net.cpp:148] Top shape: 24 480 14 14 (2257920)
I0403 21:52:17.257249 24534 net.cpp:156] Memory required for data: 854397984
I0403 21:52:17.257266 24534 layer_factory.hpp:77] Creating layer inception_4a/1x1
I0403 21:52:17.257288 24534 net.cpp:91] Creating Layer inception_4a/1x1
I0403 21:52:17.257307 24534 net.cpp:425] inception_4a/1x1 <- pool3/3x3_s2_pool3/3x3_s2_0_split_0
I0403 21:52:17.257328 24534 net.cpp:399] inception_4a/1x1 -> inception_4a/1x1
I0403 21:52:17.258894 24534 net.cpp:141] Setting up inception_4a/1x1
I0403 21:52:17.258925 24534 net.cpp:148] Top shape: 24 192 14 14 (903168)
I0403 21:52:17.258950 24534 net.cpp:156] Memory required for data: 858010656
I0403 21:52:17.258970 24534 layer_factory.hpp:77] Creating layer inception_4a/relu_1x1
I0403 21:52:17.258991 24534 net.cpp:91] Creating Layer inception_4a/relu_1x1
I0403 21:52:17.259009 24534 net.cpp:425] inception_4a/relu_1x1 <- inception_4a/1x1
I0403 21:52:17.259027 24534 net.cpp:386] inception_4a/relu_1x1 -> inception_4a/1x1 (in-place)
I0403 21:52:17.259219 24534 net.cpp:141] Setting up inception_4a/relu_1x1
I0403 21:52:17.259249 24534 net.cpp:148] Top shape: 24 192 14 14 (903168)
I0403 21:52:17.259266 24534 net.cpp:156] Memory required for data: 861623328
I0403 21:52:17.259284 24534 layer_factory.hpp:77] Creating layer inception_4a/3x3_reduce
I0403 21:52:17.259305 24534 net.cpp:91] Creating Layer inception_4a/3x3_reduce
I0403 21:52:17.259325 24534 net.cpp:425] inception_4a/3x3_reduce <- pool3/3x3_s2_pool3/3x3_s2_0_split_1
I0403 21:52:17.259346 24534 net.cpp:399] inception_4a/3x3_reduce -> inception_4a/3x3_reduce
I0403 21:52:17.260619 24534 net.cpp:141] Setting up inception_4a/3x3_reduce
I0403 21:52:17.260648 24534 net.cpp:148] Top shape: 24 96 14 14 (451584)
I0403 21:52:17.260665 24534 net.cpp:156] Memory required for data: 863429664
I0403 21:52:17.260691 24534 layer_factory.hpp:77] Creating layer inception_4a/relu_3x3_reduce
I0403 21:52:17.260712 24534 net.cpp:91] Creating Layer inception_4a/relu_3x3_reduce
I0403 21:52:17.260730 24534 net.cpp:425] inception_4a/relu_3x3_reduce <- inception_4a/3x3_reduce
I0403 21:52:17.260751 24534 net.cpp:386] inception_4a/relu_3x3_reduce -> inception_4a/3x3_reduce (in-place)
I0403 21:52:17.260927 24534 net.cpp:141] Setting up inception_4a/relu_3x3_reduce
I0403 21:52:17.260954 24534 net.cpp:148] Top shape: 24 96 14 14 (451584)
I0403 21:52:17.260970 24534 net.cpp:156] Memory required for data: 865236000
I0403 21:52:17.260985 24534 layer_factory.hpp:77] Creating layer inception_4a/3x3
I0403 21:52:17.261008 24534 net.cpp:91] Creating Layer inception_4a/3x3
I0403 21:52:17.261029 24534 net.cpp:425] inception_4a/3x3 <- inception_4a/3x3_reduce
I0403 21:52:17.261049 24534 net.cpp:399] inception_4a/3x3 -> inception_4a/3x3
I0403 21:52:17.263754 24534 net.cpp:141] Setting up inception_4a/3x3
I0403 21:52:17.263784 24534 net.cpp:148] Top shape: 24 208 14 14 (978432)
I0403 21:52:17.263802 24534 net.cpp:156] Memory required for data: 869149728
I0403 21:52:17.263820 24534 layer_factory.hpp:77] Creating layer inception_4a/relu_3x3
I0403 21:52:17.263841 24534 net.cpp:91] Creating Layer inception_4a/relu_3x3
I0403 21:52:17.263860 24534 net.cpp:425] inception_4a/relu_3x3 <- inception_4a/3x3
I0403 21:52:17.263878 24534 net.cpp:386] inception_4a/relu_3x3 -> inception_4a/3x3 (in-place)
I0403 21:52:17.264158 24534 net.cpp:141] Setting up inception_4a/relu_3x3
I0403 21:52:17.264185 24534 net.cpp:148] Top shape: 24 208 14 14 (978432)
I0403 21:52:17.264205 24534 net.cpp:156] Memory required for data: 873063456
I0403 21:52:17.264224 24534 layer_factory.hpp:77] Creating layer inception_4a/5x5_reduce
I0403 21:52:17.264250 24534 net.cpp:91] Creating Layer inception_4a/5x5_reduce
I0403 21:52:17.264267 24534 net.cpp:425] inception_4a/5x5_reduce <- pool3/3x3_s2_pool3/3x3_s2_0_split_2
I0403 21:52:17.264288 24534 net.cpp:399] inception_4a/5x5_reduce -> inception_4a/5x5_reduce
I0403 21:52:17.265313 24534 net.cpp:141] Setting up inception_4a/5x5_reduce
I0403 21:52:17.265344 24534 net.cpp:148] Top shape: 24 16 14 14 (75264)
I0403 21:52:17.265362 24534 net.cpp:156] Memory required for data: 873364512
I0403 21:52:17.265380 24534 layer_factory.hpp:77] Creating layer inception_4a/relu_5x5_reduce
I0403 21:52:17.265399 24534 net.cpp:91] Creating Layer inception_4a/relu_5x5_reduce
I0403 21:52:17.265418 24534 net.cpp:425] inception_4a/relu_5x5_reduce <- inception_4a/5x5_reduce
I0403 21:52:17.265439 24534 net.cpp:386] inception_4a/relu_5x5_reduce -> inception_4a/5x5_reduce (in-place)
I0403 21:52:17.265614 24534 net.cpp:141] Setting up inception_4a/relu_5x5_reduce
I0403 21:52:17.265640 24534 net.cpp:148] Top shape: 24 16 14 14 (75264)
I0403 21:52:17.265656 24534 net.cpp:156] Memory required for data: 873665568
I0403 21:52:17.265671 24534 layer_factory.hpp:77] Creating layer inception_4a/5x5
I0403 21:52:17.265696 24534 net.cpp:91] Creating Layer inception_4a/5x5
I0403 21:52:17.265713 24534 net.cpp:425] inception_4a/5x5 <- inception_4a/5x5_reduce
I0403 21:52:17.265735 24534 net.cpp:399] inception_4a/5x5 -> inception_4a/5x5
I0403 21:52:17.266832 24534 net.cpp:141] Setting up inception_4a/5x5
I0403 21:52:17.266860 24534 net.cpp:148] Top shape: 24 48 14 14 (225792)
I0403 21:52:17.266876 24534 net.cpp:156] Memory required for data: 874568736
I0403 21:52:17.266896 24534 layer_factory.hpp:77] Creating layer inception_4a/relu_5x5
I0403 21:52:17.266917 24534 net.cpp:91] Creating Layer inception_4a/relu_5x5
I0403 21:52:17.266935 24534 net.cpp:425] inception_4a/relu_5x5 <- inception_4a/5x5
I0403 21:52:17.266954 24534 net.cpp:386] inception_4a/relu_5x5 -> inception_4a/5x5 (in-place)
I0403 21:52:17.267133 24534 net.cpp:141] Setting up inception_4a/relu_5x5
I0403 21:52:17.267158 24534 net.cpp:148] Top shape: 24 48 14 14 (225792)
I0403 21:52:17.267174 24534 net.cpp:156] Memory required for data: 875471904
I0403 21:52:17.267190 24534 layer_factory.hpp:77] Creating layer inception_4a/pool
I0403 21:52:17.267215 24534 net.cpp:91] Creating Layer inception_4a/pool
I0403 21:52:17.267233 24534 net.cpp:425] inception_4a/pool <- pool3/3x3_s2_pool3/3x3_s2_0_split_3
I0403 21:52:17.267251 24534 net.cpp:399] inception_4a/pool -> inception_4a/pool
I0403 21:52:17.267312 24534 net.cpp:141] Setting up inception_4a/pool
I0403 21:52:17.267335 24534 net.cpp:148] Top shape: 24 480 14 14 (2257920)
I0403 21:52:17.267350 24534 net.cpp:156] Memory required for data: 884503584
I0403 21:52:17.267365 24534 layer_factory.hpp:77] Creating layer inception_4a/pool_proj
I0403 21:52:17.267387 24534 net.cpp:91] Creating Layer inception_4a/pool_proj
I0403 21:52:17.267406 24534 net.cpp:425] inception_4a/pool_proj <- inception_4a/pool
I0403 21:52:17.267427 24534 net.cpp:399] inception_4a/pool_proj -> inception_4a/pool_proj
I0403 21:52:17.268548 24534 net.cpp:141] Setting up inception_4a/pool_proj
I0403 21:52:17.268578 24534 net.cpp:148] Top shape: 24 64 14 14 (301056)
I0403 21:52:17.268609 24534 net.cpp:156] Memory required for data: 885707808
I0403 21:52:17.268627 24534 layer_factory.hpp:77] Creating layer inception_4a/relu_pool_proj
I0403 21:52:17.268651 24534 net.cpp:91] Creating Layer inception_4a/relu_pool_proj
I0403 21:52:17.268669 24534 net.cpp:425] inception_4a/relu_pool_proj <- inception_4a/pool_proj
I0403 21:52:17.268687 24534 net.cpp:386] inception_4a/relu_pool_proj -> inception_4a/pool_proj (in-place)
I0403 21:52:17.268957 24534 net.cpp:141] Setting up inception_4a/relu_pool_proj
I0403 21:52:17.268985 24534 net.cpp:148] Top shape: 24 64 14 14 (301056)
I0403 21:52:17.269001 24534 net.cpp:156] Memory required for data: 886912032
I0403 21:52:17.269016 24534 layer_factory.hpp:77] Creating layer inception_4a/output
I0403 21:52:17.269032 24534 net.cpp:91] Creating Layer inception_4a/output
I0403 21:52:17.269052 24534 net.cpp:425] inception_4a/output <- inception_4a/1x1
I0403 21:52:17.269068 24534 net.cpp:425] inception_4a/output <- inception_4a/3x3
I0403 21:52:17.269086 24534 net.cpp:425] inception_4a/output <- inception_4a/5x5
I0403 21:52:17.269103 24534 net.cpp:425] inception_4a/output <- inception_4a/pool_proj
I0403 21:52:17.269119 24534 net.cpp:399] inception_4a/output -> inception_4a/output
I0403 21:52:17.269162 24534 net.cpp:141] Setting up inception_4a/output
I0403 21:52:17.269188 24534 net.cpp:148] Top shape: 24 512 14 14 (2408448)
I0403 21:52:17.269209 24534 net.cpp:156] Memory required for data: 896545824
I0403 21:52:17.269225 24534 layer_factory.hpp:77] Creating layer inception_4a/output_inception_4a/output_0_split
I0403 21:52:17.269243 24534 net.cpp:91] Creating Layer inception_4a/output_inception_4a/output_0_split
I0403 21:52:17.269259 24534 net.cpp:425] inception_4a/output_inception_4a/output_0_split <- inception_4a/output
I0403 21:52:17.269279 24534 net.cpp:399] inception_4a/output_inception_4a/output_0_split -> inception_4a/output_inception_4a/output_0_split_0
I0403 21:52:17.269300 24534 net.cpp:399] inception_4a/output_inception_4a/output_0_split -> inception_4a/output_inception_4a/output_0_split_1
I0403 21:52:17.269321 24534 net.cpp:399] inception_4a/output_inception_4a/output_0_split -> inception_4a/output_inception_4a/output_0_split_2
I0403 21:52:17.269342 24534 net.cpp:399] inception_4a/output_inception_4a/output_0_split -> inception_4a/output_inception_4a/output_0_split_3
I0403 21:52:17.269363 24534 net.cpp:399] inception_4a/output_inception_4a/output_0_split -> inception_4a/output_inception_4a/output_0_split_4
I0403 21:52:17.269457 24534 net.cpp:141] Setting up inception_4a/output_inception_4a/output_0_split
I0403 21:52:17.269480 24534 net.cpp:148] Top shape: 24 512 14 14 (2408448)
I0403 21:52:17.269500 24534 net.cpp:148] Top shape: 24 512 14 14 (2408448)
I0403 21:52:17.269517 24534 net.cpp:148] Top shape: 24 512 14 14 (2408448)
I0403 21:52:17.269534 24534 net.cpp:148] Top shape: 24 512 14 14 (2408448)
I0403 21:52:17.269551 24534 net.cpp:148] Top shape: 24 512 14 14 (2408448)
I0403 21:52:17.269565 24534 net.cpp:156] Memory required for data: 944714784
I0403 21:52:17.269580 24534 layer_factory.hpp:77] Creating layer loss1/ave_pool
I0403 21:52:17.269598 24534 net.cpp:91] Creating Layer loss1/ave_pool
I0403 21:52:17.269614 24534 net.cpp:425] loss1/ave_pool <- inception_4a/output_inception_4a/output_0_split_0
I0403 21:52:17.269634 24534 net.cpp:399] loss1/ave_pool -> loss1/ave_pool
I0403 21:52:17.269831 24534 net.cpp:141] Setting up loss1/ave_pool
I0403 21:52:17.269857 24534 net.cpp:148] Top shape: 24 512 4 4 (196608)
I0403 21:52:17.269872 24534 net.cpp:156] Memory required for data: 945501216
I0403 21:52:17.269887 24534 layer_factory.hpp:77] Creating layer loss1/conv
I0403 21:52:17.269908 24534 net.cpp:91] Creating Layer loss1/conv
I0403 21:52:17.269928 24534 net.cpp:425] loss1/conv <- loss1/ave_pool
I0403 21:52:17.269949 24534 net.cpp:399] loss1/conv -> loss1/conv
I0403 21:52:17.271302 24534 net.cpp:141] Setting up loss1/conv
I0403 21:52:17.271332 24534 net.cpp:148] Top shape: 24 128 4 4 (49152)
I0403 21:52:17.271361 24534 net.cpp:156] Memory required for data: 945697824
I0403 21:52:17.271383 24534 layer_factory.hpp:77] Creating layer loss1/relu_conv
I0403 21:52:17.271404 24534 net.cpp:91] Creating Layer loss1/relu_conv
I0403 21:52:17.271420 24534 net.cpp:425] loss1/relu_conv <- loss1/conv
I0403 21:52:17.271440 24534 net.cpp:386] loss1/relu_conv -> loss1/conv (in-place)
I0403 21:52:17.271709 24534 net.cpp:141] Setting up loss1/relu_conv
I0403 21:52:17.271736 24534 net.cpp:148] Top shape: 24 128 4 4 (49152)
I0403 21:52:17.271751 24534 net.cpp:156] Memory required for data: 945894432
I0403 21:52:17.271766 24534 layer_factory.hpp:77] Creating layer loss1/fc
I0403 21:52:17.271792 24534 net.cpp:91] Creating Layer loss1/fc
I0403 21:52:17.271811 24534 net.cpp:425] loss1/fc <- loss1/conv
I0403 21:52:17.271834 24534 net.cpp:399] loss1/fc -> loss1/fc
I0403 21:52:17.289165 24534 net.cpp:141] Setting up loss1/fc
I0403 21:52:17.289202 24534 net.cpp:148] Top shape: 24 1024 (24576)
I0403 21:52:17.289221 24534 net.cpp:156] Memory required for data: 945992736
I0403 21:52:17.289239 24534 layer_factory.hpp:77] Creating layer loss1/relu_fc
I0403 21:52:17.289258 24534 net.cpp:91] Creating Layer loss1/relu_fc
I0403 21:52:17.289274 24534 net.cpp:425] loss1/relu_fc <- loss1/fc
I0403 21:52:17.289295 24534 net.cpp:386] loss1/relu_fc -> loss1/fc (in-place)
I0403 21:52:17.289472 24534 net.cpp:141] Setting up loss1/relu_fc
I0403 21:52:17.289499 24534 net.cpp:148] Top shape: 24 1024 (24576)
I0403 21:52:17.289516 24534 net.cpp:156] Memory required for data: 946091040
I0403 21:52:17.289532 24534 layer_factory.hpp:77] Creating layer loss1/drop_fc
I0403 21:52:17.289558 24534 net.cpp:91] Creating Layer loss1/drop_fc
I0403 21:52:17.289577 24534 net.cpp:425] loss1/drop_fc <- loss1/fc
I0403 21:52:17.289593 24534 net.cpp:386] loss1/drop_fc -> loss1/fc (in-place)
I0403 21:52:17.289645 24534 net.cpp:141] Setting up loss1/drop_fc
I0403 21:52:17.289669 24534 net.cpp:148] Top shape: 24 1024 (24576)
I0403 21:52:17.289685 24534 net.cpp:156] Memory required for data: 946189344
I0403 21:52:17.289701 24534 layer_factory.hpp:77] Creating layer loss1/classifier_plantvillage
I0403 21:52:17.289721 24534 net.cpp:91] Creating Layer loss1/classifier_plantvillage
I0403 21:52:17.289739 24534 net.cpp:425] loss1/classifier_plantvillage <- loss1/fc
I0403 21:52:17.289762 24534 net.cpp:399] loss1/classifier_plantvillage -> loss1/classifier_plantvillage
I0403 21:52:17.290669 24534 net.cpp:141] Setting up loss1/classifier_plantvillage
I0403 21:52:17.290698 24534 net.cpp:148] Top shape: 24 38 (912)
I0403 21:52:17.290712 24534 net.cpp:156] Memory required for data: 946192992
I0403 21:52:17.290731 24534 layer_factory.hpp:77] Creating layer loss1/classifier_plantvillage_loss1/classifier_plantvillage_0_split
I0403 21:52:17.290751 24534 net.cpp:91] Creating Layer loss1/classifier_plantvillage_loss1/classifier_plantvillage_0_split
I0403 21:52:17.290771 24534 net.cpp:425] loss1/classifier_plantvillage_loss1/classifier_plantvillage_0_split <- loss1/classifier_plantvillage
I0403 21:52:17.290788 24534 net.cpp:399] loss1/classifier_plantvillage_loss1/classifier_plantvillage_0_split -> loss1/classifier_plantvillage_loss1/classifier_plantvillage_0_split_0
I0403 21:52:17.290809 24534 net.cpp:399] loss1/classifier_plantvillage_loss1/classifier_plantvillage_0_split -> loss1/classifier_plantvillage_loss1/classifier_plantvillage_0_split_1
I0403 21:52:17.290830 24534 net.cpp:399] loss1/classifier_plantvillage_loss1/classifier_plantvillage_0_split -> loss1/classifier_plantvillage_loss1/classifier_plantvillage_0_split_2
I0403 21:52:17.290899 24534 net.cpp:141] Setting up loss1/classifier_plantvillage_loss1/classifier_plantvillage_0_split
I0403 21:52:17.290925 24534 net.cpp:148] Top shape: 24 38 (912)
I0403 21:52:17.290940 24534 net.cpp:148] Top shape: 24 38 (912)
I0403 21:52:17.290956 24534 net.cpp:148] Top shape: 24 38 (912)
I0403 21:52:17.290971 24534 net.cpp:156] Memory required for data: 946203936
I0403 21:52:17.290985 24534 layer_factory.hpp:77] Creating layer inception_4b/1x1
I0403 21:52:17.291007 24534 net.cpp:91] Creating Layer inception_4b/1x1
I0403 21:52:17.291041 24534 net.cpp:425] inception_4b/1x1 <- inception_4a/output_inception_4a/output_0_split_1
I0403 21:52:17.291062 24534 net.cpp:399] inception_4b/1x1 -> inception_4b/1x1
I0403 21:52:17.292659 24534 net.cpp:141] Setting up inception_4b/1x1
I0403 21:52:17.292692 24534 net.cpp:148] Top shape: 24 160 14 14 (752640)
I0403 21:52:17.292709 24534 net.cpp:156] Memory required for data: 949214496
I0403 21:52:17.292728 24534 layer_factory.hpp:77] Creating layer inception_4b/relu_1x1
I0403 21:52:17.292747 24534 net.cpp:91] Creating Layer inception_4b/relu_1x1
I0403 21:52:17.292764 24534 net.cpp:425] inception_4b/relu_1x1 <- inception_4b/1x1
I0403 21:52:17.292784 24534 net.cpp:386] inception_4b/relu_1x1 -> inception_4b/1x1 (in-place)
I0403 21:52:17.292958 24534 net.cpp:141] Setting up inception_4b/relu_1x1
I0403 21:52:17.292994 24534 net.cpp:148] Top shape: 24 160 14 14 (752640)
I0403 21:52:17.293009 24534 net.cpp:156] Memory required for data: 952225056
I0403 21:52:17.293025 24534 layer_factory.hpp:77] Creating layer inception_4b/3x3_reduce
I0403 21:52:17.293050 24534 net.cpp:91] Creating Layer inception_4b/3x3_reduce
I0403 21:52:17.293067 24534 net.cpp:425] inception_4b/3x3_reduce <- inception_4a/output_inception_4a/output_0_split_2
I0403 21:52:17.293089 24534 net.cpp:399] inception_4b/3x3_reduce -> inception_4b/3x3_reduce
I0403 21:52:17.294412 24534 net.cpp:141] Setting up inception_4b/3x3_reduce
I0403 21:52:17.294440 24534 net.cpp:148] Top shape: 24 112 14 14 (526848)
I0403 21:52:17.294457 24534 net.cpp:156] Memory required for data: 954332448
I0403 21:52:17.294476 24534 layer_factory.hpp:77] Creating layer inception_4b/relu_3x3_reduce
I0403 21:52:17.294494 24534 net.cpp:91] Creating Layer inception_4b/relu_3x3_reduce
I0403 21:52:17.294512 24534 net.cpp:425] inception_4b/relu_3x3_reduce <- inception_4b/3x3_reduce
I0403 21:52:17.294531 24534 net.cpp:386] inception_4b/relu_3x3_reduce -> inception_4b/3x3_reduce (in-place)
I0403 21:52:17.294811 24534 net.cpp:141] Setting up inception_4b/relu_3x3_reduce
I0403 21:52:17.294837 24534 net.cpp:148] Top shape: 24 112 14 14 (526848)
I0403 21:52:17.294853 24534 net.cpp:156] Memory required for data: 956439840
I0403 21:52:17.294869 24534 layer_factory.hpp:77] Creating layer inception_4b/3x3
I0403 21:52:17.294893 24534 net.cpp:91] Creating Layer inception_4b/3x3
I0403 21:52:17.294912 24534 net.cpp:425] inception_4b/3x3 <- inception_4b/3x3_reduce
I0403 21:52:17.294935 24534 net.cpp:399] inception_4b/3x3 -> inception_4b/3x3
I0403 21:52:17.297948 24534 net.cpp:141] Setting up inception_4b/3x3
I0403 21:52:17.297978 24534 net.cpp:148] Top shape: 24 224 14 14 (1053696)
I0403 21:52:17.297996 24534 net.cpp:156] Memory required for data: 960654624
I0403 21:52:17.298015 24534 layer_factory.hpp:77] Creating layer inception_4b/relu_3x3
I0403 21:52:17.298037 24534 net.cpp:91] Creating Layer inception_4b/relu_3x3
I0403 21:52:17.298055 24534 net.cpp:425] inception_4b/relu_3x3 <- inception_4b/3x3
I0403 21:52:17.298074 24534 net.cpp:386] inception_4b/relu_3x3 -> inception_4b/3x3 (in-place)
I0403 21:52:17.298266 24534 net.cpp:141] Setting up inception_4b/relu_3x3
I0403 21:52:17.298295 24534 net.cpp:148] Top shape: 24 224 14 14 (1053696)
I0403 21:52:17.298313 24534 net.cpp:156] Memory required for data: 964869408
I0403 21:52:17.298328 24534 layer_factory.hpp:77] Creating layer inception_4b/5x5_reduce
I0403 21:52:17.298352 24534 net.cpp:91] Creating Layer inception_4b/5x5_reduce
I0403 21:52:17.298372 24534 net.cpp:425] inception_4b/5x5_reduce <- inception_4a/output_inception_4a/output_0_split_3
I0403 21:52:17.298393 24534 net.cpp:399] inception_4b/5x5_reduce -> inception_4b/5x5_reduce
I0403 21:52:17.299475 24534 net.cpp:141] Setting up inception_4b/5x5_reduce
I0403 21:52:17.299505 24534 net.cpp:148] Top shape: 24 24 14 14 (112896)
I0403 21:52:17.299522 24534 net.cpp:156] Memory required for data: 965320992
I0403 21:52:17.299542 24534 layer_factory.hpp:77] Creating layer inception_4b/relu_5x5_reduce
I0403 21:52:17.299561 24534 net.cpp:91] Creating Layer inception_4b/relu_5x5_reduce
I0403 21:52:17.299593 24534 net.cpp:425] inception_4b/relu_5x5_reduce <- inception_4b/5x5_reduce
I0403 21:52:17.299617 24534 net.cpp:386] inception_4b/relu_5x5_reduce -> inception_4b/5x5_reduce (in-place)
I0403 21:52:17.299803 24534 net.cpp:141] Setting up inception_4b/relu_5x5_reduce
I0403 21:52:17.299829 24534 net.cpp:148] Top shape: 24 24 14 14 (112896)
I0403 21:52:17.299844 24534 net.cpp:156] Memory required for data: 965772576
I0403 21:52:17.299860 24534 layer_factory.hpp:77] Creating layer inception_4b/5x5
I0403 21:52:17.299883 24534 net.cpp:91] Creating Layer inception_4b/5x5
I0403 21:52:17.299902 24534 net.cpp:425] inception_4b/5x5 <- inception_4b/5x5_reduce
I0403 21:52:17.299929 24534 net.cpp:399] inception_4b/5x5 -> inception_4b/5x5
I0403 21:52:17.301156 24534 net.cpp:141] Setting up inception_4b/5x5
I0403 21:52:17.301187 24534 net.cpp:148] Top shape: 24 64 14 14 (301056)
I0403 21:52:17.301209 24534 net.cpp:156] Memory required for data: 966976800
I0403 21:52:17.301229 24534 layer_factory.hpp:77] Creating layer inception_4b/relu_5x5
I0403 21:52:17.301249 24534 net.cpp:91] Creating Layer inception_4b/relu_5x5
I0403 21:52:17.301267 24534 net.cpp:425] inception_4b/relu_5x5 <- inception_4b/5x5
I0403 21:52:17.301288 24534 net.cpp:386] inception_4b/relu_5x5 -> inception_4b/5x5 (in-place)
I0403 21:52:17.301573 24534 net.cpp:141] Setting up inception_4b/relu_5x5
I0403 21:52:17.301601 24534 net.cpp:148] Top shape: 24 64 14 14 (301056)
I0403 21:52:17.301619 24534 net.cpp:156] Memory required for data: 968181024
I0403 21:52:17.301635 24534 layer_factory.hpp:77] Creating layer inception_4b/pool
I0403 21:52:17.301653 24534 net.cpp:91] Creating Layer inception_4b/pool
I0403 21:52:17.301671 24534 net.cpp:425] inception_4b/pool <- inception_4a/output_inception_4a/output_0_split_4
I0403 21:52:17.301692 24534 net.cpp:399] inception_4b/pool -> inception_4b/pool
I0403 21:52:17.301756 24534 net.cpp:141] Setting up inception_4b/pool
I0403 21:52:17.301781 24534 net.cpp:148] Top shape: 24 512 14 14 (2408448)
I0403 21:52:17.301797 24534 net.cpp:156] Memory required for data: 977814816
I0403 21:52:17.301813 24534 layer_factory.hpp:77] Creating layer inception_4b/pool_proj
I0403 21:52:17.301836 24534 net.cpp:91] Creating Layer inception_4b/pool_proj
I0403 21:52:17.301856 24534 net.cpp:425] inception_4b/pool_proj <- inception_4b/pool
I0403 21:52:17.301878 24534 net.cpp:399] inception_4b/pool_proj -> inception_4b/pool_proj
I0403 21:52:17.303074 24534 net.cpp:141] Setting up inception_4b/pool_proj
I0403 21:52:17.303105 24534 net.cpp:148] Top shape: 24 64 14 14 (301056)
I0403 21:52:17.303122 24534 net.cpp:156] Memory required for data: 979019040
I0403 21:52:17.303143 24534 layer_factory.hpp:77] Creating layer inception_4b/relu_pool_proj
I0403 21:52:17.303161 24534 net.cpp:91] Creating Layer inception_4b/relu_pool_proj
I0403 21:52:17.303179 24534 net.cpp:425] inception_4b/relu_pool_proj <- inception_4b/pool_proj
I0403 21:52:17.303205 24534 net.cpp:386] inception_4b/relu_pool_proj -> inception_4b/pool_proj (in-place)
I0403 21:52:17.303385 24534 net.cpp:141] Setting up inception_4b/relu_pool_proj
I0403 21:52:17.303411 24534 net.cpp:148] Top shape: 24 64 14 14 (301056)
I0403 21:52:17.303428 24534 net.cpp:156] Memory required for data: 980223264
I0403 21:52:17.303443 24534 layer_factory.hpp:77] Creating layer inception_4b/output
I0403 21:52:17.303462 24534 net.cpp:91] Creating Layer inception_4b/output
I0403 21:52:17.303478 24534 net.cpp:425] inception_4b/output <- inception_4b/1x1
I0403 21:52:17.303496 24534 net.cpp:425] inception_4b/output <- inception_4b/3x3
I0403 21:52:17.303514 24534 net.cpp:425] inception_4b/output <- inception_4b/5x5
I0403 21:52:17.303532 24534 net.cpp:425] inception_4b/output <- inception_4b/pool_proj
I0403 21:52:17.303553 24534 net.cpp:399] inception_4b/output -> inception_4b/output
I0403 21:52:17.303601 24534 net.cpp:141] Setting up inception_4b/output
I0403 21:52:17.303627 24534 net.cpp:148] Top shape: 24 512 14 14 (2408448)
I0403 21:52:17.303643 24534 net.cpp:156] Memory required for data: 989857056
I0403 21:52:17.303673 24534 layer_factory.hpp:77] Creating layer inception_4b/output_inception_4b/output_0_split
I0403 21:52:17.303694 24534 net.cpp:91] Creating Layer inception_4b/output_inception_4b/output_0_split
I0403 21:52:17.303710 24534 net.cpp:425] inception_4b/output_inception_4b/output_0_split <- inception_4b/output
I0403 21:52:17.303730 24534 net.cpp:399] inception_4b/output_inception_4b/output_0_split -> inception_4b/output_inception_4b/output_0_split_0
I0403 21:52:17.303755 24534 net.cpp:399] inception_4b/output_inception_4b/output_0_split -> inception_4b/output_inception_4b/output_0_split_1
I0403 21:52:17.303777 24534 net.cpp:399] inception_4b/output_inception_4b/output_0_split -> inception_4b/output_inception_4b/output_0_split_2
I0403 21:52:17.303798 24534 net.cpp:399] inception_4b/output_inception_4b/output_0_split -> inception_4b/output_inception_4b/output_0_split_3
I0403 21:52:17.303885 24534 net.cpp:141] Setting up inception_4b/output_inception_4b/output_0_split
I0403 21:52:17.303910 24534 net.cpp:148] Top shape: 24 512 14 14 (2408448)
I0403 21:52:17.303930 24534 net.cpp:148] Top shape: 24 512 14 14 (2408448)
I0403 21:52:17.303944 24534 net.cpp:148] Top shape: 24 512 14 14 (2408448)
I0403 21:52:17.303961 24534 net.cpp:148] Top shape: 24 512 14 14 (2408448)
I0403 21:52:17.303975 24534 net.cpp:156] Memory required for data: 1028392224
I0403 21:52:17.303990 24534 layer_factory.hpp:77] Creating layer inception_4c/1x1
I0403 21:52:17.304015 24534 net.cpp:91] Creating Layer inception_4c/1x1
I0403 21:52:17.304035 24534 net.cpp:425] inception_4c/1x1 <- inception_4b/output_inception_4b/output_0_split_0
I0403 21:52:17.304055 24534 net.cpp:399] inception_4c/1x1 -> inception_4c/1x1
I0403 21:52:17.305485 24534 net.cpp:141] Setting up inception_4c/1x1
I0403 21:52:17.305513 24534 net.cpp:148] Top shape: 24 128 14 14 (602112)
I0403 21:52:17.305531 24534 net.cpp:156] Memory required for data: 1030800672
I0403 21:52:17.305551 24534 layer_factory.hpp:77] Creating layer inception_4c/relu_1x1
I0403 21:52:17.305572 24534 net.cpp:91] Creating Layer inception_4c/relu_1x1
I0403 21:52:17.305589 24534 net.cpp:425] inception_4c/relu_1x1 <- inception_4c/1x1
I0403 21:52:17.305608 24534 net.cpp:386] inception_4c/relu_1x1 -> inception_4c/1x1 (in-place)
I0403 21:52:17.305788 24534 net.cpp:141] Setting up inception_4c/relu_1x1
I0403 21:52:17.305814 24534 net.cpp:148] Top shape: 24 128 14 14 (602112)
I0403 21:52:17.305832 24534 net.cpp:156] Memory required for data: 1033209120
I0403 21:52:17.305848 24534 layer_factory.hpp:77] Creating layer inception_4c/3x3_reduce
I0403 21:52:17.305869 24534 net.cpp:91] Creating Layer inception_4c/3x3_reduce
I0403 21:52:17.305886 24534 net.cpp:425] inception_4c/3x3_reduce <- inception_4b/output_inception_4b/output_0_split_1
I0403 21:52:17.305922 24534 net.cpp:399] inception_4c/3x3_reduce -> inception_4c/3x3_reduce
I0403 21:52:17.307904 24534 net.cpp:141] Setting up inception_4c/3x3_reduce
I0403 21:52:17.307936 24534 net.cpp:148] Top shape: 24 128 14 14 (602112)
I0403 21:52:17.307955 24534 net.cpp:156] Memory required for data: 1035617568
I0403 21:52:17.307976 24534 layer_factory.hpp:77] Creating layer inception_4c/relu_3x3_reduce
I0403 21:52:17.307993 24534 net.cpp:91] Creating Layer inception_4c/relu_3x3_reduce
I0403 21:52:17.308012 24534 net.cpp:425] inception_4c/relu_3x3_reduce <- inception_4c/3x3_reduce
I0403 21:52:17.308030 24534 net.cpp:386] inception_4c/relu_3x3_reduce -> inception_4c/3x3_reduce (in-place)
I0403 21:52:17.308329 24534 net.cpp:141] Setting up inception_4c/relu_3x3_reduce
I0403 21:52:17.308359 24534 net.cpp:148] Top shape: 24 128 14 14 (602112)
I0403 21:52:17.308377 24534 net.cpp:156] Memory required for data: 1038026016
I0403 21:52:17.308393 24534 layer_factory.hpp:77] Creating layer inception_4c/3x3
I0403 21:52:17.308416 24534 net.cpp:91] Creating Layer inception_4c/3x3
I0403 21:52:17.308436 24534 net.cpp:425] inception_4c/3x3 <- inception_4c/3x3_reduce
I0403 21:52:17.308457 24534 net.cpp:399] inception_4c/3x3 -> inception_4c/3x3
I0403 21:52:17.312104 24534 net.cpp:141] Setting up inception_4c/3x3
I0403 21:52:17.312149 24534 net.cpp:148] Top shape: 24 256 14 14 (1204224)
I0403 21:52:17.312167 24534 net.cpp:156] Memory required for data: 1042842912
I0403 21:52:17.312207 24534 layer_factory.hpp:77] Creating layer inception_4c/relu_3x3
I0403 21:52:17.312232 24534 net.cpp:91] Creating Layer inception_4c/relu_3x3
I0403 21:52:17.312248 24534 net.cpp:425] inception_4c/relu_3x3 <- inception_4c/3x3
I0403 21:52:17.312269 24534 net.cpp:386] inception_4c/relu_3x3 -> inception_4c/3x3 (in-place)
I0403 21:52:17.312448 24534 net.cpp:141] Setting up inception_4c/relu_3x3
I0403 21:52:17.312477 24534 net.cpp:148] Top shape: 24 256 14 14 (1204224)
I0403 21:52:17.312494 24534 net.cpp:156] Memory required for data: 1047659808
I0403 21:52:17.312510 24534 layer_factory.hpp:77] Creating layer inception_4c/5x5_reduce
I0403 21:52:17.312535 24534 net.cpp:91] Creating Layer inception_4c/5x5_reduce
I0403 21:52:17.312553 24534 net.cpp:425] inception_4c/5x5_reduce <- inception_4b/output_inception_4b/output_0_split_2
I0403 21:52:17.312577 24534 net.cpp:399] inception_4c/5x5_reduce -> inception_4c/5x5_reduce
I0403 21:52:17.313678 24534 net.cpp:141] Setting up inception_4c/5x5_reduce
I0403 21:52:17.313709 24534 net.cpp:148] Top shape: 24 24 14 14 (112896)
I0403 21:52:17.313726 24534 net.cpp:156] Memory required for data: 1048111392
I0403 21:52:17.313745 24534 layer_factory.hpp:77] Creating layer inception_4c/relu_5x5_reduce
I0403 21:52:17.313765 24534 net.cpp:91] Creating Layer inception_4c/relu_5x5_reduce
I0403 21:52:17.313781 24534 net.cpp:425] inception_4c/relu_5x5_reduce <- inception_4c/5x5_reduce
I0403 21:52:17.313802 24534 net.cpp:386] inception_4c/relu_5x5_reduce -> inception_4c/5x5_reduce (in-place)
I0403 21:52:17.313980 24534 net.cpp:141] Setting up inception_4c/relu_5x5_reduce
I0403 21:52:17.314007 24534 net.cpp:148] Top shape: 24 24 14 14 (112896)
I0403 21:52:17.314023 24534 net.cpp:156] Memory required for data: 1048562976
I0403 21:52:17.314038 24534 layer_factory.hpp:77] Creating layer inception_4c/5x5
I0403 21:52:17.314061 24534 net.cpp:91] Creating Layer inception_4c/5x5
I0403 21:52:17.314079 24534 net.cpp:425] inception_4c/5x5 <- inception_4c/5x5_reduce
I0403 21:52:17.314101 24534 net.cpp:399] inception_4c/5x5 -> inception_4c/5x5
I0403 21:52:17.315309 24534 net.cpp:141] Setting up inception_4c/5x5
I0403 21:52:17.315336 24534 net.cpp:148] Top shape: 24 64 14 14 (301056)
I0403 21:52:17.315352 24534 net.cpp:156] Memory required for data: 1049767200
I0403 21:52:17.315371 24534 layer_factory.hpp:77] Creating layer inception_4c/relu_5x5
I0403 21:52:17.315390 24534 net.cpp:91] Creating Layer inception_4c/relu_5x5
I0403 21:52:17.315407 24534 net.cpp:425] inception_4c/relu_5x5 <- inception_4c/5x5
I0403 21:52:17.315426 24534 net.cpp:386] inception_4c/relu_5x5 -> inception_4c/5x5 (in-place)
I0403 21:52:17.315708 24534 net.cpp:141] Setting up inception_4c/relu_5x5
I0403 21:52:17.315734 24534 net.cpp:148] Top shape: 24 64 14 14 (301056)
I0403 21:52:17.315750 24534 net.cpp:156] Memory required for data: 1050971424
I0403 21:52:17.315768 24534 layer_factory.hpp:77] Creating layer inception_4c/pool
I0403 21:52:17.315786 24534 net.cpp:91] Creating Layer inception_4c/pool
I0403 21:52:17.315804 24534 net.cpp:425] inception_4c/pool <- inception_4b/output_inception_4b/output_0_split_3
I0403 21:52:17.315824 24534 net.cpp:399] inception_4c/pool -> inception_4c/pool
I0403 21:52:17.315889 24534 net.cpp:141] Setting up inception_4c/pool
I0403 21:52:17.315914 24534 net.cpp:148] Top shape: 24 512 14 14 (2408448)
I0403 21:52:17.315932 24534 net.cpp:156] Memory required for data: 1060605216
I0403 21:52:17.315948 24534 layer_factory.hpp:77] Creating layer inception_4c/pool_proj
I0403 21:52:17.315973 24534 net.cpp:91] Creating Layer inception_4c/pool_proj
I0403 21:52:17.315989 24534 net.cpp:425] inception_4c/pool_proj <- inception_4c/pool
I0403 21:52:17.316009 24534 net.cpp:399] inception_4c/pool_proj -> inception_4c/pool_proj
I0403 21:52:17.317188 24534 net.cpp:141] Setting up inception_4c/pool_proj
I0403 21:52:17.317222 24534 net.cpp:148] Top shape: 24 64 14 14 (301056)
I0403 21:52:17.317261 24534 net.cpp:156] Memory required for data: 1061809440
I0403 21:52:17.317281 24534 layer_factory.hpp:77] Creating layer inception_4c/relu_pool_proj
I0403 21:52:17.317298 24534 net.cpp:91] Creating Layer inception_4c/relu_pool_proj
I0403 21:52:17.317315 24534 net.cpp:425] inception_4c/relu_pool_proj <- inception_4c/pool_proj
I0403 21:52:17.317337 24534 net.cpp:386] inception_4c/relu_pool_proj -> inception_4c/pool_proj (in-place)
I0403 21:52:17.317512 24534 net.cpp:141] Setting up inception_4c/relu_pool_proj
I0403 21:52:17.317538 24534 net.cpp:148] Top shape: 24 64 14 14 (301056)
I0403 21:52:17.317553 24534 net.cpp:156] Memory required for data: 1063013664
I0403 21:52:17.317567 24534 layer_factory.hpp:77] Creating layer inception_4c/output
I0403 21:52:17.317585 24534 net.cpp:91] Creating Layer inception_4c/output
I0403 21:52:17.317601 24534 net.cpp:425] inception_4c/output <- inception_4c/1x1
I0403 21:52:17.317620 24534 net.cpp:425] inception_4c/output <- inception_4c/3x3
I0403 21:52:17.317636 24534 net.cpp:425] inception_4c/output <- inception_4c/5x5
I0403 21:52:17.317653 24534 net.cpp:425] inception_4c/output <- inception_4c/pool_proj
I0403 21:52:17.317673 24534 net.cpp:399] inception_4c/output -> inception_4c/output
I0403 21:52:17.317719 24534 net.cpp:141] Setting up inception_4c/output
I0403 21:52:17.317745 24534 net.cpp:148] Top shape: 24 512 14 14 (2408448)
I0403 21:52:17.317762 24534 net.cpp:156] Memory required for data: 1072647456
I0403 21:52:17.317778 24534 layer_factory.hpp:77] Creating layer inception_4c/output_inception_4c/output_0_split
I0403 21:52:17.317795 24534 net.cpp:91] Creating Layer inception_4c/output_inception_4c/output_0_split
I0403 21:52:17.317811 24534 net.cpp:425] inception_4c/output_inception_4c/output_0_split <- inception_4c/output
I0403 21:52:17.317831 24534 net.cpp:399] inception_4c/output_inception_4c/output_0_split -> inception_4c/output_inception_4c/output_0_split_0
I0403 21:52:17.317853 24534 net.cpp:399] inception_4c/output_inception_4c/output_0_split -> inception_4c/output_inception_4c/output_0_split_1
I0403 21:52:17.317874 24534 net.cpp:399] inception_4c/output_inception_4c/output_0_split -> inception_4c/output_inception_4c/output_0_split_2
I0403 21:52:17.317895 24534 net.cpp:399] inception_4c/output_inception_4c/output_0_split -> inception_4c/output_inception_4c/output_0_split_3
I0403 21:52:17.317981 24534 net.cpp:141] Setting up inception_4c/output_inception_4c/output_0_split
I0403 21:52:17.318006 24534 net.cpp:148] Top shape: 24 512 14 14 (2408448)
I0403 21:52:17.318022 24534 net.cpp:148] Top shape: 24 512 14 14 (2408448)
I0403 21:52:17.318039 24534 net.cpp:148] Top shape: 24 512 14 14 (2408448)
I0403 21:52:17.318055 24534 net.cpp:148] Top shape: 24 512 14 14 (2408448)
I0403 21:52:17.318070 24534 net.cpp:156] Memory required for data: 1111182624
I0403 21:52:17.318085 24534 layer_factory.hpp:77] Creating layer inception_4d/1x1
I0403 21:52:17.318109 24534 net.cpp:91] Creating Layer inception_4d/1x1
I0403 21:52:17.318126 24534 net.cpp:425] inception_4d/1x1 <- inception_4c/output_inception_4c/output_0_split_0
I0403 21:52:17.318146 24534 net.cpp:399] inception_4d/1x1 -> inception_4d/1x1
I0403 21:52:17.319489 24534 net.cpp:141] Setting up inception_4d/1x1
I0403 21:52:17.319517 24534 net.cpp:148] Top shape: 24 112 14 14 (526848)
I0403 21:52:17.319535 24534 net.cpp:156] Memory required for data: 1113290016
I0403 21:52:17.319553 24534 layer_factory.hpp:77] Creating layer inception_4d/relu_1x1
I0403 21:52:17.319574 24534 net.cpp:91] Creating Layer inception_4d/relu_1x1
I0403 21:52:17.319593 24534 net.cpp:425] inception_4d/relu_1x1 <- inception_4d/1x1
I0403 21:52:17.319610 24534 net.cpp:386] inception_4d/relu_1x1 -> inception_4d/1x1 (in-place)
I0403 21:52:17.319788 24534 net.cpp:141] Setting up inception_4d/relu_1x1
I0403 21:52:17.319816 24534 net.cpp:148] Top shape: 24 112 14 14 (526848)
I0403 21:52:17.319833 24534 net.cpp:156] Memory required for data: 1115397408
I0403 21:52:17.319849 24534 layer_factory.hpp:77] Creating layer inception_4d/3x3_reduce
I0403 21:52:17.319885 24534 net.cpp:91] Creating Layer inception_4d/3x3_reduce
I0403 21:52:17.319905 24534 net.cpp:425] inception_4d/3x3_reduce <- inception_4c/output_inception_4c/output_0_split_1
I0403 21:52:17.319926 24534 net.cpp:399] inception_4d/3x3_reduce -> inception_4d/3x3_reduce
I0403 21:52:17.321403 24534 net.cpp:141] Setting up inception_4d/3x3_reduce
I0403 21:52:17.321430 24534 net.cpp:148] Top shape: 24 144 14 14 (677376)
I0403 21:52:17.321447 24534 net.cpp:156] Memory required for data: 1118106912
I0403 21:52:17.321467 24534 layer_factory.hpp:77] Creating layer inception_4d/relu_3x3_reduce
I0403 21:52:17.321488 24534 net.cpp:91] Creating Layer inception_4d/relu_3x3_reduce
I0403 21:52:17.321506 24534 net.cpp:425] inception_4d/relu_3x3_reduce <- inception_4d/3x3_reduce
I0403 21:52:17.321524 24534 net.cpp:386] inception_4d/relu_3x3_reduce -> inception_4d/3x3_reduce (in-place)
I0403 21:52:17.321804 24534 net.cpp:141] Setting up inception_4d/relu_3x3_reduce
I0403 21:52:17.321830 24534 net.cpp:148] Top shape: 24 144 14 14 (677376)
I0403 21:52:17.321846 24534 net.cpp:156] Memory required for data: 1120816416
I0403 21:52:17.321861 24534 layer_factory.hpp:77] Creating layer inception_4d/3x3
I0403 21:52:17.321882 24534 net.cpp:91] Creating Layer inception_4d/3x3
I0403 21:52:17.321902 24534 net.cpp:425] inception_4d/3x3 <- inception_4d/3x3_reduce
I0403 21:52:17.321923 24534 net.cpp:399] inception_4d/3x3 -> inception_4d/3x3
I0403 21:52:17.326067 24534 net.cpp:141] Setting up inception_4d/3x3
I0403 21:52:17.326097 24534 net.cpp:148] Top shape: 24 288 14 14 (1354752)
I0403 21:52:17.326112 24534 net.cpp:156] Memory required for data: 1126235424
I0403 21:52:17.326131 24534 layer_factory.hpp:77] Creating layer inception_4d/relu_3x3
I0403 21:52:17.326153 24534 net.cpp:91] Creating Layer inception_4d/relu_3x3
I0403 21:52:17.326171 24534 net.cpp:425] inception_4d/relu_3x3 <- inception_4d/3x3
I0403 21:52:17.326189 24534 net.cpp:386] inception_4d/relu_3x3 -> inception_4d/3x3 (in-place)
I0403 21:52:17.326375 24534 net.cpp:141] Setting up inception_4d/relu_3x3
I0403 21:52:17.326402 24534 net.cpp:148] Top shape: 24 288 14 14 (1354752)
I0403 21:52:17.326419 24534 net.cpp:156] Memory required for data: 1131654432
I0403 21:52:17.326434 24534 layer_factory.hpp:77] Creating layer inception_4d/5x5_reduce
I0403 21:52:17.326462 24534 net.cpp:91] Creating Layer inception_4d/5x5_reduce
I0403 21:52:17.326480 24534 net.cpp:425] inception_4d/5x5_reduce <- inception_4c/output_inception_4c/output_0_split_2
I0403 21:52:17.326500 24534 net.cpp:399] inception_4d/5x5_reduce -> inception_4d/5x5_reduce
I0403 21:52:17.327620 24534 net.cpp:141] Setting up inception_4d/5x5_reduce
I0403 21:52:17.327647 24534 net.cpp:148] Top shape: 24 32 14 14 (150528)
I0403 21:52:17.327663 24534 net.cpp:156] Memory required for data: 1132256544
I0403 21:52:17.327682 24534 layer_factory.hpp:77] Creating layer inception_4d/relu_5x5_reduce
I0403 21:52:17.327703 24534 net.cpp:91] Creating Layer inception_4d/relu_5x5_reduce
I0403 21:52:17.327720 24534 net.cpp:425] inception_4d/relu_5x5_reduce <- inception_4d/5x5_reduce
I0403 21:52:17.327739 24534 net.cpp:386] inception_4d/relu_5x5_reduce -> inception_4d/5x5_reduce (in-place)
I0403 21:52:17.327918 24534 net.cpp:141] Setting up inception_4d/relu_5x5_reduce
I0403 21:52:17.327946 24534 net.cpp:148] Top shape: 24 32 14 14 (150528)
I0403 21:52:17.327962 24534 net.cpp:156] Memory required for data: 1132858656
I0403 21:52:17.327978 24534 layer_factory.hpp:77] Creating layer inception_4d/5x5
I0403 21:52:17.328001 24534 net.cpp:91] Creating Layer inception_4d/5x5
I0403 21:52:17.328018 24534 net.cpp:425] inception_4d/5x5 <- inception_4d/5x5_reduce
I0403 21:52:17.328039 24534 net.cpp:399] inception_4d/5x5 -> inception_4d/5x5
I0403 21:52:17.329488 24534 net.cpp:141] Setting up inception_4d/5x5
I0403 21:52:17.329515 24534 net.cpp:148] Top shape: 24 64 14 14 (301056)
I0403 21:52:17.329532 24534 net.cpp:156] Memory required for data: 1134062880
I0403 21:52:17.329553 24534 layer_factory.hpp:77] Creating layer inception_4d/relu_5x5
I0403 21:52:17.329586 24534 net.cpp:91] Creating Layer inception_4d/relu_5x5
I0403 21:52:17.329605 24534 net.cpp:425] inception_4d/relu_5x5 <- inception_4d/5x5
I0403 21:52:17.329625 24534 net.cpp:386] inception_4d/relu_5x5 -> inception_4d/5x5 (in-place)
I0403 21:52:17.329916 24534 net.cpp:141] Setting up inception_4d/relu_5x5
I0403 21:52:17.329942 24534 net.cpp:148] Top shape: 24 64 14 14 (301056)
I0403 21:52:17.329959 24534 net.cpp:156] Memory required for data: 1135267104
I0403 21:52:17.329975 24534 layer_factory.hpp:77] Creating layer inception_4d/pool
I0403 21:52:17.329993 24534 net.cpp:91] Creating Layer inception_4d/pool
I0403 21:52:17.330009 24534 net.cpp:425] inception_4d/pool <- inception_4c/output_inception_4c/output_0_split_3
I0403 21:52:17.330030 24534 net.cpp:399] inception_4d/pool -> inception_4d/pool
I0403 21:52:17.330097 24534 net.cpp:141] Setting up inception_4d/pool
I0403 21:52:17.330122 24534 net.cpp:148] Top shape: 24 512 14 14 (2408448)
I0403 21:52:17.330138 24534 net.cpp:156] Memory required for data: 1144900896
I0403 21:52:17.330152 24534 layer_factory.hpp:77] Creating layer inception_4d/pool_proj
I0403 21:52:17.330178 24534 net.cpp:91] Creating Layer inception_4d/pool_proj
I0403 21:52:17.330201 24534 net.cpp:425] inception_4d/pool_proj <- inception_4d/pool
I0403 21:52:17.330222 24534 net.cpp:399] inception_4d/pool_proj -> inception_4d/pool_proj
I0403 21:52:17.331938 24534 net.cpp:141] Setting up inception_4d/pool_proj
I0403 21:52:17.331965 24534 net.cpp:148] Top shape: 24 64 14 14 (301056)
I0403 21:52:17.331982 24534 net.cpp:156] Memory required for data: 1146105120
I0403 21:52:17.332001 24534 layer_factory.hpp:77] Creating layer inception_4d/relu_pool_proj
I0403 21:52:17.332025 24534 net.cpp:91] Creating Layer inception_4d/relu_pool_proj
I0403 21:52:17.332041 24534 net.cpp:425] inception_4d/relu_pool_proj <- inception_4d/pool_proj
I0403 21:52:17.332061 24534 net.cpp:386] inception_4d/relu_pool_proj -> inception_4d/pool_proj (in-place)
I0403 21:52:17.332243 24534 net.cpp:141] Setting up inception_4d/relu_pool_proj
I0403 21:52:17.332272 24534 net.cpp:148] Top shape: 24 64 14 14 (301056)
I0403 21:52:17.332288 24534 net.cpp:156] Memory required for data: 1147309344
I0403 21:52:17.332304 24534 layer_factory.hpp:77] Creating layer inception_4d/output
I0403 21:52:17.332321 24534 net.cpp:91] Creating Layer inception_4d/output
I0403 21:52:17.332337 24534 net.cpp:425] inception_4d/output <- inception_4d/1x1
I0403 21:52:17.332355 24534 net.cpp:425] inception_4d/output <- inception_4d/3x3
I0403 21:52:17.332370 24534 net.cpp:425] inception_4d/output <- inception_4d/5x5
I0403 21:52:17.332386 24534 net.cpp:425] inception_4d/output <- inception_4d/pool_proj
I0403 21:52:17.332406 24534 net.cpp:399] inception_4d/output -> inception_4d/output
I0403 21:52:17.332454 24534 net.cpp:141] Setting up inception_4d/output
I0403 21:52:17.332479 24534 net.cpp:148] Top shape: 24 528 14 14 (2483712)
I0403 21:52:17.332494 24534 net.cpp:156] Memory required for data: 1157244192
I0403 21:52:17.332509 24534 layer_factory.hpp:77] Creating layer inception_4d/output_inception_4d/output_0_split
I0403 21:52:17.332528 24534 net.cpp:91] Creating Layer inception_4d/output_inception_4d/output_0_split
I0403 21:52:17.332545 24534 net.cpp:425] inception_4d/output_inception_4d/output_0_split <- inception_4d/output
I0403 21:52:17.332563 24534 net.cpp:399] inception_4d/output_inception_4d/output_0_split -> inception_4d/output_inception_4d/output_0_split_0
I0403 21:52:17.332588 24534 net.cpp:399] inception_4d/output_inception_4d/output_0_split -> inception_4d/output_inception_4d/output_0_split_1
I0403 21:52:17.332613 24534 net.cpp:399] inception_4d/output_inception_4d/output_0_split -> inception_4d/output_inception_4d/output_0_split_2
I0403 21:52:17.332635 24534 net.cpp:399] inception_4d/output_inception_4d/output_0_split -> inception_4d/output_inception_4d/output_0_split_3
I0403 21:52:17.332656 24534 net.cpp:399] inception_4d/output_inception_4d/output_0_split -> inception_4d/output_inception_4d/output_0_split_4
I0403 21:52:17.332757 24534 net.cpp:141] Setting up inception_4d/output_inception_4d/output_0_split
I0403 21:52:17.332793 24534 net.cpp:148] Top shape: 24 528 14 14 (2483712)
I0403 21:52:17.332810 24534 net.cpp:148] Top shape: 24 528 14 14 (2483712)
I0403 21:52:17.332828 24534 net.cpp:148] Top shape: 24 528 14 14 (2483712)
I0403 21:52:17.332844 24534 net.cpp:148] Top shape: 24 528 14 14 (2483712)
I0403 21:52:17.332859 24534 net.cpp:148] Top shape: 24 528 14 14 (2483712)
I0403 21:52:17.332872 24534 net.cpp:156] Memory required for data: 1206918432
I0403 21:52:17.332887 24534 layer_factory.hpp:77] Creating layer loss2/ave_pool
I0403 21:52:17.332908 24534 net.cpp:91] Creating Layer loss2/ave_pool
I0403 21:52:17.332928 24534 net.cpp:425] loss2/ave_pool <- inception_4d/output_inception_4d/output_0_split_0
I0403 21:52:17.332948 24534 net.cpp:399] loss2/ave_pool -> loss2/ave_pool
I0403 21:52:17.333281 24534 net.cpp:141] Setting up loss2/ave_pool
I0403 21:52:17.333310 24534 net.cpp:148] Top shape: 24 528 4 4 (202752)
I0403 21:52:17.333328 24534 net.cpp:156] Memory required for data: 1207729440
I0403 21:52:17.333345 24534 layer_factory.hpp:77] Creating layer loss2/conv
I0403 21:52:17.333366 24534 net.cpp:91] Creating Layer loss2/conv
I0403 21:52:17.333386 24534 net.cpp:425] loss2/conv <- loss2/ave_pool
I0403 21:52:17.333408 24534 net.cpp:399] loss2/conv -> loss2/conv
I0403 21:52:17.335336 24534 net.cpp:141] Setting up loss2/conv
I0403 21:52:17.335367 24534 net.cpp:148] Top shape: 24 128 4 4 (49152)
I0403 21:52:17.335386 24534 net.cpp:156] Memory required for data: 1207926048
I0403 21:52:17.335405 24534 layer_factory.hpp:77] Creating layer loss2/relu_conv
I0403 21:52:17.335424 24534 net.cpp:91] Creating Layer loss2/relu_conv
I0403 21:52:17.335443 24534 net.cpp:425] loss2/relu_conv <- loss2/conv
I0403 21:52:17.335464 24534 net.cpp:386] loss2/relu_conv -> loss2/conv (in-place)
I0403 21:52:17.335747 24534 net.cpp:141] Setting up loss2/relu_conv
I0403 21:52:17.335775 24534 net.cpp:148] Top shape: 24 128 4 4 (49152)
I0403 21:52:17.335791 24534 net.cpp:156] Memory required for data: 1208122656
I0403 21:52:17.335808 24534 layer_factory.hpp:77] Creating layer loss2/fc
I0403 21:52:17.335829 24534 net.cpp:91] Creating Layer loss2/fc
I0403 21:52:17.335845 24534 net.cpp:425] loss2/fc <- loss2/conv
I0403 21:52:17.335868 24534 net.cpp:399] loss2/fc -> loss2/fc
I0403 21:52:17.353566 24534 net.cpp:141] Setting up loss2/fc
I0403 21:52:17.353602 24534 net.cpp:148] Top shape: 24 1024 (24576)
I0403 21:52:17.353618 24534 net.cpp:156] Memory required for data: 1208220960
I0403 21:52:17.353638 24534 layer_factory.hpp:77] Creating layer loss2/relu_fc
I0403 21:52:17.353659 24534 net.cpp:91] Creating Layer loss2/relu_fc
I0403 21:52:17.353677 24534 net.cpp:425] loss2/relu_fc <- loss2/fc
I0403 21:52:17.353696 24534 net.cpp:386] loss2/relu_fc -> loss2/fc (in-place)
I0403 21:52:17.353992 24534 net.cpp:141] Setting up loss2/relu_fc
I0403 21:52:17.354022 24534 net.cpp:148] Top shape: 24 1024 (24576)
I0403 21:52:17.354038 24534 net.cpp:156] Memory required for data: 1208319264
I0403 21:52:17.354054 24534 layer_factory.hpp:77] Creating layer loss2/drop_fc
I0403 21:52:17.354074 24534 net.cpp:91] Creating Layer loss2/drop_fc
I0403 21:52:17.354090 24534 net.cpp:425] loss2/drop_fc <- loss2/fc
I0403 21:52:17.354109 24534 net.cpp:386] loss2/drop_fc -> loss2/fc (in-place)
I0403 21:52:17.354159 24534 net.cpp:141] Setting up loss2/drop_fc
I0403 21:52:17.354182 24534 net.cpp:148] Top shape: 24 1024 (24576)
I0403 21:52:17.354202 24534 net.cpp:156] Memory required for data: 1208417568
I0403 21:52:17.354218 24534 layer_factory.hpp:77] Creating layer loss2/classifier_plantvillage
I0403 21:52:17.354240 24534 net.cpp:91] Creating Layer loss2/classifier_plantvillage
I0403 21:52:17.354259 24534 net.cpp:425] loss2/classifier_plantvillage <- loss2/fc
I0403 21:52:17.354277 24534 net.cpp:399] loss2/classifier_plantvillage -> loss2/classifier_plantvillage
I0403 21:52:17.354671 24534 net.cpp:141] Setting up loss2/classifier_plantvillage
I0403 21:52:17.354696 24534 net.cpp:148] Top shape: 24 38 (912)
I0403 21:52:17.354728 24534 net.cpp:156] Memory required for data: 1208421216
I0403 21:52:17.354749 24534 layer_factory.hpp:77] Creating layer loss2/classifier_plantvillage_loss2/classifier_plantvillage_0_split
I0403 21:52:17.354768 24534 net.cpp:91] Creating Layer loss2/classifier_plantvillage_loss2/classifier_plantvillage_0_split
I0403 21:52:17.354785 24534 net.cpp:425] loss2/classifier_plantvillage_loss2/classifier_plantvillage_0_split <- loss2/classifier_plantvillage
I0403 21:52:17.354805 24534 net.cpp:399] loss2/classifier_plantvillage_loss2/classifier_plantvillage_0_split -> loss2/classifier_plantvillage_loss2/classifier_plantvillage_0_split_0
I0403 21:52:17.354827 24534 net.cpp:399] loss2/classifier_plantvillage_loss2/classifier_plantvillage_0_split -> loss2/classifier_plantvillage_loss2/classifier_plantvillage_0_split_1
I0403 21:52:17.354851 24534 net.cpp:399] loss2/classifier_plantvillage_loss2/classifier_plantvillage_0_split -> loss2/classifier_plantvillage_loss2/classifier_plantvillage_0_split_2
I0403 21:52:17.354926 24534 net.cpp:141] Setting up loss2/classifier_plantvillage_loss2/classifier_plantvillage_0_split
I0403 21:52:17.354953 24534 net.cpp:148] Top shape: 24 38 (912)
I0403 21:52:17.354970 24534 net.cpp:148] Top shape: 24 38 (912)
I0403 21:52:17.354987 24534 net.cpp:148] Top shape: 24 38 (912)
I0403 21:52:17.355002 24534 net.cpp:156] Memory required for data: 1208432160
I0403 21:52:17.355018 24534 layer_factory.hpp:77] Creating layer inception_4e/1x1
I0403 21:52:17.355038 24534 net.cpp:91] Creating Layer inception_4e/1x1
I0403 21:52:17.355054 24534 net.cpp:425] inception_4e/1x1 <- inception_4d/output_inception_4d/output_0_split_1
I0403 21:52:17.355074 24534 net.cpp:399] inception_4e/1x1 -> inception_4e/1x1
I0403 21:52:17.356851 24534 net.cpp:141] Setting up inception_4e/1x1
I0403 21:52:17.356880 24534 net.cpp:148] Top shape: 24 256 14 14 (1204224)
I0403 21:52:17.356896 24534 net.cpp:156] Memory required for data: 1213249056
I0403 21:52:17.356916 24534 layer_factory.hpp:77] Creating layer inception_4e/relu_1x1
I0403 21:52:17.356935 24534 net.cpp:91] Creating Layer inception_4e/relu_1x1
I0403 21:52:17.356951 24534 net.cpp:425] inception_4e/relu_1x1 <- inception_4e/1x1
I0403 21:52:17.356971 24534 net.cpp:386] inception_4e/relu_1x1 -> inception_4e/1x1 (in-place)
I0403 21:52:17.357272 24534 net.cpp:141] Setting up inception_4e/relu_1x1
I0403 21:52:17.357298 24534 net.cpp:148] Top shape: 24 256 14 14 (1204224)
I0403 21:52:17.357314 24534 net.cpp:156] Memory required for data: 1218065952
I0403 21:52:17.357329 24534 layer_factory.hpp:77] Creating layer inception_4e/3x3_reduce
I0403 21:52:17.357352 24534 net.cpp:91] Creating Layer inception_4e/3x3_reduce
I0403 21:52:17.357370 24534 net.cpp:425] inception_4e/3x3_reduce <- inception_4d/output_inception_4d/output_0_split_2
I0403 21:52:17.357393 24534 net.cpp:399] inception_4e/3x3_reduce -> inception_4e/3x3_reduce
I0403 21:52:17.359470 24534 net.cpp:141] Setting up inception_4e/3x3_reduce
I0403 21:52:17.359501 24534 net.cpp:148] Top shape: 24 160 14 14 (752640)
I0403 21:52:17.359519 24534 net.cpp:156] Memory required for data: 1221076512
I0403 21:52:17.359539 24534 layer_factory.hpp:77] Creating layer inception_4e/relu_3x3_reduce
I0403 21:52:17.359556 24534 net.cpp:91] Creating Layer inception_4e/relu_3x3_reduce
I0403 21:52:17.359573 24534 net.cpp:425] inception_4e/relu_3x3_reduce <- inception_4e/3x3_reduce
I0403 21:52:17.359594 24534 net.cpp:386] inception_4e/relu_3x3_reduce -> inception_4e/3x3_reduce (in-place)
I0403 21:52:17.359776 24534 net.cpp:141] Setting up inception_4e/relu_3x3_reduce
I0403 21:52:17.359802 24534 net.cpp:148] Top shape: 24 160 14 14 (752640)
I0403 21:52:17.359817 24534 net.cpp:156] Memory required for data: 1224087072
I0403 21:52:17.359833 24534 layer_factory.hpp:77] Creating layer inception_4e/3x3
I0403 21:52:17.359854 24534 net.cpp:91] Creating Layer inception_4e/3x3
I0403 21:52:17.359874 24534 net.cpp:425] inception_4e/3x3 <- inception_4e/3x3_reduce
I0403 21:52:17.359896 24534 net.cpp:399] inception_4e/3x3 -> inception_4e/3x3
I0403 21:52:17.364850 24534 net.cpp:141] Setting up inception_4e/3x3
I0403 21:52:17.364889 24534 net.cpp:148] Top shape: 24 320 14 14 (1505280)
I0403 21:52:17.364907 24534 net.cpp:156] Memory required for data: 1230108192
I0403 21:52:17.364928 24534 layer_factory.hpp:77] Creating layer inception_4e/relu_3x3
I0403 21:52:17.364948 24534 net.cpp:91] Creating Layer inception_4e/relu_3x3
I0403 21:52:17.364967 24534 net.cpp:425] inception_4e/relu_3x3 <- inception_4e/3x3
I0403 21:52:17.364985 24534 net.cpp:386] inception_4e/relu_3x3 -> inception_4e/3x3 (in-place)
I0403 21:52:17.365281 24534 net.cpp:141] Setting up inception_4e/relu_3x3
I0403 21:52:17.365309 24534 net.cpp:148] Top shape: 24 320 14 14 (1505280)
I0403 21:52:17.365324 24534 net.cpp:156] Memory required for data: 1236129312
I0403 21:52:17.365340 24534 layer_factory.hpp:77] Creating layer inception_4e/5x5_reduce
I0403 21:52:17.365362 24534 net.cpp:91] Creating Layer inception_4e/5x5_reduce
I0403 21:52:17.365382 24534 net.cpp:425] inception_4e/5x5_reduce <- inception_4d/output_inception_4d/output_0_split_3
I0403 21:52:17.365403 24534 net.cpp:399] inception_4e/5x5_reduce -> inception_4e/5x5_reduce
I0403 21:52:17.366447 24534 net.cpp:141] Setting up inception_4e/5x5_reduce
I0403 21:52:17.366475 24534 net.cpp:148] Top shape: 24 32 14 14 (150528)
I0403 21:52:17.366492 24534 net.cpp:156] Memory required for data: 1236731424
I0403 21:52:17.366509 24534 layer_factory.hpp:77] Creating layer inception_4e/relu_5x5_reduce
I0403 21:52:17.366528 24534 net.cpp:91] Creating Layer inception_4e/relu_5x5_reduce
I0403 21:52:17.366545 24534 net.cpp:425] inception_4e/relu_5x5_reduce <- inception_4e/5x5_reduce
I0403 21:52:17.366565 24534 net.cpp:386] inception_4e/relu_5x5_reduce -> inception_4e/5x5_reduce (in-place)
I0403 21:52:17.366860 24534 net.cpp:141] Setting up inception_4e/relu_5x5_reduce
I0403 21:52:17.366886 24534 net.cpp:148] Top shape: 24 32 14 14 (150528)
I0403 21:52:17.366902 24534 net.cpp:156] Memory required for data: 1237333536
I0403 21:52:17.366921 24534 layer_factory.hpp:77] Creating layer inception_4e/5x5
I0403 21:52:17.366961 24534 net.cpp:91] Creating Layer inception_4e/5x5
I0403 21:52:17.366981 24534 net.cpp:425] inception_4e/5x5 <- inception_4e/5x5_reduce
I0403 21:52:17.367000 24534 net.cpp:399] inception_4e/5x5 -> inception_4e/5x5
I0403 21:52:17.368804 24534 net.cpp:141] Setting up inception_4e/5x5
I0403 21:52:17.368835 24534 net.cpp:148] Top shape: 24 128 14 14 (602112)
I0403 21:52:17.368852 24534 net.cpp:156] Memory required for data: 1239741984
I0403 21:52:17.368872 24534 layer_factory.hpp:77] Creating layer inception_4e/relu_5x5
I0403 21:52:17.368891 24534 net.cpp:91] Creating Layer inception_4e/relu_5x5
I0403 21:52:17.368908 24534 net.cpp:425] inception_4e/relu_5x5 <- inception_4e/5x5
I0403 21:52:17.368928 24534 net.cpp:386] inception_4e/relu_5x5 -> inception_4e/5x5 (in-place)
I0403 21:52:17.369122 24534 net.cpp:141] Setting up inception_4e/relu_5x5
I0403 21:52:17.369148 24534 net.cpp:148] Top shape: 24 128 14 14 (602112)
I0403 21:52:17.369163 24534 net.cpp:156] Memory required for data: 1242150432
I0403 21:52:17.369179 24534 layer_factory.hpp:77] Creating layer inception_4e/pool
I0403 21:52:17.369199 24534 net.cpp:91] Creating Layer inception_4e/pool
I0403 21:52:17.369218 24534 net.cpp:425] inception_4e/pool <- inception_4d/output_inception_4d/output_0_split_4
I0403 21:52:17.369240 24534 net.cpp:399] inception_4e/pool -> inception_4e/pool
I0403 21:52:17.369307 24534 net.cpp:141] Setting up inception_4e/pool
I0403 21:52:17.369334 24534 net.cpp:148] Top shape: 24 528 14 14 (2483712)
I0403 21:52:17.369349 24534 net.cpp:156] Memory required for data: 1252085280
I0403 21:52:17.369364 24534 layer_factory.hpp:77] Creating layer inception_4e/pool_proj
I0403 21:52:17.369386 24534 net.cpp:91] Creating Layer inception_4e/pool_proj
I0403 21:52:17.369405 24534 net.cpp:425] inception_4e/pool_proj <- inception_4e/pool
I0403 21:52:17.369424 24534 net.cpp:399] inception_4e/pool_proj -> inception_4e/pool_proj
I0403 21:52:17.370883 24534 net.cpp:141] Setting up inception_4e/pool_proj
I0403 21:52:17.370928 24534 net.cpp:148] Top shape: 24 128 14 14 (602112)
I0403 21:52:17.370945 24534 net.cpp:156] Memory required for data: 1254493728
I0403 21:52:17.370965 24534 layer_factory.hpp:77] Creating layer inception_4e/relu_pool_proj
I0403 21:52:17.370985 24534 net.cpp:91] Creating Layer inception_4e/relu_pool_proj
I0403 21:52:17.371001 24534 net.cpp:425] inception_4e/relu_pool_proj <- inception_4e/pool_proj
I0403 21:52:17.371019 24534 net.cpp:386] inception_4e/relu_pool_proj -> inception_4e/pool_proj (in-place)
I0403 21:52:17.371321 24534 net.cpp:141] Setting up inception_4e/relu_pool_proj
I0403 21:52:17.371351 24534 net.cpp:148] Top shape: 24 128 14 14 (602112)
I0403 21:52:17.371368 24534 net.cpp:156] Memory required for data: 1256902176
I0403 21:52:17.371384 24534 layer_factory.hpp:77] Creating layer inception_4e/output
I0403 21:52:17.371402 24534 net.cpp:91] Creating Layer inception_4e/output
I0403 21:52:17.371420 24534 net.cpp:425] inception_4e/output <- inception_4e/1x1
I0403 21:52:17.371438 24534 net.cpp:425] inception_4e/output <- inception_4e/3x3
I0403 21:52:17.371455 24534 net.cpp:425] inception_4e/output <- inception_4e/5x5
I0403 21:52:17.371481 24534 net.cpp:425] inception_4e/output <- inception_4e/pool_proj
I0403 21:52:17.371498 24534 net.cpp:399] inception_4e/output -> inception_4e/output
I0403 21:52:17.371549 24534 net.cpp:141] Setting up inception_4e/output
I0403 21:52:17.371573 24534 net.cpp:148] Top shape: 24 832 14 14 (3913728)
I0403 21:52:17.371589 24534 net.cpp:156] Memory required for data: 1272557088
I0403 21:52:17.371605 24534 layer_factory.hpp:77] Creating layer pool4/3x3_s2
I0403 21:52:17.371625 24534 net.cpp:91] Creating Layer pool4/3x3_s2
I0403 21:52:17.371644 24534 net.cpp:425] pool4/3x3_s2 <- inception_4e/output
I0403 21:52:17.371662 24534 net.cpp:399] pool4/3x3_s2 -> pool4/3x3_s2
I0403 21:52:17.371729 24534 net.cpp:141] Setting up pool4/3x3_s2
I0403 21:52:17.371754 24534 net.cpp:148] Top shape: 24 832 7 7 (978432)
I0403 21:52:17.371769 24534 net.cpp:156] Memory required for data: 1276470816
I0403 21:52:17.371784 24534 layer_factory.hpp:77] Creating layer pool4/3x3_s2_pool4/3x3_s2_0_split
I0403 21:52:17.371800 24534 net.cpp:91] Creating Layer pool4/3x3_s2_pool4/3x3_s2_0_split
I0403 21:52:17.371819 24534 net.cpp:425] pool4/3x3_s2_pool4/3x3_s2_0_split <- pool4/3x3_s2
I0403 21:52:17.371840 24534 net.cpp:399] pool4/3x3_s2_pool4/3x3_s2_0_split -> pool4/3x3_s2_pool4/3x3_s2_0_split_0
I0403 21:52:17.371861 24534 net.cpp:399] pool4/3x3_s2_pool4/3x3_s2_0_split -> pool4/3x3_s2_pool4/3x3_s2_0_split_1
I0403 21:52:17.371883 24534 net.cpp:399] pool4/3x3_s2_pool4/3x3_s2_0_split -> pool4/3x3_s2_pool4/3x3_s2_0_split_2
I0403 21:52:17.371904 24534 net.cpp:399] pool4/3x3_s2_pool4/3x3_s2_0_split -> pool4/3x3_s2_pool4/3x3_s2_0_split_3
I0403 21:52:17.371994 24534 net.cpp:141] Setting up pool4/3x3_s2_pool4/3x3_s2_0_split
I0403 21:52:17.372019 24534 net.cpp:148] Top shape: 24 832 7 7 (978432)
I0403 21:52:17.372035 24534 net.cpp:148] Top shape: 24 832 7 7 (978432)
I0403 21:52:17.372052 24534 net.cpp:148] Top shape: 24 832 7 7 (978432)
I0403 21:52:17.372067 24534 net.cpp:148] Top shape: 24 832 7 7 (978432)
I0403 21:52:17.372081 24534 net.cpp:156] Memory required for data: 1292125728
I0403 21:52:17.372097 24534 layer_factory.hpp:77] Creating layer inception_5a/1x1
I0403 21:52:17.372119 24534 net.cpp:91] Creating Layer inception_5a/1x1
I0403 21:52:17.372138 24534 net.cpp:425] inception_5a/1x1 <- pool4/3x3_s2_pool4/3x3_s2_0_split_0
I0403 21:52:17.372159 24534 net.cpp:399] inception_5a/1x1 -> inception_5a/1x1
I0403 21:52:17.374951 24534 net.cpp:141] Setting up inception_5a/1x1
I0403 21:52:17.374981 24534 net.cpp:148] Top shape: 24 256 7 7 (301056)
I0403 21:52:17.374999 24534 net.cpp:156] Memory required for data: 1293329952
I0403 21:52:17.375017 24534 layer_factory.hpp:77] Creating layer inception_5a/relu_1x1
I0403 21:52:17.375036 24534 net.cpp:91] Creating Layer inception_5a/relu_1x1
I0403 21:52:17.375053 24534 net.cpp:425] inception_5a/relu_1x1 <- inception_5a/1x1
I0403 21:52:17.375074 24534 net.cpp:386] inception_5a/relu_1x1 -> inception_5a/1x1 (in-place)
I0403 21:52:17.375383 24534 net.cpp:141] Setting up inception_5a/relu_1x1
I0403 21:52:17.375411 24534 net.cpp:148] Top shape: 24 256 7 7 (301056)
I0403 21:52:17.375428 24534 net.cpp:156] Memory required for data: 1294534176
I0403 21:52:17.375443 24534 layer_factory.hpp:77] Creating layer inception_5a/3x3_reduce
I0403 21:52:17.375466 24534 net.cpp:91] Creating Layer inception_5a/3x3_reduce
I0403 21:52:17.375485 24534 net.cpp:425] inception_5a/3x3_reduce <- pool4/3x3_s2_pool4/3x3_s2_0_split_1
I0403 21:52:17.375505 24534 net.cpp:399] inception_5a/3x3_reduce -> inception_5a/3x3_reduce
I0403 21:52:17.377912 24534 net.cpp:141] Setting up inception_5a/3x3_reduce
I0403 21:52:17.377940 24534 net.cpp:148] Top shape: 24 160 7 7 (188160)
I0403 21:52:17.377959 24534 net.cpp:156] Memory required for data: 1295286816
I0403 21:52:17.377977 24534 layer_factory.hpp:77] Creating layer inception_5a/relu_3x3_reduce
I0403 21:52:17.377998 24534 net.cpp:91] Creating Layer inception_5a/relu_3x3_reduce
I0403 21:52:17.378016 24534 net.cpp:425] inception_5a/relu_3x3_reduce <- inception_5a/3x3_reduce
I0403 21:52:17.378033 24534 net.cpp:386] inception_5a/relu_3x3_reduce -> inception_5a/3x3_reduce (in-place)
I0403 21:52:17.378237 24534 net.cpp:141] Setting up inception_5a/relu_3x3_reduce
I0403 21:52:17.378267 24534 net.cpp:148] Top shape: 24 160 7 7 (188160)
I0403 21:52:17.378283 24534 net.cpp:156] Memory required for data: 1296039456
I0403 21:52:17.378299 24534 layer_factory.hpp:77] Creating layer inception_5a/3x3
I0403 21:52:17.378324 24534 net.cpp:91] Creating Layer inception_5a/3x3
I0403 21:52:17.378345 24534 net.cpp:425] inception_5a/3x3 <- inception_5a/3x3_reduce
I0403 21:52:17.378365 24534 net.cpp:399] inception_5a/3x3 -> inception_5a/3x3
I0403 21:52:17.383332 24534 net.cpp:141] Setting up inception_5a/3x3
I0403 21:52:17.383370 24534 net.cpp:148] Top shape: 24 320 7 7 (376320)
I0403 21:52:17.383388 24534 net.cpp:156] Memory required for data: 1297544736
I0403 21:52:17.383407 24534 layer_factory.hpp:77] Creating layer inception_5a/relu_3x3
I0403 21:52:17.383426 24534 net.cpp:91] Creating Layer inception_5a/relu_3x3
I0403 21:52:17.383445 24534 net.cpp:425] inception_5a/relu_3x3 <- inception_5a/3x3
I0403 21:52:17.383463 24534 net.cpp:386] inception_5a/relu_3x3 -> inception_5a/3x3 (in-place)
I0403 21:52:17.383754 24534 net.cpp:141] Setting up inception_5a/relu_3x3
I0403 21:52:17.383782 24534 net.cpp:148] Top shape: 24 320 7 7 (376320)
I0403 21:52:17.383800 24534 net.cpp:156] Memory required for data: 1299050016
I0403 21:52:17.383816 24534 layer_factory.hpp:77] Creating layer inception_5a/5x5_reduce
I0403 21:52:17.383838 24534 net.cpp:91] Creating Layer inception_5a/5x5_reduce
I0403 21:52:17.383857 24534 net.cpp:425] inception_5a/5x5_reduce <- pool4/3x3_s2_pool4/3x3_s2_0_split_2
I0403 21:52:17.383877 24534 net.cpp:399] inception_5a/5x5_reduce -> inception_5a/5x5_reduce
I0403 21:52:17.385033 24534 net.cpp:141] Setting up inception_5a/5x5_reduce
I0403 21:52:17.385064 24534 net.cpp:148] Top shape: 24 32 7 7 (37632)
I0403 21:52:17.385083 24534 net.cpp:156] Memory required for data: 1299200544
I0403 21:52:17.385102 24534 layer_factory.hpp:77] Creating layer inception_5a/relu_5x5_reduce
I0403 21:52:17.385119 24534 net.cpp:91] Creating Layer inception_5a/relu_5x5_reduce
I0403 21:52:17.385136 24534 net.cpp:425] inception_5a/relu_5x5_reduce <- inception_5a/5x5_reduce
I0403 21:52:17.385156 24534 net.cpp:386] inception_5a/relu_5x5_reduce -> inception_5a/5x5_reduce (in-place)
I0403 21:52:17.385468 24534 net.cpp:141] Setting up inception_5a/relu_5x5_reduce
I0403 21:52:17.385494 24534 net.cpp:148] Top shape: 24 32 7 7 (37632)
I0403 21:52:17.385510 24534 net.cpp:156] Memory required for data: 1299351072
I0403 21:52:17.385524 24534 layer_factory.hpp:77] Creating layer inception_5a/5x5
I0403 21:52:17.385546 24534 net.cpp:91] Creating Layer inception_5a/5x5
I0403 21:52:17.385565 24534 net.cpp:425] inception_5a/5x5 <- inception_5a/5x5_reduce
I0403 21:52:17.385587 24534 net.cpp:399] inception_5a/5x5 -> inception_5a/5x5
I0403 21:52:17.387284 24534 net.cpp:141] Setting up inception_5a/5x5
I0403 21:52:17.387326 24534 net.cpp:148] Top shape: 24 128 7 7 (150528)
I0403 21:52:17.387344 24534 net.cpp:156] Memory required for data: 1299953184
I0403 21:52:17.387363 24534 layer_factory.hpp:77] Creating layer inception_5a/relu_5x5
I0403 21:52:17.387382 24534 net.cpp:91] Creating Layer inception_5a/relu_5x5
I0403 21:52:17.387398 24534 net.cpp:425] inception_5a/relu_5x5 <- inception_5a/5x5
I0403 21:52:17.387418 24534 net.cpp:386] inception_5a/relu_5x5 -> inception_5a/5x5 (in-place)
I0403 21:52:17.387605 24534 net.cpp:141] Setting up inception_5a/relu_5x5
I0403 21:52:17.387630 24534 net.cpp:148] Top shape: 24 128 7 7 (150528)
I0403 21:52:17.387645 24534 net.cpp:156] Memory required for data: 1300555296
I0403 21:52:17.387661 24534 layer_factory.hpp:77] Creating layer inception_5a/pool
I0403 21:52:17.387679 24534 net.cpp:91] Creating Layer inception_5a/pool
I0403 21:52:17.387696 24534 net.cpp:425] inception_5a/pool <- pool4/3x3_s2_pool4/3x3_s2_0_split_3
I0403 21:52:17.387718 24534 net.cpp:399] inception_5a/pool -> inception_5a/pool
I0403 21:52:17.387789 24534 net.cpp:141] Setting up inception_5a/pool
I0403 21:52:17.387814 24534 net.cpp:148] Top shape: 24 832 7 7 (978432)
I0403 21:52:17.387831 24534 net.cpp:156] Memory required for data: 1304469024
I0403 21:52:17.387846 24534 layer_factory.hpp:77] Creating layer inception_5a/pool_proj
I0403 21:52:17.387868 24534 net.cpp:91] Creating Layer inception_5a/pool_proj
I0403 21:52:17.387888 24534 net.cpp:425] inception_5a/pool_proj <- inception_5a/pool
I0403 21:52:17.387907 24534 net.cpp:399] inception_5a/pool_proj -> inception_5a/pool_proj
I0403 21:52:17.390156 24534 net.cpp:141] Setting up inception_5a/pool_proj
I0403 21:52:17.390187 24534 net.cpp:148] Top shape: 24 128 7 7 (150528)
I0403 21:52:17.390208 24534 net.cpp:156] Memory required for data: 1305071136
I0403 21:52:17.390228 24534 layer_factory.hpp:77] Creating layer inception_5a/relu_pool_proj
I0403 21:52:17.390249 24534 net.cpp:91] Creating Layer inception_5a/relu_pool_proj
I0403 21:52:17.390267 24534 net.cpp:425] inception_5a/relu_pool_proj <- inception_5a/pool_proj
I0403 21:52:17.390285 24534 net.cpp:386] inception_5a/relu_pool_proj -> inception_5a/pool_proj (in-place)
I0403 21:52:17.390573 24534 net.cpp:141] Setting up inception_5a/relu_pool_proj
I0403 21:52:17.390599 24534 net.cpp:148] Top shape: 24 128 7 7 (150528)
I0403 21:52:17.390614 24534 net.cpp:156] Memory required for data: 1305673248
I0403 21:52:17.390630 24534 layer_factory.hpp:77] Creating layer inception_5a/output
I0403 21:52:17.390650 24534 net.cpp:91] Creating Layer inception_5a/output
I0403 21:52:17.390668 24534 net.cpp:425] inception_5a/output <- inception_5a/1x1
I0403 21:52:17.390686 24534 net.cpp:425] inception_5a/output <- inception_5a/3x3
I0403 21:52:17.390702 24534 net.cpp:425] inception_5a/output <- inception_5a/5x5
I0403 21:52:17.390719 24534 net.cpp:425] inception_5a/output <- inception_5a/pool_proj
I0403 21:52:17.390738 24534 net.cpp:399] inception_5a/output -> inception_5a/output
I0403 21:52:17.390789 24534 net.cpp:141] Setting up inception_5a/output
I0403 21:52:17.390813 24534 net.cpp:148] Top shape: 24 832 7 7 (978432)
I0403 21:52:17.390830 24534 net.cpp:156] Memory required for data: 1309586976
I0403 21:52:17.390846 24534 layer_factory.hpp:77] Creating layer inception_5a/output_inception_5a/output_0_split
I0403 21:52:17.390862 24534 net.cpp:91] Creating Layer inception_5a/output_inception_5a/output_0_split
I0403 21:52:17.390879 24534 net.cpp:425] inception_5a/output_inception_5a/output_0_split <- inception_5a/output
I0403 21:52:17.390900 24534 net.cpp:399] inception_5a/output_inception_5a/output_0_split -> inception_5a/output_inception_5a/output_0_split_0
I0403 21:52:17.390920 24534 net.cpp:399] inception_5a/output_inception_5a/output_0_split -> inception_5a/output_inception_5a/output_0_split_1
I0403 21:52:17.390943 24534 net.cpp:399] inception_5a/output_inception_5a/output_0_split -> inception_5a/output_inception_5a/output_0_split_2
I0403 21:52:17.390964 24534 net.cpp:399] inception_5a/output_inception_5a/output_0_split -> inception_5a/output_inception_5a/output_0_split_3
I0403 21:52:17.391077 24534 net.cpp:141] Setting up inception_5a/output_inception_5a/output_0_split
I0403 21:52:17.391103 24534 net.cpp:148] Top shape: 24 832 7 7 (978432)
I0403 21:52:17.391121 24534 net.cpp:148] Top shape: 24 832 7 7 (978432)
I0403 21:52:17.391137 24534 net.cpp:148] Top shape: 24 832 7 7 (978432)
I0403 21:52:17.391152 24534 net.cpp:148] Top shape: 24 832 7 7 (978432)
I0403 21:52:17.391166 24534 net.cpp:156] Memory required for data: 1325241888
I0403 21:52:17.391191 24534 layer_factory.hpp:77] Creating layer inception_5b/1x1
I0403 21:52:17.391218 24534 net.cpp:91] Creating Layer inception_5b/1x1
I0403 21:52:17.391238 24534 net.cpp:425] inception_5b/1x1 <- inception_5a/output_inception_5a/output_0_split_0
I0403 21:52:17.391261 24534 net.cpp:399] inception_5b/1x1 -> inception_5b/1x1
I0403 21:52:17.395040 24534 net.cpp:141] Setting up inception_5b/1x1
I0403 21:52:17.395071 24534 net.cpp:148] Top shape: 24 384 7 7 (451584)
I0403 21:52:17.395089 24534 net.cpp:156] Memory required for data: 1327048224
I0403 21:52:17.395108 24534 layer_factory.hpp:77] Creating layer inception_5b/relu_1x1
I0403 21:52:17.395130 24534 net.cpp:91] Creating Layer inception_5b/relu_1x1
I0403 21:52:17.395148 24534 net.cpp:425] inception_5b/relu_1x1 <- inception_5b/1x1
I0403 21:52:17.395166 24534 net.cpp:386] inception_5b/relu_1x1 -> inception_5b/1x1 (in-place)
I0403 21:52:17.395479 24534 net.cpp:141] Setting up inception_5b/relu_1x1
I0403 21:52:17.395506 24534 net.cpp:148] Top shape: 24 384 7 7 (451584)
I0403 21:52:17.395522 24534 net.cpp:156] Memory required for data: 1328854560
I0403 21:52:17.395539 24534 layer_factory.hpp:77] Creating layer inception_5b/3x3_reduce
I0403 21:52:17.395562 24534 net.cpp:91] Creating Layer inception_5b/3x3_reduce
I0403 21:52:17.395582 24534 net.cpp:425] inception_5b/3x3_reduce <- inception_5a/output_inception_5a/output_0_split_1
I0403 21:52:17.395604 24534 net.cpp:399] inception_5b/3x3_reduce -> inception_5b/3x3_reduce
I0403 21:52:17.398299 24534 net.cpp:141] Setting up inception_5b/3x3_reduce
I0403 21:52:17.398330 24534 net.cpp:148] Top shape: 24 192 7 7 (225792)
I0403 21:52:17.398347 24534 net.cpp:156] Memory required for data: 1329757728
I0403 21:52:17.398366 24534 layer_factory.hpp:77] Creating layer inception_5b/relu_3x3_reduce
I0403 21:52:17.398388 24534 net.cpp:91] Creating Layer inception_5b/relu_3x3_reduce
I0403 21:52:17.398406 24534 net.cpp:425] inception_5b/relu_3x3_reduce <- inception_5b/3x3_reduce
I0403 21:52:17.398425 24534 net.cpp:386] inception_5b/relu_3x3_reduce -> inception_5b/3x3_reduce (in-place)
I0403 21:52:17.398615 24534 net.cpp:141] Setting up inception_5b/relu_3x3_reduce
I0403 21:52:17.398643 24534 net.cpp:148] Top shape: 24 192 7 7 (225792)
I0403 21:52:17.398660 24534 net.cpp:156] Memory required for data: 1330660896
I0403 21:52:17.398676 24534 layer_factory.hpp:77] Creating layer inception_5b/3x3
I0403 21:52:17.398704 24534 net.cpp:91] Creating Layer inception_5b/3x3
I0403 21:52:17.398721 24534 net.cpp:425] inception_5b/3x3 <- inception_5b/3x3_reduce
I0403 21:52:17.398746 24534 net.cpp:399] inception_5b/3x3 -> inception_5b/3x3
I0403 21:52:17.405508 24534 net.cpp:141] Setting up inception_5b/3x3
I0403 21:52:17.405537 24534 net.cpp:148] Top shape: 24 384 7 7 (451584)
I0403 21:52:17.405555 24534 net.cpp:156] Memory required for data: 1332467232
I0403 21:52:17.405573 24534 layer_factory.hpp:77] Creating layer inception_5b/relu_3x3
I0403 21:52:17.405594 24534 net.cpp:91] Creating Layer inception_5b/relu_3x3
I0403 21:52:17.405612 24534 net.cpp:425] inception_5b/relu_3x3 <- inception_5b/3x3
I0403 21:52:17.405632 24534 net.cpp:386] inception_5b/relu_3x3 -> inception_5b/3x3 (in-place)
I0403 21:52:17.405928 24534 net.cpp:141] Setting up inception_5b/relu_3x3
I0403 21:52:17.405956 24534 net.cpp:148] Top shape: 24 384 7 7 (451584)
I0403 21:52:17.405973 24534 net.cpp:156] Memory required for data: 1334273568
I0403 21:52:17.405988 24534 layer_factory.hpp:77] Creating layer inception_5b/5x5_reduce
I0403 21:52:17.406043 24534 net.cpp:91] Creating Layer inception_5b/5x5_reduce
I0403 21:52:17.406064 24534 net.cpp:425] inception_5b/5x5_reduce <- inception_5a/output_inception_5a/output_0_split_2
I0403 21:52:17.406085 24534 net.cpp:399] inception_5b/5x5_reduce -> inception_5b/5x5_reduce
I0403 21:52:17.407378 24534 net.cpp:141] Setting up inception_5b/5x5_reduce
I0403 21:52:17.407409 24534 net.cpp:148] Top shape: 24 48 7 7 (56448)
I0403 21:52:17.407428 24534 net.cpp:156] Memory required for data: 1334499360
I0403 21:52:17.407449 24534 layer_factory.hpp:77] Creating layer inception_5b/relu_5x5_reduce
I0403 21:52:17.407467 24534 net.cpp:91] Creating Layer inception_5b/relu_5x5_reduce
I0403 21:52:17.407485 24534 net.cpp:425] inception_5b/relu_5x5_reduce <- inception_5b/5x5_reduce
I0403 21:52:17.407502 24534 net.cpp:386] inception_5b/relu_5x5_reduce -> inception_5b/5x5_reduce (in-place)
I0403 21:52:17.407877 24534 net.cpp:141] Setting up inception_5b/relu_5x5_reduce
I0403 21:52:17.407905 24534 net.cpp:148] Top shape: 24 48 7 7 (56448)
I0403 21:52:17.407923 24534 net.cpp:156] Memory required for data: 1334725152
I0403 21:52:17.407939 24534 layer_factory.hpp:77] Creating layer inception_5b/5x5
I0403 21:52:17.407960 24534 net.cpp:91] Creating Layer inception_5b/5x5
I0403 21:52:17.407979 24534 net.cpp:425] inception_5b/5x5 <- inception_5b/5x5_reduce
I0403 21:52:17.408000 24534 net.cpp:399] inception_5b/5x5 -> inception_5b/5x5
I0403 21:52:17.410075 24534 net.cpp:141] Setting up inception_5b/5x5
I0403 21:52:17.410105 24534 net.cpp:148] Top shape: 24 128 7 7 (150528)
I0403 21:52:17.410125 24534 net.cpp:156] Memory required for data: 1335327264
I0403 21:52:17.410143 24534 layer_factory.hpp:77] Creating layer inception_5b/relu_5x5
I0403 21:52:17.410162 24534 net.cpp:91] Creating Layer inception_5b/relu_5x5
I0403 21:52:17.410181 24534 net.cpp:425] inception_5b/relu_5x5 <- inception_5b/5x5
I0403 21:52:17.410204 24534 net.cpp:386] inception_5b/relu_5x5 -> inception_5b/5x5 (in-place)
I0403 21:52:17.410395 24534 net.cpp:141] Setting up inception_5b/relu_5x5
I0403 21:52:17.410421 24534 net.cpp:148] Top shape: 24 128 7 7 (150528)
I0403 21:52:17.410436 24534 net.cpp:156] Memory required for data: 1335929376
I0403 21:52:17.410452 24534 layer_factory.hpp:77] Creating layer inception_5b/pool
I0403 21:52:17.410471 24534 net.cpp:91] Creating Layer inception_5b/pool
I0403 21:52:17.410488 24534 net.cpp:425] inception_5b/pool <- inception_5a/output_inception_5a/output_0_split_3
I0403 21:52:17.410511 24534 net.cpp:399] inception_5b/pool -> inception_5b/pool
I0403 21:52:17.410591 24534 net.cpp:141] Setting up inception_5b/pool
I0403 21:52:17.410615 24534 net.cpp:148] Top shape: 24 832 7 7 (978432)
I0403 21:52:17.410631 24534 net.cpp:156] Memory required for data: 1339843104
I0403 21:52:17.410646 24534 layer_factory.hpp:77] Creating layer inception_5b/pool_proj
I0403 21:52:17.410670 24534 net.cpp:91] Creating Layer inception_5b/pool_proj
I0403 21:52:17.410689 24534 net.cpp:425] inception_5b/pool_proj <- inception_5b/pool
I0403 21:52:17.410708 24534 net.cpp:399] inception_5b/pool_proj -> inception_5b/pool_proj
I0403 21:52:17.412974 24534 net.cpp:141] Setting up inception_5b/pool_proj
I0403 21:52:17.413007 24534 net.cpp:148] Top shape: 24 128 7 7 (150528)
I0403 21:52:17.413023 24534 net.cpp:156] Memory required for data: 1340445216
I0403 21:52:17.413043 24534 layer_factory.hpp:77] Creating layer inception_5b/relu_pool_proj
I0403 21:52:17.413060 24534 net.cpp:91] Creating Layer inception_5b/relu_pool_proj
I0403 21:52:17.413077 24534 net.cpp:425] inception_5b/relu_pool_proj <- inception_5b/pool_proj
I0403 21:52:17.413094 24534 net.cpp:386] inception_5b/relu_pool_proj -> inception_5b/pool_proj (in-place)
I0403 21:52:17.413388 24534 net.cpp:141] Setting up inception_5b/relu_pool_proj
I0403 21:52:17.413419 24534 net.cpp:148] Top shape: 24 128 7 7 (150528)
I0403 21:52:17.413435 24534 net.cpp:156] Memory required for data: 1341047328
I0403 21:52:17.413451 24534 layer_factory.hpp:77] Creating layer inception_5b/output
I0403 21:52:17.413468 24534 net.cpp:91] Creating Layer inception_5b/output
I0403 21:52:17.413501 24534 net.cpp:425] inception_5b/output <- inception_5b/1x1
I0403 21:52:17.413519 24534 net.cpp:425] inception_5b/output <- inception_5b/3x3
I0403 21:52:17.413537 24534 net.cpp:425] inception_5b/output <- inception_5b/5x5
I0403 21:52:17.413554 24534 net.cpp:425] inception_5b/output <- inception_5b/pool_proj
I0403 21:52:17.413573 24534 net.cpp:399] inception_5b/output -> inception_5b/output
I0403 21:52:17.413627 24534 net.cpp:141] Setting up inception_5b/output
I0403 21:52:17.413651 24534 net.cpp:148] Top shape: 24 1024 7 7 (1204224)
I0403 21:52:17.413667 24534 net.cpp:156] Memory required for data: 1345864224
I0403 21:52:17.413682 24534 layer_factory.hpp:77] Creating layer pool5/7x7_s1
I0403 21:52:17.413703 24534 net.cpp:91] Creating Layer pool5/7x7_s1
I0403 21:52:17.413722 24534 net.cpp:425] pool5/7x7_s1 <- inception_5b/output
I0403 21:52:17.413740 24534 net.cpp:399] pool5/7x7_s1 -> pool5/7x7_s1
I0403 21:52:17.413949 24534 net.cpp:141] Setting up pool5/7x7_s1
I0403 21:52:17.413976 24534 net.cpp:148] Top shape: 24 1024 1 1 (24576)
I0403 21:52:17.413992 24534 net.cpp:156] Memory required for data: 1345962528
I0403 21:52:17.414008 24534 layer_factory.hpp:77] Creating layer pool5/drop_7x7_s1
I0403 21:52:17.414027 24534 net.cpp:91] Creating Layer pool5/drop_7x7_s1
I0403 21:52:17.414044 24534 net.cpp:425] pool5/drop_7x7_s1 <- pool5/7x7_s1
I0403 21:52:17.414062 24534 net.cpp:386] pool5/drop_7x7_s1 -> pool5/7x7_s1 (in-place)
I0403 21:52:17.414113 24534 net.cpp:141] Setting up pool5/drop_7x7_s1
I0403 21:52:17.414136 24534 net.cpp:148] Top shape: 24 1024 1 1 (24576)
I0403 21:52:17.414152 24534 net.cpp:156] Memory required for data: 1346060832
I0403 21:52:17.414168 24534 layer_factory.hpp:77] Creating layer loss3/classifier_plantvillage
I0403 21:52:17.414189 24534 net.cpp:91] Creating Layer loss3/classifier_plantvillage
I0403 21:52:17.414211 24534 net.cpp:425] loss3/classifier_plantvillage <- pool5/7x7_s1
I0403 21:52:17.414232 24534 net.cpp:399] loss3/classifier_plantvillage -> loss3/classifier_plantvillage
I0403 21:52:17.414654 24534 net.cpp:141] Setting up loss3/classifier_plantvillage
I0403 21:52:17.414677 24534 net.cpp:148] Top shape: 24 38 (912)
I0403 21:52:17.414693 24534 net.cpp:156] Memory required for data: 1346064480
I0403 21:52:17.414711 24534 layer_factory.hpp:77] Creating layer loss3/classifier_plantvillage_loss3/classifier_plantvillage_0_split
I0403 21:52:17.414729 24534 net.cpp:91] Creating Layer loss3/classifier_plantvillage_loss3/classifier_plantvillage_0_split
I0403 21:52:17.414746 24534 net.cpp:425] loss3/classifier_plantvillage_loss3/classifier_plantvillage_0_split <- loss3/classifier_plantvillage
I0403 21:52:17.414767 24534 net.cpp:399] loss3/classifier_plantvillage_loss3/classifier_plantvillage_0_split -> loss3/classifier_plantvillage_loss3/classifier_plantvillage_0_split_0
I0403 21:52:17.414789 24534 net.cpp:399] loss3/classifier_plantvillage_loss3/classifier_plantvillage_0_split -> loss3/classifier_plantvillage_loss3/classifier_plantvillage_0_split_1
I0403 21:52:17.414811 24534 net.cpp:399] loss3/classifier_plantvillage_loss3/classifier_plantvillage_0_split -> loss3/classifier_plantvillage_loss3/classifier_plantvillage_0_split_2
I0403 21:52:17.414834 24534 net.cpp:399] loss3/classifier_plantvillage_loss3/classifier_plantvillage_0_split -> loss3/classifier_plantvillage_loss3/classifier_plantvillage_0_split_3
I0403 21:52:17.414938 24534 net.cpp:141] Setting up loss3/classifier_plantvillage_loss3/classifier_plantvillage_0_split
I0403 21:52:17.414963 24534 net.cpp:148] Top shape: 24 38 (912)
I0403 21:52:17.414979 24534 net.cpp:148] Top shape: 24 38 (912)
I0403 21:52:17.414995 24534 net.cpp:148] Top shape: 24 38 (912)
I0403 21:52:17.415011 24534 net.cpp:148] Top shape: 24 38 (912)
I0403 21:52:17.415026 24534 net.cpp:156] Memory required for data: 1346079072
I0403 21:52:17.415041 24534 layer_factory.hpp:77] Creating layer loss1/loss
I0403 21:52:17.415062 24534 net.cpp:91] Creating Layer loss1/loss
I0403 21:52:17.415081 24534 net.cpp:425] loss1/loss <- loss1/classifier_plantvillage_loss1/classifier_plantvillage_0_split_0
I0403 21:52:17.415112 24534 net.cpp:425] loss1/loss <- label_data_1_split_0
…
