…
I0403 21:40:50.953244 23855 net.cpp:313] The NetState phase (1) differed from the phase (0) specified by a rule in layer data
I0403 21:40:50.954362 23855 net.cpp:49] Initializing net from parameters: 
state {
  phase: TEST
}
layer {
  name: "data"
  type: "Data"
  top: "data"
  top: "label"
  include {
    phase: TEST
  }
  transform_param {
    mirror: false
    crop_size: 224
    mean_file: "/home/mohanty/data/final_dataset/lmdb/segmented-80-20/mean.binaryproto"
  }
  data_param {
    source: "/home/mohanty/data/final_dataset/lmdb/segmented-80-20/test_db"
    batch_size: 24
    backend: LMDB
  }
}
layer {
  name: "conv1/7x7_s2"
  type: "Convolution"
  bottom: "data"
  top: "conv1/7x7_s2"
  param {
    lr_mult: 1
    decay_mult: 1
  }
  param {
    lr_mult: 2
    decay_mult: 0
  }
  convolution_param {
    num_output: 64
    pad: 3
    kernel_size: 7
    stride: 2
    weight_filler {
      type: "xavier"
      std: 0.1
    }
    bias_filler {
      type: "constant"
      value: 0.2
    }
  }
}
layer {
  name: "conv1/relu_7x7"
  type: "ReLU"
  bottom: "conv1/7x7_s2"
  top: "conv1/7x7_s2"
}
layer {
  name: "pool1/3x3_s2"
  type: "Pooling"
  bottom: "conv1/7x7_s2"
  top: "pool1/3x3_s2"
  pooling_param {
    pool: MAX
    kernel_size: 3
    stride: 2
  }
}
layer {
  name: "pool1/norm1"
  type: "LRN"
  bottom: "pool1/3x3_s2"
  top: "pool1/norm1"
  lrn_param {
    local_size: 5
    alpha: 0.0001
    beta: 0.75
  }
}
layer {
  name: "conv2/3x3_reduce"
  type: "Convolution"
  bottom: "pool1/norm1"
  top: "conv2/3x3_reduce"
  param {
    lr_mult: 1
    decay_mult: 1
  }
  param {
    lr_mult: 2
    decay_mult: 0
  }
  convolution_param {
    num_output: 64
    kernel_size: 1
    weight_filler {
      type: "xavier"
      std: 0.1
    }
    bias_filler {
      type: "constant"
      value: 0.2
    }
  }
}
layer {
  name: "conv2/relu_3x3_reduce"
  type: "ReLU"
  bottom: "conv2/3x3_reduce"
  top: "conv2/3x3_reduce"
}
layer {
  name: "conv2/3x3"
  type: "Convolution"
  bottom: "conv2/3x3_reduce"
  top: "conv2/3x3"
  param {
    lr_mult: 1
    decay_mult: 1
  }
  param {
    lr_mult: 2
    decay_mult: 0
  }
  convolution_param {
    num_output: 192
    pad: 1
    kernel_size: 3
    weight_filler {
      type: "xavier"
      std: 0.03
    }
    bias_filler {
      type: "constant"
      value: 0.2
    }
  }
}
layer {
  name: "conv2/relu_3x3"
  type: "ReLU"
  bottom: "conv2/3x3"
  top: "conv2/3x3"
}
layer {
  name: "conv2/norm2"
  type: "LRN"
  bottom: "conv2/3x3"
  top: "conv2/norm2"
  lrn_param {
    local_size: 5
    alpha: 0.0001
    beta: 0.75
  }
}
layer {
  name: "pool2/3x3_s2"
  type: "Pooling"
  bottom: "conv2/norm2"
  top: "pool2/3x3_s2"
  pooling_param {
    pool: MAX
    kernel_size: 3
    stride: 2
  }
}
layer {
  name: "inception_3a/1x1"
  type: "Convolution"
  bottom: "pool2/3x3_s2"
  top: "inception_3a/1x1"
  param {
    lr_mult: 1
    decay_mult: 1
  }
  param {
    lr_mult: 2
    decay_mult: 0
  }
  convolution_param {
    num_output: 64
    kernel_size: 1
    weight_filler {
      type: "xavier"
      std: 0.03
    }
    bias_filler {
      type: "constant"
      value: 0.2
    }
  }
}
layer {
  name: "inception_3a/relu_1x1"
  type: "ReLU"
  bottom: "inception_3a/1x1"
  top: "inception_3a/1x1"
}
layer {
  name: "inception_3a/3x3_reduce"
  type: "Convolution"
  bottom: "pool2/3x3_s2"
  top: "inception_3a/3x3_reduce"
  param {
    lr_mult: 1
    decay_mult: 1
  }
  param {
    lr_mult: 2
    decay_mult: 0
  }
  convolution_param {
    num_output: 96
    kernel_size: 1
    weight_filler {
      type: "xavier"
      std: 0.09
    }
    bias_filler {
      type: "constant"
      value: 0.2
    }
  }
}
layer {
  name: "inception_3a/relu_3x3_reduce"
  type: "ReLU"
  bottom: "inception_3a/3x3_reduce"
  top: "inception_3a/3x3_reduce"
}
layer {
  name: "inception_3a/3x3"
  type: "Convolution"
  bottom: "inception_3a/3x3_reduce"
  top: "inception_3a/3x3"
  param {
    lr_mult: 1
    decay_mult: 1
  }
  param {
    lr_mult: 2
    decay_mult: 0
  }
  convolution_param {
    num_output: 128
    pad: 1
    kernel_size: 3
    weight_filler {
      type: "xavier"
      std: 0.03
    }
    bias_filler {
      type: "constant"
      value: 0.2
    }
  }
}
layer {
  name: "inception_3a/relu_3x3"
  type: "ReLU"
  bottom: "inception_3a/3x3"
  top: "inception_3a/3x3"
}
layer {
  name: "inception_3a/5x5_reduce"
  type: "Convolution"
  bottom: "pool2/3x3_s2"
  top: "inception_3a/5x5_reduce"
  param {
    lr_mult: 1
    decay_mult: 1
  }
  param {
    lr_mult: 2
    decay_mult: 0
  }
  convolution_param {
    num_output: 16
    kernel_size: 1
    weight_filler {
      type: "xavier"
      std: 0.2
    }
    bias_filler {
      type: "constant"
      value: 0.2
    }
  }
}
layer {
  name: "inception_3a/relu_5x5_reduce"
  type: "ReLU"
  bottom: "inception_3a/5x5_reduce"
  top: "inception_3a/5x5_reduce"
}
layer {
  name: "inception_3a/5x5"
  type: "Convolution"
  bottom: "inception_3a/5x5_reduce"
  top: "inception_3a/5x5"
  param {
    lr_mult: 1
    decay_mult: 1
  }
  param {
    lr_mult: 2
    decay_mult: 0
  }
  convolution_param {
    num_output: 32
    pad: 2
    kernel_size: 5
    weight_filler {
      type: "xavier"
      std: 0.03
    }
    bias_filler {
      type: "constant"
      value: 0.2
    }
  }
}
layer {
  name: "inception_3a/relu_5x5"
  type: "ReLU"
  bottom: "inception_3a/5x5"
  top: "inception_3a/5x5"
}
layer {
  name: "inception_3a/pool"
  type: "Pooling"
  bottom: "pool2/3x3_s2"
  top: "inception_3a/pool"
  pooling_param {
    pool: MAX
    kernel_size: 3
    stride: 1
    pad: 1
  }
}
layer {
  name: "inception_3a/pool_proj"
  type: "Convolution"
  bottom: "inception_3a/pool"
  top: "inception_3a/pool_proj"
  param {
    lr_mult: 1
    decay_mult: 1
  }
  param {
    lr_mult: 2
    decay_mult: 0
  }
  convolution_param {
    num_output: 32
    kernel_size: 1
    weight_filler {
      type: "xavier"
      std: 0.1
    }
    bias_filler {
      type: "constant"
      value: 0.2
    }
  }
}
layer {
  name: "inception_3a/relu_pool_proj"
  type: "ReLU"
  bottom: "inception_3a/pool_proj"
  top: "inception_3a/pool_proj"
}
layer {
  name: "inception_3a/output"
  type: "Concat"
  bottom: "inception_3a/1x1"
  bottom: "inception_3a/3x3"
  bottom: "inception_3a/5x5"
  bottom: "inception_3a/pool_proj"
  top: "inception_3a/output"
}
layer {
  name: "inception_3b/1x1"
  type: "Convolution"
  bottom: "inception_3a/output"
  top: "inception_3b/1x1"
  param {
    lr_mult: 1
    decay_mult: 1
  }
  param {
    lr_mult: 2
    decay_mult: 0
  }
  convolution_param {
    num_output: 128
    kernel_size: 1
    weight_filler {
      type: "xavier"
      std: 0.03
    }
    bias_filler {
      type: "constant"
      value: 0.2
    }
  }
}
layer {
  name: "inception_3b/relu_1x1"
  type: "ReLU"
  bottom: "inception_3b/1x1"
  top: "inception_3b/1x1"
}
layer {
  name: "inception_3b/3x3_reduce"
  type: "Convolution"
  bottom: "inception_3a/output"
  top: "inception_3b/3x3_reduce"
  param {
    lr_mult: 1
    decay_mult: 1
  }
  param {
    lr_mult: 2
    decay_mult: 0
  }
  convolution_param {
    num_output: 128
    kernel_size: 1
    weight_filler {
      type: "xavier"
      std: 0.09
    }
    bias_filler {
      type: "constant"
      value: 0.2
    }
  }
}
layer {
  name: "inception_3b/relu_3x3_reduce"
  type: "ReLU"
  bottom: "inception_3b/3x3_reduce"
  top: "inception_3b/3x3_reduce"
}
layer {
  name: "inception_3b/3x3"
  type: "Convolution"
  bottom: "inception_3b/3x3_reduce"
  top: "inception_3b/3x3"
  param {
    lr_mult: 1
    decay_mult: 1
  }
  param {
    lr_mult: 2
    decay_mult: 0
  }
  convolution_param {
    num_output: 192
    pad: 1
    kernel_size: 3
    weight_filler {
      type: "xavier"
      std: 0.03
    }
    bias_filler {
      type: "constant"
      value: 0.2
    }
  }
}
layer {
  name: "inception_3b/relu_3x3"
  type: "ReLU"
  bottom: "inception_3b/3x3"
  top: "inception_3b/3x3"
}
layer {
  name: "inception_3b/5x5_reduce"
  type: "Convolution"
  bottom: "inception_3a/output"
  top: "inception_3b/5x5_reduce"
  param {
    lr_mult: 1
    decay_mult: 1
  }
  param {
    lr_mult: 2
    decay_mult: 0
  }
  convolution_param {
    num_output: 32
    kernel_size: 1
    weight_filler {
      type: "xavier"
      std: 0.2
    }
    bias_filler {
      type: "constant"
      value: 0.2
    }
  }
}
layer {
  name: "inception_3b/relu_5x5_reduce"
  type: "ReLU"
  bottom: "inception_3b/5x5_reduce"
  top: "inception_3b/5x5_reduce"
}
layer {
  name: "inception_3b/5x5"
  type: "Convolution"
  bottom: "inception_3b/5x5_reduce"
  top: "inception_3b/5x5"
  param {
    lr_mult: 1
    decay_mult: 1
  }
  param {
    lr_mult: 2
    decay_mult: 0
  }
  convolution_param {
    num_output: 96
    pad: 2
    kernel_size: 5
    weight_filler {
      type: "xavier"
      std: 0.03
    }
    bias_filler {
      type: "constant"
      value: 0.2
    }
  }
}
layer {
  name: "inception_3b/relu_5x5"
  type: "ReLU"
  bottom: "inception_3b/5x5"
  top: "inception_3b/5x5"
}
layer {
  name: "inception_3b/pool"
  type: "Pooling"
  bottom: "inception_3a/output"
  top: "inception_3b/pool"
  pooling_param {
    pool: MAX
    kernel_size: 3
    stride: 1
    pad: 1
  }
}
layer {
  name: "inception_3b/pool_proj"
  type: "Convolution"
  bottom: "inception_3b/pool"
  top: "inception_3b/pool_proj"
  param {
    lr_mult: 1
    decay_mult: 1
  }
  param {
    lr_mult: 2
    decay_mult: 0
  }
  convolution_param {
    num_output: 64
    kernel_size: 1
    weight_filler {
      type: "xavier"
      std: 0.1
    }
    bias_filler {
      type: "constant"
      value: 0.2
    }
  }
}
layer {
  name: "inception_3b/relu_pool_proj"
  type: "ReLU"
  bottom: "inception_3b/pool_proj"
  top: "inception_3b/pool_proj"
}
layer {
  name: "inception_3b/output"
  type: "Concat"
  bottom: "inception_3b/1x1"
  bottom: "inception_3b/3x3"
  bottom: "inception_3b/5x5"
  bottom: "inception_3b/pool_proj"
  top: "inception_3b/output"
}
layer {
  name: "pool3/3x3_s2"
  type: "Pooling"
  bottom: "inception_3b/output"
  top: "pool3/3x3_s2"
  pooling_param {
    pool: MAX
    kernel_size: 3
    stride: 2
  }
}
layer {
  name: "inception_4a/1x1"
  type: "Convolution"
  bottom: "pool3/3x3_s2"
  top: "inception_4a/1x1"
  param {
    lr_mult: 1
    decay_mult: 1
  }
  param {
    lr_mult: 2
    decay_mult: 0
  }
  convolution_param {
    num_output: 192
    kernel_size: 1
    weight_filler {
      type: "xavier"
      std: 0.03
    }
    bias_filler {
      type: "constant"
      value: 0.2
    }
  }
}
layer {
  name: "inception_4a/relu_1x1"
  type: "ReLU"
  bottom: "inception_4a/1x1"
  top: "inception_4a/1x1"
}
layer {
  name: "inception_4a/3x3_reduce"
  type: "Convolution"
  bottom: "pool3/3x3_s2"
  top: "inception_4a/3x3_reduce"
  param {
    lr_mult: 1
    decay_mult: 1
  }
  param {
    lr_mult: 2
    decay_mult: 0
  }
  convolution_param {
    num_output: 96
    kernel_size: 1
    weight_filler {
      type: "xavier"
      std: 0.09
    }
    bias_filler {
      type: "constant"
      value: 0.2
    }
  }
}
layer {
  name: "inception_4a/relu_3x3_reduce"
  type: "ReLU"
  bottom: "inception_4a/3x3_reduce"
  top: "inception_4a/3x3_reduce"
}
layer {
  name: "inception_4a/3x3"
  type: "Convolution"
  bottom: "inception_4a/3x3_reduce"
  top: "inception_4a/3x3"
  param {
    lr_mult: 1
    decay_mult: 1
  }
  param {
    lr_mult: 2
    decay_mult: 0
  }
  convolution_param {
    num_output: 208
    pad: 1
    kernel_size: 3
    weight_filler {
      type: "xavier"
      std: 0.03
    }
    bias_filler {
      type: "constant"
      value: 0.2
    }
  }
}
layer {
  name: "inception_4a/relu_3x3"
  type: "ReLU"
  bottom: "inception_4a/3x3"
  top: "inception_4a/3x3"
}
layer {
  name: "inception_4a/5x5_reduce"
  type: "Convolution"
  bottom: "pool3/3x3_s2"
  top: "inception_4a/5x5_reduce"
  param {
    lr_mult: 1
    decay_mult: 1
  }
  param {
    lr_mult: 2
    decay_mult: 0
  }
  convolution_param {
    num_output: 16
    kernel_size: 1
    weight_filler {
      type: "xavier"
      std: 0.2
    }
    bias_filler {
      type: "constant"
      value: 0.2
    }
  }
}
layer {
  name: "inception_4a/relu_5x5_reduce"
  type: "ReLU"
  bottom: "inception_4a/5x5_reduce"
  top: "inception_4a/5x5_reduce"
}
layer {
  name: "inception_4a/5x5"
  type: "Convolution"
  bottom: "inception_4a/5x5_reduce"
  top: "inception_4a/5x5"
  param {
    lr_mult: 1
    decay_mult: 1
  }
  param {
    lr_mult: 2
    decay_mult: 0
  }
  convolution_param {
    num_output: 48
    pad: 2
    kernel_size: 5
    weight_filler {
      type: "xavier"
      std: 0.03
    }
    bias_filler {
      type: "constant"
      value: 0.2
    }
  }
}
layer {
  name: "inception_4a/relu_5x5"
  type: "ReLU"
  bottom: "inception_4a/5x5"
  top: "inception_4a/5x5"
}
layer {
  name: "inception_4a/pool"
  type: "Pooling"
  bottom: "pool3/3x3_s2"
  top: "inception_4a/pool"
  pooling_param {
    pool: MAX
    kernel_size: 3
    stride: 1
    pad: 1
  }
}
layer {
  name: "inception_4a/pool_proj"
  type: "Convolution"
  bottom: "inception_4a/pool"
  top: "inception_4a/pool_proj"
  param {
    lr_mult: 1
    decay_mult: 1
  }
  param {
    lr_mult: 2
    decay_mult: 0
  }
  convolution_param {
    num_output: 64
    kernel_size: 1
    weight_filler {
      type: "xavier"
      std: 0.1
    }
    bias_filler {
      type: "constant"
      value: 0.2
    }
  }
}
layer {
  name: "inception_4a/relu_pool_proj"
  type: "ReLU"
  bottom: "inception_4a/pool_proj"
  top: "inception_4a/pool_proj"
}
layer {
  name: "inception_4a/output"
  type: "Concat"
  bottom: "inception_4a/1x1"
  bottom: "inception_4a/3x3"
  bottom: "inception_4a/5x5"
  bottom: "inception_4a/pool_proj"
  top: "inception_4a/output"
}
layer {
  name: "loss1/ave_pool"
  type: "Pooling"
  bottom: "inception_4a/output"
  top: "loss1/ave_pool"
  pooling_param {
    pool: AVE
    kernel_size: 5
    stride: 3
  }
}
layer {
  name: "loss1/conv"
  type: "Convolution"
  bottom: "loss1/ave_pool"
  top: "loss1/conv"
  param {
    lr_mult: 1
    decay_mult: 1
  }
  param {
    lr_mult: 2
    decay_mult: 0
  }
  convolution_param {
    num_output: 128
    kernel_size: 1
    weight_filler {
      type: "xavier"
      std: 0.08
    }
    bias_filler {
      type: "constant"
      value: 0.2
    }
  }
}
layer {
  name: "loss1/relu_conv"
  type: "ReLU"
  bottom: "loss1/conv"
  top: "loss1/conv"
}
layer {
  name: "loss1/fc"
  type: "InnerProduct"
  bottom: "loss1/conv"
  top: "loss1/fc"
  param {
    lr_mult: 1
    decay_mult: 1
  }
  param {
    lr_mult: 2
    decay_mult: 0
  }
  inner_product_param {
    num_output: 1024
    weight_filler {
      type: "xavier"
      std: 0.02
    }
    bias_filler {
      type: "constant"
      value: 0.2
    }
  }
}
layer {
  name: "loss1/relu_fc"
  type: "ReLU"
  bottom: "loss1/fc"
  top: "loss1/fc"
}
layer {
  name: "loss1/drop_fc"
  type: "Dropout"
  bottom: "loss1/fc"
  top: "loss1/fc"
  dropout_param {
    dropout_ratio: 0.7
  }
}
layer {
  name: "loss1/classifier_plantvillage"
  type: "InnerProduct"
  bottom: "loss1/fc"
  top: "loss1/classifier_plantvillage"
  param {
    lr_mult: 1
    decay_mult: 1
  }
  param {
    lr_mult: 2
    decay_mult: 0
  }
  inner_product_param {
    num_output: 38
    weight_filler {
      type: "xavier"
      std: 0.0009765625
    }
    bias_filler {
      type: "constant"
      value: 0
    }
  }
}
layer {
  name: "inception_4b/1x1"
  type: "Convolution"
  bottom: "inception_4a/output"
  top: "inception_4b/1x1"
  param {
    lr_mult: 1
    decay_mult: 1
  }
  param {
    lr_mult: 2
    decay_mult: 0
  }
  convolution_param {
    num_output: 160
    kernel_size: 1
    weight_filler {
      type: "xavier"
      std: 0.03
    }
    bias_filler {
      type: "constant"
      value: 0.2
    }
  }
}
layer {
  name: "inception_4b/relu_1x1"
  type: "ReLU"
  bottom: "inception_4b/1x1"
  top: "inception_4b/1x1"
}
layer {
  name: "inception_4b/3x3_reduce"
  type: "Convolution"
  bottom: "inception_4a/output"
  top: "inception_4b/3x3_reduce"
  param {
    lr_mult: 1
    decay_mult: 1
  }
  param {
    lr_mult: 2
    decay_mult: 0
  }
  convolution_param {
    num_output: 112
    kernel_size: 1
    weight_filler {
      type: "xavier"
      std: 0.09
    }
    bias_filler {
      type: "constant"
      value: 0.2
    }
  }
}
layer {
  name: "inception_4b/relu_3x3_reduce"
  type: "ReLU"
  bottom: "inception_4b/3x3_reduce"
  top: "inception_4b/3x3_reduce"
}
layer {
  name: "inception_4b/3x3"
  type: "Convolution"
  bottom: "inception_4b/3x3_reduce"
  top: "inception_4b/3x3"
  param {
    lr_mult: 1
    decay_mult: 1
  }
  param {
    lr_mult: 2
    decay_mult: 0
  }
  convolution_param {
    num_output: 224
    pad: 1
    kernel_size: 3
    weight_filler {
      type: "xavier"
      std: 0.03
    }
    bias_filler {
      type: "constant"
      value: 0.2
    }
  }
}
layer {
  name: "inception_4b/relu_3x3"
  type: "ReLU"
  bottom: "inception_4b/3x3"
  top: "inception_4b/3x3"
}
layer {
  name: "inception_4b/5x5_reduce"
  type: "Convolution"
  bottom: "inception_4a/output"
  top: "inception_4b/5x5_reduce"
  param {
    lr_mult: 1
    decay_mult: 1
  }
  param {
    lr_mult: 2
    decay_mult: 0
  }
  convolution_param {
    num_output: 24
    kernel_size: 1
    weight_filler {
      type: "xavier"
      std: 0.2
    }
    bias_filler {
      type: "constant"
      value: 0.2
    }
  }
}
layer {
  name: "inception_4b/relu_5x5_reduce"
  type: "ReLU"
  bottom: "inception_4b/5x5_reduce"
  top: "inception_4b/5x5_reduce"
}
layer {
  name: "inception_4b/5x5"
  type: "Convolution"
  bottom: "inception_4b/5x5_reduce"
  top: "inception_4b/5x5"
  param {
    lr_mult: 1
    decay_mult: 1
  }
  param {
    lr_mult: 2
    decay_mult: 0
  }
  convolution_param {
    num_output: 64
    pad: 2
    kernel_size: 5
    weight_filler {
      type: "xavier"
      std: 0.03
    }
    bias_filler {
      type: "constant"
      value: 0.2
    }
  }
}
layer {
  name: "inception_4b/relu_5x5"
  type: "ReLU"
  bottom: "inception_4b/5x5"
  top: "inception_4b/5x5"
}
layer {
  name: "inception_4b/pool"
  type: "Pooling"
  bottom: "inception_4a/output"
  top: "inception_4b/pool"
  pooling_param {
    pool: MAX
    kernel_size: 3
    stride: 1
    pad: 1
  }
}
layer {
  name: "inception_4b/pool_proj"
  type: "Convolution"
  bottom: "inception_4b/pool"
  top: "inception_4b/pool_proj"
  param {
    lr_mult: 1
    decay_mult: 1
  }
  param {
    lr_mult: 2
    decay_mult: 0
  }
  convolution_param {
    num_output: 64
    kernel_size: 1
    weight_filler {
      type: "xavier"
      std: 0.1
    }
    bias_filler {
      type: "constant"
      value: 0.2
    }
  }
}
layer {
  name: "inception_4b/relu_pool_proj"
  type: "ReLU"
  bottom: "inception_4b/pool_proj"
  top: "inception_4b/pool_proj"
}
layer {
  name: "inception_4b/output"
  type: "Concat"
  bottom: "inception_4b/1x1"
  bottom: "inception_4b/3x3"
  bottom: "inception_4b/5x5"
  bottom: "inception_4b/pool_proj"
  top: "inception_4b/output"
}
layer {
  name: "inception_4c/1x1"
  type: "Convolution"
  bottom: "inception_4b/output"
  top: "inception_4c/1x1"
  param {
    lr_mult: 1
    decay_mult: 1
  }
  param {
    lr_mult: 2
    decay_mult: 0
  }
  convolution_param {
    num_output: 128
    kernel_size: 1
    weight_filler {
      type: "xavier"
      std: 0.03
    }
    bias_filler {
      type: "constant"
      value: 0.2
    }
  }
}
layer {
  name: "inception_4c/relu_1x1"
  type: "ReLU"
  bottom: "inception_4c/1x1"
  top: "inception_4c/1x1"
}
layer {
  name: "inception_4c/3x3_reduce"
  type: "Convolution"
  bottom: "inception_4b/output"
  top: "inception_4c/3x3_reduce"
  param {
    lr_mult: 1
    decay_mult: 1
  }
  param {
    lr_mult: 2
    decay_mult: 0
  }
  convolution_param {
    num_output: 128
    kernel_size: 1
    weight_filler {
      type: "xavier"
      std: 0.09
    }
    bias_filler {
      type: "constant"
      value: 0.2
    }
  }
}
layer {
  name: "inception_4c/relu_3x3_reduce"
  type: "ReLU"
  bottom: "inception_4c/3x3_reduce"
  top: "inception_4c/3x3_reduce"
}
layer {
  name: "inception_4c/3x3"
  type: "Convolution"
  bottom: "inception_4c/3x3_reduce"
  top: "inception_4c/3x3"
  param {
    lr_mult: 1
    decay_mult: 1
  }
  param {
    lr_mult: 2
    decay_mult: 0
  }
  convolution_param {
    num_output: 256
    pad: 1
    kernel_size: 3
    weight_filler {
      type: "xavier"
      std: 0.03
    }
    bias_filler {
      type: "constant"
      value: 0.2
    }
  }
}
layer {
  name: "inception_4c/relu_3x3"
  type: "ReLU"
  bottom: "inception_4c/3x3"
  top: "inception_4c/3x3"
}
layer {
  name: "inception_4c/5x5_reduce"
  type: "Convolution"
  bottom: "inception_4b/output"
  top: "inception_4c/5x5_reduce"
  param {
    lr_mult: 1
    decay_mult: 1
  }
  param {
    lr_mult: 2
    decay_mult: 0
  }
  convolution_param {
    num_output: 24
    kernel_size: 1
    weight_filler {
      type: "xavier"
      std: 0.2
    }
    bias_filler {
      type: "constant"
      value: 0.2
    }
  }
}
layer {
  name: "inception_4c/relu_5x5_reduce"
  type: "ReLU"
  bottom: "inception_4c/5x5_reduce"
  top: "inception_4c/5x5_reduce"
}
layer {
  name: "inception_4c/5x5"
  type: "Convolution"
  bottom: "inception_4c/5x5_reduce"
  top: "inception_4c/5x5"
  param {
    lr_mult: 1
    decay_mult: 1
  }
  param {
    lr_mult: 2
    decay_mult: 0
  }
  convolution_param {
    num_output: 64
    pad: 2
    kernel_size: 5
    weight_filler {
      type: "xavier"
      std: 0.03
    }
    bias_filler {
      type: "constant"
      value: 0.2
    }
  }
}
layer {
  name: "inception_4c/relu_5x5"
  type: "ReLU"
  bottom: "inception_4c/5x5"
  top: "inception_4c/5x5"
}
layer {
  name: "inception_4c/pool"
  type: "Pooling"
  bottom: "inception_4b/output"
  top: "inception_4c/pool"
  pooling_param {
    pool: MAX
    kernel_size: 3
    stride: 1
    pad: 1
  }
}
layer {
  name: "inception_4c/pool_proj"
  type: "Convolution"
  bottom: "inception_4c/pool"
  top: "inception_4c/pool_proj"
  param {
    lr_mult: 1
    decay_mult: 1
  }
  param {
    lr_mult: 2
    decay_mult: 0
  }
  convolution_param {
    num_output: 64
    kernel_size: 1
    weight_filler {
      type: "xavier"
      std: 0.1
    }
    bias_filler {
      type: "constant"
      value: 0.2
    }
  }
}
layer {
  name: "inception_4c/relu_pool_proj"
  type: "ReLU"
  bottom: "inception_4c/pool_proj"
  top: "inception_4c/pool_proj"
}
layer {
  name: "inception_4c/output"
  type: "Concat"
  bottom: "inception_4c/1x1"
  bottom: "inception_4c/3x3"
  bottom: "inception_4c/5x5"
  bottom: "inception_4c/pool_proj"
  top: "inception_4c/output"
}
layer {
  name: "inception_4d/1x1"
  type: "Convolution"
  bottom: "inception_4c/output"
  top: "inception_4d/1x1"
  param {
    lr_mult: 1
    decay_mult: 1
  }
  param {
    lr_mult: 2
    decay_mult: 0
  }
  convolution_param {
    num_output: 112
    kernel_size: 1
    weight_filler {
      type: "xavier"
      std: 0.03
    }
    bias_filler {
      type: "constant"
      value: 0.2
    }
  }
}
layer {
  name: "inception_4d/relu_1x1"
  type: "ReLU"
  bottom: "inception_4d/1x1"
  top: "inception_4d/1x1"
}
layer {
  name: "inception_4d/3x3_reduce"
  type: "Convolution"
  bottom: "inception_4c/output"
  top: "inception_4d/3x3_reduce"
  param {
    lr_mult: 1
    decay_mult: 1
  }
  param {
    lr_mult: 2
    decay_mult: 0
  }
  convolution_param {
    num_output: 144
    kernel_size: 1
    weight_filler {
      type: "xavier"
      std: 0.09
    }
    bias_filler {
      type: "constant"
      value: 0.2
    }
  }
}
layer {
  name: "inception_4d/relu_3x3_reduce"
  type: "ReLU"
  bottom: "inception_4d/3x3_reduce"
  top: "inception_4d/3x3_reduce"
}
layer {
  name: "inception_4d/3x3"
  type: "Convolution"
  bottom: "inception_4d/3x3_reduce"
  top: "inception_4d/3x3"
  param {
    lr_mult: 1
    decay_mult: 1
  }
  param {
    lr_mult: 2
    decay_mult: 0
  }
  convolution_param {
    num_output: 288
    pad: 1
    kernel_size: 3
    weight_filler {
      type: "xavier"
      std: 0.03
    }
    bias_filler {
      type: "constant"
      value: 0.2
    }
  }
}
layer {
  name: "inception_4d/relu_3x3"
  type: "ReLU"
  bottom: "inception_4d/3x3"
  top: "inception_4d/3x3"
}
layer {
  name: "inception_4d/5x5_reduce"
  type: "Convolution"
  bottom: "inception_4c/output"
  top: "inception_4d/5x5_reduce"
  param {
    lr_mult: 1
    decay_mult: 1
  }
  param {
    lr_mult: 2
    decay_mult: 0
  }
  convolution_param {
    num_output: 32
    kernel_size: 1
    weight_filler {
      type: "xavier"
      std: 0.2
    }
    bias_filler {
      type: "constant"
      value: 0.2
    }
  }
}
layer {
  name: "inception_4d/relu_5x5_reduce"
  type: "ReLU"
  bottom: "inception_4d/5x5_reduce"
  top: "inception_4d/5x5_reduce"
}
layer {
  name: "inception_4d/5x5"
  type: "Convolution"
  bottom: "inception_4d/5x5_reduce"
  top: "inception_4d/5x5"
  param {
    lr_mult: 1
    decay_mult: 1
  }
  param {
    lr_mult: 2
    decay_mult: 0
  }
  convolution_param {
    num_output: 64
    pad: 2
    kernel_size: 5
    weight_filler {
      type: "xavier"
      std: 0.03
    }
    bias_filler {
      type: "constant"
      value: 0.2
    }
  }
}
layer {
  name: "inception_4d/relu_5x5"
  type: "ReLU"
  bottom: "inception_4d/5x5"
  top: "inception_4d/5x5"
}
layer {
  name: "inception_4d/pool"
  type: "Pooling"
  bottom: "inception_4c/output"
  top: "inception_4d/pool"
  pooling_param {
    pool: MAX
    kernel_size: 3
    stride: 1
    pad: 1
  }
}
layer {
  name: "inception_4d/pool_proj"
  type: "Convolution"
  bottom: "inception_4d/pool"
  top: "inception_4d/pool_proj"
  param {
    lr_mult: 1
    decay_mult: 1
  }
  param {
    lr_mult: 2
    decay_mult: 0
  }
  convolution_param {
    num_output: 64
    kernel_size: 1
    weight_filler {
      type: "xavier"
      std: 0.1
    }
    bias_filler {
      type: "constant"
      value: 0.2
    }
  }
}
layer {
  name: "inception_4d/relu_pool_proj"
  type: "ReLU"
  bottom: "inception_4d/pool_proj"
  top: "inception_4d/pool_proj"
}
layer {
  name: "inception_4d/output"
  type: "Concat"
  bottom: "inception_4d/1x1"
  bottom: "inception_4d/3x3"
  bottom: "inception_4d/5x5"
  bottom: "inception_4d/pool_proj"
  top: "inception_4d/output"
}
layer {
  name: "loss2/ave_pool"
  type: "Pooling"
  bottom: "inception_4d/output"
  top: "loss2/ave_pool"
  pooling_param {
    pool: AVE
    kernel_size: 5
    stride: 3
  }
}
layer {
  name: "loss2/conv"
  type: "Convolution"
  bottom: "loss2/ave_pool"
  top: "loss2/conv"
  param {
    lr_mult: 1
    decay_mult: 1
  }
  param {
    lr_mult: 2
    decay_mult: 0
  }
  convolution_param {
    num_output: 128
    kernel_size: 1
    weight_filler {
      type: "xavier"
      std: 0.08
    }
    bias_filler {
      type: "constant"
      value: 0.2
    }
  }
}
layer {
  name: "loss2/relu_conv"
  type: "ReLU"
  bottom: "loss2/conv"
  top: "loss2/conv"
}
layer {
  name: "loss2/fc"
  type: "InnerProduct"
  bottom: "loss2/conv"
  top: "loss2/fc"
  param {
    lr_mult: 1
    decay_mult: 1
  }
  param {
    lr_mult: 2
    decay_mult: 0
  }
  inner_product_param {
    num_output: 1024
    weight_filler {
      type: "xavier"
      std: 0.02
    }
    bias_filler {
      type: "constant"
      value: 0.2
    }
  }
}
layer {
  name: "loss2/relu_fc"
  type: "ReLU"
  bottom: "loss2/fc"
  top: "loss2/fc"
}
layer {
  name: "loss2/drop_fc"
  type: "Dropout"
  bottom: "loss2/fc"
  top: "loss2/fc"
  dropout_param {
    dropout_ratio: 0.7
  }
}
layer {
  name: "loss2/classifier_plantvillage"
  type: "InnerProduct"
  bottom: "loss2/fc"
  top: "loss2/classifier_plantvillage"
  param {
    lr_mult: 1
    decay_mult: 1
  }
  param {
    lr_mult: 2
    decay_mult: 0
  }
  inner_product_param {
    num_output: 38
    weight_filler {
      type: "xavier"
      std: 0.0009765625
    }
    bias_filler {
      type: "constant"
      value: 0
    }
  }
}
layer {
  name: "inception_4e/1x1"
  type: "Convolution"
  bottom: "inception_4d/output"
  top: "inception_4e/1x1"
  param {
    lr_mult: 1
    decay_mult: 1
  }
  param {
    lr_mult: 2
    decay_mult: 0
  }
  convolution_param {
    num_output: 256
    kernel_size: 1
    weight_filler {
      type: "xavier"
      std: 0.03
    }
    bias_filler {
      type: "constant"
      value: 0.2
    }
  }
}
layer {
  name: "inception_4e/relu_1x1"
  type: "ReLU"
  bottom: "inception_4e/1x1"
  top: "inception_4e/1x1"
}
layer {
  name: "inception_4e/3x3_reduce"
  type: "Convolution"
  bottom: "inception_4d/output"
  top: "inception_4e/3x3_reduce"
  param {
    lr_mult: 1
    decay_mult: 1
  }
  param {
    lr_mult: 2
    decay_mult: 0
  }
  convolution_param {
    num_output: 160
    kernel_size: 1
    weight_filler {
      type: "xavier"
      std: 0.09
    }
    bias_filler {
      type: "constant"
      value: 0.2
    }
  }
}
layer {
  name: "inception_4e/relu_3x3_reduce"
  type: "ReLU"
  bottom: "inception_4e/3x3_reduce"
  top: "inception_4e/3x3_reduce"
}
layer {
  name: "inception_4e/3x3"
  type: "Convolution"
  bottom: "inception_4e/3x3_reduce"
  top: "inception_4e/3x3"
  param {
    lr_mult: 1
    decay_mult: 1
  }
  param {
    lr_mult: 2
    decay_mult: 0
  }
  convolution_param {
    num_output: 320
    pad: 1
    kernel_size: 3
    weight_filler {
      type: "xavier"
      std: 0.03
    }
    bias_filler {
      type: "constant"
      value: 0.2
    }
  }
}
layer {
  name: "inception_4e/relu_3x3"
  type: "ReLU"
  bottom: "inception_4e/3x3"
  top: "inception_4e/3x3"
}
layer {
  name: "inception_4e/5x5_reduce"
  type: "Convolution"
  bottom: "inception_4d/output"
  top: "inception_4e/5x5_reduce"
  param {
    lr_mult: 1
    decay_mult: 1
  }
  param {
    lr_mult: 2
    decay_mult: 0
  }
  convolution_param {
    num_output: 32
    kernel_size: 1
    weight_filler {
      type: "xavier"
      std: 0.2
    }
    bias_filler {
      type: "constant"
      value: 0.2
    }
  }
}
layer {
  name: "inception_4e/relu_5x5_reduce"
  type: "ReLU"
  bottom: "inception_4e/5x5_reduce"
  top: "inception_4e/5x5_reduce"
}
layer {
  name: "inception_4e/5x5"
  type: "Convolution"
  bottom: "inception_4e/5x5_reduce"
  top: "inception_4e/
I0403 21:40:50.955574 23855 layer_factory.hpp:77] Creating layer data
I0403 21:40:50.956159 23855 net.cpp:91] Creating Layer data
I0403 21:40:50.956199 23855 net.cpp:399] data -> data
I0403 21:40:50.956259 23855 net.cpp:399] data -> label
I0403 21:40:50.956298 23855 data_transformer.cpp:25] Loading mean file from: /home/mohanty/data/final_dataset/lmdb/segmented-80-20/mean.binaryproto
I0403 21:40:50.957458 23859 db_lmdb.cpp:38] Opened lmdb /home/mohanty/data/final_dataset/lmdb/segmented-80-20/test_db
I0403 21:40:50.968875 23855 data_layer.cpp:41] output data size: 24,3,224,224
I0403 21:40:50.996345 23855 net.cpp:141] Setting up data
I0403 21:40:50.996425 23855 net.cpp:148] Top shape: 24 3 224 224 (3612672)
I0403 21:40:50.996449 23855 net.cpp:148] Top shape: 24 (24)
I0403 21:40:50.996465 23855 net.cpp:156] Memory required for data: 14450784
I0403 21:40:50.996495 23855 layer_factory.hpp:77] Creating layer label_data_1_split
I0403 21:40:50.996521 23855 net.cpp:91] Creating Layer label_data_1_split
I0403 21:40:50.996539 23855 net.cpp:425] label_data_1_split <- label
I0403 21:40:50.996572 23855 net.cpp:399] label_data_1_split -> label_data_1_split_0
I0403 21:40:50.996600 23855 net.cpp:399] label_data_1_split -> label_data_1_split_1
I0403 21:40:50.996623 23855 net.cpp:399] label_data_1_split -> label_data_1_split_2
I0403 21:40:50.996642 23855 net.cpp:399] label_data_1_split -> label_data_1_split_3
I0403 21:40:50.996661 23855 net.cpp:399] label_data_1_split -> label_data_1_split_4
I0403 21:40:50.996681 23855 net.cpp:399] label_data_1_split -> label_data_1_split_5
I0403 21:40:50.996701 23855 net.cpp:399] label_data_1_split -> label_data_1_split_6
I0403 21:40:50.996722 23855 net.cpp:399] label_data_1_split -> label_data_1_split_7
I0403 21:40:50.996742 23855 net.cpp:399] label_data_1_split -> label_data_1_split_8
I0403 21:40:50.996763 23855 net.cpp:399] label_data_1_split -> label_data_1_split_9
I0403 21:40:50.996876 23855 net.cpp:141] Setting up label_data_1_split
I0403 21:40:50.996899 23855 net.cpp:148] Top shape: 24 (24)
I0403 21:40:50.996917 23855 net.cpp:148] Top shape: 24 (24)
I0403 21:40:50.996933 23855 net.cpp:148] Top shape: 24 (24)
I0403 21:40:50.996950 23855 net.cpp:148] Top shape: 24 (24)
I0403 21:40:50.996966 23855 net.cpp:148] Top shape: 24 (24)
I0403 21:40:50.996983 23855 net.cpp:148] Top shape: 24 (24)
I0403 21:40:50.996999 23855 net.cpp:148] Top shape: 24 (24)
I0403 21:40:50.997014 23855 net.cpp:148] Top shape: 24 (24)
I0403 21:40:50.997030 23855 net.cpp:148] Top shape: 24 (24)
I0403 21:40:50.997047 23855 net.cpp:148] Top shape: 24 (24)
I0403 21:40:50.997089 23855 net.cpp:156] Memory required for data: 14451744
I0403 21:40:50.997105 23855 layer_factory.hpp:77] Creating layer conv1/7x7_s2
I0403 21:40:50.997138 23855 net.cpp:91] Creating Layer conv1/7x7_s2
I0403 21:40:50.997156 23855 net.cpp:425] conv1/7x7_s2 <- data
I0403 21:40:50.997176 23855 net.cpp:399] conv1/7x7_s2 -> conv1/7x7_s2
I0403 21:40:51.138226 23855 net.cpp:141] Setting up conv1/7x7_s2
I0403 21:40:51.138315 23855 net.cpp:148] Top shape: 24 64 112 112 (19267584)
I0403 21:40:51.138334 23855 net.cpp:156] Memory required for data: 91522080
I0403 21:40:51.138365 23855 layer_factory.hpp:77] Creating layer conv1/relu_7x7
I0403 21:40:51.138391 23855 net.cpp:91] Creating Layer conv1/relu_7x7
I0403 21:40:51.138411 23855 net.cpp:425] conv1/relu_7x7 <- conv1/7x7_s2
I0403 21:40:51.138432 23855 net.cpp:386] conv1/relu_7x7 -> conv1/7x7_s2 (in-place)
I0403 21:40:51.138685 23855 net.cpp:141] Setting up conv1/relu_7x7
I0403 21:40:51.138712 23855 net.cpp:148] Top shape: 24 64 112 112 (19267584)
I0403 21:40:51.138728 23855 net.cpp:156] Memory required for data: 168592416
I0403 21:40:51.138743 23855 layer_factory.hpp:77] Creating layer pool1/3x3_s2
I0403 21:40:51.138767 23855 net.cpp:91] Creating Layer pool1/3x3_s2
I0403 21:40:51.138785 23855 net.cpp:425] pool1/3x3_s2 <- conv1/7x7_s2
I0403 21:40:51.138804 23855 net.cpp:399] pool1/3x3_s2 -> pool1/3x3_s2
I0403 21:40:51.138875 23855 net.cpp:141] Setting up pool1/3x3_s2
I0403 21:40:51.138900 23855 net.cpp:148] Top shape: 24 64 56 56 (4816896)
I0403 21:40:51.138913 23855 net.cpp:156] Memory required for data: 187860000
I0403 21:40:51.138928 23855 layer_factory.hpp:77] Creating layer pool1/norm1
I0403 21:40:51.138953 23855 net.cpp:91] Creating Layer pool1/norm1
I0403 21:40:51.138973 23855 net.cpp:425] pool1/norm1 <- pool1/3x3_s2
I0403 21:40:51.138990 23855 net.cpp:399] pool1/norm1 -> pool1/norm1
I0403 21:40:51.139271 23855 net.cpp:141] Setting up pool1/norm1
I0403 21:40:51.139298 23855 net.cpp:148] Top shape: 24 64 56 56 (4816896)
I0403 21:40:51.139314 23855 net.cpp:156] Memory required for data: 207127584
I0403 21:40:51.139329 23855 layer_factory.hpp:77] Creating layer conv2/3x3_reduce
I0403 21:40:51.139353 23855 net.cpp:91] Creating Layer conv2/3x3_reduce
I0403 21:40:51.139370 23855 net.cpp:425] conv2/3x3_reduce <- pool1/norm1
I0403 21:40:51.139389 23855 net.cpp:399] conv2/3x3_reduce -> conv2/3x3_reduce
I0403 21:40:51.140735 23855 net.cpp:141] Setting up conv2/3x3_reduce
I0403 21:40:51.140764 23855 net.cpp:148] Top shape: 24 64 56 56 (4816896)
I0403 21:40:51.140784 23855 net.cpp:156] Memory required for data: 226395168
I0403 21:40:51.140805 23855 layer_factory.hpp:77] Creating layer conv2/relu_3x3_reduce
I0403 21:40:51.140823 23855 net.cpp:91] Creating Layer conv2/relu_3x3_reduce
I0403 21:40:51.140841 23855 net.cpp:425] conv2/relu_3x3_reduce <- conv2/3x3_reduce
I0403 21:40:51.140858 23855 net.cpp:386] conv2/relu_3x3_reduce -> conv2/3x3_reduce (in-place)
I0403 21:40:51.141119 23855 net.cpp:141] Setting up conv2/relu_3x3_reduce
I0403 21:40:51.141147 23855 net.cpp:148] Top shape: 24 64 56 56 (4816896)
I0403 21:40:51.141163 23855 net.cpp:156] Memory required for data: 245662752
I0403 21:40:51.141178 23855 layer_factory.hpp:77] Creating layer conv2/3x3
I0403 21:40:51.141202 23855 net.cpp:91] Creating Layer conv2/3x3
I0403 21:40:51.141221 23855 net.cpp:425] conv2/3x3 <- conv2/3x3_reduce
I0403 21:40:51.141244 23855 net.cpp:399] conv2/3x3 -> conv2/3x3
I0403 21:40:51.143483 23855 net.cpp:141] Setting up conv2/3x3
I0403 21:40:51.143517 23855 net.cpp:148] Top shape: 24 192 56 56 (14450688)
I0403 21:40:51.143534 23855 net.cpp:156] Memory required for data: 303465504
I0403 21:40:51.143555 23855 layer_factory.hpp:77] Creating layer conv2/relu_3x3
I0403 21:40:51.143574 23855 net.cpp:91] Creating Layer conv2/relu_3x3
I0403 21:40:51.143590 23855 net.cpp:425] conv2/relu_3x3 <- conv2/3x3
I0403 21:40:51.143607 23855 net.cpp:386] conv2/relu_3x3 -> conv2/3x3 (in-place)
I0403 21:40:51.143779 23855 net.cpp:141] Setting up conv2/relu_3x3
I0403 21:40:51.143805 23855 net.cpp:148] Top shape: 24 192 56 56 (14450688)
I0403 21:40:51.143857 23855 net.cpp:156] Memory required for data: 361268256
I0403 21:40:51.143873 23855 layer_factory.hpp:77] Creating layer conv2/norm2
I0403 21:40:51.143895 23855 net.cpp:91] Creating Layer conv2/norm2
I0403 21:40:51.143913 23855 net.cpp:425] conv2/norm2 <- conv2/3x3
I0403 21:40:51.143931 23855 net.cpp:399] conv2/norm2 -> conv2/norm2
I0403 21:40:51.144222 23855 net.cpp:141] Setting up conv2/norm2
I0403 21:40:51.144263 23855 net.cpp:148] Top shape: 24 192 56 56 (14450688)
I0403 21:40:51.144291 23855 net.cpp:156] Memory required for data: 419071008
I0403 21:40:51.144307 23855 layer_factory.hpp:77] Creating layer pool2/3x3_s2
I0403 21:40:51.144330 23855 net.cpp:91] Creating Layer pool2/3x3_s2
I0403 21:40:51.144348 23855 net.cpp:425] pool2/3x3_s2 <- conv2/norm2
I0403 21:40:51.144367 23855 net.cpp:399] pool2/3x3_s2 -> pool2/3x3_s2
I0403 21:40:51.144421 23855 net.cpp:141] Setting up pool2/3x3_s2
I0403 21:40:51.144445 23855 net.cpp:148] Top shape: 24 192 28 28 (3612672)
I0403 21:40:51.144460 23855 net.cpp:156] Memory required for data: 433521696
I0403 21:40:51.144476 23855 layer_factory.hpp:77] Creating layer pool2/3x3_s2_pool2/3x3_s2_0_split
I0403 21:40:51.144495 23855 net.cpp:91] Creating Layer pool2/3x3_s2_pool2/3x3_s2_0_split
I0403 21:40:51.144510 23855 net.cpp:425] pool2/3x3_s2_pool2/3x3_s2_0_split <- pool2/3x3_s2
I0403 21:40:51.144531 23855 net.cpp:399] pool2/3x3_s2_pool2/3x3_s2_0_split -> pool2/3x3_s2_pool2/3x3_s2_0_split_0
I0403 21:40:51.144551 23855 net.cpp:399] pool2/3x3_s2_pool2/3x3_s2_0_split -> pool2/3x3_s2_pool2/3x3_s2_0_split_1
I0403 21:40:51.144585 23855 net.cpp:399] pool2/3x3_s2_pool2/3x3_s2_0_split -> pool2/3x3_s2_pool2/3x3_s2_0_split_2
I0403 21:40:51.144604 23855 net.cpp:399] pool2/3x3_s2_pool2/3x3_s2_0_split -> pool2/3x3_s2_pool2/3x3_s2_0_split_3
I0403 21:40:51.144672 23855 net.cpp:141] Setting up pool2/3x3_s2_pool2/3x3_s2_0_split
I0403 21:40:51.144697 23855 net.cpp:148] Top shape: 24 192 28 28 (3612672)
I0403 21:40:51.144716 23855 net.cpp:148] Top shape: 24 192 28 28 (3612672)
I0403 21:40:51.144732 23855 net.cpp:148] Top shape: 24 192 28 28 (3612672)
I0403 21:40:51.144747 23855 net.cpp:148] Top shape: 24 192 28 28 (3612672)
I0403 21:40:51.144762 23855 net.cpp:156] Memory required for data: 491324448
I0403 21:40:51.144775 23855 layer_factory.hpp:77] Creating layer inception_3a/1x1
I0403 21:40:51.144798 23855 net.cpp:91] Creating Layer inception_3a/1x1
I0403 21:40:51.144815 23855 net.cpp:425] inception_3a/1x1 <- pool2/3x3_s2_pool2/3x3_s2_0_split_0
I0403 21:40:51.144834 23855 net.cpp:399] inception_3a/1x1 -> inception_3a/1x1
I0403 21:40:51.146332 23855 net.cpp:141] Setting up inception_3a/1x1
I0403 21:40:51.146361 23855 net.cpp:148] Top shape: 24 64 28 28 (1204224)
I0403 21:40:51.146378 23855 net.cpp:156] Memory required for data: 496141344
I0403 21:40:51.146395 23855 layer_factory.hpp:77] Creating layer inception_3a/relu_1x1
I0403 21:40:51.146416 23855 net.cpp:91] Creating Layer inception_3a/relu_1x1
I0403 21:40:51.146435 23855 net.cpp:425] inception_3a/relu_1x1 <- inception_3a/1x1
I0403 21:40:51.146453 23855 net.cpp:386] inception_3a/relu_1x1 -> inception_3a/1x1 (in-place)
I0403 21:40:51.146618 23855 net.cpp:141] Setting up inception_3a/relu_1x1
I0403 21:40:51.146644 23855 net.cpp:148] Top shape: 24 64 28 28 (1204224)
I0403 21:40:51.146659 23855 net.cpp:156] Memory required for data: 500958240
I0403 21:40:51.146675 23855 layer_factory.hpp:77] Creating layer inception_3a/3x3_reduce
I0403 21:40:51.146697 23855 net.cpp:91] Creating Layer inception_3a/3x3_reduce
I0403 21:40:51.146715 23855 net.cpp:425] inception_3a/3x3_reduce <- pool2/3x3_s2_pool2/3x3_s2_0_split_1
I0403 21:40:51.146736 23855 net.cpp:399] inception_3a/3x3_reduce -> inception_3a/3x3_reduce
I0403 21:40:51.148393 23855 net.cpp:141] Setting up inception_3a/3x3_reduce
I0403 21:40:51.148424 23855 net.cpp:148] Top shape: 24 96 28 28 (1806336)
I0403 21:40:51.148442 23855 net.cpp:156] Memory required for data: 508183584
I0403 21:40:51.148463 23855 layer_factory.hpp:77] Creating layer inception_3a/relu_3x3_reduce
I0403 21:40:51.148499 23855 net.cpp:91] Creating Layer inception_3a/relu_3x3_reduce
I0403 21:40:51.148517 23855 net.cpp:425] inception_3a/relu_3x3_reduce <- inception_3a/3x3_reduce
I0403 21:40:51.148538 23855 net.cpp:386] inception_3a/relu_3x3_reduce -> inception_3a/3x3_reduce (in-place)
I0403 21:40:51.148710 23855 net.cpp:141] Setting up inception_3a/relu_3x3_reduce
I0403 21:40:51.148736 23855 net.cpp:148] Top shape: 24 96 28 28 (1806336)
I0403 21:40:51.148751 23855 net.cpp:156] Memory required for data: 515408928
I0403 21:40:51.148766 23855 layer_factory.hpp:77] Creating layer inception_3a/3x3
I0403 21:40:51.148788 23855 net.cpp:91] Creating Layer inception_3a/3x3
I0403 21:40:51.148807 23855 net.cpp:425] inception_3a/3x3 <- inception_3a/3x3_reduce
I0403 21:40:51.148828 23855 net.cpp:399] inception_3a/3x3 -> inception_3a/3x3
I0403 21:40:51.150416 23855 net.cpp:141] Setting up inception_3a/3x3
I0403 21:40:51.150449 23855 net.cpp:148] Top shape: 24 128 28 28 (2408448)
I0403 21:40:51.150467 23855 net.cpp:156] Memory required for data: 525042720
I0403 21:40:51.150486 23855 layer_factory.hpp:77] Creating layer inception_3a/relu_3x3
I0403 21:40:51.150504 23855 net.cpp:91] Creating Layer inception_3a/relu_3x3
I0403 21:40:51.150519 23855 net.cpp:425] inception_3a/relu_3x3 <- inception_3a/3x3
I0403 21:40:51.150540 23855 net.cpp:386] inception_3a/relu_3x3 -> inception_3a/3x3 (in-place)
I0403 21:40:51.150807 23855 net.cpp:141] Setting up inception_3a/relu_3x3
I0403 21:40:51.150836 23855 net.cpp:148] Top shape: 24 128 28 28 (2408448)
I0403 21:40:51.150852 23855 net.cpp:156] Memory required for data: 534676512
I0403 21:40:51.150869 23855 layer_factory.hpp:77] Creating layer inception_3a/5x5_reduce
I0403 21:40:51.150892 23855 net.cpp:91] Creating Layer inception_3a/5x5_reduce
I0403 21:40:51.150923 23855 net.cpp:425] inception_3a/5x5_reduce <- pool2/3x3_s2_pool2/3x3_s2_0_split_2
I0403 21:40:51.150943 23855 net.cpp:399] inception_3a/5x5_reduce -> inception_3a/5x5_reduce
I0403 21:40:51.151885 23855 net.cpp:141] Setting up inception_3a/5x5_reduce
I0403 21:40:51.151914 23855 net.cpp:148] Top shape: 24 16 28 28 (301056)
I0403 21:40:51.151932 23855 net.cpp:156] Memory required for data: 535880736
I0403 21:40:51.151952 23855 layer_factory.hpp:77] Creating layer inception_3a/relu_5x5_reduce
I0403 21:40:51.151969 23855 net.cpp:91] Creating Layer inception_3a/relu_5x5_reduce
I0403 21:40:51.151986 23855 net.cpp:425] inception_3a/relu_5x5_reduce <- inception_3a/5x5_reduce
I0403 21:40:51.152006 23855 net.cpp:386] inception_3a/relu_5x5_reduce -> inception_3a/5x5_reduce (in-place)
I0403 21:40:51.152302 23855 net.cpp:141] Setting up inception_3a/relu_5x5_reduce
I0403 21:40:51.152329 23855 net.cpp:148] Top shape: 24 16 28 28 (301056)
I0403 21:40:51.152344 23855 net.cpp:156] Memory required for data: 537084960
I0403 21:40:51.152359 23855 layer_factory.hpp:77] Creating layer inception_3a/5x5
I0403 21:40:51.152381 23855 net.cpp:91] Creating Layer inception_3a/5x5
I0403 21:40:51.152400 23855 net.cpp:425] inception_3a/5x5 <- inception_3a/5x5_reduce
I0403 21:40:51.152421 23855 net.cpp:399] inception_3a/5x5 -> inception_3a/5x5
I0403 21:40:51.153404 23855 net.cpp:141] Setting up inception_3a/5x5
I0403 21:40:51.153431 23855 net.cpp:148] Top shape: 24 32 28 28 (602112)
I0403 21:40:51.153447 23855 net.cpp:156] Memory required for data: 539493408
I0403 21:40:51.153465 23855 layer_factory.hpp:77] Creating layer inception_3a/relu_5x5
I0403 21:40:51.153486 23855 net.cpp:91] Creating Layer inception_3a/relu_5x5
I0403 21:40:51.153502 23855 net.cpp:425] inception_3a/relu_5x5 <- inception_3a/5x5
I0403 21:40:51.153520 23855 net.cpp:386] inception_3a/relu_5x5 -> inception_3a/5x5 (in-place)
I0403 21:40:51.153692 23855 net.cpp:141] Setting up inception_3a/relu_5x5
I0403 21:40:51.153718 23855 net.cpp:148] Top shape: 24 32 28 28 (602112)
I0403 21:40:51.153733 23855 net.cpp:156] Memory required for data: 541901856
I0403 21:40:51.153748 23855 layer_factory.hpp:77] Creating layer inception_3a/pool
I0403 21:40:51.153766 23855 net.cpp:91] Creating Layer inception_3a/pool
I0403 21:40:51.153796 23855 net.cpp:425] inception_3a/pool <- pool2/3x3_s2_pool2/3x3_s2_0_split_3
I0403 21:40:51.153818 23855 net.cpp:399] inception_3a/pool -> inception_3a/pool
I0403 21:40:51.153877 23855 net.cpp:141] Setting up inception_3a/pool
I0403 21:40:51.153900 23855 net.cpp:148] Top shape: 24 192 28 28 (3612672)
I0403 21:40:51.153915 23855 net.cpp:156] Memory required for data: 556352544
I0403 21:40:51.153931 23855 layer_factory.hpp:77] Creating layer inception_3a/pool_proj
I0403 21:40:51.153955 23855 net.cpp:91] Creating Layer inception_3a/pool_proj
I0403 21:40:51.153975 23855 net.cpp:425] inception_3a/pool_proj <- inception_3a/pool
I0403 21:40:51.153993 23855 net.cpp:399] inception_3a/pool_proj -> inception_3a/pool_proj
I0403 21:40:51.154927 23855 net.cpp:141] Setting up inception_3a/pool_proj
I0403 21:40:51.154954 23855 net.cpp:148] Top shape: 24 32 28 28 (602112)
I0403 21:40:51.154970 23855 net.cpp:156] Memory required for data: 558760992
I0403 21:40:51.154994 23855 layer_factory.hpp:77] Creating layer inception_3a/relu_pool_proj
I0403 21:40:51.155015 23855 net.cpp:91] Creating Layer inception_3a/relu_pool_proj
I0403 21:40:51.155033 23855 net.cpp:425] inception_3a/relu_pool_proj <- inception_3a/pool_proj
I0403 21:40:51.155053 23855 net.cpp:386] inception_3a/relu_pool_proj -> inception_3a/pool_proj (in-place)
I0403 21:40:51.155326 23855 net.cpp:141] Setting up inception_3a/relu_pool_proj
I0403 21:40:51.155355 23855 net.cpp:148] Top shape: 24 32 28 28 (602112)
I0403 21:40:51.155370 23855 net.cpp:156] Memory required for data: 561169440
I0403 21:40:51.155386 23855 layer_factory.hpp:77] Creating layer inception_3a/output
I0403 21:40:51.155405 23855 net.cpp:91] Creating Layer inception_3a/output
I0403 21:40:51.155419 23855 net.cpp:425] inception_3a/output <- inception_3a/1x1
I0403 21:40:51.155434 23855 net.cpp:425] inception_3a/output <- inception_3a/3x3
I0403 21:40:51.155450 23855 net.cpp:425] inception_3a/output <- inception_3a/5x5
I0403 21:40:51.155467 23855 net.cpp:425] inception_3a/output <- inception_3a/pool_proj
I0403 21:40:51.155483 23855 net.cpp:399] inception_3a/output -> inception_3a/output
I0403 21:40:51.155529 23855 net.cpp:141] Setting up inception_3a/output
I0403 21:40:51.155553 23855 net.cpp:148] Top shape: 24 256 28 28 (4816896)
I0403 21:40:51.155567 23855 net.cpp:156] Memory required for data: 580437024
I0403 21:40:51.155581 23855 layer_factory.hpp:77] Creating layer inception_3a/output_inception_3a/output_0_split
I0403 21:40:51.155598 23855 net.cpp:91] Creating Layer inception_3a/output_inception_3a/output_0_split
I0403 21:40:51.155613 23855 net.cpp:425] inception_3a/output_inception_3a/output_0_split <- inception_3a/output
I0403 21:40:51.155634 23855 net.cpp:399] inception_3a/output_inception_3a/output_0_split -> inception_3a/output_inception_3a/output_0_split_0
I0403 21:40:51.155655 23855 net.cpp:399] inception_3a/output_inception_3a/output_0_split -> inception_3a/output_inception_3a/output_0_split_1
I0403 21:40:51.155681 23855 net.cpp:399] inception_3a/output_inception_3a/output_0_split -> inception_3a/output_inception_3a/output_0_split_2
I0403 21:40:51.155704 23855 net.cpp:399] inception_3a/output_inception_3a/output_0_split -> inception_3a/output_inception_3a/output_0_split_3
I0403 21:40:51.155773 23855 net.cpp:141] Setting up inception_3a/output_inception_3a/output_0_split
I0403 21:40:51.155797 23855 net.cpp:148] Top shape: 24 256 28 28 (4816896)
I0403 21:40:51.155817 23855 net.cpp:148] Top shape: 24 256 28 28 (4816896)
I0403 21:40:51.155834 23855 net.cpp:148] Top shape: 24 256 28 28 (4816896)
I0403 21:40:51.155850 23855 net.cpp:148] Top shape: 24 256 28 28 (4816896)
I0403 21:40:51.155864 23855 net.cpp:156] Memory required for data: 657507360
I0403 21:40:51.155879 23855 layer_factory.hpp:77] Creating layer inception_3b/1x1
I0403 21:40:51.155900 23855 net.cpp:91] Creating Layer inception_3b/1x1
I0403 21:40:51.155916 23855 net.cpp:425] inception_3b/1x1 <- inception_3a/output_inception_3a/output_0_split_0
I0403 21:40:51.155937 23855 net.cpp:399] inception_3b/1x1 -> inception_3b/1x1
I0403 21:40:51.157034 23855 net.cpp:141] Setting up inception_3b/1x1
I0403 21:40:51.157073 23855 net.cpp:148] Top shape: 24 128 28 28 (2408448)
I0403 21:40:51.157089 23855 net.cpp:156] Memory required for data: 667141152
I0403 21:40:51.157107 23855 layer_factory.hpp:77] Creating layer inception_3b/relu_1x1
I0403 21:40:51.157129 23855 net.cpp:91] Creating Layer inception_3b/relu_1x1
I0403 21:40:51.157146 23855 net.cpp:425] inception_3b/relu_1x1 <- inception_3b/1x1
I0403 21:40:51.157163 23855 net.cpp:386] inception_3b/relu_1x1 -> inception_3b/1x1 (in-place)
I0403 21:40:51.157340 23855 net.cpp:141] Setting up inception_3b/relu_1x1
I0403 21:40:51.157366 23855 net.cpp:148] Top shape: 24 128 28 28 (2408448)
I0403 21:40:51.157382 23855 net.cpp:156] Memory required for data: 676774944
I0403 21:40:51.157397 23855 layer_factory.hpp:77] Creating layer inception_3b/3x3_reduce
I0403 21:40:51.157420 23855 net.cpp:91] Creating Layer inception_3b/3x3_reduce
I0403 21:40:51.157438 23855 net.cpp:425] inception_3b/3x3_reduce <- inception_3a/output_inception_3a/output_0_split_1
I0403 21:40:51.157456 23855 net.cpp:399] inception_3b/3x3_reduce -> inception_3b/3x3_reduce
I0403 21:40:51.158552 23855 net.cpp:141] Setting up inception_3b/3x3_reduce
I0403 21:40:51.158581 23855 net.cpp:148] Top shape: 24 128 28 28 (2408448)
I0403 21:40:51.158596 23855 net.cpp:156] Memory required for data: 686408736
I0403 21:40:51.158614 23855 layer_factory.hpp:77] Creating layer inception_3b/relu_3x3_reduce
I0403 21:40:51.158637 23855 net.cpp:91] Creating Layer inception_3b/relu_3x3_reduce
I0403 21:40:51.158653 23855 net.cpp:425] inception_3b/relu_3x3_reduce <- inception_3b/3x3_reduce
I0403 21:40:51.158671 23855 net.cpp:386] inception_3b/relu_3x3_reduce -> inception_3b/3x3_reduce (in-place)
I0403 21:40:51.158838 23855 net.cpp:141] Setting up inception_3b/relu_3x3_reduce
I0403 21:40:51.158864 23855 net.cpp:148] Top shape: 24 128 28 28 (2408448)
I0403 21:40:51.158880 23855 net.cpp:156] Memory required for data: 696042528
I0403 21:40:51.158896 23855 layer_factory.hpp:77] Creating layer inception_3b/3x3
I0403 21:40:51.158920 23855 net.cpp:91] Creating Layer inception_3b/3x3
I0403 21:40:51.158938 23855 net.cpp:425] inception_3b/3x3 <- inception_3b/3x3_reduce
I0403 21:40:51.158960 23855 net.cpp:399] inception_3b/3x3 -> inception_3b/3x3
I0403 21:40:51.161782 23855 net.cpp:141] Setting up inception_3b/3x3
I0403 21:40:51.161813 23855 net.cpp:148] Top shape: 24 192 28 28 (3612672)
I0403 21:40:51.161831 23855 net.cpp:156] Memory required for data: 710493216
I0403 21:40:51.161850 23855 layer_factory.hpp:77] Creating layer inception_3b/relu_3x3
I0403 21:40:51.161869 23855 net.cpp:91] Creating Layer inception_3b/relu_3x3
I0403 21:40:51.161885 23855 net.cpp:425] inception_3b/relu_3x3 <- inception_3b/3x3
I0403 21:40:51.161905 23855 net.cpp:386] inception_3b/relu_3x3 -> inception_3b/3x3 (in-place)
I0403 21:40:51.162169 23855 net.cpp:141] Setting up inception_3b/relu_3x3
I0403 21:40:51.162197 23855 net.cpp:148] Top shape: 24 192 28 28 (3612672)
I0403 21:40:51.162215 23855 net.cpp:156] Memory required for data: 724943904
I0403 21:40:51.162235 23855 layer_factory.hpp:77] Creating layer inception_3b/5x5_reduce
I0403 21:40:51.162258 23855 net.cpp:91] Creating Layer inception_3b/5x5_reduce
I0403 21:40:51.162277 23855 net.cpp:425] inception_3b/5x5_reduce <- inception_3a/output_inception_3a/output_0_split_2
I0403 21:40:51.162295 23855 net.cpp:399] inception_3b/5x5_reduce -> inception_3b/5x5_reduce
I0403 21:40:51.163260 23855 net.cpp:141] Setting up inception_3b/5x5_reduce
I0403 21:40:51.163302 23855 net.cpp:148] Top shape: 24 32 28 28 (602112)
I0403 21:40:51.163319 23855 net.cpp:156] Memory required for data: 727352352
I0403 21:40:51.163342 23855 layer_factory.hpp:77] Creating layer inception_3b/relu_5x5_reduce
I0403 21:40:51.163362 23855 net.cpp:91] Creating Layer inception_3b/relu_5x5_reduce
I0403 21:40:51.163381 23855 net.cpp:425] inception_3b/relu_5x5_reduce <- inception_3b/5x5_reduce
I0403 21:40:51.163400 23855 net.cpp:386] inception_3b/relu_5x5_reduce -> inception_3b/5x5_reduce (in-place)
I0403 21:40:51.163607 23855 net.cpp:141] Setting up inception_3b/relu_5x5_reduce
I0403 21:40:51.163632 23855 net.cpp:148] Top shape: 24 32 28 28 (602112)
I0403 21:40:51.163648 23855 net.cpp:156] Memory required for data: 729760800
I0403 21:40:51.163662 23855 layer_factory.hpp:77] Creating layer inception_3b/5x5
I0403 21:40:51.163686 23855 net.cpp:91] Creating Layer inception_3b/5x5
I0403 21:40:51.163704 23855 net.cpp:425] inception_3b/5x5 <- inception_3b/5x5_reduce
I0403 21:40:51.163727 23855 net.cpp:399] inception_3b/5x5 -> inception_3b/5x5
I0403 21:40:51.165663 23855 net.cpp:141] Setting up inception_3b/5x5
I0403 21:40:51.165693 23855 net.cpp:148] Top shape: 24 96 28 28 (1806336)
I0403 21:40:51.165709 23855 net.cpp:156] Memory required for data: 736986144
I0403 21:40:51.165726 23855 layer_factory.hpp:77] Creating layer inception_3b/relu_5x5
I0403 21:40:51.165746 23855 net.cpp:91] Creating Layer inception_3b/relu_5x5
I0403 21:40:51.165765 23855 net.cpp:425] inception_3b/relu_5x5 <- inception_3b/5x5
I0403 21:40:51.165782 23855 net.cpp:386] inception_3b/relu_5x5 -> inception_3b/5x5 (in-place)
I0403 21:40:51.165968 23855 net.cpp:141] Setting up inception_3b/relu_5x5
I0403 21:40:51.165993 23855 net.cpp:148] Top shape: 24 96 28 28 (1806336)
I0403 21:40:51.166008 23855 net.cpp:156] Memory required for data: 744211488
I0403 21:40:51.166023 23855 layer_factory.hpp:77] Creating layer inception_3b/pool
I0403 21:40:51.166041 23855 net.cpp:91] Creating Layer inception_3b/pool
I0403 21:40:51.166059 23855 net.cpp:425] inception_3b/pool <- inception_3a/output_inception_3a/output_0_split_3
I0403 21:40:51.166076 23855 net.cpp:399] inception_3b/pool -> inception_3b/pool
I0403 21:40:51.166129 23855 net.cpp:141] Setting up inception_3b/pool
I0403 21:40:51.166152 23855 net.cpp:148] Top shape: 24 256 28 28 (4816896)
I0403 21:40:51.166167 23855 net.cpp:156] Memory required for data: 763479072
I0403 21:40:51.166182 23855 layer_factory.hpp:77] Creating layer inception_3b/pool_proj
I0403 21:40:51.166204 23855 net.cpp:91] Creating Layer inception_3b/pool_proj
I0403 21:40:51.166224 23855 net.cpp:425] inception_3b/pool_proj <- inception_3b/pool
I0403 21:40:51.166249 23855 net.cpp:399] inception_3b/pool_proj -> inception_3b/pool_proj
I0403 21:40:51.167264 23855 net.cpp:141] Setting up inception_3b/pool_proj
I0403 21:40:51.167291 23855 net.cpp:148] Top shape: 24 64 28 28 (1204224)
I0403 21:40:51.167307 23855 net.cpp:156] Memory required for data: 768295968
I0403 21:40:51.167325 23855 layer_factory.hpp:77] Creating layer inception_3b/relu_pool_proj
I0403 21:40:51.167345 23855 net.cpp:91] Creating Layer inception_3b/relu_pool_proj
I0403 21:40:51.167361 23855 net.cpp:425] inception_3b/relu_pool_proj <- inception_3b/pool_proj
I0403 21:40:51.167379 23855 net.cpp:386] inception_3b/relu_pool_proj -> inception_3b/pool_proj (in-place)
I0403 21:40:51.167765 23855 net.cpp:141] Setting up inception_3b/relu_pool_proj
I0403 21:40:51.167793 23855 net.cpp:148] Top shape: 24 64 28 28 (1204224)
I0403 21:40:51.167810 23855 net.cpp:156] Memory required for data: 773112864
I0403 21:40:51.167826 23855 layer_factory.hpp:77] Creating layer inception_3b/output
I0403 21:40:51.167843 23855 net.cpp:91] Creating Layer inception_3b/output
I0403 21:40:51.167858 23855 net.cpp:425] inception_3b/output <- inception_3b/1x1
I0403 21:40:51.167875 23855 net.cpp:425] inception_3b/output <- inception_3b/3x3
I0403 21:40:51.167891 23855 net.cpp:425] inception_3b/output <- inception_3b/5x5
I0403 21:40:51.167906 23855 net.cpp:425] inception_3b/output <- inception_3b/pool_proj
I0403 21:40:51.167927 23855 net.cpp:399] inception_3b/output -> inception_3b/output
I0403 21:40:51.167970 23855 net.cpp:141] Setting up inception_3b/output
I0403 21:40:51.167994 23855 net.cpp:148] Top shape: 24 480 28 28 (9031680)
I0403 21:40:51.168009 23855 net.cpp:156] Memory required for data: 809239584
I0403 21:40:51.168023 23855 layer_factory.hpp:77] Creating layer pool3/3x3_s2
I0403 21:40:51.168042 23855 net.cpp:91] Creating Layer pool3/3x3_s2
I0403 21:40:51.168061 23855 net.cpp:425] pool3/3x3_s2 <- inception_3b/output
I0403 21:40:51.168093 23855 net.cpp:399] pool3/3x3_s2 -> pool3/3x3_s2
I0403 21:40:51.168151 23855 net.cpp:141] Setting up pool3/3x3_s2
I0403 21:40:51.168175 23855 net.cpp:148] Top shape: 24 480 14 14 (2257920)
I0403 21:40:51.168190 23855 net.cpp:156] Memory required for data: 818271264
I0403 21:40:51.168205 23855 layer_factory.hpp:77] Creating layer pool3/3x3_s2_pool3/3x3_s2_0_split
I0403 21:40:51.168225 23855 net.cpp:91] Creating Layer pool3/3x3_s2_pool3/3x3_s2_0_split
I0403 21:40:51.168252 23855 net.cpp:425] pool3/3x3_s2_pool3/3x3_s2_0_split <- pool3/3x3_s2
I0403 21:40:51.168272 23855 net.cpp:399] pool3/3x3_s2_pool3/3x3_s2_0_split -> pool3/3x3_s2_pool3/3x3_s2_0_split_0
I0403 21:40:51.168289 23855 net.cpp:399] pool3/3x3_s2_pool3/3x3_s2_0_split -> pool3/3x3_s2_pool3/3x3_s2_0_split_1
I0403 21:40:51.168308 23855 net.cpp:399] pool3/3x3_s2_pool3/3x3_s2_0_split -> pool3/3x3_s2_pool3/3x3_s2_0_split_2
I0403 21:40:51.168329 23855 net.cpp:399] pool3/3x3_s2_pool3/3x3_s2_0_split -> pool3/3x3_s2_pool3/3x3_s2_0_split_3
I0403 21:40:51.168402 23855 net.cpp:141] Setting up pool3/3x3_s2_pool3/3x3_s2_0_split
I0403 21:40:51.168426 23855 net.cpp:148] Top shape: 24 480 14 14 (2257920)
I0403 21:40:51.168442 23855 net.cpp:148] Top shape: 24 480 14 14 (2257920)
I0403 21:40:51.168458 23855 net.cpp:148] Top shape: 24 480 14 14 (2257920)
I0403 21:40:51.168473 23855 net.cpp:148] Top shape: 24 480 14 14 (2257920)
I0403 21:40:51.168488 23855 net.cpp:156] Memory required for data: 854397984
I0403 21:40:51.168503 23855 layer_factory.hpp:77] Creating layer inception_4a/1x1
I0403 21:40:51.168524 23855 net.cpp:91] Creating Layer inception_4a/1x1
I0403 21:40:51.168541 23855 net.cpp:425] inception_4a/1x1 <- pool3/3x3_s2_pool3/3x3_s2_0_split_0
I0403 21:40:51.168561 23855 net.cpp:399] inception_4a/1x1 -> inception_4a/1x1
I0403 21:40:51.170071 23855 net.cpp:141] Setting up inception_4a/1x1
I0403 21:40:51.170099 23855 net.cpp:148] Top shape: 24 192 14 14 (903168)
I0403 21:40:51.170115 23855 net.cpp:156] Memory required for data: 858010656
I0403 21:40:51.170135 23855 layer_factory.hpp:77] Creating layer inception_4a/relu_1x1
I0403 21:40:51.170153 23855 net.cpp:91] Creating Layer inception_4a/relu_1x1
I0403 21:40:51.170169 23855 net.cpp:425] inception_4a/relu_1x1 <- inception_4a/1x1
I0403 21:40:51.170189 23855 net.cpp:386] inception_4a/relu_1x1 -> inception_4a/1x1 (in-place)
I0403 21:40:51.170363 23855 net.cpp:141] Setting up inception_4a/relu_1x1
I0403 21:40:51.170388 23855 net.cpp:148] Top shape: 24 192 14 14 (903168)
I0403 21:40:51.170403 23855 net.cpp:156] Memory required for data: 861623328
I0403 21:40:51.170419 23855 layer_factory.hpp:77] Creating layer inception_4a/3x3_reduce
I0403 21:40:51.170442 23855 net.cpp:91] Creating Layer inception_4a/3x3_reduce
I0403 21:40:51.170459 23855 net.cpp:425] inception_4a/3x3_reduce <- pool3/3x3_s2_pool3/3x3_s2_0_split_1
I0403 21:40:51.170481 23855 net.cpp:399] inception_4a/3x3_reduce -> inception_4a/3x3_reduce
I0403 21:40:51.171715 23855 net.cpp:141] Setting up inception_4a/3x3_reduce
I0403 21:40:51.171742 23855 net.cpp:148] Top shape: 24 96 14 14 (451584)
I0403 21:40:51.171758 23855 net.cpp:156] Memory required for data: 863429664
I0403 21:40:51.171784 23855 layer_factory.hpp:77] Creating layer inception_4a/relu_3x3_reduce
I0403 21:40:51.171804 23855 net.cpp:91] Creating Layer inception_4a/relu_3x3_reduce
I0403 21:40:51.171820 23855 net.cpp:425] inception_4a/relu_3x3_reduce <- inception_4a/3x3_reduce
I0403 21:40:51.171840 23855 net.cpp:386] inception_4a/relu_3x3_reduce -> inception_4a/3x3_reduce (in-place)
I0403 21:40:51.172013 23855 net.cpp:141] Setting up inception_4a/relu_3x3_reduce
I0403 21:40:51.172037 23855 net.cpp:148] Top shape: 24 96 14 14 (451584)
I0403 21:40:51.172052 23855 net.cpp:156] Memory required for data: 865236000
I0403 21:40:51.172067 23855 layer_factory.hpp:77] Creating layer inception_4a/3x3
I0403 21:40:51.172091 23855 net.cpp:91] Creating Layer inception_4a/3x3
I0403 21:40:51.172107 23855 net.cpp:425] inception_4a/3x3 <- inception_4a/3x3_reduce
I0403 21:40:51.172128 23855 net.cpp:399] inception_4a/3x3 -> inception_4a/3x3
I0403 21:40:51.174726 23855 net.cpp:141] Setting up inception_4a/3x3
I0403 21:40:51.174757 23855 net.cpp:148] Top shape: 24 208 14 14 (978432)
I0403 21:40:51.174773 23855 net.cpp:156] Memory required for data: 869149728
I0403 21:40:51.174793 23855 layer_factory.hpp:77] Creating layer inception_4a/relu_3x3
I0403 21:40:51.174813 23855 net.cpp:91] Creating Layer inception_4a/relu_3x3
I0403 21:40:51.174830 23855 net.cpp:425] inception_4a/relu_3x3 <- inception_4a/3x3
I0403 21:40:51.174849 23855 net.cpp:386] inception_4a/relu_3x3 -> inception_4a/3x3 (in-place)
I0403 21:40:51.175119 23855 net.cpp:141] Setting up inception_4a/relu_3x3
I0403 21:40:51.175145 23855 net.cpp:148] Top shape: 24 208 14 14 (978432)
I0403 21:40:51.175161 23855 net.cpp:156] Memory required for data: 873063456
I0403 21:40:51.175178 23855 layer_factory.hpp:77] Creating layer inception_4a/5x5_reduce
I0403 21:40:51.175199 23855 net.cpp:91] Creating Layer inception_4a/5x5_reduce
I0403 21:40:51.175220 23855 net.cpp:425] inception_4a/5x5_reduce <- pool3/3x3_s2_pool3/3x3_s2_0_split_2
I0403 21:40:51.175257 23855 net.cpp:399] inception_4a/5x5_reduce -> inception_4a/5x5_reduce
I0403 21:40:51.176272 23855 net.cpp:141] Setting up inception_4a/5x5_reduce
I0403 21:40:51.176301 23855 net.cpp:148] Top shape: 24 16 14 14 (75264)
I0403 21:40:51.176316 23855 net.cpp:156] Memory required for data: 873364512
I0403 21:40:51.176334 23855 layer_factory.hpp:77] Creating layer inception_4a/relu_5x5_reduce
I0403 21:40:51.176354 23855 net.cpp:91] Creating Layer inception_4a/relu_5x5_reduce
I0403 21:40:51.176372 23855 net.cpp:425] inception_4a/relu_5x5_reduce <- inception_4a/5x5_reduce
I0403 21:40:51.176389 23855 net.cpp:386] inception_4a/relu_5x5_reduce -> inception_4a/5x5_reduce (in-place)
I0403 21:40:51.176563 23855 net.cpp:141] Setting up inception_4a/relu_5x5_reduce
I0403 21:40:51.176587 23855 net.cpp:148] Top shape: 24 16 14 14 (75264)
I0403 21:40:51.176602 23855 net.cpp:156] Memory required for data: 873665568
I0403 21:40:51.176619 23855 layer_factory.hpp:77] Creating layer inception_4a/5x5
I0403 21:40:51.176640 23855 net.cpp:91] Creating Layer inception_4a/5x5
I0403 21:40:51.176657 23855 net.cpp:425] inception_4a/5x5 <- inception_4a/5x5_reduce
I0403 21:40:51.176679 23855 net.cpp:399] inception_4a/5x5 -> inception_4a/5x5
I0403 21:40:51.177722 23855 net.cpp:141] Setting up inception_4a/5x5
I0403 21:40:51.177752 23855 net.cpp:148] Top shape: 24 48 14 14 (225792)
I0403 21:40:51.177769 23855 net.cpp:156] Memory required for data: 874568736
I0403 21:40:51.177788 23855 layer_factory.hpp:77] Creating layer inception_4a/relu_5x5
I0403 21:40:51.177805 23855 net.cpp:91] Creating Layer inception_4a/relu_5x5
I0403 21:40:51.177821 23855 net.cpp:425] inception_4a/relu_5x5 <- inception_4a/5x5
I0403 21:40:51.177842 23855 net.cpp:386] inception_4a/relu_5x5 -> inception_4a/5x5 (in-place)
I0403 21:40:51.178017 23855 net.cpp:141] Setting up inception_4a/relu_5x5
I0403 21:40:51.178043 23855 net.cpp:148] Top shape: 24 48 14 14 (225792)
I0403 21:40:51.178059 23855 net.cpp:156] Memory required for data: 875471904
I0403 21:40:51.178074 23855 layer_factory.hpp:77] Creating layer inception_4a/pool
I0403 21:40:51.178094 23855 net.cpp:91] Creating Layer inception_4a/pool
I0403 21:40:51.178112 23855 net.cpp:425] inception_4a/pool <- pool3/3x3_s2_pool3/3x3_s2_0_split_3
I0403 21:40:51.178129 23855 net.cpp:399] inception_4a/pool -> inception_4a/pool
I0403 21:40:51.178189 23855 net.cpp:141] Setting up inception_4a/pool
I0403 21:40:51.178213 23855 net.cpp:148] Top shape: 24 480 14 14 (2257920)
I0403 21:40:51.178236 23855 net.cpp:156] Memory required for data: 884503584
I0403 21:40:51.178256 23855 layer_factory.hpp:77] Creating layer inception_4a/pool_proj
I0403 21:40:51.178278 23855 net.cpp:91] Creating Layer inception_4a/pool_proj
I0403 21:40:51.178297 23855 net.cpp:425] inception_4a/pool_proj <- inception_4a/pool
I0403 21:40:51.178318 23855 net.cpp:399] inception_4a/pool_proj -> inception_4a/pool_proj
I0403 21:40:51.179438 23855 net.cpp:141] Setting up inception_4a/pool_proj
I0403 21:40:51.179466 23855 net.cpp:148] Top shape: 24 64 14 14 (301056)
I0403 21:40:51.179497 23855 net.cpp:156] Memory required for data: 885707808
I0403 21:40:51.179515 23855 layer_factory.hpp:77] Creating layer inception_4a/relu_pool_proj
I0403 21:40:51.179536 23855 net.cpp:91] Creating Layer inception_4a/relu_pool_proj
I0403 21:40:51.179554 23855 net.cpp:425] inception_4a/relu_pool_proj <- inception_4a/pool_proj
I0403 21:40:51.179571 23855 net.cpp:386] inception_4a/relu_pool_proj -> inception_4a/pool_proj (in-place)
I0403 21:40:51.179841 23855 net.cpp:141] Setting up inception_4a/relu_pool_proj
I0403 21:40:51.179867 23855 net.cpp:148] Top shape: 24 64 14 14 (301056)
I0403 21:40:51.179883 23855 net.cpp:156] Memory required for data: 886912032
I0403 21:40:51.179900 23855 layer_factory.hpp:77] Creating layer inception_4a/output
I0403 21:40:51.179918 23855 net.cpp:91] Creating Layer inception_4a/output
I0403 21:40:51.179934 23855 net.cpp:425] inception_4a/output <- inception_4a/1x1
I0403 21:40:51.179949 23855 net.cpp:425] inception_4a/output <- inception_4a/3x3
I0403 21:40:51.179966 23855 net.cpp:425] inception_4a/output <- inception_4a/5x5
I0403 21:40:51.179981 23855 net.cpp:425] inception_4a/output <- inception_4a/pool_proj
I0403 21:40:51.180001 23855 net.cpp:399] inception_4a/output -> inception_4a/output
I0403 21:40:51.180045 23855 net.cpp:141] Setting up inception_4a/output
I0403 21:40:51.180071 23855 net.cpp:148] Top shape: 24 512 14 14 (2408448)
I0403 21:40:51.180088 23855 net.cpp:156] Memory required for data: 896545824
I0403 21:40:51.180104 23855 layer_factory.hpp:77] Creating layer inception_4a/output_inception_4a/output_0_split
I0403 21:40:51.180121 23855 net.cpp:91] Creating Layer inception_4a/output_inception_4a/output_0_split
I0403 21:40:51.180137 23855 net.cpp:425] inception_4a/output_inception_4a/output_0_split <- inception_4a/output
I0403 21:40:51.180157 23855 net.cpp:399] inception_4a/output_inception_4a/output_0_split -> inception_4a/output_inception_4a/output_0_split_0
I0403 21:40:51.180177 23855 net.cpp:399] inception_4a/output_inception_4a/output_0_split -> inception_4a/output_inception_4a/output_0_split_1
I0403 21:40:51.180198 23855 net.cpp:399] inception_4a/output_inception_4a/output_0_split -> inception_4a/output_inception_4a/output_0_split_2
I0403 21:40:51.180218 23855 net.cpp:399] inception_4a/output_inception_4a/output_0_split -> inception_4a/output_inception_4a/output_0_split_3
I0403 21:40:51.180244 23855 net.cpp:399] inception_4a/output_inception_4a/output_0_split -> inception_4a/output_inception_4a/output_0_split_4
I0403 21:40:51.180335 23855 net.cpp:141] Setting up inception_4a/output_inception_4a/output_0_split
I0403 21:40:51.180359 23855 net.cpp:148] Top shape: 24 512 14 14 (2408448)
I0403 21:40:51.180376 23855 net.cpp:148] Top shape: 24 512 14 14 (2408448)
I0403 21:40:51.180392 23855 net.cpp:148] Top shape: 24 512 14 14 (2408448)
I0403 21:40:51.180408 23855 net.cpp:148] Top shape: 24 512 14 14 (2408448)
I0403 21:40:51.180423 23855 net.cpp:148] Top shape: 24 512 14 14 (2408448)
I0403 21:40:51.180438 23855 net.cpp:156] Memory required for data: 944714784
I0403 21:40:51.180452 23855 layer_factory.hpp:77] Creating layer loss1/ave_pool
I0403 21:40:51.180472 23855 net.cpp:91] Creating Layer loss1/ave_pool
I0403 21:40:51.180488 23855 net.cpp:425] loss1/ave_pool <- inception_4a/output_inception_4a/output_0_split_0
I0403 21:40:51.180508 23855 net.cpp:399] loss1/ave_pool -> loss1/ave_pool
I0403 21:40:51.180706 23855 net.cpp:141] Setting up loss1/ave_pool
I0403 21:40:51.180732 23855 net.cpp:148] Top shape: 24 512 4 4 (196608)
I0403 21:40:51.180747 23855 net.cpp:156] Memory required for data: 945501216
I0403 21:40:51.180763 23855 layer_factory.hpp:77] Creating layer loss1/conv
I0403 21:40:51.180785 23855 net.cpp:91] Creating Layer loss1/conv
I0403 21:40:51.180802 23855 net.cpp:425] loss1/conv <- loss1/ave_pool
I0403 21:40:51.180824 23855 net.cpp:399] loss1/conv -> loss1/conv
I0403 21:40:51.182173 23855 net.cpp:141] Setting up loss1/conv
I0403 21:40:51.182201 23855 net.cpp:148] Top shape: 24 128 4 4 (49152)
I0403 21:40:51.182235 23855 net.cpp:156] Memory required for data: 945697824
I0403 21:40:51.182255 23855 layer_factory.hpp:77] Creating layer loss1/relu_conv
I0403 21:40:51.182274 23855 net.cpp:91] Creating Layer loss1/relu_conv
I0403 21:40:51.182292 23855 net.cpp:425] loss1/relu_conv <- loss1/conv
I0403 21:40:51.182309 23855 net.cpp:386] loss1/relu_conv -> loss1/conv (in-place)
I0403 21:40:51.182585 23855 net.cpp:141] Setting up loss1/relu_conv
I0403 21:40:51.182611 23855 net.cpp:148] Top shape: 24 128 4 4 (49152)
I0403 21:40:51.182627 23855 net.cpp:156] Memory required for data: 945894432
I0403 21:40:51.182641 23855 layer_factory.hpp:77] Creating layer loss1/fc
I0403 21:40:51.182667 23855 net.cpp:91] Creating Layer loss1/fc
I0403 21:40:51.182685 23855 net.cpp:425] loss1/fc <- loss1/conv
I0403 21:40:51.182706 23855 net.cpp:399] loss1/fc -> loss1/fc
I0403 21:40:51.200084 23855 net.cpp:141] Setting up loss1/fc
I0403 21:40:51.200119 23855 net.cpp:148] Top shape: 24 1024 (24576)
I0403 21:40:51.200135 23855 net.cpp:156] Memory required for data: 945992736
I0403 21:40:51.200153 23855 layer_factory.hpp:77] Creating layer loss1/relu_fc
I0403 21:40:51.200171 23855 net.cpp:91] Creating Layer loss1/relu_fc
I0403 21:40:51.200188 23855 net.cpp:425] loss1/relu_fc <- loss1/fc
I0403 21:40:51.200208 23855 net.cpp:386] loss1/relu_fc -> loss1/fc (in-place)
I0403 21:40:51.200390 23855 net.cpp:141] Setting up loss1/relu_fc
I0403 21:40:51.200415 23855 net.cpp:148] Top shape: 24 1024 (24576)
I0403 21:40:51.200433 23855 net.cpp:156] Memory required for data: 946091040
I0403 21:40:51.200448 23855 layer_factory.hpp:77] Creating layer loss1/drop_fc
I0403 21:40:51.200474 23855 net.cpp:91] Creating Layer loss1/drop_fc
I0403 21:40:51.200492 23855 net.cpp:425] loss1/drop_fc <- loss1/fc
I0403 21:40:51.200510 23855 net.cpp:386] loss1/drop_fc -> loss1/fc (in-place)
I0403 21:40:51.200565 23855 net.cpp:141] Setting up loss1/drop_fc
I0403 21:40:51.200589 23855 net.cpp:148] Top shape: 24 1024 (24576)
I0403 21:40:51.200603 23855 net.cpp:156] Memory required for data: 946189344
I0403 21:40:51.200619 23855 layer_factory.hpp:77] Creating layer loss1/classifier_plantvillage
I0403 21:40:51.200637 23855 net.cpp:91] Creating Layer loss1/classifier_plantvillage
I0403 21:40:51.200654 23855 net.cpp:425] loss1/classifier_plantvillage <- loss1/fc
I0403 21:40:51.200676 23855 net.cpp:399] loss1/classifier_plantvillage -> loss1/classifier_plantvillage
I0403 21:40:51.201586 23855 net.cpp:141] Setting up loss1/classifier_plantvillage
I0403 21:40:51.201613 23855 net.cpp:148] Top shape: 24 38 (912)
I0403 21:40:51.201628 23855 net.cpp:156] Memory required for data: 946192992
I0403 21:40:51.201647 23855 layer_factory.hpp:77] Creating layer loss1/classifier_plantvillage_loss1/classifier_plantvillage_0_split
I0403 21:40:51.201668 23855 net.cpp:91] Creating Layer loss1/classifier_plantvillage_loss1/classifier_plantvillage_0_split
I0403 21:40:51.201686 23855 net.cpp:425] loss1/classifier_plantvillage_loss1/classifier_plantvillage_0_split <- loss1/classifier_plantvillage
I0403 21:40:51.201704 23855 net.cpp:399] loss1/classifier_plantvillage_loss1/classifier_plantvillage_0_split -> loss1/classifier_plantvillage_loss1/classifier_plantvillage_0_split_0
I0403 21:40:51.201725 23855 net.cpp:399] loss1/classifier_plantvillage_loss1/classifier_plantvillage_0_split -> loss1/classifier_plantvillage_loss1/classifier_plantvillage_0_split_1
I0403 21:40:51.201745 23855 net.cpp:399] loss1/classifier_plantvillage_loss1/classifier_plantvillage_0_split -> loss1/classifier_plantvillage_loss1/classifier_plantvillage_0_split_2
I0403 21:40:51.201809 23855 net.cpp:141] Setting up loss1/classifier_plantvillage_loss1/classifier_plantvillage_0_split
I0403 21:40:51.201833 23855 net.cpp:148] Top shape: 24 38 (912)
I0403 21:40:51.201849 23855 net.cpp:148] Top shape: 24 38 (912)
I0403 21:40:51.201865 23855 net.cpp:148] Top shape: 24 38 (912)
I0403 21:40:51.201879 23855 net.cpp:156] Memory required for data: 946203936
I0403 21:40:51.201892 23855 layer_factory.hpp:77] Creating layer inception_4b/1x1
I0403 21:40:51.201915 23855 net.cpp:91] Creating Layer inception_4b/1x1
I0403 21:40:51.201947 23855 net.cpp:425] inception_4b/1x1 <- inception_4a/output_inception_4a/output_0_split_1
I0403 21:40:51.201968 23855 net.cpp:399] inception_4b/1x1 -> inception_4b/1x1
I0403 21:40:51.203557 23855 net.cpp:141] Setting up inception_4b/1x1
I0403 21:40:51.203585 23855 net.cpp:148] Top shape: 24 160 14 14 (752640)
I0403 21:40:51.203601 23855 net.cpp:156] Memory required for data: 949214496
I0403 21:40:51.203619 23855 layer_factory.hpp:77] Creating layer inception_4b/relu_1x1
I0403 21:40:51.203639 23855 net.cpp:91] Creating Layer inception_4b/relu_1x1
I0403 21:40:51.203658 23855 net.cpp:425] inception_4b/relu_1x1 <- inception_4b/1x1
I0403 21:40:51.203676 23855 net.cpp:386] inception_4b/relu_1x1 -> inception_4b/1x1 (in-place)
I0403 21:40:51.203851 23855 net.cpp:141] Setting up inception_4b/relu_1x1
I0403 21:40:51.203876 23855 net.cpp:148] Top shape: 24 160 14 14 (752640)
I0403 21:40:51.203891 23855 net.cpp:156] Memory required for data: 952225056
I0403 21:40:51.203905 23855 layer_factory.hpp:77] Creating layer inception_4b/3x3_reduce
I0403 21:40:51.203930 23855 net.cpp:91] Creating Layer inception_4b/3x3_reduce
I0403 21:40:51.203950 23855 net.cpp:425] inception_4b/3x3_reduce <- inception_4a/output_inception_4a/output_0_split_2
I0403 21:40:51.203972 23855 net.cpp:399] inception_4b/3x3_reduce -> inception_4b/3x3_reduce
I0403 21:40:51.205278 23855 net.cpp:141] Setting up inception_4b/3x3_reduce
I0403 21:40:51.205308 23855 net.cpp:148] Top shape: 24 112 14 14 (526848)
I0403 21:40:51.205324 23855 net.cpp:156] Memory required for data: 954332448
I0403 21:40:51.205343 23855 layer_factory.hpp:77] Creating layer inception_4b/relu_3x3_reduce
I0403 21:40:51.205360 23855 net.cpp:91] Creating Layer inception_4b/relu_3x3_reduce
I0403 21:40:51.205377 23855 net.cpp:425] inception_4b/relu_3x3_reduce <- inception_4b/3x3_reduce
I0403 21:40:51.205397 23855 net.cpp:386] inception_4b/relu_3x3_reduce -> inception_4b/3x3_reduce (in-place)
I0403 21:40:51.205668 23855 net.cpp:141] Setting up inception_4b/relu_3x3_reduce
I0403 21:40:51.205696 23855 net.cpp:148] Top shape: 24 112 14 14 (526848)
I0403 21:40:51.205711 23855 net.cpp:156] Memory required for data: 956439840
I0403 21:40:51.205727 23855 layer_factory.hpp:77] Creating layer inception_4b/3x3
I0403 21:40:51.205749 23855 net.cpp:91] Creating Layer inception_4b/3x3
I0403 21:40:51.205767 23855 net.cpp:425] inception_4b/3x3 <- inception_4b/3x3_reduce
I0403 21:40:51.205790 23855 net.cpp:399] inception_4b/3x3 -> inception_4b/3x3
I0403 21:40:51.208698 23855 net.cpp:141] Setting up inception_4b/3x3
I0403 21:40:51.208727 23855 net.cpp:148] Top shape: 24 224 14 14 (1053696)
I0403 21:40:51.208744 23855 net.cpp:156] Memory required for data: 960654624
I0403 21:40:51.208762 23855 layer_factory.hpp:77] Creating layer inception_4b/relu_3x3
I0403 21:40:51.208782 23855 net.cpp:91] Creating Layer inception_4b/relu_3x3
I0403 21:40:51.208801 23855 net.cpp:425] inception_4b/relu_3x3 <- inception_4b/3x3
I0403 21:40:51.208817 23855 net.cpp:386] inception_4b/relu_3x3 -> inception_4b/3x3 (in-place)
I0403 21:40:51.208997 23855 net.cpp:141] Setting up inception_4b/relu_3x3
I0403 21:40:51.209023 23855 net.cpp:148] Top shape: 24 224 14 14 (1053696)
I0403 21:40:51.209039 23855 net.cpp:156] Memory required for data: 964869408
I0403 21:40:51.209054 23855 layer_factory.hpp:77] Creating layer inception_4b/5x5_reduce
I0403 21:40:51.209074 23855 net.cpp:91] Creating Layer inception_4b/5x5_reduce
I0403 21:40:51.209091 23855 net.cpp:425] inception_4b/5x5_reduce <- inception_4a/output_inception_4a/output_0_split_3
I0403 21:40:51.209113 23855 net.cpp:399] inception_4b/5x5_reduce -> inception_4b/5x5_reduce
I0403 21:40:51.210172 23855 net.cpp:141] Setting up inception_4b/5x5_reduce
I0403 21:40:51.210202 23855 net.cpp:148] Top shape: 24 24 14 14 (112896)
I0403 21:40:51.210219 23855 net.cpp:156] Memory required for data: 965320992
I0403 21:40:51.210243 23855 layer_factory.hpp:77] Creating layer inception_4b/relu_5x5_reduce
I0403 21:40:51.210263 23855 net.cpp:91] Creating Layer inception_4b/relu_5x5_reduce
I0403 21:40:51.210292 23855 net.cpp:425] inception_4b/relu_5x5_reduce <- inception_4b/5x5_reduce
I0403 21:40:51.210311 23855 net.cpp:386] inception_4b/relu_5x5_reduce -> inception_4b/5x5_reduce (in-place)
I0403 21:40:51.210494 23855 net.cpp:141] Setting up inception_4b/relu_5x5_reduce
I0403 21:40:51.210520 23855 net.cpp:148] Top shape: 24 24 14 14 (112896)
I0403 21:40:51.210535 23855 net.cpp:156] Memory required for data: 965772576
I0403 21:40:51.210549 23855 layer_factory.hpp:77] Creating layer inception_4b/5x5
I0403 21:40:51.210572 23855 net.cpp:91] Creating Layer inception_4b/5x5
I0403 21:40:51.210589 23855 net.cpp:425] inception_4b/5x5 <- inception_4b/5x5_reduce
I0403 21:40:51.210610 23855 net.cpp:399] inception_4b/5x5 -> inception_4b/5x5
I0403 21:40:51.211812 23855 net.cpp:141] Setting up inception_4b/5x5
I0403 21:40:51.211839 23855 net.cpp:148] Top shape: 24 64 14 14 (301056)
I0403 21:40:51.211856 23855 net.cpp:156] Memory required for data: 966976800
I0403 21:40:51.211875 23855 layer_factory.hpp:77] Creating layer inception_4b/relu_5x5
I0403 21:40:51.211895 23855 net.cpp:91] Creating Layer inception_4b/relu_5x5
I0403 21:40:51.211913 23855 net.cpp:425] inception_4b/relu_5x5 <- inception_4b/5x5
I0403 21:40:51.211932 23855 net.cpp:386] inception_4b/relu_5x5 -> inception_4b/5x5 (in-place)
I0403 21:40:51.212234 23855 net.cpp:141] Setting up inception_4b/relu_5x5
I0403 21:40:51.212260 23855 net.cpp:148] Top shape: 24 64 14 14 (301056)
I0403 21:40:51.212275 23855 net.cpp:156] Memory required for data: 968181024
I0403 21:40:51.212290 23855 layer_factory.hpp:77] Creating layer inception_4b/pool
I0403 21:40:51.212309 23855 net.cpp:91] Creating Layer inception_4b/pool
I0403 21:40:51.212328 23855 net.cpp:425] inception_4b/pool <- inception_4a/output_inception_4a/output_0_split_4
I0403 21:40:51.212347 23855 net.cpp:399] inception_4b/pool -> inception_4b/pool
I0403 21:40:51.212407 23855 net.cpp:141] Setting up inception_4b/pool
I0403 21:40:51.212431 23855 net.cpp:148] Top shape: 24 512 14 14 (2408448)
I0403 21:40:51.212446 23855 net.cpp:156] Memory required for data: 977814816
I0403 21:40:51.212461 23855 layer_factory.hpp:77] Creating layer inception_4b/pool_proj
I0403 21:40:51.212483 23855 net.cpp:91] Creating Layer inception_4b/pool_proj
I0403 21:40:51.212502 23855 net.cpp:425] inception_4b/pool_proj <- inception_4b/pool
I0403 21:40:51.212522 23855 net.cpp:399] inception_4b/pool_proj -> inception_4b/pool_proj
I0403 21:40:51.213691 23855 net.cpp:141] Setting up inception_4b/pool_proj
I0403 21:40:51.213721 23855 net.cpp:148] Top shape: 24 64 14 14 (301056)
I0403 21:40:51.213737 23855 net.cpp:156] Memory required for data: 979019040
I0403 21:40:51.213757 23855 layer_factory.hpp:77] Creating layer inception_4b/relu_pool_proj
I0403 21:40:51.213775 23855 net.cpp:91] Creating Layer inception_4b/relu_pool_proj
I0403 21:40:51.213793 23855 net.cpp:425] inception_4b/relu_pool_proj <- inception_4b/pool_proj
I0403 21:40:51.213814 23855 net.cpp:386] inception_4b/relu_pool_proj -> inception_4b/pool_proj (in-place)
I0403 21:40:51.213989 23855 net.cpp:141] Setting up inception_4b/relu_pool_proj
I0403 21:40:51.214013 23855 net.cpp:148] Top shape: 24 64 14 14 (301056)
I0403 21:40:51.214027 23855 net.cpp:156] Memory required for data: 980223264
I0403 21:40:51.214042 23855 layer_factory.hpp:77] Creating layer inception_4b/output
I0403 21:40:51.214061 23855 net.cpp:91] Creating Layer inception_4b/output
I0403 21:40:51.214076 23855 net.cpp:425] inception_4b/output <- inception_4b/1x1
I0403 21:40:51.214092 23855 net.cpp:425] inception_4b/output <- inception_4b/3x3
I0403 21:40:51.214107 23855 net.cpp:425] inception_4b/output <- inception_4b/5x5
I0403 21:40:51.214123 23855 net.cpp:425] inception_4b/output <- inception_4b/pool_proj
I0403 21:40:51.214143 23855 net.cpp:399] inception_4b/output -> inception_4b/output
I0403 21:40:51.214189 23855 net.cpp:141] Setting up inception_4b/output
I0403 21:40:51.214215 23855 net.cpp:148] Top shape: 24 512 14 14 (2408448)
I0403 21:40:51.214234 23855 net.cpp:156] Memory required for data: 989857056
I0403 21:40:51.214263 23855 layer_factory.hpp:77] Creating layer inception_4b/output_inception_4b/output_0_split
I0403 21:40:51.214282 23855 net.cpp:91] Creating Layer inception_4b/output_inception_4b/output_0_split
I0403 21:40:51.214298 23855 net.cpp:425] inception_4b/output_inception_4b/output_0_split <- inception_4b/output
I0403 21:40:51.214316 23855 net.cpp:399] inception_4b/output_inception_4b/output_0_split -> inception_4b/output_inception_4b/output_0_split_0
I0403 21:40:51.214335 23855 net.cpp:399] inception_4b/output_inception_4b/output_0_split -> inception_4b/output_inception_4b/output_0_split_1
I0403 21:40:51.214357 23855 net.cpp:399] inception_4b/output_inception_4b/output_0_split -> inception_4b/output_inception_4b/output_0_split_2
I0403 21:40:51.214380 23855 net.cpp:399] inception_4b/output_inception_4b/output_0_split -> inception_4b/output_inception_4b/output_0_split_3
I0403 21:40:51.214463 23855 net.cpp:141] Setting up inception_4b/output_inception_4b/output_0_split
I0403 21:40:51.214486 23855 net.cpp:148] Top shape: 24 512 14 14 (2408448)
I0403 21:40:51.214503 23855 net.cpp:148] Top shape: 24 512 14 14 (2408448)
I0403 21:40:51.214519 23855 net.cpp:148] Top shape: 24 512 14 14 (2408448)
I0403 21:40:51.214534 23855 net.cpp:148] Top shape: 24 512 14 14 (2408448)
I0403 21:40:51.214548 23855 net.cpp:156] Memory required for data: 1028392224
I0403 21:40:51.214563 23855 layer_factory.hpp:77] Creating layer inception_4c/1x1
I0403 21:40:51.214586 23855 net.cpp:91] Creating Layer inception_4c/1x1
I0403 21:40:51.214604 23855 net.cpp:425] inception_4c/1x1 <- inception_4b/output_inception_4b/output_0_split_0
I0403 21:40:51.214627 23855 net.cpp:399] inception_4c/1x1 -> inception_4c/1x1
I0403 21:40:51.216032 23855 net.cpp:141] Setting up inception_4c/1x1
I0403 21:40:51.216060 23855 net.cpp:148] Top shape: 24 128 14 14 (602112)
I0403 21:40:51.216076 23855 net.cpp:156] Memory required for data: 1030800672
I0403 21:40:51.216094 23855 layer_factory.hpp:77] Creating layer inception_4c/relu_1x1
I0403 21:40:51.216112 23855 net.cpp:91] Creating Layer inception_4c/relu_1x1
I0403 21:40:51.216130 23855 net.cpp:425] inception_4c/relu_1x1 <- inception_4c/1x1
I0403 21:40:51.216150 23855 net.cpp:386] inception_4c/relu_1x1 -> inception_4c/1x1 (in-place)
I0403 21:40:51.216331 23855 net.cpp:141] Setting up inception_4c/relu_1x1
I0403 21:40:51.216356 23855 net.cpp:148] Top shape: 24 128 14 14 (602112)
I0403 21:40:51.216372 23855 net.cpp:156] Memory required for data: 1033209120
I0403 21:40:51.216387 23855 layer_factory.hpp:77] Creating layer inception_4c/3x3_reduce
I0403 21:40:51.216408 23855 net.cpp:91] Creating Layer inception_4c/3x3_reduce
I0403 21:40:51.216425 23855 net.cpp:425] inception_4c/3x3_reduce <- inception_4b/output_inception_4b/output_0_split_1
I0403 21:40:51.216445 23855 net.cpp:399] inception_4c/3x3_reduce -> inception_4c/3x3_reduce
I0403 21:40:51.218358 23855 net.cpp:141] Setting up inception_4c/3x3_reduce
I0403 21:40:51.218387 23855 net.cpp:148] Top shape: 24 128 14 14 (602112)
I0403 21:40:51.218403 23855 net.cpp:156] Memory required for data: 1035617568
I0403 21:40:51.218422 23855 layer_factory.hpp:77] Creating layer inception_4c/relu_3x3_reduce
I0403 21:40:51.218444 23855 net.cpp:91] Creating Layer inception_4c/relu_3x3_reduce
I0403 21:40:51.218462 23855 net.cpp:425] inception_4c/relu_3x3_reduce <- inception_4c/3x3_reduce
I0403 21:40:51.218479 23855 net.cpp:386] inception_4c/relu_3x3_reduce -> inception_4c/3x3_reduce (in-place)
I0403 21:40:51.218760 23855 net.cpp:141] Setting up inception_4c/relu_3x3_reduce
I0403 21:40:51.218786 23855 net.cpp:148] Top shape: 24 128 14 14 (602112)
I0403 21:40:51.218802 23855 net.cpp:156] Memory required for data: 1038026016
I0403 21:40:51.218818 23855 layer_factory.hpp:77] Creating layer inception_4c/3x3
I0403 21:40:51.218840 23855 net.cpp:91] Creating Layer inception_4c/3x3
I0403 21:40:51.218858 23855 net.cpp:425] inception_4c/3x3 <- inception_4c/3x3_reduce
I0403 21:40:51.218879 23855 net.cpp:399] inception_4c/3x3 -> inception_4c/3x3
I0403 21:40:51.222401 23855 net.cpp:141] Setting up inception_4c/3x3
I0403 21:40:51.222441 23855 net.cpp:148] Top shape: 24 256 14 14 (1204224)
I0403 21:40:51.222458 23855 net.cpp:156] Memory required for data: 1042842912
I0403 21:40:51.222489 23855 layer_factory.hpp:77] Creating layer inception_4c/relu_3x3
I0403 21:40:51.222512 23855 net.cpp:91] Creating Layer inception_4c/relu_3x3
I0403 21:40:51.222532 23855 net.cpp:425] inception_4c/relu_3x3 <- inception_4c/3x3
I0403 21:40:51.222549 23855 net.cpp:386] inception_4c/relu_3x3 -> inception_4c/3x3 (in-place)
I0403 21:40:51.222726 23855 net.cpp:141] Setting up inception_4c/relu_3x3
I0403 21:40:51.222754 23855 net.cpp:148] Top shape: 24 256 14 14 (1204224)
I0403 21:40:51.222770 23855 net.cpp:156] Memory required for data: 1047659808
I0403 21:40:51.222784 23855 layer_factory.hpp:77] Creating layer inception_4c/5x5_reduce
I0403 21:40:51.222806 23855 net.cpp:91] Creating Layer inception_4c/5x5_reduce
I0403 21:40:51.222826 23855 net.cpp:425] inception_4c/5x5_reduce <- inception_4b/output_inception_4b/output_0_split_2
I0403 21:40:51.222844 23855 net.cpp:399] inception_4c/5x5_reduce -> inception_4c/5x5_reduce
I0403 21:40:51.223908 23855 net.cpp:141] Setting up inception_4c/5x5_reduce
I0403 21:40:51.223940 23855 net.cpp:148] Top shape: 24 24 14 14 (112896)
I0403 21:40:51.223956 23855 net.cpp:156] Memory required for data: 1048111392
I0403 21:40:51.223975 23855 layer_factory.hpp:77] Creating layer inception_4c/relu_5x5_reduce
I0403 21:40:51.223992 23855 net.cpp:91] Creating Layer inception_4c/relu_5x5_reduce
I0403 21:40:51.224009 23855 net.cpp:425] inception_4c/relu_5x5_reduce <- inception_4c/5x5_reduce
I0403 21:40:51.224025 23855 net.cpp:386] inception_4c/relu_5x5_reduce -> inception_4c/5x5_reduce (in-place)
I0403 21:40:51.224208 23855 net.cpp:141] Setting up inception_4c/relu_5x5_reduce
I0403 21:40:51.224236 23855 net.cpp:148] Top shape: 24 24 14 14 (112896)
I0403 21:40:51.224252 23855 net.cpp:156] Memory required for data: 1048562976
I0403 21:40:51.224267 23855 layer_factory.hpp:77] Creating layer inception_4c/5x5
I0403 21:40:51.224288 23855 net.cpp:91] Creating Layer inception_4c/5x5
I0403 21:40:51.224305 23855 net.cpp:425] inception_4c/5x5 <- inception_4c/5x5_reduce
I0403 21:40:51.224326 23855 net.cpp:399] inception_4c/5x5 -> inception_4c/5x5
I0403 21:40:51.225555 23855 net.cpp:141] Setting up inception_4c/5x5
I0403 21:40:51.225594 23855 net.cpp:148] Top shape: 24 64 14 14 (301056)
I0403 21:40:51.225608 23855 net.cpp:156] Memory required for data: 1049767200
I0403 21:40:51.225626 23855 layer_factory.hpp:77] Creating layer inception_4c/relu_5x5
I0403 21:40:51.225644 23855 net.cpp:91] Creating Layer inception_4c/relu_5x5
I0403 21:40:51.225661 23855 net.cpp:425] inception_4c/relu_5x5 <- inception_4c/5x5
I0403 21:40:51.225680 23855 net.cpp:386] inception_4c/relu_5x5 -> inception_4c/5x5 (in-place)
I0403 21:40:51.225963 23855 net.cpp:141] Setting up inception_4c/relu_5x5
I0403 21:40:51.225988 23855 net.cpp:148] Top shape: 24 64 14 14 (301056)
I0403 21:40:51.226003 23855 net.cpp:156] Memory required for data: 1050971424
I0403 21:40:51.226018 23855 layer_factory.hpp:77] Creating layer inception_4c/pool
I0403 21:40:51.226035 23855 net.cpp:91] Creating Layer inception_4c/pool
I0403 21:40:51.226052 23855 net.cpp:425] inception_4c/pool <- inception_4b/output_inception_4b/output_0_split_3
I0403 21:40:51.226070 23855 net.cpp:399] inception_4c/pool -> inception_4c/pool
I0403 21:40:51.226135 23855 net.cpp:141] Setting up inception_4c/pool
I0403 21:40:51.226157 23855 net.cpp:148] Top shape: 24 512 14 14 (2408448)
I0403 21:40:51.226171 23855 net.cpp:156] Memory required for data: 1060605216
I0403 21:40:51.226186 23855 layer_factory.hpp:77] Creating layer inception_4c/pool_proj
I0403 21:40:51.226209 23855 net.cpp:91] Creating Layer inception_4c/pool_proj
I0403 21:40:51.226227 23855 net.cpp:425] inception_4c/pool_proj <- inception_4c/pool
I0403 21:40:51.226249 23855 net.cpp:399] inception_4c/pool_proj -> inception_4c/pool_proj
I0403 21:40:51.227438 23855 net.cpp:141] Setting up inception_4c/pool_proj
I0403 21:40:51.227464 23855 net.cpp:148] Top shape: 24 64 14 14 (301056)
I0403 21:40:51.227493 23855 net.cpp:156] Memory required for data: 1061809440
I0403 21:40:51.227512 23855 layer_factory.hpp:77] Creating layer inception_4c/relu_pool_proj
I0403 21:40:51.227532 23855 net.cpp:91] Creating Layer inception_4c/relu_pool_proj
I0403 21:40:51.227550 23855 net.cpp:425] inception_4c/relu_pool_proj <- inception_4c/pool_proj
I0403 21:40:51.227566 23855 net.cpp:386] inception_4c/relu_pool_proj -> inception_4c/pool_proj (in-place)
I0403 21:40:51.227746 23855 net.cpp:141] Setting up inception_4c/relu_pool_proj
I0403 21:40:51.227771 23855 net.cpp:148] Top shape: 24 64 14 14 (301056)
I0403 21:40:51.227783 23855 net.cpp:156] Memory required for data: 1063013664
I0403 21:40:51.227798 23855 layer_factory.hpp:77] Creating layer inception_4c/output
I0403 21:40:51.227814 23855 net.cpp:91] Creating Layer inception_4c/output
I0403 21:40:51.227830 23855 net.cpp:425] inception_4c/output <- inception_4c/1x1
I0403 21:40:51.227845 23855 net.cpp:425] inception_4c/output <- inception_4c/3x3
I0403 21:40:51.227861 23855 net.cpp:425] inception_4c/output <- inception_4c/5x5
I0403 21:40:51.227876 23855 net.cpp:425] inception_4c/output <- inception_4c/pool_proj
I0403 21:40:51.227895 23855 net.cpp:399] inception_4c/output -> inception_4c/output
I0403 21:40:51.227939 23855 net.cpp:141] Setting up inception_4c/output
I0403 21:40:51.227964 23855 net.cpp:148] Top shape: 24 512 14 14 (2408448)
I0403 21:40:51.227979 23855 net.cpp:156] Memory required for data: 1072647456
I0403 21:40:51.227993 23855 layer_factory.hpp:77] Creating layer inception_4c/output_inception_4c/output_0_split
I0403 21:40:51.228010 23855 net.cpp:91] Creating Layer inception_4c/output_inception_4c/output_0_split
I0403 21:40:51.228025 23855 net.cpp:425] inception_4c/output_inception_4c/output_0_split <- inception_4c/output
I0403 21:40:51.228042 23855 net.cpp:399] inception_4c/output_inception_4c/output_0_split -> inception_4c/output_inception_4c/output_0_split_0
I0403 21:40:51.228060 23855 net.cpp:399] inception_4c/output_inception_4c/output_0_split -> inception_4c/output_inception_4c/output_0_split_1
I0403 21:40:51.228082 23855 net.cpp:399] inception_4c/output_inception_4c/output_0_split -> inception_4c/output_inception_4c/output_0_split_2
I0403 21:40:51.228103 23855 net.cpp:399] inception_4c/output_inception_4c/output_0_split -> inception_4c/output_inception_4c/output_0_split_3
I0403 21:40:51.228186 23855 net.cpp:141] Setting up inception_4c/output_inception_4c/output_0_split
I0403 21:40:51.228209 23855 net.cpp:148] Top shape: 24 512 14 14 (2408448)
I0403 21:40:51.228224 23855 net.cpp:148] Top shape: 24 512 14 14 (2408448)
I0403 21:40:51.228251 23855 net.cpp:148] Top shape: 24 512 14 14 (2408448)
I0403 21:40:51.228267 23855 net.cpp:148] Top shape: 24 512 14 14 (2408448)
I0403 21:40:51.228281 23855 net.cpp:156] Memory required for data: 1111182624
I0403 21:40:51.228296 23855 layer_factory.hpp:77] Creating layer inception_4d/1x1
I0403 21:40:51.228318 23855 net.cpp:91] Creating Layer inception_4d/1x1
I0403 21:40:51.228335 23855 net.cpp:425] inception_4d/1x1 <- inception_4c/output_inception_4c/output_0_split_0
I0403 21:40:51.228355 23855 net.cpp:399] inception_4d/1x1 -> inception_4d/1x1
I0403 21:40:51.229701 23855 net.cpp:141] Setting up inception_4d/1x1
I0403 21:40:51.229727 23855 net.cpp:148] Top shape: 24 112 14 14 (526848)
I0403 21:40:51.229743 23855 net.cpp:156] Memory required for data: 1113290016
I0403 21:40:51.229760 23855 layer_factory.hpp:77] Creating layer inception_4d/relu_1x1
I0403 21:40:51.229779 23855 net.cpp:91] Creating Layer inception_4d/relu_1x1
I0403 21:40:51.229796 23855 net.cpp:425] inception_4d/relu_1x1 <- inception_4d/1x1
I0403 21:40:51.229814 23855 net.cpp:386] inception_4d/relu_1x1 -> inception_4d/1x1 (in-place)
I0403 21:40:51.229992 23855 net.cpp:141] Setting up inception_4d/relu_1x1
I0403 21:40:51.230018 23855 net.cpp:148] Top shape: 24 112 14 14 (526848)
I0403 21:40:51.230033 23855 net.cpp:156] Memory required for data: 1115397408
I0403 21:40:51.230048 23855 layer_factory.hpp:77] Creating layer inception_4d/3x3_reduce
I0403 21:40:51.230084 23855 net.cpp:91] Creating Layer inception_4d/3x3_reduce
I0403 21:40:51.230103 23855 net.cpp:425] inception_4d/3x3_reduce <- inception_4c/output_inception_4c/output_0_split_1
I0403 21:40:51.230121 23855 net.cpp:399] inception_4d/3x3_reduce -> inception_4d/3x3_reduce
I0403 21:40:51.231606 23855 net.cpp:141] Setting up inception_4d/3x3_reduce
I0403 21:40:51.231632 23855 net.cpp:148] Top shape: 24 144 14 14 (677376)
I0403 21:40:51.231647 23855 net.cpp:156] Memory required for data: 1118106912
I0403 21:40:51.231665 23855 layer_factory.hpp:77] Creating layer inception_4d/relu_3x3_reduce
I0403 21:40:51.231683 23855 net.cpp:91] Creating Layer inception_4d/relu_3x3_reduce
I0403 21:40:51.231701 23855 net.cpp:425] inception_4d/relu_3x3_reduce <- inception_4d/3x3_reduce
I0403 21:40:51.231719 23855 net.cpp:386] inception_4d/relu_3x3_reduce -> inception_4d/3x3_reduce (in-place)
I0403 21:40:51.231999 23855 net.cpp:141] Setting up inception_4d/relu_3x3_reduce
I0403 21:40:51.232024 23855 net.cpp:148] Top shape: 24 144 14 14 (677376)
I0403 21:40:51.232039 23855 net.cpp:156] Memory required for data: 1120816416
I0403 21:40:51.232053 23855 layer_factory.hpp:77] Creating layer inception_4d/3x3
I0403 21:40:51.232075 23855 net.cpp:91] Creating Layer inception_4d/3x3
I0403 21:40:51.232092 23855 net.cpp:425] inception_4d/3x3 <- inception_4d/3x3_reduce
I0403 21:40:51.232112 23855 net.cpp:399] inception_4d/3x3 -> inception_4d/3x3
I0403 21:40:51.236274 23855 net.cpp:141] Setting up inception_4d/3x3
I0403 21:40:51.236300 23855 net.cpp:148] Top shape: 24 288 14 14 (1354752)
I0403 21:40:51.236315 23855 net.cpp:156] Memory required for data: 1126235424
I0403 21:40:51.236333 23855 layer_factory.hpp:77] Creating layer inception_4d/relu_3x3
I0403 21:40:51.236352 23855 net.cpp:91] Creating Layer inception_4d/relu_3x3
I0403 21:40:51.236369 23855 net.cpp:425] inception_4d/relu_3x3 <- inception_4d/3x3
I0403 21:40:51.236387 23855 net.cpp:386] inception_4d/relu_3x3 -> inception_4d/3x3 (in-place)
I0403 21:40:51.236570 23855 net.cpp:141] Setting up inception_4d/relu_3x3
I0403 21:40:51.236596 23855 net.cpp:148] Top shape: 24 288 14 14 (1354752)
I0403 21:40:51.236611 23855 net.cpp:156] Memory required for data: 1131654432
I0403 21:40:51.236626 23855 layer_factory.hpp:77] Creating layer inception_4d/5x5_reduce
I0403 21:40:51.236647 23855 net.cpp:91] Creating Layer inception_4d/5x5_reduce
I0403 21:40:51.236665 23855 net.cpp:425] inception_4d/5x5_reduce <- inception_4c/output_inception_4c/output_0_split_2
I0403 21:40:51.236682 23855 net.cpp:399] inception_4d/5x5_reduce -> inception_4d/5x5_reduce
I0403 21:40:51.237797 23855 net.cpp:141] Setting up inception_4d/5x5_reduce
I0403 21:40:51.237823 23855 net.cpp:148] Top shape: 24 32 14 14 (150528)
I0403 21:40:51.237838 23855 net.cpp:156] Memory required for data: 1132256544
I0403 21:40:51.237855 23855 layer_factory.hpp:77] Creating layer inception_4d/relu_5x5_reduce
I0403 21:40:51.237875 23855 net.cpp:91] Creating Layer inception_4d/relu_5x5_reduce
I0403 21:40:51.237892 23855 net.cpp:425] inception_4d/relu_5x5_reduce <- inception_4d/5x5_reduce
I0403 21:40:51.237910 23855 net.cpp:386] inception_4d/relu_5x5_reduce -> inception_4d/5x5_reduce (in-place)
I0403 21:40:51.238093 23855 net.cpp:141] Setting up inception_4d/relu_5x5_reduce
I0403 21:40:51.238121 23855 net.cpp:148] Top shape: 24 32 14 14 (150528)
I0403 21:40:51.238137 23855 net.cpp:156] Memory required for data: 1132858656
I0403 21:40:51.238152 23855 layer_factory.hpp:77] Creating layer inception_4d/5x5
I0403 21:40:51.238173 23855 net.cpp:91] Creating Layer inception_4d/5x5
I0403 21:40:51.238190 23855 net.cpp:425] inception_4d/5x5 <- inception_4d/5x5_reduce
I0403 21:40:51.238209 23855 net.cpp:399] inception_4d/5x5 -> inception_4d/5x5
I0403 21:40:51.239656 23855 net.cpp:141] Setting up inception_4d/5x5
I0403 21:40:51.239686 23855 net.cpp:148] Top shape: 24 64 14 14 (301056)
I0403 21:40:51.239701 23855 net.cpp:156] Memory required for data: 1134062880
I0403 21:40:51.239720 23855 layer_factory.hpp:77] Creating layer inception_4d/relu_5x5
I0403 21:40:51.239751 23855 net.cpp:91] Creating Layer inception_4d/relu_5x5
I0403 21:40:51.239768 23855 net.cpp:425] inception_4d/relu_5x5 <- inception_4d/5x5
I0403 21:40:51.239787 23855 net.cpp:386] inception_4d/relu_5x5 -> inception_4d/5x5 (in-place)
I0403 21:40:51.240083 23855 net.cpp:141] Setting up inception_4d/relu_5x5
I0403 21:40:51.240111 23855 net.cpp:148] Top shape: 24 64 14 14 (301056)
I0403 21:40:51.240126 23855 net.cpp:156] Memory required for data: 1135267104
I0403 21:40:51.240142 23855 layer_factory.hpp:77] Creating layer inception_4d/pool
I0403 21:40:51.240159 23855 net.cpp:91] Creating Layer inception_4d/pool
I0403 21:40:51.240175 23855 net.cpp:425] inception_4d/pool <- inception_4c/output_inception_4c/output_0_split_3
I0403 21:40:51.240195 23855 net.cpp:399] inception_4d/pool -> inception_4d/pool
I0403 21:40:51.240264 23855 net.cpp:141] Setting up inception_4d/pool
I0403 21:40:51.240288 23855 net.cpp:148] Top shape: 24 512 14 14 (2408448)
I0403 21:40:51.240303 23855 net.cpp:156] Memory required for data: 1144900896
I0403 21:40:51.240316 23855 layer_factory.hpp:77] Creating layer inception_4d/pool_proj
I0403 21:40:51.240339 23855 net.cpp:91] Creating Layer inception_4d/pool_proj
I0403 21:40:51.240356 23855 net.cpp:425] inception_4d/pool_proj <- inception_4d/pool
I0403 21:40:51.240375 23855 net.cpp:399] inception_4d/pool_proj -> inception_4d/pool_proj
I0403 21:40:51.242107 23855 net.cpp:141] Setting up inception_4d/pool_proj
I0403 21:40:51.242136 23855 net.cpp:148] Top shape: 24 64 14 14 (301056)
I0403 21:40:51.242151 23855 net.cpp:156] Memory required for data: 1146105120
I0403 21:40:51.242169 23855 layer_factory.hpp:77] Creating layer inception_4d/relu_pool_proj
I0403 21:40:51.242189 23855 net.cpp:91] Creating Layer inception_4d/relu_pool_proj
I0403 21:40:51.242208 23855 net.cpp:425] inception_4d/relu_pool_proj <- inception_4d/pool_proj
I0403 21:40:51.242224 23855 net.cpp:386] inception_4d/relu_pool_proj -> inception_4d/pool_proj (in-place)
I0403 21:40:51.242413 23855 net.cpp:141] Setting up inception_4d/relu_pool_proj
I0403 21:40:51.242439 23855 net.cpp:148] Top shape: 24 64 14 14 (301056)
I0403 21:40:51.242454 23855 net.cpp:156] Memory required for data: 1147309344
I0403 21:40:51.242468 23855 layer_factory.hpp:77] Creating layer inception_4d/output
I0403 21:40:51.242485 23855 net.cpp:91] Creating Layer inception_4d/output
I0403 21:40:51.242499 23855 net.cpp:425] inception_4d/output <- inception_4d/1x1
I0403 21:40:51.242516 23855 net.cpp:425] inception_4d/output <- inception_4d/3x3
I0403 21:40:51.242532 23855 net.cpp:425] inception_4d/output <- inception_4d/5x5
I0403 21:40:51.242547 23855 net.cpp:425] inception_4d/output <- inception_4d/pool_proj
I0403 21:40:51.242563 23855 net.cpp:399] inception_4d/output -> inception_4d/output
I0403 21:40:51.242609 23855 net.cpp:141] Setting up inception_4d/output
I0403 21:40:51.242632 23855 net.cpp:148] Top shape: 24 528 14 14 (2483712)
I0403 21:40:51.242646 23855 net.cpp:156] Memory required for data: 1157244192
I0403 21:40:51.242660 23855 layer_factory.hpp:77] Creating layer inception_4d/output_inception_4d/output_0_split
I0403 21:40:51.242681 23855 net.cpp:91] Creating Layer inception_4d/output_inception_4d/output_0_split
I0403 21:40:51.242697 23855 net.cpp:425] inception_4d/output_inception_4d/output_0_split <- inception_4d/output
I0403 21:40:51.242715 23855 net.cpp:399] inception_4d/output_inception_4d/output_0_split -> inception_4d/output_inception_4d/output_0_split_0
I0403 21:40:51.242735 23855 net.cpp:399] inception_4d/output_inception_4d/output_0_split -> inception_4d/output_inception_4d/output_0_split_1
I0403 21:40:51.242771 23855 net.cpp:399] inception_4d/output_inception_4d/output_0_split -> inception_4d/output_inception_4d/output_0_split_2
I0403 21:40:51.242794 23855 net.cpp:399] inception_4d/output_inception_4d/output_0_split -> inception_4d/output_inception_4d/output_0_split_3
I0403 21:40:51.242815 23855 net.cpp:399] inception_4d/output_inception_4d/output_0_split -> inception_4d/output_inception_4d/output_0_split_4
I0403 21:40:51.242915 23855 net.cpp:141] Setting up inception_4d/output_inception_4d/output_0_split
I0403 21:40:51.242951 23855 net.cpp:148] Top shape: 24 528 14 14 (2483712)
I0403 21:40:51.242969 23855 net.cpp:148] Top shape: 24 528 14 14 (2483712)
I0403 21:40:51.242985 23855 net.cpp:148] Top shape: 24 528 14 14 (2483712)
I0403 21:40:51.243000 23855 net.cpp:148] Top shape: 24 528 14 14 (2483712)
I0403 21:40:51.243016 23855 net.cpp:148] Top shape: 24 528 14 14 (2483712)
I0403 21:40:51.243031 23855 net.cpp:156] Memory required for data: 1206918432
I0403 21:40:51.243049 23855 layer_factory.hpp:77] Creating layer loss2/ave_pool
I0403 21:40:51.243067 23855 net.cpp:91] Creating Layer loss2/ave_pool
I0403 21:40:51.243083 23855 net.cpp:425] loss2/ave_pool <- inception_4d/output_inception_4d/output_0_split_0
I0403 21:40:51.243103 23855 net.cpp:399] loss2/ave_pool -> loss2/ave_pool
I0403 21:40:51.243432 23855 net.cpp:141] Setting up loss2/ave_pool
I0403 21:40:51.243458 23855 net.cpp:148] Top shape: 24 528 4 4 (202752)
I0403 21:40:51.243474 23855 net.cpp:156] Memory required for data: 1207729440
I0403 21:40:51.243487 23855 layer_factory.hpp:77] Creating layer loss2/conv
I0403 21:40:51.243510 23855 net.cpp:91] Creating Layer loss2/conv
I0403 21:40:51.243526 23855 net.cpp:425] loss2/conv <- loss2/ave_pool
I0403 21:40:51.243547 23855 net.cpp:399] loss2/conv -> loss2/conv
I0403 21:40:51.245424 23855 net.cpp:141] Setting up loss2/conv
I0403 21:40:51.245452 23855 net.cpp:148] Top shape: 24 128 4 4 (49152)
I0403 21:40:51.245470 23855 net.cpp:156] Memory required for data: 1207926048
I0403 21:40:51.245487 23855 layer_factory.hpp:77] Creating layer loss2/relu_conv
I0403 21:40:51.245504 23855 net.cpp:91] Creating Layer loss2/relu_conv
I0403 21:40:51.245522 23855 net.cpp:425] loss2/relu_conv <- loss2/conv
I0403 21:40:51.245540 23855 net.cpp:386] loss2/relu_conv -> loss2/conv (in-place)
I0403 21:40:51.245821 23855 net.cpp:141] Setting up loss2/relu_conv
I0403 21:40:51.245849 23855 net.cpp:148] Top shape: 24 128 4 4 (49152)
I0403 21:40:51.245864 23855 net.cpp:156] Memory required for data: 1208122656
I0403 21:40:51.245879 23855 layer_factory.hpp:77] Creating layer loss2/fc
I0403 21:40:51.245898 23855 net.cpp:91] Creating Layer loss2/fc
I0403 21:40:51.245914 23855 net.cpp:425] loss2/fc <- loss2/conv
I0403 21:40:51.245936 23855 net.cpp:399] loss2/fc -> loss2/fc
I0403 21:40:51.263166 23855 net.cpp:141] Setting up loss2/fc
I0403 21:40:51.263200 23855 net.cpp:148] Top shape: 24 1024 (24576)
I0403 21:40:51.263214 23855 net.cpp:156] Memory required for data: 1208220960
I0403 21:40:51.263236 23855 layer_factory.hpp:77] Creating layer loss2/relu_fc
I0403 21:40:51.263257 23855 net.cpp:91] Creating Layer loss2/relu_fc
I0403 21:40:51.263275 23855 net.cpp:425] loss2/relu_fc <- loss2/fc
I0403 21:40:51.263293 23855 net.cpp:386] loss2/relu_fc -> loss2/fc (in-place)
I0403 21:40:51.263581 23855 net.cpp:141] Setting up loss2/relu_fc
I0403 21:40:51.263607 23855 net.cpp:148] Top shape: 24 1024 (24576)
I0403 21:40:51.263620 23855 net.cpp:156] Memory required for data: 1208319264
I0403 21:40:51.263635 23855 layer_factory.hpp:77] Creating layer loss2/drop_fc
I0403 21:40:51.263659 23855 net.cpp:91] Creating Layer loss2/drop_fc
I0403 21:40:51.263676 23855 net.cpp:425] loss2/drop_fc <- loss2/fc
I0403 21:40:51.263694 23855 net.cpp:386] loss2/drop_fc -> loss2/fc (in-place)
I0403 21:40:51.263743 23855 net.cpp:141] Setting up loss2/drop_fc
I0403 21:40:51.263767 23855 net.cpp:148] Top shape: 24 1024 (24576)
I0403 21:40:51.263779 23855 net.cpp:156] Memory required for data: 1208417568
I0403 21:40:51.263793 23855 layer_factory.hpp:77] Creating layer loss2/classifier_plantvillage
I0403 21:40:51.263810 23855 net.cpp:91] Creating Layer loss2/classifier_plantvillage
I0403 21:40:51.263826 23855 net.cpp:425] loss2/classifier_plantvillage <- loss2/fc
I0403 21:40:51.263847 23855 net.cpp:399] loss2/classifier_plantvillage -> loss2/classifier_plantvillage
I0403 21:40:51.264245 23855 net.cpp:141] Setting up loss2/classifier_plantvillage
I0403 21:40:51.264268 23855 net.cpp:148] Top shape: 24 38 (912)
I0403 21:40:51.264299 23855 net.cpp:156] Memory required for data: 1208421216
I0403 21:40:51.264317 23855 layer_factory.hpp:77] Creating layer loss2/classifier_plantvillage_loss2/classifier_plantvillage_0_split
I0403 21:40:51.264334 23855 net.cpp:91] Creating Layer loss2/classifier_plantvillage_loss2/classifier_plantvillage_0_split
I0403 21:40:51.264350 23855 net.cpp:425] loss2/classifier_plantvillage_loss2/classifier_plantvillage_0_split <- loss2/classifier_plantvillage
I0403 21:40:51.264369 23855 net.cpp:399] loss2/classifier_plantvillage_loss2/classifier_plantvillage_0_split -> loss2/classifier_plantvillage_loss2/classifier_plantvillage_0_split_0
I0403 21:40:51.264389 23855 net.cpp:399] loss2/classifier_plantvillage_loss2/classifier_plantvillage_0_split -> loss2/classifier_plantvillage_loss2/classifier_plantvillage_0_split_1
I0403 21:40:51.264410 23855 net.cpp:399] loss2/classifier_plantvillage_loss2/classifier_plantvillage_0_split -> loss2/classifier_plantvillage_loss2/classifier_plantvillage_0_split_2
I0403 21:40:51.264483 23855 net.cpp:141] Setting up loss2/classifier_plantvillage_loss2/classifier_plantvillage_0_split
I0403 21:40:51.264508 23855 net.cpp:148] Top shape: 24 38 (912)
I0403 21:40:51.264524 23855 net.cpp:148] Top shape: 24 38 (912)
I0403 21:40:51.264540 23855 net.cpp:148] Top shape: 24 38 (912)
I0403 21:40:51.264554 23855 net.cpp:156] Memory required for data: 1208432160
I0403 21:40:51.264569 23855 layer_factory.hpp:77] Creating layer inception_4e/1x1
I0403 21:40:51.264587 23855 net.cpp:91] Creating Layer inception_4e/1x1
I0403 21:40:51.264603 23855 net.cpp:425] inception_4e/1x1 <- inception_4d/output_inception_4d/output_0_split_1
I0403 21:40:51.264621 23855 net.cpp:399] inception_4e/1x1 -> inception_4e/1x1
I0403 21:40:51.266398 23855 net.cpp:141] Setting up inception_4e/1x1
I0403 21:40:51.266425 23855 net.cpp:148] Top shape: 24 256 14 14 (1204224)
I0403 21:40:51.266440 23855 net.cpp:156] Memory required for data: 1213249056
I0403 21:40:51.266459 23855 layer_factory.hpp:77] Creating layer inception_4e/relu_1x1
I0403 21:40:51.266476 23855 net.cpp:91] Creating Layer inception_4e/relu_1x1
I0403 21:40:51.266491 23855 net.cpp:425] inception_4e/relu_1x1 <- inception_4e/1x1
I0403 21:40:51.266510 23855 net.cpp:386] inception_4e/relu_1x1 -> inception_4e/1x1 (in-place)
I0403 21:40:51.266800 23855 net.cpp:141] Setting up inception_4e/relu_1x1
I0403 21:40:51.266825 23855 net.cpp:148] Top shape: 24 256 14 14 (1204224)
I0403 21:40:51.266840 23855 net.cpp:156] Memory required for data: 1218065952
I0403 21:40:51.266855 23855 layer_factory.hpp:77] Creating layer inception_4e/3x3_reduce
I0403 21:40:51.266876 23855 net.cpp:91] Creating Layer inception_4e/3x3_reduce
I0403 21:40:51.266893 23855 net.cpp:425] inception_4e/3x3_reduce <- inception_4d/output_inception_4d/output_0_split_2
I0403 21:40:51.266922 23855 net.cpp:399] inception_4e/3x3_reduce -> inception_4e/3x3_reduce
I0403 21:40:51.269022 23855 net.cpp:141] Setting up inception_4e/3x3_reduce
I0403 21:40:51.269052 23855 net.cpp:148] Top shape: 24 160 14 14 (752640)
I0403 21:40:51.269069 23855 net.cpp:156] Memory required for data: 1221076512
I0403 21:40:51.269086 23855 layer_factory.hpp:77] Creating layer inception_4e/relu_3x3_reduce
I0403 21:40:51.269104 23855 net.cpp:91] Creating Layer inception_4e/relu_3x3_reduce
I0403 21:40:51.269119 23855 net.cpp:425] inception_4e/relu_3x3_reduce <- inception_4e/3x3_reduce
I0403 21:40:51.269139 23855 net.cpp:386] inception_4e/relu_3x3_reduce -> inception_4e/3x3_reduce (in-place)
I0403 21:40:51.269326 23855 net.cpp:141] Setting up inception_4e/relu_3x3_reduce
I0403 21:40:51.269351 23855 net.cpp:148] Top shape: 24 160 14 14 (752640)
I0403 21:40:51.269364 23855 net.cpp:156] Memory required for data: 1224087072
I0403 21:40:51.269378 23855 layer_factory.hpp:77] Creating layer inception_4e/3x3
I0403 21:40:51.269400 23855 net.cpp:91] Creating Layer inception_4e/3x3
I0403 21:40:51.269418 23855 net.cpp:425] inception_4e/3x3 <- inception_4e/3x3_reduce
I0403 21:40:51.269440 23855 net.cpp:399] inception_4e/3x3 -> inception_4e/3x3
I0403 21:40:51.274356 23855 net.cpp:141] Setting up inception_4e/3x3
I0403 21:40:51.274395 23855 net.cpp:148] Top shape: 24 320 14 14 (1505280)
I0403 21:40:51.274411 23855 net.cpp:156] Memory required for data: 1230108192
I0403 21:40:51.274430 23855 layer_factory.hpp:77] Creating layer inception_4e/relu_3x3
I0403 21:40:51.274447 23855 net.cpp:91] Creating Layer inception_4e/relu_3x3
I0403 21:40:51.274464 23855 net.cpp:425] inception_4e/relu_3x3 <- inception_4e/3x3
I0403 21:40:51.274483 23855 net.cpp:386] inception_4e/relu_3x3 -> inception_4e/3x3 (in-place)
I0403 21:40:51.274783 23855 net.cpp:141] Setting up inception_4e/relu_3x3
I0403 21:40:51.274809 23855 net.cpp:148] Top shape: 24 320 14 14 (1505280)
I0403 21:40:51.274824 23855 net.cpp:156] Memory required for data: 1236129312
I0403 21:40:51.274838 23855 layer_factory.hpp:77] Creating layer inception_4e/5x5_reduce
I0403 21:40:51.274863 23855 net.cpp:91] Creating Layer inception_4e/5x5_reduce
I0403 21:40:51.274883 23855 net.cpp:425] inception_4e/5x5_reduce <- inception_4d/output_inception_4d/output_0_split_3
I0403 21:40:51.274904 23855 net.cpp:399] inception_4e/5x5_reduce -> inception_4e/5x5_reduce
I0403 21:40:51.275959 23855 net.cpp:141] Setting up inception_4e/5x5_reduce
I0403 21:40:51.275987 23855 net.cpp:148] Top shape: 24 32 14 14 (150528)
I0403 21:40:51.276003 23855 net.cpp:156] Memory required for data: 1236731424
I0403 21:40:51.276021 23855 layer_factory.hpp:77] Creating layer inception_4e/relu_5x5_reduce
I0403 21:40:51.276038 23855 net.cpp:91] Creating Layer inception_4e/relu_5x5_reduce
I0403 21:40:51.276054 23855 net.cpp:425] inception_4e/relu_5x5_reduce <- inception_4e/5x5_reduce
I0403 21:40:51.276073 23855 net.cpp:386] inception_4e/relu_5x5_reduce -> inception_4e/5x5_reduce (in-place)
I0403 21:40:51.276372 23855 net.cpp:141] Setting up inception_4e/relu_5x5_reduce
I0403 21:40:51.276399 23855 net.cpp:148] Top shape: 24 32 14 14 (150528)
I0403 21:40:51.276415 23855 net.cpp:156] Memory required for data: 1237333536
I0403 21:40:51.276429 23855 layer_factory.hpp:77] Creating layer inception_4e/5x5
I0403 21:40:51.276468 23855 net.cpp:91] Creating Layer inception_4e/5x5
I0403 21:40:51.276487 23855 net.cpp:425] inception_4e/5x5 <- inception_4e/5x5_reduce
I0403 21:40:51.276506 23855 net.cpp:399] inception_4e/5x5 -> inception_4e/5x5
I0403 21:40:51.278322 23855 net.cpp:141] Setting up inception_4e/5x5
I0403 21:40:51.278350 23855 net.cpp:148] Top shape: 24 128 14 14 (602112)
I0403 21:40:51.278369 23855 net.cpp:156] Memory required for data: 1239741984
I0403 21:40:51.278389 23855 layer_factory.hpp:77] Creating layer inception_4e/relu_5x5
I0403 21:40:51.278408 23855 net.cpp:91] Creating Layer inception_4e/relu_5x5
I0403 21:40:51.278424 23855 net.cpp:425] inception_4e/relu_5x5 <- inception_4e/5x5
I0403 21:40:51.278439 23855 net.cpp:386] inception_4e/relu_5x5 -> inception_4e/5x5 (in-place)
I0403 21:40:51.278635 23855 net.cpp:141] Setting up inception_4e/relu_5x5
I0403 21:40:51.278661 23855 net.cpp:148] Top shape: 24 128 14 14 (602112)
I0403 21:40:51.278676 23855 net.cpp:156] Memory required for data: 1242150432
I0403 21:40:51.278689 23855 layer_factory.hpp:77] Creating layer inception_4e/pool
I0403 21:40:51.278707 23855 net.cpp:91] Creating Layer inception_4e/pool
I0403 21:40:51.278723 23855 net.cpp:425] inception_4e/pool <- inception_4d/output_inception_4d/output_0_split_4
I0403 21:40:51.278743 23855 net.cpp:399] inception_4e/pool -> inception_4e/pool
I0403 21:40:51.278810 23855 net.cpp:141] Setting up inception_4e/pool
I0403 21:40:51.278836 23855 net.cpp:148] Top shape: 24 528 14 14 (2483712)
I0403 21:40:51.278851 23855 net.cpp:156] Memory required for data: 1252085280
I0403 21:40:51.278864 23855 layer_factory.hpp:77] Creating layer inception_4e/pool_proj
I0403 21:40:51.278883 23855 net.cpp:91] Creating Layer inception_4e/pool_proj
I0403 21:40:51.278899 23855 net.cpp:425] inception_4e/pool_proj <- inception_4e/pool
I0403 21:40:51.278920 23855 net.cpp:399] inception_4e/pool_proj -> inception_4e/pool_proj
I0403 21:40:51.280428 23855 net.cpp:141] Setting up inception_4e/pool_proj
I0403 21:40:51.280467 23855 net.cpp:148] Top shape: 24 128 14 14 (602112)
I0403 21:40:51.280483 23855 net.cpp:156] Memory required for data: 1254493728
I0403 21:40:51.280501 23855 layer_factory.hpp:77] Creating layer inception_4e/relu_pool_proj
I0403 21:40:51.280520 23855 net.cpp:91] Creating Layer inception_4e/relu_pool_proj
I0403 21:40:51.280539 23855 net.cpp:425] inception_4e/relu_pool_proj <- inception_4e/pool_proj
I0403 21:40:51.280555 23855 net.cpp:386] inception_4e/relu_pool_proj -> inception_4e/pool_proj (in-place)
I0403 21:40:51.280843 23855 net.cpp:141] Setting up inception_4e/relu_pool_proj
I0403 21:40:51.280869 23855 net.cpp:148] Top shape: 24 128 14 14 (602112)
I0403 21:40:51.280884 23855 net.cpp:156] Memory required for data: 1256902176
I0403 21:40:51.280900 23855 layer_factory.hpp:77] Creating layer inception_4e/output
I0403 21:40:51.280918 23855 net.cpp:91] Creating Layer inception_4e/output
I0403 21:40:51.280936 23855 net.cpp:425] inception_4e/output <- inception_4e/1x1
I0403 21:40:51.280951 23855 net.cpp:425] inception_4e/output <- inception_4e/3x3
I0403 21:40:51.280967 23855 net.cpp:425] inception_4e/output <- inception_4e/5x5
I0403 21:40:51.280982 23855 net.cpp:425] inception_4e/output <- inception_4e/pool_proj
I0403 21:40:51.280999 23855 net.cpp:399] inception_4e/output -> inception_4e/output
I0403 21:40:51.281049 23855 net.cpp:141] Setting up inception_4e/output
I0403 21:40:51.281072 23855 net.cpp:148] Top shape: 24 832 14 14 (3913728)
I0403 21:40:51.281087 23855 net.cpp:156] Memory required for data: 1272557088
I0403 21:40:51.281102 23855 layer_factory.hpp:77] Creating layer pool4/3x3_s2
I0403 21:40:51.281119 23855 net.cpp:91] Creating Layer pool4/3x3_s2
I0403 21:40:51.281136 23855 net.cpp:425] pool4/3x3_s2 <- inception_4e/output
I0403 21:40:51.281155 23855 net.cpp:399] pool4/3x3_s2 -> pool4/3x3_s2
I0403 21:40:51.281234 23855 net.cpp:141] Setting up pool4/3x3_s2
I0403 21:40:51.281262 23855 net.cpp:148] Top shape: 24 832 7 7 (978432)
I0403 21:40:51.281278 23855 net.cpp:156] Memory required for data: 1276470816
I0403 21:40:51.281292 23855 layer_factory.hpp:77] Creating layer pool4/3x3_s2_pool4/3x3_s2_0_split
I0403 21:40:51.281308 23855 net.cpp:91] Creating Layer pool4/3x3_s2_pool4/3x3_s2_0_split
I0403 21:40:51.281323 23855 net.cpp:425] pool4/3x3_s2_pool4/3x3_s2_0_split <- pool4/3x3_s2
I0403 21:40:51.281342 23855 net.cpp:399] pool4/3x3_s2_pool4/3x3_s2_0_split -> pool4/3x3_s2_pool4/3x3_s2_0_split_0
I0403 21:40:51.281363 23855 net.cpp:399] pool4/3x3_s2_pool4/3x3_s2_0_split -> pool4/3x3_s2_pool4/3x3_s2_0_split_1
I0403 21:40:51.281384 23855 net.cpp:399] pool4/3x3_s2_pool4/3x3_s2_0_split -> pool4/3x3_s2_pool4/3x3_s2_0_split_2
I0403 21:40:51.281404 23855 net.cpp:399] pool4/3x3_s2_pool4/3x3_s2_0_split -> pool4/3x3_s2_pool4/3x3_s2_0_split_3
I0403 21:40:51.281496 23855 net.cpp:141] Setting up pool4/3x3_s2_pool4/3x3_s2_0_split
I0403 21:40:51.281518 23855 net.cpp:148] Top shape: 24 832 7 7 (978432)
I0403 21:40:51.281534 23855 net.cpp:148] Top shape: 24 832 7 7 (978432)
I0403 21:40:51.281549 23855 net.cpp:148] Top shape: 24 832 7 7 (978432)
I0403 21:40:51.281565 23855 net.cpp:148] Top shape: 24 832 7 7 (978432)
I0403 21:40:51.281579 23855 net.cpp:156] Memory required for data: 1292125728
I0403 21:40:51.281594 23855 layer_factory.hpp:77] Creating layer inception_5a/1x1
I0403 21:40:51.281617 23855 net.cpp:91] Creating Layer inception_5a/1x1
I0403 21:40:51.281635 23855 net.cpp:425] inception_5a/1x1 <- pool4/3x3_s2_pool4/3x3_s2_0_split_0
I0403 21:40:51.281653 23855 net.cpp:399] inception_5a/1x1 -> inception_5a/1x1
I0403 21:40:51.284498 23855 net.cpp:141] Setting up inception_5a/1x1
I0403 21:40:51.284528 23855 net.cpp:148] Top shape: 24 256 7 7 (301056)
I0403 21:40:51.284545 23855 net.cpp:156] Memory required for data: 1293329952
I0403 21:40:51.284564 23855 layer_factory.hpp:77] Creating layer inception_5a/relu_1x1
I0403 21:40:51.284581 23855 net.cpp:91] Creating Layer inception_5a/relu_1x1
I0403 21:40:51.284598 23855 net.cpp:425] inception_5a/relu_1x1 <- inception_5a/1x1
I0403 21:40:51.284617 23855 net.cpp:386] inception_5a/relu_1x1 -> inception_5a/1x1 (in-place)
I0403 21:40:51.284919 23855 net.cpp:141] Setting up inception_5a/relu_1x1
I0403 21:40:51.284947 23855 net.cpp:148] Top shape: 24 256 7 7 (301056)
I0403 21:40:51.284962 23855 net.cpp:156] Memory required for data: 1294534176
I0403 21:40:51.284976 23855 layer_factory.hpp:77] Creating layer inception_5a/3x3_reduce
I0403 21:40:51.284998 23855 net.cpp:91] Creating Layer inception_5a/3x3_reduce
I0403 21:40:51.285015 23855 net.cpp:425] inception_5a/3x3_reduce <- pool4/3x3_s2_pool4/3x3_s2_0_split_1
I0403 21:40:51.285034 23855 net.cpp:399] inception_5a/3x3_reduce -> inception_5a/3x3_reduce
I0403 21:40:51.287454 23855 net.cpp:141] Setting up inception_5a/3x3_reduce
I0403 21:40:51.287482 23855 net.cpp:148] Top shape: 24 160 7 7 (188160)
I0403 21:40:51.287498 23855 net.cpp:156] Memory required for data: 1295286816
I0403 21:40:51.287516 23855 layer_factory.hpp:77] Creating layer inception_5a/relu_3x3_reduce
I0403 21:40:51.287536 23855 net.cpp:91] Creating Layer inception_5a/relu_3x3_reduce
I0403 21:40:51.287554 23855 net.cpp:425] inception_5a/relu_3x3_reduce <- inception_5a/3x3_reduce
I0403 21:40:51.287571 23855 net.cpp:386] inception_5a/relu_3x3_reduce -> inception_5a/3x3_reduce (in-place)
I0403 21:40:51.287757 23855 net.cpp:141] Setting up inception_5a/relu_3x3_reduce
I0403 21:40:51.287781 23855 net.cpp:148] Top shape: 24 160 7 7 (188160)
I0403 21:40:51.287796 23855 net.cpp:156] Memory required for data: 1296039456
I0403 21:40:51.287811 23855 layer_factory.hpp:77] Creating layer inception_5a/3x3
I0403 21:40:51.287835 23855 net.cpp:91] Creating Layer inception_5a/3x3
I0403 21:40:51.287853 23855 net.cpp:425] inception_5a/3x3 <- inception_5a/3x3_reduce
I0403 21:40:51.287871 23855 net.cpp:399] inception_5a/3x3 -> inception_5a/3x3
I0403 21:40:51.292814 23855 net.cpp:141] Setting up inception_5a/3x3
I0403 21:40:51.292845 23855 net.cpp:148] Top shape: 24 320 7 7 (376320)
I0403 21:40:51.292861 23855 net.cpp:156] Memory required for data: 1297544736
I0403 21:40:51.292879 23855 layer_factory.hpp:77] Creating layer inception_5a/relu_3x3
I0403 21:40:51.292897 23855 net.cpp:91] Creating Layer inception_5a/relu_3x3
I0403 21:40:51.292915 23855 net.cpp:425] inception_5a/relu_3x3 <- inception_5a/3x3
I0403 21:40:51.292932 23855 net.cpp:386] inception_5a/relu_3x3 -> inception_5a/3x3 (in-place)
I0403 21:40:51.293221 23855 net.cpp:141] Setting up inception_5a/relu_3x3
I0403 21:40:51.293253 23855 net.cpp:148] Top shape: 24 320 7 7 (376320)
I0403 21:40:51.293269 23855 net.cpp:156] Memory required for data: 1299050016
I0403 21:40:51.293284 23855 layer_factory.hpp:77] Creating layer inception_5a/5x5_reduce
I0403 21:40:51.293305 23855 net.cpp:91] Creating Layer inception_5a/5x5_reduce
I0403 21:40:51.293323 23855 net.cpp:425] inception_5a/5x5_reduce <- pool4/3x3_s2_pool4/3x3_s2_0_split_2
I0403 21:40:51.293341 23855 net.cpp:399] inception_5a/5x5_reduce -> inception_5a/5x5_reduce
I0403 21:40:51.294498 23855 net.cpp:141] Setting up inception_5a/5x5_reduce
I0403 21:40:51.294528 23855 net.cpp:148] Top shape: 24 32 7 7 (37632)
I0403 21:40:51.294544 23855 net.cpp:156] Memory required for data: 1299200544
I0403 21:40:51.294564 23855 layer_factory.hpp:77] Creating layer inception_5a/relu_5x5_reduce
I0403 21:40:51.294580 23855 net.cpp:91] Creating Layer inception_5a/relu_5x5_reduce
I0403 21:40:51.294597 23855 net.cpp:425] inception_5a/relu_5x5_reduce <- inception_5a/5x5_reduce
I0403 21:40:51.294616 23855 net.cpp:386] inception_5a/relu_5x5_reduce -> inception_5a/5x5_reduce (in-place)
I0403 21:40:51.294908 23855 net.cpp:141] Setting up inception_5a/relu_5x5_reduce
I0403 21:40:51.294936 23855 net.cpp:148] Top shape: 24 32 7 7 (37632)
I0403 21:40:51.294952 23855 net.cpp:156] Memory required for data: 1299351072
I0403 21:40:51.294967 23855 layer_factory.hpp:77] Creating layer inception_5a/5x5
I0403 21:40:51.294992 23855 net.cpp:91] Creating Layer inception_5a/5x5
I0403 21:40:51.295011 23855 net.cpp:425] inception_5a/5x5 <- inception_5a/5x5_reduce
I0403 21:40:51.295028 23855 net.cpp:399] inception_5a/5x5 -> inception_5a/5x5
I0403 21:40:51.296736 23855 net.cpp:141] Setting up inception_5a/5x5
I0403 21:40:51.296787 23855 net.cpp:148] Top shape: 24 128 7 7 (150528)
I0403 21:40:51.296803 23855 net.cpp:156] Memory required for data: 1299953184
I0403 21:40:51.296823 23855 layer_factory.hpp:77] Creating layer inception_5a/relu_5x5
I0403 21:40:51.296840 23855 net.cpp:91] Creating Layer inception_5a/relu_5x5
I0403 21:40:51.296857 23855 net.cpp:425] inception_5a/relu_5x5 <- inception_5a/5x5
I0403 21:40:51.296875 23855 net.cpp:386] inception_5a/relu_5x5 -> inception_5a/5x5 (in-place)
I0403 21:40:51.297083 23855 net.cpp:141] Setting up inception_5a/relu_5x5
I0403 21:40:51.297109 23855 net.cpp:148] Top shape: 24 128 7 7 (150528)
I0403 21:40:51.297123 23855 net.cpp:156] Memory required for data: 1300555296
I0403 21:40:51.297138 23855 layer_factory.hpp:77] Creating layer inception_5a/pool
I0403 21:40:51.297155 23855 net.cpp:91] Creating Layer inception_5a/pool
I0403 21:40:51.297171 23855 net.cpp:425] inception_5a/pool <- pool4/3x3_s2_pool4/3x3_s2_0_split_3
I0403 21:40:51.297190 23855 net.cpp:399] inception_5a/pool -> inception_5a/pool
I0403 21:40:51.297263 23855 net.cpp:141] Setting up inception_5a/pool
I0403 21:40:51.297289 23855 net.cpp:148] Top shape: 24 832 7 7 (978432)
I0403 21:40:51.297304 23855 net.cpp:156] Memory required for data: 1304469024
I0403 21:40:51.297318 23855 layer_factory.hpp:77] Creating layer inception_5a/pool_proj
I0403 21:40:51.297339 23855 net.cpp:91] Creating Layer inception_5a/pool_proj
I0403 21:40:51.297356 23855 net.cpp:425] inception_5a/pool_proj <- inception_5a/pool
I0403 21:40:51.297375 23855 net.cpp:399] inception_5a/pool_proj -> inception_5a/pool_proj
I0403 21:40:51.299625 23855 net.cpp:141] Setting up inception_5a/pool_proj
I0403 21:40:51.299654 23855 net.cpp:148] Top shape: 24 128 7 7 (150528)
I0403 21:40:51.299669 23855 net.cpp:156] Memory required for data: 1305071136
I0403 21:40:51.299687 23855 layer_factory.hpp:77] Creating layer inception_5a/relu_pool_proj
I0403 21:40:51.299707 23855 net.cpp:91] Creating Layer inception_5a/relu_pool_proj
I0403 21:40:51.299724 23855 net.cpp:425] inception_5a/relu_pool_proj <- inception_5a/pool_proj
I0403 21:40:51.299742 23855 net.cpp:386] inception_5a/relu_pool_proj -> inception_5a/pool_proj (in-place)
I0403 21:40:51.300036 23855 net.cpp:141] Setting up inception_5a/relu_pool_proj
I0403 21:40:51.300061 23855 net.cpp:148] Top shape: 24 128 7 7 (150528)
I0403 21:40:51.300076 23855 net.cpp:156] Memory required for data: 1305673248
I0403 21:40:51.300091 23855 layer_factory.hpp:77] Creating layer inception_5a/output
I0403 21:40:51.300109 23855 net.cpp:91] Creating Layer inception_5a/output
I0403 21:40:51.300127 23855 net.cpp:425] inception_5a/output <- inception_5a/1x1
I0403 21:40:51.300143 23855 net.cpp:425] inception_5a/output <- inception_5a/3x3
I0403 21:40:51.300158 23855 net.cpp:425] inception_5a/output <- inception_5a/5x5
I0403 21:40:51.300173 23855 net.cpp:425] inception_5a/output <- inception_5a/pool_proj
I0403 21:40:51.300189 23855 net.cpp:399] inception_5a/output -> inception_5a/output
I0403 21:40:51.300243 23855 net.cpp:141] Setting up inception_5a/output
I0403 21:40:51.300266 23855 net.cpp:148] Top shape: 24 832 7 7 (978432)
I0403 21:40:51.300281 23855 net.cpp:156] Memory required for data: 1309586976
I0403 21:40:51.300295 23855 layer_factory.hpp:77] Creating layer inception_5a/output_inception_5a/output_0_split
I0403 21:40:51.300312 23855 net.cpp:91] Creating Layer inception_5a/output_inception_5a/output_0_split
I0403 21:40:51.300328 23855 net.cpp:425] inception_5a/output_inception_5a/output_0_split <- inception_5a/output
I0403 21:40:51.300346 23855 net.cpp:399] inception_5a/output_inception_5a/output_0_split -> inception_5a/output_inception_5a/output_0_split_0
I0403 21:40:51.300369 23855 net.cpp:399] inception_5a/output_inception_5a/output_0_split -> inception_5a/output_inception_5a/output_0_split_1
I0403 21:40:51.300389 23855 net.cpp:399] inception_5a/output_inception_5a/output_0_split -> inception_5a/output_inception_5a/output_0_split_2
I0403 21:40:51.300408 23855 net.cpp:399] inception_5a/output_inception_5a/output_0_split -> inception_5a/output_inception_5a/output_0_split_3
I0403 21:40:51.300518 23855 net.cpp:141] Setting up inception_5a/output_inception_5a/output_0_split
I0403 21:40:51.300542 23855 net.cpp:148] Top shape: 24 832 7 7 (978432)
I0403 21:40:51.300559 23855 net.cpp:148] Top shape: 24 832 7 7 (978432)
I0403 21:40:51.300575 23855 net.cpp:148] Top shape: 24 832 7 7 (978432)
I0403 21:40:51.300590 23855 net.cpp:148] Top shape: 24 832 7 7 (978432)
I0403 21:40:51.300603 23855 net.cpp:156] Memory required for data: 1325241888
I0403 21:40:51.300617 23855 layer_factory.hpp:77] Creating layer inception_5b/1x1
I0403 21:40:51.300638 23855 net.cpp:91] Creating Layer inception_5b/1x1
I0403 21:40:51.300655 23855 net.cpp:425] inception_5b/1x1 <- inception_5a/output_inception_5a/output_0_split_0
I0403 21:40:51.300674 23855 net.cpp:399] inception_5b/1x1 -> inception_5b/1x1
I0403 21:40:51.304385 23855 net.cpp:141] Setting up inception_5b/1x1
I0403 21:40:51.304414 23855 net.cpp:148] Top shape: 24 384 7 7 (451584)
I0403 21:40:51.304430 23855 net.cpp:156] Memory required for data: 1327048224
I0403 21:40:51.304448 23855 layer_factory.hpp:77] Creating layer inception_5b/relu_1x1
I0403 21:40:51.304468 23855 net.cpp:91] Creating Layer inception_5b/relu_1x1
I0403 21:40:51.304486 23855 net.cpp:425] inception_5b/relu_1x1 <- inception_5b/1x1
I0403 21:40:51.304503 23855 net.cpp:386] inception_5b/relu_1x1 -> inception_5b/1x1 (in-place)
I0403 21:40:51.304808 23855 net.cpp:141] Setting up inception_5b/relu_1x1
I0403 21:40:51.304833 23855 net.cpp:148] Top shape: 24 384 7 7 (451584)
I0403 21:40:51.304848 23855 net.cpp:156] Memory required for data: 1328854560
I0403 21:40:51.304862 23855 layer_factory.hpp:77] Creating layer inception_5b/3x3_reduce
I0403 21:40:51.304884 23855 net.cpp:91] Creating Layer inception_5b/3x3_reduce
I0403 21:40:51.304903 23855 net.cpp:425] inception_5b/3x3_reduce <- inception_5a/output_inception_5a/output_0_split_1
I0403 21:40:51.304924 23855 net.cpp:399] inception_5b/3x3_reduce -> inception_5b/3x3_reduce
I0403 21:40:51.307561 23855 net.cpp:141] Setting up inception_5b/3x3_reduce
I0403 21:40:51.307591 23855 net.cpp:148] Top shape: 24 192 7 7 (225792)
I0403 21:40:51.307607 23855 net.cpp:156] Memory required for data: 1329757728
I0403 21:40:51.307626 23855 layer_factory.hpp:77] Creating layer inception_5b/relu_3x3_reduce
I0403 21:40:51.307646 23855 net.cpp:91] Creating Layer inception_5b/relu_3x3_reduce
I0403 21:40:51.307663 23855 net.cpp:425] inception_5b/relu_3x3_reduce <- inception_5b/3x3_reduce
I0403 21:40:51.307680 23855 net.cpp:386] inception_5b/relu_3x3_reduce -> inception_5b/3x3_reduce (in-place)
I0403 21:40:51.307868 23855 net.cpp:141] Setting up inception_5b/relu_3x3_reduce
I0403 21:40:51.307894 23855 net.cpp:148] Top shape: 24 192 7 7 (225792)
I0403 21:40:51.307909 23855 net.cpp:156] Memory required for data: 1330660896
I0403 21:40:51.307925 23855 layer_factory.hpp:77] Creating layer inception_5b/3x3
I0403 21:40:51.307947 23855 net.cpp:91] Creating Layer inception_5b/3x3
I0403 21:40:51.307965 23855 net.cpp:425] inception_5b/3x3 <- inception_5b/3x3_reduce
I0403 21:40:51.307984 23855 net.cpp:399] inception_5b/3x3 -> inception_5b/3x3
I0403 21:40:51.314604 23855 net.cpp:141] Setting up inception_5b/3x3
I0403 21:40:51.314631 23855 net.cpp:148] Top shape: 24 384 7 7 (451584)
I0403 21:40:51.314646 23855 net.cpp:156] Memory required for data: 1332467232
I0403 21:40:51.314666 23855 layer_factory.hpp:77] Creating layer inception_5b/relu_3x3
I0403 21:40:51.314685 23855 net.cpp:91] Creating Layer inception_5b/relu_3x3
I0403 21:40:51.314702 23855 net.cpp:425] inception_5b/relu_3x3 <- inception_5b/3x3
I0403 21:40:51.314720 23855 net.cpp:386] inception_5b/relu_3x3 -> inception_5b/3x3 (in-place)
I0403 21:40:51.315013 23855 net.cpp:141] Setting up inception_5b/relu_3x3
I0403 21:40:51.315038 23855 net.cpp:148] Top shape: 24 384 7 7 (451584)
I0403 21:40:51.315053 23855 net.cpp:156] Memory required for data: 1334273568
I0403 21:40:51.315068 23855 layer_factory.hpp:77] Creating layer inception_5b/5x5_reduce
I0403 21:40:51.315109 23855 net.cpp:91] Creating Layer inception_5b/5x5_reduce
I0403 21:40:51.315130 23855 net.cpp:425] inception_5b/5x5_reduce <- inception_5a/output_inception_5a/output_0_split_2
I0403 21:40:51.315150 23855 net.cpp:399] inception_5b/5x5_reduce -> inception_5b/5x5_reduce
I0403 21:40:51.316414 23855 net.cpp:141] Setting up inception_5b/5x5_reduce
I0403 21:40:51.316442 23855 net.cpp:148] Top shape: 24 48 7 7 (56448)
I0403 21:40:51.316457 23855 net.cpp:156] Memory required for data: 1334499360
I0403 21:40:51.316481 23855 layer_factory.hpp:77] Creating layer inception_5b/relu_5x5_reduce
I0403 21:40:51.316501 23855 net.cpp:91] Creating Layer inception_5b/relu_5x5_reduce
I0403 21:40:51.316519 23855 net.cpp:425] inception_5b/relu_5x5_reduce <- inception_5b/5x5_reduce
I0403 21:40:51.316535 23855 net.cpp:386] inception_5b/relu_5x5_reduce -> inception_5b/5x5_reduce (in-place)
I0403 21:40:51.316905 23855 net.cpp:141] Setting up inception_5b/relu_5x5_reduce
I0403 21:40:51.316932 23855 net.cpp:148] Top shape: 24 48 7 7 (56448)
I0403 21:40:51.316946 23855 net.cpp:156] Memory required for data: 1334725152
I0403 21:40:51.316962 23855 layer_factory.hpp:77] Creating layer inception_5b/5x5
I0403 21:40:51.316980 23855 net.cpp:91] Creating Layer inception_5b/5x5
I0403 21:40:51.316998 23855 net.cpp:425] inception_5b/5x5 <- inception_5b/5x5_reduce
I0403 21:40:51.317016 23855 net.cpp:399] inception_5b/5x5 -> inception_5b/5x5
I0403 21:40:51.319046 23855 net.cpp:141] Setting up inception_5b/5x5
I0403 21:40:51.319074 23855 net.cpp:148] Top shape: 24 128 7 7 (150528)
I0403 21:40:51.319090 23855 net.cpp:156] Memory required for data: 1335327264
I0403 21:40:51.319108 23855 layer_factory.hpp:77] Creating layer inception_5b/relu_5x5
I0403 21:40:51.319126 23855 net.cpp:91] Creating Layer inception_5b/relu_5x5
I0403 21:40:51.319142 23855 net.cpp:425] inception_5b/relu_5x5 <- inception_5b/5x5
I0403 21:40:51.319162 23855 net.cpp:386] inception_5b/relu_5x5 -> inception_5b/5x5 (in-place)
I0403 21:40:51.319360 23855 net.cpp:141] Setting up inception_5b/relu_5x5
I0403 21:40:51.319383 23855 net.cpp:148] Top shape: 24 128 7 7 (150528)
I0403 21:40:51.319398 23855 net.cpp:156] Memory required for data: 1335929376
I0403 21:40:51.319412 23855 layer_factory.hpp:77] Creating layer inception_5b/pool
I0403 21:40:51.319429 23855 net.cpp:91] Creating Layer inception_5b/pool
I0403 21:40:51.319445 23855 net.cpp:425] inception_5b/pool <- inception_5a/output_inception_5a/output_0_split_3
I0403 21:40:51.319465 23855 net.cpp:399] inception_5b/pool -> inception_5b/pool
I0403 21:40:51.319537 23855 net.cpp:141] Setting up inception_5b/pool
I0403 21:40:51.319560 23855 net.cpp:148] Top shape: 24 832 7 7 (978432)
I0403 21:40:51.319573 23855 net.cpp:156] Memory required for data: 1339843104
I0403 21:40:51.319588 23855 layer_factory.hpp:77] Creating layer inception_5b/pool_proj
I0403 21:40:51.319612 23855 net.cpp:91] Creating Layer inception_5b/pool_proj
I0403 21:40:51.319629 23855 net.cpp:425] inception_5b/pool_proj <- inception_5b/pool
I0403 21:40:51.319648 23855 net.cpp:399] inception_5b/pool_proj -> inception_5b/pool_proj
I0403 21:40:51.321941 23855 net.cpp:141] Setting up inception_5b/pool_proj
I0403 21:40:51.321970 23855 net.cpp:148] Top shape: 24 128 7 7 (150528)
I0403 21:40:51.321985 23855 net.cpp:156] Memory required for data: 1340445216
I0403 21:40:51.322003 23855 layer_factory.hpp:77] Creating layer inception_5b/relu_pool_proj
I0403 21:40:51.322024 23855 net.cpp:91] Creating Layer inception_5b/relu_pool_proj
I0403 21:40:51.322041 23855 net.cpp:425] inception_5b/relu_pool_proj <- inception_5b/pool_proj
I0403 21:40:51.322058 23855 net.cpp:386] inception_5b/relu_pool_proj -> inception_5b/pool_proj (in-place)
I0403 21:40:51.322365 23855 net.cpp:141] Setting up inception_5b/relu_pool_proj
I0403 21:40:51.322389 23855 net.cpp:148] Top shape: 24 128 7 7 (150528)
I0403 21:40:51.322404 23855 net.cpp:156] Memory required for data: 1341047328
I0403 21:40:51.322419 23855 layer_factory.hpp:77] Creating layer inception_5b/output
I0403 21:40:51.322438 23855 net.cpp:91] Creating Layer inception_5b/output
I0403 21:40:51.322468 23855 net.cpp:425] inception_5b/output <- inception_5b/1x1
I0403 21:40:51.322485 23855 net.cpp:425] inception_5b/output <- inception_5b/3x3
I0403 21:40:51.322502 23855 net.cpp:425] inception_5b/output <- inception_5b/5x5
I0403 21:40:51.322517 23855 net.cpp:425] inception_5b/output <- inception_5b/pool_proj
I0403 21:40:51.322535 23855 net.cpp:399] inception_5b/output -> inception_5b/output
I0403 21:40:51.322587 23855 net.cpp:141] Setting up inception_5b/output
I0403 21:40:51.322610 23855 net.cpp:148] Top shape: 24 1024 7 7 (1204224)
I0403 21:40:51.322625 23855 net.cpp:156] Memory required for data: 1345864224
I0403 21:40:51.322639 23855 layer_factory.hpp:77] Creating layer pool5/7x7_s1
I0403 21:40:51.322659 23855 net.cpp:91] Creating Layer pool5/7x7_s1
I0403 21:40:51.322675 23855 net.cpp:425] pool5/7x7_s1 <- inception_5b/output
I0403 21:40:51.322693 23855 net.cpp:399] pool5/7x7_s1 -> pool5/7x7_s1
I0403 21:40:51.322907 23855 net.cpp:141] Setting up pool5/7x7_s1
I0403 21:40:51.322935 23855 net.cpp:148] Top shape: 24 1024 1 1 (24576)
I0403 21:40:51.322950 23855 net.cpp:156] Memory required for data: 1345962528
I0403 21:40:51.322964 23855 layer_factory.hpp:77] Creating layer pool5/drop_7x7_s1
I0403 21:40:51.322983 23855 net.cpp:91] Creating Layer pool5/drop_7x7_s1
I0403 21:40:51.322999 23855 net.cpp:425] pool5/drop_7x7_s1 <- pool5/7x7_s1
I0403 21:40:51.323015 23855 net.cpp:386] pool5/drop_7x7_s1 -> pool5/7x7_s1 (in-place)
I0403 21:40:51.323065 23855 net.cpp:141] Setting up pool5/drop_7x7_s1
I0403 21:40:51.323087 23855 net.cpp:148] Top shape: 24 1024 1 1 (24576)
I0403 21:40:51.323101 23855 net.cpp:156] Memory required for data: 1346060832
I0403 21:40:51.323115 23855 layer_factory.hpp:77] Creating layer loss3/classifier_plantvillage
I0403 21:40:51.323137 23855 net.cpp:91] Creating Layer loss3/classifier_plantvillage
I0403 21:40:51.323153 23855 net.cpp:425] loss3/classifier_plantvillage <- pool5/7x7_s1
I0403 21:40:51.323171 23855 net.cpp:399] loss3/classifier_plantvillage -> loss3/classifier_plantvillage
I0403 21:40:51.323592 23855 net.cpp:141] Setting up loss3/classifier_plantvillage
I0403 21:40:51.323616 23855 net.cpp:148] Top shape: 24 38 (912)
I0403 21:40:51.323631 23855 net.cpp:156] Memory required for data: 1346064480
I0403 21:40:51.323648 23855 layer_factory.hpp:77] Creating layer loss3/classifier_plantvillage_loss3/classifier_plantvillage_0_split
I0403 21:40:51.323667 23855 net.cpp:91] Creating Layer loss3/classifier_plantvillage_loss3/classifier_plantvillage_0_split
I0403 21:40:51.323683 23855 net.cpp:425] loss3/classifier_plantvillage_loss3/classifier_plantvillage_0_split <- loss3/classifier_plantvillage
I0403 21:40:51.323703 23855 net.cpp:399] loss3/classifier_plantvillage_loss3/classifier_plantvillage_0_split -> loss3/classifier_plantvillage_loss3/classifier_plantvillage_0_split_0
I0403 21:40:51.323724 23855 net.cpp:399] loss3/classifier_plantvillage_loss3/classifier_plantvillage_0_split -> loss3/classifier_plantvillage_loss3/classifier_plantvillage_0_split_1
I0403 21:40:51.323742 23855 net.cpp:399] loss3/classifier_plantvillage_loss3/classifier_plantvillage_0_split -> loss3/classifier_plantvillage_loss3/classifier_plantvillage_0_split_2
I0403 21:40:51.323761 23855 net.cpp:399] loss3/classifier_plantvillage_loss3/classifier_plantvillage_0_split -> loss3/classifier_plantvillage_loss3/classifier_plantvillage_0_split_3
I0403 21:40:51.323863 23855 net.cpp:141] Setting up loss3/classifier_plantvillage_loss3/classifier_plantvillage_0_split
I0403 21:40:51.323886 23855 net.cpp:148] Top shape: 24 38 (912)
I0403 21:40:51.323904 23855 net.cpp:148] Top shape: 24 38 (912)
I0403 21:40:51.323921 23855 net.cpp:148] Top shape: 24 38 (912)
I0403 21:40:51.323936 23855 net.cpp:148] Top shape: 24 38 (912)
I0403 21:40:51.323951 23855 net.cpp:156] Memory required for data: 1346079072
I0403 21:40:51.323964 23855 layer_factory.hpp:77] Creating layer loss1/loss
I0403 21:40:51.323987 23855 net.cpp:91] Creating Layer loss1/loss
I0403 21:40:51.324002 23855 net.cpp:425] loss1/loss <- loss1/classifier_plantvillage_loss1/classifier_plantvillage_0_split_0
I0403 21:40:51.324031 23855 net.cpp:425] loss1/loss <- label_data_1_split_0
…
