…
I0403 21:42:59.373147 23984 net.cpp:313] The NetState phase (1) differed from the phase (0) specified by a rule in layer data
I0403 21:42:59.374263 23984 net.cpp:49] Initializing net from parameters: 
state {
  phase: TEST
}
layer {
  name: "data"
  type: "Data"
  top: "data"
  top: "label"
  include {
    phase: TEST
  }
  transform_param {
    mirror: false
    crop_size: 224
    mean_file: "/home/mohanty/data/final_dataset/lmdb/segmented-80-20/mean.binaryproto"
  }
  data_param {
    source: "/home/mohanty/data/final_dataset/lmdb/segmented-80-20/test_db"
    batch_size: 24
    backend: LMDB
  }
}
layer {
  name: "conv1/7x7_s2"
  type: "Convolution"
  bottom: "data"
  top: "conv1/7x7_s2"
  param {
    lr_mult: 1
    decay_mult: 1
  }
  param {
    lr_mult: 2
    decay_mult: 0
  }
  convolution_param {
    num_output: 64
    pad: 3
    kernel_size: 7
    stride: 2
    weight_filler {
      type: "xavier"
      std: 0.1
    }
    bias_filler {
      type: "constant"
      value: 0.2
    }
  }
}
layer {
  name: "conv1/relu_7x7"
  type: "ReLU"
  bottom: "conv1/7x7_s2"
  top: "conv1/7x7_s2"
}
layer {
  name: "pool1/3x3_s2"
  type: "Pooling"
  bottom: "conv1/7x7_s2"
  top: "pool1/3x3_s2"
  pooling_param {
    pool: MAX
    kernel_size: 3
    stride: 2
  }
}
layer {
  name: "pool1/norm1"
  type: "LRN"
  bottom: "pool1/3x3_s2"
  top: "pool1/norm1"
  lrn_param {
    local_size: 5
    alpha: 0.0001
    beta: 0.75
  }
}
layer {
  name: "conv2/3x3_reduce"
  type: "Convolution"
  bottom: "pool1/norm1"
  top: "conv2/3x3_reduce"
  param {
    lr_mult: 1
    decay_mult: 1
  }
  param {
    lr_mult: 2
    decay_mult: 0
  }
  convolution_param {
    num_output: 64
    kernel_size: 1
    weight_filler {
      type: "xavier"
      std: 0.1
    }
    bias_filler {
      type: "constant"
      value: 0.2
    }
  }
}
layer {
  name: "conv2/relu_3x3_reduce"
  type: "ReLU"
  bottom: "conv2/3x3_reduce"
  top: "conv2/3x3_reduce"
}
layer {
  name: "conv2/3x3"
  type: "Convolution"
  bottom: "conv2/3x3_reduce"
  top: "conv2/3x3"
  param {
    lr_mult: 1
    decay_mult: 1
  }
  param {
    lr_mult: 2
    decay_mult: 0
  }
  convolution_param {
    num_output: 192
    pad: 1
    kernel_size: 3
    weight_filler {
      type: "xavier"
      std: 0.03
    }
    bias_filler {
      type: "constant"
      value: 0.2
    }
  }
}
layer {
  name: "conv2/relu_3x3"
  type: "ReLU"
  bottom: "conv2/3x3"
  top: "conv2/3x3"
}
layer {
  name: "conv2/norm2"
  type: "LRN"
  bottom: "conv2/3x3"
  top: "conv2/norm2"
  lrn_param {
    local_size: 5
    alpha: 0.0001
    beta: 0.75
  }
}
layer {
  name: "pool2/3x3_s2"
  type: "Pooling"
  bottom: "conv2/norm2"
  top: "pool2/3x3_s2"
  pooling_param {
    pool: MAX
    kernel_size: 3
    stride: 2
  }
}
layer {
  name: "inception_3a/1x1"
  type: "Convolution"
  bottom: "pool2/3x3_s2"
  top: "inception_3a/1x1"
  param {
    lr_mult: 1
    decay_mult: 1
  }
  param {
    lr_mult: 2
    decay_mult: 0
  }
  convolution_param {
    num_output: 64
    kernel_size: 1
    weight_filler {
      type: "xavier"
      std: 0.03
    }
    bias_filler {
      type: "constant"
      value: 0.2
    }
  }
}
layer {
  name: "inception_3a/relu_1x1"
  type: "ReLU"
  bottom: "inception_3a/1x1"
  top: "inception_3a/1x1"
}
layer {
  name: "inception_3a/3x3_reduce"
  type: "Convolution"
  bottom: "pool2/3x3_s2"
  top: "inception_3a/3x3_reduce"
  param {
    lr_mult: 1
    decay_mult: 1
  }
  param {
    lr_mult: 2
    decay_mult: 0
  }
  convolution_param {
    num_output: 96
    kernel_size: 1
    weight_filler {
      type: "xavier"
      std: 0.09
    }
    bias_filler {
      type: "constant"
      value: 0.2
    }
  }
}
layer {
  name: "inception_3a/relu_3x3_reduce"
  type: "ReLU"
  bottom: "inception_3a/3x3_reduce"
  top: "inception_3a/3x3_reduce"
}
layer {
  name: "inception_3a/3x3"
  type: "Convolution"
  bottom: "inception_3a/3x3_reduce"
  top: "inception_3a/3x3"
  param {
    lr_mult: 1
    decay_mult: 1
  }
  param {
    lr_mult: 2
    decay_mult: 0
  }
  convolution_param {
    num_output: 128
    pad: 1
    kernel_size: 3
    weight_filler {
      type: "xavier"
      std: 0.03
    }
    bias_filler {
      type: "constant"
      value: 0.2
    }
  }
}
layer {
  name: "inception_3a/relu_3x3"
  type: "ReLU"
  bottom: "inception_3a/3x3"
  top: "inception_3a/3x3"
}
layer {
  name: "inception_3a/5x5_reduce"
  type: "Convolution"
  bottom: "pool2/3x3_s2"
  top: "inception_3a/5x5_reduce"
  param {
    lr_mult: 1
    decay_mult: 1
  }
  param {
    lr_mult: 2
    decay_mult: 0
  }
  convolution_param {
    num_output: 16
    kernel_size: 1
    weight_filler {
      type: "xavier"
      std: 0.2
    }
    bias_filler {
      type: "constant"
      value: 0.2
    }
  }
}
layer {
  name: "inception_3a/relu_5x5_reduce"
  type: "ReLU"
  bottom: "inception_3a/5x5_reduce"
  top: "inception_3a/5x5_reduce"
}
layer {
  name: "inception_3a/5x5"
  type: "Convolution"
  bottom: "inception_3a/5x5_reduce"
  top: "inception_3a/5x5"
  param {
    lr_mult: 1
    decay_mult: 1
  }
  param {
    lr_mult: 2
    decay_mult: 0
  }
  convolution_param {
    num_output: 32
    pad: 2
    kernel_size: 5
    weight_filler {
      type: "xavier"
      std: 0.03
    }
    bias_filler {
      type: "constant"
      value: 0.2
    }
  }
}
layer {
  name: "inception_3a/relu_5x5"
  type: "ReLU"
  bottom: "inception_3a/5x5"
  top: "inception_3a/5x5"
}
layer {
  name: "inception_3a/pool"
  type: "Pooling"
  bottom: "pool2/3x3_s2"
  top: "inception_3a/pool"
  pooling_param {
    pool: MAX
    kernel_size: 3
    stride: 1
    pad: 1
  }
}
layer {
  name: "inception_3a/pool_proj"
  type: "Convolution"
  bottom: "inception_3a/pool"
  top: "inception_3a/pool_proj"
  param {
    lr_mult: 1
    decay_mult: 1
  }
  param {
    lr_mult: 2
    decay_mult: 0
  }
  convolution_param {
    num_output: 32
    kernel_size: 1
    weight_filler {
      type: "xavier"
      std: 0.1
    }
    bias_filler {
      type: "constant"
      value: 0.2
    }
  }
}
layer {
  name: "inception_3a/relu_pool_proj"
  type: "ReLU"
  bottom: "inception_3a/pool_proj"
  top: "inception_3a/pool_proj"
}
layer {
  name: "inception_3a/output"
  type: "Concat"
  bottom: "inception_3a/1x1"
  bottom: "inception_3a/3x3"
  bottom: "inception_3a/5x5"
  bottom: "inception_3a/pool_proj"
  top: "inception_3a/output"
}
layer {
  name: "inception_3b/1x1"
  type: "Convolution"
  bottom: "inception_3a/output"
  top: "inception_3b/1x1"
  param {
    lr_mult: 1
    decay_mult: 1
  }
  param {
    lr_mult: 2
    decay_mult: 0
  }
  convolution_param {
    num_output: 128
    kernel_size: 1
    weight_filler {
      type: "xavier"
      std: 0.03
    }
    bias_filler {
      type: "constant"
      value: 0.2
    }
  }
}
layer {
  name: "inception_3b/relu_1x1"
  type: "ReLU"
  bottom: "inception_3b/1x1"
  top: "inception_3b/1x1"
}
layer {
  name: "inception_3b/3x3_reduce"
  type: "Convolution"
  bottom: "inception_3a/output"
  top: "inception_3b/3x3_reduce"
  param {
    lr_mult: 1
    decay_mult: 1
  }
  param {
    lr_mult: 2
    decay_mult: 0
  }
  convolution_param {
    num_output: 128
    kernel_size: 1
    weight_filler {
      type: "xavier"
      std: 0.09
    }
    bias_filler {
      type: "constant"
      value: 0.2
    }
  }
}
layer {
  name: "inception_3b/relu_3x3_reduce"
  type: "ReLU"
  bottom: "inception_3b/3x3_reduce"
  top: "inception_3b/3x3_reduce"
}
layer {
  name: "inception_3b/3x3"
  type: "Convolution"
  bottom: "inception_3b/3x3_reduce"
  top: "inception_3b/3x3"
  param {
    lr_mult: 1
    decay_mult: 1
  }
  param {
    lr_mult: 2
    decay_mult: 0
  }
  convolution_param {
    num_output: 192
    pad: 1
    kernel_size: 3
    weight_filler {
      type: "xavier"
      std: 0.03
    }
    bias_filler {
      type: "constant"
      value: 0.2
    }
  }
}
layer {
  name: "inception_3b/relu_3x3"
  type: "ReLU"
  bottom: "inception_3b/3x3"
  top: "inception_3b/3x3"
}
layer {
  name: "inception_3b/5x5_reduce"
  type: "Convolution"
  bottom: "inception_3a/output"
  top: "inception_3b/5x5_reduce"
  param {
    lr_mult: 1
    decay_mult: 1
  }
  param {
    lr_mult: 2
    decay_mult: 0
  }
  convolution_param {
    num_output: 32
    kernel_size: 1
    weight_filler {
      type: "xavier"
      std: 0.2
    }
    bias_filler {
      type: "constant"
      value: 0.2
    }
  }
}
layer {
  name: "inception_3b/relu_5x5_reduce"
  type: "ReLU"
  bottom: "inception_3b/5x5_reduce"
  top: "inception_3b/5x5_reduce"
}
layer {
  name: "inception_3b/5x5"
  type: "Convolution"
  bottom: "inception_3b/5x5_reduce"
  top: "inception_3b/5x5"
  param {
    lr_mult: 1
    decay_mult: 1
  }
  param {
    lr_mult: 2
    decay_mult: 0
  }
  convolution_param {
    num_output: 96
    pad: 2
    kernel_size: 5
    weight_filler {
      type: "xavier"
      std: 0.03
    }
    bias_filler {
      type: "constant"
      value: 0.2
    }
  }
}
layer {
  name: "inception_3b/relu_5x5"
  type: "ReLU"
  bottom: "inception_3b/5x5"
  top: "inception_3b/5x5"
}
layer {
  name: "inception_3b/pool"
  type: "Pooling"
  bottom: "inception_3a/output"
  top: "inception_3b/pool"
  pooling_param {
    pool: MAX
    kernel_size: 3
    stride: 1
    pad: 1
  }
}
layer {
  name: "inception_3b/pool_proj"
  type: "Convolution"
  bottom: "inception_3b/pool"
  top: "inception_3b/pool_proj"
  param {
    lr_mult: 1
    decay_mult: 1
  }
  param {
    lr_mult: 2
    decay_mult: 0
  }
  convolution_param {
    num_output: 64
    kernel_size: 1
    weight_filler {
      type: "xavier"
      std: 0.1
    }
    bias_filler {
      type: "constant"
      value: 0.2
    }
  }
}
layer {
  name: "inception_3b/relu_pool_proj"
  type: "ReLU"
  bottom: "inception_3b/pool_proj"
  top: "inception_3b/pool_proj"
}
layer {
  name: "inception_3b/output"
  type: "Concat"
  bottom: "inception_3b/1x1"
  bottom: "inception_3b/3x3"
  bottom: "inception_3b/5x5"
  bottom: "inception_3b/pool_proj"
  top: "inception_3b/output"
}
layer {
  name: "pool3/3x3_s2"
  type: "Pooling"
  bottom: "inception_3b/output"
  top: "pool3/3x3_s2"
  pooling_param {
    pool: MAX
    kernel_size: 3
    stride: 2
  }
}
layer {
  name: "inception_4a/1x1"
  type: "Convolution"
  bottom: "pool3/3x3_s2"
  top: "inception_4a/1x1"
  param {
    lr_mult: 1
    decay_mult: 1
  }
  param {
    lr_mult: 2
    decay_mult: 0
  }
  convolution_param {
    num_output: 192
    kernel_size: 1
    weight_filler {
      type: "xavier"
      std: 0.03
    }
    bias_filler {
      type: "constant"
      value: 0.2
    }
  }
}
layer {
  name: "inception_4a/relu_1x1"
  type: "ReLU"
  bottom: "inception_4a/1x1"
  top: "inception_4a/1x1"
}
layer {
  name: "inception_4a/3x3_reduce"
  type: "Convolution"
  bottom: "pool3/3x3_s2"
  top: "inception_4a/3x3_reduce"
  param {
    lr_mult: 1
    decay_mult: 1
  }
  param {
    lr_mult: 2
    decay_mult: 0
  }
  convolution_param {
    num_output: 96
    kernel_size: 1
    weight_filler {
      type: "xavier"
      std: 0.09
    }
    bias_filler {
      type: "constant"
      value: 0.2
    }
  }
}
layer {
  name: "inception_4a/relu_3x3_reduce"
  type: "ReLU"
  bottom: "inception_4a/3x3_reduce"
  top: "inception_4a/3x3_reduce"
}
layer {
  name: "inception_4a/3x3"
  type: "Convolution"
  bottom: "inception_4a/3x3_reduce"
  top: "inception_4a/3x3"
  param {
    lr_mult: 1
    decay_mult: 1
  }
  param {
    lr_mult: 2
    decay_mult: 0
  }
  convolution_param {
    num_output: 208
    pad: 1
    kernel_size: 3
    weight_filler {
      type: "xavier"
      std: 0.03
    }
    bias_filler {
      type: "constant"
      value: 0.2
    }
  }
}
layer {
  name: "inception_4a/relu_3x3"
  type: "ReLU"
  bottom: "inception_4a/3x3"
  top: "inception_4a/3x3"
}
layer {
  name: "inception_4a/5x5_reduce"
  type: "Convolution"
  bottom: "pool3/3x3_s2"
  top: "inception_4a/5x5_reduce"
  param {
    lr_mult: 1
    decay_mult: 1
  }
  param {
    lr_mult: 2
    decay_mult: 0
  }
  convolution_param {
    num_output: 16
    kernel_size: 1
    weight_filler {
      type: "xavier"
      std: 0.2
    }
    bias_filler {
      type: "constant"
      value: 0.2
    }
  }
}
layer {
  name: "inception_4a/relu_5x5_reduce"
  type: "ReLU"
  bottom: "inception_4a/5x5_reduce"
  top: "inception_4a/5x5_reduce"
}
layer {
  name: "inception_4a/5x5"
  type: "Convolution"
  bottom: "inception_4a/5x5_reduce"
  top: "inception_4a/5x5"
  param {
    lr_mult: 1
    decay_mult: 1
  }
  param {
    lr_mult: 2
    decay_mult: 0
  }
  convolution_param {
    num_output: 48
    pad: 2
    kernel_size: 5
    weight_filler {
      type: "xavier"
      std: 0.03
    }
    bias_filler {
      type: "constant"
      value: 0.2
    }
  }
}
layer {
  name: "inception_4a/relu_5x5"
  type: "ReLU"
  bottom: "inception_4a/5x5"
  top: "inception_4a/5x5"
}
layer {
  name: "inception_4a/pool"
  type: "Pooling"
  bottom: "pool3/3x3_s2"
  top: "inception_4a/pool"
  pooling_param {
    pool: MAX
    kernel_size: 3
    stride: 1
    pad: 1
  }
}
layer {
  name: "inception_4a/pool_proj"
  type: "Convolution"
  bottom: "inception_4a/pool"
  top: "inception_4a/pool_proj"
  param {
    lr_mult: 1
    decay_mult: 1
  }
  param {
    lr_mult: 2
    decay_mult: 0
  }
  convolution_param {
    num_output: 64
    kernel_size: 1
    weight_filler {
      type: "xavier"
      std: 0.1
    }
    bias_filler {
      type: "constant"
      value: 0.2
    }
  }
}
layer {
  name: "inception_4a/relu_pool_proj"
  type: "ReLU"
  bottom: "inception_4a/pool_proj"
  top: "inception_4a/pool_proj"
}
layer {
  name: "inception_4a/output"
  type: "Concat"
  bottom: "inception_4a/1x1"
  bottom: "inception_4a/3x3"
  bottom: "inception_4a/5x5"
  bottom: "inception_4a/pool_proj"
  top: "inception_4a/output"
}
layer {
  name: "loss1/ave_pool"
  type: "Pooling"
  bottom: "inception_4a/output"
  top: "loss1/ave_pool"
  pooling_param {
    pool: AVE
    kernel_size: 5
    stride: 3
  }
}
layer {
  name: "loss1/conv"
  type: "Convolution"
  bottom: "loss1/ave_pool"
  top: "loss1/conv"
  param {
    lr_mult: 1
    decay_mult: 1
  }
  param {
    lr_mult: 2
    decay_mult: 0
  }
  convolution_param {
    num_output: 128
    kernel_size: 1
    weight_filler {
      type: "xavier"
      std: 0.08
    }
    bias_filler {
      type: "constant"
      value: 0.2
    }
  }
}
layer {
  name: "loss1/relu_conv"
  type: "ReLU"
  bottom: "loss1/conv"
  top: "loss1/conv"
}
layer {
  name: "loss1/fc"
  type: "InnerProduct"
  bottom: "loss1/conv"
  top: "loss1/fc"
  param {
    lr_mult: 1
    decay_mult: 1
  }
  param {
    lr_mult: 2
    decay_mult: 0
  }
  inner_product_param {
    num_output: 1024
    weight_filler {
      type: "xavier"
      std: 0.02
    }
    bias_filler {
      type: "constant"
      value: 0.2
    }
  }
}
layer {
  name: "loss1/relu_fc"
  type: "ReLU"
  bottom: "loss1/fc"
  top: "loss1/fc"
}
layer {
  name: "loss1/drop_fc"
  type: "Dropout"
  bottom: "loss1/fc"
  top: "loss1/fc"
  dropout_param {
    dropout_ratio: 0.7
  }
}
layer {
  name: "loss1/classifier_plantvillage"
  type: "InnerProduct"
  bottom: "loss1/fc"
  top: "loss1/classifier_plantvillage"
  param {
    lr_mult: 1
    decay_mult: 1
  }
  param {
    lr_mult: 2
    decay_mult: 0
  }
  inner_product_param {
    num_output: 38
    weight_filler {
      type: "xavier"
      std: 0.0009765625
    }
    bias_filler {
      type: "constant"
      value: 0
    }
  }
}
layer {
  name: "inception_4b/1x1"
  type: "Convolution"
  bottom: "inception_4a/output"
  top: "inception_4b/1x1"
  param {
    lr_mult: 1
    decay_mult: 1
  }
  param {
    lr_mult: 2
    decay_mult: 0
  }
  convolution_param {
    num_output: 160
    kernel_size: 1
    weight_filler {
      type: "xavier"
      std: 0.03
    }
    bias_filler {
      type: "constant"
      value: 0.2
    }
  }
}
layer {
  name: "inception_4b/relu_1x1"
  type: "ReLU"
  bottom: "inception_4b/1x1"
  top: "inception_4b/1x1"
}
layer {
  name: "inception_4b/3x3_reduce"
  type: "Convolution"
  bottom: "inception_4a/output"
  top: "inception_4b/3x3_reduce"
  param {
    lr_mult: 1
    decay_mult: 1
  }
  param {
    lr_mult: 2
    decay_mult: 0
  }
  convolution_param {
    num_output: 112
    kernel_size: 1
    weight_filler {
      type: "xavier"
      std: 0.09
    }
    bias_filler {
      type: "constant"
      value: 0.2
    }
  }
}
layer {
  name: "inception_4b/relu_3x3_reduce"
  type: "ReLU"
  bottom: "inception_4b/3x3_reduce"
  top: "inception_4b/3x3_reduce"
}
layer {
  name: "inception_4b/3x3"
  type: "Convolution"
  bottom: "inception_4b/3x3_reduce"
  top: "inception_4b/3x3"
  param {
    lr_mult: 1
    decay_mult: 1
  }
  param {
    lr_mult: 2
    decay_mult: 0
  }
  convolution_param {
    num_output: 224
    pad: 1
    kernel_size: 3
    weight_filler {
      type: "xavier"
      std: 0.03
    }
    bias_filler {
      type: "constant"
      value: 0.2
    }
  }
}
layer {
  name: "inception_4b/relu_3x3"
  type: "ReLU"
  bottom: "inception_4b/3x3"
  top: "inception_4b/3x3"
}
layer {
  name: "inception_4b/5x5_reduce"
  type: "Convolution"
  bottom: "inception_4a/output"
  top: "inception_4b/5x5_reduce"
  param {
    lr_mult: 1
    decay_mult: 1
  }
  param {
    lr_mult: 2
    decay_mult: 0
  }
  convolution_param {
    num_output: 24
    kernel_size: 1
    weight_filler {
      type: "xavier"
      std: 0.2
    }
    bias_filler {
      type: "constant"
      value: 0.2
    }
  }
}
layer {
  name: "inception_4b/relu_5x5_reduce"
  type: "ReLU"
  bottom: "inception_4b/5x5_reduce"
  top: "inception_4b/5x5_reduce"
}
layer {
  name: "inception_4b/5x5"
  type: "Convolution"
  bottom: "inception_4b/5x5_reduce"
  top: "inception_4b/5x5"
  param {
    lr_mult: 1
    decay_mult: 1
  }
  param {
    lr_mult: 2
    decay_mult: 0
  }
  convolution_param {
    num_output: 64
    pad: 2
    kernel_size: 5
    weight_filler {
      type: "xavier"
      std: 0.03
    }
    bias_filler {
      type: "constant"
      value: 0.2
    }
  }
}
layer {
  name: "inception_4b/relu_5x5"
  type: "ReLU"
  bottom: "inception_4b/5x5"
  top: "inception_4b/5x5"
}
layer {
  name: "inception_4b/pool"
  type: "Pooling"
  bottom: "inception_4a/output"
  top: "inception_4b/pool"
  pooling_param {
    pool: MAX
    kernel_size: 3
    stride: 1
    pad: 1
  }
}
layer {
  name: "inception_4b/pool_proj"
  type: "Convolution"
  bottom: "inception_4b/pool"
  top: "inception_4b/pool_proj"
  param {
    lr_mult: 1
    decay_mult: 1
  }
  param {
    lr_mult: 2
    decay_mult: 0
  }
  convolution_param {
    num_output: 64
    kernel_size: 1
    weight_filler {
      type: "xavier"
      std: 0.1
    }
    bias_filler {
      type: "constant"
      value: 0.2
    }
  }
}
layer {
  name: "inception_4b/relu_pool_proj"
  type: "ReLU"
  bottom: "inception_4b/pool_proj"
  top: "inception_4b/pool_proj"
}
layer {
  name: "inception_4b/output"
  type: "Concat"
  bottom: "inception_4b/1x1"
  bottom: "inception_4b/3x3"
  bottom: "inception_4b/5x5"
  bottom: "inception_4b/pool_proj"
  top: "inception_4b/output"
}
layer {
  name: "inception_4c/1x1"
  type: "Convolution"
  bottom: "inception_4b/output"
  top: "inception_4c/1x1"
  param {
    lr_mult: 1
    decay_mult: 1
  }
  param {
    lr_mult: 2
    decay_mult: 0
  }
  convolution_param {
    num_output: 128
    kernel_size: 1
    weight_filler {
      type: "xavier"
      std: 0.03
    }
    bias_filler {
      type: "constant"
      value: 0.2
    }
  }
}
layer {
  name: "inception_4c/relu_1x1"
  type: "ReLU"
  bottom: "inception_4c/1x1"
  top: "inception_4c/1x1"
}
layer {
  name: "inception_4c/3x3_reduce"
  type: "Convolution"
  bottom: "inception_4b/output"
  top: "inception_4c/3x3_reduce"
  param {
    lr_mult: 1
    decay_mult: 1
  }
  param {
    lr_mult: 2
    decay_mult: 0
  }
  convolution_param {
    num_output: 128
    kernel_size: 1
    weight_filler {
      type: "xavier"
      std: 0.09
    }
    bias_filler {
      type: "constant"
      value: 0.2
    }
  }
}
layer {
  name: "inception_4c/relu_3x3_reduce"
  type: "ReLU"
  bottom: "inception_4c/3x3_reduce"
  top: "inception_4c/3x3_reduce"
}
layer {
  name: "inception_4c/3x3"
  type: "Convolution"
  bottom: "inception_4c/3x3_reduce"
  top: "inception_4c/3x3"
  param {
    lr_mult: 1
    decay_mult: 1
  }
  param {
    lr_mult: 2
    decay_mult: 0
  }
  convolution_param {
    num_output: 256
    pad: 1
    kernel_size: 3
    weight_filler {
      type: "xavier"
      std: 0.03
    }
    bias_filler {
      type: "constant"
      value: 0.2
    }
  }
}
layer {
  name: "inception_4c/relu_3x3"
  type: "ReLU"
  bottom: "inception_4c/3x3"
  top: "inception_4c/3x3"
}
layer {
  name: "inception_4c/5x5_reduce"
  type: "Convolution"
  bottom: "inception_4b/output"
  top: "inception_4c/5x5_reduce"
  param {
    lr_mult: 1
    decay_mult: 1
  }
  param {
    lr_mult: 2
    decay_mult: 0
  }
  convolution_param {
    num_output: 24
    kernel_size: 1
    weight_filler {
      type: "xavier"
      std: 0.2
    }
    bias_filler {
      type: "constant"
      value: 0.2
    }
  }
}
layer {
  name: "inception_4c/relu_5x5_reduce"
  type: "ReLU"
  bottom: "inception_4c/5x5_reduce"
  top: "inception_4c/5x5_reduce"
}
layer {
  name: "inception_4c/5x5"
  type: "Convolution"
  bottom: "inception_4c/5x5_reduce"
  top: "inception_4c/5x5"
  param {
    lr_mult: 1
    decay_mult: 1
  }
  param {
    lr_mult: 2
    decay_mult: 0
  }
  convolution_param {
    num_output: 64
    pad: 2
    kernel_size: 5
    weight_filler {
      type: "xavier"
      std: 0.03
    }
    bias_filler {
      type: "constant"
      value: 0.2
    }
  }
}
layer {
  name: "inception_4c/relu_5x5"
  type: "ReLU"
  bottom: "inception_4c/5x5"
  top: "inception_4c/5x5"
}
layer {
  name: "inception_4c/pool"
  type: "Pooling"
  bottom: "inception_4b/output"
  top: "inception_4c/pool"
  pooling_param {
    pool: MAX
    kernel_size: 3
    stride: 1
    pad: 1
  }
}
layer {
  name: "inception_4c/pool_proj"
  type: "Convolution"
  bottom: "inception_4c/pool"
  top: "inception_4c/pool_proj"
  param {
    lr_mult: 1
    decay_mult: 1
  }
  param {
    lr_mult: 2
    decay_mult: 0
  }
  convolution_param {
    num_output: 64
    kernel_size: 1
    weight_filler {
      type: "xavier"
      std: 0.1
    }
    bias_filler {
      type: "constant"
      value: 0.2
    }
  }
}
layer {
  name: "inception_4c/relu_pool_proj"
  type: "ReLU"
  bottom: "inception_4c/pool_proj"
  top: "inception_4c/pool_proj"
}
layer {
  name: "inception_4c/output"
  type: "Concat"
  bottom: "inception_4c/1x1"
  bottom: "inception_4c/3x3"
  bottom: "inception_4c/5x5"
  bottom: "inception_4c/pool_proj"
  top: "inception_4c/output"
}
layer {
  name: "inception_4d/1x1"
  type: "Convolution"
  bottom: "inception_4c/output"
  top: "inception_4d/1x1"
  param {
    lr_mult: 1
    decay_mult: 1
  }
  param {
    lr_mult: 2
    decay_mult: 0
  }
  convolution_param {
    num_output: 112
    kernel_size: 1
    weight_filler {
      type: "xavier"
      std: 0.03
    }
    bias_filler {
      type: "constant"
      value: 0.2
    }
  }
}
layer {
  name: "inception_4d/relu_1x1"
  type: "ReLU"
  bottom: "inception_4d/1x1"
  top: "inception_4d/1x1"
}
layer {
  name: "inception_4d/3x3_reduce"
  type: "Convolution"
  bottom: "inception_4c/output"
  top: "inception_4d/3x3_reduce"
  param {
    lr_mult: 1
    decay_mult: 1
  }
  param {
    lr_mult: 2
    decay_mult: 0
  }
  convolution_param {
    num_output: 144
    kernel_size: 1
    weight_filler {
      type: "xavier"
      std: 0.09
    }
    bias_filler {
      type: "constant"
      value: 0.2
    }
  }
}
layer {
  name: "inception_4d/relu_3x3_reduce"
  type: "ReLU"
  bottom: "inception_4d/3x3_reduce"
  top: "inception_4d/3x3_reduce"
}
layer {
  name: "inception_4d/3x3"
  type: "Convolution"
  bottom: "inception_4d/3x3_reduce"
  top: "inception_4d/3x3"
  param {
    lr_mult: 1
    decay_mult: 1
  }
  param {
    lr_mult: 2
    decay_mult: 0
  }
  convolution_param {
    num_output: 288
    pad: 1
    kernel_size: 3
    weight_filler {
      type: "xavier"
      std: 0.03
    }
    bias_filler {
      type: "constant"
      value: 0.2
    }
  }
}
layer {
  name: "inception_4d/relu_3x3"
  type: "ReLU"
  bottom: "inception_4d/3x3"
  top: "inception_4d/3x3"
}
layer {
  name: "inception_4d/5x5_reduce"
  type: "Convolution"
  bottom: "inception_4c/output"
  top: "inception_4d/5x5_reduce"
  param {
    lr_mult: 1
    decay_mult: 1
  }
  param {
    lr_mult: 2
    decay_mult: 0
  }
  convolution_param {
    num_output: 32
    kernel_size: 1
    weight_filler {
      type: "xavier"
      std: 0.2
    }
    bias_filler {
      type: "constant"
      value: 0.2
    }
  }
}
layer {
  name: "inception_4d/relu_5x5_reduce"
  type: "ReLU"
  bottom: "inception_4d/5x5_reduce"
  top: "inception_4d/5x5_reduce"
}
layer {
  name: "inception_4d/5x5"
  type: "Convolution"
  bottom: "inception_4d/5x5_reduce"
  top: "inception_4d/5x5"
  param {
    lr_mult: 1
    decay_mult: 1
  }
  param {
    lr_mult: 2
    decay_mult: 0
  }
  convolution_param {
    num_output: 64
    pad: 2
    kernel_size: 5
    weight_filler {
      type: "xavier"
      std: 0.03
    }
    bias_filler {
      type: "constant"
      value: 0.2
    }
  }
}
layer {
  name: "inception_4d/relu_5x5"
  type: "ReLU"
  bottom: "inception_4d/5x5"
  top: "inception_4d/5x5"
}
layer {
  name: "inception_4d/pool"
  type: "Pooling"
  bottom: "inception_4c/output"
  top: "inception_4d/pool"
  pooling_param {
    pool: MAX
    kernel_size: 3
    stride: 1
    pad: 1
  }
}
layer {
  name: "inception_4d/pool_proj"
  type: "Convolution"
  bottom: "inception_4d/pool"
  top: "inception_4d/pool_proj"
  param {
    lr_mult: 1
    decay_mult: 1
  }
  param {
    lr_mult: 2
    decay_mult: 0
  }
  convolution_param {
    num_output: 64
    kernel_size: 1
    weight_filler {
      type: "xavier"
      std: 0.1
    }
    bias_filler {
      type: "constant"
      value: 0.2
    }
  }
}
layer {
  name: "inception_4d/relu_pool_proj"
  type: "ReLU"
  bottom: "inception_4d/pool_proj"
  top: "inception_4d/pool_proj"
}
layer {
  name: "inception_4d/output"
  type: "Concat"
  bottom: "inception_4d/1x1"
  bottom: "inception_4d/3x3"
  bottom: "inception_4d/5x5"
  bottom: "inception_4d/pool_proj"
  top: "inception_4d/output"
}
layer {
  name: "loss2/ave_pool"
  type: "Pooling"
  bottom: "inception_4d/output"
  top: "loss2/ave_pool"
  pooling_param {
    pool: AVE
    kernel_size: 5
    stride: 3
  }
}
layer {
  name: "loss2/conv"
  type: "Convolution"
  bottom: "loss2/ave_pool"
  top: "loss2/conv"
  param {
    lr_mult: 1
    decay_mult: 1
  }
  param {
    lr_mult: 2
    decay_mult: 0
  }
  convolution_param {
    num_output: 128
    kernel_size: 1
    weight_filler {
      type: "xavier"
      std: 0.08
    }
    bias_filler {
      type: "constant"
      value: 0.2
    }
  }
}
layer {
  name: "loss2/relu_conv"
  type: "ReLU"
  bottom: "loss2/conv"
  top: "loss2/conv"
}
layer {
  name: "loss2/fc"
  type: "InnerProduct"
  bottom: "loss2/conv"
  top: "loss2/fc"
  param {
    lr_mult: 1
    decay_mult: 1
  }
  param {
    lr_mult: 2
    decay_mult: 0
  }
  inner_product_param {
    num_output: 1024
    weight_filler {
      type: "xavier"
      std: 0.02
    }
    bias_filler {
      type: "constant"
      value: 0.2
    }
  }
}
layer {
  name: "loss2/relu_fc"
  type: "ReLU"
  bottom: "loss2/fc"
  top: "loss2/fc"
}
layer {
  name: "loss2/drop_fc"
  type: "Dropout"
  bottom: "loss2/fc"
  top: "loss2/fc"
  dropout_param {
    dropout_ratio: 0.7
  }
}
layer {
  name: "loss2/classifier_plantvillage"
  type: "InnerProduct"
  bottom: "loss2/fc"
  top: "loss2/classifier_plantvillage"
  param {
    lr_mult: 1
    decay_mult: 1
  }
  param {
    lr_mult: 2
    decay_mult: 0
  }
  inner_product_param {
    num_output: 38
    weight_filler {
      type: "xavier"
      std: 0.0009765625
    }
    bias_filler {
      type: "constant"
      value: 0
    }
  }
}
layer {
  name: "inception_4e/1x1"
  type: "Convolution"
  bottom: "inception_4d/output"
  top: "inception_4e/1x1"
  param {
    lr_mult: 1
    decay_mult: 1
  }
  param {
    lr_mult: 2
    decay_mult: 0
  }
  convolution_param {
    num_output: 256
    kernel_size: 1
    weight_filler {
      type: "xavier"
      std: 0.03
    }
    bias_filler {
      type: "constant"
      value: 0.2
    }
  }
}
layer {
  name: "inception_4e/relu_1x1"
  type: "ReLU"
  bottom: "inception_4e/1x1"
  top: "inception_4e/1x1"
}
layer {
  name: "inception_4e/3x3_reduce"
  type: "Convolution"
  bottom: "inception_4d/output"
  top: "inception_4e/3x3_reduce"
  param {
    lr_mult: 1
    decay_mult: 1
  }
  param {
    lr_mult: 2
    decay_mult: 0
  }
  convolution_param {
    num_output: 160
    kernel_size: 1
    weight_filler {
      type: "xavier"
      std: 0.09
    }
    bias_filler {
      type: "constant"
      value: 0.2
    }
  }
}
layer {
  name: "inception_4e/relu_3x3_reduce"
  type: "ReLU"
  bottom: "inception_4e/3x3_reduce"
  top: "inception_4e/3x3_reduce"
}
layer {
  name: "inception_4e/3x3"
  type: "Convolution"
  bottom: "inception_4e/3x3_reduce"
  top: "inception_4e/3x3"
  param {
    lr_mult: 1
    decay_mult: 1
  }
  param {
    lr_mult: 2
    decay_mult: 0
  }
  convolution_param {
    num_output: 320
    pad: 1
    kernel_size: 3
    weight_filler {
      type: "xavier"
      std: 0.03
    }
    bias_filler {
      type: "constant"
      value: 0.2
    }
  }
}
layer {
  name: "inception_4e/relu_3x3"
  type: "ReLU"
  bottom: "inception_4e/3x3"
  top: "inception_4e/3x3"
}
layer {
  name: "inception_4e/5x5_reduce"
  type: "Convolution"
  bottom: "inception_4d/output"
  top: "inception_4e/5x5_reduce"
  param {
    lr_mult: 1
    decay_mult: 1
  }
  param {
    lr_mult: 2
    decay_mult: 0
  }
  convolution_param {
    num_output: 32
    kernel_size: 1
    weight_filler {
      type: "xavier"
      std: 0.2
    }
    bias_filler {
      type: "constant"
      value: 0.2
    }
  }
}
layer {
  name: "inception_4e/relu_5x5_reduce"
  type: "ReLU"
  bottom: "inception_4e/5x5_reduce"
  top: "inception_4e/5x5_reduce"
}
layer {
  name: "inception_4e/5x5"
  type: "Convolution"
  bottom: "inception_4e/5x5_reduce"
  top: "inception_4e/
I0403 21:42:59.375464 23984 layer_factory.hpp:77] Creating layer data
I0403 21:42:59.376042 23984 net.cpp:91] Creating Layer data
I0403 21:42:59.376072 23984 net.cpp:399] data -> data
I0403 21:42:59.376124 23984 net.cpp:399] data -> label
I0403 21:42:59.376164 23984 data_transformer.cpp:25] Loading mean file from: /home/mohanty/data/final_dataset/lmdb/segmented-80-20/mean.binaryproto
I0403 21:42:59.377329 23986 db_lmdb.cpp:38] Opened lmdb /home/mohanty/data/final_dataset/lmdb/segmented-80-20/test_db
I0403 21:42:59.389205 23984 data_layer.cpp:41] output data size: 24,3,224,224
I0403 21:42:59.416406 23984 net.cpp:141] Setting up data
I0403 21:42:59.416491 23984 net.cpp:148] Top shape: 24 3 224 224 (3612672)
I0403 21:42:59.416514 23984 net.cpp:148] Top shape: 24 (24)
I0403 21:42:59.416530 23984 net.cpp:156] Memory required for data: 14450784
I0403 21:42:59.416558 23984 layer_factory.hpp:77] Creating layer label_data_1_split
I0403 21:42:59.416585 23984 net.cpp:91] Creating Layer label_data_1_split
I0403 21:42:59.416604 23984 net.cpp:425] label_data_1_split <- label
I0403 21:42:59.416638 23984 net.cpp:399] label_data_1_split -> label_data_1_split_0
I0403 21:42:59.416666 23984 net.cpp:399] label_data_1_split -> label_data_1_split_1
I0403 21:42:59.416687 23984 net.cpp:399] label_data_1_split -> label_data_1_split_2
I0403 21:42:59.416707 23984 net.cpp:399] label_data_1_split -> label_data_1_split_3
I0403 21:42:59.416728 23984 net.cpp:399] label_data_1_split -> label_data_1_split_4
I0403 21:42:59.416746 23984 net.cpp:399] label_data_1_split -> label_data_1_split_5
I0403 21:42:59.416766 23984 net.cpp:399] label_data_1_split -> label_data_1_split_6
I0403 21:42:59.416786 23984 net.cpp:399] label_data_1_split -> label_data_1_split_7
I0403 21:42:59.416806 23984 net.cpp:399] label_data_1_split -> label_data_1_split_8
I0403 21:42:59.416826 23984 net.cpp:399] label_data_1_split -> label_data_1_split_9
I0403 21:42:59.416939 23984 net.cpp:141] Setting up label_data_1_split
I0403 21:42:59.416965 23984 net.cpp:148] Top shape: 24 (24)
I0403 21:42:59.416981 23984 net.cpp:148] Top shape: 24 (24)
I0403 21:42:59.416999 23984 net.cpp:148] Top shape: 24 (24)
I0403 21:42:59.417016 23984 net.cpp:148] Top shape: 24 (24)
I0403 21:42:59.417032 23984 net.cpp:148] Top shape: 24 (24)
I0403 21:42:59.417047 23984 net.cpp:148] Top shape: 24 (24)
I0403 21:42:59.417062 23984 net.cpp:148] Top shape: 24 (24)
I0403 21:42:59.417078 23984 net.cpp:148] Top shape: 24 (24)
I0403 21:42:59.417094 23984 net.cpp:148] Top shape: 24 (24)
I0403 21:42:59.417110 23984 net.cpp:148] Top shape: 24 (24)
I0403 21:42:59.417157 23984 net.cpp:156] Memory required for data: 14451744
I0403 21:42:59.417173 23984 layer_factory.hpp:77] Creating layer conv1/7x7_s2
I0403 21:42:59.417209 23984 net.cpp:91] Creating Layer conv1/7x7_s2
I0403 21:42:59.417228 23984 net.cpp:425] conv1/7x7_s2 <- data
I0403 21:42:59.417249 23984 net.cpp:399] conv1/7x7_s2 -> conv1/7x7_s2
I0403 21:42:59.556716 23984 net.cpp:141] Setting up conv1/7x7_s2
I0403 21:42:59.556790 23984 net.cpp:148] Top shape: 24 64 112 112 (19267584)
I0403 21:42:59.556809 23984 net.cpp:156] Memory required for data: 91522080
I0403 21:42:59.556840 23984 layer_factory.hpp:77] Creating layer conv1/relu_7x7
I0403 21:42:59.556866 23984 net.cpp:91] Creating Layer conv1/relu_7x7
I0403 21:42:59.556885 23984 net.cpp:425] conv1/relu_7x7 <- conv1/7x7_s2
I0403 21:42:59.556913 23984 net.cpp:386] conv1/relu_7x7 -> conv1/7x7_s2 (in-place)
I0403 21:42:59.557157 23984 net.cpp:141] Setting up conv1/relu_7x7
I0403 21:42:59.557185 23984 net.cpp:148] Top shape: 24 64 112 112 (19267584)
I0403 21:42:59.557215 23984 net.cpp:156] Memory required for data: 168592416
I0403 21:42:59.557232 23984 layer_factory.hpp:77] Creating layer pool1/3x3_s2
I0403 21:42:59.557257 23984 net.cpp:91] Creating Layer pool1/3x3_s2
I0403 21:42:59.557276 23984 net.cpp:425] pool1/3x3_s2 <- conv1/7x7_s2
I0403 21:42:59.557293 23984 net.cpp:399] pool1/3x3_s2 -> pool1/3x3_s2
I0403 21:42:59.557366 23984 net.cpp:141] Setting up pool1/3x3_s2
I0403 21:42:59.557391 23984 net.cpp:148] Top shape: 24 64 56 56 (4816896)
I0403 21:42:59.557407 23984 net.cpp:156] Memory required for data: 187860000
I0403 21:42:59.557422 23984 layer_factory.hpp:77] Creating layer pool1/norm1
I0403 21:42:59.557447 23984 net.cpp:91] Creating Layer pool1/norm1
I0403 21:42:59.557466 23984 net.cpp:425] pool1/norm1 <- pool1/3x3_s2
I0403 21:42:59.557482 23984 net.cpp:399] pool1/norm1 -> pool1/norm1
I0403 21:42:59.557751 23984 net.cpp:141] Setting up pool1/norm1
I0403 21:42:59.557778 23984 net.cpp:148] Top shape: 24 64 56 56 (4816896)
I0403 21:42:59.557793 23984 net.cpp:156] Memory required for data: 207127584
I0403 21:42:59.557807 23984 layer_factory.hpp:77] Creating layer conv2/3x3_reduce
I0403 21:42:59.557832 23984 net.cpp:91] Creating Layer conv2/3x3_reduce
I0403 21:42:59.557849 23984 net.cpp:425] conv2/3x3_reduce <- pool1/norm1
I0403 21:42:59.557868 23984 net.cpp:399] conv2/3x3_reduce -> conv2/3x3_reduce
I0403 21:42:59.559172 23984 net.cpp:141] Setting up conv2/3x3_reduce
I0403 21:42:59.559206 23984 net.cpp:148] Top shape: 24 64 56 56 (4816896)
I0403 21:42:59.559222 23984 net.cpp:156] Memory required for data: 226395168
I0403 21:42:59.559244 23984 layer_factory.hpp:77] Creating layer conv2/relu_3x3_reduce
I0403 21:42:59.559262 23984 net.cpp:91] Creating Layer conv2/relu_3x3_reduce
I0403 21:42:59.559278 23984 net.cpp:425] conv2/relu_3x3_reduce <- conv2/3x3_reduce
I0403 21:42:59.559294 23984 net.cpp:386] conv2/relu_3x3_reduce -> conv2/3x3_reduce (in-place)
I0403 21:42:59.559537 23984 net.cpp:141] Setting up conv2/relu_3x3_reduce
I0403 21:42:59.559563 23984 net.cpp:148] Top shape: 24 64 56 56 (4816896)
I0403 21:42:59.559579 23984 net.cpp:156] Memory required for data: 245662752
I0403 21:42:59.559594 23984 layer_factory.hpp:77] Creating layer conv2/3x3
I0403 21:42:59.559615 23984 net.cpp:91] Creating Layer conv2/3x3
I0403 21:42:59.559633 23984 net.cpp:425] conv2/3x3 <- conv2/3x3_reduce
I0403 21:42:59.559650 23984 net.cpp:399] conv2/3x3 -> conv2/3x3
I0403 21:42:59.561841 23984 net.cpp:141] Setting up conv2/3x3
I0403 21:42:59.561871 23984 net.cpp:148] Top shape: 24 192 56 56 (14450688)
I0403 21:42:59.561887 23984 net.cpp:156] Memory required for data: 303465504
I0403 21:42:59.561908 23984 layer_factory.hpp:77] Creating layer conv2/relu_3x3
I0403 21:42:59.561929 23984 net.cpp:91] Creating Layer conv2/relu_3x3
I0403 21:42:59.561946 23984 net.cpp:425] conv2/relu_3x3 <- conv2/3x3
I0403 21:42:59.561964 23984 net.cpp:386] conv2/relu_3x3 -> conv2/3x3 (in-place)
I0403 21:42:59.562130 23984 net.cpp:141] Setting up conv2/relu_3x3
I0403 21:42:59.562156 23984 net.cpp:148] Top shape: 24 192 56 56 (14450688)
I0403 21:42:59.562208 23984 net.cpp:156] Memory required for data: 361268256
I0403 21:42:59.562227 23984 layer_factory.hpp:77] Creating layer conv2/norm2
I0403 21:42:59.562250 23984 net.cpp:91] Creating Layer conv2/norm2
I0403 21:42:59.562266 23984 net.cpp:425] conv2/norm2 <- conv2/3x3
I0403 21:42:59.562286 23984 net.cpp:399] conv2/norm2 -> conv2/norm2
I0403 21:42:59.562583 23984 net.cpp:141] Setting up conv2/norm2
I0403 21:42:59.562609 23984 net.cpp:148] Top shape: 24 192 56 56 (14450688)
I0403 21:42:59.562625 23984 net.cpp:156] Memory required for data: 419071008
I0403 21:42:59.562640 23984 layer_factory.hpp:77] Creating layer pool2/3x3_s2
I0403 21:42:59.562659 23984 net.cpp:91] Creating Layer pool2/3x3_s2
I0403 21:42:59.562674 23984 net.cpp:425] pool2/3x3_s2 <- conv2/norm2
I0403 21:42:59.562692 23984 net.cpp:399] pool2/3x3_s2 -> pool2/3x3_s2
I0403 21:42:59.562743 23984 net.cpp:141] Setting up pool2/3x3_s2
I0403 21:42:59.562768 23984 net.cpp:148] Top shape: 24 192 28 28 (3612672)
I0403 21:42:59.562783 23984 net.cpp:156] Memory required for data: 433521696
I0403 21:42:59.562798 23984 layer_factory.hpp:77] Creating layer pool2/3x3_s2_pool2/3x3_s2_0_split
I0403 21:42:59.562814 23984 net.cpp:91] Creating Layer pool2/3x3_s2_pool2/3x3_s2_0_split
I0403 21:42:59.562829 23984 net.cpp:425] pool2/3x3_s2_pool2/3x3_s2_0_split <- pool2/3x3_s2
I0403 21:42:59.562846 23984 net.cpp:399] pool2/3x3_s2_pool2/3x3_s2_0_split -> pool2/3x3_s2_pool2/3x3_s2_0_split_0
I0403 21:42:59.562866 23984 net.cpp:399] pool2/3x3_s2_pool2/3x3_s2_0_split -> pool2/3x3_s2_pool2/3x3_s2_0_split_1
I0403 21:42:59.562890 23984 net.cpp:399] pool2/3x3_s2_pool2/3x3_s2_0_split -> pool2/3x3_s2_pool2/3x3_s2_0_split_2
I0403 21:42:59.562911 23984 net.cpp:399] pool2/3x3_s2_pool2/3x3_s2_0_split -> pool2/3x3_s2_pool2/3x3_s2_0_split_3
I0403 21:42:59.562979 23984 net.cpp:141] Setting up pool2/3x3_s2_pool2/3x3_s2_0_split
I0403 21:42:59.563002 23984 net.cpp:148] Top shape: 24 192 28 28 (3612672)
I0403 21:42:59.563019 23984 net.cpp:148] Top shape: 24 192 28 28 (3612672)
I0403 21:42:59.563035 23984 net.cpp:148] Top shape: 24 192 28 28 (3612672)
I0403 21:42:59.563050 23984 net.cpp:148] Top shape: 24 192 28 28 (3612672)
I0403 21:42:59.563063 23984 net.cpp:156] Memory required for data: 491324448
I0403 21:42:59.563077 23984 layer_factory.hpp:77] Creating layer inception_3a/1x1
I0403 21:42:59.563100 23984 net.cpp:91] Creating Layer inception_3a/1x1
I0403 21:42:59.563117 23984 net.cpp:425] inception_3a/1x1 <- pool2/3x3_s2_pool2/3x3_s2_0_split_0
I0403 21:42:59.563138 23984 net.cpp:399] inception_3a/1x1 -> inception_3a/1x1
I0403 21:42:59.564623 23984 net.cpp:141] Setting up inception_3a/1x1
I0403 21:42:59.564652 23984 net.cpp:148] Top shape: 24 64 28 28 (1204224)
I0403 21:42:59.564668 23984 net.cpp:156] Memory required for data: 496141344
I0403 21:42:59.564687 23984 layer_factory.hpp:77] Creating layer inception_3a/relu_1x1
I0403 21:42:59.564703 23984 net.cpp:91] Creating Layer inception_3a/relu_1x1
I0403 21:42:59.564718 23984 net.cpp:425] inception_3a/relu_1x1 <- inception_3a/1x1
I0403 21:42:59.564738 23984 net.cpp:386] inception_3a/relu_1x1 -> inception_3a/1x1 (in-place)
I0403 21:42:59.564908 23984 net.cpp:141] Setting up inception_3a/relu_1x1
I0403 21:42:59.564934 23984 net.cpp:148] Top shape: 24 64 28 28 (1204224)
I0403 21:42:59.564949 23984 net.cpp:156] Memory required for data: 500958240
I0403 21:42:59.564963 23984 layer_factory.hpp:77] Creating layer inception_3a/3x3_reduce
I0403 21:42:59.564985 23984 net.cpp:91] Creating Layer inception_3a/3x3_reduce
I0403 21:42:59.565001 23984 net.cpp:425] inception_3a/3x3_reduce <- pool2/3x3_s2_pool2/3x3_s2_0_split_1
I0403 21:42:59.565021 23984 net.cpp:399] inception_3a/3x3_reduce -> inception_3a/3x3_reduce
I0403 21:42:59.566659 23984 net.cpp:141] Setting up inception_3a/3x3_reduce
I0403 21:42:59.566689 23984 net.cpp:148] Top shape: 24 96 28 28 (1806336)
I0403 21:42:59.566706 23984 net.cpp:156] Memory required for data: 508183584
I0403 21:42:59.566727 23984 layer_factory.hpp:77] Creating layer inception_3a/relu_3x3_reduce
I0403 21:42:59.566763 23984 net.cpp:91] Creating Layer inception_3a/relu_3x3_reduce
I0403 21:42:59.566782 23984 net.cpp:425] inception_3a/relu_3x3_reduce <- inception_3a/3x3_reduce
I0403 21:42:59.566800 23984 net.cpp:386] inception_3a/relu_3x3_reduce -> inception_3a/3x3_reduce (in-place)
I0403 21:42:59.566972 23984 net.cpp:141] Setting up inception_3a/relu_3x3_reduce
I0403 21:42:59.566998 23984 net.cpp:148] Top shape: 24 96 28 28 (1806336)
I0403 21:42:59.567013 23984 net.cpp:156] Memory required for data: 515408928
I0403 21:42:59.567028 23984 layer_factory.hpp:77] Creating layer inception_3a/3x3
I0403 21:42:59.567052 23984 net.cpp:91] Creating Layer inception_3a/3x3
I0403 21:42:59.567071 23984 net.cpp:425] inception_3a/3x3 <- inception_3a/3x3_reduce
I0403 21:42:59.567092 23984 net.cpp:399] inception_3a/3x3 -> inception_3a/3x3
I0403 21:42:59.568738 23984 net.cpp:141] Setting up inception_3a/3x3
I0403 21:42:59.568768 23984 net.cpp:148] Top shape: 24 128 28 28 (2408448)
I0403 21:42:59.568784 23984 net.cpp:156] Memory required for data: 525042720
I0403 21:42:59.568804 23984 layer_factory.hpp:77] Creating layer inception_3a/relu_3x3
I0403 21:42:59.568825 23984 net.cpp:91] Creating Layer inception_3a/relu_3x3
I0403 21:42:59.568841 23984 net.cpp:425] inception_3a/relu_3x3 <- inception_3a/3x3
I0403 21:42:59.568861 23984 net.cpp:386] inception_3a/relu_3x3 -> inception_3a/3x3 (in-place)
I0403 21:42:59.569126 23984 net.cpp:141] Setting up inception_3a/relu_3x3
I0403 21:42:59.569154 23984 net.cpp:148] Top shape: 24 128 28 28 (2408448)
I0403 21:42:59.569169 23984 net.cpp:156] Memory required for data: 534676512
I0403 21:42:59.569185 23984 layer_factory.hpp:77] Creating layer inception_3a/5x5_reduce
I0403 21:42:59.569212 23984 net.cpp:91] Creating Layer inception_3a/5x5_reduce
I0403 21:42:59.569232 23984 net.cpp:425] inception_3a/5x5_reduce <- pool2/3x3_s2_pool2/3x3_s2_0_split_2
I0403 21:42:59.569253 23984 net.cpp:399] inception_3a/5x5_reduce -> inception_3a/5x5_reduce
I0403 21:42:59.570199 23984 net.cpp:141] Setting up inception_3a/5x5_reduce
I0403 21:42:59.570227 23984 net.cpp:148] Top shape: 24 16 28 28 (301056)
I0403 21:42:59.570245 23984 net.cpp:156] Memory required for data: 535880736
I0403 21:42:59.570263 23984 layer_factory.hpp:77] Creating layer inception_3a/relu_5x5_reduce
I0403 21:42:59.570283 23984 net.cpp:91] Creating Layer inception_3a/relu_5x5_reduce
I0403 21:42:59.570302 23984 net.cpp:425] inception_3a/relu_5x5_reduce <- inception_3a/5x5_reduce
I0403 21:42:59.570319 23984 net.cpp:386] inception_3a/relu_5x5_reduce -> inception_3a/5x5_reduce (in-place)
I0403 21:42:59.570611 23984 net.cpp:141] Setting up inception_3a/relu_5x5_reduce
I0403 21:42:59.570639 23984 net.cpp:148] Top shape: 24 16 28 28 (301056)
I0403 21:42:59.570655 23984 net.cpp:156] Memory required for data: 537084960
I0403 21:42:59.570672 23984 layer_factory.hpp:77] Creating layer inception_3a/5x5
I0403 21:42:59.570698 23984 net.cpp:91] Creating Layer inception_3a/5x5
I0403 21:42:59.570715 23984 net.cpp:425] inception_3a/5x5 <- inception_3a/5x5_reduce
I0403 21:42:59.570735 23984 net.cpp:399] inception_3a/5x5 -> inception_3a/5x5
I0403 21:42:59.571732 23984 net.cpp:141] Setting up inception_3a/5x5
I0403 21:42:59.571760 23984 net.cpp:148] Top shape: 24 32 28 28 (602112)
I0403 21:42:59.571776 23984 net.cpp:156] Memory required for data: 539493408
I0403 21:42:59.571795 23984 layer_factory.hpp:77] Creating layer inception_3a/relu_5x5
I0403 21:42:59.571815 23984 net.cpp:91] Creating Layer inception_3a/relu_5x5
I0403 21:42:59.571832 23984 net.cpp:425] inception_3a/relu_5x5 <- inception_3a/5x5
I0403 21:42:59.571849 23984 net.cpp:386] inception_3a/relu_5x5 -> inception_3a/5x5 (in-place)
I0403 21:42:59.572028 23984 net.cpp:141] Setting up inception_3a/relu_5x5
I0403 21:42:59.572053 23984 net.cpp:148] Top shape: 24 32 28 28 (602112)
I0403 21:42:59.572072 23984 net.cpp:156] Memory required for data: 541901856
I0403 21:42:59.572088 23984 layer_factory.hpp:77] Creating layer inception_3a/pool
I0403 21:42:59.572106 23984 net.cpp:91] Creating Layer inception_3a/pool
I0403 21:42:59.572136 23984 net.cpp:425] inception_3a/pool <- pool2/3x3_s2_pool2/3x3_s2_0_split_3
I0403 21:42:59.572155 23984 net.cpp:399] inception_3a/pool -> inception_3a/pool
I0403 21:42:59.572224 23984 net.cpp:141] Setting up inception_3a/pool
I0403 21:42:59.572248 23984 net.cpp:148] Top shape: 24 192 28 28 (3612672)
I0403 21:42:59.572264 23984 net.cpp:156] Memory required for data: 556352544
I0403 21:42:59.572279 23984 layer_factory.hpp:77] Creating layer inception_3a/pool_proj
I0403 21:42:59.572302 23984 net.cpp:91] Creating Layer inception_3a/pool_proj
I0403 21:42:59.572320 23984 net.cpp:425] inception_3a/pool_proj <- inception_3a/pool
I0403 21:42:59.572342 23984 net.cpp:399] inception_3a/pool_proj -> inception_3a/pool_proj
I0403 21:42:59.573299 23984 net.cpp:141] Setting up inception_3a/pool_proj
I0403 21:42:59.573328 23984 net.cpp:148] Top shape: 24 32 28 28 (602112)
I0403 21:42:59.573344 23984 net.cpp:156] Memory required for data: 558760992
I0403 21:42:59.573365 23984 layer_factory.hpp:77] Creating layer inception_3a/relu_pool_proj
I0403 21:42:59.573387 23984 net.cpp:91] Creating Layer inception_3a/relu_pool_proj
I0403 21:42:59.573405 23984 net.cpp:425] inception_3a/relu_pool_proj <- inception_3a/pool_proj
I0403 21:42:59.573423 23984 net.cpp:386] inception_3a/relu_pool_proj -> inception_3a/pool_proj (in-place)
I0403 21:42:59.573695 23984 net.cpp:141] Setting up inception_3a/relu_pool_proj
I0403 21:42:59.573722 23984 net.cpp:148] Top shape: 24 32 28 28 (602112)
I0403 21:42:59.573737 23984 net.cpp:156] Memory required for data: 561169440
I0403 21:42:59.573752 23984 layer_factory.hpp:77] Creating layer inception_3a/output
I0403 21:42:59.573770 23984 net.cpp:91] Creating Layer inception_3a/output
I0403 21:42:59.573786 23984 net.cpp:425] inception_3a/output <- inception_3a/1x1
I0403 21:42:59.573803 23984 net.cpp:425] inception_3a/output <- inception_3a/3x3
I0403 21:42:59.573820 23984 net.cpp:425] inception_3a/output <- inception_3a/5x5
I0403 21:42:59.573837 23984 net.cpp:425] inception_3a/output <- inception_3a/pool_proj
I0403 21:42:59.573854 23984 net.cpp:399] inception_3a/output -> inception_3a/output
I0403 21:42:59.573905 23984 net.cpp:141] Setting up inception_3a/output
I0403 21:42:59.573930 23984 net.cpp:148] Top shape: 24 256 28 28 (4816896)
I0403 21:42:59.573945 23984 net.cpp:156] Memory required for data: 580437024
I0403 21:42:59.573962 23984 layer_factory.hpp:77] Creating layer inception_3a/output_inception_3a/output_0_split
I0403 21:42:59.573979 23984 net.cpp:91] Creating Layer inception_3a/output_inception_3a/output_0_split
I0403 21:42:59.573994 23984 net.cpp:425] inception_3a/output_inception_3a/output_0_split <- inception_3a/output
I0403 21:42:59.574014 23984 net.cpp:399] inception_3a/output_inception_3a/output_0_split -> inception_3a/output_inception_3a/output_0_split_0
I0403 21:42:59.574035 23984 net.cpp:399] inception_3a/output_inception_3a/output_0_split -> inception_3a/output_inception_3a/output_0_split_1
I0403 21:42:59.574057 23984 net.cpp:399] inception_3a/output_inception_3a/output_0_split -> inception_3a/output_inception_3a/output_0_split_2
I0403 21:42:59.574082 23984 net.cpp:399] inception_3a/output_inception_3a/output_0_split -> inception_3a/output_inception_3a/output_0_split_3
I0403 21:42:59.574157 23984 net.cpp:141] Setting up inception_3a/output_inception_3a/output_0_split
I0403 21:42:59.574182 23984 net.cpp:148] Top shape: 24 256 28 28 (4816896)
I0403 21:42:59.574203 23984 net.cpp:148] Top shape: 24 256 28 28 (4816896)
I0403 21:42:59.574221 23984 net.cpp:148] Top shape: 24 256 28 28 (4816896)
I0403 21:42:59.574237 23984 net.cpp:148] Top shape: 24 256 28 28 (4816896)
I0403 21:42:59.574251 23984 net.cpp:156] Memory required for data: 657507360
I0403 21:42:59.574267 23984 layer_factory.hpp:77] Creating layer inception_3b/1x1
I0403 21:42:59.574290 23984 net.cpp:91] Creating Layer inception_3b/1x1
I0403 21:42:59.574306 23984 net.cpp:425] inception_3b/1x1 <- inception_3a/output_inception_3a/output_0_split_0
I0403 21:42:59.574327 23984 net.cpp:399] inception_3b/1x1 -> inception_3b/1x1
I0403 21:42:59.575456 23984 net.cpp:141] Setting up inception_3b/1x1
I0403 21:42:59.575496 23984 net.cpp:148] Top shape: 24 128 28 28 (2408448)
I0403 21:42:59.575512 23984 net.cpp:156] Memory required for data: 667141152
I0403 21:42:59.575531 23984 layer_factory.hpp:77] Creating layer inception_3b/relu_1x1
I0403 21:42:59.575549 23984 net.cpp:91] Creating Layer inception_3b/relu_1x1
I0403 21:42:59.575565 23984 net.cpp:425] inception_3b/relu_1x1 <- inception_3b/1x1
I0403 21:42:59.575587 23984 net.cpp:386] inception_3b/relu_1x1 -> inception_3b/1x1 (in-place)
I0403 21:42:59.575759 23984 net.cpp:141] Setting up inception_3b/relu_1x1
I0403 21:42:59.575785 23984 net.cpp:148] Top shape: 24 128 28 28 (2408448)
I0403 21:42:59.575800 23984 net.cpp:156] Memory required for data: 676774944
I0403 21:42:59.575815 23984 layer_factory.hpp:77] Creating layer inception_3b/3x3_reduce
I0403 21:42:59.575839 23984 net.cpp:91] Creating Layer inception_3b/3x3_reduce
I0403 21:42:59.575856 23984 net.cpp:425] inception_3b/3x3_reduce <- inception_3a/output_inception_3a/output_0_split_1
I0403 21:42:59.575878 23984 net.cpp:399] inception_3b/3x3_reduce -> inception_3b/3x3_reduce
I0403 21:42:59.577014 23984 net.cpp:141] Setting up inception_3b/3x3_reduce
I0403 21:42:59.577041 23984 net.cpp:148] Top shape: 24 128 28 28 (2408448)
I0403 21:42:59.577057 23984 net.cpp:156] Memory required for data: 686408736
I0403 21:42:59.577075 23984 layer_factory.hpp:77] Creating layer inception_3b/relu_3x3_reduce
I0403 21:42:59.577095 23984 net.cpp:91] Creating Layer inception_3b/relu_3x3_reduce
I0403 21:42:59.577111 23984 net.cpp:425] inception_3b/relu_3x3_reduce <- inception_3b/3x3_reduce
I0403 21:42:59.577131 23984 net.cpp:386] inception_3b/relu_3x3_reduce -> inception_3b/3x3_reduce (in-place)
I0403 21:42:59.577307 23984 net.cpp:141] Setting up inception_3b/relu_3x3_reduce
I0403 21:42:59.577333 23984 net.cpp:148] Top shape: 24 128 28 28 (2408448)
I0403 21:42:59.577348 23984 net.cpp:156] Memory required for data: 696042528
I0403 21:42:59.577364 23984 layer_factory.hpp:77] Creating layer inception_3b/3x3
I0403 21:42:59.577394 23984 net.cpp:91] Creating Layer inception_3b/3x3
I0403 21:42:59.577414 23984 net.cpp:425] inception_3b/3x3 <- inception_3b/3x3_reduce
I0403 21:42:59.577433 23984 net.cpp:399] inception_3b/3x3 -> inception_3b/3x3
I0403 21:42:59.580337 23984 net.cpp:141] Setting up inception_3b/3x3
I0403 21:42:59.580366 23984 net.cpp:148] Top shape: 24 192 28 28 (3612672)
I0403 21:42:59.580382 23984 net.cpp:156] Memory required for data: 710493216
I0403 21:42:59.580401 23984 layer_factory.hpp:77] Creating layer inception_3b/relu_3x3
I0403 21:42:59.580421 23984 net.cpp:91] Creating Layer inception_3b/relu_3x3
I0403 21:42:59.580440 23984 net.cpp:425] inception_3b/relu_3x3 <- inception_3b/3x3
I0403 21:42:59.580458 23984 net.cpp:386] inception_3b/relu_3x3 -> inception_3b/3x3 (in-place)
I0403 21:42:59.580729 23984 net.cpp:141] Setting up inception_3b/relu_3x3
I0403 21:42:59.580754 23984 net.cpp:148] Top shape: 24 192 28 28 (3612672)
I0403 21:42:59.580770 23984 net.cpp:156] Memory required for data: 724943904
I0403 21:42:59.580785 23984 layer_factory.hpp:77] Creating layer inception_3b/5x5_reduce
I0403 21:42:59.580809 23984 net.cpp:91] Creating Layer inception_3b/5x5_reduce
I0403 21:42:59.580828 23984 net.cpp:425] inception_3b/5x5_reduce <- inception_3a/output_inception_3a/output_0_split_2
I0403 21:42:59.580850 23984 net.cpp:399] inception_3b/5x5_reduce -> inception_3b/5x5_reduce
I0403 21:42:59.581828 23984 net.cpp:141] Setting up inception_3b/5x5_reduce
I0403 21:42:59.581856 23984 net.cpp:148] Top shape: 24 32 28 28 (602112)
I0403 21:42:59.581872 23984 net.cpp:156] Memory required for data: 727352352
I0403 21:42:59.581892 23984 layer_factory.hpp:77] Creating layer inception_3b/relu_5x5_reduce
I0403 21:42:59.581912 23984 net.cpp:91] Creating Layer inception_3b/relu_5x5_reduce
I0403 21:42:59.581929 23984 net.cpp:425] inception_3b/relu_5x5_reduce <- inception_3b/5x5_reduce
I0403 21:42:59.581946 23984 net.cpp:386] inception_3b/relu_5x5_reduce -> inception_3b/5x5_reduce (in-place)
I0403 21:42:59.582139 23984 net.cpp:141] Setting up inception_3b/relu_5x5_reduce
I0403 21:42:59.582166 23984 net.cpp:148] Top shape: 24 32 28 28 (602112)
I0403 21:42:59.582183 23984 net.cpp:156] Memory required for data: 729760800
I0403 21:42:59.582203 23984 layer_factory.hpp:77] Creating layer inception_3b/5x5
I0403 21:42:59.582224 23984 net.cpp:91] Creating Layer inception_3b/5x5
I0403 21:42:59.582242 23984 net.cpp:425] inception_3b/5x5 <- inception_3b/5x5_reduce
I0403 21:42:59.582263 23984 net.cpp:399] inception_3b/5x5 -> inception_3b/5x5
I0403 21:42:59.584225 23984 net.cpp:141] Setting up inception_3b/5x5
I0403 21:42:59.584254 23984 net.cpp:148] Top shape: 24 96 28 28 (1806336)
I0403 21:42:59.584270 23984 net.cpp:156] Memory required for data: 736986144
I0403 21:42:59.584290 23984 layer_factory.hpp:77] Creating layer inception_3b/relu_5x5
I0403 21:42:59.584308 23984 net.cpp:91] Creating Layer inception_3b/relu_5x5
I0403 21:42:59.584323 23984 net.cpp:425] inception_3b/relu_5x5 <- inception_3b/5x5
I0403 21:42:59.584343 23984 net.cpp:386] inception_3b/relu_5x5 -> inception_3b/5x5 (in-place)
I0403 21:42:59.584534 23984 net.cpp:141] Setting up inception_3b/relu_5x5
I0403 21:42:59.584560 23984 net.cpp:148] Top shape: 24 96 28 28 (1806336)
I0403 21:42:59.584575 23984 net.cpp:156] Memory required for data: 744211488
I0403 21:42:59.584589 23984 layer_factory.hpp:77] Creating layer inception_3b/pool
I0403 21:42:59.584609 23984 net.cpp:91] Creating Layer inception_3b/pool
I0403 21:42:59.584625 23984 net.cpp:425] inception_3b/pool <- inception_3a/output_inception_3a/output_0_split_3
I0403 21:42:59.584645 23984 net.cpp:399] inception_3b/pool -> inception_3b/pool
I0403 21:42:59.584702 23984 net.cpp:141] Setting up inception_3b/pool
I0403 21:42:59.584725 23984 net.cpp:148] Top shape: 24 256 28 28 (4816896)
I0403 21:42:59.584741 23984 net.cpp:156] Memory required for data: 763479072
I0403 21:42:59.584755 23984 layer_factory.hpp:77] Creating layer inception_3b/pool_proj
I0403 21:42:59.584777 23984 net.cpp:91] Creating Layer inception_3b/pool_proj
I0403 21:42:59.584795 23984 net.cpp:425] inception_3b/pool_proj <- inception_3b/pool
I0403 21:42:59.584817 23984 net.cpp:399] inception_3b/pool_proj -> inception_3b/pool_proj
I0403 21:42:59.585860 23984 net.cpp:141] Setting up inception_3b/pool_proj
I0403 21:42:59.585891 23984 net.cpp:148] Top shape: 24 64 28 28 (1204224)
I0403 21:42:59.585908 23984 net.cpp:156] Memory required for data: 768295968
I0403 21:42:59.585927 23984 layer_factory.hpp:77] Creating layer inception_3b/relu_pool_proj
I0403 21:42:59.585943 23984 net.cpp:91] Creating Layer inception_3b/relu_pool_proj
I0403 21:42:59.585960 23984 net.cpp:425] inception_3b/relu_pool_proj <- inception_3b/pool_proj
I0403 21:42:59.585978 23984 net.cpp:386] inception_3b/relu_pool_proj -> inception_3b/pool_proj (in-place)
I0403 21:42:59.586361 23984 net.cpp:141] Setting up inception_3b/relu_pool_proj
I0403 21:42:59.586387 23984 net.cpp:148] Top shape: 24 64 28 28 (1204224)
I0403 21:42:59.586402 23984 net.cpp:156] Memory required for data: 773112864
I0403 21:42:59.586417 23984 layer_factory.hpp:77] Creating layer inception_3b/output
I0403 21:42:59.586436 23984 net.cpp:91] Creating Layer inception_3b/output
I0403 21:42:59.586453 23984 net.cpp:425] inception_3b/output <- inception_3b/1x1
I0403 21:42:59.586470 23984 net.cpp:425] inception_3b/output <- inception_3b/3x3
I0403 21:42:59.586485 23984 net.cpp:425] inception_3b/output <- inception_3b/5x5
I0403 21:42:59.586500 23984 net.cpp:425] inception_3b/output <- inception_3b/pool_proj
I0403 21:42:59.586518 23984 net.cpp:399] inception_3b/output -> inception_3b/output
I0403 21:42:59.586560 23984 net.cpp:141] Setting up inception_3b/output
I0403 21:42:59.586583 23984 net.cpp:148] Top shape: 24 480 28 28 (9031680)
I0403 21:42:59.586598 23984 net.cpp:156] Memory required for data: 809239584
I0403 21:42:59.586613 23984 layer_factory.hpp:77] Creating layer pool3/3x3_s2
I0403 21:42:59.586629 23984 net.cpp:91] Creating Layer pool3/3x3_s2
I0403 21:42:59.586644 23984 net.cpp:425] pool3/3x3_s2 <- inception_3b/output
I0403 21:42:59.586679 23984 net.cpp:399] pool3/3x3_s2 -> pool3/3x3_s2
I0403 21:42:59.586737 23984 net.cpp:141] Setting up pool3/3x3_s2
I0403 21:42:59.586761 23984 net.cpp:148] Top shape: 24 480 14 14 (2257920)
I0403 21:42:59.586776 23984 net.cpp:156] Memory required for data: 818271264
I0403 21:42:59.586791 23984 layer_factory.hpp:77] Creating layer pool3/3x3_s2_pool3/3x3_s2_0_split
I0403 21:42:59.586810 23984 net.cpp:91] Creating Layer pool3/3x3_s2_pool3/3x3_s2_0_split
I0403 21:42:59.586825 23984 net.cpp:425] pool3/3x3_s2_pool3/3x3_s2_0_split <- pool3/3x3_s2
I0403 21:42:59.586845 23984 net.cpp:399] pool3/3x3_s2_pool3/3x3_s2_0_split -> pool3/3x3_s2_pool3/3x3_s2_0_split_0
I0403 21:42:59.586865 23984 net.cpp:399] pool3/3x3_s2_pool3/3x3_s2_0_split -> pool3/3x3_s2_pool3/3x3_s2_0_split_1
I0403 21:42:59.586885 23984 net.cpp:399] pool3/3x3_s2_pool3/3x3_s2_0_split -> pool3/3x3_s2_pool3/3x3_s2_0_split_2
I0403 21:42:59.586905 23984 net.cpp:399] pool3/3x3_s2_pool3/3x3_s2_0_split -> pool3/3x3_s2_pool3/3x3_s2_0_split_3
I0403 21:42:59.586977 23984 net.cpp:141] Setting up pool3/3x3_s2_pool3/3x3_s2_0_split
I0403 21:42:59.587002 23984 net.cpp:148] Top shape: 24 480 14 14 (2257920)
I0403 21:42:59.587018 23984 net.cpp:148] Top shape: 24 480 14 14 (2257920)
I0403 21:42:59.587034 23984 net.cpp:148] Top shape: 24 480 14 14 (2257920)
I0403 21:42:59.587051 23984 net.cpp:148] Top shape: 24 480 14 14 (2257920)
I0403 21:42:59.587065 23984 net.cpp:156] Memory required for data: 854397984
I0403 21:42:59.587080 23984 layer_factory.hpp:77] Creating layer inception_4a/1x1
I0403 21:42:59.587101 23984 net.cpp:91] Creating Layer inception_4a/1x1
I0403 21:42:59.587118 23984 net.cpp:425] inception_4a/1x1 <- pool3/3x3_s2_pool3/3x3_s2_0_split_0
I0403 21:42:59.587137 23984 net.cpp:399] inception_4a/1x1 -> inception_4a/1x1
I0403 21:42:59.588654 23984 net.cpp:141] Setting up inception_4a/1x1
I0403 21:42:59.588683 23984 net.cpp:148] Top shape: 24 192 14 14 (903168)
I0403 21:42:59.588701 23984 net.cpp:156] Memory required for data: 858010656
I0403 21:42:59.588719 23984 layer_factory.hpp:77] Creating layer inception_4a/relu_1x1
I0403 21:42:59.588737 23984 net.cpp:91] Creating Layer inception_4a/relu_1x1
I0403 21:42:59.588752 23984 net.cpp:425] inception_4a/relu_1x1 <- inception_4a/1x1
I0403 21:42:59.588769 23984 net.cpp:386] inception_4a/relu_1x1 -> inception_4a/1x1 (in-place)
I0403 21:42:59.588944 23984 net.cpp:141] Setting up inception_4a/relu_1x1
I0403 21:42:59.588969 23984 net.cpp:148] Top shape: 24 192 14 14 (903168)
I0403 21:42:59.588984 23984 net.cpp:156] Memory required for data: 861623328
I0403 21:42:59.588999 23984 layer_factory.hpp:77] Creating layer inception_4a/3x3_reduce
I0403 21:42:59.589021 23984 net.cpp:91] Creating Layer inception_4a/3x3_reduce
I0403 21:42:59.589038 23984 net.cpp:425] inception_4a/3x3_reduce <- pool3/3x3_s2_pool3/3x3_s2_0_split_1
I0403 21:42:59.589059 23984 net.cpp:399] inception_4a/3x3_reduce -> inception_4a/3x3_reduce
I0403 21:42:59.590291 23984 net.cpp:141] Setting up inception_4a/3x3_reduce
I0403 21:42:59.590322 23984 net.cpp:148] Top shape: 24 96 14 14 (451584)
I0403 21:42:59.590338 23984 net.cpp:156] Memory required for data: 863429664
I0403 21:42:59.590363 23984 layer_factory.hpp:77] Creating layer inception_4a/relu_3x3_reduce
I0403 21:42:59.590384 23984 net.cpp:91] Creating Layer inception_4a/relu_3x3_reduce
I0403 21:42:59.590399 23984 net.cpp:425] inception_4a/relu_3x3_reduce <- inception_4a/3x3_reduce
I0403 21:42:59.590417 23984 net.cpp:386] inception_4a/relu_3x3_reduce -> inception_4a/3x3_reduce (in-place)
I0403 21:42:59.590584 23984 net.cpp:141] Setting up inception_4a/relu_3x3_reduce
I0403 21:42:59.590610 23984 net.cpp:148] Top shape: 24 96 14 14 (451584)
I0403 21:42:59.590626 23984 net.cpp:156] Memory required for data: 865236000
I0403 21:42:59.590641 23984 layer_factory.hpp:77] Creating layer inception_4a/3x3
I0403 21:42:59.590662 23984 net.cpp:91] Creating Layer inception_4a/3x3
I0403 21:42:59.590682 23984 net.cpp:425] inception_4a/3x3 <- inception_4a/3x3_reduce
I0403 21:42:59.590701 23984 net.cpp:399] inception_4a/3x3 -> inception_4a/3x3
I0403 21:42:59.593317 23984 net.cpp:141] Setting up inception_4a/3x3
I0403 21:42:59.593345 23984 net.cpp:148] Top shape: 24 208 14 14 (978432)
I0403 21:42:59.593363 23984 net.cpp:156] Memory required for data: 869149728
I0403 21:42:59.593380 23984 layer_factory.hpp:77] Creating layer inception_4a/relu_3x3
I0403 21:42:59.593400 23984 net.cpp:91] Creating Layer inception_4a/relu_3x3
I0403 21:42:59.593415 23984 net.cpp:425] inception_4a/relu_3x3 <- inception_4a/3x3
I0403 21:42:59.593433 23984 net.cpp:386] inception_4a/relu_3x3 -> inception_4a/3x3 (in-place)
I0403 21:42:59.593703 23984 net.cpp:141] Setting up inception_4a/relu_3x3
I0403 21:42:59.593729 23984 net.cpp:148] Top shape: 24 208 14 14 (978432)
I0403 21:42:59.593744 23984 net.cpp:156] Memory required for data: 873063456
I0403 21:42:59.593760 23984 layer_factory.hpp:77] Creating layer inception_4a/5x5_reduce
I0403 21:42:59.593781 23984 net.cpp:91] Creating Layer inception_4a/5x5_reduce
I0403 21:42:59.593798 23984 net.cpp:425] inception_4a/5x5_reduce <- pool3/3x3_s2_pool3/3x3_s2_0_split_2
I0403 21:42:59.593819 23984 net.cpp:399] inception_4a/5x5_reduce -> inception_4a/5x5_reduce
I0403 21:42:59.594802 23984 net.cpp:141] Setting up inception_4a/5x5_reduce
I0403 21:42:59.594830 23984 net.cpp:148] Top shape: 24 16 14 14 (75264)
I0403 21:42:59.594846 23984 net.cpp:156] Memory required for data: 873364512
I0403 21:42:59.594863 23984 layer_factory.hpp:77] Creating layer inception_4a/relu_5x5_reduce
I0403 21:42:59.594884 23984 net.cpp:91] Creating Layer inception_4a/relu_5x5_reduce
I0403 21:42:59.594902 23984 net.cpp:425] inception_4a/relu_5x5_reduce <- inception_4a/5x5_reduce
I0403 21:42:59.594918 23984 net.cpp:386] inception_4a/relu_5x5_reduce -> inception_4a/5x5_reduce (in-place)
I0403 21:42:59.595088 23984 net.cpp:141] Setting up inception_4a/relu_5x5_reduce
I0403 21:42:59.595113 23984 net.cpp:148] Top shape: 24 16 14 14 (75264)
I0403 21:42:59.595127 23984 net.cpp:156] Memory required for data: 873665568
I0403 21:42:59.595142 23984 layer_factory.hpp:77] Creating layer inception_4a/5x5
I0403 21:42:59.595165 23984 net.cpp:91] Creating Layer inception_4a/5x5
I0403 21:42:59.595182 23984 net.cpp:425] inception_4a/5x5 <- inception_4a/5x5_reduce
I0403 21:42:59.595207 23984 net.cpp:399] inception_4a/5x5 -> inception_4a/5x5
I0403 21:42:59.596261 23984 net.cpp:141] Setting up inception_4a/5x5
I0403 21:42:59.596288 23984 net.cpp:148] Top shape: 24 48 14 14 (225792)
I0403 21:42:59.596305 23984 net.cpp:156] Memory required for data: 874568736
I0403 21:42:59.596323 23984 layer_factory.hpp:77] Creating layer inception_4a/relu_5x5
I0403 21:42:59.596344 23984 net.cpp:91] Creating Layer inception_4a/relu_5x5
I0403 21:42:59.596361 23984 net.cpp:425] inception_4a/relu_5x5 <- inception_4a/5x5
I0403 21:42:59.596379 23984 net.cpp:386] inception_4a/relu_5x5 -> inception_4a/5x5 (in-place)
I0403 21:42:59.596549 23984 net.cpp:141] Setting up inception_4a/relu_5x5
I0403 21:42:59.596575 23984 net.cpp:148] Top shape: 24 48 14 14 (225792)
I0403 21:42:59.596590 23984 net.cpp:156] Memory required for data: 875471904
I0403 21:42:59.596604 23984 layer_factory.hpp:77] Creating layer inception_4a/pool
I0403 21:42:59.596621 23984 net.cpp:91] Creating Layer inception_4a/pool
I0403 21:42:59.596637 23984 net.cpp:425] inception_4a/pool <- pool3/3x3_s2_pool3/3x3_s2_0_split_3
I0403 21:42:59.596657 23984 net.cpp:399] inception_4a/pool -> inception_4a/pool
I0403 21:42:59.596716 23984 net.cpp:141] Setting up inception_4a/pool
I0403 21:42:59.596741 23984 net.cpp:148] Top shape: 24 480 14 14 (2257920)
I0403 21:42:59.596755 23984 net.cpp:156] Memory required for data: 884503584
I0403 21:42:59.596770 23984 layer_factory.hpp:77] Creating layer inception_4a/pool_proj
I0403 21:42:59.596792 23984 net.cpp:91] Creating Layer inception_4a/pool_proj
I0403 21:42:59.596810 23984 net.cpp:425] inception_4a/pool_proj <- inception_4a/pool
I0403 21:42:59.596829 23984 net.cpp:399] inception_4a/pool_proj -> inception_4a/pool_proj
I0403 21:42:59.597942 23984 net.cpp:141] Setting up inception_4a/pool_proj
I0403 21:42:59.597973 23984 net.cpp:148] Top shape: 24 64 14 14 (301056)
I0403 21:42:59.598004 23984 net.cpp:156] Memory required for data: 885707808
I0403 21:42:59.598023 23984 layer_factory.hpp:77] Creating layer inception_4a/relu_pool_proj
I0403 21:42:59.598042 23984 net.cpp:91] Creating Layer inception_4a/relu_pool_proj
I0403 21:42:59.598058 23984 net.cpp:425] inception_4a/relu_pool_proj <- inception_4a/pool_proj
I0403 21:42:59.598079 23984 net.cpp:386] inception_4a/relu_pool_proj -> inception_4a/pool_proj (in-place)
I0403 21:42:59.598362 23984 net.cpp:141] Setting up inception_4a/relu_pool_proj
I0403 21:42:59.598392 23984 net.cpp:148] Top shape: 24 64 14 14 (301056)
I0403 21:42:59.598408 23984 net.cpp:156] Memory required for data: 886912032
I0403 21:42:59.598423 23984 layer_factory.hpp:77] Creating layer inception_4a/output
I0403 21:42:59.598439 23984 net.cpp:91] Creating Layer inception_4a/output
I0403 21:42:59.598455 23984 net.cpp:425] inception_4a/output <- inception_4a/1x1
I0403 21:42:59.598472 23984 net.cpp:425] inception_4a/output <- inception_4a/3x3
I0403 21:42:59.598487 23984 net.cpp:425] inception_4a/output <- inception_4a/5x5
I0403 21:42:59.598501 23984 net.cpp:425] inception_4a/output <- inception_4a/pool_proj
I0403 21:42:59.598517 23984 net.cpp:399] inception_4a/output -> inception_4a/output
I0403 21:42:59.598562 23984 net.cpp:141] Setting up inception_4a/output
I0403 21:42:59.598585 23984 net.cpp:148] Top shape: 24 512 14 14 (2408448)
I0403 21:42:59.598600 23984 net.cpp:156] Memory required for data: 896545824
I0403 21:42:59.598615 23984 layer_factory.hpp:77] Creating layer inception_4a/output_inception_4a/output_0_split
I0403 21:42:59.598635 23984 net.cpp:91] Creating Layer inception_4a/output_inception_4a/output_0_split
I0403 21:42:59.598651 23984 net.cpp:425] inception_4a/output_inception_4a/output_0_split <- inception_4a/output
I0403 21:42:59.598667 23984 net.cpp:399] inception_4a/output_inception_4a/output_0_split -> inception_4a/output_inception_4a/output_0_split_0
I0403 21:42:59.598687 23984 net.cpp:399] inception_4a/output_inception_4a/output_0_split -> inception_4a/output_inception_4a/output_0_split_1
I0403 21:42:59.598711 23984 net.cpp:399] inception_4a/output_inception_4a/output_0_split -> inception_4a/output_inception_4a/output_0_split_2
I0403 21:42:59.598732 23984 net.cpp:399] inception_4a/output_inception_4a/output_0_split -> inception_4a/output_inception_4a/output_0_split_3
I0403 21:42:59.598752 23984 net.cpp:399] inception_4a/output_inception_4a/output_0_split -> inception_4a/output_inception_4a/output_0_split_4
I0403 21:42:59.598842 23984 net.cpp:141] Setting up inception_4a/output_inception_4a/output_0_split
I0403 21:42:59.598866 23984 net.cpp:148] Top shape: 24 512 14 14 (2408448)
I0403 21:42:59.598882 23984 net.cpp:148] Top shape: 24 512 14 14 (2408448)
I0403 21:42:59.598898 23984 net.cpp:148] Top shape: 24 512 14 14 (2408448)
I0403 21:42:59.598914 23984 net.cpp:148] Top shape: 24 512 14 14 (2408448)
I0403 21:42:59.598929 23984 net.cpp:148] Top shape: 24 512 14 14 (2408448)
I0403 21:42:59.598942 23984 net.cpp:156] Memory required for data: 944714784
I0403 21:42:59.598958 23984 layer_factory.hpp:77] Creating layer loss1/ave_pool
I0403 21:42:59.598976 23984 net.cpp:91] Creating Layer loss1/ave_pool
I0403 21:42:59.598991 23984 net.cpp:425] loss1/ave_pool <- inception_4a/output_inception_4a/output_0_split_0
I0403 21:42:59.599011 23984 net.cpp:399] loss1/ave_pool -> loss1/ave_pool
I0403 21:42:59.599225 23984 net.cpp:141] Setting up loss1/ave_pool
I0403 21:42:59.599263 23984 net.cpp:148] Top shape: 24 512 4 4 (196608)
I0403 21:42:59.599279 23984 net.cpp:156] Memory required for data: 945501216
I0403 21:42:59.599294 23984 layer_factory.hpp:77] Creating layer loss1/conv
I0403 21:42:59.599318 23984 net.cpp:91] Creating Layer loss1/conv
I0403 21:42:59.599336 23984 net.cpp:425] loss1/conv <- loss1/ave_pool
I0403 21:42:59.599354 23984 net.cpp:399] loss1/conv -> loss1/conv
I0403 21:42:59.600742 23984 net.cpp:141] Setting up loss1/conv
I0403 21:42:59.600770 23984 net.cpp:148] Top shape: 24 128 4 4 (49152)
I0403 21:42:59.600801 23984 net.cpp:156] Memory required for data: 945697824
I0403 21:42:59.600821 23984 layer_factory.hpp:77] Creating layer loss1/relu_conv
I0403 21:42:59.600841 23984 net.cpp:91] Creating Layer loss1/relu_conv
I0403 21:42:59.600857 23984 net.cpp:425] loss1/relu_conv <- loss1/conv
I0403 21:42:59.600878 23984 net.cpp:386] loss1/relu_conv -> loss1/conv (in-place)
I0403 21:42:59.601155 23984 net.cpp:141] Setting up loss1/relu_conv
I0403 21:42:59.601181 23984 net.cpp:148] Top shape: 24 128 4 4 (49152)
I0403 21:42:59.601200 23984 net.cpp:156] Memory required for data: 945894432
I0403 21:42:59.601218 23984 layer_factory.hpp:77] Creating layer loss1/fc
I0403 21:42:59.601243 23984 net.cpp:91] Creating Layer loss1/fc
I0403 21:42:59.601261 23984 net.cpp:425] loss1/fc <- loss1/conv
I0403 21:42:59.601282 23984 net.cpp:399] loss1/fc -> loss1/fc
I0403 21:42:59.619079 23984 net.cpp:141] Setting up loss1/fc
I0403 21:42:59.619115 23984 net.cpp:148] Top shape: 24 1024 (24576)
I0403 21:42:59.619132 23984 net.cpp:156] Memory required for data: 945992736
I0403 21:42:59.619150 23984 layer_factory.hpp:77] Creating layer loss1/relu_fc
I0403 21:42:59.619169 23984 net.cpp:91] Creating Layer loss1/relu_fc
I0403 21:42:59.619184 23984 net.cpp:425] loss1/relu_fc <- loss1/fc
I0403 21:42:59.619204 23984 net.cpp:386] loss1/relu_fc -> loss1/fc (in-place)
I0403 21:42:59.619390 23984 net.cpp:141] Setting up loss1/relu_fc
I0403 21:42:59.619415 23984 net.cpp:148] Top shape: 24 1024 (24576)
I0403 21:42:59.619431 23984 net.cpp:156] Memory required for data: 946091040
I0403 21:42:59.619447 23984 layer_factory.hpp:77] Creating layer loss1/drop_fc
I0403 21:42:59.619473 23984 net.cpp:91] Creating Layer loss1/drop_fc
I0403 21:42:59.619490 23984 net.cpp:425] loss1/drop_fc <- loss1/fc
I0403 21:42:59.619510 23984 net.cpp:386] loss1/drop_fc -> loss1/fc (in-place)
I0403 21:42:59.619560 23984 net.cpp:141] Setting up loss1/drop_fc
I0403 21:42:59.619582 23984 net.cpp:148] Top shape: 24 1024 (24576)
I0403 21:42:59.619597 23984 net.cpp:156] Memory required for data: 946189344
I0403 21:42:59.619613 23984 layer_factory.hpp:77] Creating layer loss1/classifier_plantvillage
I0403 21:42:59.619635 23984 net.cpp:91] Creating Layer loss1/classifier_plantvillage
I0403 21:42:59.619653 23984 net.cpp:425] loss1/classifier_plantvillage <- loss1/fc
I0403 21:42:59.619673 23984 net.cpp:399] loss1/classifier_plantvillage -> loss1/classifier_plantvillage
I0403 21:42:59.620587 23984 net.cpp:141] Setting up loss1/classifier_plantvillage
I0403 21:42:59.620615 23984 net.cpp:148] Top shape: 24 38 (912)
I0403 21:42:59.620632 23984 net.cpp:156] Memory required for data: 946192992
I0403 21:42:59.620651 23984 layer_factory.hpp:77] Creating layer loss1/classifier_plantvillage_loss1/classifier_plantvillage_0_split
I0403 21:42:59.620669 23984 net.cpp:91] Creating Layer loss1/classifier_plantvillage_loss1/classifier_plantvillage_0_split
I0403 21:42:59.620685 23984 net.cpp:425] loss1/classifier_plantvillage_loss1/classifier_plantvillage_0_split <- loss1/classifier_plantvillage
I0403 21:42:59.620705 23984 net.cpp:399] loss1/classifier_plantvillage_loss1/classifier_plantvillage_0_split -> loss1/classifier_plantvillage_loss1/classifier_plantvillage_0_split_0
I0403 21:42:59.620728 23984 net.cpp:399] loss1/classifier_plantvillage_loss1/classifier_plantvillage_0_split -> loss1/classifier_plantvillage_loss1/classifier_plantvillage_0_split_1
I0403 21:42:59.620748 23984 net.cpp:399] loss1/classifier_plantvillage_loss1/classifier_plantvillage_0_split -> loss1/classifier_plantvillage_loss1/classifier_plantvillage_0_split_2
I0403 21:42:59.620811 23984 net.cpp:141] Setting up loss1/classifier_plantvillage_loss1/classifier_plantvillage_0_split
I0403 21:42:59.620834 23984 net.cpp:148] Top shape: 24 38 (912)
I0403 21:42:59.620851 23984 net.cpp:148] Top shape: 24 38 (912)
I0403 21:42:59.620867 23984 net.cpp:148] Top shape: 24 38 (912)
I0403 21:42:59.620880 23984 net.cpp:156] Memory required for data: 946203936
I0403 21:42:59.620895 23984 layer_factory.hpp:77] Creating layer inception_4b/1x1
I0403 21:42:59.620918 23984 net.cpp:91] Creating Layer inception_4b/1x1
I0403 21:42:59.620952 23984 net.cpp:425] inception_4b/1x1 <- inception_4a/output_inception_4a/output_0_split_1
I0403 21:42:59.620972 23984 net.cpp:399] inception_4b/1x1 -> inception_4b/1x1
I0403 21:42:59.622580 23984 net.cpp:141] Setting up inception_4b/1x1
I0403 21:42:59.622607 23984 net.cpp:148] Top shape: 24 160 14 14 (752640)
I0403 21:42:59.622623 23984 net.cpp:156] Memory required for data: 949214496
I0403 21:42:59.622642 23984 layer_factory.hpp:77] Creating layer inception_4b/relu_1x1
I0403 21:42:59.622659 23984 net.cpp:91] Creating Layer inception_4b/relu_1x1
I0403 21:42:59.622675 23984 net.cpp:425] inception_4b/relu_1x1 <- inception_4b/1x1
I0403 21:42:59.622694 23984 net.cpp:386] inception_4b/relu_1x1 -> inception_4b/1x1 (in-place)
I0403 21:42:59.622872 23984 net.cpp:141] Setting up inception_4b/relu_1x1
I0403 21:42:59.622897 23984 net.cpp:148] Top shape: 24 160 14 14 (752640)
I0403 21:42:59.622912 23984 net.cpp:156] Memory required for data: 952225056
I0403 21:42:59.622927 23984 layer_factory.hpp:77] Creating layer inception_4b/3x3_reduce
I0403 21:42:59.622948 23984 net.cpp:91] Creating Layer inception_4b/3x3_reduce
I0403 21:42:59.622967 23984 net.cpp:425] inception_4b/3x3_reduce <- inception_4a/output_inception_4a/output_0_split_2
I0403 21:42:59.622987 23984 net.cpp:399] inception_4b/3x3_reduce -> inception_4b/3x3_reduce
I0403 21:42:59.624301 23984 net.cpp:141] Setting up inception_4b/3x3_reduce
I0403 21:42:59.624330 23984 net.cpp:148] Top shape: 24 112 14 14 (526848)
I0403 21:42:59.624344 23984 net.cpp:156] Memory required for data: 954332448
I0403 21:42:59.624362 23984 layer_factory.hpp:77] Creating layer inception_4b/relu_3x3_reduce
I0403 21:42:59.624382 23984 net.cpp:91] Creating Layer inception_4b/relu_3x3_reduce
I0403 21:42:59.624399 23984 net.cpp:425] inception_4b/relu_3x3_reduce <- inception_4b/3x3_reduce
I0403 21:42:59.624418 23984 net.cpp:386] inception_4b/relu_3x3_reduce -> inception_4b/3x3_reduce (in-place)
I0403 21:42:59.624691 23984 net.cpp:141] Setting up inception_4b/relu_3x3_reduce
I0403 21:42:59.624717 23984 net.cpp:148] Top shape: 24 112 14 14 (526848)
I0403 21:42:59.624732 23984 net.cpp:156] Memory required for data: 956439840
I0403 21:42:59.624748 23984 layer_factory.hpp:77] Creating layer inception_4b/3x3
I0403 21:42:59.624770 23984 net.cpp:91] Creating Layer inception_4b/3x3
I0403 21:42:59.624788 23984 net.cpp:425] inception_4b/3x3 <- inception_4b/3x3_reduce
I0403 21:42:59.624809 23984 net.cpp:399] inception_4b/3x3 -> inception_4b/3x3
I0403 21:42:59.627713 23984 net.cpp:141] Setting up inception_4b/3x3
I0403 21:42:59.627745 23984 net.cpp:148] Top shape: 24 224 14 14 (1053696)
I0403 21:42:59.627761 23984 net.cpp:156] Memory required for data: 960654624
I0403 21:42:59.627779 23984 layer_factory.hpp:77] Creating layer inception_4b/relu_3x3
I0403 21:42:59.627797 23984 net.cpp:91] Creating Layer inception_4b/relu_3x3
I0403 21:42:59.627815 23984 net.cpp:425] inception_4b/relu_3x3 <- inception_4b/3x3
I0403 21:42:59.627835 23984 net.cpp:386] inception_4b/relu_3x3 -> inception_4b/3x3 (in-place)
I0403 21:42:59.628010 23984 net.cpp:141] Setting up inception_4b/relu_3x3
I0403 21:42:59.628034 23984 net.cpp:148] Top shape: 24 224 14 14 (1053696)
I0403 21:42:59.628049 23984 net.cpp:156] Memory required for data: 964869408
I0403 21:42:59.628064 23984 layer_factory.hpp:77] Creating layer inception_4b/5x5_reduce
I0403 21:42:59.628087 23984 net.cpp:91] Creating Layer inception_4b/5x5_reduce
I0403 21:42:59.628106 23984 net.cpp:425] inception_4b/5x5_reduce <- inception_4a/output_inception_4a/output_0_split_3
I0403 21:42:59.628126 23984 net.cpp:399] inception_4b/5x5_reduce -> inception_4b/5x5_reduce
I0403 21:42:59.629186 23984 net.cpp:141] Setting up inception_4b/5x5_reduce
I0403 21:42:59.629227 23984 net.cpp:148] Top shape: 24 24 14 14 (112896)
I0403 21:42:59.629245 23984 net.cpp:156] Memory required for data: 965320992
I0403 21:42:59.629262 23984 layer_factory.hpp:77] Creating layer inception_4b/relu_5x5_reduce
I0403 21:42:59.629283 23984 net.cpp:91] Creating Layer inception_4b/relu_5x5_reduce
I0403 21:42:59.629314 23984 net.cpp:425] inception_4b/relu_5x5_reduce <- inception_4b/5x5_reduce
I0403 21:42:59.629333 23984 net.cpp:386] inception_4b/relu_5x5_reduce -> inception_4b/5x5_reduce (in-place)
I0403 21:42:59.629509 23984 net.cpp:141] Setting up inception_4b/relu_5x5_reduce
I0403 21:42:59.629534 23984 net.cpp:148] Top shape: 24 24 14 14 (112896)
I0403 21:42:59.629549 23984 net.cpp:156] Memory required for data: 965772576
I0403 21:42:59.629565 23984 layer_factory.hpp:77] Creating layer inception_4b/5x5
I0403 21:42:59.629587 23984 net.cpp:91] Creating Layer inception_4b/5x5
I0403 21:42:59.629604 23984 net.cpp:425] inception_4b/5x5 <- inception_4b/5x5_reduce
I0403 21:42:59.629623 23984 net.cpp:399] inception_4b/5x5 -> inception_4b/5x5
I0403 21:42:59.630812 23984 net.cpp:141] Setting up inception_4b/5x5
I0403 21:42:59.630841 23984 net.cpp:148] Top shape: 24 64 14 14 (301056)
I0403 21:42:59.630856 23984 net.cpp:156] Memory required for data: 966976800
I0403 21:42:59.630874 23984 layer_factory.hpp:77] Creating layer inception_4b/relu_5x5
I0403 21:42:59.630892 23984 net.cpp:91] Creating Layer inception_4b/relu_5x5
I0403 21:42:59.630906 23984 net.cpp:425] inception_4b/relu_5x5 <- inception_4b/5x5
I0403 21:42:59.630925 23984 net.cpp:386] inception_4b/relu_5x5 -> inception_4b/5x5 (in-place)
I0403 21:42:59.631204 23984 net.cpp:141] Setting up inception_4b/relu_5x5
I0403 21:42:59.631232 23984 net.cpp:148] Top shape: 24 64 14 14 (301056)
I0403 21:42:59.631247 23984 net.cpp:156] Memory required for data: 968181024
I0403 21:42:59.631261 23984 layer_factory.hpp:77] Creating layer inception_4b/pool
I0403 21:42:59.631279 23984 net.cpp:91] Creating Layer inception_4b/pool
I0403 21:42:59.631295 23984 net.cpp:425] inception_4b/pool <- inception_4a/output_inception_4a/output_0_split_4
I0403 21:42:59.631317 23984 net.cpp:399] inception_4b/pool -> inception_4b/pool
I0403 21:42:59.631381 23984 net.cpp:141] Setting up inception_4b/pool
I0403 21:42:59.631404 23984 net.cpp:148] Top shape: 24 512 14 14 (2408448)
I0403 21:42:59.631419 23984 net.cpp:156] Memory required for data: 977814816
I0403 21:42:59.631433 23984 layer_factory.hpp:77] Creating layer inception_4b/pool_proj
I0403 21:42:59.631458 23984 net.cpp:91] Creating Layer inception_4b/pool_proj
I0403 21:42:59.631475 23984 net.cpp:425] inception_4b/pool_proj <- inception_4b/pool
I0403 21:42:59.631494 23984 net.cpp:399] inception_4b/pool_proj -> inception_4b/pool_proj
I0403 21:42:59.632657 23984 net.cpp:141] Setting up inception_4b/pool_proj
I0403 21:42:59.632684 23984 net.cpp:148] Top shape: 24 64 14 14 (301056)
I0403 21:42:59.632699 23984 net.cpp:156] Memory required for data: 979019040
I0403 21:42:59.632717 23984 layer_factory.hpp:77] Creating layer inception_4b/relu_pool_proj
I0403 21:42:59.632737 23984 net.cpp:91] Creating Layer inception_4b/relu_pool_proj
I0403 21:42:59.632755 23984 net.cpp:425] inception_4b/relu_pool_proj <- inception_4b/pool_proj
I0403 21:42:59.632771 23984 net.cpp:386] inception_4b/relu_pool_proj -> inception_4b/pool_proj (in-place)
I0403 21:42:59.632946 23984 net.cpp:141] Setting up inception_4b/relu_pool_proj
I0403 21:42:59.632973 23984 net.cpp:148] Top shape: 24 64 14 14 (301056)
I0403 21:42:59.632989 23984 net.cpp:156] Memory required for data: 980223264
I0403 21:42:59.633004 23984 layer_factory.hpp:77] Creating layer inception_4b/output
I0403 21:42:59.633021 23984 net.cpp:91] Creating Layer inception_4b/output
I0403 21:42:59.633036 23984 net.cpp:425] inception_4b/output <- inception_4b/1x1
I0403 21:42:59.633054 23984 net.cpp:425] inception_4b/output <- inception_4b/3x3
I0403 21:42:59.633069 23984 net.cpp:425] inception_4b/output <- inception_4b/5x5
I0403 21:42:59.633085 23984 net.cpp:425] inception_4b/output <- inception_4b/pool_proj
I0403 21:42:59.633100 23984 net.cpp:399] inception_4b/output -> inception_4b/output
I0403 21:42:59.633146 23984 net.cpp:141] Setting up inception_4b/output
I0403 21:42:59.633169 23984 net.cpp:148] Top shape: 24 512 14 14 (2408448)
I0403 21:42:59.633183 23984 net.cpp:156] Memory required for data: 989857056
I0403 21:42:59.633218 23984 layer_factory.hpp:77] Creating layer inception_4b/output_inception_4b/output_0_split
I0403 21:42:59.633236 23984 net.cpp:91] Creating Layer inception_4b/output_inception_4b/output_0_split
I0403 21:42:59.633255 23984 net.cpp:425] inception_4b/output_inception_4b/output_0_split <- inception_4b/output
I0403 21:42:59.633271 23984 net.cpp:399] inception_4b/output_inception_4b/output_0_split -> inception_4b/output_inception_4b/output_0_split_0
I0403 21:42:59.633291 23984 net.cpp:399] inception_4b/output_inception_4b/output_0_split -> inception_4b/output_inception_4b/output_0_split_1
I0403 21:42:59.633311 23984 net.cpp:399] inception_4b/output_inception_4b/output_0_split -> inception_4b/output_inception_4b/output_0_split_2
I0403 21:42:59.633332 23984 net.cpp:399] inception_4b/output_inception_4b/output_0_split -> inception_4b/output_inception_4b/output_0_split_3
I0403 21:42:59.633416 23984 net.cpp:141] Setting up inception_4b/output_inception_4b/output_0_split
I0403 21:42:59.633440 23984 net.cpp:148] Top shape: 24 512 14 14 (2408448)
I0403 21:42:59.633456 23984 net.cpp:148] Top shape: 24 512 14 14 (2408448)
I0403 21:42:59.633472 23984 net.cpp:148] Top shape: 24 512 14 14 (2408448)
I0403 21:42:59.633488 23984 net.cpp:148] Top shape: 24 512 14 14 (2408448)
I0403 21:42:59.633502 23984 net.cpp:156] Memory required for data: 1028392224
I0403 21:42:59.633517 23984 layer_factory.hpp:77] Creating layer inception_4c/1x1
I0403 21:42:59.633539 23984 net.cpp:91] Creating Layer inception_4c/1x1
I0403 21:42:59.633558 23984 net.cpp:425] inception_4c/1x1 <- inception_4b/output_inception_4b/output_0_split_0
I0403 21:42:59.633577 23984 net.cpp:399] inception_4c/1x1 -> inception_4c/1x1
I0403 21:42:59.634973 23984 net.cpp:141] Setting up inception_4c/1x1
I0403 21:42:59.635004 23984 net.cpp:148] Top shape: 24 128 14 14 (602112)
I0403 21:42:59.635021 23984 net.cpp:156] Memory required for data: 1030800672
I0403 21:42:59.635040 23984 layer_factory.hpp:77] Creating layer inception_4c/relu_1x1
I0403 21:42:59.635057 23984 net.cpp:91] Creating Layer inception_4c/relu_1x1
I0403 21:42:59.635072 23984 net.cpp:425] inception_4c/relu_1x1 <- inception_4c/1x1
I0403 21:42:59.635090 23984 net.cpp:386] inception_4c/relu_1x1 -> inception_4c/1x1 (in-place)
I0403 21:42:59.635270 23984 net.cpp:141] Setting up inception_4c/relu_1x1
I0403 21:42:59.635295 23984 net.cpp:148] Top shape: 24 128 14 14 (602112)
I0403 21:42:59.635309 23984 net.cpp:156] Memory required for data: 1033209120
I0403 21:42:59.635324 23984 layer_factory.hpp:77] Creating layer inception_4c/3x3_reduce
I0403 21:42:59.635346 23984 net.cpp:91] Creating Layer inception_4c/3x3_reduce
I0403 21:42:59.635363 23984 net.cpp:425] inception_4c/3x3_reduce <- inception_4b/output_inception_4b/output_0_split_1
I0403 21:42:59.635386 23984 net.cpp:399] inception_4c/3x3_reduce -> inception_4c/3x3_reduce
I0403 21:42:59.637336 23984 net.cpp:141] Setting up inception_4c/3x3_reduce
I0403 21:42:59.637364 23984 net.cpp:148] Top shape: 24 128 14 14 (602112)
I0403 21:42:59.637392 23984 net.cpp:156] Memory required for data: 1035617568
I0403 21:42:59.637411 23984 layer_factory.hpp:77] Creating layer inception_4c/relu_3x3_reduce
I0403 21:42:59.637430 23984 net.cpp:91] Creating Layer inception_4c/relu_3x3_reduce
I0403 21:42:59.637449 23984 net.cpp:425] inception_4c/relu_3x3_reduce <- inception_4c/3x3_reduce
I0403 21:42:59.637467 23984 net.cpp:386] inception_4c/relu_3x3_reduce -> inception_4c/3x3_reduce (in-place)
I0403 21:42:59.637745 23984 net.cpp:141] Setting up inception_4c/relu_3x3_reduce
I0403 21:42:59.637771 23984 net.cpp:148] Top shape: 24 128 14 14 (602112)
I0403 21:42:59.637786 23984 net.cpp:156] Memory required for data: 1038026016
I0403 21:42:59.637801 23984 layer_factory.hpp:77] Creating layer inception_4c/3x3
I0403 21:42:59.637823 23984 net.cpp:91] Creating Layer inception_4c/3x3
I0403 21:42:59.637841 23984 net.cpp:425] inception_4c/3x3 <- inception_4c/3x3_reduce
I0403 21:42:59.637862 23984 net.cpp:399] inception_4c/3x3 -> inception_4c/3x3
I0403 21:42:59.641396 23984 net.cpp:141] Setting up inception_4c/3x3
I0403 21:42:59.641435 23984 net.cpp:148] Top shape: 24 256 14 14 (1204224)
I0403 21:42:59.641453 23984 net.cpp:156] Memory required for data: 1042842912
I0403 21:42:59.641485 23984 layer_factory.hpp:77] Creating layer inception_4c/relu_3x3
I0403 21:42:59.641511 23984 net.cpp:91] Creating Layer inception_4c/relu_3x3
I0403 21:42:59.641530 23984 net.cpp:425] inception_4c/relu_3x3 <- inception_4c/3x3
I0403 21:42:59.641547 23984 net.cpp:386] inception_4c/relu_3x3 -> inception_4c/3x3 (in-place)
I0403 21:42:59.641722 23984 net.cpp:141] Setting up inception_4c/relu_3x3
I0403 21:42:59.641747 23984 net.cpp:148] Top shape: 24 256 14 14 (1204224)
I0403 21:42:59.641762 23984 net.cpp:156] Memory required for data: 1047659808
I0403 21:42:59.641777 23984 layer_factory.hpp:77] Creating layer inception_4c/5x5_reduce
I0403 21:42:59.641799 23984 net.cpp:91] Creating Layer inception_4c/5x5_reduce
I0403 21:42:59.641816 23984 net.cpp:425] inception_4c/5x5_reduce <- inception_4b/output_inception_4b/output_0_split_2
I0403 21:42:59.641836 23984 net.cpp:399] inception_4c/5x5_reduce -> inception_4c/5x5_reduce
I0403 21:42:59.642897 23984 net.cpp:141] Setting up inception_4c/5x5_reduce
I0403 21:42:59.642925 23984 net.cpp:148] Top shape: 24 24 14 14 (112896)
I0403 21:42:59.642941 23984 net.cpp:156] Memory required for data: 1048111392
I0403 21:42:59.642961 23984 layer_factory.hpp:77] Creating layer inception_4c/relu_5x5_reduce
I0403 21:42:59.642982 23984 net.cpp:91] Creating Layer inception_4c/relu_5x5_reduce
I0403 21:42:59.642997 23984 net.cpp:425] inception_4c/relu_5x5_reduce <- inception_4c/5x5_reduce
I0403 21:42:59.643014 23984 net.cpp:386] inception_4c/relu_5x5_reduce -> inception_4c/5x5_reduce (in-place)
I0403 21:42:59.643195 23984 net.cpp:141] Setting up inception_4c/relu_5x5_reduce
I0403 21:42:59.643224 23984 net.cpp:148] Top shape: 24 24 14 14 (112896)
I0403 21:42:59.643240 23984 net.cpp:156] Memory required for data: 1048562976
I0403 21:42:59.643255 23984 layer_factory.hpp:77] Creating layer inception_4c/5x5
I0403 21:42:59.643278 23984 net.cpp:91] Creating Layer inception_4c/5x5
I0403 21:42:59.643296 23984 net.cpp:425] inception_4c/5x5 <- inception_4c/5x5_reduce
I0403 21:42:59.643314 23984 net.cpp:399] inception_4c/5x5 -> inception_4c/5x5
I0403 21:42:59.644515 23984 net.cpp:141] Setting up inception_4c/5x5
I0403 21:42:59.644546 23984 net.cpp:148] Top shape: 24 64 14 14 (301056)
I0403 21:42:59.644563 23984 net.cpp:156] Memory required for data: 1049767200
I0403 21:42:59.644582 23984 layer_factory.hpp:77] Creating layer inception_4c/relu_5x5
I0403 21:42:59.644599 23984 net.cpp:91] Creating Layer inception_4c/relu_5x5
I0403 21:42:59.644615 23984 net.cpp:425] inception_4c/relu_5x5 <- inception_4c/5x5
I0403 21:42:59.644632 23984 net.cpp:386] inception_4c/relu_5x5 -> inception_4c/5x5 (in-place)
I0403 21:42:59.644917 23984 net.cpp:141] Setting up inception_4c/relu_5x5
I0403 21:42:59.644945 23984 net.cpp:148] Top shape: 24 64 14 14 (301056)
I0403 21:42:59.644963 23984 net.cpp:156] Memory required for data: 1050971424
I0403 21:42:59.644978 23984 layer_factory.hpp:77] Creating layer inception_4c/pool
I0403 21:42:59.644994 23984 net.cpp:91] Creating Layer inception_4c/pool
I0403 21:42:59.645009 23984 net.cpp:425] inception_4c/pool <- inception_4b/output_inception_4b/output_0_split_3
I0403 21:42:59.645027 23984 net.cpp:399] inception_4c/pool -> inception_4c/pool
I0403 21:42:59.645093 23984 net.cpp:141] Setting up inception_4c/pool
I0403 21:42:59.645117 23984 net.cpp:148] Top shape: 24 512 14 14 (2408448)
I0403 21:42:59.645131 23984 net.cpp:156] Memory required for data: 1060605216
I0403 21:42:59.645145 23984 layer_factory.hpp:77] Creating layer inception_4c/pool_proj
I0403 21:42:59.645167 23984 net.cpp:91] Creating Layer inception_4c/pool_proj
I0403 21:42:59.645185 23984 net.cpp:425] inception_4c/pool_proj <- inception_4c/pool
I0403 21:42:59.645211 23984 net.cpp:399] inception_4c/pool_proj -> inception_4c/pool_proj
I0403 21:42:59.646399 23984 net.cpp:141] Setting up inception_4c/pool_proj
I0403 21:42:59.646426 23984 net.cpp:148] Top shape: 24 64 14 14 (301056)
I0403 21:42:59.646456 23984 net.cpp:156] Memory required for data: 1061809440
I0403 21:42:59.646476 23984 layer_factory.hpp:77] Creating layer inception_4c/relu_pool_proj
I0403 21:42:59.646497 23984 net.cpp:91] Creating Layer inception_4c/relu_pool_proj
I0403 21:42:59.646514 23984 net.cpp:425] inception_4c/relu_pool_proj <- inception_4c/pool_proj
I0403 21:42:59.646531 23984 net.cpp:386] inception_4c/relu_pool_proj -> inception_4c/pool_proj (in-place)
I0403 21:42:59.646709 23984 net.cpp:141] Setting up inception_4c/relu_pool_proj
I0403 21:42:59.646735 23984 net.cpp:148] Top shape: 24 64 14 14 (301056)
I0403 21:42:59.646751 23984 net.cpp:156] Memory required for data: 1063013664
I0403 21:42:59.646766 23984 layer_factory.hpp:77] Creating layer inception_4c/output
I0403 21:42:59.646783 23984 net.cpp:91] Creating Layer inception_4c/output
I0403 21:42:59.646798 23984 net.cpp:425] inception_4c/output <- inception_4c/1x1
I0403 21:42:59.646814 23984 net.cpp:425] inception_4c/output <- inception_4c/3x3
I0403 21:42:59.646829 23984 net.cpp:425] inception_4c/output <- inception_4c/5x5
I0403 21:42:59.646845 23984 net.cpp:425] inception_4c/output <- inception_4c/pool_proj
I0403 21:42:59.646862 23984 net.cpp:399] inception_4c/output -> inception_4c/output
I0403 21:42:59.646908 23984 net.cpp:141] Setting up inception_4c/output
I0403 21:42:59.646932 23984 net.cpp:148] Top shape: 24 512 14 14 (2408448)
I0403 21:42:59.646946 23984 net.cpp:156] Memory required for data: 1072647456
I0403 21:42:59.646961 23984 layer_factory.hpp:77] Creating layer inception_4c/output_inception_4c/output_0_split
I0403 21:42:59.646977 23984 net.cpp:91] Creating Layer inception_4c/output_inception_4c/output_0_split
I0403 21:42:59.646992 23984 net.cpp:425] inception_4c/output_inception_4c/output_0_split <- inception_4c/output
I0403 21:42:59.647014 23984 net.cpp:399] inception_4c/output_inception_4c/output_0_split -> inception_4c/output_inception_4c/output_0_split_0
I0403 21:42:59.647034 23984 net.cpp:399] inception_4c/output_inception_4c/output_0_split -> inception_4c/output_inception_4c/output_0_split_1
I0403 21:42:59.647055 23984 net.cpp:399] inception_4c/output_inception_4c/output_0_split -> inception_4c/output_inception_4c/output_0_split_2
I0403 21:42:59.647075 23984 net.cpp:399] inception_4c/output_inception_4c/output_0_split -> inception_4c/output_inception_4c/output_0_split_3
I0403 21:42:59.647157 23984 net.cpp:141] Setting up inception_4c/output_inception_4c/output_0_split
I0403 21:42:59.647181 23984 net.cpp:148] Top shape: 24 512 14 14 (2408448)
I0403 21:42:59.647200 23984 net.cpp:148] Top shape: 24 512 14 14 (2408448)
I0403 21:42:59.647217 23984 net.cpp:148] Top shape: 24 512 14 14 (2408448)
I0403 21:42:59.647234 23984 net.cpp:148] Top shape: 24 512 14 14 (2408448)
I0403 21:42:59.647248 23984 net.cpp:156] Memory required for data: 1111182624
I0403 21:42:59.647261 23984 layer_factory.hpp:77] Creating layer inception_4d/1x1
I0403 21:42:59.647284 23984 net.cpp:91] Creating Layer inception_4d/1x1
I0403 21:42:59.647302 23984 net.cpp:425] inception_4d/1x1 <- inception_4c/output_inception_4c/output_0_split_0
I0403 21:42:59.647323 23984 net.cpp:399] inception_4d/1x1 -> inception_4d/1x1
I0403 21:42:59.648705 23984 net.cpp:141] Setting up inception_4d/1x1
I0403 21:42:59.648733 23984 net.cpp:148] Top shape: 24 112 14 14 (526848)
I0403 21:42:59.648751 23984 net.cpp:156] Memory required for data: 1113290016
I0403 21:42:59.648768 23984 layer_factory.hpp:77] Creating layer inception_4d/relu_1x1
I0403 21:42:59.648787 23984 net.cpp:91] Creating Layer inception_4d/relu_1x1
I0403 21:42:59.648802 23984 net.cpp:425] inception_4d/relu_1x1 <- inception_4d/1x1
I0403 21:42:59.648823 23984 net.cpp:386] inception_4d/relu_1x1 -> inception_4d/1x1 (in-place)
I0403 21:42:59.649008 23984 net.cpp:141] Setting up inception_4d/relu_1x1
I0403 21:42:59.649034 23984 net.cpp:148] Top shape: 24 112 14 14 (526848)
I0403 21:42:59.649049 23984 net.cpp:156] Memory required for data: 1115397408
I0403 21:42:59.649065 23984 layer_factory.hpp:77] Creating layer inception_4d/3x3_reduce
I0403 21:42:59.649102 23984 net.cpp:91] Creating Layer inception_4d/3x3_reduce
I0403 21:42:59.649122 23984 net.cpp:425] inception_4d/3x3_reduce <- inception_4c/output_inception_4c/output_0_split_1
I0403 21:42:59.649144 23984 net.cpp:399] inception_4d/3x3_reduce -> inception_4d/3x3_reduce
I0403 21:42:59.650665 23984 net.cpp:141] Setting up inception_4d/3x3_reduce
I0403 21:42:59.650696 23984 net.cpp:148] Top shape: 24 144 14 14 (677376)
I0403 21:42:59.650713 23984 net.cpp:156] Memory required for data: 1118106912
I0403 21:42:59.650732 23984 layer_factory.hpp:77] Creating layer inception_4d/relu_3x3_reduce
I0403 21:42:59.650753 23984 net.cpp:91] Creating Layer inception_4d/relu_3x3_reduce
I0403 21:42:59.650769 23984 net.cpp:425] inception_4d/relu_3x3_reduce <- inception_4d/3x3_reduce
I0403 21:42:59.650789 23984 net.cpp:386] inception_4d/relu_3x3_reduce -> inception_4d/3x3_reduce (in-place)
I0403 21:42:59.651082 23984 net.cpp:141] Setting up inception_4d/relu_3x3_reduce
I0403 21:42:59.651110 23984 net.cpp:148] Top shape: 24 144 14 14 (677376)
I0403 21:42:59.651127 23984 net.cpp:156] Memory required for data: 1120816416
I0403 21:42:59.651142 23984 layer_factory.hpp:77] Creating layer inception_4d/3x3
I0403 21:42:59.651165 23984 net.cpp:91] Creating Layer inception_4d/3x3
I0403 21:42:59.651183 23984 net.cpp:425] inception_4d/3x3 <- inception_4d/3x3_reduce
I0403 21:42:59.651207 23984 net.cpp:399] inception_4d/3x3 -> inception_4d/3x3
I0403 21:42:59.655491 23984 net.cpp:141] Setting up inception_4d/3x3
I0403 21:42:59.655520 23984 net.cpp:148] Top shape: 24 288 14 14 (1354752)
I0403 21:42:59.655536 23984 net.cpp:156] Memory required for data: 1126235424
I0403 21:42:59.655555 23984 layer_factory.hpp:77] Creating layer inception_4d/relu_3x3
I0403 21:42:59.655573 23984 net.cpp:91] Creating Layer inception_4d/relu_3x3
I0403 21:42:59.655589 23984 net.cpp:425] inception_4d/relu_3x3 <- inception_4d/3x3
I0403 21:42:59.655609 23984 net.cpp:386] inception_4d/relu_3x3 -> inception_4d/3x3 (in-place)
I0403 21:42:59.655796 23984 net.cpp:141] Setting up inception_4d/relu_3x3
I0403 21:42:59.655822 23984 net.cpp:148] Top shape: 24 288 14 14 (1354752)
I0403 21:42:59.655836 23984 net.cpp:156] Memory required for data: 1131654432
I0403 21:42:59.655851 23984 layer_factory.hpp:77] Creating layer inception_4d/5x5_reduce
I0403 21:42:59.655874 23984 net.cpp:91] Creating Layer inception_4d/5x5_reduce
I0403 21:42:59.655891 23984 net.cpp:425] inception_4d/5x5_reduce <- inception_4c/output_inception_4c/output_0_split_2
I0403 21:42:59.655912 23984 net.cpp:399] inception_4d/5x5_reduce -> inception_4d/5x5_reduce
I0403 21:42:59.657063 23984 net.cpp:141] Setting up inception_4d/5x5_reduce
I0403 21:42:59.657091 23984 net.cpp:148] Top shape: 24 32 14 14 (150528)
I0403 21:42:59.657109 23984 net.cpp:156] Memory required for data: 1132256544
I0403 21:42:59.657127 23984 layer_factory.hpp:77] Creating layer inception_4d/relu_5x5_reduce
I0403 21:42:59.657146 23984 net.cpp:91] Creating Layer inception_4d/relu_5x5_reduce
I0403 21:42:59.657163 23984 net.cpp:425] inception_4d/relu_5x5_reduce <- inception_4d/5x5_reduce
I0403 21:42:59.657183 23984 net.cpp:386] inception_4d/relu_5x5_reduce -> inception_4d/5x5_reduce (in-place)
I0403 21:42:59.657377 23984 net.cpp:141] Setting up inception_4d/relu_5x5_reduce
I0403 21:42:59.657402 23984 net.cpp:148] Top shape: 24 32 14 14 (150528)
I0403 21:42:59.657418 23984 net.cpp:156] Memory required for data: 1132858656
I0403 21:42:59.657433 23984 layer_factory.hpp:77] Creating layer inception_4d/5x5
I0403 21:42:59.657455 23984 net.cpp:91] Creating Layer inception_4d/5x5
I0403 21:42:59.657474 23984 net.cpp:425] inception_4d/5x5 <- inception_4d/5x5_reduce
I0403 21:42:59.657495 23984 net.cpp:399] inception_4d/5x5 -> inception_4d/5x5
I0403 21:42:59.658977 23984 net.cpp:141] Setting up inception_4d/5x5
I0403 21:42:59.659005 23984 net.cpp:148] Top shape: 24 64 14 14 (301056)
I0403 21:42:59.659021 23984 net.cpp:156] Memory required for data: 1134062880
I0403 21:42:59.659041 23984 layer_factory.hpp:77] Creating layer inception_4d/relu_5x5
I0403 21:42:59.659077 23984 net.cpp:91] Creating Layer inception_4d/relu_5x5
I0403 21:42:59.659096 23984 net.cpp:425] inception_4d/relu_5x5 <- inception_4d/5x5
I0403 21:42:59.659113 23984 net.cpp:386] inception_4d/relu_5x5 -> inception_4d/5x5 (in-place)
I0403 21:42:59.659418 23984 net.cpp:141] Setting up inception_4d/relu_5x5
I0403 21:42:59.659446 23984 net.cpp:148] Top shape: 24 64 14 14 (301056)
I0403 21:42:59.659461 23984 net.cpp:156] Memory required for data: 1135267104
I0403 21:42:59.659476 23984 layer_factory.hpp:77] Creating layer inception_4d/pool
I0403 21:42:59.659497 23984 net.cpp:91] Creating Layer inception_4d/pool
I0403 21:42:59.659514 23984 net.cpp:425] inception_4d/pool <- inception_4c/output_inception_4c/output_0_split_3
I0403 21:42:59.659534 23984 net.cpp:399] inception_4d/pool -> inception_4d/pool
I0403 21:42:59.659602 23984 net.cpp:141] Setting up inception_4d/pool
I0403 21:42:59.659626 23984 net.cpp:148] Top shape: 24 512 14 14 (2408448)
I0403 21:42:59.659642 23984 net.cpp:156] Memory required for data: 1144900896
I0403 21:42:59.659657 23984 layer_factory.hpp:77] Creating layer inception_4d/pool_proj
I0403 21:42:59.659680 23984 net.cpp:91] Creating Layer inception_4d/pool_proj
I0403 21:42:59.659698 23984 net.cpp:425] inception_4d/pool_proj <- inception_4d/pool
I0403 21:42:59.659723 23984 net.cpp:399] inception_4d/pool_proj -> inception_4d/pool_proj
I0403 21:42:59.661501 23984 net.cpp:141] Setting up inception_4d/pool_proj
I0403 21:42:59.661531 23984 net.cpp:148] Top shape: 24 64 14 14 (301056)
I0403 21:42:59.661547 23984 net.cpp:156] Memory required for data: 1146105120
I0403 21:42:59.661566 23984 layer_factory.hpp:77] Creating layer inception_4d/relu_pool_proj
I0403 21:42:59.661586 23984 net.cpp:91] Creating Layer inception_4d/relu_pool_proj
I0403 21:42:59.661603 23984 net.cpp:425] inception_4d/relu_pool_proj <- inception_4d/pool_proj
I0403 21:42:59.661624 23984 net.cpp:386] inception_4d/relu_pool_proj -> inception_4d/pool_proj (in-place)
I0403 21:42:59.661810 23984 net.cpp:141] Setting up inception_4d/relu_pool_proj
I0403 21:42:59.661836 23984 net.cpp:148] Top shape: 24 64 14 14 (301056)
I0403 21:42:59.661851 23984 net.cpp:156] Memory required for data: 1147309344
I0403 21:42:59.661867 23984 layer_factory.hpp:77] Creating layer inception_4d/output
I0403 21:42:59.661885 23984 net.cpp:91] Creating Layer inception_4d/output
I0403 21:42:59.661900 23984 net.cpp:425] inception_4d/output <- inception_4d/1x1
I0403 21:42:59.661919 23984 net.cpp:425] inception_4d/output <- inception_4d/3x3
I0403 21:42:59.661936 23984 net.cpp:425] inception_4d/output <- inception_4d/5x5
I0403 21:42:59.661954 23984 net.cpp:425] inception_4d/output <- inception_4d/pool_proj
I0403 21:42:59.661972 23984 net.cpp:399] inception_4d/output -> inception_4d/output
I0403 21:42:59.662022 23984 net.cpp:141] Setting up inception_4d/output
I0403 21:42:59.662047 23984 net.cpp:148] Top shape: 24 528 14 14 (2483712)
I0403 21:42:59.662063 23984 net.cpp:156] Memory required for data: 1157244192
I0403 21:42:59.662078 23984 layer_factory.hpp:77] Creating layer inception_4d/output_inception_4d/output_0_split
I0403 21:42:59.662096 23984 net.cpp:91] Creating Layer inception_4d/output_inception_4d/output_0_split
I0403 21:42:59.662111 23984 net.cpp:425] inception_4d/output_inception_4d/output_0_split <- inception_4d/output
I0403 21:42:59.662132 23984 net.cpp:399] inception_4d/output_inception_4d/output_0_split -> inception_4d/output_inception_4d/output_0_split_0
I0403 21:42:59.662154 23984 net.cpp:399] inception_4d/output_inception_4d/output_0_split -> inception_4d/output_inception_4d/output_0_split_1
I0403 21:42:59.662175 23984 net.cpp:399] inception_4d/output_inception_4d/output_0_split -> inception_4d/output_inception_4d/output_0_split_2
I0403 21:42:59.662200 23984 net.cpp:399] inception_4d/output_inception_4d/output_0_split -> inception_4d/output_inception_4d/output_0_split_3
I0403 21:42:59.662223 23984 net.cpp:399] inception_4d/output_inception_4d/output_0_split -> inception_4d/output_inception_4d/output_0_split_4
I0403 21:42:59.662328 23984 net.cpp:141] Setting up inception_4d/output_inception_4d/output_0_split
I0403 21:42:59.662364 23984 net.cpp:148] Top shape: 24 528 14 14 (2483712)
I0403 21:42:59.662382 23984 net.cpp:148] Top shape: 24 528 14 14 (2483712)
I0403 21:42:59.662400 23984 net.cpp:148] Top shape: 24 528 14 14 (2483712)
I0403 21:42:59.662415 23984 net.cpp:148] Top shape: 24 528 14 14 (2483712)
I0403 21:42:59.662431 23984 net.cpp:148] Top shape: 24 528 14 14 (2483712)
I0403 21:42:59.662446 23984 net.cpp:156] Memory required for data: 1206918432
I0403 21:42:59.662462 23984 layer_factory.hpp:77] Creating layer loss2/ave_pool
I0403 21:42:59.662480 23984 net.cpp:91] Creating Layer loss2/ave_pool
I0403 21:42:59.662495 23984 net.cpp:425] loss2/ave_pool <- inception_4d/output_inception_4d/output_0_split_0
I0403 21:42:59.662515 23984 net.cpp:399] loss2/ave_pool -> loss2/ave_pool
I0403 21:42:59.662832 23984 net.cpp:141] Setting up loss2/ave_pool
I0403 21:42:59.662859 23984 net.cpp:148] Top shape: 24 528 4 4 (202752)
I0403 21:42:59.662875 23984 net.cpp:156] Memory required for data: 1207729440
I0403 21:42:59.662891 23984 layer_factory.hpp:77] Creating layer loss2/conv
I0403 21:42:59.662914 23984 net.cpp:91] Creating Layer loss2/conv
I0403 21:42:59.662933 23984 net.cpp:425] loss2/conv <- loss2/ave_pool
I0403 21:42:59.662957 23984 net.cpp:399] loss2/conv -> loss2/conv
I0403 21:42:59.664891 23984 net.cpp:141] Setting up loss2/conv
I0403 21:42:59.664921 23984 net.cpp:148] Top shape: 24 128 4 4 (49152)
I0403 21:42:59.664937 23984 net.cpp:156] Memory required for data: 1207926048
I0403 21:42:59.664958 23984 layer_factory.hpp:77] Creating layer loss2/relu_conv
I0403 21:42:59.664978 23984 net.cpp:91] Creating Layer loss2/relu_conv
I0403 21:42:59.664996 23984 net.cpp:425] loss2/relu_conv <- loss2/conv
I0403 21:42:59.665014 23984 net.cpp:386] loss2/relu_conv -> loss2/conv (in-place)
I0403 21:42:59.665305 23984 net.cpp:141] Setting up loss2/relu_conv
I0403 21:42:59.665333 23984 net.cpp:148] Top shape: 24 128 4 4 (49152)
I0403 21:42:59.665349 23984 net.cpp:156] Memory required for data: 1208122656
I0403 21:42:59.665364 23984 layer_factory.hpp:77] Creating layer loss2/fc
I0403 21:42:59.665385 23984 net.cpp:91] Creating Layer loss2/fc
I0403 21:42:59.665401 23984 net.cpp:425] loss2/fc <- loss2/conv
I0403 21:42:59.665422 23984 net.cpp:399] loss2/fc -> loss2/fc
I0403 21:42:59.682793 23984 net.cpp:141] Setting up loss2/fc
I0403 21:42:59.682829 23984 net.cpp:148] Top shape: 24 1024 (24576)
I0403 21:42:59.682844 23984 net.cpp:156] Memory required for data: 1208220960
I0403 21:42:59.682862 23984 layer_factory.hpp:77] Creating layer loss2/relu_fc
I0403 21:42:59.682880 23984 net.cpp:91] Creating Layer loss2/relu_fc
I0403 21:42:59.682896 23984 net.cpp:425] loss2/relu_fc <- loss2/fc
I0403 21:42:59.682916 23984 net.cpp:386] loss2/relu_fc -> loss2/fc (in-place)
I0403 21:42:59.683212 23984 net.cpp:141] Setting up loss2/relu_fc
I0403 21:42:59.683238 23984 net.cpp:148] Top shape: 24 1024 (24576)
I0403 21:42:59.683253 23984 net.cpp:156] Memory required for data: 1208319264
I0403 21:42:59.683267 23984 layer_factory.hpp:77] Creating layer loss2/drop_fc
I0403 21:42:59.683285 23984 net.cpp:91] Creating Layer loss2/drop_fc
I0403 21:42:59.683302 23984 net.cpp:425] loss2/drop_fc <- loss2/fc
I0403 21:42:59.683323 23984 net.cpp:386] loss2/drop_fc -> loss2/fc (in-place)
I0403 21:42:59.683372 23984 net.cpp:141] Setting up loss2/drop_fc
I0403 21:42:59.683398 23984 net.cpp:148] Top shape: 24 1024 (24576)
I0403 21:42:59.683413 23984 net.cpp:156] Memory required for data: 1208417568
I0403 21:42:59.683429 23984 layer_factory.hpp:77] Creating layer loss2/classifier_plantvillage
I0403 21:42:59.683446 23984 net.cpp:91] Creating Layer loss2/classifier_plantvillage
I0403 21:42:59.683462 23984 net.cpp:425] loss2/classifier_plantvillage <- loss2/fc
I0403 21:42:59.683485 23984 net.cpp:399] loss2/classifier_plantvillage -> loss2/classifier_plantvillage
I0403 21:42:59.683876 23984 net.cpp:141] Setting up loss2/classifier_plantvillage
I0403 21:42:59.683900 23984 net.cpp:148] Top shape: 24 38 (912)
I0403 21:42:59.683933 23984 net.cpp:156] Memory required for data: 1208421216
I0403 21:42:59.683951 23984 layer_factory.hpp:77] Creating layer loss2/classifier_plantvillage_loss2/classifier_plantvillage_0_split
I0403 21:42:59.683971 23984 net.cpp:91] Creating Layer loss2/classifier_plantvillage_loss2/classifier_plantvillage_0_split
I0403 21:42:59.683990 23984 net.cpp:425] loss2/classifier_plantvillage_loss2/classifier_plantvillage_0_split <- loss2/classifier_plantvillage
I0403 21:42:59.684006 23984 net.cpp:399] loss2/classifier_plantvillage_loss2/classifier_plantvillage_0_split -> loss2/classifier_plantvillage_loss2/classifier_plantvillage_0_split_0
I0403 21:42:59.684028 23984 net.cpp:399] loss2/classifier_plantvillage_loss2/classifier_plantvillage_0_split -> loss2/classifier_plantvillage_loss2/classifier_plantvillage_0_split_1
I0403 21:42:59.684049 23984 net.cpp:399] loss2/classifier_plantvillage_loss2/classifier_plantvillage_0_split -> loss2/classifier_plantvillage_loss2/classifier_plantvillage_0_split_2
I0403 21:42:59.684125 23984 net.cpp:141] Setting up loss2/classifier_plantvillage_loss2/classifier_plantvillage_0_split
I0403 21:42:59.684149 23984 net.cpp:148] Top shape: 24 38 (912)
I0403 21:42:59.684165 23984 net.cpp:148] Top shape: 24 38 (912)
I0403 21:42:59.684182 23984 net.cpp:148] Top shape: 24 38 (912)
I0403 21:42:59.684200 23984 net.cpp:156] Memory required for data: 1208432160
I0403 21:42:59.684214 23984 layer_factory.hpp:77] Creating layer inception_4e/1x1
I0403 21:42:59.684237 23984 net.cpp:91] Creating Layer inception_4e/1x1
I0403 21:42:59.684254 23984 net.cpp:425] inception_4e/1x1 <- inception_4d/output_inception_4d/output_0_split_1
I0403 21:42:59.684273 23984 net.cpp:399] inception_4e/1x1 -> inception_4e/1x1
I0403 21:42:59.686038 23984 net.cpp:141] Setting up inception_4e/1x1
I0403 21:42:59.686067 23984 net.cpp:148] Top shape: 24 256 14 14 (1204224)
I0403 21:42:59.686087 23984 net.cpp:156] Memory required for data: 1213249056
I0403 21:42:59.686106 23984 layer_factory.hpp:77] Creating layer inception_4e/relu_1x1
I0403 21:42:59.686125 23984 net.cpp:91] Creating Layer inception_4e/relu_1x1
I0403 21:42:59.686141 23984 net.cpp:425] inception_4e/relu_1x1 <- inception_4e/1x1
I0403 21:42:59.686157 23984 net.cpp:386] inception_4e/relu_1x1 -> inception_4e/1x1 (in-place)
I0403 21:42:59.686447 23984 net.cpp:141] Setting up inception_4e/relu_1x1
I0403 21:42:59.686475 23984 net.cpp:148] Top shape: 24 256 14 14 (1204224)
I0403 21:42:59.686493 23984 net.cpp:156] Memory required for data: 1218065952
I0403 21:42:59.686508 23984 layer_factory.hpp:77] Creating layer inception_4e/3x3_reduce
I0403 21:42:59.686529 23984 net.cpp:91] Creating Layer inception_4e/3x3_reduce
I0403 21:42:59.686547 23984 net.cpp:425] inception_4e/3x3_reduce <- inception_4d/output_inception_4d/output_0_split_2
I0403 21:42:59.686571 23984 net.cpp:399] inception_4e/3x3_reduce -> inception_4e/3x3_reduce
I0403 21:42:59.688655 23984 net.cpp:141] Setting up inception_4e/3x3_reduce
I0403 21:42:59.688685 23984 net.cpp:148] Top shape: 24 160 14 14 (752640)
I0403 21:42:59.688701 23984 net.cpp:156] Memory required for data: 1221076512
I0403 21:42:59.688720 23984 layer_factory.hpp:77] Creating layer inception_4e/relu_3x3_reduce
I0403 21:42:59.688741 23984 net.cpp:91] Creating Layer inception_4e/relu_3x3_reduce
I0403 21:42:59.688758 23984 net.cpp:425] inception_4e/relu_3x3_reduce <- inception_4e/3x3_reduce
I0403 21:42:59.688776 23984 net.cpp:386] inception_4e/relu_3x3_reduce -> inception_4e/3x3_reduce (in-place)
I0403 21:42:59.688956 23984 net.cpp:141] Setting up inception_4e/relu_3x3_reduce
I0403 21:42:59.688982 23984 net.cpp:148] Top shape: 24 160 14 14 (752640)
I0403 21:42:59.688997 23984 net.cpp:156] Memory required for data: 1224087072
I0403 21:42:59.689013 23984 layer_factory.hpp:77] Creating layer inception_4e/3x3
I0403 21:42:59.689035 23984 net.cpp:91] Creating Layer inception_4e/3x3
I0403 21:42:59.689054 23984 net.cpp:425] inception_4e/3x3 <- inception_4e/3x3_reduce
I0403 21:42:59.689071 23984 net.cpp:399] inception_4e/3x3 -> inception_4e/3x3
I0403 21:42:59.694020 23984 net.cpp:141] Setting up inception_4e/3x3
I0403 21:42:59.694066 23984 net.cpp:148] Top shape: 24 320 14 14 (1505280)
I0403 21:42:59.694084 23984 net.cpp:156] Memory required for data: 1230108192
I0403 21:42:59.694103 23984 layer_factory.hpp:77] Creating layer inception_4e/relu_3x3
I0403 21:42:59.694126 23984 net.cpp:91] Creating Layer inception_4e/relu_3x3
I0403 21:42:59.694144 23984 net.cpp:425] inception_4e/relu_3x3 <- inception_4e/3x3
I0403 21:42:59.694160 23984 net.cpp:386] inception_4e/relu_3x3 -> inception_4e/3x3 (in-place)
I0403 21:42:59.694468 23984 net.cpp:141] Setting up inception_4e/relu_3x3
I0403 21:42:59.694496 23984 net.cpp:148] Top shape: 24 320 14 14 (1505280)
I0403 21:42:59.694514 23984 net.cpp:156] Memory required for data: 1236129312
I0403 21:42:59.694530 23984 layer_factory.hpp:77] Creating layer inception_4e/5x5_reduce
I0403 21:42:59.694552 23984 net.cpp:91] Creating Layer inception_4e/5x5_reduce
I0403 21:42:59.694572 23984 net.cpp:425] inception_4e/5x5_reduce <- inception_4d/output_inception_4d/output_0_split_3
I0403 21:42:59.694594 23984 net.cpp:399] inception_4e/5x5_reduce -> inception_4e/5x5_reduce
I0403 21:42:59.695667 23984 net.cpp:141] Setting up inception_4e/5x5_reduce
I0403 21:42:59.695695 23984 net.cpp:148] Top shape: 24 32 14 14 (150528)
I0403 21:42:59.695711 23984 net.cpp:156] Memory required for data: 1236731424
I0403 21:42:59.695729 23984 layer_factory.hpp:77] Creating layer inception_4e/relu_5x5_reduce
I0403 21:42:59.695749 23984 net.cpp:91] Creating Layer inception_4e/relu_5x5_reduce
I0403 21:42:59.695767 23984 net.cpp:425] inception_4e/relu_5x5_reduce <- inception_4e/5x5_reduce
I0403 21:42:59.695785 23984 net.cpp:386] inception_4e/relu_5x5_reduce -> inception_4e/5x5_reduce (in-place)
I0403 21:42:59.696092 23984 net.cpp:141] Setting up inception_4e/relu_5x5_reduce
I0403 21:42:59.696120 23984 net.cpp:148] Top shape: 24 32 14 14 (150528)
I0403 21:42:59.696135 23984 net.cpp:156] Memory required for data: 1237333536
I0403 21:42:59.696151 23984 layer_factory.hpp:77] Creating layer inception_4e/5x5
I0403 21:42:59.696189 23984 net.cpp:91] Creating Layer inception_4e/5x5
I0403 21:42:59.696214 23984 net.cpp:425] inception_4e/5x5 <- inception_4e/5x5_reduce
I0403 21:42:59.696235 23984 net.cpp:399] inception_4e/5x5 -> inception_4e/5x5
I0403 21:42:59.698093 23984 net.cpp:141] Setting up inception_4e/5x5
I0403 21:42:59.698122 23984 net.cpp:148] Top shape: 24 128 14 14 (602112)
I0403 21:42:59.698139 23984 net.cpp:156] Memory required for data: 1239741984
I0403 21:42:59.698158 23984 layer_factory.hpp:77] Creating layer inception_4e/relu_5x5
I0403 21:42:59.698179 23984 net.cpp:91] Creating Layer inception_4e/relu_5x5
I0403 21:42:59.698207 23984 net.cpp:425] inception_4e/relu_5x5 <- inception_4e/5x5
I0403 21:42:59.698230 23984 net.cpp:386] inception_4e/relu_5x5 -> inception_4e/5x5 (in-place)
I0403 21:42:59.698428 23984 net.cpp:141] Setting up inception_4e/relu_5x5
I0403 21:42:59.698454 23984 net.cpp:148] Top shape: 24 128 14 14 (602112)
I0403 21:42:59.698470 23984 net.cpp:156] Memory required for data: 1242150432
I0403 21:42:59.698487 23984 layer_factory.hpp:77] Creating layer inception_4e/pool
I0403 21:42:59.698506 23984 net.cpp:91] Creating Layer inception_4e/pool
I0403 21:42:59.698524 23984 net.cpp:425] inception_4e/pool <- inception_4d/output_inception_4d/output_0_split_4
I0403 21:42:59.698544 23984 net.cpp:399] inception_4e/pool -> inception_4e/pool
I0403 21:42:59.698614 23984 net.cpp:141] Setting up inception_4e/pool
I0403 21:42:59.698639 23984 net.cpp:148] Top shape: 24 528 14 14 (2483712)
I0403 21:42:59.698654 23984 net.cpp:156] Memory required for data: 1252085280
I0403 21:42:59.698670 23984 layer_factory.hpp:77] Creating layer inception_4e/pool_proj
I0403 21:42:59.698693 23984 net.cpp:91] Creating Layer inception_4e/pool_proj
I0403 21:42:59.698710 23984 net.cpp:425] inception_4e/pool_proj <- inception_4e/pool
I0403 21:42:59.698730 23984 net.cpp:399] inception_4e/pool_proj -> inception_4e/pool_proj
I0403 21:42:59.700238 23984 net.cpp:141] Setting up inception_4e/pool_proj
I0403 21:42:59.700278 23984 net.cpp:148] Top shape: 24 128 14 14 (602112)
I0403 21:42:59.700295 23984 net.cpp:156] Memory required for data: 1254493728
I0403 21:42:59.700314 23984 layer_factory.hpp:77] Creating layer inception_4e/relu_pool_proj
I0403 21:42:59.700333 23984 net.cpp:91] Creating Layer inception_4e/relu_pool_proj
I0403 21:42:59.700352 23984 net.cpp:425] inception_4e/relu_pool_proj <- inception_4e/pool_proj
I0403 21:42:59.700371 23984 net.cpp:386] inception_4e/relu_pool_proj -> inception_4e/pool_proj (in-place)
I0403 21:42:59.700664 23984 net.cpp:141] Setting up inception_4e/relu_pool_proj
I0403 21:42:59.700691 23984 net.cpp:148] Top shape: 24 128 14 14 (602112)
I0403 21:42:59.700707 23984 net.cpp:156] Memory required for data: 1256902176
I0403 21:42:59.700722 23984 layer_factory.hpp:77] Creating layer inception_4e/output
I0403 21:42:59.700741 23984 net.cpp:91] Creating Layer inception_4e/output
I0403 21:42:59.700757 23984 net.cpp:425] inception_4e/output <- inception_4e/1x1
I0403 21:42:59.700773 23984 net.cpp:425] inception_4e/output <- inception_4e/3x3
I0403 21:42:59.700789 23984 net.cpp:425] inception_4e/output <- inception_4e/5x5
I0403 21:42:59.700808 23984 net.cpp:425] inception_4e/output <- inception_4e/pool_proj
I0403 21:42:59.700827 23984 net.cpp:399] inception_4e/output -> inception_4e/output
I0403 21:42:59.700878 23984 net.cpp:141] Setting up inception_4e/output
I0403 21:42:59.700906 23984 net.cpp:148] Top shape: 24 832 14 14 (3913728)
I0403 21:42:59.700922 23984 net.cpp:156] Memory required for data: 1272557088
I0403 21:42:59.700937 23984 layer_factory.hpp:77] Creating layer pool4/3x3_s2
I0403 21:42:59.700958 23984 net.cpp:91] Creating Layer pool4/3x3_s2
I0403 21:42:59.700974 23984 net.cpp:425] pool4/3x3_s2 <- inception_4e/output
I0403 21:42:59.700996 23984 net.cpp:399] pool4/3x3_s2 -> pool4/3x3_s2
I0403 21:42:59.701062 23984 net.cpp:141] Setting up pool4/3x3_s2
I0403 21:42:59.701087 23984 net.cpp:148] Top shape: 24 832 7 7 (978432)
I0403 21:42:59.701102 23984 net.cpp:156] Memory required for data: 1276470816
I0403 21:42:59.701118 23984 layer_factory.hpp:77] Creating layer pool4/3x3_s2_pool4/3x3_s2_0_split
I0403 21:42:59.701138 23984 net.cpp:91] Creating Layer pool4/3x3_s2_pool4/3x3_s2_0_split
I0403 21:42:59.701155 23984 net.cpp:425] pool4/3x3_s2_pool4/3x3_s2_0_split <- pool4/3x3_s2
I0403 21:42:59.701174 23984 net.cpp:399] pool4/3x3_s2_pool4/3x3_s2_0_split -> pool4/3x3_s2_pool4/3x3_s2_0_split_0
I0403 21:42:59.701194 23984 net.cpp:399] pool4/3x3_s2_pool4/3x3_s2_0_split -> pool4/3x3_s2_pool4/3x3_s2_0_split_1
I0403 21:42:59.701220 23984 net.cpp:399] pool4/3x3_s2_pool4/3x3_s2_0_split -> pool4/3x3_s2_pool4/3x3_s2_0_split_2
I0403 21:42:59.701241 23984 net.cpp:399] pool4/3x3_s2_pool4/3x3_s2_0_split -> pool4/3x3_s2_pool4/3x3_s2_0_split_3
I0403 21:42:59.701333 23984 net.cpp:141] Setting up pool4/3x3_s2_pool4/3x3_s2_0_split
I0403 21:42:59.701357 23984 net.cpp:148] Top shape: 24 832 7 7 (978432)
I0403 21:42:59.701375 23984 net.cpp:148] Top shape: 24 832 7 7 (978432)
I0403 21:42:59.701390 23984 net.cpp:148] Top shape: 24 832 7 7 (978432)
I0403 21:42:59.701406 23984 net.cpp:148] Top shape: 24 832 7 7 (978432)
I0403 21:42:59.701421 23984 net.cpp:156] Memory required for data: 1292125728
I0403 21:42:59.701436 23984 layer_factory.hpp:77] Creating layer inception_5a/1x1
I0403 21:42:59.701459 23984 net.cpp:91] Creating Layer inception_5a/1x1
I0403 21:42:59.701478 23984 net.cpp:425] inception_5a/1x1 <- pool4/3x3_s2_pool4/3x3_s2_0_split_0
I0403 21:42:59.701498 23984 net.cpp:399] inception_5a/1x1 -> inception_5a/1x1
I0403 21:42:59.704380 23984 net.cpp:141] Setting up inception_5a/1x1
I0403 21:42:59.704411 23984 net.cpp:148] Top shape: 24 256 7 7 (301056)
I0403 21:42:59.704427 23984 net.cpp:156] Memory required for data: 1293329952
I0403 21:42:59.704445 23984 layer_factory.hpp:77] Creating layer inception_5a/relu_1x1
I0403 21:42:59.704468 23984 net.cpp:91] Creating Layer inception_5a/relu_1x1
I0403 21:42:59.704484 23984 net.cpp:425] inception_5a/relu_1x1 <- inception_5a/1x1
I0403 21:42:59.704502 23984 net.cpp:386] inception_5a/relu_1x1 -> inception_5a/1x1 (in-place)
I0403 21:42:59.704819 23984 net.cpp:141] Setting up inception_5a/relu_1x1
I0403 21:42:59.704846 23984 net.cpp:148] Top shape: 24 256 7 7 (301056)
I0403 21:42:59.704862 23984 net.cpp:156] Memory required for data: 1294534176
I0403 21:42:59.704879 23984 layer_factory.hpp:77] Creating layer inception_5a/3x3_reduce
I0403 21:42:59.704901 23984 net.cpp:91] Creating Layer inception_5a/3x3_reduce
I0403 21:42:59.704919 23984 net.cpp:425] inception_5a/3x3_reduce <- pool4/3x3_s2_pool4/3x3_s2_0_split_1
I0403 21:42:59.704941 23984 net.cpp:399] inception_5a/3x3_reduce -> inception_5a/3x3_reduce
I0403 21:42:59.707442 23984 net.cpp:141] Setting up inception_5a/3x3_reduce
I0403 21:42:59.707474 23984 net.cpp:148] Top shape: 24 160 7 7 (188160)
I0403 21:42:59.707494 23984 net.cpp:156] Memory required for data: 1295286816
I0403 21:42:59.707512 23984 layer_factory.hpp:77] Creating layer inception_5a/relu_3x3_reduce
I0403 21:42:59.707531 23984 net.cpp:91] Creating Layer inception_5a/relu_3x3_reduce
I0403 21:42:59.707548 23984 net.cpp:425] inception_5a/relu_3x3_reduce <- inception_5a/3x3_reduce
I0403 21:42:59.707568 23984 net.cpp:386] inception_5a/relu_3x3_reduce -> inception_5a/3x3_reduce (in-place)
I0403 21:42:59.707757 23984 net.cpp:141] Setting up inception_5a/relu_3x3_reduce
I0403 21:42:59.707783 23984 net.cpp:148] Top shape: 24 160 7 7 (188160)
I0403 21:42:59.707799 23984 net.cpp:156] Memory required for data: 1296039456
I0403 21:42:59.707814 23984 layer_factory.hpp:77] Creating layer inception_5a/3x3
I0403 21:42:59.707835 23984 net.cpp:91] Creating Layer inception_5a/3x3
I0403 21:42:59.707855 23984 net.cpp:425] inception_5a/3x3 <- inception_5a/3x3_reduce
I0403 21:42:59.707877 23984 net.cpp:399] inception_5a/3x3 -> inception_5a/3x3
I0403 21:42:59.712956 23984 net.cpp:141] Setting up inception_5a/3x3
I0403 21:42:59.712986 23984 net.cpp:148] Top shape: 24 320 7 7 (376320)
I0403 21:42:59.713004 23984 net.cpp:156] Memory required for data: 1297544736
I0403 21:42:59.713023 23984 layer_factory.hpp:77] Creating layer inception_5a/relu_3x3
I0403 21:42:59.713043 23984 net.cpp:91] Creating Layer inception_5a/relu_3x3
I0403 21:42:59.713062 23984 net.cpp:425] inception_5a/relu_3x3 <- inception_5a/3x3
I0403 21:42:59.713078 23984 net.cpp:386] inception_5a/relu_3x3 -> inception_5a/3x3 (in-place)
I0403 21:42:59.713385 23984 net.cpp:141] Setting up inception_5a/relu_3x3
I0403 21:42:59.713413 23984 net.cpp:148] Top shape: 24 320 7 7 (376320)
I0403 21:42:59.713428 23984 net.cpp:156] Memory required for data: 1299050016
I0403 21:42:59.713443 23984 layer_factory.hpp:77] Creating layer inception_5a/5x5_reduce
I0403 21:42:59.713466 23984 net.cpp:91] Creating Layer inception_5a/5x5_reduce
I0403 21:42:59.713485 23984 net.cpp:425] inception_5a/5x5_reduce <- pool4/3x3_s2_pool4/3x3_s2_0_split_2
I0403 21:42:59.713507 23984 net.cpp:399] inception_5a/5x5_reduce -> inception_5a/5x5_reduce
I0403 21:42:59.714686 23984 net.cpp:141] Setting up inception_5a/5x5_reduce
I0403 21:42:59.714716 23984 net.cpp:148] Top shape: 24 32 7 7 (37632)
I0403 21:42:59.714733 23984 net.cpp:156] Memory required for data: 1299200544
I0403 21:42:59.714752 23984 layer_factory.hpp:77] Creating layer inception_5a/relu_5x5_reduce
I0403 21:42:59.714776 23984 net.cpp:91] Creating Layer inception_5a/relu_5x5_reduce
I0403 21:42:59.714795 23984 net.cpp:425] inception_5a/relu_5x5_reduce <- inception_5a/5x5_reduce
I0403 21:42:59.714813 23984 net.cpp:386] inception_5a/relu_5x5_reduce -> inception_5a/5x5_reduce (in-place)
I0403 21:42:59.715113 23984 net.cpp:141] Setting up inception_5a/relu_5x5_reduce
I0403 21:42:59.715138 23984 net.cpp:148] Top shape: 24 32 7 7 (37632)
I0403 21:42:59.715154 23984 net.cpp:156] Memory required for data: 1299351072
I0403 21:42:59.715170 23984 layer_factory.hpp:77] Creating layer inception_5a/5x5
I0403 21:42:59.715193 23984 net.cpp:91] Creating Layer inception_5a/5x5
I0403 21:42:59.715217 23984 net.cpp:425] inception_5a/5x5 <- inception_5a/5x5_reduce
I0403 21:42:59.715237 23984 net.cpp:399] inception_5a/5x5 -> inception_5a/5x5
I0403 21:42:59.716965 23984 net.cpp:141] Setting up inception_5a/5x5
I0403 21:42:59.717006 23984 net.cpp:148] Top shape: 24 128 7 7 (150528)
I0403 21:42:59.717025 23984 net.cpp:156] Memory required for data: 1299953184
I0403 21:42:59.717043 23984 layer_factory.hpp:77] Creating layer inception_5a/relu_5x5
I0403 21:42:59.717064 23984 net.cpp:91] Creating Layer inception_5a/relu_5x5
I0403 21:42:59.717082 23984 net.cpp:425] inception_5a/relu_5x5 <- inception_5a/5x5
I0403 21:42:59.717098 23984 net.cpp:386] inception_5a/relu_5x5 -> inception_5a/5x5 (in-place)
I0403 21:42:59.717294 23984 net.cpp:141] Setting up inception_5a/relu_5x5
I0403 21:42:59.717320 23984 net.cpp:148] Top shape: 24 128 7 7 (150528)
I0403 21:42:59.717335 23984 net.cpp:156] Memory required for data: 1300555296
I0403 21:42:59.717350 23984 layer_factory.hpp:77] Creating layer inception_5a/pool
I0403 21:42:59.717370 23984 net.cpp:91] Creating Layer inception_5a/pool
I0403 21:42:59.717388 23984 net.cpp:425] inception_5a/pool <- pool4/3x3_s2_pool4/3x3_s2_0_split_3
I0403 21:42:59.717407 23984 net.cpp:399] inception_5a/pool -> inception_5a/pool
I0403 21:42:59.717479 23984 net.cpp:141] Setting up inception_5a/pool
I0403 21:42:59.717504 23984 net.cpp:148] Top shape: 24 832 7 7 (978432)
I0403 21:42:59.717520 23984 net.cpp:156] Memory required for data: 1304469024
I0403 21:42:59.717535 23984 layer_factory.hpp:77] Creating layer inception_5a/pool_proj
I0403 21:42:59.717556 23984 net.cpp:91] Creating Layer inception_5a/pool_proj
I0403 21:42:59.717574 23984 net.cpp:425] inception_5a/pool_proj <- inception_5a/pool
I0403 21:42:59.717595 23984 net.cpp:399] inception_5a/pool_proj -> inception_5a/pool_proj
I0403 21:42:59.719926 23984 net.cpp:141] Setting up inception_5a/pool_proj
I0403 21:42:59.719959 23984 net.cpp:148] Top shape: 24 128 7 7 (150528)
I0403 21:42:59.719975 23984 net.cpp:156] Memory required for data: 1305071136
I0403 21:42:59.719995 23984 layer_factory.hpp:77] Creating layer inception_5a/relu_pool_proj
I0403 21:42:59.720012 23984 net.cpp:91] Creating Layer inception_5a/relu_pool_proj
I0403 21:42:59.720029 23984 net.cpp:425] inception_5a/relu_pool_proj <- inception_5a/pool_proj
I0403 21:42:59.720051 23984 net.cpp:386] inception_5a/relu_pool_proj -> inception_5a/pool_proj (in-place)
I0403 21:42:59.720358 23984 net.cpp:141] Setting up inception_5a/relu_pool_proj
I0403 21:42:59.720384 23984 net.cpp:148] Top shape: 24 128 7 7 (150528)
I0403 21:42:59.720407 23984 net.cpp:156] Memory required for data: 1305673248
I0403 21:42:59.720422 23984 layer_factory.hpp:77] Creating layer inception_5a/output
I0403 21:42:59.720440 23984 net.cpp:91] Creating Layer inception_5a/output
I0403 21:42:59.720456 23984 net.cpp:425] inception_5a/output <- inception_5a/1x1
I0403 21:42:59.720473 23984 net.cpp:425] inception_5a/output <- inception_5a/3x3
I0403 21:42:59.720489 23984 net.cpp:425] inception_5a/output <- inception_5a/5x5
I0403 21:42:59.720504 23984 net.cpp:425] inception_5a/output <- inception_5a/pool_proj
I0403 21:42:59.720525 23984 net.cpp:399] inception_5a/output -> inception_5a/output
I0403 21:42:59.720572 23984 net.cpp:141] Setting up inception_5a/output
I0403 21:42:59.720599 23984 net.cpp:148] Top shape: 24 832 7 7 (978432)
I0403 21:42:59.720614 23984 net.cpp:156] Memory required for data: 1309586976
I0403 21:42:59.720629 23984 layer_factory.hpp:77] Creating layer inception_5a/output_inception_5a/output_0_split
I0403 21:42:59.720645 23984 net.cpp:91] Creating Layer inception_5a/output_inception_5a/output_0_split
I0403 21:42:59.720661 23984 net.cpp:425] inception_5a/output_inception_5a/output_0_split <- inception_5a/output
I0403 21:42:59.720679 23984 net.cpp:399] inception_5a/output_inception_5a/output_0_split -> inception_5a/output_inception_5a/output_0_split_0
I0403 21:42:59.720700 23984 net.cpp:399] inception_5a/output_inception_5a/output_0_split -> inception_5a/output_inception_5a/output_0_split_1
I0403 21:42:59.720724 23984 net.cpp:399] inception_5a/output_inception_5a/output_0_split -> inception_5a/output_inception_5a/output_0_split_2
I0403 21:42:59.720746 23984 net.cpp:399] inception_5a/output_inception_5a/output_0_split -> inception_5a/output_inception_5a/output_0_split_3
I0403 21:42:59.720856 23984 net.cpp:141] Setting up inception_5a/output_inception_5a/output_0_split
I0403 21:42:59.720880 23984 net.cpp:148] Top shape: 24 832 7 7 (978432)
I0403 21:42:59.720896 23984 net.cpp:148] Top shape: 24 832 7 7 (978432)
I0403 21:42:59.720911 23984 net.cpp:148] Top shape: 24 832 7 7 (978432)
I0403 21:42:59.720927 23984 net.cpp:148] Top shape: 24 832 7 7 (978432)
I0403 21:42:59.720942 23984 net.cpp:156] Memory required for data: 1325241888
I0403 21:42:59.720957 23984 layer_factory.hpp:77] Creating layer inception_5b/1x1
I0403 21:42:59.720978 23984 net.cpp:91] Creating Layer inception_5b/1x1
I0403 21:42:59.720998 23984 net.cpp:425] inception_5b/1x1 <- inception_5a/output_inception_5a/output_0_split_0
I0403 21:42:59.721019 23984 net.cpp:399] inception_5b/1x1 -> inception_5b/1x1
I0403 21:42:59.724714 23984 net.cpp:141] Setting up inception_5b/1x1
I0403 21:42:59.724745 23984 net.cpp:148] Top shape: 24 384 7 7 (451584)
I0403 21:42:59.724762 23984 net.cpp:156] Memory required for data: 1327048224
I0403 21:42:59.724781 23984 layer_factory.hpp:77] Creating layer inception_5b/relu_1x1
I0403 21:42:59.724799 23984 net.cpp:91] Creating Layer inception_5b/relu_1x1
I0403 21:42:59.724817 23984 net.cpp:425] inception_5b/relu_1x1 <- inception_5b/1x1
I0403 21:42:59.724836 23984 net.cpp:386] inception_5b/relu_1x1 -> inception_5b/1x1 (in-place)
I0403 21:42:59.725136 23984 net.cpp:141] Setting up inception_5b/relu_1x1
I0403 21:42:59.725165 23984 net.cpp:148] Top shape: 24 384 7 7 (451584)
I0403 21:42:59.725183 23984 net.cpp:156] Memory required for data: 1328854560
I0403 21:42:59.725201 23984 layer_factory.hpp:77] Creating layer inception_5b/3x3_reduce
I0403 21:42:59.725224 23984 net.cpp:91] Creating Layer inception_5b/3x3_reduce
I0403 21:42:59.725244 23984 net.cpp:425] inception_5b/3x3_reduce <- inception_5a/output_inception_5a/output_0_split_1
I0403 21:42:59.725262 23984 net.cpp:399] inception_5b/3x3_reduce -> inception_5b/3x3_reduce
I0403 21:42:59.727882 23984 net.cpp:141] Setting up inception_5b/3x3_reduce
I0403 21:42:59.727911 23984 net.cpp:148] Top shape: 24 192 7 7 (225792)
I0403 21:42:59.727928 23984 net.cpp:156] Memory required for data: 1329757728
I0403 21:42:59.727946 23984 layer_factory.hpp:77] Creating layer inception_5b/relu_3x3_reduce
I0403 21:42:59.727967 23984 net.cpp:91] Creating Layer inception_5b/relu_3x3_reduce
I0403 21:42:59.727983 23984 net.cpp:425] inception_5b/relu_3x3_reduce <- inception_5b/3x3_reduce
I0403 21:42:59.728003 23984 net.cpp:386] inception_5b/relu_3x3_reduce -> inception_5b/3x3_reduce (in-place)
I0403 21:42:59.728190 23984 net.cpp:141] Setting up inception_5b/relu_3x3_reduce
I0403 21:42:59.728225 23984 net.cpp:148] Top shape: 24 192 7 7 (225792)
I0403 21:42:59.728242 23984 net.cpp:156] Memory required for data: 1330660896
I0403 21:42:59.728257 23984 layer_factory.hpp:77] Creating layer inception_5b/3x3
I0403 21:42:59.728279 23984 net.cpp:91] Creating Layer inception_5b/3x3
I0403 21:42:59.728296 23984 net.cpp:425] inception_5b/3x3 <- inception_5b/3x3_reduce
I0403 21:42:59.728317 23984 net.cpp:399] inception_5b/3x3 -> inception_5b/3x3
I0403 21:42:59.734962 23984 net.cpp:141] Setting up inception_5b/3x3
I0403 21:42:59.734992 23984 net.cpp:148] Top shape: 24 384 7 7 (451584)
I0403 21:42:59.735010 23984 net.cpp:156] Memory required for data: 1332467232
I0403 21:42:59.735028 23984 layer_factory.hpp:77] Creating layer inception_5b/relu_3x3
I0403 21:42:59.735046 23984 net.cpp:91] Creating Layer inception_5b/relu_3x3
I0403 21:42:59.735081 23984 net.cpp:425] inception_5b/relu_3x3 <- inception_5b/3x3
I0403 21:42:59.735106 23984 net.cpp:386] inception_5b/relu_3x3 -> inception_5b/3x3 (in-place)
I0403 21:42:59.735404 23984 net.cpp:141] Setting up inception_5b/relu_3x3
I0403 21:42:59.735430 23984 net.cpp:148] Top shape: 24 384 7 7 (451584)
I0403 21:42:59.735445 23984 net.cpp:156] Memory required for data: 1334273568
I0403 21:42:59.735460 23984 layer_factory.hpp:77] Creating layer inception_5b/5x5_reduce
I0403 21:42:59.735498 23984 net.cpp:91] Creating Layer inception_5b/5x5_reduce
I0403 21:42:59.735517 23984 net.cpp:425] inception_5b/5x5_reduce <- inception_5a/output_inception_5a/output_0_split_2
I0403 21:42:59.735550 23984 net.cpp:399] inception_5b/5x5_reduce -> inception_5b/5x5_reduce
I0403 21:42:59.736862 23984 net.cpp:141] Setting up inception_5b/5x5_reduce
I0403 21:42:59.736892 23984 net.cpp:148] Top shape: 24 48 7 7 (56448)
I0403 21:42:59.736907 23984 net.cpp:156] Memory required for data: 1334499360
I0403 21:42:59.736927 23984 layer_factory.hpp:77] Creating layer inception_5b/relu_5x5_reduce
I0403 21:42:59.736950 23984 net.cpp:91] Creating Layer inception_5b/relu_5x5_reduce
I0403 21:42:59.736973 23984 net.cpp:425] inception_5b/relu_5x5_reduce <- inception_5b/5x5_reduce
I0403 21:42:59.736990 23984 net.cpp:386] inception_5b/relu_5x5_reduce -> inception_5b/5x5_reduce (in-place)
I0403 21:42:59.737388 23984 net.cpp:141] Setting up inception_5b/relu_5x5_reduce
I0403 21:42:59.737417 23984 net.cpp:148] Top shape: 24 48 7 7 (56448)
I0403 21:42:59.737437 23984 net.cpp:156] Memory required for data: 1334725152
I0403 21:42:59.737453 23984 layer_factory.hpp:77] Creating layer inception_5b/5x5
I0403 21:42:59.737475 23984 net.cpp:91] Creating Layer inception_5b/5x5
I0403 21:42:59.737494 23984 net.cpp:425] inception_5b/5x5 <- inception_5b/5x5_reduce
I0403 21:42:59.737514 23984 net.cpp:399] inception_5b/5x5 -> inception_5b/5x5
I0403 21:42:59.739603 23984 net.cpp:141] Setting up inception_5b/5x5
I0403 21:42:59.739632 23984 net.cpp:148] Top shape: 24 128 7 7 (150528)
I0403 21:42:59.739648 23984 net.cpp:156] Memory required for data: 1335327264
I0403 21:42:59.739667 23984 layer_factory.hpp:77] Creating layer inception_5b/relu_5x5
I0403 21:42:59.739688 23984 net.cpp:91] Creating Layer inception_5b/relu_5x5
I0403 21:42:59.739706 23984 net.cpp:425] inception_5b/relu_5x5 <- inception_5b/5x5
I0403 21:42:59.739724 23984 net.cpp:386] inception_5b/relu_5x5 -> inception_5b/5x5 (in-place)
I0403 21:42:59.739918 23984 net.cpp:141] Setting up inception_5b/relu_5x5
I0403 21:42:59.739948 23984 net.cpp:148] Top shape: 24 128 7 7 (150528)
I0403 21:42:59.739964 23984 net.cpp:156] Memory required for data: 1335929376
I0403 21:42:59.739980 23984 layer_factory.hpp:77] Creating layer inception_5b/pool
I0403 21:42:59.740000 23984 net.cpp:91] Creating Layer inception_5b/pool
I0403 21:42:59.740016 23984 net.cpp:425] inception_5b/pool <- inception_5a/output_inception_5a/output_0_split_3
I0403 21:42:59.740036 23984 net.cpp:399] inception_5b/pool -> inception_5b/pool
I0403 21:42:59.740110 23984 net.cpp:141] Setting up inception_5b/pool
I0403 21:42:59.740135 23984 net.cpp:148] Top shape: 24 832 7 7 (978432)
I0403 21:42:59.740150 23984 net.cpp:156] Memory required for data: 1339843104
I0403 21:42:59.740166 23984 layer_factory.hpp:77] Creating layer inception_5b/pool_proj
I0403 21:42:59.740190 23984 net.cpp:91] Creating Layer inception_5b/pool_proj
I0403 21:42:59.740213 23984 net.cpp:425] inception_5b/pool_proj <- inception_5b/pool
I0403 21:42:59.740236 23984 net.cpp:399] inception_5b/pool_proj -> inception_5b/pool_proj
I0403 21:42:59.742590 23984 net.cpp:141] Setting up inception_5b/pool_proj
I0403 21:42:59.742620 23984 net.cpp:148] Top shape: 24 128 7 7 (150528)
I0403 21:42:59.742637 23984 net.cpp:156] Memory required for data: 1340445216
I0403 21:42:59.742656 23984 layer_factory.hpp:77] Creating layer inception_5b/relu_pool_proj
I0403 21:42:59.742676 23984 net.cpp:91] Creating Layer inception_5b/relu_pool_proj
I0403 21:42:59.742694 23984 net.cpp:425] inception_5b/relu_pool_proj <- inception_5b/pool_proj
I0403 21:42:59.742712 23984 net.cpp:386] inception_5b/relu_pool_proj -> inception_5b/pool_proj (in-place)
I0403 21:42:59.743013 23984 net.cpp:141] Setting up inception_5b/relu_pool_proj
I0403 21:42:59.743041 23984 net.cpp:148] Top shape: 24 128 7 7 (150528)
I0403 21:42:59.743057 23984 net.cpp:156] Memory required for data: 1341047328
I0403 21:42:59.743072 23984 layer_factory.hpp:77] Creating layer inception_5b/output
I0403 21:42:59.743089 23984 net.cpp:91] Creating Layer inception_5b/output
I0403 21:42:59.743121 23984 net.cpp:425] inception_5b/output <- inception_5b/1x1
I0403 21:42:59.743139 23984 net.cpp:425] inception_5b/output <- inception_5b/3x3
I0403 21:42:59.743157 23984 net.cpp:425] inception_5b/output <- inception_5b/5x5
I0403 21:42:59.743175 23984 net.cpp:425] inception_5b/output <- inception_5b/pool_proj
I0403 21:42:59.743194 23984 net.cpp:399] inception_5b/output -> inception_5b/output
I0403 21:42:59.743250 23984 net.cpp:141] Setting up inception_5b/output
I0403 21:42:59.743278 23984 net.cpp:148] Top shape: 24 1024 7 7 (1204224)
I0403 21:42:59.743294 23984 net.cpp:156] Memory required for data: 1345864224
I0403 21:42:59.743309 23984 layer_factory.hpp:77] Creating layer pool5/7x7_s1
I0403 21:42:59.743326 23984 net.cpp:91] Creating Layer pool5/7x7_s1
I0403 21:42:59.743343 23984 net.cpp:425] pool5/7x7_s1 <- inception_5b/output
I0403 21:42:59.743365 23984 net.cpp:399] pool5/7x7_s1 -> pool5/7x7_s1
I0403 21:42:59.743580 23984 net.cpp:141] Setting up pool5/7x7_s1
I0403 21:42:59.743607 23984 net.cpp:148] Top shape: 24 1024 1 1 (24576)
I0403 21:42:59.743623 23984 net.cpp:156] Memory required for data: 1345962528
I0403 21:42:59.743638 23984 layer_factory.hpp:77] Creating layer pool5/drop_7x7_s1
I0403 21:42:59.743659 23984 net.cpp:91] Creating Layer pool5/drop_7x7_s1
I0403 21:42:59.743675 23984 net.cpp:425] pool5/drop_7x7_s1 <- pool5/7x7_s1
I0403 21:42:59.743693 23984 net.cpp:386] pool5/drop_7x7_s1 -> pool5/7x7_s1 (in-place)
I0403 21:42:59.743742 23984 net.cpp:141] Setting up pool5/drop_7x7_s1
I0403 21:42:59.743768 23984 net.cpp:148] Top shape: 24 1024 1 1 (24576)
I0403 21:42:59.743784 23984 net.cpp:156] Memory required for data: 1346060832
I0403 21:42:59.743800 23984 layer_factory.hpp:77] Creating layer loss3/classifier_plantvillage
I0403 21:42:59.743820 23984 net.cpp:91] Creating Layer loss3/classifier_plantvillage
I0403 21:42:59.743835 23984 net.cpp:425] loss3/classifier_plantvillage <- pool5/7x7_s1
I0403 21:42:59.743857 23984 net.cpp:399] loss3/classifier_plantvillage -> loss3/classifier_plantvillage
I0403 21:42:59.744293 23984 net.cpp:141] Setting up loss3/classifier_plantvillage
I0403 21:42:59.744319 23984 net.cpp:148] Top shape: 24 38 (912)
I0403 21:42:59.744334 23984 net.cpp:156] Memory required for data: 1346064480
I0403 21:42:59.744354 23984 layer_factory.hpp:77] Creating layer loss3/classifier_plantvillage_loss3/classifier_plantvillage_0_split
I0403 21:42:59.744370 23984 net.cpp:91] Creating Layer loss3/classifier_plantvillage_loss3/classifier_plantvillage_0_split
I0403 21:42:59.744386 23984 net.cpp:425] loss3/classifier_plantvillage_loss3/classifier_plantvillage_0_split <- loss3/classifier_plantvillage
I0403 21:42:59.744405 23984 net.cpp:399] loss3/classifier_plantvillage_loss3/classifier_plantvillage_0_split -> loss3/classifier_plantvillage_loss3/classifier_plantvillage_0_split_0
I0403 21:42:59.744428 23984 net.cpp:399] loss3/classifier_plantvillage_loss3/classifier_plantvillage_0_split -> loss3/classifier_plantvillage_loss3/classifier_plantvillage_0_split_1
I0403 21:42:59.744451 23984 net.cpp:399] loss3/classifier_plantvillage_loss3/classifier_plantvillage_0_split -> loss3/classifier_plantvillage_loss3/classifier_plantvillage_0_split_2
I0403 21:42:59.744472 23984 net.cpp:399] loss3/classifier_plantvillage_loss3/classifier_plantvillage_0_split -> loss3/classifier_plantvillage_loss3/classifier_plantvillage_0_split_3
I0403 21:42:59.744573 23984 net.cpp:141] Setting up loss3/classifier_plantvillage_loss3/classifier_plantvillage_0_split
I0403 21:42:59.744597 23984 net.cpp:148] Top shape: 24 38 (912)
I0403 21:42:59.744614 23984 net.cpp:148] Top shape: 24 38 (912)
I0403 21:42:59.744631 23984 net.cpp:148] Top shape: 24 38 (912)
I0403 21:42:59.744647 23984 net.cpp:148] Top shape: 24 38 (912)
I0403 21:42:59.744662 23984 net.cpp:156] Memory required for data: 1346079072
I0403 21:42:59.744676 23984 layer_factory.hpp:77] Creating layer loss1/loss
I0403 21:42:59.744699 23984 net.cpp:91] Creating Layer loss1/loss
I0403 21:42:59.744719 23984 net.cpp:425] loss1/loss <- loss1/classifier_plantvillage_loss1/classifier_plantvillage_0_split_0
I0403 21:42:59.744750 23984 net.cpp:425] loss1/loss <- label_data_1_split_0
…
