…
I0403 21:49:24.554438 24357 net.cpp:313] The NetState phase (1) differed from the phase (0) specified by a rule in layer data
I0403 21:49:24.555551 24357 net.cpp:49] Initializing net from parameters: 
state {
  phase: TEST
}
layer {
  name: "data"
  type: "Data"
  top: "data"
  top: "label"
  include {
    phase: TEST
  }
  transform_param {
    mirror: false
    crop_size: 224
    mean_file: "/home/mohanty/data/final_dataset/lmdb/segmented-80-20/mean.binaryproto"
  }
  data_param {
    source: "/home/mohanty/data/final_dataset/lmdb/segmented-80-20/test_db"
    batch_size: 24
    backend: LMDB
  }
}
layer {
  name: "conv1/7x7_s2"
  type: "Convolution"
  bottom: "data"
  top: "conv1/7x7_s2"
  param {
    lr_mult: 1
    decay_mult: 1
  }
  param {
    lr_mult: 2
    decay_mult: 0
  }
  convolution_param {
    num_output: 64
    pad: 3
    kernel_size: 7
    stride: 2
    weight_filler {
      type: "xavier"
      std: 0.1
    }
    bias_filler {
      type: "constant"
      value: 0.2
    }
  }
}
layer {
  name: "conv1/relu_7x7"
  type: "ReLU"
  bottom: "conv1/7x7_s2"
  top: "conv1/7x7_s2"
}
layer {
  name: "pool1/3x3_s2"
  type: "Pooling"
  bottom: "conv1/7x7_s2"
  top: "pool1/3x3_s2"
  pooling_param {
    pool: MAX
    kernel_size: 3
    stride: 2
  }
}
layer {
  name: "pool1/norm1"
  type: "LRN"
  bottom: "pool1/3x3_s2"
  top: "pool1/norm1"
  lrn_param {
    local_size: 5
    alpha: 0.0001
    beta: 0.75
  }
}
layer {
  name: "conv2/3x3_reduce"
  type: "Convolution"
  bottom: "pool1/norm1"
  top: "conv2/3x3_reduce"
  param {
    lr_mult: 1
    decay_mult: 1
  }
  param {
    lr_mult: 2
    decay_mult: 0
  }
  convolution_param {
    num_output: 64
    kernel_size: 1
    weight_filler {
      type: "xavier"
      std: 0.1
    }
    bias_filler {
      type: "constant"
      value: 0.2
    }
  }
}
layer {
  name: "conv2/relu_3x3_reduce"
  type: "ReLU"
  bottom: "conv2/3x3_reduce"
  top: "conv2/3x3_reduce"
}
layer {
  name: "conv2/3x3"
  type: "Convolution"
  bottom: "conv2/3x3_reduce"
  top: "conv2/3x3"
  param {
    lr_mult: 1
    decay_mult: 1
  }
  param {
    lr_mult: 2
    decay_mult: 0
  }
  convolution_param {
    num_output: 192
    pad: 1
    kernel_size: 3
    weight_filler {
      type: "xavier"
      std: 0.03
    }
    bias_filler {
      type: "constant"
      value: 0.2
    }
  }
}
layer {
  name: "conv2/relu_3x3"
  type: "ReLU"
  bottom: "conv2/3x3"
  top: "conv2/3x3"
}
layer {
  name: "conv2/norm2"
  type: "LRN"
  bottom: "conv2/3x3"
  top: "conv2/norm2"
  lrn_param {
    local_size: 5
    alpha: 0.0001
    beta: 0.75
  }
}
layer {
  name: "pool2/3x3_s2"
  type: "Pooling"
  bottom: "conv2/norm2"
  top: "pool2/3x3_s2"
  pooling_param {
    pool: MAX
    kernel_size: 3
    stride: 2
  }
}
layer {
  name: "inception_3a/1x1"
  type: "Convolution"
  bottom: "pool2/3x3_s2"
  top: "inception_3a/1x1"
  param {
    lr_mult: 1
    decay_mult: 1
  }
  param {
    lr_mult: 2
    decay_mult: 0
  }
  convolution_param {
    num_output: 64
    kernel_size: 1
    weight_filler {
      type: "xavier"
      std: 0.03
    }
    bias_filler {
      type: "constant"
      value: 0.2
    }
  }
}
layer {
  name: "inception_3a/relu_1x1"
  type: "ReLU"
  bottom: "inception_3a/1x1"
  top: "inception_3a/1x1"
}
layer {
  name: "inception_3a/3x3_reduce"
  type: "Convolution"
  bottom: "pool2/3x3_s2"
  top: "inception_3a/3x3_reduce"
  param {
    lr_mult: 1
    decay_mult: 1
  }
  param {
    lr_mult: 2
    decay_mult: 0
  }
  convolution_param {
    num_output: 96
    kernel_size: 1
    weight_filler {
      type: "xavier"
      std: 0.09
    }
    bias_filler {
      type: "constant"
      value: 0.2
    }
  }
}
layer {
  name: "inception_3a/relu_3x3_reduce"
  type: "ReLU"
  bottom: "inception_3a/3x3_reduce"
  top: "inception_3a/3x3_reduce"
}
layer {
  name: "inception_3a/3x3"
  type: "Convolution"
  bottom: "inception_3a/3x3_reduce"
  top: "inception_3a/3x3"
  param {
    lr_mult: 1
    decay_mult: 1
  }
  param {
    lr_mult: 2
    decay_mult: 0
  }
  convolution_param {
    num_output: 128
    pad: 1
    kernel_size: 3
    weight_filler {
      type: "xavier"
      std: 0.03
    }
    bias_filler {
      type: "constant"
      value: 0.2
    }
  }
}
layer {
  name: "inception_3a/relu_3x3"
  type: "ReLU"
  bottom: "inception_3a/3x3"
  top: "inception_3a/3x3"
}
layer {
  name: "inception_3a/5x5_reduce"
  type: "Convolution"
  bottom: "pool2/3x3_s2"
  top: "inception_3a/5x5_reduce"
  param {
    lr_mult: 1
    decay_mult: 1
  }
  param {
    lr_mult: 2
    decay_mult: 0
  }
  convolution_param {
    num_output: 16
    kernel_size: 1
    weight_filler {
      type: "xavier"
      std: 0.2
    }
    bias_filler {
      type: "constant"
      value: 0.2
    }
  }
}
layer {
  name: "inception_3a/relu_5x5_reduce"
  type: "ReLU"
  bottom: "inception_3a/5x5_reduce"
  top: "inception_3a/5x5_reduce"
}
layer {
  name: "inception_3a/5x5"
  type: "Convolution"
  bottom: "inception_3a/5x5_reduce"
  top: "inception_3a/5x5"
  param {
    lr_mult: 1
    decay_mult: 1
  }
  param {
    lr_mult: 2
    decay_mult: 0
  }
  convolution_param {
    num_output: 32
    pad: 2
    kernel_size: 5
    weight_filler {
      type: "xavier"
      std: 0.03
    }
    bias_filler {
      type: "constant"
      value: 0.2
    }
  }
}
layer {
  name: "inception_3a/relu_5x5"
  type: "ReLU"
  bottom: "inception_3a/5x5"
  top: "inception_3a/5x5"
}
layer {
  name: "inception_3a/pool"
  type: "Pooling"
  bottom: "pool2/3x3_s2"
  top: "inception_3a/pool"
  pooling_param {
    pool: MAX
    kernel_size: 3
    stride: 1
    pad: 1
  }
}
layer {
  name: "inception_3a/pool_proj"
  type: "Convolution"
  bottom: "inception_3a/pool"
  top: "inception_3a/pool_proj"
  param {
    lr_mult: 1
    decay_mult: 1
  }
  param {
    lr_mult: 2
    decay_mult: 0
  }
  convolution_param {
    num_output: 32
    kernel_size: 1
    weight_filler {
      type: "xavier"
      std: 0.1
    }
    bias_filler {
      type: "constant"
      value: 0.2
    }
  }
}
layer {
  name: "inception_3a/relu_pool_proj"
  type: "ReLU"
  bottom: "inception_3a/pool_proj"
  top: "inception_3a/pool_proj"
}
layer {
  name: "inception_3a/output"
  type: "Concat"
  bottom: "inception_3a/1x1"
  bottom: "inception_3a/3x3"
  bottom: "inception_3a/5x5"
  bottom: "inception_3a/pool_proj"
  top: "inception_3a/output"
}
layer {
  name: "inception_3b/1x1"
  type: "Convolution"
  bottom: "inception_3a/output"
  top: "inception_3b/1x1"
  param {
    lr_mult: 1
    decay_mult: 1
  }
  param {
    lr_mult: 2
    decay_mult: 0
  }
  convolution_param {
    num_output: 128
    kernel_size: 1
    weight_filler {
      type: "xavier"
      std: 0.03
    }
    bias_filler {
      type: "constant"
      value: 0.2
    }
  }
}
layer {
  name: "inception_3b/relu_1x1"
  type: "ReLU"
  bottom: "inception_3b/1x1"
  top: "inception_3b/1x1"
}
layer {
  name: "inception_3b/3x3_reduce"
  type: "Convolution"
  bottom: "inception_3a/output"
  top: "inception_3b/3x3_reduce"
  param {
    lr_mult: 1
    decay_mult: 1
  }
  param {
    lr_mult: 2
    decay_mult: 0
  }
  convolution_param {
    num_output: 128
    kernel_size: 1
    weight_filler {
      type: "xavier"
      std: 0.09
    }
    bias_filler {
      type: "constant"
      value: 0.2
    }
  }
}
layer {
  name: "inception_3b/relu_3x3_reduce"
  type: "ReLU"
  bottom: "inception_3b/3x3_reduce"
  top: "inception_3b/3x3_reduce"
}
layer {
  name: "inception_3b/3x3"
  type: "Convolution"
  bottom: "inception_3b/3x3_reduce"
  top: "inception_3b/3x3"
  param {
    lr_mult: 1
    decay_mult: 1
  }
  param {
    lr_mult: 2
    decay_mult: 0
  }
  convolution_param {
    num_output: 192
    pad: 1
    kernel_size: 3
    weight_filler {
      type: "xavier"
      std: 0.03
    }
    bias_filler {
      type: "constant"
      value: 0.2
    }
  }
}
layer {
  name: "inception_3b/relu_3x3"
  type: "ReLU"
  bottom: "inception_3b/3x3"
  top: "inception_3b/3x3"
}
layer {
  name: "inception_3b/5x5_reduce"
  type: "Convolution"
  bottom: "inception_3a/output"
  top: "inception_3b/5x5_reduce"
  param {
    lr_mult: 1
    decay_mult: 1
  }
  param {
    lr_mult: 2
    decay_mult: 0
  }
  convolution_param {
    num_output: 32
    kernel_size: 1
    weight_filler {
      type: "xavier"
      std: 0.2
    }
    bias_filler {
      type: "constant"
      value: 0.2
    }
  }
}
layer {
  name: "inception_3b/relu_5x5_reduce"
  type: "ReLU"
  bottom: "inception_3b/5x5_reduce"
  top: "inception_3b/5x5_reduce"
}
layer {
  name: "inception_3b/5x5"
  type: "Convolution"
  bottom: "inception_3b/5x5_reduce"
  top: "inception_3b/5x5"
  param {
    lr_mult: 1
    decay_mult: 1
  }
  param {
    lr_mult: 2
    decay_mult: 0
  }
  convolution_param {
    num_output: 96
    pad: 2
    kernel_size: 5
    weight_filler {
      type: "xavier"
      std: 0.03
    }
    bias_filler {
      type: "constant"
      value: 0.2
    }
  }
}
layer {
  name: "inception_3b/relu_5x5"
  type: "ReLU"
  bottom: "inception_3b/5x5"
  top: "inception_3b/5x5"
}
layer {
  name: "inception_3b/pool"
  type: "Pooling"
  bottom: "inception_3a/output"
  top: "inception_3b/pool"
  pooling_param {
    pool: MAX
    kernel_size: 3
    stride: 1
    pad: 1
  }
}
layer {
  name: "inception_3b/pool_proj"
  type: "Convolution"
  bottom: "inception_3b/pool"
  top: "inception_3b/pool_proj"
  param {
    lr_mult: 1
    decay_mult: 1
  }
  param {
    lr_mult: 2
    decay_mult: 0
  }
  convolution_param {
    num_output: 64
    kernel_size: 1
    weight_filler {
      type: "xavier"
      std: 0.1
    }
    bias_filler {
      type: "constant"
      value: 0.2
    }
  }
}
layer {
  name: "inception_3b/relu_pool_proj"
  type: "ReLU"
  bottom: "inception_3b/pool_proj"
  top: "inception_3b/pool_proj"
}
layer {
  name: "inception_3b/output"
  type: "Concat"
  bottom: "inception_3b/1x1"
  bottom: "inception_3b/3x3"
  bottom: "inception_3b/5x5"
  bottom: "inception_3b/pool_proj"
  top: "inception_3b/output"
}
layer {
  name: "pool3/3x3_s2"
  type: "Pooling"
  bottom: "inception_3b/output"
  top: "pool3/3x3_s2"
  pooling_param {
    pool: MAX
    kernel_size: 3
    stride: 2
  }
}
layer {
  name: "inception_4a/1x1"
  type: "Convolution"
  bottom: "pool3/3x3_s2"
  top: "inception_4a/1x1"
  param {
    lr_mult: 1
    decay_mult: 1
  }
  param {
    lr_mult: 2
    decay_mult: 0
  }
  convolution_param {
    num_output: 192
    kernel_size: 1
    weight_filler {
      type: "xavier"
      std: 0.03
    }
    bias_filler {
      type: "constant"
      value: 0.2
    }
  }
}
layer {
  name: "inception_4a/relu_1x1"
  type: "ReLU"
  bottom: "inception_4a/1x1"
  top: "inception_4a/1x1"
}
layer {
  name: "inception_4a/3x3_reduce"
  type: "Convolution"
  bottom: "pool3/3x3_s2"
  top: "inception_4a/3x3_reduce"
  param {
    lr_mult: 1
    decay_mult: 1
  }
  param {
    lr_mult: 2
    decay_mult: 0
  }
  convolution_param {
    num_output: 96
    kernel_size: 1
    weight_filler {
      type: "xavier"
      std: 0.09
    }
    bias_filler {
      type: "constant"
      value: 0.2
    }
  }
}
layer {
  name: "inception_4a/relu_3x3_reduce"
  type: "ReLU"
  bottom: "inception_4a/3x3_reduce"
  top: "inception_4a/3x3_reduce"
}
layer {
  name: "inception_4a/3x3"
  type: "Convolution"
  bottom: "inception_4a/3x3_reduce"
  top: "inception_4a/3x3"
  param {
    lr_mult: 1
    decay_mult: 1
  }
  param {
    lr_mult: 2
    decay_mult: 0
  }
  convolution_param {
    num_output: 208
    pad: 1
    kernel_size: 3
    weight_filler {
      type: "xavier"
      std: 0.03
    }
    bias_filler {
      type: "constant"
      value: 0.2
    }
  }
}
layer {
  name: "inception_4a/relu_3x3"
  type: "ReLU"
  bottom: "inception_4a/3x3"
  top: "inception_4a/3x3"
}
layer {
  name: "inception_4a/5x5_reduce"
  type: "Convolution"
  bottom: "pool3/3x3_s2"
  top: "inception_4a/5x5_reduce"
  param {
    lr_mult: 1
    decay_mult: 1
  }
  param {
    lr_mult: 2
    decay_mult: 0
  }
  convolution_param {
    num_output: 16
    kernel_size: 1
    weight_filler {
      type: "xavier"
      std: 0.2
    }
    bias_filler {
      type: "constant"
      value: 0.2
    }
  }
}
layer {
  name: "inception_4a/relu_5x5_reduce"
  type: "ReLU"
  bottom: "inception_4a/5x5_reduce"
  top: "inception_4a/5x5_reduce"
}
layer {
  name: "inception_4a/5x5"
  type: "Convolution"
  bottom: "inception_4a/5x5_reduce"
  top: "inception_4a/5x5"
  param {
    lr_mult: 1
    decay_mult: 1
  }
  param {
    lr_mult: 2
    decay_mult: 0
  }
  convolution_param {
    num_output: 48
    pad: 2
    kernel_size: 5
    weight_filler {
      type: "xavier"
      std: 0.03
    }
    bias_filler {
      type: "constant"
      value: 0.2
    }
  }
}
layer {
  name: "inception_4a/relu_5x5"
  type: "ReLU"
  bottom: "inception_4a/5x5"
  top: "inception_4a/5x5"
}
layer {
  name: "inception_4a/pool"
  type: "Pooling"
  bottom: "pool3/3x3_s2"
  top: "inception_4a/pool"
  pooling_param {
    pool: MAX
    kernel_size: 3
    stride: 1
    pad: 1
  }
}
layer {
  name: "inception_4a/pool_proj"
  type: "Convolution"
  bottom: "inception_4a/pool"
  top: "inception_4a/pool_proj"
  param {
    lr_mult: 1
    decay_mult: 1
  }
  param {
    lr_mult: 2
    decay_mult: 0
  }
  convolution_param {
    num_output: 64
    kernel_size: 1
    weight_filler {
      type: "xavier"
      std: 0.1
    }
    bias_filler {
      type: "constant"
      value: 0.2
    }
  }
}
layer {
  name: "inception_4a/relu_pool_proj"
  type: "ReLU"
  bottom: "inception_4a/pool_proj"
  top: "inception_4a/pool_proj"
}
layer {
  name: "inception_4a/output"
  type: "Concat"
  bottom: "inception_4a/1x1"
  bottom: "inception_4a/3x3"
  bottom: "inception_4a/5x5"
  bottom: "inception_4a/pool_proj"
  top: "inception_4a/output"
}
layer {
  name: "loss1/ave_pool"
  type: "Pooling"
  bottom: "inception_4a/output"
  top: "loss1/ave_pool"
  pooling_param {
    pool: AVE
    kernel_size: 5
    stride: 3
  }
}
layer {
  name: "loss1/conv"
  type: "Convolution"
  bottom: "loss1/ave_pool"
  top: "loss1/conv"
  param {
    lr_mult: 1
    decay_mult: 1
  }
  param {
    lr_mult: 2
    decay_mult: 0
  }
  convolution_param {
    num_output: 128
    kernel_size: 1
    weight_filler {
      type: "xavier"
      std: 0.08
    }
    bias_filler {
      type: "constant"
      value: 0.2
    }
  }
}
layer {
  name: "loss1/relu_conv"
  type: "ReLU"
  bottom: "loss1/conv"
  top: "loss1/conv"
}
layer {
  name: "loss1/fc"
  type: "InnerProduct"
  bottom: "loss1/conv"
  top: "loss1/fc"
  param {
    lr_mult: 1
    decay_mult: 1
  }
  param {
    lr_mult: 2
    decay_mult: 0
  }
  inner_product_param {
    num_output: 1024
    weight_filler {
      type: "xavier"
      std: 0.02
    }
    bias_filler {
      type: "constant"
      value: 0.2
    }
  }
}
layer {
  name: "loss1/relu_fc"
  type: "ReLU"
  bottom: "loss1/fc"
  top: "loss1/fc"
}
layer {
  name: "loss1/drop_fc"
  type: "Dropout"
  bottom: "loss1/fc"
  top: "loss1/fc"
  dropout_param {
    dropout_ratio: 0.7
  }
}
layer {
  name: "loss1/classifier_plantvillage"
  type: "InnerProduct"
  bottom: "loss1/fc"
  top: "loss1/classifier_plantvillage"
  param {
    lr_mult: 1
    decay_mult: 1
  }
  param {
    lr_mult: 2
    decay_mult: 0
  }
  inner_product_param {
    num_output: 38
    weight_filler {
      type: "xavier"
      std: 0.0009765625
    }
    bias_filler {
      type: "constant"
      value: 0
    }
  }
}
layer {
  name: "inception_4b/1x1"
  type: "Convolution"
  bottom: "inception_4a/output"
  top: "inception_4b/1x1"
  param {
    lr_mult: 1
    decay_mult: 1
  }
  param {
    lr_mult: 2
    decay_mult: 0
  }
  convolution_param {
    num_output: 160
    kernel_size: 1
    weight_filler {
      type: "xavier"
      std: 0.03
    }
    bias_filler {
      type: "constant"
      value: 0.2
    }
  }
}
layer {
  name: "inception_4b/relu_1x1"
  type: "ReLU"
  bottom: "inception_4b/1x1"
  top: "inception_4b/1x1"
}
layer {
  name: "inception_4b/3x3_reduce"
  type: "Convolution"
  bottom: "inception_4a/output"
  top: "inception_4b/3x3_reduce"
  param {
    lr_mult: 1
    decay_mult: 1
  }
  param {
    lr_mult: 2
    decay_mult: 0
  }
  convolution_param {
    num_output: 112
    kernel_size: 1
    weight_filler {
      type: "xavier"
      std: 0.09
    }
    bias_filler {
      type: "constant"
      value: 0.2
    }
  }
}
layer {
  name: "inception_4b/relu_3x3_reduce"
  type: "ReLU"
  bottom: "inception_4b/3x3_reduce"
  top: "inception_4b/3x3_reduce"
}
layer {
  name: "inception_4b/3x3"
  type: "Convolution"
  bottom: "inception_4b/3x3_reduce"
  top: "inception_4b/3x3"
  param {
    lr_mult: 1
    decay_mult: 1
  }
  param {
    lr_mult: 2
    decay_mult: 0
  }
  convolution_param {
    num_output: 224
    pad: 1
    kernel_size: 3
    weight_filler {
      type: "xavier"
      std: 0.03
    }
    bias_filler {
      type: "constant"
      value: 0.2
    }
  }
}
layer {
  name: "inception_4b/relu_3x3"
  type: "ReLU"
  bottom: "inception_4b/3x3"
  top: "inception_4b/3x3"
}
layer {
  name: "inception_4b/5x5_reduce"
  type: "Convolution"
  bottom: "inception_4a/output"
  top: "inception_4b/5x5_reduce"
  param {
    lr_mult: 1
    decay_mult: 1
  }
  param {
    lr_mult: 2
    decay_mult: 0
  }
  convolution_param {
    num_output: 24
    kernel_size: 1
    weight_filler {
      type: "xavier"
      std: 0.2
    }
    bias_filler {
      type: "constant"
      value: 0.2
    }
  }
}
layer {
  name: "inception_4b/relu_5x5_reduce"
  type: "ReLU"
  bottom: "inception_4b/5x5_reduce"
  top: "inception_4b/5x5_reduce"
}
layer {
  name: "inception_4b/5x5"
  type: "Convolution"
  bottom: "inception_4b/5x5_reduce"
  top: "inception_4b/5x5"
  param {
    lr_mult: 1
    decay_mult: 1
  }
  param {
    lr_mult: 2
    decay_mult: 0
  }
  convolution_param {
    num_output: 64
    pad: 2
    kernel_size: 5
    weight_filler {
      type: "xavier"
      std: 0.03
    }
    bias_filler {
      type: "constant"
      value: 0.2
    }
  }
}
layer {
  name: "inception_4b/relu_5x5"
  type: "ReLU"
  bottom: "inception_4b/5x5"
  top: "inception_4b/5x5"
}
layer {
  name: "inception_4b/pool"
  type: "Pooling"
  bottom: "inception_4a/output"
  top: "inception_4b/pool"
  pooling_param {
    pool: MAX
    kernel_size: 3
    stride: 1
    pad: 1
  }
}
layer {
  name: "inception_4b/pool_proj"
  type: "Convolution"
  bottom: "inception_4b/pool"
  top: "inception_4b/pool_proj"
  param {
    lr_mult: 1
    decay_mult: 1
  }
  param {
    lr_mult: 2
    decay_mult: 0
  }
  convolution_param {
    num_output: 64
    kernel_size: 1
    weight_filler {
      type: "xavier"
      std: 0.1
    }
    bias_filler {
      type: "constant"
      value: 0.2
    }
  }
}
layer {
  name: "inception_4b/relu_pool_proj"
  type: "ReLU"
  bottom: "inception_4b/pool_proj"
  top: "inception_4b/pool_proj"
}
layer {
  name: "inception_4b/output"
  type: "Concat"
  bottom: "inception_4b/1x1"
  bottom: "inception_4b/3x3"
  bottom: "inception_4b/5x5"
  bottom: "inception_4b/pool_proj"
  top: "inception_4b/output"
}
layer {
  name: "inception_4c/1x1"
  type: "Convolution"
  bottom: "inception_4b/output"
  top: "inception_4c/1x1"
  param {
    lr_mult: 1
    decay_mult: 1
  }
  param {
    lr_mult: 2
    decay_mult: 0
  }
  convolution_param {
    num_output: 128
    kernel_size: 1
    weight_filler {
      type: "xavier"
      std: 0.03
    }
    bias_filler {
      type: "constant"
      value: 0.2
    }
  }
}
layer {
  name: "inception_4c/relu_1x1"
  type: "ReLU"
  bottom: "inception_4c/1x1"
  top: "inception_4c/1x1"
}
layer {
  name: "inception_4c/3x3_reduce"
  type: "Convolution"
  bottom: "inception_4b/output"
  top: "inception_4c/3x3_reduce"
  param {
    lr_mult: 1
    decay_mult: 1
  }
  param {
    lr_mult: 2
    decay_mult: 0
  }
  convolution_param {
    num_output: 128
    kernel_size: 1
    weight_filler {
      type: "xavier"
      std: 0.09
    }
    bias_filler {
      type: "constant"
      value: 0.2
    }
  }
}
layer {
  name: "inception_4c/relu_3x3_reduce"
  type: "ReLU"
  bottom: "inception_4c/3x3_reduce"
  top: "inception_4c/3x3_reduce"
}
layer {
  name: "inception_4c/3x3"
  type: "Convolution"
  bottom: "inception_4c/3x3_reduce"
  top: "inception_4c/3x3"
  param {
    lr_mult: 1
    decay_mult: 1
  }
  param {
    lr_mult: 2
    decay_mult: 0
  }
  convolution_param {
    num_output: 256
    pad: 1
    kernel_size: 3
    weight_filler {
      type: "xavier"
      std: 0.03
    }
    bias_filler {
      type: "constant"
      value: 0.2
    }
  }
}
layer {
  name: "inception_4c/relu_3x3"
  type: "ReLU"
  bottom: "inception_4c/3x3"
  top: "inception_4c/3x3"
}
layer {
  name: "inception_4c/5x5_reduce"
  type: "Convolution"
  bottom: "inception_4b/output"
  top: "inception_4c/5x5_reduce"
  param {
    lr_mult: 1
    decay_mult: 1
  }
  param {
    lr_mult: 2
    decay_mult: 0
  }
  convolution_param {
    num_output: 24
    kernel_size: 1
    weight_filler {
      type: "xavier"
      std: 0.2
    }
    bias_filler {
      type: "constant"
      value: 0.2
    }
  }
}
layer {
  name: "inception_4c/relu_5x5_reduce"
  type: "ReLU"
  bottom: "inception_4c/5x5_reduce"
  top: "inception_4c/5x5_reduce"
}
layer {
  name: "inception_4c/5x5"
  type: "Convolution"
  bottom: "inception_4c/5x5_reduce"
  top: "inception_4c/5x5"
  param {
    lr_mult: 1
    decay_mult: 1
  }
  param {
    lr_mult: 2
    decay_mult: 0
  }
  convolution_param {
    num_output: 64
    pad: 2
    kernel_size: 5
    weight_filler {
      type: "xavier"
      std: 0.03
    }
    bias_filler {
      type: "constant"
      value: 0.2
    }
  }
}
layer {
  name: "inception_4c/relu_5x5"
  type: "ReLU"
  bottom: "inception_4c/5x5"
  top: "inception_4c/5x5"
}
layer {
  name: "inception_4c/pool"
  type: "Pooling"
  bottom: "inception_4b/output"
  top: "inception_4c/pool"
  pooling_param {
    pool: MAX
    kernel_size: 3
    stride: 1
    pad: 1
  }
}
layer {
  name: "inception_4c/pool_proj"
  type: "Convolution"
  bottom: "inception_4c/pool"
  top: "inception_4c/pool_proj"
  param {
    lr_mult: 1
    decay_mult: 1
  }
  param {
    lr_mult: 2
    decay_mult: 0
  }
  convolution_param {
    num_output: 64
    kernel_size: 1
    weight_filler {
      type: "xavier"
      std: 0.1
    }
    bias_filler {
      type: "constant"
      value: 0.2
    }
  }
}
layer {
  name: "inception_4c/relu_pool_proj"
  type: "ReLU"
  bottom: "inception_4c/pool_proj"
  top: "inception_4c/pool_proj"
}
layer {
  name: "inception_4c/output"
  type: "Concat"
  bottom: "inception_4c/1x1"
  bottom: "inception_4c/3x3"
  bottom: "inception_4c/5x5"
  bottom: "inception_4c/pool_proj"
  top: "inception_4c/output"
}
layer {
  name: "inception_4d/1x1"
  type: "Convolution"
  bottom: "inception_4c/output"
  top: "inception_4d/1x1"
  param {
    lr_mult: 1
    decay_mult: 1
  }
  param {
    lr_mult: 2
    decay_mult: 0
  }
  convolution_param {
    num_output: 112
    kernel_size: 1
    weight_filler {
      type: "xavier"
      std: 0.03
    }
    bias_filler {
      type: "constant"
      value: 0.2
    }
  }
}
layer {
  name: "inception_4d/relu_1x1"
  type: "ReLU"
  bottom: "inception_4d/1x1"
  top: "inception_4d/1x1"
}
layer {
  name: "inception_4d/3x3_reduce"
  type: "Convolution"
  bottom: "inception_4c/output"
  top: "inception_4d/3x3_reduce"
  param {
    lr_mult: 1
    decay_mult: 1
  }
  param {
    lr_mult: 2
    decay_mult: 0
  }
  convolution_param {
    num_output: 144
    kernel_size: 1
    weight_filler {
      type: "xavier"
      std: 0.09
    }
    bias_filler {
      type: "constant"
      value: 0.2
    }
  }
}
layer {
  name: "inception_4d/relu_3x3_reduce"
  type: "ReLU"
  bottom: "inception_4d/3x3_reduce"
  top: "inception_4d/3x3_reduce"
}
layer {
  name: "inception_4d/3x3"
  type: "Convolution"
  bottom: "inception_4d/3x3_reduce"
  top: "inception_4d/3x3"
  param {
    lr_mult: 1
    decay_mult: 1
  }
  param {
    lr_mult: 2
    decay_mult: 0
  }
  convolution_param {
    num_output: 288
    pad: 1
    kernel_size: 3
    weight_filler {
      type: "xavier"
      std: 0.03
    }
    bias_filler {
      type: "constant"
      value: 0.2
    }
  }
}
layer {
  name: "inception_4d/relu_3x3"
  type: "ReLU"
  bottom: "inception_4d/3x3"
  top: "inception_4d/3x3"
}
layer {
  name: "inception_4d/5x5_reduce"
  type: "Convolution"
  bottom: "inception_4c/output"
  top: "inception_4d/5x5_reduce"
  param {
    lr_mult: 1
    decay_mult: 1
  }
  param {
    lr_mult: 2
    decay_mult: 0
  }
  convolution_param {
    num_output: 32
    kernel_size: 1
    weight_filler {
      type: "xavier"
      std: 0.2
    }
    bias_filler {
      type: "constant"
      value: 0.2
    }
  }
}
layer {
  name: "inception_4d/relu_5x5_reduce"
  type: "ReLU"
  bottom: "inception_4d/5x5_reduce"
  top: "inception_4d/5x5_reduce"
}
layer {
  name: "inception_4d/5x5"
  type: "Convolution"
  bottom: "inception_4d/5x5_reduce"
  top: "inception_4d/5x5"
  param {
    lr_mult: 1
    decay_mult: 1
  }
  param {
    lr_mult: 2
    decay_mult: 0
  }
  convolution_param {
    num_output: 64
    pad: 2
    kernel_size: 5
    weight_filler {
      type: "xavier"
      std: 0.03
    }
    bias_filler {
      type: "constant"
      value: 0.2
    }
  }
}
layer {
  name: "inception_4d/relu_5x5"
  type: "ReLU"
  bottom: "inception_4d/5x5"
  top: "inception_4d/5x5"
}
layer {
  name: "inception_4d/pool"
  type: "Pooling"
  bottom: "inception_4c/output"
  top: "inception_4d/pool"
  pooling_param {
    pool: MAX
    kernel_size: 3
    stride: 1
    pad: 1
  }
}
layer {
  name: "inception_4d/pool_proj"
  type: "Convolution"
  bottom: "inception_4d/pool"
  top: "inception_4d/pool_proj"
  param {
    lr_mult: 1
    decay_mult: 1
  }
  param {
    lr_mult: 2
    decay_mult: 0
  }
  convolution_param {
    num_output: 64
    kernel_size: 1
    weight_filler {
      type: "xavier"
      std: 0.1
    }
    bias_filler {
      type: "constant"
      value: 0.2
    }
  }
}
layer {
  name: "inception_4d/relu_pool_proj"
  type: "ReLU"
  bottom: "inception_4d/pool_proj"
  top: "inception_4d/pool_proj"
}
layer {
  name: "inception_4d/output"
  type: "Concat"
  bottom: "inception_4d/1x1"
  bottom: "inception_4d/3x3"
  bottom: "inception_4d/5x5"
  bottom: "inception_4d/pool_proj"
  top: "inception_4d/output"
}
layer {
  name: "loss2/ave_pool"
  type: "Pooling"
  bottom: "inception_4d/output"
  top: "loss2/ave_pool"
  pooling_param {
    pool: AVE
    kernel_size: 5
    stride: 3
  }
}
layer {
  name: "loss2/conv"
  type: "Convolution"
  bottom: "loss2/ave_pool"
  top: "loss2/conv"
  param {
    lr_mult: 1
    decay_mult: 1
  }
  param {
    lr_mult: 2
    decay_mult: 0
  }
  convolution_param {
    num_output: 128
    kernel_size: 1
    weight_filler {
      type: "xavier"
      std: 0.08
    }
    bias_filler {
      type: "constant"
      value: 0.2
    }
  }
}
layer {
  name: "loss2/relu_conv"
  type: "ReLU"
  bottom: "loss2/conv"
  top: "loss2/conv"
}
layer {
  name: "loss2/fc"
  type: "InnerProduct"
  bottom: "loss2/conv"
  top: "loss2/fc"
  param {
    lr_mult: 1
    decay_mult: 1
  }
  param {
    lr_mult: 2
    decay_mult: 0
  }
  inner_product_param {
    num_output: 1024
    weight_filler {
      type: "xavier"
      std: 0.02
    }
    bias_filler {
      type: "constant"
      value: 0.2
    }
  }
}
layer {
  name: "loss2/relu_fc"
  type: "ReLU"
  bottom: "loss2/fc"
  top: "loss2/fc"
}
layer {
  name: "loss2/drop_fc"
  type: "Dropout"
  bottom: "loss2/fc"
  top: "loss2/fc"
  dropout_param {
    dropout_ratio: 0.7
  }
}
layer {
  name: "loss2/classifier_plantvillage"
  type: "InnerProduct"
  bottom: "loss2/fc"
  top: "loss2/classifier_plantvillage"
  param {
    lr_mult: 1
    decay_mult: 1
  }
  param {
    lr_mult: 2
    decay_mult: 0
  }
  inner_product_param {
    num_output: 38
    weight_filler {
      type: "xavier"
      std: 0.0009765625
    }
    bias_filler {
      type: "constant"
      value: 0
    }
  }
}
layer {
  name: "inception_4e/1x1"
  type: "Convolution"
  bottom: "inception_4d/output"
  top: "inception_4e/1x1"
  param {
    lr_mult: 1
    decay_mult: 1
  }
  param {
    lr_mult: 2
    decay_mult: 0
  }
  convolution_param {
    num_output: 256
    kernel_size: 1
    weight_filler {
      type: "xavier"
      std: 0.03
    }
    bias_filler {
      type: "constant"
      value: 0.2
    }
  }
}
layer {
  name: "inception_4e/relu_1x1"
  type: "ReLU"
  bottom: "inception_4e/1x1"
  top: "inception_4e/1x1"
}
layer {
  name: "inception_4e/3x3_reduce"
  type: "Convolution"
  bottom: "inception_4d/output"
  top: "inception_4e/3x3_reduce"
  param {
    lr_mult: 1
    decay_mult: 1
  }
  param {
    lr_mult: 2
    decay_mult: 0
  }
  convolution_param {
    num_output: 160
    kernel_size: 1
    weight_filler {
      type: "xavier"
      std: 0.09
    }
    bias_filler {
      type: "constant"
      value: 0.2
    }
  }
}
layer {
  name: "inception_4e/relu_3x3_reduce"
  type: "ReLU"
  bottom: "inception_4e/3x3_reduce"
  top: "inception_4e/3x3_reduce"
}
layer {
  name: "inception_4e/3x3"
  type: "Convolution"
  bottom: "inception_4e/3x3_reduce"
  top: "inception_4e/3x3"
  param {
    lr_mult: 1
    decay_mult: 1
  }
  param {
    lr_mult: 2
    decay_mult: 0
  }
  convolution_param {
    num_output: 320
    pad: 1
    kernel_size: 3
    weight_filler {
      type: "xavier"
      std: 0.03
    }
    bias_filler {
      type: "constant"
      value: 0.2
    }
  }
}
layer {
  name: "inception_4e/relu_3x3"
  type: "ReLU"
  bottom: "inception_4e/3x3"
  top: "inception_4e/3x3"
}
layer {
  name: "inception_4e/5x5_reduce"
  type: "Convolution"
  bottom: "inception_4d/output"
  top: "inception_4e/5x5_reduce"
  param {
    lr_mult: 1
    decay_mult: 1
  }
  param {
    lr_mult: 2
    decay_mult: 0
  }
  convolution_param {
    num_output: 32
    kernel_size: 1
    weight_filler {
      type: "xavier"
      std: 0.2
    }
    bias_filler {
      type: "constant"
      value: 0.2
    }
  }
}
layer {
  name: "inception_4e/relu_5x5_reduce"
  type: "ReLU"
  bottom: "inception_4e/5x5_reduce"
  top: "inception_4e/5x5_reduce"
}
layer {
  name: "inception_4e/5x5"
  type: "Convolution"
  bottom: "inception_4e/5x5_reduce"
  top: "inception_4e/
I0403 21:49:24.556802 24357 layer_factory.hpp:77] Creating layer data
I0403 21:49:24.557380 24357 net.cpp:91] Creating Layer data
I0403 21:49:24.557413 24357 net.cpp:399] data -> data
I0403 21:49:24.557466 24357 net.cpp:399] data -> label
I0403 21:49:24.557504 24357 data_transformer.cpp:25] Loading mean file from: /home/mohanty/data/final_dataset/lmdb/segmented-80-20/mean.binaryproto
I0403 21:49:24.558706 24359 db_lmdb.cpp:38] Opened lmdb /home/mohanty/data/final_dataset/lmdb/segmented-80-20/test_db
I0403 21:49:24.570363 24357 data_layer.cpp:41] output data size: 24,3,224,224
I0403 21:49:24.597650 24357 net.cpp:141] Setting up data
I0403 21:49:24.597733 24357 net.cpp:148] Top shape: 24 3 224 224 (3612672)
I0403 21:49:24.597756 24357 net.cpp:148] Top shape: 24 (24)
I0403 21:49:24.597772 24357 net.cpp:156] Memory required for data: 14450784
I0403 21:49:24.597801 24357 layer_factory.hpp:77] Creating layer label_data_1_split
I0403 21:49:24.597829 24357 net.cpp:91] Creating Layer label_data_1_split
I0403 21:49:24.597847 24357 net.cpp:425] label_data_1_split <- label
I0403 21:49:24.597882 24357 net.cpp:399] label_data_1_split -> label_data_1_split_0
I0403 21:49:24.597909 24357 net.cpp:399] label_data_1_split -> label_data_1_split_1
I0403 21:49:24.597934 24357 net.cpp:399] label_data_1_split -> label_data_1_split_2
I0403 21:49:24.597955 24357 net.cpp:399] label_data_1_split -> label_data_1_split_3
I0403 21:49:24.597975 24357 net.cpp:399] label_data_1_split -> label_data_1_split_4
I0403 21:49:24.597996 24357 net.cpp:399] label_data_1_split -> label_data_1_split_5
I0403 21:49:24.598017 24357 net.cpp:399] label_data_1_split -> label_data_1_split_6
I0403 21:49:24.598038 24357 net.cpp:399] label_data_1_split -> label_data_1_split_7
I0403 21:49:24.598059 24357 net.cpp:399] label_data_1_split -> label_data_1_split_8
I0403 21:49:24.598080 24357 net.cpp:399] label_data_1_split -> label_data_1_split_9
I0403 21:49:24.598194 24357 net.cpp:141] Setting up label_data_1_split
I0403 21:49:24.598228 24357 net.cpp:148] Top shape: 24 (24)
I0403 21:49:24.598247 24357 net.cpp:148] Top shape: 24 (24)
I0403 21:49:24.598263 24357 net.cpp:148] Top shape: 24 (24)
I0403 21:49:24.598279 24357 net.cpp:148] Top shape: 24 (24)
I0403 21:49:24.598295 24357 net.cpp:148] Top shape: 24 (24)
I0403 21:49:24.598311 24357 net.cpp:148] Top shape: 24 (24)
I0403 21:49:24.598330 24357 net.cpp:148] Top shape: 24 (24)
I0403 21:49:24.598345 24357 net.cpp:148] Top shape: 24 (24)
I0403 21:49:24.598361 24357 net.cpp:148] Top shape: 24 (24)
I0403 21:49:24.598377 24357 net.cpp:148] Top shape: 24 (24)
I0403 21:49:24.598424 24357 net.cpp:156] Memory required for data: 14451744
I0403 21:49:24.598443 24357 layer_factory.hpp:77] Creating layer conv1/7x7_s2
I0403 21:49:24.598474 24357 net.cpp:91] Creating Layer conv1/7x7_s2
I0403 21:49:24.598494 24357 net.cpp:425] conv1/7x7_s2 <- data
I0403 21:49:24.598513 24357 net.cpp:399] conv1/7x7_s2 -> conv1/7x7_s2
I0403 21:49:24.737112 24357 net.cpp:141] Setting up conv1/7x7_s2
I0403 21:49:24.737192 24357 net.cpp:148] Top shape: 24 64 112 112 (19267584)
I0403 21:49:24.737215 24357 net.cpp:156] Memory required for data: 91522080
I0403 21:49:24.737246 24357 layer_factory.hpp:77] Creating layer conv1/relu_7x7
I0403 21:49:24.737273 24357 net.cpp:91] Creating Layer conv1/relu_7x7
I0403 21:49:24.737293 24357 net.cpp:425] conv1/relu_7x7 <- conv1/7x7_s2
I0403 21:49:24.737313 24357 net.cpp:386] conv1/relu_7x7 -> conv1/7x7_s2 (in-place)
I0403 21:49:24.737560 24357 net.cpp:141] Setting up conv1/relu_7x7
I0403 21:49:24.737586 24357 net.cpp:148] Top shape: 24 64 112 112 (19267584)
I0403 21:49:24.737603 24357 net.cpp:156] Memory required for data: 168592416
I0403 21:49:24.737619 24357 layer_factory.hpp:77] Creating layer pool1/3x3_s2
I0403 21:49:24.737644 24357 net.cpp:91] Creating Layer pool1/3x3_s2
I0403 21:49:24.737663 24357 net.cpp:425] pool1/3x3_s2 <- conv1/7x7_s2
I0403 21:49:24.737681 24357 net.cpp:399] pool1/3x3_s2 -> pool1/3x3_s2
I0403 21:49:24.737753 24357 net.cpp:141] Setting up pool1/3x3_s2
I0403 21:49:24.737778 24357 net.cpp:148] Top shape: 24 64 56 56 (4816896)
I0403 21:49:24.737794 24357 net.cpp:156] Memory required for data: 187860000
I0403 21:49:24.737809 24357 layer_factory.hpp:77] Creating layer pool1/norm1
I0403 21:49:24.737833 24357 net.cpp:91] Creating Layer pool1/norm1
I0403 21:49:24.737853 24357 net.cpp:425] pool1/norm1 <- pool1/3x3_s2
I0403 21:49:24.737871 24357 net.cpp:399] pool1/norm1 -> pool1/norm1
I0403 21:49:24.738145 24357 net.cpp:141] Setting up pool1/norm1
I0403 21:49:24.738173 24357 net.cpp:148] Top shape: 24 64 56 56 (4816896)
I0403 21:49:24.738188 24357 net.cpp:156] Memory required for data: 207127584
I0403 21:49:24.738216 24357 layer_factory.hpp:77] Creating layer conv2/3x3_reduce
I0403 21:49:24.738243 24357 net.cpp:91] Creating Layer conv2/3x3_reduce
I0403 21:49:24.738260 24357 net.cpp:425] conv2/3x3_reduce <- pool1/norm1
I0403 21:49:24.738279 24357 net.cpp:399] conv2/3x3_reduce -> conv2/3x3_reduce
I0403 21:49:24.739578 24357 net.cpp:141] Setting up conv2/3x3_reduce
I0403 21:49:24.739606 24357 net.cpp:148] Top shape: 24 64 56 56 (4816896)
I0403 21:49:24.739624 24357 net.cpp:156] Memory required for data: 226395168
I0403 21:49:24.739645 24357 layer_factory.hpp:77] Creating layer conv2/relu_3x3_reduce
I0403 21:49:24.739665 24357 net.cpp:91] Creating Layer conv2/relu_3x3_reduce
I0403 21:49:24.739681 24357 net.cpp:425] conv2/relu_3x3_reduce <- conv2/3x3_reduce
I0403 21:49:24.739699 24357 net.cpp:386] conv2/relu_3x3_reduce -> conv2/3x3_reduce (in-place)
I0403 21:49:24.739941 24357 net.cpp:141] Setting up conv2/relu_3x3_reduce
I0403 21:49:24.739967 24357 net.cpp:148] Top shape: 24 64 56 56 (4816896)
I0403 21:49:24.739984 24357 net.cpp:156] Memory required for data: 245662752
I0403 21:49:24.740000 24357 layer_factory.hpp:77] Creating layer conv2/3x3
I0403 21:49:24.740021 24357 net.cpp:91] Creating Layer conv2/3x3
I0403 21:49:24.740039 24357 net.cpp:425] conv2/3x3 <- conv2/3x3_reduce
I0403 21:49:24.740059 24357 net.cpp:399] conv2/3x3 -> conv2/3x3
I0403 21:49:24.742281 24357 net.cpp:141] Setting up conv2/3x3
I0403 21:49:24.742311 24357 net.cpp:148] Top shape: 24 192 56 56 (14450688)
I0403 21:49:24.742329 24357 net.cpp:156] Memory required for data: 303465504
I0403 21:49:24.742350 24357 layer_factory.hpp:77] Creating layer conv2/relu_3x3
I0403 21:49:24.742372 24357 net.cpp:91] Creating Layer conv2/relu_3x3
I0403 21:49:24.742389 24357 net.cpp:425] conv2/relu_3x3 <- conv2/3x3
I0403 21:49:24.742408 24357 net.cpp:386] conv2/relu_3x3 -> conv2/3x3 (in-place)
I0403 21:49:24.742579 24357 net.cpp:141] Setting up conv2/relu_3x3
I0403 21:49:24.742606 24357 net.cpp:148] Top shape: 24 192 56 56 (14450688)
I0403 21:49:24.742655 24357 net.cpp:156] Memory required for data: 361268256
I0403 21:49:24.742671 24357 layer_factory.hpp:77] Creating layer conv2/norm2
I0403 21:49:24.742691 24357 net.cpp:91] Creating Layer conv2/norm2
I0403 21:49:24.742707 24357 net.cpp:425] conv2/norm2 <- conv2/3x3
I0403 21:49:24.742729 24357 net.cpp:399] conv2/norm2 -> conv2/norm2
I0403 21:49:24.743021 24357 net.cpp:141] Setting up conv2/norm2
I0403 21:49:24.743048 24357 net.cpp:148] Top shape: 24 192 56 56 (14450688)
I0403 21:49:24.743064 24357 net.cpp:156] Memory required for data: 419071008
I0403 21:49:24.743080 24357 layer_factory.hpp:77] Creating layer pool2/3x3_s2
I0403 21:49:24.743098 24357 net.cpp:91] Creating Layer pool2/3x3_s2
I0403 21:49:24.743114 24357 net.cpp:425] pool2/3x3_s2 <- conv2/norm2
I0403 21:49:24.743137 24357 net.cpp:399] pool2/3x3_s2 -> pool2/3x3_s2
I0403 21:49:24.743190 24357 net.cpp:141] Setting up pool2/3x3_s2
I0403 21:49:24.743216 24357 net.cpp:148] Top shape: 24 192 28 28 (3612672)
I0403 21:49:24.743232 24357 net.cpp:156] Memory required for data: 433521696
I0403 21:49:24.743247 24357 layer_factory.hpp:77] Creating layer pool2/3x3_s2_pool2/3x3_s2_0_split
I0403 21:49:24.743268 24357 net.cpp:91] Creating Layer pool2/3x3_s2_pool2/3x3_s2_0_split
I0403 21:49:24.743285 24357 net.cpp:425] pool2/3x3_s2_pool2/3x3_s2_0_split <- pool2/3x3_s2
I0403 21:49:24.743304 24357 net.cpp:399] pool2/3x3_s2_pool2/3x3_s2_0_split -> pool2/3x3_s2_pool2/3x3_s2_0_split_0
I0403 21:49:24.743324 24357 net.cpp:399] pool2/3x3_s2_pool2/3x3_s2_0_split -> pool2/3x3_s2_pool2/3x3_s2_0_split_1
I0403 21:49:24.743346 24357 net.cpp:399] pool2/3x3_s2_pool2/3x3_s2_0_split -> pool2/3x3_s2_pool2/3x3_s2_0_split_2
I0403 21:49:24.743366 24357 net.cpp:399] pool2/3x3_s2_pool2/3x3_s2_0_split -> pool2/3x3_s2_pool2/3x3_s2_0_split_3
I0403 21:49:24.743437 24357 net.cpp:141] Setting up pool2/3x3_s2_pool2/3x3_s2_0_split
I0403 21:49:24.743460 24357 net.cpp:148] Top shape: 24 192 28 28 (3612672)
I0403 21:49:24.743477 24357 net.cpp:148] Top shape: 24 192 28 28 (3612672)
I0403 21:49:24.743494 24357 net.cpp:148] Top shape: 24 192 28 28 (3612672)
I0403 21:49:24.743510 24357 net.cpp:148] Top shape: 24 192 28 28 (3612672)
I0403 21:49:24.743523 24357 net.cpp:156] Memory required for data: 491324448
I0403 21:49:24.743538 24357 layer_factory.hpp:77] Creating layer inception_3a/1x1
I0403 21:49:24.743561 24357 net.cpp:91] Creating Layer inception_3a/1x1
I0403 21:49:24.743580 24357 net.cpp:425] inception_3a/1x1 <- pool2/3x3_s2_pool2/3x3_s2_0_split_0
I0403 21:49:24.743602 24357 net.cpp:399] inception_3a/1x1 -> inception_3a/1x1
I0403 21:49:24.745156 24357 net.cpp:141] Setting up inception_3a/1x1
I0403 21:49:24.745185 24357 net.cpp:148] Top shape: 24 64 28 28 (1204224)
I0403 21:49:24.745208 24357 net.cpp:156] Memory required for data: 496141344
I0403 21:49:24.745228 24357 layer_factory.hpp:77] Creating layer inception_3a/relu_1x1
I0403 21:49:24.745250 24357 net.cpp:91] Creating Layer inception_3a/relu_1x1
I0403 21:49:24.745268 24357 net.cpp:425] inception_3a/relu_1x1 <- inception_3a/1x1
I0403 21:49:24.745287 24357 net.cpp:386] inception_3a/relu_1x1 -> inception_3a/1x1 (in-place)
I0403 21:49:24.745458 24357 net.cpp:141] Setting up inception_3a/relu_1x1
I0403 21:49:24.745486 24357 net.cpp:148] Top shape: 24 64 28 28 (1204224)
I0403 21:49:24.745501 24357 net.cpp:156] Memory required for data: 500958240
I0403 21:49:24.745517 24357 layer_factory.hpp:77] Creating layer inception_3a/3x3_reduce
I0403 21:49:24.745539 24357 net.cpp:91] Creating Layer inception_3a/3x3_reduce
I0403 21:49:24.745558 24357 net.cpp:425] inception_3a/3x3_reduce <- pool2/3x3_s2_pool2/3x3_s2_0_split_1
I0403 21:49:24.745580 24357 net.cpp:399] inception_3a/3x3_reduce -> inception_3a/3x3_reduce
I0403 21:49:24.747274 24357 net.cpp:141] Setting up inception_3a/3x3_reduce
I0403 21:49:24.747304 24357 net.cpp:148] Top shape: 24 96 28 28 (1806336)
I0403 21:49:24.747321 24357 net.cpp:156] Memory required for data: 508183584
I0403 21:49:24.747344 24357 layer_factory.hpp:77] Creating layer inception_3a/relu_3x3_reduce
I0403 21:49:24.747382 24357 net.cpp:91] Creating Layer inception_3a/relu_3x3_reduce
I0403 21:49:24.747402 24357 net.cpp:425] inception_3a/relu_3x3_reduce <- inception_3a/3x3_reduce
I0403 21:49:24.747421 24357 net.cpp:386] inception_3a/relu_3x3_reduce -> inception_3a/3x3_reduce (in-place)
I0403 21:49:24.747602 24357 net.cpp:141] Setting up inception_3a/relu_3x3_reduce
I0403 21:49:24.747628 24357 net.cpp:148] Top shape: 24 96 28 28 (1806336)
I0403 21:49:24.747644 24357 net.cpp:156] Memory required for data: 515408928
I0403 21:49:24.747659 24357 layer_factory.hpp:77] Creating layer inception_3a/3x3
I0403 21:49:24.747683 24357 net.cpp:91] Creating Layer inception_3a/3x3
I0403 21:49:24.747700 24357 net.cpp:425] inception_3a/3x3 <- inception_3a/3x3_reduce
I0403 21:49:24.747723 24357 net.cpp:399] inception_3a/3x3 -> inception_3a/3x3
I0403 21:49:24.749362 24357 net.cpp:141] Setting up inception_3a/3x3
I0403 21:49:24.749392 24357 net.cpp:148] Top shape: 24 128 28 28 (2408448)
I0403 21:49:24.749409 24357 net.cpp:156] Memory required for data: 525042720
I0403 21:49:24.749428 24357 layer_factory.hpp:77] Creating layer inception_3a/relu_3x3
I0403 21:49:24.749449 24357 net.cpp:91] Creating Layer inception_3a/relu_3x3
I0403 21:49:24.749466 24357 net.cpp:425] inception_3a/relu_3x3 <- inception_3a/3x3
I0403 21:49:24.749485 24357 net.cpp:386] inception_3a/relu_3x3 -> inception_3a/3x3 (in-place)
I0403 21:49:24.749755 24357 net.cpp:141] Setting up inception_3a/relu_3x3
I0403 21:49:24.749783 24357 net.cpp:148] Top shape: 24 128 28 28 (2408448)
I0403 21:49:24.749799 24357 net.cpp:156] Memory required for data: 534676512
I0403 21:49:24.749815 24357 layer_factory.hpp:77] Creating layer inception_3a/5x5_reduce
I0403 21:49:24.749840 24357 net.cpp:91] Creating Layer inception_3a/5x5_reduce
I0403 21:49:24.749857 24357 net.cpp:425] inception_3a/5x5_reduce <- pool2/3x3_s2_pool2/3x3_s2_0_split_2
I0403 21:49:24.749881 24357 net.cpp:399] inception_3a/5x5_reduce -> inception_3a/5x5_reduce
I0403 21:49:24.750838 24357 net.cpp:141] Setting up inception_3a/5x5_reduce
I0403 21:49:24.750865 24357 net.cpp:148] Top shape: 24 16 28 28 (301056)
I0403 21:49:24.750882 24357 net.cpp:156] Memory required for data: 535880736
I0403 21:49:24.750900 24357 layer_factory.hpp:77] Creating layer inception_3a/relu_5x5_reduce
I0403 21:49:24.750921 24357 net.cpp:91] Creating Layer inception_3a/relu_5x5_reduce
I0403 21:49:24.750939 24357 net.cpp:425] inception_3a/relu_5x5_reduce <- inception_3a/5x5_reduce
I0403 21:49:24.750957 24357 net.cpp:386] inception_3a/relu_5x5_reduce -> inception_3a/5x5_reduce (in-place)
I0403 21:49:24.751262 24357 net.cpp:141] Setting up inception_3a/relu_5x5_reduce
I0403 21:49:24.751292 24357 net.cpp:148] Top shape: 24 16 28 28 (301056)
I0403 21:49:24.751309 24357 net.cpp:156] Memory required for data: 537084960
I0403 21:49:24.751325 24357 layer_factory.hpp:77] Creating layer inception_3a/5x5
I0403 21:49:24.751348 24357 net.cpp:91] Creating Layer inception_3a/5x5
I0403 21:49:24.751366 24357 net.cpp:425] inception_3a/5x5 <- inception_3a/5x5_reduce
I0403 21:49:24.751386 24357 net.cpp:399] inception_3a/5x5 -> inception_3a/5x5
I0403 21:49:24.752389 24357 net.cpp:141] Setting up inception_3a/5x5
I0403 21:49:24.752418 24357 net.cpp:148] Top shape: 24 32 28 28 (602112)
I0403 21:49:24.752434 24357 net.cpp:156] Memory required for data: 539493408
I0403 21:49:24.752454 24357 layer_factory.hpp:77] Creating layer inception_3a/relu_5x5
I0403 21:49:24.752475 24357 net.cpp:91] Creating Layer inception_3a/relu_5x5
I0403 21:49:24.752493 24357 net.cpp:425] inception_3a/relu_5x5 <- inception_3a/5x5
I0403 21:49:24.752511 24357 net.cpp:386] inception_3a/relu_5x5 -> inception_3a/5x5 (in-place)
I0403 21:49:24.752681 24357 net.cpp:141] Setting up inception_3a/relu_5x5
I0403 21:49:24.752707 24357 net.cpp:148] Top shape: 24 32 28 28 (602112)
I0403 21:49:24.752723 24357 net.cpp:156] Memory required for data: 541901856
I0403 21:49:24.752739 24357 layer_factory.hpp:77] Creating layer inception_3a/pool
I0403 21:49:24.752760 24357 net.cpp:91] Creating Layer inception_3a/pool
I0403 21:49:24.752791 24357 net.cpp:425] inception_3a/pool <- pool2/3x3_s2_pool2/3x3_s2_0_split_3
I0403 21:49:24.752812 24357 net.cpp:399] inception_3a/pool -> inception_3a/pool
I0403 21:49:24.752869 24357 net.cpp:141] Setting up inception_3a/pool
I0403 21:49:24.752894 24357 net.cpp:148] Top shape: 24 192 28 28 (3612672)
I0403 21:49:24.752912 24357 net.cpp:156] Memory required for data: 556352544
I0403 21:49:24.752928 24357 layer_factory.hpp:77] Creating layer inception_3a/pool_proj
I0403 21:49:24.752951 24357 net.cpp:91] Creating Layer inception_3a/pool_proj
I0403 21:49:24.752969 24357 net.cpp:425] inception_3a/pool_proj <- inception_3a/pool
I0403 21:49:24.752992 24357 net.cpp:399] inception_3a/pool_proj -> inception_3a/pool_proj
I0403 21:49:24.753962 24357 net.cpp:141] Setting up inception_3a/pool_proj
I0403 21:49:24.753993 24357 net.cpp:148] Top shape: 24 32 28 28 (602112)
I0403 21:49:24.754010 24357 net.cpp:156] Memory required for data: 558760992
I0403 21:49:24.754034 24357 layer_factory.hpp:77] Creating layer inception_3a/relu_pool_proj
I0403 21:49:24.754057 24357 net.cpp:91] Creating Layer inception_3a/relu_pool_proj
I0403 21:49:24.754076 24357 net.cpp:425] inception_3a/relu_pool_proj <- inception_3a/pool_proj
I0403 21:49:24.754094 24357 net.cpp:386] inception_3a/relu_pool_proj -> inception_3a/pool_proj (in-place)
I0403 21:49:24.754385 24357 net.cpp:141] Setting up inception_3a/relu_pool_proj
I0403 21:49:24.754412 24357 net.cpp:148] Top shape: 24 32 28 28 (602112)
I0403 21:49:24.754428 24357 net.cpp:156] Memory required for data: 561169440
I0403 21:49:24.754444 24357 layer_factory.hpp:77] Creating layer inception_3a/output
I0403 21:49:24.754465 24357 net.cpp:91] Creating Layer inception_3a/output
I0403 21:49:24.754482 24357 net.cpp:425] inception_3a/output <- inception_3a/1x1
I0403 21:49:24.754499 24357 net.cpp:425] inception_3a/output <- inception_3a/3x3
I0403 21:49:24.754515 24357 net.cpp:425] inception_3a/output <- inception_3a/5x5
I0403 21:49:24.754533 24357 net.cpp:425] inception_3a/output <- inception_3a/pool_proj
I0403 21:49:24.754550 24357 net.cpp:399] inception_3a/output -> inception_3a/output
I0403 21:49:24.754595 24357 net.cpp:141] Setting up inception_3a/output
I0403 21:49:24.754622 24357 net.cpp:148] Top shape: 24 256 28 28 (4816896)
I0403 21:49:24.754639 24357 net.cpp:156] Memory required for data: 580437024
I0403 21:49:24.754654 24357 layer_factory.hpp:77] Creating layer inception_3a/output_inception_3a/output_0_split
I0403 21:49:24.754673 24357 net.cpp:91] Creating Layer inception_3a/output_inception_3a/output_0_split
I0403 21:49:24.754688 24357 net.cpp:425] inception_3a/output_inception_3a/output_0_split <- inception_3a/output
I0403 21:49:24.754709 24357 net.cpp:399] inception_3a/output_inception_3a/output_0_split -> inception_3a/output_inception_3a/output_0_split_0
I0403 21:49:24.754731 24357 net.cpp:399] inception_3a/output_inception_3a/output_0_split -> inception_3a/output_inception_3a/output_0_split_1
I0403 21:49:24.754755 24357 net.cpp:399] inception_3a/output_inception_3a/output_0_split -> inception_3a/output_inception_3a/output_0_split_2
I0403 21:49:24.754776 24357 net.cpp:399] inception_3a/output_inception_3a/output_0_split -> inception_3a/output_inception_3a/output_0_split_3
I0403 21:49:24.754849 24357 net.cpp:141] Setting up inception_3a/output_inception_3a/output_0_split
I0403 21:49:24.754873 24357 net.cpp:148] Top shape: 24 256 28 28 (4816896)
I0403 21:49:24.754891 24357 net.cpp:148] Top shape: 24 256 28 28 (4816896)
I0403 21:49:24.754909 24357 net.cpp:148] Top shape: 24 256 28 28 (4816896)
I0403 21:49:24.754927 24357 net.cpp:148] Top shape: 24 256 28 28 (4816896)
I0403 21:49:24.754941 24357 net.cpp:156] Memory required for data: 657507360
I0403 21:49:24.754956 24357 layer_factory.hpp:77] Creating layer inception_3b/1x1
I0403 21:49:24.754979 24357 net.cpp:91] Creating Layer inception_3b/1x1
I0403 21:49:24.754997 24357 net.cpp:425] inception_3b/1x1 <- inception_3a/output_inception_3a/output_0_split_0
I0403 21:49:24.755020 24357 net.cpp:399] inception_3b/1x1 -> inception_3b/1x1
I0403 21:49:24.756145 24357 net.cpp:141] Setting up inception_3b/1x1
I0403 21:49:24.756186 24357 net.cpp:148] Top shape: 24 128 28 28 (2408448)
I0403 21:49:24.756207 24357 net.cpp:156] Memory required for data: 667141152
I0403 21:49:24.756228 24357 layer_factory.hpp:77] Creating layer inception_3b/relu_1x1
I0403 21:49:24.756247 24357 net.cpp:91] Creating Layer inception_3b/relu_1x1
I0403 21:49:24.756265 24357 net.cpp:425] inception_3b/relu_1x1 <- inception_3b/1x1
I0403 21:49:24.756286 24357 net.cpp:386] inception_3b/relu_1x1 -> inception_3b/1x1 (in-place)
I0403 21:49:24.756458 24357 net.cpp:141] Setting up inception_3b/relu_1x1
I0403 21:49:24.756484 24357 net.cpp:148] Top shape: 24 128 28 28 (2408448)
I0403 21:49:24.756500 24357 net.cpp:156] Memory required for data: 676774944
I0403 21:49:24.756515 24357 layer_factory.hpp:77] Creating layer inception_3b/3x3_reduce
I0403 21:49:24.756539 24357 net.cpp:91] Creating Layer inception_3b/3x3_reduce
I0403 21:49:24.756557 24357 net.cpp:425] inception_3b/3x3_reduce <- inception_3a/output_inception_3a/output_0_split_1
I0403 21:49:24.756579 24357 net.cpp:399] inception_3b/3x3_reduce -> inception_3b/3x3_reduce
I0403 21:49:24.757730 24357 net.cpp:141] Setting up inception_3b/3x3_reduce
I0403 21:49:24.757758 24357 net.cpp:148] Top shape: 24 128 28 28 (2408448)
I0403 21:49:24.757776 24357 net.cpp:156] Memory required for data: 686408736
I0403 21:49:24.757794 24357 layer_factory.hpp:77] Creating layer inception_3b/relu_3x3_reduce
I0403 21:49:24.757813 24357 net.cpp:91] Creating Layer inception_3b/relu_3x3_reduce
I0403 21:49:24.757830 24357 net.cpp:425] inception_3b/relu_3x3_reduce <- inception_3b/3x3_reduce
I0403 21:49:24.757850 24357 net.cpp:386] inception_3b/relu_3x3_reduce -> inception_3b/3x3_reduce (in-place)
I0403 21:49:24.758028 24357 net.cpp:141] Setting up inception_3b/relu_3x3_reduce
I0403 21:49:24.758054 24357 net.cpp:148] Top shape: 24 128 28 28 (2408448)
I0403 21:49:24.758069 24357 net.cpp:156] Memory required for data: 696042528
I0403 21:49:24.758085 24357 layer_factory.hpp:77] Creating layer inception_3b/3x3
I0403 21:49:24.758111 24357 net.cpp:91] Creating Layer inception_3b/3x3
I0403 21:49:24.758131 24357 net.cpp:425] inception_3b/3x3 <- inception_3b/3x3_reduce
I0403 21:49:24.758150 24357 net.cpp:399] inception_3b/3x3 -> inception_3b/3x3
I0403 21:49:24.761059 24357 net.cpp:141] Setting up inception_3b/3x3
I0403 21:49:24.761087 24357 net.cpp:148] Top shape: 24 192 28 28 (3612672)
I0403 21:49:24.761106 24357 net.cpp:156] Memory required for data: 710493216
I0403 21:49:24.761124 24357 layer_factory.hpp:77] Creating layer inception_3b/relu_3x3
I0403 21:49:24.761145 24357 net.cpp:91] Creating Layer inception_3b/relu_3x3
I0403 21:49:24.761162 24357 net.cpp:425] inception_3b/relu_3x3 <- inception_3b/3x3
I0403 21:49:24.761180 24357 net.cpp:386] inception_3b/relu_3x3 -> inception_3b/3x3 (in-place)
I0403 21:49:24.761457 24357 net.cpp:141] Setting up inception_3b/relu_3x3
I0403 21:49:24.761484 24357 net.cpp:148] Top shape: 24 192 28 28 (3612672)
I0403 21:49:24.761502 24357 net.cpp:156] Memory required for data: 724943904
I0403 21:49:24.761518 24357 layer_factory.hpp:77] Creating layer inception_3b/5x5_reduce
I0403 21:49:24.761540 24357 net.cpp:91] Creating Layer inception_3b/5x5_reduce
I0403 21:49:24.761559 24357 net.cpp:425] inception_3b/5x5_reduce <- inception_3a/output_inception_3a/output_0_split_2
I0403 21:49:24.761581 24357 net.cpp:399] inception_3b/5x5_reduce -> inception_3b/5x5_reduce
I0403 21:49:24.762578 24357 net.cpp:141] Setting up inception_3b/5x5_reduce
I0403 21:49:24.762606 24357 net.cpp:148] Top shape: 24 32 28 28 (602112)
I0403 21:49:24.762622 24357 net.cpp:156] Memory required for data: 727352352
I0403 21:49:24.762647 24357 layer_factory.hpp:77] Creating layer inception_3b/relu_5x5_reduce
I0403 21:49:24.762667 24357 net.cpp:91] Creating Layer inception_3b/relu_5x5_reduce
I0403 21:49:24.762684 24357 net.cpp:425] inception_3b/relu_5x5_reduce <- inception_3b/5x5_reduce
I0403 21:49:24.762702 24357 net.cpp:386] inception_3b/relu_5x5_reduce -> inception_3b/5x5_reduce (in-place)
I0403 21:49:24.762887 24357 net.cpp:141] Setting up inception_3b/relu_5x5_reduce
I0403 21:49:24.762912 24357 net.cpp:148] Top shape: 24 32 28 28 (602112)
I0403 21:49:24.762928 24357 net.cpp:156] Memory required for data: 729760800
I0403 21:49:24.762943 24357 layer_factory.hpp:77] Creating layer inception_3b/5x5
I0403 21:49:24.762969 24357 net.cpp:91] Creating Layer inception_3b/5x5
I0403 21:49:24.762986 24357 net.cpp:425] inception_3b/5x5 <- inception_3b/5x5_reduce
I0403 21:49:24.763005 24357 net.cpp:399] inception_3b/5x5 -> inception_3b/5x5
I0403 21:49:24.764925 24357 net.cpp:141] Setting up inception_3b/5x5
I0403 21:49:24.764955 24357 net.cpp:148] Top shape: 24 96 28 28 (1806336)
I0403 21:49:24.764972 24357 net.cpp:156] Memory required for data: 736986144
I0403 21:49:24.764991 24357 layer_factory.hpp:77] Creating layer inception_3b/relu_5x5
I0403 21:49:24.765009 24357 net.cpp:91] Creating Layer inception_3b/relu_5x5
I0403 21:49:24.765027 24357 net.cpp:425] inception_3b/relu_5x5 <- inception_3b/5x5
I0403 21:49:24.765048 24357 net.cpp:386] inception_3b/relu_5x5 -> inception_3b/5x5 (in-place)
I0403 21:49:24.765240 24357 net.cpp:141] Setting up inception_3b/relu_5x5
I0403 21:49:24.765266 24357 net.cpp:148] Top shape: 24 96 28 28 (1806336)
I0403 21:49:24.765281 24357 net.cpp:156] Memory required for data: 744211488
I0403 21:49:24.765297 24357 layer_factory.hpp:77] Creating layer inception_3b/pool
I0403 21:49:24.765316 24357 net.cpp:91] Creating Layer inception_3b/pool
I0403 21:49:24.765332 24357 net.cpp:425] inception_3b/pool <- inception_3a/output_inception_3a/output_0_split_3
I0403 21:49:24.765352 24357 net.cpp:399] inception_3b/pool -> inception_3b/pool
I0403 21:49:24.765408 24357 net.cpp:141] Setting up inception_3b/pool
I0403 21:49:24.765432 24357 net.cpp:148] Top shape: 24 256 28 28 (4816896)
I0403 21:49:24.765449 24357 net.cpp:156] Memory required for data: 763479072
I0403 21:49:24.765465 24357 layer_factory.hpp:77] Creating layer inception_3b/pool_proj
I0403 21:49:24.765486 24357 net.cpp:91] Creating Layer inception_3b/pool_proj
I0403 21:49:24.765504 24357 net.cpp:425] inception_3b/pool_proj <- inception_3b/pool
I0403 21:49:24.765525 24357 net.cpp:399] inception_3b/pool_proj -> inception_3b/pool_proj
I0403 21:49:24.766543 24357 net.cpp:141] Setting up inception_3b/pool_proj
I0403 21:49:24.766571 24357 net.cpp:148] Top shape: 24 64 28 28 (1204224)
I0403 21:49:24.766587 24357 net.cpp:156] Memory required for data: 768295968
I0403 21:49:24.766604 24357 layer_factory.hpp:77] Creating layer inception_3b/relu_pool_proj
I0403 21:49:24.766625 24357 net.cpp:91] Creating Layer inception_3b/relu_pool_proj
I0403 21:49:24.766643 24357 net.cpp:425] inception_3b/relu_pool_proj <- inception_3b/pool_proj
I0403 21:49:24.766660 24357 net.cpp:386] inception_3b/relu_pool_proj -> inception_3b/pool_proj (in-place)
I0403 21:49:24.767050 24357 net.cpp:141] Setting up inception_3b/relu_pool_proj
I0403 21:49:24.767076 24357 net.cpp:148] Top shape: 24 64 28 28 (1204224)
I0403 21:49:24.767091 24357 net.cpp:156] Memory required for data: 773112864
I0403 21:49:24.767107 24357 layer_factory.hpp:77] Creating layer inception_3b/output
I0403 21:49:24.767127 24357 net.cpp:91] Creating Layer inception_3b/output
I0403 21:49:24.767144 24357 net.cpp:425] inception_3b/output <- inception_3b/1x1
I0403 21:49:24.767163 24357 net.cpp:425] inception_3b/output <- inception_3b/3x3
I0403 21:49:24.767179 24357 net.cpp:425] inception_3b/output <- inception_3b/5x5
I0403 21:49:24.767194 24357 net.cpp:425] inception_3b/output <- inception_3b/pool_proj
I0403 21:49:24.767217 24357 net.cpp:399] inception_3b/output -> inception_3b/output
I0403 21:49:24.767263 24357 net.cpp:141] Setting up inception_3b/output
I0403 21:49:24.767287 24357 net.cpp:148] Top shape: 24 480 28 28 (9031680)
I0403 21:49:24.767302 24357 net.cpp:156] Memory required for data: 809239584
I0403 21:49:24.767318 24357 layer_factory.hpp:77] Creating layer pool3/3x3_s2
I0403 21:49:24.767336 24357 net.cpp:91] Creating Layer pool3/3x3_s2
I0403 21:49:24.767352 24357 net.cpp:425] pool3/3x3_s2 <- inception_3b/output
I0403 21:49:24.767416 24357 net.cpp:399] pool3/3x3_s2 -> pool3/3x3_s2
I0403 21:49:24.767477 24357 net.cpp:141] Setting up pool3/3x3_s2
I0403 21:49:24.767501 24357 net.cpp:148] Top shape: 24 480 14 14 (2257920)
I0403 21:49:24.767516 24357 net.cpp:156] Memory required for data: 818271264
I0403 21:49:24.767532 24357 layer_factory.hpp:77] Creating layer pool3/3x3_s2_pool3/3x3_s2_0_split
I0403 21:49:24.767551 24357 net.cpp:91] Creating Layer pool3/3x3_s2_pool3/3x3_s2_0_split
I0403 21:49:24.767567 24357 net.cpp:425] pool3/3x3_s2_pool3/3x3_s2_0_split <- pool3/3x3_s2
I0403 21:49:24.767587 24357 net.cpp:399] pool3/3x3_s2_pool3/3x3_s2_0_split -> pool3/3x3_s2_pool3/3x3_s2_0_split_0
I0403 21:49:24.767607 24357 net.cpp:399] pool3/3x3_s2_pool3/3x3_s2_0_split -> pool3/3x3_s2_pool3/3x3_s2_0_split_1
I0403 21:49:24.767628 24357 net.cpp:399] pool3/3x3_s2_pool3/3x3_s2_0_split -> pool3/3x3_s2_pool3/3x3_s2_0_split_2
I0403 21:49:24.767660 24357 net.cpp:399] pool3/3x3_s2_pool3/3x3_s2_0_split -> pool3/3x3_s2_pool3/3x3_s2_0_split_3
I0403 21:49:24.767740 24357 net.cpp:141] Setting up pool3/3x3_s2_pool3/3x3_s2_0_split
I0403 21:49:24.767763 24357 net.cpp:148] Top shape: 24 480 14 14 (2257920)
I0403 21:49:24.767781 24357 net.cpp:148] Top shape: 24 480 14 14 (2257920)
I0403 21:49:24.767797 24357 net.cpp:148] Top shape: 24 480 14 14 (2257920)
I0403 21:49:24.767812 24357 net.cpp:148] Top shape: 24 480 14 14 (2257920)
I0403 21:49:24.767827 24357 net.cpp:156] Memory required for data: 854397984
I0403 21:49:24.767843 24357 layer_factory.hpp:77] Creating layer inception_4a/1x1
I0403 21:49:24.767868 24357 net.cpp:91] Creating Layer inception_4a/1x1
I0403 21:49:24.767885 24357 net.cpp:425] inception_4a/1x1 <- pool3/3x3_s2_pool3/3x3_s2_0_split_0
I0403 21:49:24.767904 24357 net.cpp:399] inception_4a/1x1 -> inception_4a/1x1
I0403 21:49:24.769434 24357 net.cpp:141] Setting up inception_4a/1x1
I0403 21:49:24.769464 24357 net.cpp:148] Top shape: 24 192 14 14 (903168)
I0403 21:49:24.769481 24357 net.cpp:156] Memory required for data: 858010656
I0403 21:49:24.769500 24357 layer_factory.hpp:77] Creating layer inception_4a/relu_1x1
I0403 21:49:24.769520 24357 net.cpp:91] Creating Layer inception_4a/relu_1x1
I0403 21:49:24.769536 24357 net.cpp:425] inception_4a/relu_1x1 <- inception_4a/1x1
I0403 21:49:24.769556 24357 net.cpp:386] inception_4a/relu_1x1 -> inception_4a/1x1 (in-place)
I0403 21:49:24.769727 24357 net.cpp:141] Setting up inception_4a/relu_1x1
I0403 21:49:24.769753 24357 net.cpp:148] Top shape: 24 192 14 14 (903168)
I0403 21:49:24.769767 24357 net.cpp:156] Memory required for data: 861623328
I0403 21:49:24.769783 24357 layer_factory.hpp:77] Creating layer inception_4a/3x3_reduce
I0403 21:49:24.769806 24357 net.cpp:91] Creating Layer inception_4a/3x3_reduce
I0403 21:49:24.769824 24357 net.cpp:425] inception_4a/3x3_reduce <- pool3/3x3_s2_pool3/3x3_s2_0_split_1
I0403 21:49:24.769845 24357 net.cpp:399] inception_4a/3x3_reduce -> inception_4a/3x3_reduce
I0403 21:49:24.771071 24357 net.cpp:141] Setting up inception_4a/3x3_reduce
I0403 21:49:24.771101 24357 net.cpp:148] Top shape: 24 96 14 14 (451584)
I0403 21:49:24.771118 24357 net.cpp:156] Memory required for data: 863429664
I0403 21:49:24.771142 24357 layer_factory.hpp:77] Creating layer inception_4a/relu_3x3_reduce
I0403 21:49:24.771163 24357 net.cpp:91] Creating Layer inception_4a/relu_3x3_reduce
I0403 21:49:24.771181 24357 net.cpp:425] inception_4a/relu_3x3_reduce <- inception_4a/3x3_reduce
I0403 21:49:24.771203 24357 net.cpp:386] inception_4a/relu_3x3_reduce -> inception_4a/3x3_reduce (in-place)
I0403 21:49:24.771380 24357 net.cpp:141] Setting up inception_4a/relu_3x3_reduce
I0403 21:49:24.771405 24357 net.cpp:148] Top shape: 24 96 14 14 (451584)
I0403 21:49:24.771421 24357 net.cpp:156] Memory required for data: 865236000
I0403 21:49:24.771436 24357 layer_factory.hpp:77] Creating layer inception_4a/3x3
I0403 21:49:24.771458 24357 net.cpp:91] Creating Layer inception_4a/3x3
I0403 21:49:24.771476 24357 net.cpp:425] inception_4a/3x3 <- inception_4a/3x3_reduce
I0403 21:49:24.771498 24357 net.cpp:399] inception_4a/3x3 -> inception_4a/3x3
I0403 21:49:24.774091 24357 net.cpp:141] Setting up inception_4a/3x3
I0403 21:49:24.774119 24357 net.cpp:148] Top shape: 24 208 14 14 (978432)
I0403 21:49:24.774137 24357 net.cpp:156] Memory required for data: 869149728
I0403 21:49:24.774155 24357 layer_factory.hpp:77] Creating layer inception_4a/relu_3x3
I0403 21:49:24.774173 24357 net.cpp:91] Creating Layer inception_4a/relu_3x3
I0403 21:49:24.774190 24357 net.cpp:425] inception_4a/relu_3x3 <- inception_4a/3x3
I0403 21:49:24.774214 24357 net.cpp:386] inception_4a/relu_3x3 -> inception_4a/3x3 (in-place)
I0403 21:49:24.774482 24357 net.cpp:141] Setting up inception_4a/relu_3x3
I0403 21:49:24.774509 24357 net.cpp:148] Top shape: 24 208 14 14 (978432)
I0403 21:49:24.774524 24357 net.cpp:156] Memory required for data: 873063456
I0403 21:49:24.774540 24357 layer_factory.hpp:77] Creating layer inception_4a/5x5_reduce
I0403 21:49:24.774564 24357 net.cpp:91] Creating Layer inception_4a/5x5_reduce
I0403 21:49:24.774583 24357 net.cpp:425] inception_4a/5x5_reduce <- pool3/3x3_s2_pool3/3x3_s2_0_split_2
I0403 21:49:24.774605 24357 net.cpp:399] inception_4a/5x5_reduce -> inception_4a/5x5_reduce
I0403 21:49:24.775583 24357 net.cpp:141] Setting up inception_4a/5x5_reduce
I0403 21:49:24.775610 24357 net.cpp:148] Top shape: 24 16 14 14 (75264)
I0403 21:49:24.775626 24357 net.cpp:156] Memory required for data: 873364512
I0403 21:49:24.775645 24357 layer_factory.hpp:77] Creating layer inception_4a/relu_5x5_reduce
I0403 21:49:24.775665 24357 net.cpp:91] Creating Layer inception_4a/relu_5x5_reduce
I0403 21:49:24.775682 24357 net.cpp:425] inception_4a/relu_5x5_reduce <- inception_4a/5x5_reduce
I0403 21:49:24.775701 24357 net.cpp:386] inception_4a/relu_5x5_reduce -> inception_4a/5x5_reduce (in-place)
I0403 21:49:24.775876 24357 net.cpp:141] Setting up inception_4a/relu_5x5_reduce
I0403 21:49:24.775900 24357 net.cpp:148] Top shape: 24 16 14 14 (75264)
I0403 21:49:24.775915 24357 net.cpp:156] Memory required for data: 873665568
I0403 21:49:24.775930 24357 layer_factory.hpp:77] Creating layer inception_4a/5x5
I0403 21:49:24.775954 24357 net.cpp:91] Creating Layer inception_4a/5x5
I0403 21:49:24.775971 24357 net.cpp:425] inception_4a/5x5 <- inception_4a/5x5_reduce
I0403 21:49:24.775991 24357 net.cpp:399] inception_4a/5x5 -> inception_4a/5x5
I0403 21:49:24.777030 24357 net.cpp:141] Setting up inception_4a/5x5
I0403 21:49:24.777058 24357 net.cpp:148] Top shape: 24 48 14 14 (225792)
I0403 21:49:24.777077 24357 net.cpp:156] Memory required for data: 874568736
I0403 21:49:24.777096 24357 layer_factory.hpp:77] Creating layer inception_4a/relu_5x5
I0403 21:49:24.777114 24357 net.cpp:91] Creating Layer inception_4a/relu_5x5
I0403 21:49:24.777132 24357 net.cpp:425] inception_4a/relu_5x5 <- inception_4a/5x5
I0403 21:49:24.777150 24357 net.cpp:386] inception_4a/relu_5x5 -> inception_4a/5x5 (in-place)
I0403 21:49:24.777323 24357 net.cpp:141] Setting up inception_4a/relu_5x5
I0403 21:49:24.777350 24357 net.cpp:148] Top shape: 24 48 14 14 (225792)
I0403 21:49:24.777369 24357 net.cpp:156] Memory required for data: 875471904
I0403 21:49:24.777384 24357 layer_factory.hpp:77] Creating layer inception_4a/pool
I0403 21:49:24.777402 24357 net.cpp:91] Creating Layer inception_4a/pool
I0403 21:49:24.777420 24357 net.cpp:425] inception_4a/pool <- pool3/3x3_s2_pool3/3x3_s2_0_split_3
I0403 21:49:24.777441 24357 net.cpp:399] inception_4a/pool -> inception_4a/pool
I0403 21:49:24.777499 24357 net.cpp:141] Setting up inception_4a/pool
I0403 21:49:24.777525 24357 net.cpp:148] Top shape: 24 480 14 14 (2257920)
I0403 21:49:24.777541 24357 net.cpp:156] Memory required for data: 884503584
I0403 21:49:24.777556 24357 layer_factory.hpp:77] Creating layer inception_4a/pool_proj
I0403 21:49:24.777577 24357 net.cpp:91] Creating Layer inception_4a/pool_proj
I0403 21:49:24.777593 24357 net.cpp:425] inception_4a/pool_proj <- inception_4a/pool
I0403 21:49:24.777614 24357 net.cpp:399] inception_4a/pool_proj -> inception_4a/pool_proj
I0403 21:49:24.778769 24357 net.cpp:141] Setting up inception_4a/pool_proj
I0403 21:49:24.778801 24357 net.cpp:148] Top shape: 24 64 14 14 (301056)
I0403 21:49:24.778832 24357 net.cpp:156] Memory required for data: 885707808
I0403 21:49:24.778852 24357 layer_factory.hpp:77] Creating layer inception_4a/relu_pool_proj
I0403 21:49:24.778872 24357 net.cpp:91] Creating Layer inception_4a/relu_pool_proj
I0403 21:49:24.778888 24357 net.cpp:425] inception_4a/relu_pool_proj <- inception_4a/pool_proj
I0403 21:49:24.778906 24357 net.cpp:386] inception_4a/relu_pool_proj -> inception_4a/pool_proj (in-place)
I0403 21:49:24.779188 24357 net.cpp:141] Setting up inception_4a/relu_pool_proj
I0403 21:49:24.779222 24357 net.cpp:148] Top shape: 24 64 14 14 (301056)
I0403 21:49:24.779239 24357 net.cpp:156] Memory required for data: 886912032
I0403 21:49:24.779256 24357 layer_factory.hpp:77] Creating layer inception_4a/output
I0403 21:49:24.779275 24357 net.cpp:91] Creating Layer inception_4a/output
I0403 21:49:24.779291 24357 net.cpp:425] inception_4a/output <- inception_4a/1x1
I0403 21:49:24.779309 24357 net.cpp:425] inception_4a/output <- inception_4a/3x3
I0403 21:49:24.779325 24357 net.cpp:425] inception_4a/output <- inception_4a/5x5
I0403 21:49:24.779342 24357 net.cpp:425] inception_4a/output <- inception_4a/pool_proj
I0403 21:49:24.779361 24357 net.cpp:399] inception_4a/output -> inception_4a/output
I0403 21:49:24.779408 24357 net.cpp:141] Setting up inception_4a/output
I0403 21:49:24.779433 24357 net.cpp:148] Top shape: 24 512 14 14 (2408448)
I0403 21:49:24.779448 24357 net.cpp:156] Memory required for data: 896545824
I0403 21:49:24.779464 24357 layer_factory.hpp:77] Creating layer inception_4a/output_inception_4a/output_0_split
I0403 21:49:24.779485 24357 net.cpp:91] Creating Layer inception_4a/output_inception_4a/output_0_split
I0403 21:49:24.779503 24357 net.cpp:425] inception_4a/output_inception_4a/output_0_split <- inception_4a/output
I0403 21:49:24.779523 24357 net.cpp:399] inception_4a/output_inception_4a/output_0_split -> inception_4a/output_inception_4a/output_0_split_0
I0403 21:49:24.779544 24357 net.cpp:399] inception_4a/output_inception_4a/output_0_split -> inception_4a/output_inception_4a/output_0_split_1
I0403 21:49:24.779567 24357 net.cpp:399] inception_4a/output_inception_4a/output_0_split -> inception_4a/output_inception_4a/output_0_split_2
I0403 21:49:24.779590 24357 net.cpp:399] inception_4a/output_inception_4a/output_0_split -> inception_4a/output_inception_4a/output_0_split_3
I0403 21:49:24.779613 24357 net.cpp:399] inception_4a/output_inception_4a/output_0_split -> inception_4a/output_inception_4a/output_0_split_4
I0403 21:49:24.779706 24357 net.cpp:141] Setting up inception_4a/output_inception_4a/output_0_split
I0403 21:49:24.779729 24357 net.cpp:148] Top shape: 24 512 14 14 (2408448)
I0403 21:49:24.779747 24357 net.cpp:148] Top shape: 24 512 14 14 (2408448)
I0403 21:49:24.779762 24357 net.cpp:148] Top shape: 24 512 14 14 (2408448)
I0403 21:49:24.779779 24357 net.cpp:148] Top shape: 24 512 14 14 (2408448)
I0403 21:49:24.779795 24357 net.cpp:148] Top shape: 24 512 14 14 (2408448)
I0403 21:49:24.779810 24357 net.cpp:156] Memory required for data: 944714784
I0403 21:49:24.779825 24357 layer_factory.hpp:77] Creating layer loss1/ave_pool
I0403 21:49:24.779846 24357 net.cpp:91] Creating Layer loss1/ave_pool
I0403 21:49:24.779865 24357 net.cpp:425] loss1/ave_pool <- inception_4a/output_inception_4a/output_0_split_0
I0403 21:49:24.779882 24357 net.cpp:399] loss1/ave_pool -> loss1/ave_pool
I0403 21:49:24.780083 24357 net.cpp:141] Setting up loss1/ave_pool
I0403 21:49:24.780112 24357 net.cpp:148] Top shape: 24 512 4 4 (196608)
I0403 21:49:24.780129 24357 net.cpp:156] Memory required for data: 945501216
I0403 21:49:24.780145 24357 layer_factory.hpp:77] Creating layer loss1/conv
I0403 21:49:24.780169 24357 net.cpp:91] Creating Layer loss1/conv
I0403 21:49:24.780186 24357 net.cpp:425] loss1/conv <- loss1/ave_pool
I0403 21:49:24.780212 24357 net.cpp:399] loss1/conv -> loss1/conv
I0403 21:49:24.781612 24357 net.cpp:141] Setting up loss1/conv
I0403 21:49:24.781641 24357 net.cpp:148] Top shape: 24 128 4 4 (49152)
I0403 21:49:24.781672 24357 net.cpp:156] Memory required for data: 945697824
I0403 21:49:24.781692 24357 layer_factory.hpp:77] Creating layer loss1/relu_conv
I0403 21:49:24.781713 24357 net.cpp:91] Creating Layer loss1/relu_conv
I0403 21:49:24.781730 24357 net.cpp:425] loss1/relu_conv <- loss1/conv
I0403 21:49:24.781749 24357 net.cpp:386] loss1/relu_conv -> loss1/conv (in-place)
I0403 21:49:24.782035 24357 net.cpp:141] Setting up loss1/relu_conv
I0403 21:49:24.782063 24357 net.cpp:148] Top shape: 24 128 4 4 (49152)
I0403 21:49:24.782079 24357 net.cpp:156] Memory required for data: 945894432
I0403 21:49:24.782094 24357 layer_factory.hpp:77] Creating layer loss1/fc
I0403 21:49:24.782120 24357 net.cpp:91] Creating Layer loss1/fc
I0403 21:49:24.782141 24357 net.cpp:425] loss1/fc <- loss1/conv
I0403 21:49:24.782160 24357 net.cpp:399] loss1/fc -> loss1/fc
I0403 21:49:24.799893 24357 net.cpp:141] Setting up loss1/fc
I0403 21:49:24.799931 24357 net.cpp:148] Top shape: 24 1024 (24576)
I0403 21:49:24.799947 24357 net.cpp:156] Memory required for data: 945992736
I0403 21:49:24.799967 24357 layer_factory.hpp:77] Creating layer loss1/relu_fc
I0403 21:49:24.799988 24357 net.cpp:91] Creating Layer loss1/relu_fc
I0403 21:49:24.800005 24357 net.cpp:425] loss1/relu_fc <- loss1/fc
I0403 21:49:24.800026 24357 net.cpp:386] loss1/relu_fc -> loss1/fc (in-place)
I0403 21:49:24.800206 24357 net.cpp:141] Setting up loss1/relu_fc
I0403 21:49:24.800232 24357 net.cpp:148] Top shape: 24 1024 (24576)
I0403 21:49:24.800247 24357 net.cpp:156] Memory required for data: 946091040
I0403 21:49:24.800261 24357 layer_factory.hpp:77] Creating layer loss1/drop_fc
I0403 21:49:24.800287 24357 net.cpp:91] Creating Layer loss1/drop_fc
I0403 21:49:24.800305 24357 net.cpp:425] loss1/drop_fc <- loss1/fc
I0403 21:49:24.800325 24357 net.cpp:386] loss1/drop_fc -> loss1/fc (in-place)
I0403 21:49:24.800375 24357 net.cpp:141] Setting up loss1/drop_fc
I0403 21:49:24.800398 24357 net.cpp:148] Top shape: 24 1024 (24576)
I0403 21:49:24.800415 24357 net.cpp:156] Memory required for data: 946189344
I0403 21:49:24.800431 24357 layer_factory.hpp:77] Creating layer loss1/classifier_plantvillage
I0403 21:49:24.800453 24357 net.cpp:91] Creating Layer loss1/classifier_plantvillage
I0403 21:49:24.800472 24357 net.cpp:425] loss1/classifier_plantvillage <- loss1/fc
I0403 21:49:24.800493 24357 net.cpp:399] loss1/classifier_plantvillage -> loss1/classifier_plantvillage
I0403 21:49:24.801400 24357 net.cpp:141] Setting up loss1/classifier_plantvillage
I0403 21:49:24.801434 24357 net.cpp:148] Top shape: 24 38 (912)
I0403 21:49:24.801450 24357 net.cpp:156] Memory required for data: 946192992
I0403 21:49:24.801470 24357 layer_factory.hpp:77] Creating layer loss1/classifier_plantvillage_loss1/classifier_plantvillage_0_split
I0403 21:49:24.801488 24357 net.cpp:91] Creating Layer loss1/classifier_plantvillage_loss1/classifier_plantvillage_0_split
I0403 21:49:24.801506 24357 net.cpp:425] loss1/classifier_plantvillage_loss1/classifier_plantvillage_0_split <- loss1/classifier_plantvillage
I0403 21:49:24.801527 24357 net.cpp:399] loss1/classifier_plantvillage_loss1/classifier_plantvillage_0_split -> loss1/classifier_plantvillage_loss1/classifier_plantvillage_0_split_0
I0403 21:49:24.801548 24357 net.cpp:399] loss1/classifier_plantvillage_loss1/classifier_plantvillage_0_split -> loss1/classifier_plantvillage_loss1/classifier_plantvillage_0_split_1
I0403 21:49:24.801568 24357 net.cpp:399] loss1/classifier_plantvillage_loss1/classifier_plantvillage_0_split -> loss1/classifier_plantvillage_loss1/classifier_plantvillage_0_split_2
I0403 21:49:24.801633 24357 net.cpp:141] Setting up loss1/classifier_plantvillage_loss1/classifier_plantvillage_0_split
I0403 21:49:24.801656 24357 net.cpp:148] Top shape: 24 38 (912)
I0403 21:49:24.801673 24357 net.cpp:148] Top shape: 24 38 (912)
I0403 21:49:24.801688 24357 net.cpp:148] Top shape: 24 38 (912)
I0403 21:49:24.801702 24357 net.cpp:156] Memory required for data: 946203936
I0403 21:49:24.801717 24357 layer_factory.hpp:77] Creating layer inception_4b/1x1
I0403 21:49:24.801740 24357 net.cpp:91] Creating Layer inception_4b/1x1
I0403 21:49:24.801774 24357 net.cpp:425] inception_4b/1x1 <- inception_4a/output_inception_4a/output_0_split_1
I0403 21:49:24.801796 24357 net.cpp:399] inception_4b/1x1 -> inception_4b/1x1
I0403 21:49:24.803387 24357 net.cpp:141] Setting up inception_4b/1x1
I0403 21:49:24.803416 24357 net.cpp:148] Top shape: 24 160 14 14 (752640)
I0403 21:49:24.803433 24357 net.cpp:156] Memory required for data: 949214496
I0403 21:49:24.803453 24357 layer_factory.hpp:77] Creating layer inception_4b/relu_1x1
I0403 21:49:24.803473 24357 net.cpp:91] Creating Layer inception_4b/relu_1x1
I0403 21:49:24.803491 24357 net.cpp:425] inception_4b/relu_1x1 <- inception_4b/1x1
I0403 21:49:24.803509 24357 net.cpp:386] inception_4b/relu_1x1 -> inception_4b/1x1 (in-place)
I0403 21:49:24.803681 24357 net.cpp:141] Setting up inception_4b/relu_1x1
I0403 21:49:24.803706 24357 net.cpp:148] Top shape: 24 160 14 14 (752640)
I0403 21:49:24.803721 24357 net.cpp:156] Memory required for data: 952225056
I0403 21:49:24.803736 24357 layer_factory.hpp:77] Creating layer inception_4b/3x3_reduce
I0403 21:49:24.803758 24357 net.cpp:91] Creating Layer inception_4b/3x3_reduce
I0403 21:49:24.803778 24357 net.cpp:425] inception_4b/3x3_reduce <- inception_4a/output_inception_4a/output_0_split_2
I0403 21:49:24.803798 24357 net.cpp:399] inception_4b/3x3_reduce -> inception_4b/3x3_reduce
I0403 21:49:24.805096 24357 net.cpp:141] Setting up inception_4b/3x3_reduce
I0403 21:49:24.805124 24357 net.cpp:148] Top shape: 24 112 14 14 (526848)
I0403 21:49:24.805140 24357 net.cpp:156] Memory required for data: 954332448
I0403 21:49:24.805160 24357 layer_factory.hpp:77] Creating layer inception_4b/relu_3x3_reduce
I0403 21:49:24.805181 24357 net.cpp:91] Creating Layer inception_4b/relu_3x3_reduce
I0403 21:49:24.805203 24357 net.cpp:425] inception_4b/relu_3x3_reduce <- inception_4b/3x3_reduce
I0403 21:49:24.805222 24357 net.cpp:386] inception_4b/relu_3x3_reduce -> inception_4b/3x3_reduce (in-place)
I0403 21:49:24.805495 24357 net.cpp:141] Setting up inception_4b/relu_3x3_reduce
I0403 21:49:24.805521 24357 net.cpp:148] Top shape: 24 112 14 14 (526848)
I0403 21:49:24.805537 24357 net.cpp:156] Memory required for data: 956439840
I0403 21:49:24.805552 24357 layer_factory.hpp:77] Creating layer inception_4b/3x3
I0403 21:49:24.805574 24357 net.cpp:91] Creating Layer inception_4b/3x3
I0403 21:49:24.805593 24357 net.cpp:425] inception_4b/3x3 <- inception_4b/3x3_reduce
I0403 21:49:24.805614 24357 net.cpp:399] inception_4b/3x3 -> inception_4b/3x3
I0403 21:49:24.808522 24357 net.cpp:141] Setting up inception_4b/3x3
I0403 21:49:24.808553 24357 net.cpp:148] Top shape: 24 224 14 14 (1053696)
I0403 21:49:24.808571 24357 net.cpp:156] Memory required for data: 960654624
I0403 21:49:24.808591 24357 layer_factory.hpp:77] Creating layer inception_4b/relu_3x3
I0403 21:49:24.808609 24357 net.cpp:91] Creating Layer inception_4b/relu_3x3
I0403 21:49:24.808627 24357 net.cpp:425] inception_4b/relu_3x3 <- inception_4b/3x3
I0403 21:49:24.808647 24357 net.cpp:386] inception_4b/relu_3x3 -> inception_4b/3x3 (in-place)
I0403 21:49:24.808825 24357 net.cpp:141] Setting up inception_4b/relu_3x3
I0403 21:49:24.808850 24357 net.cpp:148] Top shape: 24 224 14 14 (1053696)
I0403 21:49:24.808866 24357 net.cpp:156] Memory required for data: 964869408
I0403 21:49:24.808881 24357 layer_factory.hpp:77] Creating layer inception_4b/5x5_reduce
I0403 21:49:24.808902 24357 net.cpp:91] Creating Layer inception_4b/5x5_reduce
I0403 21:49:24.808922 24357 net.cpp:425] inception_4b/5x5_reduce <- inception_4a/output_inception_4a/output_0_split_3
I0403 21:49:24.808944 24357 net.cpp:399] inception_4b/5x5_reduce -> inception_4b/5x5_reduce
I0403 21:49:24.809988 24357 net.cpp:141] Setting up inception_4b/5x5_reduce
I0403 21:49:24.810015 24357 net.cpp:148] Top shape: 24 24 14 14 (112896)
I0403 21:49:24.810031 24357 net.cpp:156] Memory required for data: 965320992
I0403 21:49:24.810050 24357 layer_factory.hpp:77] Creating layer inception_4b/relu_5x5_reduce
I0403 21:49:24.810071 24357 net.cpp:91] Creating Layer inception_4b/relu_5x5_reduce
I0403 21:49:24.810102 24357 net.cpp:425] inception_4b/relu_5x5_reduce <- inception_4b/5x5_reduce
I0403 21:49:24.810122 24357 net.cpp:386] inception_4b/relu_5x5_reduce -> inception_4b/5x5_reduce (in-place)
I0403 21:49:24.810307 24357 net.cpp:141] Setting up inception_4b/relu_5x5_reduce
I0403 21:49:24.810335 24357 net.cpp:148] Top shape: 24 24 14 14 (112896)
I0403 21:49:24.810353 24357 net.cpp:156] Memory required for data: 965772576
I0403 21:49:24.810367 24357 layer_factory.hpp:77] Creating layer inception_4b/5x5
I0403 21:49:24.810389 24357 net.cpp:91] Creating Layer inception_4b/5x5
I0403 21:49:24.810407 24357 net.cpp:425] inception_4b/5x5 <- inception_4b/5x5_reduce
I0403 21:49:24.810426 24357 net.cpp:399] inception_4b/5x5 -> inception_4b/5x5
I0403 21:49:24.811625 24357 net.cpp:141] Setting up inception_4b/5x5
I0403 21:49:24.811653 24357 net.cpp:148] Top shape: 24 64 14 14 (301056)
I0403 21:49:24.811668 24357 net.cpp:156] Memory required for data: 966976800
I0403 21:49:24.811686 24357 layer_factory.hpp:77] Creating layer inception_4b/relu_5x5
I0403 21:49:24.811707 24357 net.cpp:91] Creating Layer inception_4b/relu_5x5
I0403 21:49:24.811724 24357 net.cpp:425] inception_4b/relu_5x5 <- inception_4b/5x5
I0403 21:49:24.811743 24357 net.cpp:386] inception_4b/relu_5x5 -> inception_4b/5x5 (in-place)
I0403 21:49:24.812023 24357 net.cpp:141] Setting up inception_4b/relu_5x5
I0403 21:49:24.812049 24357 net.cpp:148] Top shape: 24 64 14 14 (301056)
I0403 21:49:24.812065 24357 net.cpp:156] Memory required for data: 968181024
I0403 21:49:24.812082 24357 layer_factory.hpp:77] Creating layer inception_4b/pool
I0403 21:49:24.812099 24357 net.cpp:91] Creating Layer inception_4b/pool
I0403 21:49:24.812116 24357 net.cpp:425] inception_4b/pool <- inception_4a/output_inception_4a/output_0_split_4
I0403 21:49:24.812139 24357 net.cpp:399] inception_4b/pool -> inception_4b/pool
I0403 21:49:24.812206 24357 net.cpp:141] Setting up inception_4b/pool
I0403 21:49:24.812232 24357 net.cpp:148] Top shape: 24 512 14 14 (2408448)
I0403 21:49:24.812247 24357 net.cpp:156] Memory required for data: 977814816
I0403 21:49:24.812263 24357 layer_factory.hpp:77] Creating layer inception_4b/pool_proj
I0403 21:49:24.812285 24357 net.cpp:91] Creating Layer inception_4b/pool_proj
I0403 21:49:24.812304 24357 net.cpp:425] inception_4b/pool_proj <- inception_4b/pool
I0403 21:49:24.812325 24357 net.cpp:399] inception_4b/pool_proj -> inception_4b/pool_proj
I0403 21:49:24.813487 24357 net.cpp:141] Setting up inception_4b/pool_proj
I0403 21:49:24.813513 24357 net.cpp:148] Top shape: 24 64 14 14 (301056)
I0403 21:49:24.813529 24357 net.cpp:156] Memory required for data: 979019040
I0403 21:49:24.813547 24357 layer_factory.hpp:77] Creating layer inception_4b/relu_pool_proj
I0403 21:49:24.813570 24357 net.cpp:91] Creating Layer inception_4b/relu_pool_proj
I0403 21:49:24.813587 24357 net.cpp:425] inception_4b/relu_pool_proj <- inception_4b/pool_proj
I0403 21:49:24.813606 24357 net.cpp:386] inception_4b/relu_pool_proj -> inception_4b/pool_proj (in-place)
I0403 21:49:24.813796 24357 net.cpp:141] Setting up inception_4b/relu_pool_proj
I0403 21:49:24.813822 24357 net.cpp:148] Top shape: 24 64 14 14 (301056)
I0403 21:49:24.813838 24357 net.cpp:156] Memory required for data: 980223264
I0403 21:49:24.813854 24357 layer_factory.hpp:77] Creating layer inception_4b/output
I0403 21:49:24.813874 24357 net.cpp:91] Creating Layer inception_4b/output
I0403 21:49:24.813892 24357 net.cpp:425] inception_4b/output <- inception_4b/1x1
I0403 21:49:24.813910 24357 net.cpp:425] inception_4b/output <- inception_4b/3x3
I0403 21:49:24.813930 24357 net.cpp:425] inception_4b/output <- inception_4b/5x5
I0403 21:49:24.813946 24357 net.cpp:425] inception_4b/output <- inception_4b/pool_proj
I0403 21:49:24.813964 24357 net.cpp:399] inception_4b/output -> inception_4b/output
I0403 21:49:24.814013 24357 net.cpp:141] Setting up inception_4b/output
I0403 21:49:24.814049 24357 net.cpp:148] Top shape: 24 512 14 14 (2408448)
I0403 21:49:24.814064 24357 net.cpp:156] Memory required for data: 989857056
I0403 21:49:24.814093 24357 layer_factory.hpp:77] Creating layer inception_4b/output_inception_4b/output_0_split
I0403 21:49:24.814111 24357 net.cpp:91] Creating Layer inception_4b/output_inception_4b/output_0_split
I0403 21:49:24.814128 24357 net.cpp:425] inception_4b/output_inception_4b/output_0_split <- inception_4b/output
I0403 21:49:24.814149 24357 net.cpp:399] inception_4b/output_inception_4b/output_0_split -> inception_4b/output_inception_4b/output_0_split_0
I0403 21:49:24.814172 24357 net.cpp:399] inception_4b/output_inception_4b/output_0_split -> inception_4b/output_inception_4b/output_0_split_1
I0403 21:49:24.814191 24357 net.cpp:399] inception_4b/output_inception_4b/output_0_split -> inception_4b/output_inception_4b/output_0_split_2
I0403 21:49:24.814218 24357 net.cpp:399] inception_4b/output_inception_4b/output_0_split -> inception_4b/output_inception_4b/output_0_split_3
I0403 21:49:24.814304 24357 net.cpp:141] Setting up inception_4b/output_inception_4b/output_0_split
I0403 21:49:24.814328 24357 net.cpp:148] Top shape: 24 512 14 14 (2408448)
I0403 21:49:24.814345 24357 net.cpp:148] Top shape: 24 512 14 14 (2408448)
I0403 21:49:24.814362 24357 net.cpp:148] Top shape: 24 512 14 14 (2408448)
I0403 21:49:24.814375 24357 net.cpp:148] Top shape: 24 512 14 14 (2408448)
I0403 21:49:24.814389 24357 net.cpp:156] Memory required for data: 1028392224
I0403 21:49:24.814404 24357 layer_factory.hpp:77] Creating layer inception_4c/1x1
I0403 21:49:24.814427 24357 net.cpp:91] Creating Layer inception_4c/1x1
I0403 21:49:24.814445 24357 net.cpp:425] inception_4c/1x1 <- inception_4b/output_inception_4b/output_0_split_0
I0403 21:49:24.814466 24357 net.cpp:399] inception_4c/1x1 -> inception_4c/1x1
I0403 21:49:24.815845 24357 net.cpp:141] Setting up inception_4c/1x1
I0403 21:49:24.815871 24357 net.cpp:148] Top shape: 24 128 14 14 (602112)
I0403 21:49:24.815888 24357 net.cpp:156] Memory required for data: 1030800672
I0403 21:49:24.815909 24357 layer_factory.hpp:77] Creating layer inception_4c/relu_1x1
I0403 21:49:24.815932 24357 net.cpp:91] Creating Layer inception_4c/relu_1x1
I0403 21:49:24.815949 24357 net.cpp:425] inception_4c/relu_1x1 <- inception_4c/1x1
I0403 21:49:24.815968 24357 net.cpp:386] inception_4c/relu_1x1 -> inception_4c/1x1 (in-place)
I0403 21:49:24.816143 24357 net.cpp:141] Setting up inception_4c/relu_1x1
I0403 21:49:24.816167 24357 net.cpp:148] Top shape: 24 128 14 14 (602112)
I0403 21:49:24.816182 24357 net.cpp:156] Memory required for data: 1033209120
I0403 21:49:24.816202 24357 layer_factory.hpp:77] Creating layer inception_4c/3x3_reduce
I0403 21:49:24.816226 24357 net.cpp:91] Creating Layer inception_4c/3x3_reduce
I0403 21:49:24.816244 24357 net.cpp:425] inception_4c/3x3_reduce <- inception_4b/output_inception_4b/output_0_split_1
I0403 21:49:24.816267 24357 net.cpp:399] inception_4c/3x3_reduce -> inception_4c/3x3_reduce
I0403 21:49:24.818162 24357 net.cpp:141] Setting up inception_4c/3x3_reduce
I0403 21:49:24.818192 24357 net.cpp:148] Top shape: 24 128 14 14 (602112)
I0403 21:49:24.818218 24357 net.cpp:156] Memory required for data: 1035617568
I0403 21:49:24.818240 24357 layer_factory.hpp:77] Creating layer inception_4c/relu_3x3_reduce
I0403 21:49:24.818259 24357 net.cpp:91] Creating Layer inception_4c/relu_3x3_reduce
I0403 21:49:24.818275 24357 net.cpp:425] inception_4c/relu_3x3_reduce <- inception_4c/3x3_reduce
I0403 21:49:24.818295 24357 net.cpp:386] inception_4c/relu_3x3_reduce -> inception_4c/3x3_reduce (in-place)
I0403 21:49:24.818572 24357 net.cpp:141] Setting up inception_4c/relu_3x3_reduce
I0403 21:49:24.818598 24357 net.cpp:148] Top shape: 24 128 14 14 (602112)
I0403 21:49:24.818614 24357 net.cpp:156] Memory required for data: 1038026016
I0403 21:49:24.818630 24357 layer_factory.hpp:77] Creating layer inception_4c/3x3
I0403 21:49:24.818655 24357 net.cpp:91] Creating Layer inception_4c/3x3
I0403 21:49:24.818672 24357 net.cpp:425] inception_4c/3x3 <- inception_4c/3x3_reduce
I0403 21:49:24.818693 24357 net.cpp:399] inception_4c/3x3 -> inception_4c/3x3
I0403 21:49:24.822237 24357 net.cpp:141] Setting up inception_4c/3x3
I0403 21:49:24.822278 24357 net.cpp:148] Top shape: 24 256 14 14 (1204224)
I0403 21:49:24.822293 24357 net.cpp:156] Memory required for data: 1042842912
I0403 21:49:24.822326 24357 layer_factory.hpp:77] Creating layer inception_4c/relu_3x3
I0403 21:49:24.822350 24357 net.cpp:91] Creating Layer inception_4c/relu_3x3
I0403 21:49:24.822367 24357 net.cpp:425] inception_4c/relu_3x3 <- inception_4c/3x3
I0403 21:49:24.822386 24357 net.cpp:386] inception_4c/relu_3x3 -> inception_4c/3x3 (in-place)
I0403 21:49:24.822561 24357 net.cpp:141] Setting up inception_4c/relu_3x3
I0403 21:49:24.822587 24357 net.cpp:148] Top shape: 24 256 14 14 (1204224)
I0403 21:49:24.822602 24357 net.cpp:156] Memory required for data: 1047659808
I0403 21:49:24.822618 24357 layer_factory.hpp:77] Creating layer inception_4c/5x5_reduce
I0403 21:49:24.822639 24357 net.cpp:91] Creating Layer inception_4c/5x5_reduce
I0403 21:49:24.822657 24357 net.cpp:425] inception_4c/5x5_reduce <- inception_4b/output_inception_4b/output_0_split_2
I0403 21:49:24.822681 24357 net.cpp:399] inception_4c/5x5_reduce -> inception_4c/5x5_reduce
I0403 21:49:24.823732 24357 net.cpp:141] Setting up inception_4c/5x5_reduce
I0403 21:49:24.823760 24357 net.cpp:148] Top shape: 24 24 14 14 (112896)
I0403 21:49:24.823776 24357 net.cpp:156] Memory required for data: 1048111392
I0403 21:49:24.823796 24357 layer_factory.hpp:77] Creating layer inception_4c/relu_5x5_reduce
I0403 21:49:24.823817 24357 net.cpp:91] Creating Layer inception_4c/relu_5x5_reduce
I0403 21:49:24.823834 24357 net.cpp:425] inception_4c/relu_5x5_reduce <- inception_4c/5x5_reduce
I0403 21:49:24.823853 24357 net.cpp:386] inception_4c/relu_5x5_reduce -> inception_4c/5x5_reduce (in-place)
I0403 21:49:24.824028 24357 net.cpp:141] Setting up inception_4c/relu_5x5_reduce
I0403 21:49:24.824055 24357 net.cpp:148] Top shape: 24 24 14 14 (112896)
I0403 21:49:24.824071 24357 net.cpp:156] Memory required for data: 1048562976
I0403 21:49:24.824086 24357 layer_factory.hpp:77] Creating layer inception_4c/5x5
I0403 21:49:24.824106 24357 net.cpp:91] Creating Layer inception_4c/5x5
I0403 21:49:24.824125 24357 net.cpp:425] inception_4c/5x5 <- inception_4c/5x5_reduce
I0403 21:49:24.824147 24357 net.cpp:399] inception_4c/5x5 -> inception_4c/5x5
I0403 21:49:24.825356 24357 net.cpp:141] Setting up inception_4c/5x5
I0403 21:49:24.825382 24357 net.cpp:148] Top shape: 24 64 14 14 (301056)
I0403 21:49:24.825398 24357 net.cpp:156] Memory required for data: 1049767200
I0403 21:49:24.825417 24357 layer_factory.hpp:77] Creating layer inception_4c/relu_5x5
I0403 21:49:24.825438 24357 net.cpp:91] Creating Layer inception_4c/relu_5x5
I0403 21:49:24.825456 24357 net.cpp:425] inception_4c/relu_5x5 <- inception_4c/5x5
I0403 21:49:24.825474 24357 net.cpp:386] inception_4c/relu_5x5 -> inception_4c/5x5 (in-place)
I0403 21:49:24.825754 24357 net.cpp:141] Setting up inception_4c/relu_5x5
I0403 21:49:24.825781 24357 net.cpp:148] Top shape: 24 64 14 14 (301056)
I0403 21:49:24.825796 24357 net.cpp:156] Memory required for data: 1050971424
I0403 21:49:24.825811 24357 layer_factory.hpp:77] Creating layer inception_4c/pool
I0403 21:49:24.825832 24357 net.cpp:91] Creating Layer inception_4c/pool
I0403 21:49:24.825850 24357 net.cpp:425] inception_4c/pool <- inception_4b/output_inception_4b/output_0_split_3
I0403 21:49:24.825867 24357 net.cpp:399] inception_4c/pool -> inception_4c/pool
I0403 21:49:24.825944 24357 net.cpp:141] Setting up inception_4c/pool
I0403 21:49:24.825969 24357 net.cpp:148] Top shape: 24 512 14 14 (2408448)
I0403 21:49:24.825985 24357 net.cpp:156] Memory required for data: 1060605216
I0403 21:49:24.826002 24357 layer_factory.hpp:77] Creating layer inception_4c/pool_proj
I0403 21:49:24.826025 24357 net.cpp:91] Creating Layer inception_4c/pool_proj
I0403 21:49:24.826042 24357 net.cpp:425] inception_4c/pool_proj <- inception_4c/pool
I0403 21:49:24.826064 24357 net.cpp:399] inception_4c/pool_proj -> inception_4c/pool_proj
I0403 21:49:24.827273 24357 net.cpp:141] Setting up inception_4c/pool_proj
I0403 21:49:24.827302 24357 net.cpp:148] Top shape: 24 64 14 14 (301056)
I0403 21:49:24.827332 24357 net.cpp:156] Memory required for data: 1061809440
I0403 21:49:24.827353 24357 layer_factory.hpp:77] Creating layer inception_4c/relu_pool_proj
I0403 21:49:24.827375 24357 net.cpp:91] Creating Layer inception_4c/relu_pool_proj
I0403 21:49:24.827394 24357 net.cpp:425] inception_4c/relu_pool_proj <- inception_4c/pool_proj
I0403 21:49:24.827411 24357 net.cpp:386] inception_4c/relu_pool_proj -> inception_4c/pool_proj (in-place)
I0403 21:49:24.827587 24357 net.cpp:141] Setting up inception_4c/relu_pool_proj
I0403 21:49:24.827612 24357 net.cpp:148] Top shape: 24 64 14 14 (301056)
I0403 21:49:24.827628 24357 net.cpp:156] Memory required for data: 1063013664
I0403 21:49:24.827643 24357 layer_factory.hpp:77] Creating layer inception_4c/output
I0403 21:49:24.827663 24357 net.cpp:91] Creating Layer inception_4c/output
I0403 21:49:24.827680 24357 net.cpp:425] inception_4c/output <- inception_4c/1x1
I0403 21:49:24.827697 24357 net.cpp:425] inception_4c/output <- inception_4c/3x3
I0403 21:49:24.827714 24357 net.cpp:425] inception_4c/output <- inception_4c/5x5
I0403 21:49:24.827731 24357 net.cpp:425] inception_4c/output <- inception_4c/pool_proj
I0403 21:49:24.827749 24357 net.cpp:399] inception_4c/output -> inception_4c/output
I0403 21:49:24.827795 24357 net.cpp:141] Setting up inception_4c/output
I0403 21:49:24.827819 24357 net.cpp:148] Top shape: 24 512 14 14 (2408448)
I0403 21:49:24.827834 24357 net.cpp:156] Memory required for data: 1072647456
I0403 21:49:24.827850 24357 layer_factory.hpp:77] Creating layer inception_4c/output_inception_4c/output_0_split
I0403 21:49:24.827867 24357 net.cpp:91] Creating Layer inception_4c/output_inception_4c/output_0_split
I0403 21:49:24.827883 24357 net.cpp:425] inception_4c/output_inception_4c/output_0_split <- inception_4c/output
I0403 21:49:24.827903 24357 net.cpp:399] inception_4c/output_inception_4c/output_0_split -> inception_4c/output_inception_4c/output_0_split_0
I0403 21:49:24.827925 24357 net.cpp:399] inception_4c/output_inception_4c/output_0_split -> inception_4c/output_inception_4c/output_0_split_1
I0403 21:49:24.827946 24357 net.cpp:399] inception_4c/output_inception_4c/output_0_split -> inception_4c/output_inception_4c/output_0_split_2
I0403 21:49:24.827966 24357 net.cpp:399] inception_4c/output_inception_4c/output_0_split -> inception_4c/output_inception_4c/output_0_split_3
I0403 21:49:24.828055 24357 net.cpp:141] Setting up inception_4c/output_inception_4c/output_0_split
I0403 21:49:24.828083 24357 net.cpp:148] Top shape: 24 512 14 14 (2408448)
I0403 21:49:24.828099 24357 net.cpp:148] Top shape: 24 512 14 14 (2408448)
I0403 21:49:24.828115 24357 net.cpp:148] Top shape: 24 512 14 14 (2408448)
I0403 21:49:24.828131 24357 net.cpp:148] Top shape: 24 512 14 14 (2408448)
I0403 21:49:24.828145 24357 net.cpp:156] Memory required for data: 1111182624
I0403 21:49:24.828161 24357 layer_factory.hpp:77] Creating layer inception_4d/1x1
I0403 21:49:24.828182 24357 net.cpp:91] Creating Layer inception_4d/1x1
I0403 21:49:24.828223 24357 net.cpp:425] inception_4d/1x1 <- inception_4c/output_inception_4c/output_0_split_0
I0403 21:49:24.828259 24357 net.cpp:399] inception_4d/1x1 -> inception_4d/1x1
I0403 21:49:24.829653 24357 net.cpp:141] Setting up inception_4d/1x1
I0403 21:49:24.829684 24357 net.cpp:148] Top shape: 24 112 14 14 (526848)
I0403 21:49:24.829700 24357 net.cpp:156] Memory required for data: 1113290016
I0403 21:49:24.829720 24357 layer_factory.hpp:77] Creating layer inception_4d/relu_1x1
I0403 21:49:24.829738 24357 net.cpp:91] Creating Layer inception_4d/relu_1x1
I0403 21:49:24.829754 24357 net.cpp:425] inception_4d/relu_1x1 <- inception_4d/1x1
I0403 21:49:24.829776 24357 net.cpp:386] inception_4d/relu_1x1 -> inception_4d/1x1 (in-place)
I0403 21:49:24.829964 24357 net.cpp:141] Setting up inception_4d/relu_1x1
I0403 21:49:24.829990 24357 net.cpp:148] Top shape: 24 112 14 14 (526848)
I0403 21:49:24.830006 24357 net.cpp:156] Memory required for data: 1115397408
I0403 21:49:24.830024 24357 layer_factory.hpp:77] Creating layer inception_4d/3x3_reduce
I0403 21:49:24.830060 24357 net.cpp:91] Creating Layer inception_4d/3x3_reduce
I0403 21:49:24.830080 24357 net.cpp:425] inception_4d/3x3_reduce <- inception_4c/output_inception_4c/output_0_split_1
I0403 21:49:24.830101 24357 net.cpp:399] inception_4d/3x3_reduce -> inception_4d/3x3_reduce
I0403 21:49:24.831619 24357 net.cpp:141] Setting up inception_4d/3x3_reduce
I0403 21:49:24.831650 24357 net.cpp:148] Top shape: 24 144 14 14 (677376)
I0403 21:49:24.831667 24357 net.cpp:156] Memory required for data: 1118106912
I0403 21:49:24.831687 24357 layer_factory.hpp:77] Creating layer inception_4d/relu_3x3_reduce
I0403 21:49:24.831707 24357 net.cpp:91] Creating Layer inception_4d/relu_3x3_reduce
I0403 21:49:24.831724 24357 net.cpp:425] inception_4d/relu_3x3_reduce <- inception_4d/3x3_reduce
I0403 21:49:24.831743 24357 net.cpp:386] inception_4d/relu_3x3_reduce -> inception_4d/3x3_reduce (in-place)
I0403 21:49:24.832032 24357 net.cpp:141] Setting up inception_4d/relu_3x3_reduce
I0403 21:49:24.832062 24357 net.cpp:148] Top shape: 24 144 14 14 (677376)
I0403 21:49:24.832078 24357 net.cpp:156] Memory required for data: 1120816416
I0403 21:49:24.832094 24357 layer_factory.hpp:77] Creating layer inception_4d/3x3
I0403 21:49:24.832118 24357 net.cpp:91] Creating Layer inception_4d/3x3
I0403 21:49:24.832136 24357 net.cpp:425] inception_4d/3x3 <- inception_4d/3x3_reduce
I0403 21:49:24.832156 24357 net.cpp:399] inception_4d/3x3 -> inception_4d/3x3
I0403 21:49:24.836449 24357 net.cpp:141] Setting up inception_4d/3x3
I0403 21:49:24.836479 24357 net.cpp:148] Top shape: 24 288 14 14 (1354752)
I0403 21:49:24.836495 24357 net.cpp:156] Memory required for data: 1126235424
I0403 21:49:24.836514 24357 layer_factory.hpp:77] Creating layer inception_4d/relu_3x3
I0403 21:49:24.836534 24357 net.cpp:91] Creating Layer inception_4d/relu_3x3
I0403 21:49:24.836550 24357 net.cpp:425] inception_4d/relu_3x3 <- inception_4d/3x3
I0403 21:49:24.836571 24357 net.cpp:386] inception_4d/relu_3x3 -> inception_4d/3x3 (in-place)
I0403 21:49:24.836761 24357 net.cpp:141] Setting up inception_4d/relu_3x3
I0403 21:49:24.836788 24357 net.cpp:148] Top shape: 24 288 14 14 (1354752)
I0403 21:49:24.836803 24357 net.cpp:156] Memory required for data: 1131654432
I0403 21:49:24.836819 24357 layer_factory.hpp:77] Creating layer inception_4d/5x5_reduce
I0403 21:49:24.836841 24357 net.cpp:91] Creating Layer inception_4d/5x5_reduce
I0403 21:49:24.836860 24357 net.cpp:425] inception_4d/5x5_reduce <- inception_4c/output_inception_4c/output_0_split_2
I0403 21:49:24.836884 24357 net.cpp:399] inception_4d/5x5_reduce -> inception_4d/5x5_reduce
I0403 21:49:24.838030 24357 net.cpp:141] Setting up inception_4d/5x5_reduce
I0403 21:49:24.838060 24357 net.cpp:148] Top shape: 24 32 14 14 (150528)
I0403 21:49:24.838079 24357 net.cpp:156] Memory required for data: 1132256544
I0403 21:49:24.838099 24357 layer_factory.hpp:77] Creating layer inception_4d/relu_5x5_reduce
I0403 21:49:24.838117 24357 net.cpp:91] Creating Layer inception_4d/relu_5x5_reduce
I0403 21:49:24.838135 24357 net.cpp:425] inception_4d/relu_5x5_reduce <- inception_4d/5x5_reduce
I0403 21:49:24.838156 24357 net.cpp:386] inception_4d/relu_5x5_reduce -> inception_4d/5x5_reduce (in-place)
I0403 21:49:24.838357 24357 net.cpp:141] Setting up inception_4d/relu_5x5_reduce
I0403 21:49:24.838383 24357 net.cpp:148] Top shape: 24 32 14 14 (150528)
I0403 21:49:24.838399 24357 net.cpp:156] Memory required for data: 1132858656
I0403 21:49:24.838415 24357 layer_factory.hpp:77] Creating layer inception_4d/5x5
I0403 21:49:24.838438 24357 net.cpp:91] Creating Layer inception_4d/5x5
I0403 21:49:24.838456 24357 net.cpp:425] inception_4d/5x5 <- inception_4d/5x5_reduce
I0403 21:49:24.838479 24357 net.cpp:399] inception_4d/5x5 -> inception_4d/5x5
I0403 21:49:24.839952 24357 net.cpp:141] Setting up inception_4d/5x5
I0403 21:49:24.839982 24357 net.cpp:148] Top shape: 24 64 14 14 (301056)
I0403 21:49:24.839998 24357 net.cpp:156] Memory required for data: 1134062880
I0403 21:49:24.840018 24357 layer_factory.hpp:77] Creating layer inception_4d/relu_5x5
I0403 21:49:24.840054 24357 net.cpp:91] Creating Layer inception_4d/relu_5x5
I0403 21:49:24.840073 24357 net.cpp:425] inception_4d/relu_5x5 <- inception_4d/5x5
I0403 21:49:24.840092 24357 net.cpp:386] inception_4d/relu_5x5 -> inception_4d/5x5 (in-place)
I0403 21:49:24.840399 24357 net.cpp:141] Setting up inception_4d/relu_5x5
I0403 21:49:24.840426 24357 net.cpp:148] Top shape: 24 64 14 14 (301056)
I0403 21:49:24.840443 24357 net.cpp:156] Memory required for data: 1135267104
I0403 21:49:24.840459 24357 layer_factory.hpp:77] Creating layer inception_4d/pool
I0403 21:49:24.840479 24357 net.cpp:91] Creating Layer inception_4d/pool
I0403 21:49:24.840497 24357 net.cpp:425] inception_4d/pool <- inception_4c/output_inception_4c/output_0_split_3
I0403 21:49:24.840517 24357 net.cpp:399] inception_4d/pool -> inception_4d/pool
I0403 21:49:24.840586 24357 net.cpp:141] Setting up inception_4d/pool
I0403 21:49:24.840611 24357 net.cpp:148] Top shape: 24 512 14 14 (2408448)
I0403 21:49:24.840627 24357 net.cpp:156] Memory required for data: 1144900896
I0403 21:49:24.840643 24357 layer_factory.hpp:77] Creating layer inception_4d/pool_proj
I0403 21:49:24.840667 24357 net.cpp:91] Creating Layer inception_4d/pool_proj
I0403 21:49:24.840684 24357 net.cpp:425] inception_4d/pool_proj <- inception_4d/pool
I0403 21:49:24.840706 24357 net.cpp:399] inception_4d/pool_proj -> inception_4d/pool_proj
I0403 21:49:24.842507 24357 net.cpp:141] Setting up inception_4d/pool_proj
I0403 21:49:24.842537 24357 net.cpp:148] Top shape: 24 64 14 14 (301056)
I0403 21:49:24.842553 24357 net.cpp:156] Memory required for data: 1146105120
I0403 21:49:24.842574 24357 layer_factory.hpp:77] Creating layer inception_4d/relu_pool_proj
I0403 21:49:24.842593 24357 net.cpp:91] Creating Layer inception_4d/relu_pool_proj
I0403 21:49:24.842612 24357 net.cpp:425] inception_4d/relu_pool_proj <- inception_4d/pool_proj
I0403 21:49:24.842631 24357 net.cpp:386] inception_4d/relu_pool_proj -> inception_4d/pool_proj (in-place)
I0403 21:49:24.842819 24357 net.cpp:141] Setting up inception_4d/relu_pool_proj
I0403 21:49:24.842845 24357 net.cpp:148] Top shape: 24 64 14 14 (301056)
I0403 21:49:24.842860 24357 net.cpp:156] Memory required for data: 1147309344
I0403 21:49:24.842875 24357 layer_factory.hpp:77] Creating layer inception_4d/output
I0403 21:49:24.842895 24357 net.cpp:91] Creating Layer inception_4d/output
I0403 21:49:24.842912 24357 net.cpp:425] inception_4d/output <- inception_4d/1x1
I0403 21:49:24.842932 24357 net.cpp:425] inception_4d/output <- inception_4d/3x3
I0403 21:49:24.842949 24357 net.cpp:425] inception_4d/output <- inception_4d/5x5
I0403 21:49:24.842967 24357 net.cpp:425] inception_4d/output <- inception_4d/pool_proj
I0403 21:49:24.842984 24357 net.cpp:399] inception_4d/output -> inception_4d/output
I0403 21:49:24.843030 24357 net.cpp:141] Setting up inception_4d/output
I0403 21:49:24.843057 24357 net.cpp:148] Top shape: 24 528 14 14 (2483712)
I0403 21:49:24.843073 24357 net.cpp:156] Memory required for data: 1157244192
I0403 21:49:24.843089 24357 layer_factory.hpp:77] Creating layer inception_4d/output_inception_4d/output_0_split
I0403 21:49:24.843108 24357 net.cpp:91] Creating Layer inception_4d/output_inception_4d/output_0_split
I0403 21:49:24.843123 24357 net.cpp:425] inception_4d/output_inception_4d/output_0_split <- inception_4d/output
I0403 21:49:24.843143 24357 net.cpp:399] inception_4d/output_inception_4d/output_0_split -> inception_4d/output_inception_4d/output_0_split_0
I0403 21:49:24.843166 24357 net.cpp:399] inception_4d/output_inception_4d/output_0_split -> inception_4d/output_inception_4d/output_0_split_1
I0403 21:49:24.843188 24357 net.cpp:399] inception_4d/output_inception_4d/output_0_split -> inception_4d/output_inception_4d/output_0_split_2
I0403 21:49:24.843214 24357 net.cpp:399] inception_4d/output_inception_4d/output_0_split -> inception_4d/output_inception_4d/output_0_split_3
I0403 21:49:24.843237 24357 net.cpp:399] inception_4d/output_inception_4d/output_0_split -> inception_4d/output_inception_4d/output_0_split_4
I0403 21:49:24.843345 24357 net.cpp:141] Setting up inception_4d/output_inception_4d/output_0_split
I0403 21:49:24.843382 24357 net.cpp:148] Top shape: 24 528 14 14 (2483712)
I0403 21:49:24.843402 24357 net.cpp:148] Top shape: 24 528 14 14 (2483712)
I0403 21:49:24.843420 24357 net.cpp:148] Top shape: 24 528 14 14 (2483712)
I0403 21:49:24.843437 24357 net.cpp:148] Top shape: 24 528 14 14 (2483712)
I0403 21:49:24.843454 24357 net.cpp:148] Top shape: 24 528 14 14 (2483712)
I0403 21:49:24.843468 24357 net.cpp:156] Memory required for data: 1206918432
I0403 21:49:24.843484 24357 layer_factory.hpp:77] Creating layer loss2/ave_pool
I0403 21:49:24.843502 24357 net.cpp:91] Creating Layer loss2/ave_pool
I0403 21:49:24.843519 24357 net.cpp:425] loss2/ave_pool <- inception_4d/output_inception_4d/output_0_split_0
I0403 21:49:24.843540 24357 net.cpp:399] loss2/ave_pool -> loss2/ave_pool
I0403 21:49:24.843860 24357 net.cpp:141] Setting up loss2/ave_pool
I0403 21:49:24.843888 24357 net.cpp:148] Top shape: 24 528 4 4 (202752)
I0403 21:49:24.843904 24357 net.cpp:156] Memory required for data: 1207729440
I0403 21:49:24.843922 24357 layer_factory.hpp:77] Creating layer loss2/conv
I0403 21:49:24.843945 24357 net.cpp:91] Creating Layer loss2/conv
I0403 21:49:24.843963 24357 net.cpp:425] loss2/conv <- loss2/ave_pool
I0403 21:49:24.843987 24357 net.cpp:399] loss2/conv -> loss2/conv
I0403 21:49:24.845929 24357 net.cpp:141] Setting up loss2/conv
I0403 21:49:24.845957 24357 net.cpp:148] Top shape: 24 128 4 4 (49152)
I0403 21:49:24.845973 24357 net.cpp:156] Memory required for data: 1207926048
I0403 21:49:24.845993 24357 layer_factory.hpp:77] Creating layer loss2/relu_conv
I0403 21:49:24.846014 24357 net.cpp:91] Creating Layer loss2/relu_conv
I0403 21:49:24.846031 24357 net.cpp:425] loss2/relu_conv <- loss2/conv
I0403 21:49:24.846050 24357 net.cpp:386] loss2/relu_conv -> loss2/conv (in-place)
I0403 21:49:24.846338 24357 net.cpp:141] Setting up loss2/relu_conv
I0403 21:49:24.846364 24357 net.cpp:148] Top shape: 24 128 4 4 (49152)
I0403 21:49:24.846380 24357 net.cpp:156] Memory required for data: 1208122656
I0403 21:49:24.846395 24357 layer_factory.hpp:77] Creating layer loss2/fc
I0403 21:49:24.846416 24357 net.cpp:91] Creating Layer loss2/fc
I0403 21:49:24.846434 24357 net.cpp:425] loss2/fc <- loss2/conv
I0403 21:49:24.846453 24357 net.cpp:399] loss2/fc -> loss2/fc
I0403 21:49:24.863695 24357 net.cpp:141] Setting up loss2/fc
I0403 21:49:24.863730 24357 net.cpp:148] Top shape: 24 1024 (24576)
I0403 21:49:24.863747 24357 net.cpp:156] Memory required for data: 1208220960
I0403 21:49:24.863766 24357 layer_factory.hpp:77] Creating layer loss2/relu_fc
I0403 21:49:24.863785 24357 net.cpp:91] Creating Layer loss2/relu_fc
I0403 21:49:24.863802 24357 net.cpp:425] loss2/relu_fc <- loss2/fc
I0403 21:49:24.863823 24357 net.cpp:386] loss2/relu_fc -> loss2/fc (in-place)
I0403 21:49:24.864117 24357 net.cpp:141] Setting up loss2/relu_fc
I0403 21:49:24.864143 24357 net.cpp:148] Top shape: 24 1024 (24576)
I0403 21:49:24.864159 24357 net.cpp:156] Memory required for data: 1208319264
I0403 21:49:24.864176 24357 layer_factory.hpp:77] Creating layer loss2/drop_fc
I0403 21:49:24.864193 24357 net.cpp:91] Creating Layer loss2/drop_fc
I0403 21:49:24.864215 24357 net.cpp:425] loss2/drop_fc <- loss2/fc
I0403 21:49:24.864235 24357 net.cpp:386] loss2/drop_fc -> loss2/fc (in-place)
I0403 21:49:24.864285 24357 net.cpp:141] Setting up loss2/drop_fc
I0403 21:49:24.864312 24357 net.cpp:148] Top shape: 24 1024 (24576)
I0403 21:49:24.864328 24357 net.cpp:156] Memory required for data: 1208417568
I0403 21:49:24.864344 24357 layer_factory.hpp:77] Creating layer loss2/classifier_plantvillage
I0403 21:49:24.864363 24357 net.cpp:91] Creating Layer loss2/classifier_plantvillage
I0403 21:49:24.864379 24357 net.cpp:425] loss2/classifier_plantvillage <- loss2/fc
I0403 21:49:24.864400 24357 net.cpp:399] loss2/classifier_plantvillage -> loss2/classifier_plantvillage
I0403 21:49:24.864794 24357 net.cpp:141] Setting up loss2/classifier_plantvillage
I0403 21:49:24.864820 24357 net.cpp:148] Top shape: 24 38 (912)
I0403 21:49:24.864853 24357 net.cpp:156] Memory required for data: 1208421216
I0403 21:49:24.864872 24357 layer_factory.hpp:77] Creating layer loss2/classifier_plantvillage_loss2/classifier_plantvillage_0_split
I0403 21:49:24.864889 24357 net.cpp:91] Creating Layer loss2/classifier_plantvillage_loss2/classifier_plantvillage_0_split
I0403 21:49:24.864905 24357 net.cpp:425] loss2/classifier_plantvillage_loss2/classifier_plantvillage_0_split <- loss2/classifier_plantvillage
I0403 21:49:24.864924 24357 net.cpp:399] loss2/classifier_plantvillage_loss2/classifier_plantvillage_0_split -> loss2/classifier_plantvillage_loss2/classifier_plantvillage_0_split_0
I0403 21:49:24.864944 24357 net.cpp:399] loss2/classifier_plantvillage_loss2/classifier_plantvillage_0_split -> loss2/classifier_plantvillage_loss2/classifier_plantvillage_0_split_1
I0403 21:49:24.864967 24357 net.cpp:399] loss2/classifier_plantvillage_loss2/classifier_plantvillage_0_split -> loss2/classifier_plantvillage_loss2/classifier_plantvillage_0_split_2
I0403 21:49:24.865046 24357 net.cpp:141] Setting up loss2/classifier_plantvillage_loss2/classifier_plantvillage_0_split
I0403 21:49:24.865069 24357 net.cpp:148] Top shape: 24 38 (912)
I0403 21:49:24.865087 24357 net.cpp:148] Top shape: 24 38 (912)
I0403 21:49:24.865103 24357 net.cpp:148] Top shape: 24 38 (912)
I0403 21:49:24.865116 24357 net.cpp:156] Memory required for data: 1208432160
I0403 21:49:24.865131 24357 layer_factory.hpp:77] Creating layer inception_4e/1x1
I0403 21:49:24.865151 24357 net.cpp:91] Creating Layer inception_4e/1x1
I0403 21:49:24.865169 24357 net.cpp:425] inception_4e/1x1 <- inception_4d/output_inception_4d/output_0_split_1
I0403 21:49:24.865190 24357 net.cpp:399] inception_4e/1x1 -> inception_4e/1x1
I0403 21:49:24.866966 24357 net.cpp:141] Setting up inception_4e/1x1
I0403 21:49:24.866993 24357 net.cpp:148] Top shape: 24 256 14 14 (1204224)
I0403 21:49:24.867009 24357 net.cpp:156] Memory required for data: 1213249056
I0403 21:49:24.867028 24357 layer_factory.hpp:77] Creating layer inception_4e/relu_1x1
I0403 21:49:24.867048 24357 net.cpp:91] Creating Layer inception_4e/relu_1x1
I0403 21:49:24.867065 24357 net.cpp:425] inception_4e/relu_1x1 <- inception_4e/1x1
I0403 21:49:24.867084 24357 net.cpp:386] inception_4e/relu_1x1 -> inception_4e/1x1 (in-place)
I0403 21:49:24.867382 24357 net.cpp:141] Setting up inception_4e/relu_1x1
I0403 21:49:24.867408 24357 net.cpp:148] Top shape: 24 256 14 14 (1204224)
I0403 21:49:24.867424 24357 net.cpp:156] Memory required for data: 1218065952
I0403 21:49:24.867439 24357 layer_factory.hpp:77] Creating layer inception_4e/3x3_reduce
I0403 21:49:24.867463 24357 net.cpp:91] Creating Layer inception_4e/3x3_reduce
I0403 21:49:24.867482 24357 net.cpp:425] inception_4e/3x3_reduce <- inception_4d/output_inception_4d/output_0_split_2
I0403 21:49:24.867501 24357 net.cpp:399] inception_4e/3x3_reduce -> inception_4e/3x3_reduce
I0403 21:49:24.869592 24357 net.cpp:141] Setting up inception_4e/3x3_reduce
I0403 21:49:24.869621 24357 net.cpp:148] Top shape: 24 160 14 14 (752640)
I0403 21:49:24.869638 24357 net.cpp:156] Memory required for data: 1221076512
I0403 21:49:24.869657 24357 layer_factory.hpp:77] Creating layer inception_4e/relu_3x3_reduce
I0403 21:49:24.869678 24357 net.cpp:91] Creating Layer inception_4e/relu_3x3_reduce
I0403 21:49:24.869695 24357 net.cpp:425] inception_4e/relu_3x3_reduce <- inception_4e/3x3_reduce
I0403 21:49:24.869714 24357 net.cpp:386] inception_4e/relu_3x3_reduce -> inception_4e/3x3_reduce (in-place)
I0403 21:49:24.869897 24357 net.cpp:141] Setting up inception_4e/relu_3x3_reduce
I0403 21:49:24.869925 24357 net.cpp:148] Top shape: 24 160 14 14 (752640)
I0403 21:49:24.869940 24357 net.cpp:156] Memory required for data: 1224087072
I0403 21:49:24.869954 24357 layer_factory.hpp:77] Creating layer inception_4e/3x3
I0403 21:49:24.869978 24357 net.cpp:91] Creating Layer inception_4e/3x3
I0403 21:49:24.869997 24357 net.cpp:425] inception_4e/3x3 <- inception_4e/3x3_reduce
I0403 21:49:24.870015 24357 net.cpp:399] inception_4e/3x3 -> inception_4e/3x3
I0403 21:49:24.874915 24357 net.cpp:141] Setting up inception_4e/3x3
I0403 21:49:24.874958 24357 net.cpp:148] Top shape: 24 320 14 14 (1505280)
I0403 21:49:24.874976 24357 net.cpp:156] Memory required for data: 1230108192
I0403 21:49:24.874995 24357 layer_factory.hpp:77] Creating layer inception_4e/relu_3x3
I0403 21:49:24.875015 24357 net.cpp:91] Creating Layer inception_4e/relu_3x3
I0403 21:49:24.875031 24357 net.cpp:425] inception_4e/relu_3x3 <- inception_4e/3x3
I0403 21:49:24.875051 24357 net.cpp:386] inception_4e/relu_3x3 -> inception_4e/3x3 (in-place)
I0403 21:49:24.875349 24357 net.cpp:141] Setting up inception_4e/relu_3x3
I0403 21:49:24.875377 24357 net.cpp:148] Top shape: 24 320 14 14 (1505280)
I0403 21:49:24.875394 24357 net.cpp:156] Memory required for data: 1236129312
I0403 21:49:24.875409 24357 layer_factory.hpp:77] Creating layer inception_4e/5x5_reduce
I0403 21:49:24.875433 24357 net.cpp:91] Creating Layer inception_4e/5x5_reduce
I0403 21:49:24.875452 24357 net.cpp:425] inception_4e/5x5_reduce <- inception_4d/output_inception_4d/output_0_split_3
I0403 21:49:24.875473 24357 net.cpp:399] inception_4e/5x5_reduce -> inception_4e/5x5_reduce
I0403 21:49:24.876524 24357 net.cpp:141] Setting up inception_4e/5x5_reduce
I0403 21:49:24.876552 24357 net.cpp:148] Top shape: 24 32 14 14 (150528)
I0403 21:49:24.876569 24357 net.cpp:156] Memory required for data: 1236731424
I0403 21:49:24.876587 24357 layer_factory.hpp:77] Creating layer inception_4e/relu_5x5_reduce
I0403 21:49:24.876608 24357 net.cpp:91] Creating Layer inception_4e/relu_5x5_reduce
I0403 21:49:24.876626 24357 net.cpp:425] inception_4e/relu_5x5_reduce <- inception_4e/5x5_reduce
I0403 21:49:24.876646 24357 net.cpp:386] inception_4e/relu_5x5_reduce -> inception_4e/5x5_reduce (in-place)
I0403 21:49:24.876936 24357 net.cpp:141] Setting up inception_4e/relu_5x5_reduce
I0403 21:49:24.876962 24357 net.cpp:148] Top shape: 24 32 14 14 (150528)
I0403 21:49:24.876978 24357 net.cpp:156] Memory required for data: 1237333536
I0403 21:49:24.876993 24357 layer_factory.hpp:77] Creating layer inception_4e/5x5
I0403 21:49:24.877032 24357 net.cpp:91] Creating Layer inception_4e/5x5
I0403 21:49:24.877050 24357 net.cpp:425] inception_4e/5x5 <- inception_4e/5x5_reduce
I0403 21:49:24.877073 24357 net.cpp:399] inception_4e/5x5 -> inception_4e/5x5
I0403 21:49:24.878882 24357 net.cpp:141] Setting up inception_4e/5x5
I0403 21:49:24.878911 24357 net.cpp:148] Top shape: 24 128 14 14 (602112)
I0403 21:49:24.878927 24357 net.cpp:156] Memory required for data: 1239741984
I0403 21:49:24.878947 24357 layer_factory.hpp:77] Creating layer inception_4e/relu_5x5
I0403 21:49:24.878967 24357 net.cpp:91] Creating Layer inception_4e/relu_5x5
I0403 21:49:24.878983 24357 net.cpp:425] inception_4e/relu_5x5 <- inception_4e/5x5
I0403 21:49:24.879003 24357 net.cpp:386] inception_4e/relu_5x5 -> inception_4e/5x5 (in-place)
I0403 21:49:24.879200 24357 net.cpp:141] Setting up inception_4e/relu_5x5
I0403 21:49:24.879226 24357 net.cpp:148] Top shape: 24 128 14 14 (602112)
I0403 21:49:24.879242 24357 net.cpp:156] Memory required for data: 1242150432
I0403 21:49:24.879258 24357 layer_factory.hpp:77] Creating layer inception_4e/pool
I0403 21:49:24.879279 24357 net.cpp:91] Creating Layer inception_4e/pool
I0403 21:49:24.879297 24357 net.cpp:425] inception_4e/pool <- inception_4d/output_inception_4d/output_0_split_4
I0403 21:49:24.879315 24357 net.cpp:399] inception_4e/pool -> inception_4e/pool
I0403 21:49:24.879385 24357 net.cpp:141] Setting up inception_4e/pool
I0403 21:49:24.879410 24357 net.cpp:148] Top shape: 24 528 14 14 (2483712)
I0403 21:49:24.879426 24357 net.cpp:156] Memory required for data: 1252085280
I0403 21:49:24.879439 24357 layer_factory.hpp:77] Creating layer inception_4e/pool_proj
I0403 21:49:24.879462 24357 net.cpp:91] Creating Layer inception_4e/pool_proj
I0403 21:49:24.879479 24357 net.cpp:425] inception_4e/pool_proj <- inception_4e/pool
I0403 21:49:24.879504 24357 net.cpp:399] inception_4e/pool_proj -> inception_4e/pool_proj
I0403 21:49:24.880971 24357 net.cpp:141] Setting up inception_4e/pool_proj
I0403 21:49:24.881011 24357 net.cpp:148] Top shape: 24 128 14 14 (602112)
I0403 21:49:24.881026 24357 net.cpp:156] Memory required for data: 1254493728
I0403 21:49:24.881044 24357 layer_factory.hpp:77] Creating layer inception_4e/relu_pool_proj
I0403 21:49:24.881062 24357 net.cpp:91] Creating Layer inception_4e/relu_pool_proj
I0403 21:49:24.881078 24357 net.cpp:425] inception_4e/relu_pool_proj <- inception_4e/pool_proj
I0403 21:49:24.881098 24357 net.cpp:386] inception_4e/relu_pool_proj -> inception_4e/pool_proj (in-place)
I0403 21:49:24.881391 24357 net.cpp:141] Setting up inception_4e/relu_pool_proj
I0403 21:49:24.881417 24357 net.cpp:148] Top shape: 24 128 14 14 (602112)
I0403 21:49:24.881433 24357 net.cpp:156] Memory required for data: 1256902176
I0403 21:49:24.881448 24357 layer_factory.hpp:77] Creating layer inception_4e/output
I0403 21:49:24.881465 24357 net.cpp:91] Creating Layer inception_4e/output
I0403 21:49:24.881481 24357 net.cpp:425] inception_4e/output <- inception_4e/1x1
I0403 21:49:24.881499 24357 net.cpp:425] inception_4e/output <- inception_4e/3x3
I0403 21:49:24.881515 24357 net.cpp:425] inception_4e/output <- inception_4e/5x5
I0403 21:49:24.881531 24357 net.cpp:425] inception_4e/output <- inception_4e/pool_proj
I0403 21:49:24.881551 24357 net.cpp:399] inception_4e/output -> inception_4e/output
I0403 21:49:24.881599 24357 net.cpp:141] Setting up inception_4e/output
I0403 21:49:24.881625 24357 net.cpp:148] Top shape: 24 832 14 14 (3913728)
I0403 21:49:24.881644 24357 net.cpp:156] Memory required for data: 1272557088
I0403 21:49:24.881659 24357 layer_factory.hpp:77] Creating layer pool4/3x3_s2
I0403 21:49:24.881676 24357 net.cpp:91] Creating Layer pool4/3x3_s2
I0403 21:49:24.881693 24357 net.cpp:425] pool4/3x3_s2 <- inception_4e/output
I0403 21:49:24.881712 24357 net.cpp:399] pool4/3x3_s2 -> pool4/3x3_s2
I0403 21:49:24.881779 24357 net.cpp:141] Setting up pool4/3x3_s2
I0403 21:49:24.881803 24357 net.cpp:148] Top shape: 24 832 7 7 (978432)
I0403 21:49:24.881819 24357 net.cpp:156] Memory required for data: 1276470816
I0403 21:49:24.881834 24357 layer_factory.hpp:77] Creating layer pool4/3x3_s2_pool4/3x3_s2_0_split
I0403 21:49:24.881851 24357 net.cpp:91] Creating Layer pool4/3x3_s2_pool4/3x3_s2_0_split
I0403 21:49:24.881867 24357 net.cpp:425] pool4/3x3_s2_pool4/3x3_s2_0_split <- pool4/3x3_s2
I0403 21:49:24.881887 24357 net.cpp:399] pool4/3x3_s2_pool4/3x3_s2_0_split -> pool4/3x3_s2_pool4/3x3_s2_0_split_0
I0403 21:49:24.881908 24357 net.cpp:399] pool4/3x3_s2_pool4/3x3_s2_0_split -> pool4/3x3_s2_pool4/3x3_s2_0_split_1
I0403 21:49:24.881932 24357 net.cpp:399] pool4/3x3_s2_pool4/3x3_s2_0_split -> pool4/3x3_s2_pool4/3x3_s2_0_split_2
I0403 21:49:24.881954 24357 net.cpp:399] pool4/3x3_s2_pool4/3x3_s2_0_split -> pool4/3x3_s2_pool4/3x3_s2_0_split_3
I0403 21:49:24.882046 24357 net.cpp:141] Setting up pool4/3x3_s2_pool4/3x3_s2_0_split
I0403 21:49:24.882071 24357 net.cpp:148] Top shape: 24 832 7 7 (978432)
I0403 21:49:24.882087 24357 net.cpp:148] Top shape: 24 832 7 7 (978432)
I0403 21:49:24.882103 24357 net.cpp:148] Top shape: 24 832 7 7 (978432)
I0403 21:49:24.882118 24357 net.cpp:148] Top shape: 24 832 7 7 (978432)
I0403 21:49:24.882133 24357 net.cpp:156] Memory required for data: 1292125728
I0403 21:49:24.882149 24357 layer_factory.hpp:77] Creating layer inception_5a/1x1
I0403 21:49:24.882171 24357 net.cpp:91] Creating Layer inception_5a/1x1
I0403 21:49:24.882189 24357 net.cpp:425] inception_5a/1x1 <- pool4/3x3_s2_pool4/3x3_s2_0_split_0
I0403 21:49:24.882230 24357 net.cpp:399] inception_5a/1x1 -> inception_5a/1x1
I0403 21:49:24.885119 24357 net.cpp:141] Setting up inception_5a/1x1
I0403 21:49:24.885149 24357 net.cpp:148] Top shape: 24 256 7 7 (301056)
I0403 21:49:24.885165 24357 net.cpp:156] Memory required for data: 1293329952
I0403 21:49:24.885185 24357 layer_factory.hpp:77] Creating layer inception_5a/relu_1x1
I0403 21:49:24.885210 24357 net.cpp:91] Creating Layer inception_5a/relu_1x1
I0403 21:49:24.885231 24357 net.cpp:425] inception_5a/relu_1x1 <- inception_5a/1x1
I0403 21:49:24.885248 24357 net.cpp:386] inception_5a/relu_1x1 -> inception_5a/1x1 (in-place)
I0403 21:49:24.885565 24357 net.cpp:141] Setting up inception_5a/relu_1x1
I0403 21:49:24.885593 24357 net.cpp:148] Top shape: 24 256 7 7 (301056)
I0403 21:49:24.885610 24357 net.cpp:156] Memory required for data: 1294534176
I0403 21:49:24.885627 24357 layer_factory.hpp:77] Creating layer inception_5a/3x3_reduce
I0403 21:49:24.885648 24357 net.cpp:91] Creating Layer inception_5a/3x3_reduce
I0403 21:49:24.885668 24357 net.cpp:425] inception_5a/3x3_reduce <- pool4/3x3_s2_pool4/3x3_s2_0_split_1
I0403 21:49:24.885690 24357 net.cpp:399] inception_5a/3x3_reduce -> inception_5a/3x3_reduce
I0403 21:49:24.888186 24357 net.cpp:141] Setting up inception_5a/3x3_reduce
I0403 21:49:24.888228 24357 net.cpp:148] Top shape: 24 160 7 7 (188160)
I0403 21:49:24.888247 24357 net.cpp:156] Memory required for data: 1295286816
I0403 21:49:24.888265 24357 layer_factory.hpp:77] Creating layer inception_5a/relu_3x3_reduce
I0403 21:49:24.888285 24357 net.cpp:91] Creating Layer inception_5a/relu_3x3_reduce
I0403 21:49:24.888303 24357 net.cpp:425] inception_5a/relu_3x3_reduce <- inception_5a/3x3_reduce
I0403 21:49:24.888324 24357 net.cpp:386] inception_5a/relu_3x3_reduce -> inception_5a/3x3_reduce (in-place)
I0403 21:49:24.888520 24357 net.cpp:141] Setting up inception_5a/relu_3x3_reduce
I0403 21:49:24.888546 24357 net.cpp:148] Top shape: 24 160 7 7 (188160)
I0403 21:49:24.888562 24357 net.cpp:156] Memory required for data: 1296039456
I0403 21:49:24.888578 24357 layer_factory.hpp:77] Creating layer inception_5a/3x3
I0403 21:49:24.888603 24357 net.cpp:91] Creating Layer inception_5a/3x3
I0403 21:49:24.888623 24357 net.cpp:425] inception_5a/3x3 <- inception_5a/3x3_reduce
I0403 21:49:24.888645 24357 net.cpp:399] inception_5a/3x3 -> inception_5a/3x3
I0403 21:49:24.893717 24357 net.cpp:141] Setting up inception_5a/3x3
I0403 21:49:24.893748 24357 net.cpp:148] Top shape: 24 320 7 7 (376320)
I0403 21:49:24.893764 24357 net.cpp:156] Memory required for data: 1297544736
I0403 21:49:24.893784 24357 layer_factory.hpp:77] Creating layer inception_5a/relu_3x3
I0403 21:49:24.893806 24357 net.cpp:91] Creating Layer inception_5a/relu_3x3
I0403 21:49:24.893826 24357 net.cpp:425] inception_5a/relu_3x3 <- inception_5a/3x3
I0403 21:49:24.893846 24357 net.cpp:386] inception_5a/relu_3x3 -> inception_5a/3x3 (in-place)
I0403 21:49:24.894146 24357 net.cpp:141] Setting up inception_5a/relu_3x3
I0403 21:49:24.894173 24357 net.cpp:148] Top shape: 24 320 7 7 (376320)
I0403 21:49:24.894188 24357 net.cpp:156] Memory required for data: 1299050016
I0403 21:49:24.894209 24357 layer_factory.hpp:77] Creating layer inception_5a/5x5_reduce
I0403 21:49:24.894233 24357 net.cpp:91] Creating Layer inception_5a/5x5_reduce
I0403 21:49:24.894253 24357 net.cpp:425] inception_5a/5x5_reduce <- pool4/3x3_s2_pool4/3x3_s2_0_split_2
I0403 21:49:24.894274 24357 net.cpp:399] inception_5a/5x5_reduce -> inception_5a/5x5_reduce
I0403 21:49:24.895459 24357 net.cpp:141] Setting up inception_5a/5x5_reduce
I0403 21:49:24.895490 24357 net.cpp:148] Top shape: 24 32 7 7 (37632)
I0403 21:49:24.895509 24357 net.cpp:156] Memory required for data: 1299200544
I0403 21:49:24.895527 24357 layer_factory.hpp:77] Creating layer inception_5a/relu_5x5_reduce
I0403 21:49:24.895546 24357 net.cpp:91] Creating Layer inception_5a/relu_5x5_reduce
I0403 21:49:24.895562 24357 net.cpp:425] inception_5a/relu_5x5_reduce <- inception_5a/5x5_reduce
I0403 21:49:24.895581 24357 net.cpp:386] inception_5a/relu_5x5_reduce -> inception_5a/5x5_reduce (in-place)
I0403 21:49:24.895881 24357 net.cpp:141] Setting up inception_5a/relu_5x5_reduce
I0403 21:49:24.895908 24357 net.cpp:148] Top shape: 24 32 7 7 (37632)
I0403 21:49:24.895926 24357 net.cpp:156] Memory required for data: 1299351072
I0403 21:49:24.895943 24357 layer_factory.hpp:77] Creating layer inception_5a/5x5
I0403 21:49:24.895967 24357 net.cpp:91] Creating Layer inception_5a/5x5
I0403 21:49:24.895985 24357 net.cpp:425] inception_5a/5x5 <- inception_5a/5x5_reduce
I0403 21:49:24.896008 24357 net.cpp:399] inception_5a/5x5 -> inception_5a/5x5
I0403 21:49:24.897748 24357 net.cpp:141] Setting up inception_5a/5x5
I0403 21:49:24.897789 24357 net.cpp:148] Top shape: 24 128 7 7 (150528)
I0403 21:49:24.897805 24357 net.cpp:156] Memory required for data: 1299953184
I0403 21:49:24.897825 24357 layer_factory.hpp:77] Creating layer inception_5a/relu_5x5
I0403 21:49:24.897842 24357 net.cpp:91] Creating Layer inception_5a/relu_5x5
I0403 21:49:24.897860 24357 net.cpp:425] inception_5a/relu_5x5 <- inception_5a/5x5
I0403 21:49:24.897881 24357 net.cpp:386] inception_5a/relu_5x5 -> inception_5a/5x5 (in-place)
I0403 21:49:24.898073 24357 net.cpp:141] Setting up inception_5a/relu_5x5
I0403 21:49:24.898100 24357 net.cpp:148] Top shape: 24 128 7 7 (150528)
I0403 21:49:24.898115 24357 net.cpp:156] Memory required for data: 1300555296
I0403 21:49:24.898130 24357 layer_factory.hpp:77] Creating layer inception_5a/pool
I0403 21:49:24.898151 24357 net.cpp:91] Creating Layer inception_5a/pool
I0403 21:49:24.898169 24357 net.cpp:425] inception_5a/pool <- pool4/3x3_s2_pool4/3x3_s2_0_split_3
I0403 21:49:24.898188 24357 net.cpp:399] inception_5a/pool -> inception_5a/pool
I0403 21:49:24.898277 24357 net.cpp:141] Setting up inception_5a/pool
I0403 21:49:24.898303 24357 net.cpp:148] Top shape: 24 832 7 7 (978432)
I0403 21:49:24.898318 24357 net.cpp:156] Memory required for data: 1304469024
I0403 21:49:24.898332 24357 layer_factory.hpp:77] Creating layer inception_5a/pool_proj
I0403 21:49:24.898356 24357 net.cpp:91] Creating Layer inception_5a/pool_proj
I0403 21:49:24.898373 24357 net.cpp:425] inception_5a/pool_proj <- inception_5a/pool
I0403 21:49:24.898396 24357 net.cpp:399] inception_5a/pool_proj -> inception_5a/pool_proj
I0403 21:49:24.900697 24357 net.cpp:141] Setting up inception_5a/pool_proj
I0403 21:49:24.900727 24357 net.cpp:148] Top shape: 24 128 7 7 (150528)
I0403 21:49:24.900744 24357 net.cpp:156] Memory required for data: 1305071136
I0403 21:49:24.900763 24357 layer_factory.hpp:77] Creating layer inception_5a/relu_pool_proj
I0403 21:49:24.900781 24357 net.cpp:91] Creating Layer inception_5a/relu_pool_proj
I0403 21:49:24.900799 24357 net.cpp:425] inception_5a/relu_pool_proj <- inception_5a/pool_proj
I0403 21:49:24.900820 24357 net.cpp:386] inception_5a/relu_pool_proj -> inception_5a/pool_proj (in-place)
I0403 21:49:24.901109 24357 net.cpp:141] Setting up inception_5a/relu_pool_proj
I0403 21:49:24.901136 24357 net.cpp:148] Top shape: 24 128 7 7 (150528)
I0403 21:49:24.901152 24357 net.cpp:156] Memory required for data: 1305673248
I0403 21:49:24.901167 24357 layer_factory.hpp:77] Creating layer inception_5a/output
I0403 21:49:24.901186 24357 net.cpp:91] Creating Layer inception_5a/output
I0403 21:49:24.901216 24357 net.cpp:425] inception_5a/output <- inception_5a/1x1
I0403 21:49:24.901234 24357 net.cpp:425] inception_5a/output <- inception_5a/3x3
I0403 21:49:24.901250 24357 net.cpp:425] inception_5a/output <- inception_5a/5x5
I0403 21:49:24.901268 24357 net.cpp:425] inception_5a/output <- inception_5a/pool_proj
I0403 21:49:24.901286 24357 net.cpp:399] inception_5a/output -> inception_5a/output
I0403 21:49:24.901336 24357 net.cpp:141] Setting up inception_5a/output
I0403 21:49:24.901363 24357 net.cpp:148] Top shape: 24 832 7 7 (978432)
I0403 21:49:24.901379 24357 net.cpp:156] Memory required for data: 1309586976
I0403 21:49:24.901396 24357 layer_factory.hpp:77] Creating layer inception_5a/output_inception_5a/output_0_split
I0403 21:49:24.901412 24357 net.cpp:91] Creating Layer inception_5a/output_inception_5a/output_0_split
I0403 21:49:24.901428 24357 net.cpp:425] inception_5a/output_inception_5a/output_0_split <- inception_5a/output
I0403 21:49:24.901446 24357 net.cpp:399] inception_5a/output_inception_5a/output_0_split -> inception_5a/output_inception_5a/output_0_split_0
I0403 21:49:24.901470 24357 net.cpp:399] inception_5a/output_inception_5a/output_0_split -> inception_5a/output_inception_5a/output_0_split_1
I0403 21:49:24.901492 24357 net.cpp:399] inception_5a/output_inception_5a/output_0_split -> inception_5a/output_inception_5a/output_0_split_2
I0403 21:49:24.901512 24357 net.cpp:399] inception_5a/output_inception_5a/output_0_split -> inception_5a/output_inception_5a/output_0_split_3
I0403 21:49:24.901620 24357 net.cpp:141] Setting up inception_5a/output_inception_5a/output_0_split
I0403 21:49:24.901646 24357 net.cpp:148] Top shape: 24 832 7 7 (978432)
I0403 21:49:24.901662 24357 net.cpp:148] Top shape: 24 832 7 7 (978432)
I0403 21:49:24.901679 24357 net.cpp:148] Top shape: 24 832 7 7 (978432)
I0403 21:49:24.901695 24357 net.cpp:148] Top shape: 24 832 7 7 (978432)
I0403 21:49:24.901708 24357 net.cpp:156] Memory required for data: 1325241888
I0403 21:49:24.901723 24357 layer_factory.hpp:77] Creating layer inception_5b/1x1
I0403 21:49:24.901746 24357 net.cpp:91] Creating Layer inception_5b/1x1
I0403 21:49:24.901763 24357 net.cpp:425] inception_5b/1x1 <- inception_5a/output_inception_5a/output_0_split_0
I0403 21:49:24.901787 24357 net.cpp:399] inception_5b/1x1 -> inception_5b/1x1
I0403 21:49:24.905508 24357 net.cpp:141] Setting up inception_5b/1x1
I0403 21:49:24.905539 24357 net.cpp:148] Top shape: 24 384 7 7 (451584)
I0403 21:49:24.905555 24357 net.cpp:156] Memory required for data: 1327048224
I0403 21:49:24.905575 24357 layer_factory.hpp:77] Creating layer inception_5b/relu_1x1
I0403 21:49:24.905592 24357 net.cpp:91] Creating Layer inception_5b/relu_1x1
I0403 21:49:24.905608 24357 net.cpp:425] inception_5b/relu_1x1 <- inception_5b/1x1
I0403 21:49:24.905629 24357 net.cpp:386] inception_5b/relu_1x1 -> inception_5b/1x1 (in-place)
I0403 21:49:24.905928 24357 net.cpp:141] Setting up inception_5b/relu_1x1
I0403 21:49:24.905956 24357 net.cpp:148] Top shape: 24 384 7 7 (451584)
I0403 21:49:24.905972 24357 net.cpp:156] Memory required for data: 1328854560
I0403 21:49:24.905987 24357 layer_factory.hpp:77] Creating layer inception_5b/3x3_reduce
I0403 21:49:24.906010 24357 net.cpp:91] Creating Layer inception_5b/3x3_reduce
I0403 21:49:24.906029 24357 net.cpp:425] inception_5b/3x3_reduce <- inception_5a/output_inception_5a/output_0_split_1
I0403 21:49:24.906052 24357 net.cpp:399] inception_5b/3x3_reduce -> inception_5b/3x3_reduce
I0403 21:49:24.908679 24357 net.cpp:141] Setting up inception_5b/3x3_reduce
I0403 21:49:24.908710 24357 net.cpp:148] Top shape: 24 192 7 7 (225792)
I0403 21:49:24.908728 24357 net.cpp:156] Memory required for data: 1329757728
I0403 21:49:24.908747 24357 layer_factory.hpp:77] Creating layer inception_5b/relu_3x3_reduce
I0403 21:49:24.908766 24357 net.cpp:91] Creating Layer inception_5b/relu_3x3_reduce
I0403 21:49:24.908783 24357 net.cpp:425] inception_5b/relu_3x3_reduce <- inception_5b/3x3_reduce
I0403 21:49:24.908805 24357 net.cpp:386] inception_5b/relu_3x3_reduce -> inception_5b/3x3_reduce (in-place)
I0403 21:49:24.908998 24357 net.cpp:141] Setting up inception_5b/relu_3x3_reduce
I0403 21:49:24.909023 24357 net.cpp:148] Top shape: 24 192 7 7 (225792)
I0403 21:49:24.909037 24357 net.cpp:156] Memory required for data: 1330660896
I0403 21:49:24.909054 24357 layer_factory.hpp:77] Creating layer inception_5b/3x3
I0403 21:49:24.909077 24357 net.cpp:91] Creating Layer inception_5b/3x3
I0403 21:49:24.909096 24357 net.cpp:425] inception_5b/3x3 <- inception_5b/3x3_reduce
I0403 21:49:24.909118 24357 net.cpp:399] inception_5b/3x3 -> inception_5b/3x3
I0403 21:49:24.915731 24357 net.cpp:141] Setting up inception_5b/3x3
I0403 21:49:24.915760 24357 net.cpp:148] Top shape: 24 384 7 7 (451584)
I0403 21:49:24.915776 24357 net.cpp:156] Memory required for data: 1332467232
I0403 21:49:24.915796 24357 layer_factory.hpp:77] Creating layer inception_5b/relu_3x3
I0403 21:49:24.915813 24357 net.cpp:91] Creating Layer inception_5b/relu_3x3
I0403 21:49:24.915830 24357 net.cpp:425] inception_5b/relu_3x3 <- inception_5b/3x3
I0403 21:49:24.915850 24357 net.cpp:386] inception_5b/relu_3x3 -> inception_5b/3x3 (in-place)
I0403 21:49:24.916143 24357 net.cpp:141] Setting up inception_5b/relu_3x3
I0403 21:49:24.916170 24357 net.cpp:148] Top shape: 24 384 7 7 (451584)
I0403 21:49:24.916187 24357 net.cpp:156] Memory required for data: 1334273568
I0403 21:49:24.916206 24357 layer_factory.hpp:77] Creating layer inception_5b/5x5_reduce
I0403 21:49:24.916245 24357 net.cpp:91] Creating Layer inception_5b/5x5_reduce
I0403 21:49:24.916265 24357 net.cpp:425] inception_5b/5x5_reduce <- inception_5a/output_inception_5a/output_0_split_2
I0403 21:49:24.916287 24357 net.cpp:399] inception_5b/5x5_reduce -> inception_5b/5x5_reduce
I0403 21:49:24.917543 24357 net.cpp:141] Setting up inception_5b/5x5_reduce
I0403 21:49:24.917572 24357 net.cpp:148] Top shape: 24 48 7 7 (56448)
I0403 21:49:24.917587 24357 net.cpp:156] Memory required for data: 1334499360
I0403 21:49:24.917608 24357 layer_factory.hpp:77] Creating layer inception_5b/relu_5x5_reduce
I0403 21:49:24.917625 24357 net.cpp:91] Creating Layer inception_5b/relu_5x5_reduce
I0403 21:49:24.917642 24357 net.cpp:425] inception_5b/relu_5x5_reduce <- inception_5b/5x5_reduce
I0403 21:49:24.917662 24357 net.cpp:386] inception_5b/relu_5x5_reduce -> inception_5b/5x5_reduce (in-place)
I0403 21:49:24.918036 24357 net.cpp:141] Setting up inception_5b/relu_5x5_reduce
I0403 21:49:24.918063 24357 net.cpp:148] Top shape: 24 48 7 7 (56448)
I0403 21:49:24.918079 24357 net.cpp:156] Memory required for data: 1334725152
I0403 21:49:24.918094 24357 layer_factory.hpp:77] Creating layer inception_5b/5x5
I0403 21:49:24.918114 24357 net.cpp:91] Creating Layer inception_5b/5x5
I0403 21:49:24.918133 24357 net.cpp:425] inception_5b/5x5 <- inception_5b/5x5_reduce
I0403 21:49:24.918153 24357 net.cpp:399] inception_5b/5x5 -> inception_5b/5x5
I0403 21:49:24.920178 24357 net.cpp:141] Setting up inception_5b/5x5
I0403 21:49:24.920209 24357 net.cpp:148] Top shape: 24 128 7 7 (150528)
I0403 21:49:24.920228 24357 net.cpp:156] Memory required for data: 1335327264
I0403 21:49:24.920246 24357 layer_factory.hpp:77] Creating layer inception_5b/relu_5x5
I0403 21:49:24.920269 24357 net.cpp:91] Creating Layer inception_5b/relu_5x5
I0403 21:49:24.920285 24357 net.cpp:425] inception_5b/relu_5x5 <- inception_5b/5x5
I0403 21:49:24.920303 24357 net.cpp:386] inception_5b/relu_5x5 -> inception_5b/5x5 (in-place)
I0403 21:49:24.920497 24357 net.cpp:141] Setting up inception_5b/relu_5x5
I0403 21:49:24.920523 24357 net.cpp:148] Top shape: 24 128 7 7 (150528)
I0403 21:49:24.920538 24357 net.cpp:156] Memory required for data: 1335929376
I0403 21:49:24.920554 24357 layer_factory.hpp:77] Creating layer inception_5b/pool
I0403 21:49:24.920574 24357 net.cpp:91] Creating Layer inception_5b/pool
I0403 21:49:24.920593 24357 net.cpp:425] inception_5b/pool <- inception_5a/output_inception_5a/output_0_split_3
I0403 21:49:24.920611 24357 net.cpp:399] inception_5b/pool -> inception_5b/pool
I0403 21:49:24.920686 24357 net.cpp:141] Setting up inception_5b/pool
I0403 21:49:24.920711 24357 net.cpp:148] Top shape: 24 832 7 7 (978432)
I0403 21:49:24.920727 24357 net.cpp:156] Memory required for data: 1339843104
I0403 21:49:24.920742 24357 layer_factory.hpp:77] Creating layer inception_5b/pool_proj
I0403 21:49:24.920764 24357 net.cpp:91] Creating Layer inception_5b/pool_proj
I0403 21:49:24.920783 24357 net.cpp:425] inception_5b/pool_proj <- inception_5b/pool
I0403 21:49:24.920804 24357 net.cpp:399] inception_5b/pool_proj -> inception_5b/pool_proj
I0403 21:49:24.923080 24357 net.cpp:141] Setting up inception_5b/pool_proj
I0403 21:49:24.923110 24357 net.cpp:148] Top shape: 24 128 7 7 (150528)
I0403 21:49:24.923127 24357 net.cpp:156] Memory required for data: 1340445216
I0403 21:49:24.923146 24357 layer_factory.hpp:77] Creating layer inception_5b/relu_pool_proj
I0403 21:49:24.923164 24357 net.cpp:91] Creating Layer inception_5b/relu_pool_proj
I0403 21:49:24.923180 24357 net.cpp:425] inception_5b/relu_pool_proj <- inception_5b/pool_proj
I0403 21:49:24.923203 24357 net.cpp:386] inception_5b/relu_pool_proj -> inception_5b/pool_proj (in-place)
I0403 21:49:24.923499 24357 net.cpp:141] Setting up inception_5b/relu_pool_proj
I0403 21:49:24.923526 24357 net.cpp:148] Top shape: 24 128 7 7 (150528)
I0403 21:49:24.923540 24357 net.cpp:156] Memory required for data: 1341047328
I0403 21:49:24.923557 24357 layer_factory.hpp:77] Creating layer inception_5b/output
I0403 21:49:24.923575 24357 net.cpp:91] Creating Layer inception_5b/output
I0403 21:49:24.923606 24357 net.cpp:425] inception_5b/output <- inception_5b/1x1
I0403 21:49:24.923625 24357 net.cpp:425] inception_5b/output <- inception_5b/3x3
I0403 21:49:24.923643 24357 net.cpp:425] inception_5b/output <- inception_5b/5x5
I0403 21:49:24.923660 24357 net.cpp:425] inception_5b/output <- inception_5b/pool_proj
I0403 21:49:24.923679 24357 net.cpp:399] inception_5b/output -> inception_5b/output
I0403 21:49:24.923729 24357 net.cpp:141] Setting up inception_5b/output
I0403 21:49:24.923758 24357 net.cpp:148] Top shape: 24 1024 7 7 (1204224)
I0403 21:49:24.923774 24357 net.cpp:156] Memory required for data: 1345864224
I0403 21:49:24.923790 24357 layer_factory.hpp:77] Creating layer pool5/7x7_s1
I0403 21:49:24.923807 24357 net.cpp:91] Creating Layer pool5/7x7_s1
I0403 21:49:24.923825 24357 net.cpp:425] pool5/7x7_s1 <- inception_5b/output
I0403 21:49:24.923847 24357 net.cpp:399] pool5/7x7_s1 -> pool5/7x7_s1
I0403 21:49:24.924063 24357 net.cpp:141] Setting up pool5/7x7_s1
I0403 21:49:24.924089 24357 net.cpp:148] Top shape: 24 1024 1 1 (24576)
I0403 21:49:24.924105 24357 net.cpp:156] Memory required for data: 1345962528
I0403 21:49:24.924120 24357 layer_factory.hpp:77] Creating layer pool5/drop_7x7_s1
I0403 21:49:24.924139 24357 net.cpp:91] Creating Layer pool5/drop_7x7_s1
I0403 21:49:24.924155 24357 net.cpp:425] pool5/drop_7x7_s1 <- pool5/7x7_s1
I0403 21:49:24.924175 24357 net.cpp:386] pool5/drop_7x7_s1 -> pool5/7x7_s1 (in-place)
I0403 21:49:24.924227 24357 net.cpp:141] Setting up pool5/drop_7x7_s1
I0403 21:49:24.924254 24357 net.cpp:148] Top shape: 24 1024 1 1 (24576)
I0403 21:49:24.924270 24357 net.cpp:156] Memory required for data: 1346060832
I0403 21:49:24.924286 24357 layer_factory.hpp:77] Creating layer loss3/classifier_plantvillage
I0403 21:49:24.924306 24357 net.cpp:91] Creating Layer loss3/classifier_plantvillage
I0403 21:49:24.924324 24357 net.cpp:425] loss3/classifier_plantvillage <- pool5/7x7_s1
I0403 21:49:24.924345 24357 net.cpp:399] loss3/classifier_plantvillage -> loss3/classifier_plantvillage
I0403 21:49:24.924759 24357 net.cpp:141] Setting up loss3/classifier_plantvillage
I0403 21:49:24.924784 24357 net.cpp:148] Top shape: 24 38 (912)
I0403 21:49:24.924800 24357 net.cpp:156] Memory required for data: 1346064480
I0403 21:49:24.924818 24357 layer_factory.hpp:77] Creating layer loss3/classifier_plantvillage_loss3/classifier_plantvillage_0_split
I0403 21:49:24.924840 24357 net.cpp:91] Creating Layer loss3/classifier_plantvillage_loss3/classifier_plantvillage_0_split
I0403 21:49:24.924857 24357 net.cpp:425] loss3/classifier_plantvillage_loss3/classifier_plantvillage_0_split <- loss3/classifier_plantvillage
I0403 21:49:24.924875 24357 net.cpp:399] loss3/classifier_plantvillage_loss3/classifier_plantvillage_0_split -> loss3/classifier_plantvillage_loss3/classifier_plantvillage_0_split_0
I0403 21:49:24.924898 24357 net.cpp:399] loss3/classifier_plantvillage_loss3/classifier_plantvillage_0_split -> loss3/classifier_plantvillage_loss3/classifier_plantvillage_0_split_1
I0403 21:49:24.924921 24357 net.cpp:399] loss3/classifier_plantvillage_loss3/classifier_plantvillage_0_split -> loss3/classifier_plantvillage_loss3/classifier_plantvillage_0_split_2
I0403 21:49:24.924952 24357 net.cpp:399] loss3/classifier_plantvillage_loss3/classifier_plantvillage_0_split -> loss3/classifier_plantvillage_loss3/classifier_plantvillage_0_split_3
I0403 21:49:24.925050 24357 net.cpp:141] Setting up loss3/classifier_plantvillage_loss3/classifier_plantvillage_0_split
I0403 21:49:24.925076 24357 net.cpp:148] Top shape: 24 38 (912)
I0403 21:49:24.925091 24357 net.cpp:148] Top shape: 24 38 (912)
I0403 21:49:24.925107 24357 net.cpp:148] Top shape: 24 38 (912)
I0403 21:49:24.925122 24357 net.cpp:148] Top shape: 24 38 (912)
I0403 21:49:24.925137 24357 net.cpp:156] Memory required for data: 1346079072
I0403 21:49:24.925153 24357 layer_factory.hpp:77] Creating layer loss1/loss
I0403 21:49:24.925174 24357 net.cpp:91] Creating Layer loss1/loss
I0403 21:49:24.925191 24357 net.cpp:425] loss1/loss <- loss1/classifier_plantvillage_loss1/classifier_plantvillage_0_split_0
I0403 21:49:24.925237 24357 net.cpp:425] loss1/loss <- label_data_1_split_0
…
