…
I0403 21:51:33.591039 24480 net.cpp:313] The NetState phase (1) differed from the phase (0) specified by a rule in layer data
I0403 21:51:33.592181 24480 net.cpp:49] Initializing net from parameters: 
state {
  phase: TEST
}
layer {
  name: "data"
  type: "Data"
  top: "data"
  top: "label"
  include {
    phase: TEST
  }
  transform_param {
    mirror: false
    crop_size: 224
    mean_file: "/home/mohanty/data/final_dataset/lmdb/segmented-80-20/mean.binaryproto"
  }
  data_param {
    source: "/home/mohanty/data/final_dataset/lmdb/segmented-80-20/test_db"
    batch_size: 24
    backend: LMDB
  }
}
layer {
  name: "conv1/7x7_s2"
  type: "Convolution"
  bottom: "data"
  top: "conv1/7x7_s2"
  param {
    lr_mult: 1
    decay_mult: 1
  }
  param {
    lr_mult: 2
    decay_mult: 0
  }
  convolution_param {
    num_output: 64
    pad: 3
    kernel_size: 7
    stride: 2
    weight_filler {
      type: "xavier"
      std: 0.1
    }
    bias_filler {
      type: "constant"
      value: 0.2
    }
  }
}
layer {
  name: "conv1/relu_7x7"
  type: "ReLU"
  bottom: "conv1/7x7_s2"
  top: "conv1/7x7_s2"
}
layer {
  name: "pool1/3x3_s2"
  type: "Pooling"
  bottom: "conv1/7x7_s2"
  top: "pool1/3x3_s2"
  pooling_param {
    pool: MAX
    kernel_size: 3
    stride: 2
  }
}
layer {
  name: "pool1/norm1"
  type: "LRN"
  bottom: "pool1/3x3_s2"
  top: "pool1/norm1"
  lrn_param {
    local_size: 5
    alpha: 0.0001
    beta: 0.75
  }
}
layer {
  name: "conv2/3x3_reduce"
  type: "Convolution"
  bottom: "pool1/norm1"
  top: "conv2/3x3_reduce"
  param {
    lr_mult: 1
    decay_mult: 1
  }
  param {
    lr_mult: 2
    decay_mult: 0
  }
  convolution_param {
    num_output: 64
    kernel_size: 1
    weight_filler {
      type: "xavier"
      std: 0.1
    }
    bias_filler {
      type: "constant"
      value: 0.2
    }
  }
}
layer {
  name: "conv2/relu_3x3_reduce"
  type: "ReLU"
  bottom: "conv2/3x3_reduce"
  top: "conv2/3x3_reduce"
}
layer {
  name: "conv2/3x3"
  type: "Convolution"
  bottom: "conv2/3x3_reduce"
  top: "conv2/3x3"
  param {
    lr_mult: 1
    decay_mult: 1
  }
  param {
    lr_mult: 2
    decay_mult: 0
  }
  convolution_param {
    num_output: 192
    pad: 1
    kernel_size: 3
    weight_filler {
      type: "xavier"
      std: 0.03
    }
    bias_filler {
      type: "constant"
      value: 0.2
    }
  }
}
layer {
  name: "conv2/relu_3x3"
  type: "ReLU"
  bottom: "conv2/3x3"
  top: "conv2/3x3"
}
layer {
  name: "conv2/norm2"
  type: "LRN"
  bottom: "conv2/3x3"
  top: "conv2/norm2"
  lrn_param {
    local_size: 5
    alpha: 0.0001
    beta: 0.75
  }
}
layer {
  name: "pool2/3x3_s2"
  type: "Pooling"
  bottom: "conv2/norm2"
  top: "pool2/3x3_s2"
  pooling_param {
    pool: MAX
    kernel_size: 3
    stride: 2
  }
}
layer {
  name: "inception_3a/1x1"
  type: "Convolution"
  bottom: "pool2/3x3_s2"
  top: "inception_3a/1x1"
  param {
    lr_mult: 1
    decay_mult: 1
  }
  param {
    lr_mult: 2
    decay_mult: 0
  }
  convolution_param {
    num_output: 64
    kernel_size: 1
    weight_filler {
      type: "xavier"
      std: 0.03
    }
    bias_filler {
      type: "constant"
      value: 0.2
    }
  }
}
layer {
  name: "inception_3a/relu_1x1"
  type: "ReLU"
  bottom: "inception_3a/1x1"
  top: "inception_3a/1x1"
}
layer {
  name: "inception_3a/3x3_reduce"
  type: "Convolution"
  bottom: "pool2/3x3_s2"
  top: "inception_3a/3x3_reduce"
  param {
    lr_mult: 1
    decay_mult: 1
  }
  param {
    lr_mult: 2
    decay_mult: 0
  }
  convolution_param {
    num_output: 96
    kernel_size: 1
    weight_filler {
      type: "xavier"
      std: 0.09
    }
    bias_filler {
      type: "constant"
      value: 0.2
    }
  }
}
layer {
  name: "inception_3a/relu_3x3_reduce"
  type: "ReLU"
  bottom: "inception_3a/3x3_reduce"
  top: "inception_3a/3x3_reduce"
}
layer {
  name: "inception_3a/3x3"
  type: "Convolution"
  bottom: "inception_3a/3x3_reduce"
  top: "inception_3a/3x3"
  param {
    lr_mult: 1
    decay_mult: 1
  }
  param {
    lr_mult: 2
    decay_mult: 0
  }
  convolution_param {
    num_output: 128
    pad: 1
    kernel_size: 3
    weight_filler {
      type: "xavier"
      std: 0.03
    }
    bias_filler {
      type: "constant"
      value: 0.2
    }
  }
}
layer {
  name: "inception_3a/relu_3x3"
  type: "ReLU"
  bottom: "inception_3a/3x3"
  top: "inception_3a/3x3"
}
layer {
  name: "inception_3a/5x5_reduce"
  type: "Convolution"
  bottom: "pool2/3x3_s2"
  top: "inception_3a/5x5_reduce"
  param {
    lr_mult: 1
    decay_mult: 1
  }
  param {
    lr_mult: 2
    decay_mult: 0
  }
  convolution_param {
    num_output: 16
    kernel_size: 1
    weight_filler {
      type: "xavier"
      std: 0.2
    }
    bias_filler {
      type: "constant"
      value: 0.2
    }
  }
}
layer {
  name: "inception_3a/relu_5x5_reduce"
  type: "ReLU"
  bottom: "inception_3a/5x5_reduce"
  top: "inception_3a/5x5_reduce"
}
layer {
  name: "inception_3a/5x5"
  type: "Convolution"
  bottom: "inception_3a/5x5_reduce"
  top: "inception_3a/5x5"
  param {
    lr_mult: 1
    decay_mult: 1
  }
  param {
    lr_mult: 2
    decay_mult: 0
  }
  convolution_param {
    num_output: 32
    pad: 2
    kernel_size: 5
    weight_filler {
      type: "xavier"
      std: 0.03
    }
    bias_filler {
      type: "constant"
      value: 0.2
    }
  }
}
layer {
  name: "inception_3a/relu_5x5"
  type: "ReLU"
  bottom: "inception_3a/5x5"
  top: "inception_3a/5x5"
}
layer {
  name: "inception_3a/pool"
  type: "Pooling"
  bottom: "pool2/3x3_s2"
  top: "inception_3a/pool"
  pooling_param {
    pool: MAX
    kernel_size: 3
    stride: 1
    pad: 1
  }
}
layer {
  name: "inception_3a/pool_proj"
  type: "Convolution"
  bottom: "inception_3a/pool"
  top: "inception_3a/pool_proj"
  param {
    lr_mult: 1
    decay_mult: 1
  }
  param {
    lr_mult: 2
    decay_mult: 0
  }
  convolution_param {
    num_output: 32
    kernel_size: 1
    weight_filler {
      type: "xavier"
      std: 0.1
    }
    bias_filler {
      type: "constant"
      value: 0.2
    }
  }
}
layer {
  name: "inception_3a/relu_pool_proj"
  type: "ReLU"
  bottom: "inception_3a/pool_proj"
  top: "inception_3a/pool_proj"
}
layer {
  name: "inception_3a/output"
  type: "Concat"
  bottom: "inception_3a/1x1"
  bottom: "inception_3a/3x3"
  bottom: "inception_3a/5x5"
  bottom: "inception_3a/pool_proj"
  top: "inception_3a/output"
}
layer {
  name: "inception_3b/1x1"
  type: "Convolution"
  bottom: "inception_3a/output"
  top: "inception_3b/1x1"
  param {
    lr_mult: 1
    decay_mult: 1
  }
  param {
    lr_mult: 2
    decay_mult: 0
  }
  convolution_param {
    num_output: 128
    kernel_size: 1
    weight_filler {
      type: "xavier"
      std: 0.03
    }
    bias_filler {
      type: "constant"
      value: 0.2
    }
  }
}
layer {
  name: "inception_3b/relu_1x1"
  type: "ReLU"
  bottom: "inception_3b/1x1"
  top: "inception_3b/1x1"
}
layer {
  name: "inception_3b/3x3_reduce"
  type: "Convolution"
  bottom: "inception_3a/output"
  top: "inception_3b/3x3_reduce"
  param {
    lr_mult: 1
    decay_mult: 1
  }
  param {
    lr_mult: 2
    decay_mult: 0
  }
  convolution_param {
    num_output: 128
    kernel_size: 1
    weight_filler {
      type: "xavier"
      std: 0.09
    }
    bias_filler {
      type: "constant"
      value: 0.2
    }
  }
}
layer {
  name: "inception_3b/relu_3x3_reduce"
  type: "ReLU"
  bottom: "inception_3b/3x3_reduce"
  top: "inception_3b/3x3_reduce"
}
layer {
  name: "inception_3b/3x3"
  type: "Convolution"
  bottom: "inception_3b/3x3_reduce"
  top: "inception_3b/3x3"
  param {
    lr_mult: 1
    decay_mult: 1
  }
  param {
    lr_mult: 2
    decay_mult: 0
  }
  convolution_param {
    num_output: 192
    pad: 1
    kernel_size: 3
    weight_filler {
      type: "xavier"
      std: 0.03
    }
    bias_filler {
      type: "constant"
      value: 0.2
    }
  }
}
layer {
  name: "inception_3b/relu_3x3"
  type: "ReLU"
  bottom: "inception_3b/3x3"
  top: "inception_3b/3x3"
}
layer {
  name: "inception_3b/5x5_reduce"
  type: "Convolution"
  bottom: "inception_3a/output"
  top: "inception_3b/5x5_reduce"
  param {
    lr_mult: 1
    decay_mult: 1
  }
  param {
    lr_mult: 2
    decay_mult: 0
  }
  convolution_param {
    num_output: 32
    kernel_size: 1
    weight_filler {
      type: "xavier"
      std: 0.2
    }
    bias_filler {
      type: "constant"
      value: 0.2
    }
  }
}
layer {
  name: "inception_3b/relu_5x5_reduce"
  type: "ReLU"
  bottom: "inception_3b/5x5_reduce"
  top: "inception_3b/5x5_reduce"
}
layer {
  name: "inception_3b/5x5"
  type: "Convolution"
  bottom: "inception_3b/5x5_reduce"
  top: "inception_3b/5x5"
  param {
    lr_mult: 1
    decay_mult: 1
  }
  param {
    lr_mult: 2
    decay_mult: 0
  }
  convolution_param {
    num_output: 96
    pad: 2
    kernel_size: 5
    weight_filler {
      type: "xavier"
      std: 0.03
    }
    bias_filler {
      type: "constant"
      value: 0.2
    }
  }
}
layer {
  name: "inception_3b/relu_5x5"
  type: "ReLU"
  bottom: "inception_3b/5x5"
  top: "inception_3b/5x5"
}
layer {
  name: "inception_3b/pool"
  type: "Pooling"
  bottom: "inception_3a/output"
  top: "inception_3b/pool"
  pooling_param {
    pool: MAX
    kernel_size: 3
    stride: 1
    pad: 1
  }
}
layer {
  name: "inception_3b/pool_proj"
  type: "Convolution"
  bottom: "inception_3b/pool"
  top: "inception_3b/pool_proj"
  param {
    lr_mult: 1
    decay_mult: 1
  }
  param {
    lr_mult: 2
    decay_mult: 0
  }
  convolution_param {
    num_output: 64
    kernel_size: 1
    weight_filler {
      type: "xavier"
      std: 0.1
    }
    bias_filler {
      type: "constant"
      value: 0.2
    }
  }
}
layer {
  name: "inception_3b/relu_pool_proj"
  type: "ReLU"
  bottom: "inception_3b/pool_proj"
  top: "inception_3b/pool_proj"
}
layer {
  name: "inception_3b/output"
  type: "Concat"
  bottom: "inception_3b/1x1"
  bottom: "inception_3b/3x3"
  bottom: "inception_3b/5x5"
  bottom: "inception_3b/pool_proj"
  top: "inception_3b/output"
}
layer {
  name: "pool3/3x3_s2"
  type: "Pooling"
  bottom: "inception_3b/output"
  top: "pool3/3x3_s2"
  pooling_param {
    pool: MAX
    kernel_size: 3
    stride: 2
  }
}
layer {
  name: "inception_4a/1x1"
  type: "Convolution"
  bottom: "pool3/3x3_s2"
  top: "inception_4a/1x1"
  param {
    lr_mult: 1
    decay_mult: 1
  }
  param {
    lr_mult: 2
    decay_mult: 0
  }
  convolution_param {
    num_output: 192
    kernel_size: 1
    weight_filler {
      type: "xavier"
      std: 0.03
    }
    bias_filler {
      type: "constant"
      value: 0.2
    }
  }
}
layer {
  name: "inception_4a/relu_1x1"
  type: "ReLU"
  bottom: "inception_4a/1x1"
  top: "inception_4a/1x1"
}
layer {
  name: "inception_4a/3x3_reduce"
  type: "Convolution"
  bottom: "pool3/3x3_s2"
  top: "inception_4a/3x3_reduce"
  param {
    lr_mult: 1
    decay_mult: 1
  }
  param {
    lr_mult: 2
    decay_mult: 0
  }
  convolution_param {
    num_output: 96
    kernel_size: 1
    weight_filler {
      type: "xavier"
      std: 0.09
    }
    bias_filler {
      type: "constant"
      value: 0.2
    }
  }
}
layer {
  name: "inception_4a/relu_3x3_reduce"
  type: "ReLU"
  bottom: "inception_4a/3x3_reduce"
  top: "inception_4a/3x3_reduce"
}
layer {
  name: "inception_4a/3x3"
  type: "Convolution"
  bottom: "inception_4a/3x3_reduce"
  top: "inception_4a/3x3"
  param {
    lr_mult: 1
    decay_mult: 1
  }
  param {
    lr_mult: 2
    decay_mult: 0
  }
  convolution_param {
    num_output: 208
    pad: 1
    kernel_size: 3
    weight_filler {
      type: "xavier"
      std: 0.03
    }
    bias_filler {
      type: "constant"
      value: 0.2
    }
  }
}
layer {
  name: "inception_4a/relu_3x3"
  type: "ReLU"
  bottom: "inception_4a/3x3"
  top: "inception_4a/3x3"
}
layer {
  name: "inception_4a/5x5_reduce"
  type: "Convolution"
  bottom: "pool3/3x3_s2"
  top: "inception_4a/5x5_reduce"
  param {
    lr_mult: 1
    decay_mult: 1
  }
  param {
    lr_mult: 2
    decay_mult: 0
  }
  convolution_param {
    num_output: 16
    kernel_size: 1
    weight_filler {
      type: "xavier"
      std: 0.2
    }
    bias_filler {
      type: "constant"
      value: 0.2
    }
  }
}
layer {
  name: "inception_4a/relu_5x5_reduce"
  type: "ReLU"
  bottom: "inception_4a/5x5_reduce"
  top: "inception_4a/5x5_reduce"
}
layer {
  name: "inception_4a/5x5"
  type: "Convolution"
  bottom: "inception_4a/5x5_reduce"
  top: "inception_4a/5x5"
  param {
    lr_mult: 1
    decay_mult: 1
  }
  param {
    lr_mult: 2
    decay_mult: 0
  }
  convolution_param {
    num_output: 48
    pad: 2
    kernel_size: 5
    weight_filler {
      type: "xavier"
      std: 0.03
    }
    bias_filler {
      type: "constant"
      value: 0.2
    }
  }
}
layer {
  name: "inception_4a/relu_5x5"
  type: "ReLU"
  bottom: "inception_4a/5x5"
  top: "inception_4a/5x5"
}
layer {
  name: "inception_4a/pool"
  type: "Pooling"
  bottom: "pool3/3x3_s2"
  top: "inception_4a/pool"
  pooling_param {
    pool: MAX
    kernel_size: 3
    stride: 1
    pad: 1
  }
}
layer {
  name: "inception_4a/pool_proj"
  type: "Convolution"
  bottom: "inception_4a/pool"
  top: "inception_4a/pool_proj"
  param {
    lr_mult: 1
    decay_mult: 1
  }
  param {
    lr_mult: 2
    decay_mult: 0
  }
  convolution_param {
    num_output: 64
    kernel_size: 1
    weight_filler {
      type: "xavier"
      std: 0.1
    }
    bias_filler {
      type: "constant"
      value: 0.2
    }
  }
}
layer {
  name: "inception_4a/relu_pool_proj"
  type: "ReLU"
  bottom: "inception_4a/pool_proj"
  top: "inception_4a/pool_proj"
}
layer {
  name: "inception_4a/output"
  type: "Concat"
  bottom: "inception_4a/1x1"
  bottom: "inception_4a/3x3"
  bottom: "inception_4a/5x5"
  bottom: "inception_4a/pool_proj"
  top: "inception_4a/output"
}
layer {
  name: "loss1/ave_pool"
  type: "Pooling"
  bottom: "inception_4a/output"
  top: "loss1/ave_pool"
  pooling_param {
    pool: AVE
    kernel_size: 5
    stride: 3
  }
}
layer {
  name: "loss1/conv"
  type: "Convolution"
  bottom: "loss1/ave_pool"
  top: "loss1/conv"
  param {
    lr_mult: 1
    decay_mult: 1
  }
  param {
    lr_mult: 2
    decay_mult: 0
  }
  convolution_param {
    num_output: 128
    kernel_size: 1
    weight_filler {
      type: "xavier"
      std: 0.08
    }
    bias_filler {
      type: "constant"
      value: 0.2
    }
  }
}
layer {
  name: "loss1/relu_conv"
  type: "ReLU"
  bottom: "loss1/conv"
  top: "loss1/conv"
}
layer {
  name: "loss1/fc"
  type: "InnerProduct"
  bottom: "loss1/conv"
  top: "loss1/fc"
  param {
    lr_mult: 1
    decay_mult: 1
  }
  param {
    lr_mult: 2
    decay_mult: 0
  }
  inner_product_param {
    num_output: 1024
    weight_filler {
      type: "xavier"
      std: 0.02
    }
    bias_filler {
      type: "constant"
      value: 0.2
    }
  }
}
layer {
  name: "loss1/relu_fc"
  type: "ReLU"
  bottom: "loss1/fc"
  top: "loss1/fc"
}
layer {
  name: "loss1/drop_fc"
  type: "Dropout"
  bottom: "loss1/fc"
  top: "loss1/fc"
  dropout_param {
    dropout_ratio: 0.7
  }
}
layer {
  name: "loss1/classifier_plantvillage"
  type: "InnerProduct"
  bottom: "loss1/fc"
  top: "loss1/classifier_plantvillage"
  param {
    lr_mult: 1
    decay_mult: 1
  }
  param {
    lr_mult: 2
    decay_mult: 0
  }
  inner_product_param {
    num_output: 38
    weight_filler {
      type: "xavier"
      std: 0.0009765625
    }
    bias_filler {
      type: "constant"
      value: 0
    }
  }
}
layer {
  name: "inception_4b/1x1"
  type: "Convolution"
  bottom: "inception_4a/output"
  top: "inception_4b/1x1"
  param {
    lr_mult: 1
    decay_mult: 1
  }
  param {
    lr_mult: 2
    decay_mult: 0
  }
  convolution_param {
    num_output: 160
    kernel_size: 1
    weight_filler {
      type: "xavier"
      std: 0.03
    }
    bias_filler {
      type: "constant"
      value: 0.2
    }
  }
}
layer {
  name: "inception_4b/relu_1x1"
  type: "ReLU"
  bottom: "inception_4b/1x1"
  top: "inception_4b/1x1"
}
layer {
  name: "inception_4b/3x3_reduce"
  type: "Convolution"
  bottom: "inception_4a/output"
  top: "inception_4b/3x3_reduce"
  param {
    lr_mult: 1
    decay_mult: 1
  }
  param {
    lr_mult: 2
    decay_mult: 0
  }
  convolution_param {
    num_output: 112
    kernel_size: 1
    weight_filler {
      type: "xavier"
      std: 0.09
    }
    bias_filler {
      type: "constant"
      value: 0.2
    }
  }
}
layer {
  name: "inception_4b/relu_3x3_reduce"
  type: "ReLU"
  bottom: "inception_4b/3x3_reduce"
  top: "inception_4b/3x3_reduce"
}
layer {
  name: "inception_4b/3x3"
  type: "Convolution"
  bottom: "inception_4b/3x3_reduce"
  top: "inception_4b/3x3"
  param {
    lr_mult: 1
    decay_mult: 1
  }
  param {
    lr_mult: 2
    decay_mult: 0
  }
  convolution_param {
    num_output: 224
    pad: 1
    kernel_size: 3
    weight_filler {
      type: "xavier"
      std: 0.03
    }
    bias_filler {
      type: "constant"
      value: 0.2
    }
  }
}
layer {
  name: "inception_4b/relu_3x3"
  type: "ReLU"
  bottom: "inception_4b/3x3"
  top: "inception_4b/3x3"
}
layer {
  name: "inception_4b/5x5_reduce"
  type: "Convolution"
  bottom: "inception_4a/output"
  top: "inception_4b/5x5_reduce"
  param {
    lr_mult: 1
    decay_mult: 1
  }
  param {
    lr_mult: 2
    decay_mult: 0
  }
  convolution_param {
    num_output: 24
    kernel_size: 1
    weight_filler {
      type: "xavier"
      std: 0.2
    }
    bias_filler {
      type: "constant"
      value: 0.2
    }
  }
}
layer {
  name: "inception_4b/relu_5x5_reduce"
  type: "ReLU"
  bottom: "inception_4b/5x5_reduce"
  top: "inception_4b/5x5_reduce"
}
layer {
  name: "inception_4b/5x5"
  type: "Convolution"
  bottom: "inception_4b/5x5_reduce"
  top: "inception_4b/5x5"
  param {
    lr_mult: 1
    decay_mult: 1
  }
  param {
    lr_mult: 2
    decay_mult: 0
  }
  convolution_param {
    num_output: 64
    pad: 2
    kernel_size: 5
    weight_filler {
      type: "xavier"
      std: 0.03
    }
    bias_filler {
      type: "constant"
      value: 0.2
    }
  }
}
layer {
  name: "inception_4b/relu_5x5"
  type: "ReLU"
  bottom: "inception_4b/5x5"
  top: "inception_4b/5x5"
}
layer {
  name: "inception_4b/pool"
  type: "Pooling"
  bottom: "inception_4a/output"
  top: "inception_4b/pool"
  pooling_param {
    pool: MAX
    kernel_size: 3
    stride: 1
    pad: 1
  }
}
layer {
  name: "inception_4b/pool_proj"
  type: "Convolution"
  bottom: "inception_4b/pool"
  top: "inception_4b/pool_proj"
  param {
    lr_mult: 1
    decay_mult: 1
  }
  param {
    lr_mult: 2
    decay_mult: 0
  }
  convolution_param {
    num_output: 64
    kernel_size: 1
    weight_filler {
      type: "xavier"
      std: 0.1
    }
    bias_filler {
      type: "constant"
      value: 0.2
    }
  }
}
layer {
  name: "inception_4b/relu_pool_proj"
  type: "ReLU"
  bottom: "inception_4b/pool_proj"
  top: "inception_4b/pool_proj"
}
layer {
  name: "inception_4b/output"
  type: "Concat"
  bottom: "inception_4b/1x1"
  bottom: "inception_4b/3x3"
  bottom: "inception_4b/5x5"
  bottom: "inception_4b/pool_proj"
  top: "inception_4b/output"
}
layer {
  name: "inception_4c/1x1"
  type: "Convolution"
  bottom: "inception_4b/output"
  top: "inception_4c/1x1"
  param {
    lr_mult: 1
    decay_mult: 1
  }
  param {
    lr_mult: 2
    decay_mult: 0
  }
  convolution_param {
    num_output: 128
    kernel_size: 1
    weight_filler {
      type: "xavier"
      std: 0.03
    }
    bias_filler {
      type: "constant"
      value: 0.2
    }
  }
}
layer {
  name: "inception_4c/relu_1x1"
  type: "ReLU"
  bottom: "inception_4c/1x1"
  top: "inception_4c/1x1"
}
layer {
  name: "inception_4c/3x3_reduce"
  type: "Convolution"
  bottom: "inception_4b/output"
  top: "inception_4c/3x3_reduce"
  param {
    lr_mult: 1
    decay_mult: 1
  }
  param {
    lr_mult: 2
    decay_mult: 0
  }
  convolution_param {
    num_output: 128
    kernel_size: 1
    weight_filler {
      type: "xavier"
      std: 0.09
    }
    bias_filler {
      type: "constant"
      value: 0.2
    }
  }
}
layer {
  name: "inception_4c/relu_3x3_reduce"
  type: "ReLU"
  bottom: "inception_4c/3x3_reduce"
  top: "inception_4c/3x3_reduce"
}
layer {
  name: "inception_4c/3x3"
  type: "Convolution"
  bottom: "inception_4c/3x3_reduce"
  top: "inception_4c/3x3"
  param {
    lr_mult: 1
    decay_mult: 1
  }
  param {
    lr_mult: 2
    decay_mult: 0
  }
  convolution_param {
    num_output: 256
    pad: 1
    kernel_size: 3
    weight_filler {
      type: "xavier"
      std: 0.03
    }
    bias_filler {
      type: "constant"
      value: 0.2
    }
  }
}
layer {
  name: "inception_4c/relu_3x3"
  type: "ReLU"
  bottom: "inception_4c/3x3"
  top: "inception_4c/3x3"
}
layer {
  name: "inception_4c/5x5_reduce"
  type: "Convolution"
  bottom: "inception_4b/output"
  top: "inception_4c/5x5_reduce"
  param {
    lr_mult: 1
    decay_mult: 1
  }
  param {
    lr_mult: 2
    decay_mult: 0
  }
  convolution_param {
    num_output: 24
    kernel_size: 1
    weight_filler {
      type: "xavier"
      std: 0.2
    }
    bias_filler {
      type: "constant"
      value: 0.2
    }
  }
}
layer {
  name: "inception_4c/relu_5x5_reduce"
  type: "ReLU"
  bottom: "inception_4c/5x5_reduce"
  top: "inception_4c/5x5_reduce"
}
layer {
  name: "inception_4c/5x5"
  type: "Convolution"
  bottom: "inception_4c/5x5_reduce"
  top: "inception_4c/5x5"
  param {
    lr_mult: 1
    decay_mult: 1
  }
  param {
    lr_mult: 2
    decay_mult: 0
  }
  convolution_param {
    num_output: 64
    pad: 2
    kernel_size: 5
    weight_filler {
      type: "xavier"
      std: 0.03
    }
    bias_filler {
      type: "constant"
      value: 0.2
    }
  }
}
layer {
  name: "inception_4c/relu_5x5"
  type: "ReLU"
  bottom: "inception_4c/5x5"
  top: "inception_4c/5x5"
}
layer {
  name: "inception_4c/pool"
  type: "Pooling"
  bottom: "inception_4b/output"
  top: "inception_4c/pool"
  pooling_param {
    pool: MAX
    kernel_size: 3
    stride: 1
    pad: 1
  }
}
layer {
  name: "inception_4c/pool_proj"
  type: "Convolution"
  bottom: "inception_4c/pool"
  top: "inception_4c/pool_proj"
  param {
    lr_mult: 1
    decay_mult: 1
  }
  param {
    lr_mult: 2
    decay_mult: 0
  }
  convolution_param {
    num_output: 64
    kernel_size: 1
    weight_filler {
      type: "xavier"
      std: 0.1
    }
    bias_filler {
      type: "constant"
      value: 0.2
    }
  }
}
layer {
  name: "inception_4c/relu_pool_proj"
  type: "ReLU"
  bottom: "inception_4c/pool_proj"
  top: "inception_4c/pool_proj"
}
layer {
  name: "inception_4c/output"
  type: "Concat"
  bottom: "inception_4c/1x1"
  bottom: "inception_4c/3x3"
  bottom: "inception_4c/5x5"
  bottom: "inception_4c/pool_proj"
  top: "inception_4c/output"
}
layer {
  name: "inception_4d/1x1"
  type: "Convolution"
  bottom: "inception_4c/output"
  top: "inception_4d/1x1"
  param {
    lr_mult: 1
    decay_mult: 1
  }
  param {
    lr_mult: 2
    decay_mult: 0
  }
  convolution_param {
    num_output: 112
    kernel_size: 1
    weight_filler {
      type: "xavier"
      std: 0.03
    }
    bias_filler {
      type: "constant"
      value: 0.2
    }
  }
}
layer {
  name: "inception_4d/relu_1x1"
  type: "ReLU"
  bottom: "inception_4d/1x1"
  top: "inception_4d/1x1"
}
layer {
  name: "inception_4d/3x3_reduce"
  type: "Convolution"
  bottom: "inception_4c/output"
  top: "inception_4d/3x3_reduce"
  param {
    lr_mult: 1
    decay_mult: 1
  }
  param {
    lr_mult: 2
    decay_mult: 0
  }
  convolution_param {
    num_output: 144
    kernel_size: 1
    weight_filler {
      type: "xavier"
      std: 0.09
    }
    bias_filler {
      type: "constant"
      value: 0.2
    }
  }
}
layer {
  name: "inception_4d/relu_3x3_reduce"
  type: "ReLU"
  bottom: "inception_4d/3x3_reduce"
  top: "inception_4d/3x3_reduce"
}
layer {
  name: "inception_4d/3x3"
  type: "Convolution"
  bottom: "inception_4d/3x3_reduce"
  top: "inception_4d/3x3"
  param {
    lr_mult: 1
    decay_mult: 1
  }
  param {
    lr_mult: 2
    decay_mult: 0
  }
  convolution_param {
    num_output: 288
    pad: 1
    kernel_size: 3
    weight_filler {
      type: "xavier"
      std: 0.03
    }
    bias_filler {
      type: "constant"
      value: 0.2
    }
  }
}
layer {
  name: "inception_4d/relu_3x3"
  type: "ReLU"
  bottom: "inception_4d/3x3"
  top: "inception_4d/3x3"
}
layer {
  name: "inception_4d/5x5_reduce"
  type: "Convolution"
  bottom: "inception_4c/output"
  top: "inception_4d/5x5_reduce"
  param {
    lr_mult: 1
    decay_mult: 1
  }
  param {
    lr_mult: 2
    decay_mult: 0
  }
  convolution_param {
    num_output: 32
    kernel_size: 1
    weight_filler {
      type: "xavier"
      std: 0.2
    }
    bias_filler {
      type: "constant"
      value: 0.2
    }
  }
}
layer {
  name: "inception_4d/relu_5x5_reduce"
  type: "ReLU"
  bottom: "inception_4d/5x5_reduce"
  top: "inception_4d/5x5_reduce"
}
layer {
  name: "inception_4d/5x5"
  type: "Convolution"
  bottom: "inception_4d/5x5_reduce"
  top: "inception_4d/5x5"
  param {
    lr_mult: 1
    decay_mult: 1
  }
  param {
    lr_mult: 2
    decay_mult: 0
  }
  convolution_param {
    num_output: 64
    pad: 2
    kernel_size: 5
    weight_filler {
      type: "xavier"
      std: 0.03
    }
    bias_filler {
      type: "constant"
      value: 0.2
    }
  }
}
layer {
  name: "inception_4d/relu_5x5"
  type: "ReLU"
  bottom: "inception_4d/5x5"
  top: "inception_4d/5x5"
}
layer {
  name: "inception_4d/pool"
  type: "Pooling"
  bottom: "inception_4c/output"
  top: "inception_4d/pool"
  pooling_param {
    pool: MAX
    kernel_size: 3
    stride: 1
    pad: 1
  }
}
layer {
  name: "inception_4d/pool_proj"
  type: "Convolution"
  bottom: "inception_4d/pool"
  top: "inception_4d/pool_proj"
  param {
    lr_mult: 1
    decay_mult: 1
  }
  param {
    lr_mult: 2
    decay_mult: 0
  }
  convolution_param {
    num_output: 64
    kernel_size: 1
    weight_filler {
      type: "xavier"
      std: 0.1
    }
    bias_filler {
      type: "constant"
      value: 0.2
    }
  }
}
layer {
  name: "inception_4d/relu_pool_proj"
  type: "ReLU"
  bottom: "inception_4d/pool_proj"
  top: "inception_4d/pool_proj"
}
layer {
  name: "inception_4d/output"
  type: "Concat"
  bottom: "inception_4d/1x1"
  bottom: "inception_4d/3x3"
  bottom: "inception_4d/5x5"
  bottom: "inception_4d/pool_proj"
  top: "inception_4d/output"
}
layer {
  name: "loss2/ave_pool"
  type: "Pooling"
  bottom: "inception_4d/output"
  top: "loss2/ave_pool"
  pooling_param {
    pool: AVE
    kernel_size: 5
    stride: 3
  }
}
layer {
  name: "loss2/conv"
  type: "Convolution"
  bottom: "loss2/ave_pool"
  top: "loss2/conv"
  param {
    lr_mult: 1
    decay_mult: 1
  }
  param {
    lr_mult: 2
    decay_mult: 0
  }
  convolution_param {
    num_output: 128
    kernel_size: 1
    weight_filler {
      type: "xavier"
      std: 0.08
    }
    bias_filler {
      type: "constant"
      value: 0.2
    }
  }
}
layer {
  name: "loss2/relu_conv"
  type: "ReLU"
  bottom: "loss2/conv"
  top: "loss2/conv"
}
layer {
  name: "loss2/fc"
  type: "InnerProduct"
  bottom: "loss2/conv"
  top: "loss2/fc"
  param {
    lr_mult: 1
    decay_mult: 1
  }
  param {
    lr_mult: 2
    decay_mult: 0
  }
  inner_product_param {
    num_output: 1024
    weight_filler {
      type: "xavier"
      std: 0.02
    }
    bias_filler {
      type: "constant"
      value: 0.2
    }
  }
}
layer {
  name: "loss2/relu_fc"
  type: "ReLU"
  bottom: "loss2/fc"
  top: "loss2/fc"
}
layer {
  name: "loss2/drop_fc"
  type: "Dropout"
  bottom: "loss2/fc"
  top: "loss2/fc"
  dropout_param {
    dropout_ratio: 0.7
  }
}
layer {
  name: "loss2/classifier_plantvillage"
  type: "InnerProduct"
  bottom: "loss2/fc"
  top: "loss2/classifier_plantvillage"
  param {
    lr_mult: 1
    decay_mult: 1
  }
  param {
    lr_mult: 2
    decay_mult: 0
  }
  inner_product_param {
    num_output: 38
    weight_filler {
      type: "xavier"
      std: 0.0009765625
    }
    bias_filler {
      type: "constant"
      value: 0
    }
  }
}
layer {
  name: "inception_4e/1x1"
  type: "Convolution"
  bottom: "inception_4d/output"
  top: "inception_4e/1x1"
  param {
    lr_mult: 1
    decay_mult: 1
  }
  param {
    lr_mult: 2
    decay_mult: 0
  }
  convolution_param {
    num_output: 256
    kernel_size: 1
    weight_filler {
      type: "xavier"
      std: 0.03
    }
    bias_filler {
      type: "constant"
      value: 0.2
    }
  }
}
layer {
  name: "inception_4e/relu_1x1"
  type: "ReLU"
  bottom: "inception_4e/1x1"
  top: "inception_4e/1x1"
}
layer {
  name: "inception_4e/3x3_reduce"
  type: "Convolution"
  bottom: "inception_4d/output"
  top: "inception_4e/3x3_reduce"
  param {
    lr_mult: 1
    decay_mult: 1
  }
  param {
    lr_mult: 2
    decay_mult: 0
  }
  convolution_param {
    num_output: 160
    kernel_size: 1
    weight_filler {
      type: "xavier"
      std: 0.09
    }
    bias_filler {
      type: "constant"
      value: 0.2
    }
  }
}
layer {
  name: "inception_4e/relu_3x3_reduce"
  type: "ReLU"
  bottom: "inception_4e/3x3_reduce"
  top: "inception_4e/3x3_reduce"
}
layer {
  name: "inception_4e/3x3"
  type: "Convolution"
  bottom: "inception_4e/3x3_reduce"
  top: "inception_4e/3x3"
  param {
    lr_mult: 1
    decay_mult: 1
  }
  param {
    lr_mult: 2
    decay_mult: 0
  }
  convolution_param {
    num_output: 320
    pad: 1
    kernel_size: 3
    weight_filler {
      type: "xavier"
      std: 0.03
    }
    bias_filler {
      type: "constant"
      value: 0.2
    }
  }
}
layer {
  name: "inception_4e/relu_3x3"
  type: "ReLU"
  bottom: "inception_4e/3x3"
  top: "inception_4e/3x3"
}
layer {
  name: "inception_4e/5x5_reduce"
  type: "Convolution"
  bottom: "inception_4d/output"
  top: "inception_4e/5x5_reduce"
  param {
    lr_mult: 1
    decay_mult: 1
  }
  param {
    lr_mult: 2
    decay_mult: 0
  }
  convolution_param {
    num_output: 32
    kernel_size: 1
    weight_filler {
      type: "xavier"
      std: 0.2
    }
    bias_filler {
      type: "constant"
      value: 0.2
    }
  }
}
layer {
  name: "inception_4e/relu_5x5_reduce"
  type: "ReLU"
  bottom: "inception_4e/5x5_reduce"
  top: "inception_4e/5x5_reduce"
}
layer {
  name: "inception_4e/5x5"
  type: "Convolution"
  bottom: "inception_4e/5x5_reduce"
  top: "inception_4e/
I0403 21:51:33.593410 24480 layer_factory.hpp:77] Creating layer data
I0403 21:51:33.593987 24480 net.cpp:91] Creating Layer data
I0403 21:51:33.594018 24480 net.cpp:399] data -> data
I0403 21:51:33.594070 24480 net.cpp:399] data -> label
I0403 21:51:33.594107 24480 data_transformer.cpp:25] Loading mean file from: /home/mohanty/data/final_dataset/lmdb/segmented-80-20/mean.binaryproto
I0403 21:51:33.595248 24482 db_lmdb.cpp:38] Opened lmdb /home/mohanty/data/final_dataset/lmdb/segmented-80-20/test_db
I0403 21:51:33.607071 24480 data_layer.cpp:41] output data size: 24,3,224,224
I0403 21:51:33.634239 24480 net.cpp:141] Setting up data
I0403 21:51:33.634325 24480 net.cpp:148] Top shape: 24 3 224 224 (3612672)
I0403 21:51:33.634347 24480 net.cpp:148] Top shape: 24 (24)
I0403 21:51:33.634363 24480 net.cpp:156] Memory required for data: 14450784
I0403 21:51:33.634392 24480 layer_factory.hpp:77] Creating layer label_data_1_split
I0403 21:51:33.634419 24480 net.cpp:91] Creating Layer label_data_1_split
I0403 21:51:33.634438 24480 net.cpp:425] label_data_1_split <- label
I0403 21:51:33.634470 24480 net.cpp:399] label_data_1_split -> label_data_1_split_0
I0403 21:51:33.634497 24480 net.cpp:399] label_data_1_split -> label_data_1_split_1
I0403 21:51:33.634519 24480 net.cpp:399] label_data_1_split -> label_data_1_split_2
I0403 21:51:33.634541 24480 net.cpp:399] label_data_1_split -> label_data_1_split_3
I0403 21:51:33.634562 24480 net.cpp:399] label_data_1_split -> label_data_1_split_4
I0403 21:51:33.634582 24480 net.cpp:399] label_data_1_split -> label_data_1_split_5
I0403 21:51:33.634600 24480 net.cpp:399] label_data_1_split -> label_data_1_split_6
I0403 21:51:33.634620 24480 net.cpp:399] label_data_1_split -> label_data_1_split_7
I0403 21:51:33.634639 24480 net.cpp:399] label_data_1_split -> label_data_1_split_8
I0403 21:51:33.634660 24480 net.cpp:399] label_data_1_split -> label_data_1_split_9
I0403 21:51:33.634773 24480 net.cpp:141] Setting up label_data_1_split
I0403 21:51:33.634798 24480 net.cpp:148] Top shape: 24 (24)
I0403 21:51:33.634814 24480 net.cpp:148] Top shape: 24 (24)
I0403 21:51:33.634830 24480 net.cpp:148] Top shape: 24 (24)
I0403 21:51:33.634846 24480 net.cpp:148] Top shape: 24 (24)
I0403 21:51:33.634860 24480 net.cpp:148] Top shape: 24 (24)
I0403 21:51:33.634876 24480 net.cpp:148] Top shape: 24 (24)
I0403 21:51:33.634893 24480 net.cpp:148] Top shape: 24 (24)
I0403 21:51:33.634908 24480 net.cpp:148] Top shape: 24 (24)
I0403 21:51:33.634925 24480 net.cpp:148] Top shape: 24 (24)
I0403 21:51:33.634941 24480 net.cpp:148] Top shape: 24 (24)
I0403 21:51:33.634989 24480 net.cpp:156] Memory required for data: 14451744
I0403 21:51:33.635004 24480 layer_factory.hpp:77] Creating layer conv1/7x7_s2
I0403 21:51:33.635036 24480 net.cpp:91] Creating Layer conv1/7x7_s2
I0403 21:51:33.635056 24480 net.cpp:425] conv1/7x7_s2 <- data
I0403 21:51:33.635076 24480 net.cpp:399] conv1/7x7_s2 -> conv1/7x7_s2
I0403 21:51:33.774454 24480 net.cpp:141] Setting up conv1/7x7_s2
I0403 21:51:33.774535 24480 net.cpp:148] Top shape: 24 64 112 112 (19267584)
I0403 21:51:33.774554 24480 net.cpp:156] Memory required for data: 91522080
I0403 21:51:33.774585 24480 layer_factory.hpp:77] Creating layer conv1/relu_7x7
I0403 21:51:33.774611 24480 net.cpp:91] Creating Layer conv1/relu_7x7
I0403 21:51:33.774631 24480 net.cpp:425] conv1/relu_7x7 <- conv1/7x7_s2
I0403 21:51:33.774649 24480 net.cpp:386] conv1/relu_7x7 -> conv1/7x7_s2 (in-place)
I0403 21:51:33.774900 24480 net.cpp:141] Setting up conv1/relu_7x7
I0403 21:51:33.774935 24480 net.cpp:148] Top shape: 24 64 112 112 (19267584)
I0403 21:51:33.774951 24480 net.cpp:156] Memory required for data: 168592416
I0403 21:51:33.774966 24480 layer_factory.hpp:77] Creating layer pool1/3x3_s2
I0403 21:51:33.774992 24480 net.cpp:91] Creating Layer pool1/3x3_s2
I0403 21:51:33.775012 24480 net.cpp:425] pool1/3x3_s2 <- conv1/7x7_s2
I0403 21:51:33.775032 24480 net.cpp:399] pool1/3x3_s2 -> pool1/3x3_s2
I0403 21:51:33.775109 24480 net.cpp:141] Setting up pool1/3x3_s2
I0403 21:51:33.775133 24480 net.cpp:148] Top shape: 24 64 56 56 (4816896)
I0403 21:51:33.775148 24480 net.cpp:156] Memory required for data: 187860000
I0403 21:51:33.775163 24480 layer_factory.hpp:77] Creating layer pool1/norm1
I0403 21:51:33.775189 24480 net.cpp:91] Creating Layer pool1/norm1
I0403 21:51:33.775220 24480 net.cpp:425] pool1/norm1 <- pool1/3x3_s2
I0403 21:51:33.775239 24480 net.cpp:399] pool1/norm1 -> pool1/norm1
I0403 21:51:33.775533 24480 net.cpp:141] Setting up pool1/norm1
I0403 21:51:33.775563 24480 net.cpp:148] Top shape: 24 64 56 56 (4816896)
I0403 21:51:33.775581 24480 net.cpp:156] Memory required for data: 207127584
I0403 21:51:33.775596 24480 layer_factory.hpp:77] Creating layer conv2/3x3_reduce
I0403 21:51:33.775622 24480 net.cpp:91] Creating Layer conv2/3x3_reduce
I0403 21:51:33.775640 24480 net.cpp:425] conv2/3x3_reduce <- pool1/norm1
I0403 21:51:33.775660 24480 net.cpp:399] conv2/3x3_reduce -> conv2/3x3_reduce
I0403 21:51:33.777045 24480 net.cpp:141] Setting up conv2/3x3_reduce
I0403 21:51:33.777073 24480 net.cpp:148] Top shape: 24 64 56 56 (4816896)
I0403 21:51:33.777091 24480 net.cpp:156] Memory required for data: 226395168
I0403 21:51:33.777110 24480 layer_factory.hpp:77] Creating layer conv2/relu_3x3_reduce
I0403 21:51:33.777129 24480 net.cpp:91] Creating Layer conv2/relu_3x3_reduce
I0403 21:51:33.777144 24480 net.cpp:425] conv2/relu_3x3_reduce <- conv2/3x3_reduce
I0403 21:51:33.777163 24480 net.cpp:386] conv2/relu_3x3_reduce -> conv2/3x3_reduce (in-place)
I0403 21:51:33.777432 24480 net.cpp:141] Setting up conv2/relu_3x3_reduce
I0403 21:51:33.777458 24480 net.cpp:148] Top shape: 24 64 56 56 (4816896)
I0403 21:51:33.777472 24480 net.cpp:156] Memory required for data: 245662752
I0403 21:51:33.777487 24480 layer_factory.hpp:77] Creating layer conv2/3x3
I0403 21:51:33.777510 24480 net.cpp:91] Creating Layer conv2/3x3
I0403 21:51:33.777529 24480 net.cpp:425] conv2/3x3 <- conv2/3x3_reduce
I0403 21:51:33.777551 24480 net.cpp:399] conv2/3x3 -> conv2/3x3
I0403 21:51:33.779789 24480 net.cpp:141] Setting up conv2/3x3
I0403 21:51:33.779819 24480 net.cpp:148] Top shape: 24 192 56 56 (14450688)
I0403 21:51:33.779836 24480 net.cpp:156] Memory required for data: 303465504
I0403 21:51:33.779857 24480 layer_factory.hpp:77] Creating layer conv2/relu_3x3
I0403 21:51:33.779877 24480 net.cpp:91] Creating Layer conv2/relu_3x3
I0403 21:51:33.779894 24480 net.cpp:425] conv2/relu_3x3 <- conv2/3x3
I0403 21:51:33.779911 24480 net.cpp:386] conv2/relu_3x3 -> conv2/3x3 (in-place)
I0403 21:51:33.780079 24480 net.cpp:141] Setting up conv2/relu_3x3
I0403 21:51:33.780107 24480 net.cpp:148] Top shape: 24 192 56 56 (14450688)
I0403 21:51:33.780153 24480 net.cpp:156] Memory required for data: 361268256
I0403 21:51:33.780169 24480 layer_factory.hpp:77] Creating layer conv2/norm2
I0403 21:51:33.780187 24480 net.cpp:91] Creating Layer conv2/norm2
I0403 21:51:33.780208 24480 net.cpp:425] conv2/norm2 <- conv2/3x3
I0403 21:51:33.780228 24480 net.cpp:399] conv2/norm2 -> conv2/norm2
I0403 21:51:33.780522 24480 net.cpp:141] Setting up conv2/norm2
I0403 21:51:33.780550 24480 net.cpp:148] Top shape: 24 192 56 56 (14450688)
I0403 21:51:33.780565 24480 net.cpp:156] Memory required for data: 419071008
I0403 21:51:33.780580 24480 layer_factory.hpp:77] Creating layer pool2/3x3_s2
I0403 21:51:33.780598 24480 net.cpp:91] Creating Layer pool2/3x3_s2
I0403 21:51:33.780614 24480 net.cpp:425] pool2/3x3_s2 <- conv2/norm2
I0403 21:51:33.780635 24480 net.cpp:399] pool2/3x3_s2 -> pool2/3x3_s2
I0403 21:51:33.780688 24480 net.cpp:141] Setting up pool2/3x3_s2
I0403 21:51:33.780711 24480 net.cpp:148] Top shape: 24 192 28 28 (3612672)
I0403 21:51:33.780725 24480 net.cpp:156] Memory required for data: 433521696
I0403 21:51:33.780740 24480 layer_factory.hpp:77] Creating layer pool2/3x3_s2_pool2/3x3_s2_0_split
I0403 21:51:33.780761 24480 net.cpp:91] Creating Layer pool2/3x3_s2_pool2/3x3_s2_0_split
I0403 21:51:33.780776 24480 net.cpp:425] pool2/3x3_s2_pool2/3x3_s2_0_split <- pool2/3x3_s2
I0403 21:51:33.780794 24480 net.cpp:399] pool2/3x3_s2_pool2/3x3_s2_0_split -> pool2/3x3_s2_pool2/3x3_s2_0_split_0
I0403 21:51:33.780817 24480 net.cpp:399] pool2/3x3_s2_pool2/3x3_s2_0_split -> pool2/3x3_s2_pool2/3x3_s2_0_split_1
I0403 21:51:33.780835 24480 net.cpp:399] pool2/3x3_s2_pool2/3x3_s2_0_split -> pool2/3x3_s2_pool2/3x3_s2_0_split_2
I0403 21:51:33.780856 24480 net.cpp:399] pool2/3x3_s2_pool2/3x3_s2_0_split -> pool2/3x3_s2_pool2/3x3_s2_0_split_3
I0403 21:51:33.780925 24480 net.cpp:141] Setting up pool2/3x3_s2_pool2/3x3_s2_0_split
I0403 21:51:33.780947 24480 net.cpp:148] Top shape: 24 192 28 28 (3612672)
I0403 21:51:33.780963 24480 net.cpp:148] Top shape: 24 192 28 28 (3612672)
I0403 21:51:33.780978 24480 net.cpp:148] Top shape: 24 192 28 28 (3612672)
I0403 21:51:33.780993 24480 net.cpp:148] Top shape: 24 192 28 28 (3612672)
I0403 21:51:33.781008 24480 net.cpp:156] Memory required for data: 491324448
I0403 21:51:33.781021 24480 layer_factory.hpp:77] Creating layer inception_3a/1x1
I0403 21:51:33.781044 24480 net.cpp:91] Creating Layer inception_3a/1x1
I0403 21:51:33.781061 24480 net.cpp:425] inception_3a/1x1 <- pool2/3x3_s2_pool2/3x3_s2_0_split_0
I0403 21:51:33.781082 24480 net.cpp:399] inception_3a/1x1 -> inception_3a/1x1
I0403 21:51:33.782582 24480 net.cpp:141] Setting up inception_3a/1x1
I0403 21:51:33.782610 24480 net.cpp:148] Top shape: 24 64 28 28 (1204224)
I0403 21:51:33.782626 24480 net.cpp:156] Memory required for data: 496141344
I0403 21:51:33.782644 24480 layer_factory.hpp:77] Creating layer inception_3a/relu_1x1
I0403 21:51:33.782665 24480 net.cpp:91] Creating Layer inception_3a/relu_1x1
I0403 21:51:33.782685 24480 net.cpp:425] inception_3a/relu_1x1 <- inception_3a/1x1
I0403 21:51:33.782701 24480 net.cpp:386] inception_3a/relu_1x1 -> inception_3a/1x1 (in-place)
I0403 21:51:33.782868 24480 net.cpp:141] Setting up inception_3a/relu_1x1
I0403 21:51:33.782893 24480 net.cpp:148] Top shape: 24 64 28 28 (1204224)
I0403 21:51:33.782907 24480 net.cpp:156] Memory required for data: 500958240
I0403 21:51:33.782923 24480 layer_factory.hpp:77] Creating layer inception_3a/3x3_reduce
I0403 21:51:33.782945 24480 net.cpp:91] Creating Layer inception_3a/3x3_reduce
I0403 21:51:33.782963 24480 net.cpp:425] inception_3a/3x3_reduce <- pool2/3x3_s2_pool2/3x3_s2_0_split_1
I0403 21:51:33.782984 24480 net.cpp:399] inception_3a/3x3_reduce -> inception_3a/3x3_reduce
I0403 21:51:33.784682 24480 net.cpp:141] Setting up inception_3a/3x3_reduce
I0403 21:51:33.784711 24480 net.cpp:148] Top shape: 24 96 28 28 (1806336)
I0403 21:51:33.784728 24480 net.cpp:156] Memory required for data: 508183584
I0403 21:51:33.784749 24480 layer_factory.hpp:77] Creating layer inception_3a/relu_3x3_reduce
I0403 21:51:33.784790 24480 net.cpp:91] Creating Layer inception_3a/relu_3x3_reduce
I0403 21:51:33.784809 24480 net.cpp:425] inception_3a/relu_3x3_reduce <- inception_3a/3x3_reduce
I0403 21:51:33.784827 24480 net.cpp:386] inception_3a/relu_3x3_reduce -> inception_3a/3x3_reduce (in-place)
I0403 21:51:33.785006 24480 net.cpp:141] Setting up inception_3a/relu_3x3_reduce
I0403 21:51:33.785032 24480 net.cpp:148] Top shape: 24 96 28 28 (1806336)
I0403 21:51:33.785046 24480 net.cpp:156] Memory required for data: 515408928
I0403 21:51:33.785060 24480 layer_factory.hpp:77] Creating layer inception_3a/3x3
I0403 21:51:33.785082 24480 net.cpp:91] Creating Layer inception_3a/3x3
I0403 21:51:33.785101 24480 net.cpp:425] inception_3a/3x3 <- inception_3a/3x3_reduce
I0403 21:51:33.785123 24480 net.cpp:399] inception_3a/3x3 -> inception_3a/3x3
I0403 21:51:33.786751 24480 net.cpp:141] Setting up inception_3a/3x3
I0403 21:51:33.786779 24480 net.cpp:148] Top shape: 24 128 28 28 (2408448)
I0403 21:51:33.786795 24480 net.cpp:156] Memory required for data: 525042720
I0403 21:51:33.786814 24480 layer_factory.hpp:77] Creating layer inception_3a/relu_3x3
I0403 21:51:33.786834 24480 net.cpp:91] Creating Layer inception_3a/relu_3x3
I0403 21:51:33.786852 24480 net.cpp:425] inception_3a/relu_3x3 <- inception_3a/3x3
I0403 21:51:33.786870 24480 net.cpp:386] inception_3a/relu_3x3 -> inception_3a/3x3 (in-place)
I0403 21:51:33.787142 24480 net.cpp:141] Setting up inception_3a/relu_3x3
I0403 21:51:33.787168 24480 net.cpp:148] Top shape: 24 128 28 28 (2408448)
I0403 21:51:33.787184 24480 net.cpp:156] Memory required for data: 534676512
I0403 21:51:33.787205 24480 layer_factory.hpp:77] Creating layer inception_3a/5x5_reduce
I0403 21:51:33.787230 24480 net.cpp:91] Creating Layer inception_3a/5x5_reduce
I0403 21:51:33.787247 24480 net.cpp:425] inception_3a/5x5_reduce <- pool2/3x3_s2_pool2/3x3_s2_0_split_2
I0403 21:51:33.787268 24480 net.cpp:399] inception_3a/5x5_reduce -> inception_3a/5x5_reduce
I0403 21:51:33.788242 24480 net.cpp:141] Setting up inception_3a/5x5_reduce
I0403 21:51:33.788271 24480 net.cpp:148] Top shape: 24 16 28 28 (301056)
I0403 21:51:33.788287 24480 net.cpp:156] Memory required for data: 535880736
I0403 21:51:33.788307 24480 layer_factory.hpp:77] Creating layer inception_3a/relu_5x5_reduce
I0403 21:51:33.788331 24480 net.cpp:91] Creating Layer inception_3a/relu_5x5_reduce
I0403 21:51:33.788348 24480 net.cpp:425] inception_3a/relu_5x5_reduce <- inception_3a/5x5_reduce
I0403 21:51:33.788367 24480 net.cpp:386] inception_3a/relu_5x5_reduce -> inception_3a/5x5_reduce (in-place)
I0403 21:51:33.788660 24480 net.cpp:141] Setting up inception_3a/relu_5x5_reduce
I0403 21:51:33.788689 24480 net.cpp:148] Top shape: 24 16 28 28 (301056)
I0403 21:51:33.788707 24480 net.cpp:156] Memory required for data: 537084960
I0403 21:51:33.788722 24480 layer_factory.hpp:77] Creating layer inception_3a/5x5
I0403 21:51:33.788744 24480 net.cpp:91] Creating Layer inception_3a/5x5
I0403 21:51:33.788763 24480 net.cpp:425] inception_3a/5x5 <- inception_3a/5x5_reduce
I0403 21:51:33.788782 24480 net.cpp:399] inception_3a/5x5 -> inception_3a/5x5
I0403 21:51:33.789790 24480 net.cpp:141] Setting up inception_3a/5x5
I0403 21:51:33.789819 24480 net.cpp:148] Top shape: 24 32 28 28 (602112)
I0403 21:51:33.789835 24480 net.cpp:156] Memory required for data: 539493408
I0403 21:51:33.789854 24480 layer_factory.hpp:77] Creating layer inception_3a/relu_5x5
I0403 21:51:33.789873 24480 net.cpp:91] Creating Layer inception_3a/relu_5x5
I0403 21:51:33.789891 24480 net.cpp:425] inception_3a/relu_5x5 <- inception_3a/5x5
I0403 21:51:33.789908 24480 net.cpp:386] inception_3a/relu_5x5 -> inception_3a/5x5 (in-place)
I0403 21:51:33.790078 24480 net.cpp:141] Setting up inception_3a/relu_5x5
I0403 21:51:33.790104 24480 net.cpp:148] Top shape: 24 32 28 28 (602112)
I0403 21:51:33.790119 24480 net.cpp:156] Memory required for data: 541901856
I0403 21:51:33.790134 24480 layer_factory.hpp:77] Creating layer inception_3a/pool
I0403 21:51:33.790154 24480 net.cpp:91] Creating Layer inception_3a/pool
I0403 21:51:33.790184 24480 net.cpp:425] inception_3a/pool <- pool2/3x3_s2_pool2/3x3_s2_0_split_3
I0403 21:51:33.790210 24480 net.cpp:399] inception_3a/pool -> inception_3a/pool
I0403 21:51:33.790269 24480 net.cpp:141] Setting up inception_3a/pool
I0403 21:51:33.790293 24480 net.cpp:148] Top shape: 24 192 28 28 (3612672)
I0403 21:51:33.790308 24480 net.cpp:156] Memory required for data: 556352544
I0403 21:51:33.790323 24480 layer_factory.hpp:77] Creating layer inception_3a/pool_proj
I0403 21:51:33.790345 24480 net.cpp:91] Creating Layer inception_3a/pool_proj
I0403 21:51:33.790364 24480 net.cpp:425] inception_3a/pool_proj <- inception_3a/pool
I0403 21:51:33.790385 24480 net.cpp:399] inception_3a/pool_proj -> inception_3a/pool_proj
I0403 21:51:33.791554 24480 net.cpp:141] Setting up inception_3a/pool_proj
I0403 21:51:33.791589 24480 net.cpp:148] Top shape: 24 32 28 28 (602112)
I0403 21:51:33.791605 24480 net.cpp:156] Memory required for data: 558760992
I0403 21:51:33.791627 24480 layer_factory.hpp:77] Creating layer inception_3a/relu_pool_proj
I0403 21:51:33.791649 24480 net.cpp:91] Creating Layer inception_3a/relu_pool_proj
I0403 21:51:33.791666 24480 net.cpp:425] inception_3a/relu_pool_proj <- inception_3a/pool_proj
I0403 21:51:33.791684 24480 net.cpp:386] inception_3a/relu_pool_proj -> inception_3a/pool_proj (in-place)
I0403 21:51:33.791954 24480 net.cpp:141] Setting up inception_3a/relu_pool_proj
I0403 21:51:33.791981 24480 net.cpp:148] Top shape: 24 32 28 28 (602112)
I0403 21:51:33.791996 24480 net.cpp:156] Memory required for data: 561169440
I0403 21:51:33.792012 24480 layer_factory.hpp:77] Creating layer inception_3a/output
I0403 21:51:33.792032 24480 net.cpp:91] Creating Layer inception_3a/output
I0403 21:51:33.792048 24480 net.cpp:425] inception_3a/output <- inception_3a/1x1
I0403 21:51:33.792067 24480 net.cpp:425] inception_3a/output <- inception_3a/3x3
I0403 21:51:33.792081 24480 net.cpp:425] inception_3a/output <- inception_3a/5x5
I0403 21:51:33.792098 24480 net.cpp:425] inception_3a/output <- inception_3a/pool_proj
I0403 21:51:33.792114 24480 net.cpp:399] inception_3a/output -> inception_3a/output
I0403 21:51:33.792160 24480 net.cpp:141] Setting up inception_3a/output
I0403 21:51:33.792187 24480 net.cpp:148] Top shape: 24 256 28 28 (4816896)
I0403 21:51:33.792207 24480 net.cpp:156] Memory required for data: 580437024
I0403 21:51:33.792223 24480 layer_factory.hpp:77] Creating layer inception_3a/output_inception_3a/output_0_split
I0403 21:51:33.792242 24480 net.cpp:91] Creating Layer inception_3a/output_inception_3a/output_0_split
I0403 21:51:33.792258 24480 net.cpp:425] inception_3a/output_inception_3a/output_0_split <- inception_3a/output
I0403 21:51:33.792278 24480 net.cpp:399] inception_3a/output_inception_3a/output_0_split -> inception_3a/output_inception_3a/output_0_split_0
I0403 21:51:33.792299 24480 net.cpp:399] inception_3a/output_inception_3a/output_0_split -> inception_3a/output_inception_3a/output_0_split_1
I0403 21:51:33.792322 24480 net.cpp:399] inception_3a/output_inception_3a/output_0_split -> inception_3a/output_inception_3a/output_0_split_2
I0403 21:51:33.792343 24480 net.cpp:399] inception_3a/output_inception_3a/output_0_split -> inception_3a/output_inception_3a/output_0_split_3
I0403 21:51:33.792418 24480 net.cpp:141] Setting up inception_3a/output_inception_3a/output_0_split
I0403 21:51:33.792441 24480 net.cpp:148] Top shape: 24 256 28 28 (4816896)
I0403 21:51:33.792459 24480 net.cpp:148] Top shape: 24 256 28 28 (4816896)
I0403 21:51:33.792475 24480 net.cpp:148] Top shape: 24 256 28 28 (4816896)
I0403 21:51:33.792491 24480 net.cpp:148] Top shape: 24 256 28 28 (4816896)
I0403 21:51:33.792505 24480 net.cpp:156] Memory required for data: 657507360
I0403 21:51:33.792520 24480 layer_factory.hpp:77] Creating layer inception_3b/1x1
I0403 21:51:33.792541 24480 net.cpp:91] Creating Layer inception_3b/1x1
I0403 21:51:33.792559 24480 net.cpp:425] inception_3b/1x1 <- inception_3a/output_inception_3a/output_0_split_0
I0403 21:51:33.792580 24480 net.cpp:399] inception_3b/1x1 -> inception_3b/1x1
I0403 21:51:33.793701 24480 net.cpp:141] Setting up inception_3b/1x1
I0403 21:51:33.793741 24480 net.cpp:148] Top shape: 24 128 28 28 (2408448)
I0403 21:51:33.793758 24480 net.cpp:156] Memory required for data: 667141152
I0403 21:51:33.793777 24480 layer_factory.hpp:77] Creating layer inception_3b/relu_1x1
I0403 21:51:33.793795 24480 net.cpp:91] Creating Layer inception_3b/relu_1x1
I0403 21:51:33.793813 24480 net.cpp:425] inception_3b/relu_1x1 <- inception_3b/1x1
I0403 21:51:33.793834 24480 net.cpp:386] inception_3b/relu_1x1 -> inception_3b/1x1 (in-place)
I0403 21:51:33.794008 24480 net.cpp:141] Setting up inception_3b/relu_1x1
I0403 21:51:33.794033 24480 net.cpp:148] Top shape: 24 128 28 28 (2408448)
I0403 21:51:33.794047 24480 net.cpp:156] Memory required for data: 676774944
I0403 21:51:33.794062 24480 layer_factory.hpp:77] Creating layer inception_3b/3x3_reduce
I0403 21:51:33.794085 24480 net.cpp:91] Creating Layer inception_3b/3x3_reduce
I0403 21:51:33.794103 24480 net.cpp:425] inception_3b/3x3_reduce <- inception_3a/output_inception_3a/output_0_split_1
I0403 21:51:33.794126 24480 net.cpp:399] inception_3b/3x3_reduce -> inception_3b/3x3_reduce
I0403 21:51:33.795248 24480 net.cpp:141] Setting up inception_3b/3x3_reduce
I0403 21:51:33.795275 24480 net.cpp:148] Top shape: 24 128 28 28 (2408448)
I0403 21:51:33.795292 24480 net.cpp:156] Memory required for data: 686408736
I0403 21:51:33.795311 24480 layer_factory.hpp:77] Creating layer inception_3b/relu_3x3_reduce
I0403 21:51:33.795331 24480 net.cpp:91] Creating Layer inception_3b/relu_3x3_reduce
I0403 21:51:33.795347 24480 net.cpp:425] inception_3b/relu_3x3_reduce <- inception_3b/3x3_reduce
I0403 21:51:33.795367 24480 net.cpp:386] inception_3b/relu_3x3_reduce -> inception_3b/3x3_reduce (in-place)
I0403 21:51:33.795534 24480 net.cpp:141] Setting up inception_3b/relu_3x3_reduce
I0403 21:51:33.795560 24480 net.cpp:148] Top shape: 24 128 28 28 (2408448)
I0403 21:51:33.795574 24480 net.cpp:156] Memory required for data: 696042528
I0403 21:51:33.795590 24480 layer_factory.hpp:77] Creating layer inception_3b/3x3
I0403 21:51:33.795616 24480 net.cpp:91] Creating Layer inception_3b/3x3
I0403 21:51:33.795634 24480 net.cpp:425] inception_3b/3x3 <- inception_3b/3x3_reduce
I0403 21:51:33.795653 24480 net.cpp:399] inception_3b/3x3 -> inception_3b/3x3
I0403 21:51:33.798559 24480 net.cpp:141] Setting up inception_3b/3x3
I0403 21:51:33.798589 24480 net.cpp:148] Top shape: 24 192 28 28 (3612672)
I0403 21:51:33.798605 24480 net.cpp:156] Memory required for data: 710493216
I0403 21:51:33.798624 24480 layer_factory.hpp:77] Creating layer inception_3b/relu_3x3
I0403 21:51:33.798645 24480 net.cpp:91] Creating Layer inception_3b/relu_3x3
I0403 21:51:33.798663 24480 net.cpp:425] inception_3b/relu_3x3 <- inception_3b/3x3
I0403 21:51:33.798681 24480 net.cpp:386] inception_3b/relu_3x3 -> inception_3b/3x3 (in-place)
I0403 21:51:33.798956 24480 net.cpp:141] Setting up inception_3b/relu_3x3
I0403 21:51:33.798982 24480 net.cpp:148] Top shape: 24 192 28 28 (3612672)
I0403 21:51:33.798998 24480 net.cpp:156] Memory required for data: 724943904
I0403 21:51:33.799013 24480 layer_factory.hpp:77] Creating layer inception_3b/5x5_reduce
I0403 21:51:33.799034 24480 net.cpp:91] Creating Layer inception_3b/5x5_reduce
I0403 21:51:33.799052 24480 net.cpp:425] inception_3b/5x5_reduce <- inception_3a/output_inception_3a/output_0_split_2
I0403 21:51:33.799075 24480 net.cpp:399] inception_3b/5x5_reduce -> inception_3b/5x5_reduce
I0403 21:51:33.800051 24480 net.cpp:141] Setting up inception_3b/5x5_reduce
I0403 21:51:33.800079 24480 net.cpp:148] Top shape: 24 32 28 28 (602112)
I0403 21:51:33.800096 24480 net.cpp:156] Memory required for data: 727352352
I0403 21:51:33.800113 24480 layer_factory.hpp:77] Creating layer inception_3b/relu_5x5_reduce
I0403 21:51:33.800133 24480 net.cpp:91] Creating Layer inception_3b/relu_5x5_reduce
I0403 21:51:33.800150 24480 net.cpp:425] inception_3b/relu_5x5_reduce <- inception_3b/5x5_reduce
I0403 21:51:33.800168 24480 net.cpp:386] inception_3b/relu_5x5_reduce -> inception_3b/5x5_reduce (in-place)
I0403 21:51:33.800362 24480 net.cpp:141] Setting up inception_3b/relu_5x5_reduce
I0403 21:51:33.800389 24480 net.cpp:148] Top shape: 24 32 28 28 (602112)
I0403 21:51:33.800405 24480 net.cpp:156] Memory required for data: 729760800
I0403 21:51:33.800418 24480 layer_factory.hpp:77] Creating layer inception_3b/5x5
I0403 21:51:33.800442 24480 net.cpp:91] Creating Layer inception_3b/5x5
I0403 21:51:33.800460 24480 net.cpp:425] inception_3b/5x5 <- inception_3b/5x5_reduce
I0403 21:51:33.800479 24480 net.cpp:399] inception_3b/5x5 -> inception_3b/5x5
I0403 21:51:33.802439 24480 net.cpp:141] Setting up inception_3b/5x5
I0403 21:51:33.802480 24480 net.cpp:148] Top shape: 24 96 28 28 (1806336)
I0403 21:51:33.802497 24480 net.cpp:156] Memory required for data: 736986144
I0403 21:51:33.802516 24480 layer_factory.hpp:77] Creating layer inception_3b/relu_5x5
I0403 21:51:33.802534 24480 net.cpp:91] Creating Layer inception_3b/relu_5x5
I0403 21:51:33.802551 24480 net.cpp:425] inception_3b/relu_5x5 <- inception_3b/5x5
I0403 21:51:33.802570 24480 net.cpp:386] inception_3b/relu_5x5 -> inception_3b/5x5 (in-place)
I0403 21:51:33.802753 24480 net.cpp:141] Setting up inception_3b/relu_5x5
I0403 21:51:33.802779 24480 net.cpp:148] Top shape: 24 96 28 28 (1806336)
I0403 21:51:33.802794 24480 net.cpp:156] Memory required for data: 744211488
I0403 21:51:33.802809 24480 layer_factory.hpp:77] Creating layer inception_3b/pool
I0403 21:51:33.802826 24480 net.cpp:91] Creating Layer inception_3b/pool
I0403 21:51:33.802842 24480 net.cpp:425] inception_3b/pool <- inception_3a/output_inception_3a/output_0_split_3
I0403 21:51:33.802860 24480 net.cpp:399] inception_3b/pool -> inception_3b/pool
I0403 21:51:33.802917 24480 net.cpp:141] Setting up inception_3b/pool
I0403 21:51:33.802939 24480 net.cpp:148] Top shape: 24 256 28 28 (4816896)
I0403 21:51:33.802954 24480 net.cpp:156] Memory required for data: 763479072
I0403 21:51:33.802969 24480 layer_factory.hpp:77] Creating layer inception_3b/pool_proj
I0403 21:51:33.802990 24480 net.cpp:91] Creating Layer inception_3b/pool_proj
I0403 21:51:33.803009 24480 net.cpp:425] inception_3b/pool_proj <- inception_3b/pool
I0403 21:51:33.803030 24480 net.cpp:399] inception_3b/pool_proj -> inception_3b/pool_proj
I0403 21:51:33.804047 24480 net.cpp:141] Setting up inception_3b/pool_proj
I0403 21:51:33.804075 24480 net.cpp:148] Top shape: 24 64 28 28 (1204224)
I0403 21:51:33.804090 24480 net.cpp:156] Memory required for data: 768295968
I0403 21:51:33.804110 24480 layer_factory.hpp:77] Creating layer inception_3b/relu_pool_proj
I0403 21:51:33.804129 24480 net.cpp:91] Creating Layer inception_3b/relu_pool_proj
I0403 21:51:33.804147 24480 net.cpp:425] inception_3b/relu_pool_proj <- inception_3b/pool_proj
I0403 21:51:33.804165 24480 net.cpp:386] inception_3b/relu_pool_proj -> inception_3b/pool_proj (in-place)
I0403 21:51:33.804563 24480 net.cpp:141] Setting up inception_3b/relu_pool_proj
I0403 21:51:33.804589 24480 net.cpp:148] Top shape: 24 64 28 28 (1204224)
I0403 21:51:33.804603 24480 net.cpp:156] Memory required for data: 773112864
I0403 21:51:33.804620 24480 layer_factory.hpp:77] Creating layer inception_3b/output
I0403 21:51:33.804638 24480 net.cpp:91] Creating Layer inception_3b/output
I0403 21:51:33.804656 24480 net.cpp:425] inception_3b/output <- inception_3b/1x1
I0403 21:51:33.804672 24480 net.cpp:425] inception_3b/output <- inception_3b/3x3
I0403 21:51:33.804687 24480 net.cpp:425] inception_3b/output <- inception_3b/5x5
I0403 21:51:33.804702 24480 net.cpp:425] inception_3b/output <- inception_3b/pool_proj
I0403 21:51:33.804719 24480 net.cpp:399] inception_3b/output -> inception_3b/output
I0403 21:51:33.804762 24480 net.cpp:141] Setting up inception_3b/output
I0403 21:51:33.804786 24480 net.cpp:148] Top shape: 24 480 28 28 (9031680)
I0403 21:51:33.804800 24480 net.cpp:156] Memory required for data: 809239584
I0403 21:51:33.804816 24480 layer_factory.hpp:77] Creating layer pool3/3x3_s2
I0403 21:51:33.804832 24480 net.cpp:91] Creating Layer pool3/3x3_s2
I0403 21:51:33.804850 24480 net.cpp:425] pool3/3x3_s2 <- inception_3b/output
I0403 21:51:33.804886 24480 net.cpp:399] pool3/3x3_s2 -> pool3/3x3_s2
I0403 21:51:33.804946 24480 net.cpp:141] Setting up pool3/3x3_s2
I0403 21:51:33.804970 24480 net.cpp:148] Top shape: 24 480 14 14 (2257920)
I0403 21:51:33.804985 24480 net.cpp:156] Memory required for data: 818271264
I0403 21:51:33.804998 24480 layer_factory.hpp:77] Creating layer pool3/3x3_s2_pool3/3x3_s2_0_split
I0403 21:51:33.805016 24480 net.cpp:91] Creating Layer pool3/3x3_s2_pool3/3x3_s2_0_split
I0403 21:51:33.805030 24480 net.cpp:425] pool3/3x3_s2_pool3/3x3_s2_0_split <- pool3/3x3_s2
I0403 21:51:33.805049 24480 net.cpp:399] pool3/3x3_s2_pool3/3x3_s2_0_split -> pool3/3x3_s2_pool3/3x3_s2_0_split_0
I0403 21:51:33.805070 24480 net.cpp:399] pool3/3x3_s2_pool3/3x3_s2_0_split -> pool3/3x3_s2_pool3/3x3_s2_0_split_1
I0403 21:51:33.805089 24480 net.cpp:399] pool3/3x3_s2_pool3/3x3_s2_0_split -> pool3/3x3_s2_pool3/3x3_s2_0_split_2
I0403 21:51:33.805109 24480 net.cpp:399] pool3/3x3_s2_pool3/3x3_s2_0_split -> pool3/3x3_s2_pool3/3x3_s2_0_split_3
I0403 21:51:33.805183 24480 net.cpp:141] Setting up pool3/3x3_s2_pool3/3x3_s2_0_split
I0403 21:51:33.805212 24480 net.cpp:148] Top shape: 24 480 14 14 (2257920)
I0403 21:51:33.805229 24480 net.cpp:148] Top shape: 24 480 14 14 (2257920)
I0403 21:51:33.805244 24480 net.cpp:148] Top shape: 24 480 14 14 (2257920)
I0403 21:51:33.805258 24480 net.cpp:148] Top shape: 24 480 14 14 (2257920)
I0403 21:51:33.805272 24480 net.cpp:156] Memory required for data: 854397984
I0403 21:51:33.805286 24480 layer_factory.hpp:77] Creating layer inception_4a/1x1
I0403 21:51:33.805310 24480 net.cpp:91] Creating Layer inception_4a/1x1
I0403 21:51:33.805328 24480 net.cpp:425] inception_4a/1x1 <- pool3/3x3_s2_pool3/3x3_s2_0_split_0
I0403 21:51:33.805346 24480 net.cpp:399] inception_4a/1x1 -> inception_4a/1x1
I0403 21:51:33.806860 24480 net.cpp:141] Setting up inception_4a/1x1
I0403 21:51:33.806890 24480 net.cpp:148] Top shape: 24 192 14 14 (903168)
I0403 21:51:33.806906 24480 net.cpp:156] Memory required for data: 858010656
I0403 21:51:33.806926 24480 layer_factory.hpp:77] Creating layer inception_4a/relu_1x1
I0403 21:51:33.806946 24480 net.cpp:91] Creating Layer inception_4a/relu_1x1
I0403 21:51:33.806962 24480 net.cpp:425] inception_4a/relu_1x1 <- inception_4a/1x1
I0403 21:51:33.806982 24480 net.cpp:386] inception_4a/relu_1x1 -> inception_4a/1x1 (in-place)
I0403 21:51:33.807152 24480 net.cpp:141] Setting up inception_4a/relu_1x1
I0403 21:51:33.807176 24480 net.cpp:148] Top shape: 24 192 14 14 (903168)
I0403 21:51:33.807191 24480 net.cpp:156] Memory required for data: 861623328
I0403 21:51:33.807210 24480 layer_factory.hpp:77] Creating layer inception_4a/3x3_reduce
I0403 21:51:33.807234 24480 net.cpp:91] Creating Layer inception_4a/3x3_reduce
I0403 21:51:33.807251 24480 net.cpp:425] inception_4a/3x3_reduce <- pool3/3x3_s2_pool3/3x3_s2_0_split_1
I0403 21:51:33.807272 24480 net.cpp:399] inception_4a/3x3_reduce -> inception_4a/3x3_reduce
I0403 21:51:33.808506 24480 net.cpp:141] Setting up inception_4a/3x3_reduce
I0403 21:51:33.808534 24480 net.cpp:148] Top shape: 24 96 14 14 (451584)
I0403 21:51:33.808550 24480 net.cpp:156] Memory required for data: 863429664
I0403 21:51:33.808573 24480 layer_factory.hpp:77] Creating layer inception_4a/relu_3x3_reduce
I0403 21:51:33.808595 24480 net.cpp:91] Creating Layer inception_4a/relu_3x3_reduce
I0403 21:51:33.808614 24480 net.cpp:425] inception_4a/relu_3x3_reduce <- inception_4a/3x3_reduce
I0403 21:51:33.808630 24480 net.cpp:386] inception_4a/relu_3x3_reduce -> inception_4a/3x3_reduce (in-place)
I0403 21:51:33.808801 24480 net.cpp:141] Setting up inception_4a/relu_3x3_reduce
I0403 21:51:33.808826 24480 net.cpp:148] Top shape: 24 96 14 14 (451584)
I0403 21:51:33.808840 24480 net.cpp:156] Memory required for data: 865236000
I0403 21:51:33.808856 24480 layer_factory.hpp:77] Creating layer inception_4a/3x3
I0403 21:51:33.808877 24480 net.cpp:91] Creating Layer inception_4a/3x3
I0403 21:51:33.808895 24480 net.cpp:425] inception_4a/3x3 <- inception_4a/3x3_reduce
I0403 21:51:33.808917 24480 net.cpp:399] inception_4a/3x3 -> inception_4a/3x3
I0403 21:51:33.811513 24480 net.cpp:141] Setting up inception_4a/3x3
I0403 21:51:33.811542 24480 net.cpp:148] Top shape: 24 208 14 14 (978432)
I0403 21:51:33.811558 24480 net.cpp:156] Memory required for data: 869149728
I0403 21:51:33.811578 24480 layer_factory.hpp:77] Creating layer inception_4a/relu_3x3
I0403 21:51:33.811594 24480 net.cpp:91] Creating Layer inception_4a/relu_3x3
I0403 21:51:33.811612 24480 net.cpp:425] inception_4a/relu_3x3 <- inception_4a/3x3
I0403 21:51:33.811630 24480 net.cpp:386] inception_4a/relu_3x3 -> inception_4a/3x3 (in-place)
I0403 21:51:33.811895 24480 net.cpp:141] Setting up inception_4a/relu_3x3
I0403 21:51:33.811923 24480 net.cpp:148] Top shape: 24 208 14 14 (978432)
I0403 21:51:33.811939 24480 net.cpp:156] Memory required for data: 873063456
I0403 21:51:33.811955 24480 layer_factory.hpp:77] Creating layer inception_4a/5x5_reduce
I0403 21:51:33.811978 24480 net.cpp:91] Creating Layer inception_4a/5x5_reduce
I0403 21:51:33.811996 24480 net.cpp:425] inception_4a/5x5_reduce <- pool3/3x3_s2_pool3/3x3_s2_0_split_2
I0403 21:51:33.812017 24480 net.cpp:399] inception_4a/5x5_reduce -> inception_4a/5x5_reduce
I0403 21:51:33.812991 24480 net.cpp:141] Setting up inception_4a/5x5_reduce
I0403 21:51:33.813019 24480 net.cpp:148] Top shape: 24 16 14 14 (75264)
I0403 21:51:33.813035 24480 net.cpp:156] Memory required for data: 873364512
I0403 21:51:33.813053 24480 layer_factory.hpp:77] Creating layer inception_4a/relu_5x5_reduce
I0403 21:51:33.813073 24480 net.cpp:91] Creating Layer inception_4a/relu_5x5_reduce
I0403 21:51:33.813091 24480 net.cpp:425] inception_4a/relu_5x5_reduce <- inception_4a/5x5_reduce
I0403 21:51:33.813109 24480 net.cpp:386] inception_4a/relu_5x5_reduce -> inception_4a/5x5_reduce (in-place)
I0403 21:51:33.813287 24480 net.cpp:141] Setting up inception_4a/relu_5x5_reduce
I0403 21:51:33.813313 24480 net.cpp:148] Top shape: 24 16 14 14 (75264)
I0403 21:51:33.813328 24480 net.cpp:156] Memory required for data: 873665568
I0403 21:51:33.813343 24480 layer_factory.hpp:77] Creating layer inception_4a/5x5
I0403 21:51:33.813365 24480 net.cpp:91] Creating Layer inception_4a/5x5
I0403 21:51:33.813383 24480 net.cpp:425] inception_4a/5x5 <- inception_4a/5x5_reduce
I0403 21:51:33.813402 24480 net.cpp:399] inception_4a/5x5 -> inception_4a/5x5
I0403 21:51:33.814440 24480 net.cpp:141] Setting up inception_4a/5x5
I0403 21:51:33.814467 24480 net.cpp:148] Top shape: 24 48 14 14 (225792)
I0403 21:51:33.814486 24480 net.cpp:156] Memory required for data: 874568736
I0403 21:51:33.814503 24480 layer_factory.hpp:77] Creating layer inception_4a/relu_5x5
I0403 21:51:33.814522 24480 net.cpp:91] Creating Layer inception_4a/relu_5x5
I0403 21:51:33.814538 24480 net.cpp:425] inception_4a/relu_5x5 <- inception_4a/5x5
I0403 21:51:33.814556 24480 net.cpp:386] inception_4a/relu_5x5 -> inception_4a/5x5 (in-place)
I0403 21:51:33.814725 24480 net.cpp:141] Setting up inception_4a/relu_5x5
I0403 21:51:33.814754 24480 net.cpp:148] Top shape: 24 48 14 14 (225792)
I0403 21:51:33.814769 24480 net.cpp:156] Memory required for data: 875471904
I0403 21:51:33.814785 24480 layer_factory.hpp:77] Creating layer inception_4a/pool
I0403 21:51:33.814801 24480 net.cpp:91] Creating Layer inception_4a/pool
I0403 21:51:33.814817 24480 net.cpp:425] inception_4a/pool <- pool3/3x3_s2_pool3/3x3_s2_0_split_3
I0403 21:51:33.814838 24480 net.cpp:399] inception_4a/pool -> inception_4a/pool
I0403 21:51:33.814898 24480 net.cpp:141] Setting up inception_4a/pool
I0403 21:51:33.814925 24480 net.cpp:148] Top shape: 24 480 14 14 (2257920)
I0403 21:51:33.814942 24480 net.cpp:156] Memory required for data: 884503584
I0403 21:51:33.814956 24480 layer_factory.hpp:77] Creating layer inception_4a/pool_proj
I0403 21:51:33.814977 24480 net.cpp:91] Creating Layer inception_4a/pool_proj
I0403 21:51:33.814996 24480 net.cpp:425] inception_4a/pool_proj <- inception_4a/pool
I0403 21:51:33.815016 24480 net.cpp:399] inception_4a/pool_proj -> inception_4a/pool_proj
I0403 21:51:33.816130 24480 net.cpp:141] Setting up inception_4a/pool_proj
I0403 21:51:33.816161 24480 net.cpp:148] Top shape: 24 64 14 14 (301056)
I0403 21:51:33.816192 24480 net.cpp:156] Memory required for data: 885707808
I0403 21:51:33.816231 24480 layer_factory.hpp:77] Creating layer inception_4a/relu_pool_proj
I0403 21:51:33.816258 24480 net.cpp:91] Creating Layer inception_4a/relu_pool_proj
I0403 21:51:33.816275 24480 net.cpp:425] inception_4a/relu_pool_proj <- inception_4a/pool_proj
I0403 21:51:33.816293 24480 net.cpp:386] inception_4a/relu_pool_proj -> inception_4a/pool_proj (in-place)
I0403 21:51:33.816572 24480 net.cpp:141] Setting up inception_4a/relu_pool_proj
I0403 21:51:33.816601 24480 net.cpp:148] Top shape: 24 64 14 14 (301056)
I0403 21:51:33.816617 24480 net.cpp:156] Memory required for data: 886912032
I0403 21:51:33.816633 24480 layer_factory.hpp:77] Creating layer inception_4a/output
I0403 21:51:33.816651 24480 net.cpp:91] Creating Layer inception_4a/output
I0403 21:51:33.816668 24480 net.cpp:425] inception_4a/output <- inception_4a/1x1
I0403 21:51:33.816684 24480 net.cpp:425] inception_4a/output <- inception_4a/3x3
I0403 21:51:33.816700 24480 net.cpp:425] inception_4a/output <- inception_4a/5x5
I0403 21:51:33.816716 24480 net.cpp:425] inception_4a/output <- inception_4a/pool_proj
I0403 21:51:33.816733 24480 net.cpp:399] inception_4a/output -> inception_4a/output
I0403 21:51:33.816779 24480 net.cpp:141] Setting up inception_4a/output
I0403 21:51:33.816803 24480 net.cpp:148] Top shape: 24 512 14 14 (2408448)
I0403 21:51:33.816817 24480 net.cpp:156] Memory required for data: 896545824
I0403 21:51:33.816833 24480 layer_factory.hpp:77] Creating layer inception_4a/output_inception_4a/output_0_split
I0403 21:51:33.816853 24480 net.cpp:91] Creating Layer inception_4a/output_inception_4a/output_0_split
I0403 21:51:33.816869 24480 net.cpp:425] inception_4a/output_inception_4a/output_0_split <- inception_4a/output
I0403 21:51:33.816889 24480 net.cpp:399] inception_4a/output_inception_4a/output_0_split -> inception_4a/output_inception_4a/output_0_split_0
I0403 21:51:33.816908 24480 net.cpp:399] inception_4a/output_inception_4a/output_0_split -> inception_4a/output_inception_4a/output_0_split_1
I0403 21:51:33.816931 24480 net.cpp:399] inception_4a/output_inception_4a/output_0_split -> inception_4a/output_inception_4a/output_0_split_2
I0403 21:51:33.816953 24480 net.cpp:399] inception_4a/output_inception_4a/output_0_split -> inception_4a/output_inception_4a/output_0_split_3
I0403 21:51:33.816974 24480 net.cpp:399] inception_4a/output_inception_4a/output_0_split -> inception_4a/output_inception_4a/output_0_split_4
I0403 21:51:33.817067 24480 net.cpp:141] Setting up inception_4a/output_inception_4a/output_0_split
I0403 21:51:33.817091 24480 net.cpp:148] Top shape: 24 512 14 14 (2408448)
I0403 21:51:33.817108 24480 net.cpp:148] Top shape: 24 512 14 14 (2408448)
I0403 21:51:33.817124 24480 net.cpp:148] Top shape: 24 512 14 14 (2408448)
I0403 21:51:33.817139 24480 net.cpp:148] Top shape: 24 512 14 14 (2408448)
I0403 21:51:33.817157 24480 net.cpp:148] Top shape: 24 512 14 14 (2408448)
I0403 21:51:33.817170 24480 net.cpp:156] Memory required for data: 944714784
I0403 21:51:33.817185 24480 layer_factory.hpp:77] Creating layer loss1/ave_pool
I0403 21:51:33.817210 24480 net.cpp:91] Creating Layer loss1/ave_pool
I0403 21:51:33.817229 24480 net.cpp:425] loss1/ave_pool <- inception_4a/output_inception_4a/output_0_split_0
I0403 21:51:33.817247 24480 net.cpp:399] loss1/ave_pool -> loss1/ave_pool
I0403 21:51:33.817450 24480 net.cpp:141] Setting up loss1/ave_pool
I0403 21:51:33.817478 24480 net.cpp:148] Top shape: 24 512 4 4 (196608)
I0403 21:51:33.817495 24480 net.cpp:156] Memory required for data: 945501216
I0403 21:51:33.817512 24480 layer_factory.hpp:77] Creating layer loss1/conv
I0403 21:51:33.817533 24480 net.cpp:91] Creating Layer loss1/conv
I0403 21:51:33.817550 24480 net.cpp:425] loss1/conv <- loss1/ave_pool
I0403 21:51:33.817570 24480 net.cpp:399] loss1/conv -> loss1/conv
I0403 21:51:33.818965 24480 net.cpp:141] Setting up loss1/conv
I0403 21:51:33.818994 24480 net.cpp:148] Top shape: 24 128 4 4 (49152)
I0403 21:51:33.819025 24480 net.cpp:156] Memory required for data: 945697824
I0403 21:51:33.819044 24480 layer_factory.hpp:77] Creating layer loss1/relu_conv
I0403 21:51:33.819064 24480 net.cpp:91] Creating Layer loss1/relu_conv
I0403 21:51:33.819083 24480 net.cpp:425] loss1/relu_conv <- loss1/conv
I0403 21:51:33.819100 24480 net.cpp:386] loss1/relu_conv -> loss1/conv (in-place)
I0403 21:51:33.819385 24480 net.cpp:141] Setting up loss1/relu_conv
I0403 21:51:33.819412 24480 net.cpp:148] Top shape: 24 128 4 4 (49152)
I0403 21:51:33.819428 24480 net.cpp:156] Memory required for data: 945894432
I0403 21:51:33.819443 24480 layer_factory.hpp:77] Creating layer loss1/fc
I0403 21:51:33.819478 24480 net.cpp:91] Creating Layer loss1/fc
I0403 21:51:33.819496 24480 net.cpp:425] loss1/fc <- loss1/conv
I0403 21:51:33.819516 24480 net.cpp:399] loss1/fc -> loss1/fc
I0403 21:51:33.837275 24480 net.cpp:141] Setting up loss1/fc
I0403 21:51:33.837309 24480 net.cpp:148] Top shape: 24 1024 (24576)
I0403 21:51:33.837324 24480 net.cpp:156] Memory required for data: 945992736
I0403 21:51:33.837342 24480 layer_factory.hpp:77] Creating layer loss1/relu_fc
I0403 21:51:33.837363 24480 net.cpp:91] Creating Layer loss1/relu_fc
I0403 21:51:33.837380 24480 net.cpp:425] loss1/relu_fc <- loss1/fc
I0403 21:51:33.837400 24480 net.cpp:386] loss1/relu_fc -> loss1/fc (in-place)
I0403 21:51:33.837581 24480 net.cpp:141] Setting up loss1/relu_fc
I0403 21:51:33.837606 24480 net.cpp:148] Top shape: 24 1024 (24576)
I0403 21:51:33.837620 24480 net.cpp:156] Memory required for data: 946091040
I0403 21:51:33.837635 24480 layer_factory.hpp:77] Creating layer loss1/drop_fc
I0403 21:51:33.837661 24480 net.cpp:91] Creating Layer loss1/drop_fc
I0403 21:51:33.837678 24480 net.cpp:425] loss1/drop_fc <- loss1/fc
I0403 21:51:33.837697 24480 net.cpp:386] loss1/drop_fc -> loss1/fc (in-place)
I0403 21:51:33.837749 24480 net.cpp:141] Setting up loss1/drop_fc
I0403 21:51:33.837771 24480 net.cpp:148] Top shape: 24 1024 (24576)
I0403 21:51:33.837786 24480 net.cpp:156] Memory required for data: 946189344
I0403 21:51:33.837801 24480 layer_factory.hpp:77] Creating layer loss1/classifier_plantvillage
I0403 21:51:33.837823 24480 net.cpp:91] Creating Layer loss1/classifier_plantvillage
I0403 21:51:33.837841 24480 net.cpp:425] loss1/classifier_plantvillage <- loss1/fc
I0403 21:51:33.837862 24480 net.cpp:399] loss1/classifier_plantvillage -> loss1/classifier_plantvillage
I0403 21:51:33.838775 24480 net.cpp:141] Setting up loss1/classifier_plantvillage
I0403 21:51:33.838805 24480 net.cpp:148] Top shape: 24 38 (912)
I0403 21:51:33.838822 24480 net.cpp:156] Memory required for data: 946192992
I0403 21:51:33.838840 24480 layer_factory.hpp:77] Creating layer loss1/classifier_plantvillage_loss1/classifier_plantvillage_0_split
I0403 21:51:33.838858 24480 net.cpp:91] Creating Layer loss1/classifier_plantvillage_loss1/classifier_plantvillage_0_split
I0403 21:51:33.838876 24480 net.cpp:425] loss1/classifier_plantvillage_loss1/classifier_plantvillage_0_split <- loss1/classifier_plantvillage
I0403 21:51:33.838896 24480 net.cpp:399] loss1/classifier_plantvillage_loss1/classifier_plantvillage_0_split -> loss1/classifier_plantvillage_loss1/classifier_plantvillage_0_split_0
I0403 21:51:33.838915 24480 net.cpp:399] loss1/classifier_plantvillage_loss1/classifier_plantvillage_0_split -> loss1/classifier_plantvillage_loss1/classifier_plantvillage_0_split_1
I0403 21:51:33.838937 24480 net.cpp:399] loss1/classifier_plantvillage_loss1/classifier_plantvillage_0_split -> loss1/classifier_plantvillage_loss1/classifier_plantvillage_0_split_2
I0403 21:51:33.839000 24480 net.cpp:141] Setting up loss1/classifier_plantvillage_loss1/classifier_plantvillage_0_split
I0403 21:51:33.839025 24480 net.cpp:148] Top shape: 24 38 (912)
I0403 21:51:33.839040 24480 net.cpp:148] Top shape: 24 38 (912)
I0403 21:51:33.839056 24480 net.cpp:148] Top shape: 24 38 (912)
I0403 21:51:33.839068 24480 net.cpp:156] Memory required for data: 946203936
I0403 21:51:33.839082 24480 layer_factory.hpp:77] Creating layer inception_4b/1x1
I0403 21:51:33.839105 24480 net.cpp:91] Creating Layer inception_4b/1x1
I0403 21:51:33.839139 24480 net.cpp:425] inception_4b/1x1 <- inception_4a/output_inception_4a/output_0_split_1
I0403 21:51:33.839159 24480 net.cpp:399] inception_4b/1x1 -> inception_4b/1x1
I0403 21:51:33.840749 24480 net.cpp:141] Setting up inception_4b/1x1
I0403 21:51:33.840777 24480 net.cpp:148] Top shape: 24 160 14 14 (752640)
I0403 21:51:33.840792 24480 net.cpp:156] Memory required for data: 949214496
I0403 21:51:33.840811 24480 layer_factory.hpp:77] Creating layer inception_4b/relu_1x1
I0403 21:51:33.840831 24480 net.cpp:91] Creating Layer inception_4b/relu_1x1
I0403 21:51:33.840847 24480 net.cpp:425] inception_4b/relu_1x1 <- inception_4b/1x1
I0403 21:51:33.840867 24480 net.cpp:386] inception_4b/relu_1x1 -> inception_4b/1x1 (in-place)
I0403 21:51:33.841037 24480 net.cpp:141] Setting up inception_4b/relu_1x1
I0403 21:51:33.841061 24480 net.cpp:148] Top shape: 24 160 14 14 (752640)
I0403 21:51:33.841075 24480 net.cpp:156] Memory required for data: 952225056
I0403 21:51:33.841091 24480 layer_factory.hpp:77] Creating layer inception_4b/3x3_reduce
I0403 21:51:33.841115 24480 net.cpp:91] Creating Layer inception_4b/3x3_reduce
I0403 21:51:33.841132 24480 net.cpp:425] inception_4b/3x3_reduce <- inception_4a/output_inception_4a/output_0_split_2
I0403 21:51:33.841151 24480 net.cpp:399] inception_4b/3x3_reduce -> inception_4b/3x3_reduce
I0403 21:51:33.842455 24480 net.cpp:141] Setting up inception_4b/3x3_reduce
I0403 21:51:33.842494 24480 net.cpp:148] Top shape: 24 112 14 14 (526848)
I0403 21:51:33.842509 24480 net.cpp:156] Memory required for data: 954332448
I0403 21:51:33.842526 24480 layer_factory.hpp:77] Creating layer inception_4b/relu_3x3_reduce
I0403 21:51:33.842547 24480 net.cpp:91] Creating Layer inception_4b/relu_3x3_reduce
I0403 21:51:33.842564 24480 net.cpp:425] inception_4b/relu_3x3_reduce <- inception_4b/3x3_reduce
I0403 21:51:33.842582 24480 net.cpp:386] inception_4b/relu_3x3_reduce -> inception_4b/3x3_reduce (in-place)
I0403 21:51:33.842855 24480 net.cpp:141] Setting up inception_4b/relu_3x3_reduce
I0403 21:51:33.842882 24480 net.cpp:148] Top shape: 24 112 14 14 (526848)
I0403 21:51:33.842896 24480 net.cpp:156] Memory required for data: 956439840
I0403 21:51:33.842911 24480 layer_factory.hpp:77] Creating layer inception_4b/3x3
I0403 21:51:33.842936 24480 net.cpp:91] Creating Layer inception_4b/3x3
I0403 21:51:33.842953 24480 net.cpp:425] inception_4b/3x3 <- inception_4b/3x3_reduce
I0403 21:51:33.842974 24480 net.cpp:399] inception_4b/3x3 -> inception_4b/3x3
I0403 21:51:33.845878 24480 net.cpp:141] Setting up inception_4b/3x3
I0403 21:51:33.845909 24480 net.cpp:148] Top shape: 24 224 14 14 (1053696)
I0403 21:51:33.845927 24480 net.cpp:156] Memory required for data: 960654624
I0403 21:51:33.845945 24480 layer_factory.hpp:77] Creating layer inception_4b/relu_3x3
I0403 21:51:33.845963 24480 net.cpp:91] Creating Layer inception_4b/relu_3x3
I0403 21:51:33.845980 24480 net.cpp:425] inception_4b/relu_3x3 <- inception_4b/3x3
I0403 21:51:33.846000 24480 net.cpp:386] inception_4b/relu_3x3 -> inception_4b/3x3 (in-place)
I0403 21:51:33.846175 24480 net.cpp:141] Setting up inception_4b/relu_3x3
I0403 21:51:33.846205 24480 net.cpp:148] Top shape: 24 224 14 14 (1053696)
I0403 21:51:33.846221 24480 net.cpp:156] Memory required for data: 964869408
I0403 21:51:33.846236 24480 layer_factory.hpp:77] Creating layer inception_4b/5x5_reduce
I0403 21:51:33.846257 24480 net.cpp:91] Creating Layer inception_4b/5x5_reduce
I0403 21:51:33.846276 24480 net.cpp:425] inception_4b/5x5_reduce <- inception_4a/output_inception_4a/output_0_split_3
I0403 21:51:33.846298 24480 net.cpp:399] inception_4b/5x5_reduce -> inception_4b/5x5_reduce
I0403 21:51:33.847342 24480 net.cpp:141] Setting up inception_4b/5x5_reduce
I0403 21:51:33.847370 24480 net.cpp:148] Top shape: 24 24 14 14 (112896)
I0403 21:51:33.847385 24480 net.cpp:156] Memory required for data: 965320992
I0403 21:51:33.847404 24480 layer_factory.hpp:77] Creating layer inception_4b/relu_5x5_reduce
I0403 21:51:33.847424 24480 net.cpp:91] Creating Layer inception_4b/relu_5x5_reduce
I0403 21:51:33.847455 24480 net.cpp:425] inception_4b/relu_5x5_reduce <- inception_4b/5x5_reduce
I0403 21:51:33.847475 24480 net.cpp:386] inception_4b/relu_5x5_reduce -> inception_4b/5x5_reduce (in-place)
I0403 21:51:33.847652 24480 net.cpp:141] Setting up inception_4b/relu_5x5_reduce
I0403 21:51:33.847681 24480 net.cpp:148] Top shape: 24 24 14 14 (112896)
I0403 21:51:33.847697 24480 net.cpp:156] Memory required for data: 965772576
I0403 21:51:33.847712 24480 layer_factory.hpp:77] Creating layer inception_4b/5x5
I0403 21:51:33.847733 24480 net.cpp:91] Creating Layer inception_4b/5x5
I0403 21:51:33.847751 24480 net.cpp:425] inception_4b/5x5 <- inception_4b/5x5_reduce
I0403 21:51:33.847770 24480 net.cpp:399] inception_4b/5x5 -> inception_4b/5x5
I0403 21:51:33.848959 24480 net.cpp:141] Setting up inception_4b/5x5
I0403 21:51:33.848986 24480 net.cpp:148] Top shape: 24 64 14 14 (301056)
I0403 21:51:33.849002 24480 net.cpp:156] Memory required for data: 966976800
I0403 21:51:33.849020 24480 layer_factory.hpp:77] Creating layer inception_4b/relu_5x5
I0403 21:51:33.849040 24480 net.cpp:91] Creating Layer inception_4b/relu_5x5
I0403 21:51:33.849057 24480 net.cpp:425] inception_4b/relu_5x5 <- inception_4b/5x5
I0403 21:51:33.849074 24480 net.cpp:386] inception_4b/relu_5x5 -> inception_4b/5x5 (in-place)
I0403 21:51:33.849355 24480 net.cpp:141] Setting up inception_4b/relu_5x5
I0403 21:51:33.849381 24480 net.cpp:148] Top shape: 24 64 14 14 (301056)
I0403 21:51:33.849396 24480 net.cpp:156] Memory required for data: 968181024
I0403 21:51:33.849411 24480 layer_factory.hpp:77] Creating layer inception_4b/pool
I0403 21:51:33.849428 24480 net.cpp:91] Creating Layer inception_4b/pool
I0403 21:51:33.849448 24480 net.cpp:425] inception_4b/pool <- inception_4a/output_inception_4a/output_0_split_4
I0403 21:51:33.849467 24480 net.cpp:399] inception_4b/pool -> inception_4b/pool
I0403 21:51:33.849529 24480 net.cpp:141] Setting up inception_4b/pool
I0403 21:51:33.849555 24480 net.cpp:148] Top shape: 24 512 14 14 (2408448)
I0403 21:51:33.849570 24480 net.cpp:156] Memory required for data: 977814816
I0403 21:51:33.849584 24480 layer_factory.hpp:77] Creating layer inception_4b/pool_proj
I0403 21:51:33.849606 24480 net.cpp:91] Creating Layer inception_4b/pool_proj
I0403 21:51:33.849623 24480 net.cpp:425] inception_4b/pool_proj <- inception_4b/pool
I0403 21:51:33.849644 24480 net.cpp:399] inception_4b/pool_proj -> inception_4b/pool_proj
I0403 21:51:33.850821 24480 net.cpp:141] Setting up inception_4b/pool_proj
I0403 21:51:33.850848 24480 net.cpp:148] Top shape: 24 64 14 14 (301056)
I0403 21:51:33.850864 24480 net.cpp:156] Memory required for data: 979019040
I0403 21:51:33.850883 24480 layer_factory.hpp:77] Creating layer inception_4b/relu_pool_proj
I0403 21:51:33.850904 24480 net.cpp:91] Creating Layer inception_4b/relu_pool_proj
I0403 21:51:33.850924 24480 net.cpp:425] inception_4b/relu_pool_proj <- inception_4b/pool_proj
I0403 21:51:33.850940 24480 net.cpp:386] inception_4b/relu_pool_proj -> inception_4b/pool_proj (in-place)
I0403 21:51:33.851119 24480 net.cpp:141] Setting up inception_4b/relu_pool_proj
I0403 21:51:33.851143 24480 net.cpp:148] Top shape: 24 64 14 14 (301056)
I0403 21:51:33.851158 24480 net.cpp:156] Memory required for data: 980223264
I0403 21:51:33.851173 24480 layer_factory.hpp:77] Creating layer inception_4b/output
I0403 21:51:33.851192 24480 net.cpp:91] Creating Layer inception_4b/output
I0403 21:51:33.851213 24480 net.cpp:425] inception_4b/output <- inception_4b/1x1
I0403 21:51:33.851230 24480 net.cpp:425] inception_4b/output <- inception_4b/3x3
I0403 21:51:33.851248 24480 net.cpp:425] inception_4b/output <- inception_4b/5x5
I0403 21:51:33.851263 24480 net.cpp:425] inception_4b/output <- inception_4b/pool_proj
I0403 21:51:33.851280 24480 net.cpp:399] inception_4b/output -> inception_4b/output
I0403 21:51:33.851326 24480 net.cpp:141] Setting up inception_4b/output
I0403 21:51:33.851351 24480 net.cpp:148] Top shape: 24 512 14 14 (2408448)
I0403 21:51:33.851364 24480 net.cpp:156] Memory required for data: 989857056
I0403 21:51:33.851392 24480 layer_factory.hpp:77] Creating layer inception_4b/output_inception_4b/output_0_split
I0403 21:51:33.851411 24480 net.cpp:91] Creating Layer inception_4b/output_inception_4b/output_0_split
I0403 21:51:33.851428 24480 net.cpp:425] inception_4b/output_inception_4b/output_0_split <- inception_4b/output
I0403 21:51:33.851449 24480 net.cpp:399] inception_4b/output_inception_4b/output_0_split -> inception_4b/output_inception_4b/output_0_split_0
I0403 21:51:33.851469 24480 net.cpp:399] inception_4b/output_inception_4b/output_0_split -> inception_4b/output_inception_4b/output_0_split_1
I0403 21:51:33.851490 24480 net.cpp:399] inception_4b/output_inception_4b/output_0_split -> inception_4b/output_inception_4b/output_0_split_2
I0403 21:51:33.851508 24480 net.cpp:399] inception_4b/output_inception_4b/output_0_split -> inception_4b/output_inception_4b/output_0_split_3
I0403 21:51:33.851594 24480 net.cpp:141] Setting up inception_4b/output_inception_4b/output_0_split
I0403 21:51:33.851618 24480 net.cpp:148] Top shape: 24 512 14 14 (2408448)
I0403 21:51:33.851634 24480 net.cpp:148] Top shape: 24 512 14 14 (2408448)
I0403 21:51:33.851650 24480 net.cpp:148] Top shape: 24 512 14 14 (2408448)
I0403 21:51:33.851665 24480 net.cpp:148] Top shape: 24 512 14 14 (2408448)
I0403 21:51:33.851678 24480 net.cpp:156] Memory required for data: 1028392224
I0403 21:51:33.851693 24480 layer_factory.hpp:77] Creating layer inception_4c/1x1
I0403 21:51:33.851714 24480 net.cpp:91] Creating Layer inception_4c/1x1
I0403 21:51:33.851732 24480 net.cpp:425] inception_4c/1x1 <- inception_4b/output_inception_4b/output_0_split_0
I0403 21:51:33.851753 24480 net.cpp:399] inception_4c/1x1 -> inception_4c/1x1
I0403 21:51:33.853168 24480 net.cpp:141] Setting up inception_4c/1x1
I0403 21:51:33.853204 24480 net.cpp:148] Top shape: 24 128 14 14 (602112)
I0403 21:51:33.853221 24480 net.cpp:156] Memory required for data: 1030800672
I0403 21:51:33.853240 24480 layer_factory.hpp:77] Creating layer inception_4c/relu_1x1
I0403 21:51:33.853258 24480 net.cpp:91] Creating Layer inception_4c/relu_1x1
I0403 21:51:33.853274 24480 net.cpp:425] inception_4c/relu_1x1 <- inception_4c/1x1
I0403 21:51:33.853294 24480 net.cpp:386] inception_4c/relu_1x1 -> inception_4c/1x1 (in-place)
I0403 21:51:33.853468 24480 net.cpp:141] Setting up inception_4c/relu_1x1
I0403 21:51:33.853493 24480 net.cpp:148] Top shape: 24 128 14 14 (602112)
I0403 21:51:33.853508 24480 net.cpp:156] Memory required for data: 1033209120
I0403 21:51:33.853523 24480 layer_factory.hpp:77] Creating layer inception_4c/3x3_reduce
I0403 21:51:33.853545 24480 net.cpp:91] Creating Layer inception_4c/3x3_reduce
I0403 21:51:33.853564 24480 net.cpp:425] inception_4c/3x3_reduce <- inception_4b/output_inception_4b/output_0_split_1
I0403 21:51:33.853584 24480 net.cpp:399] inception_4c/3x3_reduce -> inception_4c/3x3_reduce
I0403 21:51:33.855484 24480 net.cpp:141] Setting up inception_4c/3x3_reduce
I0403 21:51:33.855512 24480 net.cpp:148] Top shape: 24 128 14 14 (602112)
I0403 21:51:33.855528 24480 net.cpp:156] Memory required for data: 1035617568
I0403 21:51:33.855546 24480 layer_factory.hpp:77] Creating layer inception_4c/relu_3x3_reduce
I0403 21:51:33.855564 24480 net.cpp:91] Creating Layer inception_4c/relu_3x3_reduce
I0403 21:51:33.855581 24480 net.cpp:425] inception_4c/relu_3x3_reduce <- inception_4c/3x3_reduce
I0403 21:51:33.855599 24480 net.cpp:386] inception_4c/relu_3x3_reduce -> inception_4c/3x3_reduce (in-place)
I0403 21:51:33.855875 24480 net.cpp:141] Setting up inception_4c/relu_3x3_reduce
I0403 21:51:33.855901 24480 net.cpp:148] Top shape: 24 128 14 14 (602112)
I0403 21:51:33.855916 24480 net.cpp:156] Memory required for data: 1038026016
I0403 21:51:33.855932 24480 layer_factory.hpp:77] Creating layer inception_4c/3x3
I0403 21:51:33.855955 24480 net.cpp:91] Creating Layer inception_4c/3x3
I0403 21:51:33.855974 24480 net.cpp:425] inception_4c/3x3 <- inception_4c/3x3_reduce
I0403 21:51:33.855995 24480 net.cpp:399] inception_4c/3x3 -> inception_4c/3x3
I0403 21:51:33.859519 24480 net.cpp:141] Setting up inception_4c/3x3
I0403 21:51:33.859560 24480 net.cpp:148] Top shape: 24 256 14 14 (1204224)
I0403 21:51:33.859578 24480 net.cpp:156] Memory required for data: 1042842912
I0403 21:51:33.859611 24480 layer_factory.hpp:77] Creating layer inception_4c/relu_3x3
I0403 21:51:33.859632 24480 net.cpp:91] Creating Layer inception_4c/relu_3x3
I0403 21:51:33.859652 24480 net.cpp:425] inception_4c/relu_3x3 <- inception_4c/3x3
I0403 21:51:33.859668 24480 net.cpp:386] inception_4c/relu_3x3 -> inception_4c/3x3 (in-place)
I0403 21:51:33.859845 24480 net.cpp:141] Setting up inception_4c/relu_3x3
I0403 21:51:33.859871 24480 net.cpp:148] Top shape: 24 256 14 14 (1204224)
I0403 21:51:33.859885 24480 net.cpp:156] Memory required for data: 1047659808
I0403 21:51:33.859900 24480 layer_factory.hpp:77] Creating layer inception_4c/5x5_reduce
I0403 21:51:33.859921 24480 net.cpp:91] Creating Layer inception_4c/5x5_reduce
I0403 21:51:33.859940 24480 net.cpp:425] inception_4c/5x5_reduce <- inception_4b/output_inception_4b/output_0_split_2
I0403 21:51:33.859961 24480 net.cpp:399] inception_4c/5x5_reduce -> inception_4c/5x5_reduce
I0403 21:51:33.861028 24480 net.cpp:141] Setting up inception_4c/5x5_reduce
I0403 21:51:33.861057 24480 net.cpp:148] Top shape: 24 24 14 14 (112896)
I0403 21:51:33.861071 24480 net.cpp:156] Memory required for data: 1048111392
I0403 21:51:33.861089 24480 layer_factory.hpp:77] Creating layer inception_4c/relu_5x5_reduce
I0403 21:51:33.861109 24480 net.cpp:91] Creating Layer inception_4c/relu_5x5_reduce
I0403 21:51:33.861126 24480 net.cpp:425] inception_4c/relu_5x5_reduce <- inception_4c/5x5_reduce
I0403 21:51:33.861145 24480 net.cpp:386] inception_4c/relu_5x5_reduce -> inception_4c/5x5_reduce (in-place)
I0403 21:51:33.861328 24480 net.cpp:141] Setting up inception_4c/relu_5x5_reduce
I0403 21:51:33.861359 24480 net.cpp:148] Top shape: 24 24 14 14 (112896)
I0403 21:51:33.861376 24480 net.cpp:156] Memory required for data: 1048562976
I0403 21:51:33.861390 24480 layer_factory.hpp:77] Creating layer inception_4c/5x5
I0403 21:51:33.861410 24480 net.cpp:91] Creating Layer inception_4c/5x5
I0403 21:51:33.861426 24480 net.cpp:425] inception_4c/5x5 <- inception_4c/5x5_reduce
I0403 21:51:33.861449 24480 net.cpp:399] inception_4c/5x5 -> inception_4c/5x5
I0403 21:51:33.862653 24480 net.cpp:141] Setting up inception_4c/5x5
I0403 21:51:33.862679 24480 net.cpp:148] Top shape: 24 64 14 14 (301056)
I0403 21:51:33.862695 24480 net.cpp:156] Memory required for data: 1049767200
I0403 21:51:33.862715 24480 layer_factory.hpp:77] Creating layer inception_4c/relu_5x5
I0403 21:51:33.862735 24480 net.cpp:91] Creating Layer inception_4c/relu_5x5
I0403 21:51:33.862751 24480 net.cpp:425] inception_4c/relu_5x5 <- inception_4c/5x5
I0403 21:51:33.862771 24480 net.cpp:386] inception_4c/relu_5x5 -> inception_4c/5x5 (in-place)
I0403 21:51:33.863047 24480 net.cpp:141] Setting up inception_4c/relu_5x5
I0403 21:51:33.863073 24480 net.cpp:148] Top shape: 24 64 14 14 (301056)
I0403 21:51:33.863088 24480 net.cpp:156] Memory required for data: 1050971424
I0403 21:51:33.863103 24480 layer_factory.hpp:77] Creating layer inception_4c/pool
I0403 21:51:33.863123 24480 net.cpp:91] Creating Layer inception_4c/pool
I0403 21:51:33.863142 24480 net.cpp:425] inception_4c/pool <- inception_4b/output_inception_4b/output_0_split_3
I0403 21:51:33.863159 24480 net.cpp:399] inception_4c/pool -> inception_4c/pool
I0403 21:51:33.863229 24480 net.cpp:141] Setting up inception_4c/pool
I0403 21:51:33.863252 24480 net.cpp:148] Top shape: 24 512 14 14 (2408448)
I0403 21:51:33.863267 24480 net.cpp:156] Memory required for data: 1060605216
I0403 21:51:33.863282 24480 layer_factory.hpp:77] Creating layer inception_4c/pool_proj
I0403 21:51:33.863304 24480 net.cpp:91] Creating Layer inception_4c/pool_proj
I0403 21:51:33.863322 24480 net.cpp:425] inception_4c/pool_proj <- inception_4c/pool
I0403 21:51:33.863342 24480 net.cpp:399] inception_4c/pool_proj -> inception_4c/pool_proj
I0403 21:51:33.864517 24480 net.cpp:141] Setting up inception_4c/pool_proj
I0403 21:51:33.864544 24480 net.cpp:148] Top shape: 24 64 14 14 (301056)
I0403 21:51:33.864573 24480 net.cpp:156] Memory required for data: 1061809440
I0403 21:51:33.864593 24480 layer_factory.hpp:77] Creating layer inception_4c/relu_pool_proj
I0403 21:51:33.864615 24480 net.cpp:91] Creating Layer inception_4c/relu_pool_proj
I0403 21:51:33.864634 24480 net.cpp:425] inception_4c/relu_pool_proj <- inception_4c/pool_proj
I0403 21:51:33.864651 24480 net.cpp:386] inception_4c/relu_pool_proj -> inception_4c/pool_proj (in-place)
I0403 21:51:33.864826 24480 net.cpp:141] Setting up inception_4c/relu_pool_proj
I0403 21:51:33.864852 24480 net.cpp:148] Top shape: 24 64 14 14 (301056)
I0403 21:51:33.864866 24480 net.cpp:156] Memory required for data: 1063013664
I0403 21:51:33.864881 24480 layer_factory.hpp:77] Creating layer inception_4c/output
I0403 21:51:33.864907 24480 net.cpp:91] Creating Layer inception_4c/output
I0403 21:51:33.864926 24480 net.cpp:425] inception_4c/output <- inception_4c/1x1
I0403 21:51:33.864943 24480 net.cpp:425] inception_4c/output <- inception_4c/3x3
I0403 21:51:33.864960 24480 net.cpp:425] inception_4c/output <- inception_4c/5x5
I0403 21:51:33.864976 24480 net.cpp:425] inception_4c/output <- inception_4c/pool_proj
I0403 21:51:33.864994 24480 net.cpp:399] inception_4c/output -> inception_4c/output
I0403 21:51:33.865039 24480 net.cpp:141] Setting up inception_4c/output
I0403 21:51:33.865062 24480 net.cpp:148] Top shape: 24 512 14 14 (2408448)
I0403 21:51:33.865077 24480 net.cpp:156] Memory required for data: 1072647456
I0403 21:51:33.865092 24480 layer_factory.hpp:77] Creating layer inception_4c/output_inception_4c/output_0_split
I0403 21:51:33.865109 24480 net.cpp:91] Creating Layer inception_4c/output_inception_4c/output_0_split
I0403 21:51:33.865125 24480 net.cpp:425] inception_4c/output_inception_4c/output_0_split <- inception_4c/output
I0403 21:51:33.865144 24480 net.cpp:399] inception_4c/output_inception_4c/output_0_split -> inception_4c/output_inception_4c/output_0_split_0
I0403 21:51:33.865164 24480 net.cpp:399] inception_4c/output_inception_4c/output_0_split -> inception_4c/output_inception_4c/output_0_split_1
I0403 21:51:33.865185 24480 net.cpp:399] inception_4c/output_inception_4c/output_0_split -> inception_4c/output_inception_4c/output_0_split_2
I0403 21:51:33.865223 24480 net.cpp:399] inception_4c/output_inception_4c/output_0_split -> inception_4c/output_inception_4c/output_0_split_3
I0403 21:51:33.865314 24480 net.cpp:141] Setting up inception_4c/output_inception_4c/output_0_split
I0403 21:51:33.865339 24480 net.cpp:148] Top shape: 24 512 14 14 (2408448)
I0403 21:51:33.865355 24480 net.cpp:148] Top shape: 24 512 14 14 (2408448)
I0403 21:51:33.865371 24480 net.cpp:148] Top shape: 24 512 14 14 (2408448)
I0403 21:51:33.865386 24480 net.cpp:148] Top shape: 24 512 14 14 (2408448)
I0403 21:51:33.865401 24480 net.cpp:156] Memory required for data: 1111182624
I0403 21:51:33.865416 24480 layer_factory.hpp:77] Creating layer inception_4d/1x1
I0403 21:51:33.865438 24480 net.cpp:91] Creating Layer inception_4d/1x1
I0403 21:51:33.865458 24480 net.cpp:425] inception_4d/1x1 <- inception_4c/output_inception_4c/output_0_split_0
I0403 21:51:33.865478 24480 net.cpp:399] inception_4d/1x1 -> inception_4d/1x1
I0403 21:51:33.866861 24480 net.cpp:141] Setting up inception_4d/1x1
I0403 21:51:33.866893 24480 net.cpp:148] Top shape: 24 112 14 14 (526848)
I0403 21:51:33.866909 24480 net.cpp:156] Memory required for data: 1113290016
I0403 21:51:33.866930 24480 layer_factory.hpp:77] Creating layer inception_4d/relu_1x1
I0403 21:51:33.866948 24480 net.cpp:91] Creating Layer inception_4d/relu_1x1
I0403 21:51:33.866966 24480 net.cpp:425] inception_4d/relu_1x1 <- inception_4d/1x1
I0403 21:51:33.866986 24480 net.cpp:386] inception_4d/relu_1x1 -> inception_4d/1x1 (in-place)
I0403 21:51:33.867168 24480 net.cpp:141] Setting up inception_4d/relu_1x1
I0403 21:51:33.867194 24480 net.cpp:148] Top shape: 24 112 14 14 (526848)
I0403 21:51:33.867213 24480 net.cpp:156] Memory required for data: 1115397408
I0403 21:51:33.867230 24480 layer_factory.hpp:77] Creating layer inception_4d/3x3_reduce
I0403 21:51:33.867267 24480 net.cpp:91] Creating Layer inception_4d/3x3_reduce
I0403 21:51:33.867286 24480 net.cpp:425] inception_4d/3x3_reduce <- inception_4c/output_inception_4c/output_0_split_1
I0403 21:51:33.867308 24480 net.cpp:399] inception_4d/3x3_reduce -> inception_4d/3x3_reduce
I0403 21:51:33.868827 24480 net.cpp:141] Setting up inception_4d/3x3_reduce
I0403 21:51:33.868859 24480 net.cpp:148] Top shape: 24 144 14 14 (677376)
I0403 21:51:33.868876 24480 net.cpp:156] Memory required for data: 1118106912
I0403 21:51:33.868896 24480 layer_factory.hpp:77] Creating layer inception_4d/relu_3x3_reduce
I0403 21:51:33.868913 24480 net.cpp:91] Creating Layer inception_4d/relu_3x3_reduce
I0403 21:51:33.868932 24480 net.cpp:425] inception_4d/relu_3x3_reduce <- inception_4d/3x3_reduce
I0403 21:51:33.868948 24480 net.cpp:386] inception_4d/relu_3x3_reduce -> inception_4d/3x3_reduce (in-place)
I0403 21:51:33.869246 24480 net.cpp:141] Setting up inception_4d/relu_3x3_reduce
I0403 21:51:33.869274 24480 net.cpp:148] Top shape: 24 144 14 14 (677376)
I0403 21:51:33.869292 24480 net.cpp:156] Memory required for data: 1120816416
I0403 21:51:33.869307 24480 layer_factory.hpp:77] Creating layer inception_4d/3x3
I0403 21:51:33.869329 24480 net.cpp:91] Creating Layer inception_4d/3x3
I0403 21:51:33.869349 24480 net.cpp:425] inception_4d/3x3 <- inception_4d/3x3_reduce
I0403 21:51:33.869367 24480 net.cpp:399] inception_4d/3x3 -> inception_4d/3x3
I0403 21:51:33.873639 24480 net.cpp:141] Setting up inception_4d/3x3
I0403 21:51:33.873669 24480 net.cpp:148] Top shape: 24 288 14 14 (1354752)
I0403 21:51:33.873685 24480 net.cpp:156] Memory required for data: 1126235424
I0403 21:51:33.873703 24480 layer_factory.hpp:77] Creating layer inception_4d/relu_3x3
I0403 21:51:33.873720 24480 net.cpp:91] Creating Layer inception_4d/relu_3x3
I0403 21:51:33.873738 24480 net.cpp:425] inception_4d/relu_3x3 <- inception_4d/3x3
I0403 21:51:33.873761 24480 net.cpp:386] inception_4d/relu_3x3 -> inception_4d/3x3 (in-place)
I0403 21:51:33.873944 24480 net.cpp:141] Setting up inception_4d/relu_3x3
I0403 21:51:33.873970 24480 net.cpp:148] Top shape: 24 288 14 14 (1354752)
I0403 21:51:33.873986 24480 net.cpp:156] Memory required for data: 1131654432
I0403 21:51:33.874001 24480 layer_factory.hpp:77] Creating layer inception_4d/5x5_reduce
I0403 21:51:33.874022 24480 net.cpp:91] Creating Layer inception_4d/5x5_reduce
I0403 21:51:33.874042 24480 net.cpp:425] inception_4d/5x5_reduce <- inception_4c/output_inception_4c/output_0_split_2
I0403 21:51:33.874063 24480 net.cpp:399] inception_4d/5x5_reduce -> inception_4d/5x5_reduce
I0403 21:51:33.875208 24480 net.cpp:141] Setting up inception_4d/5x5_reduce
I0403 21:51:33.875237 24480 net.cpp:148] Top shape: 24 32 14 14 (150528)
I0403 21:51:33.875253 24480 net.cpp:156] Memory required for data: 1132256544
I0403 21:51:33.875272 24480 layer_factory.hpp:77] Creating layer inception_4d/relu_5x5_reduce
I0403 21:51:33.875291 24480 net.cpp:91] Creating Layer inception_4d/relu_5x5_reduce
I0403 21:51:33.875308 24480 net.cpp:425] inception_4d/relu_5x5_reduce <- inception_4d/5x5_reduce
I0403 21:51:33.875329 24480 net.cpp:386] inception_4d/relu_5x5_reduce -> inception_4d/5x5_reduce (in-place)
I0403 21:51:33.875514 24480 net.cpp:141] Setting up inception_4d/relu_5x5_reduce
I0403 21:51:33.875540 24480 net.cpp:148] Top shape: 24 32 14 14 (150528)
I0403 21:51:33.875556 24480 net.cpp:156] Memory required for data: 1132858656
I0403 21:51:33.875571 24480 layer_factory.hpp:77] Creating layer inception_4d/5x5
I0403 21:51:33.875594 24480 net.cpp:91] Creating Layer inception_4d/5x5
I0403 21:51:33.875612 24480 net.cpp:425] inception_4d/5x5 <- inception_4d/5x5_reduce
I0403 21:51:33.875634 24480 net.cpp:399] inception_4d/5x5 -> inception_4d/5x5
I0403 21:51:33.877094 24480 net.cpp:141] Setting up inception_4d/5x5
I0403 21:51:33.877122 24480 net.cpp:148] Top shape: 24 64 14 14 (301056)
I0403 21:51:33.877138 24480 net.cpp:156] Memory required for data: 1134062880
I0403 21:51:33.877158 24480 layer_factory.hpp:77] Creating layer inception_4d/relu_5x5
I0403 21:51:33.877193 24480 net.cpp:91] Creating Layer inception_4d/relu_5x5
I0403 21:51:33.877218 24480 net.cpp:425] inception_4d/relu_5x5 <- inception_4d/5x5
I0403 21:51:33.877236 24480 net.cpp:386] inception_4d/relu_5x5 -> inception_4d/5x5 (in-place)
I0403 21:51:33.877537 24480 net.cpp:141] Setting up inception_4d/relu_5x5
I0403 21:51:33.877565 24480 net.cpp:148] Top shape: 24 64 14 14 (301056)
I0403 21:51:33.877580 24480 net.cpp:156] Memory required for data: 1135267104
I0403 21:51:33.877595 24480 layer_factory.hpp:77] Creating layer inception_4d/pool
I0403 21:51:33.877616 24480 net.cpp:91] Creating Layer inception_4d/pool
I0403 21:51:33.877635 24480 net.cpp:425] inception_4d/pool <- inception_4c/output_inception_4c/output_0_split_3
I0403 21:51:33.877652 24480 net.cpp:399] inception_4d/pool -> inception_4d/pool
I0403 21:51:33.877722 24480 net.cpp:141] Setting up inception_4d/pool
I0403 21:51:33.877745 24480 net.cpp:148] Top shape: 24 512 14 14 (2408448)
I0403 21:51:33.877761 24480 net.cpp:156] Memory required for data: 1144900896
I0403 21:51:33.877777 24480 layer_factory.hpp:77] Creating layer inception_4d/pool_proj
I0403 21:51:33.877799 24480 net.cpp:91] Creating Layer inception_4d/pool_proj
I0403 21:51:33.877818 24480 net.cpp:425] inception_4d/pool_proj <- inception_4d/pool
I0403 21:51:33.877840 24480 net.cpp:399] inception_4d/pool_proj -> inception_4d/pool_proj
I0403 21:51:33.879618 24480 net.cpp:141] Setting up inception_4d/pool_proj
I0403 21:51:33.879647 24480 net.cpp:148] Top shape: 24 64 14 14 (301056)
I0403 21:51:33.879664 24480 net.cpp:156] Memory required for data: 1146105120
I0403 21:51:33.879683 24480 layer_factory.hpp:77] Creating layer inception_4d/relu_pool_proj
I0403 21:51:33.879700 24480 net.cpp:91] Creating Layer inception_4d/relu_pool_proj
I0403 21:51:33.879717 24480 net.cpp:425] inception_4d/relu_pool_proj <- inception_4d/pool_proj
I0403 21:51:33.879739 24480 net.cpp:386] inception_4d/relu_pool_proj -> inception_4d/pool_proj (in-place)
I0403 21:51:33.879922 24480 net.cpp:141] Setting up inception_4d/relu_pool_proj
I0403 21:51:33.879948 24480 net.cpp:148] Top shape: 24 64 14 14 (301056)
I0403 21:51:33.879964 24480 net.cpp:156] Memory required for data: 1147309344
I0403 21:51:33.879979 24480 layer_factory.hpp:77] Creating layer inception_4d/output
I0403 21:51:33.879998 24480 net.cpp:91] Creating Layer inception_4d/output
I0403 21:51:33.880015 24480 net.cpp:425] inception_4d/output <- inception_4d/1x1
I0403 21:51:33.880033 24480 net.cpp:425] inception_4d/output <- inception_4d/3x3
I0403 21:51:33.880050 24480 net.cpp:425] inception_4d/output <- inception_4d/5x5
I0403 21:51:33.880067 24480 net.cpp:425] inception_4d/output <- inception_4d/pool_proj
I0403 21:51:33.880084 24480 net.cpp:399] inception_4d/output -> inception_4d/output
I0403 21:51:33.880136 24480 net.cpp:141] Setting up inception_4d/output
I0403 21:51:33.880159 24480 net.cpp:148] Top shape: 24 528 14 14 (2483712)
I0403 21:51:33.880174 24480 net.cpp:156] Memory required for data: 1157244192
I0403 21:51:33.880189 24480 layer_factory.hpp:77] Creating layer inception_4d/output_inception_4d/output_0_split
I0403 21:51:33.880213 24480 net.cpp:91] Creating Layer inception_4d/output_inception_4d/output_0_split
I0403 21:51:33.880229 24480 net.cpp:425] inception_4d/output_inception_4d/output_0_split <- inception_4d/output
I0403 21:51:33.880249 24480 net.cpp:399] inception_4d/output_inception_4d/output_0_split -> inception_4d/output_inception_4d/output_0_split_0
I0403 21:51:33.880272 24480 net.cpp:399] inception_4d/output_inception_4d/output_0_split -> inception_4d/output_inception_4d/output_0_split_1
I0403 21:51:33.880293 24480 net.cpp:399] inception_4d/output_inception_4d/output_0_split -> inception_4d/output_inception_4d/output_0_split_2
I0403 21:51:33.880314 24480 net.cpp:399] inception_4d/output_inception_4d/output_0_split -> inception_4d/output_inception_4d/output_0_split_3
I0403 21:51:33.880336 24480 net.cpp:399] inception_4d/output_inception_4d/output_0_split -> inception_4d/output_inception_4d/output_0_split_4
I0403 21:51:33.880439 24480 net.cpp:141] Setting up inception_4d/output_inception_4d/output_0_split
I0403 21:51:33.880475 24480 net.cpp:148] Top shape: 24 528 14 14 (2483712)
I0403 21:51:33.880496 24480 net.cpp:148] Top shape: 24 528 14 14 (2483712)
I0403 21:51:33.880513 24480 net.cpp:148] Top shape: 24 528 14 14 (2483712)
I0403 21:51:33.880529 24480 net.cpp:148] Top shape: 24 528 14 14 (2483712)
I0403 21:51:33.880547 24480 net.cpp:148] Top shape: 24 528 14 14 (2483712)
I0403 21:51:33.880560 24480 net.cpp:156] Memory required for data: 1206918432
I0403 21:51:33.880576 24480 layer_factory.hpp:77] Creating layer loss2/ave_pool
I0403 21:51:33.880594 24480 net.cpp:91] Creating Layer loss2/ave_pool
I0403 21:51:33.880610 24480 net.cpp:425] loss2/ave_pool <- inception_4d/output_inception_4d/output_0_split_0
I0403 21:51:33.880631 24480 net.cpp:399] loss2/ave_pool -> loss2/ave_pool
I0403 21:51:33.880947 24480 net.cpp:141] Setting up loss2/ave_pool
I0403 21:51:33.880975 24480 net.cpp:148] Top shape: 24 528 4 4 (202752)
I0403 21:51:33.880990 24480 net.cpp:156] Memory required for data: 1207729440
I0403 21:51:33.881006 24480 layer_factory.hpp:77] Creating layer loss2/conv
I0403 21:51:33.881027 24480 net.cpp:91] Creating Layer loss2/conv
I0403 21:51:33.881047 24480 net.cpp:425] loss2/conv <- loss2/ave_pool
I0403 21:51:33.881068 24480 net.cpp:399] loss2/conv -> loss2/conv
I0403 21:51:33.882982 24480 net.cpp:141] Setting up loss2/conv
I0403 21:51:33.883010 24480 net.cpp:148] Top shape: 24 128 4 4 (49152)
I0403 21:51:33.883026 24480 net.cpp:156] Memory required for data: 1207926048
I0403 21:51:33.883044 24480 layer_factory.hpp:77] Creating layer loss2/relu_conv
I0403 21:51:33.883065 24480 net.cpp:91] Creating Layer loss2/relu_conv
I0403 21:51:33.883083 24480 net.cpp:425] loss2/relu_conv <- loss2/conv
I0403 21:51:33.883101 24480 net.cpp:386] loss2/relu_conv -> loss2/conv (in-place)
I0403 21:51:33.883395 24480 net.cpp:141] Setting up loss2/relu_conv
I0403 21:51:33.883422 24480 net.cpp:148] Top shape: 24 128 4 4 (49152)
I0403 21:51:33.883438 24480 net.cpp:156] Memory required for data: 1208122656
I0403 21:51:33.883453 24480 layer_factory.hpp:77] Creating layer loss2/fc
I0403 21:51:33.883474 24480 net.cpp:91] Creating Layer loss2/fc
I0403 21:51:33.883492 24480 net.cpp:425] loss2/fc <- loss2/conv
I0403 21:51:33.883514 24480 net.cpp:399] loss2/fc -> loss2/fc
I0403 21:51:33.900755 24480 net.cpp:141] Setting up loss2/fc
I0403 21:51:33.900790 24480 net.cpp:148] Top shape: 24 1024 (24576)
I0403 21:51:33.900805 24480 net.cpp:156] Memory required for data: 1208220960
I0403 21:51:33.900823 24480 layer_factory.hpp:77] Creating layer loss2/relu_fc
I0403 21:51:33.900842 24480 net.cpp:91] Creating Layer loss2/relu_fc
I0403 21:51:33.900859 24480 net.cpp:425] loss2/relu_fc <- loss2/fc
I0403 21:51:33.900879 24480 net.cpp:386] loss2/relu_fc -> loss2/fc (in-place)
I0403 21:51:33.901170 24480 net.cpp:141] Setting up loss2/relu_fc
I0403 21:51:33.901199 24480 net.cpp:148] Top shape: 24 1024 (24576)
I0403 21:51:33.901216 24480 net.cpp:156] Memory required for data: 1208319264
I0403 21:51:33.901232 24480 layer_factory.hpp:77] Creating layer loss2/drop_fc
I0403 21:51:33.901249 24480 net.cpp:91] Creating Layer loss2/drop_fc
I0403 21:51:33.901264 24480 net.cpp:425] loss2/drop_fc <- loss2/fc
I0403 21:51:33.901283 24480 net.cpp:386] loss2/drop_fc -> loss2/fc (in-place)
I0403 21:51:33.901331 24480 net.cpp:141] Setting up loss2/drop_fc
I0403 21:51:33.901357 24480 net.cpp:148] Top shape: 24 1024 (24576)
I0403 21:51:33.901371 24480 net.cpp:156] Memory required for data: 1208417568
I0403 21:51:33.901386 24480 layer_factory.hpp:77] Creating layer loss2/classifier_plantvillage
I0403 21:51:33.901404 24480 net.cpp:91] Creating Layer loss2/classifier_plantvillage
I0403 21:51:33.901420 24480 net.cpp:425] loss2/classifier_plantvillage <- loss2/fc
I0403 21:51:33.901443 24480 net.cpp:399] loss2/classifier_plantvillage -> loss2/classifier_plantvillage
I0403 21:51:33.901832 24480 net.cpp:141] Setting up loss2/classifier_plantvillage
I0403 21:51:33.901859 24480 net.cpp:148] Top shape: 24 38 (912)
I0403 21:51:33.901891 24480 net.cpp:156] Memory required for data: 1208421216
I0403 21:51:33.901911 24480 layer_factory.hpp:77] Creating layer loss2/classifier_plantvillage_loss2/classifier_plantvillage_0_split
I0403 21:51:33.901929 24480 net.cpp:91] Creating Layer loss2/classifier_plantvillage_loss2/classifier_plantvillage_0_split
I0403 21:51:33.901945 24480 net.cpp:425] loss2/classifier_plantvillage_loss2/classifier_plantvillage_0_split <- loss2/classifier_plantvillage
I0403 21:51:33.901962 24480 net.cpp:399] loss2/classifier_plantvillage_loss2/classifier_plantvillage_0_split -> loss2/classifier_plantvillage_loss2/classifier_plantvillage_0_split_0
I0403 21:51:33.901983 24480 net.cpp:399] loss2/classifier_plantvillage_loss2/classifier_plantvillage_0_split -> loss2/classifier_plantvillage_loss2/classifier_plantvillage_0_split_1
I0403 21:51:33.902004 24480 net.cpp:399] loss2/classifier_plantvillage_loss2/classifier_plantvillage_0_split -> loss2/classifier_plantvillage_loss2/classifier_plantvillage_0_split_2
I0403 21:51:33.902083 24480 net.cpp:141] Setting up loss2/classifier_plantvillage_loss2/classifier_plantvillage_0_split
I0403 21:51:33.902107 24480 net.cpp:148] Top shape: 24 38 (912)
I0403 21:51:33.902123 24480 net.cpp:148] Top shape: 24 38 (912)
I0403 21:51:33.902137 24480 net.cpp:148] Top shape: 24 38 (912)
I0403 21:51:33.902151 24480 net.cpp:156] Memory required for data: 1208432160
I0403 21:51:33.902166 24480 layer_factory.hpp:77] Creating layer inception_4e/1x1
I0403 21:51:33.902186 24480 net.cpp:91] Creating Layer inception_4e/1x1
I0403 21:51:33.902207 24480 net.cpp:425] inception_4e/1x1 <- inception_4d/output_inception_4d/output_0_split_1
I0403 21:51:33.902230 24480 net.cpp:399] inception_4e/1x1 -> inception_4e/1x1
I0403 21:51:33.903986 24480 net.cpp:141] Setting up inception_4e/1x1
I0403 21:51:33.904014 24480 net.cpp:148] Top shape: 24 256 14 14 (1204224)
I0403 21:51:33.904029 24480 net.cpp:156] Memory required for data: 1213249056
I0403 21:51:33.904047 24480 layer_factory.hpp:77] Creating layer inception_4e/relu_1x1
I0403 21:51:33.904067 24480 net.cpp:91] Creating Layer inception_4e/relu_1x1
I0403 21:51:33.904084 24480 net.cpp:425] inception_4e/relu_1x1 <- inception_4e/1x1
I0403 21:51:33.904101 24480 net.cpp:386] inception_4e/relu_1x1 -> inception_4e/1x1 (in-place)
I0403 21:51:33.904392 24480 net.cpp:141] Setting up inception_4e/relu_1x1
I0403 21:51:33.904418 24480 net.cpp:148] Top shape: 24 256 14 14 (1204224)
I0403 21:51:33.904433 24480 net.cpp:156] Memory required for data: 1218065952
I0403 21:51:33.904448 24480 layer_factory.hpp:77] Creating layer inception_4e/3x3_reduce
I0403 21:51:33.904471 24480 net.cpp:91] Creating Layer inception_4e/3x3_reduce
I0403 21:51:33.904489 24480 net.cpp:425] inception_4e/3x3_reduce <- inception_4d/output_inception_4d/output_0_split_2
I0403 21:51:33.904508 24480 net.cpp:399] inception_4e/3x3_reduce -> inception_4e/3x3_reduce
I0403 21:51:33.906592 24480 net.cpp:141] Setting up inception_4e/3x3_reduce
I0403 21:51:33.906620 24480 net.cpp:148] Top shape: 24 160 14 14 (752640)
I0403 21:51:33.906637 24480 net.cpp:156] Memory required for data: 1221076512
I0403 21:51:33.906656 24480 layer_factory.hpp:77] Creating layer inception_4e/relu_3x3_reduce
I0403 21:51:33.906675 24480 net.cpp:91] Creating Layer inception_4e/relu_3x3_reduce
I0403 21:51:33.906692 24480 net.cpp:425] inception_4e/relu_3x3_reduce <- inception_4e/3x3_reduce
I0403 21:51:33.906709 24480 net.cpp:386] inception_4e/relu_3x3_reduce -> inception_4e/3x3_reduce (in-place)
I0403 21:51:33.906891 24480 net.cpp:141] Setting up inception_4e/relu_3x3_reduce
I0403 21:51:33.906919 24480 net.cpp:148] Top shape: 24 160 14 14 (752640)
I0403 21:51:33.906935 24480 net.cpp:156] Memory required for data: 1224087072
I0403 21:51:33.906950 24480 layer_factory.hpp:77] Creating layer inception_4e/3x3
I0403 21:51:33.906971 24480 net.cpp:91] Creating Layer inception_4e/3x3
I0403 21:51:33.906991 24480 net.cpp:425] inception_4e/3x3 <- inception_4e/3x3_reduce
I0403 21:51:33.907009 24480 net.cpp:399] inception_4e/3x3 -> inception_4e/3x3
I0403 21:51:33.911906 24480 net.cpp:141] Setting up inception_4e/3x3
I0403 21:51:33.911948 24480 net.cpp:148] Top shape: 24 320 14 14 (1505280)
I0403 21:51:33.911967 24480 net.cpp:156] Memory required for data: 1230108192
I0403 21:51:33.911984 24480 layer_factory.hpp:77] Creating layer inception_4e/relu_3x3
I0403 21:51:33.912001 24480 net.cpp:91] Creating Layer inception_4e/relu_3x3
I0403 21:51:33.912019 24480 net.cpp:425] inception_4e/relu_3x3 <- inception_4e/3x3
I0403 21:51:33.912037 24480 net.cpp:386] inception_4e/relu_3x3 -> inception_4e/3x3 (in-place)
I0403 21:51:33.912338 24480 net.cpp:141] Setting up inception_4e/relu_3x3
I0403 21:51:33.912366 24480 net.cpp:148] Top shape: 24 320 14 14 (1505280)
I0403 21:51:33.912382 24480 net.cpp:156] Memory required for data: 1236129312
I0403 21:51:33.912398 24480 layer_factory.hpp:77] Creating layer inception_4e/5x5_reduce
I0403 21:51:33.912422 24480 net.cpp:91] Creating Layer inception_4e/5x5_reduce
I0403 21:51:33.912439 24480 net.cpp:425] inception_4e/5x5_reduce <- inception_4d/output_inception_4d/output_0_split_3
I0403 21:51:33.912461 24480 net.cpp:399] inception_4e/5x5_reduce -> inception_4e/5x5_reduce
I0403 21:51:33.913502 24480 net.cpp:141] Setting up inception_4e/5x5_reduce
I0403 21:51:33.913530 24480 net.cpp:148] Top shape: 24 32 14 14 (150528)
I0403 21:51:33.913545 24480 net.cpp:156] Memory required for data: 1236731424
I0403 21:51:33.913563 24480 layer_factory.hpp:77] Creating layer inception_4e/relu_5x5_reduce
I0403 21:51:33.913583 24480 net.cpp:91] Creating Layer inception_4e/relu_5x5_reduce
I0403 21:51:33.913600 24480 net.cpp:425] inception_4e/relu_5x5_reduce <- inception_4e/5x5_reduce
I0403 21:51:33.913619 24480 net.cpp:386] inception_4e/relu_5x5_reduce -> inception_4e/5x5_reduce (in-place)
I0403 21:51:33.913913 24480 net.cpp:141] Setting up inception_4e/relu_5x5_reduce
I0403 21:51:33.913938 24480 net.cpp:148] Top shape: 24 32 14 14 (150528)
I0403 21:51:33.913954 24480 net.cpp:156] Memory required for data: 1237333536
I0403 21:51:33.913969 24480 layer_factory.hpp:77] Creating layer inception_4e/5x5
I0403 21:51:33.914005 24480 net.cpp:91] Creating Layer inception_4e/5x5
I0403 21:51:33.914024 24480 net.cpp:425] inception_4e/5x5 <- inception_4e/5x5_reduce
I0403 21:51:33.914046 24480 net.cpp:399] inception_4e/5x5 -> inception_4e/5x5
I0403 21:51:33.915838 24480 net.cpp:141] Setting up inception_4e/5x5
I0403 21:51:33.915865 24480 net.cpp:148] Top shape: 24 128 14 14 (602112)
I0403 21:51:33.915881 24480 net.cpp:156] Memory required for data: 1239741984
I0403 21:51:33.915900 24480 layer_factory.hpp:77] Creating layer inception_4e/relu_5x5
I0403 21:51:33.915920 24480 net.cpp:91] Creating Layer inception_4e/relu_5x5
I0403 21:51:33.915935 24480 net.cpp:425] inception_4e/relu_5x5 <- inception_4e/5x5
I0403 21:51:33.915956 24480 net.cpp:386] inception_4e/relu_5x5 -> inception_4e/5x5 (in-place)
I0403 21:51:33.916147 24480 net.cpp:141] Setting up inception_4e/relu_5x5
I0403 21:51:33.916172 24480 net.cpp:148] Top shape: 24 128 14 14 (602112)
I0403 21:51:33.916194 24480 net.cpp:156] Memory required for data: 1242150432
I0403 21:51:33.916215 24480 layer_factory.hpp:77] Creating layer inception_4e/pool
I0403 21:51:33.916239 24480 net.cpp:91] Creating Layer inception_4e/pool
I0403 21:51:33.916256 24480 net.cpp:425] inception_4e/pool <- inception_4d/output_inception_4d/output_0_split_4
I0403 21:51:33.916275 24480 net.cpp:399] inception_4e/pool -> inception_4e/pool
I0403 21:51:33.916344 24480 net.cpp:141] Setting up inception_4e/pool
I0403 21:51:33.916368 24480 net.cpp:148] Top shape: 24 528 14 14 (2483712)
I0403 21:51:33.916383 24480 net.cpp:156] Memory required for data: 1252085280
I0403 21:51:33.916399 24480 layer_factory.hpp:77] Creating layer inception_4e/pool_proj
I0403 21:51:33.916420 24480 net.cpp:91] Creating Layer inception_4e/pool_proj
I0403 21:51:33.916437 24480 net.cpp:425] inception_4e/pool_proj <- inception_4e/pool
I0403 21:51:33.916458 24480 net.cpp:399] inception_4e/pool_proj -> inception_4e/pool_proj
I0403 21:51:33.917922 24480 net.cpp:141] Setting up inception_4e/pool_proj
I0403 21:51:33.917960 24480 net.cpp:148] Top shape: 24 128 14 14 (602112)
I0403 21:51:33.917978 24480 net.cpp:156] Memory required for data: 1254493728
I0403 21:51:33.917996 24480 layer_factory.hpp:77] Creating layer inception_4e/relu_pool_proj
I0403 21:51:33.918014 24480 net.cpp:91] Creating Layer inception_4e/relu_pool_proj
I0403 21:51:33.918030 24480 net.cpp:425] inception_4e/relu_pool_proj <- inception_4e/pool_proj
I0403 21:51:33.918051 24480 net.cpp:386] inception_4e/relu_pool_proj -> inception_4e/pool_proj (in-place)
I0403 21:51:33.918345 24480 net.cpp:141] Setting up inception_4e/relu_pool_proj
I0403 21:51:33.918372 24480 net.cpp:148] Top shape: 24 128 14 14 (602112)
I0403 21:51:33.918388 24480 net.cpp:156] Memory required for data: 1256902176
I0403 21:51:33.918403 24480 layer_factory.hpp:77] Creating layer inception_4e/output
I0403 21:51:33.918421 24480 net.cpp:91] Creating Layer inception_4e/output
I0403 21:51:33.918436 24480 net.cpp:425] inception_4e/output <- inception_4e/1x1
I0403 21:51:33.918452 24480 net.cpp:425] inception_4e/output <- inception_4e/3x3
I0403 21:51:33.918469 24480 net.cpp:425] inception_4e/output <- inception_4e/5x5
I0403 21:51:33.918485 24480 net.cpp:425] inception_4e/output <- inception_4e/pool_proj
I0403 21:51:33.918503 24480 net.cpp:399] inception_4e/output -> inception_4e/output
I0403 21:51:33.918551 24480 net.cpp:141] Setting up inception_4e/output
I0403 21:51:33.918577 24480 net.cpp:148] Top shape: 24 832 14 14 (3913728)
I0403 21:51:33.918593 24480 net.cpp:156] Memory required for data: 1272557088
I0403 21:51:33.918608 24480 layer_factory.hpp:77] Creating layer pool4/3x3_s2
I0403 21:51:33.918627 24480 net.cpp:91] Creating Layer pool4/3x3_s2
I0403 21:51:33.918642 24480 net.cpp:425] pool4/3x3_s2 <- inception_4e/output
I0403 21:51:33.918658 24480 net.cpp:399] pool4/3x3_s2 -> pool4/3x3_s2
I0403 21:51:33.918725 24480 net.cpp:141] Setting up pool4/3x3_s2
I0403 21:51:33.918750 24480 net.cpp:148] Top shape: 24 832 7 7 (978432)
I0403 21:51:33.918766 24480 net.cpp:156] Memory required for data: 1276470816
I0403 21:51:33.918781 24480 layer_factory.hpp:77] Creating layer pool4/3x3_s2_pool4/3x3_s2_0_split
I0403 21:51:33.918799 24480 net.cpp:91] Creating Layer pool4/3x3_s2_pool4/3x3_s2_0_split
I0403 21:51:33.918815 24480 net.cpp:425] pool4/3x3_s2_pool4/3x3_s2_0_split <- pool4/3x3_s2
I0403 21:51:33.918833 24480 net.cpp:399] pool4/3x3_s2_pool4/3x3_s2_0_split -> pool4/3x3_s2_pool4/3x3_s2_0_split_0
I0403 21:51:33.918853 24480 net.cpp:399] pool4/3x3_s2_pool4/3x3_s2_0_split -> pool4/3x3_s2_pool4/3x3_s2_0_split_1
I0403 21:51:33.918874 24480 net.cpp:399] pool4/3x3_s2_pool4/3x3_s2_0_split -> pool4/3x3_s2_pool4/3x3_s2_0_split_2
I0403 21:51:33.918896 24480 net.cpp:399] pool4/3x3_s2_pool4/3x3_s2_0_split -> pool4/3x3_s2_pool4/3x3_s2_0_split_3
I0403 21:51:33.918987 24480 net.cpp:141] Setting up pool4/3x3_s2_pool4/3x3_s2_0_split
I0403 21:51:33.919009 24480 net.cpp:148] Top shape: 24 832 7 7 (978432)
I0403 21:51:33.919026 24480 net.cpp:148] Top shape: 24 832 7 7 (978432)
I0403 21:51:33.919041 24480 net.cpp:148] Top shape: 24 832 7 7 (978432)
I0403 21:51:33.919057 24480 net.cpp:148] Top shape: 24 832 7 7 (978432)
I0403 21:51:33.919072 24480 net.cpp:156] Memory required for data: 1292125728
I0403 21:51:33.919087 24480 layer_factory.hpp:77] Creating layer inception_5a/1x1
I0403 21:51:33.919109 24480 net.cpp:91] Creating Layer inception_5a/1x1
I0403 21:51:33.919126 24480 net.cpp:425] inception_5a/1x1 <- pool4/3x3_s2_pool4/3x3_s2_0_split_0
I0403 21:51:33.919148 24480 net.cpp:399] inception_5a/1x1 -> inception_5a/1x1
I0403 21:51:33.922045 24480 net.cpp:141] Setting up inception_5a/1x1
I0403 21:51:33.922075 24480 net.cpp:148] Top shape: 24 256 7 7 (301056)
I0403 21:51:33.922091 24480 net.cpp:156] Memory required for data: 1293329952
I0403 21:51:33.922111 24480 layer_factory.hpp:77] Creating layer inception_5a/relu_1x1
I0403 21:51:33.922132 24480 net.cpp:91] Creating Layer inception_5a/relu_1x1
I0403 21:51:33.922150 24480 net.cpp:425] inception_5a/relu_1x1 <- inception_5a/1x1
I0403 21:51:33.922168 24480 net.cpp:386] inception_5a/relu_1x1 -> inception_5a/1x1 (in-place)
I0403 21:51:33.922492 24480 net.cpp:141] Setting up inception_5a/relu_1x1
I0403 21:51:33.922519 24480 net.cpp:148] Top shape: 24 256 7 7 (301056)
I0403 21:51:33.922535 24480 net.cpp:156] Memory required for data: 1294534176
I0403 21:51:33.922550 24480 layer_factory.hpp:77] Creating layer inception_5a/3x3_reduce
I0403 21:51:33.922572 24480 net.cpp:91] Creating Layer inception_5a/3x3_reduce
I0403 21:51:33.922592 24480 net.cpp:425] inception_5a/3x3_reduce <- pool4/3x3_s2_pool4/3x3_s2_0_split_1
I0403 21:51:33.922613 24480 net.cpp:399] inception_5a/3x3_reduce -> inception_5a/3x3_reduce
I0403 21:51:33.925086 24480 net.cpp:141] Setting up inception_5a/3x3_reduce
I0403 21:51:33.925115 24480 net.cpp:148] Top shape: 24 160 7 7 (188160)
I0403 21:51:33.925132 24480 net.cpp:156] Memory required for data: 1295286816
I0403 21:51:33.925153 24480 layer_factory.hpp:77] Creating layer inception_5a/relu_3x3_reduce
I0403 21:51:33.925171 24480 net.cpp:91] Creating Layer inception_5a/relu_3x3_reduce
I0403 21:51:33.925189 24480 net.cpp:425] inception_5a/relu_3x3_reduce <- inception_5a/3x3_reduce
I0403 21:51:33.925212 24480 net.cpp:386] inception_5a/relu_3x3_reduce -> inception_5a/3x3_reduce (in-place)
I0403 21:51:33.925405 24480 net.cpp:141] Setting up inception_5a/relu_3x3_reduce
I0403 21:51:33.925431 24480 net.cpp:148] Top shape: 24 160 7 7 (188160)
I0403 21:51:33.925446 24480 net.cpp:156] Memory required for data: 1296039456
I0403 21:51:33.925462 24480 layer_factory.hpp:77] Creating layer inception_5a/3x3
I0403 21:51:33.925484 24480 net.cpp:91] Creating Layer inception_5a/3x3
I0403 21:51:33.925503 24480 net.cpp:425] inception_5a/3x3 <- inception_5a/3x3_reduce
I0403 21:51:33.925528 24480 net.cpp:399] inception_5a/3x3 -> inception_5a/3x3
I0403 21:51:33.930600 24480 net.cpp:141] Setting up inception_5a/3x3
I0403 21:51:33.930631 24480 net.cpp:148] Top shape: 24 320 7 7 (376320)
I0403 21:51:33.930647 24480 net.cpp:156] Memory required for data: 1297544736
I0403 21:51:33.930666 24480 layer_factory.hpp:77] Creating layer inception_5a/relu_3x3
I0403 21:51:33.930687 24480 net.cpp:91] Creating Layer inception_5a/relu_3x3
I0403 21:51:33.930706 24480 net.cpp:425] inception_5a/relu_3x3 <- inception_5a/3x3
I0403 21:51:33.930724 24480 net.cpp:386] inception_5a/relu_3x3 -> inception_5a/3x3 (in-place)
I0403 21:51:33.931022 24480 net.cpp:141] Setting up inception_5a/relu_3x3
I0403 21:51:33.931049 24480 net.cpp:148] Top shape: 24 320 7 7 (376320)
I0403 21:51:33.931066 24480 net.cpp:156] Memory required for data: 1299050016
I0403 21:51:33.931080 24480 layer_factory.hpp:77] Creating layer inception_5a/5x5_reduce
I0403 21:51:33.931103 24480 net.cpp:91] Creating Layer inception_5a/5x5_reduce
I0403 21:51:33.931123 24480 net.cpp:425] inception_5a/5x5_reduce <- pool4/3x3_s2_pool4/3x3_s2_0_split_2
I0403 21:51:33.931145 24480 net.cpp:399] inception_5a/5x5_reduce -> inception_5a/5x5_reduce
I0403 21:51:33.932327 24480 net.cpp:141] Setting up inception_5a/5x5_reduce
I0403 21:51:33.932358 24480 net.cpp:148] Top shape: 24 32 7 7 (37632)
I0403 21:51:33.932375 24480 net.cpp:156] Memory required for data: 1299200544
I0403 21:51:33.932394 24480 layer_factory.hpp:77] Creating layer inception_5a/relu_5x5_reduce
I0403 21:51:33.932413 24480 net.cpp:91] Creating Layer inception_5a/relu_5x5_reduce
I0403 21:51:33.932428 24480 net.cpp:425] inception_5a/relu_5x5_reduce <- inception_5a/5x5_reduce
I0403 21:51:33.932446 24480 net.cpp:386] inception_5a/relu_5x5_reduce -> inception_5a/5x5_reduce (in-place)
I0403 21:51:33.932745 24480 net.cpp:141] Setting up inception_5a/relu_5x5_reduce
I0403 21:51:33.932771 24480 net.cpp:148] Top shape: 24 32 7 7 (37632)
I0403 21:51:33.932787 24480 net.cpp:156] Memory required for data: 1299351072
I0403 21:51:33.932802 24480 layer_factory.hpp:77] Creating layer inception_5a/5x5
I0403 21:51:33.932826 24480 net.cpp:91] Creating Layer inception_5a/5x5
I0403 21:51:33.932843 24480 net.cpp:425] inception_5a/5x5 <- inception_5a/5x5_reduce
I0403 21:51:33.932865 24480 net.cpp:399] inception_5a/5x5 -> inception_5a/5x5
I0403 21:51:33.934599 24480 net.cpp:141] Setting up inception_5a/5x5
I0403 21:51:33.934639 24480 net.cpp:148] Top shape: 24 128 7 7 (150528)
I0403 21:51:33.934658 24480 net.cpp:156] Memory required for data: 1299953184
I0403 21:51:33.934677 24480 layer_factory.hpp:77] Creating layer inception_5a/relu_5x5
I0403 21:51:33.934697 24480 net.cpp:91] Creating Layer inception_5a/relu_5x5
I0403 21:51:33.934715 24480 net.cpp:425] inception_5a/relu_5x5 <- inception_5a/5x5
I0403 21:51:33.934732 24480 net.cpp:386] inception_5a/relu_5x5 -> inception_5a/5x5 (in-place)
I0403 21:51:33.934926 24480 net.cpp:141] Setting up inception_5a/relu_5x5
I0403 21:51:33.934952 24480 net.cpp:148] Top shape: 24 128 7 7 (150528)
I0403 21:51:33.934970 24480 net.cpp:156] Memory required for data: 1300555296
I0403 21:51:33.934985 24480 layer_factory.hpp:77] Creating layer inception_5a/pool
I0403 21:51:33.935003 24480 net.cpp:91] Creating Layer inception_5a/pool
I0403 21:51:33.935020 24480 net.cpp:425] inception_5a/pool <- pool4/3x3_s2_pool4/3x3_s2_0_split_3
I0403 21:51:33.935039 24480 net.cpp:399] inception_5a/pool -> inception_5a/pool
I0403 21:51:33.935111 24480 net.cpp:141] Setting up inception_5a/pool
I0403 21:51:33.935135 24480 net.cpp:148] Top shape: 24 832 7 7 (978432)
I0403 21:51:33.935151 24480 net.cpp:156] Memory required for data: 1304469024
I0403 21:51:33.935165 24480 layer_factory.hpp:77] Creating layer inception_5a/pool_proj
I0403 21:51:33.935187 24480 net.cpp:91] Creating Layer inception_5a/pool_proj
I0403 21:51:33.935210 24480 net.cpp:425] inception_5a/pool_proj <- inception_5a/pool
I0403 21:51:33.935233 24480 net.cpp:399] inception_5a/pool_proj -> inception_5a/pool_proj
I0403 21:51:33.937539 24480 net.cpp:141] Setting up inception_5a/pool_proj
I0403 21:51:33.937568 24480 net.cpp:148] Top shape: 24 128 7 7 (150528)
I0403 21:51:33.937584 24480 net.cpp:156] Memory required for data: 1305071136
I0403 21:51:33.937602 24480 layer_factory.hpp:77] Creating layer inception_5a/relu_pool_proj
I0403 21:51:33.937620 24480 net.cpp:91] Creating Layer inception_5a/relu_pool_proj
I0403 21:51:33.937639 24480 net.cpp:425] inception_5a/relu_pool_proj <- inception_5a/pool_proj
I0403 21:51:33.937657 24480 net.cpp:386] inception_5a/relu_pool_proj -> inception_5a/pool_proj (in-place)
I0403 21:51:33.937942 24480 net.cpp:141] Setting up inception_5a/relu_pool_proj
I0403 21:51:33.937969 24480 net.cpp:148] Top shape: 24 128 7 7 (150528)
I0403 21:51:33.937984 24480 net.cpp:156] Memory required for data: 1305673248
I0403 21:51:33.938000 24480 layer_factory.hpp:77] Creating layer inception_5a/output
I0403 21:51:33.938017 24480 net.cpp:91] Creating Layer inception_5a/output
I0403 21:51:33.938033 24480 net.cpp:425] inception_5a/output <- inception_5a/1x1
I0403 21:51:33.938050 24480 net.cpp:425] inception_5a/output <- inception_5a/3x3
I0403 21:51:33.938066 24480 net.cpp:425] inception_5a/output <- inception_5a/5x5
I0403 21:51:33.938082 24480 net.cpp:425] inception_5a/output <- inception_5a/pool_proj
I0403 21:51:33.938102 24480 net.cpp:399] inception_5a/output -> inception_5a/output
I0403 21:51:33.938149 24480 net.cpp:141] Setting up inception_5a/output
I0403 21:51:33.938184 24480 net.cpp:148] Top shape: 24 832 7 7 (978432)
I0403 21:51:33.938208 24480 net.cpp:156] Memory required for data: 1309586976
I0403 21:51:33.938227 24480 layer_factory.hpp:77] Creating layer inception_5a/output_inception_5a/output_0_split
I0403 21:51:33.938244 24480 net.cpp:91] Creating Layer inception_5a/output_inception_5a/output_0_split
I0403 21:51:33.938261 24480 net.cpp:425] inception_5a/output_inception_5a/output_0_split <- inception_5a/output
I0403 21:51:33.938277 24480 net.cpp:399] inception_5a/output_inception_5a/output_0_split -> inception_5a/output_inception_5a/output_0_split_0
I0403 21:51:33.938303 24480 net.cpp:399] inception_5a/output_inception_5a/output_0_split -> inception_5a/output_inception_5a/output_0_split_1
I0403 21:51:33.938324 24480 net.cpp:399] inception_5a/output_inception_5a/output_0_split -> inception_5a/output_inception_5a/output_0_split_2
I0403 21:51:33.938344 24480 net.cpp:399] inception_5a/output_inception_5a/output_0_split -> inception_5a/output_inception_5a/output_0_split_3
I0403 21:51:33.938457 24480 net.cpp:141] Setting up inception_5a/output_inception_5a/output_0_split
I0403 21:51:33.938488 24480 net.cpp:148] Top shape: 24 832 7 7 (978432)
I0403 21:51:33.938504 24480 net.cpp:148] Top shape: 24 832 7 7 (978432)
I0403 21:51:33.938519 24480 net.cpp:148] Top shape: 24 832 7 7 (978432)
I0403 21:51:33.938535 24480 net.cpp:148] Top shape: 24 832 7 7 (978432)
I0403 21:51:33.938549 24480 net.cpp:156] Memory required for data: 1325241888
I0403 21:51:33.938563 24480 layer_factory.hpp:77] Creating layer inception_5b/1x1
I0403 21:51:33.938585 24480 net.cpp:91] Creating Layer inception_5b/1x1
I0403 21:51:33.938603 24480 net.cpp:425] inception_5b/1x1 <- inception_5a/output_inception_5a/output_0_split_0
I0403 21:51:33.938624 24480 net.cpp:399] inception_5b/1x1 -> inception_5b/1x1
I0403 21:51:33.942332 24480 net.cpp:141] Setting up inception_5b/1x1
I0403 21:51:33.942361 24480 net.cpp:148] Top shape: 24 384 7 7 (451584)
I0403 21:51:33.942376 24480 net.cpp:156] Memory required for data: 1327048224
I0403 21:51:33.942395 24480 layer_factory.hpp:77] Creating layer inception_5b/relu_1x1
I0403 21:51:33.942414 24480 net.cpp:91] Creating Layer inception_5b/relu_1x1
I0403 21:51:33.942430 24480 net.cpp:425] inception_5b/relu_1x1 <- inception_5b/1x1
I0403 21:51:33.942451 24480 net.cpp:386] inception_5b/relu_1x1 -> inception_5b/1x1 (in-place)
I0403 21:51:33.942752 24480 net.cpp:141] Setting up inception_5b/relu_1x1
I0403 21:51:33.942780 24480 net.cpp:148] Top shape: 24 384 7 7 (451584)
I0403 21:51:33.942795 24480 net.cpp:156] Memory required for data: 1328854560
I0403 21:51:33.942809 24480 layer_factory.hpp:77] Creating layer inception_5b/3x3_reduce
I0403 21:51:33.942831 24480 net.cpp:91] Creating Layer inception_5b/3x3_reduce
I0403 21:51:33.942849 24480 net.cpp:425] inception_5b/3x3_reduce <- inception_5a/output_inception_5a/output_0_split_1
I0403 21:51:33.942873 24480 net.cpp:399] inception_5b/3x3_reduce -> inception_5b/3x3_reduce
I0403 21:51:33.945502 24480 net.cpp:141] Setting up inception_5b/3x3_reduce
I0403 21:51:33.945531 24480 net.cpp:148] Top shape: 24 192 7 7 (225792)
I0403 21:51:33.945547 24480 net.cpp:156] Memory required for data: 1329757728
I0403 21:51:33.945565 24480 layer_factory.hpp:77] Creating layer inception_5b/relu_3x3_reduce
I0403 21:51:33.945583 24480 net.cpp:91] Creating Layer inception_5b/relu_3x3_reduce
I0403 21:51:33.945600 24480 net.cpp:425] inception_5b/relu_3x3_reduce <- inception_5b/3x3_reduce
I0403 21:51:33.945621 24480 net.cpp:386] inception_5b/relu_3x3_reduce -> inception_5b/3x3_reduce (in-place)
I0403 21:51:33.945806 24480 net.cpp:141] Setting up inception_5b/relu_3x3_reduce
I0403 21:51:33.945832 24480 net.cpp:148] Top shape: 24 192 7 7 (225792)
I0403 21:51:33.945847 24480 net.cpp:156] Memory required for data: 1330660896
I0403 21:51:33.945861 24480 layer_factory.hpp:77] Creating layer inception_5b/3x3
I0403 21:51:33.945883 24480 net.cpp:91] Creating Layer inception_5b/3x3
I0403 21:51:33.945901 24480 net.cpp:425] inception_5b/3x3 <- inception_5b/3x3_reduce
I0403 21:51:33.945924 24480 net.cpp:399] inception_5b/3x3 -> inception_5b/3x3
I0403 21:51:33.952514 24480 net.cpp:141] Setting up inception_5b/3x3
I0403 21:51:33.952543 24480 net.cpp:148] Top shape: 24 384 7 7 (451584)
I0403 21:51:33.952559 24480 net.cpp:156] Memory required for data: 1332467232
I0403 21:51:33.952577 24480 layer_factory.hpp:77] Creating layer inception_5b/relu_3x3
I0403 21:51:33.952595 24480 net.cpp:91] Creating Layer inception_5b/relu_3x3
I0403 21:51:33.952616 24480 net.cpp:425] inception_5b/relu_3x3 <- inception_5b/3x3
I0403 21:51:33.952635 24480 net.cpp:386] inception_5b/relu_3x3 -> inception_5b/3x3 (in-place)
I0403 21:51:33.952947 24480 net.cpp:141] Setting up inception_5b/relu_3x3
I0403 21:51:33.952975 24480 net.cpp:148] Top shape: 24 384 7 7 (451584)
I0403 21:51:33.952991 24480 net.cpp:156] Memory required for data: 1334273568
I0403 21:51:33.953008 24480 layer_factory.hpp:77] Creating layer inception_5b/5x5_reduce
I0403 21:51:33.953048 24480 net.cpp:91] Creating Layer inception_5b/5x5_reduce
I0403 21:51:33.953069 24480 net.cpp:425] inception_5b/5x5_reduce <- inception_5a/output_inception_5a/output_0_split_2
I0403 21:51:33.953094 24480 net.cpp:399] inception_5b/5x5_reduce -> inception_5b/5x5_reduce
I0403 21:51:33.954382 24480 net.cpp:141] Setting up inception_5b/5x5_reduce
I0403 21:51:33.954409 24480 net.cpp:148] Top shape: 24 48 7 7 (56448)
I0403 21:51:33.954426 24480 net.cpp:156] Memory required for data: 1334499360
I0403 21:51:33.954445 24480 layer_factory.hpp:77] Creating layer inception_5b/relu_5x5_reduce
I0403 21:51:33.954471 24480 net.cpp:91] Creating Layer inception_5b/relu_5x5_reduce
I0403 21:51:33.954488 24480 net.cpp:425] inception_5b/relu_5x5_reduce <- inception_5b/5x5_reduce
I0403 21:51:33.954507 24480 net.cpp:386] inception_5b/relu_5x5_reduce -> inception_5b/5x5_reduce (in-place)
I0403 21:51:33.954879 24480 net.cpp:141] Setting up inception_5b/relu_5x5_reduce
I0403 21:51:33.954905 24480 net.cpp:148] Top shape: 24 48 7 7 (56448)
I0403 21:51:33.954921 24480 net.cpp:156] Memory required for data: 1334725152
I0403 21:51:33.954937 24480 layer_factory.hpp:77] Creating layer inception_5b/5x5
I0403 21:51:33.954957 24480 net.cpp:91] Creating Layer inception_5b/5x5
I0403 21:51:33.954973 24480 net.cpp:425] inception_5b/5x5 <- inception_5b/5x5_reduce
I0403 21:51:33.954993 24480 net.cpp:399] inception_5b/5x5 -> inception_5b/5x5
I0403 21:51:33.957008 24480 net.cpp:141] Setting up inception_5b/5x5
I0403 21:51:33.957036 24480 net.cpp:148] Top shape: 24 128 7 7 (150528)
I0403 21:51:33.957053 24480 net.cpp:156] Memory required for data: 1335327264
I0403 21:51:33.957072 24480 layer_factory.hpp:77] Creating layer inception_5b/relu_5x5
I0403 21:51:33.957092 24480 net.cpp:91] Creating Layer inception_5b/relu_5x5
I0403 21:51:33.957108 24480 net.cpp:425] inception_5b/relu_5x5 <- inception_5b/5x5
I0403 21:51:33.957126 24480 net.cpp:386] inception_5b/relu_5x5 -> inception_5b/5x5 (in-place)
I0403 21:51:33.957337 24480 net.cpp:141] Setting up inception_5b/relu_5x5
I0403 21:51:33.957361 24480 net.cpp:148] Top shape: 24 128 7 7 (150528)
I0403 21:51:33.957376 24480 net.cpp:156] Memory required for data: 1335929376
I0403 21:51:33.957391 24480 layer_factory.hpp:77] Creating layer inception_5b/pool
I0403 21:51:33.957409 24480 net.cpp:91] Creating Layer inception_5b/pool
I0403 21:51:33.957427 24480 net.cpp:425] inception_5b/pool <- inception_5a/output_inception_5a/output_0_split_3
I0403 21:51:33.957445 24480 net.cpp:399] inception_5b/pool -> inception_5b/pool
I0403 21:51:33.957518 24480 net.cpp:141] Setting up inception_5b/pool
I0403 21:51:33.957542 24480 net.cpp:148] Top shape: 24 832 7 7 (978432)
I0403 21:51:33.957557 24480 net.cpp:156] Memory required for data: 1339843104
I0403 21:51:33.957572 24480 layer_factory.hpp:77] Creating layer inception_5b/pool_proj
I0403 21:51:33.957594 24480 net.cpp:91] Creating Layer inception_5b/pool_proj
I0403 21:51:33.957612 24480 net.cpp:425] inception_5b/pool_proj <- inception_5b/pool
I0403 21:51:33.957633 24480 net.cpp:399] inception_5b/pool_proj -> inception_5b/pool_proj
I0403 21:51:33.959916 24480 net.cpp:141] Setting up inception_5b/pool_proj
I0403 21:51:33.959945 24480 net.cpp:148] Top shape: 24 128 7 7 (150528)
I0403 21:51:33.959961 24480 net.cpp:156] Memory required for data: 1340445216
I0403 21:51:33.959980 24480 layer_factory.hpp:77] Creating layer inception_5b/relu_pool_proj
I0403 21:51:33.959998 24480 net.cpp:91] Creating Layer inception_5b/relu_pool_proj
I0403 21:51:33.960016 24480 net.cpp:425] inception_5b/relu_pool_proj <- inception_5b/pool_proj
I0403 21:51:33.960034 24480 net.cpp:386] inception_5b/relu_pool_proj -> inception_5b/pool_proj (in-place)
I0403 21:51:33.960330 24480 net.cpp:141] Setting up inception_5b/relu_pool_proj
I0403 21:51:33.960356 24480 net.cpp:148] Top shape: 24 128 7 7 (150528)
I0403 21:51:33.960371 24480 net.cpp:156] Memory required for data: 1341047328
I0403 21:51:33.960386 24480 layer_factory.hpp:77] Creating layer inception_5b/output
I0403 21:51:33.960403 24480 net.cpp:91] Creating Layer inception_5b/output
I0403 21:51:33.960433 24480 net.cpp:425] inception_5b/output <- inception_5b/1x1
I0403 21:51:33.960451 24480 net.cpp:425] inception_5b/output <- inception_5b/3x3
I0403 21:51:33.960469 24480 net.cpp:425] inception_5b/output <- inception_5b/5x5
I0403 21:51:33.960484 24480 net.cpp:425] inception_5b/output <- inception_5b/pool_proj
I0403 21:51:33.960505 24480 net.cpp:399] inception_5b/output -> inception_5b/output
I0403 21:51:33.960556 24480 net.cpp:141] Setting up inception_5b/output
I0403 21:51:33.960582 24480 net.cpp:148] Top shape: 24 1024 7 7 (1204224)
I0403 21:51:33.960597 24480 net.cpp:156] Memory required for data: 1345864224
I0403 21:51:33.960613 24480 layer_factory.hpp:77] Creating layer pool5/7x7_s1
I0403 21:51:33.960629 24480 net.cpp:91] Creating Layer pool5/7x7_s1
I0403 21:51:33.960645 24480 net.cpp:425] pool5/7x7_s1 <- inception_5b/output
I0403 21:51:33.960664 24480 net.cpp:399] pool5/7x7_s1 -> pool5/7x7_s1
I0403 21:51:33.960877 24480 net.cpp:141] Setting up pool5/7x7_s1
I0403 21:51:33.960903 24480 net.cpp:148] Top shape: 24 1024 1 1 (24576)
I0403 21:51:33.960921 24480 net.cpp:156] Memory required for data: 1345962528
I0403 21:51:33.960937 24480 layer_factory.hpp:77] Creating layer pool5/drop_7x7_s1
I0403 21:51:33.960953 24480 net.cpp:91] Creating Layer pool5/drop_7x7_s1
I0403 21:51:33.960970 24480 net.cpp:425] pool5/drop_7x7_s1 <- pool5/7x7_s1
I0403 21:51:33.960991 24480 net.cpp:386] pool5/drop_7x7_s1 -> pool5/7x7_s1 (in-place)
I0403 21:51:33.961043 24480 net.cpp:141] Setting up pool5/drop_7x7_s1
I0403 21:51:33.961066 24480 net.cpp:148] Top shape: 24 1024 1 1 (24576)
I0403 21:51:33.961081 24480 net.cpp:156] Memory required for data: 1346060832
I0403 21:51:33.961096 24480 layer_factory.hpp:77] Creating layer loss3/classifier_plantvillage
I0403 21:51:33.961114 24480 net.cpp:91] Creating Layer loss3/classifier_plantvillage
I0403 21:51:33.961132 24480 net.cpp:425] loss3/classifier_plantvillage <- pool5/7x7_s1
I0403 21:51:33.961153 24480 net.cpp:399] loss3/classifier_plantvillage -> loss3/classifier_plantvillage
I0403 21:51:33.961570 24480 net.cpp:141] Setting up loss3/classifier_plantvillage
I0403 21:51:33.961596 24480 net.cpp:148] Top shape: 24 38 (912)
I0403 21:51:33.961611 24480 net.cpp:156] Memory required for data: 1346064480
I0403 21:51:33.961629 24480 layer_factory.hpp:77] Creating layer loss3/classifier_plantvillage_loss3/classifier_plantvillage_0_split
I0403 21:51:33.961650 24480 net.cpp:91] Creating Layer loss3/classifier_plantvillage_loss3/classifier_plantvillage_0_split
I0403 21:51:33.961668 24480 net.cpp:425] loss3/classifier_plantvillage_loss3/classifier_plantvillage_0_split <- loss3/classifier_plantvillage
I0403 21:51:33.961689 24480 net.cpp:399] loss3/classifier_plantvillage_loss3/classifier_plantvillage_0_split -> loss3/classifier_plantvillage_loss3/classifier_plantvillage_0_split_0
I0403 21:51:33.961710 24480 net.cpp:399] loss3/classifier_plantvillage_loss3/classifier_plantvillage_0_split -> loss3/classifier_plantvillage_loss3/classifier_plantvillage_0_split_1
I0403 21:51:33.961731 24480 net.cpp:399] loss3/classifier_plantvillage_loss3/classifier_plantvillage_0_split -> loss3/classifier_plantvillage_loss3/classifier_plantvillage_0_split_2
I0403 21:51:33.961750 24480 net.cpp:399] loss3/classifier_plantvillage_loss3/classifier_plantvillage_0_split -> loss3/classifier_plantvillage_loss3/classifier_plantvillage_0_split_3
I0403 21:51:33.961849 24480 net.cpp:141] Setting up loss3/classifier_plantvillage_loss3/classifier_plantvillage_0_split
I0403 21:51:33.961874 24480 net.cpp:148] Top shape: 24 38 (912)
I0403 21:51:33.961889 24480 net.cpp:148] Top shape: 24 38 (912)
I0403 21:51:33.961904 24480 net.cpp:148] Top shape: 24 38 (912)
I0403 21:51:33.961920 24480 net.cpp:148] Top shape: 24 38 (912)
I0403 21:51:33.961933 24480 net.cpp:156] Memory required for data: 1346079072
I0403 21:51:33.961948 24480 layer_factory.hpp:77] Creating layer loss1/loss
I0403 21:51:33.961969 24480 net.cpp:91] Creating Layer loss1/loss
I0403 21:51:33.961987 24480 net.cpp:425] loss1/loss <- loss1/classifier_plantvillage_loss1/classifier_plantvillage_0_split_0
I0403 21:51:33.962018 24480 net.cpp:425] loss1/loss <- label_data_1_split_0
…
