…
I0403 21:50:07.165168 24404 net.cpp:313] The NetState phase (1) differed from the phase (0) specified by a rule in layer data
I0403 21:50:07.166286 24404 net.cpp:49] Initializing net from parameters: 
state {
  phase: TEST
}
layer {
  name: "data"
  type: "Data"
  top: "data"
  top: "label"
  include {
    phase: TEST
  }
  transform_param {
    mirror: false
    crop_size: 224
    mean_file: "/home/mohanty/data/final_dataset/lmdb/segmented-80-20/mean.binaryproto"
  }
  data_param {
    source: "/home/mohanty/data/final_dataset/lmdb/segmented-80-20/test_db"
    batch_size: 24
    backend: LMDB
  }
}
layer {
  name: "conv1/7x7_s2"
  type: "Convolution"
  bottom: "data"
  top: "conv1/7x7_s2"
  param {
    lr_mult: 1
    decay_mult: 1
  }
  param {
    lr_mult: 2
    decay_mult: 0
  }
  convolution_param {
    num_output: 64
    pad: 3
    kernel_size: 7
    stride: 2
    weight_filler {
      type: "xavier"
      std: 0.1
    }
    bias_filler {
      type: "constant"
      value: 0.2
    }
  }
}
layer {
  name: "conv1/relu_7x7"
  type: "ReLU"
  bottom: "conv1/7x7_s2"
  top: "conv1/7x7_s2"
}
layer {
  name: "pool1/3x3_s2"
  type: "Pooling"
  bottom: "conv1/7x7_s2"
  top: "pool1/3x3_s2"
  pooling_param {
    pool: MAX
    kernel_size: 3
    stride: 2
  }
}
layer {
  name: "pool1/norm1"
  type: "LRN"
  bottom: "pool1/3x3_s2"
  top: "pool1/norm1"
  lrn_param {
    local_size: 5
    alpha: 0.0001
    beta: 0.75
  }
}
layer {
  name: "conv2/3x3_reduce"
  type: "Convolution"
  bottom: "pool1/norm1"
  top: "conv2/3x3_reduce"
  param {
    lr_mult: 1
    decay_mult: 1
  }
  param {
    lr_mult: 2
    decay_mult: 0
  }
  convolution_param {
    num_output: 64
    kernel_size: 1
    weight_filler {
      type: "xavier"
      std: 0.1
    }
    bias_filler {
      type: "constant"
      value: 0.2
    }
  }
}
layer {
  name: "conv2/relu_3x3_reduce"
  type: "ReLU"
  bottom: "conv2/3x3_reduce"
  top: "conv2/3x3_reduce"
}
layer {
  name: "conv2/3x3"
  type: "Convolution"
  bottom: "conv2/3x3_reduce"
  top: "conv2/3x3"
  param {
    lr_mult: 1
    decay_mult: 1
  }
  param {
    lr_mult: 2
    decay_mult: 0
  }
  convolution_param {
    num_output: 192
    pad: 1
    kernel_size: 3
    weight_filler {
      type: "xavier"
      std: 0.03
    }
    bias_filler {
      type: "constant"
      value: 0.2
    }
  }
}
layer {
  name: "conv2/relu_3x3"
  type: "ReLU"
  bottom: "conv2/3x3"
  top: "conv2/3x3"
}
layer {
  name: "conv2/norm2"
  type: "LRN"
  bottom: "conv2/3x3"
  top: "conv2/norm2"
  lrn_param {
    local_size: 5
    alpha: 0.0001
    beta: 0.75
  }
}
layer {
  name: "pool2/3x3_s2"
  type: "Pooling"
  bottom: "conv2/norm2"
  top: "pool2/3x3_s2"
  pooling_param {
    pool: MAX
    kernel_size: 3
    stride: 2
  }
}
layer {
  name: "inception_3a/1x1"
  type: "Convolution"
  bottom: "pool2/3x3_s2"
  top: "inception_3a/1x1"
  param {
    lr_mult: 1
    decay_mult: 1
  }
  param {
    lr_mult: 2
    decay_mult: 0
  }
  convolution_param {
    num_output: 64
    kernel_size: 1
    weight_filler {
      type: "xavier"
      std: 0.03
    }
    bias_filler {
      type: "constant"
      value: 0.2
    }
  }
}
layer {
  name: "inception_3a/relu_1x1"
  type: "ReLU"
  bottom: "inception_3a/1x1"
  top: "inception_3a/1x1"
}
layer {
  name: "inception_3a/3x3_reduce"
  type: "Convolution"
  bottom: "pool2/3x3_s2"
  top: "inception_3a/3x3_reduce"
  param {
    lr_mult: 1
    decay_mult: 1
  }
  param {
    lr_mult: 2
    decay_mult: 0
  }
  convolution_param {
    num_output: 96
    kernel_size: 1
    weight_filler {
      type: "xavier"
      std: 0.09
    }
    bias_filler {
      type: "constant"
      value: 0.2
    }
  }
}
layer {
  name: "inception_3a/relu_3x3_reduce"
  type: "ReLU"
  bottom: "inception_3a/3x3_reduce"
  top: "inception_3a/3x3_reduce"
}
layer {
  name: "inception_3a/3x3"
  type: "Convolution"
  bottom: "inception_3a/3x3_reduce"
  top: "inception_3a/3x3"
  param {
    lr_mult: 1
    decay_mult: 1
  }
  param {
    lr_mult: 2
    decay_mult: 0
  }
  convolution_param {
    num_output: 128
    pad: 1
    kernel_size: 3
    weight_filler {
      type: "xavier"
      std: 0.03
    }
    bias_filler {
      type: "constant"
      value: 0.2
    }
  }
}
layer {
  name: "inception_3a/relu_3x3"
  type: "ReLU"
  bottom: "inception_3a/3x3"
  top: "inception_3a/3x3"
}
layer {
  name: "inception_3a/5x5_reduce"
  type: "Convolution"
  bottom: "pool2/3x3_s2"
  top: "inception_3a/5x5_reduce"
  param {
    lr_mult: 1
    decay_mult: 1
  }
  param {
    lr_mult: 2
    decay_mult: 0
  }
  convolution_param {
    num_output: 16
    kernel_size: 1
    weight_filler {
      type: "xavier"
      std: 0.2
    }
    bias_filler {
      type: "constant"
      value: 0.2
    }
  }
}
layer {
  name: "inception_3a/relu_5x5_reduce"
  type: "ReLU"
  bottom: "inception_3a/5x5_reduce"
  top: "inception_3a/5x5_reduce"
}
layer {
  name: "inception_3a/5x5"
  type: "Convolution"
  bottom: "inception_3a/5x5_reduce"
  top: "inception_3a/5x5"
  param {
    lr_mult: 1
    decay_mult: 1
  }
  param {
    lr_mult: 2
    decay_mult: 0
  }
  convolution_param {
    num_output: 32
    pad: 2
    kernel_size: 5
    weight_filler {
      type: "xavier"
      std: 0.03
    }
    bias_filler {
      type: "constant"
      value: 0.2
    }
  }
}
layer {
  name: "inception_3a/relu_5x5"
  type: "ReLU"
  bottom: "inception_3a/5x5"
  top: "inception_3a/5x5"
}
layer {
  name: "inception_3a/pool"
  type: "Pooling"
  bottom: "pool2/3x3_s2"
  top: "inception_3a/pool"
  pooling_param {
    pool: MAX
    kernel_size: 3
    stride: 1
    pad: 1
  }
}
layer {
  name: "inception_3a/pool_proj"
  type: "Convolution"
  bottom: "inception_3a/pool"
  top: "inception_3a/pool_proj"
  param {
    lr_mult: 1
    decay_mult: 1
  }
  param {
    lr_mult: 2
    decay_mult: 0
  }
  convolution_param {
    num_output: 32
    kernel_size: 1
    weight_filler {
      type: "xavier"
      std: 0.1
    }
    bias_filler {
      type: "constant"
      value: 0.2
    }
  }
}
layer {
  name: "inception_3a/relu_pool_proj"
  type: "ReLU"
  bottom: "inception_3a/pool_proj"
  top: "inception_3a/pool_proj"
}
layer {
  name: "inception_3a/output"
  type: "Concat"
  bottom: "inception_3a/1x1"
  bottom: "inception_3a/3x3"
  bottom: "inception_3a/5x5"
  bottom: "inception_3a/pool_proj"
  top: "inception_3a/output"
}
layer {
  name: "inception_3b/1x1"
  type: "Convolution"
  bottom: "inception_3a/output"
  top: "inception_3b/1x1"
  param {
    lr_mult: 1
    decay_mult: 1
  }
  param {
    lr_mult: 2
    decay_mult: 0
  }
  convolution_param {
    num_output: 128
    kernel_size: 1
    weight_filler {
      type: "xavier"
      std: 0.03
    }
    bias_filler {
      type: "constant"
      value: 0.2
    }
  }
}
layer {
  name: "inception_3b/relu_1x1"
  type: "ReLU"
  bottom: "inception_3b/1x1"
  top: "inception_3b/1x1"
}
layer {
  name: "inception_3b/3x3_reduce"
  type: "Convolution"
  bottom: "inception_3a/output"
  top: "inception_3b/3x3_reduce"
  param {
    lr_mult: 1
    decay_mult: 1
  }
  param {
    lr_mult: 2
    decay_mult: 0
  }
  convolution_param {
    num_output: 128
    kernel_size: 1
    weight_filler {
      type: "xavier"
      std: 0.09
    }
    bias_filler {
      type: "constant"
      value: 0.2
    }
  }
}
layer {
  name: "inception_3b/relu_3x3_reduce"
  type: "ReLU"
  bottom: "inception_3b/3x3_reduce"
  top: "inception_3b/3x3_reduce"
}
layer {
  name: "inception_3b/3x3"
  type: "Convolution"
  bottom: "inception_3b/3x3_reduce"
  top: "inception_3b/3x3"
  param {
    lr_mult: 1
    decay_mult: 1
  }
  param {
    lr_mult: 2
    decay_mult: 0
  }
  convolution_param {
    num_output: 192
    pad: 1
    kernel_size: 3
    weight_filler {
      type: "xavier"
      std: 0.03
    }
    bias_filler {
      type: "constant"
      value: 0.2
    }
  }
}
layer {
  name: "inception_3b/relu_3x3"
  type: "ReLU"
  bottom: "inception_3b/3x3"
  top: "inception_3b/3x3"
}
layer {
  name: "inception_3b/5x5_reduce"
  type: "Convolution"
  bottom: "inception_3a/output"
  top: "inception_3b/5x5_reduce"
  param {
    lr_mult: 1
    decay_mult: 1
  }
  param {
    lr_mult: 2
    decay_mult: 0
  }
  convolution_param {
    num_output: 32
    kernel_size: 1
    weight_filler {
      type: "xavier"
      std: 0.2
    }
    bias_filler {
      type: "constant"
      value: 0.2
    }
  }
}
layer {
  name: "inception_3b/relu_5x5_reduce"
  type: "ReLU"
  bottom: "inception_3b/5x5_reduce"
  top: "inception_3b/5x5_reduce"
}
layer {
  name: "inception_3b/5x5"
  type: "Convolution"
  bottom: "inception_3b/5x5_reduce"
  top: "inception_3b/5x5"
  param {
    lr_mult: 1
    decay_mult: 1
  }
  param {
    lr_mult: 2
    decay_mult: 0
  }
  convolution_param {
    num_output: 96
    pad: 2
    kernel_size: 5
    weight_filler {
      type: "xavier"
      std: 0.03
    }
    bias_filler {
      type: "constant"
      value: 0.2
    }
  }
}
layer {
  name: "inception_3b/relu_5x5"
  type: "ReLU"
  bottom: "inception_3b/5x5"
  top: "inception_3b/5x5"
}
layer {
  name: "inception_3b/pool"
  type: "Pooling"
  bottom: "inception_3a/output"
  top: "inception_3b/pool"
  pooling_param {
    pool: MAX
    kernel_size: 3
    stride: 1
    pad: 1
  }
}
layer {
  name: "inception_3b/pool_proj"
  type: "Convolution"
  bottom: "inception_3b/pool"
  top: "inception_3b/pool_proj"
  param {
    lr_mult: 1
    decay_mult: 1
  }
  param {
    lr_mult: 2
    decay_mult: 0
  }
  convolution_param {
    num_output: 64
    kernel_size: 1
    weight_filler {
      type: "xavier"
      std: 0.1
    }
    bias_filler {
      type: "constant"
      value: 0.2
    }
  }
}
layer {
  name: "inception_3b/relu_pool_proj"
  type: "ReLU"
  bottom: "inception_3b/pool_proj"
  top: "inception_3b/pool_proj"
}
layer {
  name: "inception_3b/output"
  type: "Concat"
  bottom: "inception_3b/1x1"
  bottom: "inception_3b/3x3"
  bottom: "inception_3b/5x5"
  bottom: "inception_3b/pool_proj"
  top: "inception_3b/output"
}
layer {
  name: "pool3/3x3_s2"
  type: "Pooling"
  bottom: "inception_3b/output"
  top: "pool3/3x3_s2"
  pooling_param {
    pool: MAX
    kernel_size: 3
    stride: 2
  }
}
layer {
  name: "inception_4a/1x1"
  type: "Convolution"
  bottom: "pool3/3x3_s2"
  top: "inception_4a/1x1"
  param {
    lr_mult: 1
    decay_mult: 1
  }
  param {
    lr_mult: 2
    decay_mult: 0
  }
  convolution_param {
    num_output: 192
    kernel_size: 1
    weight_filler {
      type: "xavier"
      std: 0.03
    }
    bias_filler {
      type: "constant"
      value: 0.2
    }
  }
}
layer {
  name: "inception_4a/relu_1x1"
  type: "ReLU"
  bottom: "inception_4a/1x1"
  top: "inception_4a/1x1"
}
layer {
  name: "inception_4a/3x3_reduce"
  type: "Convolution"
  bottom: "pool3/3x3_s2"
  top: "inception_4a/3x3_reduce"
  param {
    lr_mult: 1
    decay_mult: 1
  }
  param {
    lr_mult: 2
    decay_mult: 0
  }
  convolution_param {
    num_output: 96
    kernel_size: 1
    weight_filler {
      type: "xavier"
      std: 0.09
    }
    bias_filler {
      type: "constant"
      value: 0.2
    }
  }
}
layer {
  name: "inception_4a/relu_3x3_reduce"
  type: "ReLU"
  bottom: "inception_4a/3x3_reduce"
  top: "inception_4a/3x3_reduce"
}
layer {
  name: "inception_4a/3x3"
  type: "Convolution"
  bottom: "inception_4a/3x3_reduce"
  top: "inception_4a/3x3"
  param {
    lr_mult: 1
    decay_mult: 1
  }
  param {
    lr_mult: 2
    decay_mult: 0
  }
  convolution_param {
    num_output: 208
    pad: 1
    kernel_size: 3
    weight_filler {
      type: "xavier"
      std: 0.03
    }
    bias_filler {
      type: "constant"
      value: 0.2
    }
  }
}
layer {
  name: "inception_4a/relu_3x3"
  type: "ReLU"
  bottom: "inception_4a/3x3"
  top: "inception_4a/3x3"
}
layer {
  name: "inception_4a/5x5_reduce"
  type: "Convolution"
  bottom: "pool3/3x3_s2"
  top: "inception_4a/5x5_reduce"
  param {
    lr_mult: 1
    decay_mult: 1
  }
  param {
    lr_mult: 2
    decay_mult: 0
  }
  convolution_param {
    num_output: 16
    kernel_size: 1
    weight_filler {
      type: "xavier"
      std: 0.2
    }
    bias_filler {
      type: "constant"
      value: 0.2
    }
  }
}
layer {
  name: "inception_4a/relu_5x5_reduce"
  type: "ReLU"
  bottom: "inception_4a/5x5_reduce"
  top: "inception_4a/5x5_reduce"
}
layer {
  name: "inception_4a/5x5"
  type: "Convolution"
  bottom: "inception_4a/5x5_reduce"
  top: "inception_4a/5x5"
  param {
    lr_mult: 1
    decay_mult: 1
  }
  param {
    lr_mult: 2
    decay_mult: 0
  }
  convolution_param {
    num_output: 48
    pad: 2
    kernel_size: 5
    weight_filler {
      type: "xavier"
      std: 0.03
    }
    bias_filler {
      type: "constant"
      value: 0.2
    }
  }
}
layer {
  name: "inception_4a/relu_5x5"
  type: "ReLU"
  bottom: "inception_4a/5x5"
  top: "inception_4a/5x5"
}
layer {
  name: "inception_4a/pool"
  type: "Pooling"
  bottom: "pool3/3x3_s2"
  top: "inception_4a/pool"
  pooling_param {
    pool: MAX
    kernel_size: 3
    stride: 1
    pad: 1
  }
}
layer {
  name: "inception_4a/pool_proj"
  type: "Convolution"
  bottom: "inception_4a/pool"
  top: "inception_4a/pool_proj"
  param {
    lr_mult: 1
    decay_mult: 1
  }
  param {
    lr_mult: 2
    decay_mult: 0
  }
  convolution_param {
    num_output: 64
    kernel_size: 1
    weight_filler {
      type: "xavier"
      std: 0.1
    }
    bias_filler {
      type: "constant"
      value: 0.2
    }
  }
}
layer {
  name: "inception_4a/relu_pool_proj"
  type: "ReLU"
  bottom: "inception_4a/pool_proj"
  top: "inception_4a/pool_proj"
}
layer {
  name: "inception_4a/output"
  type: "Concat"
  bottom: "inception_4a/1x1"
  bottom: "inception_4a/3x3"
  bottom: "inception_4a/5x5"
  bottom: "inception_4a/pool_proj"
  top: "inception_4a/output"
}
layer {
  name: "loss1/ave_pool"
  type: "Pooling"
  bottom: "inception_4a/output"
  top: "loss1/ave_pool"
  pooling_param {
    pool: AVE
    kernel_size: 5
    stride: 3
  }
}
layer {
  name: "loss1/conv"
  type: "Convolution"
  bottom: "loss1/ave_pool"
  top: "loss1/conv"
  param {
    lr_mult: 1
    decay_mult: 1
  }
  param {
    lr_mult: 2
    decay_mult: 0
  }
  convolution_param {
    num_output: 128
    kernel_size: 1
    weight_filler {
      type: "xavier"
      std: 0.08
    }
    bias_filler {
      type: "constant"
      value: 0.2
    }
  }
}
layer {
  name: "loss1/relu_conv"
  type: "ReLU"
  bottom: "loss1/conv"
  top: "loss1/conv"
}
layer {
  name: "loss1/fc"
  type: "InnerProduct"
  bottom: "loss1/conv"
  top: "loss1/fc"
  param {
    lr_mult: 1
    decay_mult: 1
  }
  param {
    lr_mult: 2
    decay_mult: 0
  }
  inner_product_param {
    num_output: 1024
    weight_filler {
      type: "xavier"
      std: 0.02
    }
    bias_filler {
      type: "constant"
      value: 0.2
    }
  }
}
layer {
  name: "loss1/relu_fc"
  type: "ReLU"
  bottom: "loss1/fc"
  top: "loss1/fc"
}
layer {
  name: "loss1/drop_fc"
  type: "Dropout"
  bottom: "loss1/fc"
  top: "loss1/fc"
  dropout_param {
    dropout_ratio: 0.7
  }
}
layer {
  name: "loss1/classifier_plantvillage"
  type: "InnerProduct"
  bottom: "loss1/fc"
  top: "loss1/classifier_plantvillage"
  param {
    lr_mult: 1
    decay_mult: 1
  }
  param {
    lr_mult: 2
    decay_mult: 0
  }
  inner_product_param {
    num_output: 38
    weight_filler {
      type: "xavier"
      std: 0.0009765625
    }
    bias_filler {
      type: "constant"
      value: 0
    }
  }
}
layer {
  name: "inception_4b/1x1"
  type: "Convolution"
  bottom: "inception_4a/output"
  top: "inception_4b/1x1"
  param {
    lr_mult: 1
    decay_mult: 1
  }
  param {
    lr_mult: 2
    decay_mult: 0
  }
  convolution_param {
    num_output: 160
    kernel_size: 1
    weight_filler {
      type: "xavier"
      std: 0.03
    }
    bias_filler {
      type: "constant"
      value: 0.2
    }
  }
}
layer {
  name: "inception_4b/relu_1x1"
  type: "ReLU"
  bottom: "inception_4b/1x1"
  top: "inception_4b/1x1"
}
layer {
  name: "inception_4b/3x3_reduce"
  type: "Convolution"
  bottom: "inception_4a/output"
  top: "inception_4b/3x3_reduce"
  param {
    lr_mult: 1
    decay_mult: 1
  }
  param {
    lr_mult: 2
    decay_mult: 0
  }
  convolution_param {
    num_output: 112
    kernel_size: 1
    weight_filler {
      type: "xavier"
      std: 0.09
    }
    bias_filler {
      type: "constant"
      value: 0.2
    }
  }
}
layer {
  name: "inception_4b/relu_3x3_reduce"
  type: "ReLU"
  bottom: "inception_4b/3x3_reduce"
  top: "inception_4b/3x3_reduce"
}
layer {
  name: "inception_4b/3x3"
  type: "Convolution"
  bottom: "inception_4b/3x3_reduce"
  top: "inception_4b/3x3"
  param {
    lr_mult: 1
    decay_mult: 1
  }
  param {
    lr_mult: 2
    decay_mult: 0
  }
  convolution_param {
    num_output: 224
    pad: 1
    kernel_size: 3
    weight_filler {
      type: "xavier"
      std: 0.03
    }
    bias_filler {
      type: "constant"
      value: 0.2
    }
  }
}
layer {
  name: "inception_4b/relu_3x3"
  type: "ReLU"
  bottom: "inception_4b/3x3"
  top: "inception_4b/3x3"
}
layer {
  name: "inception_4b/5x5_reduce"
  type: "Convolution"
  bottom: "inception_4a/output"
  top: "inception_4b/5x5_reduce"
  param {
    lr_mult: 1
    decay_mult: 1
  }
  param {
    lr_mult: 2
    decay_mult: 0
  }
  convolution_param {
    num_output: 24
    kernel_size: 1
    weight_filler {
      type: "xavier"
      std: 0.2
    }
    bias_filler {
      type: "constant"
      value: 0.2
    }
  }
}
layer {
  name: "inception_4b/relu_5x5_reduce"
  type: "ReLU"
  bottom: "inception_4b/5x5_reduce"
  top: "inception_4b/5x5_reduce"
}
layer {
  name: "inception_4b/5x5"
  type: "Convolution"
  bottom: "inception_4b/5x5_reduce"
  top: "inception_4b/5x5"
  param {
    lr_mult: 1
    decay_mult: 1
  }
  param {
    lr_mult: 2
    decay_mult: 0
  }
  convolution_param {
    num_output: 64
    pad: 2
    kernel_size: 5
    weight_filler {
      type: "xavier"
      std: 0.03
    }
    bias_filler {
      type: "constant"
      value: 0.2
    }
  }
}
layer {
  name: "inception_4b/relu_5x5"
  type: "ReLU"
  bottom: "inception_4b/5x5"
  top: "inception_4b/5x5"
}
layer {
  name: "inception_4b/pool"
  type: "Pooling"
  bottom: "inception_4a/output"
  top: "inception_4b/pool"
  pooling_param {
    pool: MAX
    kernel_size: 3
    stride: 1
    pad: 1
  }
}
layer {
  name: "inception_4b/pool_proj"
  type: "Convolution"
  bottom: "inception_4b/pool"
  top: "inception_4b/pool_proj"
  param {
    lr_mult: 1
    decay_mult: 1
  }
  param {
    lr_mult: 2
    decay_mult: 0
  }
  convolution_param {
    num_output: 64
    kernel_size: 1
    weight_filler {
      type: "xavier"
      std: 0.1
    }
    bias_filler {
      type: "constant"
      value: 0.2
    }
  }
}
layer {
  name: "inception_4b/relu_pool_proj"
  type: "ReLU"
  bottom: "inception_4b/pool_proj"
  top: "inception_4b/pool_proj"
}
layer {
  name: "inception_4b/output"
  type: "Concat"
  bottom: "inception_4b/1x1"
  bottom: "inception_4b/3x3"
  bottom: "inception_4b/5x5"
  bottom: "inception_4b/pool_proj"
  top: "inception_4b/output"
}
layer {
  name: "inception_4c/1x1"
  type: "Convolution"
  bottom: "inception_4b/output"
  top: "inception_4c/1x1"
  param {
    lr_mult: 1
    decay_mult: 1
  }
  param {
    lr_mult: 2
    decay_mult: 0
  }
  convolution_param {
    num_output: 128
    kernel_size: 1
    weight_filler {
      type: "xavier"
      std: 0.03
    }
    bias_filler {
      type: "constant"
      value: 0.2
    }
  }
}
layer {
  name: "inception_4c/relu_1x1"
  type: "ReLU"
  bottom: "inception_4c/1x1"
  top: "inception_4c/1x1"
}
layer {
  name: "inception_4c/3x3_reduce"
  type: "Convolution"
  bottom: "inception_4b/output"
  top: "inception_4c/3x3_reduce"
  param {
    lr_mult: 1
    decay_mult: 1
  }
  param {
    lr_mult: 2
    decay_mult: 0
  }
  convolution_param {
    num_output: 128
    kernel_size: 1
    weight_filler {
      type: "xavier"
      std: 0.09
    }
    bias_filler {
      type: "constant"
      value: 0.2
    }
  }
}
layer {
  name: "inception_4c/relu_3x3_reduce"
  type: "ReLU"
  bottom: "inception_4c/3x3_reduce"
  top: "inception_4c/3x3_reduce"
}
layer {
  name: "inception_4c/3x3"
  type: "Convolution"
  bottom: "inception_4c/3x3_reduce"
  top: "inception_4c/3x3"
  param {
    lr_mult: 1
    decay_mult: 1
  }
  param {
    lr_mult: 2
    decay_mult: 0
  }
  convolution_param {
    num_output: 256
    pad: 1
    kernel_size: 3
    weight_filler {
      type: "xavier"
      std: 0.03
    }
    bias_filler {
      type: "constant"
      value: 0.2
    }
  }
}
layer {
  name: "inception_4c/relu_3x3"
  type: "ReLU"
  bottom: "inception_4c/3x3"
  top: "inception_4c/3x3"
}
layer {
  name: "inception_4c/5x5_reduce"
  type: "Convolution"
  bottom: "inception_4b/output"
  top: "inception_4c/5x5_reduce"
  param {
    lr_mult: 1
    decay_mult: 1
  }
  param {
    lr_mult: 2
    decay_mult: 0
  }
  convolution_param {
    num_output: 24
    kernel_size: 1
    weight_filler {
      type: "xavier"
      std: 0.2
    }
    bias_filler {
      type: "constant"
      value: 0.2
    }
  }
}
layer {
  name: "inception_4c/relu_5x5_reduce"
  type: "ReLU"
  bottom: "inception_4c/5x5_reduce"
  top: "inception_4c/5x5_reduce"
}
layer {
  name: "inception_4c/5x5"
  type: "Convolution"
  bottom: "inception_4c/5x5_reduce"
  top: "inception_4c/5x5"
  param {
    lr_mult: 1
    decay_mult: 1
  }
  param {
    lr_mult: 2
    decay_mult: 0
  }
  convolution_param {
    num_output: 64
    pad: 2
    kernel_size: 5
    weight_filler {
      type: "xavier"
      std: 0.03
    }
    bias_filler {
      type: "constant"
      value: 0.2
    }
  }
}
layer {
  name: "inception_4c/relu_5x5"
  type: "ReLU"
  bottom: "inception_4c/5x5"
  top: "inception_4c/5x5"
}
layer {
  name: "inception_4c/pool"
  type: "Pooling"
  bottom: "inception_4b/output"
  top: "inception_4c/pool"
  pooling_param {
    pool: MAX
    kernel_size: 3
    stride: 1
    pad: 1
  }
}
layer {
  name: "inception_4c/pool_proj"
  type: "Convolution"
  bottom: "inception_4c/pool"
  top: "inception_4c/pool_proj"
  param {
    lr_mult: 1
    decay_mult: 1
  }
  param {
    lr_mult: 2
    decay_mult: 0
  }
  convolution_param {
    num_output: 64
    kernel_size: 1
    weight_filler {
      type: "xavier"
      std: 0.1
    }
    bias_filler {
      type: "constant"
      value: 0.2
    }
  }
}
layer {
  name: "inception_4c/relu_pool_proj"
  type: "ReLU"
  bottom: "inception_4c/pool_proj"
  top: "inception_4c/pool_proj"
}
layer {
  name: "inception_4c/output"
  type: "Concat"
  bottom: "inception_4c/1x1"
  bottom: "inception_4c/3x3"
  bottom: "inception_4c/5x5"
  bottom: "inception_4c/pool_proj"
  top: "inception_4c/output"
}
layer {
  name: "inception_4d/1x1"
  type: "Convolution"
  bottom: "inception_4c/output"
  top: "inception_4d/1x1"
  param {
    lr_mult: 1
    decay_mult: 1
  }
  param {
    lr_mult: 2
    decay_mult: 0
  }
  convolution_param {
    num_output: 112
    kernel_size: 1
    weight_filler {
      type: "xavier"
      std: 0.03
    }
    bias_filler {
      type: "constant"
      value: 0.2
    }
  }
}
layer {
  name: "inception_4d/relu_1x1"
  type: "ReLU"
  bottom: "inception_4d/1x1"
  top: "inception_4d/1x1"
}
layer {
  name: "inception_4d/3x3_reduce"
  type: "Convolution"
  bottom: "inception_4c/output"
  top: "inception_4d/3x3_reduce"
  param {
    lr_mult: 1
    decay_mult: 1
  }
  param {
    lr_mult: 2
    decay_mult: 0
  }
  convolution_param {
    num_output: 144
    kernel_size: 1
    weight_filler {
      type: "xavier"
      std: 0.09
    }
    bias_filler {
      type: "constant"
      value: 0.2
    }
  }
}
layer {
  name: "inception_4d/relu_3x3_reduce"
  type: "ReLU"
  bottom: "inception_4d/3x3_reduce"
  top: "inception_4d/3x3_reduce"
}
layer {
  name: "inception_4d/3x3"
  type: "Convolution"
  bottom: "inception_4d/3x3_reduce"
  top: "inception_4d/3x3"
  param {
    lr_mult: 1
    decay_mult: 1
  }
  param {
    lr_mult: 2
    decay_mult: 0
  }
  convolution_param {
    num_output: 288
    pad: 1
    kernel_size: 3
    weight_filler {
      type: "xavier"
      std: 0.03
    }
    bias_filler {
      type: "constant"
      value: 0.2
    }
  }
}
layer {
  name: "inception_4d/relu_3x3"
  type: "ReLU"
  bottom: "inception_4d/3x3"
  top: "inception_4d/3x3"
}
layer {
  name: "inception_4d/5x5_reduce"
  type: "Convolution"
  bottom: "inception_4c/output"
  top: "inception_4d/5x5_reduce"
  param {
    lr_mult: 1
    decay_mult: 1
  }
  param {
    lr_mult: 2
    decay_mult: 0
  }
  convolution_param {
    num_output: 32
    kernel_size: 1
    weight_filler {
      type: "xavier"
      std: 0.2
    }
    bias_filler {
      type: "constant"
      value: 0.2
    }
  }
}
layer {
  name: "inception_4d/relu_5x5_reduce"
  type: "ReLU"
  bottom: "inception_4d/5x5_reduce"
  top: "inception_4d/5x5_reduce"
}
layer {
  name: "inception_4d/5x5"
  type: "Convolution"
  bottom: "inception_4d/5x5_reduce"
  top: "inception_4d/5x5"
  param {
    lr_mult: 1
    decay_mult: 1
  }
  param {
    lr_mult: 2
    decay_mult: 0
  }
  convolution_param {
    num_output: 64
    pad: 2
    kernel_size: 5
    weight_filler {
      type: "xavier"
      std: 0.03
    }
    bias_filler {
      type: "constant"
      value: 0.2
    }
  }
}
layer {
  name: "inception_4d/relu_5x5"
  type: "ReLU"
  bottom: "inception_4d/5x5"
  top: "inception_4d/5x5"
}
layer {
  name: "inception_4d/pool"
  type: "Pooling"
  bottom: "inception_4c/output"
  top: "inception_4d/pool"
  pooling_param {
    pool: MAX
    kernel_size: 3
    stride: 1
    pad: 1
  }
}
layer {
  name: "inception_4d/pool_proj"
  type: "Convolution"
  bottom: "inception_4d/pool"
  top: "inception_4d/pool_proj"
  param {
    lr_mult: 1
    decay_mult: 1
  }
  param {
    lr_mult: 2
    decay_mult: 0
  }
  convolution_param {
    num_output: 64
    kernel_size: 1
    weight_filler {
      type: "xavier"
      std: 0.1
    }
    bias_filler {
      type: "constant"
      value: 0.2
    }
  }
}
layer {
  name: "inception_4d/relu_pool_proj"
  type: "ReLU"
  bottom: "inception_4d/pool_proj"
  top: "inception_4d/pool_proj"
}
layer {
  name: "inception_4d/output"
  type: "Concat"
  bottom: "inception_4d/1x1"
  bottom: "inception_4d/3x3"
  bottom: "inception_4d/5x5"
  bottom: "inception_4d/pool_proj"
  top: "inception_4d/output"
}
layer {
  name: "loss2/ave_pool"
  type: "Pooling"
  bottom: "inception_4d/output"
  top: "loss2/ave_pool"
  pooling_param {
    pool: AVE
    kernel_size: 5
    stride: 3
  }
}
layer {
  name: "loss2/conv"
  type: "Convolution"
  bottom: "loss2/ave_pool"
  top: "loss2/conv"
  param {
    lr_mult: 1
    decay_mult: 1
  }
  param {
    lr_mult: 2
    decay_mult: 0
  }
  convolution_param {
    num_output: 128
    kernel_size: 1
    weight_filler {
      type: "xavier"
      std: 0.08
    }
    bias_filler {
      type: "constant"
      value: 0.2
    }
  }
}
layer {
  name: "loss2/relu_conv"
  type: "ReLU"
  bottom: "loss2/conv"
  top: "loss2/conv"
}
layer {
  name: "loss2/fc"
  type: "InnerProduct"
  bottom: "loss2/conv"
  top: "loss2/fc"
  param {
    lr_mult: 1
    decay_mult: 1
  }
  param {
    lr_mult: 2
    decay_mult: 0
  }
  inner_product_param {
    num_output: 1024
    weight_filler {
      type: "xavier"
      std: 0.02
    }
    bias_filler {
      type: "constant"
      value: 0.2
    }
  }
}
layer {
  name: "loss2/relu_fc"
  type: "ReLU"
  bottom: "loss2/fc"
  top: "loss2/fc"
}
layer {
  name: "loss2/drop_fc"
  type: "Dropout"
  bottom: "loss2/fc"
  top: "loss2/fc"
  dropout_param {
    dropout_ratio: 0.7
  }
}
layer {
  name: "loss2/classifier_plantvillage"
  type: "InnerProduct"
  bottom: "loss2/fc"
  top: "loss2/classifier_plantvillage"
  param {
    lr_mult: 1
    decay_mult: 1
  }
  param {
    lr_mult: 2
    decay_mult: 0
  }
  inner_product_param {
    num_output: 38
    weight_filler {
      type: "xavier"
      std: 0.0009765625
    }
    bias_filler {
      type: "constant"
      value: 0
    }
  }
}
layer {
  name: "inception_4e/1x1"
  type: "Convolution"
  bottom: "inception_4d/output"
  top: "inception_4e/1x1"
  param {
    lr_mult: 1
    decay_mult: 1
  }
  param {
    lr_mult: 2
    decay_mult: 0
  }
  convolution_param {
    num_output: 256
    kernel_size: 1
    weight_filler {
      type: "xavier"
      std: 0.03
    }
    bias_filler {
      type: "constant"
      value: 0.2
    }
  }
}
layer {
  name: "inception_4e/relu_1x1"
  type: "ReLU"
  bottom: "inception_4e/1x1"
  top: "inception_4e/1x1"
}
layer {
  name: "inception_4e/3x3_reduce"
  type: "Convolution"
  bottom: "inception_4d/output"
  top: "inception_4e/3x3_reduce"
  param {
    lr_mult: 1
    decay_mult: 1
  }
  param {
    lr_mult: 2
    decay_mult: 0
  }
  convolution_param {
    num_output: 160
    kernel_size: 1
    weight_filler {
      type: "xavier"
      std: 0.09
    }
    bias_filler {
      type: "constant"
      value: 0.2
    }
  }
}
layer {
  name: "inception_4e/relu_3x3_reduce"
  type: "ReLU"
  bottom: "inception_4e/3x3_reduce"
  top: "inception_4e/3x3_reduce"
}
layer {
  name: "inception_4e/3x3"
  type: "Convolution"
  bottom: "inception_4e/3x3_reduce"
  top: "inception_4e/3x3"
  param {
    lr_mult: 1
    decay_mult: 1
  }
  param {
    lr_mult: 2
    decay_mult: 0
  }
  convolution_param {
    num_output: 320
    pad: 1
    kernel_size: 3
    weight_filler {
      type: "xavier"
      std: 0.03
    }
    bias_filler {
      type: "constant"
      value: 0.2
    }
  }
}
layer {
  name: "inception_4e/relu_3x3"
  type: "ReLU"
  bottom: "inception_4e/3x3"
  top: "inception_4e/3x3"
}
layer {
  name: "inception_4e/5x5_reduce"
  type: "Convolution"
  bottom: "inception_4d/output"
  top: "inception_4e/5x5_reduce"
  param {
    lr_mult: 1
    decay_mult: 1
  }
  param {
    lr_mult: 2
    decay_mult: 0
  }
  convolution_param {
    num_output: 32
    kernel_size: 1
    weight_filler {
      type: "xavier"
      std: 0.2
    }
    bias_filler {
      type: "constant"
      value: 0.2
    }
  }
}
layer {
  name: "inception_4e/relu_5x5_reduce"
  type: "ReLU"
  bottom: "inception_4e/5x5_reduce"
  top: "inception_4e/5x5_reduce"
}
layer {
  name: "inception_4e/5x5"
  type: "Convolution"
  bottom: "inception_4e/5x5_reduce"
  top: "inception_4e/
I0403 21:50:07.167546 24404 layer_factory.hpp:77] Creating layer data
I0403 21:50:07.168123 24404 net.cpp:91] Creating Layer data
I0403 21:50:07.168154 24404 net.cpp:399] data -> data
I0403 21:50:07.168218 24404 net.cpp:399] data -> label
I0403 21:50:07.168258 24404 data_transformer.cpp:25] Loading mean file from: /home/mohanty/data/final_dataset/lmdb/segmented-80-20/mean.binaryproto
I0403 21:50:07.169405 24409 db_lmdb.cpp:38] Opened lmdb /home/mohanty/data/final_dataset/lmdb/segmented-80-20/test_db
I0403 21:50:07.180920 24404 data_layer.cpp:41] output data size: 24,3,224,224
I0403 21:50:07.208020 24404 net.cpp:141] Setting up data
I0403 21:50:07.208106 24404 net.cpp:148] Top shape: 24 3 224 224 (3612672)
I0403 21:50:07.208128 24404 net.cpp:148] Top shape: 24 (24)
I0403 21:50:07.208144 24404 net.cpp:156] Memory required for data: 14450784
I0403 21:50:07.208170 24404 layer_factory.hpp:77] Creating layer label_data_1_split
I0403 21:50:07.208209 24404 net.cpp:91] Creating Layer label_data_1_split
I0403 21:50:07.208230 24404 net.cpp:425] label_data_1_split <- label
I0403 21:50:07.208263 24404 net.cpp:399] label_data_1_split -> label_data_1_split_0
I0403 21:50:07.208292 24404 net.cpp:399] label_data_1_split -> label_data_1_split_1
I0403 21:50:07.208313 24404 net.cpp:399] label_data_1_split -> label_data_1_split_2
I0403 21:50:07.208335 24404 net.cpp:399] label_data_1_split -> label_data_1_split_3
I0403 21:50:07.208355 24404 net.cpp:399] label_data_1_split -> label_data_1_split_4
I0403 21:50:07.208375 24404 net.cpp:399] label_data_1_split -> label_data_1_split_5
I0403 21:50:07.208395 24404 net.cpp:399] label_data_1_split -> label_data_1_split_6
I0403 21:50:07.208416 24404 net.cpp:399] label_data_1_split -> label_data_1_split_7
I0403 21:50:07.208437 24404 net.cpp:399] label_data_1_split -> label_data_1_split_8
I0403 21:50:07.208458 24404 net.cpp:399] label_data_1_split -> label_data_1_split_9
I0403 21:50:07.208570 24404 net.cpp:141] Setting up label_data_1_split
I0403 21:50:07.208593 24404 net.cpp:148] Top shape: 24 (24)
I0403 21:50:07.208611 24404 net.cpp:148] Top shape: 24 (24)
I0403 21:50:07.208626 24404 net.cpp:148] Top shape: 24 (24)
I0403 21:50:07.208643 24404 net.cpp:148] Top shape: 24 (24)
I0403 21:50:07.208658 24404 net.cpp:148] Top shape: 24 (24)
I0403 21:50:07.208674 24404 net.cpp:148] Top shape: 24 (24)
I0403 21:50:07.208690 24404 net.cpp:148] Top shape: 24 (24)
I0403 21:50:07.208706 24404 net.cpp:148] Top shape: 24 (24)
I0403 21:50:07.208722 24404 net.cpp:148] Top shape: 24 (24)
I0403 21:50:07.208739 24404 net.cpp:148] Top shape: 24 (24)
I0403 21:50:07.208782 24404 net.cpp:156] Memory required for data: 14451744
I0403 21:50:07.208798 24404 layer_factory.hpp:77] Creating layer conv1/7x7_s2
I0403 21:50:07.208830 24404 net.cpp:91] Creating Layer conv1/7x7_s2
I0403 21:50:07.208850 24404 net.cpp:425] conv1/7x7_s2 <- data
I0403 21:50:07.208869 24404 net.cpp:399] conv1/7x7_s2 -> conv1/7x7_s2
I0403 21:50:07.349917 24404 net.cpp:141] Setting up conv1/7x7_s2
I0403 21:50:07.349997 24404 net.cpp:148] Top shape: 24 64 112 112 (19267584)
I0403 21:50:07.350014 24404 net.cpp:156] Memory required for data: 91522080
I0403 21:50:07.350046 24404 layer_factory.hpp:77] Creating layer conv1/relu_7x7
I0403 21:50:07.350072 24404 net.cpp:91] Creating Layer conv1/relu_7x7
I0403 21:50:07.350095 24404 net.cpp:425] conv1/relu_7x7 <- conv1/7x7_s2
I0403 21:50:07.350114 24404 net.cpp:386] conv1/relu_7x7 -> conv1/7x7_s2 (in-place)
I0403 21:50:07.350378 24404 net.cpp:141] Setting up conv1/relu_7x7
I0403 21:50:07.350405 24404 net.cpp:148] Top shape: 24 64 112 112 (19267584)
I0403 21:50:07.350420 24404 net.cpp:156] Memory required for data: 168592416
I0403 21:50:07.350436 24404 layer_factory.hpp:77] Creating layer pool1/3x3_s2
I0403 21:50:07.350462 24404 net.cpp:91] Creating Layer pool1/3x3_s2
I0403 21:50:07.350481 24404 net.cpp:425] pool1/3x3_s2 <- conv1/7x7_s2
I0403 21:50:07.350499 24404 net.cpp:399] pool1/3x3_s2 -> pool1/3x3_s2
I0403 21:50:07.350579 24404 net.cpp:141] Setting up pool1/3x3_s2
I0403 21:50:07.350603 24404 net.cpp:148] Top shape: 24 64 56 56 (4816896)
I0403 21:50:07.350620 24404 net.cpp:156] Memory required for data: 187860000
I0403 21:50:07.350635 24404 layer_factory.hpp:77] Creating layer pool1/norm1
I0403 21:50:07.350657 24404 net.cpp:91] Creating Layer pool1/norm1
I0403 21:50:07.350674 24404 net.cpp:425] pool1/norm1 <- pool1/3x3_s2
I0403 21:50:07.350694 24404 net.cpp:399] pool1/norm1 -> pool1/norm1
I0403 21:50:07.350986 24404 net.cpp:141] Setting up pool1/norm1
I0403 21:50:07.351014 24404 net.cpp:148] Top shape: 24 64 56 56 (4816896)
I0403 21:50:07.351030 24404 net.cpp:156] Memory required for data: 207127584
I0403 21:50:07.351047 24404 layer_factory.hpp:77] Creating layer conv2/3x3_reduce
I0403 21:50:07.351073 24404 net.cpp:91] Creating Layer conv2/3x3_reduce
I0403 21:50:07.351089 24404 net.cpp:425] conv2/3x3_reduce <- pool1/norm1
I0403 21:50:07.351110 24404 net.cpp:399] conv2/3x3_reduce -> conv2/3x3_reduce
I0403 21:50:07.352473 24404 net.cpp:141] Setting up conv2/3x3_reduce
I0403 21:50:07.352504 24404 net.cpp:148] Top shape: 24 64 56 56 (4816896)
I0403 21:50:07.352521 24404 net.cpp:156] Memory required for data: 226395168
I0403 21:50:07.352542 24404 layer_factory.hpp:77] Creating layer conv2/relu_3x3_reduce
I0403 21:50:07.352562 24404 net.cpp:91] Creating Layer conv2/relu_3x3_reduce
I0403 21:50:07.352579 24404 net.cpp:425] conv2/relu_3x3_reduce <- conv2/3x3_reduce
I0403 21:50:07.352598 24404 net.cpp:386] conv2/relu_3x3_reduce -> conv2/3x3_reduce (in-place)
I0403 21:50:07.352859 24404 net.cpp:141] Setting up conv2/relu_3x3_reduce
I0403 21:50:07.352888 24404 net.cpp:148] Top shape: 24 64 56 56 (4816896)
I0403 21:50:07.352917 24404 net.cpp:156] Memory required for data: 245662752
I0403 21:50:07.352934 24404 layer_factory.hpp:77] Creating layer conv2/3x3
I0403 21:50:07.352959 24404 net.cpp:91] Creating Layer conv2/3x3
I0403 21:50:07.352977 24404 net.cpp:425] conv2/3x3 <- conv2/3x3_reduce
I0403 21:50:07.353000 24404 net.cpp:399] conv2/3x3 -> conv2/3x3
I0403 21:50:07.355252 24404 net.cpp:141] Setting up conv2/3x3
I0403 21:50:07.355284 24404 net.cpp:148] Top shape: 24 192 56 56 (14450688)
I0403 21:50:07.355303 24404 net.cpp:156] Memory required for data: 303465504
I0403 21:50:07.355324 24404 layer_factory.hpp:77] Creating layer conv2/relu_3x3
I0403 21:50:07.355343 24404 net.cpp:91] Creating Layer conv2/relu_3x3
I0403 21:50:07.355360 24404 net.cpp:425] conv2/relu_3x3 <- conv2/3x3
I0403 21:50:07.355379 24404 net.cpp:386] conv2/relu_3x3 -> conv2/3x3 (in-place)
I0403 21:50:07.355550 24404 net.cpp:141] Setting up conv2/relu_3x3
I0403 21:50:07.355574 24404 net.cpp:148] Top shape: 24 192 56 56 (14450688)
I0403 21:50:07.355618 24404 net.cpp:156] Memory required for data: 361268256
I0403 21:50:07.355634 24404 layer_factory.hpp:77] Creating layer conv2/norm2
I0403 21:50:07.355655 24404 net.cpp:91] Creating Layer conv2/norm2
I0403 21:50:07.355672 24404 net.cpp:425] conv2/norm2 <- conv2/3x3
I0403 21:50:07.355690 24404 net.cpp:399] conv2/norm2 -> conv2/norm2
I0403 21:50:07.355984 24404 net.cpp:141] Setting up conv2/norm2
I0403 21:50:07.356011 24404 net.cpp:148] Top shape: 24 192 56 56 (14450688)
I0403 21:50:07.356026 24404 net.cpp:156] Memory required for data: 419071008
I0403 21:50:07.356042 24404 layer_factory.hpp:77] Creating layer pool2/3x3_s2
I0403 21:50:07.356063 24404 net.cpp:91] Creating Layer pool2/3x3_s2
I0403 21:50:07.356081 24404 net.cpp:425] pool2/3x3_s2 <- conv2/norm2
I0403 21:50:07.356101 24404 net.cpp:399] pool2/3x3_s2 -> pool2/3x3_s2
I0403 21:50:07.356153 24404 net.cpp:141] Setting up pool2/3x3_s2
I0403 21:50:07.356175 24404 net.cpp:148] Top shape: 24 192 28 28 (3612672)
I0403 21:50:07.356189 24404 net.cpp:156] Memory required for data: 433521696
I0403 21:50:07.356210 24404 layer_factory.hpp:77] Creating layer pool2/3x3_s2_pool2/3x3_s2_0_split
I0403 21:50:07.356231 24404 net.cpp:91] Creating Layer pool2/3x3_s2_pool2/3x3_s2_0_split
I0403 21:50:07.356247 24404 net.cpp:425] pool2/3x3_s2_pool2/3x3_s2_0_split <- pool2/3x3_s2
I0403 21:50:07.356266 24404 net.cpp:399] pool2/3x3_s2_pool2/3x3_s2_0_split -> pool2/3x3_s2_pool2/3x3_s2_0_split_0
I0403 21:50:07.356284 24404 net.cpp:399] pool2/3x3_s2_pool2/3x3_s2_0_split -> pool2/3x3_s2_pool2/3x3_s2_0_split_1
I0403 21:50:07.356305 24404 net.cpp:399] pool2/3x3_s2_pool2/3x3_s2_0_split -> pool2/3x3_s2_pool2/3x3_s2_0_split_2
I0403 21:50:07.356324 24404 net.cpp:399] pool2/3x3_s2_pool2/3x3_s2_0_split -> pool2/3x3_s2_pool2/3x3_s2_0_split_3
I0403 21:50:07.356397 24404 net.cpp:141] Setting up pool2/3x3_s2_pool2/3x3_s2_0_split
I0403 21:50:07.356420 24404 net.cpp:148] Top shape: 24 192 28 28 (3612672)
I0403 21:50:07.356437 24404 net.cpp:148] Top shape: 24 192 28 28 (3612672)
I0403 21:50:07.356453 24404 net.cpp:148] Top shape: 24 192 28 28 (3612672)
I0403 21:50:07.356469 24404 net.cpp:148] Top shape: 24 192 28 28 (3612672)
I0403 21:50:07.356484 24404 net.cpp:156] Memory required for data: 491324448
I0403 21:50:07.356499 24404 layer_factory.hpp:77] Creating layer inception_3a/1x1
I0403 21:50:07.356520 24404 net.cpp:91] Creating Layer inception_3a/1x1
I0403 21:50:07.356539 24404 net.cpp:425] inception_3a/1x1 <- pool2/3x3_s2_pool2/3x3_s2_0_split_0
I0403 21:50:07.356559 24404 net.cpp:399] inception_3a/1x1 -> inception_3a/1x1
I0403 21:50:07.358088 24404 net.cpp:141] Setting up inception_3a/1x1
I0403 21:50:07.358119 24404 net.cpp:148] Top shape: 24 64 28 28 (1204224)
I0403 21:50:07.358136 24404 net.cpp:156] Memory required for data: 496141344
I0403 21:50:07.358156 24404 layer_factory.hpp:77] Creating layer inception_3a/relu_1x1
I0403 21:50:07.358175 24404 net.cpp:91] Creating Layer inception_3a/relu_1x1
I0403 21:50:07.358191 24404 net.cpp:425] inception_3a/relu_1x1 <- inception_3a/1x1
I0403 21:50:07.358222 24404 net.cpp:386] inception_3a/relu_1x1 -> inception_3a/1x1 (in-place)
I0403 21:50:07.358393 24404 net.cpp:141] Setting up inception_3a/relu_1x1
I0403 21:50:07.358418 24404 net.cpp:148] Top shape: 24 64 28 28 (1204224)
I0403 21:50:07.358434 24404 net.cpp:156] Memory required for data: 500958240
I0403 21:50:07.358449 24404 layer_factory.hpp:77] Creating layer inception_3a/3x3_reduce
I0403 21:50:07.358471 24404 net.cpp:91] Creating Layer inception_3a/3x3_reduce
I0403 21:50:07.358489 24404 net.cpp:425] inception_3a/3x3_reduce <- pool2/3x3_s2_pool2/3x3_s2_0_split_1
I0403 21:50:07.358510 24404 net.cpp:399] inception_3a/3x3_reduce -> inception_3a/3x3_reduce
I0403 21:50:07.360195 24404 net.cpp:141] Setting up inception_3a/3x3_reduce
I0403 21:50:07.360230 24404 net.cpp:148] Top shape: 24 96 28 28 (1806336)
I0403 21:50:07.360247 24404 net.cpp:156] Memory required for data: 508183584
I0403 21:50:07.360268 24404 layer_factory.hpp:77] Creating layer inception_3a/relu_3x3_reduce
I0403 21:50:07.360304 24404 net.cpp:91] Creating Layer inception_3a/relu_3x3_reduce
I0403 21:50:07.360322 24404 net.cpp:425] inception_3a/relu_3x3_reduce <- inception_3a/3x3_reduce
I0403 21:50:07.360342 24404 net.cpp:386] inception_3a/relu_3x3_reduce -> inception_3a/3x3_reduce (in-place)
I0403 21:50:07.360512 24404 net.cpp:141] Setting up inception_3a/relu_3x3_reduce
I0403 21:50:07.360538 24404 net.cpp:148] Top shape: 24 96 28 28 (1806336)
I0403 21:50:07.360554 24404 net.cpp:156] Memory required for data: 515408928
I0403 21:50:07.360569 24404 layer_factory.hpp:77] Creating layer inception_3a/3x3
I0403 21:50:07.360594 24404 net.cpp:91] Creating Layer inception_3a/3x3
I0403 21:50:07.360611 24404 net.cpp:425] inception_3a/3x3 <- inception_3a/3x3_reduce
I0403 21:50:07.360630 24404 net.cpp:399] inception_3a/3x3 -> inception_3a/3x3
I0403 21:50:07.362216 24404 net.cpp:141] Setting up inception_3a/3x3
I0403 21:50:07.362244 24404 net.cpp:148] Top shape: 24 128 28 28 (2408448)
I0403 21:50:07.362260 24404 net.cpp:156] Memory required for data: 525042720
I0403 21:50:07.362278 24404 layer_factory.hpp:77] Creating layer inception_3a/relu_3x3
I0403 21:50:07.362295 24404 net.cpp:91] Creating Layer inception_3a/relu_3x3
I0403 21:50:07.362313 24404 net.cpp:425] inception_3a/relu_3x3 <- inception_3a/3x3
I0403 21:50:07.362332 24404 net.cpp:386] inception_3a/relu_3x3 -> inception_3a/3x3 (in-place)
I0403 21:50:07.362596 24404 net.cpp:141] Setting up inception_3a/relu_3x3
I0403 21:50:07.362622 24404 net.cpp:148] Top shape: 24 128 28 28 (2408448)
I0403 21:50:07.362637 24404 net.cpp:156] Memory required for data: 534676512
I0403 21:50:07.362651 24404 layer_factory.hpp:77] Creating layer inception_3a/5x5_reduce
I0403 21:50:07.362673 24404 net.cpp:91] Creating Layer inception_3a/5x5_reduce
I0403 21:50:07.362691 24404 net.cpp:425] inception_3a/5x5_reduce <- pool2/3x3_s2_pool2/3x3_s2_0_split_2
I0403 21:50:07.362716 24404 net.cpp:399] inception_3a/5x5_reduce -> inception_3a/5x5_reduce
I0403 21:50:07.363636 24404 net.cpp:141] Setting up inception_3a/5x5_reduce
I0403 21:50:07.363665 24404 net.cpp:148] Top shape: 24 16 28 28 (301056)
I0403 21:50:07.363682 24404 net.cpp:156] Memory required for data: 535880736
I0403 21:50:07.363699 24404 layer_factory.hpp:77] Creating layer inception_3a/relu_5x5_reduce
I0403 21:50:07.363718 24404 net.cpp:91] Creating Layer inception_3a/relu_5x5_reduce
I0403 21:50:07.363734 24404 net.cpp:425] inception_3a/relu_5x5_reduce <- inception_3a/5x5_reduce
I0403 21:50:07.363754 24404 net.cpp:386] inception_3a/relu_5x5_reduce -> inception_3a/5x5_reduce (in-place)
I0403 21:50:07.364063 24404 net.cpp:141] Setting up inception_3a/relu_5x5_reduce
I0403 21:50:07.364089 24404 net.cpp:148] Top shape: 24 16 28 28 (301056)
I0403 21:50:07.364105 24404 net.cpp:156] Memory required for data: 537084960
I0403 21:50:07.364120 24404 layer_factory.hpp:77] Creating layer inception_3a/5x5
I0403 21:50:07.364145 24404 net.cpp:91] Creating Layer inception_3a/5x5
I0403 21:50:07.364162 24404 net.cpp:425] inception_3a/5x5 <- inception_3a/5x5_reduce
I0403 21:50:07.364183 24404 net.cpp:399] inception_3a/5x5 -> inception_3a/5x5
I0403 21:50:07.365176 24404 net.cpp:141] Setting up inception_3a/5x5
I0403 21:50:07.365208 24404 net.cpp:148] Top shape: 24 32 28 28 (602112)
I0403 21:50:07.365226 24404 net.cpp:156] Memory required for data: 539493408
I0403 21:50:07.365244 24404 layer_factory.hpp:77] Creating layer inception_3a/relu_5x5
I0403 21:50:07.365263 24404 net.cpp:91] Creating Layer inception_3a/relu_5x5
I0403 21:50:07.365279 24404 net.cpp:425] inception_3a/relu_5x5 <- inception_3a/5x5
I0403 21:50:07.365299 24404 net.cpp:386] inception_3a/relu_5x5 -> inception_3a/5x5 (in-place)
I0403 21:50:07.365466 24404 net.cpp:141] Setting up inception_3a/relu_5x5
I0403 21:50:07.365491 24404 net.cpp:148] Top shape: 24 32 28 28 (602112)
I0403 21:50:07.365505 24404 net.cpp:156] Memory required for data: 541901856
I0403 21:50:07.365521 24404 layer_factory.hpp:77] Creating layer inception_3a/pool
I0403 21:50:07.365542 24404 net.cpp:91] Creating Layer inception_3a/pool
I0403 21:50:07.365571 24404 net.cpp:425] inception_3a/pool <- pool2/3x3_s2_pool2/3x3_s2_0_split_3
I0403 21:50:07.365591 24404 net.cpp:399] inception_3a/pool -> inception_3a/pool
I0403 21:50:07.365649 24404 net.cpp:141] Setting up inception_3a/pool
I0403 21:50:07.365672 24404 net.cpp:148] Top shape: 24 192 28 28 (3612672)
I0403 21:50:07.365687 24404 net.cpp:156] Memory required for data: 556352544
I0403 21:50:07.365702 24404 layer_factory.hpp:77] Creating layer inception_3a/pool_proj
I0403 21:50:07.365725 24404 net.cpp:91] Creating Layer inception_3a/pool_proj
I0403 21:50:07.365742 24404 net.cpp:425] inception_3a/pool_proj <- inception_3a/pool
I0403 21:50:07.365764 24404 net.cpp:399] inception_3a/pool_proj -> inception_3a/pool_proj
I0403 21:50:07.366680 24404 net.cpp:141] Setting up inception_3a/pool_proj
I0403 21:50:07.366708 24404 net.cpp:148] Top shape: 24 32 28 28 (602112)
I0403 21:50:07.366727 24404 net.cpp:156] Memory required for data: 558760992
I0403 21:50:07.366750 24404 layer_factory.hpp:77] Creating layer inception_3a/relu_pool_proj
I0403 21:50:07.366767 24404 net.cpp:91] Creating Layer inception_3a/relu_pool_proj
I0403 21:50:07.366783 24404 net.cpp:425] inception_3a/relu_pool_proj <- inception_3a/pool_proj
I0403 21:50:07.366803 24404 net.cpp:386] inception_3a/relu_pool_proj -> inception_3a/pool_proj (in-place)
I0403 21:50:07.367066 24404 net.cpp:141] Setting up inception_3a/relu_pool_proj
I0403 21:50:07.367092 24404 net.cpp:148] Top shape: 24 32 28 28 (602112)
I0403 21:50:07.367108 24404 net.cpp:156] Memory required for data: 561169440
I0403 21:50:07.367122 24404 layer_factory.hpp:77] Creating layer inception_3a/output
I0403 21:50:07.367139 24404 net.cpp:91] Creating Layer inception_3a/output
I0403 21:50:07.367156 24404 net.cpp:425] inception_3a/output <- inception_3a/1x1
I0403 21:50:07.367172 24404 net.cpp:425] inception_3a/output <- inception_3a/3x3
I0403 21:50:07.367187 24404 net.cpp:425] inception_3a/output <- inception_3a/5x5
I0403 21:50:07.367208 24404 net.cpp:425] inception_3a/output <- inception_3a/pool_proj
I0403 21:50:07.367229 24404 net.cpp:399] inception_3a/output -> inception_3a/output
I0403 21:50:07.367274 24404 net.cpp:141] Setting up inception_3a/output
I0403 21:50:07.367300 24404 net.cpp:148] Top shape: 24 256 28 28 (4816896)
I0403 21:50:07.367316 24404 net.cpp:156] Memory required for data: 580437024
I0403 21:50:07.367331 24404 layer_factory.hpp:77] Creating layer inception_3a/output_inception_3a/output_0_split
I0403 21:50:07.367348 24404 net.cpp:91] Creating Layer inception_3a/output_inception_3a/output_0_split
I0403 21:50:07.367363 24404 net.cpp:425] inception_3a/output_inception_3a/output_0_split <- inception_3a/output
I0403 21:50:07.367380 24404 net.cpp:399] inception_3a/output_inception_3a/output_0_split -> inception_3a/output_inception_3a/output_0_split_0
I0403 21:50:07.367399 24404 net.cpp:399] inception_3a/output_inception_3a/output_0_split -> inception_3a/output_inception_3a/output_0_split_1
I0403 21:50:07.367424 24404 net.cpp:399] inception_3a/output_inception_3a/output_0_split -> inception_3a/output_inception_3a/output_0_split_2
I0403 21:50:07.367445 24404 net.cpp:399] inception_3a/output_inception_3a/output_0_split -> inception_3a/output_inception_3a/output_0_split_3
I0403 21:50:07.367517 24404 net.cpp:141] Setting up inception_3a/output_inception_3a/output_0_split
I0403 21:50:07.367542 24404 net.cpp:148] Top shape: 24 256 28 28 (4816896)
I0403 21:50:07.367560 24404 net.cpp:148] Top shape: 24 256 28 28 (4816896)
I0403 21:50:07.367576 24404 net.cpp:148] Top shape: 24 256 28 28 (4816896)
I0403 21:50:07.367594 24404 net.cpp:148] Top shape: 24 256 28 28 (4816896)
I0403 21:50:07.367606 24404 net.cpp:156] Memory required for data: 657507360
I0403 21:50:07.367621 24404 layer_factory.hpp:77] Creating layer inception_3b/1x1
I0403 21:50:07.367645 24404 net.cpp:91] Creating Layer inception_3b/1x1
I0403 21:50:07.367662 24404 net.cpp:425] inception_3b/1x1 <- inception_3a/output_inception_3a/output_0_split_0
I0403 21:50:07.367681 24404 net.cpp:399] inception_3b/1x1 -> inception_3b/1x1
I0403 21:50:07.368772 24404 net.cpp:141] Setting up inception_3b/1x1
I0403 21:50:07.368813 24404 net.cpp:148] Top shape: 24 128 28 28 (2408448)
I0403 21:50:07.368830 24404 net.cpp:156] Memory required for data: 667141152
I0403 21:50:07.368850 24404 layer_factory.hpp:77] Creating layer inception_3b/relu_1x1
I0403 21:50:07.368867 24404 net.cpp:91] Creating Layer inception_3b/relu_1x1
I0403 21:50:07.368883 24404 net.cpp:425] inception_3b/relu_1x1 <- inception_3b/1x1
I0403 21:50:07.368902 24404 net.cpp:386] inception_3b/relu_1x1 -> inception_3b/1x1 (in-place)
I0403 21:50:07.369076 24404 net.cpp:141] Setting up inception_3b/relu_1x1
I0403 21:50:07.369102 24404 net.cpp:148] Top shape: 24 128 28 28 (2408448)
I0403 21:50:07.369117 24404 net.cpp:156] Memory required for data: 676774944
I0403 21:50:07.369133 24404 layer_factory.hpp:77] Creating layer inception_3b/3x3_reduce
I0403 21:50:07.369155 24404 net.cpp:91] Creating Layer inception_3b/3x3_reduce
I0403 21:50:07.369174 24404 net.cpp:425] inception_3b/3x3_reduce <- inception_3a/output_inception_3a/output_0_split_1
I0403 21:50:07.369194 24404 net.cpp:399] inception_3b/3x3_reduce -> inception_3b/3x3_reduce
I0403 21:50:07.370296 24404 net.cpp:141] Setting up inception_3b/3x3_reduce
I0403 21:50:07.370327 24404 net.cpp:148] Top shape: 24 128 28 28 (2408448)
I0403 21:50:07.370345 24404 net.cpp:156] Memory required for data: 686408736
I0403 21:50:07.370364 24404 layer_factory.hpp:77] Creating layer inception_3b/relu_3x3_reduce
I0403 21:50:07.370381 24404 net.cpp:91] Creating Layer inception_3b/relu_3x3_reduce
I0403 21:50:07.370398 24404 net.cpp:425] inception_3b/relu_3x3_reduce <- inception_3b/3x3_reduce
I0403 21:50:07.370416 24404 net.cpp:386] inception_3b/relu_3x3_reduce -> inception_3b/3x3_reduce (in-place)
I0403 21:50:07.370584 24404 net.cpp:141] Setting up inception_3b/relu_3x3_reduce
I0403 21:50:07.370609 24404 net.cpp:148] Top shape: 24 128 28 28 (2408448)
I0403 21:50:07.370623 24404 net.cpp:156] Memory required for data: 696042528
I0403 21:50:07.370637 24404 layer_factory.hpp:77] Creating layer inception_3b/3x3
I0403 21:50:07.370662 24404 net.cpp:91] Creating Layer inception_3b/3x3
I0403 21:50:07.370682 24404 net.cpp:425] inception_3b/3x3 <- inception_3b/3x3_reduce
I0403 21:50:07.370702 24404 net.cpp:399] inception_3b/3x3 -> inception_3b/3x3
I0403 21:50:07.373589 24404 net.cpp:141] Setting up inception_3b/3x3
I0403 21:50:07.373616 24404 net.cpp:148] Top shape: 24 192 28 28 (3612672)
I0403 21:50:07.373631 24404 net.cpp:156] Memory required for data: 710493216
I0403 21:50:07.373651 24404 layer_factory.hpp:77] Creating layer inception_3b/relu_3x3
I0403 21:50:07.373669 24404 net.cpp:91] Creating Layer inception_3b/relu_3x3
I0403 21:50:07.373687 24404 net.cpp:425] inception_3b/relu_3x3 <- inception_3b/3x3
I0403 21:50:07.373705 24404 net.cpp:386] inception_3b/relu_3x3 -> inception_3b/3x3 (in-place)
I0403 21:50:07.373977 24404 net.cpp:141] Setting up inception_3b/relu_3x3
I0403 21:50:07.374004 24404 net.cpp:148] Top shape: 24 192 28 28 (3612672)
I0403 21:50:07.374020 24404 net.cpp:156] Memory required for data: 724943904
I0403 21:50:07.374035 24404 layer_factory.hpp:77] Creating layer inception_3b/5x5_reduce
I0403 21:50:07.374058 24404 net.cpp:91] Creating Layer inception_3b/5x5_reduce
I0403 21:50:07.374076 24404 net.cpp:425] inception_3b/5x5_reduce <- inception_3a/output_inception_3a/output_0_split_2
I0403 21:50:07.374099 24404 net.cpp:399] inception_3b/5x5_reduce -> inception_3b/5x5_reduce
I0403 21:50:07.375051 24404 net.cpp:141] Setting up inception_3b/5x5_reduce
I0403 21:50:07.375079 24404 net.cpp:148] Top shape: 24 32 28 28 (602112)
I0403 21:50:07.375095 24404 net.cpp:156] Memory required for data: 727352352
I0403 21:50:07.375114 24404 layer_factory.hpp:77] Creating layer inception_3b/relu_5x5_reduce
I0403 21:50:07.375133 24404 net.cpp:91] Creating Layer inception_3b/relu_5x5_reduce
I0403 21:50:07.375150 24404 net.cpp:425] inception_3b/relu_5x5_reduce <- inception_3b/5x5_reduce
I0403 21:50:07.375170 24404 net.cpp:386] inception_3b/relu_5x5_reduce -> inception_3b/5x5_reduce (in-place)
I0403 21:50:07.375357 24404 net.cpp:141] Setting up inception_3b/relu_5x5_reduce
I0403 21:50:07.375382 24404 net.cpp:148] Top shape: 24 32 28 28 (602112)
I0403 21:50:07.375398 24404 net.cpp:156] Memory required for data: 729760800
I0403 21:50:07.375414 24404 layer_factory.hpp:77] Creating layer inception_3b/5x5
I0403 21:50:07.375437 24404 net.cpp:91] Creating Layer inception_3b/5x5
I0403 21:50:07.375455 24404 net.cpp:425] inception_3b/5x5 <- inception_3b/5x5_reduce
I0403 21:50:07.375478 24404 net.cpp:399] inception_3b/5x5 -> inception_3b/5x5
I0403 21:50:07.377390 24404 net.cpp:141] Setting up inception_3b/5x5
I0403 21:50:07.377421 24404 net.cpp:148] Top shape: 24 96 28 28 (1806336)
I0403 21:50:07.377439 24404 net.cpp:156] Memory required for data: 736986144
I0403 21:50:07.377457 24404 layer_factory.hpp:77] Creating layer inception_3b/relu_5x5
I0403 21:50:07.377475 24404 net.cpp:91] Creating Layer inception_3b/relu_5x5
I0403 21:50:07.377491 24404 net.cpp:425] inception_3b/relu_5x5 <- inception_3b/5x5
I0403 21:50:07.377508 24404 net.cpp:386] inception_3b/relu_5x5 -> inception_3b/5x5 (in-place)
I0403 21:50:07.377693 24404 net.cpp:141] Setting up inception_3b/relu_5x5
I0403 21:50:07.377719 24404 net.cpp:148] Top shape: 24 96 28 28 (1806336)
I0403 21:50:07.377734 24404 net.cpp:156] Memory required for data: 744211488
I0403 21:50:07.377749 24404 layer_factory.hpp:77] Creating layer inception_3b/pool
I0403 21:50:07.377766 24404 net.cpp:91] Creating Layer inception_3b/pool
I0403 21:50:07.377781 24404 net.cpp:425] inception_3b/pool <- inception_3a/output_inception_3a/output_0_split_3
I0403 21:50:07.377800 24404 net.cpp:399] inception_3b/pool -> inception_3b/pool
I0403 21:50:07.377853 24404 net.cpp:141] Setting up inception_3b/pool
I0403 21:50:07.377879 24404 net.cpp:148] Top shape: 24 256 28 28 (4816896)
I0403 21:50:07.377897 24404 net.cpp:156] Memory required for data: 763479072
I0403 21:50:07.377912 24404 layer_factory.hpp:77] Creating layer inception_3b/pool_proj
I0403 21:50:07.377933 24404 net.cpp:91] Creating Layer inception_3b/pool_proj
I0403 21:50:07.377950 24404 net.cpp:425] inception_3b/pool_proj <- inception_3b/pool
I0403 21:50:07.377969 24404 net.cpp:399] inception_3b/pool_proj -> inception_3b/pool_proj
I0403 21:50:07.379001 24404 net.cpp:141] Setting up inception_3b/pool_proj
I0403 21:50:07.379029 24404 net.cpp:148] Top shape: 24 64 28 28 (1204224)
I0403 21:50:07.379045 24404 net.cpp:156] Memory required for data: 768295968
I0403 21:50:07.379065 24404 layer_factory.hpp:77] Creating layer inception_3b/relu_pool_proj
I0403 21:50:07.379084 24404 net.cpp:91] Creating Layer inception_3b/relu_pool_proj
I0403 21:50:07.379102 24404 net.cpp:425] inception_3b/relu_pool_proj <- inception_3b/pool_proj
I0403 21:50:07.379119 24404 net.cpp:386] inception_3b/relu_pool_proj -> inception_3b/pool_proj (in-place)
I0403 21:50:07.379516 24404 net.cpp:141] Setting up inception_3b/relu_pool_proj
I0403 21:50:07.379544 24404 net.cpp:148] Top shape: 24 64 28 28 (1204224)
I0403 21:50:07.379559 24404 net.cpp:156] Memory required for data: 773112864
I0403 21:50:07.379575 24404 layer_factory.hpp:77] Creating layer inception_3b/output
I0403 21:50:07.379591 24404 net.cpp:91] Creating Layer inception_3b/output
I0403 21:50:07.379607 24404 net.cpp:425] inception_3b/output <- inception_3b/1x1
I0403 21:50:07.379624 24404 net.cpp:425] inception_3b/output <- inception_3b/3x3
I0403 21:50:07.379650 24404 net.cpp:425] inception_3b/output <- inception_3b/5x5
I0403 21:50:07.379667 24404 net.cpp:425] inception_3b/output <- inception_3b/pool_proj
I0403 21:50:07.379685 24404 net.cpp:399] inception_3b/output -> inception_3b/output
I0403 21:50:07.379726 24404 net.cpp:141] Setting up inception_3b/output
I0403 21:50:07.379752 24404 net.cpp:148] Top shape: 24 480 28 28 (9031680)
I0403 21:50:07.379767 24404 net.cpp:156] Memory required for data: 809239584
I0403 21:50:07.379782 24404 layer_factory.hpp:77] Creating layer pool3/3x3_s2
I0403 21:50:07.379801 24404 net.cpp:91] Creating Layer pool3/3x3_s2
I0403 21:50:07.379815 24404 net.cpp:425] pool3/3x3_s2 <- inception_3b/output
I0403 21:50:07.379848 24404 net.cpp:399] pool3/3x3_s2 -> pool3/3x3_s2
I0403 21:50:07.379906 24404 net.cpp:141] Setting up pool3/3x3_s2
I0403 21:50:07.379931 24404 net.cpp:148] Top shape: 24 480 14 14 (2257920)
I0403 21:50:07.379945 24404 net.cpp:156] Memory required for data: 818271264
I0403 21:50:07.379961 24404 layer_factory.hpp:77] Creating layer pool3/3x3_s2_pool3/3x3_s2_0_split
I0403 21:50:07.379979 24404 net.cpp:91] Creating Layer pool3/3x3_s2_pool3/3x3_s2_0_split
I0403 21:50:07.379995 24404 net.cpp:425] pool3/3x3_s2_pool3/3x3_s2_0_split <- pool3/3x3_s2
I0403 21:50:07.380012 24404 net.cpp:399] pool3/3x3_s2_pool3/3x3_s2_0_split -> pool3/3x3_s2_pool3/3x3_s2_0_split_0
I0403 21:50:07.380031 24404 net.cpp:399] pool3/3x3_s2_pool3/3x3_s2_0_split -> pool3/3x3_s2_pool3/3x3_s2_0_split_1
I0403 21:50:07.380055 24404 net.cpp:399] pool3/3x3_s2_pool3/3x3_s2_0_split -> pool3/3x3_s2_pool3/3x3_s2_0_split_2
I0403 21:50:07.380075 24404 net.cpp:399] pool3/3x3_s2_pool3/3x3_s2_0_split -> pool3/3x3_s2_pool3/3x3_s2_0_split_3
I0403 21:50:07.380149 24404 net.cpp:141] Setting up pool3/3x3_s2_pool3/3x3_s2_0_split
I0403 21:50:07.380173 24404 net.cpp:148] Top shape: 24 480 14 14 (2257920)
I0403 21:50:07.380190 24404 net.cpp:148] Top shape: 24 480 14 14 (2257920)
I0403 21:50:07.380213 24404 net.cpp:148] Top shape: 24 480 14 14 (2257920)
I0403 21:50:07.380229 24404 net.cpp:148] Top shape: 24 480 14 14 (2257920)
I0403 21:50:07.380244 24404 net.cpp:156] Memory required for data: 854397984
I0403 21:50:07.380259 24404 layer_factory.hpp:77] Creating layer inception_4a/1x1
I0403 21:50:07.380280 24404 net.cpp:91] Creating Layer inception_4a/1x1
I0403 21:50:07.380297 24404 net.cpp:425] inception_4a/1x1 <- pool3/3x3_s2_pool3/3x3_s2_0_split_0
I0403 21:50:07.380318 24404 net.cpp:399] inception_4a/1x1 -> inception_4a/1x1
I0403 21:50:07.381824 24404 net.cpp:141] Setting up inception_4a/1x1
I0403 21:50:07.381852 24404 net.cpp:148] Top shape: 24 192 14 14 (903168)
I0403 21:50:07.381868 24404 net.cpp:156] Memory required for data: 858010656
I0403 21:50:07.381887 24404 layer_factory.hpp:77] Creating layer inception_4a/relu_1x1
I0403 21:50:07.381907 24404 net.cpp:91] Creating Layer inception_4a/relu_1x1
I0403 21:50:07.381927 24404 net.cpp:425] inception_4a/relu_1x1 <- inception_4a/1x1
I0403 21:50:07.381944 24404 net.cpp:386] inception_4a/relu_1x1 -> inception_4a/1x1 (in-place)
I0403 21:50:07.382117 24404 net.cpp:141] Setting up inception_4a/relu_1x1
I0403 21:50:07.382144 24404 net.cpp:148] Top shape: 24 192 14 14 (903168)
I0403 21:50:07.382160 24404 net.cpp:156] Memory required for data: 861623328
I0403 21:50:07.382175 24404 layer_factory.hpp:77] Creating layer inception_4a/3x3_reduce
I0403 21:50:07.382201 24404 net.cpp:91] Creating Layer inception_4a/3x3_reduce
I0403 21:50:07.382220 24404 net.cpp:425] inception_4a/3x3_reduce <- pool3/3x3_s2_pool3/3x3_s2_0_split_1
I0403 21:50:07.382239 24404 net.cpp:399] inception_4a/3x3_reduce -> inception_4a/3x3_reduce
I0403 21:50:07.383451 24404 net.cpp:141] Setting up inception_4a/3x3_reduce
I0403 21:50:07.383481 24404 net.cpp:148] Top shape: 24 96 14 14 (451584)
I0403 21:50:07.383496 24404 net.cpp:156] Memory required for data: 863429664
I0403 21:50:07.383520 24404 layer_factory.hpp:77] Creating layer inception_4a/relu_3x3_reduce
I0403 21:50:07.383543 24404 net.cpp:91] Creating Layer inception_4a/relu_3x3_reduce
I0403 21:50:07.383560 24404 net.cpp:425] inception_4a/relu_3x3_reduce <- inception_4a/3x3_reduce
I0403 21:50:07.383579 24404 net.cpp:386] inception_4a/relu_3x3_reduce -> inception_4a/3x3_reduce (in-place)
I0403 21:50:07.383747 24404 net.cpp:141] Setting up inception_4a/relu_3x3_reduce
I0403 21:50:07.383772 24404 net.cpp:148] Top shape: 24 96 14 14 (451584)
I0403 21:50:07.383787 24404 net.cpp:156] Memory required for data: 865236000
I0403 21:50:07.383802 24404 layer_factory.hpp:77] Creating layer inception_4a/3x3
I0403 21:50:07.383826 24404 net.cpp:91] Creating Layer inception_4a/3x3
I0403 21:50:07.383844 24404 net.cpp:425] inception_4a/3x3 <- inception_4a/3x3_reduce
I0403 21:50:07.383864 24404 net.cpp:399] inception_4a/3x3 -> inception_4a/3x3
I0403 21:50:07.386461 24404 net.cpp:141] Setting up inception_4a/3x3
I0403 21:50:07.386492 24404 net.cpp:148] Top shape: 24 208 14 14 (978432)
I0403 21:50:07.386508 24404 net.cpp:156] Memory required for data: 869149728
I0403 21:50:07.386528 24404 layer_factory.hpp:77] Creating layer inception_4a/relu_3x3
I0403 21:50:07.386546 24404 net.cpp:91] Creating Layer inception_4a/relu_3x3
I0403 21:50:07.386564 24404 net.cpp:425] inception_4a/relu_3x3 <- inception_4a/3x3
I0403 21:50:07.386581 24404 net.cpp:386] inception_4a/relu_3x3 -> inception_4a/3x3 (in-place)
I0403 21:50:07.386849 24404 net.cpp:141] Setting up inception_4a/relu_3x3
I0403 21:50:07.386876 24404 net.cpp:148] Top shape: 24 208 14 14 (978432)
I0403 21:50:07.386894 24404 net.cpp:156] Memory required for data: 873063456
I0403 21:50:07.386909 24404 layer_factory.hpp:77] Creating layer inception_4a/5x5_reduce
I0403 21:50:07.386934 24404 net.cpp:91] Creating Layer inception_4a/5x5_reduce
I0403 21:50:07.386952 24404 net.cpp:425] inception_4a/5x5_reduce <- pool3/3x3_s2_pool3/3x3_s2_0_split_2
I0403 21:50:07.386972 24404 net.cpp:399] inception_4a/5x5_reduce -> inception_4a/5x5_reduce
I0403 21:50:07.387953 24404 net.cpp:141] Setting up inception_4a/5x5_reduce
I0403 21:50:07.387982 24404 net.cpp:148] Top shape: 24 16 14 14 (75264)
I0403 21:50:07.387998 24404 net.cpp:156] Memory required for data: 873364512
I0403 21:50:07.388017 24404 layer_factory.hpp:77] Creating layer inception_4a/relu_5x5_reduce
I0403 21:50:07.388036 24404 net.cpp:91] Creating Layer inception_4a/relu_5x5_reduce
I0403 21:50:07.388052 24404 net.cpp:425] inception_4a/relu_5x5_reduce <- inception_4a/5x5_reduce
I0403 21:50:07.388072 24404 net.cpp:386] inception_4a/relu_5x5_reduce -> inception_4a/5x5_reduce (in-place)
I0403 21:50:07.388252 24404 net.cpp:141] Setting up inception_4a/relu_5x5_reduce
I0403 21:50:07.388278 24404 net.cpp:148] Top shape: 24 16 14 14 (75264)
I0403 21:50:07.388293 24404 net.cpp:156] Memory required for data: 873665568
I0403 21:50:07.388308 24404 layer_factory.hpp:77] Creating layer inception_4a/5x5
I0403 21:50:07.388329 24404 net.cpp:91] Creating Layer inception_4a/5x5
I0403 21:50:07.388347 24404 net.cpp:425] inception_4a/5x5 <- inception_4a/5x5_reduce
I0403 21:50:07.388367 24404 net.cpp:399] inception_4a/5x5 -> inception_4a/5x5
I0403 21:50:07.389443 24404 net.cpp:141] Setting up inception_4a/5x5
I0403 21:50:07.389472 24404 net.cpp:148] Top shape: 24 48 14 14 (225792)
I0403 21:50:07.389487 24404 net.cpp:156] Memory required for data: 874568736
I0403 21:50:07.389508 24404 layer_factory.hpp:77] Creating layer inception_4a/relu_5x5
I0403 21:50:07.389529 24404 net.cpp:91] Creating Layer inception_4a/relu_5x5
I0403 21:50:07.389547 24404 net.cpp:425] inception_4a/relu_5x5 <- inception_4a/5x5
I0403 21:50:07.389578 24404 net.cpp:386] inception_4a/relu_5x5 -> inception_4a/5x5 (in-place)
I0403 21:50:07.389747 24404 net.cpp:141] Setting up inception_4a/relu_5x5
I0403 21:50:07.389775 24404 net.cpp:148] Top shape: 24 48 14 14 (225792)
I0403 21:50:07.389792 24404 net.cpp:156] Memory required for data: 875471904
I0403 21:50:07.389807 24404 layer_factory.hpp:77] Creating layer inception_4a/pool
I0403 21:50:07.389825 24404 net.cpp:91] Creating Layer inception_4a/pool
I0403 21:50:07.389842 24404 net.cpp:425] inception_4a/pool <- pool3/3x3_s2_pool3/3x3_s2_0_split_3
I0403 21:50:07.389858 24404 net.cpp:399] inception_4a/pool -> inception_4a/pool
I0403 21:50:07.389919 24404 net.cpp:141] Setting up inception_4a/pool
I0403 21:50:07.389941 24404 net.cpp:148] Top shape: 24 480 14 14 (2257920)
I0403 21:50:07.389956 24404 net.cpp:156] Memory required for data: 884503584
I0403 21:50:07.389972 24404 layer_factory.hpp:77] Creating layer inception_4a/pool_proj
I0403 21:50:07.389993 24404 net.cpp:91] Creating Layer inception_4a/pool_proj
I0403 21:50:07.390012 24404 net.cpp:425] inception_4a/pool_proj <- inception_4a/pool
I0403 21:50:07.390032 24404 net.cpp:399] inception_4a/pool_proj -> inception_4a/pool_proj
I0403 21:50:07.391165 24404 net.cpp:141] Setting up inception_4a/pool_proj
I0403 21:50:07.391193 24404 net.cpp:148] Top shape: 24 64 14 14 (301056)
I0403 21:50:07.391227 24404 net.cpp:156] Memory required for data: 885707808
I0403 21:50:07.391247 24404 layer_factory.hpp:77] Creating layer inception_4a/relu_pool_proj
I0403 21:50:07.391268 24404 net.cpp:91] Creating Layer inception_4a/relu_pool_proj
I0403 21:50:07.391286 24404 net.cpp:425] inception_4a/relu_pool_proj <- inception_4a/pool_proj
I0403 21:50:07.391304 24404 net.cpp:386] inception_4a/relu_pool_proj -> inception_4a/pool_proj (in-place)
I0403 21:50:07.391576 24404 net.cpp:141] Setting up inception_4a/relu_pool_proj
I0403 21:50:07.391602 24404 net.cpp:148] Top shape: 24 64 14 14 (301056)
I0403 21:50:07.391616 24404 net.cpp:156] Memory required for data: 886912032
I0403 21:50:07.391631 24404 layer_factory.hpp:77] Creating layer inception_4a/output
I0403 21:50:07.391651 24404 net.cpp:91] Creating Layer inception_4a/output
I0403 21:50:07.391669 24404 net.cpp:425] inception_4a/output <- inception_4a/1x1
I0403 21:50:07.391685 24404 net.cpp:425] inception_4a/output <- inception_4a/3x3
I0403 21:50:07.391702 24404 net.cpp:425] inception_4a/output <- inception_4a/5x5
I0403 21:50:07.391718 24404 net.cpp:425] inception_4a/output <- inception_4a/pool_proj
I0403 21:50:07.391734 24404 net.cpp:399] inception_4a/output -> inception_4a/output
I0403 21:50:07.391778 24404 net.cpp:141] Setting up inception_4a/output
I0403 21:50:07.391801 24404 net.cpp:148] Top shape: 24 512 14 14 (2408448)
I0403 21:50:07.391816 24404 net.cpp:156] Memory required for data: 896545824
I0403 21:50:07.391832 24404 layer_factory.hpp:77] Creating layer inception_4a/output_inception_4a/output_0_split
I0403 21:50:07.391849 24404 net.cpp:91] Creating Layer inception_4a/output_inception_4a/output_0_split
I0403 21:50:07.391865 24404 net.cpp:425] inception_4a/output_inception_4a/output_0_split <- inception_4a/output
I0403 21:50:07.391883 24404 net.cpp:399] inception_4a/output_inception_4a/output_0_split -> inception_4a/output_inception_4a/output_0_split_0
I0403 21:50:07.391904 24404 net.cpp:399] inception_4a/output_inception_4a/output_0_split -> inception_4a/output_inception_4a/output_0_split_1
I0403 21:50:07.391927 24404 net.cpp:399] inception_4a/output_inception_4a/output_0_split -> inception_4a/output_inception_4a/output_0_split_2
I0403 21:50:07.391948 24404 net.cpp:399] inception_4a/output_inception_4a/output_0_split -> inception_4a/output_inception_4a/output_0_split_3
I0403 21:50:07.391968 24404 net.cpp:399] inception_4a/output_inception_4a/output_0_split -> inception_4a/output_inception_4a/output_0_split_4
I0403 21:50:07.392060 24404 net.cpp:141] Setting up inception_4a/output_inception_4a/output_0_split
I0403 21:50:07.392083 24404 net.cpp:148] Top shape: 24 512 14 14 (2408448)
I0403 21:50:07.392099 24404 net.cpp:148] Top shape: 24 512 14 14 (2408448)
I0403 21:50:07.392117 24404 net.cpp:148] Top shape: 24 512 14 14 (2408448)
I0403 21:50:07.392132 24404 net.cpp:148] Top shape: 24 512 14 14 (2408448)
I0403 21:50:07.392148 24404 net.cpp:148] Top shape: 24 512 14 14 (2408448)
I0403 21:50:07.392163 24404 net.cpp:156] Memory required for data: 944714784
I0403 21:50:07.392177 24404 layer_factory.hpp:77] Creating layer loss1/ave_pool
I0403 21:50:07.392199 24404 net.cpp:91] Creating Layer loss1/ave_pool
I0403 21:50:07.392217 24404 net.cpp:425] loss1/ave_pool <- inception_4a/output_inception_4a/output_0_split_0
I0403 21:50:07.392237 24404 net.cpp:399] loss1/ave_pool -> loss1/ave_pool
I0403 21:50:07.392433 24404 net.cpp:141] Setting up loss1/ave_pool
I0403 21:50:07.392458 24404 net.cpp:148] Top shape: 24 512 4 4 (196608)
I0403 21:50:07.392474 24404 net.cpp:156] Memory required for data: 945501216
I0403 21:50:07.392490 24404 layer_factory.hpp:77] Creating layer loss1/conv
I0403 21:50:07.392513 24404 net.cpp:91] Creating Layer loss1/conv
I0403 21:50:07.392530 24404 net.cpp:425] loss1/conv <- loss1/ave_pool
I0403 21:50:07.392551 24404 net.cpp:399] loss1/conv -> loss1/conv
I0403 21:50:07.393901 24404 net.cpp:141] Setting up loss1/conv
I0403 21:50:07.393932 24404 net.cpp:148] Top shape: 24 128 4 4 (49152)
I0403 21:50:07.393965 24404 net.cpp:156] Memory required for data: 945697824
I0403 21:50:07.393985 24404 layer_factory.hpp:77] Creating layer loss1/relu_conv
I0403 21:50:07.394004 24404 net.cpp:91] Creating Layer loss1/relu_conv
I0403 21:50:07.394021 24404 net.cpp:425] loss1/relu_conv <- loss1/conv
I0403 21:50:07.394038 24404 net.cpp:386] loss1/relu_conv -> loss1/conv (in-place)
I0403 21:50:07.394314 24404 net.cpp:141] Setting up loss1/relu_conv
I0403 21:50:07.394341 24404 net.cpp:148] Top shape: 24 128 4 4 (49152)
I0403 21:50:07.394357 24404 net.cpp:156] Memory required for data: 945894432
I0403 21:50:07.394373 24404 layer_factory.hpp:77] Creating layer loss1/fc
I0403 21:50:07.394397 24404 net.cpp:91] Creating Layer loss1/fc
I0403 21:50:07.394417 24404 net.cpp:425] loss1/fc <- loss1/conv
I0403 21:50:07.394436 24404 net.cpp:399] loss1/fc -> loss1/fc
I0403 21:50:07.411840 24404 net.cpp:141] Setting up loss1/fc
I0403 21:50:07.411875 24404 net.cpp:148] Top shape: 24 1024 (24576)
I0403 21:50:07.411890 24404 net.cpp:156] Memory required for data: 945992736
I0403 21:50:07.411909 24404 layer_factory.hpp:77] Creating layer loss1/relu_fc
I0403 21:50:07.411931 24404 net.cpp:91] Creating Layer loss1/relu_fc
I0403 21:50:07.411947 24404 net.cpp:425] loss1/relu_fc <- loss1/fc
I0403 21:50:07.411964 24404 net.cpp:386] loss1/relu_fc -> loss1/fc (in-place)
I0403 21:50:07.412145 24404 net.cpp:141] Setting up loss1/relu_fc
I0403 21:50:07.412173 24404 net.cpp:148] Top shape: 24 1024 (24576)
I0403 21:50:07.412188 24404 net.cpp:156] Memory required for data: 946091040
I0403 21:50:07.412207 24404 layer_factory.hpp:77] Creating layer loss1/drop_fc
I0403 21:50:07.412233 24404 net.cpp:91] Creating Layer loss1/drop_fc
I0403 21:50:07.412252 24404 net.cpp:425] loss1/drop_fc <- loss1/fc
I0403 21:50:07.412271 24404 net.cpp:386] loss1/drop_fc -> loss1/fc (in-place)
I0403 21:50:07.412322 24404 net.cpp:141] Setting up loss1/drop_fc
I0403 21:50:07.412344 24404 net.cpp:148] Top shape: 24 1024 (24576)
I0403 21:50:07.412359 24404 net.cpp:156] Memory required for data: 946189344
I0403 21:50:07.412376 24404 layer_factory.hpp:77] Creating layer loss1/classifier_plantvillage
I0403 21:50:07.412397 24404 net.cpp:91] Creating Layer loss1/classifier_plantvillage
I0403 21:50:07.412415 24404 net.cpp:425] loss1/classifier_plantvillage <- loss1/fc
I0403 21:50:07.412433 24404 net.cpp:399] loss1/classifier_plantvillage -> loss1/classifier_plantvillage
I0403 21:50:07.413331 24404 net.cpp:141] Setting up loss1/classifier_plantvillage
I0403 21:50:07.413362 24404 net.cpp:148] Top shape: 24 38 (912)
I0403 21:50:07.413379 24404 net.cpp:156] Memory required for data: 946192992
I0403 21:50:07.413398 24404 layer_factory.hpp:77] Creating layer loss1/classifier_plantvillage_loss1/classifier_plantvillage_0_split
I0403 21:50:07.413417 24404 net.cpp:91] Creating Layer loss1/classifier_plantvillage_loss1/classifier_plantvillage_0_split
I0403 21:50:07.413434 24404 net.cpp:425] loss1/classifier_plantvillage_loss1/classifier_plantvillage_0_split <- loss1/classifier_plantvillage
I0403 21:50:07.413451 24404 net.cpp:399] loss1/classifier_plantvillage_loss1/classifier_plantvillage_0_split -> loss1/classifier_plantvillage_loss1/classifier_plantvillage_0_split_0
I0403 21:50:07.413471 24404 net.cpp:399] loss1/classifier_plantvillage_loss1/classifier_plantvillage_0_split -> loss1/classifier_plantvillage_loss1/classifier_plantvillage_0_split_1
I0403 21:50:07.413493 24404 net.cpp:399] loss1/classifier_plantvillage_loss1/classifier_plantvillage_0_split -> loss1/classifier_plantvillage_loss1/classifier_plantvillage_0_split_2
I0403 21:50:07.413568 24404 net.cpp:141] Setting up loss1/classifier_plantvillage_loss1/classifier_plantvillage_0_split
I0403 21:50:07.413591 24404 net.cpp:148] Top shape: 24 38 (912)
I0403 21:50:07.413616 24404 net.cpp:148] Top shape: 24 38 (912)
I0403 21:50:07.413632 24404 net.cpp:148] Top shape: 24 38 (912)
I0403 21:50:07.413646 24404 net.cpp:156] Memory required for data: 946203936
I0403 21:50:07.413661 24404 layer_factory.hpp:77] Creating layer inception_4b/1x1
I0403 21:50:07.413681 24404 net.cpp:91] Creating Layer inception_4b/1x1
I0403 21:50:07.413713 24404 net.cpp:425] inception_4b/1x1 <- inception_4a/output_inception_4a/output_0_split_1
I0403 21:50:07.413736 24404 net.cpp:399] inception_4b/1x1 -> inception_4b/1x1
I0403 21:50:07.415338 24404 net.cpp:141] Setting up inception_4b/1x1
I0403 21:50:07.415376 24404 net.cpp:148] Top shape: 24 160 14 14 (752640)
I0403 21:50:07.415392 24404 net.cpp:156] Memory required for data: 949214496
I0403 21:50:07.415411 24404 layer_factory.hpp:77] Creating layer inception_4b/relu_1x1
I0403 21:50:07.415429 24404 net.cpp:91] Creating Layer inception_4b/relu_1x1
I0403 21:50:07.415446 24404 net.cpp:425] inception_4b/relu_1x1 <- inception_4b/1x1
I0403 21:50:07.415467 24404 net.cpp:386] inception_4b/relu_1x1 -> inception_4b/1x1 (in-place)
I0403 21:50:07.415639 24404 net.cpp:141] Setting up inception_4b/relu_1x1
I0403 21:50:07.415673 24404 net.cpp:148] Top shape: 24 160 14 14 (752640)
I0403 21:50:07.415688 24404 net.cpp:156] Memory required for data: 952225056
I0403 21:50:07.415702 24404 layer_factory.hpp:77] Creating layer inception_4b/3x3_reduce
I0403 21:50:07.415724 24404 net.cpp:91] Creating Layer inception_4b/3x3_reduce
I0403 21:50:07.415741 24404 net.cpp:425] inception_4b/3x3_reduce <- inception_4a/output_inception_4a/output_0_split_2
I0403 21:50:07.415762 24404 net.cpp:399] inception_4b/3x3_reduce -> inception_4b/3x3_reduce
I0403 21:50:07.417063 24404 net.cpp:141] Setting up inception_4b/3x3_reduce
I0403 21:50:07.417090 24404 net.cpp:148] Top shape: 24 112 14 14 (526848)
I0403 21:50:07.417106 24404 net.cpp:156] Memory required for data: 954332448
I0403 21:50:07.417125 24404 layer_factory.hpp:77] Creating layer inception_4b/relu_3x3_reduce
I0403 21:50:07.417145 24404 net.cpp:91] Creating Layer inception_4b/relu_3x3_reduce
I0403 21:50:07.417162 24404 net.cpp:425] inception_4b/relu_3x3_reduce <- inception_4b/3x3_reduce
I0403 21:50:07.417179 24404 net.cpp:386] inception_4b/relu_3x3_reduce -> inception_4b/3x3_reduce (in-place)
I0403 21:50:07.417459 24404 net.cpp:141] Setting up inception_4b/relu_3x3_reduce
I0403 21:50:07.417486 24404 net.cpp:148] Top shape: 24 112 14 14 (526848)
I0403 21:50:07.417501 24404 net.cpp:156] Memory required for data: 956439840
I0403 21:50:07.417516 24404 layer_factory.hpp:77] Creating layer inception_4b/3x3
I0403 21:50:07.417538 24404 net.cpp:91] Creating Layer inception_4b/3x3
I0403 21:50:07.417557 24404 net.cpp:425] inception_4b/3x3 <- inception_4b/3x3_reduce
I0403 21:50:07.417582 24404 net.cpp:399] inception_4b/3x3 -> inception_4b/3x3
I0403 21:50:07.420545 24404 net.cpp:141] Setting up inception_4b/3x3
I0403 21:50:07.420573 24404 net.cpp:148] Top shape: 24 224 14 14 (1053696)
I0403 21:50:07.420589 24404 net.cpp:156] Memory required for data: 960654624
I0403 21:50:07.420608 24404 layer_factory.hpp:77] Creating layer inception_4b/relu_3x3
I0403 21:50:07.420627 24404 net.cpp:91] Creating Layer inception_4b/relu_3x3
I0403 21:50:07.420644 24404 net.cpp:425] inception_4b/relu_3x3 <- inception_4b/3x3
I0403 21:50:07.420662 24404 net.cpp:386] inception_4b/relu_3x3 -> inception_4b/3x3 (in-place)
I0403 21:50:07.420836 24404 net.cpp:141] Setting up inception_4b/relu_3x3
I0403 21:50:07.420862 24404 net.cpp:148] Top shape: 24 224 14 14 (1053696)
I0403 21:50:07.420878 24404 net.cpp:156] Memory required for data: 964869408
I0403 21:50:07.420892 24404 layer_factory.hpp:77] Creating layer inception_4b/5x5_reduce
I0403 21:50:07.420914 24404 net.cpp:91] Creating Layer inception_4b/5x5_reduce
I0403 21:50:07.420933 24404 net.cpp:425] inception_4b/5x5_reduce <- inception_4a/output_inception_4a/output_0_split_3
I0403 21:50:07.420951 24404 net.cpp:399] inception_4b/5x5_reduce -> inception_4b/5x5_reduce
I0403 21:50:07.422011 24404 net.cpp:141] Setting up inception_4b/5x5_reduce
I0403 21:50:07.422039 24404 net.cpp:148] Top shape: 24 24 14 14 (112896)
I0403 21:50:07.422055 24404 net.cpp:156] Memory required for data: 965320992
I0403 21:50:07.422073 24404 layer_factory.hpp:77] Creating layer inception_4b/relu_5x5_reduce
I0403 21:50:07.422091 24404 net.cpp:91] Creating Layer inception_4b/relu_5x5_reduce
I0403 21:50:07.422122 24404 net.cpp:425] inception_4b/relu_5x5_reduce <- inception_4b/5x5_reduce
I0403 21:50:07.422143 24404 net.cpp:386] inception_4b/relu_5x5_reduce -> inception_4b/5x5_reduce (in-place)
I0403 21:50:07.422322 24404 net.cpp:141] Setting up inception_4b/relu_5x5_reduce
I0403 21:50:07.422348 24404 net.cpp:148] Top shape: 24 24 14 14 (112896)
I0403 21:50:07.422363 24404 net.cpp:156] Memory required for data: 965772576
I0403 21:50:07.422376 24404 layer_factory.hpp:77] Creating layer inception_4b/5x5
I0403 21:50:07.422399 24404 net.cpp:91] Creating Layer inception_4b/5x5
I0403 21:50:07.422416 24404 net.cpp:425] inception_4b/5x5 <- inception_4b/5x5_reduce
I0403 21:50:07.422436 24404 net.cpp:399] inception_4b/5x5 -> inception_4b/5x5
I0403 21:50:07.423617 24404 net.cpp:141] Setting up inception_4b/5x5
I0403 21:50:07.423647 24404 net.cpp:148] Top shape: 24 64 14 14 (301056)
I0403 21:50:07.423663 24404 net.cpp:156] Memory required for data: 966976800
I0403 21:50:07.423682 24404 layer_factory.hpp:77] Creating layer inception_4b/relu_5x5
I0403 21:50:07.423701 24404 net.cpp:91] Creating Layer inception_4b/relu_5x5
I0403 21:50:07.423717 24404 net.cpp:425] inception_4b/relu_5x5 <- inception_4b/5x5
I0403 21:50:07.423735 24404 net.cpp:386] inception_4b/relu_5x5 -> inception_4b/5x5 (in-place)
I0403 21:50:07.424008 24404 net.cpp:141] Setting up inception_4b/relu_5x5
I0403 21:50:07.424036 24404 net.cpp:148] Top shape: 24 64 14 14 (301056)
I0403 21:50:07.424051 24404 net.cpp:156] Memory required for data: 968181024
I0403 21:50:07.424065 24404 layer_factory.hpp:77] Creating layer inception_4b/pool
I0403 21:50:07.424083 24404 net.cpp:91] Creating Layer inception_4b/pool
I0403 21:50:07.424099 24404 net.cpp:425] inception_4b/pool <- inception_4a/output_inception_4a/output_0_split_4
I0403 21:50:07.424120 24404 net.cpp:399] inception_4b/pool -> inception_4b/pool
I0403 21:50:07.424183 24404 net.cpp:141] Setting up inception_4b/pool
I0403 21:50:07.424211 24404 net.cpp:148] Top shape: 24 512 14 14 (2408448)
I0403 21:50:07.424226 24404 net.cpp:156] Memory required for data: 977814816
I0403 21:50:07.424240 24404 layer_factory.hpp:77] Creating layer inception_4b/pool_proj
I0403 21:50:07.424263 24404 net.cpp:91] Creating Layer inception_4b/pool_proj
I0403 21:50:07.424281 24404 net.cpp:425] inception_4b/pool_proj <- inception_4b/pool
I0403 21:50:07.424300 24404 net.cpp:399] inception_4b/pool_proj -> inception_4b/pool_proj
I0403 21:50:07.425467 24404 net.cpp:141] Setting up inception_4b/pool_proj
I0403 21:50:07.425493 24404 net.cpp:148] Top shape: 24 64 14 14 (301056)
I0403 21:50:07.425508 24404 net.cpp:156] Memory required for data: 979019040
I0403 21:50:07.425526 24404 layer_factory.hpp:77] Creating layer inception_4b/relu_pool_proj
I0403 21:50:07.425544 24404 net.cpp:91] Creating Layer inception_4b/relu_pool_proj
I0403 21:50:07.425560 24404 net.cpp:425] inception_4b/relu_pool_proj <- inception_4b/pool_proj
I0403 21:50:07.425581 24404 net.cpp:386] inception_4b/relu_pool_proj -> inception_4b/pool_proj (in-place)
I0403 21:50:07.425755 24404 net.cpp:141] Setting up inception_4b/relu_pool_proj
I0403 21:50:07.425781 24404 net.cpp:148] Top shape: 24 64 14 14 (301056)
I0403 21:50:07.425794 24404 net.cpp:156] Memory required for data: 980223264
I0403 21:50:07.425808 24404 layer_factory.hpp:77] Creating layer inception_4b/output
I0403 21:50:07.425827 24404 net.cpp:91] Creating Layer inception_4b/output
I0403 21:50:07.425844 24404 net.cpp:425] inception_4b/output <- inception_4b/1x1
I0403 21:50:07.425860 24404 net.cpp:425] inception_4b/output <- inception_4b/3x3
I0403 21:50:07.425876 24404 net.cpp:425] inception_4b/output <- inception_4b/5x5
I0403 21:50:07.425892 24404 net.cpp:425] inception_4b/output <- inception_4b/pool_proj
I0403 21:50:07.425907 24404 net.cpp:399] inception_4b/output -> inception_4b/output
I0403 21:50:07.425952 24404 net.cpp:141] Setting up inception_4b/output
I0403 21:50:07.425978 24404 net.cpp:148] Top shape: 24 512 14 14 (2408448)
I0403 21:50:07.425992 24404 net.cpp:156] Memory required for data: 989857056
I0403 21:50:07.426022 24404 layer_factory.hpp:77] Creating layer inception_4b/output_inception_4b/output_0_split
I0403 21:50:07.426039 24404 net.cpp:91] Creating Layer inception_4b/output_inception_4b/output_0_split
I0403 21:50:07.426054 24404 net.cpp:425] inception_4b/output_inception_4b/output_0_split <- inception_4b/output
I0403 21:50:07.426074 24404 net.cpp:399] inception_4b/output_inception_4b/output_0_split -> inception_4b/output_inception_4b/output_0_split_0
I0403 21:50:07.426093 24404 net.cpp:399] inception_4b/output_inception_4b/output_0_split -> inception_4b/output_inception_4b/output_0_split_1
I0403 21:50:07.426113 24404 net.cpp:399] inception_4b/output_inception_4b/output_0_split -> inception_4b/output_inception_4b/output_0_split_2
I0403 21:50:07.426133 24404 net.cpp:399] inception_4b/output_inception_4b/output_0_split -> inception_4b/output_inception_4b/output_0_split_3
I0403 21:50:07.426218 24404 net.cpp:141] Setting up inception_4b/output_inception_4b/output_0_split
I0403 21:50:07.426244 24404 net.cpp:148] Top shape: 24 512 14 14 (2408448)
I0403 21:50:07.426260 24404 net.cpp:148] Top shape: 24 512 14 14 (2408448)
I0403 21:50:07.426276 24404 net.cpp:148] Top shape: 24 512 14 14 (2408448)
I0403 21:50:07.426292 24404 net.cpp:148] Top shape: 24 512 14 14 (2408448)
I0403 21:50:07.426306 24404 net.cpp:156] Memory required for data: 1028392224
I0403 21:50:07.426321 24404 layer_factory.hpp:77] Creating layer inception_4c/1x1
I0403 21:50:07.426343 24404 net.cpp:91] Creating Layer inception_4c/1x1
I0403 21:50:07.426360 24404 net.cpp:425] inception_4c/1x1 <- inception_4b/output_inception_4b/output_0_split_0
I0403 21:50:07.426379 24404 net.cpp:399] inception_4c/1x1 -> inception_4c/1x1
I0403 21:50:07.427764 24404 net.cpp:141] Setting up inception_4c/1x1
I0403 21:50:07.427791 24404 net.cpp:148] Top shape: 24 128 14 14 (602112)
I0403 21:50:07.427808 24404 net.cpp:156] Memory required for data: 1030800672
I0403 21:50:07.427826 24404 layer_factory.hpp:77] Creating layer inception_4c/relu_1x1
I0403 21:50:07.427845 24404 net.cpp:91] Creating Layer inception_4c/relu_1x1
I0403 21:50:07.427862 24404 net.cpp:425] inception_4c/relu_1x1 <- inception_4c/1x1
I0403 21:50:07.427880 24404 net.cpp:386] inception_4c/relu_1x1 -> inception_4c/1x1 (in-place)
I0403 21:50:07.428057 24404 net.cpp:141] Setting up inception_4c/relu_1x1
I0403 21:50:07.428086 24404 net.cpp:148] Top shape: 24 128 14 14 (602112)
I0403 21:50:07.428100 24404 net.cpp:156] Memory required for data: 1033209120
I0403 21:50:07.428117 24404 layer_factory.hpp:77] Creating layer inception_4c/3x3_reduce
I0403 21:50:07.428138 24404 net.cpp:91] Creating Layer inception_4c/3x3_reduce
I0403 21:50:07.428155 24404 net.cpp:425] inception_4c/3x3_reduce <- inception_4b/output_inception_4b/output_0_split_1
I0403 21:50:07.428174 24404 net.cpp:399] inception_4c/3x3_reduce -> inception_4c/3x3_reduce
I0403 21:50:07.430124 24404 net.cpp:141] Setting up inception_4c/3x3_reduce
I0403 21:50:07.430155 24404 net.cpp:148] Top shape: 24 128 14 14 (602112)
I0403 21:50:07.430172 24404 net.cpp:156] Memory required for data: 1035617568
I0403 21:50:07.430191 24404 layer_factory.hpp:77] Creating layer inception_4c/relu_3x3_reduce
I0403 21:50:07.430213 24404 net.cpp:91] Creating Layer inception_4c/relu_3x3_reduce
I0403 21:50:07.430230 24404 net.cpp:425] inception_4c/relu_3x3_reduce <- inception_4c/3x3_reduce
I0403 21:50:07.430250 24404 net.cpp:386] inception_4c/relu_3x3_reduce -> inception_4c/3x3_reduce (in-place)
I0403 21:50:07.430531 24404 net.cpp:141] Setting up inception_4c/relu_3x3_reduce
I0403 21:50:07.430558 24404 net.cpp:148] Top shape: 24 128 14 14 (602112)
I0403 21:50:07.430574 24404 net.cpp:156] Memory required for data: 1038026016
I0403 21:50:07.430589 24404 layer_factory.hpp:77] Creating layer inception_4c/3x3
I0403 21:50:07.430613 24404 net.cpp:91] Creating Layer inception_4c/3x3
I0403 21:50:07.430630 24404 net.cpp:425] inception_4c/3x3 <- inception_4c/3x3_reduce
I0403 21:50:07.430650 24404 net.cpp:399] inception_4c/3x3 -> inception_4c/3x3
I0403 21:50:07.434212 24404 net.cpp:141] Setting up inception_4c/3x3
I0403 21:50:07.434253 24404 net.cpp:148] Top shape: 24 256 14 14 (1204224)
I0403 21:50:07.434270 24404 net.cpp:156] Memory required for data: 1042842912
I0403 21:50:07.434303 24404 layer_factory.hpp:77] Creating layer inception_4c/relu_3x3
I0403 21:50:07.434322 24404 net.cpp:91] Creating Layer inception_4c/relu_3x3
I0403 21:50:07.434340 24404 net.cpp:425] inception_4c/relu_3x3 <- inception_4c/3x3
I0403 21:50:07.434360 24404 net.cpp:386] inception_4c/relu_3x3 -> inception_4c/3x3 (in-place)
I0403 21:50:07.434541 24404 net.cpp:141] Setting up inception_4c/relu_3x3
I0403 21:50:07.434566 24404 net.cpp:148] Top shape: 24 256 14 14 (1204224)
I0403 21:50:07.434581 24404 net.cpp:156] Memory required for data: 1047659808
I0403 21:50:07.434597 24404 layer_factory.hpp:77] Creating layer inception_4c/5x5_reduce
I0403 21:50:07.434620 24404 net.cpp:91] Creating Layer inception_4c/5x5_reduce
I0403 21:50:07.434639 24404 net.cpp:425] inception_4c/5x5_reduce <- inception_4b/output_inception_4b/output_0_split_2
I0403 21:50:07.434659 24404 net.cpp:399] inception_4c/5x5_reduce -> inception_4c/5x5_reduce
I0403 21:50:07.435722 24404 net.cpp:141] Setting up inception_4c/5x5_reduce
I0403 21:50:07.435752 24404 net.cpp:148] Top shape: 24 24 14 14 (112896)
I0403 21:50:07.435768 24404 net.cpp:156] Memory required for data: 1048111392
I0403 21:50:07.435786 24404 layer_factory.hpp:77] Creating layer inception_4c/relu_5x5_reduce
I0403 21:50:07.435806 24404 net.cpp:91] Creating Layer inception_4c/relu_5x5_reduce
I0403 21:50:07.435822 24404 net.cpp:425] inception_4c/relu_5x5_reduce <- inception_4c/5x5_reduce
I0403 21:50:07.435839 24404 net.cpp:386] inception_4c/relu_5x5_reduce -> inception_4c/5x5_reduce (in-place)
I0403 21:50:07.436020 24404 net.cpp:141] Setting up inception_4c/relu_5x5_reduce
I0403 21:50:07.436045 24404 net.cpp:148] Top shape: 24 24 14 14 (112896)
I0403 21:50:07.436060 24404 net.cpp:156] Memory required for data: 1048562976
I0403 21:50:07.436074 24404 layer_factory.hpp:77] Creating layer inception_4c/5x5
I0403 21:50:07.436096 24404 net.cpp:91] Creating Layer inception_4c/5x5
I0403 21:50:07.436113 24404 net.cpp:425] inception_4c/5x5 <- inception_4c/5x5_reduce
I0403 21:50:07.436134 24404 net.cpp:399] inception_4c/5x5 -> inception_4c/5x5
I0403 21:50:07.437389 24404 net.cpp:141] Setting up inception_4c/5x5
I0403 21:50:07.437417 24404 net.cpp:148] Top shape: 24 64 14 14 (301056)
I0403 21:50:07.437432 24404 net.cpp:156] Memory required for data: 1049767200
I0403 21:50:07.437449 24404 layer_factory.hpp:77] Creating layer inception_4c/relu_5x5
I0403 21:50:07.437469 24404 net.cpp:91] Creating Layer inception_4c/relu_5x5
I0403 21:50:07.437485 24404 net.cpp:425] inception_4c/relu_5x5 <- inception_4c/5x5
I0403 21:50:07.437504 24404 net.cpp:386] inception_4c/relu_5x5 -> inception_4c/5x5 (in-place)
I0403 21:50:07.437782 24404 net.cpp:141] Setting up inception_4c/relu_5x5
I0403 21:50:07.437808 24404 net.cpp:148] Top shape: 24 64 14 14 (301056)
I0403 21:50:07.437822 24404 net.cpp:156] Memory required for data: 1050971424
I0403 21:50:07.437839 24404 layer_factory.hpp:77] Creating layer inception_4c/pool
I0403 21:50:07.437858 24404 net.cpp:91] Creating Layer inception_4c/pool
I0403 21:50:07.437875 24404 net.cpp:425] inception_4c/pool <- inception_4b/output_inception_4b/output_0_split_3
I0403 21:50:07.437892 24404 net.cpp:399] inception_4c/pool -> inception_4c/pool
I0403 21:50:07.437957 24404 net.cpp:141] Setting up inception_4c/pool
I0403 21:50:07.437979 24404 net.cpp:148] Top shape: 24 512 14 14 (2408448)
I0403 21:50:07.437994 24404 net.cpp:156] Memory required for data: 1060605216
I0403 21:50:07.438007 24404 layer_factory.hpp:77] Creating layer inception_4c/pool_proj
I0403 21:50:07.438029 24404 net.cpp:91] Creating Layer inception_4c/pool_proj
I0403 21:50:07.438045 24404 net.cpp:425] inception_4c/pool_proj <- inception_4c/pool
I0403 21:50:07.438066 24404 net.cpp:399] inception_4c/pool_proj -> inception_4c/pool_proj
I0403 21:50:07.439262 24404 net.cpp:141] Setting up inception_4c/pool_proj
I0403 21:50:07.439291 24404 net.cpp:148] Top shape: 24 64 14 14 (301056)
I0403 21:50:07.439318 24404 net.cpp:156] Memory required for data: 1061809440
I0403 21:50:07.439337 24404 layer_factory.hpp:77] Creating layer inception_4c/relu_pool_proj
I0403 21:50:07.439355 24404 net.cpp:91] Creating Layer inception_4c/relu_pool_proj
I0403 21:50:07.439371 24404 net.cpp:425] inception_4c/relu_pool_proj <- inception_4c/pool_proj
I0403 21:50:07.439390 24404 net.cpp:386] inception_4c/relu_pool_proj -> inception_4c/pool_proj (in-place)
I0403 21:50:07.439569 24404 net.cpp:141] Setting up inception_4c/relu_pool_proj
I0403 21:50:07.439594 24404 net.cpp:148] Top shape: 24 64 14 14 (301056)
I0403 21:50:07.439609 24404 net.cpp:156] Memory required for data: 1063013664
I0403 21:50:07.439623 24404 layer_factory.hpp:77] Creating layer inception_4c/output
I0403 21:50:07.439641 24404 net.cpp:91] Creating Layer inception_4c/output
I0403 21:50:07.439658 24404 net.cpp:425] inception_4c/output <- inception_4c/1x1
I0403 21:50:07.439674 24404 net.cpp:425] inception_4c/output <- inception_4c/3x3
I0403 21:50:07.439689 24404 net.cpp:425] inception_4c/output <- inception_4c/5x5
I0403 21:50:07.439704 24404 net.cpp:425] inception_4c/output <- inception_4c/pool_proj
I0403 21:50:07.439721 24404 net.cpp:399] inception_4c/output -> inception_4c/output
I0403 21:50:07.439765 24404 net.cpp:141] Setting up inception_4c/output
I0403 21:50:07.439790 24404 net.cpp:148] Top shape: 24 512 14 14 (2408448)
I0403 21:50:07.439805 24404 net.cpp:156] Memory required for data: 1072647456
I0403 21:50:07.439820 24404 layer_factory.hpp:77] Creating layer inception_4c/output_inception_4c/output_0_split
I0403 21:50:07.439836 24404 net.cpp:91] Creating Layer inception_4c/output_inception_4c/output_0_split
I0403 21:50:07.439851 24404 net.cpp:425] inception_4c/output_inception_4c/output_0_split <- inception_4c/output
I0403 21:50:07.439868 24404 net.cpp:399] inception_4c/output_inception_4c/output_0_split -> inception_4c/output_inception_4c/output_0_split_0
I0403 21:50:07.439889 24404 net.cpp:399] inception_4c/output_inception_4c/output_0_split -> inception_4c/output_inception_4c/output_0_split_1
I0403 21:50:07.439909 24404 net.cpp:399] inception_4c/output_inception_4c/output_0_split -> inception_4c/output_inception_4c/output_0_split_2
I0403 21:50:07.439930 24404 net.cpp:399] inception_4c/output_inception_4c/output_0_split -> inception_4c/output_inception_4c/output_0_split_3
I0403 21:50:07.440011 24404 net.cpp:141] Setting up inception_4c/output_inception_4c/output_0_split
I0403 21:50:07.440037 24404 net.cpp:148] Top shape: 24 512 14 14 (2408448)
I0403 21:50:07.440054 24404 net.cpp:148] Top shape: 24 512 14 14 (2408448)
I0403 21:50:07.440069 24404 net.cpp:148] Top shape: 24 512 14 14 (2408448)
I0403 21:50:07.440085 24404 net.cpp:148] Top shape: 24 512 14 14 (2408448)
I0403 21:50:07.440099 24404 net.cpp:156] Memory required for data: 1111182624
I0403 21:50:07.440114 24404 layer_factory.hpp:77] Creating layer inception_4d/1x1
I0403 21:50:07.440135 24404 net.cpp:91] Creating Layer inception_4d/1x1
I0403 21:50:07.440152 24404 net.cpp:425] inception_4d/1x1 <- inception_4c/output_inception_4c/output_0_split_0
I0403 21:50:07.440171 24404 net.cpp:399] inception_4d/1x1 -> inception_4d/1x1
I0403 21:50:07.441509 24404 net.cpp:141] Setting up inception_4d/1x1
I0403 21:50:07.441537 24404 net.cpp:148] Top shape: 24 112 14 14 (526848)
I0403 21:50:07.441553 24404 net.cpp:156] Memory required for data: 1113290016
I0403 21:50:07.441571 24404 layer_factory.hpp:77] Creating layer inception_4d/relu_1x1
I0403 21:50:07.441588 24404 net.cpp:91] Creating Layer inception_4d/relu_1x1
I0403 21:50:07.441604 24404 net.cpp:425] inception_4d/relu_1x1 <- inception_4d/1x1
I0403 21:50:07.441620 24404 net.cpp:386] inception_4d/relu_1x1 -> inception_4d/1x1 (in-place)
I0403 21:50:07.441798 24404 net.cpp:141] Setting up inception_4d/relu_1x1
I0403 21:50:07.441830 24404 net.cpp:148] Top shape: 24 112 14 14 (526848)
I0403 21:50:07.441846 24404 net.cpp:156] Memory required for data: 1115397408
I0403 21:50:07.441860 24404 layer_factory.hpp:77] Creating layer inception_4d/3x3_reduce
I0403 21:50:07.441895 24404 net.cpp:91] Creating Layer inception_4d/3x3_reduce
I0403 21:50:07.441912 24404 net.cpp:425] inception_4d/3x3_reduce <- inception_4c/output_inception_4c/output_0_split_1
I0403 21:50:07.441936 24404 net.cpp:399] inception_4d/3x3_reduce -> inception_4d/3x3_reduce
I0403 21:50:07.443406 24404 net.cpp:141] Setting up inception_4d/3x3_reduce
I0403 21:50:07.443433 24404 net.cpp:148] Top shape: 24 144 14 14 (677376)
I0403 21:50:07.443447 24404 net.cpp:156] Memory required for data: 1118106912
I0403 21:50:07.443465 24404 layer_factory.hpp:77] Creating layer inception_4d/relu_3x3_reduce
I0403 21:50:07.443485 24404 net.cpp:91] Creating Layer inception_4d/relu_3x3_reduce
I0403 21:50:07.443501 24404 net.cpp:425] inception_4d/relu_3x3_reduce <- inception_4d/3x3_reduce
I0403 21:50:07.443518 24404 net.cpp:386] inception_4d/relu_3x3_reduce -> inception_4d/3x3_reduce (in-place)
I0403 21:50:07.443800 24404 net.cpp:141] Setting up inception_4d/relu_3x3_reduce
I0403 21:50:07.443825 24404 net.cpp:148] Top shape: 24 144 14 14 (677376)
I0403 21:50:07.443840 24404 net.cpp:156] Memory required for data: 1120816416
I0403 21:50:07.443855 24404 layer_factory.hpp:77] Creating layer inception_4d/3x3
I0403 21:50:07.443876 24404 net.cpp:91] Creating Layer inception_4d/3x3
I0403 21:50:07.443893 24404 net.cpp:425] inception_4d/3x3 <- inception_4d/3x3_reduce
I0403 21:50:07.443913 24404 net.cpp:399] inception_4d/3x3 -> inception_4d/3x3
I0403 21:50:07.448106 24404 net.cpp:141] Setting up inception_4d/3x3
I0403 21:50:07.448137 24404 net.cpp:148] Top shape: 24 288 14 14 (1354752)
I0403 21:50:07.448153 24404 net.cpp:156] Memory required for data: 1126235424
I0403 21:50:07.448173 24404 layer_factory.hpp:77] Creating layer inception_4d/relu_3x3
I0403 21:50:07.448191 24404 net.cpp:91] Creating Layer inception_4d/relu_3x3
I0403 21:50:07.448231 24404 net.cpp:425] inception_4d/relu_3x3 <- inception_4d/3x3
I0403 21:50:07.448251 24404 net.cpp:386] inception_4d/relu_3x3 -> inception_4d/3x3 (in-place)
I0403 21:50:07.448429 24404 net.cpp:141] Setting up inception_4d/relu_3x3
I0403 21:50:07.448463 24404 net.cpp:148] Top shape: 24 288 14 14 (1354752)
I0403 21:50:07.448477 24404 net.cpp:156] Memory required for data: 1131654432
I0403 21:50:07.448493 24404 layer_factory.hpp:77] Creating layer inception_4d/5x5_reduce
I0403 21:50:07.448513 24404 net.cpp:91] Creating Layer inception_4d/5x5_reduce
I0403 21:50:07.448532 24404 net.cpp:425] inception_4d/5x5_reduce <- inception_4c/output_inception_4c/output_0_split_2
I0403 21:50:07.448552 24404 net.cpp:399] inception_4d/5x5_reduce -> inception_4d/5x5_reduce
I0403 21:50:07.449671 24404 net.cpp:141] Setting up inception_4d/5x5_reduce
I0403 21:50:07.449699 24404 net.cpp:148] Top shape: 24 32 14 14 (150528)
I0403 21:50:07.449715 24404 net.cpp:156] Memory required for data: 1132256544
I0403 21:50:07.449733 24404 layer_factory.hpp:77] Creating layer inception_4d/relu_5x5_reduce
I0403 21:50:07.449751 24404 net.cpp:91] Creating Layer inception_4d/relu_5x5_reduce
I0403 21:50:07.449767 24404 net.cpp:425] inception_4d/relu_5x5_reduce <- inception_4d/5x5_reduce
I0403 21:50:07.449784 24404 net.cpp:386] inception_4d/relu_5x5_reduce -> inception_4d/5x5_reduce (in-place)
I0403 21:50:07.449970 24404 net.cpp:141] Setting up inception_4d/relu_5x5_reduce
I0403 21:50:07.449995 24404 net.cpp:148] Top shape: 24 32 14 14 (150528)
I0403 21:50:07.450009 24404 net.cpp:156] Memory required for data: 1132858656
I0403 21:50:07.450026 24404 layer_factory.hpp:77] Creating layer inception_4d/5x5
I0403 21:50:07.450047 24404 net.cpp:91] Creating Layer inception_4d/5x5
I0403 21:50:07.450064 24404 net.cpp:425] inception_4d/5x5 <- inception_4d/5x5_reduce
I0403 21:50:07.450085 24404 net.cpp:399] inception_4d/5x5 -> inception_4d/5x5
I0403 21:50:07.451576 24404 net.cpp:141] Setting up inception_4d/5x5
I0403 21:50:07.451603 24404 net.cpp:148] Top shape: 24 64 14 14 (301056)
I0403 21:50:07.451618 24404 net.cpp:156] Memory required for data: 1134062880
I0403 21:50:07.451637 24404 layer_factory.hpp:77] Creating layer inception_4d/relu_5x5
I0403 21:50:07.451670 24404 net.cpp:91] Creating Layer inception_4d/relu_5x5
I0403 21:50:07.451686 24404 net.cpp:425] inception_4d/relu_5x5 <- inception_4d/5x5
I0403 21:50:07.451704 24404 net.cpp:386] inception_4d/relu_5x5 -> inception_4d/5x5 (in-place)
I0403 21:50:07.451997 24404 net.cpp:141] Setting up inception_4d/relu_5x5
I0403 21:50:07.452021 24404 net.cpp:148] Top shape: 24 64 14 14 (301056)
I0403 21:50:07.452035 24404 net.cpp:156] Memory required for data: 1135267104
I0403 21:50:07.452050 24404 layer_factory.hpp:77] Creating layer inception_4d/pool
I0403 21:50:07.452067 24404 net.cpp:91] Creating Layer inception_4d/pool
I0403 21:50:07.452083 24404 net.cpp:425] inception_4d/pool <- inception_4c/output_inception_4c/output_0_split_3
I0403 21:50:07.452103 24404 net.cpp:399] inception_4d/pool -> inception_4d/pool
I0403 21:50:07.452168 24404 net.cpp:141] Setting up inception_4d/pool
I0403 21:50:07.452193 24404 net.cpp:148] Top shape: 24 512 14 14 (2408448)
I0403 21:50:07.452211 24404 net.cpp:156] Memory required for data: 1144900896
I0403 21:50:07.452227 24404 layer_factory.hpp:77] Creating layer inception_4d/pool_proj
I0403 21:50:07.452249 24404 net.cpp:91] Creating Layer inception_4d/pool_proj
I0403 21:50:07.452266 24404 net.cpp:425] inception_4d/pool_proj <- inception_4d/pool
I0403 21:50:07.452287 24404 net.cpp:399] inception_4d/pool_proj -> inception_4d/pool_proj
I0403 21:50:07.454010 24404 net.cpp:141] Setting up inception_4d/pool_proj
I0403 21:50:07.454041 24404 net.cpp:148] Top shape: 24 64 14 14 (301056)
I0403 21:50:07.454057 24404 net.cpp:156] Memory required for data: 1146105120
I0403 21:50:07.454076 24404 layer_factory.hpp:77] Creating layer inception_4d/relu_pool_proj
I0403 21:50:07.454092 24404 net.cpp:91] Creating Layer inception_4d/relu_pool_proj
I0403 21:50:07.454110 24404 net.cpp:425] inception_4d/relu_pool_proj <- inception_4d/pool_proj
I0403 21:50:07.454130 24404 net.cpp:386] inception_4d/relu_pool_proj -> inception_4d/pool_proj (in-place)
I0403 21:50:07.454319 24404 net.cpp:141] Setting up inception_4d/relu_pool_proj
I0403 21:50:07.454345 24404 net.cpp:148] Top shape: 24 64 14 14 (301056)
I0403 21:50:07.454360 24404 net.cpp:156] Memory required for data: 1147309344
I0403 21:50:07.454375 24404 layer_factory.hpp:77] Creating layer inception_4d/output
I0403 21:50:07.454391 24404 net.cpp:91] Creating Layer inception_4d/output
I0403 21:50:07.454408 24404 net.cpp:425] inception_4d/output <- inception_4d/1x1
I0403 21:50:07.454424 24404 net.cpp:425] inception_4d/output <- inception_4d/3x3
I0403 21:50:07.454440 24404 net.cpp:425] inception_4d/output <- inception_4d/5x5
I0403 21:50:07.454457 24404 net.cpp:425] inception_4d/output <- inception_4d/pool_proj
I0403 21:50:07.454475 24404 net.cpp:399] inception_4d/output -> inception_4d/output
I0403 21:50:07.454521 24404 net.cpp:141] Setting up inception_4d/output
I0403 21:50:07.454548 24404 net.cpp:148] Top shape: 24 528 14 14 (2483712)
I0403 21:50:07.454565 24404 net.cpp:156] Memory required for data: 1157244192
I0403 21:50:07.454578 24404 layer_factory.hpp:77] Creating layer inception_4d/output_inception_4d/output_0_split
I0403 21:50:07.454596 24404 net.cpp:91] Creating Layer inception_4d/output_inception_4d/output_0_split
I0403 21:50:07.454612 24404 net.cpp:425] inception_4d/output_inception_4d/output_0_split <- inception_4d/output
I0403 21:50:07.454628 24404 net.cpp:399] inception_4d/output_inception_4d/output_0_split -> inception_4d/output_inception_4d/output_0_split_0
I0403 21:50:07.454651 24404 net.cpp:399] inception_4d/output_inception_4d/output_0_split -> inception_4d/output_inception_4d/output_0_split_1
I0403 21:50:07.454673 24404 net.cpp:399] inception_4d/output_inception_4d/output_0_split -> inception_4d/output_inception_4d/output_0_split_2
I0403 21:50:07.454694 24404 net.cpp:399] inception_4d/output_inception_4d/output_0_split -> inception_4d/output_inception_4d/output_0_split_3
I0403 21:50:07.454715 24404 net.cpp:399] inception_4d/output_inception_4d/output_0_split -> inception_4d/output_inception_4d/output_0_split_4
I0403 21:50:07.454814 24404 net.cpp:141] Setting up inception_4d/output_inception_4d/output_0_split
I0403 21:50:07.454848 24404 net.cpp:148] Top shape: 24 528 14 14 (2483712)
I0403 21:50:07.454864 24404 net.cpp:148] Top shape: 24 528 14 14 (2483712)
I0403 21:50:07.454884 24404 net.cpp:148] Top shape: 24 528 14 14 (2483712)
I0403 21:50:07.454898 24404 net.cpp:148] Top shape: 24 528 14 14 (2483712)
I0403 21:50:07.454913 24404 net.cpp:148] Top shape: 24 528 14 14 (2483712)
I0403 21:50:07.454927 24404 net.cpp:156] Memory required for data: 1206918432
I0403 21:50:07.454941 24404 layer_factory.hpp:77] Creating layer loss2/ave_pool
I0403 21:50:07.454959 24404 net.cpp:91] Creating Layer loss2/ave_pool
I0403 21:50:07.454975 24404 net.cpp:425] loss2/ave_pool <- inception_4d/output_inception_4d/output_0_split_0
I0403 21:50:07.454993 24404 net.cpp:399] loss2/ave_pool -> loss2/ave_pool
I0403 21:50:07.455319 24404 net.cpp:141] Setting up loss2/ave_pool
I0403 21:50:07.455348 24404 net.cpp:148] Top shape: 24 528 4 4 (202752)
I0403 21:50:07.455364 24404 net.cpp:156] Memory required for data: 1207729440
I0403 21:50:07.455379 24404 layer_factory.hpp:77] Creating layer loss2/conv
I0403 21:50:07.455401 24404 net.cpp:91] Creating Layer loss2/conv
I0403 21:50:07.455418 24404 net.cpp:425] loss2/conv <- loss2/ave_pool
I0403 21:50:07.455437 24404 net.cpp:399] loss2/conv -> loss2/conv
I0403 21:50:07.457311 24404 net.cpp:141] Setting up loss2/conv
I0403 21:50:07.457340 24404 net.cpp:148] Top shape: 24 128 4 4 (49152)
I0403 21:50:07.457355 24404 net.cpp:156] Memory required for data: 1207926048
I0403 21:50:07.457372 24404 layer_factory.hpp:77] Creating layer loss2/relu_conv
I0403 21:50:07.457391 24404 net.cpp:91] Creating Layer loss2/relu_conv
I0403 21:50:07.457407 24404 net.cpp:425] loss2/relu_conv <- loss2/conv
I0403 21:50:07.457425 24404 net.cpp:386] loss2/relu_conv -> loss2/conv (in-place)
I0403 21:50:07.457705 24404 net.cpp:141] Setting up loss2/relu_conv
I0403 21:50:07.457731 24404 net.cpp:148] Top shape: 24 128 4 4 (49152)
I0403 21:50:07.457746 24404 net.cpp:156] Memory required for data: 1208122656
I0403 21:50:07.457761 24404 layer_factory.hpp:77] Creating layer loss2/fc
I0403 21:50:07.457779 24404 net.cpp:91] Creating Layer loss2/fc
I0403 21:50:07.457795 24404 net.cpp:425] loss2/fc <- loss2/conv
I0403 21:50:07.457815 24404 net.cpp:399] loss2/fc -> loss2/fc
I0403 21:50:07.475100 24404 net.cpp:141] Setting up loss2/fc
I0403 21:50:07.475131 24404 net.cpp:148] Top shape: 24 1024 (24576)
I0403 21:50:07.475147 24404 net.cpp:156] Memory required for data: 1208220960
I0403 21:50:07.475164 24404 layer_factory.hpp:77] Creating layer loss2/relu_fc
I0403 21:50:07.475183 24404 net.cpp:91] Creating Layer loss2/relu_fc
I0403 21:50:07.475201 24404 net.cpp:425] loss2/relu_fc <- loss2/fc
I0403 21:50:07.475220 24404 net.cpp:386] loss2/relu_fc -> loss2/fc (in-place)
I0403 21:50:07.475512 24404 net.cpp:141] Setting up loss2/relu_fc
I0403 21:50:07.475539 24404 net.cpp:148] Top shape: 24 1024 (24576)
I0403 21:50:07.475553 24404 net.cpp:156] Memory required for data: 1208319264
I0403 21:50:07.475569 24404 layer_factory.hpp:77] Creating layer loss2/drop_fc
I0403 21:50:07.475585 24404 net.cpp:91] Creating Layer loss2/drop_fc
I0403 21:50:07.475601 24404 net.cpp:425] loss2/drop_fc <- loss2/fc
I0403 21:50:07.475617 24404 net.cpp:386] loss2/drop_fc -> loss2/fc (in-place)
I0403 21:50:07.475667 24404 net.cpp:141] Setting up loss2/drop_fc
I0403 21:50:07.475690 24404 net.cpp:148] Top shape: 24 1024 (24576)
I0403 21:50:07.475703 24404 net.cpp:156] Memory required for data: 1208417568
I0403 21:50:07.475718 24404 layer_factory.hpp:77] Creating layer loss2/classifier_plantvillage
I0403 21:50:07.475738 24404 net.cpp:91] Creating Layer loss2/classifier_plantvillage
I0403 21:50:07.475754 24404 net.cpp:425] loss2/classifier_plantvillage <- loss2/fc
I0403 21:50:07.475771 24404 net.cpp:399] loss2/classifier_plantvillage -> loss2/classifier_plantvillage
I0403 21:50:07.476163 24404 net.cpp:141] Setting up loss2/classifier_plantvillage
I0403 21:50:07.476187 24404 net.cpp:148] Top shape: 24 38 (912)
I0403 21:50:07.476219 24404 net.cpp:156] Memory required for data: 1208421216
I0403 21:50:07.476238 24404 layer_factory.hpp:77] Creating layer loss2/classifier_plantvillage_loss2/classifier_plantvillage_0_split
I0403 21:50:07.476256 24404 net.cpp:91] Creating Layer loss2/classifier_plantvillage_loss2/classifier_plantvillage_0_split
I0403 21:50:07.476272 24404 net.cpp:425] loss2/classifier_plantvillage_loss2/classifier_plantvillage_0_split <- loss2/classifier_plantvillage
I0403 21:50:07.476292 24404 net.cpp:399] loss2/classifier_plantvillage_loss2/classifier_plantvillage_0_split -> loss2/classifier_plantvillage_loss2/classifier_plantvillage_0_split_0
I0403 21:50:07.476312 24404 net.cpp:399] loss2/classifier_plantvillage_loss2/classifier_plantvillage_0_split -> loss2/classifier_plantvillage_loss2/classifier_plantvillage_0_split_1
I0403 21:50:07.476333 24404 net.cpp:399] loss2/classifier_plantvillage_loss2/classifier_plantvillage_0_split -> loss2/classifier_plantvillage_loss2/classifier_plantvillage_0_split_2
I0403 21:50:07.476411 24404 net.cpp:141] Setting up loss2/classifier_plantvillage_loss2/classifier_plantvillage_0_split
I0403 21:50:07.476433 24404 net.cpp:148] Top shape: 24 38 (912)
I0403 21:50:07.476449 24404 net.cpp:148] Top shape: 24 38 (912)
I0403 21:50:07.476465 24404 net.cpp:148] Top shape: 24 38 (912)
I0403 21:50:07.476478 24404 net.cpp:156] Memory required for data: 1208432160
I0403 21:50:07.476493 24404 layer_factory.hpp:77] Creating layer inception_4e/1x1
I0403 21:50:07.476516 24404 net.cpp:91] Creating Layer inception_4e/1x1
I0403 21:50:07.476533 24404 net.cpp:425] inception_4e/1x1 <- inception_4d/output_inception_4d/output_0_split_1
I0403 21:50:07.476552 24404 net.cpp:399] inception_4e/1x1 -> inception_4e/1x1
I0403 21:50:07.478338 24404 net.cpp:141] Setting up inception_4e/1x1
I0403 21:50:07.478364 24404 net.cpp:148] Top shape: 24 256 14 14 (1204224)
I0403 21:50:07.478379 24404 net.cpp:156] Memory required for data: 1213249056
I0403 21:50:07.478399 24404 layer_factory.hpp:77] Creating layer inception_4e/relu_1x1
I0403 21:50:07.478418 24404 net.cpp:91] Creating Layer inception_4e/relu_1x1
I0403 21:50:07.478435 24404 net.cpp:425] inception_4e/relu_1x1 <- inception_4e/1x1
I0403 21:50:07.478452 24404 net.cpp:386] inception_4e/relu_1x1 -> inception_4e/1x1 (in-place)
I0403 21:50:07.478742 24404 net.cpp:141] Setting up inception_4e/relu_1x1
I0403 21:50:07.478768 24404 net.cpp:148] Top shape: 24 256 14 14 (1204224)
I0403 21:50:07.478782 24404 net.cpp:156] Memory required for data: 1218065952
I0403 21:50:07.478796 24404 layer_factory.hpp:77] Creating layer inception_4e/3x3_reduce
I0403 21:50:07.478818 24404 net.cpp:91] Creating Layer inception_4e/3x3_reduce
I0403 21:50:07.478835 24404 net.cpp:425] inception_4e/3x3_reduce <- inception_4d/output_inception_4d/output_0_split_2
I0403 21:50:07.478857 24404 net.cpp:399] inception_4e/3x3_reduce -> inception_4e/3x3_reduce
I0403 21:50:07.480947 24404 net.cpp:141] Setting up inception_4e/3x3_reduce
I0403 21:50:07.480983 24404 net.cpp:148] Top shape: 24 160 14 14 (752640)
I0403 21:50:07.480998 24404 net.cpp:156] Memory required for data: 1221076512
I0403 21:50:07.481016 24404 layer_factory.hpp:77] Creating layer inception_4e/relu_3x3_reduce
I0403 21:50:07.481034 24404 net.cpp:91] Creating Layer inception_4e/relu_3x3_reduce
I0403 21:50:07.481050 24404 net.cpp:425] inception_4e/relu_3x3_reduce <- inception_4e/3x3_reduce
I0403 21:50:07.481070 24404 net.cpp:386] inception_4e/relu_3x3_reduce -> inception_4e/3x3_reduce (in-place)
I0403 21:50:07.481258 24404 net.cpp:141] Setting up inception_4e/relu_3x3_reduce
I0403 21:50:07.481282 24404 net.cpp:148] Top shape: 24 160 14 14 (752640)
I0403 21:50:07.481297 24404 net.cpp:156] Memory required for data: 1224087072
I0403 21:50:07.481312 24404 layer_factory.hpp:77] Creating layer inception_4e/3x3
I0403 21:50:07.481333 24404 net.cpp:91] Creating Layer inception_4e/3x3
I0403 21:50:07.481350 24404 net.cpp:425] inception_4e/3x3 <- inception_4e/3x3_reduce
I0403 21:50:07.481370 24404 net.cpp:399] inception_4e/3x3 -> inception_4e/3x3
I0403 21:50:07.486258 24404 net.cpp:141] Setting up inception_4e/3x3
I0403 21:50:07.486299 24404 net.cpp:148] Top shape: 24 320 14 14 (1505280)
I0403 21:50:07.486315 24404 net.cpp:156] Memory required for data: 1230108192
I0403 21:50:07.486332 24404 layer_factory.hpp:77] Creating layer inception_4e/relu_3x3
I0403 21:50:07.486352 24404 net.cpp:91] Creating Layer inception_4e/relu_3x3
I0403 21:50:07.486369 24404 net.cpp:425] inception_4e/relu_3x3 <- inception_4e/3x3
I0403 21:50:07.486387 24404 net.cpp:386] inception_4e/relu_3x3 -> inception_4e/3x3 (in-place)
I0403 21:50:07.486681 24404 net.cpp:141] Setting up inception_4e/relu_3x3
I0403 21:50:07.486709 24404 net.cpp:148] Top shape: 24 320 14 14 (1505280)
I0403 21:50:07.486724 24404 net.cpp:156] Memory required for data: 1236129312
I0403 21:50:07.486739 24404 layer_factory.hpp:77] Creating layer inception_4e/5x5_reduce
I0403 21:50:07.486762 24404 net.cpp:91] Creating Layer inception_4e/5x5_reduce
I0403 21:50:07.486778 24404 net.cpp:425] inception_4e/5x5_reduce <- inception_4d/output_inception_4d/output_0_split_3
I0403 21:50:07.486798 24404 net.cpp:399] inception_4e/5x5_reduce -> inception_4e/5x5_reduce
I0403 21:50:07.487841 24404 net.cpp:141] Setting up inception_4e/5x5_reduce
I0403 21:50:07.487869 24404 net.cpp:148] Top shape: 24 32 14 14 (150528)
I0403 21:50:07.487884 24404 net.cpp:156] Memory required for data: 1236731424
I0403 21:50:07.487902 24404 layer_factory.hpp:77] Creating layer inception_4e/relu_5x5_reduce
I0403 21:50:07.487922 24404 net.cpp:91] Creating Layer inception_4e/relu_5x5_reduce
I0403 21:50:07.487938 24404 net.cpp:425] inception_4e/relu_5x5_reduce <- inception_4e/5x5_reduce
I0403 21:50:07.487956 24404 net.cpp:386] inception_4e/relu_5x5_reduce -> inception_4e/5x5_reduce (in-place)
I0403 21:50:07.488255 24404 net.cpp:141] Setting up inception_4e/relu_5x5_reduce
I0403 21:50:07.488281 24404 net.cpp:148] Top shape: 24 32 14 14 (150528)
I0403 21:50:07.488296 24404 net.cpp:156] Memory required for data: 1237333536
I0403 21:50:07.488309 24404 layer_factory.hpp:77] Creating layer inception_4e/5x5
I0403 21:50:07.488348 24404 net.cpp:91] Creating Layer inception_4e/5x5
I0403 21:50:07.488365 24404 net.cpp:425] inception_4e/5x5 <- inception_4e/5x5_reduce
I0403 21:50:07.488384 24404 net.cpp:399] inception_4e/5x5 -> inception_4e/5x5
I0403 21:50:07.490173 24404 net.cpp:141] Setting up inception_4e/5x5
I0403 21:50:07.490206 24404 net.cpp:148] Top shape: 24 128 14 14 (602112)
I0403 21:50:07.490223 24404 net.cpp:156] Memory required for data: 1239741984
I0403 21:50:07.490242 24404 layer_factory.hpp:77] Creating layer inception_4e/relu_5x5
I0403 21:50:07.490259 24404 net.cpp:91] Creating Layer inception_4e/relu_5x5
I0403 21:50:07.490275 24404 net.cpp:425] inception_4e/relu_5x5 <- inception_4e/5x5
I0403 21:50:07.490294 24404 net.cpp:386] inception_4e/relu_5x5 -> inception_4e/5x5 (in-place)
I0403 21:50:07.490490 24404 net.cpp:141] Setting up inception_4e/relu_5x5
I0403 21:50:07.490514 24404 net.cpp:148] Top shape: 24 128 14 14 (602112)
I0403 21:50:07.490528 24404 net.cpp:156] Memory required for data: 1242150432
I0403 21:50:07.490542 24404 layer_factory.hpp:77] Creating layer inception_4e/pool
I0403 21:50:07.490561 24404 net.cpp:91] Creating Layer inception_4e/pool
I0403 21:50:07.490576 24404 net.cpp:425] inception_4e/pool <- inception_4d/output_inception_4d/output_0_split_4
I0403 21:50:07.490595 24404 net.cpp:399] inception_4e/pool -> inception_4e/pool
I0403 21:50:07.490664 24404 net.cpp:141] Setting up inception_4e/pool
I0403 21:50:07.490686 24404 net.cpp:148] Top shape: 24 528 14 14 (2483712)
I0403 21:50:07.490700 24404 net.cpp:156] Memory required for data: 1252085280
I0403 21:50:07.490715 24404 layer_factory.hpp:77] Creating layer inception_4e/pool_proj
I0403 21:50:07.490737 24404 net.cpp:91] Creating Layer inception_4e/pool_proj
I0403 21:50:07.490756 24404 net.cpp:425] inception_4e/pool_proj <- inception_4e/pool
I0403 21:50:07.490772 24404 net.cpp:399] inception_4e/pool_proj -> inception_4e/pool_proj
I0403 21:50:07.492241 24404 net.cpp:141] Setting up inception_4e/pool_proj
I0403 21:50:07.492280 24404 net.cpp:148] Top shape: 24 128 14 14 (602112)
I0403 21:50:07.492297 24404 net.cpp:156] Memory required for data: 1254493728
I0403 21:50:07.492316 24404 layer_factory.hpp:77] Creating layer inception_4e/relu_pool_proj
I0403 21:50:07.492333 24404 net.cpp:91] Creating Layer inception_4e/relu_pool_proj
I0403 21:50:07.492349 24404 net.cpp:425] inception_4e/relu_pool_proj <- inception_4e/pool_proj
I0403 21:50:07.492368 24404 net.cpp:386] inception_4e/relu_pool_proj -> inception_4e/pool_proj (in-place)
I0403 21:50:07.492656 24404 net.cpp:141] Setting up inception_4e/relu_pool_proj
I0403 21:50:07.492683 24404 net.cpp:148] Top shape: 24 128 14 14 (602112)
I0403 21:50:07.492699 24404 net.cpp:156] Memory required for data: 1256902176
I0403 21:50:07.492714 24404 layer_factory.hpp:77] Creating layer inception_4e/output
I0403 21:50:07.492732 24404 net.cpp:91] Creating Layer inception_4e/output
I0403 21:50:07.492748 24404 net.cpp:425] inception_4e/output <- inception_4e/1x1
I0403 21:50:07.492763 24404 net.cpp:425] inception_4e/output <- inception_4e/3x3
I0403 21:50:07.492779 24404 net.cpp:425] inception_4e/output <- inception_4e/5x5
I0403 21:50:07.492794 24404 net.cpp:425] inception_4e/output <- inception_4e/pool_proj
I0403 21:50:07.492810 24404 net.cpp:399] inception_4e/output -> inception_4e/output
I0403 21:50:07.492861 24404 net.cpp:141] Setting up inception_4e/output
I0403 21:50:07.492882 24404 net.cpp:148] Top shape: 24 832 14 14 (3913728)
I0403 21:50:07.492897 24404 net.cpp:156] Memory required for data: 1272557088
I0403 21:50:07.492911 24404 layer_factory.hpp:77] Creating layer pool4/3x3_s2
I0403 21:50:07.492933 24404 net.cpp:91] Creating Layer pool4/3x3_s2
I0403 21:50:07.492949 24404 net.cpp:425] pool4/3x3_s2 <- inception_4e/output
I0403 21:50:07.492967 24404 net.cpp:399] pool4/3x3_s2 -> pool4/3x3_s2
I0403 21:50:07.493034 24404 net.cpp:141] Setting up pool4/3x3_s2
I0403 21:50:07.493057 24404 net.cpp:148] Top shape: 24 832 7 7 (978432)
I0403 21:50:07.493072 24404 net.cpp:156] Memory required for data: 1276470816
I0403 21:50:07.493085 24404 layer_factory.hpp:77] Creating layer pool4/3x3_s2_pool4/3x3_s2_0_split
I0403 21:50:07.493101 24404 net.cpp:91] Creating Layer pool4/3x3_s2_pool4/3x3_s2_0_split
I0403 21:50:07.493118 24404 net.cpp:425] pool4/3x3_s2_pool4/3x3_s2_0_split <- pool4/3x3_s2
I0403 21:50:07.493136 24404 net.cpp:399] pool4/3x3_s2_pool4/3x3_s2_0_split -> pool4/3x3_s2_pool4/3x3_s2_0_split_0
I0403 21:50:07.493156 24404 net.cpp:399] pool4/3x3_s2_pool4/3x3_s2_0_split -> pool4/3x3_s2_pool4/3x3_s2_0_split_1
I0403 21:50:07.493176 24404 net.cpp:399] pool4/3x3_s2_pool4/3x3_s2_0_split -> pool4/3x3_s2_pool4/3x3_s2_0_split_2
I0403 21:50:07.493201 24404 net.cpp:399] pool4/3x3_s2_pool4/3x3_s2_0_split -> pool4/3x3_s2_pool4/3x3_s2_0_split_3
I0403 21:50:07.493289 24404 net.cpp:141] Setting up pool4/3x3_s2_pool4/3x3_s2_0_split
I0403 21:50:07.493314 24404 net.cpp:148] Top shape: 24 832 7 7 (978432)
I0403 21:50:07.493330 24404 net.cpp:148] Top shape: 24 832 7 7 (978432)
I0403 21:50:07.493345 24404 net.cpp:148] Top shape: 24 832 7 7 (978432)
I0403 21:50:07.493361 24404 net.cpp:148] Top shape: 24 832 7 7 (978432)
I0403 21:50:07.493374 24404 net.cpp:156] Memory required for data: 1292125728
I0403 21:50:07.493389 24404 layer_factory.hpp:77] Creating layer inception_5a/1x1
I0403 21:50:07.493414 24404 net.cpp:91] Creating Layer inception_5a/1x1
I0403 21:50:07.493432 24404 net.cpp:425] inception_5a/1x1 <- pool4/3x3_s2_pool4/3x3_s2_0_split_0
I0403 21:50:07.493453 24404 net.cpp:399] inception_5a/1x1 -> inception_5a/1x1
I0403 21:50:07.496258 24404 net.cpp:141] Setting up inception_5a/1x1
I0403 21:50:07.496287 24404 net.cpp:148] Top shape: 24 256 7 7 (301056)
I0403 21:50:07.496302 24404 net.cpp:156] Memory required for data: 1293329952
I0403 21:50:07.496320 24404 layer_factory.hpp:77] Creating layer inception_5a/relu_1x1
I0403 21:50:07.496337 24404 net.cpp:91] Creating Layer inception_5a/relu_1x1
I0403 21:50:07.496354 24404 net.cpp:425] inception_5a/relu_1x1 <- inception_5a/1x1
I0403 21:50:07.496373 24404 net.cpp:386] inception_5a/relu_1x1 -> inception_5a/1x1 (in-place)
I0403 21:50:07.496681 24404 net.cpp:141] Setting up inception_5a/relu_1x1
I0403 21:50:07.496706 24404 net.cpp:148] Top shape: 24 256 7 7 (301056)
I0403 21:50:07.496721 24404 net.cpp:156] Memory required for data: 1294534176
I0403 21:50:07.496737 24404 layer_factory.hpp:77] Creating layer inception_5a/3x3_reduce
I0403 21:50:07.496758 24404 net.cpp:91] Creating Layer inception_5a/3x3_reduce
I0403 21:50:07.496776 24404 net.cpp:425] inception_5a/3x3_reduce <- pool4/3x3_s2_pool4/3x3_s2_0_split_1
I0403 21:50:07.496798 24404 net.cpp:399] inception_5a/3x3_reduce -> inception_5a/3x3_reduce
I0403 21:50:07.499212 24404 net.cpp:141] Setting up inception_5a/3x3_reduce
I0403 21:50:07.499243 24404 net.cpp:148] Top shape: 24 160 7 7 (188160)
I0403 21:50:07.499264 24404 net.cpp:156] Memory required for data: 1295286816
I0403 21:50:07.499284 24404 layer_factory.hpp:77] Creating layer inception_5a/relu_3x3_reduce
I0403 21:50:07.499302 24404 net.cpp:91] Creating Layer inception_5a/relu_3x3_reduce
I0403 21:50:07.499320 24404 net.cpp:425] inception_5a/relu_3x3_reduce <- inception_5a/3x3_reduce
I0403 21:50:07.499336 24404 net.cpp:386] inception_5a/relu_3x3_reduce -> inception_5a/3x3_reduce (in-place)
I0403 21:50:07.499518 24404 net.cpp:141] Setting up inception_5a/relu_3x3_reduce
I0403 21:50:07.499542 24404 net.cpp:148] Top shape: 24 160 7 7 (188160)
I0403 21:50:07.499557 24404 net.cpp:156] Memory required for data: 1296039456
I0403 21:50:07.499572 24404 layer_factory.hpp:77] Creating layer inception_5a/3x3
I0403 21:50:07.499594 24404 net.cpp:91] Creating Layer inception_5a/3x3
I0403 21:50:07.499611 24404 net.cpp:425] inception_5a/3x3 <- inception_5a/3x3_reduce
I0403 21:50:07.499632 24404 net.cpp:399] inception_5a/3x3 -> inception_5a/3x3
I0403 21:50:07.504549 24404 net.cpp:141] Setting up inception_5a/3x3
I0403 21:50:07.504580 24404 net.cpp:148] Top shape: 24 320 7 7 (376320)
I0403 21:50:07.504596 24404 net.cpp:156] Memory required for data: 1297544736
I0403 21:50:07.504614 24404 layer_factory.hpp:77] Creating layer inception_5a/relu_3x3
I0403 21:50:07.504633 24404 net.cpp:91] Creating Layer inception_5a/relu_3x3
I0403 21:50:07.504649 24404 net.cpp:425] inception_5a/relu_3x3 <- inception_5a/3x3
I0403 21:50:07.504668 24404 net.cpp:386] inception_5a/relu_3x3 -> inception_5a/3x3 (in-place)
I0403 21:50:07.504952 24404 net.cpp:141] Setting up inception_5a/relu_3x3
I0403 21:50:07.504981 24404 net.cpp:148] Top shape: 24 320 7 7 (376320)
I0403 21:50:07.504995 24404 net.cpp:156] Memory required for data: 1299050016
I0403 21:50:07.505010 24404 layer_factory.hpp:77] Creating layer inception_5a/5x5_reduce
I0403 21:50:07.505033 24404 net.cpp:91] Creating Layer inception_5a/5x5_reduce
I0403 21:50:07.505050 24404 net.cpp:425] inception_5a/5x5_reduce <- pool4/3x3_s2_pool4/3x3_s2_0_split_2
I0403 21:50:07.505069 24404 net.cpp:399] inception_5a/5x5_reduce -> inception_5a/5x5_reduce
I0403 21:50:07.506217 24404 net.cpp:141] Setting up inception_5a/5x5_reduce
I0403 21:50:07.506244 24404 net.cpp:148] Top shape: 24 32 7 7 (37632)
I0403 21:50:07.506269 24404 net.cpp:156] Memory required for data: 1299200544
I0403 21:50:07.506288 24404 layer_factory.hpp:77] Creating layer inception_5a/relu_5x5_reduce
I0403 21:50:07.506305 24404 net.cpp:91] Creating Layer inception_5a/relu_5x5_reduce
I0403 21:50:07.506321 24404 net.cpp:425] inception_5a/relu_5x5_reduce <- inception_5a/5x5_reduce
I0403 21:50:07.506340 24404 net.cpp:386] inception_5a/relu_5x5_reduce -> inception_5a/5x5_reduce (in-place)
I0403 21:50:07.506631 24404 net.cpp:141] Setting up inception_5a/relu_5x5_reduce
I0403 21:50:07.506656 24404 net.cpp:148] Top shape: 24 32 7 7 (37632)
I0403 21:50:07.506671 24404 net.cpp:156] Memory required for data: 1299351072
I0403 21:50:07.506686 24404 layer_factory.hpp:77] Creating layer inception_5a/5x5
I0403 21:50:07.506707 24404 net.cpp:91] Creating Layer inception_5a/5x5
I0403 21:50:07.506724 24404 net.cpp:425] inception_5a/5x5 <- inception_5a/5x5_reduce
I0403 21:50:07.506744 24404 net.cpp:399] inception_5a/5x5 -> inception_5a/5x5
I0403 21:50:07.508440 24404 net.cpp:141] Setting up inception_5a/5x5
I0403 21:50:07.508484 24404 net.cpp:148] Top shape: 24 128 7 7 (150528)
I0403 21:50:07.508501 24404 net.cpp:156] Memory required for data: 1299953184
I0403 21:50:07.508519 24404 layer_factory.hpp:77] Creating layer inception_5a/relu_5x5
I0403 21:50:07.508536 24404 net.cpp:91] Creating Layer inception_5a/relu_5x5
I0403 21:50:07.508553 24404 net.cpp:425] inception_5a/relu_5x5 <- inception_5a/5x5
I0403 21:50:07.508572 24404 net.cpp:386] inception_5a/relu_5x5 -> inception_5a/5x5 (in-place)
I0403 21:50:07.508764 24404 net.cpp:141] Setting up inception_5a/relu_5x5
I0403 21:50:07.508787 24404 net.cpp:148] Top shape: 24 128 7 7 (150528)
I0403 21:50:07.508801 24404 net.cpp:156] Memory required for data: 1300555296
I0403 21:50:07.508816 24404 layer_factory.hpp:77] Creating layer inception_5a/pool
I0403 21:50:07.508833 24404 net.cpp:91] Creating Layer inception_5a/pool
I0403 21:50:07.508857 24404 net.cpp:425] inception_5a/pool <- pool4/3x3_s2_pool4/3x3_s2_0_split_3
I0403 21:50:07.508877 24404 net.cpp:399] inception_5a/pool -> inception_5a/pool
I0403 21:50:07.508946 24404 net.cpp:141] Setting up inception_5a/pool
I0403 21:50:07.508970 24404 net.cpp:148] Top shape: 24 832 7 7 (978432)
I0403 21:50:07.508983 24404 net.cpp:156] Memory required for data: 1304469024
I0403 21:50:07.508997 24404 layer_factory.hpp:77] Creating layer inception_5a/pool_proj
I0403 21:50:07.509019 24404 net.cpp:91] Creating Layer inception_5a/pool_proj
I0403 21:50:07.509035 24404 net.cpp:425] inception_5a/pool_proj <- inception_5a/pool
I0403 21:50:07.509055 24404 net.cpp:399] inception_5a/pool_proj -> inception_5a/pool_proj
I0403 21:50:07.511356 24404 net.cpp:141] Setting up inception_5a/pool_proj
I0403 21:50:07.511387 24404 net.cpp:148] Top shape: 24 128 7 7 (150528)
I0403 21:50:07.511404 24404 net.cpp:156] Memory required for data: 1305071136
I0403 21:50:07.511421 24404 layer_factory.hpp:77] Creating layer inception_5a/relu_pool_proj
I0403 21:50:07.511440 24404 net.cpp:91] Creating Layer inception_5a/relu_pool_proj
I0403 21:50:07.511456 24404 net.cpp:425] inception_5a/relu_pool_proj <- inception_5a/pool_proj
I0403 21:50:07.511471 24404 net.cpp:386] inception_5a/relu_pool_proj -> inception_5a/pool_proj (in-place)
I0403 21:50:07.511765 24404 net.cpp:141] Setting up inception_5a/relu_pool_proj
I0403 21:50:07.511791 24404 net.cpp:148] Top shape: 24 128 7 7 (150528)
I0403 21:50:07.511807 24404 net.cpp:156] Memory required for data: 1305673248
I0403 21:50:07.511821 24404 layer_factory.hpp:77] Creating layer inception_5a/output
I0403 21:50:07.511838 24404 net.cpp:91] Creating Layer inception_5a/output
I0403 21:50:07.511853 24404 net.cpp:425] inception_5a/output <- inception_5a/1x1
I0403 21:50:07.511870 24404 net.cpp:425] inception_5a/output <- inception_5a/3x3
I0403 21:50:07.511885 24404 net.cpp:425] inception_5a/output <- inception_5a/5x5
I0403 21:50:07.511901 24404 net.cpp:425] inception_5a/output <- inception_5a/pool_proj
I0403 21:50:07.511917 24404 net.cpp:399] inception_5a/output -> inception_5a/output
I0403 21:50:07.511966 24404 net.cpp:141] Setting up inception_5a/output
I0403 21:50:07.511989 24404 net.cpp:148] Top shape: 24 832 7 7 (978432)
I0403 21:50:07.512003 24404 net.cpp:156] Memory required for data: 1309586976
I0403 21:50:07.512017 24404 layer_factory.hpp:77] Creating layer inception_5a/output_inception_5a/output_0_split
I0403 21:50:07.512037 24404 net.cpp:91] Creating Layer inception_5a/output_inception_5a/output_0_split
I0403 21:50:07.512053 24404 net.cpp:425] inception_5a/output_inception_5a/output_0_split <- inception_5a/output
I0403 21:50:07.512070 24404 net.cpp:399] inception_5a/output_inception_5a/output_0_split -> inception_5a/output_inception_5a/output_0_split_0
I0403 21:50:07.512089 24404 net.cpp:399] inception_5a/output_inception_5a/output_0_split -> inception_5a/output_inception_5a/output_0_split_1
I0403 21:50:07.512109 24404 net.cpp:399] inception_5a/output_inception_5a/output_0_split -> inception_5a/output_inception_5a/output_0_split_2
I0403 21:50:07.512130 24404 net.cpp:399] inception_5a/output_inception_5a/output_0_split -> inception_5a/output_inception_5a/output_0_split_3
I0403 21:50:07.512253 24404 net.cpp:141] Setting up inception_5a/output_inception_5a/output_0_split
I0403 21:50:07.512276 24404 net.cpp:148] Top shape: 24 832 7 7 (978432)
I0403 21:50:07.512292 24404 net.cpp:148] Top shape: 24 832 7 7 (978432)
I0403 21:50:07.512307 24404 net.cpp:148] Top shape: 24 832 7 7 (978432)
I0403 21:50:07.512322 24404 net.cpp:148] Top shape: 24 832 7 7 (978432)
I0403 21:50:07.512336 24404 net.cpp:156] Memory required for data: 1325241888
I0403 21:50:07.512349 24404 layer_factory.hpp:77] Creating layer inception_5b/1x1
I0403 21:50:07.512372 24404 net.cpp:91] Creating Layer inception_5b/1x1
I0403 21:50:07.512390 24404 net.cpp:425] inception_5b/1x1 <- inception_5a/output_inception_5a/output_0_split_0
I0403 21:50:07.512411 24404 net.cpp:399] inception_5b/1x1 -> inception_5b/1x1
I0403 21:50:07.516161 24404 net.cpp:141] Setting up inception_5b/1x1
I0403 21:50:07.516191 24404 net.cpp:148] Top shape: 24 384 7 7 (451584)
I0403 21:50:07.516211 24404 net.cpp:156] Memory required for data: 1327048224
I0403 21:50:07.516229 24404 layer_factory.hpp:77] Creating layer inception_5b/relu_1x1
I0403 21:50:07.516252 24404 net.cpp:91] Creating Layer inception_5b/relu_1x1
I0403 21:50:07.516268 24404 net.cpp:425] inception_5b/relu_1x1 <- inception_5b/1x1
I0403 21:50:07.516285 24404 net.cpp:386] inception_5b/relu_1x1 -> inception_5b/1x1 (in-place)
I0403 21:50:07.516582 24404 net.cpp:141] Setting up inception_5b/relu_1x1
I0403 21:50:07.516608 24404 net.cpp:148] Top shape: 24 384 7 7 (451584)
I0403 21:50:07.516623 24404 net.cpp:156] Memory required for data: 1328854560
I0403 21:50:07.516638 24404 layer_factory.hpp:77] Creating layer inception_5b/3x3_reduce
I0403 21:50:07.516662 24404 net.cpp:91] Creating Layer inception_5b/3x3_reduce
I0403 21:50:07.516680 24404 net.cpp:425] inception_5b/3x3_reduce <- inception_5a/output_inception_5a/output_0_split_1
I0403 21:50:07.516698 24404 net.cpp:399] inception_5b/3x3_reduce -> inception_5b/3x3_reduce
I0403 21:50:07.519330 24404 net.cpp:141] Setting up inception_5b/3x3_reduce
I0403 21:50:07.519361 24404 net.cpp:148] Top shape: 24 192 7 7 (225792)
I0403 21:50:07.519377 24404 net.cpp:156] Memory required for data: 1329757728
I0403 21:50:07.519397 24404 layer_factory.hpp:77] Creating layer inception_5b/relu_3x3_reduce
I0403 21:50:07.519414 24404 net.cpp:91] Creating Layer inception_5b/relu_3x3_reduce
I0403 21:50:07.519433 24404 net.cpp:425] inception_5b/relu_3x3_reduce <- inception_5b/3x3_reduce
I0403 21:50:07.519449 24404 net.cpp:386] inception_5b/relu_3x3_reduce -> inception_5b/3x3_reduce (in-place)
I0403 21:50:07.519639 24404 net.cpp:141] Setting up inception_5b/relu_3x3_reduce
I0403 21:50:07.519664 24404 net.cpp:148] Top shape: 24 192 7 7 (225792)
I0403 21:50:07.519677 24404 net.cpp:156] Memory required for data: 1330660896
I0403 21:50:07.519692 24404 layer_factory.hpp:77] Creating layer inception_5b/3x3
I0403 21:50:07.519713 24404 net.cpp:91] Creating Layer inception_5b/3x3
I0403 21:50:07.519731 24404 net.cpp:425] inception_5b/3x3 <- inception_5b/3x3_reduce
I0403 21:50:07.519752 24404 net.cpp:399] inception_5b/3x3 -> inception_5b/3x3
I0403 21:50:07.526345 24404 net.cpp:141] Setting up inception_5b/3x3
I0403 21:50:07.526386 24404 net.cpp:148] Top shape: 24 384 7 7 (451584)
I0403 21:50:07.526401 24404 net.cpp:156] Memory required for data: 1332467232
I0403 21:50:07.526420 24404 layer_factory.hpp:77] Creating layer inception_5b/relu_3x3
I0403 21:50:07.526437 24404 net.cpp:91] Creating Layer inception_5b/relu_3x3
I0403 21:50:07.526453 24404 net.cpp:425] inception_5b/relu_3x3 <- inception_5b/3x3
I0403 21:50:07.526471 24404 net.cpp:386] inception_5b/relu_3x3 -> inception_5b/3x3 (in-place)
I0403 21:50:07.526768 24404 net.cpp:141] Setting up inception_5b/relu_3x3
I0403 21:50:07.526795 24404 net.cpp:148] Top shape: 24 384 7 7 (451584)
I0403 21:50:07.526813 24404 net.cpp:156] Memory required for data: 1334273568
I0403 21:50:07.526828 24404 layer_factory.hpp:77] Creating layer inception_5b/5x5_reduce
I0403 21:50:07.526864 24404 net.cpp:91] Creating Layer inception_5b/5x5_reduce
I0403 21:50:07.526882 24404 net.cpp:425] inception_5b/5x5_reduce <- inception_5a/output_inception_5a/output_0_split_2
I0403 21:50:07.526901 24404 net.cpp:399] inception_5b/5x5_reduce -> inception_5b/5x5_reduce
I0403 21:50:07.528151 24404 net.cpp:141] Setting up inception_5b/5x5_reduce
I0403 21:50:07.528180 24404 net.cpp:148] Top shape: 24 48 7 7 (56448)
I0403 21:50:07.528205 24404 net.cpp:156] Memory required for data: 1334499360
I0403 21:50:07.528228 24404 layer_factory.hpp:77] Creating layer inception_5b/relu_5x5_reduce
I0403 21:50:07.528246 24404 net.cpp:91] Creating Layer inception_5b/relu_5x5_reduce
I0403 21:50:07.528264 24404 net.cpp:425] inception_5b/relu_5x5_reduce <- inception_5b/5x5_reduce
I0403 21:50:07.528283 24404 net.cpp:386] inception_5b/relu_5x5_reduce -> inception_5b/5x5_reduce (in-place)
I0403 21:50:07.528650 24404 net.cpp:141] Setting up inception_5b/relu_5x5_reduce
I0403 21:50:07.528676 24404 net.cpp:148] Top shape: 24 48 7 7 (56448)
I0403 21:50:07.528690 24404 net.cpp:156] Memory required for data: 1334725152
I0403 21:50:07.528705 24404 layer_factory.hpp:77] Creating layer inception_5b/5x5
I0403 21:50:07.528725 24404 net.cpp:91] Creating Layer inception_5b/5x5
I0403 21:50:07.528743 24404 net.cpp:425] inception_5b/5x5 <- inception_5b/5x5_reduce
I0403 21:50:07.528761 24404 net.cpp:399] inception_5b/5x5 -> inception_5b/5x5
I0403 21:50:07.530817 24404 net.cpp:141] Setting up inception_5b/5x5
I0403 21:50:07.530845 24404 net.cpp:148] Top shape: 24 128 7 7 (150528)
I0403 21:50:07.530860 24404 net.cpp:156] Memory required for data: 1335327264
I0403 21:50:07.530879 24404 layer_factory.hpp:77] Creating layer inception_5b/relu_5x5
I0403 21:50:07.530899 24404 net.cpp:91] Creating Layer inception_5b/relu_5x5
I0403 21:50:07.530936 24404 net.cpp:425] inception_5b/relu_5x5 <- inception_5b/5x5
I0403 21:50:07.530958 24404 net.cpp:386] inception_5b/relu_5x5 -> inception_5b/5x5 (in-place)
I0403 21:50:07.531158 24404 net.cpp:141] Setting up inception_5b/relu_5x5
I0403 21:50:07.531191 24404 net.cpp:148] Top shape: 24 128 7 7 (150528)
I0403 21:50:07.531211 24404 net.cpp:156] Memory required for data: 1335929376
I0403 21:50:07.531226 24404 layer_factory.hpp:77] Creating layer inception_5b/pool
I0403 21:50:07.531255 24404 net.cpp:91] Creating Layer inception_5b/pool
I0403 21:50:07.531271 24404 net.cpp:425] inception_5b/pool <- inception_5a/output_inception_5a/output_0_split_3
I0403 21:50:07.531289 24404 net.cpp:399] inception_5b/pool -> inception_5b/pool
I0403 21:50:07.531360 24404 net.cpp:141] Setting up inception_5b/pool
I0403 21:50:07.531383 24404 net.cpp:148] Top shape: 24 832 7 7 (978432)
I0403 21:50:07.531397 24404 net.cpp:156] Memory required for data: 1339843104
I0403 21:50:07.531411 24404 layer_factory.hpp:77] Creating layer inception_5b/pool_proj
I0403 21:50:07.531433 24404 net.cpp:91] Creating Layer inception_5b/pool_proj
I0403 21:50:07.531450 24404 net.cpp:425] inception_5b/pool_proj <- inception_5b/pool
I0403 21:50:07.531479 24404 net.cpp:399] inception_5b/pool_proj -> inception_5b/pool_proj
I0403 21:50:07.533746 24404 net.cpp:141] Setting up inception_5b/pool_proj
I0403 21:50:07.533776 24404 net.cpp:148] Top shape: 24 128 7 7 (150528)
I0403 21:50:07.533793 24404 net.cpp:156] Memory required for data: 1340445216
I0403 21:50:07.533812 24404 layer_factory.hpp:77] Creating layer inception_5b/relu_pool_proj
I0403 21:50:07.533828 24404 net.cpp:91] Creating Layer inception_5b/relu_pool_proj
I0403 21:50:07.533844 24404 net.cpp:425] inception_5b/relu_pool_proj <- inception_5b/pool_proj
I0403 21:50:07.533864 24404 net.cpp:386] inception_5b/relu_pool_proj -> inception_5b/pool_proj (in-place)
I0403 21:50:07.534155 24404 net.cpp:141] Setting up inception_5b/relu_pool_proj
I0403 21:50:07.534183 24404 net.cpp:148] Top shape: 24 128 7 7 (150528)
I0403 21:50:07.534203 24404 net.cpp:156] Memory required for data: 1341047328
I0403 21:50:07.534219 24404 layer_factory.hpp:77] Creating layer inception_5b/output
I0403 21:50:07.534235 24404 net.cpp:91] Creating Layer inception_5b/output
I0403 21:50:07.534265 24404 net.cpp:425] inception_5b/output <- inception_5b/1x1
I0403 21:50:07.534282 24404 net.cpp:425] inception_5b/output <- inception_5b/3x3
I0403 21:50:07.534298 24404 net.cpp:425] inception_5b/output <- inception_5b/5x5
I0403 21:50:07.534313 24404 net.cpp:425] inception_5b/output <- inception_5b/pool_proj
I0403 21:50:07.534332 24404 net.cpp:399] inception_5b/output -> inception_5b/output
I0403 21:50:07.534384 24404 net.cpp:141] Setting up inception_5b/output
I0403 21:50:07.534406 24404 net.cpp:148] Top shape: 24 1024 7 7 (1204224)
I0403 21:50:07.534420 24404 net.cpp:156] Memory required for data: 1345864224
I0403 21:50:07.534435 24404 layer_factory.hpp:77] Creating layer pool5/7x7_s1
I0403 21:50:07.534456 24404 net.cpp:91] Creating Layer pool5/7x7_s1
I0403 21:50:07.534471 24404 net.cpp:425] pool5/7x7_s1 <- inception_5b/output
I0403 21:50:07.534489 24404 net.cpp:399] pool5/7x7_s1 -> pool5/7x7_s1
I0403 21:50:07.534703 24404 net.cpp:141] Setting up pool5/7x7_s1
I0403 21:50:07.534726 24404 net.cpp:148] Top shape: 24 1024 1 1 (24576)
I0403 21:50:07.534741 24404 net.cpp:156] Memory required for data: 1345962528
I0403 21:50:07.534755 24404 layer_factory.hpp:77] Creating layer pool5/drop_7x7_s1
I0403 21:50:07.534773 24404 net.cpp:91] Creating Layer pool5/drop_7x7_s1
I0403 21:50:07.534788 24404 net.cpp:425] pool5/drop_7x7_s1 <- pool5/7x7_s1
I0403 21:50:07.534808 24404 net.cpp:386] pool5/drop_7x7_s1 -> pool5/7x7_s1 (in-place)
I0403 21:50:07.534857 24404 net.cpp:141] Setting up pool5/drop_7x7_s1
I0403 21:50:07.534878 24404 net.cpp:148] Top shape: 24 1024 1 1 (24576)
I0403 21:50:07.534893 24404 net.cpp:156] Memory required for data: 1346060832
I0403 21:50:07.534907 24404 layer_factory.hpp:77] Creating layer loss3/classifier_plantvillage
I0403 21:50:07.534930 24404 net.cpp:91] Creating Layer loss3/classifier_plantvillage
I0403 21:50:07.534947 24404 net.cpp:425] loss3/classifier_plantvillage <- pool5/7x7_s1
I0403 21:50:07.534967 24404 net.cpp:399] loss3/classifier_plantvillage -> loss3/classifier_plantvillage
I0403 21:50:07.535387 24404 net.cpp:141] Setting up loss3/classifier_plantvillage
I0403 21:50:07.535411 24404 net.cpp:148] Top shape: 24 38 (912)
I0403 21:50:07.535425 24404 net.cpp:156] Memory required for data: 1346064480
I0403 21:50:07.535442 24404 layer_factory.hpp:77] Creating layer loss3/classifier_plantvillage_loss3/classifier_plantvillage_0_split
I0403 21:50:07.535462 24404 net.cpp:91] Creating Layer loss3/classifier_plantvillage_loss3/classifier_plantvillage_0_split
I0403 21:50:07.535478 24404 net.cpp:425] loss3/classifier_plantvillage_loss3/classifier_plantvillage_0_split <- loss3/classifier_plantvillage
I0403 21:50:07.535496 24404 net.cpp:399] loss3/classifier_plantvillage_loss3/classifier_plantvillage_0_split -> loss3/classifier_plantvillage_loss3/classifier_plantvillage_0_split_0
I0403 21:50:07.535516 24404 net.cpp:399] loss3/classifier_plantvillage_loss3/classifier_plantvillage_0_split -> loss3/classifier_plantvillage_loss3/classifier_plantvillage_0_split_1
I0403 21:50:07.535537 24404 net.cpp:399] loss3/classifier_plantvillage_loss3/classifier_plantvillage_0_split -> loss3/classifier_plantvillage_loss3/classifier_plantvillage_0_split_2
I0403 21:50:07.535557 24404 net.cpp:399] loss3/classifier_plantvillage_loss3/classifier_plantvillage_0_split -> loss3/classifier_plantvillage_loss3/classifier_plantvillage_0_split_3
I0403 21:50:07.535656 24404 net.cpp:141] Setting up loss3/classifier_plantvillage_loss3/classifier_plantvillage_0_split
I0403 21:50:07.535678 24404 net.cpp:148] Top shape: 24 38 (912)
I0403 21:50:07.535694 24404 net.cpp:148] Top shape: 24 38 (912)
I0403 21:50:07.535709 24404 net.cpp:148] Top shape: 24 38 (912)
I0403 21:50:07.535725 24404 net.cpp:148] Top shape: 24 38 (912)
I0403 21:50:07.535739 24404 net.cpp:156] Memory required for data: 1346079072
I0403 21:50:07.535753 24404 layer_factory.hpp:77] Creating layer loss1/loss
I0403 21:50:07.535773 24404 net.cpp:91] Creating Layer loss1/loss
I0403 21:50:07.535791 24404 net.cpp:425] loss1/loss <- loss1/classifier_plantvillage_loss1/classifier_plantvillage_0_split_0
I0403 21:50:07.535820 24404 net.cpp:425] loss1/loss <- label_data_1_split_0
…
