…
I0403 21:55:09.198420 24692 net.cpp:313] The NetState phase (1) differed from the phase (0) specified by a rule in layer data
I0403 21:55:09.199518 24692 net.cpp:49] Initializing net from parameters: 
state {
  phase: TEST
}
layer {
  name: "data"
  type: "Data"
  top: "data"
  top: "label"
  include {
    phase: TEST
  }
  transform_param {
    mirror: false
    crop_size: 224
    mean_file: "/home/mohanty/data/final_dataset/lmdb/segmented-80-20/mean.binaryproto"
  }
  data_param {
    source: "/home/mohanty/data/final_dataset/lmdb/segmented-80-20/test_db"
    batch_size: 24
    backend: LMDB
  }
}
layer {
  name: "conv1/7x7_s2"
  type: "Convolution"
  bottom: "data"
  top: "conv1/7x7_s2"
  param {
    lr_mult: 1
    decay_mult: 1
  }
  param {
    lr_mult: 2
    decay_mult: 0
  }
  convolution_param {
    num_output: 64
    pad: 3
    kernel_size: 7
    stride: 2
    weight_filler {
      type: "xavier"
      std: 0.1
    }
    bias_filler {
      type: "constant"
      value: 0.2
    }
  }
}
layer {
  name: "conv1/relu_7x7"
  type: "ReLU"
  bottom: "conv1/7x7_s2"
  top: "conv1/7x7_s2"
}
layer {
  name: "pool1/3x3_s2"
  type: "Pooling"
  bottom: "conv1/7x7_s2"
  top: "pool1/3x3_s2"
  pooling_param {
    pool: MAX
    kernel_size: 3
    stride: 2
  }
}
layer {
  name: "pool1/norm1"
  type: "LRN"
  bottom: "pool1/3x3_s2"
  top: "pool1/norm1"
  lrn_param {
    local_size: 5
    alpha: 0.0001
    beta: 0.75
  }
}
layer {
  name: "conv2/3x3_reduce"
  type: "Convolution"
  bottom: "pool1/norm1"
  top: "conv2/3x3_reduce"
  param {
    lr_mult: 1
    decay_mult: 1
  }
  param {
    lr_mult: 2
    decay_mult: 0
  }
  convolution_param {
    num_output: 64
    kernel_size: 1
    weight_filler {
      type: "xavier"
      std: 0.1
    }
    bias_filler {
      type: "constant"
      value: 0.2
    }
  }
}
layer {
  name: "conv2/relu_3x3_reduce"
  type: "ReLU"
  bottom: "conv2/3x3_reduce"
  top: "conv2/3x3_reduce"
}
layer {
  name: "conv2/3x3"
  type: "Convolution"
  bottom: "conv2/3x3_reduce"
  top: "conv2/3x3"
  param {
    lr_mult: 1
    decay_mult: 1
  }
  param {
    lr_mult: 2
    decay_mult: 0
  }
  convolution_param {
    num_output: 192
    pad: 1
    kernel_size: 3
    weight_filler {
      type: "xavier"
      std: 0.03
    }
    bias_filler {
      type: "constant"
      value: 0.2
    }
  }
}
layer {
  name: "conv2/relu_3x3"
  type: "ReLU"
  bottom: "conv2/3x3"
  top: "conv2/3x3"
}
layer {
  name: "conv2/norm2"
  type: "LRN"
  bottom: "conv2/3x3"
  top: "conv2/norm2"
  lrn_param {
    local_size: 5
    alpha: 0.0001
    beta: 0.75
  }
}
layer {
  name: "pool2/3x3_s2"
  type: "Pooling"
  bottom: "conv2/norm2"
  top: "pool2/3x3_s2"
  pooling_param {
    pool: MAX
    kernel_size: 3
    stride: 2
  }
}
layer {
  name: "inception_3a/1x1"
  type: "Convolution"
  bottom: "pool2/3x3_s2"
  top: "inception_3a/1x1"
  param {
    lr_mult: 1
    decay_mult: 1
  }
  param {
    lr_mult: 2
    decay_mult: 0
  }
  convolution_param {
    num_output: 64
    kernel_size: 1
    weight_filler {
      type: "xavier"
      std: 0.03
    }
    bias_filler {
      type: "constant"
      value: 0.2
    }
  }
}
layer {
  name: "inception_3a/relu_1x1"
  type: "ReLU"
  bottom: "inception_3a/1x1"
  top: "inception_3a/1x1"
}
layer {
  name: "inception_3a/3x3_reduce"
  type: "Convolution"
  bottom: "pool2/3x3_s2"
  top: "inception_3a/3x3_reduce"
  param {
    lr_mult: 1
    decay_mult: 1
  }
  param {
    lr_mult: 2
    decay_mult: 0
  }
  convolution_param {
    num_output: 96
    kernel_size: 1
    weight_filler {
      type: "xavier"
      std: 0.09
    }
    bias_filler {
      type: "constant"
      value: 0.2
    }
  }
}
layer {
  name: "inception_3a/relu_3x3_reduce"
  type: "ReLU"
  bottom: "inception_3a/3x3_reduce"
  top: "inception_3a/3x3_reduce"
}
layer {
  name: "inception_3a/3x3"
  type: "Convolution"
  bottom: "inception_3a/3x3_reduce"
  top: "inception_3a/3x3"
  param {
    lr_mult: 1
    decay_mult: 1
  }
  param {
    lr_mult: 2
    decay_mult: 0
  }
  convolution_param {
    num_output: 128
    pad: 1
    kernel_size: 3
    weight_filler {
      type: "xavier"
      std: 0.03
    }
    bias_filler {
      type: "constant"
      value: 0.2
    }
  }
}
layer {
  name: "inception_3a/relu_3x3"
  type: "ReLU"
  bottom: "inception_3a/3x3"
  top: "inception_3a/3x3"
}
layer {
  name: "inception_3a/5x5_reduce"
  type: "Convolution"
  bottom: "pool2/3x3_s2"
  top: "inception_3a/5x5_reduce"
  param {
    lr_mult: 1
    decay_mult: 1
  }
  param {
    lr_mult: 2
    decay_mult: 0
  }
  convolution_param {
    num_output: 16
    kernel_size: 1
    weight_filler {
      type: "xavier"
      std: 0.2
    }
    bias_filler {
      type: "constant"
      value: 0.2
    }
  }
}
layer {
  name: "inception_3a/relu_5x5_reduce"
  type: "ReLU"
  bottom: "inception_3a/5x5_reduce"
  top: "inception_3a/5x5_reduce"
}
layer {
  name: "inception_3a/5x5"
  type: "Convolution"
  bottom: "inception_3a/5x5_reduce"
  top: "inception_3a/5x5"
  param {
    lr_mult: 1
    decay_mult: 1
  }
  param {
    lr_mult: 2
    decay_mult: 0
  }
  convolution_param {
    num_output: 32
    pad: 2
    kernel_size: 5
    weight_filler {
      type: "xavier"
      std: 0.03
    }
    bias_filler {
      type: "constant"
      value: 0.2
    }
  }
}
layer {
  name: "inception_3a/relu_5x5"
  type: "ReLU"
  bottom: "inception_3a/5x5"
  top: "inception_3a/5x5"
}
layer {
  name: "inception_3a/pool"
  type: "Pooling"
  bottom: "pool2/3x3_s2"
  top: "inception_3a/pool"
  pooling_param {
    pool: MAX
    kernel_size: 3
    stride: 1
    pad: 1
  }
}
layer {
  name: "inception_3a/pool_proj"
  type: "Convolution"
  bottom: "inception_3a/pool"
  top: "inception_3a/pool_proj"
  param {
    lr_mult: 1
    decay_mult: 1
  }
  param {
    lr_mult: 2
    decay_mult: 0
  }
  convolution_param {
    num_output: 32
    kernel_size: 1
    weight_filler {
      type: "xavier"
      std: 0.1
    }
    bias_filler {
      type: "constant"
      value: 0.2
    }
  }
}
layer {
  name: "inception_3a/relu_pool_proj"
  type: "ReLU"
  bottom: "inception_3a/pool_proj"
  top: "inception_3a/pool_proj"
}
layer {
  name: "inception_3a/output"
  type: "Concat"
  bottom: "inception_3a/1x1"
  bottom: "inception_3a/3x3"
  bottom: "inception_3a/5x5"
  bottom: "inception_3a/pool_proj"
  top: "inception_3a/output"
}
layer {
  name: "inception_3b/1x1"
  type: "Convolution"
  bottom: "inception_3a/output"
  top: "inception_3b/1x1"
  param {
    lr_mult: 1
    decay_mult: 1
  }
  param {
    lr_mult: 2
    decay_mult: 0
  }
  convolution_param {
    num_output: 128
    kernel_size: 1
    weight_filler {
      type: "xavier"
      std: 0.03
    }
    bias_filler {
      type: "constant"
      value: 0.2
    }
  }
}
layer {
  name: "inception_3b/relu_1x1"
  type: "ReLU"
  bottom: "inception_3b/1x1"
  top: "inception_3b/1x1"
}
layer {
  name: "inception_3b/3x3_reduce"
  type: "Convolution"
  bottom: "inception_3a/output"
  top: "inception_3b/3x3_reduce"
  param {
    lr_mult: 1
    decay_mult: 1
  }
  param {
    lr_mult: 2
    decay_mult: 0
  }
  convolution_param {
    num_output: 128
    kernel_size: 1
    weight_filler {
      type: "xavier"
      std: 0.09
    }
    bias_filler {
      type: "constant"
      value: 0.2
    }
  }
}
layer {
  name: "inception_3b/relu_3x3_reduce"
  type: "ReLU"
  bottom: "inception_3b/3x3_reduce"
  top: "inception_3b/3x3_reduce"
}
layer {
  name: "inception_3b/3x3"
  type: "Convolution"
  bottom: "inception_3b/3x3_reduce"
  top: "inception_3b/3x3"
  param {
    lr_mult: 1
    decay_mult: 1
  }
  param {
    lr_mult: 2
    decay_mult: 0
  }
  convolution_param {
    num_output: 192
    pad: 1
    kernel_size: 3
    weight_filler {
      type: "xavier"
      std: 0.03
    }
    bias_filler {
      type: "constant"
      value: 0.2
    }
  }
}
layer {
  name: "inception_3b/relu_3x3"
  type: "ReLU"
  bottom: "inception_3b/3x3"
  top: "inception_3b/3x3"
}
layer {
  name: "inception_3b/5x5_reduce"
  type: "Convolution"
  bottom: "inception_3a/output"
  top: "inception_3b/5x5_reduce"
  param {
    lr_mult: 1
    decay_mult: 1
  }
  param {
    lr_mult: 2
    decay_mult: 0
  }
  convolution_param {
    num_output: 32
    kernel_size: 1
    weight_filler {
      type: "xavier"
      std: 0.2
    }
    bias_filler {
      type: "constant"
      value: 0.2
    }
  }
}
layer {
  name: "inception_3b/relu_5x5_reduce"
  type: "ReLU"
  bottom: "inception_3b/5x5_reduce"
  top: "inception_3b/5x5_reduce"
}
layer {
  name: "inception_3b/5x5"
  type: "Convolution"
  bottom: "inception_3b/5x5_reduce"
  top: "inception_3b/5x5"
  param {
    lr_mult: 1
    decay_mult: 1
  }
  param {
    lr_mult: 2
    decay_mult: 0
  }
  convolution_param {
    num_output: 96
    pad: 2
    kernel_size: 5
    weight_filler {
      type: "xavier"
      std: 0.03
    }
    bias_filler {
      type: "constant"
      value: 0.2
    }
  }
}
layer {
  name: "inception_3b/relu_5x5"
  type: "ReLU"
  bottom: "inception_3b/5x5"
  top: "inception_3b/5x5"
}
layer {
  name: "inception_3b/pool"
  type: "Pooling"
  bottom: "inception_3a/output"
  top: "inception_3b/pool"
  pooling_param {
    pool: MAX
    kernel_size: 3
    stride: 1
    pad: 1
  }
}
layer {
  name: "inception_3b/pool_proj"
  type: "Convolution"
  bottom: "inception_3b/pool"
  top: "inception_3b/pool_proj"
  param {
    lr_mult: 1
    decay_mult: 1
  }
  param {
    lr_mult: 2
    decay_mult: 0
  }
  convolution_param {
    num_output: 64
    kernel_size: 1
    weight_filler {
      type: "xavier"
      std: 0.1
    }
    bias_filler {
      type: "constant"
      value: 0.2
    }
  }
}
layer {
  name: "inception_3b/relu_pool_proj"
  type: "ReLU"
  bottom: "inception_3b/pool_proj"
  top: "inception_3b/pool_proj"
}
layer {
  name: "inception_3b/output"
  type: "Concat"
  bottom: "inception_3b/1x1"
  bottom: "inception_3b/3x3"
  bottom: "inception_3b/5x5"
  bottom: "inception_3b/pool_proj"
  top: "inception_3b/output"
}
layer {
  name: "pool3/3x3_s2"
  type: "Pooling"
  bottom: "inception_3b/output"
  top: "pool3/3x3_s2"
  pooling_param {
    pool: MAX
    kernel_size: 3
    stride: 2
  }
}
layer {
  name: "inception_4a/1x1"
  type: "Convolution"
  bottom: "pool3/3x3_s2"
  top: "inception_4a/1x1"
  param {
    lr_mult: 1
    decay_mult: 1
  }
  param {
    lr_mult: 2
    decay_mult: 0
  }
  convolution_param {
    num_output: 192
    kernel_size: 1
    weight_filler {
      type: "xavier"
      std: 0.03
    }
    bias_filler {
      type: "constant"
      value: 0.2
    }
  }
}
layer {
  name: "inception_4a/relu_1x1"
  type: "ReLU"
  bottom: "inception_4a/1x1"
  top: "inception_4a/1x1"
}
layer {
  name: "inception_4a/3x3_reduce"
  type: "Convolution"
  bottom: "pool3/3x3_s2"
  top: "inception_4a/3x3_reduce"
  param {
    lr_mult: 1
    decay_mult: 1
  }
  param {
    lr_mult: 2
    decay_mult: 0
  }
  convolution_param {
    num_output: 96
    kernel_size: 1
    weight_filler {
      type: "xavier"
      std: 0.09
    }
    bias_filler {
      type: "constant"
      value: 0.2
    }
  }
}
layer {
  name: "inception_4a/relu_3x3_reduce"
  type: "ReLU"
  bottom: "inception_4a/3x3_reduce"
  top: "inception_4a/3x3_reduce"
}
layer {
  name: "inception_4a/3x3"
  type: "Convolution"
  bottom: "inception_4a/3x3_reduce"
  top: "inception_4a/3x3"
  param {
    lr_mult: 1
    decay_mult: 1
  }
  param {
    lr_mult: 2
    decay_mult: 0
  }
  convolution_param {
    num_output: 208
    pad: 1
    kernel_size: 3
    weight_filler {
      type: "xavier"
      std: 0.03
    }
    bias_filler {
      type: "constant"
      value: 0.2
    }
  }
}
layer {
  name: "inception_4a/relu_3x3"
  type: "ReLU"
  bottom: "inception_4a/3x3"
  top: "inception_4a/3x3"
}
layer {
  name: "inception_4a/5x5_reduce"
  type: "Convolution"
  bottom: "pool3/3x3_s2"
  top: "inception_4a/5x5_reduce"
  param {
    lr_mult: 1
    decay_mult: 1
  }
  param {
    lr_mult: 2
    decay_mult: 0
  }
  convolution_param {
    num_output: 16
    kernel_size: 1
    weight_filler {
      type: "xavier"
      std: 0.2
    }
    bias_filler {
      type: "constant"
      value: 0.2
    }
  }
}
layer {
  name: "inception_4a/relu_5x5_reduce"
  type: "ReLU"
  bottom: "inception_4a/5x5_reduce"
  top: "inception_4a/5x5_reduce"
}
layer {
  name: "inception_4a/5x5"
  type: "Convolution"
  bottom: "inception_4a/5x5_reduce"
  top: "inception_4a/5x5"
  param {
    lr_mult: 1
    decay_mult: 1
  }
  param {
    lr_mult: 2
    decay_mult: 0
  }
  convolution_param {
    num_output: 48
    pad: 2
    kernel_size: 5
    weight_filler {
      type: "xavier"
      std: 0.03
    }
    bias_filler {
      type: "constant"
      value: 0.2
    }
  }
}
layer {
  name: "inception_4a/relu_5x5"
  type: "ReLU"
  bottom: "inception_4a/5x5"
  top: "inception_4a/5x5"
}
layer {
  name: "inception_4a/pool"
  type: "Pooling"
  bottom: "pool3/3x3_s2"
  top: "inception_4a/pool"
  pooling_param {
    pool: MAX
    kernel_size: 3
    stride: 1
    pad: 1
  }
}
layer {
  name: "inception_4a/pool_proj"
  type: "Convolution"
  bottom: "inception_4a/pool"
  top: "inception_4a/pool_proj"
  param {
    lr_mult: 1
    decay_mult: 1
  }
  param {
    lr_mult: 2
    decay_mult: 0
  }
  convolution_param {
    num_output: 64
    kernel_size: 1
    weight_filler {
      type: "xavier"
      std: 0.1
    }
    bias_filler {
      type: "constant"
      value: 0.2
    }
  }
}
layer {
  name: "inception_4a/relu_pool_proj"
  type: "ReLU"
  bottom: "inception_4a/pool_proj"
  top: "inception_4a/pool_proj"
}
layer {
  name: "inception_4a/output"
  type: "Concat"
  bottom: "inception_4a/1x1"
  bottom: "inception_4a/3x3"
  bottom: "inception_4a/5x5"
  bottom: "inception_4a/pool_proj"
  top: "inception_4a/output"
}
layer {
  name: "loss1/ave_pool"
  type: "Pooling"
  bottom: "inception_4a/output"
  top: "loss1/ave_pool"
  pooling_param {
    pool: AVE
    kernel_size: 5
    stride: 3
  }
}
layer {
  name: "loss1/conv"
  type: "Convolution"
  bottom: "loss1/ave_pool"
  top: "loss1/conv"
  param {
    lr_mult: 1
    decay_mult: 1
  }
  param {
    lr_mult: 2
    decay_mult: 0
  }
  convolution_param {
    num_output: 128
    kernel_size: 1
    weight_filler {
      type: "xavier"
      std: 0.08
    }
    bias_filler {
      type: "constant"
      value: 0.2
    }
  }
}
layer {
  name: "loss1/relu_conv"
  type: "ReLU"
  bottom: "loss1/conv"
  top: "loss1/conv"
}
layer {
  name: "loss1/fc"
  type: "InnerProduct"
  bottom: "loss1/conv"
  top: "loss1/fc"
  param {
    lr_mult: 1
    decay_mult: 1
  }
  param {
    lr_mult: 2
    decay_mult: 0
  }
  inner_product_param {
    num_output: 1024
    weight_filler {
      type: "xavier"
      std: 0.02
    }
    bias_filler {
      type: "constant"
      value: 0.2
    }
  }
}
layer {
  name: "loss1/relu_fc"
  type: "ReLU"
  bottom: "loss1/fc"
  top: "loss1/fc"
}
layer {
  name: "loss1/drop_fc"
  type: "Dropout"
  bottom: "loss1/fc"
  top: "loss1/fc"
  dropout_param {
    dropout_ratio: 0.7
  }
}
layer {
  name: "loss1/classifier_plantvillage"
  type: "InnerProduct"
  bottom: "loss1/fc"
  top: "loss1/classifier_plantvillage"
  param {
    lr_mult: 1
    decay_mult: 1
  }
  param {
    lr_mult: 2
    decay_mult: 0
  }
  inner_product_param {
    num_output: 38
    weight_filler {
      type: "xavier"
      std: 0.0009765625
    }
    bias_filler {
      type: "constant"
      value: 0
    }
  }
}
layer {
  name: "inception_4b/1x1"
  type: "Convolution"
  bottom: "inception_4a/output"
  top: "inception_4b/1x1"
  param {
    lr_mult: 1
    decay_mult: 1
  }
  param {
    lr_mult: 2
    decay_mult: 0
  }
  convolution_param {
    num_output: 160
    kernel_size: 1
    weight_filler {
      type: "xavier"
      std: 0.03
    }
    bias_filler {
      type: "constant"
      value: 0.2
    }
  }
}
layer {
  name: "inception_4b/relu_1x1"
  type: "ReLU"
  bottom: "inception_4b/1x1"
  top: "inception_4b/1x1"
}
layer {
  name: "inception_4b/3x3_reduce"
  type: "Convolution"
  bottom: "inception_4a/output"
  top: "inception_4b/3x3_reduce"
  param {
    lr_mult: 1
    decay_mult: 1
  }
  param {
    lr_mult: 2
    decay_mult: 0
  }
  convolution_param {
    num_output: 112
    kernel_size: 1
    weight_filler {
      type: "xavier"
      std: 0.09
    }
    bias_filler {
      type: "constant"
      value: 0.2
    }
  }
}
layer {
  name: "inception_4b/relu_3x3_reduce"
  type: "ReLU"
  bottom: "inception_4b/3x3_reduce"
  top: "inception_4b/3x3_reduce"
}
layer {
  name: "inception_4b/3x3"
  type: "Convolution"
  bottom: "inception_4b/3x3_reduce"
  top: "inception_4b/3x3"
  param {
    lr_mult: 1
    decay_mult: 1
  }
  param {
    lr_mult: 2
    decay_mult: 0
  }
  convolution_param {
    num_output: 224
    pad: 1
    kernel_size: 3
    weight_filler {
      type: "xavier"
      std: 0.03
    }
    bias_filler {
      type: "constant"
      value: 0.2
    }
  }
}
layer {
  name: "inception_4b/relu_3x3"
  type: "ReLU"
  bottom: "inception_4b/3x3"
  top: "inception_4b/3x3"
}
layer {
  name: "inception_4b/5x5_reduce"
  type: "Convolution"
  bottom: "inception_4a/output"
  top: "inception_4b/5x5_reduce"
  param {
    lr_mult: 1
    decay_mult: 1
  }
  param {
    lr_mult: 2
    decay_mult: 0
  }
  convolution_param {
    num_output: 24
    kernel_size: 1
    weight_filler {
      type: "xavier"
      std: 0.2
    }
    bias_filler {
      type: "constant"
      value: 0.2
    }
  }
}
layer {
  name: "inception_4b/relu_5x5_reduce"
  type: "ReLU"
  bottom: "inception_4b/5x5_reduce"
  top: "inception_4b/5x5_reduce"
}
layer {
  name: "inception_4b/5x5"
  type: "Convolution"
  bottom: "inception_4b/5x5_reduce"
  top: "inception_4b/5x5"
  param {
    lr_mult: 1
    decay_mult: 1
  }
  param {
    lr_mult: 2
    decay_mult: 0
  }
  convolution_param {
    num_output: 64
    pad: 2
    kernel_size: 5
    weight_filler {
      type: "xavier"
      std: 0.03
    }
    bias_filler {
      type: "constant"
      value: 0.2
    }
  }
}
layer {
  name: "inception_4b/relu_5x5"
  type: "ReLU"
  bottom: "inception_4b/5x5"
  top: "inception_4b/5x5"
}
layer {
  name: "inception_4b/pool"
  type: "Pooling"
  bottom: "inception_4a/output"
  top: "inception_4b/pool"
  pooling_param {
    pool: MAX
    kernel_size: 3
    stride: 1
    pad: 1
  }
}
layer {
  name: "inception_4b/pool_proj"
  type: "Convolution"
  bottom: "inception_4b/pool"
  top: "inception_4b/pool_proj"
  param {
    lr_mult: 1
    decay_mult: 1
  }
  param {
    lr_mult: 2
    decay_mult: 0
  }
  convolution_param {
    num_output: 64
    kernel_size: 1
    weight_filler {
      type: "xavier"
      std: 0.1
    }
    bias_filler {
      type: "constant"
      value: 0.2
    }
  }
}
layer {
  name: "inception_4b/relu_pool_proj"
  type: "ReLU"
  bottom: "inception_4b/pool_proj"
  top: "inception_4b/pool_proj"
}
layer {
  name: "inception_4b/output"
  type: "Concat"
  bottom: "inception_4b/1x1"
  bottom: "inception_4b/3x3"
  bottom: "inception_4b/5x5"
  bottom: "inception_4b/pool_proj"
  top: "inception_4b/output"
}
layer {
  name: "inception_4c/1x1"
  type: "Convolution"
  bottom: "inception_4b/output"
  top: "inception_4c/1x1"
  param {
    lr_mult: 1
    decay_mult: 1
  }
  param {
    lr_mult: 2
    decay_mult: 0
  }
  convolution_param {
    num_output: 128
    kernel_size: 1
    weight_filler {
      type: "xavier"
      std: 0.03
    }
    bias_filler {
      type: "constant"
      value: 0.2
    }
  }
}
layer {
  name: "inception_4c/relu_1x1"
  type: "ReLU"
  bottom: "inception_4c/1x1"
  top: "inception_4c/1x1"
}
layer {
  name: "inception_4c/3x3_reduce"
  type: "Convolution"
  bottom: "inception_4b/output"
  top: "inception_4c/3x3_reduce"
  param {
    lr_mult: 1
    decay_mult: 1
  }
  param {
    lr_mult: 2
    decay_mult: 0
  }
  convolution_param {
    num_output: 128
    kernel_size: 1
    weight_filler {
      type: "xavier"
      std: 0.09
    }
    bias_filler {
      type: "constant"
      value: 0.2
    }
  }
}
layer {
  name: "inception_4c/relu_3x3_reduce"
  type: "ReLU"
  bottom: "inception_4c/3x3_reduce"
  top: "inception_4c/3x3_reduce"
}
layer {
  name: "inception_4c/3x3"
  type: "Convolution"
  bottom: "inception_4c/3x3_reduce"
  top: "inception_4c/3x3"
  param {
    lr_mult: 1
    decay_mult: 1
  }
  param {
    lr_mult: 2
    decay_mult: 0
  }
  convolution_param {
    num_output: 256
    pad: 1
    kernel_size: 3
    weight_filler {
      type: "xavier"
      std: 0.03
    }
    bias_filler {
      type: "constant"
      value: 0.2
    }
  }
}
layer {
  name: "inception_4c/relu_3x3"
  type: "ReLU"
  bottom: "inception_4c/3x3"
  top: "inception_4c/3x3"
}
layer {
  name: "inception_4c/5x5_reduce"
  type: "Convolution"
  bottom: "inception_4b/output"
  top: "inception_4c/5x5_reduce"
  param {
    lr_mult: 1
    decay_mult: 1
  }
  param {
    lr_mult: 2
    decay_mult: 0
  }
  convolution_param {
    num_output: 24
    kernel_size: 1
    weight_filler {
      type: "xavier"
      std: 0.2
    }
    bias_filler {
      type: "constant"
      value: 0.2
    }
  }
}
layer {
  name: "inception_4c/relu_5x5_reduce"
  type: "ReLU"
  bottom: "inception_4c/5x5_reduce"
  top: "inception_4c/5x5_reduce"
}
layer {
  name: "inception_4c/5x5"
  type: "Convolution"
  bottom: "inception_4c/5x5_reduce"
  top: "inception_4c/5x5"
  param {
    lr_mult: 1
    decay_mult: 1
  }
  param {
    lr_mult: 2
    decay_mult: 0
  }
  convolution_param {
    num_output: 64
    pad: 2
    kernel_size: 5
    weight_filler {
      type: "xavier"
      std: 0.03
    }
    bias_filler {
      type: "constant"
      value: 0.2
    }
  }
}
layer {
  name: "inception_4c/relu_5x5"
  type: "ReLU"
  bottom: "inception_4c/5x5"
  top: "inception_4c/5x5"
}
layer {
  name: "inception_4c/pool"
  type: "Pooling"
  bottom: "inception_4b/output"
  top: "inception_4c/pool"
  pooling_param {
    pool: MAX
    kernel_size: 3
    stride: 1
    pad: 1
  }
}
layer {
  name: "inception_4c/pool_proj"
  type: "Convolution"
  bottom: "inception_4c/pool"
  top: "inception_4c/pool_proj"
  param {
    lr_mult: 1
    decay_mult: 1
  }
  param {
    lr_mult: 2
    decay_mult: 0
  }
  convolution_param {
    num_output: 64
    kernel_size: 1
    weight_filler {
      type: "xavier"
      std: 0.1
    }
    bias_filler {
      type: "constant"
      value: 0.2
    }
  }
}
layer {
  name: "inception_4c/relu_pool_proj"
  type: "ReLU"
  bottom: "inception_4c/pool_proj"
  top: "inception_4c/pool_proj"
}
layer {
  name: "inception_4c/output"
  type: "Concat"
  bottom: "inception_4c/1x1"
  bottom: "inception_4c/3x3"
  bottom: "inception_4c/5x5"
  bottom: "inception_4c/pool_proj"
  top: "inception_4c/output"
}
layer {
  name: "inception_4d/1x1"
  type: "Convolution"
  bottom: "inception_4c/output"
  top: "inception_4d/1x1"
  param {
    lr_mult: 1
    decay_mult: 1
  }
  param {
    lr_mult: 2
    decay_mult: 0
  }
  convolution_param {
    num_output: 112
    kernel_size: 1
    weight_filler {
      type: "xavier"
      std: 0.03
    }
    bias_filler {
      type: "constant"
      value: 0.2
    }
  }
}
layer {
  name: "inception_4d/relu_1x1"
  type: "ReLU"
  bottom: "inception_4d/1x1"
  top: "inception_4d/1x1"
}
layer {
  name: "inception_4d/3x3_reduce"
  type: "Convolution"
  bottom: "inception_4c/output"
  top: "inception_4d/3x3_reduce"
  param {
    lr_mult: 1
    decay_mult: 1
  }
  param {
    lr_mult: 2
    decay_mult: 0
  }
  convolution_param {
    num_output: 144
    kernel_size: 1
    weight_filler {
      type: "xavier"
      std: 0.09
    }
    bias_filler {
      type: "constant"
      value: 0.2
    }
  }
}
layer {
  name: "inception_4d/relu_3x3_reduce"
  type: "ReLU"
  bottom: "inception_4d/3x3_reduce"
  top: "inception_4d/3x3_reduce"
}
layer {
  name: "inception_4d/3x3"
  type: "Convolution"
  bottom: "inception_4d/3x3_reduce"
  top: "inception_4d/3x3"
  param {
    lr_mult: 1
    decay_mult: 1
  }
  param {
    lr_mult: 2
    decay_mult: 0
  }
  convolution_param {
    num_output: 288
    pad: 1
    kernel_size: 3
    weight_filler {
      type: "xavier"
      std: 0.03
    }
    bias_filler {
      type: "constant"
      value: 0.2
    }
  }
}
layer {
  name: "inception_4d/relu_3x3"
  type: "ReLU"
  bottom: "inception_4d/3x3"
  top: "inception_4d/3x3"
}
layer {
  name: "inception_4d/5x5_reduce"
  type: "Convolution"
  bottom: "inception_4c/output"
  top: "inception_4d/5x5_reduce"
  param {
    lr_mult: 1
    decay_mult: 1
  }
  param {
    lr_mult: 2
    decay_mult: 0
  }
  convolution_param {
    num_output: 32
    kernel_size: 1
    weight_filler {
      type: "xavier"
      std: 0.2
    }
    bias_filler {
      type: "constant"
      value: 0.2
    }
  }
}
layer {
  name: "inception_4d/relu_5x5_reduce"
  type: "ReLU"
  bottom: "inception_4d/5x5_reduce"
  top: "inception_4d/5x5_reduce"
}
layer {
  name: "inception_4d/5x5"
  type: "Convolution"
  bottom: "inception_4d/5x5_reduce"
  top: "inception_4d/5x5"
  param {
    lr_mult: 1
    decay_mult: 1
  }
  param {
    lr_mult: 2
    decay_mult: 0
  }
  convolution_param {
    num_output: 64
    pad: 2
    kernel_size: 5
    weight_filler {
      type: "xavier"
      std: 0.03
    }
    bias_filler {
      type: "constant"
      value: 0.2
    }
  }
}
layer {
  name: "inception_4d/relu_5x5"
  type: "ReLU"
  bottom: "inception_4d/5x5"
  top: "inception_4d/5x5"
}
layer {
  name: "inception_4d/pool"
  type: "Pooling"
  bottom: "inception_4c/output"
  top: "inception_4d/pool"
  pooling_param {
    pool: MAX
    kernel_size: 3
    stride: 1
    pad: 1
  }
}
layer {
  name: "inception_4d/pool_proj"
  type: "Convolution"
  bottom: "inception_4d/pool"
  top: "inception_4d/pool_proj"
  param {
    lr_mult: 1
    decay_mult: 1
  }
  param {
    lr_mult: 2
    decay_mult: 0
  }
  convolution_param {
    num_output: 64
    kernel_size: 1
    weight_filler {
      type: "xavier"
      std: 0.1
    }
    bias_filler {
      type: "constant"
      value: 0.2
    }
  }
}
layer {
  name: "inception_4d/relu_pool_proj"
  type: "ReLU"
  bottom: "inception_4d/pool_proj"
  top: "inception_4d/pool_proj"
}
layer {
  name: "inception_4d/output"
  type: "Concat"
  bottom: "inception_4d/1x1"
  bottom: "inception_4d/3x3"
  bottom: "inception_4d/5x5"
  bottom: "inception_4d/pool_proj"
  top: "inception_4d/output"
}
layer {
  name: "loss2/ave_pool"
  type: "Pooling"
  bottom: "inception_4d/output"
  top: "loss2/ave_pool"
  pooling_param {
    pool: AVE
    kernel_size: 5
    stride: 3
  }
}
layer {
  name: "loss2/conv"
  type: "Convolution"
  bottom: "loss2/ave_pool"
  top: "loss2/conv"
  param {
    lr_mult: 1
    decay_mult: 1
  }
  param {
    lr_mult: 2
    decay_mult: 0
  }
  convolution_param {
    num_output: 128
    kernel_size: 1
    weight_filler {
      type: "xavier"
      std: 0.08
    }
    bias_filler {
      type: "constant"
      value: 0.2
    }
  }
}
layer {
  name: "loss2/relu_conv"
  type: "ReLU"
  bottom: "loss2/conv"
  top: "loss2/conv"
}
layer {
  name: "loss2/fc"
  type: "InnerProduct"
  bottom: "loss2/conv"
  top: "loss2/fc"
  param {
    lr_mult: 1
    decay_mult: 1
  }
  param {
    lr_mult: 2
    decay_mult: 0
  }
  inner_product_param {
    num_output: 1024
    weight_filler {
      type: "xavier"
      std: 0.02
    }
    bias_filler {
      type: "constant"
      value: 0.2
    }
  }
}
layer {
  name: "loss2/relu_fc"
  type: "ReLU"
  bottom: "loss2/fc"
  top: "loss2/fc"
}
layer {
  name: "loss2/drop_fc"
  type: "Dropout"
  bottom: "loss2/fc"
  top: "loss2/fc"
  dropout_param {
    dropout_ratio: 0.7
  }
}
layer {
  name: "loss2/classifier_plantvillage"
  type: "InnerProduct"
  bottom: "loss2/fc"
  top: "loss2/classifier_plantvillage"
  param {
    lr_mult: 1
    decay_mult: 1
  }
  param {
    lr_mult: 2
    decay_mult: 0
  }
  inner_product_param {
    num_output: 38
    weight_filler {
      type: "xavier"
      std: 0.0009765625
    }
    bias_filler {
      type: "constant"
      value: 0
    }
  }
}
layer {
  name: "inception_4e/1x1"
  type: "Convolution"
  bottom: "inception_4d/output"
  top: "inception_4e/1x1"
  param {
    lr_mult: 1
    decay_mult: 1
  }
  param {
    lr_mult: 2
    decay_mult: 0
  }
  convolution_param {
    num_output: 256
    kernel_size: 1
    weight_filler {
      type: "xavier"
      std: 0.03
    }
    bias_filler {
      type: "constant"
      value: 0.2
    }
  }
}
layer {
  name: "inception_4e/relu_1x1"
  type: "ReLU"
  bottom: "inception_4e/1x1"
  top: "inception_4e/1x1"
}
layer {
  name: "inception_4e/3x3_reduce"
  type: "Convolution"
  bottom: "inception_4d/output"
  top: "inception_4e/3x3_reduce"
  param {
    lr_mult: 1
    decay_mult: 1
  }
  param {
    lr_mult: 2
    decay_mult: 0
  }
  convolution_param {
    num_output: 160
    kernel_size: 1
    weight_filler {
      type: "xavier"
      std: 0.09
    }
    bias_filler {
      type: "constant"
      value: 0.2
    }
  }
}
layer {
  name: "inception_4e/relu_3x3_reduce"
  type: "ReLU"
  bottom: "inception_4e/3x3_reduce"
  top: "inception_4e/3x3_reduce"
}
layer {
  name: "inception_4e/3x3"
  type: "Convolution"
  bottom: "inception_4e/3x3_reduce"
  top: "inception_4e/3x3"
  param {
    lr_mult: 1
    decay_mult: 1
  }
  param {
    lr_mult: 2
    decay_mult: 0
  }
  convolution_param {
    num_output: 320
    pad: 1
    kernel_size: 3
    weight_filler {
      type: "xavier"
      std: 0.03
    }
    bias_filler {
      type: "constant"
      value: 0.2
    }
  }
}
layer {
  name: "inception_4e/relu_3x3"
  type: "ReLU"
  bottom: "inception_4e/3x3"
  top: "inception_4e/3x3"
}
layer {
  name: "inception_4e/5x5_reduce"
  type: "Convolution"
  bottom: "inception_4d/output"
  top: "inception_4e/5x5_reduce"
  param {
    lr_mult: 1
    decay_mult: 1
  }
  param {
    lr_mult: 2
    decay_mult: 0
  }
  convolution_param {
    num_output: 32
    kernel_size: 1
    weight_filler {
      type: "xavier"
      std: 0.2
    }
    bias_filler {
      type: "constant"
      value: 0.2
    }
  }
}
layer {
  name: "inception_4e/relu_5x5_reduce"
  type: "ReLU"
  bottom: "inception_4e/5x5_reduce"
  top: "inception_4e/5x5_reduce"
}
layer {
  name: "inception_4e/5x5"
  type: "Convolution"
  bottom: "inception_4e/5x5_reduce"
  top: "inception_4e/
I0403 21:55:09.200775 24692 layer_factory.hpp:77] Creating layer data
I0403 21:55:09.201354 24692 net.cpp:91] Creating Layer data
I0403 21:55:09.201386 24692 net.cpp:399] data -> data
I0403 21:55:09.201438 24692 net.cpp:399] data -> label
I0403 21:55:09.201475 24692 data_transformer.cpp:25] Loading mean file from: /home/mohanty/data/final_dataset/lmdb/segmented-80-20/mean.binaryproto
I0403 21:55:09.202626 24695 db_lmdb.cpp:38] Opened lmdb /home/mohanty/data/final_dataset/lmdb/segmented-80-20/test_db
I0403 21:55:09.214270 24692 data_layer.cpp:41] output data size: 24,3,224,224
I0403 21:55:09.241581 24692 net.cpp:141] Setting up data
I0403 21:55:09.241662 24692 net.cpp:148] Top shape: 24 3 224 224 (3612672)
I0403 21:55:09.241685 24692 net.cpp:148] Top shape: 24 (24)
I0403 21:55:09.241701 24692 net.cpp:156] Memory required for data: 14450784
I0403 21:55:09.241727 24692 layer_factory.hpp:77] Creating layer label_data_1_split
I0403 21:55:09.241755 24692 net.cpp:91] Creating Layer label_data_1_split
I0403 21:55:09.241771 24692 net.cpp:425] label_data_1_split <- label
I0403 21:55:09.241803 24692 net.cpp:399] label_data_1_split -> label_data_1_split_0
I0403 21:55:09.241832 24692 net.cpp:399] label_data_1_split -> label_data_1_split_1
I0403 21:55:09.241852 24692 net.cpp:399] label_data_1_split -> label_data_1_split_2
I0403 21:55:09.241874 24692 net.cpp:399] label_data_1_split -> label_data_1_split_3
I0403 21:55:09.241894 24692 net.cpp:399] label_data_1_split -> label_data_1_split_4
I0403 21:55:09.241914 24692 net.cpp:399] label_data_1_split -> label_data_1_split_5
I0403 21:55:09.241933 24692 net.cpp:399] label_data_1_split -> label_data_1_split_6
I0403 21:55:09.241957 24692 net.cpp:399] label_data_1_split -> label_data_1_split_7
I0403 21:55:09.241978 24692 net.cpp:399] label_data_1_split -> label_data_1_split_8
I0403 21:55:09.241998 24692 net.cpp:399] label_data_1_split -> label_data_1_split_9
I0403 21:55:09.242110 24692 net.cpp:141] Setting up label_data_1_split
I0403 21:55:09.242133 24692 net.cpp:148] Top shape: 24 (24)
I0403 21:55:09.242151 24692 net.cpp:148] Top shape: 24 (24)
I0403 21:55:09.242167 24692 net.cpp:148] Top shape: 24 (24)
I0403 21:55:09.242199 24692 net.cpp:148] Top shape: 24 (24)
I0403 21:55:09.242218 24692 net.cpp:148] Top shape: 24 (24)
I0403 21:55:09.242235 24692 net.cpp:148] Top shape: 24 (24)
I0403 21:55:09.242251 24692 net.cpp:148] Top shape: 24 (24)
I0403 21:55:09.242267 24692 net.cpp:148] Top shape: 24 (24)
I0403 21:55:09.242283 24692 net.cpp:148] Top shape: 24 (24)
I0403 21:55:09.242300 24692 net.cpp:148] Top shape: 24 (24)
I0403 21:55:09.242349 24692 net.cpp:156] Memory required for data: 14451744
I0403 21:55:09.242365 24692 layer_factory.hpp:77] Creating layer conv1/7x7_s2
I0403 21:55:09.242398 24692 net.cpp:91] Creating Layer conv1/7x7_s2
I0403 21:55:09.242418 24692 net.cpp:425] conv1/7x7_s2 <- data
I0403 21:55:09.242437 24692 net.cpp:399] conv1/7x7_s2 -> conv1/7x7_s2
I0403 21:55:09.381342 24692 net.cpp:141] Setting up conv1/7x7_s2
I0403 21:55:09.381423 24692 net.cpp:148] Top shape: 24 64 112 112 (19267584)
I0403 21:55:09.381440 24692 net.cpp:156] Memory required for data: 91522080
I0403 21:55:09.381471 24692 layer_factory.hpp:77] Creating layer conv1/relu_7x7
I0403 21:55:09.381499 24692 net.cpp:91] Creating Layer conv1/relu_7x7
I0403 21:55:09.381517 24692 net.cpp:425] conv1/relu_7x7 <- conv1/7x7_s2
I0403 21:55:09.381539 24692 net.cpp:386] conv1/relu_7x7 -> conv1/7x7_s2 (in-place)
I0403 21:55:09.381808 24692 net.cpp:141] Setting up conv1/relu_7x7
I0403 21:55:09.381835 24692 net.cpp:148] Top shape: 24 64 112 112 (19267584)
I0403 21:55:09.381851 24692 net.cpp:156] Memory required for data: 168592416
I0403 21:55:09.381867 24692 layer_factory.hpp:77] Creating layer pool1/3x3_s2
I0403 21:55:09.381891 24692 net.cpp:91] Creating Layer pool1/3x3_s2
I0403 21:55:09.381924 24692 net.cpp:425] pool1/3x3_s2 <- conv1/7x7_s2
I0403 21:55:09.381945 24692 net.cpp:399] pool1/3x3_s2 -> pool1/3x3_s2
I0403 21:55:09.382026 24692 net.cpp:141] Setting up pool1/3x3_s2
I0403 21:55:09.382051 24692 net.cpp:148] Top shape: 24 64 56 56 (4816896)
I0403 21:55:09.382066 24692 net.cpp:156] Memory required for data: 187860000
I0403 21:55:09.382082 24692 layer_factory.hpp:77] Creating layer pool1/norm1
I0403 21:55:09.382109 24692 net.cpp:91] Creating Layer pool1/norm1
I0403 21:55:09.382129 24692 net.cpp:425] pool1/norm1 <- pool1/3x3_s2
I0403 21:55:09.382149 24692 net.cpp:399] pool1/norm1 -> pool1/norm1
I0403 21:55:09.382462 24692 net.cpp:141] Setting up pool1/norm1
I0403 21:55:09.382489 24692 net.cpp:148] Top shape: 24 64 56 56 (4816896)
I0403 21:55:09.382504 24692 net.cpp:156] Memory required for data: 207127584
I0403 21:55:09.382520 24692 layer_factory.hpp:77] Creating layer conv2/3x3_reduce
I0403 21:55:09.382546 24692 net.cpp:91] Creating Layer conv2/3x3_reduce
I0403 21:55:09.382563 24692 net.cpp:425] conv2/3x3_reduce <- pool1/norm1
I0403 21:55:09.382585 24692 net.cpp:399] conv2/3x3_reduce -> conv2/3x3_reduce
I0403 21:55:09.384002 24692 net.cpp:141] Setting up conv2/3x3_reduce
I0403 21:55:09.384034 24692 net.cpp:148] Top shape: 24 64 56 56 (4816896)
I0403 21:55:09.384050 24692 net.cpp:156] Memory required for data: 226395168
I0403 21:55:09.384073 24692 layer_factory.hpp:77] Creating layer conv2/relu_3x3_reduce
I0403 21:55:09.384091 24692 net.cpp:91] Creating Layer conv2/relu_3x3_reduce
I0403 21:55:09.384107 24692 net.cpp:425] conv2/relu_3x3_reduce <- conv2/3x3_reduce
I0403 21:55:09.384125 24692 net.cpp:386] conv2/relu_3x3_reduce -> conv2/3x3_reduce (in-place)
I0403 21:55:09.384388 24692 net.cpp:141] Setting up conv2/relu_3x3_reduce
I0403 21:55:09.384418 24692 net.cpp:148] Top shape: 24 64 56 56 (4816896)
I0403 21:55:09.384433 24692 net.cpp:156] Memory required for data: 245662752
I0403 21:55:09.384449 24692 layer_factory.hpp:77] Creating layer conv2/3x3
I0403 21:55:09.384472 24692 net.cpp:91] Creating Layer conv2/3x3
I0403 21:55:09.384490 24692 net.cpp:425] conv2/3x3 <- conv2/3x3_reduce
I0403 21:55:09.384508 24692 net.cpp:399] conv2/3x3 -> conv2/3x3
I0403 21:55:09.386766 24692 net.cpp:141] Setting up conv2/3x3
I0403 21:55:09.386800 24692 net.cpp:148] Top shape: 24 192 56 56 (14450688)
I0403 21:55:09.386816 24692 net.cpp:156] Memory required for data: 303465504
I0403 21:55:09.386837 24692 layer_factory.hpp:77] Creating layer conv2/relu_3x3
I0403 21:55:09.386857 24692 net.cpp:91] Creating Layer conv2/relu_3x3
I0403 21:55:09.386873 24692 net.cpp:425] conv2/relu_3x3 <- conv2/3x3
I0403 21:55:09.386891 24692 net.cpp:386] conv2/relu_3x3 -> conv2/3x3 (in-place)
I0403 21:55:09.387059 24692 net.cpp:141] Setting up conv2/relu_3x3
I0403 21:55:09.387085 24692 net.cpp:148] Top shape: 24 192 56 56 (14450688)
I0403 21:55:09.387131 24692 net.cpp:156] Memory required for data: 361268256
I0403 21:55:09.387147 24692 layer_factory.hpp:77] Creating layer conv2/norm2
I0403 21:55:09.387171 24692 net.cpp:91] Creating Layer conv2/norm2
I0403 21:55:09.387204 24692 net.cpp:425] conv2/norm2 <- conv2/3x3
I0403 21:55:09.387225 24692 net.cpp:399] conv2/norm2 -> conv2/norm2
I0403 21:55:09.387536 24692 net.cpp:141] Setting up conv2/norm2
I0403 21:55:09.387562 24692 net.cpp:148] Top shape: 24 192 56 56 (14450688)
I0403 21:55:09.387578 24692 net.cpp:156] Memory required for data: 419071008
I0403 21:55:09.387593 24692 layer_factory.hpp:77] Creating layer pool2/3x3_s2
I0403 21:55:09.387611 24692 net.cpp:91] Creating Layer pool2/3x3_s2
I0403 21:55:09.387629 24692 net.cpp:425] pool2/3x3_s2 <- conv2/norm2
I0403 21:55:09.387645 24692 net.cpp:399] pool2/3x3_s2 -> pool2/3x3_s2
I0403 21:55:09.387699 24692 net.cpp:141] Setting up pool2/3x3_s2
I0403 21:55:09.387723 24692 net.cpp:148] Top shape: 24 192 28 28 (3612672)
I0403 21:55:09.387738 24692 net.cpp:156] Memory required for data: 433521696
I0403 21:55:09.387753 24692 layer_factory.hpp:77] Creating layer pool2/3x3_s2_pool2/3x3_s2_0_split
I0403 21:55:09.387771 24692 net.cpp:91] Creating Layer pool2/3x3_s2_pool2/3x3_s2_0_split
I0403 21:55:09.387786 24692 net.cpp:425] pool2/3x3_s2_pool2/3x3_s2_0_split <- pool2/3x3_s2
I0403 21:55:09.387805 24692 net.cpp:399] pool2/3x3_s2_pool2/3x3_s2_0_split -> pool2/3x3_s2_pool2/3x3_s2_0_split_0
I0403 21:55:09.387826 24692 net.cpp:399] pool2/3x3_s2_pool2/3x3_s2_0_split -> pool2/3x3_s2_pool2/3x3_s2_0_split_1
I0403 21:55:09.387847 24692 net.cpp:399] pool2/3x3_s2_pool2/3x3_s2_0_split -> pool2/3x3_s2_pool2/3x3_s2_0_split_2
I0403 21:55:09.387868 24692 net.cpp:399] pool2/3x3_s2_pool2/3x3_s2_0_split -> pool2/3x3_s2_pool2/3x3_s2_0_split_3
I0403 21:55:09.387938 24692 net.cpp:141] Setting up pool2/3x3_s2_pool2/3x3_s2_0_split
I0403 21:55:09.387962 24692 net.cpp:148] Top shape: 24 192 28 28 (3612672)
I0403 21:55:09.387979 24692 net.cpp:148] Top shape: 24 192 28 28 (3612672)
I0403 21:55:09.387995 24692 net.cpp:148] Top shape: 24 192 28 28 (3612672)
I0403 21:55:09.388010 24692 net.cpp:148] Top shape: 24 192 28 28 (3612672)
I0403 21:55:09.388025 24692 net.cpp:156] Memory required for data: 491324448
I0403 21:55:09.388038 24692 layer_factory.hpp:77] Creating layer inception_3a/1x1
I0403 21:55:09.388061 24692 net.cpp:91] Creating Layer inception_3a/1x1
I0403 21:55:09.388078 24692 net.cpp:425] inception_3a/1x1 <- pool2/3x3_s2_pool2/3x3_s2_0_split_0
I0403 21:55:09.388098 24692 net.cpp:399] inception_3a/1x1 -> inception_3a/1x1
I0403 21:55:09.389631 24692 net.cpp:141] Setting up inception_3a/1x1
I0403 21:55:09.389660 24692 net.cpp:148] Top shape: 24 64 28 28 (1204224)
I0403 21:55:09.389677 24692 net.cpp:156] Memory required for data: 496141344
I0403 21:55:09.389696 24692 layer_factory.hpp:77] Creating layer inception_3a/relu_1x1
I0403 21:55:09.389715 24692 net.cpp:91] Creating Layer inception_3a/relu_1x1
I0403 21:55:09.389731 24692 net.cpp:425] inception_3a/relu_1x1 <- inception_3a/1x1
I0403 21:55:09.389750 24692 net.cpp:386] inception_3a/relu_1x1 -> inception_3a/1x1 (in-place)
I0403 21:55:09.389919 24692 net.cpp:141] Setting up inception_3a/relu_1x1
I0403 21:55:09.389945 24692 net.cpp:148] Top shape: 24 64 28 28 (1204224)
I0403 21:55:09.389961 24692 net.cpp:156] Memory required for data: 500958240
I0403 21:55:09.389976 24692 layer_factory.hpp:77] Creating layer inception_3a/3x3_reduce
I0403 21:55:09.389997 24692 net.cpp:91] Creating Layer inception_3a/3x3_reduce
I0403 21:55:09.390015 24692 net.cpp:425] inception_3a/3x3_reduce <- pool2/3x3_s2_pool2/3x3_s2_0_split_1
I0403 21:55:09.390036 24692 net.cpp:399] inception_3a/3x3_reduce -> inception_3a/3x3_reduce
I0403 21:55:09.391738 24692 net.cpp:141] Setting up inception_3a/3x3_reduce
I0403 21:55:09.391769 24692 net.cpp:148] Top shape: 24 96 28 28 (1806336)
I0403 21:55:09.391788 24692 net.cpp:156] Memory required for data: 508183584
I0403 21:55:09.391808 24692 layer_factory.hpp:77] Creating layer inception_3a/relu_3x3_reduce
I0403 21:55:09.391842 24692 net.cpp:91] Creating Layer inception_3a/relu_3x3_reduce
I0403 21:55:09.391860 24692 net.cpp:425] inception_3a/relu_3x3_reduce <- inception_3a/3x3_reduce
I0403 21:55:09.391880 24692 net.cpp:386] inception_3a/relu_3x3_reduce -> inception_3a/3x3_reduce (in-place)
I0403 21:55:09.392052 24692 net.cpp:141] Setting up inception_3a/relu_3x3_reduce
I0403 21:55:09.392078 24692 net.cpp:148] Top shape: 24 96 28 28 (1806336)
I0403 21:55:09.392093 24692 net.cpp:156] Memory required for data: 515408928
I0403 21:55:09.392108 24692 layer_factory.hpp:77] Creating layer inception_3a/3x3
I0403 21:55:09.392130 24692 net.cpp:91] Creating Layer inception_3a/3x3
I0403 21:55:09.392148 24692 net.cpp:425] inception_3a/3x3 <- inception_3a/3x3_reduce
I0403 21:55:09.392170 24692 net.cpp:399] inception_3a/3x3 -> inception_3a/3x3
I0403 21:55:09.393762 24692 net.cpp:141] Setting up inception_3a/3x3
I0403 21:55:09.393795 24692 net.cpp:148] Top shape: 24 128 28 28 (2408448)
I0403 21:55:09.393812 24692 net.cpp:156] Memory required for data: 525042720
I0403 21:55:09.393831 24692 layer_factory.hpp:77] Creating layer inception_3a/relu_3x3
I0403 21:55:09.393849 24692 net.cpp:91] Creating Layer inception_3a/relu_3x3
I0403 21:55:09.393864 24692 net.cpp:425] inception_3a/relu_3x3 <- inception_3a/3x3
I0403 21:55:09.393884 24692 net.cpp:386] inception_3a/relu_3x3 -> inception_3a/3x3 (in-place)
I0403 21:55:09.394146 24692 net.cpp:141] Setting up inception_3a/relu_3x3
I0403 21:55:09.394176 24692 net.cpp:148] Top shape: 24 128 28 28 (2408448)
I0403 21:55:09.394191 24692 net.cpp:156] Memory required for data: 534676512
I0403 21:55:09.394212 24692 layer_factory.hpp:77] Creating layer inception_3a/5x5_reduce
I0403 21:55:09.394234 24692 net.cpp:91] Creating Layer inception_3a/5x5_reduce
I0403 21:55:09.394253 24692 net.cpp:425] inception_3a/5x5_reduce <- pool2/3x3_s2_pool2/3x3_s2_0_split_2
I0403 21:55:09.394271 24692 net.cpp:399] inception_3a/5x5_reduce -> inception_3a/5x5_reduce
I0403 21:55:09.395215 24692 net.cpp:141] Setting up inception_3a/5x5_reduce
I0403 21:55:09.395246 24692 net.cpp:148] Top shape: 24 16 28 28 (301056)
I0403 21:55:09.395263 24692 net.cpp:156] Memory required for data: 535880736
I0403 21:55:09.395282 24692 layer_factory.hpp:77] Creating layer inception_3a/relu_5x5_reduce
I0403 21:55:09.395301 24692 net.cpp:91] Creating Layer inception_3a/relu_5x5_reduce
I0403 21:55:09.395318 24692 net.cpp:425] inception_3a/relu_5x5_reduce <- inception_3a/5x5_reduce
I0403 21:55:09.395340 24692 net.cpp:386] inception_3a/relu_5x5_reduce -> inception_3a/5x5_reduce (in-place)
I0403 21:55:09.395639 24692 net.cpp:141] Setting up inception_3a/relu_5x5_reduce
I0403 21:55:09.395665 24692 net.cpp:148] Top shape: 24 16 28 28 (301056)
I0403 21:55:09.395680 24692 net.cpp:156] Memory required for data: 537084960
I0403 21:55:09.395696 24692 layer_factory.hpp:77] Creating layer inception_3a/5x5
I0403 21:55:09.395720 24692 net.cpp:91] Creating Layer inception_3a/5x5
I0403 21:55:09.395736 24692 net.cpp:425] inception_3a/5x5 <- inception_3a/5x5_reduce
I0403 21:55:09.395757 24692 net.cpp:399] inception_3a/5x5 -> inception_3a/5x5
I0403 21:55:09.396730 24692 net.cpp:141] Setting up inception_3a/5x5
I0403 21:55:09.396760 24692 net.cpp:148] Top shape: 24 32 28 28 (602112)
I0403 21:55:09.396777 24692 net.cpp:156] Memory required for data: 539493408
I0403 21:55:09.396796 24692 layer_factory.hpp:77] Creating layer inception_3a/relu_5x5
I0403 21:55:09.396814 24692 net.cpp:91] Creating Layer inception_3a/relu_5x5
I0403 21:55:09.396831 24692 net.cpp:425] inception_3a/relu_5x5 <- inception_3a/5x5
I0403 21:55:09.396850 24692 net.cpp:386] inception_3a/relu_5x5 -> inception_3a/5x5 (in-place)
I0403 21:55:09.397016 24692 net.cpp:141] Setting up inception_3a/relu_5x5
I0403 21:55:09.397040 24692 net.cpp:148] Top shape: 24 32 28 28 (602112)
I0403 21:55:09.397055 24692 net.cpp:156] Memory required for data: 541901856
I0403 21:55:09.397070 24692 layer_factory.hpp:77] Creating layer inception_3a/pool
I0403 21:55:09.397088 24692 net.cpp:91] Creating Layer inception_3a/pool
I0403 21:55:09.397116 24692 net.cpp:425] inception_3a/pool <- pool2/3x3_s2_pool2/3x3_s2_0_split_3
I0403 21:55:09.397137 24692 net.cpp:399] inception_3a/pool -> inception_3a/pool
I0403 21:55:09.397193 24692 net.cpp:141] Setting up inception_3a/pool
I0403 21:55:09.397220 24692 net.cpp:148] Top shape: 24 192 28 28 (3612672)
I0403 21:55:09.397235 24692 net.cpp:156] Memory required for data: 556352544
I0403 21:55:09.397250 24692 layer_factory.hpp:77] Creating layer inception_3a/pool_proj
I0403 21:55:09.397275 24692 net.cpp:91] Creating Layer inception_3a/pool_proj
I0403 21:55:09.397294 24692 net.cpp:425] inception_3a/pool_proj <- inception_3a/pool
I0403 21:55:09.397312 24692 net.cpp:399] inception_3a/pool_proj -> inception_3a/pool_proj
I0403 21:55:09.398249 24692 net.cpp:141] Setting up inception_3a/pool_proj
I0403 21:55:09.398277 24692 net.cpp:148] Top shape: 24 32 28 28 (602112)
I0403 21:55:09.398293 24692 net.cpp:156] Memory required for data: 558760992
I0403 21:55:09.398316 24692 layer_factory.hpp:77] Creating layer inception_3a/relu_pool_proj
I0403 21:55:09.398336 24692 net.cpp:91] Creating Layer inception_3a/relu_pool_proj
I0403 21:55:09.398352 24692 net.cpp:425] inception_3a/relu_pool_proj <- inception_3a/pool_proj
I0403 21:55:09.398372 24692 net.cpp:386] inception_3a/relu_pool_proj -> inception_3a/pool_proj (in-place)
I0403 21:55:09.398641 24692 net.cpp:141] Setting up inception_3a/relu_pool_proj
I0403 21:55:09.398669 24692 net.cpp:148] Top shape: 24 32 28 28 (602112)
I0403 21:55:09.398686 24692 net.cpp:156] Memory required for data: 561169440
I0403 21:55:09.398702 24692 layer_factory.hpp:77] Creating layer inception_3a/output
I0403 21:55:09.398720 24692 net.cpp:91] Creating Layer inception_3a/output
I0403 21:55:09.398735 24692 net.cpp:425] inception_3a/output <- inception_3a/1x1
I0403 21:55:09.398751 24692 net.cpp:425] inception_3a/output <- inception_3a/3x3
I0403 21:55:09.398766 24692 net.cpp:425] inception_3a/output <- inception_3a/5x5
I0403 21:55:09.398782 24692 net.cpp:425] inception_3a/output <- inception_3a/pool_proj
I0403 21:55:09.398800 24692 net.cpp:399] inception_3a/output -> inception_3a/output
I0403 21:55:09.398844 24692 net.cpp:141] Setting up inception_3a/output
I0403 21:55:09.398869 24692 net.cpp:148] Top shape: 24 256 28 28 (4816896)
I0403 21:55:09.398883 24692 net.cpp:156] Memory required for data: 580437024
I0403 21:55:09.398898 24692 layer_factory.hpp:77] Creating layer inception_3a/output_inception_3a/output_0_split
I0403 21:55:09.398917 24692 net.cpp:91] Creating Layer inception_3a/output_inception_3a/output_0_split
I0403 21:55:09.398934 24692 net.cpp:425] inception_3a/output_inception_3a/output_0_split <- inception_3a/output
I0403 21:55:09.398953 24692 net.cpp:399] inception_3a/output_inception_3a/output_0_split -> inception_3a/output_inception_3a/output_0_split_0
I0403 21:55:09.398972 24692 net.cpp:399] inception_3a/output_inception_3a/output_0_split -> inception_3a/output_inception_3a/output_0_split_1
I0403 21:55:09.399001 24692 net.cpp:399] inception_3a/output_inception_3a/output_0_split -> inception_3a/output_inception_3a/output_0_split_2
I0403 21:55:09.399024 24692 net.cpp:399] inception_3a/output_inception_3a/output_0_split -> inception_3a/output_inception_3a/output_0_split_3
I0403 21:55:09.399094 24692 net.cpp:141] Setting up inception_3a/output_inception_3a/output_0_split
I0403 21:55:09.399119 24692 net.cpp:148] Top shape: 24 256 28 28 (4816896)
I0403 21:55:09.399137 24692 net.cpp:148] Top shape: 24 256 28 28 (4816896)
I0403 21:55:09.399152 24692 net.cpp:148] Top shape: 24 256 28 28 (4816896)
I0403 21:55:09.399168 24692 net.cpp:148] Top shape: 24 256 28 28 (4816896)
I0403 21:55:09.399193 24692 net.cpp:156] Memory required for data: 657507360
I0403 21:55:09.399212 24692 layer_factory.hpp:77] Creating layer inception_3b/1x1
I0403 21:55:09.399236 24692 net.cpp:91] Creating Layer inception_3b/1x1
I0403 21:55:09.399255 24692 net.cpp:425] inception_3b/1x1 <- inception_3a/output_inception_3a/output_0_split_0
I0403 21:55:09.399273 24692 net.cpp:399] inception_3b/1x1 -> inception_3b/1x1
I0403 21:55:09.400380 24692 net.cpp:141] Setting up inception_3b/1x1
I0403 21:55:09.400419 24692 net.cpp:148] Top shape: 24 128 28 28 (2408448)
I0403 21:55:09.400435 24692 net.cpp:156] Memory required for data: 667141152
I0403 21:55:09.400454 24692 layer_factory.hpp:77] Creating layer inception_3b/relu_1x1
I0403 21:55:09.400476 24692 net.cpp:91] Creating Layer inception_3b/relu_1x1
I0403 21:55:09.400495 24692 net.cpp:425] inception_3b/relu_1x1 <- inception_3b/1x1
I0403 21:55:09.400511 24692 net.cpp:386] inception_3b/relu_1x1 -> inception_3b/1x1 (in-place)
I0403 21:55:09.400679 24692 net.cpp:141] Setting up inception_3b/relu_1x1
I0403 21:55:09.400707 24692 net.cpp:148] Top shape: 24 128 28 28 (2408448)
I0403 21:55:09.400722 24692 net.cpp:156] Memory required for data: 676774944
I0403 21:55:09.400738 24692 layer_factory.hpp:77] Creating layer inception_3b/3x3_reduce
I0403 21:55:09.400759 24692 net.cpp:91] Creating Layer inception_3b/3x3_reduce
I0403 21:55:09.400777 24692 net.cpp:425] inception_3b/3x3_reduce <- inception_3a/output_inception_3a/output_0_split_1
I0403 21:55:09.400796 24692 net.cpp:399] inception_3b/3x3_reduce -> inception_3b/3x3_reduce
I0403 21:55:09.401932 24692 net.cpp:141] Setting up inception_3b/3x3_reduce
I0403 21:55:09.401962 24692 net.cpp:148] Top shape: 24 128 28 28 (2408448)
I0403 21:55:09.401978 24692 net.cpp:156] Memory required for data: 686408736
I0403 21:55:09.401998 24692 layer_factory.hpp:77] Creating layer inception_3b/relu_3x3_reduce
I0403 21:55:09.402019 24692 net.cpp:91] Creating Layer inception_3b/relu_3x3_reduce
I0403 21:55:09.402036 24692 net.cpp:425] inception_3b/relu_3x3_reduce <- inception_3b/3x3_reduce
I0403 21:55:09.402053 24692 net.cpp:386] inception_3b/relu_3x3_reduce -> inception_3b/3x3_reduce (in-place)
I0403 21:55:09.402231 24692 net.cpp:141] Setting up inception_3b/relu_3x3_reduce
I0403 21:55:09.402259 24692 net.cpp:148] Top shape: 24 128 28 28 (2408448)
I0403 21:55:09.402274 24692 net.cpp:156] Memory required for data: 696042528
I0403 21:55:09.402289 24692 layer_factory.hpp:77] Creating layer inception_3b/3x3
I0403 21:55:09.402314 24692 net.cpp:91] Creating Layer inception_3b/3x3
I0403 21:55:09.402333 24692 net.cpp:425] inception_3b/3x3 <- inception_3b/3x3_reduce
I0403 21:55:09.402355 24692 net.cpp:399] inception_3b/3x3 -> inception_3b/3x3
I0403 21:55:09.405305 24692 net.cpp:141] Setting up inception_3b/3x3
I0403 21:55:09.405336 24692 net.cpp:148] Top shape: 24 192 28 28 (3612672)
I0403 21:55:09.405354 24692 net.cpp:156] Memory required for data: 710493216
I0403 21:55:09.405372 24692 layer_factory.hpp:77] Creating layer inception_3b/relu_3x3
I0403 21:55:09.405390 24692 net.cpp:91] Creating Layer inception_3b/relu_3x3
I0403 21:55:09.405407 24692 net.cpp:425] inception_3b/relu_3x3 <- inception_3b/3x3
I0403 21:55:09.405427 24692 net.cpp:386] inception_3b/relu_3x3 -> inception_3b/3x3 (in-place)
I0403 21:55:09.405705 24692 net.cpp:141] Setting up inception_3b/relu_3x3
I0403 21:55:09.405735 24692 net.cpp:148] Top shape: 24 192 28 28 (3612672)
I0403 21:55:09.405751 24692 net.cpp:156] Memory required for data: 724943904
I0403 21:55:09.405767 24692 layer_factory.hpp:77] Creating layer inception_3b/5x5_reduce
I0403 21:55:09.405791 24692 net.cpp:91] Creating Layer inception_3b/5x5_reduce
I0403 21:55:09.405810 24692 net.cpp:425] inception_3b/5x5_reduce <- inception_3a/output_inception_3a/output_0_split_2
I0403 21:55:09.405830 24692 net.cpp:399] inception_3b/5x5_reduce -> inception_3b/5x5_reduce
I0403 21:55:09.406826 24692 net.cpp:141] Setting up inception_3b/5x5_reduce
I0403 21:55:09.406855 24692 net.cpp:148] Top shape: 24 32 28 28 (602112)
I0403 21:55:09.406873 24692 net.cpp:156] Memory required for data: 727352352
I0403 21:55:09.406893 24692 layer_factory.hpp:77] Creating layer inception_3b/relu_5x5_reduce
I0403 21:55:09.406910 24692 net.cpp:91] Creating Layer inception_3b/relu_5x5_reduce
I0403 21:55:09.406927 24692 net.cpp:425] inception_3b/relu_5x5_reduce <- inception_3b/5x5_reduce
I0403 21:55:09.406949 24692 net.cpp:386] inception_3b/relu_5x5_reduce -> inception_3b/5x5_reduce (in-place)
I0403 21:55:09.407140 24692 net.cpp:141] Setting up inception_3b/relu_5x5_reduce
I0403 21:55:09.407166 24692 net.cpp:148] Top shape: 24 32 28 28 (602112)
I0403 21:55:09.407194 24692 net.cpp:156] Memory required for data: 729760800
I0403 21:55:09.407215 24692 layer_factory.hpp:77] Creating layer inception_3b/5x5
I0403 21:55:09.407238 24692 net.cpp:91] Creating Layer inception_3b/5x5
I0403 21:55:09.407258 24692 net.cpp:425] inception_3b/5x5 <- inception_3b/5x5_reduce
I0403 21:55:09.407280 24692 net.cpp:399] inception_3b/5x5 -> inception_3b/5x5
I0403 21:55:09.409288 24692 net.cpp:141] Setting up inception_3b/5x5
I0403 21:55:09.409318 24692 net.cpp:148] Top shape: 24 96 28 28 (1806336)
I0403 21:55:09.409333 24692 net.cpp:156] Memory required for data: 736986144
I0403 21:55:09.409353 24692 layer_factory.hpp:77] Creating layer inception_3b/relu_5x5
I0403 21:55:09.409373 24692 net.cpp:91] Creating Layer inception_3b/relu_5x5
I0403 21:55:09.409391 24692 net.cpp:425] inception_3b/relu_5x5 <- inception_3b/5x5
I0403 21:55:09.409410 24692 net.cpp:386] inception_3b/relu_5x5 -> inception_3b/5x5 (in-place)
I0403 21:55:09.409605 24692 net.cpp:141] Setting up inception_3b/relu_5x5
I0403 21:55:09.409631 24692 net.cpp:148] Top shape: 24 96 28 28 (1806336)
I0403 21:55:09.409647 24692 net.cpp:156] Memory required for data: 744211488
I0403 21:55:09.409664 24692 layer_factory.hpp:77] Creating layer inception_3b/pool
I0403 21:55:09.409682 24692 net.cpp:91] Creating Layer inception_3b/pool
I0403 21:55:09.409698 24692 net.cpp:425] inception_3b/pool <- inception_3a/output_inception_3a/output_0_split_3
I0403 21:55:09.409715 24692 net.cpp:399] inception_3b/pool -> inception_3b/pool
I0403 21:55:09.409771 24692 net.cpp:141] Setting up inception_3b/pool
I0403 21:55:09.409795 24692 net.cpp:148] Top shape: 24 256 28 28 (4816896)
I0403 21:55:09.409811 24692 net.cpp:156] Memory required for data: 763479072
I0403 21:55:09.409826 24692 layer_factory.hpp:77] Creating layer inception_3b/pool_proj
I0403 21:55:09.409848 24692 net.cpp:91] Creating Layer inception_3b/pool_proj
I0403 21:55:09.409868 24692 net.cpp:425] inception_3b/pool_proj <- inception_3b/pool
I0403 21:55:09.409886 24692 net.cpp:399] inception_3b/pool_proj -> inception_3b/pool_proj
I0403 21:55:09.410931 24692 net.cpp:141] Setting up inception_3b/pool_proj
I0403 21:55:09.410961 24692 net.cpp:148] Top shape: 24 64 28 28 (1204224)
I0403 21:55:09.410977 24692 net.cpp:156] Memory required for data: 768295968
I0403 21:55:09.410996 24692 layer_factory.hpp:77] Creating layer inception_3b/relu_pool_proj
I0403 21:55:09.411013 24692 net.cpp:91] Creating Layer inception_3b/relu_pool_proj
I0403 21:55:09.411029 24692 net.cpp:425] inception_3b/relu_pool_proj <- inception_3b/pool_proj
I0403 21:55:09.411049 24692 net.cpp:386] inception_3b/relu_pool_proj -> inception_3b/pool_proj (in-place)
I0403 21:55:09.411476 24692 net.cpp:141] Setting up inception_3b/relu_pool_proj
I0403 21:55:09.411504 24692 net.cpp:148] Top shape: 24 64 28 28 (1204224)
I0403 21:55:09.411520 24692 net.cpp:156] Memory required for data: 773112864
I0403 21:55:09.411535 24692 layer_factory.hpp:77] Creating layer inception_3b/output
I0403 21:55:09.411551 24692 net.cpp:91] Creating Layer inception_3b/output
I0403 21:55:09.411568 24692 net.cpp:425] inception_3b/output <- inception_3b/1x1
I0403 21:55:09.411586 24692 net.cpp:425] inception_3b/output <- inception_3b/3x3
I0403 21:55:09.411602 24692 net.cpp:425] inception_3b/output <- inception_3b/5x5
I0403 21:55:09.411619 24692 net.cpp:425] inception_3b/output <- inception_3b/pool_proj
I0403 21:55:09.411639 24692 net.cpp:399] inception_3b/output -> inception_3b/output
I0403 21:55:09.411684 24692 net.cpp:141] Setting up inception_3b/output
I0403 21:55:09.411710 24692 net.cpp:148] Top shape: 24 480 28 28 (9031680)
I0403 21:55:09.411725 24692 net.cpp:156] Memory required for data: 809239584
I0403 21:55:09.411741 24692 layer_factory.hpp:77] Creating layer pool3/3x3_s2
I0403 21:55:09.411759 24692 net.cpp:91] Creating Layer pool3/3x3_s2
I0403 21:55:09.411774 24692 net.cpp:425] pool3/3x3_s2 <- inception_3b/output
I0403 21:55:09.411810 24692 net.cpp:399] pool3/3x3_s2 -> pool3/3x3_s2
I0403 21:55:09.411870 24692 net.cpp:141] Setting up pool3/3x3_s2
I0403 21:55:09.411893 24692 net.cpp:148] Top shape: 24 480 14 14 (2257920)
I0403 21:55:09.411908 24692 net.cpp:156] Memory required for data: 818271264
I0403 21:55:09.411924 24692 layer_factory.hpp:77] Creating layer pool3/3x3_s2_pool3/3x3_s2_0_split
I0403 21:55:09.411943 24692 net.cpp:91] Creating Layer pool3/3x3_s2_pool3/3x3_s2_0_split
I0403 21:55:09.411960 24692 net.cpp:425] pool3/3x3_s2_pool3/3x3_s2_0_split <- pool3/3x3_s2
I0403 21:55:09.411978 24692 net.cpp:399] pool3/3x3_s2_pool3/3x3_s2_0_split -> pool3/3x3_s2_pool3/3x3_s2_0_split_0
I0403 21:55:09.411998 24692 net.cpp:399] pool3/3x3_s2_pool3/3x3_s2_0_split -> pool3/3x3_s2_pool3/3x3_s2_0_split_1
I0403 21:55:09.412017 24692 net.cpp:399] pool3/3x3_s2_pool3/3x3_s2_0_split -> pool3/3x3_s2_pool3/3x3_s2_0_split_2
I0403 21:55:09.412039 24692 net.cpp:399] pool3/3x3_s2_pool3/3x3_s2_0_split -> pool3/3x3_s2_pool3/3x3_s2_0_split_3
I0403 21:55:09.412116 24692 net.cpp:141] Setting up pool3/3x3_s2_pool3/3x3_s2_0_split
I0403 21:55:09.412139 24692 net.cpp:148] Top shape: 24 480 14 14 (2257920)
I0403 21:55:09.412156 24692 net.cpp:148] Top shape: 24 480 14 14 (2257920)
I0403 21:55:09.412173 24692 net.cpp:148] Top shape: 24 480 14 14 (2257920)
I0403 21:55:09.412189 24692 net.cpp:148] Top shape: 24 480 14 14 (2257920)
I0403 21:55:09.412207 24692 net.cpp:156] Memory required for data: 854397984
I0403 21:55:09.412223 24692 layer_factory.hpp:77] Creating layer inception_4a/1x1
I0403 21:55:09.412245 24692 net.cpp:91] Creating Layer inception_4a/1x1
I0403 21:55:09.412263 24692 net.cpp:425] inception_4a/1x1 <- pool3/3x3_s2_pool3/3x3_s2_0_split_0
I0403 21:55:09.412286 24692 net.cpp:399] inception_4a/1x1 -> inception_4a/1x1
I0403 21:55:09.413844 24692 net.cpp:141] Setting up inception_4a/1x1
I0403 21:55:09.413873 24692 net.cpp:148] Top shape: 24 192 14 14 (903168)
I0403 21:55:09.413889 24692 net.cpp:156] Memory required for data: 858010656
I0403 21:55:09.413908 24692 layer_factory.hpp:77] Creating layer inception_4a/relu_1x1
I0403 21:55:09.413928 24692 net.cpp:91] Creating Layer inception_4a/relu_1x1
I0403 21:55:09.413945 24692 net.cpp:425] inception_4a/relu_1x1 <- inception_4a/1x1
I0403 21:55:09.413964 24692 net.cpp:386] inception_4a/relu_1x1 -> inception_4a/1x1 (in-place)
I0403 21:55:09.414140 24692 net.cpp:141] Setting up inception_4a/relu_1x1
I0403 21:55:09.414170 24692 net.cpp:148] Top shape: 24 192 14 14 (903168)
I0403 21:55:09.414187 24692 net.cpp:156] Memory required for data: 861623328
I0403 21:55:09.414207 24692 layer_factory.hpp:77] Creating layer inception_4a/3x3_reduce
I0403 21:55:09.414229 24692 net.cpp:91] Creating Layer inception_4a/3x3_reduce
I0403 21:55:09.414247 24692 net.cpp:425] inception_4a/3x3_reduce <- pool3/3x3_s2_pool3/3x3_s2_0_split_1
I0403 21:55:09.414269 24692 net.cpp:399] inception_4a/3x3_reduce -> inception_4a/3x3_reduce
I0403 21:55:09.415568 24692 net.cpp:141] Setting up inception_4a/3x3_reduce
I0403 21:55:09.415597 24692 net.cpp:148] Top shape: 24 96 14 14 (451584)
I0403 21:55:09.415613 24692 net.cpp:156] Memory required for data: 863429664
I0403 21:55:09.415638 24692 layer_factory.hpp:77] Creating layer inception_4a/relu_3x3_reduce
I0403 21:55:09.415659 24692 net.cpp:91] Creating Layer inception_4a/relu_3x3_reduce
I0403 21:55:09.415676 24692 net.cpp:425] inception_4a/relu_3x3_reduce <- inception_4a/3x3_reduce
I0403 21:55:09.415695 24692 net.cpp:386] inception_4a/relu_3x3_reduce -> inception_4a/3x3_reduce (in-place)
I0403 21:55:09.415874 24692 net.cpp:141] Setting up inception_4a/relu_3x3_reduce
I0403 21:55:09.415899 24692 net.cpp:148] Top shape: 24 96 14 14 (451584)
I0403 21:55:09.415913 24692 net.cpp:156] Memory required for data: 865236000
I0403 21:55:09.415928 24692 layer_factory.hpp:77] Creating layer inception_4a/3x3
I0403 21:55:09.415951 24692 net.cpp:91] Creating Layer inception_4a/3x3
I0403 21:55:09.415969 24692 net.cpp:425] inception_4a/3x3 <- inception_4a/3x3_reduce
I0403 21:55:09.415990 24692 net.cpp:399] inception_4a/3x3 -> inception_4a/3x3
I0403 21:55:09.418670 24692 net.cpp:141] Setting up inception_4a/3x3
I0403 21:55:09.418699 24692 net.cpp:148] Top shape: 24 208 14 14 (978432)
I0403 21:55:09.418716 24692 net.cpp:156] Memory required for data: 869149728
I0403 21:55:09.418736 24692 layer_factory.hpp:77] Creating layer inception_4a/relu_3x3
I0403 21:55:09.418757 24692 net.cpp:91] Creating Layer inception_4a/relu_3x3
I0403 21:55:09.418774 24692 net.cpp:425] inception_4a/relu_3x3 <- inception_4a/3x3
I0403 21:55:09.418792 24692 net.cpp:386] inception_4a/relu_3x3 -> inception_4a/3x3 (in-place)
I0403 21:55:09.419066 24692 net.cpp:141] Setting up inception_4a/relu_3x3
I0403 21:55:09.419095 24692 net.cpp:148] Top shape: 24 208 14 14 (978432)
I0403 21:55:09.419111 24692 net.cpp:156] Memory required for data: 873063456
I0403 21:55:09.419126 24692 layer_factory.hpp:77] Creating layer inception_4a/5x5_reduce
I0403 21:55:09.419152 24692 net.cpp:91] Creating Layer inception_4a/5x5_reduce
I0403 21:55:09.419170 24692 net.cpp:425] inception_4a/5x5_reduce <- pool3/3x3_s2_pool3/3x3_s2_0_split_2
I0403 21:55:09.419205 24692 net.cpp:399] inception_4a/5x5_reduce -> inception_4a/5x5_reduce
I0403 21:55:09.420244 24692 net.cpp:141] Setting up inception_4a/5x5_reduce
I0403 21:55:09.420274 24692 net.cpp:148] Top shape: 24 16 14 14 (75264)
I0403 21:55:09.420291 24692 net.cpp:156] Memory required for data: 873364512
I0403 21:55:09.420310 24692 layer_factory.hpp:77] Creating layer inception_4a/relu_5x5_reduce
I0403 21:55:09.420327 24692 net.cpp:91] Creating Layer inception_4a/relu_5x5_reduce
I0403 21:55:09.420346 24692 net.cpp:425] inception_4a/relu_5x5_reduce <- inception_4a/5x5_reduce
I0403 21:55:09.420366 24692 net.cpp:386] inception_4a/relu_5x5_reduce -> inception_4a/5x5_reduce (in-place)
I0403 21:55:09.420538 24692 net.cpp:141] Setting up inception_4a/relu_5x5_reduce
I0403 21:55:09.420563 24692 net.cpp:148] Top shape: 24 16 14 14 (75264)
I0403 21:55:09.420578 24692 net.cpp:156] Memory required for data: 873665568
I0403 21:55:09.420593 24692 layer_factory.hpp:77] Creating layer inception_4a/5x5
I0403 21:55:09.420614 24692 net.cpp:91] Creating Layer inception_4a/5x5
I0403 21:55:09.420632 24692 net.cpp:425] inception_4a/5x5 <- inception_4a/5x5_reduce
I0403 21:55:09.420652 24692 net.cpp:399] inception_4a/5x5 -> inception_4a/5x5
I0403 21:55:09.421716 24692 net.cpp:141] Setting up inception_4a/5x5
I0403 21:55:09.421743 24692 net.cpp:148] Top shape: 24 48 14 14 (225792)
I0403 21:55:09.421758 24692 net.cpp:156] Memory required for data: 874568736
I0403 21:55:09.421777 24692 layer_factory.hpp:77] Creating layer inception_4a/relu_5x5
I0403 21:55:09.421794 24692 net.cpp:91] Creating Layer inception_4a/relu_5x5
I0403 21:55:09.421813 24692 net.cpp:425] inception_4a/relu_5x5 <- inception_4a/5x5
I0403 21:55:09.421830 24692 net.cpp:386] inception_4a/relu_5x5 -> inception_4a/5x5 (in-place)
I0403 21:55:09.422000 24692 net.cpp:141] Setting up inception_4a/relu_5x5
I0403 21:55:09.422026 24692 net.cpp:148] Top shape: 24 48 14 14 (225792)
I0403 21:55:09.422041 24692 net.cpp:156] Memory required for data: 875471904
I0403 21:55:09.422056 24692 layer_factory.hpp:77] Creating layer inception_4a/pool
I0403 21:55:09.422075 24692 net.cpp:91] Creating Layer inception_4a/pool
I0403 21:55:09.422092 24692 net.cpp:425] inception_4a/pool <- pool3/3x3_s2_pool3/3x3_s2_0_split_3
I0403 21:55:09.422111 24692 net.cpp:399] inception_4a/pool -> inception_4a/pool
I0403 21:55:09.422169 24692 net.cpp:141] Setting up inception_4a/pool
I0403 21:55:09.422194 24692 net.cpp:148] Top shape: 24 480 14 14 (2257920)
I0403 21:55:09.422214 24692 net.cpp:156] Memory required for data: 884503584
I0403 21:55:09.422229 24692 layer_factory.hpp:77] Creating layer inception_4a/pool_proj
I0403 21:55:09.422250 24692 net.cpp:91] Creating Layer inception_4a/pool_proj
I0403 21:55:09.422268 24692 net.cpp:425] inception_4a/pool_proj <- inception_4a/pool
I0403 21:55:09.422291 24692 net.cpp:399] inception_4a/pool_proj -> inception_4a/pool_proj
I0403 21:55:09.423434 24692 net.cpp:141] Setting up inception_4a/pool_proj
I0403 21:55:09.423475 24692 net.cpp:148] Top shape: 24 64 14 14 (301056)
I0403 21:55:09.423506 24692 net.cpp:156] Memory required for data: 885707808
I0403 21:55:09.423524 24692 layer_factory.hpp:77] Creating layer inception_4a/relu_pool_proj
I0403 21:55:09.423545 24692 net.cpp:91] Creating Layer inception_4a/relu_pool_proj
I0403 21:55:09.423563 24692 net.cpp:425] inception_4a/relu_pool_proj <- inception_4a/pool_proj
I0403 21:55:09.423580 24692 net.cpp:386] inception_4a/relu_pool_proj -> inception_4a/pool_proj (in-place)
I0403 21:55:09.423851 24692 net.cpp:141] Setting up inception_4a/relu_pool_proj
I0403 21:55:09.423878 24692 net.cpp:148] Top shape: 24 64 14 14 (301056)
I0403 21:55:09.423893 24692 net.cpp:156] Memory required for data: 886912032
I0403 21:55:09.423908 24692 layer_factory.hpp:77] Creating layer inception_4a/output
I0403 21:55:09.423924 24692 net.cpp:91] Creating Layer inception_4a/output
I0403 21:55:09.423940 24692 net.cpp:425] inception_4a/output <- inception_4a/1x1
I0403 21:55:09.423961 24692 net.cpp:425] inception_4a/output <- inception_4a/3x3
I0403 21:55:09.423979 24692 net.cpp:425] inception_4a/output <- inception_4a/5x5
I0403 21:55:09.423995 24692 net.cpp:425] inception_4a/output <- inception_4a/pool_proj
I0403 21:55:09.424010 24692 net.cpp:399] inception_4a/output -> inception_4a/output
I0403 21:55:09.424052 24692 net.cpp:141] Setting up inception_4a/output
I0403 21:55:09.424078 24692 net.cpp:148] Top shape: 24 512 14 14 (2408448)
I0403 21:55:09.424094 24692 net.cpp:156] Memory required for data: 896545824
I0403 21:55:09.424109 24692 layer_factory.hpp:77] Creating layer inception_4a/output_inception_4a/output_0_split
I0403 21:55:09.424126 24692 net.cpp:91] Creating Layer inception_4a/output_inception_4a/output_0_split
I0403 21:55:09.424140 24692 net.cpp:425] inception_4a/output_inception_4a/output_0_split <- inception_4a/output
I0403 21:55:09.424160 24692 net.cpp:399] inception_4a/output_inception_4a/output_0_split -> inception_4a/output_inception_4a/output_0_split_0
I0403 21:55:09.424181 24692 net.cpp:399] inception_4a/output_inception_4a/output_0_split -> inception_4a/output_inception_4a/output_0_split_1
I0403 21:55:09.424206 24692 net.cpp:399] inception_4a/output_inception_4a/output_0_split -> inception_4a/output_inception_4a/output_0_split_2
I0403 21:55:09.424228 24692 net.cpp:399] inception_4a/output_inception_4a/output_0_split -> inception_4a/output_inception_4a/output_0_split_3
I0403 21:55:09.424249 24692 net.cpp:399] inception_4a/output_inception_4a/output_0_split -> inception_4a/output_inception_4a/output_0_split_4
I0403 21:55:09.424340 24692 net.cpp:141] Setting up inception_4a/output_inception_4a/output_0_split
I0403 21:55:09.424363 24692 net.cpp:148] Top shape: 24 512 14 14 (2408448)
I0403 21:55:09.424386 24692 net.cpp:148] Top shape: 24 512 14 14 (2408448)
I0403 21:55:09.424402 24692 net.cpp:148] Top shape: 24 512 14 14 (2408448)
I0403 21:55:09.424418 24692 net.cpp:148] Top shape: 24 512 14 14 (2408448)
I0403 21:55:09.424433 24692 net.cpp:148] Top shape: 24 512 14 14 (2408448)
I0403 21:55:09.424448 24692 net.cpp:156] Memory required for data: 944714784
I0403 21:55:09.424460 24692 layer_factory.hpp:77] Creating layer loss1/ave_pool
I0403 21:55:09.424479 24692 net.cpp:91] Creating Layer loss1/ave_pool
I0403 21:55:09.424494 24692 net.cpp:425] loss1/ave_pool <- inception_4a/output_inception_4a/output_0_split_0
I0403 21:55:09.424515 24692 net.cpp:399] loss1/ave_pool -> loss1/ave_pool
I0403 21:55:09.424712 24692 net.cpp:141] Setting up loss1/ave_pool
I0403 21:55:09.424738 24692 net.cpp:148] Top shape: 24 512 4 4 (196608)
I0403 21:55:09.424753 24692 net.cpp:156] Memory required for data: 945501216
I0403 21:55:09.424768 24692 layer_factory.hpp:77] Creating layer loss1/conv
I0403 21:55:09.424790 24692 net.cpp:91] Creating Layer loss1/conv
I0403 21:55:09.424808 24692 net.cpp:425] loss1/conv <- loss1/ave_pool
I0403 21:55:09.424829 24692 net.cpp:399] loss1/conv -> loss1/conv
I0403 21:55:09.426189 24692 net.cpp:141] Setting up loss1/conv
I0403 21:55:09.426220 24692 net.cpp:148] Top shape: 24 128 4 4 (49152)
I0403 21:55:09.426250 24692 net.cpp:156] Memory required for data: 945697824
I0403 21:55:09.426270 24692 layer_factory.hpp:77] Creating layer loss1/relu_conv
I0403 21:55:09.426290 24692 net.cpp:91] Creating Layer loss1/relu_conv
I0403 21:55:09.426307 24692 net.cpp:425] loss1/relu_conv <- loss1/conv
I0403 21:55:09.426326 24692 net.cpp:386] loss1/relu_conv -> loss1/conv (in-place)
I0403 21:55:09.426597 24692 net.cpp:141] Setting up loss1/relu_conv
I0403 21:55:09.426623 24692 net.cpp:148] Top shape: 24 128 4 4 (49152)
I0403 21:55:09.426638 24692 net.cpp:156] Memory required for data: 945894432
I0403 21:55:09.426653 24692 layer_factory.hpp:77] Creating layer loss1/fc
I0403 21:55:09.426678 24692 net.cpp:91] Creating Layer loss1/fc
I0403 21:55:09.426698 24692 net.cpp:425] loss1/fc <- loss1/conv
I0403 21:55:09.426719 24692 net.cpp:399] loss1/fc -> loss1/fc
I0403 21:55:09.444191 24692 net.cpp:141] Setting up loss1/fc
I0403 21:55:09.444226 24692 net.cpp:148] Top shape: 24 1024 (24576)
I0403 21:55:09.444243 24692 net.cpp:156] Memory required for data: 945992736
I0403 21:55:09.444262 24692 layer_factory.hpp:77] Creating layer loss1/relu_fc
I0403 21:55:09.444280 24692 net.cpp:91] Creating Layer loss1/relu_fc
I0403 21:55:09.444298 24692 net.cpp:425] loss1/relu_fc <- loss1/fc
I0403 21:55:09.444319 24692 net.cpp:386] loss1/relu_fc -> loss1/fc (in-place)
I0403 21:55:09.444499 24692 net.cpp:141] Setting up loss1/relu_fc
I0403 21:55:09.444525 24692 net.cpp:148] Top shape: 24 1024 (24576)
I0403 21:55:09.444540 24692 net.cpp:156] Memory required for data: 946091040
I0403 21:55:09.444555 24692 layer_factory.hpp:77] Creating layer loss1/drop_fc
I0403 21:55:09.444581 24692 net.cpp:91] Creating Layer loss1/drop_fc
I0403 21:55:09.444598 24692 net.cpp:425] loss1/drop_fc <- loss1/fc
I0403 21:55:09.444617 24692 net.cpp:386] loss1/drop_fc -> loss1/fc (in-place)
I0403 21:55:09.444669 24692 net.cpp:141] Setting up loss1/drop_fc
I0403 21:55:09.444691 24692 net.cpp:148] Top shape: 24 1024 (24576)
I0403 21:55:09.444705 24692 net.cpp:156] Memory required for data: 946189344
I0403 21:55:09.444721 24692 layer_factory.hpp:77] Creating layer loss1/classifier_plantvillage
I0403 21:55:09.444739 24692 net.cpp:91] Creating Layer loss1/classifier_plantvillage
I0403 21:55:09.444754 24692 net.cpp:425] loss1/classifier_plantvillage <- loss1/fc
I0403 21:55:09.444774 24692 net.cpp:399] loss1/classifier_plantvillage -> loss1/classifier_plantvillage
I0403 21:55:09.445680 24692 net.cpp:141] Setting up loss1/classifier_plantvillage
I0403 21:55:09.445708 24692 net.cpp:148] Top shape: 24 38 (912)
I0403 21:55:09.445724 24692 net.cpp:156] Memory required for data: 946192992
I0403 21:55:09.445744 24692 layer_factory.hpp:77] Creating layer loss1/classifier_plantvillage_loss1/classifier_plantvillage_0_split
I0403 21:55:09.445763 24692 net.cpp:91] Creating Layer loss1/classifier_plantvillage_loss1/classifier_plantvillage_0_split
I0403 21:55:09.445781 24692 net.cpp:425] loss1/classifier_plantvillage_loss1/classifier_plantvillage_0_split <- loss1/classifier_plantvillage
I0403 21:55:09.445799 24692 net.cpp:399] loss1/classifier_plantvillage_loss1/classifier_plantvillage_0_split -> loss1/classifier_plantvillage_loss1/classifier_plantvillage_0_split_0
I0403 21:55:09.445819 24692 net.cpp:399] loss1/classifier_plantvillage_loss1/classifier_plantvillage_0_split -> loss1/classifier_plantvillage_loss1/classifier_plantvillage_0_split_1
I0403 21:55:09.445840 24692 net.cpp:399] loss1/classifier_plantvillage_loss1/classifier_plantvillage_0_split -> loss1/classifier_plantvillage_loss1/classifier_plantvillage_0_split_2
I0403 21:55:09.445909 24692 net.cpp:141] Setting up loss1/classifier_plantvillage_loss1/classifier_plantvillage_0_split
I0403 21:55:09.445932 24692 net.cpp:148] Top shape: 24 38 (912)
I0403 21:55:09.445950 24692 net.cpp:148] Top shape: 24 38 (912)
I0403 21:55:09.445965 24692 net.cpp:148] Top shape: 24 38 (912)
I0403 21:55:09.445977 24692 net.cpp:156] Memory required for data: 946203936
I0403 21:55:09.445992 24692 layer_factory.hpp:77] Creating layer inception_4b/1x1
I0403 21:55:09.446014 24692 net.cpp:91] Creating Layer inception_4b/1x1
I0403 21:55:09.446046 24692 net.cpp:425] inception_4b/1x1 <- inception_4a/output_inception_4a/output_0_split_1
I0403 21:55:09.446066 24692 net.cpp:399] inception_4b/1x1 -> inception_4b/1x1
I0403 21:55:09.447687 24692 net.cpp:141] Setting up inception_4b/1x1
I0403 21:55:09.447716 24692 net.cpp:148] Top shape: 24 160 14 14 (752640)
I0403 21:55:09.447732 24692 net.cpp:156] Memory required for data: 949214496
I0403 21:55:09.447752 24692 layer_factory.hpp:77] Creating layer inception_4b/relu_1x1
I0403 21:55:09.447772 24692 net.cpp:91] Creating Layer inception_4b/relu_1x1
I0403 21:55:09.447788 24692 net.cpp:425] inception_4b/relu_1x1 <- inception_4b/1x1
I0403 21:55:09.447804 24692 net.cpp:386] inception_4b/relu_1x1 -> inception_4b/1x1 (in-place)
I0403 21:55:09.447988 24692 net.cpp:141] Setting up inception_4b/relu_1x1
I0403 21:55:09.448014 24692 net.cpp:148] Top shape: 24 160 14 14 (752640)
I0403 21:55:09.448027 24692 net.cpp:156] Memory required for data: 952225056
I0403 21:55:09.448043 24692 layer_factory.hpp:77] Creating layer inception_4b/3x3_reduce
I0403 21:55:09.448066 24692 net.cpp:91] Creating Layer inception_4b/3x3_reduce
I0403 21:55:09.448086 24692 net.cpp:425] inception_4b/3x3_reduce <- inception_4a/output_inception_4a/output_0_split_2
I0403 21:55:09.448107 24692 net.cpp:399] inception_4b/3x3_reduce -> inception_4b/3x3_reduce
I0403 21:55:09.449455 24692 net.cpp:141] Setting up inception_4b/3x3_reduce
I0403 21:55:09.449483 24692 net.cpp:148] Top shape: 24 112 14 14 (526848)
I0403 21:55:09.449499 24692 net.cpp:156] Memory required for data: 954332448
I0403 21:55:09.449518 24692 layer_factory.hpp:77] Creating layer inception_4b/relu_3x3_reduce
I0403 21:55:09.449547 24692 net.cpp:91] Creating Layer inception_4b/relu_3x3_reduce
I0403 21:55:09.449563 24692 net.cpp:425] inception_4b/relu_3x3_reduce <- inception_4b/3x3_reduce
I0403 21:55:09.449584 24692 net.cpp:386] inception_4b/relu_3x3_reduce -> inception_4b/3x3_reduce (in-place)
I0403 21:55:09.449869 24692 net.cpp:141] Setting up inception_4b/relu_3x3_reduce
I0403 21:55:09.449898 24692 net.cpp:148] Top shape: 24 112 14 14 (526848)
I0403 21:55:09.449913 24692 net.cpp:156] Memory required for data: 956439840
I0403 21:55:09.449928 24692 layer_factory.hpp:77] Creating layer inception_4b/3x3
I0403 21:55:09.449950 24692 net.cpp:91] Creating Layer inception_4b/3x3
I0403 21:55:09.449968 24692 net.cpp:425] inception_4b/3x3 <- inception_4b/3x3_reduce
I0403 21:55:09.449990 24692 net.cpp:399] inception_4b/3x3 -> inception_4b/3x3
I0403 21:55:09.453064 24692 net.cpp:141] Setting up inception_4b/3x3
I0403 21:55:09.453094 24692 net.cpp:148] Top shape: 24 224 14 14 (1053696)
I0403 21:55:09.453110 24692 net.cpp:156] Memory required for data: 960654624
I0403 21:55:09.453129 24692 layer_factory.hpp:77] Creating layer inception_4b/relu_3x3
I0403 21:55:09.453148 24692 net.cpp:91] Creating Layer inception_4b/relu_3x3
I0403 21:55:09.453166 24692 net.cpp:425] inception_4b/relu_3x3 <- inception_4b/3x3
I0403 21:55:09.453183 24692 net.cpp:386] inception_4b/relu_3x3 -> inception_4b/3x3 (in-place)
I0403 21:55:09.453371 24692 net.cpp:141] Setting up inception_4b/relu_3x3
I0403 21:55:09.453399 24692 net.cpp:148] Top shape: 24 224 14 14 (1053696)
I0403 21:55:09.453416 24692 net.cpp:156] Memory required for data: 964869408
I0403 21:55:09.453431 24692 layer_factory.hpp:77] Creating layer inception_4b/5x5_reduce
I0403 21:55:09.453455 24692 net.cpp:91] Creating Layer inception_4b/5x5_reduce
I0403 21:55:09.453474 24692 net.cpp:425] inception_4b/5x5_reduce <- inception_4a/output_inception_4a/output_0_split_3
I0403 21:55:09.453495 24692 net.cpp:399] inception_4b/5x5_reduce -> inception_4b/5x5_reduce
I0403 21:55:09.454581 24692 net.cpp:141] Setting up inception_4b/5x5_reduce
I0403 21:55:09.454612 24692 net.cpp:148] Top shape: 24 24 14 14 (112896)
I0403 21:55:09.454628 24692 net.cpp:156] Memory required for data: 965320992
I0403 21:55:09.454648 24692 layer_factory.hpp:77] Creating layer inception_4b/relu_5x5_reduce
I0403 21:55:09.454665 24692 net.cpp:91] Creating Layer inception_4b/relu_5x5_reduce
I0403 21:55:09.454696 24692 net.cpp:425] inception_4b/relu_5x5_reduce <- inception_4b/5x5_reduce
I0403 21:55:09.454720 24692 net.cpp:386] inception_4b/relu_5x5_reduce -> inception_4b/5x5_reduce (in-place)
I0403 21:55:09.454905 24692 net.cpp:141] Setting up inception_4b/relu_5x5_reduce
I0403 21:55:09.454929 24692 net.cpp:148] Top shape: 24 24 14 14 (112896)
I0403 21:55:09.454946 24692 net.cpp:156] Memory required for data: 965772576
I0403 21:55:09.454960 24692 layer_factory.hpp:77] Creating layer inception_4b/5x5
I0403 21:55:09.454983 24692 net.cpp:91] Creating Layer inception_4b/5x5
I0403 21:55:09.455001 24692 net.cpp:425] inception_4b/5x5 <- inception_4b/5x5_reduce
I0403 21:55:09.455023 24692 net.cpp:399] inception_4b/5x5 -> inception_4b/5x5
I0403 21:55:09.456286 24692 net.cpp:141] Setting up inception_4b/5x5
I0403 21:55:09.456315 24692 net.cpp:148] Top shape: 24 64 14 14 (301056)
I0403 21:55:09.456331 24692 net.cpp:156] Memory required for data: 966976800
I0403 21:55:09.456356 24692 layer_factory.hpp:77] Creating layer inception_4b/relu_5x5
I0403 21:55:09.456375 24692 net.cpp:91] Creating Layer inception_4b/relu_5x5
I0403 21:55:09.456393 24692 net.cpp:425] inception_4b/relu_5x5 <- inception_4b/5x5
I0403 21:55:09.456410 24692 net.cpp:386] inception_4b/relu_5x5 -> inception_4b/5x5 (in-place)
I0403 21:55:09.456696 24692 net.cpp:141] Setting up inception_4b/relu_5x5
I0403 21:55:09.456724 24692 net.cpp:148] Top shape: 24 64 14 14 (301056)
I0403 21:55:09.456738 24692 net.cpp:156] Memory required for data: 968181024
I0403 21:55:09.456754 24692 layer_factory.hpp:77] Creating layer inception_4b/pool
I0403 21:55:09.456774 24692 net.cpp:91] Creating Layer inception_4b/pool
I0403 21:55:09.456791 24692 net.cpp:425] inception_4b/pool <- inception_4a/output_inception_4a/output_0_split_4
I0403 21:55:09.456812 24692 net.cpp:399] inception_4b/pool -> inception_4b/pool
I0403 21:55:09.456876 24692 net.cpp:141] Setting up inception_4b/pool
I0403 21:55:09.456900 24692 net.cpp:148] Top shape: 24 512 14 14 (2408448)
I0403 21:55:09.456915 24692 net.cpp:156] Memory required for data: 977814816
I0403 21:55:09.456931 24692 layer_factory.hpp:77] Creating layer inception_4b/pool_proj
I0403 21:55:09.456954 24692 net.cpp:91] Creating Layer inception_4b/pool_proj
I0403 21:55:09.456971 24692 net.cpp:425] inception_4b/pool_proj <- inception_4b/pool
I0403 21:55:09.456993 24692 net.cpp:399] inception_4b/pool_proj -> inception_4b/pool_proj
I0403 21:55:09.458209 24692 net.cpp:141] Setting up inception_4b/pool_proj
I0403 21:55:09.458240 24692 net.cpp:148] Top shape: 24 64 14 14 (301056)
I0403 21:55:09.458256 24692 net.cpp:156] Memory required for data: 979019040
I0403 21:55:09.458276 24692 layer_factory.hpp:77] Creating layer inception_4b/relu_pool_proj
I0403 21:55:09.458293 24692 net.cpp:91] Creating Layer inception_4b/relu_pool_proj
I0403 21:55:09.458309 24692 net.cpp:425] inception_4b/relu_pool_proj <- inception_4b/pool_proj
I0403 21:55:09.458329 24692 net.cpp:386] inception_4b/relu_pool_proj -> inception_4b/pool_proj (in-place)
I0403 21:55:09.458510 24692 net.cpp:141] Setting up inception_4b/relu_pool_proj
I0403 21:55:09.458536 24692 net.cpp:148] Top shape: 24 64 14 14 (301056)
I0403 21:55:09.458552 24692 net.cpp:156] Memory required for data: 980223264
I0403 21:55:09.458567 24692 layer_factory.hpp:77] Creating layer inception_4b/output
I0403 21:55:09.458585 24692 net.cpp:91] Creating Layer inception_4b/output
I0403 21:55:09.458600 24692 net.cpp:425] inception_4b/output <- inception_4b/1x1
I0403 21:55:09.458618 24692 net.cpp:425] inception_4b/output <- inception_4b/3x3
I0403 21:55:09.458634 24692 net.cpp:425] inception_4b/output <- inception_4b/5x5
I0403 21:55:09.458650 24692 net.cpp:425] inception_4b/output <- inception_4b/pool_proj
I0403 21:55:09.458669 24692 net.cpp:399] inception_4b/output -> inception_4b/output
I0403 21:55:09.458715 24692 net.cpp:141] Setting up inception_4b/output
I0403 21:55:09.458742 24692 net.cpp:148] Top shape: 24 512 14 14 (2408448)
I0403 21:55:09.458757 24692 net.cpp:156] Memory required for data: 989857056
I0403 21:55:09.458786 24692 layer_factory.hpp:77] Creating layer inception_4b/output_inception_4b/output_0_split
I0403 21:55:09.458806 24692 net.cpp:91] Creating Layer inception_4b/output_inception_4b/output_0_split
I0403 21:55:09.458822 24692 net.cpp:425] inception_4b/output_inception_4b/output_0_split <- inception_4b/output
I0403 21:55:09.458839 24692 net.cpp:399] inception_4b/output_inception_4b/output_0_split -> inception_4b/output_inception_4b/output_0_split_0
I0403 21:55:09.458863 24692 net.cpp:399] inception_4b/output_inception_4b/output_0_split -> inception_4b/output_inception_4b/output_0_split_1
I0403 21:55:09.458884 24692 net.cpp:399] inception_4b/output_inception_4b/output_0_split -> inception_4b/output_inception_4b/output_0_split_2
I0403 21:55:09.458905 24692 net.cpp:399] inception_4b/output_inception_4b/output_0_split -> inception_4b/output_inception_4b/output_0_split_3
I0403 21:55:09.458994 24692 net.cpp:141] Setting up inception_4b/output_inception_4b/output_0_split
I0403 21:55:09.459018 24692 net.cpp:148] Top shape: 24 512 14 14 (2408448)
I0403 21:55:09.459035 24692 net.cpp:148] Top shape: 24 512 14 14 (2408448)
I0403 21:55:09.459051 24692 net.cpp:148] Top shape: 24 512 14 14 (2408448)
I0403 21:55:09.459066 24692 net.cpp:148] Top shape: 24 512 14 14 (2408448)
I0403 21:55:09.459080 24692 net.cpp:156] Memory required for data: 1028392224
I0403 21:55:09.459096 24692 layer_factory.hpp:77] Creating layer inception_4c/1x1
I0403 21:55:09.459120 24692 net.cpp:91] Creating Layer inception_4c/1x1
I0403 21:55:09.459137 24692 net.cpp:425] inception_4c/1x1 <- inception_4b/output_inception_4b/output_0_split_0
I0403 21:55:09.459156 24692 net.cpp:399] inception_4c/1x1 -> inception_4c/1x1
I0403 21:55:09.460628 24692 net.cpp:141] Setting up inception_4c/1x1
I0403 21:55:09.460656 24692 net.cpp:148] Top shape: 24 128 14 14 (602112)
I0403 21:55:09.460672 24692 net.cpp:156] Memory required for data: 1030800672
I0403 21:55:09.460692 24692 layer_factory.hpp:77] Creating layer inception_4c/relu_1x1
I0403 21:55:09.460711 24692 net.cpp:91] Creating Layer inception_4c/relu_1x1
I0403 21:55:09.460728 24692 net.cpp:425] inception_4c/relu_1x1 <- inception_4c/1x1
I0403 21:55:09.460747 24692 net.cpp:386] inception_4c/relu_1x1 -> inception_4c/1x1 (in-place)
I0403 21:55:09.460929 24692 net.cpp:141] Setting up inception_4c/relu_1x1
I0403 21:55:09.460957 24692 net.cpp:148] Top shape: 24 128 14 14 (602112)
I0403 21:55:09.460971 24692 net.cpp:156] Memory required for data: 1033209120
I0403 21:55:09.460986 24692 layer_factory.hpp:77] Creating layer inception_4c/3x3_reduce
I0403 21:55:09.461009 24692 net.cpp:91] Creating Layer inception_4c/3x3_reduce
I0403 21:55:09.461027 24692 net.cpp:425] inception_4c/3x3_reduce <- inception_4b/output_inception_4b/output_0_split_1
I0403 21:55:09.461050 24692 net.cpp:399] inception_4c/3x3_reduce -> inception_4c/3x3_reduce
I0403 21:55:09.463016 24692 net.cpp:141] Setting up inception_4c/3x3_reduce
I0403 21:55:09.463047 24692 net.cpp:148] Top shape: 24 128 14 14 (602112)
I0403 21:55:09.463066 24692 net.cpp:156] Memory required for data: 1035617568
I0403 21:55:09.463085 24692 layer_factory.hpp:77] Creating layer inception_4c/relu_3x3_reduce
I0403 21:55:09.463104 24692 net.cpp:91] Creating Layer inception_4c/relu_3x3_reduce
I0403 21:55:09.463121 24692 net.cpp:425] inception_4c/relu_3x3_reduce <- inception_4c/3x3_reduce
I0403 21:55:09.463140 24692 net.cpp:386] inception_4c/relu_3x3_reduce -> inception_4c/3x3_reduce (in-place)
I0403 21:55:09.463479 24692 net.cpp:141] Setting up inception_4c/relu_3x3_reduce
I0403 21:55:09.463510 24692 net.cpp:148] Top shape: 24 128 14 14 (602112)
I0403 21:55:09.463526 24692 net.cpp:156] Memory required for data: 1038026016
I0403 21:55:09.463542 24692 layer_factory.hpp:77] Creating layer inception_4c/3x3
I0403 21:55:09.463567 24692 net.cpp:91] Creating Layer inception_4c/3x3
I0403 21:55:09.463587 24692 net.cpp:425] inception_4c/3x3 <- inception_4c/3x3_reduce
I0403 21:55:09.463608 24692 net.cpp:399] inception_4c/3x3 -> inception_4c/3x3
I0403 21:55:09.467288 24692 net.cpp:141] Setting up inception_4c/3x3
I0403 21:55:09.467334 24692 net.cpp:148] Top shape: 24 256 14 14 (1204224)
I0403 21:55:09.467353 24692 net.cpp:156] Memory required for data: 1042842912
I0403 21:55:09.467386 24692 layer_factory.hpp:77] Creating layer inception_4c/relu_3x3
I0403 21:55:09.467408 24692 net.cpp:91] Creating Layer inception_4c/relu_3x3
I0403 21:55:09.467427 24692 net.cpp:425] inception_4c/relu_3x3 <- inception_4c/3x3
I0403 21:55:09.467448 24692 net.cpp:386] inception_4c/relu_3x3 -> inception_4c/3x3 (in-place)
I0403 21:55:09.467640 24692 net.cpp:141] Setting up inception_4c/relu_3x3
I0403 21:55:09.467667 24692 net.cpp:148] Top shape: 24 256 14 14 (1204224)
I0403 21:55:09.467684 24692 net.cpp:156] Memory required for data: 1047659808
I0403 21:55:09.467700 24692 layer_factory.hpp:77] Creating layer inception_4c/5x5_reduce
I0403 21:55:09.467722 24692 net.cpp:91] Creating Layer inception_4c/5x5_reduce
I0403 21:55:09.467747 24692 net.cpp:425] inception_4c/5x5_reduce <- inception_4b/output_inception_4b/output_0_split_2
I0403 21:55:09.467768 24692 net.cpp:399] inception_4c/5x5_reduce -> inception_4c/5x5_reduce
I0403 21:55:09.468843 24692 net.cpp:141] Setting up inception_4c/5x5_reduce
I0403 21:55:09.468874 24692 net.cpp:148] Top shape: 24 24 14 14 (112896)
I0403 21:55:09.468890 24692 net.cpp:156] Memory required for data: 1048111392
I0403 21:55:09.468909 24692 layer_factory.hpp:77] Creating layer inception_4c/relu_5x5_reduce
I0403 21:55:09.468929 24692 net.cpp:91] Creating Layer inception_4c/relu_5x5_reduce
I0403 21:55:09.468945 24692 net.cpp:425] inception_4c/relu_5x5_reduce <- inception_4c/5x5_reduce
I0403 21:55:09.468963 24692 net.cpp:386] inception_4c/relu_5x5_reduce -> inception_4c/5x5_reduce (in-place)
I0403 21:55:09.469144 24692 net.cpp:141] Setting up inception_4c/relu_5x5_reduce
I0403 21:55:09.469169 24692 net.cpp:148] Top shape: 24 24 14 14 (112896)
I0403 21:55:09.469184 24692 net.cpp:156] Memory required for data: 1048562976
I0403 21:55:09.469203 24692 layer_factory.hpp:77] Creating layer inception_4c/5x5
I0403 21:55:09.469228 24692 net.cpp:91] Creating Layer inception_4c/5x5
I0403 21:55:09.469245 24692 net.cpp:425] inception_4c/5x5 <- inception_4c/5x5_reduce
I0403 21:55:09.469266 24692 net.cpp:399] inception_4c/5x5 -> inception_4c/5x5
I0403 21:55:09.470470 24692 net.cpp:141] Setting up inception_4c/5x5
I0403 21:55:09.470499 24692 net.cpp:148] Top shape: 24 64 14 14 (301056)
I0403 21:55:09.470515 24692 net.cpp:156] Memory required for data: 1049767200
I0403 21:55:09.470533 24692 layer_factory.hpp:77] Creating layer inception_4c/relu_5x5
I0403 21:55:09.470551 24692 net.cpp:91] Creating Layer inception_4c/relu_5x5
I0403 21:55:09.470566 24692 net.cpp:425] inception_4c/relu_5x5 <- inception_4c/5x5
I0403 21:55:09.470585 24692 net.cpp:386] inception_4c/relu_5x5 -> inception_4c/5x5 (in-place)
I0403 21:55:09.470868 24692 net.cpp:141] Setting up inception_4c/relu_5x5
I0403 21:55:09.470895 24692 net.cpp:148] Top shape: 24 64 14 14 (301056)
I0403 21:55:09.470911 24692 net.cpp:156] Memory required for data: 1050971424
I0403 21:55:09.470926 24692 layer_factory.hpp:77] Creating layer inception_4c/pool
I0403 21:55:09.470943 24692 net.cpp:91] Creating Layer inception_4c/pool
I0403 21:55:09.470960 24692 net.cpp:425] inception_4c/pool <- inception_4b/output_inception_4b/output_0_split_3
I0403 21:55:09.470980 24692 net.cpp:399] inception_4c/pool -> inception_4c/pool
I0403 21:55:09.471045 24692 net.cpp:141] Setting up inception_4c/pool
I0403 21:55:09.471068 24692 net.cpp:148] Top shape: 24 512 14 14 (2408448)
I0403 21:55:09.471084 24692 net.cpp:156] Memory required for data: 1060605216
I0403 21:55:09.471099 24692 layer_factory.hpp:77] Creating layer inception_4c/pool_proj
I0403 21:55:09.471123 24692 net.cpp:91] Creating Layer inception_4c/pool_proj
I0403 21:55:09.471141 24692 net.cpp:425] inception_4c/pool_proj <- inception_4c/pool
I0403 21:55:09.471160 24692 net.cpp:399] inception_4c/pool_proj -> inception_4c/pool_proj
I0403 21:55:09.472383 24692 net.cpp:141] Setting up inception_4c/pool_proj
I0403 21:55:09.472412 24692 net.cpp:148] Top shape: 24 64 14 14 (301056)
I0403 21:55:09.472441 24692 net.cpp:156] Memory required for data: 1061809440
I0403 21:55:09.472461 24692 layer_factory.hpp:77] Creating layer inception_4c/relu_pool_proj
I0403 21:55:09.472479 24692 net.cpp:91] Creating Layer inception_4c/relu_pool_proj
I0403 21:55:09.472496 24692 net.cpp:425] inception_4c/relu_pool_proj <- inception_4c/pool_proj
I0403 21:55:09.472515 24692 net.cpp:386] inception_4c/relu_pool_proj -> inception_4c/pool_proj (in-place)
I0403 21:55:09.472694 24692 net.cpp:141] Setting up inception_4c/relu_pool_proj
I0403 21:55:09.472719 24692 net.cpp:148] Top shape: 24 64 14 14 (301056)
I0403 21:55:09.472735 24692 net.cpp:156] Memory required for data: 1063013664
I0403 21:55:09.472750 24692 layer_factory.hpp:77] Creating layer inception_4c/output
I0403 21:55:09.472767 24692 net.cpp:91] Creating Layer inception_4c/output
I0403 21:55:09.472782 24692 net.cpp:425] inception_4c/output <- inception_4c/1x1
I0403 21:55:09.472800 24692 net.cpp:425] inception_4c/output <- inception_4c/3x3
I0403 21:55:09.472815 24692 net.cpp:425] inception_4c/output <- inception_4c/5x5
I0403 21:55:09.472831 24692 net.cpp:425] inception_4c/output <- inception_4c/pool_proj
I0403 21:55:09.472851 24692 net.cpp:399] inception_4c/output -> inception_4c/output
I0403 21:55:09.472895 24692 net.cpp:141] Setting up inception_4c/output
I0403 21:55:09.472921 24692 net.cpp:148] Top shape: 24 512 14 14 (2408448)
I0403 21:55:09.472937 24692 net.cpp:156] Memory required for data: 1072647456
I0403 21:55:09.472954 24692 layer_factory.hpp:77] Creating layer inception_4c/output_inception_4c/output_0_split
I0403 21:55:09.472970 24692 net.cpp:91] Creating Layer inception_4c/output_inception_4c/output_0_split
I0403 21:55:09.472986 24692 net.cpp:425] inception_4c/output_inception_4c/output_0_split <- inception_4c/output
I0403 21:55:09.473003 24692 net.cpp:399] inception_4c/output_inception_4c/output_0_split -> inception_4c/output_inception_4c/output_0_split_0
I0403 21:55:09.473026 24692 net.cpp:399] inception_4c/output_inception_4c/output_0_split -> inception_4c/output_inception_4c/output_0_split_1
I0403 21:55:09.473047 24692 net.cpp:399] inception_4c/output_inception_4c/output_0_split -> inception_4c/output_inception_4c/output_0_split_2
I0403 21:55:09.473068 24692 net.cpp:399] inception_4c/output_inception_4c/output_0_split -> inception_4c/output_inception_4c/output_0_split_3
I0403 21:55:09.473152 24692 net.cpp:141] Setting up inception_4c/output_inception_4c/output_0_split
I0403 21:55:09.473176 24692 net.cpp:148] Top shape: 24 512 14 14 (2408448)
I0403 21:55:09.473192 24692 net.cpp:148] Top shape: 24 512 14 14 (2408448)
I0403 21:55:09.473212 24692 net.cpp:148] Top shape: 24 512 14 14 (2408448)
I0403 21:55:09.473229 24692 net.cpp:148] Top shape: 24 512 14 14 (2408448)
I0403 21:55:09.473243 24692 net.cpp:156] Memory required for data: 1111182624
I0403 21:55:09.473258 24692 layer_factory.hpp:77] Creating layer inception_4d/1x1
I0403 21:55:09.473280 24692 net.cpp:91] Creating Layer inception_4d/1x1
I0403 21:55:09.473299 24692 net.cpp:425] inception_4d/1x1 <- inception_4c/output_inception_4c/output_0_split_0
I0403 21:55:09.473318 24692 net.cpp:399] inception_4d/1x1 -> inception_4d/1x1
I0403 21:55:09.474660 24692 net.cpp:141] Setting up inception_4d/1x1
I0403 21:55:09.474689 24692 net.cpp:148] Top shape: 24 112 14 14 (526848)
I0403 21:55:09.474704 24692 net.cpp:156] Memory required for data: 1113290016
I0403 21:55:09.474721 24692 layer_factory.hpp:77] Creating layer inception_4d/relu_1x1
I0403 21:55:09.474742 24692 net.cpp:91] Creating Layer inception_4d/relu_1x1
I0403 21:55:09.474759 24692 net.cpp:425] inception_4d/relu_1x1 <- inception_4d/1x1
I0403 21:55:09.474777 24692 net.cpp:386] inception_4d/relu_1x1 -> inception_4d/1x1 (in-place)
I0403 21:55:09.474961 24692 net.cpp:141] Setting up inception_4d/relu_1x1
I0403 21:55:09.474988 24692 net.cpp:148] Top shape: 24 112 14 14 (526848)
I0403 21:55:09.475004 24692 net.cpp:156] Memory required for data: 1115397408
I0403 21:55:09.475019 24692 layer_factory.hpp:77] Creating layer inception_4d/3x3_reduce
I0403 21:55:09.475055 24692 net.cpp:91] Creating Layer inception_4d/3x3_reduce
I0403 21:55:09.475075 24692 net.cpp:425] inception_4d/3x3_reduce <- inception_4c/output_inception_4c/output_0_split_1
I0403 21:55:09.475095 24692 net.cpp:399] inception_4d/3x3_reduce -> inception_4d/3x3_reduce
I0403 21:55:09.476601 24692 net.cpp:141] Setting up inception_4d/3x3_reduce
I0403 21:55:09.476629 24692 net.cpp:148] Top shape: 24 144 14 14 (677376)
I0403 21:55:09.476645 24692 net.cpp:156] Memory required for data: 1118106912
I0403 21:55:09.476663 24692 layer_factory.hpp:77] Creating layer inception_4d/relu_3x3_reduce
I0403 21:55:09.476683 24692 net.cpp:91] Creating Layer inception_4d/relu_3x3_reduce
I0403 21:55:09.476701 24692 net.cpp:425] inception_4d/relu_3x3_reduce <- inception_4d/3x3_reduce
I0403 21:55:09.476721 24692 net.cpp:386] inception_4d/relu_3x3_reduce -> inception_4d/3x3_reduce (in-place)
I0403 21:55:09.477001 24692 net.cpp:141] Setting up inception_4d/relu_3x3_reduce
I0403 21:55:09.477027 24692 net.cpp:148] Top shape: 24 144 14 14 (677376)
I0403 21:55:09.477042 24692 net.cpp:156] Memory required for data: 1120816416
I0403 21:55:09.477058 24692 layer_factory.hpp:77] Creating layer inception_4d/3x3
I0403 21:55:09.477082 24692 net.cpp:91] Creating Layer inception_4d/3x3
I0403 21:55:09.477099 24692 net.cpp:425] inception_4d/3x3 <- inception_4d/3x3_reduce
I0403 21:55:09.477120 24692 net.cpp:399] inception_4d/3x3 -> inception_4d/3x3
I0403 21:55:09.481326 24692 net.cpp:141] Setting up inception_4d/3x3
I0403 21:55:09.481355 24692 net.cpp:148] Top shape: 24 288 14 14 (1354752)
I0403 21:55:09.481371 24692 net.cpp:156] Memory required for data: 1126235424
I0403 21:55:09.481389 24692 layer_factory.hpp:77] Creating layer inception_4d/relu_3x3
I0403 21:55:09.481410 24692 net.cpp:91] Creating Layer inception_4d/relu_3x3
I0403 21:55:09.481427 24692 net.cpp:425] inception_4d/relu_3x3 <- inception_4d/3x3
I0403 21:55:09.481446 24692 net.cpp:386] inception_4d/relu_3x3 -> inception_4d/3x3 (in-place)
I0403 21:55:09.481626 24692 net.cpp:141] Setting up inception_4d/relu_3x3
I0403 21:55:09.481653 24692 net.cpp:148] Top shape: 24 288 14 14 (1354752)
I0403 21:55:09.481668 24692 net.cpp:156] Memory required for data: 1131654432
I0403 21:55:09.481683 24692 layer_factory.hpp:77] Creating layer inception_4d/5x5_reduce
I0403 21:55:09.481706 24692 net.cpp:91] Creating Layer inception_4d/5x5_reduce
I0403 21:55:09.481724 24692 net.cpp:425] inception_4d/5x5_reduce <- inception_4c/output_inception_4c/output_0_split_2
I0403 21:55:09.481742 24692 net.cpp:399] inception_4d/5x5_reduce -> inception_4d/5x5_reduce
I0403 21:55:09.482869 24692 net.cpp:141] Setting up inception_4d/5x5_reduce
I0403 21:55:09.482897 24692 net.cpp:148] Top shape: 24 32 14 14 (150528)
I0403 21:55:09.482920 24692 net.cpp:156] Memory required for data: 1132256544
I0403 21:55:09.482941 24692 layer_factory.hpp:77] Creating layer inception_4d/relu_5x5_reduce
I0403 21:55:09.482960 24692 net.cpp:91] Creating Layer inception_4d/relu_5x5_reduce
I0403 21:55:09.482978 24692 net.cpp:425] inception_4d/relu_5x5_reduce <- inception_4d/5x5_reduce
I0403 21:55:09.482995 24692 net.cpp:386] inception_4d/relu_5x5_reduce -> inception_4d/5x5_reduce (in-place)
I0403 21:55:09.483189 24692 net.cpp:141] Setting up inception_4d/relu_5x5_reduce
I0403 21:55:09.483230 24692 net.cpp:148] Top shape: 24 32 14 14 (150528)
I0403 21:55:09.483248 24692 net.cpp:156] Memory required for data: 1132858656
I0403 21:55:09.483264 24692 layer_factory.hpp:77] Creating layer inception_4d/5x5
I0403 21:55:09.483286 24692 net.cpp:91] Creating Layer inception_4d/5x5
I0403 21:55:09.483304 24692 net.cpp:425] inception_4d/5x5 <- inception_4d/5x5_reduce
I0403 21:55:09.483324 24692 net.cpp:399] inception_4d/5x5 -> inception_4d/5x5
I0403 21:55:09.484778 24692 net.cpp:141] Setting up inception_4d/5x5
I0403 21:55:09.484807 24692 net.cpp:148] Top shape: 24 64 14 14 (301056)
I0403 21:55:09.484822 24692 net.cpp:156] Memory required for data: 1134062880
I0403 21:55:09.484843 24692 layer_factory.hpp:77] Creating layer inception_4d/relu_5x5
I0403 21:55:09.484875 24692 net.cpp:91] Creating Layer inception_4d/relu_5x5
I0403 21:55:09.484894 24692 net.cpp:425] inception_4d/relu_5x5 <- inception_4d/5x5
I0403 21:55:09.484912 24692 net.cpp:386] inception_4d/relu_5x5 -> inception_4d/5x5 (in-place)
I0403 21:55:09.485213 24692 net.cpp:141] Setting up inception_4d/relu_5x5
I0403 21:55:09.485239 24692 net.cpp:148] Top shape: 24 64 14 14 (301056)
I0403 21:55:09.485254 24692 net.cpp:156] Memory required for data: 1135267104
I0403 21:55:09.485267 24692 layer_factory.hpp:77] Creating layer inception_4d/pool
I0403 21:55:09.485285 24692 net.cpp:91] Creating Layer inception_4d/pool
I0403 21:55:09.485301 24692 net.cpp:425] inception_4d/pool <- inception_4c/output_inception_4c/output_0_split_3
I0403 21:55:09.485321 24692 net.cpp:399] inception_4d/pool -> inception_4d/pool
I0403 21:55:09.485388 24692 net.cpp:141] Setting up inception_4d/pool
I0403 21:55:09.485412 24692 net.cpp:148] Top shape: 24 512 14 14 (2408448)
I0403 21:55:09.485427 24692 net.cpp:156] Memory required for data: 1144900896
I0403 21:55:09.485442 24692 layer_factory.hpp:77] Creating layer inception_4d/pool_proj
I0403 21:55:09.485466 24692 net.cpp:91] Creating Layer inception_4d/pool_proj
I0403 21:55:09.485484 24692 net.cpp:425] inception_4d/pool_proj <- inception_4d/pool
I0403 21:55:09.485503 24692 net.cpp:399] inception_4d/pool_proj -> inception_4d/pool_proj
I0403 21:55:09.487260 24692 net.cpp:141] Setting up inception_4d/pool_proj
I0403 21:55:09.487289 24692 net.cpp:148] Top shape: 24 64 14 14 (301056)
I0403 21:55:09.487305 24692 net.cpp:156] Memory required for data: 1146105120
I0403 21:55:09.487323 24692 layer_factory.hpp:77] Creating layer inception_4d/relu_pool_proj
I0403 21:55:09.487345 24692 net.cpp:91] Creating Layer inception_4d/relu_pool_proj
I0403 21:55:09.487363 24692 net.cpp:425] inception_4d/relu_pool_proj <- inception_4d/pool_proj
I0403 21:55:09.487382 24692 net.cpp:386] inception_4d/relu_pool_proj -> inception_4d/pool_proj (in-place)
I0403 21:55:09.487593 24692 net.cpp:141] Setting up inception_4d/relu_pool_proj
I0403 21:55:09.487620 24692 net.cpp:148] Top shape: 24 64 14 14 (301056)
I0403 21:55:09.487637 24692 net.cpp:156] Memory required for data: 1147309344
I0403 21:55:09.487651 24692 layer_factory.hpp:77] Creating layer inception_4d/output
I0403 21:55:09.487669 24692 net.cpp:91] Creating Layer inception_4d/output
I0403 21:55:09.487685 24692 net.cpp:425] inception_4d/output <- inception_4d/1x1
I0403 21:55:09.487702 24692 net.cpp:425] inception_4d/output <- inception_4d/3x3
I0403 21:55:09.487718 24692 net.cpp:425] inception_4d/output <- inception_4d/5x5
I0403 21:55:09.487733 24692 net.cpp:425] inception_4d/output <- inception_4d/pool_proj
I0403 21:55:09.487752 24692 net.cpp:399] inception_4d/output -> inception_4d/output
I0403 21:55:09.487799 24692 net.cpp:141] Setting up inception_4d/output
I0403 21:55:09.487823 24692 net.cpp:148] Top shape: 24 528 14 14 (2483712)
I0403 21:55:09.487838 24692 net.cpp:156] Memory required for data: 1157244192
I0403 21:55:09.487853 24692 layer_factory.hpp:77] Creating layer inception_4d/output_inception_4d/output_0_split
I0403 21:55:09.487874 24692 net.cpp:91] Creating Layer inception_4d/output_inception_4d/output_0_split
I0403 21:55:09.487890 24692 net.cpp:425] inception_4d/output_inception_4d/output_0_split <- inception_4d/output
I0403 21:55:09.487908 24692 net.cpp:399] inception_4d/output_inception_4d/output_0_split -> inception_4d/output_inception_4d/output_0_split_0
I0403 21:55:09.487929 24692 net.cpp:399] inception_4d/output_inception_4d/output_0_split -> inception_4d/output_inception_4d/output_0_split_1
I0403 21:55:09.487957 24692 net.cpp:399] inception_4d/output_inception_4d/output_0_split -> inception_4d/output_inception_4d/output_0_split_2
I0403 21:55:09.487979 24692 net.cpp:399] inception_4d/output_inception_4d/output_0_split -> inception_4d/output_inception_4d/output_0_split_3
I0403 21:55:09.487999 24692 net.cpp:399] inception_4d/output_inception_4d/output_0_split -> inception_4d/output_inception_4d/output_0_split_4
I0403 21:55:09.488097 24692 net.cpp:141] Setting up inception_4d/output_inception_4d/output_0_split
I0403 21:55:09.488133 24692 net.cpp:148] Top shape: 24 528 14 14 (2483712)
I0403 21:55:09.488150 24692 net.cpp:148] Top shape: 24 528 14 14 (2483712)
I0403 21:55:09.488168 24692 net.cpp:148] Top shape: 24 528 14 14 (2483712)
I0403 21:55:09.488183 24692 net.cpp:148] Top shape: 24 528 14 14 (2483712)
I0403 21:55:09.488220 24692 net.cpp:148] Top shape: 24 528 14 14 (2483712)
I0403 21:55:09.488237 24692 net.cpp:156] Memory required for data: 1206918432
I0403 21:55:09.488262 24692 layer_factory.hpp:77] Creating layer loss2/ave_pool
I0403 21:55:09.488283 24692 net.cpp:91] Creating Layer loss2/ave_pool
I0403 21:55:09.488301 24692 net.cpp:425] loss2/ave_pool <- inception_4d/output_inception_4d/output_0_split_0
I0403 21:55:09.488320 24692 net.cpp:399] loss2/ave_pool -> loss2/ave_pool
I0403 21:55:09.488637 24692 net.cpp:141] Setting up loss2/ave_pool
I0403 21:55:09.488664 24692 net.cpp:148] Top shape: 24 528 4 4 (202752)
I0403 21:55:09.488683 24692 net.cpp:156] Memory required for data: 1207729440
I0403 21:55:09.488699 24692 layer_factory.hpp:77] Creating layer loss2/conv
I0403 21:55:09.488720 24692 net.cpp:91] Creating Layer loss2/conv
I0403 21:55:09.488739 24692 net.cpp:425] loss2/conv <- loss2/ave_pool
I0403 21:55:09.488760 24692 net.cpp:399] loss2/conv -> loss2/conv
I0403 21:55:09.490679 24692 net.cpp:141] Setting up loss2/conv
I0403 21:55:09.490710 24692 net.cpp:148] Top shape: 24 128 4 4 (49152)
I0403 21:55:09.490726 24692 net.cpp:156] Memory required for data: 1207926048
I0403 21:55:09.490746 24692 layer_factory.hpp:77] Creating layer loss2/relu_conv
I0403 21:55:09.490766 24692 net.cpp:91] Creating Layer loss2/relu_conv
I0403 21:55:09.490783 24692 net.cpp:425] loss2/relu_conv <- loss2/conv
I0403 21:55:09.490803 24692 net.cpp:386] loss2/relu_conv -> loss2/conv (in-place)
I0403 21:55:09.491088 24692 net.cpp:141] Setting up loss2/relu_conv
I0403 21:55:09.491117 24692 net.cpp:148] Top shape: 24 128 4 4 (49152)
I0403 21:55:09.491134 24692 net.cpp:156] Memory required for data: 1208122656
I0403 21:55:09.491150 24692 layer_factory.hpp:77] Creating layer loss2/fc
I0403 21:55:09.491169 24692 net.cpp:91] Creating Layer loss2/fc
I0403 21:55:09.491201 24692 net.cpp:425] loss2/fc <- loss2/conv
I0403 21:55:09.491227 24692 net.cpp:399] loss2/fc -> loss2/fc
I0403 21:55:09.509030 24692 net.cpp:141] Setting up loss2/fc
I0403 21:55:09.509068 24692 net.cpp:148] Top shape: 24 1024 (24576)
I0403 21:55:09.509083 24692 net.cpp:156] Memory required for data: 1208220960
I0403 21:55:09.509102 24692 layer_factory.hpp:77] Creating layer loss2/relu_fc
I0403 21:55:09.509121 24692 net.cpp:91] Creating Layer loss2/relu_fc
I0403 21:55:09.509140 24692 net.cpp:425] loss2/relu_fc <- loss2/fc
I0403 21:55:09.509158 24692 net.cpp:386] loss2/relu_fc -> loss2/fc (in-place)
I0403 21:55:09.509457 24692 net.cpp:141] Setting up loss2/relu_fc
I0403 21:55:09.509485 24692 net.cpp:148] Top shape: 24 1024 (24576)
I0403 21:55:09.509500 24692 net.cpp:156] Memory required for data: 1208319264
I0403 21:55:09.509516 24692 layer_factory.hpp:77] Creating layer loss2/drop_fc
I0403 21:55:09.509536 24692 net.cpp:91] Creating Layer loss2/drop_fc
I0403 21:55:09.509553 24692 net.cpp:425] loss2/drop_fc <- loss2/fc
I0403 21:55:09.509572 24692 net.cpp:386] loss2/drop_fc -> loss2/fc (in-place)
I0403 21:55:09.509623 24692 net.cpp:141] Setting up loss2/drop_fc
I0403 21:55:09.509645 24692 net.cpp:148] Top shape: 24 1024 (24576)
I0403 21:55:09.509660 24692 net.cpp:156] Memory required for data: 1208417568
I0403 21:55:09.509673 24692 layer_factory.hpp:77] Creating layer loss2/classifier_plantvillage
I0403 21:55:09.509696 24692 net.cpp:91] Creating Layer loss2/classifier_plantvillage
I0403 21:55:09.509713 24692 net.cpp:425] loss2/classifier_plantvillage <- loss2/fc
I0403 21:55:09.509732 24692 net.cpp:399] loss2/classifier_plantvillage -> loss2/classifier_plantvillage
I0403 21:55:09.510124 24692 net.cpp:141] Setting up loss2/classifier_plantvillage
I0403 21:55:09.510149 24692 net.cpp:148] Top shape: 24 38 (912)
I0403 21:55:09.510193 24692 net.cpp:156] Memory required for data: 1208421216
I0403 21:55:09.510220 24692 layer_factory.hpp:77] Creating layer loss2/classifier_plantvillage_loss2/classifier_plantvillage_0_split
I0403 21:55:09.510239 24692 net.cpp:91] Creating Layer loss2/classifier_plantvillage_loss2/classifier_plantvillage_0_split
I0403 21:55:09.510257 24692 net.cpp:425] loss2/classifier_plantvillage_loss2/classifier_plantvillage_0_split <- loss2/classifier_plantvillage
I0403 21:55:09.510278 24692 net.cpp:399] loss2/classifier_plantvillage_loss2/classifier_plantvillage_0_split -> loss2/classifier_plantvillage_loss2/classifier_plantvillage_0_split_0
I0403 21:55:09.510300 24692 net.cpp:399] loss2/classifier_plantvillage_loss2/classifier_plantvillage_0_split -> loss2/classifier_plantvillage_loss2/classifier_plantvillage_0_split_1
I0403 21:55:09.510323 24692 net.cpp:399] loss2/classifier_plantvillage_loss2/classifier_plantvillage_0_split -> loss2/classifier_plantvillage_loss2/classifier_plantvillage_0_split_2
I0403 21:55:09.510401 24692 net.cpp:141] Setting up loss2/classifier_plantvillage_loss2/classifier_plantvillage_0_split
I0403 21:55:09.510427 24692 net.cpp:148] Top shape: 24 38 (912)
I0403 21:55:09.510444 24692 net.cpp:148] Top shape: 24 38 (912)
I0403 21:55:09.510473 24692 net.cpp:148] Top shape: 24 38 (912)
I0403 21:55:09.510488 24692 net.cpp:156] Memory required for data: 1208432160
I0403 21:55:09.510504 24692 layer_factory.hpp:77] Creating layer inception_4e/1x1
I0403 21:55:09.510524 24692 net.cpp:91] Creating Layer inception_4e/1x1
I0403 21:55:09.510542 24692 net.cpp:425] inception_4e/1x1 <- inception_4d/output_inception_4d/output_0_split_1
I0403 21:55:09.510561 24692 net.cpp:399] inception_4e/1x1 -> inception_4e/1x1
I0403 21:55:09.512377 24692 net.cpp:141] Setting up inception_4e/1x1
I0403 21:55:09.512405 24692 net.cpp:148] Top shape: 24 256 14 14 (1204224)
I0403 21:55:09.512421 24692 net.cpp:156] Memory required for data: 1213249056
I0403 21:55:09.512439 24692 layer_factory.hpp:77] Creating layer inception_4e/relu_1x1
I0403 21:55:09.512457 24692 net.cpp:91] Creating Layer inception_4e/relu_1x1
I0403 21:55:09.512475 24692 net.cpp:425] inception_4e/relu_1x1 <- inception_4e/1x1
I0403 21:55:09.512493 24692 net.cpp:386] inception_4e/relu_1x1 -> inception_4e/1x1 (in-place)
I0403 21:55:09.512789 24692 net.cpp:141] Setting up inception_4e/relu_1x1
I0403 21:55:09.512815 24692 net.cpp:148] Top shape: 24 256 14 14 (1204224)
I0403 21:55:09.512830 24692 net.cpp:156] Memory required for data: 1218065952
I0403 21:55:09.512845 24692 layer_factory.hpp:77] Creating layer inception_4e/3x3_reduce
I0403 21:55:09.512869 24692 net.cpp:91] Creating Layer inception_4e/3x3_reduce
I0403 21:55:09.512887 24692 net.cpp:425] inception_4e/3x3_reduce <- inception_4d/output_inception_4d/output_0_split_2
I0403 21:55:09.512909 24692 net.cpp:399] inception_4e/3x3_reduce -> inception_4e/3x3_reduce
I0403 21:55:09.515007 24692 net.cpp:141] Setting up inception_4e/3x3_reduce
I0403 21:55:09.515038 24692 net.cpp:148] Top shape: 24 160 14 14 (752640)
I0403 21:55:09.515055 24692 net.cpp:156] Memory required for data: 1221076512
I0403 21:55:09.515074 24692 layer_factory.hpp:77] Creating layer inception_4e/relu_3x3_reduce
I0403 21:55:09.515092 24692 net.cpp:91] Creating Layer inception_4e/relu_3x3_reduce
I0403 21:55:09.515108 24692 net.cpp:425] inception_4e/relu_3x3_reduce <- inception_4e/3x3_reduce
I0403 21:55:09.515130 24692 net.cpp:386] inception_4e/relu_3x3_reduce -> inception_4e/3x3_reduce (in-place)
I0403 21:55:09.515334 24692 net.cpp:141] Setting up inception_4e/relu_3x3_reduce
I0403 21:55:09.515360 24692 net.cpp:148] Top shape: 24 160 14 14 (752640)
I0403 21:55:09.515375 24692 net.cpp:156] Memory required for data: 1224087072
I0403 21:55:09.515390 24692 layer_factory.hpp:77] Creating layer inception_4e/3x3
I0403 21:55:09.515413 24692 net.cpp:91] Creating Layer inception_4e/3x3
I0403 21:55:09.515431 24692 net.cpp:425] inception_4e/3x3 <- inception_4e/3x3_reduce
I0403 21:55:09.515455 24692 net.cpp:399] inception_4e/3x3 -> inception_4e/3x3
I0403 21:55:09.520433 24692 net.cpp:141] Setting up inception_4e/3x3
I0403 21:55:09.520476 24692 net.cpp:148] Top shape: 24 320 14 14 (1505280)
I0403 21:55:09.520493 24692 net.cpp:156] Memory required for data: 1230108192
I0403 21:55:09.520512 24692 layer_factory.hpp:77] Creating layer inception_4e/relu_3x3
I0403 21:55:09.520534 24692 net.cpp:91] Creating Layer inception_4e/relu_3x3
I0403 21:55:09.520550 24692 net.cpp:425] inception_4e/relu_3x3 <- inception_4e/3x3
I0403 21:55:09.520568 24692 net.cpp:386] inception_4e/relu_3x3 -> inception_4e/3x3 (in-place)
I0403 21:55:09.520864 24692 net.cpp:141] Setting up inception_4e/relu_3x3
I0403 21:55:09.520890 24692 net.cpp:148] Top shape: 24 320 14 14 (1505280)
I0403 21:55:09.520906 24692 net.cpp:156] Memory required for data: 1236129312
I0403 21:55:09.520921 24692 layer_factory.hpp:77] Creating layer inception_4e/5x5_reduce
I0403 21:55:09.520946 24692 net.cpp:91] Creating Layer inception_4e/5x5_reduce
I0403 21:55:09.520964 24692 net.cpp:425] inception_4e/5x5_reduce <- inception_4d/output_inception_4d/output_0_split_3
I0403 21:55:09.520987 24692 net.cpp:399] inception_4e/5x5_reduce -> inception_4e/5x5_reduce
I0403 21:55:09.522042 24692 net.cpp:141] Setting up inception_4e/5x5_reduce
I0403 21:55:09.522069 24692 net.cpp:148] Top shape: 24 32 14 14 (150528)
I0403 21:55:09.522085 24692 net.cpp:156] Memory required for data: 1236731424
I0403 21:55:09.522104 24692 layer_factory.hpp:77] Creating layer inception_4e/relu_5x5_reduce
I0403 21:55:09.522121 24692 net.cpp:91] Creating Layer inception_4e/relu_5x5_reduce
I0403 21:55:09.522137 24692 net.cpp:425] inception_4e/relu_5x5_reduce <- inception_4e/5x5_reduce
I0403 21:55:09.522157 24692 net.cpp:386] inception_4e/relu_5x5_reduce -> inception_4e/5x5_reduce (in-place)
I0403 21:55:09.522457 24692 net.cpp:141] Setting up inception_4e/relu_5x5_reduce
I0403 21:55:09.522483 24692 net.cpp:148] Top shape: 24 32 14 14 (150528)
I0403 21:55:09.522500 24692 net.cpp:156] Memory required for data: 1237333536
I0403 21:55:09.522514 24692 layer_factory.hpp:77] Creating layer inception_4e/5x5
I0403 21:55:09.522552 24692 net.cpp:91] Creating Layer inception_4e/5x5
I0403 21:55:09.522572 24692 net.cpp:425] inception_4e/5x5 <- inception_4e/5x5_reduce
I0403 21:55:09.522591 24692 net.cpp:399] inception_4e/5x5 -> inception_4e/5x5
I0403 21:55:09.524430 24692 net.cpp:141] Setting up inception_4e/5x5
I0403 21:55:09.524461 24692 net.cpp:148] Top shape: 24 128 14 14 (602112)
I0403 21:55:09.524479 24692 net.cpp:156] Memory required for data: 1239741984
I0403 21:55:09.524498 24692 layer_factory.hpp:77] Creating layer inception_4e/relu_5x5
I0403 21:55:09.524515 24692 net.cpp:91] Creating Layer inception_4e/relu_5x5
I0403 21:55:09.524531 24692 net.cpp:425] inception_4e/relu_5x5 <- inception_4e/5x5
I0403 21:55:09.524549 24692 net.cpp:386] inception_4e/relu_5x5 -> inception_4e/5x5 (in-place)
I0403 21:55:09.524744 24692 net.cpp:141] Setting up inception_4e/relu_5x5
I0403 21:55:09.524770 24692 net.cpp:148] Top shape: 24 128 14 14 (602112)
I0403 21:55:09.524785 24692 net.cpp:156] Memory required for data: 1242150432
I0403 21:55:09.524799 24692 layer_factory.hpp:77] Creating layer inception_4e/pool
I0403 21:55:09.524817 24692 net.cpp:91] Creating Layer inception_4e/pool
I0403 21:55:09.524833 24692 net.cpp:425] inception_4e/pool <- inception_4d/output_inception_4d/output_0_split_4
I0403 21:55:09.524853 24692 net.cpp:399] inception_4e/pool -> inception_4e/pool
I0403 21:55:09.524921 24692 net.cpp:141] Setting up inception_4e/pool
I0403 21:55:09.524947 24692 net.cpp:148] Top shape: 24 528 14 14 (2483712)
I0403 21:55:09.524963 24692 net.cpp:156] Memory required for data: 1252085280
I0403 21:55:09.524978 24692 layer_factory.hpp:77] Creating layer inception_4e/pool_proj
I0403 21:55:09.524999 24692 net.cpp:91] Creating Layer inception_4e/pool_proj
I0403 21:55:09.525018 24692 net.cpp:425] inception_4e/pool_proj <- inception_4e/pool
I0403 21:55:09.525038 24692 net.cpp:399] inception_4e/pool_proj -> inception_4e/pool_proj
I0403 21:55:09.526516 24692 net.cpp:141] Setting up inception_4e/pool_proj
I0403 21:55:09.526554 24692 net.cpp:148] Top shape: 24 128 14 14 (602112)
I0403 21:55:09.526574 24692 net.cpp:156] Memory required for data: 1254493728
I0403 21:55:09.526592 24692 layer_factory.hpp:77] Creating layer inception_4e/relu_pool_proj
I0403 21:55:09.526610 24692 net.cpp:91] Creating Layer inception_4e/relu_pool_proj
I0403 21:55:09.526628 24692 net.cpp:425] inception_4e/relu_pool_proj <- inception_4e/pool_proj
I0403 21:55:09.526645 24692 net.cpp:386] inception_4e/relu_pool_proj -> inception_4e/pool_proj (in-place)
I0403 21:55:09.526943 24692 net.cpp:141] Setting up inception_4e/relu_pool_proj
I0403 21:55:09.526969 24692 net.cpp:148] Top shape: 24 128 14 14 (602112)
I0403 21:55:09.526988 24692 net.cpp:156] Memory required for data: 1256902176
I0403 21:55:09.527004 24692 layer_factory.hpp:77] Creating layer inception_4e/output
I0403 21:55:09.527022 24692 net.cpp:91] Creating Layer inception_4e/output
I0403 21:55:09.527040 24692 net.cpp:425] inception_4e/output <- inception_4e/1x1
I0403 21:55:09.527056 24692 net.cpp:425] inception_4e/output <- inception_4e/3x3
I0403 21:55:09.527072 24692 net.cpp:425] inception_4e/output <- inception_4e/5x5
I0403 21:55:09.527087 24692 net.cpp:425] inception_4e/output <- inception_4e/pool_proj
I0403 21:55:09.527104 24692 net.cpp:399] inception_4e/output -> inception_4e/output
I0403 21:55:09.527155 24692 net.cpp:141] Setting up inception_4e/output
I0403 21:55:09.527192 24692 net.cpp:148] Top shape: 24 832 14 14 (3913728)
I0403 21:55:09.527212 24692 net.cpp:156] Memory required for data: 1272557088
I0403 21:55:09.527227 24692 layer_factory.hpp:77] Creating layer pool4/3x3_s2
I0403 21:55:09.527247 24692 net.cpp:91] Creating Layer pool4/3x3_s2
I0403 21:55:09.527266 24692 net.cpp:425] pool4/3x3_s2 <- inception_4e/output
I0403 21:55:09.527284 24692 net.cpp:399] pool4/3x3_s2 -> pool4/3x3_s2
I0403 21:55:09.527354 24692 net.cpp:141] Setting up pool4/3x3_s2
I0403 21:55:09.527379 24692 net.cpp:148] Top shape: 24 832 7 7 (978432)
I0403 21:55:09.527395 24692 net.cpp:156] Memory required for data: 1276470816
I0403 21:55:09.527410 24692 layer_factory.hpp:77] Creating layer pool4/3x3_s2_pool4/3x3_s2_0_split
I0403 21:55:09.527426 24692 net.cpp:91] Creating Layer pool4/3x3_s2_pool4/3x3_s2_0_split
I0403 21:55:09.527443 24692 net.cpp:425] pool4/3x3_s2_pool4/3x3_s2_0_split <- pool4/3x3_s2
I0403 21:55:09.527477 24692 net.cpp:399] pool4/3x3_s2_pool4/3x3_s2_0_split -> pool4/3x3_s2_pool4/3x3_s2_0_split_0
I0403 21:55:09.527498 24692 net.cpp:399] pool4/3x3_s2_pool4/3x3_s2_0_split -> pool4/3x3_s2_pool4/3x3_s2_0_split_1
I0403 21:55:09.527518 24692 net.cpp:399] pool4/3x3_s2_pool4/3x3_s2_0_split -> pool4/3x3_s2_pool4/3x3_s2_0_split_2
I0403 21:55:09.527539 24692 net.cpp:399] pool4/3x3_s2_pool4/3x3_s2_0_split -> pool4/3x3_s2_pool4/3x3_s2_0_split_3
I0403 21:55:09.527629 24692 net.cpp:141] Setting up pool4/3x3_s2_pool4/3x3_s2_0_split
I0403 21:55:09.527653 24692 net.cpp:148] Top shape: 24 832 7 7 (978432)
I0403 21:55:09.527669 24692 net.cpp:148] Top shape: 24 832 7 7 (978432)
I0403 21:55:09.527685 24692 net.cpp:148] Top shape: 24 832 7 7 (978432)
I0403 21:55:09.527700 24692 net.cpp:148] Top shape: 24 832 7 7 (978432)
I0403 21:55:09.527714 24692 net.cpp:156] Memory required for data: 1292125728
I0403 21:55:09.527729 24692 layer_factory.hpp:77] Creating layer inception_5a/1x1
I0403 21:55:09.527751 24692 net.cpp:91] Creating Layer inception_5a/1x1
I0403 21:55:09.527770 24692 net.cpp:425] inception_5a/1x1 <- pool4/3x3_s2_pool4/3x3_s2_0_split_0
I0403 21:55:09.527789 24692 net.cpp:399] inception_5a/1x1 -> inception_5a/1x1
I0403 21:55:09.530597 24692 net.cpp:141] Setting up inception_5a/1x1
I0403 21:55:09.530629 24692 net.cpp:148] Top shape: 24 256 7 7 (301056)
I0403 21:55:09.530647 24692 net.cpp:156] Memory required for data: 1293329952
I0403 21:55:09.530665 24692 layer_factory.hpp:77] Creating layer inception_5a/relu_1x1
I0403 21:55:09.530683 24692 net.cpp:91] Creating Layer inception_5a/relu_1x1
I0403 21:55:09.530699 24692 net.cpp:425] inception_5a/relu_1x1 <- inception_5a/1x1
I0403 21:55:09.530720 24692 net.cpp:386] inception_5a/relu_1x1 -> inception_5a/1x1 (in-place)
I0403 21:55:09.531023 24692 net.cpp:141] Setting up inception_5a/relu_1x1
I0403 21:55:09.531052 24692 net.cpp:148] Top shape: 24 256 7 7 (301056)
I0403 21:55:09.531069 24692 net.cpp:156] Memory required for data: 1294534176
I0403 21:55:09.531085 24692 layer_factory.hpp:77] Creating layer inception_5a/3x3_reduce
I0403 21:55:09.531106 24692 net.cpp:91] Creating Layer inception_5a/3x3_reduce
I0403 21:55:09.531126 24692 net.cpp:425] inception_5a/3x3_reduce <- pool4/3x3_s2_pool4/3x3_s2_0_split_1
I0403 21:55:09.531143 24692 net.cpp:399] inception_5a/3x3_reduce -> inception_5a/3x3_reduce
I0403 21:55:09.533596 24692 net.cpp:141] Setting up inception_5a/3x3_reduce
I0403 21:55:09.533624 24692 net.cpp:148] Top shape: 24 160 7 7 (188160)
I0403 21:55:09.533640 24692 net.cpp:156] Memory required for data: 1295286816
I0403 21:55:09.533659 24692 layer_factory.hpp:77] Creating layer inception_5a/relu_3x3_reduce
I0403 21:55:09.533679 24692 net.cpp:91] Creating Layer inception_5a/relu_3x3_reduce
I0403 21:55:09.533697 24692 net.cpp:425] inception_5a/relu_3x3_reduce <- inception_5a/3x3_reduce
I0403 21:55:09.533715 24692 net.cpp:386] inception_5a/relu_3x3_reduce -> inception_5a/3x3_reduce (in-place)
I0403 21:55:09.533898 24692 net.cpp:141] Setting up inception_5a/relu_3x3_reduce
I0403 21:55:09.533926 24692 net.cpp:148] Top shape: 24 160 7 7 (188160)
I0403 21:55:09.533941 24692 net.cpp:156] Memory required for data: 1296039456
I0403 21:55:09.533958 24692 layer_factory.hpp:77] Creating layer inception_5a/3x3
I0403 21:55:09.533982 24692 net.cpp:91] Creating Layer inception_5a/3x3
I0403 21:55:09.533999 24692 net.cpp:425] inception_5a/3x3 <- inception_5a/3x3_reduce
I0403 21:55:09.534019 24692 net.cpp:399] inception_5a/3x3 -> inception_5a/3x3
I0403 21:55:09.538983 24692 net.cpp:141] Setting up inception_5a/3x3
I0403 21:55:09.539016 24692 net.cpp:148] Top shape: 24 320 7 7 (376320)
I0403 21:55:09.539032 24692 net.cpp:156] Memory required for data: 1297544736
I0403 21:55:09.539050 24692 layer_factory.hpp:77] Creating layer inception_5a/relu_3x3
I0403 21:55:09.539068 24692 net.cpp:91] Creating Layer inception_5a/relu_3x3
I0403 21:55:09.539084 24692 net.cpp:425] inception_5a/relu_3x3 <- inception_5a/3x3
I0403 21:55:09.539103 24692 net.cpp:386] inception_5a/relu_3x3 -> inception_5a/3x3 (in-place)
I0403 21:55:09.539417 24692 net.cpp:141] Setting up inception_5a/relu_3x3
I0403 21:55:09.539446 24692 net.cpp:148] Top shape: 24 320 7 7 (376320)
I0403 21:55:09.539475 24692 net.cpp:156] Memory required for data: 1299050016
I0403 21:55:09.539491 24692 layer_factory.hpp:77] Creating layer inception_5a/5x5_reduce
I0403 21:55:09.539512 24692 net.cpp:91] Creating Layer inception_5a/5x5_reduce
I0403 21:55:09.539530 24692 net.cpp:425] inception_5a/5x5_reduce <- pool4/3x3_s2_pool4/3x3_s2_0_split_2
I0403 21:55:09.539549 24692 net.cpp:399] inception_5a/5x5_reduce -> inception_5a/5x5_reduce
I0403 21:55:09.540699 24692 net.cpp:141] Setting up inception_5a/5x5_reduce
I0403 21:55:09.540729 24692 net.cpp:148] Top shape: 24 32 7 7 (37632)
I0403 21:55:09.540746 24692 net.cpp:156] Memory required for data: 1299200544
I0403 21:55:09.540763 24692 layer_factory.hpp:77] Creating layer inception_5a/relu_5x5_reduce
I0403 21:55:09.540781 24692 net.cpp:91] Creating Layer inception_5a/relu_5x5_reduce
I0403 21:55:09.540796 24692 net.cpp:425] inception_5a/relu_5x5_reduce <- inception_5a/5x5_reduce
I0403 21:55:09.540817 24692 net.cpp:386] inception_5a/relu_5x5_reduce -> inception_5a/5x5_reduce (in-place)
I0403 21:55:09.541118 24692 net.cpp:141] Setting up inception_5a/relu_5x5_reduce
I0403 21:55:09.541144 24692 net.cpp:148] Top shape: 24 32 7 7 (37632)
I0403 21:55:09.541160 24692 net.cpp:156] Memory required for data: 1299351072
I0403 21:55:09.541175 24692 layer_factory.hpp:77] Creating layer inception_5a/5x5
I0403 21:55:09.541201 24692 net.cpp:91] Creating Layer inception_5a/5x5
I0403 21:55:09.541220 24692 net.cpp:425] inception_5a/5x5 <- inception_5a/5x5_reduce
I0403 21:55:09.541242 24692 net.cpp:399] inception_5a/5x5 -> inception_5a/5x5
I0403 21:55:09.542930 24692 net.cpp:141] Setting up inception_5a/5x5
I0403 21:55:09.542973 24692 net.cpp:148] Top shape: 24 128 7 7 (150528)
I0403 21:55:09.542989 24692 net.cpp:156] Memory required for data: 1299953184
I0403 21:55:09.543009 24692 layer_factory.hpp:77] Creating layer inception_5a/relu_5x5
I0403 21:55:09.543026 24692 net.cpp:91] Creating Layer inception_5a/relu_5x5
I0403 21:55:09.543043 24692 net.cpp:425] inception_5a/relu_5x5 <- inception_5a/5x5
I0403 21:55:09.543061 24692 net.cpp:386] inception_5a/relu_5x5 -> inception_5a/5x5 (in-place)
I0403 21:55:09.543272 24692 net.cpp:141] Setting up inception_5a/relu_5x5
I0403 21:55:09.543297 24692 net.cpp:148] Top shape: 24 128 7 7 (150528)
I0403 21:55:09.543313 24692 net.cpp:156] Memory required for data: 1300555296
I0403 21:55:09.543328 24692 layer_factory.hpp:77] Creating layer inception_5a/pool
I0403 21:55:09.543346 24692 net.cpp:91] Creating Layer inception_5a/pool
I0403 21:55:09.543364 24692 net.cpp:425] inception_5a/pool <- pool4/3x3_s2_pool4/3x3_s2_0_split_3
I0403 21:55:09.543383 24692 net.cpp:399] inception_5a/pool -> inception_5a/pool
I0403 21:55:09.543454 24692 net.cpp:141] Setting up inception_5a/pool
I0403 21:55:09.543491 24692 net.cpp:148] Top shape: 24 832 7 7 (978432)
I0403 21:55:09.543508 24692 net.cpp:156] Memory required for data: 1304469024
I0403 21:55:09.543522 24692 layer_factory.hpp:77] Creating layer inception_5a/pool_proj
I0403 21:55:09.543545 24692 net.cpp:91] Creating Layer inception_5a/pool_proj
I0403 21:55:09.543562 24692 net.cpp:425] inception_5a/pool_proj <- inception_5a/pool
I0403 21:55:09.543581 24692 net.cpp:399] inception_5a/pool_proj -> inception_5a/pool_proj
I0403 21:55:09.545835 24692 net.cpp:141] Setting up inception_5a/pool_proj
I0403 21:55:09.545863 24692 net.cpp:148] Top shape: 24 128 7 7 (150528)
I0403 21:55:09.545879 24692 net.cpp:156] Memory required for data: 1305071136
I0403 21:55:09.545898 24692 layer_factory.hpp:77] Creating layer inception_5a/relu_pool_proj
I0403 21:55:09.545917 24692 net.cpp:91] Creating Layer inception_5a/relu_pool_proj
I0403 21:55:09.545936 24692 net.cpp:425] inception_5a/relu_pool_proj <- inception_5a/pool_proj
I0403 21:55:09.545955 24692 net.cpp:386] inception_5a/relu_pool_proj -> inception_5a/pool_proj (in-place)
I0403 21:55:09.546250 24692 net.cpp:141] Setting up inception_5a/relu_pool_proj
I0403 21:55:09.546277 24692 net.cpp:148] Top shape: 24 128 7 7 (150528)
I0403 21:55:09.546293 24692 net.cpp:156] Memory required for data: 1305673248
I0403 21:55:09.546308 24692 layer_factory.hpp:77] Creating layer inception_5a/output
I0403 21:55:09.546327 24692 net.cpp:91] Creating Layer inception_5a/output
I0403 21:55:09.546344 24692 net.cpp:425] inception_5a/output <- inception_5a/1x1
I0403 21:55:09.546361 24692 net.cpp:425] inception_5a/output <- inception_5a/3x3
I0403 21:55:09.546378 24692 net.cpp:425] inception_5a/output <- inception_5a/5x5
I0403 21:55:09.546394 24692 net.cpp:425] inception_5a/output <- inception_5a/pool_proj
I0403 21:55:09.546411 24692 net.cpp:399] inception_5a/output -> inception_5a/output
I0403 21:55:09.546463 24692 net.cpp:141] Setting up inception_5a/output
I0403 21:55:09.546485 24692 net.cpp:148] Top shape: 24 832 7 7 (978432)
I0403 21:55:09.546500 24692 net.cpp:156] Memory required for data: 1309586976
I0403 21:55:09.546516 24692 layer_factory.hpp:77] Creating layer inception_5a/output_inception_5a/output_0_split
I0403 21:55:09.546533 24692 net.cpp:91] Creating Layer inception_5a/output_inception_5a/output_0_split
I0403 21:55:09.546550 24692 net.cpp:425] inception_5a/output_inception_5a/output_0_split <- inception_5a/output
I0403 21:55:09.546571 24692 net.cpp:399] inception_5a/output_inception_5a/output_0_split -> inception_5a/output_inception_5a/output_0_split_0
I0403 21:55:09.546591 24692 net.cpp:399] inception_5a/output_inception_5a/output_0_split -> inception_5a/output_inception_5a/output_0_split_1
I0403 21:55:09.546613 24692 net.cpp:399] inception_5a/output_inception_5a/output_0_split -> inception_5a/output_inception_5a/output_0_split_2
I0403 21:55:09.546634 24692 net.cpp:399] inception_5a/output_inception_5a/output_0_split -> inception_5a/output_inception_5a/output_0_split_3
I0403 21:55:09.546746 24692 net.cpp:141] Setting up inception_5a/output_inception_5a/output_0_split
I0403 21:55:09.546772 24692 net.cpp:148] Top shape: 24 832 7 7 (978432)
I0403 21:55:09.546789 24692 net.cpp:148] Top shape: 24 832 7 7 (978432)
I0403 21:55:09.546805 24692 net.cpp:148] Top shape: 24 832 7 7 (978432)
I0403 21:55:09.546820 24692 net.cpp:148] Top shape: 24 832 7 7 (978432)
I0403 21:55:09.546833 24692 net.cpp:156] Memory required for data: 1325241888
I0403 21:55:09.546849 24692 layer_factory.hpp:77] Creating layer inception_5b/1x1
I0403 21:55:09.546870 24692 net.cpp:91] Creating Layer inception_5b/1x1
I0403 21:55:09.546887 24692 net.cpp:425] inception_5b/1x1 <- inception_5a/output_inception_5a/output_0_split_0
I0403 21:55:09.546910 24692 net.cpp:399] inception_5b/1x1 -> inception_5b/1x1
I0403 21:55:09.550779 24692 net.cpp:141] Setting up inception_5b/1x1
I0403 21:55:09.550812 24692 net.cpp:148] Top shape: 24 384 7 7 (451584)
I0403 21:55:09.550828 24692 net.cpp:156] Memory required for data: 1327048224
I0403 21:55:09.550848 24692 layer_factory.hpp:77] Creating layer inception_5b/relu_1x1
I0403 21:55:09.550869 24692 net.cpp:91] Creating Layer inception_5b/relu_1x1
I0403 21:55:09.550887 24692 net.cpp:425] inception_5b/relu_1x1 <- inception_5b/1x1
I0403 21:55:09.550905 24692 net.cpp:386] inception_5b/relu_1x1 -> inception_5b/1x1 (in-place)
I0403 21:55:09.551234 24692 net.cpp:141] Setting up inception_5b/relu_1x1
I0403 21:55:09.551261 24692 net.cpp:148] Top shape: 24 384 7 7 (451584)
I0403 21:55:09.551277 24692 net.cpp:156] Memory required for data: 1328854560
I0403 21:55:09.551293 24692 layer_factory.hpp:77] Creating layer inception_5b/3x3_reduce
I0403 21:55:09.551316 24692 net.cpp:91] Creating Layer inception_5b/3x3_reduce
I0403 21:55:09.551336 24692 net.cpp:425] inception_5b/3x3_reduce <- inception_5a/output_inception_5a/output_0_split_1
I0403 21:55:09.551358 24692 net.cpp:399] inception_5b/3x3_reduce -> inception_5b/3x3_reduce
I0403 21:55:09.554069 24692 net.cpp:141] Setting up inception_5b/3x3_reduce
I0403 21:55:09.554100 24692 net.cpp:148] Top shape: 24 192 7 7 (225792)
I0403 21:55:09.554116 24692 net.cpp:156] Memory required for data: 1329757728
I0403 21:55:09.554136 24692 layer_factory.hpp:77] Creating layer inception_5b/relu_3x3_reduce
I0403 21:55:09.554155 24692 net.cpp:91] Creating Layer inception_5b/relu_3x3_reduce
I0403 21:55:09.554173 24692 net.cpp:425] inception_5b/relu_3x3_reduce <- inception_5b/3x3_reduce
I0403 21:55:09.554191 24692 net.cpp:386] inception_5b/relu_3x3_reduce -> inception_5b/3x3_reduce (in-place)
I0403 21:55:09.554390 24692 net.cpp:141] Setting up inception_5b/relu_3x3_reduce
I0403 21:55:09.554419 24692 net.cpp:148] Top shape: 24 192 7 7 (225792)
I0403 21:55:09.554435 24692 net.cpp:156] Memory required for data: 1330660896
I0403 21:55:09.554451 24692 layer_factory.hpp:77] Creating layer inception_5b/3x3
I0403 21:55:09.554474 24692 net.cpp:91] Creating Layer inception_5b/3x3
I0403 21:55:09.554493 24692 net.cpp:425] inception_5b/3x3 <- inception_5b/3x3_reduce
I0403 21:55:09.554515 24692 net.cpp:399] inception_5b/3x3 -> inception_5b/3x3
I0403 21:55:09.561357 24692 net.cpp:141] Setting up inception_5b/3x3
I0403 21:55:09.561385 24692 net.cpp:148] Top shape: 24 384 7 7 (451584)
I0403 21:55:09.561403 24692 net.cpp:156] Memory required for data: 1332467232
I0403 21:55:09.561420 24692 layer_factory.hpp:77] Creating layer inception_5b/relu_3x3
I0403 21:55:09.561441 24692 net.cpp:91] Creating Layer inception_5b/relu_3x3
I0403 21:55:09.561460 24692 net.cpp:425] inception_5b/relu_3x3 <- inception_5b/3x3
I0403 21:55:09.561478 24692 net.cpp:386] inception_5b/relu_3x3 -> inception_5b/3x3 (in-place)
I0403 21:55:09.561784 24692 net.cpp:141] Setting up inception_5b/relu_3x3
I0403 21:55:09.561811 24692 net.cpp:148] Top shape: 24 384 7 7 (451584)
I0403 21:55:09.561826 24692 net.cpp:156] Memory required for data: 1334273568
I0403 21:55:09.561842 24692 layer_factory.hpp:77] Creating layer inception_5b/5x5_reduce
I0403 21:55:09.561884 24692 net.cpp:91] Creating Layer inception_5b/5x5_reduce
I0403 21:55:09.561904 24692 net.cpp:425] inception_5b/5x5_reduce <- inception_5a/output_inception_5a/output_0_split_2
I0403 21:55:09.561925 24692 net.cpp:399] inception_5b/5x5_reduce -> inception_5b/5x5_reduce
I0403 21:55:09.563235 24692 net.cpp:141] Setting up inception_5b/5x5_reduce
I0403 21:55:09.563266 24692 net.cpp:148] Top shape: 24 48 7 7 (56448)
I0403 21:55:09.563284 24692 net.cpp:156] Memory required for data: 1334499360
I0403 21:55:09.563304 24692 layer_factory.hpp:77] Creating layer inception_5b/relu_5x5_reduce
I0403 21:55:09.563324 24692 net.cpp:91] Creating Layer inception_5b/relu_5x5_reduce
I0403 21:55:09.563343 24692 net.cpp:425] inception_5b/relu_5x5_reduce <- inception_5b/5x5_reduce
I0403 21:55:09.563360 24692 net.cpp:386] inception_5b/relu_5x5_reduce -> inception_5b/5x5_reduce (in-place)
I0403 21:55:09.563750 24692 net.cpp:141] Setting up inception_5b/relu_5x5_reduce
I0403 21:55:09.563789 24692 net.cpp:148] Top shape: 24 48 7 7 (56448)
I0403 21:55:09.563804 24692 net.cpp:156] Memory required for data: 1334725152
I0403 21:55:09.563820 24692 layer_factory.hpp:77] Creating layer inception_5b/5x5
I0403 21:55:09.563843 24692 net.cpp:91] Creating Layer inception_5b/5x5
I0403 21:55:09.563859 24692 net.cpp:425] inception_5b/5x5 <- inception_5b/5x5_reduce
I0403 21:55:09.563879 24692 net.cpp:399] inception_5b/5x5 -> inception_5b/5x5
I0403 21:55:09.565933 24692 net.cpp:141] Setting up inception_5b/5x5
I0403 21:55:09.565965 24692 net.cpp:148] Top shape: 24 128 7 7 (150528)
I0403 21:55:09.565981 24692 net.cpp:156] Memory required for data: 1335327264
I0403 21:55:09.566000 24692 layer_factory.hpp:77] Creating layer inception_5b/relu_5x5
I0403 21:55:09.566018 24692 net.cpp:91] Creating Layer inception_5b/relu_5x5
I0403 21:55:09.566035 24692 net.cpp:425] inception_5b/relu_5x5 <- inception_5b/5x5
I0403 21:55:09.566054 24692 net.cpp:386] inception_5b/relu_5x5 -> inception_5b/5x5 (in-place)
I0403 21:55:09.566251 24692 net.cpp:141] Setting up inception_5b/relu_5x5
I0403 21:55:09.566277 24692 net.cpp:148] Top shape: 24 128 7 7 (150528)
I0403 21:55:09.566292 24692 net.cpp:156] Memory required for data: 1335929376
I0403 21:55:09.566306 24692 layer_factory.hpp:77] Creating layer inception_5b/pool
I0403 21:55:09.566324 24692 net.cpp:91] Creating Layer inception_5b/pool
I0403 21:55:09.566340 24692 net.cpp:425] inception_5b/pool <- inception_5a/output_inception_5a/output_0_split_3
I0403 21:55:09.566360 24692 net.cpp:399] inception_5b/pool -> inception_5b/pool
I0403 21:55:09.566432 24692 net.cpp:141] Setting up inception_5b/pool
I0403 21:55:09.566457 24692 net.cpp:148] Top shape: 24 832 7 7 (978432)
I0403 21:55:09.566471 24692 net.cpp:156] Memory required for data: 1339843104
I0403 21:55:09.566488 24692 layer_factory.hpp:77] Creating layer inception_5b/pool_proj
I0403 21:55:09.566510 24692 net.cpp:91] Creating Layer inception_5b/pool_proj
I0403 21:55:09.566529 24692 net.cpp:425] inception_5b/pool_proj <- inception_5b/pool
I0403 21:55:09.566547 24692 net.cpp:399] inception_5b/pool_proj -> inception_5b/pool_proj
I0403 21:55:09.568864 24692 net.cpp:141] Setting up inception_5b/pool_proj
I0403 21:55:09.568897 24692 net.cpp:148] Top shape: 24 128 7 7 (150528)
I0403 21:55:09.568914 24692 net.cpp:156] Memory required for data: 1340445216
I0403 21:55:09.568933 24692 layer_factory.hpp:77] Creating layer inception_5b/relu_pool_proj
I0403 21:55:09.568953 24692 net.cpp:91] Creating Layer inception_5b/relu_pool_proj
I0403 21:55:09.568969 24692 net.cpp:425] inception_5b/relu_pool_proj <- inception_5b/pool_proj
I0403 21:55:09.568986 24692 net.cpp:386] inception_5b/relu_pool_proj -> inception_5b/pool_proj (in-place)
I0403 21:55:09.569284 24692 net.cpp:141] Setting up inception_5b/relu_pool_proj
I0403 21:55:09.569314 24692 net.cpp:148] Top shape: 24 128 7 7 (150528)
I0403 21:55:09.569330 24692 net.cpp:156] Memory required for data: 1341047328
I0403 21:55:09.569346 24692 layer_factory.hpp:77] Creating layer inception_5b/output
I0403 21:55:09.569365 24692 net.cpp:91] Creating Layer inception_5b/output
I0403 21:55:09.569396 24692 net.cpp:425] inception_5b/output <- inception_5b/1x1
I0403 21:55:09.569413 24692 net.cpp:425] inception_5b/output <- inception_5b/3x3
I0403 21:55:09.569430 24692 net.cpp:425] inception_5b/output <- inception_5b/5x5
I0403 21:55:09.569447 24692 net.cpp:425] inception_5b/output <- inception_5b/pool_proj
I0403 21:55:09.569463 24692 net.cpp:399] inception_5b/output -> inception_5b/output
I0403 21:55:09.569515 24692 net.cpp:141] Setting up inception_5b/output
I0403 21:55:09.569540 24692 net.cpp:148] Top shape: 24 1024 7 7 (1204224)
I0403 21:55:09.569553 24692 net.cpp:156] Memory required for data: 1345864224
I0403 21:55:09.569569 24692 layer_factory.hpp:77] Creating layer pool5/7x7_s1
I0403 21:55:09.569588 24692 net.cpp:91] Creating Layer pool5/7x7_s1
I0403 21:55:09.569604 24692 net.cpp:425] pool5/7x7_s1 <- inception_5b/output
I0403 21:55:09.569623 24692 net.cpp:399] pool5/7x7_s1 -> pool5/7x7_s1
I0403 21:55:09.569835 24692 net.cpp:141] Setting up pool5/7x7_s1
I0403 21:55:09.569864 24692 net.cpp:148] Top shape: 24 1024 1 1 (24576)
I0403 21:55:09.569880 24692 net.cpp:156] Memory required for data: 1345962528
I0403 21:55:09.569895 24692 layer_factory.hpp:77] Creating layer pool5/drop_7x7_s1
I0403 21:55:09.569912 24692 net.cpp:91] Creating Layer pool5/drop_7x7_s1
I0403 21:55:09.569927 24692 net.cpp:425] pool5/drop_7x7_s1 <- pool5/7x7_s1
I0403 21:55:09.569944 24692 net.cpp:386] pool5/drop_7x7_s1 -> pool5/7x7_s1 (in-place)
I0403 21:55:09.569995 24692 net.cpp:141] Setting up pool5/drop_7x7_s1
I0403 21:55:09.570019 24692 net.cpp:148] Top shape: 24 1024 1 1 (24576)
I0403 21:55:09.570034 24692 net.cpp:156] Memory required for data: 1346060832
I0403 21:55:09.570049 24692 layer_factory.hpp:77] Creating layer loss3/classifier_plantvillage
I0403 21:55:09.570070 24692 net.cpp:91] Creating Layer loss3/classifier_plantvillage
I0403 21:55:09.570086 24692 net.cpp:425] loss3/classifier_plantvillage <- pool5/7x7_s1
I0403 21:55:09.570104 24692 net.cpp:399] loss3/classifier_plantvillage -> loss3/classifier_plantvillage
I0403 21:55:09.570526 24692 net.cpp:141] Setting up loss3/classifier_plantvillage
I0403 21:55:09.570552 24692 net.cpp:148] Top shape: 24 38 (912)
I0403 21:55:09.570567 24692 net.cpp:156] Memory required for data: 1346064480
I0403 21:55:09.570585 24692 layer_factory.hpp:77] Creating layer loss3/classifier_plantvillage_loss3/classifier_plantvillage_0_split
I0403 21:55:09.570603 24692 net.cpp:91] Creating Layer loss3/classifier_plantvillage_loss3/classifier_plantvillage_0_split
I0403 21:55:09.570619 24692 net.cpp:425] loss3/classifier_plantvillage_loss3/classifier_plantvillage_0_split <- loss3/classifier_plantvillage
I0403 21:55:09.570641 24692 net.cpp:399] loss3/classifier_plantvillage_loss3/classifier_plantvillage_0_split -> loss3/classifier_plantvillage_loss3/classifier_plantvillage_0_split_0
I0403 21:55:09.570664 24692 net.cpp:399] loss3/classifier_plantvillage_loss3/classifier_plantvillage_0_split -> loss3/classifier_plantvillage_loss3/classifier_plantvillage_0_split_1
I0403 21:55:09.570684 24692 net.cpp:399] loss3/classifier_plantvillage_loss3/classifier_plantvillage_0_split -> loss3/classifier_plantvillage_loss3/classifier_plantvillage_0_split_2
I0403 21:55:09.570706 24692 net.cpp:399] loss3/classifier_plantvillage_loss3/classifier_plantvillage_0_split -> loss3/classifier_plantvillage_loss3/classifier_plantvillage_0_split_3
I0403 21:55:09.570808 24692 net.cpp:141] Setting up loss3/classifier_plantvillage_loss3/classifier_plantvillage_0_split
I0403 21:55:09.570832 24692 net.cpp:148] Top shape: 24 38 (912)
I0403 21:55:09.570848 24692 net.cpp:148] Top shape: 24 38 (912)
I0403 21:55:09.570863 24692 net.cpp:148] Top shape: 24 38 (912)
I0403 21:55:09.570879 24692 net.cpp:148] Top shape: 24 38 (912)
I0403 21:55:09.570894 24692 net.cpp:156] Memory required for data: 1346079072
I0403 21:55:09.570909 24692 layer_factory.hpp:77] Creating layer loss1/loss
I0403 21:55:09.570930 24692 net.cpp:91] Creating Layer loss1/loss
I0403 21:55:09.570948 24692 net.cpp:425] loss1/loss <- loss1/classifier_plantvillage_loss1/classifier_plantvillage_0_split_0
I0403 21:55:09.570979 24692 net.cpp:425] loss1/loss <- label_data_1_split_0
…
