…
I0403 21:36:35.135273 23598 net.cpp:313] The NetState phase (1) differed from the phase (0) specified by a rule in layer data
I0403 21:36:35.136399 23598 net.cpp:49] Initializing net from parameters: 
state {
  phase: TEST
}
layer {
  name: "data"
  type: "Data"
  top: "data"
  top: "label"
  include {
    phase: TEST
  }
  transform_param {
    mirror: false
    crop_size: 224
    mean_file: "/home/mohanty/data/final_dataset/lmdb/segmented-80-20/mean.binaryproto"
  }
  data_param {
    source: "/home/mohanty/data/final_dataset/lmdb/segmented-80-20/test_db"
    batch_size: 24
    backend: LMDB
  }
}
layer {
  name: "conv1/7x7_s2"
  type: "Convolution"
  bottom: "data"
  top: "conv1/7x7_s2"
  param {
    lr_mult: 1
    decay_mult: 1
  }
  param {
    lr_mult: 2
    decay_mult: 0
  }
  convolution_param {
    num_output: 64
    pad: 3
    kernel_size: 7
    stride: 2
    weight_filler {
      type: "xavier"
      std: 0.1
    }
    bias_filler {
      type: "constant"
      value: 0.2
    }
  }
}
layer {
  name: "conv1/relu_7x7"
  type: "ReLU"
  bottom: "conv1/7x7_s2"
  top: "conv1/7x7_s2"
}
layer {
  name: "pool1/3x3_s2"
  type: "Pooling"
  bottom: "conv1/7x7_s2"
  top: "pool1/3x3_s2"
  pooling_param {
    pool: MAX
    kernel_size: 3
    stride: 2
  }
}
layer {
  name: "pool1/norm1"
  type: "LRN"
  bottom: "pool1/3x3_s2"
  top: "pool1/norm1"
  lrn_param {
    local_size: 5
    alpha: 0.0001
    beta: 0.75
  }
}
layer {
  name: "conv2/3x3_reduce"
  type: "Convolution"
  bottom: "pool1/norm1"
  top: "conv2/3x3_reduce"
  param {
    lr_mult: 1
    decay_mult: 1
  }
  param {
    lr_mult: 2
    decay_mult: 0
  }
  convolution_param {
    num_output: 64
    kernel_size: 1
    weight_filler {
      type: "xavier"
      std: 0.1
    }
    bias_filler {
      type: "constant"
      value: 0.2
    }
  }
}
layer {
  name: "conv2/relu_3x3_reduce"
  type: "ReLU"
  bottom: "conv2/3x3_reduce"
  top: "conv2/3x3_reduce"
}
layer {
  name: "conv2/3x3"
  type: "Convolution"
  bottom: "conv2/3x3_reduce"
  top: "conv2/3x3"
  param {
    lr_mult: 1
    decay_mult: 1
  }
  param {
    lr_mult: 2
    decay_mult: 0
  }
  convolution_param {
    num_output: 192
    pad: 1
    kernel_size: 3
    weight_filler {
      type: "xavier"
      std: 0.03
    }
    bias_filler {
      type: "constant"
      value: 0.2
    }
  }
}
layer {
  name: "conv2/relu_3x3"
  type: "ReLU"
  bottom: "conv2/3x3"
  top: "conv2/3x3"
}
layer {
  name: "conv2/norm2"
  type: "LRN"
  bottom: "conv2/3x3"
  top: "conv2/norm2"
  lrn_param {
    local_size: 5
    alpha: 0.0001
    beta: 0.75
  }
}
layer {
  name: "pool2/3x3_s2"
  type: "Pooling"
  bottom: "conv2/norm2"
  top: "pool2/3x3_s2"
  pooling_param {
    pool: MAX
    kernel_size: 3
    stride: 2
  }
}
layer {
  name: "inception_3a/1x1"
  type: "Convolution"
  bottom: "pool2/3x3_s2"
  top: "inception_3a/1x1"
  param {
    lr_mult: 1
    decay_mult: 1
  }
  param {
    lr_mult: 2
    decay_mult: 0
  }
  convolution_param {
    num_output: 64
    kernel_size: 1
    weight_filler {
      type: "xavier"
      std: 0.03
    }
    bias_filler {
      type: "constant"
      value: 0.2
    }
  }
}
layer {
  name: "inception_3a/relu_1x1"
  type: "ReLU"
  bottom: "inception_3a/1x1"
  top: "inception_3a/1x1"
}
layer {
  name: "inception_3a/3x3_reduce"
  type: "Convolution"
  bottom: "pool2/3x3_s2"
  top: "inception_3a/3x3_reduce"
  param {
    lr_mult: 1
    decay_mult: 1
  }
  param {
    lr_mult: 2
    decay_mult: 0
  }
  convolution_param {
    num_output: 96
    kernel_size: 1
    weight_filler {
      type: "xavier"
      std: 0.09
    }
    bias_filler {
      type: "constant"
      value: 0.2
    }
  }
}
layer {
  name: "inception_3a/relu_3x3_reduce"
  type: "ReLU"
  bottom: "inception_3a/3x3_reduce"
  top: "inception_3a/3x3_reduce"
}
layer {
  name: "inception_3a/3x3"
  type: "Convolution"
  bottom: "inception_3a/3x3_reduce"
  top: "inception_3a/3x3"
  param {
    lr_mult: 1
    decay_mult: 1
  }
  param {
    lr_mult: 2
    decay_mult: 0
  }
  convolution_param {
    num_output: 128
    pad: 1
    kernel_size: 3
    weight_filler {
      type: "xavier"
      std: 0.03
    }
    bias_filler {
      type: "constant"
      value: 0.2
    }
  }
}
layer {
  name: "inception_3a/relu_3x3"
  type: "ReLU"
  bottom: "inception_3a/3x3"
  top: "inception_3a/3x3"
}
layer {
  name: "inception_3a/5x5_reduce"
  type: "Convolution"
  bottom: "pool2/3x3_s2"
  top: "inception_3a/5x5_reduce"
  param {
    lr_mult: 1
    decay_mult: 1
  }
  param {
    lr_mult: 2
    decay_mult: 0
  }
  convolution_param {
    num_output: 16
    kernel_size: 1
    weight_filler {
      type: "xavier"
      std: 0.2
    }
    bias_filler {
      type: "constant"
      value: 0.2
    }
  }
}
layer {
  name: "inception_3a/relu_5x5_reduce"
  type: "ReLU"
  bottom: "inception_3a/5x5_reduce"
  top: "inception_3a/5x5_reduce"
}
layer {
  name: "inception_3a/5x5"
  type: "Convolution"
  bottom: "inception_3a/5x5_reduce"
  top: "inception_3a/5x5"
  param {
    lr_mult: 1
    decay_mult: 1
  }
  param {
    lr_mult: 2
    decay_mult: 0
  }
  convolution_param {
    num_output: 32
    pad: 2
    kernel_size: 5
    weight_filler {
      type: "xavier"
      std: 0.03
    }
    bias_filler {
      type: "constant"
      value: 0.2
    }
  }
}
layer {
  name: "inception_3a/relu_5x5"
  type: "ReLU"
  bottom: "inception_3a/5x5"
  top: "inception_3a/5x5"
}
layer {
  name: "inception_3a/pool"
  type: "Pooling"
  bottom: "pool2/3x3_s2"
  top: "inception_3a/pool"
  pooling_param {
    pool: MAX
    kernel_size: 3
    stride: 1
    pad: 1
  }
}
layer {
  name: "inception_3a/pool_proj"
  type: "Convolution"
  bottom: "inception_3a/pool"
  top: "inception_3a/pool_proj"
  param {
    lr_mult: 1
    decay_mult: 1
  }
  param {
    lr_mult: 2
    decay_mult: 0
  }
  convolution_param {
    num_output: 32
    kernel_size: 1
    weight_filler {
      type: "xavier"
      std: 0.1
    }
    bias_filler {
      type: "constant"
      value: 0.2
    }
  }
}
layer {
  name: "inception_3a/relu_pool_proj"
  type: "ReLU"
  bottom: "inception_3a/pool_proj"
  top: "inception_3a/pool_proj"
}
layer {
  name: "inception_3a/output"
  type: "Concat"
  bottom: "inception_3a/1x1"
  bottom: "inception_3a/3x3"
  bottom: "inception_3a/5x5"
  bottom: "inception_3a/pool_proj"
  top: "inception_3a/output"
}
layer {
  name: "inception_3b/1x1"
  type: "Convolution"
  bottom: "inception_3a/output"
  top: "inception_3b/1x1"
  param {
    lr_mult: 1
    decay_mult: 1
  }
  param {
    lr_mult: 2
    decay_mult: 0
  }
  convolution_param {
    num_output: 128
    kernel_size: 1
    weight_filler {
      type: "xavier"
      std: 0.03
    }
    bias_filler {
      type: "constant"
      value: 0.2
    }
  }
}
layer {
  name: "inception_3b/relu_1x1"
  type: "ReLU"
  bottom: "inception_3b/1x1"
  top: "inception_3b/1x1"
}
layer {
  name: "inception_3b/3x3_reduce"
  type: "Convolution"
  bottom: "inception_3a/output"
  top: "inception_3b/3x3_reduce"
  param {
    lr_mult: 1
    decay_mult: 1
  }
  param {
    lr_mult: 2
    decay_mult: 0
  }
  convolution_param {
    num_output: 128
    kernel_size: 1
    weight_filler {
      type: "xavier"
      std: 0.09
    }
    bias_filler {
      type: "constant"
      value: 0.2
    }
  }
}
layer {
  name: "inception_3b/relu_3x3_reduce"
  type: "ReLU"
  bottom: "inception_3b/3x3_reduce"
  top: "inception_3b/3x3_reduce"
}
layer {
  name: "inception_3b/3x3"
  type: "Convolution"
  bottom: "inception_3b/3x3_reduce"
  top: "inception_3b/3x3"
  param {
    lr_mult: 1
    decay_mult: 1
  }
  param {
    lr_mult: 2
    decay_mult: 0
  }
  convolution_param {
    num_output: 192
    pad: 1
    kernel_size: 3
    weight_filler {
      type: "xavier"
      std: 0.03
    }
    bias_filler {
      type: "constant"
      value: 0.2
    }
  }
}
layer {
  name: "inception_3b/relu_3x3"
  type: "ReLU"
  bottom: "inception_3b/3x3"
  top: "inception_3b/3x3"
}
layer {
  name: "inception_3b/5x5_reduce"
  type: "Convolution"
  bottom: "inception_3a/output"
  top: "inception_3b/5x5_reduce"
  param {
    lr_mult: 1
    decay_mult: 1
  }
  param {
    lr_mult: 2
    decay_mult: 0
  }
  convolution_param {
    num_output: 32
    kernel_size: 1
    weight_filler {
      type: "xavier"
      std: 0.2
    }
    bias_filler {
      type: "constant"
      value: 0.2
    }
  }
}
layer {
  name: "inception_3b/relu_5x5_reduce"
  type: "ReLU"
  bottom: "inception_3b/5x5_reduce"
  top: "inception_3b/5x5_reduce"
}
layer {
  name: "inception_3b/5x5"
  type: "Convolution"
  bottom: "inception_3b/5x5_reduce"
  top: "inception_3b/5x5"
  param {
    lr_mult: 1
    decay_mult: 1
  }
  param {
    lr_mult: 2
    decay_mult: 0
  }
  convolution_param {
    num_output: 96
    pad: 2
    kernel_size: 5
    weight_filler {
      type: "xavier"
      std: 0.03
    }
    bias_filler {
      type: "constant"
      value: 0.2
    }
  }
}
layer {
  name: "inception_3b/relu_5x5"
  type: "ReLU"
  bottom: "inception_3b/5x5"
  top: "inception_3b/5x5"
}
layer {
  name: "inception_3b/pool"
  type: "Pooling"
  bottom: "inception_3a/output"
  top: "inception_3b/pool"
  pooling_param {
    pool: MAX
    kernel_size: 3
    stride: 1
    pad: 1
  }
}
layer {
  name: "inception_3b/pool_proj"
  type: "Convolution"
  bottom: "inception_3b/pool"
  top: "inception_3b/pool_proj"
  param {
    lr_mult: 1
    decay_mult: 1
  }
  param {
    lr_mult: 2
    decay_mult: 0
  }
  convolution_param {
    num_output: 64
    kernel_size: 1
    weight_filler {
      type: "xavier"
      std: 0.1
    }
    bias_filler {
      type: "constant"
      value: 0.2
    }
  }
}
layer {
  name: "inception_3b/relu_pool_proj"
  type: "ReLU"
  bottom: "inception_3b/pool_proj"
  top: "inception_3b/pool_proj"
}
layer {
  name: "inception_3b/output"
  type: "Concat"
  bottom: "inception_3b/1x1"
  bottom: "inception_3b/3x3"
  bottom: "inception_3b/5x5"
  bottom: "inception_3b/pool_proj"
  top: "inception_3b/output"
}
layer {
  name: "pool3/3x3_s2"
  type: "Pooling"
  bottom: "inception_3b/output"
  top: "pool3/3x3_s2"
  pooling_param {
    pool: MAX
    kernel_size: 3
    stride: 2
  }
}
layer {
  name: "inception_4a/1x1"
  type: "Convolution"
  bottom: "pool3/3x3_s2"
  top: "inception_4a/1x1"
  param {
    lr_mult: 1
    decay_mult: 1
  }
  param {
    lr_mult: 2
    decay_mult: 0
  }
  convolution_param {
    num_output: 192
    kernel_size: 1
    weight_filler {
      type: "xavier"
      std: 0.03
    }
    bias_filler {
      type: "constant"
      value: 0.2
    }
  }
}
layer {
  name: "inception_4a/relu_1x1"
  type: "ReLU"
  bottom: "inception_4a/1x1"
  top: "inception_4a/1x1"
}
layer {
  name: "inception_4a/3x3_reduce"
  type: "Convolution"
  bottom: "pool3/3x3_s2"
  top: "inception_4a/3x3_reduce"
  param {
    lr_mult: 1
    decay_mult: 1
  }
  param {
    lr_mult: 2
    decay_mult: 0
  }
  convolution_param {
    num_output: 96
    kernel_size: 1
    weight_filler {
      type: "xavier"
      std: 0.09
    }
    bias_filler {
      type: "constant"
      value: 0.2
    }
  }
}
layer {
  name: "inception_4a/relu_3x3_reduce"
  type: "ReLU"
  bottom: "inception_4a/3x3_reduce"
  top: "inception_4a/3x3_reduce"
}
layer {
  name: "inception_4a/3x3"
  type: "Convolution"
  bottom: "inception_4a/3x3_reduce"
  top: "inception_4a/3x3"
  param {
    lr_mult: 1
    decay_mult: 1
  }
  param {
    lr_mult: 2
    decay_mult: 0
  }
  convolution_param {
    num_output: 208
    pad: 1
    kernel_size: 3
    weight_filler {
      type: "xavier"
      std: 0.03
    }
    bias_filler {
      type: "constant"
      value: 0.2
    }
  }
}
layer {
  name: "inception_4a/relu_3x3"
  type: "ReLU"
  bottom: "inception_4a/3x3"
  top: "inception_4a/3x3"
}
layer {
  name: "inception_4a/5x5_reduce"
  type: "Convolution"
  bottom: "pool3/3x3_s2"
  top: "inception_4a/5x5_reduce"
  param {
    lr_mult: 1
    decay_mult: 1
  }
  param {
    lr_mult: 2
    decay_mult: 0
  }
  convolution_param {
    num_output: 16
    kernel_size: 1
    weight_filler {
      type: "xavier"
      std: 0.2
    }
    bias_filler {
      type: "constant"
      value: 0.2
    }
  }
}
layer {
  name: "inception_4a/relu_5x5_reduce"
  type: "ReLU"
  bottom: "inception_4a/5x5_reduce"
  top: "inception_4a/5x5_reduce"
}
layer {
  name: "inception_4a/5x5"
  type: "Convolution"
  bottom: "inception_4a/5x5_reduce"
  top: "inception_4a/5x5"
  param {
    lr_mult: 1
    decay_mult: 1
  }
  param {
    lr_mult: 2
    decay_mult: 0
  }
  convolution_param {
    num_output: 48
    pad: 2
    kernel_size: 5
    weight_filler {
      type: "xavier"
      std: 0.03
    }
    bias_filler {
      type: "constant"
      value: 0.2
    }
  }
}
layer {
  name: "inception_4a/relu_5x5"
  type: "ReLU"
  bottom: "inception_4a/5x5"
  top: "inception_4a/5x5"
}
layer {
  name: "inception_4a/pool"
  type: "Pooling"
  bottom: "pool3/3x3_s2"
  top: "inception_4a/pool"
  pooling_param {
    pool: MAX
    kernel_size: 3
    stride: 1
    pad: 1
  }
}
layer {
  name: "inception_4a/pool_proj"
  type: "Convolution"
  bottom: "inception_4a/pool"
  top: "inception_4a/pool_proj"
  param {
    lr_mult: 1
    decay_mult: 1
  }
  param {
    lr_mult: 2
    decay_mult: 0
  }
  convolution_param {
    num_output: 64
    kernel_size: 1
    weight_filler {
      type: "xavier"
      std: 0.1
    }
    bias_filler {
      type: "constant"
      value: 0.2
    }
  }
}
layer {
  name: "inception_4a/relu_pool_proj"
  type: "ReLU"
  bottom: "inception_4a/pool_proj"
  top: "inception_4a/pool_proj"
}
layer {
  name: "inception_4a/output"
  type: "Concat"
  bottom: "inception_4a/1x1"
  bottom: "inception_4a/3x3"
  bottom: "inception_4a/5x5"
  bottom: "inception_4a/pool_proj"
  top: "inception_4a/output"
}
layer {
  name: "loss1/ave_pool"
  type: "Pooling"
  bottom: "inception_4a/output"
  top: "loss1/ave_pool"
  pooling_param {
    pool: AVE
    kernel_size: 5
    stride: 3
  }
}
layer {
  name: "loss1/conv"
  type: "Convolution"
  bottom: "loss1/ave_pool"
  top: "loss1/conv"
  param {
    lr_mult: 1
    decay_mult: 1
  }
  param {
    lr_mult: 2
    decay_mult: 0
  }
  convolution_param {
    num_output: 128
    kernel_size: 1
    weight_filler {
      type: "xavier"
      std: 0.08
    }
    bias_filler {
      type: "constant"
      value: 0.2
    }
  }
}
layer {
  name: "loss1/relu_conv"
  type: "ReLU"
  bottom: "loss1/conv"
  top: "loss1/conv"
}
layer {
  name: "loss1/fc"
  type: "InnerProduct"
  bottom: "loss1/conv"
  top: "loss1/fc"
  param {
    lr_mult: 1
    decay_mult: 1
  }
  param {
    lr_mult: 2
    decay_mult: 0
  }
  inner_product_param {
    num_output: 1024
    weight_filler {
      type: "xavier"
      std: 0.02
    }
    bias_filler {
      type: "constant"
      value: 0.2
    }
  }
}
layer {
  name: "loss1/relu_fc"
  type: "ReLU"
  bottom: "loss1/fc"
  top: "loss1/fc"
}
layer {
  name: "loss1/drop_fc"
  type: "Dropout"
  bottom: "loss1/fc"
  top: "loss1/fc"
  dropout_param {
    dropout_ratio: 0.7
  }
}
layer {
  name: "loss1/classifier_plantvillage"
  type: "InnerProduct"
  bottom: "loss1/fc"
  top: "loss1/classifier_plantvillage"
  param {
    lr_mult: 1
    decay_mult: 1
  }
  param {
    lr_mult: 2
    decay_mult: 0
  }
  inner_product_param {
    num_output: 38
    weight_filler {
      type: "xavier"
      std: 0.0009765625
    }
    bias_filler {
      type: "constant"
      value: 0
    }
  }
}
layer {
  name: "inception_4b/1x1"
  type: "Convolution"
  bottom: "inception_4a/output"
  top: "inception_4b/1x1"
  param {
    lr_mult: 1
    decay_mult: 1
  }
  param {
    lr_mult: 2
    decay_mult: 0
  }
  convolution_param {
    num_output: 160
    kernel_size: 1
    weight_filler {
      type: "xavier"
      std: 0.03
    }
    bias_filler {
      type: "constant"
      value: 0.2
    }
  }
}
layer {
  name: "inception_4b/relu_1x1"
  type: "ReLU"
  bottom: "inception_4b/1x1"
  top: "inception_4b/1x1"
}
layer {
  name: "inception_4b/3x3_reduce"
  type: "Convolution"
  bottom: "inception_4a/output"
  top: "inception_4b/3x3_reduce"
  param {
    lr_mult: 1
    decay_mult: 1
  }
  param {
    lr_mult: 2
    decay_mult: 0
  }
  convolution_param {
    num_output: 112
    kernel_size: 1
    weight_filler {
      type: "xavier"
      std: 0.09
    }
    bias_filler {
      type: "constant"
      value: 0.2
    }
  }
}
layer {
  name: "inception_4b/relu_3x3_reduce"
  type: "ReLU"
  bottom: "inception_4b/3x3_reduce"
  top: "inception_4b/3x3_reduce"
}
layer {
  name: "inception_4b/3x3"
  type: "Convolution"
  bottom: "inception_4b/3x3_reduce"
  top: "inception_4b/3x3"
  param {
    lr_mult: 1
    decay_mult: 1
  }
  param {
    lr_mult: 2
    decay_mult: 0
  }
  convolution_param {
    num_output: 224
    pad: 1
    kernel_size: 3
    weight_filler {
      type: "xavier"
      std: 0.03
    }
    bias_filler {
      type: "constant"
      value: 0.2
    }
  }
}
layer {
  name: "inception_4b/relu_3x3"
  type: "ReLU"
  bottom: "inception_4b/3x3"
  top: "inception_4b/3x3"
}
layer {
  name: "inception_4b/5x5_reduce"
  type: "Convolution"
  bottom: "inception_4a/output"
  top: "inception_4b/5x5_reduce"
  param {
    lr_mult: 1
    decay_mult: 1
  }
  param {
    lr_mult: 2
    decay_mult: 0
  }
  convolution_param {
    num_output: 24
    kernel_size: 1
    weight_filler {
      type: "xavier"
      std: 0.2
    }
    bias_filler {
      type: "constant"
      value: 0.2
    }
  }
}
layer {
  name: "inception_4b/relu_5x5_reduce"
  type: "ReLU"
  bottom: "inception_4b/5x5_reduce"
  top: "inception_4b/5x5_reduce"
}
layer {
  name: "inception_4b/5x5"
  type: "Convolution"
  bottom: "inception_4b/5x5_reduce"
  top: "inception_4b/5x5"
  param {
    lr_mult: 1
    decay_mult: 1
  }
  param {
    lr_mult: 2
    decay_mult: 0
  }
  convolution_param {
    num_output: 64
    pad: 2
    kernel_size: 5
    weight_filler {
      type: "xavier"
      std: 0.03
    }
    bias_filler {
      type: "constant"
      value: 0.2
    }
  }
}
layer {
  name: "inception_4b/relu_5x5"
  type: "ReLU"
  bottom: "inception_4b/5x5"
  top: "inception_4b/5x5"
}
layer {
  name: "inception_4b/pool"
  type: "Pooling"
  bottom: "inception_4a/output"
  top: "inception_4b/pool"
  pooling_param {
    pool: MAX
    kernel_size: 3
    stride: 1
    pad: 1
  }
}
layer {
  name: "inception_4b/pool_proj"
  type: "Convolution"
  bottom: "inception_4b/pool"
  top: "inception_4b/pool_proj"
  param {
    lr_mult: 1
    decay_mult: 1
  }
  param {
    lr_mult: 2
    decay_mult: 0
  }
  convolution_param {
    num_output: 64
    kernel_size: 1
    weight_filler {
      type: "xavier"
      std: 0.1
    }
    bias_filler {
      type: "constant"
      value: 0.2
    }
  }
}
layer {
  name: "inception_4b/relu_pool_proj"
  type: "ReLU"
  bottom: "inception_4b/pool_proj"
  top: "inception_4b/pool_proj"
}
layer {
  name: "inception_4b/output"
  type: "Concat"
  bottom: "inception_4b/1x1"
  bottom: "inception_4b/3x3"
  bottom: "inception_4b/5x5"
  bottom: "inception_4b/pool_proj"
  top: "inception_4b/output"
}
layer {
  name: "inception_4c/1x1"
  type: "Convolution"
  bottom: "inception_4b/output"
  top: "inception_4c/1x1"
  param {
    lr_mult: 1
    decay_mult: 1
  }
  param {
    lr_mult: 2
    decay_mult: 0
  }
  convolution_param {
    num_output: 128
    kernel_size: 1
    weight_filler {
      type: "xavier"
      std: 0.03
    }
    bias_filler {
      type: "constant"
      value: 0.2
    }
  }
}
layer {
  name: "inception_4c/relu_1x1"
  type: "ReLU"
  bottom: "inception_4c/1x1"
  top: "inception_4c/1x1"
}
layer {
  name: "inception_4c/3x3_reduce"
  type: "Convolution"
  bottom: "inception_4b/output"
  top: "inception_4c/3x3_reduce"
  param {
    lr_mult: 1
    decay_mult: 1
  }
  param {
    lr_mult: 2
    decay_mult: 0
  }
  convolution_param {
    num_output: 128
    kernel_size: 1
    weight_filler {
      type: "xavier"
      std: 0.09
    }
    bias_filler {
      type: "constant"
      value: 0.2
    }
  }
}
layer {
  name: "inception_4c/relu_3x3_reduce"
  type: "ReLU"
  bottom: "inception_4c/3x3_reduce"
  top: "inception_4c/3x3_reduce"
}
layer {
  name: "inception_4c/3x3"
  type: "Convolution"
  bottom: "inception_4c/3x3_reduce"
  top: "inception_4c/3x3"
  param {
    lr_mult: 1
    decay_mult: 1
  }
  param {
    lr_mult: 2
    decay_mult: 0
  }
  convolution_param {
    num_output: 256
    pad: 1
    kernel_size: 3
    weight_filler {
      type: "xavier"
      std: 0.03
    }
    bias_filler {
      type: "constant"
      value: 0.2
    }
  }
}
layer {
  name: "inception_4c/relu_3x3"
  type: "ReLU"
  bottom: "inception_4c/3x3"
  top: "inception_4c/3x3"
}
layer {
  name: "inception_4c/5x5_reduce"
  type: "Convolution"
  bottom: "inception_4b/output"
  top: "inception_4c/5x5_reduce"
  param {
    lr_mult: 1
    decay_mult: 1
  }
  param {
    lr_mult: 2
    decay_mult: 0
  }
  convolution_param {
    num_output: 24
    kernel_size: 1
    weight_filler {
      type: "xavier"
      std: 0.2
    }
    bias_filler {
      type: "constant"
      value: 0.2
    }
  }
}
layer {
  name: "inception_4c/relu_5x5_reduce"
  type: "ReLU"
  bottom: "inception_4c/5x5_reduce"
  top: "inception_4c/5x5_reduce"
}
layer {
  name: "inception_4c/5x5"
  type: "Convolution"
  bottom: "inception_4c/5x5_reduce"
  top: "inception_4c/5x5"
  param {
    lr_mult: 1
    decay_mult: 1
  }
  param {
    lr_mult: 2
    decay_mult: 0
  }
  convolution_param {
    num_output: 64
    pad: 2
    kernel_size: 5
    weight_filler {
      type: "xavier"
      std: 0.03
    }
    bias_filler {
      type: "constant"
      value: 0.2
    }
  }
}
layer {
  name: "inception_4c/relu_5x5"
  type: "ReLU"
  bottom: "inception_4c/5x5"
  top: "inception_4c/5x5"
}
layer {
  name: "inception_4c/pool"
  type: "Pooling"
  bottom: "inception_4b/output"
  top: "inception_4c/pool"
  pooling_param {
    pool: MAX
    kernel_size: 3
    stride: 1
    pad: 1
  }
}
layer {
  name: "inception_4c/pool_proj"
  type: "Convolution"
  bottom: "inception_4c/pool"
  top: "inception_4c/pool_proj"
  param {
    lr_mult: 1
    decay_mult: 1
  }
  param {
    lr_mult: 2
    decay_mult: 0
  }
  convolution_param {
    num_output: 64
    kernel_size: 1
    weight_filler {
      type: "xavier"
      std: 0.1
    }
    bias_filler {
      type: "constant"
      value: 0.2
    }
  }
}
layer {
  name: "inception_4c/relu_pool_proj"
  type: "ReLU"
  bottom: "inception_4c/pool_proj"
  top: "inception_4c/pool_proj"
}
layer {
  name: "inception_4c/output"
  type: "Concat"
  bottom: "inception_4c/1x1"
  bottom: "inception_4c/3x3"
  bottom: "inception_4c/5x5"
  bottom: "inception_4c/pool_proj"
  top: "inception_4c/output"
}
layer {
  name: "inception_4d/1x1"
  type: "Convolution"
  bottom: "inception_4c/output"
  top: "inception_4d/1x1"
  param {
    lr_mult: 1
    decay_mult: 1
  }
  param {
    lr_mult: 2
    decay_mult: 0
  }
  convolution_param {
    num_output: 112
    kernel_size: 1
    weight_filler {
      type: "xavier"
      std: 0.03
    }
    bias_filler {
      type: "constant"
      value: 0.2
    }
  }
}
layer {
  name: "inception_4d/relu_1x1"
  type: "ReLU"
  bottom: "inception_4d/1x1"
  top: "inception_4d/1x1"
}
layer {
  name: "inception_4d/3x3_reduce"
  type: "Convolution"
  bottom: "inception_4c/output"
  top: "inception_4d/3x3_reduce"
  param {
    lr_mult: 1
    decay_mult: 1
  }
  param {
    lr_mult: 2
    decay_mult: 0
  }
  convolution_param {
    num_output: 144
    kernel_size: 1
    weight_filler {
      type: "xavier"
      std: 0.09
    }
    bias_filler {
      type: "constant"
      value: 0.2
    }
  }
}
layer {
  name: "inception_4d/relu_3x3_reduce"
  type: "ReLU"
  bottom: "inception_4d/3x3_reduce"
  top: "inception_4d/3x3_reduce"
}
layer {
  name: "inception_4d/3x3"
  type: "Convolution"
  bottom: "inception_4d/3x3_reduce"
  top: "inception_4d/3x3"
  param {
    lr_mult: 1
    decay_mult: 1
  }
  param {
    lr_mult: 2
    decay_mult: 0
  }
  convolution_param {
    num_output: 288
    pad: 1
    kernel_size: 3
    weight_filler {
      type: "xavier"
      std: 0.03
    }
    bias_filler {
      type: "constant"
      value: 0.2
    }
  }
}
layer {
  name: "inception_4d/relu_3x3"
  type: "ReLU"
  bottom: "inception_4d/3x3"
  top: "inception_4d/3x3"
}
layer {
  name: "inception_4d/5x5_reduce"
  type: "Convolution"
  bottom: "inception_4c/output"
  top: "inception_4d/5x5_reduce"
  param {
    lr_mult: 1
    decay_mult: 1
  }
  param {
    lr_mult: 2
    decay_mult: 0
  }
  convolution_param {
    num_output: 32
    kernel_size: 1
    weight_filler {
      type: "xavier"
      std: 0.2
    }
    bias_filler {
      type: "constant"
      value: 0.2
    }
  }
}
layer {
  name: "inception_4d/relu_5x5_reduce"
  type: "ReLU"
  bottom: "inception_4d/5x5_reduce"
  top: "inception_4d/5x5_reduce"
}
layer {
  name: "inception_4d/5x5"
  type: "Convolution"
  bottom: "inception_4d/5x5_reduce"
  top: "inception_4d/5x5"
  param {
    lr_mult: 1
    decay_mult: 1
  }
  param {
    lr_mult: 2
    decay_mult: 0
  }
  convolution_param {
    num_output: 64
    pad: 2
    kernel_size: 5
    weight_filler {
      type: "xavier"
      std: 0.03
    }
    bias_filler {
      type: "constant"
      value: 0.2
    }
  }
}
layer {
  name: "inception_4d/relu_5x5"
  type: "ReLU"
  bottom: "inception_4d/5x5"
  top: "inception_4d/5x5"
}
layer {
  name: "inception_4d/pool"
  type: "Pooling"
  bottom: "inception_4c/output"
  top: "inception_4d/pool"
  pooling_param {
    pool: MAX
    kernel_size: 3
    stride: 1
    pad: 1
  }
}
layer {
  name: "inception_4d/pool_proj"
  type: "Convolution"
  bottom: "inception_4d/pool"
  top: "inception_4d/pool_proj"
  param {
    lr_mult: 1
    decay_mult: 1
  }
  param {
    lr_mult: 2
    decay_mult: 0
  }
  convolution_param {
    num_output: 64
    kernel_size: 1
    weight_filler {
      type: "xavier"
      std: 0.1
    }
    bias_filler {
      type: "constant"
      value: 0.2
    }
  }
}
layer {
  name: "inception_4d/relu_pool_proj"
  type: "ReLU"
  bottom: "inception_4d/pool_proj"
  top: "inception_4d/pool_proj"
}
layer {
  name: "inception_4d/output"
  type: "Concat"
  bottom: "inception_4d/1x1"
  bottom: "inception_4d/3x3"
  bottom: "inception_4d/5x5"
  bottom: "inception_4d/pool_proj"
  top: "inception_4d/output"
}
layer {
  name: "loss2/ave_pool"
  type: "Pooling"
  bottom: "inception_4d/output"
  top: "loss2/ave_pool"
  pooling_param {
    pool: AVE
    kernel_size: 5
    stride: 3
  }
}
layer {
  name: "loss2/conv"
  type: "Convolution"
  bottom: "loss2/ave_pool"
  top: "loss2/conv"
  param {
    lr_mult: 1
    decay_mult: 1
  }
  param {
    lr_mult: 2
    decay_mult: 0
  }
  convolution_param {
    num_output: 128
    kernel_size: 1
    weight_filler {
      type: "xavier"
      std: 0.08
    }
    bias_filler {
      type: "constant"
      value: 0.2
    }
  }
}
layer {
  name: "loss2/relu_conv"
  type: "ReLU"
  bottom: "loss2/conv"
  top: "loss2/conv"
}
layer {
  name: "loss2/fc"
  type: "InnerProduct"
  bottom: "loss2/conv"
  top: "loss2/fc"
  param {
    lr_mult: 1
    decay_mult: 1
  }
  param {
    lr_mult: 2
    decay_mult: 0
  }
  inner_product_param {
    num_output: 1024
    weight_filler {
      type: "xavier"
      std: 0.02
    }
    bias_filler {
      type: "constant"
      value: 0.2
    }
  }
}
layer {
  name: "loss2/relu_fc"
  type: "ReLU"
  bottom: "loss2/fc"
  top: "loss2/fc"
}
layer {
  name: "loss2/drop_fc"
  type: "Dropout"
  bottom: "loss2/fc"
  top: "loss2/fc"
  dropout_param {
    dropout_ratio: 0.7
  }
}
layer {
  name: "loss2/classifier_plantvillage"
  type: "InnerProduct"
  bottom: "loss2/fc"
  top: "loss2/classifier_plantvillage"
  param {
    lr_mult: 1
    decay_mult: 1
  }
  param {
    lr_mult: 2
    decay_mult: 0
  }
  inner_product_param {
    num_output: 38
    weight_filler {
      type: "xavier"
      std: 0.0009765625
    }
    bias_filler {
      type: "constant"
      value: 0
    }
  }
}
layer {
  name: "inception_4e/1x1"
  type: "Convolution"
  bottom: "inception_4d/output"
  top: "inception_4e/1x1"
  param {
    lr_mult: 1
    decay_mult: 1
  }
  param {
    lr_mult: 2
    decay_mult: 0
  }
  convolution_param {
    num_output: 256
    kernel_size: 1
    weight_filler {
      type: "xavier"
      std: 0.03
    }
    bias_filler {
      type: "constant"
      value: 0.2
    }
  }
}
layer {
  name: "inception_4e/relu_1x1"
  type: "ReLU"
  bottom: "inception_4e/1x1"
  top: "inception_4e/1x1"
}
layer {
  name: "inception_4e/3x3_reduce"
  type: "Convolution"
  bottom: "inception_4d/output"
  top: "inception_4e/3x3_reduce"
  param {
    lr_mult: 1
    decay_mult: 1
  }
  param {
    lr_mult: 2
    decay_mult: 0
  }
  convolution_param {
    num_output: 160
    kernel_size: 1
    weight_filler {
      type: "xavier"
      std: 0.09
    }
    bias_filler {
      type: "constant"
      value: 0.2
    }
  }
}
layer {
  name: "inception_4e/relu_3x3_reduce"
  type: "ReLU"
  bottom: "inception_4e/3x3_reduce"
  top: "inception_4e/3x3_reduce"
}
layer {
  name: "inception_4e/3x3"
  type: "Convolution"
  bottom: "inception_4e/3x3_reduce"
  top: "inception_4e/3x3"
  param {
    lr_mult: 1
    decay_mult: 1
  }
  param {
    lr_mult: 2
    decay_mult: 0
  }
  convolution_param {
    num_output: 320
    pad: 1
    kernel_size: 3
    weight_filler {
      type: "xavier"
      std: 0.03
    }
    bias_filler {
      type: "constant"
      value: 0.2
    }
  }
}
layer {
  name: "inception_4e/relu_3x3"
  type: "ReLU"
  bottom: "inception_4e/3x3"
  top: "inception_4e/3x3"
}
layer {
  name: "inception_4e/5x5_reduce"
  type: "Convolution"
  bottom: "inception_4d/output"
  top: "inception_4e/5x5_reduce"
  param {
    lr_mult: 1
    decay_mult: 1
  }
  param {
    lr_mult: 2
    decay_mult: 0
  }
  convolution_param {
    num_output: 32
    kernel_size: 1
    weight_filler {
      type: "xavier"
      std: 0.2
    }
    bias_filler {
      type: "constant"
      value: 0.2
    }
  }
}
layer {
  name: "inception_4e/relu_5x5_reduce"
  type: "ReLU"
  bottom: "inception_4e/5x5_reduce"
  top: "inception_4e/5x5_reduce"
}
layer {
  name: "inception_4e/5x5"
  type: "Convolution"
  bottom: "inception_4e/5x5_reduce"
  top: "inception_4e/
I0403 21:36:35.137594 23598 layer_factory.hpp:77] Creating layer data
I0403 21:36:35.138172 23598 net.cpp:91] Creating Layer data
I0403 21:36:35.138219 23598 net.cpp:399] data -> data
I0403 21:36:35.138285 23598 net.cpp:399] data -> label
I0403 21:36:35.138324 23598 data_transformer.cpp:25] Loading mean file from: /home/mohanty/data/final_dataset/lmdb/segmented-80-20/mean.binaryproto
I0403 21:36:35.139514 23602 db_lmdb.cpp:38] Opened lmdb /home/mohanty/data/final_dataset/lmdb/segmented-80-20/test_db
I0403 21:36:35.151348 23598 data_layer.cpp:41] output data size: 24,3,224,224
I0403 21:36:35.179203 23598 net.cpp:141] Setting up data
I0403 21:36:35.179292 23598 net.cpp:148] Top shape: 24 3 224 224 (3612672)
I0403 21:36:35.179316 23598 net.cpp:148] Top shape: 24 (24)
I0403 21:36:35.179332 23598 net.cpp:156] Memory required for data: 14450784
I0403 21:36:35.179363 23598 layer_factory.hpp:77] Creating layer label_data_1_split
I0403 21:36:35.179391 23598 net.cpp:91] Creating Layer label_data_1_split
I0403 21:36:35.179410 23598 net.cpp:425] label_data_1_split <- label
I0403 21:36:35.179445 23598 net.cpp:399] label_data_1_split -> label_data_1_split_0
I0403 21:36:35.179483 23598 net.cpp:399] label_data_1_split -> label_data_1_split_1
I0403 21:36:35.179505 23598 net.cpp:399] label_data_1_split -> label_data_1_split_2
I0403 21:36:35.179527 23598 net.cpp:399] label_data_1_split -> label_data_1_split_3
I0403 21:36:35.179546 23598 net.cpp:399] label_data_1_split -> label_data_1_split_4
I0403 21:36:35.179566 23598 net.cpp:399] label_data_1_split -> label_data_1_split_5
I0403 21:36:35.179587 23598 net.cpp:399] label_data_1_split -> label_data_1_split_6
I0403 21:36:35.179607 23598 net.cpp:399] label_data_1_split -> label_data_1_split_7
I0403 21:36:35.179627 23598 net.cpp:399] label_data_1_split -> label_data_1_split_8
I0403 21:36:35.179649 23598 net.cpp:399] label_data_1_split -> label_data_1_split_9
I0403 21:36:35.179767 23598 net.cpp:141] Setting up label_data_1_split
I0403 21:36:35.179792 23598 net.cpp:148] Top shape: 24 (24)
I0403 21:36:35.179811 23598 net.cpp:148] Top shape: 24 (24)
I0403 21:36:35.179826 23598 net.cpp:148] Top shape: 24 (24)
I0403 21:36:35.179843 23598 net.cpp:148] Top shape: 24 (24)
I0403 21:36:35.179859 23598 net.cpp:148] Top shape: 24 (24)
I0403 21:36:35.179877 23598 net.cpp:148] Top shape: 24 (24)
I0403 21:36:35.179893 23598 net.cpp:148] Top shape: 24 (24)
I0403 21:36:35.179908 23598 net.cpp:148] Top shape: 24 (24)
I0403 21:36:35.179924 23598 net.cpp:148] Top shape: 24 (24)
I0403 21:36:35.179940 23598 net.cpp:148] Top shape: 24 (24)
I0403 21:36:35.179987 23598 net.cpp:156] Memory required for data: 14451744
I0403 21:36:35.180006 23598 layer_factory.hpp:77] Creating layer conv1/7x7_s2
I0403 21:36:35.180037 23598 net.cpp:91] Creating Layer conv1/7x7_s2
I0403 21:36:35.180055 23598 net.cpp:425] conv1/7x7_s2 <- data
I0403 21:36:35.180074 23598 net.cpp:399] conv1/7x7_s2 -> conv1/7x7_s2
I0403 21:36:35.321691 23598 net.cpp:141] Setting up conv1/7x7_s2
I0403 21:36:35.321751 23598 net.cpp:148] Top shape: 24 64 112 112 (19267584)
I0403 21:36:35.321769 23598 net.cpp:156] Memory required for data: 91522080
I0403 21:36:35.321800 23598 layer_factory.hpp:77] Creating layer conv1/relu_7x7
I0403 21:36:35.321827 23598 net.cpp:91] Creating Layer conv1/relu_7x7
I0403 21:36:35.321847 23598 net.cpp:425] conv1/relu_7x7 <- conv1/7x7_s2
I0403 21:36:35.321866 23598 net.cpp:386] conv1/relu_7x7 -> conv1/7x7_s2 (in-place)
I0403 21:36:35.322124 23598 net.cpp:141] Setting up conv1/relu_7x7
I0403 21:36:35.322152 23598 net.cpp:148] Top shape: 24 64 112 112 (19267584)
I0403 21:36:35.322166 23598 net.cpp:156] Memory required for data: 168592416
I0403 21:36:35.322193 23598 layer_factory.hpp:77] Creating layer pool1/3x3_s2
I0403 21:36:35.322218 23598 net.cpp:91] Creating Layer pool1/3x3_s2
I0403 21:36:35.322242 23598 net.cpp:425] pool1/3x3_s2 <- conv1/7x7_s2
I0403 21:36:35.322262 23598 net.cpp:399] pool1/3x3_s2 -> pool1/3x3_s2
I0403 21:36:35.322335 23598 net.cpp:141] Setting up pool1/3x3_s2
I0403 21:36:35.322360 23598 net.cpp:148] Top shape: 24 64 56 56 (4816896)
I0403 21:36:35.322374 23598 net.cpp:156] Memory required for data: 187860000
I0403 21:36:35.322389 23598 layer_factory.hpp:77] Creating layer pool1/norm1
I0403 21:36:35.322413 23598 net.cpp:91] Creating Layer pool1/norm1
I0403 21:36:35.322432 23598 net.cpp:425] pool1/norm1 <- pool1/3x3_s2
I0403 21:36:35.322448 23598 net.cpp:399] pool1/norm1 -> pool1/norm1
I0403 21:36:35.322741 23598 net.cpp:141] Setting up pool1/norm1
I0403 21:36:35.322769 23598 net.cpp:148] Top shape: 24 64 56 56 (4816896)
I0403 21:36:35.322785 23598 net.cpp:156] Memory required for data: 207127584
I0403 21:36:35.322801 23598 layer_factory.hpp:77] Creating layer conv2/3x3_reduce
I0403 21:36:35.322825 23598 net.cpp:91] Creating Layer conv2/3x3_reduce
I0403 21:36:35.322842 23598 net.cpp:425] conv2/3x3_reduce <- pool1/norm1
I0403 21:36:35.322860 23598 net.cpp:399] conv2/3x3_reduce -> conv2/3x3_reduce
I0403 21:36:35.324177 23598 net.cpp:141] Setting up conv2/3x3_reduce
I0403 21:36:35.324206 23598 net.cpp:148] Top shape: 24 64 56 56 (4816896)
I0403 21:36:35.324223 23598 net.cpp:156] Memory required for data: 226395168
I0403 21:36:35.324249 23598 layer_factory.hpp:77] Creating layer conv2/relu_3x3_reduce
I0403 21:36:35.324268 23598 net.cpp:91] Creating Layer conv2/relu_3x3_reduce
I0403 21:36:35.324286 23598 net.cpp:425] conv2/relu_3x3_reduce <- conv2/3x3_reduce
I0403 21:36:35.324304 23598 net.cpp:386] conv2/relu_3x3_reduce -> conv2/3x3_reduce (in-place)
I0403 21:36:35.324553 23598 net.cpp:141] Setting up conv2/relu_3x3_reduce
I0403 21:36:35.324579 23598 net.cpp:148] Top shape: 24 64 56 56 (4816896)
I0403 21:36:35.324594 23598 net.cpp:156] Memory required for data: 245662752
I0403 21:36:35.324610 23598 layer_factory.hpp:77] Creating layer conv2/3x3
I0403 21:36:35.324632 23598 net.cpp:91] Creating Layer conv2/3x3
I0403 21:36:35.324650 23598 net.cpp:425] conv2/3x3 <- conv2/3x3_reduce
I0403 21:36:35.324668 23598 net.cpp:399] conv2/3x3 -> conv2/3x3
I0403 21:36:35.326879 23598 net.cpp:141] Setting up conv2/3x3
I0403 21:36:35.326918 23598 net.cpp:148] Top shape: 24 192 56 56 (14450688)
I0403 21:36:35.326936 23598 net.cpp:156] Memory required for data: 303465504
I0403 21:36:35.326958 23598 layer_factory.hpp:77] Creating layer conv2/relu_3x3
I0403 21:36:35.326977 23598 net.cpp:91] Creating Layer conv2/relu_3x3
I0403 21:36:35.326994 23598 net.cpp:425] conv2/relu_3x3 <- conv2/3x3
I0403 21:36:35.327013 23598 net.cpp:386] conv2/relu_3x3 -> conv2/3x3 (in-place)
I0403 21:36:35.327169 23598 net.cpp:141] Setting up conv2/relu_3x3
I0403 21:36:35.327193 23598 net.cpp:148] Top shape: 24 192 56 56 (14450688)
I0403 21:36:35.327253 23598 net.cpp:156] Memory required for data: 361268256
I0403 21:36:35.327270 23598 layer_factory.hpp:77] Creating layer conv2/norm2
I0403 21:36:35.327288 23598 net.cpp:91] Creating Layer conv2/norm2
I0403 21:36:35.327304 23598 net.cpp:425] conv2/norm2 <- conv2/3x3
I0403 21:36:35.327323 23598 net.cpp:399] conv2/norm2 -> conv2/norm2
I0403 21:36:35.327605 23598 net.cpp:141] Setting up conv2/norm2
I0403 21:36:35.327632 23598 net.cpp:148] Top shape: 24 192 56 56 (14450688)
I0403 21:36:35.327647 23598 net.cpp:156] Memory required for data: 419071008
I0403 21:36:35.327661 23598 layer_factory.hpp:77] Creating layer pool2/3x3_s2
I0403 21:36:35.327679 23598 net.cpp:91] Creating Layer pool2/3x3_s2
I0403 21:36:35.327697 23598 net.cpp:425] pool2/3x3_s2 <- conv2/norm2
I0403 21:36:35.327714 23598 net.cpp:399] pool2/3x3_s2 -> pool2/3x3_s2
I0403 21:36:35.327760 23598 net.cpp:141] Setting up pool2/3x3_s2
I0403 21:36:35.327783 23598 net.cpp:148] Top shape: 24 192 28 28 (3612672)
I0403 21:36:35.327798 23598 net.cpp:156] Memory required for data: 433521696
I0403 21:36:35.327814 23598 layer_factory.hpp:77] Creating layer pool2/3x3_s2_pool2/3x3_s2_0_split
I0403 21:36:35.327831 23598 net.cpp:91] Creating Layer pool2/3x3_s2_pool2/3x3_s2_0_split
I0403 21:36:35.327847 23598 net.cpp:425] pool2/3x3_s2_pool2/3x3_s2_0_split <- pool2/3x3_s2
I0403 21:36:35.327864 23598 net.cpp:399] pool2/3x3_s2_pool2/3x3_s2_0_split -> pool2/3x3_s2_pool2/3x3_s2_0_split_0
I0403 21:36:35.327883 23598 net.cpp:399] pool2/3x3_s2_pool2/3x3_s2_0_split -> pool2/3x3_s2_pool2/3x3_s2_0_split_1
I0403 21:36:35.327903 23598 net.cpp:399] pool2/3x3_s2_pool2/3x3_s2_0_split -> pool2/3x3_s2_pool2/3x3_s2_0_split_2
I0403 21:36:35.327924 23598 net.cpp:399] pool2/3x3_s2_pool2/3x3_s2_0_split -> pool2/3x3_s2_pool2/3x3_s2_0_split_3
I0403 21:36:35.327987 23598 net.cpp:141] Setting up pool2/3x3_s2_pool2/3x3_s2_0_split
I0403 21:36:35.328011 23598 net.cpp:148] Top shape: 24 192 28 28 (3612672)
I0403 21:36:35.328027 23598 net.cpp:148] Top shape: 24 192 28 28 (3612672)
I0403 21:36:35.328042 23598 net.cpp:148] Top shape: 24 192 28 28 (3612672)
I0403 21:36:35.328058 23598 net.cpp:148] Top shape: 24 192 28 28 (3612672)
I0403 21:36:35.328073 23598 net.cpp:156] Memory required for data: 491324448
I0403 21:36:35.328088 23598 layer_factory.hpp:77] Creating layer inception_3a/1x1
I0403 21:36:35.328107 23598 net.cpp:91] Creating Layer inception_3a/1x1
I0403 21:36:35.328125 23598 net.cpp:425] inception_3a/1x1 <- pool2/3x3_s2_pool2/3x3_s2_0_split_0
I0403 21:36:35.328142 23598 net.cpp:399] inception_3a/1x1 -> inception_3a/1x1
I0403 21:36:35.329638 23598 net.cpp:141] Setting up inception_3a/1x1
I0403 21:36:35.329670 23598 net.cpp:148] Top shape: 24 64 28 28 (1204224)
I0403 21:36:35.329687 23598 net.cpp:156] Memory required for data: 496141344
I0403 21:36:35.329709 23598 layer_factory.hpp:77] Creating layer inception_3a/relu_1x1
I0403 21:36:35.329725 23598 net.cpp:91] Creating Layer inception_3a/relu_1x1
I0403 21:36:35.329741 23598 net.cpp:425] inception_3a/relu_1x1 <- inception_3a/1x1
I0403 21:36:35.329759 23598 net.cpp:386] inception_3a/relu_1x1 -> inception_3a/1x1 (in-place)
I0403 21:36:35.329934 23598 net.cpp:141] Setting up inception_3a/relu_1x1
I0403 21:36:35.329962 23598 net.cpp:148] Top shape: 24 64 28 28 (1204224)
I0403 21:36:35.329978 23598 net.cpp:156] Memory required for data: 500958240
I0403 21:36:35.329993 23598 layer_factory.hpp:77] Creating layer inception_3a/3x3_reduce
I0403 21:36:35.330015 23598 net.cpp:91] Creating Layer inception_3a/3x3_reduce
I0403 21:36:35.330034 23598 net.cpp:425] inception_3a/3x3_reduce <- pool2/3x3_s2_pool2/3x3_s2_0_split_1
I0403 21:36:35.330054 23598 net.cpp:399] inception_3a/3x3_reduce -> inception_3a/3x3_reduce
I0403 21:36:35.331789 23598 net.cpp:141] Setting up inception_3a/3x3_reduce
I0403 21:36:35.331821 23598 net.cpp:148] Top shape: 24 96 28 28 (1806336)
I0403 21:36:35.331838 23598 net.cpp:156] Memory required for data: 508183584
I0403 21:36:35.331861 23598 layer_factory.hpp:77] Creating layer inception_3a/relu_3x3_reduce
I0403 21:36:35.331898 23598 net.cpp:91] Creating Layer inception_3a/relu_3x3_reduce
I0403 21:36:35.331918 23598 net.cpp:425] inception_3a/relu_3x3_reduce <- inception_3a/3x3_reduce
I0403 21:36:35.331938 23598 net.cpp:386] inception_3a/relu_3x3_reduce -> inception_3a/3x3_reduce (in-place)
I0403 21:36:35.332128 23598 net.cpp:141] Setting up inception_3a/relu_3x3_reduce
I0403 21:36:35.332154 23598 net.cpp:148] Top shape: 24 96 28 28 (1806336)
I0403 21:36:35.332172 23598 net.cpp:156] Memory required for data: 515408928
I0403 21:36:35.332188 23598 layer_factory.hpp:77] Creating layer inception_3a/3x3
I0403 21:36:35.332208 23598 net.cpp:91] Creating Layer inception_3a/3x3
I0403 21:36:35.332226 23598 net.cpp:425] inception_3a/3x3 <- inception_3a/3x3_reduce
I0403 21:36:35.332254 23598 net.cpp:399] inception_3a/3x3 -> inception_3a/3x3
I0403 21:36:35.333927 23598 net.cpp:141] Setting up inception_3a/3x3
I0403 21:36:35.333961 23598 net.cpp:148] Top shape: 24 128 28 28 (2408448)
I0403 21:36:35.333978 23598 net.cpp:156] Memory required for data: 525042720
I0403 21:36:35.333998 23598 layer_factory.hpp:77] Creating layer inception_3a/relu_3x3
I0403 21:36:35.334017 23598 net.cpp:91] Creating Layer inception_3a/relu_3x3
I0403 21:36:35.334033 23598 net.cpp:425] inception_3a/relu_3x3 <- inception_3a/3x3
I0403 21:36:35.334053 23598 net.cpp:386] inception_3a/relu_3x3 -> inception_3a/3x3 (in-place)
I0403 21:36:35.334339 23598 net.cpp:141] Setting up inception_3a/relu_3x3
I0403 21:36:35.334369 23598 net.cpp:148] Top shape: 24 128 28 28 (2408448)
I0403 21:36:35.334385 23598 net.cpp:156] Memory required for data: 534676512
I0403 21:36:35.334401 23598 layer_factory.hpp:77] Creating layer inception_3a/5x5_reduce
I0403 21:36:35.334424 23598 net.cpp:91] Creating Layer inception_3a/5x5_reduce
I0403 21:36:35.334442 23598 net.cpp:425] inception_3a/5x5_reduce <- pool2/3x3_s2_pool2/3x3_s2_0_split_2
I0403 21:36:35.334462 23598 net.cpp:399] inception_3a/5x5_reduce -> inception_3a/5x5_reduce
I0403 21:36:35.335448 23598 net.cpp:141] Setting up inception_3a/5x5_reduce
I0403 21:36:35.335477 23598 net.cpp:148] Top shape: 24 16 28 28 (301056)
I0403 21:36:35.335494 23598 net.cpp:156] Memory required for data: 535880736
I0403 21:36:35.335511 23598 layer_factory.hpp:77] Creating layer inception_3a/relu_5x5_reduce
I0403 21:36:35.335530 23598 net.cpp:91] Creating Layer inception_3a/relu_5x5_reduce
I0403 21:36:35.335551 23598 net.cpp:425] inception_3a/relu_5x5_reduce <- inception_3a/5x5_reduce
I0403 21:36:35.335571 23598 net.cpp:386] inception_3a/relu_5x5_reduce -> inception_3a/5x5_reduce (in-place)
I0403 21:36:35.335875 23598 net.cpp:141] Setting up inception_3a/relu_5x5_reduce
I0403 21:36:35.335902 23598 net.cpp:148] Top shape: 24 16 28 28 (301056)
I0403 21:36:35.335917 23598 net.cpp:156] Memory required for data: 537084960
I0403 21:36:35.335933 23598 layer_factory.hpp:77] Creating layer inception_3a/5x5
I0403 21:36:35.335957 23598 net.cpp:91] Creating Layer inception_3a/5x5
I0403 21:36:35.335974 23598 net.cpp:425] inception_3a/5x5 <- inception_3a/5x5_reduce
I0403 21:36:35.335996 23598 net.cpp:399] inception_3a/5x5 -> inception_3a/5x5
I0403 21:36:35.337029 23598 net.cpp:141] Setting up inception_3a/5x5
I0403 21:36:35.337059 23598 net.cpp:148] Top shape: 24 32 28 28 (602112)
I0403 21:36:35.337077 23598 net.cpp:156] Memory required for data: 539493408
I0403 21:36:35.337096 23598 layer_factory.hpp:77] Creating layer inception_3a/relu_5x5
I0403 21:36:35.337116 23598 net.cpp:91] Creating Layer inception_3a/relu_5x5
I0403 21:36:35.337131 23598 net.cpp:425] inception_3a/relu_5x5 <- inception_3a/5x5
I0403 21:36:35.337152 23598 net.cpp:386] inception_3a/relu_5x5 -> inception_3a/5x5 (in-place)
I0403 21:36:35.337332 23598 net.cpp:141] Setting up inception_3a/relu_5x5
I0403 21:36:35.337357 23598 net.cpp:148] Top shape: 24 32 28 28 (602112)
I0403 21:36:35.337373 23598 net.cpp:156] Memory required for data: 541901856
I0403 21:36:35.337388 23598 layer_factory.hpp:77] Creating layer inception_3a/pool
I0403 21:36:35.337406 23598 net.cpp:91] Creating Layer inception_3a/pool
I0403 21:36:35.337437 23598 net.cpp:425] inception_3a/pool <- pool2/3x3_s2_pool2/3x3_s2_0_split_3
I0403 21:36:35.337458 23598 net.cpp:399] inception_3a/pool -> inception_3a/pool
I0403 21:36:35.337515 23598 net.cpp:141] Setting up inception_3a/pool
I0403 21:36:35.337539 23598 net.cpp:148] Top shape: 24 192 28 28 (3612672)
I0403 21:36:35.337553 23598 net.cpp:156] Memory required for data: 556352544
I0403 21:36:35.337568 23598 layer_factory.hpp:77] Creating layer inception_3a/pool_proj
I0403 21:36:35.337594 23598 net.cpp:91] Creating Layer inception_3a/pool_proj
I0403 21:36:35.337611 23598 net.cpp:425] inception_3a/pool_proj <- inception_3a/pool
I0403 21:36:35.337630 23598 net.cpp:399] inception_3a/pool_proj -> inception_3a/pool_proj
I0403 21:36:35.338595 23598 net.cpp:141] Setting up inception_3a/pool_proj
I0403 21:36:35.338624 23598 net.cpp:148] Top shape: 24 32 28 28 (602112)
I0403 21:36:35.338640 23598 net.cpp:156] Memory required for data: 558760992
I0403 21:36:35.338665 23598 layer_factory.hpp:77] Creating layer inception_3a/relu_pool_proj
I0403 21:36:35.338683 23598 net.cpp:91] Creating Layer inception_3a/relu_pool_proj
I0403 21:36:35.338702 23598 net.cpp:425] inception_3a/relu_pool_proj <- inception_3a/pool_proj
I0403 21:36:35.338719 23598 net.cpp:386] inception_3a/relu_pool_proj -> inception_3a/pool_proj (in-place)
I0403 21:36:35.338989 23598 net.cpp:141] Setting up inception_3a/relu_pool_proj
I0403 21:36:35.339018 23598 net.cpp:148] Top shape: 24 32 28 28 (602112)
I0403 21:36:35.339035 23598 net.cpp:156] Memory required for data: 561169440
I0403 21:36:35.339049 23598 layer_factory.hpp:77] Creating layer inception_3a/output
I0403 21:36:35.339068 23598 net.cpp:91] Creating Layer inception_3a/output
I0403 21:36:35.339084 23598 net.cpp:425] inception_3a/output <- inception_3a/1x1
I0403 21:36:35.339102 23598 net.cpp:425] inception_3a/output <- inception_3a/3x3
I0403 21:36:35.339118 23598 net.cpp:425] inception_3a/output <- inception_3a/5x5
I0403 21:36:35.339133 23598 net.cpp:425] inception_3a/output <- inception_3a/pool_proj
I0403 21:36:35.339154 23598 net.cpp:399] inception_3a/output -> inception_3a/output
I0403 21:36:35.339206 23598 net.cpp:141] Setting up inception_3a/output
I0403 21:36:35.339233 23598 net.cpp:148] Top shape: 24 256 28 28 (4816896)
I0403 21:36:35.339249 23598 net.cpp:156] Memory required for data: 580437024
I0403 21:36:35.339264 23598 layer_factory.hpp:77] Creating layer inception_3a/output_inception_3a/output_0_split
I0403 21:36:35.339284 23598 net.cpp:91] Creating Layer inception_3a/output_inception_3a/output_0_split
I0403 21:36:35.339300 23598 net.cpp:425] inception_3a/output_inception_3a/output_0_split <- inception_3a/output
I0403 21:36:35.339319 23598 net.cpp:399] inception_3a/output_inception_3a/output_0_split -> inception_3a/output_inception_3a/output_0_split_0
I0403 21:36:35.339339 23598 net.cpp:399] inception_3a/output_inception_3a/output_0_split -> inception_3a/output_inception_3a/output_0_split_1
I0403 21:36:35.339365 23598 net.cpp:399] inception_3a/output_inception_3a/output_0_split -> inception_3a/output_inception_3a/output_0_split_2
I0403 21:36:35.339387 23598 net.cpp:399] inception_3a/output_inception_3a/output_0_split -> inception_3a/output_inception_3a/output_0_split_3
I0403 21:36:35.339459 23598 net.cpp:141] Setting up inception_3a/output_inception_3a/output_0_split
I0403 21:36:35.339490 23598 net.cpp:148] Top shape: 24 256 28 28 (4816896)
I0403 21:36:35.339509 23598 net.cpp:148] Top shape: 24 256 28 28 (4816896)
I0403 21:36:35.339525 23598 net.cpp:148] Top shape: 24 256 28 28 (4816896)
I0403 21:36:35.339540 23598 net.cpp:148] Top shape: 24 256 28 28 (4816896)
I0403 21:36:35.339553 23598 net.cpp:156] Memory required for data: 657507360
I0403 21:36:35.339568 23598 layer_factory.hpp:77] Creating layer inception_3b/1x1
I0403 21:36:35.339591 23598 net.cpp:91] Creating Layer inception_3b/1x1
I0403 21:36:35.339609 23598 net.cpp:425] inception_3b/1x1 <- inception_3a/output_inception_3a/output_0_split_0
I0403 21:36:35.339628 23598 net.cpp:399] inception_3b/1x1 -> inception_3b/1x1
I0403 21:36:35.340749 23598 net.cpp:141] Setting up inception_3b/1x1
I0403 21:36:35.340791 23598 net.cpp:148] Top shape: 24 128 28 28 (2408448)
I0403 21:36:35.340808 23598 net.cpp:156] Memory required for data: 667141152
I0403 21:36:35.340826 23598 layer_factory.hpp:77] Creating layer inception_3b/relu_1x1
I0403 21:36:35.340847 23598 net.cpp:91] Creating Layer inception_3b/relu_1x1
I0403 21:36:35.340863 23598 net.cpp:425] inception_3b/relu_1x1 <- inception_3b/1x1
I0403 21:36:35.340879 23598 net.cpp:386] inception_3b/relu_1x1 -> inception_3b/1x1 (in-place)
I0403 21:36:35.341056 23598 net.cpp:141] Setting up inception_3b/relu_1x1
I0403 21:36:35.341085 23598 net.cpp:148] Top shape: 24 128 28 28 (2408448)
I0403 21:36:35.341100 23598 net.cpp:156] Memory required for data: 676774944
I0403 21:36:35.341116 23598 layer_factory.hpp:77] Creating layer inception_3b/3x3_reduce
I0403 21:36:35.341137 23598 net.cpp:91] Creating Layer inception_3b/3x3_reduce
I0403 21:36:35.341156 23598 net.cpp:425] inception_3b/3x3_reduce <- inception_3a/output_inception_3a/output_0_split_1
I0403 21:36:35.341187 23598 net.cpp:399] inception_3b/3x3_reduce -> inception_3b/3x3_reduce
I0403 21:36:35.342330 23598 net.cpp:141] Setting up inception_3b/3x3_reduce
I0403 21:36:35.342360 23598 net.cpp:148] Top shape: 24 128 28 28 (2408448)
I0403 21:36:35.342375 23598 net.cpp:156] Memory required for data: 686408736
I0403 21:36:35.342396 23598 layer_factory.hpp:77] Creating layer inception_3b/relu_3x3_reduce
I0403 21:36:35.342416 23598 net.cpp:91] Creating Layer inception_3b/relu_3x3_reduce
I0403 21:36:35.342433 23598 net.cpp:425] inception_3b/relu_3x3_reduce <- inception_3b/3x3_reduce
I0403 21:36:35.342452 23598 net.cpp:386] inception_3b/relu_3x3_reduce -> inception_3b/3x3_reduce (in-place)
I0403 21:36:35.342638 23598 net.cpp:141] Setting up inception_3b/relu_3x3_reduce
I0403 21:36:35.342663 23598 net.cpp:148] Top shape: 24 128 28 28 (2408448)
I0403 21:36:35.342677 23598 net.cpp:156] Memory required for data: 696042528
I0403 21:36:35.342692 23598 layer_factory.hpp:77] Creating layer inception_3b/3x3
I0403 21:36:35.342717 23598 net.cpp:91] Creating Layer inception_3b/3x3
I0403 21:36:35.342736 23598 net.cpp:425] inception_3b/3x3 <- inception_3b/3x3_reduce
I0403 21:36:35.342756 23598 net.cpp:399] inception_3b/3x3 -> inception_3b/3x3
I0403 21:36:35.345671 23598 net.cpp:141] Setting up inception_3b/3x3
I0403 21:36:35.345702 23598 net.cpp:148] Top shape: 24 192 28 28 (3612672)
I0403 21:36:35.345720 23598 net.cpp:156] Memory required for data: 710493216
I0403 21:36:35.345738 23598 layer_factory.hpp:77] Creating layer inception_3b/relu_3x3
I0403 21:36:35.345757 23598 net.cpp:91] Creating Layer inception_3b/relu_3x3
I0403 21:36:35.345772 23598 net.cpp:425] inception_3b/relu_3x3 <- inception_3b/3x3
I0403 21:36:35.345793 23598 net.cpp:386] inception_3b/relu_3x3 -> inception_3b/3x3 (in-place)
I0403 21:36:35.346066 23598 net.cpp:141] Setting up inception_3b/relu_3x3
I0403 21:36:35.346096 23598 net.cpp:148] Top shape: 24 192 28 28 (3612672)
I0403 21:36:35.346112 23598 net.cpp:156] Memory required for data: 724943904
I0403 21:36:35.346127 23598 layer_factory.hpp:77] Creating layer inception_3b/5x5_reduce
I0403 21:36:35.346149 23598 net.cpp:91] Creating Layer inception_3b/5x5_reduce
I0403 21:36:35.346168 23598 net.cpp:425] inception_3b/5x5_reduce <- inception_3a/output_inception_3a/output_0_split_2
I0403 21:36:35.346196 23598 net.cpp:399] inception_3b/5x5_reduce -> inception_3b/5x5_reduce
I0403 21:36:35.347187 23598 net.cpp:141] Setting up inception_3b/5x5_reduce
I0403 21:36:35.347218 23598 net.cpp:148] Top shape: 24 32 28 28 (602112)
I0403 21:36:35.347239 23598 net.cpp:156] Memory required for data: 727352352
I0403 21:36:35.347259 23598 layer_factory.hpp:77] Creating layer inception_3b/relu_5x5_reduce
I0403 21:36:35.347278 23598 net.cpp:91] Creating Layer inception_3b/relu_5x5_reduce
I0403 21:36:35.347295 23598 net.cpp:425] inception_3b/relu_5x5_reduce <- inception_3b/5x5_reduce
I0403 21:36:35.347314 23598 net.cpp:386] inception_3b/relu_5x5_reduce -> inception_3b/5x5_reduce (in-place)
I0403 21:36:35.347504 23598 net.cpp:141] Setting up inception_3b/relu_5x5_reduce
I0403 21:36:35.347530 23598 net.cpp:148] Top shape: 24 32 28 28 (602112)
I0403 21:36:35.347546 23598 net.cpp:156] Memory required for data: 729760800
I0403 21:36:35.347560 23598 layer_factory.hpp:77] Creating layer inception_3b/5x5
I0403 21:36:35.347584 23598 net.cpp:91] Creating Layer inception_3b/5x5
I0403 21:36:35.347601 23598 net.cpp:425] inception_3b/5x5 <- inception_3b/5x5_reduce
I0403 21:36:35.347623 23598 net.cpp:399] inception_3b/5x5 -> inception_3b/5x5
I0403 21:36:35.349643 23598 net.cpp:141] Setting up inception_3b/5x5
I0403 21:36:35.349673 23598 net.cpp:148] Top shape: 24 96 28 28 (1806336)
I0403 21:36:35.349688 23598 net.cpp:156] Memory required for data: 736986144
I0403 21:36:35.349706 23598 layer_factory.hpp:77] Creating layer inception_3b/relu_5x5
I0403 21:36:35.349727 23598 net.cpp:91] Creating Layer inception_3b/relu_5x5
I0403 21:36:35.349745 23598 net.cpp:425] inception_3b/relu_5x5 <- inception_3b/5x5
I0403 21:36:35.349761 23598 net.cpp:386] inception_3b/relu_5x5 -> inception_3b/5x5 (in-place)
I0403 21:36:35.349956 23598 net.cpp:141] Setting up inception_3b/relu_5x5
I0403 21:36:35.349982 23598 net.cpp:148] Top shape: 24 96 28 28 (1806336)
I0403 21:36:35.349995 23598 net.cpp:156] Memory required for data: 744211488
I0403 21:36:35.350010 23598 layer_factory.hpp:77] Creating layer inception_3b/pool
I0403 21:36:35.350028 23598 net.cpp:91] Creating Layer inception_3b/pool
I0403 21:36:35.350042 23598 net.cpp:425] inception_3b/pool <- inception_3a/output_inception_3a/output_0_split_3
I0403 21:36:35.350059 23598 net.cpp:399] inception_3b/pool -> inception_3b/pool
I0403 21:36:35.350112 23598 net.cpp:141] Setting up inception_3b/pool
I0403 21:36:35.350136 23598 net.cpp:148] Top shape: 24 256 28 28 (4816896)
I0403 21:36:35.350150 23598 net.cpp:156] Memory required for data: 763479072
I0403 21:36:35.350164 23598 layer_factory.hpp:77] Creating layer inception_3b/pool_proj
I0403 21:36:35.350196 23598 net.cpp:91] Creating Layer inception_3b/pool_proj
I0403 21:36:35.350214 23598 net.cpp:425] inception_3b/pool_proj <- inception_3b/pool
I0403 21:36:35.350236 23598 net.cpp:399] inception_3b/pool_proj -> inception_3b/pool_proj
I0403 21:36:35.351256 23598 net.cpp:141] Setting up inception_3b/pool_proj
I0403 21:36:35.351284 23598 net.cpp:148] Top shape: 24 64 28 28 (1204224)
I0403 21:36:35.351300 23598 net.cpp:156] Memory required for data: 768295968
I0403 21:36:35.351318 23598 layer_factory.hpp:77] Creating layer inception_3b/relu_pool_proj
I0403 21:36:35.351337 23598 net.cpp:91] Creating Layer inception_3b/relu_pool_proj
I0403 21:36:35.351354 23598 net.cpp:425] inception_3b/relu_pool_proj <- inception_3b/pool_proj
I0403 21:36:35.351371 23598 net.cpp:386] inception_3b/relu_pool_proj -> inception_3b/pool_proj (in-place)
I0403 21:36:35.351766 23598 net.cpp:141] Setting up inception_3b/relu_pool_proj
I0403 21:36:35.351793 23598 net.cpp:148] Top shape: 24 64 28 28 (1204224)
I0403 21:36:35.351809 23598 net.cpp:156] Memory required for data: 773112864
I0403 21:36:35.351824 23598 layer_factory.hpp:77] Creating layer inception_3b/output
I0403 21:36:35.351840 23598 net.cpp:91] Creating Layer inception_3b/output
I0403 21:36:35.351855 23598 net.cpp:425] inception_3b/output <- inception_3b/1x1
I0403 21:36:35.351871 23598 net.cpp:425] inception_3b/output <- inception_3b/3x3
I0403 21:36:35.351887 23598 net.cpp:425] inception_3b/output <- inception_3b/5x5
I0403 21:36:35.351904 23598 net.cpp:425] inception_3b/output <- inception_3b/pool_proj
I0403 21:36:35.351922 23598 net.cpp:399] inception_3b/output -> inception_3b/output
I0403 21:36:35.351964 23598 net.cpp:141] Setting up inception_3b/output
I0403 21:36:35.351990 23598 net.cpp:148] Top shape: 24 480 28 28 (9031680)
I0403 21:36:35.352005 23598 net.cpp:156] Memory required for data: 809239584
I0403 21:36:35.352020 23598 layer_factory.hpp:77] Creating layer pool3/3x3_s2
I0403 21:36:35.352037 23598 net.cpp:91] Creating Layer pool3/3x3_s2
I0403 21:36:35.352053 23598 net.cpp:425] pool3/3x3_s2 <- inception_3b/output
I0403 21:36:35.352088 23598 net.cpp:399] pool3/3x3_s2 -> pool3/3x3_s2
I0403 21:36:35.352144 23598 net.cpp:141] Setting up pool3/3x3_s2
I0403 21:36:35.352169 23598 net.cpp:148] Top shape: 24 480 14 14 (2257920)
I0403 21:36:35.352192 23598 net.cpp:156] Memory required for data: 818271264
I0403 21:36:35.352206 23598 layer_factory.hpp:77] Creating layer pool3/3x3_s2_pool3/3x3_s2_0_split
I0403 21:36:35.352226 23598 net.cpp:91] Creating Layer pool3/3x3_s2_pool3/3x3_s2_0_split
I0403 21:36:35.352246 23598 net.cpp:425] pool3/3x3_s2_pool3/3x3_s2_0_split <- pool3/3x3_s2
I0403 21:36:35.352263 23598 net.cpp:399] pool3/3x3_s2_pool3/3x3_s2_0_split -> pool3/3x3_s2_pool3/3x3_s2_0_split_0
I0403 21:36:35.352283 23598 net.cpp:399] pool3/3x3_s2_pool3/3x3_s2_0_split -> pool3/3x3_s2_pool3/3x3_s2_0_split_1
I0403 21:36:35.352303 23598 net.cpp:399] pool3/3x3_s2_pool3/3x3_s2_0_split -> pool3/3x3_s2_pool3/3x3_s2_0_split_2
I0403 21:36:35.352324 23598 net.cpp:399] pool3/3x3_s2_pool3/3x3_s2_0_split -> pool3/3x3_s2_pool3/3x3_s2_0_split_3
I0403 21:36:35.352401 23598 net.cpp:141] Setting up pool3/3x3_s2_pool3/3x3_s2_0_split
I0403 21:36:35.352423 23598 net.cpp:148] Top shape: 24 480 14 14 (2257920)
I0403 21:36:35.352439 23598 net.cpp:148] Top shape: 24 480 14 14 (2257920)
I0403 21:36:35.352455 23598 net.cpp:148] Top shape: 24 480 14 14 (2257920)
I0403 21:36:35.352480 23598 net.cpp:148] Top shape: 24 480 14 14 (2257920)
I0403 21:36:35.352494 23598 net.cpp:156] Memory required for data: 854397984
I0403 21:36:35.352509 23598 layer_factory.hpp:77] Creating layer inception_4a/1x1
I0403 21:36:35.352531 23598 net.cpp:91] Creating Layer inception_4a/1x1
I0403 21:36:35.352547 23598 net.cpp:425] inception_4a/1x1 <- pool3/3x3_s2_pool3/3x3_s2_0_split_0
I0403 21:36:35.352569 23598 net.cpp:399] inception_4a/1x1 -> inception_4a/1x1
I0403 21:36:35.354076 23598 net.cpp:141] Setting up inception_4a/1x1
I0403 21:36:35.354104 23598 net.cpp:148] Top shape: 24 192 14 14 (903168)
I0403 21:36:35.354120 23598 net.cpp:156] Memory required for data: 858010656
I0403 21:36:35.354138 23598 layer_factory.hpp:77] Creating layer inception_4a/relu_1x1
I0403 21:36:35.354159 23598 net.cpp:91] Creating Layer inception_4a/relu_1x1
I0403 21:36:35.354185 23598 net.cpp:425] inception_4a/relu_1x1 <- inception_4a/1x1
I0403 21:36:35.354202 23598 net.cpp:386] inception_4a/relu_1x1 -> inception_4a/1x1 (in-place)
I0403 21:36:35.354374 23598 net.cpp:141] Setting up inception_4a/relu_1x1
I0403 21:36:35.354403 23598 net.cpp:148] Top shape: 24 192 14 14 (903168)
I0403 21:36:35.354419 23598 net.cpp:156] Memory required for data: 861623328
I0403 21:36:35.354435 23598 layer_factory.hpp:77] Creating layer inception_4a/3x3_reduce
I0403 21:36:35.354455 23598 net.cpp:91] Creating Layer inception_4a/3x3_reduce
I0403 21:36:35.354480 23598 net.cpp:425] inception_4a/3x3_reduce <- pool3/3x3_s2_pool3/3x3_s2_0_split_1
I0403 21:36:35.354498 23598 net.cpp:399] inception_4a/3x3_reduce -> inception_4a/3x3_reduce
I0403 21:36:35.355728 23598 net.cpp:141] Setting up inception_4a/3x3_reduce
I0403 21:36:35.355756 23598 net.cpp:148] Top shape: 24 96 14 14 (451584)
I0403 21:36:35.355772 23598 net.cpp:156] Memory required for data: 863429664
I0403 21:36:35.355799 23598 layer_factory.hpp:77] Creating layer inception_4a/relu_3x3_reduce
I0403 21:36:35.355819 23598 net.cpp:91] Creating Layer inception_4a/relu_3x3_reduce
I0403 21:36:35.355835 23598 net.cpp:425] inception_4a/relu_3x3_reduce <- inception_4a/3x3_reduce
I0403 21:36:35.355854 23598 net.cpp:386] inception_4a/relu_3x3_reduce -> inception_4a/3x3_reduce (in-place)
I0403 21:36:35.356026 23598 net.cpp:141] Setting up inception_4a/relu_3x3_reduce
I0403 21:36:35.356050 23598 net.cpp:148] Top shape: 24 96 14 14 (451584)
I0403 21:36:35.356068 23598 net.cpp:156] Memory required for data: 865236000
I0403 21:36:35.356083 23598 layer_factory.hpp:77] Creating layer inception_4a/3x3
I0403 21:36:35.356102 23598 net.cpp:91] Creating Layer inception_4a/3x3
I0403 21:36:35.356118 23598 net.cpp:425] inception_4a/3x3 <- inception_4a/3x3_reduce
I0403 21:36:35.356139 23598 net.cpp:399] inception_4a/3x3 -> inception_4a/3x3
I0403 21:36:35.358750 23598 net.cpp:141] Setting up inception_4a/3x3
I0403 21:36:35.358779 23598 net.cpp:148] Top shape: 24 208 14 14 (978432)
I0403 21:36:35.358795 23598 net.cpp:156] Memory required for data: 869149728
I0403 21:36:35.358813 23598 layer_factory.hpp:77] Creating layer inception_4a/relu_3x3
I0403 21:36:35.358834 23598 net.cpp:91] Creating Layer inception_4a/relu_3x3
I0403 21:36:35.358850 23598 net.cpp:425] inception_4a/relu_3x3 <- inception_4a/3x3
I0403 21:36:35.358867 23598 net.cpp:386] inception_4a/relu_3x3 -> inception_4a/3x3 (in-place)
I0403 21:36:35.359139 23598 net.cpp:141] Setting up inception_4a/relu_3x3
I0403 21:36:35.359165 23598 net.cpp:148] Top shape: 24 208 14 14 (978432)
I0403 21:36:35.359179 23598 net.cpp:156] Memory required for data: 873063456
I0403 21:36:35.359194 23598 layer_factory.hpp:77] Creating layer inception_4a/5x5_reduce
I0403 21:36:35.359218 23598 net.cpp:91] Creating Layer inception_4a/5x5_reduce
I0403 21:36:35.359241 23598 net.cpp:425] inception_4a/5x5_reduce <- pool3/3x3_s2_pool3/3x3_s2_0_split_2
I0403 21:36:35.359261 23598 net.cpp:399] inception_4a/5x5_reduce -> inception_4a/5x5_reduce
I0403 21:36:35.360236 23598 net.cpp:141] Setting up inception_4a/5x5_reduce
I0403 21:36:35.360266 23598 net.cpp:148] Top shape: 24 16 14 14 (75264)
I0403 21:36:35.360282 23598 net.cpp:156] Memory required for data: 873364512
I0403 21:36:35.360299 23598 layer_factory.hpp:77] Creating layer inception_4a/relu_5x5_reduce
I0403 21:36:35.360317 23598 net.cpp:91] Creating Layer inception_4a/relu_5x5_reduce
I0403 21:36:35.360334 23598 net.cpp:425] inception_4a/relu_5x5_reduce <- inception_4a/5x5_reduce
I0403 21:36:35.360354 23598 net.cpp:386] inception_4a/relu_5x5_reduce -> inception_4a/5x5_reduce (in-place)
I0403 21:36:35.360524 23598 net.cpp:141] Setting up inception_4a/relu_5x5_reduce
I0403 21:36:35.360549 23598 net.cpp:148] Top shape: 24 16 14 14 (75264)
I0403 21:36:35.360564 23598 net.cpp:156] Memory required for data: 873665568
I0403 21:36:35.360579 23598 layer_factory.hpp:77] Creating layer inception_4a/5x5
I0403 21:36:35.360599 23598 net.cpp:91] Creating Layer inception_4a/5x5
I0403 21:36:35.360616 23598 net.cpp:425] inception_4a/5x5 <- inception_4a/5x5_reduce
I0403 21:36:35.360637 23598 net.cpp:399] inception_4a/5x5 -> inception_4a/5x5
I0403 21:36:35.361681 23598 net.cpp:141] Setting up inception_4a/5x5
I0403 21:36:35.361708 23598 net.cpp:148] Top shape: 24 48 14 14 (225792)
I0403 21:36:35.361723 23598 net.cpp:156] Memory required for data: 874568736
I0403 21:36:35.361742 23598 layer_factory.hpp:77] Creating layer inception_4a/relu_5x5
I0403 21:36:35.361763 23598 net.cpp:91] Creating Layer inception_4a/relu_5x5
I0403 21:36:35.361780 23598 net.cpp:425] inception_4a/relu_5x5 <- inception_4a/5x5
I0403 21:36:35.361796 23598 net.cpp:386] inception_4a/relu_5x5 -> inception_4a/5x5 (in-place)
I0403 21:36:35.361966 23598 net.cpp:141] Setting up inception_4a/relu_5x5
I0403 21:36:35.361991 23598 net.cpp:148] Top shape: 24 48 14 14 (225792)
I0403 21:36:35.362005 23598 net.cpp:156] Memory required for data: 875471904
I0403 21:36:35.362020 23598 layer_factory.hpp:77] Creating layer inception_4a/pool
I0403 21:36:35.362040 23598 net.cpp:91] Creating Layer inception_4a/pool
I0403 21:36:35.362056 23598 net.cpp:425] inception_4a/pool <- pool3/3x3_s2_pool3/3x3_s2_0_split_3
I0403 21:36:35.362073 23598 net.cpp:399] inception_4a/pool -> inception_4a/pool
I0403 21:36:35.362135 23598 net.cpp:141] Setting up inception_4a/pool
I0403 21:36:35.362159 23598 net.cpp:148] Top shape: 24 480 14 14 (2257920)
I0403 21:36:35.362174 23598 net.cpp:156] Memory required for data: 884503584
I0403 21:36:35.362190 23598 layer_factory.hpp:77] Creating layer inception_4a/pool_proj
I0403 21:36:35.362210 23598 net.cpp:91] Creating Layer inception_4a/pool_proj
I0403 21:36:35.362231 23598 net.cpp:425] inception_4a/pool_proj <- inception_4a/pool
I0403 21:36:35.362253 23598 net.cpp:399] inception_4a/pool_proj -> inception_4a/pool_proj
I0403 21:36:35.363379 23598 net.cpp:141] Setting up inception_4a/pool_proj
I0403 21:36:35.363409 23598 net.cpp:148] Top shape: 24 64 14 14 (301056)
I0403 21:36:35.363437 23598 net.cpp:156] Memory required for data: 885707808
I0403 21:36:35.363457 23598 layer_factory.hpp:77] Creating layer inception_4a/relu_pool_proj
I0403 21:36:35.363488 23598 net.cpp:91] Creating Layer inception_4a/relu_pool_proj
I0403 21:36:35.363505 23598 net.cpp:425] inception_4a/relu_pool_proj <- inception_4a/pool_proj
I0403 21:36:35.363523 23598 net.cpp:386] inception_4a/relu_pool_proj -> inception_4a/pool_proj (in-place)
I0403 21:36:35.363795 23598 net.cpp:141] Setting up inception_4a/relu_pool_proj
I0403 21:36:35.363821 23598 net.cpp:148] Top shape: 24 64 14 14 (301056)
I0403 21:36:35.363836 23598 net.cpp:156] Memory required for data: 886912032
I0403 21:36:35.363850 23598 layer_factory.hpp:77] Creating layer inception_4a/output
I0403 21:36:35.363870 23598 net.cpp:91] Creating Layer inception_4a/output
I0403 21:36:35.363886 23598 net.cpp:425] inception_4a/output <- inception_4a/1x1
I0403 21:36:35.363903 23598 net.cpp:425] inception_4a/output <- inception_4a/3x3
I0403 21:36:35.363919 23598 net.cpp:425] inception_4a/output <- inception_4a/5x5
I0403 21:36:35.363934 23598 net.cpp:425] inception_4a/output <- inception_4a/pool_proj
I0403 21:36:35.363953 23598 net.cpp:399] inception_4a/output -> inception_4a/output
I0403 21:36:35.363994 23598 net.cpp:141] Setting up inception_4a/output
I0403 21:36:35.364019 23598 net.cpp:148] Top shape: 24 512 14 14 (2408448)
I0403 21:36:35.364035 23598 net.cpp:156] Memory required for data: 896545824
I0403 21:36:35.364050 23598 layer_factory.hpp:77] Creating layer inception_4a/output_inception_4a/output_0_split
I0403 21:36:35.364068 23598 net.cpp:91] Creating Layer inception_4a/output_inception_4a/output_0_split
I0403 21:36:35.364083 23598 net.cpp:425] inception_4a/output_inception_4a/output_0_split <- inception_4a/output
I0403 21:36:35.364102 23598 net.cpp:399] inception_4a/output_inception_4a/output_0_split -> inception_4a/output_inception_4a/output_0_split_0
I0403 21:36:35.364122 23598 net.cpp:399] inception_4a/output_inception_4a/output_0_split -> inception_4a/output_inception_4a/output_0_split_1
I0403 21:36:35.364143 23598 net.cpp:399] inception_4a/output_inception_4a/output_0_split -> inception_4a/output_inception_4a/output_0_split_2
I0403 21:36:35.364163 23598 net.cpp:399] inception_4a/output_inception_4a/output_0_split -> inception_4a/output_inception_4a/output_0_split_3
I0403 21:36:35.364184 23598 net.cpp:399] inception_4a/output_inception_4a/output_0_split -> inception_4a/output_inception_4a/output_0_split_4
I0403 21:36:35.364300 23598 net.cpp:141] Setting up inception_4a/output_inception_4a/output_0_split
I0403 21:36:35.364326 23598 net.cpp:148] Top shape: 24 512 14 14 (2408448)
I0403 21:36:35.364343 23598 net.cpp:148] Top shape: 24 512 14 14 (2408448)
I0403 21:36:35.364362 23598 net.cpp:148] Top shape: 24 512 14 14 (2408448)
I0403 21:36:35.364377 23598 net.cpp:148] Top shape: 24 512 14 14 (2408448)
I0403 21:36:35.364393 23598 net.cpp:148] Top shape: 24 512 14 14 (2408448)
I0403 21:36:35.364408 23598 net.cpp:156] Memory required for data: 944714784
I0403 21:36:35.364423 23598 layer_factory.hpp:77] Creating layer loss1/ave_pool
I0403 21:36:35.364440 23598 net.cpp:91] Creating Layer loss1/ave_pool
I0403 21:36:35.364456 23598 net.cpp:425] loss1/ave_pool <- inception_4a/output_inception_4a/output_0_split_0
I0403 21:36:35.364477 23598 net.cpp:399] loss1/ave_pool -> loss1/ave_pool
I0403 21:36:35.364680 23598 net.cpp:141] Setting up loss1/ave_pool
I0403 21:36:35.364706 23598 net.cpp:148] Top shape: 24 512 4 4 (196608)
I0403 21:36:35.364720 23598 net.cpp:156] Memory required for data: 945501216
I0403 21:36:35.364735 23598 layer_factory.hpp:77] Creating layer loss1/conv
I0403 21:36:35.364758 23598 net.cpp:91] Creating Layer loss1/conv
I0403 21:36:35.364775 23598 net.cpp:425] loss1/conv <- loss1/ave_pool
I0403 21:36:35.364797 23598 net.cpp:399] loss1/conv -> loss1/conv
I0403 21:36:35.366204 23598 net.cpp:141] Setting up loss1/conv
I0403 21:36:35.366238 23598 net.cpp:148] Top shape: 24 128 4 4 (49152)
I0403 21:36:35.366268 23598 net.cpp:156] Memory required for data: 945697824
I0403 21:36:35.366288 23598 layer_factory.hpp:77] Creating layer loss1/relu_conv
I0403 21:36:35.366307 23598 net.cpp:91] Creating Layer loss1/relu_conv
I0403 21:36:35.366323 23598 net.cpp:425] loss1/relu_conv <- loss1/conv
I0403 21:36:35.366343 23598 net.cpp:386] loss1/relu_conv -> loss1/conv (in-place)
I0403 21:36:35.366621 23598 net.cpp:141] Setting up loss1/relu_conv
I0403 21:36:35.366650 23598 net.cpp:148] Top shape: 24 128 4 4 (49152)
I0403 21:36:35.366667 23598 net.cpp:156] Memory required for data: 945894432
I0403 21:36:35.366682 23598 layer_factory.hpp:77] Creating layer loss1/fc
I0403 21:36:35.366704 23598 net.cpp:91] Creating Layer loss1/fc
I0403 21:36:35.366721 23598 net.cpp:425] loss1/fc <- loss1/conv
I0403 21:36:35.366742 23598 net.cpp:399] loss1/fc -> loss1/fc
I0403 21:36:35.384548 23598 net.cpp:141] Setting up loss1/fc
I0403 21:36:35.384585 23598 net.cpp:148] Top shape: 24 1024 (24576)
I0403 21:36:35.384601 23598 net.cpp:156] Memory required for data: 945992736
I0403 21:36:35.384619 23598 layer_factory.hpp:77] Creating layer loss1/relu_fc
I0403 21:36:35.384639 23598 net.cpp:91] Creating Layer loss1/relu_fc
I0403 21:36:35.384657 23598 net.cpp:425] loss1/relu_fc <- loss1/fc
I0403 21:36:35.384675 23598 net.cpp:386] loss1/relu_fc -> loss1/fc (in-place)
I0403 21:36:35.384851 23598 net.cpp:141] Setting up loss1/relu_fc
I0403 21:36:35.384878 23598 net.cpp:148] Top shape: 24 1024 (24576)
I0403 21:36:35.384894 23598 net.cpp:156] Memory required for data: 946091040
I0403 21:36:35.384909 23598 layer_factory.hpp:77] Creating layer loss1/drop_fc
I0403 21:36:35.384934 23598 net.cpp:91] Creating Layer loss1/drop_fc
I0403 21:36:35.384953 23598 net.cpp:425] loss1/drop_fc <- loss1/fc
I0403 21:36:35.384970 23598 net.cpp:386] loss1/drop_fc -> loss1/fc (in-place)
I0403 21:36:35.385021 23598 net.cpp:141] Setting up loss1/drop_fc
I0403 21:36:35.385045 23598 net.cpp:148] Top shape: 24 1024 (24576)
I0403 21:36:35.385058 23598 net.cpp:156] Memory required for data: 946189344
I0403 21:36:35.385073 23598 layer_factory.hpp:77] Creating layer loss1/classifier_plantvillage
I0403 21:36:35.385090 23598 net.cpp:91] Creating Layer loss1/classifier_plantvillage
I0403 21:36:35.385107 23598 net.cpp:425] loss1/classifier_plantvillage <- loss1/fc
I0403 21:36:35.385128 23598 net.cpp:399] loss1/classifier_plantvillage -> loss1/classifier_plantvillage
I0403 21:36:35.386036 23598 net.cpp:141] Setting up loss1/classifier_plantvillage
I0403 21:36:35.386064 23598 net.cpp:148] Top shape: 24 38 (912)
I0403 21:36:35.386078 23598 net.cpp:156] Memory required for data: 946192992
I0403 21:36:35.386096 23598 layer_factory.hpp:77] Creating layer loss1/classifier_plantvillage_loss1/classifier_plantvillage_0_split
I0403 21:36:35.386117 23598 net.cpp:91] Creating Layer loss1/classifier_plantvillage_loss1/classifier_plantvillage_0_split
I0403 21:36:35.386132 23598 net.cpp:425] loss1/classifier_plantvillage_loss1/classifier_plantvillage_0_split <- loss1/classifier_plantvillage
I0403 21:36:35.386149 23598 net.cpp:399] loss1/classifier_plantvillage_loss1/classifier_plantvillage_0_split -> loss1/classifier_plantvillage_loss1/classifier_plantvillage_0_split_0
I0403 21:36:35.386168 23598 net.cpp:399] loss1/classifier_plantvillage_loss1/classifier_plantvillage_0_split -> loss1/classifier_plantvillage_loss1/classifier_plantvillage_0_split_1
I0403 21:36:35.386200 23598 net.cpp:399] loss1/classifier_plantvillage_loss1/classifier_plantvillage_0_split -> loss1/classifier_plantvillage_loss1/classifier_plantvillage_0_split_2
I0403 21:36:35.386270 23598 net.cpp:141] Setting up loss1/classifier_plantvillage_loss1/classifier_plantvillage_0_split
I0403 21:36:35.386293 23598 net.cpp:148] Top shape: 24 38 (912)
I0403 21:36:35.386308 23598 net.cpp:148] Top shape: 24 38 (912)
I0403 21:36:35.386323 23598 net.cpp:148] Top shape: 24 38 (912)
I0403 21:36:35.386337 23598 net.cpp:156] Memory required for data: 946203936
I0403 21:36:35.386351 23598 layer_factory.hpp:77] Creating layer inception_4b/1x1
I0403 21:36:35.386373 23598 net.cpp:91] Creating Layer inception_4b/1x1
I0403 21:36:35.386406 23598 net.cpp:425] inception_4b/1x1 <- inception_4a/output_inception_4a/output_0_split_1
I0403 21:36:35.386425 23598 net.cpp:399] inception_4b/1x1 -> inception_4b/1x1
I0403 21:36:35.388031 23598 net.cpp:141] Setting up inception_4b/1x1
I0403 21:36:35.388062 23598 net.cpp:148] Top shape: 24 160 14 14 (752640)
I0403 21:36:35.388079 23598 net.cpp:156] Memory required for data: 949214496
I0403 21:36:35.388098 23598 layer_factory.hpp:77] Creating layer inception_4b/relu_1x1
I0403 21:36:35.388118 23598 net.cpp:91] Creating Layer inception_4b/relu_1x1
I0403 21:36:35.388134 23598 net.cpp:425] inception_4b/relu_1x1 <- inception_4b/1x1
I0403 21:36:35.388154 23598 net.cpp:386] inception_4b/relu_1x1 -> inception_4b/1x1 (in-place)
I0403 21:36:35.388352 23598 net.cpp:141] Setting up inception_4b/relu_1x1
I0403 21:36:35.388377 23598 net.cpp:148] Top shape: 24 160 14 14 (752640)
I0403 21:36:35.388392 23598 net.cpp:156] Memory required for data: 952225056
I0403 21:36:35.388407 23598 layer_factory.hpp:77] Creating layer inception_4b/3x3_reduce
I0403 21:36:35.388430 23598 net.cpp:91] Creating Layer inception_4b/3x3_reduce
I0403 21:36:35.388448 23598 net.cpp:425] inception_4b/3x3_reduce <- inception_4a/output_inception_4a/output_0_split_2
I0403 21:36:35.388468 23598 net.cpp:399] inception_4b/3x3_reduce -> inception_4b/3x3_reduce
I0403 21:36:35.389775 23598 net.cpp:141] Setting up inception_4b/3x3_reduce
I0403 21:36:35.389802 23598 net.cpp:148] Top shape: 24 112 14 14 (526848)
I0403 21:36:35.389818 23598 net.cpp:156] Memory required for data: 954332448
I0403 21:36:35.389837 23598 layer_factory.hpp:77] Creating layer inception_4b/relu_3x3_reduce
I0403 21:36:35.389854 23598 net.cpp:91] Creating Layer inception_4b/relu_3x3_reduce
I0403 21:36:35.389870 23598 net.cpp:425] inception_4b/relu_3x3_reduce <- inception_4b/3x3_reduce
I0403 21:36:35.389889 23598 net.cpp:386] inception_4b/relu_3x3_reduce -> inception_4b/3x3_reduce (in-place)
I0403 21:36:35.390162 23598 net.cpp:141] Setting up inception_4b/relu_3x3_reduce
I0403 21:36:35.390188 23598 net.cpp:148] Top shape: 24 112 14 14 (526848)
I0403 21:36:35.390204 23598 net.cpp:156] Memory required for data: 956439840
I0403 21:36:35.390219 23598 layer_factory.hpp:77] Creating layer inception_4b/3x3
I0403 21:36:35.390246 23598 net.cpp:91] Creating Layer inception_4b/3x3
I0403 21:36:35.390265 23598 net.cpp:425] inception_4b/3x3 <- inception_4b/3x3_reduce
I0403 21:36:35.390287 23598 net.cpp:399] inception_4b/3x3 -> inception_4b/3x3
I0403 21:36:35.393178 23598 net.cpp:141] Setting up inception_4b/3x3
I0403 21:36:35.393208 23598 net.cpp:148] Top shape: 24 224 14 14 (1053696)
I0403 21:36:35.393224 23598 net.cpp:156] Memory required for data: 960654624
I0403 21:36:35.393249 23598 layer_factory.hpp:77] Creating layer inception_4b/relu_3x3
I0403 21:36:35.393270 23598 net.cpp:91] Creating Layer inception_4b/relu_3x3
I0403 21:36:35.393286 23598 net.cpp:425] inception_4b/relu_3x3 <- inception_4b/3x3
I0403 21:36:35.393304 23598 net.cpp:386] inception_4b/relu_3x3 -> inception_4b/3x3 (in-place)
I0403 21:36:35.393484 23598 net.cpp:141] Setting up inception_4b/relu_3x3
I0403 21:36:35.393512 23598 net.cpp:148] Top shape: 24 224 14 14 (1053696)
I0403 21:36:35.393527 23598 net.cpp:156] Memory required for data: 964869408
I0403 21:36:35.393540 23598 layer_factory.hpp:77] Creating layer inception_4b/5x5_reduce
I0403 21:36:35.393563 23598 net.cpp:91] Creating Layer inception_4b/5x5_reduce
I0403 21:36:35.393581 23598 net.cpp:425] inception_4b/5x5_reduce <- inception_4a/output_inception_4a/output_0_split_3
I0403 21:36:35.393600 23598 net.cpp:399] inception_4b/5x5_reduce -> inception_4b/5x5_reduce
I0403 21:36:35.394652 23598 net.cpp:141] Setting up inception_4b/5x5_reduce
I0403 21:36:35.394680 23598 net.cpp:148] Top shape: 24 24 14 14 (112896)
I0403 21:36:35.394696 23598 net.cpp:156] Memory required for data: 965320992
I0403 21:36:35.394713 23598 layer_factory.hpp:77] Creating layer inception_4b/relu_5x5_reduce
I0403 21:36:35.394731 23598 net.cpp:91] Creating Layer inception_4b/relu_5x5_reduce
I0403 21:36:35.394762 23598 net.cpp:425] inception_4b/relu_5x5_reduce <- inception_4b/5x5_reduce
I0403 21:36:35.394783 23598 net.cpp:386] inception_4b/relu_5x5_reduce -> inception_4b/5x5_reduce (in-place)
I0403 21:36:35.394963 23598 net.cpp:141] Setting up inception_4b/relu_5x5_reduce
I0403 21:36:35.394989 23598 net.cpp:148] Top shape: 24 24 14 14 (112896)
I0403 21:36:35.395004 23598 net.cpp:156] Memory required for data: 965772576
I0403 21:36:35.395017 23598 layer_factory.hpp:77] Creating layer inception_4b/5x5
I0403 21:36:35.395038 23598 net.cpp:91] Creating Layer inception_4b/5x5
I0403 21:36:35.395056 23598 net.cpp:425] inception_4b/5x5 <- inception_4b/5x5_reduce
I0403 21:36:35.395076 23598 net.cpp:399] inception_4b/5x5 -> inception_4b/5x5
I0403 21:36:35.396281 23598 net.cpp:141] Setting up inception_4b/5x5
I0403 21:36:35.396311 23598 net.cpp:148] Top shape: 24 64 14 14 (301056)
I0403 21:36:35.396327 23598 net.cpp:156] Memory required for data: 966976800
I0403 21:36:35.396344 23598 layer_factory.hpp:77] Creating layer inception_4b/relu_5x5
I0403 21:36:35.396363 23598 net.cpp:91] Creating Layer inception_4b/relu_5x5
I0403 21:36:35.396379 23598 net.cpp:425] inception_4b/relu_5x5 <- inception_4b/5x5
I0403 21:36:35.396399 23598 net.cpp:386] inception_4b/relu_5x5 -> inception_4b/5x5 (in-place)
I0403 21:36:35.396682 23598 net.cpp:141] Setting up inception_4b/relu_5x5
I0403 21:36:35.396710 23598 net.cpp:148] Top shape: 24 64 14 14 (301056)
I0403 21:36:35.396726 23598 net.cpp:156] Memory required for data: 968181024
I0403 21:36:35.396740 23598 layer_factory.hpp:77] Creating layer inception_4b/pool
I0403 21:36:35.396759 23598 net.cpp:91] Creating Layer inception_4b/pool
I0403 21:36:35.396773 23598 net.cpp:425] inception_4b/pool <- inception_4a/output_inception_4a/output_0_split_4
I0403 21:36:35.396796 23598 net.cpp:399] inception_4b/pool -> inception_4b/pool
I0403 21:36:35.396858 23598 net.cpp:141] Setting up inception_4b/pool
I0403 21:36:35.396883 23598 net.cpp:148] Top shape: 24 512 14 14 (2408448)
I0403 21:36:35.396896 23598 net.cpp:156] Memory required for data: 977814816
I0403 21:36:35.396911 23598 layer_factory.hpp:77] Creating layer inception_4b/pool_proj
I0403 21:36:35.396932 23598 net.cpp:91] Creating Layer inception_4b/pool_proj
I0403 21:36:35.396951 23598 net.cpp:425] inception_4b/pool_proj <- inception_4b/pool
I0403 21:36:35.396971 23598 net.cpp:399] inception_4b/pool_proj -> inception_4b/pool_proj
I0403 21:36:35.398144 23598 net.cpp:141] Setting up inception_4b/pool_proj
I0403 21:36:35.398175 23598 net.cpp:148] Top shape: 24 64 14 14 (301056)
I0403 21:36:35.398191 23598 net.cpp:156] Memory required for data: 979019040
I0403 21:36:35.398210 23598 layer_factory.hpp:77] Creating layer inception_4b/relu_pool_proj
I0403 21:36:35.398226 23598 net.cpp:91] Creating Layer inception_4b/relu_pool_proj
I0403 21:36:35.398253 23598 net.cpp:425] inception_4b/relu_pool_proj <- inception_4b/pool_proj
I0403 21:36:35.398273 23598 net.cpp:386] inception_4b/relu_pool_proj -> inception_4b/pool_proj (in-place)
I0403 21:36:35.398450 23598 net.cpp:141] Setting up inception_4b/relu_pool_proj
I0403 21:36:35.398475 23598 net.cpp:148] Top shape: 24 64 14 14 (301056)
I0403 21:36:35.398490 23598 net.cpp:156] Memory required for data: 980223264
I0403 21:36:35.398504 23598 layer_factory.hpp:77] Creating layer inception_4b/output
I0403 21:36:35.398521 23598 net.cpp:91] Creating Layer inception_4b/output
I0403 21:36:35.398536 23598 net.cpp:425] inception_4b/output <- inception_4b/1x1
I0403 21:36:35.398553 23598 net.cpp:425] inception_4b/output <- inception_4b/3x3
I0403 21:36:35.398569 23598 net.cpp:425] inception_4b/output <- inception_4b/5x5
I0403 21:36:35.398584 23598 net.cpp:425] inception_4b/output <- inception_4b/pool_proj
I0403 21:36:35.398602 23598 net.cpp:399] inception_4b/output -> inception_4b/output
I0403 21:36:35.398648 23598 net.cpp:141] Setting up inception_4b/output
I0403 21:36:35.398674 23598 net.cpp:148] Top shape: 24 512 14 14 (2408448)
I0403 21:36:35.398689 23598 net.cpp:156] Memory required for data: 989857056
I0403 21:36:35.398716 23598 layer_factory.hpp:77] Creating layer inception_4b/output_inception_4b/output_0_split
I0403 21:36:35.398735 23598 net.cpp:91] Creating Layer inception_4b/output_inception_4b/output_0_split
I0403 21:36:35.398751 23598 net.cpp:425] inception_4b/output_inception_4b/output_0_split <- inception_4b/output
I0403 21:36:35.398771 23598 net.cpp:399] inception_4b/output_inception_4b/output_0_split -> inception_4b/output_inception_4b/output_0_split_0
I0403 21:36:35.398790 23598 net.cpp:399] inception_4b/output_inception_4b/output_0_split -> inception_4b/output_inception_4b/output_0_split_1
I0403 21:36:35.398811 23598 net.cpp:399] inception_4b/output_inception_4b/output_0_split -> inception_4b/output_inception_4b/output_0_split_2
I0403 21:36:35.398831 23598 net.cpp:399] inception_4b/output_inception_4b/output_0_split -> inception_4b/output_inception_4b/output_0_split_3
I0403 21:36:35.398913 23598 net.cpp:141] Setting up inception_4b/output_inception_4b/output_0_split
I0403 21:36:35.398937 23598 net.cpp:148] Top shape: 24 512 14 14 (2408448)
I0403 21:36:35.398953 23598 net.cpp:148] Top shape: 24 512 14 14 (2408448)
I0403 21:36:35.398968 23598 net.cpp:148] Top shape: 24 512 14 14 (2408448)
I0403 21:36:35.398983 23598 net.cpp:148] Top shape: 24 512 14 14 (2408448)
I0403 21:36:35.398996 23598 net.cpp:156] Memory required for data: 1028392224
I0403 21:36:35.399011 23598 layer_factory.hpp:77] Creating layer inception_4c/1x1
I0403 21:36:35.399034 23598 net.cpp:91] Creating Layer inception_4c/1x1
I0403 21:36:35.399051 23598 net.cpp:425] inception_4c/1x1 <- inception_4b/output_inception_4b/output_0_split_0
I0403 21:36:35.399070 23598 net.cpp:399] inception_4c/1x1 -> inception_4c/1x1
I0403 21:36:35.400466 23598 net.cpp:141] Setting up inception_4c/1x1
I0403 21:36:35.400495 23598 net.cpp:148] Top shape: 24 128 14 14 (602112)
I0403 21:36:35.400509 23598 net.cpp:156] Memory required for data: 1030800672
I0403 21:36:35.400527 23598 layer_factory.hpp:77] Creating layer inception_4c/relu_1x1
I0403 21:36:35.400547 23598 net.cpp:91] Creating Layer inception_4c/relu_1x1
I0403 21:36:35.400565 23598 net.cpp:425] inception_4c/relu_1x1 <- inception_4c/1x1
I0403 21:36:35.400583 23598 net.cpp:386] inception_4c/relu_1x1 -> inception_4c/1x1 (in-place)
I0403 21:36:35.400758 23598 net.cpp:141] Setting up inception_4c/relu_1x1
I0403 21:36:35.400784 23598 net.cpp:148] Top shape: 24 128 14 14 (602112)
I0403 21:36:35.400800 23598 net.cpp:156] Memory required for data: 1033209120
I0403 21:36:35.400815 23598 layer_factory.hpp:77] Creating layer inception_4c/3x3_reduce
I0403 21:36:35.400835 23598 net.cpp:91] Creating Layer inception_4c/3x3_reduce
I0403 21:36:35.400851 23598 net.cpp:425] inception_4c/3x3_reduce <- inception_4b/output_inception_4b/output_0_split_1
I0403 21:36:35.400871 23598 net.cpp:399] inception_4c/3x3_reduce -> inception_4c/3x3_reduce
I0403 21:36:35.402773 23598 net.cpp:141] Setting up inception_4c/3x3_reduce
I0403 21:36:35.402804 23598 net.cpp:148] Top shape: 24 128 14 14 (602112)
I0403 21:36:35.402822 23598 net.cpp:156] Memory required for data: 1035617568
I0403 21:36:35.402840 23598 layer_factory.hpp:77] Creating layer inception_4c/relu_3x3_reduce
I0403 21:36:35.402858 23598 net.cpp:91] Creating Layer inception_4c/relu_3x3_reduce
I0403 21:36:35.402873 23598 net.cpp:425] inception_4c/relu_3x3_reduce <- inception_4c/3x3_reduce
I0403 21:36:35.402890 23598 net.cpp:386] inception_4c/relu_3x3_reduce -> inception_4c/3x3_reduce (in-place)
I0403 21:36:35.403173 23598 net.cpp:141] Setting up inception_4c/relu_3x3_reduce
I0403 21:36:35.403209 23598 net.cpp:148] Top shape: 24 128 14 14 (602112)
I0403 21:36:35.403230 23598 net.cpp:156] Memory required for data: 1038026016
I0403 21:36:35.403247 23598 layer_factory.hpp:77] Creating layer inception_4c/3x3
I0403 21:36:35.403270 23598 net.cpp:91] Creating Layer inception_4c/3x3
I0403 21:36:35.403288 23598 net.cpp:425] inception_4c/3x3 <- inception_4c/3x3_reduce
I0403 21:36:35.403307 23598 net.cpp:399] inception_4c/3x3 -> inception_4c/3x3
I0403 21:36:35.406857 23598 net.cpp:141] Setting up inception_4c/3x3
I0403 21:36:35.406898 23598 net.cpp:148] Top shape: 24 256 14 14 (1204224)
I0403 21:36:35.406915 23598 net.cpp:156] Memory required for data: 1042842912
I0403 21:36:35.406946 23598 layer_factory.hpp:77] Creating layer inception_4c/relu_3x3
I0403 21:36:35.406967 23598 net.cpp:91] Creating Layer inception_4c/relu_3x3
I0403 21:36:35.406983 23598 net.cpp:425] inception_4c/relu_3x3 <- inception_4c/3x3
I0403 21:36:35.407003 23598 net.cpp:386] inception_4c/relu_3x3 -> inception_4c/3x3 (in-place)
I0403 21:36:35.407188 23598 net.cpp:141] Setting up inception_4c/relu_3x3
I0403 21:36:35.407214 23598 net.cpp:148] Top shape: 24 256 14 14 (1204224)
I0403 21:36:35.407233 23598 net.cpp:156] Memory required for data: 1047659808
I0403 21:36:35.407250 23598 layer_factory.hpp:77] Creating layer inception_4c/5x5_reduce
I0403 21:36:35.407272 23598 net.cpp:91] Creating Layer inception_4c/5x5_reduce
I0403 21:36:35.407291 23598 net.cpp:425] inception_4c/5x5_reduce <- inception_4b/output_inception_4b/output_0_split_2
I0403 21:36:35.407313 23598 net.cpp:399] inception_4c/5x5_reduce -> inception_4c/5x5_reduce
I0403 21:36:35.408382 23598 net.cpp:141] Setting up inception_4c/5x5_reduce
I0403 21:36:35.408416 23598 net.cpp:148] Top shape: 24 24 14 14 (112896)
I0403 21:36:35.408432 23598 net.cpp:156] Memory required for data: 1048111392
I0403 21:36:35.408450 23598 layer_factory.hpp:77] Creating layer inception_4c/relu_5x5_reduce
I0403 21:36:35.408468 23598 net.cpp:91] Creating Layer inception_4c/relu_5x5_reduce
I0403 21:36:35.408486 23598 net.cpp:425] inception_4c/relu_5x5_reduce <- inception_4c/5x5_reduce
I0403 21:36:35.408506 23598 net.cpp:386] inception_4c/relu_5x5_reduce -> inception_4c/5x5_reduce (in-place)
I0403 21:36:35.408689 23598 net.cpp:141] Setting up inception_4c/relu_5x5_reduce
I0403 21:36:35.408713 23598 net.cpp:148] Top shape: 24 24 14 14 (112896)
I0403 21:36:35.408727 23598 net.cpp:156] Memory required for data: 1048562976
I0403 21:36:35.408742 23598 layer_factory.hpp:77] Creating layer inception_4c/5x5
I0403 21:36:35.408763 23598 net.cpp:91] Creating Layer inception_4c/5x5
I0403 21:36:35.408781 23598 net.cpp:425] inception_4c/5x5 <- inception_4c/5x5_reduce
I0403 21:36:35.408802 23598 net.cpp:399] inception_4c/5x5 -> inception_4c/5x5
I0403 21:36:35.410006 23598 net.cpp:141] Setting up inception_4c/5x5
I0403 21:36:35.410033 23598 net.cpp:148] Top shape: 24 64 14 14 (301056)
I0403 21:36:35.410048 23598 net.cpp:156] Memory required for data: 1049767200
I0403 21:36:35.410068 23598 layer_factory.hpp:77] Creating layer inception_4c/relu_5x5
I0403 21:36:35.410085 23598 net.cpp:91] Creating Layer inception_4c/relu_5x5
I0403 21:36:35.410101 23598 net.cpp:425] inception_4c/relu_5x5 <- inception_4c/5x5
I0403 21:36:35.410120 23598 net.cpp:386] inception_4c/relu_5x5 -> inception_4c/5x5 (in-place)
I0403 21:36:35.410411 23598 net.cpp:141] Setting up inception_4c/relu_5x5
I0403 21:36:35.410439 23598 net.cpp:148] Top shape: 24 64 14 14 (301056)
I0403 21:36:35.410454 23598 net.cpp:156] Memory required for data: 1050971424
I0403 21:36:35.410468 23598 layer_factory.hpp:77] Creating layer inception_4c/pool
I0403 21:36:35.410485 23598 net.cpp:91] Creating Layer inception_4c/pool
I0403 21:36:35.410501 23598 net.cpp:425] inception_4c/pool <- inception_4b/output_inception_4b/output_0_split_3
I0403 21:36:35.410521 23598 net.cpp:399] inception_4c/pool -> inception_4c/pool
I0403 21:36:35.410586 23598 net.cpp:141] Setting up inception_4c/pool
I0403 21:36:35.410609 23598 net.cpp:148] Top shape: 24 512 14 14 (2408448)
I0403 21:36:35.410624 23598 net.cpp:156] Memory required for data: 1060605216
I0403 21:36:35.410640 23598 layer_factory.hpp:77] Creating layer inception_4c/pool_proj
I0403 21:36:35.410662 23598 net.cpp:91] Creating Layer inception_4c/pool_proj
I0403 21:36:35.410679 23598 net.cpp:425] inception_4c/pool_proj <- inception_4c/pool
I0403 21:36:35.410697 23598 net.cpp:399] inception_4c/pool_proj -> inception_4c/pool_proj
I0403 21:36:35.411912 23598 net.cpp:141] Setting up inception_4c/pool_proj
I0403 21:36:35.411942 23598 net.cpp:148] Top shape: 24 64 14 14 (301056)
I0403 21:36:35.411977 23598 net.cpp:156] Memory required for data: 1061809440
I0403 21:36:35.411995 23598 layer_factory.hpp:77] Creating layer inception_4c/relu_pool_proj
I0403 21:36:35.412012 23598 net.cpp:91] Creating Layer inception_4c/relu_pool_proj
I0403 21:36:35.412029 23598 net.cpp:425] inception_4c/relu_pool_proj <- inception_4c/pool_proj
I0403 21:36:35.412048 23598 net.cpp:386] inception_4c/relu_pool_proj -> inception_4c/pool_proj (in-place)
I0403 21:36:35.412233 23598 net.cpp:141] Setting up inception_4c/relu_pool_proj
I0403 21:36:35.412258 23598 net.cpp:148] Top shape: 24 64 14 14 (301056)
I0403 21:36:35.412272 23598 net.cpp:156] Memory required for data: 1063013664
I0403 21:36:35.412286 23598 layer_factory.hpp:77] Creating layer inception_4c/output
I0403 21:36:35.412303 23598 net.cpp:91] Creating Layer inception_4c/output
I0403 21:36:35.412318 23598 net.cpp:425] inception_4c/output <- inception_4c/1x1
I0403 21:36:35.412334 23598 net.cpp:425] inception_4c/output <- inception_4c/3x3
I0403 21:36:35.412351 23598 net.cpp:425] inception_4c/output <- inception_4c/5x5
I0403 21:36:35.412367 23598 net.cpp:425] inception_4c/output <- inception_4c/pool_proj
I0403 21:36:35.412385 23598 net.cpp:399] inception_4c/output -> inception_4c/output
I0403 21:36:35.412431 23598 net.cpp:141] Setting up inception_4c/output
I0403 21:36:35.412457 23598 net.cpp:148] Top shape: 24 512 14 14 (2408448)
I0403 21:36:35.412472 23598 net.cpp:156] Memory required for data: 1072647456
I0403 21:36:35.412487 23598 layer_factory.hpp:77] Creating layer inception_4c/output_inception_4c/output_0_split
I0403 21:36:35.412504 23598 net.cpp:91] Creating Layer inception_4c/output_inception_4c/output_0_split
I0403 21:36:35.412518 23598 net.cpp:425] inception_4c/output_inception_4c/output_0_split <- inception_4c/output
I0403 21:36:35.412535 23598 net.cpp:399] inception_4c/output_inception_4c/output_0_split -> inception_4c/output_inception_4c/output_0_split_0
I0403 21:36:35.412556 23598 net.cpp:399] inception_4c/output_inception_4c/output_0_split -> inception_4c/output_inception_4c/output_0_split_1
I0403 21:36:35.412578 23598 net.cpp:399] inception_4c/output_inception_4c/output_0_split -> inception_4c/output_inception_4c/output_0_split_2
I0403 21:36:35.412598 23598 net.cpp:399] inception_4c/output_inception_4c/output_0_split -> inception_4c/output_inception_4c/output_0_split_3
I0403 21:36:35.412683 23598 net.cpp:141] Setting up inception_4c/output_inception_4c/output_0_split
I0403 21:36:35.412706 23598 net.cpp:148] Top shape: 24 512 14 14 (2408448)
I0403 21:36:35.412722 23598 net.cpp:148] Top shape: 24 512 14 14 (2408448)
I0403 21:36:35.412737 23598 net.cpp:148] Top shape: 24 512 14 14 (2408448)
I0403 21:36:35.412752 23598 net.cpp:148] Top shape: 24 512 14 14 (2408448)
I0403 21:36:35.412766 23598 net.cpp:156] Memory required for data: 1111182624
I0403 21:36:35.412781 23598 layer_factory.hpp:77] Creating layer inception_4d/1x1
I0403 21:36:35.412803 23598 net.cpp:91] Creating Layer inception_4d/1x1
I0403 21:36:35.412822 23598 net.cpp:425] inception_4d/1x1 <- inception_4c/output_inception_4c/output_0_split_0
I0403 21:36:35.412839 23598 net.cpp:399] inception_4d/1x1 -> inception_4d/1x1
I0403 21:36:35.414235 23598 net.cpp:141] Setting up inception_4d/1x1
I0403 21:36:35.414264 23598 net.cpp:148] Top shape: 24 112 14 14 (526848)
I0403 21:36:35.414280 23598 net.cpp:156] Memory required for data: 1113290016
I0403 21:36:35.414299 23598 layer_factory.hpp:77] Creating layer inception_4d/relu_1x1
I0403 21:36:35.414319 23598 net.cpp:91] Creating Layer inception_4d/relu_1x1
I0403 21:36:35.414335 23598 net.cpp:425] inception_4d/relu_1x1 <- inception_4d/1x1
I0403 21:36:35.414352 23598 net.cpp:386] inception_4d/relu_1x1 -> inception_4d/1x1 (in-place)
I0403 21:36:35.414538 23598 net.cpp:141] Setting up inception_4d/relu_1x1
I0403 21:36:35.414566 23598 net.cpp:148] Top shape: 24 112 14 14 (526848)
I0403 21:36:35.414582 23598 net.cpp:156] Memory required for data: 1115397408
I0403 21:36:35.414597 23598 layer_factory.hpp:77] Creating layer inception_4d/3x3_reduce
I0403 21:36:35.414634 23598 net.cpp:91] Creating Layer inception_4d/3x3_reduce
I0403 21:36:35.414654 23598 net.cpp:425] inception_4d/3x3_reduce <- inception_4c/output_inception_4c/output_0_split_1
I0403 21:36:35.414674 23598 net.cpp:399] inception_4d/3x3_reduce -> inception_4d/3x3_reduce
I0403 21:36:35.416193 23598 net.cpp:141] Setting up inception_4d/3x3_reduce
I0403 21:36:35.416220 23598 net.cpp:148] Top shape: 24 144 14 14 (677376)
I0403 21:36:35.416241 23598 net.cpp:156] Memory required for data: 1118106912
I0403 21:36:35.416260 23598 layer_factory.hpp:77] Creating layer inception_4d/relu_3x3_reduce
I0403 21:36:35.416282 23598 net.cpp:91] Creating Layer inception_4d/relu_3x3_reduce
I0403 21:36:35.416299 23598 net.cpp:425] inception_4d/relu_3x3_reduce <- inception_4d/3x3_reduce
I0403 21:36:35.416316 23598 net.cpp:386] inception_4d/relu_3x3_reduce -> inception_4d/3x3_reduce (in-place)
I0403 21:36:35.416609 23598 net.cpp:141] Setting up inception_4d/relu_3x3_reduce
I0403 21:36:35.416635 23598 net.cpp:148] Top shape: 24 144 14 14 (677376)
I0403 21:36:35.416651 23598 net.cpp:156] Memory required for data: 1120816416
I0403 21:36:35.416666 23598 layer_factory.hpp:77] Creating layer inception_4d/3x3
I0403 21:36:35.416688 23598 net.cpp:91] Creating Layer inception_4d/3x3
I0403 21:36:35.416707 23598 net.cpp:425] inception_4d/3x3 <- inception_4d/3x3_reduce
I0403 21:36:35.416728 23598 net.cpp:399] inception_4d/3x3 -> inception_4d/3x3
I0403 21:36:35.421015 23598 net.cpp:141] Setting up inception_4d/3x3
I0403 21:36:35.421043 23598 net.cpp:148] Top shape: 24 288 14 14 (1354752)
I0403 21:36:35.421062 23598 net.cpp:156] Memory required for data: 1126235424
I0403 21:36:35.421082 23598 layer_factory.hpp:77] Creating layer inception_4d/relu_3x3
I0403 21:36:35.421099 23598 net.cpp:91] Creating Layer inception_4d/relu_3x3
I0403 21:36:35.421116 23598 net.cpp:425] inception_4d/relu_3x3 <- inception_4d/3x3
I0403 21:36:35.421134 23598 net.cpp:386] inception_4d/relu_3x3 -> inception_4d/3x3 (in-place)
I0403 21:36:35.421325 23598 net.cpp:141] Setting up inception_4d/relu_3x3
I0403 21:36:35.421353 23598 net.cpp:148] Top shape: 24 288 14 14 (1354752)
I0403 21:36:35.421370 23598 net.cpp:156] Memory required for data: 1131654432
I0403 21:36:35.421385 23598 layer_factory.hpp:77] Creating layer inception_4d/5x5_reduce
I0403 21:36:35.421406 23598 net.cpp:91] Creating Layer inception_4d/5x5_reduce
I0403 21:36:35.421425 23598 net.cpp:425] inception_4d/5x5_reduce <- inception_4c/output_inception_4c/output_0_split_2
I0403 21:36:35.421444 23598 net.cpp:399] inception_4d/5x5_reduce -> inception_4d/5x5_reduce
I0403 21:36:35.422588 23598 net.cpp:141] Setting up inception_4d/5x5_reduce
I0403 21:36:35.422616 23598 net.cpp:148] Top shape: 24 32 14 14 (150528)
I0403 21:36:35.422632 23598 net.cpp:156] Memory required for data: 1132256544
I0403 21:36:35.422651 23598 layer_factory.hpp:77] Creating layer inception_4d/relu_5x5_reduce
I0403 21:36:35.422670 23598 net.cpp:91] Creating Layer inception_4d/relu_5x5_reduce
I0403 21:36:35.422688 23598 net.cpp:425] inception_4d/relu_5x5_reduce <- inception_4d/5x5_reduce
I0403 21:36:35.422706 23598 net.cpp:386] inception_4d/relu_5x5_reduce -> inception_4d/5x5_reduce (in-place)
I0403 21:36:35.422897 23598 net.cpp:141] Setting up inception_4d/relu_5x5_reduce
I0403 21:36:35.422922 23598 net.cpp:148] Top shape: 24 32 14 14 (150528)
I0403 21:36:35.422937 23598 net.cpp:156] Memory required for data: 1132858656
I0403 21:36:35.422955 23598 layer_factory.hpp:77] Creating layer inception_4d/5x5
I0403 21:36:35.422976 23598 net.cpp:91] Creating Layer inception_4d/5x5
I0403 21:36:35.422994 23598 net.cpp:425] inception_4d/5x5 <- inception_4d/5x5_reduce
I0403 21:36:35.423015 23598 net.cpp:399] inception_4d/5x5 -> inception_4d/5x5
I0403 21:36:35.424499 23598 net.cpp:141] Setting up inception_4d/5x5
I0403 21:36:35.424528 23598 net.cpp:148] Top shape: 24 64 14 14 (301056)
I0403 21:36:35.424545 23598 net.cpp:156] Memory required for data: 1134062880
I0403 21:36:35.424563 23598 layer_factory.hpp:77] Creating layer inception_4d/relu_5x5
I0403 21:36:35.424597 23598 net.cpp:91] Creating Layer inception_4d/relu_5x5
I0403 21:36:35.424614 23598 net.cpp:425] inception_4d/relu_5x5 <- inception_4d/5x5
I0403 21:36:35.424633 23598 net.cpp:386] inception_4d/relu_5x5 -> inception_4d/5x5 (in-place)
I0403 21:36:35.424938 23598 net.cpp:141] Setting up inception_4d/relu_5x5
I0403 21:36:35.424967 23598 net.cpp:148] Top shape: 24 64 14 14 (301056)
I0403 21:36:35.424981 23598 net.cpp:156] Memory required for data: 1135267104
I0403 21:36:35.424998 23598 layer_factory.hpp:77] Creating layer inception_4d/pool
I0403 21:36:35.425015 23598 net.cpp:91] Creating Layer inception_4d/pool
I0403 21:36:35.425031 23598 net.cpp:425] inception_4d/pool <- inception_4c/output_inception_4c/output_0_split_3
I0403 21:36:35.425052 23598 net.cpp:399] inception_4d/pool -> inception_4d/pool
I0403 21:36:35.425120 23598 net.cpp:141] Setting up inception_4d/pool
I0403 21:36:35.425145 23598 net.cpp:148] Top shape: 24 512 14 14 (2408448)
I0403 21:36:35.425159 23598 net.cpp:156] Memory required for data: 1144900896
I0403 21:36:35.425174 23598 layer_factory.hpp:77] Creating layer inception_4d/pool_proj
I0403 21:36:35.425199 23598 net.cpp:91] Creating Layer inception_4d/pool_proj
I0403 21:36:35.425216 23598 net.cpp:425] inception_4d/pool_proj <- inception_4d/pool
I0403 21:36:35.425240 23598 net.cpp:399] inception_4d/pool_proj -> inception_4d/pool_proj
I0403 21:36:35.427037 23598 net.cpp:141] Setting up inception_4d/pool_proj
I0403 21:36:35.427068 23598 net.cpp:148] Top shape: 24 64 14 14 (301056)
I0403 21:36:35.427085 23598 net.cpp:156] Memory required for data: 1146105120
I0403 21:36:35.427104 23598 layer_factory.hpp:77] Creating layer inception_4d/relu_pool_proj
I0403 21:36:35.427122 23598 net.cpp:91] Creating Layer inception_4d/relu_pool_proj
I0403 21:36:35.427139 23598 net.cpp:425] inception_4d/relu_pool_proj <- inception_4d/pool_proj
I0403 21:36:35.427157 23598 net.cpp:386] inception_4d/relu_pool_proj -> inception_4d/pool_proj (in-place)
I0403 21:36:35.427353 23598 net.cpp:141] Setting up inception_4d/relu_pool_proj
I0403 21:36:35.427381 23598 net.cpp:148] Top shape: 24 64 14 14 (301056)
I0403 21:36:35.427397 23598 net.cpp:156] Memory required for data: 1147309344
I0403 21:36:35.427412 23598 layer_factory.hpp:77] Creating layer inception_4d/output
I0403 21:36:35.427429 23598 net.cpp:91] Creating Layer inception_4d/output
I0403 21:36:35.427444 23598 net.cpp:425] inception_4d/output <- inception_4d/1x1
I0403 21:36:35.427461 23598 net.cpp:425] inception_4d/output <- inception_4d/3x3
I0403 21:36:35.427480 23598 net.cpp:425] inception_4d/output <- inception_4d/5x5
I0403 21:36:35.427495 23598 net.cpp:425] inception_4d/output <- inception_4d/pool_proj
I0403 21:36:35.427515 23598 net.cpp:399] inception_4d/output -> inception_4d/output
I0403 21:36:35.427562 23598 net.cpp:141] Setting up inception_4d/output
I0403 21:36:35.427587 23598 net.cpp:148] Top shape: 24 528 14 14 (2483712)
I0403 21:36:35.427602 23598 net.cpp:156] Memory required for data: 1157244192
I0403 21:36:35.427616 23598 layer_factory.hpp:77] Creating layer inception_4d/output_inception_4d/output_0_split
I0403 21:36:35.427636 23598 net.cpp:91] Creating Layer inception_4d/output_inception_4d/output_0_split
I0403 21:36:35.427654 23598 net.cpp:425] inception_4d/output_inception_4d/output_0_split <- inception_4d/output
I0403 21:36:35.427671 23598 net.cpp:399] inception_4d/output_inception_4d/output_0_split -> inception_4d/output_inception_4d/output_0_split_0
I0403 21:36:35.427696 23598 net.cpp:399] inception_4d/output_inception_4d/output_0_split -> inception_4d/output_inception_4d/output_0_split_1
I0403 21:36:35.427718 23598 net.cpp:399] inception_4d/output_inception_4d/output_0_split -> inception_4d/output_inception_4d/output_0_split_2
I0403 21:36:35.427741 23598 net.cpp:399] inception_4d/output_inception_4d/output_0_split -> inception_4d/output_inception_4d/output_0_split_3
I0403 21:36:35.427762 23598 net.cpp:399] inception_4d/output_inception_4d/output_0_split -> inception_4d/output_inception_4d/output_0_split_4
I0403 21:36:35.427862 23598 net.cpp:141] Setting up inception_4d/output_inception_4d/output_0_split
I0403 21:36:35.427899 23598 net.cpp:148] Top shape: 24 528 14 14 (2483712)
I0403 21:36:35.427917 23598 net.cpp:148] Top shape: 24 528 14 14 (2483712)
I0403 21:36:35.427932 23598 net.cpp:148] Top shape: 24 528 14 14 (2483712)
I0403 21:36:35.427948 23598 net.cpp:148] Top shape: 24 528 14 14 (2483712)
I0403 21:36:35.427964 23598 net.cpp:148] Top shape: 24 528 14 14 (2483712)
I0403 21:36:35.427978 23598 net.cpp:156] Memory required for data: 1206918432
I0403 21:36:35.427992 23598 layer_factory.hpp:77] Creating layer loss2/ave_pool
I0403 21:36:35.428011 23598 net.cpp:91] Creating Layer loss2/ave_pool
I0403 21:36:35.428030 23598 net.cpp:425] loss2/ave_pool <- inception_4d/output_inception_4d/output_0_split_0
I0403 21:36:35.428050 23598 net.cpp:399] loss2/ave_pool -> loss2/ave_pool
I0403 21:36:35.428374 23598 net.cpp:141] Setting up loss2/ave_pool
I0403 21:36:35.428402 23598 net.cpp:148] Top shape: 24 528 4 4 (202752)
I0403 21:36:35.428418 23598 net.cpp:156] Memory required for data: 1207729440
I0403 21:36:35.428434 23598 layer_factory.hpp:77] Creating layer loss2/conv
I0403 21:36:35.428453 23598 net.cpp:91] Creating Layer loss2/conv
I0403 21:36:35.428470 23598 net.cpp:425] loss2/conv <- loss2/ave_pool
I0403 21:36:35.428493 23598 net.cpp:399] loss2/conv -> loss2/conv
I0403 21:36:35.430426 23598 net.cpp:141] Setting up loss2/conv
I0403 21:36:35.430455 23598 net.cpp:148] Top shape: 24 128 4 4 (49152)
I0403 21:36:35.430471 23598 net.cpp:156] Memory required for data: 1207926048
I0403 21:36:35.430490 23598 layer_factory.hpp:77] Creating layer loss2/relu_conv
I0403 21:36:35.430508 23598 net.cpp:91] Creating Layer loss2/relu_conv
I0403 21:36:35.430526 23598 net.cpp:425] loss2/relu_conv <- loss2/conv
I0403 21:36:35.430546 23598 net.cpp:386] loss2/relu_conv -> loss2/conv (in-place)
I0403 21:36:35.430835 23598 net.cpp:141] Setting up loss2/relu_conv
I0403 21:36:35.430860 23598 net.cpp:148] Top shape: 24 128 4 4 (49152)
I0403 21:36:35.430876 23598 net.cpp:156] Memory required for data: 1208122656
I0403 21:36:35.430903 23598 layer_factory.hpp:77] Creating layer loss2/fc
I0403 21:36:35.430922 23598 net.cpp:91] Creating Layer loss2/fc
I0403 21:36:35.430938 23598 net.cpp:425] loss2/fc <- loss2/conv
I0403 21:36:35.430959 23598 net.cpp:399] loss2/fc -> loss2/fc
I0403 21:36:35.448246 23598 net.cpp:141] Setting up loss2/fc
I0403 21:36:35.448279 23598 net.cpp:148] Top shape: 24 1024 (24576)
I0403 21:36:35.448295 23598 net.cpp:156] Memory required for data: 1208220960
I0403 21:36:35.448313 23598 layer_factory.hpp:77] Creating layer loss2/relu_fc
I0403 21:36:35.448333 23598 net.cpp:91] Creating Layer loss2/relu_fc
I0403 21:36:35.448348 23598 net.cpp:425] loss2/relu_fc <- loss2/fc
I0403 21:36:35.448366 23598 net.cpp:386] loss2/relu_fc -> loss2/fc (in-place)
I0403 21:36:35.448662 23598 net.cpp:141] Setting up loss2/relu_fc
I0403 21:36:35.448690 23598 net.cpp:148] Top shape: 24 1024 (24576)
I0403 21:36:35.448706 23598 net.cpp:156] Memory required for data: 1208319264
I0403 21:36:35.448721 23598 layer_factory.hpp:77] Creating layer loss2/drop_fc
I0403 21:36:35.448739 23598 net.cpp:91] Creating Layer loss2/drop_fc
I0403 21:36:35.448753 23598 net.cpp:425] loss2/drop_fc <- loss2/fc
I0403 21:36:35.448770 23598 net.cpp:386] loss2/drop_fc -> loss2/fc (in-place)
I0403 21:36:35.448819 23598 net.cpp:141] Setting up loss2/drop_fc
I0403 21:36:35.448843 23598 net.cpp:148] Top shape: 24 1024 (24576)
I0403 21:36:35.448858 23598 net.cpp:156] Memory required for data: 1208417568
I0403 21:36:35.448871 23598 layer_factory.hpp:77] Creating layer loss2/classifier_plantvillage
I0403 21:36:35.448896 23598 net.cpp:91] Creating Layer loss2/classifier_plantvillage
I0403 21:36:35.448914 23598 net.cpp:425] loss2/classifier_plantvillage <- loss2/fc
I0403 21:36:35.448931 23598 net.cpp:399] loss2/classifier_plantvillage -> loss2/classifier_plantvillage
I0403 21:36:35.449326 23598 net.cpp:141] Setting up loss2/classifier_plantvillage
I0403 21:36:35.449352 23598 net.cpp:148] Top shape: 24 38 (912)
I0403 21:36:35.449383 23598 net.cpp:156] Memory required for data: 1208421216
I0403 21:36:35.449401 23598 layer_factory.hpp:77] Creating layer loss2/classifier_plantvillage_loss2/classifier_plantvillage_0_split
I0403 21:36:35.449420 23598 net.cpp:91] Creating Layer loss2/classifier_plantvillage_loss2/classifier_plantvillage_0_split
I0403 21:36:35.449435 23598 net.cpp:425] loss2/classifier_plantvillage_loss2/classifier_plantvillage_0_split <- loss2/classifier_plantvillage
I0403 21:36:35.449455 23598 net.cpp:399] loss2/classifier_plantvillage_loss2/classifier_plantvillage_0_split -> loss2/classifier_plantvillage_loss2/classifier_plantvillage_0_split_0
I0403 21:36:35.449476 23598 net.cpp:399] loss2/classifier_plantvillage_loss2/classifier_plantvillage_0_split -> loss2/classifier_plantvillage_loss2/classifier_plantvillage_0_split_1
I0403 21:36:35.449497 23598 net.cpp:399] loss2/classifier_plantvillage_loss2/classifier_plantvillage_0_split -> loss2/classifier_plantvillage_loss2/classifier_plantvillage_0_split_2
I0403 21:36:35.449571 23598 net.cpp:141] Setting up loss2/classifier_plantvillage_loss2/classifier_plantvillage_0_split
I0403 21:36:35.449596 23598 net.cpp:148] Top shape: 24 38 (912)
I0403 21:36:35.449614 23598 net.cpp:148] Top shape: 24 38 (912)
I0403 21:36:35.449630 23598 net.cpp:148] Top shape: 24 38 (912)
I0403 21:36:35.449643 23598 net.cpp:156] Memory required for data: 1208432160
I0403 21:36:35.449658 23598 layer_factory.hpp:77] Creating layer inception_4e/1x1
I0403 21:36:35.449678 23598 net.cpp:91] Creating Layer inception_4e/1x1
I0403 21:36:35.449694 23598 net.cpp:425] inception_4e/1x1 <- inception_4d/output_inception_4d/output_0_split_1
I0403 21:36:35.449713 23598 net.cpp:399] inception_4e/1x1 -> inception_4e/1x1
I0403 21:36:35.451501 23598 net.cpp:141] Setting up inception_4e/1x1
I0403 21:36:35.451529 23598 net.cpp:148] Top shape: 24 256 14 14 (1204224)
I0403 21:36:35.451545 23598 net.cpp:156] Memory required for data: 1213249056
I0403 21:36:35.451562 23598 layer_factory.hpp:77] Creating layer inception_4e/relu_1x1
I0403 21:36:35.451581 23598 net.cpp:91] Creating Layer inception_4e/relu_1x1
I0403 21:36:35.451596 23598 net.cpp:425] inception_4e/relu_1x1 <- inception_4e/1x1
I0403 21:36:35.451616 23598 net.cpp:386] inception_4e/relu_1x1 -> inception_4e/1x1 (in-place)
I0403 21:36:35.451906 23598 net.cpp:141] Setting up inception_4e/relu_1x1
I0403 21:36:35.451933 23598 net.cpp:148] Top shape: 24 256 14 14 (1204224)
I0403 21:36:35.451948 23598 net.cpp:156] Memory required for data: 1218065952
I0403 21:36:35.451962 23598 layer_factory.hpp:77] Creating layer inception_4e/3x3_reduce
I0403 21:36:35.451983 23598 net.cpp:91] Creating Layer inception_4e/3x3_reduce
I0403 21:36:35.452002 23598 net.cpp:425] inception_4e/3x3_reduce <- inception_4d/output_inception_4d/output_0_split_2
I0403 21:36:35.452023 23598 net.cpp:399] inception_4e/3x3_reduce -> inception_4e/3x3_reduce
I0403 21:36:35.454105 23598 net.cpp:141] Setting up inception_4e/3x3_reduce
I0403 21:36:35.454136 23598 net.cpp:148] Top shape: 24 160 14 14 (752640)
I0403 21:36:35.454152 23598 net.cpp:156] Memory required for data: 1221076512
I0403 21:36:35.454170 23598 layer_factory.hpp:77] Creating layer inception_4e/relu_3x3_reduce
I0403 21:36:35.454188 23598 net.cpp:91] Creating Layer inception_4e/relu_3x3_reduce
I0403 21:36:35.454205 23598 net.cpp:425] inception_4e/relu_3x3_reduce <- inception_4e/3x3_reduce
I0403 21:36:35.454224 23598 net.cpp:386] inception_4e/relu_3x3_reduce -> inception_4e/3x3_reduce (in-place)
I0403 21:36:35.454412 23598 net.cpp:141] Setting up inception_4e/relu_3x3_reduce
I0403 21:36:35.454437 23598 net.cpp:148] Top shape: 24 160 14 14 (752640)
I0403 21:36:35.454452 23598 net.cpp:156] Memory required for data: 1224087072
I0403 21:36:35.454465 23598 layer_factory.hpp:77] Creating layer inception_4e/3x3
I0403 21:36:35.454488 23598 net.cpp:91] Creating Layer inception_4e/3x3
I0403 21:36:35.454505 23598 net.cpp:425] inception_4e/3x3 <- inception_4e/3x3_reduce
I0403 21:36:35.454526 23598 net.cpp:399] inception_4e/3x3 -> inception_4e/3x3
I0403 21:36:35.459461 23598 net.cpp:141] Setting up inception_4e/3x3
I0403 21:36:35.459503 23598 net.cpp:148] Top shape: 24 320 14 14 (1505280)
I0403 21:36:35.459519 23598 net.cpp:156] Memory required for data: 1230108192
I0403 21:36:35.459537 23598 layer_factory.hpp:77] Creating layer inception_4e/relu_3x3
I0403 21:36:35.459558 23598 net.cpp:91] Creating Layer inception_4e/relu_3x3
I0403 21:36:35.459575 23598 net.cpp:425] inception_4e/relu_3x3 <- inception_4e/3x3
I0403 21:36:35.459592 23598 net.cpp:386] inception_4e/relu_3x3 -> inception_4e/3x3 (in-place)
I0403 21:36:35.459890 23598 net.cpp:141] Setting up inception_4e/relu_3x3
I0403 21:36:35.459916 23598 net.cpp:148] Top shape: 24 320 14 14 (1505280)
I0403 21:36:35.459931 23598 net.cpp:156] Memory required for data: 1236129312
I0403 21:36:35.459945 23598 layer_factory.hpp:77] Creating layer inception_4e/5x5_reduce
I0403 21:36:35.459971 23598 net.cpp:91] Creating Layer inception_4e/5x5_reduce
I0403 21:36:35.459990 23598 net.cpp:425] inception_4e/5x5_reduce <- inception_4d/output_inception_4d/output_0_split_3
I0403 21:36:35.460008 23598 net.cpp:399] inception_4e/5x5_reduce -> inception_4e/5x5_reduce
I0403 21:36:35.461057 23598 net.cpp:141] Setting up inception_4e/5x5_reduce
I0403 21:36:35.461084 23598 net.cpp:148] Top shape: 24 32 14 14 (150528)
I0403 21:36:35.461099 23598 net.cpp:156] Memory required for data: 1236731424
I0403 21:36:35.461117 23598 layer_factory.hpp:77] Creating layer inception_4e/relu_5x5_reduce
I0403 21:36:35.461135 23598 net.cpp:91] Creating Layer inception_4e/relu_5x5_reduce
I0403 21:36:35.461153 23598 net.cpp:425] inception_4e/relu_5x5_reduce <- inception_4e/5x5_reduce
I0403 21:36:35.461170 23598 net.cpp:386] inception_4e/relu_5x5_reduce -> inception_4e/5x5_reduce (in-place)
I0403 21:36:35.461467 23598 net.cpp:141] Setting up inception_4e/relu_5x5_reduce
I0403 21:36:35.461493 23598 net.cpp:148] Top shape: 24 32 14 14 (150528)
I0403 21:36:35.461508 23598 net.cpp:156] Memory required for data: 1237333536
I0403 21:36:35.461524 23598 layer_factory.hpp:77] Creating layer inception_4e/5x5
I0403 21:36:35.461560 23598 net.cpp:91] Creating Layer inception_4e/5x5
I0403 21:36:35.461577 23598 net.cpp:425] inception_4e/5x5 <- inception_4e/5x5_reduce
I0403 21:36:35.461596 23598 net.cpp:399] inception_4e/5x5 -> inception_4e/5x5
I0403 21:36:35.463413 23598 net.cpp:141] Setting up inception_4e/5x5
I0403 21:36:35.463446 23598 net.cpp:148] Top shape: 24 128 14 14 (602112)
I0403 21:36:35.463464 23598 net.cpp:156] Memory required for data: 1239741984
I0403 21:36:35.463490 23598 layer_factory.hpp:77] Creating layer inception_4e/relu_5x5
I0403 21:36:35.463507 23598 net.cpp:91] Creating Layer inception_4e/relu_5x5
I0403 21:36:35.463522 23598 net.cpp:425] inception_4e/relu_5x5 <- inception_4e/5x5
I0403 21:36:35.463541 23598 net.cpp:386] inception_4e/relu_5x5 -> inception_4e/5x5 (in-place)
I0403 21:36:35.463735 23598 net.cpp:141] Setting up inception_4e/relu_5x5
I0403 21:36:35.463762 23598 net.cpp:148] Top shape: 24 128 14 14 (602112)
I0403 21:36:35.463775 23598 net.cpp:156] Memory required for data: 1242150432
I0403 21:36:35.463790 23598 layer_factory.hpp:77] Creating layer inception_4e/pool
I0403 21:36:35.463807 23598 net.cpp:91] Creating Layer inception_4e/pool
I0403 21:36:35.463824 23598 net.cpp:425] inception_4e/pool <- inception_4d/output_inception_4d/output_0_split_4
I0403 21:36:35.463843 23598 net.cpp:399] inception_4e/pool -> inception_4e/pool
I0403 21:36:35.463912 23598 net.cpp:141] Setting up inception_4e/pool
I0403 21:36:35.463938 23598 net.cpp:148] Top shape: 24 528 14 14 (2483712)
I0403 21:36:35.463954 23598 net.cpp:156] Memory required for data: 1252085280
I0403 21:36:35.463968 23598 layer_factory.hpp:77] Creating layer inception_4e/pool_proj
I0403 21:36:35.463989 23598 net.cpp:91] Creating Layer inception_4e/pool_proj
I0403 21:36:35.464007 23598 net.cpp:425] inception_4e/pool_proj <- inception_4e/pool
I0403 21:36:35.464025 23598 net.cpp:399] inception_4e/pool_proj -> inception_4e/pool_proj
I0403 21:36:35.465498 23598 net.cpp:141] Setting up inception_4e/pool_proj
I0403 21:36:35.465539 23598 net.cpp:148] Top shape: 24 128 14 14 (602112)
I0403 21:36:35.465556 23598 net.cpp:156] Memory required for data: 1254493728
I0403 21:36:35.465574 23598 layer_factory.hpp:77] Creating layer inception_4e/relu_pool_proj
I0403 21:36:35.465592 23598 net.cpp:91] Creating Layer inception_4e/relu_pool_proj
I0403 21:36:35.465610 23598 net.cpp:425] inception_4e/relu_pool_proj <- inception_4e/pool_proj
I0403 21:36:35.465626 23598 net.cpp:386] inception_4e/relu_pool_proj -> inception_4e/pool_proj (in-place)
I0403 21:36:35.465917 23598 net.cpp:141] Setting up inception_4e/relu_pool_proj
I0403 21:36:35.465945 23598 net.cpp:148] Top shape: 24 128 14 14 (602112)
I0403 21:36:35.465960 23598 net.cpp:156] Memory required for data: 1256902176
I0403 21:36:35.465975 23598 layer_factory.hpp:77] Creating layer inception_4e/output
I0403 21:36:35.465993 23598 net.cpp:91] Creating Layer inception_4e/output
I0403 21:36:35.466008 23598 net.cpp:425] inception_4e/output <- inception_4e/1x1
I0403 21:36:35.466024 23598 net.cpp:425] inception_4e/output <- inception_4e/3x3
I0403 21:36:35.466040 23598 net.cpp:425] inception_4e/output <- inception_4e/5x5
I0403 21:36:35.466055 23598 net.cpp:425] inception_4e/output <- inception_4e/pool_proj
I0403 21:36:35.466073 23598 net.cpp:399] inception_4e/output -> inception_4e/output
I0403 21:36:35.466121 23598 net.cpp:141] Setting up inception_4e/output
I0403 21:36:35.466145 23598 net.cpp:148] Top shape: 24 832 14 14 (3913728)
I0403 21:36:35.466161 23598 net.cpp:156] Memory required for data: 1272557088
I0403 21:36:35.466176 23598 layer_factory.hpp:77] Creating layer pool4/3x3_s2
I0403 21:36:35.466194 23598 net.cpp:91] Creating Layer pool4/3x3_s2
I0403 21:36:35.466210 23598 net.cpp:425] pool4/3x3_s2 <- inception_4e/output
I0403 21:36:35.466233 23598 net.cpp:399] pool4/3x3_s2 -> pool4/3x3_s2
I0403 21:36:35.466301 23598 net.cpp:141] Setting up pool4/3x3_s2
I0403 21:36:35.466326 23598 net.cpp:148] Top shape: 24 832 7 7 (978432)
I0403 21:36:35.466341 23598 net.cpp:156] Memory required for data: 1276470816
I0403 21:36:35.466354 23598 layer_factory.hpp:77] Creating layer pool4/3x3_s2_pool4/3x3_s2_0_split
I0403 21:36:35.466370 23598 net.cpp:91] Creating Layer pool4/3x3_s2_pool4/3x3_s2_0_split
I0403 21:36:35.466387 23598 net.cpp:425] pool4/3x3_s2_pool4/3x3_s2_0_split <- pool4/3x3_s2
I0403 21:36:35.466408 23598 net.cpp:399] pool4/3x3_s2_pool4/3x3_s2_0_split -> pool4/3x3_s2_pool4/3x3_s2_0_split_0
I0403 21:36:35.466429 23598 net.cpp:399] pool4/3x3_s2_pool4/3x3_s2_0_split -> pool4/3x3_s2_pool4/3x3_s2_0_split_1
I0403 21:36:35.466450 23598 net.cpp:399] pool4/3x3_s2_pool4/3x3_s2_0_split -> pool4/3x3_s2_pool4/3x3_s2_0_split_2
I0403 21:36:35.466471 23598 net.cpp:399] pool4/3x3_s2_pool4/3x3_s2_0_split -> pool4/3x3_s2_pool4/3x3_s2_0_split_3
I0403 21:36:35.466562 23598 net.cpp:141] Setting up pool4/3x3_s2_pool4/3x3_s2_0_split
I0403 21:36:35.466588 23598 net.cpp:148] Top shape: 24 832 7 7 (978432)
I0403 21:36:35.466605 23598 net.cpp:148] Top shape: 24 832 7 7 (978432)
I0403 21:36:35.466621 23598 net.cpp:148] Top shape: 24 832 7 7 (978432)
I0403 21:36:35.466636 23598 net.cpp:148] Top shape: 24 832 7 7 (978432)
I0403 21:36:35.466650 23598 net.cpp:156] Memory required for data: 1292125728
I0403 21:36:35.466665 23598 layer_factory.hpp:77] Creating layer inception_5a/1x1
I0403 21:36:35.466686 23598 net.cpp:91] Creating Layer inception_5a/1x1
I0403 21:36:35.466702 23598 net.cpp:425] inception_5a/1x1 <- pool4/3x3_s2_pool4/3x3_s2_0_split_0
I0403 21:36:35.466722 23598 net.cpp:399] inception_5a/1x1 -> inception_5a/1x1
I0403 21:36:35.469624 23598 net.cpp:141] Setting up inception_5a/1x1
I0403 21:36:35.469655 23598 net.cpp:148] Top shape: 24 256 7 7 (301056)
I0403 21:36:35.469673 23598 net.cpp:156] Memory required for data: 1293329952
I0403 21:36:35.469692 23598 layer_factory.hpp:77] Creating layer inception_5a/relu_1x1
I0403 21:36:35.469712 23598 net.cpp:91] Creating Layer inception_5a/relu_1x1
I0403 21:36:35.469728 23598 net.cpp:425] inception_5a/relu_1x1 <- inception_5a/1x1
I0403 21:36:35.469748 23598 net.cpp:386] inception_5a/relu_1x1 -> inception_5a/1x1 (in-place)
I0403 21:36:35.470063 23598 net.cpp:141] Setting up inception_5a/relu_1x1
I0403 21:36:35.470093 23598 net.cpp:148] Top shape: 24 256 7 7 (301056)
I0403 21:36:35.470108 23598 net.cpp:156] Memory required for data: 1294534176
I0403 21:36:35.470124 23598 layer_factory.hpp:77] Creating layer inception_5a/3x3_reduce
I0403 21:36:35.470147 23598 net.cpp:91] Creating Layer inception_5a/3x3_reduce
I0403 21:36:35.470165 23598 net.cpp:425] inception_5a/3x3_reduce <- pool4/3x3_s2_pool4/3x3_s2_0_split_1
I0403 21:36:35.470186 23598 net.cpp:399] inception_5a/3x3_reduce -> inception_5a/3x3_reduce
I0403 21:36:35.472681 23598 net.cpp:141] Setting up inception_5a/3x3_reduce
I0403 21:36:35.472712 23598 net.cpp:148] Top shape: 24 160 7 7 (188160)
I0403 21:36:35.472728 23598 net.cpp:156] Memory required for data: 1295286816
I0403 21:36:35.472748 23598 layer_factory.hpp:77] Creating layer inception_5a/relu_3x3_reduce
I0403 21:36:35.472769 23598 net.cpp:91] Creating Layer inception_5a/relu_3x3_reduce
I0403 21:36:35.472786 23598 net.cpp:425] inception_5a/relu_3x3_reduce <- inception_5a/3x3_reduce
I0403 21:36:35.472805 23598 net.cpp:386] inception_5a/relu_3x3_reduce -> inception_5a/3x3_reduce (in-place)
I0403 21:36:35.472995 23598 net.cpp:141] Setting up inception_5a/relu_3x3_reduce
I0403 21:36:35.473023 23598 net.cpp:148] Top shape: 24 160 7 7 (188160)
I0403 21:36:35.473039 23598 net.cpp:156] Memory required for data: 1296039456
I0403 21:36:35.473054 23598 layer_factory.hpp:77] Creating layer inception_5a/3x3
I0403 21:36:35.473078 23598 net.cpp:91] Creating Layer inception_5a/3x3
I0403 21:36:35.473096 23598 net.cpp:425] inception_5a/3x3 <- inception_5a/3x3_reduce
I0403 21:36:35.473116 23598 net.cpp:399] inception_5a/3x3 -> inception_5a/3x3
I0403 21:36:35.478186 23598 net.cpp:141] Setting up inception_5a/3x3
I0403 21:36:35.478219 23598 net.cpp:148] Top shape: 24 320 7 7 (376320)
I0403 21:36:35.478247 23598 net.cpp:156] Memory required for data: 1297544736
I0403 21:36:35.478269 23598 layer_factory.hpp:77] Creating layer inception_5a/relu_3x3
I0403 21:36:35.478288 23598 net.cpp:91] Creating Layer inception_5a/relu_3x3
I0403 21:36:35.478307 23598 net.cpp:425] inception_5a/relu_3x3 <- inception_5a/3x3
I0403 21:36:35.478327 23598 net.cpp:386] inception_5a/relu_3x3 -> inception_5a/3x3 (in-place)
I0403 21:36:35.478626 23598 net.cpp:141] Setting up inception_5a/relu_3x3
I0403 21:36:35.478655 23598 net.cpp:148] Top shape: 24 320 7 7 (376320)
I0403 21:36:35.478672 23598 net.cpp:156] Memory required for data: 1299050016
I0403 21:36:35.478688 23598 layer_factory.hpp:77] Creating layer inception_5a/5x5_reduce
I0403 21:36:35.478709 23598 net.cpp:91] Creating Layer inception_5a/5x5_reduce
I0403 21:36:35.478729 23598 net.cpp:425] inception_5a/5x5_reduce <- pool4/3x3_s2_pool4/3x3_s2_0_split_2
I0403 21:36:35.478747 23598 net.cpp:399] inception_5a/5x5_reduce -> inception_5a/5x5_reduce
I0403 21:36:35.479931 23598 net.cpp:141] Setting up inception_5a/5x5_reduce
I0403 21:36:35.479964 23598 net.cpp:148] Top shape: 24 32 7 7 (37632)
I0403 21:36:35.479982 23598 net.cpp:156] Memory required for data: 1299200544
I0403 21:36:35.480001 23598 layer_factory.hpp:77] Creating layer inception_5a/relu_5x5_reduce
I0403 21:36:35.480020 23598 net.cpp:91] Creating Layer inception_5a/relu_5x5_reduce
I0403 21:36:35.480036 23598 net.cpp:425] inception_5a/relu_5x5_reduce <- inception_5a/5x5_reduce
I0403 21:36:35.480056 23598 net.cpp:386] inception_5a/relu_5x5_reduce -> inception_5a/5x5_reduce (in-place)
I0403 21:36:35.480362 23598 net.cpp:141] Setting up inception_5a/relu_5x5_reduce
I0403 21:36:35.480389 23598 net.cpp:148] Top shape: 24 32 7 7 (37632)
I0403 21:36:35.480406 23598 net.cpp:156] Memory required for data: 1299351072
I0403 21:36:35.480420 23598 layer_factory.hpp:77] Creating layer inception_5a/5x5
I0403 21:36:35.480443 23598 net.cpp:91] Creating Layer inception_5a/5x5
I0403 21:36:35.480460 23598 net.cpp:425] inception_5a/5x5 <- inception_5a/5x5_reduce
I0403 21:36:35.480482 23598 net.cpp:399] inception_5a/5x5 -> inception_5a/5x5
I0403 21:36:35.482230 23598 net.cpp:141] Setting up inception_5a/5x5
I0403 21:36:35.482272 23598 net.cpp:148] Top shape: 24 128 7 7 (150528)
I0403 21:36:35.482290 23598 net.cpp:156] Memory required for data: 1299953184
I0403 21:36:35.482308 23598 layer_factory.hpp:77] Creating layer inception_5a/relu_5x5
I0403 21:36:35.482326 23598 net.cpp:91] Creating Layer inception_5a/relu_5x5
I0403 21:36:35.482343 23598 net.cpp:425] inception_5a/relu_5x5 <- inception_5a/5x5
I0403 21:36:35.482362 23598 net.cpp:386] inception_5a/relu_5x5 -> inception_5a/5x5 (in-place)
I0403 21:36:35.482560 23598 net.cpp:141] Setting up inception_5a/relu_5x5
I0403 21:36:35.482586 23598 net.cpp:148] Top shape: 24 128 7 7 (150528)
I0403 21:36:35.482601 23598 net.cpp:156] Memory required for data: 1300555296
I0403 21:36:35.482616 23598 layer_factory.hpp:77] Creating layer inception_5a/pool
I0403 21:36:35.482635 23598 net.cpp:91] Creating Layer inception_5a/pool
I0403 21:36:35.482650 23598 net.cpp:425] inception_5a/pool <- pool4/3x3_s2_pool4/3x3_s2_0_split_3
I0403 21:36:35.482671 23598 net.cpp:399] inception_5a/pool -> inception_5a/pool
I0403 21:36:35.482741 23598 net.cpp:141] Setting up inception_5a/pool
I0403 21:36:35.482767 23598 net.cpp:148] Top shape: 24 832 7 7 (978432)
I0403 21:36:35.482782 23598 net.cpp:156] Memory required for data: 1304469024
I0403 21:36:35.482797 23598 layer_factory.hpp:77] Creating layer inception_5a/pool_proj
I0403 21:36:35.482820 23598 net.cpp:91] Creating Layer inception_5a/pool_proj
I0403 21:36:35.482839 23598 net.cpp:425] inception_5a/pool_proj <- inception_5a/pool
I0403 21:36:35.482858 23598 net.cpp:399] inception_5a/pool_proj -> inception_5a/pool_proj
I0403 21:36:35.485182 23598 net.cpp:141] Setting up inception_5a/pool_proj
I0403 21:36:35.485211 23598 net.cpp:148] Top shape: 24 128 7 7 (150528)
I0403 21:36:35.485230 23598 net.cpp:156] Memory required for data: 1305071136
I0403 21:36:35.485251 23598 layer_factory.hpp:77] Creating layer inception_5a/relu_pool_proj
I0403 21:36:35.485272 23598 net.cpp:91] Creating Layer inception_5a/relu_pool_proj
I0403 21:36:35.485291 23598 net.cpp:425] inception_5a/relu_pool_proj <- inception_5a/pool_proj
I0403 21:36:35.485309 23598 net.cpp:386] inception_5a/relu_pool_proj -> inception_5a/pool_proj (in-place)
I0403 21:36:35.485601 23598 net.cpp:141] Setting up inception_5a/relu_pool_proj
I0403 21:36:35.485627 23598 net.cpp:148] Top shape: 24 128 7 7 (150528)
I0403 21:36:35.485642 23598 net.cpp:156] Memory required for data: 1305673248
I0403 21:36:35.485657 23598 layer_factory.hpp:77] Creating layer inception_5a/output
I0403 21:36:35.485677 23598 net.cpp:91] Creating Layer inception_5a/output
I0403 21:36:35.485693 23598 net.cpp:425] inception_5a/output <- inception_5a/1x1
I0403 21:36:35.485709 23598 net.cpp:425] inception_5a/output <- inception_5a/3x3
I0403 21:36:35.485724 23598 net.cpp:425] inception_5a/output <- inception_5a/5x5
I0403 21:36:35.485740 23598 net.cpp:425] inception_5a/output <- inception_5a/pool_proj
I0403 21:36:35.485757 23598 net.cpp:399] inception_5a/output -> inception_5a/output
I0403 21:36:35.485810 23598 net.cpp:141] Setting up inception_5a/output
I0403 21:36:35.485833 23598 net.cpp:148] Top shape: 24 832 7 7 (978432)
I0403 21:36:35.485848 23598 net.cpp:156] Memory required for data: 1309586976
I0403 21:36:35.485862 23598 layer_factory.hpp:77] Creating layer inception_5a/output_inception_5a/output_0_split
I0403 21:36:35.485878 23598 net.cpp:91] Creating Layer inception_5a/output_inception_5a/output_0_split
I0403 21:36:35.485894 23598 net.cpp:425] inception_5a/output_inception_5a/output_0_split <- inception_5a/output
I0403 21:36:35.485914 23598 net.cpp:399] inception_5a/output_inception_5a/output_0_split -> inception_5a/output_inception_5a/output_0_split_0
I0403 21:36:35.485934 23598 net.cpp:399] inception_5a/output_inception_5a/output_0_split -> inception_5a/output_inception_5a/output_0_split_1
I0403 21:36:35.485957 23598 net.cpp:399] inception_5a/output_inception_5a/output_0_split -> inception_5a/output_inception_5a/output_0_split_2
I0403 21:36:35.485980 23598 net.cpp:399] inception_5a/output_inception_5a/output_0_split -> inception_5a/output_inception_5a/output_0_split_3
I0403 21:36:35.486093 23598 net.cpp:141] Setting up inception_5a/output_inception_5a/output_0_split
I0403 21:36:35.486116 23598 net.cpp:148] Top shape: 24 832 7 7 (978432)
I0403 21:36:35.486132 23598 net.cpp:148] Top shape: 24 832 7 7 (978432)
I0403 21:36:35.486148 23598 net.cpp:148] Top shape: 24 832 7 7 (978432)
I0403 21:36:35.486162 23598 net.cpp:148] Top shape: 24 832 7 7 (978432)
I0403 21:36:35.486176 23598 net.cpp:156] Memory required for data: 1325241888
I0403 21:36:35.486191 23598 layer_factory.hpp:77] Creating layer inception_5b/1x1
I0403 21:36:35.486213 23598 net.cpp:91] Creating Layer inception_5b/1x1
I0403 21:36:35.486235 23598 net.cpp:425] inception_5b/1x1 <- inception_5a/output_inception_5a/output_0_split_0
I0403 21:36:35.486259 23598 net.cpp:399] inception_5b/1x1 -> inception_5b/1x1
I0403 21:36:35.490007 23598 net.cpp:141] Setting up inception_5b/1x1
I0403 21:36:35.490037 23598 net.cpp:148] Top shape: 24 384 7 7 (451584)
I0403 21:36:35.490053 23598 net.cpp:156] Memory required for data: 1327048224
I0403 21:36:35.490072 23598 layer_factory.hpp:77] Creating layer inception_5b/relu_1x1
I0403 21:36:35.490092 23598 net.cpp:91] Creating Layer inception_5b/relu_1x1
I0403 21:36:35.490109 23598 net.cpp:425] inception_5b/relu_1x1 <- inception_5b/1x1
I0403 21:36:35.490126 23598 net.cpp:386] inception_5b/relu_1x1 -> inception_5b/1x1 (in-place)
I0403 21:36:35.490430 23598 net.cpp:141] Setting up inception_5b/relu_1x1
I0403 21:36:35.490456 23598 net.cpp:148] Top shape: 24 384 7 7 (451584)
I0403 21:36:35.490471 23598 net.cpp:156] Memory required for data: 1328854560
I0403 21:36:35.490486 23598 layer_factory.hpp:77] Creating layer inception_5b/3x3_reduce
I0403 21:36:35.490507 23598 net.cpp:91] Creating Layer inception_5b/3x3_reduce
I0403 21:36:35.490525 23598 net.cpp:425] inception_5b/3x3_reduce <- inception_5a/output_inception_5a/output_0_split_1
I0403 21:36:35.490546 23598 net.cpp:399] inception_5b/3x3_reduce -> inception_5b/3x3_reduce
I0403 21:36:35.493172 23598 net.cpp:141] Setting up inception_5b/3x3_reduce
I0403 21:36:35.493202 23598 net.cpp:148] Top shape: 24 192 7 7 (225792)
I0403 21:36:35.493218 23598 net.cpp:156] Memory required for data: 1329757728
I0403 21:36:35.493242 23598 layer_factory.hpp:77] Creating layer inception_5b/relu_3x3_reduce
I0403 21:36:35.493263 23598 net.cpp:91] Creating Layer inception_5b/relu_3x3_reduce
I0403 21:36:35.493283 23598 net.cpp:425] inception_5b/relu_3x3_reduce <- inception_5b/3x3_reduce
I0403 21:36:35.493299 23598 net.cpp:386] inception_5b/relu_3x3_reduce -> inception_5b/3x3_reduce (in-place)
I0403 21:36:35.493485 23598 net.cpp:141] Setting up inception_5b/relu_3x3_reduce
I0403 21:36:35.493511 23598 net.cpp:148] Top shape: 24 192 7 7 (225792)
I0403 21:36:35.493525 23598 net.cpp:156] Memory required for data: 1330660896
I0403 21:36:35.493541 23598 layer_factory.hpp:77] Creating layer inception_5b/3x3
I0403 21:36:35.493562 23598 net.cpp:91] Creating Layer inception_5b/3x3
I0403 21:36:35.493579 23598 net.cpp:425] inception_5b/3x3 <- inception_5b/3x3_reduce
I0403 21:36:35.493602 23598 net.cpp:399] inception_5b/3x3 -> inception_5b/3x3
I0403 21:36:35.500195 23598 net.cpp:141] Setting up inception_5b/3x3
I0403 21:36:35.500223 23598 net.cpp:148] Top shape: 24 384 7 7 (451584)
I0403 21:36:35.500244 23598 net.cpp:156] Memory required for data: 1332467232
I0403 21:36:35.500263 23598 layer_factory.hpp:77] Creating layer inception_5b/relu_3x3
I0403 21:36:35.500283 23598 net.cpp:91] Creating Layer inception_5b/relu_3x3
I0403 21:36:35.500300 23598 net.cpp:425] inception_5b/relu_3x3 <- inception_5b/3x3
I0403 21:36:35.500318 23598 net.cpp:386] inception_5b/relu_3x3 -> inception_5b/3x3 (in-place)
I0403 21:36:35.500612 23598 net.cpp:141] Setting up inception_5b/relu_3x3
I0403 21:36:35.500638 23598 net.cpp:148] Top shape: 24 384 7 7 (451584)
I0403 21:36:35.500653 23598 net.cpp:156] Memory required for data: 1334273568
I0403 21:36:35.500668 23598 layer_factory.hpp:77] Creating layer inception_5b/5x5_reduce
I0403 21:36:35.500712 23598 net.cpp:91] Creating Layer inception_5b/5x5_reduce
I0403 21:36:35.500732 23598 net.cpp:425] inception_5b/5x5_reduce <- inception_5a/output_inception_5a/output_0_split_2
I0403 21:36:35.500751 23598 net.cpp:399] inception_5b/5x5_reduce -> inception_5b/5x5_reduce
I0403 21:36:35.501998 23598 net.cpp:141] Setting up inception_5b/5x5_reduce
I0403 21:36:35.502028 23598 net.cpp:148] Top shape: 24 48 7 7 (56448)
I0403 21:36:35.502044 23598 net.cpp:156] Memory required for data: 1334499360
I0403 21:36:35.502063 23598 layer_factory.hpp:77] Creating layer inception_5b/relu_5x5_reduce
I0403 21:36:35.502082 23598 net.cpp:91] Creating Layer inception_5b/relu_5x5_reduce
I0403 21:36:35.502099 23598 net.cpp:425] inception_5b/relu_5x5_reduce <- inception_5b/5x5_reduce
I0403 21:36:35.502116 23598 net.cpp:386] inception_5b/relu_5x5_reduce -> inception_5b/5x5_reduce (in-place)
I0403 21:36:35.502496 23598 net.cpp:141] Setting up inception_5b/relu_5x5_reduce
I0403 21:36:35.502523 23598 net.cpp:148] Top shape: 24 48 7 7 (56448)
I0403 21:36:35.502538 23598 net.cpp:156] Memory required for data: 1334725152
I0403 21:36:35.502553 23598 layer_factory.hpp:77] Creating layer inception_5b/5x5
I0403 21:36:35.502574 23598 net.cpp:91] Creating Layer inception_5b/5x5
I0403 21:36:35.502593 23598 net.cpp:425] inception_5b/5x5 <- inception_5b/5x5_reduce
I0403 21:36:35.502612 23598 net.cpp:399] inception_5b/5x5 -> inception_5b/5x5
I0403 21:36:35.504627 23598 net.cpp:141] Setting up inception_5b/5x5
I0403 21:36:35.504657 23598 net.cpp:148] Top shape: 24 128 7 7 (150528)
I0403 21:36:35.504673 23598 net.cpp:156] Memory required for data: 1335327264
I0403 21:36:35.504693 23598 layer_factory.hpp:77] Creating layer inception_5b/relu_5x5
I0403 21:36:35.504710 23598 net.cpp:91] Creating Layer inception_5b/relu_5x5
I0403 21:36:35.504727 23598 net.cpp:425] inception_5b/relu_5x5 <- inception_5b/5x5
I0403 21:36:35.504746 23598 net.cpp:386] inception_5b/relu_5x5 -> inception_5b/5x5 (in-place)
I0403 21:36:35.504951 23598 net.cpp:141] Setting up inception_5b/relu_5x5
I0403 21:36:35.504976 23598 net.cpp:148] Top shape: 24 128 7 7 (150528)
I0403 21:36:35.504992 23598 net.cpp:156] Memory required for data: 1335929376
I0403 21:36:35.505007 23598 layer_factory.hpp:77] Creating layer inception_5b/pool
I0403 21:36:35.505024 23598 net.cpp:91] Creating Layer inception_5b/pool
I0403 21:36:35.505041 23598 net.cpp:425] inception_5b/pool <- inception_5a/output_inception_5a/output_0_split_3
I0403 21:36:35.505062 23598 net.cpp:399] inception_5b/pool -> inception_5b/pool
I0403 21:36:35.505146 23598 net.cpp:141] Setting up inception_5b/pool
I0403 21:36:35.505170 23598 net.cpp:148] Top shape: 24 832 7 7 (978432)
I0403 21:36:35.505184 23598 net.cpp:156] Memory required for data: 1339843104
I0403 21:36:35.505200 23598 layer_factory.hpp:77] Creating layer inception_5b/pool_proj
I0403 21:36:35.505223 23598 net.cpp:91] Creating Layer inception_5b/pool_proj
I0403 21:36:35.505245 23598 net.cpp:425] inception_5b/pool_proj <- inception_5b/pool
I0403 21:36:35.505264 23598 net.cpp:399] inception_5b/pool_proj -> inception_5b/pool_proj
I0403 21:36:35.507535 23598 net.cpp:141] Setting up inception_5b/pool_proj
I0403 21:36:35.507566 23598 net.cpp:148] Top shape: 24 128 7 7 (150528)
I0403 21:36:35.507583 23598 net.cpp:156] Memory required for data: 1340445216
I0403 21:36:35.507602 23598 layer_factory.hpp:77] Creating layer inception_5b/relu_pool_proj
I0403 21:36:35.507621 23598 net.cpp:91] Creating Layer inception_5b/relu_pool_proj
I0403 21:36:35.507637 23598 net.cpp:425] inception_5b/relu_pool_proj <- inception_5b/pool_proj
I0403 21:36:35.507653 23598 net.cpp:386] inception_5b/relu_pool_proj -> inception_5b/pool_proj (in-place)
I0403 21:36:35.507949 23598 net.cpp:141] Setting up inception_5b/relu_pool_proj
I0403 21:36:35.507977 23598 net.cpp:148] Top shape: 24 128 7 7 (150528)
I0403 21:36:35.507994 23598 net.cpp:156] Memory required for data: 1341047328
I0403 21:36:35.508009 23598 layer_factory.hpp:77] Creating layer inception_5b/output
I0403 21:36:35.508025 23598 net.cpp:91] Creating Layer inception_5b/output
I0403 21:36:35.508056 23598 net.cpp:425] inception_5b/output <- inception_5b/1x1
I0403 21:36:35.508074 23598 net.cpp:425] inception_5b/output <- inception_5b/3x3
I0403 21:36:35.508091 23598 net.cpp:425] inception_5b/output <- inception_5b/5x5
I0403 21:36:35.508108 23598 net.cpp:425] inception_5b/output <- inception_5b/pool_proj
I0403 21:36:35.508126 23598 net.cpp:399] inception_5b/output -> inception_5b/output
I0403 21:36:35.508178 23598 net.cpp:141] Setting up inception_5b/output
I0403 21:36:35.508203 23598 net.cpp:148] Top shape: 24 1024 7 7 (1204224)
I0403 21:36:35.508218 23598 net.cpp:156] Memory required for data: 1345864224
I0403 21:36:35.508242 23598 layer_factory.hpp:77] Creating layer pool5/7x7_s1
I0403 21:36:35.508266 23598 net.cpp:91] Creating Layer pool5/7x7_s1
I0403 21:36:35.508283 23598 net.cpp:425] pool5/7x7_s1 <- inception_5b/output
I0403 21:36:35.508302 23598 net.cpp:399] pool5/7x7_s1 -> pool5/7x7_s1
I0403 21:36:35.508513 23598 net.cpp:141] Setting up pool5/7x7_s1
I0403 21:36:35.508540 23598 net.cpp:148] Top shape: 24 1024 1 1 (24576)
I0403 21:36:35.508554 23598 net.cpp:156] Memory required for data: 1345962528
I0403 21:36:35.508569 23598 layer_factory.hpp:77] Creating layer pool5/drop_7x7_s1
I0403 21:36:35.508586 23598 net.cpp:91] Creating Layer pool5/drop_7x7_s1
I0403 21:36:35.508602 23598 net.cpp:425] pool5/drop_7x7_s1 <- pool5/7x7_s1
I0403 21:36:35.508618 23598 net.cpp:386] pool5/drop_7x7_s1 -> pool5/7x7_s1 (in-place)
I0403 21:36:35.508668 23598 net.cpp:141] Setting up pool5/drop_7x7_s1
I0403 21:36:35.508692 23598 net.cpp:148] Top shape: 24 1024 1 1 (24576)
I0403 21:36:35.508707 23598 net.cpp:156] Memory required for data: 1346060832
I0403 21:36:35.508721 23598 layer_factory.hpp:77] Creating layer loss3/classifier_plantvillage
I0403 21:36:35.508743 23598 net.cpp:91] Creating Layer loss3/classifier_plantvillage
I0403 21:36:35.508759 23598 net.cpp:425] loss3/classifier_plantvillage <- pool5/7x7_s1
I0403 21:36:35.508779 23598 net.cpp:399] loss3/classifier_plantvillage -> loss3/classifier_plantvillage
I0403 21:36:35.509191 23598 net.cpp:141] Setting up loss3/classifier_plantvillage
I0403 21:36:35.509217 23598 net.cpp:148] Top shape: 24 38 (912)
I0403 21:36:35.509235 23598 net.cpp:156] Memory required for data: 1346064480
I0403 21:36:35.509254 23598 layer_factory.hpp:77] Creating layer loss3/classifier_plantvillage_loss3/classifier_plantvillage_0_split
I0403 21:36:35.509273 23598 net.cpp:91] Creating Layer loss3/classifier_plantvillage_loss3/classifier_plantvillage_0_split
I0403 21:36:35.509289 23598 net.cpp:425] loss3/classifier_plantvillage_loss3/classifier_plantvillage_0_split <- loss3/classifier_plantvillage
I0403 21:36:35.509310 23598 net.cpp:399] loss3/classifier_plantvillage_loss3/classifier_plantvillage_0_split -> loss3/classifier_plantvillage_loss3/classifier_plantvillage_0_split_0
I0403 21:36:35.509331 23598 net.cpp:399] loss3/classifier_plantvillage_loss3/classifier_plantvillage_0_split -> loss3/classifier_plantvillage_loss3/classifier_plantvillage_0_split_1
I0403 21:36:35.509353 23598 net.cpp:399] loss3/classifier_plantvillage_loss3/classifier_plantvillage_0_split -> loss3/classifier_plantvillage_loss3/classifier_plantvillage_0_split_2
I0403 21:36:35.509373 23598 net.cpp:399] loss3/classifier_plantvillage_loss3/classifier_plantvillage_0_split -> loss3/classifier_plantvillage_loss3/classifier_plantvillage_0_split_3
I0403 21:36:35.509476 23598 net.cpp:141] Setting up loss3/classifier_plantvillage_loss3/classifier_plantvillage_0_split
I0403 21:36:35.509500 23598 net.cpp:148] Top shape: 24 38 (912)
I0403 21:36:35.509516 23598 net.cpp:148] Top shape: 24 38 (912)
I0403 21:36:35.509532 23598 net.cpp:148] Top shape: 24 38 (912)
I0403 21:36:35.509547 23598 net.cpp:148] Top shape: 24 38 (912)
I0403 21:36:35.509562 23598 net.cpp:156] Memory required for data: 1346079072
I0403 21:36:35.509577 23598 layer_factory.hpp:77] Creating layer loss1/loss
I0403 21:36:35.509598 23598 net.cpp:91] Creating Layer loss1/loss
I0403 21:36:35.509614 23598 net.cpp:425] loss1/loss <- loss1/classifier_plantvillage_loss1/classifier_plantvillage_0_split_0
I0403 21:36:35.509645 23598 net.cpp:425] loss1/loss <- label_data_1_split_0
…
