…
I0403 21:54:26.056668 24646 net.cpp:313] The NetState phase (1) differed from the phase (0) specified by a rule in layer data
I0403 21:54:26.057763 24646 net.cpp:49] Initializing net from parameters: 
state {
  phase: TEST
}
layer {
  name: "data"
  type: "Data"
  top: "data"
  top: "label"
  include {
    phase: TEST
  }
  transform_param {
    mirror: false
    crop_size: 224
    mean_file: "/home/mohanty/data/final_dataset/lmdb/segmented-80-20/mean.binaryproto"
  }
  data_param {
    source: "/home/mohanty/data/final_dataset/lmdb/segmented-80-20/test_db"
    batch_size: 24
    backend: LMDB
  }
}
layer {
  name: "conv1/7x7_s2"
  type: "Convolution"
  bottom: "data"
  top: "conv1/7x7_s2"
  param {
    lr_mult: 1
    decay_mult: 1
  }
  param {
    lr_mult: 2
    decay_mult: 0
  }
  convolution_param {
    num_output: 64
    pad: 3
    kernel_size: 7
    stride: 2
    weight_filler {
      type: "xavier"
      std: 0.1
    }
    bias_filler {
      type: "constant"
      value: 0.2
    }
  }
}
layer {
  name: "conv1/relu_7x7"
  type: "ReLU"
  bottom: "conv1/7x7_s2"
  top: "conv1/7x7_s2"
}
layer {
  name: "pool1/3x3_s2"
  type: "Pooling"
  bottom: "conv1/7x7_s2"
  top: "pool1/3x3_s2"
  pooling_param {
    pool: MAX
    kernel_size: 3
    stride: 2
  }
}
layer {
  name: "pool1/norm1"
  type: "LRN"
  bottom: "pool1/3x3_s2"
  top: "pool1/norm1"
  lrn_param {
    local_size: 5
    alpha: 0.0001
    beta: 0.75
  }
}
layer {
  name: "conv2/3x3_reduce"
  type: "Convolution"
  bottom: "pool1/norm1"
  top: "conv2/3x3_reduce"
  param {
    lr_mult: 1
    decay_mult: 1
  }
  param {
    lr_mult: 2
    decay_mult: 0
  }
  convolution_param {
    num_output: 64
    kernel_size: 1
    weight_filler {
      type: "xavier"
      std: 0.1
    }
    bias_filler {
      type: "constant"
      value: 0.2
    }
  }
}
layer {
  name: "conv2/relu_3x3_reduce"
  type: "ReLU"
  bottom: "conv2/3x3_reduce"
  top: "conv2/3x3_reduce"
}
layer {
  name: "conv2/3x3"
  type: "Convolution"
  bottom: "conv2/3x3_reduce"
  top: "conv2/3x3"
  param {
    lr_mult: 1
    decay_mult: 1
  }
  param {
    lr_mult: 2
    decay_mult: 0
  }
  convolution_param {
    num_output: 192
    pad: 1
    kernel_size: 3
    weight_filler {
      type: "xavier"
      std: 0.03
    }
    bias_filler {
      type: "constant"
      value: 0.2
    }
  }
}
layer {
  name: "conv2/relu_3x3"
  type: "ReLU"
  bottom: "conv2/3x3"
  top: "conv2/3x3"
}
layer {
  name: "conv2/norm2"
  type: "LRN"
  bottom: "conv2/3x3"
  top: "conv2/norm2"
  lrn_param {
    local_size: 5
    alpha: 0.0001
    beta: 0.75
  }
}
layer {
  name: "pool2/3x3_s2"
  type: "Pooling"
  bottom: "conv2/norm2"
  top: "pool2/3x3_s2"
  pooling_param {
    pool: MAX
    kernel_size: 3
    stride: 2
  }
}
layer {
  name: "inception_3a/1x1"
  type: "Convolution"
  bottom: "pool2/3x3_s2"
  top: "inception_3a/1x1"
  param {
    lr_mult: 1
    decay_mult: 1
  }
  param {
    lr_mult: 2
    decay_mult: 0
  }
  convolution_param {
    num_output: 64
    kernel_size: 1
    weight_filler {
      type: "xavier"
      std: 0.03
    }
    bias_filler {
      type: "constant"
      value: 0.2
    }
  }
}
layer {
  name: "inception_3a/relu_1x1"
  type: "ReLU"
  bottom: "inception_3a/1x1"
  top: "inception_3a/1x1"
}
layer {
  name: "inception_3a/3x3_reduce"
  type: "Convolution"
  bottom: "pool2/3x3_s2"
  top: "inception_3a/3x3_reduce"
  param {
    lr_mult: 1
    decay_mult: 1
  }
  param {
    lr_mult: 2
    decay_mult: 0
  }
  convolution_param {
    num_output: 96
    kernel_size: 1
    weight_filler {
      type: "xavier"
      std: 0.09
    }
    bias_filler {
      type: "constant"
      value: 0.2
    }
  }
}
layer {
  name: "inception_3a/relu_3x3_reduce"
  type: "ReLU"
  bottom: "inception_3a/3x3_reduce"
  top: "inception_3a/3x3_reduce"
}
layer {
  name: "inception_3a/3x3"
  type: "Convolution"
  bottom: "inception_3a/3x3_reduce"
  top: "inception_3a/3x3"
  param {
    lr_mult: 1
    decay_mult: 1
  }
  param {
    lr_mult: 2
    decay_mult: 0
  }
  convolution_param {
    num_output: 128
    pad: 1
    kernel_size: 3
    weight_filler {
      type: "xavier"
      std: 0.03
    }
    bias_filler {
      type: "constant"
      value: 0.2
    }
  }
}
layer {
  name: "inception_3a/relu_3x3"
  type: "ReLU"
  bottom: "inception_3a/3x3"
  top: "inception_3a/3x3"
}
layer {
  name: "inception_3a/5x5_reduce"
  type: "Convolution"
  bottom: "pool2/3x3_s2"
  top: "inception_3a/5x5_reduce"
  param {
    lr_mult: 1
    decay_mult: 1
  }
  param {
    lr_mult: 2
    decay_mult: 0
  }
  convolution_param {
    num_output: 16
    kernel_size: 1
    weight_filler {
      type: "xavier"
      std: 0.2
    }
    bias_filler {
      type: "constant"
      value: 0.2
    }
  }
}
layer {
  name: "inception_3a/relu_5x5_reduce"
  type: "ReLU"
  bottom: "inception_3a/5x5_reduce"
  top: "inception_3a/5x5_reduce"
}
layer {
  name: "inception_3a/5x5"
  type: "Convolution"
  bottom: "inception_3a/5x5_reduce"
  top: "inception_3a/5x5"
  param {
    lr_mult: 1
    decay_mult: 1
  }
  param {
    lr_mult: 2
    decay_mult: 0
  }
  convolution_param {
    num_output: 32
    pad: 2
    kernel_size: 5
    weight_filler {
      type: "xavier"
      std: 0.03
    }
    bias_filler {
      type: "constant"
      value: 0.2
    }
  }
}
layer {
  name: "inception_3a/relu_5x5"
  type: "ReLU"
  bottom: "inception_3a/5x5"
  top: "inception_3a/5x5"
}
layer {
  name: "inception_3a/pool"
  type: "Pooling"
  bottom: "pool2/3x3_s2"
  top: "inception_3a/pool"
  pooling_param {
    pool: MAX
    kernel_size: 3
    stride: 1
    pad: 1
  }
}
layer {
  name: "inception_3a/pool_proj"
  type: "Convolution"
  bottom: "inception_3a/pool"
  top: "inception_3a/pool_proj"
  param {
    lr_mult: 1
    decay_mult: 1
  }
  param {
    lr_mult: 2
    decay_mult: 0
  }
  convolution_param {
    num_output: 32
    kernel_size: 1
    weight_filler {
      type: "xavier"
      std: 0.1
    }
    bias_filler {
      type: "constant"
      value: 0.2
    }
  }
}
layer {
  name: "inception_3a/relu_pool_proj"
  type: "ReLU"
  bottom: "inception_3a/pool_proj"
  top: "inception_3a/pool_proj"
}
layer {
  name: "inception_3a/output"
  type: "Concat"
  bottom: "inception_3a/1x1"
  bottom: "inception_3a/3x3"
  bottom: "inception_3a/5x5"
  bottom: "inception_3a/pool_proj"
  top: "inception_3a/output"
}
layer {
  name: "inception_3b/1x1"
  type: "Convolution"
  bottom: "inception_3a/output"
  top: "inception_3b/1x1"
  param {
    lr_mult: 1
    decay_mult: 1
  }
  param {
    lr_mult: 2
    decay_mult: 0
  }
  convolution_param {
    num_output: 128
    kernel_size: 1
    weight_filler {
      type: "xavier"
      std: 0.03
    }
    bias_filler {
      type: "constant"
      value: 0.2
    }
  }
}
layer {
  name: "inception_3b/relu_1x1"
  type: "ReLU"
  bottom: "inception_3b/1x1"
  top: "inception_3b/1x1"
}
layer {
  name: "inception_3b/3x3_reduce"
  type: "Convolution"
  bottom: "inception_3a/output"
  top: "inception_3b/3x3_reduce"
  param {
    lr_mult: 1
    decay_mult: 1
  }
  param {
    lr_mult: 2
    decay_mult: 0
  }
  convolution_param {
    num_output: 128
    kernel_size: 1
    weight_filler {
      type: "xavier"
      std: 0.09
    }
    bias_filler {
      type: "constant"
      value: 0.2
    }
  }
}
layer {
  name: "inception_3b/relu_3x3_reduce"
  type: "ReLU"
  bottom: "inception_3b/3x3_reduce"
  top: "inception_3b/3x3_reduce"
}
layer {
  name: "inception_3b/3x3"
  type: "Convolution"
  bottom: "inception_3b/3x3_reduce"
  top: "inception_3b/3x3"
  param {
    lr_mult: 1
    decay_mult: 1
  }
  param {
    lr_mult: 2
    decay_mult: 0
  }
  convolution_param {
    num_output: 192
    pad: 1
    kernel_size: 3
    weight_filler {
      type: "xavier"
      std: 0.03
    }
    bias_filler {
      type: "constant"
      value: 0.2
    }
  }
}
layer {
  name: "inception_3b/relu_3x3"
  type: "ReLU"
  bottom: "inception_3b/3x3"
  top: "inception_3b/3x3"
}
layer {
  name: "inception_3b/5x5_reduce"
  type: "Convolution"
  bottom: "inception_3a/output"
  top: "inception_3b/5x5_reduce"
  param {
    lr_mult: 1
    decay_mult: 1
  }
  param {
    lr_mult: 2
    decay_mult: 0
  }
  convolution_param {
    num_output: 32
    kernel_size: 1
    weight_filler {
      type: "xavier"
      std: 0.2
    }
    bias_filler {
      type: "constant"
      value: 0.2
    }
  }
}
layer {
  name: "inception_3b/relu_5x5_reduce"
  type: "ReLU"
  bottom: "inception_3b/5x5_reduce"
  top: "inception_3b/5x5_reduce"
}
layer {
  name: "inception_3b/5x5"
  type: "Convolution"
  bottom: "inception_3b/5x5_reduce"
  top: "inception_3b/5x5"
  param {
    lr_mult: 1
    decay_mult: 1
  }
  param {
    lr_mult: 2
    decay_mult: 0
  }
  convolution_param {
    num_output: 96
    pad: 2
    kernel_size: 5
    weight_filler {
      type: "xavier"
      std: 0.03
    }
    bias_filler {
      type: "constant"
      value: 0.2
    }
  }
}
layer {
  name: "inception_3b/relu_5x5"
  type: "ReLU"
  bottom: "inception_3b/5x5"
  top: "inception_3b/5x5"
}
layer {
  name: "inception_3b/pool"
  type: "Pooling"
  bottom: "inception_3a/output"
  top: "inception_3b/pool"
  pooling_param {
    pool: MAX
    kernel_size: 3
    stride: 1
    pad: 1
  }
}
layer {
  name: "inception_3b/pool_proj"
  type: "Convolution"
  bottom: "inception_3b/pool"
  top: "inception_3b/pool_proj"
  param {
    lr_mult: 1
    decay_mult: 1
  }
  param {
    lr_mult: 2
    decay_mult: 0
  }
  convolution_param {
    num_output: 64
    kernel_size: 1
    weight_filler {
      type: "xavier"
      std: 0.1
    }
    bias_filler {
      type: "constant"
      value: 0.2
    }
  }
}
layer {
  name: "inception_3b/relu_pool_proj"
  type: "ReLU"
  bottom: "inception_3b/pool_proj"
  top: "inception_3b/pool_proj"
}
layer {
  name: "inception_3b/output"
  type: "Concat"
  bottom: "inception_3b/1x1"
  bottom: "inception_3b/3x3"
  bottom: "inception_3b/5x5"
  bottom: "inception_3b/pool_proj"
  top: "inception_3b/output"
}
layer {
  name: "pool3/3x3_s2"
  type: "Pooling"
  bottom: "inception_3b/output"
  top: "pool3/3x3_s2"
  pooling_param {
    pool: MAX
    kernel_size: 3
    stride: 2
  }
}
layer {
  name: "inception_4a/1x1"
  type: "Convolution"
  bottom: "pool3/3x3_s2"
  top: "inception_4a/1x1"
  param {
    lr_mult: 1
    decay_mult: 1
  }
  param {
    lr_mult: 2
    decay_mult: 0
  }
  convolution_param {
    num_output: 192
    kernel_size: 1
    weight_filler {
      type: "xavier"
      std: 0.03
    }
    bias_filler {
      type: "constant"
      value: 0.2
    }
  }
}
layer {
  name: "inception_4a/relu_1x1"
  type: "ReLU"
  bottom: "inception_4a/1x1"
  top: "inception_4a/1x1"
}
layer {
  name: "inception_4a/3x3_reduce"
  type: "Convolution"
  bottom: "pool3/3x3_s2"
  top: "inception_4a/3x3_reduce"
  param {
    lr_mult: 1
    decay_mult: 1
  }
  param {
    lr_mult: 2
    decay_mult: 0
  }
  convolution_param {
    num_output: 96
    kernel_size: 1
    weight_filler {
      type: "xavier"
      std: 0.09
    }
    bias_filler {
      type: "constant"
      value: 0.2
    }
  }
}
layer {
  name: "inception_4a/relu_3x3_reduce"
  type: "ReLU"
  bottom: "inception_4a/3x3_reduce"
  top: "inception_4a/3x3_reduce"
}
layer {
  name: "inception_4a/3x3"
  type: "Convolution"
  bottom: "inception_4a/3x3_reduce"
  top: "inception_4a/3x3"
  param {
    lr_mult: 1
    decay_mult: 1
  }
  param {
    lr_mult: 2
    decay_mult: 0
  }
  convolution_param {
    num_output: 208
    pad: 1
    kernel_size: 3
    weight_filler {
      type: "xavier"
      std: 0.03
    }
    bias_filler {
      type: "constant"
      value: 0.2
    }
  }
}
layer {
  name: "inception_4a/relu_3x3"
  type: "ReLU"
  bottom: "inception_4a/3x3"
  top: "inception_4a/3x3"
}
layer {
  name: "inception_4a/5x5_reduce"
  type: "Convolution"
  bottom: "pool3/3x3_s2"
  top: "inception_4a/5x5_reduce"
  param {
    lr_mult: 1
    decay_mult: 1
  }
  param {
    lr_mult: 2
    decay_mult: 0
  }
  convolution_param {
    num_output: 16
    kernel_size: 1
    weight_filler {
      type: "xavier"
      std: 0.2
    }
    bias_filler {
      type: "constant"
      value: 0.2
    }
  }
}
layer {
  name: "inception_4a/relu_5x5_reduce"
  type: "ReLU"
  bottom: "inception_4a/5x5_reduce"
  top: "inception_4a/5x5_reduce"
}
layer {
  name: "inception_4a/5x5"
  type: "Convolution"
  bottom: "inception_4a/5x5_reduce"
  top: "inception_4a/5x5"
  param {
    lr_mult: 1
    decay_mult: 1
  }
  param {
    lr_mult: 2
    decay_mult: 0
  }
  convolution_param {
    num_output: 48
    pad: 2
    kernel_size: 5
    weight_filler {
      type: "xavier"
      std: 0.03
    }
    bias_filler {
      type: "constant"
      value: 0.2
    }
  }
}
layer {
  name: "inception_4a/relu_5x5"
  type: "ReLU"
  bottom: "inception_4a/5x5"
  top: "inception_4a/5x5"
}
layer {
  name: "inception_4a/pool"
  type: "Pooling"
  bottom: "pool3/3x3_s2"
  top: "inception_4a/pool"
  pooling_param {
    pool: MAX
    kernel_size: 3
    stride: 1
    pad: 1
  }
}
layer {
  name: "inception_4a/pool_proj"
  type: "Convolution"
  bottom: "inception_4a/pool"
  top: "inception_4a/pool_proj"
  param {
    lr_mult: 1
    decay_mult: 1
  }
  param {
    lr_mult: 2
    decay_mult: 0
  }
  convolution_param {
    num_output: 64
    kernel_size: 1
    weight_filler {
      type: "xavier"
      std: 0.1
    }
    bias_filler {
      type: "constant"
      value: 0.2
    }
  }
}
layer {
  name: "inception_4a/relu_pool_proj"
  type: "ReLU"
  bottom: "inception_4a/pool_proj"
  top: "inception_4a/pool_proj"
}
layer {
  name: "inception_4a/output"
  type: "Concat"
  bottom: "inception_4a/1x1"
  bottom: "inception_4a/3x3"
  bottom: "inception_4a/5x5"
  bottom: "inception_4a/pool_proj"
  top: "inception_4a/output"
}
layer {
  name: "loss1/ave_pool"
  type: "Pooling"
  bottom: "inception_4a/output"
  top: "loss1/ave_pool"
  pooling_param {
    pool: AVE
    kernel_size: 5
    stride: 3
  }
}
layer {
  name: "loss1/conv"
  type: "Convolution"
  bottom: "loss1/ave_pool"
  top: "loss1/conv"
  param {
    lr_mult: 1
    decay_mult: 1
  }
  param {
    lr_mult: 2
    decay_mult: 0
  }
  convolution_param {
    num_output: 128
    kernel_size: 1
    weight_filler {
      type: "xavier"
      std: 0.08
    }
    bias_filler {
      type: "constant"
      value: 0.2
    }
  }
}
layer {
  name: "loss1/relu_conv"
  type: "ReLU"
  bottom: "loss1/conv"
  top: "loss1/conv"
}
layer {
  name: "loss1/fc"
  type: "InnerProduct"
  bottom: "loss1/conv"
  top: "loss1/fc"
  param {
    lr_mult: 1
    decay_mult: 1
  }
  param {
    lr_mult: 2
    decay_mult: 0
  }
  inner_product_param {
    num_output: 1024
    weight_filler {
      type: "xavier"
      std: 0.02
    }
    bias_filler {
      type: "constant"
      value: 0.2
    }
  }
}
layer {
  name: "loss1/relu_fc"
  type: "ReLU"
  bottom: "loss1/fc"
  top: "loss1/fc"
}
layer {
  name: "loss1/drop_fc"
  type: "Dropout"
  bottom: "loss1/fc"
  top: "loss1/fc"
  dropout_param {
    dropout_ratio: 0.7
  }
}
layer {
  name: "loss1/classifier_plantvillage"
  type: "InnerProduct"
  bottom: "loss1/fc"
  top: "loss1/classifier_plantvillage"
  param {
    lr_mult: 1
    decay_mult: 1
  }
  param {
    lr_mult: 2
    decay_mult: 0
  }
  inner_product_param {
    num_output: 38
    weight_filler {
      type: "xavier"
      std: 0.0009765625
    }
    bias_filler {
      type: "constant"
      value: 0
    }
  }
}
layer {
  name: "inception_4b/1x1"
  type: "Convolution"
  bottom: "inception_4a/output"
  top: "inception_4b/1x1"
  param {
    lr_mult: 1
    decay_mult: 1
  }
  param {
    lr_mult: 2
    decay_mult: 0
  }
  convolution_param {
    num_output: 160
    kernel_size: 1
    weight_filler {
      type: "xavier"
      std: 0.03
    }
    bias_filler {
      type: "constant"
      value: 0.2
    }
  }
}
layer {
  name: "inception_4b/relu_1x1"
  type: "ReLU"
  bottom: "inception_4b/1x1"
  top: "inception_4b/1x1"
}
layer {
  name: "inception_4b/3x3_reduce"
  type: "Convolution"
  bottom: "inception_4a/output"
  top: "inception_4b/3x3_reduce"
  param {
    lr_mult: 1
    decay_mult: 1
  }
  param {
    lr_mult: 2
    decay_mult: 0
  }
  convolution_param {
    num_output: 112
    kernel_size: 1
    weight_filler {
      type: "xavier"
      std: 0.09
    }
    bias_filler {
      type: "constant"
      value: 0.2
    }
  }
}
layer {
  name: "inception_4b/relu_3x3_reduce"
  type: "ReLU"
  bottom: "inception_4b/3x3_reduce"
  top: "inception_4b/3x3_reduce"
}
layer {
  name: "inception_4b/3x3"
  type: "Convolution"
  bottom: "inception_4b/3x3_reduce"
  top: "inception_4b/3x3"
  param {
    lr_mult: 1
    decay_mult: 1
  }
  param {
    lr_mult: 2
    decay_mult: 0
  }
  convolution_param {
    num_output: 224
    pad: 1
    kernel_size: 3
    weight_filler {
      type: "xavier"
      std: 0.03
    }
    bias_filler {
      type: "constant"
      value: 0.2
    }
  }
}
layer {
  name: "inception_4b/relu_3x3"
  type: "ReLU"
  bottom: "inception_4b/3x3"
  top: "inception_4b/3x3"
}
layer {
  name: "inception_4b/5x5_reduce"
  type: "Convolution"
  bottom: "inception_4a/output"
  top: "inception_4b/5x5_reduce"
  param {
    lr_mult: 1
    decay_mult: 1
  }
  param {
    lr_mult: 2
    decay_mult: 0
  }
  convolution_param {
    num_output: 24
    kernel_size: 1
    weight_filler {
      type: "xavier"
      std: 0.2
    }
    bias_filler {
      type: "constant"
      value: 0.2
    }
  }
}
layer {
  name: "inception_4b/relu_5x5_reduce"
  type: "ReLU"
  bottom: "inception_4b/5x5_reduce"
  top: "inception_4b/5x5_reduce"
}
layer {
  name: "inception_4b/5x5"
  type: "Convolution"
  bottom: "inception_4b/5x5_reduce"
  top: "inception_4b/5x5"
  param {
    lr_mult: 1
    decay_mult: 1
  }
  param {
    lr_mult: 2
    decay_mult: 0
  }
  convolution_param {
    num_output: 64
    pad: 2
    kernel_size: 5
    weight_filler {
      type: "xavier"
      std: 0.03
    }
    bias_filler {
      type: "constant"
      value: 0.2
    }
  }
}
layer {
  name: "inception_4b/relu_5x5"
  type: "ReLU"
  bottom: "inception_4b/5x5"
  top: "inception_4b/5x5"
}
layer {
  name: "inception_4b/pool"
  type: "Pooling"
  bottom: "inception_4a/output"
  top: "inception_4b/pool"
  pooling_param {
    pool: MAX
    kernel_size: 3
    stride: 1
    pad: 1
  }
}
layer {
  name: "inception_4b/pool_proj"
  type: "Convolution"
  bottom: "inception_4b/pool"
  top: "inception_4b/pool_proj"
  param {
    lr_mult: 1
    decay_mult: 1
  }
  param {
    lr_mult: 2
    decay_mult: 0
  }
  convolution_param {
    num_output: 64
    kernel_size: 1
    weight_filler {
      type: "xavier"
      std: 0.1
    }
    bias_filler {
      type: "constant"
      value: 0.2
    }
  }
}
layer {
  name: "inception_4b/relu_pool_proj"
  type: "ReLU"
  bottom: "inception_4b/pool_proj"
  top: "inception_4b/pool_proj"
}
layer {
  name: "inception_4b/output"
  type: "Concat"
  bottom: "inception_4b/1x1"
  bottom: "inception_4b/3x3"
  bottom: "inception_4b/5x5"
  bottom: "inception_4b/pool_proj"
  top: "inception_4b/output"
}
layer {
  name: "inception_4c/1x1"
  type: "Convolution"
  bottom: "inception_4b/output"
  top: "inception_4c/1x1"
  param {
    lr_mult: 1
    decay_mult: 1
  }
  param {
    lr_mult: 2
    decay_mult: 0
  }
  convolution_param {
    num_output: 128
    kernel_size: 1
    weight_filler {
      type: "xavier"
      std: 0.03
    }
    bias_filler {
      type: "constant"
      value: 0.2
    }
  }
}
layer {
  name: "inception_4c/relu_1x1"
  type: "ReLU"
  bottom: "inception_4c/1x1"
  top: "inception_4c/1x1"
}
layer {
  name: "inception_4c/3x3_reduce"
  type: "Convolution"
  bottom: "inception_4b/output"
  top: "inception_4c/3x3_reduce"
  param {
    lr_mult: 1
    decay_mult: 1
  }
  param {
    lr_mult: 2
    decay_mult: 0
  }
  convolution_param {
    num_output: 128
    kernel_size: 1
    weight_filler {
      type: "xavier"
      std: 0.09
    }
    bias_filler {
      type: "constant"
      value: 0.2
    }
  }
}
layer {
  name: "inception_4c/relu_3x3_reduce"
  type: "ReLU"
  bottom: "inception_4c/3x3_reduce"
  top: "inception_4c/3x3_reduce"
}
layer {
  name: "inception_4c/3x3"
  type: "Convolution"
  bottom: "inception_4c/3x3_reduce"
  top: "inception_4c/3x3"
  param {
    lr_mult: 1
    decay_mult: 1
  }
  param {
    lr_mult: 2
    decay_mult: 0
  }
  convolution_param {
    num_output: 256
    pad: 1
    kernel_size: 3
    weight_filler {
      type: "xavier"
      std: 0.03
    }
    bias_filler {
      type: "constant"
      value: 0.2
    }
  }
}
layer {
  name: "inception_4c/relu_3x3"
  type: "ReLU"
  bottom: "inception_4c/3x3"
  top: "inception_4c/3x3"
}
layer {
  name: "inception_4c/5x5_reduce"
  type: "Convolution"
  bottom: "inception_4b/output"
  top: "inception_4c/5x5_reduce"
  param {
    lr_mult: 1
    decay_mult: 1
  }
  param {
    lr_mult: 2
    decay_mult: 0
  }
  convolution_param {
    num_output: 24
    kernel_size: 1
    weight_filler {
      type: "xavier"
      std: 0.2
    }
    bias_filler {
      type: "constant"
      value: 0.2
    }
  }
}
layer {
  name: "inception_4c/relu_5x5_reduce"
  type: "ReLU"
  bottom: "inception_4c/5x5_reduce"
  top: "inception_4c/5x5_reduce"
}
layer {
  name: "inception_4c/5x5"
  type: "Convolution"
  bottom: "inception_4c/5x5_reduce"
  top: "inception_4c/5x5"
  param {
    lr_mult: 1
    decay_mult: 1
  }
  param {
    lr_mult: 2
    decay_mult: 0
  }
  convolution_param {
    num_output: 64
    pad: 2
    kernel_size: 5
    weight_filler {
      type: "xavier"
      std: 0.03
    }
    bias_filler {
      type: "constant"
      value: 0.2
    }
  }
}
layer {
  name: "inception_4c/relu_5x5"
  type: "ReLU"
  bottom: "inception_4c/5x5"
  top: "inception_4c/5x5"
}
layer {
  name: "inception_4c/pool"
  type: "Pooling"
  bottom: "inception_4b/output"
  top: "inception_4c/pool"
  pooling_param {
    pool: MAX
    kernel_size: 3
    stride: 1
    pad: 1
  }
}
layer {
  name: "inception_4c/pool_proj"
  type: "Convolution"
  bottom: "inception_4c/pool"
  top: "inception_4c/pool_proj"
  param {
    lr_mult: 1
    decay_mult: 1
  }
  param {
    lr_mult: 2
    decay_mult: 0
  }
  convolution_param {
    num_output: 64
    kernel_size: 1
    weight_filler {
      type: "xavier"
      std: 0.1
    }
    bias_filler {
      type: "constant"
      value: 0.2
    }
  }
}
layer {
  name: "inception_4c/relu_pool_proj"
  type: "ReLU"
  bottom: "inception_4c/pool_proj"
  top: "inception_4c/pool_proj"
}
layer {
  name: "inception_4c/output"
  type: "Concat"
  bottom: "inception_4c/1x1"
  bottom: "inception_4c/3x3"
  bottom: "inception_4c/5x5"
  bottom: "inception_4c/pool_proj"
  top: "inception_4c/output"
}
layer {
  name: "inception_4d/1x1"
  type: "Convolution"
  bottom: "inception_4c/output"
  top: "inception_4d/1x1"
  param {
    lr_mult: 1
    decay_mult: 1
  }
  param {
    lr_mult: 2
    decay_mult: 0
  }
  convolution_param {
    num_output: 112
    kernel_size: 1
    weight_filler {
      type: "xavier"
      std: 0.03
    }
    bias_filler {
      type: "constant"
      value: 0.2
    }
  }
}
layer {
  name: "inception_4d/relu_1x1"
  type: "ReLU"
  bottom: "inception_4d/1x1"
  top: "inception_4d/1x1"
}
layer {
  name: "inception_4d/3x3_reduce"
  type: "Convolution"
  bottom: "inception_4c/output"
  top: "inception_4d/3x3_reduce"
  param {
    lr_mult: 1
    decay_mult: 1
  }
  param {
    lr_mult: 2
    decay_mult: 0
  }
  convolution_param {
    num_output: 144
    kernel_size: 1
    weight_filler {
      type: "xavier"
      std: 0.09
    }
    bias_filler {
      type: "constant"
      value: 0.2
    }
  }
}
layer {
  name: "inception_4d/relu_3x3_reduce"
  type: "ReLU"
  bottom: "inception_4d/3x3_reduce"
  top: "inception_4d/3x3_reduce"
}
layer {
  name: "inception_4d/3x3"
  type: "Convolution"
  bottom: "inception_4d/3x3_reduce"
  top: "inception_4d/3x3"
  param {
    lr_mult: 1
    decay_mult: 1
  }
  param {
    lr_mult: 2
    decay_mult: 0
  }
  convolution_param {
    num_output: 288
    pad: 1
    kernel_size: 3
    weight_filler {
      type: "xavier"
      std: 0.03
    }
    bias_filler {
      type: "constant"
      value: 0.2
    }
  }
}
layer {
  name: "inception_4d/relu_3x3"
  type: "ReLU"
  bottom: "inception_4d/3x3"
  top: "inception_4d/3x3"
}
layer {
  name: "inception_4d/5x5_reduce"
  type: "Convolution"
  bottom: "inception_4c/output"
  top: "inception_4d/5x5_reduce"
  param {
    lr_mult: 1
    decay_mult: 1
  }
  param {
    lr_mult: 2
    decay_mult: 0
  }
  convolution_param {
    num_output: 32
    kernel_size: 1
    weight_filler {
      type: "xavier"
      std: 0.2
    }
    bias_filler {
      type: "constant"
      value: 0.2
    }
  }
}
layer {
  name: "inception_4d/relu_5x5_reduce"
  type: "ReLU"
  bottom: "inception_4d/5x5_reduce"
  top: "inception_4d/5x5_reduce"
}
layer {
  name: "inception_4d/5x5"
  type: "Convolution"
  bottom: "inception_4d/5x5_reduce"
  top: "inception_4d/5x5"
  param {
    lr_mult: 1
    decay_mult: 1
  }
  param {
    lr_mult: 2
    decay_mult: 0
  }
  convolution_param {
    num_output: 64
    pad: 2
    kernel_size: 5
    weight_filler {
      type: "xavier"
      std: 0.03
    }
    bias_filler {
      type: "constant"
      value: 0.2
    }
  }
}
layer {
  name: "inception_4d/relu_5x5"
  type: "ReLU"
  bottom: "inception_4d/5x5"
  top: "inception_4d/5x5"
}
layer {
  name: "inception_4d/pool"
  type: "Pooling"
  bottom: "inception_4c/output"
  top: "inception_4d/pool"
  pooling_param {
    pool: MAX
    kernel_size: 3
    stride: 1
    pad: 1
  }
}
layer {
  name: "inception_4d/pool_proj"
  type: "Convolution"
  bottom: "inception_4d/pool"
  top: "inception_4d/pool_proj"
  param {
    lr_mult: 1
    decay_mult: 1
  }
  param {
    lr_mult: 2
    decay_mult: 0
  }
  convolution_param {
    num_output: 64
    kernel_size: 1
    weight_filler {
      type: "xavier"
      std: 0.1
    }
    bias_filler {
      type: "constant"
      value: 0.2
    }
  }
}
layer {
  name: "inception_4d/relu_pool_proj"
  type: "ReLU"
  bottom: "inception_4d/pool_proj"
  top: "inception_4d/pool_proj"
}
layer {
  name: "inception_4d/output"
  type: "Concat"
  bottom: "inception_4d/1x1"
  bottom: "inception_4d/3x3"
  bottom: "inception_4d/5x5"
  bottom: "inception_4d/pool_proj"
  top: "inception_4d/output"
}
layer {
  name: "loss2/ave_pool"
  type: "Pooling"
  bottom: "inception_4d/output"
  top: "loss2/ave_pool"
  pooling_param {
    pool: AVE
    kernel_size: 5
    stride: 3
  }
}
layer {
  name: "loss2/conv"
  type: "Convolution"
  bottom: "loss2/ave_pool"
  top: "loss2/conv"
  param {
    lr_mult: 1
    decay_mult: 1
  }
  param {
    lr_mult: 2
    decay_mult: 0
  }
  convolution_param {
    num_output: 128
    kernel_size: 1
    weight_filler {
      type: "xavier"
      std: 0.08
    }
    bias_filler {
      type: "constant"
      value: 0.2
    }
  }
}
layer {
  name: "loss2/relu_conv"
  type: "ReLU"
  bottom: "loss2/conv"
  top: "loss2/conv"
}
layer {
  name: "loss2/fc"
  type: "InnerProduct"
  bottom: "loss2/conv"
  top: "loss2/fc"
  param {
    lr_mult: 1
    decay_mult: 1
  }
  param {
    lr_mult: 2
    decay_mult: 0
  }
  inner_product_param {
    num_output: 1024
    weight_filler {
      type: "xavier"
      std: 0.02
    }
    bias_filler {
      type: "constant"
      value: 0.2
    }
  }
}
layer {
  name: "loss2/relu_fc"
  type: "ReLU"
  bottom: "loss2/fc"
  top: "loss2/fc"
}
layer {
  name: "loss2/drop_fc"
  type: "Dropout"
  bottom: "loss2/fc"
  top: "loss2/fc"
  dropout_param {
    dropout_ratio: 0.7
  }
}
layer {
  name: "loss2/classifier_plantvillage"
  type: "InnerProduct"
  bottom: "loss2/fc"
  top: "loss2/classifier_plantvillage"
  param {
    lr_mult: 1
    decay_mult: 1
  }
  param {
    lr_mult: 2
    decay_mult: 0
  }
  inner_product_param {
    num_output: 38
    weight_filler {
      type: "xavier"
      std: 0.0009765625
    }
    bias_filler {
      type: "constant"
      value: 0
    }
  }
}
layer {
  name: "inception_4e/1x1"
  type: "Convolution"
  bottom: "inception_4d/output"
  top: "inception_4e/1x1"
  param {
    lr_mult: 1
    decay_mult: 1
  }
  param {
    lr_mult: 2
    decay_mult: 0
  }
  convolution_param {
    num_output: 256
    kernel_size: 1
    weight_filler {
      type: "xavier"
      std: 0.03
    }
    bias_filler {
      type: "constant"
      value: 0.2
    }
  }
}
layer {
  name: "inception_4e/relu_1x1"
  type: "ReLU"
  bottom: "inception_4e/1x1"
  top: "inception_4e/1x1"
}
layer {
  name: "inception_4e/3x3_reduce"
  type: "Convolution"
  bottom: "inception_4d/output"
  top: "inception_4e/3x3_reduce"
  param {
    lr_mult: 1
    decay_mult: 1
  }
  param {
    lr_mult: 2
    decay_mult: 0
  }
  convolution_param {
    num_output: 160
    kernel_size: 1
    weight_filler {
      type: "xavier"
      std: 0.09
    }
    bias_filler {
      type: "constant"
      value: 0.2
    }
  }
}
layer {
  name: "inception_4e/relu_3x3_reduce"
  type: "ReLU"
  bottom: "inception_4e/3x3_reduce"
  top: "inception_4e/3x3_reduce"
}
layer {
  name: "inception_4e/3x3"
  type: "Convolution"
  bottom: "inception_4e/3x3_reduce"
  top: "inception_4e/3x3"
  param {
    lr_mult: 1
    decay_mult: 1
  }
  param {
    lr_mult: 2
    decay_mult: 0
  }
  convolution_param {
    num_output: 320
    pad: 1
    kernel_size: 3
    weight_filler {
      type: "xavier"
      std: 0.03
    }
    bias_filler {
      type: "constant"
      value: 0.2
    }
  }
}
layer {
  name: "inception_4e/relu_3x3"
  type: "ReLU"
  bottom: "inception_4e/3x3"
  top: "inception_4e/3x3"
}
layer {
  name: "inception_4e/5x5_reduce"
  type: "Convolution"
  bottom: "inception_4d/output"
  top: "inception_4e/5x5_reduce"
  param {
    lr_mult: 1
    decay_mult: 1
  }
  param {
    lr_mult: 2
    decay_mult: 0
  }
  convolution_param {
    num_output: 32
    kernel_size: 1
    weight_filler {
      type: "xavier"
      std: 0.2
    }
    bias_filler {
      type: "constant"
      value: 0.2
    }
  }
}
layer {
  name: "inception_4e/relu_5x5_reduce"
  type: "ReLU"
  bottom: "inception_4e/5x5_reduce"
  top: "inception_4e/5x5_reduce"
}
layer {
  name: "inception_4e/5x5"
  type: "Convolution"
  bottom: "inception_4e/5x5_reduce"
  top: "inception_4e/
I0403 21:54:26.058951 24646 layer_factory.hpp:77] Creating layer data
I0403 21:54:26.059538 24646 net.cpp:91] Creating Layer data
I0403 21:54:26.059569 24646 net.cpp:399] data -> data
I0403 21:54:26.059619 24646 net.cpp:399] data -> label
I0403 21:54:26.059659 24646 data_transformer.cpp:25] Loading mean file from: /home/mohanty/data/final_dataset/lmdb/segmented-80-20/mean.binaryproto
I0403 21:54:26.060827 24648 db_lmdb.cpp:38] Opened lmdb /home/mohanty/data/final_dataset/lmdb/segmented-80-20/test_db
I0403 21:54:26.072552 24646 data_layer.cpp:41] output data size: 24,3,224,224
I0403 21:54:26.099844 24646 net.cpp:141] Setting up data
I0403 21:54:26.099931 24646 net.cpp:148] Top shape: 24 3 224 224 (3612672)
I0403 21:54:26.099956 24646 net.cpp:148] Top shape: 24 (24)
I0403 21:54:26.099972 24646 net.cpp:156] Memory required for data: 14450784
I0403 21:54:26.099998 24646 layer_factory.hpp:77] Creating layer label_data_1_split
I0403 21:54:26.100028 24646 net.cpp:91] Creating Layer label_data_1_split
I0403 21:54:26.100046 24646 net.cpp:425] label_data_1_split <- label
I0403 21:54:26.100080 24646 net.cpp:399] label_data_1_split -> label_data_1_split_0
I0403 21:54:26.100108 24646 net.cpp:399] label_data_1_split -> label_data_1_split_1
I0403 21:54:26.100129 24646 net.cpp:399] label_data_1_split -> label_data_1_split_2
I0403 21:54:26.100152 24646 net.cpp:399] label_data_1_split -> label_data_1_split_3
I0403 21:54:26.100172 24646 net.cpp:399] label_data_1_split -> label_data_1_split_4
I0403 21:54:26.100193 24646 net.cpp:399] label_data_1_split -> label_data_1_split_5
I0403 21:54:26.100217 24646 net.cpp:399] label_data_1_split -> label_data_1_split_6
I0403 21:54:26.100239 24646 net.cpp:399] label_data_1_split -> label_data_1_split_7
I0403 21:54:26.100260 24646 net.cpp:399] label_data_1_split -> label_data_1_split_8
I0403 21:54:26.100281 24646 net.cpp:399] label_data_1_split -> label_data_1_split_9
I0403 21:54:26.100392 24646 net.cpp:141] Setting up label_data_1_split
I0403 21:54:26.100417 24646 net.cpp:148] Top shape: 24 (24)
I0403 21:54:26.100433 24646 net.cpp:148] Top shape: 24 (24)
I0403 21:54:26.100450 24646 net.cpp:148] Top shape: 24 (24)
I0403 21:54:26.100466 24646 net.cpp:148] Top shape: 24 (24)
I0403 21:54:26.100481 24646 net.cpp:148] Top shape: 24 (24)
I0403 21:54:26.100497 24646 net.cpp:148] Top shape: 24 (24)
I0403 21:54:26.100512 24646 net.cpp:148] Top shape: 24 (24)
I0403 21:54:26.100528 24646 net.cpp:148] Top shape: 24 (24)
I0403 21:54:26.100543 24646 net.cpp:148] Top shape: 24 (24)
I0403 21:54:26.100559 24646 net.cpp:148] Top shape: 24 (24)
I0403 21:54:26.100605 24646 net.cpp:156] Memory required for data: 14451744
I0403 21:54:26.100621 24646 layer_factory.hpp:77] Creating layer conv1/7x7_s2
I0403 21:54:26.100653 24646 net.cpp:91] Creating Layer conv1/7x7_s2
I0403 21:54:26.100673 24646 net.cpp:425] conv1/7x7_s2 <- data
I0403 21:54:26.100692 24646 net.cpp:399] conv1/7x7_s2 -> conv1/7x7_s2
I0403 21:54:26.242028 24646 net.cpp:141] Setting up conv1/7x7_s2
I0403 21:54:26.242107 24646 net.cpp:148] Top shape: 24 64 112 112 (19267584)
I0403 21:54:26.242126 24646 net.cpp:156] Memory required for data: 91522080
I0403 21:54:26.242158 24646 layer_factory.hpp:77] Creating layer conv1/relu_7x7
I0403 21:54:26.242187 24646 net.cpp:91] Creating Layer conv1/relu_7x7
I0403 21:54:26.242208 24646 net.cpp:425] conv1/relu_7x7 <- conv1/7x7_s2
I0403 21:54:26.242229 24646 net.cpp:386] conv1/relu_7x7 -> conv1/7x7_s2 (in-place)
I0403 21:54:26.242475 24646 net.cpp:141] Setting up conv1/relu_7x7
I0403 21:54:26.242501 24646 net.cpp:148] Top shape: 24 64 112 112 (19267584)
I0403 21:54:26.242517 24646 net.cpp:156] Memory required for data: 168592416
I0403 21:54:26.242532 24646 layer_factory.hpp:77] Creating layer pool1/3x3_s2
I0403 21:54:26.242557 24646 net.cpp:91] Creating Layer pool1/3x3_s2
I0403 21:54:26.242575 24646 net.cpp:425] pool1/3x3_s2 <- conv1/7x7_s2
I0403 21:54:26.242594 24646 net.cpp:399] pool1/3x3_s2 -> pool1/3x3_s2
I0403 21:54:26.242668 24646 net.cpp:141] Setting up pool1/3x3_s2
I0403 21:54:26.242693 24646 net.cpp:148] Top shape: 24 64 56 56 (4816896)
I0403 21:54:26.242708 24646 net.cpp:156] Memory required for data: 187860000
I0403 21:54:26.242724 24646 layer_factory.hpp:77] Creating layer pool1/norm1
I0403 21:54:26.242748 24646 net.cpp:91] Creating Layer pool1/norm1
I0403 21:54:26.242766 24646 net.cpp:425] pool1/norm1 <- pool1/3x3_s2
I0403 21:54:26.242784 24646 net.cpp:399] pool1/norm1 -> pool1/norm1
I0403 21:54:26.243057 24646 net.cpp:141] Setting up pool1/norm1
I0403 21:54:26.243085 24646 net.cpp:148] Top shape: 24 64 56 56 (4816896)
I0403 21:54:26.243101 24646 net.cpp:156] Memory required for data: 207127584
I0403 21:54:26.243116 24646 layer_factory.hpp:77] Creating layer conv2/3x3_reduce
I0403 21:54:26.243140 24646 net.cpp:91] Creating Layer conv2/3x3_reduce
I0403 21:54:26.243157 24646 net.cpp:425] conv2/3x3_reduce <- pool1/norm1
I0403 21:54:26.243175 24646 net.cpp:399] conv2/3x3_reduce -> conv2/3x3_reduce
I0403 21:54:26.244480 24646 net.cpp:141] Setting up conv2/3x3_reduce
I0403 21:54:26.244509 24646 net.cpp:148] Top shape: 24 64 56 56 (4816896)
I0403 21:54:26.244526 24646 net.cpp:156] Memory required for data: 226395168
I0403 21:54:26.244549 24646 layer_factory.hpp:77] Creating layer conv2/relu_3x3_reduce
I0403 21:54:26.244566 24646 net.cpp:91] Creating Layer conv2/relu_3x3_reduce
I0403 21:54:26.244582 24646 net.cpp:425] conv2/relu_3x3_reduce <- conv2/3x3_reduce
I0403 21:54:26.244599 24646 net.cpp:386] conv2/relu_3x3_reduce -> conv2/3x3_reduce (in-place)
I0403 21:54:26.244844 24646 net.cpp:141] Setting up conv2/relu_3x3_reduce
I0403 21:54:26.244870 24646 net.cpp:148] Top shape: 24 64 56 56 (4816896)
I0403 21:54:26.244885 24646 net.cpp:156] Memory required for data: 245662752
I0403 21:54:26.244901 24646 layer_factory.hpp:77] Creating layer conv2/3x3
I0403 21:54:26.244922 24646 net.cpp:91] Creating Layer conv2/3x3
I0403 21:54:26.244940 24646 net.cpp:425] conv2/3x3 <- conv2/3x3_reduce
I0403 21:54:26.244959 24646 net.cpp:399] conv2/3x3 -> conv2/3x3
I0403 21:54:26.247123 24646 net.cpp:141] Setting up conv2/3x3
I0403 21:54:26.247153 24646 net.cpp:148] Top shape: 24 192 56 56 (14450688)
I0403 21:54:26.247170 24646 net.cpp:156] Memory required for data: 303465504
I0403 21:54:26.247191 24646 layer_factory.hpp:77] Creating layer conv2/relu_3x3
I0403 21:54:26.247215 24646 net.cpp:91] Creating Layer conv2/relu_3x3
I0403 21:54:26.247233 24646 net.cpp:425] conv2/relu_3x3 <- conv2/3x3
I0403 21:54:26.247251 24646 net.cpp:386] conv2/relu_3x3 -> conv2/3x3 (in-place)
I0403 21:54:26.247402 24646 net.cpp:141] Setting up conv2/relu_3x3
I0403 21:54:26.247428 24646 net.cpp:148] Top shape: 24 192 56 56 (14450688)
I0403 21:54:26.247475 24646 net.cpp:156] Memory required for data: 361268256
I0403 21:54:26.247493 24646 layer_factory.hpp:77] Creating layer conv2/norm2
I0403 21:54:26.247511 24646 net.cpp:91] Creating Layer conv2/norm2
I0403 21:54:26.247526 24646 net.cpp:425] conv2/norm2 <- conv2/3x3
I0403 21:54:26.247544 24646 net.cpp:399] conv2/norm2 -> conv2/norm2
I0403 21:54:26.247823 24646 net.cpp:141] Setting up conv2/norm2
I0403 21:54:26.247850 24646 net.cpp:148] Top shape: 24 192 56 56 (14450688)
I0403 21:54:26.247866 24646 net.cpp:156] Memory required for data: 419071008
I0403 21:54:26.247880 24646 layer_factory.hpp:77] Creating layer pool2/3x3_s2
I0403 21:54:26.247897 24646 net.cpp:91] Creating Layer pool2/3x3_s2
I0403 21:54:26.247913 24646 net.cpp:425] pool2/3x3_s2 <- conv2/norm2
I0403 21:54:26.247931 24646 net.cpp:399] pool2/3x3_s2 -> pool2/3x3_s2
I0403 21:54:26.247978 24646 net.cpp:141] Setting up pool2/3x3_s2
I0403 21:54:26.248002 24646 net.cpp:148] Top shape: 24 192 28 28 (3612672)
I0403 21:54:26.248016 24646 net.cpp:156] Memory required for data: 433521696
I0403 21:54:26.248031 24646 layer_factory.hpp:77] Creating layer pool2/3x3_s2_pool2/3x3_s2_0_split
I0403 21:54:26.248049 24646 net.cpp:91] Creating Layer pool2/3x3_s2_pool2/3x3_s2_0_split
I0403 21:54:26.248065 24646 net.cpp:425] pool2/3x3_s2_pool2/3x3_s2_0_split <- pool2/3x3_s2
I0403 21:54:26.248082 24646 net.cpp:399] pool2/3x3_s2_pool2/3x3_s2_0_split -> pool2/3x3_s2_pool2/3x3_s2_0_split_0
I0403 21:54:26.248103 24646 net.cpp:399] pool2/3x3_s2_pool2/3x3_s2_0_split -> pool2/3x3_s2_pool2/3x3_s2_0_split_1
I0403 21:54:26.248122 24646 net.cpp:399] pool2/3x3_s2_pool2/3x3_s2_0_split -> pool2/3x3_s2_pool2/3x3_s2_0_split_2
I0403 21:54:26.248142 24646 net.cpp:399] pool2/3x3_s2_pool2/3x3_s2_0_split -> pool2/3x3_s2_pool2/3x3_s2_0_split_3
I0403 21:54:26.248229 24646 net.cpp:141] Setting up pool2/3x3_s2_pool2/3x3_s2_0_split
I0403 21:54:26.248253 24646 net.cpp:148] Top shape: 24 192 28 28 (3612672)
I0403 21:54:26.248270 24646 net.cpp:148] Top shape: 24 192 28 28 (3612672)
I0403 21:54:26.248286 24646 net.cpp:148] Top shape: 24 192 28 28 (3612672)
I0403 21:54:26.248302 24646 net.cpp:148] Top shape: 24 192 28 28 (3612672)
I0403 21:54:26.248317 24646 net.cpp:156] Memory required for data: 491324448
I0403 21:54:26.248332 24646 layer_factory.hpp:77] Creating layer inception_3a/1x1
I0403 21:54:26.248353 24646 net.cpp:91] Creating Layer inception_3a/1x1
I0403 21:54:26.248370 24646 net.cpp:425] inception_3a/1x1 <- pool2/3x3_s2_pool2/3x3_s2_0_split_0
I0403 21:54:26.248390 24646 net.cpp:399] inception_3a/1x1 -> inception_3a/1x1
I0403 21:54:26.249852 24646 net.cpp:141] Setting up inception_3a/1x1
I0403 21:54:26.249882 24646 net.cpp:148] Top shape: 24 64 28 28 (1204224)
I0403 21:54:26.249898 24646 net.cpp:156] Memory required for data: 496141344
I0403 21:54:26.249917 24646 layer_factory.hpp:77] Creating layer inception_3a/relu_1x1
I0403 21:54:26.249938 24646 net.cpp:91] Creating Layer inception_3a/relu_1x1
I0403 21:54:26.249956 24646 net.cpp:425] inception_3a/relu_1x1 <- inception_3a/1x1
I0403 21:54:26.249974 24646 net.cpp:386] inception_3a/relu_1x1 -> inception_3a/1x1 (in-place)
I0403 21:54:26.250131 24646 net.cpp:141] Setting up inception_3a/relu_1x1
I0403 21:54:26.250157 24646 net.cpp:148] Top shape: 24 64 28 28 (1204224)
I0403 21:54:26.250174 24646 net.cpp:156] Memory required for data: 500958240
I0403 21:54:26.250188 24646 layer_factory.hpp:77] Creating layer inception_3a/3x3_reduce
I0403 21:54:26.250214 24646 net.cpp:91] Creating Layer inception_3a/3x3_reduce
I0403 21:54:26.250232 24646 net.cpp:425] inception_3a/3x3_reduce <- pool2/3x3_s2_pool2/3x3_s2_0_split_1
I0403 21:54:26.250252 24646 net.cpp:399] inception_3a/3x3_reduce -> inception_3a/3x3_reduce
I0403 21:54:26.251881 24646 net.cpp:141] Setting up inception_3a/3x3_reduce
I0403 21:54:26.251911 24646 net.cpp:148] Top shape: 24 96 28 28 (1806336)
I0403 21:54:26.251929 24646 net.cpp:156] Memory required for data: 508183584
I0403 21:54:26.251950 24646 layer_factory.hpp:77] Creating layer inception_3a/relu_3x3_reduce
I0403 21:54:26.251988 24646 net.cpp:91] Creating Layer inception_3a/relu_3x3_reduce
I0403 21:54:26.252007 24646 net.cpp:425] inception_3a/relu_3x3_reduce <- inception_3a/3x3_reduce
I0403 21:54:26.252027 24646 net.cpp:386] inception_3a/relu_3x3_reduce -> inception_3a/3x3_reduce (in-place)
I0403 21:54:26.252221 24646 net.cpp:141] Setting up inception_3a/relu_3x3_reduce
I0403 21:54:26.252248 24646 net.cpp:148] Top shape: 24 96 28 28 (1806336)
I0403 21:54:26.252262 24646 net.cpp:156] Memory required for data: 515408928
I0403 21:54:26.252277 24646 layer_factory.hpp:77] Creating layer inception_3a/3x3
I0403 21:54:26.252300 24646 net.cpp:91] Creating Layer inception_3a/3x3
I0403 21:54:26.252318 24646 net.cpp:425] inception_3a/3x3 <- inception_3a/3x3_reduce
I0403 21:54:26.252341 24646 net.cpp:399] inception_3a/3x3 -> inception_3a/3x3
I0403 21:54:26.253967 24646 net.cpp:141] Setting up inception_3a/3x3
I0403 21:54:26.253995 24646 net.cpp:148] Top shape: 24 128 28 28 (2408448)
I0403 21:54:26.254011 24646 net.cpp:156] Memory required for data: 525042720
I0403 21:54:26.254031 24646 layer_factory.hpp:77] Creating layer inception_3a/relu_3x3
I0403 21:54:26.254055 24646 net.cpp:91] Creating Layer inception_3a/relu_3x3
I0403 21:54:26.254073 24646 net.cpp:425] inception_3a/relu_3x3 <- inception_3a/3x3
I0403 21:54:26.254091 24646 net.cpp:386] inception_3a/relu_3x3 -> inception_3a/3x3 (in-place)
I0403 21:54:26.254369 24646 net.cpp:141] Setting up inception_3a/relu_3x3
I0403 21:54:26.254395 24646 net.cpp:148] Top shape: 24 128 28 28 (2408448)
I0403 21:54:26.254411 24646 net.cpp:156] Memory required for data: 534676512
I0403 21:54:26.254426 24646 layer_factory.hpp:77] Creating layer inception_3a/5x5_reduce
I0403 21:54:26.254449 24646 net.cpp:91] Creating Layer inception_3a/5x5_reduce
I0403 21:54:26.254467 24646 net.cpp:425] inception_3a/5x5_reduce <- pool2/3x3_s2_pool2/3x3_s2_0_split_2
I0403 21:54:26.254488 24646 net.cpp:399] inception_3a/5x5_reduce -> inception_3a/5x5_reduce
I0403 21:54:26.255440 24646 net.cpp:141] Setting up inception_3a/5x5_reduce
I0403 21:54:26.255472 24646 net.cpp:148] Top shape: 24 16 28 28 (301056)
I0403 21:54:26.255489 24646 net.cpp:156] Memory required for data: 535880736
I0403 21:54:26.255508 24646 layer_factory.hpp:77] Creating layer inception_3a/relu_5x5_reduce
I0403 21:54:26.255527 24646 net.cpp:91] Creating Layer inception_3a/relu_5x5_reduce
I0403 21:54:26.255544 24646 net.cpp:425] inception_3a/relu_5x5_reduce <- inception_3a/5x5_reduce
I0403 21:54:26.255563 24646 net.cpp:386] inception_3a/relu_5x5_reduce -> inception_3a/5x5_reduce (in-place)
I0403 21:54:26.255853 24646 net.cpp:141] Setting up inception_3a/relu_5x5_reduce
I0403 21:54:26.255882 24646 net.cpp:148] Top shape: 24 16 28 28 (301056)
I0403 21:54:26.255898 24646 net.cpp:156] Memory required for data: 537084960
I0403 21:54:26.255913 24646 layer_factory.hpp:77] Creating layer inception_3a/5x5
I0403 21:54:26.255938 24646 net.cpp:91] Creating Layer inception_3a/5x5
I0403 21:54:26.255956 24646 net.cpp:425] inception_3a/5x5 <- inception_3a/5x5_reduce
I0403 21:54:26.255977 24646 net.cpp:399] inception_3a/5x5 -> inception_3a/5x5
I0403 21:54:26.256980 24646 net.cpp:141] Setting up inception_3a/5x5
I0403 21:54:26.257009 24646 net.cpp:148] Top shape: 24 32 28 28 (602112)
I0403 21:54:26.257024 24646 net.cpp:156] Memory required for data: 539493408
I0403 21:54:26.257042 24646 layer_factory.hpp:77] Creating layer inception_3a/relu_5x5
I0403 21:54:26.257064 24646 net.cpp:91] Creating Layer inception_3a/relu_5x5
I0403 21:54:26.257081 24646 net.cpp:425] inception_3a/relu_5x5 <- inception_3a/5x5
I0403 21:54:26.257099 24646 net.cpp:386] inception_3a/relu_5x5 -> inception_3a/5x5 (in-place)
I0403 21:54:26.257278 24646 net.cpp:141] Setting up inception_3a/relu_5x5
I0403 21:54:26.257308 24646 net.cpp:148] Top shape: 24 32 28 28 (602112)
I0403 21:54:26.257324 24646 net.cpp:156] Memory required for data: 541901856
I0403 21:54:26.257341 24646 layer_factory.hpp:77] Creating layer inception_3a/pool
I0403 21:54:26.257359 24646 net.cpp:91] Creating Layer inception_3a/pool
I0403 21:54:26.257388 24646 net.cpp:425] inception_3a/pool <- pool2/3x3_s2_pool2/3x3_s2_0_split_3
I0403 21:54:26.257411 24646 net.cpp:399] inception_3a/pool -> inception_3a/pool
I0403 21:54:26.257469 24646 net.cpp:141] Setting up inception_3a/pool
I0403 21:54:26.257494 24646 net.cpp:148] Top shape: 24 192 28 28 (3612672)
I0403 21:54:26.257510 24646 net.cpp:156] Memory required for data: 556352544
I0403 21:54:26.257525 24646 layer_factory.hpp:77] Creating layer inception_3a/pool_proj
I0403 21:54:26.257547 24646 net.cpp:91] Creating Layer inception_3a/pool_proj
I0403 21:54:26.257565 24646 net.cpp:425] inception_3a/pool_proj <- inception_3a/pool
I0403 21:54:26.257586 24646 net.cpp:399] inception_3a/pool_proj -> inception_3a/pool_proj
I0403 21:54:26.258553 24646 net.cpp:141] Setting up inception_3a/pool_proj
I0403 21:54:26.258581 24646 net.cpp:148] Top shape: 24 32 28 28 (602112)
I0403 21:54:26.258599 24646 net.cpp:156] Memory required for data: 558760992
I0403 21:54:26.258622 24646 layer_factory.hpp:77] Creating layer inception_3a/relu_pool_proj
I0403 21:54:26.258643 24646 net.cpp:91] Creating Layer inception_3a/relu_pool_proj
I0403 21:54:26.258661 24646 net.cpp:425] inception_3a/relu_pool_proj <- inception_3a/pool_proj
I0403 21:54:26.258677 24646 net.cpp:386] inception_3a/relu_pool_proj -> inception_3a/pool_proj (in-place)
I0403 21:54:26.258950 24646 net.cpp:141] Setting up inception_3a/relu_pool_proj
I0403 21:54:26.258976 24646 net.cpp:148] Top shape: 24 32 28 28 (602112)
I0403 21:54:26.258992 24646 net.cpp:156] Memory required for data: 561169440
I0403 21:54:26.259007 24646 layer_factory.hpp:77] Creating layer inception_3a/output
I0403 21:54:26.259028 24646 net.cpp:91] Creating Layer inception_3a/output
I0403 21:54:26.259044 24646 net.cpp:425] inception_3a/output <- inception_3a/1x1
I0403 21:54:26.259063 24646 net.cpp:425] inception_3a/output <- inception_3a/3x3
I0403 21:54:26.259078 24646 net.cpp:425] inception_3a/output <- inception_3a/5x5
I0403 21:54:26.259094 24646 net.cpp:425] inception_3a/output <- inception_3a/pool_proj
I0403 21:54:26.259110 24646 net.cpp:399] inception_3a/output -> inception_3a/output
I0403 21:54:26.259157 24646 net.cpp:141] Setting up inception_3a/output
I0403 21:54:26.259182 24646 net.cpp:148] Top shape: 24 256 28 28 (4816896)
I0403 21:54:26.259201 24646 net.cpp:156] Memory required for data: 580437024
I0403 21:54:26.259218 24646 layer_factory.hpp:77] Creating layer inception_3a/output_inception_3a/output_0_split
I0403 21:54:26.259235 24646 net.cpp:91] Creating Layer inception_3a/output_inception_3a/output_0_split
I0403 21:54:26.259251 24646 net.cpp:425] inception_3a/output_inception_3a/output_0_split <- inception_3a/output
I0403 21:54:26.259273 24646 net.cpp:399] inception_3a/output_inception_3a/output_0_split -> inception_3a/output_inception_3a/output_0_split_0
I0403 21:54:26.259294 24646 net.cpp:399] inception_3a/output_inception_3a/output_0_split -> inception_3a/output_inception_3a/output_0_split_1
I0403 21:54:26.259320 24646 net.cpp:399] inception_3a/output_inception_3a/output_0_split -> inception_3a/output_inception_3a/output_0_split_2
I0403 21:54:26.259342 24646 net.cpp:399] inception_3a/output_inception_3a/output_0_split -> inception_3a/output_inception_3a/output_0_split_3
I0403 21:54:26.259421 24646 net.cpp:141] Setting up inception_3a/output_inception_3a/output_0_split
I0403 21:54:26.259444 24646 net.cpp:148] Top shape: 24 256 28 28 (4816896)
I0403 21:54:26.259462 24646 net.cpp:148] Top shape: 24 256 28 28 (4816896)
I0403 21:54:26.259479 24646 net.cpp:148] Top shape: 24 256 28 28 (4816896)
I0403 21:54:26.259495 24646 net.cpp:148] Top shape: 24 256 28 28 (4816896)
I0403 21:54:26.259510 24646 net.cpp:156] Memory required for data: 657507360
I0403 21:54:26.259524 24646 layer_factory.hpp:77] Creating layer inception_3b/1x1
I0403 21:54:26.259546 24646 net.cpp:91] Creating Layer inception_3b/1x1
I0403 21:54:26.259563 24646 net.cpp:425] inception_3b/1x1 <- inception_3a/output_inception_3a/output_0_split_0
I0403 21:54:26.259584 24646 net.cpp:399] inception_3b/1x1 -> inception_3b/1x1
I0403 21:54:26.260717 24646 net.cpp:141] Setting up inception_3b/1x1
I0403 21:54:26.260757 24646 net.cpp:148] Top shape: 24 128 28 28 (2408448)
I0403 21:54:26.260774 24646 net.cpp:156] Memory required for data: 667141152
I0403 21:54:26.260793 24646 layer_factory.hpp:77] Creating layer inception_3b/relu_1x1
I0403 21:54:26.260814 24646 net.cpp:91] Creating Layer inception_3b/relu_1x1
I0403 21:54:26.260833 24646 net.cpp:425] inception_3b/relu_1x1 <- inception_3b/1x1
I0403 21:54:26.260850 24646 net.cpp:386] inception_3b/relu_1x1 -> inception_3b/1x1 (in-place)
I0403 21:54:26.261024 24646 net.cpp:141] Setting up inception_3b/relu_1x1
I0403 21:54:26.261050 24646 net.cpp:148] Top shape: 24 128 28 28 (2408448)
I0403 21:54:26.261070 24646 net.cpp:156] Memory required for data: 676774944
I0403 21:54:26.261085 24646 layer_factory.hpp:77] Creating layer inception_3b/3x3_reduce
I0403 21:54:26.261104 24646 net.cpp:91] Creating Layer inception_3b/3x3_reduce
I0403 21:54:26.261121 24646 net.cpp:425] inception_3b/3x3_reduce <- inception_3a/output_inception_3a/output_0_split_1
I0403 21:54:26.261143 24646 net.cpp:399] inception_3b/3x3_reduce -> inception_3b/3x3_reduce
I0403 21:54:26.262287 24646 net.cpp:141] Setting up inception_3b/3x3_reduce
I0403 21:54:26.262315 24646 net.cpp:148] Top shape: 24 128 28 28 (2408448)
I0403 21:54:26.262332 24646 net.cpp:156] Memory required for data: 686408736
I0403 21:54:26.262351 24646 layer_factory.hpp:77] Creating layer inception_3b/relu_3x3_reduce
I0403 21:54:26.262372 24646 net.cpp:91] Creating Layer inception_3b/relu_3x3_reduce
I0403 21:54:26.262390 24646 net.cpp:425] inception_3b/relu_3x3_reduce <- inception_3b/3x3_reduce
I0403 21:54:26.262408 24646 net.cpp:386] inception_3b/relu_3x3_reduce -> inception_3b/3x3_reduce (in-place)
I0403 21:54:26.262578 24646 net.cpp:141] Setting up inception_3b/relu_3x3_reduce
I0403 21:54:26.262603 24646 net.cpp:148] Top shape: 24 128 28 28 (2408448)
I0403 21:54:26.262619 24646 net.cpp:156] Memory required for data: 696042528
I0403 21:54:26.262634 24646 layer_factory.hpp:77] Creating layer inception_3b/3x3
I0403 21:54:26.262660 24646 net.cpp:91] Creating Layer inception_3b/3x3
I0403 21:54:26.262678 24646 net.cpp:425] inception_3b/3x3 <- inception_3b/3x3_reduce
I0403 21:54:26.262699 24646 net.cpp:399] inception_3b/3x3 -> inception_3b/3x3
I0403 21:54:26.265612 24646 net.cpp:141] Setting up inception_3b/3x3
I0403 21:54:26.265642 24646 net.cpp:148] Top shape: 24 192 28 28 (3612672)
I0403 21:54:26.265660 24646 net.cpp:156] Memory required for data: 710493216
I0403 21:54:26.265678 24646 layer_factory.hpp:77] Creating layer inception_3b/relu_3x3
I0403 21:54:26.265698 24646 net.cpp:91] Creating Layer inception_3b/relu_3x3
I0403 21:54:26.265715 24646 net.cpp:425] inception_3b/relu_3x3 <- inception_3b/3x3
I0403 21:54:26.265734 24646 net.cpp:386] inception_3b/relu_3x3 -> inception_3b/3x3 (in-place)
I0403 21:54:26.266010 24646 net.cpp:141] Setting up inception_3b/relu_3x3
I0403 21:54:26.266038 24646 net.cpp:148] Top shape: 24 192 28 28 (3612672)
I0403 21:54:26.266053 24646 net.cpp:156] Memory required for data: 724943904
I0403 21:54:26.266068 24646 layer_factory.hpp:77] Creating layer inception_3b/5x5_reduce
I0403 21:54:26.266091 24646 net.cpp:91] Creating Layer inception_3b/5x5_reduce
I0403 21:54:26.266109 24646 net.cpp:425] inception_3b/5x5_reduce <- inception_3a/output_inception_3a/output_0_split_2
I0403 21:54:26.266132 24646 net.cpp:399] inception_3b/5x5_reduce -> inception_3b/5x5_reduce
I0403 21:54:26.267119 24646 net.cpp:141] Setting up inception_3b/5x5_reduce
I0403 21:54:26.267148 24646 net.cpp:148] Top shape: 24 32 28 28 (602112)
I0403 21:54:26.267164 24646 net.cpp:156] Memory required for data: 727352352
I0403 21:54:26.267184 24646 layer_factory.hpp:77] Creating layer inception_3b/relu_5x5_reduce
I0403 21:54:26.267220 24646 net.cpp:91] Creating Layer inception_3b/relu_5x5_reduce
I0403 21:54:26.267240 24646 net.cpp:425] inception_3b/relu_5x5_reduce <- inception_3b/5x5_reduce
I0403 21:54:26.267266 24646 net.cpp:386] inception_3b/relu_5x5_reduce -> inception_3b/5x5_reduce (in-place)
I0403 21:54:26.267457 24646 net.cpp:141] Setting up inception_3b/relu_5x5_reduce
I0403 21:54:26.267484 24646 net.cpp:148] Top shape: 24 32 28 28 (602112)
I0403 21:54:26.267500 24646 net.cpp:156] Memory required for data: 729760800
I0403 21:54:26.267515 24646 layer_factory.hpp:77] Creating layer inception_3b/5x5
I0403 21:54:26.267537 24646 net.cpp:91] Creating Layer inception_3b/5x5
I0403 21:54:26.267554 24646 net.cpp:425] inception_3b/5x5 <- inception_3b/5x5_reduce
I0403 21:54:26.267573 24646 net.cpp:399] inception_3b/5x5 -> inception_3b/5x5
I0403 21:54:26.269497 24646 net.cpp:141] Setting up inception_3b/5x5
I0403 21:54:26.269526 24646 net.cpp:148] Top shape: 24 96 28 28 (1806336)
I0403 21:54:26.269541 24646 net.cpp:156] Memory required for data: 736986144
I0403 21:54:26.269561 24646 layer_factory.hpp:77] Creating layer inception_3b/relu_5x5
I0403 21:54:26.269579 24646 net.cpp:91] Creating Layer inception_3b/relu_5x5
I0403 21:54:26.269596 24646 net.cpp:425] inception_3b/relu_5x5 <- inception_3b/5x5
I0403 21:54:26.269614 24646 net.cpp:386] inception_3b/relu_5x5 -> inception_3b/5x5 (in-place)
I0403 21:54:26.269800 24646 net.cpp:141] Setting up inception_3b/relu_5x5
I0403 21:54:26.269825 24646 net.cpp:148] Top shape: 24 96 28 28 (1806336)
I0403 21:54:26.269841 24646 net.cpp:156] Memory required for data: 744211488
I0403 21:54:26.269856 24646 layer_factory.hpp:77] Creating layer inception_3b/pool
I0403 21:54:26.269875 24646 net.cpp:91] Creating Layer inception_3b/pool
I0403 21:54:26.269891 24646 net.cpp:425] inception_3b/pool <- inception_3a/output_inception_3a/output_0_split_3
I0403 21:54:26.269909 24646 net.cpp:399] inception_3b/pool -> inception_3b/pool
I0403 21:54:26.269963 24646 net.cpp:141] Setting up inception_3b/pool
I0403 21:54:26.269986 24646 net.cpp:148] Top shape: 24 256 28 28 (4816896)
I0403 21:54:26.270001 24646 net.cpp:156] Memory required for data: 763479072
I0403 21:54:26.270017 24646 layer_factory.hpp:77] Creating layer inception_3b/pool_proj
I0403 21:54:26.270043 24646 net.cpp:91] Creating Layer inception_3b/pool_proj
I0403 21:54:26.270061 24646 net.cpp:425] inception_3b/pool_proj <- inception_3b/pool
I0403 21:54:26.270081 24646 net.cpp:399] inception_3b/pool_proj -> inception_3b/pool_proj
I0403 21:54:26.271101 24646 net.cpp:141] Setting up inception_3b/pool_proj
I0403 21:54:26.271131 24646 net.cpp:148] Top shape: 24 64 28 28 (1204224)
I0403 21:54:26.271148 24646 net.cpp:156] Memory required for data: 768295968
I0403 21:54:26.271167 24646 layer_factory.hpp:77] Creating layer inception_3b/relu_pool_proj
I0403 21:54:26.271184 24646 net.cpp:91] Creating Layer inception_3b/relu_pool_proj
I0403 21:54:26.271204 24646 net.cpp:425] inception_3b/relu_pool_proj <- inception_3b/pool_proj
I0403 21:54:26.271225 24646 net.cpp:386] inception_3b/relu_pool_proj -> inception_3b/pool_proj (in-place)
I0403 21:54:26.271608 24646 net.cpp:141] Setting up inception_3b/relu_pool_proj
I0403 21:54:26.271637 24646 net.cpp:148] Top shape: 24 64 28 28 (1204224)
I0403 21:54:26.271653 24646 net.cpp:156] Memory required for data: 773112864
I0403 21:54:26.271667 24646 layer_factory.hpp:77] Creating layer inception_3b/output
I0403 21:54:26.271684 24646 net.cpp:91] Creating Layer inception_3b/output
I0403 21:54:26.271700 24646 net.cpp:425] inception_3b/output <- inception_3b/1x1
I0403 21:54:26.271718 24646 net.cpp:425] inception_3b/output <- inception_3b/3x3
I0403 21:54:26.271734 24646 net.cpp:425] inception_3b/output <- inception_3b/5x5
I0403 21:54:26.271750 24646 net.cpp:425] inception_3b/output <- inception_3b/pool_proj
I0403 21:54:26.271766 24646 net.cpp:399] inception_3b/output -> inception_3b/output
I0403 21:54:26.271811 24646 net.cpp:141] Setting up inception_3b/output
I0403 21:54:26.271833 24646 net.cpp:148] Top shape: 24 480 28 28 (9031680)
I0403 21:54:26.271847 24646 net.cpp:156] Memory required for data: 809239584
I0403 21:54:26.271862 24646 layer_factory.hpp:77] Creating layer pool3/3x3_s2
I0403 21:54:26.271881 24646 net.cpp:91] Creating Layer pool3/3x3_s2
I0403 21:54:26.271898 24646 net.cpp:425] pool3/3x3_s2 <- inception_3b/output
I0403 21:54:26.271930 24646 net.cpp:399] pool3/3x3_s2 -> pool3/3x3_s2
I0403 21:54:26.271988 24646 net.cpp:141] Setting up pool3/3x3_s2
I0403 21:54:26.272012 24646 net.cpp:148] Top shape: 24 480 14 14 (2257920)
I0403 21:54:26.272027 24646 net.cpp:156] Memory required for data: 818271264
I0403 21:54:26.272042 24646 layer_factory.hpp:77] Creating layer pool3/3x3_s2_pool3/3x3_s2_0_split
I0403 21:54:26.272058 24646 net.cpp:91] Creating Layer pool3/3x3_s2_pool3/3x3_s2_0_split
I0403 21:54:26.272074 24646 net.cpp:425] pool3/3x3_s2_pool3/3x3_s2_0_split <- pool3/3x3_s2
I0403 21:54:26.272094 24646 net.cpp:399] pool3/3x3_s2_pool3/3x3_s2_0_split -> pool3/3x3_s2_pool3/3x3_s2_0_split_0
I0403 21:54:26.272114 24646 net.cpp:399] pool3/3x3_s2_pool3/3x3_s2_0_split -> pool3/3x3_s2_pool3/3x3_s2_0_split_1
I0403 21:54:26.272135 24646 net.cpp:399] pool3/3x3_s2_pool3/3x3_s2_0_split -> pool3/3x3_s2_pool3/3x3_s2_0_split_2
I0403 21:54:26.272156 24646 net.cpp:399] pool3/3x3_s2_pool3/3x3_s2_0_split -> pool3/3x3_s2_pool3/3x3_s2_0_split_3
I0403 21:54:26.272233 24646 net.cpp:141] Setting up pool3/3x3_s2_pool3/3x3_s2_0_split
I0403 21:54:26.272258 24646 net.cpp:148] Top shape: 24 480 14 14 (2257920)
I0403 21:54:26.272276 24646 net.cpp:148] Top shape: 24 480 14 14 (2257920)
I0403 21:54:26.272292 24646 net.cpp:148] Top shape: 24 480 14 14 (2257920)
I0403 21:54:26.272307 24646 net.cpp:148] Top shape: 24 480 14 14 (2257920)
I0403 21:54:26.272321 24646 net.cpp:156] Memory required for data: 854397984
I0403 21:54:26.272336 24646 layer_factory.hpp:77] Creating layer inception_4a/1x1
I0403 21:54:26.272357 24646 net.cpp:91] Creating Layer inception_4a/1x1
I0403 21:54:26.272374 24646 net.cpp:425] inception_4a/1x1 <- pool3/3x3_s2_pool3/3x3_s2_0_split_0
I0403 21:54:26.272393 24646 net.cpp:399] inception_4a/1x1 -> inception_4a/1x1
I0403 21:54:26.273900 24646 net.cpp:141] Setting up inception_4a/1x1
I0403 21:54:26.273929 24646 net.cpp:148] Top shape: 24 192 14 14 (903168)
I0403 21:54:26.273947 24646 net.cpp:156] Memory required for data: 858010656
I0403 21:54:26.273967 24646 layer_factory.hpp:77] Creating layer inception_4a/relu_1x1
I0403 21:54:26.273983 24646 net.cpp:91] Creating Layer inception_4a/relu_1x1
I0403 21:54:26.273999 24646 net.cpp:425] inception_4a/relu_1x1 <- inception_4a/1x1
I0403 21:54:26.274019 24646 net.cpp:386] inception_4a/relu_1x1 -> inception_4a/1x1 (in-place)
I0403 21:54:26.274194 24646 net.cpp:141] Setting up inception_4a/relu_1x1
I0403 21:54:26.274224 24646 net.cpp:148] Top shape: 24 192 14 14 (903168)
I0403 21:54:26.274238 24646 net.cpp:156] Memory required for data: 861623328
I0403 21:54:26.274253 24646 layer_factory.hpp:77] Creating layer inception_4a/3x3_reduce
I0403 21:54:26.274274 24646 net.cpp:91] Creating Layer inception_4a/3x3_reduce
I0403 21:54:26.274293 24646 net.cpp:425] inception_4a/3x3_reduce <- pool3/3x3_s2_pool3/3x3_s2_0_split_1
I0403 21:54:26.274314 24646 net.cpp:399] inception_4a/3x3_reduce -> inception_4a/3x3_reduce
I0403 21:54:26.275555 24646 net.cpp:141] Setting up inception_4a/3x3_reduce
I0403 21:54:26.275583 24646 net.cpp:148] Top shape: 24 96 14 14 (451584)
I0403 21:54:26.275599 24646 net.cpp:156] Memory required for data: 863429664
I0403 21:54:26.275624 24646 layer_factory.hpp:77] Creating layer inception_4a/relu_3x3_reduce
I0403 21:54:26.275643 24646 net.cpp:91] Creating Layer inception_4a/relu_3x3_reduce
I0403 21:54:26.275660 24646 net.cpp:425] inception_4a/relu_3x3_reduce <- inception_4a/3x3_reduce
I0403 21:54:26.275679 24646 net.cpp:386] inception_4a/relu_3x3_reduce -> inception_4a/3x3_reduce (in-place)
I0403 21:54:26.275853 24646 net.cpp:141] Setting up inception_4a/relu_3x3_reduce
I0403 21:54:26.275878 24646 net.cpp:148] Top shape: 24 96 14 14 (451584)
I0403 21:54:26.275893 24646 net.cpp:156] Memory required for data: 865236000
I0403 21:54:26.275907 24646 layer_factory.hpp:77] Creating layer inception_4a/3x3
I0403 21:54:26.275928 24646 net.cpp:91] Creating Layer inception_4a/3x3
I0403 21:54:26.275946 24646 net.cpp:425] inception_4a/3x3 <- inception_4a/3x3_reduce
I0403 21:54:26.275967 24646 net.cpp:399] inception_4a/3x3 -> inception_4a/3x3
I0403 21:54:26.278594 24646 net.cpp:141] Setting up inception_4a/3x3
I0403 21:54:26.278622 24646 net.cpp:148] Top shape: 24 208 14 14 (978432)
I0403 21:54:26.278638 24646 net.cpp:156] Memory required for data: 869149728
I0403 21:54:26.278657 24646 layer_factory.hpp:77] Creating layer inception_4a/relu_3x3
I0403 21:54:26.278681 24646 net.cpp:91] Creating Layer inception_4a/relu_3x3
I0403 21:54:26.278700 24646 net.cpp:425] inception_4a/relu_3x3 <- inception_4a/3x3
I0403 21:54:26.278718 24646 net.cpp:386] inception_4a/relu_3x3 -> inception_4a/3x3 (in-place)
I0403 21:54:26.278990 24646 net.cpp:141] Setting up inception_4a/relu_3x3
I0403 21:54:26.279016 24646 net.cpp:148] Top shape: 24 208 14 14 (978432)
I0403 21:54:26.279031 24646 net.cpp:156] Memory required for data: 873063456
I0403 21:54:26.279045 24646 layer_factory.hpp:77] Creating layer inception_4a/5x5_reduce
I0403 21:54:26.279068 24646 net.cpp:91] Creating Layer inception_4a/5x5_reduce
I0403 21:54:26.279086 24646 net.cpp:425] inception_4a/5x5_reduce <- pool3/3x3_s2_pool3/3x3_s2_0_split_2
I0403 21:54:26.279109 24646 net.cpp:399] inception_4a/5x5_reduce -> inception_4a/5x5_reduce
I0403 21:54:26.280141 24646 net.cpp:141] Setting up inception_4a/5x5_reduce
I0403 21:54:26.280169 24646 net.cpp:148] Top shape: 24 16 14 14 (75264)
I0403 21:54:26.280186 24646 net.cpp:156] Memory required for data: 873364512
I0403 21:54:26.280210 24646 layer_factory.hpp:77] Creating layer inception_4a/relu_5x5_reduce
I0403 21:54:26.280233 24646 net.cpp:91] Creating Layer inception_4a/relu_5x5_reduce
I0403 21:54:26.280252 24646 net.cpp:425] inception_4a/relu_5x5_reduce <- inception_4a/5x5_reduce
I0403 21:54:26.280269 24646 net.cpp:386] inception_4a/relu_5x5_reduce -> inception_4a/5x5_reduce (in-place)
I0403 21:54:26.280447 24646 net.cpp:141] Setting up inception_4a/relu_5x5_reduce
I0403 21:54:26.280477 24646 net.cpp:148] Top shape: 24 16 14 14 (75264)
I0403 21:54:26.280493 24646 net.cpp:156] Memory required for data: 873665568
I0403 21:54:26.280508 24646 layer_factory.hpp:77] Creating layer inception_4a/5x5
I0403 21:54:26.280529 24646 net.cpp:91] Creating Layer inception_4a/5x5
I0403 21:54:26.280547 24646 net.cpp:425] inception_4a/5x5 <- inception_4a/5x5_reduce
I0403 21:54:26.280566 24646 net.cpp:399] inception_4a/5x5 -> inception_4a/5x5
I0403 21:54:26.281641 24646 net.cpp:141] Setting up inception_4a/5x5
I0403 21:54:26.281672 24646 net.cpp:148] Top shape: 24 48 14 14 (225792)
I0403 21:54:26.281687 24646 net.cpp:156] Memory required for data: 874568736
I0403 21:54:26.281707 24646 layer_factory.hpp:77] Creating layer inception_4a/relu_5x5
I0403 21:54:26.281724 24646 net.cpp:91] Creating Layer inception_4a/relu_5x5
I0403 21:54:26.281741 24646 net.cpp:425] inception_4a/relu_5x5 <- inception_4a/5x5
I0403 21:54:26.281759 24646 net.cpp:386] inception_4a/relu_5x5 -> inception_4a/5x5 (in-place)
I0403 21:54:26.281944 24646 net.cpp:141] Setting up inception_4a/relu_5x5
I0403 21:54:26.281972 24646 net.cpp:148] Top shape: 24 48 14 14 (225792)
I0403 21:54:26.281987 24646 net.cpp:156] Memory required for data: 875471904
I0403 21:54:26.282003 24646 layer_factory.hpp:77] Creating layer inception_4a/pool
I0403 21:54:26.282021 24646 net.cpp:91] Creating Layer inception_4a/pool
I0403 21:54:26.282037 24646 net.cpp:425] inception_4a/pool <- pool3/3x3_s2_pool3/3x3_s2_0_split_3
I0403 21:54:26.282058 24646 net.cpp:399] inception_4a/pool -> inception_4a/pool
I0403 21:54:26.282117 24646 net.cpp:141] Setting up inception_4a/pool
I0403 21:54:26.282145 24646 net.cpp:148] Top shape: 24 480 14 14 (2257920)
I0403 21:54:26.282160 24646 net.cpp:156] Memory required for data: 884503584
I0403 21:54:26.282176 24646 layer_factory.hpp:77] Creating layer inception_4a/pool_proj
I0403 21:54:26.282202 24646 net.cpp:91] Creating Layer inception_4a/pool_proj
I0403 21:54:26.282220 24646 net.cpp:425] inception_4a/pool_proj <- inception_4a/pool
I0403 21:54:26.282239 24646 net.cpp:399] inception_4a/pool_proj -> inception_4a/pool_proj
I0403 21:54:26.283401 24646 net.cpp:141] Setting up inception_4a/pool_proj
I0403 21:54:26.283430 24646 net.cpp:148] Top shape: 24 64 14 14 (301056)
I0403 21:54:26.283462 24646 net.cpp:156] Memory required for data: 885707808
I0403 21:54:26.283481 24646 layer_factory.hpp:77] Creating layer inception_4a/relu_pool_proj
I0403 21:54:26.283499 24646 net.cpp:91] Creating Layer inception_4a/relu_pool_proj
I0403 21:54:26.283516 24646 net.cpp:425] inception_4a/relu_pool_proj <- inception_4a/pool_proj
I0403 21:54:26.283537 24646 net.cpp:386] inception_4a/relu_pool_proj -> inception_4a/pool_proj (in-place)
I0403 21:54:26.283820 24646 net.cpp:141] Setting up inception_4a/relu_pool_proj
I0403 21:54:26.283848 24646 net.cpp:148] Top shape: 24 64 14 14 (301056)
I0403 21:54:26.283864 24646 net.cpp:156] Memory required for data: 886912032
I0403 21:54:26.283879 24646 layer_factory.hpp:77] Creating layer inception_4a/output
I0403 21:54:26.283896 24646 net.cpp:91] Creating Layer inception_4a/output
I0403 21:54:26.283912 24646 net.cpp:425] inception_4a/output <- inception_4a/1x1
I0403 21:54:26.283931 24646 net.cpp:425] inception_4a/output <- inception_4a/3x3
I0403 21:54:26.283947 24646 net.cpp:425] inception_4a/output <- inception_4a/5x5
I0403 21:54:26.283962 24646 net.cpp:425] inception_4a/output <- inception_4a/pool_proj
I0403 21:54:26.283982 24646 net.cpp:399] inception_4a/output -> inception_4a/output
I0403 21:54:26.284026 24646 net.cpp:141] Setting up inception_4a/output
I0403 21:54:26.284054 24646 net.cpp:148] Top shape: 24 512 14 14 (2408448)
I0403 21:54:26.284071 24646 net.cpp:156] Memory required for data: 896545824
I0403 21:54:26.284086 24646 layer_factory.hpp:77] Creating layer inception_4a/output_inception_4a/output_0_split
I0403 21:54:26.284104 24646 net.cpp:91] Creating Layer inception_4a/output_inception_4a/output_0_split
I0403 21:54:26.284121 24646 net.cpp:425] inception_4a/output_inception_4a/output_0_split <- inception_4a/output
I0403 21:54:26.284138 24646 net.cpp:399] inception_4a/output_inception_4a/output_0_split -> inception_4a/output_inception_4a/output_0_split_0
I0403 21:54:26.284158 24646 net.cpp:399] inception_4a/output_inception_4a/output_0_split -> inception_4a/output_inception_4a/output_0_split_1
I0403 21:54:26.284183 24646 net.cpp:399] inception_4a/output_inception_4a/output_0_split -> inception_4a/output_inception_4a/output_0_split_2
I0403 21:54:26.284209 24646 net.cpp:399] inception_4a/output_inception_4a/output_0_split -> inception_4a/output_inception_4a/output_0_split_3
I0403 21:54:26.284230 24646 net.cpp:399] inception_4a/output_inception_4a/output_0_split -> inception_4a/output_inception_4a/output_0_split_4
I0403 21:54:26.284322 24646 net.cpp:141] Setting up inception_4a/output_inception_4a/output_0_split
I0403 21:54:26.284346 24646 net.cpp:148] Top shape: 24 512 14 14 (2408448)
I0403 21:54:26.284363 24646 net.cpp:148] Top shape: 24 512 14 14 (2408448)
I0403 21:54:26.284379 24646 net.cpp:148] Top shape: 24 512 14 14 (2408448)
I0403 21:54:26.284395 24646 net.cpp:148] Top shape: 24 512 14 14 (2408448)
I0403 21:54:26.284412 24646 net.cpp:148] Top shape: 24 512 14 14 (2408448)
I0403 21:54:26.284426 24646 net.cpp:156] Memory required for data: 944714784
I0403 21:54:26.284440 24646 layer_factory.hpp:77] Creating layer loss1/ave_pool
I0403 21:54:26.284461 24646 net.cpp:91] Creating Layer loss1/ave_pool
I0403 21:54:26.284477 24646 net.cpp:425] loss1/ave_pool <- inception_4a/output_inception_4a/output_0_split_0
I0403 21:54:26.284497 24646 net.cpp:399] loss1/ave_pool -> loss1/ave_pool
I0403 21:54:26.284706 24646 net.cpp:141] Setting up loss1/ave_pool
I0403 21:54:26.284734 24646 net.cpp:148] Top shape: 24 512 4 4 (196608)
I0403 21:54:26.284749 24646 net.cpp:156] Memory required for data: 945501216
I0403 21:54:26.284765 24646 layer_factory.hpp:77] Creating layer loss1/conv
I0403 21:54:26.284786 24646 net.cpp:91] Creating Layer loss1/conv
I0403 21:54:26.284804 24646 net.cpp:425] loss1/conv <- loss1/ave_pool
I0403 21:54:26.284826 24646 net.cpp:399] loss1/conv -> loss1/conv
I0403 21:54:26.286231 24646 net.cpp:141] Setting up loss1/conv
I0403 21:54:26.286260 24646 net.cpp:148] Top shape: 24 128 4 4 (49152)
I0403 21:54:26.286291 24646 net.cpp:156] Memory required for data: 945697824
I0403 21:54:26.286311 24646 layer_factory.hpp:77] Creating layer loss1/relu_conv
I0403 21:54:26.286334 24646 net.cpp:91] Creating Layer loss1/relu_conv
I0403 21:54:26.286351 24646 net.cpp:425] loss1/relu_conv <- loss1/conv
I0403 21:54:26.286370 24646 net.cpp:386] loss1/relu_conv -> loss1/conv (in-place)
I0403 21:54:26.286654 24646 net.cpp:141] Setting up loss1/relu_conv
I0403 21:54:26.286681 24646 net.cpp:148] Top shape: 24 128 4 4 (49152)
I0403 21:54:26.286697 24646 net.cpp:156] Memory required for data: 945894432
I0403 21:54:26.286712 24646 layer_factory.hpp:77] Creating layer loss1/fc
I0403 21:54:26.286737 24646 net.cpp:91] Creating Layer loss1/fc
I0403 21:54:26.286757 24646 net.cpp:425] loss1/fc <- loss1/conv
I0403 21:54:26.286775 24646 net.cpp:399] loss1/fc -> loss1/fc
I0403 21:54:26.304394 24646 net.cpp:141] Setting up loss1/fc
I0403 21:54:26.304427 24646 net.cpp:148] Top shape: 24 1024 (24576)
I0403 21:54:26.304443 24646 net.cpp:156] Memory required for data: 945992736
I0403 21:54:26.304462 24646 layer_factory.hpp:77] Creating layer loss1/relu_fc
I0403 21:54:26.304481 24646 net.cpp:91] Creating Layer loss1/relu_fc
I0403 21:54:26.304497 24646 net.cpp:425] loss1/relu_fc <- loss1/fc
I0403 21:54:26.304517 24646 net.cpp:386] loss1/relu_fc -> loss1/fc (in-place)
I0403 21:54:26.304704 24646 net.cpp:141] Setting up loss1/relu_fc
I0403 21:54:26.304729 24646 net.cpp:148] Top shape: 24 1024 (24576)
I0403 21:54:26.304744 24646 net.cpp:156] Memory required for data: 946091040
I0403 21:54:26.304760 24646 layer_factory.hpp:77] Creating layer loss1/drop_fc
I0403 21:54:26.304788 24646 net.cpp:91] Creating Layer loss1/drop_fc
I0403 21:54:26.304808 24646 net.cpp:425] loss1/drop_fc <- loss1/fc
I0403 21:54:26.304824 24646 net.cpp:386] loss1/drop_fc -> loss1/fc (in-place)
I0403 21:54:26.304874 24646 net.cpp:141] Setting up loss1/drop_fc
I0403 21:54:26.304900 24646 net.cpp:148] Top shape: 24 1024 (24576)
I0403 21:54:26.304916 24646 net.cpp:156] Memory required for data: 946189344
I0403 21:54:26.304932 24646 layer_factory.hpp:77] Creating layer loss1/classifier_plantvillage
I0403 21:54:26.304950 24646 net.cpp:91] Creating Layer loss1/classifier_plantvillage
I0403 21:54:26.304965 24646 net.cpp:425] loss1/classifier_plantvillage <- loss1/fc
I0403 21:54:26.304986 24646 net.cpp:399] loss1/classifier_plantvillage -> loss1/classifier_plantvillage
I0403 21:54:26.305893 24646 net.cpp:141] Setting up loss1/classifier_plantvillage
I0403 21:54:26.305920 24646 net.cpp:148] Top shape: 24 38 (912)
I0403 21:54:26.305937 24646 net.cpp:156] Memory required for data: 946192992
I0403 21:54:26.305956 24646 layer_factory.hpp:77] Creating layer loss1/classifier_plantvillage_loss1/classifier_plantvillage_0_split
I0403 21:54:26.305974 24646 net.cpp:91] Creating Layer loss1/classifier_plantvillage_loss1/classifier_plantvillage_0_split
I0403 21:54:26.305994 24646 net.cpp:425] loss1/classifier_plantvillage_loss1/classifier_plantvillage_0_split <- loss1/classifier_plantvillage
I0403 21:54:26.306012 24646 net.cpp:399] loss1/classifier_plantvillage_loss1/classifier_plantvillage_0_split -> loss1/classifier_plantvillage_loss1/classifier_plantvillage_0_split_0
I0403 21:54:26.306032 24646 net.cpp:399] loss1/classifier_plantvillage_loss1/classifier_plantvillage_0_split -> loss1/classifier_plantvillage_loss1/classifier_plantvillage_0_split_1
I0403 21:54:26.306054 24646 net.cpp:399] loss1/classifier_plantvillage_loss1/classifier_plantvillage_0_split -> loss1/classifier_plantvillage_loss1/classifier_plantvillage_0_split_2
I0403 21:54:26.306118 24646 net.cpp:141] Setting up loss1/classifier_plantvillage_loss1/classifier_plantvillage_0_split
I0403 21:54:26.306144 24646 net.cpp:148] Top shape: 24 38 (912)
I0403 21:54:26.306161 24646 net.cpp:148] Top shape: 24 38 (912)
I0403 21:54:26.306177 24646 net.cpp:148] Top shape: 24 38 (912)
I0403 21:54:26.306191 24646 net.cpp:156] Memory required for data: 946203936
I0403 21:54:26.306210 24646 layer_factory.hpp:77] Creating layer inception_4b/1x1
I0403 21:54:26.306232 24646 net.cpp:91] Creating Layer inception_4b/1x1
I0403 21:54:26.306267 24646 net.cpp:425] inception_4b/1x1 <- inception_4a/output_inception_4a/output_0_split_1
I0403 21:54:26.306288 24646 net.cpp:399] inception_4b/1x1 -> inception_4b/1x1
I0403 21:54:26.307884 24646 net.cpp:141] Setting up inception_4b/1x1
I0403 21:54:26.307912 24646 net.cpp:148] Top shape: 24 160 14 14 (752640)
I0403 21:54:26.307929 24646 net.cpp:156] Memory required for data: 949214496
I0403 21:54:26.307948 24646 layer_factory.hpp:77] Creating layer inception_4b/relu_1x1
I0403 21:54:26.307968 24646 net.cpp:91] Creating Layer inception_4b/relu_1x1
I0403 21:54:26.307986 24646 net.cpp:425] inception_4b/relu_1x1 <- inception_4b/1x1
I0403 21:54:26.308003 24646 net.cpp:386] inception_4b/relu_1x1 -> inception_4b/1x1 (in-place)
I0403 21:54:26.308182 24646 net.cpp:141] Setting up inception_4b/relu_1x1
I0403 21:54:26.308219 24646 net.cpp:148] Top shape: 24 160 14 14 (752640)
I0403 21:54:26.308238 24646 net.cpp:156] Memory required for data: 952225056
I0403 21:54:26.308254 24646 layer_factory.hpp:77] Creating layer inception_4b/3x3_reduce
I0403 21:54:26.308274 24646 net.cpp:91] Creating Layer inception_4b/3x3_reduce
I0403 21:54:26.308292 24646 net.cpp:425] inception_4b/3x3_reduce <- inception_4a/output_inception_4a/output_0_split_2
I0403 21:54:26.308310 24646 net.cpp:399] inception_4b/3x3_reduce -> inception_4b/3x3_reduce
I0403 21:54:26.309615 24646 net.cpp:141] Setting up inception_4b/3x3_reduce
I0403 21:54:26.309643 24646 net.cpp:148] Top shape: 24 112 14 14 (526848)
I0403 21:54:26.309660 24646 net.cpp:156] Memory required for data: 954332448
I0403 21:54:26.309679 24646 layer_factory.hpp:77] Creating layer inception_4b/relu_3x3_reduce
I0403 21:54:26.309700 24646 net.cpp:91] Creating Layer inception_4b/relu_3x3_reduce
I0403 21:54:26.309717 24646 net.cpp:425] inception_4b/relu_3x3_reduce <- inception_4b/3x3_reduce
I0403 21:54:26.309734 24646 net.cpp:386] inception_4b/relu_3x3_reduce -> inception_4b/3x3_reduce (in-place)
I0403 21:54:26.310008 24646 net.cpp:141] Setting up inception_4b/relu_3x3_reduce
I0403 21:54:26.310034 24646 net.cpp:148] Top shape: 24 112 14 14 (526848)
I0403 21:54:26.310048 24646 net.cpp:156] Memory required for data: 956439840
I0403 21:54:26.310063 24646 layer_factory.hpp:77] Creating layer inception_4b/3x3
I0403 21:54:26.310086 24646 net.cpp:91] Creating Layer inception_4b/3x3
I0403 21:54:26.310104 24646 net.cpp:425] inception_4b/3x3 <- inception_4b/3x3_reduce
I0403 21:54:26.310123 24646 net.cpp:399] inception_4b/3x3 -> inception_4b/3x3
I0403 21:54:26.313032 24646 net.cpp:141] Setting up inception_4b/3x3
I0403 21:54:26.313062 24646 net.cpp:148] Top shape: 24 224 14 14 (1053696)
I0403 21:54:26.313079 24646 net.cpp:156] Memory required for data: 960654624
I0403 21:54:26.313097 24646 layer_factory.hpp:77] Creating layer inception_4b/relu_3x3
I0403 21:54:26.313115 24646 net.cpp:91] Creating Layer inception_4b/relu_3x3
I0403 21:54:26.313133 24646 net.cpp:425] inception_4b/relu_3x3 <- inception_4b/3x3
I0403 21:54:26.313151 24646 net.cpp:386] inception_4b/relu_3x3 -> inception_4b/3x3 (in-place)
I0403 21:54:26.313330 24646 net.cpp:141] Setting up inception_4b/relu_3x3
I0403 21:54:26.313356 24646 net.cpp:148] Top shape: 24 224 14 14 (1053696)
I0403 21:54:26.313371 24646 net.cpp:156] Memory required for data: 964869408
I0403 21:54:26.313386 24646 layer_factory.hpp:77] Creating layer inception_4b/5x5_reduce
I0403 21:54:26.313408 24646 net.cpp:91] Creating Layer inception_4b/5x5_reduce
I0403 21:54:26.313426 24646 net.cpp:425] inception_4b/5x5_reduce <- inception_4a/output_inception_4a/output_0_split_3
I0403 21:54:26.313448 24646 net.cpp:399] inception_4b/5x5_reduce -> inception_4b/5x5_reduce
I0403 21:54:26.314499 24646 net.cpp:141] Setting up inception_4b/5x5_reduce
I0403 21:54:26.314527 24646 net.cpp:148] Top shape: 24 24 14 14 (112896)
I0403 21:54:26.314543 24646 net.cpp:156] Memory required for data: 965320992
I0403 21:54:26.314561 24646 layer_factory.hpp:77] Creating layer inception_4b/relu_5x5_reduce
I0403 21:54:26.314581 24646 net.cpp:91] Creating Layer inception_4b/relu_5x5_reduce
I0403 21:54:26.314612 24646 net.cpp:425] inception_4b/relu_5x5_reduce <- inception_4b/5x5_reduce
I0403 21:54:26.314630 24646 net.cpp:386] inception_4b/relu_5x5_reduce -> inception_4b/5x5_reduce (in-place)
I0403 21:54:26.314806 24646 net.cpp:141] Setting up inception_4b/relu_5x5_reduce
I0403 21:54:26.314833 24646 net.cpp:148] Top shape: 24 24 14 14 (112896)
I0403 21:54:26.314848 24646 net.cpp:156] Memory required for data: 965772576
I0403 21:54:26.314863 24646 layer_factory.hpp:77] Creating layer inception_4b/5x5
I0403 21:54:26.314885 24646 net.cpp:91] Creating Layer inception_4b/5x5
I0403 21:54:26.314903 24646 net.cpp:425] inception_4b/5x5 <- inception_4b/5x5_reduce
I0403 21:54:26.314924 24646 net.cpp:399] inception_4b/5x5 -> inception_4b/5x5
I0403 21:54:26.316145 24646 net.cpp:141] Setting up inception_4b/5x5
I0403 21:54:26.316174 24646 net.cpp:148] Top shape: 24 64 14 14 (301056)
I0403 21:54:26.316190 24646 net.cpp:156] Memory required for data: 966976800
I0403 21:54:26.316212 24646 layer_factory.hpp:77] Creating layer inception_4b/relu_5x5
I0403 21:54:26.316234 24646 net.cpp:91] Creating Layer inception_4b/relu_5x5
I0403 21:54:26.316252 24646 net.cpp:425] inception_4b/relu_5x5 <- inception_4b/5x5
I0403 21:54:26.316269 24646 net.cpp:386] inception_4b/relu_5x5 -> inception_4b/5x5 (in-place)
I0403 21:54:26.316548 24646 net.cpp:141] Setting up inception_4b/relu_5x5
I0403 21:54:26.316575 24646 net.cpp:148] Top shape: 24 64 14 14 (301056)
I0403 21:54:26.316591 24646 net.cpp:156] Memory required for data: 968181024
I0403 21:54:26.316606 24646 layer_factory.hpp:77] Creating layer inception_4b/pool
I0403 21:54:26.316625 24646 net.cpp:91] Creating Layer inception_4b/pool
I0403 21:54:26.316642 24646 net.cpp:425] inception_4b/pool <- inception_4a/output_inception_4a/output_0_split_4
I0403 21:54:26.316660 24646 net.cpp:399] inception_4b/pool -> inception_4b/pool
I0403 21:54:26.316725 24646 net.cpp:141] Setting up inception_4b/pool
I0403 21:54:26.316750 24646 net.cpp:148] Top shape: 24 512 14 14 (2408448)
I0403 21:54:26.316764 24646 net.cpp:156] Memory required for data: 977814816
I0403 21:54:26.316779 24646 layer_factory.hpp:77] Creating layer inception_4b/pool_proj
I0403 21:54:26.316802 24646 net.cpp:91] Creating Layer inception_4b/pool_proj
I0403 21:54:26.316818 24646 net.cpp:425] inception_4b/pool_proj <- inception_4b/pool
I0403 21:54:26.316840 24646 net.cpp:399] inception_4b/pool_proj -> inception_4b/pool_proj
I0403 21:54:26.318003 24646 net.cpp:141] Setting up inception_4b/pool_proj
I0403 21:54:26.318032 24646 net.cpp:148] Top shape: 24 64 14 14 (301056)
I0403 21:54:26.318048 24646 net.cpp:156] Memory required for data: 979019040
I0403 21:54:26.318066 24646 layer_factory.hpp:77] Creating layer inception_4b/relu_pool_proj
I0403 21:54:26.318089 24646 net.cpp:91] Creating Layer inception_4b/relu_pool_proj
I0403 21:54:26.318105 24646 net.cpp:425] inception_4b/relu_pool_proj <- inception_4b/pool_proj
I0403 21:54:26.318123 24646 net.cpp:386] inception_4b/relu_pool_proj -> inception_4b/pool_proj (in-place)
I0403 21:54:26.318310 24646 net.cpp:141] Setting up inception_4b/relu_pool_proj
I0403 21:54:26.318338 24646 net.cpp:148] Top shape: 24 64 14 14 (301056)
I0403 21:54:26.318354 24646 net.cpp:156] Memory required for data: 980223264
I0403 21:54:26.318369 24646 layer_factory.hpp:77] Creating layer inception_4b/output
I0403 21:54:26.318387 24646 net.cpp:91] Creating Layer inception_4b/output
I0403 21:54:26.318403 24646 net.cpp:425] inception_4b/output <- inception_4b/1x1
I0403 21:54:26.318419 24646 net.cpp:425] inception_4b/output <- inception_4b/3x3
I0403 21:54:26.318435 24646 net.cpp:425] inception_4b/output <- inception_4b/5x5
I0403 21:54:26.318451 24646 net.cpp:425] inception_4b/output <- inception_4b/pool_proj
I0403 21:54:26.318470 24646 net.cpp:399] inception_4b/output -> inception_4b/output
I0403 21:54:26.318512 24646 net.cpp:141] Setting up inception_4b/output
I0403 21:54:26.318536 24646 net.cpp:148] Top shape: 24 512 14 14 (2408448)
I0403 21:54:26.318550 24646 net.cpp:156] Memory required for data: 989857056
I0403 21:54:26.318583 24646 layer_factory.hpp:77] Creating layer inception_4b/output_inception_4b/output_0_split
I0403 21:54:26.318603 24646 net.cpp:91] Creating Layer inception_4b/output_inception_4b/output_0_split
I0403 21:54:26.318620 24646 net.cpp:425] inception_4b/output_inception_4b/output_0_split <- inception_4b/output
I0403 21:54:26.318639 24646 net.cpp:399] inception_4b/output_inception_4b/output_0_split -> inception_4b/output_inception_4b/output_0_split_0
I0403 21:54:26.318657 24646 net.cpp:399] inception_4b/output_inception_4b/output_0_split -> inception_4b/output_inception_4b/output_0_split_1
I0403 21:54:26.318680 24646 net.cpp:399] inception_4b/output_inception_4b/output_0_split -> inception_4b/output_inception_4b/output_0_split_2
I0403 21:54:26.318701 24646 net.cpp:399] inception_4b/output_inception_4b/output_0_split -> inception_4b/output_inception_4b/output_0_split_3
I0403 21:54:26.318783 24646 net.cpp:141] Setting up inception_4b/output_inception_4b/output_0_split
I0403 21:54:26.318806 24646 net.cpp:148] Top shape: 24 512 14 14 (2408448)
I0403 21:54:26.318824 24646 net.cpp:148] Top shape: 24 512 14 14 (2408448)
I0403 21:54:26.318840 24646 net.cpp:148] Top shape: 24 512 14 14 (2408448)
I0403 21:54:26.318855 24646 net.cpp:148] Top shape: 24 512 14 14 (2408448)
I0403 21:54:26.318868 24646 net.cpp:156] Memory required for data: 1028392224
I0403 21:54:26.318883 24646 layer_factory.hpp:77] Creating layer inception_4c/1x1
I0403 21:54:26.318905 24646 net.cpp:91] Creating Layer inception_4c/1x1
I0403 21:54:26.318922 24646 net.cpp:425] inception_4c/1x1 <- inception_4b/output_inception_4b/output_0_split_0
I0403 21:54:26.318943 24646 net.cpp:399] inception_4c/1x1 -> inception_4c/1x1
I0403 21:54:26.320348 24646 net.cpp:141] Setting up inception_4c/1x1
I0403 21:54:26.320379 24646 net.cpp:148] Top shape: 24 128 14 14 (602112)
I0403 21:54:26.320395 24646 net.cpp:156] Memory required for data: 1030800672
I0403 21:54:26.320415 24646 layer_factory.hpp:77] Creating layer inception_4c/relu_1x1
I0403 21:54:26.320432 24646 net.cpp:91] Creating Layer inception_4c/relu_1x1
I0403 21:54:26.320448 24646 net.cpp:425] inception_4c/relu_1x1 <- inception_4c/1x1
I0403 21:54:26.320467 24646 net.cpp:386] inception_4c/relu_1x1 -> inception_4c/1x1 (in-place)
I0403 21:54:26.320641 24646 net.cpp:141] Setting up inception_4c/relu_1x1
I0403 21:54:26.320667 24646 net.cpp:148] Top shape: 24 128 14 14 (602112)
I0403 21:54:26.320682 24646 net.cpp:156] Memory required for data: 1033209120
I0403 21:54:26.320696 24646 layer_factory.hpp:77] Creating layer inception_4c/3x3_reduce
I0403 21:54:26.320718 24646 net.cpp:91] Creating Layer inception_4c/3x3_reduce
I0403 21:54:26.320735 24646 net.cpp:425] inception_4c/3x3_reduce <- inception_4b/output_inception_4b/output_0_split_1
I0403 21:54:26.320756 24646 net.cpp:399] inception_4c/3x3_reduce -> inception_4c/3x3_reduce
I0403 21:54:26.322666 24646 net.cpp:141] Setting up inception_4c/3x3_reduce
I0403 21:54:26.322695 24646 net.cpp:148] Top shape: 24 128 14 14 (602112)
I0403 21:54:26.322711 24646 net.cpp:156] Memory required for data: 1035617568
I0403 21:54:26.322729 24646 layer_factory.hpp:77] Creating layer inception_4c/relu_3x3_reduce
I0403 21:54:26.322752 24646 net.cpp:91] Creating Layer inception_4c/relu_3x3_reduce
I0403 21:54:26.322770 24646 net.cpp:425] inception_4c/relu_3x3_reduce <- inception_4c/3x3_reduce
I0403 21:54:26.322788 24646 net.cpp:386] inception_4c/relu_3x3_reduce -> inception_4c/3x3_reduce (in-place)
I0403 21:54:26.323073 24646 net.cpp:141] Setting up inception_4c/relu_3x3_reduce
I0403 21:54:26.323099 24646 net.cpp:148] Top shape: 24 128 14 14 (602112)
I0403 21:54:26.323115 24646 net.cpp:156] Memory required for data: 1038026016
I0403 21:54:26.323129 24646 layer_factory.hpp:77] Creating layer inception_4c/3x3
I0403 21:54:26.323150 24646 net.cpp:91] Creating Layer inception_4c/3x3
I0403 21:54:26.323168 24646 net.cpp:425] inception_4c/3x3 <- inception_4c/3x3_reduce
I0403 21:54:26.323192 24646 net.cpp:399] inception_4c/3x3 -> inception_4c/3x3
I0403 21:54:26.326716 24646 net.cpp:141] Setting up inception_4c/3x3
I0403 21:54:26.326756 24646 net.cpp:148] Top shape: 24 256 14 14 (1204224)
I0403 21:54:26.326773 24646 net.cpp:156] Memory required for data: 1042842912
I0403 21:54:26.326804 24646 layer_factory.hpp:77] Creating layer inception_4c/relu_3x3
I0403 21:54:26.326827 24646 net.cpp:91] Creating Layer inception_4c/relu_3x3
I0403 21:54:26.326844 24646 net.cpp:425] inception_4c/relu_3x3 <- inception_4c/3x3
I0403 21:54:26.326863 24646 net.cpp:386] inception_4c/relu_3x3 -> inception_4c/3x3 (in-place)
I0403 21:54:26.327042 24646 net.cpp:141] Setting up inception_4c/relu_3x3
I0403 21:54:26.327067 24646 net.cpp:148] Top shape: 24 256 14 14 (1204224)
I0403 21:54:26.327082 24646 net.cpp:156] Memory required for data: 1047659808
I0403 21:54:26.327097 24646 layer_factory.hpp:77] Creating layer inception_4c/5x5_reduce
I0403 21:54:26.327121 24646 net.cpp:91] Creating Layer inception_4c/5x5_reduce
I0403 21:54:26.327139 24646 net.cpp:425] inception_4c/5x5_reduce <- inception_4b/output_inception_4b/output_0_split_2
I0403 21:54:26.327158 24646 net.cpp:399] inception_4c/5x5_reduce -> inception_4c/5x5_reduce
I0403 21:54:26.328220 24646 net.cpp:141] Setting up inception_4c/5x5_reduce
I0403 21:54:26.328248 24646 net.cpp:148] Top shape: 24 24 14 14 (112896)
I0403 21:54:26.328263 24646 net.cpp:156] Memory required for data: 1048111392
I0403 21:54:26.328281 24646 layer_factory.hpp:77] Creating layer inception_4c/relu_5x5_reduce
I0403 21:54:26.328301 24646 net.cpp:91] Creating Layer inception_4c/relu_5x5_reduce
I0403 21:54:26.328320 24646 net.cpp:425] inception_4c/relu_5x5_reduce <- inception_4c/5x5_reduce
I0403 21:54:26.328338 24646 net.cpp:386] inception_4c/relu_5x5_reduce -> inception_4c/5x5_reduce (in-place)
I0403 21:54:26.328516 24646 net.cpp:141] Setting up inception_4c/relu_5x5_reduce
I0403 21:54:26.328543 24646 net.cpp:148] Top shape: 24 24 14 14 (112896)
I0403 21:54:26.328560 24646 net.cpp:156] Memory required for data: 1048562976
I0403 21:54:26.328575 24646 layer_factory.hpp:77] Creating layer inception_4c/5x5
I0403 21:54:26.328596 24646 net.cpp:91] Creating Layer inception_4c/5x5
I0403 21:54:26.328613 24646 net.cpp:425] inception_4c/5x5 <- inception_4c/5x5_reduce
I0403 21:54:26.328632 24646 net.cpp:399] inception_4c/5x5 -> inception_4c/5x5
I0403 21:54:26.329874 24646 net.cpp:141] Setting up inception_4c/5x5
I0403 21:54:26.329905 24646 net.cpp:148] Top shape: 24 64 14 14 (301056)
I0403 21:54:26.329922 24646 net.cpp:156] Memory required for data: 1049767200
I0403 21:54:26.329941 24646 layer_factory.hpp:77] Creating layer inception_4c/relu_5x5
I0403 21:54:26.329962 24646 net.cpp:91] Creating Layer inception_4c/relu_5x5
I0403 21:54:26.329977 24646 net.cpp:425] inception_4c/relu_5x5 <- inception_4c/5x5
I0403 21:54:26.329998 24646 net.cpp:386] inception_4c/relu_5x5 -> inception_4c/5x5 (in-place)
I0403 21:54:26.330289 24646 net.cpp:141] Setting up inception_4c/relu_5x5
I0403 21:54:26.330322 24646 net.cpp:148] Top shape: 24 64 14 14 (301056)
I0403 21:54:26.330340 24646 net.cpp:156] Memory required for data: 1050971424
I0403 21:54:26.330355 24646 layer_factory.hpp:77] Creating layer inception_4c/pool
I0403 21:54:26.330373 24646 net.cpp:91] Creating Layer inception_4c/pool
I0403 21:54:26.330389 24646 net.cpp:425] inception_4c/pool <- inception_4b/output_inception_4b/output_0_split_3
I0403 21:54:26.330410 24646 net.cpp:399] inception_4c/pool -> inception_4c/pool
I0403 21:54:26.330477 24646 net.cpp:141] Setting up inception_4c/pool
I0403 21:54:26.330502 24646 net.cpp:148] Top shape: 24 512 14 14 (2408448)
I0403 21:54:26.330516 24646 net.cpp:156] Memory required for data: 1060605216
I0403 21:54:26.330531 24646 layer_factory.hpp:77] Creating layer inception_4c/pool_proj
I0403 21:54:26.330554 24646 net.cpp:91] Creating Layer inception_4c/pool_proj
I0403 21:54:26.330571 24646 net.cpp:425] inception_4c/pool_proj <- inception_4c/pool
I0403 21:54:26.330593 24646 net.cpp:399] inception_4c/pool_proj -> inception_4c/pool_proj
I0403 21:54:26.331817 24646 net.cpp:141] Setting up inception_4c/pool_proj
I0403 21:54:26.331845 24646 net.cpp:148] Top shape: 24 64 14 14 (301056)
I0403 21:54:26.331876 24646 net.cpp:156] Memory required for data: 1061809440
I0403 21:54:26.331897 24646 layer_factory.hpp:77] Creating layer inception_4c/relu_pool_proj
I0403 21:54:26.331919 24646 net.cpp:91] Creating Layer inception_4c/relu_pool_proj
I0403 21:54:26.331938 24646 net.cpp:425] inception_4c/relu_pool_proj <- inception_4c/pool_proj
I0403 21:54:26.331957 24646 net.cpp:386] inception_4c/relu_pool_proj -> inception_4c/pool_proj (in-place)
I0403 21:54:26.332141 24646 net.cpp:141] Setting up inception_4c/relu_pool_proj
I0403 21:54:26.332170 24646 net.cpp:148] Top shape: 24 64 14 14 (301056)
I0403 21:54:26.332185 24646 net.cpp:156] Memory required for data: 1063013664
I0403 21:54:26.332204 24646 layer_factory.hpp:77] Creating layer inception_4c/output
I0403 21:54:26.332223 24646 net.cpp:91] Creating Layer inception_4c/output
I0403 21:54:26.332240 24646 net.cpp:425] inception_4c/output <- inception_4c/1x1
I0403 21:54:26.332257 24646 net.cpp:425] inception_4c/output <- inception_4c/3x3
I0403 21:54:26.332273 24646 net.cpp:425] inception_4c/output <- inception_4c/5x5
I0403 21:54:26.332289 24646 net.cpp:425] inception_4c/output <- inception_4c/pool_proj
I0403 21:54:26.332309 24646 net.cpp:399] inception_4c/output -> inception_4c/output
I0403 21:54:26.332356 24646 net.cpp:141] Setting up inception_4c/output
I0403 21:54:26.332381 24646 net.cpp:148] Top shape: 24 512 14 14 (2408448)
I0403 21:54:26.332396 24646 net.cpp:156] Memory required for data: 1072647456
I0403 21:54:26.332412 24646 layer_factory.hpp:77] Creating layer inception_4c/output_inception_4c/output_0_split
I0403 21:54:26.332432 24646 net.cpp:91] Creating Layer inception_4c/output_inception_4c/output_0_split
I0403 21:54:26.332448 24646 net.cpp:425] inception_4c/output_inception_4c/output_0_split <- inception_4c/output
I0403 21:54:26.332465 24646 net.cpp:399] inception_4c/output_inception_4c/output_0_split -> inception_4c/output_inception_4c/output_0_split_0
I0403 21:54:26.332485 24646 net.cpp:399] inception_4c/output_inception_4c/output_0_split -> inception_4c/output_inception_4c/output_0_split_1
I0403 21:54:26.332507 24646 net.cpp:399] inception_4c/output_inception_4c/output_0_split -> inception_4c/output_inception_4c/output_0_split_2
I0403 21:54:26.332531 24646 net.cpp:399] inception_4c/output_inception_4c/output_0_split -> inception_4c/output_inception_4c/output_0_split_3
I0403 21:54:26.332618 24646 net.cpp:141] Setting up inception_4c/output_inception_4c/output_0_split
I0403 21:54:26.332643 24646 net.cpp:148] Top shape: 24 512 14 14 (2408448)
I0403 21:54:26.332659 24646 net.cpp:148] Top shape: 24 512 14 14 (2408448)
I0403 21:54:26.332674 24646 net.cpp:148] Top shape: 24 512 14 14 (2408448)
I0403 21:54:26.332691 24646 net.cpp:148] Top shape: 24 512 14 14 (2408448)
I0403 21:54:26.332705 24646 net.cpp:156] Memory required for data: 1111182624
I0403 21:54:26.332720 24646 layer_factory.hpp:77] Creating layer inception_4d/1x1
I0403 21:54:26.332742 24646 net.cpp:91] Creating Layer inception_4d/1x1
I0403 21:54:26.332761 24646 net.cpp:425] inception_4d/1x1 <- inception_4c/output_inception_4c/output_0_split_0
I0403 21:54:26.332782 24646 net.cpp:399] inception_4d/1x1 -> inception_4d/1x1
I0403 21:54:26.334161 24646 net.cpp:141] Setting up inception_4d/1x1
I0403 21:54:26.334189 24646 net.cpp:148] Top shape: 24 112 14 14 (526848)
I0403 21:54:26.334211 24646 net.cpp:156] Memory required for data: 1113290016
I0403 21:54:26.334230 24646 layer_factory.hpp:77] Creating layer inception_4d/relu_1x1
I0403 21:54:26.334252 24646 net.cpp:91] Creating Layer inception_4d/relu_1x1
I0403 21:54:26.334270 24646 net.cpp:425] inception_4d/relu_1x1 <- inception_4d/1x1
I0403 21:54:26.334288 24646 net.cpp:386] inception_4d/relu_1x1 -> inception_4d/1x1 (in-place)
I0403 21:54:26.334475 24646 net.cpp:141] Setting up inception_4d/relu_1x1
I0403 21:54:26.334502 24646 net.cpp:148] Top shape: 24 112 14 14 (526848)
I0403 21:54:26.334517 24646 net.cpp:156] Memory required for data: 1115397408
I0403 21:54:26.334532 24646 layer_factory.hpp:77] Creating layer inception_4d/3x3_reduce
I0403 21:54:26.334569 24646 net.cpp:91] Creating Layer inception_4d/3x3_reduce
I0403 21:54:26.334589 24646 net.cpp:425] inception_4d/3x3_reduce <- inception_4c/output_inception_4c/output_0_split_1
I0403 21:54:26.334611 24646 net.cpp:399] inception_4d/3x3_reduce -> inception_4d/3x3_reduce
I0403 21:54:26.336134 24646 net.cpp:141] Setting up inception_4d/3x3_reduce
I0403 21:54:26.336163 24646 net.cpp:148] Top shape: 24 144 14 14 (677376)
I0403 21:54:26.336179 24646 net.cpp:156] Memory required for data: 1118106912
I0403 21:54:26.336201 24646 layer_factory.hpp:77] Creating layer inception_4d/relu_3x3_reduce
I0403 21:54:26.336222 24646 net.cpp:91] Creating Layer inception_4d/relu_3x3_reduce
I0403 21:54:26.336241 24646 net.cpp:425] inception_4d/relu_3x3_reduce <- inception_4d/3x3_reduce
I0403 21:54:26.336261 24646 net.cpp:386] inception_4d/relu_3x3_reduce -> inception_4d/3x3_reduce (in-place)
I0403 21:54:26.336555 24646 net.cpp:141] Setting up inception_4d/relu_3x3_reduce
I0403 21:54:26.336582 24646 net.cpp:148] Top shape: 24 144 14 14 (677376)
I0403 21:54:26.336597 24646 net.cpp:156] Memory required for data: 1120816416
I0403 21:54:26.336612 24646 layer_factory.hpp:77] Creating layer inception_4d/3x3
I0403 21:54:26.336634 24646 net.cpp:91] Creating Layer inception_4d/3x3
I0403 21:54:26.336653 24646 net.cpp:425] inception_4d/3x3 <- inception_4d/3x3_reduce
I0403 21:54:26.336675 24646 net.cpp:399] inception_4d/3x3 -> inception_4d/3x3
I0403 21:54:26.340986 24646 net.cpp:141] Setting up inception_4d/3x3
I0403 21:54:26.341017 24646 net.cpp:148] Top shape: 24 288 14 14 (1354752)
I0403 21:54:26.341033 24646 net.cpp:156] Memory required for data: 1126235424
I0403 21:54:26.341053 24646 layer_factory.hpp:77] Creating layer inception_4d/relu_3x3
I0403 21:54:26.341073 24646 net.cpp:91] Creating Layer inception_4d/relu_3x3
I0403 21:54:26.341091 24646 net.cpp:425] inception_4d/relu_3x3 <- inception_4d/3x3
I0403 21:54:26.341109 24646 net.cpp:386] inception_4d/relu_3x3 -> inception_4d/3x3 (in-place)
I0403 21:54:26.341295 24646 net.cpp:141] Setting up inception_4d/relu_3x3
I0403 21:54:26.341321 24646 net.cpp:148] Top shape: 24 288 14 14 (1354752)
I0403 21:54:26.341339 24646 net.cpp:156] Memory required for data: 1131654432
I0403 21:54:26.341356 24646 layer_factory.hpp:77] Creating layer inception_4d/5x5_reduce
I0403 21:54:26.341375 24646 net.cpp:91] Creating Layer inception_4d/5x5_reduce
I0403 21:54:26.341392 24646 net.cpp:425] inception_4d/5x5_reduce <- inception_4c/output_inception_4c/output_0_split_2
I0403 21:54:26.341414 24646 net.cpp:399] inception_4d/5x5_reduce -> inception_4d/5x5_reduce
I0403 21:54:26.342561 24646 net.cpp:141] Setting up inception_4d/5x5_reduce
I0403 21:54:26.342589 24646 net.cpp:148] Top shape: 24 32 14 14 (150528)
I0403 21:54:26.342607 24646 net.cpp:156] Memory required for data: 1132256544
I0403 21:54:26.342627 24646 layer_factory.hpp:77] Creating layer inception_4d/relu_5x5_reduce
I0403 21:54:26.342649 24646 net.cpp:91] Creating Layer inception_4d/relu_5x5_reduce
I0403 21:54:26.342667 24646 net.cpp:425] inception_4d/relu_5x5_reduce <- inception_4d/5x5_reduce
I0403 21:54:26.342686 24646 net.cpp:386] inception_4d/relu_5x5_reduce -> inception_4d/5x5_reduce (in-place)
I0403 21:54:26.342874 24646 net.cpp:141] Setting up inception_4d/relu_5x5_reduce
I0403 21:54:26.342900 24646 net.cpp:148] Top shape: 24 32 14 14 (150528)
I0403 21:54:26.342916 24646 net.cpp:156] Memory required for data: 1132858656
I0403 21:54:26.342931 24646 layer_factory.hpp:77] Creating layer inception_4d/5x5
I0403 21:54:26.342953 24646 net.cpp:91] Creating Layer inception_4d/5x5
I0403 21:54:26.342972 24646 net.cpp:425] inception_4d/5x5 <- inception_4d/5x5_reduce
I0403 21:54:26.342991 24646 net.cpp:399] inception_4d/5x5 -> inception_4d/5x5
I0403 21:54:26.344468 24646 net.cpp:141] Setting up inception_4d/5x5
I0403 21:54:26.344496 24646 net.cpp:148] Top shape: 24 64 14 14 (301056)
I0403 21:54:26.344512 24646 net.cpp:156] Memory required for data: 1134062880
I0403 21:54:26.344532 24646 layer_factory.hpp:77] Creating layer inception_4d/relu_5x5
I0403 21:54:26.344568 24646 net.cpp:91] Creating Layer inception_4d/relu_5x5
I0403 21:54:26.344586 24646 net.cpp:425] inception_4d/relu_5x5 <- inception_4d/5x5
I0403 21:54:26.344604 24646 net.cpp:386] inception_4d/relu_5x5 -> inception_4d/5x5 (in-place)
I0403 21:54:26.344907 24646 net.cpp:141] Setting up inception_4d/relu_5x5
I0403 21:54:26.344933 24646 net.cpp:148] Top shape: 24 64 14 14 (301056)
I0403 21:54:26.344949 24646 net.cpp:156] Memory required for data: 1135267104
I0403 21:54:26.344964 24646 layer_factory.hpp:77] Creating layer inception_4d/pool
I0403 21:54:26.344985 24646 net.cpp:91] Creating Layer inception_4d/pool
I0403 21:54:26.345002 24646 net.cpp:425] inception_4d/pool <- inception_4c/output_inception_4c/output_0_split_3
I0403 21:54:26.345021 24646 net.cpp:399] inception_4d/pool -> inception_4d/pool
I0403 21:54:26.345090 24646 net.cpp:141] Setting up inception_4d/pool
I0403 21:54:26.345115 24646 net.cpp:148] Top shape: 24 512 14 14 (2408448)
I0403 21:54:26.345130 24646 net.cpp:156] Memory required for data: 1144900896
I0403 21:54:26.345144 24646 layer_factory.hpp:77] Creating layer inception_4d/pool_proj
I0403 21:54:26.345166 24646 net.cpp:91] Creating Layer inception_4d/pool_proj
I0403 21:54:26.345185 24646 net.cpp:425] inception_4d/pool_proj <- inception_4d/pool
I0403 21:54:26.345211 24646 net.cpp:399] inception_4d/pool_proj -> inception_4d/pool_proj
I0403 21:54:26.347007 24646 net.cpp:141] Setting up inception_4d/pool_proj
I0403 21:54:26.347035 24646 net.cpp:148] Top shape: 24 64 14 14 (301056)
I0403 21:54:26.347051 24646 net.cpp:156] Memory required for data: 1146105120
I0403 21:54:26.347069 24646 layer_factory.hpp:77] Creating layer inception_4d/relu_pool_proj
I0403 21:54:26.347090 24646 net.cpp:91] Creating Layer inception_4d/relu_pool_proj
I0403 21:54:26.347108 24646 net.cpp:425] inception_4d/relu_pool_proj <- inception_4d/pool_proj
I0403 21:54:26.347126 24646 net.cpp:386] inception_4d/relu_pool_proj -> inception_4d/pool_proj (in-place)
I0403 21:54:26.347316 24646 net.cpp:141] Setting up inception_4d/relu_pool_proj
I0403 21:54:26.347340 24646 net.cpp:148] Top shape: 24 64 14 14 (301056)
I0403 21:54:26.347358 24646 net.cpp:156] Memory required for data: 1147309344
I0403 21:54:26.347373 24646 layer_factory.hpp:77] Creating layer inception_4d/output
I0403 21:54:26.347390 24646 net.cpp:91] Creating Layer inception_4d/output
I0403 21:54:26.347406 24646 net.cpp:425] inception_4d/output <- inception_4d/1x1
I0403 21:54:26.347424 24646 net.cpp:425] inception_4d/output <- inception_4d/3x3
I0403 21:54:26.347439 24646 net.cpp:425] inception_4d/output <- inception_4d/5x5
I0403 21:54:26.347455 24646 net.cpp:425] inception_4d/output <- inception_4d/pool_proj
I0403 21:54:26.347470 24646 net.cpp:399] inception_4d/output -> inception_4d/output
I0403 21:54:26.347519 24646 net.cpp:141] Setting up inception_4d/output
I0403 21:54:26.347543 24646 net.cpp:148] Top shape: 24 528 14 14 (2483712)
I0403 21:54:26.347558 24646 net.cpp:156] Memory required for data: 1157244192
I0403 21:54:26.347571 24646 layer_factory.hpp:77] Creating layer inception_4d/output_inception_4d/output_0_split
I0403 21:54:26.347589 24646 net.cpp:91] Creating Layer inception_4d/output_inception_4d/output_0_split
I0403 21:54:26.347609 24646 net.cpp:425] inception_4d/output_inception_4d/output_0_split <- inception_4d/output
I0403 21:54:26.347626 24646 net.cpp:399] inception_4d/output_inception_4d/output_0_split -> inception_4d/output_inception_4d/output_0_split_0
I0403 21:54:26.347647 24646 net.cpp:399] inception_4d/output_inception_4d/output_0_split -> inception_4d/output_inception_4d/output_0_split_1
I0403 21:54:26.347668 24646 net.cpp:399] inception_4d/output_inception_4d/output_0_split -> inception_4d/output_inception_4d/output_0_split_2
I0403 21:54:26.347688 24646 net.cpp:399] inception_4d/output_inception_4d/output_0_split -> inception_4d/output_inception_4d/output_0_split_3
I0403 21:54:26.347708 24646 net.cpp:399] inception_4d/output_inception_4d/output_0_split -> inception_4d/output_inception_4d/output_0_split_4
I0403 21:54:26.347810 24646 net.cpp:141] Setting up inception_4d/output_inception_4d/output_0_split
I0403 21:54:26.347844 24646 net.cpp:148] Top shape: 24 528 14 14 (2483712)
I0403 21:54:26.347862 24646 net.cpp:148] Top shape: 24 528 14 14 (2483712)
I0403 21:54:26.347878 24646 net.cpp:148] Top shape: 24 528 14 14 (2483712)
I0403 21:54:26.347894 24646 net.cpp:148] Top shape: 24 528 14 14 (2483712)
I0403 21:54:26.347909 24646 net.cpp:148] Top shape: 24 528 14 14 (2483712)
I0403 21:54:26.347923 24646 net.cpp:156] Memory required for data: 1206918432
I0403 21:54:26.347937 24646 layer_factory.hpp:77] Creating layer loss2/ave_pool
I0403 21:54:26.347956 24646 net.cpp:91] Creating Layer loss2/ave_pool
I0403 21:54:26.347973 24646 net.cpp:425] loss2/ave_pool <- inception_4d/output_inception_4d/output_0_split_0
I0403 21:54:26.347993 24646 net.cpp:399] loss2/ave_pool -> loss2/ave_pool
I0403 21:54:26.348310 24646 net.cpp:141] Setting up loss2/ave_pool
I0403 21:54:26.348338 24646 net.cpp:148] Top shape: 24 528 4 4 (202752)
I0403 21:54:26.348353 24646 net.cpp:156] Memory required for data: 1207729440
I0403 21:54:26.348368 24646 layer_factory.hpp:77] Creating layer loss2/conv
I0403 21:54:26.348390 24646 net.cpp:91] Creating Layer loss2/conv
I0403 21:54:26.348408 24646 net.cpp:425] loss2/conv <- loss2/ave_pool
I0403 21:54:26.348433 24646 net.cpp:399] loss2/conv -> loss2/conv
I0403 21:54:26.350291 24646 net.cpp:141] Setting up loss2/conv
I0403 21:54:26.350322 24646 net.cpp:148] Top shape: 24 128 4 4 (49152)
I0403 21:54:26.350338 24646 net.cpp:156] Memory required for data: 1207926048
I0403 21:54:26.350358 24646 layer_factory.hpp:77] Creating layer loss2/relu_conv
I0403 21:54:26.350376 24646 net.cpp:91] Creating Layer loss2/relu_conv
I0403 21:54:26.350392 24646 net.cpp:425] loss2/relu_conv <- loss2/conv
I0403 21:54:26.350409 24646 net.cpp:386] loss2/relu_conv -> loss2/conv (in-place)
I0403 21:54:26.350692 24646 net.cpp:141] Setting up loss2/relu_conv
I0403 21:54:26.350719 24646 net.cpp:148] Top shape: 24 128 4 4 (49152)
I0403 21:54:26.350735 24646 net.cpp:156] Memory required for data: 1208122656
I0403 21:54:26.350750 24646 layer_factory.hpp:77] Creating layer loss2/fc
I0403 21:54:26.350769 24646 net.cpp:91] Creating Layer loss2/fc
I0403 21:54:26.350785 24646 net.cpp:425] loss2/fc <- loss2/conv
I0403 21:54:26.350806 24646 net.cpp:399] loss2/fc -> loss2/fc
I0403 21:54:26.368120 24646 net.cpp:141] Setting up loss2/fc
I0403 21:54:26.368154 24646 net.cpp:148] Top shape: 24 1024 (24576)
I0403 21:54:26.368170 24646 net.cpp:156] Memory required for data: 1208220960
I0403 21:54:26.368187 24646 layer_factory.hpp:77] Creating layer loss2/relu_fc
I0403 21:54:26.368227 24646 net.cpp:91] Creating Layer loss2/relu_fc
I0403 21:54:26.368247 24646 net.cpp:425] loss2/relu_fc <- loss2/fc
I0403 21:54:26.368264 24646 net.cpp:386] loss2/relu_fc -> loss2/fc (in-place)
I0403 21:54:26.368564 24646 net.cpp:141] Setting up loss2/relu_fc
I0403 21:54:26.368592 24646 net.cpp:148] Top shape: 24 1024 (24576)
I0403 21:54:26.368607 24646 net.cpp:156] Memory required for data: 1208319264
I0403 21:54:26.368621 24646 layer_factory.hpp:77] Creating layer loss2/drop_fc
I0403 21:54:26.368641 24646 net.cpp:91] Creating Layer loss2/drop_fc
I0403 21:54:26.368659 24646 net.cpp:425] loss2/drop_fc <- loss2/fc
I0403 21:54:26.368676 24646 net.cpp:386] loss2/drop_fc -> loss2/fc (in-place)
I0403 21:54:26.368727 24646 net.cpp:141] Setting up loss2/drop_fc
I0403 21:54:26.368751 24646 net.cpp:148] Top shape: 24 1024 (24576)
I0403 21:54:26.368765 24646 net.cpp:156] Memory required for data: 1208417568
I0403 21:54:26.368779 24646 layer_factory.hpp:77] Creating layer loss2/classifier_plantvillage
I0403 21:54:26.368798 24646 net.cpp:91] Creating Layer loss2/classifier_plantvillage
I0403 21:54:26.368814 24646 net.cpp:425] loss2/classifier_plantvillage <- loss2/fc
I0403 21:54:26.368835 24646 net.cpp:399] loss2/classifier_plantvillage -> loss2/classifier_plantvillage
I0403 21:54:26.369233 24646 net.cpp:141] Setting up loss2/classifier_plantvillage
I0403 21:54:26.369259 24646 net.cpp:148] Top shape: 24 38 (912)
I0403 21:54:26.369292 24646 net.cpp:156] Memory required for data: 1208421216
I0403 21:54:26.369312 24646 layer_factory.hpp:77] Creating layer loss2/classifier_plantvillage_loss2/classifier_plantvillage_0_split
I0403 21:54:26.369329 24646 net.cpp:91] Creating Layer loss2/classifier_plantvillage_loss2/classifier_plantvillage_0_split
I0403 21:54:26.369346 24646 net.cpp:425] loss2/classifier_plantvillage_loss2/classifier_plantvillage_0_split <- loss2/classifier_plantvillage
I0403 21:54:26.369364 24646 net.cpp:399] loss2/classifier_plantvillage_loss2/classifier_plantvillage_0_split -> loss2/classifier_plantvillage_loss2/classifier_plantvillage_0_split_0
I0403 21:54:26.369386 24646 net.cpp:399] loss2/classifier_plantvillage_loss2/classifier_plantvillage_0_split -> loss2/classifier_plantvillage_loss2/classifier_plantvillage_0_split_1
I0403 21:54:26.369408 24646 net.cpp:399] loss2/classifier_plantvillage_loss2/classifier_plantvillage_0_split -> loss2/classifier_plantvillage_loss2/classifier_plantvillage_0_split_2
I0403 21:54:26.369484 24646 net.cpp:141] Setting up loss2/classifier_plantvillage_loss2/classifier_plantvillage_0_split
I0403 21:54:26.369508 24646 net.cpp:148] Top shape: 24 38 (912)
I0403 21:54:26.369526 24646 net.cpp:148] Top shape: 24 38 (912)
I0403 21:54:26.369544 24646 net.cpp:148] Top shape: 24 38 (912)
I0403 21:54:26.369556 24646 net.cpp:156] Memory required for data: 1208432160
I0403 21:54:26.369570 24646 layer_factory.hpp:77] Creating layer inception_4e/1x1
I0403 21:54:26.369590 24646 net.cpp:91] Creating Layer inception_4e/1x1
I0403 21:54:26.369607 24646 net.cpp:425] inception_4e/1x1 <- inception_4d/output_inception_4d/output_0_split_1
I0403 21:54:26.369628 24646 net.cpp:399] inception_4e/1x1 -> inception_4e/1x1
I0403 21:54:26.371400 24646 net.cpp:141] Setting up inception_4e/1x1
I0403 21:54:26.371430 24646 net.cpp:148] Top shape: 24 256 14 14 (1204224)
I0403 21:54:26.371448 24646 net.cpp:156] Memory required for data: 1213249056
I0403 21:54:26.371466 24646 layer_factory.hpp:77] Creating layer inception_4e/relu_1x1
I0403 21:54:26.371484 24646 net.cpp:91] Creating Layer inception_4e/relu_1x1
I0403 21:54:26.371500 24646 net.cpp:425] inception_4e/relu_1x1 <- inception_4e/1x1
I0403 21:54:26.371521 24646 net.cpp:386] inception_4e/relu_1x1 -> inception_4e/1x1 (in-place)
I0403 21:54:26.371805 24646 net.cpp:141] Setting up inception_4e/relu_1x1
I0403 21:54:26.371834 24646 net.cpp:148] Top shape: 24 256 14 14 (1204224)
I0403 21:54:26.371851 24646 net.cpp:156] Memory required for data: 1218065952
I0403 21:54:26.371866 24646 layer_factory.hpp:77] Creating layer inception_4e/3x3_reduce
I0403 21:54:26.371888 24646 net.cpp:91] Creating Layer inception_4e/3x3_reduce
I0403 21:54:26.371906 24646 net.cpp:425] inception_4e/3x3_reduce <- inception_4d/output_inception_4d/output_0_split_2
I0403 21:54:26.371925 24646 net.cpp:399] inception_4e/3x3_reduce -> inception_4e/3x3_reduce
I0403 21:54:26.374001 24646 net.cpp:141] Setting up inception_4e/3x3_reduce
I0403 21:54:26.374030 24646 net.cpp:148] Top shape: 24 160 14 14 (752640)
I0403 21:54:26.374050 24646 net.cpp:156] Memory required for data: 1221076512
I0403 21:54:26.374068 24646 layer_factory.hpp:77] Creating layer inception_4e/relu_3x3_reduce
I0403 21:54:26.374088 24646 net.cpp:91] Creating Layer inception_4e/relu_3x3_reduce
I0403 21:54:26.374104 24646 net.cpp:425] inception_4e/relu_3x3_reduce <- inception_4e/3x3_reduce
I0403 21:54:26.374121 24646 net.cpp:386] inception_4e/relu_3x3_reduce -> inception_4e/3x3_reduce (in-place)
I0403 21:54:26.374307 24646 net.cpp:141] Setting up inception_4e/relu_3x3_reduce
I0403 21:54:26.374335 24646 net.cpp:148] Top shape: 24 160 14 14 (752640)
I0403 21:54:26.374351 24646 net.cpp:156] Memory required for data: 1224087072
I0403 21:54:26.374366 24646 layer_factory.hpp:77] Creating layer inception_4e/3x3
I0403 21:54:26.374387 24646 net.cpp:91] Creating Layer inception_4e/3x3
I0403 21:54:26.374405 24646 net.cpp:425] inception_4e/3x3 <- inception_4e/3x3_reduce
I0403 21:54:26.374424 24646 net.cpp:399] inception_4e/3x3 -> inception_4e/3x3
I0403 21:54:26.379328 24646 net.cpp:141] Setting up inception_4e/3x3
I0403 21:54:26.379369 24646 net.cpp:148] Top shape: 24 320 14 14 (1505280)
I0403 21:54:26.379387 24646 net.cpp:156] Memory required for data: 1230108192
I0403 21:54:26.379406 24646 layer_factory.hpp:77] Creating layer inception_4e/relu_3x3
I0403 21:54:26.379425 24646 net.cpp:91] Creating Layer inception_4e/relu_3x3
I0403 21:54:26.379441 24646 net.cpp:425] inception_4e/relu_3x3 <- inception_4e/3x3
I0403 21:54:26.379459 24646 net.cpp:386] inception_4e/relu_3x3 -> inception_4e/3x3 (in-place)
I0403 21:54:26.379752 24646 net.cpp:141] Setting up inception_4e/relu_3x3
I0403 21:54:26.379778 24646 net.cpp:148] Top shape: 24 320 14 14 (1505280)
I0403 21:54:26.379793 24646 net.cpp:156] Memory required for data: 1236129312
I0403 21:54:26.379809 24646 layer_factory.hpp:77] Creating layer inception_4e/5x5_reduce
I0403 21:54:26.379832 24646 net.cpp:91] Creating Layer inception_4e/5x5_reduce
I0403 21:54:26.379850 24646 net.cpp:425] inception_4e/5x5_reduce <- inception_4d/output_inception_4d/output_0_split_3
I0403 21:54:26.379871 24646 net.cpp:399] inception_4e/5x5_reduce -> inception_4e/5x5_reduce
I0403 21:54:26.380914 24646 net.cpp:141] Setting up inception_4e/5x5_reduce
I0403 21:54:26.380942 24646 net.cpp:148] Top shape: 24 32 14 14 (150528)
I0403 21:54:26.380959 24646 net.cpp:156] Memory required for data: 1236731424
I0403 21:54:26.380978 24646 layer_factory.hpp:77] Creating layer inception_4e/relu_5x5_reduce
I0403 21:54:26.380998 24646 net.cpp:91] Creating Layer inception_4e/relu_5x5_reduce
I0403 21:54:26.381016 24646 net.cpp:425] inception_4e/relu_5x5_reduce <- inception_4e/5x5_reduce
I0403 21:54:26.381033 24646 net.cpp:386] inception_4e/relu_5x5_reduce -> inception_4e/5x5_reduce (in-place)
I0403 21:54:26.381337 24646 net.cpp:141] Setting up inception_4e/relu_5x5_reduce
I0403 21:54:26.381364 24646 net.cpp:148] Top shape: 24 32 14 14 (150528)
I0403 21:54:26.381381 24646 net.cpp:156] Memory required for data: 1237333536
I0403 21:54:26.381397 24646 layer_factory.hpp:77] Creating layer inception_4e/5x5
I0403 21:54:26.381434 24646 net.cpp:91] Creating Layer inception_4e/5x5
I0403 21:54:26.381454 24646 net.cpp:425] inception_4e/5x5 <- inception_4e/5x5_reduce
I0403 21:54:26.381474 24646 net.cpp:399] inception_4e/5x5 -> inception_4e/5x5
I0403 21:54:26.383283 24646 net.cpp:141] Setting up inception_4e/5x5
I0403 21:54:26.383311 24646 net.cpp:148] Top shape: 24 128 14 14 (602112)
I0403 21:54:26.383327 24646 net.cpp:156] Memory required for data: 1239741984
I0403 21:54:26.383345 24646 layer_factory.hpp:77] Creating layer inception_4e/relu_5x5
I0403 21:54:26.383365 24646 net.cpp:91] Creating Layer inception_4e/relu_5x5
I0403 21:54:26.383383 24646 net.cpp:425] inception_4e/relu_5x5 <- inception_4e/5x5
I0403 21:54:26.383401 24646 net.cpp:386] inception_4e/relu_5x5 -> inception_4e/5x5 (in-place)
I0403 21:54:26.383594 24646 net.cpp:141] Setting up inception_4e/relu_5x5
I0403 21:54:26.383620 24646 net.cpp:148] Top shape: 24 128 14 14 (602112)
I0403 21:54:26.383635 24646 net.cpp:156] Memory required for data: 1242150432
I0403 21:54:26.383651 24646 layer_factory.hpp:77] Creating layer inception_4e/pool
I0403 21:54:26.383668 24646 net.cpp:91] Creating Layer inception_4e/pool
I0403 21:54:26.383684 24646 net.cpp:425] inception_4e/pool <- inception_4d/output_inception_4d/output_0_split_4
I0403 21:54:26.383702 24646 net.cpp:399] inception_4e/pool -> inception_4e/pool
I0403 21:54:26.383770 24646 net.cpp:141] Setting up inception_4e/pool
I0403 21:54:26.383795 24646 net.cpp:148] Top shape: 24 528 14 14 (2483712)
I0403 21:54:26.383810 24646 net.cpp:156] Memory required for data: 1252085280
I0403 21:54:26.383826 24646 layer_factory.hpp:77] Creating layer inception_4e/pool_proj
I0403 21:54:26.383846 24646 net.cpp:91] Creating Layer inception_4e/pool_proj
I0403 21:54:26.383864 24646 net.cpp:425] inception_4e/pool_proj <- inception_4e/pool
I0403 21:54:26.383885 24646 net.cpp:399] inception_4e/pool_proj -> inception_4e/pool_proj
I0403 21:54:26.385411 24646 net.cpp:141] Setting up inception_4e/pool_proj
I0403 21:54:26.385450 24646 net.cpp:148] Top shape: 24 128 14 14 (602112)
I0403 21:54:26.385467 24646 net.cpp:156] Memory required for data: 1254493728
I0403 21:54:26.385485 24646 layer_factory.hpp:77] Creating layer inception_4e/relu_pool_proj
I0403 21:54:26.385506 24646 net.cpp:91] Creating Layer inception_4e/relu_pool_proj
I0403 21:54:26.385525 24646 net.cpp:425] inception_4e/relu_pool_proj <- inception_4e/pool_proj
I0403 21:54:26.385542 24646 net.cpp:386] inception_4e/relu_pool_proj -> inception_4e/pool_proj (in-place)
I0403 21:54:26.385840 24646 net.cpp:141] Setting up inception_4e/relu_pool_proj
I0403 21:54:26.385867 24646 net.cpp:148] Top shape: 24 128 14 14 (602112)
I0403 21:54:26.385882 24646 net.cpp:156] Memory required for data: 1256902176
I0403 21:54:26.385897 24646 layer_factory.hpp:77] Creating layer inception_4e/output
I0403 21:54:26.385915 24646 net.cpp:91] Creating Layer inception_4e/output
I0403 21:54:26.385931 24646 net.cpp:425] inception_4e/output <- inception_4e/1x1
I0403 21:54:26.385948 24646 net.cpp:425] inception_4e/output <- inception_4e/3x3
I0403 21:54:26.385964 24646 net.cpp:425] inception_4e/output <- inception_4e/5x5
I0403 21:54:26.385980 24646 net.cpp:425] inception_4e/output <- inception_4e/pool_proj
I0403 21:54:26.386000 24646 net.cpp:399] inception_4e/output -> inception_4e/output
I0403 21:54:26.386054 24646 net.cpp:141] Setting up inception_4e/output
I0403 21:54:26.386080 24646 net.cpp:148] Top shape: 24 832 14 14 (3913728)
I0403 21:54:26.386095 24646 net.cpp:156] Memory required for data: 1272557088
I0403 21:54:26.386109 24646 layer_factory.hpp:77] Creating layer pool4/3x3_s2
I0403 21:54:26.386127 24646 net.cpp:91] Creating Layer pool4/3x3_s2
I0403 21:54:26.386143 24646 net.cpp:425] pool4/3x3_s2 <- inception_4e/output
I0403 21:54:26.386164 24646 net.cpp:399] pool4/3x3_s2 -> pool4/3x3_s2
I0403 21:54:26.386240 24646 net.cpp:141] Setting up pool4/3x3_s2
I0403 21:54:26.386265 24646 net.cpp:148] Top shape: 24 832 7 7 (978432)
I0403 21:54:26.386279 24646 net.cpp:156] Memory required for data: 1276470816
I0403 21:54:26.386294 24646 layer_factory.hpp:77] Creating layer pool4/3x3_s2_pool4/3x3_s2_0_split
I0403 21:54:26.386314 24646 net.cpp:91] Creating Layer pool4/3x3_s2_pool4/3x3_s2_0_split
I0403 21:54:26.386332 24646 net.cpp:425] pool4/3x3_s2_pool4/3x3_s2_0_split <- pool4/3x3_s2
I0403 21:54:26.386350 24646 net.cpp:399] pool4/3x3_s2_pool4/3x3_s2_0_split -> pool4/3x3_s2_pool4/3x3_s2_0_split_0
I0403 21:54:26.386373 24646 net.cpp:399] pool4/3x3_s2_pool4/3x3_s2_0_split -> pool4/3x3_s2_pool4/3x3_s2_0_split_1
I0403 21:54:26.386394 24646 net.cpp:399] pool4/3x3_s2_pool4/3x3_s2_0_split -> pool4/3x3_s2_pool4/3x3_s2_0_split_2
I0403 21:54:26.386415 24646 net.cpp:399] pool4/3x3_s2_pool4/3x3_s2_0_split -> pool4/3x3_s2_pool4/3x3_s2_0_split_3
I0403 21:54:26.386505 24646 net.cpp:141] Setting up pool4/3x3_s2_pool4/3x3_s2_0_split
I0403 21:54:26.386529 24646 net.cpp:148] Top shape: 24 832 7 7 (978432)
I0403 21:54:26.386546 24646 net.cpp:148] Top shape: 24 832 7 7 (978432)
I0403 21:54:26.386562 24646 net.cpp:148] Top shape: 24 832 7 7 (978432)
I0403 21:54:26.386579 24646 net.cpp:148] Top shape: 24 832 7 7 (978432)
I0403 21:54:26.386593 24646 net.cpp:156] Memory required for data: 1292125728
I0403 21:54:26.386608 24646 layer_factory.hpp:77] Creating layer inception_5a/1x1
I0403 21:54:26.386631 24646 net.cpp:91] Creating Layer inception_5a/1x1
I0403 21:54:26.386648 24646 net.cpp:425] inception_5a/1x1 <- pool4/3x3_s2_pool4/3x3_s2_0_split_0
I0403 21:54:26.386670 24646 net.cpp:399] inception_5a/1x1 -> inception_5a/1x1
I0403 21:54:26.389556 24646 net.cpp:141] Setting up inception_5a/1x1
I0403 21:54:26.389586 24646 net.cpp:148] Top shape: 24 256 7 7 (301056)
I0403 21:54:26.389602 24646 net.cpp:156] Memory required for data: 1293329952
I0403 21:54:26.389621 24646 layer_factory.hpp:77] Creating layer inception_5a/relu_1x1
I0403 21:54:26.389642 24646 net.cpp:91] Creating Layer inception_5a/relu_1x1
I0403 21:54:26.389660 24646 net.cpp:425] inception_5a/relu_1x1 <- inception_5a/1x1
I0403 21:54:26.389678 24646 net.cpp:386] inception_5a/relu_1x1 -> inception_5a/1x1 (in-place)
I0403 21:54:26.389991 24646 net.cpp:141] Setting up inception_5a/relu_1x1
I0403 21:54:26.390018 24646 net.cpp:148] Top shape: 24 256 7 7 (301056)
I0403 21:54:26.390034 24646 net.cpp:156] Memory required for data: 1294534176
I0403 21:54:26.390050 24646 layer_factory.hpp:77] Creating layer inception_5a/3x3_reduce
I0403 21:54:26.390074 24646 net.cpp:91] Creating Layer inception_5a/3x3_reduce
I0403 21:54:26.390091 24646 net.cpp:425] inception_5a/3x3_reduce <- pool4/3x3_s2_pool4/3x3_s2_0_split_1
I0403 21:54:26.390113 24646 net.cpp:399] inception_5a/3x3_reduce -> inception_5a/3x3_reduce
I0403 21:54:26.392613 24646 net.cpp:141] Setting up inception_5a/3x3_reduce
I0403 21:54:26.392643 24646 net.cpp:148] Top shape: 24 160 7 7 (188160)
I0403 21:54:26.392659 24646 net.cpp:156] Memory required for data: 1295286816
I0403 21:54:26.392678 24646 layer_factory.hpp:77] Creating layer inception_5a/relu_3x3_reduce
I0403 21:54:26.392696 24646 net.cpp:91] Creating Layer inception_5a/relu_3x3_reduce
I0403 21:54:26.392714 24646 net.cpp:425] inception_5a/relu_3x3_reduce <- inception_5a/3x3_reduce
I0403 21:54:26.392735 24646 net.cpp:386] inception_5a/relu_3x3_reduce -> inception_5a/3x3_reduce (in-place)
I0403 21:54:26.392925 24646 net.cpp:141] Setting up inception_5a/relu_3x3_reduce
I0403 21:54:26.392951 24646 net.cpp:148] Top shape: 24 160 7 7 (188160)
I0403 21:54:26.392966 24646 net.cpp:156] Memory required for data: 1296039456
I0403 21:54:26.392982 24646 layer_factory.hpp:77] Creating layer inception_5a/3x3
I0403 21:54:26.393003 24646 net.cpp:91] Creating Layer inception_5a/3x3
I0403 21:54:26.393023 24646 net.cpp:425] inception_5a/3x3 <- inception_5a/3x3_reduce
I0403 21:54:26.393045 24646 net.cpp:399] inception_5a/3x3 -> inception_5a/3x3
I0403 21:54:26.398130 24646 net.cpp:141] Setting up inception_5a/3x3
I0403 21:54:26.398161 24646 net.cpp:148] Top shape: 24 320 7 7 (376320)
I0403 21:54:26.398178 24646 net.cpp:156] Memory required for data: 1297544736
I0403 21:54:26.398207 24646 layer_factory.hpp:77] Creating layer inception_5a/relu_3x3
I0403 21:54:26.398233 24646 net.cpp:91] Creating Layer inception_5a/relu_3x3
I0403 21:54:26.398252 24646 net.cpp:425] inception_5a/relu_3x3 <- inception_5a/3x3
I0403 21:54:26.398269 24646 net.cpp:386] inception_5a/relu_3x3 -> inception_5a/3x3 (in-place)
I0403 21:54:26.398569 24646 net.cpp:141] Setting up inception_5a/relu_3x3
I0403 21:54:26.398597 24646 net.cpp:148] Top shape: 24 320 7 7 (376320)
I0403 21:54:26.398614 24646 net.cpp:156] Memory required for data: 1299050016
I0403 21:54:26.398629 24646 layer_factory.hpp:77] Creating layer inception_5a/5x5_reduce
I0403 21:54:26.398653 24646 net.cpp:91] Creating Layer inception_5a/5x5_reduce
I0403 21:54:26.398671 24646 net.cpp:425] inception_5a/5x5_reduce <- pool4/3x3_s2_pool4/3x3_s2_0_split_2
I0403 21:54:26.398694 24646 net.cpp:399] inception_5a/5x5_reduce -> inception_5a/5x5_reduce
I0403 21:54:26.399879 24646 net.cpp:141] Setting up inception_5a/5x5_reduce
I0403 21:54:26.399910 24646 net.cpp:148] Top shape: 24 32 7 7 (37632)
I0403 21:54:26.399929 24646 net.cpp:156] Memory required for data: 1299200544
I0403 21:54:26.399947 24646 layer_factory.hpp:77] Creating layer inception_5a/relu_5x5_reduce
I0403 21:54:26.399966 24646 net.cpp:91] Creating Layer inception_5a/relu_5x5_reduce
I0403 21:54:26.399982 24646 net.cpp:425] inception_5a/relu_5x5_reduce <- inception_5a/5x5_reduce
I0403 21:54:26.400002 24646 net.cpp:386] inception_5a/relu_5x5_reduce -> inception_5a/5x5_reduce (in-place)
I0403 21:54:26.400310 24646 net.cpp:141] Setting up inception_5a/relu_5x5_reduce
I0403 21:54:26.400339 24646 net.cpp:148] Top shape: 24 32 7 7 (37632)
I0403 21:54:26.400355 24646 net.cpp:156] Memory required for data: 1299351072
I0403 21:54:26.400372 24646 layer_factory.hpp:77] Creating layer inception_5a/5x5
I0403 21:54:26.400394 24646 net.cpp:91] Creating Layer inception_5a/5x5
I0403 21:54:26.400413 24646 net.cpp:425] inception_5a/5x5 <- inception_5a/5x5_reduce
I0403 21:54:26.400434 24646 net.cpp:399] inception_5a/5x5 -> inception_5a/5x5
I0403 21:54:26.402165 24646 net.cpp:141] Setting up inception_5a/5x5
I0403 21:54:26.402207 24646 net.cpp:148] Top shape: 24 128 7 7 (150528)
I0403 21:54:26.402225 24646 net.cpp:156] Memory required for data: 1299953184
I0403 21:54:26.402243 24646 layer_factory.hpp:77] Creating layer inception_5a/relu_5x5
I0403 21:54:26.402264 24646 net.cpp:91] Creating Layer inception_5a/relu_5x5
I0403 21:54:26.402282 24646 net.cpp:425] inception_5a/relu_5x5 <- inception_5a/5x5
I0403 21:54:26.402300 24646 net.cpp:386] inception_5a/relu_5x5 -> inception_5a/5x5 (in-place)
I0403 21:54:26.402487 24646 net.cpp:141] Setting up inception_5a/relu_5x5
I0403 21:54:26.402514 24646 net.cpp:148] Top shape: 24 128 7 7 (150528)
I0403 21:54:26.402530 24646 net.cpp:156] Memory required for data: 1300555296
I0403 21:54:26.402546 24646 layer_factory.hpp:77] Creating layer inception_5a/pool
I0403 21:54:26.402564 24646 net.cpp:91] Creating Layer inception_5a/pool
I0403 21:54:26.402580 24646 net.cpp:425] inception_5a/pool <- pool4/3x3_s2_pool4/3x3_s2_0_split_3
I0403 21:54:26.402601 24646 net.cpp:399] inception_5a/pool -> inception_5a/pool
I0403 21:54:26.402669 24646 net.cpp:141] Setting up inception_5a/pool
I0403 21:54:26.402693 24646 net.cpp:148] Top shape: 24 832 7 7 (978432)
I0403 21:54:26.402709 24646 net.cpp:156] Memory required for data: 1304469024
I0403 21:54:26.402724 24646 layer_factory.hpp:77] Creating layer inception_5a/pool_proj
I0403 21:54:26.402745 24646 net.cpp:91] Creating Layer inception_5a/pool_proj
I0403 21:54:26.402763 24646 net.cpp:425] inception_5a/pool_proj <- inception_5a/pool
I0403 21:54:26.402784 24646 net.cpp:399] inception_5a/pool_proj -> inception_5a/pool_proj
I0403 21:54:26.405025 24646 net.cpp:141] Setting up inception_5a/pool_proj
I0403 21:54:26.405053 24646 net.cpp:148] Top shape: 24 128 7 7 (150528)
I0403 21:54:26.405069 24646 net.cpp:156] Memory required for data: 1305071136
I0403 21:54:26.405088 24646 layer_factory.hpp:77] Creating layer inception_5a/relu_pool_proj
I0403 21:54:26.405107 24646 net.cpp:91] Creating Layer inception_5a/relu_pool_proj
I0403 21:54:26.405125 24646 net.cpp:425] inception_5a/relu_pool_proj <- inception_5a/pool_proj
I0403 21:54:26.405143 24646 net.cpp:386] inception_5a/relu_pool_proj -> inception_5a/pool_proj (in-place)
I0403 21:54:26.405432 24646 net.cpp:141] Setting up inception_5a/relu_pool_proj
I0403 21:54:26.405459 24646 net.cpp:148] Top shape: 24 128 7 7 (150528)
I0403 21:54:26.405474 24646 net.cpp:156] Memory required for data: 1305673248
I0403 21:54:26.405490 24646 layer_factory.hpp:77] Creating layer inception_5a/output
I0403 21:54:26.405508 24646 net.cpp:91] Creating Layer inception_5a/output
I0403 21:54:26.405527 24646 net.cpp:425] inception_5a/output <- inception_5a/1x1
I0403 21:54:26.405544 24646 net.cpp:425] inception_5a/output <- inception_5a/3x3
I0403 21:54:26.405560 24646 net.cpp:425] inception_5a/output <- inception_5a/5x5
I0403 21:54:26.405576 24646 net.cpp:425] inception_5a/output <- inception_5a/pool_proj
I0403 21:54:26.405594 24646 net.cpp:399] inception_5a/output -> inception_5a/output
I0403 21:54:26.405643 24646 net.cpp:141] Setting up inception_5a/output
I0403 21:54:26.405669 24646 net.cpp:148] Top shape: 24 832 7 7 (978432)
I0403 21:54:26.405685 24646 net.cpp:156] Memory required for data: 1309586976
I0403 21:54:26.405700 24646 layer_factory.hpp:77] Creating layer inception_5a/output_inception_5a/output_0_split
I0403 21:54:26.405717 24646 net.cpp:91] Creating Layer inception_5a/output_inception_5a/output_0_split
I0403 21:54:26.405732 24646 net.cpp:425] inception_5a/output_inception_5a/output_0_split <- inception_5a/output
I0403 21:54:26.405753 24646 net.cpp:399] inception_5a/output_inception_5a/output_0_split -> inception_5a/output_inception_5a/output_0_split_0
I0403 21:54:26.405774 24646 net.cpp:399] inception_5a/output_inception_5a/output_0_split -> inception_5a/output_inception_5a/output_0_split_1
I0403 21:54:26.405797 24646 net.cpp:399] inception_5a/output_inception_5a/output_0_split -> inception_5a/output_inception_5a/output_0_split_2
I0403 21:54:26.405817 24646 net.cpp:399] inception_5a/output_inception_5a/output_0_split -> inception_5a/output_inception_5a/output_0_split_3
I0403 21:54:26.405925 24646 net.cpp:141] Setting up inception_5a/output_inception_5a/output_0_split
I0403 21:54:26.405952 24646 net.cpp:148] Top shape: 24 832 7 7 (978432)
I0403 21:54:26.405971 24646 net.cpp:148] Top shape: 24 832 7 7 (978432)
I0403 21:54:26.405985 24646 net.cpp:148] Top shape: 24 832 7 7 (978432)
I0403 21:54:26.406002 24646 net.cpp:148] Top shape: 24 832 7 7 (978432)
I0403 21:54:26.406014 24646 net.cpp:156] Memory required for data: 1325241888
I0403 21:54:26.406029 24646 layer_factory.hpp:77] Creating layer inception_5b/1x1
I0403 21:54:26.406050 24646 net.cpp:91] Creating Layer inception_5b/1x1
I0403 21:54:26.406067 24646 net.cpp:425] inception_5b/1x1 <- inception_5a/output_inception_5a/output_0_split_0
I0403 21:54:26.406087 24646 net.cpp:399] inception_5b/1x1 -> inception_5b/1x1
I0403 21:54:26.409788 24646 net.cpp:141] Setting up inception_5b/1x1
I0403 21:54:26.409818 24646 net.cpp:148] Top shape: 24 384 7 7 (451584)
I0403 21:54:26.409833 24646 net.cpp:156] Memory required for data: 1327048224
I0403 21:54:26.409852 24646 layer_factory.hpp:77] Creating layer inception_5b/relu_1x1
I0403 21:54:26.409871 24646 net.cpp:91] Creating Layer inception_5b/relu_1x1
I0403 21:54:26.409888 24646 net.cpp:425] inception_5b/relu_1x1 <- inception_5b/1x1
I0403 21:54:26.409909 24646 net.cpp:386] inception_5b/relu_1x1 -> inception_5b/1x1 (in-place)
I0403 21:54:26.410212 24646 net.cpp:141] Setting up inception_5b/relu_1x1
I0403 21:54:26.410238 24646 net.cpp:148] Top shape: 24 384 7 7 (451584)
I0403 21:54:26.410254 24646 net.cpp:156] Memory required for data: 1328854560
I0403 21:54:26.410270 24646 layer_factory.hpp:77] Creating layer inception_5b/3x3_reduce
I0403 21:54:26.410291 24646 net.cpp:91] Creating Layer inception_5b/3x3_reduce
I0403 21:54:26.410310 24646 net.cpp:425] inception_5b/3x3_reduce <- inception_5a/output_inception_5a/output_0_split_1
I0403 21:54:26.410332 24646 net.cpp:399] inception_5b/3x3_reduce -> inception_5b/3x3_reduce
I0403 21:54:26.412966 24646 net.cpp:141] Setting up inception_5b/3x3_reduce
I0403 21:54:26.412997 24646 net.cpp:148] Top shape: 24 192 7 7 (225792)
I0403 21:54:26.413015 24646 net.cpp:156] Memory required for data: 1329757728
I0403 21:54:26.413034 24646 layer_factory.hpp:77] Creating layer inception_5b/relu_3x3_reduce
I0403 21:54:26.413054 24646 net.cpp:91] Creating Layer inception_5b/relu_3x3_reduce
I0403 21:54:26.413071 24646 net.cpp:425] inception_5b/relu_3x3_reduce <- inception_5b/3x3_reduce
I0403 21:54:26.413089 24646 net.cpp:386] inception_5b/relu_3x3_reduce -> inception_5b/3x3_reduce (in-place)
I0403 21:54:26.413277 24646 net.cpp:141] Setting up inception_5b/relu_3x3_reduce
I0403 21:54:26.413303 24646 net.cpp:148] Top shape: 24 192 7 7 (225792)
I0403 21:54:26.413319 24646 net.cpp:156] Memory required for data: 1330660896
I0403 21:54:26.413334 24646 layer_factory.hpp:77] Creating layer inception_5b/3x3
I0403 21:54:26.413357 24646 net.cpp:91] Creating Layer inception_5b/3x3
I0403 21:54:26.413375 24646 net.cpp:425] inception_5b/3x3 <- inception_5b/3x3_reduce
I0403 21:54:26.413394 24646 net.cpp:399] inception_5b/3x3 -> inception_5b/3x3
I0403 21:54:26.420001 24646 net.cpp:141] Setting up inception_5b/3x3
I0403 21:54:26.420032 24646 net.cpp:148] Top shape: 24 384 7 7 (451584)
I0403 21:54:26.420047 24646 net.cpp:156] Memory required for data: 1332467232
I0403 21:54:26.420065 24646 layer_factory.hpp:77] Creating layer inception_5b/relu_3x3
I0403 21:54:26.420088 24646 net.cpp:91] Creating Layer inception_5b/relu_3x3
I0403 21:54:26.420104 24646 net.cpp:425] inception_5b/relu_3x3 <- inception_5b/3x3
I0403 21:54:26.420122 24646 net.cpp:386] inception_5b/relu_3x3 -> inception_5b/3x3 (in-place)
I0403 21:54:26.420418 24646 net.cpp:141] Setting up inception_5b/relu_3x3
I0403 21:54:26.420445 24646 net.cpp:148] Top shape: 24 384 7 7 (451584)
I0403 21:54:26.420461 24646 net.cpp:156] Memory required for data: 1334273568
I0403 21:54:26.420475 24646 layer_factory.hpp:77] Creating layer inception_5b/5x5_reduce
I0403 21:54:26.420512 24646 net.cpp:91] Creating Layer inception_5b/5x5_reduce
I0403 21:54:26.420532 24646 net.cpp:425] inception_5b/5x5_reduce <- inception_5a/output_inception_5a/output_0_split_2
I0403 21:54:26.420554 24646 net.cpp:399] inception_5b/5x5_reduce -> inception_5b/5x5_reduce
I0403 21:54:26.421802 24646 net.cpp:141] Setting up inception_5b/5x5_reduce
I0403 21:54:26.421829 24646 net.cpp:148] Top shape: 24 48 7 7 (56448)
I0403 21:54:26.421845 24646 net.cpp:156] Memory required for data: 1334499360
I0403 21:54:26.421864 24646 layer_factory.hpp:77] Creating layer inception_5b/relu_5x5_reduce
I0403 21:54:26.421885 24646 net.cpp:91] Creating Layer inception_5b/relu_5x5_reduce
I0403 21:54:26.421902 24646 net.cpp:425] inception_5b/relu_5x5_reduce <- inception_5b/5x5_reduce
I0403 21:54:26.421921 24646 net.cpp:386] inception_5b/relu_5x5_reduce -> inception_5b/5x5_reduce (in-place)
I0403 21:54:26.422288 24646 net.cpp:141] Setting up inception_5b/relu_5x5_reduce
I0403 21:54:26.422315 24646 net.cpp:148] Top shape: 24 48 7 7 (56448)
I0403 21:54:26.422330 24646 net.cpp:156] Memory required for data: 1334725152
I0403 21:54:26.422346 24646 layer_factory.hpp:77] Creating layer inception_5b/5x5
I0403 21:54:26.422366 24646 net.cpp:91] Creating Layer inception_5b/5x5
I0403 21:54:26.422384 24646 net.cpp:425] inception_5b/5x5 <- inception_5b/5x5_reduce
I0403 21:54:26.422402 24646 net.cpp:399] inception_5b/5x5 -> inception_5b/5x5
I0403 21:54:26.424407 24646 net.cpp:141] Setting up inception_5b/5x5
I0403 21:54:26.424434 24646 net.cpp:148] Top shape: 24 128 7 7 (150528)
I0403 21:54:26.424450 24646 net.cpp:156] Memory required for data: 1335327264
I0403 21:54:26.424468 24646 layer_factory.hpp:77] Creating layer inception_5b/relu_5x5
I0403 21:54:26.424489 24646 net.cpp:91] Creating Layer inception_5b/relu_5x5
I0403 21:54:26.424506 24646 net.cpp:425] inception_5b/relu_5x5 <- inception_5b/5x5
I0403 21:54:26.424525 24646 net.cpp:386] inception_5b/relu_5x5 -> inception_5b/5x5 (in-place)
I0403 21:54:26.424715 24646 net.cpp:141] Setting up inception_5b/relu_5x5
I0403 21:54:26.424743 24646 net.cpp:148] Top shape: 24 128 7 7 (150528)
I0403 21:54:26.424759 24646 net.cpp:156] Memory required for data: 1335929376
I0403 21:54:26.424775 24646 layer_factory.hpp:77] Creating layer inception_5b/pool
I0403 21:54:26.424793 24646 net.cpp:91] Creating Layer inception_5b/pool
I0403 21:54:26.424808 24646 net.cpp:425] inception_5b/pool <- inception_5a/output_inception_5a/output_0_split_3
I0403 21:54:26.424829 24646 net.cpp:399] inception_5b/pool -> inception_5b/pool
I0403 21:54:26.424901 24646 net.cpp:141] Setting up inception_5b/pool
I0403 21:54:26.424924 24646 net.cpp:148] Top shape: 24 832 7 7 (978432)
I0403 21:54:26.424939 24646 net.cpp:156] Memory required for data: 1339843104
I0403 21:54:26.424957 24646 layer_factory.hpp:77] Creating layer inception_5b/pool_proj
I0403 21:54:26.424978 24646 net.cpp:91] Creating Layer inception_5b/pool_proj
I0403 21:54:26.424995 24646 net.cpp:425] inception_5b/pool_proj <- inception_5b/pool
I0403 21:54:26.425016 24646 net.cpp:399] inception_5b/pool_proj -> inception_5b/pool_proj
I0403 21:54:26.427330 24646 net.cpp:141] Setting up inception_5b/pool_proj
I0403 21:54:26.427359 24646 net.cpp:148] Top shape: 24 128 7 7 (150528)
I0403 21:54:26.427376 24646 net.cpp:156] Memory required for data: 1340445216
I0403 21:54:26.427394 24646 layer_factory.hpp:77] Creating layer inception_5b/relu_pool_proj
I0403 21:54:26.427415 24646 net.cpp:91] Creating Layer inception_5b/relu_pool_proj
I0403 21:54:26.427433 24646 net.cpp:425] inception_5b/relu_pool_proj <- inception_5b/pool_proj
I0403 21:54:26.427451 24646 net.cpp:386] inception_5b/relu_pool_proj -> inception_5b/pool_proj (in-place)
I0403 21:54:26.427749 24646 net.cpp:141] Setting up inception_5b/relu_pool_proj
I0403 21:54:26.427777 24646 net.cpp:148] Top shape: 24 128 7 7 (150528)
I0403 21:54:26.427790 24646 net.cpp:156] Memory required for data: 1341047328
I0403 21:54:26.427805 24646 layer_factory.hpp:77] Creating layer inception_5b/output
I0403 21:54:26.427822 24646 net.cpp:91] Creating Layer inception_5b/output
I0403 21:54:26.427852 24646 net.cpp:425] inception_5b/output <- inception_5b/1x1
I0403 21:54:26.427871 24646 net.cpp:425] inception_5b/output <- inception_5b/3x3
I0403 21:54:26.427889 24646 net.cpp:425] inception_5b/output <- inception_5b/5x5
I0403 21:54:26.427906 24646 net.cpp:425] inception_5b/output <- inception_5b/pool_proj
I0403 21:54:26.427925 24646 net.cpp:399] inception_5b/output -> inception_5b/output
I0403 21:54:26.427980 24646 net.cpp:141] Setting up inception_5b/output
I0403 21:54:26.428004 24646 net.cpp:148] Top shape: 24 1024 7 7 (1204224)
I0403 21:54:26.428020 24646 net.cpp:156] Memory required for data: 1345864224
I0403 21:54:26.428035 24646 layer_factory.hpp:77] Creating layer pool5/7x7_s1
I0403 21:54:26.428050 24646 net.cpp:91] Creating Layer pool5/7x7_s1
I0403 21:54:26.428066 24646 net.cpp:425] pool5/7x7_s1 <- inception_5b/output
I0403 21:54:26.428086 24646 net.cpp:399] pool5/7x7_s1 -> pool5/7x7_s1
I0403 21:54:26.428311 24646 net.cpp:141] Setting up pool5/7x7_s1
I0403 21:54:26.428338 24646 net.cpp:148] Top shape: 24 1024 1 1 (24576)
I0403 21:54:26.428354 24646 net.cpp:156] Memory required for data: 1345962528
I0403 21:54:26.428369 24646 layer_factory.hpp:77] Creating layer pool5/drop_7x7_s1
I0403 21:54:26.428388 24646 net.cpp:91] Creating Layer pool5/drop_7x7_s1
I0403 21:54:26.428405 24646 net.cpp:425] pool5/drop_7x7_s1 <- pool5/7x7_s1
I0403 21:54:26.428421 24646 net.cpp:386] pool5/drop_7x7_s1 -> pool5/7x7_s1 (in-place)
I0403 21:54:26.428473 24646 net.cpp:141] Setting up pool5/drop_7x7_s1
I0403 21:54:26.428498 24646 net.cpp:148] Top shape: 24 1024 1 1 (24576)
I0403 21:54:26.428511 24646 net.cpp:156] Memory required for data: 1346060832
I0403 21:54:26.428526 24646 layer_factory.hpp:77] Creating layer loss3/classifier_plantvillage
I0403 21:54:26.428544 24646 net.cpp:91] Creating Layer loss3/classifier_plantvillage
I0403 21:54:26.428560 24646 net.cpp:425] loss3/classifier_plantvillage <- pool5/7x7_s1
I0403 21:54:26.428581 24646 net.cpp:399] loss3/classifier_plantvillage -> loss3/classifier_plantvillage
I0403 21:54:26.429002 24646 net.cpp:141] Setting up loss3/classifier_plantvillage
I0403 21:54:26.429026 24646 net.cpp:148] Top shape: 24 38 (912)
I0403 21:54:26.429041 24646 net.cpp:156] Memory required for data: 1346064480
I0403 21:54:26.429059 24646 layer_factory.hpp:77] Creating layer loss3/classifier_plantvillage_loss3/classifier_plantvillage_0_split
I0403 21:54:26.429076 24646 net.cpp:91] Creating Layer loss3/classifier_plantvillage_loss3/classifier_plantvillage_0_split
I0403 21:54:26.429092 24646 net.cpp:425] loss3/classifier_plantvillage_loss3/classifier_plantvillage_0_split <- loss3/classifier_plantvillage
I0403 21:54:26.429116 24646 net.cpp:399] loss3/classifier_plantvillage_loss3/classifier_plantvillage_0_split -> loss3/classifier_plantvillage_loss3/classifier_plantvillage_0_split_0
I0403 21:54:26.429137 24646 net.cpp:399] loss3/classifier_plantvillage_loss3/classifier_plantvillage_0_split -> loss3/classifier_plantvillage_loss3/classifier_plantvillage_0_split_1
I0403 21:54:26.429158 24646 net.cpp:399] loss3/classifier_plantvillage_loss3/classifier_plantvillage_0_split -> loss3/classifier_plantvillage_loss3/classifier_plantvillage_0_split_2
I0403 21:54:26.429178 24646 net.cpp:399] loss3/classifier_plantvillage_loss3/classifier_plantvillage_0_split -> loss3/classifier_plantvillage_loss3/classifier_plantvillage_0_split_3
I0403 21:54:26.429280 24646 net.cpp:141] Setting up loss3/classifier_plantvillage_loss3/classifier_plantvillage_0_split
I0403 21:54:26.429304 24646 net.cpp:148] Top shape: 24 38 (912)
I0403 21:54:26.429321 24646 net.cpp:148] Top shape: 24 38 (912)
I0403 21:54:26.429337 24646 net.cpp:148] Top shape: 24 38 (912)
I0403 21:54:26.429352 24646 net.cpp:148] Top shape: 24 38 (912)
I0403 21:54:26.429365 24646 net.cpp:156] Memory required for data: 1346079072
I0403 21:54:26.429379 24646 layer_factory.hpp:77] Creating layer loss1/loss
I0403 21:54:26.429401 24646 net.cpp:91] Creating Layer loss1/loss
I0403 21:54:26.429419 24646 net.cpp:425] loss1/loss <- loss1/classifier_plantvillage_loss1/classifier_plantvillage_0_split_0
I0403 21:54:26.429450 24646 net.cpp:425] loss1/loss <- label_data_1_split_0
…
