…
I0403 21:47:59.168999 24282 net.cpp:313] The NetState phase (1) differed from the phase (0) specified by a rule in layer data
I0403 21:47:59.170195 24282 net.cpp:49] Initializing net from parameters: 
state {
  phase: TEST
}
layer {
  name: "data"
  type: "Data"
  top: "data"
  top: "label"
  include {
    phase: TEST
  }
  transform_param {
    mirror: false
    crop_size: 224
    mean_file: "/home/mohanty/data/final_dataset/lmdb/segmented-80-20/mean.binaryproto"
  }
  data_param {
    source: "/home/mohanty/data/final_dataset/lmdb/segmented-80-20/test_db"
    batch_size: 24
    backend: LMDB
  }
}
layer {
  name: "conv1/7x7_s2"
  type: "Convolution"
  bottom: "data"
  top: "conv1/7x7_s2"
  param {
    lr_mult: 1
    decay_mult: 1
  }
  param {
    lr_mult: 2
    decay_mult: 0
  }
  convolution_param {
    num_output: 64
    pad: 3
    kernel_size: 7
    stride: 2
    weight_filler {
      type: "xavier"
      std: 0.1
    }
    bias_filler {
      type: "constant"
      value: 0.2
    }
  }
}
layer {
  name: "conv1/relu_7x7"
  type: "ReLU"
  bottom: "conv1/7x7_s2"
  top: "conv1/7x7_s2"
}
layer {
  name: "pool1/3x3_s2"
  type: "Pooling"
  bottom: "conv1/7x7_s2"
  top: "pool1/3x3_s2"
  pooling_param {
    pool: MAX
    kernel_size: 3
    stride: 2
  }
}
layer {
  name: "pool1/norm1"
  type: "LRN"
  bottom: "pool1/3x3_s2"
  top: "pool1/norm1"
  lrn_param {
    local_size: 5
    alpha: 0.0001
    beta: 0.75
  }
}
layer {
  name: "conv2/3x3_reduce"
  type: "Convolution"
  bottom: "pool1/norm1"
  top: "conv2/3x3_reduce"
  param {
    lr_mult: 1
    decay_mult: 1
  }
  param {
    lr_mult: 2
    decay_mult: 0
  }
  convolution_param {
    num_output: 64
    kernel_size: 1
    weight_filler {
      type: "xavier"
      std: 0.1
    }
    bias_filler {
      type: "constant"
      value: 0.2
    }
  }
}
layer {
  name: "conv2/relu_3x3_reduce"
  type: "ReLU"
  bottom: "conv2/3x3_reduce"
  top: "conv2/3x3_reduce"
}
layer {
  name: "conv2/3x3"
  type: "Convolution"
  bottom: "conv2/3x3_reduce"
  top: "conv2/3x3"
  param {
    lr_mult: 1
    decay_mult: 1
  }
  param {
    lr_mult: 2
    decay_mult: 0
  }
  convolution_param {
    num_output: 192
    pad: 1
    kernel_size: 3
    weight_filler {
      type: "xavier"
      std: 0.03
    }
    bias_filler {
      type: "constant"
      value: 0.2
    }
  }
}
layer {
  name: "conv2/relu_3x3"
  type: "ReLU"
  bottom: "conv2/3x3"
  top: "conv2/3x3"
}
layer {
  name: "conv2/norm2"
  type: "LRN"
  bottom: "conv2/3x3"
  top: "conv2/norm2"
  lrn_param {
    local_size: 5
    alpha: 0.0001
    beta: 0.75
  }
}
layer {
  name: "pool2/3x3_s2"
  type: "Pooling"
  bottom: "conv2/norm2"
  top: "pool2/3x3_s2"
  pooling_param {
    pool: MAX
    kernel_size: 3
    stride: 2
  }
}
layer {
  name: "inception_3a/1x1"
  type: "Convolution"
  bottom: "pool2/3x3_s2"
  top: "inception_3a/1x1"
  param {
    lr_mult: 1
    decay_mult: 1
  }
  param {
    lr_mult: 2
    decay_mult: 0
  }
  convolution_param {
    num_output: 64
    kernel_size: 1
    weight_filler {
      type: "xavier"
      std: 0.03
    }
    bias_filler {
      type: "constant"
      value: 0.2
    }
  }
}
layer {
  name: "inception_3a/relu_1x1"
  type: "ReLU"
  bottom: "inception_3a/1x1"
  top: "inception_3a/1x1"
}
layer {
  name: "inception_3a/3x3_reduce"
  type: "Convolution"
  bottom: "pool2/3x3_s2"
  top: "inception_3a/3x3_reduce"
  param {
    lr_mult: 1
    decay_mult: 1
  }
  param {
    lr_mult: 2
    decay_mult: 0
  }
  convolution_param {
    num_output: 96
    kernel_size: 1
    weight_filler {
      type: "xavier"
      std: 0.09
    }
    bias_filler {
      type: "constant"
      value: 0.2
    }
  }
}
layer {
  name: "inception_3a/relu_3x3_reduce"
  type: "ReLU"
  bottom: "inception_3a/3x3_reduce"
  top: "inception_3a/3x3_reduce"
}
layer {
  name: "inception_3a/3x3"
  type: "Convolution"
  bottom: "inception_3a/3x3_reduce"
  top: "inception_3a/3x3"
  param {
    lr_mult: 1
    decay_mult: 1
  }
  param {
    lr_mult: 2
    decay_mult: 0
  }
  convolution_param {
    num_output: 128
    pad: 1
    kernel_size: 3
    weight_filler {
      type: "xavier"
      std: 0.03
    }
    bias_filler {
      type: "constant"
      value: 0.2
    }
  }
}
layer {
  name: "inception_3a/relu_3x3"
  type: "ReLU"
  bottom: "inception_3a/3x3"
  top: "inception_3a/3x3"
}
layer {
  name: "inception_3a/5x5_reduce"
  type: "Convolution"
  bottom: "pool2/3x3_s2"
  top: "inception_3a/5x5_reduce"
  param {
    lr_mult: 1
    decay_mult: 1
  }
  param {
    lr_mult: 2
    decay_mult: 0
  }
  convolution_param {
    num_output: 16
    kernel_size: 1
    weight_filler {
      type: "xavier"
      std: 0.2
    }
    bias_filler {
      type: "constant"
      value: 0.2
    }
  }
}
layer {
  name: "inception_3a/relu_5x5_reduce"
  type: "ReLU"
  bottom: "inception_3a/5x5_reduce"
  top: "inception_3a/5x5_reduce"
}
layer {
  name: "inception_3a/5x5"
  type: "Convolution"
  bottom: "inception_3a/5x5_reduce"
  top: "inception_3a/5x5"
  param {
    lr_mult: 1
    decay_mult: 1
  }
  param {
    lr_mult: 2
    decay_mult: 0
  }
  convolution_param {
    num_output: 32
    pad: 2
    kernel_size: 5
    weight_filler {
      type: "xavier"
      std: 0.03
    }
    bias_filler {
      type: "constant"
      value: 0.2
    }
  }
}
layer {
  name: "inception_3a/relu_5x5"
  type: "ReLU"
  bottom: "inception_3a/5x5"
  top: "inception_3a/5x5"
}
layer {
  name: "inception_3a/pool"
  type: "Pooling"
  bottom: "pool2/3x3_s2"
  top: "inception_3a/pool"
  pooling_param {
    pool: MAX
    kernel_size: 3
    stride: 1
    pad: 1
  }
}
layer {
  name: "inception_3a/pool_proj"
  type: "Convolution"
  bottom: "inception_3a/pool"
  top: "inception_3a/pool_proj"
  param {
    lr_mult: 1
    decay_mult: 1
  }
  param {
    lr_mult: 2
    decay_mult: 0
  }
  convolution_param {
    num_output: 32
    kernel_size: 1
    weight_filler {
      type: "xavier"
      std: 0.1
    }
    bias_filler {
      type: "constant"
      value: 0.2
    }
  }
}
layer {
  name: "inception_3a/relu_pool_proj"
  type: "ReLU"
  bottom: "inception_3a/pool_proj"
  top: "inception_3a/pool_proj"
}
layer {
  name: "inception_3a/output"
  type: "Concat"
  bottom: "inception_3a/1x1"
  bottom: "inception_3a/3x3"
  bottom: "inception_3a/5x5"
  bottom: "inception_3a/pool_proj"
  top: "inception_3a/output"
}
layer {
  name: "inception_3b/1x1"
  type: "Convolution"
  bottom: "inception_3a/output"
  top: "inception_3b/1x1"
  param {
    lr_mult: 1
    decay_mult: 1
  }
  param {
    lr_mult: 2
    decay_mult: 0
  }
  convolution_param {
    num_output: 128
    kernel_size: 1
    weight_filler {
      type: "xavier"
      std: 0.03
    }
    bias_filler {
      type: "constant"
      value: 0.2
    }
  }
}
layer {
  name: "inception_3b/relu_1x1"
  type: "ReLU"
  bottom: "inception_3b/1x1"
  top: "inception_3b/1x1"
}
layer {
  name: "inception_3b/3x3_reduce"
  type: "Convolution"
  bottom: "inception_3a/output"
  top: "inception_3b/3x3_reduce"
  param {
    lr_mult: 1
    decay_mult: 1
  }
  param {
    lr_mult: 2
    decay_mult: 0
  }
  convolution_param {
    num_output: 128
    kernel_size: 1
    weight_filler {
      type: "xavier"
      std: 0.09
    }
    bias_filler {
      type: "constant"
      value: 0.2
    }
  }
}
layer {
  name: "inception_3b/relu_3x3_reduce"
  type: "ReLU"
  bottom: "inception_3b/3x3_reduce"
  top: "inception_3b/3x3_reduce"
}
layer {
  name: "inception_3b/3x3"
  type: "Convolution"
  bottom: "inception_3b/3x3_reduce"
  top: "inception_3b/3x3"
  param {
    lr_mult: 1
    decay_mult: 1
  }
  param {
    lr_mult: 2
    decay_mult: 0
  }
  convolution_param {
    num_output: 192
    pad: 1
    kernel_size: 3
    weight_filler {
      type: "xavier"
      std: 0.03
    }
    bias_filler {
      type: "constant"
      value: 0.2
    }
  }
}
layer {
  name: "inception_3b/relu_3x3"
  type: "ReLU"
  bottom: "inception_3b/3x3"
  top: "inception_3b/3x3"
}
layer {
  name: "inception_3b/5x5_reduce"
  type: "Convolution"
  bottom: "inception_3a/output"
  top: "inception_3b/5x5_reduce"
  param {
    lr_mult: 1
    decay_mult: 1
  }
  param {
    lr_mult: 2
    decay_mult: 0
  }
  convolution_param {
    num_output: 32
    kernel_size: 1
    weight_filler {
      type: "xavier"
      std: 0.2
    }
    bias_filler {
      type: "constant"
      value: 0.2
    }
  }
}
layer {
  name: "inception_3b/relu_5x5_reduce"
  type: "ReLU"
  bottom: "inception_3b/5x5_reduce"
  top: "inception_3b/5x5_reduce"
}
layer {
  name: "inception_3b/5x5"
  type: "Convolution"
  bottom: "inception_3b/5x5_reduce"
  top: "inception_3b/5x5"
  param {
    lr_mult: 1
    decay_mult: 1
  }
  param {
    lr_mult: 2
    decay_mult: 0
  }
  convolution_param {
    num_output: 96
    pad: 2
    kernel_size: 5
    weight_filler {
      type: "xavier"
      std: 0.03
    }
    bias_filler {
      type: "constant"
      value: 0.2
    }
  }
}
layer {
  name: "inception_3b/relu_5x5"
  type: "ReLU"
  bottom: "inception_3b/5x5"
  top: "inception_3b/5x5"
}
layer {
  name: "inception_3b/pool"
  type: "Pooling"
  bottom: "inception_3a/output"
  top: "inception_3b/pool"
  pooling_param {
    pool: MAX
    kernel_size: 3
    stride: 1
    pad: 1
  }
}
layer {
  name: "inception_3b/pool_proj"
  type: "Convolution"
  bottom: "inception_3b/pool"
  top: "inception_3b/pool_proj"
  param {
    lr_mult: 1
    decay_mult: 1
  }
  param {
    lr_mult: 2
    decay_mult: 0
  }
  convolution_param {
    num_output: 64
    kernel_size: 1
    weight_filler {
      type: "xavier"
      std: 0.1
    }
    bias_filler {
      type: "constant"
      value: 0.2
    }
  }
}
layer {
  name: "inception_3b/relu_pool_proj"
  type: "ReLU"
  bottom: "inception_3b/pool_proj"
  top: "inception_3b/pool_proj"
}
layer {
  name: "inception_3b/output"
  type: "Concat"
  bottom: "inception_3b/1x1"
  bottom: "inception_3b/3x3"
  bottom: "inception_3b/5x5"
  bottom: "inception_3b/pool_proj"
  top: "inception_3b/output"
}
layer {
  name: "pool3/3x3_s2"
  type: "Pooling"
  bottom: "inception_3b/output"
  top: "pool3/3x3_s2"
  pooling_param {
    pool: MAX
    kernel_size: 3
    stride: 2
  }
}
layer {
  name: "inception_4a/1x1"
  type: "Convolution"
  bottom: "pool3/3x3_s2"
  top: "inception_4a/1x1"
  param {
    lr_mult: 1
    decay_mult: 1
  }
  param {
    lr_mult: 2
    decay_mult: 0
  }
  convolution_param {
    num_output: 192
    kernel_size: 1
    weight_filler {
      type: "xavier"
      std: 0.03
    }
    bias_filler {
      type: "constant"
      value: 0.2
    }
  }
}
layer {
  name: "inception_4a/relu_1x1"
  type: "ReLU"
  bottom: "inception_4a/1x1"
  top: "inception_4a/1x1"
}
layer {
  name: "inception_4a/3x3_reduce"
  type: "Convolution"
  bottom: "pool3/3x3_s2"
  top: "inception_4a/3x3_reduce"
  param {
    lr_mult: 1
    decay_mult: 1
  }
  param {
    lr_mult: 2
    decay_mult: 0
  }
  convolution_param {
    num_output: 96
    kernel_size: 1
    weight_filler {
      type: "xavier"
      std: 0.09
    }
    bias_filler {
      type: "constant"
      value: 0.2
    }
  }
}
layer {
  name: "inception_4a/relu_3x3_reduce"
  type: "ReLU"
  bottom: "inception_4a/3x3_reduce"
  top: "inception_4a/3x3_reduce"
}
layer {
  name: "inception_4a/3x3"
  type: "Convolution"
  bottom: "inception_4a/3x3_reduce"
  top: "inception_4a/3x3"
  param {
    lr_mult: 1
    decay_mult: 1
  }
  param {
    lr_mult: 2
    decay_mult: 0
  }
  convolution_param {
    num_output: 208
    pad: 1
    kernel_size: 3
    weight_filler {
      type: "xavier"
      std: 0.03
    }
    bias_filler {
      type: "constant"
      value: 0.2
    }
  }
}
layer {
  name: "inception_4a/relu_3x3"
  type: "ReLU"
  bottom: "inception_4a/3x3"
  top: "inception_4a/3x3"
}
layer {
  name: "inception_4a/5x5_reduce"
  type: "Convolution"
  bottom: "pool3/3x3_s2"
  top: "inception_4a/5x5_reduce"
  param {
    lr_mult: 1
    decay_mult: 1
  }
  param {
    lr_mult: 2
    decay_mult: 0
  }
  convolution_param {
    num_output: 16
    kernel_size: 1
    weight_filler {
      type: "xavier"
      std: 0.2
    }
    bias_filler {
      type: "constant"
      value: 0.2
    }
  }
}
layer {
  name: "inception_4a/relu_5x5_reduce"
  type: "ReLU"
  bottom: "inception_4a/5x5_reduce"
  top: "inception_4a/5x5_reduce"
}
layer {
  name: "inception_4a/5x5"
  type: "Convolution"
  bottom: "inception_4a/5x5_reduce"
  top: "inception_4a/5x5"
  param {
    lr_mult: 1
    decay_mult: 1
  }
  param {
    lr_mult: 2
    decay_mult: 0
  }
  convolution_param {
    num_output: 48
    pad: 2
    kernel_size: 5
    weight_filler {
      type: "xavier"
      std: 0.03
    }
    bias_filler {
      type: "constant"
      value: 0.2
    }
  }
}
layer {
  name: "inception_4a/relu_5x5"
  type: "ReLU"
  bottom: "inception_4a/5x5"
  top: "inception_4a/5x5"
}
layer {
  name: "inception_4a/pool"
  type: "Pooling"
  bottom: "pool3/3x3_s2"
  top: "inception_4a/pool"
  pooling_param {
    pool: MAX
    kernel_size: 3
    stride: 1
    pad: 1
  }
}
layer {
  name: "inception_4a/pool_proj"
  type: "Convolution"
  bottom: "inception_4a/pool"
  top: "inception_4a/pool_proj"
  param {
    lr_mult: 1
    decay_mult: 1
  }
  param {
    lr_mult: 2
    decay_mult: 0
  }
  convolution_param {
    num_output: 64
    kernel_size: 1
    weight_filler {
      type: "xavier"
      std: 0.1
    }
    bias_filler {
      type: "constant"
      value: 0.2
    }
  }
}
layer {
  name: "inception_4a/relu_pool_proj"
  type: "ReLU"
  bottom: "inception_4a/pool_proj"
  top: "inception_4a/pool_proj"
}
layer {
  name: "inception_4a/output"
  type: "Concat"
  bottom: "inception_4a/1x1"
  bottom: "inception_4a/3x3"
  bottom: "inception_4a/5x5"
  bottom: "inception_4a/pool_proj"
  top: "inception_4a/output"
}
layer {
  name: "loss1/ave_pool"
  type: "Pooling"
  bottom: "inception_4a/output"
  top: "loss1/ave_pool"
  pooling_param {
    pool: AVE
    kernel_size: 5
    stride: 3
  }
}
layer {
  name: "loss1/conv"
  type: "Convolution"
  bottom: "loss1/ave_pool"
  top: "loss1/conv"
  param {
    lr_mult: 1
    decay_mult: 1
  }
  param {
    lr_mult: 2
    decay_mult: 0
  }
  convolution_param {
    num_output: 128
    kernel_size: 1
    weight_filler {
      type: "xavier"
      std: 0.08
    }
    bias_filler {
      type: "constant"
      value: 0.2
    }
  }
}
layer {
  name: "loss1/relu_conv"
  type: "ReLU"
  bottom: "loss1/conv"
  top: "loss1/conv"
}
layer {
  name: "loss1/fc"
  type: "InnerProduct"
  bottom: "loss1/conv"
  top: "loss1/fc"
  param {
    lr_mult: 1
    decay_mult: 1
  }
  param {
    lr_mult: 2
    decay_mult: 0
  }
  inner_product_param {
    num_output: 1024
    weight_filler {
      type: "xavier"
      std: 0.02
    }
    bias_filler {
      type: "constant"
      value: 0.2
    }
  }
}
layer {
  name: "loss1/relu_fc"
  type: "ReLU"
  bottom: "loss1/fc"
  top: "loss1/fc"
}
layer {
  name: "loss1/drop_fc"
  type: "Dropout"
  bottom: "loss1/fc"
  top: "loss1/fc"
  dropout_param {
    dropout_ratio: 0.7
  }
}
layer {
  name: "loss1/classifier_plantvillage"
  type: "InnerProduct"
  bottom: "loss1/fc"
  top: "loss1/classifier_plantvillage"
  param {
    lr_mult: 1
    decay_mult: 1
  }
  param {
    lr_mult: 2
    decay_mult: 0
  }
  inner_product_param {
    num_output: 38
    weight_filler {
      type: "xavier"
      std: 0.0009765625
    }
    bias_filler {
      type: "constant"
      value: 0
    }
  }
}
layer {
  name: "inception_4b/1x1"
  type: "Convolution"
  bottom: "inception_4a/output"
  top: "inception_4b/1x1"
  param {
    lr_mult: 1
    decay_mult: 1
  }
  param {
    lr_mult: 2
    decay_mult: 0
  }
  convolution_param {
    num_output: 160
    kernel_size: 1
    weight_filler {
      type: "xavier"
      std: 0.03
    }
    bias_filler {
      type: "constant"
      value: 0.2
    }
  }
}
layer {
  name: "inception_4b/relu_1x1"
  type: "ReLU"
  bottom: "inception_4b/1x1"
  top: "inception_4b/1x1"
}
layer {
  name: "inception_4b/3x3_reduce"
  type: "Convolution"
  bottom: "inception_4a/output"
  top: "inception_4b/3x3_reduce"
  param {
    lr_mult: 1
    decay_mult: 1
  }
  param {
    lr_mult: 2
    decay_mult: 0
  }
  convolution_param {
    num_output: 112
    kernel_size: 1
    weight_filler {
      type: "xavier"
      std: 0.09
    }
    bias_filler {
      type: "constant"
      value: 0.2
    }
  }
}
layer {
  name: "inception_4b/relu_3x3_reduce"
  type: "ReLU"
  bottom: "inception_4b/3x3_reduce"
  top: "inception_4b/3x3_reduce"
}
layer {
  name: "inception_4b/3x3"
  type: "Convolution"
  bottom: "inception_4b/3x3_reduce"
  top: "inception_4b/3x3"
  param {
    lr_mult: 1
    decay_mult: 1
  }
  param {
    lr_mult: 2
    decay_mult: 0
  }
  convolution_param {
    num_output: 224
    pad: 1
    kernel_size: 3
    weight_filler {
      type: "xavier"
      std: 0.03
    }
    bias_filler {
      type: "constant"
      value: 0.2
    }
  }
}
layer {
  name: "inception_4b/relu_3x3"
  type: "ReLU"
  bottom: "inception_4b/3x3"
  top: "inception_4b/3x3"
}
layer {
  name: "inception_4b/5x5_reduce"
  type: "Convolution"
  bottom: "inception_4a/output"
  top: "inception_4b/5x5_reduce"
  param {
    lr_mult: 1
    decay_mult: 1
  }
  param {
    lr_mult: 2
    decay_mult: 0
  }
  convolution_param {
    num_output: 24
    kernel_size: 1
    weight_filler {
      type: "xavier"
      std: 0.2
    }
    bias_filler {
      type: "constant"
      value: 0.2
    }
  }
}
layer {
  name: "inception_4b/relu_5x5_reduce"
  type: "ReLU"
  bottom: "inception_4b/5x5_reduce"
  top: "inception_4b/5x5_reduce"
}
layer {
  name: "inception_4b/5x5"
  type: "Convolution"
  bottom: "inception_4b/5x5_reduce"
  top: "inception_4b/5x5"
  param {
    lr_mult: 1
    decay_mult: 1
  }
  param {
    lr_mult: 2
    decay_mult: 0
  }
  convolution_param {
    num_output: 64
    pad: 2
    kernel_size: 5
    weight_filler {
      type: "xavier"
      std: 0.03
    }
    bias_filler {
      type: "constant"
      value: 0.2
    }
  }
}
layer {
  name: "inception_4b/relu_5x5"
  type: "ReLU"
  bottom: "inception_4b/5x5"
  top: "inception_4b/5x5"
}
layer {
  name: "inception_4b/pool"
  type: "Pooling"
  bottom: "inception_4a/output"
  top: "inception_4b/pool"
  pooling_param {
    pool: MAX
    kernel_size: 3
    stride: 1
    pad: 1
  }
}
layer {
  name: "inception_4b/pool_proj"
  type: "Convolution"
  bottom: "inception_4b/pool"
  top: "inception_4b/pool_proj"
  param {
    lr_mult: 1
    decay_mult: 1
  }
  param {
    lr_mult: 2
    decay_mult: 0
  }
  convolution_param {
    num_output: 64
    kernel_size: 1
    weight_filler {
      type: "xavier"
      std: 0.1
    }
    bias_filler {
      type: "constant"
      value: 0.2
    }
  }
}
layer {
  name: "inception_4b/relu_pool_proj"
  type: "ReLU"
  bottom: "inception_4b/pool_proj"
  top: "inception_4b/pool_proj"
}
layer {
  name: "inception_4b/output"
  type: "Concat"
  bottom: "inception_4b/1x1"
  bottom: "inception_4b/3x3"
  bottom: "inception_4b/5x5"
  bottom: "inception_4b/pool_proj"
  top: "inception_4b/output"
}
layer {
  name: "inception_4c/1x1"
  type: "Convolution"
  bottom: "inception_4b/output"
  top: "inception_4c/1x1"
  param {
    lr_mult: 1
    decay_mult: 1
  }
  param {
    lr_mult: 2
    decay_mult: 0
  }
  convolution_param {
    num_output: 128
    kernel_size: 1
    weight_filler {
      type: "xavier"
      std: 0.03
    }
    bias_filler {
      type: "constant"
      value: 0.2
    }
  }
}
layer {
  name: "inception_4c/relu_1x1"
  type: "ReLU"
  bottom: "inception_4c/1x1"
  top: "inception_4c/1x1"
}
layer {
  name: "inception_4c/3x3_reduce"
  type: "Convolution"
  bottom: "inception_4b/output"
  top: "inception_4c/3x3_reduce"
  param {
    lr_mult: 1
    decay_mult: 1
  }
  param {
    lr_mult: 2
    decay_mult: 0
  }
  convolution_param {
    num_output: 128
    kernel_size: 1
    weight_filler {
      type: "xavier"
      std: 0.09
    }
    bias_filler {
      type: "constant"
      value: 0.2
    }
  }
}
layer {
  name: "inception_4c/relu_3x3_reduce"
  type: "ReLU"
  bottom: "inception_4c/3x3_reduce"
  top: "inception_4c/3x3_reduce"
}
layer {
  name: "inception_4c/3x3"
  type: "Convolution"
  bottom: "inception_4c/3x3_reduce"
  top: "inception_4c/3x3"
  param {
    lr_mult: 1
    decay_mult: 1
  }
  param {
    lr_mult: 2
    decay_mult: 0
  }
  convolution_param {
    num_output: 256
    pad: 1
    kernel_size: 3
    weight_filler {
      type: "xavier"
      std: 0.03
    }
    bias_filler {
      type: "constant"
      value: 0.2
    }
  }
}
layer {
  name: "inception_4c/relu_3x3"
  type: "ReLU"
  bottom: "inception_4c/3x3"
  top: "inception_4c/3x3"
}
layer {
  name: "inception_4c/5x5_reduce"
  type: "Convolution"
  bottom: "inception_4b/output"
  top: "inception_4c/5x5_reduce"
  param {
    lr_mult: 1
    decay_mult: 1
  }
  param {
    lr_mult: 2
    decay_mult: 0
  }
  convolution_param {
    num_output: 24
    kernel_size: 1
    weight_filler {
      type: "xavier"
      std: 0.2
    }
    bias_filler {
      type: "constant"
      value: 0.2
    }
  }
}
layer {
  name: "inception_4c/relu_5x5_reduce"
  type: "ReLU"
  bottom: "inception_4c/5x5_reduce"
  top: "inception_4c/5x5_reduce"
}
layer {
  name: "inception_4c/5x5"
  type: "Convolution"
  bottom: "inception_4c/5x5_reduce"
  top: "inception_4c/5x5"
  param {
    lr_mult: 1
    decay_mult: 1
  }
  param {
    lr_mult: 2
    decay_mult: 0
  }
  convolution_param {
    num_output: 64
    pad: 2
    kernel_size: 5
    weight_filler {
      type: "xavier"
      std: 0.03
    }
    bias_filler {
      type: "constant"
      value: 0.2
    }
  }
}
layer {
  name: "inception_4c/relu_5x5"
  type: "ReLU"
  bottom: "inception_4c/5x5"
  top: "inception_4c/5x5"
}
layer {
  name: "inception_4c/pool"
  type: "Pooling"
  bottom: "inception_4b/output"
  top: "inception_4c/pool"
  pooling_param {
    pool: MAX
    kernel_size: 3
    stride: 1
    pad: 1
  }
}
layer {
  name: "inception_4c/pool_proj"
  type: "Convolution"
  bottom: "inception_4c/pool"
  top: "inception_4c/pool_proj"
  param {
    lr_mult: 1
    decay_mult: 1
  }
  param {
    lr_mult: 2
    decay_mult: 0
  }
  convolution_param {
    num_output: 64
    kernel_size: 1
    weight_filler {
      type: "xavier"
      std: 0.1
    }
    bias_filler {
      type: "constant"
      value: 0.2
    }
  }
}
layer {
  name: "inception_4c/relu_pool_proj"
  type: "ReLU"
  bottom: "inception_4c/pool_proj"
  top: "inception_4c/pool_proj"
}
layer {
  name: "inception_4c/output"
  type: "Concat"
  bottom: "inception_4c/1x1"
  bottom: "inception_4c/3x3"
  bottom: "inception_4c/5x5"
  bottom: "inception_4c/pool_proj"
  top: "inception_4c/output"
}
layer {
  name: "inception_4d/1x1"
  type: "Convolution"
  bottom: "inception_4c/output"
  top: "inception_4d/1x1"
  param {
    lr_mult: 1
    decay_mult: 1
  }
  param {
    lr_mult: 2
    decay_mult: 0
  }
  convolution_param {
    num_output: 112
    kernel_size: 1
    weight_filler {
      type: "xavier"
      std: 0.03
    }
    bias_filler {
      type: "constant"
      value: 0.2
    }
  }
}
layer {
  name: "inception_4d/relu_1x1"
  type: "ReLU"
  bottom: "inception_4d/1x1"
  top: "inception_4d/1x1"
}
layer {
  name: "inception_4d/3x3_reduce"
  type: "Convolution"
  bottom: "inception_4c/output"
  top: "inception_4d/3x3_reduce"
  param {
    lr_mult: 1
    decay_mult: 1
  }
  param {
    lr_mult: 2
    decay_mult: 0
  }
  convolution_param {
    num_output: 144
    kernel_size: 1
    weight_filler {
      type: "xavier"
      std: 0.09
    }
    bias_filler {
      type: "constant"
      value: 0.2
    }
  }
}
layer {
  name: "inception_4d/relu_3x3_reduce"
  type: "ReLU"
  bottom: "inception_4d/3x3_reduce"
  top: "inception_4d/3x3_reduce"
}
layer {
  name: "inception_4d/3x3"
  type: "Convolution"
  bottom: "inception_4d/3x3_reduce"
  top: "inception_4d/3x3"
  param {
    lr_mult: 1
    decay_mult: 1
  }
  param {
    lr_mult: 2
    decay_mult: 0
  }
  convolution_param {
    num_output: 288
    pad: 1
    kernel_size: 3
    weight_filler {
      type: "xavier"
      std: 0.03
    }
    bias_filler {
      type: "constant"
      value: 0.2
    }
  }
}
layer {
  name: "inception_4d/relu_3x3"
  type: "ReLU"
  bottom: "inception_4d/3x3"
  top: "inception_4d/3x3"
}
layer {
  name: "inception_4d/5x5_reduce"
  type: "Convolution"
  bottom: "inception_4c/output"
  top: "inception_4d/5x5_reduce"
  param {
    lr_mult: 1
    decay_mult: 1
  }
  param {
    lr_mult: 2
    decay_mult: 0
  }
  convolution_param {
    num_output: 32
    kernel_size: 1
    weight_filler {
      type: "xavier"
      std: 0.2
    }
    bias_filler {
      type: "constant"
      value: 0.2
    }
  }
}
layer {
  name: "inception_4d/relu_5x5_reduce"
  type: "ReLU"
  bottom: "inception_4d/5x5_reduce"
  top: "inception_4d/5x5_reduce"
}
layer {
  name: "inception_4d/5x5"
  type: "Convolution"
  bottom: "inception_4d/5x5_reduce"
  top: "inception_4d/5x5"
  param {
    lr_mult: 1
    decay_mult: 1
  }
  param {
    lr_mult: 2
    decay_mult: 0
  }
  convolution_param {
    num_output: 64
    pad: 2
    kernel_size: 5
    weight_filler {
      type: "xavier"
      std: 0.03
    }
    bias_filler {
      type: "constant"
      value: 0.2
    }
  }
}
layer {
  name: "inception_4d/relu_5x5"
  type: "ReLU"
  bottom: "inception_4d/5x5"
  top: "inception_4d/5x5"
}
layer {
  name: "inception_4d/pool"
  type: "Pooling"
  bottom: "inception_4c/output"
  top: "inception_4d/pool"
  pooling_param {
    pool: MAX
    kernel_size: 3
    stride: 1
    pad: 1
  }
}
layer {
  name: "inception_4d/pool_proj"
  type: "Convolution"
  bottom: "inception_4d/pool"
  top: "inception_4d/pool_proj"
  param {
    lr_mult: 1
    decay_mult: 1
  }
  param {
    lr_mult: 2
    decay_mult: 0
  }
  convolution_param {
    num_output: 64
    kernel_size: 1
    weight_filler {
      type: "xavier"
      std: 0.1
    }
    bias_filler {
      type: "constant"
      value: 0.2
    }
  }
}
layer {
  name: "inception_4d/relu_pool_proj"
  type: "ReLU"
  bottom: "inception_4d/pool_proj"
  top: "inception_4d/pool_proj"
}
layer {
  name: "inception_4d/output"
  type: "Concat"
  bottom: "inception_4d/1x1"
  bottom: "inception_4d/3x3"
  bottom: "inception_4d/5x5"
  bottom: "inception_4d/pool_proj"
  top: "inception_4d/output"
}
layer {
  name: "loss2/ave_pool"
  type: "Pooling"
  bottom: "inception_4d/output"
  top: "loss2/ave_pool"
  pooling_param {
    pool: AVE
    kernel_size: 5
    stride: 3
  }
}
layer {
  name: "loss2/conv"
  type: "Convolution"
  bottom: "loss2/ave_pool"
  top: "loss2/conv"
  param {
    lr_mult: 1
    decay_mult: 1
  }
  param {
    lr_mult: 2
    decay_mult: 0
  }
  convolution_param {
    num_output: 128
    kernel_size: 1
    weight_filler {
      type: "xavier"
      std: 0.08
    }
    bias_filler {
      type: "constant"
      value: 0.2
    }
  }
}
layer {
  name: "loss2/relu_conv"
  type: "ReLU"
  bottom: "loss2/conv"
  top: "loss2/conv"
}
layer {
  name: "loss2/fc"
  type: "InnerProduct"
  bottom: "loss2/conv"
  top: "loss2/fc"
  param {
    lr_mult: 1
    decay_mult: 1
  }
  param {
    lr_mult: 2
    decay_mult: 0
  }
  inner_product_param {
    num_output: 1024
    weight_filler {
      type: "xavier"
      std: 0.02
    }
    bias_filler {
      type: "constant"
      value: 0.2
    }
  }
}
layer {
  name: "loss2/relu_fc"
  type: "ReLU"
  bottom: "loss2/fc"
  top: "loss2/fc"
}
layer {
  name: "loss2/drop_fc"
  type: "Dropout"
  bottom: "loss2/fc"
  top: "loss2/fc"
  dropout_param {
    dropout_ratio: 0.7
  }
}
layer {
  name: "loss2/classifier_plantvillage"
  type: "InnerProduct"
  bottom: "loss2/fc"
  top: "loss2/classifier_plantvillage"
  param {
    lr_mult: 1
    decay_mult: 1
  }
  param {
    lr_mult: 2
    decay_mult: 0
  }
  inner_product_param {
    num_output: 38
    weight_filler {
      type: "xavier"
      std: 0.0009765625
    }
    bias_filler {
      type: "constant"
      value: 0
    }
  }
}
layer {
  name: "inception_4e/1x1"
  type: "Convolution"
  bottom: "inception_4d/output"
  top: "inception_4e/1x1"
  param {
    lr_mult: 1
    decay_mult: 1
  }
  param {
    lr_mult: 2
    decay_mult: 0
  }
  convolution_param {
    num_output: 256
    kernel_size: 1
    weight_filler {
      type: "xavier"
      std: 0.03
    }
    bias_filler {
      type: "constant"
      value: 0.2
    }
  }
}
layer {
  name: "inception_4e/relu_1x1"
  type: "ReLU"
  bottom: "inception_4e/1x1"
  top: "inception_4e/1x1"
}
layer {
  name: "inception_4e/3x3_reduce"
  type: "Convolution"
  bottom: "inception_4d/output"
  top: "inception_4e/3x3_reduce"
  param {
    lr_mult: 1
    decay_mult: 1
  }
  param {
    lr_mult: 2
    decay_mult: 0
  }
  convolution_param {
    num_output: 160
    kernel_size: 1
    weight_filler {
      type: "xavier"
      std: 0.09
    }
    bias_filler {
      type: "constant"
      value: 0.2
    }
  }
}
layer {
  name: "inception_4e/relu_3x3_reduce"
  type: "ReLU"
  bottom: "inception_4e/3x3_reduce"
  top: "inception_4e/3x3_reduce"
}
layer {
  name: "inception_4e/3x3"
  type: "Convolution"
  bottom: "inception_4e/3x3_reduce"
  top: "inception_4e/3x3"
  param {
    lr_mult: 1
    decay_mult: 1
  }
  param {
    lr_mult: 2
    decay_mult: 0
  }
  convolution_param {
    num_output: 320
    pad: 1
    kernel_size: 3
    weight_filler {
      type: "xavier"
      std: 0.03
    }
    bias_filler {
      type: "constant"
      value: 0.2
    }
  }
}
layer {
  name: "inception_4e/relu_3x3"
  type: "ReLU"
  bottom: "inception_4e/3x3"
  top: "inception_4e/3x3"
}
layer {
  name: "inception_4e/5x5_reduce"
  type: "Convolution"
  bottom: "inception_4d/output"
  top: "inception_4e/5x5_reduce"
  param {
    lr_mult: 1
    decay_mult: 1
  }
  param {
    lr_mult: 2
    decay_mult: 0
  }
  convolution_param {
    num_output: 32
    kernel_size: 1
    weight_filler {
      type: "xavier"
      std: 0.2
    }
    bias_filler {
      type: "constant"
      value: 0.2
    }
  }
}
layer {
  name: "inception_4e/relu_5x5_reduce"
  type: "ReLU"
  bottom: "inception_4e/5x5_reduce"
  top: "inception_4e/5x5_reduce"
}
layer {
  name: "inception_4e/5x5"
  type: "Convolution"
  bottom: "inception_4e/5x5_reduce"
  top: "inception_4e/
I0403 21:47:59.171406 24282 layer_factory.hpp:77] Creating layer data
I0403 21:47:59.172004 24282 net.cpp:91] Creating Layer data
I0403 21:47:59.172037 24282 net.cpp:399] data -> data
I0403 21:47:59.172091 24282 net.cpp:399] data -> label
I0403 21:47:59.172129 24282 data_transformer.cpp:25] Loading mean file from: /home/mohanty/data/final_dataset/lmdb/segmented-80-20/mean.binaryproto
I0403 21:47:59.173313 24284 db_lmdb.cpp:38] Opened lmdb /home/mohanty/data/final_dataset/lmdb/segmented-80-20/test_db
I0403 21:47:59.185082 24282 data_layer.cpp:41] output data size: 24,3,224,224
I0403 21:47:59.212319 24282 net.cpp:141] Setting up data
I0403 21:47:59.212404 24282 net.cpp:148] Top shape: 24 3 224 224 (3612672)
I0403 21:47:59.212427 24282 net.cpp:148] Top shape: 24 (24)
I0403 21:47:59.212443 24282 net.cpp:156] Memory required for data: 14450784
I0403 21:47:59.212471 24282 layer_factory.hpp:77] Creating layer label_data_1_split
I0403 21:47:59.212499 24282 net.cpp:91] Creating Layer label_data_1_split
I0403 21:47:59.212517 24282 net.cpp:425] label_data_1_split <- label
I0403 21:47:59.212551 24282 net.cpp:399] label_data_1_split -> label_data_1_split_0
I0403 21:47:59.212580 24282 net.cpp:399] label_data_1_split -> label_data_1_split_1
I0403 21:47:59.212604 24282 net.cpp:399] label_data_1_split -> label_data_1_split_2
I0403 21:47:59.212626 24282 net.cpp:399] label_data_1_split -> label_data_1_split_3
I0403 21:47:59.212647 24282 net.cpp:399] label_data_1_split -> label_data_1_split_4
I0403 21:47:59.212668 24282 net.cpp:399] label_data_1_split -> label_data_1_split_5
I0403 21:47:59.212687 24282 net.cpp:399] label_data_1_split -> label_data_1_split_6
I0403 21:47:59.212709 24282 net.cpp:399] label_data_1_split -> label_data_1_split_7
I0403 21:47:59.212729 24282 net.cpp:399] label_data_1_split -> label_data_1_split_8
I0403 21:47:59.212751 24282 net.cpp:399] label_data_1_split -> label_data_1_split_9
I0403 21:47:59.212864 24282 net.cpp:141] Setting up label_data_1_split
I0403 21:47:59.212888 24282 net.cpp:148] Top shape: 24 (24)
I0403 21:47:59.212905 24282 net.cpp:148] Top shape: 24 (24)
I0403 21:47:59.212924 24282 net.cpp:148] Top shape: 24 (24)
I0403 21:47:59.212940 24282 net.cpp:148] Top shape: 24 (24)
I0403 21:47:59.212956 24282 net.cpp:148] Top shape: 24 (24)
I0403 21:47:59.212972 24282 net.cpp:148] Top shape: 24 (24)
I0403 21:47:59.212987 24282 net.cpp:148] Top shape: 24 (24)
I0403 21:47:59.213004 24282 net.cpp:148] Top shape: 24 (24)
I0403 21:47:59.213021 24282 net.cpp:148] Top shape: 24 (24)
I0403 21:47:59.213037 24282 net.cpp:148] Top shape: 24 (24)
I0403 21:47:59.213083 24282 net.cpp:156] Memory required for data: 14451744
I0403 21:47:59.213100 24282 layer_factory.hpp:77] Creating layer conv1/7x7_s2
I0403 21:47:59.213131 24282 net.cpp:91] Creating Layer conv1/7x7_s2
I0403 21:47:59.213151 24282 net.cpp:425] conv1/7x7_s2 <- data
I0403 21:47:59.213171 24282 net.cpp:399] conv1/7x7_s2 -> conv1/7x7_s2
I0403 21:47:59.355695 24282 net.cpp:141] Setting up conv1/7x7_s2
I0403 21:47:59.355777 24282 net.cpp:148] Top shape: 24 64 112 112 (19267584)
I0403 21:47:59.355794 24282 net.cpp:156] Memory required for data: 91522080
I0403 21:47:59.355826 24282 layer_factory.hpp:77] Creating layer conv1/relu_7x7
I0403 21:47:59.355854 24282 net.cpp:91] Creating Layer conv1/relu_7x7
I0403 21:47:59.355872 24282 net.cpp:425] conv1/relu_7x7 <- conv1/7x7_s2
I0403 21:47:59.355892 24282 net.cpp:386] conv1/relu_7x7 -> conv1/7x7_s2 (in-place)
I0403 21:47:59.356137 24282 net.cpp:141] Setting up conv1/relu_7x7
I0403 21:47:59.356164 24282 net.cpp:148] Top shape: 24 64 112 112 (19267584)
I0403 21:47:59.356179 24282 net.cpp:156] Memory required for data: 168592416
I0403 21:47:59.356195 24282 layer_factory.hpp:77] Creating layer pool1/3x3_s2
I0403 21:47:59.356231 24282 net.cpp:91] Creating Layer pool1/3x3_s2
I0403 21:47:59.356251 24282 net.cpp:425] pool1/3x3_s2 <- conv1/7x7_s2
I0403 21:47:59.356269 24282 net.cpp:399] pool1/3x3_s2 -> pool1/3x3_s2
I0403 21:47:59.356343 24282 net.cpp:141] Setting up pool1/3x3_s2
I0403 21:47:59.356365 24282 net.cpp:148] Top shape: 24 64 56 56 (4816896)
I0403 21:47:59.356382 24282 net.cpp:156] Memory required for data: 187860000
I0403 21:47:59.356397 24282 layer_factory.hpp:77] Creating layer pool1/norm1
I0403 21:47:59.356421 24282 net.cpp:91] Creating Layer pool1/norm1
I0403 21:47:59.356439 24282 net.cpp:425] pool1/norm1 <- pool1/3x3_s2
I0403 21:47:59.356457 24282 net.cpp:399] pool1/norm1 -> pool1/norm1
I0403 21:47:59.356731 24282 net.cpp:141] Setting up pool1/norm1
I0403 21:47:59.356758 24282 net.cpp:148] Top shape: 24 64 56 56 (4816896)
I0403 21:47:59.356775 24282 net.cpp:156] Memory required for data: 207127584
I0403 21:47:59.356791 24282 layer_factory.hpp:77] Creating layer conv2/3x3_reduce
I0403 21:47:59.356815 24282 net.cpp:91] Creating Layer conv2/3x3_reduce
I0403 21:47:59.356832 24282 net.cpp:425] conv2/3x3_reduce <- pool1/norm1
I0403 21:47:59.356851 24282 net.cpp:399] conv2/3x3_reduce -> conv2/3x3_reduce
I0403 21:47:59.358145 24282 net.cpp:141] Setting up conv2/3x3_reduce
I0403 21:47:59.358175 24282 net.cpp:148] Top shape: 24 64 56 56 (4816896)
I0403 21:47:59.358191 24282 net.cpp:156] Memory required for data: 226395168
I0403 21:47:59.358211 24282 layer_factory.hpp:77] Creating layer conv2/relu_3x3_reduce
I0403 21:47:59.358242 24282 net.cpp:91] Creating Layer conv2/relu_3x3_reduce
I0403 21:47:59.358261 24282 net.cpp:425] conv2/relu_3x3_reduce <- conv2/3x3_reduce
I0403 21:47:59.358279 24282 net.cpp:386] conv2/relu_3x3_reduce -> conv2/3x3_reduce (in-place)
I0403 21:47:59.358520 24282 net.cpp:141] Setting up conv2/relu_3x3_reduce
I0403 21:47:59.358546 24282 net.cpp:148] Top shape: 24 64 56 56 (4816896)
I0403 21:47:59.358561 24282 net.cpp:156] Memory required for data: 245662752
I0403 21:47:59.358577 24282 layer_factory.hpp:77] Creating layer conv2/3x3
I0403 21:47:59.358600 24282 net.cpp:91] Creating Layer conv2/3x3
I0403 21:47:59.358618 24282 net.cpp:425] conv2/3x3 <- conv2/3x3_reduce
I0403 21:47:59.358636 24282 net.cpp:399] conv2/3x3 -> conv2/3x3
I0403 21:47:59.360795 24282 net.cpp:141] Setting up conv2/3x3
I0403 21:47:59.360824 24282 net.cpp:148] Top shape: 24 192 56 56 (14450688)
I0403 21:47:59.360842 24282 net.cpp:156] Memory required for data: 303465504
I0403 21:47:59.360863 24282 layer_factory.hpp:77] Creating layer conv2/relu_3x3
I0403 21:47:59.360883 24282 net.cpp:91] Creating Layer conv2/relu_3x3
I0403 21:47:59.360900 24282 net.cpp:425] conv2/relu_3x3 <- conv2/3x3
I0403 21:47:59.360918 24282 net.cpp:386] conv2/relu_3x3 -> conv2/3x3 (in-place)
I0403 21:47:59.361069 24282 net.cpp:141] Setting up conv2/relu_3x3
I0403 21:47:59.361094 24282 net.cpp:148] Top shape: 24 192 56 56 (14450688)
I0403 21:47:59.361140 24282 net.cpp:156] Memory required for data: 361268256
I0403 21:47:59.361158 24282 layer_factory.hpp:77] Creating layer conv2/norm2
I0403 21:47:59.361189 24282 net.cpp:91] Creating Layer conv2/norm2
I0403 21:47:59.361207 24282 net.cpp:425] conv2/norm2 <- conv2/3x3
I0403 21:47:59.361225 24282 net.cpp:399] conv2/norm2 -> conv2/norm2
I0403 21:47:59.361521 24282 net.cpp:141] Setting up conv2/norm2
I0403 21:47:59.361547 24282 net.cpp:148] Top shape: 24 192 56 56 (14450688)
I0403 21:47:59.361563 24282 net.cpp:156] Memory required for data: 419071008
I0403 21:47:59.361578 24282 layer_factory.hpp:77] Creating layer pool2/3x3_s2
I0403 21:47:59.361598 24282 net.cpp:91] Creating Layer pool2/3x3_s2
I0403 21:47:59.361613 24282 net.cpp:425] pool2/3x3_s2 <- conv2/norm2
I0403 21:47:59.361630 24282 net.cpp:399] pool2/3x3_s2 -> pool2/3x3_s2
I0403 21:47:59.361678 24282 net.cpp:141] Setting up pool2/3x3_s2
I0403 21:47:59.361701 24282 net.cpp:148] Top shape: 24 192 28 28 (3612672)
I0403 21:47:59.361716 24282 net.cpp:156] Memory required for data: 433521696
I0403 21:47:59.361731 24282 layer_factory.hpp:77] Creating layer pool2/3x3_s2_pool2/3x3_s2_0_split
I0403 21:47:59.361749 24282 net.cpp:91] Creating Layer pool2/3x3_s2_pool2/3x3_s2_0_split
I0403 21:47:59.361765 24282 net.cpp:425] pool2/3x3_s2_pool2/3x3_s2_0_split <- pool2/3x3_s2
I0403 21:47:59.361783 24282 net.cpp:399] pool2/3x3_s2_pool2/3x3_s2_0_split -> pool2/3x3_s2_pool2/3x3_s2_0_split_0
I0403 21:47:59.361801 24282 net.cpp:399] pool2/3x3_s2_pool2/3x3_s2_0_split -> pool2/3x3_s2_pool2/3x3_s2_0_split_1
I0403 21:47:59.361824 24282 net.cpp:399] pool2/3x3_s2_pool2/3x3_s2_0_split -> pool2/3x3_s2_pool2/3x3_s2_0_split_2
I0403 21:47:59.361845 24282 net.cpp:399] pool2/3x3_s2_pool2/3x3_s2_0_split -> pool2/3x3_s2_pool2/3x3_s2_0_split_3
I0403 21:47:59.361907 24282 net.cpp:141] Setting up pool2/3x3_s2_pool2/3x3_s2_0_split
I0403 21:47:59.361932 24282 net.cpp:148] Top shape: 24 192 28 28 (3612672)
I0403 21:47:59.361948 24282 net.cpp:148] Top shape: 24 192 28 28 (3612672)
I0403 21:47:59.361964 24282 net.cpp:148] Top shape: 24 192 28 28 (3612672)
I0403 21:47:59.361980 24282 net.cpp:148] Top shape: 24 192 28 28 (3612672)
I0403 21:47:59.361994 24282 net.cpp:156] Memory required for data: 491324448
I0403 21:47:59.362010 24282 layer_factory.hpp:77] Creating layer inception_3a/1x1
I0403 21:47:59.362030 24282 net.cpp:91] Creating Layer inception_3a/1x1
I0403 21:47:59.362047 24282 net.cpp:425] inception_3a/1x1 <- pool2/3x3_s2_pool2/3x3_s2_0_split_0
I0403 21:47:59.362066 24282 net.cpp:399] inception_3a/1x1 -> inception_3a/1x1
I0403 21:47:59.363533 24282 net.cpp:141] Setting up inception_3a/1x1
I0403 21:47:59.363562 24282 net.cpp:148] Top shape: 24 64 28 28 (1204224)
I0403 21:47:59.363579 24282 net.cpp:156] Memory required for data: 496141344
I0403 21:47:59.363600 24282 layer_factory.hpp:77] Creating layer inception_3a/relu_1x1
I0403 21:47:59.363617 24282 net.cpp:91] Creating Layer inception_3a/relu_1x1
I0403 21:47:59.363634 24282 net.cpp:425] inception_3a/relu_1x1 <- inception_3a/1x1
I0403 21:47:59.363652 24282 net.cpp:386] inception_3a/relu_1x1 -> inception_3a/1x1 (in-place)
I0403 21:47:59.363811 24282 net.cpp:141] Setting up inception_3a/relu_1x1
I0403 21:47:59.363837 24282 net.cpp:148] Top shape: 24 64 28 28 (1204224)
I0403 21:47:59.363852 24282 net.cpp:156] Memory required for data: 500958240
I0403 21:47:59.363868 24282 layer_factory.hpp:77] Creating layer inception_3a/3x3_reduce
I0403 21:47:59.363889 24282 net.cpp:91] Creating Layer inception_3a/3x3_reduce
I0403 21:47:59.363906 24282 net.cpp:425] inception_3a/3x3_reduce <- pool2/3x3_s2_pool2/3x3_s2_0_split_1
I0403 21:47:59.363927 24282 net.cpp:399] inception_3a/3x3_reduce -> inception_3a/3x3_reduce
I0403 21:47:59.365561 24282 net.cpp:141] Setting up inception_3a/3x3_reduce
I0403 21:47:59.365592 24282 net.cpp:148] Top shape: 24 96 28 28 (1806336)
I0403 21:47:59.365608 24282 net.cpp:156] Memory required for data: 508183584
I0403 21:47:59.365630 24282 layer_factory.hpp:77] Creating layer inception_3a/relu_3x3_reduce
I0403 21:47:59.365665 24282 net.cpp:91] Creating Layer inception_3a/relu_3x3_reduce
I0403 21:47:59.365684 24282 net.cpp:425] inception_3a/relu_3x3_reduce <- inception_3a/3x3_reduce
I0403 21:47:59.365702 24282 net.cpp:386] inception_3a/relu_3x3_reduce -> inception_3a/3x3_reduce (in-place)
I0403 21:47:59.365875 24282 net.cpp:141] Setting up inception_3a/relu_3x3_reduce
I0403 21:47:59.365900 24282 net.cpp:148] Top shape: 24 96 28 28 (1806336)
I0403 21:47:59.365916 24282 net.cpp:156] Memory required for data: 515408928
I0403 21:47:59.365931 24282 layer_factory.hpp:77] Creating layer inception_3a/3x3
I0403 21:47:59.365953 24282 net.cpp:91] Creating Layer inception_3a/3x3
I0403 21:47:59.365970 24282 net.cpp:425] inception_3a/3x3 <- inception_3a/3x3_reduce
I0403 21:47:59.365993 24282 net.cpp:399] inception_3a/3x3 -> inception_3a/3x3
I0403 21:47:59.367646 24282 net.cpp:141] Setting up inception_3a/3x3
I0403 21:47:59.367674 24282 net.cpp:148] Top shape: 24 128 28 28 (2408448)
I0403 21:47:59.367691 24282 net.cpp:156] Memory required for data: 525042720
I0403 21:47:59.367709 24282 layer_factory.hpp:77] Creating layer inception_3a/relu_3x3
I0403 21:47:59.367733 24282 net.cpp:91] Creating Layer inception_3a/relu_3x3
I0403 21:47:59.367749 24282 net.cpp:425] inception_3a/relu_3x3 <- inception_3a/3x3
I0403 21:47:59.367768 24282 net.cpp:386] inception_3a/relu_3x3 -> inception_3a/3x3 (in-place)
I0403 21:47:59.368044 24282 net.cpp:141] Setting up inception_3a/relu_3x3
I0403 21:47:59.368072 24282 net.cpp:148] Top shape: 24 128 28 28 (2408448)
I0403 21:47:59.368088 24282 net.cpp:156] Memory required for data: 534676512
I0403 21:47:59.368103 24282 layer_factory.hpp:77] Creating layer inception_3a/5x5_reduce
I0403 21:47:59.368129 24282 net.cpp:91] Creating Layer inception_3a/5x5_reduce
I0403 21:47:59.368149 24282 net.cpp:425] inception_3a/5x5_reduce <- pool2/3x3_s2_pool2/3x3_s2_0_split_2
I0403 21:47:59.368168 24282 net.cpp:399] inception_3a/5x5_reduce -> inception_3a/5x5_reduce
I0403 21:47:59.369130 24282 net.cpp:141] Setting up inception_3a/5x5_reduce
I0403 21:47:59.369159 24282 net.cpp:148] Top shape: 24 16 28 28 (301056)
I0403 21:47:59.369175 24282 net.cpp:156] Memory required for data: 535880736
I0403 21:47:59.369194 24282 layer_factory.hpp:77] Creating layer inception_3a/relu_5x5_reduce
I0403 21:47:59.369215 24282 net.cpp:91] Creating Layer inception_3a/relu_5x5_reduce
I0403 21:47:59.369240 24282 net.cpp:425] inception_3a/relu_5x5_reduce <- inception_3a/5x5_reduce
I0403 21:47:59.369258 24282 net.cpp:386] inception_3a/relu_5x5_reduce -> inception_3a/5x5_reduce (in-place)
I0403 21:47:59.369556 24282 net.cpp:141] Setting up inception_3a/relu_5x5_reduce
I0403 21:47:59.369585 24282 net.cpp:148] Top shape: 24 16 28 28 (301056)
I0403 21:47:59.369601 24282 net.cpp:156] Memory required for data: 537084960
I0403 21:47:59.369617 24282 layer_factory.hpp:77] Creating layer inception_3a/5x5
I0403 21:47:59.369642 24282 net.cpp:91] Creating Layer inception_3a/5x5
I0403 21:47:59.369659 24282 net.cpp:425] inception_3a/5x5 <- inception_3a/5x5_reduce
I0403 21:47:59.369678 24282 net.cpp:399] inception_3a/5x5 -> inception_3a/5x5
I0403 21:47:59.370684 24282 net.cpp:141] Setting up inception_3a/5x5
I0403 21:47:59.370712 24282 net.cpp:148] Top shape: 24 32 28 28 (602112)
I0403 21:47:59.370729 24282 net.cpp:156] Memory required for data: 539493408
I0403 21:47:59.370749 24282 layer_factory.hpp:77] Creating layer inception_3a/relu_5x5
I0403 21:47:59.370771 24282 net.cpp:91] Creating Layer inception_3a/relu_5x5
I0403 21:47:59.370790 24282 net.cpp:425] inception_3a/relu_5x5 <- inception_3a/5x5
I0403 21:47:59.370808 24282 net.cpp:386] inception_3a/relu_5x5 -> inception_3a/5x5 (in-place)
I0403 21:47:59.370980 24282 net.cpp:141] Setting up inception_3a/relu_5x5
I0403 21:47:59.371008 24282 net.cpp:148] Top shape: 24 32 28 28 (602112)
I0403 21:47:59.371024 24282 net.cpp:156] Memory required for data: 541901856
I0403 21:47:59.371040 24282 layer_factory.hpp:77] Creating layer inception_3a/pool
I0403 21:47:59.371060 24282 net.cpp:91] Creating Layer inception_3a/pool
I0403 21:47:59.371091 24282 net.cpp:425] inception_3a/pool <- pool2/3x3_s2_pool2/3x3_s2_0_split_3
I0403 21:47:59.371112 24282 net.cpp:399] inception_3a/pool -> inception_3a/pool
I0403 21:47:59.371171 24282 net.cpp:141] Setting up inception_3a/pool
I0403 21:47:59.371196 24282 net.cpp:148] Top shape: 24 192 28 28 (3612672)
I0403 21:47:59.371212 24282 net.cpp:156] Memory required for data: 556352544
I0403 21:47:59.371232 24282 layer_factory.hpp:77] Creating layer inception_3a/pool_proj
I0403 21:47:59.371254 24282 net.cpp:91] Creating Layer inception_3a/pool_proj
I0403 21:47:59.371273 24282 net.cpp:425] inception_3a/pool_proj <- inception_3a/pool
I0403 21:47:59.371295 24282 net.cpp:399] inception_3a/pool_proj -> inception_3a/pool_proj
I0403 21:47:59.372249 24282 net.cpp:141] Setting up inception_3a/pool_proj
I0403 21:47:59.372278 24282 net.cpp:148] Top shape: 24 32 28 28 (602112)
I0403 21:47:59.372294 24282 net.cpp:156] Memory required for data: 558760992
I0403 21:47:59.372318 24282 layer_factory.hpp:77] Creating layer inception_3a/relu_pool_proj
I0403 21:47:59.372339 24282 net.cpp:91] Creating Layer inception_3a/relu_pool_proj
I0403 21:47:59.372355 24282 net.cpp:425] inception_3a/relu_pool_proj <- inception_3a/pool_proj
I0403 21:47:59.372373 24282 net.cpp:386] inception_3a/relu_pool_proj -> inception_3a/pool_proj (in-place)
I0403 21:47:59.372648 24282 net.cpp:141] Setting up inception_3a/relu_pool_proj
I0403 21:47:59.372676 24282 net.cpp:148] Top shape: 24 32 28 28 (602112)
I0403 21:47:59.372692 24282 net.cpp:156] Memory required for data: 561169440
I0403 21:47:59.372709 24282 layer_factory.hpp:77] Creating layer inception_3a/output
I0403 21:47:59.372728 24282 net.cpp:91] Creating Layer inception_3a/output
I0403 21:47:59.372747 24282 net.cpp:425] inception_3a/output <- inception_3a/1x1
I0403 21:47:59.372764 24282 net.cpp:425] inception_3a/output <- inception_3a/3x3
I0403 21:47:59.372781 24282 net.cpp:425] inception_3a/output <- inception_3a/5x5
I0403 21:47:59.372797 24282 net.cpp:425] inception_3a/output <- inception_3a/pool_proj
I0403 21:47:59.372815 24282 net.cpp:399] inception_3a/output -> inception_3a/output
I0403 21:47:59.372862 24282 net.cpp:141] Setting up inception_3a/output
I0403 21:47:59.372887 24282 net.cpp:148] Top shape: 24 256 28 28 (4816896)
I0403 21:47:59.372903 24282 net.cpp:156] Memory required for data: 580437024
I0403 21:47:59.372920 24282 layer_factory.hpp:77] Creating layer inception_3a/output_inception_3a/output_0_split
I0403 21:47:59.372939 24282 net.cpp:91] Creating Layer inception_3a/output_inception_3a/output_0_split
I0403 21:47:59.372954 24282 net.cpp:425] inception_3a/output_inception_3a/output_0_split <- inception_3a/output
I0403 21:47:59.372973 24282 net.cpp:399] inception_3a/output_inception_3a/output_0_split -> inception_3a/output_inception_3a/output_0_split_0
I0403 21:47:59.372995 24282 net.cpp:399] inception_3a/output_inception_3a/output_0_split -> inception_3a/output_inception_3a/output_0_split_1
I0403 21:47:59.373020 24282 net.cpp:399] inception_3a/output_inception_3a/output_0_split -> inception_3a/output_inception_3a/output_0_split_2
I0403 21:47:59.373044 24282 net.cpp:399] inception_3a/output_inception_3a/output_0_split -> inception_3a/output_inception_3a/output_0_split_3
I0403 21:47:59.373121 24282 net.cpp:141] Setting up inception_3a/output_inception_3a/output_0_split
I0403 21:47:59.373144 24282 net.cpp:148] Top shape: 24 256 28 28 (4816896)
I0403 21:47:59.373163 24282 net.cpp:148] Top shape: 24 256 28 28 (4816896)
I0403 21:47:59.373189 24282 net.cpp:148] Top shape: 24 256 28 28 (4816896)
I0403 21:47:59.373205 24282 net.cpp:148] Top shape: 24 256 28 28 (4816896)
I0403 21:47:59.373220 24282 net.cpp:156] Memory required for data: 657507360
I0403 21:47:59.373242 24282 layer_factory.hpp:77] Creating layer inception_3b/1x1
I0403 21:47:59.373267 24282 net.cpp:91] Creating Layer inception_3b/1x1
I0403 21:47:59.373286 24282 net.cpp:425] inception_3b/1x1 <- inception_3a/output_inception_3a/output_0_split_0
I0403 21:47:59.373307 24282 net.cpp:399] inception_3b/1x1 -> inception_3b/1x1
I0403 21:47:59.374444 24282 net.cpp:141] Setting up inception_3b/1x1
I0403 21:47:59.374485 24282 net.cpp:148] Top shape: 24 128 28 28 (2408448)
I0403 21:47:59.374502 24282 net.cpp:156] Memory required for data: 667141152
I0403 21:47:59.374521 24282 layer_factory.hpp:77] Creating layer inception_3b/relu_1x1
I0403 21:47:59.374542 24282 net.cpp:91] Creating Layer inception_3b/relu_1x1
I0403 21:47:59.374559 24282 net.cpp:425] inception_3b/relu_1x1 <- inception_3b/1x1
I0403 21:47:59.374579 24282 net.cpp:386] inception_3b/relu_1x1 -> inception_3b/1x1 (in-place)
I0403 21:47:59.374752 24282 net.cpp:141] Setting up inception_3b/relu_1x1
I0403 21:47:59.374778 24282 net.cpp:148] Top shape: 24 128 28 28 (2408448)
I0403 21:47:59.374794 24282 net.cpp:156] Memory required for data: 676774944
I0403 21:47:59.374810 24282 layer_factory.hpp:77] Creating layer inception_3b/3x3_reduce
I0403 21:47:59.374835 24282 net.cpp:91] Creating Layer inception_3b/3x3_reduce
I0403 21:47:59.374855 24282 net.cpp:425] inception_3b/3x3_reduce <- inception_3a/output_inception_3a/output_0_split_1
I0403 21:47:59.374874 24282 net.cpp:399] inception_3b/3x3_reduce -> inception_3b/3x3_reduce
I0403 21:47:59.376003 24282 net.cpp:141] Setting up inception_3b/3x3_reduce
I0403 21:47:59.376030 24282 net.cpp:148] Top shape: 24 128 28 28 (2408448)
I0403 21:47:59.376047 24282 net.cpp:156] Memory required for data: 686408736
I0403 21:47:59.376067 24282 layer_factory.hpp:77] Creating layer inception_3b/relu_3x3_reduce
I0403 21:47:59.376088 24282 net.cpp:91] Creating Layer inception_3b/relu_3x3_reduce
I0403 21:47:59.376106 24282 net.cpp:425] inception_3b/relu_3x3_reduce <- inception_3b/3x3_reduce
I0403 21:47:59.376126 24282 net.cpp:386] inception_3b/relu_3x3_reduce -> inception_3b/3x3_reduce (in-place)
I0403 21:47:59.376303 24282 net.cpp:141] Setting up inception_3b/relu_3x3_reduce
I0403 21:47:59.376329 24282 net.cpp:148] Top shape: 24 128 28 28 (2408448)
I0403 21:47:59.376344 24282 net.cpp:156] Memory required for data: 696042528
I0403 21:47:59.376360 24282 layer_factory.hpp:77] Creating layer inception_3b/3x3
I0403 21:47:59.376387 24282 net.cpp:91] Creating Layer inception_3b/3x3
I0403 21:47:59.376406 24282 net.cpp:425] inception_3b/3x3 <- inception_3b/3x3_reduce
I0403 21:47:59.376430 24282 net.cpp:399] inception_3b/3x3 -> inception_3b/3x3
I0403 21:47:59.379355 24282 net.cpp:141] Setting up inception_3b/3x3
I0403 21:47:59.379385 24282 net.cpp:148] Top shape: 24 192 28 28 (3612672)
I0403 21:47:59.379401 24282 net.cpp:156] Memory required for data: 710493216
I0403 21:47:59.379420 24282 layer_factory.hpp:77] Creating layer inception_3b/relu_3x3
I0403 21:47:59.379441 24282 net.cpp:91] Creating Layer inception_3b/relu_3x3
I0403 21:47:59.379459 24282 net.cpp:425] inception_3b/relu_3x3 <- inception_3b/3x3
I0403 21:47:59.379478 24282 net.cpp:386] inception_3b/relu_3x3 -> inception_3b/3x3 (in-place)
I0403 21:47:59.379758 24282 net.cpp:141] Setting up inception_3b/relu_3x3
I0403 21:47:59.379786 24282 net.cpp:148] Top shape: 24 192 28 28 (3612672)
I0403 21:47:59.379801 24282 net.cpp:156] Memory required for data: 724943904
I0403 21:47:59.379817 24282 layer_factory.hpp:77] Creating layer inception_3b/5x5_reduce
I0403 21:47:59.379842 24282 net.cpp:91] Creating Layer inception_3b/5x5_reduce
I0403 21:47:59.379863 24282 net.cpp:425] inception_3b/5x5_reduce <- inception_3a/output_inception_3a/output_0_split_2
I0403 21:47:59.379884 24282 net.cpp:399] inception_3b/5x5_reduce -> inception_3b/5x5_reduce
I0403 21:47:59.380879 24282 net.cpp:141] Setting up inception_3b/5x5_reduce
I0403 21:47:59.380908 24282 net.cpp:148] Top shape: 24 32 28 28 (602112)
I0403 21:47:59.380925 24282 net.cpp:156] Memory required for data: 727352352
I0403 21:47:59.380944 24282 layer_factory.hpp:77] Creating layer inception_3b/relu_5x5_reduce
I0403 21:47:59.380967 24282 net.cpp:91] Creating Layer inception_3b/relu_5x5_reduce
I0403 21:47:59.380986 24282 net.cpp:425] inception_3b/relu_5x5_reduce <- inception_3b/5x5_reduce
I0403 21:47:59.381005 24282 net.cpp:386] inception_3b/relu_5x5_reduce -> inception_3b/5x5_reduce (in-place)
I0403 21:47:59.381197 24282 net.cpp:141] Setting up inception_3b/relu_5x5_reduce
I0403 21:47:59.381227 24282 net.cpp:148] Top shape: 24 32 28 28 (602112)
I0403 21:47:59.381247 24282 net.cpp:156] Memory required for data: 729760800
I0403 21:47:59.381263 24282 layer_factory.hpp:77] Creating layer inception_3b/5x5
I0403 21:47:59.381285 24282 net.cpp:91] Creating Layer inception_3b/5x5
I0403 21:47:59.381304 24282 net.cpp:425] inception_3b/5x5 <- inception_3b/5x5_reduce
I0403 21:47:59.381324 24282 net.cpp:399] inception_3b/5x5 -> inception_3b/5x5
I0403 21:47:59.383288 24282 net.cpp:141] Setting up inception_3b/5x5
I0403 21:47:59.383318 24282 net.cpp:148] Top shape: 24 96 28 28 (1806336)
I0403 21:47:59.383333 24282 net.cpp:156] Memory required for data: 736986144
I0403 21:47:59.383352 24282 layer_factory.hpp:77] Creating layer inception_3b/relu_5x5
I0403 21:47:59.383370 24282 net.cpp:91] Creating Layer inception_3b/relu_5x5
I0403 21:47:59.383386 24282 net.cpp:425] inception_3b/relu_5x5 <- inception_3b/5x5
I0403 21:47:59.383405 24282 net.cpp:386] inception_3b/relu_5x5 -> inception_3b/5x5 (in-place)
I0403 21:47:59.383605 24282 net.cpp:141] Setting up inception_3b/relu_5x5
I0403 21:47:59.383630 24282 net.cpp:148] Top shape: 24 96 28 28 (1806336)
I0403 21:47:59.383646 24282 net.cpp:156] Memory required for data: 744211488
I0403 21:47:59.383662 24282 layer_factory.hpp:77] Creating layer inception_3b/pool
I0403 21:47:59.383680 24282 net.cpp:91] Creating Layer inception_3b/pool
I0403 21:47:59.383695 24282 net.cpp:425] inception_3b/pool <- inception_3a/output_inception_3a/output_0_split_3
I0403 21:47:59.383714 24282 net.cpp:399] inception_3b/pool -> inception_3b/pool
I0403 21:47:59.383767 24282 net.cpp:141] Setting up inception_3b/pool
I0403 21:47:59.383791 24282 net.cpp:148] Top shape: 24 256 28 28 (4816896)
I0403 21:47:59.383805 24282 net.cpp:156] Memory required for data: 763479072
I0403 21:47:59.383821 24282 layer_factory.hpp:77] Creating layer inception_3b/pool_proj
I0403 21:47:59.383842 24282 net.cpp:91] Creating Layer inception_3b/pool_proj
I0403 21:47:59.383860 24282 net.cpp:425] inception_3b/pool_proj <- inception_3b/pool
I0403 21:47:59.383880 24282 net.cpp:399] inception_3b/pool_proj -> inception_3b/pool_proj
I0403 21:47:59.384896 24282 net.cpp:141] Setting up inception_3b/pool_proj
I0403 21:47:59.384928 24282 net.cpp:148] Top shape: 24 64 28 28 (1204224)
I0403 21:47:59.384944 24282 net.cpp:156] Memory required for data: 768295968
I0403 21:47:59.384963 24282 layer_factory.hpp:77] Creating layer inception_3b/relu_pool_proj
I0403 21:47:59.384984 24282 net.cpp:91] Creating Layer inception_3b/relu_pool_proj
I0403 21:47:59.385000 24282 net.cpp:425] inception_3b/relu_pool_proj <- inception_3b/pool_proj
I0403 21:47:59.385020 24282 net.cpp:386] inception_3b/relu_pool_proj -> inception_3b/pool_proj (in-place)
I0403 21:47:59.385408 24282 net.cpp:141] Setting up inception_3b/relu_pool_proj
I0403 21:47:59.385437 24282 net.cpp:148] Top shape: 24 64 28 28 (1204224)
I0403 21:47:59.385453 24282 net.cpp:156] Memory required for data: 773112864
I0403 21:47:59.385468 24282 layer_factory.hpp:77] Creating layer inception_3b/output
I0403 21:47:59.385485 24282 net.cpp:91] Creating Layer inception_3b/output
I0403 21:47:59.385501 24282 net.cpp:425] inception_3b/output <- inception_3b/1x1
I0403 21:47:59.385519 24282 net.cpp:425] inception_3b/output <- inception_3b/3x3
I0403 21:47:59.385535 24282 net.cpp:425] inception_3b/output <- inception_3b/5x5
I0403 21:47:59.385550 24282 net.cpp:425] inception_3b/output <- inception_3b/pool_proj
I0403 21:47:59.385567 24282 net.cpp:399] inception_3b/output -> inception_3b/output
I0403 21:47:59.385612 24282 net.cpp:141] Setting up inception_3b/output
I0403 21:47:59.385637 24282 net.cpp:148] Top shape: 24 480 28 28 (9031680)
I0403 21:47:59.385653 24282 net.cpp:156] Memory required for data: 809239584
I0403 21:47:59.385668 24282 layer_factory.hpp:77] Creating layer pool3/3x3_s2
I0403 21:47:59.385687 24282 net.cpp:91] Creating Layer pool3/3x3_s2
I0403 21:47:59.385704 24282 net.cpp:425] pool3/3x3_s2 <- inception_3b/output
I0403 21:47:59.385737 24282 net.cpp:399] pool3/3x3_s2 -> pool3/3x3_s2
I0403 21:47:59.385797 24282 net.cpp:141] Setting up pool3/3x3_s2
I0403 21:47:59.385819 24282 net.cpp:148] Top shape: 24 480 14 14 (2257920)
I0403 21:47:59.385835 24282 net.cpp:156] Memory required for data: 818271264
I0403 21:47:59.385850 24282 layer_factory.hpp:77] Creating layer pool3/3x3_s2_pool3/3x3_s2_0_split
I0403 21:47:59.385867 24282 net.cpp:91] Creating Layer pool3/3x3_s2_pool3/3x3_s2_0_split
I0403 21:47:59.385884 24282 net.cpp:425] pool3/3x3_s2_pool3/3x3_s2_0_split <- pool3/3x3_s2
I0403 21:47:59.385903 24282 net.cpp:399] pool3/3x3_s2_pool3/3x3_s2_0_split -> pool3/3x3_s2_pool3/3x3_s2_0_split_0
I0403 21:47:59.385926 24282 net.cpp:399] pool3/3x3_s2_pool3/3x3_s2_0_split -> pool3/3x3_s2_pool3/3x3_s2_0_split_1
I0403 21:47:59.385946 24282 net.cpp:399] pool3/3x3_s2_pool3/3x3_s2_0_split -> pool3/3x3_s2_pool3/3x3_s2_0_split_2
I0403 21:47:59.385967 24282 net.cpp:399] pool3/3x3_s2_pool3/3x3_s2_0_split -> pool3/3x3_s2_pool3/3x3_s2_0_split_3
I0403 21:47:59.386041 24282 net.cpp:141] Setting up pool3/3x3_s2_pool3/3x3_s2_0_split
I0403 21:47:59.386066 24282 net.cpp:148] Top shape: 24 480 14 14 (2257920)
I0403 21:47:59.386085 24282 net.cpp:148] Top shape: 24 480 14 14 (2257920)
I0403 21:47:59.386101 24282 net.cpp:148] Top shape: 24 480 14 14 (2257920)
I0403 21:47:59.386117 24282 net.cpp:148] Top shape: 24 480 14 14 (2257920)
I0403 21:47:59.386132 24282 net.cpp:156] Memory required for data: 854397984
I0403 21:47:59.386147 24282 layer_factory.hpp:77] Creating layer inception_4a/1x1
I0403 21:47:59.386168 24282 net.cpp:91] Creating Layer inception_4a/1x1
I0403 21:47:59.386186 24282 net.cpp:425] inception_4a/1x1 <- pool3/3x3_s2_pool3/3x3_s2_0_split_0
I0403 21:47:59.386205 24282 net.cpp:399] inception_4a/1x1 -> inception_4a/1x1
I0403 21:47:59.387722 24282 net.cpp:141] Setting up inception_4a/1x1
I0403 21:47:59.387749 24282 net.cpp:148] Top shape: 24 192 14 14 (903168)
I0403 21:47:59.387765 24282 net.cpp:156] Memory required for data: 858010656
I0403 21:47:59.387784 24282 layer_factory.hpp:77] Creating layer inception_4a/relu_1x1
I0403 21:47:59.387802 24282 net.cpp:91] Creating Layer inception_4a/relu_1x1
I0403 21:47:59.387819 24282 net.cpp:425] inception_4a/relu_1x1 <- inception_4a/1x1
I0403 21:47:59.387837 24282 net.cpp:386] inception_4a/relu_1x1 -> inception_4a/1x1 (in-place)
I0403 21:47:59.388012 24282 net.cpp:141] Setting up inception_4a/relu_1x1
I0403 21:47:59.388038 24282 net.cpp:148] Top shape: 24 192 14 14 (903168)
I0403 21:47:59.388053 24282 net.cpp:156] Memory required for data: 861623328
I0403 21:47:59.388068 24282 layer_factory.hpp:77] Creating layer inception_4a/3x3_reduce
I0403 21:47:59.388092 24282 net.cpp:91] Creating Layer inception_4a/3x3_reduce
I0403 21:47:59.388109 24282 net.cpp:425] inception_4a/3x3_reduce <- pool3/3x3_s2_pool3/3x3_s2_0_split_1
I0403 21:47:59.388130 24282 net.cpp:399] inception_4a/3x3_reduce -> inception_4a/3x3_reduce
I0403 21:47:59.389370 24282 net.cpp:141] Setting up inception_4a/3x3_reduce
I0403 21:47:59.389400 24282 net.cpp:148] Top shape: 24 96 14 14 (451584)
I0403 21:47:59.389417 24282 net.cpp:156] Memory required for data: 863429664
I0403 21:47:59.389441 24282 layer_factory.hpp:77] Creating layer inception_4a/relu_3x3_reduce
I0403 21:47:59.389462 24282 net.cpp:91] Creating Layer inception_4a/relu_3x3_reduce
I0403 21:47:59.389478 24282 net.cpp:425] inception_4a/relu_3x3_reduce <- inception_4a/3x3_reduce
I0403 21:47:59.389498 24282 net.cpp:386] inception_4a/relu_3x3_reduce -> inception_4a/3x3_reduce (in-place)
I0403 21:47:59.389670 24282 net.cpp:141] Setting up inception_4a/relu_3x3_reduce
I0403 21:47:59.389695 24282 net.cpp:148] Top shape: 24 96 14 14 (451584)
I0403 21:47:59.389711 24282 net.cpp:156] Memory required for data: 865236000
I0403 21:47:59.389726 24282 layer_factory.hpp:77] Creating layer inception_4a/3x3
I0403 21:47:59.389750 24282 net.cpp:91] Creating Layer inception_4a/3x3
I0403 21:47:59.389768 24282 net.cpp:425] inception_4a/3x3 <- inception_4a/3x3_reduce
I0403 21:47:59.389789 24282 net.cpp:399] inception_4a/3x3 -> inception_4a/3x3
I0403 21:47:59.392402 24282 net.cpp:141] Setting up inception_4a/3x3
I0403 21:47:59.392431 24282 net.cpp:148] Top shape: 24 208 14 14 (978432)
I0403 21:47:59.392448 24282 net.cpp:156] Memory required for data: 869149728
I0403 21:47:59.392467 24282 layer_factory.hpp:77] Creating layer inception_4a/relu_3x3
I0403 21:47:59.392488 24282 net.cpp:91] Creating Layer inception_4a/relu_3x3
I0403 21:47:59.392505 24282 net.cpp:425] inception_4a/relu_3x3 <- inception_4a/3x3
I0403 21:47:59.392524 24282 net.cpp:386] inception_4a/relu_3x3 -> inception_4a/3x3 (in-place)
I0403 21:47:59.392792 24282 net.cpp:141] Setting up inception_4a/relu_3x3
I0403 21:47:59.392817 24282 net.cpp:148] Top shape: 24 208 14 14 (978432)
I0403 21:47:59.392833 24282 net.cpp:156] Memory required for data: 873063456
I0403 21:47:59.392849 24282 layer_factory.hpp:77] Creating layer inception_4a/5x5_reduce
I0403 21:47:59.392873 24282 net.cpp:91] Creating Layer inception_4a/5x5_reduce
I0403 21:47:59.392891 24282 net.cpp:425] inception_4a/5x5_reduce <- pool3/3x3_s2_pool3/3x3_s2_0_split_2
I0403 21:47:59.392913 24282 net.cpp:399] inception_4a/5x5_reduce -> inception_4a/5x5_reduce
I0403 21:47:59.393901 24282 net.cpp:141] Setting up inception_4a/5x5_reduce
I0403 21:47:59.393930 24282 net.cpp:148] Top shape: 24 16 14 14 (75264)
I0403 21:47:59.393946 24282 net.cpp:156] Memory required for data: 873364512
I0403 21:47:59.393965 24282 layer_factory.hpp:77] Creating layer inception_4a/relu_5x5_reduce
I0403 21:47:59.393987 24282 net.cpp:91] Creating Layer inception_4a/relu_5x5_reduce
I0403 21:47:59.394006 24282 net.cpp:425] inception_4a/relu_5x5_reduce <- inception_4a/5x5_reduce
I0403 21:47:59.394022 24282 net.cpp:386] inception_4a/relu_5x5_reduce -> inception_4a/5x5_reduce (in-place)
I0403 21:47:59.394194 24282 net.cpp:141] Setting up inception_4a/relu_5x5_reduce
I0403 21:47:59.394222 24282 net.cpp:148] Top shape: 24 16 14 14 (75264)
I0403 21:47:59.394243 24282 net.cpp:156] Memory required for data: 873665568
I0403 21:47:59.394259 24282 layer_factory.hpp:77] Creating layer inception_4a/5x5
I0403 21:47:59.394282 24282 net.cpp:91] Creating Layer inception_4a/5x5
I0403 21:47:59.394300 24282 net.cpp:425] inception_4a/5x5 <- inception_4a/5x5_reduce
I0403 21:47:59.394320 24282 net.cpp:399] inception_4a/5x5 -> inception_4a/5x5
I0403 21:47:59.395381 24282 net.cpp:141] Setting up inception_4a/5x5
I0403 21:47:59.395411 24282 net.cpp:148] Top shape: 24 48 14 14 (225792)
I0403 21:47:59.395427 24282 net.cpp:156] Memory required for data: 874568736
I0403 21:47:59.395447 24282 layer_factory.hpp:77] Creating layer inception_4a/relu_5x5
I0403 21:47:59.395464 24282 net.cpp:91] Creating Layer inception_4a/relu_5x5
I0403 21:47:59.395480 24282 net.cpp:425] inception_4a/relu_5x5 <- inception_4a/5x5
I0403 21:47:59.395503 24282 net.cpp:386] inception_4a/relu_5x5 -> inception_4a/5x5 (in-place)
I0403 21:47:59.395678 24282 net.cpp:141] Setting up inception_4a/relu_5x5
I0403 21:47:59.395702 24282 net.cpp:148] Top shape: 24 48 14 14 (225792)
I0403 21:47:59.395717 24282 net.cpp:156] Memory required for data: 875471904
I0403 21:47:59.395732 24282 layer_factory.hpp:77] Creating layer inception_4a/pool
I0403 21:47:59.395751 24282 net.cpp:91] Creating Layer inception_4a/pool
I0403 21:47:59.395768 24282 net.cpp:425] inception_4a/pool <- pool3/3x3_s2_pool3/3x3_s2_0_split_3
I0403 21:47:59.395788 24282 net.cpp:399] inception_4a/pool -> inception_4a/pool
I0403 21:47:59.395849 24282 net.cpp:141] Setting up inception_4a/pool
I0403 21:47:59.395874 24282 net.cpp:148] Top shape: 24 480 14 14 (2257920)
I0403 21:47:59.395889 24282 net.cpp:156] Memory required for data: 884503584
I0403 21:47:59.395903 24282 layer_factory.hpp:77] Creating layer inception_4a/pool_proj
I0403 21:47:59.395926 24282 net.cpp:91] Creating Layer inception_4a/pool_proj
I0403 21:47:59.395944 24282 net.cpp:425] inception_4a/pool_proj <- inception_4a/pool
I0403 21:47:59.395963 24282 net.cpp:399] inception_4a/pool_proj -> inception_4a/pool_proj
I0403 21:47:59.397150 24282 net.cpp:141] Setting up inception_4a/pool_proj
I0403 21:47:59.397181 24282 net.cpp:148] Top shape: 24 64 14 14 (301056)
I0403 21:47:59.397212 24282 net.cpp:156] Memory required for data: 885707808
I0403 21:47:59.397236 24282 layer_factory.hpp:77] Creating layer inception_4a/relu_pool_proj
I0403 21:47:59.397258 24282 net.cpp:91] Creating Layer inception_4a/relu_pool_proj
I0403 21:47:59.397274 24282 net.cpp:425] inception_4a/relu_pool_proj <- inception_4a/pool_proj
I0403 21:47:59.397295 24282 net.cpp:386] inception_4a/relu_pool_proj -> inception_4a/pool_proj (in-place)
I0403 21:47:59.397581 24282 net.cpp:141] Setting up inception_4a/relu_pool_proj
I0403 21:47:59.397610 24282 net.cpp:148] Top shape: 24 64 14 14 (301056)
I0403 21:47:59.397626 24282 net.cpp:156] Memory required for data: 886912032
I0403 21:47:59.397642 24282 layer_factory.hpp:77] Creating layer inception_4a/output
I0403 21:47:59.397660 24282 net.cpp:91] Creating Layer inception_4a/output
I0403 21:47:59.397676 24282 net.cpp:425] inception_4a/output <- inception_4a/1x1
I0403 21:47:59.397694 24282 net.cpp:425] inception_4a/output <- inception_4a/3x3
I0403 21:47:59.397711 24282 net.cpp:425] inception_4a/output <- inception_4a/5x5
I0403 21:47:59.397727 24282 net.cpp:425] inception_4a/output <- inception_4a/pool_proj
I0403 21:47:59.397747 24282 net.cpp:399] inception_4a/output -> inception_4a/output
I0403 21:47:59.397790 24282 net.cpp:141] Setting up inception_4a/output
I0403 21:47:59.397814 24282 net.cpp:148] Top shape: 24 512 14 14 (2408448)
I0403 21:47:59.397830 24282 net.cpp:156] Memory required for data: 896545824
I0403 21:47:59.397845 24282 layer_factory.hpp:77] Creating layer inception_4a/output_inception_4a/output_0_split
I0403 21:47:59.397866 24282 net.cpp:91] Creating Layer inception_4a/output_inception_4a/output_0_split
I0403 21:47:59.397883 24282 net.cpp:425] inception_4a/output_inception_4a/output_0_split <- inception_4a/output
I0403 21:47:59.397902 24282 net.cpp:399] inception_4a/output_inception_4a/output_0_split -> inception_4a/output_inception_4a/output_0_split_0
I0403 21:47:59.397923 24282 net.cpp:399] inception_4a/output_inception_4a/output_0_split -> inception_4a/output_inception_4a/output_0_split_1
I0403 21:47:59.397948 24282 net.cpp:399] inception_4a/output_inception_4a/output_0_split -> inception_4a/output_inception_4a/output_0_split_2
I0403 21:47:59.397969 24282 net.cpp:399] inception_4a/output_inception_4a/output_0_split -> inception_4a/output_inception_4a/output_0_split_3
I0403 21:47:59.397990 24282 net.cpp:399] inception_4a/output_inception_4a/output_0_split -> inception_4a/output_inception_4a/output_0_split_4
I0403 21:47:59.398084 24282 net.cpp:141] Setting up inception_4a/output_inception_4a/output_0_split
I0403 21:47:59.398109 24282 net.cpp:148] Top shape: 24 512 14 14 (2408448)
I0403 21:47:59.398125 24282 net.cpp:148] Top shape: 24 512 14 14 (2408448)
I0403 21:47:59.398143 24282 net.cpp:148] Top shape: 24 512 14 14 (2408448)
I0403 21:47:59.398159 24282 net.cpp:148] Top shape: 24 512 14 14 (2408448)
I0403 21:47:59.398175 24282 net.cpp:148] Top shape: 24 512 14 14 (2408448)
I0403 21:47:59.398188 24282 net.cpp:156] Memory required for data: 944714784
I0403 21:47:59.398203 24282 layer_factory.hpp:77] Creating layer loss1/ave_pool
I0403 21:47:59.398236 24282 net.cpp:91] Creating Layer loss1/ave_pool
I0403 21:47:59.398257 24282 net.cpp:425] loss1/ave_pool <- inception_4a/output_inception_4a/output_0_split_0
I0403 21:47:59.398277 24282 net.cpp:399] loss1/ave_pool -> loss1/ave_pool
I0403 21:47:59.398481 24282 net.cpp:141] Setting up loss1/ave_pool
I0403 21:47:59.398510 24282 net.cpp:148] Top shape: 24 512 4 4 (196608)
I0403 21:47:59.398527 24282 net.cpp:156] Memory required for data: 945501216
I0403 21:47:59.398543 24282 layer_factory.hpp:77] Creating layer loss1/conv
I0403 21:47:59.398566 24282 net.cpp:91] Creating Layer loss1/conv
I0403 21:47:59.398586 24282 net.cpp:425] loss1/conv <- loss1/ave_pool
I0403 21:47:59.398604 24282 net.cpp:399] loss1/conv -> loss1/conv
I0403 21:47:59.400009 24282 net.cpp:141] Setting up loss1/conv
I0403 21:47:59.400038 24282 net.cpp:148] Top shape: 24 128 4 4 (49152)
I0403 21:47:59.400068 24282 net.cpp:156] Memory required for data: 945697824
I0403 21:47:59.400089 24282 layer_factory.hpp:77] Creating layer loss1/relu_conv
I0403 21:47:59.400110 24282 net.cpp:91] Creating Layer loss1/relu_conv
I0403 21:47:59.400130 24282 net.cpp:425] loss1/relu_conv <- loss1/conv
I0403 21:47:59.400146 24282 net.cpp:386] loss1/relu_conv -> loss1/conv (in-place)
I0403 21:47:59.400434 24282 net.cpp:141] Setting up loss1/relu_conv
I0403 21:47:59.400460 24282 net.cpp:148] Top shape: 24 128 4 4 (49152)
I0403 21:47:59.400476 24282 net.cpp:156] Memory required for data: 945894432
I0403 21:47:59.400492 24282 layer_factory.hpp:77] Creating layer loss1/fc
I0403 21:47:59.400518 24282 net.cpp:91] Creating Layer loss1/fc
I0403 21:47:59.400537 24282 net.cpp:425] loss1/fc <- loss1/conv
I0403 21:47:59.400557 24282 net.cpp:399] loss1/fc -> loss1/fc
I0403 21:47:59.418285 24282 net.cpp:141] Setting up loss1/fc
I0403 21:47:59.418323 24282 net.cpp:148] Top shape: 24 1024 (24576)
I0403 21:47:59.418339 24282 net.cpp:156] Memory required for data: 945992736
I0403 21:47:59.418357 24282 layer_factory.hpp:77] Creating layer loss1/relu_fc
I0403 21:47:59.418376 24282 net.cpp:91] Creating Layer loss1/relu_fc
I0403 21:47:59.418392 24282 net.cpp:425] loss1/relu_fc <- loss1/fc
I0403 21:47:59.418412 24282 net.cpp:386] loss1/relu_fc -> loss1/fc (in-place)
I0403 21:47:59.418599 24282 net.cpp:141] Setting up loss1/relu_fc
I0403 21:47:59.418625 24282 net.cpp:148] Top shape: 24 1024 (24576)
I0403 21:47:59.418640 24282 net.cpp:156] Memory required for data: 946091040
I0403 21:47:59.418655 24282 layer_factory.hpp:77] Creating layer loss1/drop_fc
I0403 21:47:59.418683 24282 net.cpp:91] Creating Layer loss1/drop_fc
I0403 21:47:59.418699 24282 net.cpp:425] loss1/drop_fc <- loss1/fc
I0403 21:47:59.418720 24282 net.cpp:386] loss1/drop_fc -> loss1/fc (in-place)
I0403 21:47:59.418772 24282 net.cpp:141] Setting up loss1/drop_fc
I0403 21:47:59.418798 24282 net.cpp:148] Top shape: 24 1024 (24576)
I0403 21:47:59.418814 24282 net.cpp:156] Memory required for data: 946189344
I0403 21:47:59.418831 24282 layer_factory.hpp:77] Creating layer loss1/classifier_plantvillage
I0403 21:47:59.418850 24282 net.cpp:91] Creating Layer loss1/classifier_plantvillage
I0403 21:47:59.418867 24282 net.cpp:425] loss1/classifier_plantvillage <- loss1/fc
I0403 21:47:59.418889 24282 net.cpp:399] loss1/classifier_plantvillage -> loss1/classifier_plantvillage
I0403 21:47:59.419796 24282 net.cpp:141] Setting up loss1/classifier_plantvillage
I0403 21:47:59.419824 24282 net.cpp:148] Top shape: 24 38 (912)
I0403 21:47:59.419841 24282 net.cpp:156] Memory required for data: 946192992
I0403 21:47:59.419858 24282 layer_factory.hpp:77] Creating layer loss1/classifier_plantvillage_loss1/classifier_plantvillage_0_split
I0403 21:47:59.419875 24282 net.cpp:91] Creating Layer loss1/classifier_plantvillage_loss1/classifier_plantvillage_0_split
I0403 21:47:59.419891 24282 net.cpp:425] loss1/classifier_plantvillage_loss1/classifier_plantvillage_0_split <- loss1/classifier_plantvillage
I0403 21:47:59.419911 24282 net.cpp:399] loss1/classifier_plantvillage_loss1/classifier_plantvillage_0_split -> loss1/classifier_plantvillage_loss1/classifier_plantvillage_0_split_0
I0403 21:47:59.419934 24282 net.cpp:399] loss1/classifier_plantvillage_loss1/classifier_plantvillage_0_split -> loss1/classifier_plantvillage_loss1/classifier_plantvillage_0_split_1
I0403 21:47:59.419956 24282 net.cpp:399] loss1/classifier_plantvillage_loss1/classifier_plantvillage_0_split -> loss1/classifier_plantvillage_loss1/classifier_plantvillage_0_split_2
I0403 21:47:59.420025 24282 net.cpp:141] Setting up loss1/classifier_plantvillage_loss1/classifier_plantvillage_0_split
I0403 21:47:59.420049 24282 net.cpp:148] Top shape: 24 38 (912)
I0403 21:47:59.420066 24282 net.cpp:148] Top shape: 24 38 (912)
I0403 21:47:59.420083 24282 net.cpp:148] Top shape: 24 38 (912)
I0403 21:47:59.420096 24282 net.cpp:156] Memory required for data: 946203936
I0403 21:47:59.420112 24282 layer_factory.hpp:77] Creating layer inception_4b/1x1
I0403 21:47:59.420136 24282 net.cpp:91] Creating Layer inception_4b/1x1
I0403 21:47:59.420171 24282 net.cpp:425] inception_4b/1x1 <- inception_4a/output_inception_4a/output_0_split_1
I0403 21:47:59.420192 24282 net.cpp:399] inception_4b/1x1 -> inception_4b/1x1
I0403 21:47:59.421802 24282 net.cpp:141] Setting up inception_4b/1x1
I0403 21:47:59.421830 24282 net.cpp:148] Top shape: 24 160 14 14 (752640)
I0403 21:47:59.421846 24282 net.cpp:156] Memory required for data: 949214496
I0403 21:47:59.421865 24282 layer_factory.hpp:77] Creating layer inception_4b/relu_1x1
I0403 21:47:59.421885 24282 net.cpp:91] Creating Layer inception_4b/relu_1x1
I0403 21:47:59.421902 24282 net.cpp:425] inception_4b/relu_1x1 <- inception_4b/1x1
I0403 21:47:59.421922 24282 net.cpp:386] inception_4b/relu_1x1 -> inception_4b/1x1 (in-place)
I0403 21:47:59.422101 24282 net.cpp:141] Setting up inception_4b/relu_1x1
I0403 21:47:59.422127 24282 net.cpp:148] Top shape: 24 160 14 14 (752640)
I0403 21:47:59.422144 24282 net.cpp:156] Memory required for data: 952225056
I0403 21:47:59.422159 24282 layer_factory.hpp:77] Creating layer inception_4b/3x3_reduce
I0403 21:47:59.422183 24282 net.cpp:91] Creating Layer inception_4b/3x3_reduce
I0403 21:47:59.422202 24282 net.cpp:425] inception_4b/3x3_reduce <- inception_4a/output_inception_4a/output_0_split_2
I0403 21:47:59.422222 24282 net.cpp:399] inception_4b/3x3_reduce -> inception_4b/3x3_reduce
I0403 21:47:59.423566 24282 net.cpp:141] Setting up inception_4b/3x3_reduce
I0403 21:47:59.423598 24282 net.cpp:148] Top shape: 24 112 14 14 (526848)
I0403 21:47:59.423615 24282 net.cpp:156] Memory required for data: 954332448
I0403 21:47:59.423635 24282 layer_factory.hpp:77] Creating layer inception_4b/relu_3x3_reduce
I0403 21:47:59.423651 24282 net.cpp:91] Creating Layer inception_4b/relu_3x3_reduce
I0403 21:47:59.423668 24282 net.cpp:425] inception_4b/relu_3x3_reduce <- inception_4b/3x3_reduce
I0403 21:47:59.423686 24282 net.cpp:386] inception_4b/relu_3x3_reduce -> inception_4b/3x3_reduce (in-place)
I0403 21:47:59.423959 24282 net.cpp:141] Setting up inception_4b/relu_3x3_reduce
I0403 21:47:59.423987 24282 net.cpp:148] Top shape: 24 112 14 14 (526848)
I0403 21:47:59.424003 24282 net.cpp:156] Memory required for data: 956439840
I0403 21:47:59.424018 24282 layer_factory.hpp:77] Creating layer inception_4b/3x3
I0403 21:47:59.424038 24282 net.cpp:91] Creating Layer inception_4b/3x3
I0403 21:47:59.424057 24282 net.cpp:425] inception_4b/3x3 <- inception_4b/3x3_reduce
I0403 21:47:59.424077 24282 net.cpp:399] inception_4b/3x3 -> inception_4b/3x3
I0403 21:47:59.427007 24282 net.cpp:141] Setting up inception_4b/3x3
I0403 21:47:59.427037 24282 net.cpp:148] Top shape: 24 224 14 14 (1053696)
I0403 21:47:59.427052 24282 net.cpp:156] Memory required for data: 960654624
I0403 21:47:59.427072 24282 layer_factory.hpp:77] Creating layer inception_4b/relu_3x3
I0403 21:47:59.427091 24282 net.cpp:91] Creating Layer inception_4b/relu_3x3
I0403 21:47:59.427109 24282 net.cpp:425] inception_4b/relu_3x3 <- inception_4b/3x3
I0403 21:47:59.427129 24282 net.cpp:386] inception_4b/relu_3x3 -> inception_4b/3x3 (in-place)
I0403 21:47:59.427311 24282 net.cpp:141] Setting up inception_4b/relu_3x3
I0403 21:47:59.427338 24282 net.cpp:148] Top shape: 24 224 14 14 (1053696)
I0403 21:47:59.427353 24282 net.cpp:156] Memory required for data: 964869408
I0403 21:47:59.427368 24282 layer_factory.hpp:77] Creating layer inception_4b/5x5_reduce
I0403 21:47:59.427392 24282 net.cpp:91] Creating Layer inception_4b/5x5_reduce
I0403 21:47:59.427409 24282 net.cpp:425] inception_4b/5x5_reduce <- inception_4a/output_inception_4a/output_0_split_3
I0403 21:47:59.427433 24282 net.cpp:399] inception_4b/5x5_reduce -> inception_4b/5x5_reduce
I0403 21:47:59.428504 24282 net.cpp:141] Setting up inception_4b/5x5_reduce
I0403 21:47:59.428532 24282 net.cpp:148] Top shape: 24 24 14 14 (112896)
I0403 21:47:59.428547 24282 net.cpp:156] Memory required for data: 965320992
I0403 21:47:59.428566 24282 layer_factory.hpp:77] Creating layer inception_4b/relu_5x5_reduce
I0403 21:47:59.428588 24282 net.cpp:91] Creating Layer inception_4b/relu_5x5_reduce
I0403 21:47:59.428619 24282 net.cpp:425] inception_4b/relu_5x5_reduce <- inception_4b/5x5_reduce
I0403 21:47:59.428638 24282 net.cpp:386] inception_4b/relu_5x5_reduce -> inception_4b/5x5_reduce (in-place)
I0403 21:47:59.428815 24282 net.cpp:141] Setting up inception_4b/relu_5x5_reduce
I0403 21:47:59.428843 24282 net.cpp:148] Top shape: 24 24 14 14 (112896)
I0403 21:47:59.428859 24282 net.cpp:156] Memory required for data: 965772576
I0403 21:47:59.428875 24282 layer_factory.hpp:77] Creating layer inception_4b/5x5
I0403 21:47:59.428897 24282 net.cpp:91] Creating Layer inception_4b/5x5
I0403 21:47:59.428916 24282 net.cpp:425] inception_4b/5x5 <- inception_4b/5x5_reduce
I0403 21:47:59.428936 24282 net.cpp:399] inception_4b/5x5 -> inception_4b/5x5
I0403 21:47:59.430130 24282 net.cpp:141] Setting up inception_4b/5x5
I0403 21:47:59.430158 24282 net.cpp:148] Top shape: 24 64 14 14 (301056)
I0403 21:47:59.430174 24282 net.cpp:156] Memory required for data: 966976800
I0403 21:47:59.430192 24282 layer_factory.hpp:77] Creating layer inception_4b/relu_5x5
I0403 21:47:59.430213 24282 net.cpp:91] Creating Layer inception_4b/relu_5x5
I0403 21:47:59.430235 24282 net.cpp:425] inception_4b/relu_5x5 <- inception_4b/5x5
I0403 21:47:59.430256 24282 net.cpp:386] inception_4b/relu_5x5 -> inception_4b/5x5 (in-place)
I0403 21:47:59.430534 24282 net.cpp:141] Setting up inception_4b/relu_5x5
I0403 21:47:59.430560 24282 net.cpp:148] Top shape: 24 64 14 14 (301056)
I0403 21:47:59.430575 24282 net.cpp:156] Memory required for data: 968181024
I0403 21:47:59.430591 24282 layer_factory.hpp:77] Creating layer inception_4b/pool
I0403 21:47:59.430613 24282 net.cpp:91] Creating Layer inception_4b/pool
I0403 21:47:59.430630 24282 net.cpp:425] inception_4b/pool <- inception_4a/output_inception_4a/output_0_split_4
I0403 21:47:59.430649 24282 net.cpp:399] inception_4b/pool -> inception_4b/pool
I0403 21:47:59.430714 24282 net.cpp:141] Setting up inception_4b/pool
I0403 21:47:59.430738 24282 net.cpp:148] Top shape: 24 512 14 14 (2408448)
I0403 21:47:59.430753 24282 net.cpp:156] Memory required for data: 977814816
I0403 21:47:59.430769 24282 layer_factory.hpp:77] Creating layer inception_4b/pool_proj
I0403 21:47:59.430790 24282 net.cpp:91] Creating Layer inception_4b/pool_proj
I0403 21:47:59.430809 24282 net.cpp:425] inception_4b/pool_proj <- inception_4b/pool
I0403 21:47:59.430830 24282 net.cpp:399] inception_4b/pool_proj -> inception_4b/pool_proj
I0403 21:47:59.432015 24282 net.cpp:141] Setting up inception_4b/pool_proj
I0403 21:47:59.432044 24282 net.cpp:148] Top shape: 24 64 14 14 (301056)
I0403 21:47:59.432061 24282 net.cpp:156] Memory required for data: 979019040
I0403 21:47:59.432080 24282 layer_factory.hpp:77] Creating layer inception_4b/relu_pool_proj
I0403 21:47:59.432101 24282 net.cpp:91] Creating Layer inception_4b/relu_pool_proj
I0403 21:47:59.432119 24282 net.cpp:425] inception_4b/relu_pool_proj <- inception_4b/pool_proj
I0403 21:47:59.432137 24282 net.cpp:386] inception_4b/relu_pool_proj -> inception_4b/pool_proj (in-place)
I0403 21:47:59.432329 24282 net.cpp:141] Setting up inception_4b/relu_pool_proj
I0403 21:47:59.432358 24282 net.cpp:148] Top shape: 24 64 14 14 (301056)
I0403 21:47:59.432373 24282 net.cpp:156] Memory required for data: 980223264
I0403 21:47:59.432386 24282 layer_factory.hpp:77] Creating layer inception_4b/output
I0403 21:47:59.432404 24282 net.cpp:91] Creating Layer inception_4b/output
I0403 21:47:59.432420 24282 net.cpp:425] inception_4b/output <- inception_4b/1x1
I0403 21:47:59.432436 24282 net.cpp:425] inception_4b/output <- inception_4b/3x3
I0403 21:47:59.432453 24282 net.cpp:425] inception_4b/output <- inception_4b/5x5
I0403 21:47:59.432471 24282 net.cpp:425] inception_4b/output <- inception_4b/pool_proj
I0403 21:47:59.432487 24282 net.cpp:399] inception_4b/output -> inception_4b/output
I0403 21:47:59.432533 24282 net.cpp:141] Setting up inception_4b/output
I0403 21:47:59.432556 24282 net.cpp:148] Top shape: 24 512 14 14 (2408448)
I0403 21:47:59.432571 24282 net.cpp:156] Memory required for data: 989857056
I0403 21:47:59.432601 24282 layer_factory.hpp:77] Creating layer inception_4b/output_inception_4b/output_0_split
I0403 21:47:59.432622 24282 net.cpp:91] Creating Layer inception_4b/output_inception_4b/output_0_split
I0403 21:47:59.432639 24282 net.cpp:425] inception_4b/output_inception_4b/output_0_split <- inception_4b/output
I0403 21:47:59.432657 24282 net.cpp:399] inception_4b/output_inception_4b/output_0_split -> inception_4b/output_inception_4b/output_0_split_0
I0403 21:47:59.432678 24282 net.cpp:399] inception_4b/output_inception_4b/output_0_split -> inception_4b/output_inception_4b/output_0_split_1
I0403 21:47:59.432699 24282 net.cpp:399] inception_4b/output_inception_4b/output_0_split -> inception_4b/output_inception_4b/output_0_split_2
I0403 21:47:59.432720 24282 net.cpp:399] inception_4b/output_inception_4b/output_0_split -> inception_4b/output_inception_4b/output_0_split_3
I0403 21:47:59.432806 24282 net.cpp:141] Setting up inception_4b/output_inception_4b/output_0_split
I0403 21:47:59.432831 24282 net.cpp:148] Top shape: 24 512 14 14 (2408448)
I0403 21:47:59.432847 24282 net.cpp:148] Top shape: 24 512 14 14 (2408448)
I0403 21:47:59.432863 24282 net.cpp:148] Top shape: 24 512 14 14 (2408448)
I0403 21:47:59.432879 24282 net.cpp:148] Top shape: 24 512 14 14 (2408448)
I0403 21:47:59.432894 24282 net.cpp:156] Memory required for data: 1028392224
I0403 21:47:59.432909 24282 layer_factory.hpp:77] Creating layer inception_4c/1x1
I0403 21:47:59.432932 24282 net.cpp:91] Creating Layer inception_4c/1x1
I0403 21:47:59.432950 24282 net.cpp:425] inception_4c/1x1 <- inception_4b/output_inception_4b/output_0_split_0
I0403 21:47:59.432973 24282 net.cpp:399] inception_4c/1x1 -> inception_4c/1x1
I0403 21:47:59.434377 24282 net.cpp:141] Setting up inception_4c/1x1
I0403 21:47:59.434408 24282 net.cpp:148] Top shape: 24 128 14 14 (602112)
I0403 21:47:59.434427 24282 net.cpp:156] Memory required for data: 1030800672
I0403 21:47:59.434445 24282 layer_factory.hpp:77] Creating layer inception_4c/relu_1x1
I0403 21:47:59.434464 24282 net.cpp:91] Creating Layer inception_4c/relu_1x1
I0403 21:47:59.434480 24282 net.cpp:425] inception_4c/relu_1x1 <- inception_4c/1x1
I0403 21:47:59.434500 24282 net.cpp:386] inception_4c/relu_1x1 -> inception_4c/1x1 (in-place)
I0403 21:47:59.434681 24282 net.cpp:141] Setting up inception_4c/relu_1x1
I0403 21:47:59.434706 24282 net.cpp:148] Top shape: 24 128 14 14 (602112)
I0403 21:47:59.434722 24282 net.cpp:156] Memory required for data: 1033209120
I0403 21:47:59.434737 24282 layer_factory.hpp:77] Creating layer inception_4c/3x3_reduce
I0403 21:47:59.434759 24282 net.cpp:91] Creating Layer inception_4c/3x3_reduce
I0403 21:47:59.434777 24282 net.cpp:425] inception_4c/3x3_reduce <- inception_4b/output_inception_4b/output_0_split_1
I0403 21:47:59.434798 24282 net.cpp:399] inception_4c/3x3_reduce -> inception_4c/3x3_reduce
I0403 21:47:59.436744 24282 net.cpp:141] Setting up inception_4c/3x3_reduce
I0403 21:47:59.436774 24282 net.cpp:148] Top shape: 24 128 14 14 (602112)
I0403 21:47:59.436789 24282 net.cpp:156] Memory required for data: 1035617568
I0403 21:47:59.436807 24282 layer_factory.hpp:77] Creating layer inception_4c/relu_3x3_reduce
I0403 21:47:59.436828 24282 net.cpp:91] Creating Layer inception_4c/relu_3x3_reduce
I0403 21:47:59.436846 24282 net.cpp:425] inception_4c/relu_3x3_reduce <- inception_4c/3x3_reduce
I0403 21:47:59.436864 24282 net.cpp:386] inception_4c/relu_3x3_reduce -> inception_4c/3x3_reduce (in-place)
I0403 21:47:59.437161 24282 net.cpp:141] Setting up inception_4c/relu_3x3_reduce
I0403 21:47:59.437211 24282 net.cpp:148] Top shape: 24 128 14 14 (602112)
I0403 21:47:59.437225 24282 net.cpp:156] Memory required for data: 1038026016
I0403 21:47:59.437247 24282 layer_factory.hpp:77] Creating layer inception_4c/3x3
I0403 21:47:59.437269 24282 net.cpp:91] Creating Layer inception_4c/3x3
I0403 21:47:59.437288 24282 net.cpp:425] inception_4c/3x3 <- inception_4c/3x3_reduce
I0403 21:47:59.437309 24282 net.cpp:399] inception_4c/3x3 -> inception_4c/3x3
I0403 21:47:59.440874 24282 net.cpp:141] Setting up inception_4c/3x3
I0403 21:47:59.440915 24282 net.cpp:148] Top shape: 24 256 14 14 (1204224)
I0403 21:47:59.440932 24282 net.cpp:156] Memory required for data: 1042842912
I0403 21:47:59.440963 24282 layer_factory.hpp:77] Creating layer inception_4c/relu_3x3
I0403 21:47:59.440987 24282 net.cpp:91] Creating Layer inception_4c/relu_3x3
I0403 21:47:59.441005 24282 net.cpp:425] inception_4c/relu_3x3 <- inception_4c/3x3
I0403 21:47:59.441023 24282 net.cpp:386] inception_4c/relu_3x3 -> inception_4c/3x3 (in-place)
I0403 21:47:59.441205 24282 net.cpp:141] Setting up inception_4c/relu_3x3
I0403 21:47:59.441233 24282 net.cpp:148] Top shape: 24 256 14 14 (1204224)
I0403 21:47:59.441251 24282 net.cpp:156] Memory required for data: 1047659808
I0403 21:47:59.441265 24282 layer_factory.hpp:77] Creating layer inception_4c/5x5_reduce
I0403 21:47:59.441288 24282 net.cpp:91] Creating Layer inception_4c/5x5_reduce
I0403 21:47:59.441308 24282 net.cpp:425] inception_4c/5x5_reduce <- inception_4b/output_inception_4b/output_0_split_2
I0403 21:47:59.441329 24282 net.cpp:399] inception_4c/5x5_reduce -> inception_4c/5x5_reduce
I0403 21:47:59.442410 24282 net.cpp:141] Setting up inception_4c/5x5_reduce
I0403 21:47:59.442438 24282 net.cpp:148] Top shape: 24 24 14 14 (112896)
I0403 21:47:59.442453 24282 net.cpp:156] Memory required for data: 1048111392
I0403 21:47:59.442473 24282 layer_factory.hpp:77] Creating layer inception_4c/relu_5x5_reduce
I0403 21:47:59.442494 24282 net.cpp:91] Creating Layer inception_4c/relu_5x5_reduce
I0403 21:47:59.442512 24282 net.cpp:425] inception_4c/relu_5x5_reduce <- inception_4c/5x5_reduce
I0403 21:47:59.442529 24282 net.cpp:386] inception_4c/relu_5x5_reduce -> inception_4c/5x5_reduce (in-place)
I0403 21:47:59.442711 24282 net.cpp:141] Setting up inception_4c/relu_5x5_reduce
I0403 21:47:59.442739 24282 net.cpp:148] Top shape: 24 24 14 14 (112896)
I0403 21:47:59.442755 24282 net.cpp:156] Memory required for data: 1048562976
I0403 21:47:59.442771 24282 layer_factory.hpp:77] Creating layer inception_4c/5x5
I0403 21:47:59.442793 24282 net.cpp:91] Creating Layer inception_4c/5x5
I0403 21:47:59.442811 24282 net.cpp:425] inception_4c/5x5 <- inception_4c/5x5_reduce
I0403 21:47:59.442831 24282 net.cpp:399] inception_4c/5x5 -> inception_4c/5x5
I0403 21:47:59.444043 24282 net.cpp:141] Setting up inception_4c/5x5
I0403 21:47:59.444072 24282 net.cpp:148] Top shape: 24 64 14 14 (301056)
I0403 21:47:59.444090 24282 net.cpp:156] Memory required for data: 1049767200
I0403 21:47:59.444108 24282 layer_factory.hpp:77] Creating layer inception_4c/relu_5x5
I0403 21:47:59.444126 24282 net.cpp:91] Creating Layer inception_4c/relu_5x5
I0403 21:47:59.444142 24282 net.cpp:425] inception_4c/relu_5x5 <- inception_4c/5x5
I0403 21:47:59.444159 24282 net.cpp:386] inception_4c/relu_5x5 -> inception_4c/5x5 (in-place)
I0403 21:47:59.444447 24282 net.cpp:141] Setting up inception_4c/relu_5x5
I0403 21:47:59.444476 24282 net.cpp:148] Top shape: 24 64 14 14 (301056)
I0403 21:47:59.444492 24282 net.cpp:156] Memory required for data: 1050971424
I0403 21:47:59.444507 24282 layer_factory.hpp:77] Creating layer inception_4c/pool
I0403 21:47:59.444525 24282 net.cpp:91] Creating Layer inception_4c/pool
I0403 21:47:59.444541 24282 net.cpp:425] inception_4c/pool <- inception_4b/output_inception_4b/output_0_split_3
I0403 21:47:59.444561 24282 net.cpp:399] inception_4c/pool -> inception_4c/pool
I0403 21:47:59.444627 24282 net.cpp:141] Setting up inception_4c/pool
I0403 21:47:59.444650 24282 net.cpp:148] Top shape: 24 512 14 14 (2408448)
I0403 21:47:59.444664 24282 net.cpp:156] Memory required for data: 1060605216
I0403 21:47:59.444679 24282 layer_factory.hpp:77] Creating layer inception_4c/pool_proj
I0403 21:47:59.444700 24282 net.cpp:91] Creating Layer inception_4c/pool_proj
I0403 21:47:59.444720 24282 net.cpp:425] inception_4c/pool_proj <- inception_4c/pool
I0403 21:47:59.444741 24282 net.cpp:399] inception_4c/pool_proj -> inception_4c/pool_proj
I0403 21:47:59.445932 24282 net.cpp:141] Setting up inception_4c/pool_proj
I0403 21:47:59.445960 24282 net.cpp:148] Top shape: 24 64 14 14 (301056)
I0403 21:47:59.445992 24282 net.cpp:156] Memory required for data: 1061809440
I0403 21:47:59.446012 24282 layer_factory.hpp:77] Creating layer inception_4c/relu_pool_proj
I0403 21:47:59.446034 24282 net.cpp:91] Creating Layer inception_4c/relu_pool_proj
I0403 21:47:59.446053 24282 net.cpp:425] inception_4c/relu_pool_proj <- inception_4c/pool_proj
I0403 21:47:59.446070 24282 net.cpp:386] inception_4c/relu_pool_proj -> inception_4c/pool_proj (in-place)
I0403 21:47:59.446254 24282 net.cpp:141] Setting up inception_4c/relu_pool_proj
I0403 21:47:59.446282 24282 net.cpp:148] Top shape: 24 64 14 14 (301056)
I0403 21:47:59.446300 24282 net.cpp:156] Memory required for data: 1063013664
I0403 21:47:59.446315 24282 layer_factory.hpp:77] Creating layer inception_4c/output
I0403 21:47:59.446332 24282 net.cpp:91] Creating Layer inception_4c/output
I0403 21:47:59.446347 24282 net.cpp:425] inception_4c/output <- inception_4c/1x1
I0403 21:47:59.446365 24282 net.cpp:425] inception_4c/output <- inception_4c/3x3
I0403 21:47:59.446380 24282 net.cpp:425] inception_4c/output <- inception_4c/5x5
I0403 21:47:59.446396 24282 net.cpp:425] inception_4c/output <- inception_4c/pool_proj
I0403 21:47:59.446413 24282 net.cpp:399] inception_4c/output -> inception_4c/output
I0403 21:47:59.446460 24282 net.cpp:141] Setting up inception_4c/output
I0403 21:47:59.446483 24282 net.cpp:148] Top shape: 24 512 14 14 (2408448)
I0403 21:47:59.446497 24282 net.cpp:156] Memory required for data: 1072647456
I0403 21:47:59.446512 24282 layer_factory.hpp:77] Creating layer inception_4c/output_inception_4c/output_0_split
I0403 21:47:59.446532 24282 net.cpp:91] Creating Layer inception_4c/output_inception_4c/output_0_split
I0403 21:47:59.446549 24282 net.cpp:425] inception_4c/output_inception_4c/output_0_split <- inception_4c/output
I0403 21:47:59.446566 24282 net.cpp:399] inception_4c/output_inception_4c/output_0_split -> inception_4c/output_inception_4c/output_0_split_0
I0403 21:47:59.446588 24282 net.cpp:399] inception_4c/output_inception_4c/output_0_split -> inception_4c/output_inception_4c/output_0_split_1
I0403 21:47:59.446609 24282 net.cpp:399] inception_4c/output_inception_4c/output_0_split -> inception_4c/output_inception_4c/output_0_split_2
I0403 21:47:59.446630 24282 net.cpp:399] inception_4c/output_inception_4c/output_0_split -> inception_4c/output_inception_4c/output_0_split_3
I0403 21:47:59.446713 24282 net.cpp:141] Setting up inception_4c/output_inception_4c/output_0_split
I0403 21:47:59.446738 24282 net.cpp:148] Top shape: 24 512 14 14 (2408448)
I0403 21:47:59.446754 24282 net.cpp:148] Top shape: 24 512 14 14 (2408448)
I0403 21:47:59.446770 24282 net.cpp:148] Top shape: 24 512 14 14 (2408448)
I0403 21:47:59.446786 24282 net.cpp:148] Top shape: 24 512 14 14 (2408448)
I0403 21:47:59.446800 24282 net.cpp:156] Memory required for data: 1111182624
I0403 21:47:59.446815 24282 layer_factory.hpp:77] Creating layer inception_4d/1x1
I0403 21:47:59.446836 24282 net.cpp:91] Creating Layer inception_4d/1x1
I0403 21:47:59.446856 24282 net.cpp:425] inception_4d/1x1 <- inception_4c/output_inception_4c/output_0_split_0
I0403 21:47:59.446877 24282 net.cpp:399] inception_4d/1x1 -> inception_4d/1x1
I0403 21:47:59.448292 24282 net.cpp:141] Setting up inception_4d/1x1
I0403 21:47:59.448320 24282 net.cpp:148] Top shape: 24 112 14 14 (526848)
I0403 21:47:59.448336 24282 net.cpp:156] Memory required for data: 1113290016
I0403 21:47:59.448354 24282 layer_factory.hpp:77] Creating layer inception_4d/relu_1x1
I0403 21:47:59.448374 24282 net.cpp:91] Creating Layer inception_4d/relu_1x1
I0403 21:47:59.448391 24282 net.cpp:425] inception_4d/relu_1x1 <- inception_4d/1x1
I0403 21:47:59.448411 24282 net.cpp:386] inception_4d/relu_1x1 -> inception_4d/1x1 (in-place)
I0403 21:47:59.448602 24282 net.cpp:141] Setting up inception_4d/relu_1x1
I0403 21:47:59.448628 24282 net.cpp:148] Top shape: 24 112 14 14 (526848)
I0403 21:47:59.448643 24282 net.cpp:156] Memory required for data: 1115397408
I0403 21:47:59.448658 24282 layer_factory.hpp:77] Creating layer inception_4d/3x3_reduce
I0403 21:47:59.448696 24282 net.cpp:91] Creating Layer inception_4d/3x3_reduce
I0403 21:47:59.448715 24282 net.cpp:425] inception_4d/3x3_reduce <- inception_4c/output_inception_4c/output_0_split_1
I0403 21:47:59.448739 24282 net.cpp:399] inception_4d/3x3_reduce -> inception_4d/3x3_reduce
I0403 21:47:59.450273 24282 net.cpp:141] Setting up inception_4d/3x3_reduce
I0403 21:47:59.450304 24282 net.cpp:148] Top shape: 24 144 14 14 (677376)
I0403 21:47:59.450321 24282 net.cpp:156] Memory required for data: 1118106912
I0403 21:47:59.450340 24282 layer_factory.hpp:77] Creating layer inception_4d/relu_3x3_reduce
I0403 21:47:59.450359 24282 net.cpp:91] Creating Layer inception_4d/relu_3x3_reduce
I0403 21:47:59.450378 24282 net.cpp:425] inception_4d/relu_3x3_reduce <- inception_4d/3x3_reduce
I0403 21:47:59.450398 24282 net.cpp:386] inception_4d/relu_3x3_reduce -> inception_4d/3x3_reduce (in-place)
I0403 21:47:59.450696 24282 net.cpp:141] Setting up inception_4d/relu_3x3_reduce
I0403 21:47:59.450724 24282 net.cpp:148] Top shape: 24 144 14 14 (677376)
I0403 21:47:59.450742 24282 net.cpp:156] Memory required for data: 1120816416
I0403 21:47:59.450757 24282 layer_factory.hpp:77] Creating layer inception_4d/3x3
I0403 21:47:59.450781 24282 net.cpp:91] Creating Layer inception_4d/3x3
I0403 21:47:59.450799 24282 net.cpp:425] inception_4d/3x3 <- inception_4d/3x3_reduce
I0403 21:47:59.450819 24282 net.cpp:399] inception_4d/3x3 -> inception_4d/3x3
I0403 21:47:59.455134 24282 net.cpp:141] Setting up inception_4d/3x3
I0403 21:47:59.455164 24282 net.cpp:148] Top shape: 24 288 14 14 (1354752)
I0403 21:47:59.455181 24282 net.cpp:156] Memory required for data: 1126235424
I0403 21:47:59.455201 24282 layer_factory.hpp:77] Creating layer inception_4d/relu_3x3
I0403 21:47:59.455224 24282 net.cpp:91] Creating Layer inception_4d/relu_3x3
I0403 21:47:59.455248 24282 net.cpp:425] inception_4d/relu_3x3 <- inception_4d/3x3
I0403 21:47:59.455266 24282 net.cpp:386] inception_4d/relu_3x3 -> inception_4d/3x3 (in-place)
I0403 21:47:59.455453 24282 net.cpp:141] Setting up inception_4d/relu_3x3
I0403 21:47:59.455479 24282 net.cpp:148] Top shape: 24 288 14 14 (1354752)
I0403 21:47:59.455494 24282 net.cpp:156] Memory required for data: 1131654432
I0403 21:47:59.455510 24282 layer_factory.hpp:77] Creating layer inception_4d/5x5_reduce
I0403 21:47:59.455533 24282 net.cpp:91] Creating Layer inception_4d/5x5_reduce
I0403 21:47:59.455554 24282 net.cpp:425] inception_4d/5x5_reduce <- inception_4c/output_inception_4c/output_0_split_2
I0403 21:47:59.455574 24282 net.cpp:399] inception_4d/5x5_reduce -> inception_4d/5x5_reduce
I0403 21:47:59.456748 24282 net.cpp:141] Setting up inception_4d/5x5_reduce
I0403 21:47:59.456776 24282 net.cpp:148] Top shape: 24 32 14 14 (150528)
I0403 21:47:59.456794 24282 net.cpp:156] Memory required for data: 1132256544
I0403 21:47:59.456812 24282 layer_factory.hpp:77] Creating layer inception_4d/relu_5x5_reduce
I0403 21:47:59.456832 24282 net.cpp:91] Creating Layer inception_4d/relu_5x5_reduce
I0403 21:47:59.456850 24282 net.cpp:425] inception_4d/relu_5x5_reduce <- inception_4d/5x5_reduce
I0403 21:47:59.456869 24282 net.cpp:386] inception_4d/relu_5x5_reduce -> inception_4d/5x5_reduce (in-place)
I0403 21:47:59.457058 24282 net.cpp:141] Setting up inception_4d/relu_5x5_reduce
I0403 21:47:59.457084 24282 net.cpp:148] Top shape: 24 32 14 14 (150528)
I0403 21:47:59.457100 24282 net.cpp:156] Memory required for data: 1132858656
I0403 21:47:59.457116 24282 layer_factory.hpp:77] Creating layer inception_4d/5x5
I0403 21:47:59.457139 24282 net.cpp:91] Creating Layer inception_4d/5x5
I0403 21:47:59.457157 24282 net.cpp:425] inception_4d/5x5 <- inception_4d/5x5_reduce
I0403 21:47:59.457180 24282 net.cpp:399] inception_4d/5x5 -> inception_4d/5x5
I0403 21:47:59.458681 24282 net.cpp:141] Setting up inception_4d/5x5
I0403 21:47:59.458712 24282 net.cpp:148] Top shape: 24 64 14 14 (301056)
I0403 21:47:59.458730 24282 net.cpp:156] Memory required for data: 1134062880
I0403 21:47:59.458750 24282 layer_factory.hpp:77] Creating layer inception_4d/relu_5x5
I0403 21:47:59.458782 24282 net.cpp:91] Creating Layer inception_4d/relu_5x5
I0403 21:47:59.458801 24282 net.cpp:425] inception_4d/relu_5x5 <- inception_4d/5x5
I0403 21:47:59.458819 24282 net.cpp:386] inception_4d/relu_5x5 -> inception_4d/5x5 (in-place)
I0403 21:47:59.459123 24282 net.cpp:141] Setting up inception_4d/relu_5x5
I0403 21:47:59.459152 24282 net.cpp:148] Top shape: 24 64 14 14 (301056)
I0403 21:47:59.459169 24282 net.cpp:156] Memory required for data: 1135267104
I0403 21:47:59.459185 24282 layer_factory.hpp:77] Creating layer inception_4d/pool
I0403 21:47:59.459204 24282 net.cpp:91] Creating Layer inception_4d/pool
I0403 21:47:59.459220 24282 net.cpp:425] inception_4d/pool <- inception_4c/output_inception_4c/output_0_split_3
I0403 21:47:59.459245 24282 net.cpp:399] inception_4d/pool -> inception_4d/pool
I0403 21:47:59.459316 24282 net.cpp:141] Setting up inception_4d/pool
I0403 21:47:59.459341 24282 net.cpp:148] Top shape: 24 512 14 14 (2408448)
I0403 21:47:59.459355 24282 net.cpp:156] Memory required for data: 1144900896
I0403 21:47:59.459372 24282 layer_factory.hpp:77] Creating layer inception_4d/pool_proj
I0403 21:47:59.459393 24282 net.cpp:91] Creating Layer inception_4d/pool_proj
I0403 21:47:59.459413 24282 net.cpp:425] inception_4d/pool_proj <- inception_4d/pool
I0403 21:47:59.459435 24282 net.cpp:399] inception_4d/pool_proj -> inception_4d/pool_proj
I0403 21:47:59.461236 24282 net.cpp:141] Setting up inception_4d/pool_proj
I0403 21:47:59.461266 24282 net.cpp:148] Top shape: 24 64 14 14 (301056)
I0403 21:47:59.461282 24282 net.cpp:156] Memory required for data: 1146105120
I0403 21:47:59.461302 24282 layer_factory.hpp:77] Creating layer inception_4d/relu_pool_proj
I0403 21:47:59.461324 24282 net.cpp:91] Creating Layer inception_4d/relu_pool_proj
I0403 21:47:59.461344 24282 net.cpp:425] inception_4d/relu_pool_proj <- inception_4d/pool_proj
I0403 21:47:59.461361 24282 net.cpp:386] inception_4d/relu_pool_proj -> inception_4d/pool_proj (in-place)
I0403 21:47:59.461547 24282 net.cpp:141] Setting up inception_4d/relu_pool_proj
I0403 21:47:59.461573 24282 net.cpp:148] Top shape: 24 64 14 14 (301056)
I0403 21:47:59.461588 24282 net.cpp:156] Memory required for data: 1147309344
I0403 21:47:59.461603 24282 layer_factory.hpp:77] Creating layer inception_4d/output
I0403 21:47:59.461623 24282 net.cpp:91] Creating Layer inception_4d/output
I0403 21:47:59.461640 24282 net.cpp:425] inception_4d/output <- inception_4d/1x1
I0403 21:47:59.461658 24282 net.cpp:425] inception_4d/output <- inception_4d/3x3
I0403 21:47:59.461674 24282 net.cpp:425] inception_4d/output <- inception_4d/5x5
I0403 21:47:59.461691 24282 net.cpp:425] inception_4d/output <- inception_4d/pool_proj
I0403 21:47:59.461709 24282 net.cpp:399] inception_4d/output -> inception_4d/output
I0403 21:47:59.461760 24282 net.cpp:141] Setting up inception_4d/output
I0403 21:47:59.461786 24282 net.cpp:148] Top shape: 24 528 14 14 (2483712)
I0403 21:47:59.461801 24282 net.cpp:156] Memory required for data: 1157244192
I0403 21:47:59.461814 24282 layer_factory.hpp:77] Creating layer inception_4d/output_inception_4d/output_0_split
I0403 21:47:59.461833 24282 net.cpp:91] Creating Layer inception_4d/output_inception_4d/output_0_split
I0403 21:47:59.461849 24282 net.cpp:425] inception_4d/output_inception_4d/output_0_split <- inception_4d/output
I0403 21:47:59.461870 24282 net.cpp:399] inception_4d/output_inception_4d/output_0_split -> inception_4d/output_inception_4d/output_0_split_0
I0403 21:47:59.461894 24282 net.cpp:399] inception_4d/output_inception_4d/output_0_split -> inception_4d/output_inception_4d/output_0_split_1
I0403 21:47:59.461916 24282 net.cpp:399] inception_4d/output_inception_4d/output_0_split -> inception_4d/output_inception_4d/output_0_split_2
I0403 21:47:59.461940 24282 net.cpp:399] inception_4d/output_inception_4d/output_0_split -> inception_4d/output_inception_4d/output_0_split_3
I0403 21:47:59.461964 24282 net.cpp:399] inception_4d/output_inception_4d/output_0_split -> inception_4d/output_inception_4d/output_0_split_4
I0403 21:47:59.462069 24282 net.cpp:141] Setting up inception_4d/output_inception_4d/output_0_split
I0403 21:47:59.462106 24282 net.cpp:148] Top shape: 24 528 14 14 (2483712)
I0403 21:47:59.462124 24282 net.cpp:148] Top shape: 24 528 14 14 (2483712)
I0403 21:47:59.462141 24282 net.cpp:148] Top shape: 24 528 14 14 (2483712)
I0403 21:47:59.462157 24282 net.cpp:148] Top shape: 24 528 14 14 (2483712)
I0403 21:47:59.462172 24282 net.cpp:148] Top shape: 24 528 14 14 (2483712)
I0403 21:47:59.462187 24282 net.cpp:156] Memory required for data: 1206918432
I0403 21:47:59.462203 24282 layer_factory.hpp:77] Creating layer loss2/ave_pool
I0403 21:47:59.462220 24282 net.cpp:91] Creating Layer loss2/ave_pool
I0403 21:47:59.462241 24282 net.cpp:425] loss2/ave_pool <- inception_4d/output_inception_4d/output_0_split_0
I0403 21:47:59.462265 24282 net.cpp:399] loss2/ave_pool -> loss2/ave_pool
I0403 21:47:59.462581 24282 net.cpp:141] Setting up loss2/ave_pool
I0403 21:47:59.462609 24282 net.cpp:148] Top shape: 24 528 4 4 (202752)
I0403 21:47:59.462625 24282 net.cpp:156] Memory required for data: 1207729440
I0403 21:47:59.462641 24282 layer_factory.hpp:77] Creating layer loss2/conv
I0403 21:47:59.462664 24282 net.cpp:91] Creating Layer loss2/conv
I0403 21:47:59.462683 24282 net.cpp:425] loss2/conv <- loss2/ave_pool
I0403 21:47:59.462705 24282 net.cpp:399] loss2/conv -> loss2/conv
I0403 21:47:59.464627 24282 net.cpp:141] Setting up loss2/conv
I0403 21:47:59.464666 24282 net.cpp:148] Top shape: 24 128 4 4 (49152)
I0403 21:47:59.464682 24282 net.cpp:156] Memory required for data: 1207926048
I0403 21:47:59.464702 24282 layer_factory.hpp:77] Creating layer loss2/relu_conv
I0403 21:47:59.464723 24282 net.cpp:91] Creating Layer loss2/relu_conv
I0403 21:47:59.464740 24282 net.cpp:425] loss2/relu_conv <- loss2/conv
I0403 21:47:59.464759 24282 net.cpp:386] loss2/relu_conv -> loss2/conv (in-place)
I0403 21:47:59.465055 24282 net.cpp:141] Setting up loss2/relu_conv
I0403 21:47:59.465082 24282 net.cpp:148] Top shape: 24 128 4 4 (49152)
I0403 21:47:59.465097 24282 net.cpp:156] Memory required for data: 1208122656
I0403 21:47:59.465113 24282 layer_factory.hpp:77] Creating layer loss2/fc
I0403 21:47:59.465136 24282 net.cpp:91] Creating Layer loss2/fc
I0403 21:47:59.465152 24282 net.cpp:425] loss2/fc <- loss2/conv
I0403 21:47:59.465178 24282 net.cpp:399] loss2/fc -> loss2/fc
I0403 21:47:59.482435 24282 net.cpp:141] Setting up loss2/fc
I0403 21:47:59.482468 24282 net.cpp:148] Top shape: 24 1024 (24576)
I0403 21:47:59.482484 24282 net.cpp:156] Memory required for data: 1208220960
I0403 21:47:59.482503 24282 layer_factory.hpp:77] Creating layer loss2/relu_fc
I0403 21:47:59.482522 24282 net.cpp:91] Creating Layer loss2/relu_fc
I0403 21:47:59.482538 24282 net.cpp:425] loss2/relu_fc <- loss2/fc
I0403 21:47:59.482561 24282 net.cpp:386] loss2/relu_fc -> loss2/fc (in-place)
I0403 21:47:59.482856 24282 net.cpp:141] Setting up loss2/relu_fc
I0403 21:47:59.482882 24282 net.cpp:148] Top shape: 24 1024 (24576)
I0403 21:47:59.482897 24282 net.cpp:156] Memory required for data: 1208319264
I0403 21:47:59.482913 24282 layer_factory.hpp:77] Creating layer loss2/drop_fc
I0403 21:47:59.482933 24282 net.cpp:91] Creating Layer loss2/drop_fc
I0403 21:47:59.482949 24282 net.cpp:425] loss2/drop_fc <- loss2/fc
I0403 21:47:59.482969 24282 net.cpp:386] loss2/drop_fc -> loss2/fc (in-place)
I0403 21:47:59.483021 24282 net.cpp:141] Setting up loss2/drop_fc
I0403 21:47:59.483044 24282 net.cpp:148] Top shape: 24 1024 (24576)
I0403 21:47:59.483058 24282 net.cpp:156] Memory required for data: 1208417568
I0403 21:47:59.483073 24282 layer_factory.hpp:77] Creating layer loss2/classifier_plantvillage
I0403 21:47:59.483090 24282 net.cpp:91] Creating Layer loss2/classifier_plantvillage
I0403 21:47:59.483108 24282 net.cpp:425] loss2/classifier_plantvillage <- loss2/fc
I0403 21:47:59.483129 24282 net.cpp:399] loss2/classifier_plantvillage -> loss2/classifier_plantvillage
I0403 21:47:59.483530 24282 net.cpp:141] Setting up loss2/classifier_plantvillage
I0403 21:47:59.483556 24282 net.cpp:148] Top shape: 24 38 (912)
I0403 21:47:59.483588 24282 net.cpp:156] Memory required for data: 1208421216
I0403 21:47:59.483608 24282 layer_factory.hpp:77] Creating layer loss2/classifier_plantvillage_loss2/classifier_plantvillage_0_split
I0403 21:47:59.483629 24282 net.cpp:91] Creating Layer loss2/classifier_plantvillage_loss2/classifier_plantvillage_0_split
I0403 21:47:59.483647 24282 net.cpp:425] loss2/classifier_plantvillage_loss2/classifier_plantvillage_0_split <- loss2/classifier_plantvillage
I0403 21:47:59.483669 24282 net.cpp:399] loss2/classifier_plantvillage_loss2/classifier_plantvillage_0_split -> loss2/classifier_plantvillage_loss2/classifier_plantvillage_0_split_0
I0403 21:47:59.483690 24282 net.cpp:399] loss2/classifier_plantvillage_loss2/classifier_plantvillage_0_split -> loss2/classifier_plantvillage_loss2/classifier_plantvillage_0_split_1
I0403 21:47:59.483711 24282 net.cpp:399] loss2/classifier_plantvillage_loss2/classifier_plantvillage_0_split -> loss2/classifier_plantvillage_loss2/classifier_plantvillage_0_split_2
I0403 21:47:59.483789 24282 net.cpp:141] Setting up loss2/classifier_plantvillage_loss2/classifier_plantvillage_0_split
I0403 21:47:59.483813 24282 net.cpp:148] Top shape: 24 38 (912)
I0403 21:47:59.483829 24282 net.cpp:148] Top shape: 24 38 (912)
I0403 21:47:59.483845 24282 net.cpp:148] Top shape: 24 38 (912)
I0403 21:47:59.483858 24282 net.cpp:156] Memory required for data: 1208432160
I0403 21:47:59.483873 24282 layer_factory.hpp:77] Creating layer inception_4e/1x1
I0403 21:47:59.483896 24282 net.cpp:91] Creating Layer inception_4e/1x1
I0403 21:47:59.483916 24282 net.cpp:425] inception_4e/1x1 <- inception_4d/output_inception_4d/output_0_split_1
I0403 21:47:59.483935 24282 net.cpp:399] inception_4e/1x1 -> inception_4e/1x1
I0403 21:47:59.485713 24282 net.cpp:141] Setting up inception_4e/1x1
I0403 21:47:59.485743 24282 net.cpp:148] Top shape: 24 256 14 14 (1204224)
I0403 21:47:59.485759 24282 net.cpp:156] Memory required for data: 1213249056
I0403 21:47:59.485777 24282 layer_factory.hpp:77] Creating layer inception_4e/relu_1x1
I0403 21:47:59.485796 24282 net.cpp:91] Creating Layer inception_4e/relu_1x1
I0403 21:47:59.485813 24282 net.cpp:425] inception_4e/relu_1x1 <- inception_4e/1x1
I0403 21:47:59.485831 24282 net.cpp:386] inception_4e/relu_1x1 -> inception_4e/1x1 (in-place)
I0403 21:47:59.486124 24282 net.cpp:141] Setting up inception_4e/relu_1x1
I0403 21:47:59.486152 24282 net.cpp:148] Top shape: 24 256 14 14 (1204224)
I0403 21:47:59.486169 24282 net.cpp:156] Memory required for data: 1218065952
I0403 21:47:59.486186 24282 layer_factory.hpp:77] Creating layer inception_4e/3x3_reduce
I0403 21:47:59.486208 24282 net.cpp:91] Creating Layer inception_4e/3x3_reduce
I0403 21:47:59.486232 24282 net.cpp:425] inception_4e/3x3_reduce <- inception_4d/output_inception_4d/output_0_split_2
I0403 21:47:59.486253 24282 net.cpp:399] inception_4e/3x3_reduce -> inception_4e/3x3_reduce
I0403 21:47:59.488359 24282 net.cpp:141] Setting up inception_4e/3x3_reduce
I0403 21:47:59.488387 24282 net.cpp:148] Top shape: 24 160 14 14 (752640)
I0403 21:47:59.488404 24282 net.cpp:156] Memory required for data: 1221076512
I0403 21:47:59.488422 24282 layer_factory.hpp:77] Creating layer inception_4e/relu_3x3_reduce
I0403 21:47:59.488443 24282 net.cpp:91] Creating Layer inception_4e/relu_3x3_reduce
I0403 21:47:59.488461 24282 net.cpp:425] inception_4e/relu_3x3_reduce <- inception_4e/3x3_reduce
I0403 21:47:59.488479 24282 net.cpp:386] inception_4e/relu_3x3_reduce -> inception_4e/3x3_reduce (in-place)
I0403 21:47:59.488663 24282 net.cpp:141] Setting up inception_4e/relu_3x3_reduce
I0403 21:47:59.488690 24282 net.cpp:148] Top shape: 24 160 14 14 (752640)
I0403 21:47:59.488705 24282 net.cpp:156] Memory required for data: 1224087072
I0403 21:47:59.488721 24282 layer_factory.hpp:77] Creating layer inception_4e/3x3
I0403 21:47:59.488744 24282 net.cpp:91] Creating Layer inception_4e/3x3
I0403 21:47:59.488761 24282 net.cpp:425] inception_4e/3x3 <- inception_4e/3x3_reduce
I0403 21:47:59.488783 24282 net.cpp:399] inception_4e/3x3 -> inception_4e/3x3
I0403 21:47:59.493685 24282 net.cpp:141] Setting up inception_4e/3x3
I0403 21:47:59.493726 24282 net.cpp:148] Top shape: 24 320 14 14 (1505280)
I0403 21:47:59.493741 24282 net.cpp:156] Memory required for data: 1230108192
I0403 21:47:59.493760 24282 layer_factory.hpp:77] Creating layer inception_4e/relu_3x3
I0403 21:47:59.493779 24282 net.cpp:91] Creating Layer inception_4e/relu_3x3
I0403 21:47:59.493795 24282 net.cpp:425] inception_4e/relu_3x3 <- inception_4e/3x3
I0403 21:47:59.493814 24282 net.cpp:386] inception_4e/relu_3x3 -> inception_4e/3x3 (in-place)
I0403 21:47:59.494110 24282 net.cpp:141] Setting up inception_4e/relu_3x3
I0403 21:47:59.494138 24282 net.cpp:148] Top shape: 24 320 14 14 (1505280)
I0403 21:47:59.494153 24282 net.cpp:156] Memory required for data: 1236129312
I0403 21:47:59.494169 24282 layer_factory.hpp:77] Creating layer inception_4e/5x5_reduce
I0403 21:47:59.494192 24282 net.cpp:91] Creating Layer inception_4e/5x5_reduce
I0403 21:47:59.494211 24282 net.cpp:425] inception_4e/5x5_reduce <- inception_4d/output_inception_4d/output_0_split_3
I0403 21:47:59.494236 24282 net.cpp:399] inception_4e/5x5_reduce -> inception_4e/5x5_reduce
I0403 21:47:59.495287 24282 net.cpp:141] Setting up inception_4e/5x5_reduce
I0403 21:47:59.495316 24282 net.cpp:148] Top shape: 24 32 14 14 (150528)
I0403 21:47:59.495334 24282 net.cpp:156] Memory required for data: 1236731424
I0403 21:47:59.495353 24282 layer_factory.hpp:77] Creating layer inception_4e/relu_5x5_reduce
I0403 21:47:59.495371 24282 net.cpp:91] Creating Layer inception_4e/relu_5x5_reduce
I0403 21:47:59.495388 24282 net.cpp:425] inception_4e/relu_5x5_reduce <- inception_4e/5x5_reduce
I0403 21:47:59.495405 24282 net.cpp:386] inception_4e/relu_5x5_reduce -> inception_4e/5x5_reduce (in-place)
I0403 21:47:59.495702 24282 net.cpp:141] Setting up inception_4e/relu_5x5_reduce
I0403 21:47:59.495730 24282 net.cpp:148] Top shape: 24 32 14 14 (150528)
I0403 21:47:59.495748 24282 net.cpp:156] Memory required for data: 1237333536
I0403 21:47:59.495764 24282 layer_factory.hpp:77] Creating layer inception_4e/5x5
I0403 21:47:59.495801 24282 net.cpp:91] Creating Layer inception_4e/5x5
I0403 21:47:59.495821 24282 net.cpp:425] inception_4e/5x5 <- inception_4e/5x5_reduce
I0403 21:47:59.495843 24282 net.cpp:399] inception_4e/5x5 -> inception_4e/5x5
I0403 21:47:59.497651 24282 net.cpp:141] Setting up inception_4e/5x5
I0403 21:47:59.497679 24282 net.cpp:148] Top shape: 24 128 14 14 (602112)
I0403 21:47:59.497695 24282 net.cpp:156] Memory required for data: 1239741984
I0403 21:47:59.497714 24282 layer_factory.hpp:77] Creating layer inception_4e/relu_5x5
I0403 21:47:59.497735 24282 net.cpp:91] Creating Layer inception_4e/relu_5x5
I0403 21:47:59.497752 24282 net.cpp:425] inception_4e/relu_5x5 <- inception_4e/5x5
I0403 21:47:59.497771 24282 net.cpp:386] inception_4e/relu_5x5 -> inception_4e/5x5 (in-place)
I0403 21:47:59.497967 24282 net.cpp:141] Setting up inception_4e/relu_5x5
I0403 21:47:59.497992 24282 net.cpp:148] Top shape: 24 128 14 14 (602112)
I0403 21:47:59.498006 24282 net.cpp:156] Memory required for data: 1242150432
I0403 21:47:59.498021 24282 layer_factory.hpp:77] Creating layer inception_4e/pool
I0403 21:47:59.498041 24282 net.cpp:91] Creating Layer inception_4e/pool
I0403 21:47:59.498059 24282 net.cpp:425] inception_4e/pool <- inception_4d/output_inception_4d/output_0_split_4
I0403 21:47:59.498080 24282 net.cpp:399] inception_4e/pool -> inception_4e/pool
I0403 21:47:59.498147 24282 net.cpp:141] Setting up inception_4e/pool
I0403 21:47:59.498172 24282 net.cpp:148] Top shape: 24 528 14 14 (2483712)
I0403 21:47:59.498188 24282 net.cpp:156] Memory required for data: 1252085280
I0403 21:47:59.498203 24282 layer_factory.hpp:77] Creating layer inception_4e/pool_proj
I0403 21:47:59.498225 24282 net.cpp:91] Creating Layer inception_4e/pool_proj
I0403 21:47:59.498255 24282 net.cpp:425] inception_4e/pool_proj <- inception_4e/pool
I0403 21:47:59.498277 24282 net.cpp:399] inception_4e/pool_proj -> inception_4e/pool_proj
I0403 21:47:59.499753 24282 net.cpp:141] Setting up inception_4e/pool_proj
I0403 21:47:59.499793 24282 net.cpp:148] Top shape: 24 128 14 14 (602112)
I0403 21:47:59.499809 24282 net.cpp:156] Memory required for data: 1254493728
I0403 21:47:59.499827 24282 layer_factory.hpp:77] Creating layer inception_4e/relu_pool_proj
I0403 21:47:59.499850 24282 net.cpp:91] Creating Layer inception_4e/relu_pool_proj
I0403 21:47:59.499867 24282 net.cpp:425] inception_4e/relu_pool_proj <- inception_4e/pool_proj
I0403 21:47:59.499886 24282 net.cpp:386] inception_4e/relu_pool_proj -> inception_4e/pool_proj (in-place)
I0403 21:47:59.500176 24282 net.cpp:141] Setting up inception_4e/relu_pool_proj
I0403 21:47:59.500203 24282 net.cpp:148] Top shape: 24 128 14 14 (602112)
I0403 21:47:59.500218 24282 net.cpp:156] Memory required for data: 1256902176
I0403 21:47:59.500239 24282 layer_factory.hpp:77] Creating layer inception_4e/output
I0403 21:47:59.500259 24282 net.cpp:91] Creating Layer inception_4e/output
I0403 21:47:59.500275 24282 net.cpp:425] inception_4e/output <- inception_4e/1x1
I0403 21:47:59.500291 24282 net.cpp:425] inception_4e/output <- inception_4e/3x3
I0403 21:47:59.500310 24282 net.cpp:425] inception_4e/output <- inception_4e/5x5
I0403 21:47:59.500327 24282 net.cpp:425] inception_4e/output <- inception_4e/pool_proj
I0403 21:47:59.500345 24282 net.cpp:399] inception_4e/output -> inception_4e/output
I0403 21:47:59.500396 24282 net.cpp:141] Setting up inception_4e/output
I0403 21:47:59.500422 24282 net.cpp:148] Top shape: 24 832 14 14 (3913728)
I0403 21:47:59.500438 24282 net.cpp:156] Memory required for data: 1272557088
I0403 21:47:59.500453 24282 layer_factory.hpp:77] Creating layer pool4/3x3_s2
I0403 21:47:59.500471 24282 net.cpp:91] Creating Layer pool4/3x3_s2
I0403 21:47:59.500486 24282 net.cpp:425] pool4/3x3_s2 <- inception_4e/output
I0403 21:47:59.500509 24282 net.cpp:399] pool4/3x3_s2 -> pool4/3x3_s2
I0403 21:47:59.500574 24282 net.cpp:141] Setting up pool4/3x3_s2
I0403 21:47:59.500598 24282 net.cpp:148] Top shape: 24 832 7 7 (978432)
I0403 21:47:59.500613 24282 net.cpp:156] Memory required for data: 1276470816
I0403 21:47:59.500627 24282 layer_factory.hpp:77] Creating layer pool4/3x3_s2_pool4/3x3_s2_0_split
I0403 21:47:59.500648 24282 net.cpp:91] Creating Layer pool4/3x3_s2_pool4/3x3_s2_0_split
I0403 21:47:59.500664 24282 net.cpp:425] pool4/3x3_s2_pool4/3x3_s2_0_split <- pool4/3x3_s2
I0403 21:47:59.500684 24282 net.cpp:399] pool4/3x3_s2_pool4/3x3_s2_0_split -> pool4/3x3_s2_pool4/3x3_s2_0_split_0
I0403 21:47:59.500704 24282 net.cpp:399] pool4/3x3_s2_pool4/3x3_s2_0_split -> pool4/3x3_s2_pool4/3x3_s2_0_split_1
I0403 21:47:59.500725 24282 net.cpp:399] pool4/3x3_s2_pool4/3x3_s2_0_split -> pool4/3x3_s2_pool4/3x3_s2_0_split_2
I0403 21:47:59.500747 24282 net.cpp:399] pool4/3x3_s2_pool4/3x3_s2_0_split -> pool4/3x3_s2_pool4/3x3_s2_0_split_3
I0403 21:47:59.500840 24282 net.cpp:141] Setting up pool4/3x3_s2_pool4/3x3_s2_0_split
I0403 21:47:59.500864 24282 net.cpp:148] Top shape: 24 832 7 7 (978432)
I0403 21:47:59.500880 24282 net.cpp:148] Top shape: 24 832 7 7 (978432)
I0403 21:47:59.500895 24282 net.cpp:148] Top shape: 24 832 7 7 (978432)
I0403 21:47:59.500910 24282 net.cpp:148] Top shape: 24 832 7 7 (978432)
I0403 21:47:59.500926 24282 net.cpp:156] Memory required for data: 1292125728
I0403 21:47:59.500941 24282 layer_factory.hpp:77] Creating layer inception_5a/1x1
I0403 21:47:59.500963 24282 net.cpp:91] Creating Layer inception_5a/1x1
I0403 21:47:59.500982 24282 net.cpp:425] inception_5a/1x1 <- pool4/3x3_s2_pool4/3x3_s2_0_split_0
I0403 21:47:59.501003 24282 net.cpp:399] inception_5a/1x1 -> inception_5a/1x1
I0403 21:47:59.503957 24282 net.cpp:141] Setting up inception_5a/1x1
I0403 21:47:59.503986 24282 net.cpp:148] Top shape: 24 256 7 7 (301056)
I0403 21:47:59.504003 24282 net.cpp:156] Memory required for data: 1293329952
I0403 21:47:59.504021 24282 layer_factory.hpp:77] Creating layer inception_5a/relu_1x1
I0403 21:47:59.504043 24282 net.cpp:91] Creating Layer inception_5a/relu_1x1
I0403 21:47:59.504062 24282 net.cpp:425] inception_5a/relu_1x1 <- inception_5a/1x1
I0403 21:47:59.504081 24282 net.cpp:386] inception_5a/relu_1x1 -> inception_5a/1x1 (in-place)
I0403 21:47:59.504405 24282 net.cpp:141] Setting up inception_5a/relu_1x1
I0403 21:47:59.504431 24282 net.cpp:148] Top shape: 24 256 7 7 (301056)
I0403 21:47:59.504446 24282 net.cpp:156] Memory required for data: 1294534176
I0403 21:47:59.504462 24282 layer_factory.hpp:77] Creating layer inception_5a/3x3_reduce
I0403 21:47:59.504489 24282 net.cpp:91] Creating Layer inception_5a/3x3_reduce
I0403 21:47:59.504510 24282 net.cpp:425] inception_5a/3x3_reduce <- pool4/3x3_s2_pool4/3x3_s2_0_split_1
I0403 21:47:59.504533 24282 net.cpp:399] inception_5a/3x3_reduce -> inception_5a/3x3_reduce
I0403 21:47:59.507021 24282 net.cpp:141] Setting up inception_5a/3x3_reduce
I0403 21:47:59.507051 24282 net.cpp:148] Top shape: 24 160 7 7 (188160)
I0403 21:47:59.507067 24282 net.cpp:156] Memory required for data: 1295286816
I0403 21:47:59.507086 24282 layer_factory.hpp:77] Creating layer inception_5a/relu_3x3_reduce
I0403 21:47:59.507107 24282 net.cpp:91] Creating Layer inception_5a/relu_3x3_reduce
I0403 21:47:59.507124 24282 net.cpp:425] inception_5a/relu_3x3_reduce <- inception_5a/3x3_reduce
I0403 21:47:59.507144 24282 net.cpp:386] inception_5a/relu_3x3_reduce -> inception_5a/3x3_reduce (in-place)
I0403 21:47:59.507339 24282 net.cpp:141] Setting up inception_5a/relu_3x3_reduce
I0403 21:47:59.507364 24282 net.cpp:148] Top shape: 24 160 7 7 (188160)
I0403 21:47:59.507380 24282 net.cpp:156] Memory required for data: 1296039456
I0403 21:47:59.507396 24282 layer_factory.hpp:77] Creating layer inception_5a/3x3
I0403 21:47:59.507419 24282 net.cpp:91] Creating Layer inception_5a/3x3
I0403 21:47:59.507437 24282 net.cpp:425] inception_5a/3x3 <- inception_5a/3x3_reduce
I0403 21:47:59.507460 24282 net.cpp:399] inception_5a/3x3 -> inception_5a/3x3
I0403 21:47:59.512552 24282 net.cpp:141] Setting up inception_5a/3x3
I0403 21:47:59.512581 24282 net.cpp:148] Top shape: 24 320 7 7 (376320)
I0403 21:47:59.512599 24282 net.cpp:156] Memory required for data: 1297544736
I0403 21:47:59.512619 24282 layer_factory.hpp:77] Creating layer inception_5a/relu_3x3
I0403 21:47:59.512639 24282 net.cpp:91] Creating Layer inception_5a/relu_3x3
I0403 21:47:59.512658 24282 net.cpp:425] inception_5a/relu_3x3 <- inception_5a/3x3
I0403 21:47:59.512676 24282 net.cpp:386] inception_5a/relu_3x3 -> inception_5a/3x3 (in-place)
I0403 21:47:59.512974 24282 net.cpp:141] Setting up inception_5a/relu_3x3
I0403 21:47:59.513001 24282 net.cpp:148] Top shape: 24 320 7 7 (376320)
I0403 21:47:59.513017 24282 net.cpp:156] Memory required for data: 1299050016
I0403 21:47:59.513033 24282 layer_factory.hpp:77] Creating layer inception_5a/5x5_reduce
I0403 21:47:59.513056 24282 net.cpp:91] Creating Layer inception_5a/5x5_reduce
I0403 21:47:59.513077 24282 net.cpp:425] inception_5a/5x5_reduce <- pool4/3x3_s2_pool4/3x3_s2_0_split_2
I0403 21:47:59.513098 24282 net.cpp:399] inception_5a/5x5_reduce -> inception_5a/5x5_reduce
I0403 21:47:59.514298 24282 net.cpp:141] Setting up inception_5a/5x5_reduce
I0403 21:47:59.514328 24282 net.cpp:148] Top shape: 24 32 7 7 (37632)
I0403 21:47:59.514344 24282 net.cpp:156] Memory required for data: 1299200544
I0403 21:47:59.514364 24282 layer_factory.hpp:77] Creating layer inception_5a/relu_5x5_reduce
I0403 21:47:59.514385 24282 net.cpp:91] Creating Layer inception_5a/relu_5x5_reduce
I0403 21:47:59.514403 24282 net.cpp:425] inception_5a/relu_5x5_reduce <- inception_5a/5x5_reduce
I0403 21:47:59.514421 24282 net.cpp:386] inception_5a/relu_5x5_reduce -> inception_5a/5x5_reduce (in-place)
I0403 21:47:59.514729 24282 net.cpp:141] Setting up inception_5a/relu_5x5_reduce
I0403 21:47:59.514756 24282 net.cpp:148] Top shape: 24 32 7 7 (37632)
I0403 21:47:59.514772 24282 net.cpp:156] Memory required for data: 1299351072
I0403 21:47:59.514788 24282 layer_factory.hpp:77] Creating layer inception_5a/5x5
I0403 21:47:59.514812 24282 net.cpp:91] Creating Layer inception_5a/5x5
I0403 21:47:59.514832 24282 net.cpp:425] inception_5a/5x5 <- inception_5a/5x5_reduce
I0403 21:47:59.514852 24282 net.cpp:399] inception_5a/5x5 -> inception_5a/5x5
I0403 21:47:59.516602 24282 net.cpp:141] Setting up inception_5a/5x5
I0403 21:47:59.516641 24282 net.cpp:148] Top shape: 24 128 7 7 (150528)
I0403 21:47:59.516659 24282 net.cpp:156] Memory required for data: 1299953184
I0403 21:47:59.516677 24282 layer_factory.hpp:77] Creating layer inception_5a/relu_5x5
I0403 21:47:59.516698 24282 net.cpp:91] Creating Layer inception_5a/relu_5x5
I0403 21:47:59.516716 24282 net.cpp:425] inception_5a/relu_5x5 <- inception_5a/5x5
I0403 21:47:59.516734 24282 net.cpp:386] inception_5a/relu_5x5 -> inception_5a/5x5 (in-place)
I0403 21:47:59.516928 24282 net.cpp:141] Setting up inception_5a/relu_5x5
I0403 21:47:59.516957 24282 net.cpp:148] Top shape: 24 128 7 7 (150528)
I0403 21:47:59.516973 24282 net.cpp:156] Memory required for data: 1300555296
I0403 21:47:59.516989 24282 layer_factory.hpp:77] Creating layer inception_5a/pool
I0403 21:47:59.517009 24282 net.cpp:91] Creating Layer inception_5a/pool
I0403 21:47:59.517025 24282 net.cpp:425] inception_5a/pool <- pool4/3x3_s2_pool4/3x3_s2_0_split_3
I0403 21:47:59.517047 24282 net.cpp:399] inception_5a/pool -> inception_5a/pool
I0403 21:47:59.517117 24282 net.cpp:141] Setting up inception_5a/pool
I0403 21:47:59.517143 24282 net.cpp:148] Top shape: 24 832 7 7 (978432)
I0403 21:47:59.517158 24282 net.cpp:156] Memory required for data: 1304469024
I0403 21:47:59.517174 24282 layer_factory.hpp:77] Creating layer inception_5a/pool_proj
I0403 21:47:59.517196 24282 net.cpp:91] Creating Layer inception_5a/pool_proj
I0403 21:47:59.517215 24282 net.cpp:425] inception_5a/pool_proj <- inception_5a/pool
I0403 21:47:59.517241 24282 net.cpp:399] inception_5a/pool_proj -> inception_5a/pool_proj
I0403 21:47:59.519567 24282 net.cpp:141] Setting up inception_5a/pool_proj
I0403 21:47:59.519596 24282 net.cpp:148] Top shape: 24 128 7 7 (150528)
I0403 21:47:59.519613 24282 net.cpp:156] Memory required for data: 1305071136
I0403 21:47:59.519632 24282 layer_factory.hpp:77] Creating layer inception_5a/relu_pool_proj
I0403 21:47:59.519652 24282 net.cpp:91] Creating Layer inception_5a/relu_pool_proj
I0403 21:47:59.519670 24282 net.cpp:425] inception_5a/relu_pool_proj <- inception_5a/pool_proj
I0403 21:47:59.519687 24282 net.cpp:386] inception_5a/relu_pool_proj -> inception_5a/pool_proj (in-place)
I0403 21:47:59.519976 24282 net.cpp:141] Setting up inception_5a/relu_pool_proj
I0403 21:47:59.520004 24282 net.cpp:148] Top shape: 24 128 7 7 (150528)
I0403 21:47:59.520020 24282 net.cpp:156] Memory required for data: 1305673248
I0403 21:47:59.520035 24282 layer_factory.hpp:77] Creating layer inception_5a/output
I0403 21:47:59.520052 24282 net.cpp:91] Creating Layer inception_5a/output
I0403 21:47:59.520068 24282 net.cpp:425] inception_5a/output <- inception_5a/1x1
I0403 21:47:59.520086 24282 net.cpp:425] inception_5a/output <- inception_5a/3x3
I0403 21:47:59.520102 24282 net.cpp:425] inception_5a/output <- inception_5a/5x5
I0403 21:47:59.520118 24282 net.cpp:425] inception_5a/output <- inception_5a/pool_proj
I0403 21:47:59.520138 24282 net.cpp:399] inception_5a/output -> inception_5a/output
I0403 21:47:59.520186 24282 net.cpp:141] Setting up inception_5a/output
I0403 21:47:59.520213 24282 net.cpp:148] Top shape: 24 832 7 7 (978432)
I0403 21:47:59.520232 24282 net.cpp:156] Memory required for data: 1309586976
I0403 21:47:59.520248 24282 layer_factory.hpp:77] Creating layer inception_5a/output_inception_5a/output_0_split
I0403 21:47:59.520267 24282 net.cpp:91] Creating Layer inception_5a/output_inception_5a/output_0_split
I0403 21:47:59.520283 24282 net.cpp:425] inception_5a/output_inception_5a/output_0_split <- inception_5a/output
I0403 21:47:59.520303 24282 net.cpp:399] inception_5a/output_inception_5a/output_0_split -> inception_5a/output_inception_5a/output_0_split_0
I0403 21:47:59.520324 24282 net.cpp:399] inception_5a/output_inception_5a/output_0_split -> inception_5a/output_inception_5a/output_0_split_1
I0403 21:47:59.520346 24282 net.cpp:399] inception_5a/output_inception_5a/output_0_split -> inception_5a/output_inception_5a/output_0_split_2
I0403 21:47:59.520367 24282 net.cpp:399] inception_5a/output_inception_5a/output_0_split -> inception_5a/output_inception_5a/output_0_split_3
I0403 21:47:59.520478 24282 net.cpp:141] Setting up inception_5a/output_inception_5a/output_0_split
I0403 21:47:59.520503 24282 net.cpp:148] Top shape: 24 832 7 7 (978432)
I0403 21:47:59.520519 24282 net.cpp:148] Top shape: 24 832 7 7 (978432)
I0403 21:47:59.520534 24282 net.cpp:148] Top shape: 24 832 7 7 (978432)
I0403 21:47:59.520550 24282 net.cpp:148] Top shape: 24 832 7 7 (978432)
I0403 21:47:59.520565 24282 net.cpp:156] Memory required for data: 1325241888
I0403 21:47:59.520579 24282 layer_factory.hpp:77] Creating layer inception_5b/1x1
I0403 21:47:59.520603 24282 net.cpp:91] Creating Layer inception_5b/1x1
I0403 21:47:59.520622 24282 net.cpp:425] inception_5b/1x1 <- inception_5a/output_inception_5a/output_0_split_0
I0403 21:47:59.520642 24282 net.cpp:399] inception_5b/1x1 -> inception_5b/1x1
I0403 21:47:59.524423 24282 net.cpp:141] Setting up inception_5b/1x1
I0403 21:47:59.524452 24282 net.cpp:148] Top shape: 24 384 7 7 (451584)
I0403 21:47:59.524468 24282 net.cpp:156] Memory required for data: 1327048224
I0403 21:47:59.524487 24282 layer_factory.hpp:77] Creating layer inception_5b/relu_1x1
I0403 21:47:59.524507 24282 net.cpp:91] Creating Layer inception_5b/relu_1x1
I0403 21:47:59.524525 24282 net.cpp:425] inception_5b/relu_1x1 <- inception_5b/1x1
I0403 21:47:59.524543 24282 net.cpp:386] inception_5b/relu_1x1 -> inception_5b/1x1 (in-place)
I0403 21:47:59.524844 24282 net.cpp:141] Setting up inception_5b/relu_1x1
I0403 21:47:59.524870 24282 net.cpp:148] Top shape: 24 384 7 7 (451584)
I0403 21:47:59.524886 24282 net.cpp:156] Memory required for data: 1328854560
I0403 21:47:59.524901 24282 layer_factory.hpp:77] Creating layer inception_5b/3x3_reduce
I0403 21:47:59.524924 24282 net.cpp:91] Creating Layer inception_5b/3x3_reduce
I0403 21:47:59.524941 24282 net.cpp:425] inception_5b/3x3_reduce <- inception_5a/output_inception_5a/output_0_split_1
I0403 21:47:59.524965 24282 net.cpp:399] inception_5b/3x3_reduce -> inception_5b/3x3_reduce
I0403 21:47:59.527591 24282 net.cpp:141] Setting up inception_5b/3x3_reduce
I0403 21:47:59.527621 24282 net.cpp:148] Top shape: 24 192 7 7 (225792)
I0403 21:47:59.527638 24282 net.cpp:156] Memory required for data: 1329757728
I0403 21:47:59.527657 24282 layer_factory.hpp:77] Creating layer inception_5b/relu_3x3_reduce
I0403 21:47:59.527675 24282 net.cpp:91] Creating Layer inception_5b/relu_3x3_reduce
I0403 21:47:59.527691 24282 net.cpp:425] inception_5b/relu_3x3_reduce <- inception_5b/3x3_reduce
I0403 21:47:59.527710 24282 net.cpp:386] inception_5b/relu_3x3_reduce -> inception_5b/3x3_reduce (in-place)
I0403 21:47:59.527900 24282 net.cpp:141] Setting up inception_5b/relu_3x3_reduce
I0403 21:47:59.527927 24282 net.cpp:148] Top shape: 24 192 7 7 (225792)
I0403 21:47:59.527943 24282 net.cpp:156] Memory required for data: 1330660896
I0403 21:47:59.527958 24282 layer_factory.hpp:77] Creating layer inception_5b/3x3
I0403 21:47:59.527981 24282 net.cpp:91] Creating Layer inception_5b/3x3
I0403 21:47:59.527999 24282 net.cpp:425] inception_5b/3x3 <- inception_5b/3x3_reduce
I0403 21:47:59.528020 24282 net.cpp:399] inception_5b/3x3 -> inception_5b/3x3
I0403 21:47:59.534632 24282 net.cpp:141] Setting up inception_5b/3x3
I0403 21:47:59.534662 24282 net.cpp:148] Top shape: 24 384 7 7 (451584)
I0403 21:47:59.534678 24282 net.cpp:156] Memory required for data: 1332467232
I0403 21:47:59.534696 24282 layer_factory.hpp:77] Creating layer inception_5b/relu_3x3
I0403 21:47:59.534718 24282 net.cpp:91] Creating Layer inception_5b/relu_3x3
I0403 21:47:59.534735 24282 net.cpp:425] inception_5b/relu_3x3 <- inception_5b/3x3
I0403 21:47:59.534754 24282 net.cpp:386] inception_5b/relu_3x3 -> inception_5b/3x3 (in-place)
I0403 21:47:59.535054 24282 net.cpp:141] Setting up inception_5b/relu_3x3
I0403 21:47:59.535080 24282 net.cpp:148] Top shape: 24 384 7 7 (451584)
I0403 21:47:59.535096 24282 net.cpp:156] Memory required for data: 1334273568
I0403 21:47:59.535111 24282 layer_factory.hpp:77] Creating layer inception_5b/5x5_reduce
I0403 21:47:59.535150 24282 net.cpp:91] Creating Layer inception_5b/5x5_reduce
I0403 21:47:59.535169 24282 net.cpp:425] inception_5b/5x5_reduce <- inception_5a/output_inception_5a/output_0_split_2
I0403 21:47:59.535192 24282 net.cpp:399] inception_5b/5x5_reduce -> inception_5b/5x5_reduce
I0403 21:47:59.536483 24282 net.cpp:141] Setting up inception_5b/5x5_reduce
I0403 21:47:59.536510 24282 net.cpp:148] Top shape: 24 48 7 7 (56448)
I0403 21:47:59.536526 24282 net.cpp:156] Memory required for data: 1334499360
I0403 21:47:59.536545 24282 layer_factory.hpp:77] Creating layer inception_5b/relu_5x5_reduce
I0403 21:47:59.536566 24282 net.cpp:91] Creating Layer inception_5b/relu_5x5_reduce
I0403 21:47:59.536586 24282 net.cpp:425] inception_5b/relu_5x5_reduce <- inception_5b/5x5_reduce
I0403 21:47:59.536602 24282 net.cpp:386] inception_5b/relu_5x5_reduce -> inception_5b/5x5_reduce (in-place)
I0403 21:47:59.536970 24282 net.cpp:141] Setting up inception_5b/relu_5x5_reduce
I0403 21:47:59.536996 24282 net.cpp:148] Top shape: 24 48 7 7 (56448)
I0403 21:47:59.537012 24282 net.cpp:156] Memory required for data: 1334725152
I0403 21:47:59.537027 24282 layer_factory.hpp:77] Creating layer inception_5b/5x5
I0403 21:47:59.537050 24282 net.cpp:91] Creating Layer inception_5b/5x5
I0403 21:47:59.537067 24282 net.cpp:425] inception_5b/5x5 <- inception_5b/5x5_reduce
I0403 21:47:59.537086 24282 net.cpp:399] inception_5b/5x5 -> inception_5b/5x5
I0403 21:47:59.539106 24282 net.cpp:141] Setting up inception_5b/5x5
I0403 21:47:59.539135 24282 net.cpp:148] Top shape: 24 128 7 7 (150528)
I0403 21:47:59.539151 24282 net.cpp:156] Memory required for data: 1335327264
I0403 21:47:59.539170 24282 layer_factory.hpp:77] Creating layer inception_5b/relu_5x5
I0403 21:47:59.539192 24282 net.cpp:91] Creating Layer inception_5b/relu_5x5
I0403 21:47:59.539211 24282 net.cpp:425] inception_5b/relu_5x5 <- inception_5b/5x5
I0403 21:47:59.539232 24282 net.cpp:386] inception_5b/relu_5x5 -> inception_5b/5x5 (in-place)
I0403 21:47:59.539425 24282 net.cpp:141] Setting up inception_5b/relu_5x5
I0403 21:47:59.539453 24282 net.cpp:148] Top shape: 24 128 7 7 (150528)
I0403 21:47:59.539469 24282 net.cpp:156] Memory required for data: 1335929376
I0403 21:47:59.539484 24282 layer_factory.hpp:77] Creating layer inception_5b/pool
I0403 21:47:59.539502 24282 net.cpp:91] Creating Layer inception_5b/pool
I0403 21:47:59.539518 24282 net.cpp:425] inception_5b/pool <- inception_5a/output_inception_5a/output_0_split_3
I0403 21:47:59.539538 24282 net.cpp:399] inception_5b/pool -> inception_5b/pool
I0403 21:47:59.539611 24282 net.cpp:141] Setting up inception_5b/pool
I0403 21:47:59.539636 24282 net.cpp:148] Top shape: 24 832 7 7 (978432)
I0403 21:47:59.539652 24282 net.cpp:156] Memory required for data: 1339843104
I0403 21:47:59.539669 24282 layer_factory.hpp:77] Creating layer inception_5b/pool_proj
I0403 21:47:59.539690 24282 net.cpp:91] Creating Layer inception_5b/pool_proj
I0403 21:47:59.539708 24282 net.cpp:425] inception_5b/pool_proj <- inception_5b/pool
I0403 21:47:59.539729 24282 net.cpp:399] inception_5b/pool_proj -> inception_5b/pool_proj
I0403 21:47:59.542011 24282 net.cpp:141] Setting up inception_5b/pool_proj
I0403 21:47:59.542040 24282 net.cpp:148] Top shape: 24 128 7 7 (150528)
I0403 21:47:59.542057 24282 net.cpp:156] Memory required for data: 1340445216
I0403 21:47:59.542078 24282 layer_factory.hpp:77] Creating layer inception_5b/relu_pool_proj
I0403 21:47:59.542098 24282 net.cpp:91] Creating Layer inception_5b/relu_pool_proj
I0403 21:47:59.542116 24282 net.cpp:425] inception_5b/relu_pool_proj <- inception_5b/pool_proj
I0403 21:47:59.542135 24282 net.cpp:386] inception_5b/relu_pool_proj -> inception_5b/pool_proj (in-place)
I0403 21:47:59.542433 24282 net.cpp:141] Setting up inception_5b/relu_pool_proj
I0403 21:47:59.542459 24282 net.cpp:148] Top shape: 24 128 7 7 (150528)
I0403 21:47:59.542474 24282 net.cpp:156] Memory required for data: 1341047328
I0403 21:47:59.542490 24282 layer_factory.hpp:77] Creating layer inception_5b/output
I0403 21:47:59.542506 24282 net.cpp:91] Creating Layer inception_5b/output
I0403 21:47:59.542539 24282 net.cpp:425] inception_5b/output <- inception_5b/1x1
I0403 21:47:59.542558 24282 net.cpp:425] inception_5b/output <- inception_5b/3x3
I0403 21:47:59.542577 24282 net.cpp:425] inception_5b/output <- inception_5b/5x5
I0403 21:47:59.542593 24282 net.cpp:425] inception_5b/output <- inception_5b/pool_proj
I0403 21:47:59.542610 24282 net.cpp:399] inception_5b/output -> inception_5b/output
I0403 21:47:59.542660 24282 net.cpp:141] Setting up inception_5b/output
I0403 21:47:59.542686 24282 net.cpp:148] Top shape: 24 1024 7 7 (1204224)
I0403 21:47:59.542702 24282 net.cpp:156] Memory required for data: 1345864224
I0403 21:47:59.542718 24282 layer_factory.hpp:77] Creating layer pool5/7x7_s1
I0403 21:47:59.542737 24282 net.cpp:91] Creating Layer pool5/7x7_s1
I0403 21:47:59.542752 24282 net.cpp:425] pool5/7x7_s1 <- inception_5b/output
I0403 21:47:59.542773 24282 net.cpp:399] pool5/7x7_s1 -> pool5/7x7_s1
I0403 21:47:59.542986 24282 net.cpp:141] Setting up pool5/7x7_s1
I0403 21:47:59.543012 24282 net.cpp:148] Top shape: 24 1024 1 1 (24576)
I0403 21:47:59.543028 24282 net.cpp:156] Memory required for data: 1345962528
I0403 21:47:59.543043 24282 layer_factory.hpp:77] Creating layer pool5/drop_7x7_s1
I0403 21:47:59.543064 24282 net.cpp:91] Creating Layer pool5/drop_7x7_s1
I0403 21:47:59.543081 24282 net.cpp:425] pool5/drop_7x7_s1 <- pool5/7x7_s1
I0403 21:47:59.543099 24282 net.cpp:386] pool5/drop_7x7_s1 -> pool5/7x7_s1 (in-place)
I0403 21:47:59.543150 24282 net.cpp:141] Setting up pool5/drop_7x7_s1
I0403 21:47:59.543174 24282 net.cpp:148] Top shape: 24 1024 1 1 (24576)
I0403 21:47:59.543190 24282 net.cpp:156] Memory required for data: 1346060832
I0403 21:47:59.543205 24282 layer_factory.hpp:77] Creating layer loss3/classifier_plantvillage
I0403 21:47:59.543226 24282 net.cpp:91] Creating Layer loss3/classifier_plantvillage
I0403 21:47:59.543251 24282 net.cpp:425] loss3/classifier_plantvillage <- pool5/7x7_s1
I0403 21:47:59.543268 24282 net.cpp:399] loss3/classifier_plantvillage -> loss3/classifier_plantvillage
I0403 21:47:59.543686 24282 net.cpp:141] Setting up loss3/classifier_plantvillage
I0403 21:47:59.543711 24282 net.cpp:148] Top shape: 24 38 (912)
I0403 21:47:59.543725 24282 net.cpp:156] Memory required for data: 1346064480
I0403 21:47:59.543743 24282 layer_factory.hpp:77] Creating layer loss3/classifier_plantvillage_loss3/classifier_plantvillage_0_split
I0403 21:47:59.543761 24282 net.cpp:91] Creating Layer loss3/classifier_plantvillage_loss3/classifier_plantvillage_0_split
I0403 21:47:59.543778 24282 net.cpp:425] loss3/classifier_plantvillage_loss3/classifier_plantvillage_0_split <- loss3/classifier_plantvillage
I0403 21:47:59.543802 24282 net.cpp:399] loss3/classifier_plantvillage_loss3/classifier_plantvillage_0_split -> loss3/classifier_plantvillage_loss3/classifier_plantvillage_0_split_0
I0403 21:47:59.543825 24282 net.cpp:399] loss3/classifier_plantvillage_loss3/classifier_plantvillage_0_split -> loss3/classifier_plantvillage_loss3/classifier_plantvillage_0_split_1
I0403 21:47:59.543846 24282 net.cpp:399] loss3/classifier_plantvillage_loss3/classifier_plantvillage_0_split -> loss3/classifier_plantvillage_loss3/classifier_plantvillage_0_split_2
I0403 21:47:59.543867 24282 net.cpp:399] loss3/classifier_plantvillage_loss3/classifier_plantvillage_0_split -> loss3/classifier_plantvillage_loss3/classifier_plantvillage_0_split_3
I0403 21:47:59.543970 24282 net.cpp:141] Setting up loss3/classifier_plantvillage_loss3/classifier_plantvillage_0_split
I0403 21:47:59.543994 24282 net.cpp:148] Top shape: 24 38 (912)
I0403 21:47:59.544011 24282 net.cpp:148] Top shape: 24 38 (912)
I0403 21:47:59.544028 24282 net.cpp:148] Top shape: 24 38 (912)
I0403 21:47:59.544044 24282 net.cpp:148] Top shape: 24 38 (912)
I0403 21:47:59.544057 24282 net.cpp:156] Memory required for data: 1346079072
I0403 21:47:59.544072 24282 layer_factory.hpp:77] Creating layer loss1/loss
I0403 21:47:59.544096 24282 net.cpp:91] Creating Layer loss1/loss
I0403 21:47:59.544114 24282 net.cpp:425] loss1/loss <- loss1/classifier_plantvillage_loss1/classifier_plantvillage_0_split_0
I0403 21:47:59.544145 24282 net.cpp:425] loss1/loss <- label_data_1_split_0
…
