…
I0403 21:50:50.158859 24441 net.cpp:313] The NetState phase (1) differed from the phase (0) specified by a rule in layer data
I0403 21:50:50.160037 24441 net.cpp:49] Initializing net from parameters: 
state {
  phase: TEST
}
layer {
  name: "data"
  type: "Data"
  top: "data"
  top: "label"
  include {
    phase: TEST
  }
  transform_param {
    mirror: false
    crop_size: 224
    mean_file: "/home/mohanty/data/final_dataset/lmdb/segmented-80-20/mean.binaryproto"
  }
  data_param {
    source: "/home/mohanty/data/final_dataset/lmdb/segmented-80-20/test_db"
    batch_size: 24
    backend: LMDB
  }
}
layer {
  name: "conv1/7x7_s2"
  type: "Convolution"
  bottom: "data"
  top: "conv1/7x7_s2"
  param {
    lr_mult: 1
    decay_mult: 1
  }
  param {
    lr_mult: 2
    decay_mult: 0
  }
  convolution_param {
    num_output: 64
    pad: 3
    kernel_size: 7
    stride: 2
    weight_filler {
      type: "xavier"
      std: 0.1
    }
    bias_filler {
      type: "constant"
      value: 0.2
    }
  }
}
layer {
  name: "conv1/relu_7x7"
  type: "ReLU"
  bottom: "conv1/7x7_s2"
  top: "conv1/7x7_s2"
}
layer {
  name: "pool1/3x3_s2"
  type: "Pooling"
  bottom: "conv1/7x7_s2"
  top: "pool1/3x3_s2"
  pooling_param {
    pool: MAX
    kernel_size: 3
    stride: 2
  }
}
layer {
  name: "pool1/norm1"
  type: "LRN"
  bottom: "pool1/3x3_s2"
  top: "pool1/norm1"
  lrn_param {
    local_size: 5
    alpha: 0.0001
    beta: 0.75
  }
}
layer {
  name: "conv2/3x3_reduce"
  type: "Convolution"
  bottom: "pool1/norm1"
  top: "conv2/3x3_reduce"
  param {
    lr_mult: 1
    decay_mult: 1
  }
  param {
    lr_mult: 2
    decay_mult: 0
  }
  convolution_param {
    num_output: 64
    kernel_size: 1
    weight_filler {
      type: "xavier"
      std: 0.1
    }
    bias_filler {
      type: "constant"
      value: 0.2
    }
  }
}
layer {
  name: "conv2/relu_3x3_reduce"
  type: "ReLU"
  bottom: "conv2/3x3_reduce"
  top: "conv2/3x3_reduce"
}
layer {
  name: "conv2/3x3"
  type: "Convolution"
  bottom: "conv2/3x3_reduce"
  top: "conv2/3x3"
  param {
    lr_mult: 1
    decay_mult: 1
  }
  param {
    lr_mult: 2
    decay_mult: 0
  }
  convolution_param {
    num_output: 192
    pad: 1
    kernel_size: 3
    weight_filler {
      type: "xavier"
      std: 0.03
    }
    bias_filler {
      type: "constant"
      value: 0.2
    }
  }
}
layer {
  name: "conv2/relu_3x3"
  type: "ReLU"
  bottom: "conv2/3x3"
  top: "conv2/3x3"
}
layer {
  name: "conv2/norm2"
  type: "LRN"
  bottom: "conv2/3x3"
  top: "conv2/norm2"
  lrn_param {
    local_size: 5
    alpha: 0.0001
    beta: 0.75
  }
}
layer {
  name: "pool2/3x3_s2"
  type: "Pooling"
  bottom: "conv2/norm2"
  top: "pool2/3x3_s2"
  pooling_param {
    pool: MAX
    kernel_size: 3
    stride: 2
  }
}
layer {
  name: "inception_3a/1x1"
  type: "Convolution"
  bottom: "pool2/3x3_s2"
  top: "inception_3a/1x1"
  param {
    lr_mult: 1
    decay_mult: 1
  }
  param {
    lr_mult: 2
    decay_mult: 0
  }
  convolution_param {
    num_output: 64
    kernel_size: 1
    weight_filler {
      type: "xavier"
      std: 0.03
    }
    bias_filler {
      type: "constant"
      value: 0.2
    }
  }
}
layer {
  name: "inception_3a/relu_1x1"
  type: "ReLU"
  bottom: "inception_3a/1x1"
  top: "inception_3a/1x1"
}
layer {
  name: "inception_3a/3x3_reduce"
  type: "Convolution"
  bottom: "pool2/3x3_s2"
  top: "inception_3a/3x3_reduce"
  param {
    lr_mult: 1
    decay_mult: 1
  }
  param {
    lr_mult: 2
    decay_mult: 0
  }
  convolution_param {
    num_output: 96
    kernel_size: 1
    weight_filler {
      type: "xavier"
      std: 0.09
    }
    bias_filler {
      type: "constant"
      value: 0.2
    }
  }
}
layer {
  name: "inception_3a/relu_3x3_reduce"
  type: "ReLU"
  bottom: "inception_3a/3x3_reduce"
  top: "inception_3a/3x3_reduce"
}
layer {
  name: "inception_3a/3x3"
  type: "Convolution"
  bottom: "inception_3a/3x3_reduce"
  top: "inception_3a/3x3"
  param {
    lr_mult: 1
    decay_mult: 1
  }
  param {
    lr_mult: 2
    decay_mult: 0
  }
  convolution_param {
    num_output: 128
    pad: 1
    kernel_size: 3
    weight_filler {
      type: "xavier"
      std: 0.03
    }
    bias_filler {
      type: "constant"
      value: 0.2
    }
  }
}
layer {
  name: "inception_3a/relu_3x3"
  type: "ReLU"
  bottom: "inception_3a/3x3"
  top: "inception_3a/3x3"
}
layer {
  name: "inception_3a/5x5_reduce"
  type: "Convolution"
  bottom: "pool2/3x3_s2"
  top: "inception_3a/5x5_reduce"
  param {
    lr_mult: 1
    decay_mult: 1
  }
  param {
    lr_mult: 2
    decay_mult: 0
  }
  convolution_param {
    num_output: 16
    kernel_size: 1
    weight_filler {
      type: "xavier"
      std: 0.2
    }
    bias_filler {
      type: "constant"
      value: 0.2
    }
  }
}
layer {
  name: "inception_3a/relu_5x5_reduce"
  type: "ReLU"
  bottom: "inception_3a/5x5_reduce"
  top: "inception_3a/5x5_reduce"
}
layer {
  name: "inception_3a/5x5"
  type: "Convolution"
  bottom: "inception_3a/5x5_reduce"
  top: "inception_3a/5x5"
  param {
    lr_mult: 1
    decay_mult: 1
  }
  param {
    lr_mult: 2
    decay_mult: 0
  }
  convolution_param {
    num_output: 32
    pad: 2
    kernel_size: 5
    weight_filler {
      type: "xavier"
      std: 0.03
    }
    bias_filler {
      type: "constant"
      value: 0.2
    }
  }
}
layer {
  name: "inception_3a/relu_5x5"
  type: "ReLU"
  bottom: "inception_3a/5x5"
  top: "inception_3a/5x5"
}
layer {
  name: "inception_3a/pool"
  type: "Pooling"
  bottom: "pool2/3x3_s2"
  top: "inception_3a/pool"
  pooling_param {
    pool: MAX
    kernel_size: 3
    stride: 1
    pad: 1
  }
}
layer {
  name: "inception_3a/pool_proj"
  type: "Convolution"
  bottom: "inception_3a/pool"
  top: "inception_3a/pool_proj"
  param {
    lr_mult: 1
    decay_mult: 1
  }
  param {
    lr_mult: 2
    decay_mult: 0
  }
  convolution_param {
    num_output: 32
    kernel_size: 1
    weight_filler {
      type: "xavier"
      std: 0.1
    }
    bias_filler {
      type: "constant"
      value: 0.2
    }
  }
}
layer {
  name: "inception_3a/relu_pool_proj"
  type: "ReLU"
  bottom: "inception_3a/pool_proj"
  top: "inception_3a/pool_proj"
}
layer {
  name: "inception_3a/output"
  type: "Concat"
  bottom: "inception_3a/1x1"
  bottom: "inception_3a/3x3"
  bottom: "inception_3a/5x5"
  bottom: "inception_3a/pool_proj"
  top: "inception_3a/output"
}
layer {
  name: "inception_3b/1x1"
  type: "Convolution"
  bottom: "inception_3a/output"
  top: "inception_3b/1x1"
  param {
    lr_mult: 1
    decay_mult: 1
  }
  param {
    lr_mult: 2
    decay_mult: 0
  }
  convolution_param {
    num_output: 128
    kernel_size: 1
    weight_filler {
      type: "xavier"
      std: 0.03
    }
    bias_filler {
      type: "constant"
      value: 0.2
    }
  }
}
layer {
  name: "inception_3b/relu_1x1"
  type: "ReLU"
  bottom: "inception_3b/1x1"
  top: "inception_3b/1x1"
}
layer {
  name: "inception_3b/3x3_reduce"
  type: "Convolution"
  bottom: "inception_3a/output"
  top: "inception_3b/3x3_reduce"
  param {
    lr_mult: 1
    decay_mult: 1
  }
  param {
    lr_mult: 2
    decay_mult: 0
  }
  convolution_param {
    num_output: 128
    kernel_size: 1
    weight_filler {
      type: "xavier"
      std: 0.09
    }
    bias_filler {
      type: "constant"
      value: 0.2
    }
  }
}
layer {
  name: "inception_3b/relu_3x3_reduce"
  type: "ReLU"
  bottom: "inception_3b/3x3_reduce"
  top: "inception_3b/3x3_reduce"
}
layer {
  name: "inception_3b/3x3"
  type: "Convolution"
  bottom: "inception_3b/3x3_reduce"
  top: "inception_3b/3x3"
  param {
    lr_mult: 1
    decay_mult: 1
  }
  param {
    lr_mult: 2
    decay_mult: 0
  }
  convolution_param {
    num_output: 192
    pad: 1
    kernel_size: 3
    weight_filler {
      type: "xavier"
      std: 0.03
    }
    bias_filler {
      type: "constant"
      value: 0.2
    }
  }
}
layer {
  name: "inception_3b/relu_3x3"
  type: "ReLU"
  bottom: "inception_3b/3x3"
  top: "inception_3b/3x3"
}
layer {
  name: "inception_3b/5x5_reduce"
  type: "Convolution"
  bottom: "inception_3a/output"
  top: "inception_3b/5x5_reduce"
  param {
    lr_mult: 1
    decay_mult: 1
  }
  param {
    lr_mult: 2
    decay_mult: 0
  }
  convolution_param {
    num_output: 32
    kernel_size: 1
    weight_filler {
      type: "xavier"
      std: 0.2
    }
    bias_filler {
      type: "constant"
      value: 0.2
    }
  }
}
layer {
  name: "inception_3b/relu_5x5_reduce"
  type: "ReLU"
  bottom: "inception_3b/5x5_reduce"
  top: "inception_3b/5x5_reduce"
}
layer {
  name: "inception_3b/5x5"
  type: "Convolution"
  bottom: "inception_3b/5x5_reduce"
  top: "inception_3b/5x5"
  param {
    lr_mult: 1
    decay_mult: 1
  }
  param {
    lr_mult: 2
    decay_mult: 0
  }
  convolution_param {
    num_output: 96
    pad: 2
    kernel_size: 5
    weight_filler {
      type: "xavier"
      std: 0.03
    }
    bias_filler {
      type: "constant"
      value: 0.2
    }
  }
}
layer {
  name: "inception_3b/relu_5x5"
  type: "ReLU"
  bottom: "inception_3b/5x5"
  top: "inception_3b/5x5"
}
layer {
  name: "inception_3b/pool"
  type: "Pooling"
  bottom: "inception_3a/output"
  top: "inception_3b/pool"
  pooling_param {
    pool: MAX
    kernel_size: 3
    stride: 1
    pad: 1
  }
}
layer {
  name: "inception_3b/pool_proj"
  type: "Convolution"
  bottom: "inception_3b/pool"
  top: "inception_3b/pool_proj"
  param {
    lr_mult: 1
    decay_mult: 1
  }
  param {
    lr_mult: 2
    decay_mult: 0
  }
  convolution_param {
    num_output: 64
    kernel_size: 1
    weight_filler {
      type: "xavier"
      std: 0.1
    }
    bias_filler {
      type: "constant"
      value: 0.2
    }
  }
}
layer {
  name: "inception_3b/relu_pool_proj"
  type: "ReLU"
  bottom: "inception_3b/pool_proj"
  top: "inception_3b/pool_proj"
}
layer {
  name: "inception_3b/output"
  type: "Concat"
  bottom: "inception_3b/1x1"
  bottom: "inception_3b/3x3"
  bottom: "inception_3b/5x5"
  bottom: "inception_3b/pool_proj"
  top: "inception_3b/output"
}
layer {
  name: "pool3/3x3_s2"
  type: "Pooling"
  bottom: "inception_3b/output"
  top: "pool3/3x3_s2"
  pooling_param {
    pool: MAX
    kernel_size: 3
    stride: 2
  }
}
layer {
  name: "inception_4a/1x1"
  type: "Convolution"
  bottom: "pool3/3x3_s2"
  top: "inception_4a/1x1"
  param {
    lr_mult: 1
    decay_mult: 1
  }
  param {
    lr_mult: 2
    decay_mult: 0
  }
  convolution_param {
    num_output: 192
    kernel_size: 1
    weight_filler {
      type: "xavier"
      std: 0.03
    }
    bias_filler {
      type: "constant"
      value: 0.2
    }
  }
}
layer {
  name: "inception_4a/relu_1x1"
  type: "ReLU"
  bottom: "inception_4a/1x1"
  top: "inception_4a/1x1"
}
layer {
  name: "inception_4a/3x3_reduce"
  type: "Convolution"
  bottom: "pool3/3x3_s2"
  top: "inception_4a/3x3_reduce"
  param {
    lr_mult: 1
    decay_mult: 1
  }
  param {
    lr_mult: 2
    decay_mult: 0
  }
  convolution_param {
    num_output: 96
    kernel_size: 1
    weight_filler {
      type: "xavier"
      std: 0.09
    }
    bias_filler {
      type: "constant"
      value: 0.2
    }
  }
}
layer {
  name: "inception_4a/relu_3x3_reduce"
  type: "ReLU"
  bottom: "inception_4a/3x3_reduce"
  top: "inception_4a/3x3_reduce"
}
layer {
  name: "inception_4a/3x3"
  type: "Convolution"
  bottom: "inception_4a/3x3_reduce"
  top: "inception_4a/3x3"
  param {
    lr_mult: 1
    decay_mult: 1
  }
  param {
    lr_mult: 2
    decay_mult: 0
  }
  convolution_param {
    num_output: 208
    pad: 1
    kernel_size: 3
    weight_filler {
      type: "xavier"
      std: 0.03
    }
    bias_filler {
      type: "constant"
      value: 0.2
    }
  }
}
layer {
  name: "inception_4a/relu_3x3"
  type: "ReLU"
  bottom: "inception_4a/3x3"
  top: "inception_4a/3x3"
}
layer {
  name: "inception_4a/5x5_reduce"
  type: "Convolution"
  bottom: "pool3/3x3_s2"
  top: "inception_4a/5x5_reduce"
  param {
    lr_mult: 1
    decay_mult: 1
  }
  param {
    lr_mult: 2
    decay_mult: 0
  }
  convolution_param {
    num_output: 16
    kernel_size: 1
    weight_filler {
      type: "xavier"
      std: 0.2
    }
    bias_filler {
      type: "constant"
      value: 0.2
    }
  }
}
layer {
  name: "inception_4a/relu_5x5_reduce"
  type: "ReLU"
  bottom: "inception_4a/5x5_reduce"
  top: "inception_4a/5x5_reduce"
}
layer {
  name: "inception_4a/5x5"
  type: "Convolution"
  bottom: "inception_4a/5x5_reduce"
  top: "inception_4a/5x5"
  param {
    lr_mult: 1
    decay_mult: 1
  }
  param {
    lr_mult: 2
    decay_mult: 0
  }
  convolution_param {
    num_output: 48
    pad: 2
    kernel_size: 5
    weight_filler {
      type: "xavier"
      std: 0.03
    }
    bias_filler {
      type: "constant"
      value: 0.2
    }
  }
}
layer {
  name: "inception_4a/relu_5x5"
  type: "ReLU"
  bottom: "inception_4a/5x5"
  top: "inception_4a/5x5"
}
layer {
  name: "inception_4a/pool"
  type: "Pooling"
  bottom: "pool3/3x3_s2"
  top: "inception_4a/pool"
  pooling_param {
    pool: MAX
    kernel_size: 3
    stride: 1
    pad: 1
  }
}
layer {
  name: "inception_4a/pool_proj"
  type: "Convolution"
  bottom: "inception_4a/pool"
  top: "inception_4a/pool_proj"
  param {
    lr_mult: 1
    decay_mult: 1
  }
  param {
    lr_mult: 2
    decay_mult: 0
  }
  convolution_param {
    num_output: 64
    kernel_size: 1
    weight_filler {
      type: "xavier"
      std: 0.1
    }
    bias_filler {
      type: "constant"
      value: 0.2
    }
  }
}
layer {
  name: "inception_4a/relu_pool_proj"
  type: "ReLU"
  bottom: "inception_4a/pool_proj"
  top: "inception_4a/pool_proj"
}
layer {
  name: "inception_4a/output"
  type: "Concat"
  bottom: "inception_4a/1x1"
  bottom: "inception_4a/3x3"
  bottom: "inception_4a/5x5"
  bottom: "inception_4a/pool_proj"
  top: "inception_4a/output"
}
layer {
  name: "loss1/ave_pool"
  type: "Pooling"
  bottom: "inception_4a/output"
  top: "loss1/ave_pool"
  pooling_param {
    pool: AVE
    kernel_size: 5
    stride: 3
  }
}
layer {
  name: "loss1/conv"
  type: "Convolution"
  bottom: "loss1/ave_pool"
  top: "loss1/conv"
  param {
    lr_mult: 1
    decay_mult: 1
  }
  param {
    lr_mult: 2
    decay_mult: 0
  }
  convolution_param {
    num_output: 128
    kernel_size: 1
    weight_filler {
      type: "xavier"
      std: 0.08
    }
    bias_filler {
      type: "constant"
      value: 0.2
    }
  }
}
layer {
  name: "loss1/relu_conv"
  type: "ReLU"
  bottom: "loss1/conv"
  top: "loss1/conv"
}
layer {
  name: "loss1/fc"
  type: "InnerProduct"
  bottom: "loss1/conv"
  top: "loss1/fc"
  param {
    lr_mult: 1
    decay_mult: 1
  }
  param {
    lr_mult: 2
    decay_mult: 0
  }
  inner_product_param {
    num_output: 1024
    weight_filler {
      type: "xavier"
      std: 0.02
    }
    bias_filler {
      type: "constant"
      value: 0.2
    }
  }
}
layer {
  name: "loss1/relu_fc"
  type: "ReLU"
  bottom: "loss1/fc"
  top: "loss1/fc"
}
layer {
  name: "loss1/drop_fc"
  type: "Dropout"
  bottom: "loss1/fc"
  top: "loss1/fc"
  dropout_param {
    dropout_ratio: 0.7
  }
}
layer {
  name: "loss1/classifier_plantvillage"
  type: "InnerProduct"
  bottom: "loss1/fc"
  top: "loss1/classifier_plantvillage"
  param {
    lr_mult: 1
    decay_mult: 1
  }
  param {
    lr_mult: 2
    decay_mult: 0
  }
  inner_product_param {
    num_output: 38
    weight_filler {
      type: "xavier"
      std: 0.0009765625
    }
    bias_filler {
      type: "constant"
      value: 0
    }
  }
}
layer {
  name: "inception_4b/1x1"
  type: "Convolution"
  bottom: "inception_4a/output"
  top: "inception_4b/1x1"
  param {
    lr_mult: 1
    decay_mult: 1
  }
  param {
    lr_mult: 2
    decay_mult: 0
  }
  convolution_param {
    num_output: 160
    kernel_size: 1
    weight_filler {
      type: "xavier"
      std: 0.03
    }
    bias_filler {
      type: "constant"
      value: 0.2
    }
  }
}
layer {
  name: "inception_4b/relu_1x1"
  type: "ReLU"
  bottom: "inception_4b/1x1"
  top: "inception_4b/1x1"
}
layer {
  name: "inception_4b/3x3_reduce"
  type: "Convolution"
  bottom: "inception_4a/output"
  top: "inception_4b/3x3_reduce"
  param {
    lr_mult: 1
    decay_mult: 1
  }
  param {
    lr_mult: 2
    decay_mult: 0
  }
  convolution_param {
    num_output: 112
    kernel_size: 1
    weight_filler {
      type: "xavier"
      std: 0.09
    }
    bias_filler {
      type: "constant"
      value: 0.2
    }
  }
}
layer {
  name: "inception_4b/relu_3x3_reduce"
  type: "ReLU"
  bottom: "inception_4b/3x3_reduce"
  top: "inception_4b/3x3_reduce"
}
layer {
  name: "inception_4b/3x3"
  type: "Convolution"
  bottom: "inception_4b/3x3_reduce"
  top: "inception_4b/3x3"
  param {
    lr_mult: 1
    decay_mult: 1
  }
  param {
    lr_mult: 2
    decay_mult: 0
  }
  convolution_param {
    num_output: 224
    pad: 1
    kernel_size: 3
    weight_filler {
      type: "xavier"
      std: 0.03
    }
    bias_filler {
      type: "constant"
      value: 0.2
    }
  }
}
layer {
  name: "inception_4b/relu_3x3"
  type: "ReLU"
  bottom: "inception_4b/3x3"
  top: "inception_4b/3x3"
}
layer {
  name: "inception_4b/5x5_reduce"
  type: "Convolution"
  bottom: "inception_4a/output"
  top: "inception_4b/5x5_reduce"
  param {
    lr_mult: 1
    decay_mult: 1
  }
  param {
    lr_mult: 2
    decay_mult: 0
  }
  convolution_param {
    num_output: 24
    kernel_size: 1
    weight_filler {
      type: "xavier"
      std: 0.2
    }
    bias_filler {
      type: "constant"
      value: 0.2
    }
  }
}
layer {
  name: "inception_4b/relu_5x5_reduce"
  type: "ReLU"
  bottom: "inception_4b/5x5_reduce"
  top: "inception_4b/5x5_reduce"
}
layer {
  name: "inception_4b/5x5"
  type: "Convolution"
  bottom: "inception_4b/5x5_reduce"
  top: "inception_4b/5x5"
  param {
    lr_mult: 1
    decay_mult: 1
  }
  param {
    lr_mult: 2
    decay_mult: 0
  }
  convolution_param {
    num_output: 64
    pad: 2
    kernel_size: 5
    weight_filler {
      type: "xavier"
      std: 0.03
    }
    bias_filler {
      type: "constant"
      value: 0.2
    }
  }
}
layer {
  name: "inception_4b/relu_5x5"
  type: "ReLU"
  bottom: "inception_4b/5x5"
  top: "inception_4b/5x5"
}
layer {
  name: "inception_4b/pool"
  type: "Pooling"
  bottom: "inception_4a/output"
  top: "inception_4b/pool"
  pooling_param {
    pool: MAX
    kernel_size: 3
    stride: 1
    pad: 1
  }
}
layer {
  name: "inception_4b/pool_proj"
  type: "Convolution"
  bottom: "inception_4b/pool"
  top: "inception_4b/pool_proj"
  param {
    lr_mult: 1
    decay_mult: 1
  }
  param {
    lr_mult: 2
    decay_mult: 0
  }
  convolution_param {
    num_output: 64
    kernel_size: 1
    weight_filler {
      type: "xavier"
      std: 0.1
    }
    bias_filler {
      type: "constant"
      value: 0.2
    }
  }
}
layer {
  name: "inception_4b/relu_pool_proj"
  type: "ReLU"
  bottom: "inception_4b/pool_proj"
  top: "inception_4b/pool_proj"
}
layer {
  name: "inception_4b/output"
  type: "Concat"
  bottom: "inception_4b/1x1"
  bottom: "inception_4b/3x3"
  bottom: "inception_4b/5x5"
  bottom: "inception_4b/pool_proj"
  top: "inception_4b/output"
}
layer {
  name: "inception_4c/1x1"
  type: "Convolution"
  bottom: "inception_4b/output"
  top: "inception_4c/1x1"
  param {
    lr_mult: 1
    decay_mult: 1
  }
  param {
    lr_mult: 2
    decay_mult: 0
  }
  convolution_param {
    num_output: 128
    kernel_size: 1
    weight_filler {
      type: "xavier"
      std: 0.03
    }
    bias_filler {
      type: "constant"
      value: 0.2
    }
  }
}
layer {
  name: "inception_4c/relu_1x1"
  type: "ReLU"
  bottom: "inception_4c/1x1"
  top: "inception_4c/1x1"
}
layer {
  name: "inception_4c/3x3_reduce"
  type: "Convolution"
  bottom: "inception_4b/output"
  top: "inception_4c/3x3_reduce"
  param {
    lr_mult: 1
    decay_mult: 1
  }
  param {
    lr_mult: 2
    decay_mult: 0
  }
  convolution_param {
    num_output: 128
    kernel_size: 1
    weight_filler {
      type: "xavier"
      std: 0.09
    }
    bias_filler {
      type: "constant"
      value: 0.2
    }
  }
}
layer {
  name: "inception_4c/relu_3x3_reduce"
  type: "ReLU"
  bottom: "inception_4c/3x3_reduce"
  top: "inception_4c/3x3_reduce"
}
layer {
  name: "inception_4c/3x3"
  type: "Convolution"
  bottom: "inception_4c/3x3_reduce"
  top: "inception_4c/3x3"
  param {
    lr_mult: 1
    decay_mult: 1
  }
  param {
    lr_mult: 2
    decay_mult: 0
  }
  convolution_param {
    num_output: 256
    pad: 1
    kernel_size: 3
    weight_filler {
      type: "xavier"
      std: 0.03
    }
    bias_filler {
      type: "constant"
      value: 0.2
    }
  }
}
layer {
  name: "inception_4c/relu_3x3"
  type: "ReLU"
  bottom: "inception_4c/3x3"
  top: "inception_4c/3x3"
}
layer {
  name: "inception_4c/5x5_reduce"
  type: "Convolution"
  bottom: "inception_4b/output"
  top: "inception_4c/5x5_reduce"
  param {
    lr_mult: 1
    decay_mult: 1
  }
  param {
    lr_mult: 2
    decay_mult: 0
  }
  convolution_param {
    num_output: 24
    kernel_size: 1
    weight_filler {
      type: "xavier"
      std: 0.2
    }
    bias_filler {
      type: "constant"
      value: 0.2
    }
  }
}
layer {
  name: "inception_4c/relu_5x5_reduce"
  type: "ReLU"
  bottom: "inception_4c/5x5_reduce"
  top: "inception_4c/5x5_reduce"
}
layer {
  name: "inception_4c/5x5"
  type: "Convolution"
  bottom: "inception_4c/5x5_reduce"
  top: "inception_4c/5x5"
  param {
    lr_mult: 1
    decay_mult: 1
  }
  param {
    lr_mult: 2
    decay_mult: 0
  }
  convolution_param {
    num_output: 64
    pad: 2
    kernel_size: 5
    weight_filler {
      type: "xavier"
      std: 0.03
    }
    bias_filler {
      type: "constant"
      value: 0.2
    }
  }
}
layer {
  name: "inception_4c/relu_5x5"
  type: "ReLU"
  bottom: "inception_4c/5x5"
  top: "inception_4c/5x5"
}
layer {
  name: "inception_4c/pool"
  type: "Pooling"
  bottom: "inception_4b/output"
  top: "inception_4c/pool"
  pooling_param {
    pool: MAX
    kernel_size: 3
    stride: 1
    pad: 1
  }
}
layer {
  name: "inception_4c/pool_proj"
  type: "Convolution"
  bottom: "inception_4c/pool"
  top: "inception_4c/pool_proj"
  param {
    lr_mult: 1
    decay_mult: 1
  }
  param {
    lr_mult: 2
    decay_mult: 0
  }
  convolution_param {
    num_output: 64
    kernel_size: 1
    weight_filler {
      type: "xavier"
      std: 0.1
    }
    bias_filler {
      type: "constant"
      value: 0.2
    }
  }
}
layer {
  name: "inception_4c/relu_pool_proj"
  type: "ReLU"
  bottom: "inception_4c/pool_proj"
  top: "inception_4c/pool_proj"
}
layer {
  name: "inception_4c/output"
  type: "Concat"
  bottom: "inception_4c/1x1"
  bottom: "inception_4c/3x3"
  bottom: "inception_4c/5x5"
  bottom: "inception_4c/pool_proj"
  top: "inception_4c/output"
}
layer {
  name: "inception_4d/1x1"
  type: "Convolution"
  bottom: "inception_4c/output"
  top: "inception_4d/1x1"
  param {
    lr_mult: 1
    decay_mult: 1
  }
  param {
    lr_mult: 2
    decay_mult: 0
  }
  convolution_param {
    num_output: 112
    kernel_size: 1
    weight_filler {
      type: "xavier"
      std: 0.03
    }
    bias_filler {
      type: "constant"
      value: 0.2
    }
  }
}
layer {
  name: "inception_4d/relu_1x1"
  type: "ReLU"
  bottom: "inception_4d/1x1"
  top: "inception_4d/1x1"
}
layer {
  name: "inception_4d/3x3_reduce"
  type: "Convolution"
  bottom: "inception_4c/output"
  top: "inception_4d/3x3_reduce"
  param {
    lr_mult: 1
    decay_mult: 1
  }
  param {
    lr_mult: 2
    decay_mult: 0
  }
  convolution_param {
    num_output: 144
    kernel_size: 1
    weight_filler {
      type: "xavier"
      std: 0.09
    }
    bias_filler {
      type: "constant"
      value: 0.2
    }
  }
}
layer {
  name: "inception_4d/relu_3x3_reduce"
  type: "ReLU"
  bottom: "inception_4d/3x3_reduce"
  top: "inception_4d/3x3_reduce"
}
layer {
  name: "inception_4d/3x3"
  type: "Convolution"
  bottom: "inception_4d/3x3_reduce"
  top: "inception_4d/3x3"
  param {
    lr_mult: 1
    decay_mult: 1
  }
  param {
    lr_mult: 2
    decay_mult: 0
  }
  convolution_param {
    num_output: 288
    pad: 1
    kernel_size: 3
    weight_filler {
      type: "xavier"
      std: 0.03
    }
    bias_filler {
      type: "constant"
      value: 0.2
    }
  }
}
layer {
  name: "inception_4d/relu_3x3"
  type: "ReLU"
  bottom: "inception_4d/3x3"
  top: "inception_4d/3x3"
}
layer {
  name: "inception_4d/5x5_reduce"
  type: "Convolution"
  bottom: "inception_4c/output"
  top: "inception_4d/5x5_reduce"
  param {
    lr_mult: 1
    decay_mult: 1
  }
  param {
    lr_mult: 2
    decay_mult: 0
  }
  convolution_param {
    num_output: 32
    kernel_size: 1
    weight_filler {
      type: "xavier"
      std: 0.2
    }
    bias_filler {
      type: "constant"
      value: 0.2
    }
  }
}
layer {
  name: "inception_4d/relu_5x5_reduce"
  type: "ReLU"
  bottom: "inception_4d/5x5_reduce"
  top: "inception_4d/5x5_reduce"
}
layer {
  name: "inception_4d/5x5"
  type: "Convolution"
  bottom: "inception_4d/5x5_reduce"
  top: "inception_4d/5x5"
  param {
    lr_mult: 1
    decay_mult: 1
  }
  param {
    lr_mult: 2
    decay_mult: 0
  }
  convolution_param {
    num_output: 64
    pad: 2
    kernel_size: 5
    weight_filler {
      type: "xavier"
      std: 0.03
    }
    bias_filler {
      type: "constant"
      value: 0.2
    }
  }
}
layer {
  name: "inception_4d/relu_5x5"
  type: "ReLU"
  bottom: "inception_4d/5x5"
  top: "inception_4d/5x5"
}
layer {
  name: "inception_4d/pool"
  type: "Pooling"
  bottom: "inception_4c/output"
  top: "inception_4d/pool"
  pooling_param {
    pool: MAX
    kernel_size: 3
    stride: 1
    pad: 1
  }
}
layer {
  name: "inception_4d/pool_proj"
  type: "Convolution"
  bottom: "inception_4d/pool"
  top: "inception_4d/pool_proj"
  param {
    lr_mult: 1
    decay_mult: 1
  }
  param {
    lr_mult: 2
    decay_mult: 0
  }
  convolution_param {
    num_output: 64
    kernel_size: 1
    weight_filler {
      type: "xavier"
      std: 0.1
    }
    bias_filler {
      type: "constant"
      value: 0.2
    }
  }
}
layer {
  name: "inception_4d/relu_pool_proj"
  type: "ReLU"
  bottom: "inception_4d/pool_proj"
  top: "inception_4d/pool_proj"
}
layer {
  name: "inception_4d/output"
  type: "Concat"
  bottom: "inception_4d/1x1"
  bottom: "inception_4d/3x3"
  bottom: "inception_4d/5x5"
  bottom: "inception_4d/pool_proj"
  top: "inception_4d/output"
}
layer {
  name: "loss2/ave_pool"
  type: "Pooling"
  bottom: "inception_4d/output"
  top: "loss2/ave_pool"
  pooling_param {
    pool: AVE
    kernel_size: 5
    stride: 3
  }
}
layer {
  name: "loss2/conv"
  type: "Convolution"
  bottom: "loss2/ave_pool"
  top: "loss2/conv"
  param {
    lr_mult: 1
    decay_mult: 1
  }
  param {
    lr_mult: 2
    decay_mult: 0
  }
  convolution_param {
    num_output: 128
    kernel_size: 1
    weight_filler {
      type: "xavier"
      std: 0.08
    }
    bias_filler {
      type: "constant"
      value: 0.2
    }
  }
}
layer {
  name: "loss2/relu_conv"
  type: "ReLU"
  bottom: "loss2/conv"
  top: "loss2/conv"
}
layer {
  name: "loss2/fc"
  type: "InnerProduct"
  bottom: "loss2/conv"
  top: "loss2/fc"
  param {
    lr_mult: 1
    decay_mult: 1
  }
  param {
    lr_mult: 2
    decay_mult: 0
  }
  inner_product_param {
    num_output: 1024
    weight_filler {
      type: "xavier"
      std: 0.02
    }
    bias_filler {
      type: "constant"
      value: 0.2
    }
  }
}
layer {
  name: "loss2/relu_fc"
  type: "ReLU"
  bottom: "loss2/fc"
  top: "loss2/fc"
}
layer {
  name: "loss2/drop_fc"
  type: "Dropout"
  bottom: "loss2/fc"
  top: "loss2/fc"
  dropout_param {
    dropout_ratio: 0.7
  }
}
layer {
  name: "loss2/classifier_plantvillage"
  type: "InnerProduct"
  bottom: "loss2/fc"
  top: "loss2/classifier_plantvillage"
  param {
    lr_mult: 1
    decay_mult: 1
  }
  param {
    lr_mult: 2
    decay_mult: 0
  }
  inner_product_param {
    num_output: 38
    weight_filler {
      type: "xavier"
      std: 0.0009765625
    }
    bias_filler {
      type: "constant"
      value: 0
    }
  }
}
layer {
  name: "inception_4e/1x1"
  type: "Convolution"
  bottom: "inception_4d/output"
  top: "inception_4e/1x1"
  param {
    lr_mult: 1
    decay_mult: 1
  }
  param {
    lr_mult: 2
    decay_mult: 0
  }
  convolution_param {
    num_output: 256
    kernel_size: 1
    weight_filler {
      type: "xavier"
      std: 0.03
    }
    bias_filler {
      type: "constant"
      value: 0.2
    }
  }
}
layer {
  name: "inception_4e/relu_1x1"
  type: "ReLU"
  bottom: "inception_4e/1x1"
  top: "inception_4e/1x1"
}
layer {
  name: "inception_4e/3x3_reduce"
  type: "Convolution"
  bottom: "inception_4d/output"
  top: "inception_4e/3x3_reduce"
  param {
    lr_mult: 1
    decay_mult: 1
  }
  param {
    lr_mult: 2
    decay_mult: 0
  }
  convolution_param {
    num_output: 160
    kernel_size: 1
    weight_filler {
      type: "xavier"
      std: 0.09
    }
    bias_filler {
      type: "constant"
      value: 0.2
    }
  }
}
layer {
  name: "inception_4e/relu_3x3_reduce"
  type: "ReLU"
  bottom: "inception_4e/3x3_reduce"
  top: "inception_4e/3x3_reduce"
}
layer {
  name: "inception_4e/3x3"
  type: "Convolution"
  bottom: "inception_4e/3x3_reduce"
  top: "inception_4e/3x3"
  param {
    lr_mult: 1
    decay_mult: 1
  }
  param {
    lr_mult: 2
    decay_mult: 0
  }
  convolution_param {
    num_output: 320
    pad: 1
    kernel_size: 3
    weight_filler {
      type: "xavier"
      std: 0.03
    }
    bias_filler {
      type: "constant"
      value: 0.2
    }
  }
}
layer {
  name: "inception_4e/relu_3x3"
  type: "ReLU"
  bottom: "inception_4e/3x3"
  top: "inception_4e/3x3"
}
layer {
  name: "inception_4e/5x5_reduce"
  type: "Convolution"
  bottom: "inception_4d/output"
  top: "inception_4e/5x5_reduce"
  param {
    lr_mult: 1
    decay_mult: 1
  }
  param {
    lr_mult: 2
    decay_mult: 0
  }
  convolution_param {
    num_output: 32
    kernel_size: 1
    weight_filler {
      type: "xavier"
      std: 0.2
    }
    bias_filler {
      type: "constant"
      value: 0.2
    }
  }
}
layer {
  name: "inception_4e/relu_5x5_reduce"
  type: "ReLU"
  bottom: "inception_4e/5x5_reduce"
  top: "inception_4e/5x5_reduce"
}
layer {
  name: "inception_4e/5x5"
  type: "Convolution"
  bottom: "inception_4e/5x5_reduce"
  top: "inception_4e/
I0403 21:50:50.161361 24441 layer_factory.hpp:77] Creating layer data
I0403 21:50:50.161944 24441 net.cpp:91] Creating Layer data
I0403 21:50:50.161988 24441 net.cpp:399] data -> data
I0403 21:50:50.162041 24441 net.cpp:399] data -> label
I0403 21:50:50.162080 24441 data_transformer.cpp:25] Loading mean file from: /home/mohanty/data/final_dataset/lmdb/segmented-80-20/mean.binaryproto
I0403 21:50:50.163336 24445 db_lmdb.cpp:38] Opened lmdb /home/mohanty/data/final_dataset/lmdb/segmented-80-20/test_db
I0403 21:50:50.175798 24441 data_layer.cpp:41] output data size: 24,3,224,224
I0403 21:50:50.203130 24441 net.cpp:141] Setting up data
I0403 21:50:50.203217 24441 net.cpp:148] Top shape: 24 3 224 224 (3612672)
I0403 21:50:50.203241 24441 net.cpp:148] Top shape: 24 (24)
I0403 21:50:50.203256 24441 net.cpp:156] Memory required for data: 14450784
I0403 21:50:50.203284 24441 layer_factory.hpp:77] Creating layer label_data_1_split
I0403 21:50:50.203312 24441 net.cpp:91] Creating Layer label_data_1_split
I0403 21:50:50.203331 24441 net.cpp:425] label_data_1_split <- label
I0403 21:50:50.203366 24441 net.cpp:399] label_data_1_split -> label_data_1_split_0
I0403 21:50:50.203393 24441 net.cpp:399] label_data_1_split -> label_data_1_split_1
I0403 21:50:50.203416 24441 net.cpp:399] label_data_1_split -> label_data_1_split_2
I0403 21:50:50.203438 24441 net.cpp:399] label_data_1_split -> label_data_1_split_3
I0403 21:50:50.203459 24441 net.cpp:399] label_data_1_split -> label_data_1_split_4
I0403 21:50:50.203480 24441 net.cpp:399] label_data_1_split -> label_data_1_split_5
I0403 21:50:50.203500 24441 net.cpp:399] label_data_1_split -> label_data_1_split_6
I0403 21:50:50.203521 24441 net.cpp:399] label_data_1_split -> label_data_1_split_7
I0403 21:50:50.203541 24441 net.cpp:399] label_data_1_split -> label_data_1_split_8
I0403 21:50:50.203562 24441 net.cpp:399] label_data_1_split -> label_data_1_split_9
I0403 21:50:50.203676 24441 net.cpp:141] Setting up label_data_1_split
I0403 21:50:50.203701 24441 net.cpp:148] Top shape: 24 (24)
I0403 21:50:50.203719 24441 net.cpp:148] Top shape: 24 (24)
I0403 21:50:50.203735 24441 net.cpp:148] Top shape: 24 (24)
I0403 21:50:50.203752 24441 net.cpp:148] Top shape: 24 (24)
I0403 21:50:50.203766 24441 net.cpp:148] Top shape: 24 (24)
I0403 21:50:50.203783 24441 net.cpp:148] Top shape: 24 (24)
I0403 21:50:50.203799 24441 net.cpp:148] Top shape: 24 (24)
I0403 21:50:50.203814 24441 net.cpp:148] Top shape: 24 (24)
I0403 21:50:50.203830 24441 net.cpp:148] Top shape: 24 (24)
I0403 21:50:50.203845 24441 net.cpp:148] Top shape: 24 (24)
I0403 21:50:50.203893 24441 net.cpp:156] Memory required for data: 14451744
I0403 21:50:50.203909 24441 layer_factory.hpp:77] Creating layer conv1/7x7_s2
I0403 21:50:50.203943 24441 net.cpp:91] Creating Layer conv1/7x7_s2
I0403 21:50:50.203963 24441 net.cpp:425] conv1/7x7_s2 <- data
I0403 21:50:50.203982 24441 net.cpp:399] conv1/7x7_s2 -> conv1/7x7_s2
I0403 21:50:50.344221 24441 net.cpp:141] Setting up conv1/7x7_s2
I0403 21:50:50.344308 24441 net.cpp:148] Top shape: 24 64 112 112 (19267584)
I0403 21:50:50.344324 24441 net.cpp:156] Memory required for data: 91522080
I0403 21:50:50.344354 24441 layer_factory.hpp:77] Creating layer conv1/relu_7x7
I0403 21:50:50.344382 24441 net.cpp:91] Creating Layer conv1/relu_7x7
I0403 21:50:50.344400 24441 net.cpp:425] conv1/relu_7x7 <- conv1/7x7_s2
I0403 21:50:50.344420 24441 net.cpp:386] conv1/relu_7x7 -> conv1/7x7_s2 (in-place)
I0403 21:50:50.344676 24441 net.cpp:141] Setting up conv1/relu_7x7
I0403 21:50:50.344704 24441 net.cpp:148] Top shape: 24 64 112 112 (19267584)
I0403 21:50:50.344719 24441 net.cpp:156] Memory required for data: 168592416
I0403 21:50:50.344734 24441 layer_factory.hpp:77] Creating layer pool1/3x3_s2
I0403 21:50:50.344758 24441 net.cpp:91] Creating Layer pool1/3x3_s2
I0403 21:50:50.344777 24441 net.cpp:425] pool1/3x3_s2 <- conv1/7x7_s2
I0403 21:50:50.344799 24441 net.cpp:399] pool1/3x3_s2 -> pool1/3x3_s2
I0403 21:50:50.344874 24441 net.cpp:141] Setting up pool1/3x3_s2
I0403 21:50:50.344902 24441 net.cpp:148] Top shape: 24 64 56 56 (4816896)
I0403 21:50:50.344918 24441 net.cpp:156] Memory required for data: 187860000
I0403 21:50:50.344933 24441 layer_factory.hpp:77] Creating layer pool1/norm1
I0403 21:50:50.344956 24441 net.cpp:91] Creating Layer pool1/norm1
I0403 21:50:50.344974 24441 net.cpp:425] pool1/norm1 <- pool1/3x3_s2
I0403 21:50:50.344993 24441 net.cpp:399] pool1/norm1 -> pool1/norm1
I0403 21:50:50.345295 24441 net.cpp:141] Setting up pool1/norm1
I0403 21:50:50.345324 24441 net.cpp:148] Top shape: 24 64 56 56 (4816896)
I0403 21:50:50.345340 24441 net.cpp:156] Memory required for data: 207127584
I0403 21:50:50.345353 24441 layer_factory.hpp:77] Creating layer conv2/3x3_reduce
I0403 21:50:50.345379 24441 net.cpp:91] Creating Layer conv2/3x3_reduce
I0403 21:50:50.345397 24441 net.cpp:425] conv2/3x3_reduce <- pool1/norm1
I0403 21:50:50.345420 24441 net.cpp:399] conv2/3x3_reduce -> conv2/3x3_reduce
I0403 21:50:50.346808 24441 net.cpp:141] Setting up conv2/3x3_reduce
I0403 21:50:50.346837 24441 net.cpp:148] Top shape: 24 64 56 56 (4816896)
I0403 21:50:50.346854 24441 net.cpp:156] Memory required for data: 226395168
I0403 21:50:50.346875 24441 layer_factory.hpp:77] Creating layer conv2/relu_3x3_reduce
I0403 21:50:50.346896 24441 net.cpp:91] Creating Layer conv2/relu_3x3_reduce
I0403 21:50:50.346915 24441 net.cpp:425] conv2/relu_3x3_reduce <- conv2/3x3_reduce
I0403 21:50:50.346935 24441 net.cpp:386] conv2/relu_3x3_reduce -> conv2/3x3_reduce (in-place)
I0403 21:50:50.347204 24441 net.cpp:141] Setting up conv2/relu_3x3_reduce
I0403 21:50:50.347241 24441 net.cpp:148] Top shape: 24 64 56 56 (4816896)
I0403 21:50:50.347256 24441 net.cpp:156] Memory required for data: 245662752
I0403 21:50:50.347271 24441 layer_factory.hpp:77] Creating layer conv2/3x3
I0403 21:50:50.347297 24441 net.cpp:91] Creating Layer conv2/3x3
I0403 21:50:50.347316 24441 net.cpp:425] conv2/3x3 <- conv2/3x3_reduce
I0403 21:50:50.347335 24441 net.cpp:399] conv2/3x3 -> conv2/3x3
I0403 21:50:50.349578 24441 net.cpp:141] Setting up conv2/3x3
I0403 21:50:50.349611 24441 net.cpp:148] Top shape: 24 192 56 56 (14450688)
I0403 21:50:50.349628 24441 net.cpp:156] Memory required for data: 303465504
I0403 21:50:50.349650 24441 layer_factory.hpp:77] Creating layer conv2/relu_3x3
I0403 21:50:50.349668 24441 net.cpp:91] Creating Layer conv2/relu_3x3
I0403 21:50:50.349684 24441 net.cpp:425] conv2/relu_3x3 <- conv2/3x3
I0403 21:50:50.349702 24441 net.cpp:386] conv2/relu_3x3 -> conv2/3x3 (in-place)
I0403 21:50:50.349871 24441 net.cpp:141] Setting up conv2/relu_3x3
I0403 21:50:50.349897 24441 net.cpp:148] Top shape: 24 192 56 56 (14450688)
I0403 21:50:50.349944 24441 net.cpp:156] Memory required for data: 361268256
I0403 21:50:50.349961 24441 layer_factory.hpp:77] Creating layer conv2/norm2
I0403 21:50:50.349980 24441 net.cpp:91] Creating Layer conv2/norm2
I0403 21:50:50.349998 24441 net.cpp:425] conv2/norm2 <- conv2/3x3
I0403 21:50:50.350016 24441 net.cpp:399] conv2/norm2 -> conv2/norm2
I0403 21:50:50.350314 24441 net.cpp:141] Setting up conv2/norm2
I0403 21:50:50.350340 24441 net.cpp:148] Top shape: 24 192 56 56 (14450688)
I0403 21:50:50.350355 24441 net.cpp:156] Memory required for data: 419071008
I0403 21:50:50.350370 24441 layer_factory.hpp:77] Creating layer pool2/3x3_s2
I0403 21:50:50.350392 24441 net.cpp:91] Creating Layer pool2/3x3_s2
I0403 21:50:50.350410 24441 net.cpp:425] pool2/3x3_s2 <- conv2/norm2
I0403 21:50:50.350428 24441 net.cpp:399] pool2/3x3_s2 -> pool2/3x3_s2
I0403 21:50:50.350483 24441 net.cpp:141] Setting up pool2/3x3_s2
I0403 21:50:50.350507 24441 net.cpp:148] Top shape: 24 192 28 28 (3612672)
I0403 21:50:50.350522 24441 net.cpp:156] Memory required for data: 433521696
I0403 21:50:50.350538 24441 layer_factory.hpp:77] Creating layer pool2/3x3_s2_pool2/3x3_s2_0_split
I0403 21:50:50.350554 24441 net.cpp:91] Creating Layer pool2/3x3_s2_pool2/3x3_s2_0_split
I0403 21:50:50.350570 24441 net.cpp:425] pool2/3x3_s2_pool2/3x3_s2_0_split <- pool2/3x3_s2
I0403 21:50:50.350589 24441 net.cpp:399] pool2/3x3_s2_pool2/3x3_s2_0_split -> pool2/3x3_s2_pool2/3x3_s2_0_split_0
I0403 21:50:50.350611 24441 net.cpp:399] pool2/3x3_s2_pool2/3x3_s2_0_split -> pool2/3x3_s2_pool2/3x3_s2_0_split_1
I0403 21:50:50.350631 24441 net.cpp:399] pool2/3x3_s2_pool2/3x3_s2_0_split -> pool2/3x3_s2_pool2/3x3_s2_0_split_2
I0403 21:50:50.350652 24441 net.cpp:399] pool2/3x3_s2_pool2/3x3_s2_0_split -> pool2/3x3_s2_pool2/3x3_s2_0_split_3
I0403 21:50:50.350721 24441 net.cpp:141] Setting up pool2/3x3_s2_pool2/3x3_s2_0_split
I0403 21:50:50.350744 24441 net.cpp:148] Top shape: 24 192 28 28 (3612672)
I0403 21:50:50.350761 24441 net.cpp:148] Top shape: 24 192 28 28 (3612672)
I0403 21:50:50.350776 24441 net.cpp:148] Top shape: 24 192 28 28 (3612672)
I0403 21:50:50.350792 24441 net.cpp:148] Top shape: 24 192 28 28 (3612672)
I0403 21:50:50.350807 24441 net.cpp:156] Memory required for data: 491324448
I0403 21:50:50.350822 24441 layer_factory.hpp:77] Creating layer inception_3a/1x1
I0403 21:50:50.350844 24441 net.cpp:91] Creating Layer inception_3a/1x1
I0403 21:50:50.350862 24441 net.cpp:425] inception_3a/1x1 <- pool2/3x3_s2_pool2/3x3_s2_0_split_0
I0403 21:50:50.350883 24441 net.cpp:399] inception_3a/1x1 -> inception_3a/1x1
I0403 21:50:50.352424 24441 net.cpp:141] Setting up inception_3a/1x1
I0403 21:50:50.352458 24441 net.cpp:148] Top shape: 24 64 28 28 (1204224)
I0403 21:50:50.352476 24441 net.cpp:156] Memory required for data: 496141344
I0403 21:50:50.352495 24441 layer_factory.hpp:77] Creating layer inception_3a/relu_1x1
I0403 21:50:50.352514 24441 net.cpp:91] Creating Layer inception_3a/relu_1x1
I0403 21:50:50.352531 24441 net.cpp:425] inception_3a/relu_1x1 <- inception_3a/1x1
I0403 21:50:50.352550 24441 net.cpp:386] inception_3a/relu_1x1 -> inception_3a/1x1 (in-place)
I0403 21:50:50.352722 24441 net.cpp:141] Setting up inception_3a/relu_1x1
I0403 21:50:50.352749 24441 net.cpp:148] Top shape: 24 64 28 28 (1204224)
I0403 21:50:50.352766 24441 net.cpp:156] Memory required for data: 500958240
I0403 21:50:50.352782 24441 layer_factory.hpp:77] Creating layer inception_3a/3x3_reduce
I0403 21:50:50.352804 24441 net.cpp:91] Creating Layer inception_3a/3x3_reduce
I0403 21:50:50.352823 24441 net.cpp:425] inception_3a/3x3_reduce <- pool2/3x3_s2_pool2/3x3_s2_0_split_1
I0403 21:50:50.352841 24441 net.cpp:399] inception_3a/3x3_reduce -> inception_3a/3x3_reduce
I0403 21:50:50.354544 24441 net.cpp:141] Setting up inception_3a/3x3_reduce
I0403 21:50:50.354574 24441 net.cpp:148] Top shape: 24 96 28 28 (1806336)
I0403 21:50:50.354591 24441 net.cpp:156] Memory required for data: 508183584
I0403 21:50:50.354616 24441 layer_factory.hpp:77] Creating layer inception_3a/relu_3x3_reduce
I0403 21:50:50.354652 24441 net.cpp:91] Creating Layer inception_3a/relu_3x3_reduce
I0403 21:50:50.354671 24441 net.cpp:425] inception_3a/relu_3x3_reduce <- inception_3a/3x3_reduce
I0403 21:50:50.354691 24441 net.cpp:386] inception_3a/relu_3x3_reduce -> inception_3a/3x3_reduce (in-place)
I0403 21:50:50.354872 24441 net.cpp:141] Setting up inception_3a/relu_3x3_reduce
I0403 21:50:50.354898 24441 net.cpp:148] Top shape: 24 96 28 28 (1806336)
I0403 21:50:50.354914 24441 net.cpp:156] Memory required for data: 515408928
I0403 21:50:50.354929 24441 layer_factory.hpp:77] Creating layer inception_3a/3x3
I0403 21:50:50.354953 24441 net.cpp:91] Creating Layer inception_3a/3x3
I0403 21:50:50.354970 24441 net.cpp:425] inception_3a/3x3 <- inception_3a/3x3_reduce
I0403 21:50:50.354992 24441 net.cpp:399] inception_3a/3x3 -> inception_3a/3x3
I0403 21:50:50.356631 24441 net.cpp:141] Setting up inception_3a/3x3
I0403 21:50:50.356662 24441 net.cpp:148] Top shape: 24 128 28 28 (2408448)
I0403 21:50:50.356679 24441 net.cpp:156] Memory required for data: 525042720
I0403 21:50:50.356698 24441 layer_factory.hpp:77] Creating layer inception_3a/relu_3x3
I0403 21:50:50.356716 24441 net.cpp:91] Creating Layer inception_3a/relu_3x3
I0403 21:50:50.356734 24441 net.cpp:425] inception_3a/relu_3x3 <- inception_3a/3x3
I0403 21:50:50.356751 24441 net.cpp:386] inception_3a/relu_3x3 -> inception_3a/3x3 (in-place)
I0403 21:50:50.357040 24441 net.cpp:141] Setting up inception_3a/relu_3x3
I0403 21:50:50.357070 24441 net.cpp:148] Top shape: 24 128 28 28 (2408448)
I0403 21:50:50.357087 24441 net.cpp:156] Memory required for data: 534676512
I0403 21:50:50.357105 24441 layer_factory.hpp:77] Creating layer inception_3a/5x5_reduce
I0403 21:50:50.357128 24441 net.cpp:91] Creating Layer inception_3a/5x5_reduce
I0403 21:50:50.357146 24441 net.cpp:425] inception_3a/5x5_reduce <- pool2/3x3_s2_pool2/3x3_s2_0_split_2
I0403 21:50:50.357167 24441 net.cpp:399] inception_3a/5x5_reduce -> inception_3a/5x5_reduce
I0403 21:50:50.358132 24441 net.cpp:141] Setting up inception_3a/5x5_reduce
I0403 21:50:50.358161 24441 net.cpp:148] Top shape: 24 16 28 28 (301056)
I0403 21:50:50.358177 24441 net.cpp:156] Memory required for data: 535880736
I0403 21:50:50.358207 24441 layer_factory.hpp:77] Creating layer inception_3a/relu_5x5_reduce
I0403 21:50:50.358229 24441 net.cpp:91] Creating Layer inception_3a/relu_5x5_reduce
I0403 21:50:50.358247 24441 net.cpp:425] inception_3a/relu_5x5_reduce <- inception_3a/5x5_reduce
I0403 21:50:50.358268 24441 net.cpp:386] inception_3a/relu_5x5_reduce -> inception_3a/5x5_reduce (in-place)
I0403 21:50:50.358567 24441 net.cpp:141] Setting up inception_3a/relu_5x5_reduce
I0403 21:50:50.358595 24441 net.cpp:148] Top shape: 24 16 28 28 (301056)
I0403 21:50:50.358610 24441 net.cpp:156] Memory required for data: 537084960
I0403 21:50:50.358625 24441 layer_factory.hpp:77] Creating layer inception_3a/5x5
I0403 21:50:50.358647 24441 net.cpp:91] Creating Layer inception_3a/5x5
I0403 21:50:50.358665 24441 net.cpp:425] inception_3a/5x5 <- inception_3a/5x5_reduce
I0403 21:50:50.358686 24441 net.cpp:399] inception_3a/5x5 -> inception_3a/5x5
I0403 21:50:50.359699 24441 net.cpp:141] Setting up inception_3a/5x5
I0403 21:50:50.359730 24441 net.cpp:148] Top shape: 24 32 28 28 (602112)
I0403 21:50:50.359747 24441 net.cpp:156] Memory required for data: 539493408
I0403 21:50:50.359767 24441 layer_factory.hpp:77] Creating layer inception_3a/relu_5x5
I0403 21:50:50.359786 24441 net.cpp:91] Creating Layer inception_3a/relu_5x5
I0403 21:50:50.359802 24441 net.cpp:425] inception_3a/relu_5x5 <- inception_3a/5x5
I0403 21:50:50.359820 24441 net.cpp:386] inception_3a/relu_5x5 -> inception_3a/5x5 (in-place)
I0403 21:50:50.359997 24441 net.cpp:141] Setting up inception_3a/relu_5x5
I0403 21:50:50.360023 24441 net.cpp:148] Top shape: 24 32 28 28 (602112)
I0403 21:50:50.360038 24441 net.cpp:156] Memory required for data: 541901856
I0403 21:50:50.360054 24441 layer_factory.hpp:77] Creating layer inception_3a/pool
I0403 21:50:50.360071 24441 net.cpp:91] Creating Layer inception_3a/pool
I0403 21:50:50.360102 24441 net.cpp:425] inception_3a/pool <- pool2/3x3_s2_pool2/3x3_s2_0_split_3
I0403 21:50:50.360126 24441 net.cpp:399] inception_3a/pool -> inception_3a/pool
I0403 21:50:50.360183 24441 net.cpp:141] Setting up inception_3a/pool
I0403 21:50:50.360214 24441 net.cpp:148] Top shape: 24 192 28 28 (3612672)
I0403 21:50:50.360230 24441 net.cpp:156] Memory required for data: 556352544
I0403 21:50:50.360246 24441 layer_factory.hpp:77] Creating layer inception_3a/pool_proj
I0403 21:50:50.360270 24441 net.cpp:91] Creating Layer inception_3a/pool_proj
I0403 21:50:50.360290 24441 net.cpp:425] inception_3a/pool_proj <- inception_3a/pool
I0403 21:50:50.360308 24441 net.cpp:399] inception_3a/pool_proj -> inception_3a/pool_proj
I0403 21:50:50.361342 24441 net.cpp:141] Setting up inception_3a/pool_proj
I0403 21:50:50.361371 24441 net.cpp:148] Top shape: 24 32 28 28 (602112)
I0403 21:50:50.361387 24441 net.cpp:156] Memory required for data: 558760992
I0403 21:50:50.361412 24441 layer_factory.hpp:77] Creating layer inception_3a/relu_pool_proj
I0403 21:50:50.361433 24441 net.cpp:91] Creating Layer inception_3a/relu_pool_proj
I0403 21:50:50.361450 24441 net.cpp:425] inception_3a/relu_pool_proj <- inception_3a/pool_proj
I0403 21:50:50.361470 24441 net.cpp:386] inception_3a/relu_pool_proj -> inception_3a/pool_proj (in-place)
I0403 21:50:50.361743 24441 net.cpp:141] Setting up inception_3a/relu_pool_proj
I0403 21:50:50.361773 24441 net.cpp:148] Top shape: 24 32 28 28 (602112)
I0403 21:50:50.361789 24441 net.cpp:156] Memory required for data: 561169440
I0403 21:50:50.361805 24441 layer_factory.hpp:77] Creating layer inception_3a/output
I0403 21:50:50.361824 24441 net.cpp:91] Creating Layer inception_3a/output
I0403 21:50:50.361840 24441 net.cpp:425] inception_3a/output <- inception_3a/1x1
I0403 21:50:50.361858 24441 net.cpp:425] inception_3a/output <- inception_3a/3x3
I0403 21:50:50.361874 24441 net.cpp:425] inception_3a/output <- inception_3a/5x5
I0403 21:50:50.361891 24441 net.cpp:425] inception_3a/output <- inception_3a/pool_proj
I0403 21:50:50.361907 24441 net.cpp:399] inception_3a/output -> inception_3a/output
I0403 21:50:50.361955 24441 net.cpp:141] Setting up inception_3a/output
I0403 21:50:50.361979 24441 net.cpp:148] Top shape: 24 256 28 28 (4816896)
I0403 21:50:50.361994 24441 net.cpp:156] Memory required for data: 580437024
I0403 21:50:50.362010 24441 layer_factory.hpp:77] Creating layer inception_3a/output_inception_3a/output_0_split
I0403 21:50:50.362030 24441 net.cpp:91] Creating Layer inception_3a/output_inception_3a/output_0_split
I0403 21:50:50.362046 24441 net.cpp:425] inception_3a/output_inception_3a/output_0_split <- inception_3a/output
I0403 21:50:50.362064 24441 net.cpp:399] inception_3a/output_inception_3a/output_0_split -> inception_3a/output_inception_3a/output_0_split_0
I0403 21:50:50.362085 24441 net.cpp:399] inception_3a/output_inception_3a/output_0_split -> inception_3a/output_inception_3a/output_0_split_1
I0403 21:50:50.362112 24441 net.cpp:399] inception_3a/output_inception_3a/output_0_split -> inception_3a/output_inception_3a/output_0_split_2
I0403 21:50:50.362134 24441 net.cpp:399] inception_3a/output_inception_3a/output_0_split -> inception_3a/output_inception_3a/output_0_split_3
I0403 21:50:50.362215 24441 net.cpp:141] Setting up inception_3a/output_inception_3a/output_0_split
I0403 21:50:50.362238 24441 net.cpp:148] Top shape: 24 256 28 28 (4816896)
I0403 21:50:50.362256 24441 net.cpp:148] Top shape: 24 256 28 28 (4816896)
I0403 21:50:50.362272 24441 net.cpp:148] Top shape: 24 256 28 28 (4816896)
I0403 21:50:50.362287 24441 net.cpp:148] Top shape: 24 256 28 28 (4816896)
I0403 21:50:50.362301 24441 net.cpp:156] Memory required for data: 657507360
I0403 21:50:50.362316 24441 layer_factory.hpp:77] Creating layer inception_3b/1x1
I0403 21:50:50.362340 24441 net.cpp:91] Creating Layer inception_3b/1x1
I0403 21:50:50.362360 24441 net.cpp:425] inception_3b/1x1 <- inception_3a/output_inception_3a/output_0_split_0
I0403 21:50:50.362380 24441 net.cpp:399] inception_3b/1x1 -> inception_3b/1x1
I0403 21:50:50.363502 24441 net.cpp:141] Setting up inception_3b/1x1
I0403 21:50:50.363543 24441 net.cpp:148] Top shape: 24 128 28 28 (2408448)
I0403 21:50:50.363559 24441 net.cpp:156] Memory required for data: 667141152
I0403 21:50:50.363577 24441 layer_factory.hpp:77] Creating layer inception_3b/relu_1x1
I0403 21:50:50.363598 24441 net.cpp:91] Creating Layer inception_3b/relu_1x1
I0403 21:50:50.363616 24441 net.cpp:425] inception_3b/relu_1x1 <- inception_3b/1x1
I0403 21:50:50.363634 24441 net.cpp:386] inception_3b/relu_1x1 -> inception_3b/1x1 (in-place)
I0403 21:50:50.363809 24441 net.cpp:141] Setting up inception_3b/relu_1x1
I0403 21:50:50.363837 24441 net.cpp:148] Top shape: 24 128 28 28 (2408448)
I0403 21:50:50.363853 24441 net.cpp:156] Memory required for data: 676774944
I0403 21:50:50.363868 24441 layer_factory.hpp:77] Creating layer inception_3b/3x3_reduce
I0403 21:50:50.363890 24441 net.cpp:91] Creating Layer inception_3b/3x3_reduce
I0403 21:50:50.363909 24441 net.cpp:425] inception_3b/3x3_reduce <- inception_3a/output_inception_3a/output_0_split_1
I0403 21:50:50.363930 24441 net.cpp:399] inception_3b/3x3_reduce -> inception_3b/3x3_reduce
I0403 21:50:50.365063 24441 net.cpp:141] Setting up inception_3b/3x3_reduce
I0403 21:50:50.365092 24441 net.cpp:148] Top shape: 24 128 28 28 (2408448)
I0403 21:50:50.365108 24441 net.cpp:156] Memory required for data: 686408736
I0403 21:50:50.365128 24441 layer_factory.hpp:77] Creating layer inception_3b/relu_3x3_reduce
I0403 21:50:50.365149 24441 net.cpp:91] Creating Layer inception_3b/relu_3x3_reduce
I0403 21:50:50.365169 24441 net.cpp:425] inception_3b/relu_3x3_reduce <- inception_3b/3x3_reduce
I0403 21:50:50.365186 24441 net.cpp:386] inception_3b/relu_3x3_reduce -> inception_3b/3x3_reduce (in-place)
I0403 21:50:50.365363 24441 net.cpp:141] Setting up inception_3b/relu_3x3_reduce
I0403 21:50:50.365391 24441 net.cpp:148] Top shape: 24 128 28 28 (2408448)
I0403 21:50:50.365407 24441 net.cpp:156] Memory required for data: 696042528
I0403 21:50:50.365423 24441 layer_factory.hpp:77] Creating layer inception_3b/3x3
I0403 21:50:50.365448 24441 net.cpp:91] Creating Layer inception_3b/3x3
I0403 21:50:50.365466 24441 net.cpp:425] inception_3b/3x3 <- inception_3b/3x3_reduce
I0403 21:50:50.365489 24441 net.cpp:399] inception_3b/3x3 -> inception_3b/3x3
I0403 21:50:50.368438 24441 net.cpp:141] Setting up inception_3b/3x3
I0403 21:50:50.368469 24441 net.cpp:148] Top shape: 24 192 28 28 (3612672)
I0403 21:50:50.368486 24441 net.cpp:156] Memory required for data: 710493216
I0403 21:50:50.368506 24441 layer_factory.hpp:77] Creating layer inception_3b/relu_3x3
I0403 21:50:50.368525 24441 net.cpp:91] Creating Layer inception_3b/relu_3x3
I0403 21:50:50.368541 24441 net.cpp:425] inception_3b/relu_3x3 <- inception_3b/3x3
I0403 21:50:50.368559 24441 net.cpp:386] inception_3b/relu_3x3 -> inception_3b/3x3 (in-place)
I0403 21:50:50.368832 24441 net.cpp:141] Setting up inception_3b/relu_3x3
I0403 21:50:50.368861 24441 net.cpp:148] Top shape: 24 192 28 28 (3612672)
I0403 21:50:50.368878 24441 net.cpp:156] Memory required for data: 724943904
I0403 21:50:50.368894 24441 layer_factory.hpp:77] Creating layer inception_3b/5x5_reduce
I0403 21:50:50.368917 24441 net.cpp:91] Creating Layer inception_3b/5x5_reduce
I0403 21:50:50.368937 24441 net.cpp:425] inception_3b/5x5_reduce <- inception_3a/output_inception_3a/output_0_split_2
I0403 21:50:50.368958 24441 net.cpp:399] inception_3b/5x5_reduce -> inception_3b/5x5_reduce
I0403 21:50:50.369938 24441 net.cpp:141] Setting up inception_3b/5x5_reduce
I0403 21:50:50.369971 24441 net.cpp:148] Top shape: 24 32 28 28 (602112)
I0403 21:50:50.369987 24441 net.cpp:156] Memory required for data: 727352352
I0403 21:50:50.370005 24441 layer_factory.hpp:77] Creating layer inception_3b/relu_5x5_reduce
I0403 21:50:50.370023 24441 net.cpp:91] Creating Layer inception_3b/relu_5x5_reduce
I0403 21:50:50.370039 24441 net.cpp:425] inception_3b/relu_5x5_reduce <- inception_3b/5x5_reduce
I0403 21:50:50.370057 24441 net.cpp:386] inception_3b/relu_5x5_reduce -> inception_3b/5x5_reduce (in-place)
I0403 21:50:50.370245 24441 net.cpp:141] Setting up inception_3b/relu_5x5_reduce
I0403 21:50:50.370270 24441 net.cpp:148] Top shape: 24 32 28 28 (602112)
I0403 21:50:50.370285 24441 net.cpp:156] Memory required for data: 729760800
I0403 21:50:50.370301 24441 layer_factory.hpp:77] Creating layer inception_3b/5x5
I0403 21:50:50.370321 24441 net.cpp:91] Creating Layer inception_3b/5x5
I0403 21:50:50.370340 24441 net.cpp:425] inception_3b/5x5 <- inception_3b/5x5_reduce
I0403 21:50:50.370362 24441 net.cpp:399] inception_3b/5x5 -> inception_3b/5x5
I0403 21:50:50.372282 24441 net.cpp:141] Setting up inception_3b/5x5
I0403 21:50:50.372310 24441 net.cpp:148] Top shape: 24 96 28 28 (1806336)
I0403 21:50:50.372328 24441 net.cpp:156] Memory required for data: 736986144
I0403 21:50:50.372345 24441 layer_factory.hpp:77] Creating layer inception_3b/relu_5x5
I0403 21:50:50.372365 24441 net.cpp:91] Creating Layer inception_3b/relu_5x5
I0403 21:50:50.372383 24441 net.cpp:425] inception_3b/relu_5x5 <- inception_3b/5x5
I0403 21:50:50.372401 24441 net.cpp:386] inception_3b/relu_5x5 -> inception_3b/5x5 (in-place)
I0403 21:50:50.372587 24441 net.cpp:141] Setting up inception_3b/relu_5x5
I0403 21:50:50.372612 24441 net.cpp:148] Top shape: 24 96 28 28 (1806336)
I0403 21:50:50.372627 24441 net.cpp:156] Memory required for data: 744211488
I0403 21:50:50.372642 24441 layer_factory.hpp:77] Creating layer inception_3b/pool
I0403 21:50:50.372659 24441 net.cpp:91] Creating Layer inception_3b/pool
I0403 21:50:50.372678 24441 net.cpp:425] inception_3b/pool <- inception_3a/output_inception_3a/output_0_split_3
I0403 21:50:50.372696 24441 net.cpp:399] inception_3b/pool -> inception_3b/pool
I0403 21:50:50.372750 24441 net.cpp:141] Setting up inception_3b/pool
I0403 21:50:50.372771 24441 net.cpp:148] Top shape: 24 256 28 28 (4816896)
I0403 21:50:50.372786 24441 net.cpp:156] Memory required for data: 763479072
I0403 21:50:50.372802 24441 layer_factory.hpp:77] Creating layer inception_3b/pool_proj
I0403 21:50:50.372823 24441 net.cpp:91] Creating Layer inception_3b/pool_proj
I0403 21:50:50.372843 24441 net.cpp:425] inception_3b/pool_proj <- inception_3b/pool
I0403 21:50:50.372864 24441 net.cpp:399] inception_3b/pool_proj -> inception_3b/pool_proj
I0403 21:50:50.373878 24441 net.cpp:141] Setting up inception_3b/pool_proj
I0403 21:50:50.373905 24441 net.cpp:148] Top shape: 24 64 28 28 (1204224)
I0403 21:50:50.373921 24441 net.cpp:156] Memory required for data: 768295968
I0403 21:50:50.373939 24441 layer_factory.hpp:77] Creating layer inception_3b/relu_pool_proj
I0403 21:50:50.373961 24441 net.cpp:91] Creating Layer inception_3b/relu_pool_proj
I0403 21:50:50.373980 24441 net.cpp:425] inception_3b/relu_pool_proj <- inception_3b/pool_proj
I0403 21:50:50.373996 24441 net.cpp:386] inception_3b/relu_pool_proj -> inception_3b/pool_proj (in-place)
I0403 21:50:50.374398 24441 net.cpp:141] Setting up inception_3b/relu_pool_proj
I0403 21:50:50.374424 24441 net.cpp:148] Top shape: 24 64 28 28 (1204224)
I0403 21:50:50.374440 24441 net.cpp:156] Memory required for data: 773112864
I0403 21:50:50.374454 24441 layer_factory.hpp:77] Creating layer inception_3b/output
I0403 21:50:50.374472 24441 net.cpp:91] Creating Layer inception_3b/output
I0403 21:50:50.374490 24441 net.cpp:425] inception_3b/output <- inception_3b/1x1
I0403 21:50:50.374505 24441 net.cpp:425] inception_3b/output <- inception_3b/3x3
I0403 21:50:50.374521 24441 net.cpp:425] inception_3b/output <- inception_3b/5x5
I0403 21:50:50.374537 24441 net.cpp:425] inception_3b/output <- inception_3b/pool_proj
I0403 21:50:50.374557 24441 net.cpp:399] inception_3b/output -> inception_3b/output
I0403 21:50:50.374599 24441 net.cpp:141] Setting up inception_3b/output
I0403 21:50:50.374625 24441 net.cpp:148] Top shape: 24 480 28 28 (9031680)
I0403 21:50:50.374640 24441 net.cpp:156] Memory required for data: 809239584
I0403 21:50:50.374655 24441 layer_factory.hpp:77] Creating layer pool3/3x3_s2
I0403 21:50:50.374671 24441 net.cpp:91] Creating Layer pool3/3x3_s2
I0403 21:50:50.374686 24441 net.cpp:425] pool3/3x3_s2 <- inception_3b/output
I0403 21:50:50.374719 24441 net.cpp:399] pool3/3x3_s2 -> pool3/3x3_s2
I0403 21:50:50.374778 24441 net.cpp:141] Setting up pool3/3x3_s2
I0403 21:50:50.374801 24441 net.cpp:148] Top shape: 24 480 14 14 (2257920)
I0403 21:50:50.374815 24441 net.cpp:156] Memory required for data: 818271264
I0403 21:50:50.374830 24441 layer_factory.hpp:77] Creating layer pool3/3x3_s2_pool3/3x3_s2_0_split
I0403 21:50:50.374847 24441 net.cpp:91] Creating Layer pool3/3x3_s2_pool3/3x3_s2_0_split
I0403 21:50:50.374863 24441 net.cpp:425] pool3/3x3_s2_pool3/3x3_s2_0_split <- pool3/3x3_s2
I0403 21:50:50.374882 24441 net.cpp:399] pool3/3x3_s2_pool3/3x3_s2_0_split -> pool3/3x3_s2_pool3/3x3_s2_0_split_0
I0403 21:50:50.374902 24441 net.cpp:399] pool3/3x3_s2_pool3/3x3_s2_0_split -> pool3/3x3_s2_pool3/3x3_s2_0_split_1
I0403 21:50:50.374922 24441 net.cpp:399] pool3/3x3_s2_pool3/3x3_s2_0_split -> pool3/3x3_s2_pool3/3x3_s2_0_split_2
I0403 21:50:50.374943 24441 net.cpp:399] pool3/3x3_s2_pool3/3x3_s2_0_split -> pool3/3x3_s2_pool3/3x3_s2_0_split_3
I0403 21:50:50.375020 24441 net.cpp:141] Setting up pool3/3x3_s2_pool3/3x3_s2_0_split
I0403 21:50:50.375043 24441 net.cpp:148] Top shape: 24 480 14 14 (2257920)
I0403 21:50:50.375061 24441 net.cpp:148] Top shape: 24 480 14 14 (2257920)
I0403 21:50:50.375077 24441 net.cpp:148] Top shape: 24 480 14 14 (2257920)
I0403 21:50:50.375092 24441 net.cpp:148] Top shape: 24 480 14 14 (2257920)
I0403 21:50:50.375104 24441 net.cpp:156] Memory required for data: 854397984
I0403 21:50:50.375119 24441 layer_factory.hpp:77] Creating layer inception_4a/1x1
I0403 21:50:50.375140 24441 net.cpp:91] Creating Layer inception_4a/1x1
I0403 21:50:50.375159 24441 net.cpp:425] inception_4a/1x1 <- pool3/3x3_s2_pool3/3x3_s2_0_split_0
I0403 21:50:50.375180 24441 net.cpp:399] inception_4a/1x1 -> inception_4a/1x1
I0403 21:50:50.376693 24441 net.cpp:141] Setting up inception_4a/1x1
I0403 21:50:50.376723 24441 net.cpp:148] Top shape: 24 192 14 14 (903168)
I0403 21:50:50.376739 24441 net.cpp:156] Memory required for data: 858010656
I0403 21:50:50.376757 24441 layer_factory.hpp:77] Creating layer inception_4a/relu_1x1
I0403 21:50:50.376776 24441 net.cpp:91] Creating Layer inception_4a/relu_1x1
I0403 21:50:50.376794 24441 net.cpp:425] inception_4a/relu_1x1 <- inception_4a/1x1
I0403 21:50:50.376812 24441 net.cpp:386] inception_4a/relu_1x1 -> inception_4a/1x1 (in-place)
I0403 21:50:50.376979 24441 net.cpp:141] Setting up inception_4a/relu_1x1
I0403 21:50:50.377003 24441 net.cpp:148] Top shape: 24 192 14 14 (903168)
I0403 21:50:50.377018 24441 net.cpp:156] Memory required for data: 861623328
I0403 21:50:50.377033 24441 layer_factory.hpp:77] Creating layer inception_4a/3x3_reduce
I0403 21:50:50.377058 24441 net.cpp:91] Creating Layer inception_4a/3x3_reduce
I0403 21:50:50.377079 24441 net.cpp:425] inception_4a/3x3_reduce <- pool3/3x3_s2_pool3/3x3_s2_0_split_1
I0403 21:50:50.377097 24441 net.cpp:399] inception_4a/3x3_reduce -> inception_4a/3x3_reduce
I0403 21:50:50.378329 24441 net.cpp:141] Setting up inception_4a/3x3_reduce
I0403 21:50:50.378357 24441 net.cpp:148] Top shape: 24 96 14 14 (451584)
I0403 21:50:50.378373 24441 net.cpp:156] Memory required for data: 863429664
I0403 21:50:50.378398 24441 layer_factory.hpp:77] Creating layer inception_4a/relu_3x3_reduce
I0403 21:50:50.378419 24441 net.cpp:91] Creating Layer inception_4a/relu_3x3_reduce
I0403 21:50:50.378437 24441 net.cpp:425] inception_4a/relu_3x3_reduce <- inception_4a/3x3_reduce
I0403 21:50:50.378456 24441 net.cpp:386] inception_4a/relu_3x3_reduce -> inception_4a/3x3_reduce (in-place)
I0403 21:50:50.378624 24441 net.cpp:141] Setting up inception_4a/relu_3x3_reduce
I0403 21:50:50.378649 24441 net.cpp:148] Top shape: 24 96 14 14 (451584)
I0403 21:50:50.378664 24441 net.cpp:156] Memory required for data: 865236000
I0403 21:50:50.378679 24441 layer_factory.hpp:77] Creating layer inception_4a/3x3
I0403 21:50:50.378702 24441 net.cpp:91] Creating Layer inception_4a/3x3
I0403 21:50:50.378720 24441 net.cpp:425] inception_4a/3x3 <- inception_4a/3x3_reduce
I0403 21:50:50.378741 24441 net.cpp:399] inception_4a/3x3 -> inception_4a/3x3
I0403 21:50:50.381340 24441 net.cpp:141] Setting up inception_4a/3x3
I0403 21:50:50.381367 24441 net.cpp:148] Top shape: 24 208 14 14 (978432)
I0403 21:50:50.381383 24441 net.cpp:156] Memory required for data: 869149728
I0403 21:50:50.381402 24441 layer_factory.hpp:77] Creating layer inception_4a/relu_3x3
I0403 21:50:50.381422 24441 net.cpp:91] Creating Layer inception_4a/relu_3x3
I0403 21:50:50.381439 24441 net.cpp:425] inception_4a/relu_3x3 <- inception_4a/3x3
I0403 21:50:50.381458 24441 net.cpp:386] inception_4a/relu_3x3 -> inception_4a/3x3 (in-place)
I0403 21:50:50.381726 24441 net.cpp:141] Setting up inception_4a/relu_3x3
I0403 21:50:50.381753 24441 net.cpp:148] Top shape: 24 208 14 14 (978432)
I0403 21:50:50.381769 24441 net.cpp:156] Memory required for data: 873063456
I0403 21:50:50.381785 24441 layer_factory.hpp:77] Creating layer inception_4a/5x5_reduce
I0403 21:50:50.381806 24441 net.cpp:91] Creating Layer inception_4a/5x5_reduce
I0403 21:50:50.381824 24441 net.cpp:425] inception_4a/5x5_reduce <- pool3/3x3_s2_pool3/3x3_s2_0_split_2
I0403 21:50:50.381845 24441 net.cpp:399] inception_4a/5x5_reduce -> inception_4a/5x5_reduce
I0403 21:50:50.382822 24441 net.cpp:141] Setting up inception_4a/5x5_reduce
I0403 21:50:50.382853 24441 net.cpp:148] Top shape: 24 16 14 14 (75264)
I0403 21:50:50.382870 24441 net.cpp:156] Memory required for data: 873364512
I0403 21:50:50.382889 24441 layer_factory.hpp:77] Creating layer inception_4a/relu_5x5_reduce
I0403 21:50:50.382906 24441 net.cpp:91] Creating Layer inception_4a/relu_5x5_reduce
I0403 21:50:50.382922 24441 net.cpp:425] inception_4a/relu_5x5_reduce <- inception_4a/5x5_reduce
I0403 21:50:50.382939 24441 net.cpp:386] inception_4a/relu_5x5_reduce -> inception_4a/5x5_reduce (in-place)
I0403 21:50:50.383114 24441 net.cpp:141] Setting up inception_4a/relu_5x5_reduce
I0403 21:50:50.383141 24441 net.cpp:148] Top shape: 24 16 14 14 (75264)
I0403 21:50:50.383155 24441 net.cpp:156] Memory required for data: 873665568
I0403 21:50:50.383170 24441 layer_factory.hpp:77] Creating layer inception_4a/5x5
I0403 21:50:50.383191 24441 net.cpp:91] Creating Layer inception_4a/5x5
I0403 21:50:50.383215 24441 net.cpp:425] inception_4a/5x5 <- inception_4a/5x5_reduce
I0403 21:50:50.383236 24441 net.cpp:399] inception_4a/5x5 -> inception_4a/5x5
I0403 21:50:50.384301 24441 net.cpp:141] Setting up inception_4a/5x5
I0403 21:50:50.384330 24441 net.cpp:148] Top shape: 24 48 14 14 (225792)
I0403 21:50:50.384346 24441 net.cpp:156] Memory required for data: 874568736
I0403 21:50:50.384366 24441 layer_factory.hpp:77] Creating layer inception_4a/relu_5x5
I0403 21:50:50.384384 24441 net.cpp:91] Creating Layer inception_4a/relu_5x5
I0403 21:50:50.384400 24441 net.cpp:425] inception_4a/relu_5x5 <- inception_4a/5x5
I0403 21:50:50.384421 24441 net.cpp:386] inception_4a/relu_5x5 -> inception_4a/5x5 (in-place)
I0403 21:50:50.384608 24441 net.cpp:141] Setting up inception_4a/relu_5x5
I0403 21:50:50.384634 24441 net.cpp:148] Top shape: 24 48 14 14 (225792)
I0403 21:50:50.384649 24441 net.cpp:156] Memory required for data: 875471904
I0403 21:50:50.384665 24441 layer_factory.hpp:77] Creating layer inception_4a/pool
I0403 21:50:50.384685 24441 net.cpp:91] Creating Layer inception_4a/pool
I0403 21:50:50.384701 24441 net.cpp:425] inception_4a/pool <- pool3/3x3_s2_pool3/3x3_s2_0_split_3
I0403 21:50:50.384721 24441 net.cpp:399] inception_4a/pool -> inception_4a/pool
I0403 21:50:50.384786 24441 net.cpp:141] Setting up inception_4a/pool
I0403 21:50:50.384811 24441 net.cpp:148] Top shape: 24 480 14 14 (2257920)
I0403 21:50:50.384826 24441 net.cpp:156] Memory required for data: 884503584
I0403 21:50:50.384841 24441 layer_factory.hpp:77] Creating layer inception_4a/pool_proj
I0403 21:50:50.384865 24441 net.cpp:91] Creating Layer inception_4a/pool_proj
I0403 21:50:50.384882 24441 net.cpp:425] inception_4a/pool_proj <- inception_4a/pool
I0403 21:50:50.384904 24441 net.cpp:399] inception_4a/pool_proj -> inception_4a/pool_proj
I0403 21:50:50.386054 24441 net.cpp:141] Setting up inception_4a/pool_proj
I0403 21:50:50.386082 24441 net.cpp:148] Top shape: 24 64 14 14 (301056)
I0403 21:50:50.386113 24441 net.cpp:156] Memory required for data: 885707808
I0403 21:50:50.386133 24441 layer_factory.hpp:77] Creating layer inception_4a/relu_pool_proj
I0403 21:50:50.386152 24441 net.cpp:91] Creating Layer inception_4a/relu_pool_proj
I0403 21:50:50.386170 24441 net.cpp:425] inception_4a/relu_pool_proj <- inception_4a/pool_proj
I0403 21:50:50.386191 24441 net.cpp:386] inception_4a/relu_pool_proj -> inception_4a/pool_proj (in-place)
I0403 21:50:50.386474 24441 net.cpp:141] Setting up inception_4a/relu_pool_proj
I0403 21:50:50.386502 24441 net.cpp:148] Top shape: 24 64 14 14 (301056)
I0403 21:50:50.386518 24441 net.cpp:156] Memory required for data: 886912032
I0403 21:50:50.386533 24441 layer_factory.hpp:77] Creating layer inception_4a/output
I0403 21:50:50.386551 24441 net.cpp:91] Creating Layer inception_4a/output
I0403 21:50:50.386567 24441 net.cpp:425] inception_4a/output <- inception_4a/1x1
I0403 21:50:50.386584 24441 net.cpp:425] inception_4a/output <- inception_4a/3x3
I0403 21:50:50.386600 24441 net.cpp:425] inception_4a/output <- inception_4a/5x5
I0403 21:50:50.386616 24441 net.cpp:425] inception_4a/output <- inception_4a/pool_proj
I0403 21:50:50.386636 24441 net.cpp:399] inception_4a/output -> inception_4a/output
I0403 21:50:50.386680 24441 net.cpp:141] Setting up inception_4a/output
I0403 21:50:50.386708 24441 net.cpp:148] Top shape: 24 512 14 14 (2408448)
I0403 21:50:50.386723 24441 net.cpp:156] Memory required for data: 896545824
I0403 21:50:50.386739 24441 layer_factory.hpp:77] Creating layer inception_4a/output_inception_4a/output_0_split
I0403 21:50:50.386757 24441 net.cpp:91] Creating Layer inception_4a/output_inception_4a/output_0_split
I0403 21:50:50.386775 24441 net.cpp:425] inception_4a/output_inception_4a/output_0_split <- inception_4a/output
I0403 21:50:50.386795 24441 net.cpp:399] inception_4a/output_inception_4a/output_0_split -> inception_4a/output_inception_4a/output_0_split_0
I0403 21:50:50.386816 24441 net.cpp:399] inception_4a/output_inception_4a/output_0_split -> inception_4a/output_inception_4a/output_0_split_1
I0403 21:50:50.386838 24441 net.cpp:399] inception_4a/output_inception_4a/output_0_split -> inception_4a/output_inception_4a/output_0_split_2
I0403 21:50:50.386859 24441 net.cpp:399] inception_4a/output_inception_4a/output_0_split -> inception_4a/output_inception_4a/output_0_split_3
I0403 21:50:50.386880 24441 net.cpp:399] inception_4a/output_inception_4a/output_0_split -> inception_4a/output_inception_4a/output_0_split_4
I0403 21:50:50.386970 24441 net.cpp:141] Setting up inception_4a/output_inception_4a/output_0_split
I0403 21:50:50.386997 24441 net.cpp:148] Top shape: 24 512 14 14 (2408448)
I0403 21:50:50.387017 24441 net.cpp:148] Top shape: 24 512 14 14 (2408448)
I0403 21:50:50.387032 24441 net.cpp:148] Top shape: 24 512 14 14 (2408448)
I0403 21:50:50.387048 24441 net.cpp:148] Top shape: 24 512 14 14 (2408448)
I0403 21:50:50.387063 24441 net.cpp:148] Top shape: 24 512 14 14 (2408448)
I0403 21:50:50.387076 24441 net.cpp:156] Memory required for data: 944714784
I0403 21:50:50.387091 24441 layer_factory.hpp:77] Creating layer loss1/ave_pool
I0403 21:50:50.387109 24441 net.cpp:91] Creating Layer loss1/ave_pool
I0403 21:50:50.387125 24441 net.cpp:425] loss1/ave_pool <- inception_4a/output_inception_4a/output_0_split_0
I0403 21:50:50.387142 24441 net.cpp:399] loss1/ave_pool -> loss1/ave_pool
I0403 21:50:50.387348 24441 net.cpp:141] Setting up loss1/ave_pool
I0403 21:50:50.387375 24441 net.cpp:148] Top shape: 24 512 4 4 (196608)
I0403 21:50:50.387390 24441 net.cpp:156] Memory required for data: 945501216
I0403 21:50:50.387406 24441 layer_factory.hpp:77] Creating layer loss1/conv
I0403 21:50:50.387428 24441 net.cpp:91] Creating Layer loss1/conv
I0403 21:50:50.387447 24441 net.cpp:425] loss1/conv <- loss1/ave_pool
I0403 21:50:50.387470 24441 net.cpp:399] loss1/conv -> loss1/conv
I0403 21:50:50.388882 24441 net.cpp:141] Setting up loss1/conv
I0403 21:50:50.388911 24441 net.cpp:148] Top shape: 24 128 4 4 (49152)
I0403 21:50:50.388943 24441 net.cpp:156] Memory required for data: 945697824
I0403 21:50:50.388965 24441 layer_factory.hpp:77] Creating layer loss1/relu_conv
I0403 21:50:50.388983 24441 net.cpp:91] Creating Layer loss1/relu_conv
I0403 21:50:50.389000 24441 net.cpp:425] loss1/relu_conv <- loss1/conv
I0403 21:50:50.389017 24441 net.cpp:386] loss1/relu_conv -> loss1/conv (in-place)
I0403 21:50:50.389302 24441 net.cpp:141] Setting up loss1/relu_conv
I0403 21:50:50.389329 24441 net.cpp:148] Top shape: 24 128 4 4 (49152)
I0403 21:50:50.389348 24441 net.cpp:156] Memory required for data: 945894432
I0403 21:50:50.389364 24441 layer_factory.hpp:77] Creating layer loss1/fc
I0403 21:50:50.389387 24441 net.cpp:91] Creating Layer loss1/fc
I0403 21:50:50.389406 24441 net.cpp:425] loss1/fc <- loss1/conv
I0403 21:50:50.389430 24441 net.cpp:399] loss1/fc -> loss1/fc
I0403 21:50:50.407119 24441 net.cpp:141] Setting up loss1/fc
I0403 21:50:50.407153 24441 net.cpp:148] Top shape: 24 1024 (24576)
I0403 21:50:50.407171 24441 net.cpp:156] Memory required for data: 945992736
I0403 21:50:50.407189 24441 layer_factory.hpp:77] Creating layer loss1/relu_fc
I0403 21:50:50.407213 24441 net.cpp:91] Creating Layer loss1/relu_fc
I0403 21:50:50.407232 24441 net.cpp:425] loss1/relu_fc <- loss1/fc
I0403 21:50:50.407249 24441 net.cpp:386] loss1/relu_fc -> loss1/fc (in-place)
I0403 21:50:50.407430 24441 net.cpp:141] Setting up loss1/relu_fc
I0403 21:50:50.407455 24441 net.cpp:148] Top shape: 24 1024 (24576)
I0403 21:50:50.407470 24441 net.cpp:156] Memory required for data: 946091040
I0403 21:50:50.407485 24441 layer_factory.hpp:77] Creating layer loss1/drop_fc
I0403 21:50:50.407512 24441 net.cpp:91] Creating Layer loss1/drop_fc
I0403 21:50:50.407531 24441 net.cpp:425] loss1/drop_fc <- loss1/fc
I0403 21:50:50.407547 24441 net.cpp:386] loss1/drop_fc -> loss1/fc (in-place)
I0403 21:50:50.407596 24441 net.cpp:141] Setting up loss1/drop_fc
I0403 21:50:50.407623 24441 net.cpp:148] Top shape: 24 1024 (24576)
I0403 21:50:50.407639 24441 net.cpp:156] Memory required for data: 946189344
I0403 21:50:50.407654 24441 layer_factory.hpp:77] Creating layer loss1/classifier_plantvillage
I0403 21:50:50.407672 24441 net.cpp:91] Creating Layer loss1/classifier_plantvillage
I0403 21:50:50.407688 24441 net.cpp:425] loss1/classifier_plantvillage <- loss1/fc
I0403 21:50:50.407714 24441 net.cpp:399] loss1/classifier_plantvillage -> loss1/classifier_plantvillage
I0403 21:50:50.408624 24441 net.cpp:141] Setting up loss1/classifier_plantvillage
I0403 21:50:50.408654 24441 net.cpp:148] Top shape: 24 38 (912)
I0403 21:50:50.408670 24441 net.cpp:156] Memory required for data: 946192992
I0403 21:50:50.408689 24441 layer_factory.hpp:77] Creating layer loss1/classifier_plantvillage_loss1/classifier_plantvillage_0_split
I0403 21:50:50.408707 24441 net.cpp:91] Creating Layer loss1/classifier_plantvillage_loss1/classifier_plantvillage_0_split
I0403 21:50:50.408723 24441 net.cpp:425] loss1/classifier_plantvillage_loss1/classifier_plantvillage_0_split <- loss1/classifier_plantvillage
I0403 21:50:50.408742 24441 net.cpp:399] loss1/classifier_plantvillage_loss1/classifier_plantvillage_0_split -> loss1/classifier_plantvillage_loss1/classifier_plantvillage_0_split_0
I0403 21:50:50.408761 24441 net.cpp:399] loss1/classifier_plantvillage_loss1/classifier_plantvillage_0_split -> loss1/classifier_plantvillage_loss1/classifier_plantvillage_0_split_1
I0403 21:50:50.408782 24441 net.cpp:399] loss1/classifier_plantvillage_loss1/classifier_plantvillage_0_split -> loss1/classifier_plantvillage_loss1/classifier_plantvillage_0_split_2
I0403 21:50:50.408848 24441 net.cpp:141] Setting up loss1/classifier_plantvillage_loss1/classifier_plantvillage_0_split
I0403 21:50:50.408871 24441 net.cpp:148] Top shape: 24 38 (912)
I0403 21:50:50.408887 24441 net.cpp:148] Top shape: 24 38 (912)
I0403 21:50:50.408903 24441 net.cpp:148] Top shape: 24 38 (912)
I0403 21:50:50.408917 24441 net.cpp:156] Memory required for data: 946203936
I0403 21:50:50.408932 24441 layer_factory.hpp:77] Creating layer inception_4b/1x1
I0403 21:50:50.408951 24441 net.cpp:91] Creating Layer inception_4b/1x1
I0403 21:50:50.408988 24441 net.cpp:425] inception_4b/1x1 <- inception_4a/output_inception_4a/output_0_split_1
I0403 21:50:50.409011 24441 net.cpp:399] inception_4b/1x1 -> inception_4b/1x1
I0403 21:50:50.410606 24441 net.cpp:141] Setting up inception_4b/1x1
I0403 21:50:50.410637 24441 net.cpp:148] Top shape: 24 160 14 14 (752640)
I0403 21:50:50.410655 24441 net.cpp:156] Memory required for data: 949214496
I0403 21:50:50.410673 24441 layer_factory.hpp:77] Creating layer inception_4b/relu_1x1
I0403 21:50:50.410691 24441 net.cpp:91] Creating Layer inception_4b/relu_1x1
I0403 21:50:50.410707 24441 net.cpp:425] inception_4b/relu_1x1 <- inception_4b/1x1
I0403 21:50:50.410725 24441 net.cpp:386] inception_4b/relu_1x1 -> inception_4b/1x1 (in-place)
I0403 21:50:50.410902 24441 net.cpp:141] Setting up inception_4b/relu_1x1
I0403 21:50:50.410928 24441 net.cpp:148] Top shape: 24 160 14 14 (752640)
I0403 21:50:50.410944 24441 net.cpp:156] Memory required for data: 952225056
I0403 21:50:50.410960 24441 layer_factory.hpp:77] Creating layer inception_4b/3x3_reduce
I0403 21:50:50.410982 24441 net.cpp:91] Creating Layer inception_4b/3x3_reduce
I0403 21:50:50.411000 24441 net.cpp:425] inception_4b/3x3_reduce <- inception_4a/output_inception_4a/output_0_split_2
I0403 21:50:50.411025 24441 net.cpp:399] inception_4b/3x3_reduce -> inception_4b/3x3_reduce
I0403 21:50:50.412331 24441 net.cpp:141] Setting up inception_4b/3x3_reduce
I0403 21:50:50.412364 24441 net.cpp:148] Top shape: 24 112 14 14 (526848)
I0403 21:50:50.412381 24441 net.cpp:156] Memory required for data: 954332448
I0403 21:50:50.412400 24441 layer_factory.hpp:77] Creating layer inception_4b/relu_3x3_reduce
I0403 21:50:50.412417 24441 net.cpp:91] Creating Layer inception_4b/relu_3x3_reduce
I0403 21:50:50.412436 24441 net.cpp:425] inception_4b/relu_3x3_reduce <- inception_4b/3x3_reduce
I0403 21:50:50.412456 24441 net.cpp:386] inception_4b/relu_3x3_reduce -> inception_4b/3x3_reduce (in-place)
I0403 21:50:50.412726 24441 net.cpp:141] Setting up inception_4b/relu_3x3_reduce
I0403 21:50:50.412755 24441 net.cpp:148] Top shape: 24 112 14 14 (526848)
I0403 21:50:50.412770 24441 net.cpp:156] Memory required for data: 956439840
I0403 21:50:50.412786 24441 layer_factory.hpp:77] Creating layer inception_4b/3x3
I0403 21:50:50.412808 24441 net.cpp:91] Creating Layer inception_4b/3x3
I0403 21:50:50.412827 24441 net.cpp:425] inception_4b/3x3 <- inception_4b/3x3_reduce
I0403 21:50:50.412847 24441 net.cpp:399] inception_4b/3x3 -> inception_4b/3x3
I0403 21:50:50.415752 24441 net.cpp:141] Setting up inception_4b/3x3
I0403 21:50:50.415781 24441 net.cpp:148] Top shape: 24 224 14 14 (1053696)
I0403 21:50:50.415796 24441 net.cpp:156] Memory required for data: 960654624
I0403 21:50:50.415814 24441 layer_factory.hpp:77] Creating layer inception_4b/relu_3x3
I0403 21:50:50.415834 24441 net.cpp:91] Creating Layer inception_4b/relu_3x3
I0403 21:50:50.415851 24441 net.cpp:425] inception_4b/relu_3x3 <- inception_4b/3x3
I0403 21:50:50.415868 24441 net.cpp:386] inception_4b/relu_3x3 -> inception_4b/3x3 (in-place)
I0403 21:50:50.416049 24441 net.cpp:141] Setting up inception_4b/relu_3x3
I0403 21:50:50.416074 24441 net.cpp:148] Top shape: 24 224 14 14 (1053696)
I0403 21:50:50.416088 24441 net.cpp:156] Memory required for data: 964869408
I0403 21:50:50.416103 24441 layer_factory.hpp:77] Creating layer inception_4b/5x5_reduce
I0403 21:50:50.416128 24441 net.cpp:91] Creating Layer inception_4b/5x5_reduce
I0403 21:50:50.416146 24441 net.cpp:425] inception_4b/5x5_reduce <- inception_4a/output_inception_4a/output_0_split_3
I0403 21:50:50.416165 24441 net.cpp:399] inception_4b/5x5_reduce -> inception_4b/5x5_reduce
I0403 21:50:50.417223 24441 net.cpp:141] Setting up inception_4b/5x5_reduce
I0403 21:50:50.417253 24441 net.cpp:148] Top shape: 24 24 14 14 (112896)
I0403 21:50:50.417269 24441 net.cpp:156] Memory required for data: 965320992
I0403 21:50:50.417289 24441 layer_factory.hpp:77] Creating layer inception_4b/relu_5x5_reduce
I0403 21:50:50.417307 24441 net.cpp:91] Creating Layer inception_4b/relu_5x5_reduce
I0403 21:50:50.417337 24441 net.cpp:425] inception_4b/relu_5x5_reduce <- inception_4b/5x5_reduce
I0403 21:50:50.417358 24441 net.cpp:386] inception_4b/relu_5x5_reduce -> inception_4b/5x5_reduce (in-place)
I0403 21:50:50.417538 24441 net.cpp:141] Setting up inception_4b/relu_5x5_reduce
I0403 21:50:50.417563 24441 net.cpp:148] Top shape: 24 24 14 14 (112896)
I0403 21:50:50.417579 24441 net.cpp:156] Memory required for data: 965772576
I0403 21:50:50.417594 24441 layer_factory.hpp:77] Creating layer inception_4b/5x5
I0403 21:50:50.417616 24441 net.cpp:91] Creating Layer inception_4b/5x5
I0403 21:50:50.417634 24441 net.cpp:425] inception_4b/5x5 <- inception_4b/5x5_reduce
I0403 21:50:50.417655 24441 net.cpp:399] inception_4b/5x5 -> inception_4b/5x5
I0403 21:50:50.418851 24441 net.cpp:141] Setting up inception_4b/5x5
I0403 21:50:50.418882 24441 net.cpp:148] Top shape: 24 64 14 14 (301056)
I0403 21:50:50.418900 24441 net.cpp:156] Memory required for data: 966976800
I0403 21:50:50.418917 24441 layer_factory.hpp:77] Creating layer inception_4b/relu_5x5
I0403 21:50:50.418936 24441 net.cpp:91] Creating Layer inception_4b/relu_5x5
I0403 21:50:50.418953 24441 net.cpp:425] inception_4b/relu_5x5 <- inception_4b/5x5
I0403 21:50:50.418972 24441 net.cpp:386] inception_4b/relu_5x5 -> inception_4b/5x5 (in-place)
I0403 21:50:50.419258 24441 net.cpp:141] Setting up inception_4b/relu_5x5
I0403 21:50:50.419287 24441 net.cpp:148] Top shape: 24 64 14 14 (301056)
I0403 21:50:50.419304 24441 net.cpp:156] Memory required for data: 968181024
I0403 21:50:50.419318 24441 layer_factory.hpp:77] Creating layer inception_4b/pool
I0403 21:50:50.419337 24441 net.cpp:91] Creating Layer inception_4b/pool
I0403 21:50:50.419353 24441 net.cpp:425] inception_4b/pool <- inception_4a/output_inception_4a/output_0_split_4
I0403 21:50:50.419371 24441 net.cpp:399] inception_4b/pool -> inception_4b/pool
I0403 21:50:50.419438 24441 net.cpp:141] Setting up inception_4b/pool
I0403 21:50:50.419462 24441 net.cpp:148] Top shape: 24 512 14 14 (2408448)
I0403 21:50:50.419477 24441 net.cpp:156] Memory required for data: 977814816
I0403 21:50:50.419492 24441 layer_factory.hpp:77] Creating layer inception_4b/pool_proj
I0403 21:50:50.419513 24441 net.cpp:91] Creating Layer inception_4b/pool_proj
I0403 21:50:50.419531 24441 net.cpp:425] inception_4b/pool_proj <- inception_4b/pool
I0403 21:50:50.419553 24441 net.cpp:399] inception_4b/pool_proj -> inception_4b/pool_proj
I0403 21:50:50.420722 24441 net.cpp:141] Setting up inception_4b/pool_proj
I0403 21:50:50.420753 24441 net.cpp:148] Top shape: 24 64 14 14 (301056)
I0403 21:50:50.420771 24441 net.cpp:156] Memory required for data: 979019040
I0403 21:50:50.420789 24441 layer_factory.hpp:77] Creating layer inception_4b/relu_pool_proj
I0403 21:50:50.420809 24441 net.cpp:91] Creating Layer inception_4b/relu_pool_proj
I0403 21:50:50.420826 24441 net.cpp:425] inception_4b/relu_pool_proj <- inception_4b/pool_proj
I0403 21:50:50.420845 24441 net.cpp:386] inception_4b/relu_pool_proj -> inception_4b/pool_proj (in-place)
I0403 21:50:50.421020 24441 net.cpp:141] Setting up inception_4b/relu_pool_proj
I0403 21:50:50.421044 24441 net.cpp:148] Top shape: 24 64 14 14 (301056)
I0403 21:50:50.421061 24441 net.cpp:156] Memory required for data: 980223264
I0403 21:50:50.421075 24441 layer_factory.hpp:77] Creating layer inception_4b/output
I0403 21:50:50.421093 24441 net.cpp:91] Creating Layer inception_4b/output
I0403 21:50:50.421110 24441 net.cpp:425] inception_4b/output <- inception_4b/1x1
I0403 21:50:50.421128 24441 net.cpp:425] inception_4b/output <- inception_4b/3x3
I0403 21:50:50.421144 24441 net.cpp:425] inception_4b/output <- inception_4b/5x5
I0403 21:50:50.421159 24441 net.cpp:425] inception_4b/output <- inception_4b/pool_proj
I0403 21:50:50.421177 24441 net.cpp:399] inception_4b/output -> inception_4b/output
I0403 21:50:50.421226 24441 net.cpp:141] Setting up inception_4b/output
I0403 21:50:50.421253 24441 net.cpp:148] Top shape: 24 512 14 14 (2408448)
I0403 21:50:50.421269 24441 net.cpp:156] Memory required for data: 989857056
I0403 21:50:50.421298 24441 layer_factory.hpp:77] Creating layer inception_4b/output_inception_4b/output_0_split
I0403 21:50:50.421316 24441 net.cpp:91] Creating Layer inception_4b/output_inception_4b/output_0_split
I0403 21:50:50.421334 24441 net.cpp:425] inception_4b/output_inception_4b/output_0_split <- inception_4b/output
I0403 21:50:50.421352 24441 net.cpp:399] inception_4b/output_inception_4b/output_0_split -> inception_4b/output_inception_4b/output_0_split_0
I0403 21:50:50.421377 24441 net.cpp:399] inception_4b/output_inception_4b/output_0_split -> inception_4b/output_inception_4b/output_0_split_1
I0403 21:50:50.421399 24441 net.cpp:399] inception_4b/output_inception_4b/output_0_split -> inception_4b/output_inception_4b/output_0_split_2
I0403 21:50:50.421421 24441 net.cpp:399] inception_4b/output_inception_4b/output_0_split -> inception_4b/output_inception_4b/output_0_split_3
I0403 21:50:50.421501 24441 net.cpp:141] Setting up inception_4b/output_inception_4b/output_0_split
I0403 21:50:50.421525 24441 net.cpp:148] Top shape: 24 512 14 14 (2408448)
I0403 21:50:50.421541 24441 net.cpp:148] Top shape: 24 512 14 14 (2408448)
I0403 21:50:50.421557 24441 net.cpp:148] Top shape: 24 512 14 14 (2408448)
I0403 21:50:50.421572 24441 net.cpp:148] Top shape: 24 512 14 14 (2408448)
I0403 21:50:50.421586 24441 net.cpp:156] Memory required for data: 1028392224
I0403 21:50:50.421600 24441 layer_factory.hpp:77] Creating layer inception_4c/1x1
I0403 21:50:50.421623 24441 net.cpp:91] Creating Layer inception_4c/1x1
I0403 21:50:50.421640 24441 net.cpp:425] inception_4c/1x1 <- inception_4b/output_inception_4b/output_0_split_0
I0403 21:50:50.421663 24441 net.cpp:399] inception_4c/1x1 -> inception_4c/1x1
I0403 21:50:50.423059 24441 net.cpp:141] Setting up inception_4c/1x1
I0403 21:50:50.423089 24441 net.cpp:148] Top shape: 24 128 14 14 (602112)
I0403 21:50:50.423105 24441 net.cpp:156] Memory required for data: 1030800672
I0403 21:50:50.423123 24441 layer_factory.hpp:77] Creating layer inception_4c/relu_1x1
I0403 21:50:50.423143 24441 net.cpp:91] Creating Layer inception_4c/relu_1x1
I0403 21:50:50.423161 24441 net.cpp:425] inception_4c/relu_1x1 <- inception_4c/1x1
I0403 21:50:50.423179 24441 net.cpp:386] inception_4c/relu_1x1 -> inception_4c/1x1 (in-place)
I0403 21:50:50.423358 24441 net.cpp:141] Setting up inception_4c/relu_1x1
I0403 21:50:50.423383 24441 net.cpp:148] Top shape: 24 128 14 14 (602112)
I0403 21:50:50.423398 24441 net.cpp:156] Memory required for data: 1033209120
I0403 21:50:50.423414 24441 layer_factory.hpp:77] Creating layer inception_4c/3x3_reduce
I0403 21:50:50.423436 24441 net.cpp:91] Creating Layer inception_4c/3x3_reduce
I0403 21:50:50.423456 24441 net.cpp:425] inception_4c/3x3_reduce <- inception_4b/output_inception_4b/output_0_split_1
I0403 21:50:50.423476 24441 net.cpp:399] inception_4c/3x3_reduce -> inception_4c/3x3_reduce
I0403 21:50:50.425381 24441 net.cpp:141] Setting up inception_4c/3x3_reduce
I0403 21:50:50.425410 24441 net.cpp:148] Top shape: 24 128 14 14 (602112)
I0403 21:50:50.425427 24441 net.cpp:156] Memory required for data: 1035617568
I0403 21:50:50.425446 24441 layer_factory.hpp:77] Creating layer inception_4c/relu_3x3_reduce
I0403 21:50:50.425465 24441 net.cpp:91] Creating Layer inception_4c/relu_3x3_reduce
I0403 21:50:50.425483 24441 net.cpp:425] inception_4c/relu_3x3_reduce <- inception_4c/3x3_reduce
I0403 21:50:50.425501 24441 net.cpp:386] inception_4c/relu_3x3_reduce -> inception_4c/3x3_reduce (in-place)
I0403 21:50:50.425782 24441 net.cpp:141] Setting up inception_4c/relu_3x3_reduce
I0403 21:50:50.425809 24441 net.cpp:148] Top shape: 24 128 14 14 (602112)
I0403 21:50:50.425824 24441 net.cpp:156] Memory required for data: 1038026016
I0403 21:50:50.425840 24441 layer_factory.hpp:77] Creating layer inception_4c/3x3
I0403 21:50:50.425866 24441 net.cpp:91] Creating Layer inception_4c/3x3
I0403 21:50:50.425885 24441 net.cpp:425] inception_4c/3x3 <- inception_4c/3x3_reduce
I0403 21:50:50.425904 24441 net.cpp:399] inception_4c/3x3 -> inception_4c/3x3
I0403 21:50:50.429450 24441 net.cpp:141] Setting up inception_4c/3x3
I0403 21:50:50.429492 24441 net.cpp:148] Top shape: 24 256 14 14 (1204224)
I0403 21:50:50.429512 24441 net.cpp:156] Memory required for data: 1042842912
I0403 21:50:50.429543 24441 layer_factory.hpp:77] Creating layer inception_4c/relu_3x3
I0403 21:50:50.429564 24441 net.cpp:91] Creating Layer inception_4c/relu_3x3
I0403 21:50:50.429581 24441 net.cpp:425] inception_4c/relu_3x3 <- inception_4c/3x3
I0403 21:50:50.429600 24441 net.cpp:386] inception_4c/relu_3x3 -> inception_4c/3x3 (in-place)
I0403 21:50:50.429776 24441 net.cpp:141] Setting up inception_4c/relu_3x3
I0403 21:50:50.429803 24441 net.cpp:148] Top shape: 24 256 14 14 (1204224)
I0403 21:50:50.429819 24441 net.cpp:156] Memory required for data: 1047659808
I0403 21:50:50.429836 24441 layer_factory.hpp:77] Creating layer inception_4c/5x5_reduce
I0403 21:50:50.429858 24441 net.cpp:91] Creating Layer inception_4c/5x5_reduce
I0403 21:50:50.429877 24441 net.cpp:425] inception_4c/5x5_reduce <- inception_4b/output_inception_4b/output_0_split_2
I0403 21:50:50.429895 24441 net.cpp:399] inception_4c/5x5_reduce -> inception_4c/5x5_reduce
I0403 21:50:50.430951 24441 net.cpp:141] Setting up inception_4c/5x5_reduce
I0403 21:50:50.430981 24441 net.cpp:148] Top shape: 24 24 14 14 (112896)
I0403 21:50:50.430999 24441 net.cpp:156] Memory required for data: 1048111392
I0403 21:50:50.431016 24441 layer_factory.hpp:77] Creating layer inception_4c/relu_5x5_reduce
I0403 21:50:50.431035 24441 net.cpp:91] Creating Layer inception_4c/relu_5x5_reduce
I0403 21:50:50.431052 24441 net.cpp:425] inception_4c/relu_5x5_reduce <- inception_4c/5x5_reduce
I0403 21:50:50.431071 24441 net.cpp:386] inception_4c/relu_5x5_reduce -> inception_4c/5x5_reduce (in-place)
I0403 21:50:50.431255 24441 net.cpp:141] Setting up inception_4c/relu_5x5_reduce
I0403 21:50:50.431280 24441 net.cpp:148] Top shape: 24 24 14 14 (112896)
I0403 21:50:50.431295 24441 net.cpp:156] Memory required for data: 1048562976
I0403 21:50:50.431309 24441 layer_factory.hpp:77] Creating layer inception_4c/5x5
I0403 21:50:50.431331 24441 net.cpp:91] Creating Layer inception_4c/5x5
I0403 21:50:50.431350 24441 net.cpp:425] inception_4c/5x5 <- inception_4c/5x5_reduce
I0403 21:50:50.431372 24441 net.cpp:399] inception_4c/5x5 -> inception_4c/5x5
I0403 21:50:50.432579 24441 net.cpp:141] Setting up inception_4c/5x5
I0403 21:50:50.432605 24441 net.cpp:148] Top shape: 24 64 14 14 (301056)
I0403 21:50:50.432621 24441 net.cpp:156] Memory required for data: 1049767200
I0403 21:50:50.432639 24441 layer_factory.hpp:77] Creating layer inception_4c/relu_5x5
I0403 21:50:50.432657 24441 net.cpp:91] Creating Layer inception_4c/relu_5x5
I0403 21:50:50.432677 24441 net.cpp:425] inception_4c/relu_5x5 <- inception_4c/5x5
I0403 21:50:50.432696 24441 net.cpp:386] inception_4c/relu_5x5 -> inception_4c/5x5 (in-place)
I0403 21:50:50.432977 24441 net.cpp:141] Setting up inception_4c/relu_5x5
I0403 21:50:50.433003 24441 net.cpp:148] Top shape: 24 64 14 14 (301056)
I0403 21:50:50.433018 24441 net.cpp:156] Memory required for data: 1050971424
I0403 21:50:50.433033 24441 layer_factory.hpp:77] Creating layer inception_4c/pool
I0403 21:50:50.433051 24441 net.cpp:91] Creating Layer inception_4c/pool
I0403 21:50:50.433068 24441 net.cpp:425] inception_4c/pool <- inception_4b/output_inception_4b/output_0_split_3
I0403 21:50:50.433089 24441 net.cpp:399] inception_4c/pool -> inception_4c/pool
I0403 21:50:50.433154 24441 net.cpp:141] Setting up inception_4c/pool
I0403 21:50:50.433181 24441 net.cpp:148] Top shape: 24 512 14 14 (2408448)
I0403 21:50:50.433199 24441 net.cpp:156] Memory required for data: 1060605216
I0403 21:50:50.433215 24441 layer_factory.hpp:77] Creating layer inception_4c/pool_proj
I0403 21:50:50.433238 24441 net.cpp:91] Creating Layer inception_4c/pool_proj
I0403 21:50:50.433256 24441 net.cpp:425] inception_4c/pool_proj <- inception_4c/pool
I0403 21:50:50.433275 24441 net.cpp:399] inception_4c/pool_proj -> inception_4c/pool_proj
I0403 21:50:50.434490 24441 net.cpp:141] Setting up inception_4c/pool_proj
I0403 21:50:50.434522 24441 net.cpp:148] Top shape: 24 64 14 14 (301056)
I0403 21:50:50.434566 24441 net.cpp:156] Memory required for data: 1061809440
I0403 21:50:50.434586 24441 layer_factory.hpp:77] Creating layer inception_4c/relu_pool_proj
I0403 21:50:50.434607 24441 net.cpp:91] Creating Layer inception_4c/relu_pool_proj
I0403 21:50:50.434623 24441 net.cpp:425] inception_4c/relu_pool_proj <- inception_4c/pool_proj
I0403 21:50:50.434641 24441 net.cpp:386] inception_4c/relu_pool_proj -> inception_4c/pool_proj (in-place)
I0403 21:50:50.434828 24441 net.cpp:141] Setting up inception_4c/relu_pool_proj
I0403 21:50:50.434854 24441 net.cpp:148] Top shape: 24 64 14 14 (301056)
I0403 21:50:50.434870 24441 net.cpp:156] Memory required for data: 1063013664
I0403 21:50:50.434886 24441 layer_factory.hpp:77] Creating layer inception_4c/output
I0403 21:50:50.434903 24441 net.cpp:91] Creating Layer inception_4c/output
I0403 21:50:50.434919 24441 net.cpp:425] inception_4c/output <- inception_4c/1x1
I0403 21:50:50.434937 24441 net.cpp:425] inception_4c/output <- inception_4c/3x3
I0403 21:50:50.434955 24441 net.cpp:425] inception_4c/output <- inception_4c/5x5
I0403 21:50:50.434972 24441 net.cpp:425] inception_4c/output <- inception_4c/pool_proj
I0403 21:50:50.434990 24441 net.cpp:399] inception_4c/output -> inception_4c/output
I0403 21:50:50.435039 24441 net.cpp:141] Setting up inception_4c/output
I0403 21:50:50.435065 24441 net.cpp:148] Top shape: 24 512 14 14 (2408448)
I0403 21:50:50.435081 24441 net.cpp:156] Memory required for data: 1072647456
I0403 21:50:50.435096 24441 layer_factory.hpp:77] Creating layer inception_4c/output_inception_4c/output_0_split
I0403 21:50:50.435114 24441 net.cpp:91] Creating Layer inception_4c/output_inception_4c/output_0_split
I0403 21:50:50.435130 24441 net.cpp:425] inception_4c/output_inception_4c/output_0_split <- inception_4c/output
I0403 21:50:50.435149 24441 net.cpp:399] inception_4c/output_inception_4c/output_0_split -> inception_4c/output_inception_4c/output_0_split_0
I0403 21:50:50.435173 24441 net.cpp:399] inception_4c/output_inception_4c/output_0_split -> inception_4c/output_inception_4c/output_0_split_1
I0403 21:50:50.435194 24441 net.cpp:399] inception_4c/output_inception_4c/output_0_split -> inception_4c/output_inception_4c/output_0_split_2
I0403 21:50:50.435222 24441 net.cpp:399] inception_4c/output_inception_4c/output_0_split -> inception_4c/output_inception_4c/output_0_split_3
I0403 21:50:50.435309 24441 net.cpp:141] Setting up inception_4c/output_inception_4c/output_0_split
I0403 21:50:50.435334 24441 net.cpp:148] Top shape: 24 512 14 14 (2408448)
I0403 21:50:50.435350 24441 net.cpp:148] Top shape: 24 512 14 14 (2408448)
I0403 21:50:50.435366 24441 net.cpp:148] Top shape: 24 512 14 14 (2408448)
I0403 21:50:50.435381 24441 net.cpp:148] Top shape: 24 512 14 14 (2408448)
I0403 21:50:50.435395 24441 net.cpp:156] Memory required for data: 1111182624
I0403 21:50:50.435410 24441 layer_factory.hpp:77] Creating layer inception_4d/1x1
I0403 21:50:50.435432 24441 net.cpp:91] Creating Layer inception_4d/1x1
I0403 21:50:50.435451 24441 net.cpp:425] inception_4d/1x1 <- inception_4c/output_inception_4c/output_0_split_0
I0403 21:50:50.435473 24441 net.cpp:399] inception_4d/1x1 -> inception_4d/1x1
I0403 21:50:50.436863 24441 net.cpp:141] Setting up inception_4d/1x1
I0403 21:50:50.436892 24441 net.cpp:148] Top shape: 24 112 14 14 (526848)
I0403 21:50:50.436908 24441 net.cpp:156] Memory required for data: 1113290016
I0403 21:50:50.436928 24441 layer_factory.hpp:77] Creating layer inception_4d/relu_1x1
I0403 21:50:50.436950 24441 net.cpp:91] Creating Layer inception_4d/relu_1x1
I0403 21:50:50.436969 24441 net.cpp:425] inception_4d/relu_1x1 <- inception_4d/1x1
I0403 21:50:50.436987 24441 net.cpp:386] inception_4d/relu_1x1 -> inception_4d/1x1 (in-place)
I0403 21:50:50.437175 24441 net.cpp:141] Setting up inception_4d/relu_1x1
I0403 21:50:50.437206 24441 net.cpp:148] Top shape: 24 112 14 14 (526848)
I0403 21:50:50.437223 24441 net.cpp:156] Memory required for data: 1115397408
I0403 21:50:50.437239 24441 layer_factory.hpp:77] Creating layer inception_4d/3x3_reduce
I0403 21:50:50.437276 24441 net.cpp:91] Creating Layer inception_4d/3x3_reduce
I0403 21:50:50.437296 24441 net.cpp:425] inception_4d/3x3_reduce <- inception_4c/output_inception_4c/output_0_split_1
I0403 21:50:50.437315 24441 net.cpp:399] inception_4d/3x3_reduce -> inception_4d/3x3_reduce
I0403 21:50:50.438843 24441 net.cpp:141] Setting up inception_4d/3x3_reduce
I0403 21:50:50.438873 24441 net.cpp:148] Top shape: 24 144 14 14 (677376)
I0403 21:50:50.438889 24441 net.cpp:156] Memory required for data: 1118106912
I0403 21:50:50.438908 24441 layer_factory.hpp:77] Creating layer inception_4d/relu_3x3_reduce
I0403 21:50:50.438926 24441 net.cpp:91] Creating Layer inception_4d/relu_3x3_reduce
I0403 21:50:50.438943 24441 net.cpp:425] inception_4d/relu_3x3_reduce <- inception_4d/3x3_reduce
I0403 21:50:50.438966 24441 net.cpp:386] inception_4d/relu_3x3_reduce -> inception_4d/3x3_reduce (in-place)
I0403 21:50:50.439260 24441 net.cpp:141] Setting up inception_4d/relu_3x3_reduce
I0403 21:50:50.439288 24441 net.cpp:148] Top shape: 24 144 14 14 (677376)
I0403 21:50:50.439304 24441 net.cpp:156] Memory required for data: 1120816416
I0403 21:50:50.439319 24441 layer_factory.hpp:77] Creating layer inception_4d/3x3
I0403 21:50:50.439342 24441 net.cpp:91] Creating Layer inception_4d/3x3
I0403 21:50:50.439362 24441 net.cpp:425] inception_4d/3x3 <- inception_4d/3x3_reduce
I0403 21:50:50.439383 24441 net.cpp:399] inception_4d/3x3 -> inception_4d/3x3
I0403 21:50:50.443670 24441 net.cpp:141] Setting up inception_4d/3x3
I0403 21:50:50.443701 24441 net.cpp:148] Top shape: 24 288 14 14 (1354752)
I0403 21:50:50.443717 24441 net.cpp:156] Memory required for data: 1126235424
I0403 21:50:50.443738 24441 layer_factory.hpp:77] Creating layer inception_4d/relu_3x3
I0403 21:50:50.443759 24441 net.cpp:91] Creating Layer inception_4d/relu_3x3
I0403 21:50:50.443778 24441 net.cpp:425] inception_4d/relu_3x3 <- inception_4d/3x3
I0403 21:50:50.443795 24441 net.cpp:386] inception_4d/relu_3x3 -> inception_4d/3x3 (in-place)
I0403 21:50:50.443980 24441 net.cpp:141] Setting up inception_4d/relu_3x3
I0403 21:50:50.444008 24441 net.cpp:148] Top shape: 24 288 14 14 (1354752)
I0403 21:50:50.444025 24441 net.cpp:156] Memory required for data: 1131654432
I0403 21:50:50.444041 24441 layer_factory.hpp:77] Creating layer inception_4d/5x5_reduce
I0403 21:50:50.444062 24441 net.cpp:91] Creating Layer inception_4d/5x5_reduce
I0403 21:50:50.444082 24441 net.cpp:425] inception_4d/5x5_reduce <- inception_4c/output_inception_4c/output_0_split_2
I0403 21:50:50.444102 24441 net.cpp:399] inception_4d/5x5_reduce -> inception_4d/5x5_reduce
I0403 21:50:50.445261 24441 net.cpp:141] Setting up inception_4d/5x5_reduce
I0403 21:50:50.445289 24441 net.cpp:148] Top shape: 24 32 14 14 (150528)
I0403 21:50:50.445307 24441 net.cpp:156] Memory required for data: 1132256544
I0403 21:50:50.445324 24441 layer_factory.hpp:77] Creating layer inception_4d/relu_5x5_reduce
I0403 21:50:50.445346 24441 net.cpp:91] Creating Layer inception_4d/relu_5x5_reduce
I0403 21:50:50.445364 24441 net.cpp:425] inception_4d/relu_5x5_reduce <- inception_4d/5x5_reduce
I0403 21:50:50.445384 24441 net.cpp:386] inception_4d/relu_5x5_reduce -> inception_4d/5x5_reduce (in-place)
I0403 21:50:50.445574 24441 net.cpp:141] Setting up inception_4d/relu_5x5_reduce
I0403 21:50:50.445601 24441 net.cpp:148] Top shape: 24 32 14 14 (150528)
I0403 21:50:50.445617 24441 net.cpp:156] Memory required for data: 1132858656
I0403 21:50:50.445633 24441 layer_factory.hpp:77] Creating layer inception_4d/5x5
I0403 21:50:50.445655 24441 net.cpp:91] Creating Layer inception_4d/5x5
I0403 21:50:50.445674 24441 net.cpp:425] inception_4d/5x5 <- inception_4d/5x5_reduce
I0403 21:50:50.445694 24441 net.cpp:399] inception_4d/5x5 -> inception_4d/5x5
I0403 21:50:50.447165 24441 net.cpp:141] Setting up inception_4d/5x5
I0403 21:50:50.447196 24441 net.cpp:148] Top shape: 24 64 14 14 (301056)
I0403 21:50:50.447217 24441 net.cpp:156] Memory required for data: 1134062880
I0403 21:50:50.447237 24441 layer_factory.hpp:77] Creating layer inception_4d/relu_5x5
I0403 21:50:50.447270 24441 net.cpp:91] Creating Layer inception_4d/relu_5x5
I0403 21:50:50.447289 24441 net.cpp:425] inception_4d/relu_5x5 <- inception_4d/5x5
I0403 21:50:50.447309 24441 net.cpp:386] inception_4d/relu_5x5 -> inception_4d/5x5 (in-place)
I0403 21:50:50.447609 24441 net.cpp:141] Setting up inception_4d/relu_5x5
I0403 21:50:50.447638 24441 net.cpp:148] Top shape: 24 64 14 14 (301056)
I0403 21:50:50.447655 24441 net.cpp:156] Memory required for data: 1135267104
I0403 21:50:50.447671 24441 layer_factory.hpp:77] Creating layer inception_4d/pool
I0403 21:50:50.447690 24441 net.cpp:91] Creating Layer inception_4d/pool
I0403 21:50:50.447706 24441 net.cpp:425] inception_4d/pool <- inception_4c/output_inception_4c/output_0_split_3
I0403 21:50:50.447727 24441 net.cpp:399] inception_4d/pool -> inception_4d/pool
I0403 21:50:50.447794 24441 net.cpp:141] Setting up inception_4d/pool
I0403 21:50:50.447821 24441 net.cpp:148] Top shape: 24 512 14 14 (2408448)
I0403 21:50:50.447837 24441 net.cpp:156] Memory required for data: 1144900896
I0403 21:50:50.447852 24441 layer_factory.hpp:77] Creating layer inception_4d/pool_proj
I0403 21:50:50.447873 24441 net.cpp:91] Creating Layer inception_4d/pool_proj
I0403 21:50:50.447891 24441 net.cpp:425] inception_4d/pool_proj <- inception_4d/pool
I0403 21:50:50.447913 24441 net.cpp:399] inception_4d/pool_proj -> inception_4d/pool_proj
I0403 21:50:50.449704 24441 net.cpp:141] Setting up inception_4d/pool_proj
I0403 21:50:50.449733 24441 net.cpp:148] Top shape: 24 64 14 14 (301056)
I0403 21:50:50.449751 24441 net.cpp:156] Memory required for data: 1146105120
I0403 21:50:50.449771 24441 layer_factory.hpp:77] Creating layer inception_4d/relu_pool_proj
I0403 21:50:50.449796 24441 net.cpp:91] Creating Layer inception_4d/relu_pool_proj
I0403 21:50:50.449815 24441 net.cpp:425] inception_4d/relu_pool_proj <- inception_4d/pool_proj
I0403 21:50:50.449833 24441 net.cpp:386] inception_4d/relu_pool_proj -> inception_4d/pool_proj (in-place)
I0403 21:50:50.450017 24441 net.cpp:141] Setting up inception_4d/relu_pool_proj
I0403 21:50:50.450045 24441 net.cpp:148] Top shape: 24 64 14 14 (301056)
I0403 21:50:50.450062 24441 net.cpp:156] Memory required for data: 1147309344
I0403 21:50:50.450076 24441 layer_factory.hpp:77] Creating layer inception_4d/output
I0403 21:50:50.450093 24441 net.cpp:91] Creating Layer inception_4d/output
I0403 21:50:50.450110 24441 net.cpp:425] inception_4d/output <- inception_4d/1x1
I0403 21:50:50.450127 24441 net.cpp:425] inception_4d/output <- inception_4d/3x3
I0403 21:50:50.450145 24441 net.cpp:425] inception_4d/output <- inception_4d/5x5
I0403 21:50:50.450161 24441 net.cpp:425] inception_4d/output <- inception_4d/pool_proj
I0403 21:50:50.450177 24441 net.cpp:399] inception_4d/output -> inception_4d/output
I0403 21:50:50.450230 24441 net.cpp:141] Setting up inception_4d/output
I0403 21:50:50.450254 24441 net.cpp:148] Top shape: 24 528 14 14 (2483712)
I0403 21:50:50.450269 24441 net.cpp:156] Memory required for data: 1157244192
I0403 21:50:50.450284 24441 layer_factory.hpp:77] Creating layer inception_4d/output_inception_4d/output_0_split
I0403 21:50:50.450305 24441 net.cpp:91] Creating Layer inception_4d/output_inception_4d/output_0_split
I0403 21:50:50.450323 24441 net.cpp:425] inception_4d/output_inception_4d/output_0_split <- inception_4d/output
I0403 21:50:50.450341 24441 net.cpp:399] inception_4d/output_inception_4d/output_0_split -> inception_4d/output_inception_4d/output_0_split_0
I0403 21:50:50.450362 24441 net.cpp:399] inception_4d/output_inception_4d/output_0_split -> inception_4d/output_inception_4d/output_0_split_1
I0403 21:50:50.450384 24441 net.cpp:399] inception_4d/output_inception_4d/output_0_split -> inception_4d/output_inception_4d/output_0_split_2
I0403 21:50:50.450409 24441 net.cpp:399] inception_4d/output_inception_4d/output_0_split -> inception_4d/output_inception_4d/output_0_split_3
I0403 21:50:50.450433 24441 net.cpp:399] inception_4d/output_inception_4d/output_0_split -> inception_4d/output_inception_4d/output_0_split_4
I0403 21:50:50.450536 24441 net.cpp:141] Setting up inception_4d/output_inception_4d/output_0_split
I0403 21:50:50.450572 24441 net.cpp:148] Top shape: 24 528 14 14 (2483712)
I0403 21:50:50.450590 24441 net.cpp:148] Top shape: 24 528 14 14 (2483712)
I0403 21:50:50.450606 24441 net.cpp:148] Top shape: 24 528 14 14 (2483712)
I0403 21:50:50.450623 24441 net.cpp:148] Top shape: 24 528 14 14 (2483712)
I0403 21:50:50.450639 24441 net.cpp:148] Top shape: 24 528 14 14 (2483712)
I0403 21:50:50.450652 24441 net.cpp:156] Memory required for data: 1206918432
I0403 21:50:50.450667 24441 layer_factory.hpp:77] Creating layer loss2/ave_pool
I0403 21:50:50.450687 24441 net.cpp:91] Creating Layer loss2/ave_pool
I0403 21:50:50.450706 24441 net.cpp:425] loss2/ave_pool <- inception_4d/output_inception_4d/output_0_split_0
I0403 21:50:50.450724 24441 net.cpp:399] loss2/ave_pool -> loss2/ave_pool
I0403 21:50:50.451047 24441 net.cpp:141] Setting up loss2/ave_pool
I0403 21:50:50.451074 24441 net.cpp:148] Top shape: 24 528 4 4 (202752)
I0403 21:50:50.451091 24441 net.cpp:156] Memory required for data: 1207729440
I0403 21:50:50.451105 24441 layer_factory.hpp:77] Creating layer loss2/conv
I0403 21:50:50.451128 24441 net.cpp:91] Creating Layer loss2/conv
I0403 21:50:50.451148 24441 net.cpp:425] loss2/conv <- loss2/ave_pool
I0403 21:50:50.451169 24441 net.cpp:399] loss2/conv -> loss2/conv
I0403 21:50:50.453075 24441 net.cpp:141] Setting up loss2/conv
I0403 21:50:50.453104 24441 net.cpp:148] Top shape: 24 128 4 4 (49152)
I0403 21:50:50.453119 24441 net.cpp:156] Memory required for data: 1207926048
I0403 21:50:50.453138 24441 layer_factory.hpp:77] Creating layer loss2/relu_conv
I0403 21:50:50.453156 24441 net.cpp:91] Creating Layer loss2/relu_conv
I0403 21:50:50.453173 24441 net.cpp:425] loss2/relu_conv <- loss2/conv
I0403 21:50:50.453192 24441 net.cpp:386] loss2/relu_conv -> loss2/conv (in-place)
I0403 21:50:50.453476 24441 net.cpp:141] Setting up loss2/relu_conv
I0403 21:50:50.453503 24441 net.cpp:148] Top shape: 24 128 4 4 (49152)
I0403 21:50:50.453518 24441 net.cpp:156] Memory required for data: 1208122656
I0403 21:50:50.453533 24441 layer_factory.hpp:77] Creating layer loss2/fc
I0403 21:50:50.453552 24441 net.cpp:91] Creating Layer loss2/fc
I0403 21:50:50.453570 24441 net.cpp:425] loss2/fc <- loss2/conv
I0403 21:50:50.453593 24441 net.cpp:399] loss2/fc -> loss2/fc
I0403 21:50:50.470826 24441 net.cpp:141] Setting up loss2/fc
I0403 21:50:50.470861 24441 net.cpp:148] Top shape: 24 1024 (24576)
I0403 21:50:50.470878 24441 net.cpp:156] Memory required for data: 1208220960
I0403 21:50:50.470896 24441 layer_factory.hpp:77] Creating layer loss2/relu_fc
I0403 21:50:50.470916 24441 net.cpp:91] Creating Layer loss2/relu_fc
I0403 21:50:50.470932 24441 net.cpp:425] loss2/relu_fc <- loss2/fc
I0403 21:50:50.470950 24441 net.cpp:386] loss2/relu_fc -> loss2/fc (in-place)
I0403 21:50:50.471243 24441 net.cpp:141] Setting up loss2/relu_fc
I0403 21:50:50.471271 24441 net.cpp:148] Top shape: 24 1024 (24576)
I0403 21:50:50.471288 24441 net.cpp:156] Memory required for data: 1208319264
I0403 21:50:50.471303 24441 layer_factory.hpp:77] Creating layer loss2/drop_fc
I0403 21:50:50.471323 24441 net.cpp:91] Creating Layer loss2/drop_fc
I0403 21:50:50.471339 24441 net.cpp:425] loss2/drop_fc <- loss2/fc
I0403 21:50:50.471356 24441 net.cpp:386] loss2/drop_fc -> loss2/fc (in-place)
I0403 21:50:50.471406 24441 net.cpp:141] Setting up loss2/drop_fc
I0403 21:50:50.471429 24441 net.cpp:148] Top shape: 24 1024 (24576)
I0403 21:50:50.471443 24441 net.cpp:156] Memory required for data: 1208417568
I0403 21:50:50.471458 24441 layer_factory.hpp:77] Creating layer loss2/classifier_plantvillage
I0403 21:50:50.471482 24441 net.cpp:91] Creating Layer loss2/classifier_plantvillage
I0403 21:50:50.471498 24441 net.cpp:425] loss2/classifier_plantvillage <- loss2/fc
I0403 21:50:50.471518 24441 net.cpp:399] loss2/classifier_plantvillage -> loss2/classifier_plantvillage
I0403 21:50:50.471911 24441 net.cpp:141] Setting up loss2/classifier_plantvillage
I0403 21:50:50.471936 24441 net.cpp:148] Top shape: 24 38 (912)
I0403 21:50:50.471969 24441 net.cpp:156] Memory required for data: 1208421216
I0403 21:50:50.471988 24441 layer_factory.hpp:77] Creating layer loss2/classifier_plantvillage_loss2/classifier_plantvillage_0_split
I0403 21:50:50.472007 24441 net.cpp:91] Creating Layer loss2/classifier_plantvillage_loss2/classifier_plantvillage_0_split
I0403 21:50:50.472023 24441 net.cpp:425] loss2/classifier_plantvillage_loss2/classifier_plantvillage_0_split <- loss2/classifier_plantvillage
I0403 21:50:50.472043 24441 net.cpp:399] loss2/classifier_plantvillage_loss2/classifier_plantvillage_0_split -> loss2/classifier_plantvillage_loss2/classifier_plantvillage_0_split_0
I0403 21:50:50.472065 24441 net.cpp:399] loss2/classifier_plantvillage_loss2/classifier_plantvillage_0_split -> loss2/classifier_plantvillage_loss2/classifier_plantvillage_0_split_1
I0403 21:50:50.472086 24441 net.cpp:399] loss2/classifier_plantvillage_loss2/classifier_plantvillage_0_split -> loss2/classifier_plantvillage_loss2/classifier_plantvillage_0_split_2
I0403 21:50:50.472162 24441 net.cpp:141] Setting up loss2/classifier_plantvillage_loss2/classifier_plantvillage_0_split
I0403 21:50:50.472188 24441 net.cpp:148] Top shape: 24 38 (912)
I0403 21:50:50.472210 24441 net.cpp:148] Top shape: 24 38 (912)
I0403 21:50:50.472226 24441 net.cpp:148] Top shape: 24 38 (912)
I0403 21:50:50.472240 24441 net.cpp:156] Memory required for data: 1208432160
I0403 21:50:50.472255 24441 layer_factory.hpp:77] Creating layer inception_4e/1x1
I0403 21:50:50.472278 24441 net.cpp:91] Creating Layer inception_4e/1x1
I0403 21:50:50.472297 24441 net.cpp:425] inception_4e/1x1 <- inception_4d/output_inception_4d/output_0_split_1
I0403 21:50:50.472316 24441 net.cpp:399] inception_4e/1x1 -> inception_4e/1x1
I0403 21:50:50.474088 24441 net.cpp:141] Setting up inception_4e/1x1
I0403 21:50:50.474117 24441 net.cpp:148] Top shape: 24 256 14 14 (1204224)
I0403 21:50:50.474133 24441 net.cpp:156] Memory required for data: 1213249056
I0403 21:50:50.474150 24441 layer_factory.hpp:77] Creating layer inception_4e/relu_1x1
I0403 21:50:50.474169 24441 net.cpp:91] Creating Layer inception_4e/relu_1x1
I0403 21:50:50.474185 24441 net.cpp:425] inception_4e/relu_1x1 <- inception_4e/1x1
I0403 21:50:50.474210 24441 net.cpp:386] inception_4e/relu_1x1 -> inception_4e/1x1 (in-place)
I0403 21:50:50.474498 24441 net.cpp:141] Setting up inception_4e/relu_1x1
I0403 21:50:50.474525 24441 net.cpp:148] Top shape: 24 256 14 14 (1204224)
I0403 21:50:50.474540 24441 net.cpp:156] Memory required for data: 1218065952
I0403 21:50:50.474556 24441 layer_factory.hpp:77] Creating layer inception_4e/3x3_reduce
I0403 21:50:50.474577 24441 net.cpp:91] Creating Layer inception_4e/3x3_reduce
I0403 21:50:50.474594 24441 net.cpp:425] inception_4e/3x3_reduce <- inception_4d/output_inception_4d/output_0_split_2
I0403 21:50:50.474617 24441 net.cpp:399] inception_4e/3x3_reduce -> inception_4e/3x3_reduce
I0403 21:50:50.476701 24441 net.cpp:141] Setting up inception_4e/3x3_reduce
I0403 21:50:50.476732 24441 net.cpp:148] Top shape: 24 160 14 14 (752640)
I0403 21:50:50.476749 24441 net.cpp:156] Memory required for data: 1221076512
I0403 21:50:50.476769 24441 layer_factory.hpp:77] Creating layer inception_4e/relu_3x3_reduce
I0403 21:50:50.476788 24441 net.cpp:91] Creating Layer inception_4e/relu_3x3_reduce
I0403 21:50:50.476805 24441 net.cpp:425] inception_4e/relu_3x3_reduce <- inception_4e/3x3_reduce
I0403 21:50:50.476825 24441 net.cpp:386] inception_4e/relu_3x3_reduce -> inception_4e/3x3_reduce (in-place)
I0403 21:50:50.477006 24441 net.cpp:141] Setting up inception_4e/relu_3x3_reduce
I0403 21:50:50.477031 24441 net.cpp:148] Top shape: 24 160 14 14 (752640)
I0403 21:50:50.477047 24441 net.cpp:156] Memory required for data: 1224087072
I0403 21:50:50.477062 24441 layer_factory.hpp:77] Creating layer inception_4e/3x3
I0403 21:50:50.477084 24441 net.cpp:91] Creating Layer inception_4e/3x3
I0403 21:50:50.477102 24441 net.cpp:425] inception_4e/3x3 <- inception_4e/3x3_reduce
I0403 21:50:50.477123 24441 net.cpp:399] inception_4e/3x3 -> inception_4e/3x3
I0403 21:50:50.482023 24441 net.cpp:141] Setting up inception_4e/3x3
I0403 21:50:50.482065 24441 net.cpp:148] Top shape: 24 320 14 14 (1505280)
I0403 21:50:50.482081 24441 net.cpp:156] Memory required for data: 1230108192
I0403 21:50:50.482100 24441 layer_factory.hpp:77] Creating layer inception_4e/relu_3x3
I0403 21:50:50.482120 24441 net.cpp:91] Creating Layer inception_4e/relu_3x3
I0403 21:50:50.482139 24441 net.cpp:425] inception_4e/relu_3x3 <- inception_4e/3x3
I0403 21:50:50.482156 24441 net.cpp:386] inception_4e/relu_3x3 -> inception_4e/3x3 (in-place)
I0403 21:50:50.482457 24441 net.cpp:141] Setting up inception_4e/relu_3x3
I0403 21:50:50.482484 24441 net.cpp:148] Top shape: 24 320 14 14 (1505280)
I0403 21:50:50.482499 24441 net.cpp:156] Memory required for data: 1236129312
I0403 21:50:50.482513 24441 layer_factory.hpp:77] Creating layer inception_4e/5x5_reduce
I0403 21:50:50.482537 24441 net.cpp:91] Creating Layer inception_4e/5x5_reduce
I0403 21:50:50.482555 24441 net.cpp:425] inception_4e/5x5_reduce <- inception_4d/output_inception_4d/output_0_split_3
I0403 21:50:50.482578 24441 net.cpp:399] inception_4e/5x5_reduce -> inception_4e/5x5_reduce
I0403 21:50:50.483628 24441 net.cpp:141] Setting up inception_4e/5x5_reduce
I0403 21:50:50.483657 24441 net.cpp:148] Top shape: 24 32 14 14 (150528)
I0403 21:50:50.483675 24441 net.cpp:156] Memory required for data: 1236731424
I0403 21:50:50.483693 24441 layer_factory.hpp:77] Creating layer inception_4e/relu_5x5_reduce
I0403 21:50:50.483711 24441 net.cpp:91] Creating Layer inception_4e/relu_5x5_reduce
I0403 21:50:50.483728 24441 net.cpp:425] inception_4e/relu_5x5_reduce <- inception_4e/5x5_reduce
I0403 21:50:50.483749 24441 net.cpp:386] inception_4e/relu_5x5_reduce -> inception_4e/5x5_reduce (in-place)
I0403 21:50:50.484040 24441 net.cpp:141] Setting up inception_4e/relu_5x5_reduce
I0403 21:50:50.484066 24441 net.cpp:148] Top shape: 24 32 14 14 (150528)
I0403 21:50:50.484082 24441 net.cpp:156] Memory required for data: 1237333536
I0403 21:50:50.484097 24441 layer_factory.hpp:77] Creating layer inception_4e/5x5
I0403 21:50:50.484135 24441 net.cpp:91] Creating Layer inception_4e/5x5
I0403 21:50:50.484156 24441 net.cpp:425] inception_4e/5x5 <- inception_4e/5x5_reduce
I0403 21:50:50.484175 24441 net.cpp:399] inception_4e/5x5 -> inception_4e/5x5
I0403 21:50:50.485970 24441 net.cpp:141] Setting up inception_4e/5x5
I0403 21:50:50.485998 24441 net.cpp:148] Top shape: 24 128 14 14 (602112)
I0403 21:50:50.486014 24441 net.cpp:156] Memory required for data: 1239741984
I0403 21:50:50.486033 24441 layer_factory.hpp:77] Creating layer inception_4e/relu_5x5
I0403 21:50:50.486055 24441 net.cpp:91] Creating Layer inception_4e/relu_5x5
I0403 21:50:50.486073 24441 net.cpp:425] inception_4e/relu_5x5 <- inception_4e/5x5
I0403 21:50:50.486090 24441 net.cpp:386] inception_4e/relu_5x5 -> inception_4e/5x5 (in-place)
I0403 21:50:50.486285 24441 net.cpp:141] Setting up inception_4e/relu_5x5
I0403 21:50:50.486310 24441 net.cpp:148] Top shape: 24 128 14 14 (602112)
I0403 21:50:50.486325 24441 net.cpp:156] Memory required for data: 1242150432
I0403 21:50:50.486340 24441 layer_factory.hpp:77] Creating layer inception_4e/pool
I0403 21:50:50.486358 24441 net.cpp:91] Creating Layer inception_4e/pool
I0403 21:50:50.486373 24441 net.cpp:425] inception_4e/pool <- inception_4d/output_inception_4d/output_0_split_4
I0403 21:50:50.486393 24441 net.cpp:399] inception_4e/pool -> inception_4e/pool
I0403 21:50:50.486461 24441 net.cpp:141] Setting up inception_4e/pool
I0403 21:50:50.486486 24441 net.cpp:148] Top shape: 24 528 14 14 (2483712)
I0403 21:50:50.486501 24441 net.cpp:156] Memory required for data: 1252085280
I0403 21:50:50.486517 24441 layer_factory.hpp:77] Creating layer inception_4e/pool_proj
I0403 21:50:50.486541 24441 net.cpp:91] Creating Layer inception_4e/pool_proj
I0403 21:50:50.486558 24441 net.cpp:425] inception_4e/pool_proj <- inception_4e/pool
I0403 21:50:50.486577 24441 net.cpp:399] inception_4e/pool_proj -> inception_4e/pool_proj
I0403 21:50:50.488034 24441 net.cpp:141] Setting up inception_4e/pool_proj
I0403 21:50:50.488073 24441 net.cpp:148] Top shape: 24 128 14 14 (602112)
I0403 21:50:50.488090 24441 net.cpp:156] Memory required for data: 1254493728
I0403 21:50:50.488109 24441 layer_factory.hpp:77] Creating layer inception_4e/relu_pool_proj
I0403 21:50:50.488131 24441 net.cpp:91] Creating Layer inception_4e/relu_pool_proj
I0403 21:50:50.488148 24441 net.cpp:425] inception_4e/relu_pool_proj <- inception_4e/pool_proj
I0403 21:50:50.488167 24441 net.cpp:386] inception_4e/relu_pool_proj -> inception_4e/pool_proj (in-place)
I0403 21:50:50.488461 24441 net.cpp:141] Setting up inception_4e/relu_pool_proj
I0403 21:50:50.488489 24441 net.cpp:148] Top shape: 24 128 14 14 (602112)
I0403 21:50:50.488504 24441 net.cpp:156] Memory required for data: 1256902176
I0403 21:50:50.488519 24441 layer_factory.hpp:77] Creating layer inception_4e/output
I0403 21:50:50.488539 24441 net.cpp:91] Creating Layer inception_4e/output
I0403 21:50:50.488556 24441 net.cpp:425] inception_4e/output <- inception_4e/1x1
I0403 21:50:50.488574 24441 net.cpp:425] inception_4e/output <- inception_4e/3x3
I0403 21:50:50.488590 24441 net.cpp:425] inception_4e/output <- inception_4e/5x5
I0403 21:50:50.488607 24441 net.cpp:425] inception_4e/output <- inception_4e/pool_proj
I0403 21:50:50.488623 24441 net.cpp:399] inception_4e/output -> inception_4e/output
I0403 21:50:50.488672 24441 net.cpp:141] Setting up inception_4e/output
I0403 21:50:50.488697 24441 net.cpp:148] Top shape: 24 832 14 14 (3913728)
I0403 21:50:50.488710 24441 net.cpp:156] Memory required for data: 1272557088
I0403 21:50:50.488725 24441 layer_factory.hpp:77] Creating layer pool4/3x3_s2
I0403 21:50:50.488744 24441 net.cpp:91] Creating Layer pool4/3x3_s2
I0403 21:50:50.488759 24441 net.cpp:425] pool4/3x3_s2 <- inception_4e/output
I0403 21:50:50.488778 24441 net.cpp:399] pool4/3x3_s2 -> pool4/3x3_s2
I0403 21:50:50.488843 24441 net.cpp:141] Setting up pool4/3x3_s2
I0403 21:50:50.488867 24441 net.cpp:148] Top shape: 24 832 7 7 (978432)
I0403 21:50:50.488881 24441 net.cpp:156] Memory required for data: 1276470816
I0403 21:50:50.488898 24441 layer_factory.hpp:77] Creating layer pool4/3x3_s2_pool4/3x3_s2_0_split
I0403 21:50:50.488919 24441 net.cpp:91] Creating Layer pool4/3x3_s2_pool4/3x3_s2_0_split
I0403 21:50:50.488936 24441 net.cpp:425] pool4/3x3_s2_pool4/3x3_s2_0_split <- pool4/3x3_s2
I0403 21:50:50.488961 24441 net.cpp:399] pool4/3x3_s2_pool4/3x3_s2_0_split -> pool4/3x3_s2_pool4/3x3_s2_0_split_0
I0403 21:50:50.488983 24441 net.cpp:399] pool4/3x3_s2_pool4/3x3_s2_0_split -> pool4/3x3_s2_pool4/3x3_s2_0_split_1
I0403 21:50:50.489004 24441 net.cpp:399] pool4/3x3_s2_pool4/3x3_s2_0_split -> pool4/3x3_s2_pool4/3x3_s2_0_split_2
I0403 21:50:50.489027 24441 net.cpp:399] pool4/3x3_s2_pool4/3x3_s2_0_split -> pool4/3x3_s2_pool4/3x3_s2_0_split_3
I0403 21:50:50.489114 24441 net.cpp:141] Setting up pool4/3x3_s2_pool4/3x3_s2_0_split
I0403 21:50:50.489141 24441 net.cpp:148] Top shape: 24 832 7 7 (978432)
I0403 21:50:50.489158 24441 net.cpp:148] Top shape: 24 832 7 7 (978432)
I0403 21:50:50.489173 24441 net.cpp:148] Top shape: 24 832 7 7 (978432)
I0403 21:50:50.489189 24441 net.cpp:148] Top shape: 24 832 7 7 (978432)
I0403 21:50:50.489223 24441 net.cpp:156] Memory required for data: 1292125728
I0403 21:50:50.489239 24441 layer_factory.hpp:77] Creating layer inception_5a/1x1
I0403 21:50:50.489269 24441 net.cpp:91] Creating Layer inception_5a/1x1
I0403 21:50:50.489286 24441 net.cpp:425] inception_5a/1x1 <- pool4/3x3_s2_pool4/3x3_s2_0_split_0
I0403 21:50:50.489308 24441 net.cpp:399] inception_5a/1x1 -> inception_5a/1x1
I0403 21:50:50.492180 24441 net.cpp:141] Setting up inception_5a/1x1
I0403 21:50:50.492218 24441 net.cpp:148] Top shape: 24 256 7 7 (301056)
I0403 21:50:50.492235 24441 net.cpp:156] Memory required for data: 1293329952
I0403 21:50:50.492255 24441 layer_factory.hpp:77] Creating layer inception_5a/relu_1x1
I0403 21:50:50.492274 24441 net.cpp:91] Creating Layer inception_5a/relu_1x1
I0403 21:50:50.492290 24441 net.cpp:425] inception_5a/relu_1x1 <- inception_5a/1x1
I0403 21:50:50.492307 24441 net.cpp:386] inception_5a/relu_1x1 -> inception_5a/1x1 (in-place)
I0403 21:50:50.492620 24441 net.cpp:141] Setting up inception_5a/relu_1x1
I0403 21:50:50.492650 24441 net.cpp:148] Top shape: 24 256 7 7 (301056)
I0403 21:50:50.492667 24441 net.cpp:156] Memory required for data: 1294534176
I0403 21:50:50.492683 24441 layer_factory.hpp:77] Creating layer inception_5a/3x3_reduce
I0403 21:50:50.492707 24441 net.cpp:91] Creating Layer inception_5a/3x3_reduce
I0403 21:50:50.492725 24441 net.cpp:425] inception_5a/3x3_reduce <- pool4/3x3_s2_pool4/3x3_s2_0_split_1
I0403 21:50:50.492745 24441 net.cpp:399] inception_5a/3x3_reduce -> inception_5a/3x3_reduce
I0403 21:50:50.495234 24441 net.cpp:141] Setting up inception_5a/3x3_reduce
I0403 21:50:50.495265 24441 net.cpp:148] Top shape: 24 160 7 7 (188160)
I0403 21:50:50.495281 24441 net.cpp:156] Memory required for data: 1295286816
I0403 21:50:50.495299 24441 layer_factory.hpp:77] Creating layer inception_5a/relu_3x3_reduce
I0403 21:50:50.495321 24441 net.cpp:91] Creating Layer inception_5a/relu_3x3_reduce
I0403 21:50:50.495338 24441 net.cpp:425] inception_5a/relu_3x3_reduce <- inception_5a/3x3_reduce
I0403 21:50:50.495357 24441 net.cpp:386] inception_5a/relu_3x3_reduce -> inception_5a/3x3_reduce (in-place)
I0403 21:50:50.495544 24441 net.cpp:141] Setting up inception_5a/relu_3x3_reduce
I0403 21:50:50.495571 24441 net.cpp:148] Top shape: 24 160 7 7 (188160)
I0403 21:50:50.495589 24441 net.cpp:156] Memory required for data: 1296039456
I0403 21:50:50.495604 24441 layer_factory.hpp:77] Creating layer inception_5a/3x3
I0403 21:50:50.495627 24441 net.cpp:91] Creating Layer inception_5a/3x3
I0403 21:50:50.495645 24441 net.cpp:425] inception_5a/3x3 <- inception_5a/3x3_reduce
I0403 21:50:50.495666 24441 net.cpp:399] inception_5a/3x3 -> inception_5a/3x3
I0403 21:50:50.500746 24441 net.cpp:141] Setting up inception_5a/3x3
I0403 21:50:50.500777 24441 net.cpp:148] Top shape: 24 320 7 7 (376320)
I0403 21:50:50.500793 24441 net.cpp:156] Memory required for data: 1297544736
I0403 21:50:50.500814 24441 layer_factory.hpp:77] Creating layer inception_5a/relu_3x3
I0403 21:50:50.500834 24441 net.cpp:91] Creating Layer inception_5a/relu_3x3
I0403 21:50:50.500851 24441 net.cpp:425] inception_5a/relu_3x3 <- inception_5a/3x3
I0403 21:50:50.500870 24441 net.cpp:386] inception_5a/relu_3x3 -> inception_5a/3x3 (in-place)
I0403 21:50:50.501166 24441 net.cpp:141] Setting up inception_5a/relu_3x3
I0403 21:50:50.501195 24441 net.cpp:148] Top shape: 24 320 7 7 (376320)
I0403 21:50:50.501217 24441 net.cpp:156] Memory required for data: 1299050016
I0403 21:50:50.501232 24441 layer_factory.hpp:77] Creating layer inception_5a/5x5_reduce
I0403 21:50:50.501261 24441 net.cpp:91] Creating Layer inception_5a/5x5_reduce
I0403 21:50:50.501282 24441 net.cpp:425] inception_5a/5x5_reduce <- pool4/3x3_s2_pool4/3x3_s2_0_split_2
I0403 21:50:50.501302 24441 net.cpp:399] inception_5a/5x5_reduce -> inception_5a/5x5_reduce
I0403 21:50:50.502475 24441 net.cpp:141] Setting up inception_5a/5x5_reduce
I0403 21:50:50.502506 24441 net.cpp:148] Top shape: 24 32 7 7 (37632)
I0403 21:50:50.502522 24441 net.cpp:156] Memory required for data: 1299200544
I0403 21:50:50.502542 24441 layer_factory.hpp:77] Creating layer inception_5a/relu_5x5_reduce
I0403 21:50:50.502562 24441 net.cpp:91] Creating Layer inception_5a/relu_5x5_reduce
I0403 21:50:50.502578 24441 net.cpp:425] inception_5a/relu_5x5_reduce <- inception_5a/5x5_reduce
I0403 21:50:50.502599 24441 net.cpp:386] inception_5a/relu_5x5_reduce -> inception_5a/5x5_reduce (in-place)
I0403 21:50:50.502946 24441 net.cpp:141] Setting up inception_5a/relu_5x5_reduce
I0403 21:50:50.502974 24441 net.cpp:148] Top shape: 24 32 7 7 (37632)
I0403 21:50:50.502990 24441 net.cpp:156] Memory required for data: 1299351072
I0403 21:50:50.503005 24441 layer_factory.hpp:77] Creating layer inception_5a/5x5
I0403 21:50:50.503029 24441 net.cpp:91] Creating Layer inception_5a/5x5
I0403 21:50:50.503048 24441 net.cpp:425] inception_5a/5x5 <- inception_5a/5x5_reduce
I0403 21:50:50.503069 24441 net.cpp:399] inception_5a/5x5 -> inception_5a/5x5
I0403 21:50:50.504806 24441 net.cpp:141] Setting up inception_5a/5x5
I0403 21:50:50.504845 24441 net.cpp:148] Top shape: 24 128 7 7 (150528)
I0403 21:50:50.504863 24441 net.cpp:156] Memory required for data: 1299953184
I0403 21:50:50.504883 24441 layer_factory.hpp:77] Creating layer inception_5a/relu_5x5
I0403 21:50:50.504902 24441 net.cpp:91] Creating Layer inception_5a/relu_5x5
I0403 21:50:50.504920 24441 net.cpp:425] inception_5a/relu_5x5 <- inception_5a/5x5
I0403 21:50:50.504940 24441 net.cpp:386] inception_5a/relu_5x5 -> inception_5a/5x5 (in-place)
I0403 21:50:50.505137 24441 net.cpp:141] Setting up inception_5a/relu_5x5
I0403 21:50:50.505163 24441 net.cpp:148] Top shape: 24 128 7 7 (150528)
I0403 21:50:50.505178 24441 net.cpp:156] Memory required for data: 1300555296
I0403 21:50:50.505194 24441 layer_factory.hpp:77] Creating layer inception_5a/pool
I0403 21:50:50.505218 24441 net.cpp:91] Creating Layer inception_5a/pool
I0403 21:50:50.505235 24441 net.cpp:425] inception_5a/pool <- pool4/3x3_s2_pool4/3x3_s2_0_split_3
I0403 21:50:50.505256 24441 net.cpp:399] inception_5a/pool -> inception_5a/pool
I0403 21:50:50.505328 24441 net.cpp:141] Setting up inception_5a/pool
I0403 21:50:50.505354 24441 net.cpp:148] Top shape: 24 832 7 7 (978432)
I0403 21:50:50.505368 24441 net.cpp:156] Memory required for data: 1304469024
I0403 21:50:50.505383 24441 layer_factory.hpp:77] Creating layer inception_5a/pool_proj
I0403 21:50:50.505408 24441 net.cpp:91] Creating Layer inception_5a/pool_proj
I0403 21:50:50.505425 24441 net.cpp:425] inception_5a/pool_proj <- inception_5a/pool
I0403 21:50:50.505445 24441 net.cpp:399] inception_5a/pool_proj -> inception_5a/pool_proj
I0403 21:50:50.507740 24441 net.cpp:141] Setting up inception_5a/pool_proj
I0403 21:50:50.507771 24441 net.cpp:148] Top shape: 24 128 7 7 (150528)
I0403 21:50:50.507786 24441 net.cpp:156] Memory required for data: 1305071136
I0403 21:50:50.507804 24441 layer_factory.hpp:77] Creating layer inception_5a/relu_pool_proj
I0403 21:50:50.507825 24441 net.cpp:91] Creating Layer inception_5a/relu_pool_proj
I0403 21:50:50.507843 24441 net.cpp:425] inception_5a/relu_pool_proj <- inception_5a/pool_proj
I0403 21:50:50.507860 24441 net.cpp:386] inception_5a/relu_pool_proj -> inception_5a/pool_proj (in-place)
I0403 21:50:50.508153 24441 net.cpp:141] Setting up inception_5a/relu_pool_proj
I0403 21:50:50.508180 24441 net.cpp:148] Top shape: 24 128 7 7 (150528)
I0403 21:50:50.508204 24441 net.cpp:156] Memory required for data: 1305673248
I0403 21:50:50.508224 24441 layer_factory.hpp:77] Creating layer inception_5a/output
I0403 21:50:50.508244 24441 net.cpp:91] Creating Layer inception_5a/output
I0403 21:50:50.508261 24441 net.cpp:425] inception_5a/output <- inception_5a/1x1
I0403 21:50:50.508280 24441 net.cpp:425] inception_5a/output <- inception_5a/3x3
I0403 21:50:50.508297 24441 net.cpp:425] inception_5a/output <- inception_5a/5x5
I0403 21:50:50.508313 24441 net.cpp:425] inception_5a/output <- inception_5a/pool_proj
I0403 21:50:50.508330 24441 net.cpp:399] inception_5a/output -> inception_5a/output
I0403 21:50:50.508381 24441 net.cpp:141] Setting up inception_5a/output
I0403 21:50:50.508405 24441 net.cpp:148] Top shape: 24 832 7 7 (978432)
I0403 21:50:50.508420 24441 net.cpp:156] Memory required for data: 1309586976
I0403 21:50:50.508435 24441 layer_factory.hpp:77] Creating layer inception_5a/output_inception_5a/output_0_split
I0403 21:50:50.508452 24441 net.cpp:91] Creating Layer inception_5a/output_inception_5a/output_0_split
I0403 21:50:50.508467 24441 net.cpp:425] inception_5a/output_inception_5a/output_0_split <- inception_5a/output
I0403 21:50:50.508487 24441 net.cpp:399] inception_5a/output_inception_5a/output_0_split -> inception_5a/output_inception_5a/output_0_split_0
I0403 21:50:50.508508 24441 net.cpp:399] inception_5a/output_inception_5a/output_0_split -> inception_5a/output_inception_5a/output_0_split_1
I0403 21:50:50.508530 24441 net.cpp:399] inception_5a/output_inception_5a/output_0_split -> inception_5a/output_inception_5a/output_0_split_2
I0403 21:50:50.508551 24441 net.cpp:399] inception_5a/output_inception_5a/output_0_split -> inception_5a/output_inception_5a/output_0_split_3
I0403 21:50:50.508662 24441 net.cpp:141] Setting up inception_5a/output_inception_5a/output_0_split
I0403 21:50:50.508687 24441 net.cpp:148] Top shape: 24 832 7 7 (978432)
I0403 21:50:50.508702 24441 net.cpp:148] Top shape: 24 832 7 7 (978432)
I0403 21:50:50.508718 24441 net.cpp:148] Top shape: 24 832 7 7 (978432)
I0403 21:50:50.508734 24441 net.cpp:148] Top shape: 24 832 7 7 (978432)
I0403 21:50:50.508749 24441 net.cpp:156] Memory required for data: 1325241888
I0403 21:50:50.508764 24441 layer_factory.hpp:77] Creating layer inception_5b/1x1
I0403 21:50:50.508785 24441 net.cpp:91] Creating Layer inception_5b/1x1
I0403 21:50:50.508805 24441 net.cpp:425] inception_5b/1x1 <- inception_5a/output_inception_5a/output_0_split_0
I0403 21:50:50.508826 24441 net.cpp:399] inception_5b/1x1 -> inception_5b/1x1
I0403 21:50:50.512532 24441 net.cpp:141] Setting up inception_5b/1x1
I0403 21:50:50.512562 24441 net.cpp:148] Top shape: 24 384 7 7 (451584)
I0403 21:50:50.512578 24441 net.cpp:156] Memory required for data: 1327048224
I0403 21:50:50.512598 24441 layer_factory.hpp:77] Creating layer inception_5b/relu_1x1
I0403 21:50:50.512617 24441 net.cpp:91] Creating Layer inception_5b/relu_1x1
I0403 21:50:50.512634 24441 net.cpp:425] inception_5b/relu_1x1 <- inception_5b/1x1
I0403 21:50:50.512652 24441 net.cpp:386] inception_5b/relu_1x1 -> inception_5b/1x1 (in-place)
I0403 21:50:50.512953 24441 net.cpp:141] Setting up inception_5b/relu_1x1
I0403 21:50:50.512979 24441 net.cpp:148] Top shape: 24 384 7 7 (451584)
I0403 21:50:50.512995 24441 net.cpp:156] Memory required for data: 1328854560
I0403 21:50:50.513008 24441 layer_factory.hpp:77] Creating layer inception_5b/3x3_reduce
I0403 21:50:50.513031 24441 net.cpp:91] Creating Layer inception_5b/3x3_reduce
I0403 21:50:50.513049 24441 net.cpp:425] inception_5b/3x3_reduce <- inception_5a/output_inception_5a/output_0_split_1
I0403 21:50:50.513072 24441 net.cpp:399] inception_5b/3x3_reduce -> inception_5b/3x3_reduce
I0403 21:50:50.515702 24441 net.cpp:141] Setting up inception_5b/3x3_reduce
I0403 21:50:50.515733 24441 net.cpp:148] Top shape: 24 192 7 7 (225792)
I0403 21:50:50.515749 24441 net.cpp:156] Memory required for data: 1329757728
I0403 21:50:50.515768 24441 layer_factory.hpp:77] Creating layer inception_5b/relu_3x3_reduce
I0403 21:50:50.515787 24441 net.cpp:91] Creating Layer inception_5b/relu_3x3_reduce
I0403 21:50:50.515806 24441 net.cpp:425] inception_5b/relu_3x3_reduce <- inception_5b/3x3_reduce
I0403 21:50:50.515823 24441 net.cpp:386] inception_5b/relu_3x3_reduce -> inception_5b/3x3_reduce (in-place)
I0403 21:50:50.516010 24441 net.cpp:141] Setting up inception_5b/relu_3x3_reduce
I0403 21:50:50.516037 24441 net.cpp:148] Top shape: 24 192 7 7 (225792)
I0403 21:50:50.516052 24441 net.cpp:156] Memory required for data: 1330660896
I0403 21:50:50.516067 24441 layer_factory.hpp:77] Creating layer inception_5b/3x3
I0403 21:50:50.516089 24441 net.cpp:91] Creating Layer inception_5b/3x3
I0403 21:50:50.516108 24441 net.cpp:425] inception_5b/3x3 <- inception_5b/3x3_reduce
I0403 21:50:50.516127 24441 net.cpp:399] inception_5b/3x3 -> inception_5b/3x3
I0403 21:50:50.522711 24441 net.cpp:141] Setting up inception_5b/3x3
I0403 21:50:50.522740 24441 net.cpp:148] Top shape: 24 384 7 7 (451584)
I0403 21:50:50.522756 24441 net.cpp:156] Memory required for data: 1332467232
I0403 21:50:50.522775 24441 layer_factory.hpp:77] Creating layer inception_5b/relu_3x3
I0403 21:50:50.522797 24441 net.cpp:91] Creating Layer inception_5b/relu_3x3
I0403 21:50:50.522816 24441 net.cpp:425] inception_5b/relu_3x3 <- inception_5b/3x3
I0403 21:50:50.522833 24441 net.cpp:386] inception_5b/relu_3x3 -> inception_5b/3x3 (in-place)
I0403 21:50:50.523126 24441 net.cpp:141] Setting up inception_5b/relu_3x3
I0403 21:50:50.523152 24441 net.cpp:148] Top shape: 24 384 7 7 (451584)
I0403 21:50:50.523167 24441 net.cpp:156] Memory required for data: 1334273568
I0403 21:50:50.523182 24441 layer_factory.hpp:77] Creating layer inception_5b/5x5_reduce
I0403 21:50:50.523222 24441 net.cpp:91] Creating Layer inception_5b/5x5_reduce
I0403 21:50:50.523242 24441 net.cpp:425] inception_5b/5x5_reduce <- inception_5a/output_inception_5a/output_0_split_2
I0403 21:50:50.523267 24441 net.cpp:399] inception_5b/5x5_reduce -> inception_5b/5x5_reduce
I0403 21:50:50.524510 24441 net.cpp:141] Setting up inception_5b/5x5_reduce
I0403 21:50:50.524538 24441 net.cpp:148] Top shape: 24 48 7 7 (56448)
I0403 21:50:50.524555 24441 net.cpp:156] Memory required for data: 1334499360
I0403 21:50:50.524574 24441 layer_factory.hpp:77] Creating layer inception_5b/relu_5x5_reduce
I0403 21:50:50.524593 24441 net.cpp:91] Creating Layer inception_5b/relu_5x5_reduce
I0403 21:50:50.524610 24441 net.cpp:425] inception_5b/relu_5x5_reduce <- inception_5b/5x5_reduce
I0403 21:50:50.524628 24441 net.cpp:386] inception_5b/relu_5x5_reduce -> inception_5b/5x5_reduce (in-place)
I0403 21:50:50.524996 24441 net.cpp:141] Setting up inception_5b/relu_5x5_reduce
I0403 21:50:50.525022 24441 net.cpp:148] Top shape: 24 48 7 7 (56448)
I0403 21:50:50.525039 24441 net.cpp:156] Memory required for data: 1334725152
I0403 21:50:50.525054 24441 layer_factory.hpp:77] Creating layer inception_5b/5x5
I0403 21:50:50.525074 24441 net.cpp:91] Creating Layer inception_5b/5x5
I0403 21:50:50.525091 24441 net.cpp:425] inception_5b/5x5 <- inception_5b/5x5_reduce
I0403 21:50:50.525110 24441 net.cpp:399] inception_5b/5x5 -> inception_5b/5x5
I0403 21:50:50.527154 24441 net.cpp:141] Setting up inception_5b/5x5
I0403 21:50:50.527185 24441 net.cpp:148] Top shape: 24 128 7 7 (150528)
I0403 21:50:50.527206 24441 net.cpp:156] Memory required for data: 1335327264
I0403 21:50:50.527225 24441 layer_factory.hpp:77] Creating layer inception_5b/relu_5x5
I0403 21:50:50.527243 24441 net.cpp:91] Creating Layer inception_5b/relu_5x5
I0403 21:50:50.527261 24441 net.cpp:425] inception_5b/relu_5x5 <- inception_5b/5x5
I0403 21:50:50.527277 24441 net.cpp:386] inception_5b/relu_5x5 -> inception_5b/5x5 (in-place)
I0403 21:50:50.527472 24441 net.cpp:141] Setting up inception_5b/relu_5x5
I0403 21:50:50.527498 24441 net.cpp:148] Top shape: 24 128 7 7 (150528)
I0403 21:50:50.527513 24441 net.cpp:156] Memory required for data: 1335929376
I0403 21:50:50.527526 24441 layer_factory.hpp:77] Creating layer inception_5b/pool
I0403 21:50:50.527544 24441 net.cpp:91] Creating Layer inception_5b/pool
I0403 21:50:50.527560 24441 net.cpp:425] inception_5b/pool <- inception_5a/output_inception_5a/output_0_split_3
I0403 21:50:50.527581 24441 net.cpp:399] inception_5b/pool -> inception_5b/pool
I0403 21:50:50.527652 24441 net.cpp:141] Setting up inception_5b/pool
I0403 21:50:50.527679 24441 net.cpp:148] Top shape: 24 832 7 7 (978432)
I0403 21:50:50.527695 24441 net.cpp:156] Memory required for data: 1339843104
I0403 21:50:50.527709 24441 layer_factory.hpp:77] Creating layer inception_5b/pool_proj
I0403 21:50:50.527730 24441 net.cpp:91] Creating Layer inception_5b/pool_proj
I0403 21:50:50.527748 24441 net.cpp:425] inception_5b/pool_proj <- inception_5b/pool
I0403 21:50:50.527768 24441 net.cpp:399] inception_5b/pool_proj -> inception_5b/pool_proj
I0403 21:50:50.530041 24441 net.cpp:141] Setting up inception_5b/pool_proj
I0403 21:50:50.530071 24441 net.cpp:148] Top shape: 24 128 7 7 (150528)
I0403 21:50:50.530087 24441 net.cpp:156] Memory required for data: 1340445216
I0403 21:50:50.530107 24441 layer_factory.hpp:77] Creating layer inception_5b/relu_pool_proj
I0403 21:50:50.530128 24441 net.cpp:91] Creating Layer inception_5b/relu_pool_proj
I0403 21:50:50.530146 24441 net.cpp:425] inception_5b/relu_pool_proj <- inception_5b/pool_proj
I0403 21:50:50.530164 24441 net.cpp:386] inception_5b/relu_pool_proj -> inception_5b/pool_proj (in-place)
I0403 21:50:50.530462 24441 net.cpp:141] Setting up inception_5b/relu_pool_proj
I0403 21:50:50.530489 24441 net.cpp:148] Top shape: 24 128 7 7 (150528)
I0403 21:50:50.530504 24441 net.cpp:156] Memory required for data: 1341047328
I0403 21:50:50.530519 24441 layer_factory.hpp:77] Creating layer inception_5b/output
I0403 21:50:50.530540 24441 net.cpp:91] Creating Layer inception_5b/output
I0403 21:50:50.530570 24441 net.cpp:425] inception_5b/output <- inception_5b/1x1
I0403 21:50:50.530589 24441 net.cpp:425] inception_5b/output <- inception_5b/3x3
I0403 21:50:50.530606 24441 net.cpp:425] inception_5b/output <- inception_5b/5x5
I0403 21:50:50.530622 24441 net.cpp:425] inception_5b/output <- inception_5b/pool_proj
I0403 21:50:50.530639 24441 net.cpp:399] inception_5b/output -> inception_5b/output
I0403 21:50:50.530692 24441 net.cpp:141] Setting up inception_5b/output
I0403 21:50:50.530717 24441 net.cpp:148] Top shape: 24 1024 7 7 (1204224)
I0403 21:50:50.530731 24441 net.cpp:156] Memory required for data: 1345864224
I0403 21:50:50.530746 24441 layer_factory.hpp:77] Creating layer pool5/7x7_s1
I0403 21:50:50.530763 24441 net.cpp:91] Creating Layer pool5/7x7_s1
I0403 21:50:50.530779 24441 net.cpp:425] pool5/7x7_s1 <- inception_5b/output
I0403 21:50:50.530800 24441 net.cpp:399] pool5/7x7_s1 -> pool5/7x7_s1
I0403 21:50:50.531014 24441 net.cpp:141] Setting up pool5/7x7_s1
I0403 21:50:50.531043 24441 net.cpp:148] Top shape: 24 1024 1 1 (24576)
I0403 21:50:50.531059 24441 net.cpp:156] Memory required for data: 1345962528
I0403 21:50:50.531074 24441 layer_factory.hpp:77] Creating layer pool5/drop_7x7_s1
I0403 21:50:50.531091 24441 net.cpp:91] Creating Layer pool5/drop_7x7_s1
I0403 21:50:50.531107 24441 net.cpp:425] pool5/drop_7x7_s1 <- pool5/7x7_s1
I0403 21:50:50.531126 24441 net.cpp:386] pool5/drop_7x7_s1 -> pool5/7x7_s1 (in-place)
I0403 21:50:50.531177 24441 net.cpp:141] Setting up pool5/drop_7x7_s1
I0403 21:50:50.531203 24441 net.cpp:148] Top shape: 24 1024 1 1 (24576)
I0403 21:50:50.531219 24441 net.cpp:156] Memory required for data: 1346060832
I0403 21:50:50.531235 24441 layer_factory.hpp:77] Creating layer loss3/classifier_plantvillage
I0403 21:50:50.531256 24441 net.cpp:91] Creating Layer loss3/classifier_plantvillage
I0403 21:50:50.531275 24441 net.cpp:425] loss3/classifier_plantvillage <- pool5/7x7_s1
I0403 21:50:50.531293 24441 net.cpp:399] loss3/classifier_plantvillage -> loss3/classifier_plantvillage
I0403 21:50:50.531708 24441 net.cpp:141] Setting up loss3/classifier_plantvillage
I0403 21:50:50.531733 24441 net.cpp:148] Top shape: 24 38 (912)
I0403 21:50:50.531749 24441 net.cpp:156] Memory required for data: 1346064480
I0403 21:50:50.531767 24441 layer_factory.hpp:77] Creating layer loss3/classifier_plantvillage_loss3/classifier_plantvillage_0_split
I0403 21:50:50.531786 24441 net.cpp:91] Creating Layer loss3/classifier_plantvillage_loss3/classifier_plantvillage_0_split
I0403 21:50:50.531803 24441 net.cpp:425] loss3/classifier_plantvillage_loss3/classifier_plantvillage_0_split <- loss3/classifier_plantvillage
I0403 21:50:50.531823 24441 net.cpp:399] loss3/classifier_plantvillage_loss3/classifier_plantvillage_0_split -> loss3/classifier_plantvillage_loss3/classifier_plantvillage_0_split_0
I0403 21:50:50.531843 24441 net.cpp:399] loss3/classifier_plantvillage_loss3/classifier_plantvillage_0_split -> loss3/classifier_plantvillage_loss3/classifier_plantvillage_0_split_1
I0403 21:50:50.531865 24441 net.cpp:399] loss3/classifier_plantvillage_loss3/classifier_plantvillage_0_split -> loss3/classifier_plantvillage_loss3/classifier_plantvillage_0_split_2
I0403 21:50:50.531886 24441 net.cpp:399] loss3/classifier_plantvillage_loss3/classifier_plantvillage_0_split -> loss3/classifier_plantvillage_loss3/classifier_plantvillage_0_split_3
I0403 21:50:50.531985 24441 net.cpp:141] Setting up loss3/classifier_plantvillage_loss3/classifier_plantvillage_0_split
I0403 21:50:50.532008 24441 net.cpp:148] Top shape: 24 38 (912)
I0403 21:50:50.532024 24441 net.cpp:148] Top shape: 24 38 (912)
I0403 21:50:50.532039 24441 net.cpp:148] Top shape: 24 38 (912)
I0403 21:50:50.532055 24441 net.cpp:148] Top shape: 24 38 (912)
I0403 21:50:50.532068 24441 net.cpp:156] Memory required for data: 1346079072
I0403 21:50:50.532083 24441 layer_factory.hpp:77] Creating layer loss1/loss
I0403 21:50:50.532105 24441 net.cpp:91] Creating Layer loss1/loss
I0403 21:50:50.532122 24441 net.cpp:425] loss1/loss <- loss1/classifier_plantvillage_loss1/classifier_plantvillage_0_split_0
I0403 21:50:50.532155 24441 net.cpp:425] loss1/loss <- label_data_1_split_0
…
