…
I0403 21:45:07.919057 24105 net.cpp:313] The NetState phase (1) differed from the phase (0) specified by a rule in layer data
I0403 21:45:07.920179 24105 net.cpp:49] Initializing net from parameters: 
state {
  phase: TEST
}
layer {
  name: "data"
  type: "Data"
  top: "data"
  top: "label"
  include {
    phase: TEST
  }
  transform_param {
    mirror: false
    crop_size: 224
    mean_file: "/home/mohanty/data/final_dataset/lmdb/segmented-80-20/mean.binaryproto"
  }
  data_param {
    source: "/home/mohanty/data/final_dataset/lmdb/segmented-80-20/test_db"
    batch_size: 24
    backend: LMDB
  }
}
layer {
  name: "conv1/7x7_s2"
  type: "Convolution"
  bottom: "data"
  top: "conv1/7x7_s2"
  param {
    lr_mult: 1
    decay_mult: 1
  }
  param {
    lr_mult: 2
    decay_mult: 0
  }
  convolution_param {
    num_output: 64
    pad: 3
    kernel_size: 7
    stride: 2
    weight_filler {
      type: "xavier"
      std: 0.1
    }
    bias_filler {
      type: "constant"
      value: 0.2
    }
  }
}
layer {
  name: "conv1/relu_7x7"
  type: "ReLU"
  bottom: "conv1/7x7_s2"
  top: "conv1/7x7_s2"
}
layer {
  name: "pool1/3x3_s2"
  type: "Pooling"
  bottom: "conv1/7x7_s2"
  top: "pool1/3x3_s2"
  pooling_param {
    pool: MAX
    kernel_size: 3
    stride: 2
  }
}
layer {
  name: "pool1/norm1"
  type: "LRN"
  bottom: "pool1/3x3_s2"
  top: "pool1/norm1"
  lrn_param {
    local_size: 5
    alpha: 0.0001
    beta: 0.75
  }
}
layer {
  name: "conv2/3x3_reduce"
  type: "Convolution"
  bottom: "pool1/norm1"
  top: "conv2/3x3_reduce"
  param {
    lr_mult: 1
    decay_mult: 1
  }
  param {
    lr_mult: 2
    decay_mult: 0
  }
  convolution_param {
    num_output: 64
    kernel_size: 1
    weight_filler {
      type: "xavier"
      std: 0.1
    }
    bias_filler {
      type: "constant"
      value: 0.2
    }
  }
}
layer {
  name: "conv2/relu_3x3_reduce"
  type: "ReLU"
  bottom: "conv2/3x3_reduce"
  top: "conv2/3x3_reduce"
}
layer {
  name: "conv2/3x3"
  type: "Convolution"
  bottom: "conv2/3x3_reduce"
  top: "conv2/3x3"
  param {
    lr_mult: 1
    decay_mult: 1
  }
  param {
    lr_mult: 2
    decay_mult: 0
  }
  convolution_param {
    num_output: 192
    pad: 1
    kernel_size: 3
    weight_filler {
      type: "xavier"
      std: 0.03
    }
    bias_filler {
      type: "constant"
      value: 0.2
    }
  }
}
layer {
  name: "conv2/relu_3x3"
  type: "ReLU"
  bottom: "conv2/3x3"
  top: "conv2/3x3"
}
layer {
  name: "conv2/norm2"
  type: "LRN"
  bottom: "conv2/3x3"
  top: "conv2/norm2"
  lrn_param {
    local_size: 5
    alpha: 0.0001
    beta: 0.75
  }
}
layer {
  name: "pool2/3x3_s2"
  type: "Pooling"
  bottom: "conv2/norm2"
  top: "pool2/3x3_s2"
  pooling_param {
    pool: MAX
    kernel_size: 3
    stride: 2
  }
}
layer {
  name: "inception_3a/1x1"
  type: "Convolution"
  bottom: "pool2/3x3_s2"
  top: "inception_3a/1x1"
  param {
    lr_mult: 1
    decay_mult: 1
  }
  param {
    lr_mult: 2
    decay_mult: 0
  }
  convolution_param {
    num_output: 64
    kernel_size: 1
    weight_filler {
      type: "xavier"
      std: 0.03
    }
    bias_filler {
      type: "constant"
      value: 0.2
    }
  }
}
layer {
  name: "inception_3a/relu_1x1"
  type: "ReLU"
  bottom: "inception_3a/1x1"
  top: "inception_3a/1x1"
}
layer {
  name: "inception_3a/3x3_reduce"
  type: "Convolution"
  bottom: "pool2/3x3_s2"
  top: "inception_3a/3x3_reduce"
  param {
    lr_mult: 1
    decay_mult: 1
  }
  param {
    lr_mult: 2
    decay_mult: 0
  }
  convolution_param {
    num_output: 96
    kernel_size: 1
    weight_filler {
      type: "xavier"
      std: 0.09
    }
    bias_filler {
      type: "constant"
      value: 0.2
    }
  }
}
layer {
  name: "inception_3a/relu_3x3_reduce"
  type: "ReLU"
  bottom: "inception_3a/3x3_reduce"
  top: "inception_3a/3x3_reduce"
}
layer {
  name: "inception_3a/3x3"
  type: "Convolution"
  bottom: "inception_3a/3x3_reduce"
  top: "inception_3a/3x3"
  param {
    lr_mult: 1
    decay_mult: 1
  }
  param {
    lr_mult: 2
    decay_mult: 0
  }
  convolution_param {
    num_output: 128
    pad: 1
    kernel_size: 3
    weight_filler {
      type: "xavier"
      std: 0.03
    }
    bias_filler {
      type: "constant"
      value: 0.2
    }
  }
}
layer {
  name: "inception_3a/relu_3x3"
  type: "ReLU"
  bottom: "inception_3a/3x3"
  top: "inception_3a/3x3"
}
layer {
  name: "inception_3a/5x5_reduce"
  type: "Convolution"
  bottom: "pool2/3x3_s2"
  top: "inception_3a/5x5_reduce"
  param {
    lr_mult: 1
    decay_mult: 1
  }
  param {
    lr_mult: 2
    decay_mult: 0
  }
  convolution_param {
    num_output: 16
    kernel_size: 1
    weight_filler {
      type: "xavier"
      std: 0.2
    }
    bias_filler {
      type: "constant"
      value: 0.2
    }
  }
}
layer {
  name: "inception_3a/relu_5x5_reduce"
  type: "ReLU"
  bottom: "inception_3a/5x5_reduce"
  top: "inception_3a/5x5_reduce"
}
layer {
  name: "inception_3a/5x5"
  type: "Convolution"
  bottom: "inception_3a/5x5_reduce"
  top: "inception_3a/5x5"
  param {
    lr_mult: 1
    decay_mult: 1
  }
  param {
    lr_mult: 2
    decay_mult: 0
  }
  convolution_param {
    num_output: 32
    pad: 2
    kernel_size: 5
    weight_filler {
      type: "xavier"
      std: 0.03
    }
    bias_filler {
      type: "constant"
      value: 0.2
    }
  }
}
layer {
  name: "inception_3a/relu_5x5"
  type: "ReLU"
  bottom: "inception_3a/5x5"
  top: "inception_3a/5x5"
}
layer {
  name: "inception_3a/pool"
  type: "Pooling"
  bottom: "pool2/3x3_s2"
  top: "inception_3a/pool"
  pooling_param {
    pool: MAX
    kernel_size: 3
    stride: 1
    pad: 1
  }
}
layer {
  name: "inception_3a/pool_proj"
  type: "Convolution"
  bottom: "inception_3a/pool"
  top: "inception_3a/pool_proj"
  param {
    lr_mult: 1
    decay_mult: 1
  }
  param {
    lr_mult: 2
    decay_mult: 0
  }
  convolution_param {
    num_output: 32
    kernel_size: 1
    weight_filler {
      type: "xavier"
      std: 0.1
    }
    bias_filler {
      type: "constant"
      value: 0.2
    }
  }
}
layer {
  name: "inception_3a/relu_pool_proj"
  type: "ReLU"
  bottom: "inception_3a/pool_proj"
  top: "inception_3a/pool_proj"
}
layer {
  name: "inception_3a/output"
  type: "Concat"
  bottom: "inception_3a/1x1"
  bottom: "inception_3a/3x3"
  bottom: "inception_3a/5x5"
  bottom: "inception_3a/pool_proj"
  top: "inception_3a/output"
}
layer {
  name: "inception_3b/1x1"
  type: "Convolution"
  bottom: "inception_3a/output"
  top: "inception_3b/1x1"
  param {
    lr_mult: 1
    decay_mult: 1
  }
  param {
    lr_mult: 2
    decay_mult: 0
  }
  convolution_param {
    num_output: 128
    kernel_size: 1
    weight_filler {
      type: "xavier"
      std: 0.03
    }
    bias_filler {
      type: "constant"
      value: 0.2
    }
  }
}
layer {
  name: "inception_3b/relu_1x1"
  type: "ReLU"
  bottom: "inception_3b/1x1"
  top: "inception_3b/1x1"
}
layer {
  name: "inception_3b/3x3_reduce"
  type: "Convolution"
  bottom: "inception_3a/output"
  top: "inception_3b/3x3_reduce"
  param {
    lr_mult: 1
    decay_mult: 1
  }
  param {
    lr_mult: 2
    decay_mult: 0
  }
  convolution_param {
    num_output: 128
    kernel_size: 1
    weight_filler {
      type: "xavier"
      std: 0.09
    }
    bias_filler {
      type: "constant"
      value: 0.2
    }
  }
}
layer {
  name: "inception_3b/relu_3x3_reduce"
  type: "ReLU"
  bottom: "inception_3b/3x3_reduce"
  top: "inception_3b/3x3_reduce"
}
layer {
  name: "inception_3b/3x3"
  type: "Convolution"
  bottom: "inception_3b/3x3_reduce"
  top: "inception_3b/3x3"
  param {
    lr_mult: 1
    decay_mult: 1
  }
  param {
    lr_mult: 2
    decay_mult: 0
  }
  convolution_param {
    num_output: 192
    pad: 1
    kernel_size: 3
    weight_filler {
      type: "xavier"
      std: 0.03
    }
    bias_filler {
      type: "constant"
      value: 0.2
    }
  }
}
layer {
  name: "inception_3b/relu_3x3"
  type: "ReLU"
  bottom: "inception_3b/3x3"
  top: "inception_3b/3x3"
}
layer {
  name: "inception_3b/5x5_reduce"
  type: "Convolution"
  bottom: "inception_3a/output"
  top: "inception_3b/5x5_reduce"
  param {
    lr_mult: 1
    decay_mult: 1
  }
  param {
    lr_mult: 2
    decay_mult: 0
  }
  convolution_param {
    num_output: 32
    kernel_size: 1
    weight_filler {
      type: "xavier"
      std: 0.2
    }
    bias_filler {
      type: "constant"
      value: 0.2
    }
  }
}
layer {
  name: "inception_3b/relu_5x5_reduce"
  type: "ReLU"
  bottom: "inception_3b/5x5_reduce"
  top: "inception_3b/5x5_reduce"
}
layer {
  name: "inception_3b/5x5"
  type: "Convolution"
  bottom: "inception_3b/5x5_reduce"
  top: "inception_3b/5x5"
  param {
    lr_mult: 1
    decay_mult: 1
  }
  param {
    lr_mult: 2
    decay_mult: 0
  }
  convolution_param {
    num_output: 96
    pad: 2
    kernel_size: 5
    weight_filler {
      type: "xavier"
      std: 0.03
    }
    bias_filler {
      type: "constant"
      value: 0.2
    }
  }
}
layer {
  name: "inception_3b/relu_5x5"
  type: "ReLU"
  bottom: "inception_3b/5x5"
  top: "inception_3b/5x5"
}
layer {
  name: "inception_3b/pool"
  type: "Pooling"
  bottom: "inception_3a/output"
  top: "inception_3b/pool"
  pooling_param {
    pool: MAX
    kernel_size: 3
    stride: 1
    pad: 1
  }
}
layer {
  name: "inception_3b/pool_proj"
  type: "Convolution"
  bottom: "inception_3b/pool"
  top: "inception_3b/pool_proj"
  param {
    lr_mult: 1
    decay_mult: 1
  }
  param {
    lr_mult: 2
    decay_mult: 0
  }
  convolution_param {
    num_output: 64
    kernel_size: 1
    weight_filler {
      type: "xavier"
      std: 0.1
    }
    bias_filler {
      type: "constant"
      value: 0.2
    }
  }
}
layer {
  name: "inception_3b/relu_pool_proj"
  type: "ReLU"
  bottom: "inception_3b/pool_proj"
  top: "inception_3b/pool_proj"
}
layer {
  name: "inception_3b/output"
  type: "Concat"
  bottom: "inception_3b/1x1"
  bottom: "inception_3b/3x3"
  bottom: "inception_3b/5x5"
  bottom: "inception_3b/pool_proj"
  top: "inception_3b/output"
}
layer {
  name: "pool3/3x3_s2"
  type: "Pooling"
  bottom: "inception_3b/output"
  top: "pool3/3x3_s2"
  pooling_param {
    pool: MAX
    kernel_size: 3
    stride: 2
  }
}
layer {
  name: "inception_4a/1x1"
  type: "Convolution"
  bottom: "pool3/3x3_s2"
  top: "inception_4a/1x1"
  param {
    lr_mult: 1
    decay_mult: 1
  }
  param {
    lr_mult: 2
    decay_mult: 0
  }
  convolution_param {
    num_output: 192
    kernel_size: 1
    weight_filler {
      type: "xavier"
      std: 0.03
    }
    bias_filler {
      type: "constant"
      value: 0.2
    }
  }
}
layer {
  name: "inception_4a/relu_1x1"
  type: "ReLU"
  bottom: "inception_4a/1x1"
  top: "inception_4a/1x1"
}
layer {
  name: "inception_4a/3x3_reduce"
  type: "Convolution"
  bottom: "pool3/3x3_s2"
  top: "inception_4a/3x3_reduce"
  param {
    lr_mult: 1
    decay_mult: 1
  }
  param {
    lr_mult: 2
    decay_mult: 0
  }
  convolution_param {
    num_output: 96
    kernel_size: 1
    weight_filler {
      type: "xavier"
      std: 0.09
    }
    bias_filler {
      type: "constant"
      value: 0.2
    }
  }
}
layer {
  name: "inception_4a/relu_3x3_reduce"
  type: "ReLU"
  bottom: "inception_4a/3x3_reduce"
  top: "inception_4a/3x3_reduce"
}
layer {
  name: "inception_4a/3x3"
  type: "Convolution"
  bottom: "inception_4a/3x3_reduce"
  top: "inception_4a/3x3"
  param {
    lr_mult: 1
    decay_mult: 1
  }
  param {
    lr_mult: 2
    decay_mult: 0
  }
  convolution_param {
    num_output: 208
    pad: 1
    kernel_size: 3
    weight_filler {
      type: "xavier"
      std: 0.03
    }
    bias_filler {
      type: "constant"
      value: 0.2
    }
  }
}
layer {
  name: "inception_4a/relu_3x3"
  type: "ReLU"
  bottom: "inception_4a/3x3"
  top: "inception_4a/3x3"
}
layer {
  name: "inception_4a/5x5_reduce"
  type: "Convolution"
  bottom: "pool3/3x3_s2"
  top: "inception_4a/5x5_reduce"
  param {
    lr_mult: 1
    decay_mult: 1
  }
  param {
    lr_mult: 2
    decay_mult: 0
  }
  convolution_param {
    num_output: 16
    kernel_size: 1
    weight_filler {
      type: "xavier"
      std: 0.2
    }
    bias_filler {
      type: "constant"
      value: 0.2
    }
  }
}
layer {
  name: "inception_4a/relu_5x5_reduce"
  type: "ReLU"
  bottom: "inception_4a/5x5_reduce"
  top: "inception_4a/5x5_reduce"
}
layer {
  name: "inception_4a/5x5"
  type: "Convolution"
  bottom: "inception_4a/5x5_reduce"
  top: "inception_4a/5x5"
  param {
    lr_mult: 1
    decay_mult: 1
  }
  param {
    lr_mult: 2
    decay_mult: 0
  }
  convolution_param {
    num_output: 48
    pad: 2
    kernel_size: 5
    weight_filler {
      type: "xavier"
      std: 0.03
    }
    bias_filler {
      type: "constant"
      value: 0.2
    }
  }
}
layer {
  name: "inception_4a/relu_5x5"
  type: "ReLU"
  bottom: "inception_4a/5x5"
  top: "inception_4a/5x5"
}
layer {
  name: "inception_4a/pool"
  type: "Pooling"
  bottom: "pool3/3x3_s2"
  top: "inception_4a/pool"
  pooling_param {
    pool: MAX
    kernel_size: 3
    stride: 1
    pad: 1
  }
}
layer {
  name: "inception_4a/pool_proj"
  type: "Convolution"
  bottom: "inception_4a/pool"
  top: "inception_4a/pool_proj"
  param {
    lr_mult: 1
    decay_mult: 1
  }
  param {
    lr_mult: 2
    decay_mult: 0
  }
  convolution_param {
    num_output: 64
    kernel_size: 1
    weight_filler {
      type: "xavier"
      std: 0.1
    }
    bias_filler {
      type: "constant"
      value: 0.2
    }
  }
}
layer {
  name: "inception_4a/relu_pool_proj"
  type: "ReLU"
  bottom: "inception_4a/pool_proj"
  top: "inception_4a/pool_proj"
}
layer {
  name: "inception_4a/output"
  type: "Concat"
  bottom: "inception_4a/1x1"
  bottom: "inception_4a/3x3"
  bottom: "inception_4a/5x5"
  bottom: "inception_4a/pool_proj"
  top: "inception_4a/output"
}
layer {
  name: "loss1/ave_pool"
  type: "Pooling"
  bottom: "inception_4a/output"
  top: "loss1/ave_pool"
  pooling_param {
    pool: AVE
    kernel_size: 5
    stride: 3
  }
}
layer {
  name: "loss1/conv"
  type: "Convolution"
  bottom: "loss1/ave_pool"
  top: "loss1/conv"
  param {
    lr_mult: 1
    decay_mult: 1
  }
  param {
    lr_mult: 2
    decay_mult: 0
  }
  convolution_param {
    num_output: 128
    kernel_size: 1
    weight_filler {
      type: "xavier"
      std: 0.08
    }
    bias_filler {
      type: "constant"
      value: 0.2
    }
  }
}
layer {
  name: "loss1/relu_conv"
  type: "ReLU"
  bottom: "loss1/conv"
  top: "loss1/conv"
}
layer {
  name: "loss1/fc"
  type: "InnerProduct"
  bottom: "loss1/conv"
  top: "loss1/fc"
  param {
    lr_mult: 1
    decay_mult: 1
  }
  param {
    lr_mult: 2
    decay_mult: 0
  }
  inner_product_param {
    num_output: 1024
    weight_filler {
      type: "xavier"
      std: 0.02
    }
    bias_filler {
      type: "constant"
      value: 0.2
    }
  }
}
layer {
  name: "loss1/relu_fc"
  type: "ReLU"
  bottom: "loss1/fc"
  top: "loss1/fc"
}
layer {
  name: "loss1/drop_fc"
  type: "Dropout"
  bottom: "loss1/fc"
  top: "loss1/fc"
  dropout_param {
    dropout_ratio: 0.7
  }
}
layer {
  name: "loss1/classifier_plantvillage"
  type: "InnerProduct"
  bottom: "loss1/fc"
  top: "loss1/classifier_plantvillage"
  param {
    lr_mult: 1
    decay_mult: 1
  }
  param {
    lr_mult: 2
    decay_mult: 0
  }
  inner_product_param {
    num_output: 38
    weight_filler {
      type: "xavier"
      std: 0.0009765625
    }
    bias_filler {
      type: "constant"
      value: 0
    }
  }
}
layer {
  name: "inception_4b/1x1"
  type: "Convolution"
  bottom: "inception_4a/output"
  top: "inception_4b/1x1"
  param {
    lr_mult: 1
    decay_mult: 1
  }
  param {
    lr_mult: 2
    decay_mult: 0
  }
  convolution_param {
    num_output: 160
    kernel_size: 1
    weight_filler {
      type: "xavier"
      std: 0.03
    }
    bias_filler {
      type: "constant"
      value: 0.2
    }
  }
}
layer {
  name: "inception_4b/relu_1x1"
  type: "ReLU"
  bottom: "inception_4b/1x1"
  top: "inception_4b/1x1"
}
layer {
  name: "inception_4b/3x3_reduce"
  type: "Convolution"
  bottom: "inception_4a/output"
  top: "inception_4b/3x3_reduce"
  param {
    lr_mult: 1
    decay_mult: 1
  }
  param {
    lr_mult: 2
    decay_mult: 0
  }
  convolution_param {
    num_output: 112
    kernel_size: 1
    weight_filler {
      type: "xavier"
      std: 0.09
    }
    bias_filler {
      type: "constant"
      value: 0.2
    }
  }
}
layer {
  name: "inception_4b/relu_3x3_reduce"
  type: "ReLU"
  bottom: "inception_4b/3x3_reduce"
  top: "inception_4b/3x3_reduce"
}
layer {
  name: "inception_4b/3x3"
  type: "Convolution"
  bottom: "inception_4b/3x3_reduce"
  top: "inception_4b/3x3"
  param {
    lr_mult: 1
    decay_mult: 1
  }
  param {
    lr_mult: 2
    decay_mult: 0
  }
  convolution_param {
    num_output: 224
    pad: 1
    kernel_size: 3
    weight_filler {
      type: "xavier"
      std: 0.03
    }
    bias_filler {
      type: "constant"
      value: 0.2
    }
  }
}
layer {
  name: "inception_4b/relu_3x3"
  type: "ReLU"
  bottom: "inception_4b/3x3"
  top: "inception_4b/3x3"
}
layer {
  name: "inception_4b/5x5_reduce"
  type: "Convolution"
  bottom: "inception_4a/output"
  top: "inception_4b/5x5_reduce"
  param {
    lr_mult: 1
    decay_mult: 1
  }
  param {
    lr_mult: 2
    decay_mult: 0
  }
  convolution_param {
    num_output: 24
    kernel_size: 1
    weight_filler {
      type: "xavier"
      std: 0.2
    }
    bias_filler {
      type: "constant"
      value: 0.2
    }
  }
}
layer {
  name: "inception_4b/relu_5x5_reduce"
  type: "ReLU"
  bottom: "inception_4b/5x5_reduce"
  top: "inception_4b/5x5_reduce"
}
layer {
  name: "inception_4b/5x5"
  type: "Convolution"
  bottom: "inception_4b/5x5_reduce"
  top: "inception_4b/5x5"
  param {
    lr_mult: 1
    decay_mult: 1
  }
  param {
    lr_mult: 2
    decay_mult: 0
  }
  convolution_param {
    num_output: 64
    pad: 2
    kernel_size: 5
    weight_filler {
      type: "xavier"
      std: 0.03
    }
    bias_filler {
      type: "constant"
      value: 0.2
    }
  }
}
layer {
  name: "inception_4b/relu_5x5"
  type: "ReLU"
  bottom: "inception_4b/5x5"
  top: "inception_4b/5x5"
}
layer {
  name: "inception_4b/pool"
  type: "Pooling"
  bottom: "inception_4a/output"
  top: "inception_4b/pool"
  pooling_param {
    pool: MAX
    kernel_size: 3
    stride: 1
    pad: 1
  }
}
layer {
  name: "inception_4b/pool_proj"
  type: "Convolution"
  bottom: "inception_4b/pool"
  top: "inception_4b/pool_proj"
  param {
    lr_mult: 1
    decay_mult: 1
  }
  param {
    lr_mult: 2
    decay_mult: 0
  }
  convolution_param {
    num_output: 64
    kernel_size: 1
    weight_filler {
      type: "xavier"
      std: 0.1
    }
    bias_filler {
      type: "constant"
      value: 0.2
    }
  }
}
layer {
  name: "inception_4b/relu_pool_proj"
  type: "ReLU"
  bottom: "inception_4b/pool_proj"
  top: "inception_4b/pool_proj"
}
layer {
  name: "inception_4b/output"
  type: "Concat"
  bottom: "inception_4b/1x1"
  bottom: "inception_4b/3x3"
  bottom: "inception_4b/5x5"
  bottom: "inception_4b/pool_proj"
  top: "inception_4b/output"
}
layer {
  name: "inception_4c/1x1"
  type: "Convolution"
  bottom: "inception_4b/output"
  top: "inception_4c/1x1"
  param {
    lr_mult: 1
    decay_mult: 1
  }
  param {
    lr_mult: 2
    decay_mult: 0
  }
  convolution_param {
    num_output: 128
    kernel_size: 1
    weight_filler {
      type: "xavier"
      std: 0.03
    }
    bias_filler {
      type: "constant"
      value: 0.2
    }
  }
}
layer {
  name: "inception_4c/relu_1x1"
  type: "ReLU"
  bottom: "inception_4c/1x1"
  top: "inception_4c/1x1"
}
layer {
  name: "inception_4c/3x3_reduce"
  type: "Convolution"
  bottom: "inception_4b/output"
  top: "inception_4c/3x3_reduce"
  param {
    lr_mult: 1
    decay_mult: 1
  }
  param {
    lr_mult: 2
    decay_mult: 0
  }
  convolution_param {
    num_output: 128
    kernel_size: 1
    weight_filler {
      type: "xavier"
      std: 0.09
    }
    bias_filler {
      type: "constant"
      value: 0.2
    }
  }
}
layer {
  name: "inception_4c/relu_3x3_reduce"
  type: "ReLU"
  bottom: "inception_4c/3x3_reduce"
  top: "inception_4c/3x3_reduce"
}
layer {
  name: "inception_4c/3x3"
  type: "Convolution"
  bottom: "inception_4c/3x3_reduce"
  top: "inception_4c/3x3"
  param {
    lr_mult: 1
    decay_mult: 1
  }
  param {
    lr_mult: 2
    decay_mult: 0
  }
  convolution_param {
    num_output: 256
    pad: 1
    kernel_size: 3
    weight_filler {
      type: "xavier"
      std: 0.03
    }
    bias_filler {
      type: "constant"
      value: 0.2
    }
  }
}
layer {
  name: "inception_4c/relu_3x3"
  type: "ReLU"
  bottom: "inception_4c/3x3"
  top: "inception_4c/3x3"
}
layer {
  name: "inception_4c/5x5_reduce"
  type: "Convolution"
  bottom: "inception_4b/output"
  top: "inception_4c/5x5_reduce"
  param {
    lr_mult: 1
    decay_mult: 1
  }
  param {
    lr_mult: 2
    decay_mult: 0
  }
  convolution_param {
    num_output: 24
    kernel_size: 1
    weight_filler {
      type: "xavier"
      std: 0.2
    }
    bias_filler {
      type: "constant"
      value: 0.2
    }
  }
}
layer {
  name: "inception_4c/relu_5x5_reduce"
  type: "ReLU"
  bottom: "inception_4c/5x5_reduce"
  top: "inception_4c/5x5_reduce"
}
layer {
  name: "inception_4c/5x5"
  type: "Convolution"
  bottom: "inception_4c/5x5_reduce"
  top: "inception_4c/5x5"
  param {
    lr_mult: 1
    decay_mult: 1
  }
  param {
    lr_mult: 2
    decay_mult: 0
  }
  convolution_param {
    num_output: 64
    pad: 2
    kernel_size: 5
    weight_filler {
      type: "xavier"
      std: 0.03
    }
    bias_filler {
      type: "constant"
      value: 0.2
    }
  }
}
layer {
  name: "inception_4c/relu_5x5"
  type: "ReLU"
  bottom: "inception_4c/5x5"
  top: "inception_4c/5x5"
}
layer {
  name: "inception_4c/pool"
  type: "Pooling"
  bottom: "inception_4b/output"
  top: "inception_4c/pool"
  pooling_param {
    pool: MAX
    kernel_size: 3
    stride: 1
    pad: 1
  }
}
layer {
  name: "inception_4c/pool_proj"
  type: "Convolution"
  bottom: "inception_4c/pool"
  top: "inception_4c/pool_proj"
  param {
    lr_mult: 1
    decay_mult: 1
  }
  param {
    lr_mult: 2
    decay_mult: 0
  }
  convolution_param {
    num_output: 64
    kernel_size: 1
    weight_filler {
      type: "xavier"
      std: 0.1
    }
    bias_filler {
      type: "constant"
      value: 0.2
    }
  }
}
layer {
  name: "inception_4c/relu_pool_proj"
  type: "ReLU"
  bottom: "inception_4c/pool_proj"
  top: "inception_4c/pool_proj"
}
layer {
  name: "inception_4c/output"
  type: "Concat"
  bottom: "inception_4c/1x1"
  bottom: "inception_4c/3x3"
  bottom: "inception_4c/5x5"
  bottom: "inception_4c/pool_proj"
  top: "inception_4c/output"
}
layer {
  name: "inception_4d/1x1"
  type: "Convolution"
  bottom: "inception_4c/output"
  top: "inception_4d/1x1"
  param {
    lr_mult: 1
    decay_mult: 1
  }
  param {
    lr_mult: 2
    decay_mult: 0
  }
  convolution_param {
    num_output: 112
    kernel_size: 1
    weight_filler {
      type: "xavier"
      std: 0.03
    }
    bias_filler {
      type: "constant"
      value: 0.2
    }
  }
}
layer {
  name: "inception_4d/relu_1x1"
  type: "ReLU"
  bottom: "inception_4d/1x1"
  top: "inception_4d/1x1"
}
layer {
  name: "inception_4d/3x3_reduce"
  type: "Convolution"
  bottom: "inception_4c/output"
  top: "inception_4d/3x3_reduce"
  param {
    lr_mult: 1
    decay_mult: 1
  }
  param {
    lr_mult: 2
    decay_mult: 0
  }
  convolution_param {
    num_output: 144
    kernel_size: 1
    weight_filler {
      type: "xavier"
      std: 0.09
    }
    bias_filler {
      type: "constant"
      value: 0.2
    }
  }
}
layer {
  name: "inception_4d/relu_3x3_reduce"
  type: "ReLU"
  bottom: "inception_4d/3x3_reduce"
  top: "inception_4d/3x3_reduce"
}
layer {
  name: "inception_4d/3x3"
  type: "Convolution"
  bottom: "inception_4d/3x3_reduce"
  top: "inception_4d/3x3"
  param {
    lr_mult: 1
    decay_mult: 1
  }
  param {
    lr_mult: 2
    decay_mult: 0
  }
  convolution_param {
    num_output: 288
    pad: 1
    kernel_size: 3
    weight_filler {
      type: "xavier"
      std: 0.03
    }
    bias_filler {
      type: "constant"
      value: 0.2
    }
  }
}
layer {
  name: "inception_4d/relu_3x3"
  type: "ReLU"
  bottom: "inception_4d/3x3"
  top: "inception_4d/3x3"
}
layer {
  name: "inception_4d/5x5_reduce"
  type: "Convolution"
  bottom: "inception_4c/output"
  top: "inception_4d/5x5_reduce"
  param {
    lr_mult: 1
    decay_mult: 1
  }
  param {
    lr_mult: 2
    decay_mult: 0
  }
  convolution_param {
    num_output: 32
    kernel_size: 1
    weight_filler {
      type: "xavier"
      std: 0.2
    }
    bias_filler {
      type: "constant"
      value: 0.2
    }
  }
}
layer {
  name: "inception_4d/relu_5x5_reduce"
  type: "ReLU"
  bottom: "inception_4d/5x5_reduce"
  top: "inception_4d/5x5_reduce"
}
layer {
  name: "inception_4d/5x5"
  type: "Convolution"
  bottom: "inception_4d/5x5_reduce"
  top: "inception_4d/5x5"
  param {
    lr_mult: 1
    decay_mult: 1
  }
  param {
    lr_mult: 2
    decay_mult: 0
  }
  convolution_param {
    num_output: 64
    pad: 2
    kernel_size: 5
    weight_filler {
      type: "xavier"
      std: 0.03
    }
    bias_filler {
      type: "constant"
      value: 0.2
    }
  }
}
layer {
  name: "inception_4d/relu_5x5"
  type: "ReLU"
  bottom: "inception_4d/5x5"
  top: "inception_4d/5x5"
}
layer {
  name: "inception_4d/pool"
  type: "Pooling"
  bottom: "inception_4c/output"
  top: "inception_4d/pool"
  pooling_param {
    pool: MAX
    kernel_size: 3
    stride: 1
    pad: 1
  }
}
layer {
  name: "inception_4d/pool_proj"
  type: "Convolution"
  bottom: "inception_4d/pool"
  top: "inception_4d/pool_proj"
  param {
    lr_mult: 1
    decay_mult: 1
  }
  param {
    lr_mult: 2
    decay_mult: 0
  }
  convolution_param {
    num_output: 64
    kernel_size: 1
    weight_filler {
      type: "xavier"
      std: 0.1
    }
    bias_filler {
      type: "constant"
      value: 0.2
    }
  }
}
layer {
  name: "inception_4d/relu_pool_proj"
  type: "ReLU"
  bottom: "inception_4d/pool_proj"
  top: "inception_4d/pool_proj"
}
layer {
  name: "inception_4d/output"
  type: "Concat"
  bottom: "inception_4d/1x1"
  bottom: "inception_4d/3x3"
  bottom: "inception_4d/5x5"
  bottom: "inception_4d/pool_proj"
  top: "inception_4d/output"
}
layer {
  name: "loss2/ave_pool"
  type: "Pooling"
  bottom: "inception_4d/output"
  top: "loss2/ave_pool"
  pooling_param {
    pool: AVE
    kernel_size: 5
    stride: 3
  }
}
layer {
  name: "loss2/conv"
  type: "Convolution"
  bottom: "loss2/ave_pool"
  top: "loss2/conv"
  param {
    lr_mult: 1
    decay_mult: 1
  }
  param {
    lr_mult: 2
    decay_mult: 0
  }
  convolution_param {
    num_output: 128
    kernel_size: 1
    weight_filler {
      type: "xavier"
      std: 0.08
    }
    bias_filler {
      type: "constant"
      value: 0.2
    }
  }
}
layer {
  name: "loss2/relu_conv"
  type: "ReLU"
  bottom: "loss2/conv"
  top: "loss2/conv"
}
layer {
  name: "loss2/fc"
  type: "InnerProduct"
  bottom: "loss2/conv"
  top: "loss2/fc"
  param {
    lr_mult: 1
    decay_mult: 1
  }
  param {
    lr_mult: 2
    decay_mult: 0
  }
  inner_product_param {
    num_output: 1024
    weight_filler {
      type: "xavier"
      std: 0.02
    }
    bias_filler {
      type: "constant"
      value: 0.2
    }
  }
}
layer {
  name: "loss2/relu_fc"
  type: "ReLU"
  bottom: "loss2/fc"
  top: "loss2/fc"
}
layer {
  name: "loss2/drop_fc"
  type: "Dropout"
  bottom: "loss2/fc"
  top: "loss2/fc"
  dropout_param {
    dropout_ratio: 0.7
  }
}
layer {
  name: "loss2/classifier_plantvillage"
  type: "InnerProduct"
  bottom: "loss2/fc"
  top: "loss2/classifier_plantvillage"
  param {
    lr_mult: 1
    decay_mult: 1
  }
  param {
    lr_mult: 2
    decay_mult: 0
  }
  inner_product_param {
    num_output: 38
    weight_filler {
      type: "xavier"
      std: 0.0009765625
    }
    bias_filler {
      type: "constant"
      value: 0
    }
  }
}
layer {
  name: "inception_4e/1x1"
  type: "Convolution"
  bottom: "inception_4d/output"
  top: "inception_4e/1x1"
  param {
    lr_mult: 1
    decay_mult: 1
  }
  param {
    lr_mult: 2
    decay_mult: 0
  }
  convolution_param {
    num_output: 256
    kernel_size: 1
    weight_filler {
      type: "xavier"
      std: 0.03
    }
    bias_filler {
      type: "constant"
      value: 0.2
    }
  }
}
layer {
  name: "inception_4e/relu_1x1"
  type: "ReLU"
  bottom: "inception_4e/1x1"
  top: "inception_4e/1x1"
}
layer {
  name: "inception_4e/3x3_reduce"
  type: "Convolution"
  bottom: "inception_4d/output"
  top: "inception_4e/3x3_reduce"
  param {
    lr_mult: 1
    decay_mult: 1
  }
  param {
    lr_mult: 2
    decay_mult: 0
  }
  convolution_param {
    num_output: 160
    kernel_size: 1
    weight_filler {
      type: "xavier"
      std: 0.09
    }
    bias_filler {
      type: "constant"
      value: 0.2
    }
  }
}
layer {
  name: "inception_4e/relu_3x3_reduce"
  type: "ReLU"
  bottom: "inception_4e/3x3_reduce"
  top: "inception_4e/3x3_reduce"
}
layer {
  name: "inception_4e/3x3"
  type: "Convolution"
  bottom: "inception_4e/3x3_reduce"
  top: "inception_4e/3x3"
  param {
    lr_mult: 1
    decay_mult: 1
  }
  param {
    lr_mult: 2
    decay_mult: 0
  }
  convolution_param {
    num_output: 320
    pad: 1
    kernel_size: 3
    weight_filler {
      type: "xavier"
      std: 0.03
    }
    bias_filler {
      type: "constant"
      value: 0.2
    }
  }
}
layer {
  name: "inception_4e/relu_3x3"
  type: "ReLU"
  bottom: "inception_4e/3x3"
  top: "inception_4e/3x3"
}
layer {
  name: "inception_4e/5x5_reduce"
  type: "Convolution"
  bottom: "inception_4d/output"
  top: "inception_4e/5x5_reduce"
  param {
    lr_mult: 1
    decay_mult: 1
  }
  param {
    lr_mult: 2
    decay_mult: 0
  }
  convolution_param {
    num_output: 32
    kernel_size: 1
    weight_filler {
      type: "xavier"
      std: 0.2
    }
    bias_filler {
      type: "constant"
      value: 0.2
    }
  }
}
layer {
  name: "inception_4e/relu_5x5_reduce"
  type: "ReLU"
  bottom: "inception_4e/5x5_reduce"
  top: "inception_4e/5x5_reduce"
}
layer {
  name: "inception_4e/5x5"
  type: "Convolution"
  bottom: "inception_4e/5x5_reduce"
  top: "inception_4e/
I0403 21:45:07.921427 24105 layer_factory.hpp:77] Creating layer data
I0403 21:45:07.922021 24105 net.cpp:91] Creating Layer data
I0403 21:45:07.922052 24105 net.cpp:399] data -> data
I0403 21:45:07.922106 24105 net.cpp:399] data -> label
I0403 21:45:07.922143 24105 data_transformer.cpp:25] Loading mean file from: /home/mohanty/data/final_dataset/lmdb/segmented-80-20/mean.binaryproto
I0403 21:45:07.923281 24108 db_lmdb.cpp:38] Opened lmdb /home/mohanty/data/final_dataset/lmdb/segmented-80-20/test_db
I0403 21:45:07.934912 24105 data_layer.cpp:41] output data size: 24,3,224,224
I0403 21:45:07.961844 24105 net.cpp:141] Setting up data
I0403 21:45:07.961927 24105 net.cpp:148] Top shape: 24 3 224 224 (3612672)
I0403 21:45:07.961951 24105 net.cpp:148] Top shape: 24 (24)
I0403 21:45:07.961967 24105 net.cpp:156] Memory required for data: 14450784
I0403 21:45:07.961995 24105 layer_factory.hpp:77] Creating layer label_data_1_split
I0403 21:45:07.962023 24105 net.cpp:91] Creating Layer label_data_1_split
I0403 21:45:07.962041 24105 net.cpp:425] label_data_1_split <- label
I0403 21:45:07.962075 24105 net.cpp:399] label_data_1_split -> label_data_1_split_0
I0403 21:45:07.962103 24105 net.cpp:399] label_data_1_split -> label_data_1_split_1
I0403 21:45:07.962126 24105 net.cpp:399] label_data_1_split -> label_data_1_split_2
I0403 21:45:07.962146 24105 net.cpp:399] label_data_1_split -> label_data_1_split_3
I0403 21:45:07.962167 24105 net.cpp:399] label_data_1_split -> label_data_1_split_4
I0403 21:45:07.962188 24105 net.cpp:399] label_data_1_split -> label_data_1_split_5
I0403 21:45:07.962213 24105 net.cpp:399] label_data_1_split -> label_data_1_split_6
I0403 21:45:07.962235 24105 net.cpp:399] label_data_1_split -> label_data_1_split_7
I0403 21:45:07.962255 24105 net.cpp:399] label_data_1_split -> label_data_1_split_8
I0403 21:45:07.962276 24105 net.cpp:399] label_data_1_split -> label_data_1_split_9
I0403 21:45:07.962393 24105 net.cpp:141] Setting up label_data_1_split
I0403 21:45:07.962416 24105 net.cpp:148] Top shape: 24 (24)
I0403 21:45:07.962433 24105 net.cpp:148] Top shape: 24 (24)
I0403 21:45:07.962450 24105 net.cpp:148] Top shape: 24 (24)
I0403 21:45:07.962466 24105 net.cpp:148] Top shape: 24 (24)
I0403 21:45:07.962481 24105 net.cpp:148] Top shape: 24 (24)
I0403 21:45:07.962497 24105 net.cpp:148] Top shape: 24 (24)
I0403 21:45:07.962512 24105 net.cpp:148] Top shape: 24 (24)
I0403 21:45:07.962528 24105 net.cpp:148] Top shape: 24 (24)
I0403 21:45:07.962544 24105 net.cpp:148] Top shape: 24 (24)
I0403 21:45:07.962560 24105 net.cpp:148] Top shape: 24 (24)
I0403 21:45:07.962605 24105 net.cpp:156] Memory required for data: 14451744
I0403 21:45:07.962622 24105 layer_factory.hpp:77] Creating layer conv1/7x7_s2
I0403 21:45:07.962652 24105 net.cpp:91] Creating Layer conv1/7x7_s2
I0403 21:45:07.962671 24105 net.cpp:425] conv1/7x7_s2 <- data
I0403 21:45:07.962692 24105 net.cpp:399] conv1/7x7_s2 -> conv1/7x7_s2
I0403 21:45:08.104867 24105 net.cpp:141] Setting up conv1/7x7_s2
I0403 21:45:08.104948 24105 net.cpp:148] Top shape: 24 64 112 112 (19267584)
I0403 21:45:08.104967 24105 net.cpp:156] Memory required for data: 91522080
I0403 21:45:08.104998 24105 layer_factory.hpp:77] Creating layer conv1/relu_7x7
I0403 21:45:08.105026 24105 net.cpp:91] Creating Layer conv1/relu_7x7
I0403 21:45:08.105046 24105 net.cpp:425] conv1/relu_7x7 <- conv1/7x7_s2
I0403 21:45:08.105067 24105 net.cpp:386] conv1/relu_7x7 -> conv1/7x7_s2 (in-place)
I0403 21:45:08.105348 24105 net.cpp:141] Setting up conv1/relu_7x7
I0403 21:45:08.105376 24105 net.cpp:148] Top shape: 24 64 112 112 (19267584)
I0403 21:45:08.105394 24105 net.cpp:156] Memory required for data: 168592416
I0403 21:45:08.105412 24105 layer_factory.hpp:77] Creating layer pool1/3x3_s2
I0403 21:45:08.105437 24105 net.cpp:91] Creating Layer pool1/3x3_s2
I0403 21:45:08.105456 24105 net.cpp:425] pool1/3x3_s2 <- conv1/7x7_s2
I0403 21:45:08.105476 24105 net.cpp:399] pool1/3x3_s2 -> pool1/3x3_s2
I0403 21:45:08.105551 24105 net.cpp:141] Setting up pool1/3x3_s2
I0403 21:45:08.105589 24105 net.cpp:148] Top shape: 24 64 56 56 (4816896)
I0403 21:45:08.105604 24105 net.cpp:156] Memory required for data: 187860000
I0403 21:45:08.105619 24105 layer_factory.hpp:77] Creating layer pool1/norm1
I0403 21:45:08.105644 24105 net.cpp:91] Creating Layer pool1/norm1
I0403 21:45:08.105664 24105 net.cpp:425] pool1/norm1 <- pool1/3x3_s2
I0403 21:45:08.105682 24105 net.cpp:399] pool1/norm1 -> pool1/norm1
I0403 21:45:08.105960 24105 net.cpp:141] Setting up pool1/norm1
I0403 21:45:08.105988 24105 net.cpp:148] Top shape: 24 64 56 56 (4816896)
I0403 21:45:08.106004 24105 net.cpp:156] Memory required for data: 207127584
I0403 21:45:08.106020 24105 layer_factory.hpp:77] Creating layer conv2/3x3_reduce
I0403 21:45:08.106046 24105 net.cpp:91] Creating Layer conv2/3x3_reduce
I0403 21:45:08.106065 24105 net.cpp:425] conv2/3x3_reduce <- pool1/norm1
I0403 21:45:08.106082 24105 net.cpp:399] conv2/3x3_reduce -> conv2/3x3_reduce
I0403 21:45:08.107468 24105 net.cpp:141] Setting up conv2/3x3_reduce
I0403 21:45:08.107499 24105 net.cpp:148] Top shape: 24 64 56 56 (4816896)
I0403 21:45:08.107516 24105 net.cpp:156] Memory required for data: 226395168
I0403 21:45:08.107538 24105 layer_factory.hpp:77] Creating layer conv2/relu_3x3_reduce
I0403 21:45:08.107559 24105 net.cpp:91] Creating Layer conv2/relu_3x3_reduce
I0403 21:45:08.107578 24105 net.cpp:425] conv2/relu_3x3_reduce <- conv2/3x3_reduce
I0403 21:45:08.107596 24105 net.cpp:386] conv2/relu_3x3_reduce -> conv2/3x3_reduce (in-place)
I0403 21:45:08.107862 24105 net.cpp:141] Setting up conv2/relu_3x3_reduce
I0403 21:45:08.107888 24105 net.cpp:148] Top shape: 24 64 56 56 (4816896)
I0403 21:45:08.107904 24105 net.cpp:156] Memory required for data: 245662752
I0403 21:45:08.107920 24105 layer_factory.hpp:77] Creating layer conv2/3x3
I0403 21:45:08.107944 24105 net.cpp:91] Creating Layer conv2/3x3
I0403 21:45:08.107962 24105 net.cpp:425] conv2/3x3 <- conv2/3x3_reduce
I0403 21:45:08.107985 24105 net.cpp:399] conv2/3x3 -> conv2/3x3
I0403 21:45:08.110311 24105 net.cpp:141] Setting up conv2/3x3
I0403 21:45:08.110342 24105 net.cpp:148] Top shape: 24 192 56 56 (14450688)
I0403 21:45:08.110359 24105 net.cpp:156] Memory required for data: 303465504
I0403 21:45:08.110383 24105 layer_factory.hpp:77] Creating layer conv2/relu_3x3
I0403 21:45:08.110404 24105 net.cpp:91] Creating Layer conv2/relu_3x3
I0403 21:45:08.110420 24105 net.cpp:425] conv2/relu_3x3 <- conv2/3x3
I0403 21:45:08.110440 24105 net.cpp:386] conv2/relu_3x3 -> conv2/3x3 (in-place)
I0403 21:45:08.110615 24105 net.cpp:141] Setting up conv2/relu_3x3
I0403 21:45:08.110642 24105 net.cpp:148] Top shape: 24 192 56 56 (14450688)
I0403 21:45:08.110688 24105 net.cpp:156] Memory required for data: 361268256
I0403 21:45:08.110705 24105 layer_factory.hpp:77] Creating layer conv2/norm2
I0403 21:45:08.110723 24105 net.cpp:91] Creating Layer conv2/norm2
I0403 21:45:08.110741 24105 net.cpp:425] conv2/norm2 <- conv2/3x3
I0403 21:45:08.110764 24105 net.cpp:399] conv2/norm2 -> conv2/norm2
I0403 21:45:08.111066 24105 net.cpp:141] Setting up conv2/norm2
I0403 21:45:08.111094 24105 net.cpp:148] Top shape: 24 192 56 56 (14450688)
I0403 21:45:08.111110 24105 net.cpp:156] Memory required for data: 419071008
I0403 21:45:08.111126 24105 layer_factory.hpp:77] Creating layer pool2/3x3_s2
I0403 21:45:08.111145 24105 net.cpp:91] Creating Layer pool2/3x3_s2
I0403 21:45:08.111162 24105 net.cpp:425] pool2/3x3_s2 <- conv2/norm2
I0403 21:45:08.111182 24105 net.cpp:399] pool2/3x3_s2 -> pool2/3x3_s2
I0403 21:45:08.111243 24105 net.cpp:141] Setting up pool2/3x3_s2
I0403 21:45:08.111269 24105 net.cpp:148] Top shape: 24 192 28 28 (3612672)
I0403 21:45:08.111285 24105 net.cpp:156] Memory required for data: 433521696
I0403 21:45:08.111301 24105 layer_factory.hpp:77] Creating layer pool2/3x3_s2_pool2/3x3_s2_0_split
I0403 21:45:08.111320 24105 net.cpp:91] Creating Layer pool2/3x3_s2_pool2/3x3_s2_0_split
I0403 21:45:08.111335 24105 net.cpp:425] pool2/3x3_s2_pool2/3x3_s2_0_split <- pool2/3x3_s2
I0403 21:45:08.111353 24105 net.cpp:399] pool2/3x3_s2_pool2/3x3_s2_0_split -> pool2/3x3_s2_pool2/3x3_s2_0_split_0
I0403 21:45:08.111376 24105 net.cpp:399] pool2/3x3_s2_pool2/3x3_s2_0_split -> pool2/3x3_s2_pool2/3x3_s2_0_split_1
I0403 21:45:08.111397 24105 net.cpp:399] pool2/3x3_s2_pool2/3x3_s2_0_split -> pool2/3x3_s2_pool2/3x3_s2_0_split_2
I0403 21:45:08.111418 24105 net.cpp:399] pool2/3x3_s2_pool2/3x3_s2_0_split -> pool2/3x3_s2_pool2/3x3_s2_0_split_3
I0403 21:45:08.111491 24105 net.cpp:141] Setting up pool2/3x3_s2_pool2/3x3_s2_0_split
I0403 21:45:08.111517 24105 net.cpp:148] Top shape: 24 192 28 28 (3612672)
I0403 21:45:08.111536 24105 net.cpp:148] Top shape: 24 192 28 28 (3612672)
I0403 21:45:08.111552 24105 net.cpp:148] Top shape: 24 192 28 28 (3612672)
I0403 21:45:08.111568 24105 net.cpp:148] Top shape: 24 192 28 28 (3612672)
I0403 21:45:08.111582 24105 net.cpp:156] Memory required for data: 491324448
I0403 21:45:08.111598 24105 layer_factory.hpp:77] Creating layer inception_3a/1x1
I0403 21:45:08.111624 24105 net.cpp:91] Creating Layer inception_3a/1x1
I0403 21:45:08.111641 24105 net.cpp:425] inception_3a/1x1 <- pool2/3x3_s2_pool2/3x3_s2_0_split_0
I0403 21:45:08.111660 24105 net.cpp:399] inception_3a/1x1 -> inception_3a/1x1
I0403 21:45:08.113219 24105 net.cpp:141] Setting up inception_3a/1x1
I0403 21:45:08.113252 24105 net.cpp:148] Top shape: 24 64 28 28 (1204224)
I0403 21:45:08.113270 24105 net.cpp:156] Memory required for data: 496141344
I0403 21:45:08.113288 24105 layer_factory.hpp:77] Creating layer inception_3a/relu_1x1
I0403 21:45:08.113309 24105 net.cpp:91] Creating Layer inception_3a/relu_1x1
I0403 21:45:08.113327 24105 net.cpp:425] inception_3a/relu_1x1 <- inception_3a/1x1
I0403 21:45:08.113344 24105 net.cpp:386] inception_3a/relu_1x1 -> inception_3a/1x1 (in-place)
I0403 21:45:08.113517 24105 net.cpp:141] Setting up inception_3a/relu_1x1
I0403 21:45:08.113545 24105 net.cpp:148] Top shape: 24 64 28 28 (1204224)
I0403 21:45:08.113561 24105 net.cpp:156] Memory required for data: 500958240
I0403 21:45:08.113577 24105 layer_factory.hpp:77] Creating layer inception_3a/3x3_reduce
I0403 21:45:08.113597 24105 net.cpp:91] Creating Layer inception_3a/3x3_reduce
I0403 21:45:08.113615 24105 net.cpp:425] inception_3a/3x3_reduce <- pool2/3x3_s2_pool2/3x3_s2_0_split_1
I0403 21:45:08.113636 24105 net.cpp:399] inception_3a/3x3_reduce -> inception_3a/3x3_reduce
I0403 21:45:08.115347 24105 net.cpp:141] Setting up inception_3a/3x3_reduce
I0403 21:45:08.115377 24105 net.cpp:148] Top shape: 24 96 28 28 (1806336)
I0403 21:45:08.115394 24105 net.cpp:156] Memory required for data: 508183584
I0403 21:45:08.115422 24105 layer_factory.hpp:77] Creating layer inception_3a/relu_3x3_reduce
I0403 21:45:08.115458 24105 net.cpp:91] Creating Layer inception_3a/relu_3x3_reduce
I0403 21:45:08.115476 24105 net.cpp:425] inception_3a/relu_3x3_reduce <- inception_3a/3x3_reduce
I0403 21:45:08.115494 24105 net.cpp:386] inception_3a/relu_3x3_reduce -> inception_3a/3x3_reduce (in-place)
I0403 21:45:08.115675 24105 net.cpp:141] Setting up inception_3a/relu_3x3_reduce
I0403 21:45:08.115701 24105 net.cpp:148] Top shape: 24 96 28 28 (1806336)
I0403 21:45:08.115717 24105 net.cpp:156] Memory required for data: 515408928
I0403 21:45:08.115733 24105 layer_factory.hpp:77] Creating layer inception_3a/3x3
I0403 21:45:08.115757 24105 net.cpp:91] Creating Layer inception_3a/3x3
I0403 21:45:08.115774 24105 net.cpp:425] inception_3a/3x3 <- inception_3a/3x3_reduce
I0403 21:45:08.115797 24105 net.cpp:399] inception_3a/3x3 -> inception_3a/3x3
I0403 21:45:08.117496 24105 net.cpp:141] Setting up inception_3a/3x3
I0403 21:45:08.117524 24105 net.cpp:148] Top shape: 24 128 28 28 (2408448)
I0403 21:45:08.117542 24105 net.cpp:156] Memory required for data: 525042720
I0403 21:45:08.117561 24105 layer_factory.hpp:77] Creating layer inception_3a/relu_3x3
I0403 21:45:08.117583 24105 net.cpp:91] Creating Layer inception_3a/relu_3x3
I0403 21:45:08.117600 24105 net.cpp:425] inception_3a/relu_3x3 <- inception_3a/3x3
I0403 21:45:08.117619 24105 net.cpp:386] inception_3a/relu_3x3 -> inception_3a/3x3 (in-place)
I0403 21:45:08.117892 24105 net.cpp:141] Setting up inception_3a/relu_3x3
I0403 21:45:08.117918 24105 net.cpp:148] Top shape: 24 128 28 28 (2408448)
I0403 21:45:08.117935 24105 net.cpp:156] Memory required for data: 534676512
I0403 21:45:08.117952 24105 layer_factory.hpp:77] Creating layer inception_3a/5x5_reduce
I0403 21:45:08.117974 24105 net.cpp:91] Creating Layer inception_3a/5x5_reduce
I0403 21:45:08.117993 24105 net.cpp:425] inception_3a/5x5_reduce <- pool2/3x3_s2_pool2/3x3_s2_0_split_2
I0403 21:45:08.118016 24105 net.cpp:399] inception_3a/5x5_reduce -> inception_3a/5x5_reduce
I0403 21:45:08.118984 24105 net.cpp:141] Setting up inception_3a/5x5_reduce
I0403 21:45:08.119014 24105 net.cpp:148] Top shape: 24 16 28 28 (301056)
I0403 21:45:08.119031 24105 net.cpp:156] Memory required for data: 535880736
I0403 21:45:08.119050 24105 layer_factory.hpp:77] Creating layer inception_3a/relu_5x5_reduce
I0403 21:45:08.119071 24105 net.cpp:91] Creating Layer inception_3a/relu_5x5_reduce
I0403 21:45:08.119088 24105 net.cpp:425] inception_3a/relu_5x5_reduce <- inception_3a/5x5_reduce
I0403 21:45:08.119107 24105 net.cpp:386] inception_3a/relu_5x5_reduce -> inception_3a/5x5_reduce (in-place)
I0403 21:45:08.119405 24105 net.cpp:141] Setting up inception_3a/relu_5x5_reduce
I0403 21:45:08.119433 24105 net.cpp:148] Top shape: 24 16 28 28 (301056)
I0403 21:45:08.119451 24105 net.cpp:156] Memory required for data: 537084960
I0403 21:45:08.119467 24105 layer_factory.hpp:77] Creating layer inception_3a/5x5
I0403 21:45:08.119490 24105 net.cpp:91] Creating Layer inception_3a/5x5
I0403 21:45:08.119508 24105 net.cpp:425] inception_3a/5x5 <- inception_3a/5x5_reduce
I0403 21:45:08.119529 24105 net.cpp:399] inception_3a/5x5 -> inception_3a/5x5
I0403 21:45:08.120537 24105 net.cpp:141] Setting up inception_3a/5x5
I0403 21:45:08.120565 24105 net.cpp:148] Top shape: 24 32 28 28 (602112)
I0403 21:45:08.120581 24105 net.cpp:156] Memory required for data: 539493408
I0403 21:45:08.120600 24105 layer_factory.hpp:77] Creating layer inception_3a/relu_5x5
I0403 21:45:08.120622 24105 net.cpp:91] Creating Layer inception_3a/relu_5x5
I0403 21:45:08.120640 24105 net.cpp:425] inception_3a/relu_5x5 <- inception_3a/5x5
I0403 21:45:08.120657 24105 net.cpp:386] inception_3a/relu_5x5 -> inception_3a/5x5 (in-place)
I0403 21:45:08.120828 24105 net.cpp:141] Setting up inception_3a/relu_5x5
I0403 21:45:08.120856 24105 net.cpp:148] Top shape: 24 32 28 28 (602112)
I0403 21:45:08.120872 24105 net.cpp:156] Memory required for data: 541901856
I0403 21:45:08.120888 24105 layer_factory.hpp:77] Creating layer inception_3a/pool
I0403 21:45:08.120906 24105 net.cpp:91] Creating Layer inception_3a/pool
I0403 21:45:08.120937 24105 net.cpp:425] inception_3a/pool <- pool2/3x3_s2_pool2/3x3_s2_0_split_3
I0403 21:45:08.120959 24105 net.cpp:399] inception_3a/pool -> inception_3a/pool
I0403 21:45:08.121016 24105 net.cpp:141] Setting up inception_3a/pool
I0403 21:45:08.121040 24105 net.cpp:148] Top shape: 24 192 28 28 (3612672)
I0403 21:45:08.121055 24105 net.cpp:156] Memory required for data: 556352544
I0403 21:45:08.121071 24105 layer_factory.hpp:77] Creating layer inception_3a/pool_proj
I0403 21:45:08.121093 24105 net.cpp:91] Creating Layer inception_3a/pool_proj
I0403 21:45:08.121110 24105 net.cpp:425] inception_3a/pool_proj <- inception_3a/pool
I0403 21:45:08.121132 24105 net.cpp:399] inception_3a/pool_proj -> inception_3a/pool_proj
I0403 21:45:08.122089 24105 net.cpp:141] Setting up inception_3a/pool_proj
I0403 21:45:08.122118 24105 net.cpp:148] Top shape: 24 32 28 28 (602112)
I0403 21:45:08.122135 24105 net.cpp:156] Memory required for data: 558760992
I0403 21:45:08.122158 24105 layer_factory.hpp:77] Creating layer inception_3a/relu_pool_proj
I0403 21:45:08.122179 24105 net.cpp:91] Creating Layer inception_3a/relu_pool_proj
I0403 21:45:08.122201 24105 net.cpp:425] inception_3a/relu_pool_proj <- inception_3a/pool_proj
I0403 21:45:08.122220 24105 net.cpp:386] inception_3a/relu_pool_proj -> inception_3a/pool_proj (in-place)
I0403 21:45:08.122494 24105 net.cpp:141] Setting up inception_3a/relu_pool_proj
I0403 21:45:08.122521 24105 net.cpp:148] Top shape: 24 32 28 28 (602112)
I0403 21:45:08.122537 24105 net.cpp:156] Memory required for data: 561169440
I0403 21:45:08.122552 24105 layer_factory.hpp:77] Creating layer inception_3a/output
I0403 21:45:08.122575 24105 net.cpp:91] Creating Layer inception_3a/output
I0403 21:45:08.122591 24105 net.cpp:425] inception_3a/output <- inception_3a/1x1
I0403 21:45:08.122608 24105 net.cpp:425] inception_3a/output <- inception_3a/3x3
I0403 21:45:08.122624 24105 net.cpp:425] inception_3a/output <- inception_3a/5x5
I0403 21:45:08.122642 24105 net.cpp:425] inception_3a/output <- inception_3a/pool_proj
I0403 21:45:08.122658 24105 net.cpp:399] inception_3a/output -> inception_3a/output
I0403 21:45:08.122705 24105 net.cpp:141] Setting up inception_3a/output
I0403 21:45:08.122730 24105 net.cpp:148] Top shape: 24 256 28 28 (4816896)
I0403 21:45:08.122745 24105 net.cpp:156] Memory required for data: 580437024
I0403 21:45:08.122761 24105 layer_factory.hpp:77] Creating layer inception_3a/output_inception_3a/output_0_split
I0403 21:45:08.122777 24105 net.cpp:91] Creating Layer inception_3a/output_inception_3a/output_0_split
I0403 21:45:08.122793 24105 net.cpp:425] inception_3a/output_inception_3a/output_0_split <- inception_3a/output
I0403 21:45:08.122814 24105 net.cpp:399] inception_3a/output_inception_3a/output_0_split -> inception_3a/output_inception_3a/output_0_split_0
I0403 21:45:08.122835 24105 net.cpp:399] inception_3a/output_inception_3a/output_0_split -> inception_3a/output_inception_3a/output_0_split_1
I0403 21:45:08.122861 24105 net.cpp:399] inception_3a/output_inception_3a/output_0_split -> inception_3a/output_inception_3a/output_0_split_2
I0403 21:45:08.122884 24105 net.cpp:399] inception_3a/output_inception_3a/output_0_split -> inception_3a/output_inception_3a/output_0_split_3
I0403 21:45:08.122958 24105 net.cpp:141] Setting up inception_3a/output_inception_3a/output_0_split
I0403 21:45:08.122983 24105 net.cpp:148] Top shape: 24 256 28 28 (4816896)
I0403 21:45:08.123000 24105 net.cpp:148] Top shape: 24 256 28 28 (4816896)
I0403 21:45:08.123018 24105 net.cpp:148] Top shape: 24 256 28 28 (4816896)
I0403 21:45:08.123034 24105 net.cpp:148] Top shape: 24 256 28 28 (4816896)
I0403 21:45:08.123047 24105 net.cpp:156] Memory required for data: 657507360
I0403 21:45:08.123064 24105 layer_factory.hpp:77] Creating layer inception_3b/1x1
I0403 21:45:08.123086 24105 net.cpp:91] Creating Layer inception_3b/1x1
I0403 21:45:08.123103 24105 net.cpp:425] inception_3b/1x1 <- inception_3a/output_inception_3a/output_0_split_0
I0403 21:45:08.123126 24105 net.cpp:399] inception_3b/1x1 -> inception_3b/1x1
I0403 21:45:08.124263 24105 net.cpp:141] Setting up inception_3b/1x1
I0403 21:45:08.124303 24105 net.cpp:148] Top shape: 24 128 28 28 (2408448)
I0403 21:45:08.124321 24105 net.cpp:156] Memory required for data: 667141152
I0403 21:45:08.124341 24105 layer_factory.hpp:77] Creating layer inception_3b/relu_1x1
I0403 21:45:08.124364 24105 net.cpp:91] Creating Layer inception_3b/relu_1x1
I0403 21:45:08.124383 24105 net.cpp:425] inception_3b/relu_1x1 <- inception_3b/1x1
I0403 21:45:08.124400 24105 net.cpp:386] inception_3b/relu_1x1 -> inception_3b/1x1 (in-place)
I0403 21:45:08.124572 24105 net.cpp:141] Setting up inception_3b/relu_1x1
I0403 21:45:08.124598 24105 net.cpp:148] Top shape: 24 128 28 28 (2408448)
I0403 21:45:08.124614 24105 net.cpp:156] Memory required for data: 676774944
I0403 21:45:08.124629 24105 layer_factory.hpp:77] Creating layer inception_3b/3x3_reduce
I0403 21:45:08.124651 24105 net.cpp:91] Creating Layer inception_3b/3x3_reduce
I0403 21:45:08.124671 24105 net.cpp:425] inception_3b/3x3_reduce <- inception_3a/output_inception_3a/output_0_split_1
I0403 21:45:08.124691 24105 net.cpp:399] inception_3b/3x3_reduce -> inception_3b/3x3_reduce
I0403 21:45:08.125856 24105 net.cpp:141] Setting up inception_3b/3x3_reduce
I0403 21:45:08.125885 24105 net.cpp:148] Top shape: 24 128 28 28 (2408448)
I0403 21:45:08.125902 24105 net.cpp:156] Memory required for data: 686408736
I0403 21:45:08.125921 24105 layer_factory.hpp:77] Creating layer inception_3b/relu_3x3_reduce
I0403 21:45:08.125941 24105 net.cpp:91] Creating Layer inception_3b/relu_3x3_reduce
I0403 21:45:08.125958 24105 net.cpp:425] inception_3b/relu_3x3_reduce <- inception_3b/3x3_reduce
I0403 21:45:08.125978 24105 net.cpp:386] inception_3b/relu_3x3_reduce -> inception_3b/3x3_reduce (in-place)
I0403 21:45:08.126152 24105 net.cpp:141] Setting up inception_3b/relu_3x3_reduce
I0403 21:45:08.126178 24105 net.cpp:148] Top shape: 24 128 28 28 (2408448)
I0403 21:45:08.126209 24105 net.cpp:156] Memory required for data: 696042528
I0403 21:45:08.126225 24105 layer_factory.hpp:77] Creating layer inception_3b/3x3
I0403 21:45:08.126251 24105 net.cpp:91] Creating Layer inception_3b/3x3
I0403 21:45:08.126271 24105 net.cpp:425] inception_3b/3x3 <- inception_3b/3x3_reduce
I0403 21:45:08.126291 24105 net.cpp:399] inception_3b/3x3 -> inception_3b/3x3
I0403 21:45:08.129114 24105 net.cpp:141] Setting up inception_3b/3x3
I0403 21:45:08.129143 24105 net.cpp:148] Top shape: 24 192 28 28 (3612672)
I0403 21:45:08.129160 24105 net.cpp:156] Memory required for data: 710493216
I0403 21:45:08.129179 24105 layer_factory.hpp:77] Creating layer inception_3b/relu_3x3
I0403 21:45:08.129204 24105 net.cpp:91] Creating Layer inception_3b/relu_3x3
I0403 21:45:08.129222 24105 net.cpp:425] inception_3b/relu_3x3 <- inception_3b/3x3
I0403 21:45:08.129240 24105 net.cpp:386] inception_3b/relu_3x3 -> inception_3b/3x3 (in-place)
I0403 21:45:08.129510 24105 net.cpp:141] Setting up inception_3b/relu_3x3
I0403 21:45:08.129539 24105 net.cpp:148] Top shape: 24 192 28 28 (3612672)
I0403 21:45:08.129554 24105 net.cpp:156] Memory required for data: 724943904
I0403 21:45:08.129570 24105 layer_factory.hpp:77] Creating layer inception_3b/5x5_reduce
I0403 21:45:08.129593 24105 net.cpp:91] Creating Layer inception_3b/5x5_reduce
I0403 21:45:08.129612 24105 net.cpp:425] inception_3b/5x5_reduce <- inception_3a/output_inception_3a/output_0_split_2
I0403 21:45:08.129634 24105 net.cpp:399] inception_3b/5x5_reduce -> inception_3b/5x5_reduce
I0403 21:45:08.130589 24105 net.cpp:141] Setting up inception_3b/5x5_reduce
I0403 21:45:08.130616 24105 net.cpp:148] Top shape: 24 32 28 28 (602112)
I0403 21:45:08.130631 24105 net.cpp:156] Memory required for data: 727352352
I0403 21:45:08.130650 24105 layer_factory.hpp:77] Creating layer inception_3b/relu_5x5_reduce
I0403 21:45:08.130669 24105 net.cpp:91] Creating Layer inception_3b/relu_5x5_reduce
I0403 21:45:08.130687 24105 net.cpp:425] inception_3b/relu_5x5_reduce <- inception_3b/5x5_reduce
I0403 21:45:08.130705 24105 net.cpp:386] inception_3b/relu_5x5_reduce -> inception_3b/5x5_reduce (in-place)
I0403 21:45:08.130887 24105 net.cpp:141] Setting up inception_3b/relu_5x5_reduce
I0403 21:45:08.130914 24105 net.cpp:148] Top shape: 24 32 28 28 (602112)
I0403 21:45:08.130930 24105 net.cpp:156] Memory required for data: 729760800
I0403 21:45:08.130946 24105 layer_factory.hpp:77] Creating layer inception_3b/5x5
I0403 21:45:08.130969 24105 net.cpp:91] Creating Layer inception_3b/5x5
I0403 21:45:08.130986 24105 net.cpp:425] inception_3b/5x5 <- inception_3b/5x5_reduce
I0403 21:45:08.131006 24105 net.cpp:399] inception_3b/5x5 -> inception_3b/5x5
I0403 21:45:08.132923 24105 net.cpp:141] Setting up inception_3b/5x5
I0403 21:45:08.132954 24105 net.cpp:148] Top shape: 24 96 28 28 (1806336)
I0403 21:45:08.132971 24105 net.cpp:156] Memory required for data: 736986144
I0403 21:45:08.132988 24105 layer_factory.hpp:77] Creating layer inception_3b/relu_5x5
I0403 21:45:08.133008 24105 net.cpp:91] Creating Layer inception_3b/relu_5x5
I0403 21:45:08.133024 24105 net.cpp:425] inception_3b/relu_5x5 <- inception_3b/5x5
I0403 21:45:08.133044 24105 net.cpp:386] inception_3b/relu_5x5 -> inception_3b/5x5 (in-place)
I0403 21:45:08.133235 24105 net.cpp:141] Setting up inception_3b/relu_5x5
I0403 21:45:08.133260 24105 net.cpp:148] Top shape: 24 96 28 28 (1806336)
I0403 21:45:08.133276 24105 net.cpp:156] Memory required for data: 744211488
I0403 21:45:08.133291 24105 layer_factory.hpp:77] Creating layer inception_3b/pool
I0403 21:45:08.133308 24105 net.cpp:91] Creating Layer inception_3b/pool
I0403 21:45:08.133324 24105 net.cpp:425] inception_3b/pool <- inception_3a/output_inception_3a/output_0_split_3
I0403 21:45:08.133342 24105 net.cpp:399] inception_3b/pool -> inception_3b/pool
I0403 21:45:08.133396 24105 net.cpp:141] Setting up inception_3b/pool
I0403 21:45:08.133419 24105 net.cpp:148] Top shape: 24 256 28 28 (4816896)
I0403 21:45:08.133435 24105 net.cpp:156] Memory required for data: 763479072
I0403 21:45:08.133450 24105 layer_factory.hpp:77] Creating layer inception_3b/pool_proj
I0403 21:45:08.133472 24105 net.cpp:91] Creating Layer inception_3b/pool_proj
I0403 21:45:08.133489 24105 net.cpp:425] inception_3b/pool_proj <- inception_3b/pool
I0403 21:45:08.133509 24105 net.cpp:399] inception_3b/pool_proj -> inception_3b/pool_proj
I0403 21:45:08.134524 24105 net.cpp:141] Setting up inception_3b/pool_proj
I0403 21:45:08.134554 24105 net.cpp:148] Top shape: 24 64 28 28 (1204224)
I0403 21:45:08.134570 24105 net.cpp:156] Memory required for data: 768295968
I0403 21:45:08.134590 24105 layer_factory.hpp:77] Creating layer inception_3b/relu_pool_proj
I0403 21:45:08.134608 24105 net.cpp:91] Creating Layer inception_3b/relu_pool_proj
I0403 21:45:08.134624 24105 net.cpp:425] inception_3b/relu_pool_proj <- inception_3b/pool_proj
I0403 21:45:08.134642 24105 net.cpp:386] inception_3b/relu_pool_proj -> inception_3b/pool_proj (in-place)
I0403 21:45:08.135021 24105 net.cpp:141] Setting up inception_3b/relu_pool_proj
I0403 21:45:08.135048 24105 net.cpp:148] Top shape: 24 64 28 28 (1204224)
I0403 21:45:08.135064 24105 net.cpp:156] Memory required for data: 773112864
I0403 21:45:08.135079 24105 layer_factory.hpp:77] Creating layer inception_3b/output
I0403 21:45:08.135098 24105 net.cpp:91] Creating Layer inception_3b/output
I0403 21:45:08.135114 24105 net.cpp:425] inception_3b/output <- inception_3b/1x1
I0403 21:45:08.135131 24105 net.cpp:425] inception_3b/output <- inception_3b/3x3
I0403 21:45:08.135148 24105 net.cpp:425] inception_3b/output <- inception_3b/5x5
I0403 21:45:08.135164 24105 net.cpp:425] inception_3b/output <- inception_3b/pool_proj
I0403 21:45:08.135179 24105 net.cpp:399] inception_3b/output -> inception_3b/output
I0403 21:45:08.135227 24105 net.cpp:141] Setting up inception_3b/output
I0403 21:45:08.135251 24105 net.cpp:148] Top shape: 24 480 28 28 (9031680)
I0403 21:45:08.135267 24105 net.cpp:156] Memory required for data: 809239584
I0403 21:45:08.135280 24105 layer_factory.hpp:77] Creating layer pool3/3x3_s2
I0403 21:45:08.135304 24105 net.cpp:91] Creating Layer pool3/3x3_s2
I0403 21:45:08.135321 24105 net.cpp:425] pool3/3x3_s2 <- inception_3b/output
I0403 21:45:08.135355 24105 net.cpp:399] pool3/3x3_s2 -> pool3/3x3_s2
I0403 21:45:08.135414 24105 net.cpp:141] Setting up pool3/3x3_s2
I0403 21:45:08.135438 24105 net.cpp:148] Top shape: 24 480 14 14 (2257920)
I0403 21:45:08.135453 24105 net.cpp:156] Memory required for data: 818271264
I0403 21:45:08.135468 24105 layer_factory.hpp:77] Creating layer pool3/3x3_s2_pool3/3x3_s2_0_split
I0403 21:45:08.135484 24105 net.cpp:91] Creating Layer pool3/3x3_s2_pool3/3x3_s2_0_split
I0403 21:45:08.135499 24105 net.cpp:425] pool3/3x3_s2_pool3/3x3_s2_0_split <- pool3/3x3_s2
I0403 21:45:08.135519 24105 net.cpp:399] pool3/3x3_s2_pool3/3x3_s2_0_split -> pool3/3x3_s2_pool3/3x3_s2_0_split_0
I0403 21:45:08.135540 24105 net.cpp:399] pool3/3x3_s2_pool3/3x3_s2_0_split -> pool3/3x3_s2_pool3/3x3_s2_0_split_1
I0403 21:45:08.135560 24105 net.cpp:399] pool3/3x3_s2_pool3/3x3_s2_0_split -> pool3/3x3_s2_pool3/3x3_s2_0_split_2
I0403 21:45:08.135578 24105 net.cpp:399] pool3/3x3_s2_pool3/3x3_s2_0_split -> pool3/3x3_s2_pool3/3x3_s2_0_split_3
I0403 21:45:08.135653 24105 net.cpp:141] Setting up pool3/3x3_s2_pool3/3x3_s2_0_split
I0403 21:45:08.135679 24105 net.cpp:148] Top shape: 24 480 14 14 (2257920)
I0403 21:45:08.135696 24105 net.cpp:148] Top shape: 24 480 14 14 (2257920)
I0403 21:45:08.135712 24105 net.cpp:148] Top shape: 24 480 14 14 (2257920)
I0403 21:45:08.135727 24105 net.cpp:148] Top shape: 24 480 14 14 (2257920)
I0403 21:45:08.135741 24105 net.cpp:156] Memory required for data: 854397984
I0403 21:45:08.135756 24105 layer_factory.hpp:77] Creating layer inception_4a/1x1
I0403 21:45:08.135778 24105 net.cpp:91] Creating Layer inception_4a/1x1
I0403 21:45:08.135795 24105 net.cpp:425] inception_4a/1x1 <- pool3/3x3_s2_pool3/3x3_s2_0_split_0
I0403 21:45:08.135814 24105 net.cpp:399] inception_4a/1x1 -> inception_4a/1x1
I0403 21:45:08.137408 24105 net.cpp:141] Setting up inception_4a/1x1
I0403 21:45:08.137436 24105 net.cpp:148] Top shape: 24 192 14 14 (903168)
I0403 21:45:08.137452 24105 net.cpp:156] Memory required for data: 858010656
I0403 21:45:08.137471 24105 layer_factory.hpp:77] Creating layer inception_4a/relu_1x1
I0403 21:45:08.137490 24105 net.cpp:91] Creating Layer inception_4a/relu_1x1
I0403 21:45:08.137506 24105 net.cpp:425] inception_4a/relu_1x1 <- inception_4a/1x1
I0403 21:45:08.137526 24105 net.cpp:386] inception_4a/relu_1x1 -> inception_4a/1x1 (in-place)
I0403 21:45:08.137701 24105 net.cpp:141] Setting up inception_4a/relu_1x1
I0403 21:45:08.137727 24105 net.cpp:148] Top shape: 24 192 14 14 (903168)
I0403 21:45:08.137742 24105 net.cpp:156] Memory required for data: 861623328
I0403 21:45:08.137756 24105 layer_factory.hpp:77] Creating layer inception_4a/3x3_reduce
I0403 21:45:08.137778 24105 net.cpp:91] Creating Layer inception_4a/3x3_reduce
I0403 21:45:08.137797 24105 net.cpp:425] inception_4a/3x3_reduce <- pool3/3x3_s2_pool3/3x3_s2_0_split_1
I0403 21:45:08.137819 24105 net.cpp:399] inception_4a/3x3_reduce -> inception_4a/3x3_reduce
I0403 21:45:08.139098 24105 net.cpp:141] Setting up inception_4a/3x3_reduce
I0403 21:45:08.139129 24105 net.cpp:148] Top shape: 24 96 14 14 (451584)
I0403 21:45:08.139147 24105 net.cpp:156] Memory required for data: 863429664
I0403 21:45:08.139173 24105 layer_factory.hpp:77] Creating layer inception_4a/relu_3x3_reduce
I0403 21:45:08.139194 24105 net.cpp:91] Creating Layer inception_4a/relu_3x3_reduce
I0403 21:45:08.139215 24105 net.cpp:425] inception_4a/relu_3x3_reduce <- inception_4a/3x3_reduce
I0403 21:45:08.139233 24105 net.cpp:386] inception_4a/relu_3x3_reduce -> inception_4a/3x3_reduce (in-place)
I0403 21:45:08.139413 24105 net.cpp:141] Setting up inception_4a/relu_3x3_reduce
I0403 21:45:08.139439 24105 net.cpp:148] Top shape: 24 96 14 14 (451584)
I0403 21:45:08.139456 24105 net.cpp:156] Memory required for data: 865236000
I0403 21:45:08.139470 24105 layer_factory.hpp:77] Creating layer inception_4a/3x3
I0403 21:45:08.139493 24105 net.cpp:91] Creating Layer inception_4a/3x3
I0403 21:45:08.139513 24105 net.cpp:425] inception_4a/3x3 <- inception_4a/3x3_reduce
I0403 21:45:08.139534 24105 net.cpp:399] inception_4a/3x3 -> inception_4a/3x3
I0403 21:45:08.142216 24105 net.cpp:141] Setting up inception_4a/3x3
I0403 21:45:08.142246 24105 net.cpp:148] Top shape: 24 208 14 14 (978432)
I0403 21:45:08.142263 24105 net.cpp:156] Memory required for data: 869149728
I0403 21:45:08.142282 24105 layer_factory.hpp:77] Creating layer inception_4a/relu_3x3
I0403 21:45:08.142302 24105 net.cpp:91] Creating Layer inception_4a/relu_3x3
I0403 21:45:08.142318 24105 net.cpp:425] inception_4a/relu_3x3 <- inception_4a/3x3
I0403 21:45:08.142338 24105 net.cpp:386] inception_4a/relu_3x3 -> inception_4a/3x3 (in-place)
I0403 21:45:08.142619 24105 net.cpp:141] Setting up inception_4a/relu_3x3
I0403 21:45:08.142647 24105 net.cpp:148] Top shape: 24 208 14 14 (978432)
I0403 21:45:08.142664 24105 net.cpp:156] Memory required for data: 873063456
I0403 21:45:08.142679 24105 layer_factory.hpp:77] Creating layer inception_4a/5x5_reduce
I0403 21:45:08.142702 24105 net.cpp:91] Creating Layer inception_4a/5x5_reduce
I0403 21:45:08.142721 24105 net.cpp:425] inception_4a/5x5_reduce <- pool3/3x3_s2_pool3/3x3_s2_0_split_2
I0403 21:45:08.142743 24105 net.cpp:399] inception_4a/5x5_reduce -> inception_4a/5x5_reduce
I0403 21:45:08.143749 24105 net.cpp:141] Setting up inception_4a/5x5_reduce
I0403 21:45:08.143779 24105 net.cpp:148] Top shape: 24 16 14 14 (75264)
I0403 21:45:08.143795 24105 net.cpp:156] Memory required for data: 873364512
I0403 21:45:08.143815 24105 layer_factory.hpp:77] Creating layer inception_4a/relu_5x5_reduce
I0403 21:45:08.143836 24105 net.cpp:91] Creating Layer inception_4a/relu_5x5_reduce
I0403 21:45:08.143853 24105 net.cpp:425] inception_4a/relu_5x5_reduce <- inception_4a/5x5_reduce
I0403 21:45:08.143872 24105 net.cpp:386] inception_4a/relu_5x5_reduce -> inception_4a/5x5_reduce (in-place)
I0403 21:45:08.144047 24105 net.cpp:141] Setting up inception_4a/relu_5x5_reduce
I0403 21:45:08.144078 24105 net.cpp:148] Top shape: 24 16 14 14 (75264)
I0403 21:45:08.144094 24105 net.cpp:156] Memory required for data: 873665568
I0403 21:45:08.144110 24105 layer_factory.hpp:77] Creating layer inception_4a/5x5
I0403 21:45:08.144132 24105 net.cpp:91] Creating Layer inception_4a/5x5
I0403 21:45:08.144151 24105 net.cpp:425] inception_4a/5x5 <- inception_4a/5x5_reduce
I0403 21:45:08.144172 24105 net.cpp:399] inception_4a/5x5 -> inception_4a/5x5
I0403 21:45:08.145259 24105 net.cpp:141] Setting up inception_4a/5x5
I0403 21:45:08.145290 24105 net.cpp:148] Top shape: 24 48 14 14 (225792)
I0403 21:45:08.145308 24105 net.cpp:156] Memory required for data: 874568736
I0403 21:45:08.145326 24105 layer_factory.hpp:77] Creating layer inception_4a/relu_5x5
I0403 21:45:08.145345 24105 net.cpp:91] Creating Layer inception_4a/relu_5x5
I0403 21:45:08.145362 24105 net.cpp:425] inception_4a/relu_5x5 <- inception_4a/5x5
I0403 21:45:08.145383 24105 net.cpp:386] inception_4a/relu_5x5 -> inception_4a/5x5 (in-place)
I0403 21:45:08.145560 24105 net.cpp:141] Setting up inception_4a/relu_5x5
I0403 21:45:08.145586 24105 net.cpp:148] Top shape: 24 48 14 14 (225792)
I0403 21:45:08.145601 24105 net.cpp:156] Memory required for data: 875471904
I0403 21:45:08.145617 24105 layer_factory.hpp:77] Creating layer inception_4a/pool
I0403 21:45:08.145635 24105 net.cpp:91] Creating Layer inception_4a/pool
I0403 21:45:08.145651 24105 net.cpp:425] inception_4a/pool <- pool3/3x3_s2_pool3/3x3_s2_0_split_3
I0403 21:45:08.145673 24105 net.cpp:399] inception_4a/pool -> inception_4a/pool
I0403 21:45:08.145732 24105 net.cpp:141] Setting up inception_4a/pool
I0403 21:45:08.145757 24105 net.cpp:148] Top shape: 24 480 14 14 (2257920)
I0403 21:45:08.145772 24105 net.cpp:156] Memory required for data: 884503584
I0403 21:45:08.145787 24105 layer_factory.hpp:77] Creating layer inception_4a/pool_proj
I0403 21:45:08.145812 24105 net.cpp:91] Creating Layer inception_4a/pool_proj
I0403 21:45:08.145830 24105 net.cpp:425] inception_4a/pool_proj <- inception_4a/pool
I0403 21:45:08.145849 24105 net.cpp:399] inception_4a/pool_proj -> inception_4a/pool_proj
I0403 21:45:08.146997 24105 net.cpp:141] Setting up inception_4a/pool_proj
I0403 21:45:08.147029 24105 net.cpp:148] Top shape: 24 64 14 14 (301056)
I0403 21:45:08.147061 24105 net.cpp:156] Memory required for data: 885707808
I0403 21:45:08.147081 24105 layer_factory.hpp:77] Creating layer inception_4a/relu_pool_proj
I0403 21:45:08.147100 24105 net.cpp:91] Creating Layer inception_4a/relu_pool_proj
I0403 21:45:08.147117 24105 net.cpp:425] inception_4a/relu_pool_proj <- inception_4a/pool_proj
I0403 21:45:08.147138 24105 net.cpp:386] inception_4a/relu_pool_proj -> inception_4a/pool_proj (in-place)
I0403 21:45:08.147421 24105 net.cpp:141] Setting up inception_4a/relu_pool_proj
I0403 21:45:08.147450 24105 net.cpp:148] Top shape: 24 64 14 14 (301056)
I0403 21:45:08.147466 24105 net.cpp:156] Memory required for data: 886912032
I0403 21:45:08.147482 24105 layer_factory.hpp:77] Creating layer inception_4a/output
I0403 21:45:08.147500 24105 net.cpp:91] Creating Layer inception_4a/output
I0403 21:45:08.147516 24105 net.cpp:425] inception_4a/output <- inception_4a/1x1
I0403 21:45:08.147534 24105 net.cpp:425] inception_4a/output <- inception_4a/3x3
I0403 21:45:08.147552 24105 net.cpp:425] inception_4a/output <- inception_4a/5x5
I0403 21:45:08.147568 24105 net.cpp:425] inception_4a/output <- inception_4a/pool_proj
I0403 21:45:08.147588 24105 net.cpp:399] inception_4a/output -> inception_4a/output
I0403 21:45:08.147632 24105 net.cpp:141] Setting up inception_4a/output
I0403 21:45:08.147656 24105 net.cpp:148] Top shape: 24 512 14 14 (2408448)
I0403 21:45:08.147672 24105 net.cpp:156] Memory required for data: 896545824
I0403 21:45:08.147687 24105 layer_factory.hpp:77] Creating layer inception_4a/output_inception_4a/output_0_split
I0403 21:45:08.147708 24105 net.cpp:91] Creating Layer inception_4a/output_inception_4a/output_0_split
I0403 21:45:08.147727 24105 net.cpp:425] inception_4a/output_inception_4a/output_0_split <- inception_4a/output
I0403 21:45:08.147745 24105 net.cpp:399] inception_4a/output_inception_4a/output_0_split -> inception_4a/output_inception_4a/output_0_split_0
I0403 21:45:08.147768 24105 net.cpp:399] inception_4a/output_inception_4a/output_0_split -> inception_4a/output_inception_4a/output_0_split_1
I0403 21:45:08.147790 24105 net.cpp:399] inception_4a/output_inception_4a/output_0_split -> inception_4a/output_inception_4a/output_0_split_2
I0403 21:45:08.147812 24105 net.cpp:399] inception_4a/output_inception_4a/output_0_split -> inception_4a/output_inception_4a/output_0_split_3
I0403 21:45:08.147833 24105 net.cpp:399] inception_4a/output_inception_4a/output_0_split -> inception_4a/output_inception_4a/output_0_split_4
I0403 21:45:08.147927 24105 net.cpp:141] Setting up inception_4a/output_inception_4a/output_0_split
I0403 21:45:08.147950 24105 net.cpp:148] Top shape: 24 512 14 14 (2408448)
I0403 21:45:08.147967 24105 net.cpp:148] Top shape: 24 512 14 14 (2408448)
I0403 21:45:08.147984 24105 net.cpp:148] Top shape: 24 512 14 14 (2408448)
I0403 21:45:08.148000 24105 net.cpp:148] Top shape: 24 512 14 14 (2408448)
I0403 21:45:08.148016 24105 net.cpp:148] Top shape: 24 512 14 14 (2408448)
I0403 21:45:08.148032 24105 net.cpp:156] Memory required for data: 944714784
I0403 21:45:08.148048 24105 layer_factory.hpp:77] Creating layer loss1/ave_pool
I0403 21:45:08.148068 24105 net.cpp:91] Creating Layer loss1/ave_pool
I0403 21:45:08.148085 24105 net.cpp:425] loss1/ave_pool <- inception_4a/output_inception_4a/output_0_split_0
I0403 21:45:08.148103 24105 net.cpp:399] loss1/ave_pool -> loss1/ave_pool
I0403 21:45:08.148316 24105 net.cpp:141] Setting up loss1/ave_pool
I0403 21:45:08.148345 24105 net.cpp:148] Top shape: 24 512 4 4 (196608)
I0403 21:45:08.148361 24105 net.cpp:156] Memory required for data: 945501216
I0403 21:45:08.148377 24105 layer_factory.hpp:77] Creating layer loss1/conv
I0403 21:45:08.148399 24105 net.cpp:91] Creating Layer loss1/conv
I0403 21:45:08.148418 24105 net.cpp:425] loss1/conv <- loss1/ave_pool
I0403 21:45:08.148437 24105 net.cpp:399] loss1/conv -> loss1/conv
I0403 21:45:08.149827 24105 net.cpp:141] Setting up loss1/conv
I0403 21:45:08.149857 24105 net.cpp:148] Top shape: 24 128 4 4 (49152)
I0403 21:45:08.149888 24105 net.cpp:156] Memory required for data: 945697824
I0403 21:45:08.149907 24105 layer_factory.hpp:77] Creating layer loss1/relu_conv
I0403 21:45:08.149927 24105 net.cpp:91] Creating Layer loss1/relu_conv
I0403 21:45:08.149945 24105 net.cpp:425] loss1/relu_conv <- loss1/conv
I0403 21:45:08.149965 24105 net.cpp:386] loss1/relu_conv -> loss1/conv (in-place)
I0403 21:45:08.150250 24105 net.cpp:141] Setting up loss1/relu_conv
I0403 21:45:08.150277 24105 net.cpp:148] Top shape: 24 128 4 4 (49152)
I0403 21:45:08.150292 24105 net.cpp:156] Memory required for data: 945894432
I0403 21:45:08.150307 24105 layer_factory.hpp:77] Creating layer loss1/fc
I0403 21:45:08.150334 24105 net.cpp:91] Creating Layer loss1/fc
I0403 21:45:08.150354 24105 net.cpp:425] loss1/fc <- loss1/conv
I0403 21:45:08.150374 24105 net.cpp:399] loss1/fc -> loss1/fc
I0403 21:45:08.167839 24105 net.cpp:141] Setting up loss1/fc
I0403 21:45:08.167875 24105 net.cpp:148] Top shape: 24 1024 (24576)
I0403 21:45:08.167889 24105 net.cpp:156] Memory required for data: 945992736
I0403 21:45:08.167909 24105 layer_factory.hpp:77] Creating layer loss1/relu_fc
I0403 21:45:08.167927 24105 net.cpp:91] Creating Layer loss1/relu_fc
I0403 21:45:08.167945 24105 net.cpp:425] loss1/relu_fc <- loss1/fc
I0403 21:45:08.167968 24105 net.cpp:386] loss1/relu_fc -> loss1/fc (in-place)
I0403 21:45:08.168145 24105 net.cpp:141] Setting up loss1/relu_fc
I0403 21:45:08.168171 24105 net.cpp:148] Top shape: 24 1024 (24576)
I0403 21:45:08.168187 24105 net.cpp:156] Memory required for data: 946091040
I0403 21:45:08.168212 24105 layer_factory.hpp:77] Creating layer loss1/drop_fc
I0403 21:45:08.168241 24105 net.cpp:91] Creating Layer loss1/drop_fc
I0403 21:45:08.168262 24105 net.cpp:425] loss1/drop_fc <- loss1/fc
I0403 21:45:08.168282 24105 net.cpp:386] loss1/drop_fc -> loss1/fc (in-place)
I0403 21:45:08.168334 24105 net.cpp:141] Setting up loss1/drop_fc
I0403 21:45:08.168360 24105 net.cpp:148] Top shape: 24 1024 (24576)
I0403 21:45:08.168376 24105 net.cpp:156] Memory required for data: 946189344
I0403 21:45:08.168391 24105 layer_factory.hpp:77] Creating layer loss1/classifier_plantvillage
I0403 21:45:08.168409 24105 net.cpp:91] Creating Layer loss1/classifier_plantvillage
I0403 21:45:08.168426 24105 net.cpp:425] loss1/classifier_plantvillage <- loss1/fc
I0403 21:45:08.168448 24105 net.cpp:399] loss1/classifier_plantvillage -> loss1/classifier_plantvillage
I0403 21:45:08.169363 24105 net.cpp:141] Setting up loss1/classifier_plantvillage
I0403 21:45:08.169390 24105 net.cpp:148] Top shape: 24 38 (912)
I0403 21:45:08.169407 24105 net.cpp:156] Memory required for data: 946192992
I0403 21:45:08.169426 24105 layer_factory.hpp:77] Creating layer loss1/classifier_plantvillage_loss1/classifier_plantvillage_0_split
I0403 21:45:08.169445 24105 net.cpp:91] Creating Layer loss1/classifier_plantvillage_loss1/classifier_plantvillage_0_split
I0403 21:45:08.169461 24105 net.cpp:425] loss1/classifier_plantvillage_loss1/classifier_plantvillage_0_split <- loss1/classifier_plantvillage
I0403 21:45:08.169481 24105 net.cpp:399] loss1/classifier_plantvillage_loss1/classifier_plantvillage_0_split -> loss1/classifier_plantvillage_loss1/classifier_plantvillage_0_split_0
I0403 21:45:08.169502 24105 net.cpp:399] loss1/classifier_plantvillage_loss1/classifier_plantvillage_0_split -> loss1/classifier_plantvillage_loss1/classifier_plantvillage_0_split_1
I0403 21:45:08.169523 24105 net.cpp:399] loss1/classifier_plantvillage_loss1/classifier_plantvillage_0_split -> loss1/classifier_plantvillage_loss1/classifier_plantvillage_0_split_2
I0403 21:45:08.169589 24105 net.cpp:141] Setting up loss1/classifier_plantvillage_loss1/classifier_plantvillage_0_split
I0403 21:45:08.169612 24105 net.cpp:148] Top shape: 24 38 (912)
I0403 21:45:08.169630 24105 net.cpp:148] Top shape: 24 38 (912)
I0403 21:45:08.169644 24105 net.cpp:148] Top shape: 24 38 (912)
I0403 21:45:08.169658 24105 net.cpp:156] Memory required for data: 946203936
I0403 21:45:08.169673 24105 layer_factory.hpp:77] Creating layer inception_4b/1x1
I0403 21:45:08.169695 24105 net.cpp:91] Creating Layer inception_4b/1x1
I0403 21:45:08.169728 24105 net.cpp:425] inception_4b/1x1 <- inception_4a/output_inception_4a/output_0_split_1
I0403 21:45:08.169749 24105 net.cpp:399] inception_4b/1x1 -> inception_4b/1x1
I0403 21:45:08.171349 24105 net.cpp:141] Setting up inception_4b/1x1
I0403 21:45:08.171377 24105 net.cpp:148] Top shape: 24 160 14 14 (752640)
I0403 21:45:08.171394 24105 net.cpp:156] Memory required for data: 949214496
I0403 21:45:08.171413 24105 layer_factory.hpp:77] Creating layer inception_4b/relu_1x1
I0403 21:45:08.171434 24105 net.cpp:91] Creating Layer inception_4b/relu_1x1
I0403 21:45:08.171452 24105 net.cpp:425] inception_4b/relu_1x1 <- inception_4b/1x1
I0403 21:45:08.171470 24105 net.cpp:386] inception_4b/relu_1x1 -> inception_4b/1x1 (in-place)
I0403 21:45:08.171639 24105 net.cpp:141] Setting up inception_4b/relu_1x1
I0403 21:45:08.171665 24105 net.cpp:148] Top shape: 24 160 14 14 (752640)
I0403 21:45:08.171682 24105 net.cpp:156] Memory required for data: 952225056
I0403 21:45:08.171697 24105 layer_factory.hpp:77] Creating layer inception_4b/3x3_reduce
I0403 21:45:08.171722 24105 net.cpp:91] Creating Layer inception_4b/3x3_reduce
I0403 21:45:08.171741 24105 net.cpp:425] inception_4b/3x3_reduce <- inception_4a/output_inception_4a/output_0_split_2
I0403 21:45:08.171761 24105 net.cpp:399] inception_4b/3x3_reduce -> inception_4b/3x3_reduce
I0403 21:45:08.173058 24105 net.cpp:141] Setting up inception_4b/3x3_reduce
I0403 21:45:08.173089 24105 net.cpp:148] Top shape: 24 112 14 14 (526848)
I0403 21:45:08.173106 24105 net.cpp:156] Memory required for data: 954332448
I0403 21:45:08.173125 24105 layer_factory.hpp:77] Creating layer inception_4b/relu_3x3_reduce
I0403 21:45:08.173144 24105 net.cpp:91] Creating Layer inception_4b/relu_3x3_reduce
I0403 21:45:08.173161 24105 net.cpp:425] inception_4b/relu_3x3_reduce <- inception_4b/3x3_reduce
I0403 21:45:08.173178 24105 net.cpp:386] inception_4b/relu_3x3_reduce -> inception_4b/3x3_reduce (in-place)
I0403 21:45:08.173457 24105 net.cpp:141] Setting up inception_4b/relu_3x3_reduce
I0403 21:45:08.173486 24105 net.cpp:148] Top shape: 24 112 14 14 (526848)
I0403 21:45:08.173502 24105 net.cpp:156] Memory required for data: 956439840
I0403 21:45:08.173518 24105 layer_factory.hpp:77] Creating layer inception_4b/3x3
I0403 21:45:08.173538 24105 net.cpp:91] Creating Layer inception_4b/3x3
I0403 21:45:08.173557 24105 net.cpp:425] inception_4b/3x3 <- inception_4b/3x3_reduce
I0403 21:45:08.173578 24105 net.cpp:399] inception_4b/3x3 -> inception_4b/3x3
I0403 21:45:08.176513 24105 net.cpp:141] Setting up inception_4b/3x3
I0403 21:45:08.176542 24105 net.cpp:148] Top shape: 24 224 14 14 (1053696)
I0403 21:45:08.176559 24105 net.cpp:156] Memory required for data: 960654624
I0403 21:45:08.176579 24105 layer_factory.hpp:77] Creating layer inception_4b/relu_3x3
I0403 21:45:08.176599 24105 net.cpp:91] Creating Layer inception_4b/relu_3x3
I0403 21:45:08.176614 24105 net.cpp:425] inception_4b/relu_3x3 <- inception_4b/3x3
I0403 21:45:08.176633 24105 net.cpp:386] inception_4b/relu_3x3 -> inception_4b/3x3 (in-place)
I0403 21:45:08.176806 24105 net.cpp:141] Setting up inception_4b/relu_3x3
I0403 21:45:08.176832 24105 net.cpp:148] Top shape: 24 224 14 14 (1053696)
I0403 21:45:08.176847 24105 net.cpp:156] Memory required for data: 964869408
I0403 21:45:08.176862 24105 layer_factory.hpp:77] Creating layer inception_4b/5x5_reduce
I0403 21:45:08.176883 24105 net.cpp:91] Creating Layer inception_4b/5x5_reduce
I0403 21:45:08.176901 24105 net.cpp:425] inception_4b/5x5_reduce <- inception_4a/output_inception_4a/output_0_split_3
I0403 21:45:08.176924 24105 net.cpp:399] inception_4b/5x5_reduce -> inception_4b/5x5_reduce
I0403 21:45:08.177968 24105 net.cpp:141] Setting up inception_4b/5x5_reduce
I0403 21:45:08.177995 24105 net.cpp:148] Top shape: 24 24 14 14 (112896)
I0403 21:45:08.178012 24105 net.cpp:156] Memory required for data: 965320992
I0403 21:45:08.178031 24105 layer_factory.hpp:77] Creating layer inception_4b/relu_5x5_reduce
I0403 21:45:08.178051 24105 net.cpp:91] Creating Layer inception_4b/relu_5x5_reduce
I0403 21:45:08.178082 24105 net.cpp:425] inception_4b/relu_5x5_reduce <- inception_4b/5x5_reduce
I0403 21:45:08.178102 24105 net.cpp:386] inception_4b/relu_5x5_reduce -> inception_4b/5x5_reduce (in-place)
I0403 21:45:08.178292 24105 net.cpp:141] Setting up inception_4b/relu_5x5_reduce
I0403 21:45:08.178320 24105 net.cpp:148] Top shape: 24 24 14 14 (112896)
I0403 21:45:08.178336 24105 net.cpp:156] Memory required for data: 965772576
I0403 21:45:08.178351 24105 layer_factory.hpp:77] Creating layer inception_4b/5x5
I0403 21:45:08.178375 24105 net.cpp:91] Creating Layer inception_4b/5x5
I0403 21:45:08.178391 24105 net.cpp:425] inception_4b/5x5 <- inception_4b/5x5_reduce
I0403 21:45:08.178411 24105 net.cpp:399] inception_4b/5x5 -> inception_4b/5x5
I0403 21:45:08.179597 24105 net.cpp:141] Setting up inception_4b/5x5
I0403 21:45:08.179625 24105 net.cpp:148] Top shape: 24 64 14 14 (301056)
I0403 21:45:08.179642 24105 net.cpp:156] Memory required for data: 966976800
I0403 21:45:08.179661 24105 layer_factory.hpp:77] Creating layer inception_4b/relu_5x5
I0403 21:45:08.179682 24105 net.cpp:91] Creating Layer inception_4b/relu_5x5
I0403 21:45:08.179700 24105 net.cpp:425] inception_4b/relu_5x5 <- inception_4b/5x5
I0403 21:45:08.179718 24105 net.cpp:386] inception_4b/relu_5x5 -> inception_4b/5x5 (in-place)
I0403 21:45:08.179992 24105 net.cpp:141] Setting up inception_4b/relu_5x5
I0403 21:45:08.180018 24105 net.cpp:148] Top shape: 24 64 14 14 (301056)
I0403 21:45:08.180034 24105 net.cpp:156] Memory required for data: 968181024
I0403 21:45:08.180049 24105 layer_factory.hpp:77] Creating layer inception_4b/pool
I0403 21:45:08.180068 24105 net.cpp:91] Creating Layer inception_4b/pool
I0403 21:45:08.180083 24105 net.cpp:425] inception_4b/pool <- inception_4a/output_inception_4a/output_0_split_4
I0403 21:45:08.180105 24105 net.cpp:399] inception_4b/pool -> inception_4b/pool
I0403 21:45:08.180169 24105 net.cpp:141] Setting up inception_4b/pool
I0403 21:45:08.180194 24105 net.cpp:148] Top shape: 24 512 14 14 (2408448)
I0403 21:45:08.180214 24105 net.cpp:156] Memory required for data: 977814816
I0403 21:45:08.180229 24105 layer_factory.hpp:77] Creating layer inception_4b/pool_proj
I0403 21:45:08.180251 24105 net.cpp:91] Creating Layer inception_4b/pool_proj
I0403 21:45:08.180269 24105 net.cpp:425] inception_4b/pool_proj <- inception_4b/pool
I0403 21:45:08.180289 24105 net.cpp:399] inception_4b/pool_proj -> inception_4b/pool_proj
I0403 21:45:08.181443 24105 net.cpp:141] Setting up inception_4b/pool_proj
I0403 21:45:08.181471 24105 net.cpp:148] Top shape: 24 64 14 14 (301056)
I0403 21:45:08.181488 24105 net.cpp:156] Memory required for data: 979019040
I0403 21:45:08.181506 24105 layer_factory.hpp:77] Creating layer inception_4b/relu_pool_proj
I0403 21:45:08.181526 24105 net.cpp:91] Creating Layer inception_4b/relu_pool_proj
I0403 21:45:08.181543 24105 net.cpp:425] inception_4b/relu_pool_proj <- inception_4b/pool_proj
I0403 21:45:08.181560 24105 net.cpp:386] inception_4b/relu_pool_proj -> inception_4b/pool_proj (in-place)
I0403 21:45:08.181736 24105 net.cpp:141] Setting up inception_4b/relu_pool_proj
I0403 21:45:08.181764 24105 net.cpp:148] Top shape: 24 64 14 14 (301056)
I0403 21:45:08.181780 24105 net.cpp:156] Memory required for data: 980223264
I0403 21:45:08.181797 24105 layer_factory.hpp:77] Creating layer inception_4b/output
I0403 21:45:08.181814 24105 net.cpp:91] Creating Layer inception_4b/output
I0403 21:45:08.181830 24105 net.cpp:425] inception_4b/output <- inception_4b/1x1
I0403 21:45:08.181846 24105 net.cpp:425] inception_4b/output <- inception_4b/3x3
I0403 21:45:08.181862 24105 net.cpp:425] inception_4b/output <- inception_4b/5x5
I0403 21:45:08.181879 24105 net.cpp:425] inception_4b/output <- inception_4b/pool_proj
I0403 21:45:08.181895 24105 net.cpp:399] inception_4b/output -> inception_4b/output
I0403 21:45:08.181941 24105 net.cpp:141] Setting up inception_4b/output
I0403 21:45:08.181965 24105 net.cpp:148] Top shape: 24 512 14 14 (2408448)
I0403 21:45:08.181980 24105 net.cpp:156] Memory required for data: 989857056
I0403 21:45:08.182010 24105 layer_factory.hpp:77] Creating layer inception_4b/output_inception_4b/output_0_split
I0403 21:45:08.182030 24105 net.cpp:91] Creating Layer inception_4b/output_inception_4b/output_0_split
I0403 21:45:08.182047 24105 net.cpp:425] inception_4b/output_inception_4b/output_0_split <- inception_4b/output
I0403 21:45:08.182065 24105 net.cpp:399] inception_4b/output_inception_4b/output_0_split -> inception_4b/output_inception_4b/output_0_split_0
I0403 21:45:08.182085 24105 net.cpp:399] inception_4b/output_inception_4b/output_0_split -> inception_4b/output_inception_4b/output_0_split_1
I0403 21:45:08.182103 24105 net.cpp:399] inception_4b/output_inception_4b/output_0_split -> inception_4b/output_inception_4b/output_0_split_2
I0403 21:45:08.182124 24105 net.cpp:399] inception_4b/output_inception_4b/output_0_split -> inception_4b/output_inception_4b/output_0_split_3
I0403 21:45:08.182211 24105 net.cpp:141] Setting up inception_4b/output_inception_4b/output_0_split
I0403 21:45:08.182235 24105 net.cpp:148] Top shape: 24 512 14 14 (2408448)
I0403 21:45:08.182252 24105 net.cpp:148] Top shape: 24 512 14 14 (2408448)
I0403 21:45:08.182267 24105 net.cpp:148] Top shape: 24 512 14 14 (2408448)
I0403 21:45:08.182282 24105 net.cpp:148] Top shape: 24 512 14 14 (2408448)
I0403 21:45:08.182296 24105 net.cpp:156] Memory required for data: 1028392224
I0403 21:45:08.182312 24105 layer_factory.hpp:77] Creating layer inception_4c/1x1
I0403 21:45:08.182333 24105 net.cpp:91] Creating Layer inception_4c/1x1
I0403 21:45:08.182351 24105 net.cpp:425] inception_4c/1x1 <- inception_4b/output_inception_4b/output_0_split_0
I0403 21:45:08.182373 24105 net.cpp:399] inception_4c/1x1 -> inception_4c/1x1
I0403 21:45:08.183816 24105 net.cpp:141] Setting up inception_4c/1x1
I0403 21:45:08.183850 24105 net.cpp:148] Top shape: 24 128 14 14 (602112)
I0403 21:45:08.183866 24105 net.cpp:156] Memory required for data: 1030800672
I0403 21:45:08.183886 24105 layer_factory.hpp:77] Creating layer inception_4c/relu_1x1
I0403 21:45:08.183904 24105 net.cpp:91] Creating Layer inception_4c/relu_1x1
I0403 21:45:08.183922 24105 net.cpp:425] inception_4c/relu_1x1 <- inception_4c/1x1
I0403 21:45:08.183943 24105 net.cpp:386] inception_4c/relu_1x1 -> inception_4c/1x1 (in-place)
I0403 21:45:08.184128 24105 net.cpp:141] Setting up inception_4c/relu_1x1
I0403 21:45:08.184154 24105 net.cpp:148] Top shape: 24 128 14 14 (602112)
I0403 21:45:08.184170 24105 net.cpp:156] Memory required for data: 1033209120
I0403 21:45:08.184185 24105 layer_factory.hpp:77] Creating layer inception_4c/3x3_reduce
I0403 21:45:08.184212 24105 net.cpp:91] Creating Layer inception_4c/3x3_reduce
I0403 21:45:08.184232 24105 net.cpp:425] inception_4c/3x3_reduce <- inception_4b/output_inception_4b/output_0_split_1
I0403 21:45:08.184254 24105 net.cpp:399] inception_4c/3x3_reduce -> inception_4c/3x3_reduce
I0403 21:45:08.186231 24105 net.cpp:141] Setting up inception_4c/3x3_reduce
I0403 21:45:08.186261 24105 net.cpp:148] Top shape: 24 128 14 14 (602112)
I0403 21:45:08.186278 24105 net.cpp:156] Memory required for data: 1035617568
I0403 21:45:08.186298 24105 layer_factory.hpp:77] Creating layer inception_4c/relu_3x3_reduce
I0403 21:45:08.186321 24105 net.cpp:91] Creating Layer inception_4c/relu_3x3_reduce
I0403 21:45:08.186338 24105 net.cpp:425] inception_4c/relu_3x3_reduce <- inception_4c/3x3_reduce
I0403 21:45:08.186357 24105 net.cpp:386] inception_4c/relu_3x3_reduce -> inception_4c/3x3_reduce (in-place)
I0403 21:45:08.186642 24105 net.cpp:141] Setting up inception_4c/relu_3x3_reduce
I0403 21:45:08.186669 24105 net.cpp:148] Top shape: 24 128 14 14 (602112)
I0403 21:45:08.186686 24105 net.cpp:156] Memory required for data: 1038026016
I0403 21:45:08.186702 24105 layer_factory.hpp:77] Creating layer inception_4c/3x3
I0403 21:45:08.186724 24105 net.cpp:91] Creating Layer inception_4c/3x3
I0403 21:45:08.186743 24105 net.cpp:425] inception_4c/3x3 <- inception_4c/3x3_reduce
I0403 21:45:08.186766 24105 net.cpp:399] inception_4c/3x3 -> inception_4c/3x3
I0403 21:45:08.190412 24105 net.cpp:141] Setting up inception_4c/3x3
I0403 21:45:08.190453 24105 net.cpp:148] Top shape: 24 256 14 14 (1204224)
I0403 21:45:08.190470 24105 net.cpp:156] Memory required for data: 1042842912
I0403 21:45:08.190502 24105 layer_factory.hpp:77] Creating layer inception_4c/relu_3x3
I0403 21:45:08.190526 24105 net.cpp:91] Creating Layer inception_4c/relu_3x3
I0403 21:45:08.190546 24105 net.cpp:425] inception_4c/relu_3x3 <- inception_4c/3x3
I0403 21:45:08.190563 24105 net.cpp:386] inception_4c/relu_3x3 -> inception_4c/3x3 (in-place)
I0403 21:45:08.190743 24105 net.cpp:141] Setting up inception_4c/relu_3x3
I0403 21:45:08.190769 24105 net.cpp:148] Top shape: 24 256 14 14 (1204224)
I0403 21:45:08.190786 24105 net.cpp:156] Memory required for data: 1047659808
I0403 21:45:08.190801 24105 layer_factory.hpp:77] Creating layer inception_4c/5x5_reduce
I0403 21:45:08.190824 24105 net.cpp:91] Creating Layer inception_4c/5x5_reduce
I0403 21:45:08.190843 24105 net.cpp:425] inception_4c/5x5_reduce <- inception_4b/output_inception_4b/output_0_split_2
I0403 21:45:08.190867 24105 net.cpp:399] inception_4c/5x5_reduce -> inception_4c/5x5_reduce
I0403 21:45:08.191951 24105 net.cpp:141] Setting up inception_4c/5x5_reduce
I0403 21:45:08.191980 24105 net.cpp:148] Top shape: 24 24 14 14 (112896)
I0403 21:45:08.191997 24105 net.cpp:156] Memory required for data: 1048111392
I0403 21:45:08.192015 24105 layer_factory.hpp:77] Creating layer inception_4c/relu_5x5_reduce
I0403 21:45:08.192036 24105 net.cpp:91] Creating Layer inception_4c/relu_5x5_reduce
I0403 21:45:08.192054 24105 net.cpp:425] inception_4c/relu_5x5_reduce <- inception_4c/5x5_reduce
I0403 21:45:08.192073 24105 net.cpp:386] inception_4c/relu_5x5_reduce -> inception_4c/5x5_reduce (in-place)
I0403 21:45:08.192263 24105 net.cpp:141] Setting up inception_4c/relu_5x5_reduce
I0403 21:45:08.192291 24105 net.cpp:148] Top shape: 24 24 14 14 (112896)
I0403 21:45:08.192308 24105 net.cpp:156] Memory required for data: 1048562976
I0403 21:45:08.192324 24105 layer_factory.hpp:77] Creating layer inception_4c/5x5
I0403 21:45:08.192348 24105 net.cpp:91] Creating Layer inception_4c/5x5
I0403 21:45:08.192366 24105 net.cpp:425] inception_4c/5x5 <- inception_4c/5x5_reduce
I0403 21:45:08.192386 24105 net.cpp:399] inception_4c/5x5 -> inception_4c/5x5
I0403 21:45:08.193619 24105 net.cpp:141] Setting up inception_4c/5x5
I0403 21:45:08.193648 24105 net.cpp:148] Top shape: 24 64 14 14 (301056)
I0403 21:45:08.193666 24105 net.cpp:156] Memory required for data: 1049767200
I0403 21:45:08.193686 24105 layer_factory.hpp:77] Creating layer inception_4c/relu_5x5
I0403 21:45:08.193706 24105 net.cpp:91] Creating Layer inception_4c/relu_5x5
I0403 21:45:08.193722 24105 net.cpp:425] inception_4c/relu_5x5 <- inception_4c/5x5
I0403 21:45:08.193740 24105 net.cpp:386] inception_4c/relu_5x5 -> inception_4c/5x5 (in-place)
I0403 21:45:08.194030 24105 net.cpp:141] Setting up inception_4c/relu_5x5
I0403 21:45:08.194059 24105 net.cpp:148] Top shape: 24 64 14 14 (301056)
I0403 21:45:08.194077 24105 net.cpp:156] Memory required for data: 1050971424
I0403 21:45:08.194092 24105 layer_factory.hpp:77] Creating layer inception_4c/pool
I0403 21:45:08.194111 24105 net.cpp:91] Creating Layer inception_4c/pool
I0403 21:45:08.194128 24105 net.cpp:425] inception_4c/pool <- inception_4b/output_inception_4b/output_0_split_3
I0403 21:45:08.194146 24105 net.cpp:399] inception_4c/pool -> inception_4c/pool
I0403 21:45:08.194217 24105 net.cpp:141] Setting up inception_4c/pool
I0403 21:45:08.194243 24105 net.cpp:148] Top shape: 24 512 14 14 (2408448)
I0403 21:45:08.194259 24105 net.cpp:156] Memory required for data: 1060605216
I0403 21:45:08.194274 24105 layer_factory.hpp:77] Creating layer inception_4c/pool_proj
I0403 21:45:08.194298 24105 net.cpp:91] Creating Layer inception_4c/pool_proj
I0403 21:45:08.194315 24105 net.cpp:425] inception_4c/pool_proj <- inception_4c/pool
I0403 21:45:08.194336 24105 net.cpp:399] inception_4c/pool_proj -> inception_4c/pool_proj
I0403 21:45:08.195546 24105 net.cpp:141] Setting up inception_4c/pool_proj
I0403 21:45:08.195576 24105 net.cpp:148] Top shape: 24 64 14 14 (301056)
I0403 21:45:08.195607 24105 net.cpp:156] Memory required for data: 1061809440
I0403 21:45:08.195628 24105 layer_factory.hpp:77] Creating layer inception_4c/relu_pool_proj
I0403 21:45:08.195649 24105 net.cpp:91] Creating Layer inception_4c/relu_pool_proj
I0403 21:45:08.195667 24105 net.cpp:425] inception_4c/relu_pool_proj <- inception_4c/pool_proj
I0403 21:45:08.195685 24105 net.cpp:386] inception_4c/relu_pool_proj -> inception_4c/pool_proj (in-place)
I0403 21:45:08.195864 24105 net.cpp:141] Setting up inception_4c/relu_pool_proj
I0403 21:45:08.195896 24105 net.cpp:148] Top shape: 24 64 14 14 (301056)
I0403 21:45:08.195914 24105 net.cpp:156] Memory required for data: 1063013664
I0403 21:45:08.195930 24105 layer_factory.hpp:77] Creating layer inception_4c/output
I0403 21:45:08.195948 24105 net.cpp:91] Creating Layer inception_4c/output
I0403 21:45:08.195966 24105 net.cpp:425] inception_4c/output <- inception_4c/1x1
I0403 21:45:08.195982 24105 net.cpp:425] inception_4c/output <- inception_4c/3x3
I0403 21:45:08.195999 24105 net.cpp:425] inception_4c/output <- inception_4c/5x5
I0403 21:45:08.196017 24105 net.cpp:425] inception_4c/output <- inception_4c/pool_proj
I0403 21:45:08.196034 24105 net.cpp:399] inception_4c/output -> inception_4c/output
I0403 21:45:08.196084 24105 net.cpp:141] Setting up inception_4c/output
I0403 21:45:08.196108 24105 net.cpp:148] Top shape: 24 512 14 14 (2408448)
I0403 21:45:08.196123 24105 net.cpp:156] Memory required for data: 1072647456
I0403 21:45:08.196138 24105 layer_factory.hpp:77] Creating layer inception_4c/output_inception_4c/output_0_split
I0403 21:45:08.196158 24105 net.cpp:91] Creating Layer inception_4c/output_inception_4c/output_0_split
I0403 21:45:08.196177 24105 net.cpp:425] inception_4c/output_inception_4c/output_0_split <- inception_4c/output
I0403 21:45:08.196193 24105 net.cpp:399] inception_4c/output_inception_4c/output_0_split -> inception_4c/output_inception_4c/output_0_split_0
I0403 21:45:08.196218 24105 net.cpp:399] inception_4c/output_inception_4c/output_0_split -> inception_4c/output_inception_4c/output_0_split_1
I0403 21:45:08.196240 24105 net.cpp:399] inception_4c/output_inception_4c/output_0_split -> inception_4c/output_inception_4c/output_0_split_2
I0403 21:45:08.196262 24105 net.cpp:399] inception_4c/output_inception_4c/output_0_split -> inception_4c/output_inception_4c/output_0_split_3
I0403 21:45:08.196351 24105 net.cpp:141] Setting up inception_4c/output_inception_4c/output_0_split
I0403 21:45:08.196375 24105 net.cpp:148] Top shape: 24 512 14 14 (2408448)
I0403 21:45:08.196391 24105 net.cpp:148] Top shape: 24 512 14 14 (2408448)
I0403 21:45:08.196408 24105 net.cpp:148] Top shape: 24 512 14 14 (2408448)
I0403 21:45:08.196424 24105 net.cpp:148] Top shape: 24 512 14 14 (2408448)
I0403 21:45:08.196439 24105 net.cpp:156] Memory required for data: 1111182624
I0403 21:45:08.196454 24105 layer_factory.hpp:77] Creating layer inception_4d/1x1
I0403 21:45:08.196475 24105 net.cpp:91] Creating Layer inception_4d/1x1
I0403 21:45:08.196494 24105 net.cpp:425] inception_4d/1x1 <- inception_4c/output_inception_4c/output_0_split_0
I0403 21:45:08.196516 24105 net.cpp:399] inception_4d/1x1 -> inception_4d/1x1
I0403 21:45:08.197881 24105 net.cpp:141] Setting up inception_4d/1x1
I0403 21:45:08.197911 24105 net.cpp:148] Top shape: 24 112 14 14 (526848)
I0403 21:45:08.197927 24105 net.cpp:156] Memory required for data: 1113290016
I0403 21:45:08.197947 24105 layer_factory.hpp:77] Creating layer inception_4d/relu_1x1
I0403 21:45:08.197965 24105 net.cpp:91] Creating Layer inception_4d/relu_1x1
I0403 21:45:08.197981 24105 net.cpp:425] inception_4d/relu_1x1 <- inception_4d/1x1
I0403 21:45:08.198002 24105 net.cpp:386] inception_4d/relu_1x1 -> inception_4d/1x1 (in-place)
I0403 21:45:08.198187 24105 net.cpp:141] Setting up inception_4d/relu_1x1
I0403 21:45:08.198223 24105 net.cpp:148] Top shape: 24 112 14 14 (526848)
I0403 21:45:08.198241 24105 net.cpp:156] Memory required for data: 1115397408
I0403 21:45:08.198257 24105 layer_factory.hpp:77] Creating layer inception_4d/3x3_reduce
I0403 21:45:08.198295 24105 net.cpp:91] Creating Layer inception_4d/3x3_reduce
I0403 21:45:08.198314 24105 net.cpp:425] inception_4d/3x3_reduce <- inception_4c/output_inception_4c/output_0_split_1
I0403 21:45:08.198336 24105 net.cpp:399] inception_4d/3x3_reduce -> inception_4d/3x3_reduce
I0403 21:45:08.199841 24105 net.cpp:141] Setting up inception_4d/3x3_reduce
I0403 21:45:08.199872 24105 net.cpp:148] Top shape: 24 144 14 14 (677376)
I0403 21:45:08.199889 24105 net.cpp:156] Memory required for data: 1118106912
I0403 21:45:08.199908 24105 layer_factory.hpp:77] Creating layer inception_4d/relu_3x3_reduce
I0403 21:45:08.199928 24105 net.cpp:91] Creating Layer inception_4d/relu_3x3_reduce
I0403 21:45:08.199944 24105 net.cpp:425] inception_4d/relu_3x3_reduce <- inception_4d/3x3_reduce
I0403 21:45:08.199965 24105 net.cpp:386] inception_4d/relu_3x3_reduce -> inception_4d/3x3_reduce (in-place)
I0403 21:45:08.200258 24105 net.cpp:141] Setting up inception_4d/relu_3x3_reduce
I0403 21:45:08.200289 24105 net.cpp:148] Top shape: 24 144 14 14 (677376)
I0403 21:45:08.200304 24105 net.cpp:156] Memory required for data: 1120816416
I0403 21:45:08.200320 24105 layer_factory.hpp:77] Creating layer inception_4d/3x3
I0403 21:45:08.200343 24105 net.cpp:91] Creating Layer inception_4d/3x3
I0403 21:45:08.200361 24105 net.cpp:425] inception_4d/3x3 <- inception_4d/3x3_reduce
I0403 21:45:08.200381 24105 net.cpp:399] inception_4d/3x3 -> inception_4d/3x3
I0403 21:45:08.204618 24105 net.cpp:141] Setting up inception_4d/3x3
I0403 21:45:08.204648 24105 net.cpp:148] Top shape: 24 288 14 14 (1354752)
I0403 21:45:08.204664 24105 net.cpp:156] Memory required for data: 1126235424
I0403 21:45:08.204684 24105 layer_factory.hpp:77] Creating layer inception_4d/relu_3x3
I0403 21:45:08.204704 24105 net.cpp:91] Creating Layer inception_4d/relu_3x3
I0403 21:45:08.204722 24105 net.cpp:425] inception_4d/relu_3x3 <- inception_4d/3x3
I0403 21:45:08.204741 24105 net.cpp:386] inception_4d/relu_3x3 -> inception_4d/3x3 (in-place)
I0403 21:45:08.204917 24105 net.cpp:141] Setting up inception_4d/relu_3x3
I0403 21:45:08.204942 24105 net.cpp:148] Top shape: 24 288 14 14 (1354752)
I0403 21:45:08.204959 24105 net.cpp:156] Memory required for data: 1131654432
I0403 21:45:08.204974 24105 layer_factory.hpp:77] Creating layer inception_4d/5x5_reduce
I0403 21:45:08.204996 24105 net.cpp:91] Creating Layer inception_4d/5x5_reduce
I0403 21:45:08.205015 24105 net.cpp:425] inception_4d/5x5_reduce <- inception_4c/output_inception_4c/output_0_split_2
I0403 21:45:08.205037 24105 net.cpp:399] inception_4d/5x5_reduce -> inception_4d/5x5_reduce
I0403 21:45:08.206151 24105 net.cpp:141] Setting up inception_4d/5x5_reduce
I0403 21:45:08.206178 24105 net.cpp:148] Top shape: 24 32 14 14 (150528)
I0403 21:45:08.206194 24105 net.cpp:156] Memory required for data: 1132256544
I0403 21:45:08.206218 24105 layer_factory.hpp:77] Creating layer inception_4d/relu_5x5_reduce
I0403 21:45:08.206238 24105 net.cpp:91] Creating Layer inception_4d/relu_5x5_reduce
I0403 21:45:08.206254 24105 net.cpp:425] inception_4d/relu_5x5_reduce <- inception_4d/5x5_reduce
I0403 21:45:08.206274 24105 net.cpp:386] inception_4d/relu_5x5_reduce -> inception_4d/5x5_reduce (in-place)
I0403 21:45:08.206457 24105 net.cpp:141] Setting up inception_4d/relu_5x5_reduce
I0403 21:45:08.206483 24105 net.cpp:148] Top shape: 24 32 14 14 (150528)
I0403 21:45:08.206498 24105 net.cpp:156] Memory required for data: 1132858656
I0403 21:45:08.206513 24105 layer_factory.hpp:77] Creating layer inception_4d/5x5
I0403 21:45:08.206535 24105 net.cpp:91] Creating Layer inception_4d/5x5
I0403 21:45:08.206552 24105 net.cpp:425] inception_4d/5x5 <- inception_4d/5x5_reduce
I0403 21:45:08.206573 24105 net.cpp:399] inception_4d/5x5 -> inception_4d/5x5
I0403 21:45:08.207998 24105 net.cpp:141] Setting up inception_4d/5x5
I0403 21:45:08.208025 24105 net.cpp:148] Top shape: 24 64 14 14 (301056)
I0403 21:45:08.208045 24105 net.cpp:156] Memory required for data: 1134062880
I0403 21:45:08.208065 24105 layer_factory.hpp:77] Creating layer inception_4d/relu_5x5
I0403 21:45:08.208098 24105 net.cpp:91] Creating Layer inception_4d/relu_5x5
I0403 21:45:08.208117 24105 net.cpp:425] inception_4d/relu_5x5 <- inception_4d/5x5
I0403 21:45:08.208133 24105 net.cpp:386] inception_4d/relu_5x5 -> inception_4d/5x5 (in-place)
I0403 21:45:08.208439 24105 net.cpp:141] Setting up inception_4d/relu_5x5
I0403 21:45:08.208467 24105 net.cpp:148] Top shape: 24 64 14 14 (301056)
I0403 21:45:08.208487 24105 net.cpp:156] Memory required for data: 1135267104
I0403 21:45:08.208503 24105 layer_factory.hpp:77] Creating layer inception_4d/pool
I0403 21:45:08.208520 24105 net.cpp:91] Creating Layer inception_4d/pool
I0403 21:45:08.208536 24105 net.cpp:425] inception_4d/pool <- inception_4c/output_inception_4c/output_0_split_3
I0403 21:45:08.208555 24105 net.cpp:399] inception_4d/pool -> inception_4d/pool
I0403 21:45:08.208621 24105 net.cpp:141] Setting up inception_4d/pool
I0403 21:45:08.208645 24105 net.cpp:148] Top shape: 24 512 14 14 (2408448)
I0403 21:45:08.208660 24105 net.cpp:156] Memory required for data: 1144900896
I0403 21:45:08.208676 24105 layer_factory.hpp:77] Creating layer inception_4d/pool_proj
I0403 21:45:08.208698 24105 net.cpp:91] Creating Layer inception_4d/pool_proj
I0403 21:45:08.208716 24105 net.cpp:425] inception_4d/pool_proj <- inception_4d/pool
I0403 21:45:08.208737 24105 net.cpp:399] inception_4d/pool_proj -> inception_4d/pool_proj
I0403 21:45:08.210465 24105 net.cpp:141] Setting up inception_4d/pool_proj
I0403 21:45:08.210497 24105 net.cpp:148] Top shape: 24 64 14 14 (301056)
I0403 21:45:08.210513 24105 net.cpp:156] Memory required for data: 1146105120
I0403 21:45:08.210532 24105 layer_factory.hpp:77] Creating layer inception_4d/relu_pool_proj
I0403 21:45:08.210552 24105 net.cpp:91] Creating Layer inception_4d/relu_pool_proj
I0403 21:45:08.210571 24105 net.cpp:425] inception_4d/relu_pool_proj <- inception_4d/pool_proj
I0403 21:45:08.210588 24105 net.cpp:386] inception_4d/relu_pool_proj -> inception_4d/pool_proj (in-place)
I0403 21:45:08.210768 24105 net.cpp:141] Setting up inception_4d/relu_pool_proj
I0403 21:45:08.210793 24105 net.cpp:148] Top shape: 24 64 14 14 (301056)
I0403 21:45:08.210808 24105 net.cpp:156] Memory required for data: 1147309344
I0403 21:45:08.210824 24105 layer_factory.hpp:77] Creating layer inception_4d/output
I0403 21:45:08.210846 24105 net.cpp:91] Creating Layer inception_4d/output
I0403 21:45:08.210865 24105 net.cpp:425] inception_4d/output <- inception_4d/1x1
I0403 21:45:08.210882 24105 net.cpp:425] inception_4d/output <- inception_4d/3x3
I0403 21:45:08.210898 24105 net.cpp:425] inception_4d/output <- inception_4d/5x5
I0403 21:45:08.210913 24105 net.cpp:425] inception_4d/output <- inception_4d/pool_proj
I0403 21:45:08.210930 24105 net.cpp:399] inception_4d/output -> inception_4d/output
I0403 21:45:08.210978 24105 net.cpp:141] Setting up inception_4d/output
I0403 21:45:08.211002 24105 net.cpp:148] Top shape: 24 528 14 14 (2483712)
I0403 21:45:08.211017 24105 net.cpp:156] Memory required for data: 1157244192
I0403 21:45:08.211033 24105 layer_factory.hpp:77] Creating layer inception_4d/output_inception_4d/output_0_split
I0403 21:45:08.211050 24105 net.cpp:91] Creating Layer inception_4d/output_inception_4d/output_0_split
I0403 21:45:08.211066 24105 net.cpp:425] inception_4d/output_inception_4d/output_0_split <- inception_4d/output
I0403 21:45:08.211086 24105 net.cpp:399] inception_4d/output_inception_4d/output_0_split -> inception_4d/output_inception_4d/output_0_split_0
I0403 21:45:08.211108 24105 net.cpp:399] inception_4d/output_inception_4d/output_0_split -> inception_4d/output_inception_4d/output_0_split_1
I0403 21:45:08.211129 24105 net.cpp:399] inception_4d/output_inception_4d/output_0_split -> inception_4d/output_inception_4d/output_0_split_2
I0403 21:45:08.211151 24105 net.cpp:399] inception_4d/output_inception_4d/output_0_split -> inception_4d/output_inception_4d/output_0_split_3
I0403 21:45:08.211171 24105 net.cpp:399] inception_4d/output_inception_4d/output_0_split -> inception_4d/output_inception_4d/output_0_split_4
I0403 21:45:08.211279 24105 net.cpp:141] Setting up inception_4d/output_inception_4d/output_0_split
I0403 21:45:08.211315 24105 net.cpp:148] Top shape: 24 528 14 14 (2483712)
I0403 21:45:08.211333 24105 net.cpp:148] Top shape: 24 528 14 14 (2483712)
I0403 21:45:08.211349 24105 net.cpp:148] Top shape: 24 528 14 14 (2483712)
I0403 21:45:08.211365 24105 net.cpp:148] Top shape: 24 528 14 14 (2483712)
I0403 21:45:08.211381 24105 net.cpp:148] Top shape: 24 528 14 14 (2483712)
I0403 21:45:08.211395 24105 net.cpp:156] Memory required for data: 1206918432
I0403 21:45:08.211410 24105 layer_factory.hpp:77] Creating layer loss2/ave_pool
I0403 21:45:08.211428 24105 net.cpp:91] Creating Layer loss2/ave_pool
I0403 21:45:08.211444 24105 net.cpp:425] loss2/ave_pool <- inception_4d/output_inception_4d/output_0_split_0
I0403 21:45:08.211465 24105 net.cpp:399] loss2/ave_pool -> loss2/ave_pool
I0403 21:45:08.211769 24105 net.cpp:141] Setting up loss2/ave_pool
I0403 21:45:08.211796 24105 net.cpp:148] Top shape: 24 528 4 4 (202752)
I0403 21:45:08.211812 24105 net.cpp:156] Memory required for data: 1207729440
I0403 21:45:08.211827 24105 layer_factory.hpp:77] Creating layer loss2/conv
I0403 21:45:08.211848 24105 net.cpp:91] Creating Layer loss2/conv
I0403 21:45:08.211866 24105 net.cpp:425] loss2/conv <- loss2/ave_pool
I0403 21:45:08.211889 24105 net.cpp:399] loss2/conv -> loss2/conv
I0403 21:45:08.213740 24105 net.cpp:141] Setting up loss2/conv
I0403 21:45:08.213768 24105 net.cpp:148] Top shape: 24 128 4 4 (49152)
I0403 21:45:08.213785 24105 net.cpp:156] Memory required for data: 1207926048
I0403 21:45:08.213804 24105 layer_factory.hpp:77] Creating layer loss2/relu_conv
I0403 21:45:08.213825 24105 net.cpp:91] Creating Layer loss2/relu_conv
I0403 21:45:08.213843 24105 net.cpp:425] loss2/relu_conv <- loss2/conv
I0403 21:45:08.213862 24105 net.cpp:386] loss2/relu_conv -> loss2/conv (in-place)
I0403 21:45:08.214155 24105 net.cpp:141] Setting up loss2/relu_conv
I0403 21:45:08.214181 24105 net.cpp:148] Top shape: 24 128 4 4 (49152)
I0403 21:45:08.214200 24105 net.cpp:156] Memory required for data: 1208122656
I0403 21:45:08.214226 24105 layer_factory.hpp:77] Creating layer loss2/fc
I0403 21:45:08.214249 24105 net.cpp:91] Creating Layer loss2/fc
I0403 21:45:08.214267 24105 net.cpp:425] loss2/fc <- loss2/conv
I0403 21:45:08.214288 24105 net.cpp:399] loss2/fc -> loss2/fc
I0403 21:45:08.231515 24105 net.cpp:141] Setting up loss2/fc
I0403 21:45:08.231549 24105 net.cpp:148] Top shape: 24 1024 (24576)
I0403 21:45:08.231565 24105 net.cpp:156] Memory required for data: 1208220960
I0403 21:45:08.231585 24105 layer_factory.hpp:77] Creating layer loss2/relu_fc
I0403 21:45:08.231602 24105 net.cpp:91] Creating Layer loss2/relu_fc
I0403 21:45:08.231619 24105 net.cpp:425] loss2/relu_fc <- loss2/fc
I0403 21:45:08.231639 24105 net.cpp:386] loss2/relu_fc -> loss2/fc (in-place)
I0403 21:45:08.231931 24105 net.cpp:141] Setting up loss2/relu_fc
I0403 21:45:08.231958 24105 net.cpp:148] Top shape: 24 1024 (24576)
I0403 21:45:08.231974 24105 net.cpp:156] Memory required for data: 1208319264
I0403 21:45:08.231991 24105 layer_factory.hpp:77] Creating layer loss2/drop_fc
I0403 21:45:08.232008 24105 net.cpp:91] Creating Layer loss2/drop_fc
I0403 21:45:08.232024 24105 net.cpp:425] loss2/drop_fc <- loss2/fc
I0403 21:45:08.232043 24105 net.cpp:386] loss2/drop_fc -> loss2/fc (in-place)
I0403 21:45:08.232095 24105 net.cpp:141] Setting up loss2/drop_fc
I0403 21:45:08.232118 24105 net.cpp:148] Top shape: 24 1024 (24576)
I0403 21:45:08.232133 24105 net.cpp:156] Memory required for data: 1208417568
I0403 21:45:08.232148 24105 layer_factory.hpp:77] Creating layer loss2/classifier_plantvillage
I0403 21:45:08.232167 24105 net.cpp:91] Creating Layer loss2/classifier_plantvillage
I0403 21:45:08.232182 24105 net.cpp:425] loss2/classifier_plantvillage <- loss2/fc
I0403 21:45:08.232208 24105 net.cpp:399] loss2/classifier_plantvillage -> loss2/classifier_plantvillage
I0403 21:45:08.232601 24105 net.cpp:141] Setting up loss2/classifier_plantvillage
I0403 21:45:08.232626 24105 net.cpp:148] Top shape: 24 38 (912)
I0403 21:45:08.232658 24105 net.cpp:156] Memory required for data: 1208421216
I0403 21:45:08.232677 24105 layer_factory.hpp:77] Creating layer loss2/classifier_plantvillage_loss2/classifier_plantvillage_0_split
I0403 21:45:08.232697 24105 net.cpp:91] Creating Layer loss2/classifier_plantvillage_loss2/classifier_plantvillage_0_split
I0403 21:45:08.232717 24105 net.cpp:425] loss2/classifier_plantvillage_loss2/classifier_plantvillage_0_split <- loss2/classifier_plantvillage
I0403 21:45:08.232734 24105 net.cpp:399] loss2/classifier_plantvillage_loss2/classifier_plantvillage_0_split -> loss2/classifier_plantvillage_loss2/classifier_plantvillage_0_split_0
I0403 21:45:08.232758 24105 net.cpp:399] loss2/classifier_plantvillage_loss2/classifier_plantvillage_0_split -> loss2/classifier_plantvillage_loss2/classifier_plantvillage_0_split_1
I0403 21:45:08.232780 24105 net.cpp:399] loss2/classifier_plantvillage_loss2/classifier_plantvillage_0_split -> loss2/classifier_plantvillage_loss2/classifier_plantvillage_0_split_2
I0403 21:45:08.232859 24105 net.cpp:141] Setting up loss2/classifier_plantvillage_loss2/classifier_plantvillage_0_split
I0403 21:45:08.232882 24105 net.cpp:148] Top shape: 24 38 (912)
I0403 21:45:08.232899 24105 net.cpp:148] Top shape: 24 38 (912)
I0403 21:45:08.232915 24105 net.cpp:148] Top shape: 24 38 (912)
I0403 21:45:08.232929 24105 net.cpp:156] Memory required for data: 1208432160
I0403 21:45:08.232944 24105 layer_factory.hpp:77] Creating layer inception_4e/1x1
I0403 21:45:08.232966 24105 net.cpp:91] Creating Layer inception_4e/1x1
I0403 21:45:08.232983 24105 net.cpp:425] inception_4e/1x1 <- inception_4d/output_inception_4d/output_0_split_1
I0403 21:45:08.233002 24105 net.cpp:399] inception_4e/1x1 -> inception_4e/1x1
I0403 21:45:08.234762 24105 net.cpp:141] Setting up inception_4e/1x1
I0403 21:45:08.234793 24105 net.cpp:148] Top shape: 24 256 14 14 (1204224)
I0403 21:45:08.234812 24105 net.cpp:156] Memory required for data: 1213249056
I0403 21:45:08.234830 24105 layer_factory.hpp:77] Creating layer inception_4e/relu_1x1
I0403 21:45:08.234848 24105 net.cpp:91] Creating Layer inception_4e/relu_1x1
I0403 21:45:08.234864 24105 net.cpp:425] inception_4e/relu_1x1 <- inception_4e/1x1
I0403 21:45:08.234882 24105 net.cpp:386] inception_4e/relu_1x1 -> inception_4e/1x1 (in-place)
I0403 21:45:08.235168 24105 net.cpp:141] Setting up inception_4e/relu_1x1
I0403 21:45:08.235200 24105 net.cpp:148] Top shape: 24 256 14 14 (1204224)
I0403 21:45:08.235219 24105 net.cpp:156] Memory required for data: 1218065952
I0403 21:45:08.235235 24105 layer_factory.hpp:77] Creating layer inception_4e/3x3_reduce
I0403 21:45:08.235257 24105 net.cpp:91] Creating Layer inception_4e/3x3_reduce
I0403 21:45:08.235275 24105 net.cpp:425] inception_4e/3x3_reduce <- inception_4d/output_inception_4d/output_0_split_2
I0403 21:45:08.235296 24105 net.cpp:399] inception_4e/3x3_reduce -> inception_4e/3x3_reduce
I0403 21:45:08.237365 24105 net.cpp:141] Setting up inception_4e/3x3_reduce
I0403 21:45:08.237395 24105 net.cpp:148] Top shape: 24 160 14 14 (752640)
I0403 21:45:08.237411 24105 net.cpp:156] Memory required for data: 1221076512
I0403 21:45:08.237429 24105 layer_factory.hpp:77] Creating layer inception_4e/relu_3x3_reduce
I0403 21:45:08.237449 24105 net.cpp:91] Creating Layer inception_4e/relu_3x3_reduce
I0403 21:45:08.237467 24105 net.cpp:425] inception_4e/relu_3x3_reduce <- inception_4e/3x3_reduce
I0403 21:45:08.237484 24105 net.cpp:386] inception_4e/relu_3x3_reduce -> inception_4e/3x3_reduce (in-place)
I0403 21:45:08.237670 24105 net.cpp:141] Setting up inception_4e/relu_3x3_reduce
I0403 21:45:08.237699 24105 net.cpp:148] Top shape: 24 160 14 14 (752640)
I0403 21:45:08.237715 24105 net.cpp:156] Memory required for data: 1224087072
I0403 21:45:08.237730 24105 layer_factory.hpp:77] Creating layer inception_4e/3x3
I0403 21:45:08.237752 24105 net.cpp:91] Creating Layer inception_4e/3x3
I0403 21:45:08.237771 24105 net.cpp:425] inception_4e/3x3 <- inception_4e/3x3_reduce
I0403 21:45:08.237789 24105 net.cpp:399] inception_4e/3x3 -> inception_4e/3x3
I0403 21:45:08.242843 24105 net.cpp:141] Setting up inception_4e/3x3
I0403 21:45:08.242887 24105 net.cpp:148] Top shape: 24 320 14 14 (1505280)
I0403 21:45:08.242904 24105 net.cpp:156] Memory required for data: 1230108192
I0403 21:45:08.242923 24105 layer_factory.hpp:77] Creating layer inception_4e/relu_3x3
I0403 21:45:08.242941 24105 net.cpp:91] Creating Layer inception_4e/relu_3x3
I0403 21:45:08.242960 24105 net.cpp:425] inception_4e/relu_3x3 <- inception_4e/3x3
I0403 21:45:08.242982 24105 net.cpp:386] inception_4e/relu_3x3 -> inception_4e/3x3 (in-place)
I0403 21:45:08.243290 24105 net.cpp:141] Setting up inception_4e/relu_3x3
I0403 21:45:08.243317 24105 net.cpp:148] Top shape: 24 320 14 14 (1505280)
I0403 21:45:08.243335 24105 net.cpp:156] Memory required for data: 1236129312
I0403 21:45:08.243350 24105 layer_factory.hpp:77] Creating layer inception_4e/5x5_reduce
I0403 21:45:08.243374 24105 net.cpp:91] Creating Layer inception_4e/5x5_reduce
I0403 21:45:08.243393 24105 net.cpp:425] inception_4e/5x5_reduce <- inception_4d/output_inception_4d/output_0_split_3
I0403 21:45:08.243417 24105 net.cpp:399] inception_4e/5x5_reduce -> inception_4e/5x5_reduce
I0403 21:45:08.244484 24105 net.cpp:141] Setting up inception_4e/5x5_reduce
I0403 21:45:08.244513 24105 net.cpp:148] Top shape: 24 32 14 14 (150528)
I0403 21:45:08.244534 24105 net.cpp:156] Memory required for data: 1236731424
I0403 21:45:08.244554 24105 layer_factory.hpp:77] Creating layer inception_4e/relu_5x5_reduce
I0403 21:45:08.244572 24105 net.cpp:91] Creating Layer inception_4e/relu_5x5_reduce
I0403 21:45:08.244591 24105 net.cpp:425] inception_4e/relu_5x5_reduce <- inception_4e/5x5_reduce
I0403 21:45:08.244608 24105 net.cpp:386] inception_4e/relu_5x5_reduce -> inception_4e/5x5_reduce (in-place)
I0403 21:45:08.244909 24105 net.cpp:141] Setting up inception_4e/relu_5x5_reduce
I0403 21:45:08.244935 24105 net.cpp:148] Top shape: 24 32 14 14 (150528)
I0403 21:45:08.244956 24105 net.cpp:156] Memory required for data: 1237333536
I0403 21:45:08.244973 24105 layer_factory.hpp:77] Creating layer inception_4e/5x5
I0403 21:45:08.245012 24105 net.cpp:91] Creating Layer inception_4e/5x5
I0403 21:45:08.245031 24105 net.cpp:425] inception_4e/5x5 <- inception_4e/5x5_reduce
I0403 21:45:08.245054 24105 net.cpp:399] inception_4e/5x5 -> inception_4e/5x5
I0403 21:45:08.246918 24105 net.cpp:141] Setting up inception_4e/5x5
I0403 21:45:08.246948 24105 net.cpp:148] Top shape: 24 128 14 14 (602112)
I0403 21:45:08.246965 24105 net.cpp:156] Memory required for data: 1239741984
I0403 21:45:08.246985 24105 layer_factory.hpp:77] Creating layer inception_4e/relu_5x5
I0403 21:45:08.247006 24105 net.cpp:91] Creating Layer inception_4e/relu_5x5
I0403 21:45:08.247025 24105 net.cpp:425] inception_4e/relu_5x5 <- inception_4e/5x5
I0403 21:45:08.247043 24105 net.cpp:386] inception_4e/relu_5x5 -> inception_4e/5x5 (in-place)
I0403 21:45:08.247249 24105 net.cpp:141] Setting up inception_4e/relu_5x5
I0403 21:45:08.247277 24105 net.cpp:148] Top shape: 24 128 14 14 (602112)
I0403 21:45:08.247292 24105 net.cpp:156] Memory required for data: 1242150432
I0403 21:45:08.247308 24105 layer_factory.hpp:77] Creating layer inception_4e/pool
I0403 21:45:08.247328 24105 net.cpp:91] Creating Layer inception_4e/pool
I0403 21:45:08.247345 24105 net.cpp:425] inception_4e/pool <- inception_4d/output_inception_4d/output_0_split_4
I0403 21:45:08.247364 24105 net.cpp:399] inception_4e/pool -> inception_4e/pool
I0403 21:45:08.247437 24105 net.cpp:141] Setting up inception_4e/pool
I0403 21:45:08.247462 24105 net.cpp:148] Top shape: 24 528 14 14 (2483712)
I0403 21:45:08.247478 24105 net.cpp:156] Memory required for data: 1252085280
I0403 21:45:08.247493 24105 layer_factory.hpp:77] Creating layer inception_4e/pool_proj
I0403 21:45:08.247514 24105 net.cpp:91] Creating Layer inception_4e/pool_proj
I0403 21:45:08.247534 24105 net.cpp:425] inception_4e/pool_proj <- inception_4e/pool
I0403 21:45:08.247555 24105 net.cpp:399] inception_4e/pool_proj -> inception_4e/pool_proj
I0403 21:45:08.249065 24105 net.cpp:141] Setting up inception_4e/pool_proj
I0403 21:45:08.249105 24105 net.cpp:148] Top shape: 24 128 14 14 (602112)
I0403 21:45:08.249124 24105 net.cpp:156] Memory required for data: 1254493728
I0403 21:45:08.249142 24105 layer_factory.hpp:77] Creating layer inception_4e/relu_pool_proj
I0403 21:45:08.249164 24105 net.cpp:91] Creating Layer inception_4e/relu_pool_proj
I0403 21:45:08.249181 24105 net.cpp:425] inception_4e/relu_pool_proj <- inception_4e/pool_proj
I0403 21:45:08.249204 24105 net.cpp:386] inception_4e/relu_pool_proj -> inception_4e/pool_proj (in-place)
I0403 21:45:08.249497 24105 net.cpp:141] Setting up inception_4e/relu_pool_proj
I0403 21:45:08.249526 24105 net.cpp:148] Top shape: 24 128 14 14 (602112)
I0403 21:45:08.249541 24105 net.cpp:156] Memory required for data: 1256902176
I0403 21:45:08.249557 24105 layer_factory.hpp:77] Creating layer inception_4e/output
I0403 21:45:08.249575 24105 net.cpp:91] Creating Layer inception_4e/output
I0403 21:45:08.249591 24105 net.cpp:425] inception_4e/output <- inception_4e/1x1
I0403 21:45:08.249610 24105 net.cpp:425] inception_4e/output <- inception_4e/3x3
I0403 21:45:08.249626 24105 net.cpp:425] inception_4e/output <- inception_4e/5x5
I0403 21:45:08.249644 24105 net.cpp:425] inception_4e/output <- inception_4e/pool_proj
I0403 21:45:08.249663 24105 net.cpp:399] inception_4e/output -> inception_4e/output
I0403 21:45:08.249714 24105 net.cpp:141] Setting up inception_4e/output
I0403 21:45:08.249742 24105 net.cpp:148] Top shape: 24 832 14 14 (3913728)
I0403 21:45:08.249758 24105 net.cpp:156] Memory required for data: 1272557088
I0403 21:45:08.249774 24105 layer_factory.hpp:77] Creating layer pool4/3x3_s2
I0403 21:45:08.249793 24105 net.cpp:91] Creating Layer pool4/3x3_s2
I0403 21:45:08.249809 24105 net.cpp:425] pool4/3x3_s2 <- inception_4e/output
I0403 21:45:08.249831 24105 net.cpp:399] pool4/3x3_s2 -> pool4/3x3_s2
I0403 21:45:08.249899 24105 net.cpp:141] Setting up pool4/3x3_s2
I0403 21:45:08.249924 24105 net.cpp:148] Top shape: 24 832 7 7 (978432)
I0403 21:45:08.249939 24105 net.cpp:156] Memory required for data: 1276470816
I0403 21:45:08.249958 24105 layer_factory.hpp:77] Creating layer pool4/3x3_s2_pool4/3x3_s2_0_split
I0403 21:45:08.249977 24105 net.cpp:91] Creating Layer pool4/3x3_s2_pool4/3x3_s2_0_split
I0403 21:45:08.249994 24105 net.cpp:425] pool4/3x3_s2_pool4/3x3_s2_0_split <- pool4/3x3_s2
I0403 21:45:08.250012 24105 net.cpp:399] pool4/3x3_s2_pool4/3x3_s2_0_split -> pool4/3x3_s2_pool4/3x3_s2_0_split_0
I0403 21:45:08.250033 24105 net.cpp:399] pool4/3x3_s2_pool4/3x3_s2_0_split -> pool4/3x3_s2_pool4/3x3_s2_0_split_1
I0403 21:45:08.250056 24105 net.cpp:399] pool4/3x3_s2_pool4/3x3_s2_0_split -> pool4/3x3_s2_pool4/3x3_s2_0_split_2
I0403 21:45:08.250078 24105 net.cpp:399] pool4/3x3_s2_pool4/3x3_s2_0_split -> pool4/3x3_s2_pool4/3x3_s2_0_split_3
I0403 21:45:08.250171 24105 net.cpp:141] Setting up pool4/3x3_s2_pool4/3x3_s2_0_split
I0403 21:45:08.250198 24105 net.cpp:148] Top shape: 24 832 7 7 (978432)
I0403 21:45:08.250217 24105 net.cpp:148] Top shape: 24 832 7 7 (978432)
I0403 21:45:08.250234 24105 net.cpp:148] Top shape: 24 832 7 7 (978432)
I0403 21:45:08.250250 24105 net.cpp:148] Top shape: 24 832 7 7 (978432)
I0403 21:45:08.250265 24105 net.cpp:156] Memory required for data: 1292125728
I0403 21:45:08.250280 24105 layer_factory.hpp:77] Creating layer inception_5a/1x1
I0403 21:45:08.250303 24105 net.cpp:91] Creating Layer inception_5a/1x1
I0403 21:45:08.250322 24105 net.cpp:425] inception_5a/1x1 <- pool4/3x3_s2_pool4/3x3_s2_0_split_0
I0403 21:45:08.250344 24105 net.cpp:399] inception_5a/1x1 -> inception_5a/1x1
I0403 21:45:08.253212 24105 net.cpp:141] Setting up inception_5a/1x1
I0403 21:45:08.253242 24105 net.cpp:148] Top shape: 24 256 7 7 (301056)
I0403 21:45:08.253259 24105 net.cpp:156] Memory required for data: 1293329952
I0403 21:45:08.253278 24105 layer_factory.hpp:77] Creating layer inception_5a/relu_1x1
I0403 21:45:08.253299 24105 net.cpp:91] Creating Layer inception_5a/relu_1x1
I0403 21:45:08.253317 24105 net.cpp:425] inception_5a/relu_1x1 <- inception_5a/1x1
I0403 21:45:08.253335 24105 net.cpp:386] inception_5a/relu_1x1 -> inception_5a/1x1 (in-place)
I0403 21:45:08.253648 24105 net.cpp:141] Setting up inception_5a/relu_1x1
I0403 21:45:08.253674 24105 net.cpp:148] Top shape: 24 256 7 7 (301056)
I0403 21:45:08.253691 24105 net.cpp:156] Memory required for data: 1294534176
I0403 21:45:08.253706 24105 layer_factory.hpp:77] Creating layer inception_5a/3x3_reduce
I0403 21:45:08.253729 24105 net.cpp:91] Creating Layer inception_5a/3x3_reduce
I0403 21:45:08.253748 24105 net.cpp:425] inception_5a/3x3_reduce <- pool4/3x3_s2_pool4/3x3_s2_0_split_1
I0403 21:45:08.253772 24105 net.cpp:399] inception_5a/3x3_reduce -> inception_5a/3x3_reduce
I0403 21:45:08.256283 24105 net.cpp:141] Setting up inception_5a/3x3_reduce
I0403 21:45:08.256311 24105 net.cpp:148] Top shape: 24 160 7 7 (188160)
I0403 21:45:08.256328 24105 net.cpp:156] Memory required for data: 1295286816
I0403 21:45:08.256347 24105 layer_factory.hpp:77] Creating layer inception_5a/relu_3x3_reduce
I0403 21:45:08.256366 24105 net.cpp:91] Creating Layer inception_5a/relu_3x3_reduce
I0403 21:45:08.256382 24105 net.cpp:425] inception_5a/relu_3x3_reduce <- inception_5a/3x3_reduce
I0403 21:45:08.256403 24105 net.cpp:386] inception_5a/relu_3x3_reduce -> inception_5a/3x3_reduce (in-place)
I0403 21:45:08.256588 24105 net.cpp:141] Setting up inception_5a/relu_3x3_reduce
I0403 21:45:08.256614 24105 net.cpp:148] Top shape: 24 160 7 7 (188160)
I0403 21:45:08.256629 24105 net.cpp:156] Memory required for data: 1296039456
I0403 21:45:08.256644 24105 layer_factory.hpp:77] Creating layer inception_5a/3x3
I0403 21:45:08.256667 24105 net.cpp:91] Creating Layer inception_5a/3x3
I0403 21:45:08.256685 24105 net.cpp:425] inception_5a/3x3 <- inception_5a/3x3_reduce
I0403 21:45:08.256708 24105 net.cpp:399] inception_5a/3x3 -> inception_5a/3x3
I0403 21:45:08.261639 24105 net.cpp:141] Setting up inception_5a/3x3
I0403 21:45:08.261669 24105 net.cpp:148] Top shape: 24 320 7 7 (376320)
I0403 21:45:08.261687 24105 net.cpp:156] Memory required for data: 1297544736
I0403 21:45:08.261704 24105 layer_factory.hpp:77] Creating layer inception_5a/relu_3x3
I0403 21:45:08.261725 24105 net.cpp:91] Creating Layer inception_5a/relu_3x3
I0403 21:45:08.261744 24105 net.cpp:425] inception_5a/relu_3x3 <- inception_5a/3x3
I0403 21:45:08.261762 24105 net.cpp:386] inception_5a/relu_3x3 -> inception_5a/3x3 (in-place)
I0403 21:45:08.262056 24105 net.cpp:141] Setting up inception_5a/relu_3x3
I0403 21:45:08.262082 24105 net.cpp:148] Top shape: 24 320 7 7 (376320)
I0403 21:45:08.262099 24105 net.cpp:156] Memory required for data: 1299050016
I0403 21:45:08.262114 24105 layer_factory.hpp:77] Creating layer inception_5a/5x5_reduce
I0403 21:45:08.262136 24105 net.cpp:91] Creating Layer inception_5a/5x5_reduce
I0403 21:45:08.262154 24105 net.cpp:425] inception_5a/5x5_reduce <- pool4/3x3_s2_pool4/3x3_s2_0_split_2
I0403 21:45:08.262176 24105 net.cpp:399] inception_5a/5x5_reduce -> inception_5a/5x5_reduce
I0403 21:45:08.263319 24105 net.cpp:141] Setting up inception_5a/5x5_reduce
I0403 21:45:08.263348 24105 net.cpp:148] Top shape: 24 32 7 7 (37632)
I0403 21:45:08.263365 24105 net.cpp:156] Memory required for data: 1299200544
I0403 21:45:08.263384 24105 layer_factory.hpp:77] Creating layer inception_5a/relu_5x5_reduce
I0403 21:45:08.263404 24105 net.cpp:91] Creating Layer inception_5a/relu_5x5_reduce
I0403 21:45:08.263420 24105 net.cpp:425] inception_5a/relu_5x5_reduce <- inception_5a/5x5_reduce
I0403 21:45:08.263438 24105 net.cpp:386] inception_5a/relu_5x5_reduce -> inception_5a/5x5_reduce (in-place)
I0403 21:45:08.263731 24105 net.cpp:141] Setting up inception_5a/relu_5x5_reduce
I0403 21:45:08.263757 24105 net.cpp:148] Top shape: 24 32 7 7 (37632)
I0403 21:45:08.263773 24105 net.cpp:156] Memory required for data: 1299351072
I0403 21:45:08.263788 24105 layer_factory.hpp:77] Creating layer inception_5a/5x5
I0403 21:45:08.263811 24105 net.cpp:91] Creating Layer inception_5a/5x5
I0403 21:45:08.263830 24105 net.cpp:425] inception_5a/5x5 <- inception_5a/5x5_reduce
I0403 21:45:08.263850 24105 net.cpp:399] inception_5a/5x5 -> inception_5a/5x5
I0403 21:45:08.265530 24105 net.cpp:141] Setting up inception_5a/5x5
I0403 21:45:08.265569 24105 net.cpp:148] Top shape: 24 128 7 7 (150528)
I0403 21:45:08.265586 24105 net.cpp:156] Memory required for data: 1299953184
I0403 21:45:08.265605 24105 layer_factory.hpp:77] Creating layer inception_5a/relu_5x5
I0403 21:45:08.265625 24105 net.cpp:91] Creating Layer inception_5a/relu_5x5
I0403 21:45:08.265642 24105 net.cpp:425] inception_5a/relu_5x5 <- inception_5a/5x5
I0403 21:45:08.265661 24105 net.cpp:386] inception_5a/relu_5x5 -> inception_5a/5x5 (in-place)
I0403 21:45:08.265851 24105 net.cpp:141] Setting up inception_5a/relu_5x5
I0403 21:45:08.265877 24105 net.cpp:148] Top shape: 24 128 7 7 (150528)
I0403 21:45:08.265892 24105 net.cpp:156] Memory required for data: 1300555296
I0403 21:45:08.265907 24105 layer_factory.hpp:77] Creating layer inception_5a/pool
I0403 21:45:08.265928 24105 net.cpp:91] Creating Layer inception_5a/pool
I0403 21:45:08.265944 24105 net.cpp:425] inception_5a/pool <- pool4/3x3_s2_pool4/3x3_s2_0_split_3
I0403 21:45:08.265965 24105 net.cpp:399] inception_5a/pool -> inception_5a/pool
I0403 21:45:08.266034 24105 net.cpp:141] Setting up inception_5a/pool
I0403 21:45:08.266059 24105 net.cpp:148] Top shape: 24 832 7 7 (978432)
I0403 21:45:08.266074 24105 net.cpp:156] Memory required for data: 1304469024
I0403 21:45:08.266088 24105 layer_factory.hpp:77] Creating layer inception_5a/pool_proj
I0403 21:45:08.266110 24105 net.cpp:91] Creating Layer inception_5a/pool_proj
I0403 21:45:08.266129 24105 net.cpp:425] inception_5a/pool_proj <- inception_5a/pool
I0403 21:45:08.266150 24105 net.cpp:399] inception_5a/pool_proj -> inception_5a/pool_proj
I0403 21:45:08.268404 24105 net.cpp:141] Setting up inception_5a/pool_proj
I0403 21:45:08.268435 24105 net.cpp:148] Top shape: 24 128 7 7 (150528)
I0403 21:45:08.268451 24105 net.cpp:156] Memory required for data: 1305071136
I0403 21:45:08.268470 24105 layer_factory.hpp:77] Creating layer inception_5a/relu_pool_proj
I0403 21:45:08.268488 24105 net.cpp:91] Creating Layer inception_5a/relu_pool_proj
I0403 21:45:08.268507 24105 net.cpp:425] inception_5a/relu_pool_proj <- inception_5a/pool_proj
I0403 21:45:08.268527 24105 net.cpp:386] inception_5a/relu_pool_proj -> inception_5a/pool_proj (in-place)
I0403 21:45:08.268816 24105 net.cpp:141] Setting up inception_5a/relu_pool_proj
I0403 21:45:08.268843 24105 net.cpp:148] Top shape: 24 128 7 7 (150528)
I0403 21:45:08.268867 24105 net.cpp:156] Memory required for data: 1305673248
I0403 21:45:08.268882 24105 layer_factory.hpp:77] Creating layer inception_5a/output
I0403 21:45:08.268899 24105 net.cpp:91] Creating Layer inception_5a/output
I0403 21:45:08.268915 24105 net.cpp:425] inception_5a/output <- inception_5a/1x1
I0403 21:45:08.268934 24105 net.cpp:425] inception_5a/output <- inception_5a/3x3
I0403 21:45:08.268949 24105 net.cpp:425] inception_5a/output <- inception_5a/5x5
I0403 21:45:08.268966 24105 net.cpp:425] inception_5a/output <- inception_5a/pool_proj
I0403 21:45:08.268985 24105 net.cpp:399] inception_5a/output -> inception_5a/output
I0403 21:45:08.269035 24105 net.cpp:141] Setting up inception_5a/output
I0403 21:45:08.269062 24105 net.cpp:148] Top shape: 24 832 7 7 (978432)
I0403 21:45:08.269078 24105 net.cpp:156] Memory required for data: 1309586976
I0403 21:45:08.269093 24105 layer_factory.hpp:77] Creating layer inception_5a/output_inception_5a/output_0_split
I0403 21:45:08.269109 24105 net.cpp:91] Creating Layer inception_5a/output_inception_5a/output_0_split
I0403 21:45:08.269124 24105 net.cpp:425] inception_5a/output_inception_5a/output_0_split <- inception_5a/output
I0403 21:45:08.269142 24105 net.cpp:399] inception_5a/output_inception_5a/output_0_split -> inception_5a/output_inception_5a/output_0_split_0
I0403 21:45:08.269170 24105 net.cpp:399] inception_5a/output_inception_5a/output_0_split -> inception_5a/output_inception_5a/output_0_split_1
I0403 21:45:08.269192 24105 net.cpp:399] inception_5a/output_inception_5a/output_0_split -> inception_5a/output_inception_5a/output_0_split_2
I0403 21:45:08.269218 24105 net.cpp:399] inception_5a/output_inception_5a/output_0_split -> inception_5a/output_inception_5a/output_0_split_3
I0403 21:45:08.269335 24105 net.cpp:141] Setting up inception_5a/output_inception_5a/output_0_split
I0403 21:45:08.269359 24105 net.cpp:148] Top shape: 24 832 7 7 (978432)
I0403 21:45:08.269376 24105 net.cpp:148] Top shape: 24 832 7 7 (978432)
I0403 21:45:08.269392 24105 net.cpp:148] Top shape: 24 832 7 7 (978432)
I0403 21:45:08.269408 24105 net.cpp:148] Top shape: 24 832 7 7 (978432)
I0403 21:45:08.269423 24105 net.cpp:156] Memory required for data: 1325241888
I0403 21:45:08.269438 24105 layer_factory.hpp:77] Creating layer inception_5b/1x1
I0403 21:45:08.269460 24105 net.cpp:91] Creating Layer inception_5b/1x1
I0403 21:45:08.269479 24105 net.cpp:425] inception_5b/1x1 <- inception_5a/output_inception_5a/output_0_split_0
I0403 21:45:08.269498 24105 net.cpp:399] inception_5b/1x1 -> inception_5b/1x1
I0403 21:45:08.273186 24105 net.cpp:141] Setting up inception_5b/1x1
I0403 21:45:08.273221 24105 net.cpp:148] Top shape: 24 384 7 7 (451584)
I0403 21:45:08.273237 24105 net.cpp:156] Memory required for data: 1327048224
I0403 21:45:08.273257 24105 layer_factory.hpp:77] Creating layer inception_5b/relu_1x1
I0403 21:45:08.273274 24105 net.cpp:91] Creating Layer inception_5b/relu_1x1
I0403 21:45:08.273291 24105 net.cpp:425] inception_5b/relu_1x1 <- inception_5b/1x1
I0403 21:45:08.273311 24105 net.cpp:386] inception_5b/relu_1x1 -> inception_5b/1x1 (in-place)
I0403 21:45:08.273609 24105 net.cpp:141] Setting up inception_5b/relu_1x1
I0403 21:45:08.273635 24105 net.cpp:148] Top shape: 24 384 7 7 (451584)
I0403 21:45:08.273651 24105 net.cpp:156] Memory required for data: 1328854560
I0403 21:45:08.273666 24105 layer_factory.hpp:77] Creating layer inception_5b/3x3_reduce
I0403 21:45:08.273689 24105 net.cpp:91] Creating Layer inception_5b/3x3_reduce
I0403 21:45:08.273710 24105 net.cpp:425] inception_5b/3x3_reduce <- inception_5a/output_inception_5a/output_0_split_1
I0403 21:45:08.273732 24105 net.cpp:399] inception_5b/3x3_reduce -> inception_5b/3x3_reduce
I0403 21:45:08.276404 24105 net.cpp:141] Setting up inception_5b/3x3_reduce
I0403 21:45:08.276433 24105 net.cpp:148] Top shape: 24 192 7 7 (225792)
I0403 21:45:08.276450 24105 net.cpp:156] Memory required for data: 1329757728
I0403 21:45:08.276469 24105 layer_factory.hpp:77] Creating layer inception_5b/relu_3x3_reduce
I0403 21:45:08.276487 24105 net.cpp:91] Creating Layer inception_5b/relu_3x3_reduce
I0403 21:45:08.276504 24105 net.cpp:425] inception_5b/relu_3x3_reduce <- inception_5b/3x3_reduce
I0403 21:45:08.276522 24105 net.cpp:386] inception_5b/relu_3x3_reduce -> inception_5b/3x3_reduce (in-place)
I0403 21:45:08.276707 24105 net.cpp:141] Setting up inception_5b/relu_3x3_reduce
I0403 21:45:08.276733 24105 net.cpp:148] Top shape: 24 192 7 7 (225792)
I0403 21:45:08.276748 24105 net.cpp:156] Memory required for data: 1330660896
I0403 21:45:08.276763 24105 layer_factory.hpp:77] Creating layer inception_5b/3x3
I0403 21:45:08.276785 24105 net.cpp:91] Creating Layer inception_5b/3x3
I0403 21:45:08.276803 24105 net.cpp:425] inception_5b/3x3 <- inception_5b/3x3_reduce
I0403 21:45:08.276825 24105 net.cpp:399] inception_5b/3x3 -> inception_5b/3x3
I0403 21:45:08.283413 24105 net.cpp:141] Setting up inception_5b/3x3
I0403 21:45:08.283443 24105 net.cpp:148] Top shape: 24 384 7 7 (451584)
I0403 21:45:08.283460 24105 net.cpp:156] Memory required for data: 1332467232
I0403 21:45:08.283479 24105 layer_factory.hpp:77] Creating layer inception_5b/relu_3x3
I0403 21:45:08.283498 24105 net.cpp:91] Creating Layer inception_5b/relu_3x3
I0403 21:45:08.283514 24105 net.cpp:425] inception_5b/relu_3x3 <- inception_5b/3x3
I0403 21:45:08.283535 24105 net.cpp:386] inception_5b/relu_3x3 -> inception_5b/3x3 (in-place)
I0403 21:45:08.283828 24105 net.cpp:141] Setting up inception_5b/relu_3x3
I0403 21:45:08.283855 24105 net.cpp:148] Top shape: 24 384 7 7 (451584)
I0403 21:45:08.283870 24105 net.cpp:156] Memory required for data: 1334273568
I0403 21:45:08.283885 24105 layer_factory.hpp:77] Creating layer inception_5b/5x5_reduce
I0403 21:45:08.283922 24105 net.cpp:91] Creating Layer inception_5b/5x5_reduce
I0403 21:45:08.283942 24105 net.cpp:425] inception_5b/5x5_reduce <- inception_5a/output_inception_5a/output_0_split_2
I0403 21:45:08.283967 24105 net.cpp:399] inception_5b/5x5_reduce -> inception_5b/5x5_reduce
I0403 21:45:08.285212 24105 net.cpp:141] Setting up inception_5b/5x5_reduce
I0403 21:45:08.285241 24105 net.cpp:148] Top shape: 24 48 7 7 (56448)
I0403 21:45:08.285259 24105 net.cpp:156] Memory required for data: 1334499360
I0403 21:45:08.285276 24105 layer_factory.hpp:77] Creating layer inception_5b/relu_5x5_reduce
I0403 21:45:08.285297 24105 net.cpp:91] Creating Layer inception_5b/relu_5x5_reduce
I0403 21:45:08.285315 24105 net.cpp:425] inception_5b/relu_5x5_reduce <- inception_5b/5x5_reduce
I0403 21:45:08.285333 24105 net.cpp:386] inception_5b/relu_5x5_reduce -> inception_5b/5x5_reduce (in-place)
I0403 21:45:08.285711 24105 net.cpp:141] Setting up inception_5b/relu_5x5_reduce
I0403 21:45:08.285737 24105 net.cpp:148] Top shape: 24 48 7 7 (56448)
I0403 21:45:08.285753 24105 net.cpp:156] Memory required for data: 1334725152
I0403 21:45:08.285778 24105 layer_factory.hpp:77] Creating layer inception_5b/5x5
I0403 21:45:08.285799 24105 net.cpp:91] Creating Layer inception_5b/5x5
I0403 21:45:08.285815 24105 net.cpp:425] inception_5b/5x5 <- inception_5b/5x5_reduce
I0403 21:45:08.285835 24105 net.cpp:399] inception_5b/5x5 -> inception_5b/5x5
I0403 21:45:08.287835 24105 net.cpp:141] Setting up inception_5b/5x5
I0403 21:45:08.287863 24105 net.cpp:148] Top shape: 24 128 7 7 (150528)
I0403 21:45:08.287880 24105 net.cpp:156] Memory required for data: 1335327264
I0403 21:45:08.287899 24105 layer_factory.hpp:77] Creating layer inception_5b/relu_5x5
I0403 21:45:08.287919 24105 net.cpp:91] Creating Layer inception_5b/relu_5x5
I0403 21:45:08.287937 24105 net.cpp:425] inception_5b/relu_5x5 <- inception_5b/5x5
I0403 21:45:08.287958 24105 net.cpp:386] inception_5b/relu_5x5 -> inception_5b/5x5 (in-place)
I0403 21:45:08.288151 24105 net.cpp:141] Setting up inception_5b/relu_5x5
I0403 21:45:08.288178 24105 net.cpp:148] Top shape: 24 128 7 7 (150528)
I0403 21:45:08.288194 24105 net.cpp:156] Memory required for data: 1335929376
I0403 21:45:08.288221 24105 layer_factory.hpp:77] Creating layer inception_5b/pool
I0403 21:45:08.288239 24105 net.cpp:91] Creating Layer inception_5b/pool
I0403 21:45:08.288256 24105 net.cpp:425] inception_5b/pool <- inception_5a/output_inception_5a/output_0_split_3
I0403 21:45:08.288275 24105 net.cpp:399] inception_5b/pool -> inception_5b/pool
I0403 21:45:08.288348 24105 net.cpp:141] Setting up inception_5b/pool
I0403 21:45:08.288373 24105 net.cpp:148] Top shape: 24 832 7 7 (978432)
I0403 21:45:08.288388 24105 net.cpp:156] Memory required for data: 1339843104
I0403 21:45:08.288403 24105 layer_factory.hpp:77] Creating layer inception_5b/pool_proj
I0403 21:45:08.288425 24105 net.cpp:91] Creating Layer inception_5b/pool_proj
I0403 21:45:08.288444 24105 net.cpp:425] inception_5b/pool_proj <- inception_5b/pool
I0403 21:45:08.288465 24105 net.cpp:399] inception_5b/pool_proj -> inception_5b/pool_proj
I0403 21:45:08.290747 24105 net.cpp:141] Setting up inception_5b/pool_proj
I0403 21:45:08.290777 24105 net.cpp:148] Top shape: 24 128 7 7 (150528)
I0403 21:45:08.290793 24105 net.cpp:156] Memory required for data: 1340445216
I0403 21:45:08.290812 24105 layer_factory.hpp:77] Creating layer inception_5b/relu_pool_proj
I0403 21:45:08.290832 24105 net.cpp:91] Creating Layer inception_5b/relu_pool_proj
I0403 21:45:08.290848 24105 net.cpp:425] inception_5b/relu_pool_proj <- inception_5b/pool_proj
I0403 21:45:08.290866 24105 net.cpp:386] inception_5b/relu_pool_proj -> inception_5b/pool_proj (in-place)
I0403 21:45:08.291164 24105 net.cpp:141] Setting up inception_5b/relu_pool_proj
I0403 21:45:08.291193 24105 net.cpp:148] Top shape: 24 128 7 7 (150528)
I0403 21:45:08.291213 24105 net.cpp:156] Memory required for data: 1341047328
I0403 21:45:08.291229 24105 layer_factory.hpp:77] Creating layer inception_5b/output
I0403 21:45:08.291246 24105 net.cpp:91] Creating Layer inception_5b/output
I0403 21:45:08.291277 24105 net.cpp:425] inception_5b/output <- inception_5b/1x1
I0403 21:45:08.291299 24105 net.cpp:425] inception_5b/output <- inception_5b/3x3
I0403 21:45:08.291316 24105 net.cpp:425] inception_5b/output <- inception_5b/5x5
I0403 21:45:08.291333 24105 net.cpp:425] inception_5b/output <- inception_5b/pool_proj
I0403 21:45:08.291350 24105 net.cpp:399] inception_5b/output -> inception_5b/output
I0403 21:45:08.291400 24105 net.cpp:141] Setting up inception_5b/output
I0403 21:45:08.291426 24105 net.cpp:148] Top shape: 24 1024 7 7 (1204224)
I0403 21:45:08.291443 24105 net.cpp:156] Memory required for data: 1345864224
I0403 21:45:08.291458 24105 layer_factory.hpp:77] Creating layer pool5/7x7_s1
I0403 21:45:08.291476 24105 net.cpp:91] Creating Layer pool5/7x7_s1
I0403 21:45:08.291491 24105 net.cpp:425] pool5/7x7_s1 <- inception_5b/output
I0403 21:45:08.291512 24105 net.cpp:399] pool5/7x7_s1 -> pool5/7x7_s1
I0403 21:45:08.291728 24105 net.cpp:141] Setting up pool5/7x7_s1
I0403 21:45:08.291754 24105 net.cpp:148] Top shape: 24 1024 1 1 (24576)
I0403 21:45:08.291769 24105 net.cpp:156] Memory required for data: 1345962528
I0403 21:45:08.291785 24105 layer_factory.hpp:77] Creating layer pool5/drop_7x7_s1
I0403 21:45:08.291805 24105 net.cpp:91] Creating Layer pool5/drop_7x7_s1
I0403 21:45:08.291822 24105 net.cpp:425] pool5/drop_7x7_s1 <- pool5/7x7_s1
I0403 21:45:08.291841 24105 net.cpp:386] pool5/drop_7x7_s1 -> pool5/7x7_s1 (in-place)
I0403 21:45:08.291892 24105 net.cpp:141] Setting up pool5/drop_7x7_s1
I0403 21:45:08.291915 24105 net.cpp:148] Top shape: 24 1024 1 1 (24576)
I0403 21:45:08.291929 24105 net.cpp:156] Memory required for data: 1346060832
I0403 21:45:08.291944 24105 layer_factory.hpp:77] Creating layer loss3/classifier_plantvillage
I0403 21:45:08.291963 24105 net.cpp:91] Creating Layer loss3/classifier_plantvillage
I0403 21:45:08.291980 24105 net.cpp:425] loss3/classifier_plantvillage <- pool5/7x7_s1
I0403 21:45:08.292001 24105 net.cpp:399] loss3/classifier_plantvillage -> loss3/classifier_plantvillage
I0403 21:45:08.292461 24105 net.cpp:141] Setting up loss3/classifier_plantvillage
I0403 21:45:08.292487 24105 net.cpp:148] Top shape: 24 38 (912)
I0403 21:45:08.292505 24105 net.cpp:156] Memory required for data: 1346064480
I0403 21:45:08.292525 24105 layer_factory.hpp:77] Creating layer loss3/classifier_plantvillage_loss3/classifier_plantvillage_0_split
I0403 21:45:08.292543 24105 net.cpp:91] Creating Layer loss3/classifier_plantvillage_loss3/classifier_plantvillage_0_split
I0403 21:45:08.292572 24105 net.cpp:425] loss3/classifier_plantvillage_loss3/classifier_plantvillage_0_split <- loss3/classifier_plantvillage
I0403 21:45:08.292594 24105 net.cpp:399] loss3/classifier_plantvillage_loss3/classifier_plantvillage_0_split -> loss3/classifier_plantvillage_loss3/classifier_plantvillage_0_split_0
I0403 21:45:08.292618 24105 net.cpp:399] loss3/classifier_plantvillage_loss3/classifier_plantvillage_0_split -> loss3/classifier_plantvillage_loss3/classifier_plantvillage_0_split_1
I0403 21:45:08.292639 24105 net.cpp:399] loss3/classifier_plantvillage_loss3/classifier_plantvillage_0_split -> loss3/classifier_plantvillage_loss3/classifier_plantvillage_0_split_2
I0403 21:45:08.292661 24105 net.cpp:399] loss3/classifier_plantvillage_loss3/classifier_plantvillage_0_split -> loss3/classifier_plantvillage_loss3/classifier_plantvillage_0_split_3
I0403 21:45:08.292767 24105 net.cpp:141] Setting up loss3/classifier_plantvillage_loss3/classifier_plantvillage_0_split
I0403 21:45:08.292790 24105 net.cpp:148] Top shape: 24 38 (912)
I0403 21:45:08.292807 24105 net.cpp:148] Top shape: 24 38 (912)
I0403 21:45:08.292824 24105 net.cpp:148] Top shape: 24 38 (912)
I0403 21:45:08.292840 24105 net.cpp:148] Top shape: 24 38 (912)
I0403 21:45:08.292855 24105 net.cpp:156] Memory required for data: 1346079072
I0403 21:45:08.292870 24105 layer_factory.hpp:77] Creating layer loss1/loss
I0403 21:45:08.292893 24105 net.cpp:91] Creating Layer loss1/loss
I0403 21:45:08.292913 24105 net.cpp:425] loss1/loss <- loss1/classifier_plantvillage_loss1/classifier_plantvillage_0_split_0
I0403 21:45:08.292944 24105 net.cpp:425] loss1/loss <- label_data_1_split_0
…
