…
I0403 21:55:52.424618 24726 net.cpp:313] The NetState phase (1) differed from the phase (0) specified by a rule in layer data
I0403 21:55:52.425743 24726 net.cpp:49] Initializing net from parameters: 
state {
  phase: TEST
}
layer {
  name: "data"
  type: "Data"
  top: "data"
  top: "label"
  include {
    phase: TEST
  }
  transform_param {
    mirror: false
    crop_size: 224
    mean_file: "/home/mohanty/data/final_dataset/lmdb/segmented-80-20/mean.binaryproto"
  }
  data_param {
    source: "/home/mohanty/data/final_dataset/lmdb/segmented-80-20/test_db"
    batch_size: 24
    backend: LMDB
  }
}
layer {
  name: "conv1/7x7_s2"
  type: "Convolution"
  bottom: "data"
  top: "conv1/7x7_s2"
  param {
    lr_mult: 1
    decay_mult: 1
  }
  param {
    lr_mult: 2
    decay_mult: 0
  }
  convolution_param {
    num_output: 64
    pad: 3
    kernel_size: 7
    stride: 2
    weight_filler {
      type: "xavier"
      std: 0.1
    }
    bias_filler {
      type: "constant"
      value: 0.2
    }
  }
}
layer {
  name: "conv1/relu_7x7"
  type: "ReLU"
  bottom: "conv1/7x7_s2"
  top: "conv1/7x7_s2"
}
layer {
  name: "pool1/3x3_s2"
  type: "Pooling"
  bottom: "conv1/7x7_s2"
  top: "pool1/3x3_s2"
  pooling_param {
    pool: MAX
    kernel_size: 3
    stride: 2
  }
}
layer {
  name: "pool1/norm1"
  type: "LRN"
  bottom: "pool1/3x3_s2"
  top: "pool1/norm1"
  lrn_param {
    local_size: 5
    alpha: 0.0001
    beta: 0.75
  }
}
layer {
  name: "conv2/3x3_reduce"
  type: "Convolution"
  bottom: "pool1/norm1"
  top: "conv2/3x3_reduce"
  param {
    lr_mult: 1
    decay_mult: 1
  }
  param {
    lr_mult: 2
    decay_mult: 0
  }
  convolution_param {
    num_output: 64
    kernel_size: 1
    weight_filler {
      type: "xavier"
      std: 0.1
    }
    bias_filler {
      type: "constant"
      value: 0.2
    }
  }
}
layer {
  name: "conv2/relu_3x3_reduce"
  type: "ReLU"
  bottom: "conv2/3x3_reduce"
  top: "conv2/3x3_reduce"
}
layer {
  name: "conv2/3x3"
  type: "Convolution"
  bottom: "conv2/3x3_reduce"
  top: "conv2/3x3"
  param {
    lr_mult: 1
    decay_mult: 1
  }
  param {
    lr_mult: 2
    decay_mult: 0
  }
  convolution_param {
    num_output: 192
    pad: 1
    kernel_size: 3
    weight_filler {
      type: "xavier"
      std: 0.03
    }
    bias_filler {
      type: "constant"
      value: 0.2
    }
  }
}
layer {
  name: "conv2/relu_3x3"
  type: "ReLU"
  bottom: "conv2/3x3"
  top: "conv2/3x3"
}
layer {
  name: "conv2/norm2"
  type: "LRN"
  bottom: "conv2/3x3"
  top: "conv2/norm2"
  lrn_param {
    local_size: 5
    alpha: 0.0001
    beta: 0.75
  }
}
layer {
  name: "pool2/3x3_s2"
  type: "Pooling"
  bottom: "conv2/norm2"
  top: "pool2/3x3_s2"
  pooling_param {
    pool: MAX
    kernel_size: 3
    stride: 2
  }
}
layer {
  name: "inception_3a/1x1"
  type: "Convolution"
  bottom: "pool2/3x3_s2"
  top: "inception_3a/1x1"
  param {
    lr_mult: 1
    decay_mult: 1
  }
  param {
    lr_mult: 2
    decay_mult: 0
  }
  convolution_param {
    num_output: 64
    kernel_size: 1
    weight_filler {
      type: "xavier"
      std: 0.03
    }
    bias_filler {
      type: "constant"
      value: 0.2
    }
  }
}
layer {
  name: "inception_3a/relu_1x1"
  type: "ReLU"
  bottom: "inception_3a/1x1"
  top: "inception_3a/1x1"
}
layer {
  name: "inception_3a/3x3_reduce"
  type: "Convolution"
  bottom: "pool2/3x3_s2"
  top: "inception_3a/3x3_reduce"
  param {
    lr_mult: 1
    decay_mult: 1
  }
  param {
    lr_mult: 2
    decay_mult: 0
  }
  convolution_param {
    num_output: 96
    kernel_size: 1
    weight_filler {
      type: "xavier"
      std: 0.09
    }
    bias_filler {
      type: "constant"
      value: 0.2
    }
  }
}
layer {
  name: "inception_3a/relu_3x3_reduce"
  type: "ReLU"
  bottom: "inception_3a/3x3_reduce"
  top: "inception_3a/3x3_reduce"
}
layer {
  name: "inception_3a/3x3"
  type: "Convolution"
  bottom: "inception_3a/3x3_reduce"
  top: "inception_3a/3x3"
  param {
    lr_mult: 1
    decay_mult: 1
  }
  param {
    lr_mult: 2
    decay_mult: 0
  }
  convolution_param {
    num_output: 128
    pad: 1
    kernel_size: 3
    weight_filler {
      type: "xavier"
      std: 0.03
    }
    bias_filler {
      type: "constant"
      value: 0.2
    }
  }
}
layer {
  name: "inception_3a/relu_3x3"
  type: "ReLU"
  bottom: "inception_3a/3x3"
  top: "inception_3a/3x3"
}
layer {
  name: "inception_3a/5x5_reduce"
  type: "Convolution"
  bottom: "pool2/3x3_s2"
  top: "inception_3a/5x5_reduce"
  param {
    lr_mult: 1
    decay_mult: 1
  }
  param {
    lr_mult: 2
    decay_mult: 0
  }
  convolution_param {
    num_output: 16
    kernel_size: 1
    weight_filler {
      type: "xavier"
      std: 0.2
    }
    bias_filler {
      type: "constant"
      value: 0.2
    }
  }
}
layer {
  name: "inception_3a/relu_5x5_reduce"
  type: "ReLU"
  bottom: "inception_3a/5x5_reduce"
  top: "inception_3a/5x5_reduce"
}
layer {
  name: "inception_3a/5x5"
  type: "Convolution"
  bottom: "inception_3a/5x5_reduce"
  top: "inception_3a/5x5"
  param {
    lr_mult: 1
    decay_mult: 1
  }
  param {
    lr_mult: 2
    decay_mult: 0
  }
  convolution_param {
    num_output: 32
    pad: 2
    kernel_size: 5
    weight_filler {
      type: "xavier"
      std: 0.03
    }
    bias_filler {
      type: "constant"
      value: 0.2
    }
  }
}
layer {
  name: "inception_3a/relu_5x5"
  type: "ReLU"
  bottom: "inception_3a/5x5"
  top: "inception_3a/5x5"
}
layer {
  name: "inception_3a/pool"
  type: "Pooling"
  bottom: "pool2/3x3_s2"
  top: "inception_3a/pool"
  pooling_param {
    pool: MAX
    kernel_size: 3
    stride: 1
    pad: 1
  }
}
layer {
  name: "inception_3a/pool_proj"
  type: "Convolution"
  bottom: "inception_3a/pool"
  top: "inception_3a/pool_proj"
  param {
    lr_mult: 1
    decay_mult: 1
  }
  param {
    lr_mult: 2
    decay_mult: 0
  }
  convolution_param {
    num_output: 32
    kernel_size: 1
    weight_filler {
      type: "xavier"
      std: 0.1
    }
    bias_filler {
      type: "constant"
      value: 0.2
    }
  }
}
layer {
  name: "inception_3a/relu_pool_proj"
  type: "ReLU"
  bottom: "inception_3a/pool_proj"
  top: "inception_3a/pool_proj"
}
layer {
  name: "inception_3a/output"
  type: "Concat"
  bottom: "inception_3a/1x1"
  bottom: "inception_3a/3x3"
  bottom: "inception_3a/5x5"
  bottom: "inception_3a/pool_proj"
  top: "inception_3a/output"
}
layer {
  name: "inception_3b/1x1"
  type: "Convolution"
  bottom: "inception_3a/output"
  top: "inception_3b/1x1"
  param {
    lr_mult: 1
    decay_mult: 1
  }
  param {
    lr_mult: 2
    decay_mult: 0
  }
  convolution_param {
    num_output: 128
    kernel_size: 1
    weight_filler {
      type: "xavier"
      std: 0.03
    }
    bias_filler {
      type: "constant"
      value: 0.2
    }
  }
}
layer {
  name: "inception_3b/relu_1x1"
  type: "ReLU"
  bottom: "inception_3b/1x1"
  top: "inception_3b/1x1"
}
layer {
  name: "inception_3b/3x3_reduce"
  type: "Convolution"
  bottom: "inception_3a/output"
  top: "inception_3b/3x3_reduce"
  param {
    lr_mult: 1
    decay_mult: 1
  }
  param {
    lr_mult: 2
    decay_mult: 0
  }
  convolution_param {
    num_output: 128
    kernel_size: 1
    weight_filler {
      type: "xavier"
      std: 0.09
    }
    bias_filler {
      type: "constant"
      value: 0.2
    }
  }
}
layer {
  name: "inception_3b/relu_3x3_reduce"
  type: "ReLU"
  bottom: "inception_3b/3x3_reduce"
  top: "inception_3b/3x3_reduce"
}
layer {
  name: "inception_3b/3x3"
  type: "Convolution"
  bottom: "inception_3b/3x3_reduce"
  top: "inception_3b/3x3"
  param {
    lr_mult: 1
    decay_mult: 1
  }
  param {
    lr_mult: 2
    decay_mult: 0
  }
  convolution_param {
    num_output: 192
    pad: 1
    kernel_size: 3
    weight_filler {
      type: "xavier"
      std: 0.03
    }
    bias_filler {
      type: "constant"
      value: 0.2
    }
  }
}
layer {
  name: "inception_3b/relu_3x3"
  type: "ReLU"
  bottom: "inception_3b/3x3"
  top: "inception_3b/3x3"
}
layer {
  name: "inception_3b/5x5_reduce"
  type: "Convolution"
  bottom: "inception_3a/output"
  top: "inception_3b/5x5_reduce"
  param {
    lr_mult: 1
    decay_mult: 1
  }
  param {
    lr_mult: 2
    decay_mult: 0
  }
  convolution_param {
    num_output: 32
    kernel_size: 1
    weight_filler {
      type: "xavier"
      std: 0.2
    }
    bias_filler {
      type: "constant"
      value: 0.2
    }
  }
}
layer {
  name: "inception_3b/relu_5x5_reduce"
  type: "ReLU"
  bottom: "inception_3b/5x5_reduce"
  top: "inception_3b/5x5_reduce"
}
layer {
  name: "inception_3b/5x5"
  type: "Convolution"
  bottom: "inception_3b/5x5_reduce"
  top: "inception_3b/5x5"
  param {
    lr_mult: 1
    decay_mult: 1
  }
  param {
    lr_mult: 2
    decay_mult: 0
  }
  convolution_param {
    num_output: 96
    pad: 2
    kernel_size: 5
    weight_filler {
      type: "xavier"
      std: 0.03
    }
    bias_filler {
      type: "constant"
      value: 0.2
    }
  }
}
layer {
  name: "inception_3b/relu_5x5"
  type: "ReLU"
  bottom: "inception_3b/5x5"
  top: "inception_3b/5x5"
}
layer {
  name: "inception_3b/pool"
  type: "Pooling"
  bottom: "inception_3a/output"
  top: "inception_3b/pool"
  pooling_param {
    pool: MAX
    kernel_size: 3
    stride: 1
    pad: 1
  }
}
layer {
  name: "inception_3b/pool_proj"
  type: "Convolution"
  bottom: "inception_3b/pool"
  top: "inception_3b/pool_proj"
  param {
    lr_mult: 1
    decay_mult: 1
  }
  param {
    lr_mult: 2
    decay_mult: 0
  }
  convolution_param {
    num_output: 64
    kernel_size: 1
    weight_filler {
      type: "xavier"
      std: 0.1
    }
    bias_filler {
      type: "constant"
      value: 0.2
    }
  }
}
layer {
  name: "inception_3b/relu_pool_proj"
  type: "ReLU"
  bottom: "inception_3b/pool_proj"
  top: "inception_3b/pool_proj"
}
layer {
  name: "inception_3b/output"
  type: "Concat"
  bottom: "inception_3b/1x1"
  bottom: "inception_3b/3x3"
  bottom: "inception_3b/5x5"
  bottom: "inception_3b/pool_proj"
  top: "inception_3b/output"
}
layer {
  name: "pool3/3x3_s2"
  type: "Pooling"
  bottom: "inception_3b/output"
  top: "pool3/3x3_s2"
  pooling_param {
    pool: MAX
    kernel_size: 3
    stride: 2
  }
}
layer {
  name: "inception_4a/1x1"
  type: "Convolution"
  bottom: "pool3/3x3_s2"
  top: "inception_4a/1x1"
  param {
    lr_mult: 1
    decay_mult: 1
  }
  param {
    lr_mult: 2
    decay_mult: 0
  }
  convolution_param {
    num_output: 192
    kernel_size: 1
    weight_filler {
      type: "xavier"
      std: 0.03
    }
    bias_filler {
      type: "constant"
      value: 0.2
    }
  }
}
layer {
  name: "inception_4a/relu_1x1"
  type: "ReLU"
  bottom: "inception_4a/1x1"
  top: "inception_4a/1x1"
}
layer {
  name: "inception_4a/3x3_reduce"
  type: "Convolution"
  bottom: "pool3/3x3_s2"
  top: "inception_4a/3x3_reduce"
  param {
    lr_mult: 1
    decay_mult: 1
  }
  param {
    lr_mult: 2
    decay_mult: 0
  }
  convolution_param {
    num_output: 96
    kernel_size: 1
    weight_filler {
      type: "xavier"
      std: 0.09
    }
    bias_filler {
      type: "constant"
      value: 0.2
    }
  }
}
layer {
  name: "inception_4a/relu_3x3_reduce"
  type: "ReLU"
  bottom: "inception_4a/3x3_reduce"
  top: "inception_4a/3x3_reduce"
}
layer {
  name: "inception_4a/3x3"
  type: "Convolution"
  bottom: "inception_4a/3x3_reduce"
  top: "inception_4a/3x3"
  param {
    lr_mult: 1
    decay_mult: 1
  }
  param {
    lr_mult: 2
    decay_mult: 0
  }
  convolution_param {
    num_output: 208
    pad: 1
    kernel_size: 3
    weight_filler {
      type: "xavier"
      std: 0.03
    }
    bias_filler {
      type: "constant"
      value: 0.2
    }
  }
}
layer {
  name: "inception_4a/relu_3x3"
  type: "ReLU"
  bottom: "inception_4a/3x3"
  top: "inception_4a/3x3"
}
layer {
  name: "inception_4a/5x5_reduce"
  type: "Convolution"
  bottom: "pool3/3x3_s2"
  top: "inception_4a/5x5_reduce"
  param {
    lr_mult: 1
    decay_mult: 1
  }
  param {
    lr_mult: 2
    decay_mult: 0
  }
  convolution_param {
    num_output: 16
    kernel_size: 1
    weight_filler {
      type: "xavier"
      std: 0.2
    }
    bias_filler {
      type: "constant"
      value: 0.2
    }
  }
}
layer {
  name: "inception_4a/relu_5x5_reduce"
  type: "ReLU"
  bottom: "inception_4a/5x5_reduce"
  top: "inception_4a/5x5_reduce"
}
layer {
  name: "inception_4a/5x5"
  type: "Convolution"
  bottom: "inception_4a/5x5_reduce"
  top: "inception_4a/5x5"
  param {
    lr_mult: 1
    decay_mult: 1
  }
  param {
    lr_mult: 2
    decay_mult: 0
  }
  convolution_param {
    num_output: 48
    pad: 2
    kernel_size: 5
    weight_filler {
      type: "xavier"
      std: 0.03
    }
    bias_filler {
      type: "constant"
      value: 0.2
    }
  }
}
layer {
  name: "inception_4a/relu_5x5"
  type: "ReLU"
  bottom: "inception_4a/5x5"
  top: "inception_4a/5x5"
}
layer {
  name: "inception_4a/pool"
  type: "Pooling"
  bottom: "pool3/3x3_s2"
  top: "inception_4a/pool"
  pooling_param {
    pool: MAX
    kernel_size: 3
    stride: 1
    pad: 1
  }
}
layer {
  name: "inception_4a/pool_proj"
  type: "Convolution"
  bottom: "inception_4a/pool"
  top: "inception_4a/pool_proj"
  param {
    lr_mult: 1
    decay_mult: 1
  }
  param {
    lr_mult: 2
    decay_mult: 0
  }
  convolution_param {
    num_output: 64
    kernel_size: 1
    weight_filler {
      type: "xavier"
      std: 0.1
    }
    bias_filler {
      type: "constant"
      value: 0.2
    }
  }
}
layer {
  name: "inception_4a/relu_pool_proj"
  type: "ReLU"
  bottom: "inception_4a/pool_proj"
  top: "inception_4a/pool_proj"
}
layer {
  name: "inception_4a/output"
  type: "Concat"
  bottom: "inception_4a/1x1"
  bottom: "inception_4a/3x3"
  bottom: "inception_4a/5x5"
  bottom: "inception_4a/pool_proj"
  top: "inception_4a/output"
}
layer {
  name: "loss1/ave_pool"
  type: "Pooling"
  bottom: "inception_4a/output"
  top: "loss1/ave_pool"
  pooling_param {
    pool: AVE
    kernel_size: 5
    stride: 3
  }
}
layer {
  name: "loss1/conv"
  type: "Convolution"
  bottom: "loss1/ave_pool"
  top: "loss1/conv"
  param {
    lr_mult: 1
    decay_mult: 1
  }
  param {
    lr_mult: 2
    decay_mult: 0
  }
  convolution_param {
    num_output: 128
    kernel_size: 1
    weight_filler {
      type: "xavier"
      std: 0.08
    }
    bias_filler {
      type: "constant"
      value: 0.2
    }
  }
}
layer {
  name: "loss1/relu_conv"
  type: "ReLU"
  bottom: "loss1/conv"
  top: "loss1/conv"
}
layer {
  name: "loss1/fc"
  type: "InnerProduct"
  bottom: "loss1/conv"
  top: "loss1/fc"
  param {
    lr_mult: 1
    decay_mult: 1
  }
  param {
    lr_mult: 2
    decay_mult: 0
  }
  inner_product_param {
    num_output: 1024
    weight_filler {
      type: "xavier"
      std: 0.02
    }
    bias_filler {
      type: "constant"
      value: 0.2
    }
  }
}
layer {
  name: "loss1/relu_fc"
  type: "ReLU"
  bottom: "loss1/fc"
  top: "loss1/fc"
}
layer {
  name: "loss1/drop_fc"
  type: "Dropout"
  bottom: "loss1/fc"
  top: "loss1/fc"
  dropout_param {
    dropout_ratio: 0.7
  }
}
layer {
  name: "loss1/classifier_plantvillage"
  type: "InnerProduct"
  bottom: "loss1/fc"
  top: "loss1/classifier_plantvillage"
  param {
    lr_mult: 1
    decay_mult: 1
  }
  param {
    lr_mult: 2
    decay_mult: 0
  }
  inner_product_param {
    num_output: 38
    weight_filler {
      type: "xavier"
      std: 0.0009765625
    }
    bias_filler {
      type: "constant"
      value: 0
    }
  }
}
layer {
  name: "inception_4b/1x1"
  type: "Convolution"
  bottom: "inception_4a/output"
  top: "inception_4b/1x1"
  param {
    lr_mult: 1
    decay_mult: 1
  }
  param {
    lr_mult: 2
    decay_mult: 0
  }
  convolution_param {
    num_output: 160
    kernel_size: 1
    weight_filler {
      type: "xavier"
      std: 0.03
    }
    bias_filler {
      type: "constant"
      value: 0.2
    }
  }
}
layer {
  name: "inception_4b/relu_1x1"
  type: "ReLU"
  bottom: "inception_4b/1x1"
  top: "inception_4b/1x1"
}
layer {
  name: "inception_4b/3x3_reduce"
  type: "Convolution"
  bottom: "inception_4a/output"
  top: "inception_4b/3x3_reduce"
  param {
    lr_mult: 1
    decay_mult: 1
  }
  param {
    lr_mult: 2
    decay_mult: 0
  }
  convolution_param {
    num_output: 112
    kernel_size: 1
    weight_filler {
      type: "xavier"
      std: 0.09
    }
    bias_filler {
      type: "constant"
      value: 0.2
    }
  }
}
layer {
  name: "inception_4b/relu_3x3_reduce"
  type: "ReLU"
  bottom: "inception_4b/3x3_reduce"
  top: "inception_4b/3x3_reduce"
}
layer {
  name: "inception_4b/3x3"
  type: "Convolution"
  bottom: "inception_4b/3x3_reduce"
  top: "inception_4b/3x3"
  param {
    lr_mult: 1
    decay_mult: 1
  }
  param {
    lr_mult: 2
    decay_mult: 0
  }
  convolution_param {
    num_output: 224
    pad: 1
    kernel_size: 3
    weight_filler {
      type: "xavier"
      std: 0.03
    }
    bias_filler {
      type: "constant"
      value: 0.2
    }
  }
}
layer {
  name: "inception_4b/relu_3x3"
  type: "ReLU"
  bottom: "inception_4b/3x3"
  top: "inception_4b/3x3"
}
layer {
  name: "inception_4b/5x5_reduce"
  type: "Convolution"
  bottom: "inception_4a/output"
  top: "inception_4b/5x5_reduce"
  param {
    lr_mult: 1
    decay_mult: 1
  }
  param {
    lr_mult: 2
    decay_mult: 0
  }
  convolution_param {
    num_output: 24
    kernel_size: 1
    weight_filler {
      type: "xavier"
      std: 0.2
    }
    bias_filler {
      type: "constant"
      value: 0.2
    }
  }
}
layer {
  name: "inception_4b/relu_5x5_reduce"
  type: "ReLU"
  bottom: "inception_4b/5x5_reduce"
  top: "inception_4b/5x5_reduce"
}
layer {
  name: "inception_4b/5x5"
  type: "Convolution"
  bottom: "inception_4b/5x5_reduce"
  top: "inception_4b/5x5"
  param {
    lr_mult: 1
    decay_mult: 1
  }
  param {
    lr_mult: 2
    decay_mult: 0
  }
  convolution_param {
    num_output: 64
    pad: 2
    kernel_size: 5
    weight_filler {
      type: "xavier"
      std: 0.03
    }
    bias_filler {
      type: "constant"
      value: 0.2
    }
  }
}
layer {
  name: "inception_4b/relu_5x5"
  type: "ReLU"
  bottom: "inception_4b/5x5"
  top: "inception_4b/5x5"
}
layer {
  name: "inception_4b/pool"
  type: "Pooling"
  bottom: "inception_4a/output"
  top: "inception_4b/pool"
  pooling_param {
    pool: MAX
    kernel_size: 3
    stride: 1
    pad: 1
  }
}
layer {
  name: "inception_4b/pool_proj"
  type: "Convolution"
  bottom: "inception_4b/pool"
  top: "inception_4b/pool_proj"
  param {
    lr_mult: 1
    decay_mult: 1
  }
  param {
    lr_mult: 2
    decay_mult: 0
  }
  convolution_param {
    num_output: 64
    kernel_size: 1
    weight_filler {
      type: "xavier"
      std: 0.1
    }
    bias_filler {
      type: "constant"
      value: 0.2
    }
  }
}
layer {
  name: "inception_4b/relu_pool_proj"
  type: "ReLU"
  bottom: "inception_4b/pool_proj"
  top: "inception_4b/pool_proj"
}
layer {
  name: "inception_4b/output"
  type: "Concat"
  bottom: "inception_4b/1x1"
  bottom: "inception_4b/3x3"
  bottom: "inception_4b/5x5"
  bottom: "inception_4b/pool_proj"
  top: "inception_4b/output"
}
layer {
  name: "inception_4c/1x1"
  type: "Convolution"
  bottom: "inception_4b/output"
  top: "inception_4c/1x1"
  param {
    lr_mult: 1
    decay_mult: 1
  }
  param {
    lr_mult: 2
    decay_mult: 0
  }
  convolution_param {
    num_output: 128
    kernel_size: 1
    weight_filler {
      type: "xavier"
      std: 0.03
    }
    bias_filler {
      type: "constant"
      value: 0.2
    }
  }
}
layer {
  name: "inception_4c/relu_1x1"
  type: "ReLU"
  bottom: "inception_4c/1x1"
  top: "inception_4c/1x1"
}
layer {
  name: "inception_4c/3x3_reduce"
  type: "Convolution"
  bottom: "inception_4b/output"
  top: "inception_4c/3x3_reduce"
  param {
    lr_mult: 1
    decay_mult: 1
  }
  param {
    lr_mult: 2
    decay_mult: 0
  }
  convolution_param {
    num_output: 128
    kernel_size: 1
    weight_filler {
      type: "xavier"
      std: 0.09
    }
    bias_filler {
      type: "constant"
      value: 0.2
    }
  }
}
layer {
  name: "inception_4c/relu_3x3_reduce"
  type: "ReLU"
  bottom: "inception_4c/3x3_reduce"
  top: "inception_4c/3x3_reduce"
}
layer {
  name: "inception_4c/3x3"
  type: "Convolution"
  bottom: "inception_4c/3x3_reduce"
  top: "inception_4c/3x3"
  param {
    lr_mult: 1
    decay_mult: 1
  }
  param {
    lr_mult: 2
    decay_mult: 0
  }
  convolution_param {
    num_output: 256
    pad: 1
    kernel_size: 3
    weight_filler {
      type: "xavier"
      std: 0.03
    }
    bias_filler {
      type: "constant"
      value: 0.2
    }
  }
}
layer {
  name: "inception_4c/relu_3x3"
  type: "ReLU"
  bottom: "inception_4c/3x3"
  top: "inception_4c/3x3"
}
layer {
  name: "inception_4c/5x5_reduce"
  type: "Convolution"
  bottom: "inception_4b/output"
  top: "inception_4c/5x5_reduce"
  param {
    lr_mult: 1
    decay_mult: 1
  }
  param {
    lr_mult: 2
    decay_mult: 0
  }
  convolution_param {
    num_output: 24
    kernel_size: 1
    weight_filler {
      type: "xavier"
      std: 0.2
    }
    bias_filler {
      type: "constant"
      value: 0.2
    }
  }
}
layer {
  name: "inception_4c/relu_5x5_reduce"
  type: "ReLU"
  bottom: "inception_4c/5x5_reduce"
  top: "inception_4c/5x5_reduce"
}
layer {
  name: "inception_4c/5x5"
  type: "Convolution"
  bottom: "inception_4c/5x5_reduce"
  top: "inception_4c/5x5"
  param {
    lr_mult: 1
    decay_mult: 1
  }
  param {
    lr_mult: 2
    decay_mult: 0
  }
  convolution_param {
    num_output: 64
    pad: 2
    kernel_size: 5
    weight_filler {
      type: "xavier"
      std: 0.03
    }
    bias_filler {
      type: "constant"
      value: 0.2
    }
  }
}
layer {
  name: "inception_4c/relu_5x5"
  type: "ReLU"
  bottom: "inception_4c/5x5"
  top: "inception_4c/5x5"
}
layer {
  name: "inception_4c/pool"
  type: "Pooling"
  bottom: "inception_4b/output"
  top: "inception_4c/pool"
  pooling_param {
    pool: MAX
    kernel_size: 3
    stride: 1
    pad: 1
  }
}
layer {
  name: "inception_4c/pool_proj"
  type: "Convolution"
  bottom: "inception_4c/pool"
  top: "inception_4c/pool_proj"
  param {
    lr_mult: 1
    decay_mult: 1
  }
  param {
    lr_mult: 2
    decay_mult: 0
  }
  convolution_param {
    num_output: 64
    kernel_size: 1
    weight_filler {
      type: "xavier"
      std: 0.1
    }
    bias_filler {
      type: "constant"
      value: 0.2
    }
  }
}
layer {
  name: "inception_4c/relu_pool_proj"
  type: "ReLU"
  bottom: "inception_4c/pool_proj"
  top: "inception_4c/pool_proj"
}
layer {
  name: "inception_4c/output"
  type: "Concat"
  bottom: "inception_4c/1x1"
  bottom: "inception_4c/3x3"
  bottom: "inception_4c/5x5"
  bottom: "inception_4c/pool_proj"
  top: "inception_4c/output"
}
layer {
  name: "inception_4d/1x1"
  type: "Convolution"
  bottom: "inception_4c/output"
  top: "inception_4d/1x1"
  param {
    lr_mult: 1
    decay_mult: 1
  }
  param {
    lr_mult: 2
    decay_mult: 0
  }
  convolution_param {
    num_output: 112
    kernel_size: 1
    weight_filler {
      type: "xavier"
      std: 0.03
    }
    bias_filler {
      type: "constant"
      value: 0.2
    }
  }
}
layer {
  name: "inception_4d/relu_1x1"
  type: "ReLU"
  bottom: "inception_4d/1x1"
  top: "inception_4d/1x1"
}
layer {
  name: "inception_4d/3x3_reduce"
  type: "Convolution"
  bottom: "inception_4c/output"
  top: "inception_4d/3x3_reduce"
  param {
    lr_mult: 1
    decay_mult: 1
  }
  param {
    lr_mult: 2
    decay_mult: 0
  }
  convolution_param {
    num_output: 144
    kernel_size: 1
    weight_filler {
      type: "xavier"
      std: 0.09
    }
    bias_filler {
      type: "constant"
      value: 0.2
    }
  }
}
layer {
  name: "inception_4d/relu_3x3_reduce"
  type: "ReLU"
  bottom: "inception_4d/3x3_reduce"
  top: "inception_4d/3x3_reduce"
}
layer {
  name: "inception_4d/3x3"
  type: "Convolution"
  bottom: "inception_4d/3x3_reduce"
  top: "inception_4d/3x3"
  param {
    lr_mult: 1
    decay_mult: 1
  }
  param {
    lr_mult: 2
    decay_mult: 0
  }
  convolution_param {
    num_output: 288
    pad: 1
    kernel_size: 3
    weight_filler {
      type: "xavier"
      std: 0.03
    }
    bias_filler {
      type: "constant"
      value: 0.2
    }
  }
}
layer {
  name: "inception_4d/relu_3x3"
  type: "ReLU"
  bottom: "inception_4d/3x3"
  top: "inception_4d/3x3"
}
layer {
  name: "inception_4d/5x5_reduce"
  type: "Convolution"
  bottom: "inception_4c/output"
  top: "inception_4d/5x5_reduce"
  param {
    lr_mult: 1
    decay_mult: 1
  }
  param {
    lr_mult: 2
    decay_mult: 0
  }
  convolution_param {
    num_output: 32
    kernel_size: 1
    weight_filler {
      type: "xavier"
      std: 0.2
    }
    bias_filler {
      type: "constant"
      value: 0.2
    }
  }
}
layer {
  name: "inception_4d/relu_5x5_reduce"
  type: "ReLU"
  bottom: "inception_4d/5x5_reduce"
  top: "inception_4d/5x5_reduce"
}
layer {
  name: "inception_4d/5x5"
  type: "Convolution"
  bottom: "inception_4d/5x5_reduce"
  top: "inception_4d/5x5"
  param {
    lr_mult: 1
    decay_mult: 1
  }
  param {
    lr_mult: 2
    decay_mult: 0
  }
  convolution_param {
    num_output: 64
    pad: 2
    kernel_size: 5
    weight_filler {
      type: "xavier"
      std: 0.03
    }
    bias_filler {
      type: "constant"
      value: 0.2
    }
  }
}
layer {
  name: "inception_4d/relu_5x5"
  type: "ReLU"
  bottom: "inception_4d/5x5"
  top: "inception_4d/5x5"
}
layer {
  name: "inception_4d/pool"
  type: "Pooling"
  bottom: "inception_4c/output"
  top: "inception_4d/pool"
  pooling_param {
    pool: MAX
    kernel_size: 3
    stride: 1
    pad: 1
  }
}
layer {
  name: "inception_4d/pool_proj"
  type: "Convolution"
  bottom: "inception_4d/pool"
  top: "inception_4d/pool_proj"
  param {
    lr_mult: 1
    decay_mult: 1
  }
  param {
    lr_mult: 2
    decay_mult: 0
  }
  convolution_param {
    num_output: 64
    kernel_size: 1
    weight_filler {
      type: "xavier"
      std: 0.1
    }
    bias_filler {
      type: "constant"
      value: 0.2
    }
  }
}
layer {
  name: "inception_4d/relu_pool_proj"
  type: "ReLU"
  bottom: "inception_4d/pool_proj"
  top: "inception_4d/pool_proj"
}
layer {
  name: "inception_4d/output"
  type: "Concat"
  bottom: "inception_4d/1x1"
  bottom: "inception_4d/3x3"
  bottom: "inception_4d/5x5"
  bottom: "inception_4d/pool_proj"
  top: "inception_4d/output"
}
layer {
  name: "loss2/ave_pool"
  type: "Pooling"
  bottom: "inception_4d/output"
  top: "loss2/ave_pool"
  pooling_param {
    pool: AVE
    kernel_size: 5
    stride: 3
  }
}
layer {
  name: "loss2/conv"
  type: "Convolution"
  bottom: "loss2/ave_pool"
  top: "loss2/conv"
  param {
    lr_mult: 1
    decay_mult: 1
  }
  param {
    lr_mult: 2
    decay_mult: 0
  }
  convolution_param {
    num_output: 128
    kernel_size: 1
    weight_filler {
      type: "xavier"
      std: 0.08
    }
    bias_filler {
      type: "constant"
      value: 0.2
    }
  }
}
layer {
  name: "loss2/relu_conv"
  type: "ReLU"
  bottom: "loss2/conv"
  top: "loss2/conv"
}
layer {
  name: "loss2/fc"
  type: "InnerProduct"
  bottom: "loss2/conv"
  top: "loss2/fc"
  param {
    lr_mult: 1
    decay_mult: 1
  }
  param {
    lr_mult: 2
    decay_mult: 0
  }
  inner_product_param {
    num_output: 1024
    weight_filler {
      type: "xavier"
      std: 0.02
    }
    bias_filler {
      type: "constant"
      value: 0.2
    }
  }
}
layer {
  name: "loss2/relu_fc"
  type: "ReLU"
  bottom: "loss2/fc"
  top: "loss2/fc"
}
layer {
  name: "loss2/drop_fc"
  type: "Dropout"
  bottom: "loss2/fc"
  top: "loss2/fc"
  dropout_param {
    dropout_ratio: 0.7
  }
}
layer {
  name: "loss2/classifier_plantvillage"
  type: "InnerProduct"
  bottom: "loss2/fc"
  top: "loss2/classifier_plantvillage"
  param {
    lr_mult: 1
    decay_mult: 1
  }
  param {
    lr_mult: 2
    decay_mult: 0
  }
  inner_product_param {
    num_output: 38
    weight_filler {
      type: "xavier"
      std: 0.0009765625
    }
    bias_filler {
      type: "constant"
      value: 0
    }
  }
}
layer {
  name: "inception_4e/1x1"
  type: "Convolution"
  bottom: "inception_4d/output"
  top: "inception_4e/1x1"
  param {
    lr_mult: 1
    decay_mult: 1
  }
  param {
    lr_mult: 2
    decay_mult: 0
  }
  convolution_param {
    num_output: 256
    kernel_size: 1
    weight_filler {
      type: "xavier"
      std: 0.03
    }
    bias_filler {
      type: "constant"
      value: 0.2
    }
  }
}
layer {
  name: "inception_4e/relu_1x1"
  type: "ReLU"
  bottom: "inception_4e/1x1"
  top: "inception_4e/1x1"
}
layer {
  name: "inception_4e/3x3_reduce"
  type: "Convolution"
  bottom: "inception_4d/output"
  top: "inception_4e/3x3_reduce"
  param {
    lr_mult: 1
    decay_mult: 1
  }
  param {
    lr_mult: 2
    decay_mult: 0
  }
  convolution_param {
    num_output: 160
    kernel_size: 1
    weight_filler {
      type: "xavier"
      std: 0.09
    }
    bias_filler {
      type: "constant"
      value: 0.2
    }
  }
}
layer {
  name: "inception_4e/relu_3x3_reduce"
  type: "ReLU"
  bottom: "inception_4e/3x3_reduce"
  top: "inception_4e/3x3_reduce"
}
layer {
  name: "inception_4e/3x3"
  type: "Convolution"
  bottom: "inception_4e/3x3_reduce"
  top: "inception_4e/3x3"
  param {
    lr_mult: 1
    decay_mult: 1
  }
  param {
    lr_mult: 2
    decay_mult: 0
  }
  convolution_param {
    num_output: 320
    pad: 1
    kernel_size: 3
    weight_filler {
      type: "xavier"
      std: 0.03
    }
    bias_filler {
      type: "constant"
      value: 0.2
    }
  }
}
layer {
  name: "inception_4e/relu_3x3"
  type: "ReLU"
  bottom: "inception_4e/3x3"
  top: "inception_4e/3x3"
}
layer {
  name: "inception_4e/5x5_reduce"
  type: "Convolution"
  bottom: "inception_4d/output"
  top: "inception_4e/5x5_reduce"
  param {
    lr_mult: 1
    decay_mult: 1
  }
  param {
    lr_mult: 2
    decay_mult: 0
  }
  convolution_param {
    num_output: 32
    kernel_size: 1
    weight_filler {
      type: "xavier"
      std: 0.2
    }
    bias_filler {
      type: "constant"
      value: 0.2
    }
  }
}
layer {
  name: "inception_4e/relu_5x5_reduce"
  type: "ReLU"
  bottom: "inception_4e/5x5_reduce"
  top: "inception_4e/5x5_reduce"
}
layer {
  name: "inception_4e/5x5"
  type: "Convolution"
  bottom: "inception_4e/5x5_reduce"
  top: "inception_4e/
I0403 21:55:52.426990 24726 layer_factory.hpp:77] Creating layer data
I0403 21:55:52.427572 24726 net.cpp:91] Creating Layer data
I0403 21:55:52.427605 24726 net.cpp:399] data -> data
I0403 21:55:52.427656 24726 net.cpp:399] data -> label
I0403 21:55:52.427695 24726 data_transformer.cpp:25] Loading mean file from: /home/mohanty/data/final_dataset/lmdb/segmented-80-20/mean.binaryproto
I0403 21:55:52.428859 24731 db_lmdb.cpp:38] Opened lmdb /home/mohanty/data/final_dataset/lmdb/segmented-80-20/test_db
I0403 21:55:52.440418 24726 data_layer.cpp:41] output data size: 24,3,224,224
I0403 21:55:52.467681 24726 net.cpp:141] Setting up data
I0403 21:55:52.467763 24726 net.cpp:148] Top shape: 24 3 224 224 (3612672)
I0403 21:55:52.467787 24726 net.cpp:148] Top shape: 24 (24)
I0403 21:55:52.467803 24726 net.cpp:156] Memory required for data: 14450784
I0403 21:55:52.467828 24726 layer_factory.hpp:77] Creating layer label_data_1_split
I0403 21:55:52.467856 24726 net.cpp:91] Creating Layer label_data_1_split
I0403 21:55:52.467875 24726 net.cpp:425] label_data_1_split <- label
I0403 21:55:52.467908 24726 net.cpp:399] label_data_1_split -> label_data_1_split_0
I0403 21:55:52.467936 24726 net.cpp:399] label_data_1_split -> label_data_1_split_1
I0403 21:55:52.467959 24726 net.cpp:399] label_data_1_split -> label_data_1_split_2
I0403 21:55:52.467980 24726 net.cpp:399] label_data_1_split -> label_data_1_split_3
I0403 21:55:52.468000 24726 net.cpp:399] label_data_1_split -> label_data_1_split_4
I0403 21:55:52.468019 24726 net.cpp:399] label_data_1_split -> label_data_1_split_5
I0403 21:55:52.468039 24726 net.cpp:399] label_data_1_split -> label_data_1_split_6
I0403 21:55:52.468060 24726 net.cpp:399] label_data_1_split -> label_data_1_split_7
I0403 21:55:52.468080 24726 net.cpp:399] label_data_1_split -> label_data_1_split_8
I0403 21:55:52.468098 24726 net.cpp:399] label_data_1_split -> label_data_1_split_9
I0403 21:55:52.468225 24726 net.cpp:141] Setting up label_data_1_split
I0403 21:55:52.468248 24726 net.cpp:148] Top shape: 24 (24)
I0403 21:55:52.468266 24726 net.cpp:148] Top shape: 24 (24)
I0403 21:55:52.468284 24726 net.cpp:148] Top shape: 24 (24)
I0403 21:55:52.468300 24726 net.cpp:148] Top shape: 24 (24)
I0403 21:55:52.468315 24726 net.cpp:148] Top shape: 24 (24)
I0403 21:55:52.468332 24726 net.cpp:148] Top shape: 24 (24)
I0403 21:55:52.468348 24726 net.cpp:148] Top shape: 24 (24)
I0403 21:55:52.468364 24726 net.cpp:148] Top shape: 24 (24)
I0403 21:55:52.468379 24726 net.cpp:148] Top shape: 24 (24)
I0403 21:55:52.468395 24726 net.cpp:148] Top shape: 24 (24)
I0403 21:55:52.468448 24726 net.cpp:156] Memory required for data: 14451744
I0403 21:55:52.468464 24726 layer_factory.hpp:77] Creating layer conv1/7x7_s2
I0403 21:55:52.468497 24726 net.cpp:91] Creating Layer conv1/7x7_s2
I0403 21:55:52.468516 24726 net.cpp:425] conv1/7x7_s2 <- data
I0403 21:55:52.468536 24726 net.cpp:399] conv1/7x7_s2 -> conv1/7x7_s2
I0403 21:55:52.610610 24726 net.cpp:141] Setting up conv1/7x7_s2
I0403 21:55:52.610688 24726 net.cpp:148] Top shape: 24 64 112 112 (19267584)
I0403 21:55:52.610707 24726 net.cpp:156] Memory required for data: 91522080
I0403 21:55:52.610736 24726 layer_factory.hpp:77] Creating layer conv1/relu_7x7
I0403 21:55:52.610764 24726 net.cpp:91] Creating Layer conv1/relu_7x7
I0403 21:55:52.610781 24726 net.cpp:425] conv1/relu_7x7 <- conv1/7x7_s2
I0403 21:55:52.610800 24726 net.cpp:386] conv1/relu_7x7 -> conv1/7x7_s2 (in-place)
I0403 21:55:52.611045 24726 net.cpp:141] Setting up conv1/relu_7x7
I0403 21:55:52.611073 24726 net.cpp:148] Top shape: 24 64 112 112 (19267584)
I0403 21:55:52.611088 24726 net.cpp:156] Memory required for data: 168592416
I0403 21:55:52.611104 24726 layer_factory.hpp:77] Creating layer pool1/3x3_s2
I0403 21:55:52.611129 24726 net.cpp:91] Creating Layer pool1/3x3_s2
I0403 21:55:52.611146 24726 net.cpp:425] pool1/3x3_s2 <- conv1/7x7_s2
I0403 21:55:52.611166 24726 net.cpp:399] pool1/3x3_s2 -> pool1/3x3_s2
I0403 21:55:52.611243 24726 net.cpp:141] Setting up pool1/3x3_s2
I0403 21:55:52.611268 24726 net.cpp:148] Top shape: 24 64 56 56 (4816896)
I0403 21:55:52.611282 24726 net.cpp:156] Memory required for data: 187860000
I0403 21:55:52.611296 24726 layer_factory.hpp:77] Creating layer pool1/norm1
I0403 21:55:52.611320 24726 net.cpp:91] Creating Layer pool1/norm1
I0403 21:55:52.611338 24726 net.cpp:425] pool1/norm1 <- pool1/3x3_s2
I0403 21:55:52.611357 24726 net.cpp:399] pool1/norm1 -> pool1/norm1
I0403 21:55:52.611631 24726 net.cpp:141] Setting up pool1/norm1
I0403 21:55:52.611659 24726 net.cpp:148] Top shape: 24 64 56 56 (4816896)
I0403 21:55:52.611675 24726 net.cpp:156] Memory required for data: 207127584
I0403 21:55:52.611690 24726 layer_factory.hpp:77] Creating layer conv2/3x3_reduce
I0403 21:55:52.611714 24726 net.cpp:91] Creating Layer conv2/3x3_reduce
I0403 21:55:52.611731 24726 net.cpp:425] conv2/3x3_reduce <- pool1/norm1
I0403 21:55:52.611748 24726 net.cpp:399] conv2/3x3_reduce -> conv2/3x3_reduce
I0403 21:55:52.613070 24726 net.cpp:141] Setting up conv2/3x3_reduce
I0403 21:55:52.613098 24726 net.cpp:148] Top shape: 24 64 56 56 (4816896)
I0403 21:55:52.613116 24726 net.cpp:156] Memory required for data: 226395168
I0403 21:55:52.613137 24726 layer_factory.hpp:77] Creating layer conv2/relu_3x3_reduce
I0403 21:55:52.613155 24726 net.cpp:91] Creating Layer conv2/relu_3x3_reduce
I0403 21:55:52.613170 24726 net.cpp:425] conv2/relu_3x3_reduce <- conv2/3x3_reduce
I0403 21:55:52.613188 24726 net.cpp:386] conv2/relu_3x3_reduce -> conv2/3x3_reduce (in-place)
I0403 21:55:52.613446 24726 net.cpp:141] Setting up conv2/relu_3x3_reduce
I0403 21:55:52.613473 24726 net.cpp:148] Top shape: 24 64 56 56 (4816896)
I0403 21:55:52.613488 24726 net.cpp:156] Memory required for data: 245662752
I0403 21:55:52.613503 24726 layer_factory.hpp:77] Creating layer conv2/3x3
I0403 21:55:52.613524 24726 net.cpp:91] Creating Layer conv2/3x3
I0403 21:55:52.613543 24726 net.cpp:425] conv2/3x3 <- conv2/3x3_reduce
I0403 21:55:52.613561 24726 net.cpp:399] conv2/3x3 -> conv2/3x3
I0403 21:55:52.615814 24726 net.cpp:141] Setting up conv2/3x3
I0403 21:55:52.615844 24726 net.cpp:148] Top shape: 24 192 56 56 (14450688)
I0403 21:55:52.615860 24726 net.cpp:156] Memory required for data: 303465504
I0403 21:55:52.615885 24726 layer_factory.hpp:77] Creating layer conv2/relu_3x3
I0403 21:55:52.615903 24726 net.cpp:91] Creating Layer conv2/relu_3x3
I0403 21:55:52.615919 24726 net.cpp:425] conv2/relu_3x3 <- conv2/3x3
I0403 21:55:52.615936 24726 net.cpp:386] conv2/relu_3x3 -> conv2/3x3 (in-place)
I0403 21:55:52.616120 24726 net.cpp:141] Setting up conv2/relu_3x3
I0403 21:55:52.616148 24726 net.cpp:148] Top shape: 24 192 56 56 (14450688)
I0403 21:55:52.616205 24726 net.cpp:156] Memory required for data: 361268256
I0403 21:55:52.616224 24726 layer_factory.hpp:77] Creating layer conv2/norm2
I0403 21:55:52.616247 24726 net.cpp:91] Creating Layer conv2/norm2
I0403 21:55:52.616263 24726 net.cpp:425] conv2/norm2 <- conv2/3x3
I0403 21:55:52.616282 24726 net.cpp:399] conv2/norm2 -> conv2/norm2
I0403 21:55:52.616575 24726 net.cpp:141] Setting up conv2/norm2
I0403 21:55:52.616601 24726 net.cpp:148] Top shape: 24 192 56 56 (14450688)
I0403 21:55:52.616616 24726 net.cpp:156] Memory required for data: 419071008
I0403 21:55:52.616631 24726 layer_factory.hpp:77] Creating layer pool2/3x3_s2
I0403 21:55:52.616649 24726 net.cpp:91] Creating Layer pool2/3x3_s2
I0403 21:55:52.616667 24726 net.cpp:425] pool2/3x3_s2 <- conv2/norm2
I0403 21:55:52.616684 24726 net.cpp:399] pool2/3x3_s2 -> pool2/3x3_s2
I0403 21:55:52.616735 24726 net.cpp:141] Setting up pool2/3x3_s2
I0403 21:55:52.616760 24726 net.cpp:148] Top shape: 24 192 28 28 (3612672)
I0403 21:55:52.616773 24726 net.cpp:156] Memory required for data: 433521696
I0403 21:55:52.616787 24726 layer_factory.hpp:77] Creating layer pool2/3x3_s2_pool2/3x3_s2_0_split
I0403 21:55:52.616806 24726 net.cpp:91] Creating Layer pool2/3x3_s2_pool2/3x3_s2_0_split
I0403 21:55:52.616822 24726 net.cpp:425] pool2/3x3_s2_pool2/3x3_s2_0_split <- pool2/3x3_s2
I0403 21:55:52.616840 24726 net.cpp:399] pool2/3x3_s2_pool2/3x3_s2_0_split -> pool2/3x3_s2_pool2/3x3_s2_0_split_0
I0403 21:55:52.616860 24726 net.cpp:399] pool2/3x3_s2_pool2/3x3_s2_0_split -> pool2/3x3_s2_pool2/3x3_s2_0_split_1
I0403 21:55:52.616880 24726 net.cpp:399] pool2/3x3_s2_pool2/3x3_s2_0_split -> pool2/3x3_s2_pool2/3x3_s2_0_split_2
I0403 21:55:52.616899 24726 net.cpp:399] pool2/3x3_s2_pool2/3x3_s2_0_split -> pool2/3x3_s2_pool2/3x3_s2_0_split_3
I0403 21:55:52.616967 24726 net.cpp:141] Setting up pool2/3x3_s2_pool2/3x3_s2_0_split
I0403 21:55:52.616993 24726 net.cpp:148] Top shape: 24 192 28 28 (3612672)
I0403 21:55:52.617010 24726 net.cpp:148] Top shape: 24 192 28 28 (3612672)
I0403 21:55:52.617027 24726 net.cpp:148] Top shape: 24 192 28 28 (3612672)
I0403 21:55:52.617044 24726 net.cpp:148] Top shape: 24 192 28 28 (3612672)
I0403 21:55:52.617058 24726 net.cpp:156] Memory required for data: 491324448
I0403 21:55:52.617071 24726 layer_factory.hpp:77] Creating layer inception_3a/1x1
I0403 21:55:52.617092 24726 net.cpp:91] Creating Layer inception_3a/1x1
I0403 21:55:52.617110 24726 net.cpp:425] inception_3a/1x1 <- pool2/3x3_s2_pool2/3x3_s2_0_split_0
I0403 21:55:52.617128 24726 net.cpp:399] inception_3a/1x1 -> inception_3a/1x1
I0403 21:55:52.618645 24726 net.cpp:141] Setting up inception_3a/1x1
I0403 21:55:52.618674 24726 net.cpp:148] Top shape: 24 64 28 28 (1204224)
I0403 21:55:52.618691 24726 net.cpp:156] Memory required for data: 496141344
I0403 21:55:52.618710 24726 layer_factory.hpp:77] Creating layer inception_3a/relu_1x1
I0403 21:55:52.618731 24726 net.cpp:91] Creating Layer inception_3a/relu_1x1
I0403 21:55:52.618747 24726 net.cpp:425] inception_3a/relu_1x1 <- inception_3a/1x1
I0403 21:55:52.618767 24726 net.cpp:386] inception_3a/relu_1x1 -> inception_3a/1x1 (in-place)
I0403 21:55:52.618935 24726 net.cpp:141] Setting up inception_3a/relu_1x1
I0403 21:55:52.618963 24726 net.cpp:148] Top shape: 24 64 28 28 (1204224)
I0403 21:55:52.618979 24726 net.cpp:156] Memory required for data: 500958240
I0403 21:55:52.618994 24726 layer_factory.hpp:77] Creating layer inception_3a/3x3_reduce
I0403 21:55:52.619016 24726 net.cpp:91] Creating Layer inception_3a/3x3_reduce
I0403 21:55:52.619035 24726 net.cpp:425] inception_3a/3x3_reduce <- pool2/3x3_s2_pool2/3x3_s2_0_split_1
I0403 21:55:52.619053 24726 net.cpp:399] inception_3a/3x3_reduce -> inception_3a/3x3_reduce
I0403 21:55:52.620724 24726 net.cpp:141] Setting up inception_3a/3x3_reduce
I0403 21:55:52.620754 24726 net.cpp:148] Top shape: 24 96 28 28 (1806336)
I0403 21:55:52.620771 24726 net.cpp:156] Memory required for data: 508183584
I0403 21:55:52.620795 24726 layer_factory.hpp:77] Creating layer inception_3a/relu_3x3_reduce
I0403 21:55:52.620829 24726 net.cpp:91] Creating Layer inception_3a/relu_3x3_reduce
I0403 21:55:52.620847 24726 net.cpp:425] inception_3a/relu_3x3_reduce <- inception_3a/3x3_reduce
I0403 21:55:52.620867 24726 net.cpp:386] inception_3a/relu_3x3_reduce -> inception_3a/3x3_reduce (in-place)
I0403 21:55:52.621040 24726 net.cpp:141] Setting up inception_3a/relu_3x3_reduce
I0403 21:55:52.621065 24726 net.cpp:148] Top shape: 24 96 28 28 (1806336)
I0403 21:55:52.621080 24726 net.cpp:156] Memory required for data: 515408928
I0403 21:55:52.621095 24726 layer_factory.hpp:77] Creating layer inception_3a/3x3
I0403 21:55:52.621117 24726 net.cpp:91] Creating Layer inception_3a/3x3
I0403 21:55:52.621134 24726 net.cpp:425] inception_3a/3x3 <- inception_3a/3x3_reduce
I0403 21:55:52.621155 24726 net.cpp:399] inception_3a/3x3 -> inception_3a/3x3
I0403 21:55:52.622741 24726 net.cpp:141] Setting up inception_3a/3x3
I0403 21:55:52.622768 24726 net.cpp:148] Top shape: 24 128 28 28 (2408448)
I0403 21:55:52.622784 24726 net.cpp:156] Memory required for data: 525042720
I0403 21:55:52.622803 24726 layer_factory.hpp:77] Creating layer inception_3a/relu_3x3
I0403 21:55:52.622824 24726 net.cpp:91] Creating Layer inception_3a/relu_3x3
I0403 21:55:52.622841 24726 net.cpp:425] inception_3a/relu_3x3 <- inception_3a/3x3
I0403 21:55:52.622859 24726 net.cpp:386] inception_3a/relu_3x3 -> inception_3a/3x3 (in-place)
I0403 21:55:52.623116 24726 net.cpp:141] Setting up inception_3a/relu_3x3
I0403 21:55:52.623143 24726 net.cpp:148] Top shape: 24 128 28 28 (2408448)
I0403 21:55:52.623157 24726 net.cpp:156] Memory required for data: 534676512
I0403 21:55:52.623172 24726 layer_factory.hpp:77] Creating layer inception_3a/5x5_reduce
I0403 21:55:52.623199 24726 net.cpp:91] Creating Layer inception_3a/5x5_reduce
I0403 21:55:52.623219 24726 net.cpp:425] inception_3a/5x5_reduce <- pool2/3x3_s2_pool2/3x3_s2_0_split_2
I0403 21:55:52.623237 24726 net.cpp:399] inception_3a/5x5_reduce -> inception_3a/5x5_reduce
I0403 21:55:52.624150 24726 net.cpp:141] Setting up inception_3a/5x5_reduce
I0403 21:55:52.624181 24726 net.cpp:148] Top shape: 24 16 28 28 (301056)
I0403 21:55:52.624200 24726 net.cpp:156] Memory required for data: 535880736
I0403 21:55:52.624222 24726 layer_factory.hpp:77] Creating layer inception_3a/relu_5x5_reduce
I0403 21:55:52.624240 24726 net.cpp:91] Creating Layer inception_3a/relu_5x5_reduce
I0403 21:55:52.624256 24726 net.cpp:425] inception_3a/relu_5x5_reduce <- inception_3a/5x5_reduce
I0403 21:55:52.624277 24726 net.cpp:386] inception_3a/relu_5x5_reduce -> inception_3a/5x5_reduce (in-place)
I0403 21:55:52.624560 24726 net.cpp:141] Setting up inception_3a/relu_5x5_reduce
I0403 21:55:52.624588 24726 net.cpp:148] Top shape: 24 16 28 28 (301056)
I0403 21:55:52.624604 24726 net.cpp:156] Memory required for data: 537084960
I0403 21:55:52.624619 24726 layer_factory.hpp:77] Creating layer inception_3a/5x5
I0403 21:55:52.624641 24726 net.cpp:91] Creating Layer inception_3a/5x5
I0403 21:55:52.624660 24726 net.cpp:425] inception_3a/5x5 <- inception_3a/5x5_reduce
I0403 21:55:52.624683 24726 net.cpp:399] inception_3a/5x5 -> inception_3a/5x5
I0403 21:55:52.625658 24726 net.cpp:141] Setting up inception_3a/5x5
I0403 21:55:52.625686 24726 net.cpp:148] Top shape: 24 32 28 28 (602112)
I0403 21:55:52.625704 24726 net.cpp:156] Memory required for data: 539493408
I0403 21:55:52.625722 24726 layer_factory.hpp:77] Creating layer inception_3a/relu_5x5
I0403 21:55:52.625743 24726 net.cpp:91] Creating Layer inception_3a/relu_5x5
I0403 21:55:52.625761 24726 net.cpp:425] inception_3a/relu_5x5 <- inception_3a/5x5
I0403 21:55:52.625778 24726 net.cpp:386] inception_3a/relu_5x5 -> inception_3a/5x5 (in-place)
I0403 21:55:52.625941 24726 net.cpp:141] Setting up inception_3a/relu_5x5
I0403 21:55:52.625970 24726 net.cpp:148] Top shape: 24 32 28 28 (602112)
I0403 21:55:52.625987 24726 net.cpp:156] Memory required for data: 541901856
I0403 21:55:52.626001 24726 layer_factory.hpp:77] Creating layer inception_3a/pool
I0403 21:55:52.626019 24726 net.cpp:91] Creating Layer inception_3a/pool
I0403 21:55:52.626049 24726 net.cpp:425] inception_3a/pool <- pool2/3x3_s2_pool2/3x3_s2_0_split_3
I0403 21:55:52.626070 24726 net.cpp:399] inception_3a/pool -> inception_3a/pool
I0403 21:55:52.626126 24726 net.cpp:141] Setting up inception_3a/pool
I0403 21:55:52.626149 24726 net.cpp:148] Top shape: 24 192 28 28 (3612672)
I0403 21:55:52.626164 24726 net.cpp:156] Memory required for data: 556352544
I0403 21:55:52.626178 24726 layer_factory.hpp:77] Creating layer inception_3a/pool_proj
I0403 21:55:52.626204 24726 net.cpp:91] Creating Layer inception_3a/pool_proj
I0403 21:55:52.626225 24726 net.cpp:425] inception_3a/pool_proj <- inception_3a/pool
I0403 21:55:52.626245 24726 net.cpp:399] inception_3a/pool_proj -> inception_3a/pool_proj
I0403 21:55:52.627168 24726 net.cpp:141] Setting up inception_3a/pool_proj
I0403 21:55:52.627200 24726 net.cpp:148] Top shape: 24 32 28 28 (602112)
I0403 21:55:52.627218 24726 net.cpp:156] Memory required for data: 558760992
I0403 21:55:52.627243 24726 layer_factory.hpp:77] Creating layer inception_3a/relu_pool_proj
I0403 21:55:52.627261 24726 net.cpp:91] Creating Layer inception_3a/relu_pool_proj
I0403 21:55:52.627276 24726 net.cpp:425] inception_3a/relu_pool_proj <- inception_3a/pool_proj
I0403 21:55:52.627297 24726 net.cpp:386] inception_3a/relu_pool_proj -> inception_3a/pool_proj (in-place)
I0403 21:55:52.627563 24726 net.cpp:141] Setting up inception_3a/relu_pool_proj
I0403 21:55:52.627589 24726 net.cpp:148] Top shape: 24 32 28 28 (602112)
I0403 21:55:52.627604 24726 net.cpp:156] Memory required for data: 561169440
I0403 21:55:52.627620 24726 layer_factory.hpp:77] Creating layer inception_3a/output
I0403 21:55:52.627640 24726 net.cpp:91] Creating Layer inception_3a/output
I0403 21:55:52.627660 24726 net.cpp:425] inception_3a/output <- inception_3a/1x1
I0403 21:55:52.627676 24726 net.cpp:425] inception_3a/output <- inception_3a/3x3
I0403 21:55:52.627691 24726 net.cpp:425] inception_3a/output <- inception_3a/5x5
I0403 21:55:52.627706 24726 net.cpp:425] inception_3a/output <- inception_3a/pool_proj
I0403 21:55:52.627722 24726 net.cpp:399] inception_3a/output -> inception_3a/output
I0403 21:55:52.627768 24726 net.cpp:141] Setting up inception_3a/output
I0403 21:55:52.627791 24726 net.cpp:148] Top shape: 24 256 28 28 (4816896)
I0403 21:55:52.627806 24726 net.cpp:156] Memory required for data: 580437024
I0403 21:55:52.627821 24726 layer_factory.hpp:77] Creating layer inception_3a/output_inception_3a/output_0_split
I0403 21:55:52.627838 24726 net.cpp:91] Creating Layer inception_3a/output_inception_3a/output_0_split
I0403 21:55:52.627853 24726 net.cpp:425] inception_3a/output_inception_3a/output_0_split <- inception_3a/output
I0403 21:55:52.627876 24726 net.cpp:399] inception_3a/output_inception_3a/output_0_split -> inception_3a/output_inception_3a/output_0_split_0
I0403 21:55:52.627897 24726 net.cpp:399] inception_3a/output_inception_3a/output_0_split -> inception_3a/output_inception_3a/output_0_split_1
I0403 21:55:52.627923 24726 net.cpp:399] inception_3a/output_inception_3a/output_0_split -> inception_3a/output_inception_3a/output_0_split_2
I0403 21:55:52.627944 24726 net.cpp:399] inception_3a/output_inception_3a/output_0_split -> inception_3a/output_inception_3a/output_0_split_3
I0403 21:55:52.628016 24726 net.cpp:141] Setting up inception_3a/output_inception_3a/output_0_split
I0403 21:55:52.628041 24726 net.cpp:148] Top shape: 24 256 28 28 (4816896)
I0403 21:55:52.628059 24726 net.cpp:148] Top shape: 24 256 28 28 (4816896)
I0403 21:55:52.628077 24726 net.cpp:148] Top shape: 24 256 28 28 (4816896)
I0403 21:55:52.628093 24726 net.cpp:148] Top shape: 24 256 28 28 (4816896)
I0403 21:55:52.628108 24726 net.cpp:156] Memory required for data: 657507360
I0403 21:55:52.628123 24726 layer_factory.hpp:77] Creating layer inception_3b/1x1
I0403 21:55:52.628144 24726 net.cpp:91] Creating Layer inception_3b/1x1
I0403 21:55:52.628160 24726 net.cpp:425] inception_3b/1x1 <- inception_3a/output_inception_3a/output_0_split_0
I0403 21:55:52.628180 24726 net.cpp:399] inception_3b/1x1 -> inception_3b/1x1
I0403 21:55:52.629287 24726 net.cpp:141] Setting up inception_3b/1x1
I0403 21:55:52.629326 24726 net.cpp:148] Top shape: 24 128 28 28 (2408448)
I0403 21:55:52.629343 24726 net.cpp:156] Memory required for data: 667141152
I0403 21:55:52.629360 24726 layer_factory.hpp:77] Creating layer inception_3b/relu_1x1
I0403 21:55:52.629380 24726 net.cpp:91] Creating Layer inception_3b/relu_1x1
I0403 21:55:52.629397 24726 net.cpp:425] inception_3b/relu_1x1 <- inception_3b/1x1
I0403 21:55:52.629415 24726 net.cpp:386] inception_3b/relu_1x1 -> inception_3b/1x1 (in-place)
I0403 21:55:52.629585 24726 net.cpp:141] Setting up inception_3b/relu_1x1
I0403 21:55:52.629609 24726 net.cpp:148] Top shape: 24 128 28 28 (2408448)
I0403 21:55:52.629626 24726 net.cpp:156] Memory required for data: 676774944
I0403 21:55:52.629640 24726 layer_factory.hpp:77] Creating layer inception_3b/3x3_reduce
I0403 21:55:52.629664 24726 net.cpp:91] Creating Layer inception_3b/3x3_reduce
I0403 21:55:52.629681 24726 net.cpp:425] inception_3b/3x3_reduce <- inception_3a/output_inception_3a/output_0_split_1
I0403 21:55:52.629701 24726 net.cpp:399] inception_3b/3x3_reduce -> inception_3b/3x3_reduce
I0403 21:55:52.630839 24726 net.cpp:141] Setting up inception_3b/3x3_reduce
I0403 21:55:52.630867 24726 net.cpp:148] Top shape: 24 128 28 28 (2408448)
I0403 21:55:52.630882 24726 net.cpp:156] Memory required for data: 686408736
I0403 21:55:52.630900 24726 layer_factory.hpp:77] Creating layer inception_3b/relu_3x3_reduce
I0403 21:55:52.630920 24726 net.cpp:91] Creating Layer inception_3b/relu_3x3_reduce
I0403 21:55:52.630939 24726 net.cpp:425] inception_3b/relu_3x3_reduce <- inception_3b/3x3_reduce
I0403 21:55:52.630957 24726 net.cpp:386] inception_3b/relu_3x3_reduce -> inception_3b/3x3_reduce (in-place)
I0403 21:55:52.631121 24726 net.cpp:141] Setting up inception_3b/relu_3x3_reduce
I0403 21:55:52.631148 24726 net.cpp:148] Top shape: 24 128 28 28 (2408448)
I0403 21:55:52.631165 24726 net.cpp:156] Memory required for data: 696042528
I0403 21:55:52.631180 24726 layer_factory.hpp:77] Creating layer inception_3b/3x3
I0403 21:55:52.631206 24726 net.cpp:91] Creating Layer inception_3b/3x3
I0403 21:55:52.631227 24726 net.cpp:425] inception_3b/3x3 <- inception_3b/3x3_reduce
I0403 21:55:52.631249 24726 net.cpp:399] inception_3b/3x3 -> inception_3b/3x3
I0403 21:55:52.634064 24726 net.cpp:141] Setting up inception_3b/3x3
I0403 21:55:52.634093 24726 net.cpp:148] Top shape: 24 192 28 28 (3612672)
I0403 21:55:52.634109 24726 net.cpp:156] Memory required for data: 710493216
I0403 21:55:52.634129 24726 layer_factory.hpp:77] Creating layer inception_3b/relu_3x3
I0403 21:55:52.634150 24726 net.cpp:91] Creating Layer inception_3b/relu_3x3
I0403 21:55:52.634167 24726 net.cpp:425] inception_3b/relu_3x3 <- inception_3b/3x3
I0403 21:55:52.634184 24726 net.cpp:386] inception_3b/relu_3x3 -> inception_3b/3x3 (in-place)
I0403 21:55:52.634452 24726 net.cpp:141] Setting up inception_3b/relu_3x3
I0403 21:55:52.634479 24726 net.cpp:148] Top shape: 24 192 28 28 (3612672)
I0403 21:55:52.634493 24726 net.cpp:156] Memory required for data: 724943904
I0403 21:55:52.634510 24726 layer_factory.hpp:77] Creating layer inception_3b/5x5_reduce
I0403 21:55:52.634533 24726 net.cpp:91] Creating Layer inception_3b/5x5_reduce
I0403 21:55:52.634551 24726 net.cpp:425] inception_3b/5x5_reduce <- inception_3a/output_inception_3a/output_0_split_2
I0403 21:55:52.634569 24726 net.cpp:399] inception_3b/5x5_reduce -> inception_3b/5x5_reduce
I0403 21:55:52.635535 24726 net.cpp:141] Setting up inception_3b/5x5_reduce
I0403 21:55:52.635563 24726 net.cpp:148] Top shape: 24 32 28 28 (602112)
I0403 21:55:52.635579 24726 net.cpp:156] Memory required for data: 727352352
I0403 21:55:52.635597 24726 layer_factory.hpp:77] Creating layer inception_3b/relu_5x5_reduce
I0403 21:55:52.635617 24726 net.cpp:91] Creating Layer inception_3b/relu_5x5_reduce
I0403 21:55:52.635634 24726 net.cpp:425] inception_3b/relu_5x5_reduce <- inception_3b/5x5_reduce
I0403 21:55:52.635653 24726 net.cpp:386] inception_3b/relu_5x5_reduce -> inception_3b/5x5_reduce (in-place)
I0403 21:55:52.635840 24726 net.cpp:141] Setting up inception_3b/relu_5x5_reduce
I0403 21:55:52.635867 24726 net.cpp:148] Top shape: 24 32 28 28 (602112)
I0403 21:55:52.635882 24726 net.cpp:156] Memory required for data: 729760800
I0403 21:55:52.635897 24726 layer_factory.hpp:77] Creating layer inception_3b/5x5
I0403 21:55:52.635920 24726 net.cpp:91] Creating Layer inception_3b/5x5
I0403 21:55:52.635937 24726 net.cpp:425] inception_3b/5x5 <- inception_3b/5x5_reduce
I0403 21:55:52.635959 24726 net.cpp:399] inception_3b/5x5 -> inception_3b/5x5
I0403 21:55:52.637871 24726 net.cpp:141] Setting up inception_3b/5x5
I0403 21:55:52.637899 24726 net.cpp:148] Top shape: 24 96 28 28 (1806336)
I0403 21:55:52.637915 24726 net.cpp:156] Memory required for data: 736986144
I0403 21:55:52.637934 24726 layer_factory.hpp:77] Creating layer inception_3b/relu_5x5
I0403 21:55:52.637953 24726 net.cpp:91] Creating Layer inception_3b/relu_5x5
I0403 21:55:52.637971 24726 net.cpp:425] inception_3b/relu_5x5 <- inception_3b/5x5
I0403 21:55:52.637989 24726 net.cpp:386] inception_3b/relu_5x5 -> inception_3b/5x5 (in-place)
I0403 21:55:52.638175 24726 net.cpp:141] Setting up inception_3b/relu_5x5
I0403 21:55:52.638211 24726 net.cpp:148] Top shape: 24 96 28 28 (1806336)
I0403 21:55:52.638228 24726 net.cpp:156] Memory required for data: 744211488
I0403 21:55:52.638243 24726 layer_factory.hpp:77] Creating layer inception_3b/pool
I0403 21:55:52.638262 24726 net.cpp:91] Creating Layer inception_3b/pool
I0403 21:55:52.638278 24726 net.cpp:425] inception_3b/pool <- inception_3a/output_inception_3a/output_0_split_3
I0403 21:55:52.638296 24726 net.cpp:399] inception_3b/pool -> inception_3b/pool
I0403 21:55:52.638350 24726 net.cpp:141] Setting up inception_3b/pool
I0403 21:55:52.638375 24726 net.cpp:148] Top shape: 24 256 28 28 (4816896)
I0403 21:55:52.638389 24726 net.cpp:156] Memory required for data: 763479072
I0403 21:55:52.638403 24726 layer_factory.hpp:77] Creating layer inception_3b/pool_proj
I0403 21:55:52.638425 24726 net.cpp:91] Creating Layer inception_3b/pool_proj
I0403 21:55:52.638443 24726 net.cpp:425] inception_3b/pool_proj <- inception_3b/pool
I0403 21:55:52.638464 24726 net.cpp:399] inception_3b/pool_proj -> inception_3b/pool_proj
I0403 21:55:52.639487 24726 net.cpp:141] Setting up inception_3b/pool_proj
I0403 21:55:52.639515 24726 net.cpp:148] Top shape: 24 64 28 28 (1204224)
I0403 21:55:52.639531 24726 net.cpp:156] Memory required for data: 768295968
I0403 21:55:52.639549 24726 layer_factory.hpp:77] Creating layer inception_3b/relu_pool_proj
I0403 21:55:52.639567 24726 net.cpp:91] Creating Layer inception_3b/relu_pool_proj
I0403 21:55:52.639583 24726 net.cpp:425] inception_3b/relu_pool_proj <- inception_3b/pool_proj
I0403 21:55:52.639603 24726 net.cpp:386] inception_3b/relu_pool_proj -> inception_3b/pool_proj (in-place)
I0403 21:55:52.639981 24726 net.cpp:141] Setting up inception_3b/relu_pool_proj
I0403 21:55:52.640009 24726 net.cpp:148] Top shape: 24 64 28 28 (1204224)
I0403 21:55:52.640027 24726 net.cpp:156] Memory required for data: 773112864
I0403 21:55:52.640043 24726 layer_factory.hpp:77] Creating layer inception_3b/output
I0403 21:55:52.640060 24726 net.cpp:91] Creating Layer inception_3b/output
I0403 21:55:52.640077 24726 net.cpp:425] inception_3b/output <- inception_3b/1x1
I0403 21:55:52.640094 24726 net.cpp:425] inception_3b/output <- inception_3b/3x3
I0403 21:55:52.640110 24726 net.cpp:425] inception_3b/output <- inception_3b/5x5
I0403 21:55:52.640125 24726 net.cpp:425] inception_3b/output <- inception_3b/pool_proj
I0403 21:55:52.640143 24726 net.cpp:399] inception_3b/output -> inception_3b/output
I0403 21:55:52.640187 24726 net.cpp:141] Setting up inception_3b/output
I0403 21:55:52.640214 24726 net.cpp:148] Top shape: 24 480 28 28 (9031680)
I0403 21:55:52.640230 24726 net.cpp:156] Memory required for data: 809239584
I0403 21:55:52.640245 24726 layer_factory.hpp:77] Creating layer pool3/3x3_s2
I0403 21:55:52.640264 24726 net.cpp:91] Creating Layer pool3/3x3_s2
I0403 21:55:52.640281 24726 net.cpp:425] pool3/3x3_s2 <- inception_3b/output
I0403 21:55:52.640314 24726 net.cpp:399] pool3/3x3_s2 -> pool3/3x3_s2
I0403 21:55:52.640374 24726 net.cpp:141] Setting up pool3/3x3_s2
I0403 21:55:52.640398 24726 net.cpp:148] Top shape: 24 480 14 14 (2257920)
I0403 21:55:52.640413 24726 net.cpp:156] Memory required for data: 818271264
I0403 21:55:52.640426 24726 layer_factory.hpp:77] Creating layer pool3/3x3_s2_pool3/3x3_s2_0_split
I0403 21:55:52.640444 24726 net.cpp:91] Creating Layer pool3/3x3_s2_pool3/3x3_s2_0_split
I0403 21:55:52.640458 24726 net.cpp:425] pool3/3x3_s2_pool3/3x3_s2_0_split <- pool3/3x3_s2
I0403 21:55:52.640477 24726 net.cpp:399] pool3/3x3_s2_pool3/3x3_s2_0_split -> pool3/3x3_s2_pool3/3x3_s2_0_split_0
I0403 21:55:52.640499 24726 net.cpp:399] pool3/3x3_s2_pool3/3x3_s2_0_split -> pool3/3x3_s2_pool3/3x3_s2_0_split_1
I0403 21:55:52.640519 24726 net.cpp:399] pool3/3x3_s2_pool3/3x3_s2_0_split -> pool3/3x3_s2_pool3/3x3_s2_0_split_2
I0403 21:55:52.640539 24726 net.cpp:399] pool3/3x3_s2_pool3/3x3_s2_0_split -> pool3/3x3_s2_pool3/3x3_s2_0_split_3
I0403 21:55:52.640614 24726 net.cpp:141] Setting up pool3/3x3_s2_pool3/3x3_s2_0_split
I0403 21:55:52.640636 24726 net.cpp:148] Top shape: 24 480 14 14 (2257920)
I0403 21:55:52.640653 24726 net.cpp:148] Top shape: 24 480 14 14 (2257920)
I0403 21:55:52.640669 24726 net.cpp:148] Top shape: 24 480 14 14 (2257920)
I0403 21:55:52.640686 24726 net.cpp:148] Top shape: 24 480 14 14 (2257920)
I0403 21:55:52.640698 24726 net.cpp:156] Memory required for data: 854397984
I0403 21:55:52.640713 24726 layer_factory.hpp:77] Creating layer inception_4a/1x1
I0403 21:55:52.640734 24726 net.cpp:91] Creating Layer inception_4a/1x1
I0403 21:55:52.640751 24726 net.cpp:425] inception_4a/1x1 <- pool3/3x3_s2_pool3/3x3_s2_0_split_0
I0403 21:55:52.640774 24726 net.cpp:399] inception_4a/1x1 -> inception_4a/1x1
I0403 21:55:52.642280 24726 net.cpp:141] Setting up inception_4a/1x1
I0403 21:55:52.642307 24726 net.cpp:148] Top shape: 24 192 14 14 (903168)
I0403 21:55:52.642324 24726 net.cpp:156] Memory required for data: 858010656
I0403 21:55:52.642343 24726 layer_factory.hpp:77] Creating layer inception_4a/relu_1x1
I0403 21:55:52.642361 24726 net.cpp:91] Creating Layer inception_4a/relu_1x1
I0403 21:55:52.642379 24726 net.cpp:425] inception_4a/relu_1x1 <- inception_4a/1x1
I0403 21:55:52.642398 24726 net.cpp:386] inception_4a/relu_1x1 -> inception_4a/1x1 (in-place)
I0403 21:55:52.642572 24726 net.cpp:141] Setting up inception_4a/relu_1x1
I0403 21:55:52.642598 24726 net.cpp:148] Top shape: 24 192 14 14 (903168)
I0403 21:55:52.642612 24726 net.cpp:156] Memory required for data: 861623328
I0403 21:55:52.642627 24726 layer_factory.hpp:77] Creating layer inception_4a/3x3_reduce
I0403 21:55:52.642648 24726 net.cpp:91] Creating Layer inception_4a/3x3_reduce
I0403 21:55:52.642666 24726 net.cpp:425] inception_4a/3x3_reduce <- pool3/3x3_s2_pool3/3x3_s2_0_split_1
I0403 21:55:52.642688 24726 net.cpp:399] inception_4a/3x3_reduce -> inception_4a/3x3_reduce
I0403 21:55:52.643918 24726 net.cpp:141] Setting up inception_4a/3x3_reduce
I0403 21:55:52.643945 24726 net.cpp:148] Top shape: 24 96 14 14 (451584)
I0403 21:55:52.643960 24726 net.cpp:156] Memory required for data: 863429664
I0403 21:55:52.643985 24726 layer_factory.hpp:77] Creating layer inception_4a/relu_3x3_reduce
I0403 21:55:52.644006 24726 net.cpp:91] Creating Layer inception_4a/relu_3x3_reduce
I0403 21:55:52.644022 24726 net.cpp:425] inception_4a/relu_3x3_reduce <- inception_4a/3x3_reduce
I0403 21:55:52.644042 24726 net.cpp:386] inception_4a/relu_3x3_reduce -> inception_4a/3x3_reduce (in-place)
I0403 21:55:52.644214 24726 net.cpp:141] Setting up inception_4a/relu_3x3_reduce
I0403 21:55:52.644240 24726 net.cpp:148] Top shape: 24 96 14 14 (451584)
I0403 21:55:52.644255 24726 net.cpp:156] Memory required for data: 865236000
I0403 21:55:52.644270 24726 layer_factory.hpp:77] Creating layer inception_4a/3x3
I0403 21:55:52.644292 24726 net.cpp:91] Creating Layer inception_4a/3x3
I0403 21:55:52.644309 24726 net.cpp:425] inception_4a/3x3 <- inception_4a/3x3_reduce
I0403 21:55:52.644330 24726 net.cpp:399] inception_4a/3x3 -> inception_4a/3x3
I0403 21:55:52.646939 24726 net.cpp:141] Setting up inception_4a/3x3
I0403 21:55:52.646968 24726 net.cpp:148] Top shape: 24 208 14 14 (978432)
I0403 21:55:52.646984 24726 net.cpp:156] Memory required for data: 869149728
I0403 21:55:52.647002 24726 layer_factory.hpp:77] Creating layer inception_4a/relu_3x3
I0403 21:55:52.647022 24726 net.cpp:91] Creating Layer inception_4a/relu_3x3
I0403 21:55:52.647040 24726 net.cpp:425] inception_4a/relu_3x3 <- inception_4a/3x3
I0403 21:55:52.647058 24726 net.cpp:386] inception_4a/relu_3x3 -> inception_4a/3x3 (in-place)
I0403 21:55:52.647330 24726 net.cpp:141] Setting up inception_4a/relu_3x3
I0403 21:55:52.647356 24726 net.cpp:148] Top shape: 24 208 14 14 (978432)
I0403 21:55:52.647372 24726 net.cpp:156] Memory required for data: 873063456
I0403 21:55:52.647387 24726 layer_factory.hpp:77] Creating layer inception_4a/5x5_reduce
I0403 21:55:52.647408 24726 net.cpp:91] Creating Layer inception_4a/5x5_reduce
I0403 21:55:52.647425 24726 net.cpp:425] inception_4a/5x5_reduce <- pool3/3x3_s2_pool3/3x3_s2_0_split_2
I0403 21:55:52.647449 24726 net.cpp:399] inception_4a/5x5_reduce -> inception_4a/5x5_reduce
I0403 21:55:52.648479 24726 net.cpp:141] Setting up inception_4a/5x5_reduce
I0403 21:55:52.648506 24726 net.cpp:148] Top shape: 24 16 14 14 (75264)
I0403 21:55:52.648521 24726 net.cpp:156] Memory required for data: 873364512
I0403 21:55:52.648540 24726 layer_factory.hpp:77] Creating layer inception_4a/relu_5x5_reduce
I0403 21:55:52.648561 24726 net.cpp:91] Creating Layer inception_4a/relu_5x5_reduce
I0403 21:55:52.648577 24726 net.cpp:425] inception_4a/relu_5x5_reduce <- inception_4a/5x5_reduce
I0403 21:55:52.648596 24726 net.cpp:386] inception_4a/relu_5x5_reduce -> inception_4a/5x5_reduce (in-place)
I0403 21:55:52.648764 24726 net.cpp:141] Setting up inception_4a/relu_5x5_reduce
I0403 21:55:52.648792 24726 net.cpp:148] Top shape: 24 16 14 14 (75264)
I0403 21:55:52.648808 24726 net.cpp:156] Memory required for data: 873665568
I0403 21:55:52.648823 24726 layer_factory.hpp:77] Creating layer inception_4a/5x5
I0403 21:55:52.648844 24726 net.cpp:91] Creating Layer inception_4a/5x5
I0403 21:55:52.648861 24726 net.cpp:425] inception_4a/5x5 <- inception_4a/5x5_reduce
I0403 21:55:52.648880 24726 net.cpp:399] inception_4a/5x5 -> inception_4a/5x5
I0403 21:55:52.649930 24726 net.cpp:141] Setting up inception_4a/5x5
I0403 21:55:52.649962 24726 net.cpp:148] Top shape: 24 48 14 14 (225792)
I0403 21:55:52.649979 24726 net.cpp:156] Memory required for data: 874568736
I0403 21:55:52.649997 24726 layer_factory.hpp:77] Creating layer inception_4a/relu_5x5
I0403 21:55:52.650015 24726 net.cpp:91] Creating Layer inception_4a/relu_5x5
I0403 21:55:52.650030 24726 net.cpp:425] inception_4a/relu_5x5 <- inception_4a/5x5
I0403 21:55:52.650050 24726 net.cpp:386] inception_4a/relu_5x5 -> inception_4a/5x5 (in-place)
I0403 21:55:52.650226 24726 net.cpp:141] Setting up inception_4a/relu_5x5
I0403 21:55:52.650252 24726 net.cpp:148] Top shape: 24 48 14 14 (225792)
I0403 21:55:52.650266 24726 net.cpp:156] Memory required for data: 875471904
I0403 21:55:52.650281 24726 layer_factory.hpp:77] Creating layer inception_4a/pool
I0403 21:55:52.650298 24726 net.cpp:91] Creating Layer inception_4a/pool
I0403 21:55:52.650315 24726 net.cpp:425] inception_4a/pool <- pool3/3x3_s2_pool3/3x3_s2_0_split_3
I0403 21:55:52.650334 24726 net.cpp:399] inception_4a/pool -> inception_4a/pool
I0403 21:55:52.650394 24726 net.cpp:141] Setting up inception_4a/pool
I0403 21:55:52.650418 24726 net.cpp:148] Top shape: 24 480 14 14 (2257920)
I0403 21:55:52.650434 24726 net.cpp:156] Memory required for data: 884503584
I0403 21:55:52.650447 24726 layer_factory.hpp:77] Creating layer inception_4a/pool_proj
I0403 21:55:52.650470 24726 net.cpp:91] Creating Layer inception_4a/pool_proj
I0403 21:55:52.650487 24726 net.cpp:425] inception_4a/pool_proj <- inception_4a/pool
I0403 21:55:52.650506 24726 net.cpp:399] inception_4a/pool_proj -> inception_4a/pool_proj
I0403 21:55:52.651626 24726 net.cpp:141] Setting up inception_4a/pool_proj
I0403 21:55:52.651654 24726 net.cpp:148] Top shape: 24 64 14 14 (301056)
I0403 21:55:52.651684 24726 net.cpp:156] Memory required for data: 885707808
I0403 21:55:52.651702 24726 layer_factory.hpp:77] Creating layer inception_4a/relu_pool_proj
I0403 21:55:52.651721 24726 net.cpp:91] Creating Layer inception_4a/relu_pool_proj
I0403 21:55:52.651738 24726 net.cpp:425] inception_4a/relu_pool_proj <- inception_4a/pool_proj
I0403 21:55:52.651758 24726 net.cpp:386] inception_4a/relu_pool_proj -> inception_4a/pool_proj (in-place)
I0403 21:55:52.652032 24726 net.cpp:141] Setting up inception_4a/relu_pool_proj
I0403 21:55:52.652058 24726 net.cpp:148] Top shape: 24 64 14 14 (301056)
I0403 21:55:52.652073 24726 net.cpp:156] Memory required for data: 886912032
I0403 21:55:52.652088 24726 layer_factory.hpp:77] Creating layer inception_4a/output
I0403 21:55:52.652106 24726 net.cpp:91] Creating Layer inception_4a/output
I0403 21:55:52.652122 24726 net.cpp:425] inception_4a/output <- inception_4a/1x1
I0403 21:55:52.652137 24726 net.cpp:425] inception_4a/output <- inception_4a/3x3
I0403 21:55:52.652153 24726 net.cpp:425] inception_4a/output <- inception_4a/5x5
I0403 21:55:52.652168 24726 net.cpp:425] inception_4a/output <- inception_4a/pool_proj
I0403 21:55:52.652187 24726 net.cpp:399] inception_4a/output -> inception_4a/output
I0403 21:55:52.652235 24726 net.cpp:141] Setting up inception_4a/output
I0403 21:55:52.652258 24726 net.cpp:148] Top shape: 24 512 14 14 (2408448)
I0403 21:55:52.652274 24726 net.cpp:156] Memory required for data: 896545824
I0403 21:55:52.652288 24726 layer_factory.hpp:77] Creating layer inception_4a/output_inception_4a/output_0_split
I0403 21:55:52.652307 24726 net.cpp:91] Creating Layer inception_4a/output_inception_4a/output_0_split
I0403 21:55:52.652325 24726 net.cpp:425] inception_4a/output_inception_4a/output_0_split <- inception_4a/output
I0403 21:55:52.652344 24726 net.cpp:399] inception_4a/output_inception_4a/output_0_split -> inception_4a/output_inception_4a/output_0_split_0
I0403 21:55:52.652366 24726 net.cpp:399] inception_4a/output_inception_4a/output_0_split -> inception_4a/output_inception_4a/output_0_split_1
I0403 21:55:52.652386 24726 net.cpp:399] inception_4a/output_inception_4a/output_0_split -> inception_4a/output_inception_4a/output_0_split_2
I0403 21:55:52.652406 24726 net.cpp:399] inception_4a/output_inception_4a/output_0_split -> inception_4a/output_inception_4a/output_0_split_3
I0403 21:55:52.652426 24726 net.cpp:399] inception_4a/output_inception_4a/output_0_split -> inception_4a/output_inception_4a/output_0_split_4
I0403 21:55:52.652518 24726 net.cpp:141] Setting up inception_4a/output_inception_4a/output_0_split
I0403 21:55:52.652541 24726 net.cpp:148] Top shape: 24 512 14 14 (2408448)
I0403 21:55:52.652559 24726 net.cpp:148] Top shape: 24 512 14 14 (2408448)
I0403 21:55:52.652575 24726 net.cpp:148] Top shape: 24 512 14 14 (2408448)
I0403 21:55:52.652590 24726 net.cpp:148] Top shape: 24 512 14 14 (2408448)
I0403 21:55:52.652604 24726 net.cpp:148] Top shape: 24 512 14 14 (2408448)
I0403 21:55:52.652618 24726 net.cpp:156] Memory required for data: 944714784
I0403 21:55:52.652633 24726 layer_factory.hpp:77] Creating layer loss1/ave_pool
I0403 21:55:52.652654 24726 net.cpp:91] Creating Layer loss1/ave_pool
I0403 21:55:52.652672 24726 net.cpp:425] loss1/ave_pool <- inception_4a/output_inception_4a/output_0_split_0
I0403 21:55:52.652689 24726 net.cpp:399] loss1/ave_pool -> loss1/ave_pool
I0403 21:55:52.652884 24726 net.cpp:141] Setting up loss1/ave_pool
I0403 21:55:52.652910 24726 net.cpp:148] Top shape: 24 512 4 4 (196608)
I0403 21:55:52.652925 24726 net.cpp:156] Memory required for data: 945501216
I0403 21:55:52.652940 24726 layer_factory.hpp:77] Creating layer loss1/conv
I0403 21:55:52.652964 24726 net.cpp:91] Creating Layer loss1/conv
I0403 21:55:52.652982 24726 net.cpp:425] loss1/conv <- loss1/ave_pool
I0403 21:55:52.653002 24726 net.cpp:399] loss1/conv -> loss1/conv
I0403 21:55:52.654356 24726 net.cpp:141] Setting up loss1/conv
I0403 21:55:52.654383 24726 net.cpp:148] Top shape: 24 128 4 4 (49152)
I0403 21:55:52.654412 24726 net.cpp:156] Memory required for data: 945697824
I0403 21:55:52.654433 24726 layer_factory.hpp:77] Creating layer loss1/relu_conv
I0403 21:55:52.654453 24726 net.cpp:91] Creating Layer loss1/relu_conv
I0403 21:55:52.654469 24726 net.cpp:425] loss1/relu_conv <- loss1/conv
I0403 21:55:52.654487 24726 net.cpp:386] loss1/relu_conv -> loss1/conv (in-place)
I0403 21:55:52.654759 24726 net.cpp:141] Setting up loss1/relu_conv
I0403 21:55:52.654785 24726 net.cpp:148] Top shape: 24 128 4 4 (49152)
I0403 21:55:52.654800 24726 net.cpp:156] Memory required for data: 945894432
I0403 21:55:52.654815 24726 layer_factory.hpp:77] Creating layer loss1/fc
I0403 21:55:52.654840 24726 net.cpp:91] Creating Layer loss1/fc
I0403 21:55:52.654858 24726 net.cpp:425] loss1/fc <- loss1/conv
I0403 21:55:52.654878 24726 net.cpp:399] loss1/fc -> loss1/fc
I0403 21:55:52.672323 24726 net.cpp:141] Setting up loss1/fc
I0403 21:55:52.672358 24726 net.cpp:148] Top shape: 24 1024 (24576)
I0403 21:55:52.672374 24726 net.cpp:156] Memory required for data: 945992736
I0403 21:55:52.672391 24726 layer_factory.hpp:77] Creating layer loss1/relu_fc
I0403 21:55:52.672410 24726 net.cpp:91] Creating Layer loss1/relu_fc
I0403 21:55:52.672425 24726 net.cpp:425] loss1/relu_fc <- loss1/fc
I0403 21:55:52.672446 24726 net.cpp:386] loss1/relu_fc -> loss1/fc (in-place)
I0403 21:55:52.672626 24726 net.cpp:141] Setting up loss1/relu_fc
I0403 21:55:52.672651 24726 net.cpp:148] Top shape: 24 1024 (24576)
I0403 21:55:52.672665 24726 net.cpp:156] Memory required for data: 946091040
I0403 21:55:52.672682 24726 layer_factory.hpp:77] Creating layer loss1/drop_fc
I0403 21:55:52.672708 24726 net.cpp:91] Creating Layer loss1/drop_fc
I0403 21:55:52.672726 24726 net.cpp:425] loss1/drop_fc <- loss1/fc
I0403 21:55:52.672744 24726 net.cpp:386] loss1/drop_fc -> loss1/fc (in-place)
I0403 21:55:52.672793 24726 net.cpp:141] Setting up loss1/drop_fc
I0403 21:55:52.672818 24726 net.cpp:148] Top shape: 24 1024 (24576)
I0403 21:55:52.672834 24726 net.cpp:156] Memory required for data: 946189344
I0403 21:55:52.672849 24726 layer_factory.hpp:77] Creating layer loss1/classifier_plantvillage
I0403 21:55:52.672868 24726 net.cpp:91] Creating Layer loss1/classifier_plantvillage
I0403 21:55:52.672883 24726 net.cpp:425] loss1/classifier_plantvillage <- loss1/fc
I0403 21:55:52.672904 24726 net.cpp:399] loss1/classifier_plantvillage -> loss1/classifier_plantvillage
I0403 21:55:52.673810 24726 net.cpp:141] Setting up loss1/classifier_plantvillage
I0403 21:55:52.673837 24726 net.cpp:148] Top shape: 24 38 (912)
I0403 21:55:52.673852 24726 net.cpp:156] Memory required for data: 946192992
I0403 21:55:52.673869 24726 layer_factory.hpp:77] Creating layer loss1/classifier_plantvillage_loss1/classifier_plantvillage_0_split
I0403 21:55:52.673888 24726 net.cpp:91] Creating Layer loss1/classifier_plantvillage_loss1/classifier_plantvillage_0_split
I0403 21:55:52.673905 24726 net.cpp:425] loss1/classifier_plantvillage_loss1/classifier_plantvillage_0_split <- loss1/classifier_plantvillage
I0403 21:55:52.673925 24726 net.cpp:399] loss1/classifier_plantvillage_loss1/classifier_plantvillage_0_split -> loss1/classifier_plantvillage_loss1/classifier_plantvillage_0_split_0
I0403 21:55:52.673949 24726 net.cpp:399] loss1/classifier_plantvillage_loss1/classifier_plantvillage_0_split -> loss1/classifier_plantvillage_loss1/classifier_plantvillage_0_split_1
I0403 21:55:52.673969 24726 net.cpp:399] loss1/classifier_plantvillage_loss1/classifier_plantvillage_0_split -> loss1/classifier_plantvillage_loss1/classifier_plantvillage_0_split_2
I0403 21:55:52.674036 24726 net.cpp:141] Setting up loss1/classifier_plantvillage_loss1/classifier_plantvillage_0_split
I0403 21:55:52.674058 24726 net.cpp:148] Top shape: 24 38 (912)
I0403 21:55:52.674074 24726 net.cpp:148] Top shape: 24 38 (912)
I0403 21:55:52.674089 24726 net.cpp:148] Top shape: 24 38 (912)
I0403 21:55:52.674104 24726 net.cpp:156] Memory required for data: 946203936
I0403 21:55:52.674118 24726 layer_factory.hpp:77] Creating layer inception_4b/1x1
I0403 21:55:52.674139 24726 net.cpp:91] Creating Layer inception_4b/1x1
I0403 21:55:52.674173 24726 net.cpp:425] inception_4b/1x1 <- inception_4a/output_inception_4a/output_0_split_1
I0403 21:55:52.674193 24726 net.cpp:399] inception_4b/1x1 -> inception_4b/1x1
I0403 21:55:52.675801 24726 net.cpp:141] Setting up inception_4b/1x1
I0403 21:55:52.675828 24726 net.cpp:148] Top shape: 24 160 14 14 (752640)
I0403 21:55:52.675844 24726 net.cpp:156] Memory required for data: 949214496
I0403 21:55:52.675863 24726 layer_factory.hpp:77] Creating layer inception_4b/relu_1x1
I0403 21:55:52.675882 24726 net.cpp:91] Creating Layer inception_4b/relu_1x1
I0403 21:55:52.675899 24726 net.cpp:425] inception_4b/relu_1x1 <- inception_4b/1x1
I0403 21:55:52.675916 24726 net.cpp:386] inception_4b/relu_1x1 -> inception_4b/1x1 (in-place)
I0403 21:55:52.676092 24726 net.cpp:141] Setting up inception_4b/relu_1x1
I0403 21:55:52.676118 24726 net.cpp:148] Top shape: 24 160 14 14 (752640)
I0403 21:55:52.676134 24726 net.cpp:156] Memory required for data: 952225056
I0403 21:55:52.676149 24726 layer_factory.hpp:77] Creating layer inception_4b/3x3_reduce
I0403 21:55:52.676172 24726 net.cpp:91] Creating Layer inception_4b/3x3_reduce
I0403 21:55:52.676187 24726 net.cpp:425] inception_4b/3x3_reduce <- inception_4a/output_inception_4a/output_0_split_2
I0403 21:55:52.676211 24726 net.cpp:399] inception_4b/3x3_reduce -> inception_4b/3x3_reduce
I0403 21:55:52.677531 24726 net.cpp:141] Setting up inception_4b/3x3_reduce
I0403 21:55:52.677562 24726 net.cpp:148] Top shape: 24 112 14 14 (526848)
I0403 21:55:52.677579 24726 net.cpp:156] Memory required for data: 954332448
I0403 21:55:52.677597 24726 layer_factory.hpp:77] Creating layer inception_4b/relu_3x3_reduce
I0403 21:55:52.677615 24726 net.cpp:91] Creating Layer inception_4b/relu_3x3_reduce
I0403 21:55:52.677631 24726 net.cpp:425] inception_4b/relu_3x3_reduce <- inception_4b/3x3_reduce
I0403 21:55:52.677649 24726 net.cpp:386] inception_4b/relu_3x3_reduce -> inception_4b/3x3_reduce (in-place)
I0403 21:55:52.677933 24726 net.cpp:141] Setting up inception_4b/relu_3x3_reduce
I0403 21:55:52.677961 24726 net.cpp:148] Top shape: 24 112 14 14 (526848)
I0403 21:55:52.677976 24726 net.cpp:156] Memory required for data: 956439840
I0403 21:55:52.677991 24726 layer_factory.hpp:77] Creating layer inception_4b/3x3
I0403 21:55:52.678014 24726 net.cpp:91] Creating Layer inception_4b/3x3
I0403 21:55:52.678030 24726 net.cpp:425] inception_4b/3x3 <- inception_4b/3x3_reduce
I0403 21:55:52.678050 24726 net.cpp:399] inception_4b/3x3 -> inception_4b/3x3
I0403 21:55:52.680994 24726 net.cpp:141] Setting up inception_4b/3x3
I0403 21:55:52.681021 24726 net.cpp:148] Top shape: 24 224 14 14 (1053696)
I0403 21:55:52.681037 24726 net.cpp:156] Memory required for data: 960654624
I0403 21:55:52.681056 24726 layer_factory.hpp:77] Creating layer inception_4b/relu_3x3
I0403 21:55:52.681072 24726 net.cpp:91] Creating Layer inception_4b/relu_3x3
I0403 21:55:52.681088 24726 net.cpp:425] inception_4b/relu_3x3 <- inception_4b/3x3
I0403 21:55:52.681107 24726 net.cpp:386] inception_4b/relu_3x3 -> inception_4b/3x3 (in-place)
I0403 21:55:52.681294 24726 net.cpp:141] Setting up inception_4b/relu_3x3
I0403 21:55:52.681319 24726 net.cpp:148] Top shape: 24 224 14 14 (1053696)
I0403 21:55:52.681334 24726 net.cpp:156] Memory required for data: 964869408
I0403 21:55:52.681349 24726 layer_factory.hpp:77] Creating layer inception_4b/5x5_reduce
I0403 21:55:52.681370 24726 net.cpp:91] Creating Layer inception_4b/5x5_reduce
I0403 21:55:52.681386 24726 net.cpp:425] inception_4b/5x5_reduce <- inception_4a/output_inception_4a/output_0_split_3
I0403 21:55:52.681407 24726 net.cpp:399] inception_4b/5x5_reduce -> inception_4b/5x5_reduce
I0403 21:55:52.682461 24726 net.cpp:141] Setting up inception_4b/5x5_reduce
I0403 21:55:52.682490 24726 net.cpp:148] Top shape: 24 24 14 14 (112896)
I0403 21:55:52.682507 24726 net.cpp:156] Memory required for data: 965320992
I0403 21:55:52.682524 24726 layer_factory.hpp:77] Creating layer inception_4b/relu_5x5_reduce
I0403 21:55:52.682543 24726 net.cpp:91] Creating Layer inception_4b/relu_5x5_reduce
I0403 21:55:52.682572 24726 net.cpp:425] inception_4b/relu_5x5_reduce <- inception_4b/5x5_reduce
I0403 21:55:52.682590 24726 net.cpp:386] inception_4b/relu_5x5_reduce -> inception_4b/5x5_reduce (in-place)
I0403 21:55:52.682766 24726 net.cpp:141] Setting up inception_4b/relu_5x5_reduce
I0403 21:55:52.682792 24726 net.cpp:148] Top shape: 24 24 14 14 (112896)
I0403 21:55:52.682808 24726 net.cpp:156] Memory required for data: 965772576
I0403 21:55:52.682823 24726 layer_factory.hpp:77] Creating layer inception_4b/5x5
I0403 21:55:52.682844 24726 net.cpp:91] Creating Layer inception_4b/5x5
I0403 21:55:52.682862 24726 net.cpp:425] inception_4b/5x5 <- inception_4b/5x5_reduce
I0403 21:55:52.682879 24726 net.cpp:399] inception_4b/5x5 -> inception_4b/5x5
I0403 21:55:52.684073 24726 net.cpp:141] Setting up inception_4b/5x5
I0403 21:55:52.684101 24726 net.cpp:148] Top shape: 24 64 14 14 (301056)
I0403 21:55:52.684116 24726 net.cpp:156] Memory required for data: 966976800
I0403 21:55:52.684134 24726 layer_factory.hpp:77] Creating layer inception_4b/relu_5x5
I0403 21:55:52.684154 24726 net.cpp:91] Creating Layer inception_4b/relu_5x5
I0403 21:55:52.684170 24726 net.cpp:425] inception_4b/relu_5x5 <- inception_4b/5x5
I0403 21:55:52.684186 24726 net.cpp:386] inception_4b/relu_5x5 -> inception_4b/5x5 (in-place)
I0403 21:55:52.684466 24726 net.cpp:141] Setting up inception_4b/relu_5x5
I0403 21:55:52.684492 24726 net.cpp:148] Top shape: 24 64 14 14 (301056)
I0403 21:55:52.684506 24726 net.cpp:156] Memory required for data: 968181024
I0403 21:55:52.684521 24726 layer_factory.hpp:77] Creating layer inception_4b/pool
I0403 21:55:52.684543 24726 net.cpp:91] Creating Layer inception_4b/pool
I0403 21:55:52.684561 24726 net.cpp:425] inception_4b/pool <- inception_4a/output_inception_4a/output_0_split_4
I0403 21:55:52.684578 24726 net.cpp:399] inception_4b/pool -> inception_4b/pool
I0403 21:55:52.684641 24726 net.cpp:141] Setting up inception_4b/pool
I0403 21:55:52.684664 24726 net.cpp:148] Top shape: 24 512 14 14 (2408448)
I0403 21:55:52.684679 24726 net.cpp:156] Memory required for data: 977814816
I0403 21:55:52.684694 24726 layer_factory.hpp:77] Creating layer inception_4b/pool_proj
I0403 21:55:52.684715 24726 net.cpp:91] Creating Layer inception_4b/pool_proj
I0403 21:55:52.684731 24726 net.cpp:425] inception_4b/pool_proj <- inception_4b/pool
I0403 21:55:52.684752 24726 net.cpp:399] inception_4b/pool_proj -> inception_4b/pool_proj
I0403 21:55:52.685951 24726 net.cpp:141] Setting up inception_4b/pool_proj
I0403 21:55:52.685977 24726 net.cpp:148] Top shape: 24 64 14 14 (301056)
I0403 21:55:52.685993 24726 net.cpp:156] Memory required for data: 979019040
I0403 21:55:52.686010 24726 layer_factory.hpp:77] Creating layer inception_4b/relu_pool_proj
I0403 21:55:52.686030 24726 net.cpp:91] Creating Layer inception_4b/relu_pool_proj
I0403 21:55:52.686046 24726 net.cpp:425] inception_4b/relu_pool_proj <- inception_4b/pool_proj
I0403 21:55:52.686064 24726 net.cpp:386] inception_4b/relu_pool_proj -> inception_4b/pool_proj (in-place)
I0403 21:55:52.686242 24726 net.cpp:141] Setting up inception_4b/relu_pool_proj
I0403 21:55:52.686266 24726 net.cpp:148] Top shape: 24 64 14 14 (301056)
I0403 21:55:52.686280 24726 net.cpp:156] Memory required for data: 980223264
I0403 21:55:52.686295 24726 layer_factory.hpp:77] Creating layer inception_4b/output
I0403 21:55:52.686311 24726 net.cpp:91] Creating Layer inception_4b/output
I0403 21:55:52.686326 24726 net.cpp:425] inception_4b/output <- inception_4b/1x1
I0403 21:55:52.686342 24726 net.cpp:425] inception_4b/output <- inception_4b/3x3
I0403 21:55:52.686357 24726 net.cpp:425] inception_4b/output <- inception_4b/5x5
I0403 21:55:52.686372 24726 net.cpp:425] inception_4b/output <- inception_4b/pool_proj
I0403 21:55:52.686390 24726 net.cpp:399] inception_4b/output -> inception_4b/output
I0403 21:55:52.686434 24726 net.cpp:141] Setting up inception_4b/output
I0403 21:55:52.686458 24726 net.cpp:148] Top shape: 24 512 14 14 (2408448)
I0403 21:55:52.686473 24726 net.cpp:156] Memory required for data: 989857056
I0403 21:55:52.686501 24726 layer_factory.hpp:77] Creating layer inception_4b/output_inception_4b/output_0_split
I0403 21:55:52.686519 24726 net.cpp:91] Creating Layer inception_4b/output_inception_4b/output_0_split
I0403 21:55:52.686534 24726 net.cpp:425] inception_4b/output_inception_4b/output_0_split <- inception_4b/output
I0403 21:55:52.686552 24726 net.cpp:399] inception_4b/output_inception_4b/output_0_split -> inception_4b/output_inception_4b/output_0_split_0
I0403 21:55:52.686571 24726 net.cpp:399] inception_4b/output_inception_4b/output_0_split -> inception_4b/output_inception_4b/output_0_split_1
I0403 21:55:52.686592 24726 net.cpp:399] inception_4b/output_inception_4b/output_0_split -> inception_4b/output_inception_4b/output_0_split_2
I0403 21:55:52.686614 24726 net.cpp:399] inception_4b/output_inception_4b/output_0_split -> inception_4b/output_inception_4b/output_0_split_3
I0403 21:55:52.686700 24726 net.cpp:141] Setting up inception_4b/output_inception_4b/output_0_split
I0403 21:55:52.686723 24726 net.cpp:148] Top shape: 24 512 14 14 (2408448)
I0403 21:55:52.686738 24726 net.cpp:148] Top shape: 24 512 14 14 (2408448)
I0403 21:55:52.686753 24726 net.cpp:148] Top shape: 24 512 14 14 (2408448)
I0403 21:55:52.686769 24726 net.cpp:148] Top shape: 24 512 14 14 (2408448)
I0403 21:55:52.686782 24726 net.cpp:156] Memory required for data: 1028392224
I0403 21:55:52.686796 24726 layer_factory.hpp:77] Creating layer inception_4c/1x1
I0403 21:55:52.686817 24726 net.cpp:91] Creating Layer inception_4c/1x1
I0403 21:55:52.686835 24726 net.cpp:425] inception_4c/1x1 <- inception_4b/output_inception_4b/output_0_split_0
I0403 21:55:52.686854 24726 net.cpp:399] inception_4c/1x1 -> inception_4c/1x1
I0403 21:55:52.688294 24726 net.cpp:141] Setting up inception_4c/1x1
I0403 21:55:52.688321 24726 net.cpp:148] Top shape: 24 128 14 14 (602112)
I0403 21:55:52.688338 24726 net.cpp:156] Memory required for data: 1030800672
I0403 21:55:52.688354 24726 layer_factory.hpp:77] Creating layer inception_4c/relu_1x1
I0403 21:55:52.688372 24726 net.cpp:91] Creating Layer inception_4c/relu_1x1
I0403 21:55:52.688387 24726 net.cpp:425] inception_4c/relu_1x1 <- inception_4c/1x1
I0403 21:55:52.688407 24726 net.cpp:386] inception_4c/relu_1x1 -> inception_4c/1x1 (in-place)
I0403 21:55:52.688580 24726 net.cpp:141] Setting up inception_4c/relu_1x1
I0403 21:55:52.688604 24726 net.cpp:148] Top shape: 24 128 14 14 (602112)
I0403 21:55:52.688618 24726 net.cpp:156] Memory required for data: 1033209120
I0403 21:55:52.688633 24726 layer_factory.hpp:77] Creating layer inception_4c/3x3_reduce
I0403 21:55:52.688654 24726 net.cpp:91] Creating Layer inception_4c/3x3_reduce
I0403 21:55:52.688671 24726 net.cpp:425] inception_4c/3x3_reduce <- inception_4b/output_inception_4b/output_0_split_1
I0403 21:55:52.688694 24726 net.cpp:399] inception_4c/3x3_reduce -> inception_4c/3x3_reduce
I0403 21:55:52.690621 24726 net.cpp:141] Setting up inception_4c/3x3_reduce
I0403 21:55:52.690649 24726 net.cpp:148] Top shape: 24 128 14 14 (602112)
I0403 21:55:52.690665 24726 net.cpp:156] Memory required for data: 1035617568
I0403 21:55:52.690682 24726 layer_factory.hpp:77] Creating layer inception_4c/relu_3x3_reduce
I0403 21:55:52.690703 24726 net.cpp:91] Creating Layer inception_4c/relu_3x3_reduce
I0403 21:55:52.690719 24726 net.cpp:425] inception_4c/relu_3x3_reduce <- inception_4c/3x3_reduce
I0403 21:55:52.690737 24726 net.cpp:386] inception_4c/relu_3x3_reduce -> inception_4c/3x3_reduce (in-place)
I0403 21:55:52.691015 24726 net.cpp:141] Setting up inception_4c/relu_3x3_reduce
I0403 21:55:52.691040 24726 net.cpp:148] Top shape: 24 128 14 14 (602112)
I0403 21:55:52.691053 24726 net.cpp:156] Memory required for data: 1038026016
I0403 21:55:52.691068 24726 layer_factory.hpp:77] Creating layer inception_4c/3x3
I0403 21:55:52.691089 24726 net.cpp:91] Creating Layer inception_4c/3x3
I0403 21:55:52.691105 24726 net.cpp:425] inception_4c/3x3 <- inception_4c/3x3_reduce
I0403 21:55:52.691128 24726 net.cpp:399] inception_4c/3x3 -> inception_4c/3x3
I0403 21:55:52.694749 24726 net.cpp:141] Setting up inception_4c/3x3
I0403 21:55:52.694789 24726 net.cpp:148] Top shape: 24 256 14 14 (1204224)
I0403 21:55:52.694804 24726 net.cpp:156] Memory required for data: 1042842912
I0403 21:55:52.694835 24726 layer_factory.hpp:77] Creating layer inception_4c/relu_3x3
I0403 21:55:52.694856 24726 net.cpp:91] Creating Layer inception_4c/relu_3x3
I0403 21:55:52.694875 24726 net.cpp:425] inception_4c/relu_3x3 <- inception_4c/3x3
I0403 21:55:52.694890 24726 net.cpp:386] inception_4c/relu_3x3 -> inception_4c/3x3 (in-place)
I0403 21:55:52.695068 24726 net.cpp:141] Setting up inception_4c/relu_3x3
I0403 21:55:52.695094 24726 net.cpp:148] Top shape: 24 256 14 14 (1204224)
I0403 21:55:52.695111 24726 net.cpp:156] Memory required for data: 1047659808
I0403 21:55:52.695125 24726 layer_factory.hpp:77] Creating layer inception_4c/5x5_reduce
I0403 21:55:52.695144 24726 net.cpp:91] Creating Layer inception_4c/5x5_reduce
I0403 21:55:52.695160 24726 net.cpp:425] inception_4c/5x5_reduce <- inception_4b/output_inception_4b/output_0_split_2
I0403 21:55:52.695181 24726 net.cpp:399] inception_4c/5x5_reduce -> inception_4c/5x5_reduce
I0403 21:55:52.696305 24726 net.cpp:141] Setting up inception_4c/5x5_reduce
I0403 21:55:52.696332 24726 net.cpp:148] Top shape: 24 24 14 14 (112896)
I0403 21:55:52.696352 24726 net.cpp:156] Memory required for data: 1048111392
I0403 21:55:52.696372 24726 layer_factory.hpp:77] Creating layer inception_4c/relu_5x5_reduce
I0403 21:55:52.696389 24726 net.cpp:91] Creating Layer inception_4c/relu_5x5_reduce
I0403 21:55:52.696406 24726 net.cpp:425] inception_4c/relu_5x5_reduce <- inception_4c/5x5_reduce
I0403 21:55:52.696424 24726 net.cpp:386] inception_4c/relu_5x5_reduce -> inception_4c/5x5_reduce (in-place)
I0403 21:55:52.696636 24726 net.cpp:141] Setting up inception_4c/relu_5x5_reduce
I0403 21:55:52.696663 24726 net.cpp:148] Top shape: 24 24 14 14 (112896)
I0403 21:55:52.696678 24726 net.cpp:156] Memory required for data: 1048562976
I0403 21:55:52.696693 24726 layer_factory.hpp:77] Creating layer inception_4c/5x5
I0403 21:55:52.696714 24726 net.cpp:91] Creating Layer inception_4c/5x5
I0403 21:55:52.696732 24726 net.cpp:425] inception_4c/5x5 <- inception_4c/5x5_reduce
I0403 21:55:52.696750 24726 net.cpp:399] inception_4c/5x5 -> inception_4c/5x5
I0403 21:55:52.698000 24726 net.cpp:141] Setting up inception_4c/5x5
I0403 21:55:52.698026 24726 net.cpp:148] Top shape: 24 64 14 14 (301056)
I0403 21:55:52.698041 24726 net.cpp:156] Memory required for data: 1049767200
I0403 21:55:52.698058 24726 layer_factory.hpp:77] Creating layer inception_4c/relu_5x5
I0403 21:55:52.698076 24726 net.cpp:91] Creating Layer inception_4c/relu_5x5
I0403 21:55:52.698091 24726 net.cpp:425] inception_4c/relu_5x5 <- inception_4c/5x5
I0403 21:55:52.698110 24726 net.cpp:386] inception_4c/relu_5x5 -> inception_4c/5x5 (in-place)
I0403 21:55:52.698421 24726 net.cpp:141] Setting up inception_4c/relu_5x5
I0403 21:55:52.698446 24726 net.cpp:148] Top shape: 24 64 14 14 (301056)
I0403 21:55:52.698462 24726 net.cpp:156] Memory required for data: 1050971424
I0403 21:55:52.698477 24726 layer_factory.hpp:77] Creating layer inception_4c/pool
I0403 21:55:52.698495 24726 net.cpp:91] Creating Layer inception_4c/pool
I0403 21:55:52.698511 24726 net.cpp:425] inception_4c/pool <- inception_4b/output_inception_4b/output_0_split_3
I0403 21:55:52.698531 24726 net.cpp:399] inception_4c/pool -> inception_4c/pool
I0403 21:55:52.698607 24726 net.cpp:141] Setting up inception_4c/pool
I0403 21:55:52.698631 24726 net.cpp:148] Top shape: 24 512 14 14 (2408448)
I0403 21:55:52.698644 24726 net.cpp:156] Memory required for data: 1060605216
I0403 21:55:52.698658 24726 layer_factory.hpp:77] Creating layer inception_4c/pool_proj
I0403 21:55:52.698681 24726 net.cpp:91] Creating Layer inception_4c/pool_proj
I0403 21:55:52.698698 24726 net.cpp:425] inception_4c/pool_proj <- inception_4c/pool
I0403 21:55:52.698716 24726 net.cpp:399] inception_4c/pool_proj -> inception_4c/pool_proj
I0403 21:55:52.699942 24726 net.cpp:141] Setting up inception_4c/pool_proj
I0403 21:55:52.699970 24726 net.cpp:148] Top shape: 24 64 14 14 (301056)
I0403 21:55:52.699998 24726 net.cpp:156] Memory required for data: 1061809440
I0403 21:55:52.700017 24726 layer_factory.hpp:77] Creating layer inception_4c/relu_pool_proj
I0403 21:55:52.700037 24726 net.cpp:91] Creating Layer inception_4c/relu_pool_proj
I0403 21:55:52.700054 24726 net.cpp:425] inception_4c/relu_pool_proj <- inception_4c/pool_proj
I0403 21:55:52.700070 24726 net.cpp:386] inception_4c/relu_pool_proj -> inception_4c/pool_proj (in-place)
I0403 21:55:52.700251 24726 net.cpp:141] Setting up inception_4c/relu_pool_proj
I0403 21:55:52.700289 24726 net.cpp:148] Top shape: 24 64 14 14 (301056)
I0403 21:55:52.700304 24726 net.cpp:156] Memory required for data: 1063013664
I0403 21:55:52.700320 24726 layer_factory.hpp:77] Creating layer inception_4c/output
I0403 21:55:52.700336 24726 net.cpp:91] Creating Layer inception_4c/output
I0403 21:55:52.700351 24726 net.cpp:425] inception_4c/output <- inception_4c/1x1
I0403 21:55:52.700367 24726 net.cpp:425] inception_4c/output <- inception_4c/3x3
I0403 21:55:52.700383 24726 net.cpp:425] inception_4c/output <- inception_4c/5x5
I0403 21:55:52.700399 24726 net.cpp:425] inception_4c/output <- inception_4c/pool_proj
I0403 21:55:52.700415 24726 net.cpp:399] inception_4c/output -> inception_4c/output
I0403 21:55:52.700464 24726 net.cpp:141] Setting up inception_4c/output
I0403 21:55:52.700485 24726 net.cpp:148] Top shape: 24 512 14 14 (2408448)
I0403 21:55:52.700500 24726 net.cpp:156] Memory required for data: 1072647456
I0403 21:55:52.700515 24726 layer_factory.hpp:77] Creating layer inception_4c/output_inception_4c/output_0_split
I0403 21:55:52.700534 24726 net.cpp:91] Creating Layer inception_4c/output_inception_4c/output_0_split
I0403 21:55:52.700551 24726 net.cpp:425] inception_4c/output_inception_4c/output_0_split <- inception_4c/output
I0403 21:55:52.700579 24726 net.cpp:399] inception_4c/output_inception_4c/output_0_split -> inception_4c/output_inception_4c/output_0_split_0
I0403 21:55:52.700599 24726 net.cpp:399] inception_4c/output_inception_4c/output_0_split -> inception_4c/output_inception_4c/output_0_split_1
I0403 21:55:52.700618 24726 net.cpp:399] inception_4c/output_inception_4c/output_0_split -> inception_4c/output_inception_4c/output_0_split_2
I0403 21:55:52.700639 24726 net.cpp:399] inception_4c/output_inception_4c/output_0_split -> inception_4c/output_inception_4c/output_0_split_3
I0403 21:55:52.700726 24726 net.cpp:141] Setting up inception_4c/output_inception_4c/output_0_split
I0403 21:55:52.700747 24726 net.cpp:148] Top shape: 24 512 14 14 (2408448)
I0403 21:55:52.700763 24726 net.cpp:148] Top shape: 24 512 14 14 (2408448)
I0403 21:55:52.700779 24726 net.cpp:148] Top shape: 24 512 14 14 (2408448)
I0403 21:55:52.700793 24726 net.cpp:148] Top shape: 24 512 14 14 (2408448)
I0403 21:55:52.700806 24726 net.cpp:156] Memory required for data: 1111182624
I0403 21:55:52.700820 24726 layer_factory.hpp:77] Creating layer inception_4d/1x1
I0403 21:55:52.700842 24726 net.cpp:91] Creating Layer inception_4d/1x1
I0403 21:55:52.700858 24726 net.cpp:425] inception_4d/1x1 <- inception_4c/output_inception_4c/output_0_split_0
I0403 21:55:52.700880 24726 net.cpp:399] inception_4d/1x1 -> inception_4d/1x1
I0403 21:55:52.702261 24726 net.cpp:141] Setting up inception_4d/1x1
I0403 21:55:52.702299 24726 net.cpp:148] Top shape: 24 112 14 14 (526848)
I0403 21:55:52.702314 24726 net.cpp:156] Memory required for data: 1113290016
I0403 21:55:52.702333 24726 layer_factory.hpp:77] Creating layer inception_4d/relu_1x1
I0403 21:55:52.702353 24726 net.cpp:91] Creating Layer inception_4d/relu_1x1
I0403 21:55:52.702371 24726 net.cpp:425] inception_4d/relu_1x1 <- inception_4d/1x1
I0403 21:55:52.702389 24726 net.cpp:386] inception_4d/relu_1x1 -> inception_4d/1x1 (in-place)
I0403 21:55:52.702585 24726 net.cpp:141] Setting up inception_4d/relu_1x1
I0403 21:55:52.702608 24726 net.cpp:148] Top shape: 24 112 14 14 (526848)
I0403 21:55:52.702622 24726 net.cpp:156] Memory required for data: 1115397408
I0403 21:55:52.702637 24726 layer_factory.hpp:77] Creating layer inception_4d/3x3_reduce
I0403 21:55:52.702672 24726 net.cpp:91] Creating Layer inception_4d/3x3_reduce
I0403 21:55:52.702689 24726 net.cpp:425] inception_4d/3x3_reduce <- inception_4c/output_inception_4c/output_0_split_1
I0403 21:55:52.702709 24726 net.cpp:399] inception_4d/3x3_reduce -> inception_4d/3x3_reduce
I0403 21:55:52.704224 24726 net.cpp:141] Setting up inception_4d/3x3_reduce
I0403 21:55:52.704252 24726 net.cpp:148] Top shape: 24 144 14 14 (677376)
I0403 21:55:52.704280 24726 net.cpp:156] Memory required for data: 1118106912
I0403 21:55:52.704298 24726 layer_factory.hpp:77] Creating layer inception_4d/relu_3x3_reduce
I0403 21:55:52.704316 24726 net.cpp:91] Creating Layer inception_4d/relu_3x3_reduce
I0403 21:55:52.704334 24726 net.cpp:425] inception_4d/relu_3x3_reduce <- inception_4d/3x3_reduce
I0403 21:55:52.704352 24726 net.cpp:386] inception_4d/relu_3x3_reduce -> inception_4d/3x3_reduce (in-place)
I0403 21:55:52.704651 24726 net.cpp:141] Setting up inception_4d/relu_3x3_reduce
I0403 21:55:52.704679 24726 net.cpp:148] Top shape: 24 144 14 14 (677376)
I0403 21:55:52.704694 24726 net.cpp:156] Memory required for data: 1120816416
I0403 21:55:52.704709 24726 layer_factory.hpp:77] Creating layer inception_4d/3x3
I0403 21:55:52.704730 24726 net.cpp:91] Creating Layer inception_4d/3x3
I0403 21:55:52.704746 24726 net.cpp:425] inception_4d/3x3 <- inception_4d/3x3_reduce
I0403 21:55:52.704766 24726 net.cpp:399] inception_4d/3x3 -> inception_4d/3x3
I0403 21:55:52.708950 24726 net.cpp:141] Setting up inception_4d/3x3
I0403 21:55:52.708977 24726 net.cpp:148] Top shape: 24 288 14 14 (1354752)
I0403 21:55:52.708992 24726 net.cpp:156] Memory required for data: 1126235424
I0403 21:55:52.709010 24726 layer_factory.hpp:77] Creating layer inception_4d/relu_3x3
I0403 21:55:52.709030 24726 net.cpp:91] Creating Layer inception_4d/relu_3x3
I0403 21:55:52.709048 24726 net.cpp:425] inception_4d/relu_3x3 <- inception_4d/3x3
I0403 21:55:52.709064 24726 net.cpp:386] inception_4d/relu_3x3 -> inception_4d/3x3 (in-place)
I0403 21:55:52.709245 24726 net.cpp:141] Setting up inception_4d/relu_3x3
I0403 21:55:52.709270 24726 net.cpp:148] Top shape: 24 288 14 14 (1354752)
I0403 21:55:52.709283 24726 net.cpp:156] Memory required for data: 1131654432
I0403 21:55:52.709298 24726 layer_factory.hpp:77] Creating layer inception_4d/5x5_reduce
I0403 21:55:52.709321 24726 net.cpp:91] Creating Layer inception_4d/5x5_reduce
I0403 21:55:52.709338 24726 net.cpp:425] inception_4d/5x5_reduce <- inception_4c/output_inception_4c/output_0_split_2
I0403 21:55:52.709357 24726 net.cpp:399] inception_4d/5x5_reduce -> inception_4d/5x5_reduce
I0403 21:55:52.710479 24726 net.cpp:141] Setting up inception_4d/5x5_reduce
I0403 21:55:52.710505 24726 net.cpp:148] Top shape: 24 32 14 14 (150528)
I0403 21:55:52.710520 24726 net.cpp:156] Memory required for data: 1132256544
I0403 21:55:52.710537 24726 layer_factory.hpp:77] Creating layer inception_4d/relu_5x5_reduce
I0403 21:55:52.710557 24726 net.cpp:91] Creating Layer inception_4d/relu_5x5_reduce
I0403 21:55:52.710573 24726 net.cpp:425] inception_4d/relu_5x5_reduce <- inception_4d/5x5_reduce
I0403 21:55:52.710590 24726 net.cpp:386] inception_4d/relu_5x5_reduce -> inception_4d/5x5_reduce (in-place)
I0403 21:55:52.710769 24726 net.cpp:141] Setting up inception_4d/relu_5x5_reduce
I0403 21:55:52.710795 24726 net.cpp:148] Top shape: 24 32 14 14 (150528)
I0403 21:55:52.710810 24726 net.cpp:156] Memory required for data: 1132858656
I0403 21:55:52.710825 24726 layer_factory.hpp:77] Creating layer inception_4d/5x5
I0403 21:55:52.710844 24726 net.cpp:91] Creating Layer inception_4d/5x5
I0403 21:55:52.710860 24726 net.cpp:425] inception_4d/5x5 <- inception_4d/5x5_reduce
I0403 21:55:52.710882 24726 net.cpp:399] inception_4d/5x5 -> inception_4d/5x5
I0403 21:55:52.712332 24726 net.cpp:141] Setting up inception_4d/5x5
I0403 21:55:52.712360 24726 net.cpp:148] Top shape: 24 64 14 14 (301056)
I0403 21:55:52.712376 24726 net.cpp:156] Memory required for data: 1134062880
I0403 21:55:52.712393 24726 layer_factory.hpp:77] Creating layer inception_4d/relu_5x5
I0403 21:55:52.712425 24726 net.cpp:91] Creating Layer inception_4d/relu_5x5
I0403 21:55:52.712442 24726 net.cpp:425] inception_4d/relu_5x5 <- inception_4d/5x5
I0403 21:55:52.712460 24726 net.cpp:386] inception_4d/relu_5x5 -> inception_4d/5x5 (in-place)
I0403 21:55:52.712750 24726 net.cpp:141] Setting up inception_4d/relu_5x5
I0403 21:55:52.712779 24726 net.cpp:148] Top shape: 24 64 14 14 (301056)
I0403 21:55:52.712793 24726 net.cpp:156] Memory required for data: 1135267104
I0403 21:55:52.712808 24726 layer_factory.hpp:77] Creating layer inception_4d/pool
I0403 21:55:52.712826 24726 net.cpp:91] Creating Layer inception_4d/pool
I0403 21:55:52.712841 24726 net.cpp:425] inception_4d/pool <- inception_4c/output_inception_4c/output_0_split_3
I0403 21:55:52.712858 24726 net.cpp:399] inception_4d/pool -> inception_4d/pool
I0403 21:55:52.712924 24726 net.cpp:141] Setting up inception_4d/pool
I0403 21:55:52.712945 24726 net.cpp:148] Top shape: 24 512 14 14 (2408448)
I0403 21:55:52.712960 24726 net.cpp:156] Memory required for data: 1144900896
I0403 21:55:52.712975 24726 layer_factory.hpp:77] Creating layer inception_4d/pool_proj
I0403 21:55:52.712996 24726 net.cpp:91] Creating Layer inception_4d/pool_proj
I0403 21:55:52.713012 24726 net.cpp:425] inception_4d/pool_proj <- inception_4d/pool
I0403 21:55:52.713032 24726 net.cpp:399] inception_4d/pool_proj -> inception_4d/pool_proj
I0403 21:55:52.714802 24726 net.cpp:141] Setting up inception_4d/pool_proj
I0403 21:55:52.714829 24726 net.cpp:148] Top shape: 24 64 14 14 (301056)
I0403 21:55:52.714844 24726 net.cpp:156] Memory required for data: 1146105120
I0403 21:55:52.714862 24726 layer_factory.hpp:77] Creating layer inception_4d/relu_pool_proj
I0403 21:55:52.714882 24726 net.cpp:91] Creating Layer inception_4d/relu_pool_proj
I0403 21:55:52.714900 24726 net.cpp:425] inception_4d/relu_pool_proj <- inception_4d/pool_proj
I0403 21:55:52.714916 24726 net.cpp:386] inception_4d/relu_pool_proj -> inception_4d/pool_proj (in-place)
I0403 21:55:52.715097 24726 net.cpp:141] Setting up inception_4d/relu_pool_proj
I0403 21:55:52.715121 24726 net.cpp:148] Top shape: 24 64 14 14 (301056)
I0403 21:55:52.715136 24726 net.cpp:156] Memory required for data: 1147309344
I0403 21:55:52.715150 24726 layer_factory.hpp:77] Creating layer inception_4d/output
I0403 21:55:52.715168 24726 net.cpp:91] Creating Layer inception_4d/output
I0403 21:55:52.715191 24726 net.cpp:425] inception_4d/output <- inception_4d/1x1
I0403 21:55:52.715212 24726 net.cpp:425] inception_4d/output <- inception_4d/3x3
I0403 21:55:52.715229 24726 net.cpp:425] inception_4d/output <- inception_4d/5x5
I0403 21:55:52.715245 24726 net.cpp:425] inception_4d/output <- inception_4d/pool_proj
I0403 21:55:52.715262 24726 net.cpp:399] inception_4d/output -> inception_4d/output
I0403 21:55:52.715311 24726 net.cpp:141] Setting up inception_4d/output
I0403 21:55:52.715333 24726 net.cpp:148] Top shape: 24 528 14 14 (2483712)
I0403 21:55:52.715348 24726 net.cpp:156] Memory required for data: 1157244192
I0403 21:55:52.715361 24726 layer_factory.hpp:77] Creating layer inception_4d/output_inception_4d/output_0_split
I0403 21:55:52.715379 24726 net.cpp:91] Creating Layer inception_4d/output_inception_4d/output_0_split
I0403 21:55:52.715394 24726 net.cpp:425] inception_4d/output_inception_4d/output_0_split <- inception_4d/output
I0403 21:55:52.715414 24726 net.cpp:399] inception_4d/output_inception_4d/output_0_split -> inception_4d/output_inception_4d/output_0_split_0
I0403 21:55:52.715433 24726 net.cpp:399] inception_4d/output_inception_4d/output_0_split -> inception_4d/output_inception_4d/output_0_split_1
I0403 21:55:52.715454 24726 net.cpp:399] inception_4d/output_inception_4d/output_0_split -> inception_4d/output_inception_4d/output_0_split_2
I0403 21:55:52.715487 24726 net.cpp:399] inception_4d/output_inception_4d/output_0_split -> inception_4d/output_inception_4d/output_0_split_3
I0403 21:55:52.715507 24726 net.cpp:399] inception_4d/output_inception_4d/output_0_split -> inception_4d/output_inception_4d/output_0_split_4
I0403 21:55:52.715607 24726 net.cpp:141] Setting up inception_4d/output_inception_4d/output_0_split
I0403 21:55:52.715641 24726 net.cpp:148] Top shape: 24 528 14 14 (2483712)
I0403 21:55:52.715657 24726 net.cpp:148] Top shape: 24 528 14 14 (2483712)
I0403 21:55:52.715672 24726 net.cpp:148] Top shape: 24 528 14 14 (2483712)
I0403 21:55:52.715687 24726 net.cpp:148] Top shape: 24 528 14 14 (2483712)
I0403 21:55:52.715703 24726 net.cpp:148] Top shape: 24 528 14 14 (2483712)
I0403 21:55:52.715716 24726 net.cpp:156] Memory required for data: 1206918432
I0403 21:55:52.715731 24726 layer_factory.hpp:77] Creating layer loss2/ave_pool
I0403 21:55:52.715749 24726 net.cpp:91] Creating Layer loss2/ave_pool
I0403 21:55:52.715764 24726 net.cpp:425] loss2/ave_pool <- inception_4d/output_inception_4d/output_0_split_0
I0403 21:55:52.715783 24726 net.cpp:399] loss2/ave_pool -> loss2/ave_pool
I0403 21:55:52.716090 24726 net.cpp:141] Setting up loss2/ave_pool
I0403 21:55:52.716116 24726 net.cpp:148] Top shape: 24 528 4 4 (202752)
I0403 21:55:52.716130 24726 net.cpp:156] Memory required for data: 1207729440
I0403 21:55:52.716145 24726 layer_factory.hpp:77] Creating layer loss2/conv
I0403 21:55:52.716166 24726 net.cpp:91] Creating Layer loss2/conv
I0403 21:55:52.716182 24726 net.cpp:425] loss2/conv <- loss2/ave_pool
I0403 21:55:52.716208 24726 net.cpp:399] loss2/conv -> loss2/conv
I0403 21:55:52.718102 24726 net.cpp:141] Setting up loss2/conv
I0403 21:55:52.718132 24726 net.cpp:148] Top shape: 24 128 4 4 (49152)
I0403 21:55:52.718148 24726 net.cpp:156] Memory required for data: 1207926048
I0403 21:55:52.718166 24726 layer_factory.hpp:77] Creating layer loss2/relu_conv
I0403 21:55:52.718183 24726 net.cpp:91] Creating Layer loss2/relu_conv
I0403 21:55:52.718209 24726 net.cpp:425] loss2/relu_conv <- loss2/conv
I0403 21:55:52.718231 24726 net.cpp:386] loss2/relu_conv -> loss2/conv (in-place)
I0403 21:55:52.718518 24726 net.cpp:141] Setting up loss2/relu_conv
I0403 21:55:52.718545 24726 net.cpp:148] Top shape: 24 128 4 4 (49152)
I0403 21:55:52.718561 24726 net.cpp:156] Memory required for data: 1208122656
I0403 21:55:52.718575 24726 layer_factory.hpp:77] Creating layer loss2/fc
I0403 21:55:52.718595 24726 net.cpp:91] Creating Layer loss2/fc
I0403 21:55:52.718611 24726 net.cpp:425] loss2/fc <- loss2/conv
I0403 21:55:52.718632 24726 net.cpp:399] loss2/fc -> loss2/fc
I0403 21:55:52.735899 24726 net.cpp:141] Setting up loss2/fc
I0403 21:55:52.735931 24726 net.cpp:148] Top shape: 24 1024 (24576)
I0403 21:55:52.735946 24726 net.cpp:156] Memory required for data: 1208220960
I0403 21:55:52.735963 24726 layer_factory.hpp:77] Creating layer loss2/relu_fc
I0403 21:55:52.735983 24726 net.cpp:91] Creating Layer loss2/relu_fc
I0403 21:55:52.735999 24726 net.cpp:425] loss2/relu_fc <- loss2/fc
I0403 21:55:52.736017 24726 net.cpp:386] loss2/relu_fc -> loss2/fc (in-place)
I0403 21:55:52.736315 24726 net.cpp:141] Setting up loss2/relu_fc
I0403 21:55:52.736340 24726 net.cpp:148] Top shape: 24 1024 (24576)
I0403 21:55:52.736354 24726 net.cpp:156] Memory required for data: 1208319264
I0403 21:55:52.736368 24726 layer_factory.hpp:77] Creating layer loss2/drop_fc
I0403 21:55:52.736387 24726 net.cpp:91] Creating Layer loss2/drop_fc
I0403 21:55:52.736404 24726 net.cpp:425] loss2/drop_fc <- loss2/fc
I0403 21:55:52.736421 24726 net.cpp:386] loss2/drop_fc -> loss2/fc (in-place)
I0403 21:55:52.736469 24726 net.cpp:141] Setting up loss2/drop_fc
I0403 21:55:52.736491 24726 net.cpp:148] Top shape: 24 1024 (24576)
I0403 21:55:52.736505 24726 net.cpp:156] Memory required for data: 1208417568
I0403 21:55:52.736521 24726 layer_factory.hpp:77] Creating layer loss2/classifier_plantvillage
I0403 21:55:52.736538 24726 net.cpp:91] Creating Layer loss2/classifier_plantvillage
I0403 21:55:52.736553 24726 net.cpp:425] loss2/classifier_plantvillage <- loss2/fc
I0403 21:55:52.736574 24726 net.cpp:399] loss2/classifier_plantvillage -> loss2/classifier_plantvillage
I0403 21:55:52.736965 24726 net.cpp:141] Setting up loss2/classifier_plantvillage
I0403 21:55:52.736989 24726 net.cpp:148] Top shape: 24 38 (912)
I0403 21:55:52.737017 24726 net.cpp:156] Memory required for data: 1208421216
I0403 21:55:52.737035 24726 layer_factory.hpp:77] Creating layer loss2/classifier_plantvillage_loss2/classifier_plantvillage_0_split
I0403 21:55:52.737054 24726 net.cpp:91] Creating Layer loss2/classifier_plantvillage_loss2/classifier_plantvillage_0_split
I0403 21:55:52.737071 24726 net.cpp:425] loss2/classifier_plantvillage_loss2/classifier_plantvillage_0_split <- loss2/classifier_plantvillage
I0403 21:55:52.737089 24726 net.cpp:399] loss2/classifier_plantvillage_loss2/classifier_plantvillage_0_split -> loss2/classifier_plantvillage_loss2/classifier_plantvillage_0_split_0
I0403 21:55:52.737109 24726 net.cpp:399] loss2/classifier_plantvillage_loss2/classifier_plantvillage_0_split -> loss2/classifier_plantvillage_loss2/classifier_plantvillage_0_split_1
I0403 21:55:52.737129 24726 net.cpp:399] loss2/classifier_plantvillage_loss2/classifier_plantvillage_0_split -> loss2/classifier_plantvillage_loss2/classifier_plantvillage_0_split_2
I0403 21:55:52.737207 24726 net.cpp:141] Setting up loss2/classifier_plantvillage_loss2/classifier_plantvillage_0_split
I0403 21:55:52.737229 24726 net.cpp:148] Top shape: 24 38 (912)
I0403 21:55:52.737246 24726 net.cpp:148] Top shape: 24 38 (912)
I0403 21:55:52.737260 24726 net.cpp:148] Top shape: 24 38 (912)
I0403 21:55:52.737273 24726 net.cpp:156] Memory required for data: 1208432160
I0403 21:55:52.737287 24726 layer_factory.hpp:77] Creating layer inception_4e/1x1
I0403 21:55:52.737308 24726 net.cpp:91] Creating Layer inception_4e/1x1
I0403 21:55:52.737325 24726 net.cpp:425] inception_4e/1x1 <- inception_4d/output_inception_4d/output_0_split_1
I0403 21:55:52.737344 24726 net.cpp:399] inception_4e/1x1 -> inception_4e/1x1
I0403 21:55:52.739122 24726 net.cpp:141] Setting up inception_4e/1x1
I0403 21:55:52.739151 24726 net.cpp:148] Top shape: 24 256 14 14 (1204224)
I0403 21:55:52.739166 24726 net.cpp:156] Memory required for data: 1213249056
I0403 21:55:52.739184 24726 layer_factory.hpp:77] Creating layer inception_4e/relu_1x1
I0403 21:55:52.739207 24726 net.cpp:91] Creating Layer inception_4e/relu_1x1
I0403 21:55:52.739223 24726 net.cpp:425] inception_4e/relu_1x1 <- inception_4e/1x1
I0403 21:55:52.739243 24726 net.cpp:386] inception_4e/relu_1x1 -> inception_4e/1x1 (in-place)
I0403 21:55:52.739531 24726 net.cpp:141] Setting up inception_4e/relu_1x1
I0403 21:55:52.739557 24726 net.cpp:148] Top shape: 24 256 14 14 (1204224)
I0403 21:55:52.739573 24726 net.cpp:156] Memory required for data: 1218065952
I0403 21:55:52.739588 24726 layer_factory.hpp:77] Creating layer inception_4e/3x3_reduce
I0403 21:55:52.739609 24726 net.cpp:91] Creating Layer inception_4e/3x3_reduce
I0403 21:55:52.739625 24726 net.cpp:425] inception_4e/3x3_reduce <- inception_4d/output_inception_4d/output_0_split_2
I0403 21:55:52.739650 24726 net.cpp:399] inception_4e/3x3_reduce -> inception_4e/3x3_reduce
I0403 21:55:52.741734 24726 net.cpp:141] Setting up inception_4e/3x3_reduce
I0403 21:55:52.741761 24726 net.cpp:148] Top shape: 24 160 14 14 (752640)
I0403 21:55:52.741776 24726 net.cpp:156] Memory required for data: 1221076512
I0403 21:55:52.741794 24726 layer_factory.hpp:77] Creating layer inception_4e/relu_3x3_reduce
I0403 21:55:52.741814 24726 net.cpp:91] Creating Layer inception_4e/relu_3x3_reduce
I0403 21:55:52.741830 24726 net.cpp:425] inception_4e/relu_3x3_reduce <- inception_4e/3x3_reduce
I0403 21:55:52.741847 24726 net.cpp:386] inception_4e/relu_3x3_reduce -> inception_4e/3x3_reduce (in-place)
I0403 21:55:52.742030 24726 net.cpp:141] Setting up inception_4e/relu_3x3_reduce
I0403 21:55:52.742054 24726 net.cpp:148] Top shape: 24 160 14 14 (752640)
I0403 21:55:52.742069 24726 net.cpp:156] Memory required for data: 1224087072
I0403 21:55:52.742084 24726 layer_factory.hpp:77] Creating layer inception_4e/3x3
I0403 21:55:52.742103 24726 net.cpp:91] Creating Layer inception_4e/3x3
I0403 21:55:52.742120 24726 net.cpp:425] inception_4e/3x3 <- inception_4e/3x3_reduce
I0403 21:55:52.742141 24726 net.cpp:399] inception_4e/3x3 -> inception_4e/3x3
I0403 21:55:52.747032 24726 net.cpp:141] Setting up inception_4e/3x3
I0403 21:55:52.747073 24726 net.cpp:148] Top shape: 24 320 14 14 (1505280)
I0403 21:55:52.747088 24726 net.cpp:156] Memory required for data: 1230108192
I0403 21:55:52.747107 24726 layer_factory.hpp:77] Creating layer inception_4e/relu_3x3
I0403 21:55:52.747124 24726 net.cpp:91] Creating Layer inception_4e/relu_3x3
I0403 21:55:52.747139 24726 net.cpp:425] inception_4e/relu_3x3 <- inception_4e/3x3
I0403 21:55:52.747158 24726 net.cpp:386] inception_4e/relu_3x3 -> inception_4e/3x3 (in-place)
I0403 21:55:52.747455 24726 net.cpp:141] Setting up inception_4e/relu_3x3
I0403 21:55:52.747481 24726 net.cpp:148] Top shape: 24 320 14 14 (1505280)
I0403 21:55:52.747496 24726 net.cpp:156] Memory required for data: 1236129312
I0403 21:55:52.747510 24726 layer_factory.hpp:77] Creating layer inception_4e/5x5_reduce
I0403 21:55:52.747532 24726 net.cpp:91] Creating Layer inception_4e/5x5_reduce
I0403 21:55:52.747550 24726 net.cpp:425] inception_4e/5x5_reduce <- inception_4d/output_inception_4d/output_0_split_3
I0403 21:55:52.747570 24726 net.cpp:399] inception_4e/5x5_reduce -> inception_4e/5x5_reduce
I0403 21:55:52.748628 24726 net.cpp:141] Setting up inception_4e/5x5_reduce
I0403 21:55:52.748658 24726 net.cpp:148] Top shape: 24 32 14 14 (150528)
I0403 21:55:52.748673 24726 net.cpp:156] Memory required for data: 1236731424
I0403 21:55:52.748692 24726 layer_factory.hpp:77] Creating layer inception_4e/relu_5x5_reduce
I0403 21:55:52.748709 24726 net.cpp:91] Creating Layer inception_4e/relu_5x5_reduce
I0403 21:55:52.748725 24726 net.cpp:425] inception_4e/relu_5x5_reduce <- inception_4e/5x5_reduce
I0403 21:55:52.748742 24726 net.cpp:386] inception_4e/relu_5x5_reduce -> inception_4e/5x5_reduce (in-place)
I0403 21:55:52.749047 24726 net.cpp:141] Setting up inception_4e/relu_5x5_reduce
I0403 21:55:52.749074 24726 net.cpp:148] Top shape: 24 32 14 14 (150528)
I0403 21:55:52.749089 24726 net.cpp:156] Memory required for data: 1237333536
I0403 21:55:52.749104 24726 layer_factory.hpp:77] Creating layer inception_4e/5x5
I0403 21:55:52.749141 24726 net.cpp:91] Creating Layer inception_4e/5x5
I0403 21:55:52.749160 24726 net.cpp:425] inception_4e/5x5 <- inception_4e/5x5_reduce
I0403 21:55:52.749179 24726 net.cpp:399] inception_4e/5x5 -> inception_4e/5x5
I0403 21:55:52.751003 24726 net.cpp:141] Setting up inception_4e/5x5
I0403 21:55:52.751029 24726 net.cpp:148] Top shape: 24 128 14 14 (602112)
I0403 21:55:52.751044 24726 net.cpp:156] Memory required for data: 1239741984
I0403 21:55:52.751062 24726 layer_factory.hpp:77] Creating layer inception_4e/relu_5x5
I0403 21:55:52.751082 24726 net.cpp:91] Creating Layer inception_4e/relu_5x5
I0403 21:55:52.751099 24726 net.cpp:425] inception_4e/relu_5x5 <- inception_4e/5x5
I0403 21:55:52.751116 24726 net.cpp:386] inception_4e/relu_5x5 -> inception_4e/5x5 (in-place)
I0403 21:55:52.751312 24726 net.cpp:141] Setting up inception_4e/relu_5x5
I0403 21:55:52.751338 24726 net.cpp:148] Top shape: 24 128 14 14 (602112)
I0403 21:55:52.751353 24726 net.cpp:156] Memory required for data: 1242150432
I0403 21:55:52.751368 24726 layer_factory.hpp:77] Creating layer inception_4e/pool
I0403 21:55:52.751384 24726 net.cpp:91] Creating Layer inception_4e/pool
I0403 21:55:52.751399 24726 net.cpp:425] inception_4e/pool <- inception_4d/output_inception_4d/output_0_split_4
I0403 21:55:52.751420 24726 net.cpp:399] inception_4e/pool -> inception_4e/pool
I0403 21:55:52.751485 24726 net.cpp:141] Setting up inception_4e/pool
I0403 21:55:52.751508 24726 net.cpp:148] Top shape: 24 528 14 14 (2483712)
I0403 21:55:52.751523 24726 net.cpp:156] Memory required for data: 1252085280
I0403 21:55:52.751538 24726 layer_factory.hpp:77] Creating layer inception_4e/pool_proj
I0403 21:55:52.751559 24726 net.cpp:91] Creating Layer inception_4e/pool_proj
I0403 21:55:52.751574 24726 net.cpp:425] inception_4e/pool_proj <- inception_4e/pool
I0403 21:55:52.751595 24726 net.cpp:399] inception_4e/pool_proj -> inception_4e/pool_proj
I0403 21:55:52.753060 24726 net.cpp:141] Setting up inception_4e/pool_proj
I0403 21:55:52.753098 24726 net.cpp:148] Top shape: 24 128 14 14 (602112)
I0403 21:55:52.753113 24726 net.cpp:156] Memory required for data: 1254493728
I0403 21:55:52.753132 24726 layer_factory.hpp:77] Creating layer inception_4e/relu_pool_proj
I0403 21:55:52.753151 24726 net.cpp:91] Creating Layer inception_4e/relu_pool_proj
I0403 21:55:52.753168 24726 net.cpp:425] inception_4e/relu_pool_proj <- inception_4e/pool_proj
I0403 21:55:52.753185 24726 net.cpp:386] inception_4e/relu_pool_proj -> inception_4e/pool_proj (in-place)
I0403 21:55:52.753479 24726 net.cpp:141] Setting up inception_4e/relu_pool_proj
I0403 21:55:52.753504 24726 net.cpp:148] Top shape: 24 128 14 14 (602112)
I0403 21:55:52.753518 24726 net.cpp:156] Memory required for data: 1256902176
I0403 21:55:52.753532 24726 layer_factory.hpp:77] Creating layer inception_4e/output
I0403 21:55:52.753551 24726 net.cpp:91] Creating Layer inception_4e/output
I0403 21:55:52.753567 24726 net.cpp:425] inception_4e/output <- inception_4e/1x1
I0403 21:55:52.753583 24726 net.cpp:425] inception_4e/output <- inception_4e/3x3
I0403 21:55:52.753599 24726 net.cpp:425] inception_4e/output <- inception_4e/5x5
I0403 21:55:52.753614 24726 net.cpp:425] inception_4e/output <- inception_4e/pool_proj
I0403 21:55:52.753631 24726 net.cpp:399] inception_4e/output -> inception_4e/output
I0403 21:55:52.753680 24726 net.cpp:141] Setting up inception_4e/output
I0403 21:55:52.753703 24726 net.cpp:148] Top shape: 24 832 14 14 (3913728)
I0403 21:55:52.753717 24726 net.cpp:156] Memory required for data: 1272557088
I0403 21:55:52.753731 24726 layer_factory.hpp:77] Creating layer pool4/3x3_s2
I0403 21:55:52.753748 24726 net.cpp:91] Creating Layer pool4/3x3_s2
I0403 21:55:52.753763 24726 net.cpp:425] pool4/3x3_s2 <- inception_4e/output
I0403 21:55:52.753782 24726 net.cpp:399] pool4/3x3_s2 -> pool4/3x3_s2
I0403 21:55:52.753849 24726 net.cpp:141] Setting up pool4/3x3_s2
I0403 21:55:52.753872 24726 net.cpp:148] Top shape: 24 832 7 7 (978432)
I0403 21:55:52.753887 24726 net.cpp:156] Memory required for data: 1276470816
I0403 21:55:52.753901 24726 layer_factory.hpp:77] Creating layer pool4/3x3_s2_pool4/3x3_s2_0_split
I0403 21:55:52.753918 24726 net.cpp:91] Creating Layer pool4/3x3_s2_pool4/3x3_s2_0_split
I0403 21:55:52.753933 24726 net.cpp:425] pool4/3x3_s2_pool4/3x3_s2_0_split <- pool4/3x3_s2
I0403 21:55:52.753950 24726 net.cpp:399] pool4/3x3_s2_pool4/3x3_s2_0_split -> pool4/3x3_s2_pool4/3x3_s2_0_split_0
I0403 21:55:52.753969 24726 net.cpp:399] pool4/3x3_s2_pool4/3x3_s2_0_split -> pool4/3x3_s2_pool4/3x3_s2_0_split_1
I0403 21:55:52.753990 24726 net.cpp:399] pool4/3x3_s2_pool4/3x3_s2_0_split -> pool4/3x3_s2_pool4/3x3_s2_0_split_2
I0403 21:55:52.754011 24726 net.cpp:399] pool4/3x3_s2_pool4/3x3_s2_0_split -> pool4/3x3_s2_pool4/3x3_s2_0_split_3
I0403 21:55:52.754102 24726 net.cpp:141] Setting up pool4/3x3_s2_pool4/3x3_s2_0_split
I0403 21:55:52.754124 24726 net.cpp:148] Top shape: 24 832 7 7 (978432)
I0403 21:55:52.754139 24726 net.cpp:148] Top shape: 24 832 7 7 (978432)
I0403 21:55:52.754154 24726 net.cpp:148] Top shape: 24 832 7 7 (978432)
I0403 21:55:52.754169 24726 net.cpp:148] Top shape: 24 832 7 7 (978432)
I0403 21:55:52.754182 24726 net.cpp:156] Memory required for data: 1292125728
I0403 21:55:52.754201 24726 layer_factory.hpp:77] Creating layer inception_5a/1x1
I0403 21:55:52.754223 24726 net.cpp:91] Creating Layer inception_5a/1x1
I0403 21:55:52.754240 24726 net.cpp:425] inception_5a/1x1 <- pool4/3x3_s2_pool4/3x3_s2_0_split_0
I0403 21:55:52.754261 24726 net.cpp:399] inception_5a/1x1 -> inception_5a/1x1
I0403 21:55:52.757053 24726 net.cpp:141] Setting up inception_5a/1x1
I0403 21:55:52.757081 24726 net.cpp:148] Top shape: 24 256 7 7 (301056)
I0403 21:55:52.757097 24726 net.cpp:156] Memory required for data: 1293329952
I0403 21:55:52.757114 24726 layer_factory.hpp:77] Creating layer inception_5a/relu_1x1
I0403 21:55:52.757133 24726 net.cpp:91] Creating Layer inception_5a/relu_1x1
I0403 21:55:52.757149 24726 net.cpp:425] inception_5a/relu_1x1 <- inception_5a/1x1
I0403 21:55:52.757166 24726 net.cpp:386] inception_5a/relu_1x1 -> inception_5a/1x1 (in-place)
I0403 21:55:52.757477 24726 net.cpp:141] Setting up inception_5a/relu_1x1
I0403 21:55:52.757503 24726 net.cpp:148] Top shape: 24 256 7 7 (301056)
I0403 21:55:52.757518 24726 net.cpp:156] Memory required for data: 1294534176
I0403 21:55:52.757531 24726 layer_factory.hpp:77] Creating layer inception_5a/3x3_reduce
I0403 21:55:52.757555 24726 net.cpp:91] Creating Layer inception_5a/3x3_reduce
I0403 21:55:52.757571 24726 net.cpp:425] inception_5a/3x3_reduce <- pool4/3x3_s2_pool4/3x3_s2_0_split_1
I0403 21:55:52.757589 24726 net.cpp:399] inception_5a/3x3_reduce -> inception_5a/3x3_reduce
I0403 21:55:52.760013 24726 net.cpp:141] Setting up inception_5a/3x3_reduce
I0403 21:55:52.760041 24726 net.cpp:148] Top shape: 24 160 7 7 (188160)
I0403 21:55:52.760056 24726 net.cpp:156] Memory required for data: 1295286816
I0403 21:55:52.760074 24726 layer_factory.hpp:77] Creating layer inception_5a/relu_3x3_reduce
I0403 21:55:52.760093 24726 net.cpp:91] Creating Layer inception_5a/relu_3x3_reduce
I0403 21:55:52.760110 24726 net.cpp:425] inception_5a/relu_3x3_reduce <- inception_5a/3x3_reduce
I0403 21:55:52.760128 24726 net.cpp:386] inception_5a/relu_3x3_reduce -> inception_5a/3x3_reduce (in-place)
I0403 21:55:52.760315 24726 net.cpp:141] Setting up inception_5a/relu_3x3_reduce
I0403 21:55:52.760339 24726 net.cpp:148] Top shape: 24 160 7 7 (188160)
I0403 21:55:52.760354 24726 net.cpp:156] Memory required for data: 1296039456
I0403 21:55:52.760367 24726 layer_factory.hpp:77] Creating layer inception_5a/3x3
I0403 21:55:52.760388 24726 net.cpp:91] Creating Layer inception_5a/3x3
I0403 21:55:52.760408 24726 net.cpp:425] inception_5a/3x3 <- inception_5a/3x3_reduce
I0403 21:55:52.760426 24726 net.cpp:399] inception_5a/3x3 -> inception_5a/3x3
I0403 21:55:52.765486 24726 net.cpp:141] Setting up inception_5a/3x3
I0403 21:55:52.765516 24726 net.cpp:148] Top shape: 24 320 7 7 (376320)
I0403 21:55:52.765530 24726 net.cpp:156] Memory required for data: 1297544736
I0403 21:55:52.765547 24726 layer_factory.hpp:77] Creating layer inception_5a/relu_3x3
I0403 21:55:52.765568 24726 net.cpp:91] Creating Layer inception_5a/relu_3x3
I0403 21:55:52.765583 24726 net.cpp:425] inception_5a/relu_3x3 <- inception_5a/3x3
I0403 21:55:52.765600 24726 net.cpp:386] inception_5a/relu_3x3 -> inception_5a/3x3 (in-place)
I0403 21:55:52.765892 24726 net.cpp:141] Setting up inception_5a/relu_3x3
I0403 21:55:52.765918 24726 net.cpp:148] Top shape: 24 320 7 7 (376320)
I0403 21:55:52.765933 24726 net.cpp:156] Memory required for data: 1299050016
I0403 21:55:52.765946 24726 layer_factory.hpp:77] Creating layer inception_5a/5x5_reduce
I0403 21:55:52.765969 24726 net.cpp:91] Creating Layer inception_5a/5x5_reduce
I0403 21:55:52.765985 24726 net.cpp:425] inception_5a/5x5_reduce <- pool4/3x3_s2_pool4/3x3_s2_0_split_2
I0403 21:55:52.766005 24726 net.cpp:399] inception_5a/5x5_reduce -> inception_5a/5x5_reduce
I0403 21:55:52.767161 24726 net.cpp:141] Setting up inception_5a/5x5_reduce
I0403 21:55:52.767191 24726 net.cpp:148] Top shape: 24 32 7 7 (37632)
I0403 21:55:52.767211 24726 net.cpp:156] Memory required for data: 1299200544
I0403 21:55:52.767230 24726 layer_factory.hpp:77] Creating layer inception_5a/relu_5x5_reduce
I0403 21:55:52.767248 24726 net.cpp:91] Creating Layer inception_5a/relu_5x5_reduce
I0403 21:55:52.767264 24726 net.cpp:425] inception_5a/relu_5x5_reduce <- inception_5a/5x5_reduce
I0403 21:55:52.767287 24726 net.cpp:386] inception_5a/relu_5x5_reduce -> inception_5a/5x5_reduce (in-place)
I0403 21:55:52.767585 24726 net.cpp:141] Setting up inception_5a/relu_5x5_reduce
I0403 21:55:52.767612 24726 net.cpp:148] Top shape: 24 32 7 7 (37632)
I0403 21:55:52.767628 24726 net.cpp:156] Memory required for data: 1299351072
I0403 21:55:52.767643 24726 layer_factory.hpp:77] Creating layer inception_5a/5x5
I0403 21:55:52.767665 24726 net.cpp:91] Creating Layer inception_5a/5x5
I0403 21:55:52.767681 24726 net.cpp:425] inception_5a/5x5 <- inception_5a/5x5_reduce
I0403 21:55:52.767699 24726 net.cpp:399] inception_5a/5x5 -> inception_5a/5x5
I0403 21:55:52.769395 24726 net.cpp:141] Setting up inception_5a/5x5
I0403 21:55:52.769433 24726 net.cpp:148] Top shape: 24 128 7 7 (150528)
I0403 21:55:52.769448 24726 net.cpp:156] Memory required for data: 1299953184
I0403 21:55:52.769466 24726 layer_factory.hpp:77] Creating layer inception_5a/relu_5x5
I0403 21:55:52.769485 24726 net.cpp:91] Creating Layer inception_5a/relu_5x5
I0403 21:55:52.769502 24726 net.cpp:425] inception_5a/relu_5x5 <- inception_5a/5x5
I0403 21:55:52.769520 24726 net.cpp:386] inception_5a/relu_5x5 -> inception_5a/5x5 (in-place)
I0403 21:55:52.769707 24726 net.cpp:141] Setting up inception_5a/relu_5x5
I0403 21:55:52.769733 24726 net.cpp:148] Top shape: 24 128 7 7 (150528)
I0403 21:55:52.769748 24726 net.cpp:156] Memory required for data: 1300555296
I0403 21:55:52.769763 24726 layer_factory.hpp:77] Creating layer inception_5a/pool
I0403 21:55:52.769780 24726 net.cpp:91] Creating Layer inception_5a/pool
I0403 21:55:52.769795 24726 net.cpp:425] inception_5a/pool <- pool4/3x3_s2_pool4/3x3_s2_0_split_3
I0403 21:55:52.769815 24726 net.cpp:399] inception_5a/pool -> inception_5a/pool
I0403 21:55:52.769884 24726 net.cpp:141] Setting up inception_5a/pool
I0403 21:55:52.769907 24726 net.cpp:148] Top shape: 24 832 7 7 (978432)
I0403 21:55:52.769922 24726 net.cpp:156] Memory required for data: 1304469024
I0403 21:55:52.769937 24726 layer_factory.hpp:77] Creating layer inception_5a/pool_proj
I0403 21:55:52.769958 24726 net.cpp:91] Creating Layer inception_5a/pool_proj
I0403 21:55:52.769975 24726 net.cpp:425] inception_5a/pool_proj <- inception_5a/pool
I0403 21:55:52.769995 24726 net.cpp:399] inception_5a/pool_proj -> inception_5a/pool_proj
I0403 21:55:52.772254 24726 net.cpp:141] Setting up inception_5a/pool_proj
I0403 21:55:52.772284 24726 net.cpp:148] Top shape: 24 128 7 7 (150528)
I0403 21:55:52.772299 24726 net.cpp:156] Memory required for data: 1305071136
I0403 21:55:52.772316 24726 layer_factory.hpp:77] Creating layer inception_5a/relu_pool_proj
I0403 21:55:52.772336 24726 net.cpp:91] Creating Layer inception_5a/relu_pool_proj
I0403 21:55:52.772351 24726 net.cpp:425] inception_5a/relu_pool_proj <- inception_5a/pool_proj
I0403 21:55:52.772368 24726 net.cpp:386] inception_5a/relu_pool_proj -> inception_5a/pool_proj (in-place)
I0403 21:55:52.772658 24726 net.cpp:141] Setting up inception_5a/relu_pool_proj
I0403 21:55:52.772683 24726 net.cpp:148] Top shape: 24 128 7 7 (150528)
I0403 21:55:52.772697 24726 net.cpp:156] Memory required for data: 1305673248
I0403 21:55:52.772711 24726 layer_factory.hpp:77] Creating layer inception_5a/output
I0403 21:55:52.772728 24726 net.cpp:91] Creating Layer inception_5a/output
I0403 21:55:52.772743 24726 net.cpp:425] inception_5a/output <- inception_5a/1x1
I0403 21:55:52.772759 24726 net.cpp:425] inception_5a/output <- inception_5a/3x3
I0403 21:55:52.772775 24726 net.cpp:425] inception_5a/output <- inception_5a/5x5
I0403 21:55:52.772790 24726 net.cpp:425] inception_5a/output <- inception_5a/pool_proj
I0403 21:55:52.772809 24726 net.cpp:399] inception_5a/output -> inception_5a/output
I0403 21:55:52.772861 24726 net.cpp:141] Setting up inception_5a/output
I0403 21:55:52.772882 24726 net.cpp:148] Top shape: 24 832 7 7 (978432)
I0403 21:55:52.772897 24726 net.cpp:156] Memory required for data: 1309586976
I0403 21:55:52.772912 24726 layer_factory.hpp:77] Creating layer inception_5a/output_inception_5a/output_0_split
I0403 21:55:52.772927 24726 net.cpp:91] Creating Layer inception_5a/output_inception_5a/output_0_split
I0403 21:55:52.772943 24726 net.cpp:425] inception_5a/output_inception_5a/output_0_split <- inception_5a/output
I0403 21:55:52.772964 24726 net.cpp:399] inception_5a/output_inception_5a/output_0_split -> inception_5a/output_inception_5a/output_0_split_0
I0403 21:55:52.772984 24726 net.cpp:399] inception_5a/output_inception_5a/output_0_split -> inception_5a/output_inception_5a/output_0_split_1
I0403 21:55:52.773005 24726 net.cpp:399] inception_5a/output_inception_5a/output_0_split -> inception_5a/output_inception_5a/output_0_split_2
I0403 21:55:52.773025 24726 net.cpp:399] inception_5a/output_inception_5a/output_0_split -> inception_5a/output_inception_5a/output_0_split_3
I0403 21:55:52.773135 24726 net.cpp:141] Setting up inception_5a/output_inception_5a/output_0_split
I0403 21:55:52.773160 24726 net.cpp:148] Top shape: 24 832 7 7 (978432)
I0403 21:55:52.773176 24726 net.cpp:148] Top shape: 24 832 7 7 (978432)
I0403 21:55:52.773190 24726 net.cpp:148] Top shape: 24 832 7 7 (978432)
I0403 21:55:52.773211 24726 net.cpp:148] Top shape: 24 832 7 7 (978432)
I0403 21:55:52.773224 24726 net.cpp:156] Memory required for data: 1325241888
I0403 21:55:52.773239 24726 layer_factory.hpp:77] Creating layer inception_5b/1x1
I0403 21:55:52.773260 24726 net.cpp:91] Creating Layer inception_5b/1x1
I0403 21:55:52.773277 24726 net.cpp:425] inception_5b/1x1 <- inception_5a/output_inception_5a/output_0_split_0
I0403 21:55:52.773295 24726 net.cpp:399] inception_5b/1x1 -> inception_5b/1x1
I0403 21:55:52.777029 24726 net.cpp:141] Setting up inception_5b/1x1
I0403 21:55:52.777058 24726 net.cpp:148] Top shape: 24 384 7 7 (451584)
I0403 21:55:52.777073 24726 net.cpp:156] Memory required for data: 1327048224
I0403 21:55:52.777091 24726 layer_factory.hpp:77] Creating layer inception_5b/relu_1x1
I0403 21:55:52.777112 24726 net.cpp:91] Creating Layer inception_5b/relu_1x1
I0403 21:55:52.777129 24726 net.cpp:425] inception_5b/relu_1x1 <- inception_5b/1x1
I0403 21:55:52.777146 24726 net.cpp:386] inception_5b/relu_1x1 -> inception_5b/1x1 (in-place)
I0403 21:55:52.777451 24726 net.cpp:141] Setting up inception_5b/relu_1x1
I0403 21:55:52.777477 24726 net.cpp:148] Top shape: 24 384 7 7 (451584)
I0403 21:55:52.777493 24726 net.cpp:156] Memory required for data: 1328854560
I0403 21:55:52.777506 24726 layer_factory.hpp:77] Creating layer inception_5b/3x3_reduce
I0403 21:55:52.777528 24726 net.cpp:91] Creating Layer inception_5b/3x3_reduce
I0403 21:55:52.777545 24726 net.cpp:425] inception_5b/3x3_reduce <- inception_5a/output_inception_5a/output_0_split_1
I0403 21:55:52.777567 24726 net.cpp:399] inception_5b/3x3_reduce -> inception_5b/3x3_reduce
I0403 21:55:52.780211 24726 net.cpp:141] Setting up inception_5b/3x3_reduce
I0403 21:55:52.780241 24726 net.cpp:148] Top shape: 24 192 7 7 (225792)
I0403 21:55:52.780256 24726 net.cpp:156] Memory required for data: 1329757728
I0403 21:55:52.780274 24726 layer_factory.hpp:77] Creating layer inception_5b/relu_3x3_reduce
I0403 21:55:52.780294 24726 net.cpp:91] Creating Layer inception_5b/relu_3x3_reduce
I0403 21:55:52.780311 24726 net.cpp:425] inception_5b/relu_3x3_reduce <- inception_5b/3x3_reduce
I0403 21:55:52.780328 24726 net.cpp:386] inception_5b/relu_3x3_reduce -> inception_5b/3x3_reduce (in-place)
I0403 21:55:52.780514 24726 net.cpp:141] Setting up inception_5b/relu_3x3_reduce
I0403 21:55:52.780540 24726 net.cpp:148] Top shape: 24 192 7 7 (225792)
I0403 21:55:52.780555 24726 net.cpp:156] Memory required for data: 1330660896
I0403 21:55:52.780570 24726 layer_factory.hpp:77] Creating layer inception_5b/3x3
I0403 21:55:52.780591 24726 net.cpp:91] Creating Layer inception_5b/3x3
I0403 21:55:52.780606 24726 net.cpp:425] inception_5b/3x3 <- inception_5b/3x3_reduce
I0403 21:55:52.780627 24726 net.cpp:399] inception_5b/3x3 -> inception_5b/3x3
I0403 21:55:52.787209 24726 net.cpp:141] Setting up inception_5b/3x3
I0403 21:55:52.787236 24726 net.cpp:148] Top shape: 24 384 7 7 (451584)
I0403 21:55:52.787251 24726 net.cpp:156] Memory required for data: 1332467232
I0403 21:55:52.787271 24726 layer_factory.hpp:77] Creating layer inception_5b/relu_3x3
I0403 21:55:52.787293 24726 net.cpp:91] Creating Layer inception_5b/relu_3x3
I0403 21:55:52.787312 24726 net.cpp:425] inception_5b/relu_3x3 <- inception_5b/3x3
I0403 21:55:52.787328 24726 net.cpp:386] inception_5b/relu_3x3 -> inception_5b/3x3 (in-place)
I0403 21:55:52.787617 24726 net.cpp:141] Setting up inception_5b/relu_3x3
I0403 21:55:52.787643 24726 net.cpp:148] Top shape: 24 384 7 7 (451584)
I0403 21:55:52.787657 24726 net.cpp:156] Memory required for data: 1334273568
I0403 21:55:52.787672 24726 layer_factory.hpp:77] Creating layer inception_5b/5x5_reduce
I0403 21:55:52.787710 24726 net.cpp:91] Creating Layer inception_5b/5x5_reduce
I0403 21:55:52.787729 24726 net.cpp:425] inception_5b/5x5_reduce <- inception_5a/output_inception_5a/output_0_split_2
I0403 21:55:52.787750 24726 net.cpp:399] inception_5b/5x5_reduce -> inception_5b/5x5_reduce
I0403 21:55:52.789007 24726 net.cpp:141] Setting up inception_5b/5x5_reduce
I0403 21:55:52.789034 24726 net.cpp:148] Top shape: 24 48 7 7 (56448)
I0403 21:55:52.789049 24726 net.cpp:156] Memory required for data: 1334499360
I0403 21:55:52.789068 24726 layer_factory.hpp:77] Creating layer inception_5b/relu_5x5_reduce
I0403 21:55:52.789088 24726 net.cpp:91] Creating Layer inception_5b/relu_5x5_reduce
I0403 21:55:52.789106 24726 net.cpp:425] inception_5b/relu_5x5_reduce <- inception_5b/5x5_reduce
I0403 21:55:52.789124 24726 net.cpp:386] inception_5b/relu_5x5_reduce -> inception_5b/5x5_reduce (in-place)
I0403 21:55:52.789494 24726 net.cpp:141] Setting up inception_5b/relu_5x5_reduce
I0403 21:55:52.789520 24726 net.cpp:148] Top shape: 24 48 7 7 (56448)
I0403 21:55:52.789535 24726 net.cpp:156] Memory required for data: 1334725152
I0403 21:55:52.789551 24726 layer_factory.hpp:77] Creating layer inception_5b/5x5
I0403 21:55:52.789572 24726 net.cpp:91] Creating Layer inception_5b/5x5
I0403 21:55:52.789587 24726 net.cpp:425] inception_5b/5x5 <- inception_5b/5x5_reduce
I0403 21:55:52.789605 24726 net.cpp:399] inception_5b/5x5 -> inception_5b/5x5
I0403 21:55:52.791628 24726 net.cpp:141] Setting up inception_5b/5x5
I0403 21:55:52.791656 24726 net.cpp:148] Top shape: 24 128 7 7 (150528)
I0403 21:55:52.791673 24726 net.cpp:156] Memory required for data: 1335327264
I0403 21:55:52.791692 24726 layer_factory.hpp:77] Creating layer inception_5b/relu_5x5
I0403 21:55:52.791712 24726 net.cpp:91] Creating Layer inception_5b/relu_5x5
I0403 21:55:52.791729 24726 net.cpp:425] inception_5b/relu_5x5 <- inception_5b/5x5
I0403 21:55:52.791746 24726 net.cpp:386] inception_5b/relu_5x5 -> inception_5b/5x5 (in-place)
I0403 21:55:52.791944 24726 net.cpp:141] Setting up inception_5b/relu_5x5
I0403 21:55:52.791970 24726 net.cpp:148] Top shape: 24 128 7 7 (150528)
I0403 21:55:52.791983 24726 net.cpp:156] Memory required for data: 1335929376
I0403 21:55:52.791998 24726 layer_factory.hpp:77] Creating layer inception_5b/pool
I0403 21:55:52.792016 24726 net.cpp:91] Creating Layer inception_5b/pool
I0403 21:55:52.792032 24726 net.cpp:425] inception_5b/pool <- inception_5a/output_inception_5a/output_0_split_3
I0403 21:55:52.792052 24726 net.cpp:399] inception_5b/pool -> inception_5b/pool
I0403 21:55:52.792136 24726 net.cpp:141] Setting up inception_5b/pool
I0403 21:55:52.792160 24726 net.cpp:148] Top shape: 24 832 7 7 (978432)
I0403 21:55:52.792173 24726 net.cpp:156] Memory required for data: 1339843104
I0403 21:55:52.792187 24726 layer_factory.hpp:77] Creating layer inception_5b/pool_proj
I0403 21:55:52.792215 24726 net.cpp:91] Creating Layer inception_5b/pool_proj
I0403 21:55:52.792232 24726 net.cpp:425] inception_5b/pool_proj <- inception_5b/pool
I0403 21:55:52.792251 24726 net.cpp:399] inception_5b/pool_proj -> inception_5b/pool_proj
I0403 21:55:52.794536 24726 net.cpp:141] Setting up inception_5b/pool_proj
I0403 21:55:52.794564 24726 net.cpp:148] Top shape: 24 128 7 7 (150528)
I0403 21:55:52.794579 24726 net.cpp:156] Memory required for data: 1340445216
I0403 21:55:52.794597 24726 layer_factory.hpp:77] Creating layer inception_5b/relu_pool_proj
I0403 21:55:52.794617 24726 net.cpp:91] Creating Layer inception_5b/relu_pool_proj
I0403 21:55:52.794633 24726 net.cpp:425] inception_5b/relu_pool_proj <- inception_5b/pool_proj
I0403 21:55:52.794651 24726 net.cpp:386] inception_5b/relu_pool_proj -> inception_5b/pool_proj (in-place)
I0403 21:55:52.794951 24726 net.cpp:141] Setting up inception_5b/relu_pool_proj
I0403 21:55:52.794976 24726 net.cpp:148] Top shape: 24 128 7 7 (150528)
I0403 21:55:52.794991 24726 net.cpp:156] Memory required for data: 1341047328
I0403 21:55:52.795006 24726 layer_factory.hpp:77] Creating layer inception_5b/output
I0403 21:55:52.795024 24726 net.cpp:91] Creating Layer inception_5b/output
I0403 21:55:52.795053 24726 net.cpp:425] inception_5b/output <- inception_5b/1x1
I0403 21:55:52.795070 24726 net.cpp:425] inception_5b/output <- inception_5b/3x3
I0403 21:55:52.795086 24726 net.cpp:425] inception_5b/output <- inception_5b/5x5
I0403 21:55:52.795101 24726 net.cpp:425] inception_5b/output <- inception_5b/pool_proj
I0403 21:55:52.795119 24726 net.cpp:399] inception_5b/output -> inception_5b/output
I0403 21:55:52.795169 24726 net.cpp:141] Setting up inception_5b/output
I0403 21:55:52.795203 24726 net.cpp:148] Top shape: 24 1024 7 7 (1204224)
I0403 21:55:52.795219 24726 net.cpp:156] Memory required for data: 1345864224
I0403 21:55:52.795233 24726 layer_factory.hpp:77] Creating layer pool5/7x7_s1
I0403 21:55:52.795250 24726 net.cpp:91] Creating Layer pool5/7x7_s1
I0403 21:55:52.795265 24726 net.cpp:425] pool5/7x7_s1 <- inception_5b/output
I0403 21:55:52.795285 24726 net.cpp:399] pool5/7x7_s1 -> pool5/7x7_s1
I0403 21:55:52.795503 24726 net.cpp:141] Setting up pool5/7x7_s1
I0403 21:55:52.795529 24726 net.cpp:148] Top shape: 24 1024 1 1 (24576)
I0403 21:55:52.795544 24726 net.cpp:156] Memory required for data: 1345962528
I0403 21:55:52.795558 24726 layer_factory.hpp:77] Creating layer pool5/drop_7x7_s1
I0403 21:55:52.795575 24726 net.cpp:91] Creating Layer pool5/drop_7x7_s1
I0403 21:55:52.795590 24726 net.cpp:425] pool5/drop_7x7_s1 <- pool5/7x7_s1
I0403 21:55:52.795608 24726 net.cpp:386] pool5/drop_7x7_s1 -> pool5/7x7_s1 (in-place)
I0403 21:55:52.795657 24726 net.cpp:141] Setting up pool5/drop_7x7_s1
I0403 21:55:52.795680 24726 net.cpp:148] Top shape: 24 1024 1 1 (24576)
I0403 21:55:52.795693 24726 net.cpp:156] Memory required for data: 1346060832
I0403 21:55:52.795707 24726 layer_factory.hpp:77] Creating layer loss3/classifier_plantvillage
I0403 21:55:52.795728 24726 net.cpp:91] Creating Layer loss3/classifier_plantvillage
I0403 21:55:52.795744 24726 net.cpp:425] loss3/classifier_plantvillage <- pool5/7x7_s1
I0403 21:55:52.795763 24726 net.cpp:399] loss3/classifier_plantvillage -> loss3/classifier_plantvillage
I0403 21:55:52.796180 24726 net.cpp:141] Setting up loss3/classifier_plantvillage
I0403 21:55:52.796206 24726 net.cpp:148] Top shape: 24 38 (912)
I0403 21:55:52.796222 24726 net.cpp:156] Memory required for data: 1346064480
I0403 21:55:52.796239 24726 layer_factory.hpp:77] Creating layer loss3/classifier_plantvillage_loss3/classifier_plantvillage_0_split
I0403 21:55:52.796257 24726 net.cpp:91] Creating Layer loss3/classifier_plantvillage_loss3/classifier_plantvillage_0_split
I0403 21:55:52.796272 24726 net.cpp:425] loss3/classifier_plantvillage_loss3/classifier_plantvillage_0_split <- loss3/classifier_plantvillage
I0403 21:55:52.796293 24726 net.cpp:399] loss3/classifier_plantvillage_loss3/classifier_plantvillage_0_split -> loss3/classifier_plantvillage_loss3/classifier_plantvillage_0_split_0
I0403 21:55:52.796314 24726 net.cpp:399] loss3/classifier_plantvillage_loss3/classifier_plantvillage_0_split -> loss3/classifier_plantvillage_loss3/classifier_plantvillage_0_split_1
I0403 21:55:52.796332 24726 net.cpp:399] loss3/classifier_plantvillage_loss3/classifier_plantvillage_0_split -> loss3/classifier_plantvillage_loss3/classifier_plantvillage_0_split_2
I0403 21:55:52.796351 24726 net.cpp:399] loss3/classifier_plantvillage_loss3/classifier_plantvillage_0_split -> loss3/classifier_plantvillage_loss3/classifier_plantvillage_0_split_3
I0403 21:55:52.796450 24726 net.cpp:141] Setting up loss3/classifier_plantvillage_loss3/classifier_plantvillage_0_split
I0403 21:55:52.796474 24726 net.cpp:148] Top shape: 24 38 (912)
I0403 21:55:52.796490 24726 net.cpp:148] Top shape: 24 38 (912)
I0403 21:55:52.796505 24726 net.cpp:148] Top shape: 24 38 (912)
I0403 21:55:52.796520 24726 net.cpp:148] Top shape: 24 38 (912)
I0403 21:55:52.796535 24726 net.cpp:156] Memory required for data: 1346079072
I0403 21:55:52.796548 24726 layer_factory.hpp:77] Creating layer loss1/loss
I0403 21:55:52.796569 24726 net.cpp:91] Creating Layer loss1/loss
I0403 21:55:52.796586 24726 net.cpp:425] loss1/loss <- loss1/classifier_plantvillage_loss1/classifier_plantvillage_0_split_0
I0403 21:55:52.796617 24726 net.cpp:425] loss1/loss <- label_data_1_split_0
…
