…
I0403 21:45:50.691594 24139 net.cpp:313] The NetState phase (1) differed from the phase (0) specified by a rule in layer data
I0403 21:45:50.692695 24139 net.cpp:49] Initializing net from parameters: 
state {
  phase: TEST
}
layer {
  name: "data"
  type: "Data"
  top: "data"
  top: "label"
  include {
    phase: TEST
  }
  transform_param {
    mirror: false
    crop_size: 224
    mean_file: "/home/mohanty/data/final_dataset/lmdb/segmented-80-20/mean.binaryproto"
  }
  data_param {
    source: "/home/mohanty/data/final_dataset/lmdb/segmented-80-20/test_db"
    batch_size: 24
    backend: LMDB
  }
}
layer {
  name: "conv1/7x7_s2"
  type: "Convolution"
  bottom: "data"
  top: "conv1/7x7_s2"
  param {
    lr_mult: 1
    decay_mult: 1
  }
  param {
    lr_mult: 2
    decay_mult: 0
  }
  convolution_param {
    num_output: 64
    pad: 3
    kernel_size: 7
    stride: 2
    weight_filler {
      type: "xavier"
      std: 0.1
    }
    bias_filler {
      type: "constant"
      value: 0.2
    }
  }
}
layer {
  name: "conv1/relu_7x7"
  type: "ReLU"
  bottom: "conv1/7x7_s2"
  top: "conv1/7x7_s2"
}
layer {
  name: "pool1/3x3_s2"
  type: "Pooling"
  bottom: "conv1/7x7_s2"
  top: "pool1/3x3_s2"
  pooling_param {
    pool: MAX
    kernel_size: 3
    stride: 2
  }
}
layer {
  name: "pool1/norm1"
  type: "LRN"
  bottom: "pool1/3x3_s2"
  top: "pool1/norm1"
  lrn_param {
    local_size: 5
    alpha: 0.0001
    beta: 0.75
  }
}
layer {
  name: "conv2/3x3_reduce"
  type: "Convolution"
  bottom: "pool1/norm1"
  top: "conv2/3x3_reduce"
  param {
    lr_mult: 1
    decay_mult: 1
  }
  param {
    lr_mult: 2
    decay_mult: 0
  }
  convolution_param {
    num_output: 64
    kernel_size: 1
    weight_filler {
      type: "xavier"
      std: 0.1
    }
    bias_filler {
      type: "constant"
      value: 0.2
    }
  }
}
layer {
  name: "conv2/relu_3x3_reduce"
  type: "ReLU"
  bottom: "conv2/3x3_reduce"
  top: "conv2/3x3_reduce"
}
layer {
  name: "conv2/3x3"
  type: "Convolution"
  bottom: "conv2/3x3_reduce"
  top: "conv2/3x3"
  param {
    lr_mult: 1
    decay_mult: 1
  }
  param {
    lr_mult: 2
    decay_mult: 0
  }
  convolution_param {
    num_output: 192
    pad: 1
    kernel_size: 3
    weight_filler {
      type: "xavier"
      std: 0.03
    }
    bias_filler {
      type: "constant"
      value: 0.2
    }
  }
}
layer {
  name: "conv2/relu_3x3"
  type: "ReLU"
  bottom: "conv2/3x3"
  top: "conv2/3x3"
}
layer {
  name: "conv2/norm2"
  type: "LRN"
  bottom: "conv2/3x3"
  top: "conv2/norm2"
  lrn_param {
    local_size: 5
    alpha: 0.0001
    beta: 0.75
  }
}
layer {
  name: "pool2/3x3_s2"
  type: "Pooling"
  bottom: "conv2/norm2"
  top: "pool2/3x3_s2"
  pooling_param {
    pool: MAX
    kernel_size: 3
    stride: 2
  }
}
layer {
  name: "inception_3a/1x1"
  type: "Convolution"
  bottom: "pool2/3x3_s2"
  top: "inception_3a/1x1"
  param {
    lr_mult: 1
    decay_mult: 1
  }
  param {
    lr_mult: 2
    decay_mult: 0
  }
  convolution_param {
    num_output: 64
    kernel_size: 1
    weight_filler {
      type: "xavier"
      std: 0.03
    }
    bias_filler {
      type: "constant"
      value: 0.2
    }
  }
}
layer {
  name: "inception_3a/relu_1x1"
  type: "ReLU"
  bottom: "inception_3a/1x1"
  top: "inception_3a/1x1"
}
layer {
  name: "inception_3a/3x3_reduce"
  type: "Convolution"
  bottom: "pool2/3x3_s2"
  top: "inception_3a/3x3_reduce"
  param {
    lr_mult: 1
    decay_mult: 1
  }
  param {
    lr_mult: 2
    decay_mult: 0
  }
  convolution_param {
    num_output: 96
    kernel_size: 1
    weight_filler {
      type: "xavier"
      std: 0.09
    }
    bias_filler {
      type: "constant"
      value: 0.2
    }
  }
}
layer {
  name: "inception_3a/relu_3x3_reduce"
  type: "ReLU"
  bottom: "inception_3a/3x3_reduce"
  top: "inception_3a/3x3_reduce"
}
layer {
  name: "inception_3a/3x3"
  type: "Convolution"
  bottom: "inception_3a/3x3_reduce"
  top: "inception_3a/3x3"
  param {
    lr_mult: 1
    decay_mult: 1
  }
  param {
    lr_mult: 2
    decay_mult: 0
  }
  convolution_param {
    num_output: 128
    pad: 1
    kernel_size: 3
    weight_filler {
      type: "xavier"
      std: 0.03
    }
    bias_filler {
      type: "constant"
      value: 0.2
    }
  }
}
layer {
  name: "inception_3a/relu_3x3"
  type: "ReLU"
  bottom: "inception_3a/3x3"
  top: "inception_3a/3x3"
}
layer {
  name: "inception_3a/5x5_reduce"
  type: "Convolution"
  bottom: "pool2/3x3_s2"
  top: "inception_3a/5x5_reduce"
  param {
    lr_mult: 1
    decay_mult: 1
  }
  param {
    lr_mult: 2
    decay_mult: 0
  }
  convolution_param {
    num_output: 16
    kernel_size: 1
    weight_filler {
      type: "xavier"
      std: 0.2
    }
    bias_filler {
      type: "constant"
      value: 0.2
    }
  }
}
layer {
  name: "inception_3a/relu_5x5_reduce"
  type: "ReLU"
  bottom: "inception_3a/5x5_reduce"
  top: "inception_3a/5x5_reduce"
}
layer {
  name: "inception_3a/5x5"
  type: "Convolution"
  bottom: "inception_3a/5x5_reduce"
  top: "inception_3a/5x5"
  param {
    lr_mult: 1
    decay_mult: 1
  }
  param {
    lr_mult: 2
    decay_mult: 0
  }
  convolution_param {
    num_output: 32
    pad: 2
    kernel_size: 5
    weight_filler {
      type: "xavier"
      std: 0.03
    }
    bias_filler {
      type: "constant"
      value: 0.2
    }
  }
}
layer {
  name: "inception_3a/relu_5x5"
  type: "ReLU"
  bottom: "inception_3a/5x5"
  top: "inception_3a/5x5"
}
layer {
  name: "inception_3a/pool"
  type: "Pooling"
  bottom: "pool2/3x3_s2"
  top: "inception_3a/pool"
  pooling_param {
    pool: MAX
    kernel_size: 3
    stride: 1
    pad: 1
  }
}
layer {
  name: "inception_3a/pool_proj"
  type: "Convolution"
  bottom: "inception_3a/pool"
  top: "inception_3a/pool_proj"
  param {
    lr_mult: 1
    decay_mult: 1
  }
  param {
    lr_mult: 2
    decay_mult: 0
  }
  convolution_param {
    num_output: 32
    kernel_size: 1
    weight_filler {
      type: "xavier"
      std: 0.1
    }
    bias_filler {
      type: "constant"
      value: 0.2
    }
  }
}
layer {
  name: "inception_3a/relu_pool_proj"
  type: "ReLU"
  bottom: "inception_3a/pool_proj"
  top: "inception_3a/pool_proj"
}
layer {
  name: "inception_3a/output"
  type: "Concat"
  bottom: "inception_3a/1x1"
  bottom: "inception_3a/3x3"
  bottom: "inception_3a/5x5"
  bottom: "inception_3a/pool_proj"
  top: "inception_3a/output"
}
layer {
  name: "inception_3b/1x1"
  type: "Convolution"
  bottom: "inception_3a/output"
  top: "inception_3b/1x1"
  param {
    lr_mult: 1
    decay_mult: 1
  }
  param {
    lr_mult: 2
    decay_mult: 0
  }
  convolution_param {
    num_output: 128
    kernel_size: 1
    weight_filler {
      type: "xavier"
      std: 0.03
    }
    bias_filler {
      type: "constant"
      value: 0.2
    }
  }
}
layer {
  name: "inception_3b/relu_1x1"
  type: "ReLU"
  bottom: "inception_3b/1x1"
  top: "inception_3b/1x1"
}
layer {
  name: "inception_3b/3x3_reduce"
  type: "Convolution"
  bottom: "inception_3a/output"
  top: "inception_3b/3x3_reduce"
  param {
    lr_mult: 1
    decay_mult: 1
  }
  param {
    lr_mult: 2
    decay_mult: 0
  }
  convolution_param {
    num_output: 128
    kernel_size: 1
    weight_filler {
      type: "xavier"
      std: 0.09
    }
    bias_filler {
      type: "constant"
      value: 0.2
    }
  }
}
layer {
  name: "inception_3b/relu_3x3_reduce"
  type: "ReLU"
  bottom: "inception_3b/3x3_reduce"
  top: "inception_3b/3x3_reduce"
}
layer {
  name: "inception_3b/3x3"
  type: "Convolution"
  bottom: "inception_3b/3x3_reduce"
  top: "inception_3b/3x3"
  param {
    lr_mult: 1
    decay_mult: 1
  }
  param {
    lr_mult: 2
    decay_mult: 0
  }
  convolution_param {
    num_output: 192
    pad: 1
    kernel_size: 3
    weight_filler {
      type: "xavier"
      std: 0.03
    }
    bias_filler {
      type: "constant"
      value: 0.2
    }
  }
}
layer {
  name: "inception_3b/relu_3x3"
  type: "ReLU"
  bottom: "inception_3b/3x3"
  top: "inception_3b/3x3"
}
layer {
  name: "inception_3b/5x5_reduce"
  type: "Convolution"
  bottom: "inception_3a/output"
  top: "inception_3b/5x5_reduce"
  param {
    lr_mult: 1
    decay_mult: 1
  }
  param {
    lr_mult: 2
    decay_mult: 0
  }
  convolution_param {
    num_output: 32
    kernel_size: 1
    weight_filler {
      type: "xavier"
      std: 0.2
    }
    bias_filler {
      type: "constant"
      value: 0.2
    }
  }
}
layer {
  name: "inception_3b/relu_5x5_reduce"
  type: "ReLU"
  bottom: "inception_3b/5x5_reduce"
  top: "inception_3b/5x5_reduce"
}
layer {
  name: "inception_3b/5x5"
  type: "Convolution"
  bottom: "inception_3b/5x5_reduce"
  top: "inception_3b/5x5"
  param {
    lr_mult: 1
    decay_mult: 1
  }
  param {
    lr_mult: 2
    decay_mult: 0
  }
  convolution_param {
    num_output: 96
    pad: 2
    kernel_size: 5
    weight_filler {
      type: "xavier"
      std: 0.03
    }
    bias_filler {
      type: "constant"
      value: 0.2
    }
  }
}
layer {
  name: "inception_3b/relu_5x5"
  type: "ReLU"
  bottom: "inception_3b/5x5"
  top: "inception_3b/5x5"
}
layer {
  name: "inception_3b/pool"
  type: "Pooling"
  bottom: "inception_3a/output"
  top: "inception_3b/pool"
  pooling_param {
    pool: MAX
    kernel_size: 3
    stride: 1
    pad: 1
  }
}
layer {
  name: "inception_3b/pool_proj"
  type: "Convolution"
  bottom: "inception_3b/pool"
  top: "inception_3b/pool_proj"
  param {
    lr_mult: 1
    decay_mult: 1
  }
  param {
    lr_mult: 2
    decay_mult: 0
  }
  convolution_param {
    num_output: 64
    kernel_size: 1
    weight_filler {
      type: "xavier"
      std: 0.1
    }
    bias_filler {
      type: "constant"
      value: 0.2
    }
  }
}
layer {
  name: "inception_3b/relu_pool_proj"
  type: "ReLU"
  bottom: "inception_3b/pool_proj"
  top: "inception_3b/pool_proj"
}
layer {
  name: "inception_3b/output"
  type: "Concat"
  bottom: "inception_3b/1x1"
  bottom: "inception_3b/3x3"
  bottom: "inception_3b/5x5"
  bottom: "inception_3b/pool_proj"
  top: "inception_3b/output"
}
layer {
  name: "pool3/3x3_s2"
  type: "Pooling"
  bottom: "inception_3b/output"
  top: "pool3/3x3_s2"
  pooling_param {
    pool: MAX
    kernel_size: 3
    stride: 2
  }
}
layer {
  name: "inception_4a/1x1"
  type: "Convolution"
  bottom: "pool3/3x3_s2"
  top: "inception_4a/1x1"
  param {
    lr_mult: 1
    decay_mult: 1
  }
  param {
    lr_mult: 2
    decay_mult: 0
  }
  convolution_param {
    num_output: 192
    kernel_size: 1
    weight_filler {
      type: "xavier"
      std: 0.03
    }
    bias_filler {
      type: "constant"
      value: 0.2
    }
  }
}
layer {
  name: "inception_4a/relu_1x1"
  type: "ReLU"
  bottom: "inception_4a/1x1"
  top: "inception_4a/1x1"
}
layer {
  name: "inception_4a/3x3_reduce"
  type: "Convolution"
  bottom: "pool3/3x3_s2"
  top: "inception_4a/3x3_reduce"
  param {
    lr_mult: 1
    decay_mult: 1
  }
  param {
    lr_mult: 2
    decay_mult: 0
  }
  convolution_param {
    num_output: 96
    kernel_size: 1
    weight_filler {
      type: "xavier"
      std: 0.09
    }
    bias_filler {
      type: "constant"
      value: 0.2
    }
  }
}
layer {
  name: "inception_4a/relu_3x3_reduce"
  type: "ReLU"
  bottom: "inception_4a/3x3_reduce"
  top: "inception_4a/3x3_reduce"
}
layer {
  name: "inception_4a/3x3"
  type: "Convolution"
  bottom: "inception_4a/3x3_reduce"
  top: "inception_4a/3x3"
  param {
    lr_mult: 1
    decay_mult: 1
  }
  param {
    lr_mult: 2
    decay_mult: 0
  }
  convolution_param {
    num_output: 208
    pad: 1
    kernel_size: 3
    weight_filler {
      type: "xavier"
      std: 0.03
    }
    bias_filler {
      type: "constant"
      value: 0.2
    }
  }
}
layer {
  name: "inception_4a/relu_3x3"
  type: "ReLU"
  bottom: "inception_4a/3x3"
  top: "inception_4a/3x3"
}
layer {
  name: "inception_4a/5x5_reduce"
  type: "Convolution"
  bottom: "pool3/3x3_s2"
  top: "inception_4a/5x5_reduce"
  param {
    lr_mult: 1
    decay_mult: 1
  }
  param {
    lr_mult: 2
    decay_mult: 0
  }
  convolution_param {
    num_output: 16
    kernel_size: 1
    weight_filler {
      type: "xavier"
      std: 0.2
    }
    bias_filler {
      type: "constant"
      value: 0.2
    }
  }
}
layer {
  name: "inception_4a/relu_5x5_reduce"
  type: "ReLU"
  bottom: "inception_4a/5x5_reduce"
  top: "inception_4a/5x5_reduce"
}
layer {
  name: "inception_4a/5x5"
  type: "Convolution"
  bottom: "inception_4a/5x5_reduce"
  top: "inception_4a/5x5"
  param {
    lr_mult: 1
    decay_mult: 1
  }
  param {
    lr_mult: 2
    decay_mult: 0
  }
  convolution_param {
    num_output: 48
    pad: 2
    kernel_size: 5
    weight_filler {
      type: "xavier"
      std: 0.03
    }
    bias_filler {
      type: "constant"
      value: 0.2
    }
  }
}
layer {
  name: "inception_4a/relu_5x5"
  type: "ReLU"
  bottom: "inception_4a/5x5"
  top: "inception_4a/5x5"
}
layer {
  name: "inception_4a/pool"
  type: "Pooling"
  bottom: "pool3/3x3_s2"
  top: "inception_4a/pool"
  pooling_param {
    pool: MAX
    kernel_size: 3
    stride: 1
    pad: 1
  }
}
layer {
  name: "inception_4a/pool_proj"
  type: "Convolution"
  bottom: "inception_4a/pool"
  top: "inception_4a/pool_proj"
  param {
    lr_mult: 1
    decay_mult: 1
  }
  param {
    lr_mult: 2
    decay_mult: 0
  }
  convolution_param {
    num_output: 64
    kernel_size: 1
    weight_filler {
      type: "xavier"
      std: 0.1
    }
    bias_filler {
      type: "constant"
      value: 0.2
    }
  }
}
layer {
  name: "inception_4a/relu_pool_proj"
  type: "ReLU"
  bottom: "inception_4a/pool_proj"
  top: "inception_4a/pool_proj"
}
layer {
  name: "inception_4a/output"
  type: "Concat"
  bottom: "inception_4a/1x1"
  bottom: "inception_4a/3x3"
  bottom: "inception_4a/5x5"
  bottom: "inception_4a/pool_proj"
  top: "inception_4a/output"
}
layer {
  name: "loss1/ave_pool"
  type: "Pooling"
  bottom: "inception_4a/output"
  top: "loss1/ave_pool"
  pooling_param {
    pool: AVE
    kernel_size: 5
    stride: 3
  }
}
layer {
  name: "loss1/conv"
  type: "Convolution"
  bottom: "loss1/ave_pool"
  top: "loss1/conv"
  param {
    lr_mult: 1
    decay_mult: 1
  }
  param {
    lr_mult: 2
    decay_mult: 0
  }
  convolution_param {
    num_output: 128
    kernel_size: 1
    weight_filler {
      type: "xavier"
      std: 0.08
    }
    bias_filler {
      type: "constant"
      value: 0.2
    }
  }
}
layer {
  name: "loss1/relu_conv"
  type: "ReLU"
  bottom: "loss1/conv"
  top: "loss1/conv"
}
layer {
  name: "loss1/fc"
  type: "InnerProduct"
  bottom: "loss1/conv"
  top: "loss1/fc"
  param {
    lr_mult: 1
    decay_mult: 1
  }
  param {
    lr_mult: 2
    decay_mult: 0
  }
  inner_product_param {
    num_output: 1024
    weight_filler {
      type: "xavier"
      std: 0.02
    }
    bias_filler {
      type: "constant"
      value: 0.2
    }
  }
}
layer {
  name: "loss1/relu_fc"
  type: "ReLU"
  bottom: "loss1/fc"
  top: "loss1/fc"
}
layer {
  name: "loss1/drop_fc"
  type: "Dropout"
  bottom: "loss1/fc"
  top: "loss1/fc"
  dropout_param {
    dropout_ratio: 0.7
  }
}
layer {
  name: "loss1/classifier_plantvillage"
  type: "InnerProduct"
  bottom: "loss1/fc"
  top: "loss1/classifier_plantvillage"
  param {
    lr_mult: 1
    decay_mult: 1
  }
  param {
    lr_mult: 2
    decay_mult: 0
  }
  inner_product_param {
    num_output: 38
    weight_filler {
      type: "xavier"
      std: 0.0009765625
    }
    bias_filler {
      type: "constant"
      value: 0
    }
  }
}
layer {
  name: "inception_4b/1x1"
  type: "Convolution"
  bottom: "inception_4a/output"
  top: "inception_4b/1x1"
  param {
    lr_mult: 1
    decay_mult: 1
  }
  param {
    lr_mult: 2
    decay_mult: 0
  }
  convolution_param {
    num_output: 160
    kernel_size: 1
    weight_filler {
      type: "xavier"
      std: 0.03
    }
    bias_filler {
      type: "constant"
      value: 0.2
    }
  }
}
layer {
  name: "inception_4b/relu_1x1"
  type: "ReLU"
  bottom: "inception_4b/1x1"
  top: "inception_4b/1x1"
}
layer {
  name: "inception_4b/3x3_reduce"
  type: "Convolution"
  bottom: "inception_4a/output"
  top: "inception_4b/3x3_reduce"
  param {
    lr_mult: 1
    decay_mult: 1
  }
  param {
    lr_mult: 2
    decay_mult: 0
  }
  convolution_param {
    num_output: 112
    kernel_size: 1
    weight_filler {
      type: "xavier"
      std: 0.09
    }
    bias_filler {
      type: "constant"
      value: 0.2
    }
  }
}
layer {
  name: "inception_4b/relu_3x3_reduce"
  type: "ReLU"
  bottom: "inception_4b/3x3_reduce"
  top: "inception_4b/3x3_reduce"
}
layer {
  name: "inception_4b/3x3"
  type: "Convolution"
  bottom: "inception_4b/3x3_reduce"
  top: "inception_4b/3x3"
  param {
    lr_mult: 1
    decay_mult: 1
  }
  param {
    lr_mult: 2
    decay_mult: 0
  }
  convolution_param {
    num_output: 224
    pad: 1
    kernel_size: 3
    weight_filler {
      type: "xavier"
      std: 0.03
    }
    bias_filler {
      type: "constant"
      value: 0.2
    }
  }
}
layer {
  name: "inception_4b/relu_3x3"
  type: "ReLU"
  bottom: "inception_4b/3x3"
  top: "inception_4b/3x3"
}
layer {
  name: "inception_4b/5x5_reduce"
  type: "Convolution"
  bottom: "inception_4a/output"
  top: "inception_4b/5x5_reduce"
  param {
    lr_mult: 1
    decay_mult: 1
  }
  param {
    lr_mult: 2
    decay_mult: 0
  }
  convolution_param {
    num_output: 24
    kernel_size: 1
    weight_filler {
      type: "xavier"
      std: 0.2
    }
    bias_filler {
      type: "constant"
      value: 0.2
    }
  }
}
layer {
  name: "inception_4b/relu_5x5_reduce"
  type: "ReLU"
  bottom: "inception_4b/5x5_reduce"
  top: "inception_4b/5x5_reduce"
}
layer {
  name: "inception_4b/5x5"
  type: "Convolution"
  bottom: "inception_4b/5x5_reduce"
  top: "inception_4b/5x5"
  param {
    lr_mult: 1
    decay_mult: 1
  }
  param {
    lr_mult: 2
    decay_mult: 0
  }
  convolution_param {
    num_output: 64
    pad: 2
    kernel_size: 5
    weight_filler {
      type: "xavier"
      std: 0.03
    }
    bias_filler {
      type: "constant"
      value: 0.2
    }
  }
}
layer {
  name: "inception_4b/relu_5x5"
  type: "ReLU"
  bottom: "inception_4b/5x5"
  top: "inception_4b/5x5"
}
layer {
  name: "inception_4b/pool"
  type: "Pooling"
  bottom: "inception_4a/output"
  top: "inception_4b/pool"
  pooling_param {
    pool: MAX
    kernel_size: 3
    stride: 1
    pad: 1
  }
}
layer {
  name: "inception_4b/pool_proj"
  type: "Convolution"
  bottom: "inception_4b/pool"
  top: "inception_4b/pool_proj"
  param {
    lr_mult: 1
    decay_mult: 1
  }
  param {
    lr_mult: 2
    decay_mult: 0
  }
  convolution_param {
    num_output: 64
    kernel_size: 1
    weight_filler {
      type: "xavier"
      std: 0.1
    }
    bias_filler {
      type: "constant"
      value: 0.2
    }
  }
}
layer {
  name: "inception_4b/relu_pool_proj"
  type: "ReLU"
  bottom: "inception_4b/pool_proj"
  top: "inception_4b/pool_proj"
}
layer {
  name: "inception_4b/output"
  type: "Concat"
  bottom: "inception_4b/1x1"
  bottom: "inception_4b/3x3"
  bottom: "inception_4b/5x5"
  bottom: "inception_4b/pool_proj"
  top: "inception_4b/output"
}
layer {
  name: "inception_4c/1x1"
  type: "Convolution"
  bottom: "inception_4b/output"
  top: "inception_4c/1x1"
  param {
    lr_mult: 1
    decay_mult: 1
  }
  param {
    lr_mult: 2
    decay_mult: 0
  }
  convolution_param {
    num_output: 128
    kernel_size: 1
    weight_filler {
      type: "xavier"
      std: 0.03
    }
    bias_filler {
      type: "constant"
      value: 0.2
    }
  }
}
layer {
  name: "inception_4c/relu_1x1"
  type: "ReLU"
  bottom: "inception_4c/1x1"
  top: "inception_4c/1x1"
}
layer {
  name: "inception_4c/3x3_reduce"
  type: "Convolution"
  bottom: "inception_4b/output"
  top: "inception_4c/3x3_reduce"
  param {
    lr_mult: 1
    decay_mult: 1
  }
  param {
    lr_mult: 2
    decay_mult: 0
  }
  convolution_param {
    num_output: 128
    kernel_size: 1
    weight_filler {
      type: "xavier"
      std: 0.09
    }
    bias_filler {
      type: "constant"
      value: 0.2
    }
  }
}
layer {
  name: "inception_4c/relu_3x3_reduce"
  type: "ReLU"
  bottom: "inception_4c/3x3_reduce"
  top: "inception_4c/3x3_reduce"
}
layer {
  name: "inception_4c/3x3"
  type: "Convolution"
  bottom: "inception_4c/3x3_reduce"
  top: "inception_4c/3x3"
  param {
    lr_mult: 1
    decay_mult: 1
  }
  param {
    lr_mult: 2
    decay_mult: 0
  }
  convolution_param {
    num_output: 256
    pad: 1
    kernel_size: 3
    weight_filler {
      type: "xavier"
      std: 0.03
    }
    bias_filler {
      type: "constant"
      value: 0.2
    }
  }
}
layer {
  name: "inception_4c/relu_3x3"
  type: "ReLU"
  bottom: "inception_4c/3x3"
  top: "inception_4c/3x3"
}
layer {
  name: "inception_4c/5x5_reduce"
  type: "Convolution"
  bottom: "inception_4b/output"
  top: "inception_4c/5x5_reduce"
  param {
    lr_mult: 1
    decay_mult: 1
  }
  param {
    lr_mult: 2
    decay_mult: 0
  }
  convolution_param {
    num_output: 24
    kernel_size: 1
    weight_filler {
      type: "xavier"
      std: 0.2
    }
    bias_filler {
      type: "constant"
      value: 0.2
    }
  }
}
layer {
  name: "inception_4c/relu_5x5_reduce"
  type: "ReLU"
  bottom: "inception_4c/5x5_reduce"
  top: "inception_4c/5x5_reduce"
}
layer {
  name: "inception_4c/5x5"
  type: "Convolution"
  bottom: "inception_4c/5x5_reduce"
  top: "inception_4c/5x5"
  param {
    lr_mult: 1
    decay_mult: 1
  }
  param {
    lr_mult: 2
    decay_mult: 0
  }
  convolution_param {
    num_output: 64
    pad: 2
    kernel_size: 5
    weight_filler {
      type: "xavier"
      std: 0.03
    }
    bias_filler {
      type: "constant"
      value: 0.2
    }
  }
}
layer {
  name: "inception_4c/relu_5x5"
  type: "ReLU"
  bottom: "inception_4c/5x5"
  top: "inception_4c/5x5"
}
layer {
  name: "inception_4c/pool"
  type: "Pooling"
  bottom: "inception_4b/output"
  top: "inception_4c/pool"
  pooling_param {
    pool: MAX
    kernel_size: 3
    stride: 1
    pad: 1
  }
}
layer {
  name: "inception_4c/pool_proj"
  type: "Convolution"
  bottom: "inception_4c/pool"
  top: "inception_4c/pool_proj"
  param {
    lr_mult: 1
    decay_mult: 1
  }
  param {
    lr_mult: 2
    decay_mult: 0
  }
  convolution_param {
    num_output: 64
    kernel_size: 1
    weight_filler {
      type: "xavier"
      std: 0.1
    }
    bias_filler {
      type: "constant"
      value: 0.2
    }
  }
}
layer {
  name: "inception_4c/relu_pool_proj"
  type: "ReLU"
  bottom: "inception_4c/pool_proj"
  top: "inception_4c/pool_proj"
}
layer {
  name: "inception_4c/output"
  type: "Concat"
  bottom: "inception_4c/1x1"
  bottom: "inception_4c/3x3"
  bottom: "inception_4c/5x5"
  bottom: "inception_4c/pool_proj"
  top: "inception_4c/output"
}
layer {
  name: "inception_4d/1x1"
  type: "Convolution"
  bottom: "inception_4c/output"
  top: "inception_4d/1x1"
  param {
    lr_mult: 1
    decay_mult: 1
  }
  param {
    lr_mult: 2
    decay_mult: 0
  }
  convolution_param {
    num_output: 112
    kernel_size: 1
    weight_filler {
      type: "xavier"
      std: 0.03
    }
    bias_filler {
      type: "constant"
      value: 0.2
    }
  }
}
layer {
  name: "inception_4d/relu_1x1"
  type: "ReLU"
  bottom: "inception_4d/1x1"
  top: "inception_4d/1x1"
}
layer {
  name: "inception_4d/3x3_reduce"
  type: "Convolution"
  bottom: "inception_4c/output"
  top: "inception_4d/3x3_reduce"
  param {
    lr_mult: 1
    decay_mult: 1
  }
  param {
    lr_mult: 2
    decay_mult: 0
  }
  convolution_param {
    num_output: 144
    kernel_size: 1
    weight_filler {
      type: "xavier"
      std: 0.09
    }
    bias_filler {
      type: "constant"
      value: 0.2
    }
  }
}
layer {
  name: "inception_4d/relu_3x3_reduce"
  type: "ReLU"
  bottom: "inception_4d/3x3_reduce"
  top: "inception_4d/3x3_reduce"
}
layer {
  name: "inception_4d/3x3"
  type: "Convolution"
  bottom: "inception_4d/3x3_reduce"
  top: "inception_4d/3x3"
  param {
    lr_mult: 1
    decay_mult: 1
  }
  param {
    lr_mult: 2
    decay_mult: 0
  }
  convolution_param {
    num_output: 288
    pad: 1
    kernel_size: 3
    weight_filler {
      type: "xavier"
      std: 0.03
    }
    bias_filler {
      type: "constant"
      value: 0.2
    }
  }
}
layer {
  name: "inception_4d/relu_3x3"
  type: "ReLU"
  bottom: "inception_4d/3x3"
  top: "inception_4d/3x3"
}
layer {
  name: "inception_4d/5x5_reduce"
  type: "Convolution"
  bottom: "inception_4c/output"
  top: "inception_4d/5x5_reduce"
  param {
    lr_mult: 1
    decay_mult: 1
  }
  param {
    lr_mult: 2
    decay_mult: 0
  }
  convolution_param {
    num_output: 32
    kernel_size: 1
    weight_filler {
      type: "xavier"
      std: 0.2
    }
    bias_filler {
      type: "constant"
      value: 0.2
    }
  }
}
layer {
  name: "inception_4d/relu_5x5_reduce"
  type: "ReLU"
  bottom: "inception_4d/5x5_reduce"
  top: "inception_4d/5x5_reduce"
}
layer {
  name: "inception_4d/5x5"
  type: "Convolution"
  bottom: "inception_4d/5x5_reduce"
  top: "inception_4d/5x5"
  param {
    lr_mult: 1
    decay_mult: 1
  }
  param {
    lr_mult: 2
    decay_mult: 0
  }
  convolution_param {
    num_output: 64
    pad: 2
    kernel_size: 5
    weight_filler {
      type: "xavier"
      std: 0.03
    }
    bias_filler {
      type: "constant"
      value: 0.2
    }
  }
}
layer {
  name: "inception_4d/relu_5x5"
  type: "ReLU"
  bottom: "inception_4d/5x5"
  top: "inception_4d/5x5"
}
layer {
  name: "inception_4d/pool"
  type: "Pooling"
  bottom: "inception_4c/output"
  top: "inception_4d/pool"
  pooling_param {
    pool: MAX
    kernel_size: 3
    stride: 1
    pad: 1
  }
}
layer {
  name: "inception_4d/pool_proj"
  type: "Convolution"
  bottom: "inception_4d/pool"
  top: "inception_4d/pool_proj"
  param {
    lr_mult: 1
    decay_mult: 1
  }
  param {
    lr_mult: 2
    decay_mult: 0
  }
  convolution_param {
    num_output: 64
    kernel_size: 1
    weight_filler {
      type: "xavier"
      std: 0.1
    }
    bias_filler {
      type: "constant"
      value: 0.2
    }
  }
}
layer {
  name: "inception_4d/relu_pool_proj"
  type: "ReLU"
  bottom: "inception_4d/pool_proj"
  top: "inception_4d/pool_proj"
}
layer {
  name: "inception_4d/output"
  type: "Concat"
  bottom: "inception_4d/1x1"
  bottom: "inception_4d/3x3"
  bottom: "inception_4d/5x5"
  bottom: "inception_4d/pool_proj"
  top: "inception_4d/output"
}
layer {
  name: "loss2/ave_pool"
  type: "Pooling"
  bottom: "inception_4d/output"
  top: "loss2/ave_pool"
  pooling_param {
    pool: AVE
    kernel_size: 5
    stride: 3
  }
}
layer {
  name: "loss2/conv"
  type: "Convolution"
  bottom: "loss2/ave_pool"
  top: "loss2/conv"
  param {
    lr_mult: 1
    decay_mult: 1
  }
  param {
    lr_mult: 2
    decay_mult: 0
  }
  convolution_param {
    num_output: 128
    kernel_size: 1
    weight_filler {
      type: "xavier"
      std: 0.08
    }
    bias_filler {
      type: "constant"
      value: 0.2
    }
  }
}
layer {
  name: "loss2/relu_conv"
  type: "ReLU"
  bottom: "loss2/conv"
  top: "loss2/conv"
}
layer {
  name: "loss2/fc"
  type: "InnerProduct"
  bottom: "loss2/conv"
  top: "loss2/fc"
  param {
    lr_mult: 1
    decay_mult: 1
  }
  param {
    lr_mult: 2
    decay_mult: 0
  }
  inner_product_param {
    num_output: 1024
    weight_filler {
      type: "xavier"
      std: 0.02
    }
    bias_filler {
      type: "constant"
      value: 0.2
    }
  }
}
layer {
  name: "loss2/relu_fc"
  type: "ReLU"
  bottom: "loss2/fc"
  top: "loss2/fc"
}
layer {
  name: "loss2/drop_fc"
  type: "Dropout"
  bottom: "loss2/fc"
  top: "loss2/fc"
  dropout_param {
    dropout_ratio: 0.7
  }
}
layer {
  name: "loss2/classifier_plantvillage"
  type: "InnerProduct"
  bottom: "loss2/fc"
  top: "loss2/classifier_plantvillage"
  param {
    lr_mult: 1
    decay_mult: 1
  }
  param {
    lr_mult: 2
    decay_mult: 0
  }
  inner_product_param {
    num_output: 38
    weight_filler {
      type: "xavier"
      std: 0.0009765625
    }
    bias_filler {
      type: "constant"
      value: 0
    }
  }
}
layer {
  name: "inception_4e/1x1"
  type: "Convolution"
  bottom: "inception_4d/output"
  top: "inception_4e/1x1"
  param {
    lr_mult: 1
    decay_mult: 1
  }
  param {
    lr_mult: 2
    decay_mult: 0
  }
  convolution_param {
    num_output: 256
    kernel_size: 1
    weight_filler {
      type: "xavier"
      std: 0.03
    }
    bias_filler {
      type: "constant"
      value: 0.2
    }
  }
}
layer {
  name: "inception_4e/relu_1x1"
  type: "ReLU"
  bottom: "inception_4e/1x1"
  top: "inception_4e/1x1"
}
layer {
  name: "inception_4e/3x3_reduce"
  type: "Convolution"
  bottom: "inception_4d/output"
  top: "inception_4e/3x3_reduce"
  param {
    lr_mult: 1
    decay_mult: 1
  }
  param {
    lr_mult: 2
    decay_mult: 0
  }
  convolution_param {
    num_output: 160
    kernel_size: 1
    weight_filler {
      type: "xavier"
      std: 0.09
    }
    bias_filler {
      type: "constant"
      value: 0.2
    }
  }
}
layer {
  name: "inception_4e/relu_3x3_reduce"
  type: "ReLU"
  bottom: "inception_4e/3x3_reduce"
  top: "inception_4e/3x3_reduce"
}
layer {
  name: "inception_4e/3x3"
  type: "Convolution"
  bottom: "inception_4e/3x3_reduce"
  top: "inception_4e/3x3"
  param {
    lr_mult: 1
    decay_mult: 1
  }
  param {
    lr_mult: 2
    decay_mult: 0
  }
  convolution_param {
    num_output: 320
    pad: 1
    kernel_size: 3
    weight_filler {
      type: "xavier"
      std: 0.03
    }
    bias_filler {
      type: "constant"
      value: 0.2
    }
  }
}
layer {
  name: "inception_4e/relu_3x3"
  type: "ReLU"
  bottom: "inception_4e/3x3"
  top: "inception_4e/3x3"
}
layer {
  name: "inception_4e/5x5_reduce"
  type: "Convolution"
  bottom: "inception_4d/output"
  top: "inception_4e/5x5_reduce"
  param {
    lr_mult: 1
    decay_mult: 1
  }
  param {
    lr_mult: 2
    decay_mult: 0
  }
  convolution_param {
    num_output: 32
    kernel_size: 1
    weight_filler {
      type: "xavier"
      std: 0.2
    }
    bias_filler {
      type: "constant"
      value: 0.2
    }
  }
}
layer {
  name: "inception_4e/relu_5x5_reduce"
  type: "ReLU"
  bottom: "inception_4e/5x5_reduce"
  top: "inception_4e/5x5_reduce"
}
layer {
  name: "inception_4e/5x5"
  type: "Convolution"
  bottom: "inception_4e/5x5_reduce"
  top: "inception_4e/
I0403 21:45:50.693959 24139 layer_factory.hpp:77] Creating layer data
I0403 21:45:50.694553 24139 net.cpp:91] Creating Layer data
I0403 21:45:50.694587 24139 net.cpp:399] data -> data
I0403 21:45:50.694640 24139 net.cpp:399] data -> label
I0403 21:45:50.694679 24139 data_transformer.cpp:25] Loading mean file from: /home/mohanty/data/final_dataset/lmdb/segmented-80-20/mean.binaryproto
I0403 21:45:50.695852 24143 db_lmdb.cpp:38] Opened lmdb /home/mohanty/data/final_dataset/lmdb/segmented-80-20/test_db
I0403 21:45:50.707309 24139 data_layer.cpp:41] output data size: 24,3,224,224
I0403 21:45:50.734474 24139 net.cpp:141] Setting up data
I0403 21:45:50.734567 24139 net.cpp:148] Top shape: 24 3 224 224 (3612672)
I0403 21:45:50.734591 24139 net.cpp:148] Top shape: 24 (24)
I0403 21:45:50.734606 24139 net.cpp:156] Memory required for data: 14450784
I0403 21:45:50.734635 24139 layer_factory.hpp:77] Creating layer label_data_1_split
I0403 21:45:50.734663 24139 net.cpp:91] Creating Layer label_data_1_split
I0403 21:45:50.734683 24139 net.cpp:425] label_data_1_split <- label
I0403 21:45:50.734717 24139 net.cpp:399] label_data_1_split -> label_data_1_split_0
I0403 21:45:50.734746 24139 net.cpp:399] label_data_1_split -> label_data_1_split_1
I0403 21:45:50.734768 24139 net.cpp:399] label_data_1_split -> label_data_1_split_2
I0403 21:45:50.734791 24139 net.cpp:399] label_data_1_split -> label_data_1_split_3
I0403 21:45:50.734812 24139 net.cpp:399] label_data_1_split -> label_data_1_split_4
I0403 21:45:50.734833 24139 net.cpp:399] label_data_1_split -> label_data_1_split_5
I0403 21:45:50.734853 24139 net.cpp:399] label_data_1_split -> label_data_1_split_6
I0403 21:45:50.734874 24139 net.cpp:399] label_data_1_split -> label_data_1_split_7
I0403 21:45:50.734894 24139 net.cpp:399] label_data_1_split -> label_data_1_split_8
I0403 21:45:50.734916 24139 net.cpp:399] label_data_1_split -> label_data_1_split_9
I0403 21:45:50.735030 24139 net.cpp:141] Setting up label_data_1_split
I0403 21:45:50.735055 24139 net.cpp:148] Top shape: 24 (24)
I0403 21:45:50.735074 24139 net.cpp:148] Top shape: 24 (24)
I0403 21:45:50.735091 24139 net.cpp:148] Top shape: 24 (24)
I0403 21:45:50.735108 24139 net.cpp:148] Top shape: 24 (24)
I0403 21:45:50.735126 24139 net.cpp:148] Top shape: 24 (24)
I0403 21:45:50.735141 24139 net.cpp:148] Top shape: 24 (24)
I0403 21:45:50.735158 24139 net.cpp:148] Top shape: 24 (24)
I0403 21:45:50.735175 24139 net.cpp:148] Top shape: 24 (24)
I0403 21:45:50.735193 24139 net.cpp:148] Top shape: 24 (24)
I0403 21:45:50.735215 24139 net.cpp:148] Top shape: 24 (24)
I0403 21:45:50.735250 24139 net.cpp:156] Memory required for data: 14451744
I0403 21:45:50.735267 24139 layer_factory.hpp:77] Creating layer conv1/7x7_s2
I0403 21:45:50.735301 24139 net.cpp:91] Creating Layer conv1/7x7_s2
I0403 21:45:50.735321 24139 net.cpp:425] conv1/7x7_s2 <- data
I0403 21:45:50.735342 24139 net.cpp:399] conv1/7x7_s2 -> conv1/7x7_s2
I0403 21:45:50.876632 24139 net.cpp:141] Setting up conv1/7x7_s2
I0403 21:45:50.876713 24139 net.cpp:148] Top shape: 24 64 112 112 (19267584)
I0403 21:45:50.876730 24139 net.cpp:156] Memory required for data: 91522080
I0403 21:45:50.876762 24139 layer_factory.hpp:77] Creating layer conv1/relu_7x7
I0403 21:45:50.876791 24139 net.cpp:91] Creating Layer conv1/relu_7x7
I0403 21:45:50.876811 24139 net.cpp:425] conv1/relu_7x7 <- conv1/7x7_s2
I0403 21:45:50.876829 24139 net.cpp:386] conv1/relu_7x7 -> conv1/7x7_s2 (in-place)
I0403 21:45:50.877076 24139 net.cpp:141] Setting up conv1/relu_7x7
I0403 21:45:50.877104 24139 net.cpp:148] Top shape: 24 64 112 112 (19267584)
I0403 21:45:50.877120 24139 net.cpp:156] Memory required for data: 168592416
I0403 21:45:50.877135 24139 layer_factory.hpp:77] Creating layer pool1/3x3_s2
I0403 21:45:50.877161 24139 net.cpp:91] Creating Layer pool1/3x3_s2
I0403 21:45:50.877190 24139 net.cpp:425] pool1/3x3_s2 <- conv1/7x7_s2
I0403 21:45:50.877215 24139 net.cpp:399] pool1/3x3_s2 -> pool1/3x3_s2
I0403 21:45:50.877291 24139 net.cpp:141] Setting up pool1/3x3_s2
I0403 21:45:50.877316 24139 net.cpp:148] Top shape: 24 64 56 56 (4816896)
I0403 21:45:50.877332 24139 net.cpp:156] Memory required for data: 187860000
I0403 21:45:50.877348 24139 layer_factory.hpp:77] Creating layer pool1/norm1
I0403 21:45:50.877373 24139 net.cpp:91] Creating Layer pool1/norm1
I0403 21:45:50.877393 24139 net.cpp:425] pool1/norm1 <- pool1/3x3_s2
I0403 21:45:50.877410 24139 net.cpp:399] pool1/norm1 -> pool1/norm1
I0403 21:45:50.877681 24139 net.cpp:141] Setting up pool1/norm1
I0403 21:45:50.877708 24139 net.cpp:148] Top shape: 24 64 56 56 (4816896)
I0403 21:45:50.877724 24139 net.cpp:156] Memory required for data: 207127584
I0403 21:45:50.877739 24139 layer_factory.hpp:77] Creating layer conv2/3x3_reduce
I0403 21:45:50.877764 24139 net.cpp:91] Creating Layer conv2/3x3_reduce
I0403 21:45:50.877781 24139 net.cpp:425] conv2/3x3_reduce <- pool1/norm1
I0403 21:45:50.877800 24139 net.cpp:399] conv2/3x3_reduce -> conv2/3x3_reduce
I0403 21:45:50.879106 24139 net.cpp:141] Setting up conv2/3x3_reduce
I0403 21:45:50.879135 24139 net.cpp:148] Top shape: 24 64 56 56 (4816896)
I0403 21:45:50.879153 24139 net.cpp:156] Memory required for data: 226395168
I0403 21:45:50.879175 24139 layer_factory.hpp:77] Creating layer conv2/relu_3x3_reduce
I0403 21:45:50.879194 24139 net.cpp:91] Creating Layer conv2/relu_3x3_reduce
I0403 21:45:50.879217 24139 net.cpp:425] conv2/relu_3x3_reduce <- conv2/3x3_reduce
I0403 21:45:50.879235 24139 net.cpp:386] conv2/relu_3x3_reduce -> conv2/3x3_reduce (in-place)
I0403 21:45:50.879474 24139 net.cpp:141] Setting up conv2/relu_3x3_reduce
I0403 21:45:50.879500 24139 net.cpp:148] Top shape: 24 64 56 56 (4816896)
I0403 21:45:50.879516 24139 net.cpp:156] Memory required for data: 245662752
I0403 21:45:50.879534 24139 layer_factory.hpp:77] Creating layer conv2/3x3
I0403 21:45:50.879555 24139 net.cpp:91] Creating Layer conv2/3x3
I0403 21:45:50.879575 24139 net.cpp:425] conv2/3x3 <- conv2/3x3_reduce
I0403 21:45:50.879593 24139 net.cpp:399] conv2/3x3 -> conv2/3x3
I0403 21:45:50.881743 24139 net.cpp:141] Setting up conv2/3x3
I0403 21:45:50.881773 24139 net.cpp:148] Top shape: 24 192 56 56 (14450688)
I0403 21:45:50.881791 24139 net.cpp:156] Memory required for data: 303465504
I0403 21:45:50.881814 24139 layer_factory.hpp:77] Creating layer conv2/relu_3x3
I0403 21:45:50.881834 24139 net.cpp:91] Creating Layer conv2/relu_3x3
I0403 21:45:50.881850 24139 net.cpp:425] conv2/relu_3x3 <- conv2/3x3
I0403 21:45:50.881868 24139 net.cpp:386] conv2/relu_3x3 -> conv2/3x3 (in-place)
I0403 21:45:50.882019 24139 net.cpp:141] Setting up conv2/relu_3x3
I0403 21:45:50.882045 24139 net.cpp:148] Top shape: 24 192 56 56 (14450688)
I0403 21:45:50.882091 24139 net.cpp:156] Memory required for data: 361268256
I0403 21:45:50.882108 24139 layer_factory.hpp:77] Creating layer conv2/norm2
I0403 21:45:50.882128 24139 net.cpp:91] Creating Layer conv2/norm2
I0403 21:45:50.882143 24139 net.cpp:425] conv2/norm2 <- conv2/3x3
I0403 21:45:50.882163 24139 net.cpp:399] conv2/norm2 -> conv2/norm2
I0403 21:45:50.882447 24139 net.cpp:141] Setting up conv2/norm2
I0403 21:45:50.882483 24139 net.cpp:148] Top shape: 24 192 56 56 (14450688)
I0403 21:45:50.882498 24139 net.cpp:156] Memory required for data: 419071008
I0403 21:45:50.882513 24139 layer_factory.hpp:77] Creating layer pool2/3x3_s2
I0403 21:45:50.882531 24139 net.cpp:91] Creating Layer pool2/3x3_s2
I0403 21:45:50.882549 24139 net.cpp:425] pool2/3x3_s2 <- conv2/norm2
I0403 21:45:50.882566 24139 net.cpp:399] pool2/3x3_s2 -> pool2/3x3_s2
I0403 21:45:50.882614 24139 net.cpp:141] Setting up pool2/3x3_s2
I0403 21:45:50.882638 24139 net.cpp:148] Top shape: 24 192 28 28 (3612672)
I0403 21:45:50.882653 24139 net.cpp:156] Memory required for data: 433521696
I0403 21:45:50.882670 24139 layer_factory.hpp:77] Creating layer pool2/3x3_s2_pool2/3x3_s2_0_split
I0403 21:45:50.882688 24139 net.cpp:91] Creating Layer pool2/3x3_s2_pool2/3x3_s2_0_split
I0403 21:45:50.882704 24139 net.cpp:425] pool2/3x3_s2_pool2/3x3_s2_0_split <- pool2/3x3_s2
I0403 21:45:50.882724 24139 net.cpp:399] pool2/3x3_s2_pool2/3x3_s2_0_split -> pool2/3x3_s2_pool2/3x3_s2_0_split_0
I0403 21:45:50.882745 24139 net.cpp:399] pool2/3x3_s2_pool2/3x3_s2_0_split -> pool2/3x3_s2_pool2/3x3_s2_0_split_1
I0403 21:45:50.882764 24139 net.cpp:399] pool2/3x3_s2_pool2/3x3_s2_0_split -> pool2/3x3_s2_pool2/3x3_s2_0_split_2
I0403 21:45:50.882784 24139 net.cpp:399] pool2/3x3_s2_pool2/3x3_s2_0_split -> pool2/3x3_s2_pool2/3x3_s2_0_split_3
I0403 21:45:50.882845 24139 net.cpp:141] Setting up pool2/3x3_s2_pool2/3x3_s2_0_split
I0403 21:45:50.882869 24139 net.cpp:148] Top shape: 24 192 28 28 (3612672)
I0403 21:45:50.882885 24139 net.cpp:148] Top shape: 24 192 28 28 (3612672)
I0403 21:45:50.882902 24139 net.cpp:148] Top shape: 24 192 28 28 (3612672)
I0403 21:45:50.882918 24139 net.cpp:148] Top shape: 24 192 28 28 (3612672)
I0403 21:45:50.882932 24139 net.cpp:156] Memory required for data: 491324448
I0403 21:45:50.882948 24139 layer_factory.hpp:77] Creating layer inception_3a/1x1
I0403 21:45:50.882968 24139 net.cpp:91] Creating Layer inception_3a/1x1
I0403 21:45:50.882985 24139 net.cpp:425] inception_3a/1x1 <- pool2/3x3_s2_pool2/3x3_s2_0_split_0
I0403 21:45:50.883005 24139 net.cpp:399] inception_3a/1x1 -> inception_3a/1x1
I0403 21:45:50.884482 24139 net.cpp:141] Setting up inception_3a/1x1
I0403 21:45:50.884512 24139 net.cpp:148] Top shape: 24 64 28 28 (1204224)
I0403 21:45:50.884529 24139 net.cpp:156] Memory required for data: 496141344
I0403 21:45:50.884548 24139 layer_factory.hpp:77] Creating layer inception_3a/relu_1x1
I0403 21:45:50.884567 24139 net.cpp:91] Creating Layer inception_3a/relu_1x1
I0403 21:45:50.884583 24139 net.cpp:425] inception_3a/relu_1x1 <- inception_3a/1x1
I0403 21:45:50.884606 24139 net.cpp:386] inception_3a/relu_1x1 -> inception_3a/1x1 (in-place)
I0403 21:45:50.884770 24139 net.cpp:141] Setting up inception_3a/relu_1x1
I0403 21:45:50.884796 24139 net.cpp:148] Top shape: 24 64 28 28 (1204224)
I0403 21:45:50.884812 24139 net.cpp:156] Memory required for data: 500958240
I0403 21:45:50.884829 24139 layer_factory.hpp:77] Creating layer inception_3a/3x3_reduce
I0403 21:45:50.884852 24139 net.cpp:91] Creating Layer inception_3a/3x3_reduce
I0403 21:45:50.884871 24139 net.cpp:425] inception_3a/3x3_reduce <- pool2/3x3_s2_pool2/3x3_s2_0_split_1
I0403 21:45:50.884896 24139 net.cpp:399] inception_3a/3x3_reduce -> inception_3a/3x3_reduce
I0403 21:45:50.886548 24139 net.cpp:141] Setting up inception_3a/3x3_reduce
I0403 21:45:50.886579 24139 net.cpp:148] Top shape: 24 96 28 28 (1806336)
I0403 21:45:50.886595 24139 net.cpp:156] Memory required for data: 508183584
I0403 21:45:50.886617 24139 layer_factory.hpp:77] Creating layer inception_3a/relu_3x3_reduce
I0403 21:45:50.886654 24139 net.cpp:91] Creating Layer inception_3a/relu_3x3_reduce
I0403 21:45:50.886673 24139 net.cpp:425] inception_3a/relu_3x3_reduce <- inception_3a/3x3_reduce
I0403 21:45:50.886693 24139 net.cpp:386] inception_3a/relu_3x3_reduce -> inception_3a/3x3_reduce (in-place)
I0403 21:45:50.886867 24139 net.cpp:141] Setting up inception_3a/relu_3x3_reduce
I0403 21:45:50.886893 24139 net.cpp:148] Top shape: 24 96 28 28 (1806336)
I0403 21:45:50.886910 24139 net.cpp:156] Memory required for data: 515408928
I0403 21:45:50.886926 24139 layer_factory.hpp:77] Creating layer inception_3a/3x3
I0403 21:45:50.886950 24139 net.cpp:91] Creating Layer inception_3a/3x3
I0403 21:45:50.886970 24139 net.cpp:425] inception_3a/3x3 <- inception_3a/3x3_reduce
I0403 21:45:50.886988 24139 net.cpp:399] inception_3a/3x3 -> inception_3a/3x3
I0403 21:45:50.888588 24139 net.cpp:141] Setting up inception_3a/3x3
I0403 21:45:50.888617 24139 net.cpp:148] Top shape: 24 128 28 28 (2408448)
I0403 21:45:50.888633 24139 net.cpp:156] Memory required for data: 525042720
I0403 21:45:50.888653 24139 layer_factory.hpp:77] Creating layer inception_3a/relu_3x3
I0403 21:45:50.888675 24139 net.cpp:91] Creating Layer inception_3a/relu_3x3
I0403 21:45:50.888695 24139 net.cpp:425] inception_3a/relu_3x3 <- inception_3a/3x3
I0403 21:45:50.888712 24139 net.cpp:386] inception_3a/relu_3x3 -> inception_3a/3x3 (in-place)
I0403 21:45:50.888981 24139 net.cpp:141] Setting up inception_3a/relu_3x3
I0403 21:45:50.889008 24139 net.cpp:148] Top shape: 24 128 28 28 (2408448)
I0403 21:45:50.889024 24139 net.cpp:156] Memory required for data: 534676512
I0403 21:45:50.889040 24139 layer_factory.hpp:77] Creating layer inception_3a/5x5_reduce
I0403 21:45:50.889063 24139 net.cpp:91] Creating Layer inception_3a/5x5_reduce
I0403 21:45:50.889081 24139 net.cpp:425] inception_3a/5x5_reduce <- pool2/3x3_s2_pool2/3x3_s2_0_split_2
I0403 21:45:50.889103 24139 net.cpp:399] inception_3a/5x5_reduce -> inception_3a/5x5_reduce
I0403 21:45:50.890050 24139 net.cpp:141] Setting up inception_3a/5x5_reduce
I0403 21:45:50.890079 24139 net.cpp:148] Top shape: 24 16 28 28 (301056)
I0403 21:45:50.890096 24139 net.cpp:156] Memory required for data: 535880736
I0403 21:45:50.890116 24139 layer_factory.hpp:77] Creating layer inception_3a/relu_5x5_reduce
I0403 21:45:50.890137 24139 net.cpp:91] Creating Layer inception_3a/relu_5x5_reduce
I0403 21:45:50.890156 24139 net.cpp:425] inception_3a/relu_5x5_reduce <- inception_3a/5x5_reduce
I0403 21:45:50.890175 24139 net.cpp:386] inception_3a/relu_5x5_reduce -> inception_3a/5x5_reduce (in-place)
I0403 21:45:50.890496 24139 net.cpp:141] Setting up inception_3a/relu_5x5_reduce
I0403 21:45:50.890523 24139 net.cpp:148] Top shape: 24 16 28 28 (301056)
I0403 21:45:50.890539 24139 net.cpp:156] Memory required for data: 537084960
I0403 21:45:50.890555 24139 layer_factory.hpp:77] Creating layer inception_3a/5x5
I0403 21:45:50.890580 24139 net.cpp:91] Creating Layer inception_3a/5x5
I0403 21:45:50.890599 24139 net.cpp:425] inception_3a/5x5 <- inception_3a/5x5_reduce
I0403 21:45:50.890619 24139 net.cpp:399] inception_3a/5x5 -> inception_3a/5x5
I0403 21:45:50.891599 24139 net.cpp:141] Setting up inception_3a/5x5
I0403 21:45:50.891626 24139 net.cpp:148] Top shape: 24 32 28 28 (602112)
I0403 21:45:50.891644 24139 net.cpp:156] Memory required for data: 539493408
I0403 21:45:50.891664 24139 layer_factory.hpp:77] Creating layer inception_3a/relu_5x5
I0403 21:45:50.891681 24139 net.cpp:91] Creating Layer inception_3a/relu_5x5
I0403 21:45:50.891700 24139 net.cpp:425] inception_3a/relu_5x5 <- inception_3a/5x5
I0403 21:45:50.891719 24139 net.cpp:386] inception_3a/relu_5x5 -> inception_3a/5x5 (in-place)
I0403 21:45:50.891887 24139 net.cpp:141] Setting up inception_3a/relu_5x5
I0403 21:45:50.891913 24139 net.cpp:148] Top shape: 24 32 28 28 (602112)
I0403 21:45:50.891930 24139 net.cpp:156] Memory required for data: 541901856
I0403 21:45:50.891947 24139 layer_factory.hpp:77] Creating layer inception_3a/pool
I0403 21:45:50.891968 24139 net.cpp:91] Creating Layer inception_3a/pool
I0403 21:45:50.891999 24139 net.cpp:425] inception_3a/pool <- pool2/3x3_s2_pool2/3x3_s2_0_split_3
I0403 21:45:50.892019 24139 net.cpp:399] inception_3a/pool -> inception_3a/pool
I0403 21:45:50.892077 24139 net.cpp:141] Setting up inception_3a/pool
I0403 21:45:50.892102 24139 net.cpp:148] Top shape: 24 192 28 28 (3612672)
I0403 21:45:50.892117 24139 net.cpp:156] Memory required for data: 556352544
I0403 21:45:50.892132 24139 layer_factory.hpp:77] Creating layer inception_3a/pool_proj
I0403 21:45:50.892154 24139 net.cpp:91] Creating Layer inception_3a/pool_proj
I0403 21:45:50.892173 24139 net.cpp:425] inception_3a/pool_proj <- inception_3a/pool
I0403 21:45:50.892194 24139 net.cpp:399] inception_3a/pool_proj -> inception_3a/pool_proj
I0403 21:45:50.893137 24139 net.cpp:141] Setting up inception_3a/pool_proj
I0403 21:45:50.893168 24139 net.cpp:148] Top shape: 24 32 28 28 (602112)
I0403 21:45:50.893185 24139 net.cpp:156] Memory required for data: 558760992
I0403 21:45:50.893211 24139 layer_factory.hpp:77] Creating layer inception_3a/relu_pool_proj
I0403 21:45:50.893235 24139 net.cpp:91] Creating Layer inception_3a/relu_pool_proj
I0403 21:45:50.893254 24139 net.cpp:425] inception_3a/relu_pool_proj <- inception_3a/pool_proj
I0403 21:45:50.893272 24139 net.cpp:386] inception_3a/relu_pool_proj -> inception_3a/pool_proj (in-place)
I0403 21:45:50.893537 24139 net.cpp:141] Setting up inception_3a/relu_pool_proj
I0403 21:45:50.893563 24139 net.cpp:148] Top shape: 24 32 28 28 (602112)
I0403 21:45:50.893579 24139 net.cpp:156] Memory required for data: 561169440
I0403 21:45:50.893595 24139 layer_factory.hpp:77] Creating layer inception_3a/output
I0403 21:45:50.893613 24139 net.cpp:91] Creating Layer inception_3a/output
I0403 21:45:50.893630 24139 net.cpp:425] inception_3a/output <- inception_3a/1x1
I0403 21:45:50.893648 24139 net.cpp:425] inception_3a/output <- inception_3a/3x3
I0403 21:45:50.893664 24139 net.cpp:425] inception_3a/output <- inception_3a/5x5
I0403 21:45:50.893681 24139 net.cpp:425] inception_3a/output <- inception_3a/pool_proj
I0403 21:45:50.893700 24139 net.cpp:399] inception_3a/output -> inception_3a/output
I0403 21:45:50.893748 24139 net.cpp:141] Setting up inception_3a/output
I0403 21:45:50.893772 24139 net.cpp:148] Top shape: 24 256 28 28 (4816896)
I0403 21:45:50.893789 24139 net.cpp:156] Memory required for data: 580437024
I0403 21:45:50.893805 24139 layer_factory.hpp:77] Creating layer inception_3a/output_inception_3a/output_0_split
I0403 21:45:50.893821 24139 net.cpp:91] Creating Layer inception_3a/output_inception_3a/output_0_split
I0403 21:45:50.893837 24139 net.cpp:425] inception_3a/output_inception_3a/output_0_split <- inception_3a/output
I0403 21:45:50.893857 24139 net.cpp:399] inception_3a/output_inception_3a/output_0_split -> inception_3a/output_inception_3a/output_0_split_0
I0403 21:45:50.893878 24139 net.cpp:399] inception_3a/output_inception_3a/output_0_split -> inception_3a/output_inception_3a/output_0_split_1
I0403 21:45:50.893903 24139 net.cpp:399] inception_3a/output_inception_3a/output_0_split -> inception_3a/output_inception_3a/output_0_split_2
I0403 21:45:50.893923 24139 net.cpp:399] inception_3a/output_inception_3a/output_0_split -> inception_3a/output_inception_3a/output_0_split_3
I0403 21:45:50.894001 24139 net.cpp:141] Setting up inception_3a/output_inception_3a/output_0_split
I0403 21:45:50.894026 24139 net.cpp:148] Top shape: 24 256 28 28 (4816896)
I0403 21:45:50.894042 24139 net.cpp:148] Top shape: 24 256 28 28 (4816896)
I0403 21:45:50.894059 24139 net.cpp:148] Top shape: 24 256 28 28 (4816896)
I0403 21:45:50.894075 24139 net.cpp:148] Top shape: 24 256 28 28 (4816896)
I0403 21:45:50.894090 24139 net.cpp:156] Memory required for data: 657507360
I0403 21:45:50.894106 24139 layer_factory.hpp:77] Creating layer inception_3b/1x1
I0403 21:45:50.894129 24139 net.cpp:91] Creating Layer inception_3b/1x1
I0403 21:45:50.894146 24139 net.cpp:425] inception_3b/1x1 <- inception_3a/output_inception_3a/output_0_split_0
I0403 21:45:50.894171 24139 net.cpp:399] inception_3b/1x1 -> inception_3b/1x1
I0403 21:45:50.895269 24139 net.cpp:141] Setting up inception_3b/1x1
I0403 21:45:50.895313 24139 net.cpp:148] Top shape: 24 128 28 28 (2408448)
I0403 21:45:50.895333 24139 net.cpp:156] Memory required for data: 667141152
I0403 21:45:50.895351 24139 layer_factory.hpp:77] Creating layer inception_3b/relu_1x1
I0403 21:45:50.895370 24139 net.cpp:91] Creating Layer inception_3b/relu_1x1
I0403 21:45:50.895387 24139 net.cpp:425] inception_3b/relu_1x1 <- inception_3b/1x1
I0403 21:45:50.895409 24139 net.cpp:386] inception_3b/relu_1x1 -> inception_3b/1x1 (in-place)
I0403 21:45:50.895576 24139 net.cpp:141] Setting up inception_3b/relu_1x1
I0403 21:45:50.895601 24139 net.cpp:148] Top shape: 24 128 28 28 (2408448)
I0403 21:45:50.895617 24139 net.cpp:156] Memory required for data: 676774944
I0403 21:45:50.895632 24139 layer_factory.hpp:77] Creating layer inception_3b/3x3_reduce
I0403 21:45:50.895655 24139 net.cpp:91] Creating Layer inception_3b/3x3_reduce
I0403 21:45:50.895673 24139 net.cpp:425] inception_3b/3x3_reduce <- inception_3a/output_inception_3a/output_0_split_1
I0403 21:45:50.895694 24139 net.cpp:399] inception_3b/3x3_reduce -> inception_3b/3x3_reduce
I0403 21:45:50.896793 24139 net.cpp:141] Setting up inception_3b/3x3_reduce
I0403 21:45:50.896821 24139 net.cpp:148] Top shape: 24 128 28 28 (2408448)
I0403 21:45:50.896837 24139 net.cpp:156] Memory required for data: 686408736
I0403 21:45:50.896857 24139 layer_factory.hpp:77] Creating layer inception_3b/relu_3x3_reduce
I0403 21:45:50.896875 24139 net.cpp:91] Creating Layer inception_3b/relu_3x3_reduce
I0403 21:45:50.896893 24139 net.cpp:425] inception_3b/relu_3x3_reduce <- inception_3b/3x3_reduce
I0403 21:45:50.896914 24139 net.cpp:386] inception_3b/relu_3x3_reduce -> inception_3b/3x3_reduce (in-place)
I0403 21:45:50.897080 24139 net.cpp:141] Setting up inception_3b/relu_3x3_reduce
I0403 21:45:50.897105 24139 net.cpp:148] Top shape: 24 128 28 28 (2408448)
I0403 21:45:50.897121 24139 net.cpp:156] Memory required for data: 696042528
I0403 21:45:50.897136 24139 layer_factory.hpp:77] Creating layer inception_3b/3x3
I0403 21:45:50.897163 24139 net.cpp:91] Creating Layer inception_3b/3x3
I0403 21:45:50.897182 24139 net.cpp:425] inception_3b/3x3 <- inception_3b/3x3_reduce
I0403 21:45:50.897207 24139 net.cpp:399] inception_3b/3x3 -> inception_3b/3x3
I0403 21:45:50.900043 24139 net.cpp:141] Setting up inception_3b/3x3
I0403 21:45:50.900070 24139 net.cpp:148] Top shape: 24 192 28 28 (3612672)
I0403 21:45:50.900087 24139 net.cpp:156] Memory required for data: 710493216
I0403 21:45:50.900107 24139 layer_factory.hpp:77] Creating layer inception_3b/relu_3x3
I0403 21:45:50.900128 24139 net.cpp:91] Creating Layer inception_3b/relu_3x3
I0403 21:45:50.900146 24139 net.cpp:425] inception_3b/relu_3x3 <- inception_3b/3x3
I0403 21:45:50.900166 24139 net.cpp:386] inception_3b/relu_3x3 -> inception_3b/3x3 (in-place)
I0403 21:45:50.900434 24139 net.cpp:141] Setting up inception_3b/relu_3x3
I0403 21:45:50.900460 24139 net.cpp:148] Top shape: 24 192 28 28 (3612672)
I0403 21:45:50.900476 24139 net.cpp:156] Memory required for data: 724943904
I0403 21:45:50.900493 24139 layer_factory.hpp:77] Creating layer inception_3b/5x5_reduce
I0403 21:45:50.900517 24139 net.cpp:91] Creating Layer inception_3b/5x5_reduce
I0403 21:45:50.900537 24139 net.cpp:425] inception_3b/5x5_reduce <- inception_3a/output_inception_3a/output_0_split_2
I0403 21:45:50.900558 24139 net.cpp:399] inception_3b/5x5_reduce -> inception_3b/5x5_reduce
I0403 21:45:50.901516 24139 net.cpp:141] Setting up inception_3b/5x5_reduce
I0403 21:45:50.901546 24139 net.cpp:148] Top shape: 24 32 28 28 (602112)
I0403 21:45:50.901562 24139 net.cpp:156] Memory required for data: 727352352
I0403 21:45:50.901582 24139 layer_factory.hpp:77] Creating layer inception_3b/relu_5x5_reduce
I0403 21:45:50.901603 24139 net.cpp:91] Creating Layer inception_3b/relu_5x5_reduce
I0403 21:45:50.901620 24139 net.cpp:425] inception_3b/relu_5x5_reduce <- inception_3b/5x5_reduce
I0403 21:45:50.901638 24139 net.cpp:386] inception_3b/relu_5x5_reduce -> inception_3b/5x5_reduce (in-place)
I0403 21:45:50.901820 24139 net.cpp:141] Setting up inception_3b/relu_5x5_reduce
I0403 21:45:50.901846 24139 net.cpp:148] Top shape: 24 32 28 28 (602112)
I0403 21:45:50.901865 24139 net.cpp:156] Memory required for data: 729760800
I0403 21:45:50.901881 24139 layer_factory.hpp:77] Creating layer inception_3b/5x5
I0403 21:45:50.901901 24139 net.cpp:91] Creating Layer inception_3b/5x5
I0403 21:45:50.901917 24139 net.cpp:425] inception_3b/5x5 <- inception_3b/5x5_reduce
I0403 21:45:50.901942 24139 net.cpp:399] inception_3b/5x5 -> inception_3b/5x5
I0403 21:45:50.903888 24139 net.cpp:141] Setting up inception_3b/5x5
I0403 21:45:50.903918 24139 net.cpp:148] Top shape: 24 96 28 28 (1806336)
I0403 21:45:50.903936 24139 net.cpp:156] Memory required for data: 736986144
I0403 21:45:50.903956 24139 layer_factory.hpp:77] Creating layer inception_3b/relu_5x5
I0403 21:45:50.903975 24139 net.cpp:91] Creating Layer inception_3b/relu_5x5
I0403 21:45:50.903992 24139 net.cpp:425] inception_3b/relu_5x5 <- inception_3b/5x5
I0403 21:45:50.904012 24139 net.cpp:386] inception_3b/relu_5x5 -> inception_3b/5x5 (in-place)
I0403 21:45:50.904201 24139 net.cpp:141] Setting up inception_3b/relu_5x5
I0403 21:45:50.904227 24139 net.cpp:148] Top shape: 24 96 28 28 (1806336)
I0403 21:45:50.904242 24139 net.cpp:156] Memory required for data: 744211488
I0403 21:45:50.904258 24139 layer_factory.hpp:77] Creating layer inception_3b/pool
I0403 21:45:50.904278 24139 net.cpp:91] Creating Layer inception_3b/pool
I0403 21:45:50.904294 24139 net.cpp:425] inception_3b/pool <- inception_3a/output_inception_3a/output_0_split_3
I0403 21:45:50.904314 24139 net.cpp:399] inception_3b/pool -> inception_3b/pool
I0403 21:45:50.904372 24139 net.cpp:141] Setting up inception_3b/pool
I0403 21:45:50.904397 24139 net.cpp:148] Top shape: 24 256 28 28 (4816896)
I0403 21:45:50.904412 24139 net.cpp:156] Memory required for data: 763479072
I0403 21:45:50.904428 24139 layer_factory.hpp:77] Creating layer inception_3b/pool_proj
I0403 21:45:50.904451 24139 net.cpp:91] Creating Layer inception_3b/pool_proj
I0403 21:45:50.904470 24139 net.cpp:425] inception_3b/pool_proj <- inception_3b/pool
I0403 21:45:50.904492 24139 net.cpp:399] inception_3b/pool_proj -> inception_3b/pool_proj
I0403 21:45:50.905509 24139 net.cpp:141] Setting up inception_3b/pool_proj
I0403 21:45:50.905540 24139 net.cpp:148] Top shape: 24 64 28 28 (1204224)
I0403 21:45:50.905557 24139 net.cpp:156] Memory required for data: 768295968
I0403 21:45:50.905576 24139 layer_factory.hpp:77] Creating layer inception_3b/relu_pool_proj
I0403 21:45:50.905596 24139 net.cpp:91] Creating Layer inception_3b/relu_pool_proj
I0403 21:45:50.905612 24139 net.cpp:425] inception_3b/relu_pool_proj <- inception_3b/pool_proj
I0403 21:45:50.905630 24139 net.cpp:386] inception_3b/relu_pool_proj -> inception_3b/pool_proj (in-place)
I0403 21:45:50.906018 24139 net.cpp:141] Setting up inception_3b/relu_pool_proj
I0403 21:45:50.906044 24139 net.cpp:148] Top shape: 24 64 28 28 (1204224)
I0403 21:45:50.906060 24139 net.cpp:156] Memory required for data: 773112864
I0403 21:45:50.906075 24139 layer_factory.hpp:77] Creating layer inception_3b/output
I0403 21:45:50.906096 24139 net.cpp:91] Creating Layer inception_3b/output
I0403 21:45:50.906114 24139 net.cpp:425] inception_3b/output <- inception_3b/1x1
I0403 21:45:50.906132 24139 net.cpp:425] inception_3b/output <- inception_3b/3x3
I0403 21:45:50.906148 24139 net.cpp:425] inception_3b/output <- inception_3b/5x5
I0403 21:45:50.906164 24139 net.cpp:425] inception_3b/output <- inception_3b/pool_proj
I0403 21:45:50.906182 24139 net.cpp:399] inception_3b/output -> inception_3b/output
I0403 21:45:50.906230 24139 net.cpp:141] Setting up inception_3b/output
I0403 21:45:50.906255 24139 net.cpp:148] Top shape: 24 480 28 28 (9031680)
I0403 21:45:50.906270 24139 net.cpp:156] Memory required for data: 809239584
I0403 21:45:50.906286 24139 layer_factory.hpp:77] Creating layer pool3/3x3_s2
I0403 21:45:50.906303 24139 net.cpp:91] Creating Layer pool3/3x3_s2
I0403 21:45:50.906321 24139 net.cpp:425] pool3/3x3_s2 <- inception_3b/output
I0403 21:45:50.906355 24139 net.cpp:399] pool3/3x3_s2 -> pool3/3x3_s2
I0403 21:45:50.906414 24139 net.cpp:141] Setting up pool3/3x3_s2
I0403 21:45:50.906438 24139 net.cpp:148] Top shape: 24 480 14 14 (2257920)
I0403 21:45:50.906453 24139 net.cpp:156] Memory required for data: 818271264
I0403 21:45:50.906477 24139 layer_factory.hpp:77] Creating layer pool3/3x3_s2_pool3/3x3_s2_0_split
I0403 21:45:50.906497 24139 net.cpp:91] Creating Layer pool3/3x3_s2_pool3/3x3_s2_0_split
I0403 21:45:50.906514 24139 net.cpp:425] pool3/3x3_s2_pool3/3x3_s2_0_split <- pool3/3x3_s2
I0403 21:45:50.906535 24139 net.cpp:399] pool3/3x3_s2_pool3/3x3_s2_0_split -> pool3/3x3_s2_pool3/3x3_s2_0_split_0
I0403 21:45:50.906556 24139 net.cpp:399] pool3/3x3_s2_pool3/3x3_s2_0_split -> pool3/3x3_s2_pool3/3x3_s2_0_split_1
I0403 21:45:50.906577 24139 net.cpp:399] pool3/3x3_s2_pool3/3x3_s2_0_split -> pool3/3x3_s2_pool3/3x3_s2_0_split_2
I0403 21:45:50.906597 24139 net.cpp:399] pool3/3x3_s2_pool3/3x3_s2_0_split -> pool3/3x3_s2_pool3/3x3_s2_0_split_3
I0403 21:45:50.906671 24139 net.cpp:141] Setting up pool3/3x3_s2_pool3/3x3_s2_0_split
I0403 21:45:50.906697 24139 net.cpp:148] Top shape: 24 480 14 14 (2257920)
I0403 21:45:50.906714 24139 net.cpp:148] Top shape: 24 480 14 14 (2257920)
I0403 21:45:50.906733 24139 net.cpp:148] Top shape: 24 480 14 14 (2257920)
I0403 21:45:50.906749 24139 net.cpp:148] Top shape: 24 480 14 14 (2257920)
I0403 21:45:50.906764 24139 net.cpp:156] Memory required for data: 854397984
I0403 21:45:50.906779 24139 layer_factory.hpp:77] Creating layer inception_4a/1x1
I0403 21:45:50.906800 24139 net.cpp:91] Creating Layer inception_4a/1x1
I0403 21:45:50.906817 24139 net.cpp:425] inception_4a/1x1 <- pool3/3x3_s2_pool3/3x3_s2_0_split_0
I0403 21:45:50.906839 24139 net.cpp:399] inception_4a/1x1 -> inception_4a/1x1
I0403 21:45:50.908355 24139 net.cpp:141] Setting up inception_4a/1x1
I0403 21:45:50.908386 24139 net.cpp:148] Top shape: 24 192 14 14 (903168)
I0403 21:45:50.908403 24139 net.cpp:156] Memory required for data: 858010656
I0403 21:45:50.908422 24139 layer_factory.hpp:77] Creating layer inception_4a/relu_1x1
I0403 21:45:50.908442 24139 net.cpp:91] Creating Layer inception_4a/relu_1x1
I0403 21:45:50.908459 24139 net.cpp:425] inception_4a/relu_1x1 <- inception_4a/1x1
I0403 21:45:50.908478 24139 net.cpp:386] inception_4a/relu_1x1 -> inception_4a/1x1 (in-place)
I0403 21:45:50.908648 24139 net.cpp:141] Setting up inception_4a/relu_1x1
I0403 21:45:50.908674 24139 net.cpp:148] Top shape: 24 192 14 14 (903168)
I0403 21:45:50.908690 24139 net.cpp:156] Memory required for data: 861623328
I0403 21:45:50.908706 24139 layer_factory.hpp:77] Creating layer inception_4a/3x3_reduce
I0403 21:45:50.908733 24139 net.cpp:91] Creating Layer inception_4a/3x3_reduce
I0403 21:45:50.908752 24139 net.cpp:425] inception_4a/3x3_reduce <- pool3/3x3_s2_pool3/3x3_s2_0_split_1
I0403 21:45:50.908774 24139 net.cpp:399] inception_4a/3x3_reduce -> inception_4a/3x3_reduce
I0403 21:45:50.909991 24139 net.cpp:141] Setting up inception_4a/3x3_reduce
I0403 21:45:50.910020 24139 net.cpp:148] Top shape: 24 96 14 14 (451584)
I0403 21:45:50.910037 24139 net.cpp:156] Memory required for data: 863429664
I0403 21:45:50.910063 24139 layer_factory.hpp:77] Creating layer inception_4a/relu_3x3_reduce
I0403 21:45:50.910084 24139 net.cpp:91] Creating Layer inception_4a/relu_3x3_reduce
I0403 21:45:50.910101 24139 net.cpp:425] inception_4a/relu_3x3_reduce <- inception_4a/3x3_reduce
I0403 21:45:50.910120 24139 net.cpp:386] inception_4a/relu_3x3_reduce -> inception_4a/3x3_reduce (in-place)
I0403 21:45:50.910303 24139 net.cpp:141] Setting up inception_4a/relu_3x3_reduce
I0403 21:45:50.910331 24139 net.cpp:148] Top shape: 24 96 14 14 (451584)
I0403 21:45:50.910346 24139 net.cpp:156] Memory required for data: 865236000
I0403 21:45:50.910362 24139 layer_factory.hpp:77] Creating layer inception_4a/3x3
I0403 21:45:50.910384 24139 net.cpp:91] Creating Layer inception_4a/3x3
I0403 21:45:50.910411 24139 net.cpp:425] inception_4a/3x3 <- inception_4a/3x3_reduce
I0403 21:45:50.910430 24139 net.cpp:399] inception_4a/3x3 -> inception_4a/3x3
I0403 21:45:50.913045 24139 net.cpp:141] Setting up inception_4a/3x3
I0403 21:45:50.913074 24139 net.cpp:148] Top shape: 24 208 14 14 (978432)
I0403 21:45:50.913089 24139 net.cpp:156] Memory required for data: 869149728
I0403 21:45:50.913110 24139 layer_factory.hpp:77] Creating layer inception_4a/relu_3x3
I0403 21:45:50.913130 24139 net.cpp:91] Creating Layer inception_4a/relu_3x3
I0403 21:45:50.913147 24139 net.cpp:425] inception_4a/relu_3x3 <- inception_4a/3x3
I0403 21:45:50.913167 24139 net.cpp:386] inception_4a/relu_3x3 -> inception_4a/3x3 (in-place)
I0403 21:45:50.913442 24139 net.cpp:141] Setting up inception_4a/relu_3x3
I0403 21:45:50.913470 24139 net.cpp:148] Top shape: 24 208 14 14 (978432)
I0403 21:45:50.913486 24139 net.cpp:156] Memory required for data: 873063456
I0403 21:45:50.913502 24139 layer_factory.hpp:77] Creating layer inception_4a/5x5_reduce
I0403 21:45:50.913524 24139 net.cpp:91] Creating Layer inception_4a/5x5_reduce
I0403 21:45:50.913542 24139 net.cpp:425] inception_4a/5x5_reduce <- pool3/3x3_s2_pool3/3x3_s2_0_split_2
I0403 21:45:50.913565 24139 net.cpp:399] inception_4a/5x5_reduce -> inception_4a/5x5_reduce
I0403 21:45:50.914556 24139 net.cpp:141] Setting up inception_4a/5x5_reduce
I0403 21:45:50.914582 24139 net.cpp:148] Top shape: 24 16 14 14 (75264)
I0403 21:45:50.914598 24139 net.cpp:156] Memory required for data: 873364512
I0403 21:45:50.914618 24139 layer_factory.hpp:77] Creating layer inception_4a/relu_5x5_reduce
I0403 21:45:50.914636 24139 net.cpp:91] Creating Layer inception_4a/relu_5x5_reduce
I0403 21:45:50.914654 24139 net.cpp:425] inception_4a/relu_5x5_reduce <- inception_4a/5x5_reduce
I0403 21:45:50.914674 24139 net.cpp:386] inception_4a/relu_5x5_reduce -> inception_4a/5x5_reduce (in-place)
I0403 21:45:50.914846 24139 net.cpp:141] Setting up inception_4a/relu_5x5_reduce
I0403 21:45:50.914871 24139 net.cpp:148] Top shape: 24 16 14 14 (75264)
I0403 21:45:50.914887 24139 net.cpp:156] Memory required for data: 873665568
I0403 21:45:50.914903 24139 layer_factory.hpp:77] Creating layer inception_4a/5x5
I0403 21:45:50.914926 24139 net.cpp:91] Creating Layer inception_4a/5x5
I0403 21:45:50.914943 24139 net.cpp:425] inception_4a/5x5 <- inception_4a/5x5_reduce
I0403 21:45:50.914966 24139 net.cpp:399] inception_4a/5x5 -> inception_4a/5x5
I0403 21:45:50.916009 24139 net.cpp:141] Setting up inception_4a/5x5
I0403 21:45:50.916038 24139 net.cpp:148] Top shape: 24 48 14 14 (225792)
I0403 21:45:50.916054 24139 net.cpp:156] Memory required for data: 874568736
I0403 21:45:50.916074 24139 layer_factory.hpp:77] Creating layer inception_4a/relu_5x5
I0403 21:45:50.916095 24139 net.cpp:91] Creating Layer inception_4a/relu_5x5
I0403 21:45:50.916112 24139 net.cpp:425] inception_4a/relu_5x5 <- inception_4a/5x5
I0403 21:45:50.916131 24139 net.cpp:386] inception_4a/relu_5x5 -> inception_4a/5x5 (in-place)
I0403 21:45:50.916311 24139 net.cpp:141] Setting up inception_4a/relu_5x5
I0403 21:45:50.916337 24139 net.cpp:148] Top shape: 24 48 14 14 (225792)
I0403 21:45:50.916352 24139 net.cpp:156] Memory required for data: 875471904
I0403 21:45:50.916368 24139 layer_factory.hpp:77] Creating layer inception_4a/pool
I0403 21:45:50.916386 24139 net.cpp:91] Creating Layer inception_4a/pool
I0403 21:45:50.916404 24139 net.cpp:425] inception_4a/pool <- pool3/3x3_s2_pool3/3x3_s2_0_split_3
I0403 21:45:50.916425 24139 net.cpp:399] inception_4a/pool -> inception_4a/pool
I0403 21:45:50.916486 24139 net.cpp:141] Setting up inception_4a/pool
I0403 21:45:50.916510 24139 net.cpp:148] Top shape: 24 480 14 14 (2257920)
I0403 21:45:50.916527 24139 net.cpp:156] Memory required for data: 884503584
I0403 21:45:50.916541 24139 layer_factory.hpp:77] Creating layer inception_4a/pool_proj
I0403 21:45:50.916565 24139 net.cpp:91] Creating Layer inception_4a/pool_proj
I0403 21:45:50.916584 24139 net.cpp:425] inception_4a/pool_proj <- inception_4a/pool
I0403 21:45:50.916604 24139 net.cpp:399] inception_4a/pool_proj -> inception_4a/pool_proj
I0403 21:45:50.917718 24139 net.cpp:141] Setting up inception_4a/pool_proj
I0403 21:45:50.917750 24139 net.cpp:148] Top shape: 24 64 14 14 (301056)
I0403 21:45:50.917781 24139 net.cpp:156] Memory required for data: 885707808
I0403 21:45:50.917801 24139 layer_factory.hpp:77] Creating layer inception_4a/relu_pool_proj
I0403 21:45:50.917820 24139 net.cpp:91] Creating Layer inception_4a/relu_pool_proj
I0403 21:45:50.917839 24139 net.cpp:425] inception_4a/relu_pool_proj <- inception_4a/pool_proj
I0403 21:45:50.917860 24139 net.cpp:386] inception_4a/relu_pool_proj -> inception_4a/pool_proj (in-place)
I0403 21:45:50.918135 24139 net.cpp:141] Setting up inception_4a/relu_pool_proj
I0403 21:45:50.918164 24139 net.cpp:148] Top shape: 24 64 14 14 (301056)
I0403 21:45:50.918180 24139 net.cpp:156] Memory required for data: 886912032
I0403 21:45:50.918206 24139 layer_factory.hpp:77] Creating layer inception_4a/output
I0403 21:45:50.918229 24139 net.cpp:91] Creating Layer inception_4a/output
I0403 21:45:50.918247 24139 net.cpp:425] inception_4a/output <- inception_4a/1x1
I0403 21:45:50.918265 24139 net.cpp:425] inception_4a/output <- inception_4a/3x3
I0403 21:45:50.918282 24139 net.cpp:425] inception_4a/output <- inception_4a/5x5
I0403 21:45:50.918299 24139 net.cpp:425] inception_4a/output <- inception_4a/pool_proj
I0403 21:45:50.918316 24139 net.cpp:399] inception_4a/output -> inception_4a/output
I0403 21:45:50.918362 24139 net.cpp:141] Setting up inception_4a/output
I0403 21:45:50.918387 24139 net.cpp:148] Top shape: 24 512 14 14 (2408448)
I0403 21:45:50.918402 24139 net.cpp:156] Memory required for data: 896545824
I0403 21:45:50.918417 24139 layer_factory.hpp:77] Creating layer inception_4a/output_inception_4a/output_0_split
I0403 21:45:50.918436 24139 net.cpp:91] Creating Layer inception_4a/output_inception_4a/output_0_split
I0403 21:45:50.918452 24139 net.cpp:425] inception_4a/output_inception_4a/output_0_split <- inception_4a/output
I0403 21:45:50.918476 24139 net.cpp:399] inception_4a/output_inception_4a/output_0_split -> inception_4a/output_inception_4a/output_0_split_0
I0403 21:45:50.918498 24139 net.cpp:399] inception_4a/output_inception_4a/output_0_split -> inception_4a/output_inception_4a/output_0_split_1
I0403 21:45:50.918519 24139 net.cpp:399] inception_4a/output_inception_4a/output_0_split -> inception_4a/output_inception_4a/output_0_split_2
I0403 21:45:50.918543 24139 net.cpp:399] inception_4a/output_inception_4a/output_0_split -> inception_4a/output_inception_4a/output_0_split_3
I0403 21:45:50.918565 24139 net.cpp:399] inception_4a/output_inception_4a/output_0_split -> inception_4a/output_inception_4a/output_0_split_4
I0403 21:45:50.918654 24139 net.cpp:141] Setting up inception_4a/output_inception_4a/output_0_split
I0403 21:45:50.918678 24139 net.cpp:148] Top shape: 24 512 14 14 (2408448)
I0403 21:45:50.918695 24139 net.cpp:148] Top shape: 24 512 14 14 (2408448)
I0403 21:45:50.918712 24139 net.cpp:148] Top shape: 24 512 14 14 (2408448)
I0403 21:45:50.918728 24139 net.cpp:148] Top shape: 24 512 14 14 (2408448)
I0403 21:45:50.918745 24139 net.cpp:148] Top shape: 24 512 14 14 (2408448)
I0403 21:45:50.918759 24139 net.cpp:156] Memory required for data: 944714784
I0403 21:45:50.918776 24139 layer_factory.hpp:77] Creating layer loss1/ave_pool
I0403 21:45:50.918793 24139 net.cpp:91] Creating Layer loss1/ave_pool
I0403 21:45:50.918810 24139 net.cpp:425] loss1/ave_pool <- inception_4a/output_inception_4a/output_0_split_0
I0403 21:45:50.918831 24139 net.cpp:399] loss1/ave_pool -> loss1/ave_pool
I0403 21:45:50.919031 24139 net.cpp:141] Setting up loss1/ave_pool
I0403 21:45:50.919059 24139 net.cpp:148] Top shape: 24 512 4 4 (196608)
I0403 21:45:50.919076 24139 net.cpp:156] Memory required for data: 945501216
I0403 21:45:50.919092 24139 layer_factory.hpp:77] Creating layer loss1/conv
I0403 21:45:50.919114 24139 net.cpp:91] Creating Layer loss1/conv
I0403 21:45:50.919132 24139 net.cpp:425] loss1/conv <- loss1/ave_pool
I0403 21:45:50.919152 24139 net.cpp:399] loss1/conv -> loss1/conv
I0403 21:45:50.920516 24139 net.cpp:141] Setting up loss1/conv
I0403 21:45:50.920544 24139 net.cpp:148] Top shape: 24 128 4 4 (49152)
I0403 21:45:50.920574 24139 net.cpp:156] Memory required for data: 945697824
I0403 21:45:50.920595 24139 layer_factory.hpp:77] Creating layer loss1/relu_conv
I0403 21:45:50.920615 24139 net.cpp:91] Creating Layer loss1/relu_conv
I0403 21:45:50.920632 24139 net.cpp:425] loss1/relu_conv <- loss1/conv
I0403 21:45:50.920652 24139 net.cpp:386] loss1/relu_conv -> loss1/conv (in-place)
I0403 21:45:50.920927 24139 net.cpp:141] Setting up loss1/relu_conv
I0403 21:45:50.920954 24139 net.cpp:148] Top shape: 24 128 4 4 (49152)
I0403 21:45:50.920970 24139 net.cpp:156] Memory required for data: 945894432
I0403 21:45:50.920987 24139 layer_factory.hpp:77] Creating layer loss1/fc
I0403 21:45:50.921011 24139 net.cpp:91] Creating Layer loss1/fc
I0403 21:45:50.921031 24139 net.cpp:425] loss1/fc <- loss1/conv
I0403 21:45:50.921052 24139 net.cpp:399] loss1/fc -> loss1/fc
I0403 21:45:50.938413 24139 net.cpp:141] Setting up loss1/fc
I0403 21:45:50.938444 24139 net.cpp:148] Top shape: 24 1024 (24576)
I0403 21:45:50.938472 24139 net.cpp:156] Memory required for data: 945992736
I0403 21:45:50.938491 24139 layer_factory.hpp:77] Creating layer loss1/relu_fc
I0403 21:45:50.938510 24139 net.cpp:91] Creating Layer loss1/relu_fc
I0403 21:45:50.938529 24139 net.cpp:425] loss1/relu_fc <- loss1/fc
I0403 21:45:50.938547 24139 net.cpp:386] loss1/relu_fc -> loss1/fc (in-place)
I0403 21:45:50.938730 24139 net.cpp:141] Setting up loss1/relu_fc
I0403 21:45:50.938755 24139 net.cpp:148] Top shape: 24 1024 (24576)
I0403 21:45:50.938771 24139 net.cpp:156] Memory required for data: 946091040
I0403 21:45:50.938787 24139 layer_factory.hpp:77] Creating layer loss1/drop_fc
I0403 21:45:50.938812 24139 net.cpp:91] Creating Layer loss1/drop_fc
I0403 21:45:50.938832 24139 net.cpp:425] loss1/drop_fc <- loss1/fc
I0403 21:45:50.938851 24139 net.cpp:386] loss1/drop_fc -> loss1/fc (in-place)
I0403 21:45:50.938902 24139 net.cpp:141] Setting up loss1/drop_fc
I0403 21:45:50.938926 24139 net.cpp:148] Top shape: 24 1024 (24576)
I0403 21:45:50.938942 24139 net.cpp:156] Memory required for data: 946189344
I0403 21:45:50.938959 24139 layer_factory.hpp:77] Creating layer loss1/classifier_plantvillage
I0403 21:45:50.938982 24139 net.cpp:91] Creating Layer loss1/classifier_plantvillage
I0403 21:45:50.939002 24139 net.cpp:425] loss1/classifier_plantvillage <- loss1/fc
I0403 21:45:50.939020 24139 net.cpp:399] loss1/classifier_plantvillage -> loss1/classifier_plantvillage
I0403 21:45:50.939925 24139 net.cpp:141] Setting up loss1/classifier_plantvillage
I0403 21:45:50.939956 24139 net.cpp:148] Top shape: 24 38 (912)
I0403 21:45:50.939972 24139 net.cpp:156] Memory required for data: 946192992
I0403 21:45:50.939991 24139 layer_factory.hpp:77] Creating layer loss1/classifier_plantvillage_loss1/classifier_plantvillage_0_split
I0403 21:45:50.940011 24139 net.cpp:91] Creating Layer loss1/classifier_plantvillage_loss1/classifier_plantvillage_0_split
I0403 21:45:50.940028 24139 net.cpp:425] loss1/classifier_plantvillage_loss1/classifier_plantvillage_0_split <- loss1/classifier_plantvillage
I0403 21:45:50.940049 24139 net.cpp:399] loss1/classifier_plantvillage_loss1/classifier_plantvillage_0_split -> loss1/classifier_plantvillage_loss1/classifier_plantvillage_0_split_0
I0403 21:45:50.940071 24139 net.cpp:399] loss1/classifier_plantvillage_loss1/classifier_plantvillage_0_split -> loss1/classifier_plantvillage_loss1/classifier_plantvillage_0_split_1
I0403 21:45:50.940094 24139 net.cpp:399] loss1/classifier_plantvillage_loss1/classifier_plantvillage_0_split -> loss1/classifier_plantvillage_loss1/classifier_plantvillage_0_split_2
I0403 21:45:50.940160 24139 net.cpp:141] Setting up loss1/classifier_plantvillage_loss1/classifier_plantvillage_0_split
I0403 21:45:50.940183 24139 net.cpp:148] Top shape: 24 38 (912)
I0403 21:45:50.940203 24139 net.cpp:148] Top shape: 24 38 (912)
I0403 21:45:50.940222 24139 net.cpp:148] Top shape: 24 38 (912)
I0403 21:45:50.940237 24139 net.cpp:156] Memory required for data: 946203936
I0403 21:45:50.940253 24139 layer_factory.hpp:77] Creating layer inception_4b/1x1
I0403 21:45:50.940280 24139 net.cpp:91] Creating Layer inception_4b/1x1
I0403 21:45:50.940315 24139 net.cpp:425] inception_4b/1x1 <- inception_4a/output_inception_4a/output_0_split_1
I0403 21:45:50.940337 24139 net.cpp:399] inception_4b/1x1 -> inception_4b/1x1
I0403 21:45:50.941927 24139 net.cpp:141] Setting up inception_4b/1x1
I0403 21:45:50.941957 24139 net.cpp:148] Top shape: 24 160 14 14 (752640)
I0403 21:45:50.941972 24139 net.cpp:156] Memory required for data: 949214496
I0403 21:45:50.941992 24139 layer_factory.hpp:77] Creating layer inception_4b/relu_1x1
I0403 21:45:50.942011 24139 net.cpp:91] Creating Layer inception_4b/relu_1x1
I0403 21:45:50.942028 24139 net.cpp:425] inception_4b/relu_1x1 <- inception_4b/1x1
I0403 21:45:50.942049 24139 net.cpp:386] inception_4b/relu_1x1 -> inception_4b/1x1 (in-place)
I0403 21:45:50.942229 24139 net.cpp:141] Setting up inception_4b/relu_1x1
I0403 21:45:50.942253 24139 net.cpp:148] Top shape: 24 160 14 14 (752640)
I0403 21:45:50.942268 24139 net.cpp:156] Memory required for data: 952225056
I0403 21:45:50.942283 24139 layer_factory.hpp:77] Creating layer inception_4b/3x3_reduce
I0403 21:45:50.942309 24139 net.cpp:91] Creating Layer inception_4b/3x3_reduce
I0403 21:45:50.942328 24139 net.cpp:425] inception_4b/3x3_reduce <- inception_4a/output_inception_4a/output_0_split_2
I0403 21:45:50.942353 24139 net.cpp:399] inception_4b/3x3_reduce -> inception_4b/3x3_reduce
I0403 21:45:50.943660 24139 net.cpp:141] Setting up inception_4b/3x3_reduce
I0403 21:45:50.943687 24139 net.cpp:148] Top shape: 24 112 14 14 (526848)
I0403 21:45:50.943703 24139 net.cpp:156] Memory required for data: 954332448
I0403 21:45:50.943722 24139 layer_factory.hpp:77] Creating layer inception_4b/relu_3x3_reduce
I0403 21:45:50.943745 24139 net.cpp:91] Creating Layer inception_4b/relu_3x3_reduce
I0403 21:45:50.943764 24139 net.cpp:425] inception_4b/relu_3x3_reduce <- inception_4b/3x3_reduce
I0403 21:45:50.943783 24139 net.cpp:386] inception_4b/relu_3x3_reduce -> inception_4b/3x3_reduce (in-place)
I0403 21:45:50.944056 24139 net.cpp:141] Setting up inception_4b/relu_3x3_reduce
I0403 21:45:50.944083 24139 net.cpp:148] Top shape: 24 112 14 14 (526848)
I0403 21:45:50.944099 24139 net.cpp:156] Memory required for data: 956439840
I0403 21:45:50.944114 24139 layer_factory.hpp:77] Creating layer inception_4b/3x3
I0403 21:45:50.944139 24139 net.cpp:91] Creating Layer inception_4b/3x3
I0403 21:45:50.944156 24139 net.cpp:425] inception_4b/3x3 <- inception_4b/3x3_reduce
I0403 21:45:50.944178 24139 net.cpp:399] inception_4b/3x3 -> inception_4b/3x3
I0403 21:45:50.947079 24139 net.cpp:141] Setting up inception_4b/3x3
I0403 21:45:50.947110 24139 net.cpp:148] Top shape: 24 224 14 14 (1053696)
I0403 21:45:50.947127 24139 net.cpp:156] Memory required for data: 960654624
I0403 21:45:50.947147 24139 layer_factory.hpp:77] Creating layer inception_4b/relu_3x3
I0403 21:45:50.947165 24139 net.cpp:91] Creating Layer inception_4b/relu_3x3
I0403 21:45:50.947183 24139 net.cpp:425] inception_4b/relu_3x3 <- inception_4b/3x3
I0403 21:45:50.947206 24139 net.cpp:386] inception_4b/relu_3x3 -> inception_4b/3x3 (in-place)
I0403 21:45:50.947387 24139 net.cpp:141] Setting up inception_4b/relu_3x3
I0403 21:45:50.947412 24139 net.cpp:148] Top shape: 24 224 14 14 (1053696)
I0403 21:45:50.947428 24139 net.cpp:156] Memory required for data: 964869408
I0403 21:45:50.947444 24139 layer_factory.hpp:77] Creating layer inception_4b/5x5_reduce
I0403 21:45:50.947468 24139 net.cpp:91] Creating Layer inception_4b/5x5_reduce
I0403 21:45:50.947486 24139 net.cpp:425] inception_4b/5x5_reduce <- inception_4a/output_inception_4a/output_0_split_3
I0403 21:45:50.947509 24139 net.cpp:399] inception_4b/5x5_reduce -> inception_4b/5x5_reduce
I0403 21:45:50.948568 24139 net.cpp:141] Setting up inception_4b/5x5_reduce
I0403 21:45:50.948596 24139 net.cpp:148] Top shape: 24 24 14 14 (112896)
I0403 21:45:50.948612 24139 net.cpp:156] Memory required for data: 965320992
I0403 21:45:50.948632 24139 layer_factory.hpp:77] Creating layer inception_4b/relu_5x5_reduce
I0403 21:45:50.948654 24139 net.cpp:91] Creating Layer inception_4b/relu_5x5_reduce
I0403 21:45:50.948686 24139 net.cpp:425] inception_4b/relu_5x5_reduce <- inception_4b/5x5_reduce
I0403 21:45:50.948706 24139 net.cpp:386] inception_4b/relu_5x5_reduce -> inception_4b/5x5_reduce (in-place)
I0403 21:45:50.948886 24139 net.cpp:141] Setting up inception_4b/relu_5x5_reduce
I0403 21:45:50.948911 24139 net.cpp:148] Top shape: 24 24 14 14 (112896)
I0403 21:45:50.948927 24139 net.cpp:156] Memory required for data: 965772576
I0403 21:45:50.948945 24139 layer_factory.hpp:77] Creating layer inception_4b/5x5
I0403 21:45:50.948968 24139 net.cpp:91] Creating Layer inception_4b/5x5
I0403 21:45:50.948987 24139 net.cpp:425] inception_4b/5x5 <- inception_4b/5x5_reduce
I0403 21:45:50.949007 24139 net.cpp:399] inception_4b/5x5 -> inception_4b/5x5
I0403 21:45:50.950211 24139 net.cpp:141] Setting up inception_4b/5x5
I0403 21:45:50.950239 24139 net.cpp:148] Top shape: 24 64 14 14 (301056)
I0403 21:45:50.950256 24139 net.cpp:156] Memory required for data: 966976800
I0403 21:45:50.950275 24139 layer_factory.hpp:77] Creating layer inception_4b/relu_5x5
I0403 21:45:50.950294 24139 net.cpp:91] Creating Layer inception_4b/relu_5x5
I0403 21:45:50.950310 24139 net.cpp:425] inception_4b/relu_5x5 <- inception_4b/5x5
I0403 21:45:50.950330 24139 net.cpp:386] inception_4b/relu_5x5 -> inception_4b/5x5 (in-place)
I0403 21:45:50.950613 24139 net.cpp:141] Setting up inception_4b/relu_5x5
I0403 21:45:50.950640 24139 net.cpp:148] Top shape: 24 64 14 14 (301056)
I0403 21:45:50.950657 24139 net.cpp:156] Memory required for data: 968181024
I0403 21:45:50.950672 24139 layer_factory.hpp:77] Creating layer inception_4b/pool
I0403 21:45:50.950691 24139 net.cpp:91] Creating Layer inception_4b/pool
I0403 21:45:50.950709 24139 net.cpp:425] inception_4b/pool <- inception_4a/output_inception_4a/output_0_split_4
I0403 21:45:50.950729 24139 net.cpp:399] inception_4b/pool -> inception_4b/pool
I0403 21:45:50.950794 24139 net.cpp:141] Setting up inception_4b/pool
I0403 21:45:50.950819 24139 net.cpp:148] Top shape: 24 512 14 14 (2408448)
I0403 21:45:50.950834 24139 net.cpp:156] Memory required for data: 977814816
I0403 21:45:50.950850 24139 layer_factory.hpp:77] Creating layer inception_4b/pool_proj
I0403 21:45:50.950875 24139 net.cpp:91] Creating Layer inception_4b/pool_proj
I0403 21:45:50.950892 24139 net.cpp:425] inception_4b/pool_proj <- inception_4b/pool
I0403 21:45:50.950912 24139 net.cpp:399] inception_4b/pool_proj -> inception_4b/pool_proj
I0403 21:45:50.952086 24139 net.cpp:141] Setting up inception_4b/pool_proj
I0403 21:45:50.952114 24139 net.cpp:148] Top shape: 24 64 14 14 (301056)
I0403 21:45:50.952131 24139 net.cpp:156] Memory required for data: 979019040
I0403 21:45:50.952149 24139 layer_factory.hpp:77] Creating layer inception_4b/relu_pool_proj
I0403 21:45:50.952170 24139 net.cpp:91] Creating Layer inception_4b/relu_pool_proj
I0403 21:45:50.952188 24139 net.cpp:425] inception_4b/relu_pool_proj <- inception_4b/pool_proj
I0403 21:45:50.952213 24139 net.cpp:386] inception_4b/relu_pool_proj -> inception_4b/pool_proj (in-place)
I0403 21:45:50.952389 24139 net.cpp:141] Setting up inception_4b/relu_pool_proj
I0403 21:45:50.952416 24139 net.cpp:148] Top shape: 24 64 14 14 (301056)
I0403 21:45:50.952432 24139 net.cpp:156] Memory required for data: 980223264
I0403 21:45:50.952448 24139 layer_factory.hpp:77] Creating layer inception_4b/output
I0403 21:45:50.952467 24139 net.cpp:91] Creating Layer inception_4b/output
I0403 21:45:50.952483 24139 net.cpp:425] inception_4b/output <- inception_4b/1x1
I0403 21:45:50.952502 24139 net.cpp:425] inception_4b/output <- inception_4b/3x3
I0403 21:45:50.952518 24139 net.cpp:425] inception_4b/output <- inception_4b/5x5
I0403 21:45:50.952534 24139 net.cpp:425] inception_4b/output <- inception_4b/pool_proj
I0403 21:45:50.952553 24139 net.cpp:399] inception_4b/output -> inception_4b/output
I0403 21:45:50.952600 24139 net.cpp:141] Setting up inception_4b/output
I0403 21:45:50.952623 24139 net.cpp:148] Top shape: 24 512 14 14 (2408448)
I0403 21:45:50.952639 24139 net.cpp:156] Memory required for data: 989857056
I0403 21:45:50.952669 24139 layer_factory.hpp:77] Creating layer inception_4b/output_inception_4b/output_0_split
I0403 21:45:50.952688 24139 net.cpp:91] Creating Layer inception_4b/output_inception_4b/output_0_split
I0403 21:45:50.952705 24139 net.cpp:425] inception_4b/output_inception_4b/output_0_split <- inception_4b/output
I0403 21:45:50.952726 24139 net.cpp:399] inception_4b/output_inception_4b/output_0_split -> inception_4b/output_inception_4b/output_0_split_0
I0403 21:45:50.952749 24139 net.cpp:399] inception_4b/output_inception_4b/output_0_split -> inception_4b/output_inception_4b/output_0_split_1
I0403 21:45:50.952769 24139 net.cpp:399] inception_4b/output_inception_4b/output_0_split -> inception_4b/output_inception_4b/output_0_split_2
I0403 21:45:50.952790 24139 net.cpp:399] inception_4b/output_inception_4b/output_0_split -> inception_4b/output_inception_4b/output_0_split_3
I0403 21:45:50.952874 24139 net.cpp:141] Setting up inception_4b/output_inception_4b/output_0_split
I0403 21:45:50.952898 24139 net.cpp:148] Top shape: 24 512 14 14 (2408448)
I0403 21:45:50.952915 24139 net.cpp:148] Top shape: 24 512 14 14 (2408448)
I0403 21:45:50.952932 24139 net.cpp:148] Top shape: 24 512 14 14 (2408448)
I0403 21:45:50.952949 24139 net.cpp:148] Top shape: 24 512 14 14 (2408448)
I0403 21:45:50.952962 24139 net.cpp:156] Memory required for data: 1028392224
I0403 21:45:50.952977 24139 layer_factory.hpp:77] Creating layer inception_4c/1x1
I0403 21:45:50.953001 24139 net.cpp:91] Creating Layer inception_4c/1x1
I0403 21:45:50.953018 24139 net.cpp:425] inception_4c/1x1 <- inception_4b/output_inception_4b/output_0_split_0
I0403 21:45:50.953040 24139 net.cpp:399] inception_4c/1x1 -> inception_4c/1x1
I0403 21:45:50.954448 24139 net.cpp:141] Setting up inception_4c/1x1
I0403 21:45:50.954489 24139 net.cpp:148] Top shape: 24 128 14 14 (602112)
I0403 21:45:50.954507 24139 net.cpp:156] Memory required for data: 1030800672
I0403 21:45:50.954526 24139 layer_factory.hpp:77] Creating layer inception_4c/relu_1x1
I0403 21:45:50.954545 24139 net.cpp:91] Creating Layer inception_4c/relu_1x1
I0403 21:45:50.954562 24139 net.cpp:425] inception_4c/relu_1x1 <- inception_4c/1x1
I0403 21:45:50.954581 24139 net.cpp:386] inception_4c/relu_1x1 -> inception_4c/1x1 (in-place)
I0403 21:45:50.954758 24139 net.cpp:141] Setting up inception_4c/relu_1x1
I0403 21:45:50.954787 24139 net.cpp:148] Top shape: 24 128 14 14 (602112)
I0403 21:45:50.954802 24139 net.cpp:156] Memory required for data: 1033209120
I0403 21:45:50.954818 24139 layer_factory.hpp:77] Creating layer inception_4c/3x3_reduce
I0403 21:45:50.954841 24139 net.cpp:91] Creating Layer inception_4c/3x3_reduce
I0403 21:45:50.954859 24139 net.cpp:425] inception_4c/3x3_reduce <- inception_4b/output_inception_4b/output_0_split_1
I0403 21:45:50.954881 24139 net.cpp:399] inception_4c/3x3_reduce -> inception_4c/3x3_reduce
I0403 21:45:50.956799 24139 net.cpp:141] Setting up inception_4c/3x3_reduce
I0403 21:45:50.956830 24139 net.cpp:148] Top shape: 24 128 14 14 (602112)
I0403 21:45:50.956847 24139 net.cpp:156] Memory required for data: 1035617568
I0403 21:45:50.956867 24139 layer_factory.hpp:77] Creating layer inception_4c/relu_3x3_reduce
I0403 21:45:50.956898 24139 net.cpp:91] Creating Layer inception_4c/relu_3x3_reduce
I0403 21:45:50.956919 24139 net.cpp:425] inception_4c/relu_3x3_reduce <- inception_4c/3x3_reduce
I0403 21:45:50.956938 24139 net.cpp:386] inception_4c/relu_3x3_reduce -> inception_4c/3x3_reduce (in-place)
I0403 21:45:50.957223 24139 net.cpp:141] Setting up inception_4c/relu_3x3_reduce
I0403 21:45:50.957250 24139 net.cpp:148] Top shape: 24 128 14 14 (602112)
I0403 21:45:50.957267 24139 net.cpp:156] Memory required for data: 1038026016
I0403 21:45:50.957283 24139 layer_factory.hpp:77] Creating layer inception_4c/3x3
I0403 21:45:50.957306 24139 net.cpp:91] Creating Layer inception_4c/3x3
I0403 21:45:50.957324 24139 net.cpp:425] inception_4c/3x3 <- inception_4c/3x3_reduce
I0403 21:45:50.957347 24139 net.cpp:399] inception_4c/3x3 -> inception_4c/3x3
I0403 21:45:50.960891 24139 net.cpp:141] Setting up inception_4c/3x3
I0403 21:45:50.960932 24139 net.cpp:148] Top shape: 24 256 14 14 (1204224)
I0403 21:45:50.960948 24139 net.cpp:156] Memory required for data: 1042842912
I0403 21:45:50.960981 24139 layer_factory.hpp:77] Creating layer inception_4c/relu_3x3
I0403 21:45:50.961005 24139 net.cpp:91] Creating Layer inception_4c/relu_3x3
I0403 21:45:50.961024 24139 net.cpp:425] inception_4c/relu_3x3 <- inception_4c/3x3
I0403 21:45:50.961041 24139 net.cpp:386] inception_4c/relu_3x3 -> inception_4c/3x3 (in-place)
I0403 21:45:50.961223 24139 net.cpp:141] Setting up inception_4c/relu_3x3
I0403 21:45:50.961249 24139 net.cpp:148] Top shape: 24 256 14 14 (1204224)
I0403 21:45:50.961266 24139 net.cpp:156] Memory required for data: 1047659808
I0403 21:45:50.961282 24139 layer_factory.hpp:77] Creating layer inception_4c/5x5_reduce
I0403 21:45:50.961308 24139 net.cpp:91] Creating Layer inception_4c/5x5_reduce
I0403 21:45:50.961326 24139 net.cpp:425] inception_4c/5x5_reduce <- inception_4b/output_inception_4b/output_0_split_2
I0403 21:45:50.961349 24139 net.cpp:399] inception_4c/5x5_reduce -> inception_4c/5x5_reduce
I0403 21:45:50.962416 24139 net.cpp:141] Setting up inception_4c/5x5_reduce
I0403 21:45:50.962445 24139 net.cpp:148] Top shape: 24 24 14 14 (112896)
I0403 21:45:50.962462 24139 net.cpp:156] Memory required for data: 1048111392
I0403 21:45:50.962488 24139 layer_factory.hpp:77] Creating layer inception_4c/relu_5x5_reduce
I0403 21:45:50.962509 24139 net.cpp:91] Creating Layer inception_4c/relu_5x5_reduce
I0403 21:45:50.962527 24139 net.cpp:425] inception_4c/relu_5x5_reduce <- inception_4c/5x5_reduce
I0403 21:45:50.962545 24139 net.cpp:386] inception_4c/relu_5x5_reduce -> inception_4c/5x5_reduce (in-place)
I0403 21:45:50.962724 24139 net.cpp:141] Setting up inception_4c/relu_5x5_reduce
I0403 21:45:50.962750 24139 net.cpp:148] Top shape: 24 24 14 14 (112896)
I0403 21:45:50.962766 24139 net.cpp:156] Memory required for data: 1048562976
I0403 21:45:50.962782 24139 layer_factory.hpp:77] Creating layer inception_4c/5x5
I0403 21:45:50.962806 24139 net.cpp:91] Creating Layer inception_4c/5x5
I0403 21:45:50.962826 24139 net.cpp:425] inception_4c/5x5 <- inception_4c/5x5_reduce
I0403 21:45:50.962846 24139 net.cpp:399] inception_4c/5x5 -> inception_4c/5x5
I0403 21:45:50.964056 24139 net.cpp:141] Setting up inception_4c/5x5
I0403 21:45:50.964082 24139 net.cpp:148] Top shape: 24 64 14 14 (301056)
I0403 21:45:50.964102 24139 net.cpp:156] Memory required for data: 1049767200
I0403 21:45:50.964121 24139 layer_factory.hpp:77] Creating layer inception_4c/relu_5x5
I0403 21:45:50.964140 24139 net.cpp:91] Creating Layer inception_4c/relu_5x5
I0403 21:45:50.964157 24139 net.cpp:425] inception_4c/relu_5x5 <- inception_4c/5x5
I0403 21:45:50.964176 24139 net.cpp:386] inception_4c/relu_5x5 -> inception_4c/5x5 (in-place)
I0403 21:45:50.964462 24139 net.cpp:141] Setting up inception_4c/relu_5x5
I0403 21:45:50.964491 24139 net.cpp:148] Top shape: 24 64 14 14 (301056)
I0403 21:45:50.964509 24139 net.cpp:156] Memory required for data: 1050971424
I0403 21:45:50.964524 24139 layer_factory.hpp:77] Creating layer inception_4c/pool
I0403 21:45:50.964542 24139 net.cpp:91] Creating Layer inception_4c/pool
I0403 21:45:50.964560 24139 net.cpp:425] inception_4c/pool <- inception_4b/output_inception_4b/output_0_split_3
I0403 21:45:50.964579 24139 net.cpp:399] inception_4c/pool -> inception_4c/pool
I0403 21:45:50.964644 24139 net.cpp:141] Setting up inception_4c/pool
I0403 21:45:50.964668 24139 net.cpp:148] Top shape: 24 512 14 14 (2408448)
I0403 21:45:50.964684 24139 net.cpp:156] Memory required for data: 1060605216
I0403 21:45:50.964699 24139 layer_factory.hpp:77] Creating layer inception_4c/pool_proj
I0403 21:45:50.964723 24139 net.cpp:91] Creating Layer inception_4c/pool_proj
I0403 21:45:50.964742 24139 net.cpp:425] inception_4c/pool_proj <- inception_4c/pool
I0403 21:45:50.964764 24139 net.cpp:399] inception_4c/pool_proj -> inception_4c/pool_proj
I0403 21:45:50.965955 24139 net.cpp:141] Setting up inception_4c/pool_proj
I0403 21:45:50.965982 24139 net.cpp:148] Top shape: 24 64 14 14 (301056)
I0403 21:45:50.966012 24139 net.cpp:156] Memory required for data: 1061809440
I0403 21:45:50.966032 24139 layer_factory.hpp:77] Creating layer inception_4c/relu_pool_proj
I0403 21:45:50.966056 24139 net.cpp:91] Creating Layer inception_4c/relu_pool_proj
I0403 21:45:50.966076 24139 net.cpp:425] inception_4c/relu_pool_proj <- inception_4c/pool_proj
I0403 21:45:50.966094 24139 net.cpp:386] inception_4c/relu_pool_proj -> inception_4c/pool_proj (in-place)
I0403 21:45:50.966276 24139 net.cpp:141] Setting up inception_4c/relu_pool_proj
I0403 21:45:50.966302 24139 net.cpp:148] Top shape: 24 64 14 14 (301056)
I0403 21:45:50.966321 24139 net.cpp:156] Memory required for data: 1063013664
I0403 21:45:50.966338 24139 layer_factory.hpp:77] Creating layer inception_4c/output
I0403 21:45:50.966357 24139 net.cpp:91] Creating Layer inception_4c/output
I0403 21:45:50.966374 24139 net.cpp:425] inception_4c/output <- inception_4c/1x1
I0403 21:45:50.966392 24139 net.cpp:425] inception_4c/output <- inception_4c/3x3
I0403 21:45:50.966408 24139 net.cpp:425] inception_4c/output <- inception_4c/5x5
I0403 21:45:50.966425 24139 net.cpp:425] inception_4c/output <- inception_4c/pool_proj
I0403 21:45:50.966442 24139 net.cpp:399] inception_4c/output -> inception_4c/output
I0403 21:45:50.966491 24139 net.cpp:141] Setting up inception_4c/output
I0403 21:45:50.966516 24139 net.cpp:148] Top shape: 24 512 14 14 (2408448)
I0403 21:45:50.966531 24139 net.cpp:156] Memory required for data: 1072647456
I0403 21:45:50.966547 24139 layer_factory.hpp:77] Creating layer inception_4c/output_inception_4c/output_0_split
I0403 21:45:50.966563 24139 net.cpp:91] Creating Layer inception_4c/output_inception_4c/output_0_split
I0403 21:45:50.966579 24139 net.cpp:425] inception_4c/output_inception_4c/output_0_split <- inception_4c/output
I0403 21:45:50.966601 24139 net.cpp:399] inception_4c/output_inception_4c/output_0_split -> inception_4c/output_inception_4c/output_0_split_0
I0403 21:45:50.966622 24139 net.cpp:399] inception_4c/output_inception_4c/output_0_split -> inception_4c/output_inception_4c/output_0_split_1
I0403 21:45:50.966644 24139 net.cpp:399] inception_4c/output_inception_4c/output_0_split -> inception_4c/output_inception_4c/output_0_split_2
I0403 21:45:50.966665 24139 net.cpp:399] inception_4c/output_inception_4c/output_0_split -> inception_4c/output_inception_4c/output_0_split_3
I0403 21:45:50.966749 24139 net.cpp:141] Setting up inception_4c/output_inception_4c/output_0_split
I0403 21:45:50.966773 24139 net.cpp:148] Top shape: 24 512 14 14 (2408448)
I0403 21:45:50.966790 24139 net.cpp:148] Top shape: 24 512 14 14 (2408448)
I0403 21:45:50.966807 24139 net.cpp:148] Top shape: 24 512 14 14 (2408448)
I0403 21:45:50.966823 24139 net.cpp:148] Top shape: 24 512 14 14 (2408448)
I0403 21:45:50.966837 24139 net.cpp:156] Memory required for data: 1111182624
I0403 21:45:50.966853 24139 layer_factory.hpp:77] Creating layer inception_4d/1x1
I0403 21:45:50.966877 24139 net.cpp:91] Creating Layer inception_4d/1x1
I0403 21:45:50.966897 24139 net.cpp:425] inception_4d/1x1 <- inception_4c/output_inception_4c/output_0_split_0
I0403 21:45:50.966918 24139 net.cpp:399] inception_4d/1x1 -> inception_4d/1x1
I0403 21:45:50.968307 24139 net.cpp:141] Setting up inception_4d/1x1
I0403 21:45:50.968336 24139 net.cpp:148] Top shape: 24 112 14 14 (526848)
I0403 21:45:50.968353 24139 net.cpp:156] Memory required for data: 1113290016
I0403 21:45:50.968372 24139 layer_factory.hpp:77] Creating layer inception_4d/relu_1x1
I0403 21:45:50.968392 24139 net.cpp:91] Creating Layer inception_4d/relu_1x1
I0403 21:45:50.968410 24139 net.cpp:425] inception_4d/relu_1x1 <- inception_4d/1x1
I0403 21:45:50.968430 24139 net.cpp:386] inception_4d/relu_1x1 -> inception_4d/1x1 (in-place)
I0403 21:45:50.968613 24139 net.cpp:141] Setting up inception_4d/relu_1x1
I0403 21:45:50.968639 24139 net.cpp:148] Top shape: 24 112 14 14 (526848)
I0403 21:45:50.968654 24139 net.cpp:156] Memory required for data: 1115397408
I0403 21:45:50.968670 24139 layer_factory.hpp:77] Creating layer inception_4d/3x3_reduce
I0403 21:45:50.968710 24139 net.cpp:91] Creating Layer inception_4d/3x3_reduce
I0403 21:45:50.968729 24139 net.cpp:425] inception_4d/3x3_reduce <- inception_4c/output_inception_4c/output_0_split_1
I0403 21:45:50.968751 24139 net.cpp:399] inception_4d/3x3_reduce -> inception_4d/3x3_reduce
I0403 21:45:50.970258 24139 net.cpp:141] Setting up inception_4d/3x3_reduce
I0403 21:45:50.970286 24139 net.cpp:148] Top shape: 24 144 14 14 (677376)
I0403 21:45:50.970302 24139 net.cpp:156] Memory required for data: 1118106912
I0403 21:45:50.970322 24139 layer_factory.hpp:77] Creating layer inception_4d/relu_3x3_reduce
I0403 21:45:50.970345 24139 net.cpp:91] Creating Layer inception_4d/relu_3x3_reduce
I0403 21:45:50.970363 24139 net.cpp:425] inception_4d/relu_3x3_reduce <- inception_4d/3x3_reduce
I0403 21:45:50.970381 24139 net.cpp:386] inception_4d/relu_3x3_reduce -> inception_4d/3x3_reduce (in-place)
I0403 21:45:50.970662 24139 net.cpp:141] Setting up inception_4d/relu_3x3_reduce
I0403 21:45:50.970688 24139 net.cpp:148] Top shape: 24 144 14 14 (677376)
I0403 21:45:50.970705 24139 net.cpp:156] Memory required for data: 1120816416
I0403 21:45:50.970721 24139 layer_factory.hpp:77] Creating layer inception_4d/3x3
I0403 21:45:50.970746 24139 net.cpp:91] Creating Layer inception_4d/3x3
I0403 21:45:50.970763 24139 net.cpp:425] inception_4d/3x3 <- inception_4d/3x3_reduce
I0403 21:45:50.970783 24139 net.cpp:399] inception_4d/3x3 -> inception_4d/3x3
I0403 21:45:50.974941 24139 net.cpp:141] Setting up inception_4d/3x3
I0403 21:45:50.974974 24139 net.cpp:148] Top shape: 24 288 14 14 (1354752)
I0403 21:45:50.974992 24139 net.cpp:156] Memory required for data: 1126235424
I0403 21:45:50.975011 24139 layer_factory.hpp:77] Creating layer inception_4d/relu_3x3
I0403 21:45:50.975030 24139 net.cpp:91] Creating Layer inception_4d/relu_3x3
I0403 21:45:50.975047 24139 net.cpp:425] inception_4d/relu_3x3 <- inception_4d/3x3
I0403 21:45:50.975069 24139 net.cpp:386] inception_4d/relu_3x3 -> inception_4d/3x3 (in-place)
I0403 21:45:50.975250 24139 net.cpp:141] Setting up inception_4d/relu_3x3
I0403 21:45:50.975275 24139 net.cpp:148] Top shape: 24 288 14 14 (1354752)
I0403 21:45:50.975291 24139 net.cpp:156] Memory required for data: 1131654432
I0403 21:45:50.975306 24139 layer_factory.hpp:77] Creating layer inception_4d/5x5_reduce
I0403 21:45:50.975327 24139 net.cpp:91] Creating Layer inception_4d/5x5_reduce
I0403 21:45:50.975345 24139 net.cpp:425] inception_4d/5x5_reduce <- inception_4c/output_inception_4c/output_0_split_2
I0403 21:45:50.975366 24139 net.cpp:399] inception_4d/5x5_reduce -> inception_4d/5x5_reduce
I0403 21:45:50.976482 24139 net.cpp:141] Setting up inception_4d/5x5_reduce
I0403 21:45:50.976519 24139 net.cpp:148] Top shape: 24 32 14 14 (150528)
I0403 21:45:50.976536 24139 net.cpp:156] Memory required for data: 1132256544
I0403 21:45:50.976554 24139 layer_factory.hpp:77] Creating layer inception_4d/relu_5x5_reduce
I0403 21:45:50.976572 24139 net.cpp:91] Creating Layer inception_4d/relu_5x5_reduce
I0403 21:45:50.976589 24139 net.cpp:425] inception_4d/relu_5x5_reduce <- inception_4d/5x5_reduce
I0403 21:45:50.976609 24139 net.cpp:386] inception_4d/relu_5x5_reduce -> inception_4d/5x5_reduce (in-place)
I0403 21:45:50.976795 24139 net.cpp:141] Setting up inception_4d/relu_5x5_reduce
I0403 21:45:50.976819 24139 net.cpp:148] Top shape: 24 32 14 14 (150528)
I0403 21:45:50.976835 24139 net.cpp:156] Memory required for data: 1132858656
I0403 21:45:50.976850 24139 layer_factory.hpp:77] Creating layer inception_4d/5x5
I0403 21:45:50.976872 24139 net.cpp:91] Creating Layer inception_4d/5x5
I0403 21:45:50.976889 24139 net.cpp:425] inception_4d/5x5 <- inception_4d/5x5_reduce
I0403 21:45:50.976912 24139 net.cpp:399] inception_4d/5x5 -> inception_4d/5x5
I0403 21:45:50.978363 24139 net.cpp:141] Setting up inception_4d/5x5
I0403 21:45:50.978390 24139 net.cpp:148] Top shape: 24 64 14 14 (301056)
I0403 21:45:50.978406 24139 net.cpp:156] Memory required for data: 1134062880
I0403 21:45:50.978425 24139 layer_factory.hpp:77] Creating layer inception_4d/relu_5x5
I0403 21:45:50.978459 24139 net.cpp:91] Creating Layer inception_4d/relu_5x5
I0403 21:45:50.978482 24139 net.cpp:425] inception_4d/relu_5x5 <- inception_4d/5x5
I0403 21:45:50.978500 24139 net.cpp:386] inception_4d/relu_5x5 -> inception_4d/5x5 (in-place)
I0403 21:45:50.978797 24139 net.cpp:141] Setting up inception_4d/relu_5x5
I0403 21:45:50.978823 24139 net.cpp:148] Top shape: 24 64 14 14 (301056)
I0403 21:45:50.978838 24139 net.cpp:156] Memory required for data: 1135267104
I0403 21:45:50.978854 24139 layer_factory.hpp:77] Creating layer inception_4d/pool
I0403 21:45:50.978874 24139 net.cpp:91] Creating Layer inception_4d/pool
I0403 21:45:50.978893 24139 net.cpp:425] inception_4d/pool <- inception_4c/output_inception_4c/output_0_split_3
I0403 21:45:50.978910 24139 net.cpp:399] inception_4d/pool -> inception_4d/pool
I0403 21:45:50.978977 24139 net.cpp:141] Setting up inception_4d/pool
I0403 21:45:50.979001 24139 net.cpp:148] Top shape: 24 512 14 14 (2408448)
I0403 21:45:50.979015 24139 net.cpp:156] Memory required for data: 1144900896
I0403 21:45:50.979032 24139 layer_factory.hpp:77] Creating layer inception_4d/pool_proj
I0403 21:45:50.979054 24139 net.cpp:91] Creating Layer inception_4d/pool_proj
I0403 21:45:50.979071 24139 net.cpp:425] inception_4d/pool_proj <- inception_4d/pool
I0403 21:45:50.979092 24139 net.cpp:399] inception_4d/pool_proj -> inception_4d/pool_proj
I0403 21:45:50.980846 24139 net.cpp:141] Setting up inception_4d/pool_proj
I0403 21:45:50.980876 24139 net.cpp:148] Top shape: 24 64 14 14 (301056)
I0403 21:45:50.980892 24139 net.cpp:156] Memory required for data: 1146105120
I0403 21:45:50.980912 24139 layer_factory.hpp:77] Creating layer inception_4d/relu_pool_proj
I0403 21:45:50.980931 24139 net.cpp:91] Creating Layer inception_4d/relu_pool_proj
I0403 21:45:50.980947 24139 net.cpp:425] inception_4d/relu_pool_proj <- inception_4d/pool_proj
I0403 21:45:50.980967 24139 net.cpp:386] inception_4d/relu_pool_proj -> inception_4d/pool_proj (in-place)
I0403 21:45:50.981147 24139 net.cpp:141] Setting up inception_4d/relu_pool_proj
I0403 21:45:50.981171 24139 net.cpp:148] Top shape: 24 64 14 14 (301056)
I0403 21:45:50.981187 24139 net.cpp:156] Memory required for data: 1147309344
I0403 21:45:50.981207 24139 layer_factory.hpp:77] Creating layer inception_4d/output
I0403 21:45:50.981226 24139 net.cpp:91] Creating Layer inception_4d/output
I0403 21:45:50.981242 24139 net.cpp:425] inception_4d/output <- inception_4d/1x1
I0403 21:45:50.981261 24139 net.cpp:425] inception_4d/output <- inception_4d/3x3
I0403 21:45:50.981276 24139 net.cpp:425] inception_4d/output <- inception_4d/5x5
I0403 21:45:50.981293 24139 net.cpp:425] inception_4d/output <- inception_4d/pool_proj
I0403 21:45:50.981313 24139 net.cpp:399] inception_4d/output -> inception_4d/output
I0403 21:45:50.981364 24139 net.cpp:141] Setting up inception_4d/output
I0403 21:45:50.981387 24139 net.cpp:148] Top shape: 24 528 14 14 (2483712)
I0403 21:45:50.981402 24139 net.cpp:156] Memory required for data: 1157244192
I0403 21:45:50.981417 24139 layer_factory.hpp:77] Creating layer inception_4d/output_inception_4d/output_0_split
I0403 21:45:50.981436 24139 net.cpp:91] Creating Layer inception_4d/output_inception_4d/output_0_split
I0403 21:45:50.981451 24139 net.cpp:425] inception_4d/output_inception_4d/output_0_split <- inception_4d/output
I0403 21:45:50.981473 24139 net.cpp:399] inception_4d/output_inception_4d/output_0_split -> inception_4d/output_inception_4d/output_0_split_0
I0403 21:45:50.981494 24139 net.cpp:399] inception_4d/output_inception_4d/output_0_split -> inception_4d/output_inception_4d/output_0_split_1
I0403 21:45:50.981515 24139 net.cpp:399] inception_4d/output_inception_4d/output_0_split -> inception_4d/output_inception_4d/output_0_split_2
I0403 21:45:50.981536 24139 net.cpp:399] inception_4d/output_inception_4d/output_0_split -> inception_4d/output_inception_4d/output_0_split_3
I0403 21:45:50.981556 24139 net.cpp:399] inception_4d/output_inception_4d/output_0_split -> inception_4d/output_inception_4d/output_0_split_4
I0403 21:45:50.981657 24139 net.cpp:141] Setting up inception_4d/output_inception_4d/output_0_split
I0403 21:45:50.981693 24139 net.cpp:148] Top shape: 24 528 14 14 (2483712)
I0403 21:45:50.981712 24139 net.cpp:148] Top shape: 24 528 14 14 (2483712)
I0403 21:45:50.981729 24139 net.cpp:148] Top shape: 24 528 14 14 (2483712)
I0403 21:45:50.981745 24139 net.cpp:148] Top shape: 24 528 14 14 (2483712)
I0403 21:45:50.981761 24139 net.cpp:148] Top shape: 24 528 14 14 (2483712)
I0403 21:45:50.981775 24139 net.cpp:156] Memory required for data: 1206918432
I0403 21:45:50.981791 24139 layer_factory.hpp:77] Creating layer loss2/ave_pool
I0403 21:45:50.981808 24139 net.cpp:91] Creating Layer loss2/ave_pool
I0403 21:45:50.981824 24139 net.cpp:425] loss2/ave_pool <- inception_4d/output_inception_4d/output_0_split_0
I0403 21:45:50.981845 24139 net.cpp:399] loss2/ave_pool -> loss2/ave_pool
I0403 21:45:50.982154 24139 net.cpp:141] Setting up loss2/ave_pool
I0403 21:45:50.982189 24139 net.cpp:148] Top shape: 24 528 4 4 (202752)
I0403 21:45:50.982209 24139 net.cpp:156] Memory required for data: 1207729440
I0403 21:45:50.982226 24139 layer_factory.hpp:77] Creating layer loss2/conv
I0403 21:45:50.982249 24139 net.cpp:91] Creating Layer loss2/conv
I0403 21:45:50.982266 24139 net.cpp:425] loss2/conv <- loss2/ave_pool
I0403 21:45:50.982287 24139 net.cpp:399] loss2/conv -> loss2/conv
I0403 21:45:50.984150 24139 net.cpp:141] Setting up loss2/conv
I0403 21:45:50.984179 24139 net.cpp:148] Top shape: 24 128 4 4 (49152)
I0403 21:45:50.984194 24139 net.cpp:156] Memory required for data: 1207926048
I0403 21:45:50.984218 24139 layer_factory.hpp:77] Creating layer loss2/relu_conv
I0403 21:45:50.984241 24139 net.cpp:91] Creating Layer loss2/relu_conv
I0403 21:45:50.984257 24139 net.cpp:425] loss2/relu_conv <- loss2/conv
I0403 21:45:50.984275 24139 net.cpp:386] loss2/relu_conv -> loss2/conv (in-place)
I0403 21:45:50.984555 24139 net.cpp:141] Setting up loss2/relu_conv
I0403 21:45:50.984581 24139 net.cpp:148] Top shape: 24 128 4 4 (49152)
I0403 21:45:50.984596 24139 net.cpp:156] Memory required for data: 1208122656
I0403 21:45:50.984611 24139 layer_factory.hpp:77] Creating layer loss2/fc
I0403 21:45:50.984632 24139 net.cpp:91] Creating Layer loss2/fc
I0403 21:45:50.984650 24139 net.cpp:425] loss2/fc <- loss2/conv
I0403 21:45:50.984671 24139 net.cpp:399] loss2/fc -> loss2/fc
I0403 21:45:51.001973 24139 net.cpp:141] Setting up loss2/fc
I0403 21:45:51.002005 24139 net.cpp:148] Top shape: 24 1024 (24576)
I0403 21:45:51.002022 24139 net.cpp:156] Memory required for data: 1208220960
I0403 21:45:51.002040 24139 layer_factory.hpp:77] Creating layer loss2/relu_fc
I0403 21:45:51.002058 24139 net.cpp:91] Creating Layer loss2/relu_fc
I0403 21:45:51.002075 24139 net.cpp:425] loss2/relu_fc <- loss2/fc
I0403 21:45:51.002095 24139 net.cpp:386] loss2/relu_fc -> loss2/fc (in-place)
I0403 21:45:51.002393 24139 net.cpp:141] Setting up loss2/relu_fc
I0403 21:45:51.002418 24139 net.cpp:148] Top shape: 24 1024 (24576)
I0403 21:45:51.002434 24139 net.cpp:156] Memory required for data: 1208319264
I0403 21:45:51.002449 24139 layer_factory.hpp:77] Creating layer loss2/drop_fc
I0403 21:45:51.002475 24139 net.cpp:91] Creating Layer loss2/drop_fc
I0403 21:45:51.002490 24139 net.cpp:425] loss2/drop_fc <- loss2/fc
I0403 21:45:51.002511 24139 net.cpp:386] loss2/drop_fc -> loss2/fc (in-place)
I0403 21:45:51.002559 24139 net.cpp:141] Setting up loss2/drop_fc
I0403 21:45:51.002584 24139 net.cpp:148] Top shape: 24 1024 (24576)
I0403 21:45:51.002599 24139 net.cpp:156] Memory required for data: 1208417568
I0403 21:45:51.002614 24139 layer_factory.hpp:77] Creating layer loss2/classifier_plantvillage
I0403 21:45:51.002634 24139 net.cpp:91] Creating Layer loss2/classifier_plantvillage
I0403 21:45:51.002650 24139 net.cpp:425] loss2/classifier_plantvillage <- loss2/fc
I0403 21:45:51.002671 24139 net.cpp:399] loss2/classifier_plantvillage -> loss2/classifier_plantvillage
I0403 21:45:51.003064 24139 net.cpp:141] Setting up loss2/classifier_plantvillage
I0403 21:45:51.003088 24139 net.cpp:148] Top shape: 24 38 (912)
I0403 21:45:51.003120 24139 net.cpp:156] Memory required for data: 1208421216
I0403 21:45:51.003139 24139 layer_factory.hpp:77] Creating layer loss2/classifier_plantvillage_loss2/classifier_plantvillage_0_split
I0403 21:45:51.003160 24139 net.cpp:91] Creating Layer loss2/classifier_plantvillage_loss2/classifier_plantvillage_0_split
I0403 21:45:51.003177 24139 net.cpp:425] loss2/classifier_plantvillage_loss2/classifier_plantvillage_0_split <- loss2/classifier_plantvillage
I0403 21:45:51.003198 24139 net.cpp:399] loss2/classifier_plantvillage_loss2/classifier_plantvillage_0_split -> loss2/classifier_plantvillage_loss2/classifier_plantvillage_0_split_0
I0403 21:45:51.003221 24139 net.cpp:399] loss2/classifier_plantvillage_loss2/classifier_plantvillage_0_split -> loss2/classifier_plantvillage_loss2/classifier_plantvillage_0_split_1
I0403 21:45:51.003245 24139 net.cpp:399] loss2/classifier_plantvillage_loss2/classifier_plantvillage_0_split -> loss2/classifier_plantvillage_loss2/classifier_plantvillage_0_split_2
I0403 21:45:51.003321 24139 net.cpp:141] Setting up loss2/classifier_plantvillage_loss2/classifier_plantvillage_0_split
I0403 21:45:51.003345 24139 net.cpp:148] Top shape: 24 38 (912)
I0403 21:45:51.003360 24139 net.cpp:148] Top shape: 24 38 (912)
I0403 21:45:51.003376 24139 net.cpp:148] Top shape: 24 38 (912)
I0403 21:45:51.003391 24139 net.cpp:156] Memory required for data: 1208432160
I0403 21:45:51.003404 24139 layer_factory.hpp:77] Creating layer inception_4e/1x1
I0403 21:45:51.003427 24139 net.cpp:91] Creating Layer inception_4e/1x1
I0403 21:45:51.003444 24139 net.cpp:425] inception_4e/1x1 <- inception_4d/output_inception_4d/output_0_split_1
I0403 21:45:51.003463 24139 net.cpp:399] inception_4e/1x1 -> inception_4e/1x1
I0403 21:45:51.005230 24139 net.cpp:141] Setting up inception_4e/1x1
I0403 21:45:51.005257 24139 net.cpp:148] Top shape: 24 256 14 14 (1204224)
I0403 21:45:51.005273 24139 net.cpp:156] Memory required for data: 1213249056
I0403 21:45:51.005292 24139 layer_factory.hpp:77] Creating layer inception_4e/relu_1x1
I0403 21:45:51.005313 24139 net.cpp:91] Creating Layer inception_4e/relu_1x1
I0403 21:45:51.005331 24139 net.cpp:425] inception_4e/relu_1x1 <- inception_4e/1x1
I0403 21:45:51.005347 24139 net.cpp:386] inception_4e/relu_1x1 -> inception_4e/1x1 (in-place)
I0403 21:45:51.005633 24139 net.cpp:141] Setting up inception_4e/relu_1x1
I0403 21:45:51.005658 24139 net.cpp:148] Top shape: 24 256 14 14 (1204224)
I0403 21:45:51.005674 24139 net.cpp:156] Memory required for data: 1218065952
I0403 21:45:51.005689 24139 layer_factory.hpp:77] Creating layer inception_4e/3x3_reduce
I0403 21:45:51.005712 24139 net.cpp:91] Creating Layer inception_4e/3x3_reduce
I0403 21:45:51.005729 24139 net.cpp:425] inception_4e/3x3_reduce <- inception_4d/output_inception_4d/output_0_split_2
I0403 21:45:51.005751 24139 net.cpp:399] inception_4e/3x3_reduce -> inception_4e/3x3_reduce
I0403 21:45:51.007835 24139 net.cpp:141] Setting up inception_4e/3x3_reduce
I0403 21:45:51.007863 24139 net.cpp:148] Top shape: 24 160 14 14 (752640)
I0403 21:45:51.007879 24139 net.cpp:156] Memory required for data: 1221076512
I0403 21:45:51.007899 24139 layer_factory.hpp:77] Creating layer inception_4e/relu_3x3_reduce
I0403 21:45:51.007918 24139 net.cpp:91] Creating Layer inception_4e/relu_3x3_reduce
I0403 21:45:51.007936 24139 net.cpp:425] inception_4e/relu_3x3_reduce <- inception_4e/3x3_reduce
I0403 21:45:51.007954 24139 net.cpp:386] inception_4e/relu_3x3_reduce -> inception_4e/3x3_reduce (in-place)
I0403 21:45:51.008136 24139 net.cpp:141] Setting up inception_4e/relu_3x3_reduce
I0403 21:45:51.008162 24139 net.cpp:148] Top shape: 24 160 14 14 (752640)
I0403 21:45:51.008177 24139 net.cpp:156] Memory required for data: 1224087072
I0403 21:45:51.008193 24139 layer_factory.hpp:77] Creating layer inception_4e/3x3
I0403 21:45:51.008227 24139 net.cpp:91] Creating Layer inception_4e/3x3
I0403 21:45:51.008245 24139 net.cpp:425] inception_4e/3x3 <- inception_4e/3x3_reduce
I0403 21:45:51.008265 24139 net.cpp:399] inception_4e/3x3 -> inception_4e/3x3
I0403 21:45:51.013159 24139 net.cpp:141] Setting up inception_4e/3x3
I0403 21:45:51.013206 24139 net.cpp:148] Top shape: 24 320 14 14 (1505280)
I0403 21:45:51.013223 24139 net.cpp:156] Memory required for data: 1230108192
I0403 21:45:51.013242 24139 layer_factory.hpp:77] Creating layer inception_4e/relu_3x3
I0403 21:45:51.013260 24139 net.cpp:91] Creating Layer inception_4e/relu_3x3
I0403 21:45:51.013278 24139 net.cpp:425] inception_4e/relu_3x3 <- inception_4e/3x3
I0403 21:45:51.013294 24139 net.cpp:386] inception_4e/relu_3x3 -> inception_4e/3x3 (in-place)
I0403 21:45:51.013588 24139 net.cpp:141] Setting up inception_4e/relu_3x3
I0403 21:45:51.013614 24139 net.cpp:148] Top shape: 24 320 14 14 (1505280)
I0403 21:45:51.013629 24139 net.cpp:156] Memory required for data: 1236129312
I0403 21:45:51.013644 24139 layer_factory.hpp:77] Creating layer inception_4e/5x5_reduce
I0403 21:45:51.013669 24139 net.cpp:91] Creating Layer inception_4e/5x5_reduce
I0403 21:45:51.013686 24139 net.cpp:425] inception_4e/5x5_reduce <- inception_4d/output_inception_4d/output_0_split_3
I0403 21:45:51.013708 24139 net.cpp:399] inception_4e/5x5_reduce -> inception_4e/5x5_reduce
I0403 21:45:51.014770 24139 net.cpp:141] Setting up inception_4e/5x5_reduce
I0403 21:45:51.014796 24139 net.cpp:148] Top shape: 24 32 14 14 (150528)
I0403 21:45:51.014812 24139 net.cpp:156] Memory required for data: 1236731424
I0403 21:45:51.014832 24139 layer_factory.hpp:77] Creating layer inception_4e/relu_5x5_reduce
I0403 21:45:51.014852 24139 net.cpp:91] Creating Layer inception_4e/relu_5x5_reduce
I0403 21:45:51.014868 24139 net.cpp:425] inception_4e/relu_5x5_reduce <- inception_4e/5x5_reduce
I0403 21:45:51.014886 24139 net.cpp:386] inception_4e/relu_5x5_reduce -> inception_4e/5x5_reduce (in-place)
I0403 21:45:51.015175 24139 net.cpp:141] Setting up inception_4e/relu_5x5_reduce
I0403 21:45:51.015204 24139 net.cpp:148] Top shape: 24 32 14 14 (150528)
I0403 21:45:51.015221 24139 net.cpp:156] Memory required for data: 1237333536
I0403 21:45:51.015238 24139 layer_factory.hpp:77] Creating layer inception_4e/5x5
I0403 21:45:51.015278 24139 net.cpp:91] Creating Layer inception_4e/5x5
I0403 21:45:51.015297 24139 net.cpp:425] inception_4e/5x5 <- inception_4e/5x5_reduce
I0403 21:45:51.015316 24139 net.cpp:399] inception_4e/5x5 -> inception_4e/5x5
I0403 21:45:51.017107 24139 net.cpp:141] Setting up inception_4e/5x5
I0403 21:45:51.017133 24139 net.cpp:148] Top shape: 24 128 14 14 (602112)
I0403 21:45:51.017149 24139 net.cpp:156] Memory required for data: 1239741984
I0403 21:45:51.017168 24139 layer_factory.hpp:77] Creating layer inception_4e/relu_5x5
I0403 21:45:51.017189 24139 net.cpp:91] Creating Layer inception_4e/relu_5x5
I0403 21:45:51.017211 24139 net.cpp:425] inception_4e/relu_5x5 <- inception_4e/5x5
I0403 21:45:51.017230 24139 net.cpp:386] inception_4e/relu_5x5 -> inception_4e/5x5 (in-place)
I0403 21:45:51.017419 24139 net.cpp:141] Setting up inception_4e/relu_5x5
I0403 21:45:51.017444 24139 net.cpp:148] Top shape: 24 128 14 14 (602112)
I0403 21:45:51.017459 24139 net.cpp:156] Memory required for data: 1242150432
I0403 21:45:51.017474 24139 layer_factory.hpp:77] Creating layer inception_4e/pool
I0403 21:45:51.017494 24139 net.cpp:91] Creating Layer inception_4e/pool
I0403 21:45:51.017511 24139 net.cpp:425] inception_4e/pool <- inception_4d/output_inception_4d/output_0_split_4
I0403 21:45:51.017529 24139 net.cpp:399] inception_4e/pool -> inception_4e/pool
I0403 21:45:51.017599 24139 net.cpp:141] Setting up inception_4e/pool
I0403 21:45:51.017622 24139 net.cpp:148] Top shape: 24 528 14 14 (2483712)
I0403 21:45:51.017637 24139 net.cpp:156] Memory required for data: 1252085280
I0403 21:45:51.017652 24139 layer_factory.hpp:77] Creating layer inception_4e/pool_proj
I0403 21:45:51.017675 24139 net.cpp:91] Creating Layer inception_4e/pool_proj
I0403 21:45:51.017693 24139 net.cpp:425] inception_4e/pool_proj <- inception_4e/pool
I0403 21:45:51.017714 24139 net.cpp:399] inception_4e/pool_proj -> inception_4e/pool_proj
I0403 21:45:51.019187 24139 net.cpp:141] Setting up inception_4e/pool_proj
I0403 21:45:51.019229 24139 net.cpp:148] Top shape: 24 128 14 14 (602112)
I0403 21:45:51.019246 24139 net.cpp:156] Memory required for data: 1254493728
I0403 21:45:51.019266 24139 layer_factory.hpp:77] Creating layer inception_4e/relu_pool_proj
I0403 21:45:51.019284 24139 net.cpp:91] Creating Layer inception_4e/relu_pool_proj
I0403 21:45:51.019300 24139 net.cpp:425] inception_4e/relu_pool_proj <- inception_4e/pool_proj
I0403 21:45:51.019320 24139 net.cpp:386] inception_4e/relu_pool_proj -> inception_4e/pool_proj (in-place)
I0403 21:45:51.019606 24139 net.cpp:141] Setting up inception_4e/relu_pool_proj
I0403 21:45:51.019632 24139 net.cpp:148] Top shape: 24 128 14 14 (602112)
I0403 21:45:51.019647 24139 net.cpp:156] Memory required for data: 1256902176
I0403 21:45:51.019664 24139 layer_factory.hpp:77] Creating layer inception_4e/output
I0403 21:45:51.019680 24139 net.cpp:91] Creating Layer inception_4e/output
I0403 21:45:51.019696 24139 net.cpp:425] inception_4e/output <- inception_4e/1x1
I0403 21:45:51.019714 24139 net.cpp:425] inception_4e/output <- inception_4e/3x3
I0403 21:45:51.019731 24139 net.cpp:425] inception_4e/output <- inception_4e/5x5
I0403 21:45:51.019747 24139 net.cpp:425] inception_4e/output <- inception_4e/pool_proj
I0403 21:45:51.019769 24139 net.cpp:399] inception_4e/output -> inception_4e/output
I0403 21:45:51.019819 24139 net.cpp:141] Setting up inception_4e/output
I0403 21:45:51.019841 24139 net.cpp:148] Top shape: 24 832 14 14 (3913728)
I0403 21:45:51.019856 24139 net.cpp:156] Memory required for data: 1272557088
I0403 21:45:51.019871 24139 layer_factory.hpp:77] Creating layer pool4/3x3_s2
I0403 21:45:51.019891 24139 net.cpp:91] Creating Layer pool4/3x3_s2
I0403 21:45:51.019908 24139 net.cpp:425] pool4/3x3_s2 <- inception_4e/output
I0403 21:45:51.019930 24139 net.cpp:399] pool4/3x3_s2 -> pool4/3x3_s2
I0403 21:45:51.019995 24139 net.cpp:141] Setting up pool4/3x3_s2
I0403 21:45:51.020018 24139 net.cpp:148] Top shape: 24 832 7 7 (978432)
I0403 21:45:51.020032 24139 net.cpp:156] Memory required for data: 1276470816
I0403 21:45:51.020047 24139 layer_factory.hpp:77] Creating layer pool4/3x3_s2_pool4/3x3_s2_0_split
I0403 21:45:51.020067 24139 net.cpp:91] Creating Layer pool4/3x3_s2_pool4/3x3_s2_0_split
I0403 21:45:51.020084 24139 net.cpp:425] pool4/3x3_s2_pool4/3x3_s2_0_split <- pool4/3x3_s2
I0403 21:45:51.020102 24139 net.cpp:399] pool4/3x3_s2_pool4/3x3_s2_0_split -> pool4/3x3_s2_pool4/3x3_s2_0_split_0
I0403 21:45:51.020123 24139 net.cpp:399] pool4/3x3_s2_pool4/3x3_s2_0_split -> pool4/3x3_s2_pool4/3x3_s2_0_split_1
I0403 21:45:51.020143 24139 net.cpp:399] pool4/3x3_s2_pool4/3x3_s2_0_split -> pool4/3x3_s2_pool4/3x3_s2_0_split_2
I0403 21:45:51.020162 24139 net.cpp:399] pool4/3x3_s2_pool4/3x3_s2_0_split -> pool4/3x3_s2_pool4/3x3_s2_0_split_3
I0403 21:45:51.020256 24139 net.cpp:141] Setting up pool4/3x3_s2_pool4/3x3_s2_0_split
I0403 21:45:51.020279 24139 net.cpp:148] Top shape: 24 832 7 7 (978432)
I0403 21:45:51.020295 24139 net.cpp:148] Top shape: 24 832 7 7 (978432)
I0403 21:45:51.020311 24139 net.cpp:148] Top shape: 24 832 7 7 (978432)
I0403 21:45:51.020326 24139 net.cpp:148] Top shape: 24 832 7 7 (978432)
I0403 21:45:51.020340 24139 net.cpp:156] Memory required for data: 1292125728
I0403 21:45:51.020356 24139 layer_factory.hpp:77] Creating layer inception_5a/1x1
I0403 21:45:51.020378 24139 net.cpp:91] Creating Layer inception_5a/1x1
I0403 21:45:51.020395 24139 net.cpp:425] inception_5a/1x1 <- pool4/3x3_s2_pool4/3x3_s2_0_split_0
I0403 21:45:51.020416 24139 net.cpp:399] inception_5a/1x1 -> inception_5a/1x1
I0403 21:45:51.023213 24139 net.cpp:141] Setting up inception_5a/1x1
I0403 21:45:51.023241 24139 net.cpp:148] Top shape: 24 256 7 7 (301056)
I0403 21:45:51.023257 24139 net.cpp:156] Memory required for data: 1293329952
I0403 21:45:51.023277 24139 layer_factory.hpp:77] Creating layer inception_5a/relu_1x1
I0403 21:45:51.023296 24139 net.cpp:91] Creating Layer inception_5a/relu_1x1
I0403 21:45:51.023313 24139 net.cpp:425] inception_5a/relu_1x1 <- inception_5a/1x1
I0403 21:45:51.023331 24139 net.cpp:386] inception_5a/relu_1x1 -> inception_5a/1x1 (in-place)
I0403 21:45:51.023634 24139 net.cpp:141] Setting up inception_5a/relu_1x1
I0403 21:45:51.023660 24139 net.cpp:148] Top shape: 24 256 7 7 (301056)
I0403 21:45:51.023675 24139 net.cpp:156] Memory required for data: 1294534176
I0403 21:45:51.023691 24139 layer_factory.hpp:77] Creating layer inception_5a/3x3_reduce
I0403 21:45:51.023713 24139 net.cpp:91] Creating Layer inception_5a/3x3_reduce
I0403 21:45:51.023731 24139 net.cpp:425] inception_5a/3x3_reduce <- pool4/3x3_s2_pool4/3x3_s2_0_split_1
I0403 21:45:51.023753 24139 net.cpp:399] inception_5a/3x3_reduce -> inception_5a/3x3_reduce
I0403 21:45:51.026185 24139 net.cpp:141] Setting up inception_5a/3x3_reduce
I0403 21:45:51.026218 24139 net.cpp:148] Top shape: 24 160 7 7 (188160)
I0403 21:45:51.026235 24139 net.cpp:156] Memory required for data: 1295286816
I0403 21:45:51.026254 24139 layer_factory.hpp:77] Creating layer inception_5a/relu_3x3_reduce
I0403 21:45:51.026273 24139 net.cpp:91] Creating Layer inception_5a/relu_3x3_reduce
I0403 21:45:51.026289 24139 net.cpp:425] inception_5a/relu_3x3_reduce <- inception_5a/3x3_reduce
I0403 21:45:51.026309 24139 net.cpp:386] inception_5a/relu_3x3_reduce -> inception_5a/3x3_reduce (in-place)
I0403 21:45:51.026490 24139 net.cpp:141] Setting up inception_5a/relu_3x3_reduce
I0403 21:45:51.026515 24139 net.cpp:148] Top shape: 24 160 7 7 (188160)
I0403 21:45:51.026530 24139 net.cpp:156] Memory required for data: 1296039456
I0403 21:45:51.026545 24139 layer_factory.hpp:77] Creating layer inception_5a/3x3
I0403 21:45:51.026566 24139 net.cpp:91] Creating Layer inception_5a/3x3
I0403 21:45:51.026584 24139 net.cpp:425] inception_5a/3x3 <- inception_5a/3x3_reduce
I0403 21:45:51.026607 24139 net.cpp:399] inception_5a/3x3 -> inception_5a/3x3
I0403 21:45:51.031534 24139 net.cpp:141] Setting up inception_5a/3x3
I0403 21:45:51.031563 24139 net.cpp:148] Top shape: 24 320 7 7 (376320)
I0403 21:45:51.031579 24139 net.cpp:156] Memory required for data: 1297544736
I0403 21:45:51.031597 24139 layer_factory.hpp:77] Creating layer inception_5a/relu_3x3
I0403 21:45:51.031617 24139 net.cpp:91] Creating Layer inception_5a/relu_3x3
I0403 21:45:51.031635 24139 net.cpp:425] inception_5a/relu_3x3 <- inception_5a/3x3
I0403 21:45:51.031653 24139 net.cpp:386] inception_5a/relu_3x3 -> inception_5a/3x3 (in-place)
I0403 21:45:51.031939 24139 net.cpp:141] Setting up inception_5a/relu_3x3
I0403 21:45:51.031965 24139 net.cpp:148] Top shape: 24 320 7 7 (376320)
I0403 21:45:51.031980 24139 net.cpp:156] Memory required for data: 1299050016
I0403 21:45:51.031996 24139 layer_factory.hpp:77] Creating layer inception_5a/5x5_reduce
I0403 21:45:51.032018 24139 net.cpp:91] Creating Layer inception_5a/5x5_reduce
I0403 21:45:51.032035 24139 net.cpp:425] inception_5a/5x5_reduce <- pool4/3x3_s2_pool4/3x3_s2_0_split_2
I0403 21:45:51.032058 24139 net.cpp:399] inception_5a/5x5_reduce -> inception_5a/5x5_reduce
I0403 21:45:51.033308 24139 net.cpp:141] Setting up inception_5a/5x5_reduce
I0403 21:45:51.033336 24139 net.cpp:148] Top shape: 24 32 7 7 (37632)
I0403 21:45:51.033352 24139 net.cpp:156] Memory required for data: 1299200544
I0403 21:45:51.033371 24139 layer_factory.hpp:77] Creating layer inception_5a/relu_5x5_reduce
I0403 21:45:51.033393 24139 net.cpp:91] Creating Layer inception_5a/relu_5x5_reduce
I0403 21:45:51.033411 24139 net.cpp:425] inception_5a/relu_5x5_reduce <- inception_5a/5x5_reduce
I0403 21:45:51.033429 24139 net.cpp:386] inception_5a/relu_5x5_reduce -> inception_5a/5x5_reduce (in-place)
I0403 21:45:51.033723 24139 net.cpp:141] Setting up inception_5a/relu_5x5_reduce
I0403 21:45:51.033749 24139 net.cpp:148] Top shape: 24 32 7 7 (37632)
I0403 21:45:51.033764 24139 net.cpp:156] Memory required for data: 1299351072
I0403 21:45:51.033781 24139 layer_factory.hpp:77] Creating layer inception_5a/5x5
I0403 21:45:51.033803 24139 net.cpp:91] Creating Layer inception_5a/5x5
I0403 21:45:51.033820 24139 net.cpp:425] inception_5a/5x5 <- inception_5a/5x5_reduce
I0403 21:45:51.033843 24139 net.cpp:399] inception_5a/5x5 -> inception_5a/5x5
I0403 21:45:51.035526 24139 net.cpp:141] Setting up inception_5a/5x5
I0403 21:45:51.035564 24139 net.cpp:148] Top shape: 24 128 7 7 (150528)
I0403 21:45:51.035580 24139 net.cpp:156] Memory required for data: 1299953184
I0403 21:45:51.035599 24139 layer_factory.hpp:77] Creating layer inception_5a/relu_5x5
I0403 21:45:51.035619 24139 net.cpp:91] Creating Layer inception_5a/relu_5x5
I0403 21:45:51.035637 24139 net.cpp:425] inception_5a/relu_5x5 <- inception_5a/5x5
I0403 21:45:51.035655 24139 net.cpp:386] inception_5a/relu_5x5 -> inception_5a/5x5 (in-place)
I0403 21:45:51.035841 24139 net.cpp:141] Setting up inception_5a/relu_5x5
I0403 21:45:51.035866 24139 net.cpp:148] Top shape: 24 128 7 7 (150528)
I0403 21:45:51.035881 24139 net.cpp:156] Memory required for data: 1300555296
I0403 21:45:51.035897 24139 layer_factory.hpp:77] Creating layer inception_5a/pool
I0403 21:45:51.035917 24139 net.cpp:91] Creating Layer inception_5a/pool
I0403 21:45:51.035934 24139 net.cpp:425] inception_5a/pool <- pool4/3x3_s2_pool4/3x3_s2_0_split_3
I0403 21:45:51.035954 24139 net.cpp:399] inception_5a/pool -> inception_5a/pool
I0403 21:45:51.036026 24139 net.cpp:141] Setting up inception_5a/pool
I0403 21:45:51.036049 24139 net.cpp:148] Top shape: 24 832 7 7 (978432)
I0403 21:45:51.036064 24139 net.cpp:156] Memory required for data: 1304469024
I0403 21:45:51.036079 24139 layer_factory.hpp:77] Creating layer inception_5a/pool_proj
I0403 21:45:51.036101 24139 net.cpp:91] Creating Layer inception_5a/pool_proj
I0403 21:45:51.036119 24139 net.cpp:425] inception_5a/pool_proj <- inception_5a/pool
I0403 21:45:51.036140 24139 net.cpp:399] inception_5a/pool_proj -> inception_5a/pool_proj
I0403 21:45:51.038398 24139 net.cpp:141] Setting up inception_5a/pool_proj
I0403 21:45:51.038426 24139 net.cpp:148] Top shape: 24 128 7 7 (150528)
I0403 21:45:51.038444 24139 net.cpp:156] Memory required for data: 1305071136
I0403 21:45:51.038461 24139 layer_factory.hpp:77] Creating layer inception_5a/relu_pool_proj
I0403 21:45:51.038482 24139 net.cpp:91] Creating Layer inception_5a/relu_pool_proj
I0403 21:45:51.038499 24139 net.cpp:425] inception_5a/relu_pool_proj <- inception_5a/pool_proj
I0403 21:45:51.038519 24139 net.cpp:386] inception_5a/relu_pool_proj -> inception_5a/pool_proj (in-place)
I0403 21:45:51.038811 24139 net.cpp:141] Setting up inception_5a/relu_pool_proj
I0403 21:45:51.038837 24139 net.cpp:148] Top shape: 24 128 7 7 (150528)
I0403 21:45:51.038852 24139 net.cpp:156] Memory required for data: 1305673248
I0403 21:45:51.038868 24139 layer_factory.hpp:77] Creating layer inception_5a/output
I0403 21:45:51.038887 24139 net.cpp:91] Creating Layer inception_5a/output
I0403 21:45:51.038902 24139 net.cpp:425] inception_5a/output <- inception_5a/1x1
I0403 21:45:51.038920 24139 net.cpp:425] inception_5a/output <- inception_5a/3x3
I0403 21:45:51.038938 24139 net.cpp:425] inception_5a/output <- inception_5a/5x5
I0403 21:45:51.038955 24139 net.cpp:425] inception_5a/output <- inception_5a/pool_proj
I0403 21:45:51.038975 24139 net.cpp:399] inception_5a/output -> inception_5a/output
I0403 21:45:51.039023 24139 net.cpp:141] Setting up inception_5a/output
I0403 21:45:51.039049 24139 net.cpp:148] Top shape: 24 832 7 7 (978432)
I0403 21:45:51.039065 24139 net.cpp:156] Memory required for data: 1309586976
I0403 21:45:51.039082 24139 layer_factory.hpp:77] Creating layer inception_5a/output_inception_5a/output_0_split
I0403 21:45:51.039098 24139 net.cpp:91] Creating Layer inception_5a/output_inception_5a/output_0_split
I0403 21:45:51.039114 24139 net.cpp:425] inception_5a/output_inception_5a/output_0_split <- inception_5a/output
I0403 21:45:51.039132 24139 net.cpp:399] inception_5a/output_inception_5a/output_0_split -> inception_5a/output_inception_5a/output_0_split_0
I0403 21:45:51.039152 24139 net.cpp:399] inception_5a/output_inception_5a/output_0_split -> inception_5a/output_inception_5a/output_0_split_1
I0403 21:45:51.039175 24139 net.cpp:399] inception_5a/output_inception_5a/output_0_split -> inception_5a/output_inception_5a/output_0_split_2
I0403 21:45:51.039201 24139 net.cpp:399] inception_5a/output_inception_5a/output_0_split -> inception_5a/output_inception_5a/output_0_split_3
I0403 21:45:51.039312 24139 net.cpp:141] Setting up inception_5a/output_inception_5a/output_0_split
I0403 21:45:51.039336 24139 net.cpp:148] Top shape: 24 832 7 7 (978432)
I0403 21:45:51.039353 24139 net.cpp:148] Top shape: 24 832 7 7 (978432)
I0403 21:45:51.039369 24139 net.cpp:148] Top shape: 24 832 7 7 (978432)
I0403 21:45:51.039386 24139 net.cpp:148] Top shape: 24 832 7 7 (978432)
I0403 21:45:51.039399 24139 net.cpp:156] Memory required for data: 1325241888
I0403 21:45:51.039414 24139 layer_factory.hpp:77] Creating layer inception_5b/1x1
I0403 21:45:51.039438 24139 net.cpp:91] Creating Layer inception_5b/1x1
I0403 21:45:51.039455 24139 net.cpp:425] inception_5b/1x1 <- inception_5a/output_inception_5a/output_0_split_0
I0403 21:45:51.039477 24139 net.cpp:399] inception_5b/1x1 -> inception_5b/1x1
I0403 21:45:51.043179 24139 net.cpp:141] Setting up inception_5b/1x1
I0403 21:45:51.043215 24139 net.cpp:148] Top shape: 24 384 7 7 (451584)
I0403 21:45:51.043231 24139 net.cpp:156] Memory required for data: 1327048224
I0403 21:45:51.043251 24139 layer_factory.hpp:77] Creating layer inception_5b/relu_1x1
I0403 21:45:51.043268 24139 net.cpp:91] Creating Layer inception_5b/relu_1x1
I0403 21:45:51.043285 24139 net.cpp:425] inception_5b/relu_1x1 <- inception_5b/1x1
I0403 21:45:51.043305 24139 net.cpp:386] inception_5b/relu_1x1 -> inception_5b/1x1 (in-place)
I0403 21:45:51.043599 24139 net.cpp:141] Setting up inception_5b/relu_1x1
I0403 21:45:51.043630 24139 net.cpp:148] Top shape: 24 384 7 7 (451584)
I0403 21:45:51.043648 24139 net.cpp:156] Memory required for data: 1328854560
I0403 21:45:51.043663 24139 layer_factory.hpp:77] Creating layer inception_5b/3x3_reduce
I0403 21:45:51.043685 24139 net.cpp:91] Creating Layer inception_5b/3x3_reduce
I0403 21:45:51.043704 24139 net.cpp:425] inception_5b/3x3_reduce <- inception_5a/output_inception_5a/output_0_split_1
I0403 21:45:51.043723 24139 net.cpp:399] inception_5b/3x3_reduce -> inception_5b/3x3_reduce
I0403 21:45:51.046329 24139 net.cpp:141] Setting up inception_5b/3x3_reduce
I0403 21:45:51.046357 24139 net.cpp:148] Top shape: 24 192 7 7 (225792)
I0403 21:45:51.046373 24139 net.cpp:156] Memory required for data: 1329757728
I0403 21:45:51.046392 24139 layer_factory.hpp:77] Creating layer inception_5b/relu_3x3_reduce
I0403 21:45:51.046411 24139 net.cpp:91] Creating Layer inception_5b/relu_3x3_reduce
I0403 21:45:51.046428 24139 net.cpp:425] inception_5b/relu_3x3_reduce <- inception_5b/3x3_reduce
I0403 21:45:51.046448 24139 net.cpp:386] inception_5b/relu_3x3_reduce -> inception_5b/3x3_reduce (in-place)
I0403 21:45:51.046632 24139 net.cpp:141] Setting up inception_5b/relu_3x3_reduce
I0403 21:45:51.046658 24139 net.cpp:148] Top shape: 24 192 7 7 (225792)
I0403 21:45:51.046672 24139 net.cpp:156] Memory required for data: 1330660896
I0403 21:45:51.046687 24139 layer_factory.hpp:77] Creating layer inception_5b/3x3
I0403 21:45:51.046710 24139 net.cpp:91] Creating Layer inception_5b/3x3
I0403 21:45:51.046728 24139 net.cpp:425] inception_5b/3x3 <- inception_5b/3x3_reduce
I0403 21:45:51.046751 24139 net.cpp:399] inception_5b/3x3 -> inception_5b/3x3
I0403 21:45:51.053324 24139 net.cpp:141] Setting up inception_5b/3x3
I0403 21:45:51.053351 24139 net.cpp:148] Top shape: 24 384 7 7 (451584)
I0403 21:45:51.053367 24139 net.cpp:156] Memory required for data: 1332467232
I0403 21:45:51.053386 24139 layer_factory.hpp:77] Creating layer inception_5b/relu_3x3
I0403 21:45:51.053405 24139 net.cpp:91] Creating Layer inception_5b/relu_3x3
I0403 21:45:51.053421 24139 net.cpp:425] inception_5b/relu_3x3 <- inception_5b/3x3
I0403 21:45:51.053442 24139 net.cpp:386] inception_5b/relu_3x3 -> inception_5b/3x3 (in-place)
I0403 21:45:51.053738 24139 net.cpp:141] Setting up inception_5b/relu_3x3
I0403 21:45:51.053763 24139 net.cpp:148] Top shape: 24 384 7 7 (451584)
I0403 21:45:51.053778 24139 net.cpp:156] Memory required for data: 1334273568
I0403 21:45:51.053794 24139 layer_factory.hpp:77] Creating layer inception_5b/5x5_reduce
I0403 21:45:51.053833 24139 net.cpp:91] Creating Layer inception_5b/5x5_reduce
I0403 21:45:51.053850 24139 net.cpp:425] inception_5b/5x5_reduce <- inception_5a/output_inception_5a/output_0_split_2
I0403 21:45:51.053874 24139 net.cpp:399] inception_5b/5x5_reduce -> inception_5b/5x5_reduce
I0403 21:45:51.055114 24139 net.cpp:141] Setting up inception_5b/5x5_reduce
I0403 21:45:51.055141 24139 net.cpp:148] Top shape: 24 48 7 7 (56448)
I0403 21:45:51.055156 24139 net.cpp:156] Memory required for data: 1334499360
I0403 21:45:51.055176 24139 layer_factory.hpp:77] Creating layer inception_5b/relu_5x5_reduce
I0403 21:45:51.055193 24139 net.cpp:91] Creating Layer inception_5b/relu_5x5_reduce
I0403 21:45:51.055214 24139 net.cpp:425] inception_5b/relu_5x5_reduce <- inception_5b/5x5_reduce
I0403 21:45:51.055234 24139 net.cpp:386] inception_5b/relu_5x5_reduce -> inception_5b/5x5_reduce (in-place)
I0403 21:45:51.055600 24139 net.cpp:141] Setting up inception_5b/relu_5x5_reduce
I0403 21:45:51.055626 24139 net.cpp:148] Top shape: 24 48 7 7 (56448)
I0403 21:45:51.055642 24139 net.cpp:156] Memory required for data: 1334725152
I0403 21:45:51.055657 24139 layer_factory.hpp:77] Creating layer inception_5b/5x5
I0403 21:45:51.055678 24139 net.cpp:91] Creating Layer inception_5b/5x5
I0403 21:45:51.055694 24139 net.cpp:425] inception_5b/5x5 <- inception_5b/5x5_reduce
I0403 21:45:51.055713 24139 net.cpp:399] inception_5b/5x5 -> inception_5b/5x5
I0403 21:45:51.057754 24139 net.cpp:141] Setting up inception_5b/5x5
I0403 21:45:51.057781 24139 net.cpp:148] Top shape: 24 128 7 7 (150528)
I0403 21:45:51.057797 24139 net.cpp:156] Memory required for data: 1335327264
I0403 21:45:51.057816 24139 layer_factory.hpp:77] Creating layer inception_5b/relu_5x5
I0403 21:45:51.057835 24139 net.cpp:91] Creating Layer inception_5b/relu_5x5
I0403 21:45:51.057853 24139 net.cpp:425] inception_5b/relu_5x5 <- inception_5b/5x5
I0403 21:45:51.057871 24139 net.cpp:386] inception_5b/relu_5x5 -> inception_5b/5x5 (in-place)
I0403 21:45:51.058060 24139 net.cpp:141] Setting up inception_5b/relu_5x5
I0403 21:45:51.058084 24139 net.cpp:148] Top shape: 24 128 7 7 (150528)
I0403 21:45:51.058102 24139 net.cpp:156] Memory required for data: 1335929376
I0403 21:45:51.058117 24139 layer_factory.hpp:77] Creating layer inception_5b/pool
I0403 21:45:51.058135 24139 net.cpp:91] Creating Layer inception_5b/pool
I0403 21:45:51.058151 24139 net.cpp:425] inception_5b/pool <- inception_5a/output_inception_5a/output_0_split_3
I0403 21:45:51.058169 24139 net.cpp:399] inception_5b/pool -> inception_5b/pool
I0403 21:45:51.058259 24139 net.cpp:141] Setting up inception_5b/pool
I0403 21:45:51.058284 24139 net.cpp:148] Top shape: 24 832 7 7 (978432)
I0403 21:45:51.058298 24139 net.cpp:156] Memory required for data: 1339843104
I0403 21:45:51.058313 24139 layer_factory.hpp:77] Creating layer inception_5b/pool_proj
I0403 21:45:51.058336 24139 net.cpp:91] Creating Layer inception_5b/pool_proj
I0403 21:45:51.058353 24139 net.cpp:425] inception_5b/pool_proj <- inception_5b/pool
I0403 21:45:51.058374 24139 net.cpp:399] inception_5b/pool_proj -> inception_5b/pool_proj
I0403 21:45:51.060660 24139 net.cpp:141] Setting up inception_5b/pool_proj
I0403 21:45:51.060688 24139 net.cpp:148] Top shape: 24 128 7 7 (150528)
I0403 21:45:51.060704 24139 net.cpp:156] Memory required for data: 1340445216
I0403 21:45:51.060724 24139 layer_factory.hpp:77] Creating layer inception_5b/relu_pool_proj
I0403 21:45:51.060741 24139 net.cpp:91] Creating Layer inception_5b/relu_pool_proj
I0403 21:45:51.060761 24139 net.cpp:425] inception_5b/relu_pool_proj <- inception_5b/pool_proj
I0403 21:45:51.060780 24139 net.cpp:386] inception_5b/relu_pool_proj -> inception_5b/pool_proj (in-place)
I0403 21:45:51.061067 24139 net.cpp:141] Setting up inception_5b/relu_pool_proj
I0403 21:45:51.061092 24139 net.cpp:148] Top shape: 24 128 7 7 (150528)
I0403 21:45:51.061107 24139 net.cpp:156] Memory required for data: 1341047328
I0403 21:45:51.061122 24139 layer_factory.hpp:77] Creating layer inception_5b/output
I0403 21:45:51.061141 24139 net.cpp:91] Creating Layer inception_5b/output
I0403 21:45:51.061170 24139 net.cpp:425] inception_5b/output <- inception_5b/1x1
I0403 21:45:51.061188 24139 net.cpp:425] inception_5b/output <- inception_5b/3x3
I0403 21:45:51.061209 24139 net.cpp:425] inception_5b/output <- inception_5b/5x5
I0403 21:45:51.061228 24139 net.cpp:425] inception_5b/output <- inception_5b/pool_proj
I0403 21:45:51.061246 24139 net.cpp:399] inception_5b/output -> inception_5b/output
I0403 21:45:51.061297 24139 net.cpp:141] Setting up inception_5b/output
I0403 21:45:51.061324 24139 net.cpp:148] Top shape: 24 1024 7 7 (1204224)
I0403 21:45:51.061339 24139 net.cpp:156] Memory required for data: 1345864224
I0403 21:45:51.061354 24139 layer_factory.hpp:77] Creating layer pool5/7x7_s1
I0403 21:45:51.061372 24139 net.cpp:91] Creating Layer pool5/7x7_s1
I0403 21:45:51.061388 24139 net.cpp:425] pool5/7x7_s1 <- inception_5b/output
I0403 21:45:51.061410 24139 net.cpp:399] pool5/7x7_s1 -> pool5/7x7_s1
I0403 21:45:51.061619 24139 net.cpp:141] Setting up pool5/7x7_s1
I0403 21:45:51.061643 24139 net.cpp:148] Top shape: 24 1024 1 1 (24576)
I0403 21:45:51.061658 24139 net.cpp:156] Memory required for data: 1345962528
I0403 21:45:51.061674 24139 layer_factory.hpp:77] Creating layer pool5/drop_7x7_s1
I0403 21:45:51.061691 24139 net.cpp:91] Creating Layer pool5/drop_7x7_s1
I0403 21:45:51.061707 24139 net.cpp:425] pool5/drop_7x7_s1 <- pool5/7x7_s1
I0403 21:45:51.061728 24139 net.cpp:386] pool5/drop_7x7_s1 -> pool5/7x7_s1 (in-place)
I0403 21:45:51.061777 24139 net.cpp:141] Setting up pool5/drop_7x7_s1
I0403 21:45:51.061802 24139 net.cpp:148] Top shape: 24 1024 1 1 (24576)
I0403 21:45:51.061818 24139 net.cpp:156] Memory required for data: 1346060832
I0403 21:45:51.061833 24139 layer_factory.hpp:77] Creating layer loss3/classifier_plantvillage
I0403 21:45:51.061852 24139 net.cpp:91] Creating Layer loss3/classifier_plantvillage
I0403 21:45:51.061869 24139 net.cpp:425] loss3/classifier_plantvillage <- pool5/7x7_s1
I0403 21:45:51.061890 24139 net.cpp:399] loss3/classifier_plantvillage -> loss3/classifier_plantvillage
I0403 21:45:51.062309 24139 net.cpp:141] Setting up loss3/classifier_plantvillage
I0403 21:45:51.062335 24139 net.cpp:148] Top shape: 24 38 (912)
I0403 21:45:51.062350 24139 net.cpp:156] Memory required for data: 1346064480
I0403 21:45:51.062368 24139 layer_factory.hpp:77] Creating layer loss3/classifier_plantvillage_loss3/classifier_plantvillage_0_split
I0403 21:45:51.062386 24139 net.cpp:91] Creating Layer loss3/classifier_plantvillage_loss3/classifier_plantvillage_0_split
I0403 21:45:51.062403 24139 net.cpp:425] loss3/classifier_plantvillage_loss3/classifier_plantvillage_0_split <- loss3/classifier_plantvillage
I0403 21:45:51.062422 24139 net.cpp:399] loss3/classifier_plantvillage_loss3/classifier_plantvillage_0_split -> loss3/classifier_plantvillage_loss3/classifier_plantvillage_0_split_0
I0403 21:45:51.062441 24139 net.cpp:399] loss3/classifier_plantvillage_loss3/classifier_plantvillage_0_split -> loss3/classifier_plantvillage_loss3/classifier_plantvillage_0_split_1
I0403 21:45:51.062465 24139 net.cpp:399] loss3/classifier_plantvillage_loss3/classifier_plantvillage_0_split -> loss3/classifier_plantvillage_loss3/classifier_plantvillage_0_split_2
I0403 21:45:51.062491 24139 net.cpp:399] loss3/classifier_plantvillage_loss3/classifier_plantvillage_0_split -> loss3/classifier_plantvillage_loss3/classifier_plantvillage_0_split_3
I0403 21:45:51.062592 24139 net.cpp:141] Setting up loss3/classifier_plantvillage_loss3/classifier_plantvillage_0_split
I0403 21:45:51.062615 24139 net.cpp:148] Top shape: 24 38 (912)
I0403 21:45:51.062633 24139 net.cpp:148] Top shape: 24 38 (912)
I0403 21:45:51.062649 24139 net.cpp:148] Top shape: 24 38 (912)
I0403 21:45:51.062664 24139 net.cpp:148] Top shape: 24 38 (912)
I0403 21:45:51.062677 24139 net.cpp:156] Memory required for data: 1346079072
I0403 21:45:51.062692 24139 layer_factory.hpp:77] Creating layer loss1/loss
I0403 21:45:51.062718 24139 net.cpp:91] Creating Layer loss1/loss
I0403 21:45:51.062737 24139 net.cpp:425] loss1/loss <- loss1/classifier_plantvillage_loss1/classifier_plantvillage_0_split_0
I0403 21:45:51.062767 24139 net.cpp:425] loss1/loss <- label_data_1_split_0
…
