…
I0403 21:53:00.395395 24572 net.cpp:313] The NetState phase (1) differed from the phase (0) specified by a rule in layer data
I0403 21:53:00.396508 24572 net.cpp:49] Initializing net from parameters: 
state {
  phase: TEST
}
layer {
  name: "data"
  type: "Data"
  top: "data"
  top: "label"
  include {
    phase: TEST
  }
  transform_param {
    mirror: false
    crop_size: 224
    mean_file: "/home/mohanty/data/final_dataset/lmdb/segmented-80-20/mean.binaryproto"
  }
  data_param {
    source: "/home/mohanty/data/final_dataset/lmdb/segmented-80-20/test_db"
    batch_size: 24
    backend: LMDB
  }
}
layer {
  name: "conv1/7x7_s2"
  type: "Convolution"
  bottom: "data"
  top: "conv1/7x7_s2"
  param {
    lr_mult: 1
    decay_mult: 1
  }
  param {
    lr_mult: 2
    decay_mult: 0
  }
  convolution_param {
    num_output: 64
    pad: 3
    kernel_size: 7
    stride: 2
    weight_filler {
      type: "xavier"
      std: 0.1
    }
    bias_filler {
      type: "constant"
      value: 0.2
    }
  }
}
layer {
  name: "conv1/relu_7x7"
  type: "ReLU"
  bottom: "conv1/7x7_s2"
  top: "conv1/7x7_s2"
}
layer {
  name: "pool1/3x3_s2"
  type: "Pooling"
  bottom: "conv1/7x7_s2"
  top: "pool1/3x3_s2"
  pooling_param {
    pool: MAX
    kernel_size: 3
    stride: 2
  }
}
layer {
  name: "pool1/norm1"
  type: "LRN"
  bottom: "pool1/3x3_s2"
  top: "pool1/norm1"
  lrn_param {
    local_size: 5
    alpha: 0.0001
    beta: 0.75
  }
}
layer {
  name: "conv2/3x3_reduce"
  type: "Convolution"
  bottom: "pool1/norm1"
  top: "conv2/3x3_reduce"
  param {
    lr_mult: 1
    decay_mult: 1
  }
  param {
    lr_mult: 2
    decay_mult: 0
  }
  convolution_param {
    num_output: 64
    kernel_size: 1
    weight_filler {
      type: "xavier"
      std: 0.1
    }
    bias_filler {
      type: "constant"
      value: 0.2
    }
  }
}
layer {
  name: "conv2/relu_3x3_reduce"
  type: "ReLU"
  bottom: "conv2/3x3_reduce"
  top: "conv2/3x3_reduce"
}
layer {
  name: "conv2/3x3"
  type: "Convolution"
  bottom: "conv2/3x3_reduce"
  top: "conv2/3x3"
  param {
    lr_mult: 1
    decay_mult: 1
  }
  param {
    lr_mult: 2
    decay_mult: 0
  }
  convolution_param {
    num_output: 192
    pad: 1
    kernel_size: 3
    weight_filler {
      type: "xavier"
      std: 0.03
    }
    bias_filler {
      type: "constant"
      value: 0.2
    }
  }
}
layer {
  name: "conv2/relu_3x3"
  type: "ReLU"
  bottom: "conv2/3x3"
  top: "conv2/3x3"
}
layer {
  name: "conv2/norm2"
  type: "LRN"
  bottom: "conv2/3x3"
  top: "conv2/norm2"
  lrn_param {
    local_size: 5
    alpha: 0.0001
    beta: 0.75
  }
}
layer {
  name: "pool2/3x3_s2"
  type: "Pooling"
  bottom: "conv2/norm2"
  top: "pool2/3x3_s2"
  pooling_param {
    pool: MAX
    kernel_size: 3
    stride: 2
  }
}
layer {
  name: "inception_3a/1x1"
  type: "Convolution"
  bottom: "pool2/3x3_s2"
  top: "inception_3a/1x1"
  param {
    lr_mult: 1
    decay_mult: 1
  }
  param {
    lr_mult: 2
    decay_mult: 0
  }
  convolution_param {
    num_output: 64
    kernel_size: 1
    weight_filler {
      type: "xavier"
      std: 0.03
    }
    bias_filler {
      type: "constant"
      value: 0.2
    }
  }
}
layer {
  name: "inception_3a/relu_1x1"
  type: "ReLU"
  bottom: "inception_3a/1x1"
  top: "inception_3a/1x1"
}
layer {
  name: "inception_3a/3x3_reduce"
  type: "Convolution"
  bottom: "pool2/3x3_s2"
  top: "inception_3a/3x3_reduce"
  param {
    lr_mult: 1
    decay_mult: 1
  }
  param {
    lr_mult: 2
    decay_mult: 0
  }
  convolution_param {
    num_output: 96
    kernel_size: 1
    weight_filler {
      type: "xavier"
      std: 0.09
    }
    bias_filler {
      type: "constant"
      value: 0.2
    }
  }
}
layer {
  name: "inception_3a/relu_3x3_reduce"
  type: "ReLU"
  bottom: "inception_3a/3x3_reduce"
  top: "inception_3a/3x3_reduce"
}
layer {
  name: "inception_3a/3x3"
  type: "Convolution"
  bottom: "inception_3a/3x3_reduce"
  top: "inception_3a/3x3"
  param {
    lr_mult: 1
    decay_mult: 1
  }
  param {
    lr_mult: 2
    decay_mult: 0
  }
  convolution_param {
    num_output: 128
    pad: 1
    kernel_size: 3
    weight_filler {
      type: "xavier"
      std: 0.03
    }
    bias_filler {
      type: "constant"
      value: 0.2
    }
  }
}
layer {
  name: "inception_3a/relu_3x3"
  type: "ReLU"
  bottom: "inception_3a/3x3"
  top: "inception_3a/3x3"
}
layer {
  name: "inception_3a/5x5_reduce"
  type: "Convolution"
  bottom: "pool2/3x3_s2"
  top: "inception_3a/5x5_reduce"
  param {
    lr_mult: 1
    decay_mult: 1
  }
  param {
    lr_mult: 2
    decay_mult: 0
  }
  convolution_param {
    num_output: 16
    kernel_size: 1
    weight_filler {
      type: "xavier"
      std: 0.2
    }
    bias_filler {
      type: "constant"
      value: 0.2
    }
  }
}
layer {
  name: "inception_3a/relu_5x5_reduce"
  type: "ReLU"
  bottom: "inception_3a/5x5_reduce"
  top: "inception_3a/5x5_reduce"
}
layer {
  name: "inception_3a/5x5"
  type: "Convolution"
  bottom: "inception_3a/5x5_reduce"
  top: "inception_3a/5x5"
  param {
    lr_mult: 1
    decay_mult: 1
  }
  param {
    lr_mult: 2
    decay_mult: 0
  }
  convolution_param {
    num_output: 32
    pad: 2
    kernel_size: 5
    weight_filler {
      type: "xavier"
      std: 0.03
    }
    bias_filler {
      type: "constant"
      value: 0.2
    }
  }
}
layer {
  name: "inception_3a/relu_5x5"
  type: "ReLU"
  bottom: "inception_3a/5x5"
  top: "inception_3a/5x5"
}
layer {
  name: "inception_3a/pool"
  type: "Pooling"
  bottom: "pool2/3x3_s2"
  top: "inception_3a/pool"
  pooling_param {
    pool: MAX
    kernel_size: 3
    stride: 1
    pad: 1
  }
}
layer {
  name: "inception_3a/pool_proj"
  type: "Convolution"
  bottom: "inception_3a/pool"
  top: "inception_3a/pool_proj"
  param {
    lr_mult: 1
    decay_mult: 1
  }
  param {
    lr_mult: 2
    decay_mult: 0
  }
  convolution_param {
    num_output: 32
    kernel_size: 1
    weight_filler {
      type: "xavier"
      std: 0.1
    }
    bias_filler {
      type: "constant"
      value: 0.2
    }
  }
}
layer {
  name: "inception_3a/relu_pool_proj"
  type: "ReLU"
  bottom: "inception_3a/pool_proj"
  top: "inception_3a/pool_proj"
}
layer {
  name: "inception_3a/output"
  type: "Concat"
  bottom: "inception_3a/1x1"
  bottom: "inception_3a/3x3"
  bottom: "inception_3a/5x5"
  bottom: "inception_3a/pool_proj"
  top: "inception_3a/output"
}
layer {
  name: "inception_3b/1x1"
  type: "Convolution"
  bottom: "inception_3a/output"
  top: "inception_3b/1x1"
  param {
    lr_mult: 1
    decay_mult: 1
  }
  param {
    lr_mult: 2
    decay_mult: 0
  }
  convolution_param {
    num_output: 128
    kernel_size: 1
    weight_filler {
      type: "xavier"
      std: 0.03
    }
    bias_filler {
      type: "constant"
      value: 0.2
    }
  }
}
layer {
  name: "inception_3b/relu_1x1"
  type: "ReLU"
  bottom: "inception_3b/1x1"
  top: "inception_3b/1x1"
}
layer {
  name: "inception_3b/3x3_reduce"
  type: "Convolution"
  bottom: "inception_3a/output"
  top: "inception_3b/3x3_reduce"
  param {
    lr_mult: 1
    decay_mult: 1
  }
  param {
    lr_mult: 2
    decay_mult: 0
  }
  convolution_param {
    num_output: 128
    kernel_size: 1
    weight_filler {
      type: "xavier"
      std: 0.09
    }
    bias_filler {
      type: "constant"
      value: 0.2
    }
  }
}
layer {
  name: "inception_3b/relu_3x3_reduce"
  type: "ReLU"
  bottom: "inception_3b/3x3_reduce"
  top: "inception_3b/3x3_reduce"
}
layer {
  name: "inception_3b/3x3"
  type: "Convolution"
  bottom: "inception_3b/3x3_reduce"
  top: "inception_3b/3x3"
  param {
    lr_mult: 1
    decay_mult: 1
  }
  param {
    lr_mult: 2
    decay_mult: 0
  }
  convolution_param {
    num_output: 192
    pad: 1
    kernel_size: 3
    weight_filler {
      type: "xavier"
      std: 0.03
    }
    bias_filler {
      type: "constant"
      value: 0.2
    }
  }
}
layer {
  name: "inception_3b/relu_3x3"
  type: "ReLU"
  bottom: "inception_3b/3x3"
  top: "inception_3b/3x3"
}
layer {
  name: "inception_3b/5x5_reduce"
  type: "Convolution"
  bottom: "inception_3a/output"
  top: "inception_3b/5x5_reduce"
  param {
    lr_mult: 1
    decay_mult: 1
  }
  param {
    lr_mult: 2
    decay_mult: 0
  }
  convolution_param {
    num_output: 32
    kernel_size: 1
    weight_filler {
      type: "xavier"
      std: 0.2
    }
    bias_filler {
      type: "constant"
      value: 0.2
    }
  }
}
layer {
  name: "inception_3b/relu_5x5_reduce"
  type: "ReLU"
  bottom: "inception_3b/5x5_reduce"
  top: "inception_3b/5x5_reduce"
}
layer {
  name: "inception_3b/5x5"
  type: "Convolution"
  bottom: "inception_3b/5x5_reduce"
  top: "inception_3b/5x5"
  param {
    lr_mult: 1
    decay_mult: 1
  }
  param {
    lr_mult: 2
    decay_mult: 0
  }
  convolution_param {
    num_output: 96
    pad: 2
    kernel_size: 5
    weight_filler {
      type: "xavier"
      std: 0.03
    }
    bias_filler {
      type: "constant"
      value: 0.2
    }
  }
}
layer {
  name: "inception_3b/relu_5x5"
  type: "ReLU"
  bottom: "inception_3b/5x5"
  top: "inception_3b/5x5"
}
layer {
  name: "inception_3b/pool"
  type: "Pooling"
  bottom: "inception_3a/output"
  top: "inception_3b/pool"
  pooling_param {
    pool: MAX
    kernel_size: 3
    stride: 1
    pad: 1
  }
}
layer {
  name: "inception_3b/pool_proj"
  type: "Convolution"
  bottom: "inception_3b/pool"
  top: "inception_3b/pool_proj"
  param {
    lr_mult: 1
    decay_mult: 1
  }
  param {
    lr_mult: 2
    decay_mult: 0
  }
  convolution_param {
    num_output: 64
    kernel_size: 1
    weight_filler {
      type: "xavier"
      std: 0.1
    }
    bias_filler {
      type: "constant"
      value: 0.2
    }
  }
}
layer {
  name: "inception_3b/relu_pool_proj"
  type: "ReLU"
  bottom: "inception_3b/pool_proj"
  top: "inception_3b/pool_proj"
}
layer {
  name: "inception_3b/output"
  type: "Concat"
  bottom: "inception_3b/1x1"
  bottom: "inception_3b/3x3"
  bottom: "inception_3b/5x5"
  bottom: "inception_3b/pool_proj"
  top: "inception_3b/output"
}
layer {
  name: "pool3/3x3_s2"
  type: "Pooling"
  bottom: "inception_3b/output"
  top: "pool3/3x3_s2"
  pooling_param {
    pool: MAX
    kernel_size: 3
    stride: 2
  }
}
layer {
  name: "inception_4a/1x1"
  type: "Convolution"
  bottom: "pool3/3x3_s2"
  top: "inception_4a/1x1"
  param {
    lr_mult: 1
    decay_mult: 1
  }
  param {
    lr_mult: 2
    decay_mult: 0
  }
  convolution_param {
    num_output: 192
    kernel_size: 1
    weight_filler {
      type: "xavier"
      std: 0.03
    }
    bias_filler {
      type: "constant"
      value: 0.2
    }
  }
}
layer {
  name: "inception_4a/relu_1x1"
  type: "ReLU"
  bottom: "inception_4a/1x1"
  top: "inception_4a/1x1"
}
layer {
  name: "inception_4a/3x3_reduce"
  type: "Convolution"
  bottom: "pool3/3x3_s2"
  top: "inception_4a/3x3_reduce"
  param {
    lr_mult: 1
    decay_mult: 1
  }
  param {
    lr_mult: 2
    decay_mult: 0
  }
  convolution_param {
    num_output: 96
    kernel_size: 1
    weight_filler {
      type: "xavier"
      std: 0.09
    }
    bias_filler {
      type: "constant"
      value: 0.2
    }
  }
}
layer {
  name: "inception_4a/relu_3x3_reduce"
  type: "ReLU"
  bottom: "inception_4a/3x3_reduce"
  top: "inception_4a/3x3_reduce"
}
layer {
  name: "inception_4a/3x3"
  type: "Convolution"
  bottom: "inception_4a/3x3_reduce"
  top: "inception_4a/3x3"
  param {
    lr_mult: 1
    decay_mult: 1
  }
  param {
    lr_mult: 2
    decay_mult: 0
  }
  convolution_param {
    num_output: 208
    pad: 1
    kernel_size: 3
    weight_filler {
      type: "xavier"
      std: 0.03
    }
    bias_filler {
      type: "constant"
      value: 0.2
    }
  }
}
layer {
  name: "inception_4a/relu_3x3"
  type: "ReLU"
  bottom: "inception_4a/3x3"
  top: "inception_4a/3x3"
}
layer {
  name: "inception_4a/5x5_reduce"
  type: "Convolution"
  bottom: "pool3/3x3_s2"
  top: "inception_4a/5x5_reduce"
  param {
    lr_mult: 1
    decay_mult: 1
  }
  param {
    lr_mult: 2
    decay_mult: 0
  }
  convolution_param {
    num_output: 16
    kernel_size: 1
    weight_filler {
      type: "xavier"
      std: 0.2
    }
    bias_filler {
      type: "constant"
      value: 0.2
    }
  }
}
layer {
  name: "inception_4a/relu_5x5_reduce"
  type: "ReLU"
  bottom: "inception_4a/5x5_reduce"
  top: "inception_4a/5x5_reduce"
}
layer {
  name: "inception_4a/5x5"
  type: "Convolution"
  bottom: "inception_4a/5x5_reduce"
  top: "inception_4a/5x5"
  param {
    lr_mult: 1
    decay_mult: 1
  }
  param {
    lr_mult: 2
    decay_mult: 0
  }
  convolution_param {
    num_output: 48
    pad: 2
    kernel_size: 5
    weight_filler {
      type: "xavier"
      std: 0.03
    }
    bias_filler {
      type: "constant"
      value: 0.2
    }
  }
}
layer {
  name: "inception_4a/relu_5x5"
  type: "ReLU"
  bottom: "inception_4a/5x5"
  top: "inception_4a/5x5"
}
layer {
  name: "inception_4a/pool"
  type: "Pooling"
  bottom: "pool3/3x3_s2"
  top: "inception_4a/pool"
  pooling_param {
    pool: MAX
    kernel_size: 3
    stride: 1
    pad: 1
  }
}
layer {
  name: "inception_4a/pool_proj"
  type: "Convolution"
  bottom: "inception_4a/pool"
  top: "inception_4a/pool_proj"
  param {
    lr_mult: 1
    decay_mult: 1
  }
  param {
    lr_mult: 2
    decay_mult: 0
  }
  convolution_param {
    num_output: 64
    kernel_size: 1
    weight_filler {
      type: "xavier"
      std: 0.1
    }
    bias_filler {
      type: "constant"
      value: 0.2
    }
  }
}
layer {
  name: "inception_4a/relu_pool_proj"
  type: "ReLU"
  bottom: "inception_4a/pool_proj"
  top: "inception_4a/pool_proj"
}
layer {
  name: "inception_4a/output"
  type: "Concat"
  bottom: "inception_4a/1x1"
  bottom: "inception_4a/3x3"
  bottom: "inception_4a/5x5"
  bottom: "inception_4a/pool_proj"
  top: "inception_4a/output"
}
layer {
  name: "loss1/ave_pool"
  type: "Pooling"
  bottom: "inception_4a/output"
  top: "loss1/ave_pool"
  pooling_param {
    pool: AVE
    kernel_size: 5
    stride: 3
  }
}
layer {
  name: "loss1/conv"
  type: "Convolution"
  bottom: "loss1/ave_pool"
  top: "loss1/conv"
  param {
    lr_mult: 1
    decay_mult: 1
  }
  param {
    lr_mult: 2
    decay_mult: 0
  }
  convolution_param {
    num_output: 128
    kernel_size: 1
    weight_filler {
      type: "xavier"
      std: 0.08
    }
    bias_filler {
      type: "constant"
      value: 0.2
    }
  }
}
layer {
  name: "loss1/relu_conv"
  type: "ReLU"
  bottom: "loss1/conv"
  top: "loss1/conv"
}
layer {
  name: "loss1/fc"
  type: "InnerProduct"
  bottom: "loss1/conv"
  top: "loss1/fc"
  param {
    lr_mult: 1
    decay_mult: 1
  }
  param {
    lr_mult: 2
    decay_mult: 0
  }
  inner_product_param {
    num_output: 1024
    weight_filler {
      type: "xavier"
      std: 0.02
    }
    bias_filler {
      type: "constant"
      value: 0.2
    }
  }
}
layer {
  name: "loss1/relu_fc"
  type: "ReLU"
  bottom: "loss1/fc"
  top: "loss1/fc"
}
layer {
  name: "loss1/drop_fc"
  type: "Dropout"
  bottom: "loss1/fc"
  top: "loss1/fc"
  dropout_param {
    dropout_ratio: 0.7
  }
}
layer {
  name: "loss1/classifier_plantvillage"
  type: "InnerProduct"
  bottom: "loss1/fc"
  top: "loss1/classifier_plantvillage"
  param {
    lr_mult: 1
    decay_mult: 1
  }
  param {
    lr_mult: 2
    decay_mult: 0
  }
  inner_product_param {
    num_output: 38
    weight_filler {
      type: "xavier"
      std: 0.0009765625
    }
    bias_filler {
      type: "constant"
      value: 0
    }
  }
}
layer {
  name: "inception_4b/1x1"
  type: "Convolution"
  bottom: "inception_4a/output"
  top: "inception_4b/1x1"
  param {
    lr_mult: 1
    decay_mult: 1
  }
  param {
    lr_mult: 2
    decay_mult: 0
  }
  convolution_param {
    num_output: 160
    kernel_size: 1
    weight_filler {
      type: "xavier"
      std: 0.03
    }
    bias_filler {
      type: "constant"
      value: 0.2
    }
  }
}
layer {
  name: "inception_4b/relu_1x1"
  type: "ReLU"
  bottom: "inception_4b/1x1"
  top: "inception_4b/1x1"
}
layer {
  name: "inception_4b/3x3_reduce"
  type: "Convolution"
  bottom: "inception_4a/output"
  top: "inception_4b/3x3_reduce"
  param {
    lr_mult: 1
    decay_mult: 1
  }
  param {
    lr_mult: 2
    decay_mult: 0
  }
  convolution_param {
    num_output: 112
    kernel_size: 1
    weight_filler {
      type: "xavier"
      std: 0.09
    }
    bias_filler {
      type: "constant"
      value: 0.2
    }
  }
}
layer {
  name: "inception_4b/relu_3x3_reduce"
  type: "ReLU"
  bottom: "inception_4b/3x3_reduce"
  top: "inception_4b/3x3_reduce"
}
layer {
  name: "inception_4b/3x3"
  type: "Convolution"
  bottom: "inception_4b/3x3_reduce"
  top: "inception_4b/3x3"
  param {
    lr_mult: 1
    decay_mult: 1
  }
  param {
    lr_mult: 2
    decay_mult: 0
  }
  convolution_param {
    num_output: 224
    pad: 1
    kernel_size: 3
    weight_filler {
      type: "xavier"
      std: 0.03
    }
    bias_filler {
      type: "constant"
      value: 0.2
    }
  }
}
layer {
  name: "inception_4b/relu_3x3"
  type: "ReLU"
  bottom: "inception_4b/3x3"
  top: "inception_4b/3x3"
}
layer {
  name: "inception_4b/5x5_reduce"
  type: "Convolution"
  bottom: "inception_4a/output"
  top: "inception_4b/5x5_reduce"
  param {
    lr_mult: 1
    decay_mult: 1
  }
  param {
    lr_mult: 2
    decay_mult: 0
  }
  convolution_param {
    num_output: 24
    kernel_size: 1
    weight_filler {
      type: "xavier"
      std: 0.2
    }
    bias_filler {
      type: "constant"
      value: 0.2
    }
  }
}
layer {
  name: "inception_4b/relu_5x5_reduce"
  type: "ReLU"
  bottom: "inception_4b/5x5_reduce"
  top: "inception_4b/5x5_reduce"
}
layer {
  name: "inception_4b/5x5"
  type: "Convolution"
  bottom: "inception_4b/5x5_reduce"
  top: "inception_4b/5x5"
  param {
    lr_mult: 1
    decay_mult: 1
  }
  param {
    lr_mult: 2
    decay_mult: 0
  }
  convolution_param {
    num_output: 64
    pad: 2
    kernel_size: 5
    weight_filler {
      type: "xavier"
      std: 0.03
    }
    bias_filler {
      type: "constant"
      value: 0.2
    }
  }
}
layer {
  name: "inception_4b/relu_5x5"
  type: "ReLU"
  bottom: "inception_4b/5x5"
  top: "inception_4b/5x5"
}
layer {
  name: "inception_4b/pool"
  type: "Pooling"
  bottom: "inception_4a/output"
  top: "inception_4b/pool"
  pooling_param {
    pool: MAX
    kernel_size: 3
    stride: 1
    pad: 1
  }
}
layer {
  name: "inception_4b/pool_proj"
  type: "Convolution"
  bottom: "inception_4b/pool"
  top: "inception_4b/pool_proj"
  param {
    lr_mult: 1
    decay_mult: 1
  }
  param {
    lr_mult: 2
    decay_mult: 0
  }
  convolution_param {
    num_output: 64
    kernel_size: 1
    weight_filler {
      type: "xavier"
      std: 0.1
    }
    bias_filler {
      type: "constant"
      value: 0.2
    }
  }
}
layer {
  name: "inception_4b/relu_pool_proj"
  type: "ReLU"
  bottom: "inception_4b/pool_proj"
  top: "inception_4b/pool_proj"
}
layer {
  name: "inception_4b/output"
  type: "Concat"
  bottom: "inception_4b/1x1"
  bottom: "inception_4b/3x3"
  bottom: "inception_4b/5x5"
  bottom: "inception_4b/pool_proj"
  top: "inception_4b/output"
}
layer {
  name: "inception_4c/1x1"
  type: "Convolution"
  bottom: "inception_4b/output"
  top: "inception_4c/1x1"
  param {
    lr_mult: 1
    decay_mult: 1
  }
  param {
    lr_mult: 2
    decay_mult: 0
  }
  convolution_param {
    num_output: 128
    kernel_size: 1
    weight_filler {
      type: "xavier"
      std: 0.03
    }
    bias_filler {
      type: "constant"
      value: 0.2
    }
  }
}
layer {
  name: "inception_4c/relu_1x1"
  type: "ReLU"
  bottom: "inception_4c/1x1"
  top: "inception_4c/1x1"
}
layer {
  name: "inception_4c/3x3_reduce"
  type: "Convolution"
  bottom: "inception_4b/output"
  top: "inception_4c/3x3_reduce"
  param {
    lr_mult: 1
    decay_mult: 1
  }
  param {
    lr_mult: 2
    decay_mult: 0
  }
  convolution_param {
    num_output: 128
    kernel_size: 1
    weight_filler {
      type: "xavier"
      std: 0.09
    }
    bias_filler {
      type: "constant"
      value: 0.2
    }
  }
}
layer {
  name: "inception_4c/relu_3x3_reduce"
  type: "ReLU"
  bottom: "inception_4c/3x3_reduce"
  top: "inception_4c/3x3_reduce"
}
layer {
  name: "inception_4c/3x3"
  type: "Convolution"
  bottom: "inception_4c/3x3_reduce"
  top: "inception_4c/3x3"
  param {
    lr_mult: 1
    decay_mult: 1
  }
  param {
    lr_mult: 2
    decay_mult: 0
  }
  convolution_param {
    num_output: 256
    pad: 1
    kernel_size: 3
    weight_filler {
      type: "xavier"
      std: 0.03
    }
    bias_filler {
      type: "constant"
      value: 0.2
    }
  }
}
layer {
  name: "inception_4c/relu_3x3"
  type: "ReLU"
  bottom: "inception_4c/3x3"
  top: "inception_4c/3x3"
}
layer {
  name: "inception_4c/5x5_reduce"
  type: "Convolution"
  bottom: "inception_4b/output"
  top: "inception_4c/5x5_reduce"
  param {
    lr_mult: 1
    decay_mult: 1
  }
  param {
    lr_mult: 2
    decay_mult: 0
  }
  convolution_param {
    num_output: 24
    kernel_size: 1
    weight_filler {
      type: "xavier"
      std: 0.2
    }
    bias_filler {
      type: "constant"
      value: 0.2
    }
  }
}
layer {
  name: "inception_4c/relu_5x5_reduce"
  type: "ReLU"
  bottom: "inception_4c/5x5_reduce"
  top: "inception_4c/5x5_reduce"
}
layer {
  name: "inception_4c/5x5"
  type: "Convolution"
  bottom: "inception_4c/5x5_reduce"
  top: "inception_4c/5x5"
  param {
    lr_mult: 1
    decay_mult: 1
  }
  param {
    lr_mult: 2
    decay_mult: 0
  }
  convolution_param {
    num_output: 64
    pad: 2
    kernel_size: 5
    weight_filler {
      type: "xavier"
      std: 0.03
    }
    bias_filler {
      type: "constant"
      value: 0.2
    }
  }
}
layer {
  name: "inception_4c/relu_5x5"
  type: "ReLU"
  bottom: "inception_4c/5x5"
  top: "inception_4c/5x5"
}
layer {
  name: "inception_4c/pool"
  type: "Pooling"
  bottom: "inception_4b/output"
  top: "inception_4c/pool"
  pooling_param {
    pool: MAX
    kernel_size: 3
    stride: 1
    pad: 1
  }
}
layer {
  name: "inception_4c/pool_proj"
  type: "Convolution"
  bottom: "inception_4c/pool"
  top: "inception_4c/pool_proj"
  param {
    lr_mult: 1
    decay_mult: 1
  }
  param {
    lr_mult: 2
    decay_mult: 0
  }
  convolution_param {
    num_output: 64
    kernel_size: 1
    weight_filler {
      type: "xavier"
      std: 0.1
    }
    bias_filler {
      type: "constant"
      value: 0.2
    }
  }
}
layer {
  name: "inception_4c/relu_pool_proj"
  type: "ReLU"
  bottom: "inception_4c/pool_proj"
  top: "inception_4c/pool_proj"
}
layer {
  name: "inception_4c/output"
  type: "Concat"
  bottom: "inception_4c/1x1"
  bottom: "inception_4c/3x3"
  bottom: "inception_4c/5x5"
  bottom: "inception_4c/pool_proj"
  top: "inception_4c/output"
}
layer {
  name: "inception_4d/1x1"
  type: "Convolution"
  bottom: "inception_4c/output"
  top: "inception_4d/1x1"
  param {
    lr_mult: 1
    decay_mult: 1
  }
  param {
    lr_mult: 2
    decay_mult: 0
  }
  convolution_param {
    num_output: 112
    kernel_size: 1
    weight_filler {
      type: "xavier"
      std: 0.03
    }
    bias_filler {
      type: "constant"
      value: 0.2
    }
  }
}
layer {
  name: "inception_4d/relu_1x1"
  type: "ReLU"
  bottom: "inception_4d/1x1"
  top: "inception_4d/1x1"
}
layer {
  name: "inception_4d/3x3_reduce"
  type: "Convolution"
  bottom: "inception_4c/output"
  top: "inception_4d/3x3_reduce"
  param {
    lr_mult: 1
    decay_mult: 1
  }
  param {
    lr_mult: 2
    decay_mult: 0
  }
  convolution_param {
    num_output: 144
    kernel_size: 1
    weight_filler {
      type: "xavier"
      std: 0.09
    }
    bias_filler {
      type: "constant"
      value: 0.2
    }
  }
}
layer {
  name: "inception_4d/relu_3x3_reduce"
  type: "ReLU"
  bottom: "inception_4d/3x3_reduce"
  top: "inception_4d/3x3_reduce"
}
layer {
  name: "inception_4d/3x3"
  type: "Convolution"
  bottom: "inception_4d/3x3_reduce"
  top: "inception_4d/3x3"
  param {
    lr_mult: 1
    decay_mult: 1
  }
  param {
    lr_mult: 2
    decay_mult: 0
  }
  convolution_param {
    num_output: 288
    pad: 1
    kernel_size: 3
    weight_filler {
      type: "xavier"
      std: 0.03
    }
    bias_filler {
      type: "constant"
      value: 0.2
    }
  }
}
layer {
  name: "inception_4d/relu_3x3"
  type: "ReLU"
  bottom: "inception_4d/3x3"
  top: "inception_4d/3x3"
}
layer {
  name: "inception_4d/5x5_reduce"
  type: "Convolution"
  bottom: "inception_4c/output"
  top: "inception_4d/5x5_reduce"
  param {
    lr_mult: 1
    decay_mult: 1
  }
  param {
    lr_mult: 2
    decay_mult: 0
  }
  convolution_param {
    num_output: 32
    kernel_size: 1
    weight_filler {
      type: "xavier"
      std: 0.2
    }
    bias_filler {
      type: "constant"
      value: 0.2
    }
  }
}
layer {
  name: "inception_4d/relu_5x5_reduce"
  type: "ReLU"
  bottom: "inception_4d/5x5_reduce"
  top: "inception_4d/5x5_reduce"
}
layer {
  name: "inception_4d/5x5"
  type: "Convolution"
  bottom: "inception_4d/5x5_reduce"
  top: "inception_4d/5x5"
  param {
    lr_mult: 1
    decay_mult: 1
  }
  param {
    lr_mult: 2
    decay_mult: 0
  }
  convolution_param {
    num_output: 64
    pad: 2
    kernel_size: 5
    weight_filler {
      type: "xavier"
      std: 0.03
    }
    bias_filler {
      type: "constant"
      value: 0.2
    }
  }
}
layer {
  name: "inception_4d/relu_5x5"
  type: "ReLU"
  bottom: "inception_4d/5x5"
  top: "inception_4d/5x5"
}
layer {
  name: "inception_4d/pool"
  type: "Pooling"
  bottom: "inception_4c/output"
  top: "inception_4d/pool"
  pooling_param {
    pool: MAX
    kernel_size: 3
    stride: 1
    pad: 1
  }
}
layer {
  name: "inception_4d/pool_proj"
  type: "Convolution"
  bottom: "inception_4d/pool"
  top: "inception_4d/pool_proj"
  param {
    lr_mult: 1
    decay_mult: 1
  }
  param {
    lr_mult: 2
    decay_mult: 0
  }
  convolution_param {
    num_output: 64
    kernel_size: 1
    weight_filler {
      type: "xavier"
      std: 0.1
    }
    bias_filler {
      type: "constant"
      value: 0.2
    }
  }
}
layer {
  name: "inception_4d/relu_pool_proj"
  type: "ReLU"
  bottom: "inception_4d/pool_proj"
  top: "inception_4d/pool_proj"
}
layer {
  name: "inception_4d/output"
  type: "Concat"
  bottom: "inception_4d/1x1"
  bottom: "inception_4d/3x3"
  bottom: "inception_4d/5x5"
  bottom: "inception_4d/pool_proj"
  top: "inception_4d/output"
}
layer {
  name: "loss2/ave_pool"
  type: "Pooling"
  bottom: "inception_4d/output"
  top: "loss2/ave_pool"
  pooling_param {
    pool: AVE
    kernel_size: 5
    stride: 3
  }
}
layer {
  name: "loss2/conv"
  type: "Convolution"
  bottom: "loss2/ave_pool"
  top: "loss2/conv"
  param {
    lr_mult: 1
    decay_mult: 1
  }
  param {
    lr_mult: 2
    decay_mult: 0
  }
  convolution_param {
    num_output: 128
    kernel_size: 1
    weight_filler {
      type: "xavier"
      std: 0.08
    }
    bias_filler {
      type: "constant"
      value: 0.2
    }
  }
}
layer {
  name: "loss2/relu_conv"
  type: "ReLU"
  bottom: "loss2/conv"
  top: "loss2/conv"
}
layer {
  name: "loss2/fc"
  type: "InnerProduct"
  bottom: "loss2/conv"
  top: "loss2/fc"
  param {
    lr_mult: 1
    decay_mult: 1
  }
  param {
    lr_mult: 2
    decay_mult: 0
  }
  inner_product_param {
    num_output: 1024
    weight_filler {
      type: "xavier"
      std: 0.02
    }
    bias_filler {
      type: "constant"
      value: 0.2
    }
  }
}
layer {
  name: "loss2/relu_fc"
  type: "ReLU"
  bottom: "loss2/fc"
  top: "loss2/fc"
}
layer {
  name: "loss2/drop_fc"
  type: "Dropout"
  bottom: "loss2/fc"
  top: "loss2/fc"
  dropout_param {
    dropout_ratio: 0.7
  }
}
layer {
  name: "loss2/classifier_plantvillage"
  type: "InnerProduct"
  bottom: "loss2/fc"
  top: "loss2/classifier_plantvillage"
  param {
    lr_mult: 1
    decay_mult: 1
  }
  param {
    lr_mult: 2
    decay_mult: 0
  }
  inner_product_param {
    num_output: 38
    weight_filler {
      type: "xavier"
      std: 0.0009765625
    }
    bias_filler {
      type: "constant"
      value: 0
    }
  }
}
layer {
  name: "inception_4e/1x1"
  type: "Convolution"
  bottom: "inception_4d/output"
  top: "inception_4e/1x1"
  param {
    lr_mult: 1
    decay_mult: 1
  }
  param {
    lr_mult: 2
    decay_mult: 0
  }
  convolution_param {
    num_output: 256
    kernel_size: 1
    weight_filler {
      type: "xavier"
      std: 0.03
    }
    bias_filler {
      type: "constant"
      value: 0.2
    }
  }
}
layer {
  name: "inception_4e/relu_1x1"
  type: "ReLU"
  bottom: "inception_4e/1x1"
  top: "inception_4e/1x1"
}
layer {
  name: "inception_4e/3x3_reduce"
  type: "Convolution"
  bottom: "inception_4d/output"
  top: "inception_4e/3x3_reduce"
  param {
    lr_mult: 1
    decay_mult: 1
  }
  param {
    lr_mult: 2
    decay_mult: 0
  }
  convolution_param {
    num_output: 160
    kernel_size: 1
    weight_filler {
      type: "xavier"
      std: 0.09
    }
    bias_filler {
      type: "constant"
      value: 0.2
    }
  }
}
layer {
  name: "inception_4e/relu_3x3_reduce"
  type: "ReLU"
  bottom: "inception_4e/3x3_reduce"
  top: "inception_4e/3x3_reduce"
}
layer {
  name: "inception_4e/3x3"
  type: "Convolution"
  bottom: "inception_4e/3x3_reduce"
  top: "inception_4e/3x3"
  param {
    lr_mult: 1
    decay_mult: 1
  }
  param {
    lr_mult: 2
    decay_mult: 0
  }
  convolution_param {
    num_output: 320
    pad: 1
    kernel_size: 3
    weight_filler {
      type: "xavier"
      std: 0.03
    }
    bias_filler {
      type: "constant"
      value: 0.2
    }
  }
}
layer {
  name: "inception_4e/relu_3x3"
  type: "ReLU"
  bottom: "inception_4e/3x3"
  top: "inception_4e/3x3"
}
layer {
  name: "inception_4e/5x5_reduce"
  type: "Convolution"
  bottom: "inception_4d/output"
  top: "inception_4e/5x5_reduce"
  param {
    lr_mult: 1
    decay_mult: 1
  }
  param {
    lr_mult: 2
    decay_mult: 0
  }
  convolution_param {
    num_output: 32
    kernel_size: 1
    weight_filler {
      type: "xavier"
      std: 0.2
    }
    bias_filler {
      type: "constant"
      value: 0.2
    }
  }
}
layer {
  name: "inception_4e/relu_5x5_reduce"
  type: "ReLU"
  bottom: "inception_4e/5x5_reduce"
  top: "inception_4e/5x5_reduce"
}
layer {
  name: "inception_4e/5x5"
  type: "Convolution"
  bottom: "inception_4e/5x5_reduce"
  top: "inception_4e/
I0403 21:53:00.397717 24572 layer_factory.hpp:77] Creating layer data
I0403 21:53:00.398304 24572 net.cpp:91] Creating Layer data
I0403 21:53:00.398339 24572 net.cpp:399] data -> data
I0403 21:53:00.398389 24572 net.cpp:399] data -> label
I0403 21:53:00.398427 24572 data_transformer.cpp:25] Loading mean file from: /home/mohanty/data/final_dataset/lmdb/segmented-80-20/mean.binaryproto
I0403 21:53:00.399576 24574 db_lmdb.cpp:38] Opened lmdb /home/mohanty/data/final_dataset/lmdb/segmented-80-20/test_db
I0403 21:53:00.411316 24572 data_layer.cpp:41] output data size: 24,3,224,224
I0403 21:53:00.438575 24572 net.cpp:141] Setting up data
I0403 21:53:00.438662 24572 net.cpp:148] Top shape: 24 3 224 224 (3612672)
I0403 21:53:00.438684 24572 net.cpp:148] Top shape: 24 (24)
I0403 21:53:00.438700 24572 net.cpp:156] Memory required for data: 14450784
I0403 21:53:00.438727 24572 layer_factory.hpp:77] Creating layer label_data_1_split
I0403 21:53:00.438755 24572 net.cpp:91] Creating Layer label_data_1_split
I0403 21:53:00.438774 24572 net.cpp:425] label_data_1_split <- label
I0403 21:53:00.438807 24572 net.cpp:399] label_data_1_split -> label_data_1_split_0
I0403 21:53:00.438833 24572 net.cpp:399] label_data_1_split -> label_data_1_split_1
I0403 21:53:00.438855 24572 net.cpp:399] label_data_1_split -> label_data_1_split_2
I0403 21:53:00.438877 24572 net.cpp:399] label_data_1_split -> label_data_1_split_3
I0403 21:53:00.438896 24572 net.cpp:399] label_data_1_split -> label_data_1_split_4
I0403 21:53:00.438917 24572 net.cpp:399] label_data_1_split -> label_data_1_split_5
I0403 21:53:00.438937 24572 net.cpp:399] label_data_1_split -> label_data_1_split_6
I0403 21:53:00.438961 24572 net.cpp:399] label_data_1_split -> label_data_1_split_7
I0403 21:53:00.438982 24572 net.cpp:399] label_data_1_split -> label_data_1_split_8
I0403 21:53:00.439002 24572 net.cpp:399] label_data_1_split -> label_data_1_split_9
I0403 21:53:00.439117 24572 net.cpp:141] Setting up label_data_1_split
I0403 21:53:00.439141 24572 net.cpp:148] Top shape: 24 (24)
I0403 21:53:00.439157 24572 net.cpp:148] Top shape: 24 (24)
I0403 21:53:00.439173 24572 net.cpp:148] Top shape: 24 (24)
I0403 21:53:00.439189 24572 net.cpp:148] Top shape: 24 (24)
I0403 21:53:00.439204 24572 net.cpp:148] Top shape: 24 (24)
I0403 21:53:00.439220 24572 net.cpp:148] Top shape: 24 (24)
I0403 21:53:00.439240 24572 net.cpp:148] Top shape: 24 (24)
I0403 21:53:00.439257 24572 net.cpp:148] Top shape: 24 (24)
I0403 21:53:00.439272 24572 net.cpp:148] Top shape: 24 (24)
I0403 21:53:00.439288 24572 net.cpp:148] Top shape: 24 (24)
I0403 21:53:00.439335 24572 net.cpp:156] Memory required for data: 14451744
I0403 21:53:00.439352 24572 layer_factory.hpp:77] Creating layer conv1/7x7_s2
I0403 21:53:00.439383 24572 net.cpp:91] Creating Layer conv1/7x7_s2
I0403 21:53:00.439402 24572 net.cpp:425] conv1/7x7_s2 <- data
I0403 21:53:00.439422 24572 net.cpp:399] conv1/7x7_s2 -> conv1/7x7_s2
I0403 21:53:00.579259 24572 net.cpp:141] Setting up conv1/7x7_s2
I0403 21:53:00.579339 24572 net.cpp:148] Top shape: 24 64 112 112 (19267584)
I0403 21:53:00.579356 24572 net.cpp:156] Memory required for data: 91522080
I0403 21:53:00.579390 24572 layer_factory.hpp:77] Creating layer conv1/relu_7x7
I0403 21:53:00.579416 24572 net.cpp:91] Creating Layer conv1/relu_7x7
I0403 21:53:00.579434 24572 net.cpp:425] conv1/relu_7x7 <- conv1/7x7_s2
I0403 21:53:00.579453 24572 net.cpp:386] conv1/relu_7x7 -> conv1/7x7_s2 (in-place)
I0403 21:53:00.579721 24572 net.cpp:141] Setting up conv1/relu_7x7
I0403 21:53:00.579749 24572 net.cpp:148] Top shape: 24 64 112 112 (19267584)
I0403 21:53:00.579766 24572 net.cpp:156] Memory required for data: 168592416
I0403 21:53:00.579782 24572 layer_factory.hpp:77] Creating layer pool1/3x3_s2
I0403 21:53:00.579807 24572 net.cpp:91] Creating Layer pool1/3x3_s2
I0403 21:53:00.579824 24572 net.cpp:425] pool1/3x3_s2 <- conv1/7x7_s2
I0403 21:53:00.579843 24572 net.cpp:399] pool1/3x3_s2 -> pool1/3x3_s2
I0403 21:53:00.579921 24572 net.cpp:141] Setting up pool1/3x3_s2
I0403 21:53:00.579944 24572 net.cpp:148] Top shape: 24 64 56 56 (4816896)
I0403 21:53:00.579959 24572 net.cpp:156] Memory required for data: 187860000
I0403 21:53:00.579973 24572 layer_factory.hpp:77] Creating layer pool1/norm1
I0403 21:53:00.579999 24572 net.cpp:91] Creating Layer pool1/norm1
I0403 21:53:00.580018 24572 net.cpp:425] pool1/norm1 <- pool1/3x3_s2
I0403 21:53:00.580037 24572 net.cpp:399] pool1/norm1 -> pool1/norm1
I0403 21:53:00.580332 24572 net.cpp:141] Setting up pool1/norm1
I0403 21:53:00.580360 24572 net.cpp:148] Top shape: 24 64 56 56 (4816896)
I0403 21:53:00.580376 24572 net.cpp:156] Memory required for data: 207127584
I0403 21:53:00.580391 24572 layer_factory.hpp:77] Creating layer conv2/3x3_reduce
I0403 21:53:00.580418 24572 net.cpp:91] Creating Layer conv2/3x3_reduce
I0403 21:53:00.580435 24572 net.cpp:425] conv2/3x3_reduce <- pool1/norm1
I0403 21:53:00.580453 24572 net.cpp:399] conv2/3x3_reduce -> conv2/3x3_reduce
I0403 21:53:00.581827 24572 net.cpp:141] Setting up conv2/3x3_reduce
I0403 21:53:00.581857 24572 net.cpp:148] Top shape: 24 64 56 56 (4816896)
I0403 21:53:00.581874 24572 net.cpp:156] Memory required for data: 226395168
I0403 21:53:00.581894 24572 layer_factory.hpp:77] Creating layer conv2/relu_3x3_reduce
I0403 21:53:00.581915 24572 net.cpp:91] Creating Layer conv2/relu_3x3_reduce
I0403 21:53:00.581933 24572 net.cpp:425] conv2/relu_3x3_reduce <- conv2/3x3_reduce
I0403 21:53:00.581949 24572 net.cpp:386] conv2/relu_3x3_reduce -> conv2/3x3_reduce (in-place)
I0403 21:53:00.582203 24572 net.cpp:141] Setting up conv2/relu_3x3_reduce
I0403 21:53:00.582233 24572 net.cpp:148] Top shape: 24 64 56 56 (4816896)
I0403 21:53:00.582250 24572 net.cpp:156] Memory required for data: 245662752
I0403 21:53:00.582265 24572 layer_factory.hpp:77] Creating layer conv2/3x3
I0403 21:53:00.582288 24572 net.cpp:91] Creating Layer conv2/3x3
I0403 21:53:00.582306 24572 net.cpp:425] conv2/3x3 <- conv2/3x3_reduce
I0403 21:53:00.582326 24572 net.cpp:399] conv2/3x3 -> conv2/3x3
I0403 21:53:00.584556 24572 net.cpp:141] Setting up conv2/3x3
I0403 21:53:00.584585 24572 net.cpp:148] Top shape: 24 192 56 56 (14450688)
I0403 21:53:00.584604 24572 net.cpp:156] Memory required for data: 303465504
I0403 21:53:00.584625 24572 layer_factory.hpp:77] Creating layer conv2/relu_3x3
I0403 21:53:00.584645 24572 net.cpp:91] Creating Layer conv2/relu_3x3
I0403 21:53:00.584661 24572 net.cpp:425] conv2/relu_3x3 <- conv2/3x3
I0403 21:53:00.584677 24572 net.cpp:386] conv2/relu_3x3 -> conv2/3x3 (in-place)
I0403 21:53:00.584849 24572 net.cpp:141] Setting up conv2/relu_3x3
I0403 21:53:00.584877 24572 net.cpp:148] Top shape: 24 192 56 56 (14450688)
I0403 21:53:00.584923 24572 net.cpp:156] Memory required for data: 361268256
I0403 21:53:00.584939 24572 layer_factory.hpp:77] Creating layer conv2/norm2
I0403 21:53:00.584957 24572 net.cpp:91] Creating Layer conv2/norm2
I0403 21:53:00.584974 24572 net.cpp:425] conv2/norm2 <- conv2/3x3
I0403 21:53:00.584995 24572 net.cpp:399] conv2/norm2 -> conv2/norm2
I0403 21:53:00.585299 24572 net.cpp:141] Setting up conv2/norm2
I0403 21:53:00.585326 24572 net.cpp:148] Top shape: 24 192 56 56 (14450688)
I0403 21:53:00.585341 24572 net.cpp:156] Memory required for data: 419071008
I0403 21:53:00.585355 24572 layer_factory.hpp:77] Creating layer pool2/3x3_s2
I0403 21:53:00.585373 24572 net.cpp:91] Creating Layer pool2/3x3_s2
I0403 21:53:00.585388 24572 net.cpp:425] pool2/3x3_s2 <- conv2/norm2
I0403 21:53:00.585408 24572 net.cpp:399] pool2/3x3_s2 -> pool2/3x3_s2
I0403 21:53:00.585460 24572 net.cpp:141] Setting up pool2/3x3_s2
I0403 21:53:00.585484 24572 net.cpp:148] Top shape: 24 192 28 28 (3612672)
I0403 21:53:00.585500 24572 net.cpp:156] Memory required for data: 433521696
I0403 21:53:00.585515 24572 layer_factory.hpp:77] Creating layer pool2/3x3_s2_pool2/3x3_s2_0_split
I0403 21:53:00.585532 24572 net.cpp:91] Creating Layer pool2/3x3_s2_pool2/3x3_s2_0_split
I0403 21:53:00.585547 24572 net.cpp:425] pool2/3x3_s2_pool2/3x3_s2_0_split <- pool2/3x3_s2
I0403 21:53:00.585566 24572 net.cpp:399] pool2/3x3_s2_pool2/3x3_s2_0_split -> pool2/3x3_s2_pool2/3x3_s2_0_split_0
I0403 21:53:00.585587 24572 net.cpp:399] pool2/3x3_s2_pool2/3x3_s2_0_split -> pool2/3x3_s2_pool2/3x3_s2_0_split_1
I0403 21:53:00.585608 24572 net.cpp:399] pool2/3x3_s2_pool2/3x3_s2_0_split -> pool2/3x3_s2_pool2/3x3_s2_0_split_2
I0403 21:53:00.585628 24572 net.cpp:399] pool2/3x3_s2_pool2/3x3_s2_0_split -> pool2/3x3_s2_pool2/3x3_s2_0_split_3
I0403 21:53:00.585697 24572 net.cpp:141] Setting up pool2/3x3_s2_pool2/3x3_s2_0_split
I0403 21:53:00.585721 24572 net.cpp:148] Top shape: 24 192 28 28 (3612672)
I0403 21:53:00.585736 24572 net.cpp:148] Top shape: 24 192 28 28 (3612672)
I0403 21:53:00.585752 24572 net.cpp:148] Top shape: 24 192 28 28 (3612672)
I0403 21:53:00.585767 24572 net.cpp:148] Top shape: 24 192 28 28 (3612672)
I0403 21:53:00.585780 24572 net.cpp:156] Memory required for data: 491324448
I0403 21:53:00.585794 24572 layer_factory.hpp:77] Creating layer inception_3a/1x1
I0403 21:53:00.585819 24572 net.cpp:91] Creating Layer inception_3a/1x1
I0403 21:53:00.585837 24572 net.cpp:425] inception_3a/1x1 <- pool2/3x3_s2_pool2/3x3_s2_0_split_0
I0403 21:53:00.585858 24572 net.cpp:399] inception_3a/1x1 -> inception_3a/1x1
I0403 21:53:00.587404 24572 net.cpp:141] Setting up inception_3a/1x1
I0403 21:53:00.587435 24572 net.cpp:148] Top shape: 24 64 28 28 (1204224)
I0403 21:53:00.587450 24572 net.cpp:156] Memory required for data: 496141344
I0403 21:53:00.587469 24572 layer_factory.hpp:77] Creating layer inception_3a/relu_1x1
I0403 21:53:00.587489 24572 net.cpp:91] Creating Layer inception_3a/relu_1x1
I0403 21:53:00.587507 24572 net.cpp:425] inception_3a/relu_1x1 <- inception_3a/1x1
I0403 21:53:00.587525 24572 net.cpp:386] inception_3a/relu_1x1 -> inception_3a/1x1 (in-place)
I0403 21:53:00.587697 24572 net.cpp:141] Setting up inception_3a/relu_1x1
I0403 21:53:00.587720 24572 net.cpp:148] Top shape: 24 64 28 28 (1204224)
I0403 21:53:00.587735 24572 net.cpp:156] Memory required for data: 500958240
I0403 21:53:00.587750 24572 layer_factory.hpp:77] Creating layer inception_3a/3x3_reduce
I0403 21:53:00.587774 24572 net.cpp:91] Creating Layer inception_3a/3x3_reduce
I0403 21:53:00.587792 24572 net.cpp:425] inception_3a/3x3_reduce <- pool2/3x3_s2_pool2/3x3_s2_0_split_1
I0403 21:53:00.587813 24572 net.cpp:399] inception_3a/3x3_reduce -> inception_3a/3x3_reduce
I0403 21:53:00.589531 24572 net.cpp:141] Setting up inception_3a/3x3_reduce
I0403 21:53:00.589561 24572 net.cpp:148] Top shape: 24 96 28 28 (1806336)
I0403 21:53:00.589578 24572 net.cpp:156] Memory required for data: 508183584
I0403 21:53:00.589601 24572 layer_factory.hpp:77] Creating layer inception_3a/relu_3x3_reduce
I0403 21:53:00.589638 24572 net.cpp:91] Creating Layer inception_3a/relu_3x3_reduce
I0403 21:53:00.589658 24572 net.cpp:425] inception_3a/relu_3x3_reduce <- inception_3a/3x3_reduce
I0403 21:53:00.589676 24572 net.cpp:386] inception_3a/relu_3x3_reduce -> inception_3a/3x3_reduce (in-place)
I0403 21:53:00.589861 24572 net.cpp:141] Setting up inception_3a/relu_3x3_reduce
I0403 21:53:00.589886 24572 net.cpp:148] Top shape: 24 96 28 28 (1806336)
I0403 21:53:00.589902 24572 net.cpp:156] Memory required for data: 515408928
I0403 21:53:00.589917 24572 layer_factory.hpp:77] Creating layer inception_3a/3x3
I0403 21:53:00.589941 24572 net.cpp:91] Creating Layer inception_3a/3x3
I0403 21:53:00.589962 24572 net.cpp:425] inception_3a/3x3 <- inception_3a/3x3_reduce
I0403 21:53:00.589983 24572 net.cpp:399] inception_3a/3x3 -> inception_3a/3x3
I0403 21:53:00.591617 24572 net.cpp:141] Setting up inception_3a/3x3
I0403 21:53:00.591646 24572 net.cpp:148] Top shape: 24 128 28 28 (2408448)
I0403 21:53:00.591662 24572 net.cpp:156] Memory required for data: 525042720
I0403 21:53:00.591682 24572 layer_factory.hpp:77] Creating layer inception_3a/relu_3x3
I0403 21:53:00.591702 24572 net.cpp:91] Creating Layer inception_3a/relu_3x3
I0403 21:53:00.591722 24572 net.cpp:425] inception_3a/relu_3x3 <- inception_3a/3x3
I0403 21:53:00.591738 24572 net.cpp:386] inception_3a/relu_3x3 -> inception_3a/3x3 (in-place)
I0403 21:53:00.592007 24572 net.cpp:141] Setting up inception_3a/relu_3x3
I0403 21:53:00.592033 24572 net.cpp:148] Top shape: 24 128 28 28 (2408448)
I0403 21:53:00.592048 24572 net.cpp:156] Memory required for data: 534676512
I0403 21:53:00.592064 24572 layer_factory.hpp:77] Creating layer inception_3a/5x5_reduce
I0403 21:53:00.592087 24572 net.cpp:91] Creating Layer inception_3a/5x5_reduce
I0403 21:53:00.592105 24572 net.cpp:425] inception_3a/5x5_reduce <- pool2/3x3_s2_pool2/3x3_s2_0_split_2
I0403 21:53:00.592125 24572 net.cpp:399] inception_3a/5x5_reduce -> inception_3a/5x5_reduce
I0403 21:53:00.593086 24572 net.cpp:141] Setting up inception_3a/5x5_reduce
I0403 21:53:00.593114 24572 net.cpp:148] Top shape: 24 16 28 28 (301056)
I0403 21:53:00.593130 24572 net.cpp:156] Memory required for data: 535880736
I0403 21:53:00.593149 24572 layer_factory.hpp:77] Creating layer inception_3a/relu_5x5_reduce
I0403 21:53:00.593170 24572 net.cpp:91] Creating Layer inception_3a/relu_5x5_reduce
I0403 21:53:00.593189 24572 net.cpp:425] inception_3a/relu_5x5_reduce <- inception_3a/5x5_reduce
I0403 21:53:00.593207 24572 net.cpp:386] inception_3a/relu_5x5_reduce -> inception_3a/5x5_reduce (in-place)
I0403 21:53:00.593510 24572 net.cpp:141] Setting up inception_3a/relu_5x5_reduce
I0403 21:53:00.593539 24572 net.cpp:148] Top shape: 24 16 28 28 (301056)
I0403 21:53:00.593556 24572 net.cpp:156] Memory required for data: 537084960
I0403 21:53:00.593571 24572 layer_factory.hpp:77] Creating layer inception_3a/5x5
I0403 21:53:00.593593 24572 net.cpp:91] Creating Layer inception_3a/5x5
I0403 21:53:00.593611 24572 net.cpp:425] inception_3a/5x5 <- inception_3a/5x5_reduce
I0403 21:53:00.593631 24572 net.cpp:399] inception_3a/5x5 -> inception_3a/5x5
I0403 21:53:00.594637 24572 net.cpp:141] Setting up inception_3a/5x5
I0403 21:53:00.594666 24572 net.cpp:148] Top shape: 24 32 28 28 (602112)
I0403 21:53:00.594681 24572 net.cpp:156] Memory required for data: 539493408
I0403 21:53:00.594701 24572 layer_factory.hpp:77] Creating layer inception_3a/relu_5x5
I0403 21:53:00.594720 24572 net.cpp:91] Creating Layer inception_3a/relu_5x5
I0403 21:53:00.594738 24572 net.cpp:425] inception_3a/relu_5x5 <- inception_3a/5x5
I0403 21:53:00.594755 24572 net.cpp:386] inception_3a/relu_5x5 -> inception_3a/5x5 (in-place)
I0403 21:53:00.594925 24572 net.cpp:141] Setting up inception_3a/relu_5x5
I0403 21:53:00.594954 24572 net.cpp:148] Top shape: 24 32 28 28 (602112)
I0403 21:53:00.594970 24572 net.cpp:156] Memory required for data: 541901856
I0403 21:53:00.594985 24572 layer_factory.hpp:77] Creating layer inception_3a/pool
I0403 21:53:00.595002 24572 net.cpp:91] Creating Layer inception_3a/pool
I0403 21:53:00.595033 24572 net.cpp:425] inception_3a/pool <- pool2/3x3_s2_pool2/3x3_s2_0_split_3
I0403 21:53:00.595052 24572 net.cpp:399] inception_3a/pool -> inception_3a/pool
I0403 21:53:00.595110 24572 net.cpp:141] Setting up inception_3a/pool
I0403 21:53:00.595134 24572 net.cpp:148] Top shape: 24 192 28 28 (3612672)
I0403 21:53:00.595149 24572 net.cpp:156] Memory required for data: 556352544
I0403 21:53:00.595165 24572 layer_factory.hpp:77] Creating layer inception_3a/pool_proj
I0403 21:53:00.595186 24572 net.cpp:91] Creating Layer inception_3a/pool_proj
I0403 21:53:00.595204 24572 net.cpp:425] inception_3a/pool_proj <- inception_3a/pool
I0403 21:53:00.595227 24572 net.cpp:399] inception_3a/pool_proj -> inception_3a/pool_proj
I0403 21:53:00.596189 24572 net.cpp:141] Setting up inception_3a/pool_proj
I0403 21:53:00.596216 24572 net.cpp:148] Top shape: 24 32 28 28 (602112)
I0403 21:53:00.596236 24572 net.cpp:156] Memory required for data: 558760992
I0403 21:53:00.596259 24572 layer_factory.hpp:77] Creating layer inception_3a/relu_pool_proj
I0403 21:53:00.596282 24572 net.cpp:91] Creating Layer inception_3a/relu_pool_proj
I0403 21:53:00.596299 24572 net.cpp:425] inception_3a/relu_pool_proj <- inception_3a/pool_proj
I0403 21:53:00.596318 24572 net.cpp:386] inception_3a/relu_pool_proj -> inception_3a/pool_proj (in-place)
I0403 21:53:00.596593 24572 net.cpp:141] Setting up inception_3a/relu_pool_proj
I0403 21:53:00.596621 24572 net.cpp:148] Top shape: 24 32 28 28 (602112)
I0403 21:53:00.596635 24572 net.cpp:156] Memory required for data: 561169440
I0403 21:53:00.596650 24572 layer_factory.hpp:77] Creating layer inception_3a/output
I0403 21:53:00.596671 24572 net.cpp:91] Creating Layer inception_3a/output
I0403 21:53:00.596688 24572 net.cpp:425] inception_3a/output <- inception_3a/1x1
I0403 21:53:00.596705 24572 net.cpp:425] inception_3a/output <- inception_3a/3x3
I0403 21:53:00.596720 24572 net.cpp:425] inception_3a/output <- inception_3a/5x5
I0403 21:53:00.596736 24572 net.cpp:425] inception_3a/output <- inception_3a/pool_proj
I0403 21:53:00.596752 24572 net.cpp:399] inception_3a/output -> inception_3a/output
I0403 21:53:00.596801 24572 net.cpp:141] Setting up inception_3a/output
I0403 21:53:00.596824 24572 net.cpp:148] Top shape: 24 256 28 28 (4816896)
I0403 21:53:00.596839 24572 net.cpp:156] Memory required for data: 580437024
I0403 21:53:00.596854 24572 layer_factory.hpp:77] Creating layer inception_3a/output_inception_3a/output_0_split
I0403 21:53:00.596871 24572 net.cpp:91] Creating Layer inception_3a/output_inception_3a/output_0_split
I0403 21:53:00.596886 24572 net.cpp:425] inception_3a/output_inception_3a/output_0_split <- inception_3a/output
I0403 21:53:00.596905 24572 net.cpp:399] inception_3a/output_inception_3a/output_0_split -> inception_3a/output_inception_3a/output_0_split_0
I0403 21:53:00.596926 24572 net.cpp:399] inception_3a/output_inception_3a/output_0_split -> inception_3a/output_inception_3a/output_0_split_1
I0403 21:53:00.596952 24572 net.cpp:399] inception_3a/output_inception_3a/output_0_split -> inception_3a/output_inception_3a/output_0_split_2
I0403 21:53:00.596976 24572 net.cpp:399] inception_3a/output_inception_3a/output_0_split -> inception_3a/output_inception_3a/output_0_split_3
I0403 21:53:00.597049 24572 net.cpp:141] Setting up inception_3a/output_inception_3a/output_0_split
I0403 21:53:00.597072 24572 net.cpp:148] Top shape: 24 256 28 28 (4816896)
I0403 21:53:00.597090 24572 net.cpp:148] Top shape: 24 256 28 28 (4816896)
I0403 21:53:00.597105 24572 net.cpp:148] Top shape: 24 256 28 28 (4816896)
I0403 21:53:00.597121 24572 net.cpp:148] Top shape: 24 256 28 28 (4816896)
I0403 21:53:00.597136 24572 net.cpp:156] Memory required for data: 657507360
I0403 21:53:00.597149 24572 layer_factory.hpp:77] Creating layer inception_3b/1x1
I0403 21:53:00.597172 24572 net.cpp:91] Creating Layer inception_3b/1x1
I0403 21:53:00.597189 24572 net.cpp:425] inception_3b/1x1 <- inception_3a/output_inception_3a/output_0_split_0
I0403 21:53:00.597209 24572 net.cpp:399] inception_3b/1x1 -> inception_3b/1x1
I0403 21:53:00.598350 24572 net.cpp:141] Setting up inception_3b/1x1
I0403 21:53:00.598389 24572 net.cpp:148] Top shape: 24 128 28 28 (2408448)
I0403 21:53:00.598405 24572 net.cpp:156] Memory required for data: 667141152
I0403 21:53:00.598424 24572 layer_factory.hpp:77] Creating layer inception_3b/relu_1x1
I0403 21:53:00.598445 24572 net.cpp:91] Creating Layer inception_3b/relu_1x1
I0403 21:53:00.598464 24572 net.cpp:425] inception_3b/relu_1x1 <- inception_3b/1x1
I0403 21:53:00.598481 24572 net.cpp:386] inception_3b/relu_1x1 -> inception_3b/1x1 (in-place)
I0403 21:53:00.598654 24572 net.cpp:141] Setting up inception_3b/relu_1x1
I0403 21:53:00.598678 24572 net.cpp:148] Top shape: 24 128 28 28 (2408448)
I0403 21:53:00.598693 24572 net.cpp:156] Memory required for data: 676774944
I0403 21:53:00.598708 24572 layer_factory.hpp:77] Creating layer inception_3b/3x3_reduce
I0403 21:53:00.598731 24572 net.cpp:91] Creating Layer inception_3b/3x3_reduce
I0403 21:53:00.598748 24572 net.cpp:425] inception_3b/3x3_reduce <- inception_3a/output_inception_3a/output_0_split_1
I0403 21:53:00.598773 24572 net.cpp:399] inception_3b/3x3_reduce -> inception_3b/3x3_reduce
I0403 21:53:00.599901 24572 net.cpp:141] Setting up inception_3b/3x3_reduce
I0403 21:53:00.599930 24572 net.cpp:148] Top shape: 24 128 28 28 (2408448)
I0403 21:53:00.599946 24572 net.cpp:156] Memory required for data: 686408736
I0403 21:53:00.599964 24572 layer_factory.hpp:77] Creating layer inception_3b/relu_3x3_reduce
I0403 21:53:00.599982 24572 net.cpp:91] Creating Layer inception_3b/relu_3x3_reduce
I0403 21:53:00.599999 24572 net.cpp:425] inception_3b/relu_3x3_reduce <- inception_3b/3x3_reduce
I0403 21:53:00.600019 24572 net.cpp:386] inception_3b/relu_3x3_reduce -> inception_3b/3x3_reduce (in-place)
I0403 21:53:00.600193 24572 net.cpp:141] Setting up inception_3b/relu_3x3_reduce
I0403 21:53:00.600217 24572 net.cpp:148] Top shape: 24 128 28 28 (2408448)
I0403 21:53:00.600239 24572 net.cpp:156] Memory required for data: 696042528
I0403 21:53:00.600255 24572 layer_factory.hpp:77] Creating layer inception_3b/3x3
I0403 21:53:00.600281 24572 net.cpp:91] Creating Layer inception_3b/3x3
I0403 21:53:00.600301 24572 net.cpp:425] inception_3b/3x3 <- inception_3b/3x3_reduce
I0403 21:53:00.600319 24572 net.cpp:399] inception_3b/3x3 -> inception_3b/3x3
I0403 21:53:00.603237 24572 net.cpp:141] Setting up inception_3b/3x3
I0403 21:53:00.603266 24572 net.cpp:148] Top shape: 24 192 28 28 (3612672)
I0403 21:53:00.603283 24572 net.cpp:156] Memory required for data: 710493216
I0403 21:53:00.603302 24572 layer_factory.hpp:77] Creating layer inception_3b/relu_3x3
I0403 21:53:00.603323 24572 net.cpp:91] Creating Layer inception_3b/relu_3x3
I0403 21:53:00.603341 24572 net.cpp:425] inception_3b/relu_3x3 <- inception_3b/3x3
I0403 21:53:00.603359 24572 net.cpp:386] inception_3b/relu_3x3 -> inception_3b/3x3 (in-place)
I0403 21:53:00.603641 24572 net.cpp:141] Setting up inception_3b/relu_3x3
I0403 21:53:00.603668 24572 net.cpp:148] Top shape: 24 192 28 28 (3612672)
I0403 21:53:00.603683 24572 net.cpp:156] Memory required for data: 724943904
I0403 21:53:00.603699 24572 layer_factory.hpp:77] Creating layer inception_3b/5x5_reduce
I0403 21:53:00.603723 24572 net.cpp:91] Creating Layer inception_3b/5x5_reduce
I0403 21:53:00.603741 24572 net.cpp:425] inception_3b/5x5_reduce <- inception_3a/output_inception_3a/output_0_split_2
I0403 21:53:00.603762 24572 net.cpp:399] inception_3b/5x5_reduce -> inception_3b/5x5_reduce
I0403 21:53:00.604751 24572 net.cpp:141] Setting up inception_3b/5x5_reduce
I0403 21:53:00.604779 24572 net.cpp:148] Top shape: 24 32 28 28 (602112)
I0403 21:53:00.604794 24572 net.cpp:156] Memory required for data: 727352352
I0403 21:53:00.604814 24572 layer_factory.hpp:77] Creating layer inception_3b/relu_5x5_reduce
I0403 21:53:00.604832 24572 net.cpp:91] Creating Layer inception_3b/relu_5x5_reduce
I0403 21:53:00.604849 24572 net.cpp:425] inception_3b/relu_5x5_reduce <- inception_3b/5x5_reduce
I0403 21:53:00.604867 24572 net.cpp:386] inception_3b/relu_5x5_reduce -> inception_3b/5x5_reduce (in-place)
I0403 21:53:00.605054 24572 net.cpp:141] Setting up inception_3b/relu_5x5_reduce
I0403 21:53:00.605082 24572 net.cpp:148] Top shape: 24 32 28 28 (602112)
I0403 21:53:00.605098 24572 net.cpp:156] Memory required for data: 729760800
I0403 21:53:00.605111 24572 layer_factory.hpp:77] Creating layer inception_3b/5x5
I0403 21:53:00.605134 24572 net.cpp:91] Creating Layer inception_3b/5x5
I0403 21:53:00.605151 24572 net.cpp:425] inception_3b/5x5 <- inception_3b/5x5_reduce
I0403 21:53:00.605170 24572 net.cpp:399] inception_3b/5x5 -> inception_3b/5x5
I0403 21:53:00.607100 24572 net.cpp:141] Setting up inception_3b/5x5
I0403 21:53:00.607128 24572 net.cpp:148] Top shape: 24 96 28 28 (1806336)
I0403 21:53:00.607144 24572 net.cpp:156] Memory required for data: 736986144
I0403 21:53:00.607162 24572 layer_factory.hpp:77] Creating layer inception_3b/relu_5x5
I0403 21:53:00.607179 24572 net.cpp:91] Creating Layer inception_3b/relu_5x5
I0403 21:53:00.607195 24572 net.cpp:425] inception_3b/relu_5x5 <- inception_3b/5x5
I0403 21:53:00.607215 24572 net.cpp:386] inception_3b/relu_5x5 -> inception_3b/5x5 (in-place)
I0403 21:53:00.607405 24572 net.cpp:141] Setting up inception_3b/relu_5x5
I0403 21:53:00.607430 24572 net.cpp:148] Top shape: 24 96 28 28 (1806336)
I0403 21:53:00.607445 24572 net.cpp:156] Memory required for data: 744211488
I0403 21:53:00.607460 24572 layer_factory.hpp:77] Creating layer inception_3b/pool
I0403 21:53:00.607476 24572 net.cpp:91] Creating Layer inception_3b/pool
I0403 21:53:00.607492 24572 net.cpp:425] inception_3b/pool <- inception_3a/output_inception_3a/output_0_split_3
I0403 21:53:00.607511 24572 net.cpp:399] inception_3b/pool -> inception_3b/pool
I0403 21:53:00.607564 24572 net.cpp:141] Setting up inception_3b/pool
I0403 21:53:00.607588 24572 net.cpp:148] Top shape: 24 256 28 28 (4816896)
I0403 21:53:00.607602 24572 net.cpp:156] Memory required for data: 763479072
I0403 21:53:00.607617 24572 layer_factory.hpp:77] Creating layer inception_3b/pool_proj
I0403 21:53:00.607638 24572 net.cpp:91] Creating Layer inception_3b/pool_proj
I0403 21:53:00.607656 24572 net.cpp:425] inception_3b/pool_proj <- inception_3b/pool
I0403 21:53:00.607676 24572 net.cpp:399] inception_3b/pool_proj -> inception_3b/pool_proj
I0403 21:53:00.608710 24572 net.cpp:141] Setting up inception_3b/pool_proj
I0403 21:53:00.608739 24572 net.cpp:148] Top shape: 24 64 28 28 (1204224)
I0403 21:53:00.608757 24572 net.cpp:156] Memory required for data: 768295968
I0403 21:53:00.608774 24572 layer_factory.hpp:77] Creating layer inception_3b/relu_pool_proj
I0403 21:53:00.608793 24572 net.cpp:91] Creating Layer inception_3b/relu_pool_proj
I0403 21:53:00.608809 24572 net.cpp:425] inception_3b/relu_pool_proj <- inception_3b/pool_proj
I0403 21:53:00.608826 24572 net.cpp:386] inception_3b/relu_pool_proj -> inception_3b/pool_proj (in-place)
I0403 21:53:00.609212 24572 net.cpp:141] Setting up inception_3b/relu_pool_proj
I0403 21:53:00.609242 24572 net.cpp:148] Top shape: 24 64 28 28 (1204224)
I0403 21:53:00.609258 24572 net.cpp:156] Memory required for data: 773112864
I0403 21:53:00.609272 24572 layer_factory.hpp:77] Creating layer inception_3b/output
I0403 21:53:00.609295 24572 net.cpp:91] Creating Layer inception_3b/output
I0403 21:53:00.609313 24572 net.cpp:425] inception_3b/output <- inception_3b/1x1
I0403 21:53:00.609330 24572 net.cpp:425] inception_3b/output <- inception_3b/3x3
I0403 21:53:00.609345 24572 net.cpp:425] inception_3b/output <- inception_3b/5x5
I0403 21:53:00.609360 24572 net.cpp:425] inception_3b/output <- inception_3b/pool_proj
I0403 21:53:00.609377 24572 net.cpp:399] inception_3b/output -> inception_3b/output
I0403 21:53:00.609421 24572 net.cpp:141] Setting up inception_3b/output
I0403 21:53:00.609443 24572 net.cpp:148] Top shape: 24 480 28 28 (9031680)
I0403 21:53:00.609459 24572 net.cpp:156] Memory required for data: 809239584
I0403 21:53:00.609474 24572 layer_factory.hpp:77] Creating layer pool3/3x3_s2
I0403 21:53:00.609490 24572 net.cpp:91] Creating Layer pool3/3x3_s2
I0403 21:53:00.609506 24572 net.cpp:425] pool3/3x3_s2 <- inception_3b/output
I0403 21:53:00.609541 24572 net.cpp:399] pool3/3x3_s2 -> pool3/3x3_s2
I0403 21:53:00.609601 24572 net.cpp:141] Setting up pool3/3x3_s2
I0403 21:53:00.609623 24572 net.cpp:148] Top shape: 24 480 14 14 (2257920)
I0403 21:53:00.609637 24572 net.cpp:156] Memory required for data: 818271264
I0403 21:53:00.609652 24572 layer_factory.hpp:77] Creating layer pool3/3x3_s2_pool3/3x3_s2_0_split
I0403 21:53:00.609669 24572 net.cpp:91] Creating Layer pool3/3x3_s2_pool3/3x3_s2_0_split
I0403 21:53:00.609683 24572 net.cpp:425] pool3/3x3_s2_pool3/3x3_s2_0_split <- pool3/3x3_s2
I0403 21:53:00.609704 24572 net.cpp:399] pool3/3x3_s2_pool3/3x3_s2_0_split -> pool3/3x3_s2_pool3/3x3_s2_0_split_0
I0403 21:53:00.609724 24572 net.cpp:399] pool3/3x3_s2_pool3/3x3_s2_0_split -> pool3/3x3_s2_pool3/3x3_s2_0_split_1
I0403 21:53:00.609745 24572 net.cpp:399] pool3/3x3_s2_pool3/3x3_s2_0_split -> pool3/3x3_s2_pool3/3x3_s2_0_split_2
I0403 21:53:00.609762 24572 net.cpp:399] pool3/3x3_s2_pool3/3x3_s2_0_split -> pool3/3x3_s2_pool3/3x3_s2_0_split_3
I0403 21:53:00.609834 24572 net.cpp:141] Setting up pool3/3x3_s2_pool3/3x3_s2_0_split
I0403 21:53:00.609859 24572 net.cpp:148] Top shape: 24 480 14 14 (2257920)
I0403 21:53:00.609877 24572 net.cpp:148] Top shape: 24 480 14 14 (2257920)
I0403 21:53:00.609894 24572 net.cpp:148] Top shape: 24 480 14 14 (2257920)
I0403 21:53:00.609910 24572 net.cpp:148] Top shape: 24 480 14 14 (2257920)
I0403 21:53:00.609923 24572 net.cpp:156] Memory required for data: 854397984
I0403 21:53:00.609937 24572 layer_factory.hpp:77] Creating layer inception_4a/1x1
I0403 21:53:00.609959 24572 net.cpp:91] Creating Layer inception_4a/1x1
I0403 21:53:00.609977 24572 net.cpp:425] inception_4a/1x1 <- pool3/3x3_s2_pool3/3x3_s2_0_split_0
I0403 21:53:00.609997 24572 net.cpp:399] inception_4a/1x1 -> inception_4a/1x1
I0403 21:53:00.611516 24572 net.cpp:141] Setting up inception_4a/1x1
I0403 21:53:00.611546 24572 net.cpp:148] Top shape: 24 192 14 14 (903168)
I0403 21:53:00.611562 24572 net.cpp:156] Memory required for data: 858010656
I0403 21:53:00.611580 24572 layer_factory.hpp:77] Creating layer inception_4a/relu_1x1
I0403 21:53:00.611599 24572 net.cpp:91] Creating Layer inception_4a/relu_1x1
I0403 21:53:00.611615 24572 net.cpp:425] inception_4a/relu_1x1 <- inception_4a/1x1
I0403 21:53:00.611635 24572 net.cpp:386] inception_4a/relu_1x1 -> inception_4a/1x1 (in-place)
I0403 21:53:00.611806 24572 net.cpp:141] Setting up inception_4a/relu_1x1
I0403 21:53:00.611831 24572 net.cpp:148] Top shape: 24 192 14 14 (903168)
I0403 21:53:00.611846 24572 net.cpp:156] Memory required for data: 861623328
I0403 21:53:00.611861 24572 layer_factory.hpp:77] Creating layer inception_4a/3x3_reduce
I0403 21:53:00.611883 24572 net.cpp:91] Creating Layer inception_4a/3x3_reduce
I0403 21:53:00.611901 24572 net.cpp:425] inception_4a/3x3_reduce <- pool3/3x3_s2_pool3/3x3_s2_0_split_1
I0403 21:53:00.611922 24572 net.cpp:399] inception_4a/3x3_reduce -> inception_4a/3x3_reduce
I0403 21:53:00.613143 24572 net.cpp:141] Setting up inception_4a/3x3_reduce
I0403 21:53:00.613183 24572 net.cpp:148] Top shape: 24 96 14 14 (451584)
I0403 21:53:00.613198 24572 net.cpp:156] Memory required for data: 863429664
I0403 21:53:00.613222 24572 layer_factory.hpp:77] Creating layer inception_4a/relu_3x3_reduce
I0403 21:53:00.613246 24572 net.cpp:91] Creating Layer inception_4a/relu_3x3_reduce
I0403 21:53:00.613263 24572 net.cpp:425] inception_4a/relu_3x3_reduce <- inception_4a/3x3_reduce
I0403 21:53:00.613281 24572 net.cpp:386] inception_4a/relu_3x3_reduce -> inception_4a/3x3_reduce (in-place)
I0403 21:53:00.613451 24572 net.cpp:141] Setting up inception_4a/relu_3x3_reduce
I0403 21:53:00.613484 24572 net.cpp:148] Top shape: 24 96 14 14 (451584)
I0403 21:53:00.613499 24572 net.cpp:156] Memory required for data: 865236000
I0403 21:53:00.613513 24572 layer_factory.hpp:77] Creating layer inception_4a/3x3
I0403 21:53:00.613535 24572 net.cpp:91] Creating Layer inception_4a/3x3
I0403 21:53:00.613553 24572 net.cpp:425] inception_4a/3x3 <- inception_4a/3x3_reduce
I0403 21:53:00.613572 24572 net.cpp:399] inception_4a/3x3 -> inception_4a/3x3
I0403 21:53:00.616173 24572 net.cpp:141] Setting up inception_4a/3x3
I0403 21:53:00.616201 24572 net.cpp:148] Top shape: 24 208 14 14 (978432)
I0403 21:53:00.616216 24572 net.cpp:156] Memory required for data: 869149728
I0403 21:53:00.616240 24572 layer_factory.hpp:77] Creating layer inception_4a/relu_3x3
I0403 21:53:00.616261 24572 net.cpp:91] Creating Layer inception_4a/relu_3x3
I0403 21:53:00.616277 24572 net.cpp:425] inception_4a/relu_3x3 <- inception_4a/3x3
I0403 21:53:00.616297 24572 net.cpp:386] inception_4a/relu_3x3 -> inception_4a/3x3 (in-place)
I0403 21:53:00.616571 24572 net.cpp:141] Setting up inception_4a/relu_3x3
I0403 21:53:00.616597 24572 net.cpp:148] Top shape: 24 208 14 14 (978432)
I0403 21:53:00.616613 24572 net.cpp:156] Memory required for data: 873063456
I0403 21:53:00.616628 24572 layer_factory.hpp:77] Creating layer inception_4a/5x5_reduce
I0403 21:53:00.616650 24572 net.cpp:91] Creating Layer inception_4a/5x5_reduce
I0403 21:53:00.616667 24572 net.cpp:425] inception_4a/5x5_reduce <- pool3/3x3_s2_pool3/3x3_s2_0_split_2
I0403 21:53:00.616688 24572 net.cpp:399] inception_4a/5x5_reduce -> inception_4a/5x5_reduce
I0403 21:53:00.617684 24572 net.cpp:141] Setting up inception_4a/5x5_reduce
I0403 21:53:00.617712 24572 net.cpp:148] Top shape: 24 16 14 14 (75264)
I0403 21:53:00.617727 24572 net.cpp:156] Memory required for data: 873364512
I0403 21:53:00.617746 24572 layer_factory.hpp:77] Creating layer inception_4a/relu_5x5_reduce
I0403 21:53:00.617765 24572 net.cpp:91] Creating Layer inception_4a/relu_5x5_reduce
I0403 21:53:00.617784 24572 net.cpp:425] inception_4a/relu_5x5_reduce <- inception_4a/5x5_reduce
I0403 21:53:00.617800 24572 net.cpp:386] inception_4a/relu_5x5_reduce -> inception_4a/5x5_reduce (in-place)
I0403 21:53:00.617969 24572 net.cpp:141] Setting up inception_4a/relu_5x5_reduce
I0403 21:53:00.617996 24572 net.cpp:148] Top shape: 24 16 14 14 (75264)
I0403 21:53:00.618013 24572 net.cpp:156] Memory required for data: 873665568
I0403 21:53:00.618029 24572 layer_factory.hpp:77] Creating layer inception_4a/5x5
I0403 21:53:00.618051 24572 net.cpp:91] Creating Layer inception_4a/5x5
I0403 21:53:00.618067 24572 net.cpp:425] inception_4a/5x5 <- inception_4a/5x5_reduce
I0403 21:53:00.618085 24572 net.cpp:399] inception_4a/5x5 -> inception_4a/5x5
I0403 21:53:00.619143 24572 net.cpp:141] Setting up inception_4a/5x5
I0403 21:53:00.619169 24572 net.cpp:148] Top shape: 24 48 14 14 (225792)
I0403 21:53:00.619186 24572 net.cpp:156] Memory required for data: 874568736
I0403 21:53:00.619204 24572 layer_factory.hpp:77] Creating layer inception_4a/relu_5x5
I0403 21:53:00.619223 24572 net.cpp:91] Creating Layer inception_4a/relu_5x5
I0403 21:53:00.619246 24572 net.cpp:425] inception_4a/relu_5x5 <- inception_4a/5x5
I0403 21:53:00.619263 24572 net.cpp:386] inception_4a/relu_5x5 -> inception_4a/5x5 (in-place)
I0403 21:53:00.619436 24572 net.cpp:141] Setting up inception_4a/relu_5x5
I0403 21:53:00.619459 24572 net.cpp:148] Top shape: 24 48 14 14 (225792)
I0403 21:53:00.619474 24572 net.cpp:156] Memory required for data: 875471904
I0403 21:53:00.619489 24572 layer_factory.hpp:77] Creating layer inception_4a/pool
I0403 21:53:00.619506 24572 net.cpp:91] Creating Layer inception_4a/pool
I0403 21:53:00.619524 24572 net.cpp:425] inception_4a/pool <- pool3/3x3_s2_pool3/3x3_s2_0_split_3
I0403 21:53:00.619544 24572 net.cpp:399] inception_4a/pool -> inception_4a/pool
I0403 21:53:00.619606 24572 net.cpp:141] Setting up inception_4a/pool
I0403 21:53:00.619628 24572 net.cpp:148] Top shape: 24 480 14 14 (2257920)
I0403 21:53:00.619643 24572 net.cpp:156] Memory required for data: 884503584
I0403 21:53:00.619658 24572 layer_factory.hpp:77] Creating layer inception_4a/pool_proj
I0403 21:53:00.619680 24572 net.cpp:91] Creating Layer inception_4a/pool_proj
I0403 21:53:00.619699 24572 net.cpp:425] inception_4a/pool_proj <- inception_4a/pool
I0403 21:53:00.619717 24572 net.cpp:399] inception_4a/pool_proj -> inception_4a/pool_proj
I0403 21:53:00.620872 24572 net.cpp:141] Setting up inception_4a/pool_proj
I0403 21:53:00.620903 24572 net.cpp:148] Top shape: 24 64 14 14 (301056)
I0403 21:53:00.620937 24572 net.cpp:156] Memory required for data: 885707808
I0403 21:53:00.620959 24572 layer_factory.hpp:77] Creating layer inception_4a/relu_pool_proj
I0403 21:53:00.620978 24572 net.cpp:91] Creating Layer inception_4a/relu_pool_proj
I0403 21:53:00.620996 24572 net.cpp:425] inception_4a/relu_pool_proj <- inception_4a/pool_proj
I0403 21:53:00.621018 24572 net.cpp:386] inception_4a/relu_pool_proj -> inception_4a/pool_proj (in-place)
I0403 21:53:00.621304 24572 net.cpp:141] Setting up inception_4a/relu_pool_proj
I0403 21:53:00.621332 24572 net.cpp:148] Top shape: 24 64 14 14 (301056)
I0403 21:53:00.621348 24572 net.cpp:156] Memory required for data: 886912032
I0403 21:53:00.621363 24572 layer_factory.hpp:77] Creating layer inception_4a/output
I0403 21:53:00.621382 24572 net.cpp:91] Creating Layer inception_4a/output
I0403 21:53:00.621398 24572 net.cpp:425] inception_4a/output <- inception_4a/1x1
I0403 21:53:00.621417 24572 net.cpp:425] inception_4a/output <- inception_4a/3x3
I0403 21:53:00.621431 24572 net.cpp:425] inception_4a/output <- inception_4a/5x5
I0403 21:53:00.621448 24572 net.cpp:425] inception_4a/output <- inception_4a/pool_proj
I0403 21:53:00.621465 24572 net.cpp:399] inception_4a/output -> inception_4a/output
I0403 21:53:00.621511 24572 net.cpp:141] Setting up inception_4a/output
I0403 21:53:00.621534 24572 net.cpp:148] Top shape: 24 512 14 14 (2408448)
I0403 21:53:00.621551 24572 net.cpp:156] Memory required for data: 896545824
I0403 21:53:00.621565 24572 layer_factory.hpp:77] Creating layer inception_4a/output_inception_4a/output_0_split
I0403 21:53:00.621584 24572 net.cpp:91] Creating Layer inception_4a/output_inception_4a/output_0_split
I0403 21:53:00.621601 24572 net.cpp:425] inception_4a/output_inception_4a/output_0_split <- inception_4a/output
I0403 21:53:00.621620 24572 net.cpp:399] inception_4a/output_inception_4a/output_0_split -> inception_4a/output_inception_4a/output_0_split_0
I0403 21:53:00.621642 24572 net.cpp:399] inception_4a/output_inception_4a/output_0_split -> inception_4a/output_inception_4a/output_0_split_1
I0403 21:53:00.621667 24572 net.cpp:399] inception_4a/output_inception_4a/output_0_split -> inception_4a/output_inception_4a/output_0_split_2
I0403 21:53:00.621690 24572 net.cpp:399] inception_4a/output_inception_4a/output_0_split -> inception_4a/output_inception_4a/output_0_split_3
I0403 21:53:00.621711 24572 net.cpp:399] inception_4a/output_inception_4a/output_0_split -> inception_4a/output_inception_4a/output_0_split_4
I0403 21:53:00.621803 24572 net.cpp:141] Setting up inception_4a/output_inception_4a/output_0_split
I0403 21:53:00.621827 24572 net.cpp:148] Top shape: 24 512 14 14 (2408448)
I0403 21:53:00.621845 24572 net.cpp:148] Top shape: 24 512 14 14 (2408448)
I0403 21:53:00.621860 24572 net.cpp:148] Top shape: 24 512 14 14 (2408448)
I0403 21:53:00.621876 24572 net.cpp:148] Top shape: 24 512 14 14 (2408448)
I0403 21:53:00.621891 24572 net.cpp:148] Top shape: 24 512 14 14 (2408448)
I0403 21:53:00.621906 24572 net.cpp:156] Memory required for data: 944714784
I0403 21:53:00.621920 24572 layer_factory.hpp:77] Creating layer loss1/ave_pool
I0403 21:53:00.621942 24572 net.cpp:91] Creating Layer loss1/ave_pool
I0403 21:53:00.621959 24572 net.cpp:425] loss1/ave_pool <- inception_4a/output_inception_4a/output_0_split_0
I0403 21:53:00.621978 24572 net.cpp:399] loss1/ave_pool -> loss1/ave_pool
I0403 21:53:00.622176 24572 net.cpp:141] Setting up loss1/ave_pool
I0403 21:53:00.622205 24572 net.cpp:148] Top shape: 24 512 4 4 (196608)
I0403 21:53:00.622220 24572 net.cpp:156] Memory required for data: 945501216
I0403 21:53:00.622241 24572 layer_factory.hpp:77] Creating layer loss1/conv
I0403 21:53:00.622265 24572 net.cpp:91] Creating Layer loss1/conv
I0403 21:53:00.622283 24572 net.cpp:425] loss1/conv <- loss1/ave_pool
I0403 21:53:00.622303 24572 net.cpp:399] loss1/conv -> loss1/conv
I0403 21:53:00.623697 24572 net.cpp:141] Setting up loss1/conv
I0403 21:53:00.623725 24572 net.cpp:148] Top shape: 24 128 4 4 (49152)
I0403 21:53:00.623755 24572 net.cpp:156] Memory required for data: 945697824
I0403 21:53:00.623775 24572 layer_factory.hpp:77] Creating layer loss1/relu_conv
I0403 21:53:00.623796 24572 net.cpp:91] Creating Layer loss1/relu_conv
I0403 21:53:00.623814 24572 net.cpp:425] loss1/relu_conv <- loss1/conv
I0403 21:53:00.623832 24572 net.cpp:386] loss1/relu_conv -> loss1/conv (in-place)
I0403 21:53:00.624112 24572 net.cpp:141] Setting up loss1/relu_conv
I0403 21:53:00.624138 24572 net.cpp:148] Top shape: 24 128 4 4 (49152)
I0403 21:53:00.624155 24572 net.cpp:156] Memory required for data: 945894432
I0403 21:53:00.624169 24572 layer_factory.hpp:77] Creating layer loss1/fc
I0403 21:53:00.624196 24572 net.cpp:91] Creating Layer loss1/fc
I0403 21:53:00.624214 24572 net.cpp:425] loss1/fc <- loss1/conv
I0403 21:53:00.624238 24572 net.cpp:399] loss1/fc -> loss1/fc
I0403 21:53:00.641973 24572 net.cpp:141] Setting up loss1/fc
I0403 21:53:00.642006 24572 net.cpp:148] Top shape: 24 1024 (24576)
I0403 21:53:00.642024 24572 net.cpp:156] Memory required for data: 945992736
I0403 21:53:00.642042 24572 layer_factory.hpp:77] Creating layer loss1/relu_fc
I0403 21:53:00.642060 24572 net.cpp:91] Creating Layer loss1/relu_fc
I0403 21:53:00.642076 24572 net.cpp:425] loss1/relu_fc <- loss1/fc
I0403 21:53:00.642096 24572 net.cpp:386] loss1/relu_fc -> loss1/fc (in-place)
I0403 21:53:00.642283 24572 net.cpp:141] Setting up loss1/relu_fc
I0403 21:53:00.642309 24572 net.cpp:148] Top shape: 24 1024 (24576)
I0403 21:53:00.642324 24572 net.cpp:156] Memory required for data: 946091040
I0403 21:53:00.642339 24572 layer_factory.hpp:77] Creating layer loss1/drop_fc
I0403 21:53:00.642364 24572 net.cpp:91] Creating Layer loss1/drop_fc
I0403 21:53:00.642382 24572 net.cpp:425] loss1/drop_fc <- loss1/fc
I0403 21:53:00.642402 24572 net.cpp:386] loss1/drop_fc -> loss1/fc (in-place)
I0403 21:53:00.642453 24572 net.cpp:141] Setting up loss1/drop_fc
I0403 21:53:00.642479 24572 net.cpp:148] Top shape: 24 1024 (24576)
I0403 21:53:00.642494 24572 net.cpp:156] Memory required for data: 946189344
I0403 21:53:00.642509 24572 layer_factory.hpp:77] Creating layer loss1/classifier_plantvillage
I0403 21:53:00.642529 24572 net.cpp:91] Creating Layer loss1/classifier_plantvillage
I0403 21:53:00.642544 24572 net.cpp:425] loss1/classifier_plantvillage <- loss1/fc
I0403 21:53:00.642565 24572 net.cpp:399] loss1/classifier_plantvillage -> loss1/classifier_plantvillage
I0403 21:53:00.643473 24572 net.cpp:141] Setting up loss1/classifier_plantvillage
I0403 21:53:00.643501 24572 net.cpp:148] Top shape: 24 38 (912)
I0403 21:53:00.643517 24572 net.cpp:156] Memory required for data: 946192992
I0403 21:53:00.643534 24572 layer_factory.hpp:77] Creating layer loss1/classifier_plantvillage_loss1/classifier_plantvillage_0_split
I0403 21:53:00.643553 24572 net.cpp:91] Creating Layer loss1/classifier_plantvillage_loss1/classifier_plantvillage_0_split
I0403 21:53:00.643568 24572 net.cpp:425] loss1/classifier_plantvillage_loss1/classifier_plantvillage_0_split <- loss1/classifier_plantvillage
I0403 21:53:00.643587 24572 net.cpp:399] loss1/classifier_plantvillage_loss1/classifier_plantvillage_0_split -> loss1/classifier_plantvillage_loss1/classifier_plantvillage_0_split_0
I0403 21:53:00.643610 24572 net.cpp:399] loss1/classifier_plantvillage_loss1/classifier_plantvillage_0_split -> loss1/classifier_plantvillage_loss1/classifier_plantvillage_0_split_1
I0403 21:53:00.643630 24572 net.cpp:399] loss1/classifier_plantvillage_loss1/classifier_plantvillage_0_split -> loss1/classifier_plantvillage_loss1/classifier_plantvillage_0_split_2
I0403 21:53:00.643695 24572 net.cpp:141] Setting up loss1/classifier_plantvillage_loss1/classifier_plantvillage_0_split
I0403 21:53:00.643718 24572 net.cpp:148] Top shape: 24 38 (912)
I0403 21:53:00.643734 24572 net.cpp:148] Top shape: 24 38 (912)
I0403 21:53:00.643751 24572 net.cpp:148] Top shape: 24 38 (912)
I0403 21:53:00.643766 24572 net.cpp:156] Memory required for data: 946203936
I0403 21:53:00.643780 24572 layer_factory.hpp:77] Creating layer inception_4b/1x1
I0403 21:53:00.643802 24572 net.cpp:91] Creating Layer inception_4b/1x1
I0403 21:53:00.643836 24572 net.cpp:425] inception_4b/1x1 <- inception_4a/output_inception_4a/output_0_split_1
I0403 21:53:00.643856 24572 net.cpp:399] inception_4b/1x1 -> inception_4b/1x1
I0403 21:53:00.645459 24572 net.cpp:141] Setting up inception_4b/1x1
I0403 21:53:00.645493 24572 net.cpp:148] Top shape: 24 160 14 14 (752640)
I0403 21:53:00.645509 24572 net.cpp:156] Memory required for data: 949214496
I0403 21:53:00.645527 24572 layer_factory.hpp:77] Creating layer inception_4b/relu_1x1
I0403 21:53:00.645546 24572 net.cpp:91] Creating Layer inception_4b/relu_1x1
I0403 21:53:00.645565 24572 net.cpp:425] inception_4b/relu_1x1 <- inception_4b/1x1
I0403 21:53:00.645581 24572 net.cpp:386] inception_4b/relu_1x1 -> inception_4b/1x1 (in-place)
I0403 21:53:00.645753 24572 net.cpp:141] Setting up inception_4b/relu_1x1
I0403 21:53:00.645781 24572 net.cpp:148] Top shape: 24 160 14 14 (752640)
I0403 21:53:00.645797 24572 net.cpp:156] Memory required for data: 952225056
I0403 21:53:00.645812 24572 layer_factory.hpp:77] Creating layer inception_4b/3x3_reduce
I0403 21:53:00.645833 24572 net.cpp:91] Creating Layer inception_4b/3x3_reduce
I0403 21:53:00.645848 24572 net.cpp:425] inception_4b/3x3_reduce <- inception_4a/output_inception_4a/output_0_split_2
I0403 21:53:00.645870 24572 net.cpp:399] inception_4b/3x3_reduce -> inception_4b/3x3_reduce
I0403 21:53:00.647186 24572 net.cpp:141] Setting up inception_4b/3x3_reduce
I0403 21:53:00.647212 24572 net.cpp:148] Top shape: 24 112 14 14 (526848)
I0403 21:53:00.647231 24572 net.cpp:156] Memory required for data: 954332448
I0403 21:53:00.647253 24572 layer_factory.hpp:77] Creating layer inception_4b/relu_3x3_reduce
I0403 21:53:00.647275 24572 net.cpp:91] Creating Layer inception_4b/relu_3x3_reduce
I0403 21:53:00.647291 24572 net.cpp:425] inception_4b/relu_3x3_reduce <- inception_4b/3x3_reduce
I0403 21:53:00.647308 24572 net.cpp:386] inception_4b/relu_3x3_reduce -> inception_4b/3x3_reduce (in-place)
I0403 21:53:00.647589 24572 net.cpp:141] Setting up inception_4b/relu_3x3_reduce
I0403 21:53:00.647615 24572 net.cpp:148] Top shape: 24 112 14 14 (526848)
I0403 21:53:00.647631 24572 net.cpp:156] Memory required for data: 956439840
I0403 21:53:00.647645 24572 layer_factory.hpp:77] Creating layer inception_4b/3x3
I0403 21:53:00.647667 24572 net.cpp:91] Creating Layer inception_4b/3x3
I0403 21:53:00.647686 24572 net.cpp:425] inception_4b/3x3 <- inception_4b/3x3_reduce
I0403 21:53:00.647706 24572 net.cpp:399] inception_4b/3x3 -> inception_4b/3x3
I0403 21:53:00.650624 24572 net.cpp:141] Setting up inception_4b/3x3
I0403 21:53:00.650652 24572 net.cpp:148] Top shape: 24 224 14 14 (1053696)
I0403 21:53:00.650667 24572 net.cpp:156] Memory required for data: 960654624
I0403 21:53:00.650686 24572 layer_factory.hpp:77] Creating layer inception_4b/relu_3x3
I0403 21:53:00.650706 24572 net.cpp:91] Creating Layer inception_4b/relu_3x3
I0403 21:53:00.650722 24572 net.cpp:425] inception_4b/relu_3x3 <- inception_4b/3x3
I0403 21:53:00.650743 24572 net.cpp:386] inception_4b/relu_3x3 -> inception_4b/3x3 (in-place)
I0403 21:53:00.650916 24572 net.cpp:141] Setting up inception_4b/relu_3x3
I0403 21:53:00.650941 24572 net.cpp:148] Top shape: 24 224 14 14 (1053696)
I0403 21:53:00.650957 24572 net.cpp:156] Memory required for data: 964869408
I0403 21:53:00.650972 24572 layer_factory.hpp:77] Creating layer inception_4b/5x5_reduce
I0403 21:53:00.650995 24572 net.cpp:91] Creating Layer inception_4b/5x5_reduce
I0403 21:53:00.651011 24572 net.cpp:425] inception_4b/5x5_reduce <- inception_4a/output_inception_4a/output_0_split_3
I0403 21:53:00.651033 24572 net.cpp:399] inception_4b/5x5_reduce -> inception_4b/5x5_reduce
I0403 21:53:00.652088 24572 net.cpp:141] Setting up inception_4b/5x5_reduce
I0403 21:53:00.652117 24572 net.cpp:148] Top shape: 24 24 14 14 (112896)
I0403 21:53:00.652132 24572 net.cpp:156] Memory required for data: 965320992
I0403 21:53:00.652150 24572 layer_factory.hpp:77] Creating layer inception_4b/relu_5x5_reduce
I0403 21:53:00.652174 24572 net.cpp:91] Creating Layer inception_4b/relu_5x5_reduce
I0403 21:53:00.652205 24572 net.cpp:425] inception_4b/relu_5x5_reduce <- inception_4b/5x5_reduce
I0403 21:53:00.652223 24572 net.cpp:386] inception_4b/relu_5x5_reduce -> inception_4b/5x5_reduce (in-place)
I0403 21:53:00.652406 24572 net.cpp:141] Setting up inception_4b/relu_5x5_reduce
I0403 21:53:00.652433 24572 net.cpp:148] Top shape: 24 24 14 14 (112896)
I0403 21:53:00.652451 24572 net.cpp:156] Memory required for data: 965772576
I0403 21:53:00.652467 24572 layer_factory.hpp:77] Creating layer inception_4b/5x5
I0403 21:53:00.652487 24572 net.cpp:91] Creating Layer inception_4b/5x5
I0403 21:53:00.652505 24572 net.cpp:425] inception_4b/5x5 <- inception_4b/5x5_reduce
I0403 21:53:00.652524 24572 net.cpp:399] inception_4b/5x5 -> inception_4b/5x5
I0403 21:53:00.653710 24572 net.cpp:141] Setting up inception_4b/5x5
I0403 21:53:00.653738 24572 net.cpp:148] Top shape: 24 64 14 14 (301056)
I0403 21:53:00.653754 24572 net.cpp:156] Memory required for data: 966976800
I0403 21:53:00.653774 24572 layer_factory.hpp:77] Creating layer inception_4b/relu_5x5
I0403 21:53:00.653794 24572 net.cpp:91] Creating Layer inception_4b/relu_5x5
I0403 21:53:00.653810 24572 net.cpp:425] inception_4b/relu_5x5 <- inception_4b/5x5
I0403 21:53:00.653827 24572 net.cpp:386] inception_4b/relu_5x5 -> inception_4b/5x5 (in-place)
I0403 21:53:00.654104 24572 net.cpp:141] Setting up inception_4b/relu_5x5
I0403 21:53:00.654130 24572 net.cpp:148] Top shape: 24 64 14 14 (301056)
I0403 21:53:00.654146 24572 net.cpp:156] Memory required for data: 968181024
I0403 21:53:00.654161 24572 layer_factory.hpp:77] Creating layer inception_4b/pool
I0403 21:53:00.654178 24572 net.cpp:91] Creating Layer inception_4b/pool
I0403 21:53:00.654194 24572 net.cpp:425] inception_4b/pool <- inception_4a/output_inception_4a/output_0_split_4
I0403 21:53:00.654217 24572 net.cpp:399] inception_4b/pool -> inception_4b/pool
I0403 21:53:00.654287 24572 net.cpp:141] Setting up inception_4b/pool
I0403 21:53:00.654311 24572 net.cpp:148] Top shape: 24 512 14 14 (2408448)
I0403 21:53:00.654325 24572 net.cpp:156] Memory required for data: 977814816
I0403 21:53:00.654340 24572 layer_factory.hpp:77] Creating layer inception_4b/pool_proj
I0403 21:53:00.654377 24572 net.cpp:91] Creating Layer inception_4b/pool_proj
I0403 21:53:00.654397 24572 net.cpp:425] inception_4b/pool_proj <- inception_4b/pool
I0403 21:53:00.654417 24572 net.cpp:399] inception_4b/pool_proj -> inception_4b/pool_proj
I0403 21:53:00.655601 24572 net.cpp:141] Setting up inception_4b/pool_proj
I0403 21:53:00.655629 24572 net.cpp:148] Top shape: 24 64 14 14 (301056)
I0403 21:53:00.655644 24572 net.cpp:156] Memory required for data: 979019040
I0403 21:53:00.655663 24572 layer_factory.hpp:77] Creating layer inception_4b/relu_pool_proj
I0403 21:53:00.655686 24572 net.cpp:91] Creating Layer inception_4b/relu_pool_proj
I0403 21:53:00.655704 24572 net.cpp:425] inception_4b/relu_pool_proj <- inception_4b/pool_proj
I0403 21:53:00.655722 24572 net.cpp:386] inception_4b/relu_pool_proj -> inception_4b/pool_proj (in-place)
I0403 21:53:00.655896 24572 net.cpp:141] Setting up inception_4b/relu_pool_proj
I0403 21:53:00.655923 24572 net.cpp:148] Top shape: 24 64 14 14 (301056)
I0403 21:53:00.655939 24572 net.cpp:156] Memory required for data: 980223264
I0403 21:53:00.655956 24572 layer_factory.hpp:77] Creating layer inception_4b/output
I0403 21:53:00.655972 24572 net.cpp:91] Creating Layer inception_4b/output
I0403 21:53:00.655987 24572 net.cpp:425] inception_4b/output <- inception_4b/1x1
I0403 21:53:00.656004 24572 net.cpp:425] inception_4b/output <- inception_4b/3x3
I0403 21:53:00.656019 24572 net.cpp:425] inception_4b/output <- inception_4b/5x5
I0403 21:53:00.656034 24572 net.cpp:425] inception_4b/output <- inception_4b/pool_proj
I0403 21:53:00.656050 24572 net.cpp:399] inception_4b/output -> inception_4b/output
I0403 21:53:00.656095 24572 net.cpp:141] Setting up inception_4b/output
I0403 21:53:00.656119 24572 net.cpp:148] Top shape: 24 512 14 14 (2408448)
I0403 21:53:00.656133 24572 net.cpp:156] Memory required for data: 989857056
I0403 21:53:00.656162 24572 layer_factory.hpp:77] Creating layer inception_4b/output_inception_4b/output_0_split
I0403 21:53:00.656183 24572 net.cpp:91] Creating Layer inception_4b/output_inception_4b/output_0_split
I0403 21:53:00.656200 24572 net.cpp:425] inception_4b/output_inception_4b/output_0_split <- inception_4b/output
I0403 21:53:00.656218 24572 net.cpp:399] inception_4b/output_inception_4b/output_0_split -> inception_4b/output_inception_4b/output_0_split_0
I0403 21:53:00.656244 24572 net.cpp:399] inception_4b/output_inception_4b/output_0_split -> inception_4b/output_inception_4b/output_0_split_1
I0403 21:53:00.656265 24572 net.cpp:399] inception_4b/output_inception_4b/output_0_split -> inception_4b/output_inception_4b/output_0_split_2
I0403 21:53:00.656285 24572 net.cpp:399] inception_4b/output_inception_4b/output_0_split -> inception_4b/output_inception_4b/output_0_split_3
I0403 21:53:00.656368 24572 net.cpp:141] Setting up inception_4b/output_inception_4b/output_0_split
I0403 21:53:00.656390 24572 net.cpp:148] Top shape: 24 512 14 14 (2408448)
I0403 21:53:00.656405 24572 net.cpp:148] Top shape: 24 512 14 14 (2408448)
I0403 21:53:00.656421 24572 net.cpp:148] Top shape: 24 512 14 14 (2408448)
I0403 21:53:00.656437 24572 net.cpp:148] Top shape: 24 512 14 14 (2408448)
I0403 21:53:00.656451 24572 net.cpp:156] Memory required for data: 1028392224
I0403 21:53:00.656466 24572 layer_factory.hpp:77] Creating layer inception_4c/1x1
I0403 21:53:00.656486 24572 net.cpp:91] Creating Layer inception_4c/1x1
I0403 21:53:00.656504 24572 net.cpp:425] inception_4c/1x1 <- inception_4b/output_inception_4b/output_0_split_0
I0403 21:53:00.656524 24572 net.cpp:399] inception_4c/1x1 -> inception_4c/1x1
I0403 21:53:00.657919 24572 net.cpp:141] Setting up inception_4c/1x1
I0403 21:53:00.657951 24572 net.cpp:148] Top shape: 24 128 14 14 (602112)
I0403 21:53:00.657968 24572 net.cpp:156] Memory required for data: 1030800672
I0403 21:53:00.657986 24572 layer_factory.hpp:77] Creating layer inception_4c/relu_1x1
I0403 21:53:00.658005 24572 net.cpp:91] Creating Layer inception_4c/relu_1x1
I0403 21:53:00.658021 24572 net.cpp:425] inception_4c/relu_1x1 <- inception_4c/1x1
I0403 21:53:00.658040 24572 net.cpp:386] inception_4c/relu_1x1 -> inception_4c/1x1 (in-place)
I0403 21:53:00.658221 24572 net.cpp:141] Setting up inception_4c/relu_1x1
I0403 21:53:00.658255 24572 net.cpp:148] Top shape: 24 128 14 14 (602112)
I0403 21:53:00.658272 24572 net.cpp:156] Memory required for data: 1033209120
I0403 21:53:00.658288 24572 layer_factory.hpp:77] Creating layer inception_4c/3x3_reduce
I0403 21:53:00.658309 24572 net.cpp:91] Creating Layer inception_4c/3x3_reduce
I0403 21:53:00.658327 24572 net.cpp:425] inception_4c/3x3_reduce <- inception_4b/output_inception_4b/output_0_split_1
I0403 21:53:00.658349 24572 net.cpp:399] inception_4c/3x3_reduce -> inception_4c/3x3_reduce
I0403 21:53:00.660265 24572 net.cpp:141] Setting up inception_4c/3x3_reduce
I0403 21:53:00.660293 24572 net.cpp:148] Top shape: 24 128 14 14 (602112)
I0403 21:53:00.660308 24572 net.cpp:156] Memory required for data: 1035617568
I0403 21:53:00.660327 24572 layer_factory.hpp:77] Creating layer inception_4c/relu_3x3_reduce
I0403 21:53:00.660348 24572 net.cpp:91] Creating Layer inception_4c/relu_3x3_reduce
I0403 21:53:00.660367 24572 net.cpp:425] inception_4c/relu_3x3_reduce <- inception_4c/3x3_reduce
I0403 21:53:00.660382 24572 net.cpp:386] inception_4c/relu_3x3_reduce -> inception_4c/3x3_reduce (in-place)
I0403 21:53:00.660662 24572 net.cpp:141] Setting up inception_4c/relu_3x3_reduce
I0403 21:53:00.660688 24572 net.cpp:148] Top shape: 24 128 14 14 (602112)
I0403 21:53:00.660702 24572 net.cpp:156] Memory required for data: 1038026016
I0403 21:53:00.660717 24572 layer_factory.hpp:77] Creating layer inception_4c/3x3
I0403 21:53:00.660740 24572 net.cpp:91] Creating Layer inception_4c/3x3
I0403 21:53:00.660758 24572 net.cpp:425] inception_4c/3x3 <- inception_4c/3x3_reduce
I0403 21:53:00.660779 24572 net.cpp:399] inception_4c/3x3 -> inception_4c/3x3
I0403 21:53:00.664333 24572 net.cpp:141] Setting up inception_4c/3x3
I0403 21:53:00.664373 24572 net.cpp:148] Top shape: 24 256 14 14 (1204224)
I0403 21:53:00.664389 24572 net.cpp:156] Memory required for data: 1042842912
I0403 21:53:00.664422 24572 layer_factory.hpp:77] Creating layer inception_4c/relu_3x3
I0403 21:53:00.664443 24572 net.cpp:91] Creating Layer inception_4c/relu_3x3
I0403 21:53:00.664461 24572 net.cpp:425] inception_4c/relu_3x3 <- inception_4c/3x3
I0403 21:53:00.664479 24572 net.cpp:386] inception_4c/relu_3x3 -> inception_4c/3x3 (in-place)
I0403 21:53:00.664657 24572 net.cpp:141] Setting up inception_4c/relu_3x3
I0403 21:53:00.664682 24572 net.cpp:148] Top shape: 24 256 14 14 (1204224)
I0403 21:53:00.664696 24572 net.cpp:156] Memory required for data: 1047659808
I0403 21:53:00.664711 24572 layer_factory.hpp:77] Creating layer inception_4c/5x5_reduce
I0403 21:53:00.664733 24572 net.cpp:91] Creating Layer inception_4c/5x5_reduce
I0403 21:53:00.664749 24572 net.cpp:425] inception_4c/5x5_reduce <- inception_4b/output_inception_4b/output_0_split_2
I0403 21:53:00.664770 24572 net.cpp:399] inception_4c/5x5_reduce -> inception_4c/5x5_reduce
I0403 21:53:00.665830 24572 net.cpp:141] Setting up inception_4c/5x5_reduce
I0403 21:53:00.665858 24572 net.cpp:148] Top shape: 24 24 14 14 (112896)
I0403 21:53:00.665874 24572 net.cpp:156] Memory required for data: 1048111392
I0403 21:53:00.665894 24572 layer_factory.hpp:77] Creating layer inception_4c/relu_5x5_reduce
I0403 21:53:00.665912 24572 net.cpp:91] Creating Layer inception_4c/relu_5x5_reduce
I0403 21:53:00.665930 24572 net.cpp:425] inception_4c/relu_5x5_reduce <- inception_4c/5x5_reduce
I0403 21:53:00.665946 24572 net.cpp:386] inception_4c/relu_5x5_reduce -> inception_4c/5x5_reduce (in-place)
I0403 21:53:00.666129 24572 net.cpp:141] Setting up inception_4c/relu_5x5_reduce
I0403 21:53:00.666157 24572 net.cpp:148] Top shape: 24 24 14 14 (112896)
I0403 21:53:00.666173 24572 net.cpp:156] Memory required for data: 1048562976
I0403 21:53:00.666188 24572 layer_factory.hpp:77] Creating layer inception_4c/5x5
I0403 21:53:00.666209 24572 net.cpp:91] Creating Layer inception_4c/5x5
I0403 21:53:00.666230 24572 net.cpp:425] inception_4c/5x5 <- inception_4c/5x5_reduce
I0403 21:53:00.666250 24572 net.cpp:399] inception_4c/5x5 -> inception_4c/5x5
I0403 21:53:00.667462 24572 net.cpp:141] Setting up inception_4c/5x5
I0403 21:53:00.667492 24572 net.cpp:148] Top shape: 24 64 14 14 (301056)
I0403 21:53:00.667510 24572 net.cpp:156] Memory required for data: 1049767200
I0403 21:53:00.667527 24572 layer_factory.hpp:77] Creating layer inception_4c/relu_5x5
I0403 21:53:00.667546 24572 net.cpp:91] Creating Layer inception_4c/relu_5x5
I0403 21:53:00.667562 24572 net.cpp:425] inception_4c/relu_5x5 <- inception_4c/5x5
I0403 21:53:00.667579 24572 net.cpp:386] inception_4c/relu_5x5 -> inception_4c/5x5 (in-place)
I0403 21:53:00.667861 24572 net.cpp:141] Setting up inception_4c/relu_5x5
I0403 21:53:00.667891 24572 net.cpp:148] Top shape: 24 64 14 14 (301056)
I0403 21:53:00.667906 24572 net.cpp:156] Memory required for data: 1050971424
I0403 21:53:00.667922 24572 layer_factory.hpp:77] Creating layer inception_4c/pool
I0403 21:53:00.667940 24572 net.cpp:91] Creating Layer inception_4c/pool
I0403 21:53:00.667959 24572 net.cpp:425] inception_4c/pool <- inception_4b/output_inception_4b/output_0_split_3
I0403 21:53:00.667978 24572 net.cpp:399] inception_4c/pool -> inception_4c/pool
I0403 21:53:00.668043 24572 net.cpp:141] Setting up inception_4c/pool
I0403 21:53:00.668066 24572 net.cpp:148] Top shape: 24 512 14 14 (2408448)
I0403 21:53:00.668081 24572 net.cpp:156] Memory required for data: 1060605216
I0403 21:53:00.668097 24572 layer_factory.hpp:77] Creating layer inception_4c/pool_proj
I0403 21:53:00.668119 24572 net.cpp:91] Creating Layer inception_4c/pool_proj
I0403 21:53:00.668138 24572 net.cpp:425] inception_4c/pool_proj <- inception_4c/pool
I0403 21:53:00.668159 24572 net.cpp:399] inception_4c/pool_proj -> inception_4c/pool_proj
I0403 21:53:00.669397 24572 net.cpp:141] Setting up inception_4c/pool_proj
I0403 21:53:00.669425 24572 net.cpp:148] Top shape: 24 64 14 14 (301056)
I0403 21:53:00.669455 24572 net.cpp:156] Memory required for data: 1061809440
I0403 21:53:00.669474 24572 layer_factory.hpp:77] Creating layer inception_4c/relu_pool_proj
I0403 21:53:00.669497 24572 net.cpp:91] Creating Layer inception_4c/relu_pool_proj
I0403 21:53:00.669517 24572 net.cpp:425] inception_4c/relu_pool_proj <- inception_4c/pool_proj
I0403 21:53:00.669534 24572 net.cpp:386] inception_4c/relu_pool_proj -> inception_4c/pool_proj (in-place)
I0403 21:53:00.669715 24572 net.cpp:141] Setting up inception_4c/relu_pool_proj
I0403 21:53:00.669744 24572 net.cpp:148] Top shape: 24 64 14 14 (301056)
I0403 21:53:00.669759 24572 net.cpp:156] Memory required for data: 1063013664
I0403 21:53:00.669775 24572 layer_factory.hpp:77] Creating layer inception_4c/output
I0403 21:53:00.669790 24572 net.cpp:91] Creating Layer inception_4c/output
I0403 21:53:00.669806 24572 net.cpp:425] inception_4c/output <- inception_4c/1x1
I0403 21:53:00.669822 24572 net.cpp:425] inception_4c/output <- inception_4c/3x3
I0403 21:53:00.669838 24572 net.cpp:425] inception_4c/output <- inception_4c/5x5
I0403 21:53:00.669854 24572 net.cpp:425] inception_4c/output <- inception_4c/pool_proj
I0403 21:53:00.669870 24572 net.cpp:399] inception_4c/output -> inception_4c/output
I0403 21:53:00.669917 24572 net.cpp:141] Setting up inception_4c/output
I0403 21:53:00.669941 24572 net.cpp:148] Top shape: 24 512 14 14 (2408448)
I0403 21:53:00.669956 24572 net.cpp:156] Memory required for data: 1072647456
I0403 21:53:00.669970 24572 layer_factory.hpp:77] Creating layer inception_4c/output_inception_4c/output_0_split
I0403 21:53:00.669989 24572 net.cpp:91] Creating Layer inception_4c/output_inception_4c/output_0_split
I0403 21:53:00.670006 24572 net.cpp:425] inception_4c/output_inception_4c/output_0_split <- inception_4c/output
I0403 21:53:00.670024 24572 net.cpp:399] inception_4c/output_inception_4c/output_0_split -> inception_4c/output_inception_4c/output_0_split_0
I0403 21:53:00.670043 24572 net.cpp:399] inception_4c/output_inception_4c/output_0_split -> inception_4c/output_inception_4c/output_0_split_1
I0403 21:53:00.670063 24572 net.cpp:399] inception_4c/output_inception_4c/output_0_split -> inception_4c/output_inception_4c/output_0_split_2
I0403 21:53:00.670081 24572 net.cpp:399] inception_4c/output_inception_4c/output_0_split -> inception_4c/output_inception_4c/output_0_split_3
I0403 21:53:00.670166 24572 net.cpp:141] Setting up inception_4c/output_inception_4c/output_0_split
I0403 21:53:00.670189 24572 net.cpp:148] Top shape: 24 512 14 14 (2408448)
I0403 21:53:00.670205 24572 net.cpp:148] Top shape: 24 512 14 14 (2408448)
I0403 21:53:00.670222 24572 net.cpp:148] Top shape: 24 512 14 14 (2408448)
I0403 21:53:00.670256 24572 net.cpp:148] Top shape: 24 512 14 14 (2408448)
I0403 21:53:00.670272 24572 net.cpp:156] Memory required for data: 1111182624
I0403 21:53:00.670295 24572 layer_factory.hpp:77] Creating layer inception_4d/1x1
I0403 21:53:00.670317 24572 net.cpp:91] Creating Layer inception_4d/1x1
I0403 21:53:00.670336 24572 net.cpp:425] inception_4d/1x1 <- inception_4c/output_inception_4c/output_0_split_0
I0403 21:53:00.670357 24572 net.cpp:399] inception_4d/1x1 -> inception_4d/1x1
I0403 21:53:00.671742 24572 net.cpp:141] Setting up inception_4d/1x1
I0403 21:53:00.671771 24572 net.cpp:148] Top shape: 24 112 14 14 (526848)
I0403 21:53:00.671787 24572 net.cpp:156] Memory required for data: 1113290016
I0403 21:53:00.671807 24572 layer_factory.hpp:77] Creating layer inception_4d/relu_1x1
I0403 21:53:00.671826 24572 net.cpp:91] Creating Layer inception_4d/relu_1x1
I0403 21:53:00.671844 24572 net.cpp:425] inception_4d/relu_1x1 <- inception_4d/1x1
I0403 21:53:00.671864 24572 net.cpp:386] inception_4d/relu_1x1 -> inception_4d/1x1 (in-place)
I0403 21:53:00.672062 24572 net.cpp:141] Setting up inception_4d/relu_1x1
I0403 21:53:00.672089 24572 net.cpp:148] Top shape: 24 112 14 14 (526848)
I0403 21:53:00.672104 24572 net.cpp:156] Memory required for data: 1115397408
I0403 21:53:00.672121 24572 layer_factory.hpp:77] Creating layer inception_4d/3x3_reduce
I0403 21:53:00.672159 24572 net.cpp:91] Creating Layer inception_4d/3x3_reduce
I0403 21:53:00.672180 24572 net.cpp:425] inception_4d/3x3_reduce <- inception_4c/output_inception_4c/output_0_split_1
I0403 21:53:00.672202 24572 net.cpp:399] inception_4d/3x3_reduce -> inception_4d/3x3_reduce
I0403 21:53:00.673728 24572 net.cpp:141] Setting up inception_4d/3x3_reduce
I0403 21:53:00.673759 24572 net.cpp:148] Top shape: 24 144 14 14 (677376)
I0403 21:53:00.673776 24572 net.cpp:156] Memory required for data: 1118106912
I0403 21:53:00.673796 24572 layer_factory.hpp:77] Creating layer inception_4d/relu_3x3_reduce
I0403 21:53:00.673816 24572 net.cpp:91] Creating Layer inception_4d/relu_3x3_reduce
I0403 21:53:00.673833 24572 net.cpp:425] inception_4d/relu_3x3_reduce <- inception_4d/3x3_reduce
I0403 21:53:00.673853 24572 net.cpp:386] inception_4d/relu_3x3_reduce -> inception_4d/3x3_reduce (in-place)
I0403 21:53:00.674147 24572 net.cpp:141] Setting up inception_4d/relu_3x3_reduce
I0403 21:53:00.674176 24572 net.cpp:148] Top shape: 24 144 14 14 (677376)
I0403 21:53:00.674193 24572 net.cpp:156] Memory required for data: 1120816416
I0403 21:53:00.674208 24572 layer_factory.hpp:77] Creating layer inception_4d/3x3
I0403 21:53:00.674234 24572 net.cpp:91] Creating Layer inception_4d/3x3
I0403 21:53:00.674253 24572 net.cpp:425] inception_4d/3x3 <- inception_4d/3x3_reduce
I0403 21:53:00.674273 24572 net.cpp:399] inception_4d/3x3 -> inception_4d/3x3
I0403 21:53:00.678594 24572 net.cpp:141] Setting up inception_4d/3x3
I0403 21:53:00.678624 24572 net.cpp:148] Top shape: 24 288 14 14 (1354752)
I0403 21:53:00.678640 24572 net.cpp:156] Memory required for data: 1126235424
I0403 21:53:00.678660 24572 layer_factory.hpp:77] Creating layer inception_4d/relu_3x3
I0403 21:53:00.678680 24572 net.cpp:91] Creating Layer inception_4d/relu_3x3
I0403 21:53:00.678699 24572 net.cpp:425] inception_4d/relu_3x3 <- inception_4d/3x3
I0403 21:53:00.678716 24572 net.cpp:386] inception_4d/relu_3x3 -> inception_4d/3x3 (in-place)
I0403 21:53:00.678902 24572 net.cpp:141] Setting up inception_4d/relu_3x3
I0403 21:53:00.678928 24572 net.cpp:148] Top shape: 24 288 14 14 (1354752)
I0403 21:53:00.678943 24572 net.cpp:156] Memory required for data: 1131654432
I0403 21:53:00.678959 24572 layer_factory.hpp:77] Creating layer inception_4d/5x5_reduce
I0403 21:53:00.678982 24572 net.cpp:91] Creating Layer inception_4d/5x5_reduce
I0403 21:53:00.679000 24572 net.cpp:425] inception_4d/5x5_reduce <- inception_4c/output_inception_4c/output_0_split_2
I0403 21:53:00.679021 24572 net.cpp:399] inception_4d/5x5_reduce -> inception_4d/5x5_reduce
I0403 21:53:00.680176 24572 net.cpp:141] Setting up inception_4d/5x5_reduce
I0403 21:53:00.680204 24572 net.cpp:148] Top shape: 24 32 14 14 (150528)
I0403 21:53:00.680222 24572 net.cpp:156] Memory required for data: 1132256544
I0403 21:53:00.680245 24572 layer_factory.hpp:77] Creating layer inception_4d/relu_5x5_reduce
I0403 21:53:00.680265 24572 net.cpp:91] Creating Layer inception_4d/relu_5x5_reduce
I0403 21:53:00.680281 24572 net.cpp:425] inception_4d/relu_5x5_reduce <- inception_4d/5x5_reduce
I0403 21:53:00.680301 24572 net.cpp:386] inception_4d/relu_5x5_reduce -> inception_4d/5x5_reduce (in-place)
I0403 21:53:00.680490 24572 net.cpp:141] Setting up inception_4d/relu_5x5_reduce
I0403 21:53:00.680516 24572 net.cpp:148] Top shape: 24 32 14 14 (150528)
I0403 21:53:00.680529 24572 net.cpp:156] Memory required for data: 1132858656
I0403 21:53:00.680546 24572 layer_factory.hpp:77] Creating layer inception_4d/5x5
I0403 21:53:00.680567 24572 net.cpp:91] Creating Layer inception_4d/5x5
I0403 21:53:00.680585 24572 net.cpp:425] inception_4d/5x5 <- inception_4d/5x5_reduce
I0403 21:53:00.680608 24572 net.cpp:399] inception_4d/5x5 -> inception_4d/5x5
I0403 21:53:00.682087 24572 net.cpp:141] Setting up inception_4d/5x5
I0403 21:53:00.682116 24572 net.cpp:148] Top shape: 24 64 14 14 (301056)
I0403 21:53:00.682132 24572 net.cpp:156] Memory required for data: 1134062880
I0403 21:53:00.682152 24572 layer_factory.hpp:77] Creating layer inception_4d/relu_5x5
I0403 21:53:00.682189 24572 net.cpp:91] Creating Layer inception_4d/relu_5x5
I0403 21:53:00.682209 24572 net.cpp:425] inception_4d/relu_5x5 <- inception_4d/5x5
I0403 21:53:00.682225 24572 net.cpp:386] inception_4d/relu_5x5 -> inception_4d/5x5 (in-place)
I0403 21:53:00.682533 24572 net.cpp:141] Setting up inception_4d/relu_5x5
I0403 21:53:00.682559 24572 net.cpp:148] Top shape: 24 64 14 14 (301056)
I0403 21:53:00.682575 24572 net.cpp:156] Memory required for data: 1135267104
I0403 21:53:00.682590 24572 layer_factory.hpp:77] Creating layer inception_4d/pool
I0403 21:53:00.682611 24572 net.cpp:91] Creating Layer inception_4d/pool
I0403 21:53:00.682631 24572 net.cpp:425] inception_4d/pool <- inception_4c/output_inception_4c/output_0_split_3
I0403 21:53:00.682648 24572 net.cpp:399] inception_4d/pool -> inception_4d/pool
I0403 21:53:00.682715 24572 net.cpp:141] Setting up inception_4d/pool
I0403 21:53:00.682740 24572 net.cpp:148] Top shape: 24 512 14 14 (2408448)
I0403 21:53:00.682754 24572 net.cpp:156] Memory required for data: 1144900896
I0403 21:53:00.682770 24572 layer_factory.hpp:77] Creating layer inception_4d/pool_proj
I0403 21:53:00.682792 24572 net.cpp:91] Creating Layer inception_4d/pool_proj
I0403 21:53:00.682809 24572 net.cpp:425] inception_4d/pool_proj <- inception_4d/pool
I0403 21:53:00.682831 24572 net.cpp:399] inception_4d/pool_proj -> inception_4d/pool_proj
I0403 21:53:00.684620 24572 net.cpp:141] Setting up inception_4d/pool_proj
I0403 21:53:00.684650 24572 net.cpp:148] Top shape: 24 64 14 14 (301056)
I0403 21:53:00.684666 24572 net.cpp:156] Memory required for data: 1146105120
I0403 21:53:00.684684 24572 layer_factory.hpp:77] Creating layer inception_4d/relu_pool_proj
I0403 21:53:00.684705 24572 net.cpp:91] Creating Layer inception_4d/relu_pool_proj
I0403 21:53:00.684722 24572 net.cpp:425] inception_4d/relu_pool_proj <- inception_4d/pool_proj
I0403 21:53:00.684741 24572 net.cpp:386] inception_4d/relu_pool_proj -> inception_4d/pool_proj (in-place)
I0403 21:53:00.684927 24572 net.cpp:141] Setting up inception_4d/relu_pool_proj
I0403 21:53:00.684954 24572 net.cpp:148] Top shape: 24 64 14 14 (301056)
I0403 21:53:00.684970 24572 net.cpp:156] Memory required for data: 1147309344
I0403 21:53:00.684986 24572 layer_factory.hpp:77] Creating layer inception_4d/output
I0403 21:53:00.685005 24572 net.cpp:91] Creating Layer inception_4d/output
I0403 21:53:00.685022 24572 net.cpp:425] inception_4d/output <- inception_4d/1x1
I0403 21:53:00.685039 24572 net.cpp:425] inception_4d/output <- inception_4d/3x3
I0403 21:53:00.685055 24572 net.cpp:425] inception_4d/output <- inception_4d/5x5
I0403 21:53:00.685071 24572 net.cpp:425] inception_4d/output <- inception_4d/pool_proj
I0403 21:53:00.685088 24572 net.cpp:399] inception_4d/output -> inception_4d/output
I0403 21:53:00.685137 24572 net.cpp:141] Setting up inception_4d/output
I0403 21:53:00.685161 24572 net.cpp:148] Top shape: 24 528 14 14 (2483712)
I0403 21:53:00.685176 24572 net.cpp:156] Memory required for data: 1157244192
I0403 21:53:00.685191 24572 layer_factory.hpp:77] Creating layer inception_4d/output_inception_4d/output_0_split
I0403 21:53:00.685209 24572 net.cpp:91] Creating Layer inception_4d/output_inception_4d/output_0_split
I0403 21:53:00.685225 24572 net.cpp:425] inception_4d/output_inception_4d/output_0_split <- inception_4d/output
I0403 21:53:00.685251 24572 net.cpp:399] inception_4d/output_inception_4d/output_0_split -> inception_4d/output_inception_4d/output_0_split_0
I0403 21:53:00.685274 24572 net.cpp:399] inception_4d/output_inception_4d/output_0_split -> inception_4d/output_inception_4d/output_0_split_1
I0403 21:53:00.685297 24572 net.cpp:399] inception_4d/output_inception_4d/output_0_split -> inception_4d/output_inception_4d/output_0_split_2
I0403 21:53:00.685317 24572 net.cpp:399] inception_4d/output_inception_4d/output_0_split -> inception_4d/output_inception_4d/output_0_split_3
I0403 21:53:00.685339 24572 net.cpp:399] inception_4d/output_inception_4d/output_0_split -> inception_4d/output_inception_4d/output_0_split_4
I0403 21:53:00.685447 24572 net.cpp:141] Setting up inception_4d/output_inception_4d/output_0_split
I0403 21:53:00.685483 24572 net.cpp:148] Top shape: 24 528 14 14 (2483712)
I0403 21:53:00.685502 24572 net.cpp:148] Top shape: 24 528 14 14 (2483712)
I0403 21:53:00.685518 24572 net.cpp:148] Top shape: 24 528 14 14 (2483712)
I0403 21:53:00.685534 24572 net.cpp:148] Top shape: 24 528 14 14 (2483712)
I0403 21:53:00.685549 24572 net.cpp:148] Top shape: 24 528 14 14 (2483712)
I0403 21:53:00.685564 24572 net.cpp:156] Memory required for data: 1206918432
I0403 21:53:00.685580 24572 layer_factory.hpp:77] Creating layer loss2/ave_pool
I0403 21:53:00.685597 24572 net.cpp:91] Creating Layer loss2/ave_pool
I0403 21:53:00.685613 24572 net.cpp:425] loss2/ave_pool <- inception_4d/output_inception_4d/output_0_split_0
I0403 21:53:00.685634 24572 net.cpp:399] loss2/ave_pool -> loss2/ave_pool
I0403 21:53:00.685946 24572 net.cpp:141] Setting up loss2/ave_pool
I0403 21:53:00.685973 24572 net.cpp:148] Top shape: 24 528 4 4 (202752)
I0403 21:53:00.685988 24572 net.cpp:156] Memory required for data: 1207729440
I0403 21:53:00.686004 24572 layer_factory.hpp:77] Creating layer loss2/conv
I0403 21:53:00.686027 24572 net.cpp:91] Creating Layer loss2/conv
I0403 21:53:00.686044 24572 net.cpp:425] loss2/conv <- loss2/ave_pool
I0403 21:53:00.686066 24572 net.cpp:399] loss2/conv -> loss2/conv
I0403 21:53:00.687978 24572 net.cpp:141] Setting up loss2/conv
I0403 21:53:00.688007 24572 net.cpp:148] Top shape: 24 128 4 4 (49152)
I0403 21:53:00.688022 24572 net.cpp:156] Memory required for data: 1207926048
I0403 21:53:00.688052 24572 layer_factory.hpp:77] Creating layer loss2/relu_conv
I0403 21:53:00.688071 24572 net.cpp:91] Creating Layer loss2/relu_conv
I0403 21:53:00.688089 24572 net.cpp:425] loss2/relu_conv <- loss2/conv
I0403 21:53:00.688107 24572 net.cpp:386] loss2/relu_conv -> loss2/conv (in-place)
I0403 21:53:00.688407 24572 net.cpp:141] Setting up loss2/relu_conv
I0403 21:53:00.688434 24572 net.cpp:148] Top shape: 24 128 4 4 (49152)
I0403 21:53:00.688451 24572 net.cpp:156] Memory required for data: 1208122656
I0403 21:53:00.688464 24572 layer_factory.hpp:77] Creating layer loss2/fc
I0403 21:53:00.688487 24572 net.cpp:91] Creating Layer loss2/fc
I0403 21:53:00.688503 24572 net.cpp:425] loss2/fc <- loss2/conv
I0403 21:53:00.688524 24572 net.cpp:399] loss2/fc -> loss2/fc
I0403 21:53:00.705806 24572 net.cpp:141] Setting up loss2/fc
I0403 21:53:00.705842 24572 net.cpp:148] Top shape: 24 1024 (24576)
I0403 21:53:00.705857 24572 net.cpp:156] Memory required for data: 1208220960
I0403 21:53:00.705876 24572 layer_factory.hpp:77] Creating layer loss2/relu_fc
I0403 21:53:00.705893 24572 net.cpp:91] Creating Layer loss2/relu_fc
I0403 21:53:00.705911 24572 net.cpp:425] loss2/relu_fc <- loss2/fc
I0403 21:53:00.705931 24572 net.cpp:386] loss2/relu_fc -> loss2/fc (in-place)
I0403 21:53:00.706230 24572 net.cpp:141] Setting up loss2/relu_fc
I0403 21:53:00.706256 24572 net.cpp:148] Top shape: 24 1024 (24576)
I0403 21:53:00.706271 24572 net.cpp:156] Memory required for data: 1208319264
I0403 21:53:00.706286 24572 layer_factory.hpp:77] Creating layer loss2/drop_fc
I0403 21:53:00.706305 24572 net.cpp:91] Creating Layer loss2/drop_fc
I0403 21:53:00.706321 24572 net.cpp:425] loss2/drop_fc <- loss2/fc
I0403 21:53:00.706341 24572 net.cpp:386] loss2/drop_fc -> loss2/fc (in-place)
I0403 21:53:00.706389 24572 net.cpp:141] Setting up loss2/drop_fc
I0403 21:53:00.706413 24572 net.cpp:148] Top shape: 24 1024 (24576)
I0403 21:53:00.706428 24572 net.cpp:156] Memory required for data: 1208417568
I0403 21:53:00.706442 24572 layer_factory.hpp:77] Creating layer loss2/classifier_plantvillage
I0403 21:53:00.706460 24572 net.cpp:91] Creating Layer loss2/classifier_plantvillage
I0403 21:53:00.706477 24572 net.cpp:425] loss2/classifier_plantvillage <- loss2/fc
I0403 21:53:00.706499 24572 net.cpp:399] loss2/classifier_plantvillage -> loss2/classifier_plantvillage
I0403 21:53:00.706892 24572 net.cpp:141] Setting up loss2/classifier_plantvillage
I0403 21:53:00.706917 24572 net.cpp:148] Top shape: 24 38 (912)
I0403 21:53:00.706948 24572 net.cpp:156] Memory required for data: 1208421216
I0403 21:53:00.706967 24572 layer_factory.hpp:77] Creating layer loss2/classifier_plantvillage_loss2/classifier_plantvillage_0_split
I0403 21:53:00.706992 24572 net.cpp:91] Creating Layer loss2/classifier_plantvillage_loss2/classifier_plantvillage_0_split
I0403 21:53:00.707010 24572 net.cpp:425] loss2/classifier_plantvillage_loss2/classifier_plantvillage_0_split <- loss2/classifier_plantvillage
I0403 21:53:00.707027 24572 net.cpp:399] loss2/classifier_plantvillage_loss2/classifier_plantvillage_0_split -> loss2/classifier_plantvillage_loss2/classifier_plantvillage_0_split_0
I0403 21:53:00.707051 24572 net.cpp:399] loss2/classifier_plantvillage_loss2/classifier_plantvillage_0_split -> loss2/classifier_plantvillage_loss2/classifier_plantvillage_0_split_1
I0403 21:53:00.707072 24572 net.cpp:399] loss2/classifier_plantvillage_loss2/classifier_plantvillage_0_split -> loss2/classifier_plantvillage_loss2/classifier_plantvillage_0_split_2
I0403 21:53:00.707147 24572 net.cpp:141] Setting up loss2/classifier_plantvillage_loss2/classifier_plantvillage_0_split
I0403 21:53:00.707170 24572 net.cpp:148] Top shape: 24 38 (912)
I0403 21:53:00.707186 24572 net.cpp:148] Top shape: 24 38 (912)
I0403 21:53:00.707201 24572 net.cpp:148] Top shape: 24 38 (912)
I0403 21:53:00.707214 24572 net.cpp:156] Memory required for data: 1208432160
I0403 21:53:00.707231 24572 layer_factory.hpp:77] Creating layer inception_4e/1x1
I0403 21:53:00.707255 24572 net.cpp:91] Creating Layer inception_4e/1x1
I0403 21:53:00.707273 24572 net.cpp:425] inception_4e/1x1 <- inception_4d/output_inception_4d/output_0_split_1
I0403 21:53:00.707291 24572 net.cpp:399] inception_4e/1x1 -> inception_4e/1x1
I0403 21:53:00.709067 24572 net.cpp:141] Setting up inception_4e/1x1
I0403 21:53:00.709097 24572 net.cpp:148] Top shape: 24 256 14 14 (1204224)
I0403 21:53:00.709113 24572 net.cpp:156] Memory required for data: 1213249056
I0403 21:53:00.709132 24572 layer_factory.hpp:77] Creating layer inception_4e/relu_1x1
I0403 21:53:00.709151 24572 net.cpp:91] Creating Layer inception_4e/relu_1x1
I0403 21:53:00.709168 24572 net.cpp:425] inception_4e/relu_1x1 <- inception_4e/1x1
I0403 21:53:00.709194 24572 net.cpp:386] inception_4e/relu_1x1 -> inception_4e/1x1 (in-place)
I0403 21:53:00.709491 24572 net.cpp:141] Setting up inception_4e/relu_1x1
I0403 21:53:00.709518 24572 net.cpp:148] Top shape: 24 256 14 14 (1204224)
I0403 21:53:00.709535 24572 net.cpp:156] Memory required for data: 1218065952
I0403 21:53:00.709550 24572 layer_factory.hpp:77] Creating layer inception_4e/3x3_reduce
I0403 21:53:00.709573 24572 net.cpp:91] Creating Layer inception_4e/3x3_reduce
I0403 21:53:00.709590 24572 net.cpp:425] inception_4e/3x3_reduce <- inception_4d/output_inception_4d/output_0_split_2
I0403 21:53:00.709609 24572 net.cpp:399] inception_4e/3x3_reduce -> inception_4e/3x3_reduce
I0403 21:53:00.711690 24572 net.cpp:141] Setting up inception_4e/3x3_reduce
I0403 21:53:00.711719 24572 net.cpp:148] Top shape: 24 160 14 14 (752640)
I0403 21:53:00.711735 24572 net.cpp:156] Memory required for data: 1221076512
I0403 21:53:00.711752 24572 layer_factory.hpp:77] Creating layer inception_4e/relu_3x3_reduce
I0403 21:53:00.711772 24572 net.cpp:91] Creating Layer inception_4e/relu_3x3_reduce
I0403 21:53:00.711791 24572 net.cpp:425] inception_4e/relu_3x3_reduce <- inception_4e/3x3_reduce
I0403 21:53:00.711807 24572 net.cpp:386] inception_4e/relu_3x3_reduce -> inception_4e/3x3_reduce (in-place)
I0403 21:53:00.711992 24572 net.cpp:141] Setting up inception_4e/relu_3x3_reduce
I0403 21:53:00.712019 24572 net.cpp:148] Top shape: 24 160 14 14 (752640)
I0403 21:53:00.712035 24572 net.cpp:156] Memory required for data: 1224087072
I0403 21:53:00.712050 24572 layer_factory.hpp:77] Creating layer inception_4e/3x3
I0403 21:53:00.712072 24572 net.cpp:91] Creating Layer inception_4e/3x3
I0403 21:53:00.712090 24572 net.cpp:425] inception_4e/3x3 <- inception_4e/3x3_reduce
I0403 21:53:00.712107 24572 net.cpp:399] inception_4e/3x3 -> inception_4e/3x3
I0403 21:53:00.716997 24572 net.cpp:141] Setting up inception_4e/3x3
I0403 21:53:00.717039 24572 net.cpp:148] Top shape: 24 320 14 14 (1505280)
I0403 21:53:00.717057 24572 net.cpp:156] Memory required for data: 1230108192
I0403 21:53:00.717077 24572 layer_factory.hpp:77] Creating layer inception_4e/relu_3x3
I0403 21:53:00.717094 24572 net.cpp:91] Creating Layer inception_4e/relu_3x3
I0403 21:53:00.717111 24572 net.cpp:425] inception_4e/relu_3x3 <- inception_4e/3x3
I0403 21:53:00.717131 24572 net.cpp:386] inception_4e/relu_3x3 -> inception_4e/3x3 (in-place)
I0403 21:53:00.717432 24572 net.cpp:141] Setting up inception_4e/relu_3x3
I0403 21:53:00.717459 24572 net.cpp:148] Top shape: 24 320 14 14 (1505280)
I0403 21:53:00.717475 24572 net.cpp:156] Memory required for data: 1236129312
I0403 21:53:00.717489 24572 layer_factory.hpp:77] Creating layer inception_4e/5x5_reduce
I0403 21:53:00.717511 24572 net.cpp:91] Creating Layer inception_4e/5x5_reduce
I0403 21:53:00.717530 24572 net.cpp:425] inception_4e/5x5_reduce <- inception_4d/output_inception_4d/output_0_split_3
I0403 21:53:00.717551 24572 net.cpp:399] inception_4e/5x5_reduce -> inception_4e/5x5_reduce
I0403 21:53:00.718601 24572 net.cpp:141] Setting up inception_4e/5x5_reduce
I0403 21:53:00.718628 24572 net.cpp:148] Top shape: 24 32 14 14 (150528)
I0403 21:53:00.718646 24572 net.cpp:156] Memory required for data: 1236731424
I0403 21:53:00.718664 24572 layer_factory.hpp:77] Creating layer inception_4e/relu_5x5_reduce
I0403 21:53:00.718685 24572 net.cpp:91] Creating Layer inception_4e/relu_5x5_reduce
I0403 21:53:00.718701 24572 net.cpp:425] inception_4e/relu_5x5_reduce <- inception_4e/5x5_reduce
I0403 21:53:00.718719 24572 net.cpp:386] inception_4e/relu_5x5_reduce -> inception_4e/5x5_reduce (in-place)
I0403 21:53:00.719008 24572 net.cpp:141] Setting up inception_4e/relu_5x5_reduce
I0403 21:53:00.719034 24572 net.cpp:148] Top shape: 24 32 14 14 (150528)
I0403 21:53:00.719050 24572 net.cpp:156] Memory required for data: 1237333536
I0403 21:53:00.719065 24572 layer_factory.hpp:77] Creating layer inception_4e/5x5
I0403 21:53:00.719106 24572 net.cpp:91] Creating Layer inception_4e/5x5
I0403 21:53:00.719125 24572 net.cpp:425] inception_4e/5x5 <- inception_4e/5x5_reduce
I0403 21:53:00.719147 24572 net.cpp:399] inception_4e/5x5 -> inception_4e/5x5
I0403 21:53:00.720947 24572 net.cpp:141] Setting up inception_4e/5x5
I0403 21:53:00.720973 24572 net.cpp:148] Top shape: 24 128 14 14 (602112)
I0403 21:53:00.720989 24572 net.cpp:156] Memory required for data: 1239741984
I0403 21:53:00.721009 24572 layer_factory.hpp:77] Creating layer inception_4e/relu_5x5
I0403 21:53:00.721029 24572 net.cpp:91] Creating Layer inception_4e/relu_5x5
I0403 21:53:00.721046 24572 net.cpp:425] inception_4e/relu_5x5 <- inception_4e/5x5
I0403 21:53:00.721065 24572 net.cpp:386] inception_4e/relu_5x5 -> inception_4e/5x5 (in-place)
I0403 21:53:00.721263 24572 net.cpp:141] Setting up inception_4e/relu_5x5
I0403 21:53:00.721289 24572 net.cpp:148] Top shape: 24 128 14 14 (602112)
I0403 21:53:00.721303 24572 net.cpp:156] Memory required for data: 1242150432
I0403 21:53:00.721318 24572 layer_factory.hpp:77] Creating layer inception_4e/pool
I0403 21:53:00.721339 24572 net.cpp:91] Creating Layer inception_4e/pool
I0403 21:53:00.721356 24572 net.cpp:425] inception_4e/pool <- inception_4d/output_inception_4d/output_0_split_4
I0403 21:53:00.721374 24572 net.cpp:399] inception_4e/pool -> inception_4e/pool
I0403 21:53:00.721442 24572 net.cpp:141] Setting up inception_4e/pool
I0403 21:53:00.721467 24572 net.cpp:148] Top shape: 24 528 14 14 (2483712)
I0403 21:53:00.721480 24572 net.cpp:156] Memory required for data: 1252085280
I0403 21:53:00.721495 24572 layer_factory.hpp:77] Creating layer inception_4e/pool_proj
I0403 21:53:00.721518 24572 net.cpp:91] Creating Layer inception_4e/pool_proj
I0403 21:53:00.721536 24572 net.cpp:425] inception_4e/pool_proj <- inception_4e/pool
I0403 21:53:00.721557 24572 net.cpp:399] inception_4e/pool_proj -> inception_4e/pool_proj
I0403 21:53:00.723026 24572 net.cpp:141] Setting up inception_4e/pool_proj
I0403 21:53:00.723064 24572 net.cpp:148] Top shape: 24 128 14 14 (602112)
I0403 21:53:00.723081 24572 net.cpp:156] Memory required for data: 1254493728
I0403 21:53:00.723100 24572 layer_factory.hpp:77] Creating layer inception_4e/relu_pool_proj
I0403 21:53:00.723122 24572 net.cpp:91] Creating Layer inception_4e/relu_pool_proj
I0403 21:53:00.723139 24572 net.cpp:425] inception_4e/relu_pool_proj <- inception_4e/pool_proj
I0403 21:53:00.723156 24572 net.cpp:386] inception_4e/relu_pool_proj -> inception_4e/pool_proj (in-place)
I0403 21:53:00.723448 24572 net.cpp:141] Setting up inception_4e/relu_pool_proj
I0403 21:53:00.723484 24572 net.cpp:148] Top shape: 24 128 14 14 (602112)
I0403 21:53:00.723500 24572 net.cpp:156] Memory required for data: 1256902176
I0403 21:53:00.723515 24572 layer_factory.hpp:77] Creating layer inception_4e/output
I0403 21:53:00.723531 24572 net.cpp:91] Creating Layer inception_4e/output
I0403 21:53:00.723546 24572 net.cpp:425] inception_4e/output <- inception_4e/1x1
I0403 21:53:00.723563 24572 net.cpp:425] inception_4e/output <- inception_4e/3x3
I0403 21:53:00.723579 24572 net.cpp:425] inception_4e/output <- inception_4e/5x5
I0403 21:53:00.723595 24572 net.cpp:425] inception_4e/output <- inception_4e/pool_proj
I0403 21:53:00.723614 24572 net.cpp:399] inception_4e/output -> inception_4e/output
I0403 21:53:00.723664 24572 net.cpp:141] Setting up inception_4e/output
I0403 21:53:00.723690 24572 net.cpp:148] Top shape: 24 832 14 14 (3913728)
I0403 21:53:00.723706 24572 net.cpp:156] Memory required for data: 1272557088
I0403 21:53:00.723722 24572 layer_factory.hpp:77] Creating layer pool4/3x3_s2
I0403 21:53:00.723739 24572 net.cpp:91] Creating Layer pool4/3x3_s2
I0403 21:53:00.723757 24572 net.cpp:425] pool4/3x3_s2 <- inception_4e/output
I0403 21:53:00.723778 24572 net.cpp:399] pool4/3x3_s2 -> pool4/3x3_s2
I0403 21:53:00.723845 24572 net.cpp:141] Setting up pool4/3x3_s2
I0403 21:53:00.723870 24572 net.cpp:148] Top shape: 24 832 7 7 (978432)
I0403 21:53:00.723882 24572 net.cpp:156] Memory required for data: 1276470816
I0403 21:53:00.723897 24572 layer_factory.hpp:77] Creating layer pool4/3x3_s2_pool4/3x3_s2_0_split
I0403 21:53:00.723917 24572 net.cpp:91] Creating Layer pool4/3x3_s2_pool4/3x3_s2_0_split
I0403 21:53:00.723932 24572 net.cpp:425] pool4/3x3_s2_pool4/3x3_s2_0_split <- pool4/3x3_s2
I0403 21:53:00.723950 24572 net.cpp:399] pool4/3x3_s2_pool4/3x3_s2_0_split -> pool4/3x3_s2_pool4/3x3_s2_0_split_0
I0403 21:53:00.723969 24572 net.cpp:399] pool4/3x3_s2_pool4/3x3_s2_0_split -> pool4/3x3_s2_pool4/3x3_s2_0_split_1
I0403 21:53:00.723989 24572 net.cpp:399] pool4/3x3_s2_pool4/3x3_s2_0_split -> pool4/3x3_s2_pool4/3x3_s2_0_split_2
I0403 21:53:00.724012 24572 net.cpp:399] pool4/3x3_s2_pool4/3x3_s2_0_split -> pool4/3x3_s2_pool4/3x3_s2_0_split_3
I0403 21:53:00.724104 24572 net.cpp:141] Setting up pool4/3x3_s2_pool4/3x3_s2_0_split
I0403 21:53:00.724128 24572 net.cpp:148] Top shape: 24 832 7 7 (978432)
I0403 21:53:00.724143 24572 net.cpp:148] Top shape: 24 832 7 7 (978432)
I0403 21:53:00.724159 24572 net.cpp:148] Top shape: 24 832 7 7 (978432)
I0403 21:53:00.724172 24572 net.cpp:148] Top shape: 24 832 7 7 (978432)
I0403 21:53:00.724186 24572 net.cpp:156] Memory required for data: 1292125728
I0403 21:53:00.724201 24572 layer_factory.hpp:77] Creating layer inception_5a/1x1
I0403 21:53:00.724222 24572 net.cpp:91] Creating Layer inception_5a/1x1
I0403 21:53:00.724258 24572 net.cpp:425] inception_5a/1x1 <- pool4/3x3_s2_pool4/3x3_s2_0_split_0
I0403 21:53:00.724282 24572 net.cpp:399] inception_5a/1x1 -> inception_5a/1x1
I0403 21:53:00.727185 24572 net.cpp:141] Setting up inception_5a/1x1
I0403 21:53:00.727213 24572 net.cpp:148] Top shape: 24 256 7 7 (301056)
I0403 21:53:00.727234 24572 net.cpp:156] Memory required for data: 1293329952
I0403 21:53:00.727255 24572 layer_factory.hpp:77] Creating layer inception_5a/relu_1x1
I0403 21:53:00.727277 24572 net.cpp:91] Creating Layer inception_5a/relu_1x1
I0403 21:53:00.727293 24572 net.cpp:425] inception_5a/relu_1x1 <- inception_5a/1x1
I0403 21:53:00.727311 24572 net.cpp:386] inception_5a/relu_1x1 -> inception_5a/1x1 (in-place)
I0403 21:53:00.727624 24572 net.cpp:141] Setting up inception_5a/relu_1x1
I0403 21:53:00.727651 24572 net.cpp:148] Top shape: 24 256 7 7 (301056)
I0403 21:53:00.727668 24572 net.cpp:156] Memory required for data: 1294534176
I0403 21:53:00.727684 24572 layer_factory.hpp:77] Creating layer inception_5a/3x3_reduce
I0403 21:53:00.727705 24572 net.cpp:91] Creating Layer inception_5a/3x3_reduce
I0403 21:53:00.727723 24572 net.cpp:425] inception_5a/3x3_reduce <- pool4/3x3_s2_pool4/3x3_s2_0_split_1
I0403 21:53:00.727746 24572 net.cpp:399] inception_5a/3x3_reduce -> inception_5a/3x3_reduce
I0403 21:53:00.730237 24572 net.cpp:141] Setting up inception_5a/3x3_reduce
I0403 21:53:00.730268 24572 net.cpp:148] Top shape: 24 160 7 7 (188160)
I0403 21:53:00.730285 24572 net.cpp:156] Memory required for data: 1295286816
I0403 21:53:00.730304 24572 layer_factory.hpp:77] Creating layer inception_5a/relu_3x3_reduce
I0403 21:53:00.730322 24572 net.cpp:91] Creating Layer inception_5a/relu_3x3_reduce
I0403 21:53:00.730340 24572 net.cpp:425] inception_5a/relu_3x3_reduce <- inception_5a/3x3_reduce
I0403 21:53:00.730362 24572 net.cpp:386] inception_5a/relu_3x3_reduce -> inception_5a/3x3_reduce (in-place)
I0403 21:53:00.730551 24572 net.cpp:141] Setting up inception_5a/relu_3x3_reduce
I0403 21:53:00.730577 24572 net.cpp:148] Top shape: 24 160 7 7 (188160)
I0403 21:53:00.730592 24572 net.cpp:156] Memory required for data: 1296039456
I0403 21:53:00.730607 24572 layer_factory.hpp:77] Creating layer inception_5a/3x3
I0403 21:53:00.730628 24572 net.cpp:91] Creating Layer inception_5a/3x3
I0403 21:53:00.730648 24572 net.cpp:425] inception_5a/3x3 <- inception_5a/3x3_reduce
I0403 21:53:00.730670 24572 net.cpp:399] inception_5a/3x3 -> inception_5a/3x3
I0403 21:53:00.735734 24572 net.cpp:141] Setting up inception_5a/3x3
I0403 21:53:00.735764 24572 net.cpp:148] Top shape: 24 320 7 7 (376320)
I0403 21:53:00.735780 24572 net.cpp:156] Memory required for data: 1297544736
I0403 21:53:00.735800 24572 layer_factory.hpp:77] Creating layer inception_5a/relu_3x3
I0403 21:53:00.735821 24572 net.cpp:91] Creating Layer inception_5a/relu_3x3
I0403 21:53:00.735838 24572 net.cpp:425] inception_5a/relu_3x3 <- inception_5a/3x3
I0403 21:53:00.735857 24572 net.cpp:386] inception_5a/relu_3x3 -> inception_5a/3x3 (in-place)
I0403 21:53:00.736160 24572 net.cpp:141] Setting up inception_5a/relu_3x3
I0403 21:53:00.736186 24572 net.cpp:148] Top shape: 24 320 7 7 (376320)
I0403 21:53:00.736202 24572 net.cpp:156] Memory required for data: 1299050016
I0403 21:53:00.736218 24572 layer_factory.hpp:77] Creating layer inception_5a/5x5_reduce
I0403 21:53:00.736245 24572 net.cpp:91] Creating Layer inception_5a/5x5_reduce
I0403 21:53:00.736265 24572 net.cpp:425] inception_5a/5x5_reduce <- pool4/3x3_s2_pool4/3x3_s2_0_split_2
I0403 21:53:00.736287 24572 net.cpp:399] inception_5a/5x5_reduce -> inception_5a/5x5_reduce
I0403 21:53:00.737475 24572 net.cpp:141] Setting up inception_5a/5x5_reduce
I0403 21:53:00.737504 24572 net.cpp:148] Top shape: 24 32 7 7 (37632)
I0403 21:53:00.737521 24572 net.cpp:156] Memory required for data: 1299200544
I0403 21:53:00.737540 24572 layer_factory.hpp:77] Creating layer inception_5a/relu_5x5_reduce
I0403 21:53:00.737561 24572 net.cpp:91] Creating Layer inception_5a/relu_5x5_reduce
I0403 21:53:00.737579 24572 net.cpp:425] inception_5a/relu_5x5_reduce <- inception_5a/5x5_reduce
I0403 21:53:00.737597 24572 net.cpp:386] inception_5a/relu_5x5_reduce -> inception_5a/5x5_reduce (in-place)
I0403 21:53:00.737898 24572 net.cpp:141] Setting up inception_5a/relu_5x5_reduce
I0403 21:53:00.737926 24572 net.cpp:148] Top shape: 24 32 7 7 (37632)
I0403 21:53:00.737939 24572 net.cpp:156] Memory required for data: 1299351072
I0403 21:53:00.737957 24572 layer_factory.hpp:77] Creating layer inception_5a/5x5
I0403 21:53:00.737982 24572 net.cpp:91] Creating Layer inception_5a/5x5
I0403 21:53:00.738000 24572 net.cpp:425] inception_5a/5x5 <- inception_5a/5x5_reduce
I0403 21:53:00.738020 24572 net.cpp:399] inception_5a/5x5 -> inception_5a/5x5
I0403 21:53:00.739763 24572 net.cpp:141] Setting up inception_5a/5x5
I0403 21:53:00.739802 24572 net.cpp:148] Top shape: 24 128 7 7 (150528)
I0403 21:53:00.739820 24572 net.cpp:156] Memory required for data: 1299953184
I0403 21:53:00.739838 24572 layer_factory.hpp:77] Creating layer inception_5a/relu_5x5
I0403 21:53:00.739858 24572 net.cpp:91] Creating Layer inception_5a/relu_5x5
I0403 21:53:00.739876 24572 net.cpp:425] inception_5a/relu_5x5 <- inception_5a/5x5
I0403 21:53:00.739894 24572 net.cpp:386] inception_5a/relu_5x5 -> inception_5a/5x5 (in-place)
I0403 21:53:00.740090 24572 net.cpp:141] Setting up inception_5a/relu_5x5
I0403 21:53:00.740116 24572 net.cpp:148] Top shape: 24 128 7 7 (150528)
I0403 21:53:00.740131 24572 net.cpp:156] Memory required for data: 1300555296
I0403 21:53:00.740147 24572 layer_factory.hpp:77] Creating layer inception_5a/pool
I0403 21:53:00.740166 24572 net.cpp:91] Creating Layer inception_5a/pool
I0403 21:53:00.740183 24572 net.cpp:425] inception_5a/pool <- pool4/3x3_s2_pool4/3x3_s2_0_split_3
I0403 21:53:00.740202 24572 net.cpp:399] inception_5a/pool -> inception_5a/pool
I0403 21:53:00.740279 24572 net.cpp:141] Setting up inception_5a/pool
I0403 21:53:00.740304 24572 net.cpp:148] Top shape: 24 832 7 7 (978432)
I0403 21:53:00.740319 24572 net.cpp:156] Memory required for data: 1304469024
I0403 21:53:00.740335 24572 layer_factory.hpp:77] Creating layer inception_5a/pool_proj
I0403 21:53:00.740358 24572 net.cpp:91] Creating Layer inception_5a/pool_proj
I0403 21:53:00.740376 24572 net.cpp:425] inception_5a/pool_proj <- inception_5a/pool
I0403 21:53:00.740396 24572 net.cpp:399] inception_5a/pool_proj -> inception_5a/pool_proj
I0403 21:53:00.742699 24572 net.cpp:141] Setting up inception_5a/pool_proj
I0403 21:53:00.742729 24572 net.cpp:148] Top shape: 24 128 7 7 (150528)
I0403 21:53:00.742746 24572 net.cpp:156] Memory required for data: 1305071136
I0403 21:53:00.742764 24572 layer_factory.hpp:77] Creating layer inception_5a/relu_pool_proj
I0403 21:53:00.742781 24572 net.cpp:91] Creating Layer inception_5a/relu_pool_proj
I0403 21:53:00.742797 24572 net.cpp:425] inception_5a/relu_pool_proj <- inception_5a/pool_proj
I0403 21:53:00.742816 24572 net.cpp:386] inception_5a/relu_pool_proj -> inception_5a/pool_proj (in-place)
I0403 21:53:00.743106 24572 net.cpp:141] Setting up inception_5a/relu_pool_proj
I0403 21:53:00.743132 24572 net.cpp:148] Top shape: 24 128 7 7 (150528)
I0403 21:53:00.743146 24572 net.cpp:156] Memory required for data: 1305673248
I0403 21:53:00.743161 24572 layer_factory.hpp:77] Creating layer inception_5a/output
I0403 21:53:00.743178 24572 net.cpp:91] Creating Layer inception_5a/output
I0403 21:53:00.743193 24572 net.cpp:425] inception_5a/output <- inception_5a/1x1
I0403 21:53:00.743211 24572 net.cpp:425] inception_5a/output <- inception_5a/3x3
I0403 21:53:00.743232 24572 net.cpp:425] inception_5a/output <- inception_5a/5x5
I0403 21:53:00.743250 24572 net.cpp:425] inception_5a/output <- inception_5a/pool_proj
I0403 21:53:00.743269 24572 net.cpp:399] inception_5a/output -> inception_5a/output
I0403 21:53:00.743319 24572 net.cpp:141] Setting up inception_5a/output
I0403 21:53:00.743348 24572 net.cpp:148] Top shape: 24 832 7 7 (978432)
I0403 21:53:00.743366 24572 net.cpp:156] Memory required for data: 1309586976
I0403 21:53:00.743381 24572 layer_factory.hpp:77] Creating layer inception_5a/output_inception_5a/output_0_split
I0403 21:53:00.743396 24572 net.cpp:91] Creating Layer inception_5a/output_inception_5a/output_0_split
I0403 21:53:00.743412 24572 net.cpp:425] inception_5a/output_inception_5a/output_0_split <- inception_5a/output
I0403 21:53:00.743428 24572 net.cpp:399] inception_5a/output_inception_5a/output_0_split -> inception_5a/output_inception_5a/output_0_split_0
I0403 21:53:00.743451 24572 net.cpp:399] inception_5a/output_inception_5a/output_0_split -> inception_5a/output_inception_5a/output_0_split_1
I0403 21:53:00.743474 24572 net.cpp:399] inception_5a/output_inception_5a/output_0_split -> inception_5a/output_inception_5a/output_0_split_2
I0403 21:53:00.743495 24572 net.cpp:399] inception_5a/output_inception_5a/output_0_split -> inception_5a/output_inception_5a/output_0_split_3
I0403 21:53:00.743607 24572 net.cpp:141] Setting up inception_5a/output_inception_5a/output_0_split
I0403 21:53:00.743630 24572 net.cpp:148] Top shape: 24 832 7 7 (978432)
I0403 21:53:00.743646 24572 net.cpp:148] Top shape: 24 832 7 7 (978432)
I0403 21:53:00.743661 24572 net.cpp:148] Top shape: 24 832 7 7 (978432)
I0403 21:53:00.743677 24572 net.cpp:148] Top shape: 24 832 7 7 (978432)
I0403 21:53:00.743690 24572 net.cpp:156] Memory required for data: 1325241888
I0403 21:53:00.743705 24572 layer_factory.hpp:77] Creating layer inception_5b/1x1
I0403 21:53:00.743726 24572 net.cpp:91] Creating Layer inception_5b/1x1
I0403 21:53:00.743744 24572 net.cpp:425] inception_5b/1x1 <- inception_5a/output_inception_5a/output_0_split_0
I0403 21:53:00.743763 24572 net.cpp:399] inception_5b/1x1 -> inception_5b/1x1
I0403 21:53:00.747454 24572 net.cpp:141] Setting up inception_5b/1x1
I0403 21:53:00.747483 24572 net.cpp:148] Top shape: 24 384 7 7 (451584)
I0403 21:53:00.747500 24572 net.cpp:156] Memory required for data: 1327048224
I0403 21:53:00.747519 24572 layer_factory.hpp:77] Creating layer inception_5b/relu_1x1
I0403 21:53:00.747535 24572 net.cpp:91] Creating Layer inception_5b/relu_1x1
I0403 21:53:00.747551 24572 net.cpp:425] inception_5b/relu_1x1 <- inception_5b/1x1
I0403 21:53:00.747571 24572 net.cpp:386] inception_5b/relu_1x1 -> inception_5b/1x1 (in-place)
I0403 21:53:00.747869 24572 net.cpp:141] Setting up inception_5b/relu_1x1
I0403 21:53:00.747895 24572 net.cpp:148] Top shape: 24 384 7 7 (451584)
I0403 21:53:00.747911 24572 net.cpp:156] Memory required for data: 1328854560
I0403 21:53:00.747925 24572 layer_factory.hpp:77] Creating layer inception_5b/3x3_reduce
I0403 21:53:00.747947 24572 net.cpp:91] Creating Layer inception_5b/3x3_reduce
I0403 21:53:00.747966 24572 net.cpp:425] inception_5b/3x3_reduce <- inception_5a/output_inception_5a/output_0_split_1
I0403 21:53:00.747987 24572 net.cpp:399] inception_5b/3x3_reduce -> inception_5b/3x3_reduce
I0403 21:53:00.750612 24572 net.cpp:141] Setting up inception_5b/3x3_reduce
I0403 21:53:00.750643 24572 net.cpp:148] Top shape: 24 192 7 7 (225792)
I0403 21:53:00.750658 24572 net.cpp:156] Memory required for data: 1329757728
I0403 21:53:00.750677 24572 layer_factory.hpp:77] Creating layer inception_5b/relu_3x3_reduce
I0403 21:53:00.750695 24572 net.cpp:91] Creating Layer inception_5b/relu_3x3_reduce
I0403 21:53:00.750711 24572 net.cpp:425] inception_5b/relu_3x3_reduce <- inception_5b/3x3_reduce
I0403 21:53:00.750731 24572 net.cpp:386] inception_5b/relu_3x3_reduce -> inception_5b/3x3_reduce (in-place)
I0403 21:53:00.750917 24572 net.cpp:141] Setting up inception_5b/relu_3x3_reduce
I0403 21:53:00.750942 24572 net.cpp:148] Top shape: 24 192 7 7 (225792)
I0403 21:53:00.750959 24572 net.cpp:156] Memory required for data: 1330660896
I0403 21:53:00.750973 24572 layer_factory.hpp:77] Creating layer inception_5b/3x3
I0403 21:53:00.750995 24572 net.cpp:91] Creating Layer inception_5b/3x3
I0403 21:53:00.751014 24572 net.cpp:425] inception_5b/3x3 <- inception_5b/3x3_reduce
I0403 21:53:00.751036 24572 net.cpp:399] inception_5b/3x3 -> inception_5b/3x3
I0403 21:53:00.757664 24572 net.cpp:141] Setting up inception_5b/3x3
I0403 21:53:00.757694 24572 net.cpp:148] Top shape: 24 384 7 7 (451584)
I0403 21:53:00.757709 24572 net.cpp:156] Memory required for data: 1332467232
I0403 21:53:00.757727 24572 layer_factory.hpp:77] Creating layer inception_5b/relu_3x3
I0403 21:53:00.757746 24572 net.cpp:91] Creating Layer inception_5b/relu_3x3
I0403 21:53:00.757763 24572 net.cpp:425] inception_5b/relu_3x3 <- inception_5b/3x3
I0403 21:53:00.757784 24572 net.cpp:386] inception_5b/relu_3x3 -> inception_5b/3x3 (in-place)
I0403 21:53:00.758076 24572 net.cpp:141] Setting up inception_5b/relu_3x3
I0403 21:53:00.758102 24572 net.cpp:148] Top shape: 24 384 7 7 (451584)
I0403 21:53:00.758117 24572 net.cpp:156] Memory required for data: 1334273568
I0403 21:53:00.758131 24572 layer_factory.hpp:77] Creating layer inception_5b/5x5_reduce
I0403 21:53:00.758170 24572 net.cpp:91] Creating Layer inception_5b/5x5_reduce
I0403 21:53:00.758189 24572 net.cpp:425] inception_5b/5x5_reduce <- inception_5a/output_inception_5a/output_0_split_2
I0403 21:53:00.758213 24572 net.cpp:399] inception_5b/5x5_reduce -> inception_5b/5x5_reduce
I0403 21:53:00.759470 24572 net.cpp:141] Setting up inception_5b/5x5_reduce
I0403 21:53:00.759498 24572 net.cpp:148] Top shape: 24 48 7 7 (56448)
I0403 21:53:00.759515 24572 net.cpp:156] Memory required for data: 1334499360
I0403 21:53:00.759533 24572 layer_factory.hpp:77] Creating layer inception_5b/relu_5x5_reduce
I0403 21:53:00.759554 24572 net.cpp:91] Creating Layer inception_5b/relu_5x5_reduce
I0403 21:53:00.759572 24572 net.cpp:425] inception_5b/relu_5x5_reduce <- inception_5b/5x5_reduce
I0403 21:53:00.759590 24572 net.cpp:386] inception_5b/relu_5x5_reduce -> inception_5b/5x5_reduce (in-place)
I0403 21:53:00.759960 24572 net.cpp:141] Setting up inception_5b/relu_5x5_reduce
I0403 21:53:00.759986 24572 net.cpp:148] Top shape: 24 48 7 7 (56448)
I0403 21:53:00.760001 24572 net.cpp:156] Memory required for data: 1334725152
I0403 21:53:00.760017 24572 layer_factory.hpp:77] Creating layer inception_5b/5x5
I0403 21:53:00.760037 24572 net.cpp:91] Creating Layer inception_5b/5x5
I0403 21:53:00.760053 24572 net.cpp:425] inception_5b/5x5 <- inception_5b/5x5_reduce
I0403 21:53:00.760071 24572 net.cpp:399] inception_5b/5x5 -> inception_5b/5x5
I0403 21:53:00.762075 24572 net.cpp:141] Setting up inception_5b/5x5
I0403 21:53:00.762104 24572 net.cpp:148] Top shape: 24 128 7 7 (150528)
I0403 21:53:00.762120 24572 net.cpp:156] Memory required for data: 1335327264
I0403 21:53:00.762138 24572 layer_factory.hpp:77] Creating layer inception_5b/relu_5x5
I0403 21:53:00.762158 24572 net.cpp:91] Creating Layer inception_5b/relu_5x5
I0403 21:53:00.762176 24572 net.cpp:425] inception_5b/relu_5x5 <- inception_5b/5x5
I0403 21:53:00.762192 24572 net.cpp:386] inception_5b/relu_5x5 -> inception_5b/5x5 (in-place)
I0403 21:53:00.762392 24572 net.cpp:141] Setting up inception_5b/relu_5x5
I0403 21:53:00.762418 24572 net.cpp:148] Top shape: 24 128 7 7 (150528)
I0403 21:53:00.762435 24572 net.cpp:156] Memory required for data: 1335929376
I0403 21:53:00.762449 24572 layer_factory.hpp:77] Creating layer inception_5b/pool
I0403 21:53:00.762466 24572 net.cpp:91] Creating Layer inception_5b/pool
I0403 21:53:00.762485 24572 net.cpp:425] inception_5b/pool <- inception_5a/output_inception_5a/output_0_split_3
I0403 21:53:00.762502 24572 net.cpp:399] inception_5b/pool -> inception_5b/pool
I0403 21:53:00.762575 24572 net.cpp:141] Setting up inception_5b/pool
I0403 21:53:00.762599 24572 net.cpp:148] Top shape: 24 832 7 7 (978432)
I0403 21:53:00.762614 24572 net.cpp:156] Memory required for data: 1339843104
I0403 21:53:00.762629 24572 layer_factory.hpp:77] Creating layer inception_5b/pool_proj
I0403 21:53:00.762650 24572 net.cpp:91] Creating Layer inception_5b/pool_proj
I0403 21:53:00.762667 24572 net.cpp:425] inception_5b/pool_proj <- inception_5b/pool
I0403 21:53:00.762689 24572 net.cpp:399] inception_5b/pool_proj -> inception_5b/pool_proj
I0403 21:53:00.764968 24572 net.cpp:141] Setting up inception_5b/pool_proj
I0403 21:53:00.764997 24572 net.cpp:148] Top shape: 24 128 7 7 (150528)
I0403 21:53:00.765014 24572 net.cpp:156] Memory required for data: 1340445216
I0403 21:53:00.765033 24572 layer_factory.hpp:77] Creating layer inception_5b/relu_pool_proj
I0403 21:53:00.765053 24572 net.cpp:91] Creating Layer inception_5b/relu_pool_proj
I0403 21:53:00.765070 24572 net.cpp:425] inception_5b/relu_pool_proj <- inception_5b/pool_proj
I0403 21:53:00.765089 24572 net.cpp:386] inception_5b/relu_pool_proj -> inception_5b/pool_proj (in-place)
I0403 21:53:00.765385 24572 net.cpp:141] Setting up inception_5b/relu_pool_proj
I0403 21:53:00.765411 24572 net.cpp:148] Top shape: 24 128 7 7 (150528)
I0403 21:53:00.765427 24572 net.cpp:156] Memory required for data: 1341047328
I0403 21:53:00.765441 24572 layer_factory.hpp:77] Creating layer inception_5b/output
I0403 21:53:00.765460 24572 net.cpp:91] Creating Layer inception_5b/output
I0403 21:53:00.765491 24572 net.cpp:425] inception_5b/output <- inception_5b/1x1
I0403 21:53:00.765508 24572 net.cpp:425] inception_5b/output <- inception_5b/3x3
I0403 21:53:00.765532 24572 net.cpp:425] inception_5b/output <- inception_5b/5x5
I0403 21:53:00.765548 24572 net.cpp:425] inception_5b/output <- inception_5b/pool_proj
I0403 21:53:00.765565 24572 net.cpp:399] inception_5b/output -> inception_5b/output
I0403 21:53:00.765615 24572 net.cpp:141] Setting up inception_5b/output
I0403 21:53:00.765642 24572 net.cpp:148] Top shape: 24 1024 7 7 (1204224)
I0403 21:53:00.765657 24572 net.cpp:156] Memory required for data: 1345864224
I0403 21:53:00.765672 24572 layer_factory.hpp:77] Creating layer pool5/7x7_s1
I0403 21:53:00.765691 24572 net.cpp:91] Creating Layer pool5/7x7_s1
I0403 21:53:00.765707 24572 net.cpp:425] pool5/7x7_s1 <- inception_5b/output
I0403 21:53:00.765728 24572 net.cpp:399] pool5/7x7_s1 -> pool5/7x7_s1
I0403 21:53:00.765939 24572 net.cpp:141] Setting up pool5/7x7_s1
I0403 21:53:00.765965 24572 net.cpp:148] Top shape: 24 1024 1 1 (24576)
I0403 21:53:00.765980 24572 net.cpp:156] Memory required for data: 1345962528
I0403 21:53:00.765995 24572 layer_factory.hpp:77] Creating layer pool5/drop_7x7_s1
I0403 21:53:00.766016 24572 net.cpp:91] Creating Layer pool5/drop_7x7_s1
I0403 21:53:00.766032 24572 net.cpp:425] pool5/drop_7x7_s1 <- pool5/7x7_s1
I0403 21:53:00.766049 24572 net.cpp:386] pool5/drop_7x7_s1 -> pool5/7x7_s1 (in-place)
I0403 21:53:00.766100 24572 net.cpp:141] Setting up pool5/drop_7x7_s1
I0403 21:53:00.766124 24572 net.cpp:148] Top shape: 24 1024 1 1 (24576)
I0403 21:53:00.766139 24572 net.cpp:156] Memory required for data: 1346060832
I0403 21:53:00.766155 24572 layer_factory.hpp:77] Creating layer loss3/classifier_plantvillage
I0403 21:53:00.766172 24572 net.cpp:91] Creating Layer loss3/classifier_plantvillage
I0403 21:53:00.766190 24572 net.cpp:425] loss3/classifier_plantvillage <- pool5/7x7_s1
I0403 21:53:00.766211 24572 net.cpp:399] loss3/classifier_plantvillage -> loss3/classifier_plantvillage
I0403 21:53:00.766633 24572 net.cpp:141] Setting up loss3/classifier_plantvillage
I0403 21:53:00.766657 24572 net.cpp:148] Top shape: 24 38 (912)
I0403 21:53:00.766671 24572 net.cpp:156] Memory required for data: 1346064480
I0403 21:53:00.766690 24572 layer_factory.hpp:77] Creating layer loss3/classifier_plantvillage_loss3/classifier_plantvillage_0_split
I0403 21:53:00.766707 24572 net.cpp:91] Creating Layer loss3/classifier_plantvillage_loss3/classifier_plantvillage_0_split
I0403 21:53:00.766726 24572 net.cpp:425] loss3/classifier_plantvillage_loss3/classifier_plantvillage_0_split <- loss3/classifier_plantvillage
I0403 21:53:00.766742 24572 net.cpp:399] loss3/classifier_plantvillage_loss3/classifier_plantvillage_0_split -> loss3/classifier_plantvillage_loss3/classifier_plantvillage_0_split_0
I0403 21:53:00.766767 24572 net.cpp:399] loss3/classifier_plantvillage_loss3/classifier_plantvillage_0_split -> loss3/classifier_plantvillage_loss3/classifier_plantvillage_0_split_1
I0403 21:53:00.766788 24572 net.cpp:399] loss3/classifier_plantvillage_loss3/classifier_plantvillage_0_split -> loss3/classifier_plantvillage_loss3/classifier_plantvillage_0_split_2
I0403 21:53:00.766808 24572 net.cpp:399] loss3/classifier_plantvillage_loss3/classifier_plantvillage_0_split -> loss3/classifier_plantvillage_loss3/classifier_plantvillage_0_split_3
I0403 21:53:00.766908 24572 net.cpp:141] Setting up loss3/classifier_plantvillage_loss3/classifier_plantvillage_0_split
I0403 21:53:00.766932 24572 net.cpp:148] Top shape: 24 38 (912)
I0403 21:53:00.766948 24572 net.cpp:148] Top shape: 24 38 (912)
I0403 21:53:00.766963 24572 net.cpp:148] Top shape: 24 38 (912)
I0403 21:53:00.766978 24572 net.cpp:148] Top shape: 24 38 (912)
I0403 21:53:00.766991 24572 net.cpp:156] Memory required for data: 1346079072
I0403 21:53:00.767006 24572 layer_factory.hpp:77] Creating layer loss1/loss
I0403 21:53:00.767030 24572 net.cpp:91] Creating Layer loss1/loss
I0403 21:53:00.767048 24572 net.cpp:425] loss1/loss <- loss1/classifier_plantvillage_loss1/classifier_plantvillage_0_split_0
I0403 21:53:00.767079 24572 net.cpp:425] loss1/loss <- label_data_1_split_0
…
