…
I0403 21:53:43.196985 24610 net.cpp:313] The NetState phase (1) differed from the phase (0) specified by a rule in layer data
I0403 21:53:43.198226 24610 net.cpp:49] Initializing net from parameters: 
state {
  phase: TEST
}
layer {
  name: "data"
  type: "Data"
  top: "data"
  top: "label"
  include {
    phase: TEST
  }
  transform_param {
    mirror: false
    crop_size: 224
    mean_file: "/home/mohanty/data/final_dataset/lmdb/segmented-80-20/mean.binaryproto"
  }
  data_param {
    source: "/home/mohanty/data/final_dataset/lmdb/segmented-80-20/test_db"
    batch_size: 24
    backend: LMDB
  }
}
layer {
  name: "conv1/7x7_s2"
  type: "Convolution"
  bottom: "data"
  top: "conv1/7x7_s2"
  param {
    lr_mult: 1
    decay_mult: 1
  }
  param {
    lr_mult: 2
    decay_mult: 0
  }
  convolution_param {
    num_output: 64
    pad: 3
    kernel_size: 7
    stride: 2
    weight_filler {
      type: "xavier"
      std: 0.1
    }
    bias_filler {
      type: "constant"
      value: 0.2
    }
  }
}
layer {
  name: "conv1/relu_7x7"
  type: "ReLU"
  bottom: "conv1/7x7_s2"
  top: "conv1/7x7_s2"
}
layer {
  name: "pool1/3x3_s2"
  type: "Pooling"
  bottom: "conv1/7x7_s2"
  top: "pool1/3x3_s2"
  pooling_param {
    pool: MAX
    kernel_size: 3
    stride: 2
  }
}
layer {
  name: "pool1/norm1"
  type: "LRN"
  bottom: "pool1/3x3_s2"
  top: "pool1/norm1"
  lrn_param {
    local_size: 5
    alpha: 0.0001
    beta: 0.75
  }
}
layer {
  name: "conv2/3x3_reduce"
  type: "Convolution"
  bottom: "pool1/norm1"
  top: "conv2/3x3_reduce"
  param {
    lr_mult: 1
    decay_mult: 1
  }
  param {
    lr_mult: 2
    decay_mult: 0
  }
  convolution_param {
    num_output: 64
    kernel_size: 1
    weight_filler {
      type: "xavier"
      std: 0.1
    }
    bias_filler {
      type: "constant"
      value: 0.2
    }
  }
}
layer {
  name: "conv2/relu_3x3_reduce"
  type: "ReLU"
  bottom: "conv2/3x3_reduce"
  top: "conv2/3x3_reduce"
}
layer {
  name: "conv2/3x3"
  type: "Convolution"
  bottom: "conv2/3x3_reduce"
  top: "conv2/3x3"
  param {
    lr_mult: 1
    decay_mult: 1
  }
  param {
    lr_mult: 2
    decay_mult: 0
  }
  convolution_param {
    num_output: 192
    pad: 1
    kernel_size: 3
    weight_filler {
      type: "xavier"
      std: 0.03
    }
    bias_filler {
      type: "constant"
      value: 0.2
    }
  }
}
layer {
  name: "conv2/relu_3x3"
  type: "ReLU"
  bottom: "conv2/3x3"
  top: "conv2/3x3"
}
layer {
  name: "conv2/norm2"
  type: "LRN"
  bottom: "conv2/3x3"
  top: "conv2/norm2"
  lrn_param {
    local_size: 5
    alpha: 0.0001
    beta: 0.75
  }
}
layer {
  name: "pool2/3x3_s2"
  type: "Pooling"
  bottom: "conv2/norm2"
  top: "pool2/3x3_s2"
  pooling_param {
    pool: MAX
    kernel_size: 3
    stride: 2
  }
}
layer {
  name: "inception_3a/1x1"
  type: "Convolution"
  bottom: "pool2/3x3_s2"
  top: "inception_3a/1x1"
  param {
    lr_mult: 1
    decay_mult: 1
  }
  param {
    lr_mult: 2
    decay_mult: 0
  }
  convolution_param {
    num_output: 64
    kernel_size: 1
    weight_filler {
      type: "xavier"
      std: 0.03
    }
    bias_filler {
      type: "constant"
      value: 0.2
    }
  }
}
layer {
  name: "inception_3a/relu_1x1"
  type: "ReLU"
  bottom: "inception_3a/1x1"
  top: "inception_3a/1x1"
}
layer {
  name: "inception_3a/3x3_reduce"
  type: "Convolution"
  bottom: "pool2/3x3_s2"
  top: "inception_3a/3x3_reduce"
  param {
    lr_mult: 1
    decay_mult: 1
  }
  param {
    lr_mult: 2
    decay_mult: 0
  }
  convolution_param {
    num_output: 96
    kernel_size: 1
    weight_filler {
      type: "xavier"
      std: 0.09
    }
    bias_filler {
      type: "constant"
      value: 0.2
    }
  }
}
layer {
  name: "inception_3a/relu_3x3_reduce"
  type: "ReLU"
  bottom: "inception_3a/3x3_reduce"
  top: "inception_3a/3x3_reduce"
}
layer {
  name: "inception_3a/3x3"
  type: "Convolution"
  bottom: "inception_3a/3x3_reduce"
  top: "inception_3a/3x3"
  param {
    lr_mult: 1
    decay_mult: 1
  }
  param {
    lr_mult: 2
    decay_mult: 0
  }
  convolution_param {
    num_output: 128
    pad: 1
    kernel_size: 3
    weight_filler {
      type: "xavier"
      std: 0.03
    }
    bias_filler {
      type: "constant"
      value: 0.2
    }
  }
}
layer {
  name: "inception_3a/relu_3x3"
  type: "ReLU"
  bottom: "inception_3a/3x3"
  top: "inception_3a/3x3"
}
layer {
  name: "inception_3a/5x5_reduce"
  type: "Convolution"
  bottom: "pool2/3x3_s2"
  top: "inception_3a/5x5_reduce"
  param {
    lr_mult: 1
    decay_mult: 1
  }
  param {
    lr_mult: 2
    decay_mult: 0
  }
  convolution_param {
    num_output: 16
    kernel_size: 1
    weight_filler {
      type: "xavier"
      std: 0.2
    }
    bias_filler {
      type: "constant"
      value: 0.2
    }
  }
}
layer {
  name: "inception_3a/relu_5x5_reduce"
  type: "ReLU"
  bottom: "inception_3a/5x5_reduce"
  top: "inception_3a/5x5_reduce"
}
layer {
  name: "inception_3a/5x5"
  type: "Convolution"
  bottom: "inception_3a/5x5_reduce"
  top: "inception_3a/5x5"
  param {
    lr_mult: 1
    decay_mult: 1
  }
  param {
    lr_mult: 2
    decay_mult: 0
  }
  convolution_param {
    num_output: 32
    pad: 2
    kernel_size: 5
    weight_filler {
      type: "xavier"
      std: 0.03
    }
    bias_filler {
      type: "constant"
      value: 0.2
    }
  }
}
layer {
  name: "inception_3a/relu_5x5"
  type: "ReLU"
  bottom: "inception_3a/5x5"
  top: "inception_3a/5x5"
}
layer {
  name: "inception_3a/pool"
  type: "Pooling"
  bottom: "pool2/3x3_s2"
  top: "inception_3a/pool"
  pooling_param {
    pool: MAX
    kernel_size: 3
    stride: 1
    pad: 1
  }
}
layer {
  name: "inception_3a/pool_proj"
  type: "Convolution"
  bottom: "inception_3a/pool"
  top: "inception_3a/pool_proj"
  param {
    lr_mult: 1
    decay_mult: 1
  }
  param {
    lr_mult: 2
    decay_mult: 0
  }
  convolution_param {
    num_output: 32
    kernel_size: 1
    weight_filler {
      type: "xavier"
      std: 0.1
    }
    bias_filler {
      type: "constant"
      value: 0.2
    }
  }
}
layer {
  name: "inception_3a/relu_pool_proj"
  type: "ReLU"
  bottom: "inception_3a/pool_proj"
  top: "inception_3a/pool_proj"
}
layer {
  name: "inception_3a/output"
  type: "Concat"
  bottom: "inception_3a/1x1"
  bottom: "inception_3a/3x3"
  bottom: "inception_3a/5x5"
  bottom: "inception_3a/pool_proj"
  top: "inception_3a/output"
}
layer {
  name: "inception_3b/1x1"
  type: "Convolution"
  bottom: "inception_3a/output"
  top: "inception_3b/1x1"
  param {
    lr_mult: 1
    decay_mult: 1
  }
  param {
    lr_mult: 2
    decay_mult: 0
  }
  convolution_param {
    num_output: 128
    kernel_size: 1
    weight_filler {
      type: "xavier"
      std: 0.03
    }
    bias_filler {
      type: "constant"
      value: 0.2
    }
  }
}
layer {
  name: "inception_3b/relu_1x1"
  type: "ReLU"
  bottom: "inception_3b/1x1"
  top: "inception_3b/1x1"
}
layer {
  name: "inception_3b/3x3_reduce"
  type: "Convolution"
  bottom: "inception_3a/output"
  top: "inception_3b/3x3_reduce"
  param {
    lr_mult: 1
    decay_mult: 1
  }
  param {
    lr_mult: 2
    decay_mult: 0
  }
  convolution_param {
    num_output: 128
    kernel_size: 1
    weight_filler {
      type: "xavier"
      std: 0.09
    }
    bias_filler {
      type: "constant"
      value: 0.2
    }
  }
}
layer {
  name: "inception_3b/relu_3x3_reduce"
  type: "ReLU"
  bottom: "inception_3b/3x3_reduce"
  top: "inception_3b/3x3_reduce"
}
layer {
  name: "inception_3b/3x3"
  type: "Convolution"
  bottom: "inception_3b/3x3_reduce"
  top: "inception_3b/3x3"
  param {
    lr_mult: 1
    decay_mult: 1
  }
  param {
    lr_mult: 2
    decay_mult: 0
  }
  convolution_param {
    num_output: 192
    pad: 1
    kernel_size: 3
    weight_filler {
      type: "xavier"
      std: 0.03
    }
    bias_filler {
      type: "constant"
      value: 0.2
    }
  }
}
layer {
  name: "inception_3b/relu_3x3"
  type: "ReLU"
  bottom: "inception_3b/3x3"
  top: "inception_3b/3x3"
}
layer {
  name: "inception_3b/5x5_reduce"
  type: "Convolution"
  bottom: "inception_3a/output"
  top: "inception_3b/5x5_reduce"
  param {
    lr_mult: 1
    decay_mult: 1
  }
  param {
    lr_mult: 2
    decay_mult: 0
  }
  convolution_param {
    num_output: 32
    kernel_size: 1
    weight_filler {
      type: "xavier"
      std: 0.2
    }
    bias_filler {
      type: "constant"
      value: 0.2
    }
  }
}
layer {
  name: "inception_3b/relu_5x5_reduce"
  type: "ReLU"
  bottom: "inception_3b/5x5_reduce"
  top: "inception_3b/5x5_reduce"
}
layer {
  name: "inception_3b/5x5"
  type: "Convolution"
  bottom: "inception_3b/5x5_reduce"
  top: "inception_3b/5x5"
  param {
    lr_mult: 1
    decay_mult: 1
  }
  param {
    lr_mult: 2
    decay_mult: 0
  }
  convolution_param {
    num_output: 96
    pad: 2
    kernel_size: 5
    weight_filler {
      type: "xavier"
      std: 0.03
    }
    bias_filler {
      type: "constant"
      value: 0.2
    }
  }
}
layer {
  name: "inception_3b/relu_5x5"
  type: "ReLU"
  bottom: "inception_3b/5x5"
  top: "inception_3b/5x5"
}
layer {
  name: "inception_3b/pool"
  type: "Pooling"
  bottom: "inception_3a/output"
  top: "inception_3b/pool"
  pooling_param {
    pool: MAX
    kernel_size: 3
    stride: 1
    pad: 1
  }
}
layer {
  name: "inception_3b/pool_proj"
  type: "Convolution"
  bottom: "inception_3b/pool"
  top: "inception_3b/pool_proj"
  param {
    lr_mult: 1
    decay_mult: 1
  }
  param {
    lr_mult: 2
    decay_mult: 0
  }
  convolution_param {
    num_output: 64
    kernel_size: 1
    weight_filler {
      type: "xavier"
      std: 0.1
    }
    bias_filler {
      type: "constant"
      value: 0.2
    }
  }
}
layer {
  name: "inception_3b/relu_pool_proj"
  type: "ReLU"
  bottom: "inception_3b/pool_proj"
  top: "inception_3b/pool_proj"
}
layer {
  name: "inception_3b/output"
  type: "Concat"
  bottom: "inception_3b/1x1"
  bottom: "inception_3b/3x3"
  bottom: "inception_3b/5x5"
  bottom: "inception_3b/pool_proj"
  top: "inception_3b/output"
}
layer {
  name: "pool3/3x3_s2"
  type: "Pooling"
  bottom: "inception_3b/output"
  top: "pool3/3x3_s2"
  pooling_param {
    pool: MAX
    kernel_size: 3
    stride: 2
  }
}
layer {
  name: "inception_4a/1x1"
  type: "Convolution"
  bottom: "pool3/3x3_s2"
  top: "inception_4a/1x1"
  param {
    lr_mult: 1
    decay_mult: 1
  }
  param {
    lr_mult: 2
    decay_mult: 0
  }
  convolution_param {
    num_output: 192
    kernel_size: 1
    weight_filler {
      type: "xavier"
      std: 0.03
    }
    bias_filler {
      type: "constant"
      value: 0.2
    }
  }
}
layer {
  name: "inception_4a/relu_1x1"
  type: "ReLU"
  bottom: "inception_4a/1x1"
  top: "inception_4a/1x1"
}
layer {
  name: "inception_4a/3x3_reduce"
  type: "Convolution"
  bottom: "pool3/3x3_s2"
  top: "inception_4a/3x3_reduce"
  param {
    lr_mult: 1
    decay_mult: 1
  }
  param {
    lr_mult: 2
    decay_mult: 0
  }
  convolution_param {
    num_output: 96
    kernel_size: 1
    weight_filler {
      type: "xavier"
      std: 0.09
    }
    bias_filler {
      type: "constant"
      value: 0.2
    }
  }
}
layer {
  name: "inception_4a/relu_3x3_reduce"
  type: "ReLU"
  bottom: "inception_4a/3x3_reduce"
  top: "inception_4a/3x3_reduce"
}
layer {
  name: "inception_4a/3x3"
  type: "Convolution"
  bottom: "inception_4a/3x3_reduce"
  top: "inception_4a/3x3"
  param {
    lr_mult: 1
    decay_mult: 1
  }
  param {
    lr_mult: 2
    decay_mult: 0
  }
  convolution_param {
    num_output: 208
    pad: 1
    kernel_size: 3
    weight_filler {
      type: "xavier"
      std: 0.03
    }
    bias_filler {
      type: "constant"
      value: 0.2
    }
  }
}
layer {
  name: "inception_4a/relu_3x3"
  type: "ReLU"
  bottom: "inception_4a/3x3"
  top: "inception_4a/3x3"
}
layer {
  name: "inception_4a/5x5_reduce"
  type: "Convolution"
  bottom: "pool3/3x3_s2"
  top: "inception_4a/5x5_reduce"
  param {
    lr_mult: 1
    decay_mult: 1
  }
  param {
    lr_mult: 2
    decay_mult: 0
  }
  convolution_param {
    num_output: 16
    kernel_size: 1
    weight_filler {
      type: "xavier"
      std: 0.2
    }
    bias_filler {
      type: "constant"
      value: 0.2
    }
  }
}
layer {
  name: "inception_4a/relu_5x5_reduce"
  type: "ReLU"
  bottom: "inception_4a/5x5_reduce"
  top: "inception_4a/5x5_reduce"
}
layer {
  name: "inception_4a/5x5"
  type: "Convolution"
  bottom: "inception_4a/5x5_reduce"
  top: "inception_4a/5x5"
  param {
    lr_mult: 1
    decay_mult: 1
  }
  param {
    lr_mult: 2
    decay_mult: 0
  }
  convolution_param {
    num_output: 48
    pad: 2
    kernel_size: 5
    weight_filler {
      type: "xavier"
      std: 0.03
    }
    bias_filler {
      type: "constant"
      value: 0.2
    }
  }
}
layer {
  name: "inception_4a/relu_5x5"
  type: "ReLU"
  bottom: "inception_4a/5x5"
  top: "inception_4a/5x5"
}
layer {
  name: "inception_4a/pool"
  type: "Pooling"
  bottom: "pool3/3x3_s2"
  top: "inception_4a/pool"
  pooling_param {
    pool: MAX
    kernel_size: 3
    stride: 1
    pad: 1
  }
}
layer {
  name: "inception_4a/pool_proj"
  type: "Convolution"
  bottom: "inception_4a/pool"
  top: "inception_4a/pool_proj"
  param {
    lr_mult: 1
    decay_mult: 1
  }
  param {
    lr_mult: 2
    decay_mult: 0
  }
  convolution_param {
    num_output: 64
    kernel_size: 1
    weight_filler {
      type: "xavier"
      std: 0.1
    }
    bias_filler {
      type: "constant"
      value: 0.2
    }
  }
}
layer {
  name: "inception_4a/relu_pool_proj"
  type: "ReLU"
  bottom: "inception_4a/pool_proj"
  top: "inception_4a/pool_proj"
}
layer {
  name: "inception_4a/output"
  type: "Concat"
  bottom: "inception_4a/1x1"
  bottom: "inception_4a/3x3"
  bottom: "inception_4a/5x5"
  bottom: "inception_4a/pool_proj"
  top: "inception_4a/output"
}
layer {
  name: "loss1/ave_pool"
  type: "Pooling"
  bottom: "inception_4a/output"
  top: "loss1/ave_pool"
  pooling_param {
    pool: AVE
    kernel_size: 5
    stride: 3
  }
}
layer {
  name: "loss1/conv"
  type: "Convolution"
  bottom: "loss1/ave_pool"
  top: "loss1/conv"
  param {
    lr_mult: 1
    decay_mult: 1
  }
  param {
    lr_mult: 2
    decay_mult: 0
  }
  convolution_param {
    num_output: 128
    kernel_size: 1
    weight_filler {
      type: "xavier"
      std: 0.08
    }
    bias_filler {
      type: "constant"
      value: 0.2
    }
  }
}
layer {
  name: "loss1/relu_conv"
  type: "ReLU"
  bottom: "loss1/conv"
  top: "loss1/conv"
}
layer {
  name: "loss1/fc"
  type: "InnerProduct"
  bottom: "loss1/conv"
  top: "loss1/fc"
  param {
    lr_mult: 1
    decay_mult: 1
  }
  param {
    lr_mult: 2
    decay_mult: 0
  }
  inner_product_param {
    num_output: 1024
    weight_filler {
      type: "xavier"
      std: 0.02
    }
    bias_filler {
      type: "constant"
      value: 0.2
    }
  }
}
layer {
  name: "loss1/relu_fc"
  type: "ReLU"
  bottom: "loss1/fc"
  top: "loss1/fc"
}
layer {
  name: "loss1/drop_fc"
  type: "Dropout"
  bottom: "loss1/fc"
  top: "loss1/fc"
  dropout_param {
    dropout_ratio: 0.7
  }
}
layer {
  name: "loss1/classifier_plantvillage"
  type: "InnerProduct"
  bottom: "loss1/fc"
  top: "loss1/classifier_plantvillage"
  param {
    lr_mult: 1
    decay_mult: 1
  }
  param {
    lr_mult: 2
    decay_mult: 0
  }
  inner_product_param {
    num_output: 38
    weight_filler {
      type: "xavier"
      std: 0.0009765625
    }
    bias_filler {
      type: "constant"
      value: 0
    }
  }
}
layer {
  name: "inception_4b/1x1"
  type: "Convolution"
  bottom: "inception_4a/output"
  top: "inception_4b/1x1"
  param {
    lr_mult: 1
    decay_mult: 1
  }
  param {
    lr_mult: 2
    decay_mult: 0
  }
  convolution_param {
    num_output: 160
    kernel_size: 1
    weight_filler {
      type: "xavier"
      std: 0.03
    }
    bias_filler {
      type: "constant"
      value: 0.2
    }
  }
}
layer {
  name: "inception_4b/relu_1x1"
  type: "ReLU"
  bottom: "inception_4b/1x1"
  top: "inception_4b/1x1"
}
layer {
  name: "inception_4b/3x3_reduce"
  type: "Convolution"
  bottom: "inception_4a/output"
  top: "inception_4b/3x3_reduce"
  param {
    lr_mult: 1
    decay_mult: 1
  }
  param {
    lr_mult: 2
    decay_mult: 0
  }
  convolution_param {
    num_output: 112
    kernel_size: 1
    weight_filler {
      type: "xavier"
      std: 0.09
    }
    bias_filler {
      type: "constant"
      value: 0.2
    }
  }
}
layer {
  name: "inception_4b/relu_3x3_reduce"
  type: "ReLU"
  bottom: "inception_4b/3x3_reduce"
  top: "inception_4b/3x3_reduce"
}
layer {
  name: "inception_4b/3x3"
  type: "Convolution"
  bottom: "inception_4b/3x3_reduce"
  top: "inception_4b/3x3"
  param {
    lr_mult: 1
    decay_mult: 1
  }
  param {
    lr_mult: 2
    decay_mult: 0
  }
  convolution_param {
    num_output: 224
    pad: 1
    kernel_size: 3
    weight_filler {
      type: "xavier"
      std: 0.03
    }
    bias_filler {
      type: "constant"
      value: 0.2
    }
  }
}
layer {
  name: "inception_4b/relu_3x3"
  type: "ReLU"
  bottom: "inception_4b/3x3"
  top: "inception_4b/3x3"
}
layer {
  name: "inception_4b/5x5_reduce"
  type: "Convolution"
  bottom: "inception_4a/output"
  top: "inception_4b/5x5_reduce"
  param {
    lr_mult: 1
    decay_mult: 1
  }
  param {
    lr_mult: 2
    decay_mult: 0
  }
  convolution_param {
    num_output: 24
    kernel_size: 1
    weight_filler {
      type: "xavier"
      std: 0.2
    }
    bias_filler {
      type: "constant"
      value: 0.2
    }
  }
}
layer {
  name: "inception_4b/relu_5x5_reduce"
  type: "ReLU"
  bottom: "inception_4b/5x5_reduce"
  top: "inception_4b/5x5_reduce"
}
layer {
  name: "inception_4b/5x5"
  type: "Convolution"
  bottom: "inception_4b/5x5_reduce"
  top: "inception_4b/5x5"
  param {
    lr_mult: 1
    decay_mult: 1
  }
  param {
    lr_mult: 2
    decay_mult: 0
  }
  convolution_param {
    num_output: 64
    pad: 2
    kernel_size: 5
    weight_filler {
      type: "xavier"
      std: 0.03
    }
    bias_filler {
      type: "constant"
      value: 0.2
    }
  }
}
layer {
  name: "inception_4b/relu_5x5"
  type: "ReLU"
  bottom: "inception_4b/5x5"
  top: "inception_4b/5x5"
}
layer {
  name: "inception_4b/pool"
  type: "Pooling"
  bottom: "inception_4a/output"
  top: "inception_4b/pool"
  pooling_param {
    pool: MAX
    kernel_size: 3
    stride: 1
    pad: 1
  }
}
layer {
  name: "inception_4b/pool_proj"
  type: "Convolution"
  bottom: "inception_4b/pool"
  top: "inception_4b/pool_proj"
  param {
    lr_mult: 1
    decay_mult: 1
  }
  param {
    lr_mult: 2
    decay_mult: 0
  }
  convolution_param {
    num_output: 64
    kernel_size: 1
    weight_filler {
      type: "xavier"
      std: 0.1
    }
    bias_filler {
      type: "constant"
      value: 0.2
    }
  }
}
layer {
  name: "inception_4b/relu_pool_proj"
  type: "ReLU"
  bottom: "inception_4b/pool_proj"
  top: "inception_4b/pool_proj"
}
layer {
  name: "inception_4b/output"
  type: "Concat"
  bottom: "inception_4b/1x1"
  bottom: "inception_4b/3x3"
  bottom: "inception_4b/5x5"
  bottom: "inception_4b/pool_proj"
  top: "inception_4b/output"
}
layer {
  name: "inception_4c/1x1"
  type: "Convolution"
  bottom: "inception_4b/output"
  top: "inception_4c/1x1"
  param {
    lr_mult: 1
    decay_mult: 1
  }
  param {
    lr_mult: 2
    decay_mult: 0
  }
  convolution_param {
    num_output: 128
    kernel_size: 1
    weight_filler {
      type: "xavier"
      std: 0.03
    }
    bias_filler {
      type: "constant"
      value: 0.2
    }
  }
}
layer {
  name: "inception_4c/relu_1x1"
  type: "ReLU"
  bottom: "inception_4c/1x1"
  top: "inception_4c/1x1"
}
layer {
  name: "inception_4c/3x3_reduce"
  type: "Convolution"
  bottom: "inception_4b/output"
  top: "inception_4c/3x3_reduce"
  param {
    lr_mult: 1
    decay_mult: 1
  }
  param {
    lr_mult: 2
    decay_mult: 0
  }
  convolution_param {
    num_output: 128
    kernel_size: 1
    weight_filler {
      type: "xavier"
      std: 0.09
    }
    bias_filler {
      type: "constant"
      value: 0.2
    }
  }
}
layer {
  name: "inception_4c/relu_3x3_reduce"
  type: "ReLU"
  bottom: "inception_4c/3x3_reduce"
  top: "inception_4c/3x3_reduce"
}
layer {
  name: "inception_4c/3x3"
  type: "Convolution"
  bottom: "inception_4c/3x3_reduce"
  top: "inception_4c/3x3"
  param {
    lr_mult: 1
    decay_mult: 1
  }
  param {
    lr_mult: 2
    decay_mult: 0
  }
  convolution_param {
    num_output: 256
    pad: 1
    kernel_size: 3
    weight_filler {
      type: "xavier"
      std: 0.03
    }
    bias_filler {
      type: "constant"
      value: 0.2
    }
  }
}
layer {
  name: "inception_4c/relu_3x3"
  type: "ReLU"
  bottom: "inception_4c/3x3"
  top: "inception_4c/3x3"
}
layer {
  name: "inception_4c/5x5_reduce"
  type: "Convolution"
  bottom: "inception_4b/output"
  top: "inception_4c/5x5_reduce"
  param {
    lr_mult: 1
    decay_mult: 1
  }
  param {
    lr_mult: 2
    decay_mult: 0
  }
  convolution_param {
    num_output: 24
    kernel_size: 1
    weight_filler {
      type: "xavier"
      std: 0.2
    }
    bias_filler {
      type: "constant"
      value: 0.2
    }
  }
}
layer {
  name: "inception_4c/relu_5x5_reduce"
  type: "ReLU"
  bottom: "inception_4c/5x5_reduce"
  top: "inception_4c/5x5_reduce"
}
layer {
  name: "inception_4c/5x5"
  type: "Convolution"
  bottom: "inception_4c/5x5_reduce"
  top: "inception_4c/5x5"
  param {
    lr_mult: 1
    decay_mult: 1
  }
  param {
    lr_mult: 2
    decay_mult: 0
  }
  convolution_param {
    num_output: 64
    pad: 2
    kernel_size: 5
    weight_filler {
      type: "xavier"
      std: 0.03
    }
    bias_filler {
      type: "constant"
      value: 0.2
    }
  }
}
layer {
  name: "inception_4c/relu_5x5"
  type: "ReLU"
  bottom: "inception_4c/5x5"
  top: "inception_4c/5x5"
}
layer {
  name: "inception_4c/pool"
  type: "Pooling"
  bottom: "inception_4b/output"
  top: "inception_4c/pool"
  pooling_param {
    pool: MAX
    kernel_size: 3
    stride: 1
    pad: 1
  }
}
layer {
  name: "inception_4c/pool_proj"
  type: "Convolution"
  bottom: "inception_4c/pool"
  top: "inception_4c/pool_proj"
  param {
    lr_mult: 1
    decay_mult: 1
  }
  param {
    lr_mult: 2
    decay_mult: 0
  }
  convolution_param {
    num_output: 64
    kernel_size: 1
    weight_filler {
      type: "xavier"
      std: 0.1
    }
    bias_filler {
      type: "constant"
      value: 0.2
    }
  }
}
layer {
  name: "inception_4c/relu_pool_proj"
  type: "ReLU"
  bottom: "inception_4c/pool_proj"
  top: "inception_4c/pool_proj"
}
layer {
  name: "inception_4c/output"
  type: "Concat"
  bottom: "inception_4c/1x1"
  bottom: "inception_4c/3x3"
  bottom: "inception_4c/5x5"
  bottom: "inception_4c/pool_proj"
  top: "inception_4c/output"
}
layer {
  name: "inception_4d/1x1"
  type: "Convolution"
  bottom: "inception_4c/output"
  top: "inception_4d/1x1"
  param {
    lr_mult: 1
    decay_mult: 1
  }
  param {
    lr_mult: 2
    decay_mult: 0
  }
  convolution_param {
    num_output: 112
    kernel_size: 1
    weight_filler {
      type: "xavier"
      std: 0.03
    }
    bias_filler {
      type: "constant"
      value: 0.2
    }
  }
}
layer {
  name: "inception_4d/relu_1x1"
  type: "ReLU"
  bottom: "inception_4d/1x1"
  top: "inception_4d/1x1"
}
layer {
  name: "inception_4d/3x3_reduce"
  type: "Convolution"
  bottom: "inception_4c/output"
  top: "inception_4d/3x3_reduce"
  param {
    lr_mult: 1
    decay_mult: 1
  }
  param {
    lr_mult: 2
    decay_mult: 0
  }
  convolution_param {
    num_output: 144
    kernel_size: 1
    weight_filler {
      type: "xavier"
      std: 0.09
    }
    bias_filler {
      type: "constant"
      value: 0.2
    }
  }
}
layer {
  name: "inception_4d/relu_3x3_reduce"
  type: "ReLU"
  bottom: "inception_4d/3x3_reduce"
  top: "inception_4d/3x3_reduce"
}
layer {
  name: "inception_4d/3x3"
  type: "Convolution"
  bottom: "inception_4d/3x3_reduce"
  top: "inception_4d/3x3"
  param {
    lr_mult: 1
    decay_mult: 1
  }
  param {
    lr_mult: 2
    decay_mult: 0
  }
  convolution_param {
    num_output: 288
    pad: 1
    kernel_size: 3
    weight_filler {
      type: "xavier"
      std: 0.03
    }
    bias_filler {
      type: "constant"
      value: 0.2
    }
  }
}
layer {
  name: "inception_4d/relu_3x3"
  type: "ReLU"
  bottom: "inception_4d/3x3"
  top: "inception_4d/3x3"
}
layer {
  name: "inception_4d/5x5_reduce"
  type: "Convolution"
  bottom: "inception_4c/output"
  top: "inception_4d/5x5_reduce"
  param {
    lr_mult: 1
    decay_mult: 1
  }
  param {
    lr_mult: 2
    decay_mult: 0
  }
  convolution_param {
    num_output: 32
    kernel_size: 1
    weight_filler {
      type: "xavier"
      std: 0.2
    }
    bias_filler {
      type: "constant"
      value: 0.2
    }
  }
}
layer {
  name: "inception_4d/relu_5x5_reduce"
  type: "ReLU"
  bottom: "inception_4d/5x5_reduce"
  top: "inception_4d/5x5_reduce"
}
layer {
  name: "inception_4d/5x5"
  type: "Convolution"
  bottom: "inception_4d/5x5_reduce"
  top: "inception_4d/5x5"
  param {
    lr_mult: 1
    decay_mult: 1
  }
  param {
    lr_mult: 2
    decay_mult: 0
  }
  convolution_param {
    num_output: 64
    pad: 2
    kernel_size: 5
    weight_filler {
      type: "xavier"
      std: 0.03
    }
    bias_filler {
      type: "constant"
      value: 0.2
    }
  }
}
layer {
  name: "inception_4d/relu_5x5"
  type: "ReLU"
  bottom: "inception_4d/5x5"
  top: "inception_4d/5x5"
}
layer {
  name: "inception_4d/pool"
  type: "Pooling"
  bottom: "inception_4c/output"
  top: "inception_4d/pool"
  pooling_param {
    pool: MAX
    kernel_size: 3
    stride: 1
    pad: 1
  }
}
layer {
  name: "inception_4d/pool_proj"
  type: "Convolution"
  bottom: "inception_4d/pool"
  top: "inception_4d/pool_proj"
  param {
    lr_mult: 1
    decay_mult: 1
  }
  param {
    lr_mult: 2
    decay_mult: 0
  }
  convolution_param {
    num_output: 64
    kernel_size: 1
    weight_filler {
      type: "xavier"
      std: 0.1
    }
    bias_filler {
      type: "constant"
      value: 0.2
    }
  }
}
layer {
  name: "inception_4d/relu_pool_proj"
  type: "ReLU"
  bottom: "inception_4d/pool_proj"
  top: "inception_4d/pool_proj"
}
layer {
  name: "inception_4d/output"
  type: "Concat"
  bottom: "inception_4d/1x1"
  bottom: "inception_4d/3x3"
  bottom: "inception_4d/5x5"
  bottom: "inception_4d/pool_proj"
  top: "inception_4d/output"
}
layer {
  name: "loss2/ave_pool"
  type: "Pooling"
  bottom: "inception_4d/output"
  top: "loss2/ave_pool"
  pooling_param {
    pool: AVE
    kernel_size: 5
    stride: 3
  }
}
layer {
  name: "loss2/conv"
  type: "Convolution"
  bottom: "loss2/ave_pool"
  top: "loss2/conv"
  param {
    lr_mult: 1
    decay_mult: 1
  }
  param {
    lr_mult: 2
    decay_mult: 0
  }
  convolution_param {
    num_output: 128
    kernel_size: 1
    weight_filler {
      type: "xavier"
      std: 0.08
    }
    bias_filler {
      type: "constant"
      value: 0.2
    }
  }
}
layer {
  name: "loss2/relu_conv"
  type: "ReLU"
  bottom: "loss2/conv"
  top: "loss2/conv"
}
layer {
  name: "loss2/fc"
  type: "InnerProduct"
  bottom: "loss2/conv"
  top: "loss2/fc"
  param {
    lr_mult: 1
    decay_mult: 1
  }
  param {
    lr_mult: 2
    decay_mult: 0
  }
  inner_product_param {
    num_output: 1024
    weight_filler {
      type: "xavier"
      std: 0.02
    }
    bias_filler {
      type: "constant"
      value: 0.2
    }
  }
}
layer {
  name: "loss2/relu_fc"
  type: "ReLU"
  bottom: "loss2/fc"
  top: "loss2/fc"
}
layer {
  name: "loss2/drop_fc"
  type: "Dropout"
  bottom: "loss2/fc"
  top: "loss2/fc"
  dropout_param {
    dropout_ratio: 0.7
  }
}
layer {
  name: "loss2/classifier_plantvillage"
  type: "InnerProduct"
  bottom: "loss2/fc"
  top: "loss2/classifier_plantvillage"
  param {
    lr_mult: 1
    decay_mult: 1
  }
  param {
    lr_mult: 2
    decay_mult: 0
  }
  inner_product_param {
    num_output: 38
    weight_filler {
      type: "xavier"
      std: 0.0009765625
    }
    bias_filler {
      type: "constant"
      value: 0
    }
  }
}
layer {
  name: "inception_4e/1x1"
  type: "Convolution"
  bottom: "inception_4d/output"
  top: "inception_4e/1x1"
  param {
    lr_mult: 1
    decay_mult: 1
  }
  param {
    lr_mult: 2
    decay_mult: 0
  }
  convolution_param {
    num_output: 256
    kernel_size: 1
    weight_filler {
      type: "xavier"
      std: 0.03
    }
    bias_filler {
      type: "constant"
      value: 0.2
    }
  }
}
layer {
  name: "inception_4e/relu_1x1"
  type: "ReLU"
  bottom: "inception_4e/1x1"
  top: "inception_4e/1x1"
}
layer {
  name: "inception_4e/3x3_reduce"
  type: "Convolution"
  bottom: "inception_4d/output"
  top: "inception_4e/3x3_reduce"
  param {
    lr_mult: 1
    decay_mult: 1
  }
  param {
    lr_mult: 2
    decay_mult: 0
  }
  convolution_param {
    num_output: 160
    kernel_size: 1
    weight_filler {
      type: "xavier"
      std: 0.09
    }
    bias_filler {
      type: "constant"
      value: 0.2
    }
  }
}
layer {
  name: "inception_4e/relu_3x3_reduce"
  type: "ReLU"
  bottom: "inception_4e/3x3_reduce"
  top: "inception_4e/3x3_reduce"
}
layer {
  name: "inception_4e/3x3"
  type: "Convolution"
  bottom: "inception_4e/3x3_reduce"
  top: "inception_4e/3x3"
  param {
    lr_mult: 1
    decay_mult: 1
  }
  param {
    lr_mult: 2
    decay_mult: 0
  }
  convolution_param {
    num_output: 320
    pad: 1
    kernel_size: 3
    weight_filler {
      type: "xavier"
      std: 0.03
    }
    bias_filler {
      type: "constant"
      value: 0.2
    }
  }
}
layer {
  name: "inception_4e/relu_3x3"
  type: "ReLU"
  bottom: "inception_4e/3x3"
  top: "inception_4e/3x3"
}
layer {
  name: "inception_4e/5x5_reduce"
  type: "Convolution"
  bottom: "inception_4d/output"
  top: "inception_4e/5x5_reduce"
  param {
    lr_mult: 1
    decay_mult: 1
  }
  param {
    lr_mult: 2
    decay_mult: 0
  }
  convolution_param {
    num_output: 32
    kernel_size: 1
    weight_filler {
      type: "xavier"
      std: 0.2
    }
    bias_filler {
      type: "constant"
      value: 0.2
    }
  }
}
layer {
  name: "inception_4e/relu_5x5_reduce"
  type: "ReLU"
  bottom: "inception_4e/5x5_reduce"
  top: "inception_4e/5x5_reduce"
}
layer {
  name: "inception_4e/5x5"
  type: "Convolution"
  bottom: "inception_4e/5x5_reduce"
  top: "inception_4e/
I0403 21:53:43.199518 24610 layer_factory.hpp:77] Creating layer data
I0403 21:53:43.200131 24610 net.cpp:91] Creating Layer data
I0403 21:53:43.200165 24610 net.cpp:399] data -> data
I0403 21:53:43.200222 24610 net.cpp:399] data -> label
I0403 21:53:43.200263 24610 data_transformer.cpp:25] Loading mean file from: /home/mohanty/data/final_dataset/lmdb/segmented-80-20/mean.binaryproto
I0403 21:53:43.201480 24613 db_lmdb.cpp:38] Opened lmdb /home/mohanty/data/final_dataset/lmdb/segmented-80-20/test_db
I0403 21:53:43.213755 24610 data_layer.cpp:41] output data size: 24,3,224,224
I0403 21:53:43.241996 24610 net.cpp:141] Setting up data
I0403 21:53:43.242081 24610 net.cpp:148] Top shape: 24 3 224 224 (3612672)
I0403 21:53:43.242105 24610 net.cpp:148] Top shape: 24 (24)
I0403 21:53:43.242121 24610 net.cpp:156] Memory required for data: 14450784
I0403 21:53:43.242151 24610 layer_factory.hpp:77] Creating layer label_data_1_split
I0403 21:53:43.242180 24610 net.cpp:91] Creating Layer label_data_1_split
I0403 21:53:43.242203 24610 net.cpp:425] label_data_1_split <- label
I0403 21:53:43.242239 24610 net.cpp:399] label_data_1_split -> label_data_1_split_0
I0403 21:53:43.242269 24610 net.cpp:399] label_data_1_split -> label_data_1_split_1
I0403 21:53:43.242292 24610 net.cpp:399] label_data_1_split -> label_data_1_split_2
I0403 21:53:43.242314 24610 net.cpp:399] label_data_1_split -> label_data_1_split_3
I0403 21:53:43.242336 24610 net.cpp:399] label_data_1_split -> label_data_1_split_4
I0403 21:53:43.242357 24610 net.cpp:399] label_data_1_split -> label_data_1_split_5
I0403 21:53:43.242378 24610 net.cpp:399] label_data_1_split -> label_data_1_split_6
I0403 21:53:43.242399 24610 net.cpp:399] label_data_1_split -> label_data_1_split_7
I0403 21:53:43.242420 24610 net.cpp:399] label_data_1_split -> label_data_1_split_8
I0403 21:53:43.242442 24610 net.cpp:399] label_data_1_split -> label_data_1_split_9
I0403 21:53:43.242563 24610 net.cpp:141] Setting up label_data_1_split
I0403 21:53:43.242588 24610 net.cpp:148] Top shape: 24 (24)
I0403 21:53:43.242606 24610 net.cpp:148] Top shape: 24 (24)
I0403 21:53:43.242622 24610 net.cpp:148] Top shape: 24 (24)
I0403 21:53:43.242640 24610 net.cpp:148] Top shape: 24 (24)
I0403 21:53:43.242655 24610 net.cpp:148] Top shape: 24 (24)
I0403 21:53:43.242671 24610 net.cpp:148] Top shape: 24 (24)
I0403 21:53:43.242688 24610 net.cpp:148] Top shape: 24 (24)
I0403 21:53:43.242704 24610 net.cpp:148] Top shape: 24 (24)
I0403 21:53:43.242722 24610 net.cpp:148] Top shape: 24 (24)
I0403 21:53:43.242738 24610 net.cpp:148] Top shape: 24 (24)
I0403 21:53:43.242784 24610 net.cpp:156] Memory required for data: 14451744
I0403 21:53:43.242801 24610 layer_factory.hpp:77] Creating layer conv1/7x7_s2
I0403 21:53:43.242835 24610 net.cpp:91] Creating Layer conv1/7x7_s2
I0403 21:53:43.242853 24610 net.cpp:425] conv1/7x7_s2 <- data
I0403 21:53:43.242874 24610 net.cpp:399] conv1/7x7_s2 -> conv1/7x7_s2
I0403 21:53:43.388659 24610 net.cpp:141] Setting up conv1/7x7_s2
I0403 21:53:43.388732 24610 net.cpp:148] Top shape: 24 64 112 112 (19267584)
I0403 21:53:43.388749 24610 net.cpp:156] Memory required for data: 91522080
I0403 21:53:43.388780 24610 layer_factory.hpp:77] Creating layer conv1/relu_7x7
I0403 21:53:43.388806 24610 net.cpp:91] Creating Layer conv1/relu_7x7
I0403 21:53:43.388825 24610 net.cpp:425] conv1/relu_7x7 <- conv1/7x7_s2
I0403 21:53:43.388844 24610 net.cpp:386] conv1/relu_7x7 -> conv1/7x7_s2 (in-place)
I0403 21:53:43.389106 24610 net.cpp:141] Setting up conv1/relu_7x7
I0403 21:53:43.389133 24610 net.cpp:148] Top shape: 24 64 112 112 (19267584)
I0403 21:53:43.389149 24610 net.cpp:156] Memory required for data: 168592416
I0403 21:53:43.389164 24610 layer_factory.hpp:77] Creating layer pool1/3x3_s2
I0403 21:53:43.389189 24610 net.cpp:91] Creating Layer pool1/3x3_s2
I0403 21:53:43.389211 24610 net.cpp:425] pool1/3x3_s2 <- conv1/7x7_s2
I0403 21:53:43.389233 24610 net.cpp:399] pool1/3x3_s2 -> pool1/3x3_s2
I0403 21:53:43.389312 24610 net.cpp:141] Setting up pool1/3x3_s2
I0403 21:53:43.389335 24610 net.cpp:148] Top shape: 24 64 56 56 (4816896)
I0403 21:53:43.389350 24610 net.cpp:156] Memory required for data: 187860000
I0403 21:53:43.389364 24610 layer_factory.hpp:77] Creating layer pool1/norm1
I0403 21:53:43.389390 24610 net.cpp:91] Creating Layer pool1/norm1
I0403 21:53:43.389410 24610 net.cpp:425] pool1/norm1 <- pool1/3x3_s2
I0403 21:53:43.389428 24610 net.cpp:399] pool1/norm1 -> pool1/norm1
I0403 21:53:43.389719 24610 net.cpp:141] Setting up pool1/norm1
I0403 21:53:43.389747 24610 net.cpp:148] Top shape: 24 64 56 56 (4816896)
I0403 21:53:43.389765 24610 net.cpp:156] Memory required for data: 207127584
I0403 21:53:43.389780 24610 layer_factory.hpp:77] Creating layer conv2/3x3_reduce
I0403 21:53:43.389806 24610 net.cpp:91] Creating Layer conv2/3x3_reduce
I0403 21:53:43.389822 24610 net.cpp:425] conv2/3x3_reduce <- pool1/norm1
I0403 21:53:43.389840 24610 net.cpp:399] conv2/3x3_reduce -> conv2/3x3_reduce
I0403 21:53:43.391209 24610 net.cpp:141] Setting up conv2/3x3_reduce
I0403 21:53:43.391239 24610 net.cpp:148] Top shape: 24 64 56 56 (4816896)
I0403 21:53:43.391254 24610 net.cpp:156] Memory required for data: 226395168
I0403 21:53:43.391275 24610 layer_factory.hpp:77] Creating layer conv2/relu_3x3_reduce
I0403 21:53:43.391296 24610 net.cpp:91] Creating Layer conv2/relu_3x3_reduce
I0403 21:53:43.391314 24610 net.cpp:425] conv2/relu_3x3_reduce <- conv2/3x3_reduce
I0403 21:53:43.391330 24610 net.cpp:386] conv2/relu_3x3_reduce -> conv2/3x3_reduce (in-place)
I0403 21:53:43.391587 24610 net.cpp:141] Setting up conv2/relu_3x3_reduce
I0403 21:53:43.391613 24610 net.cpp:148] Top shape: 24 64 56 56 (4816896)
I0403 21:53:43.391628 24610 net.cpp:156] Memory required for data: 245662752
I0403 21:53:43.391644 24610 layer_factory.hpp:77] Creating layer conv2/3x3
I0403 21:53:43.391670 24610 net.cpp:91] Creating Layer conv2/3x3
I0403 21:53:43.391688 24610 net.cpp:425] conv2/3x3 <- conv2/3x3_reduce
I0403 21:53:43.391708 24610 net.cpp:399] conv2/3x3 -> conv2/3x3
I0403 21:53:43.393937 24610 net.cpp:141] Setting up conv2/3x3
I0403 21:53:43.393968 24610 net.cpp:148] Top shape: 24 192 56 56 (14450688)
I0403 21:53:43.393985 24610 net.cpp:156] Memory required for data: 303465504
I0403 21:53:43.394008 24610 layer_factory.hpp:77] Creating layer conv2/relu_3x3
I0403 21:53:43.394029 24610 net.cpp:91] Creating Layer conv2/relu_3x3
I0403 21:53:43.394045 24610 net.cpp:425] conv2/relu_3x3 <- conv2/3x3
I0403 21:53:43.394062 24610 net.cpp:386] conv2/relu_3x3 -> conv2/3x3 (in-place)
I0403 21:53:43.394237 24610 net.cpp:141] Setting up conv2/relu_3x3
I0403 21:53:43.394264 24610 net.cpp:148] Top shape: 24 192 56 56 (14450688)
I0403 21:53:43.394300 24610 net.cpp:156] Memory required for data: 361268256
I0403 21:53:43.394317 24610 layer_factory.hpp:77] Creating layer conv2/norm2
I0403 21:53:43.394335 24610 net.cpp:91] Creating Layer conv2/norm2
I0403 21:53:43.394351 24610 net.cpp:425] conv2/norm2 <- conv2/3x3
I0403 21:53:43.394372 24610 net.cpp:399] conv2/norm2 -> conv2/norm2
I0403 21:53:43.394667 24610 net.cpp:141] Setting up conv2/norm2
I0403 21:53:43.394693 24610 net.cpp:148] Top shape: 24 192 56 56 (14450688)
I0403 21:53:43.394709 24610 net.cpp:156] Memory required for data: 419071008
I0403 21:53:43.394724 24610 layer_factory.hpp:77] Creating layer pool2/3x3_s2
I0403 21:53:43.394742 24610 net.cpp:91] Creating Layer pool2/3x3_s2
I0403 21:53:43.394757 24610 net.cpp:425] pool2/3x3_s2 <- conv2/norm2
I0403 21:53:43.394776 24610 net.cpp:399] pool2/3x3_s2 -> pool2/3x3_s2
I0403 21:53:43.394829 24610 net.cpp:141] Setting up pool2/3x3_s2
I0403 21:53:43.394852 24610 net.cpp:148] Top shape: 24 192 28 28 (3612672)
I0403 21:53:43.394866 24610 net.cpp:156] Memory required for data: 433521696
I0403 21:53:43.394881 24610 layer_factory.hpp:77] Creating layer pool2/3x3_s2_pool2/3x3_s2_0_split
I0403 21:53:43.394912 24610 net.cpp:91] Creating Layer pool2/3x3_s2_pool2/3x3_s2_0_split
I0403 21:53:43.394928 24610 net.cpp:425] pool2/3x3_s2_pool2/3x3_s2_0_split <- pool2/3x3_s2
I0403 21:53:43.394945 24610 net.cpp:399] pool2/3x3_s2_pool2/3x3_s2_0_split -> pool2/3x3_s2_pool2/3x3_s2_0_split_0
I0403 21:53:43.394966 24610 net.cpp:399] pool2/3x3_s2_pool2/3x3_s2_0_split -> pool2/3x3_s2_pool2/3x3_s2_0_split_1
I0403 21:53:43.394989 24610 net.cpp:399] pool2/3x3_s2_pool2/3x3_s2_0_split -> pool2/3x3_s2_pool2/3x3_s2_0_split_2
I0403 21:53:43.395009 24610 net.cpp:399] pool2/3x3_s2_pool2/3x3_s2_0_split -> pool2/3x3_s2_pool2/3x3_s2_0_split_3
I0403 21:53:43.395081 24610 net.cpp:141] Setting up pool2/3x3_s2_pool2/3x3_s2_0_split
I0403 21:53:43.395104 24610 net.cpp:148] Top shape: 24 192 28 28 (3612672)
I0403 21:53:43.395122 24610 net.cpp:148] Top shape: 24 192 28 28 (3612672)
I0403 21:53:43.395136 24610 net.cpp:148] Top shape: 24 192 28 28 (3612672)
I0403 21:53:43.395151 24610 net.cpp:148] Top shape: 24 192 28 28 (3612672)
I0403 21:53:43.395165 24610 net.cpp:156] Memory required for data: 491324448
I0403 21:53:43.395179 24610 layer_factory.hpp:77] Creating layer inception_3a/1x1
I0403 21:53:43.395220 24610 net.cpp:91] Creating Layer inception_3a/1x1
I0403 21:53:43.395237 24610 net.cpp:425] inception_3a/1x1 <- pool2/3x3_s2_pool2/3x3_s2_0_split_0
I0403 21:53:43.395256 24610 net.cpp:399] inception_3a/1x1 -> inception_3a/1x1
I0403 21:53:43.396739 24610 net.cpp:141] Setting up inception_3a/1x1
I0403 21:53:43.396769 24610 net.cpp:148] Top shape: 24 64 28 28 (1204224)
I0403 21:53:43.396783 24610 net.cpp:156] Memory required for data: 496141344
I0403 21:53:43.396802 24610 layer_factory.hpp:77] Creating layer inception_3a/relu_1x1
I0403 21:53:43.396822 24610 net.cpp:91] Creating Layer inception_3a/relu_1x1
I0403 21:53:43.396841 24610 net.cpp:425] inception_3a/relu_1x1 <- inception_3a/1x1
I0403 21:53:43.396857 24610 net.cpp:386] inception_3a/relu_1x1 -> inception_3a/1x1 (in-place)
I0403 21:53:43.397020 24610 net.cpp:141] Setting up inception_3a/relu_1x1
I0403 21:53:43.397047 24610 net.cpp:148] Top shape: 24 64 28 28 (1204224)
I0403 21:53:43.397063 24610 net.cpp:156] Memory required for data: 500958240
I0403 21:53:43.397078 24610 layer_factory.hpp:77] Creating layer inception_3a/3x3_reduce
I0403 21:53:43.397099 24610 net.cpp:91] Creating Layer inception_3a/3x3_reduce
I0403 21:53:43.397114 24610 net.cpp:425] inception_3a/3x3_reduce <- pool2/3x3_s2_pool2/3x3_s2_0_split_1
I0403 21:53:43.397136 24610 net.cpp:399] inception_3a/3x3_reduce -> inception_3a/3x3_reduce
I0403 21:53:43.398792 24610 net.cpp:141] Setting up inception_3a/3x3_reduce
I0403 21:53:43.398823 24610 net.cpp:148] Top shape: 24 96 28 28 (1806336)
I0403 21:53:43.398838 24610 net.cpp:156] Memory required for data: 508183584
I0403 21:53:43.398860 24610 layer_factory.hpp:77] Creating layer inception_3a/relu_3x3_reduce
I0403 21:53:43.398895 24610 net.cpp:91] Creating Layer inception_3a/relu_3x3_reduce
I0403 21:53:43.398912 24610 net.cpp:425] inception_3a/relu_3x3_reduce <- inception_3a/3x3_reduce
I0403 21:53:43.398929 24610 net.cpp:386] inception_3a/relu_3x3_reduce -> inception_3a/3x3_reduce (in-place)
I0403 21:53:43.399108 24610 net.cpp:141] Setting up inception_3a/relu_3x3_reduce
I0403 21:53:43.399132 24610 net.cpp:148] Top shape: 24 96 28 28 (1806336)
I0403 21:53:43.399147 24610 net.cpp:156] Memory required for data: 515408928
I0403 21:53:43.399163 24610 layer_factory.hpp:77] Creating layer inception_3a/3x3
I0403 21:53:43.399193 24610 net.cpp:91] Creating Layer inception_3a/3x3
I0403 21:53:43.399216 24610 net.cpp:425] inception_3a/3x3 <- inception_3a/3x3_reduce
I0403 21:53:43.399238 24610 net.cpp:399] inception_3a/3x3 -> inception_3a/3x3
I0403 21:53:43.400815 24610 net.cpp:141] Setting up inception_3a/3x3
I0403 21:53:43.400843 24610 net.cpp:148] Top shape: 24 128 28 28 (2408448)
I0403 21:53:43.400859 24610 net.cpp:156] Memory required for data: 525042720
I0403 21:53:43.400877 24610 layer_factory.hpp:77] Creating layer inception_3a/relu_3x3
I0403 21:53:43.400897 24610 net.cpp:91] Creating Layer inception_3a/relu_3x3
I0403 21:53:43.400914 24610 net.cpp:425] inception_3a/relu_3x3 <- inception_3a/3x3
I0403 21:53:43.400931 24610 net.cpp:386] inception_3a/relu_3x3 -> inception_3a/3x3 (in-place)
I0403 21:53:43.401202 24610 net.cpp:141] Setting up inception_3a/relu_3x3
I0403 21:53:43.401228 24610 net.cpp:148] Top shape: 24 128 28 28 (2408448)
I0403 21:53:43.401243 24610 net.cpp:156] Memory required for data: 534676512
I0403 21:53:43.401258 24610 layer_factory.hpp:77] Creating layer inception_3a/5x5_reduce
I0403 21:53:43.401281 24610 net.cpp:91] Creating Layer inception_3a/5x5_reduce
I0403 21:53:43.401300 24610 net.cpp:425] inception_3a/5x5_reduce <- pool2/3x3_s2_pool2/3x3_s2_0_split_2
I0403 21:53:43.401319 24610 net.cpp:399] inception_3a/5x5_reduce -> inception_3a/5x5_reduce
I0403 21:53:43.402242 24610 net.cpp:141] Setting up inception_3a/5x5_reduce
I0403 21:53:43.402271 24610 net.cpp:148] Top shape: 24 16 28 28 (301056)
I0403 21:53:43.402286 24610 net.cpp:156] Memory required for data: 535880736
I0403 21:53:43.402302 24610 layer_factory.hpp:77] Creating layer inception_3a/relu_5x5_reduce
I0403 21:53:43.402323 24610 net.cpp:91] Creating Layer inception_3a/relu_5x5_reduce
I0403 21:53:43.402339 24610 net.cpp:425] inception_3a/relu_5x5_reduce <- inception_3a/5x5_reduce
I0403 21:53:43.402356 24610 net.cpp:386] inception_3a/relu_5x5_reduce -> inception_3a/5x5_reduce (in-place)
I0403 21:53:43.402640 24610 net.cpp:141] Setting up inception_3a/relu_5x5_reduce
I0403 21:53:43.402668 24610 net.cpp:148] Top shape: 24 16 28 28 (301056)
I0403 21:53:43.402684 24610 net.cpp:156] Memory required for data: 537084960
I0403 21:53:43.402699 24610 layer_factory.hpp:77] Creating layer inception_3a/5x5
I0403 21:53:43.402721 24610 net.cpp:91] Creating Layer inception_3a/5x5
I0403 21:53:43.402740 24610 net.cpp:425] inception_3a/5x5 <- inception_3a/5x5_reduce
I0403 21:53:43.402758 24610 net.cpp:399] inception_3a/5x5 -> inception_3a/5x5
I0403 21:53:43.403748 24610 net.cpp:141] Setting up inception_3a/5x5
I0403 21:53:43.403774 24610 net.cpp:148] Top shape: 24 32 28 28 (602112)
I0403 21:53:43.403789 24610 net.cpp:156] Memory required for data: 539493408
I0403 21:53:43.403807 24610 layer_factory.hpp:77] Creating layer inception_3a/relu_5x5
I0403 21:53:43.403827 24610 net.cpp:91] Creating Layer inception_3a/relu_5x5
I0403 21:53:43.403844 24610 net.cpp:425] inception_3a/relu_5x5 <- inception_3a/5x5
I0403 21:53:43.403861 24610 net.cpp:386] inception_3a/relu_5x5 -> inception_3a/5x5 (in-place)
I0403 21:53:43.404028 24610 net.cpp:141] Setting up inception_3a/relu_5x5
I0403 21:53:43.404055 24610 net.cpp:148] Top shape: 24 32 28 28 (602112)
I0403 21:53:43.404072 24610 net.cpp:156] Memory required for data: 541901856
I0403 21:53:43.404085 24610 layer_factory.hpp:77] Creating layer inception_3a/pool
I0403 21:53:43.404103 24610 net.cpp:91] Creating Layer inception_3a/pool
I0403 21:53:43.404134 24610 net.cpp:425] inception_3a/pool <- pool2/3x3_s2_pool2/3x3_s2_0_split_3
I0403 21:53:43.404152 24610 net.cpp:399] inception_3a/pool -> inception_3a/pool
I0403 21:53:43.404212 24610 net.cpp:141] Setting up inception_3a/pool
I0403 21:53:43.404237 24610 net.cpp:148] Top shape: 24 192 28 28 (3612672)
I0403 21:53:43.404252 24610 net.cpp:156] Memory required for data: 556352544
I0403 21:53:43.404266 24610 layer_factory.hpp:77] Creating layer inception_3a/pool_proj
I0403 21:53:43.404289 24610 net.cpp:91] Creating Layer inception_3a/pool_proj
I0403 21:53:43.404307 24610 net.cpp:425] inception_3a/pool_proj <- inception_3a/pool
I0403 21:53:43.404328 24610 net.cpp:399] inception_3a/pool_proj -> inception_3a/pool_proj
I0403 21:53:43.405266 24610 net.cpp:141] Setting up inception_3a/pool_proj
I0403 21:53:43.405292 24610 net.cpp:148] Top shape: 24 32 28 28 (602112)
I0403 21:53:43.405308 24610 net.cpp:156] Memory required for data: 558760992
I0403 21:53:43.405328 24610 layer_factory.hpp:77] Creating layer inception_3a/relu_pool_proj
I0403 21:53:43.405349 24610 net.cpp:91] Creating Layer inception_3a/relu_pool_proj
I0403 21:53:43.405367 24610 net.cpp:425] inception_3a/relu_pool_proj <- inception_3a/pool_proj
I0403 21:53:43.405385 24610 net.cpp:386] inception_3a/relu_pool_proj -> inception_3a/pool_proj (in-place)
I0403 21:53:43.405654 24610 net.cpp:141] Setting up inception_3a/relu_pool_proj
I0403 21:53:43.405680 24610 net.cpp:148] Top shape: 24 32 28 28 (602112)
I0403 21:53:43.405695 24610 net.cpp:156] Memory required for data: 561169440
I0403 21:53:43.405711 24610 layer_factory.hpp:77] Creating layer inception_3a/output
I0403 21:53:43.405731 24610 net.cpp:91] Creating Layer inception_3a/output
I0403 21:53:43.405746 24610 net.cpp:425] inception_3a/output <- inception_3a/1x1
I0403 21:53:43.405763 24610 net.cpp:425] inception_3a/output <- inception_3a/3x3
I0403 21:53:43.405779 24610 net.cpp:425] inception_3a/output <- inception_3a/5x5
I0403 21:53:43.405794 24610 net.cpp:425] inception_3a/output <- inception_3a/pool_proj
I0403 21:53:43.405812 24610 net.cpp:399] inception_3a/output -> inception_3a/output
I0403 21:53:43.405858 24610 net.cpp:141] Setting up inception_3a/output
I0403 21:53:43.405881 24610 net.cpp:148] Top shape: 24 256 28 28 (4816896)
I0403 21:53:43.405895 24610 net.cpp:156] Memory required for data: 580437024
I0403 21:53:43.405910 24610 layer_factory.hpp:77] Creating layer inception_3a/output_inception_3a/output_0_split
I0403 21:53:43.405926 24610 net.cpp:91] Creating Layer inception_3a/output_inception_3a/output_0_split
I0403 21:53:43.405941 24610 net.cpp:425] inception_3a/output_inception_3a/output_0_split <- inception_3a/output
I0403 21:53:43.405962 24610 net.cpp:399] inception_3a/output_inception_3a/output_0_split -> inception_3a/output_inception_3a/output_0_split_0
I0403 21:53:43.405982 24610 net.cpp:399] inception_3a/output_inception_3a/output_0_split -> inception_3a/output_inception_3a/output_0_split_1
I0403 21:53:43.406007 24610 net.cpp:399] inception_3a/output_inception_3a/output_0_split -> inception_3a/output_inception_3a/output_0_split_2
I0403 21:53:43.406028 24610 net.cpp:399] inception_3a/output_inception_3a/output_0_split -> inception_3a/output_inception_3a/output_0_split_3
I0403 21:53:43.406098 24610 net.cpp:141] Setting up inception_3a/output_inception_3a/output_0_split
I0403 21:53:43.406121 24610 net.cpp:148] Top shape: 24 256 28 28 (4816896)
I0403 21:53:43.406138 24610 net.cpp:148] Top shape: 24 256 28 28 (4816896)
I0403 21:53:43.406154 24610 net.cpp:148] Top shape: 24 256 28 28 (4816896)
I0403 21:53:43.406168 24610 net.cpp:148] Top shape: 24 256 28 28 (4816896)
I0403 21:53:43.406183 24610 net.cpp:156] Memory required for data: 657507360
I0403 21:53:43.406199 24610 layer_factory.hpp:77] Creating layer inception_3b/1x1
I0403 21:53:43.406224 24610 net.cpp:91] Creating Layer inception_3b/1x1
I0403 21:53:43.406242 24610 net.cpp:425] inception_3b/1x1 <- inception_3a/output_inception_3a/output_0_split_0
I0403 21:53:43.406262 24610 net.cpp:399] inception_3b/1x1 -> inception_3b/1x1
I0403 21:53:43.407358 24610 net.cpp:141] Setting up inception_3b/1x1
I0403 21:53:43.407397 24610 net.cpp:148] Top shape: 24 128 28 28 (2408448)
I0403 21:53:43.407413 24610 net.cpp:156] Memory required for data: 667141152
I0403 21:53:43.407433 24610 layer_factory.hpp:77] Creating layer inception_3b/relu_1x1
I0403 21:53:43.407454 24610 net.cpp:91] Creating Layer inception_3b/relu_1x1
I0403 21:53:43.407471 24610 net.cpp:425] inception_3b/relu_1x1 <- inception_3b/1x1
I0403 21:53:43.407490 24610 net.cpp:386] inception_3b/relu_1x1 -> inception_3b/1x1 (in-place)
I0403 21:53:43.407655 24610 net.cpp:141] Setting up inception_3b/relu_1x1
I0403 21:53:43.407680 24610 net.cpp:148] Top shape: 24 128 28 28 (2408448)
I0403 21:53:43.407694 24610 net.cpp:156] Memory required for data: 676774944
I0403 21:53:43.407709 24610 layer_factory.hpp:77] Creating layer inception_3b/3x3_reduce
I0403 21:53:43.407732 24610 net.cpp:91] Creating Layer inception_3b/3x3_reduce
I0403 21:53:43.407750 24610 net.cpp:425] inception_3b/3x3_reduce <- inception_3a/output_inception_3a/output_0_split_1
I0403 21:53:43.407768 24610 net.cpp:399] inception_3b/3x3_reduce -> inception_3b/3x3_reduce
I0403 21:53:43.408857 24610 net.cpp:141] Setting up inception_3b/3x3_reduce
I0403 21:53:43.408885 24610 net.cpp:148] Top shape: 24 128 28 28 (2408448)
I0403 21:53:43.408900 24610 net.cpp:156] Memory required for data: 686408736
I0403 21:53:43.408918 24610 layer_factory.hpp:77] Creating layer inception_3b/relu_3x3_reduce
I0403 21:53:43.408936 24610 net.cpp:91] Creating Layer inception_3b/relu_3x3_reduce
I0403 21:53:43.408958 24610 net.cpp:425] inception_3b/relu_3x3_reduce <- inception_3b/3x3_reduce
I0403 21:53:43.408977 24610 net.cpp:386] inception_3b/relu_3x3_reduce -> inception_3b/3x3_reduce (in-place)
I0403 21:53:43.409144 24610 net.cpp:141] Setting up inception_3b/relu_3x3_reduce
I0403 21:53:43.409168 24610 net.cpp:148] Top shape: 24 128 28 28 (2408448)
I0403 21:53:43.409183 24610 net.cpp:156] Memory required for data: 696042528
I0403 21:53:43.409203 24610 layer_factory.hpp:77] Creating layer inception_3b/3x3
I0403 21:53:43.409240 24610 net.cpp:91] Creating Layer inception_3b/3x3
I0403 21:53:43.409258 24610 net.cpp:425] inception_3b/3x3 <- inception_3b/3x3_reduce
I0403 21:53:43.409279 24610 net.cpp:399] inception_3b/3x3 -> inception_3b/3x3
I0403 21:53:43.412098 24610 net.cpp:141] Setting up inception_3b/3x3
I0403 21:53:43.412127 24610 net.cpp:148] Top shape: 24 192 28 28 (3612672)
I0403 21:53:43.412142 24610 net.cpp:156] Memory required for data: 710493216
I0403 21:53:43.412161 24610 layer_factory.hpp:77] Creating layer inception_3b/relu_3x3
I0403 21:53:43.412180 24610 net.cpp:91] Creating Layer inception_3b/relu_3x3
I0403 21:53:43.412201 24610 net.cpp:425] inception_3b/relu_3x3 <- inception_3b/3x3
I0403 21:53:43.412221 24610 net.cpp:386] inception_3b/relu_3x3 -> inception_3b/3x3 (in-place)
I0403 21:53:43.412487 24610 net.cpp:141] Setting up inception_3b/relu_3x3
I0403 21:53:43.412513 24610 net.cpp:148] Top shape: 24 192 28 28 (3612672)
I0403 21:53:43.412528 24610 net.cpp:156] Memory required for data: 724943904
I0403 21:53:43.412544 24610 layer_factory.hpp:77] Creating layer inception_3b/5x5_reduce
I0403 21:53:43.412567 24610 net.cpp:91] Creating Layer inception_3b/5x5_reduce
I0403 21:53:43.412587 24610 net.cpp:425] inception_3b/5x5_reduce <- inception_3a/output_inception_3a/output_0_split_2
I0403 21:53:43.412606 24610 net.cpp:399] inception_3b/5x5_reduce -> inception_3b/5x5_reduce
I0403 21:53:43.413558 24610 net.cpp:141] Setting up inception_3b/5x5_reduce
I0403 21:53:43.413585 24610 net.cpp:148] Top shape: 24 32 28 28 (602112)
I0403 21:53:43.413600 24610 net.cpp:156] Memory required for data: 727352352
I0403 21:53:43.413617 24610 layer_factory.hpp:77] Creating layer inception_3b/relu_5x5_reduce
I0403 21:53:43.413637 24610 net.cpp:91] Creating Layer inception_3b/relu_5x5_reduce
I0403 21:53:43.413655 24610 net.cpp:425] inception_3b/relu_5x5_reduce <- inception_3b/5x5_reduce
I0403 21:53:43.413672 24610 net.cpp:386] inception_3b/relu_5x5_reduce -> inception_3b/5x5_reduce (in-place)
I0403 21:53:43.413854 24610 net.cpp:141] Setting up inception_3b/relu_5x5_reduce
I0403 21:53:43.413882 24610 net.cpp:148] Top shape: 24 32 28 28 (602112)
I0403 21:53:43.413897 24610 net.cpp:156] Memory required for data: 729760800
I0403 21:53:43.413911 24610 layer_factory.hpp:77] Creating layer inception_3b/5x5
I0403 21:53:43.413946 24610 net.cpp:91] Creating Layer inception_3b/5x5
I0403 21:53:43.413966 24610 net.cpp:425] inception_3b/5x5 <- inception_3b/5x5_reduce
I0403 21:53:43.413986 24610 net.cpp:399] inception_3b/5x5 -> inception_3b/5x5
I0403 21:53:43.415915 24610 net.cpp:141] Setting up inception_3b/5x5
I0403 21:53:43.415943 24610 net.cpp:148] Top shape: 24 96 28 28 (1806336)
I0403 21:53:43.415959 24610 net.cpp:156] Memory required for data: 736986144
I0403 21:53:43.415977 24610 layer_factory.hpp:77] Creating layer inception_3b/relu_5x5
I0403 21:53:43.415995 24610 net.cpp:91] Creating Layer inception_3b/relu_5x5
I0403 21:53:43.416012 24610 net.cpp:425] inception_3b/relu_5x5 <- inception_3b/5x5
I0403 21:53:43.416031 24610 net.cpp:386] inception_3b/relu_5x5 -> inception_3b/5x5 (in-place)
I0403 21:53:43.416219 24610 net.cpp:141] Setting up inception_3b/relu_5x5
I0403 21:53:43.416245 24610 net.cpp:148] Top shape: 24 96 28 28 (1806336)
I0403 21:53:43.416260 24610 net.cpp:156] Memory required for data: 744211488
I0403 21:53:43.416275 24610 layer_factory.hpp:77] Creating layer inception_3b/pool
I0403 21:53:43.416292 24610 net.cpp:91] Creating Layer inception_3b/pool
I0403 21:53:43.416308 24610 net.cpp:425] inception_3b/pool <- inception_3a/output_inception_3a/output_0_split_3
I0403 21:53:43.416326 24610 net.cpp:399] inception_3b/pool -> inception_3b/pool
I0403 21:53:43.416380 24610 net.cpp:141] Setting up inception_3b/pool
I0403 21:53:43.416404 24610 net.cpp:148] Top shape: 24 256 28 28 (4816896)
I0403 21:53:43.416419 24610 net.cpp:156] Memory required for data: 763479072
I0403 21:53:43.416435 24610 layer_factory.hpp:77] Creating layer inception_3b/pool_proj
I0403 21:53:43.416457 24610 net.cpp:91] Creating Layer inception_3b/pool_proj
I0403 21:53:43.416474 24610 net.cpp:425] inception_3b/pool_proj <- inception_3b/pool
I0403 21:53:43.416494 24610 net.cpp:399] inception_3b/pool_proj -> inception_3b/pool_proj
I0403 21:53:43.417547 24610 net.cpp:141] Setting up inception_3b/pool_proj
I0403 21:53:43.417577 24610 net.cpp:148] Top shape: 24 64 28 28 (1204224)
I0403 21:53:43.417593 24610 net.cpp:156] Memory required for data: 768295968
I0403 21:53:43.417611 24610 layer_factory.hpp:77] Creating layer inception_3b/relu_pool_proj
I0403 21:53:43.417629 24610 net.cpp:91] Creating Layer inception_3b/relu_pool_proj
I0403 21:53:43.417644 24610 net.cpp:425] inception_3b/relu_pool_proj <- inception_3b/pool_proj
I0403 21:53:43.417664 24610 net.cpp:386] inception_3b/relu_pool_proj -> inception_3b/pool_proj (in-place)
I0403 21:53:43.418047 24610 net.cpp:141] Setting up inception_3b/relu_pool_proj
I0403 21:53:43.418076 24610 net.cpp:148] Top shape: 24 64 28 28 (1204224)
I0403 21:53:43.418092 24610 net.cpp:156] Memory required for data: 773112864
I0403 21:53:43.418107 24610 layer_factory.hpp:77] Creating layer inception_3b/output
I0403 21:53:43.418125 24610 net.cpp:91] Creating Layer inception_3b/output
I0403 21:53:43.418140 24610 net.cpp:425] inception_3b/output <- inception_3b/1x1
I0403 21:53:43.418157 24610 net.cpp:425] inception_3b/output <- inception_3b/3x3
I0403 21:53:43.418172 24610 net.cpp:425] inception_3b/output <- inception_3b/5x5
I0403 21:53:43.418189 24610 net.cpp:425] inception_3b/output <- inception_3b/pool_proj
I0403 21:53:43.418218 24610 net.cpp:399] inception_3b/output -> inception_3b/output
I0403 21:53:43.418265 24610 net.cpp:141] Setting up inception_3b/output
I0403 21:53:43.418288 24610 net.cpp:148] Top shape: 24 480 28 28 (9031680)
I0403 21:53:43.418303 24610 net.cpp:156] Memory required for data: 809239584
I0403 21:53:43.418318 24610 layer_factory.hpp:77] Creating layer pool3/3x3_s2
I0403 21:53:43.418339 24610 net.cpp:91] Creating Layer pool3/3x3_s2
I0403 21:53:43.418356 24610 net.cpp:425] pool3/3x3_s2 <- inception_3b/output
I0403 21:53:43.418388 24610 net.cpp:399] pool3/3x3_s2 -> pool3/3x3_s2
I0403 21:53:43.418447 24610 net.cpp:141] Setting up pool3/3x3_s2
I0403 21:53:43.418472 24610 net.cpp:148] Top shape: 24 480 14 14 (2257920)
I0403 21:53:43.418485 24610 net.cpp:156] Memory required for data: 818271264
I0403 21:53:43.418500 24610 layer_factory.hpp:77] Creating layer pool3/3x3_s2_pool3/3x3_s2_0_split
I0403 21:53:43.418516 24610 net.cpp:91] Creating Layer pool3/3x3_s2_pool3/3x3_s2_0_split
I0403 21:53:43.418531 24610 net.cpp:425] pool3/3x3_s2_pool3/3x3_s2_0_split <- pool3/3x3_s2
I0403 21:53:43.418551 24610 net.cpp:399] pool3/3x3_s2_pool3/3x3_s2_0_split -> pool3/3x3_s2_pool3/3x3_s2_0_split_0
I0403 21:53:43.418570 24610 net.cpp:399] pool3/3x3_s2_pool3/3x3_s2_0_split -> pool3/3x3_s2_pool3/3x3_s2_0_split_1
I0403 21:53:43.418591 24610 net.cpp:399] pool3/3x3_s2_pool3/3x3_s2_0_split -> pool3/3x3_s2_pool3/3x3_s2_0_split_2
I0403 21:53:43.418609 24610 net.cpp:399] pool3/3x3_s2_pool3/3x3_s2_0_split -> pool3/3x3_s2_pool3/3x3_s2_0_split_3
I0403 21:53:43.418684 24610 net.cpp:141] Setting up pool3/3x3_s2_pool3/3x3_s2_0_split
I0403 21:53:43.418709 24610 net.cpp:148] Top shape: 24 480 14 14 (2257920)
I0403 21:53:43.418726 24610 net.cpp:148] Top shape: 24 480 14 14 (2257920)
I0403 21:53:43.418741 24610 net.cpp:148] Top shape: 24 480 14 14 (2257920)
I0403 21:53:43.418756 24610 net.cpp:148] Top shape: 24 480 14 14 (2257920)
I0403 21:53:43.418769 24610 net.cpp:156] Memory required for data: 854397984
I0403 21:53:43.418784 24610 layer_factory.hpp:77] Creating layer inception_4a/1x1
I0403 21:53:43.418807 24610 net.cpp:91] Creating Layer inception_4a/1x1
I0403 21:53:43.418823 24610 net.cpp:425] inception_4a/1x1 <- pool3/3x3_s2_pool3/3x3_s2_0_split_0
I0403 21:53:43.418840 24610 net.cpp:399] inception_4a/1x1 -> inception_4a/1x1
I0403 21:53:43.420368 24610 net.cpp:141] Setting up inception_4a/1x1
I0403 21:53:43.420397 24610 net.cpp:148] Top shape: 24 192 14 14 (903168)
I0403 21:53:43.420411 24610 net.cpp:156] Memory required for data: 858010656
I0403 21:53:43.420429 24610 layer_factory.hpp:77] Creating layer inception_4a/relu_1x1
I0403 21:53:43.420447 24610 net.cpp:91] Creating Layer inception_4a/relu_1x1
I0403 21:53:43.420462 24610 net.cpp:425] inception_4a/relu_1x1 <- inception_4a/1x1
I0403 21:53:43.420481 24610 net.cpp:386] inception_4a/relu_1x1 -> inception_4a/1x1 (in-place)
I0403 21:53:43.420652 24610 net.cpp:141] Setting up inception_4a/relu_1x1
I0403 21:53:43.420676 24610 net.cpp:148] Top shape: 24 192 14 14 (903168)
I0403 21:53:43.420691 24610 net.cpp:156] Memory required for data: 861623328
I0403 21:53:43.420707 24610 layer_factory.hpp:77] Creating layer inception_4a/3x3_reduce
I0403 21:53:43.420730 24610 net.cpp:91] Creating Layer inception_4a/3x3_reduce
I0403 21:53:43.420747 24610 net.cpp:425] inception_4a/3x3_reduce <- pool3/3x3_s2_pool3/3x3_s2_0_split_1
I0403 21:53:43.420771 24610 net.cpp:399] inception_4a/3x3_reduce -> inception_4a/3x3_reduce
I0403 21:53:43.422018 24610 net.cpp:141] Setting up inception_4a/3x3_reduce
I0403 21:53:43.422049 24610 net.cpp:148] Top shape: 24 96 14 14 (451584)
I0403 21:53:43.422065 24610 net.cpp:156] Memory required for data: 863429664
I0403 21:53:43.422091 24610 layer_factory.hpp:77] Creating layer inception_4a/relu_3x3_reduce
I0403 21:53:43.422111 24610 net.cpp:91] Creating Layer inception_4a/relu_3x3_reduce
I0403 21:53:43.422127 24610 net.cpp:425] inception_4a/relu_3x3_reduce <- inception_4a/3x3_reduce
I0403 21:53:43.422144 24610 net.cpp:386] inception_4a/relu_3x3_reduce -> inception_4a/3x3_reduce (in-place)
I0403 21:53:43.422330 24610 net.cpp:141] Setting up inception_4a/relu_3x3_reduce
I0403 21:53:43.422356 24610 net.cpp:148] Top shape: 24 96 14 14 (451584)
I0403 21:53:43.422371 24610 net.cpp:156] Memory required for data: 865236000
I0403 21:53:43.422386 24610 layer_factory.hpp:77] Creating layer inception_4a/3x3
I0403 21:53:43.422407 24610 net.cpp:91] Creating Layer inception_4a/3x3
I0403 21:53:43.422426 24610 net.cpp:425] inception_4a/3x3 <- inception_4a/3x3_reduce
I0403 21:53:43.422446 24610 net.cpp:399] inception_4a/3x3 -> inception_4a/3x3
I0403 21:53:43.425042 24610 net.cpp:141] Setting up inception_4a/3x3
I0403 21:53:43.425072 24610 net.cpp:148] Top shape: 24 208 14 14 (978432)
I0403 21:53:43.425088 24610 net.cpp:156] Memory required for data: 869149728
I0403 21:53:43.425107 24610 layer_factory.hpp:77] Creating layer inception_4a/relu_3x3
I0403 21:53:43.425127 24610 net.cpp:91] Creating Layer inception_4a/relu_3x3
I0403 21:53:43.425144 24610 net.cpp:425] inception_4a/relu_3x3 <- inception_4a/3x3
I0403 21:53:43.425161 24610 net.cpp:386] inception_4a/relu_3x3 -> inception_4a/3x3 (in-place)
I0403 21:53:43.425439 24610 net.cpp:141] Setting up inception_4a/relu_3x3
I0403 21:53:43.425465 24610 net.cpp:148] Top shape: 24 208 14 14 (978432)
I0403 21:53:43.425480 24610 net.cpp:156] Memory required for data: 873063456
I0403 21:53:43.425494 24610 layer_factory.hpp:77] Creating layer inception_4a/5x5_reduce
I0403 21:53:43.425516 24610 net.cpp:91] Creating Layer inception_4a/5x5_reduce
I0403 21:53:43.425535 24610 net.cpp:425] inception_4a/5x5_reduce <- pool3/3x3_s2_pool3/3x3_s2_0_split_2
I0403 21:53:43.425556 24610 net.cpp:399] inception_4a/5x5_reduce -> inception_4a/5x5_reduce
I0403 21:53:43.426539 24610 net.cpp:141] Setting up inception_4a/5x5_reduce
I0403 21:53:43.426566 24610 net.cpp:148] Top shape: 24 16 14 14 (75264)
I0403 21:53:43.426581 24610 net.cpp:156] Memory required for data: 873364512
I0403 21:53:43.426599 24610 layer_factory.hpp:77] Creating layer inception_4a/relu_5x5_reduce
I0403 21:53:43.426620 24610 net.cpp:91] Creating Layer inception_4a/relu_5x5_reduce
I0403 21:53:43.426635 24610 net.cpp:425] inception_4a/relu_5x5_reduce <- inception_4a/5x5_reduce
I0403 21:53:43.426653 24610 net.cpp:386] inception_4a/relu_5x5_reduce -> inception_4a/5x5_reduce (in-place)
I0403 21:53:43.426820 24610 net.cpp:141] Setting up inception_4a/relu_5x5_reduce
I0403 21:53:43.426847 24610 net.cpp:148] Top shape: 24 16 14 14 (75264)
I0403 21:53:43.426862 24610 net.cpp:156] Memory required for data: 873665568
I0403 21:53:43.426877 24610 layer_factory.hpp:77] Creating layer inception_4a/5x5
I0403 21:53:43.426898 24610 net.cpp:91] Creating Layer inception_4a/5x5
I0403 21:53:43.426916 24610 net.cpp:425] inception_4a/5x5 <- inception_4a/5x5_reduce
I0403 21:53:43.426936 24610 net.cpp:399] inception_4a/5x5 -> inception_4a/5x5
I0403 21:53:43.427976 24610 net.cpp:141] Setting up inception_4a/5x5
I0403 21:53:43.428005 24610 net.cpp:148] Top shape: 24 48 14 14 (225792)
I0403 21:53:43.428022 24610 net.cpp:156] Memory required for data: 874568736
I0403 21:53:43.428040 24610 layer_factory.hpp:77] Creating layer inception_4a/relu_5x5
I0403 21:53:43.428058 24610 net.cpp:91] Creating Layer inception_4a/relu_5x5
I0403 21:53:43.428074 24610 net.cpp:425] inception_4a/relu_5x5 <- inception_4a/5x5
I0403 21:53:43.428093 24610 net.cpp:386] inception_4a/relu_5x5 -> inception_4a/5x5 (in-place)
I0403 21:53:43.428275 24610 net.cpp:141] Setting up inception_4a/relu_5x5
I0403 21:53:43.428300 24610 net.cpp:148] Top shape: 24 48 14 14 (225792)
I0403 21:53:43.428315 24610 net.cpp:156] Memory required for data: 875471904
I0403 21:53:43.428329 24610 layer_factory.hpp:77] Creating layer inception_4a/pool
I0403 21:53:43.428347 24610 net.cpp:91] Creating Layer inception_4a/pool
I0403 21:53:43.428362 24610 net.cpp:425] inception_4a/pool <- pool3/3x3_s2_pool3/3x3_s2_0_split_3
I0403 21:53:43.428382 24610 net.cpp:399] inception_4a/pool -> inception_4a/pool
I0403 21:53:43.428441 24610 net.cpp:141] Setting up inception_4a/pool
I0403 21:53:43.428464 24610 net.cpp:148] Top shape: 24 480 14 14 (2257920)
I0403 21:53:43.428478 24610 net.cpp:156] Memory required for data: 884503584
I0403 21:53:43.428494 24610 layer_factory.hpp:77] Creating layer inception_4a/pool_proj
I0403 21:53:43.428517 24610 net.cpp:91] Creating Layer inception_4a/pool_proj
I0403 21:53:43.428534 24610 net.cpp:425] inception_4a/pool_proj <- inception_4a/pool
I0403 21:53:43.428552 24610 net.cpp:399] inception_4a/pool_proj -> inception_4a/pool_proj
I0403 21:53:43.429662 24610 net.cpp:141] Setting up inception_4a/pool_proj
I0403 21:53:43.429693 24610 net.cpp:148] Top shape: 24 64 14 14 (301056)
I0403 21:53:43.429723 24610 net.cpp:156] Memory required for data: 885707808
I0403 21:53:43.429744 24610 layer_factory.hpp:77] Creating layer inception_4a/relu_pool_proj
I0403 21:53:43.429761 24610 net.cpp:91] Creating Layer inception_4a/relu_pool_proj
I0403 21:53:43.429777 24610 net.cpp:425] inception_4a/relu_pool_proj <- inception_4a/pool_proj
I0403 21:53:43.429797 24610 net.cpp:386] inception_4a/relu_pool_proj -> inception_4a/pool_proj (in-place)
I0403 21:53:43.430066 24610 net.cpp:141] Setting up inception_4a/relu_pool_proj
I0403 21:53:43.430094 24610 net.cpp:148] Top shape: 24 64 14 14 (301056)
I0403 21:53:43.430111 24610 net.cpp:156] Memory required for data: 886912032
I0403 21:53:43.430126 24610 layer_factory.hpp:77] Creating layer inception_4a/output
I0403 21:53:43.430142 24610 net.cpp:91] Creating Layer inception_4a/output
I0403 21:53:43.430157 24610 net.cpp:425] inception_4a/output <- inception_4a/1x1
I0403 21:53:43.430173 24610 net.cpp:425] inception_4a/output <- inception_4a/3x3
I0403 21:53:43.430189 24610 net.cpp:425] inception_4a/output <- inception_4a/5x5
I0403 21:53:43.430210 24610 net.cpp:425] inception_4a/output <- inception_4a/pool_proj
I0403 21:53:43.430230 24610 net.cpp:399] inception_4a/output -> inception_4a/output
I0403 21:53:43.430274 24610 net.cpp:141] Setting up inception_4a/output
I0403 21:53:43.430296 24610 net.cpp:148] Top shape: 24 512 14 14 (2408448)
I0403 21:53:43.430311 24610 net.cpp:156] Memory required for data: 896545824
I0403 21:53:43.430325 24610 layer_factory.hpp:77] Creating layer inception_4a/output_inception_4a/output_0_split
I0403 21:53:43.430346 24610 net.cpp:91] Creating Layer inception_4a/output_inception_4a/output_0_split
I0403 21:53:43.430362 24610 net.cpp:425] inception_4a/output_inception_4a/output_0_split <- inception_4a/output
I0403 21:53:43.430379 24610 net.cpp:399] inception_4a/output_inception_4a/output_0_split -> inception_4a/output_inception_4a/output_0_split_0
I0403 21:53:43.430400 24610 net.cpp:399] inception_4a/output_inception_4a/output_0_split -> inception_4a/output_inception_4a/output_0_split_1
I0403 21:53:43.430423 24610 net.cpp:399] inception_4a/output_inception_4a/output_0_split -> inception_4a/output_inception_4a/output_0_split_2
I0403 21:53:43.430444 24610 net.cpp:399] inception_4a/output_inception_4a/output_0_split -> inception_4a/output_inception_4a/output_0_split_3
I0403 21:53:43.430464 24610 net.cpp:399] inception_4a/output_inception_4a/output_0_split -> inception_4a/output_inception_4a/output_0_split_4
I0403 21:53:43.430554 24610 net.cpp:141] Setting up inception_4a/output_inception_4a/output_0_split
I0403 21:53:43.430578 24610 net.cpp:148] Top shape: 24 512 14 14 (2408448)
I0403 21:53:43.430593 24610 net.cpp:148] Top shape: 24 512 14 14 (2408448)
I0403 21:53:43.430608 24610 net.cpp:148] Top shape: 24 512 14 14 (2408448)
I0403 21:53:43.430624 24610 net.cpp:148] Top shape: 24 512 14 14 (2408448)
I0403 21:53:43.430639 24610 net.cpp:148] Top shape: 24 512 14 14 (2408448)
I0403 21:53:43.430651 24610 net.cpp:156] Memory required for data: 944714784
I0403 21:53:43.430666 24610 layer_factory.hpp:77] Creating layer loss1/ave_pool
I0403 21:53:43.430685 24610 net.cpp:91] Creating Layer loss1/ave_pool
I0403 21:53:43.430702 24610 net.cpp:425] loss1/ave_pool <- inception_4a/output_inception_4a/output_0_split_0
I0403 21:53:43.430719 24610 net.cpp:399] loss1/ave_pool -> loss1/ave_pool
I0403 21:53:43.430914 24610 net.cpp:141] Setting up loss1/ave_pool
I0403 21:53:43.430943 24610 net.cpp:148] Top shape: 24 512 4 4 (196608)
I0403 21:53:43.430961 24610 net.cpp:156] Memory required for data: 945501216
I0403 21:53:43.430975 24610 layer_factory.hpp:77] Creating layer loss1/conv
I0403 21:53:43.430996 24610 net.cpp:91] Creating Layer loss1/conv
I0403 21:53:43.431012 24610 net.cpp:425] loss1/conv <- loss1/ave_pool
I0403 21:53:43.431031 24610 net.cpp:399] loss1/conv -> loss1/conv
I0403 21:53:43.432382 24610 net.cpp:141] Setting up loss1/conv
I0403 21:53:43.432411 24610 net.cpp:148] Top shape: 24 128 4 4 (49152)
I0403 21:53:43.432440 24610 net.cpp:156] Memory required for data: 945697824
I0403 21:53:43.432459 24610 layer_factory.hpp:77] Creating layer loss1/relu_conv
I0403 21:53:43.432479 24610 net.cpp:91] Creating Layer loss1/relu_conv
I0403 21:53:43.432497 24610 net.cpp:425] loss1/relu_conv <- loss1/conv
I0403 21:53:43.432514 24610 net.cpp:386] loss1/relu_conv -> loss1/conv (in-place)
I0403 21:53:43.432782 24610 net.cpp:141] Setting up loss1/relu_conv
I0403 21:53:43.432808 24610 net.cpp:148] Top shape: 24 128 4 4 (49152)
I0403 21:53:43.432822 24610 net.cpp:156] Memory required for data: 945894432
I0403 21:53:43.432837 24610 layer_factory.hpp:77] Creating layer loss1/fc
I0403 21:53:43.432862 24610 net.cpp:91] Creating Layer loss1/fc
I0403 21:53:43.432881 24610 net.cpp:425] loss1/fc <- loss1/conv
I0403 21:53:43.432899 24610 net.cpp:399] loss1/fc -> loss1/fc
I0403 21:53:43.450275 24610 net.cpp:141] Setting up loss1/fc
I0403 21:53:43.450311 24610 net.cpp:148] Top shape: 24 1024 (24576)
I0403 21:53:43.450327 24610 net.cpp:156] Memory required for data: 945992736
I0403 21:53:43.450345 24610 layer_factory.hpp:77] Creating layer loss1/relu_fc
I0403 21:53:43.450363 24610 net.cpp:91] Creating Layer loss1/relu_fc
I0403 21:53:43.450381 24610 net.cpp:425] loss1/relu_fc <- loss1/fc
I0403 21:53:43.450402 24610 net.cpp:386] loss1/relu_fc -> loss1/fc (in-place)
I0403 21:53:43.450582 24610 net.cpp:141] Setting up loss1/relu_fc
I0403 21:53:43.450606 24610 net.cpp:148] Top shape: 24 1024 (24576)
I0403 21:53:43.450621 24610 net.cpp:156] Memory required for data: 946091040
I0403 21:53:43.450636 24610 layer_factory.hpp:77] Creating layer loss1/drop_fc
I0403 21:53:43.450661 24610 net.cpp:91] Creating Layer loss1/drop_fc
I0403 21:53:43.450680 24610 net.cpp:425] loss1/drop_fc <- loss1/fc
I0403 21:53:43.450700 24610 net.cpp:386] loss1/drop_fc -> loss1/fc (in-place)
I0403 21:53:43.450749 24610 net.cpp:141] Setting up loss1/drop_fc
I0403 21:53:43.450774 24610 net.cpp:148] Top shape: 24 1024 (24576)
I0403 21:53:43.450789 24610 net.cpp:156] Memory required for data: 946189344
I0403 21:53:43.450805 24610 layer_factory.hpp:77] Creating layer loss1/classifier_plantvillage
I0403 21:53:43.450824 24610 net.cpp:91] Creating Layer loss1/classifier_plantvillage
I0403 21:53:43.450839 24610 net.cpp:425] loss1/classifier_plantvillage <- loss1/fc
I0403 21:53:43.450860 24610 net.cpp:399] loss1/classifier_plantvillage -> loss1/classifier_plantvillage
I0403 21:53:43.451771 24610 net.cpp:141] Setting up loss1/classifier_plantvillage
I0403 21:53:43.451798 24610 net.cpp:148] Top shape: 24 38 (912)
I0403 21:53:43.451813 24610 net.cpp:156] Memory required for data: 946192992
I0403 21:53:43.451831 24610 layer_factory.hpp:77] Creating layer loss1/classifier_plantvillage_loss1/classifier_plantvillage_0_split
I0403 21:53:43.451849 24610 net.cpp:91] Creating Layer loss1/classifier_plantvillage_loss1/classifier_plantvillage_0_split
I0403 21:53:43.451864 24610 net.cpp:425] loss1/classifier_plantvillage_loss1/classifier_plantvillage_0_split <- loss1/classifier_plantvillage
I0403 21:53:43.451884 24610 net.cpp:399] loss1/classifier_plantvillage_loss1/classifier_plantvillage_0_split -> loss1/classifier_plantvillage_loss1/classifier_plantvillage_0_split_0
I0403 21:53:43.451903 24610 net.cpp:399] loss1/classifier_plantvillage_loss1/classifier_plantvillage_0_split -> loss1/classifier_plantvillage_loss1/classifier_plantvillage_0_split_1
I0403 21:53:43.451923 24610 net.cpp:399] loss1/classifier_plantvillage_loss1/classifier_plantvillage_0_split -> loss1/classifier_plantvillage_loss1/classifier_plantvillage_0_split_2
I0403 21:53:43.451990 24610 net.cpp:141] Setting up loss1/classifier_plantvillage_loss1/classifier_plantvillage_0_split
I0403 21:53:43.452014 24610 net.cpp:148] Top shape: 24 38 (912)
I0403 21:53:43.452029 24610 net.cpp:148] Top shape: 24 38 (912)
I0403 21:53:43.452044 24610 net.cpp:148] Top shape: 24 38 (912)
I0403 21:53:43.452059 24610 net.cpp:156] Memory required for data: 946203936
I0403 21:53:43.452074 24610 layer_factory.hpp:77] Creating layer inception_4b/1x1
I0403 21:53:43.452095 24610 net.cpp:91] Creating Layer inception_4b/1x1
I0403 21:53:43.452126 24610 net.cpp:425] inception_4b/1x1 <- inception_4a/output_inception_4a/output_0_split_1
I0403 21:53:43.452147 24610 net.cpp:399] inception_4b/1x1 -> inception_4b/1x1
I0403 21:53:43.453768 24610 net.cpp:141] Setting up inception_4b/1x1
I0403 21:53:43.453795 24610 net.cpp:148] Top shape: 24 160 14 14 (752640)
I0403 21:53:43.453810 24610 net.cpp:156] Memory required for data: 949214496
I0403 21:53:43.453829 24610 layer_factory.hpp:77] Creating layer inception_4b/relu_1x1
I0403 21:53:43.453850 24610 net.cpp:91] Creating Layer inception_4b/relu_1x1
I0403 21:53:43.453866 24610 net.cpp:425] inception_4b/relu_1x1 <- inception_4b/1x1
I0403 21:53:43.453884 24610 net.cpp:386] inception_4b/relu_1x1 -> inception_4b/1x1 (in-place)
I0403 21:53:43.454054 24610 net.cpp:141] Setting up inception_4b/relu_1x1
I0403 21:53:43.454084 24610 net.cpp:148] Top shape: 24 160 14 14 (752640)
I0403 21:53:43.454099 24610 net.cpp:156] Memory required for data: 952225056
I0403 21:53:43.454114 24610 layer_factory.hpp:77] Creating layer inception_4b/3x3_reduce
I0403 21:53:43.454135 24610 net.cpp:91] Creating Layer inception_4b/3x3_reduce
I0403 21:53:43.454154 24610 net.cpp:425] inception_4b/3x3_reduce <- inception_4a/output_inception_4a/output_0_split_2
I0403 21:53:43.454171 24610 net.cpp:399] inception_4b/3x3_reduce -> inception_4b/3x3_reduce
I0403 21:53:43.455473 24610 net.cpp:141] Setting up inception_4b/3x3_reduce
I0403 21:53:43.455504 24610 net.cpp:148] Top shape: 24 112 14 14 (526848)
I0403 21:53:43.455520 24610 net.cpp:156] Memory required for data: 954332448
I0403 21:53:43.455539 24610 layer_factory.hpp:77] Creating layer inception_4b/relu_3x3_reduce
I0403 21:53:43.455556 24610 net.cpp:91] Creating Layer inception_4b/relu_3x3_reduce
I0403 21:53:43.455571 24610 net.cpp:425] inception_4b/relu_3x3_reduce <- inception_4b/3x3_reduce
I0403 21:53:43.455588 24610 net.cpp:386] inception_4b/relu_3x3_reduce -> inception_4b/3x3_reduce (in-place)
I0403 21:53:43.455857 24610 net.cpp:141] Setting up inception_4b/relu_3x3_reduce
I0403 21:53:43.455884 24610 net.cpp:148] Top shape: 24 112 14 14 (526848)
I0403 21:53:43.455900 24610 net.cpp:156] Memory required for data: 956439840
I0403 21:53:43.455916 24610 layer_factory.hpp:77] Creating layer inception_4b/3x3
I0403 21:53:43.455936 24610 net.cpp:91] Creating Layer inception_4b/3x3
I0403 21:53:43.455955 24610 net.cpp:425] inception_4b/3x3 <- inception_4b/3x3_reduce
I0403 21:53:43.455976 24610 net.cpp:399] inception_4b/3x3 -> inception_4b/3x3
I0403 21:53:43.458887 24610 net.cpp:141] Setting up inception_4b/3x3
I0403 21:53:43.458916 24610 net.cpp:148] Top shape: 24 224 14 14 (1053696)
I0403 21:53:43.458932 24610 net.cpp:156] Memory required for data: 960654624
I0403 21:53:43.458951 24610 layer_factory.hpp:77] Creating layer inception_4b/relu_3x3
I0403 21:53:43.458969 24610 net.cpp:91] Creating Layer inception_4b/relu_3x3
I0403 21:53:43.458984 24610 net.cpp:425] inception_4b/relu_3x3 <- inception_4b/3x3
I0403 21:53:43.459003 24610 net.cpp:386] inception_4b/relu_3x3 -> inception_4b/3x3 (in-place)
I0403 21:53:43.459179 24610 net.cpp:141] Setting up inception_4b/relu_3x3
I0403 21:53:43.459208 24610 net.cpp:148] Top shape: 24 224 14 14 (1053696)
I0403 21:53:43.459224 24610 net.cpp:156] Memory required for data: 964869408
I0403 21:53:43.459239 24610 layer_factory.hpp:77] Creating layer inception_4b/5x5_reduce
I0403 21:53:43.459260 24610 net.cpp:91] Creating Layer inception_4b/5x5_reduce
I0403 21:53:43.459278 24610 net.cpp:425] inception_4b/5x5_reduce <- inception_4a/output_inception_4a/output_0_split_3
I0403 21:53:43.459300 24610 net.cpp:399] inception_4b/5x5_reduce -> inception_4b/5x5_reduce
I0403 21:53:43.460340 24610 net.cpp:141] Setting up inception_4b/5x5_reduce
I0403 21:53:43.460368 24610 net.cpp:148] Top shape: 24 24 14 14 (112896)
I0403 21:53:43.460384 24610 net.cpp:156] Memory required for data: 965320992
I0403 21:53:43.460402 24610 layer_factory.hpp:77] Creating layer inception_4b/relu_5x5_reduce
I0403 21:53:43.460422 24610 net.cpp:91] Creating Layer inception_4b/relu_5x5_reduce
I0403 21:53:43.460451 24610 net.cpp:425] inception_4b/relu_5x5_reduce <- inception_4b/5x5_reduce
I0403 21:53:43.460470 24610 net.cpp:386] inception_4b/relu_5x5_reduce -> inception_4b/5x5_reduce (in-place)
I0403 21:53:43.460645 24610 net.cpp:141] Setting up inception_4b/relu_5x5_reduce
I0403 21:53:43.460672 24610 net.cpp:148] Top shape: 24 24 14 14 (112896)
I0403 21:53:43.460687 24610 net.cpp:156] Memory required for data: 965772576
I0403 21:53:43.460703 24610 layer_factory.hpp:77] Creating layer inception_4b/5x5
I0403 21:53:43.460726 24610 net.cpp:91] Creating Layer inception_4b/5x5
I0403 21:53:43.460742 24610 net.cpp:425] inception_4b/5x5 <- inception_4b/5x5_reduce
I0403 21:53:43.460762 24610 net.cpp:399] inception_4b/5x5 -> inception_4b/5x5
I0403 21:53:43.461951 24610 net.cpp:141] Setting up inception_4b/5x5
I0403 21:53:43.461978 24610 net.cpp:148] Top shape: 24 64 14 14 (301056)
I0403 21:53:43.461994 24610 net.cpp:156] Memory required for data: 966976800
I0403 21:53:43.462012 24610 layer_factory.hpp:77] Creating layer inception_4b/relu_5x5
I0403 21:53:43.462031 24610 net.cpp:91] Creating Layer inception_4b/relu_5x5
I0403 21:53:43.462049 24610 net.cpp:425] inception_4b/relu_5x5 <- inception_4b/5x5
I0403 21:53:43.462065 24610 net.cpp:386] inception_4b/relu_5x5 -> inception_4b/5x5 (in-place)
I0403 21:53:43.462347 24610 net.cpp:141] Setting up inception_4b/relu_5x5
I0403 21:53:43.462373 24610 net.cpp:148] Top shape: 24 64 14 14 (301056)
I0403 21:53:43.462388 24610 net.cpp:156] Memory required for data: 968181024
I0403 21:53:43.462401 24610 layer_factory.hpp:77] Creating layer inception_4b/pool
I0403 21:53:43.462424 24610 net.cpp:91] Creating Layer inception_4b/pool
I0403 21:53:43.462440 24610 net.cpp:425] inception_4b/pool <- inception_4a/output_inception_4a/output_0_split_4
I0403 21:53:43.462460 24610 net.cpp:399] inception_4b/pool -> inception_4b/pool
I0403 21:53:43.462537 24610 net.cpp:141] Setting up inception_4b/pool
I0403 21:53:43.462559 24610 net.cpp:148] Top shape: 24 512 14 14 (2408448)
I0403 21:53:43.462574 24610 net.cpp:156] Memory required for data: 977814816
I0403 21:53:43.462589 24610 layer_factory.hpp:77] Creating layer inception_4b/pool_proj
I0403 21:53:43.462611 24610 net.cpp:91] Creating Layer inception_4b/pool_proj
I0403 21:53:43.462628 24610 net.cpp:425] inception_4b/pool_proj <- inception_4b/pool
I0403 21:53:43.462648 24610 net.cpp:399] inception_4b/pool_proj -> inception_4b/pool_proj
I0403 21:53:43.463814 24610 net.cpp:141] Setting up inception_4b/pool_proj
I0403 21:53:43.463840 24610 net.cpp:148] Top shape: 24 64 14 14 (301056)
I0403 21:53:43.463856 24610 net.cpp:156] Memory required for data: 979019040
I0403 21:53:43.463873 24610 layer_factory.hpp:77] Creating layer inception_4b/relu_pool_proj
I0403 21:53:43.463893 24610 net.cpp:91] Creating Layer inception_4b/relu_pool_proj
I0403 21:53:43.463909 24610 net.cpp:425] inception_4b/relu_pool_proj <- inception_4b/pool_proj
I0403 21:53:43.463925 24610 net.cpp:386] inception_4b/relu_pool_proj -> inception_4b/pool_proj (in-place)
I0403 21:53:43.464097 24610 net.cpp:141] Setting up inception_4b/relu_pool_proj
I0403 21:53:43.464123 24610 net.cpp:148] Top shape: 24 64 14 14 (301056)
I0403 21:53:43.464138 24610 net.cpp:156] Memory required for data: 980223264
I0403 21:53:43.464153 24610 layer_factory.hpp:77] Creating layer inception_4b/output
I0403 21:53:43.464169 24610 net.cpp:91] Creating Layer inception_4b/output
I0403 21:53:43.464184 24610 net.cpp:425] inception_4b/output <- inception_4b/1x1
I0403 21:53:43.464205 24610 net.cpp:425] inception_4b/output <- inception_4b/3x3
I0403 21:53:43.464231 24610 net.cpp:425] inception_4b/output <- inception_4b/5x5
I0403 21:53:43.464257 24610 net.cpp:425] inception_4b/output <- inception_4b/pool_proj
I0403 21:53:43.464274 24610 net.cpp:399] inception_4b/output -> inception_4b/output
I0403 21:53:43.464320 24610 net.cpp:141] Setting up inception_4b/output
I0403 21:53:43.464344 24610 net.cpp:148] Top shape: 24 512 14 14 (2408448)
I0403 21:53:43.464359 24610 net.cpp:156] Memory required for data: 989857056
I0403 21:53:43.464387 24610 layer_factory.hpp:77] Creating layer inception_4b/output_inception_4b/output_0_split
I0403 21:53:43.464407 24610 net.cpp:91] Creating Layer inception_4b/output_inception_4b/output_0_split
I0403 21:53:43.464423 24610 net.cpp:425] inception_4b/output_inception_4b/output_0_split <- inception_4b/output
I0403 21:53:43.464440 24610 net.cpp:399] inception_4b/output_inception_4b/output_0_split -> inception_4b/output_inception_4b/output_0_split_0
I0403 21:53:43.464460 24610 net.cpp:399] inception_4b/output_inception_4b/output_0_split -> inception_4b/output_inception_4b/output_0_split_1
I0403 21:53:43.464479 24610 net.cpp:399] inception_4b/output_inception_4b/output_0_split -> inception_4b/output_inception_4b/output_0_split_2
I0403 21:53:43.464500 24610 net.cpp:399] inception_4b/output_inception_4b/output_0_split -> inception_4b/output_inception_4b/output_0_split_3
I0403 21:53:43.464596 24610 net.cpp:141] Setting up inception_4b/output_inception_4b/output_0_split
I0403 21:53:43.464618 24610 net.cpp:148] Top shape: 24 512 14 14 (2408448)
I0403 21:53:43.464634 24610 net.cpp:148] Top shape: 24 512 14 14 (2408448)
I0403 21:53:43.464649 24610 net.cpp:148] Top shape: 24 512 14 14 (2408448)
I0403 21:53:43.464664 24610 net.cpp:148] Top shape: 24 512 14 14 (2408448)
I0403 21:53:43.464678 24610 net.cpp:156] Memory required for data: 1028392224
I0403 21:53:43.464691 24610 layer_factory.hpp:77] Creating layer inception_4c/1x1
I0403 21:53:43.464712 24610 net.cpp:91] Creating Layer inception_4c/1x1
I0403 21:53:43.464730 24610 net.cpp:425] inception_4c/1x1 <- inception_4b/output_inception_4b/output_0_split_0
I0403 21:53:43.464748 24610 net.cpp:399] inception_4c/1x1 -> inception_4c/1x1
I0403 21:53:43.466137 24610 net.cpp:141] Setting up inception_4c/1x1
I0403 21:53:43.466166 24610 net.cpp:148] Top shape: 24 128 14 14 (602112)
I0403 21:53:43.466181 24610 net.cpp:156] Memory required for data: 1030800672
I0403 21:53:43.466203 24610 layer_factory.hpp:77] Creating layer inception_4c/relu_1x1
I0403 21:53:43.466223 24610 net.cpp:91] Creating Layer inception_4c/relu_1x1
I0403 21:53:43.466238 24610 net.cpp:425] inception_4c/relu_1x1 <- inception_4c/1x1
I0403 21:53:43.466256 24610 net.cpp:386] inception_4c/relu_1x1 -> inception_4c/1x1 (in-place)
I0403 21:53:43.466431 24610 net.cpp:141] Setting up inception_4c/relu_1x1
I0403 21:53:43.466455 24610 net.cpp:148] Top shape: 24 128 14 14 (602112)
I0403 21:53:43.466469 24610 net.cpp:156] Memory required for data: 1033209120
I0403 21:53:43.466483 24610 layer_factory.hpp:77] Creating layer inception_4c/3x3_reduce
I0403 21:53:43.466505 24610 net.cpp:91] Creating Layer inception_4c/3x3_reduce
I0403 21:53:43.466521 24610 net.cpp:425] inception_4c/3x3_reduce <- inception_4b/output_inception_4b/output_0_split_1
I0403 21:53:43.466543 24610 net.cpp:399] inception_4c/3x3_reduce -> inception_4c/3x3_reduce
I0403 21:53:43.468454 24610 net.cpp:141] Setting up inception_4c/3x3_reduce
I0403 21:53:43.468482 24610 net.cpp:148] Top shape: 24 128 14 14 (602112)
I0403 21:53:43.468497 24610 net.cpp:156] Memory required for data: 1035617568
I0403 21:53:43.468515 24610 layer_factory.hpp:77] Creating layer inception_4c/relu_3x3_reduce
I0403 21:53:43.468535 24610 net.cpp:91] Creating Layer inception_4c/relu_3x3_reduce
I0403 21:53:43.468551 24610 net.cpp:425] inception_4c/relu_3x3_reduce <- inception_4c/3x3_reduce
I0403 21:53:43.468569 24610 net.cpp:386] inception_4c/relu_3x3_reduce -> inception_4c/3x3_reduce (in-place)
I0403 21:53:43.468844 24610 net.cpp:141] Setting up inception_4c/relu_3x3_reduce
I0403 21:53:43.468869 24610 net.cpp:148] Top shape: 24 128 14 14 (602112)
I0403 21:53:43.468884 24610 net.cpp:156] Memory required for data: 1038026016
I0403 21:53:43.468899 24610 layer_factory.hpp:77] Creating layer inception_4c/3x3
I0403 21:53:43.468921 24610 net.cpp:91] Creating Layer inception_4c/3x3
I0403 21:53:43.468938 24610 net.cpp:425] inception_4c/3x3 <- inception_4c/3x3_reduce
I0403 21:53:43.468960 24610 net.cpp:399] inception_4c/3x3 -> inception_4c/3x3
I0403 21:53:43.472483 24610 net.cpp:141] Setting up inception_4c/3x3
I0403 21:53:43.472522 24610 net.cpp:148] Top shape: 24 256 14 14 (1204224)
I0403 21:53:43.472538 24610 net.cpp:156] Memory required for data: 1042842912
I0403 21:53:43.472568 24610 layer_factory.hpp:77] Creating layer inception_4c/relu_3x3
I0403 21:53:43.472590 24610 net.cpp:91] Creating Layer inception_4c/relu_3x3
I0403 21:53:43.472606 24610 net.cpp:425] inception_4c/relu_3x3 <- inception_4c/3x3
I0403 21:53:43.472623 24610 net.cpp:386] inception_4c/relu_3x3 -> inception_4c/3x3 (in-place)
I0403 21:53:43.472800 24610 net.cpp:141] Setting up inception_4c/relu_3x3
I0403 21:53:43.472823 24610 net.cpp:148] Top shape: 24 256 14 14 (1204224)
I0403 21:53:43.472836 24610 net.cpp:156] Memory required for data: 1047659808
I0403 21:53:43.472851 24610 layer_factory.hpp:77] Creating layer inception_4c/5x5_reduce
I0403 21:53:43.472875 24610 net.cpp:91] Creating Layer inception_4c/5x5_reduce
I0403 21:53:43.472892 24610 net.cpp:425] inception_4c/5x5_reduce <- inception_4b/output_inception_4b/output_0_split_2
I0403 21:53:43.472913 24610 net.cpp:399] inception_4c/5x5_reduce -> inception_4c/5x5_reduce
I0403 21:53:43.473964 24610 net.cpp:141] Setting up inception_4c/5x5_reduce
I0403 21:53:43.473991 24610 net.cpp:148] Top shape: 24 24 14 14 (112896)
I0403 21:53:43.474006 24610 net.cpp:156] Memory required for data: 1048111392
I0403 21:53:43.474025 24610 layer_factory.hpp:77] Creating layer inception_4c/relu_5x5_reduce
I0403 21:53:43.474043 24610 net.cpp:91] Creating Layer inception_4c/relu_5x5_reduce
I0403 21:53:43.474061 24610 net.cpp:425] inception_4c/relu_5x5_reduce <- inception_4c/5x5_reduce
I0403 21:53:43.474077 24610 net.cpp:386] inception_4c/relu_5x5_reduce -> inception_4c/5x5_reduce (in-place)
I0403 21:53:43.474258 24610 net.cpp:141] Setting up inception_4c/relu_5x5_reduce
I0403 21:53:43.474284 24610 net.cpp:148] Top shape: 24 24 14 14 (112896)
I0403 21:53:43.474299 24610 net.cpp:156] Memory required for data: 1048562976
I0403 21:53:43.474313 24610 layer_factory.hpp:77] Creating layer inception_4c/5x5
I0403 21:53:43.474335 24610 net.cpp:91] Creating Layer inception_4c/5x5
I0403 21:53:43.474354 24610 net.cpp:425] inception_4c/5x5 <- inception_4c/5x5_reduce
I0403 21:53:43.474371 24610 net.cpp:399] inception_4c/5x5 -> inception_4c/5x5
I0403 21:53:43.475565 24610 net.cpp:141] Setting up inception_4c/5x5
I0403 21:53:43.475594 24610 net.cpp:148] Top shape: 24 64 14 14 (301056)
I0403 21:53:43.475608 24610 net.cpp:156] Memory required for data: 1049767200
I0403 21:53:43.475626 24610 layer_factory.hpp:77] Creating layer inception_4c/relu_5x5
I0403 21:53:43.475644 24610 net.cpp:91] Creating Layer inception_4c/relu_5x5
I0403 21:53:43.475661 24610 net.cpp:425] inception_4c/relu_5x5 <- inception_4c/5x5
I0403 21:53:43.475678 24610 net.cpp:386] inception_4c/relu_5x5 -> inception_4c/5x5 (in-place)
I0403 21:53:43.475955 24610 net.cpp:141] Setting up inception_4c/relu_5x5
I0403 21:53:43.475983 24610 net.cpp:148] Top shape: 24 64 14 14 (301056)
I0403 21:53:43.475998 24610 net.cpp:156] Memory required for data: 1050971424
I0403 21:53:43.476012 24610 layer_factory.hpp:77] Creating layer inception_4c/pool
I0403 21:53:43.476030 24610 net.cpp:91] Creating Layer inception_4c/pool
I0403 21:53:43.476045 24610 net.cpp:425] inception_4c/pool <- inception_4b/output_inception_4b/output_0_split_3
I0403 21:53:43.476064 24610 net.cpp:399] inception_4c/pool -> inception_4c/pool
I0403 21:53:43.476128 24610 net.cpp:141] Setting up inception_4c/pool
I0403 21:53:43.476151 24610 net.cpp:148] Top shape: 24 512 14 14 (2408448)
I0403 21:53:43.476166 24610 net.cpp:156] Memory required for data: 1060605216
I0403 21:53:43.476181 24610 layer_factory.hpp:77] Creating layer inception_4c/pool_proj
I0403 21:53:43.476208 24610 net.cpp:91] Creating Layer inception_4c/pool_proj
I0403 21:53:43.476227 24610 net.cpp:425] inception_4c/pool_proj <- inception_4c/pool
I0403 21:53:43.476246 24610 net.cpp:399] inception_4c/pool_proj -> inception_4c/pool_proj
I0403 21:53:43.477428 24610 net.cpp:141] Setting up inception_4c/pool_proj
I0403 21:53:43.477455 24610 net.cpp:148] Top shape: 24 64 14 14 (301056)
I0403 21:53:43.477483 24610 net.cpp:156] Memory required for data: 1061809440
I0403 21:53:43.477502 24610 layer_factory.hpp:77] Creating layer inception_4c/relu_pool_proj
I0403 21:53:43.477521 24610 net.cpp:91] Creating Layer inception_4c/relu_pool_proj
I0403 21:53:43.477538 24610 net.cpp:425] inception_4c/relu_pool_proj <- inception_4c/pool_proj
I0403 21:53:43.477555 24610 net.cpp:386] inception_4c/relu_pool_proj -> inception_4c/pool_proj (in-place)
I0403 21:53:43.477730 24610 net.cpp:141] Setting up inception_4c/relu_pool_proj
I0403 21:53:43.477757 24610 net.cpp:148] Top shape: 24 64 14 14 (301056)
I0403 21:53:43.477772 24610 net.cpp:156] Memory required for data: 1063013664
I0403 21:53:43.477787 24610 layer_factory.hpp:77] Creating layer inception_4c/output
I0403 21:53:43.477803 24610 net.cpp:91] Creating Layer inception_4c/output
I0403 21:53:43.477818 24610 net.cpp:425] inception_4c/output <- inception_4c/1x1
I0403 21:53:43.477834 24610 net.cpp:425] inception_4c/output <- inception_4c/3x3
I0403 21:53:43.477850 24610 net.cpp:425] inception_4c/output <- inception_4c/5x5
I0403 21:53:43.477866 24610 net.cpp:425] inception_4c/output <- inception_4c/pool_proj
I0403 21:53:43.477882 24610 net.cpp:399] inception_4c/output -> inception_4c/output
I0403 21:53:43.477928 24610 net.cpp:141] Setting up inception_4c/output
I0403 21:53:43.477951 24610 net.cpp:148] Top shape: 24 512 14 14 (2408448)
I0403 21:53:43.477964 24610 net.cpp:156] Memory required for data: 1072647456
I0403 21:53:43.477979 24610 layer_factory.hpp:77] Creating layer inception_4c/output_inception_4c/output_0_split
I0403 21:53:43.477998 24610 net.cpp:91] Creating Layer inception_4c/output_inception_4c/output_0_split
I0403 21:53:43.478013 24610 net.cpp:425] inception_4c/output_inception_4c/output_0_split <- inception_4c/output
I0403 21:53:43.478030 24610 net.cpp:399] inception_4c/output_inception_4c/output_0_split -> inception_4c/output_inception_4c/output_0_split_0
I0403 21:53:43.478049 24610 net.cpp:399] inception_4c/output_inception_4c/output_0_split -> inception_4c/output_inception_4c/output_0_split_1
I0403 21:53:43.478070 24610 net.cpp:399] inception_4c/output_inception_4c/output_0_split -> inception_4c/output_inception_4c/output_0_split_2
I0403 21:53:43.478088 24610 net.cpp:399] inception_4c/output_inception_4c/output_0_split -> inception_4c/output_inception_4c/output_0_split_3
I0403 21:53:43.478173 24610 net.cpp:141] Setting up inception_4c/output_inception_4c/output_0_split
I0403 21:53:43.478204 24610 net.cpp:148] Top shape: 24 512 14 14 (2408448)
I0403 21:53:43.478224 24610 net.cpp:148] Top shape: 24 512 14 14 (2408448)
I0403 21:53:43.478240 24610 net.cpp:148] Top shape: 24 512 14 14 (2408448)
I0403 21:53:43.478255 24610 net.cpp:148] Top shape: 24 512 14 14 (2408448)
I0403 21:53:43.478268 24610 net.cpp:156] Memory required for data: 1111182624
I0403 21:53:43.478283 24610 layer_factory.hpp:77] Creating layer inception_4d/1x1
I0403 21:53:43.478305 24610 net.cpp:91] Creating Layer inception_4d/1x1
I0403 21:53:43.478322 24610 net.cpp:425] inception_4d/1x1 <- inception_4c/output_inception_4c/output_0_split_0
I0403 21:53:43.478343 24610 net.cpp:399] inception_4d/1x1 -> inception_4d/1x1
I0403 21:53:43.479686 24610 net.cpp:141] Setting up inception_4d/1x1
I0403 21:53:43.479712 24610 net.cpp:148] Top shape: 24 112 14 14 (526848)
I0403 21:53:43.479727 24610 net.cpp:156] Memory required for data: 1113290016
I0403 21:53:43.479744 24610 layer_factory.hpp:77] Creating layer inception_4d/relu_1x1
I0403 21:53:43.479761 24610 net.cpp:91] Creating Layer inception_4d/relu_1x1
I0403 21:53:43.479776 24610 net.cpp:425] inception_4d/relu_1x1 <- inception_4d/1x1
I0403 21:53:43.479795 24610 net.cpp:386] inception_4d/relu_1x1 -> inception_4d/1x1 (in-place)
I0403 21:53:43.479972 24610 net.cpp:141] Setting up inception_4d/relu_1x1
I0403 21:53:43.479996 24610 net.cpp:148] Top shape: 24 112 14 14 (526848)
I0403 21:53:43.480010 24610 net.cpp:156] Memory required for data: 1115397408
I0403 21:53:43.480025 24610 layer_factory.hpp:77] Creating layer inception_4d/3x3_reduce
I0403 21:53:43.480062 24610 net.cpp:91] Creating Layer inception_4d/3x3_reduce
I0403 21:53:43.480080 24610 net.cpp:425] inception_4d/3x3_reduce <- inception_4c/output_inception_4c/output_0_split_1
I0403 21:53:43.480101 24610 net.cpp:399] inception_4d/3x3_reduce -> inception_4d/3x3_reduce
I0403 21:53:43.481575 24610 net.cpp:141] Setting up inception_4d/3x3_reduce
I0403 21:53:43.481603 24610 net.cpp:148] Top shape: 24 144 14 14 (677376)
I0403 21:53:43.481621 24610 net.cpp:156] Memory required for data: 1118106912
I0403 21:53:43.481637 24610 layer_factory.hpp:77] Creating layer inception_4d/relu_3x3_reduce
I0403 21:53:43.481655 24610 net.cpp:91] Creating Layer inception_4d/relu_3x3_reduce
I0403 21:53:43.481672 24610 net.cpp:425] inception_4d/relu_3x3_reduce <- inception_4d/3x3_reduce
I0403 21:53:43.481690 24610 net.cpp:386] inception_4d/relu_3x3_reduce -> inception_4d/3x3_reduce (in-place)
I0403 21:53:43.481971 24610 net.cpp:141] Setting up inception_4d/relu_3x3_reduce
I0403 21:53:43.481997 24610 net.cpp:148] Top shape: 24 144 14 14 (677376)
I0403 21:53:43.482012 24610 net.cpp:156] Memory required for data: 1120816416
I0403 21:53:43.482028 24610 layer_factory.hpp:77] Creating layer inception_4d/3x3
I0403 21:53:43.482048 24610 net.cpp:91] Creating Layer inception_4d/3x3
I0403 21:53:43.482065 24610 net.cpp:425] inception_4d/3x3 <- inception_4d/3x3_reduce
I0403 21:53:43.482084 24610 net.cpp:399] inception_4d/3x3 -> inception_4d/3x3
I0403 21:53:43.486275 24610 net.cpp:141] Setting up inception_4d/3x3
I0403 21:53:43.486304 24610 net.cpp:148] Top shape: 24 288 14 14 (1354752)
I0403 21:53:43.486320 24610 net.cpp:156] Memory required for data: 1126235424
I0403 21:53:43.486337 24610 layer_factory.hpp:77] Creating layer inception_4d/relu_3x3
I0403 21:53:43.486356 24610 net.cpp:91] Creating Layer inception_4d/relu_3x3
I0403 21:53:43.486372 24610 net.cpp:425] inception_4d/relu_3x3 <- inception_4d/3x3
I0403 21:53:43.486389 24610 net.cpp:386] inception_4d/relu_3x3 -> inception_4d/3x3 (in-place)
I0403 21:53:43.486567 24610 net.cpp:141] Setting up inception_4d/relu_3x3
I0403 21:53:43.486590 24610 net.cpp:148] Top shape: 24 288 14 14 (1354752)
I0403 21:53:43.486604 24610 net.cpp:156] Memory required for data: 1131654432
I0403 21:53:43.486618 24610 layer_factory.hpp:77] Creating layer inception_4d/5x5_reduce
I0403 21:53:43.486639 24610 net.cpp:91] Creating Layer inception_4d/5x5_reduce
I0403 21:53:43.486659 24610 net.cpp:425] inception_4d/5x5_reduce <- inception_4c/output_inception_4c/output_0_split_2
I0403 21:53:43.486677 24610 net.cpp:399] inception_4d/5x5_reduce -> inception_4d/5x5_reduce
I0403 21:53:43.487784 24610 net.cpp:141] Setting up inception_4d/5x5_reduce
I0403 21:53:43.487812 24610 net.cpp:148] Top shape: 24 32 14 14 (150528)
I0403 21:53:43.487825 24610 net.cpp:156] Memory required for data: 1132256544
I0403 21:53:43.487843 24610 layer_factory.hpp:77] Creating layer inception_4d/relu_5x5_reduce
I0403 21:53:43.487861 24610 net.cpp:91] Creating Layer inception_4d/relu_5x5_reduce
I0403 21:53:43.487876 24610 net.cpp:425] inception_4d/relu_5x5_reduce <- inception_4d/5x5_reduce
I0403 21:53:43.487895 24610 net.cpp:386] inception_4d/relu_5x5_reduce -> inception_4d/5x5_reduce (in-place)
I0403 21:53:43.488078 24610 net.cpp:141] Setting up inception_4d/relu_5x5_reduce
I0403 21:53:43.488102 24610 net.cpp:148] Top shape: 24 32 14 14 (150528)
I0403 21:53:43.488116 24610 net.cpp:156] Memory required for data: 1132858656
I0403 21:53:43.488131 24610 layer_factory.hpp:77] Creating layer inception_4d/5x5
I0403 21:53:43.488152 24610 net.cpp:91] Creating Layer inception_4d/5x5
I0403 21:53:43.488168 24610 net.cpp:425] inception_4d/5x5 <- inception_4d/5x5_reduce
I0403 21:53:43.488188 24610 net.cpp:399] inception_4d/5x5 -> inception_4d/5x5
I0403 21:53:43.489629 24610 net.cpp:141] Setting up inception_4d/5x5
I0403 21:53:43.489658 24610 net.cpp:148] Top shape: 24 64 14 14 (301056)
I0403 21:53:43.489675 24610 net.cpp:156] Memory required for data: 1134062880
I0403 21:53:43.489693 24610 layer_factory.hpp:77] Creating layer inception_4d/relu_5x5
I0403 21:53:43.489724 24610 net.cpp:91] Creating Layer inception_4d/relu_5x5
I0403 21:53:43.489740 24610 net.cpp:425] inception_4d/relu_5x5 <- inception_4d/5x5
I0403 21:53:43.489758 24610 net.cpp:386] inception_4d/relu_5x5 -> inception_4d/5x5 (in-place)
I0403 21:53:43.490047 24610 net.cpp:141] Setting up inception_4d/relu_5x5
I0403 21:53:43.490074 24610 net.cpp:148] Top shape: 24 64 14 14 (301056)
I0403 21:53:43.490089 24610 net.cpp:156] Memory required for data: 1135267104
I0403 21:53:43.490104 24610 layer_factory.hpp:77] Creating layer inception_4d/pool
I0403 21:53:43.490120 24610 net.cpp:91] Creating Layer inception_4d/pool
I0403 21:53:43.490135 24610 net.cpp:425] inception_4d/pool <- inception_4c/output_inception_4c/output_0_split_3
I0403 21:53:43.490154 24610 net.cpp:399] inception_4d/pool -> inception_4d/pool
I0403 21:53:43.490224 24610 net.cpp:141] Setting up inception_4d/pool
I0403 21:53:43.490247 24610 net.cpp:148] Top shape: 24 512 14 14 (2408448)
I0403 21:53:43.490262 24610 net.cpp:156] Memory required for data: 1144900896
I0403 21:53:43.490277 24610 layer_factory.hpp:77] Creating layer inception_4d/pool_proj
I0403 21:53:43.490298 24610 net.cpp:91] Creating Layer inception_4d/pool_proj
I0403 21:53:43.490314 24610 net.cpp:425] inception_4d/pool_proj <- inception_4d/pool
I0403 21:53:43.490334 24610 net.cpp:399] inception_4d/pool_proj -> inception_4d/pool_proj
I0403 21:53:43.492050 24610 net.cpp:141] Setting up inception_4d/pool_proj
I0403 21:53:43.492079 24610 net.cpp:148] Top shape: 24 64 14 14 (301056)
I0403 21:53:43.492094 24610 net.cpp:156] Memory required for data: 1146105120
I0403 21:53:43.492111 24610 layer_factory.hpp:77] Creating layer inception_4d/relu_pool_proj
I0403 21:53:43.492131 24610 net.cpp:91] Creating Layer inception_4d/relu_pool_proj
I0403 21:53:43.492147 24610 net.cpp:425] inception_4d/relu_pool_proj <- inception_4d/pool_proj
I0403 21:53:43.492164 24610 net.cpp:386] inception_4d/relu_pool_proj -> inception_4d/pool_proj (in-place)
I0403 21:53:43.492346 24610 net.cpp:141] Setting up inception_4d/relu_pool_proj
I0403 21:53:43.492368 24610 net.cpp:148] Top shape: 24 64 14 14 (301056)
I0403 21:53:43.492383 24610 net.cpp:156] Memory required for data: 1147309344
I0403 21:53:43.492396 24610 layer_factory.hpp:77] Creating layer inception_4d/output
I0403 21:53:43.492415 24610 net.cpp:91] Creating Layer inception_4d/output
I0403 21:53:43.492431 24610 net.cpp:425] inception_4d/output <- inception_4d/1x1
I0403 21:53:43.492447 24610 net.cpp:425] inception_4d/output <- inception_4d/3x3
I0403 21:53:43.492462 24610 net.cpp:425] inception_4d/output <- inception_4d/5x5
I0403 21:53:43.492477 24610 net.cpp:425] inception_4d/output <- inception_4d/pool_proj
I0403 21:53:43.492493 24610 net.cpp:399] inception_4d/output -> inception_4d/output
I0403 21:53:43.492540 24610 net.cpp:141] Setting up inception_4d/output
I0403 21:53:43.492563 24610 net.cpp:148] Top shape: 24 528 14 14 (2483712)
I0403 21:53:43.492578 24610 net.cpp:156] Memory required for data: 1157244192
I0403 21:53:43.492593 24610 layer_factory.hpp:77] Creating layer inception_4d/output_inception_4d/output_0_split
I0403 21:53:43.492609 24610 net.cpp:91] Creating Layer inception_4d/output_inception_4d/output_0_split
I0403 21:53:43.492624 24610 net.cpp:425] inception_4d/output_inception_4d/output_0_split <- inception_4d/output
I0403 21:53:43.492642 24610 net.cpp:399] inception_4d/output_inception_4d/output_0_split -> inception_4d/output_inception_4d/output_0_split_0
I0403 21:53:43.492662 24610 net.cpp:399] inception_4d/output_inception_4d/output_0_split -> inception_4d/output_inception_4d/output_0_split_1
I0403 21:53:43.492682 24610 net.cpp:399] inception_4d/output_inception_4d/output_0_split -> inception_4d/output_inception_4d/output_0_split_2
I0403 21:53:43.492702 24610 net.cpp:399] inception_4d/output_inception_4d/output_0_split -> inception_4d/output_inception_4d/output_0_split_3
I0403 21:53:43.492727 24610 net.cpp:399] inception_4d/output_inception_4d/output_0_split -> inception_4d/output_inception_4d/output_0_split_4
I0403 21:53:43.492825 24610 net.cpp:141] Setting up inception_4d/output_inception_4d/output_0_split
I0403 21:53:43.492858 24610 net.cpp:148] Top shape: 24 528 14 14 (2483712)
I0403 21:53:43.492876 24610 net.cpp:148] Top shape: 24 528 14 14 (2483712)
I0403 21:53:43.492890 24610 net.cpp:148] Top shape: 24 528 14 14 (2483712)
I0403 21:53:43.492905 24610 net.cpp:148] Top shape: 24 528 14 14 (2483712)
I0403 21:53:43.492920 24610 net.cpp:148] Top shape: 24 528 14 14 (2483712)
I0403 21:53:43.492934 24610 net.cpp:156] Memory required for data: 1206918432
I0403 21:53:43.492949 24610 layer_factory.hpp:77] Creating layer loss2/ave_pool
I0403 21:53:43.492964 24610 net.cpp:91] Creating Layer loss2/ave_pool
I0403 21:53:43.492980 24610 net.cpp:425] loss2/ave_pool <- inception_4d/output_inception_4d/output_0_split_0
I0403 21:53:43.493000 24610 net.cpp:399] loss2/ave_pool -> loss2/ave_pool
I0403 21:53:43.493306 24610 net.cpp:141] Setting up loss2/ave_pool
I0403 21:53:43.493331 24610 net.cpp:148] Top shape: 24 528 4 4 (202752)
I0403 21:53:43.493345 24610 net.cpp:156] Memory required for data: 1207729440
I0403 21:53:43.493360 24610 layer_factory.hpp:77] Creating layer loss2/conv
I0403 21:53:43.493381 24610 net.cpp:91] Creating Layer loss2/conv
I0403 21:53:43.493398 24610 net.cpp:425] loss2/conv <- loss2/ave_pool
I0403 21:53:43.493419 24610 net.cpp:399] loss2/conv -> loss2/conv
I0403 21:53:43.495280 24610 net.cpp:141] Setting up loss2/conv
I0403 21:53:43.495307 24610 net.cpp:148] Top shape: 24 128 4 4 (49152)
I0403 21:53:43.495322 24610 net.cpp:156] Memory required for data: 1207926048
I0403 21:53:43.495339 24610 layer_factory.hpp:77] Creating layer loss2/relu_conv
I0403 21:53:43.495358 24610 net.cpp:91] Creating Layer loss2/relu_conv
I0403 21:53:43.495375 24610 net.cpp:425] loss2/relu_conv <- loss2/conv
I0403 21:53:43.495391 24610 net.cpp:386] loss2/relu_conv -> loss2/conv (in-place)
I0403 21:53:43.495672 24610 net.cpp:141] Setting up loss2/relu_conv
I0403 21:53:43.495698 24610 net.cpp:148] Top shape: 24 128 4 4 (49152)
I0403 21:53:43.495712 24610 net.cpp:156] Memory required for data: 1208122656
I0403 21:53:43.495726 24610 layer_factory.hpp:77] Creating layer loss2/fc
I0403 21:53:43.495746 24610 net.cpp:91] Creating Layer loss2/fc
I0403 21:53:43.495764 24610 net.cpp:425] loss2/fc <- loss2/conv
I0403 21:53:43.495782 24610 net.cpp:399] loss2/fc -> loss2/fc
I0403 21:53:43.513013 24610 net.cpp:141] Setting up loss2/fc
I0403 21:53:43.513044 24610 net.cpp:148] Top shape: 24 1024 (24576)
I0403 21:53:43.513059 24610 net.cpp:156] Memory required for data: 1208220960
I0403 21:53:43.513077 24610 layer_factory.hpp:77] Creating layer loss2/relu_fc
I0403 21:53:43.513094 24610 net.cpp:91] Creating Layer loss2/relu_fc
I0403 21:53:43.513109 24610 net.cpp:425] loss2/relu_fc <- loss2/fc
I0403 21:53:43.513128 24610 net.cpp:386] loss2/relu_fc -> loss2/fc (in-place)
I0403 21:53:43.513422 24610 net.cpp:141] Setting up loss2/relu_fc
I0403 21:53:43.513447 24610 net.cpp:148] Top shape: 24 1024 (24576)
I0403 21:53:43.513461 24610 net.cpp:156] Memory required for data: 1208319264
I0403 21:53:43.513476 24610 layer_factory.hpp:77] Creating layer loss2/drop_fc
I0403 21:53:43.513492 24610 net.cpp:91] Creating Layer loss2/drop_fc
I0403 21:53:43.513509 24610 net.cpp:425] loss2/drop_fc <- loss2/fc
I0403 21:53:43.513526 24610 net.cpp:386] loss2/drop_fc -> loss2/fc (in-place)
I0403 21:53:43.513576 24610 net.cpp:141] Setting up loss2/drop_fc
I0403 21:53:43.513598 24610 net.cpp:148] Top shape: 24 1024 (24576)
I0403 21:53:43.513612 24610 net.cpp:156] Memory required for data: 1208417568
I0403 21:53:43.513627 24610 layer_factory.hpp:77] Creating layer loss2/classifier_plantvillage
I0403 21:53:43.513644 24610 net.cpp:91] Creating Layer loss2/classifier_plantvillage
I0403 21:53:43.513660 24610 net.cpp:425] loss2/classifier_plantvillage <- loss2/fc
I0403 21:53:43.513680 24610 net.cpp:399] loss2/classifier_plantvillage -> loss2/classifier_plantvillage
I0403 21:53:43.514072 24610 net.cpp:141] Setting up loss2/classifier_plantvillage
I0403 21:53:43.514096 24610 net.cpp:148] Top shape: 24 38 (912)
I0403 21:53:43.514125 24610 net.cpp:156] Memory required for data: 1208421216
I0403 21:53:43.514143 24610 layer_factory.hpp:77] Creating layer loss2/classifier_plantvillage_loss2/classifier_plantvillage_0_split
I0403 21:53:43.514163 24610 net.cpp:91] Creating Layer loss2/classifier_plantvillage_loss2/classifier_plantvillage_0_split
I0403 21:53:43.514178 24610 net.cpp:425] loss2/classifier_plantvillage_loss2/classifier_plantvillage_0_split <- loss2/classifier_plantvillage
I0403 21:53:43.514204 24610 net.cpp:399] loss2/classifier_plantvillage_loss2/classifier_plantvillage_0_split -> loss2/classifier_plantvillage_loss2/classifier_plantvillage_0_split_0
I0403 21:53:43.514233 24610 net.cpp:399] loss2/classifier_plantvillage_loss2/classifier_plantvillage_0_split -> loss2/classifier_plantvillage_loss2/classifier_plantvillage_0_split_1
I0403 21:53:43.514266 24610 net.cpp:399] loss2/classifier_plantvillage_loss2/classifier_plantvillage_0_split -> loss2/classifier_plantvillage_loss2/classifier_plantvillage_0_split_2
I0403 21:53:43.514343 24610 net.cpp:141] Setting up loss2/classifier_plantvillage_loss2/classifier_plantvillage_0_split
I0403 21:53:43.514366 24610 net.cpp:148] Top shape: 24 38 (912)
I0403 21:53:43.514382 24610 net.cpp:148] Top shape: 24 38 (912)
I0403 21:53:43.514397 24610 net.cpp:148] Top shape: 24 38 (912)
I0403 21:53:43.514411 24610 net.cpp:156] Memory required for data: 1208432160
I0403 21:53:43.514425 24610 layer_factory.hpp:77] Creating layer inception_4e/1x1
I0403 21:53:43.514447 24610 net.cpp:91] Creating Layer inception_4e/1x1
I0403 21:53:43.514466 24610 net.cpp:425] inception_4e/1x1 <- inception_4d/output_inception_4d/output_0_split_1
I0403 21:53:43.514483 24610 net.cpp:399] inception_4e/1x1 -> inception_4e/1x1
I0403 21:53:43.516254 24610 net.cpp:141] Setting up inception_4e/1x1
I0403 21:53:43.516283 24610 net.cpp:148] Top shape: 24 256 14 14 (1204224)
I0403 21:53:43.516299 24610 net.cpp:156] Memory required for data: 1213249056
I0403 21:53:43.516317 24610 layer_factory.hpp:77] Creating layer inception_4e/relu_1x1
I0403 21:53:43.516335 24610 net.cpp:91] Creating Layer inception_4e/relu_1x1
I0403 21:53:43.516350 24610 net.cpp:425] inception_4e/relu_1x1 <- inception_4e/1x1
I0403 21:53:43.516366 24610 net.cpp:386] inception_4e/relu_1x1 -> inception_4e/1x1 (in-place)
I0403 21:53:43.516650 24610 net.cpp:141] Setting up inception_4e/relu_1x1
I0403 21:53:43.516677 24610 net.cpp:148] Top shape: 24 256 14 14 (1204224)
I0403 21:53:43.516693 24610 net.cpp:156] Memory required for data: 1218065952
I0403 21:53:43.516707 24610 layer_factory.hpp:77] Creating layer inception_4e/3x3_reduce
I0403 21:53:43.516728 24610 net.cpp:91] Creating Layer inception_4e/3x3_reduce
I0403 21:53:43.516746 24610 net.cpp:425] inception_4e/3x3_reduce <- inception_4d/output_inception_4d/output_0_split_2
I0403 21:53:43.516764 24610 net.cpp:399] inception_4e/3x3_reduce -> inception_4e/3x3_reduce
I0403 21:53:43.518839 24610 net.cpp:141] Setting up inception_4e/3x3_reduce
I0403 21:53:43.518867 24610 net.cpp:148] Top shape: 24 160 14 14 (752640)
I0403 21:53:43.518882 24610 net.cpp:156] Memory required for data: 1221076512
I0403 21:53:43.518899 24610 layer_factory.hpp:77] Creating layer inception_4e/relu_3x3_reduce
I0403 21:53:43.518919 24610 net.cpp:91] Creating Layer inception_4e/relu_3x3_reduce
I0403 21:53:43.518936 24610 net.cpp:425] inception_4e/relu_3x3_reduce <- inception_4e/3x3_reduce
I0403 21:53:43.518954 24610 net.cpp:386] inception_4e/relu_3x3_reduce -> inception_4e/3x3_reduce (in-place)
I0403 21:53:43.519134 24610 net.cpp:141] Setting up inception_4e/relu_3x3_reduce
I0403 21:53:43.519158 24610 net.cpp:148] Top shape: 24 160 14 14 (752640)
I0403 21:53:43.519172 24610 net.cpp:156] Memory required for data: 1224087072
I0403 21:53:43.519186 24610 layer_factory.hpp:77] Creating layer inception_4e/3x3
I0403 21:53:43.519212 24610 net.cpp:91] Creating Layer inception_4e/3x3
I0403 21:53:43.519230 24610 net.cpp:425] inception_4e/3x3 <- inception_4e/3x3_reduce
I0403 21:53:43.519251 24610 net.cpp:399] inception_4e/3x3 -> inception_4e/3x3
I0403 21:53:43.524175 24610 net.cpp:141] Setting up inception_4e/3x3
I0403 21:53:43.524219 24610 net.cpp:148] Top shape: 24 320 14 14 (1505280)
I0403 21:53:43.524235 24610 net.cpp:156] Memory required for data: 1230108192
I0403 21:53:43.524252 24610 layer_factory.hpp:77] Creating layer inception_4e/relu_3x3
I0403 21:53:43.524269 24610 net.cpp:91] Creating Layer inception_4e/relu_3x3
I0403 21:53:43.524286 24610 net.cpp:425] inception_4e/relu_3x3 <- inception_4e/3x3
I0403 21:53:43.524304 24610 net.cpp:386] inception_4e/relu_3x3 -> inception_4e/3x3 (in-place)
I0403 21:53:43.524601 24610 net.cpp:141] Setting up inception_4e/relu_3x3
I0403 21:53:43.524627 24610 net.cpp:148] Top shape: 24 320 14 14 (1505280)
I0403 21:53:43.524641 24610 net.cpp:156] Memory required for data: 1236129312
I0403 21:53:43.524657 24610 layer_factory.hpp:77] Creating layer inception_4e/5x5_reduce
I0403 21:53:43.524678 24610 net.cpp:91] Creating Layer inception_4e/5x5_reduce
I0403 21:53:43.524696 24610 net.cpp:425] inception_4e/5x5_reduce <- inception_4d/output_inception_4d/output_0_split_3
I0403 21:53:43.524718 24610 net.cpp:399] inception_4e/5x5_reduce -> inception_4e/5x5_reduce
I0403 21:53:43.525756 24610 net.cpp:141] Setting up inception_4e/5x5_reduce
I0403 21:53:43.525785 24610 net.cpp:148] Top shape: 24 32 14 14 (150528)
I0403 21:53:43.525801 24610 net.cpp:156] Memory required for data: 1236731424
I0403 21:53:43.525820 24610 layer_factory.hpp:77] Creating layer inception_4e/relu_5x5_reduce
I0403 21:53:43.525836 24610 net.cpp:91] Creating Layer inception_4e/relu_5x5_reduce
I0403 21:53:43.525852 24610 net.cpp:425] inception_4e/relu_5x5_reduce <- inception_4e/5x5_reduce
I0403 21:53:43.525869 24610 net.cpp:386] inception_4e/relu_5x5_reduce -> inception_4e/5x5_reduce (in-place)
I0403 21:53:43.526162 24610 net.cpp:141] Setting up inception_4e/relu_5x5_reduce
I0403 21:53:43.526190 24610 net.cpp:148] Top shape: 24 32 14 14 (150528)
I0403 21:53:43.526211 24610 net.cpp:156] Memory required for data: 1237333536
I0403 21:53:43.526226 24610 layer_factory.hpp:77] Creating layer inception_4e/5x5
I0403 21:53:43.526265 24610 net.cpp:91] Creating Layer inception_4e/5x5
I0403 21:53:43.526283 24610 net.cpp:425] inception_4e/5x5 <- inception_4e/5x5_reduce
I0403 21:53:43.526304 24610 net.cpp:399] inception_4e/5x5 -> inception_4e/5x5
I0403 21:53:43.528117 24610 net.cpp:141] Setting up inception_4e/5x5
I0403 21:53:43.528144 24610 net.cpp:148] Top shape: 24 128 14 14 (602112)
I0403 21:53:43.528159 24610 net.cpp:156] Memory required for data: 1239741984
I0403 21:53:43.528177 24610 layer_factory.hpp:77] Creating layer inception_4e/relu_5x5
I0403 21:53:43.528206 24610 net.cpp:91] Creating Layer inception_4e/relu_5x5
I0403 21:53:43.528225 24610 net.cpp:425] inception_4e/relu_5x5 <- inception_4e/5x5
I0403 21:53:43.528242 24610 net.cpp:386] inception_4e/relu_5x5 -> inception_4e/5x5 (in-place)
I0403 21:53:43.528434 24610 net.cpp:141] Setting up inception_4e/relu_5x5
I0403 21:53:43.528458 24610 net.cpp:148] Top shape: 24 128 14 14 (602112)
I0403 21:53:43.528473 24610 net.cpp:156] Memory required for data: 1242150432
I0403 21:53:43.528487 24610 layer_factory.hpp:77] Creating layer inception_4e/pool
I0403 21:53:43.528507 24610 net.cpp:91] Creating Layer inception_4e/pool
I0403 21:53:43.528522 24610 net.cpp:425] inception_4e/pool <- inception_4d/output_inception_4d/output_0_split_4
I0403 21:53:43.528542 24610 net.cpp:399] inception_4e/pool -> inception_4e/pool
I0403 21:53:43.528609 24610 net.cpp:141] Setting up inception_4e/pool
I0403 21:53:43.528633 24610 net.cpp:148] Top shape: 24 528 14 14 (2483712)
I0403 21:53:43.528647 24610 net.cpp:156] Memory required for data: 1252085280
I0403 21:53:43.528661 24610 layer_factory.hpp:77] Creating layer inception_4e/pool_proj
I0403 21:53:43.528682 24610 net.cpp:91] Creating Layer inception_4e/pool_proj
I0403 21:53:43.528700 24610 net.cpp:425] inception_4e/pool_proj <- inception_4e/pool
I0403 21:53:43.528720 24610 net.cpp:399] inception_4e/pool_proj -> inception_4e/pool_proj
I0403 21:53:43.530179 24610 net.cpp:141] Setting up inception_4e/pool_proj
I0403 21:53:43.530221 24610 net.cpp:148] Top shape: 24 128 14 14 (602112)
I0403 21:53:43.530236 24610 net.cpp:156] Memory required for data: 1254493728
I0403 21:53:43.530254 24610 layer_factory.hpp:77] Creating layer inception_4e/relu_pool_proj
I0403 21:53:43.530273 24610 net.cpp:91] Creating Layer inception_4e/relu_pool_proj
I0403 21:53:43.530289 24610 net.cpp:425] inception_4e/relu_pool_proj <- inception_4e/pool_proj
I0403 21:53:43.530306 24610 net.cpp:386] inception_4e/relu_pool_proj -> inception_4e/pool_proj (in-place)
I0403 21:53:43.530586 24610 net.cpp:141] Setting up inception_4e/relu_pool_proj
I0403 21:53:43.530611 24610 net.cpp:148] Top shape: 24 128 14 14 (602112)
I0403 21:53:43.530625 24610 net.cpp:156] Memory required for data: 1256902176
I0403 21:53:43.530639 24610 layer_factory.hpp:77] Creating layer inception_4e/output
I0403 21:53:43.530657 24610 net.cpp:91] Creating Layer inception_4e/output
I0403 21:53:43.530673 24610 net.cpp:425] inception_4e/output <- inception_4e/1x1
I0403 21:53:43.530689 24610 net.cpp:425] inception_4e/output <- inception_4e/3x3
I0403 21:53:43.530710 24610 net.cpp:425] inception_4e/output <- inception_4e/5x5
I0403 21:53:43.530725 24610 net.cpp:425] inception_4e/output <- inception_4e/pool_proj
I0403 21:53:43.530741 24610 net.cpp:399] inception_4e/output -> inception_4e/output
I0403 21:53:43.530788 24610 net.cpp:141] Setting up inception_4e/output
I0403 21:53:43.530813 24610 net.cpp:148] Top shape: 24 832 14 14 (3913728)
I0403 21:53:43.530828 24610 net.cpp:156] Memory required for data: 1272557088
I0403 21:53:43.530843 24610 layer_factory.hpp:77] Creating layer pool4/3x3_s2
I0403 21:53:43.530859 24610 net.cpp:91] Creating Layer pool4/3x3_s2
I0403 21:53:43.530874 24610 net.cpp:425] pool4/3x3_s2 <- inception_4e/output
I0403 21:53:43.530895 24610 net.cpp:399] pool4/3x3_s2 -> pool4/3x3_s2
I0403 21:53:43.530959 24610 net.cpp:141] Setting up pool4/3x3_s2
I0403 21:53:43.530982 24610 net.cpp:148] Top shape: 24 832 7 7 (978432)
I0403 21:53:43.530997 24610 net.cpp:156] Memory required for data: 1276470816
I0403 21:53:43.531011 24610 layer_factory.hpp:77] Creating layer pool4/3x3_s2_pool4/3x3_s2_0_split
I0403 21:53:43.531029 24610 net.cpp:91] Creating Layer pool4/3x3_s2_pool4/3x3_s2_0_split
I0403 21:53:43.531045 24610 net.cpp:425] pool4/3x3_s2_pool4/3x3_s2_0_split <- pool4/3x3_s2
I0403 21:53:43.531062 24610 net.cpp:399] pool4/3x3_s2_pool4/3x3_s2_0_split -> pool4/3x3_s2_pool4/3x3_s2_0_split_0
I0403 21:53:43.531081 24610 net.cpp:399] pool4/3x3_s2_pool4/3x3_s2_0_split -> pool4/3x3_s2_pool4/3x3_s2_0_split_1
I0403 21:53:43.531102 24610 net.cpp:399] pool4/3x3_s2_pool4/3x3_s2_0_split -> pool4/3x3_s2_pool4/3x3_s2_0_split_2
I0403 21:53:43.531123 24610 net.cpp:399] pool4/3x3_s2_pool4/3x3_s2_0_split -> pool4/3x3_s2_pool4/3x3_s2_0_split_3
I0403 21:53:43.531219 24610 net.cpp:141] Setting up pool4/3x3_s2_pool4/3x3_s2_0_split
I0403 21:53:43.531242 24610 net.cpp:148] Top shape: 24 832 7 7 (978432)
I0403 21:53:43.531257 24610 net.cpp:148] Top shape: 24 832 7 7 (978432)
I0403 21:53:43.531273 24610 net.cpp:148] Top shape: 24 832 7 7 (978432)
I0403 21:53:43.531288 24610 net.cpp:148] Top shape: 24 832 7 7 (978432)
I0403 21:53:43.531301 24610 net.cpp:156] Memory required for data: 1292125728
I0403 21:53:43.531316 24610 layer_factory.hpp:77] Creating layer inception_5a/1x1
I0403 21:53:43.531337 24610 net.cpp:91] Creating Layer inception_5a/1x1
I0403 21:53:43.531354 24610 net.cpp:425] inception_5a/1x1 <- pool4/3x3_s2_pool4/3x3_s2_0_split_0
I0403 21:53:43.531374 24610 net.cpp:399] inception_5a/1x1 -> inception_5a/1x1
I0403 21:53:43.534193 24610 net.cpp:141] Setting up inception_5a/1x1
I0403 21:53:43.534224 24610 net.cpp:148] Top shape: 24 256 7 7 (301056)
I0403 21:53:43.534240 24610 net.cpp:156] Memory required for data: 1293329952
I0403 21:53:43.534257 24610 layer_factory.hpp:77] Creating layer inception_5a/relu_1x1
I0403 21:53:43.534277 24610 net.cpp:91] Creating Layer inception_5a/relu_1x1
I0403 21:53:43.534293 24610 net.cpp:425] inception_5a/relu_1x1 <- inception_5a/1x1
I0403 21:53:43.534309 24610 net.cpp:386] inception_5a/relu_1x1 -> inception_5a/1x1 (in-place)
I0403 21:53:43.534610 24610 net.cpp:141] Setting up inception_5a/relu_1x1
I0403 21:53:43.534634 24610 net.cpp:148] Top shape: 24 256 7 7 (301056)
I0403 21:53:43.534648 24610 net.cpp:156] Memory required for data: 1294534176
I0403 21:53:43.534662 24610 layer_factory.hpp:77] Creating layer inception_5a/3x3_reduce
I0403 21:53:43.534683 24610 net.cpp:91] Creating Layer inception_5a/3x3_reduce
I0403 21:53:43.534700 24610 net.cpp:425] inception_5a/3x3_reduce <- pool4/3x3_s2_pool4/3x3_s2_0_split_1
I0403 21:53:43.534721 24610 net.cpp:399] inception_5a/3x3_reduce -> inception_5a/3x3_reduce
I0403 21:53:43.537132 24610 net.cpp:141] Setting up inception_5a/3x3_reduce
I0403 21:53:43.537160 24610 net.cpp:148] Top shape: 24 160 7 7 (188160)
I0403 21:53:43.537175 24610 net.cpp:156] Memory required for data: 1295286816
I0403 21:53:43.537192 24610 layer_factory.hpp:77] Creating layer inception_5a/relu_3x3_reduce
I0403 21:53:43.537214 24610 net.cpp:91] Creating Layer inception_5a/relu_3x3_reduce
I0403 21:53:43.537230 24610 net.cpp:425] inception_5a/relu_3x3_reduce <- inception_5a/3x3_reduce
I0403 21:53:43.537250 24610 net.cpp:386] inception_5a/relu_3x3_reduce -> inception_5a/3x3_reduce (in-place)
I0403 21:53:43.537430 24610 net.cpp:141] Setting up inception_5a/relu_3x3_reduce
I0403 21:53:43.537453 24610 net.cpp:148] Top shape: 24 160 7 7 (188160)
I0403 21:53:43.537467 24610 net.cpp:156] Memory required for data: 1296039456
I0403 21:53:43.537482 24610 layer_factory.hpp:77] Creating layer inception_5a/3x3
I0403 21:53:43.537503 24610 net.cpp:91] Creating Layer inception_5a/3x3
I0403 21:53:43.537519 24610 net.cpp:425] inception_5a/3x3 <- inception_5a/3x3_reduce
I0403 21:53:43.537541 24610 net.cpp:399] inception_5a/3x3 -> inception_5a/3x3
I0403 21:53:43.542476 24610 net.cpp:141] Setting up inception_5a/3x3
I0403 21:53:43.542505 24610 net.cpp:148] Top shape: 24 320 7 7 (376320)
I0403 21:53:43.542520 24610 net.cpp:156] Memory required for data: 1297544736
I0403 21:53:43.542536 24610 layer_factory.hpp:77] Creating layer inception_5a/relu_3x3
I0403 21:53:43.542557 24610 net.cpp:91] Creating Layer inception_5a/relu_3x3
I0403 21:53:43.542573 24610 net.cpp:425] inception_5a/relu_3x3 <- inception_5a/3x3
I0403 21:53:43.542589 24610 net.cpp:386] inception_5a/relu_3x3 -> inception_5a/3x3 (in-place)
I0403 21:53:43.542873 24610 net.cpp:141] Setting up inception_5a/relu_3x3
I0403 21:53:43.542899 24610 net.cpp:148] Top shape: 24 320 7 7 (376320)
I0403 21:53:43.542913 24610 net.cpp:156] Memory required for data: 1299050016
I0403 21:53:43.542928 24610 layer_factory.hpp:77] Creating layer inception_5a/5x5_reduce
I0403 21:53:43.542949 24610 net.cpp:91] Creating Layer inception_5a/5x5_reduce
I0403 21:53:43.542966 24610 net.cpp:425] inception_5a/5x5_reduce <- pool4/3x3_s2_pool4/3x3_s2_0_split_2
I0403 21:53:43.542987 24610 net.cpp:399] inception_5a/5x5_reduce -> inception_5a/5x5_reduce
I0403 21:53:43.544123 24610 net.cpp:141] Setting up inception_5a/5x5_reduce
I0403 21:53:43.544152 24610 net.cpp:148] Top shape: 24 32 7 7 (37632)
I0403 21:53:43.544167 24610 net.cpp:156] Memory required for data: 1299200544
I0403 21:53:43.544184 24610 layer_factory.hpp:77] Creating layer inception_5a/relu_5x5_reduce
I0403 21:53:43.544208 24610 net.cpp:91] Creating Layer inception_5a/relu_5x5_reduce
I0403 21:53:43.544225 24610 net.cpp:425] inception_5a/relu_5x5_reduce <- inception_5a/5x5_reduce
I0403 21:53:43.544242 24610 net.cpp:386] inception_5a/relu_5x5_reduce -> inception_5a/5x5_reduce (in-place)
I0403 21:53:43.544538 24610 net.cpp:141] Setting up inception_5a/relu_5x5_reduce
I0403 21:53:43.544562 24610 net.cpp:148] Top shape: 24 32 7 7 (37632)
I0403 21:53:43.544577 24610 net.cpp:156] Memory required for data: 1299351072
I0403 21:53:43.544591 24610 layer_factory.hpp:77] Creating layer inception_5a/5x5
I0403 21:53:43.544615 24610 net.cpp:91] Creating Layer inception_5a/5x5
I0403 21:53:43.544632 24610 net.cpp:425] inception_5a/5x5 <- inception_5a/5x5_reduce
I0403 21:53:43.544651 24610 net.cpp:399] inception_5a/5x5 -> inception_5a/5x5
I0403 21:53:43.546324 24610 net.cpp:141] Setting up inception_5a/5x5
I0403 21:53:43.546360 24610 net.cpp:148] Top shape: 24 128 7 7 (150528)
I0403 21:53:43.546376 24610 net.cpp:156] Memory required for data: 1299953184
I0403 21:53:43.546393 24610 layer_factory.hpp:77] Creating layer inception_5a/relu_5x5
I0403 21:53:43.546412 24610 net.cpp:91] Creating Layer inception_5a/relu_5x5
I0403 21:53:43.546429 24610 net.cpp:425] inception_5a/relu_5x5 <- inception_5a/5x5
I0403 21:53:43.546447 24610 net.cpp:386] inception_5a/relu_5x5 -> inception_5a/5x5 (in-place)
I0403 21:53:43.546632 24610 net.cpp:141] Setting up inception_5a/relu_5x5
I0403 21:53:43.546658 24610 net.cpp:148] Top shape: 24 128 7 7 (150528)
I0403 21:53:43.546672 24610 net.cpp:156] Memory required for data: 1300555296
I0403 21:53:43.546686 24610 layer_factory.hpp:77] Creating layer inception_5a/pool
I0403 21:53:43.546703 24610 net.cpp:91] Creating Layer inception_5a/pool
I0403 21:53:43.546720 24610 net.cpp:425] inception_5a/pool <- pool4/3x3_s2_pool4/3x3_s2_0_split_3
I0403 21:53:43.546739 24610 net.cpp:399] inception_5a/pool -> inception_5a/pool
I0403 21:53:43.546808 24610 net.cpp:141] Setting up inception_5a/pool
I0403 21:53:43.546830 24610 net.cpp:148] Top shape: 24 832 7 7 (978432)
I0403 21:53:43.546844 24610 net.cpp:156] Memory required for data: 1304469024
I0403 21:53:43.546859 24610 layer_factory.hpp:77] Creating layer inception_5a/pool_proj
I0403 21:53:43.546880 24610 net.cpp:91] Creating Layer inception_5a/pool_proj
I0403 21:53:43.546896 24610 net.cpp:425] inception_5a/pool_proj <- inception_5a/pool
I0403 21:53:43.546916 24610 net.cpp:399] inception_5a/pool_proj -> inception_5a/pool_proj
I0403 21:53:43.549163 24610 net.cpp:141] Setting up inception_5a/pool_proj
I0403 21:53:43.549191 24610 net.cpp:148] Top shape: 24 128 7 7 (150528)
I0403 21:53:43.549211 24610 net.cpp:156] Memory required for data: 1305071136
I0403 21:53:43.549228 24610 layer_factory.hpp:77] Creating layer inception_5a/relu_pool_proj
I0403 21:53:43.549248 24610 net.cpp:91] Creating Layer inception_5a/relu_pool_proj
I0403 21:53:43.549265 24610 net.cpp:425] inception_5a/relu_pool_proj <- inception_5a/pool_proj
I0403 21:53:43.549283 24610 net.cpp:386] inception_5a/relu_pool_proj -> inception_5a/pool_proj (in-place)
I0403 21:53:43.549569 24610 net.cpp:141] Setting up inception_5a/relu_pool_proj
I0403 21:53:43.549594 24610 net.cpp:148] Top shape: 24 128 7 7 (150528)
I0403 21:53:43.549608 24610 net.cpp:156] Memory required for data: 1305673248
I0403 21:53:43.549623 24610 layer_factory.hpp:77] Creating layer inception_5a/output
I0403 21:53:43.549640 24610 net.cpp:91] Creating Layer inception_5a/output
I0403 21:53:43.549655 24610 net.cpp:425] inception_5a/output <- inception_5a/1x1
I0403 21:53:43.549671 24610 net.cpp:425] inception_5a/output <- inception_5a/3x3
I0403 21:53:43.549686 24610 net.cpp:425] inception_5a/output <- inception_5a/5x5
I0403 21:53:43.549701 24610 net.cpp:425] inception_5a/output <- inception_5a/pool_proj
I0403 21:53:43.549721 24610 net.cpp:399] inception_5a/output -> inception_5a/output
I0403 21:53:43.549770 24610 net.cpp:141] Setting up inception_5a/output
I0403 21:53:43.549793 24610 net.cpp:148] Top shape: 24 832 7 7 (978432)
I0403 21:53:43.549808 24610 net.cpp:156] Memory required for data: 1309586976
I0403 21:53:43.549821 24610 layer_factory.hpp:77] Creating layer inception_5a/output_inception_5a/output_0_split
I0403 21:53:43.549839 24610 net.cpp:91] Creating Layer inception_5a/output_inception_5a/output_0_split
I0403 21:53:43.549854 24610 net.cpp:425] inception_5a/output_inception_5a/output_0_split <- inception_5a/output
I0403 21:53:43.549871 24610 net.cpp:399] inception_5a/output_inception_5a/output_0_split -> inception_5a/output_inception_5a/output_0_split_0
I0403 21:53:43.549891 24610 net.cpp:399] inception_5a/output_inception_5a/output_0_split -> inception_5a/output_inception_5a/output_0_split_1
I0403 21:53:43.549911 24610 net.cpp:399] inception_5a/output_inception_5a/output_0_split -> inception_5a/output_inception_5a/output_0_split_2
I0403 21:53:43.549931 24610 net.cpp:399] inception_5a/output_inception_5a/output_0_split -> inception_5a/output_inception_5a/output_0_split_3
I0403 21:53:43.550042 24610 net.cpp:141] Setting up inception_5a/output_inception_5a/output_0_split
I0403 21:53:43.550065 24610 net.cpp:148] Top shape: 24 832 7 7 (978432)
I0403 21:53:43.550081 24610 net.cpp:148] Top shape: 24 832 7 7 (978432)
I0403 21:53:43.550096 24610 net.cpp:148] Top shape: 24 832 7 7 (978432)
I0403 21:53:43.550112 24610 net.cpp:148] Top shape: 24 832 7 7 (978432)
I0403 21:53:43.550124 24610 net.cpp:156] Memory required for data: 1325241888
I0403 21:53:43.550138 24610 layer_factory.hpp:77] Creating layer inception_5b/1x1
I0403 21:53:43.550160 24610 net.cpp:91] Creating Layer inception_5b/1x1
I0403 21:53:43.550178 24610 net.cpp:425] inception_5b/1x1 <- inception_5a/output_inception_5a/output_0_split_0
I0403 21:53:43.550199 24610 net.cpp:399] inception_5b/1x1 -> inception_5b/1x1
I0403 21:53:43.553928 24610 net.cpp:141] Setting up inception_5b/1x1
I0403 21:53:43.553957 24610 net.cpp:148] Top shape: 24 384 7 7 (451584)
I0403 21:53:43.553972 24610 net.cpp:156] Memory required for data: 1327048224
I0403 21:53:43.553990 24610 layer_factory.hpp:77] Creating layer inception_5b/relu_1x1
I0403 21:53:43.554008 24610 net.cpp:91] Creating Layer inception_5b/relu_1x1
I0403 21:53:43.554028 24610 net.cpp:425] inception_5b/relu_1x1 <- inception_5b/1x1
I0403 21:53:43.554044 24610 net.cpp:386] inception_5b/relu_1x1 -> inception_5b/1x1 (in-place)
I0403 21:53:43.554352 24610 net.cpp:141] Setting up inception_5b/relu_1x1
I0403 21:53:43.554375 24610 net.cpp:148] Top shape: 24 384 7 7 (451584)
I0403 21:53:43.554390 24610 net.cpp:156] Memory required for data: 1328854560
I0403 21:53:43.554405 24610 layer_factory.hpp:77] Creating layer inception_5b/3x3_reduce
I0403 21:53:43.554426 24610 net.cpp:91] Creating Layer inception_5b/3x3_reduce
I0403 21:53:43.554445 24610 net.cpp:425] inception_5b/3x3_reduce <- inception_5a/output_inception_5a/output_0_split_1
I0403 21:53:43.554466 24610 net.cpp:399] inception_5b/3x3_reduce -> inception_5b/3x3_reduce
I0403 21:53:43.557086 24610 net.cpp:141] Setting up inception_5b/3x3_reduce
I0403 21:53:43.557114 24610 net.cpp:148] Top shape: 24 192 7 7 (225792)
I0403 21:53:43.557129 24610 net.cpp:156] Memory required for data: 1329757728
I0403 21:53:43.557147 24610 layer_factory.hpp:77] Creating layer inception_5b/relu_3x3_reduce
I0403 21:53:43.557164 24610 net.cpp:91] Creating Layer inception_5b/relu_3x3_reduce
I0403 21:53:43.557180 24610 net.cpp:425] inception_5b/relu_3x3_reduce <- inception_5b/3x3_reduce
I0403 21:53:43.557202 24610 net.cpp:386] inception_5b/relu_3x3_reduce -> inception_5b/3x3_reduce (in-place)
I0403 21:53:43.557389 24610 net.cpp:141] Setting up inception_5b/relu_3x3_reduce
I0403 21:53:43.557412 24610 net.cpp:148] Top shape: 24 192 7 7 (225792)
I0403 21:53:43.557426 24610 net.cpp:156] Memory required for data: 1330660896
I0403 21:53:43.557440 24610 layer_factory.hpp:77] Creating layer inception_5b/3x3
I0403 21:53:43.557462 24610 net.cpp:91] Creating Layer inception_5b/3x3
I0403 21:53:43.557479 24610 net.cpp:425] inception_5b/3x3 <- inception_5b/3x3_reduce
I0403 21:53:43.557500 24610 net.cpp:399] inception_5b/3x3 -> inception_5b/3x3
I0403 21:53:43.564082 24610 net.cpp:141] Setting up inception_5b/3x3
I0403 21:53:43.564110 24610 net.cpp:148] Top shape: 24 384 7 7 (451584)
I0403 21:53:43.564126 24610 net.cpp:156] Memory required for data: 1332467232
I0403 21:53:43.564143 24610 layer_factory.hpp:77] Creating layer inception_5b/relu_3x3
I0403 21:53:43.564163 24610 net.cpp:91] Creating Layer inception_5b/relu_3x3
I0403 21:53:43.564179 24610 net.cpp:425] inception_5b/relu_3x3 <- inception_5b/3x3
I0403 21:53:43.564199 24610 net.cpp:386] inception_5b/relu_3x3 -> inception_5b/3x3 (in-place)
I0403 21:53:43.564494 24610 net.cpp:141] Setting up inception_5b/relu_3x3
I0403 21:53:43.564519 24610 net.cpp:148] Top shape: 24 384 7 7 (451584)
I0403 21:53:43.564533 24610 net.cpp:156] Memory required for data: 1334273568
I0403 21:53:43.564548 24610 layer_factory.hpp:77] Creating layer inception_5b/5x5_reduce
I0403 21:53:43.564584 24610 net.cpp:91] Creating Layer inception_5b/5x5_reduce
I0403 21:53:43.564602 24610 net.cpp:425] inception_5b/5x5_reduce <- inception_5a/output_inception_5a/output_0_split_2
I0403 21:53:43.564623 24610 net.cpp:399] inception_5b/5x5_reduce -> inception_5b/5x5_reduce
I0403 21:53:43.565868 24610 net.cpp:141] Setting up inception_5b/5x5_reduce
I0403 21:53:43.565896 24610 net.cpp:148] Top shape: 24 48 7 7 (56448)
I0403 21:53:43.565910 24610 net.cpp:156] Memory required for data: 1334499360
I0403 21:53:43.565927 24610 layer_factory.hpp:77] Creating layer inception_5b/relu_5x5_reduce
I0403 21:53:43.565946 24610 net.cpp:91] Creating Layer inception_5b/relu_5x5_reduce
I0403 21:53:43.565963 24610 net.cpp:425] inception_5b/relu_5x5_reduce <- inception_5b/5x5_reduce
I0403 21:53:43.565979 24610 net.cpp:386] inception_5b/relu_5x5_reduce -> inception_5b/5x5_reduce (in-place)
I0403 21:53:43.566349 24610 net.cpp:141] Setting up inception_5b/relu_5x5_reduce
I0403 21:53:43.566373 24610 net.cpp:148] Top shape: 24 48 7 7 (56448)
I0403 21:53:43.566388 24610 net.cpp:156] Memory required for data: 1334725152
I0403 21:53:43.566403 24610 layer_factory.hpp:77] Creating layer inception_5b/5x5
I0403 21:53:43.566422 24610 net.cpp:91] Creating Layer inception_5b/5x5
I0403 21:53:43.566438 24610 net.cpp:425] inception_5b/5x5 <- inception_5b/5x5_reduce
I0403 21:53:43.566457 24610 net.cpp:399] inception_5b/5x5 -> inception_5b/5x5
I0403 21:53:43.568501 24610 net.cpp:141] Setting up inception_5b/5x5
I0403 21:53:43.568528 24610 net.cpp:148] Top shape: 24 128 7 7 (150528)
I0403 21:53:43.568543 24610 net.cpp:156] Memory required for data: 1335327264
I0403 21:53:43.568562 24610 layer_factory.hpp:77] Creating layer inception_5b/relu_5x5
I0403 21:53:43.568581 24610 net.cpp:91] Creating Layer inception_5b/relu_5x5
I0403 21:53:43.568598 24610 net.cpp:425] inception_5b/relu_5x5 <- inception_5b/5x5
I0403 21:53:43.568616 24610 net.cpp:386] inception_5b/relu_5x5 -> inception_5b/5x5 (in-place)
I0403 21:53:43.568804 24610 net.cpp:141] Setting up inception_5b/relu_5x5
I0403 21:53:43.568830 24610 net.cpp:148] Top shape: 24 128 7 7 (150528)
I0403 21:53:43.568845 24610 net.cpp:156] Memory required for data: 1335929376
I0403 21:53:43.568861 24610 layer_factory.hpp:77] Creating layer inception_5b/pool
I0403 21:53:43.568877 24610 net.cpp:91] Creating Layer inception_5b/pool
I0403 21:53:43.568893 24610 net.cpp:425] inception_5b/pool <- inception_5a/output_inception_5a/output_0_split_3
I0403 21:53:43.568913 24610 net.cpp:399] inception_5b/pool -> inception_5b/pool
I0403 21:53:43.568984 24610 net.cpp:141] Setting up inception_5b/pool
I0403 21:53:43.569006 24610 net.cpp:148] Top shape: 24 832 7 7 (978432)
I0403 21:53:43.569020 24610 net.cpp:156] Memory required for data: 1339843104
I0403 21:53:43.569034 24610 layer_factory.hpp:77] Creating layer inception_5b/pool_proj
I0403 21:53:43.569056 24610 net.cpp:91] Creating Layer inception_5b/pool_proj
I0403 21:53:43.569073 24610 net.cpp:425] inception_5b/pool_proj <- inception_5b/pool
I0403 21:53:43.569093 24610 net.cpp:399] inception_5b/pool_proj -> inception_5b/pool_proj
I0403 21:53:43.571384 24610 net.cpp:141] Setting up inception_5b/pool_proj
I0403 21:53:43.571413 24610 net.cpp:148] Top shape: 24 128 7 7 (150528)
I0403 21:53:43.571429 24610 net.cpp:156] Memory required for data: 1340445216
I0403 21:53:43.571446 24610 layer_factory.hpp:77] Creating layer inception_5b/relu_pool_proj
I0403 21:53:43.571470 24610 net.cpp:91] Creating Layer inception_5b/relu_pool_proj
I0403 21:53:43.571486 24610 net.cpp:425] inception_5b/relu_pool_proj <- inception_5b/pool_proj
I0403 21:53:43.571503 24610 net.cpp:386] inception_5b/relu_pool_proj -> inception_5b/pool_proj (in-place)
I0403 21:53:43.571799 24610 net.cpp:141] Setting up inception_5b/relu_pool_proj
I0403 21:53:43.571825 24610 net.cpp:148] Top shape: 24 128 7 7 (150528)
I0403 21:53:43.571840 24610 net.cpp:156] Memory required for data: 1341047328
I0403 21:53:43.571854 24610 layer_factory.hpp:77] Creating layer inception_5b/output
I0403 21:53:43.571874 24610 net.cpp:91] Creating Layer inception_5b/output
I0403 21:53:43.571914 24610 net.cpp:425] inception_5b/output <- inception_5b/1x1
I0403 21:53:43.571934 24610 net.cpp:425] inception_5b/output <- inception_5b/3x3
I0403 21:53:43.571951 24610 net.cpp:425] inception_5b/output <- inception_5b/5x5
I0403 21:53:43.571967 24610 net.cpp:425] inception_5b/output <- inception_5b/pool_proj
I0403 21:53:43.571985 24610 net.cpp:399] inception_5b/output -> inception_5b/output
I0403 21:53:43.572036 24610 net.cpp:141] Setting up inception_5b/output
I0403 21:53:43.572062 24610 net.cpp:148] Top shape: 24 1024 7 7 (1204224)
I0403 21:53:43.572077 24610 net.cpp:156] Memory required for data: 1345864224
I0403 21:53:43.572093 24610 layer_factory.hpp:77] Creating layer pool5/7x7_s1
I0403 21:53:43.572109 24610 net.cpp:91] Creating Layer pool5/7x7_s1
I0403 21:53:43.572126 24610 net.cpp:425] pool5/7x7_s1 <- inception_5b/output
I0403 21:53:43.572146 24610 net.cpp:399] pool5/7x7_s1 -> pool5/7x7_s1
I0403 21:53:43.572373 24610 net.cpp:141] Setting up pool5/7x7_s1
I0403 21:53:43.572398 24610 net.cpp:148] Top shape: 24 1024 1 1 (24576)
I0403 21:53:43.572413 24610 net.cpp:156] Memory required for data: 1345962528
I0403 21:53:43.572427 24610 layer_factory.hpp:77] Creating layer pool5/drop_7x7_s1
I0403 21:53:43.572448 24610 net.cpp:91] Creating Layer pool5/drop_7x7_s1
I0403 21:53:43.572464 24610 net.cpp:425] pool5/drop_7x7_s1 <- pool5/7x7_s1
I0403 21:53:43.572481 24610 net.cpp:386] pool5/drop_7x7_s1 -> pool5/7x7_s1 (in-place)
I0403 21:53:43.572531 24610 net.cpp:141] Setting up pool5/drop_7x7_s1
I0403 21:53:43.572554 24610 net.cpp:148] Top shape: 24 1024 1 1 (24576)
I0403 21:53:43.572568 24610 net.cpp:156] Memory required for data: 1346060832
I0403 21:53:43.572582 24610 layer_factory.hpp:77] Creating layer loss3/classifier_plantvillage
I0403 21:53:43.572602 24610 net.cpp:91] Creating Layer loss3/classifier_plantvillage
I0403 21:53:43.572619 24610 net.cpp:425] loss3/classifier_plantvillage <- pool5/7x7_s1
I0403 21:53:43.572638 24610 net.cpp:399] loss3/classifier_plantvillage -> loss3/classifier_plantvillage
I0403 21:53:43.573051 24610 net.cpp:141] Setting up loss3/classifier_plantvillage
I0403 21:53:43.573074 24610 net.cpp:148] Top shape: 24 38 (912)
I0403 21:53:43.573089 24610 net.cpp:156] Memory required for data: 1346064480
I0403 21:53:43.573107 24610 layer_factory.hpp:77] Creating layer loss3/classifier_plantvillage_loss3/classifier_plantvillage_0_split
I0403 21:53:43.573124 24610 net.cpp:91] Creating Layer loss3/classifier_plantvillage_loss3/classifier_plantvillage_0_split
I0403 21:53:43.573140 24610 net.cpp:425] loss3/classifier_plantvillage_loss3/classifier_plantvillage_0_split <- loss3/classifier_plantvillage
I0403 21:53:43.573160 24610 net.cpp:399] loss3/classifier_plantvillage_loss3/classifier_plantvillage_0_split -> loss3/classifier_plantvillage_loss3/classifier_plantvillage_0_split_0
I0403 21:53:43.573181 24610 net.cpp:399] loss3/classifier_plantvillage_loss3/classifier_plantvillage_0_split -> loss3/classifier_plantvillage_loss3/classifier_plantvillage_0_split_1
I0403 21:53:43.573205 24610 net.cpp:399] loss3/classifier_plantvillage_loss3/classifier_plantvillage_0_split -> loss3/classifier_plantvillage_loss3/classifier_plantvillage_0_split_2
I0403 21:53:43.573227 24610 net.cpp:399] loss3/classifier_plantvillage_loss3/classifier_plantvillage_0_split -> loss3/classifier_plantvillage_loss3/classifier_plantvillage_0_split_3
I0403 21:53:43.573328 24610 net.cpp:141] Setting up loss3/classifier_plantvillage_loss3/classifier_plantvillage_0_split
I0403 21:53:43.573350 24610 net.cpp:148] Top shape: 24 38 (912)
I0403 21:53:43.573366 24610 net.cpp:148] Top shape: 24 38 (912)
I0403 21:53:43.573381 24610 net.cpp:148] Top shape: 24 38 (912)
I0403 21:53:43.573395 24610 net.cpp:148] Top shape: 24 38 (912)
I0403 21:53:43.573410 24610 net.cpp:156] Memory required for data: 1346079072
I0403 21:53:43.573423 24610 layer_factory.hpp:77] Creating layer loss1/loss
I0403 21:53:43.573451 24610 net.cpp:91] Creating Layer loss1/loss
I0403 21:53:43.573467 24610 net.cpp:425] loss1/loss <- loss1/classifier_plantvillage_loss1/classifier_plantvillage_0_split_0
I0403 21:53:43.573498 24610 net.cpp:425] loss1/loss <- label_data_1_split_0
…
