…
I0403 21:38:42.916056 23730 net.cpp:313] The NetState phase (1) differed from the phase (0) specified by a rule in layer data
I0403 21:38:42.917186 23730 net.cpp:49] Initializing net from parameters: 
state {
  phase: TEST
}
layer {
  name: "data"
  type: "Data"
  top: "data"
  top: "label"
  include {
    phase: TEST
  }
  transform_param {
    mirror: false
    crop_size: 224
    mean_file: "/home/mohanty/data/final_dataset/lmdb/segmented-80-20/mean.binaryproto"
  }
  data_param {
    source: "/home/mohanty/data/final_dataset/lmdb/segmented-80-20/test_db"
    batch_size: 24
    backend: LMDB
  }
}
layer {
  name: "conv1/7x7_s2"
  type: "Convolution"
  bottom: "data"
  top: "conv1/7x7_s2"
  param {
    lr_mult: 1
    decay_mult: 1
  }
  param {
    lr_mult: 2
    decay_mult: 0
  }
  convolution_param {
    num_output: 64
    pad: 3
    kernel_size: 7
    stride: 2
    weight_filler {
      type: "xavier"
      std: 0.1
    }
    bias_filler {
      type: "constant"
      value: 0.2
    }
  }
}
layer {
  name: "conv1/relu_7x7"
  type: "ReLU"
  bottom: "conv1/7x7_s2"
  top: "conv1/7x7_s2"
}
layer {
  name: "pool1/3x3_s2"
  type: "Pooling"
  bottom: "conv1/7x7_s2"
  top: "pool1/3x3_s2"
  pooling_param {
    pool: MAX
    kernel_size: 3
    stride: 2
  }
}
layer {
  name: "pool1/norm1"
  type: "LRN"
  bottom: "pool1/3x3_s2"
  top: "pool1/norm1"
  lrn_param {
    local_size: 5
    alpha: 0.0001
    beta: 0.75
  }
}
layer {
  name: "conv2/3x3_reduce"
  type: "Convolution"
  bottom: "pool1/norm1"
  top: "conv2/3x3_reduce"
  param {
    lr_mult: 1
    decay_mult: 1
  }
  param {
    lr_mult: 2
    decay_mult: 0
  }
  convolution_param {
    num_output: 64
    kernel_size: 1
    weight_filler {
      type: "xavier"
      std: 0.1
    }
    bias_filler {
      type: "constant"
      value: 0.2
    }
  }
}
layer {
  name: "conv2/relu_3x3_reduce"
  type: "ReLU"
  bottom: "conv2/3x3_reduce"
  top: "conv2/3x3_reduce"
}
layer {
  name: "conv2/3x3"
  type: "Convolution"
  bottom: "conv2/3x3_reduce"
  top: "conv2/3x3"
  param {
    lr_mult: 1
    decay_mult: 1
  }
  param {
    lr_mult: 2
    decay_mult: 0
  }
  convolution_param {
    num_output: 192
    pad: 1
    kernel_size: 3
    weight_filler {
      type: "xavier"
      std: 0.03
    }
    bias_filler {
      type: "constant"
      value: 0.2
    }
  }
}
layer {
  name: "conv2/relu_3x3"
  type: "ReLU"
  bottom: "conv2/3x3"
  top: "conv2/3x3"
}
layer {
  name: "conv2/norm2"
  type: "LRN"
  bottom: "conv2/3x3"
  top: "conv2/norm2"
  lrn_param {
    local_size: 5
    alpha: 0.0001
    beta: 0.75
  }
}
layer {
  name: "pool2/3x3_s2"
  type: "Pooling"
  bottom: "conv2/norm2"
  top: "pool2/3x3_s2"
  pooling_param {
    pool: MAX
    kernel_size: 3
    stride: 2
  }
}
layer {
  name: "inception_3a/1x1"
  type: "Convolution"
  bottom: "pool2/3x3_s2"
  top: "inception_3a/1x1"
  param {
    lr_mult: 1
    decay_mult: 1
  }
  param {
    lr_mult: 2
    decay_mult: 0
  }
  convolution_param {
    num_output: 64
    kernel_size: 1
    weight_filler {
      type: "xavier"
      std: 0.03
    }
    bias_filler {
      type: "constant"
      value: 0.2
    }
  }
}
layer {
  name: "inception_3a/relu_1x1"
  type: "ReLU"
  bottom: "inception_3a/1x1"
  top: "inception_3a/1x1"
}
layer {
  name: "inception_3a/3x3_reduce"
  type: "Convolution"
  bottom: "pool2/3x3_s2"
  top: "inception_3a/3x3_reduce"
  param {
    lr_mult: 1
    decay_mult: 1
  }
  param {
    lr_mult: 2
    decay_mult: 0
  }
  convolution_param {
    num_output: 96
    kernel_size: 1
    weight_filler {
      type: "xavier"
      std: 0.09
    }
    bias_filler {
      type: "constant"
      value: 0.2
    }
  }
}
layer {
  name: "inception_3a/relu_3x3_reduce"
  type: "ReLU"
  bottom: "inception_3a/3x3_reduce"
  top: "inception_3a/3x3_reduce"
}
layer {
  name: "inception_3a/3x3"
  type: "Convolution"
  bottom: "inception_3a/3x3_reduce"
  top: "inception_3a/3x3"
  param {
    lr_mult: 1
    decay_mult: 1
  }
  param {
    lr_mult: 2
    decay_mult: 0
  }
  convolution_param {
    num_output: 128
    pad: 1
    kernel_size: 3
    weight_filler {
      type: "xavier"
      std: 0.03
    }
    bias_filler {
      type: "constant"
      value: 0.2
    }
  }
}
layer {
  name: "inception_3a/relu_3x3"
  type: "ReLU"
  bottom: "inception_3a/3x3"
  top: "inception_3a/3x3"
}
layer {
  name: "inception_3a/5x5_reduce"
  type: "Convolution"
  bottom: "pool2/3x3_s2"
  top: "inception_3a/5x5_reduce"
  param {
    lr_mult: 1
    decay_mult: 1
  }
  param {
    lr_mult: 2
    decay_mult: 0
  }
  convolution_param {
    num_output: 16
    kernel_size: 1
    weight_filler {
      type: "xavier"
      std: 0.2
    }
    bias_filler {
      type: "constant"
      value: 0.2
    }
  }
}
layer {
  name: "inception_3a/relu_5x5_reduce"
  type: "ReLU"
  bottom: "inception_3a/5x5_reduce"
  top: "inception_3a/5x5_reduce"
}
layer {
  name: "inception_3a/5x5"
  type: "Convolution"
  bottom: "inception_3a/5x5_reduce"
  top: "inception_3a/5x5"
  param {
    lr_mult: 1
    decay_mult: 1
  }
  param {
    lr_mult: 2
    decay_mult: 0
  }
  convolution_param {
    num_output: 32
    pad: 2
    kernel_size: 5
    weight_filler {
      type: "xavier"
      std: 0.03
    }
    bias_filler {
      type: "constant"
      value: 0.2
    }
  }
}
layer {
  name: "inception_3a/relu_5x5"
  type: "ReLU"
  bottom: "inception_3a/5x5"
  top: "inception_3a/5x5"
}
layer {
  name: "inception_3a/pool"
  type: "Pooling"
  bottom: "pool2/3x3_s2"
  top: "inception_3a/pool"
  pooling_param {
    pool: MAX
    kernel_size: 3
    stride: 1
    pad: 1
  }
}
layer {
  name: "inception_3a/pool_proj"
  type: "Convolution"
  bottom: "inception_3a/pool"
  top: "inception_3a/pool_proj"
  param {
    lr_mult: 1
    decay_mult: 1
  }
  param {
    lr_mult: 2
    decay_mult: 0
  }
  convolution_param {
    num_output: 32
    kernel_size: 1
    weight_filler {
      type: "xavier"
      std: 0.1
    }
    bias_filler {
      type: "constant"
      value: 0.2
    }
  }
}
layer {
  name: "inception_3a/relu_pool_proj"
  type: "ReLU"
  bottom: "inception_3a/pool_proj"
  top: "inception_3a/pool_proj"
}
layer {
  name: "inception_3a/output"
  type: "Concat"
  bottom: "inception_3a/1x1"
  bottom: "inception_3a/3x3"
  bottom: "inception_3a/5x5"
  bottom: "inception_3a/pool_proj"
  top: "inception_3a/output"
}
layer {
  name: "inception_3b/1x1"
  type: "Convolution"
  bottom: "inception_3a/output"
  top: "inception_3b/1x1"
  param {
    lr_mult: 1
    decay_mult: 1
  }
  param {
    lr_mult: 2
    decay_mult: 0
  }
  convolution_param {
    num_output: 128
    kernel_size: 1
    weight_filler {
      type: "xavier"
      std: 0.03
    }
    bias_filler {
      type: "constant"
      value: 0.2
    }
  }
}
layer {
  name: "inception_3b/relu_1x1"
  type: "ReLU"
  bottom: "inception_3b/1x1"
  top: "inception_3b/1x1"
}
layer {
  name: "inception_3b/3x3_reduce"
  type: "Convolution"
  bottom: "inception_3a/output"
  top: "inception_3b/3x3_reduce"
  param {
    lr_mult: 1
    decay_mult: 1
  }
  param {
    lr_mult: 2
    decay_mult: 0
  }
  convolution_param {
    num_output: 128
    kernel_size: 1
    weight_filler {
      type: "xavier"
      std: 0.09
    }
    bias_filler {
      type: "constant"
      value: 0.2
    }
  }
}
layer {
  name: "inception_3b/relu_3x3_reduce"
  type: "ReLU"
  bottom: "inception_3b/3x3_reduce"
  top: "inception_3b/3x3_reduce"
}
layer {
  name: "inception_3b/3x3"
  type: "Convolution"
  bottom: "inception_3b/3x3_reduce"
  top: "inception_3b/3x3"
  param {
    lr_mult: 1
    decay_mult: 1
  }
  param {
    lr_mult: 2
    decay_mult: 0
  }
  convolution_param {
    num_output: 192
    pad: 1
    kernel_size: 3
    weight_filler {
      type: "xavier"
      std: 0.03
    }
    bias_filler {
      type: "constant"
      value: 0.2
    }
  }
}
layer {
  name: "inception_3b/relu_3x3"
  type: "ReLU"
  bottom: "inception_3b/3x3"
  top: "inception_3b/3x3"
}
layer {
  name: "inception_3b/5x5_reduce"
  type: "Convolution"
  bottom: "inception_3a/output"
  top: "inception_3b/5x5_reduce"
  param {
    lr_mult: 1
    decay_mult: 1
  }
  param {
    lr_mult: 2
    decay_mult: 0
  }
  convolution_param {
    num_output: 32
    kernel_size: 1
    weight_filler {
      type: "xavier"
      std: 0.2
    }
    bias_filler {
      type: "constant"
      value: 0.2
    }
  }
}
layer {
  name: "inception_3b/relu_5x5_reduce"
  type: "ReLU"
  bottom: "inception_3b/5x5_reduce"
  top: "inception_3b/5x5_reduce"
}
layer {
  name: "inception_3b/5x5"
  type: "Convolution"
  bottom: "inception_3b/5x5_reduce"
  top: "inception_3b/5x5"
  param {
    lr_mult: 1
    decay_mult: 1
  }
  param {
    lr_mult: 2
    decay_mult: 0
  }
  convolution_param {
    num_output: 96
    pad: 2
    kernel_size: 5
    weight_filler {
      type: "xavier"
      std: 0.03
    }
    bias_filler {
      type: "constant"
      value: 0.2
    }
  }
}
layer {
  name: "inception_3b/relu_5x5"
  type: "ReLU"
  bottom: "inception_3b/5x5"
  top: "inception_3b/5x5"
}
layer {
  name: "inception_3b/pool"
  type: "Pooling"
  bottom: "inception_3a/output"
  top: "inception_3b/pool"
  pooling_param {
    pool: MAX
    kernel_size: 3
    stride: 1
    pad: 1
  }
}
layer {
  name: "inception_3b/pool_proj"
  type: "Convolution"
  bottom: "inception_3b/pool"
  top: "inception_3b/pool_proj"
  param {
    lr_mult: 1
    decay_mult: 1
  }
  param {
    lr_mult: 2
    decay_mult: 0
  }
  convolution_param {
    num_output: 64
    kernel_size: 1
    weight_filler {
      type: "xavier"
      std: 0.1
    }
    bias_filler {
      type: "constant"
      value: 0.2
    }
  }
}
layer {
  name: "inception_3b/relu_pool_proj"
  type: "ReLU"
  bottom: "inception_3b/pool_proj"
  top: "inception_3b/pool_proj"
}
layer {
  name: "inception_3b/output"
  type: "Concat"
  bottom: "inception_3b/1x1"
  bottom: "inception_3b/3x3"
  bottom: "inception_3b/5x5"
  bottom: "inception_3b/pool_proj"
  top: "inception_3b/output"
}
layer {
  name: "pool3/3x3_s2"
  type: "Pooling"
  bottom: "inception_3b/output"
  top: "pool3/3x3_s2"
  pooling_param {
    pool: MAX
    kernel_size: 3
    stride: 2
  }
}
layer {
  name: "inception_4a/1x1"
  type: "Convolution"
  bottom: "pool3/3x3_s2"
  top: "inception_4a/1x1"
  param {
    lr_mult: 1
    decay_mult: 1
  }
  param {
    lr_mult: 2
    decay_mult: 0
  }
  convolution_param {
    num_output: 192
    kernel_size: 1
    weight_filler {
      type: "xavier"
      std: 0.03
    }
    bias_filler {
      type: "constant"
      value: 0.2
    }
  }
}
layer {
  name: "inception_4a/relu_1x1"
  type: "ReLU"
  bottom: "inception_4a/1x1"
  top: "inception_4a/1x1"
}
layer {
  name: "inception_4a/3x3_reduce"
  type: "Convolution"
  bottom: "pool3/3x3_s2"
  top: "inception_4a/3x3_reduce"
  param {
    lr_mult: 1
    decay_mult: 1
  }
  param {
    lr_mult: 2
    decay_mult: 0
  }
  convolution_param {
    num_output: 96
    kernel_size: 1
    weight_filler {
      type: "xavier"
      std: 0.09
    }
    bias_filler {
      type: "constant"
      value: 0.2
    }
  }
}
layer {
  name: "inception_4a/relu_3x3_reduce"
  type: "ReLU"
  bottom: "inception_4a/3x3_reduce"
  top: "inception_4a/3x3_reduce"
}
layer {
  name: "inception_4a/3x3"
  type: "Convolution"
  bottom: "inception_4a/3x3_reduce"
  top: "inception_4a/3x3"
  param {
    lr_mult: 1
    decay_mult: 1
  }
  param {
    lr_mult: 2
    decay_mult: 0
  }
  convolution_param {
    num_output: 208
    pad: 1
    kernel_size: 3
    weight_filler {
      type: "xavier"
      std: 0.03
    }
    bias_filler {
      type: "constant"
      value: 0.2
    }
  }
}
layer {
  name: "inception_4a/relu_3x3"
  type: "ReLU"
  bottom: "inception_4a/3x3"
  top: "inception_4a/3x3"
}
layer {
  name: "inception_4a/5x5_reduce"
  type: "Convolution"
  bottom: "pool3/3x3_s2"
  top: "inception_4a/5x5_reduce"
  param {
    lr_mult: 1
    decay_mult: 1
  }
  param {
    lr_mult: 2
    decay_mult: 0
  }
  convolution_param {
    num_output: 16
    kernel_size: 1
    weight_filler {
      type: "xavier"
      std: 0.2
    }
    bias_filler {
      type: "constant"
      value: 0.2
    }
  }
}
layer {
  name: "inception_4a/relu_5x5_reduce"
  type: "ReLU"
  bottom: "inception_4a/5x5_reduce"
  top: "inception_4a/5x5_reduce"
}
layer {
  name: "inception_4a/5x5"
  type: "Convolution"
  bottom: "inception_4a/5x5_reduce"
  top: "inception_4a/5x5"
  param {
    lr_mult: 1
    decay_mult: 1
  }
  param {
    lr_mult: 2
    decay_mult: 0
  }
  convolution_param {
    num_output: 48
    pad: 2
    kernel_size: 5
    weight_filler {
      type: "xavier"
      std: 0.03
    }
    bias_filler {
      type: "constant"
      value: 0.2
    }
  }
}
layer {
  name: "inception_4a/relu_5x5"
  type: "ReLU"
  bottom: "inception_4a/5x5"
  top: "inception_4a/5x5"
}
layer {
  name: "inception_4a/pool"
  type: "Pooling"
  bottom: "pool3/3x3_s2"
  top: "inception_4a/pool"
  pooling_param {
    pool: MAX
    kernel_size: 3
    stride: 1
    pad: 1
  }
}
layer {
  name: "inception_4a/pool_proj"
  type: "Convolution"
  bottom: "inception_4a/pool"
  top: "inception_4a/pool_proj"
  param {
    lr_mult: 1
    decay_mult: 1
  }
  param {
    lr_mult: 2
    decay_mult: 0
  }
  convolution_param {
    num_output: 64
    kernel_size: 1
    weight_filler {
      type: "xavier"
      std: 0.1
    }
    bias_filler {
      type: "constant"
      value: 0.2
    }
  }
}
layer {
  name: "inception_4a/relu_pool_proj"
  type: "ReLU"
  bottom: "inception_4a/pool_proj"
  top: "inception_4a/pool_proj"
}
layer {
  name: "inception_4a/output"
  type: "Concat"
  bottom: "inception_4a/1x1"
  bottom: "inception_4a/3x3"
  bottom: "inception_4a/5x5"
  bottom: "inception_4a/pool_proj"
  top: "inception_4a/output"
}
layer {
  name: "loss1/ave_pool"
  type: "Pooling"
  bottom: "inception_4a/output"
  top: "loss1/ave_pool"
  pooling_param {
    pool: AVE
    kernel_size: 5
    stride: 3
  }
}
layer {
  name: "loss1/conv"
  type: "Convolution"
  bottom: "loss1/ave_pool"
  top: "loss1/conv"
  param {
    lr_mult: 1
    decay_mult: 1
  }
  param {
    lr_mult: 2
    decay_mult: 0
  }
  convolution_param {
    num_output: 128
    kernel_size: 1
    weight_filler {
      type: "xavier"
      std: 0.08
    }
    bias_filler {
      type: "constant"
      value: 0.2
    }
  }
}
layer {
  name: "loss1/relu_conv"
  type: "ReLU"
  bottom: "loss1/conv"
  top: "loss1/conv"
}
layer {
  name: "loss1/fc"
  type: "InnerProduct"
  bottom: "loss1/conv"
  top: "loss1/fc"
  param {
    lr_mult: 1
    decay_mult: 1
  }
  param {
    lr_mult: 2
    decay_mult: 0
  }
  inner_product_param {
    num_output: 1024
    weight_filler {
      type: "xavier"
      std: 0.02
    }
    bias_filler {
      type: "constant"
      value: 0.2
    }
  }
}
layer {
  name: "loss1/relu_fc"
  type: "ReLU"
  bottom: "loss1/fc"
  top: "loss1/fc"
}
layer {
  name: "loss1/drop_fc"
  type: "Dropout"
  bottom: "loss1/fc"
  top: "loss1/fc"
  dropout_param {
    dropout_ratio: 0.7
  }
}
layer {
  name: "loss1/classifier_plantvillage"
  type: "InnerProduct"
  bottom: "loss1/fc"
  top: "loss1/classifier_plantvillage"
  param {
    lr_mult: 1
    decay_mult: 1
  }
  param {
    lr_mult: 2
    decay_mult: 0
  }
  inner_product_param {
    num_output: 38
    weight_filler {
      type: "xavier"
      std: 0.0009765625
    }
    bias_filler {
      type: "constant"
      value: 0
    }
  }
}
layer {
  name: "inception_4b/1x1"
  type: "Convolution"
  bottom: "inception_4a/output"
  top: "inception_4b/1x1"
  param {
    lr_mult: 1
    decay_mult: 1
  }
  param {
    lr_mult: 2
    decay_mult: 0
  }
  convolution_param {
    num_output: 160
    kernel_size: 1
    weight_filler {
      type: "xavier"
      std: 0.03
    }
    bias_filler {
      type: "constant"
      value: 0.2
    }
  }
}
layer {
  name: "inception_4b/relu_1x1"
  type: "ReLU"
  bottom: "inception_4b/1x1"
  top: "inception_4b/1x1"
}
layer {
  name: "inception_4b/3x3_reduce"
  type: "Convolution"
  bottom: "inception_4a/output"
  top: "inception_4b/3x3_reduce"
  param {
    lr_mult: 1
    decay_mult: 1
  }
  param {
    lr_mult: 2
    decay_mult: 0
  }
  convolution_param {
    num_output: 112
    kernel_size: 1
    weight_filler {
      type: "xavier"
      std: 0.09
    }
    bias_filler {
      type: "constant"
      value: 0.2
    }
  }
}
layer {
  name: "inception_4b/relu_3x3_reduce"
  type: "ReLU"
  bottom: "inception_4b/3x3_reduce"
  top: "inception_4b/3x3_reduce"
}
layer {
  name: "inception_4b/3x3"
  type: "Convolution"
  bottom: "inception_4b/3x3_reduce"
  top: "inception_4b/3x3"
  param {
    lr_mult: 1
    decay_mult: 1
  }
  param {
    lr_mult: 2
    decay_mult: 0
  }
  convolution_param {
    num_output: 224
    pad: 1
    kernel_size: 3
    weight_filler {
      type: "xavier"
      std: 0.03
    }
    bias_filler {
      type: "constant"
      value: 0.2
    }
  }
}
layer {
  name: "inception_4b/relu_3x3"
  type: "ReLU"
  bottom: "inception_4b/3x3"
  top: "inception_4b/3x3"
}
layer {
  name: "inception_4b/5x5_reduce"
  type: "Convolution"
  bottom: "inception_4a/output"
  top: "inception_4b/5x5_reduce"
  param {
    lr_mult: 1
    decay_mult: 1
  }
  param {
    lr_mult: 2
    decay_mult: 0
  }
  convolution_param {
    num_output: 24
    kernel_size: 1
    weight_filler {
      type: "xavier"
      std: 0.2
    }
    bias_filler {
      type: "constant"
      value: 0.2
    }
  }
}
layer {
  name: "inception_4b/relu_5x5_reduce"
  type: "ReLU"
  bottom: "inception_4b/5x5_reduce"
  top: "inception_4b/5x5_reduce"
}
layer {
  name: "inception_4b/5x5"
  type: "Convolution"
  bottom: "inception_4b/5x5_reduce"
  top: "inception_4b/5x5"
  param {
    lr_mult: 1
    decay_mult: 1
  }
  param {
    lr_mult: 2
    decay_mult: 0
  }
  convolution_param {
    num_output: 64
    pad: 2
    kernel_size: 5
    weight_filler {
      type: "xavier"
      std: 0.03
    }
    bias_filler {
      type: "constant"
      value: 0.2
    }
  }
}
layer {
  name: "inception_4b/relu_5x5"
  type: "ReLU"
  bottom: "inception_4b/5x5"
  top: "inception_4b/5x5"
}
layer {
  name: "inception_4b/pool"
  type: "Pooling"
  bottom: "inception_4a/output"
  top: "inception_4b/pool"
  pooling_param {
    pool: MAX
    kernel_size: 3
    stride: 1
    pad: 1
  }
}
layer {
  name: "inception_4b/pool_proj"
  type: "Convolution"
  bottom: "inception_4b/pool"
  top: "inception_4b/pool_proj"
  param {
    lr_mult: 1
    decay_mult: 1
  }
  param {
    lr_mult: 2
    decay_mult: 0
  }
  convolution_param {
    num_output: 64
    kernel_size: 1
    weight_filler {
      type: "xavier"
      std: 0.1
    }
    bias_filler {
      type: "constant"
      value: 0.2
    }
  }
}
layer {
  name: "inception_4b/relu_pool_proj"
  type: "ReLU"
  bottom: "inception_4b/pool_proj"
  top: "inception_4b/pool_proj"
}
layer {
  name: "inception_4b/output"
  type: "Concat"
  bottom: "inception_4b/1x1"
  bottom: "inception_4b/3x3"
  bottom: "inception_4b/5x5"
  bottom: "inception_4b/pool_proj"
  top: "inception_4b/output"
}
layer {
  name: "inception_4c/1x1"
  type: "Convolution"
  bottom: "inception_4b/output"
  top: "inception_4c/1x1"
  param {
    lr_mult: 1
    decay_mult: 1
  }
  param {
    lr_mult: 2
    decay_mult: 0
  }
  convolution_param {
    num_output: 128
    kernel_size: 1
    weight_filler {
      type: "xavier"
      std: 0.03
    }
    bias_filler {
      type: "constant"
      value: 0.2
    }
  }
}
layer {
  name: "inception_4c/relu_1x1"
  type: "ReLU"
  bottom: "inception_4c/1x1"
  top: "inception_4c/1x1"
}
layer {
  name: "inception_4c/3x3_reduce"
  type: "Convolution"
  bottom: "inception_4b/output"
  top: "inception_4c/3x3_reduce"
  param {
    lr_mult: 1
    decay_mult: 1
  }
  param {
    lr_mult: 2
    decay_mult: 0
  }
  convolution_param {
    num_output: 128
    kernel_size: 1
    weight_filler {
      type: "xavier"
      std: 0.09
    }
    bias_filler {
      type: "constant"
      value: 0.2
    }
  }
}
layer {
  name: "inception_4c/relu_3x3_reduce"
  type: "ReLU"
  bottom: "inception_4c/3x3_reduce"
  top: "inception_4c/3x3_reduce"
}
layer {
  name: "inception_4c/3x3"
  type: "Convolution"
  bottom: "inception_4c/3x3_reduce"
  top: "inception_4c/3x3"
  param {
    lr_mult: 1
    decay_mult: 1
  }
  param {
    lr_mult: 2
    decay_mult: 0
  }
  convolution_param {
    num_output: 256
    pad: 1
    kernel_size: 3
    weight_filler {
      type: "xavier"
      std: 0.03
    }
    bias_filler {
      type: "constant"
      value: 0.2
    }
  }
}
layer {
  name: "inception_4c/relu_3x3"
  type: "ReLU"
  bottom: "inception_4c/3x3"
  top: "inception_4c/3x3"
}
layer {
  name: "inception_4c/5x5_reduce"
  type: "Convolution"
  bottom: "inception_4b/output"
  top: "inception_4c/5x5_reduce"
  param {
    lr_mult: 1
    decay_mult: 1
  }
  param {
    lr_mult: 2
    decay_mult: 0
  }
  convolution_param {
    num_output: 24
    kernel_size: 1
    weight_filler {
      type: "xavier"
      std: 0.2
    }
    bias_filler {
      type: "constant"
      value: 0.2
    }
  }
}
layer {
  name: "inception_4c/relu_5x5_reduce"
  type: "ReLU"
  bottom: "inception_4c/5x5_reduce"
  top: "inception_4c/5x5_reduce"
}
layer {
  name: "inception_4c/5x5"
  type: "Convolution"
  bottom: "inception_4c/5x5_reduce"
  top: "inception_4c/5x5"
  param {
    lr_mult: 1
    decay_mult: 1
  }
  param {
    lr_mult: 2
    decay_mult: 0
  }
  convolution_param {
    num_output: 64
    pad: 2
    kernel_size: 5
    weight_filler {
      type: "xavier"
      std: 0.03
    }
    bias_filler {
      type: "constant"
      value: 0.2
    }
  }
}
layer {
  name: "inception_4c/relu_5x5"
  type: "ReLU"
  bottom: "inception_4c/5x5"
  top: "inception_4c/5x5"
}
layer {
  name: "inception_4c/pool"
  type: "Pooling"
  bottom: "inception_4b/output"
  top: "inception_4c/pool"
  pooling_param {
    pool: MAX
    kernel_size: 3
    stride: 1
    pad: 1
  }
}
layer {
  name: "inception_4c/pool_proj"
  type: "Convolution"
  bottom: "inception_4c/pool"
  top: "inception_4c/pool_proj"
  param {
    lr_mult: 1
    decay_mult: 1
  }
  param {
    lr_mult: 2
    decay_mult: 0
  }
  convolution_param {
    num_output: 64
    kernel_size: 1
    weight_filler {
      type: "xavier"
      std: 0.1
    }
    bias_filler {
      type: "constant"
      value: 0.2
    }
  }
}
layer {
  name: "inception_4c/relu_pool_proj"
  type: "ReLU"
  bottom: "inception_4c/pool_proj"
  top: "inception_4c/pool_proj"
}
layer {
  name: "inception_4c/output"
  type: "Concat"
  bottom: "inception_4c/1x1"
  bottom: "inception_4c/3x3"
  bottom: "inception_4c/5x5"
  bottom: "inception_4c/pool_proj"
  top: "inception_4c/output"
}
layer {
  name: "inception_4d/1x1"
  type: "Convolution"
  bottom: "inception_4c/output"
  top: "inception_4d/1x1"
  param {
    lr_mult: 1
    decay_mult: 1
  }
  param {
    lr_mult: 2
    decay_mult: 0
  }
  convolution_param {
    num_output: 112
    kernel_size: 1
    weight_filler {
      type: "xavier"
      std: 0.03
    }
    bias_filler {
      type: "constant"
      value: 0.2
    }
  }
}
layer {
  name: "inception_4d/relu_1x1"
  type: "ReLU"
  bottom: "inception_4d/1x1"
  top: "inception_4d/1x1"
}
layer {
  name: "inception_4d/3x3_reduce"
  type: "Convolution"
  bottom: "inception_4c/output"
  top: "inception_4d/3x3_reduce"
  param {
    lr_mult: 1
    decay_mult: 1
  }
  param {
    lr_mult: 2
    decay_mult: 0
  }
  convolution_param {
    num_output: 144
    kernel_size: 1
    weight_filler {
      type: "xavier"
      std: 0.09
    }
    bias_filler {
      type: "constant"
      value: 0.2
    }
  }
}
layer {
  name: "inception_4d/relu_3x3_reduce"
  type: "ReLU"
  bottom: "inception_4d/3x3_reduce"
  top: "inception_4d/3x3_reduce"
}
layer {
  name: "inception_4d/3x3"
  type: "Convolution"
  bottom: "inception_4d/3x3_reduce"
  top: "inception_4d/3x3"
  param {
    lr_mult: 1
    decay_mult: 1
  }
  param {
    lr_mult: 2
    decay_mult: 0
  }
  convolution_param {
    num_output: 288
    pad: 1
    kernel_size: 3
    weight_filler {
      type: "xavier"
      std: 0.03
    }
    bias_filler {
      type: "constant"
      value: 0.2
    }
  }
}
layer {
  name: "inception_4d/relu_3x3"
  type: "ReLU"
  bottom: "inception_4d/3x3"
  top: "inception_4d/3x3"
}
layer {
  name: "inception_4d/5x5_reduce"
  type: "Convolution"
  bottom: "inception_4c/output"
  top: "inception_4d/5x5_reduce"
  param {
    lr_mult: 1
    decay_mult: 1
  }
  param {
    lr_mult: 2
    decay_mult: 0
  }
  convolution_param {
    num_output: 32
    kernel_size: 1
    weight_filler {
      type: "xavier"
      std: 0.2
    }
    bias_filler {
      type: "constant"
      value: 0.2
    }
  }
}
layer {
  name: "inception_4d/relu_5x5_reduce"
  type: "ReLU"
  bottom: "inception_4d/5x5_reduce"
  top: "inception_4d/5x5_reduce"
}
layer {
  name: "inception_4d/5x5"
  type: "Convolution"
  bottom: "inception_4d/5x5_reduce"
  top: "inception_4d/5x5"
  param {
    lr_mult: 1
    decay_mult: 1
  }
  param {
    lr_mult: 2
    decay_mult: 0
  }
  convolution_param {
    num_output: 64
    pad: 2
    kernel_size: 5
    weight_filler {
      type: "xavier"
      std: 0.03
    }
    bias_filler {
      type: "constant"
      value: 0.2
    }
  }
}
layer {
  name: "inception_4d/relu_5x5"
  type: "ReLU"
  bottom: "inception_4d/5x5"
  top: "inception_4d/5x5"
}
layer {
  name: "inception_4d/pool"
  type: "Pooling"
  bottom: "inception_4c/output"
  top: "inception_4d/pool"
  pooling_param {
    pool: MAX
    kernel_size: 3
    stride: 1
    pad: 1
  }
}
layer {
  name: "inception_4d/pool_proj"
  type: "Convolution"
  bottom: "inception_4d/pool"
  top: "inception_4d/pool_proj"
  param {
    lr_mult: 1
    decay_mult: 1
  }
  param {
    lr_mult: 2
    decay_mult: 0
  }
  convolution_param {
    num_output: 64
    kernel_size: 1
    weight_filler {
      type: "xavier"
      std: 0.1
    }
    bias_filler {
      type: "constant"
      value: 0.2
    }
  }
}
layer {
  name: "inception_4d/relu_pool_proj"
  type: "ReLU"
  bottom: "inception_4d/pool_proj"
  top: "inception_4d/pool_proj"
}
layer {
  name: "inception_4d/output"
  type: "Concat"
  bottom: "inception_4d/1x1"
  bottom: "inception_4d/3x3"
  bottom: "inception_4d/5x5"
  bottom: "inception_4d/pool_proj"
  top: "inception_4d/output"
}
layer {
  name: "loss2/ave_pool"
  type: "Pooling"
  bottom: "inception_4d/output"
  top: "loss2/ave_pool"
  pooling_param {
    pool: AVE
    kernel_size: 5
    stride: 3
  }
}
layer {
  name: "loss2/conv"
  type: "Convolution"
  bottom: "loss2/ave_pool"
  top: "loss2/conv"
  param {
    lr_mult: 1
    decay_mult: 1
  }
  param {
    lr_mult: 2
    decay_mult: 0
  }
  convolution_param {
    num_output: 128
    kernel_size: 1
    weight_filler {
      type: "xavier"
      std: 0.08
    }
    bias_filler {
      type: "constant"
      value: 0.2
    }
  }
}
layer {
  name: "loss2/relu_conv"
  type: "ReLU"
  bottom: "loss2/conv"
  top: "loss2/conv"
}
layer {
  name: "loss2/fc"
  type: "InnerProduct"
  bottom: "loss2/conv"
  top: "loss2/fc"
  param {
    lr_mult: 1
    decay_mult: 1
  }
  param {
    lr_mult: 2
    decay_mult: 0
  }
  inner_product_param {
    num_output: 1024
    weight_filler {
      type: "xavier"
      std: 0.02
    }
    bias_filler {
      type: "constant"
      value: 0.2
    }
  }
}
layer {
  name: "loss2/relu_fc"
  type: "ReLU"
  bottom: "loss2/fc"
  top: "loss2/fc"
}
layer {
  name: "loss2/drop_fc"
  type: "Dropout"
  bottom: "loss2/fc"
  top: "loss2/fc"
  dropout_param {
    dropout_ratio: 0.7
  }
}
layer {
  name: "loss2/classifier_plantvillage"
  type: "InnerProduct"
  bottom: "loss2/fc"
  top: "loss2/classifier_plantvillage"
  param {
    lr_mult: 1
    decay_mult: 1
  }
  param {
    lr_mult: 2
    decay_mult: 0
  }
  inner_product_param {
    num_output: 38
    weight_filler {
      type: "xavier"
      std: 0.0009765625
    }
    bias_filler {
      type: "constant"
      value: 0
    }
  }
}
layer {
  name: "inception_4e/1x1"
  type: "Convolution"
  bottom: "inception_4d/output"
  top: "inception_4e/1x1"
  param {
    lr_mult: 1
    decay_mult: 1
  }
  param {
    lr_mult: 2
    decay_mult: 0
  }
  convolution_param {
    num_output: 256
    kernel_size: 1
    weight_filler {
      type: "xavier"
      std: 0.03
    }
    bias_filler {
      type: "constant"
      value: 0.2
    }
  }
}
layer {
  name: "inception_4e/relu_1x1"
  type: "ReLU"
  bottom: "inception_4e/1x1"
  top: "inception_4e/1x1"
}
layer {
  name: "inception_4e/3x3_reduce"
  type: "Convolution"
  bottom: "inception_4d/output"
  top: "inception_4e/3x3_reduce"
  param {
    lr_mult: 1
    decay_mult: 1
  }
  param {
    lr_mult: 2
    decay_mult: 0
  }
  convolution_param {
    num_output: 160
    kernel_size: 1
    weight_filler {
      type: "xavier"
      std: 0.09
    }
    bias_filler {
      type: "constant"
      value: 0.2
    }
  }
}
layer {
  name: "inception_4e/relu_3x3_reduce"
  type: "ReLU"
  bottom: "inception_4e/3x3_reduce"
  top: "inception_4e/3x3_reduce"
}
layer {
  name: "inception_4e/3x3"
  type: "Convolution"
  bottom: "inception_4e/3x3_reduce"
  top: "inception_4e/3x3"
  param {
    lr_mult: 1
    decay_mult: 1
  }
  param {
    lr_mult: 2
    decay_mult: 0
  }
  convolution_param {
    num_output: 320
    pad: 1
    kernel_size: 3
    weight_filler {
      type: "xavier"
      std: 0.03
    }
    bias_filler {
      type: "constant"
      value: 0.2
    }
  }
}
layer {
  name: "inception_4e/relu_3x3"
  type: "ReLU"
  bottom: "inception_4e/3x3"
  top: "inception_4e/3x3"
}
layer {
  name: "inception_4e/5x5_reduce"
  type: "Convolution"
  bottom: "inception_4d/output"
  top: "inception_4e/5x5_reduce"
  param {
    lr_mult: 1
    decay_mult: 1
  }
  param {
    lr_mult: 2
    decay_mult: 0
  }
  convolution_param {
    num_output: 32
    kernel_size: 1
    weight_filler {
      type: "xavier"
      std: 0.2
    }
    bias_filler {
      type: "constant"
      value: 0.2
    }
  }
}
layer {
  name: "inception_4e/relu_5x5_reduce"
  type: "ReLU"
  bottom: "inception_4e/5x5_reduce"
  top: "inception_4e/5x5_reduce"
}
layer {
  name: "inception_4e/5x5"
  type: "Convolution"
  bottom: "inception_4e/5x5_reduce"
  top: "inception_4e/
I0403 21:38:42.918427 23730 layer_factory.hpp:77] Creating layer data
I0403 21:38:42.919031 23730 net.cpp:91] Creating Layer data
I0403 21:38:42.919066 23730 net.cpp:399] data -> data
I0403 21:38:42.919121 23730 net.cpp:399] data -> label
I0403 21:38:42.919158 23730 data_transformer.cpp:25] Loading mean file from: /home/mohanty/data/final_dataset/lmdb/segmented-80-20/mean.binaryproto
I0403 21:38:42.920305 23733 db_lmdb.cpp:38] Opened lmdb /home/mohanty/data/final_dataset/lmdb/segmented-80-20/test_db
I0403 21:38:42.932081 23730 data_layer.cpp:41] output data size: 24,3,224,224
I0403 21:38:42.959617 23730 net.cpp:141] Setting up data
I0403 21:38:42.959702 23730 net.cpp:148] Top shape: 24 3 224 224 (3612672)
I0403 21:38:42.959727 23730 net.cpp:148] Top shape: 24 (24)
I0403 21:38:42.959743 23730 net.cpp:156] Memory required for data: 14450784
I0403 21:38:42.959771 23730 layer_factory.hpp:77] Creating layer label_data_1_split
I0403 21:38:42.959799 23730 net.cpp:91] Creating Layer label_data_1_split
I0403 21:38:42.959820 23730 net.cpp:425] label_data_1_split <- label
I0403 21:38:42.959853 23730 net.cpp:399] label_data_1_split -> label_data_1_split_0
I0403 21:38:42.959883 23730 net.cpp:399] label_data_1_split -> label_data_1_split_1
I0403 21:38:42.959906 23730 net.cpp:399] label_data_1_split -> label_data_1_split_2
I0403 21:38:42.959928 23730 net.cpp:399] label_data_1_split -> label_data_1_split_3
I0403 21:38:42.959952 23730 net.cpp:399] label_data_1_split -> label_data_1_split_4
I0403 21:38:42.959975 23730 net.cpp:399] label_data_1_split -> label_data_1_split_5
I0403 21:38:42.959995 23730 net.cpp:399] label_data_1_split -> label_data_1_split_6
I0403 21:38:42.960017 23730 net.cpp:399] label_data_1_split -> label_data_1_split_7
I0403 21:38:42.960038 23730 net.cpp:399] label_data_1_split -> label_data_1_split_8
I0403 21:38:42.960059 23730 net.cpp:399] label_data_1_split -> label_data_1_split_9
I0403 21:38:42.960175 23730 net.cpp:141] Setting up label_data_1_split
I0403 21:38:42.960204 23730 net.cpp:148] Top shape: 24 (24)
I0403 21:38:42.960237 23730 net.cpp:148] Top shape: 24 (24)
I0403 21:38:42.960255 23730 net.cpp:148] Top shape: 24 (24)
I0403 21:38:42.960281 23730 net.cpp:148] Top shape: 24 (24)
I0403 21:38:42.960297 23730 net.cpp:148] Top shape: 24 (24)
I0403 21:38:42.960314 23730 net.cpp:148] Top shape: 24 (24)
I0403 21:38:42.960331 23730 net.cpp:148] Top shape: 24 (24)
I0403 21:38:42.960347 23730 net.cpp:148] Top shape: 24 (24)
I0403 21:38:42.960364 23730 net.cpp:148] Top shape: 24 (24)
I0403 21:38:42.960382 23730 net.cpp:148] Top shape: 24 (24)
I0403 21:38:42.960438 23730 net.cpp:156] Memory required for data: 14451744
I0403 21:38:42.960455 23730 layer_factory.hpp:77] Creating layer conv1/7x7_s2
I0403 21:38:42.960487 23730 net.cpp:91] Creating Layer conv1/7x7_s2
I0403 21:38:42.960508 23730 net.cpp:425] conv1/7x7_s2 <- data
I0403 21:38:42.960531 23730 net.cpp:399] conv1/7x7_s2 -> conv1/7x7_s2
I0403 21:38:43.103966 23730 net.cpp:141] Setting up conv1/7x7_s2
I0403 21:38:43.104048 23730 net.cpp:148] Top shape: 24 64 112 112 (19267584)
I0403 21:38:43.104065 23730 net.cpp:156] Memory required for data: 91522080
I0403 21:38:43.104097 23730 layer_factory.hpp:77] Creating layer conv1/relu_7x7
I0403 21:38:43.104125 23730 net.cpp:91] Creating Layer conv1/relu_7x7
I0403 21:38:43.104143 23730 net.cpp:425] conv1/relu_7x7 <- conv1/7x7_s2
I0403 21:38:43.104162 23730 net.cpp:386] conv1/relu_7x7 -> conv1/7x7_s2 (in-place)
I0403 21:38:43.104419 23730 net.cpp:141] Setting up conv1/relu_7x7
I0403 21:38:43.104447 23730 net.cpp:148] Top shape: 24 64 112 112 (19267584)
I0403 21:38:43.104463 23730 net.cpp:156] Memory required for data: 168592416
I0403 21:38:43.104480 23730 layer_factory.hpp:77] Creating layer pool1/3x3_s2
I0403 21:38:43.104504 23730 net.cpp:91] Creating Layer pool1/3x3_s2
I0403 21:38:43.104523 23730 net.cpp:425] pool1/3x3_s2 <- conv1/7x7_s2
I0403 21:38:43.104542 23730 net.cpp:399] pool1/3x3_s2 -> pool1/3x3_s2
I0403 21:38:43.104617 23730 net.cpp:141] Setting up pool1/3x3_s2
I0403 21:38:43.104642 23730 net.cpp:148] Top shape: 24 64 56 56 (4816896)
I0403 21:38:43.104657 23730 net.cpp:156] Memory required for data: 187860000
I0403 21:38:43.104673 23730 layer_factory.hpp:77] Creating layer pool1/norm1
I0403 21:38:43.104697 23730 net.cpp:91] Creating Layer pool1/norm1
I0403 21:38:43.104715 23730 net.cpp:425] pool1/norm1 <- pool1/3x3_s2
I0403 21:38:43.104734 23730 net.cpp:399] pool1/norm1 -> pool1/norm1
I0403 21:38:43.105015 23730 net.cpp:141] Setting up pool1/norm1
I0403 21:38:43.105042 23730 net.cpp:148] Top shape: 24 64 56 56 (4816896)
I0403 21:38:43.105058 23730 net.cpp:156] Memory required for data: 207127584
I0403 21:38:43.105073 23730 layer_factory.hpp:77] Creating layer conv2/3x3_reduce
I0403 21:38:43.105099 23730 net.cpp:91] Creating Layer conv2/3x3_reduce
I0403 21:38:43.105116 23730 net.cpp:425] conv2/3x3_reduce <- pool1/norm1
I0403 21:38:43.105135 23730 net.cpp:399] conv2/3x3_reduce -> conv2/3x3_reduce
I0403 21:38:43.106472 23730 net.cpp:141] Setting up conv2/3x3_reduce
I0403 21:38:43.106503 23730 net.cpp:148] Top shape: 24 64 56 56 (4816896)
I0403 21:38:43.106519 23730 net.cpp:156] Memory required for data: 226395168
I0403 21:38:43.106544 23730 layer_factory.hpp:77] Creating layer conv2/relu_3x3_reduce
I0403 21:38:43.106566 23730 net.cpp:91] Creating Layer conv2/relu_3x3_reduce
I0403 21:38:43.106582 23730 net.cpp:425] conv2/relu_3x3_reduce <- conv2/3x3_reduce
I0403 21:38:43.106603 23730 net.cpp:386] conv2/relu_3x3_reduce -> conv2/3x3_reduce (in-place)
I0403 21:38:43.106868 23730 net.cpp:141] Setting up conv2/relu_3x3_reduce
I0403 21:38:43.106896 23730 net.cpp:148] Top shape: 24 64 56 56 (4816896)
I0403 21:38:43.106914 23730 net.cpp:156] Memory required for data: 245662752
I0403 21:38:43.106930 23730 layer_factory.hpp:77] Creating layer conv2/3x3
I0403 21:38:43.106953 23730 net.cpp:91] Creating Layer conv2/3x3
I0403 21:38:43.106973 23730 net.cpp:425] conv2/3x3 <- conv2/3x3_reduce
I0403 21:38:43.106993 23730 net.cpp:399] conv2/3x3 -> conv2/3x3
I0403 21:38:43.109308 23730 net.cpp:141] Setting up conv2/3x3
I0403 21:38:43.109343 23730 net.cpp:148] Top shape: 24 192 56 56 (14450688)
I0403 21:38:43.109361 23730 net.cpp:156] Memory required for data: 303465504
I0403 21:38:43.109383 23730 layer_factory.hpp:77] Creating layer conv2/relu_3x3
I0403 21:38:43.109403 23730 net.cpp:91] Creating Layer conv2/relu_3x3
I0403 21:38:43.109421 23730 net.cpp:425] conv2/relu_3x3 <- conv2/3x3
I0403 21:38:43.109443 23730 net.cpp:386] conv2/relu_3x3 -> conv2/3x3 (in-place)
I0403 21:38:43.109617 23730 net.cpp:141] Setting up conv2/relu_3x3
I0403 21:38:43.109644 23730 net.cpp:148] Top shape: 24 192 56 56 (14450688)
I0403 21:38:43.109693 23730 net.cpp:156] Memory required for data: 361268256
I0403 21:38:43.109709 23730 layer_factory.hpp:77] Creating layer conv2/norm2
I0403 21:38:43.109730 23730 net.cpp:91] Creating Layer conv2/norm2
I0403 21:38:43.109747 23730 net.cpp:425] conv2/norm2 <- conv2/3x3
I0403 21:38:43.109766 23730 net.cpp:399] conv2/norm2 -> conv2/norm2
I0403 21:38:43.110070 23730 net.cpp:141] Setting up conv2/norm2
I0403 21:38:43.110098 23730 net.cpp:148] Top shape: 24 192 56 56 (14450688)
I0403 21:38:43.110115 23730 net.cpp:156] Memory required for data: 419071008
I0403 21:38:43.110129 23730 layer_factory.hpp:77] Creating layer pool2/3x3_s2
I0403 21:38:43.110152 23730 net.cpp:91] Creating Layer pool2/3x3_s2
I0403 21:38:43.110170 23730 net.cpp:425] pool2/3x3_s2 <- conv2/norm2
I0403 21:38:43.110189 23730 net.cpp:399] pool2/3x3_s2 -> pool2/3x3_s2
I0403 21:38:43.110249 23730 net.cpp:141] Setting up pool2/3x3_s2
I0403 21:38:43.110273 23730 net.cpp:148] Top shape: 24 192 28 28 (3612672)
I0403 21:38:43.110288 23730 net.cpp:156] Memory required for data: 433521696
I0403 21:38:43.110303 23730 layer_factory.hpp:77] Creating layer pool2/3x3_s2_pool2/3x3_s2_0_split
I0403 21:38:43.110322 23730 net.cpp:91] Creating Layer pool2/3x3_s2_pool2/3x3_s2_0_split
I0403 21:38:43.110337 23730 net.cpp:425] pool2/3x3_s2_pool2/3x3_s2_0_split <- pool2/3x3_s2
I0403 21:38:43.110358 23730 net.cpp:399] pool2/3x3_s2_pool2/3x3_s2_0_split -> pool2/3x3_s2_pool2/3x3_s2_0_split_0
I0403 21:38:43.110380 23730 net.cpp:399] pool2/3x3_s2_pool2/3x3_s2_0_split -> pool2/3x3_s2_pool2/3x3_s2_0_split_1
I0403 21:38:43.110402 23730 net.cpp:399] pool2/3x3_s2_pool2/3x3_s2_0_split -> pool2/3x3_s2_pool2/3x3_s2_0_split_2
I0403 21:38:43.110422 23730 net.cpp:399] pool2/3x3_s2_pool2/3x3_s2_0_split -> pool2/3x3_s2_pool2/3x3_s2_0_split_3
I0403 21:38:43.110494 23730 net.cpp:141] Setting up pool2/3x3_s2_pool2/3x3_s2_0_split
I0403 21:38:43.110518 23730 net.cpp:148] Top shape: 24 192 28 28 (3612672)
I0403 21:38:43.110535 23730 net.cpp:148] Top shape: 24 192 28 28 (3612672)
I0403 21:38:43.110553 23730 net.cpp:148] Top shape: 24 192 28 28 (3612672)
I0403 21:38:43.110569 23730 net.cpp:148] Top shape: 24 192 28 28 (3612672)
I0403 21:38:43.110582 23730 net.cpp:156] Memory required for data: 491324448
I0403 21:38:43.110596 23730 layer_factory.hpp:77] Creating layer inception_3a/1x1
I0403 21:38:43.110618 23730 net.cpp:91] Creating Layer inception_3a/1x1
I0403 21:38:43.110637 23730 net.cpp:425] inception_3a/1x1 <- pool2/3x3_s2_pool2/3x3_s2_0_split_0
I0403 21:38:43.110661 23730 net.cpp:399] inception_3a/1x1 -> inception_3a/1x1
I0403 21:38:43.112201 23730 net.cpp:141] Setting up inception_3a/1x1
I0403 21:38:43.112234 23730 net.cpp:148] Top shape: 24 64 28 28 (1204224)
I0403 21:38:43.112252 23730 net.cpp:156] Memory required for data: 496141344
I0403 21:38:43.112272 23730 layer_factory.hpp:77] Creating layer inception_3a/relu_1x1
I0403 21:38:43.112292 23730 net.cpp:91] Creating Layer inception_3a/relu_1x1
I0403 21:38:43.112308 23730 net.cpp:425] inception_3a/relu_1x1 <- inception_3a/1x1
I0403 21:38:43.112326 23730 net.cpp:386] inception_3a/relu_1x1 -> inception_3a/1x1 (in-place)
I0403 21:38:43.112498 23730 net.cpp:141] Setting up inception_3a/relu_1x1
I0403 21:38:43.112524 23730 net.cpp:148] Top shape: 24 64 28 28 (1204224)
I0403 21:38:43.112540 23730 net.cpp:156] Memory required for data: 500958240
I0403 21:38:43.112555 23730 layer_factory.hpp:77] Creating layer inception_3a/3x3_reduce
I0403 21:38:43.112578 23730 net.cpp:91] Creating Layer inception_3a/3x3_reduce
I0403 21:38:43.112597 23730 net.cpp:425] inception_3a/3x3_reduce <- pool2/3x3_s2_pool2/3x3_s2_0_split_1
I0403 21:38:43.112618 23730 net.cpp:399] inception_3a/3x3_reduce -> inception_3a/3x3_reduce
I0403 21:38:43.114306 23730 net.cpp:141] Setting up inception_3a/3x3_reduce
I0403 21:38:43.114338 23730 net.cpp:148] Top shape: 24 96 28 28 (1806336)
I0403 21:38:43.114356 23730 net.cpp:156] Memory required for data: 508183584
I0403 21:38:43.114378 23730 layer_factory.hpp:77] Creating layer inception_3a/relu_3x3_reduce
I0403 21:38:43.114413 23730 net.cpp:91] Creating Layer inception_3a/relu_3x3_reduce
I0403 21:38:43.114434 23730 net.cpp:425] inception_3a/relu_3x3_reduce <- inception_3a/3x3_reduce
I0403 21:38:43.114459 23730 net.cpp:386] inception_3a/relu_3x3_reduce -> inception_3a/3x3_reduce (in-place)
I0403 21:38:43.114639 23730 net.cpp:141] Setting up inception_3a/relu_3x3_reduce
I0403 21:38:43.114665 23730 net.cpp:148] Top shape: 24 96 28 28 (1806336)
I0403 21:38:43.114680 23730 net.cpp:156] Memory required for data: 515408928
I0403 21:38:43.114694 23730 layer_factory.hpp:77] Creating layer inception_3a/3x3
I0403 21:38:43.114719 23730 net.cpp:91] Creating Layer inception_3a/3x3
I0403 21:38:43.114737 23730 net.cpp:425] inception_3a/3x3 <- inception_3a/3x3_reduce
I0403 21:38:43.114756 23730 net.cpp:399] inception_3a/3x3 -> inception_3a/3x3
I0403 21:38:43.116385 23730 net.cpp:141] Setting up inception_3a/3x3
I0403 21:38:43.116415 23730 net.cpp:148] Top shape: 24 128 28 28 (2408448)
I0403 21:38:43.116431 23730 net.cpp:156] Memory required for data: 525042720
I0403 21:38:43.116451 23730 layer_factory.hpp:77] Creating layer inception_3a/relu_3x3
I0403 21:38:43.116469 23730 net.cpp:91] Creating Layer inception_3a/relu_3x3
I0403 21:38:43.116487 23730 net.cpp:425] inception_3a/relu_3x3 <- inception_3a/3x3
I0403 21:38:43.116508 23730 net.cpp:386] inception_3a/relu_3x3 -> inception_3a/3x3 (in-place)
I0403 21:38:43.116776 23730 net.cpp:141] Setting up inception_3a/relu_3x3
I0403 21:38:43.116804 23730 net.cpp:148] Top shape: 24 128 28 28 (2408448)
I0403 21:38:43.116819 23730 net.cpp:156] Memory required for data: 534676512
I0403 21:38:43.116835 23730 layer_factory.hpp:77] Creating layer inception_3a/5x5_reduce
I0403 21:38:43.116858 23730 net.cpp:91] Creating Layer inception_3a/5x5_reduce
I0403 21:38:43.116878 23730 net.cpp:425] inception_3a/5x5_reduce <- pool2/3x3_s2_pool2/3x3_s2_0_split_2
I0403 21:38:43.116899 23730 net.cpp:399] inception_3a/5x5_reduce -> inception_3a/5x5_reduce
I0403 21:38:43.117846 23730 net.cpp:141] Setting up inception_3a/5x5_reduce
I0403 21:38:43.117876 23730 net.cpp:148] Top shape: 24 16 28 28 (301056)
I0403 21:38:43.117892 23730 net.cpp:156] Memory required for data: 535880736
I0403 21:38:43.117911 23730 layer_factory.hpp:77] Creating layer inception_3a/relu_5x5_reduce
I0403 21:38:43.117931 23730 net.cpp:91] Creating Layer inception_3a/relu_5x5_reduce
I0403 21:38:43.117950 23730 net.cpp:425] inception_3a/relu_5x5_reduce <- inception_3a/5x5_reduce
I0403 21:38:43.117971 23730 net.cpp:386] inception_3a/relu_5x5_reduce -> inception_3a/5x5_reduce (in-place)
I0403 21:38:43.118309 23730 net.cpp:141] Setting up inception_3a/relu_5x5_reduce
I0403 21:38:43.118337 23730 net.cpp:148] Top shape: 24 16 28 28 (301056)
I0403 21:38:43.118353 23730 net.cpp:156] Memory required for data: 537084960
I0403 21:38:43.118369 23730 layer_factory.hpp:77] Creating layer inception_3a/5x5
I0403 21:38:43.118393 23730 net.cpp:91] Creating Layer inception_3a/5x5
I0403 21:38:43.118413 23730 net.cpp:425] inception_3a/5x5 <- inception_3a/5x5_reduce
I0403 21:38:43.118437 23730 net.cpp:399] inception_3a/5x5 -> inception_3a/5x5
I0403 21:38:43.119469 23730 net.cpp:141] Setting up inception_3a/5x5
I0403 21:38:43.119503 23730 net.cpp:148] Top shape: 24 32 28 28 (602112)
I0403 21:38:43.119520 23730 net.cpp:156] Memory required for data: 539493408
I0403 21:38:43.119540 23730 layer_factory.hpp:77] Creating layer inception_3a/relu_5x5
I0403 21:38:43.119560 23730 net.cpp:91] Creating Layer inception_3a/relu_5x5
I0403 21:38:43.119577 23730 net.cpp:425] inception_3a/relu_5x5 <- inception_3a/5x5
I0403 21:38:43.119596 23730 net.cpp:386] inception_3a/relu_5x5 -> inception_3a/5x5 (in-place)
I0403 21:38:43.119777 23730 net.cpp:141] Setting up inception_3a/relu_5x5
I0403 21:38:43.119804 23730 net.cpp:148] Top shape: 24 32 28 28 (602112)
I0403 21:38:43.119820 23730 net.cpp:156] Memory required for data: 541901856
I0403 21:38:43.119837 23730 layer_factory.hpp:77] Creating layer inception_3a/pool
I0403 21:38:43.119855 23730 net.cpp:91] Creating Layer inception_3a/pool
I0403 21:38:43.119887 23730 net.cpp:425] inception_3a/pool <- pool2/3x3_s2_pool2/3x3_s2_0_split_3
I0403 21:38:43.119911 23730 net.cpp:399] inception_3a/pool -> inception_3a/pool
I0403 21:38:43.119971 23730 net.cpp:141] Setting up inception_3a/pool
I0403 21:38:43.119998 23730 net.cpp:148] Top shape: 24 192 28 28 (3612672)
I0403 21:38:43.120014 23730 net.cpp:156] Memory required for data: 556352544
I0403 21:38:43.120029 23730 layer_factory.hpp:77] Creating layer inception_3a/pool_proj
I0403 21:38:43.120053 23730 net.cpp:91] Creating Layer inception_3a/pool_proj
I0403 21:38:43.120071 23730 net.cpp:425] inception_3a/pool_proj <- inception_3a/pool
I0403 21:38:43.120092 23730 net.cpp:399] inception_3a/pool_proj -> inception_3a/pool_proj
I0403 21:38:43.121071 23730 net.cpp:141] Setting up inception_3a/pool_proj
I0403 21:38:43.121101 23730 net.cpp:148] Top shape: 24 32 28 28 (602112)
I0403 21:38:43.121119 23730 net.cpp:156] Memory required for data: 558760992
I0403 21:38:43.121143 23730 layer_factory.hpp:77] Creating layer inception_3a/relu_pool_proj
I0403 21:38:43.121165 23730 net.cpp:91] Creating Layer inception_3a/relu_pool_proj
I0403 21:38:43.121182 23730 net.cpp:425] inception_3a/relu_pool_proj <- inception_3a/pool_proj
I0403 21:38:43.121207 23730 net.cpp:386] inception_3a/relu_pool_proj -> inception_3a/pool_proj (in-place)
I0403 21:38:43.121495 23730 net.cpp:141] Setting up inception_3a/relu_pool_proj
I0403 21:38:43.121522 23730 net.cpp:148] Top shape: 24 32 28 28 (602112)
I0403 21:38:43.121539 23730 net.cpp:156] Memory required for data: 561169440
I0403 21:38:43.121556 23730 layer_factory.hpp:77] Creating layer inception_3a/output
I0403 21:38:43.121574 23730 net.cpp:91] Creating Layer inception_3a/output
I0403 21:38:43.121592 23730 net.cpp:425] inception_3a/output <- inception_3a/1x1
I0403 21:38:43.121610 23730 net.cpp:425] inception_3a/output <- inception_3a/3x3
I0403 21:38:43.121628 23730 net.cpp:425] inception_3a/output <- inception_3a/5x5
I0403 21:38:43.121644 23730 net.cpp:425] inception_3a/output <- inception_3a/pool_proj
I0403 21:38:43.121662 23730 net.cpp:399] inception_3a/output -> inception_3a/output
I0403 21:38:43.121711 23730 net.cpp:141] Setting up inception_3a/output
I0403 21:38:43.121737 23730 net.cpp:148] Top shape: 24 256 28 28 (4816896)
I0403 21:38:43.121752 23730 net.cpp:156] Memory required for data: 580437024
I0403 21:38:43.121768 23730 layer_factory.hpp:77] Creating layer inception_3a/output_inception_3a/output_0_split
I0403 21:38:43.121789 23730 net.cpp:91] Creating Layer inception_3a/output_inception_3a/output_0_split
I0403 21:38:43.121806 23730 net.cpp:425] inception_3a/output_inception_3a/output_0_split <- inception_3a/output
I0403 21:38:43.121825 23730 net.cpp:399] inception_3a/output_inception_3a/output_0_split -> inception_3a/output_inception_3a/output_0_split_0
I0403 21:38:43.121846 23730 net.cpp:399] inception_3a/output_inception_3a/output_0_split -> inception_3a/output_inception_3a/output_0_split_1
I0403 21:38:43.121873 23730 net.cpp:399] inception_3a/output_inception_3a/output_0_split -> inception_3a/output_inception_3a/output_0_split_2
I0403 21:38:43.121898 23730 net.cpp:399] inception_3a/output_inception_3a/output_0_split -> inception_3a/output_inception_3a/output_0_split_3
I0403 21:38:43.121974 23730 net.cpp:141] Setting up inception_3a/output_inception_3a/output_0_split
I0403 21:38:43.121999 23730 net.cpp:148] Top shape: 24 256 28 28 (4816896)
I0403 21:38:43.122017 23730 net.cpp:148] Top shape: 24 256 28 28 (4816896)
I0403 21:38:43.122035 23730 net.cpp:148] Top shape: 24 256 28 28 (4816896)
I0403 21:38:43.122052 23730 net.cpp:148] Top shape: 24 256 28 28 (4816896)
I0403 21:38:43.122067 23730 net.cpp:156] Memory required for data: 657507360
I0403 21:38:43.122082 23730 layer_factory.hpp:77] Creating layer inception_3b/1x1
I0403 21:38:43.122107 23730 net.cpp:91] Creating Layer inception_3b/1x1
I0403 21:38:43.122126 23730 net.cpp:425] inception_3b/1x1 <- inception_3a/output_inception_3a/output_0_split_0
I0403 21:38:43.122146 23730 net.cpp:399] inception_3b/1x1 -> inception_3b/1x1
I0403 21:38:43.123312 23730 net.cpp:141] Setting up inception_3b/1x1
I0403 21:38:43.123354 23730 net.cpp:148] Top shape: 24 128 28 28 (2408448)
I0403 21:38:43.123371 23730 net.cpp:156] Memory required for data: 667141152
I0403 21:38:43.123390 23730 layer_factory.hpp:77] Creating layer inception_3b/relu_1x1
I0403 21:38:43.123412 23730 net.cpp:91] Creating Layer inception_3b/relu_1x1
I0403 21:38:43.123430 23730 net.cpp:425] inception_3b/relu_1x1 <- inception_3b/1x1
I0403 21:38:43.123450 23730 net.cpp:386] inception_3b/relu_1x1 -> inception_3b/1x1 (in-place)
I0403 21:38:43.123630 23730 net.cpp:141] Setting up inception_3b/relu_1x1
I0403 21:38:43.123656 23730 net.cpp:148] Top shape: 24 128 28 28 (2408448)
I0403 21:38:43.123672 23730 net.cpp:156] Memory required for data: 676774944
I0403 21:38:43.123687 23730 layer_factory.hpp:77] Creating layer inception_3b/3x3_reduce
I0403 21:38:43.123710 23730 net.cpp:91] Creating Layer inception_3b/3x3_reduce
I0403 21:38:43.123729 23730 net.cpp:425] inception_3b/3x3_reduce <- inception_3a/output_inception_3a/output_0_split_1
I0403 21:38:43.123754 23730 net.cpp:399] inception_3b/3x3_reduce -> inception_3b/3x3_reduce
I0403 21:38:43.124912 23730 net.cpp:141] Setting up inception_3b/3x3_reduce
I0403 21:38:43.124941 23730 net.cpp:148] Top shape: 24 128 28 28 (2408448)
I0403 21:38:43.124963 23730 net.cpp:156] Memory required for data: 686408736
I0403 21:38:43.124984 23730 layer_factory.hpp:77] Creating layer inception_3b/relu_3x3_reduce
I0403 21:38:43.125002 23730 net.cpp:91] Creating Layer inception_3b/relu_3x3_reduce
I0403 21:38:43.125020 23730 net.cpp:425] inception_3b/relu_3x3_reduce <- inception_3b/3x3_reduce
I0403 21:38:43.125041 23730 net.cpp:386] inception_3b/relu_3x3_reduce -> inception_3b/3x3_reduce (in-place)
I0403 21:38:43.125226 23730 net.cpp:141] Setting up inception_3b/relu_3x3_reduce
I0403 21:38:43.125254 23730 net.cpp:148] Top shape: 24 128 28 28 (2408448)
I0403 21:38:43.125272 23730 net.cpp:156] Memory required for data: 696042528
I0403 21:38:43.125288 23730 layer_factory.hpp:77] Creating layer inception_3b/3x3
I0403 21:38:43.125314 23730 net.cpp:91] Creating Layer inception_3b/3x3
I0403 21:38:43.125334 23730 net.cpp:425] inception_3b/3x3 <- inception_3b/3x3_reduce
I0403 21:38:43.125357 23730 net.cpp:399] inception_3b/3x3 -> inception_3b/3x3
I0403 21:38:43.128351 23730 net.cpp:141] Setting up inception_3b/3x3
I0403 21:38:43.128383 23730 net.cpp:148] Top shape: 24 192 28 28 (3612672)
I0403 21:38:43.128401 23730 net.cpp:156] Memory required for data: 710493216
I0403 21:38:43.128420 23730 layer_factory.hpp:77] Creating layer inception_3b/relu_3x3
I0403 21:38:43.128440 23730 net.cpp:91] Creating Layer inception_3b/relu_3x3
I0403 21:38:43.128458 23730 net.cpp:425] inception_3b/relu_3x3 <- inception_3b/3x3
I0403 21:38:43.128479 23730 net.cpp:386] inception_3b/relu_3x3 -> inception_3b/3x3 (in-place)
I0403 21:38:43.128765 23730 net.cpp:141] Setting up inception_3b/relu_3x3
I0403 21:38:43.128793 23730 net.cpp:148] Top shape: 24 192 28 28 (3612672)
I0403 21:38:43.128809 23730 net.cpp:156] Memory required for data: 724943904
I0403 21:38:43.128826 23730 layer_factory.hpp:77] Creating layer inception_3b/5x5_reduce
I0403 21:38:43.128850 23730 net.cpp:91] Creating Layer inception_3b/5x5_reduce
I0403 21:38:43.128870 23730 net.cpp:425] inception_3b/5x5_reduce <- inception_3a/output_inception_3a/output_0_split_2
I0403 21:38:43.128893 23730 net.cpp:399] inception_3b/5x5_reduce -> inception_3b/5x5_reduce
I0403 21:38:43.129900 23730 net.cpp:141] Setting up inception_3b/5x5_reduce
I0403 21:38:43.129932 23730 net.cpp:148] Top shape: 24 32 28 28 (602112)
I0403 21:38:43.129952 23730 net.cpp:156] Memory required for data: 727352352
I0403 21:38:43.129973 23730 layer_factory.hpp:77] Creating layer inception_3b/relu_5x5_reduce
I0403 21:38:43.129992 23730 net.cpp:91] Creating Layer inception_3b/relu_5x5_reduce
I0403 21:38:43.130009 23730 net.cpp:425] inception_3b/relu_5x5_reduce <- inception_3b/5x5_reduce
I0403 21:38:43.130031 23730 net.cpp:386] inception_3b/relu_5x5_reduce -> inception_3b/5x5_reduce (in-place)
I0403 21:38:43.130233 23730 net.cpp:141] Setting up inception_3b/relu_5x5_reduce
I0403 21:38:43.130260 23730 net.cpp:148] Top shape: 24 32 28 28 (602112)
I0403 21:38:43.130277 23730 net.cpp:156] Memory required for data: 729760800
I0403 21:38:43.130295 23730 layer_factory.hpp:77] Creating layer inception_3b/5x5
I0403 21:38:43.130317 23730 net.cpp:91] Creating Layer inception_3b/5x5
I0403 21:38:43.130336 23730 net.cpp:425] inception_3b/5x5 <- inception_3b/5x5_reduce
I0403 21:38:43.130358 23730 net.cpp:399] inception_3b/5x5 -> inception_3b/5x5
I0403 21:38:43.132381 23730 net.cpp:141] Setting up inception_3b/5x5
I0403 21:38:43.132413 23730 net.cpp:148] Top shape: 24 96 28 28 (1806336)
I0403 21:38:43.132431 23730 net.cpp:156] Memory required for data: 736986144
I0403 21:38:43.132450 23730 layer_factory.hpp:77] Creating layer inception_3b/relu_5x5
I0403 21:38:43.132472 23730 net.cpp:91] Creating Layer inception_3b/relu_5x5
I0403 21:38:43.132488 23730 net.cpp:425] inception_3b/relu_5x5 <- inception_3b/5x5
I0403 21:38:43.132508 23730 net.cpp:386] inception_3b/relu_5x5 -> inception_3b/5x5 (in-place)
I0403 21:38:43.132709 23730 net.cpp:141] Setting up inception_3b/relu_5x5
I0403 21:38:43.132736 23730 net.cpp:148] Top shape: 24 96 28 28 (1806336)
I0403 21:38:43.132752 23730 net.cpp:156] Memory required for data: 744211488
I0403 21:38:43.132767 23730 layer_factory.hpp:77] Creating layer inception_3b/pool
I0403 21:38:43.132787 23730 net.cpp:91] Creating Layer inception_3b/pool
I0403 21:38:43.132805 23730 net.cpp:425] inception_3b/pool <- inception_3a/output_inception_3a/output_0_split_3
I0403 21:38:43.132824 23730 net.cpp:399] inception_3b/pool -> inception_3b/pool
I0403 21:38:43.132881 23730 net.cpp:141] Setting up inception_3b/pool
I0403 21:38:43.132906 23730 net.cpp:148] Top shape: 24 256 28 28 (4816896)
I0403 21:38:43.132922 23730 net.cpp:156] Memory required for data: 763479072
I0403 21:38:43.132939 23730 layer_factory.hpp:77] Creating layer inception_3b/pool_proj
I0403 21:38:43.132964 23730 net.cpp:91] Creating Layer inception_3b/pool_proj
I0403 21:38:43.132983 23730 net.cpp:425] inception_3b/pool_proj <- inception_3b/pool
I0403 21:38:43.133007 23730 net.cpp:399] inception_3b/pool_proj -> inception_3b/pool_proj
I0403 21:38:43.134088 23730 net.cpp:141] Setting up inception_3b/pool_proj
I0403 21:38:43.134117 23730 net.cpp:148] Top shape: 24 64 28 28 (1204224)
I0403 21:38:43.134133 23730 net.cpp:156] Memory required for data: 768295968
I0403 21:38:43.134155 23730 layer_factory.hpp:77] Creating layer inception_3b/relu_pool_proj
I0403 21:38:43.134176 23730 net.cpp:91] Creating Layer inception_3b/relu_pool_proj
I0403 21:38:43.134194 23730 net.cpp:425] inception_3b/relu_pool_proj <- inception_3b/pool_proj
I0403 21:38:43.134219 23730 net.cpp:386] inception_3b/relu_pool_proj -> inception_3b/pool_proj (in-place)
I0403 21:38:43.134623 23730 net.cpp:141] Setting up inception_3b/relu_pool_proj
I0403 21:38:43.134650 23730 net.cpp:148] Top shape: 24 64 28 28 (1204224)
I0403 21:38:43.134667 23730 net.cpp:156] Memory required for data: 773112864
I0403 21:38:43.134683 23730 layer_factory.hpp:77] Creating layer inception_3b/output
I0403 21:38:43.134702 23730 net.cpp:91] Creating Layer inception_3b/output
I0403 21:38:43.134719 23730 net.cpp:425] inception_3b/output <- inception_3b/1x1
I0403 21:38:43.134738 23730 net.cpp:425] inception_3b/output <- inception_3b/3x3
I0403 21:38:43.134755 23730 net.cpp:425] inception_3b/output <- inception_3b/5x5
I0403 21:38:43.134773 23730 net.cpp:425] inception_3b/output <- inception_3b/pool_proj
I0403 21:38:43.134793 23730 net.cpp:399] inception_3b/output -> inception_3b/output
I0403 21:38:43.134838 23730 net.cpp:141] Setting up inception_3b/output
I0403 21:38:43.134865 23730 net.cpp:148] Top shape: 24 480 28 28 (9031680)
I0403 21:38:43.134882 23730 net.cpp:156] Memory required for data: 809239584
I0403 21:38:43.134897 23730 layer_factory.hpp:77] Creating layer pool3/3x3_s2
I0403 21:38:43.134915 23730 net.cpp:91] Creating Layer pool3/3x3_s2
I0403 21:38:43.134932 23730 net.cpp:425] pool3/3x3_s2 <- inception_3b/output
I0403 21:38:43.134968 23730 net.cpp:399] pool3/3x3_s2 -> pool3/3x3_s2
I0403 21:38:43.135032 23730 net.cpp:141] Setting up pool3/3x3_s2
I0403 21:38:43.135057 23730 net.cpp:148] Top shape: 24 480 14 14 (2257920)
I0403 21:38:43.135072 23730 net.cpp:156] Memory required for data: 818271264
I0403 21:38:43.135087 23730 layer_factory.hpp:77] Creating layer pool3/3x3_s2_pool3/3x3_s2_0_split
I0403 21:38:43.135107 23730 net.cpp:91] Creating Layer pool3/3x3_s2_pool3/3x3_s2_0_split
I0403 21:38:43.135125 23730 net.cpp:425] pool3/3x3_s2_pool3/3x3_s2_0_split <- pool3/3x3_s2
I0403 21:38:43.135143 23730 net.cpp:399] pool3/3x3_s2_pool3/3x3_s2_0_split -> pool3/3x3_s2_pool3/3x3_s2_0_split_0
I0403 21:38:43.135164 23730 net.cpp:399] pool3/3x3_s2_pool3/3x3_s2_0_split -> pool3/3x3_s2_pool3/3x3_s2_0_split_1
I0403 21:38:43.135185 23730 net.cpp:399] pool3/3x3_s2_pool3/3x3_s2_0_split -> pool3/3x3_s2_pool3/3x3_s2_0_split_2
I0403 21:38:43.135215 23730 net.cpp:399] pool3/3x3_s2_pool3/3x3_s2_0_split -> pool3/3x3_s2_pool3/3x3_s2_0_split_3
I0403 21:38:43.135296 23730 net.cpp:141] Setting up pool3/3x3_s2_pool3/3x3_s2_0_split
I0403 21:38:43.135321 23730 net.cpp:148] Top shape: 24 480 14 14 (2257920)
I0403 21:38:43.135340 23730 net.cpp:148] Top shape: 24 480 14 14 (2257920)
I0403 21:38:43.135357 23730 net.cpp:148] Top shape: 24 480 14 14 (2257920)
I0403 21:38:43.135373 23730 net.cpp:148] Top shape: 24 480 14 14 (2257920)
I0403 21:38:43.135388 23730 net.cpp:156] Memory required for data: 854397984
I0403 21:38:43.135403 23730 layer_factory.hpp:77] Creating layer inception_4a/1x1
I0403 21:38:43.135426 23730 net.cpp:91] Creating Layer inception_4a/1x1
I0403 21:38:43.135444 23730 net.cpp:425] inception_4a/1x1 <- pool3/3x3_s2_pool3/3x3_s2_0_split_0
I0403 21:38:43.135468 23730 net.cpp:399] inception_4a/1x1 -> inception_4a/1x1
I0403 21:38:43.137071 23730 net.cpp:141] Setting up inception_4a/1x1
I0403 21:38:43.137101 23730 net.cpp:148] Top shape: 24 192 14 14 (903168)
I0403 21:38:43.137118 23730 net.cpp:156] Memory required for data: 858010656
I0403 21:38:43.137138 23730 layer_factory.hpp:77] Creating layer inception_4a/relu_1x1
I0403 21:38:43.137161 23730 net.cpp:91] Creating Layer inception_4a/relu_1x1
I0403 21:38:43.137178 23730 net.cpp:425] inception_4a/relu_1x1 <- inception_4a/1x1
I0403 21:38:43.137212 23730 net.cpp:386] inception_4a/relu_1x1 -> inception_4a/1x1 (in-place)
I0403 21:38:43.137390 23730 net.cpp:141] Setting up inception_4a/relu_1x1
I0403 21:38:43.137416 23730 net.cpp:148] Top shape: 24 192 14 14 (903168)
I0403 21:38:43.137431 23730 net.cpp:156] Memory required for data: 861623328
I0403 21:38:43.137446 23730 layer_factory.hpp:77] Creating layer inception_4a/3x3_reduce
I0403 21:38:43.137473 23730 net.cpp:91] Creating Layer inception_4a/3x3_reduce
I0403 21:38:43.137501 23730 net.cpp:425] inception_4a/3x3_reduce <- pool3/3x3_s2_pool3/3x3_s2_0_split_1
I0403 21:38:43.137521 23730 net.cpp:399] inception_4a/3x3_reduce -> inception_4a/3x3_reduce
I0403 21:38:43.138790 23730 net.cpp:141] Setting up inception_4a/3x3_reduce
I0403 21:38:43.138819 23730 net.cpp:148] Top shape: 24 96 14 14 (451584)
I0403 21:38:43.138835 23730 net.cpp:156] Memory required for data: 863429664
I0403 21:38:43.138861 23730 layer_factory.hpp:77] Creating layer inception_4a/relu_3x3_reduce
I0403 21:38:43.138882 23730 net.cpp:91] Creating Layer inception_4a/relu_3x3_reduce
I0403 21:38:43.138903 23730 net.cpp:425] inception_4a/relu_3x3_reduce <- inception_4a/3x3_reduce
I0403 21:38:43.138921 23730 net.cpp:386] inception_4a/relu_3x3_reduce -> inception_4a/3x3_reduce (in-place)
I0403 21:38:43.139097 23730 net.cpp:141] Setting up inception_4a/relu_3x3_reduce
I0403 21:38:43.139123 23730 net.cpp:148] Top shape: 24 96 14 14 (451584)
I0403 21:38:43.139138 23730 net.cpp:156] Memory required for data: 865236000
I0403 21:38:43.139153 23730 layer_factory.hpp:77] Creating layer inception_4a/3x3
I0403 21:38:43.139181 23730 net.cpp:91] Creating Layer inception_4a/3x3
I0403 21:38:43.139204 23730 net.cpp:425] inception_4a/3x3 <- inception_4a/3x3_reduce
I0403 21:38:43.139226 23730 net.cpp:399] inception_4a/3x3 -> inception_4a/3x3
I0403 21:38:43.141935 23730 net.cpp:141] Setting up inception_4a/3x3
I0403 21:38:43.141966 23730 net.cpp:148] Top shape: 24 208 14 14 (978432)
I0403 21:38:43.141984 23730 net.cpp:156] Memory required for data: 869149728
I0403 21:38:43.142004 23730 layer_factory.hpp:77] Creating layer inception_4a/relu_3x3
I0403 21:38:43.142022 23730 net.cpp:91] Creating Layer inception_4a/relu_3x3
I0403 21:38:43.142040 23730 net.cpp:425] inception_4a/relu_3x3 <- inception_4a/3x3
I0403 21:38:43.142056 23730 net.cpp:386] inception_4a/relu_3x3 -> inception_4a/3x3 (in-place)
I0403 21:38:43.142335 23730 net.cpp:141] Setting up inception_4a/relu_3x3
I0403 21:38:43.142365 23730 net.cpp:148] Top shape: 24 208 14 14 (978432)
I0403 21:38:43.142382 23730 net.cpp:156] Memory required for data: 873063456
I0403 21:38:43.142398 23730 layer_factory.hpp:77] Creating layer inception_4a/5x5_reduce
I0403 21:38:43.142417 23730 net.cpp:91] Creating Layer inception_4a/5x5_reduce
I0403 21:38:43.142434 23730 net.cpp:425] inception_4a/5x5_reduce <- pool3/3x3_s2_pool3/3x3_s2_0_split_2
I0403 21:38:43.142457 23730 net.cpp:399] inception_4a/5x5_reduce -> inception_4a/5x5_reduce
I0403 21:38:43.143466 23730 net.cpp:141] Setting up inception_4a/5x5_reduce
I0403 21:38:43.143498 23730 net.cpp:148] Top shape: 24 16 14 14 (75264)
I0403 21:38:43.143515 23730 net.cpp:156] Memory required for data: 873364512
I0403 21:38:43.143535 23730 layer_factory.hpp:77] Creating layer inception_4a/relu_5x5_reduce
I0403 21:38:43.143553 23730 net.cpp:91] Creating Layer inception_4a/relu_5x5_reduce
I0403 21:38:43.143569 23730 net.cpp:425] inception_4a/relu_5x5_reduce <- inception_4a/5x5_reduce
I0403 21:38:43.143589 23730 net.cpp:386] inception_4a/relu_5x5_reduce -> inception_4a/5x5_reduce (in-place)
I0403 21:38:43.143769 23730 net.cpp:141] Setting up inception_4a/relu_5x5_reduce
I0403 21:38:43.143795 23730 net.cpp:148] Top shape: 24 16 14 14 (75264)
I0403 21:38:43.143810 23730 net.cpp:156] Memory required for data: 873665568
I0403 21:38:43.143826 23730 layer_factory.hpp:77] Creating layer inception_4a/5x5
I0403 21:38:43.143848 23730 net.cpp:91] Creating Layer inception_4a/5x5
I0403 21:38:43.143867 23730 net.cpp:425] inception_4a/5x5 <- inception_4a/5x5_reduce
I0403 21:38:43.143888 23730 net.cpp:399] inception_4a/5x5 -> inception_4a/5x5
I0403 21:38:43.144954 23730 net.cpp:141] Setting up inception_4a/5x5
I0403 21:38:43.144984 23730 net.cpp:148] Top shape: 24 48 14 14 (225792)
I0403 21:38:43.144999 23730 net.cpp:156] Memory required for data: 874568736
I0403 21:38:43.145017 23730 layer_factory.hpp:77] Creating layer inception_4a/relu_5x5
I0403 21:38:43.145036 23730 net.cpp:91] Creating Layer inception_4a/relu_5x5
I0403 21:38:43.145053 23730 net.cpp:425] inception_4a/relu_5x5 <- inception_4a/5x5
I0403 21:38:43.145073 23730 net.cpp:386] inception_4a/relu_5x5 -> inception_4a/5x5 (in-place)
I0403 21:38:43.145256 23730 net.cpp:141] Setting up inception_4a/relu_5x5
I0403 21:38:43.145282 23730 net.cpp:148] Top shape: 24 48 14 14 (225792)
I0403 21:38:43.145298 23730 net.cpp:156] Memory required for data: 875471904
I0403 21:38:43.145313 23730 layer_factory.hpp:77] Creating layer inception_4a/pool
I0403 21:38:43.145333 23730 net.cpp:91] Creating Layer inception_4a/pool
I0403 21:38:43.145350 23730 net.cpp:425] inception_4a/pool <- pool3/3x3_s2_pool3/3x3_s2_0_split_3
I0403 21:38:43.145370 23730 net.cpp:399] inception_4a/pool -> inception_4a/pool
I0403 21:38:43.145434 23730 net.cpp:141] Setting up inception_4a/pool
I0403 21:38:43.145459 23730 net.cpp:148] Top shape: 24 480 14 14 (2257920)
I0403 21:38:43.145474 23730 net.cpp:156] Memory required for data: 884503584
I0403 21:38:43.145489 23730 layer_factory.hpp:77] Creating layer inception_4a/pool_proj
I0403 21:38:43.145511 23730 net.cpp:91] Creating Layer inception_4a/pool_proj
I0403 21:38:43.145530 23730 net.cpp:425] inception_4a/pool_proj <- inception_4a/pool
I0403 21:38:43.145553 23730 net.cpp:399] inception_4a/pool_proj -> inception_4a/pool_proj
I0403 21:38:43.146697 23730 net.cpp:141] Setting up inception_4a/pool_proj
I0403 21:38:43.146728 23730 net.cpp:148] Top shape: 24 64 14 14 (301056)
I0403 21:38:43.146759 23730 net.cpp:156] Memory required for data: 885707808
I0403 21:38:43.146780 23730 layer_factory.hpp:77] Creating layer inception_4a/relu_pool_proj
I0403 21:38:43.146802 23730 net.cpp:91] Creating Layer inception_4a/relu_pool_proj
I0403 21:38:43.146821 23730 net.cpp:425] inception_4a/relu_pool_proj <- inception_4a/pool_proj
I0403 21:38:43.146839 23730 net.cpp:386] inception_4a/relu_pool_proj -> inception_4a/pool_proj (in-place)
I0403 21:38:43.147119 23730 net.cpp:141] Setting up inception_4a/relu_pool_proj
I0403 21:38:43.147146 23730 net.cpp:148] Top shape: 24 64 14 14 (301056)
I0403 21:38:43.147162 23730 net.cpp:156] Memory required for data: 886912032
I0403 21:38:43.147178 23730 layer_factory.hpp:77] Creating layer inception_4a/output
I0403 21:38:43.147199 23730 net.cpp:91] Creating Layer inception_4a/output
I0403 21:38:43.147218 23730 net.cpp:425] inception_4a/output <- inception_4a/1x1
I0403 21:38:43.147236 23730 net.cpp:425] inception_4a/output <- inception_4a/3x3
I0403 21:38:43.147253 23730 net.cpp:425] inception_4a/output <- inception_4a/5x5
I0403 21:38:43.147269 23730 net.cpp:425] inception_4a/output <- inception_4a/pool_proj
I0403 21:38:43.147289 23730 net.cpp:399] inception_4a/output -> inception_4a/output
I0403 21:38:43.147337 23730 net.cpp:141] Setting up inception_4a/output
I0403 21:38:43.147362 23730 net.cpp:148] Top shape: 24 512 14 14 (2408448)
I0403 21:38:43.147377 23730 net.cpp:156] Memory required for data: 896545824
I0403 21:38:43.147390 23730 layer_factory.hpp:77] Creating layer inception_4a/output_inception_4a/output_0_split
I0403 21:38:43.147409 23730 net.cpp:91] Creating Layer inception_4a/output_inception_4a/output_0_split
I0403 21:38:43.147425 23730 net.cpp:425] inception_4a/output_inception_4a/output_0_split <- inception_4a/output
I0403 21:38:43.147445 23730 net.cpp:399] inception_4a/output_inception_4a/output_0_split -> inception_4a/output_inception_4a/output_0_split_0
I0403 21:38:43.147469 23730 net.cpp:399] inception_4a/output_inception_4a/output_0_split -> inception_4a/output_inception_4a/output_0_split_1
I0403 21:38:43.147491 23730 net.cpp:399] inception_4a/output_inception_4a/output_0_split -> inception_4a/output_inception_4a/output_0_split_2
I0403 21:38:43.147513 23730 net.cpp:399] inception_4a/output_inception_4a/output_0_split -> inception_4a/output_inception_4a/output_0_split_3
I0403 21:38:43.147534 23730 net.cpp:399] inception_4a/output_inception_4a/output_0_split -> inception_4a/output_inception_4a/output_0_split_4
I0403 21:38:43.147626 23730 net.cpp:141] Setting up inception_4a/output_inception_4a/output_0_split
I0403 21:38:43.147653 23730 net.cpp:148] Top shape: 24 512 14 14 (2408448)
I0403 21:38:43.147672 23730 net.cpp:148] Top shape: 24 512 14 14 (2408448)
I0403 21:38:43.147688 23730 net.cpp:148] Top shape: 24 512 14 14 (2408448)
I0403 21:38:43.147704 23730 net.cpp:148] Top shape: 24 512 14 14 (2408448)
I0403 21:38:43.147721 23730 net.cpp:148] Top shape: 24 512 14 14 (2408448)
I0403 21:38:43.147734 23730 net.cpp:156] Memory required for data: 944714784
I0403 21:38:43.147750 23730 layer_factory.hpp:77] Creating layer loss1/ave_pool
I0403 21:38:43.147768 23730 net.cpp:91] Creating Layer loss1/ave_pool
I0403 21:38:43.147784 23730 net.cpp:425] loss1/ave_pool <- inception_4a/output_inception_4a/output_0_split_0
I0403 21:38:43.147806 23730 net.cpp:399] loss1/ave_pool -> loss1/ave_pool
I0403 21:38:43.148010 23730 net.cpp:141] Setting up loss1/ave_pool
I0403 21:38:43.148037 23730 net.cpp:148] Top shape: 24 512 4 4 (196608)
I0403 21:38:43.148052 23730 net.cpp:156] Memory required for data: 945501216
I0403 21:38:43.148067 23730 layer_factory.hpp:77] Creating layer loss1/conv
I0403 21:38:43.148092 23730 net.cpp:91] Creating Layer loss1/conv
I0403 21:38:43.148108 23730 net.cpp:425] loss1/conv <- loss1/ave_pool
I0403 21:38:43.148129 23730 net.cpp:399] loss1/conv -> loss1/conv
I0403 21:38:43.149590 23730 net.cpp:141] Setting up loss1/conv
I0403 21:38:43.149623 23730 net.cpp:148] Top shape: 24 128 4 4 (49152)
I0403 21:38:43.149654 23730 net.cpp:156] Memory required for data: 945697824
I0403 21:38:43.149675 23730 layer_factory.hpp:77] Creating layer loss1/relu_conv
I0403 21:38:43.149695 23730 net.cpp:91] Creating Layer loss1/relu_conv
I0403 21:38:43.149713 23730 net.cpp:425] loss1/relu_conv <- loss1/conv
I0403 21:38:43.149731 23730 net.cpp:386] loss1/relu_conv -> loss1/conv (in-place)
I0403 21:38:43.150020 23730 net.cpp:141] Setting up loss1/relu_conv
I0403 21:38:43.150051 23730 net.cpp:148] Top shape: 24 128 4 4 (49152)
I0403 21:38:43.150068 23730 net.cpp:156] Memory required for data: 945894432
I0403 21:38:43.150085 23730 layer_factory.hpp:77] Creating layer loss1/fc
I0403 21:38:43.150110 23730 net.cpp:91] Creating Layer loss1/fc
I0403 21:38:43.150130 23730 net.cpp:425] loss1/fc <- loss1/conv
I0403 21:38:43.150151 23730 net.cpp:399] loss1/fc -> loss1/fc
I0403 21:38:43.168505 23730 net.cpp:141] Setting up loss1/fc
I0403 21:38:43.168541 23730 net.cpp:148] Top shape: 24 1024 (24576)
I0403 21:38:43.168558 23730 net.cpp:156] Memory required for data: 945992736
I0403 21:38:43.168578 23730 layer_factory.hpp:77] Creating layer loss1/relu_fc
I0403 21:38:43.168598 23730 net.cpp:91] Creating Layer loss1/relu_fc
I0403 21:38:43.168617 23730 net.cpp:425] loss1/relu_fc <- loss1/fc
I0403 21:38:43.168635 23730 net.cpp:386] loss1/relu_fc -> loss1/fc (in-place)
I0403 21:38:43.168819 23730 net.cpp:141] Setting up loss1/relu_fc
I0403 21:38:43.168848 23730 net.cpp:148] Top shape: 24 1024 (24576)
I0403 21:38:43.168864 23730 net.cpp:156] Memory required for data: 946091040
I0403 21:38:43.168880 23730 layer_factory.hpp:77] Creating layer loss1/drop_fc
I0403 21:38:43.168906 23730 net.cpp:91] Creating Layer loss1/drop_fc
I0403 21:38:43.168926 23730 net.cpp:425] loss1/drop_fc <- loss1/fc
I0403 21:38:43.168944 23730 net.cpp:386] loss1/drop_fc -> loss1/fc (in-place)
I0403 21:38:43.168998 23730 net.cpp:141] Setting up loss1/drop_fc
I0403 21:38:43.169024 23730 net.cpp:148] Top shape: 24 1024 (24576)
I0403 21:38:43.169039 23730 net.cpp:156] Memory required for data: 946189344
I0403 21:38:43.169055 23730 layer_factory.hpp:77] Creating layer loss1/classifier_plantvillage
I0403 21:38:43.169073 23730 net.cpp:91] Creating Layer loss1/classifier_plantvillage
I0403 21:38:43.169095 23730 net.cpp:425] loss1/classifier_plantvillage <- loss1/fc
I0403 21:38:43.169114 23730 net.cpp:399] loss1/classifier_plantvillage -> loss1/classifier_plantvillage
I0403 21:38:43.170047 23730 net.cpp:141] Setting up loss1/classifier_plantvillage
I0403 21:38:43.170078 23730 net.cpp:148] Top shape: 24 38 (912)
I0403 21:38:43.170094 23730 net.cpp:156] Memory required for data: 946192992
I0403 21:38:43.170114 23730 layer_factory.hpp:77] Creating layer loss1/classifier_plantvillage_loss1/classifier_plantvillage_0_split
I0403 21:38:43.170132 23730 net.cpp:91] Creating Layer loss1/classifier_plantvillage_loss1/classifier_plantvillage_0_split
I0403 21:38:43.170150 23730 net.cpp:425] loss1/classifier_plantvillage_loss1/classifier_plantvillage_0_split <- loss1/classifier_plantvillage
I0403 21:38:43.170167 23730 net.cpp:399] loss1/classifier_plantvillage_loss1/classifier_plantvillage_0_split -> loss1/classifier_plantvillage_loss1/classifier_plantvillage_0_split_0
I0403 21:38:43.170188 23730 net.cpp:399] loss1/classifier_plantvillage_loss1/classifier_plantvillage_0_split -> loss1/classifier_plantvillage_loss1/classifier_plantvillage_0_split_1
I0403 21:38:43.170217 23730 net.cpp:399] loss1/classifier_plantvillage_loss1/classifier_plantvillage_0_split -> loss1/classifier_plantvillage_loss1/classifier_plantvillage_0_split_2
I0403 21:38:43.170284 23730 net.cpp:141] Setting up loss1/classifier_plantvillage_loss1/classifier_plantvillage_0_split
I0403 21:38:43.170308 23730 net.cpp:148] Top shape: 24 38 (912)
I0403 21:38:43.170325 23730 net.cpp:148] Top shape: 24 38 (912)
I0403 21:38:43.170341 23730 net.cpp:148] Top shape: 24 38 (912)
I0403 21:38:43.170356 23730 net.cpp:156] Memory required for data: 946203936
I0403 21:38:43.170370 23730 layer_factory.hpp:77] Creating layer inception_4b/1x1
I0403 21:38:43.170390 23730 net.cpp:91] Creating Layer inception_4b/1x1
I0403 21:38:43.170425 23730 net.cpp:425] inception_4b/1x1 <- inception_4a/output_inception_4a/output_0_split_1
I0403 21:38:43.170447 23730 net.cpp:399] inception_4b/1x1 -> inception_4b/1x1
I0403 21:38:43.172101 23730 net.cpp:141] Setting up inception_4b/1x1
I0403 21:38:43.172132 23730 net.cpp:148] Top shape: 24 160 14 14 (752640)
I0403 21:38:43.172149 23730 net.cpp:156] Memory required for data: 949214496
I0403 21:38:43.172168 23730 layer_factory.hpp:77] Creating layer inception_4b/relu_1x1
I0403 21:38:43.172186 23730 net.cpp:91] Creating Layer inception_4b/relu_1x1
I0403 21:38:43.172209 23730 net.cpp:425] inception_4b/relu_1x1 <- inception_4b/1x1
I0403 21:38:43.172229 23730 net.cpp:386] inception_4b/relu_1x1 -> inception_4b/1x1 (in-place)
I0403 21:38:43.172410 23730 net.cpp:141] Setting up inception_4b/relu_1x1
I0403 21:38:43.172436 23730 net.cpp:148] Top shape: 24 160 14 14 (752640)
I0403 21:38:43.172451 23730 net.cpp:156] Memory required for data: 952225056
I0403 21:38:43.172466 23730 layer_factory.hpp:77] Creating layer inception_4b/3x3_reduce
I0403 21:38:43.172489 23730 net.cpp:91] Creating Layer inception_4b/3x3_reduce
I0403 21:38:43.172508 23730 net.cpp:425] inception_4b/3x3_reduce <- inception_4a/output_inception_4a/output_0_split_2
I0403 21:38:43.172531 23730 net.cpp:399] inception_4b/3x3_reduce -> inception_4b/3x3_reduce
I0403 21:38:43.173866 23730 net.cpp:141] Setting up inception_4b/3x3_reduce
I0403 21:38:43.173897 23730 net.cpp:148] Top shape: 24 112 14 14 (526848)
I0403 21:38:43.173913 23730 net.cpp:156] Memory required for data: 954332448
I0403 21:38:43.173933 23730 layer_factory.hpp:77] Creating layer inception_4b/relu_3x3_reduce
I0403 21:38:43.173954 23730 net.cpp:91] Creating Layer inception_4b/relu_3x3_reduce
I0403 21:38:43.173971 23730 net.cpp:425] inception_4b/relu_3x3_reduce <- inception_4b/3x3_reduce
I0403 21:38:43.173991 23730 net.cpp:386] inception_4b/relu_3x3_reduce -> inception_4b/3x3_reduce (in-place)
I0403 21:38:43.174275 23730 net.cpp:141] Setting up inception_4b/relu_3x3_reduce
I0403 21:38:43.174304 23730 net.cpp:148] Top shape: 24 112 14 14 (526848)
I0403 21:38:43.174319 23730 net.cpp:156] Memory required for data: 956439840
I0403 21:38:43.174335 23730 layer_factory.hpp:77] Creating layer inception_4b/3x3
I0403 21:38:43.174361 23730 net.cpp:91] Creating Layer inception_4b/3x3
I0403 21:38:43.174381 23730 net.cpp:425] inception_4b/3x3 <- inception_4b/3x3_reduce
I0403 21:38:43.174403 23730 net.cpp:399] inception_4b/3x3 -> inception_4b/3x3
I0403 21:38:43.177363 23730 net.cpp:141] Setting up inception_4b/3x3
I0403 21:38:43.177392 23730 net.cpp:148] Top shape: 24 224 14 14 (1053696)
I0403 21:38:43.177408 23730 net.cpp:156] Memory required for data: 960654624
I0403 21:38:43.177428 23730 layer_factory.hpp:77] Creating layer inception_4b/relu_3x3
I0403 21:38:43.177448 23730 net.cpp:91] Creating Layer inception_4b/relu_3x3
I0403 21:38:43.177466 23730 net.cpp:425] inception_4b/relu_3x3 <- inception_4b/3x3
I0403 21:38:43.177484 23730 net.cpp:386] inception_4b/relu_3x3 -> inception_4b/3x3 (in-place)
I0403 21:38:43.177659 23730 net.cpp:141] Setting up inception_4b/relu_3x3
I0403 21:38:43.177687 23730 net.cpp:148] Top shape: 24 224 14 14 (1053696)
I0403 21:38:43.177703 23730 net.cpp:156] Memory required for data: 964869408
I0403 21:38:43.177718 23730 layer_factory.hpp:77] Creating layer inception_4b/5x5_reduce
I0403 21:38:43.177741 23730 net.cpp:91] Creating Layer inception_4b/5x5_reduce
I0403 21:38:43.177757 23730 net.cpp:425] inception_4b/5x5_reduce <- inception_4a/output_inception_4a/output_0_split_3
I0403 21:38:43.177777 23730 net.cpp:399] inception_4b/5x5_reduce -> inception_4b/5x5_reduce
I0403 21:38:43.178829 23730 net.cpp:141] Setting up inception_4b/5x5_reduce
I0403 21:38:43.178859 23730 net.cpp:148] Top shape: 24 24 14 14 (112896)
I0403 21:38:43.178875 23730 net.cpp:156] Memory required for data: 965320992
I0403 21:38:43.178894 23730 layer_factory.hpp:77] Creating layer inception_4b/relu_5x5_reduce
I0403 21:38:43.178913 23730 net.cpp:91] Creating Layer inception_4b/relu_5x5_reduce
I0403 21:38:43.178946 23730 net.cpp:425] inception_4b/relu_5x5_reduce <- inception_4b/5x5_reduce
I0403 21:38:43.178968 23730 net.cpp:386] inception_4b/relu_5x5_reduce -> inception_4b/5x5_reduce (in-place)
I0403 21:38:43.179149 23730 net.cpp:141] Setting up inception_4b/relu_5x5_reduce
I0403 21:38:43.179174 23730 net.cpp:148] Top shape: 24 24 14 14 (112896)
I0403 21:38:43.179189 23730 net.cpp:156] Memory required for data: 965772576
I0403 21:38:43.179209 23730 layer_factory.hpp:77] Creating layer inception_4b/5x5
I0403 21:38:43.179232 23730 net.cpp:91] Creating Layer inception_4b/5x5
I0403 21:38:43.179250 23730 net.cpp:425] inception_4b/5x5 <- inception_4b/5x5_reduce
I0403 21:38:43.179272 23730 net.cpp:399] inception_4b/5x5 -> inception_4b/5x5
I0403 21:38:43.180449 23730 net.cpp:141] Setting up inception_4b/5x5
I0403 21:38:43.180479 23730 net.cpp:148] Top shape: 24 64 14 14 (301056)
I0403 21:38:43.180495 23730 net.cpp:156] Memory required for data: 966976800
I0403 21:38:43.180513 23730 layer_factory.hpp:77] Creating layer inception_4b/relu_5x5
I0403 21:38:43.180531 23730 net.cpp:91] Creating Layer inception_4b/relu_5x5
I0403 21:38:43.180548 23730 net.cpp:425] inception_4b/relu_5x5 <- inception_4b/5x5
I0403 21:38:43.180565 23730 net.cpp:386] inception_4b/relu_5x5 -> inception_4b/5x5 (in-place)
I0403 21:38:43.180840 23730 net.cpp:141] Setting up inception_4b/relu_5x5
I0403 21:38:43.180869 23730 net.cpp:148] Top shape: 24 64 14 14 (301056)
I0403 21:38:43.180886 23730 net.cpp:156] Memory required for data: 968181024
I0403 21:38:43.180902 23730 layer_factory.hpp:77] Creating layer inception_4b/pool
I0403 21:38:43.180918 23730 net.cpp:91] Creating Layer inception_4b/pool
I0403 21:38:43.180935 23730 net.cpp:425] inception_4b/pool <- inception_4a/output_inception_4a/output_0_split_4
I0403 21:38:43.180956 23730 net.cpp:399] inception_4b/pool -> inception_4b/pool
I0403 21:38:43.181020 23730 net.cpp:141] Setting up inception_4b/pool
I0403 21:38:43.181044 23730 net.cpp:148] Top shape: 24 512 14 14 (2408448)
I0403 21:38:43.181059 23730 net.cpp:156] Memory required for data: 977814816
I0403 21:38:43.181072 23730 layer_factory.hpp:77] Creating layer inception_4b/pool_proj
I0403 21:38:43.181094 23730 net.cpp:91] Creating Layer inception_4b/pool_proj
I0403 21:38:43.181113 23730 net.cpp:425] inception_4b/pool_proj <- inception_4b/pool
I0403 21:38:43.181134 23730 net.cpp:399] inception_4b/pool_proj -> inception_4b/pool_proj
I0403 21:38:43.182296 23730 net.cpp:141] Setting up inception_4b/pool_proj
I0403 21:38:43.182327 23730 net.cpp:148] Top shape: 24 64 14 14 (301056)
I0403 21:38:43.182343 23730 net.cpp:156] Memory required for data: 979019040
I0403 21:38:43.182363 23730 layer_factory.hpp:77] Creating layer inception_4b/relu_pool_proj
I0403 21:38:43.182380 23730 net.cpp:91] Creating Layer inception_4b/relu_pool_proj
I0403 21:38:43.182397 23730 net.cpp:425] inception_4b/relu_pool_proj <- inception_4b/pool_proj
I0403 21:38:43.182420 23730 net.cpp:386] inception_4b/relu_pool_proj -> inception_4b/pool_proj (in-place)
I0403 21:38:43.182600 23730 net.cpp:141] Setting up inception_4b/relu_pool_proj
I0403 21:38:43.182626 23730 net.cpp:148] Top shape: 24 64 14 14 (301056)
I0403 21:38:43.182641 23730 net.cpp:156] Memory required for data: 980223264
I0403 21:38:43.182656 23730 layer_factory.hpp:77] Creating layer inception_4b/output
I0403 21:38:43.182673 23730 net.cpp:91] Creating Layer inception_4b/output
I0403 21:38:43.182689 23730 net.cpp:425] inception_4b/output <- inception_4b/1x1
I0403 21:38:43.182705 23730 net.cpp:425] inception_4b/output <- inception_4b/3x3
I0403 21:38:43.182721 23730 net.cpp:425] inception_4b/output <- inception_4b/5x5
I0403 21:38:43.182737 23730 net.cpp:425] inception_4b/output <- inception_4b/pool_proj
I0403 21:38:43.182756 23730 net.cpp:399] inception_4b/output -> inception_4b/output
I0403 21:38:43.182801 23730 net.cpp:141] Setting up inception_4b/output
I0403 21:38:43.182827 23730 net.cpp:148] Top shape: 24 512 14 14 (2408448)
I0403 21:38:43.182843 23730 net.cpp:156] Memory required for data: 989857056
I0403 21:38:43.182871 23730 layer_factory.hpp:77] Creating layer inception_4b/output_inception_4b/output_0_split
I0403 21:38:43.182890 23730 net.cpp:91] Creating Layer inception_4b/output_inception_4b/output_0_split
I0403 21:38:43.182906 23730 net.cpp:425] inception_4b/output_inception_4b/output_0_split <- inception_4b/output
I0403 21:38:43.182926 23730 net.cpp:399] inception_4b/output_inception_4b/output_0_split -> inception_4b/output_inception_4b/output_0_split_0
I0403 21:38:43.182948 23730 net.cpp:399] inception_4b/output_inception_4b/output_0_split -> inception_4b/output_inception_4b/output_0_split_1
I0403 21:38:43.182971 23730 net.cpp:399] inception_4b/output_inception_4b/output_0_split -> inception_4b/output_inception_4b/output_0_split_2
I0403 21:38:43.182992 23730 net.cpp:399] inception_4b/output_inception_4b/output_0_split -> inception_4b/output_inception_4b/output_0_split_3
I0403 21:38:43.183073 23730 net.cpp:141] Setting up inception_4b/output_inception_4b/output_0_split
I0403 21:38:43.183096 23730 net.cpp:148] Top shape: 24 512 14 14 (2408448)
I0403 21:38:43.183116 23730 net.cpp:148] Top shape: 24 512 14 14 (2408448)
I0403 21:38:43.183132 23730 net.cpp:148] Top shape: 24 512 14 14 (2408448)
I0403 21:38:43.183148 23730 net.cpp:148] Top shape: 24 512 14 14 (2408448)
I0403 21:38:43.183161 23730 net.cpp:156] Memory required for data: 1028392224
I0403 21:38:43.183176 23730 layer_factory.hpp:77] Creating layer inception_4c/1x1
I0403 21:38:43.183194 23730 net.cpp:91] Creating Layer inception_4c/1x1
I0403 21:38:43.183218 23730 net.cpp:425] inception_4c/1x1 <- inception_4b/output_inception_4b/output_0_split_0
I0403 21:38:43.183238 23730 net.cpp:399] inception_4c/1x1 -> inception_4c/1x1
I0403 21:38:43.184631 23730 net.cpp:141] Setting up inception_4c/1x1
I0403 21:38:43.184659 23730 net.cpp:148] Top shape: 24 128 14 14 (602112)
I0403 21:38:43.184675 23730 net.cpp:156] Memory required for data: 1030800672
I0403 21:38:43.184692 23730 layer_factory.hpp:77] Creating layer inception_4c/relu_1x1
I0403 21:38:43.184715 23730 net.cpp:91] Creating Layer inception_4c/relu_1x1
I0403 21:38:43.184732 23730 net.cpp:425] inception_4c/relu_1x1 <- inception_4c/1x1
I0403 21:38:43.184751 23730 net.cpp:386] inception_4c/relu_1x1 -> inception_4c/1x1 (in-place)
I0403 21:38:43.184926 23730 net.cpp:141] Setting up inception_4c/relu_1x1
I0403 21:38:43.184952 23730 net.cpp:148] Top shape: 24 128 14 14 (602112)
I0403 21:38:43.184967 23730 net.cpp:156] Memory required for data: 1033209120
I0403 21:38:43.184981 23730 layer_factory.hpp:77] Creating layer inception_4c/3x3_reduce
I0403 21:38:43.185009 23730 net.cpp:91] Creating Layer inception_4c/3x3_reduce
I0403 21:38:43.185026 23730 net.cpp:425] inception_4c/3x3_reduce <- inception_4b/output_inception_4b/output_0_split_1
I0403 21:38:43.185047 23730 net.cpp:399] inception_4c/3x3_reduce -> inception_4c/3x3_reduce
I0403 21:38:43.186956 23730 net.cpp:141] Setting up inception_4c/3x3_reduce
I0403 21:38:43.186985 23730 net.cpp:148] Top shape: 24 128 14 14 (602112)
I0403 21:38:43.187001 23730 net.cpp:156] Memory required for data: 1035617568
I0403 21:38:43.187021 23730 layer_factory.hpp:77] Creating layer inception_4c/relu_3x3_reduce
I0403 21:38:43.187042 23730 net.cpp:91] Creating Layer inception_4c/relu_3x3_reduce
I0403 21:38:43.187060 23730 net.cpp:425] inception_4c/relu_3x3_reduce <- inception_4c/3x3_reduce
I0403 21:38:43.187078 23730 net.cpp:386] inception_4c/relu_3x3_reduce -> inception_4c/3x3_reduce (in-place)
I0403 21:38:43.187361 23730 net.cpp:141] Setting up inception_4c/relu_3x3_reduce
I0403 21:38:43.187387 23730 net.cpp:148] Top shape: 24 128 14 14 (602112)
I0403 21:38:43.187403 23730 net.cpp:156] Memory required for data: 1038026016
I0403 21:38:43.187418 23730 layer_factory.hpp:77] Creating layer inception_4c/3x3
I0403 21:38:43.187443 23730 net.cpp:91] Creating Layer inception_4c/3x3
I0403 21:38:43.187463 23730 net.cpp:425] inception_4c/3x3 <- inception_4c/3x3_reduce
I0403 21:38:43.187480 23730 net.cpp:399] inception_4c/3x3 -> inception_4c/3x3
I0403 21:38:43.191002 23730 net.cpp:141] Setting up inception_4c/3x3
I0403 21:38:43.191046 23730 net.cpp:148] Top shape: 24 256 14 14 (1204224)
I0403 21:38:43.191064 23730 net.cpp:156] Memory required for data: 1042842912
I0403 21:38:43.191095 23730 layer_factory.hpp:77] Creating layer inception_4c/relu_3x3
I0403 21:38:43.191117 23730 net.cpp:91] Creating Layer inception_4c/relu_3x3
I0403 21:38:43.191134 23730 net.cpp:425] inception_4c/relu_3x3 <- inception_4c/3x3
I0403 21:38:43.191153 23730 net.cpp:386] inception_4c/relu_3x3 -> inception_4c/3x3 (in-place)
I0403 21:38:43.191344 23730 net.cpp:141] Setting up inception_4c/relu_3x3
I0403 21:38:43.191371 23730 net.cpp:148] Top shape: 24 256 14 14 (1204224)
I0403 21:38:43.191388 23730 net.cpp:156] Memory required for data: 1047659808
I0403 21:38:43.191403 23730 layer_factory.hpp:77] Creating layer inception_4c/5x5_reduce
I0403 21:38:43.191426 23730 net.cpp:91] Creating Layer inception_4c/5x5_reduce
I0403 21:38:43.191444 23730 net.cpp:425] inception_4c/5x5_reduce <- inception_4b/output_inception_4b/output_0_split_2
I0403 21:38:43.191464 23730 net.cpp:399] inception_4c/5x5_reduce -> inception_4c/5x5_reduce
I0403 21:38:43.192508 23730 net.cpp:141] Setting up inception_4c/5x5_reduce
I0403 21:38:43.192538 23730 net.cpp:148] Top shape: 24 24 14 14 (112896)
I0403 21:38:43.192555 23730 net.cpp:156] Memory required for data: 1048111392
I0403 21:38:43.192575 23730 layer_factory.hpp:77] Creating layer inception_4c/relu_5x5_reduce
I0403 21:38:43.192594 23730 net.cpp:91] Creating Layer inception_4c/relu_5x5_reduce
I0403 21:38:43.192610 23730 net.cpp:425] inception_4c/relu_5x5_reduce <- inception_4c/5x5_reduce
I0403 21:38:43.192630 23730 net.cpp:386] inception_4c/relu_5x5_reduce -> inception_4c/5x5_reduce (in-place)
I0403 21:38:43.192806 23730 net.cpp:141] Setting up inception_4c/relu_5x5_reduce
I0403 21:38:43.192831 23730 net.cpp:148] Top shape: 24 24 14 14 (112896)
I0403 21:38:43.192845 23730 net.cpp:156] Memory required for data: 1048562976
I0403 21:38:43.192860 23730 layer_factory.hpp:77] Creating layer inception_4c/5x5
I0403 21:38:43.192883 23730 net.cpp:91] Creating Layer inception_4c/5x5
I0403 21:38:43.192901 23730 net.cpp:425] inception_4c/5x5 <- inception_4c/5x5_reduce
I0403 21:38:43.192926 23730 net.cpp:399] inception_4c/5x5 -> inception_4c/5x5
I0403 21:38:43.194124 23730 net.cpp:141] Setting up inception_4c/5x5
I0403 21:38:43.194152 23730 net.cpp:148] Top shape: 24 64 14 14 (301056)
I0403 21:38:43.194169 23730 net.cpp:156] Memory required for data: 1049767200
I0403 21:38:43.194186 23730 layer_factory.hpp:77] Creating layer inception_4c/relu_5x5
I0403 21:38:43.194212 23730 net.cpp:91] Creating Layer inception_4c/relu_5x5
I0403 21:38:43.194231 23730 net.cpp:425] inception_4c/relu_5x5 <- inception_4c/5x5
I0403 21:38:43.194249 23730 net.cpp:386] inception_4c/relu_5x5 -> inception_4c/5x5 (in-place)
I0403 21:38:43.194527 23730 net.cpp:141] Setting up inception_4c/relu_5x5
I0403 21:38:43.194555 23730 net.cpp:148] Top shape: 24 64 14 14 (301056)
I0403 21:38:43.194571 23730 net.cpp:156] Memory required for data: 1050971424
I0403 21:38:43.194586 23730 layer_factory.hpp:77] Creating layer inception_4c/pool
I0403 21:38:43.194603 23730 net.cpp:91] Creating Layer inception_4c/pool
I0403 21:38:43.194619 23730 net.cpp:425] inception_4c/pool <- inception_4b/output_inception_4b/output_0_split_3
I0403 21:38:43.194641 23730 net.cpp:399] inception_4c/pool -> inception_4c/pool
I0403 21:38:43.194707 23730 net.cpp:141] Setting up inception_4c/pool
I0403 21:38:43.194731 23730 net.cpp:148] Top shape: 24 512 14 14 (2408448)
I0403 21:38:43.194746 23730 net.cpp:156] Memory required for data: 1060605216
I0403 21:38:43.194762 23730 layer_factory.hpp:77] Creating layer inception_4c/pool_proj
I0403 21:38:43.194784 23730 net.cpp:91] Creating Layer inception_4c/pool_proj
I0403 21:38:43.194802 23730 net.cpp:425] inception_4c/pool_proj <- inception_4c/pool
I0403 21:38:43.194823 23730 net.cpp:399] inception_4c/pool_proj -> inception_4c/pool_proj
I0403 21:38:43.195997 23730 net.cpp:141] Setting up inception_4c/pool_proj
I0403 21:38:43.196029 23730 net.cpp:148] Top shape: 24 64 14 14 (301056)
I0403 21:38:43.196059 23730 net.cpp:156] Memory required for data: 1061809440
I0403 21:38:43.196079 23730 layer_factory.hpp:77] Creating layer inception_4c/relu_pool_proj
I0403 21:38:43.196099 23730 net.cpp:91] Creating Layer inception_4c/relu_pool_proj
I0403 21:38:43.196115 23730 net.cpp:425] inception_4c/relu_pool_proj <- inception_4c/pool_proj
I0403 21:38:43.196132 23730 net.cpp:386] inception_4c/relu_pool_proj -> inception_4c/pool_proj (in-place)
I0403 21:38:43.196316 23730 net.cpp:141] Setting up inception_4c/relu_pool_proj
I0403 21:38:43.196342 23730 net.cpp:148] Top shape: 24 64 14 14 (301056)
I0403 21:38:43.196357 23730 net.cpp:156] Memory required for data: 1063013664
I0403 21:38:43.196372 23730 layer_factory.hpp:77] Creating layer inception_4c/output
I0403 21:38:43.196388 23730 net.cpp:91] Creating Layer inception_4c/output
I0403 21:38:43.196404 23730 net.cpp:425] inception_4c/output <- inception_4c/1x1
I0403 21:38:43.196420 23730 net.cpp:425] inception_4c/output <- inception_4c/3x3
I0403 21:38:43.196436 23730 net.cpp:425] inception_4c/output <- inception_4c/5x5
I0403 21:38:43.196454 23730 net.cpp:425] inception_4c/output <- inception_4c/pool_proj
I0403 21:38:43.196472 23730 net.cpp:399] inception_4c/output -> inception_4c/output
I0403 21:38:43.196519 23730 net.cpp:141] Setting up inception_4c/output
I0403 21:38:43.196548 23730 net.cpp:148] Top shape: 24 512 14 14 (2408448)
I0403 21:38:43.196564 23730 net.cpp:156] Memory required for data: 1072647456
I0403 21:38:43.196579 23730 layer_factory.hpp:77] Creating layer inception_4c/output_inception_4c/output_0_split
I0403 21:38:43.196595 23730 net.cpp:91] Creating Layer inception_4c/output_inception_4c/output_0_split
I0403 21:38:43.196612 23730 net.cpp:425] inception_4c/output_inception_4c/output_0_split <- inception_4c/output
I0403 21:38:43.196632 23730 net.cpp:399] inception_4c/output_inception_4c/output_0_split -> inception_4c/output_inception_4c/output_0_split_0
I0403 21:38:43.196653 23730 net.cpp:399] inception_4c/output_inception_4c/output_0_split -> inception_4c/output_inception_4c/output_0_split_1
I0403 21:38:43.196673 23730 net.cpp:399] inception_4c/output_inception_4c/output_0_split -> inception_4c/output_inception_4c/output_0_split_2
I0403 21:38:43.196694 23730 net.cpp:399] inception_4c/output_inception_4c/output_0_split -> inception_4c/output_inception_4c/output_0_split_3
I0403 21:38:43.196777 23730 net.cpp:141] Setting up inception_4c/output_inception_4c/output_0_split
I0403 21:38:43.196801 23730 net.cpp:148] Top shape: 24 512 14 14 (2408448)
I0403 21:38:43.196818 23730 net.cpp:148] Top shape: 24 512 14 14 (2408448)
I0403 21:38:43.196835 23730 net.cpp:148] Top shape: 24 512 14 14 (2408448)
I0403 21:38:43.196849 23730 net.cpp:148] Top shape: 24 512 14 14 (2408448)
I0403 21:38:43.196863 23730 net.cpp:156] Memory required for data: 1111182624
I0403 21:38:43.196877 23730 layer_factory.hpp:77] Creating layer inception_4d/1x1
I0403 21:38:43.196899 23730 net.cpp:91] Creating Layer inception_4d/1x1
I0403 21:38:43.196918 23730 net.cpp:425] inception_4d/1x1 <- inception_4c/output_inception_4c/output_0_split_0
I0403 21:38:43.196940 23730 net.cpp:399] inception_4d/1x1 -> inception_4d/1x1
I0403 21:38:43.198290 23730 net.cpp:141] Setting up inception_4d/1x1
I0403 21:38:43.198318 23730 net.cpp:148] Top shape: 24 112 14 14 (526848)
I0403 21:38:43.198334 23730 net.cpp:156] Memory required for data: 1113290016
I0403 21:38:43.198354 23730 layer_factory.hpp:77] Creating layer inception_4d/relu_1x1
I0403 21:38:43.198374 23730 net.cpp:91] Creating Layer inception_4d/relu_1x1
I0403 21:38:43.198391 23730 net.cpp:425] inception_4d/relu_1x1 <- inception_4d/1x1
I0403 21:38:43.198410 23730 net.cpp:386] inception_4d/relu_1x1 -> inception_4d/1x1 (in-place)
I0403 21:38:43.198586 23730 net.cpp:141] Setting up inception_4d/relu_1x1
I0403 21:38:43.198613 23730 net.cpp:148] Top shape: 24 112 14 14 (526848)
I0403 21:38:43.198628 23730 net.cpp:156] Memory required for data: 1115397408
I0403 21:38:43.198643 23730 layer_factory.hpp:77] Creating layer inception_4d/3x3_reduce
I0403 21:38:43.198679 23730 net.cpp:91] Creating Layer inception_4d/3x3_reduce
I0403 21:38:43.198698 23730 net.cpp:425] inception_4d/3x3_reduce <- inception_4c/output_inception_4c/output_0_split_1
I0403 21:38:43.198719 23730 net.cpp:399] inception_4d/3x3_reduce -> inception_4d/3x3_reduce
I0403 21:38:43.200178 23730 net.cpp:141] Setting up inception_4d/3x3_reduce
I0403 21:38:43.200209 23730 net.cpp:148] Top shape: 24 144 14 14 (677376)
I0403 21:38:43.200227 23730 net.cpp:156] Memory required for data: 1118106912
I0403 21:38:43.200247 23730 layer_factory.hpp:77] Creating layer inception_4d/relu_3x3_reduce
I0403 21:38:43.200268 23730 net.cpp:91] Creating Layer inception_4d/relu_3x3_reduce
I0403 21:38:43.200284 23730 net.cpp:425] inception_4d/relu_3x3_reduce <- inception_4d/3x3_reduce
I0403 21:38:43.200302 23730 net.cpp:386] inception_4d/relu_3x3_reduce -> inception_4d/3x3_reduce (in-place)
I0403 21:38:43.200587 23730 net.cpp:141] Setting up inception_4d/relu_3x3_reduce
I0403 21:38:43.200613 23730 net.cpp:148] Top shape: 24 144 14 14 (677376)
I0403 21:38:43.200629 23730 net.cpp:156] Memory required for data: 1120816416
I0403 21:38:43.200644 23730 layer_factory.hpp:77] Creating layer inception_4d/3x3
I0403 21:38:43.200670 23730 net.cpp:91] Creating Layer inception_4d/3x3
I0403 21:38:43.200687 23730 net.cpp:425] inception_4d/3x3 <- inception_4d/3x3_reduce
I0403 21:38:43.200709 23730 net.cpp:399] inception_4d/3x3 -> inception_4d/3x3
I0403 21:38:43.205005 23730 net.cpp:141] Setting up inception_4d/3x3
I0403 21:38:43.205035 23730 net.cpp:148] Top shape: 24 288 14 14 (1354752)
I0403 21:38:43.205052 23730 net.cpp:156] Memory required for data: 1126235424
I0403 21:38:43.205072 23730 layer_factory.hpp:77] Creating layer inception_4d/relu_3x3
I0403 21:38:43.205093 23730 net.cpp:91] Creating Layer inception_4d/relu_3x3
I0403 21:38:43.205111 23730 net.cpp:425] inception_4d/relu_3x3 <- inception_4d/3x3
I0403 21:38:43.205130 23730 net.cpp:386] inception_4d/relu_3x3 -> inception_4d/3x3 (in-place)
I0403 21:38:43.205322 23730 net.cpp:141] Setting up inception_4d/relu_3x3
I0403 21:38:43.205349 23730 net.cpp:148] Top shape: 24 288 14 14 (1354752)
I0403 21:38:43.205365 23730 net.cpp:156] Memory required for data: 1131654432
I0403 21:38:43.205381 23730 layer_factory.hpp:77] Creating layer inception_4d/5x5_reduce
I0403 21:38:43.205404 23730 net.cpp:91] Creating Layer inception_4d/5x5_reduce
I0403 21:38:43.205422 23730 net.cpp:425] inception_4d/5x5_reduce <- inception_4c/output_inception_4c/output_0_split_2
I0403 21:38:43.205446 23730 net.cpp:399] inception_4d/5x5_reduce -> inception_4d/5x5_reduce
I0403 21:38:43.206586 23730 net.cpp:141] Setting up inception_4d/5x5_reduce
I0403 21:38:43.206615 23730 net.cpp:148] Top shape: 24 32 14 14 (150528)
I0403 21:38:43.206632 23730 net.cpp:156] Memory required for data: 1132256544
I0403 21:38:43.206651 23730 layer_factory.hpp:77] Creating layer inception_4d/relu_5x5_reduce
I0403 21:38:43.206673 23730 net.cpp:91] Creating Layer inception_4d/relu_5x5_reduce
I0403 21:38:43.206691 23730 net.cpp:425] inception_4d/relu_5x5_reduce <- inception_4d/5x5_reduce
I0403 21:38:43.206709 23730 net.cpp:386] inception_4d/relu_5x5_reduce -> inception_4d/5x5_reduce (in-place)
I0403 21:38:43.206898 23730 net.cpp:141] Setting up inception_4d/relu_5x5_reduce
I0403 21:38:43.206926 23730 net.cpp:148] Top shape: 24 32 14 14 (150528)
I0403 21:38:43.206944 23730 net.cpp:156] Memory required for data: 1132858656
I0403 21:38:43.206960 23730 layer_factory.hpp:77] Creating layer inception_4d/5x5
I0403 21:38:43.206982 23730 net.cpp:91] Creating Layer inception_4d/5x5
I0403 21:38:43.207000 23730 net.cpp:425] inception_4d/5x5 <- inception_4d/5x5_reduce
I0403 21:38:43.207022 23730 net.cpp:399] inception_4d/5x5 -> inception_4d/5x5
I0403 21:38:43.208498 23730 net.cpp:141] Setting up inception_4d/5x5
I0403 21:38:43.208528 23730 net.cpp:148] Top shape: 24 64 14 14 (301056)
I0403 21:38:43.208545 23730 net.cpp:156] Memory required for data: 1134062880
I0403 21:38:43.208565 23730 layer_factory.hpp:77] Creating layer inception_4d/relu_5x5
I0403 21:38:43.208600 23730 net.cpp:91] Creating Layer inception_4d/relu_5x5
I0403 21:38:43.208618 23730 net.cpp:425] inception_4d/relu_5x5 <- inception_4d/5x5
I0403 21:38:43.208642 23730 net.cpp:386] inception_4d/relu_5x5 -> inception_4d/5x5 (in-place)
I0403 21:38:43.208945 23730 net.cpp:141] Setting up inception_4d/relu_5x5
I0403 21:38:43.208973 23730 net.cpp:148] Top shape: 24 64 14 14 (301056)
I0403 21:38:43.208991 23730 net.cpp:156] Memory required for data: 1135267104
I0403 21:38:43.209005 23730 layer_factory.hpp:77] Creating layer inception_4d/pool
I0403 21:38:43.209024 23730 net.cpp:91] Creating Layer inception_4d/pool
I0403 21:38:43.209043 23730 net.cpp:425] inception_4d/pool <- inception_4c/output_inception_4c/output_0_split_3
I0403 21:38:43.209066 23730 net.cpp:399] inception_4d/pool -> inception_4d/pool
I0403 21:38:43.209133 23730 net.cpp:141] Setting up inception_4d/pool
I0403 21:38:43.209161 23730 net.cpp:148] Top shape: 24 512 14 14 (2408448)
I0403 21:38:43.209177 23730 net.cpp:156] Memory required for data: 1144900896
I0403 21:38:43.209192 23730 layer_factory.hpp:77] Creating layer inception_4d/pool_proj
I0403 21:38:43.209220 23730 net.cpp:91] Creating Layer inception_4d/pool_proj
I0403 21:38:43.209240 23730 net.cpp:425] inception_4d/pool_proj <- inception_4d/pool
I0403 21:38:43.209259 23730 net.cpp:399] inception_4d/pool_proj -> inception_4d/pool_proj
I0403 21:38:43.211035 23730 net.cpp:141] Setting up inception_4d/pool_proj
I0403 21:38:43.211066 23730 net.cpp:148] Top shape: 24 64 14 14 (301056)
I0403 21:38:43.211082 23730 net.cpp:156] Memory required for data: 1146105120
I0403 21:38:43.211102 23730 layer_factory.hpp:77] Creating layer inception_4d/relu_pool_proj
I0403 21:38:43.211122 23730 net.cpp:91] Creating Layer inception_4d/relu_pool_proj
I0403 21:38:43.211141 23730 net.cpp:425] inception_4d/relu_pool_proj <- inception_4d/pool_proj
I0403 21:38:43.211160 23730 net.cpp:386] inception_4d/relu_pool_proj -> inception_4d/pool_proj (in-place)
I0403 21:38:43.211351 23730 net.cpp:141] Setting up inception_4d/relu_pool_proj
I0403 21:38:43.211379 23730 net.cpp:148] Top shape: 24 64 14 14 (301056)
I0403 21:38:43.211393 23730 net.cpp:156] Memory required for data: 1147309344
I0403 21:38:43.211410 23730 layer_factory.hpp:77] Creating layer inception_4d/output
I0403 21:38:43.211427 23730 net.cpp:91] Creating Layer inception_4d/output
I0403 21:38:43.211443 23730 net.cpp:425] inception_4d/output <- inception_4d/1x1
I0403 21:38:43.211460 23730 net.cpp:425] inception_4d/output <- inception_4d/3x3
I0403 21:38:43.211477 23730 net.cpp:425] inception_4d/output <- inception_4d/5x5
I0403 21:38:43.211495 23730 net.cpp:425] inception_4d/output <- inception_4d/pool_proj
I0403 21:38:43.211514 23730 net.cpp:399] inception_4d/output -> inception_4d/output
I0403 21:38:43.211563 23730 net.cpp:141] Setting up inception_4d/output
I0403 21:38:43.211587 23730 net.cpp:148] Top shape: 24 528 14 14 (2483712)
I0403 21:38:43.211603 23730 net.cpp:156] Memory required for data: 1157244192
I0403 21:38:43.211618 23730 layer_factory.hpp:77] Creating layer inception_4d/output_inception_4d/output_0_split
I0403 21:38:43.211639 23730 net.cpp:91] Creating Layer inception_4d/output_inception_4d/output_0_split
I0403 21:38:43.211658 23730 net.cpp:425] inception_4d/output_inception_4d/output_0_split <- inception_4d/output
I0403 21:38:43.211676 23730 net.cpp:399] inception_4d/output_inception_4d/output_0_split -> inception_4d/output_inception_4d/output_0_split_0
I0403 21:38:43.211699 23730 net.cpp:399] inception_4d/output_inception_4d/output_0_split -> inception_4d/output_inception_4d/output_0_split_1
I0403 21:38:43.211727 23730 net.cpp:399] inception_4d/output_inception_4d/output_0_split -> inception_4d/output_inception_4d/output_0_split_2
I0403 21:38:43.211750 23730 net.cpp:399] inception_4d/output_inception_4d/output_0_split -> inception_4d/output_inception_4d/output_0_split_3
I0403 21:38:43.211772 23730 net.cpp:399] inception_4d/output_inception_4d/output_0_split -> inception_4d/output_inception_4d/output_0_split_4
I0403 21:38:43.211877 23730 net.cpp:141] Setting up inception_4d/output_inception_4d/output_0_split
I0403 21:38:43.211915 23730 net.cpp:148] Top shape: 24 528 14 14 (2483712)
I0403 21:38:43.211933 23730 net.cpp:148] Top shape: 24 528 14 14 (2483712)
I0403 21:38:43.211951 23730 net.cpp:148] Top shape: 24 528 14 14 (2483712)
I0403 21:38:43.211966 23730 net.cpp:148] Top shape: 24 528 14 14 (2483712)
I0403 21:38:43.211982 23730 net.cpp:148] Top shape: 24 528 14 14 (2483712)
I0403 21:38:43.211997 23730 net.cpp:156] Memory required for data: 1206918432
I0403 21:38:43.212013 23730 layer_factory.hpp:77] Creating layer loss2/ave_pool
I0403 21:38:43.212033 23730 net.cpp:91] Creating Layer loss2/ave_pool
I0403 21:38:43.212051 23730 net.cpp:425] loss2/ave_pool <- inception_4d/output_inception_4d/output_0_split_0
I0403 21:38:43.212069 23730 net.cpp:399] loss2/ave_pool -> loss2/ave_pool
I0403 21:38:43.212384 23730 net.cpp:141] Setting up loss2/ave_pool
I0403 21:38:43.212411 23730 net.cpp:148] Top shape: 24 528 4 4 (202752)
I0403 21:38:43.212430 23730 net.cpp:156] Memory required for data: 1207729440
I0403 21:38:43.212445 23730 layer_factory.hpp:77] Creating layer loss2/conv
I0403 21:38:43.212467 23730 net.cpp:91] Creating Layer loss2/conv
I0403 21:38:43.212486 23730 net.cpp:425] loss2/conv <- loss2/ave_pool
I0403 21:38:43.212507 23730 net.cpp:399] loss2/conv -> loss2/conv
I0403 21:38:43.214416 23730 net.cpp:141] Setting up loss2/conv
I0403 21:38:43.214445 23730 net.cpp:148] Top shape: 24 128 4 4 (49152)
I0403 21:38:43.214462 23730 net.cpp:156] Memory required for data: 1207926048
I0403 21:38:43.214481 23730 layer_factory.hpp:77] Creating layer loss2/relu_conv
I0403 21:38:43.214499 23730 net.cpp:91] Creating Layer loss2/relu_conv
I0403 21:38:43.214517 23730 net.cpp:425] loss2/relu_conv <- loss2/conv
I0403 21:38:43.214539 23730 net.cpp:386] loss2/relu_conv -> loss2/conv (in-place)
I0403 21:38:43.214833 23730 net.cpp:141] Setting up loss2/relu_conv
I0403 21:38:43.214861 23730 net.cpp:148] Top shape: 24 128 4 4 (49152)
I0403 21:38:43.214877 23730 net.cpp:156] Memory required for data: 1208122656
I0403 21:38:43.214892 23730 layer_factory.hpp:77] Creating layer loss2/fc
I0403 21:38:43.214910 23730 net.cpp:91] Creating Layer loss2/fc
I0403 21:38:43.214927 23730 net.cpp:425] loss2/fc <- loss2/conv
I0403 21:38:43.214949 23730 net.cpp:399] loss2/fc -> loss2/fc
I0403 21:38:43.232290 23730 net.cpp:141] Setting up loss2/fc
I0403 21:38:43.232355 23730 net.cpp:148] Top shape: 24 1024 (24576)
I0403 21:38:43.232372 23730 net.cpp:156] Memory required for data: 1208220960
I0403 21:38:43.232391 23730 layer_factory.hpp:77] Creating layer loss2/relu_fc
I0403 21:38:43.232409 23730 net.cpp:91] Creating Layer loss2/relu_fc
I0403 21:38:43.232427 23730 net.cpp:425] loss2/relu_fc <- loss2/fc
I0403 21:38:43.232447 23730 net.cpp:386] loss2/relu_fc -> loss2/fc (in-place)
I0403 21:38:43.232756 23730 net.cpp:141] Setting up loss2/relu_fc
I0403 21:38:43.232784 23730 net.cpp:148] Top shape: 24 1024 (24576)
I0403 21:38:43.232801 23730 net.cpp:156] Memory required for data: 1208319264
I0403 21:38:43.232816 23730 layer_factory.hpp:77] Creating layer loss2/drop_fc
I0403 21:38:43.232834 23730 net.cpp:91] Creating Layer loss2/drop_fc
I0403 21:38:43.232851 23730 net.cpp:425] loss2/drop_fc <- loss2/fc
I0403 21:38:43.232868 23730 net.cpp:386] loss2/drop_fc -> loss2/fc (in-place)
I0403 21:38:43.232918 23730 net.cpp:141] Setting up loss2/drop_fc
I0403 21:38:43.232941 23730 net.cpp:148] Top shape: 24 1024 (24576)
I0403 21:38:43.232959 23730 net.cpp:156] Memory required for data: 1208417568
I0403 21:38:43.232974 23730 layer_factory.hpp:77] Creating layer loss2/classifier_plantvillage
I0403 21:38:43.232995 23730 net.cpp:91] Creating Layer loss2/classifier_plantvillage
I0403 21:38:43.233014 23730 net.cpp:425] loss2/classifier_plantvillage <- loss2/fc
I0403 21:38:43.233032 23730 net.cpp:399] loss2/classifier_plantvillage -> loss2/classifier_plantvillage
I0403 21:38:43.233433 23730 net.cpp:141] Setting up loss2/classifier_plantvillage
I0403 21:38:43.233458 23730 net.cpp:148] Top shape: 24 38 (912)
I0403 21:38:43.233490 23730 net.cpp:156] Memory required for data: 1208421216
I0403 21:38:43.233510 23730 layer_factory.hpp:77] Creating layer loss2/classifier_plantvillage_loss2/classifier_plantvillage_0_split
I0403 21:38:43.233530 23730 net.cpp:91] Creating Layer loss2/classifier_plantvillage_loss2/classifier_plantvillage_0_split
I0403 21:38:43.233546 23730 net.cpp:425] loss2/classifier_plantvillage_loss2/classifier_plantvillage_0_split <- loss2/classifier_plantvillage
I0403 21:38:43.233566 23730 net.cpp:399] loss2/classifier_plantvillage_loss2/classifier_plantvillage_0_split -> loss2/classifier_plantvillage_loss2/classifier_plantvillage_0_split_0
I0403 21:38:43.233587 23730 net.cpp:399] loss2/classifier_plantvillage_loss2/classifier_plantvillage_0_split -> loss2/classifier_plantvillage_loss2/classifier_plantvillage_0_split_1
I0403 21:38:43.233608 23730 net.cpp:399] loss2/classifier_plantvillage_loss2/classifier_plantvillage_0_split -> loss2/classifier_plantvillage_loss2/classifier_plantvillage_0_split_2
I0403 21:38:43.233686 23730 net.cpp:141] Setting up loss2/classifier_plantvillage_loss2/classifier_plantvillage_0_split
I0403 21:38:43.233711 23730 net.cpp:148] Top shape: 24 38 (912)
I0403 21:38:43.233727 23730 net.cpp:148] Top shape: 24 38 (912)
I0403 21:38:43.233741 23730 net.cpp:148] Top shape: 24 38 (912)
I0403 21:38:43.233755 23730 net.cpp:156] Memory required for data: 1208432160
I0403 21:38:43.233769 23730 layer_factory.hpp:77] Creating layer inception_4e/1x1
I0403 21:38:43.233791 23730 net.cpp:91] Creating Layer inception_4e/1x1
I0403 21:38:43.233809 23730 net.cpp:425] inception_4e/1x1 <- inception_4d/output_inception_4d/output_0_split_1
I0403 21:38:43.233829 23730 net.cpp:399] inception_4e/1x1 -> inception_4e/1x1
I0403 21:38:43.235602 23730 net.cpp:141] Setting up inception_4e/1x1
I0403 21:38:43.235631 23730 net.cpp:148] Top shape: 24 256 14 14 (1204224)
I0403 21:38:43.235646 23730 net.cpp:156] Memory required for data: 1213249056
I0403 21:38:43.235666 23730 layer_factory.hpp:77] Creating layer inception_4e/relu_1x1
I0403 21:38:43.235692 23730 net.cpp:91] Creating Layer inception_4e/relu_1x1
I0403 21:38:43.235709 23730 net.cpp:425] inception_4e/relu_1x1 <- inception_4e/1x1
I0403 21:38:43.235728 23730 net.cpp:386] inception_4e/relu_1x1 -> inception_4e/1x1 (in-place)
I0403 21:38:43.236016 23730 net.cpp:141] Setting up inception_4e/relu_1x1
I0403 21:38:43.236042 23730 net.cpp:148] Top shape: 24 256 14 14 (1204224)
I0403 21:38:43.236057 23730 net.cpp:156] Memory required for data: 1218065952
I0403 21:38:43.236073 23730 layer_factory.hpp:77] Creating layer inception_4e/3x3_reduce
I0403 21:38:43.236095 23730 net.cpp:91] Creating Layer inception_4e/3x3_reduce
I0403 21:38:43.236114 23730 net.cpp:425] inception_4e/3x3_reduce <- inception_4d/output_inception_4d/output_0_split_2
I0403 21:38:43.236135 23730 net.cpp:399] inception_4e/3x3_reduce -> inception_4e/3x3_reduce
I0403 21:38:43.238227 23730 net.cpp:141] Setting up inception_4e/3x3_reduce
I0403 21:38:43.238256 23730 net.cpp:148] Top shape: 24 160 14 14 (752640)
I0403 21:38:43.238273 23730 net.cpp:156] Memory required for data: 1221076512
I0403 21:38:43.238292 23730 layer_factory.hpp:77] Creating layer inception_4e/relu_3x3_reduce
I0403 21:38:43.238312 23730 net.cpp:91] Creating Layer inception_4e/relu_3x3_reduce
I0403 21:38:43.238327 23730 net.cpp:425] inception_4e/relu_3x3_reduce <- inception_4e/3x3_reduce
I0403 21:38:43.238346 23730 net.cpp:386] inception_4e/relu_3x3_reduce -> inception_4e/3x3_reduce (in-place)
I0403 21:38:43.238528 23730 net.cpp:141] Setting up inception_4e/relu_3x3_reduce
I0403 21:38:43.238554 23730 net.cpp:148] Top shape: 24 160 14 14 (752640)
I0403 21:38:43.238569 23730 net.cpp:156] Memory required for data: 1224087072
I0403 21:38:43.238584 23730 layer_factory.hpp:77] Creating layer inception_4e/3x3
I0403 21:38:43.238605 23730 net.cpp:91] Creating Layer inception_4e/3x3
I0403 21:38:43.238625 23730 net.cpp:425] inception_4e/3x3 <- inception_4e/3x3_reduce
I0403 21:38:43.238649 23730 net.cpp:399] inception_4e/3x3 -> inception_4e/3x3
I0403 21:38:43.243540 23730 net.cpp:141] Setting up inception_4e/3x3
I0403 21:38:43.243580 23730 net.cpp:148] Top shape: 24 320 14 14 (1505280)
I0403 21:38:43.243597 23730 net.cpp:156] Memory required for data: 1230108192
I0403 21:38:43.243616 23730 layer_factory.hpp:77] Creating layer inception_4e/relu_3x3
I0403 21:38:43.243636 23730 net.cpp:91] Creating Layer inception_4e/relu_3x3
I0403 21:38:43.243655 23730 net.cpp:425] inception_4e/relu_3x3 <- inception_4e/3x3
I0403 21:38:43.243674 23730 net.cpp:386] inception_4e/relu_3x3 -> inception_4e/3x3 (in-place)
I0403 21:38:43.243971 23730 net.cpp:141] Setting up inception_4e/relu_3x3
I0403 21:38:43.243999 23730 net.cpp:148] Top shape: 24 320 14 14 (1505280)
I0403 21:38:43.244015 23730 net.cpp:156] Memory required for data: 1236129312
I0403 21:38:43.244031 23730 layer_factory.hpp:77] Creating layer inception_4e/5x5_reduce
I0403 21:38:43.244055 23730 net.cpp:91] Creating Layer inception_4e/5x5_reduce
I0403 21:38:43.244074 23730 net.cpp:425] inception_4e/5x5_reduce <- inception_4d/output_inception_4d/output_0_split_3
I0403 21:38:43.244097 23730 net.cpp:399] inception_4e/5x5_reduce -> inception_4e/5x5_reduce
I0403 21:38:43.245147 23730 net.cpp:141] Setting up inception_4e/5x5_reduce
I0403 21:38:43.245177 23730 net.cpp:148] Top shape: 24 32 14 14 (150528)
I0403 21:38:43.245194 23730 net.cpp:156] Memory required for data: 1236731424
I0403 21:38:43.245219 23730 layer_factory.hpp:77] Creating layer inception_4e/relu_5x5_reduce
I0403 21:38:43.245239 23730 net.cpp:91] Creating Layer inception_4e/relu_5x5_reduce
I0403 21:38:43.245256 23730 net.cpp:425] inception_4e/relu_5x5_reduce <- inception_4e/5x5_reduce
I0403 21:38:43.245276 23730 net.cpp:386] inception_4e/relu_5x5_reduce -> inception_4e/5x5_reduce (in-place)
I0403 21:38:43.245568 23730 net.cpp:141] Setting up inception_4e/relu_5x5_reduce
I0403 21:38:43.245596 23730 net.cpp:148] Top shape: 24 32 14 14 (150528)
I0403 21:38:43.245612 23730 net.cpp:156] Memory required for data: 1237333536
I0403 21:38:43.245628 23730 layer_factory.hpp:77] Creating layer inception_4e/5x5
I0403 21:38:43.245666 23730 net.cpp:91] Creating Layer inception_4e/5x5
I0403 21:38:43.245687 23730 net.cpp:425] inception_4e/5x5 <- inception_4e/5x5_reduce
I0403 21:38:43.245707 23730 net.cpp:399] inception_4e/5x5 -> inception_4e/5x5
I0403 21:38:43.247506 23730 net.cpp:141] Setting up inception_4e/5x5
I0403 21:38:43.247535 23730 net.cpp:148] Top shape: 24 128 14 14 (602112)
I0403 21:38:43.247555 23730 net.cpp:156] Memory required for data: 1239741984
I0403 21:38:43.247573 23730 layer_factory.hpp:77] Creating layer inception_4e/relu_5x5
I0403 21:38:43.247592 23730 net.cpp:91] Creating Layer inception_4e/relu_5x5
I0403 21:38:43.247611 23730 net.cpp:425] inception_4e/relu_5x5 <- inception_4e/5x5
I0403 21:38:43.247630 23730 net.cpp:386] inception_4e/relu_5x5 -> inception_4e/5x5 (in-place)
I0403 21:38:43.247819 23730 net.cpp:141] Setting up inception_4e/relu_5x5
I0403 21:38:43.247845 23730 net.cpp:148] Top shape: 24 128 14 14 (602112)
I0403 21:38:43.247860 23730 net.cpp:156] Memory required for data: 1242150432
I0403 21:38:43.247875 23730 layer_factory.hpp:77] Creating layer inception_4e/pool
I0403 21:38:43.247894 23730 net.cpp:91] Creating Layer inception_4e/pool
I0403 21:38:43.247910 23730 net.cpp:425] inception_4e/pool <- inception_4d/output_inception_4d/output_0_split_4
I0403 21:38:43.247931 23730 net.cpp:399] inception_4e/pool -> inception_4e/pool
I0403 21:38:43.248006 23730 net.cpp:141] Setting up inception_4e/pool
I0403 21:38:43.248031 23730 net.cpp:148] Top shape: 24 528 14 14 (2483712)
I0403 21:38:43.248046 23730 net.cpp:156] Memory required for data: 1252085280
I0403 21:38:43.248061 23730 layer_factory.hpp:77] Creating layer inception_4e/pool_proj
I0403 21:38:43.248085 23730 net.cpp:91] Creating Layer inception_4e/pool_proj
I0403 21:38:43.248102 23730 net.cpp:425] inception_4e/pool_proj <- inception_4e/pool
I0403 21:38:43.248122 23730 net.cpp:399] inception_4e/pool_proj -> inception_4e/pool_proj
I0403 21:38:43.249603 23730 net.cpp:141] Setting up inception_4e/pool_proj
I0403 21:38:43.249642 23730 net.cpp:148] Top shape: 24 128 14 14 (602112)
I0403 21:38:43.249660 23730 net.cpp:156] Memory required for data: 1254493728
I0403 21:38:43.249678 23730 layer_factory.hpp:77] Creating layer inception_4e/relu_pool_proj
I0403 21:38:43.249699 23730 net.cpp:91] Creating Layer inception_4e/relu_pool_proj
I0403 21:38:43.249717 23730 net.cpp:425] inception_4e/relu_pool_proj <- inception_4e/pool_proj
I0403 21:38:43.249735 23730 net.cpp:386] inception_4e/relu_pool_proj -> inception_4e/pool_proj (in-place)
I0403 21:38:43.250020 23730 net.cpp:141] Setting up inception_4e/relu_pool_proj
I0403 21:38:43.250047 23730 net.cpp:148] Top shape: 24 128 14 14 (602112)
I0403 21:38:43.250062 23730 net.cpp:156] Memory required for data: 1256902176
I0403 21:38:43.250078 23730 layer_factory.hpp:77] Creating layer inception_4e/output
I0403 21:38:43.250097 23730 net.cpp:91] Creating Layer inception_4e/output
I0403 21:38:43.250114 23730 net.cpp:425] inception_4e/output <- inception_4e/1x1
I0403 21:38:43.250131 23730 net.cpp:425] inception_4e/output <- inception_4e/3x3
I0403 21:38:43.250149 23730 net.cpp:425] inception_4e/output <- inception_4e/5x5
I0403 21:38:43.250165 23730 net.cpp:425] inception_4e/output <- inception_4e/pool_proj
I0403 21:38:43.250183 23730 net.cpp:399] inception_4e/output -> inception_4e/output
I0403 21:38:43.250239 23730 net.cpp:141] Setting up inception_4e/output
I0403 21:38:43.250264 23730 net.cpp:148] Top shape: 24 832 14 14 (3913728)
I0403 21:38:43.250279 23730 net.cpp:156] Memory required for data: 1272557088
I0403 21:38:43.250294 23730 layer_factory.hpp:77] Creating layer pool4/3x3_s2
I0403 21:38:43.250313 23730 net.cpp:91] Creating Layer pool4/3x3_s2
I0403 21:38:43.250330 23730 net.cpp:425] pool4/3x3_s2 <- inception_4e/output
I0403 21:38:43.250352 23730 net.cpp:399] pool4/3x3_s2 -> pool4/3x3_s2
I0403 21:38:43.250419 23730 net.cpp:141] Setting up pool4/3x3_s2
I0403 21:38:43.250443 23730 net.cpp:148] Top shape: 24 832 7 7 (978432)
I0403 21:38:43.250458 23730 net.cpp:156] Memory required for data: 1276470816
I0403 21:38:43.250473 23730 layer_factory.hpp:77] Creating layer pool4/3x3_s2_pool4/3x3_s2_0_split
I0403 21:38:43.250494 23730 net.cpp:91] Creating Layer pool4/3x3_s2_pool4/3x3_s2_0_split
I0403 21:38:43.250509 23730 net.cpp:425] pool4/3x3_s2_pool4/3x3_s2_0_split <- pool4/3x3_s2
I0403 21:38:43.250530 23730 net.cpp:399] pool4/3x3_s2_pool4/3x3_s2_0_split -> pool4/3x3_s2_pool4/3x3_s2_0_split_0
I0403 21:38:43.250550 23730 net.cpp:399] pool4/3x3_s2_pool4/3x3_s2_0_split -> pool4/3x3_s2_pool4/3x3_s2_0_split_1
I0403 21:38:43.250572 23730 net.cpp:399] pool4/3x3_s2_pool4/3x3_s2_0_split -> pool4/3x3_s2_pool4/3x3_s2_0_split_2
I0403 21:38:43.250593 23730 net.cpp:399] pool4/3x3_s2_pool4/3x3_s2_0_split -> pool4/3x3_s2_pool4/3x3_s2_0_split_3
I0403 21:38:43.250681 23730 net.cpp:141] Setting up pool4/3x3_s2_pool4/3x3_s2_0_split
I0403 21:38:43.250707 23730 net.cpp:148] Top shape: 24 832 7 7 (978432)
I0403 21:38:43.250725 23730 net.cpp:148] Top shape: 24 832 7 7 (978432)
I0403 21:38:43.250741 23730 net.cpp:148] Top shape: 24 832 7 7 (978432)
I0403 21:38:43.250756 23730 net.cpp:148] Top shape: 24 832 7 7 (978432)
I0403 21:38:43.250771 23730 net.cpp:156] Memory required for data: 1292125728
I0403 21:38:43.250785 23730 layer_factory.hpp:77] Creating layer inception_5a/1x1
I0403 21:38:43.250808 23730 net.cpp:91] Creating Layer inception_5a/1x1
I0403 21:38:43.250825 23730 net.cpp:425] inception_5a/1x1 <- pool4/3x3_s2_pool4/3x3_s2_0_split_0
I0403 21:38:43.250845 23730 net.cpp:399] inception_5a/1x1 -> inception_5a/1x1
I0403 21:38:43.253643 23730 net.cpp:141] Setting up inception_5a/1x1
I0403 21:38:43.253674 23730 net.cpp:148] Top shape: 24 256 7 7 (301056)
I0403 21:38:43.253691 23730 net.cpp:156] Memory required for data: 1293329952
I0403 21:38:43.253710 23730 layer_factory.hpp:77] Creating layer inception_5a/relu_1x1
I0403 21:38:43.253728 23730 net.cpp:91] Creating Layer inception_5a/relu_1x1
I0403 21:38:43.253744 23730 net.cpp:425] inception_5a/relu_1x1 <- inception_5a/1x1
I0403 21:38:43.253764 23730 net.cpp:386] inception_5a/relu_1x1 -> inception_5a/1x1 (in-place)
I0403 21:38:43.254067 23730 net.cpp:141] Setting up inception_5a/relu_1x1
I0403 21:38:43.254096 23730 net.cpp:148] Top shape: 24 256 7 7 (301056)
I0403 21:38:43.254113 23730 net.cpp:156] Memory required for data: 1294534176
I0403 21:38:43.254128 23730 layer_factory.hpp:77] Creating layer inception_5a/3x3_reduce
I0403 21:38:43.254150 23730 net.cpp:91] Creating Layer inception_5a/3x3_reduce
I0403 21:38:43.254168 23730 net.cpp:425] inception_5a/3x3_reduce <- pool4/3x3_s2_pool4/3x3_s2_0_split_1
I0403 21:38:43.254187 23730 net.cpp:399] inception_5a/3x3_reduce -> inception_5a/3x3_reduce
I0403 21:38:43.256629 23730 net.cpp:141] Setting up inception_5a/3x3_reduce
I0403 21:38:43.256659 23730 net.cpp:148] Top shape: 24 160 7 7 (188160)
I0403 21:38:43.256675 23730 net.cpp:156] Memory required for data: 1295286816
I0403 21:38:43.256693 23730 layer_factory.hpp:77] Creating layer inception_5a/relu_3x3_reduce
I0403 21:38:43.256714 23730 net.cpp:91] Creating Layer inception_5a/relu_3x3_reduce
I0403 21:38:43.256732 23730 net.cpp:425] inception_5a/relu_3x3_reduce <- inception_5a/3x3_reduce
I0403 21:38:43.256749 23730 net.cpp:386] inception_5a/relu_3x3_reduce -> inception_5a/3x3_reduce (in-place)
I0403 21:38:43.256934 23730 net.cpp:141] Setting up inception_5a/relu_3x3_reduce
I0403 21:38:43.256964 23730 net.cpp:148] Top shape: 24 160 7 7 (188160)
I0403 21:38:43.256983 23730 net.cpp:156] Memory required for data: 1296039456
I0403 21:38:43.256996 23730 layer_factory.hpp:77] Creating layer inception_5a/3x3
I0403 21:38:43.257019 23730 net.cpp:91] Creating Layer inception_5a/3x3
I0403 21:38:43.257037 23730 net.cpp:425] inception_5a/3x3 <- inception_5a/3x3_reduce
I0403 21:38:43.257058 23730 net.cpp:399] inception_5a/3x3 -> inception_5a/3x3
I0403 21:38:43.262115 23730 net.cpp:141] Setting up inception_5a/3x3
I0403 21:38:43.262148 23730 net.cpp:148] Top shape: 24 320 7 7 (376320)
I0403 21:38:43.262166 23730 net.cpp:156] Memory required for data: 1297544736
I0403 21:38:43.262187 23730 layer_factory.hpp:77] Creating layer inception_5a/relu_3x3
I0403 21:38:43.262212 23730 net.cpp:91] Creating Layer inception_5a/relu_3x3
I0403 21:38:43.262229 23730 net.cpp:425] inception_5a/relu_3x3 <- inception_5a/3x3
I0403 21:38:43.262250 23730 net.cpp:386] inception_5a/relu_3x3 -> inception_5a/3x3 (in-place)
I0403 21:38:43.262554 23730 net.cpp:141] Setting up inception_5a/relu_3x3
I0403 21:38:43.262583 23730 net.cpp:148] Top shape: 24 320 7 7 (376320)
I0403 21:38:43.262600 23730 net.cpp:156] Memory required for data: 1299050016
I0403 21:38:43.262616 23730 layer_factory.hpp:77] Creating layer inception_5a/5x5_reduce
I0403 21:38:43.262640 23730 net.cpp:91] Creating Layer inception_5a/5x5_reduce
I0403 21:38:43.262660 23730 net.cpp:425] inception_5a/5x5_reduce <- pool4/3x3_s2_pool4/3x3_s2_0_split_2
I0403 21:38:43.262682 23730 net.cpp:399] inception_5a/5x5_reduce -> inception_5a/5x5_reduce
I0403 21:38:43.263859 23730 net.cpp:141] Setting up inception_5a/5x5_reduce
I0403 21:38:43.263891 23730 net.cpp:148] Top shape: 24 32 7 7 (37632)
I0403 21:38:43.263909 23730 net.cpp:156] Memory required for data: 1299200544
I0403 21:38:43.263929 23730 layer_factory.hpp:77] Creating layer inception_5a/relu_5x5_reduce
I0403 21:38:43.263948 23730 net.cpp:91] Creating Layer inception_5a/relu_5x5_reduce
I0403 21:38:43.263967 23730 net.cpp:425] inception_5a/relu_5x5_reduce <- inception_5a/5x5_reduce
I0403 21:38:43.263988 23730 net.cpp:386] inception_5a/relu_5x5_reduce -> inception_5a/5x5_reduce (in-place)
I0403 21:38:43.264294 23730 net.cpp:141] Setting up inception_5a/relu_5x5_reduce
I0403 21:38:43.264322 23730 net.cpp:148] Top shape: 24 32 7 7 (37632)
I0403 21:38:43.264338 23730 net.cpp:156] Memory required for data: 1299351072
I0403 21:38:43.264354 23730 layer_factory.hpp:77] Creating layer inception_5a/5x5
I0403 21:38:43.264377 23730 net.cpp:91] Creating Layer inception_5a/5x5
I0403 21:38:43.264397 23730 net.cpp:425] inception_5a/5x5 <- inception_5a/5x5_reduce
I0403 21:38:43.264421 23730 net.cpp:399] inception_5a/5x5 -> inception_5a/5x5
I0403 21:38:43.266150 23730 net.cpp:141] Setting up inception_5a/5x5
I0403 21:38:43.266193 23730 net.cpp:148] Top shape: 24 128 7 7 (150528)
I0403 21:38:43.266216 23730 net.cpp:156] Memory required for data: 1299953184
I0403 21:38:43.266237 23730 layer_factory.hpp:77] Creating layer inception_5a/relu_5x5
I0403 21:38:43.266255 23730 net.cpp:91] Creating Layer inception_5a/relu_5x5
I0403 21:38:43.266274 23730 net.cpp:425] inception_5a/relu_5x5 <- inception_5a/5x5
I0403 21:38:43.266294 23730 net.cpp:386] inception_5a/relu_5x5 -> inception_5a/5x5 (in-place)
I0403 21:38:43.266490 23730 net.cpp:141] Setting up inception_5a/relu_5x5
I0403 21:38:43.266516 23730 net.cpp:148] Top shape: 24 128 7 7 (150528)
I0403 21:38:43.266532 23730 net.cpp:156] Memory required for data: 1300555296
I0403 21:38:43.266548 23730 layer_factory.hpp:77] Creating layer inception_5a/pool
I0403 21:38:43.266566 23730 net.cpp:91] Creating Layer inception_5a/pool
I0403 21:38:43.266584 23730 net.cpp:425] inception_5a/pool <- pool4/3x3_s2_pool4/3x3_s2_0_split_3
I0403 21:38:43.266605 23730 net.cpp:399] inception_5a/pool -> inception_5a/pool
I0403 21:38:43.266680 23730 net.cpp:141] Setting up inception_5a/pool
I0403 21:38:43.266705 23730 net.cpp:148] Top shape: 24 832 7 7 (978432)
I0403 21:38:43.266721 23730 net.cpp:156] Memory required for data: 1304469024
I0403 21:38:43.266736 23730 layer_factory.hpp:77] Creating layer inception_5a/pool_proj
I0403 21:38:43.266760 23730 net.cpp:91] Creating Layer inception_5a/pool_proj
I0403 21:38:43.266778 23730 net.cpp:425] inception_5a/pool_proj <- inception_5a/pool
I0403 21:38:43.266798 23730 net.cpp:399] inception_5a/pool_proj -> inception_5a/pool_proj
I0403 21:38:43.269116 23730 net.cpp:141] Setting up inception_5a/pool_proj
I0403 21:38:43.269150 23730 net.cpp:148] Top shape: 24 128 7 7 (150528)
I0403 21:38:43.269167 23730 net.cpp:156] Memory required for data: 1305071136
I0403 21:38:43.269186 23730 layer_factory.hpp:77] Creating layer inception_5a/relu_pool_proj
I0403 21:38:43.269210 23730 net.cpp:91] Creating Layer inception_5a/relu_pool_proj
I0403 21:38:43.269229 23730 net.cpp:425] inception_5a/relu_pool_proj <- inception_5a/pool_proj
I0403 21:38:43.269248 23730 net.cpp:386] inception_5a/relu_pool_proj -> inception_5a/pool_proj (in-place)
I0403 21:38:43.269546 23730 net.cpp:141] Setting up inception_5a/relu_pool_proj
I0403 21:38:43.269575 23730 net.cpp:148] Top shape: 24 128 7 7 (150528)
I0403 21:38:43.269593 23730 net.cpp:156] Memory required for data: 1305673248
I0403 21:38:43.269608 23730 layer_factory.hpp:77] Creating layer inception_5a/output
I0403 21:38:43.269628 23730 net.cpp:91] Creating Layer inception_5a/output
I0403 21:38:43.269644 23730 net.cpp:425] inception_5a/output <- inception_5a/1x1
I0403 21:38:43.269661 23730 net.cpp:425] inception_5a/output <- inception_5a/3x3
I0403 21:38:43.269680 23730 net.cpp:425] inception_5a/output <- inception_5a/5x5
I0403 21:38:43.269696 23730 net.cpp:425] inception_5a/output <- inception_5a/pool_proj
I0403 21:38:43.269714 23730 net.cpp:399] inception_5a/output -> inception_5a/output
I0403 21:38:43.269767 23730 net.cpp:141] Setting up inception_5a/output
I0403 21:38:43.269793 23730 net.cpp:148] Top shape: 24 832 7 7 (978432)
I0403 21:38:43.269809 23730 net.cpp:156] Memory required for data: 1309586976
I0403 21:38:43.269824 23730 layer_factory.hpp:77] Creating layer inception_5a/output_inception_5a/output_0_split
I0403 21:38:43.269841 23730 net.cpp:91] Creating Layer inception_5a/output_inception_5a/output_0_split
I0403 21:38:43.269858 23730 net.cpp:425] inception_5a/output_inception_5a/output_0_split <- inception_5a/output
I0403 21:38:43.269879 23730 net.cpp:399] inception_5a/output_inception_5a/output_0_split -> inception_5a/output_inception_5a/output_0_split_0
I0403 21:38:43.269901 23730 net.cpp:399] inception_5a/output_inception_5a/output_0_split -> inception_5a/output_inception_5a/output_0_split_1
I0403 21:38:43.269923 23730 net.cpp:399] inception_5a/output_inception_5a/output_0_split -> inception_5a/output_inception_5a/output_0_split_2
I0403 21:38:43.269947 23730 net.cpp:399] inception_5a/output_inception_5a/output_0_split -> inception_5a/output_inception_5a/output_0_split_3
I0403 21:38:43.270063 23730 net.cpp:141] Setting up inception_5a/output_inception_5a/output_0_split
I0403 21:38:43.270088 23730 net.cpp:148] Top shape: 24 832 7 7 (978432)
I0403 21:38:43.270105 23730 net.cpp:148] Top shape: 24 832 7 7 (978432)
I0403 21:38:43.270123 23730 net.cpp:148] Top shape: 24 832 7 7 (978432)
I0403 21:38:43.270138 23730 net.cpp:148] Top shape: 24 832 7 7 (978432)
I0403 21:38:43.270153 23730 net.cpp:156] Memory required for data: 1325241888
I0403 21:38:43.270169 23730 layer_factory.hpp:77] Creating layer inception_5b/1x1
I0403 21:38:43.270191 23730 net.cpp:91] Creating Layer inception_5b/1x1
I0403 21:38:43.270215 23730 net.cpp:425] inception_5b/1x1 <- inception_5a/output_inception_5a/output_0_split_0
I0403 21:38:43.270236 23730 net.cpp:399] inception_5b/1x1 -> inception_5b/1x1
I0403 21:38:43.274045 23730 net.cpp:141] Setting up inception_5b/1x1
I0403 21:38:43.274077 23730 net.cpp:148] Top shape: 24 384 7 7 (451584)
I0403 21:38:43.274094 23730 net.cpp:156] Memory required for data: 1327048224
I0403 21:38:43.274114 23730 layer_factory.hpp:77] Creating layer inception_5b/relu_1x1
I0403 21:38:43.274135 23730 net.cpp:91] Creating Layer inception_5b/relu_1x1
I0403 21:38:43.274155 23730 net.cpp:425] inception_5b/relu_1x1 <- inception_5b/1x1
I0403 21:38:43.274173 23730 net.cpp:386] inception_5b/relu_1x1 -> inception_5b/1x1 (in-place)
I0403 21:38:43.274489 23730 net.cpp:141] Setting up inception_5b/relu_1x1
I0403 21:38:43.274518 23730 net.cpp:148] Top shape: 24 384 7 7 (451584)
I0403 21:38:43.274533 23730 net.cpp:156] Memory required for data: 1328854560
I0403 21:38:43.274549 23730 layer_factory.hpp:77] Creating layer inception_5b/3x3_reduce
I0403 21:38:43.274570 23730 net.cpp:91] Creating Layer inception_5b/3x3_reduce
I0403 21:38:43.274590 23730 net.cpp:425] inception_5b/3x3_reduce <- inception_5a/output_inception_5a/output_0_split_1
I0403 21:38:43.274615 23730 net.cpp:399] inception_5b/3x3_reduce -> inception_5b/3x3_reduce
I0403 21:38:43.277290 23730 net.cpp:141] Setting up inception_5b/3x3_reduce
I0403 21:38:43.277319 23730 net.cpp:148] Top shape: 24 192 7 7 (225792)
I0403 21:38:43.277336 23730 net.cpp:156] Memory required for data: 1329757728
I0403 21:38:43.277355 23730 layer_factory.hpp:77] Creating layer inception_5b/relu_3x3_reduce
I0403 21:38:43.277376 23730 net.cpp:91] Creating Layer inception_5b/relu_3x3_reduce
I0403 21:38:43.277395 23730 net.cpp:425] inception_5b/relu_3x3_reduce <- inception_5b/3x3_reduce
I0403 21:38:43.277412 23730 net.cpp:386] inception_5b/relu_3x3_reduce -> inception_5b/3x3_reduce (in-place)
I0403 21:38:43.277606 23730 net.cpp:141] Setting up inception_5b/relu_3x3_reduce
I0403 21:38:43.277634 23730 net.cpp:148] Top shape: 24 192 7 7 (225792)
I0403 21:38:43.277650 23730 net.cpp:156] Memory required for data: 1330660896
I0403 21:38:43.277667 23730 layer_factory.hpp:77] Creating layer inception_5b/3x3
I0403 21:38:43.277689 23730 net.cpp:91] Creating Layer inception_5b/3x3
I0403 21:38:43.277709 23730 net.cpp:425] inception_5b/3x3 <- inception_5b/3x3_reduce
I0403 21:38:43.277729 23730 net.cpp:399] inception_5b/3x3 -> inception_5b/3x3
I0403 21:38:43.284317 23730 net.cpp:141] Setting up inception_5b/3x3
I0403 21:38:43.284349 23730 net.cpp:148] Top shape: 24 384 7 7 (451584)
I0403 21:38:43.284368 23730 net.cpp:156] Memory required for data: 1332467232
I0403 21:38:43.284386 23730 layer_factory.hpp:77] Creating layer inception_5b/relu_3x3
I0403 21:38:43.284405 23730 net.cpp:91] Creating Layer inception_5b/relu_3x3
I0403 21:38:43.284423 23730 net.cpp:425] inception_5b/relu_3x3 <- inception_5b/3x3
I0403 21:38:43.284441 23730 net.cpp:386] inception_5b/relu_3x3 -> inception_5b/3x3 (in-place)
I0403 21:38:43.284734 23730 net.cpp:141] Setting up inception_5b/relu_3x3
I0403 21:38:43.284764 23730 net.cpp:148] Top shape: 24 384 7 7 (451584)
I0403 21:38:43.284780 23730 net.cpp:156] Memory required for data: 1334273568
I0403 21:38:43.284795 23730 layer_factory.hpp:77] Creating layer inception_5b/5x5_reduce
I0403 21:38:43.284832 23730 net.cpp:91] Creating Layer inception_5b/5x5_reduce
I0403 21:38:43.284850 23730 net.cpp:425] inception_5b/5x5_reduce <- inception_5a/output_inception_5a/output_0_split_2
I0403 21:38:43.284873 23730 net.cpp:399] inception_5b/5x5_reduce -> inception_5b/5x5_reduce
I0403 21:38:43.286118 23730 net.cpp:141] Setting up inception_5b/5x5_reduce
I0403 21:38:43.286147 23730 net.cpp:148] Top shape: 24 48 7 7 (56448)
I0403 21:38:43.286164 23730 net.cpp:156] Memory required for data: 1334499360
I0403 21:38:43.286181 23730 layer_factory.hpp:77] Creating layer inception_5b/relu_5x5_reduce
I0403 21:38:43.286206 23730 net.cpp:91] Creating Layer inception_5b/relu_5x5_reduce
I0403 21:38:43.286226 23730 net.cpp:425] inception_5b/relu_5x5_reduce <- inception_5b/5x5_reduce
I0403 21:38:43.286244 23730 net.cpp:386] inception_5b/relu_5x5_reduce -> inception_5b/5x5_reduce (in-place)
I0403 21:38:43.286612 23730 net.cpp:141] Setting up inception_5b/relu_5x5_reduce
I0403 21:38:43.286640 23730 net.cpp:148] Top shape: 24 48 7 7 (56448)
I0403 21:38:43.286656 23730 net.cpp:156] Memory required for data: 1334725152
I0403 21:38:43.286671 23730 layer_factory.hpp:77] Creating layer inception_5b/5x5
I0403 21:38:43.286691 23730 net.cpp:91] Creating Layer inception_5b/5x5
I0403 21:38:43.286710 23730 net.cpp:425] inception_5b/5x5 <- inception_5b/5x5_reduce
I0403 21:38:43.286728 23730 net.cpp:399] inception_5b/5x5 -> inception_5b/5x5
I0403 21:38:43.288738 23730 net.cpp:141] Setting up inception_5b/5x5
I0403 21:38:43.288768 23730 net.cpp:148] Top shape: 24 128 7 7 (150528)
I0403 21:38:43.288785 23730 net.cpp:156] Memory required for data: 1335327264
I0403 21:38:43.288805 23730 layer_factory.hpp:77] Creating layer inception_5b/relu_5x5
I0403 21:38:43.288822 23730 net.cpp:91] Creating Layer inception_5b/relu_5x5
I0403 21:38:43.288839 23730 net.cpp:425] inception_5b/relu_5x5 <- inception_5b/5x5
I0403 21:38:43.288858 23730 net.cpp:386] inception_5b/relu_5x5 -> inception_5b/5x5 (in-place)
I0403 21:38:43.289057 23730 net.cpp:141] Setting up inception_5b/relu_5x5
I0403 21:38:43.289083 23730 net.cpp:148] Top shape: 24 128 7 7 (150528)
I0403 21:38:43.289098 23730 net.cpp:156] Memory required for data: 1335929376
I0403 21:38:43.289113 23730 layer_factory.hpp:77] Creating layer inception_5b/pool
I0403 21:38:43.289130 23730 net.cpp:91] Creating Layer inception_5b/pool
I0403 21:38:43.289147 23730 net.cpp:425] inception_5b/pool <- inception_5a/output_inception_5a/output_0_split_3
I0403 21:38:43.289170 23730 net.cpp:399] inception_5b/pool -> inception_5b/pool
I0403 21:38:43.289247 23730 net.cpp:141] Setting up inception_5b/pool
I0403 21:38:43.289271 23730 net.cpp:148] Top shape: 24 832 7 7 (978432)
I0403 21:38:43.289285 23730 net.cpp:156] Memory required for data: 1339843104
I0403 21:38:43.289299 23730 layer_factory.hpp:77] Creating layer inception_5b/pool_proj
I0403 21:38:43.289322 23730 net.cpp:91] Creating Layer inception_5b/pool_proj
I0403 21:38:43.289341 23730 net.cpp:425] inception_5b/pool_proj <- inception_5b/pool
I0403 21:38:43.289362 23730 net.cpp:399] inception_5b/pool_proj -> inception_5b/pool_proj
I0403 21:38:43.291651 23730 net.cpp:141] Setting up inception_5b/pool_proj
I0403 21:38:43.291682 23730 net.cpp:148] Top shape: 24 128 7 7 (150528)
I0403 21:38:43.291698 23730 net.cpp:156] Memory required for data: 1340445216
I0403 21:38:43.291717 23730 layer_factory.hpp:77] Creating layer inception_5b/relu_pool_proj
I0403 21:38:43.291738 23730 net.cpp:91] Creating Layer inception_5b/relu_pool_proj
I0403 21:38:43.291755 23730 net.cpp:425] inception_5b/relu_pool_proj <- inception_5b/pool_proj
I0403 21:38:43.291774 23730 net.cpp:386] inception_5b/relu_pool_proj -> inception_5b/pool_proj (in-place)
I0403 21:38:43.292075 23730 net.cpp:141] Setting up inception_5b/relu_pool_proj
I0403 21:38:43.292103 23730 net.cpp:148] Top shape: 24 128 7 7 (150528)
I0403 21:38:43.292117 23730 net.cpp:156] Memory required for data: 1341047328
I0403 21:38:43.292132 23730 layer_factory.hpp:77] Creating layer inception_5b/output
I0403 21:38:43.292152 23730 net.cpp:91] Creating Layer inception_5b/output
I0403 21:38:43.292183 23730 net.cpp:425] inception_5b/output <- inception_5b/1x1
I0403 21:38:43.292207 23730 net.cpp:425] inception_5b/output <- inception_5b/3x3
I0403 21:38:43.292227 23730 net.cpp:425] inception_5b/output <- inception_5b/5x5
I0403 21:38:43.292243 23730 net.cpp:425] inception_5b/output <- inception_5b/pool_proj
I0403 21:38:43.292263 23730 net.cpp:399] inception_5b/output -> inception_5b/output
I0403 21:38:43.292315 23730 net.cpp:141] Setting up inception_5b/output
I0403 21:38:43.292340 23730 net.cpp:148] Top shape: 24 1024 7 7 (1204224)
I0403 21:38:43.292354 23730 net.cpp:156] Memory required for data: 1345864224
I0403 21:38:43.292369 23730 layer_factory.hpp:77] Creating layer pool5/7x7_s1
I0403 21:38:43.292389 23730 net.cpp:91] Creating Layer pool5/7x7_s1
I0403 21:38:43.292408 23730 net.cpp:425] pool5/7x7_s1 <- inception_5b/output
I0403 21:38:43.292428 23730 net.cpp:399] pool5/7x7_s1 -> pool5/7x7_s1
I0403 21:38:43.292644 23730 net.cpp:141] Setting up pool5/7x7_s1
I0403 21:38:43.292672 23730 net.cpp:148] Top shape: 24 1024 1 1 (24576)
I0403 21:38:43.292690 23730 net.cpp:156] Memory required for data: 1345962528
I0403 21:38:43.292704 23730 layer_factory.hpp:77] Creating layer pool5/drop_7x7_s1
I0403 21:38:43.292723 23730 net.cpp:91] Creating Layer pool5/drop_7x7_s1
I0403 21:38:43.292739 23730 net.cpp:425] pool5/drop_7x7_s1 <- pool5/7x7_s1
I0403 21:38:43.292759 23730 net.cpp:386] pool5/drop_7x7_s1 -> pool5/7x7_s1 (in-place)
I0403 21:38:43.292810 23730 net.cpp:141] Setting up pool5/drop_7x7_s1
I0403 21:38:43.292835 23730 net.cpp:148] Top shape: 24 1024 1 1 (24576)
I0403 21:38:43.292850 23730 net.cpp:156] Memory required for data: 1346060832
I0403 21:38:43.292865 23730 layer_factory.hpp:77] Creating layer loss3/classifier_plantvillage
I0403 21:38:43.292886 23730 net.cpp:91] Creating Layer loss3/classifier_plantvillage
I0403 21:38:43.292904 23730 net.cpp:425] loss3/classifier_plantvillage <- pool5/7x7_s1
I0403 21:38:43.292927 23730 net.cpp:399] loss3/classifier_plantvillage -> loss3/classifier_plantvillage
I0403 21:38:43.293346 23730 net.cpp:141] Setting up loss3/classifier_plantvillage
I0403 21:38:43.293371 23730 net.cpp:148] Top shape: 24 38 (912)
I0403 21:38:43.293386 23730 net.cpp:156] Memory required for data: 1346064480
I0403 21:38:43.293404 23730 layer_factory.hpp:77] Creating layer loss3/classifier_plantvillage_loss3/classifier_plantvillage_0_split
I0403 21:38:43.293422 23730 net.cpp:91] Creating Layer loss3/classifier_plantvillage_loss3/classifier_plantvillage_0_split
I0403 21:38:43.293443 23730 net.cpp:425] loss3/classifier_plantvillage_loss3/classifier_plantvillage_0_split <- loss3/classifier_plantvillage
I0403 21:38:43.293463 23730 net.cpp:399] loss3/classifier_plantvillage_loss3/classifier_plantvillage_0_split -> loss3/classifier_plantvillage_loss3/classifier_plantvillage_0_split_0
I0403 21:38:43.293484 23730 net.cpp:399] loss3/classifier_plantvillage_loss3/classifier_plantvillage_0_split -> loss3/classifier_plantvillage_loss3/classifier_plantvillage_0_split_1
I0403 21:38:43.293508 23730 net.cpp:399] loss3/classifier_plantvillage_loss3/classifier_plantvillage_0_split -> loss3/classifier_plantvillage_loss3/classifier_plantvillage_0_split_2
I0403 21:38:43.293529 23730 net.cpp:399] loss3/classifier_plantvillage_loss3/classifier_plantvillage_0_split -> loss3/classifier_plantvillage_loss3/classifier_plantvillage_0_split_3
I0403 21:38:43.293625 23730 net.cpp:141] Setting up loss3/classifier_plantvillage_loss3/classifier_plantvillage_0_split
I0403 21:38:43.293649 23730 net.cpp:148] Top shape: 24 38 (912)
I0403 21:38:43.293665 23730 net.cpp:148] Top shape: 24 38 (912)
I0403 21:38:43.293681 23730 net.cpp:148] Top shape: 24 38 (912)
I0403 21:38:43.293696 23730 net.cpp:148] Top shape: 24 38 (912)
I0403 21:38:43.293710 23730 net.cpp:156] Memory required for data: 1346079072
I0403 21:38:43.293725 23730 layer_factory.hpp:77] Creating layer loss1/loss
I0403 21:38:43.293747 23730 net.cpp:91] Creating Layer loss1/loss
I0403 21:38:43.293766 23730 net.cpp:425] loss1/loss <- loss1/classifier_plantvillage_loss1/classifier_plantvillage_0_split_0
I0403 21:38:43.293797 23730 net.cpp:425] loss1/loss <- label_data_1_split_0
…
