…
I0403 21:48:41.877743 24319 net.cpp:313] The NetState phase (1) differed from the phase (0) specified by a rule in layer data
I0403 21:48:41.878913 24319 net.cpp:49] Initializing net from parameters: 
state {
  phase: TEST
}
layer {
  name: "data"
  type: "Data"
  top: "data"
  top: "label"
  include {
    phase: TEST
  }
  transform_param {
    mirror: false
    crop_size: 224
    mean_file: "/home/mohanty/data/final_dataset/lmdb/segmented-80-20/mean.binaryproto"
  }
  data_param {
    source: "/home/mohanty/data/final_dataset/lmdb/segmented-80-20/test_db"
    batch_size: 24
    backend: LMDB
  }
}
layer {
  name: "conv1/7x7_s2"
  type: "Convolution"
  bottom: "data"
  top: "conv1/7x7_s2"
  param {
    lr_mult: 1
    decay_mult: 1
  }
  param {
    lr_mult: 2
    decay_mult: 0
  }
  convolution_param {
    num_output: 64
    pad: 3
    kernel_size: 7
    stride: 2
    weight_filler {
      type: "xavier"
      std: 0.1
    }
    bias_filler {
      type: "constant"
      value: 0.2
    }
  }
}
layer {
  name: "conv1/relu_7x7"
  type: "ReLU"
  bottom: "conv1/7x7_s2"
  top: "conv1/7x7_s2"
}
layer {
  name: "pool1/3x3_s2"
  type: "Pooling"
  bottom: "conv1/7x7_s2"
  top: "pool1/3x3_s2"
  pooling_param {
    pool: MAX
    kernel_size: 3
    stride: 2
  }
}
layer {
  name: "pool1/norm1"
  type: "LRN"
  bottom: "pool1/3x3_s2"
  top: "pool1/norm1"
  lrn_param {
    local_size: 5
    alpha: 0.0001
    beta: 0.75
  }
}
layer {
  name: "conv2/3x3_reduce"
  type: "Convolution"
  bottom: "pool1/norm1"
  top: "conv2/3x3_reduce"
  param {
    lr_mult: 1
    decay_mult: 1
  }
  param {
    lr_mult: 2
    decay_mult: 0
  }
  convolution_param {
    num_output: 64
    kernel_size: 1
    weight_filler {
      type: "xavier"
      std: 0.1
    }
    bias_filler {
      type: "constant"
      value: 0.2
    }
  }
}
layer {
  name: "conv2/relu_3x3_reduce"
  type: "ReLU"
  bottom: "conv2/3x3_reduce"
  top: "conv2/3x3_reduce"
}
layer {
  name: "conv2/3x3"
  type: "Convolution"
  bottom: "conv2/3x3_reduce"
  top: "conv2/3x3"
  param {
    lr_mult: 1
    decay_mult: 1
  }
  param {
    lr_mult: 2
    decay_mult: 0
  }
  convolution_param {
    num_output: 192
    pad: 1
    kernel_size: 3
    weight_filler {
      type: "xavier"
      std: 0.03
    }
    bias_filler {
      type: "constant"
      value: 0.2
    }
  }
}
layer {
  name: "conv2/relu_3x3"
  type: "ReLU"
  bottom: "conv2/3x3"
  top: "conv2/3x3"
}
layer {
  name: "conv2/norm2"
  type: "LRN"
  bottom: "conv2/3x3"
  top: "conv2/norm2"
  lrn_param {
    local_size: 5
    alpha: 0.0001
    beta: 0.75
  }
}
layer {
  name: "pool2/3x3_s2"
  type: "Pooling"
  bottom: "conv2/norm2"
  top: "pool2/3x3_s2"
  pooling_param {
    pool: MAX
    kernel_size: 3
    stride: 2
  }
}
layer {
  name: "inception_3a/1x1"
  type: "Convolution"
  bottom: "pool2/3x3_s2"
  top: "inception_3a/1x1"
  param {
    lr_mult: 1
    decay_mult: 1
  }
  param {
    lr_mult: 2
    decay_mult: 0
  }
  convolution_param {
    num_output: 64
    kernel_size: 1
    weight_filler {
      type: "xavier"
      std: 0.03
    }
    bias_filler {
      type: "constant"
      value: 0.2
    }
  }
}
layer {
  name: "inception_3a/relu_1x1"
  type: "ReLU"
  bottom: "inception_3a/1x1"
  top: "inception_3a/1x1"
}
layer {
  name: "inception_3a/3x3_reduce"
  type: "Convolution"
  bottom: "pool2/3x3_s2"
  top: "inception_3a/3x3_reduce"
  param {
    lr_mult: 1
    decay_mult: 1
  }
  param {
    lr_mult: 2
    decay_mult: 0
  }
  convolution_param {
    num_output: 96
    kernel_size: 1
    weight_filler {
      type: "xavier"
      std: 0.09
    }
    bias_filler {
      type: "constant"
      value: 0.2
    }
  }
}
layer {
  name: "inception_3a/relu_3x3_reduce"
  type: "ReLU"
  bottom: "inception_3a/3x3_reduce"
  top: "inception_3a/3x3_reduce"
}
layer {
  name: "inception_3a/3x3"
  type: "Convolution"
  bottom: "inception_3a/3x3_reduce"
  top: "inception_3a/3x3"
  param {
    lr_mult: 1
    decay_mult: 1
  }
  param {
    lr_mult: 2
    decay_mult: 0
  }
  convolution_param {
    num_output: 128
    pad: 1
    kernel_size: 3
    weight_filler {
      type: "xavier"
      std: 0.03
    }
    bias_filler {
      type: "constant"
      value: 0.2
    }
  }
}
layer {
  name: "inception_3a/relu_3x3"
  type: "ReLU"
  bottom: "inception_3a/3x3"
  top: "inception_3a/3x3"
}
layer {
  name: "inception_3a/5x5_reduce"
  type: "Convolution"
  bottom: "pool2/3x3_s2"
  top: "inception_3a/5x5_reduce"
  param {
    lr_mult: 1
    decay_mult: 1
  }
  param {
    lr_mult: 2
    decay_mult: 0
  }
  convolution_param {
    num_output: 16
    kernel_size: 1
    weight_filler {
      type: "xavier"
      std: 0.2
    }
    bias_filler {
      type: "constant"
      value: 0.2
    }
  }
}
layer {
  name: "inception_3a/relu_5x5_reduce"
  type: "ReLU"
  bottom: "inception_3a/5x5_reduce"
  top: "inception_3a/5x5_reduce"
}
layer {
  name: "inception_3a/5x5"
  type: "Convolution"
  bottom: "inception_3a/5x5_reduce"
  top: "inception_3a/5x5"
  param {
    lr_mult: 1
    decay_mult: 1
  }
  param {
    lr_mult: 2
    decay_mult: 0
  }
  convolution_param {
    num_output: 32
    pad: 2
    kernel_size: 5
    weight_filler {
      type: "xavier"
      std: 0.03
    }
    bias_filler {
      type: "constant"
      value: 0.2
    }
  }
}
layer {
  name: "inception_3a/relu_5x5"
  type: "ReLU"
  bottom: "inception_3a/5x5"
  top: "inception_3a/5x5"
}
layer {
  name: "inception_3a/pool"
  type: "Pooling"
  bottom: "pool2/3x3_s2"
  top: "inception_3a/pool"
  pooling_param {
    pool: MAX
    kernel_size: 3
    stride: 1
    pad: 1
  }
}
layer {
  name: "inception_3a/pool_proj"
  type: "Convolution"
  bottom: "inception_3a/pool"
  top: "inception_3a/pool_proj"
  param {
    lr_mult: 1
    decay_mult: 1
  }
  param {
    lr_mult: 2
    decay_mult: 0
  }
  convolution_param {
    num_output: 32
    kernel_size: 1
    weight_filler {
      type: "xavier"
      std: 0.1
    }
    bias_filler {
      type: "constant"
      value: 0.2
    }
  }
}
layer {
  name: "inception_3a/relu_pool_proj"
  type: "ReLU"
  bottom: "inception_3a/pool_proj"
  top: "inception_3a/pool_proj"
}
layer {
  name: "inception_3a/output"
  type: "Concat"
  bottom: "inception_3a/1x1"
  bottom: "inception_3a/3x3"
  bottom: "inception_3a/5x5"
  bottom: "inception_3a/pool_proj"
  top: "inception_3a/output"
}
layer {
  name: "inception_3b/1x1"
  type: "Convolution"
  bottom: "inception_3a/output"
  top: "inception_3b/1x1"
  param {
    lr_mult: 1
    decay_mult: 1
  }
  param {
    lr_mult: 2
    decay_mult: 0
  }
  convolution_param {
    num_output: 128
    kernel_size: 1
    weight_filler {
      type: "xavier"
      std: 0.03
    }
    bias_filler {
      type: "constant"
      value: 0.2
    }
  }
}
layer {
  name: "inception_3b/relu_1x1"
  type: "ReLU"
  bottom: "inception_3b/1x1"
  top: "inception_3b/1x1"
}
layer {
  name: "inception_3b/3x3_reduce"
  type: "Convolution"
  bottom: "inception_3a/output"
  top: "inception_3b/3x3_reduce"
  param {
    lr_mult: 1
    decay_mult: 1
  }
  param {
    lr_mult: 2
    decay_mult: 0
  }
  convolution_param {
    num_output: 128
    kernel_size: 1
    weight_filler {
      type: "xavier"
      std: 0.09
    }
    bias_filler {
      type: "constant"
      value: 0.2
    }
  }
}
layer {
  name: "inception_3b/relu_3x3_reduce"
  type: "ReLU"
  bottom: "inception_3b/3x3_reduce"
  top: "inception_3b/3x3_reduce"
}
layer {
  name: "inception_3b/3x3"
  type: "Convolution"
  bottom: "inception_3b/3x3_reduce"
  top: "inception_3b/3x3"
  param {
    lr_mult: 1
    decay_mult: 1
  }
  param {
    lr_mult: 2
    decay_mult: 0
  }
  convolution_param {
    num_output: 192
    pad: 1
    kernel_size: 3
    weight_filler {
      type: "xavier"
      std: 0.03
    }
    bias_filler {
      type: "constant"
      value: 0.2
    }
  }
}
layer {
  name: "inception_3b/relu_3x3"
  type: "ReLU"
  bottom: "inception_3b/3x3"
  top: "inception_3b/3x3"
}
layer {
  name: "inception_3b/5x5_reduce"
  type: "Convolution"
  bottom: "inception_3a/output"
  top: "inception_3b/5x5_reduce"
  param {
    lr_mult: 1
    decay_mult: 1
  }
  param {
    lr_mult: 2
    decay_mult: 0
  }
  convolution_param {
    num_output: 32
    kernel_size: 1
    weight_filler {
      type: "xavier"
      std: 0.2
    }
    bias_filler {
      type: "constant"
      value: 0.2
    }
  }
}
layer {
  name: "inception_3b/relu_5x5_reduce"
  type: "ReLU"
  bottom: "inception_3b/5x5_reduce"
  top: "inception_3b/5x5_reduce"
}
layer {
  name: "inception_3b/5x5"
  type: "Convolution"
  bottom: "inception_3b/5x5_reduce"
  top: "inception_3b/5x5"
  param {
    lr_mult: 1
    decay_mult: 1
  }
  param {
    lr_mult: 2
    decay_mult: 0
  }
  convolution_param {
    num_output: 96
    pad: 2
    kernel_size: 5
    weight_filler {
      type: "xavier"
      std: 0.03
    }
    bias_filler {
      type: "constant"
      value: 0.2
    }
  }
}
layer {
  name: "inception_3b/relu_5x5"
  type: "ReLU"
  bottom: "inception_3b/5x5"
  top: "inception_3b/5x5"
}
layer {
  name: "inception_3b/pool"
  type: "Pooling"
  bottom: "inception_3a/output"
  top: "inception_3b/pool"
  pooling_param {
    pool: MAX
    kernel_size: 3
    stride: 1
    pad: 1
  }
}
layer {
  name: "inception_3b/pool_proj"
  type: "Convolution"
  bottom: "inception_3b/pool"
  top: "inception_3b/pool_proj"
  param {
    lr_mult: 1
    decay_mult: 1
  }
  param {
    lr_mult: 2
    decay_mult: 0
  }
  convolution_param {
    num_output: 64
    kernel_size: 1
    weight_filler {
      type: "xavier"
      std: 0.1
    }
    bias_filler {
      type: "constant"
      value: 0.2
    }
  }
}
layer {
  name: "inception_3b/relu_pool_proj"
  type: "ReLU"
  bottom: "inception_3b/pool_proj"
  top: "inception_3b/pool_proj"
}
layer {
  name: "inception_3b/output"
  type: "Concat"
  bottom: "inception_3b/1x1"
  bottom: "inception_3b/3x3"
  bottom: "inception_3b/5x5"
  bottom: "inception_3b/pool_proj"
  top: "inception_3b/output"
}
layer {
  name: "pool3/3x3_s2"
  type: "Pooling"
  bottom: "inception_3b/output"
  top: "pool3/3x3_s2"
  pooling_param {
    pool: MAX
    kernel_size: 3
    stride: 2
  }
}
layer {
  name: "inception_4a/1x1"
  type: "Convolution"
  bottom: "pool3/3x3_s2"
  top: "inception_4a/1x1"
  param {
    lr_mult: 1
    decay_mult: 1
  }
  param {
    lr_mult: 2
    decay_mult: 0
  }
  convolution_param {
    num_output: 192
    kernel_size: 1
    weight_filler {
      type: "xavier"
      std: 0.03
    }
    bias_filler {
      type: "constant"
      value: 0.2
    }
  }
}
layer {
  name: "inception_4a/relu_1x1"
  type: "ReLU"
  bottom: "inception_4a/1x1"
  top: "inception_4a/1x1"
}
layer {
  name: "inception_4a/3x3_reduce"
  type: "Convolution"
  bottom: "pool3/3x3_s2"
  top: "inception_4a/3x3_reduce"
  param {
    lr_mult: 1
    decay_mult: 1
  }
  param {
    lr_mult: 2
    decay_mult: 0
  }
  convolution_param {
    num_output: 96
    kernel_size: 1
    weight_filler {
      type: "xavier"
      std: 0.09
    }
    bias_filler {
      type: "constant"
      value: 0.2
    }
  }
}
layer {
  name: "inception_4a/relu_3x3_reduce"
  type: "ReLU"
  bottom: "inception_4a/3x3_reduce"
  top: "inception_4a/3x3_reduce"
}
layer {
  name: "inception_4a/3x3"
  type: "Convolution"
  bottom: "inception_4a/3x3_reduce"
  top: "inception_4a/3x3"
  param {
    lr_mult: 1
    decay_mult: 1
  }
  param {
    lr_mult: 2
    decay_mult: 0
  }
  convolution_param {
    num_output: 208
    pad: 1
    kernel_size: 3
    weight_filler {
      type: "xavier"
      std: 0.03
    }
    bias_filler {
      type: "constant"
      value: 0.2
    }
  }
}
layer {
  name: "inception_4a/relu_3x3"
  type: "ReLU"
  bottom: "inception_4a/3x3"
  top: "inception_4a/3x3"
}
layer {
  name: "inception_4a/5x5_reduce"
  type: "Convolution"
  bottom: "pool3/3x3_s2"
  top: "inception_4a/5x5_reduce"
  param {
    lr_mult: 1
    decay_mult: 1
  }
  param {
    lr_mult: 2
    decay_mult: 0
  }
  convolution_param {
    num_output: 16
    kernel_size: 1
    weight_filler {
      type: "xavier"
      std: 0.2
    }
    bias_filler {
      type: "constant"
      value: 0.2
    }
  }
}
layer {
  name: "inception_4a/relu_5x5_reduce"
  type: "ReLU"
  bottom: "inception_4a/5x5_reduce"
  top: "inception_4a/5x5_reduce"
}
layer {
  name: "inception_4a/5x5"
  type: "Convolution"
  bottom: "inception_4a/5x5_reduce"
  top: "inception_4a/5x5"
  param {
    lr_mult: 1
    decay_mult: 1
  }
  param {
    lr_mult: 2
    decay_mult: 0
  }
  convolution_param {
    num_output: 48
    pad: 2
    kernel_size: 5
    weight_filler {
      type: "xavier"
      std: 0.03
    }
    bias_filler {
      type: "constant"
      value: 0.2
    }
  }
}
layer {
  name: "inception_4a/relu_5x5"
  type: "ReLU"
  bottom: "inception_4a/5x5"
  top: "inception_4a/5x5"
}
layer {
  name: "inception_4a/pool"
  type: "Pooling"
  bottom: "pool3/3x3_s2"
  top: "inception_4a/pool"
  pooling_param {
    pool: MAX
    kernel_size: 3
    stride: 1
    pad: 1
  }
}
layer {
  name: "inception_4a/pool_proj"
  type: "Convolution"
  bottom: "inception_4a/pool"
  top: "inception_4a/pool_proj"
  param {
    lr_mult: 1
    decay_mult: 1
  }
  param {
    lr_mult: 2
    decay_mult: 0
  }
  convolution_param {
    num_output: 64
    kernel_size: 1
    weight_filler {
      type: "xavier"
      std: 0.1
    }
    bias_filler {
      type: "constant"
      value: 0.2
    }
  }
}
layer {
  name: "inception_4a/relu_pool_proj"
  type: "ReLU"
  bottom: "inception_4a/pool_proj"
  top: "inception_4a/pool_proj"
}
layer {
  name: "inception_4a/output"
  type: "Concat"
  bottom: "inception_4a/1x1"
  bottom: "inception_4a/3x3"
  bottom: "inception_4a/5x5"
  bottom: "inception_4a/pool_proj"
  top: "inception_4a/output"
}
layer {
  name: "loss1/ave_pool"
  type: "Pooling"
  bottom: "inception_4a/output"
  top: "loss1/ave_pool"
  pooling_param {
    pool: AVE
    kernel_size: 5
    stride: 3
  }
}
layer {
  name: "loss1/conv"
  type: "Convolution"
  bottom: "loss1/ave_pool"
  top: "loss1/conv"
  param {
    lr_mult: 1
    decay_mult: 1
  }
  param {
    lr_mult: 2
    decay_mult: 0
  }
  convolution_param {
    num_output: 128
    kernel_size: 1
    weight_filler {
      type: "xavier"
      std: 0.08
    }
    bias_filler {
      type: "constant"
      value: 0.2
    }
  }
}
layer {
  name: "loss1/relu_conv"
  type: "ReLU"
  bottom: "loss1/conv"
  top: "loss1/conv"
}
layer {
  name: "loss1/fc"
  type: "InnerProduct"
  bottom: "loss1/conv"
  top: "loss1/fc"
  param {
    lr_mult: 1
    decay_mult: 1
  }
  param {
    lr_mult: 2
    decay_mult: 0
  }
  inner_product_param {
    num_output: 1024
    weight_filler {
      type: "xavier"
      std: 0.02
    }
    bias_filler {
      type: "constant"
      value: 0.2
    }
  }
}
layer {
  name: "loss1/relu_fc"
  type: "ReLU"
  bottom: "loss1/fc"
  top: "loss1/fc"
}
layer {
  name: "loss1/drop_fc"
  type: "Dropout"
  bottom: "loss1/fc"
  top: "loss1/fc"
  dropout_param {
    dropout_ratio: 0.7
  }
}
layer {
  name: "loss1/classifier_plantvillage"
  type: "InnerProduct"
  bottom: "loss1/fc"
  top: "loss1/classifier_plantvillage"
  param {
    lr_mult: 1
    decay_mult: 1
  }
  param {
    lr_mult: 2
    decay_mult: 0
  }
  inner_product_param {
    num_output: 38
    weight_filler {
      type: "xavier"
      std: 0.0009765625
    }
    bias_filler {
      type: "constant"
      value: 0
    }
  }
}
layer {
  name: "inception_4b/1x1"
  type: "Convolution"
  bottom: "inception_4a/output"
  top: "inception_4b/1x1"
  param {
    lr_mult: 1
    decay_mult: 1
  }
  param {
    lr_mult: 2
    decay_mult: 0
  }
  convolution_param {
    num_output: 160
    kernel_size: 1
    weight_filler {
      type: "xavier"
      std: 0.03
    }
    bias_filler {
      type: "constant"
      value: 0.2
    }
  }
}
layer {
  name: "inception_4b/relu_1x1"
  type: "ReLU"
  bottom: "inception_4b/1x1"
  top: "inception_4b/1x1"
}
layer {
  name: "inception_4b/3x3_reduce"
  type: "Convolution"
  bottom: "inception_4a/output"
  top: "inception_4b/3x3_reduce"
  param {
    lr_mult: 1
    decay_mult: 1
  }
  param {
    lr_mult: 2
    decay_mult: 0
  }
  convolution_param {
    num_output: 112
    kernel_size: 1
    weight_filler {
      type: "xavier"
      std: 0.09
    }
    bias_filler {
      type: "constant"
      value: 0.2
    }
  }
}
layer {
  name: "inception_4b/relu_3x3_reduce"
  type: "ReLU"
  bottom: "inception_4b/3x3_reduce"
  top: "inception_4b/3x3_reduce"
}
layer {
  name: "inception_4b/3x3"
  type: "Convolution"
  bottom: "inception_4b/3x3_reduce"
  top: "inception_4b/3x3"
  param {
    lr_mult: 1
    decay_mult: 1
  }
  param {
    lr_mult: 2
    decay_mult: 0
  }
  convolution_param {
    num_output: 224
    pad: 1
    kernel_size: 3
    weight_filler {
      type: "xavier"
      std: 0.03
    }
    bias_filler {
      type: "constant"
      value: 0.2
    }
  }
}
layer {
  name: "inception_4b/relu_3x3"
  type: "ReLU"
  bottom: "inception_4b/3x3"
  top: "inception_4b/3x3"
}
layer {
  name: "inception_4b/5x5_reduce"
  type: "Convolution"
  bottom: "inception_4a/output"
  top: "inception_4b/5x5_reduce"
  param {
    lr_mult: 1
    decay_mult: 1
  }
  param {
    lr_mult: 2
    decay_mult: 0
  }
  convolution_param {
    num_output: 24
    kernel_size: 1
    weight_filler {
      type: "xavier"
      std: 0.2
    }
    bias_filler {
      type: "constant"
      value: 0.2
    }
  }
}
layer {
  name: "inception_4b/relu_5x5_reduce"
  type: "ReLU"
  bottom: "inception_4b/5x5_reduce"
  top: "inception_4b/5x5_reduce"
}
layer {
  name: "inception_4b/5x5"
  type: "Convolution"
  bottom: "inception_4b/5x5_reduce"
  top: "inception_4b/5x5"
  param {
    lr_mult: 1
    decay_mult: 1
  }
  param {
    lr_mult: 2
    decay_mult: 0
  }
  convolution_param {
    num_output: 64
    pad: 2
    kernel_size: 5
    weight_filler {
      type: "xavier"
      std: 0.03
    }
    bias_filler {
      type: "constant"
      value: 0.2
    }
  }
}
layer {
  name: "inception_4b/relu_5x5"
  type: "ReLU"
  bottom: "inception_4b/5x5"
  top: "inception_4b/5x5"
}
layer {
  name: "inception_4b/pool"
  type: "Pooling"
  bottom: "inception_4a/output"
  top: "inception_4b/pool"
  pooling_param {
    pool: MAX
    kernel_size: 3
    stride: 1
    pad: 1
  }
}
layer {
  name: "inception_4b/pool_proj"
  type: "Convolution"
  bottom: "inception_4b/pool"
  top: "inception_4b/pool_proj"
  param {
    lr_mult: 1
    decay_mult: 1
  }
  param {
    lr_mult: 2
    decay_mult: 0
  }
  convolution_param {
    num_output: 64
    kernel_size: 1
    weight_filler {
      type: "xavier"
      std: 0.1
    }
    bias_filler {
      type: "constant"
      value: 0.2
    }
  }
}
layer {
  name: "inception_4b/relu_pool_proj"
  type: "ReLU"
  bottom: "inception_4b/pool_proj"
  top: "inception_4b/pool_proj"
}
layer {
  name: "inception_4b/output"
  type: "Concat"
  bottom: "inception_4b/1x1"
  bottom: "inception_4b/3x3"
  bottom: "inception_4b/5x5"
  bottom: "inception_4b/pool_proj"
  top: "inception_4b/output"
}
layer {
  name: "inception_4c/1x1"
  type: "Convolution"
  bottom: "inception_4b/output"
  top: "inception_4c/1x1"
  param {
    lr_mult: 1
    decay_mult: 1
  }
  param {
    lr_mult: 2
    decay_mult: 0
  }
  convolution_param {
    num_output: 128
    kernel_size: 1
    weight_filler {
      type: "xavier"
      std: 0.03
    }
    bias_filler {
      type: "constant"
      value: 0.2
    }
  }
}
layer {
  name: "inception_4c/relu_1x1"
  type: "ReLU"
  bottom: "inception_4c/1x1"
  top: "inception_4c/1x1"
}
layer {
  name: "inception_4c/3x3_reduce"
  type: "Convolution"
  bottom: "inception_4b/output"
  top: "inception_4c/3x3_reduce"
  param {
    lr_mult: 1
    decay_mult: 1
  }
  param {
    lr_mult: 2
    decay_mult: 0
  }
  convolution_param {
    num_output: 128
    kernel_size: 1
    weight_filler {
      type: "xavier"
      std: 0.09
    }
    bias_filler {
      type: "constant"
      value: 0.2
    }
  }
}
layer {
  name: "inception_4c/relu_3x3_reduce"
  type: "ReLU"
  bottom: "inception_4c/3x3_reduce"
  top: "inception_4c/3x3_reduce"
}
layer {
  name: "inception_4c/3x3"
  type: "Convolution"
  bottom: "inception_4c/3x3_reduce"
  top: "inception_4c/3x3"
  param {
    lr_mult: 1
    decay_mult: 1
  }
  param {
    lr_mult: 2
    decay_mult: 0
  }
  convolution_param {
    num_output: 256
    pad: 1
    kernel_size: 3
    weight_filler {
      type: "xavier"
      std: 0.03
    }
    bias_filler {
      type: "constant"
      value: 0.2
    }
  }
}
layer {
  name: "inception_4c/relu_3x3"
  type: "ReLU"
  bottom: "inception_4c/3x3"
  top: "inception_4c/3x3"
}
layer {
  name: "inception_4c/5x5_reduce"
  type: "Convolution"
  bottom: "inception_4b/output"
  top: "inception_4c/5x5_reduce"
  param {
    lr_mult: 1
    decay_mult: 1
  }
  param {
    lr_mult: 2
    decay_mult: 0
  }
  convolution_param {
    num_output: 24
    kernel_size: 1
    weight_filler {
      type: "xavier"
      std: 0.2
    }
    bias_filler {
      type: "constant"
      value: 0.2
    }
  }
}
layer {
  name: "inception_4c/relu_5x5_reduce"
  type: "ReLU"
  bottom: "inception_4c/5x5_reduce"
  top: "inception_4c/5x5_reduce"
}
layer {
  name: "inception_4c/5x5"
  type: "Convolution"
  bottom: "inception_4c/5x5_reduce"
  top: "inception_4c/5x5"
  param {
    lr_mult: 1
    decay_mult: 1
  }
  param {
    lr_mult: 2
    decay_mult: 0
  }
  convolution_param {
    num_output: 64
    pad: 2
    kernel_size: 5
    weight_filler {
      type: "xavier"
      std: 0.03
    }
    bias_filler {
      type: "constant"
      value: 0.2
    }
  }
}
layer {
  name: "inception_4c/relu_5x5"
  type: "ReLU"
  bottom: "inception_4c/5x5"
  top: "inception_4c/5x5"
}
layer {
  name: "inception_4c/pool"
  type: "Pooling"
  bottom: "inception_4b/output"
  top: "inception_4c/pool"
  pooling_param {
    pool: MAX
    kernel_size: 3
    stride: 1
    pad: 1
  }
}
layer {
  name: "inception_4c/pool_proj"
  type: "Convolution"
  bottom: "inception_4c/pool"
  top: "inception_4c/pool_proj"
  param {
    lr_mult: 1
    decay_mult: 1
  }
  param {
    lr_mult: 2
    decay_mult: 0
  }
  convolution_param {
    num_output: 64
    kernel_size: 1
    weight_filler {
      type: "xavier"
      std: 0.1
    }
    bias_filler {
      type: "constant"
      value: 0.2
    }
  }
}
layer {
  name: "inception_4c/relu_pool_proj"
  type: "ReLU"
  bottom: "inception_4c/pool_proj"
  top: "inception_4c/pool_proj"
}
layer {
  name: "inception_4c/output"
  type: "Concat"
  bottom: "inception_4c/1x1"
  bottom: "inception_4c/3x3"
  bottom: "inception_4c/5x5"
  bottom: "inception_4c/pool_proj"
  top: "inception_4c/output"
}
layer {
  name: "inception_4d/1x1"
  type: "Convolution"
  bottom: "inception_4c/output"
  top: "inception_4d/1x1"
  param {
    lr_mult: 1
    decay_mult: 1
  }
  param {
    lr_mult: 2
    decay_mult: 0
  }
  convolution_param {
    num_output: 112
    kernel_size: 1
    weight_filler {
      type: "xavier"
      std: 0.03
    }
    bias_filler {
      type: "constant"
      value: 0.2
    }
  }
}
layer {
  name: "inception_4d/relu_1x1"
  type: "ReLU"
  bottom: "inception_4d/1x1"
  top: "inception_4d/1x1"
}
layer {
  name: "inception_4d/3x3_reduce"
  type: "Convolution"
  bottom: "inception_4c/output"
  top: "inception_4d/3x3_reduce"
  param {
    lr_mult: 1
    decay_mult: 1
  }
  param {
    lr_mult: 2
    decay_mult: 0
  }
  convolution_param {
    num_output: 144
    kernel_size: 1
    weight_filler {
      type: "xavier"
      std: 0.09
    }
    bias_filler {
      type: "constant"
      value: 0.2
    }
  }
}
layer {
  name: "inception_4d/relu_3x3_reduce"
  type: "ReLU"
  bottom: "inception_4d/3x3_reduce"
  top: "inception_4d/3x3_reduce"
}
layer {
  name: "inception_4d/3x3"
  type: "Convolution"
  bottom: "inception_4d/3x3_reduce"
  top: "inception_4d/3x3"
  param {
    lr_mult: 1
    decay_mult: 1
  }
  param {
    lr_mult: 2
    decay_mult: 0
  }
  convolution_param {
    num_output: 288
    pad: 1
    kernel_size: 3
    weight_filler {
      type: "xavier"
      std: 0.03
    }
    bias_filler {
      type: "constant"
      value: 0.2
    }
  }
}
layer {
  name: "inception_4d/relu_3x3"
  type: "ReLU"
  bottom: "inception_4d/3x3"
  top: "inception_4d/3x3"
}
layer {
  name: "inception_4d/5x5_reduce"
  type: "Convolution"
  bottom: "inception_4c/output"
  top: "inception_4d/5x5_reduce"
  param {
    lr_mult: 1
    decay_mult: 1
  }
  param {
    lr_mult: 2
    decay_mult: 0
  }
  convolution_param {
    num_output: 32
    kernel_size: 1
    weight_filler {
      type: "xavier"
      std: 0.2
    }
    bias_filler {
      type: "constant"
      value: 0.2
    }
  }
}
layer {
  name: "inception_4d/relu_5x5_reduce"
  type: "ReLU"
  bottom: "inception_4d/5x5_reduce"
  top: "inception_4d/5x5_reduce"
}
layer {
  name: "inception_4d/5x5"
  type: "Convolution"
  bottom: "inception_4d/5x5_reduce"
  top: "inception_4d/5x5"
  param {
    lr_mult: 1
    decay_mult: 1
  }
  param {
    lr_mult: 2
    decay_mult: 0
  }
  convolution_param {
    num_output: 64
    pad: 2
    kernel_size: 5
    weight_filler {
      type: "xavier"
      std: 0.03
    }
    bias_filler {
      type: "constant"
      value: 0.2
    }
  }
}
layer {
  name: "inception_4d/relu_5x5"
  type: "ReLU"
  bottom: "inception_4d/5x5"
  top: "inception_4d/5x5"
}
layer {
  name: "inception_4d/pool"
  type: "Pooling"
  bottom: "inception_4c/output"
  top: "inception_4d/pool"
  pooling_param {
    pool: MAX
    kernel_size: 3
    stride: 1
    pad: 1
  }
}
layer {
  name: "inception_4d/pool_proj"
  type: "Convolution"
  bottom: "inception_4d/pool"
  top: "inception_4d/pool_proj"
  param {
    lr_mult: 1
    decay_mult: 1
  }
  param {
    lr_mult: 2
    decay_mult: 0
  }
  convolution_param {
    num_output: 64
    kernel_size: 1
    weight_filler {
      type: "xavier"
      std: 0.1
    }
    bias_filler {
      type: "constant"
      value: 0.2
    }
  }
}
layer {
  name: "inception_4d/relu_pool_proj"
  type: "ReLU"
  bottom: "inception_4d/pool_proj"
  top: "inception_4d/pool_proj"
}
layer {
  name: "inception_4d/output"
  type: "Concat"
  bottom: "inception_4d/1x1"
  bottom: "inception_4d/3x3"
  bottom: "inception_4d/5x5"
  bottom: "inception_4d/pool_proj"
  top: "inception_4d/output"
}
layer {
  name: "loss2/ave_pool"
  type: "Pooling"
  bottom: "inception_4d/output"
  top: "loss2/ave_pool"
  pooling_param {
    pool: AVE
    kernel_size: 5
    stride: 3
  }
}
layer {
  name: "loss2/conv"
  type: "Convolution"
  bottom: "loss2/ave_pool"
  top: "loss2/conv"
  param {
    lr_mult: 1
    decay_mult: 1
  }
  param {
    lr_mult: 2
    decay_mult: 0
  }
  convolution_param {
    num_output: 128
    kernel_size: 1
    weight_filler {
      type: "xavier"
      std: 0.08
    }
    bias_filler {
      type: "constant"
      value: 0.2
    }
  }
}
layer {
  name: "loss2/relu_conv"
  type: "ReLU"
  bottom: "loss2/conv"
  top: "loss2/conv"
}
layer {
  name: "loss2/fc"
  type: "InnerProduct"
  bottom: "loss2/conv"
  top: "loss2/fc"
  param {
    lr_mult: 1
    decay_mult: 1
  }
  param {
    lr_mult: 2
    decay_mult: 0
  }
  inner_product_param {
    num_output: 1024
    weight_filler {
      type: "xavier"
      std: 0.02
    }
    bias_filler {
      type: "constant"
      value: 0.2
    }
  }
}
layer {
  name: "loss2/relu_fc"
  type: "ReLU"
  bottom: "loss2/fc"
  top: "loss2/fc"
}
layer {
  name: "loss2/drop_fc"
  type: "Dropout"
  bottom: "loss2/fc"
  top: "loss2/fc"
  dropout_param {
    dropout_ratio: 0.7
  }
}
layer {
  name: "loss2/classifier_plantvillage"
  type: "InnerProduct"
  bottom: "loss2/fc"
  top: "loss2/classifier_plantvillage"
  param {
    lr_mult: 1
    decay_mult: 1
  }
  param {
    lr_mult: 2
    decay_mult: 0
  }
  inner_product_param {
    num_output: 38
    weight_filler {
      type: "xavier"
      std: 0.0009765625
    }
    bias_filler {
      type: "constant"
      value: 0
    }
  }
}
layer {
  name: "inception_4e/1x1"
  type: "Convolution"
  bottom: "inception_4d/output"
  top: "inception_4e/1x1"
  param {
    lr_mult: 1
    decay_mult: 1
  }
  param {
    lr_mult: 2
    decay_mult: 0
  }
  convolution_param {
    num_output: 256
    kernel_size: 1
    weight_filler {
      type: "xavier"
      std: 0.03
    }
    bias_filler {
      type: "constant"
      value: 0.2
    }
  }
}
layer {
  name: "inception_4e/relu_1x1"
  type: "ReLU"
  bottom: "inception_4e/1x1"
  top: "inception_4e/1x1"
}
layer {
  name: "inception_4e/3x3_reduce"
  type: "Convolution"
  bottom: "inception_4d/output"
  top: "inception_4e/3x3_reduce"
  param {
    lr_mult: 1
    decay_mult: 1
  }
  param {
    lr_mult: 2
    decay_mult: 0
  }
  convolution_param {
    num_output: 160
    kernel_size: 1
    weight_filler {
      type: "xavier"
      std: 0.09
    }
    bias_filler {
      type: "constant"
      value: 0.2
    }
  }
}
layer {
  name: "inception_4e/relu_3x3_reduce"
  type: "ReLU"
  bottom: "inception_4e/3x3_reduce"
  top: "inception_4e/3x3_reduce"
}
layer {
  name: "inception_4e/3x3"
  type: "Convolution"
  bottom: "inception_4e/3x3_reduce"
  top: "inception_4e/3x3"
  param {
    lr_mult: 1
    decay_mult: 1
  }
  param {
    lr_mult: 2
    decay_mult: 0
  }
  convolution_param {
    num_output: 320
    pad: 1
    kernel_size: 3
    weight_filler {
      type: "xavier"
      std: 0.03
    }
    bias_filler {
      type: "constant"
      value: 0.2
    }
  }
}
layer {
  name: "inception_4e/relu_3x3"
  type: "ReLU"
  bottom: "inception_4e/3x3"
  top: "inception_4e/3x3"
}
layer {
  name: "inception_4e/5x5_reduce"
  type: "Convolution"
  bottom: "inception_4d/output"
  top: "inception_4e/5x5_reduce"
  param {
    lr_mult: 1
    decay_mult: 1
  }
  param {
    lr_mult: 2
    decay_mult: 0
  }
  convolution_param {
    num_output: 32
    kernel_size: 1
    weight_filler {
      type: "xavier"
      std: 0.2
    }
    bias_filler {
      type: "constant"
      value: 0.2
    }
  }
}
layer {
  name: "inception_4e/relu_5x5_reduce"
  type: "ReLU"
  bottom: "inception_4e/5x5_reduce"
  top: "inception_4e/5x5_reduce"
}
layer {
  name: "inception_4e/5x5"
  type: "Convolution"
  bottom: "inception_4e/5x5_reduce"
  top: "inception_4e/
I0403 21:48:41.880177 24319 layer_factory.hpp:77] Creating layer data
I0403 21:48:41.880795 24319 net.cpp:91] Creating Layer data
I0403 21:48:41.880831 24319 net.cpp:399] data -> data
I0403 21:48:41.880883 24319 net.cpp:399] data -> label
I0403 21:48:41.880923 24319 data_transformer.cpp:25] Loading mean file from: /home/mohanty/data/final_dataset/lmdb/segmented-80-20/mean.binaryproto
I0403 21:48:41.882122 24321 db_lmdb.cpp:38] Opened lmdb /home/mohanty/data/final_dataset/lmdb/segmented-80-20/test_db
I0403 21:48:41.894165 24319 data_layer.cpp:41] output data size: 24,3,224,224
I0403 21:48:41.922685 24319 net.cpp:141] Setting up data
I0403 21:48:41.922770 24319 net.cpp:148] Top shape: 24 3 224 224 (3612672)
I0403 21:48:41.922796 24319 net.cpp:148] Top shape: 24 (24)
I0403 21:48:41.922812 24319 net.cpp:156] Memory required for data: 14450784
I0403 21:48:41.922843 24319 layer_factory.hpp:77] Creating layer label_data_1_split
I0403 21:48:41.922873 24319 net.cpp:91] Creating Layer label_data_1_split
I0403 21:48:41.922893 24319 net.cpp:425] label_data_1_split <- label
I0403 21:48:41.922927 24319 net.cpp:399] label_data_1_split -> label_data_1_split_0
I0403 21:48:41.922957 24319 net.cpp:399] label_data_1_split -> label_data_1_split_1
I0403 21:48:41.922981 24319 net.cpp:399] label_data_1_split -> label_data_1_split_2
I0403 21:48:41.923002 24319 net.cpp:399] label_data_1_split -> label_data_1_split_3
I0403 21:48:41.923023 24319 net.cpp:399] label_data_1_split -> label_data_1_split_4
I0403 21:48:41.923043 24319 net.cpp:399] label_data_1_split -> label_data_1_split_5
I0403 21:48:41.923065 24319 net.cpp:399] label_data_1_split -> label_data_1_split_6
I0403 21:48:41.923087 24319 net.cpp:399] label_data_1_split -> label_data_1_split_7
I0403 21:48:41.923110 24319 net.cpp:399] label_data_1_split -> label_data_1_split_8
I0403 21:48:41.923130 24319 net.cpp:399] label_data_1_split -> label_data_1_split_9
I0403 21:48:41.923256 24319 net.cpp:141] Setting up label_data_1_split
I0403 21:48:41.923283 24319 net.cpp:148] Top shape: 24 (24)
I0403 21:48:41.923301 24319 net.cpp:148] Top shape: 24 (24)
I0403 21:48:41.923318 24319 net.cpp:148] Top shape: 24 (24)
I0403 21:48:41.923336 24319 net.cpp:148] Top shape: 24 (24)
I0403 21:48:41.923352 24319 net.cpp:148] Top shape: 24 (24)
I0403 21:48:41.923368 24319 net.cpp:148] Top shape: 24 (24)
I0403 21:48:41.923384 24319 net.cpp:148] Top shape: 24 (24)
I0403 21:48:41.923401 24319 net.cpp:148] Top shape: 24 (24)
I0403 21:48:41.923418 24319 net.cpp:148] Top shape: 24 (24)
I0403 21:48:41.923434 24319 net.cpp:148] Top shape: 24 (24)
I0403 21:48:41.923488 24319 net.cpp:156] Memory required for data: 14451744
I0403 21:48:41.923506 24319 layer_factory.hpp:77] Creating layer conv1/7x7_s2
I0403 21:48:41.923538 24319 net.cpp:91] Creating Layer conv1/7x7_s2
I0403 21:48:41.923559 24319 net.cpp:425] conv1/7x7_s2 <- data
I0403 21:48:41.923579 24319 net.cpp:399] conv1/7x7_s2 -> conv1/7x7_s2
I0403 21:48:42.069921 24319 net.cpp:141] Setting up conv1/7x7_s2
I0403 21:48:42.070003 24319 net.cpp:148] Top shape: 24 64 112 112 (19267584)
I0403 21:48:42.070021 24319 net.cpp:156] Memory required for data: 91522080
I0403 21:48:42.070053 24319 layer_factory.hpp:77] Creating layer conv1/relu_7x7
I0403 21:48:42.070080 24319 net.cpp:91] Creating Layer conv1/relu_7x7
I0403 21:48:42.070099 24319 net.cpp:425] conv1/relu_7x7 <- conv1/7x7_s2
I0403 21:48:42.070118 24319 net.cpp:386] conv1/relu_7x7 -> conv1/7x7_s2 (in-place)
I0403 21:48:42.070381 24319 net.cpp:141] Setting up conv1/relu_7x7
I0403 21:48:42.070408 24319 net.cpp:148] Top shape: 24 64 112 112 (19267584)
I0403 21:48:42.070425 24319 net.cpp:156] Memory required for data: 168592416
I0403 21:48:42.070441 24319 layer_factory.hpp:77] Creating layer pool1/3x3_s2
I0403 21:48:42.070464 24319 net.cpp:91] Creating Layer pool1/3x3_s2
I0403 21:48:42.070483 24319 net.cpp:425] pool1/3x3_s2 <- conv1/7x7_s2
I0403 21:48:42.070502 24319 net.cpp:399] pool1/3x3_s2 -> pool1/3x3_s2
I0403 21:48:42.070576 24319 net.cpp:141] Setting up pool1/3x3_s2
I0403 21:48:42.070601 24319 net.cpp:148] Top shape: 24 64 56 56 (4816896)
I0403 21:48:42.070616 24319 net.cpp:156] Memory required for data: 187860000
I0403 21:48:42.070632 24319 layer_factory.hpp:77] Creating layer pool1/norm1
I0403 21:48:42.070657 24319 net.cpp:91] Creating Layer pool1/norm1
I0403 21:48:42.070674 24319 net.cpp:425] pool1/norm1 <- pool1/3x3_s2
I0403 21:48:42.070693 24319 net.cpp:399] pool1/norm1 -> pool1/norm1
I0403 21:48:42.070981 24319 net.cpp:141] Setting up pool1/norm1
I0403 21:48:42.071007 24319 net.cpp:148] Top shape: 24 64 56 56 (4816896)
I0403 21:48:42.071023 24319 net.cpp:156] Memory required for data: 207127584
I0403 21:48:42.071039 24319 layer_factory.hpp:77] Creating layer conv2/3x3_reduce
I0403 21:48:42.071064 24319 net.cpp:91] Creating Layer conv2/3x3_reduce
I0403 21:48:42.071080 24319 net.cpp:425] conv2/3x3_reduce <- pool1/norm1
I0403 21:48:42.071100 24319 net.cpp:399] conv2/3x3_reduce -> conv2/3x3_reduce
I0403 21:48:42.072477 24319 net.cpp:141] Setting up conv2/3x3_reduce
I0403 21:48:42.072507 24319 net.cpp:148] Top shape: 24 64 56 56 (4816896)
I0403 21:48:42.072523 24319 net.cpp:156] Memory required for data: 226395168
I0403 21:48:42.072546 24319 layer_factory.hpp:77] Creating layer conv2/relu_3x3_reduce
I0403 21:48:42.072563 24319 net.cpp:91] Creating Layer conv2/relu_3x3_reduce
I0403 21:48:42.072579 24319 net.cpp:425] conv2/relu_3x3_reduce <- conv2/3x3_reduce
I0403 21:48:42.072599 24319 net.cpp:386] conv2/relu_3x3_reduce -> conv2/3x3_reduce (in-place)
I0403 21:48:42.072868 24319 net.cpp:141] Setting up conv2/relu_3x3_reduce
I0403 21:48:42.072896 24319 net.cpp:148] Top shape: 24 64 56 56 (4816896)
I0403 21:48:42.072911 24319 net.cpp:156] Memory required for data: 245662752
I0403 21:48:42.072926 24319 layer_factory.hpp:77] Creating layer conv2/3x3
I0403 21:48:42.072950 24319 net.cpp:91] Creating Layer conv2/3x3
I0403 21:48:42.072968 24319 net.cpp:425] conv2/3x3 <- conv2/3x3_reduce
I0403 21:48:42.072989 24319 net.cpp:399] conv2/3x3 -> conv2/3x3
I0403 21:48:42.075294 24319 net.cpp:141] Setting up conv2/3x3
I0403 21:48:42.075325 24319 net.cpp:148] Top shape: 24 192 56 56 (14450688)
I0403 21:48:42.075340 24319 net.cpp:156] Memory required for data: 303465504
I0403 21:48:42.075362 24319 layer_factory.hpp:77] Creating layer conv2/relu_3x3
I0403 21:48:42.075382 24319 net.cpp:91] Creating Layer conv2/relu_3x3
I0403 21:48:42.075398 24319 net.cpp:425] conv2/relu_3x3 <- conv2/3x3
I0403 21:48:42.075418 24319 net.cpp:386] conv2/relu_3x3 -> conv2/3x3 (in-place)
I0403 21:48:42.075597 24319 net.cpp:141] Setting up conv2/relu_3x3
I0403 21:48:42.075623 24319 net.cpp:148] Top shape: 24 192 56 56 (14450688)
I0403 21:48:42.075670 24319 net.cpp:156] Memory required for data: 361268256
I0403 21:48:42.075687 24319 layer_factory.hpp:77] Creating layer conv2/norm2
I0403 21:48:42.075708 24319 net.cpp:91] Creating Layer conv2/norm2
I0403 21:48:42.075726 24319 net.cpp:425] conv2/norm2 <- conv2/3x3
I0403 21:48:42.075747 24319 net.cpp:399] conv2/norm2 -> conv2/norm2
I0403 21:48:42.076047 24319 net.cpp:141] Setting up conv2/norm2
I0403 21:48:42.076076 24319 net.cpp:148] Top shape: 24 192 56 56 (14450688)
I0403 21:48:42.076092 24319 net.cpp:156] Memory required for data: 419071008
I0403 21:48:42.076107 24319 layer_factory.hpp:77] Creating layer pool2/3x3_s2
I0403 21:48:42.076127 24319 net.cpp:91] Creating Layer pool2/3x3_s2
I0403 21:48:42.076141 24319 net.cpp:425] pool2/3x3_s2 <- conv2/norm2
I0403 21:48:42.076162 24319 net.cpp:399] pool2/3x3_s2 -> pool2/3x3_s2
I0403 21:48:42.076217 24319 net.cpp:141] Setting up pool2/3x3_s2
I0403 21:48:42.076246 24319 net.cpp:148] Top shape: 24 192 28 28 (3612672)
I0403 21:48:42.076261 24319 net.cpp:156] Memory required for data: 433521696
I0403 21:48:42.076277 24319 layer_factory.hpp:77] Creating layer pool2/3x3_s2_pool2/3x3_s2_0_split
I0403 21:48:42.076298 24319 net.cpp:91] Creating Layer pool2/3x3_s2_pool2/3x3_s2_0_split
I0403 21:48:42.076314 24319 net.cpp:425] pool2/3x3_s2_pool2/3x3_s2_0_split <- pool2/3x3_s2
I0403 21:48:42.076331 24319 net.cpp:399] pool2/3x3_s2_pool2/3x3_s2_0_split -> pool2/3x3_s2_pool2/3x3_s2_0_split_0
I0403 21:48:42.076350 24319 net.cpp:399] pool2/3x3_s2_pool2/3x3_s2_0_split -> pool2/3x3_s2_pool2/3x3_s2_0_split_1
I0403 21:48:42.076373 24319 net.cpp:399] pool2/3x3_s2_pool2/3x3_s2_0_split -> pool2/3x3_s2_pool2/3x3_s2_0_split_2
I0403 21:48:42.076395 24319 net.cpp:399] pool2/3x3_s2_pool2/3x3_s2_0_split -> pool2/3x3_s2_pool2/3x3_s2_0_split_3
I0403 21:48:42.076464 24319 net.cpp:141] Setting up pool2/3x3_s2_pool2/3x3_s2_0_split
I0403 21:48:42.076486 24319 net.cpp:148] Top shape: 24 192 28 28 (3612672)
I0403 21:48:42.076503 24319 net.cpp:148] Top shape: 24 192 28 28 (3612672)
I0403 21:48:42.076519 24319 net.cpp:148] Top shape: 24 192 28 28 (3612672)
I0403 21:48:42.076535 24319 net.cpp:148] Top shape: 24 192 28 28 (3612672)
I0403 21:48:42.076550 24319 net.cpp:156] Memory required for data: 491324448
I0403 21:48:42.076565 24319 layer_factory.hpp:77] Creating layer inception_3a/1x1
I0403 21:48:42.076586 24319 net.cpp:91] Creating Layer inception_3a/1x1
I0403 21:48:42.076602 24319 net.cpp:425] inception_3a/1x1 <- pool2/3x3_s2_pool2/3x3_s2_0_split_0
I0403 21:48:42.076623 24319 net.cpp:399] inception_3a/1x1 -> inception_3a/1x1
I0403 21:48:42.078192 24319 net.cpp:141] Setting up inception_3a/1x1
I0403 21:48:42.078224 24319 net.cpp:148] Top shape: 24 64 28 28 (1204224)
I0403 21:48:42.078253 24319 net.cpp:156] Memory required for data: 496141344
I0403 21:48:42.078274 24319 layer_factory.hpp:77] Creating layer inception_3a/relu_1x1
I0403 21:48:42.078292 24319 net.cpp:91] Creating Layer inception_3a/relu_1x1
I0403 21:48:42.078308 24319 net.cpp:425] inception_3a/relu_1x1 <- inception_3a/1x1
I0403 21:48:42.078330 24319 net.cpp:386] inception_3a/relu_1x1 -> inception_3a/1x1 (in-place)
I0403 21:48:42.078500 24319 net.cpp:141] Setting up inception_3a/relu_1x1
I0403 21:48:42.078526 24319 net.cpp:148] Top shape: 24 64 28 28 (1204224)
I0403 21:48:42.078541 24319 net.cpp:156] Memory required for data: 500958240
I0403 21:48:42.078557 24319 layer_factory.hpp:77] Creating layer inception_3a/3x3_reduce
I0403 21:48:42.078578 24319 net.cpp:91] Creating Layer inception_3a/3x3_reduce
I0403 21:48:42.078596 24319 net.cpp:425] inception_3a/3x3_reduce <- pool2/3x3_s2_pool2/3x3_s2_0_split_1
I0403 21:48:42.078618 24319 net.cpp:399] inception_3a/3x3_reduce -> inception_3a/3x3_reduce
I0403 21:48:42.080327 24319 net.cpp:141] Setting up inception_3a/3x3_reduce
I0403 21:48:42.080356 24319 net.cpp:148] Top shape: 24 96 28 28 (1806336)
I0403 21:48:42.080374 24319 net.cpp:156] Memory required for data: 508183584
I0403 21:48:42.080395 24319 layer_factory.hpp:77] Creating layer inception_3a/relu_3x3_reduce
I0403 21:48:42.080432 24319 net.cpp:91] Creating Layer inception_3a/relu_3x3_reduce
I0403 21:48:42.080451 24319 net.cpp:425] inception_3a/relu_3x3_reduce <- inception_3a/3x3_reduce
I0403 21:48:42.080469 24319 net.cpp:386] inception_3a/relu_3x3_reduce -> inception_3a/3x3_reduce (in-place)
I0403 21:48:42.080651 24319 net.cpp:141] Setting up inception_3a/relu_3x3_reduce
I0403 21:48:42.080678 24319 net.cpp:148] Top shape: 24 96 28 28 (1806336)
I0403 21:48:42.080695 24319 net.cpp:156] Memory required for data: 515408928
I0403 21:48:42.080711 24319 layer_factory.hpp:77] Creating layer inception_3a/3x3
I0403 21:48:42.080734 24319 net.cpp:91] Creating Layer inception_3a/3x3
I0403 21:48:42.080751 24319 net.cpp:425] inception_3a/3x3 <- inception_3a/3x3_reduce
I0403 21:48:42.080773 24319 net.cpp:399] inception_3a/3x3 -> inception_3a/3x3
I0403 21:48:42.082404 24319 net.cpp:141] Setting up inception_3a/3x3
I0403 21:48:42.082433 24319 net.cpp:148] Top shape: 24 128 28 28 (2408448)
I0403 21:48:42.082449 24319 net.cpp:156] Memory required for data: 525042720
I0403 21:48:42.082468 24319 layer_factory.hpp:77] Creating layer inception_3a/relu_3x3
I0403 21:48:42.082489 24319 net.cpp:91] Creating Layer inception_3a/relu_3x3
I0403 21:48:42.082505 24319 net.cpp:425] inception_3a/relu_3x3 <- inception_3a/3x3
I0403 21:48:42.082523 24319 net.cpp:386] inception_3a/relu_3x3 -> inception_3a/3x3 (in-place)
I0403 21:48:42.082792 24319 net.cpp:141] Setting up inception_3a/relu_3x3
I0403 21:48:42.082818 24319 net.cpp:148] Top shape: 24 128 28 28 (2408448)
I0403 21:48:42.082833 24319 net.cpp:156] Memory required for data: 534676512
I0403 21:48:42.082847 24319 layer_factory.hpp:77] Creating layer inception_3a/5x5_reduce
I0403 21:48:42.082870 24319 net.cpp:91] Creating Layer inception_3a/5x5_reduce
I0403 21:48:42.082890 24319 net.cpp:425] inception_3a/5x5_reduce <- pool2/3x3_s2_pool2/3x3_s2_0_split_2
I0403 21:48:42.082911 24319 net.cpp:399] inception_3a/5x5_reduce -> inception_3a/5x5_reduce
I0403 21:48:42.083899 24319 net.cpp:141] Setting up inception_3a/5x5_reduce
I0403 21:48:42.083928 24319 net.cpp:148] Top shape: 24 16 28 28 (301056)
I0403 21:48:42.083945 24319 net.cpp:156] Memory required for data: 535880736
I0403 21:48:42.083964 24319 layer_factory.hpp:77] Creating layer inception_3a/relu_5x5_reduce
I0403 21:48:42.083986 24319 net.cpp:91] Creating Layer inception_3a/relu_5x5_reduce
I0403 21:48:42.084003 24319 net.cpp:425] inception_3a/relu_5x5_reduce <- inception_3a/5x5_reduce
I0403 21:48:42.084022 24319 net.cpp:386] inception_3a/relu_5x5_reduce -> inception_3a/5x5_reduce (in-place)
I0403 21:48:42.084333 24319 net.cpp:141] Setting up inception_3a/relu_5x5_reduce
I0403 21:48:42.084360 24319 net.cpp:148] Top shape: 24 16 28 28 (301056)
I0403 21:48:42.084380 24319 net.cpp:156] Memory required for data: 537084960
I0403 21:48:42.084396 24319 layer_factory.hpp:77] Creating layer inception_3a/5x5
I0403 21:48:42.084416 24319 net.cpp:91] Creating Layer inception_3a/5x5
I0403 21:48:42.084434 24319 net.cpp:425] inception_3a/5x5 <- inception_3a/5x5_reduce
I0403 21:48:42.084455 24319 net.cpp:399] inception_3a/5x5 -> inception_3a/5x5
I0403 21:48:42.085505 24319 net.cpp:141] Setting up inception_3a/5x5
I0403 21:48:42.085535 24319 net.cpp:148] Top shape: 24 32 28 28 (602112)
I0403 21:48:42.085551 24319 net.cpp:156] Memory required for data: 539493408
I0403 21:48:42.085571 24319 layer_factory.hpp:77] Creating layer inception_3a/relu_5x5
I0403 21:48:42.085589 24319 net.cpp:91] Creating Layer inception_3a/relu_5x5
I0403 21:48:42.085609 24319 net.cpp:425] inception_3a/relu_5x5 <- inception_3a/5x5
I0403 21:48:42.085628 24319 net.cpp:386] inception_3a/relu_5x5 -> inception_3a/5x5 (in-place)
I0403 21:48:42.085806 24319 net.cpp:141] Setting up inception_3a/relu_5x5
I0403 21:48:42.085832 24319 net.cpp:148] Top shape: 24 32 28 28 (602112)
I0403 21:48:42.085847 24319 net.cpp:156] Memory required for data: 541901856
I0403 21:48:42.085863 24319 layer_factory.hpp:77] Creating layer inception_3a/pool
I0403 21:48:42.085885 24319 net.cpp:91] Creating Layer inception_3a/pool
I0403 21:48:42.085916 24319 net.cpp:425] inception_3a/pool <- pool2/3x3_s2_pool2/3x3_s2_0_split_3
I0403 21:48:42.085935 24319 net.cpp:399] inception_3a/pool -> inception_3a/pool
I0403 21:48:42.085996 24319 net.cpp:141] Setting up inception_3a/pool
I0403 21:48:42.086021 24319 net.cpp:148] Top shape: 24 192 28 28 (3612672)
I0403 21:48:42.086036 24319 net.cpp:156] Memory required for data: 556352544
I0403 21:48:42.086051 24319 layer_factory.hpp:77] Creating layer inception_3a/pool_proj
I0403 21:48:42.086074 24319 net.cpp:91] Creating Layer inception_3a/pool_proj
I0403 21:48:42.086092 24319 net.cpp:425] inception_3a/pool_proj <- inception_3a/pool
I0403 21:48:42.086115 24319 net.cpp:399] inception_3a/pool_proj -> inception_3a/pool_proj
I0403 21:48:42.087116 24319 net.cpp:141] Setting up inception_3a/pool_proj
I0403 21:48:42.087147 24319 net.cpp:148] Top shape: 24 32 28 28 (602112)
I0403 21:48:42.087165 24319 net.cpp:156] Memory required for data: 558760992
I0403 21:48:42.087190 24319 layer_factory.hpp:77] Creating layer inception_3a/relu_pool_proj
I0403 21:48:42.087213 24319 net.cpp:91] Creating Layer inception_3a/relu_pool_proj
I0403 21:48:42.087232 24319 net.cpp:425] inception_3a/relu_pool_proj <- inception_3a/pool_proj
I0403 21:48:42.087252 24319 net.cpp:386] inception_3a/relu_pool_proj -> inception_3a/pool_proj (in-place)
I0403 21:48:42.087540 24319 net.cpp:141] Setting up inception_3a/relu_pool_proj
I0403 21:48:42.087568 24319 net.cpp:148] Top shape: 24 32 28 28 (602112)
I0403 21:48:42.087584 24319 net.cpp:156] Memory required for data: 561169440
I0403 21:48:42.087599 24319 layer_factory.hpp:77] Creating layer inception_3a/output
I0403 21:48:42.087617 24319 net.cpp:91] Creating Layer inception_3a/output
I0403 21:48:42.087633 24319 net.cpp:425] inception_3a/output <- inception_3a/1x1
I0403 21:48:42.087651 24319 net.cpp:425] inception_3a/output <- inception_3a/3x3
I0403 21:48:42.087667 24319 net.cpp:425] inception_3a/output <- inception_3a/5x5
I0403 21:48:42.087683 24319 net.cpp:425] inception_3a/output <- inception_3a/pool_proj
I0403 21:48:42.087703 24319 net.cpp:399] inception_3a/output -> inception_3a/output
I0403 21:48:42.087750 24319 net.cpp:141] Setting up inception_3a/output
I0403 21:48:42.087779 24319 net.cpp:148] Top shape: 24 256 28 28 (4816896)
I0403 21:48:42.087793 24319 net.cpp:156] Memory required for data: 580437024
I0403 21:48:42.087810 24319 layer_factory.hpp:77] Creating layer inception_3a/output_inception_3a/output_0_split
I0403 21:48:42.087827 24319 net.cpp:91] Creating Layer inception_3a/output_inception_3a/output_0_split
I0403 21:48:42.087843 24319 net.cpp:425] inception_3a/output_inception_3a/output_0_split <- inception_3a/output
I0403 21:48:42.087863 24319 net.cpp:399] inception_3a/output_inception_3a/output_0_split -> inception_3a/output_inception_3a/output_0_split_0
I0403 21:48:42.087884 24319 net.cpp:399] inception_3a/output_inception_3a/output_0_split -> inception_3a/output_inception_3a/output_0_split_1
I0403 21:48:42.087908 24319 net.cpp:399] inception_3a/output_inception_3a/output_0_split -> inception_3a/output_inception_3a/output_0_split_2
I0403 21:48:42.087929 24319 net.cpp:399] inception_3a/output_inception_3a/output_0_split -> inception_3a/output_inception_3a/output_0_split_3
I0403 21:48:42.088006 24319 net.cpp:141] Setting up inception_3a/output_inception_3a/output_0_split
I0403 21:48:42.088029 24319 net.cpp:148] Top shape: 24 256 28 28 (4816896)
I0403 21:48:42.088047 24319 net.cpp:148] Top shape: 24 256 28 28 (4816896)
I0403 21:48:42.088063 24319 net.cpp:148] Top shape: 24 256 28 28 (4816896)
I0403 21:48:42.088079 24319 net.cpp:148] Top shape: 24 256 28 28 (4816896)
I0403 21:48:42.088093 24319 net.cpp:156] Memory required for data: 657507360
I0403 21:48:42.088109 24319 layer_factory.hpp:77] Creating layer inception_3b/1x1
I0403 21:48:42.088132 24319 net.cpp:91] Creating Layer inception_3b/1x1
I0403 21:48:42.088150 24319 net.cpp:425] inception_3b/1x1 <- inception_3a/output_inception_3a/output_0_split_0
I0403 21:48:42.088171 24319 net.cpp:399] inception_3b/1x1 -> inception_3b/1x1
I0403 21:48:42.089342 24319 net.cpp:141] Setting up inception_3b/1x1
I0403 21:48:42.089385 24319 net.cpp:148] Top shape: 24 128 28 28 (2408448)
I0403 21:48:42.089401 24319 net.cpp:156] Memory required for data: 667141152
I0403 21:48:42.089421 24319 layer_factory.hpp:77] Creating layer inception_3b/relu_1x1
I0403 21:48:42.089440 24319 net.cpp:91] Creating Layer inception_3b/relu_1x1
I0403 21:48:42.089457 24319 net.cpp:425] inception_3b/relu_1x1 <- inception_3b/1x1
I0403 21:48:42.089476 24319 net.cpp:386] inception_3b/relu_1x1 -> inception_3b/1x1 (in-place)
I0403 21:48:42.089658 24319 net.cpp:141] Setting up inception_3b/relu_1x1
I0403 21:48:42.089684 24319 net.cpp:148] Top shape: 24 128 28 28 (2408448)
I0403 21:48:42.089700 24319 net.cpp:156] Memory required for data: 676774944
I0403 21:48:42.089716 24319 layer_factory.hpp:77] Creating layer inception_3b/3x3_reduce
I0403 21:48:42.089738 24319 net.cpp:91] Creating Layer inception_3b/3x3_reduce
I0403 21:48:42.089756 24319 net.cpp:425] inception_3b/3x3_reduce <- inception_3a/output_inception_3a/output_0_split_1
I0403 21:48:42.089777 24319 net.cpp:399] inception_3b/3x3_reduce -> inception_3b/3x3_reduce
I0403 21:48:42.090935 24319 net.cpp:141] Setting up inception_3b/3x3_reduce
I0403 21:48:42.090967 24319 net.cpp:148] Top shape: 24 128 28 28 (2408448)
I0403 21:48:42.090984 24319 net.cpp:156] Memory required for data: 686408736
I0403 21:48:42.091004 24319 layer_factory.hpp:77] Creating layer inception_3b/relu_3x3_reduce
I0403 21:48:42.091022 24319 net.cpp:91] Creating Layer inception_3b/relu_3x3_reduce
I0403 21:48:42.091038 24319 net.cpp:425] inception_3b/relu_3x3_reduce <- inception_3b/3x3_reduce
I0403 21:48:42.091059 24319 net.cpp:386] inception_3b/relu_3x3_reduce -> inception_3b/3x3_reduce (in-place)
I0403 21:48:42.091248 24319 net.cpp:141] Setting up inception_3b/relu_3x3_reduce
I0403 21:48:42.091274 24319 net.cpp:148] Top shape: 24 128 28 28 (2408448)
I0403 21:48:42.091289 24319 net.cpp:156] Memory required for data: 696042528
I0403 21:48:42.091305 24319 layer_factory.hpp:77] Creating layer inception_3b/3x3
I0403 21:48:42.091331 24319 net.cpp:91] Creating Layer inception_3b/3x3
I0403 21:48:42.091351 24319 net.cpp:425] inception_3b/3x3 <- inception_3b/3x3_reduce
I0403 21:48:42.091370 24319 net.cpp:399] inception_3b/3x3 -> inception_3b/3x3
I0403 21:48:42.094362 24319 net.cpp:141] Setting up inception_3b/3x3
I0403 21:48:42.094390 24319 net.cpp:148] Top shape: 24 192 28 28 (3612672)
I0403 21:48:42.094408 24319 net.cpp:156] Memory required for data: 710493216
I0403 21:48:42.094426 24319 layer_factory.hpp:77] Creating layer inception_3b/relu_3x3
I0403 21:48:42.094446 24319 net.cpp:91] Creating Layer inception_3b/relu_3x3
I0403 21:48:42.094465 24319 net.cpp:425] inception_3b/relu_3x3 <- inception_3b/3x3
I0403 21:48:42.094482 24319 net.cpp:386] inception_3b/relu_3x3 -> inception_3b/3x3 (in-place)
I0403 21:48:42.094764 24319 net.cpp:141] Setting up inception_3b/relu_3x3
I0403 21:48:42.094792 24319 net.cpp:148] Top shape: 24 192 28 28 (3612672)
I0403 21:48:42.094807 24319 net.cpp:156] Memory required for data: 724943904
I0403 21:48:42.094823 24319 layer_factory.hpp:77] Creating layer inception_3b/5x5_reduce
I0403 21:48:42.094847 24319 net.cpp:91] Creating Layer inception_3b/5x5_reduce
I0403 21:48:42.094866 24319 net.cpp:425] inception_3b/5x5_reduce <- inception_3a/output_inception_3a/output_0_split_2
I0403 21:48:42.094892 24319 net.cpp:399] inception_3b/5x5_reduce -> inception_3b/5x5_reduce
I0403 21:48:42.095904 24319 net.cpp:141] Setting up inception_3b/5x5_reduce
I0403 21:48:42.095933 24319 net.cpp:148] Top shape: 24 32 28 28 (602112)
I0403 21:48:42.095950 24319 net.cpp:156] Memory required for data: 727352352
I0403 21:48:42.095969 24319 layer_factory.hpp:77] Creating layer inception_3b/relu_5x5_reduce
I0403 21:48:42.095990 24319 net.cpp:91] Creating Layer inception_3b/relu_5x5_reduce
I0403 21:48:42.096009 24319 net.cpp:425] inception_3b/relu_5x5_reduce <- inception_3b/5x5_reduce
I0403 21:48:42.096027 24319 net.cpp:386] inception_3b/relu_5x5_reduce -> inception_3b/5x5_reduce (in-place)
I0403 21:48:42.096223 24319 net.cpp:141] Setting up inception_3b/relu_5x5_reduce
I0403 21:48:42.096254 24319 net.cpp:148] Top shape: 24 32 28 28 (602112)
I0403 21:48:42.096271 24319 net.cpp:156] Memory required for data: 729760800
I0403 21:48:42.096287 24319 layer_factory.hpp:77] Creating layer inception_3b/5x5
I0403 21:48:42.096309 24319 net.cpp:91] Creating Layer inception_3b/5x5
I0403 21:48:42.096326 24319 net.cpp:425] inception_3b/5x5 <- inception_3b/5x5_reduce
I0403 21:48:42.096349 24319 net.cpp:399] inception_3b/5x5 -> inception_3b/5x5
I0403 21:48:42.098386 24319 net.cpp:141] Setting up inception_3b/5x5
I0403 21:48:42.098418 24319 net.cpp:148] Top shape: 24 96 28 28 (1806336)
I0403 21:48:42.098436 24319 net.cpp:156] Memory required for data: 736986144
I0403 21:48:42.098456 24319 layer_factory.hpp:77] Creating layer inception_3b/relu_5x5
I0403 21:48:42.098474 24319 net.cpp:91] Creating Layer inception_3b/relu_5x5
I0403 21:48:42.098490 24319 net.cpp:425] inception_3b/relu_5x5 <- inception_3b/5x5
I0403 21:48:42.098511 24319 net.cpp:386] inception_3b/relu_5x5 -> inception_3b/5x5 (in-place)
I0403 21:48:42.098711 24319 net.cpp:141] Setting up inception_3b/relu_5x5
I0403 21:48:42.098737 24319 net.cpp:148] Top shape: 24 96 28 28 (1806336)
I0403 21:48:42.098752 24319 net.cpp:156] Memory required for data: 744211488
I0403 21:48:42.098768 24319 layer_factory.hpp:77] Creating layer inception_3b/pool
I0403 21:48:42.098786 24319 net.cpp:91] Creating Layer inception_3b/pool
I0403 21:48:42.098803 24319 net.cpp:425] inception_3b/pool <- inception_3a/output_inception_3a/output_0_split_3
I0403 21:48:42.098821 24319 net.cpp:399] inception_3b/pool -> inception_3b/pool
I0403 21:48:42.098880 24319 net.cpp:141] Setting up inception_3b/pool
I0403 21:48:42.098902 24319 net.cpp:148] Top shape: 24 256 28 28 (4816896)
I0403 21:48:42.098918 24319 net.cpp:156] Memory required for data: 763479072
I0403 21:48:42.098933 24319 layer_factory.hpp:77] Creating layer inception_3b/pool_proj
I0403 21:48:42.098958 24319 net.cpp:91] Creating Layer inception_3b/pool_proj
I0403 21:48:42.098974 24319 net.cpp:425] inception_3b/pool_proj <- inception_3b/pool
I0403 21:48:42.098994 24319 net.cpp:399] inception_3b/pool_proj -> inception_3b/pool_proj
I0403 21:48:42.100075 24319 net.cpp:141] Setting up inception_3b/pool_proj
I0403 21:48:42.100105 24319 net.cpp:148] Top shape: 24 64 28 28 (1204224)
I0403 21:48:42.100121 24319 net.cpp:156] Memory required for data: 768295968
I0403 21:48:42.100141 24319 layer_factory.hpp:77] Creating layer inception_3b/relu_pool_proj
I0403 21:48:42.100162 24319 net.cpp:91] Creating Layer inception_3b/relu_pool_proj
I0403 21:48:42.100179 24319 net.cpp:425] inception_3b/relu_pool_proj <- inception_3b/pool_proj
I0403 21:48:42.100198 24319 net.cpp:386] inception_3b/relu_pool_proj -> inception_3b/pool_proj (in-place)
I0403 21:48:42.100612 24319 net.cpp:141] Setting up inception_3b/relu_pool_proj
I0403 21:48:42.100641 24319 net.cpp:148] Top shape: 24 64 28 28 (1204224)
I0403 21:48:42.100656 24319 net.cpp:156] Memory required for data: 773112864
I0403 21:48:42.100672 24319 layer_factory.hpp:77] Creating layer inception_3b/output
I0403 21:48:42.100692 24319 net.cpp:91] Creating Layer inception_3b/output
I0403 21:48:42.100709 24319 net.cpp:425] inception_3b/output <- inception_3b/1x1
I0403 21:48:42.100728 24319 net.cpp:425] inception_3b/output <- inception_3b/3x3
I0403 21:48:42.100744 24319 net.cpp:425] inception_3b/output <- inception_3b/5x5
I0403 21:48:42.100760 24319 net.cpp:425] inception_3b/output <- inception_3b/pool_proj
I0403 21:48:42.100777 24319 net.cpp:399] inception_3b/output -> inception_3b/output
I0403 21:48:42.100823 24319 net.cpp:141] Setting up inception_3b/output
I0403 21:48:42.100847 24319 net.cpp:148] Top shape: 24 480 28 28 (9031680)
I0403 21:48:42.100862 24319 net.cpp:156] Memory required for data: 809239584
I0403 21:48:42.100878 24319 layer_factory.hpp:77] Creating layer pool3/3x3_s2
I0403 21:48:42.100896 24319 net.cpp:91] Creating Layer pool3/3x3_s2
I0403 21:48:42.100913 24319 net.cpp:425] pool3/3x3_s2 <- inception_3b/output
I0403 21:48:42.100950 24319 net.cpp:399] pool3/3x3_s2 -> pool3/3x3_s2
I0403 21:48:42.101011 24319 net.cpp:141] Setting up pool3/3x3_s2
I0403 21:48:42.101037 24319 net.cpp:148] Top shape: 24 480 14 14 (2257920)
I0403 21:48:42.101053 24319 net.cpp:156] Memory required for data: 818271264
I0403 21:48:42.101068 24319 layer_factory.hpp:77] Creating layer pool3/3x3_s2_pool3/3x3_s2_0_split
I0403 21:48:42.101086 24319 net.cpp:91] Creating Layer pool3/3x3_s2_pool3/3x3_s2_0_split
I0403 21:48:42.101102 24319 net.cpp:425] pool3/3x3_s2_pool3/3x3_s2_0_split <- pool3/3x3_s2
I0403 21:48:42.101119 24319 net.cpp:399] pool3/3x3_s2_pool3/3x3_s2_0_split -> pool3/3x3_s2_pool3/3x3_s2_0_split_0
I0403 21:48:42.101141 24319 net.cpp:399] pool3/3x3_s2_pool3/3x3_s2_0_split -> pool3/3x3_s2_pool3/3x3_s2_0_split_1
I0403 21:48:42.101162 24319 net.cpp:399] pool3/3x3_s2_pool3/3x3_s2_0_split -> pool3/3x3_s2_pool3/3x3_s2_0_split_2
I0403 21:48:42.101184 24319 net.cpp:399] pool3/3x3_s2_pool3/3x3_s2_0_split -> pool3/3x3_s2_pool3/3x3_s2_0_split_3
I0403 21:48:42.101270 24319 net.cpp:141] Setting up pool3/3x3_s2_pool3/3x3_s2_0_split
I0403 21:48:42.101295 24319 net.cpp:148] Top shape: 24 480 14 14 (2257920)
I0403 21:48:42.101312 24319 net.cpp:148] Top shape: 24 480 14 14 (2257920)
I0403 21:48:42.101330 24319 net.cpp:148] Top shape: 24 480 14 14 (2257920)
I0403 21:48:42.101346 24319 net.cpp:148] Top shape: 24 480 14 14 (2257920)
I0403 21:48:42.101359 24319 net.cpp:156] Memory required for data: 854397984
I0403 21:48:42.101375 24319 layer_factory.hpp:77] Creating layer inception_4a/1x1
I0403 21:48:42.101398 24319 net.cpp:91] Creating Layer inception_4a/1x1
I0403 21:48:42.101418 24319 net.cpp:425] inception_4a/1x1 <- pool3/3x3_s2_pool3/3x3_s2_0_split_0
I0403 21:48:42.101438 24319 net.cpp:399] inception_4a/1x1 -> inception_4a/1x1
I0403 21:48:42.103049 24319 net.cpp:141] Setting up inception_4a/1x1
I0403 21:48:42.103078 24319 net.cpp:148] Top shape: 24 192 14 14 (903168)
I0403 21:48:42.103094 24319 net.cpp:156] Memory required for data: 858010656
I0403 21:48:42.103113 24319 layer_factory.hpp:77] Creating layer inception_4a/relu_1x1
I0403 21:48:42.103133 24319 net.cpp:91] Creating Layer inception_4a/relu_1x1
I0403 21:48:42.103149 24319 net.cpp:425] inception_4a/relu_1x1 <- inception_4a/1x1
I0403 21:48:42.103168 24319 net.cpp:386] inception_4a/relu_1x1 -> inception_4a/1x1 (in-place)
I0403 21:48:42.103348 24319 net.cpp:141] Setting up inception_4a/relu_1x1
I0403 21:48:42.103374 24319 net.cpp:148] Top shape: 24 192 14 14 (903168)
I0403 21:48:42.103390 24319 net.cpp:156] Memory required for data: 861623328
I0403 21:48:42.103404 24319 layer_factory.hpp:77] Creating layer inception_4a/3x3_reduce
I0403 21:48:42.103426 24319 net.cpp:91] Creating Layer inception_4a/3x3_reduce
I0403 21:48:42.103454 24319 net.cpp:425] inception_4a/3x3_reduce <- pool3/3x3_s2_pool3/3x3_s2_0_split_1
I0403 21:48:42.103476 24319 net.cpp:399] inception_4a/3x3_reduce -> inception_4a/3x3_reduce
I0403 21:48:42.104748 24319 net.cpp:141] Setting up inception_4a/3x3_reduce
I0403 21:48:42.104780 24319 net.cpp:148] Top shape: 24 96 14 14 (451584)
I0403 21:48:42.104796 24319 net.cpp:156] Memory required for data: 863429664
I0403 21:48:42.104820 24319 layer_factory.hpp:77] Creating layer inception_4a/relu_3x3_reduce
I0403 21:48:42.104840 24319 net.cpp:91] Creating Layer inception_4a/relu_3x3_reduce
I0403 21:48:42.104857 24319 net.cpp:425] inception_4a/relu_3x3_reduce <- inception_4a/3x3_reduce
I0403 21:48:42.104876 24319 net.cpp:386] inception_4a/relu_3x3_reduce -> inception_4a/3x3_reduce (in-place)
I0403 21:48:42.105052 24319 net.cpp:141] Setting up inception_4a/relu_3x3_reduce
I0403 21:48:42.105079 24319 net.cpp:148] Top shape: 24 96 14 14 (451584)
I0403 21:48:42.105094 24319 net.cpp:156] Memory required for data: 865236000
I0403 21:48:42.105109 24319 layer_factory.hpp:77] Creating layer inception_4a/3x3
I0403 21:48:42.105131 24319 net.cpp:91] Creating Layer inception_4a/3x3
I0403 21:48:42.105149 24319 net.cpp:425] inception_4a/3x3 <- inception_4a/3x3_reduce
I0403 21:48:42.105170 24319 net.cpp:399] inception_4a/3x3 -> inception_4a/3x3
I0403 21:48:42.107877 24319 net.cpp:141] Setting up inception_4a/3x3
I0403 21:48:42.107908 24319 net.cpp:148] Top shape: 24 208 14 14 (978432)
I0403 21:48:42.107923 24319 net.cpp:156] Memory required for data: 869149728
I0403 21:48:42.107941 24319 layer_factory.hpp:77] Creating layer inception_4a/relu_3x3
I0403 21:48:42.107960 24319 net.cpp:91] Creating Layer inception_4a/relu_3x3
I0403 21:48:42.107976 24319 net.cpp:425] inception_4a/relu_3x3 <- inception_4a/3x3
I0403 21:48:42.107997 24319 net.cpp:386] inception_4a/relu_3x3 -> inception_4a/3x3 (in-place)
I0403 21:48:42.108281 24319 net.cpp:141] Setting up inception_4a/relu_3x3
I0403 21:48:42.108311 24319 net.cpp:148] Top shape: 24 208 14 14 (978432)
I0403 21:48:42.108327 24319 net.cpp:156] Memory required for data: 873063456
I0403 21:48:42.108342 24319 layer_factory.hpp:77] Creating layer inception_4a/5x5_reduce
I0403 21:48:42.108366 24319 net.cpp:91] Creating Layer inception_4a/5x5_reduce
I0403 21:48:42.108384 24319 net.cpp:425] inception_4a/5x5_reduce <- pool3/3x3_s2_pool3/3x3_s2_0_split_2
I0403 21:48:42.108404 24319 net.cpp:399] inception_4a/5x5_reduce -> inception_4a/5x5_reduce
I0403 21:48:42.109418 24319 net.cpp:141] Setting up inception_4a/5x5_reduce
I0403 21:48:42.109447 24319 net.cpp:148] Top shape: 24 16 14 14 (75264)
I0403 21:48:42.109463 24319 net.cpp:156] Memory required for data: 873364512
I0403 21:48:42.109482 24319 layer_factory.hpp:77] Creating layer inception_4a/relu_5x5_reduce
I0403 21:48:42.109500 24319 net.cpp:91] Creating Layer inception_4a/relu_5x5_reduce
I0403 21:48:42.109520 24319 net.cpp:425] inception_4a/relu_5x5_reduce <- inception_4a/5x5_reduce
I0403 21:48:42.109539 24319 net.cpp:386] inception_4a/relu_5x5_reduce -> inception_4a/5x5_reduce (in-place)
I0403 21:48:42.109719 24319 net.cpp:141] Setting up inception_4a/relu_5x5_reduce
I0403 21:48:42.109743 24319 net.cpp:148] Top shape: 24 16 14 14 (75264)
I0403 21:48:42.109758 24319 net.cpp:156] Memory required for data: 873665568
I0403 21:48:42.109773 24319 layer_factory.hpp:77] Creating layer inception_4a/5x5
I0403 21:48:42.109797 24319 net.cpp:91] Creating Layer inception_4a/5x5
I0403 21:48:42.109814 24319 net.cpp:425] inception_4a/5x5 <- inception_4a/5x5_reduce
I0403 21:48:42.109835 24319 net.cpp:399] inception_4a/5x5 -> inception_4a/5x5
I0403 21:48:42.110908 24319 net.cpp:141] Setting up inception_4a/5x5
I0403 21:48:42.110935 24319 net.cpp:148] Top shape: 24 48 14 14 (225792)
I0403 21:48:42.110951 24319 net.cpp:156] Memory required for data: 874568736
I0403 21:48:42.110970 24319 layer_factory.hpp:77] Creating layer inception_4a/relu_5x5
I0403 21:48:42.110991 24319 net.cpp:91] Creating Layer inception_4a/relu_5x5
I0403 21:48:42.111008 24319 net.cpp:425] inception_4a/relu_5x5 <- inception_4a/5x5
I0403 21:48:42.111027 24319 net.cpp:386] inception_4a/relu_5x5 -> inception_4a/5x5 (in-place)
I0403 21:48:42.111204 24319 net.cpp:141] Setting up inception_4a/relu_5x5
I0403 21:48:42.111235 24319 net.cpp:148] Top shape: 24 48 14 14 (225792)
I0403 21:48:42.111253 24319 net.cpp:156] Memory required for data: 875471904
I0403 21:48:42.111269 24319 layer_factory.hpp:77] Creating layer inception_4a/pool
I0403 21:48:42.111287 24319 net.cpp:91] Creating Layer inception_4a/pool
I0403 21:48:42.111302 24319 net.cpp:425] inception_4a/pool <- pool3/3x3_s2_pool3/3x3_s2_0_split_3
I0403 21:48:42.111322 24319 net.cpp:399] inception_4a/pool -> inception_4a/pool
I0403 21:48:42.111383 24319 net.cpp:141] Setting up inception_4a/pool
I0403 21:48:42.111407 24319 net.cpp:148] Top shape: 24 480 14 14 (2257920)
I0403 21:48:42.111423 24319 net.cpp:156] Memory required for data: 884503584
I0403 21:48:42.111438 24319 layer_factory.hpp:77] Creating layer inception_4a/pool_proj
I0403 21:48:42.111460 24319 net.cpp:91] Creating Layer inception_4a/pool_proj
I0403 21:48:42.111477 24319 net.cpp:425] inception_4a/pool_proj <- inception_4a/pool
I0403 21:48:42.111498 24319 net.cpp:399] inception_4a/pool_proj -> inception_4a/pool_proj
I0403 21:48:42.112648 24319 net.cpp:141] Setting up inception_4a/pool_proj
I0403 21:48:42.112680 24319 net.cpp:148] Top shape: 24 64 14 14 (301056)
I0403 21:48:42.112712 24319 net.cpp:156] Memory required for data: 885707808
I0403 21:48:42.112732 24319 layer_factory.hpp:77] Creating layer inception_4a/relu_pool_proj
I0403 21:48:42.112751 24319 net.cpp:91] Creating Layer inception_4a/relu_pool_proj
I0403 21:48:42.112767 24319 net.cpp:425] inception_4a/relu_pool_proj <- inception_4a/pool_proj
I0403 21:48:42.112785 24319 net.cpp:386] inception_4a/relu_pool_proj -> inception_4a/pool_proj (in-place)
I0403 21:48:42.113068 24319 net.cpp:141] Setting up inception_4a/relu_pool_proj
I0403 21:48:42.113097 24319 net.cpp:148] Top shape: 24 64 14 14 (301056)
I0403 21:48:42.113113 24319 net.cpp:156] Memory required for data: 886912032
I0403 21:48:42.113128 24319 layer_factory.hpp:77] Creating layer inception_4a/output
I0403 21:48:42.113145 24319 net.cpp:91] Creating Layer inception_4a/output
I0403 21:48:42.113162 24319 net.cpp:425] inception_4a/output <- inception_4a/1x1
I0403 21:48:42.113179 24319 net.cpp:425] inception_4a/output <- inception_4a/3x3
I0403 21:48:42.113195 24319 net.cpp:425] inception_4a/output <- inception_4a/5x5
I0403 21:48:42.113212 24319 net.cpp:425] inception_4a/output <- inception_4a/pool_proj
I0403 21:48:42.113234 24319 net.cpp:399] inception_4a/output -> inception_4a/output
I0403 21:48:42.113281 24319 net.cpp:141] Setting up inception_4a/output
I0403 21:48:42.113306 24319 net.cpp:148] Top shape: 24 512 14 14 (2408448)
I0403 21:48:42.113320 24319 net.cpp:156] Memory required for data: 896545824
I0403 21:48:42.113337 24319 layer_factory.hpp:77] Creating layer inception_4a/output_inception_4a/output_0_split
I0403 21:48:42.113353 24319 net.cpp:91] Creating Layer inception_4a/output_inception_4a/output_0_split
I0403 21:48:42.113373 24319 net.cpp:425] inception_4a/output_inception_4a/output_0_split <- inception_4a/output
I0403 21:48:42.113390 24319 net.cpp:399] inception_4a/output_inception_4a/output_0_split -> inception_4a/output_inception_4a/output_0_split_0
I0403 21:48:42.113411 24319 net.cpp:399] inception_4a/output_inception_4a/output_0_split -> inception_4a/output_inception_4a/output_0_split_1
I0403 21:48:42.113431 24319 net.cpp:399] inception_4a/output_inception_4a/output_0_split -> inception_4a/output_inception_4a/output_0_split_2
I0403 21:48:42.113453 24319 net.cpp:399] inception_4a/output_inception_4a/output_0_split -> inception_4a/output_inception_4a/output_0_split_3
I0403 21:48:42.113476 24319 net.cpp:399] inception_4a/output_inception_4a/output_0_split -> inception_4a/output_inception_4a/output_0_split_4
I0403 21:48:42.113571 24319 net.cpp:141] Setting up inception_4a/output_inception_4a/output_0_split
I0403 21:48:42.113595 24319 net.cpp:148] Top shape: 24 512 14 14 (2408448)
I0403 21:48:42.113612 24319 net.cpp:148] Top shape: 24 512 14 14 (2408448)
I0403 21:48:42.113627 24319 net.cpp:148] Top shape: 24 512 14 14 (2408448)
I0403 21:48:42.113644 24319 net.cpp:148] Top shape: 24 512 14 14 (2408448)
I0403 21:48:42.113661 24319 net.cpp:148] Top shape: 24 512 14 14 (2408448)
I0403 21:48:42.113673 24319 net.cpp:156] Memory required for data: 944714784
I0403 21:48:42.113688 24319 layer_factory.hpp:77] Creating layer loss1/ave_pool
I0403 21:48:42.113705 24319 net.cpp:91] Creating Layer loss1/ave_pool
I0403 21:48:42.113721 24319 net.cpp:425] loss1/ave_pool <- inception_4a/output_inception_4a/output_0_split_0
I0403 21:48:42.113741 24319 net.cpp:399] loss1/ave_pool -> loss1/ave_pool
I0403 21:48:42.113945 24319 net.cpp:141] Setting up loss1/ave_pool
I0403 21:48:42.113973 24319 net.cpp:148] Top shape: 24 512 4 4 (196608)
I0403 21:48:42.113989 24319 net.cpp:156] Memory required for data: 945501216
I0403 21:48:42.114006 24319 layer_factory.hpp:77] Creating layer loss1/conv
I0403 21:48:42.114024 24319 net.cpp:91] Creating Layer loss1/conv
I0403 21:48:42.114042 24319 net.cpp:425] loss1/conv <- loss1/ave_pool
I0403 21:48:42.114063 24319 net.cpp:399] loss1/conv -> loss1/conv
I0403 21:48:42.115515 24319 net.cpp:141] Setting up loss1/conv
I0403 21:48:42.115547 24319 net.cpp:148] Top shape: 24 128 4 4 (49152)
I0403 21:48:42.115579 24319 net.cpp:156] Memory required for data: 945697824
I0403 21:48:42.115600 24319 layer_factory.hpp:77] Creating layer loss1/relu_conv
I0403 21:48:42.115618 24319 net.cpp:91] Creating Layer loss1/relu_conv
I0403 21:48:42.115635 24319 net.cpp:425] loss1/relu_conv <- loss1/conv
I0403 21:48:42.115656 24319 net.cpp:386] loss1/relu_conv -> loss1/conv (in-place)
I0403 21:48:42.115947 24319 net.cpp:141] Setting up loss1/relu_conv
I0403 21:48:42.115980 24319 net.cpp:148] Top shape: 24 128 4 4 (49152)
I0403 21:48:42.115998 24319 net.cpp:156] Memory required for data: 945894432
I0403 21:48:42.116014 24319 layer_factory.hpp:77] Creating layer loss1/fc
I0403 21:48:42.116037 24319 net.cpp:91] Creating Layer loss1/fc
I0403 21:48:42.116056 24319 net.cpp:425] loss1/fc <- loss1/conv
I0403 21:48:42.116080 24319 net.cpp:399] loss1/fc -> loss1/fc
I0403 21:48:42.134428 24319 net.cpp:141] Setting up loss1/fc
I0403 21:48:42.134466 24319 net.cpp:148] Top shape: 24 1024 (24576)
I0403 21:48:42.134482 24319 net.cpp:156] Memory required for data: 945992736
I0403 21:48:42.134502 24319 layer_factory.hpp:77] Creating layer loss1/relu_fc
I0403 21:48:42.134524 24319 net.cpp:91] Creating Layer loss1/relu_fc
I0403 21:48:42.134541 24319 net.cpp:425] loss1/relu_fc <- loss1/fc
I0403 21:48:42.134560 24319 net.cpp:386] loss1/relu_fc -> loss1/fc (in-place)
I0403 21:48:42.134744 24319 net.cpp:141] Setting up loss1/relu_fc
I0403 21:48:42.134770 24319 net.cpp:148] Top shape: 24 1024 (24576)
I0403 21:48:42.134784 24319 net.cpp:156] Memory required for data: 946091040
I0403 21:48:42.134800 24319 layer_factory.hpp:77] Creating layer loss1/drop_fc
I0403 21:48:42.134826 24319 net.cpp:91] Creating Layer loss1/drop_fc
I0403 21:48:42.134845 24319 net.cpp:425] loss1/drop_fc <- loss1/fc
I0403 21:48:42.134865 24319 net.cpp:386] loss1/drop_fc -> loss1/fc (in-place)
I0403 21:48:42.134917 24319 net.cpp:141] Setting up loss1/drop_fc
I0403 21:48:42.134939 24319 net.cpp:148] Top shape: 24 1024 (24576)
I0403 21:48:42.134954 24319 net.cpp:156] Memory required for data: 946189344
I0403 21:48:42.134970 24319 layer_factory.hpp:77] Creating layer loss1/classifier_plantvillage
I0403 21:48:42.134994 24319 net.cpp:91] Creating Layer loss1/classifier_plantvillage
I0403 21:48:42.135011 24319 net.cpp:425] loss1/classifier_plantvillage <- loss1/fc
I0403 21:48:42.135030 24319 net.cpp:399] loss1/classifier_plantvillage -> loss1/classifier_plantvillage
I0403 21:48:42.135963 24319 net.cpp:141] Setting up loss1/classifier_plantvillage
I0403 21:48:42.135998 24319 net.cpp:148] Top shape: 24 38 (912)
I0403 21:48:42.136016 24319 net.cpp:156] Memory required for data: 946192992
I0403 21:48:42.136035 24319 layer_factory.hpp:77] Creating layer loss1/classifier_plantvillage_loss1/classifier_plantvillage_0_split
I0403 21:48:42.136054 24319 net.cpp:91] Creating Layer loss1/classifier_plantvillage_loss1/classifier_plantvillage_0_split
I0403 21:48:42.136070 24319 net.cpp:425] loss1/classifier_plantvillage_loss1/classifier_plantvillage_0_split <- loss1/classifier_plantvillage
I0403 21:48:42.136090 24319 net.cpp:399] loss1/classifier_plantvillage_loss1/classifier_plantvillage_0_split -> loss1/classifier_plantvillage_loss1/classifier_plantvillage_0_split_0
I0403 21:48:42.136111 24319 net.cpp:399] loss1/classifier_plantvillage_loss1/classifier_plantvillage_0_split -> loss1/classifier_plantvillage_loss1/classifier_plantvillage_0_split_1
I0403 21:48:42.136132 24319 net.cpp:399] loss1/classifier_plantvillage_loss1/classifier_plantvillage_0_split -> loss1/classifier_plantvillage_loss1/classifier_plantvillage_0_split_2
I0403 21:48:42.136199 24319 net.cpp:141] Setting up loss1/classifier_plantvillage_loss1/classifier_plantvillage_0_split
I0403 21:48:42.136224 24319 net.cpp:148] Top shape: 24 38 (912)
I0403 21:48:42.136246 24319 net.cpp:148] Top shape: 24 38 (912)
I0403 21:48:42.136263 24319 net.cpp:148] Top shape: 24 38 (912)
I0403 21:48:42.136277 24319 net.cpp:156] Memory required for data: 946203936
I0403 21:48:42.136292 24319 layer_factory.hpp:77] Creating layer inception_4b/1x1
I0403 21:48:42.136315 24319 net.cpp:91] Creating Layer inception_4b/1x1
I0403 21:48:42.136349 24319 net.cpp:425] inception_4b/1x1 <- inception_4a/output_inception_4a/output_0_split_1
I0403 21:48:42.136369 24319 net.cpp:399] inception_4b/1x1 -> inception_4b/1x1
I0403 21:48:42.138003 24319 net.cpp:141] Setting up inception_4b/1x1
I0403 21:48:42.138032 24319 net.cpp:148] Top shape: 24 160 14 14 (752640)
I0403 21:48:42.138048 24319 net.cpp:156] Memory required for data: 949214496
I0403 21:48:42.138067 24319 layer_factory.hpp:77] Creating layer inception_4b/relu_1x1
I0403 21:48:42.138084 24319 net.cpp:91] Creating Layer inception_4b/relu_1x1
I0403 21:48:42.138100 24319 net.cpp:425] inception_4b/relu_1x1 <- inception_4b/1x1
I0403 21:48:42.138119 24319 net.cpp:386] inception_4b/relu_1x1 -> inception_4b/1x1 (in-place)
I0403 21:48:42.138310 24319 net.cpp:141] Setting up inception_4b/relu_1x1
I0403 21:48:42.138337 24319 net.cpp:148] Top shape: 24 160 14 14 (752640)
I0403 21:48:42.138352 24319 net.cpp:156] Memory required for data: 952225056
I0403 21:48:42.138368 24319 layer_factory.hpp:77] Creating layer inception_4b/3x3_reduce
I0403 21:48:42.138392 24319 net.cpp:91] Creating Layer inception_4b/3x3_reduce
I0403 21:48:42.138411 24319 net.cpp:425] inception_4b/3x3_reduce <- inception_4a/output_inception_4a/output_0_split_2
I0403 21:48:42.138432 24319 net.cpp:399] inception_4b/3x3_reduce -> inception_4b/3x3_reduce
I0403 21:48:42.139770 24319 net.cpp:141] Setting up inception_4b/3x3_reduce
I0403 21:48:42.139798 24319 net.cpp:148] Top shape: 24 112 14 14 (526848)
I0403 21:48:42.139814 24319 net.cpp:156] Memory required for data: 954332448
I0403 21:48:42.139832 24319 layer_factory.hpp:77] Creating layer inception_4b/relu_3x3_reduce
I0403 21:48:42.139853 24319 net.cpp:91] Creating Layer inception_4b/relu_3x3_reduce
I0403 21:48:42.139869 24319 net.cpp:425] inception_4b/relu_3x3_reduce <- inception_4b/3x3_reduce
I0403 21:48:42.139886 24319 net.cpp:386] inception_4b/relu_3x3_reduce -> inception_4b/3x3_reduce (in-place)
I0403 21:48:42.140166 24319 net.cpp:141] Setting up inception_4b/relu_3x3_reduce
I0403 21:48:42.140192 24319 net.cpp:148] Top shape: 24 112 14 14 (526848)
I0403 21:48:42.140208 24319 net.cpp:156] Memory required for data: 956439840
I0403 21:48:42.140223 24319 layer_factory.hpp:77] Creating layer inception_4b/3x3
I0403 21:48:42.140251 24319 net.cpp:91] Creating Layer inception_4b/3x3
I0403 21:48:42.140270 24319 net.cpp:425] inception_4b/3x3 <- inception_4b/3x3_reduce
I0403 21:48:42.140292 24319 net.cpp:399] inception_4b/3x3 -> inception_4b/3x3
I0403 21:48:42.143278 24319 net.cpp:141] Setting up inception_4b/3x3
I0403 21:48:42.143308 24319 net.cpp:148] Top shape: 24 224 14 14 (1053696)
I0403 21:48:42.143324 24319 net.cpp:156] Memory required for data: 960654624
I0403 21:48:42.143345 24319 layer_factory.hpp:77] Creating layer inception_4b/relu_3x3
I0403 21:48:42.143364 24319 net.cpp:91] Creating Layer inception_4b/relu_3x3
I0403 21:48:42.143380 24319 net.cpp:425] inception_4b/relu_3x3 <- inception_4b/3x3
I0403 21:48:42.143399 24319 net.cpp:386] inception_4b/relu_3x3 -> inception_4b/3x3 (in-place)
I0403 21:48:42.143580 24319 net.cpp:141] Setting up inception_4b/relu_3x3
I0403 21:48:42.143606 24319 net.cpp:148] Top shape: 24 224 14 14 (1053696)
I0403 21:48:42.143620 24319 net.cpp:156] Memory required for data: 964869408
I0403 21:48:42.143635 24319 layer_factory.hpp:77] Creating layer inception_4b/5x5_reduce
I0403 21:48:42.143657 24319 net.cpp:91] Creating Layer inception_4b/5x5_reduce
I0403 21:48:42.143676 24319 net.cpp:425] inception_4b/5x5_reduce <- inception_4a/output_inception_4a/output_0_split_3
I0403 21:48:42.143698 24319 net.cpp:399] inception_4b/5x5_reduce -> inception_4b/5x5_reduce
I0403 21:48:42.144775 24319 net.cpp:141] Setting up inception_4b/5x5_reduce
I0403 21:48:42.144804 24319 net.cpp:148] Top shape: 24 24 14 14 (112896)
I0403 21:48:42.144819 24319 net.cpp:156] Memory required for data: 965320992
I0403 21:48:42.144837 24319 layer_factory.hpp:77] Creating layer inception_4b/relu_5x5_reduce
I0403 21:48:42.144855 24319 net.cpp:91] Creating Layer inception_4b/relu_5x5_reduce
I0403 21:48:42.144886 24319 net.cpp:425] inception_4b/relu_5x5_reduce <- inception_4b/5x5_reduce
I0403 21:48:42.144908 24319 net.cpp:386] inception_4b/relu_5x5_reduce -> inception_4b/5x5_reduce (in-place)
I0403 21:48:42.145094 24319 net.cpp:141] Setting up inception_4b/relu_5x5_reduce
I0403 21:48:42.145120 24319 net.cpp:148] Top shape: 24 24 14 14 (112896)
I0403 21:48:42.145135 24319 net.cpp:156] Memory required for data: 965772576
I0403 21:48:42.145150 24319 layer_factory.hpp:77] Creating layer inception_4b/5x5
I0403 21:48:42.145174 24319 net.cpp:91] Creating Layer inception_4b/5x5
I0403 21:48:42.145191 24319 net.cpp:425] inception_4b/5x5 <- inception_4b/5x5_reduce
I0403 21:48:42.145212 24319 net.cpp:399] inception_4b/5x5 -> inception_4b/5x5
I0403 21:48:42.146440 24319 net.cpp:141] Setting up inception_4b/5x5
I0403 21:48:42.146468 24319 net.cpp:148] Top shape: 24 64 14 14 (301056)
I0403 21:48:42.146484 24319 net.cpp:156] Memory required for data: 966976800
I0403 21:48:42.146503 24319 layer_factory.hpp:77] Creating layer inception_4b/relu_5x5
I0403 21:48:42.146522 24319 net.cpp:91] Creating Layer inception_4b/relu_5x5
I0403 21:48:42.146538 24319 net.cpp:425] inception_4b/relu_5x5 <- inception_4b/5x5
I0403 21:48:42.146559 24319 net.cpp:386] inception_4b/relu_5x5 -> inception_4b/5x5 (in-place)
I0403 21:48:42.146844 24319 net.cpp:141] Setting up inception_4b/relu_5x5
I0403 21:48:42.146872 24319 net.cpp:148] Top shape: 24 64 14 14 (301056)
I0403 21:48:42.146886 24319 net.cpp:156] Memory required for data: 968181024
I0403 21:48:42.146901 24319 layer_factory.hpp:77] Creating layer inception_4b/pool
I0403 21:48:42.146920 24319 net.cpp:91] Creating Layer inception_4b/pool
I0403 21:48:42.146936 24319 net.cpp:425] inception_4b/pool <- inception_4a/output_inception_4a/output_0_split_4
I0403 21:48:42.146957 24319 net.cpp:399] inception_4b/pool -> inception_4b/pool
I0403 21:48:42.147022 24319 net.cpp:141] Setting up inception_4b/pool
I0403 21:48:42.147047 24319 net.cpp:148] Top shape: 24 512 14 14 (2408448)
I0403 21:48:42.147063 24319 net.cpp:156] Memory required for data: 977814816
I0403 21:48:42.147078 24319 layer_factory.hpp:77] Creating layer inception_4b/pool_proj
I0403 21:48:42.147100 24319 net.cpp:91] Creating Layer inception_4b/pool_proj
I0403 21:48:42.147119 24319 net.cpp:425] inception_4b/pool_proj <- inception_4b/pool
I0403 21:48:42.147137 24319 net.cpp:399] inception_4b/pool_proj -> inception_4b/pool_proj
I0403 21:48:42.148358 24319 net.cpp:141] Setting up inception_4b/pool_proj
I0403 21:48:42.148386 24319 net.cpp:148] Top shape: 24 64 14 14 (301056)
I0403 21:48:42.148402 24319 net.cpp:156] Memory required for data: 979019040
I0403 21:48:42.148422 24319 layer_factory.hpp:77] Creating layer inception_4b/relu_pool_proj
I0403 21:48:42.148442 24319 net.cpp:91] Creating Layer inception_4b/relu_pool_proj
I0403 21:48:42.148458 24319 net.cpp:425] inception_4b/relu_pool_proj <- inception_4b/pool_proj
I0403 21:48:42.148475 24319 net.cpp:386] inception_4b/relu_pool_proj -> inception_4b/pool_proj (in-place)
I0403 21:48:42.148656 24319 net.cpp:141] Setting up inception_4b/relu_pool_proj
I0403 21:48:42.148682 24319 net.cpp:148] Top shape: 24 64 14 14 (301056)
I0403 21:48:42.148697 24319 net.cpp:156] Memory required for data: 980223264
I0403 21:48:42.148712 24319 layer_factory.hpp:77] Creating layer inception_4b/output
I0403 21:48:42.148731 24319 net.cpp:91] Creating Layer inception_4b/output
I0403 21:48:42.148748 24319 net.cpp:425] inception_4b/output <- inception_4b/1x1
I0403 21:48:42.148766 24319 net.cpp:425] inception_4b/output <- inception_4b/3x3
I0403 21:48:42.148782 24319 net.cpp:425] inception_4b/output <- inception_4b/5x5
I0403 21:48:42.148798 24319 net.cpp:425] inception_4b/output <- inception_4b/pool_proj
I0403 21:48:42.148815 24319 net.cpp:399] inception_4b/output -> inception_4b/output
I0403 21:48:42.148862 24319 net.cpp:141] Setting up inception_4b/output
I0403 21:48:42.148886 24319 net.cpp:148] Top shape: 24 512 14 14 (2408448)
I0403 21:48:42.148901 24319 net.cpp:156] Memory required for data: 989857056
I0403 21:48:42.148931 24319 layer_factory.hpp:77] Creating layer inception_4b/output_inception_4b/output_0_split
I0403 21:48:42.148949 24319 net.cpp:91] Creating Layer inception_4b/output_inception_4b/output_0_split
I0403 21:48:42.148965 24319 net.cpp:425] inception_4b/output_inception_4b/output_0_split <- inception_4b/output
I0403 21:48:42.148984 24319 net.cpp:399] inception_4b/output_inception_4b/output_0_split -> inception_4b/output_inception_4b/output_0_split_0
I0403 21:48:42.149008 24319 net.cpp:399] inception_4b/output_inception_4b/output_0_split -> inception_4b/output_inception_4b/output_0_split_1
I0403 21:48:42.149027 24319 net.cpp:399] inception_4b/output_inception_4b/output_0_split -> inception_4b/output_inception_4b/output_0_split_2
I0403 21:48:42.149047 24319 net.cpp:399] inception_4b/output_inception_4b/output_0_split -> inception_4b/output_inception_4b/output_0_split_3
I0403 21:48:42.149132 24319 net.cpp:141] Setting up inception_4b/output_inception_4b/output_0_split
I0403 21:48:42.149158 24319 net.cpp:148] Top shape: 24 512 14 14 (2408448)
I0403 21:48:42.149175 24319 net.cpp:148] Top shape: 24 512 14 14 (2408448)
I0403 21:48:42.149190 24319 net.cpp:148] Top shape: 24 512 14 14 (2408448)
I0403 21:48:42.149206 24319 net.cpp:148] Top shape: 24 512 14 14 (2408448)
I0403 21:48:42.149220 24319 net.cpp:156] Memory required for data: 1028392224
I0403 21:48:42.149240 24319 layer_factory.hpp:77] Creating layer inception_4c/1x1
I0403 21:48:42.149262 24319 net.cpp:91] Creating Layer inception_4c/1x1
I0403 21:48:42.149281 24319 net.cpp:425] inception_4c/1x1 <- inception_4b/output_inception_4b/output_0_split_0
I0403 21:48:42.149299 24319 net.cpp:399] inception_4c/1x1 -> inception_4c/1x1
I0403 21:48:42.150717 24319 net.cpp:141] Setting up inception_4c/1x1
I0403 21:48:42.150746 24319 net.cpp:148] Top shape: 24 128 14 14 (602112)
I0403 21:48:42.150763 24319 net.cpp:156] Memory required for data: 1030800672
I0403 21:48:42.150781 24319 layer_factory.hpp:77] Creating layer inception_4c/relu_1x1
I0403 21:48:42.150802 24319 net.cpp:91] Creating Layer inception_4c/relu_1x1
I0403 21:48:42.150820 24319 net.cpp:425] inception_4c/relu_1x1 <- inception_4c/1x1
I0403 21:48:42.150836 24319 net.cpp:386] inception_4c/relu_1x1 -> inception_4c/1x1 (in-place)
I0403 21:48:42.151015 24319 net.cpp:141] Setting up inception_4c/relu_1x1
I0403 21:48:42.151042 24319 net.cpp:148] Top shape: 24 128 14 14 (602112)
I0403 21:48:42.151057 24319 net.cpp:156] Memory required for data: 1033209120
I0403 21:48:42.151073 24319 layer_factory.hpp:77] Creating layer inception_4c/3x3_reduce
I0403 21:48:42.151095 24319 net.cpp:91] Creating Layer inception_4c/3x3_reduce
I0403 21:48:42.151113 24319 net.cpp:425] inception_4c/3x3_reduce <- inception_4b/output_inception_4b/output_0_split_1
I0403 21:48:42.151134 24319 net.cpp:399] inception_4c/3x3_reduce -> inception_4c/3x3_reduce
I0403 21:48:42.153085 24319 net.cpp:141] Setting up inception_4c/3x3_reduce
I0403 21:48:42.153115 24319 net.cpp:148] Top shape: 24 128 14 14 (602112)
I0403 21:48:42.153131 24319 net.cpp:156] Memory required for data: 1035617568
I0403 21:48:42.153148 24319 layer_factory.hpp:77] Creating layer inception_4c/relu_3x3_reduce
I0403 21:48:42.153167 24319 net.cpp:91] Creating Layer inception_4c/relu_3x3_reduce
I0403 21:48:42.153183 24319 net.cpp:425] inception_4c/relu_3x3_reduce <- inception_4c/3x3_reduce
I0403 21:48:42.153203 24319 net.cpp:386] inception_4c/relu_3x3_reduce -> inception_4c/3x3_reduce (in-place)
I0403 21:48:42.153491 24319 net.cpp:141] Setting up inception_4c/relu_3x3_reduce
I0403 21:48:42.153519 24319 net.cpp:148] Top shape: 24 128 14 14 (602112)
I0403 21:48:42.153534 24319 net.cpp:156] Memory required for data: 1038026016
I0403 21:48:42.153549 24319 layer_factory.hpp:77] Creating layer inception_4c/3x3
I0403 21:48:42.153573 24319 net.cpp:91] Creating Layer inception_4c/3x3
I0403 21:48:42.153592 24319 net.cpp:425] inception_4c/3x3 <- inception_4c/3x3_reduce
I0403 21:48:42.153614 24319 net.cpp:399] inception_4c/3x3 -> inception_4c/3x3
I0403 21:48:42.157225 24319 net.cpp:141] Setting up inception_4c/3x3
I0403 21:48:42.157270 24319 net.cpp:148] Top shape: 24 256 14 14 (1204224)
I0403 21:48:42.157287 24319 net.cpp:156] Memory required for data: 1042842912
I0403 21:48:42.157320 24319 layer_factory.hpp:77] Creating layer inception_4c/relu_3x3
I0403 21:48:42.157342 24319 net.cpp:91] Creating Layer inception_4c/relu_3x3
I0403 21:48:42.157361 24319 net.cpp:425] inception_4c/relu_3x3 <- inception_4c/3x3
I0403 21:48:42.157380 24319 net.cpp:386] inception_4c/relu_3x3 -> inception_4c/3x3 (in-place)
I0403 21:48:42.157559 24319 net.cpp:141] Setting up inception_4c/relu_3x3
I0403 21:48:42.157584 24319 net.cpp:148] Top shape: 24 256 14 14 (1204224)
I0403 21:48:42.157600 24319 net.cpp:156] Memory required for data: 1047659808
I0403 21:48:42.157615 24319 layer_factory.hpp:77] Creating layer inception_4c/5x5_reduce
I0403 21:48:42.157639 24319 net.cpp:91] Creating Layer inception_4c/5x5_reduce
I0403 21:48:42.157657 24319 net.cpp:425] inception_4c/5x5_reduce <- inception_4b/output_inception_4b/output_0_split_2
I0403 21:48:42.157680 24319 net.cpp:399] inception_4c/5x5_reduce -> inception_4c/5x5_reduce
I0403 21:48:42.158768 24319 net.cpp:141] Setting up inception_4c/5x5_reduce
I0403 21:48:42.158797 24319 net.cpp:148] Top shape: 24 24 14 14 (112896)
I0403 21:48:42.158812 24319 net.cpp:156] Memory required for data: 1048111392
I0403 21:48:42.158831 24319 layer_factory.hpp:77] Creating layer inception_4c/relu_5x5_reduce
I0403 21:48:42.158849 24319 net.cpp:91] Creating Layer inception_4c/relu_5x5_reduce
I0403 21:48:42.158866 24319 net.cpp:425] inception_4c/relu_5x5_reduce <- inception_4c/5x5_reduce
I0403 21:48:42.158885 24319 net.cpp:386] inception_4c/relu_5x5_reduce -> inception_4c/5x5_reduce (in-place)
I0403 21:48:42.159066 24319 net.cpp:141] Setting up inception_4c/relu_5x5_reduce
I0403 21:48:42.159092 24319 net.cpp:148] Top shape: 24 24 14 14 (112896)
I0403 21:48:42.159107 24319 net.cpp:156] Memory required for data: 1048562976
I0403 21:48:42.159122 24319 layer_factory.hpp:77] Creating layer inception_4c/5x5
I0403 21:48:42.159144 24319 net.cpp:91] Creating Layer inception_4c/5x5
I0403 21:48:42.159162 24319 net.cpp:425] inception_4c/5x5 <- inception_4c/5x5_reduce
I0403 21:48:42.159184 24319 net.cpp:399] inception_4c/5x5 -> inception_4c/5x5
I0403 21:48:42.160434 24319 net.cpp:141] Setting up inception_4c/5x5
I0403 21:48:42.160462 24319 net.cpp:148] Top shape: 24 64 14 14 (301056)
I0403 21:48:42.160478 24319 net.cpp:156] Memory required for data: 1049767200
I0403 21:48:42.160497 24319 layer_factory.hpp:77] Creating layer inception_4c/relu_5x5
I0403 21:48:42.160518 24319 net.cpp:91] Creating Layer inception_4c/relu_5x5
I0403 21:48:42.160537 24319 net.cpp:425] inception_4c/relu_5x5 <- inception_4c/5x5
I0403 21:48:42.160553 24319 net.cpp:386] inception_4c/relu_5x5 -> inception_4c/5x5 (in-place)
I0403 21:48:42.160846 24319 net.cpp:141] Setting up inception_4c/relu_5x5
I0403 21:48:42.160873 24319 net.cpp:148] Top shape: 24 64 14 14 (301056)
I0403 21:48:42.160889 24319 net.cpp:156] Memory required for data: 1050971424
I0403 21:48:42.160904 24319 layer_factory.hpp:77] Creating layer inception_4c/pool
I0403 21:48:42.160924 24319 net.cpp:91] Creating Layer inception_4c/pool
I0403 21:48:42.160941 24319 net.cpp:425] inception_4c/pool <- inception_4b/output_inception_4b/output_0_split_3
I0403 21:48:42.160959 24319 net.cpp:399] inception_4c/pool -> inception_4c/pool
I0403 21:48:42.161026 24319 net.cpp:141] Setting up inception_4c/pool
I0403 21:48:42.161051 24319 net.cpp:148] Top shape: 24 512 14 14 (2408448)
I0403 21:48:42.161065 24319 net.cpp:156] Memory required for data: 1060605216
I0403 21:48:42.161080 24319 layer_factory.hpp:77] Creating layer inception_4c/pool_proj
I0403 21:48:42.161103 24319 net.cpp:91] Creating Layer inception_4c/pool_proj
I0403 21:48:42.161121 24319 net.cpp:425] inception_4c/pool_proj <- inception_4c/pool
I0403 21:48:42.161141 24319 net.cpp:399] inception_4c/pool_proj -> inception_4c/pool_proj
I0403 21:48:42.162372 24319 net.cpp:141] Setting up inception_4c/pool_proj
I0403 21:48:42.162401 24319 net.cpp:148] Top shape: 24 64 14 14 (301056)
I0403 21:48:42.162431 24319 net.cpp:156] Memory required for data: 1061809440
I0403 21:48:42.162451 24319 layer_factory.hpp:77] Creating layer inception_4c/relu_pool_proj
I0403 21:48:42.162472 24319 net.cpp:91] Creating Layer inception_4c/relu_pool_proj
I0403 21:48:42.162488 24319 net.cpp:425] inception_4c/relu_pool_proj <- inception_4c/pool_proj
I0403 21:48:42.162506 24319 net.cpp:386] inception_4c/relu_pool_proj -> inception_4c/pool_proj (in-place)
I0403 21:48:42.162690 24319 net.cpp:141] Setting up inception_4c/relu_pool_proj
I0403 21:48:42.162716 24319 net.cpp:148] Top shape: 24 64 14 14 (301056)
I0403 21:48:42.162731 24319 net.cpp:156] Memory required for data: 1063013664
I0403 21:48:42.162745 24319 layer_factory.hpp:77] Creating layer inception_4c/output
I0403 21:48:42.162765 24319 net.cpp:91] Creating Layer inception_4c/output
I0403 21:48:42.162782 24319 net.cpp:425] inception_4c/output <- inception_4c/1x1
I0403 21:48:42.162799 24319 net.cpp:425] inception_4c/output <- inception_4c/3x3
I0403 21:48:42.162814 24319 net.cpp:425] inception_4c/output <- inception_4c/5x5
I0403 21:48:42.162832 24319 net.cpp:425] inception_4c/output <- inception_4c/pool_proj
I0403 21:48:42.162847 24319 net.cpp:399] inception_4c/output -> inception_4c/output
I0403 21:48:42.162896 24319 net.cpp:141] Setting up inception_4c/output
I0403 21:48:42.162920 24319 net.cpp:148] Top shape: 24 512 14 14 (2408448)
I0403 21:48:42.162935 24319 net.cpp:156] Memory required for data: 1072647456
I0403 21:48:42.162950 24319 layer_factory.hpp:77] Creating layer inception_4c/output_inception_4c/output_0_split
I0403 21:48:42.162967 24319 net.cpp:91] Creating Layer inception_4c/output_inception_4c/output_0_split
I0403 21:48:42.162983 24319 net.cpp:425] inception_4c/output_inception_4c/output_0_split <- inception_4c/output
I0403 21:48:42.163003 24319 net.cpp:399] inception_4c/output_inception_4c/output_0_split -> inception_4c/output_inception_4c/output_0_split_0
I0403 21:48:42.163024 24319 net.cpp:399] inception_4c/output_inception_4c/output_0_split -> inception_4c/output_inception_4c/output_0_split_1
I0403 21:48:42.163046 24319 net.cpp:399] inception_4c/output_inception_4c/output_0_split -> inception_4c/output_inception_4c/output_0_split_2
I0403 21:48:42.163067 24319 net.cpp:399] inception_4c/output_inception_4c/output_0_split -> inception_4c/output_inception_4c/output_0_split_3
I0403 21:48:42.163157 24319 net.cpp:141] Setting up inception_4c/output_inception_4c/output_0_split
I0403 21:48:42.163184 24319 net.cpp:148] Top shape: 24 512 14 14 (2408448)
I0403 21:48:42.163203 24319 net.cpp:148] Top shape: 24 512 14 14 (2408448)
I0403 21:48:42.163218 24319 net.cpp:148] Top shape: 24 512 14 14 (2408448)
I0403 21:48:42.163239 24319 net.cpp:148] Top shape: 24 512 14 14 (2408448)
I0403 21:48:42.163254 24319 net.cpp:156] Memory required for data: 1111182624
I0403 21:48:42.163269 24319 layer_factory.hpp:77] Creating layer inception_4d/1x1
I0403 21:48:42.163292 24319 net.cpp:91] Creating Layer inception_4d/1x1
I0403 21:48:42.163310 24319 net.cpp:425] inception_4d/1x1 <- inception_4c/output_inception_4c/output_0_split_0
I0403 21:48:42.163329 24319 net.cpp:399] inception_4d/1x1 -> inception_4d/1x1
I0403 21:48:42.164705 24319 net.cpp:141] Setting up inception_4d/1x1
I0403 21:48:42.164736 24319 net.cpp:148] Top shape: 24 112 14 14 (526848)
I0403 21:48:42.164752 24319 net.cpp:156] Memory required for data: 1113290016
I0403 21:48:42.164772 24319 layer_factory.hpp:77] Creating layer inception_4d/relu_1x1
I0403 21:48:42.164788 24319 net.cpp:91] Creating Layer inception_4d/relu_1x1
I0403 21:48:42.164804 24319 net.cpp:425] inception_4d/relu_1x1 <- inception_4d/1x1
I0403 21:48:42.164824 24319 net.cpp:386] inception_4d/relu_1x1 -> inception_4d/1x1 (in-place)
I0403 21:48:42.165011 24319 net.cpp:141] Setting up inception_4d/relu_1x1
I0403 21:48:42.165037 24319 net.cpp:148] Top shape: 24 112 14 14 (526848)
I0403 21:48:42.165053 24319 net.cpp:156] Memory required for data: 1115397408
I0403 21:48:42.165068 24319 layer_factory.hpp:77] Creating layer inception_4d/3x3_reduce
I0403 21:48:42.165105 24319 net.cpp:91] Creating Layer inception_4d/3x3_reduce
I0403 21:48:42.165124 24319 net.cpp:425] inception_4d/3x3_reduce <- inception_4c/output_inception_4c/output_0_split_1
I0403 21:48:42.165148 24319 net.cpp:399] inception_4d/3x3_reduce -> inception_4d/3x3_reduce
I0403 21:48:42.166720 24319 net.cpp:141] Setting up inception_4d/3x3_reduce
I0403 21:48:42.166750 24319 net.cpp:148] Top shape: 24 144 14 14 (677376)
I0403 21:48:42.166766 24319 net.cpp:156] Memory required for data: 1118106912
I0403 21:48:42.166785 24319 layer_factory.hpp:77] Creating layer inception_4d/relu_3x3_reduce
I0403 21:48:42.166807 24319 net.cpp:91] Creating Layer inception_4d/relu_3x3_reduce
I0403 21:48:42.166826 24319 net.cpp:425] inception_4d/relu_3x3_reduce <- inception_4d/3x3_reduce
I0403 21:48:42.166846 24319 net.cpp:386] inception_4d/relu_3x3_reduce -> inception_4d/3x3_reduce (in-place)
I0403 21:48:42.167143 24319 net.cpp:141] Setting up inception_4d/relu_3x3_reduce
I0403 21:48:42.167171 24319 net.cpp:148] Top shape: 24 144 14 14 (677376)
I0403 21:48:42.167187 24319 net.cpp:156] Memory required for data: 1120816416
I0403 21:48:42.167202 24319 layer_factory.hpp:77] Creating layer inception_4d/3x3
I0403 21:48:42.167227 24319 net.cpp:91] Creating Layer inception_4d/3x3
I0403 21:48:42.167249 24319 net.cpp:425] inception_4d/3x3 <- inception_4d/3x3_reduce
I0403 21:48:42.167273 24319 net.cpp:399] inception_4d/3x3 -> inception_4d/3x3
I0403 21:48:42.171685 24319 net.cpp:141] Setting up inception_4d/3x3
I0403 21:48:42.171717 24319 net.cpp:148] Top shape: 24 288 14 14 (1354752)
I0403 21:48:42.171735 24319 net.cpp:156] Memory required for data: 1126235424
I0403 21:48:42.171754 24319 layer_factory.hpp:77] Creating layer inception_4d/relu_3x3
I0403 21:48:42.171774 24319 net.cpp:91] Creating Layer inception_4d/relu_3x3
I0403 21:48:42.171792 24319 net.cpp:425] inception_4d/relu_3x3 <- inception_4d/3x3
I0403 21:48:42.171813 24319 net.cpp:386] inception_4d/relu_3x3 -> inception_4d/3x3 (in-place)
I0403 21:48:42.172006 24319 net.cpp:141] Setting up inception_4d/relu_3x3
I0403 21:48:42.172034 24319 net.cpp:148] Top shape: 24 288 14 14 (1354752)
I0403 21:48:42.172047 24319 net.cpp:156] Memory required for data: 1131654432
I0403 21:48:42.172063 24319 layer_factory.hpp:77] Creating layer inception_4d/5x5_reduce
I0403 21:48:42.172086 24319 net.cpp:91] Creating Layer inception_4d/5x5_reduce
I0403 21:48:42.172104 24319 net.cpp:425] inception_4d/5x5_reduce <- inception_4c/output_inception_4c/output_0_split_2
I0403 21:48:42.172127 24319 net.cpp:399] inception_4d/5x5_reduce -> inception_4d/5x5_reduce
I0403 21:48:42.173315 24319 net.cpp:141] Setting up inception_4d/5x5_reduce
I0403 21:48:42.173346 24319 net.cpp:148] Top shape: 24 32 14 14 (150528)
I0403 21:48:42.173362 24319 net.cpp:156] Memory required for data: 1132256544
I0403 21:48:42.173382 24319 layer_factory.hpp:77] Creating layer inception_4d/relu_5x5_reduce
I0403 21:48:42.173398 24319 net.cpp:91] Creating Layer inception_4d/relu_5x5_reduce
I0403 21:48:42.173415 24319 net.cpp:425] inception_4d/relu_5x5_reduce <- inception_4d/5x5_reduce
I0403 21:48:42.173435 24319 net.cpp:386] inception_4d/relu_5x5_reduce -> inception_4d/5x5_reduce (in-place)
I0403 21:48:42.173629 24319 net.cpp:141] Setting up inception_4d/relu_5x5_reduce
I0403 21:48:42.173656 24319 net.cpp:148] Top shape: 24 32 14 14 (150528)
I0403 21:48:42.173671 24319 net.cpp:156] Memory required for data: 1132858656
I0403 21:48:42.173687 24319 layer_factory.hpp:77] Creating layer inception_4d/5x5
I0403 21:48:42.173710 24319 net.cpp:91] Creating Layer inception_4d/5x5
I0403 21:48:42.173729 24319 net.cpp:425] inception_4d/5x5 <- inception_4d/5x5_reduce
I0403 21:48:42.173750 24319 net.cpp:399] inception_4d/5x5 -> inception_4d/5x5
I0403 21:48:42.175364 24319 net.cpp:141] Setting up inception_4d/5x5
I0403 21:48:42.175395 24319 net.cpp:148] Top shape: 24 64 14 14 (301056)
I0403 21:48:42.175412 24319 net.cpp:156] Memory required for data: 1134062880
I0403 21:48:42.175432 24319 layer_factory.hpp:77] Creating layer inception_4d/relu_5x5
I0403 21:48:42.175469 24319 net.cpp:91] Creating Layer inception_4d/relu_5x5
I0403 21:48:42.175490 24319 net.cpp:425] inception_4d/relu_5x5 <- inception_4d/5x5
I0403 21:48:42.175509 24319 net.cpp:386] inception_4d/relu_5x5 -> inception_4d/5x5 (in-place)
I0403 21:48:42.175840 24319 net.cpp:141] Setting up inception_4d/relu_5x5
I0403 21:48:42.175868 24319 net.cpp:148] Top shape: 24 64 14 14 (301056)
I0403 21:48:42.175884 24319 net.cpp:156] Memory required for data: 1135267104
I0403 21:48:42.175900 24319 layer_factory.hpp:77] Creating layer inception_4d/pool
I0403 21:48:42.175918 24319 net.cpp:91] Creating Layer inception_4d/pool
I0403 21:48:42.175936 24319 net.cpp:425] inception_4d/pool <- inception_4c/output_inception_4c/output_0_split_3
I0403 21:48:42.175958 24319 net.cpp:399] inception_4d/pool -> inception_4d/pool
I0403 21:48:42.176031 24319 net.cpp:141] Setting up inception_4d/pool
I0403 21:48:42.176056 24319 net.cpp:148] Top shape: 24 512 14 14 (2408448)
I0403 21:48:42.176070 24319 net.cpp:156] Memory required for data: 1144900896
I0403 21:48:42.176085 24319 layer_factory.hpp:77] Creating layer inception_4d/pool_proj
I0403 21:48:42.176108 24319 net.cpp:91] Creating Layer inception_4d/pool_proj
I0403 21:48:42.176126 24319 net.cpp:425] inception_4d/pool_proj <- inception_4d/pool
I0403 21:48:42.176147 24319 net.cpp:399] inception_4d/pool_proj -> inception_4d/pool_proj
I0403 21:48:42.177999 24319 net.cpp:141] Setting up inception_4d/pool_proj
I0403 21:48:42.178031 24319 net.cpp:148] Top shape: 24 64 14 14 (301056)
I0403 21:48:42.178047 24319 net.cpp:156] Memory required for data: 1146105120
I0403 21:48:42.178066 24319 layer_factory.hpp:77] Creating layer inception_4d/relu_pool_proj
I0403 21:48:42.178086 24319 net.cpp:91] Creating Layer inception_4d/relu_pool_proj
I0403 21:48:42.178102 24319 net.cpp:425] inception_4d/relu_pool_proj <- inception_4d/pool_proj
I0403 21:48:42.178123 24319 net.cpp:386] inception_4d/relu_pool_proj -> inception_4d/pool_proj (in-place)
I0403 21:48:42.178330 24319 net.cpp:141] Setting up inception_4d/relu_pool_proj
I0403 21:48:42.178359 24319 net.cpp:148] Top shape: 24 64 14 14 (301056)
I0403 21:48:42.178375 24319 net.cpp:156] Memory required for data: 1147309344
I0403 21:48:42.178390 24319 layer_factory.hpp:77] Creating layer inception_4d/output
I0403 21:48:42.178407 24319 net.cpp:91] Creating Layer inception_4d/output
I0403 21:48:42.178426 24319 net.cpp:425] inception_4d/output <- inception_4d/1x1
I0403 21:48:42.178443 24319 net.cpp:425] inception_4d/output <- inception_4d/3x3
I0403 21:48:42.178458 24319 net.cpp:425] inception_4d/output <- inception_4d/5x5
I0403 21:48:42.178474 24319 net.cpp:425] inception_4d/output <- inception_4d/pool_proj
I0403 21:48:42.178494 24319 net.cpp:399] inception_4d/output -> inception_4d/output
I0403 21:48:42.178544 24319 net.cpp:141] Setting up inception_4d/output
I0403 21:48:42.178573 24319 net.cpp:148] Top shape: 24 528 14 14 (2483712)
I0403 21:48:42.178591 24319 net.cpp:156] Memory required for data: 1157244192
I0403 21:48:42.178607 24319 layer_factory.hpp:77] Creating layer inception_4d/output_inception_4d/output_0_split
I0403 21:48:42.178625 24319 net.cpp:91] Creating Layer inception_4d/output_inception_4d/output_0_split
I0403 21:48:42.178642 24319 net.cpp:425] inception_4d/output_inception_4d/output_0_split <- inception_4d/output
I0403 21:48:42.178663 24319 net.cpp:399] inception_4d/output_inception_4d/output_0_split -> inception_4d/output_inception_4d/output_0_split_0
I0403 21:48:42.178685 24319 net.cpp:399] inception_4d/output_inception_4d/output_0_split -> inception_4d/output_inception_4d/output_0_split_1
I0403 21:48:42.178707 24319 net.cpp:399] inception_4d/output_inception_4d/output_0_split -> inception_4d/output_inception_4d/output_0_split_2
I0403 21:48:42.178728 24319 net.cpp:399] inception_4d/output_inception_4d/output_0_split -> inception_4d/output_inception_4d/output_0_split_3
I0403 21:48:42.178750 24319 net.cpp:399] inception_4d/output_inception_4d/output_0_split -> inception_4d/output_inception_4d/output_0_split_4
I0403 21:48:42.178858 24319 net.cpp:141] Setting up inception_4d/output_inception_4d/output_0_split
I0403 21:48:42.178895 24319 net.cpp:148] Top shape: 24 528 14 14 (2483712)
I0403 21:48:42.178915 24319 net.cpp:148] Top shape: 24 528 14 14 (2483712)
I0403 21:48:42.178935 24319 net.cpp:148] Top shape: 24 528 14 14 (2483712)
I0403 21:48:42.178951 24319 net.cpp:148] Top shape: 24 528 14 14 (2483712)
I0403 21:48:42.178966 24319 net.cpp:148] Top shape: 24 528 14 14 (2483712)
I0403 21:48:42.178980 24319 net.cpp:156] Memory required for data: 1206918432
I0403 21:48:42.178997 24319 layer_factory.hpp:77] Creating layer loss2/ave_pool
I0403 21:48:42.179013 24319 net.cpp:91] Creating Layer loss2/ave_pool
I0403 21:48:42.179030 24319 net.cpp:425] loss2/ave_pool <- inception_4d/output_inception_4d/output_0_split_0
I0403 21:48:42.179054 24319 net.cpp:399] loss2/ave_pool -> loss2/ave_pool
I0403 21:48:42.179378 24319 net.cpp:141] Setting up loss2/ave_pool
I0403 21:48:42.179406 24319 net.cpp:148] Top shape: 24 528 4 4 (202752)
I0403 21:48:42.179422 24319 net.cpp:156] Memory required for data: 1207729440
I0403 21:48:42.179438 24319 layer_factory.hpp:77] Creating layer loss2/conv
I0403 21:48:42.179461 24319 net.cpp:91] Creating Layer loss2/conv
I0403 21:48:42.179479 24319 net.cpp:425] loss2/conv <- loss2/ave_pool
I0403 21:48:42.179500 24319 net.cpp:399] loss2/conv -> loss2/conv
I0403 21:48:42.181493 24319 net.cpp:141] Setting up loss2/conv
I0403 21:48:42.181524 24319 net.cpp:148] Top shape: 24 128 4 4 (49152)
I0403 21:48:42.181540 24319 net.cpp:156] Memory required for data: 1207926048
I0403 21:48:42.181560 24319 layer_factory.hpp:77] Creating layer loss2/relu_conv
I0403 21:48:42.181581 24319 net.cpp:91] Creating Layer loss2/relu_conv
I0403 21:48:42.181601 24319 net.cpp:425] loss2/relu_conv <- loss2/conv
I0403 21:48:42.181617 24319 net.cpp:386] loss2/relu_conv -> loss2/conv (in-place)
I0403 21:48:42.181915 24319 net.cpp:141] Setting up loss2/relu_conv
I0403 21:48:42.181942 24319 net.cpp:148] Top shape: 24 128 4 4 (49152)
I0403 21:48:42.181958 24319 net.cpp:156] Memory required for data: 1208122656
I0403 21:48:42.181974 24319 layer_factory.hpp:77] Creating layer loss2/fc
I0403 21:48:42.181996 24319 net.cpp:91] Creating Layer loss2/fc
I0403 21:48:42.182014 24319 net.cpp:425] loss2/fc <- loss2/conv
I0403 21:48:42.182034 24319 net.cpp:399] loss2/fc -> loss2/fc
I0403 21:48:42.199837 24319 net.cpp:141] Setting up loss2/fc
I0403 21:48:42.199870 24319 net.cpp:148] Top shape: 24 1024 (24576)
I0403 21:48:42.199887 24319 net.cpp:156] Memory required for data: 1208220960
I0403 21:48:42.199906 24319 layer_factory.hpp:77] Creating layer loss2/relu_fc
I0403 21:48:42.199924 24319 net.cpp:91] Creating Layer loss2/relu_fc
I0403 21:48:42.199941 24319 net.cpp:425] loss2/relu_fc <- loss2/fc
I0403 21:48:42.199962 24319 net.cpp:386] loss2/relu_fc -> loss2/fc (in-place)
I0403 21:48:42.200263 24319 net.cpp:141] Setting up loss2/relu_fc
I0403 21:48:42.200290 24319 net.cpp:148] Top shape: 24 1024 (24576)
I0403 21:48:42.200306 24319 net.cpp:156] Memory required for data: 1208319264
I0403 21:48:42.200322 24319 layer_factory.hpp:77] Creating layer loss2/drop_fc
I0403 21:48:42.200340 24319 net.cpp:91] Creating Layer loss2/drop_fc
I0403 21:48:42.200356 24319 net.cpp:425] loss2/drop_fc <- loss2/fc
I0403 21:48:42.200376 24319 net.cpp:386] loss2/drop_fc -> loss2/fc (in-place)
I0403 21:48:42.200425 24319 net.cpp:141] Setting up loss2/drop_fc
I0403 21:48:42.200449 24319 net.cpp:148] Top shape: 24 1024 (24576)
I0403 21:48:42.200464 24319 net.cpp:156] Memory required for data: 1208417568
I0403 21:48:42.200479 24319 layer_factory.hpp:77] Creating layer loss2/classifier_plantvillage
I0403 21:48:42.200500 24319 net.cpp:91] Creating Layer loss2/classifier_plantvillage
I0403 21:48:42.200518 24319 net.cpp:425] loss2/classifier_plantvillage <- loss2/fc
I0403 21:48:42.200538 24319 net.cpp:399] loss2/classifier_plantvillage -> loss2/classifier_plantvillage
I0403 21:48:42.200942 24319 net.cpp:141] Setting up loss2/classifier_plantvillage
I0403 21:48:42.200968 24319 net.cpp:148] Top shape: 24 38 (912)
I0403 21:48:42.201000 24319 net.cpp:156] Memory required for data: 1208421216
I0403 21:48:42.201020 24319 layer_factory.hpp:77] Creating layer loss2/classifier_plantvillage_loss2/classifier_plantvillage_0_split
I0403 21:48:42.201041 24319 net.cpp:91] Creating Layer loss2/classifier_plantvillage_loss2/classifier_plantvillage_0_split
I0403 21:48:42.201058 24319 net.cpp:425] loss2/classifier_plantvillage_loss2/classifier_plantvillage_0_split <- loss2/classifier_plantvillage
I0403 21:48:42.201077 24319 net.cpp:399] loss2/classifier_plantvillage_loss2/classifier_plantvillage_0_split -> loss2/classifier_plantvillage_loss2/classifier_plantvillage_0_split_0
I0403 21:48:42.201098 24319 net.cpp:399] loss2/classifier_plantvillage_loss2/classifier_plantvillage_0_split -> loss2/classifier_plantvillage_loss2/classifier_plantvillage_0_split_1
I0403 21:48:42.201119 24319 net.cpp:399] loss2/classifier_plantvillage_loss2/classifier_plantvillage_0_split -> loss2/classifier_plantvillage_loss2/classifier_plantvillage_0_split_2
I0403 21:48:42.201198 24319 net.cpp:141] Setting up loss2/classifier_plantvillage_loss2/classifier_plantvillage_0_split
I0403 21:48:42.201222 24319 net.cpp:148] Top shape: 24 38 (912)
I0403 21:48:42.201243 24319 net.cpp:148] Top shape: 24 38 (912)
I0403 21:48:42.201261 24319 net.cpp:148] Top shape: 24 38 (912)
I0403 21:48:42.201274 24319 net.cpp:156] Memory required for data: 1208432160
I0403 21:48:42.201289 24319 layer_factory.hpp:77] Creating layer inception_4e/1x1
I0403 21:48:42.201309 24319 net.cpp:91] Creating Layer inception_4e/1x1
I0403 21:48:42.201326 24319 net.cpp:425] inception_4e/1x1 <- inception_4d/output_inception_4d/output_0_split_1
I0403 21:48:42.201347 24319 net.cpp:399] inception_4e/1x1 -> inception_4e/1x1
I0403 21:48:42.203168 24319 net.cpp:141] Setting up inception_4e/1x1
I0403 21:48:42.203197 24319 net.cpp:148] Top shape: 24 256 14 14 (1204224)
I0403 21:48:42.203212 24319 net.cpp:156] Memory required for data: 1213249056
I0403 21:48:42.203235 24319 layer_factory.hpp:77] Creating layer inception_4e/relu_1x1
I0403 21:48:42.203258 24319 net.cpp:91] Creating Layer inception_4e/relu_1x1
I0403 21:48:42.203274 24319 net.cpp:425] inception_4e/relu_1x1 <- inception_4e/1x1
I0403 21:48:42.203292 24319 net.cpp:386] inception_4e/relu_1x1 -> inception_4e/1x1 (in-place)
I0403 21:48:42.203593 24319 net.cpp:141] Setting up inception_4e/relu_1x1
I0403 21:48:42.203619 24319 net.cpp:148] Top shape: 24 256 14 14 (1204224)
I0403 21:48:42.203634 24319 net.cpp:156] Memory required for data: 1218065952
I0403 21:48:42.203649 24319 layer_factory.hpp:77] Creating layer inception_4e/3x3_reduce
I0403 21:48:42.203671 24319 net.cpp:91] Creating Layer inception_4e/3x3_reduce
I0403 21:48:42.203690 24319 net.cpp:425] inception_4e/3x3_reduce <- inception_4d/output_inception_4d/output_0_split_2
I0403 21:48:42.203711 24319 net.cpp:399] inception_4e/3x3_reduce -> inception_4e/3x3_reduce
I0403 21:48:42.205858 24319 net.cpp:141] Setting up inception_4e/3x3_reduce
I0403 21:48:42.205888 24319 net.cpp:148] Top shape: 24 160 14 14 (752640)
I0403 21:48:42.205904 24319 net.cpp:156] Memory required for data: 1221076512
I0403 21:48:42.205924 24319 layer_factory.hpp:77] Creating layer inception_4e/relu_3x3_reduce
I0403 21:48:42.205945 24319 net.cpp:91] Creating Layer inception_4e/relu_3x3_reduce
I0403 21:48:42.205963 24319 net.cpp:425] inception_4e/relu_3x3_reduce <- inception_4e/3x3_reduce
I0403 21:48:42.205981 24319 net.cpp:386] inception_4e/relu_3x3_reduce -> inception_4e/3x3_reduce (in-place)
I0403 21:48:42.206167 24319 net.cpp:141] Setting up inception_4e/relu_3x3_reduce
I0403 21:48:42.206193 24319 net.cpp:148] Top shape: 24 160 14 14 (752640)
I0403 21:48:42.206208 24319 net.cpp:156] Memory required for data: 1224087072
I0403 21:48:42.206223 24319 layer_factory.hpp:77] Creating layer inception_4e/3x3
I0403 21:48:42.206253 24319 net.cpp:91] Creating Layer inception_4e/3x3
I0403 21:48:42.206271 24319 net.cpp:425] inception_4e/3x3 <- inception_4e/3x3_reduce
I0403 21:48:42.206290 24319 net.cpp:399] inception_4e/3x3 -> inception_4e/3x3
I0403 21:48:42.211367 24319 net.cpp:141] Setting up inception_4e/3x3
I0403 21:48:42.211410 24319 net.cpp:148] Top shape: 24 320 14 14 (1505280)
I0403 21:48:42.211427 24319 net.cpp:156] Memory required for data: 1230108192
I0403 21:48:42.211447 24319 layer_factory.hpp:77] Creating layer inception_4e/relu_3x3
I0403 21:48:42.211467 24319 net.cpp:91] Creating Layer inception_4e/relu_3x3
I0403 21:48:42.211485 24319 net.cpp:425] inception_4e/relu_3x3 <- inception_4e/3x3
I0403 21:48:42.211503 24319 net.cpp:386] inception_4e/relu_3x3 -> inception_4e/3x3 (in-place)
I0403 21:48:42.211804 24319 net.cpp:141] Setting up inception_4e/relu_3x3
I0403 21:48:42.211833 24319 net.cpp:148] Top shape: 24 320 14 14 (1505280)
I0403 21:48:42.211849 24319 net.cpp:156] Memory required for data: 1236129312
I0403 21:48:42.211865 24319 layer_factory.hpp:77] Creating layer inception_4e/5x5_reduce
I0403 21:48:42.211889 24319 net.cpp:91] Creating Layer inception_4e/5x5_reduce
I0403 21:48:42.211907 24319 net.cpp:425] inception_4e/5x5_reduce <- inception_4d/output_inception_4d/output_0_split_3
I0403 21:48:42.211926 24319 net.cpp:399] inception_4e/5x5_reduce -> inception_4e/5x5_reduce
I0403 21:48:42.213018 24319 net.cpp:141] Setting up inception_4e/5x5_reduce
I0403 21:48:42.213047 24319 net.cpp:148] Top shape: 24 32 14 14 (150528)
I0403 21:48:42.213063 24319 net.cpp:156] Memory required for data: 1236731424
I0403 21:48:42.213083 24319 layer_factory.hpp:77] Creating layer inception_4e/relu_5x5_reduce
I0403 21:48:42.213102 24319 net.cpp:91] Creating Layer inception_4e/relu_5x5_reduce
I0403 21:48:42.213120 24319 net.cpp:425] inception_4e/relu_5x5_reduce <- inception_4e/5x5_reduce
I0403 21:48:42.213138 24319 net.cpp:386] inception_4e/relu_5x5_reduce -> inception_4e/5x5_reduce (in-place)
I0403 21:48:42.213443 24319 net.cpp:141] Setting up inception_4e/relu_5x5_reduce
I0403 21:48:42.213469 24319 net.cpp:148] Top shape: 24 32 14 14 (150528)
I0403 21:48:42.213486 24319 net.cpp:156] Memory required for data: 1237333536
I0403 21:48:42.213501 24319 layer_factory.hpp:77] Creating layer inception_4e/5x5
I0403 21:48:42.213539 24319 net.cpp:91] Creating Layer inception_4e/5x5
I0403 21:48:42.213558 24319 net.cpp:425] inception_4e/5x5 <- inception_4e/5x5_reduce
I0403 21:48:42.213578 24319 net.cpp:399] inception_4e/5x5 -> inception_4e/5x5
I0403 21:48:42.215437 24319 net.cpp:141] Setting up inception_4e/5x5
I0403 21:48:42.215466 24319 net.cpp:148] Top shape: 24 128 14 14 (602112)
I0403 21:48:42.215482 24319 net.cpp:156] Memory required for data: 1239741984
I0403 21:48:42.215502 24319 layer_factory.hpp:77] Creating layer inception_4e/relu_5x5
I0403 21:48:42.215520 24319 net.cpp:91] Creating Layer inception_4e/relu_5x5
I0403 21:48:42.215536 24319 net.cpp:425] inception_4e/relu_5x5 <- inception_4e/5x5
I0403 21:48:42.215558 24319 net.cpp:386] inception_4e/relu_5x5 -> inception_4e/5x5 (in-place)
I0403 21:48:42.215757 24319 net.cpp:141] Setting up inception_4e/relu_5x5
I0403 21:48:42.215783 24319 net.cpp:148] Top shape: 24 128 14 14 (602112)
I0403 21:48:42.215797 24319 net.cpp:156] Memory required for data: 1242150432
I0403 21:48:42.215812 24319 layer_factory.hpp:77] Creating layer inception_4e/pool
I0403 21:48:42.215832 24319 net.cpp:91] Creating Layer inception_4e/pool
I0403 21:48:42.215852 24319 net.cpp:425] inception_4e/pool <- inception_4d/output_inception_4d/output_0_split_4
I0403 21:48:42.215869 24319 net.cpp:399] inception_4e/pool -> inception_4e/pool
I0403 21:48:42.215941 24319 net.cpp:141] Setting up inception_4e/pool
I0403 21:48:42.215966 24319 net.cpp:148] Top shape: 24 528 14 14 (2483712)
I0403 21:48:42.215981 24319 net.cpp:156] Memory required for data: 1252085280
I0403 21:48:42.215996 24319 layer_factory.hpp:77] Creating layer inception_4e/pool_proj
I0403 21:48:42.216017 24319 net.cpp:91] Creating Layer inception_4e/pool_proj
I0403 21:48:42.216035 24319 net.cpp:425] inception_4e/pool_proj <- inception_4e/pool
I0403 21:48:42.216060 24319 net.cpp:399] inception_4e/pool_proj -> inception_4e/pool_proj
I0403 21:48:42.217577 24319 net.cpp:141] Setting up inception_4e/pool_proj
I0403 21:48:42.217617 24319 net.cpp:148] Top shape: 24 128 14 14 (602112)
I0403 21:48:42.217634 24319 net.cpp:156] Memory required for data: 1254493728
I0403 21:48:42.217653 24319 layer_factory.hpp:77] Creating layer inception_4e/relu_pool_proj
I0403 21:48:42.217671 24319 net.cpp:91] Creating Layer inception_4e/relu_pool_proj
I0403 21:48:42.217689 24319 net.cpp:425] inception_4e/relu_pool_proj <- inception_4e/pool_proj
I0403 21:48:42.217708 24319 net.cpp:386] inception_4e/relu_pool_proj -> inception_4e/pool_proj (in-place)
I0403 21:48:42.218004 24319 net.cpp:141] Setting up inception_4e/relu_pool_proj
I0403 21:48:42.218031 24319 net.cpp:148] Top shape: 24 128 14 14 (602112)
I0403 21:48:42.218047 24319 net.cpp:156] Memory required for data: 1256902176
I0403 21:48:42.218063 24319 layer_factory.hpp:77] Creating layer inception_4e/output
I0403 21:48:42.218080 24319 net.cpp:91] Creating Layer inception_4e/output
I0403 21:48:42.218097 24319 net.cpp:425] inception_4e/output <- inception_4e/1x1
I0403 21:48:42.218114 24319 net.cpp:425] inception_4e/output <- inception_4e/3x3
I0403 21:48:42.218129 24319 net.cpp:425] inception_4e/output <- inception_4e/5x5
I0403 21:48:42.218145 24319 net.cpp:425] inception_4e/output <- inception_4e/pool_proj
I0403 21:48:42.218164 24319 net.cpp:399] inception_4e/output -> inception_4e/output
I0403 21:48:42.218216 24319 net.cpp:141] Setting up inception_4e/output
I0403 21:48:42.218251 24319 net.cpp:148] Top shape: 24 832 14 14 (3913728)
I0403 21:48:42.218272 24319 net.cpp:156] Memory required for data: 1272557088
I0403 21:48:42.218287 24319 layer_factory.hpp:77] Creating layer pool4/3x3_s2
I0403 21:48:42.218304 24319 net.cpp:91] Creating Layer pool4/3x3_s2
I0403 21:48:42.218320 24319 net.cpp:425] pool4/3x3_s2 <- inception_4e/output
I0403 21:48:42.218339 24319 net.cpp:399] pool4/3x3_s2 -> pool4/3x3_s2
I0403 21:48:42.218410 24319 net.cpp:141] Setting up pool4/3x3_s2
I0403 21:48:42.218436 24319 net.cpp:148] Top shape: 24 832 7 7 (978432)
I0403 21:48:42.218451 24319 net.cpp:156] Memory required for data: 1276470816
I0403 21:48:42.218464 24319 layer_factory.hpp:77] Creating layer pool4/3x3_s2_pool4/3x3_s2_0_split
I0403 21:48:42.218482 24319 net.cpp:91] Creating Layer pool4/3x3_s2_pool4/3x3_s2_0_split
I0403 21:48:42.218497 24319 net.cpp:425] pool4/3x3_s2_pool4/3x3_s2_0_split <- pool4/3x3_s2
I0403 21:48:42.218518 24319 net.cpp:399] pool4/3x3_s2_pool4/3x3_s2_0_split -> pool4/3x3_s2_pool4/3x3_s2_0_split_0
I0403 21:48:42.218539 24319 net.cpp:399] pool4/3x3_s2_pool4/3x3_s2_0_split -> pool4/3x3_s2_pool4/3x3_s2_0_split_1
I0403 21:48:42.218560 24319 net.cpp:399] pool4/3x3_s2_pool4/3x3_s2_0_split -> pool4/3x3_s2_pool4/3x3_s2_0_split_2
I0403 21:48:42.218580 24319 net.cpp:399] pool4/3x3_s2_pool4/3x3_s2_0_split -> pool4/3x3_s2_pool4/3x3_s2_0_split_3
I0403 21:48:42.218672 24319 net.cpp:141] Setting up pool4/3x3_s2_pool4/3x3_s2_0_split
I0403 21:48:42.218695 24319 net.cpp:148] Top shape: 24 832 7 7 (978432)
I0403 21:48:42.218713 24319 net.cpp:148] Top shape: 24 832 7 7 (978432)
I0403 21:48:42.218729 24319 net.cpp:148] Top shape: 24 832 7 7 (978432)
I0403 21:48:42.218744 24319 net.cpp:148] Top shape: 24 832 7 7 (978432)
I0403 21:48:42.218757 24319 net.cpp:156] Memory required for data: 1292125728
I0403 21:48:42.218771 24319 layer_factory.hpp:77] Creating layer inception_5a/1x1
I0403 21:48:42.218794 24319 net.cpp:91] Creating Layer inception_5a/1x1
I0403 21:48:42.218812 24319 net.cpp:425] inception_5a/1x1 <- pool4/3x3_s2_pool4/3x3_s2_0_split_0
I0403 21:48:42.218835 24319 net.cpp:399] inception_5a/1x1 -> inception_5a/1x1
I0403 21:48:42.221719 24319 net.cpp:141] Setting up inception_5a/1x1
I0403 21:48:42.221748 24319 net.cpp:148] Top shape: 24 256 7 7 (301056)
I0403 21:48:42.221765 24319 net.cpp:156] Memory required for data: 1293329952
I0403 21:48:42.221783 24319 layer_factory.hpp:77] Creating layer inception_5a/relu_1x1
I0403 21:48:42.221807 24319 net.cpp:91] Creating Layer inception_5a/relu_1x1
I0403 21:48:42.221825 24319 net.cpp:425] inception_5a/relu_1x1 <- inception_5a/1x1
I0403 21:48:42.221843 24319 net.cpp:386] inception_5a/relu_1x1 -> inception_5a/1x1 (in-place)
I0403 21:48:42.222162 24319 net.cpp:141] Setting up inception_5a/relu_1x1
I0403 21:48:42.222190 24319 net.cpp:148] Top shape: 24 256 7 7 (301056)
I0403 21:48:42.222205 24319 net.cpp:156] Memory required for data: 1294534176
I0403 21:48:42.222221 24319 layer_factory.hpp:77] Creating layer inception_5a/3x3_reduce
I0403 21:48:42.222249 24319 net.cpp:91] Creating Layer inception_5a/3x3_reduce
I0403 21:48:42.222268 24319 net.cpp:425] inception_5a/3x3_reduce <- pool4/3x3_s2_pool4/3x3_s2_0_split_1
I0403 21:48:42.222290 24319 net.cpp:399] inception_5a/3x3_reduce -> inception_5a/3x3_reduce
I0403 21:48:42.224786 24319 net.cpp:141] Setting up inception_5a/3x3_reduce
I0403 21:48:42.224817 24319 net.cpp:148] Top shape: 24 160 7 7 (188160)
I0403 21:48:42.224833 24319 net.cpp:156] Memory required for data: 1295286816
I0403 21:48:42.224854 24319 layer_factory.hpp:77] Creating layer inception_5a/relu_3x3_reduce
I0403 21:48:42.224874 24319 net.cpp:91] Creating Layer inception_5a/relu_3x3_reduce
I0403 21:48:42.224891 24319 net.cpp:425] inception_5a/relu_3x3_reduce <- inception_5a/3x3_reduce
I0403 21:48:42.224908 24319 net.cpp:386] inception_5a/relu_3x3_reduce -> inception_5a/3x3_reduce (in-place)
I0403 21:48:42.225105 24319 net.cpp:141] Setting up inception_5a/relu_3x3_reduce
I0403 21:48:42.225131 24319 net.cpp:148] Top shape: 24 160 7 7 (188160)
I0403 21:48:42.225145 24319 net.cpp:156] Memory required for data: 1296039456
I0403 21:48:42.225160 24319 layer_factory.hpp:77] Creating layer inception_5a/3x3
I0403 21:48:42.225185 24319 net.cpp:91] Creating Layer inception_5a/3x3
I0403 21:48:42.225203 24319 net.cpp:425] inception_5a/3x3 <- inception_5a/3x3_reduce
I0403 21:48:42.225225 24319 net.cpp:399] inception_5a/3x3 -> inception_5a/3x3
I0403 21:48:42.230475 24319 net.cpp:141] Setting up inception_5a/3x3
I0403 21:48:42.230506 24319 net.cpp:148] Top shape: 24 320 7 7 (376320)
I0403 21:48:42.230523 24319 net.cpp:156] Memory required for data: 1297544736
I0403 21:48:42.230543 24319 layer_factory.hpp:77] Creating layer inception_5a/relu_3x3
I0403 21:48:42.230561 24319 net.cpp:91] Creating Layer inception_5a/relu_3x3
I0403 21:48:42.230578 24319 net.cpp:425] inception_5a/relu_3x3 <- inception_5a/3x3
I0403 21:48:42.230598 24319 net.cpp:386] inception_5a/relu_3x3 -> inception_5a/3x3 (in-place)
I0403 21:48:42.230908 24319 net.cpp:141] Setting up inception_5a/relu_3x3
I0403 21:48:42.230937 24319 net.cpp:148] Top shape: 24 320 7 7 (376320)
I0403 21:48:42.230953 24319 net.cpp:156] Memory required for data: 1299050016
I0403 21:48:42.230969 24319 layer_factory.hpp:77] Creating layer inception_5a/5x5_reduce
I0403 21:48:42.230993 24319 net.cpp:91] Creating Layer inception_5a/5x5_reduce
I0403 21:48:42.231012 24319 net.cpp:425] inception_5a/5x5_reduce <- pool4/3x3_s2_pool4/3x3_s2_0_split_2
I0403 21:48:42.231034 24319 net.cpp:399] inception_5a/5x5_reduce -> inception_5a/5x5_reduce
I0403 21:48:42.232251 24319 net.cpp:141] Setting up inception_5a/5x5_reduce
I0403 21:48:42.232281 24319 net.cpp:148] Top shape: 24 32 7 7 (37632)
I0403 21:48:42.232297 24319 net.cpp:156] Memory required for data: 1299200544
I0403 21:48:42.232316 24319 layer_factory.hpp:77] Creating layer inception_5a/relu_5x5_reduce
I0403 21:48:42.232336 24319 net.cpp:91] Creating Layer inception_5a/relu_5x5_reduce
I0403 21:48:42.232353 24319 net.cpp:425] inception_5a/relu_5x5_reduce <- inception_5a/5x5_reduce
I0403 21:48:42.232372 24319 net.cpp:386] inception_5a/relu_5x5_reduce -> inception_5a/5x5_reduce (in-place)
I0403 21:48:42.232682 24319 net.cpp:141] Setting up inception_5a/relu_5x5_reduce
I0403 21:48:42.232709 24319 net.cpp:148] Top shape: 24 32 7 7 (37632)
I0403 21:48:42.232725 24319 net.cpp:156] Memory required for data: 1299351072
I0403 21:48:42.232740 24319 layer_factory.hpp:77] Creating layer inception_5a/5x5
I0403 21:48:42.232764 24319 net.cpp:91] Creating Layer inception_5a/5x5
I0403 21:48:42.232782 24319 net.cpp:425] inception_5a/5x5 <- inception_5a/5x5_reduce
I0403 21:48:42.232805 24319 net.cpp:399] inception_5a/5x5 -> inception_5a/5x5
I0403 21:48:42.234592 24319 net.cpp:141] Setting up inception_5a/5x5
I0403 21:48:42.234634 24319 net.cpp:148] Top shape: 24 128 7 7 (150528)
I0403 21:48:42.234652 24319 net.cpp:156] Memory required for data: 1299953184
I0403 21:48:42.234671 24319 layer_factory.hpp:77] Creating layer inception_5a/relu_5x5
I0403 21:48:42.234690 24319 net.cpp:91] Creating Layer inception_5a/relu_5x5
I0403 21:48:42.234709 24319 net.cpp:425] inception_5a/relu_5x5 <- inception_5a/5x5
I0403 21:48:42.234730 24319 net.cpp:386] inception_5a/relu_5x5 -> inception_5a/5x5 (in-place)
I0403 21:48:42.234928 24319 net.cpp:141] Setting up inception_5a/relu_5x5
I0403 21:48:42.234956 24319 net.cpp:148] Top shape: 24 128 7 7 (150528)
I0403 21:48:42.234971 24319 net.cpp:156] Memory required for data: 1300555296
I0403 21:48:42.234985 24319 layer_factory.hpp:77] Creating layer inception_5a/pool
I0403 21:48:42.235007 24319 net.cpp:91] Creating Layer inception_5a/pool
I0403 21:48:42.235024 24319 net.cpp:425] inception_5a/pool <- pool4/3x3_s2_pool4/3x3_s2_0_split_3
I0403 21:48:42.235045 24319 net.cpp:399] inception_5a/pool -> inception_5a/pool
I0403 21:48:42.235121 24319 net.cpp:141] Setting up inception_5a/pool
I0403 21:48:42.235146 24319 net.cpp:148] Top shape: 24 832 7 7 (978432)
I0403 21:48:42.235162 24319 net.cpp:156] Memory required for data: 1304469024
I0403 21:48:42.235178 24319 layer_factory.hpp:77] Creating layer inception_5a/pool_proj
I0403 21:48:42.235201 24319 net.cpp:91] Creating Layer inception_5a/pool_proj
I0403 21:48:42.235220 24319 net.cpp:425] inception_5a/pool_proj <- inception_5a/pool
I0403 21:48:42.235249 24319 net.cpp:399] inception_5a/pool_proj -> inception_5a/pool_proj
I0403 21:48:42.237637 24319 net.cpp:141] Setting up inception_5a/pool_proj
I0403 21:48:42.237670 24319 net.cpp:148] Top shape: 24 128 7 7 (150528)
I0403 21:48:42.237687 24319 net.cpp:156] Memory required for data: 1305071136
I0403 21:48:42.237706 24319 layer_factory.hpp:77] Creating layer inception_5a/relu_pool_proj
I0403 21:48:42.237725 24319 net.cpp:91] Creating Layer inception_5a/relu_pool_proj
I0403 21:48:42.237742 24319 net.cpp:425] inception_5a/relu_pool_proj <- inception_5a/pool_proj
I0403 21:48:42.237761 24319 net.cpp:386] inception_5a/relu_pool_proj -> inception_5a/pool_proj (in-place)
I0403 21:48:42.238071 24319 net.cpp:141] Setting up inception_5a/relu_pool_proj
I0403 21:48:42.238101 24319 net.cpp:148] Top shape: 24 128 7 7 (150528)
I0403 21:48:42.238117 24319 net.cpp:156] Memory required for data: 1305673248
I0403 21:48:42.238136 24319 layer_factory.hpp:77] Creating layer inception_5a/output
I0403 21:48:42.238152 24319 net.cpp:91] Creating Layer inception_5a/output
I0403 21:48:42.238168 24319 net.cpp:425] inception_5a/output <- inception_5a/1x1
I0403 21:48:42.238186 24319 net.cpp:425] inception_5a/output <- inception_5a/3x3
I0403 21:48:42.238204 24319 net.cpp:425] inception_5a/output <- inception_5a/5x5
I0403 21:48:42.238220 24319 net.cpp:425] inception_5a/output <- inception_5a/pool_proj
I0403 21:48:42.238252 24319 net.cpp:399] inception_5a/output -> inception_5a/output
I0403 21:48:42.238307 24319 net.cpp:141] Setting up inception_5a/output
I0403 21:48:42.238333 24319 net.cpp:148] Top shape: 24 832 7 7 (978432)
I0403 21:48:42.238349 24319 net.cpp:156] Memory required for data: 1309586976
I0403 21:48:42.238364 24319 layer_factory.hpp:77] Creating layer inception_5a/output_inception_5a/output_0_split
I0403 21:48:42.238386 24319 net.cpp:91] Creating Layer inception_5a/output_inception_5a/output_0_split
I0403 21:48:42.238405 24319 net.cpp:425] inception_5a/output_inception_5a/output_0_split <- inception_5a/output
I0403 21:48:42.238425 24319 net.cpp:399] inception_5a/output_inception_5a/output_0_split -> inception_5a/output_inception_5a/output_0_split_0
I0403 21:48:42.238445 24319 net.cpp:399] inception_5a/output_inception_5a/output_0_split -> inception_5a/output_inception_5a/output_0_split_1
I0403 21:48:42.238469 24319 net.cpp:399] inception_5a/output_inception_5a/output_0_split -> inception_5a/output_inception_5a/output_0_split_2
I0403 21:48:42.238492 24319 net.cpp:399] inception_5a/output_inception_5a/output_0_split -> inception_5a/output_inception_5a/output_0_split_3
I0403 21:48:42.238605 24319 net.cpp:141] Setting up inception_5a/output_inception_5a/output_0_split
I0403 21:48:42.238631 24319 net.cpp:148] Top shape: 24 832 7 7 (978432)
I0403 21:48:42.238647 24319 net.cpp:148] Top shape: 24 832 7 7 (978432)
I0403 21:48:42.238664 24319 net.cpp:148] Top shape: 24 832 7 7 (978432)
I0403 21:48:42.238680 24319 net.cpp:148] Top shape: 24 832 7 7 (978432)
I0403 21:48:42.238695 24319 net.cpp:156] Memory required for data: 1325241888
I0403 21:48:42.238711 24319 layer_factory.hpp:77] Creating layer inception_5b/1x1
I0403 21:48:42.238734 24319 net.cpp:91] Creating Layer inception_5b/1x1
I0403 21:48:42.238752 24319 net.cpp:425] inception_5b/1x1 <- inception_5a/output_inception_5a/output_0_split_0
I0403 21:48:42.238777 24319 net.cpp:399] inception_5b/1x1 -> inception_5b/1x1
I0403 21:48:42.242694 24319 net.cpp:141] Setting up inception_5b/1x1
I0403 21:48:42.242727 24319 net.cpp:148] Top shape: 24 384 7 7 (451584)
I0403 21:48:42.242744 24319 net.cpp:156] Memory required for data: 1327048224
I0403 21:48:42.242764 24319 layer_factory.hpp:77] Creating layer inception_5b/relu_1x1
I0403 21:48:42.242784 24319 net.cpp:91] Creating Layer inception_5b/relu_1x1
I0403 21:48:42.242799 24319 net.cpp:425] inception_5b/relu_1x1 <- inception_5b/1x1
I0403 21:48:42.242817 24319 net.cpp:386] inception_5b/relu_1x1 -> inception_5b/1x1 (in-place)
I0403 21:48:42.243134 24319 net.cpp:141] Setting up inception_5b/relu_1x1
I0403 21:48:42.243165 24319 net.cpp:148] Top shape: 24 384 7 7 (451584)
I0403 21:48:42.243186 24319 net.cpp:156] Memory required for data: 1328854560
I0403 21:48:42.243203 24319 layer_factory.hpp:77] Creating layer inception_5b/3x3_reduce
I0403 21:48:42.243226 24319 net.cpp:91] Creating Layer inception_5b/3x3_reduce
I0403 21:48:42.243249 24319 net.cpp:425] inception_5b/3x3_reduce <- inception_5a/output_inception_5a/output_0_split_1
I0403 21:48:42.243270 24319 net.cpp:399] inception_5b/3x3_reduce -> inception_5b/3x3_reduce
I0403 21:48:42.245990 24319 net.cpp:141] Setting up inception_5b/3x3_reduce
I0403 21:48:42.246021 24319 net.cpp:148] Top shape: 24 192 7 7 (225792)
I0403 21:48:42.246038 24319 net.cpp:156] Memory required for data: 1329757728
I0403 21:48:42.246058 24319 layer_factory.hpp:77] Creating layer inception_5b/relu_3x3_reduce
I0403 21:48:42.246075 24319 net.cpp:91] Creating Layer inception_5b/relu_3x3_reduce
I0403 21:48:42.246091 24319 net.cpp:425] inception_5b/relu_3x3_reduce <- inception_5b/3x3_reduce
I0403 21:48:42.246111 24319 net.cpp:386] inception_5b/relu_3x3_reduce -> inception_5b/3x3_reduce (in-place)
I0403 21:48:42.246311 24319 net.cpp:141] Setting up inception_5b/relu_3x3_reduce
I0403 21:48:42.246337 24319 net.cpp:148] Top shape: 24 192 7 7 (225792)
I0403 21:48:42.246352 24319 net.cpp:156] Memory required for data: 1330660896
I0403 21:48:42.246368 24319 layer_factory.hpp:77] Creating layer inception_5b/3x3
I0403 21:48:42.246390 24319 net.cpp:91] Creating Layer inception_5b/3x3
I0403 21:48:42.246409 24319 net.cpp:425] inception_5b/3x3 <- inception_5b/3x3_reduce
I0403 21:48:42.246431 24319 net.cpp:399] inception_5b/3x3 -> inception_5b/3x3
I0403 21:48:42.253407 24319 net.cpp:141] Setting up inception_5b/3x3
I0403 21:48:42.253439 24319 net.cpp:148] Top shape: 24 384 7 7 (451584)
I0403 21:48:42.253458 24319 net.cpp:156] Memory required for data: 1332467232
I0403 21:48:42.253478 24319 layer_factory.hpp:77] Creating layer inception_5b/relu_3x3
I0403 21:48:42.253495 24319 net.cpp:91] Creating Layer inception_5b/relu_3x3
I0403 21:48:42.253512 24319 net.cpp:425] inception_5b/relu_3x3 <- inception_5b/3x3
I0403 21:48:42.253533 24319 net.cpp:386] inception_5b/relu_3x3 -> inception_5b/3x3 (in-place)
I0403 21:48:42.253850 24319 net.cpp:141] Setting up inception_5b/relu_3x3
I0403 21:48:42.253880 24319 net.cpp:148] Top shape: 24 384 7 7 (451584)
I0403 21:48:42.253895 24319 net.cpp:156] Memory required for data: 1334273568
I0403 21:48:42.253911 24319 layer_factory.hpp:77] Creating layer inception_5b/5x5_reduce
I0403 21:48:42.253948 24319 net.cpp:91] Creating Layer inception_5b/5x5_reduce
I0403 21:48:42.253968 24319 net.cpp:425] inception_5b/5x5_reduce <- inception_5a/output_inception_5a/output_0_split_2
I0403 21:48:42.253988 24319 net.cpp:399] inception_5b/5x5_reduce -> inception_5b/5x5_reduce
I0403 21:48:42.255341 24319 net.cpp:141] Setting up inception_5b/5x5_reduce
I0403 21:48:42.255369 24319 net.cpp:148] Top shape: 24 48 7 7 (56448)
I0403 21:48:42.255385 24319 net.cpp:156] Memory required for data: 1334499360
I0403 21:48:42.255405 24319 layer_factory.hpp:77] Creating layer inception_5b/relu_5x5_reduce
I0403 21:48:42.255424 24319 net.cpp:91] Creating Layer inception_5b/relu_5x5_reduce
I0403 21:48:42.255440 24319 net.cpp:425] inception_5b/relu_5x5_reduce <- inception_5b/5x5_reduce
I0403 21:48:42.255461 24319 net.cpp:386] inception_5b/relu_5x5_reduce -> inception_5b/5x5_reduce (in-place)
I0403 21:48:42.255853 24319 net.cpp:141] Setting up inception_5b/relu_5x5_reduce
I0403 21:48:42.255880 24319 net.cpp:148] Top shape: 24 48 7 7 (56448)
I0403 21:48:42.255897 24319 net.cpp:156] Memory required for data: 1334725152
I0403 21:48:42.255911 24319 layer_factory.hpp:77] Creating layer inception_5b/5x5
I0403 21:48:42.255933 24319 net.cpp:91] Creating Layer inception_5b/5x5
I0403 21:48:42.255949 24319 net.cpp:425] inception_5b/5x5 <- inception_5b/5x5_reduce
I0403 21:48:42.255970 24319 net.cpp:399] inception_5b/5x5 -> inception_5b/5x5
I0403 21:48:42.258067 24319 net.cpp:141] Setting up inception_5b/5x5
I0403 21:48:42.258096 24319 net.cpp:148] Top shape: 24 128 7 7 (150528)
I0403 21:48:42.258113 24319 net.cpp:156] Memory required for data: 1335327264
I0403 21:48:42.258131 24319 layer_factory.hpp:77] Creating layer inception_5b/relu_5x5
I0403 21:48:42.258152 24319 net.cpp:91] Creating Layer inception_5b/relu_5x5
I0403 21:48:42.258172 24319 net.cpp:425] inception_5b/relu_5x5 <- inception_5b/5x5
I0403 21:48:42.258189 24319 net.cpp:386] inception_5b/relu_5x5 -> inception_5b/5x5 (in-place)
I0403 21:48:42.258395 24319 net.cpp:141] Setting up inception_5b/relu_5x5
I0403 21:48:42.258421 24319 net.cpp:148] Top shape: 24 128 7 7 (150528)
I0403 21:48:42.258436 24319 net.cpp:156] Memory required for data: 1335929376
I0403 21:48:42.258452 24319 layer_factory.hpp:77] Creating layer inception_5b/pool
I0403 21:48:42.258472 24319 net.cpp:91] Creating Layer inception_5b/pool
I0403 21:48:42.258491 24319 net.cpp:425] inception_5b/pool <- inception_5a/output_inception_5a/output_0_split_3
I0403 21:48:42.258508 24319 net.cpp:399] inception_5b/pool -> inception_5b/pool
I0403 21:48:42.258586 24319 net.cpp:141] Setting up inception_5b/pool
I0403 21:48:42.258611 24319 net.cpp:148] Top shape: 24 832 7 7 (978432)
I0403 21:48:42.258626 24319 net.cpp:156] Memory required for data: 1339843104
I0403 21:48:42.258642 24319 layer_factory.hpp:77] Creating layer inception_5b/pool_proj
I0403 21:48:42.258664 24319 net.cpp:91] Creating Layer inception_5b/pool_proj
I0403 21:48:42.258682 24319 net.cpp:425] inception_5b/pool_proj <- inception_5b/pool
I0403 21:48:42.258703 24319 net.cpp:399] inception_5b/pool_proj -> inception_5b/pool_proj
I0403 21:48:42.261031 24319 net.cpp:141] Setting up inception_5b/pool_proj
I0403 21:48:42.261060 24319 net.cpp:148] Top shape: 24 128 7 7 (150528)
I0403 21:48:42.261077 24319 net.cpp:156] Memory required for data: 1340445216
I0403 21:48:42.261096 24319 layer_factory.hpp:77] Creating layer inception_5b/relu_pool_proj
I0403 21:48:42.261114 24319 net.cpp:91] Creating Layer inception_5b/relu_pool_proj
I0403 21:48:42.261131 24319 net.cpp:425] inception_5b/relu_pool_proj <- inception_5b/pool_proj
I0403 21:48:42.261150 24319 net.cpp:386] inception_5b/relu_pool_proj -> inception_5b/pool_proj (in-place)
I0403 21:48:42.261456 24319 net.cpp:141] Setting up inception_5b/relu_pool_proj
I0403 21:48:42.261484 24319 net.cpp:148] Top shape: 24 128 7 7 (150528)
I0403 21:48:42.261500 24319 net.cpp:156] Memory required for data: 1341047328
I0403 21:48:42.261517 24319 layer_factory.hpp:77] Creating layer inception_5b/output
I0403 21:48:42.261534 24319 net.cpp:91] Creating Layer inception_5b/output
I0403 21:48:42.261565 24319 net.cpp:425] inception_5b/output <- inception_5b/1x1
I0403 21:48:42.261584 24319 net.cpp:425] inception_5b/output <- inception_5b/3x3
I0403 21:48:42.261601 24319 net.cpp:425] inception_5b/output <- inception_5b/5x5
I0403 21:48:42.261617 24319 net.cpp:425] inception_5b/output <- inception_5b/pool_proj
I0403 21:48:42.261636 24319 net.cpp:399] inception_5b/output -> inception_5b/output
I0403 21:48:42.261687 24319 net.cpp:141] Setting up inception_5b/output
I0403 21:48:42.261714 24319 net.cpp:148] Top shape: 24 1024 7 7 (1204224)
I0403 21:48:42.261729 24319 net.cpp:156] Memory required for data: 1345864224
I0403 21:48:42.261745 24319 layer_factory.hpp:77] Creating layer pool5/7x7_s1
I0403 21:48:42.261762 24319 net.cpp:91] Creating Layer pool5/7x7_s1
I0403 21:48:42.261780 24319 net.cpp:425] pool5/7x7_s1 <- inception_5b/output
I0403 21:48:42.261797 24319 net.cpp:399] pool5/7x7_s1 -> pool5/7x7_s1
I0403 21:48:42.262023 24319 net.cpp:141] Setting up pool5/7x7_s1
I0403 21:48:42.262050 24319 net.cpp:148] Top shape: 24 1024 1 1 (24576)
I0403 21:48:42.262065 24319 net.cpp:156] Memory required for data: 1345962528
I0403 21:48:42.262081 24319 layer_factory.hpp:77] Creating layer pool5/drop_7x7_s1
I0403 21:48:42.262100 24319 net.cpp:91] Creating Layer pool5/drop_7x7_s1
I0403 21:48:42.262116 24319 net.cpp:425] pool5/drop_7x7_s1 <- pool5/7x7_s1
I0403 21:48:42.262135 24319 net.cpp:386] pool5/drop_7x7_s1 -> pool5/7x7_s1 (in-place)
I0403 21:48:42.262186 24319 net.cpp:141] Setting up pool5/drop_7x7_s1
I0403 21:48:42.262212 24319 net.cpp:148] Top shape: 24 1024 1 1 (24576)
I0403 21:48:42.262230 24319 net.cpp:156] Memory required for data: 1346060832
I0403 21:48:42.262248 24319 layer_factory.hpp:77] Creating layer loss3/classifier_plantvillage
I0403 21:48:42.262267 24319 net.cpp:91] Creating Layer loss3/classifier_plantvillage
I0403 21:48:42.262284 24319 net.cpp:425] loss3/classifier_plantvillage <- pool5/7x7_s1
I0403 21:48:42.262305 24319 net.cpp:399] loss3/classifier_plantvillage -> loss3/classifier_plantvillage
I0403 21:48:42.262732 24319 net.cpp:141] Setting up loss3/classifier_plantvillage
I0403 21:48:42.262758 24319 net.cpp:148] Top shape: 24 38 (912)
I0403 21:48:42.262773 24319 net.cpp:156] Memory required for data: 1346064480
I0403 21:48:42.262790 24319 layer_factory.hpp:77] Creating layer loss3/classifier_plantvillage_loss3/classifier_plantvillage_0_split
I0403 21:48:42.262811 24319 net.cpp:91] Creating Layer loss3/classifier_plantvillage_loss3/classifier_plantvillage_0_split
I0403 21:48:42.262830 24319 net.cpp:425] loss3/classifier_plantvillage_loss3/classifier_plantvillage_0_split <- loss3/classifier_plantvillage
I0403 21:48:42.262847 24319 net.cpp:399] loss3/classifier_plantvillage_loss3/classifier_plantvillage_0_split -> loss3/classifier_plantvillage_loss3/classifier_plantvillage_0_split_0
I0403 21:48:42.262868 24319 net.cpp:399] loss3/classifier_plantvillage_loss3/classifier_plantvillage_0_split -> loss3/classifier_plantvillage_loss3/classifier_plantvillage_0_split_1
I0403 21:48:42.262893 24319 net.cpp:399] loss3/classifier_plantvillage_loss3/classifier_plantvillage_0_split -> loss3/classifier_plantvillage_loss3/classifier_plantvillage_0_split_2
I0403 21:48:42.262914 24319 net.cpp:399] loss3/classifier_plantvillage_loss3/classifier_plantvillage_0_split -> loss3/classifier_plantvillage_loss3/classifier_plantvillage_0_split_3
I0403 21:48:42.263015 24319 net.cpp:141] Setting up loss3/classifier_plantvillage_loss3/classifier_plantvillage_0_split
I0403 21:48:42.263039 24319 net.cpp:148] Top shape: 24 38 (912)
I0403 21:48:42.263054 24319 net.cpp:148] Top shape: 24 38 (912)
I0403 21:48:42.263070 24319 net.cpp:148] Top shape: 24 38 (912)
I0403 21:48:42.263087 24319 net.cpp:148] Top shape: 24 38 (912)
I0403 21:48:42.263099 24319 net.cpp:156] Memory required for data: 1346079072
I0403 21:48:42.263114 24319 layer_factory.hpp:77] Creating layer loss1/loss
I0403 21:48:42.263136 24319 net.cpp:91] Creating Layer loss1/loss
I0403 21:48:42.263154 24319 net.cpp:425] loss1/loss <- loss1/classifier_plantvillage_loss1/classifier_plantvillage_0_split_0
I0403 21:48:42.263185 24319 net.cpp:425] loss1/loss <- label_data_1_split_0
…
