…
I0403 21:56:35.631680 24766 net.cpp:313] The NetState phase (1) differed from the phase (0) specified by a rule in layer data
I0403 21:56:35.632776 24766 net.cpp:49] Initializing net from parameters: 
state {
  phase: TEST
}
layer {
  name: "data"
  type: "Data"
  top: "data"
  top: "label"
  include {
    phase: TEST
  }
  transform_param {
    mirror: false
    crop_size: 224
    mean_file: "/home/mohanty/data/final_dataset/lmdb/segmented-80-20/mean.binaryproto"
  }
  data_param {
    source: "/home/mohanty/data/final_dataset/lmdb/segmented-80-20/test_db"
    batch_size: 24
    backend: LMDB
  }
}
layer {
  name: "conv1/7x7_s2"
  type: "Convolution"
  bottom: "data"
  top: "conv1/7x7_s2"
  param {
    lr_mult: 1
    decay_mult: 1
  }
  param {
    lr_mult: 2
    decay_mult: 0
  }
  convolution_param {
    num_output: 64
    pad: 3
    kernel_size: 7
    stride: 2
    weight_filler {
      type: "xavier"
      std: 0.1
    }
    bias_filler {
      type: "constant"
      value: 0.2
    }
  }
}
layer {
  name: "conv1/relu_7x7"
  type: "ReLU"
  bottom: "conv1/7x7_s2"
  top: "conv1/7x7_s2"
}
layer {
  name: "pool1/3x3_s2"
  type: "Pooling"
  bottom: "conv1/7x7_s2"
  top: "pool1/3x3_s2"
  pooling_param {
    pool: MAX
    kernel_size: 3
    stride: 2
  }
}
layer {
  name: "pool1/norm1"
  type: "LRN"
  bottom: "pool1/3x3_s2"
  top: "pool1/norm1"
  lrn_param {
    local_size: 5
    alpha: 0.0001
    beta: 0.75
  }
}
layer {
  name: "conv2/3x3_reduce"
  type: "Convolution"
  bottom: "pool1/norm1"
  top: "conv2/3x3_reduce"
  param {
    lr_mult: 1
    decay_mult: 1
  }
  param {
    lr_mult: 2
    decay_mult: 0
  }
  convolution_param {
    num_output: 64
    kernel_size: 1
    weight_filler {
      type: "xavier"
      std: 0.1
    }
    bias_filler {
      type: "constant"
      value: 0.2
    }
  }
}
layer {
  name: "conv2/relu_3x3_reduce"
  type: "ReLU"
  bottom: "conv2/3x3_reduce"
  top: "conv2/3x3_reduce"
}
layer {
  name: "conv2/3x3"
  type: "Convolution"
  bottom: "conv2/3x3_reduce"
  top: "conv2/3x3"
  param {
    lr_mult: 1
    decay_mult: 1
  }
  param {
    lr_mult: 2
    decay_mult: 0
  }
  convolution_param {
    num_output: 192
    pad: 1
    kernel_size: 3
    weight_filler {
      type: "xavier"
      std: 0.03
    }
    bias_filler {
      type: "constant"
      value: 0.2
    }
  }
}
layer {
  name: "conv2/relu_3x3"
  type: "ReLU"
  bottom: "conv2/3x3"
  top: "conv2/3x3"
}
layer {
  name: "conv2/norm2"
  type: "LRN"
  bottom: "conv2/3x3"
  top: "conv2/norm2"
  lrn_param {
    local_size: 5
    alpha: 0.0001
    beta: 0.75
  }
}
layer {
  name: "pool2/3x3_s2"
  type: "Pooling"
  bottom: "conv2/norm2"
  top: "pool2/3x3_s2"
  pooling_param {
    pool: MAX
    kernel_size: 3
    stride: 2
  }
}
layer {
  name: "inception_3a/1x1"
  type: "Convolution"
  bottom: "pool2/3x3_s2"
  top: "inception_3a/1x1"
  param {
    lr_mult: 1
    decay_mult: 1
  }
  param {
    lr_mult: 2
    decay_mult: 0
  }
  convolution_param {
    num_output: 64
    kernel_size: 1
    weight_filler {
      type: "xavier"
      std: 0.03
    }
    bias_filler {
      type: "constant"
      value: 0.2
    }
  }
}
layer {
  name: "inception_3a/relu_1x1"
  type: "ReLU"
  bottom: "inception_3a/1x1"
  top: "inception_3a/1x1"
}
layer {
  name: "inception_3a/3x3_reduce"
  type: "Convolution"
  bottom: "pool2/3x3_s2"
  top: "inception_3a/3x3_reduce"
  param {
    lr_mult: 1
    decay_mult: 1
  }
  param {
    lr_mult: 2
    decay_mult: 0
  }
  convolution_param {
    num_output: 96
    kernel_size: 1
    weight_filler {
      type: "xavier"
      std: 0.09
    }
    bias_filler {
      type: "constant"
      value: 0.2
    }
  }
}
layer {
  name: "inception_3a/relu_3x3_reduce"
  type: "ReLU"
  bottom: "inception_3a/3x3_reduce"
  top: "inception_3a/3x3_reduce"
}
layer {
  name: "inception_3a/3x3"
  type: "Convolution"
  bottom: "inception_3a/3x3_reduce"
  top: "inception_3a/3x3"
  param {
    lr_mult: 1
    decay_mult: 1
  }
  param {
    lr_mult: 2
    decay_mult: 0
  }
  convolution_param {
    num_output: 128
    pad: 1
    kernel_size: 3
    weight_filler {
      type: "xavier"
      std: 0.03
    }
    bias_filler {
      type: "constant"
      value: 0.2
    }
  }
}
layer {
  name: "inception_3a/relu_3x3"
  type: "ReLU"
  bottom: "inception_3a/3x3"
  top: "inception_3a/3x3"
}
layer {
  name: "inception_3a/5x5_reduce"
  type: "Convolution"
  bottom: "pool2/3x3_s2"
  top: "inception_3a/5x5_reduce"
  param {
    lr_mult: 1
    decay_mult: 1
  }
  param {
    lr_mult: 2
    decay_mult: 0
  }
  convolution_param {
    num_output: 16
    kernel_size: 1
    weight_filler {
      type: "xavier"
      std: 0.2
    }
    bias_filler {
      type: "constant"
      value: 0.2
    }
  }
}
layer {
  name: "inception_3a/relu_5x5_reduce"
  type: "ReLU"
  bottom: "inception_3a/5x5_reduce"
  top: "inception_3a/5x5_reduce"
}
layer {
  name: "inception_3a/5x5"
  type: "Convolution"
  bottom: "inception_3a/5x5_reduce"
  top: "inception_3a/5x5"
  param {
    lr_mult: 1
    decay_mult: 1
  }
  param {
    lr_mult: 2
    decay_mult: 0
  }
  convolution_param {
    num_output: 32
    pad: 2
    kernel_size: 5
    weight_filler {
      type: "xavier"
      std: 0.03
    }
    bias_filler {
      type: "constant"
      value: 0.2
    }
  }
}
layer {
  name: "inception_3a/relu_5x5"
  type: "ReLU"
  bottom: "inception_3a/5x5"
  top: "inception_3a/5x5"
}
layer {
  name: "inception_3a/pool"
  type: "Pooling"
  bottom: "pool2/3x3_s2"
  top: "inception_3a/pool"
  pooling_param {
    pool: MAX
    kernel_size: 3
    stride: 1
    pad: 1
  }
}
layer {
  name: "inception_3a/pool_proj"
  type: "Convolution"
  bottom: "inception_3a/pool"
  top: "inception_3a/pool_proj"
  param {
    lr_mult: 1
    decay_mult: 1
  }
  param {
    lr_mult: 2
    decay_mult: 0
  }
  convolution_param {
    num_output: 32
    kernel_size: 1
    weight_filler {
      type: "xavier"
      std: 0.1
    }
    bias_filler {
      type: "constant"
      value: 0.2
    }
  }
}
layer {
  name: "inception_3a/relu_pool_proj"
  type: "ReLU"
  bottom: "inception_3a/pool_proj"
  top: "inception_3a/pool_proj"
}
layer {
  name: "inception_3a/output"
  type: "Concat"
  bottom: "inception_3a/1x1"
  bottom: "inception_3a/3x3"
  bottom: "inception_3a/5x5"
  bottom: "inception_3a/pool_proj"
  top: "inception_3a/output"
}
layer {
  name: "inception_3b/1x1"
  type: "Convolution"
  bottom: "inception_3a/output"
  top: "inception_3b/1x1"
  param {
    lr_mult: 1
    decay_mult: 1
  }
  param {
    lr_mult: 2
    decay_mult: 0
  }
  convolution_param {
    num_output: 128
    kernel_size: 1
    weight_filler {
      type: "xavier"
      std: 0.03
    }
    bias_filler {
      type: "constant"
      value: 0.2
    }
  }
}
layer {
  name: "inception_3b/relu_1x1"
  type: "ReLU"
  bottom: "inception_3b/1x1"
  top: "inception_3b/1x1"
}
layer {
  name: "inception_3b/3x3_reduce"
  type: "Convolution"
  bottom: "inception_3a/output"
  top: "inception_3b/3x3_reduce"
  param {
    lr_mult: 1
    decay_mult: 1
  }
  param {
    lr_mult: 2
    decay_mult: 0
  }
  convolution_param {
    num_output: 128
    kernel_size: 1
    weight_filler {
      type: "xavier"
      std: 0.09
    }
    bias_filler {
      type: "constant"
      value: 0.2
    }
  }
}
layer {
  name: "inception_3b/relu_3x3_reduce"
  type: "ReLU"
  bottom: "inception_3b/3x3_reduce"
  top: "inception_3b/3x3_reduce"
}
layer {
  name: "inception_3b/3x3"
  type: "Convolution"
  bottom: "inception_3b/3x3_reduce"
  top: "inception_3b/3x3"
  param {
    lr_mult: 1
    decay_mult: 1
  }
  param {
    lr_mult: 2
    decay_mult: 0
  }
  convolution_param {
    num_output: 192
    pad: 1
    kernel_size: 3
    weight_filler {
      type: "xavier"
      std: 0.03
    }
    bias_filler {
      type: "constant"
      value: 0.2
    }
  }
}
layer {
  name: "inception_3b/relu_3x3"
  type: "ReLU"
  bottom: "inception_3b/3x3"
  top: "inception_3b/3x3"
}
layer {
  name: "inception_3b/5x5_reduce"
  type: "Convolution"
  bottom: "inception_3a/output"
  top: "inception_3b/5x5_reduce"
  param {
    lr_mult: 1
    decay_mult: 1
  }
  param {
    lr_mult: 2
    decay_mult: 0
  }
  convolution_param {
    num_output: 32
    kernel_size: 1
    weight_filler {
      type: "xavier"
      std: 0.2
    }
    bias_filler {
      type: "constant"
      value: 0.2
    }
  }
}
layer {
  name: "inception_3b/relu_5x5_reduce"
  type: "ReLU"
  bottom: "inception_3b/5x5_reduce"
  top: "inception_3b/5x5_reduce"
}
layer {
  name: "inception_3b/5x5"
  type: "Convolution"
  bottom: "inception_3b/5x5_reduce"
  top: "inception_3b/5x5"
  param {
    lr_mult: 1
    decay_mult: 1
  }
  param {
    lr_mult: 2
    decay_mult: 0
  }
  convolution_param {
    num_output: 96
    pad: 2
    kernel_size: 5
    weight_filler {
      type: "xavier"
      std: 0.03
    }
    bias_filler {
      type: "constant"
      value: 0.2
    }
  }
}
layer {
  name: "inception_3b/relu_5x5"
  type: "ReLU"
  bottom: "inception_3b/5x5"
  top: "inception_3b/5x5"
}
layer {
  name: "inception_3b/pool"
  type: "Pooling"
  bottom: "inception_3a/output"
  top: "inception_3b/pool"
  pooling_param {
    pool: MAX
    kernel_size: 3
    stride: 1
    pad: 1
  }
}
layer {
  name: "inception_3b/pool_proj"
  type: "Convolution"
  bottom: "inception_3b/pool"
  top: "inception_3b/pool_proj"
  param {
    lr_mult: 1
    decay_mult: 1
  }
  param {
    lr_mult: 2
    decay_mult: 0
  }
  convolution_param {
    num_output: 64
    kernel_size: 1
    weight_filler {
      type: "xavier"
      std: 0.1
    }
    bias_filler {
      type: "constant"
      value: 0.2
    }
  }
}
layer {
  name: "inception_3b/relu_pool_proj"
  type: "ReLU"
  bottom: "inception_3b/pool_proj"
  top: "inception_3b/pool_proj"
}
layer {
  name: "inception_3b/output"
  type: "Concat"
  bottom: "inception_3b/1x1"
  bottom: "inception_3b/3x3"
  bottom: "inception_3b/5x5"
  bottom: "inception_3b/pool_proj"
  top: "inception_3b/output"
}
layer {
  name: "pool3/3x3_s2"
  type: "Pooling"
  bottom: "inception_3b/output"
  top: "pool3/3x3_s2"
  pooling_param {
    pool: MAX
    kernel_size: 3
    stride: 2
  }
}
layer {
  name: "inception_4a/1x1"
  type: "Convolution"
  bottom: "pool3/3x3_s2"
  top: "inception_4a/1x1"
  param {
    lr_mult: 1
    decay_mult: 1
  }
  param {
    lr_mult: 2
    decay_mult: 0
  }
  convolution_param {
    num_output: 192
    kernel_size: 1
    weight_filler {
      type: "xavier"
      std: 0.03
    }
    bias_filler {
      type: "constant"
      value: 0.2
    }
  }
}
layer {
  name: "inception_4a/relu_1x1"
  type: "ReLU"
  bottom: "inception_4a/1x1"
  top: "inception_4a/1x1"
}
layer {
  name: "inception_4a/3x3_reduce"
  type: "Convolution"
  bottom: "pool3/3x3_s2"
  top: "inception_4a/3x3_reduce"
  param {
    lr_mult: 1
    decay_mult: 1
  }
  param {
    lr_mult: 2
    decay_mult: 0
  }
  convolution_param {
    num_output: 96
    kernel_size: 1
    weight_filler {
      type: "xavier"
      std: 0.09
    }
    bias_filler {
      type: "constant"
      value: 0.2
    }
  }
}
layer {
  name: "inception_4a/relu_3x3_reduce"
  type: "ReLU"
  bottom: "inception_4a/3x3_reduce"
  top: "inception_4a/3x3_reduce"
}
layer {
  name: "inception_4a/3x3"
  type: "Convolution"
  bottom: "inception_4a/3x3_reduce"
  top: "inception_4a/3x3"
  param {
    lr_mult: 1
    decay_mult: 1
  }
  param {
    lr_mult: 2
    decay_mult: 0
  }
  convolution_param {
    num_output: 208
    pad: 1
    kernel_size: 3
    weight_filler {
      type: "xavier"
      std: 0.03
    }
    bias_filler {
      type: "constant"
      value: 0.2
    }
  }
}
layer {
  name: "inception_4a/relu_3x3"
  type: "ReLU"
  bottom: "inception_4a/3x3"
  top: "inception_4a/3x3"
}
layer {
  name: "inception_4a/5x5_reduce"
  type: "Convolution"
  bottom: "pool3/3x3_s2"
  top: "inception_4a/5x5_reduce"
  param {
    lr_mult: 1
    decay_mult: 1
  }
  param {
    lr_mult: 2
    decay_mult: 0
  }
  convolution_param {
    num_output: 16
    kernel_size: 1
    weight_filler {
      type: "xavier"
      std: 0.2
    }
    bias_filler {
      type: "constant"
      value: 0.2
    }
  }
}
layer {
  name: "inception_4a/relu_5x5_reduce"
  type: "ReLU"
  bottom: "inception_4a/5x5_reduce"
  top: "inception_4a/5x5_reduce"
}
layer {
  name: "inception_4a/5x5"
  type: "Convolution"
  bottom: "inception_4a/5x5_reduce"
  top: "inception_4a/5x5"
  param {
    lr_mult: 1
    decay_mult: 1
  }
  param {
    lr_mult: 2
    decay_mult: 0
  }
  convolution_param {
    num_output: 48
    pad: 2
    kernel_size: 5
    weight_filler {
      type: "xavier"
      std: 0.03
    }
    bias_filler {
      type: "constant"
      value: 0.2
    }
  }
}
layer {
  name: "inception_4a/relu_5x5"
  type: "ReLU"
  bottom: "inception_4a/5x5"
  top: "inception_4a/5x5"
}
layer {
  name: "inception_4a/pool"
  type: "Pooling"
  bottom: "pool3/3x3_s2"
  top: "inception_4a/pool"
  pooling_param {
    pool: MAX
    kernel_size: 3
    stride: 1
    pad: 1
  }
}
layer {
  name: "inception_4a/pool_proj"
  type: "Convolution"
  bottom: "inception_4a/pool"
  top: "inception_4a/pool_proj"
  param {
    lr_mult: 1
    decay_mult: 1
  }
  param {
    lr_mult: 2
    decay_mult: 0
  }
  convolution_param {
    num_output: 64
    kernel_size: 1
    weight_filler {
      type: "xavier"
      std: 0.1
    }
    bias_filler {
      type: "constant"
      value: 0.2
    }
  }
}
layer {
  name: "inception_4a/relu_pool_proj"
  type: "ReLU"
  bottom: "inception_4a/pool_proj"
  top: "inception_4a/pool_proj"
}
layer {
  name: "inception_4a/output"
  type: "Concat"
  bottom: "inception_4a/1x1"
  bottom: "inception_4a/3x3"
  bottom: "inception_4a/5x5"
  bottom: "inception_4a/pool_proj"
  top: "inception_4a/output"
}
layer {
  name: "loss1/ave_pool"
  type: "Pooling"
  bottom: "inception_4a/output"
  top: "loss1/ave_pool"
  pooling_param {
    pool: AVE
    kernel_size: 5
    stride: 3
  }
}
layer {
  name: "loss1/conv"
  type: "Convolution"
  bottom: "loss1/ave_pool"
  top: "loss1/conv"
  param {
    lr_mult: 1
    decay_mult: 1
  }
  param {
    lr_mult: 2
    decay_mult: 0
  }
  convolution_param {
    num_output: 128
    kernel_size: 1
    weight_filler {
      type: "xavier"
      std: 0.08
    }
    bias_filler {
      type: "constant"
      value: 0.2
    }
  }
}
layer {
  name: "loss1/relu_conv"
  type: "ReLU"
  bottom: "loss1/conv"
  top: "loss1/conv"
}
layer {
  name: "loss1/fc"
  type: "InnerProduct"
  bottom: "loss1/conv"
  top: "loss1/fc"
  param {
    lr_mult: 1
    decay_mult: 1
  }
  param {
    lr_mult: 2
    decay_mult: 0
  }
  inner_product_param {
    num_output: 1024
    weight_filler {
      type: "xavier"
      std: 0.02
    }
    bias_filler {
      type: "constant"
      value: 0.2
    }
  }
}
layer {
  name: "loss1/relu_fc"
  type: "ReLU"
  bottom: "loss1/fc"
  top: "loss1/fc"
}
layer {
  name: "loss1/drop_fc"
  type: "Dropout"
  bottom: "loss1/fc"
  top: "loss1/fc"
  dropout_param {
    dropout_ratio: 0.7
  }
}
layer {
  name: "loss1/classifier_plantvillage"
  type: "InnerProduct"
  bottom: "loss1/fc"
  top: "loss1/classifier_plantvillage"
  param {
    lr_mult: 1
    decay_mult: 1
  }
  param {
    lr_mult: 2
    decay_mult: 0
  }
  inner_product_param {
    num_output: 38
    weight_filler {
      type: "xavier"
      std: 0.0009765625
    }
    bias_filler {
      type: "constant"
      value: 0
    }
  }
}
layer {
  name: "inception_4b/1x1"
  type: "Convolution"
  bottom: "inception_4a/output"
  top: "inception_4b/1x1"
  param {
    lr_mult: 1
    decay_mult: 1
  }
  param {
    lr_mult: 2
    decay_mult: 0
  }
  convolution_param {
    num_output: 160
    kernel_size: 1
    weight_filler {
      type: "xavier"
      std: 0.03
    }
    bias_filler {
      type: "constant"
      value: 0.2
    }
  }
}
layer {
  name: "inception_4b/relu_1x1"
  type: "ReLU"
  bottom: "inception_4b/1x1"
  top: "inception_4b/1x1"
}
layer {
  name: "inception_4b/3x3_reduce"
  type: "Convolution"
  bottom: "inception_4a/output"
  top: "inception_4b/3x3_reduce"
  param {
    lr_mult: 1
    decay_mult: 1
  }
  param {
    lr_mult: 2
    decay_mult: 0
  }
  convolution_param {
    num_output: 112
    kernel_size: 1
    weight_filler {
      type: "xavier"
      std: 0.09
    }
    bias_filler {
      type: "constant"
      value: 0.2
    }
  }
}
layer {
  name: "inception_4b/relu_3x3_reduce"
  type: "ReLU"
  bottom: "inception_4b/3x3_reduce"
  top: "inception_4b/3x3_reduce"
}
layer {
  name: "inception_4b/3x3"
  type: "Convolution"
  bottom: "inception_4b/3x3_reduce"
  top: "inception_4b/3x3"
  param {
    lr_mult: 1
    decay_mult: 1
  }
  param {
    lr_mult: 2
    decay_mult: 0
  }
  convolution_param {
    num_output: 224
    pad: 1
    kernel_size: 3
    weight_filler {
      type: "xavier"
      std: 0.03
    }
    bias_filler {
      type: "constant"
      value: 0.2
    }
  }
}
layer {
  name: "inception_4b/relu_3x3"
  type: "ReLU"
  bottom: "inception_4b/3x3"
  top: "inception_4b/3x3"
}
layer {
  name: "inception_4b/5x5_reduce"
  type: "Convolution"
  bottom: "inception_4a/output"
  top: "inception_4b/5x5_reduce"
  param {
    lr_mult: 1
    decay_mult: 1
  }
  param {
    lr_mult: 2
    decay_mult: 0
  }
  convolution_param {
    num_output: 24
    kernel_size: 1
    weight_filler {
      type: "xavier"
      std: 0.2
    }
    bias_filler {
      type: "constant"
      value: 0.2
    }
  }
}
layer {
  name: "inception_4b/relu_5x5_reduce"
  type: "ReLU"
  bottom: "inception_4b/5x5_reduce"
  top: "inception_4b/5x5_reduce"
}
layer {
  name: "inception_4b/5x5"
  type: "Convolution"
  bottom: "inception_4b/5x5_reduce"
  top: "inception_4b/5x5"
  param {
    lr_mult: 1
    decay_mult: 1
  }
  param {
    lr_mult: 2
    decay_mult: 0
  }
  convolution_param {
    num_output: 64
    pad: 2
    kernel_size: 5
    weight_filler {
      type: "xavier"
      std: 0.03
    }
    bias_filler {
      type: "constant"
      value: 0.2
    }
  }
}
layer {
  name: "inception_4b/relu_5x5"
  type: "ReLU"
  bottom: "inception_4b/5x5"
  top: "inception_4b/5x5"
}
layer {
  name: "inception_4b/pool"
  type: "Pooling"
  bottom: "inception_4a/output"
  top: "inception_4b/pool"
  pooling_param {
    pool: MAX
    kernel_size: 3
    stride: 1
    pad: 1
  }
}
layer {
  name: "inception_4b/pool_proj"
  type: "Convolution"
  bottom: "inception_4b/pool"
  top: "inception_4b/pool_proj"
  param {
    lr_mult: 1
    decay_mult: 1
  }
  param {
    lr_mult: 2
    decay_mult: 0
  }
  convolution_param {
    num_output: 64
    kernel_size: 1
    weight_filler {
      type: "xavier"
      std: 0.1
    }
    bias_filler {
      type: "constant"
      value: 0.2
    }
  }
}
layer {
  name: "inception_4b/relu_pool_proj"
  type: "ReLU"
  bottom: "inception_4b/pool_proj"
  top: "inception_4b/pool_proj"
}
layer {
  name: "inception_4b/output"
  type: "Concat"
  bottom: "inception_4b/1x1"
  bottom: "inception_4b/3x3"
  bottom: "inception_4b/5x5"
  bottom: "inception_4b/pool_proj"
  top: "inception_4b/output"
}
layer {
  name: "inception_4c/1x1"
  type: "Convolution"
  bottom: "inception_4b/output"
  top: "inception_4c/1x1"
  param {
    lr_mult: 1
    decay_mult: 1
  }
  param {
    lr_mult: 2
    decay_mult: 0
  }
  convolution_param {
    num_output: 128
    kernel_size: 1
    weight_filler {
      type: "xavier"
      std: 0.03
    }
    bias_filler {
      type: "constant"
      value: 0.2
    }
  }
}
layer {
  name: "inception_4c/relu_1x1"
  type: "ReLU"
  bottom: "inception_4c/1x1"
  top: "inception_4c/1x1"
}
layer {
  name: "inception_4c/3x3_reduce"
  type: "Convolution"
  bottom: "inception_4b/output"
  top: "inception_4c/3x3_reduce"
  param {
    lr_mult: 1
    decay_mult: 1
  }
  param {
    lr_mult: 2
    decay_mult: 0
  }
  convolution_param {
    num_output: 128
    kernel_size: 1
    weight_filler {
      type: "xavier"
      std: 0.09
    }
    bias_filler {
      type: "constant"
      value: 0.2
    }
  }
}
layer {
  name: "inception_4c/relu_3x3_reduce"
  type: "ReLU"
  bottom: "inception_4c/3x3_reduce"
  top: "inception_4c/3x3_reduce"
}
layer {
  name: "inception_4c/3x3"
  type: "Convolution"
  bottom: "inception_4c/3x3_reduce"
  top: "inception_4c/3x3"
  param {
    lr_mult: 1
    decay_mult: 1
  }
  param {
    lr_mult: 2
    decay_mult: 0
  }
  convolution_param {
    num_output: 256
    pad: 1
    kernel_size: 3
    weight_filler {
      type: "xavier"
      std: 0.03
    }
    bias_filler {
      type: "constant"
      value: 0.2
    }
  }
}
layer {
  name: "inception_4c/relu_3x3"
  type: "ReLU"
  bottom: "inception_4c/3x3"
  top: "inception_4c/3x3"
}
layer {
  name: "inception_4c/5x5_reduce"
  type: "Convolution"
  bottom: "inception_4b/output"
  top: "inception_4c/5x5_reduce"
  param {
    lr_mult: 1
    decay_mult: 1
  }
  param {
    lr_mult: 2
    decay_mult: 0
  }
  convolution_param {
    num_output: 24
    kernel_size: 1
    weight_filler {
      type: "xavier"
      std: 0.2
    }
    bias_filler {
      type: "constant"
      value: 0.2
    }
  }
}
layer {
  name: "inception_4c/relu_5x5_reduce"
  type: "ReLU"
  bottom: "inception_4c/5x5_reduce"
  top: "inception_4c/5x5_reduce"
}
layer {
  name: "inception_4c/5x5"
  type: "Convolution"
  bottom: "inception_4c/5x5_reduce"
  top: "inception_4c/5x5"
  param {
    lr_mult: 1
    decay_mult: 1
  }
  param {
    lr_mult: 2
    decay_mult: 0
  }
  convolution_param {
    num_output: 64
    pad: 2
    kernel_size: 5
    weight_filler {
      type: "xavier"
      std: 0.03
    }
    bias_filler {
      type: "constant"
      value: 0.2
    }
  }
}
layer {
  name: "inception_4c/relu_5x5"
  type: "ReLU"
  bottom: "inception_4c/5x5"
  top: "inception_4c/5x5"
}
layer {
  name: "inception_4c/pool"
  type: "Pooling"
  bottom: "inception_4b/output"
  top: "inception_4c/pool"
  pooling_param {
    pool: MAX
    kernel_size: 3
    stride: 1
    pad: 1
  }
}
layer {
  name: "inception_4c/pool_proj"
  type: "Convolution"
  bottom: "inception_4c/pool"
  top: "inception_4c/pool_proj"
  param {
    lr_mult: 1
    decay_mult: 1
  }
  param {
    lr_mult: 2
    decay_mult: 0
  }
  convolution_param {
    num_output: 64
    kernel_size: 1
    weight_filler {
      type: "xavier"
      std: 0.1
    }
    bias_filler {
      type: "constant"
      value: 0.2
    }
  }
}
layer {
  name: "inception_4c/relu_pool_proj"
  type: "ReLU"
  bottom: "inception_4c/pool_proj"
  top: "inception_4c/pool_proj"
}
layer {
  name: "inception_4c/output"
  type: "Concat"
  bottom: "inception_4c/1x1"
  bottom: "inception_4c/3x3"
  bottom: "inception_4c/5x5"
  bottom: "inception_4c/pool_proj"
  top: "inception_4c/output"
}
layer {
  name: "inception_4d/1x1"
  type: "Convolution"
  bottom: "inception_4c/output"
  top: "inception_4d/1x1"
  param {
    lr_mult: 1
    decay_mult: 1
  }
  param {
    lr_mult: 2
    decay_mult: 0
  }
  convolution_param {
    num_output: 112
    kernel_size: 1
    weight_filler {
      type: "xavier"
      std: 0.03
    }
    bias_filler {
      type: "constant"
      value: 0.2
    }
  }
}
layer {
  name: "inception_4d/relu_1x1"
  type: "ReLU"
  bottom: "inception_4d/1x1"
  top: "inception_4d/1x1"
}
layer {
  name: "inception_4d/3x3_reduce"
  type: "Convolution"
  bottom: "inception_4c/output"
  top: "inception_4d/3x3_reduce"
  param {
    lr_mult: 1
    decay_mult: 1
  }
  param {
    lr_mult: 2
    decay_mult: 0
  }
  convolution_param {
    num_output: 144
    kernel_size: 1
    weight_filler {
      type: "xavier"
      std: 0.09
    }
    bias_filler {
      type: "constant"
      value: 0.2
    }
  }
}
layer {
  name: "inception_4d/relu_3x3_reduce"
  type: "ReLU"
  bottom: "inception_4d/3x3_reduce"
  top: "inception_4d/3x3_reduce"
}
layer {
  name: "inception_4d/3x3"
  type: "Convolution"
  bottom: "inception_4d/3x3_reduce"
  top: "inception_4d/3x3"
  param {
    lr_mult: 1
    decay_mult: 1
  }
  param {
    lr_mult: 2
    decay_mult: 0
  }
  convolution_param {
    num_output: 288
    pad: 1
    kernel_size: 3
    weight_filler {
      type: "xavier"
      std: 0.03
    }
    bias_filler {
      type: "constant"
      value: 0.2
    }
  }
}
layer {
  name: "inception_4d/relu_3x3"
  type: "ReLU"
  bottom: "inception_4d/3x3"
  top: "inception_4d/3x3"
}
layer {
  name: "inception_4d/5x5_reduce"
  type: "Convolution"
  bottom: "inception_4c/output"
  top: "inception_4d/5x5_reduce"
  param {
    lr_mult: 1
    decay_mult: 1
  }
  param {
    lr_mult: 2
    decay_mult: 0
  }
  convolution_param {
    num_output: 32
    kernel_size: 1
    weight_filler {
      type: "xavier"
      std: 0.2
    }
    bias_filler {
      type: "constant"
      value: 0.2
    }
  }
}
layer {
  name: "inception_4d/relu_5x5_reduce"
  type: "ReLU"
  bottom: "inception_4d/5x5_reduce"
  top: "inception_4d/5x5_reduce"
}
layer {
  name: "inception_4d/5x5"
  type: "Convolution"
  bottom: "inception_4d/5x5_reduce"
  top: "inception_4d/5x5"
  param {
    lr_mult: 1
    decay_mult: 1
  }
  param {
    lr_mult: 2
    decay_mult: 0
  }
  convolution_param {
    num_output: 64
    pad: 2
    kernel_size: 5
    weight_filler {
      type: "xavier"
      std: 0.03
    }
    bias_filler {
      type: "constant"
      value: 0.2
    }
  }
}
layer {
  name: "inception_4d/relu_5x5"
  type: "ReLU"
  bottom: "inception_4d/5x5"
  top: "inception_4d/5x5"
}
layer {
  name: "inception_4d/pool"
  type: "Pooling"
  bottom: "inception_4c/output"
  top: "inception_4d/pool"
  pooling_param {
    pool: MAX
    kernel_size: 3
    stride: 1
    pad: 1
  }
}
layer {
  name: "inception_4d/pool_proj"
  type: "Convolution"
  bottom: "inception_4d/pool"
  top: "inception_4d/pool_proj"
  param {
    lr_mult: 1
    decay_mult: 1
  }
  param {
    lr_mult: 2
    decay_mult: 0
  }
  convolution_param {
    num_output: 64
    kernel_size: 1
    weight_filler {
      type: "xavier"
      std: 0.1
    }
    bias_filler {
      type: "constant"
      value: 0.2
    }
  }
}
layer {
  name: "inception_4d/relu_pool_proj"
  type: "ReLU"
  bottom: "inception_4d/pool_proj"
  top: "inception_4d/pool_proj"
}
layer {
  name: "inception_4d/output"
  type: "Concat"
  bottom: "inception_4d/1x1"
  bottom: "inception_4d/3x3"
  bottom: "inception_4d/5x5"
  bottom: "inception_4d/pool_proj"
  top: "inception_4d/output"
}
layer {
  name: "loss2/ave_pool"
  type: "Pooling"
  bottom: "inception_4d/output"
  top: "loss2/ave_pool"
  pooling_param {
    pool: AVE
    kernel_size: 5
    stride: 3
  }
}
layer {
  name: "loss2/conv"
  type: "Convolution"
  bottom: "loss2/ave_pool"
  top: "loss2/conv"
  param {
    lr_mult: 1
    decay_mult: 1
  }
  param {
    lr_mult: 2
    decay_mult: 0
  }
  convolution_param {
    num_output: 128
    kernel_size: 1
    weight_filler {
      type: "xavier"
      std: 0.08
    }
    bias_filler {
      type: "constant"
      value: 0.2
    }
  }
}
layer {
  name: "loss2/relu_conv"
  type: "ReLU"
  bottom: "loss2/conv"
  top: "loss2/conv"
}
layer {
  name: "loss2/fc"
  type: "InnerProduct"
  bottom: "loss2/conv"
  top: "loss2/fc"
  param {
    lr_mult: 1
    decay_mult: 1
  }
  param {
    lr_mult: 2
    decay_mult: 0
  }
  inner_product_param {
    num_output: 1024
    weight_filler {
      type: "xavier"
      std: 0.02
    }
    bias_filler {
      type: "constant"
      value: 0.2
    }
  }
}
layer {
  name: "loss2/relu_fc"
  type: "ReLU"
  bottom: "loss2/fc"
  top: "loss2/fc"
}
layer {
  name: "loss2/drop_fc"
  type: "Dropout"
  bottom: "loss2/fc"
  top: "loss2/fc"
  dropout_param {
    dropout_ratio: 0.7
  }
}
layer {
  name: "loss2/classifier_plantvillage"
  type: "InnerProduct"
  bottom: "loss2/fc"
  top: "loss2/classifier_plantvillage"
  param {
    lr_mult: 1
    decay_mult: 1
  }
  param {
    lr_mult: 2
    decay_mult: 0
  }
  inner_product_param {
    num_output: 38
    weight_filler {
      type: "xavier"
      std: 0.0009765625
    }
    bias_filler {
      type: "constant"
      value: 0
    }
  }
}
layer {
  name: "inception_4e/1x1"
  type: "Convolution"
  bottom: "inception_4d/output"
  top: "inception_4e/1x1"
  param {
    lr_mult: 1
    decay_mult: 1
  }
  param {
    lr_mult: 2
    decay_mult: 0
  }
  convolution_param {
    num_output: 256
    kernel_size: 1
    weight_filler {
      type: "xavier"
      std: 0.03
    }
    bias_filler {
      type: "constant"
      value: 0.2
    }
  }
}
layer {
  name: "inception_4e/relu_1x1"
  type: "ReLU"
  bottom: "inception_4e/1x1"
  top: "inception_4e/1x1"
}
layer {
  name: "inception_4e/3x3_reduce"
  type: "Convolution"
  bottom: "inception_4d/output"
  top: "inception_4e/3x3_reduce"
  param {
    lr_mult: 1
    decay_mult: 1
  }
  param {
    lr_mult: 2
    decay_mult: 0
  }
  convolution_param {
    num_output: 160
    kernel_size: 1
    weight_filler {
      type: "xavier"
      std: 0.09
    }
    bias_filler {
      type: "constant"
      value: 0.2
    }
  }
}
layer {
  name: "inception_4e/relu_3x3_reduce"
  type: "ReLU"
  bottom: "inception_4e/3x3_reduce"
  top: "inception_4e/3x3_reduce"
}
layer {
  name: "inception_4e/3x3"
  type: "Convolution"
  bottom: "inception_4e/3x3_reduce"
  top: "inception_4e/3x3"
  param {
    lr_mult: 1
    decay_mult: 1
  }
  param {
    lr_mult: 2
    decay_mult: 0
  }
  convolution_param {
    num_output: 320
    pad: 1
    kernel_size: 3
    weight_filler {
      type: "xavier"
      std: 0.03
    }
    bias_filler {
      type: "constant"
      value: 0.2
    }
  }
}
layer {
  name: "inception_4e/relu_3x3"
  type: "ReLU"
  bottom: "inception_4e/3x3"
  top: "inception_4e/3x3"
}
layer {
  name: "inception_4e/5x5_reduce"
  type: "Convolution"
  bottom: "inception_4d/output"
  top: "inception_4e/5x5_reduce"
  param {
    lr_mult: 1
    decay_mult: 1
  }
  param {
    lr_mult: 2
    decay_mult: 0
  }
  convolution_param {
    num_output: 32
    kernel_size: 1
    weight_filler {
      type: "xavier"
      std: 0.2
    }
    bias_filler {
      type: "constant"
      value: 0.2
    }
  }
}
layer {
  name: "inception_4e/relu_5x5_reduce"
  type: "ReLU"
  bottom: "inception_4e/5x5_reduce"
  top: "inception_4e/5x5_reduce"
}
layer {
  name: "inception_4e/5x5"
  type: "Convolution"
  bottom: "inception_4e/5x5_reduce"
  top: "inception_4e/
I0403 21:56:35.633985 24766 layer_factory.hpp:77] Creating layer data
I0403 21:56:35.634554 24766 net.cpp:91] Creating Layer data
I0403 21:56:35.634585 24766 net.cpp:399] data -> data
I0403 21:56:35.634637 24766 net.cpp:399] data -> label
I0403 21:56:35.634675 24766 data_transformer.cpp:25] Loading mean file from: /home/mohanty/data/final_dataset/lmdb/segmented-80-20/mean.binaryproto
I0403 21:56:35.635851 24778 db_lmdb.cpp:38] Opened lmdb /home/mohanty/data/final_dataset/lmdb/segmented-80-20/test_db
I0403 21:56:35.647294 24766 data_layer.cpp:41] output data size: 24,3,224,224
I0403 21:56:35.674285 24766 net.cpp:141] Setting up data
I0403 21:56:35.674367 24766 net.cpp:148] Top shape: 24 3 224 224 (3612672)
I0403 21:56:35.674391 24766 net.cpp:148] Top shape: 24 (24)
I0403 21:56:35.674408 24766 net.cpp:156] Memory required for data: 14450784
I0403 21:56:35.674437 24766 layer_factory.hpp:77] Creating layer label_data_1_split
I0403 21:56:35.674463 24766 net.cpp:91] Creating Layer label_data_1_split
I0403 21:56:35.674481 24766 net.cpp:425] label_data_1_split <- label
I0403 21:56:35.674515 24766 net.cpp:399] label_data_1_split -> label_data_1_split_0
I0403 21:56:35.674546 24766 net.cpp:399] label_data_1_split -> label_data_1_split_1
I0403 21:56:35.674567 24766 net.cpp:399] label_data_1_split -> label_data_1_split_2
I0403 21:56:35.674589 24766 net.cpp:399] label_data_1_split -> label_data_1_split_3
I0403 21:56:35.674608 24766 net.cpp:399] label_data_1_split -> label_data_1_split_4
I0403 21:56:35.674629 24766 net.cpp:399] label_data_1_split -> label_data_1_split_5
I0403 21:56:35.674649 24766 net.cpp:399] label_data_1_split -> label_data_1_split_6
I0403 21:56:35.674669 24766 net.cpp:399] label_data_1_split -> label_data_1_split_7
I0403 21:56:35.674690 24766 net.cpp:399] label_data_1_split -> label_data_1_split_8
I0403 21:56:35.674710 24766 net.cpp:399] label_data_1_split -> label_data_1_split_9
I0403 21:56:35.674824 24766 net.cpp:141] Setting up label_data_1_split
I0403 21:56:35.674849 24766 net.cpp:148] Top shape: 24 (24)
I0403 21:56:35.674865 24766 net.cpp:148] Top shape: 24 (24)
I0403 21:56:35.674881 24766 net.cpp:148] Top shape: 24 (24)
I0403 21:56:35.674898 24766 net.cpp:148] Top shape: 24 (24)
I0403 21:56:35.674926 24766 net.cpp:148] Top shape: 24 (24)
I0403 21:56:35.674943 24766 net.cpp:148] Top shape: 24 (24)
I0403 21:56:35.674960 24766 net.cpp:148] Top shape: 24 (24)
I0403 21:56:35.674976 24766 net.cpp:148] Top shape: 24 (24)
I0403 21:56:35.674993 24766 net.cpp:148] Top shape: 24 (24)
I0403 21:56:35.675010 24766 net.cpp:148] Top shape: 24 (24)
I0403 21:56:35.675055 24766 net.cpp:156] Memory required for data: 14451744
I0403 21:56:35.675071 24766 layer_factory.hpp:77] Creating layer conv1/7x7_s2
I0403 21:56:35.675102 24766 net.cpp:91] Creating Layer conv1/7x7_s2
I0403 21:56:35.675122 24766 net.cpp:425] conv1/7x7_s2 <- data
I0403 21:56:35.675143 24766 net.cpp:399] conv1/7x7_s2 -> conv1/7x7_s2
I0403 21:56:35.819444 24766 net.cpp:141] Setting up conv1/7x7_s2
I0403 21:56:35.819530 24766 net.cpp:148] Top shape: 24 64 112 112 (19267584)
I0403 21:56:35.819550 24766 net.cpp:156] Memory required for data: 91522080
I0403 21:56:35.819587 24766 layer_factory.hpp:77] Creating layer conv1/relu_7x7
I0403 21:56:35.819622 24766 net.cpp:91] Creating Layer conv1/relu_7x7
I0403 21:56:35.819643 24766 net.cpp:425] conv1/relu_7x7 <- conv1/7x7_s2
I0403 21:56:35.819664 24766 net.cpp:386] conv1/relu_7x7 -> conv1/7x7_s2 (in-place)
I0403 21:56:35.819929 24766 net.cpp:141] Setting up conv1/relu_7x7
I0403 21:56:35.819972 24766 net.cpp:148] Top shape: 24 64 112 112 (19267584)
I0403 21:56:35.819990 24766 net.cpp:156] Memory required for data: 168592416
I0403 21:56:35.820013 24766 layer_factory.hpp:77] Creating layer pool1/3x3_s2
I0403 21:56:35.820039 24766 net.cpp:91] Creating Layer pool1/3x3_s2
I0403 21:56:35.820070 24766 net.cpp:425] pool1/3x3_s2 <- conv1/7x7_s2
I0403 21:56:35.820106 24766 net.cpp:399] pool1/3x3_s2 -> pool1/3x3_s2
I0403 21:56:35.820197 24766 net.cpp:141] Setting up pool1/3x3_s2
I0403 21:56:35.820248 24766 net.cpp:148] Top shape: 24 64 56 56 (4816896)
I0403 21:56:35.820273 24766 net.cpp:156] Memory required for data: 187860000
I0403 21:56:35.820291 24766 layer_factory.hpp:77] Creating layer pool1/norm1
I0403 21:56:35.820328 24766 net.cpp:91] Creating Layer pool1/norm1
I0403 21:56:35.820349 24766 net.cpp:425] pool1/norm1 <- pool1/3x3_s2
I0403 21:56:35.820370 24766 net.cpp:399] pool1/norm1 -> pool1/norm1
I0403 21:56:35.820667 24766 net.cpp:141] Setting up pool1/norm1
I0403 21:56:35.820698 24766 net.cpp:148] Top shape: 24 64 56 56 (4816896)
I0403 21:56:35.820714 24766 net.cpp:156] Memory required for data: 207127584
I0403 21:56:35.820731 24766 layer_factory.hpp:77] Creating layer conv2/3x3_reduce
I0403 21:56:35.820757 24766 net.cpp:91] Creating Layer conv2/3x3_reduce
I0403 21:56:35.820775 24766 net.cpp:425] conv2/3x3_reduce <- pool1/norm1
I0403 21:56:35.820796 24766 net.cpp:399] conv2/3x3_reduce -> conv2/3x3_reduce
I0403 21:56:35.822204 24766 net.cpp:141] Setting up conv2/3x3_reduce
I0403 21:56:35.822242 24766 net.cpp:148] Top shape: 24 64 56 56 (4816896)
I0403 21:56:35.822262 24766 net.cpp:156] Memory required for data: 226395168
I0403 21:56:35.822284 24766 layer_factory.hpp:77] Creating layer conv2/relu_3x3_reduce
I0403 21:56:35.822305 24766 net.cpp:91] Creating Layer conv2/relu_3x3_reduce
I0403 21:56:35.822324 24766 net.cpp:425] conv2/relu_3x3_reduce <- conv2/3x3_reduce
I0403 21:56:35.822343 24766 net.cpp:386] conv2/relu_3x3_reduce -> conv2/3x3_reduce (in-place)
I0403 21:56:35.822623 24766 net.cpp:141] Setting up conv2/relu_3x3_reduce
I0403 21:56:35.822651 24766 net.cpp:148] Top shape: 24 64 56 56 (4816896)
I0403 21:56:35.822669 24766 net.cpp:156] Memory required for data: 245662752
I0403 21:56:35.822685 24766 layer_factory.hpp:77] Creating layer conv2/3x3
I0403 21:56:35.822710 24766 net.cpp:91] Creating Layer conv2/3x3
I0403 21:56:35.822729 24766 net.cpp:425] conv2/3x3 <- conv2/3x3_reduce
I0403 21:56:35.822752 24766 net.cpp:399] conv2/3x3 -> conv2/3x3
I0403 21:56:35.825189 24766 net.cpp:141] Setting up conv2/3x3
I0403 21:56:35.825222 24766 net.cpp:148] Top shape: 24 192 56 56 (14450688)
I0403 21:56:35.825244 24766 net.cpp:156] Memory required for data: 303465504
I0403 21:56:35.825268 24766 layer_factory.hpp:77] Creating layer conv2/relu_3x3
I0403 21:56:35.825290 24766 net.cpp:91] Creating Layer conv2/relu_3x3
I0403 21:56:35.825307 24766 net.cpp:425] conv2/relu_3x3 <- conv2/3x3
I0403 21:56:35.825330 24766 net.cpp:386] conv2/relu_3x3 -> conv2/3x3 (in-place)
I0403 21:56:35.825516 24766 net.cpp:141] Setting up conv2/relu_3x3
I0403 21:56:35.825547 24766 net.cpp:148] Top shape: 24 192 56 56 (14450688)
I0403 21:56:35.825595 24766 net.cpp:156] Memory required for data: 361268256
I0403 21:56:35.825613 24766 layer_factory.hpp:77] Creating layer conv2/norm2
I0403 21:56:35.825634 24766 net.cpp:91] Creating Layer conv2/norm2
I0403 21:56:35.825651 24766 net.cpp:425] conv2/norm2 <- conv2/3x3
I0403 21:56:35.825673 24766 net.cpp:399] conv2/norm2 -> conv2/norm2
I0403 21:56:35.825994 24766 net.cpp:141] Setting up conv2/norm2
I0403 21:56:35.826025 24766 net.cpp:148] Top shape: 24 192 56 56 (14450688)
I0403 21:56:35.826041 24766 net.cpp:156] Memory required for data: 419071008
I0403 21:56:35.826057 24766 layer_factory.hpp:77] Creating layer pool2/3x3_s2
I0403 21:56:35.826076 24766 net.cpp:91] Creating Layer pool2/3x3_s2
I0403 21:56:35.826093 24766 net.cpp:425] pool2/3x3_s2 <- conv2/norm2
I0403 21:56:35.826115 24766 net.cpp:399] pool2/3x3_s2 -> pool2/3x3_s2
I0403 21:56:35.826171 24766 net.cpp:141] Setting up pool2/3x3_s2
I0403 21:56:35.826196 24766 net.cpp:148] Top shape: 24 192 28 28 (3612672)
I0403 21:56:35.826213 24766 net.cpp:156] Memory required for data: 433521696
I0403 21:56:35.826233 24766 layer_factory.hpp:77] Creating layer pool2/3x3_s2_pool2/3x3_s2_0_split
I0403 21:56:35.826256 24766 net.cpp:91] Creating Layer pool2/3x3_s2_pool2/3x3_s2_0_split
I0403 21:56:35.826275 24766 net.cpp:425] pool2/3x3_s2_pool2/3x3_s2_0_split <- pool2/3x3_s2
I0403 21:56:35.826294 24766 net.cpp:399] pool2/3x3_s2_pool2/3x3_s2_0_split -> pool2/3x3_s2_pool2/3x3_s2_0_split_0
I0403 21:56:35.826318 24766 net.cpp:399] pool2/3x3_s2_pool2/3x3_s2_0_split -> pool2/3x3_s2_pool2/3x3_s2_0_split_1
I0403 21:56:35.826340 24766 net.cpp:399] pool2/3x3_s2_pool2/3x3_s2_0_split -> pool2/3x3_s2_pool2/3x3_s2_0_split_2
I0403 21:56:35.826361 24766 net.cpp:399] pool2/3x3_s2_pool2/3x3_s2_0_split -> pool2/3x3_s2_pool2/3x3_s2_0_split_3
I0403 21:56:35.826437 24766 net.cpp:141] Setting up pool2/3x3_s2_pool2/3x3_s2_0_split
I0403 21:56:35.826462 24766 net.cpp:148] Top shape: 24 192 28 28 (3612672)
I0403 21:56:35.826480 24766 net.cpp:148] Top shape: 24 192 28 28 (3612672)
I0403 21:56:35.826496 24766 net.cpp:148] Top shape: 24 192 28 28 (3612672)
I0403 21:56:35.826514 24766 net.cpp:148] Top shape: 24 192 28 28 (3612672)
I0403 21:56:35.826529 24766 net.cpp:156] Memory required for data: 491324448
I0403 21:56:35.826545 24766 layer_factory.hpp:77] Creating layer inception_3a/1x1
I0403 21:56:35.826570 24766 net.cpp:91] Creating Layer inception_3a/1x1
I0403 21:56:35.826588 24766 net.cpp:425] inception_3a/1x1 <- pool2/3x3_s2_pool2/3x3_s2_0_split_0
I0403 21:56:35.826611 24766 net.cpp:399] inception_3a/1x1 -> inception_3a/1x1
I0403 21:56:35.828243 24766 net.cpp:141] Setting up inception_3a/1x1
I0403 21:56:35.828274 24766 net.cpp:148] Top shape: 24 64 28 28 (1204224)
I0403 21:56:35.828292 24766 net.cpp:156] Memory required for data: 496141344
I0403 21:56:35.828313 24766 layer_factory.hpp:77] Creating layer inception_3a/relu_1x1
I0403 21:56:35.828332 24766 net.cpp:91] Creating Layer inception_3a/relu_1x1
I0403 21:56:35.828354 24766 net.cpp:425] inception_3a/relu_1x1 <- inception_3a/1x1
I0403 21:56:35.828373 24766 net.cpp:386] inception_3a/relu_1x1 -> inception_3a/1x1 (in-place)
I0403 21:56:35.828554 24766 net.cpp:141] Setting up inception_3a/relu_1x1
I0403 21:56:35.828582 24766 net.cpp:148] Top shape: 24 64 28 28 (1204224)
I0403 21:56:35.828598 24766 net.cpp:156] Memory required for data: 500958240
I0403 21:56:35.828614 24766 layer_factory.hpp:77] Creating layer inception_3a/3x3_reduce
I0403 21:56:35.828639 24766 net.cpp:91] Creating Layer inception_3a/3x3_reduce
I0403 21:56:35.828656 24766 net.cpp:425] inception_3a/3x3_reduce <- pool2/3x3_s2_pool2/3x3_s2_0_split_1
I0403 21:56:35.828680 24766 net.cpp:399] inception_3a/3x3_reduce -> inception_3a/3x3_reduce
I0403 21:56:35.830474 24766 net.cpp:141] Setting up inception_3a/3x3_reduce
I0403 21:56:35.830507 24766 net.cpp:148] Top shape: 24 96 28 28 (1806336)
I0403 21:56:35.830523 24766 net.cpp:156] Memory required for data: 508183584
I0403 21:56:35.830548 24766 layer_factory.hpp:77] Creating layer inception_3a/relu_3x3_reduce
I0403 21:56:35.830586 24766 net.cpp:91] Creating Layer inception_3a/relu_3x3_reduce
I0403 21:56:35.830607 24766 net.cpp:425] inception_3a/relu_3x3_reduce <- inception_3a/3x3_reduce
I0403 21:56:35.830626 24766 net.cpp:386] inception_3a/relu_3x3_reduce -> inception_3a/3x3_reduce (in-place)
I0403 21:56:35.830819 24766 net.cpp:141] Setting up inception_3a/relu_3x3_reduce
I0403 21:56:35.830847 24766 net.cpp:148] Top shape: 24 96 28 28 (1806336)
I0403 21:56:35.830863 24766 net.cpp:156] Memory required for data: 515408928
I0403 21:56:35.830880 24766 layer_factory.hpp:77] Creating layer inception_3a/3x3
I0403 21:56:35.830904 24766 net.cpp:91] Creating Layer inception_3a/3x3
I0403 21:56:35.830924 24766 net.cpp:425] inception_3a/3x3 <- inception_3a/3x3_reduce
I0403 21:56:35.830947 24766 net.cpp:399] inception_3a/3x3 -> inception_3a/3x3
I0403 21:56:35.832679 24766 net.cpp:141] Setting up inception_3a/3x3
I0403 21:56:35.832710 24766 net.cpp:148] Top shape: 24 128 28 28 (2408448)
I0403 21:56:35.832727 24766 net.cpp:156] Memory required for data: 525042720
I0403 21:56:35.832748 24766 layer_factory.hpp:77] Creating layer inception_3a/relu_3x3
I0403 21:56:35.832770 24766 net.cpp:91] Creating Layer inception_3a/relu_3x3
I0403 21:56:35.832789 24766 net.cpp:425] inception_3a/relu_3x3 <- inception_3a/3x3
I0403 21:56:35.832808 24766 net.cpp:386] inception_3a/relu_3x3 -> inception_3a/3x3 (in-place)
I0403 21:56:35.833092 24766 net.cpp:141] Setting up inception_3a/relu_3x3
I0403 21:56:35.833122 24766 net.cpp:148] Top shape: 24 128 28 28 (2408448)
I0403 21:56:35.833139 24766 net.cpp:156] Memory required for data: 534676512
I0403 21:56:35.833155 24766 layer_factory.hpp:77] Creating layer inception_3a/5x5_reduce
I0403 21:56:35.833179 24766 net.cpp:91] Creating Layer inception_3a/5x5_reduce
I0403 21:56:35.833199 24766 net.cpp:425] inception_3a/5x5_reduce <- pool2/3x3_s2_pool2/3x3_s2_0_split_2
I0403 21:56:35.833223 24766 net.cpp:399] inception_3a/5x5_reduce -> inception_3a/5x5_reduce
I0403 21:56:35.834240 24766 net.cpp:141] Setting up inception_3a/5x5_reduce
I0403 21:56:35.834271 24766 net.cpp:148] Top shape: 24 16 28 28 (301056)
I0403 21:56:35.834287 24766 net.cpp:156] Memory required for data: 535880736
I0403 21:56:35.834306 24766 layer_factory.hpp:77] Creating layer inception_3a/relu_5x5_reduce
I0403 21:56:35.834328 24766 net.cpp:91] Creating Layer inception_3a/relu_5x5_reduce
I0403 21:56:35.834347 24766 net.cpp:425] inception_3a/relu_5x5_reduce <- inception_3a/5x5_reduce
I0403 21:56:35.834367 24766 net.cpp:386] inception_3a/relu_5x5_reduce -> inception_3a/5x5_reduce (in-place)
I0403 21:56:35.834679 24766 net.cpp:141] Setting up inception_3a/relu_5x5_reduce
I0403 21:56:35.834710 24766 net.cpp:148] Top shape: 24 16 28 28 (301056)
I0403 21:56:35.834728 24766 net.cpp:156] Memory required for data: 537084960
I0403 21:56:35.834745 24766 layer_factory.hpp:77] Creating layer inception_3a/5x5
I0403 21:56:35.834769 24766 net.cpp:91] Creating Layer inception_3a/5x5
I0403 21:56:35.834787 24766 net.cpp:425] inception_3a/5x5 <- inception_3a/5x5_reduce
I0403 21:56:35.834808 24766 net.cpp:399] inception_3a/5x5 -> inception_3a/5x5
I0403 21:56:35.835867 24766 net.cpp:141] Setting up inception_3a/5x5
I0403 21:56:35.835897 24766 net.cpp:148] Top shape: 24 32 28 28 (602112)
I0403 21:56:35.835914 24766 net.cpp:156] Memory required for data: 539493408
I0403 21:56:35.835934 24766 layer_factory.hpp:77] Creating layer inception_3a/relu_5x5
I0403 21:56:35.835958 24766 net.cpp:91] Creating Layer inception_3a/relu_5x5
I0403 21:56:35.835978 24766 net.cpp:425] inception_3a/relu_5x5 <- inception_3a/5x5
I0403 21:56:35.835997 24766 net.cpp:386] inception_3a/relu_5x5 -> inception_3a/5x5 (in-place)
I0403 21:56:35.836179 24766 net.cpp:141] Setting up inception_3a/relu_5x5
I0403 21:56:35.836206 24766 net.cpp:148] Top shape: 24 32 28 28 (602112)
I0403 21:56:35.836223 24766 net.cpp:156] Memory required for data: 541901856
I0403 21:56:35.836244 24766 layer_factory.hpp:77] Creating layer inception_3a/pool
I0403 21:56:35.836267 24766 net.cpp:91] Creating Layer inception_3a/pool
I0403 21:56:35.836299 24766 net.cpp:425] inception_3a/pool <- pool2/3x3_s2_pool2/3x3_s2_0_split_3
I0403 21:56:35.836321 24766 net.cpp:399] inception_3a/pool -> inception_3a/pool
I0403 21:56:35.836383 24766 net.cpp:141] Setting up inception_3a/pool
I0403 21:56:35.836408 24766 net.cpp:148] Top shape: 24 192 28 28 (3612672)
I0403 21:56:35.836424 24766 net.cpp:156] Memory required for data: 556352544
I0403 21:56:35.836441 24766 layer_factory.hpp:77] Creating layer inception_3a/pool_proj
I0403 21:56:35.836465 24766 net.cpp:91] Creating Layer inception_3a/pool_proj
I0403 21:56:35.836485 24766 net.cpp:425] inception_3a/pool_proj <- inception_3a/pool
I0403 21:56:35.836508 24766 net.cpp:399] inception_3a/pool_proj -> inception_3a/pool_proj
I0403 21:56:35.837525 24766 net.cpp:141] Setting up inception_3a/pool_proj
I0403 21:56:35.837558 24766 net.cpp:148] Top shape: 24 32 28 28 (602112)
I0403 21:56:35.837575 24766 net.cpp:156] Memory required for data: 558760992
I0403 21:56:35.837599 24766 layer_factory.hpp:77] Creating layer inception_3a/relu_pool_proj
I0403 21:56:35.837623 24766 net.cpp:91] Creating Layer inception_3a/relu_pool_proj
I0403 21:56:35.837642 24766 net.cpp:425] inception_3a/relu_pool_proj <- inception_3a/pool_proj
I0403 21:56:35.837661 24766 net.cpp:386] inception_3a/relu_pool_proj -> inception_3a/pool_proj (in-place)
I0403 21:56:35.837952 24766 net.cpp:141] Setting up inception_3a/relu_pool_proj
I0403 21:56:35.837981 24766 net.cpp:148] Top shape: 24 32 28 28 (602112)
I0403 21:56:35.837998 24766 net.cpp:156] Memory required for data: 561169440
I0403 21:56:35.838016 24766 layer_factory.hpp:77] Creating layer inception_3a/output
I0403 21:56:35.838034 24766 net.cpp:91] Creating Layer inception_3a/output
I0403 21:56:35.838054 24766 net.cpp:425] inception_3a/output <- inception_3a/1x1
I0403 21:56:35.838073 24766 net.cpp:425] inception_3a/output <- inception_3a/3x3
I0403 21:56:35.838090 24766 net.cpp:425] inception_3a/output <- inception_3a/5x5
I0403 21:56:35.838107 24766 net.cpp:425] inception_3a/output <- inception_3a/pool_proj
I0403 21:56:35.838126 24766 net.cpp:399] inception_3a/output -> inception_3a/output
I0403 21:56:35.838174 24766 net.cpp:141] Setting up inception_3a/output
I0403 21:56:35.838202 24766 net.cpp:148] Top shape: 24 256 28 28 (4816896)
I0403 21:56:35.838220 24766 net.cpp:156] Memory required for data: 580437024
I0403 21:56:35.838249 24766 layer_factory.hpp:77] Creating layer inception_3a/output_inception_3a/output_0_split
I0403 21:56:35.838270 24766 net.cpp:91] Creating Layer inception_3a/output_inception_3a/output_0_split
I0403 21:56:35.838289 24766 net.cpp:425] inception_3a/output_inception_3a/output_0_split <- inception_3a/output
I0403 21:56:35.838310 24766 net.cpp:399] inception_3a/output_inception_3a/output_0_split -> inception_3a/output_inception_3a/output_0_split_0
I0403 21:56:35.838333 24766 net.cpp:399] inception_3a/output_inception_3a/output_0_split -> inception_3a/output_inception_3a/output_0_split_1
I0403 21:56:35.838357 24766 net.cpp:399] inception_3a/output_inception_3a/output_0_split -> inception_3a/output_inception_3a/output_0_split_2
I0403 21:56:35.838382 24766 net.cpp:399] inception_3a/output_inception_3a/output_0_split -> inception_3a/output_inception_3a/output_0_split_3
I0403 21:56:35.838459 24766 net.cpp:141] Setting up inception_3a/output_inception_3a/output_0_split
I0403 21:56:35.838485 24766 net.cpp:148] Top shape: 24 256 28 28 (4816896)
I0403 21:56:35.838503 24766 net.cpp:148] Top shape: 24 256 28 28 (4816896)
I0403 21:56:35.838521 24766 net.cpp:148] Top shape: 24 256 28 28 (4816896)
I0403 21:56:35.838538 24766 net.cpp:148] Top shape: 24 256 28 28 (4816896)
I0403 21:56:35.838552 24766 net.cpp:156] Memory required for data: 657507360
I0403 21:56:35.838568 24766 layer_factory.hpp:77] Creating layer inception_3b/1x1
I0403 21:56:35.838593 24766 net.cpp:91] Creating Layer inception_3b/1x1
I0403 21:56:35.838611 24766 net.cpp:425] inception_3b/1x1 <- inception_3a/output_inception_3a/output_0_split_0
I0403 21:56:35.838634 24766 net.cpp:399] inception_3b/1x1 -> inception_3b/1x1
I0403 21:56:35.839836 24766 net.cpp:141] Setting up inception_3b/1x1
I0403 21:56:35.839879 24766 net.cpp:148] Top shape: 24 128 28 28 (2408448)
I0403 21:56:35.839897 24766 net.cpp:156] Memory required for data: 667141152
I0403 21:56:35.839917 24766 layer_factory.hpp:77] Creating layer inception_3b/relu_1x1
I0403 21:56:35.839936 24766 net.cpp:91] Creating Layer inception_3b/relu_1x1
I0403 21:56:35.839956 24766 net.cpp:425] inception_3b/relu_1x1 <- inception_3b/1x1
I0403 21:56:35.839977 24766 net.cpp:386] inception_3b/relu_1x1 -> inception_3b/1x1 (in-place)
I0403 21:56:35.840159 24766 net.cpp:141] Setting up inception_3b/relu_1x1
I0403 21:56:35.840188 24766 net.cpp:148] Top shape: 24 128 28 28 (2408448)
I0403 21:56:35.840204 24766 net.cpp:156] Memory required for data: 676774944
I0403 21:56:35.840220 24766 layer_factory.hpp:77] Creating layer inception_3b/3x3_reduce
I0403 21:56:35.840250 24766 net.cpp:91] Creating Layer inception_3b/3x3_reduce
I0403 21:56:35.840270 24766 net.cpp:425] inception_3b/3x3_reduce <- inception_3a/output_inception_3a/output_0_split_1
I0403 21:56:35.840292 24766 net.cpp:399] inception_3b/3x3_reduce -> inception_3b/3x3_reduce
I0403 21:56:35.841480 24766 net.cpp:141] Setting up inception_3b/3x3_reduce
I0403 21:56:35.841513 24766 net.cpp:148] Top shape: 24 128 28 28 (2408448)
I0403 21:56:35.841531 24766 net.cpp:156] Memory required for data: 686408736
I0403 21:56:35.841552 24766 layer_factory.hpp:77] Creating layer inception_3b/relu_3x3_reduce
I0403 21:56:35.841570 24766 net.cpp:91] Creating Layer inception_3b/relu_3x3_reduce
I0403 21:56:35.841588 24766 net.cpp:425] inception_3b/relu_3x3_reduce <- inception_3b/3x3_reduce
I0403 21:56:35.841609 24766 net.cpp:386] inception_3b/relu_3x3_reduce -> inception_3b/3x3_reduce (in-place)
I0403 21:56:35.841794 24766 net.cpp:141] Setting up inception_3b/relu_3x3_reduce
I0403 21:56:35.841820 24766 net.cpp:148] Top shape: 24 128 28 28 (2408448)
I0403 21:56:35.841836 24766 net.cpp:156] Memory required for data: 696042528
I0403 21:56:35.841853 24766 layer_factory.hpp:77] Creating layer inception_3b/3x3
I0403 21:56:35.841881 24766 net.cpp:91] Creating Layer inception_3b/3x3
I0403 21:56:35.841900 24766 net.cpp:425] inception_3b/3x3 <- inception_3b/3x3_reduce
I0403 21:56:35.841920 24766 net.cpp:399] inception_3b/3x3 -> inception_3b/3x3
I0403 21:56:35.844991 24766 net.cpp:141] Setting up inception_3b/3x3
I0403 21:56:35.845022 24766 net.cpp:148] Top shape: 24 192 28 28 (3612672)
I0403 21:56:35.845041 24766 net.cpp:156] Memory required for data: 710493216
I0403 21:56:35.845060 24766 layer_factory.hpp:77] Creating layer inception_3b/relu_3x3
I0403 21:56:35.845082 24766 net.cpp:91] Creating Layer inception_3b/relu_3x3
I0403 21:56:35.845100 24766 net.cpp:425] inception_3b/relu_3x3 <- inception_3b/3x3
I0403 21:56:35.845118 24766 net.cpp:386] inception_3b/relu_3x3 -> inception_3b/3x3 (in-place)
I0403 21:56:35.845412 24766 net.cpp:141] Setting up inception_3b/relu_3x3
I0403 21:56:35.845440 24766 net.cpp:148] Top shape: 24 192 28 28 (3612672)
I0403 21:56:35.845458 24766 net.cpp:156] Memory required for data: 724943904
I0403 21:56:35.845474 24766 layer_factory.hpp:77] Creating layer inception_3b/5x5_reduce
I0403 21:56:35.845499 24766 net.cpp:91] Creating Layer inception_3b/5x5_reduce
I0403 21:56:35.845517 24766 net.cpp:425] inception_3b/5x5_reduce <- inception_3a/output_inception_3a/output_0_split_2
I0403 21:56:35.845544 24766 net.cpp:399] inception_3b/5x5_reduce -> inception_3b/5x5_reduce
I0403 21:56:35.846585 24766 net.cpp:141] Setting up inception_3b/5x5_reduce
I0403 21:56:35.846616 24766 net.cpp:148] Top shape: 24 32 28 28 (602112)
I0403 21:56:35.846633 24766 net.cpp:156] Memory required for data: 727352352
I0403 21:56:35.846653 24766 layer_factory.hpp:77] Creating layer inception_3b/relu_5x5_reduce
I0403 21:56:35.846675 24766 net.cpp:91] Creating Layer inception_3b/relu_5x5_reduce
I0403 21:56:35.846694 24766 net.cpp:425] inception_3b/relu_5x5_reduce <- inception_3b/5x5_reduce
I0403 21:56:35.846714 24766 net.cpp:386] inception_3b/relu_5x5_reduce -> inception_3b/5x5_reduce (in-place)
I0403 21:56:35.846911 24766 net.cpp:141] Setting up inception_3b/relu_5x5_reduce
I0403 21:56:35.846940 24766 net.cpp:148] Top shape: 24 32 28 28 (602112)
I0403 21:56:35.846956 24766 net.cpp:156] Memory required for data: 729760800
I0403 21:56:35.846971 24766 layer_factory.hpp:77] Creating layer inception_3b/5x5
I0403 21:56:35.846997 24766 net.cpp:91] Creating Layer inception_3b/5x5
I0403 21:56:35.847015 24766 net.cpp:425] inception_3b/5x5 <- inception_3b/5x5_reduce
I0403 21:56:35.847038 24766 net.cpp:399] inception_3b/5x5 -> inception_3b/5x5
I0403 21:56:35.849129 24766 net.cpp:141] Setting up inception_3b/5x5
I0403 21:56:35.849162 24766 net.cpp:148] Top shape: 24 96 28 28 (1806336)
I0403 21:56:35.849181 24766 net.cpp:156] Memory required for data: 736986144
I0403 21:56:35.849202 24766 layer_factory.hpp:77] Creating layer inception_3b/relu_5x5
I0403 21:56:35.849222 24766 net.cpp:91] Creating Layer inception_3b/relu_5x5
I0403 21:56:35.849246 24766 net.cpp:425] inception_3b/relu_5x5 <- inception_3b/5x5
I0403 21:56:35.849269 24766 net.cpp:386] inception_3b/relu_5x5 -> inception_3b/5x5 (in-place)
I0403 21:56:35.849475 24766 net.cpp:141] Setting up inception_3b/relu_5x5
I0403 21:56:35.849503 24766 net.cpp:148] Top shape: 24 96 28 28 (1806336)
I0403 21:56:35.849520 24766 net.cpp:156] Memory required for data: 744211488
I0403 21:56:35.849537 24766 layer_factory.hpp:77] Creating layer inception_3b/pool
I0403 21:56:35.849556 24766 net.cpp:91] Creating Layer inception_3b/pool
I0403 21:56:35.849573 24766 net.cpp:425] inception_3b/pool <- inception_3a/output_inception_3a/output_0_split_3
I0403 21:56:35.849592 24766 net.cpp:399] inception_3b/pool -> inception_3b/pool
I0403 21:56:35.849654 24766 net.cpp:141] Setting up inception_3b/pool
I0403 21:56:35.849680 24766 net.cpp:148] Top shape: 24 256 28 28 (4816896)
I0403 21:56:35.849696 24766 net.cpp:156] Memory required for data: 763479072
I0403 21:56:35.849712 24766 layer_factory.hpp:77] Creating layer inception_3b/pool_proj
I0403 21:56:35.849736 24766 net.cpp:91] Creating Layer inception_3b/pool_proj
I0403 21:56:35.849756 24766 net.cpp:425] inception_3b/pool_proj <- inception_3b/pool
I0403 21:56:35.849777 24766 net.cpp:399] inception_3b/pool_proj -> inception_3b/pool_proj
I0403 21:56:35.850908 24766 net.cpp:141] Setting up inception_3b/pool_proj
I0403 21:56:35.850939 24766 net.cpp:148] Top shape: 24 64 28 28 (1204224)
I0403 21:56:35.850957 24766 net.cpp:156] Memory required for data: 768295968
I0403 21:56:35.850977 24766 layer_factory.hpp:77] Creating layer inception_3b/relu_pool_proj
I0403 21:56:35.850999 24766 net.cpp:91] Creating Layer inception_3b/relu_pool_proj
I0403 21:56:35.851018 24766 net.cpp:425] inception_3b/relu_pool_proj <- inception_3b/pool_proj
I0403 21:56:35.851037 24766 net.cpp:386] inception_3b/relu_pool_proj -> inception_3b/pool_proj (in-place)
I0403 21:56:35.851459 24766 net.cpp:141] Setting up inception_3b/relu_pool_proj
I0403 21:56:35.851487 24766 net.cpp:148] Top shape: 24 64 28 28 (1204224)
I0403 21:56:35.851505 24766 net.cpp:156] Memory required for data: 773112864
I0403 21:56:35.851521 24766 layer_factory.hpp:77] Creating layer inception_3b/output
I0403 21:56:35.851542 24766 net.cpp:91] Creating Layer inception_3b/output
I0403 21:56:35.851559 24766 net.cpp:425] inception_3b/output <- inception_3b/1x1
I0403 21:56:35.851577 24766 net.cpp:425] inception_3b/output <- inception_3b/3x3
I0403 21:56:35.851594 24766 net.cpp:425] inception_3b/output <- inception_3b/5x5
I0403 21:56:35.851613 24766 net.cpp:425] inception_3b/output <- inception_3b/pool_proj
I0403 21:56:35.851631 24766 net.cpp:399] inception_3b/output -> inception_3b/output
I0403 21:56:35.851678 24766 net.cpp:141] Setting up inception_3b/output
I0403 21:56:35.851704 24766 net.cpp:148] Top shape: 24 480 28 28 (9031680)
I0403 21:56:35.851721 24766 net.cpp:156] Memory required for data: 809239584
I0403 21:56:35.851737 24766 layer_factory.hpp:77] Creating layer pool3/3x3_s2
I0403 21:56:35.851757 24766 net.cpp:91] Creating Layer pool3/3x3_s2
I0403 21:56:35.851774 24766 net.cpp:425] pool3/3x3_s2 <- inception_3b/output
I0403 21:56:35.851811 24766 net.cpp:399] pool3/3x3_s2 -> pool3/3x3_s2
I0403 21:56:35.851874 24766 net.cpp:141] Setting up pool3/3x3_s2
I0403 21:56:35.851902 24766 net.cpp:148] Top shape: 24 480 14 14 (2257920)
I0403 21:56:35.851918 24766 net.cpp:156] Memory required for data: 818271264
I0403 21:56:35.851934 24766 layer_factory.hpp:77] Creating layer pool3/3x3_s2_pool3/3x3_s2_0_split
I0403 21:56:35.851954 24766 net.cpp:91] Creating Layer pool3/3x3_s2_pool3/3x3_s2_0_split
I0403 21:56:35.851970 24766 net.cpp:425] pool3/3x3_s2_pool3/3x3_s2_0_split <- pool3/3x3_s2
I0403 21:56:35.851989 24766 net.cpp:399] pool3/3x3_s2_pool3/3x3_s2_0_split -> pool3/3x3_s2_pool3/3x3_s2_0_split_0
I0403 21:56:35.852015 24766 net.cpp:399] pool3/3x3_s2_pool3/3x3_s2_0_split -> pool3/3x3_s2_pool3/3x3_s2_0_split_1
I0403 21:56:35.852038 24766 net.cpp:399] pool3/3x3_s2_pool3/3x3_s2_0_split -> pool3/3x3_s2_pool3/3x3_s2_0_split_2
I0403 21:56:35.852058 24766 net.cpp:399] pool3/3x3_s2_pool3/3x3_s2_0_split -> pool3/3x3_s2_pool3/3x3_s2_0_split_3
I0403 21:56:35.852140 24766 net.cpp:141] Setting up pool3/3x3_s2_pool3/3x3_s2_0_split
I0403 21:56:35.852165 24766 net.cpp:148] Top shape: 24 480 14 14 (2257920)
I0403 21:56:35.852182 24766 net.cpp:148] Top shape: 24 480 14 14 (2257920)
I0403 21:56:35.852200 24766 net.cpp:148] Top shape: 24 480 14 14 (2257920)
I0403 21:56:35.852216 24766 net.cpp:148] Top shape: 24 480 14 14 (2257920)
I0403 21:56:35.852237 24766 net.cpp:156] Memory required for data: 854397984
I0403 21:56:35.852255 24766 layer_factory.hpp:77] Creating layer inception_4a/1x1
I0403 21:56:35.852283 24766 net.cpp:91] Creating Layer inception_4a/1x1
I0403 21:56:35.852300 24766 net.cpp:425] inception_4a/1x1 <- pool3/3x3_s2_pool3/3x3_s2_0_split_0
I0403 21:56:35.852320 24766 net.cpp:399] inception_4a/1x1 -> inception_4a/1x1
I0403 21:56:35.853981 24766 net.cpp:141] Setting up inception_4a/1x1
I0403 21:56:35.854013 24766 net.cpp:148] Top shape: 24 192 14 14 (903168)
I0403 21:56:35.854032 24766 net.cpp:156] Memory required for data: 858010656
I0403 21:56:35.854051 24766 layer_factory.hpp:77] Creating layer inception_4a/relu_1x1
I0403 21:56:35.854070 24766 net.cpp:91] Creating Layer inception_4a/relu_1x1
I0403 21:56:35.854089 24766 net.cpp:425] inception_4a/relu_1x1 <- inception_4a/1x1
I0403 21:56:35.854110 24766 net.cpp:386] inception_4a/relu_1x1 -> inception_4a/1x1 (in-place)
I0403 21:56:35.854300 24766 net.cpp:141] Setting up inception_4a/relu_1x1
I0403 21:56:35.854326 24766 net.cpp:148] Top shape: 24 192 14 14 (903168)
I0403 21:56:35.854342 24766 net.cpp:156] Memory required for data: 861623328
I0403 21:56:35.854359 24766 layer_factory.hpp:77] Creating layer inception_4a/3x3_reduce
I0403 21:56:35.854382 24766 net.cpp:91] Creating Layer inception_4a/3x3_reduce
I0403 21:56:35.854401 24766 net.cpp:425] inception_4a/3x3_reduce <- pool3/3x3_s2_pool3/3x3_s2_0_split_1
I0403 21:56:35.854424 24766 net.cpp:399] inception_4a/3x3_reduce -> inception_4a/3x3_reduce
I0403 21:56:35.855767 24766 net.cpp:141] Setting up inception_4a/3x3_reduce
I0403 21:56:35.855800 24766 net.cpp:148] Top shape: 24 96 14 14 (451584)
I0403 21:56:35.855818 24766 net.cpp:156] Memory required for data: 863429664
I0403 21:56:35.855844 24766 layer_factory.hpp:77] Creating layer inception_4a/relu_3x3_reduce
I0403 21:56:35.855866 24766 net.cpp:91] Creating Layer inception_4a/relu_3x3_reduce
I0403 21:56:35.855885 24766 net.cpp:425] inception_4a/relu_3x3_reduce <- inception_4a/3x3_reduce
I0403 21:56:35.855903 24766 net.cpp:386] inception_4a/relu_3x3_reduce -> inception_4a/3x3_reduce (in-place)
I0403 21:56:35.856091 24766 net.cpp:141] Setting up inception_4a/relu_3x3_reduce
I0403 21:56:35.856119 24766 net.cpp:148] Top shape: 24 96 14 14 (451584)
I0403 21:56:35.856135 24766 net.cpp:156] Memory required for data: 865236000
I0403 21:56:35.856153 24766 layer_factory.hpp:77] Creating layer inception_4a/3x3
I0403 21:56:35.856175 24766 net.cpp:91] Creating Layer inception_4a/3x3
I0403 21:56:35.856194 24766 net.cpp:425] inception_4a/3x3 <- inception_4a/3x3_reduce
I0403 21:56:35.856217 24766 net.cpp:399] inception_4a/3x3 -> inception_4a/3x3
I0403 21:56:35.859061 24766 net.cpp:141] Setting up inception_4a/3x3
I0403 21:56:35.859091 24766 net.cpp:148] Top shape: 24 208 14 14 (978432)
I0403 21:56:35.859109 24766 net.cpp:156] Memory required for data: 869149728
I0403 21:56:35.859129 24766 layer_factory.hpp:77] Creating layer inception_4a/relu_3x3
I0403 21:56:35.859148 24766 net.cpp:91] Creating Layer inception_4a/relu_3x3
I0403 21:56:35.859166 24766 net.cpp:425] inception_4a/relu_3x3 <- inception_4a/3x3
I0403 21:56:35.859189 24766 net.cpp:386] inception_4a/relu_3x3 -> inception_4a/3x3 (in-place)
I0403 21:56:35.859483 24766 net.cpp:141] Setting up inception_4a/relu_3x3
I0403 21:56:35.859513 24766 net.cpp:148] Top shape: 24 208 14 14 (978432)
I0403 21:56:35.859529 24766 net.cpp:156] Memory required for data: 873063456
I0403 21:56:35.859544 24766 layer_factory.hpp:77] Creating layer inception_4a/5x5_reduce
I0403 21:56:35.859570 24766 net.cpp:91] Creating Layer inception_4a/5x5_reduce
I0403 21:56:35.859591 24766 net.cpp:425] inception_4a/5x5_reduce <- pool3/3x3_s2_pool3/3x3_s2_0_split_2
I0403 21:56:35.859614 24766 net.cpp:399] inception_4a/5x5_reduce -> inception_4a/5x5_reduce
I0403 21:56:35.860713 24766 net.cpp:141] Setting up inception_4a/5x5_reduce
I0403 21:56:35.860743 24766 net.cpp:148] Top shape: 24 16 14 14 (75264)
I0403 21:56:35.860759 24766 net.cpp:156] Memory required for data: 873364512
I0403 21:56:35.860780 24766 layer_factory.hpp:77] Creating layer inception_4a/relu_5x5_reduce
I0403 21:56:35.860801 24766 net.cpp:91] Creating Layer inception_4a/relu_5x5_reduce
I0403 21:56:35.860821 24766 net.cpp:425] inception_4a/relu_5x5_reduce <- inception_4a/5x5_reduce
I0403 21:56:35.860841 24766 net.cpp:386] inception_4a/relu_5x5_reduce -> inception_4a/5x5_reduce (in-place)
I0403 21:56:35.861050 24766 net.cpp:141] Setting up inception_4a/relu_5x5_reduce
I0403 21:56:35.861078 24766 net.cpp:148] Top shape: 24 16 14 14 (75264)
I0403 21:56:35.861093 24766 net.cpp:156] Memory required for data: 873665568
I0403 21:56:35.861110 24766 layer_factory.hpp:77] Creating layer inception_4a/5x5
I0403 21:56:35.861134 24766 net.cpp:91] Creating Layer inception_4a/5x5
I0403 21:56:35.861155 24766 net.cpp:425] inception_4a/5x5 <- inception_4a/5x5_reduce
I0403 21:56:35.861176 24766 net.cpp:399] inception_4a/5x5 -> inception_4a/5x5
I0403 21:56:35.862287 24766 net.cpp:141] Setting up inception_4a/5x5
I0403 21:56:35.862315 24766 net.cpp:148] Top shape: 24 48 14 14 (225792)
I0403 21:56:35.862331 24766 net.cpp:156] Memory required for data: 874568736
I0403 21:56:35.862351 24766 layer_factory.hpp:77] Creating layer inception_4a/relu_5x5
I0403 21:56:35.862372 24766 net.cpp:91] Creating Layer inception_4a/relu_5x5
I0403 21:56:35.862391 24766 net.cpp:425] inception_4a/relu_5x5 <- inception_4a/5x5
I0403 21:56:35.862411 24766 net.cpp:386] inception_4a/relu_5x5 -> inception_4a/5x5 (in-place)
I0403 21:56:35.862591 24766 net.cpp:141] Setting up inception_4a/relu_5x5
I0403 21:56:35.862620 24766 net.cpp:148] Top shape: 24 48 14 14 (225792)
I0403 21:56:35.862637 24766 net.cpp:156] Memory required for data: 875471904
I0403 21:56:35.862653 24766 layer_factory.hpp:77] Creating layer inception_4a/pool
I0403 21:56:35.862673 24766 net.cpp:91] Creating Layer inception_4a/pool
I0403 21:56:35.862689 24766 net.cpp:425] inception_4a/pool <- pool3/3x3_s2_pool3/3x3_s2_0_split_3
I0403 21:56:35.862709 24766 net.cpp:399] inception_4a/pool -> inception_4a/pool
I0403 21:56:35.862771 24766 net.cpp:141] Setting up inception_4a/pool
I0403 21:56:35.862795 24766 net.cpp:148] Top shape: 24 480 14 14 (2257920)
I0403 21:56:35.862810 24766 net.cpp:156] Memory required for data: 884503584
I0403 21:56:35.862826 24766 layer_factory.hpp:77] Creating layer inception_4a/pool_proj
I0403 21:56:35.862849 24766 net.cpp:91] Creating Layer inception_4a/pool_proj
I0403 21:56:35.862866 24766 net.cpp:425] inception_4a/pool_proj <- inception_4a/pool
I0403 21:56:35.862889 24766 net.cpp:399] inception_4a/pool_proj -> inception_4a/pool_proj
I0403 21:56:35.864083 24766 net.cpp:141] Setting up inception_4a/pool_proj
I0403 21:56:35.864115 24766 net.cpp:148] Top shape: 24 64 14 14 (301056)
I0403 21:56:35.864146 24766 net.cpp:156] Memory required for data: 885707808
I0403 21:56:35.864168 24766 layer_factory.hpp:77] Creating layer inception_4a/relu_pool_proj
I0403 21:56:35.864187 24766 net.cpp:91] Creating Layer inception_4a/relu_pool_proj
I0403 21:56:35.864203 24766 net.cpp:425] inception_4a/relu_pool_proj <- inception_4a/pool_proj
I0403 21:56:35.864223 24766 net.cpp:386] inception_4a/relu_pool_proj -> inception_4a/pool_proj (in-place)
I0403 21:56:35.864516 24766 net.cpp:141] Setting up inception_4a/relu_pool_proj
I0403 21:56:35.864547 24766 net.cpp:148] Top shape: 24 64 14 14 (301056)
I0403 21:56:35.864564 24766 net.cpp:156] Memory required for data: 886912032
I0403 21:56:35.864580 24766 layer_factory.hpp:77] Creating layer inception_4a/output
I0403 21:56:35.864598 24766 net.cpp:91] Creating Layer inception_4a/output
I0403 21:56:35.864614 24766 net.cpp:425] inception_4a/output <- inception_4a/1x1
I0403 21:56:35.864632 24766 net.cpp:425] inception_4a/output <- inception_4a/3x3
I0403 21:56:35.864650 24766 net.cpp:425] inception_4a/output <- inception_4a/5x5
I0403 21:56:35.864665 24766 net.cpp:425] inception_4a/output <- inception_4a/pool_proj
I0403 21:56:35.864683 24766 net.cpp:399] inception_4a/output -> inception_4a/output
I0403 21:56:35.864729 24766 net.cpp:141] Setting up inception_4a/output
I0403 21:56:35.864753 24766 net.cpp:148] Top shape: 24 512 14 14 (2408448)
I0403 21:56:35.864769 24766 net.cpp:156] Memory required for data: 896545824
I0403 21:56:35.864785 24766 layer_factory.hpp:77] Creating layer inception_4a/output_inception_4a/output_0_split
I0403 21:56:35.864806 24766 net.cpp:91] Creating Layer inception_4a/output_inception_4a/output_0_split
I0403 21:56:35.864825 24766 net.cpp:425] inception_4a/output_inception_4a/output_0_split <- inception_4a/output
I0403 21:56:35.864842 24766 net.cpp:399] inception_4a/output_inception_4a/output_0_split -> inception_4a/output_inception_4a/output_0_split_0
I0403 21:56:35.864863 24766 net.cpp:399] inception_4a/output_inception_4a/output_0_split -> inception_4a/output_inception_4a/output_0_split_1
I0403 21:56:35.864884 24766 net.cpp:399] inception_4a/output_inception_4a/output_0_split -> inception_4a/output_inception_4a/output_0_split_2
I0403 21:56:35.864905 24766 net.cpp:399] inception_4a/output_inception_4a/output_0_split -> inception_4a/output_inception_4a/output_0_split_3
I0403 21:56:35.864929 24766 net.cpp:399] inception_4a/output_inception_4a/output_0_split -> inception_4a/output_inception_4a/output_0_split_4
I0403 21:56:35.865027 24766 net.cpp:141] Setting up inception_4a/output_inception_4a/output_0_split
I0403 21:56:35.865052 24766 net.cpp:148] Top shape: 24 512 14 14 (2408448)
I0403 21:56:35.865069 24766 net.cpp:148] Top shape: 24 512 14 14 (2408448)
I0403 21:56:35.865087 24766 net.cpp:148] Top shape: 24 512 14 14 (2408448)
I0403 21:56:35.865103 24766 net.cpp:148] Top shape: 24 512 14 14 (2408448)
I0403 21:56:35.865119 24766 net.cpp:148] Top shape: 24 512 14 14 (2408448)
I0403 21:56:35.865134 24766 net.cpp:156] Memory required for data: 944714784
I0403 21:56:35.865149 24766 layer_factory.hpp:77] Creating layer loss1/ave_pool
I0403 21:56:35.865170 24766 net.cpp:91] Creating Layer loss1/ave_pool
I0403 21:56:35.865187 24766 net.cpp:425] loss1/ave_pool <- inception_4a/output_inception_4a/output_0_split_0
I0403 21:56:35.865206 24766 net.cpp:399] loss1/ave_pool -> loss1/ave_pool
I0403 21:56:35.865414 24766 net.cpp:141] Setting up loss1/ave_pool
I0403 21:56:35.865444 24766 net.cpp:148] Top shape: 24 512 4 4 (196608)
I0403 21:56:35.865463 24766 net.cpp:156] Memory required for data: 945501216
I0403 21:56:35.865478 24766 layer_factory.hpp:77] Creating layer loss1/conv
I0403 21:56:35.865500 24766 net.cpp:91] Creating Layer loss1/conv
I0403 21:56:35.865519 24766 net.cpp:425] loss1/conv <- loss1/ave_pool
I0403 21:56:35.865538 24766 net.cpp:399] loss1/conv -> loss1/conv
I0403 21:56:35.867012 24766 net.cpp:141] Setting up loss1/conv
I0403 21:56:35.867041 24766 net.cpp:148] Top shape: 24 128 4 4 (49152)
I0403 21:56:35.867072 24766 net.cpp:156] Memory required for data: 945697824
I0403 21:56:35.867092 24766 layer_factory.hpp:77] Creating layer loss1/relu_conv
I0403 21:56:35.867111 24766 net.cpp:91] Creating Layer loss1/relu_conv
I0403 21:56:35.867132 24766 net.cpp:425] loss1/relu_conv <- loss1/conv
I0403 21:56:35.867151 24766 net.cpp:386] loss1/relu_conv -> loss1/conv (in-place)
I0403 21:56:35.867444 24766 net.cpp:141] Setting up loss1/relu_conv
I0403 21:56:35.867471 24766 net.cpp:148] Top shape: 24 128 4 4 (49152)
I0403 21:56:35.867487 24766 net.cpp:156] Memory required for data: 945894432
I0403 21:56:35.867503 24766 layer_factory.hpp:77] Creating layer loss1/fc
I0403 21:56:35.867527 24766 net.cpp:91] Creating Layer loss1/fc
I0403 21:56:35.867548 24766 net.cpp:425] loss1/fc <- loss1/conv
I0403 21:56:35.867568 24766 net.cpp:399] loss1/fc -> loss1/fc
I0403 21:56:35.886025 24766 net.cpp:141] Setting up loss1/fc
I0403 21:56:35.886059 24766 net.cpp:148] Top shape: 24 1024 (24576)
I0403 21:56:35.886076 24766 net.cpp:156] Memory required for data: 945992736
I0403 21:56:35.886096 24766 layer_factory.hpp:77] Creating layer loss1/relu_fc
I0403 21:56:35.886116 24766 net.cpp:91] Creating Layer loss1/relu_fc
I0403 21:56:35.886135 24766 net.cpp:425] loss1/relu_fc <- loss1/fc
I0403 21:56:35.886153 24766 net.cpp:386] loss1/relu_fc -> loss1/fc (in-place)
I0403 21:56:35.886346 24766 net.cpp:141] Setting up loss1/relu_fc
I0403 21:56:35.886373 24766 net.cpp:148] Top shape: 24 1024 (24576)
I0403 21:56:35.886389 24766 net.cpp:156] Memory required for data: 946091040
I0403 21:56:35.886404 24766 layer_factory.hpp:77] Creating layer loss1/drop_fc
I0403 21:56:35.886430 24766 net.cpp:91] Creating Layer loss1/drop_fc
I0403 21:56:35.886450 24766 net.cpp:425] loss1/drop_fc <- loss1/fc
I0403 21:56:35.886471 24766 net.cpp:386] loss1/drop_fc -> loss1/fc (in-place)
I0403 21:56:35.886521 24766 net.cpp:141] Setting up loss1/drop_fc
I0403 21:56:35.886545 24766 net.cpp:148] Top shape: 24 1024 (24576)
I0403 21:56:35.886561 24766 net.cpp:156] Memory required for data: 946189344
I0403 21:56:35.886576 24766 layer_factory.hpp:77] Creating layer loss1/classifier_plantvillage
I0403 21:56:35.886600 24766 net.cpp:91] Creating Layer loss1/classifier_plantvillage
I0403 21:56:35.886617 24766 net.cpp:425] loss1/classifier_plantvillage <- loss1/fc
I0403 21:56:35.886639 24766 net.cpp:399] loss1/classifier_plantvillage -> loss1/classifier_plantvillage
I0403 21:56:35.887590 24766 net.cpp:141] Setting up loss1/classifier_plantvillage
I0403 21:56:35.887621 24766 net.cpp:148] Top shape: 24 38 (912)
I0403 21:56:35.887639 24766 net.cpp:156] Memory required for data: 946192992
I0403 21:56:35.887656 24766 layer_factory.hpp:77] Creating layer loss1/classifier_plantvillage_loss1/classifier_plantvillage_0_split
I0403 21:56:35.887676 24766 net.cpp:91] Creating Layer loss1/classifier_plantvillage_loss1/classifier_plantvillage_0_split
I0403 21:56:35.887691 24766 net.cpp:425] loss1/classifier_plantvillage_loss1/classifier_plantvillage_0_split <- loss1/classifier_plantvillage
I0403 21:56:35.887712 24766 net.cpp:399] loss1/classifier_plantvillage_loss1/classifier_plantvillage_0_split -> loss1/classifier_plantvillage_loss1/classifier_plantvillage_0_split_0
I0403 21:56:35.887733 24766 net.cpp:399] loss1/classifier_plantvillage_loss1/classifier_plantvillage_0_split -> loss1/classifier_plantvillage_loss1/classifier_plantvillage_0_split_1
I0403 21:56:35.887754 24766 net.cpp:399] loss1/classifier_plantvillage_loss1/classifier_plantvillage_0_split -> loss1/classifier_plantvillage_loss1/classifier_plantvillage_0_split_2
I0403 21:56:35.887823 24766 net.cpp:141] Setting up loss1/classifier_plantvillage_loss1/classifier_plantvillage_0_split
I0403 21:56:35.887847 24766 net.cpp:148] Top shape: 24 38 (912)
I0403 21:56:35.887864 24766 net.cpp:148] Top shape: 24 38 (912)
I0403 21:56:35.887879 24766 net.cpp:148] Top shape: 24 38 (912)
I0403 21:56:35.887893 24766 net.cpp:156] Memory required for data: 946203936
I0403 21:56:35.887908 24766 layer_factory.hpp:77] Creating layer inception_4b/1x1
I0403 21:56:35.887931 24766 net.cpp:91] Creating Layer inception_4b/1x1
I0403 21:56:35.887965 24766 net.cpp:425] inception_4b/1x1 <- inception_4a/output_inception_4a/output_0_split_1
I0403 21:56:35.887986 24766 net.cpp:399] inception_4b/1x1 -> inception_4b/1x1
I0403 21:56:35.889680 24766 net.cpp:141] Setting up inception_4b/1x1
I0403 21:56:35.889709 24766 net.cpp:148] Top shape: 24 160 14 14 (752640)
I0403 21:56:35.889725 24766 net.cpp:156] Memory required for data: 949214496
I0403 21:56:35.889744 24766 layer_factory.hpp:77] Creating layer inception_4b/relu_1x1
I0403 21:56:35.889765 24766 net.cpp:91] Creating Layer inception_4b/relu_1x1
I0403 21:56:35.889783 24766 net.cpp:425] inception_4b/relu_1x1 <- inception_4b/1x1
I0403 21:56:35.889801 24766 net.cpp:386] inception_4b/relu_1x1 -> inception_4b/1x1 (in-place)
I0403 21:56:35.889983 24766 net.cpp:141] Setting up inception_4b/relu_1x1
I0403 21:56:35.890009 24766 net.cpp:148] Top shape: 24 160 14 14 (752640)
I0403 21:56:35.890024 24766 net.cpp:156] Memory required for data: 952225056
I0403 21:56:35.890040 24766 layer_factory.hpp:77] Creating layer inception_4b/3x3_reduce
I0403 21:56:35.890063 24766 net.cpp:91] Creating Layer inception_4b/3x3_reduce
I0403 21:56:35.890080 24766 net.cpp:425] inception_4b/3x3_reduce <- inception_4a/output_inception_4a/output_0_split_2
I0403 21:56:35.890103 24766 net.cpp:399] inception_4b/3x3_reduce -> inception_4b/3x3_reduce
I0403 21:56:35.891495 24766 net.cpp:141] Setting up inception_4b/3x3_reduce
I0403 21:56:35.891523 24766 net.cpp:148] Top shape: 24 112 14 14 (526848)
I0403 21:56:35.891540 24766 net.cpp:156] Memory required for data: 954332448
I0403 21:56:35.891558 24766 layer_factory.hpp:77] Creating layer inception_4b/relu_3x3_reduce
I0403 21:56:35.891579 24766 net.cpp:91] Creating Layer inception_4b/relu_3x3_reduce
I0403 21:56:35.891597 24766 net.cpp:425] inception_4b/relu_3x3_reduce <- inception_4b/3x3_reduce
I0403 21:56:35.891615 24766 net.cpp:386] inception_4b/relu_3x3_reduce -> inception_4b/3x3_reduce (in-place)
I0403 21:56:35.891903 24766 net.cpp:141] Setting up inception_4b/relu_3x3_reduce
I0403 21:56:35.891930 24766 net.cpp:148] Top shape: 24 112 14 14 (526848)
I0403 21:56:35.891945 24766 net.cpp:156] Memory required for data: 956439840
I0403 21:56:35.891962 24766 layer_factory.hpp:77] Creating layer inception_4b/3x3
I0403 21:56:35.891984 24766 net.cpp:91] Creating Layer inception_4b/3x3
I0403 21:56:35.892002 24766 net.cpp:425] inception_4b/3x3 <- inception_4b/3x3_reduce
I0403 21:56:35.892024 24766 net.cpp:399] inception_4b/3x3 -> inception_4b/3x3
I0403 21:56:35.895093 24766 net.cpp:141] Setting up inception_4b/3x3
I0403 21:56:35.895125 24766 net.cpp:148] Top shape: 24 224 14 14 (1053696)
I0403 21:56:35.895143 24766 net.cpp:156] Memory required for data: 960654624
I0403 21:56:35.895164 24766 layer_factory.hpp:77] Creating layer inception_4b/relu_3x3
I0403 21:56:35.895182 24766 net.cpp:91] Creating Layer inception_4b/relu_3x3
I0403 21:56:35.895198 24766 net.cpp:425] inception_4b/relu_3x3 <- inception_4b/3x3
I0403 21:56:35.895220 24766 net.cpp:386] inception_4b/relu_3x3 -> inception_4b/3x3 (in-place)
I0403 21:56:35.895407 24766 net.cpp:141] Setting up inception_4b/relu_3x3
I0403 21:56:35.895433 24766 net.cpp:148] Top shape: 24 224 14 14 (1053696)
I0403 21:56:35.895449 24766 net.cpp:156] Memory required for data: 964869408
I0403 21:56:35.895464 24766 layer_factory.hpp:77] Creating layer inception_4b/5x5_reduce
I0403 21:56:35.895488 24766 net.cpp:91] Creating Layer inception_4b/5x5_reduce
I0403 21:56:35.895505 24766 net.cpp:425] inception_4b/5x5_reduce <- inception_4a/output_inception_4a/output_0_split_3
I0403 21:56:35.895529 24766 net.cpp:399] inception_4b/5x5_reduce -> inception_4b/5x5_reduce
I0403 21:56:35.896638 24766 net.cpp:141] Setting up inception_4b/5x5_reduce
I0403 21:56:35.896667 24766 net.cpp:148] Top shape: 24 24 14 14 (112896)
I0403 21:56:35.896682 24766 net.cpp:156] Memory required for data: 965320992
I0403 21:56:35.896700 24766 layer_factory.hpp:77] Creating layer inception_4b/relu_5x5_reduce
I0403 21:56:35.896721 24766 net.cpp:91] Creating Layer inception_4b/relu_5x5_reduce
I0403 21:56:35.896754 24766 net.cpp:425] inception_4b/relu_5x5_reduce <- inception_4b/5x5_reduce
I0403 21:56:35.896775 24766 net.cpp:386] inception_4b/relu_5x5_reduce -> inception_4b/5x5_reduce (in-place)
I0403 21:56:35.896965 24766 net.cpp:141] Setting up inception_4b/relu_5x5_reduce
I0403 21:56:35.896993 24766 net.cpp:148] Top shape: 24 24 14 14 (112896)
I0403 21:56:35.897009 24766 net.cpp:156] Memory required for data: 965772576
I0403 21:56:35.897025 24766 layer_factory.hpp:77] Creating layer inception_4b/5x5
I0403 21:56:35.897045 24766 net.cpp:91] Creating Layer inception_4b/5x5
I0403 21:56:35.897063 24766 net.cpp:425] inception_4b/5x5 <- inception_4b/5x5_reduce
I0403 21:56:35.897084 24766 net.cpp:399] inception_4b/5x5 -> inception_4b/5x5
I0403 21:56:35.898358 24766 net.cpp:141] Setting up inception_4b/5x5
I0403 21:56:35.898386 24766 net.cpp:148] Top shape: 24 64 14 14 (301056)
I0403 21:56:35.898403 24766 net.cpp:156] Memory required for data: 966976800
I0403 21:56:35.898422 24766 layer_factory.hpp:77] Creating layer inception_4b/relu_5x5
I0403 21:56:35.898442 24766 net.cpp:91] Creating Layer inception_4b/relu_5x5
I0403 21:56:35.898460 24766 net.cpp:425] inception_4b/relu_5x5 <- inception_4b/5x5
I0403 21:56:35.898478 24766 net.cpp:386] inception_4b/relu_5x5 -> inception_4b/5x5 (in-place)
I0403 21:56:35.898772 24766 net.cpp:141] Setting up inception_4b/relu_5x5
I0403 21:56:35.898799 24766 net.cpp:148] Top shape: 24 64 14 14 (301056)
I0403 21:56:35.898814 24766 net.cpp:156] Memory required for data: 968181024
I0403 21:56:35.898829 24766 layer_factory.hpp:77] Creating layer inception_4b/pool
I0403 21:56:35.898849 24766 net.cpp:91] Creating Layer inception_4b/pool
I0403 21:56:35.898864 24766 net.cpp:425] inception_4b/pool <- inception_4a/output_inception_4a/output_0_split_4
I0403 21:56:35.898885 24766 net.cpp:399] inception_4b/pool -> inception_4b/pool
I0403 21:56:35.898950 24766 net.cpp:141] Setting up inception_4b/pool
I0403 21:56:35.898977 24766 net.cpp:148] Top shape: 24 512 14 14 (2408448)
I0403 21:56:35.898991 24766 net.cpp:156] Memory required for data: 977814816
I0403 21:56:35.899006 24766 layer_factory.hpp:77] Creating layer inception_4b/pool_proj
I0403 21:56:35.899029 24766 net.cpp:91] Creating Layer inception_4b/pool_proj
I0403 21:56:35.899046 24766 net.cpp:425] inception_4b/pool_proj <- inception_4b/pool
I0403 21:56:35.899066 24766 net.cpp:399] inception_4b/pool_proj -> inception_4b/pool_proj
I0403 21:56:35.900310 24766 net.cpp:141] Setting up inception_4b/pool_proj
I0403 21:56:35.900339 24766 net.cpp:148] Top shape: 24 64 14 14 (301056)
I0403 21:56:35.900355 24766 net.cpp:156] Memory required for data: 979019040
I0403 21:56:35.900375 24766 layer_factory.hpp:77] Creating layer inception_4b/relu_pool_proj
I0403 21:56:35.900398 24766 net.cpp:91] Creating Layer inception_4b/relu_pool_proj
I0403 21:56:35.900416 24766 net.cpp:425] inception_4b/relu_pool_proj <- inception_4b/pool_proj
I0403 21:56:35.900434 24766 net.cpp:386] inception_4b/relu_pool_proj -> inception_4b/pool_proj (in-place)
I0403 21:56:35.900624 24766 net.cpp:141] Setting up inception_4b/relu_pool_proj
I0403 21:56:35.900648 24766 net.cpp:148] Top shape: 24 64 14 14 (301056)
I0403 21:56:35.900665 24766 net.cpp:156] Memory required for data: 980223264
I0403 21:56:35.900679 24766 layer_factory.hpp:77] Creating layer inception_4b/output
I0403 21:56:35.900699 24766 net.cpp:91] Creating Layer inception_4b/output
I0403 21:56:35.900717 24766 net.cpp:425] inception_4b/output <- inception_4b/1x1
I0403 21:56:35.900733 24766 net.cpp:425] inception_4b/output <- inception_4b/3x3
I0403 21:56:35.900749 24766 net.cpp:425] inception_4b/output <- inception_4b/5x5
I0403 21:56:35.900766 24766 net.cpp:425] inception_4b/output <- inception_4b/pool_proj
I0403 21:56:35.900784 24766 net.cpp:399] inception_4b/output -> inception_4b/output
I0403 21:56:35.900832 24766 net.cpp:141] Setting up inception_4b/output
I0403 21:56:35.900856 24766 net.cpp:148] Top shape: 24 512 14 14 (2408448)
I0403 21:56:35.900871 24766 net.cpp:156] Memory required for data: 989857056
I0403 21:56:35.900900 24766 layer_factory.hpp:77] Creating layer inception_4b/output_inception_4b/output_0_split
I0403 21:56:35.900919 24766 net.cpp:91] Creating Layer inception_4b/output_inception_4b/output_0_split
I0403 21:56:35.900935 24766 net.cpp:425] inception_4b/output_inception_4b/output_0_split <- inception_4b/output
I0403 21:56:35.900959 24766 net.cpp:399] inception_4b/output_inception_4b/output_0_split -> inception_4b/output_inception_4b/output_0_split_0
I0403 21:56:35.900980 24766 net.cpp:399] inception_4b/output_inception_4b/output_0_split -> inception_4b/output_inception_4b/output_0_split_1
I0403 21:56:35.901001 24766 net.cpp:399] inception_4b/output_inception_4b/output_0_split -> inception_4b/output_inception_4b/output_0_split_2
I0403 21:56:35.901022 24766 net.cpp:399] inception_4b/output_inception_4b/output_0_split -> inception_4b/output_inception_4b/output_0_split_3
I0403 21:56:35.901108 24766 net.cpp:141] Setting up inception_4b/output_inception_4b/output_0_split
I0403 21:56:35.901134 24766 net.cpp:148] Top shape: 24 512 14 14 (2408448)
I0403 21:56:35.901151 24766 net.cpp:148] Top shape: 24 512 14 14 (2408448)
I0403 21:56:35.901167 24766 net.cpp:148] Top shape: 24 512 14 14 (2408448)
I0403 21:56:35.901183 24766 net.cpp:148] Top shape: 24 512 14 14 (2408448)
I0403 21:56:35.901197 24766 net.cpp:156] Memory required for data: 1028392224
I0403 21:56:35.901212 24766 layer_factory.hpp:77] Creating layer inception_4c/1x1
I0403 21:56:35.901238 24766 net.cpp:91] Creating Layer inception_4c/1x1
I0403 21:56:35.901258 24766 net.cpp:425] inception_4c/1x1 <- inception_4b/output_inception_4b/output_0_split_0
I0403 21:56:35.901280 24766 net.cpp:399] inception_4c/1x1 -> inception_4c/1x1
I0403 21:56:35.902745 24766 net.cpp:141] Setting up inception_4c/1x1
I0403 21:56:35.902772 24766 net.cpp:148] Top shape: 24 128 14 14 (602112)
I0403 21:56:35.902789 24766 net.cpp:156] Memory required for data: 1030800672
I0403 21:56:35.902808 24766 layer_factory.hpp:77] Creating layer inception_4c/relu_1x1
I0403 21:56:35.902830 24766 net.cpp:91] Creating Layer inception_4c/relu_1x1
I0403 21:56:35.902848 24766 net.cpp:425] inception_4c/relu_1x1 <- inception_4c/1x1
I0403 21:56:35.902865 24766 net.cpp:386] inception_4c/relu_1x1 -> inception_4c/1x1 (in-place)
I0403 21:56:35.903049 24766 net.cpp:141] Setting up inception_4c/relu_1x1
I0403 21:56:35.903075 24766 net.cpp:148] Top shape: 24 128 14 14 (602112)
I0403 21:56:35.903091 24766 net.cpp:156] Memory required for data: 1033209120
I0403 21:56:35.903108 24766 layer_factory.hpp:77] Creating layer inception_4c/3x3_reduce
I0403 21:56:35.903131 24766 net.cpp:91] Creating Layer inception_4c/3x3_reduce
I0403 21:56:35.903151 24766 net.cpp:425] inception_4c/3x3_reduce <- inception_4b/output_inception_4b/output_0_split_1
I0403 21:56:35.903172 24766 net.cpp:399] inception_4c/3x3_reduce -> inception_4c/3x3_reduce
I0403 21:56:35.905179 24766 net.cpp:141] Setting up inception_4c/3x3_reduce
I0403 21:56:35.905208 24766 net.cpp:148] Top shape: 24 128 14 14 (602112)
I0403 21:56:35.905225 24766 net.cpp:156] Memory required for data: 1035617568
I0403 21:56:35.905251 24766 layer_factory.hpp:77] Creating layer inception_4c/relu_3x3_reduce
I0403 21:56:35.905270 24766 net.cpp:91] Creating Layer inception_4c/relu_3x3_reduce
I0403 21:56:35.905287 24766 net.cpp:425] inception_4c/relu_3x3_reduce <- inception_4c/3x3_reduce
I0403 21:56:35.905306 24766 net.cpp:386] inception_4c/relu_3x3_reduce -> inception_4c/3x3_reduce (in-place)
I0403 21:56:35.905599 24766 net.cpp:141] Setting up inception_4c/relu_3x3_reduce
I0403 21:56:35.905627 24766 net.cpp:148] Top shape: 24 128 14 14 (602112)
I0403 21:56:35.905642 24766 net.cpp:156] Memory required for data: 1038026016
I0403 21:56:35.905658 24766 layer_factory.hpp:77] Creating layer inception_4c/3x3
I0403 21:56:35.905681 24766 net.cpp:91] Creating Layer inception_4c/3x3
I0403 21:56:35.905700 24766 net.cpp:425] inception_4c/3x3 <- inception_4c/3x3_reduce
I0403 21:56:35.905721 24766 net.cpp:399] inception_4c/3x3 -> inception_4c/3x3
I0403 21:56:35.909464 24766 net.cpp:141] Setting up inception_4c/3x3
I0403 21:56:35.909507 24766 net.cpp:148] Top shape: 24 256 14 14 (1204224)
I0403 21:56:35.909524 24766 net.cpp:156] Memory required for data: 1042842912
I0403 21:56:35.909557 24766 layer_factory.hpp:77] Creating layer inception_4c/relu_3x3
I0403 21:56:35.909581 24766 net.cpp:91] Creating Layer inception_4c/relu_3x3
I0403 21:56:35.909600 24766 net.cpp:425] inception_4c/relu_3x3 <- inception_4c/3x3
I0403 21:56:35.909618 24766 net.cpp:386] inception_4c/relu_3x3 -> inception_4c/3x3 (in-place)
I0403 21:56:35.909804 24766 net.cpp:141] Setting up inception_4c/relu_3x3
I0403 21:56:35.909831 24766 net.cpp:148] Top shape: 24 256 14 14 (1204224)
I0403 21:56:35.909844 24766 net.cpp:156] Memory required for data: 1047659808
I0403 21:56:35.909860 24766 layer_factory.hpp:77] Creating layer inception_4c/5x5_reduce
I0403 21:56:35.909884 24766 net.cpp:91] Creating Layer inception_4c/5x5_reduce
I0403 21:56:35.909903 24766 net.cpp:425] inception_4c/5x5_reduce <- inception_4b/output_inception_4b/output_0_split_2
I0403 21:56:35.909924 24766 net.cpp:399] inception_4c/5x5_reduce -> inception_4c/5x5_reduce
I0403 21:56:35.911046 24766 net.cpp:141] Setting up inception_4c/5x5_reduce
I0403 21:56:35.911074 24766 net.cpp:148] Top shape: 24 24 14 14 (112896)
I0403 21:56:35.911090 24766 net.cpp:156] Memory required for data: 1048111392
I0403 21:56:35.911109 24766 layer_factory.hpp:77] Creating layer inception_4c/relu_5x5_reduce
I0403 21:56:35.911129 24766 net.cpp:91] Creating Layer inception_4c/relu_5x5_reduce
I0403 21:56:35.911147 24766 net.cpp:425] inception_4c/relu_5x5_reduce <- inception_4c/5x5_reduce
I0403 21:56:35.911165 24766 net.cpp:386] inception_4c/relu_5x5_reduce -> inception_4c/5x5_reduce (in-place)
I0403 21:56:35.911360 24766 net.cpp:141] Setting up inception_4c/relu_5x5_reduce
I0403 21:56:35.911386 24766 net.cpp:148] Top shape: 24 24 14 14 (112896)
I0403 21:56:35.911401 24766 net.cpp:156] Memory required for data: 1048562976
I0403 21:56:35.911415 24766 layer_factory.hpp:77] Creating layer inception_4c/5x5
I0403 21:56:35.911438 24766 net.cpp:91] Creating Layer inception_4c/5x5
I0403 21:56:35.911456 24766 net.cpp:425] inception_4c/5x5 <- inception_4c/5x5_reduce
I0403 21:56:35.911478 24766 net.cpp:399] inception_4c/5x5 -> inception_4c/5x5
I0403 21:56:35.912765 24766 net.cpp:141] Setting up inception_4c/5x5
I0403 21:56:35.912793 24766 net.cpp:148] Top shape: 24 64 14 14 (301056)
I0403 21:56:35.912809 24766 net.cpp:156] Memory required for data: 1049767200
I0403 21:56:35.912828 24766 layer_factory.hpp:77] Creating layer inception_4c/relu_5x5
I0403 21:56:35.912849 24766 net.cpp:91] Creating Layer inception_4c/relu_5x5
I0403 21:56:35.912868 24766 net.cpp:425] inception_4c/relu_5x5 <- inception_4c/5x5
I0403 21:56:35.912885 24766 net.cpp:386] inception_4c/relu_5x5 -> inception_4c/5x5 (in-place)
I0403 21:56:35.913185 24766 net.cpp:141] Setting up inception_4c/relu_5x5
I0403 21:56:35.913213 24766 net.cpp:148] Top shape: 24 64 14 14 (301056)
I0403 21:56:35.913231 24766 net.cpp:156] Memory required for data: 1050971424
I0403 21:56:35.913249 24766 layer_factory.hpp:77] Creating layer inception_4c/pool
I0403 21:56:35.913270 24766 net.cpp:91] Creating Layer inception_4c/pool
I0403 21:56:35.913290 24766 net.cpp:425] inception_4c/pool <- inception_4b/output_inception_4b/output_0_split_3
I0403 21:56:35.913307 24766 net.cpp:399] inception_4c/pool -> inception_4c/pool
I0403 21:56:35.913375 24766 net.cpp:141] Setting up inception_4c/pool
I0403 21:56:35.913399 24766 net.cpp:148] Top shape: 24 512 14 14 (2408448)
I0403 21:56:35.913414 24766 net.cpp:156] Memory required for data: 1060605216
I0403 21:56:35.913429 24766 layer_factory.hpp:77] Creating layer inception_4c/pool_proj
I0403 21:56:35.913452 24766 net.cpp:91] Creating Layer inception_4c/pool_proj
I0403 21:56:35.913470 24766 net.cpp:425] inception_4c/pool_proj <- inception_4c/pool
I0403 21:56:35.913492 24766 net.cpp:399] inception_4c/pool_proj -> inception_4c/pool_proj
I0403 21:56:35.914757 24766 net.cpp:141] Setting up inception_4c/pool_proj
I0403 21:56:35.914785 24766 net.cpp:148] Top shape: 24 64 14 14 (301056)
I0403 21:56:35.914815 24766 net.cpp:156] Memory required for data: 1061809440
I0403 21:56:35.914836 24766 layer_factory.hpp:77] Creating layer inception_4c/relu_pool_proj
I0403 21:56:35.914857 24766 net.cpp:91] Creating Layer inception_4c/relu_pool_proj
I0403 21:56:35.914875 24766 net.cpp:425] inception_4c/relu_pool_proj <- inception_4c/pool_proj
I0403 21:56:35.914892 24766 net.cpp:386] inception_4c/relu_pool_proj -> inception_4c/pool_proj (in-place)
I0403 21:56:35.915079 24766 net.cpp:141] Setting up inception_4c/relu_pool_proj
I0403 21:56:35.915104 24766 net.cpp:148] Top shape: 24 64 14 14 (301056)
I0403 21:56:35.915120 24766 net.cpp:156] Memory required for data: 1063013664
I0403 21:56:35.915135 24766 layer_factory.hpp:77] Creating layer inception_4c/output
I0403 21:56:35.915155 24766 net.cpp:91] Creating Layer inception_4c/output
I0403 21:56:35.915172 24766 net.cpp:425] inception_4c/output <- inception_4c/1x1
I0403 21:56:35.915189 24766 net.cpp:425] inception_4c/output <- inception_4c/3x3
I0403 21:56:35.915206 24766 net.cpp:425] inception_4c/output <- inception_4c/5x5
I0403 21:56:35.915222 24766 net.cpp:425] inception_4c/output <- inception_4c/pool_proj
I0403 21:56:35.915246 24766 net.cpp:399] inception_4c/output -> inception_4c/output
I0403 21:56:35.915295 24766 net.cpp:141] Setting up inception_4c/output
I0403 21:56:35.915319 24766 net.cpp:148] Top shape: 24 512 14 14 (2408448)
I0403 21:56:35.915335 24766 net.cpp:156] Memory required for data: 1072647456
I0403 21:56:35.915350 24766 layer_factory.hpp:77] Creating layer inception_4c/output_inception_4c/output_0_split
I0403 21:56:35.915367 24766 net.cpp:91] Creating Layer inception_4c/output_inception_4c/output_0_split
I0403 21:56:35.915383 24766 net.cpp:425] inception_4c/output_inception_4c/output_0_split <- inception_4c/output
I0403 21:56:35.915402 24766 net.cpp:399] inception_4c/output_inception_4c/output_0_split -> inception_4c/output_inception_4c/output_0_split_0
I0403 21:56:35.915423 24766 net.cpp:399] inception_4c/output_inception_4c/output_0_split -> inception_4c/output_inception_4c/output_0_split_1
I0403 21:56:35.915444 24766 net.cpp:399] inception_4c/output_inception_4c/output_0_split -> inception_4c/output_inception_4c/output_0_split_2
I0403 21:56:35.915464 24766 net.cpp:399] inception_4c/output_inception_4c/output_0_split -> inception_4c/output_inception_4c/output_0_split_3
I0403 21:56:35.915557 24766 net.cpp:141] Setting up inception_4c/output_inception_4c/output_0_split
I0403 21:56:35.915583 24766 net.cpp:148] Top shape: 24 512 14 14 (2408448)
I0403 21:56:35.915601 24766 net.cpp:148] Top shape: 24 512 14 14 (2408448)
I0403 21:56:35.915616 24766 net.cpp:148] Top shape: 24 512 14 14 (2408448)
I0403 21:56:35.915632 24766 net.cpp:148] Top shape: 24 512 14 14 (2408448)
I0403 21:56:35.915647 24766 net.cpp:156] Memory required for data: 1111182624
I0403 21:56:35.915662 24766 layer_factory.hpp:77] Creating layer inception_4d/1x1
I0403 21:56:35.915683 24766 net.cpp:91] Creating Layer inception_4d/1x1
I0403 21:56:35.915701 24766 net.cpp:425] inception_4d/1x1 <- inception_4c/output_inception_4c/output_0_split_0
I0403 21:56:35.915720 24766 net.cpp:399] inception_4d/1x1 -> inception_4d/1x1
I0403 21:56:35.917132 24766 net.cpp:141] Setting up inception_4d/1x1
I0403 21:56:35.917163 24766 net.cpp:148] Top shape: 24 112 14 14 (526848)
I0403 21:56:35.917181 24766 net.cpp:156] Memory required for data: 1113290016
I0403 21:56:35.917199 24766 layer_factory.hpp:77] Creating layer inception_4d/relu_1x1
I0403 21:56:35.917217 24766 net.cpp:91] Creating Layer inception_4d/relu_1x1
I0403 21:56:35.917237 24766 net.cpp:425] inception_4d/relu_1x1 <- inception_4d/1x1
I0403 21:56:35.917259 24766 net.cpp:386] inception_4d/relu_1x1 -> inception_4d/1x1 (in-place)
I0403 21:56:35.917448 24766 net.cpp:141] Setting up inception_4d/relu_1x1
I0403 21:56:35.917474 24766 net.cpp:148] Top shape: 24 112 14 14 (526848)
I0403 21:56:35.917490 24766 net.cpp:156] Memory required for data: 1115397408
I0403 21:56:35.917505 24766 layer_factory.hpp:77] Creating layer inception_4d/3x3_reduce
I0403 21:56:35.917541 24766 net.cpp:91] Creating Layer inception_4d/3x3_reduce
I0403 21:56:35.917560 24766 net.cpp:425] inception_4d/3x3_reduce <- inception_4c/output_inception_4c/output_0_split_1
I0403 21:56:35.917582 24766 net.cpp:399] inception_4d/3x3_reduce -> inception_4d/3x3_reduce
I0403 21:56:35.919142 24766 net.cpp:141] Setting up inception_4d/3x3_reduce
I0403 21:56:35.919172 24766 net.cpp:148] Top shape: 24 144 14 14 (677376)
I0403 21:56:35.919189 24766 net.cpp:156] Memory required for data: 1118106912
I0403 21:56:35.919209 24766 layer_factory.hpp:77] Creating layer inception_4d/relu_3x3_reduce
I0403 21:56:35.919226 24766 net.cpp:91] Creating Layer inception_4d/relu_3x3_reduce
I0403 21:56:35.919250 24766 net.cpp:425] inception_4d/relu_3x3_reduce <- inception_4d/3x3_reduce
I0403 21:56:35.919268 24766 net.cpp:386] inception_4d/relu_3x3_reduce -> inception_4d/3x3_reduce (in-place)
I0403 21:56:35.919566 24766 net.cpp:141] Setting up inception_4d/relu_3x3_reduce
I0403 21:56:35.919596 24766 net.cpp:148] Top shape: 24 144 14 14 (677376)
I0403 21:56:35.919612 24766 net.cpp:156] Memory required for data: 1120816416
I0403 21:56:35.919627 24766 layer_factory.hpp:77] Creating layer inception_4d/3x3
I0403 21:56:35.919649 24766 net.cpp:91] Creating Layer inception_4d/3x3
I0403 21:56:35.919667 24766 net.cpp:425] inception_4d/3x3 <- inception_4d/3x3_reduce
I0403 21:56:35.919687 24766 net.cpp:399] inception_4d/3x3 -> inception_4d/3x3
I0403 21:56:35.924135 24766 net.cpp:141] Setting up inception_4d/3x3
I0403 21:56:35.924165 24766 net.cpp:148] Top shape: 24 288 14 14 (1354752)
I0403 21:56:35.924182 24766 net.cpp:156] Memory required for data: 1126235424
I0403 21:56:35.924201 24766 layer_factory.hpp:77] Creating layer inception_4d/relu_3x3
I0403 21:56:35.924221 24766 net.cpp:91] Creating Layer inception_4d/relu_3x3
I0403 21:56:35.924242 24766 net.cpp:425] inception_4d/relu_3x3 <- inception_4d/3x3
I0403 21:56:35.924264 24766 net.cpp:386] inception_4d/relu_3x3 -> inception_4d/3x3 (in-place)
I0403 21:56:35.924456 24766 net.cpp:141] Setting up inception_4d/relu_3x3
I0403 21:56:35.924482 24766 net.cpp:148] Top shape: 24 288 14 14 (1354752)
I0403 21:56:35.924499 24766 net.cpp:156] Memory required for data: 1131654432
I0403 21:56:35.924515 24766 layer_factory.hpp:77] Creating layer inception_4d/5x5_reduce
I0403 21:56:35.924537 24766 net.cpp:91] Creating Layer inception_4d/5x5_reduce
I0403 21:56:35.924556 24766 net.cpp:425] inception_4d/5x5_reduce <- inception_4c/output_inception_4c/output_0_split_2
I0403 21:56:35.924578 24766 net.cpp:399] inception_4d/5x5_reduce -> inception_4d/5x5_reduce
I0403 21:56:35.925761 24766 net.cpp:141] Setting up inception_4d/5x5_reduce
I0403 21:56:35.925791 24766 net.cpp:148] Top shape: 24 32 14 14 (150528)
I0403 21:56:35.925808 24766 net.cpp:156] Memory required for data: 1132256544
I0403 21:56:35.925828 24766 layer_factory.hpp:77] Creating layer inception_4d/relu_5x5_reduce
I0403 21:56:35.925846 24766 net.cpp:91] Creating Layer inception_4d/relu_5x5_reduce
I0403 21:56:35.925863 24766 net.cpp:425] inception_4d/relu_5x5_reduce <- inception_4d/5x5_reduce
I0403 21:56:35.925884 24766 net.cpp:386] inception_4d/relu_5x5_reduce -> inception_4d/5x5_reduce (in-place)
I0403 21:56:35.926077 24766 net.cpp:141] Setting up inception_4d/relu_5x5_reduce
I0403 21:56:35.926103 24766 net.cpp:148] Top shape: 24 32 14 14 (150528)
I0403 21:56:35.926118 24766 net.cpp:156] Memory required for data: 1132858656
I0403 21:56:35.926133 24766 layer_factory.hpp:77] Creating layer inception_4d/5x5
I0403 21:56:35.926156 24766 net.cpp:91] Creating Layer inception_4d/5x5
I0403 21:56:35.926174 24766 net.cpp:425] inception_4d/5x5 <- inception_4d/5x5_reduce
I0403 21:56:35.926195 24766 net.cpp:399] inception_4d/5x5 -> inception_4d/5x5
I0403 21:56:35.927724 24766 net.cpp:141] Setting up inception_4d/5x5
I0403 21:56:35.927752 24766 net.cpp:148] Top shape: 24 64 14 14 (301056)
I0403 21:56:35.927769 24766 net.cpp:156] Memory required for data: 1134062880
I0403 21:56:35.927789 24766 layer_factory.hpp:77] Creating layer inception_4d/relu_5x5
I0403 21:56:35.927825 24766 net.cpp:91] Creating Layer inception_4d/relu_5x5
I0403 21:56:35.927845 24766 net.cpp:425] inception_4d/relu_5x5 <- inception_4d/5x5
I0403 21:56:35.927862 24766 net.cpp:386] inception_4d/relu_5x5 -> inception_4d/5x5 (in-place)
I0403 21:56:35.928179 24766 net.cpp:141] Setting up inception_4d/relu_5x5
I0403 21:56:35.928206 24766 net.cpp:148] Top shape: 24 64 14 14 (301056)
I0403 21:56:35.928221 24766 net.cpp:156] Memory required for data: 1135267104
I0403 21:56:35.928251 24766 layer_factory.hpp:77] Creating layer inception_4d/pool
I0403 21:56:35.928272 24766 net.cpp:91] Creating Layer inception_4d/pool
I0403 21:56:35.928292 24766 net.cpp:425] inception_4d/pool <- inception_4c/output_inception_4c/output_0_split_3
I0403 21:56:35.928310 24766 net.cpp:399] inception_4d/pool -> inception_4d/pool
I0403 21:56:35.928380 24766 net.cpp:141] Setting up inception_4d/pool
I0403 21:56:35.928406 24766 net.cpp:148] Top shape: 24 512 14 14 (2408448)
I0403 21:56:35.928421 24766 net.cpp:156] Memory required for data: 1144900896
I0403 21:56:35.928436 24766 layer_factory.hpp:77] Creating layer inception_4d/pool_proj
I0403 21:56:35.928458 24766 net.cpp:91] Creating Layer inception_4d/pool_proj
I0403 21:56:35.928477 24766 net.cpp:425] inception_4d/pool_proj <- inception_4d/pool
I0403 21:56:35.928498 24766 net.cpp:399] inception_4d/pool_proj -> inception_4d/pool_proj
I0403 21:56:35.930348 24766 net.cpp:141] Setting up inception_4d/pool_proj
I0403 21:56:35.930377 24766 net.cpp:148] Top shape: 24 64 14 14 (301056)
I0403 21:56:35.930393 24766 net.cpp:156] Memory required for data: 1146105120
I0403 21:56:35.930413 24766 layer_factory.hpp:77] Creating layer inception_4d/relu_pool_proj
I0403 21:56:35.930431 24766 net.cpp:91] Creating Layer inception_4d/relu_pool_proj
I0403 21:56:35.930449 24766 net.cpp:425] inception_4d/relu_pool_proj <- inception_4d/pool_proj
I0403 21:56:35.930469 24766 net.cpp:386] inception_4d/relu_pool_proj -> inception_4d/pool_proj (in-place)
I0403 21:56:35.930661 24766 net.cpp:141] Setting up inception_4d/relu_pool_proj
I0403 21:56:35.930687 24766 net.cpp:148] Top shape: 24 64 14 14 (301056)
I0403 21:56:35.930702 24766 net.cpp:156] Memory required for data: 1147309344
I0403 21:56:35.930717 24766 layer_factory.hpp:77] Creating layer inception_4d/output
I0403 21:56:35.930737 24766 net.cpp:91] Creating Layer inception_4d/output
I0403 21:56:35.930754 24766 net.cpp:425] inception_4d/output <- inception_4d/1x1
I0403 21:56:35.930773 24766 net.cpp:425] inception_4d/output <- inception_4d/3x3
I0403 21:56:35.930788 24766 net.cpp:425] inception_4d/output <- inception_4d/5x5
I0403 21:56:35.930804 24766 net.cpp:425] inception_4d/output <- inception_4d/pool_proj
I0403 21:56:35.930821 24766 net.cpp:399] inception_4d/output -> inception_4d/output
I0403 21:56:35.930868 24766 net.cpp:141] Setting up inception_4d/output
I0403 21:56:35.930896 24766 net.cpp:148] Top shape: 24 528 14 14 (2483712)
I0403 21:56:35.930912 24766 net.cpp:156] Memory required for data: 1157244192
I0403 21:56:35.930927 24766 layer_factory.hpp:77] Creating layer inception_4d/output_inception_4d/output_0_split
I0403 21:56:35.930945 24766 net.cpp:91] Creating Layer inception_4d/output_inception_4d/output_0_split
I0403 21:56:35.930963 24766 net.cpp:425] inception_4d/output_inception_4d/output_0_split <- inception_4d/output
I0403 21:56:35.930984 24766 net.cpp:399] inception_4d/output_inception_4d/output_0_split -> inception_4d/output_inception_4d/output_0_split_0
I0403 21:56:35.931005 24766 net.cpp:399] inception_4d/output_inception_4d/output_0_split -> inception_4d/output_inception_4d/output_0_split_1
I0403 21:56:35.931026 24766 net.cpp:399] inception_4d/output_inception_4d/output_0_split -> inception_4d/output_inception_4d/output_0_split_2
I0403 21:56:35.931047 24766 net.cpp:399] inception_4d/output_inception_4d/output_0_split -> inception_4d/output_inception_4d/output_0_split_3
I0403 21:56:35.931068 24766 net.cpp:399] inception_4d/output_inception_4d/output_0_split -> inception_4d/output_inception_4d/output_0_split_4
I0403 21:56:35.931175 24766 net.cpp:141] Setting up inception_4d/output_inception_4d/output_0_split
I0403 21:56:35.931211 24766 net.cpp:148] Top shape: 24 528 14 14 (2483712)
I0403 21:56:35.931236 24766 net.cpp:148] Top shape: 24 528 14 14 (2483712)
I0403 21:56:35.931255 24766 net.cpp:148] Top shape: 24 528 14 14 (2483712)
I0403 21:56:35.931272 24766 net.cpp:148] Top shape: 24 528 14 14 (2483712)
I0403 21:56:35.931288 24766 net.cpp:148] Top shape: 24 528 14 14 (2483712)
I0403 21:56:35.931301 24766 net.cpp:156] Memory required for data: 1206918432
I0403 21:56:35.931316 24766 layer_factory.hpp:77] Creating layer loss2/ave_pool
I0403 21:56:35.931334 24766 net.cpp:91] Creating Layer loss2/ave_pool
I0403 21:56:35.931351 24766 net.cpp:425] loss2/ave_pool <- inception_4d/output_inception_4d/output_0_split_0
I0403 21:56:35.931375 24766 net.cpp:399] loss2/ave_pool -> loss2/ave_pool
I0403 21:56:35.931699 24766 net.cpp:141] Setting up loss2/ave_pool
I0403 21:56:35.931726 24766 net.cpp:148] Top shape: 24 528 4 4 (202752)
I0403 21:56:35.931741 24766 net.cpp:156] Memory required for data: 1207729440
I0403 21:56:35.931757 24766 layer_factory.hpp:77] Creating layer loss2/conv
I0403 21:56:35.931780 24766 net.cpp:91] Creating Layer loss2/conv
I0403 21:56:35.931799 24766 net.cpp:425] loss2/conv <- loss2/ave_pool
I0403 21:56:35.931821 24766 net.cpp:399] loss2/conv -> loss2/conv
I0403 21:56:35.933784 24766 net.cpp:141] Setting up loss2/conv
I0403 21:56:35.933812 24766 net.cpp:148] Top shape: 24 128 4 4 (49152)
I0403 21:56:35.933830 24766 net.cpp:156] Memory required for data: 1207926048
I0403 21:56:35.933848 24766 layer_factory.hpp:77] Creating layer loss2/relu_conv
I0403 21:56:35.933869 24766 net.cpp:91] Creating Layer loss2/relu_conv
I0403 21:56:35.933887 24766 net.cpp:425] loss2/relu_conv <- loss2/conv
I0403 21:56:35.933907 24766 net.cpp:386] loss2/relu_conv -> loss2/conv (in-place)
I0403 21:56:35.934206 24766 net.cpp:141] Setting up loss2/relu_conv
I0403 21:56:35.934237 24766 net.cpp:148] Top shape: 24 128 4 4 (49152)
I0403 21:56:35.934253 24766 net.cpp:156] Memory required for data: 1208122656
I0403 21:56:35.934269 24766 layer_factory.hpp:77] Creating layer loss2/fc
I0403 21:56:35.934291 24766 net.cpp:91] Creating Layer loss2/fc
I0403 21:56:35.934309 24766 net.cpp:425] loss2/fc <- loss2/conv
I0403 21:56:35.934329 24766 net.cpp:399] loss2/fc -> loss2/fc
I0403 21:56:35.952672 24766 net.cpp:141] Setting up loss2/fc
I0403 21:56:35.952707 24766 net.cpp:148] Top shape: 24 1024 (24576)
I0403 21:56:35.952723 24766 net.cpp:156] Memory required for data: 1208220960
I0403 21:56:35.952742 24766 layer_factory.hpp:77] Creating layer loss2/relu_fc
I0403 21:56:35.952761 24766 net.cpp:91] Creating Layer loss2/relu_fc
I0403 21:56:35.952778 24766 net.cpp:425] loss2/relu_fc <- loss2/fc
I0403 21:56:35.952798 24766 net.cpp:386] loss2/relu_fc -> loss2/fc (in-place)
I0403 21:56:35.953109 24766 net.cpp:141] Setting up loss2/relu_fc
I0403 21:56:35.953135 24766 net.cpp:148] Top shape: 24 1024 (24576)
I0403 21:56:35.953151 24766 net.cpp:156] Memory required for data: 1208319264
I0403 21:56:35.953167 24766 layer_factory.hpp:77] Creating layer loss2/drop_fc
I0403 21:56:35.953186 24766 net.cpp:91] Creating Layer loss2/drop_fc
I0403 21:56:35.953202 24766 net.cpp:425] loss2/drop_fc <- loss2/fc
I0403 21:56:35.953223 24766 net.cpp:386] loss2/drop_fc -> loss2/fc (in-place)
I0403 21:56:35.953279 24766 net.cpp:141] Setting up loss2/drop_fc
I0403 21:56:35.953306 24766 net.cpp:148] Top shape: 24 1024 (24576)
I0403 21:56:35.953322 24766 net.cpp:156] Memory required for data: 1208417568
I0403 21:56:35.953338 24766 layer_factory.hpp:77] Creating layer loss2/classifier_plantvillage
I0403 21:56:35.953357 24766 net.cpp:91] Creating Layer loss2/classifier_plantvillage
I0403 21:56:35.953373 24766 net.cpp:425] loss2/classifier_plantvillage <- loss2/fc
I0403 21:56:35.953394 24766 net.cpp:399] loss2/classifier_plantvillage -> loss2/classifier_plantvillage
I0403 21:56:35.953806 24766 net.cpp:141] Setting up loss2/classifier_plantvillage
I0403 21:56:35.953833 24766 net.cpp:148] Top shape: 24 38 (912)
I0403 21:56:35.953865 24766 net.cpp:156] Memory required for data: 1208421216
I0403 21:56:35.953886 24766 layer_factory.hpp:77] Creating layer loss2/classifier_plantvillage_loss2/classifier_plantvillage_0_split
I0403 21:56:35.953903 24766 net.cpp:91] Creating Layer loss2/classifier_plantvillage_loss2/classifier_plantvillage_0_split
I0403 21:56:35.953920 24766 net.cpp:425] loss2/classifier_plantvillage_loss2/classifier_plantvillage_0_split <- loss2/classifier_plantvillage
I0403 21:56:35.953938 24766 net.cpp:399] loss2/classifier_plantvillage_loss2/classifier_plantvillage_0_split -> loss2/classifier_plantvillage_loss2/classifier_plantvillage_0_split_0
I0403 21:56:35.953961 24766 net.cpp:399] loss2/classifier_plantvillage_loss2/classifier_plantvillage_0_split -> loss2/classifier_plantvillage_loss2/classifier_plantvillage_0_split_1
I0403 21:56:35.953982 24766 net.cpp:399] loss2/classifier_plantvillage_loss2/classifier_plantvillage_0_split -> loss2/classifier_plantvillage_loss2/classifier_plantvillage_0_split_2
I0403 21:56:35.954061 24766 net.cpp:141] Setting up loss2/classifier_plantvillage_loss2/classifier_plantvillage_0_split
I0403 21:56:35.954084 24766 net.cpp:148] Top shape: 24 38 (912)
I0403 21:56:35.954102 24766 net.cpp:148] Top shape: 24 38 (912)
I0403 21:56:35.954118 24766 net.cpp:148] Top shape: 24 38 (912)
I0403 21:56:35.954131 24766 net.cpp:156] Memory required for data: 1208432160
I0403 21:56:35.954146 24766 layer_factory.hpp:77] Creating layer inception_4e/1x1
I0403 21:56:35.954166 24766 net.cpp:91] Creating Layer inception_4e/1x1
I0403 21:56:35.954183 24766 net.cpp:425] inception_4e/1x1 <- inception_4d/output_inception_4d/output_0_split_1
I0403 21:56:35.954205 24766 net.cpp:399] inception_4e/1x1 -> inception_4e/1x1
I0403 21:56:35.956085 24766 net.cpp:141] Setting up inception_4e/1x1
I0403 21:56:35.956115 24766 net.cpp:148] Top shape: 24 256 14 14 (1204224)
I0403 21:56:35.956130 24766 net.cpp:156] Memory required for data: 1213249056
I0403 21:56:35.956149 24766 layer_factory.hpp:77] Creating layer inception_4e/relu_1x1
I0403 21:56:35.956171 24766 net.cpp:91] Creating Layer inception_4e/relu_1x1
I0403 21:56:35.956187 24766 net.cpp:425] inception_4e/relu_1x1 <- inception_4e/1x1
I0403 21:56:35.956205 24766 net.cpp:386] inception_4e/relu_1x1 -> inception_4e/1x1 (in-place)
I0403 21:56:35.956516 24766 net.cpp:141] Setting up inception_4e/relu_1x1
I0403 21:56:35.956542 24766 net.cpp:148] Top shape: 24 256 14 14 (1204224)
I0403 21:56:35.956558 24766 net.cpp:156] Memory required for data: 1218065952
I0403 21:56:35.956573 24766 layer_factory.hpp:77] Creating layer inception_4e/3x3_reduce
I0403 21:56:35.956595 24766 net.cpp:91] Creating Layer inception_4e/3x3_reduce
I0403 21:56:35.956615 24766 net.cpp:425] inception_4e/3x3_reduce <- inception_4d/output_inception_4d/output_0_split_2
I0403 21:56:35.956635 24766 net.cpp:399] inception_4e/3x3_reduce -> inception_4e/3x3_reduce
I0403 21:56:35.958850 24766 net.cpp:141] Setting up inception_4e/3x3_reduce
I0403 21:56:35.958879 24766 net.cpp:148] Top shape: 24 160 14 14 (752640)
I0403 21:56:35.958895 24766 net.cpp:156] Memory required for data: 1221076512
I0403 21:56:35.958914 24766 layer_factory.hpp:77] Creating layer inception_4e/relu_3x3_reduce
I0403 21:56:35.958935 24766 net.cpp:91] Creating Layer inception_4e/relu_3x3_reduce
I0403 21:56:35.958955 24766 net.cpp:425] inception_4e/relu_3x3_reduce <- inception_4e/3x3_reduce
I0403 21:56:35.958972 24766 net.cpp:386] inception_4e/relu_3x3_reduce -> inception_4e/3x3_reduce (in-place)
I0403 21:56:35.959167 24766 net.cpp:141] Setting up inception_4e/relu_3x3_reduce
I0403 21:56:35.959192 24766 net.cpp:148] Top shape: 24 160 14 14 (752640)
I0403 21:56:35.959208 24766 net.cpp:156] Memory required for data: 1224087072
I0403 21:56:35.959223 24766 layer_factory.hpp:77] Creating layer inception_4e/3x3
I0403 21:56:35.959251 24766 net.cpp:91] Creating Layer inception_4e/3x3
I0403 21:56:35.959270 24766 net.cpp:425] inception_4e/3x3 <- inception_4e/3x3_reduce
I0403 21:56:35.959290 24766 net.cpp:399] inception_4e/3x3 -> inception_4e/3x3
I0403 21:56:35.964464 24766 net.cpp:141] Setting up inception_4e/3x3
I0403 21:56:35.964506 24766 net.cpp:148] Top shape: 24 320 14 14 (1505280)
I0403 21:56:35.964524 24766 net.cpp:156] Memory required for data: 1230108192
I0403 21:56:35.964542 24766 layer_factory.hpp:77] Creating layer inception_4e/relu_3x3
I0403 21:56:35.964563 24766 net.cpp:91] Creating Layer inception_4e/relu_3x3
I0403 21:56:35.964581 24766 net.cpp:425] inception_4e/relu_3x3 <- inception_4e/3x3
I0403 21:56:35.964599 24766 net.cpp:386] inception_4e/relu_3x3 -> inception_4e/3x3 (in-place)
I0403 21:56:35.964910 24766 net.cpp:141] Setting up inception_4e/relu_3x3
I0403 21:56:35.964938 24766 net.cpp:148] Top shape: 24 320 14 14 (1505280)
I0403 21:56:35.964956 24766 net.cpp:156] Memory required for data: 1236129312
I0403 21:56:35.964972 24766 layer_factory.hpp:77] Creating layer inception_4e/5x5_reduce
I0403 21:56:35.964998 24766 net.cpp:91] Creating Layer inception_4e/5x5_reduce
I0403 21:56:35.965018 24766 net.cpp:425] inception_4e/5x5_reduce <- inception_4d/output_inception_4d/output_0_split_3
I0403 21:56:35.965037 24766 net.cpp:399] inception_4e/5x5_reduce -> inception_4e/5x5_reduce
I0403 21:56:35.966143 24766 net.cpp:141] Setting up inception_4e/5x5_reduce
I0403 21:56:35.966171 24766 net.cpp:148] Top shape: 24 32 14 14 (150528)
I0403 21:56:35.966187 24766 net.cpp:156] Memory required for data: 1236731424
I0403 21:56:35.966207 24766 layer_factory.hpp:77] Creating layer inception_4e/relu_5x5_reduce
I0403 21:56:35.966233 24766 net.cpp:91] Creating Layer inception_4e/relu_5x5_reduce
I0403 21:56:35.966251 24766 net.cpp:425] inception_4e/relu_5x5_reduce <- inception_4e/5x5_reduce
I0403 21:56:35.966270 24766 net.cpp:386] inception_4e/relu_5x5_reduce -> inception_4e/5x5_reduce (in-place)
I0403 21:56:35.966575 24766 net.cpp:141] Setting up inception_4e/relu_5x5_reduce
I0403 21:56:35.966603 24766 net.cpp:148] Top shape: 24 32 14 14 (150528)
I0403 21:56:35.966619 24766 net.cpp:156] Memory required for data: 1237333536
I0403 21:56:35.966634 24766 layer_factory.hpp:77] Creating layer inception_4e/5x5
I0403 21:56:35.966672 24766 net.cpp:91] Creating Layer inception_4e/5x5
I0403 21:56:35.966692 24766 net.cpp:425] inception_4e/5x5 <- inception_4e/5x5_reduce
I0403 21:56:35.966716 24766 net.cpp:399] inception_4e/5x5 -> inception_4e/5x5
I0403 21:56:35.968626 24766 net.cpp:141] Setting up inception_4e/5x5
I0403 21:56:35.968654 24766 net.cpp:148] Top shape: 24 128 14 14 (602112)
I0403 21:56:35.968672 24766 net.cpp:156] Memory required for data: 1239741984
I0403 21:56:35.968691 24766 layer_factory.hpp:77] Creating layer inception_4e/relu_5x5
I0403 21:56:35.968709 24766 net.cpp:91] Creating Layer inception_4e/relu_5x5
I0403 21:56:35.968725 24766 net.cpp:425] inception_4e/relu_5x5 <- inception_4e/5x5
I0403 21:56:35.968745 24766 net.cpp:386] inception_4e/relu_5x5 -> inception_4e/5x5 (in-place)
I0403 21:56:35.968950 24766 net.cpp:141] Setting up inception_4e/relu_5x5
I0403 21:56:35.968976 24766 net.cpp:148] Top shape: 24 128 14 14 (602112)
I0403 21:56:35.968991 24766 net.cpp:156] Memory required for data: 1242150432
I0403 21:56:35.969005 24766 layer_factory.hpp:77] Creating layer inception_4e/pool
I0403 21:56:35.969025 24766 net.cpp:91] Creating Layer inception_4e/pool
I0403 21:56:35.969043 24766 net.cpp:425] inception_4e/pool <- inception_4d/output_inception_4d/output_0_split_4
I0403 21:56:35.969061 24766 net.cpp:399] inception_4e/pool -> inception_4e/pool
I0403 21:56:35.969133 24766 net.cpp:141] Setting up inception_4e/pool
I0403 21:56:35.969157 24766 net.cpp:148] Top shape: 24 528 14 14 (2483712)
I0403 21:56:35.969172 24766 net.cpp:156] Memory required for data: 1252085280
I0403 21:56:35.969188 24766 layer_factory.hpp:77] Creating layer inception_4e/pool_proj
I0403 21:56:35.969213 24766 net.cpp:91] Creating Layer inception_4e/pool_proj
I0403 21:56:35.969235 24766 net.cpp:425] inception_4e/pool_proj <- inception_4e/pool
I0403 21:56:35.969259 24766 net.cpp:399] inception_4e/pool_proj -> inception_4e/pool_proj
I0403 21:56:35.970835 24766 net.cpp:141] Setting up inception_4e/pool_proj
I0403 21:56:35.970875 24766 net.cpp:148] Top shape: 24 128 14 14 (602112)
I0403 21:56:35.970891 24766 net.cpp:156] Memory required for data: 1254493728
I0403 21:56:35.970911 24766 layer_factory.hpp:77] Creating layer inception_4e/relu_pool_proj
I0403 21:56:35.970927 24766 net.cpp:91] Creating Layer inception_4e/relu_pool_proj
I0403 21:56:35.970944 24766 net.cpp:425] inception_4e/relu_pool_proj <- inception_4e/pool_proj
I0403 21:56:35.970965 24766 net.cpp:386] inception_4e/relu_pool_proj -> inception_4e/pool_proj (in-place)
I0403 21:56:35.971272 24766 net.cpp:141] Setting up inception_4e/relu_pool_proj
I0403 21:56:35.971300 24766 net.cpp:148] Top shape: 24 128 14 14 (602112)
I0403 21:56:35.971315 24766 net.cpp:156] Memory required for data: 1256902176
I0403 21:56:35.971331 24766 layer_factory.hpp:77] Creating layer inception_4e/output
I0403 21:56:35.971349 24766 net.cpp:91] Creating Layer inception_4e/output
I0403 21:56:35.971365 24766 net.cpp:425] inception_4e/output <- inception_4e/1x1
I0403 21:56:35.971382 24766 net.cpp:425] inception_4e/output <- inception_4e/3x3
I0403 21:56:35.971398 24766 net.cpp:425] inception_4e/output <- inception_4e/5x5
I0403 21:56:35.971415 24766 net.cpp:425] inception_4e/output <- inception_4e/pool_proj
I0403 21:56:35.971434 24766 net.cpp:399] inception_4e/output -> inception_4e/output
I0403 21:56:35.971485 24766 net.cpp:141] Setting up inception_4e/output
I0403 21:56:35.971511 24766 net.cpp:148] Top shape: 24 832 14 14 (3913728)
I0403 21:56:35.971527 24766 net.cpp:156] Memory required for data: 1272557088
I0403 21:56:35.971542 24766 layer_factory.hpp:77] Creating layer pool4/3x3_s2
I0403 21:56:35.971560 24766 net.cpp:91] Creating Layer pool4/3x3_s2
I0403 21:56:35.971575 24766 net.cpp:425] pool4/3x3_s2 <- inception_4e/output
I0403 21:56:35.971595 24766 net.cpp:399] pool4/3x3_s2 -> pool4/3x3_s2
I0403 21:56:35.971663 24766 net.cpp:141] Setting up pool4/3x3_s2
I0403 21:56:35.971688 24766 net.cpp:148] Top shape: 24 832 7 7 (978432)
I0403 21:56:35.971704 24766 net.cpp:156] Memory required for data: 1276470816
I0403 21:56:35.971719 24766 layer_factory.hpp:77] Creating layer pool4/3x3_s2_pool4/3x3_s2_0_split
I0403 21:56:35.971735 24766 net.cpp:91] Creating Layer pool4/3x3_s2_pool4/3x3_s2_0_split
I0403 21:56:35.971751 24766 net.cpp:425] pool4/3x3_s2_pool4/3x3_s2_0_split <- pool4/3x3_s2
I0403 21:56:35.971771 24766 net.cpp:399] pool4/3x3_s2_pool4/3x3_s2_0_split -> pool4/3x3_s2_pool4/3x3_s2_0_split_0
I0403 21:56:35.971793 24766 net.cpp:399] pool4/3x3_s2_pool4/3x3_s2_0_split -> pool4/3x3_s2_pool4/3x3_s2_0_split_1
I0403 21:56:35.971814 24766 net.cpp:399] pool4/3x3_s2_pool4/3x3_s2_0_split -> pool4/3x3_s2_pool4/3x3_s2_0_split_2
I0403 21:56:35.971837 24766 net.cpp:399] pool4/3x3_s2_pool4/3x3_s2_0_split -> pool4/3x3_s2_pool4/3x3_s2_0_split_3
I0403 21:56:35.971930 24766 net.cpp:141] Setting up pool4/3x3_s2_pool4/3x3_s2_0_split
I0403 21:56:35.971954 24766 net.cpp:148] Top shape: 24 832 7 7 (978432)
I0403 21:56:35.971971 24766 net.cpp:148] Top shape: 24 832 7 7 (978432)
I0403 21:56:35.971987 24766 net.cpp:148] Top shape: 24 832 7 7 (978432)
I0403 21:56:35.972004 24766 net.cpp:148] Top shape: 24 832 7 7 (978432)
I0403 21:56:35.972018 24766 net.cpp:156] Memory required for data: 1292125728
I0403 21:56:35.972033 24766 layer_factory.hpp:77] Creating layer inception_5a/1x1
I0403 21:56:35.972056 24766 net.cpp:91] Creating Layer inception_5a/1x1
I0403 21:56:35.972074 24766 net.cpp:425] inception_5a/1x1 <- pool4/3x3_s2_pool4/3x3_s2_0_split_0
I0403 21:56:35.972096 24766 net.cpp:399] inception_5a/1x1 -> inception_5a/1x1
I0403 21:56:35.975071 24766 net.cpp:141] Setting up inception_5a/1x1
I0403 21:56:35.975100 24766 net.cpp:148] Top shape: 24 256 7 7 (301056)
I0403 21:56:35.975116 24766 net.cpp:156] Memory required for data: 1293329952
I0403 21:56:35.975134 24766 layer_factory.hpp:77] Creating layer inception_5a/relu_1x1
I0403 21:56:35.975155 24766 net.cpp:91] Creating Layer inception_5a/relu_1x1
I0403 21:56:35.975173 24766 net.cpp:425] inception_5a/relu_1x1 <- inception_5a/1x1
I0403 21:56:35.975191 24766 net.cpp:386] inception_5a/relu_1x1 -> inception_5a/1x1 (in-place)
I0403 21:56:35.975520 24766 net.cpp:141] Setting up inception_5a/relu_1x1
I0403 21:56:35.975548 24766 net.cpp:148] Top shape: 24 256 7 7 (301056)
I0403 21:56:35.975564 24766 net.cpp:156] Memory required for data: 1294534176
I0403 21:56:35.975579 24766 layer_factory.hpp:77] Creating layer inception_5a/3x3_reduce
I0403 21:56:35.975601 24766 net.cpp:91] Creating Layer inception_5a/3x3_reduce
I0403 21:56:35.975620 24766 net.cpp:425] inception_5a/3x3_reduce <- pool4/3x3_s2_pool4/3x3_s2_0_split_1
I0403 21:56:35.975642 24766 net.cpp:399] inception_5a/3x3_reduce -> inception_5a/3x3_reduce
I0403 21:56:35.978190 24766 net.cpp:141] Setting up inception_5a/3x3_reduce
I0403 21:56:35.978222 24766 net.cpp:148] Top shape: 24 160 7 7 (188160)
I0403 21:56:35.978250 24766 net.cpp:156] Memory required for data: 1295286816
I0403 21:56:35.978271 24766 layer_factory.hpp:77] Creating layer inception_5a/relu_3x3_reduce
I0403 21:56:35.978291 24766 net.cpp:91] Creating Layer inception_5a/relu_3x3_reduce
I0403 21:56:35.978307 24766 net.cpp:425] inception_5a/relu_3x3_reduce <- inception_5a/3x3_reduce
I0403 21:56:35.978328 24766 net.cpp:386] inception_5a/relu_3x3_reduce -> inception_5a/3x3_reduce (in-place)
I0403 21:56:35.978528 24766 net.cpp:141] Setting up inception_5a/relu_3x3_reduce
I0403 21:56:35.978554 24766 net.cpp:148] Top shape: 24 160 7 7 (188160)
I0403 21:56:35.978569 24766 net.cpp:156] Memory required for data: 1296039456
I0403 21:56:35.978585 24766 layer_factory.hpp:77] Creating layer inception_5a/3x3
I0403 21:56:35.978608 24766 net.cpp:91] Creating Layer inception_5a/3x3
I0403 21:56:35.978628 24766 net.cpp:425] inception_5a/3x3 <- inception_5a/3x3_reduce
I0403 21:56:35.978652 24766 net.cpp:399] inception_5a/3x3 -> inception_5a/3x3
I0403 21:56:35.983943 24766 net.cpp:141] Setting up inception_5a/3x3
I0403 21:56:35.983974 24766 net.cpp:148] Top shape: 24 320 7 7 (376320)
I0403 21:56:35.983990 24766 net.cpp:156] Memory required for data: 1297544736
I0403 21:56:35.984009 24766 layer_factory.hpp:77] Creating layer inception_5a/relu_3x3
I0403 21:56:35.984027 24766 net.cpp:91] Creating Layer inception_5a/relu_3x3
I0403 21:56:35.984045 24766 net.cpp:425] inception_5a/relu_3x3 <- inception_5a/3x3
I0403 21:56:35.984064 24766 net.cpp:386] inception_5a/relu_3x3 -> inception_5a/3x3 (in-place)
I0403 21:56:35.984369 24766 net.cpp:141] Setting up inception_5a/relu_3x3
I0403 21:56:35.984396 24766 net.cpp:148] Top shape: 24 320 7 7 (376320)
I0403 21:56:35.984412 24766 net.cpp:156] Memory required for data: 1299050016
I0403 21:56:35.984428 24766 layer_factory.hpp:77] Creating layer inception_5a/5x5_reduce
I0403 21:56:35.984450 24766 net.cpp:91] Creating Layer inception_5a/5x5_reduce
I0403 21:56:35.984468 24766 net.cpp:425] inception_5a/5x5_reduce <- pool4/3x3_s2_pool4/3x3_s2_0_split_2
I0403 21:56:35.984490 24766 net.cpp:399] inception_5a/5x5_reduce -> inception_5a/5x5_reduce
I0403 21:56:35.985661 24766 net.cpp:141] Setting up inception_5a/5x5_reduce
I0403 21:56:35.985692 24766 net.cpp:148] Top shape: 24 32 7 7 (37632)
I0403 21:56:35.985710 24766 net.cpp:156] Memory required for data: 1299200544
I0403 21:56:35.985729 24766 layer_factory.hpp:77] Creating layer inception_5a/relu_5x5_reduce
I0403 21:56:35.985748 24766 net.cpp:91] Creating Layer inception_5a/relu_5x5_reduce
I0403 21:56:35.985764 24766 net.cpp:425] inception_5a/relu_5x5_reduce <- inception_5a/5x5_reduce
I0403 21:56:35.985781 24766 net.cpp:386] inception_5a/relu_5x5_reduce -> inception_5a/5x5_reduce (in-place)
I0403 21:56:35.986080 24766 net.cpp:141] Setting up inception_5a/relu_5x5_reduce
I0403 21:56:35.986107 24766 net.cpp:148] Top shape: 24 32 7 7 (37632)
I0403 21:56:35.986122 24766 net.cpp:156] Memory required for data: 1299351072
I0403 21:56:35.986137 24766 layer_factory.hpp:77] Creating layer inception_5a/5x5
I0403 21:56:35.986160 24766 net.cpp:91] Creating Layer inception_5a/5x5
I0403 21:56:35.986177 24766 net.cpp:425] inception_5a/5x5 <- inception_5a/5x5_reduce
I0403 21:56:35.986198 24766 net.cpp:399] inception_5a/5x5 -> inception_5a/5x5
I0403 21:56:35.987934 24766 net.cpp:141] Setting up inception_5a/5x5
I0403 21:56:35.987974 24766 net.cpp:148] Top shape: 24 128 7 7 (150528)
I0403 21:56:35.987992 24766 net.cpp:156] Memory required for data: 1299953184
I0403 21:56:35.988010 24766 layer_factory.hpp:77] Creating layer inception_5a/relu_5x5
I0403 21:56:35.988029 24766 net.cpp:91] Creating Layer inception_5a/relu_5x5
I0403 21:56:35.988045 24766 net.cpp:425] inception_5a/relu_5x5 <- inception_5a/5x5
I0403 21:56:35.988065 24766 net.cpp:386] inception_5a/relu_5x5 -> inception_5a/5x5 (in-place)
I0403 21:56:35.988268 24766 net.cpp:141] Setting up inception_5a/relu_5x5
I0403 21:56:35.988294 24766 net.cpp:148] Top shape: 24 128 7 7 (150528)
I0403 21:56:35.988309 24766 net.cpp:156] Memory required for data: 1300555296
I0403 21:56:35.988324 24766 layer_factory.hpp:77] Creating layer inception_5a/pool
I0403 21:56:35.988348 24766 net.cpp:91] Creating Layer inception_5a/pool
I0403 21:56:35.988364 24766 net.cpp:425] inception_5a/pool <- pool4/3x3_s2_pool4/3x3_s2_0_split_3
I0403 21:56:35.988384 24766 net.cpp:399] inception_5a/pool -> inception_5a/pool
I0403 21:56:35.988454 24766 net.cpp:141] Setting up inception_5a/pool
I0403 21:56:35.988478 24766 net.cpp:148] Top shape: 24 832 7 7 (978432)
I0403 21:56:35.988493 24766 net.cpp:156] Memory required for data: 1304469024
I0403 21:56:35.988507 24766 layer_factory.hpp:77] Creating layer inception_5a/pool_proj
I0403 21:56:35.988530 24766 net.cpp:91] Creating Layer inception_5a/pool_proj
I0403 21:56:35.988548 24766 net.cpp:425] inception_5a/pool_proj <- inception_5a/pool
I0403 21:56:35.988570 24766 net.cpp:399] inception_5a/pool_proj -> inception_5a/pool_proj
I0403 21:56:35.990877 24766 net.cpp:141] Setting up inception_5a/pool_proj
I0403 21:56:35.990907 24766 net.cpp:148] Top shape: 24 128 7 7 (150528)
I0403 21:56:35.990922 24766 net.cpp:156] Memory required for data: 1305071136
I0403 21:56:35.990942 24766 layer_factory.hpp:77] Creating layer inception_5a/relu_pool_proj
I0403 21:56:35.990962 24766 net.cpp:91] Creating Layer inception_5a/relu_pool_proj
I0403 21:56:35.990978 24766 net.cpp:425] inception_5a/relu_pool_proj <- inception_5a/pool_proj
I0403 21:56:35.990998 24766 net.cpp:386] inception_5a/relu_pool_proj -> inception_5a/pool_proj (in-place)
I0403 21:56:35.991303 24766 net.cpp:141] Setting up inception_5a/relu_pool_proj
I0403 21:56:35.991330 24766 net.cpp:148] Top shape: 24 128 7 7 (150528)
I0403 21:56:35.991345 24766 net.cpp:156] Memory required for data: 1305673248
I0403 21:56:35.991363 24766 layer_factory.hpp:77] Creating layer inception_5a/output
I0403 21:56:35.991379 24766 net.cpp:91] Creating Layer inception_5a/output
I0403 21:56:35.991395 24766 net.cpp:425] inception_5a/output <- inception_5a/1x1
I0403 21:56:35.991412 24766 net.cpp:425] inception_5a/output <- inception_5a/3x3
I0403 21:56:35.991428 24766 net.cpp:425] inception_5a/output <- inception_5a/5x5
I0403 21:56:35.991446 24766 net.cpp:425] inception_5a/output <- inception_5a/pool_proj
I0403 21:56:35.991466 24766 net.cpp:399] inception_5a/output -> inception_5a/output
I0403 21:56:35.991516 24766 net.cpp:141] Setting up inception_5a/output
I0403 21:56:35.991540 24766 net.cpp:148] Top shape: 24 832 7 7 (978432)
I0403 21:56:35.991555 24766 net.cpp:156] Memory required for data: 1309586976
I0403 21:56:35.991569 24766 layer_factory.hpp:77] Creating layer inception_5a/output_inception_5a/output_0_split
I0403 21:56:35.991588 24766 net.cpp:91] Creating Layer inception_5a/output_inception_5a/output_0_split
I0403 21:56:35.991605 24766 net.cpp:425] inception_5a/output_inception_5a/output_0_split <- inception_5a/output
I0403 21:56:35.991624 24766 net.cpp:399] inception_5a/output_inception_5a/output_0_split -> inception_5a/output_inception_5a/output_0_split_0
I0403 21:56:35.991648 24766 net.cpp:399] inception_5a/output_inception_5a/output_0_split -> inception_5a/output_inception_5a/output_0_split_1
I0403 21:56:35.991670 24766 net.cpp:399] inception_5a/output_inception_5a/output_0_split -> inception_5a/output_inception_5a/output_0_split_2
I0403 21:56:35.991691 24766 net.cpp:399] inception_5a/output_inception_5a/output_0_split -> inception_5a/output_inception_5a/output_0_split_3
I0403 21:56:35.991801 24766 net.cpp:141] Setting up inception_5a/output_inception_5a/output_0_split
I0403 21:56:35.991825 24766 net.cpp:148] Top shape: 24 832 7 7 (978432)
I0403 21:56:35.991842 24766 net.cpp:148] Top shape: 24 832 7 7 (978432)
I0403 21:56:35.991859 24766 net.cpp:148] Top shape: 24 832 7 7 (978432)
I0403 21:56:35.991875 24766 net.cpp:148] Top shape: 24 832 7 7 (978432)
I0403 21:56:35.991888 24766 net.cpp:156] Memory required for data: 1325241888
I0403 21:56:35.991904 24766 layer_factory.hpp:77] Creating layer inception_5b/1x1
I0403 21:56:35.991928 24766 net.cpp:91] Creating Layer inception_5b/1x1
I0403 21:56:35.991945 24766 net.cpp:425] inception_5b/1x1 <- inception_5a/output_inception_5a/output_0_split_0
I0403 21:56:35.991968 24766 net.cpp:399] inception_5b/1x1 -> inception_5b/1x1
I0403 21:56:35.995764 24766 net.cpp:141] Setting up inception_5b/1x1
I0403 21:56:35.995797 24766 net.cpp:148] Top shape: 24 384 7 7 (451584)
I0403 21:56:35.995813 24766 net.cpp:156] Memory required for data: 1327048224
I0403 21:56:35.995832 24766 layer_factory.hpp:77] Creating layer inception_5b/relu_1x1
I0403 21:56:35.995851 24766 net.cpp:91] Creating Layer inception_5b/relu_1x1
I0403 21:56:35.995869 24766 net.cpp:425] inception_5b/relu_1x1 <- inception_5b/1x1
I0403 21:56:35.995889 24766 net.cpp:386] inception_5b/relu_1x1 -> inception_5b/1x1 (in-place)
I0403 21:56:35.996193 24766 net.cpp:141] Setting up inception_5b/relu_1x1
I0403 21:56:35.996222 24766 net.cpp:148] Top shape: 24 384 7 7 (451584)
I0403 21:56:35.996243 24766 net.cpp:156] Memory required for data: 1328854560
I0403 21:56:35.996259 24766 layer_factory.hpp:77] Creating layer inception_5b/3x3_reduce
I0403 21:56:35.996281 24766 net.cpp:91] Creating Layer inception_5b/3x3_reduce
I0403 21:56:35.996300 24766 net.cpp:425] inception_5b/3x3_reduce <- inception_5a/output_inception_5a/output_0_split_1
I0403 21:56:35.996323 24766 net.cpp:399] inception_5b/3x3_reduce -> inception_5b/3x3_reduce
I0403 21:56:35.999056 24766 net.cpp:141] Setting up inception_5b/3x3_reduce
I0403 21:56:35.999088 24766 net.cpp:148] Top shape: 24 192 7 7 (225792)
I0403 21:56:35.999104 24766 net.cpp:156] Memory required for data: 1329757728
I0403 21:56:35.999124 24766 layer_factory.hpp:77] Creating layer inception_5b/relu_3x3_reduce
I0403 21:56:35.999141 24766 net.cpp:91] Creating Layer inception_5b/relu_3x3_reduce
I0403 21:56:35.999160 24766 net.cpp:425] inception_5b/relu_3x3_reduce <- inception_5b/3x3_reduce
I0403 21:56:35.999179 24766 net.cpp:386] inception_5b/relu_3x3_reduce -> inception_5b/3x3_reduce (in-place)
I0403 21:56:35.999378 24766 net.cpp:141] Setting up inception_5b/relu_3x3_reduce
I0403 21:56:35.999404 24766 net.cpp:148] Top shape: 24 192 7 7 (225792)
I0403 21:56:35.999419 24766 net.cpp:156] Memory required for data: 1330660896
I0403 21:56:35.999435 24766 layer_factory.hpp:77] Creating layer inception_5b/3x3
I0403 21:56:35.999457 24766 net.cpp:91] Creating Layer inception_5b/3x3
I0403 21:56:35.999476 24766 net.cpp:425] inception_5b/3x3 <- inception_5b/3x3_reduce
I0403 21:56:35.999498 24766 net.cpp:399] inception_5b/3x3 -> inception_5b/3x3
I0403 21:56:36.006479 24766 net.cpp:141] Setting up inception_5b/3x3
I0403 21:56:36.006510 24766 net.cpp:148] Top shape: 24 384 7 7 (451584)
I0403 21:56:36.006526 24766 net.cpp:156] Memory required for data: 1332467232
I0403 21:56:36.006546 24766 layer_factory.hpp:77] Creating layer inception_5b/relu_3x3
I0403 21:56:36.006563 24766 net.cpp:91] Creating Layer inception_5b/relu_3x3
I0403 21:56:36.006580 24766 net.cpp:425] inception_5b/relu_3x3 <- inception_5b/3x3
I0403 21:56:36.006603 24766 net.cpp:386] inception_5b/relu_3x3 -> inception_5b/3x3 (in-place)
I0403 21:56:36.006914 24766 net.cpp:141] Setting up inception_5b/relu_3x3
I0403 21:56:36.006942 24766 net.cpp:148] Top shape: 24 384 7 7 (451584)
I0403 21:56:36.006958 24766 net.cpp:156] Memory required for data: 1334273568
I0403 21:56:36.006973 24766 layer_factory.hpp:77] Creating layer inception_5b/5x5_reduce
I0403 21:56:36.007012 24766 net.cpp:91] Creating Layer inception_5b/5x5_reduce
I0403 21:56:36.007031 24766 net.cpp:425] inception_5b/5x5_reduce <- inception_5a/output_inception_5a/output_0_split_2
I0403 21:56:36.007055 24766 net.cpp:399] inception_5b/5x5_reduce -> inception_5b/5x5_reduce
I0403 21:56:36.008393 24766 net.cpp:141] Setting up inception_5b/5x5_reduce
I0403 21:56:36.008420 24766 net.cpp:148] Top shape: 24 48 7 7 (56448)
I0403 21:56:36.008436 24766 net.cpp:156] Memory required for data: 1334499360
I0403 21:56:36.008455 24766 layer_factory.hpp:77] Creating layer inception_5b/relu_5x5_reduce
I0403 21:56:36.008473 24766 net.cpp:91] Creating Layer inception_5b/relu_5x5_reduce
I0403 21:56:36.008491 24766 net.cpp:425] inception_5b/relu_5x5_reduce <- inception_5b/5x5_reduce
I0403 21:56:36.008512 24766 net.cpp:386] inception_5b/relu_5x5_reduce -> inception_5b/5x5_reduce (in-place)
I0403 21:56:36.008904 24766 net.cpp:141] Setting up inception_5b/relu_5x5_reduce
I0403 21:56:36.008931 24766 net.cpp:148] Top shape: 24 48 7 7 (56448)
I0403 21:56:36.008946 24766 net.cpp:156] Memory required for data: 1334725152
I0403 21:56:36.008962 24766 layer_factory.hpp:77] Creating layer inception_5b/5x5
I0403 21:56:36.008982 24766 net.cpp:91] Creating Layer inception_5b/5x5
I0403 21:56:36.008999 24766 net.cpp:425] inception_5b/5x5 <- inception_5b/5x5_reduce
I0403 21:56:36.009018 24766 net.cpp:399] inception_5b/5x5 -> inception_5b/5x5
I0403 21:56:36.011085 24766 net.cpp:141] Setting up inception_5b/5x5
I0403 21:56:36.011114 24766 net.cpp:148] Top shape: 24 128 7 7 (150528)
I0403 21:56:36.011131 24766 net.cpp:156] Memory required for data: 1335327264
I0403 21:56:36.011149 24766 layer_factory.hpp:77] Creating layer inception_5b/relu_5x5
I0403 21:56:36.011169 24766 net.cpp:91] Creating Layer inception_5b/relu_5x5
I0403 21:56:36.011186 24766 net.cpp:425] inception_5b/relu_5x5 <- inception_5b/5x5
I0403 21:56:36.011204 24766 net.cpp:386] inception_5b/relu_5x5 -> inception_5b/5x5 (in-place)
I0403 21:56:36.011402 24766 net.cpp:141] Setting up inception_5b/relu_5x5
I0403 21:56:36.011427 24766 net.cpp:148] Top shape: 24 128 7 7 (150528)
I0403 21:56:36.011442 24766 net.cpp:156] Memory required for data: 1335929376
I0403 21:56:36.011457 24766 layer_factory.hpp:77] Creating layer inception_5b/pool
I0403 21:56:36.011482 24766 net.cpp:91] Creating Layer inception_5b/pool
I0403 21:56:36.011499 24766 net.cpp:425] inception_5b/pool <- inception_5a/output_inception_5a/output_0_split_3
I0403 21:56:36.011518 24766 net.cpp:399] inception_5b/pool -> inception_5b/pool
I0403 21:56:36.011591 24766 net.cpp:141] Setting up inception_5b/pool
I0403 21:56:36.011616 24766 net.cpp:148] Top shape: 24 832 7 7 (978432)
I0403 21:56:36.011631 24766 net.cpp:156] Memory required for data: 1339843104
I0403 21:56:36.011646 24766 layer_factory.hpp:77] Creating layer inception_5b/pool_proj
I0403 21:56:36.011668 24766 net.cpp:91] Creating Layer inception_5b/pool_proj
I0403 21:56:36.011685 24766 net.cpp:425] inception_5b/pool_proj <- inception_5b/pool
I0403 21:56:36.011706 24766 net.cpp:399] inception_5b/pool_proj -> inception_5b/pool_proj
I0403 21:56:36.014035 24766 net.cpp:141] Setting up inception_5b/pool_proj
I0403 21:56:36.014065 24766 net.cpp:148] Top shape: 24 128 7 7 (150528)
I0403 21:56:36.014081 24766 net.cpp:156] Memory required for data: 1340445216
I0403 21:56:36.014099 24766 layer_factory.hpp:77] Creating layer inception_5b/relu_pool_proj
I0403 21:56:36.014117 24766 net.cpp:91] Creating Layer inception_5b/relu_pool_proj
I0403 21:56:36.014133 24766 net.cpp:425] inception_5b/relu_pool_proj <- inception_5b/pool_proj
I0403 21:56:36.014153 24766 net.cpp:386] inception_5b/relu_pool_proj -> inception_5b/pool_proj (in-place)
I0403 21:56:36.014456 24766 net.cpp:141] Setting up inception_5b/relu_pool_proj
I0403 21:56:36.014483 24766 net.cpp:148] Top shape: 24 128 7 7 (150528)
I0403 21:56:36.014498 24766 net.cpp:156] Memory required for data: 1341047328
I0403 21:56:36.014514 24766 layer_factory.hpp:77] Creating layer inception_5b/output
I0403 21:56:36.014531 24766 net.cpp:91] Creating Layer inception_5b/output
I0403 21:56:36.014562 24766 net.cpp:425] inception_5b/output <- inception_5b/1x1
I0403 21:56:36.014580 24766 net.cpp:425] inception_5b/output <- inception_5b/3x3
I0403 21:56:36.014597 24766 net.cpp:425] inception_5b/output <- inception_5b/5x5
I0403 21:56:36.014614 24766 net.cpp:425] inception_5b/output <- inception_5b/pool_proj
I0403 21:56:36.014633 24766 net.cpp:399] inception_5b/output -> inception_5b/output
I0403 21:56:36.014684 24766 net.cpp:141] Setting up inception_5b/output
I0403 21:56:36.014711 24766 net.cpp:148] Top shape: 24 1024 7 7 (1204224)
I0403 21:56:36.014727 24766 net.cpp:156] Memory required for data: 1345864224
I0403 21:56:36.014742 24766 layer_factory.hpp:77] Creating layer pool5/7x7_s1
I0403 21:56:36.014760 24766 net.cpp:91] Creating Layer pool5/7x7_s1
I0403 21:56:36.014777 24766 net.cpp:425] pool5/7x7_s1 <- inception_5b/output
I0403 21:56:36.014796 24766 net.cpp:399] pool5/7x7_s1 -> pool5/7x7_s1
I0403 21:56:36.015017 24766 net.cpp:141] Setting up pool5/7x7_s1
I0403 21:56:36.015043 24766 net.cpp:148] Top shape: 24 1024 1 1 (24576)
I0403 21:56:36.015058 24766 net.cpp:156] Memory required for data: 1345962528
I0403 21:56:36.015074 24766 layer_factory.hpp:77] Creating layer pool5/drop_7x7_s1
I0403 21:56:36.015090 24766 net.cpp:91] Creating Layer pool5/drop_7x7_s1
I0403 21:56:36.015107 24766 net.cpp:425] pool5/drop_7x7_s1 <- pool5/7x7_s1
I0403 21:56:36.015126 24766 net.cpp:386] pool5/drop_7x7_s1 -> pool5/7x7_s1 (in-place)
I0403 21:56:36.015177 24766 net.cpp:141] Setting up pool5/drop_7x7_s1
I0403 21:56:36.015202 24766 net.cpp:148] Top shape: 24 1024 1 1 (24576)
I0403 21:56:36.015218 24766 net.cpp:156] Memory required for data: 1346060832
I0403 21:56:36.015238 24766 layer_factory.hpp:77] Creating layer loss3/classifier_plantvillage
I0403 21:56:36.015257 24766 net.cpp:91] Creating Layer loss3/classifier_plantvillage
I0403 21:56:36.015274 24766 net.cpp:425] loss3/classifier_plantvillage <- pool5/7x7_s1
I0403 21:56:36.015295 24766 net.cpp:399] loss3/classifier_plantvillage -> loss3/classifier_plantvillage
I0403 21:56:36.015722 24766 net.cpp:141] Setting up loss3/classifier_plantvillage
I0403 21:56:36.015746 24766 net.cpp:148] Top shape: 24 38 (912)
I0403 21:56:36.015761 24766 net.cpp:156] Memory required for data: 1346064480
I0403 21:56:36.015779 24766 layer_factory.hpp:77] Creating layer loss3/classifier_plantvillage_loss3/classifier_plantvillage_0_split
I0403 21:56:36.015800 24766 net.cpp:91] Creating Layer loss3/classifier_plantvillage_loss3/classifier_plantvillage_0_split
I0403 21:56:36.015817 24766 net.cpp:425] loss3/classifier_plantvillage_loss3/classifier_plantvillage_0_split <- loss3/classifier_plantvillage
I0403 21:56:36.015836 24766 net.cpp:399] loss3/classifier_plantvillage_loss3/classifier_plantvillage_0_split -> loss3/classifier_plantvillage_loss3/classifier_plantvillage_0_split_0
I0403 21:56:36.015859 24766 net.cpp:399] loss3/classifier_plantvillage_loss3/classifier_plantvillage_0_split -> loss3/classifier_plantvillage_loss3/classifier_plantvillage_0_split_1
I0403 21:56:36.015880 24766 net.cpp:399] loss3/classifier_plantvillage_loss3/classifier_plantvillage_0_split -> loss3/classifier_plantvillage_loss3/classifier_plantvillage_0_split_2
I0403 21:56:36.015900 24766 net.cpp:399] loss3/classifier_plantvillage_loss3/classifier_plantvillage_0_split -> loss3/classifier_plantvillage_loss3/classifier_plantvillage_0_split_3
I0403 21:56:36.016000 24766 net.cpp:141] Setting up loss3/classifier_plantvillage_loss3/classifier_plantvillage_0_split
I0403 21:56:36.016023 24766 net.cpp:148] Top shape: 24 38 (912)
I0403 21:56:36.016039 24766 net.cpp:148] Top shape: 24 38 (912)
I0403 21:56:36.016055 24766 net.cpp:148] Top shape: 24 38 (912)
I0403 21:56:36.016070 24766 net.cpp:148] Top shape: 24 38 (912)
I0403 21:56:36.016084 24766 net.cpp:156] Memory required for data: 1346079072
I0403 21:56:36.016099 24766 layer_factory.hpp:77] Creating layer loss1/loss
I0403 21:56:36.016120 24766 net.cpp:91] Creating Layer loss1/loss
I0403 21:56:36.016137 24766 net.cpp:425] loss1/loss <- loss1/classifier_plantvillage_loss1/classifier_plantvillage_0_split_0
I0403 21:56:36.016168 24766 net.cpp:425] loss1/loss <- label_data_1_split_0
…
