…
I0403 21:44:25.084622 24059 net.cpp:313] The NetState phase (1) differed from the phase (0) specified by a rule in layer data
I0403 21:44:25.085731 24059 net.cpp:49] Initializing net from parameters: 
state {
  phase: TEST
}
layer {
  name: "data"
  type: "Data"
  top: "data"
  top: "label"
  include {
    phase: TEST
  }
  transform_param {
    mirror: false
    crop_size: 224
    mean_file: "/home/mohanty/data/final_dataset/lmdb/segmented-80-20/mean.binaryproto"
  }
  data_param {
    source: "/home/mohanty/data/final_dataset/lmdb/segmented-80-20/test_db"
    batch_size: 24
    backend: LMDB
  }
}
layer {
  name: "conv1/7x7_s2"
  type: "Convolution"
  bottom: "data"
  top: "conv1/7x7_s2"
  param {
    lr_mult: 1
    decay_mult: 1
  }
  param {
    lr_mult: 2
    decay_mult: 0
  }
  convolution_param {
    num_output: 64
    pad: 3
    kernel_size: 7
    stride: 2
    weight_filler {
      type: "xavier"
      std: 0.1
    }
    bias_filler {
      type: "constant"
      value: 0.2
    }
  }
}
layer {
  name: "conv1/relu_7x7"
  type: "ReLU"
  bottom: "conv1/7x7_s2"
  top: "conv1/7x7_s2"
}
layer {
  name: "pool1/3x3_s2"
  type: "Pooling"
  bottom: "conv1/7x7_s2"
  top: "pool1/3x3_s2"
  pooling_param {
    pool: MAX
    kernel_size: 3
    stride: 2
  }
}
layer {
  name: "pool1/norm1"
  type: "LRN"
  bottom: "pool1/3x3_s2"
  top: "pool1/norm1"
  lrn_param {
    local_size: 5
    alpha: 0.0001
    beta: 0.75
  }
}
layer {
  name: "conv2/3x3_reduce"
  type: "Convolution"
  bottom: "pool1/norm1"
  top: "conv2/3x3_reduce"
  param {
    lr_mult: 1
    decay_mult: 1
  }
  param {
    lr_mult: 2
    decay_mult: 0
  }
  convolution_param {
    num_output: 64
    kernel_size: 1
    weight_filler {
      type: "xavier"
      std: 0.1
    }
    bias_filler {
      type: "constant"
      value: 0.2
    }
  }
}
layer {
  name: "conv2/relu_3x3_reduce"
  type: "ReLU"
  bottom: "conv2/3x3_reduce"
  top: "conv2/3x3_reduce"
}
layer {
  name: "conv2/3x3"
  type: "Convolution"
  bottom: "conv2/3x3_reduce"
  top: "conv2/3x3"
  param {
    lr_mult: 1
    decay_mult: 1
  }
  param {
    lr_mult: 2
    decay_mult: 0
  }
  convolution_param {
    num_output: 192
    pad: 1
    kernel_size: 3
    weight_filler {
      type: "xavier"
      std: 0.03
    }
    bias_filler {
      type: "constant"
      value: 0.2
    }
  }
}
layer {
  name: "conv2/relu_3x3"
  type: "ReLU"
  bottom: "conv2/3x3"
  top: "conv2/3x3"
}
layer {
  name: "conv2/norm2"
  type: "LRN"
  bottom: "conv2/3x3"
  top: "conv2/norm2"
  lrn_param {
    local_size: 5
    alpha: 0.0001
    beta: 0.75
  }
}
layer {
  name: "pool2/3x3_s2"
  type: "Pooling"
  bottom: "conv2/norm2"
  top: "pool2/3x3_s2"
  pooling_param {
    pool: MAX
    kernel_size: 3
    stride: 2
  }
}
layer {
  name: "inception_3a/1x1"
  type: "Convolution"
  bottom: "pool2/3x3_s2"
  top: "inception_3a/1x1"
  param {
    lr_mult: 1
    decay_mult: 1
  }
  param {
    lr_mult: 2
    decay_mult: 0
  }
  convolution_param {
    num_output: 64
    kernel_size: 1
    weight_filler {
      type: "xavier"
      std: 0.03
    }
    bias_filler {
      type: "constant"
      value: 0.2
    }
  }
}
layer {
  name: "inception_3a/relu_1x1"
  type: "ReLU"
  bottom: "inception_3a/1x1"
  top: "inception_3a/1x1"
}
layer {
  name: "inception_3a/3x3_reduce"
  type: "Convolution"
  bottom: "pool2/3x3_s2"
  top: "inception_3a/3x3_reduce"
  param {
    lr_mult: 1
    decay_mult: 1
  }
  param {
    lr_mult: 2
    decay_mult: 0
  }
  convolution_param {
    num_output: 96
    kernel_size: 1
    weight_filler {
      type: "xavier"
      std: 0.09
    }
    bias_filler {
      type: "constant"
      value: 0.2
    }
  }
}
layer {
  name: "inception_3a/relu_3x3_reduce"
  type: "ReLU"
  bottom: "inception_3a/3x3_reduce"
  top: "inception_3a/3x3_reduce"
}
layer {
  name: "inception_3a/3x3"
  type: "Convolution"
  bottom: "inception_3a/3x3_reduce"
  top: "inception_3a/3x3"
  param {
    lr_mult: 1
    decay_mult: 1
  }
  param {
    lr_mult: 2
    decay_mult: 0
  }
  convolution_param {
    num_output: 128
    pad: 1
    kernel_size: 3
    weight_filler {
      type: "xavier"
      std: 0.03
    }
    bias_filler {
      type: "constant"
      value: 0.2
    }
  }
}
layer {
  name: "inception_3a/relu_3x3"
  type: "ReLU"
  bottom: "inception_3a/3x3"
  top: "inception_3a/3x3"
}
layer {
  name: "inception_3a/5x5_reduce"
  type: "Convolution"
  bottom: "pool2/3x3_s2"
  top: "inception_3a/5x5_reduce"
  param {
    lr_mult: 1
    decay_mult: 1
  }
  param {
    lr_mult: 2
    decay_mult: 0
  }
  convolution_param {
    num_output: 16
    kernel_size: 1
    weight_filler {
      type: "xavier"
      std: 0.2
    }
    bias_filler {
      type: "constant"
      value: 0.2
    }
  }
}
layer {
  name: "inception_3a/relu_5x5_reduce"
  type: "ReLU"
  bottom: "inception_3a/5x5_reduce"
  top: "inception_3a/5x5_reduce"
}
layer {
  name: "inception_3a/5x5"
  type: "Convolution"
  bottom: "inception_3a/5x5_reduce"
  top: "inception_3a/5x5"
  param {
    lr_mult: 1
    decay_mult: 1
  }
  param {
    lr_mult: 2
    decay_mult: 0
  }
  convolution_param {
    num_output: 32
    pad: 2
    kernel_size: 5
    weight_filler {
      type: "xavier"
      std: 0.03
    }
    bias_filler {
      type: "constant"
      value: 0.2
    }
  }
}
layer {
  name: "inception_3a/relu_5x5"
  type: "ReLU"
  bottom: "inception_3a/5x5"
  top: "inception_3a/5x5"
}
layer {
  name: "inception_3a/pool"
  type: "Pooling"
  bottom: "pool2/3x3_s2"
  top: "inception_3a/pool"
  pooling_param {
    pool: MAX
    kernel_size: 3
    stride: 1
    pad: 1
  }
}
layer {
  name: "inception_3a/pool_proj"
  type: "Convolution"
  bottom: "inception_3a/pool"
  top: "inception_3a/pool_proj"
  param {
    lr_mult: 1
    decay_mult: 1
  }
  param {
    lr_mult: 2
    decay_mult: 0
  }
  convolution_param {
    num_output: 32
    kernel_size: 1
    weight_filler {
      type: "xavier"
      std: 0.1
    }
    bias_filler {
      type: "constant"
      value: 0.2
    }
  }
}
layer {
  name: "inception_3a/relu_pool_proj"
  type: "ReLU"
  bottom: "inception_3a/pool_proj"
  top: "inception_3a/pool_proj"
}
layer {
  name: "inception_3a/output"
  type: "Concat"
  bottom: "inception_3a/1x1"
  bottom: "inception_3a/3x3"
  bottom: "inception_3a/5x5"
  bottom: "inception_3a/pool_proj"
  top: "inception_3a/output"
}
layer {
  name: "inception_3b/1x1"
  type: "Convolution"
  bottom: "inception_3a/output"
  top: "inception_3b/1x1"
  param {
    lr_mult: 1
    decay_mult: 1
  }
  param {
    lr_mult: 2
    decay_mult: 0
  }
  convolution_param {
    num_output: 128
    kernel_size: 1
    weight_filler {
      type: "xavier"
      std: 0.03
    }
    bias_filler {
      type: "constant"
      value: 0.2
    }
  }
}
layer {
  name: "inception_3b/relu_1x1"
  type: "ReLU"
  bottom: "inception_3b/1x1"
  top: "inception_3b/1x1"
}
layer {
  name: "inception_3b/3x3_reduce"
  type: "Convolution"
  bottom: "inception_3a/output"
  top: "inception_3b/3x3_reduce"
  param {
    lr_mult: 1
    decay_mult: 1
  }
  param {
    lr_mult: 2
    decay_mult: 0
  }
  convolution_param {
    num_output: 128
    kernel_size: 1
    weight_filler {
      type: "xavier"
      std: 0.09
    }
    bias_filler {
      type: "constant"
      value: 0.2
    }
  }
}
layer {
  name: "inception_3b/relu_3x3_reduce"
  type: "ReLU"
  bottom: "inception_3b/3x3_reduce"
  top: "inception_3b/3x3_reduce"
}
layer {
  name: "inception_3b/3x3"
  type: "Convolution"
  bottom: "inception_3b/3x3_reduce"
  top: "inception_3b/3x3"
  param {
    lr_mult: 1
    decay_mult: 1
  }
  param {
    lr_mult: 2
    decay_mult: 0
  }
  convolution_param {
    num_output: 192
    pad: 1
    kernel_size: 3
    weight_filler {
      type: "xavier"
      std: 0.03
    }
    bias_filler {
      type: "constant"
      value: 0.2
    }
  }
}
layer {
  name: "inception_3b/relu_3x3"
  type: "ReLU"
  bottom: "inception_3b/3x3"
  top: "inception_3b/3x3"
}
layer {
  name: "inception_3b/5x5_reduce"
  type: "Convolution"
  bottom: "inception_3a/output"
  top: "inception_3b/5x5_reduce"
  param {
    lr_mult: 1
    decay_mult: 1
  }
  param {
    lr_mult: 2
    decay_mult: 0
  }
  convolution_param {
    num_output: 32
    kernel_size: 1
    weight_filler {
      type: "xavier"
      std: 0.2
    }
    bias_filler {
      type: "constant"
      value: 0.2
    }
  }
}
layer {
  name: "inception_3b/relu_5x5_reduce"
  type: "ReLU"
  bottom: "inception_3b/5x5_reduce"
  top: "inception_3b/5x5_reduce"
}
layer {
  name: "inception_3b/5x5"
  type: "Convolution"
  bottom: "inception_3b/5x5_reduce"
  top: "inception_3b/5x5"
  param {
    lr_mult: 1
    decay_mult: 1
  }
  param {
    lr_mult: 2
    decay_mult: 0
  }
  convolution_param {
    num_output: 96
    pad: 2
    kernel_size: 5
    weight_filler {
      type: "xavier"
      std: 0.03
    }
    bias_filler {
      type: "constant"
      value: 0.2
    }
  }
}
layer {
  name: "inception_3b/relu_5x5"
  type: "ReLU"
  bottom: "inception_3b/5x5"
  top: "inception_3b/5x5"
}
layer {
  name: "inception_3b/pool"
  type: "Pooling"
  bottom: "inception_3a/output"
  top: "inception_3b/pool"
  pooling_param {
    pool: MAX
    kernel_size: 3
    stride: 1
    pad: 1
  }
}
layer {
  name: "inception_3b/pool_proj"
  type: "Convolution"
  bottom: "inception_3b/pool"
  top: "inception_3b/pool_proj"
  param {
    lr_mult: 1
    decay_mult: 1
  }
  param {
    lr_mult: 2
    decay_mult: 0
  }
  convolution_param {
    num_output: 64
    kernel_size: 1
    weight_filler {
      type: "xavier"
      std: 0.1
    }
    bias_filler {
      type: "constant"
      value: 0.2
    }
  }
}
layer {
  name: "inception_3b/relu_pool_proj"
  type: "ReLU"
  bottom: "inception_3b/pool_proj"
  top: "inception_3b/pool_proj"
}
layer {
  name: "inception_3b/output"
  type: "Concat"
  bottom: "inception_3b/1x1"
  bottom: "inception_3b/3x3"
  bottom: "inception_3b/5x5"
  bottom: "inception_3b/pool_proj"
  top: "inception_3b/output"
}
layer {
  name: "pool3/3x3_s2"
  type: "Pooling"
  bottom: "inception_3b/output"
  top: "pool3/3x3_s2"
  pooling_param {
    pool: MAX
    kernel_size: 3
    stride: 2
  }
}
layer {
  name: "inception_4a/1x1"
  type: "Convolution"
  bottom: "pool3/3x3_s2"
  top: "inception_4a/1x1"
  param {
    lr_mult: 1
    decay_mult: 1
  }
  param {
    lr_mult: 2
    decay_mult: 0
  }
  convolution_param {
    num_output: 192
    kernel_size: 1
    weight_filler {
      type: "xavier"
      std: 0.03
    }
    bias_filler {
      type: "constant"
      value: 0.2
    }
  }
}
layer {
  name: "inception_4a/relu_1x1"
  type: "ReLU"
  bottom: "inception_4a/1x1"
  top: "inception_4a/1x1"
}
layer {
  name: "inception_4a/3x3_reduce"
  type: "Convolution"
  bottom: "pool3/3x3_s2"
  top: "inception_4a/3x3_reduce"
  param {
    lr_mult: 1
    decay_mult: 1
  }
  param {
    lr_mult: 2
    decay_mult: 0
  }
  convolution_param {
    num_output: 96
    kernel_size: 1
    weight_filler {
      type: "xavier"
      std: 0.09
    }
    bias_filler {
      type: "constant"
      value: 0.2
    }
  }
}
layer {
  name: "inception_4a/relu_3x3_reduce"
  type: "ReLU"
  bottom: "inception_4a/3x3_reduce"
  top: "inception_4a/3x3_reduce"
}
layer {
  name: "inception_4a/3x3"
  type: "Convolution"
  bottom: "inception_4a/3x3_reduce"
  top: "inception_4a/3x3"
  param {
    lr_mult: 1
    decay_mult: 1
  }
  param {
    lr_mult: 2
    decay_mult: 0
  }
  convolution_param {
    num_output: 208
    pad: 1
    kernel_size: 3
    weight_filler {
      type: "xavier"
      std: 0.03
    }
    bias_filler {
      type: "constant"
      value: 0.2
    }
  }
}
layer {
  name: "inception_4a/relu_3x3"
  type: "ReLU"
  bottom: "inception_4a/3x3"
  top: "inception_4a/3x3"
}
layer {
  name: "inception_4a/5x5_reduce"
  type: "Convolution"
  bottom: "pool3/3x3_s2"
  top: "inception_4a/5x5_reduce"
  param {
    lr_mult: 1
    decay_mult: 1
  }
  param {
    lr_mult: 2
    decay_mult: 0
  }
  convolution_param {
    num_output: 16
    kernel_size: 1
    weight_filler {
      type: "xavier"
      std: 0.2
    }
    bias_filler {
      type: "constant"
      value: 0.2
    }
  }
}
layer {
  name: "inception_4a/relu_5x5_reduce"
  type: "ReLU"
  bottom: "inception_4a/5x5_reduce"
  top: "inception_4a/5x5_reduce"
}
layer {
  name: "inception_4a/5x5"
  type: "Convolution"
  bottom: "inception_4a/5x5_reduce"
  top: "inception_4a/5x5"
  param {
    lr_mult: 1
    decay_mult: 1
  }
  param {
    lr_mult: 2
    decay_mult: 0
  }
  convolution_param {
    num_output: 48
    pad: 2
    kernel_size: 5
    weight_filler {
      type: "xavier"
      std: 0.03
    }
    bias_filler {
      type: "constant"
      value: 0.2
    }
  }
}
layer {
  name: "inception_4a/relu_5x5"
  type: "ReLU"
  bottom: "inception_4a/5x5"
  top: "inception_4a/5x5"
}
layer {
  name: "inception_4a/pool"
  type: "Pooling"
  bottom: "pool3/3x3_s2"
  top: "inception_4a/pool"
  pooling_param {
    pool: MAX
    kernel_size: 3
    stride: 1
    pad: 1
  }
}
layer {
  name: "inception_4a/pool_proj"
  type: "Convolution"
  bottom: "inception_4a/pool"
  top: "inception_4a/pool_proj"
  param {
    lr_mult: 1
    decay_mult: 1
  }
  param {
    lr_mult: 2
    decay_mult: 0
  }
  convolution_param {
    num_output: 64
    kernel_size: 1
    weight_filler {
      type: "xavier"
      std: 0.1
    }
    bias_filler {
      type: "constant"
      value: 0.2
    }
  }
}
layer {
  name: "inception_4a/relu_pool_proj"
  type: "ReLU"
  bottom: "inception_4a/pool_proj"
  top: "inception_4a/pool_proj"
}
layer {
  name: "inception_4a/output"
  type: "Concat"
  bottom: "inception_4a/1x1"
  bottom: "inception_4a/3x3"
  bottom: "inception_4a/5x5"
  bottom: "inception_4a/pool_proj"
  top: "inception_4a/output"
}
layer {
  name: "loss1/ave_pool"
  type: "Pooling"
  bottom: "inception_4a/output"
  top: "loss1/ave_pool"
  pooling_param {
    pool: AVE
    kernel_size: 5
    stride: 3
  }
}
layer {
  name: "loss1/conv"
  type: "Convolution"
  bottom: "loss1/ave_pool"
  top: "loss1/conv"
  param {
    lr_mult: 1
    decay_mult: 1
  }
  param {
    lr_mult: 2
    decay_mult: 0
  }
  convolution_param {
    num_output: 128
    kernel_size: 1
    weight_filler {
      type: "xavier"
      std: 0.08
    }
    bias_filler {
      type: "constant"
      value: 0.2
    }
  }
}
layer {
  name: "loss1/relu_conv"
  type: "ReLU"
  bottom: "loss1/conv"
  top: "loss1/conv"
}
layer {
  name: "loss1/fc"
  type: "InnerProduct"
  bottom: "loss1/conv"
  top: "loss1/fc"
  param {
    lr_mult: 1
    decay_mult: 1
  }
  param {
    lr_mult: 2
    decay_mult: 0
  }
  inner_product_param {
    num_output: 1024
    weight_filler {
      type: "xavier"
      std: 0.02
    }
    bias_filler {
      type: "constant"
      value: 0.2
    }
  }
}
layer {
  name: "loss1/relu_fc"
  type: "ReLU"
  bottom: "loss1/fc"
  top: "loss1/fc"
}
layer {
  name: "loss1/drop_fc"
  type: "Dropout"
  bottom: "loss1/fc"
  top: "loss1/fc"
  dropout_param {
    dropout_ratio: 0.7
  }
}
layer {
  name: "loss1/classifier_plantvillage"
  type: "InnerProduct"
  bottom: "loss1/fc"
  top: "loss1/classifier_plantvillage"
  param {
    lr_mult: 1
    decay_mult: 1
  }
  param {
    lr_mult: 2
    decay_mult: 0
  }
  inner_product_param {
    num_output: 38
    weight_filler {
      type: "xavier"
      std: 0.0009765625
    }
    bias_filler {
      type: "constant"
      value: 0
    }
  }
}
layer {
  name: "inception_4b/1x1"
  type: "Convolution"
  bottom: "inception_4a/output"
  top: "inception_4b/1x1"
  param {
    lr_mult: 1
    decay_mult: 1
  }
  param {
    lr_mult: 2
    decay_mult: 0
  }
  convolution_param {
    num_output: 160
    kernel_size: 1
    weight_filler {
      type: "xavier"
      std: 0.03
    }
    bias_filler {
      type: "constant"
      value: 0.2
    }
  }
}
layer {
  name: "inception_4b/relu_1x1"
  type: "ReLU"
  bottom: "inception_4b/1x1"
  top: "inception_4b/1x1"
}
layer {
  name: "inception_4b/3x3_reduce"
  type: "Convolution"
  bottom: "inception_4a/output"
  top: "inception_4b/3x3_reduce"
  param {
    lr_mult: 1
    decay_mult: 1
  }
  param {
    lr_mult: 2
    decay_mult: 0
  }
  convolution_param {
    num_output: 112
    kernel_size: 1
    weight_filler {
      type: "xavier"
      std: 0.09
    }
    bias_filler {
      type: "constant"
      value: 0.2
    }
  }
}
layer {
  name: "inception_4b/relu_3x3_reduce"
  type: "ReLU"
  bottom: "inception_4b/3x3_reduce"
  top: "inception_4b/3x3_reduce"
}
layer {
  name: "inception_4b/3x3"
  type: "Convolution"
  bottom: "inception_4b/3x3_reduce"
  top: "inception_4b/3x3"
  param {
    lr_mult: 1
    decay_mult: 1
  }
  param {
    lr_mult: 2
    decay_mult: 0
  }
  convolution_param {
    num_output: 224
    pad: 1
    kernel_size: 3
    weight_filler {
      type: "xavier"
      std: 0.03
    }
    bias_filler {
      type: "constant"
      value: 0.2
    }
  }
}
layer {
  name: "inception_4b/relu_3x3"
  type: "ReLU"
  bottom: "inception_4b/3x3"
  top: "inception_4b/3x3"
}
layer {
  name: "inception_4b/5x5_reduce"
  type: "Convolution"
  bottom: "inception_4a/output"
  top: "inception_4b/5x5_reduce"
  param {
    lr_mult: 1
    decay_mult: 1
  }
  param {
    lr_mult: 2
    decay_mult: 0
  }
  convolution_param {
    num_output: 24
    kernel_size: 1
    weight_filler {
      type: "xavier"
      std: 0.2
    }
    bias_filler {
      type: "constant"
      value: 0.2
    }
  }
}
layer {
  name: "inception_4b/relu_5x5_reduce"
  type: "ReLU"
  bottom: "inception_4b/5x5_reduce"
  top: "inception_4b/5x5_reduce"
}
layer {
  name: "inception_4b/5x5"
  type: "Convolution"
  bottom: "inception_4b/5x5_reduce"
  top: "inception_4b/5x5"
  param {
    lr_mult: 1
    decay_mult: 1
  }
  param {
    lr_mult: 2
    decay_mult: 0
  }
  convolution_param {
    num_output: 64
    pad: 2
    kernel_size: 5
    weight_filler {
      type: "xavier"
      std: 0.03
    }
    bias_filler {
      type: "constant"
      value: 0.2
    }
  }
}
layer {
  name: "inception_4b/relu_5x5"
  type: "ReLU"
  bottom: "inception_4b/5x5"
  top: "inception_4b/5x5"
}
layer {
  name: "inception_4b/pool"
  type: "Pooling"
  bottom: "inception_4a/output"
  top: "inception_4b/pool"
  pooling_param {
    pool: MAX
    kernel_size: 3
    stride: 1
    pad: 1
  }
}
layer {
  name: "inception_4b/pool_proj"
  type: "Convolution"
  bottom: "inception_4b/pool"
  top: "inception_4b/pool_proj"
  param {
    lr_mult: 1
    decay_mult: 1
  }
  param {
    lr_mult: 2
    decay_mult: 0
  }
  convolution_param {
    num_output: 64
    kernel_size: 1
    weight_filler {
      type: "xavier"
      std: 0.1
    }
    bias_filler {
      type: "constant"
      value: 0.2
    }
  }
}
layer {
  name: "inception_4b/relu_pool_proj"
  type: "ReLU"
  bottom: "inception_4b/pool_proj"
  top: "inception_4b/pool_proj"
}
layer {
  name: "inception_4b/output"
  type: "Concat"
  bottom: "inception_4b/1x1"
  bottom: "inception_4b/3x3"
  bottom: "inception_4b/5x5"
  bottom: "inception_4b/pool_proj"
  top: "inception_4b/output"
}
layer {
  name: "inception_4c/1x1"
  type: "Convolution"
  bottom: "inception_4b/output"
  top: "inception_4c/1x1"
  param {
    lr_mult: 1
    decay_mult: 1
  }
  param {
    lr_mult: 2
    decay_mult: 0
  }
  convolution_param {
    num_output: 128
    kernel_size: 1
    weight_filler {
      type: "xavier"
      std: 0.03
    }
    bias_filler {
      type: "constant"
      value: 0.2
    }
  }
}
layer {
  name: "inception_4c/relu_1x1"
  type: "ReLU"
  bottom: "inception_4c/1x1"
  top: "inception_4c/1x1"
}
layer {
  name: "inception_4c/3x3_reduce"
  type: "Convolution"
  bottom: "inception_4b/output"
  top: "inception_4c/3x3_reduce"
  param {
    lr_mult: 1
    decay_mult: 1
  }
  param {
    lr_mult: 2
    decay_mult: 0
  }
  convolution_param {
    num_output: 128
    kernel_size: 1
    weight_filler {
      type: "xavier"
      std: 0.09
    }
    bias_filler {
      type: "constant"
      value: 0.2
    }
  }
}
layer {
  name: "inception_4c/relu_3x3_reduce"
  type: "ReLU"
  bottom: "inception_4c/3x3_reduce"
  top: "inception_4c/3x3_reduce"
}
layer {
  name: "inception_4c/3x3"
  type: "Convolution"
  bottom: "inception_4c/3x3_reduce"
  top: "inception_4c/3x3"
  param {
    lr_mult: 1
    decay_mult: 1
  }
  param {
    lr_mult: 2
    decay_mult: 0
  }
  convolution_param {
    num_output: 256
    pad: 1
    kernel_size: 3
    weight_filler {
      type: "xavier"
      std: 0.03
    }
    bias_filler {
      type: "constant"
      value: 0.2
    }
  }
}
layer {
  name: "inception_4c/relu_3x3"
  type: "ReLU"
  bottom: "inception_4c/3x3"
  top: "inception_4c/3x3"
}
layer {
  name: "inception_4c/5x5_reduce"
  type: "Convolution"
  bottom: "inception_4b/output"
  top: "inception_4c/5x5_reduce"
  param {
    lr_mult: 1
    decay_mult: 1
  }
  param {
    lr_mult: 2
    decay_mult: 0
  }
  convolution_param {
    num_output: 24
    kernel_size: 1
    weight_filler {
      type: "xavier"
      std: 0.2
    }
    bias_filler {
      type: "constant"
      value: 0.2
    }
  }
}
layer {
  name: "inception_4c/relu_5x5_reduce"
  type: "ReLU"
  bottom: "inception_4c/5x5_reduce"
  top: "inception_4c/5x5_reduce"
}
layer {
  name: "inception_4c/5x5"
  type: "Convolution"
  bottom: "inception_4c/5x5_reduce"
  top: "inception_4c/5x5"
  param {
    lr_mult: 1
    decay_mult: 1
  }
  param {
    lr_mult: 2
    decay_mult: 0
  }
  convolution_param {
    num_output: 64
    pad: 2
    kernel_size: 5
    weight_filler {
      type: "xavier"
      std: 0.03
    }
    bias_filler {
      type: "constant"
      value: 0.2
    }
  }
}
layer {
  name: "inception_4c/relu_5x5"
  type: "ReLU"
  bottom: "inception_4c/5x5"
  top: "inception_4c/5x5"
}
layer {
  name: "inception_4c/pool"
  type: "Pooling"
  bottom: "inception_4b/output"
  top: "inception_4c/pool"
  pooling_param {
    pool: MAX
    kernel_size: 3
    stride: 1
    pad: 1
  }
}
layer {
  name: "inception_4c/pool_proj"
  type: "Convolution"
  bottom: "inception_4c/pool"
  top: "inception_4c/pool_proj"
  param {
    lr_mult: 1
    decay_mult: 1
  }
  param {
    lr_mult: 2
    decay_mult: 0
  }
  convolution_param {
    num_output: 64
    kernel_size: 1
    weight_filler {
      type: "xavier"
      std: 0.1
    }
    bias_filler {
      type: "constant"
      value: 0.2
    }
  }
}
layer {
  name: "inception_4c/relu_pool_proj"
  type: "ReLU"
  bottom: "inception_4c/pool_proj"
  top: "inception_4c/pool_proj"
}
layer {
  name: "inception_4c/output"
  type: "Concat"
  bottom: "inception_4c/1x1"
  bottom: "inception_4c/3x3"
  bottom: "inception_4c/5x5"
  bottom: "inception_4c/pool_proj"
  top: "inception_4c/output"
}
layer {
  name: "inception_4d/1x1"
  type: "Convolution"
  bottom: "inception_4c/output"
  top: "inception_4d/1x1"
  param {
    lr_mult: 1
    decay_mult: 1
  }
  param {
    lr_mult: 2
    decay_mult: 0
  }
  convolution_param {
    num_output: 112
    kernel_size: 1
    weight_filler {
      type: "xavier"
      std: 0.03
    }
    bias_filler {
      type: "constant"
      value: 0.2
    }
  }
}
layer {
  name: "inception_4d/relu_1x1"
  type: "ReLU"
  bottom: "inception_4d/1x1"
  top: "inception_4d/1x1"
}
layer {
  name: "inception_4d/3x3_reduce"
  type: "Convolution"
  bottom: "inception_4c/output"
  top: "inception_4d/3x3_reduce"
  param {
    lr_mult: 1
    decay_mult: 1
  }
  param {
    lr_mult: 2
    decay_mult: 0
  }
  convolution_param {
    num_output: 144
    kernel_size: 1
    weight_filler {
      type: "xavier"
      std: 0.09
    }
    bias_filler {
      type: "constant"
      value: 0.2
    }
  }
}
layer {
  name: "inception_4d/relu_3x3_reduce"
  type: "ReLU"
  bottom: "inception_4d/3x3_reduce"
  top: "inception_4d/3x3_reduce"
}
layer {
  name: "inception_4d/3x3"
  type: "Convolution"
  bottom: "inception_4d/3x3_reduce"
  top: "inception_4d/3x3"
  param {
    lr_mult: 1
    decay_mult: 1
  }
  param {
    lr_mult: 2
    decay_mult: 0
  }
  convolution_param {
    num_output: 288
    pad: 1
    kernel_size: 3
    weight_filler {
      type: "xavier"
      std: 0.03
    }
    bias_filler {
      type: "constant"
      value: 0.2
    }
  }
}
layer {
  name: "inception_4d/relu_3x3"
  type: "ReLU"
  bottom: "inception_4d/3x3"
  top: "inception_4d/3x3"
}
layer {
  name: "inception_4d/5x5_reduce"
  type: "Convolution"
  bottom: "inception_4c/output"
  top: "inception_4d/5x5_reduce"
  param {
    lr_mult: 1
    decay_mult: 1
  }
  param {
    lr_mult: 2
    decay_mult: 0
  }
  convolution_param {
    num_output: 32
    kernel_size: 1
    weight_filler {
      type: "xavier"
      std: 0.2
    }
    bias_filler {
      type: "constant"
      value: 0.2
    }
  }
}
layer {
  name: "inception_4d/relu_5x5_reduce"
  type: "ReLU"
  bottom: "inception_4d/5x5_reduce"
  top: "inception_4d/5x5_reduce"
}
layer {
  name: "inception_4d/5x5"
  type: "Convolution"
  bottom: "inception_4d/5x5_reduce"
  top: "inception_4d/5x5"
  param {
    lr_mult: 1
    decay_mult: 1
  }
  param {
    lr_mult: 2
    decay_mult: 0
  }
  convolution_param {
    num_output: 64
    pad: 2
    kernel_size: 5
    weight_filler {
      type: "xavier"
      std: 0.03
    }
    bias_filler {
      type: "constant"
      value: 0.2
    }
  }
}
layer {
  name: "inception_4d/relu_5x5"
  type: "ReLU"
  bottom: "inception_4d/5x5"
  top: "inception_4d/5x5"
}
layer {
  name: "inception_4d/pool"
  type: "Pooling"
  bottom: "inception_4c/output"
  top: "inception_4d/pool"
  pooling_param {
    pool: MAX
    kernel_size: 3
    stride: 1
    pad: 1
  }
}
layer {
  name: "inception_4d/pool_proj"
  type: "Convolution"
  bottom: "inception_4d/pool"
  top: "inception_4d/pool_proj"
  param {
    lr_mult: 1
    decay_mult: 1
  }
  param {
    lr_mult: 2
    decay_mult: 0
  }
  convolution_param {
    num_output: 64
    kernel_size: 1
    weight_filler {
      type: "xavier"
      std: 0.1
    }
    bias_filler {
      type: "constant"
      value: 0.2
    }
  }
}
layer {
  name: "inception_4d/relu_pool_proj"
  type: "ReLU"
  bottom: "inception_4d/pool_proj"
  top: "inception_4d/pool_proj"
}
layer {
  name: "inception_4d/output"
  type: "Concat"
  bottom: "inception_4d/1x1"
  bottom: "inception_4d/3x3"
  bottom: "inception_4d/5x5"
  bottom: "inception_4d/pool_proj"
  top: "inception_4d/output"
}
layer {
  name: "loss2/ave_pool"
  type: "Pooling"
  bottom: "inception_4d/output"
  top: "loss2/ave_pool"
  pooling_param {
    pool: AVE
    kernel_size: 5
    stride: 3
  }
}
layer {
  name: "loss2/conv"
  type: "Convolution"
  bottom: "loss2/ave_pool"
  top: "loss2/conv"
  param {
    lr_mult: 1
    decay_mult: 1
  }
  param {
    lr_mult: 2
    decay_mult: 0
  }
  convolution_param {
    num_output: 128
    kernel_size: 1
    weight_filler {
      type: "xavier"
      std: 0.08
    }
    bias_filler {
      type: "constant"
      value: 0.2
    }
  }
}
layer {
  name: "loss2/relu_conv"
  type: "ReLU"
  bottom: "loss2/conv"
  top: "loss2/conv"
}
layer {
  name: "loss2/fc"
  type: "InnerProduct"
  bottom: "loss2/conv"
  top: "loss2/fc"
  param {
    lr_mult: 1
    decay_mult: 1
  }
  param {
    lr_mult: 2
    decay_mult: 0
  }
  inner_product_param {
    num_output: 1024
    weight_filler {
      type: "xavier"
      std: 0.02
    }
    bias_filler {
      type: "constant"
      value: 0.2
    }
  }
}
layer {
  name: "loss2/relu_fc"
  type: "ReLU"
  bottom: "loss2/fc"
  top: "loss2/fc"
}
layer {
  name: "loss2/drop_fc"
  type: "Dropout"
  bottom: "loss2/fc"
  top: "loss2/fc"
  dropout_param {
    dropout_ratio: 0.7
  }
}
layer {
  name: "loss2/classifier_plantvillage"
  type: "InnerProduct"
  bottom: "loss2/fc"
  top: "loss2/classifier_plantvillage"
  param {
    lr_mult: 1
    decay_mult: 1
  }
  param {
    lr_mult: 2
    decay_mult: 0
  }
  inner_product_param {
    num_output: 38
    weight_filler {
      type: "xavier"
      std: 0.0009765625
    }
    bias_filler {
      type: "constant"
      value: 0
    }
  }
}
layer {
  name: "inception_4e/1x1"
  type: "Convolution"
  bottom: "inception_4d/output"
  top: "inception_4e/1x1"
  param {
    lr_mult: 1
    decay_mult: 1
  }
  param {
    lr_mult: 2
    decay_mult: 0
  }
  convolution_param {
    num_output: 256
    kernel_size: 1
    weight_filler {
      type: "xavier"
      std: 0.03
    }
    bias_filler {
      type: "constant"
      value: 0.2
    }
  }
}
layer {
  name: "inception_4e/relu_1x1"
  type: "ReLU"
  bottom: "inception_4e/1x1"
  top: "inception_4e/1x1"
}
layer {
  name: "inception_4e/3x3_reduce"
  type: "Convolution"
  bottom: "inception_4d/output"
  top: "inception_4e/3x3_reduce"
  param {
    lr_mult: 1
    decay_mult: 1
  }
  param {
    lr_mult: 2
    decay_mult: 0
  }
  convolution_param {
    num_output: 160
    kernel_size: 1
    weight_filler {
      type: "xavier"
      std: 0.09
    }
    bias_filler {
      type: "constant"
      value: 0.2
    }
  }
}
layer {
  name: "inception_4e/relu_3x3_reduce"
  type: "ReLU"
  bottom: "inception_4e/3x3_reduce"
  top: "inception_4e/3x3_reduce"
}
layer {
  name: "inception_4e/3x3"
  type: "Convolution"
  bottom: "inception_4e/3x3_reduce"
  top: "inception_4e/3x3"
  param {
    lr_mult: 1
    decay_mult: 1
  }
  param {
    lr_mult: 2
    decay_mult: 0
  }
  convolution_param {
    num_output: 320
    pad: 1
    kernel_size: 3
    weight_filler {
      type: "xavier"
      std: 0.03
    }
    bias_filler {
      type: "constant"
      value: 0.2
    }
  }
}
layer {
  name: "inception_4e/relu_3x3"
  type: "ReLU"
  bottom: "inception_4e/3x3"
  top: "inception_4e/3x3"
}
layer {
  name: "inception_4e/5x5_reduce"
  type: "Convolution"
  bottom: "inception_4d/output"
  top: "inception_4e/5x5_reduce"
  param {
    lr_mult: 1
    decay_mult: 1
  }
  param {
    lr_mult: 2
    decay_mult: 0
  }
  convolution_param {
    num_output: 32
    kernel_size: 1
    weight_filler {
      type: "xavier"
      std: 0.2
    }
    bias_filler {
      type: "constant"
      value: 0.2
    }
  }
}
layer {
  name: "inception_4e/relu_5x5_reduce"
  type: "ReLU"
  bottom: "inception_4e/5x5_reduce"
  top: "inception_4e/5x5_reduce"
}
layer {
  name: "inception_4e/5x5"
  type: "Convolution"
  bottom: "inception_4e/5x5_reduce"
  top: "inception_4e/
I0403 21:44:25.086910 24059 layer_factory.hpp:77] Creating layer data
I0403 21:44:25.087497 24059 net.cpp:91] Creating Layer data
I0403 21:44:25.087532 24059 net.cpp:399] data -> data
I0403 21:44:25.087584 24059 net.cpp:399] data -> label
I0403 21:44:25.087623 24059 data_transformer.cpp:25] Loading mean file from: /home/mohanty/data/final_dataset/lmdb/segmented-80-20/mean.binaryproto
I0403 21:44:25.088753 24061 db_lmdb.cpp:38] Opened lmdb /home/mohanty/data/final_dataset/lmdb/segmented-80-20/test_db
I0403 21:44:25.100338 24059 data_layer.cpp:41] output data size: 24,3,224,224
I0403 21:44:25.127351 24059 net.cpp:141] Setting up data
I0403 21:44:25.127434 24059 net.cpp:148] Top shape: 24 3 224 224 (3612672)
I0403 21:44:25.127456 24059 net.cpp:148] Top shape: 24 (24)
I0403 21:44:25.127473 24059 net.cpp:156] Memory required for data: 14450784
I0403 21:44:25.127502 24059 layer_factory.hpp:77] Creating layer label_data_1_split
I0403 21:44:25.127528 24059 net.cpp:91] Creating Layer label_data_1_split
I0403 21:44:25.127547 24059 net.cpp:425] label_data_1_split <- label
I0403 21:44:25.127583 24059 net.cpp:399] label_data_1_split -> label_data_1_split_0
I0403 21:44:25.127611 24059 net.cpp:399] label_data_1_split -> label_data_1_split_1
I0403 21:44:25.127634 24059 net.cpp:399] label_data_1_split -> label_data_1_split_2
I0403 21:44:25.127655 24059 net.cpp:399] label_data_1_split -> label_data_1_split_3
I0403 21:44:25.127676 24059 net.cpp:399] label_data_1_split -> label_data_1_split_4
I0403 21:44:25.127696 24059 net.cpp:399] label_data_1_split -> label_data_1_split_5
I0403 21:44:25.127717 24059 net.cpp:399] label_data_1_split -> label_data_1_split_6
I0403 21:44:25.127737 24059 net.cpp:399] label_data_1_split -> label_data_1_split_7
I0403 21:44:25.127758 24059 net.cpp:399] label_data_1_split -> label_data_1_split_8
I0403 21:44:25.127780 24059 net.cpp:399] label_data_1_split -> label_data_1_split_9
I0403 21:44:25.127897 24059 net.cpp:141] Setting up label_data_1_split
I0403 21:44:25.127921 24059 net.cpp:148] Top shape: 24 (24)
I0403 21:44:25.127939 24059 net.cpp:148] Top shape: 24 (24)
I0403 21:44:25.127959 24059 net.cpp:148] Top shape: 24 (24)
I0403 21:44:25.127975 24059 net.cpp:148] Top shape: 24 (24)
I0403 21:44:25.127991 24059 net.cpp:148] Top shape: 24 (24)
I0403 21:44:25.128007 24059 net.cpp:148] Top shape: 24 (24)
I0403 21:44:25.128023 24059 net.cpp:148] Top shape: 24 (24)
I0403 21:44:25.128039 24059 net.cpp:148] Top shape: 24 (24)
I0403 21:44:25.128054 24059 net.cpp:148] Top shape: 24 (24)
I0403 21:44:25.128072 24059 net.cpp:148] Top shape: 24 (24)
I0403 21:44:25.128114 24059 net.cpp:156] Memory required for data: 14451744
I0403 21:44:25.128131 24059 layer_factory.hpp:77] Creating layer conv1/7x7_s2
I0403 21:44:25.128165 24059 net.cpp:91] Creating Layer conv1/7x7_s2
I0403 21:44:25.128185 24059 net.cpp:425] conv1/7x7_s2 <- data
I0403 21:44:25.128204 24059 net.cpp:399] conv1/7x7_s2 -> conv1/7x7_s2
I0403 21:44:25.266337 24059 net.cpp:141] Setting up conv1/7x7_s2
I0403 21:44:25.266415 24059 net.cpp:148] Top shape: 24 64 112 112 (19267584)
I0403 21:44:25.266433 24059 net.cpp:156] Memory required for data: 91522080
I0403 21:44:25.266464 24059 layer_factory.hpp:77] Creating layer conv1/relu_7x7
I0403 21:44:25.266492 24059 net.cpp:91] Creating Layer conv1/relu_7x7
I0403 21:44:25.266512 24059 net.cpp:425] conv1/relu_7x7 <- conv1/7x7_s2
I0403 21:44:25.266531 24059 net.cpp:386] conv1/relu_7x7 -> conv1/7x7_s2 (in-place)
I0403 21:44:25.266782 24059 net.cpp:141] Setting up conv1/relu_7x7
I0403 21:44:25.266808 24059 net.cpp:148] Top shape: 24 64 112 112 (19267584)
I0403 21:44:25.266824 24059 net.cpp:156] Memory required for data: 168592416
I0403 21:44:25.266839 24059 layer_factory.hpp:77] Creating layer pool1/3x3_s2
I0403 21:44:25.266865 24059 net.cpp:91] Creating Layer pool1/3x3_s2
I0403 21:44:25.266883 24059 net.cpp:425] pool1/3x3_s2 <- conv1/7x7_s2
I0403 21:44:25.266901 24059 net.cpp:399] pool1/3x3_s2 -> pool1/3x3_s2
I0403 21:44:25.266975 24059 net.cpp:141] Setting up pool1/3x3_s2
I0403 21:44:25.267000 24059 net.cpp:148] Top shape: 24 64 56 56 (4816896)
I0403 21:44:25.267014 24059 net.cpp:156] Memory required for data: 187860000
I0403 21:44:25.267030 24059 layer_factory.hpp:77] Creating layer pool1/norm1
I0403 21:44:25.267055 24059 net.cpp:91] Creating Layer pool1/norm1
I0403 21:44:25.267073 24059 net.cpp:425] pool1/norm1 <- pool1/3x3_s2
I0403 21:44:25.267091 24059 net.cpp:399] pool1/norm1 -> pool1/norm1
I0403 21:44:25.267379 24059 net.cpp:141] Setting up pool1/norm1
I0403 21:44:25.267406 24059 net.cpp:148] Top shape: 24 64 56 56 (4816896)
I0403 21:44:25.267421 24059 net.cpp:156] Memory required for data: 207127584
I0403 21:44:25.267437 24059 layer_factory.hpp:77] Creating layer conv2/3x3_reduce
I0403 21:44:25.267463 24059 net.cpp:91] Creating Layer conv2/3x3_reduce
I0403 21:44:25.267480 24059 net.cpp:425] conv2/3x3_reduce <- pool1/norm1
I0403 21:44:25.267498 24059 net.cpp:399] conv2/3x3_reduce -> conv2/3x3_reduce
I0403 21:44:25.268807 24059 net.cpp:141] Setting up conv2/3x3_reduce
I0403 21:44:25.268838 24059 net.cpp:148] Top shape: 24 64 56 56 (4816896)
I0403 21:44:25.268856 24059 net.cpp:156] Memory required for data: 226395168
I0403 21:44:25.268877 24059 layer_factory.hpp:77] Creating layer conv2/relu_3x3_reduce
I0403 21:44:25.268895 24059 net.cpp:91] Creating Layer conv2/relu_3x3_reduce
I0403 21:44:25.268913 24059 net.cpp:425] conv2/relu_3x3_reduce <- conv2/3x3_reduce
I0403 21:44:25.268934 24059 net.cpp:386] conv2/relu_3x3_reduce -> conv2/3x3_reduce (in-place)
I0403 21:44:25.269196 24059 net.cpp:141] Setting up conv2/relu_3x3_reduce
I0403 21:44:25.269223 24059 net.cpp:148] Top shape: 24 64 56 56 (4816896)
I0403 21:44:25.269243 24059 net.cpp:156] Memory required for data: 245662752
I0403 21:44:25.269259 24059 layer_factory.hpp:77] Creating layer conv2/3x3
I0403 21:44:25.269284 24059 net.cpp:91] Creating Layer conv2/3x3
I0403 21:44:25.269304 24059 net.cpp:425] conv2/3x3 <- conv2/3x3_reduce
I0403 21:44:25.269325 24059 net.cpp:399] conv2/3x3 -> conv2/3x3
I0403 21:44:25.271587 24059 net.cpp:141] Setting up conv2/3x3
I0403 21:44:25.271618 24059 net.cpp:148] Top shape: 24 192 56 56 (14450688)
I0403 21:44:25.271636 24059 net.cpp:156] Memory required for data: 303465504
I0403 21:44:25.271657 24059 layer_factory.hpp:77] Creating layer conv2/relu_3x3
I0403 21:44:25.271677 24059 net.cpp:91] Creating Layer conv2/relu_3x3
I0403 21:44:25.271692 24059 net.cpp:425] conv2/relu_3x3 <- conv2/3x3
I0403 21:44:25.271713 24059 net.cpp:386] conv2/relu_3x3 -> conv2/3x3 (in-place)
I0403 21:44:25.271883 24059 net.cpp:141] Setting up conv2/relu_3x3
I0403 21:44:25.271906 24059 net.cpp:148] Top shape: 24 192 56 56 (14450688)
I0403 21:44:25.271965 24059 net.cpp:156] Memory required for data: 361268256
I0403 21:44:25.271981 24059 layer_factory.hpp:77] Creating layer conv2/norm2
I0403 21:44:25.272001 24059 net.cpp:91] Creating Layer conv2/norm2
I0403 21:44:25.272020 24059 net.cpp:425] conv2/norm2 <- conv2/3x3
I0403 21:44:25.272037 24059 net.cpp:399] conv2/norm2 -> conv2/norm2
I0403 21:44:25.272341 24059 net.cpp:141] Setting up conv2/norm2
I0403 21:44:25.272369 24059 net.cpp:148] Top shape: 24 192 56 56 (14450688)
I0403 21:44:25.272385 24059 net.cpp:156] Memory required for data: 419071008
I0403 21:44:25.272402 24059 layer_factory.hpp:77] Creating layer pool2/3x3_s2
I0403 21:44:25.272418 24059 net.cpp:91] Creating Layer pool2/3x3_s2
I0403 21:44:25.272433 24059 net.cpp:425] pool2/3x3_s2 <- conv2/norm2
I0403 21:44:25.272451 24059 net.cpp:399] pool2/3x3_s2 -> pool2/3x3_s2
I0403 21:44:25.272505 24059 net.cpp:141] Setting up pool2/3x3_s2
I0403 21:44:25.272527 24059 net.cpp:148] Top shape: 24 192 28 28 (3612672)
I0403 21:44:25.272541 24059 net.cpp:156] Memory required for data: 433521696
I0403 21:44:25.272557 24059 layer_factory.hpp:77] Creating layer pool2/3x3_s2_pool2/3x3_s2_0_split
I0403 21:44:25.272574 24059 net.cpp:91] Creating Layer pool2/3x3_s2_pool2/3x3_s2_0_split
I0403 21:44:25.272589 24059 net.cpp:425] pool2/3x3_s2_pool2/3x3_s2_0_split <- pool2/3x3_s2
I0403 21:44:25.272609 24059 net.cpp:399] pool2/3x3_s2_pool2/3x3_s2_0_split -> pool2/3x3_s2_pool2/3x3_s2_0_split_0
I0403 21:44:25.272631 24059 net.cpp:399] pool2/3x3_s2_pool2/3x3_s2_0_split -> pool2/3x3_s2_pool2/3x3_s2_0_split_1
I0403 21:44:25.272650 24059 net.cpp:399] pool2/3x3_s2_pool2/3x3_s2_0_split -> pool2/3x3_s2_pool2/3x3_s2_0_split_2
I0403 21:44:25.272673 24059 net.cpp:399] pool2/3x3_s2_pool2/3x3_s2_0_split -> pool2/3x3_s2_pool2/3x3_s2_0_split_3
I0403 21:44:25.272744 24059 net.cpp:141] Setting up pool2/3x3_s2_pool2/3x3_s2_0_split
I0403 21:44:25.272768 24059 net.cpp:148] Top shape: 24 192 28 28 (3612672)
I0403 21:44:25.272784 24059 net.cpp:148] Top shape: 24 192 28 28 (3612672)
I0403 21:44:25.272799 24059 net.cpp:148] Top shape: 24 192 28 28 (3612672)
I0403 21:44:25.272815 24059 net.cpp:148] Top shape: 24 192 28 28 (3612672)
I0403 21:44:25.272830 24059 net.cpp:156] Memory required for data: 491324448
I0403 21:44:25.272845 24059 layer_factory.hpp:77] Creating layer inception_3a/1x1
I0403 21:44:25.272866 24059 net.cpp:91] Creating Layer inception_3a/1x1
I0403 21:44:25.272884 24059 net.cpp:425] inception_3a/1x1 <- pool2/3x3_s2_pool2/3x3_s2_0_split_0
I0403 21:44:25.272904 24059 net.cpp:399] inception_3a/1x1 -> inception_3a/1x1
I0403 21:44:25.274459 24059 net.cpp:141] Setting up inception_3a/1x1
I0403 21:44:25.274492 24059 net.cpp:148] Top shape: 24 64 28 28 (1204224)
I0403 21:44:25.274509 24059 net.cpp:156] Memory required for data: 496141344
I0403 21:44:25.274528 24059 layer_factory.hpp:77] Creating layer inception_3a/relu_1x1
I0403 21:44:25.274546 24059 net.cpp:91] Creating Layer inception_3a/relu_1x1
I0403 21:44:25.274562 24059 net.cpp:425] inception_3a/relu_1x1 <- inception_3a/1x1
I0403 21:44:25.274585 24059 net.cpp:386] inception_3a/relu_1x1 -> inception_3a/1x1 (in-place)
I0403 21:44:25.274756 24059 net.cpp:141] Setting up inception_3a/relu_1x1
I0403 21:44:25.274781 24059 net.cpp:148] Top shape: 24 64 28 28 (1204224)
I0403 21:44:25.274797 24059 net.cpp:156] Memory required for data: 500958240
I0403 21:44:25.274812 24059 layer_factory.hpp:77] Creating layer inception_3a/3x3_reduce
I0403 21:44:25.274834 24059 net.cpp:91] Creating Layer inception_3a/3x3_reduce
I0403 21:44:25.274852 24059 net.cpp:425] inception_3a/3x3_reduce <- pool2/3x3_s2_pool2/3x3_s2_0_split_1
I0403 21:44:25.274873 24059 net.cpp:399] inception_3a/3x3_reduce -> inception_3a/3x3_reduce
I0403 21:44:25.276533 24059 net.cpp:141] Setting up inception_3a/3x3_reduce
I0403 21:44:25.276563 24059 net.cpp:148] Top shape: 24 96 28 28 (1806336)
I0403 21:44:25.276579 24059 net.cpp:156] Memory required for data: 508183584
I0403 21:44:25.276602 24059 layer_factory.hpp:77] Creating layer inception_3a/relu_3x3_reduce
I0403 21:44:25.276638 24059 net.cpp:91] Creating Layer inception_3a/relu_3x3_reduce
I0403 21:44:25.276657 24059 net.cpp:425] inception_3a/relu_3x3_reduce <- inception_3a/3x3_reduce
I0403 21:44:25.276676 24059 net.cpp:386] inception_3a/relu_3x3_reduce -> inception_3a/3x3_reduce (in-place)
I0403 21:44:25.276851 24059 net.cpp:141] Setting up inception_3a/relu_3x3_reduce
I0403 21:44:25.276881 24059 net.cpp:148] Top shape: 24 96 28 28 (1806336)
I0403 21:44:25.276898 24059 net.cpp:156] Memory required for data: 515408928
I0403 21:44:25.276913 24059 layer_factory.hpp:77] Creating layer inception_3a/3x3
I0403 21:44:25.276935 24059 net.cpp:91] Creating Layer inception_3a/3x3
I0403 21:44:25.276954 24059 net.cpp:425] inception_3a/3x3 <- inception_3a/3x3_reduce
I0403 21:44:25.276973 24059 net.cpp:399] inception_3a/3x3 -> inception_3a/3x3
I0403 21:44:25.278580 24059 net.cpp:141] Setting up inception_3a/3x3
I0403 21:44:25.278609 24059 net.cpp:148] Top shape: 24 128 28 28 (2408448)
I0403 21:44:25.278626 24059 net.cpp:156] Memory required for data: 525042720
I0403 21:44:25.278645 24059 layer_factory.hpp:77] Creating layer inception_3a/relu_3x3
I0403 21:44:25.278663 24059 net.cpp:91] Creating Layer inception_3a/relu_3x3
I0403 21:44:25.278682 24059 net.cpp:425] inception_3a/relu_3x3 <- inception_3a/3x3
I0403 21:44:25.278700 24059 net.cpp:386] inception_3a/relu_3x3 -> inception_3a/3x3 (in-place)
I0403 21:44:25.278966 24059 net.cpp:141] Setting up inception_3a/relu_3x3
I0403 21:44:25.278995 24059 net.cpp:148] Top shape: 24 128 28 28 (2408448)
I0403 21:44:25.279009 24059 net.cpp:156] Memory required for data: 534676512
I0403 21:44:25.279024 24059 layer_factory.hpp:77] Creating layer inception_3a/5x5_reduce
I0403 21:44:25.279047 24059 net.cpp:91] Creating Layer inception_3a/5x5_reduce
I0403 21:44:25.279065 24059 net.cpp:425] inception_3a/5x5_reduce <- pool2/3x3_s2_pool2/3x3_s2_0_split_2
I0403 21:44:25.279086 24059 net.cpp:399] inception_3a/5x5_reduce -> inception_3a/5x5_reduce
I0403 21:44:25.280019 24059 net.cpp:141] Setting up inception_3a/5x5_reduce
I0403 21:44:25.280047 24059 net.cpp:148] Top shape: 24 16 28 28 (301056)
I0403 21:44:25.280063 24059 net.cpp:156] Memory required for data: 535880736
I0403 21:44:25.280081 24059 layer_factory.hpp:77] Creating layer inception_3a/relu_5x5_reduce
I0403 21:44:25.280102 24059 net.cpp:91] Creating Layer inception_3a/relu_5x5_reduce
I0403 21:44:25.280119 24059 net.cpp:425] inception_3a/relu_5x5_reduce <- inception_3a/5x5_reduce
I0403 21:44:25.280136 24059 net.cpp:386] inception_3a/relu_5x5_reduce -> inception_3a/5x5_reduce (in-place)
I0403 21:44:25.280433 24059 net.cpp:141] Setting up inception_3a/relu_5x5_reduce
I0403 21:44:25.280460 24059 net.cpp:148] Top shape: 24 16 28 28 (301056)
I0403 21:44:25.280477 24059 net.cpp:156] Memory required for data: 537084960
I0403 21:44:25.280490 24059 layer_factory.hpp:77] Creating layer inception_3a/5x5
I0403 21:44:25.280515 24059 net.cpp:91] Creating Layer inception_3a/5x5
I0403 21:44:25.280534 24059 net.cpp:425] inception_3a/5x5 <- inception_3a/5x5_reduce
I0403 21:44:25.280557 24059 net.cpp:399] inception_3a/5x5 -> inception_3a/5x5
I0403 21:44:25.281539 24059 net.cpp:141] Setting up inception_3a/5x5
I0403 21:44:25.281569 24059 net.cpp:148] Top shape: 24 32 28 28 (602112)
I0403 21:44:25.281585 24059 net.cpp:156] Memory required for data: 539493408
I0403 21:44:25.281605 24059 layer_factory.hpp:77] Creating layer inception_3a/relu_5x5
I0403 21:44:25.281622 24059 net.cpp:91] Creating Layer inception_3a/relu_5x5
I0403 21:44:25.281640 24059 net.cpp:425] inception_3a/relu_5x5 <- inception_3a/5x5
I0403 21:44:25.281661 24059 net.cpp:386] inception_3a/relu_5x5 -> inception_3a/5x5 (in-place)
I0403 21:44:25.281828 24059 net.cpp:141] Setting up inception_3a/relu_5x5
I0403 21:44:25.281853 24059 net.cpp:148] Top shape: 24 32 28 28 (602112)
I0403 21:44:25.281867 24059 net.cpp:156] Memory required for data: 541901856
I0403 21:44:25.281883 24059 layer_factory.hpp:77] Creating layer inception_3a/pool
I0403 21:44:25.281900 24059 net.cpp:91] Creating Layer inception_3a/pool
I0403 21:44:25.281930 24059 net.cpp:425] inception_3a/pool <- pool2/3x3_s2_pool2/3x3_s2_0_split_3
I0403 21:44:25.281950 24059 net.cpp:399] inception_3a/pool -> inception_3a/pool
I0403 21:44:25.282007 24059 net.cpp:141] Setting up inception_3a/pool
I0403 21:44:25.282030 24059 net.cpp:148] Top shape: 24 192 28 28 (3612672)
I0403 21:44:25.282045 24059 net.cpp:156] Memory required for data: 556352544
I0403 21:44:25.282059 24059 layer_factory.hpp:77] Creating layer inception_3a/pool_proj
I0403 21:44:25.282081 24059 net.cpp:91] Creating Layer inception_3a/pool_proj
I0403 21:44:25.282099 24059 net.cpp:425] inception_3a/pool_proj <- inception_3a/pool
I0403 21:44:25.282121 24059 net.cpp:399] inception_3a/pool_proj -> inception_3a/pool_proj
I0403 21:44:25.283056 24059 net.cpp:141] Setting up inception_3a/pool_proj
I0403 21:44:25.283083 24059 net.cpp:148] Top shape: 24 32 28 28 (602112)
I0403 21:44:25.283099 24059 net.cpp:156] Memory required for data: 558760992
I0403 21:44:25.283123 24059 layer_factory.hpp:77] Creating layer inception_3a/relu_pool_proj
I0403 21:44:25.283144 24059 net.cpp:91] Creating Layer inception_3a/relu_pool_proj
I0403 21:44:25.283162 24059 net.cpp:425] inception_3a/relu_pool_proj <- inception_3a/pool_proj
I0403 21:44:25.283180 24059 net.cpp:386] inception_3a/relu_pool_proj -> inception_3a/pool_proj (in-place)
I0403 21:44:25.283453 24059 net.cpp:141] Setting up inception_3a/relu_pool_proj
I0403 21:44:25.283479 24059 net.cpp:148] Top shape: 24 32 28 28 (602112)
I0403 21:44:25.283494 24059 net.cpp:156] Memory required for data: 561169440
I0403 21:44:25.283510 24059 layer_factory.hpp:77] Creating layer inception_3a/output
I0403 21:44:25.283527 24059 net.cpp:91] Creating Layer inception_3a/output
I0403 21:44:25.283543 24059 net.cpp:425] inception_3a/output <- inception_3a/1x1
I0403 21:44:25.283560 24059 net.cpp:425] inception_3a/output <- inception_3a/3x3
I0403 21:44:25.283576 24059 net.cpp:425] inception_3a/output <- inception_3a/5x5
I0403 21:44:25.283591 24059 net.cpp:425] inception_3a/output <- inception_3a/pool_proj
I0403 21:44:25.283612 24059 net.cpp:399] inception_3a/output -> inception_3a/output
I0403 21:44:25.283656 24059 net.cpp:141] Setting up inception_3a/output
I0403 21:44:25.283684 24059 net.cpp:148] Top shape: 24 256 28 28 (4816896)
I0403 21:44:25.283699 24059 net.cpp:156] Memory required for data: 580437024
I0403 21:44:25.283715 24059 layer_factory.hpp:77] Creating layer inception_3a/output_inception_3a/output_0_split
I0403 21:44:25.283731 24059 net.cpp:91] Creating Layer inception_3a/output_inception_3a/output_0_split
I0403 21:44:25.283748 24059 net.cpp:425] inception_3a/output_inception_3a/output_0_split <- inception_3a/output
I0403 21:44:25.283766 24059 net.cpp:399] inception_3a/output_inception_3a/output_0_split -> inception_3a/output_inception_3a/output_0_split_0
I0403 21:44:25.283789 24059 net.cpp:399] inception_3a/output_inception_3a/output_0_split -> inception_3a/output_inception_3a/output_0_split_1
I0403 21:44:25.283812 24059 net.cpp:399] inception_3a/output_inception_3a/output_0_split -> inception_3a/output_inception_3a/output_0_split_2
I0403 21:44:25.283834 24059 net.cpp:399] inception_3a/output_inception_3a/output_0_split -> inception_3a/output_inception_3a/output_0_split_3
I0403 21:44:25.283913 24059 net.cpp:141] Setting up inception_3a/output_inception_3a/output_0_split
I0403 21:44:25.283941 24059 net.cpp:148] Top shape: 24 256 28 28 (4816896)
I0403 21:44:25.283958 24059 net.cpp:148] Top shape: 24 256 28 28 (4816896)
I0403 21:44:25.283975 24059 net.cpp:148] Top shape: 24 256 28 28 (4816896)
I0403 21:44:25.283990 24059 net.cpp:148] Top shape: 24 256 28 28 (4816896)
I0403 21:44:25.284004 24059 net.cpp:156] Memory required for data: 657507360
I0403 21:44:25.284019 24059 layer_factory.hpp:77] Creating layer inception_3b/1x1
I0403 21:44:25.284042 24059 net.cpp:91] Creating Layer inception_3b/1x1
I0403 21:44:25.284060 24059 net.cpp:425] inception_3b/1x1 <- inception_3a/output_inception_3a/output_0_split_0
I0403 21:44:25.284080 24059 net.cpp:399] inception_3b/1x1 -> inception_3b/1x1
I0403 21:44:25.285189 24059 net.cpp:141] Setting up inception_3b/1x1
I0403 21:44:25.285233 24059 net.cpp:148] Top shape: 24 128 28 28 (2408448)
I0403 21:44:25.285253 24059 net.cpp:156] Memory required for data: 667141152
I0403 21:44:25.285271 24059 layer_factory.hpp:77] Creating layer inception_3b/relu_1x1
I0403 21:44:25.285290 24059 net.cpp:91] Creating Layer inception_3b/relu_1x1
I0403 21:44:25.285307 24059 net.cpp:425] inception_3b/relu_1x1 <- inception_3b/1x1
I0403 21:44:25.285325 24059 net.cpp:386] inception_3b/relu_1x1 -> inception_3b/1x1 (in-place)
I0403 21:44:25.285501 24059 net.cpp:141] Setting up inception_3b/relu_1x1
I0403 21:44:25.285526 24059 net.cpp:148] Top shape: 24 128 28 28 (2408448)
I0403 21:44:25.285542 24059 net.cpp:156] Memory required for data: 676774944
I0403 21:44:25.285557 24059 layer_factory.hpp:77] Creating layer inception_3b/3x3_reduce
I0403 21:44:25.285579 24059 net.cpp:91] Creating Layer inception_3b/3x3_reduce
I0403 21:44:25.285598 24059 net.cpp:425] inception_3b/3x3_reduce <- inception_3a/output_inception_3a/output_0_split_1
I0403 21:44:25.285619 24059 net.cpp:399] inception_3b/3x3_reduce -> inception_3b/3x3_reduce
I0403 21:44:25.286730 24059 net.cpp:141] Setting up inception_3b/3x3_reduce
I0403 21:44:25.286758 24059 net.cpp:148] Top shape: 24 128 28 28 (2408448)
I0403 21:44:25.286777 24059 net.cpp:156] Memory required for data: 686408736
I0403 21:44:25.286795 24059 layer_factory.hpp:77] Creating layer inception_3b/relu_3x3_reduce
I0403 21:44:25.286815 24059 net.cpp:91] Creating Layer inception_3b/relu_3x3_reduce
I0403 21:44:25.286830 24059 net.cpp:425] inception_3b/relu_3x3_reduce <- inception_3b/3x3_reduce
I0403 21:44:25.286849 24059 net.cpp:386] inception_3b/relu_3x3_reduce -> inception_3b/3x3_reduce (in-place)
I0403 21:44:25.287021 24059 net.cpp:141] Setting up inception_3b/relu_3x3_reduce
I0403 21:44:25.287046 24059 net.cpp:148] Top shape: 24 128 28 28 (2408448)
I0403 21:44:25.287061 24059 net.cpp:156] Memory required for data: 696042528
I0403 21:44:25.287076 24059 layer_factory.hpp:77] Creating layer inception_3b/3x3
I0403 21:44:25.287101 24059 net.cpp:91] Creating Layer inception_3b/3x3
I0403 21:44:25.287120 24059 net.cpp:425] inception_3b/3x3 <- inception_3b/3x3_reduce
I0403 21:44:25.287139 24059 net.cpp:399] inception_3b/3x3 -> inception_3b/3x3
I0403 21:44:25.290001 24059 net.cpp:141] Setting up inception_3b/3x3
I0403 21:44:25.290031 24059 net.cpp:148] Top shape: 24 192 28 28 (3612672)
I0403 21:44:25.290048 24059 net.cpp:156] Memory required for data: 710493216
I0403 21:44:25.290066 24059 layer_factory.hpp:77] Creating layer inception_3b/relu_3x3
I0403 21:44:25.290084 24059 net.cpp:91] Creating Layer inception_3b/relu_3x3
I0403 21:44:25.290133 24059 net.cpp:425] inception_3b/relu_3x3 <- inception_3b/3x3
I0403 21:44:25.290153 24059 net.cpp:386] inception_3b/relu_3x3 -> inception_3b/3x3 (in-place)
I0403 21:44:25.290459 24059 net.cpp:141] Setting up inception_3b/relu_3x3
I0403 21:44:25.290487 24059 net.cpp:148] Top shape: 24 192 28 28 (3612672)
I0403 21:44:25.290503 24059 net.cpp:156] Memory required for data: 724943904
I0403 21:44:25.290518 24059 layer_factory.hpp:77] Creating layer inception_3b/5x5_reduce
I0403 21:44:25.290540 24059 net.cpp:91] Creating Layer inception_3b/5x5_reduce
I0403 21:44:25.290560 24059 net.cpp:425] inception_3b/5x5_reduce <- inception_3a/output_inception_3a/output_0_split_2
I0403 21:44:25.290581 24059 net.cpp:399] inception_3b/5x5_reduce -> inception_3b/5x5_reduce
I0403 21:44:25.291606 24059 net.cpp:141] Setting up inception_3b/5x5_reduce
I0403 21:44:25.291636 24059 net.cpp:148] Top shape: 24 32 28 28 (602112)
I0403 21:44:25.291654 24059 net.cpp:156] Memory required for data: 727352352
I0403 21:44:25.291672 24059 layer_factory.hpp:77] Creating layer inception_3b/relu_5x5_reduce
I0403 21:44:25.291692 24059 net.cpp:91] Creating Layer inception_3b/relu_5x5_reduce
I0403 21:44:25.291709 24059 net.cpp:425] inception_3b/relu_5x5_reduce <- inception_3b/5x5_reduce
I0403 21:44:25.291730 24059 net.cpp:386] inception_3b/relu_5x5_reduce -> inception_3b/5x5_reduce (in-place)
I0403 21:44:25.291936 24059 net.cpp:141] Setting up inception_3b/relu_5x5_reduce
I0403 21:44:25.291962 24059 net.cpp:148] Top shape: 24 32 28 28 (602112)
I0403 21:44:25.291977 24059 net.cpp:156] Memory required for data: 729760800
I0403 21:44:25.291992 24059 layer_factory.hpp:77] Creating layer inception_3b/5x5
I0403 21:44:25.292016 24059 net.cpp:91] Creating Layer inception_3b/5x5
I0403 21:44:25.292033 24059 net.cpp:425] inception_3b/5x5 <- inception_3b/5x5_reduce
I0403 21:44:25.292054 24059 net.cpp:399] inception_3b/5x5 -> inception_3b/5x5
I0403 21:44:25.293987 24059 net.cpp:141] Setting up inception_3b/5x5
I0403 21:44:25.294018 24059 net.cpp:148] Top shape: 24 96 28 28 (1806336)
I0403 21:44:25.294035 24059 net.cpp:156] Memory required for data: 736986144
I0403 21:44:25.294054 24059 layer_factory.hpp:77] Creating layer inception_3b/relu_5x5
I0403 21:44:25.294073 24059 net.cpp:91] Creating Layer inception_3b/relu_5x5
I0403 21:44:25.294090 24059 net.cpp:425] inception_3b/relu_5x5 <- inception_3b/5x5
I0403 21:44:25.294109 24059 net.cpp:386] inception_3b/relu_5x5 -> inception_3b/5x5 (in-place)
I0403 21:44:25.294306 24059 net.cpp:141] Setting up inception_3b/relu_5x5
I0403 21:44:25.294332 24059 net.cpp:148] Top shape: 24 96 28 28 (1806336)
I0403 21:44:25.294347 24059 net.cpp:156] Memory required for data: 744211488
I0403 21:44:25.294361 24059 layer_factory.hpp:77] Creating layer inception_3b/pool
I0403 21:44:25.294379 24059 net.cpp:91] Creating Layer inception_3b/pool
I0403 21:44:25.294395 24059 net.cpp:425] inception_3b/pool <- inception_3a/output_inception_3a/output_0_split_3
I0403 21:44:25.294414 24059 net.cpp:399] inception_3b/pool -> inception_3b/pool
I0403 21:44:25.294467 24059 net.cpp:141] Setting up inception_3b/pool
I0403 21:44:25.294492 24059 net.cpp:148] Top shape: 24 256 28 28 (4816896)
I0403 21:44:25.294507 24059 net.cpp:156] Memory required for data: 763479072
I0403 21:44:25.294520 24059 layer_factory.hpp:77] Creating layer inception_3b/pool_proj
I0403 21:44:25.294544 24059 net.cpp:91] Creating Layer inception_3b/pool_proj
I0403 21:44:25.294562 24059 net.cpp:425] inception_3b/pool_proj <- inception_3b/pool
I0403 21:44:25.294582 24059 net.cpp:399] inception_3b/pool_proj -> inception_3b/pool_proj
I0403 21:44:25.295614 24059 net.cpp:141] Setting up inception_3b/pool_proj
I0403 21:44:25.295642 24059 net.cpp:148] Top shape: 24 64 28 28 (1204224)
I0403 21:44:25.295658 24059 net.cpp:156] Memory required for data: 768295968
I0403 21:44:25.295677 24059 layer_factory.hpp:77] Creating layer inception_3b/relu_pool_proj
I0403 21:44:25.295697 24059 net.cpp:91] Creating Layer inception_3b/relu_pool_proj
I0403 21:44:25.295714 24059 net.cpp:425] inception_3b/relu_pool_proj <- inception_3b/pool_proj
I0403 21:44:25.295732 24059 net.cpp:386] inception_3b/relu_pool_proj -> inception_3b/pool_proj (in-place)
I0403 21:44:25.296118 24059 net.cpp:141] Setting up inception_3b/relu_pool_proj
I0403 21:44:25.296145 24059 net.cpp:148] Top shape: 24 64 28 28 (1204224)
I0403 21:44:25.296160 24059 net.cpp:156] Memory required for data: 773112864
I0403 21:44:25.296176 24059 layer_factory.hpp:77] Creating layer inception_3b/output
I0403 21:44:25.296195 24059 net.cpp:91] Creating Layer inception_3b/output
I0403 21:44:25.296213 24059 net.cpp:425] inception_3b/output <- inception_3b/1x1
I0403 21:44:25.296233 24059 net.cpp:425] inception_3b/output <- inception_3b/3x3
I0403 21:44:25.296252 24059 net.cpp:425] inception_3b/output <- inception_3b/5x5
I0403 21:44:25.296269 24059 net.cpp:425] inception_3b/output <- inception_3b/pool_proj
I0403 21:44:25.296286 24059 net.cpp:399] inception_3b/output -> inception_3b/output
I0403 21:44:25.296329 24059 net.cpp:141] Setting up inception_3b/output
I0403 21:44:25.296355 24059 net.cpp:148] Top shape: 24 480 28 28 (9031680)
I0403 21:44:25.296370 24059 net.cpp:156] Memory required for data: 809239584
I0403 21:44:25.296386 24059 layer_factory.hpp:77] Creating layer pool3/3x3_s2
I0403 21:44:25.296403 24059 net.cpp:91] Creating Layer pool3/3x3_s2
I0403 21:44:25.296421 24059 net.cpp:425] pool3/3x3_s2 <- inception_3b/output
I0403 21:44:25.296455 24059 net.cpp:399] pool3/3x3_s2 -> pool3/3x3_s2
I0403 21:44:25.296512 24059 net.cpp:141] Setting up pool3/3x3_s2
I0403 21:44:25.296537 24059 net.cpp:148] Top shape: 24 480 14 14 (2257920)
I0403 21:44:25.296552 24059 net.cpp:156] Memory required for data: 818271264
I0403 21:44:25.296568 24059 layer_factory.hpp:77] Creating layer pool3/3x3_s2_pool3/3x3_s2_0_split
I0403 21:44:25.296586 24059 net.cpp:91] Creating Layer pool3/3x3_s2_pool3/3x3_s2_0_split
I0403 21:44:25.296602 24059 net.cpp:425] pool3/3x3_s2_pool3/3x3_s2_0_split <- pool3/3x3_s2
I0403 21:44:25.296618 24059 net.cpp:399] pool3/3x3_s2_pool3/3x3_s2_0_split -> pool3/3x3_s2_pool3/3x3_s2_0_split_0
I0403 21:44:25.296638 24059 net.cpp:399] pool3/3x3_s2_pool3/3x3_s2_0_split -> pool3/3x3_s2_pool3/3x3_s2_0_split_1
I0403 21:44:25.296660 24059 net.cpp:399] pool3/3x3_s2_pool3/3x3_s2_0_split -> pool3/3x3_s2_pool3/3x3_s2_0_split_2
I0403 21:44:25.296681 24059 net.cpp:399] pool3/3x3_s2_pool3/3x3_s2_0_split -> pool3/3x3_s2_pool3/3x3_s2_0_split_3
I0403 21:44:25.296756 24059 net.cpp:141] Setting up pool3/3x3_s2_pool3/3x3_s2_0_split
I0403 21:44:25.296779 24059 net.cpp:148] Top shape: 24 480 14 14 (2257920)
I0403 21:44:25.296797 24059 net.cpp:148] Top shape: 24 480 14 14 (2257920)
I0403 21:44:25.296811 24059 net.cpp:148] Top shape: 24 480 14 14 (2257920)
I0403 21:44:25.296826 24059 net.cpp:148] Top shape: 24 480 14 14 (2257920)
I0403 21:44:25.296841 24059 net.cpp:156] Memory required for data: 854397984
I0403 21:44:25.296856 24059 layer_factory.hpp:77] Creating layer inception_4a/1x1
I0403 21:44:25.296879 24059 net.cpp:91] Creating Layer inception_4a/1x1
I0403 21:44:25.296895 24059 net.cpp:425] inception_4a/1x1 <- pool3/3x3_s2_pool3/3x3_s2_0_split_0
I0403 21:44:25.296917 24059 net.cpp:399] inception_4a/1x1 -> inception_4a/1x1
I0403 21:44:25.298452 24059 net.cpp:141] Setting up inception_4a/1x1
I0403 21:44:25.298481 24059 net.cpp:148] Top shape: 24 192 14 14 (903168)
I0403 21:44:25.298497 24059 net.cpp:156] Memory required for data: 858010656
I0403 21:44:25.298516 24059 layer_factory.hpp:77] Creating layer inception_4a/relu_1x1
I0403 21:44:25.298537 24059 net.cpp:91] Creating Layer inception_4a/relu_1x1
I0403 21:44:25.298554 24059 net.cpp:425] inception_4a/relu_1x1 <- inception_4a/1x1
I0403 21:44:25.298573 24059 net.cpp:386] inception_4a/relu_1x1 -> inception_4a/1x1 (in-place)
I0403 21:44:25.298748 24059 net.cpp:141] Setting up inception_4a/relu_1x1
I0403 21:44:25.298777 24059 net.cpp:148] Top shape: 24 192 14 14 (903168)
I0403 21:44:25.298794 24059 net.cpp:156] Memory required for data: 861623328
I0403 21:44:25.298810 24059 layer_factory.hpp:77] Creating layer inception_4a/3x3_reduce
I0403 21:44:25.298831 24059 net.cpp:91] Creating Layer inception_4a/3x3_reduce
I0403 21:44:25.298848 24059 net.cpp:425] inception_4a/3x3_reduce <- pool3/3x3_s2_pool3/3x3_s2_0_split_1
I0403 21:44:25.298871 24059 net.cpp:399] inception_4a/3x3_reduce -> inception_4a/3x3_reduce
I0403 21:44:25.300112 24059 net.cpp:141] Setting up inception_4a/3x3_reduce
I0403 21:44:25.300139 24059 net.cpp:148] Top shape: 24 96 14 14 (451584)
I0403 21:44:25.300155 24059 net.cpp:156] Memory required for data: 863429664
I0403 21:44:25.300180 24059 layer_factory.hpp:77] Creating layer inception_4a/relu_3x3_reduce
I0403 21:44:25.300204 24059 net.cpp:91] Creating Layer inception_4a/relu_3x3_reduce
I0403 21:44:25.300220 24059 net.cpp:425] inception_4a/relu_3x3_reduce <- inception_4a/3x3_reduce
I0403 21:44:25.300245 24059 net.cpp:386] inception_4a/relu_3x3_reduce -> inception_4a/3x3_reduce (in-place)
I0403 21:44:25.300417 24059 net.cpp:141] Setting up inception_4a/relu_3x3_reduce
I0403 21:44:25.300444 24059 net.cpp:148] Top shape: 24 96 14 14 (451584)
I0403 21:44:25.300460 24059 net.cpp:156] Memory required for data: 865236000
I0403 21:44:25.300477 24059 layer_factory.hpp:77] Creating layer inception_4a/3x3
I0403 21:44:25.300498 24059 net.cpp:91] Creating Layer inception_4a/3x3
I0403 21:44:25.300518 24059 net.cpp:425] inception_4a/3x3 <- inception_4a/3x3_reduce
I0403 21:44:25.300536 24059 net.cpp:399] inception_4a/3x3 -> inception_4a/3x3
I0403 21:44:25.303179 24059 net.cpp:141] Setting up inception_4a/3x3
I0403 21:44:25.303210 24059 net.cpp:148] Top shape: 24 208 14 14 (978432)
I0403 21:44:25.303231 24059 net.cpp:156] Memory required for data: 869149728
I0403 21:44:25.303251 24059 layer_factory.hpp:77] Creating layer inception_4a/relu_3x3
I0403 21:44:25.303270 24059 net.cpp:91] Creating Layer inception_4a/relu_3x3
I0403 21:44:25.303287 24059 net.cpp:425] inception_4a/relu_3x3 <- inception_4a/3x3
I0403 21:44:25.303308 24059 net.cpp:386] inception_4a/relu_3x3 -> inception_4a/3x3 (in-place)
I0403 21:44:25.303586 24059 net.cpp:141] Setting up inception_4a/relu_3x3
I0403 21:44:25.303614 24059 net.cpp:148] Top shape: 24 208 14 14 (978432)
I0403 21:44:25.303632 24059 net.cpp:156] Memory required for data: 873063456
I0403 21:44:25.303647 24059 layer_factory.hpp:77] Creating layer inception_4a/5x5_reduce
I0403 21:44:25.303670 24059 net.cpp:91] Creating Layer inception_4a/5x5_reduce
I0403 21:44:25.303689 24059 net.cpp:425] inception_4a/5x5_reduce <- pool3/3x3_s2_pool3/3x3_s2_0_split_2
I0403 21:44:25.303709 24059 net.cpp:399] inception_4a/5x5_reduce -> inception_4a/5x5_reduce
I0403 21:44:25.304699 24059 net.cpp:141] Setting up inception_4a/5x5_reduce
I0403 21:44:25.304730 24059 net.cpp:148] Top shape: 24 16 14 14 (75264)
I0403 21:44:25.304747 24059 net.cpp:156] Memory required for data: 873364512
I0403 21:44:25.304766 24059 layer_factory.hpp:77] Creating layer inception_4a/relu_5x5_reduce
I0403 21:44:25.304785 24059 net.cpp:91] Creating Layer inception_4a/relu_5x5_reduce
I0403 21:44:25.304801 24059 net.cpp:425] inception_4a/relu_5x5_reduce <- inception_4a/5x5_reduce
I0403 21:44:25.304821 24059 net.cpp:386] inception_4a/relu_5x5_reduce -> inception_4a/5x5_reduce (in-place)
I0403 21:44:25.304998 24059 net.cpp:141] Setting up inception_4a/relu_5x5_reduce
I0403 21:44:25.305023 24059 net.cpp:148] Top shape: 24 16 14 14 (75264)
I0403 21:44:25.305038 24059 net.cpp:156] Memory required for data: 873665568
I0403 21:44:25.305053 24059 layer_factory.hpp:77] Creating layer inception_4a/5x5
I0403 21:44:25.305076 24059 net.cpp:91] Creating Layer inception_4a/5x5
I0403 21:44:25.305094 24059 net.cpp:425] inception_4a/5x5 <- inception_4a/5x5_reduce
I0403 21:44:25.305116 24059 net.cpp:399] inception_4a/5x5 -> inception_4a/5x5
I0403 21:44:25.306180 24059 net.cpp:141] Setting up inception_4a/5x5
I0403 21:44:25.306207 24059 net.cpp:148] Top shape: 24 48 14 14 (225792)
I0403 21:44:25.306223 24059 net.cpp:156] Memory required for data: 874568736
I0403 21:44:25.306259 24059 layer_factory.hpp:77] Creating layer inception_4a/relu_5x5
I0403 21:44:25.306293 24059 net.cpp:91] Creating Layer inception_4a/relu_5x5
I0403 21:44:25.306313 24059 net.cpp:425] inception_4a/relu_5x5 <- inception_4a/5x5
I0403 21:44:25.306330 24059 net.cpp:386] inception_4a/relu_5x5 -> inception_4a/5x5 (in-place)
I0403 21:44:25.306512 24059 net.cpp:141] Setting up inception_4a/relu_5x5
I0403 21:44:25.306538 24059 net.cpp:148] Top shape: 24 48 14 14 (225792)
I0403 21:44:25.306565 24059 net.cpp:156] Memory required for data: 875471904
I0403 21:44:25.306581 24059 layer_factory.hpp:77] Creating layer inception_4a/pool
I0403 21:44:25.306601 24059 net.cpp:91] Creating Layer inception_4a/pool
I0403 21:44:25.306618 24059 net.cpp:425] inception_4a/pool <- pool3/3x3_s2_pool3/3x3_s2_0_split_3
I0403 21:44:25.306637 24059 net.cpp:399] inception_4a/pool -> inception_4a/pool
I0403 21:44:25.306697 24059 net.cpp:141] Setting up inception_4a/pool
I0403 21:44:25.306721 24059 net.cpp:148] Top shape: 24 480 14 14 (2257920)
I0403 21:44:25.306736 24059 net.cpp:156] Memory required for data: 884503584
I0403 21:44:25.306751 24059 layer_factory.hpp:77] Creating layer inception_4a/pool_proj
I0403 21:44:25.306773 24059 net.cpp:91] Creating Layer inception_4a/pool_proj
I0403 21:44:25.306790 24059 net.cpp:425] inception_4a/pool_proj <- inception_4a/pool
I0403 21:44:25.306813 24059 net.cpp:399] inception_4a/pool_proj -> inception_4a/pool_proj
I0403 21:44:25.307950 24059 net.cpp:141] Setting up inception_4a/pool_proj
I0403 21:44:25.307978 24059 net.cpp:148] Top shape: 24 64 14 14 (301056)
I0403 21:44:25.308009 24059 net.cpp:156] Memory required for data: 885707808
I0403 21:44:25.308029 24059 layer_factory.hpp:77] Creating layer inception_4a/relu_pool_proj
I0403 21:44:25.308051 24059 net.cpp:91] Creating Layer inception_4a/relu_pool_proj
I0403 21:44:25.308069 24059 net.cpp:425] inception_4a/relu_pool_proj <- inception_4a/pool_proj
I0403 21:44:25.308087 24059 net.cpp:386] inception_4a/relu_pool_proj -> inception_4a/pool_proj (in-place)
I0403 21:44:25.308378 24059 net.cpp:141] Setting up inception_4a/relu_pool_proj
I0403 21:44:25.308404 24059 net.cpp:148] Top shape: 24 64 14 14 (301056)
I0403 21:44:25.308421 24059 net.cpp:156] Memory required for data: 886912032
I0403 21:44:25.308437 24059 layer_factory.hpp:77] Creating layer inception_4a/output
I0403 21:44:25.308456 24059 net.cpp:91] Creating Layer inception_4a/output
I0403 21:44:25.308475 24059 net.cpp:425] inception_4a/output <- inception_4a/1x1
I0403 21:44:25.308490 24059 net.cpp:425] inception_4a/output <- inception_4a/3x3
I0403 21:44:25.308507 24059 net.cpp:425] inception_4a/output <- inception_4a/5x5
I0403 21:44:25.308524 24059 net.cpp:425] inception_4a/output <- inception_4a/pool_proj
I0403 21:44:25.308542 24059 net.cpp:399] inception_4a/output -> inception_4a/output
I0403 21:44:25.308585 24059 net.cpp:141] Setting up inception_4a/output
I0403 21:44:25.308609 24059 net.cpp:148] Top shape: 24 512 14 14 (2408448)
I0403 21:44:25.308624 24059 net.cpp:156] Memory required for data: 896545824
I0403 21:44:25.308640 24059 layer_factory.hpp:77] Creating layer inception_4a/output_inception_4a/output_0_split
I0403 21:44:25.308657 24059 net.cpp:91] Creating Layer inception_4a/output_inception_4a/output_0_split
I0403 21:44:25.308672 24059 net.cpp:425] inception_4a/output_inception_4a/output_0_split <- inception_4a/output
I0403 21:44:25.308692 24059 net.cpp:399] inception_4a/output_inception_4a/output_0_split -> inception_4a/output_inception_4a/output_0_split_0
I0403 21:44:25.308713 24059 net.cpp:399] inception_4a/output_inception_4a/output_0_split -> inception_4a/output_inception_4a/output_0_split_1
I0403 21:44:25.308734 24059 net.cpp:399] inception_4a/output_inception_4a/output_0_split -> inception_4a/output_inception_4a/output_0_split_2
I0403 21:44:25.308755 24059 net.cpp:399] inception_4a/output_inception_4a/output_0_split -> inception_4a/output_inception_4a/output_0_split_3
I0403 21:44:25.308778 24059 net.cpp:399] inception_4a/output_inception_4a/output_0_split -> inception_4a/output_inception_4a/output_0_split_4
I0403 21:44:25.308871 24059 net.cpp:141] Setting up inception_4a/output_inception_4a/output_0_split
I0403 21:44:25.308895 24059 net.cpp:148] Top shape: 24 512 14 14 (2408448)
I0403 21:44:25.308914 24059 net.cpp:148] Top shape: 24 512 14 14 (2408448)
I0403 21:44:25.308931 24059 net.cpp:148] Top shape: 24 512 14 14 (2408448)
I0403 21:44:25.308948 24059 net.cpp:148] Top shape: 24 512 14 14 (2408448)
I0403 21:44:25.308964 24059 net.cpp:148] Top shape: 24 512 14 14 (2408448)
I0403 21:44:25.308976 24059 net.cpp:156] Memory required for data: 944714784
I0403 21:44:25.308990 24059 layer_factory.hpp:77] Creating layer loss1/ave_pool
I0403 21:44:25.309008 24059 net.cpp:91] Creating Layer loss1/ave_pool
I0403 21:44:25.309025 24059 net.cpp:425] loss1/ave_pool <- inception_4a/output_inception_4a/output_0_split_0
I0403 21:44:25.309046 24059 net.cpp:399] loss1/ave_pool -> loss1/ave_pool
I0403 21:44:25.309253 24059 net.cpp:141] Setting up loss1/ave_pool
I0403 21:44:25.309279 24059 net.cpp:148] Top shape: 24 512 4 4 (196608)
I0403 21:44:25.309294 24059 net.cpp:156] Memory required for data: 945501216
I0403 21:44:25.309309 24059 layer_factory.hpp:77] Creating layer loss1/conv
I0403 21:44:25.309332 24059 net.cpp:91] Creating Layer loss1/conv
I0403 21:44:25.309350 24059 net.cpp:425] loss1/conv <- loss1/ave_pool
I0403 21:44:25.309370 24059 net.cpp:399] loss1/conv -> loss1/conv
I0403 21:44:25.310746 24059 net.cpp:141] Setting up loss1/conv
I0403 21:44:25.310775 24059 net.cpp:148] Top shape: 24 128 4 4 (49152)
I0403 21:44:25.310806 24059 net.cpp:156] Memory required for data: 945697824
I0403 21:44:25.310825 24059 layer_factory.hpp:77] Creating layer loss1/relu_conv
I0403 21:44:25.310843 24059 net.cpp:91] Creating Layer loss1/relu_conv
I0403 21:44:25.310859 24059 net.cpp:425] loss1/relu_conv <- loss1/conv
I0403 21:44:25.310879 24059 net.cpp:386] loss1/relu_conv -> loss1/conv (in-place)
I0403 21:44:25.311157 24059 net.cpp:141] Setting up loss1/relu_conv
I0403 21:44:25.311187 24059 net.cpp:148] Top shape: 24 128 4 4 (49152)
I0403 21:44:25.311203 24059 net.cpp:156] Memory required for data: 945894432
I0403 21:44:25.311218 24059 layer_factory.hpp:77] Creating layer loss1/fc
I0403 21:44:25.311247 24059 net.cpp:91] Creating Layer loss1/fc
I0403 21:44:25.311267 24059 net.cpp:425] loss1/fc <- loss1/conv
I0403 21:44:25.311290 24059 net.cpp:399] loss1/fc -> loss1/fc
I0403 21:44:25.328666 24059 net.cpp:141] Setting up loss1/fc
I0403 21:44:25.328699 24059 net.cpp:148] Top shape: 24 1024 (24576)
I0403 21:44:25.328716 24059 net.cpp:156] Memory required for data: 945992736
I0403 21:44:25.328734 24059 layer_factory.hpp:77] Creating layer loss1/relu_fc
I0403 21:44:25.328754 24059 net.cpp:91] Creating Layer loss1/relu_fc
I0403 21:44:25.328773 24059 net.cpp:425] loss1/relu_fc <- loss1/fc
I0403 21:44:25.328790 24059 net.cpp:386] loss1/relu_fc -> loss1/fc (in-place)
I0403 21:44:25.328979 24059 net.cpp:141] Setting up loss1/relu_fc
I0403 21:44:25.329004 24059 net.cpp:148] Top shape: 24 1024 (24576)
I0403 21:44:25.329017 24059 net.cpp:156] Memory required for data: 946091040
I0403 21:44:25.329032 24059 layer_factory.hpp:77] Creating layer loss1/drop_fc
I0403 21:44:25.329058 24059 net.cpp:91] Creating Layer loss1/drop_fc
I0403 21:44:25.329078 24059 net.cpp:425] loss1/drop_fc <- loss1/fc
I0403 21:44:25.329097 24059 net.cpp:386] loss1/drop_fc -> loss1/fc (in-place)
I0403 21:44:25.329146 24059 net.cpp:141] Setting up loss1/drop_fc
I0403 21:44:25.329170 24059 net.cpp:148] Top shape: 24 1024 (24576)
I0403 21:44:25.329185 24059 net.cpp:156] Memory required for data: 946189344
I0403 21:44:25.329200 24059 layer_factory.hpp:77] Creating layer loss1/classifier_plantvillage
I0403 21:44:25.329222 24059 net.cpp:91] Creating Layer loss1/classifier_plantvillage
I0403 21:44:25.329244 24059 net.cpp:425] loss1/classifier_plantvillage <- loss1/fc
I0403 21:44:25.329263 24059 net.cpp:399] loss1/classifier_plantvillage -> loss1/classifier_plantvillage
I0403 21:44:25.330163 24059 net.cpp:141] Setting up loss1/classifier_plantvillage
I0403 21:44:25.330190 24059 net.cpp:148] Top shape: 24 38 (912)
I0403 21:44:25.330206 24059 net.cpp:156] Memory required for data: 946192992
I0403 21:44:25.330225 24059 layer_factory.hpp:77] Creating layer loss1/classifier_plantvillage_loss1/classifier_plantvillage_0_split
I0403 21:44:25.330251 24059 net.cpp:91] Creating Layer loss1/classifier_plantvillage_loss1/classifier_plantvillage_0_split
I0403 21:44:25.330270 24059 net.cpp:425] loss1/classifier_plantvillage_loss1/classifier_plantvillage_0_split <- loss1/classifier_plantvillage
I0403 21:44:25.330287 24059 net.cpp:399] loss1/classifier_plantvillage_loss1/classifier_plantvillage_0_split -> loss1/classifier_plantvillage_loss1/classifier_plantvillage_0_split_0
I0403 21:44:25.330310 24059 net.cpp:399] loss1/classifier_plantvillage_loss1/classifier_plantvillage_0_split -> loss1/classifier_plantvillage_loss1/classifier_plantvillage_0_split_1
I0403 21:44:25.330332 24059 net.cpp:399] loss1/classifier_plantvillage_loss1/classifier_plantvillage_0_split -> loss1/classifier_plantvillage_loss1/classifier_plantvillage_0_split_2
I0403 21:44:25.330399 24059 net.cpp:141] Setting up loss1/classifier_plantvillage_loss1/classifier_plantvillage_0_split
I0403 21:44:25.330421 24059 net.cpp:148] Top shape: 24 38 (912)
I0403 21:44:25.330437 24059 net.cpp:148] Top shape: 24 38 (912)
I0403 21:44:25.330453 24059 net.cpp:148] Top shape: 24 38 (912)
I0403 21:44:25.330466 24059 net.cpp:156] Memory required for data: 946203936
I0403 21:44:25.330482 24059 layer_factory.hpp:77] Creating layer inception_4b/1x1
I0403 21:44:25.330503 24059 net.cpp:91] Creating Layer inception_4b/1x1
I0403 21:44:25.330536 24059 net.cpp:425] inception_4b/1x1 <- inception_4a/output_inception_4a/output_0_split_1
I0403 21:44:25.330556 24059 net.cpp:399] inception_4b/1x1 -> inception_4b/1x1
I0403 21:44:25.332183 24059 net.cpp:141] Setting up inception_4b/1x1
I0403 21:44:25.332217 24059 net.cpp:148] Top shape: 24 160 14 14 (752640)
I0403 21:44:25.332240 24059 net.cpp:156] Memory required for data: 949214496
I0403 21:44:25.332259 24059 layer_factory.hpp:77] Creating layer inception_4b/relu_1x1
I0403 21:44:25.332279 24059 net.cpp:91] Creating Layer inception_4b/relu_1x1
I0403 21:44:25.332295 24059 net.cpp:425] inception_4b/relu_1x1 <- inception_4b/1x1
I0403 21:44:25.332315 24059 net.cpp:386] inception_4b/relu_1x1 -> inception_4b/1x1 (in-place)
I0403 21:44:25.332497 24059 net.cpp:141] Setting up inception_4b/relu_1x1
I0403 21:44:25.332522 24059 net.cpp:148] Top shape: 24 160 14 14 (752640)
I0403 21:44:25.332536 24059 net.cpp:156] Memory required for data: 952225056
I0403 21:44:25.332552 24059 layer_factory.hpp:77] Creating layer inception_4b/3x3_reduce
I0403 21:44:25.332574 24059 net.cpp:91] Creating Layer inception_4b/3x3_reduce
I0403 21:44:25.332592 24059 net.cpp:425] inception_4b/3x3_reduce <- inception_4a/output_inception_4a/output_0_split_2
I0403 21:44:25.332612 24059 net.cpp:399] inception_4b/3x3_reduce -> inception_4b/3x3_reduce
I0403 21:44:25.333945 24059 net.cpp:141] Setting up inception_4b/3x3_reduce
I0403 21:44:25.333974 24059 net.cpp:148] Top shape: 24 112 14 14 (526848)
I0403 21:44:25.333991 24059 net.cpp:156] Memory required for data: 954332448
I0403 21:44:25.334008 24059 layer_factory.hpp:77] Creating layer inception_4b/relu_3x3_reduce
I0403 21:44:25.334025 24059 net.cpp:91] Creating Layer inception_4b/relu_3x3_reduce
I0403 21:44:25.334043 24059 net.cpp:425] inception_4b/relu_3x3_reduce <- inception_4b/3x3_reduce
I0403 21:44:25.334063 24059 net.cpp:386] inception_4b/relu_3x3_reduce -> inception_4b/3x3_reduce (in-place)
I0403 21:44:25.334345 24059 net.cpp:141] Setting up inception_4b/relu_3x3_reduce
I0403 21:44:25.334372 24059 net.cpp:148] Top shape: 24 112 14 14 (526848)
I0403 21:44:25.334388 24059 net.cpp:156] Memory required for data: 956439840
I0403 21:44:25.334403 24059 layer_factory.hpp:77] Creating layer inception_4b/3x3
I0403 21:44:25.334426 24059 net.cpp:91] Creating Layer inception_4b/3x3
I0403 21:44:25.334444 24059 net.cpp:425] inception_4b/3x3 <- inception_4b/3x3_reduce
I0403 21:44:25.334465 24059 net.cpp:399] inception_4b/3x3 -> inception_4b/3x3
I0403 21:44:25.337393 24059 net.cpp:141] Setting up inception_4b/3x3
I0403 21:44:25.337424 24059 net.cpp:148] Top shape: 24 224 14 14 (1053696)
I0403 21:44:25.337440 24059 net.cpp:156] Memory required for data: 960654624
I0403 21:44:25.337458 24059 layer_factory.hpp:77] Creating layer inception_4b/relu_3x3
I0403 21:44:25.337477 24059 net.cpp:91] Creating Layer inception_4b/relu_3x3
I0403 21:44:25.337496 24059 net.cpp:425] inception_4b/relu_3x3 <- inception_4b/3x3
I0403 21:44:25.337512 24059 net.cpp:386] inception_4b/relu_3x3 -> inception_4b/3x3 (in-place)
I0403 21:44:25.337692 24059 net.cpp:141] Setting up inception_4b/relu_3x3
I0403 21:44:25.337718 24059 net.cpp:148] Top shape: 24 224 14 14 (1053696)
I0403 21:44:25.337733 24059 net.cpp:156] Memory required for data: 964869408
I0403 21:44:25.337749 24059 layer_factory.hpp:77] Creating layer inception_4b/5x5_reduce
I0403 21:44:25.337770 24059 net.cpp:91] Creating Layer inception_4b/5x5_reduce
I0403 21:44:25.337787 24059 net.cpp:425] inception_4b/5x5_reduce <- inception_4a/output_inception_4a/output_0_split_3
I0403 21:44:25.337810 24059 net.cpp:399] inception_4b/5x5_reduce -> inception_4b/5x5_reduce
I0403 21:44:25.338886 24059 net.cpp:141] Setting up inception_4b/5x5_reduce
I0403 21:44:25.338912 24059 net.cpp:148] Top shape: 24 24 14 14 (112896)
I0403 21:44:25.338930 24059 net.cpp:156] Memory required for data: 965320992
I0403 21:44:25.338948 24059 layer_factory.hpp:77] Creating layer inception_4b/relu_5x5_reduce
I0403 21:44:25.338966 24059 net.cpp:91] Creating Layer inception_4b/relu_5x5_reduce
I0403 21:44:25.338997 24059 net.cpp:425] inception_4b/relu_5x5_reduce <- inception_4b/5x5_reduce
I0403 21:44:25.339018 24059 net.cpp:386] inception_4b/relu_5x5_reduce -> inception_4b/5x5_reduce (in-place)
I0403 21:44:25.339202 24059 net.cpp:141] Setting up inception_4b/relu_5x5_reduce
I0403 21:44:25.339231 24059 net.cpp:148] Top shape: 24 24 14 14 (112896)
I0403 21:44:25.339248 24059 net.cpp:156] Memory required for data: 965772576
I0403 21:44:25.339264 24059 layer_factory.hpp:77] Creating layer inception_4b/5x5
I0403 21:44:25.339285 24059 net.cpp:91] Creating Layer inception_4b/5x5
I0403 21:44:25.339304 24059 net.cpp:425] inception_4b/5x5 <- inception_4b/5x5_reduce
I0403 21:44:25.339325 24059 net.cpp:399] inception_4b/5x5 -> inception_4b/5x5
I0403 21:44:25.340564 24059 net.cpp:141] Setting up inception_4b/5x5
I0403 21:44:25.340595 24059 net.cpp:148] Top shape: 24 64 14 14 (301056)
I0403 21:44:25.340612 24059 net.cpp:156] Memory required for data: 966976800
I0403 21:44:25.340631 24059 layer_factory.hpp:77] Creating layer inception_4b/relu_5x5
I0403 21:44:25.340649 24059 net.cpp:91] Creating Layer inception_4b/relu_5x5
I0403 21:44:25.340667 24059 net.cpp:425] inception_4b/relu_5x5 <- inception_4b/5x5
I0403 21:44:25.340687 24059 net.cpp:386] inception_4b/relu_5x5 -> inception_4b/5x5 (in-place)
I0403 21:44:25.340967 24059 net.cpp:141] Setting up inception_4b/relu_5x5
I0403 21:44:25.340997 24059 net.cpp:148] Top shape: 24 64 14 14 (301056)
I0403 21:44:25.341015 24059 net.cpp:156] Memory required for data: 968181024
I0403 21:44:25.341030 24059 layer_factory.hpp:77] Creating layer inception_4b/pool
I0403 21:44:25.341048 24059 net.cpp:91] Creating Layer inception_4b/pool
I0403 21:44:25.341066 24059 net.cpp:425] inception_4b/pool <- inception_4a/output_inception_4a/output_0_split_4
I0403 21:44:25.341087 24059 net.cpp:399] inception_4b/pool -> inception_4b/pool
I0403 21:44:25.341150 24059 net.cpp:141] Setting up inception_4b/pool
I0403 21:44:25.341176 24059 net.cpp:148] Top shape: 24 512 14 14 (2408448)
I0403 21:44:25.341192 24059 net.cpp:156] Memory required for data: 977814816
I0403 21:44:25.341207 24059 layer_factory.hpp:77] Creating layer inception_4b/pool_proj
I0403 21:44:25.341230 24059 net.cpp:91] Creating Layer inception_4b/pool_proj
I0403 21:44:25.341248 24059 net.cpp:425] inception_4b/pool_proj <- inception_4b/pool
I0403 21:44:25.341269 24059 net.cpp:399] inception_4b/pool_proj -> inception_4b/pool_proj
I0403 21:44:25.342452 24059 net.cpp:141] Setting up inception_4b/pool_proj
I0403 21:44:25.342479 24059 net.cpp:148] Top shape: 24 64 14 14 (301056)
I0403 21:44:25.342495 24059 net.cpp:156] Memory required for data: 979019040
I0403 21:44:25.342514 24059 layer_factory.hpp:77] Creating layer inception_4b/relu_pool_proj
I0403 21:44:25.342531 24059 net.cpp:91] Creating Layer inception_4b/relu_pool_proj
I0403 21:44:25.342547 24059 net.cpp:425] inception_4b/relu_pool_proj <- inception_4b/pool_proj
I0403 21:44:25.342567 24059 net.cpp:386] inception_4b/relu_pool_proj -> inception_4b/pool_proj (in-place)
I0403 21:44:25.342748 24059 net.cpp:141] Setting up inception_4b/relu_pool_proj
I0403 21:44:25.342773 24059 net.cpp:148] Top shape: 24 64 14 14 (301056)
I0403 21:44:25.342789 24059 net.cpp:156] Memory required for data: 980223264
I0403 21:44:25.342803 24059 layer_factory.hpp:77] Creating layer inception_4b/output
I0403 21:44:25.342821 24059 net.cpp:91] Creating Layer inception_4b/output
I0403 21:44:25.342836 24059 net.cpp:425] inception_4b/output <- inception_4b/1x1
I0403 21:44:25.342855 24059 net.cpp:425] inception_4b/output <- inception_4b/3x3
I0403 21:44:25.342872 24059 net.cpp:425] inception_4b/output <- inception_4b/5x5
I0403 21:44:25.342890 24059 net.cpp:425] inception_4b/output <- inception_4b/pool_proj
I0403 21:44:25.342906 24059 net.cpp:399] inception_4b/output -> inception_4b/output
I0403 21:44:25.342953 24059 net.cpp:141] Setting up inception_4b/output
I0403 21:44:25.342977 24059 net.cpp:148] Top shape: 24 512 14 14 (2408448)
I0403 21:44:25.342991 24059 net.cpp:156] Memory required for data: 989857056
I0403 21:44:25.343020 24059 layer_factory.hpp:77] Creating layer inception_4b/output_inception_4b/output_0_split
I0403 21:44:25.343039 24059 net.cpp:91] Creating Layer inception_4b/output_inception_4b/output_0_split
I0403 21:44:25.343055 24059 net.cpp:425] inception_4b/output_inception_4b/output_0_split <- inception_4b/output
I0403 21:44:25.343077 24059 net.cpp:399] inception_4b/output_inception_4b/output_0_split -> inception_4b/output_inception_4b/output_0_split_0
I0403 21:44:25.343101 24059 net.cpp:399] inception_4b/output_inception_4b/output_0_split -> inception_4b/output_inception_4b/output_0_split_1
I0403 21:44:25.343122 24059 net.cpp:399] inception_4b/output_inception_4b/output_0_split -> inception_4b/output_inception_4b/output_0_split_2
I0403 21:44:25.343142 24059 net.cpp:399] inception_4b/output_inception_4b/output_0_split -> inception_4b/output_inception_4b/output_0_split_3
I0403 21:44:25.343225 24059 net.cpp:141] Setting up inception_4b/output_inception_4b/output_0_split
I0403 21:44:25.343255 24059 net.cpp:148] Top shape: 24 512 14 14 (2408448)
I0403 21:44:25.343273 24059 net.cpp:148] Top shape: 24 512 14 14 (2408448)
I0403 21:44:25.343289 24059 net.cpp:148] Top shape: 24 512 14 14 (2408448)
I0403 21:44:25.343304 24059 net.cpp:148] Top shape: 24 512 14 14 (2408448)
I0403 21:44:25.343318 24059 net.cpp:156] Memory required for data: 1028392224
I0403 21:44:25.343333 24059 layer_factory.hpp:77] Creating layer inception_4c/1x1
I0403 21:44:25.343356 24059 net.cpp:91] Creating Layer inception_4c/1x1
I0403 21:44:25.343374 24059 net.cpp:425] inception_4c/1x1 <- inception_4b/output_inception_4b/output_0_split_0
I0403 21:44:25.343394 24059 net.cpp:399] inception_4c/1x1 -> inception_4c/1x1
I0403 21:44:25.344799 24059 net.cpp:141] Setting up inception_4c/1x1
I0403 21:44:25.344826 24059 net.cpp:148] Top shape: 24 128 14 14 (602112)
I0403 21:44:25.344841 24059 net.cpp:156] Memory required for data: 1030800672
I0403 21:44:25.344861 24059 layer_factory.hpp:77] Creating layer inception_4c/relu_1x1
I0403 21:44:25.344882 24059 net.cpp:91] Creating Layer inception_4c/relu_1x1
I0403 21:44:25.344900 24059 net.cpp:425] inception_4c/relu_1x1 <- inception_4c/1x1
I0403 21:44:25.344918 24059 net.cpp:386] inception_4c/relu_1x1 -> inception_4c/1x1 (in-place)
I0403 21:44:25.345095 24059 net.cpp:141] Setting up inception_4c/relu_1x1
I0403 21:44:25.345124 24059 net.cpp:148] Top shape: 24 128 14 14 (602112)
I0403 21:44:25.345139 24059 net.cpp:156] Memory required for data: 1033209120
I0403 21:44:25.345155 24059 layer_factory.hpp:77] Creating layer inception_4c/3x3_reduce
I0403 21:44:25.345175 24059 net.cpp:91] Creating Layer inception_4c/3x3_reduce
I0403 21:44:25.345194 24059 net.cpp:425] inception_4c/3x3_reduce <- inception_4b/output_inception_4b/output_0_split_1
I0403 21:44:25.345213 24059 net.cpp:399] inception_4c/3x3_reduce -> inception_4c/3x3_reduce
I0403 21:44:25.347156 24059 net.cpp:141] Setting up inception_4c/3x3_reduce
I0403 21:44:25.347185 24059 net.cpp:148] Top shape: 24 128 14 14 (602112)
I0403 21:44:25.347203 24059 net.cpp:156] Memory required for data: 1035617568
I0403 21:44:25.347223 24059 layer_factory.hpp:77] Creating layer inception_4c/relu_3x3_reduce
I0403 21:44:25.347245 24059 net.cpp:91] Creating Layer inception_4c/relu_3x3_reduce
I0403 21:44:25.347262 24059 net.cpp:425] inception_4c/relu_3x3_reduce <- inception_4c/3x3_reduce
I0403 21:44:25.347281 24059 net.cpp:386] inception_4c/relu_3x3_reduce -> inception_4c/3x3_reduce (in-place)
I0403 21:44:25.347568 24059 net.cpp:141] Setting up inception_4c/relu_3x3_reduce
I0403 21:44:25.347596 24059 net.cpp:148] Top shape: 24 128 14 14 (602112)
I0403 21:44:25.347611 24059 net.cpp:156] Memory required for data: 1038026016
I0403 21:44:25.347626 24059 layer_factory.hpp:77] Creating layer inception_4c/3x3
I0403 21:44:25.347650 24059 net.cpp:91] Creating Layer inception_4c/3x3
I0403 21:44:25.347668 24059 net.cpp:425] inception_4c/3x3 <- inception_4c/3x3_reduce
I0403 21:44:25.347690 24059 net.cpp:399] inception_4c/3x3 -> inception_4c/3x3
I0403 21:44:25.351248 24059 net.cpp:141] Setting up inception_4c/3x3
I0403 21:44:25.351287 24059 net.cpp:148] Top shape: 24 256 14 14 (1204224)
I0403 21:44:25.351303 24059 net.cpp:156] Memory required for data: 1042842912
I0403 21:44:25.351338 24059 layer_factory.hpp:77] Creating layer inception_4c/relu_3x3
I0403 21:44:25.351361 24059 net.cpp:91] Creating Layer inception_4c/relu_3x3
I0403 21:44:25.351377 24059 net.cpp:425] inception_4c/relu_3x3 <- inception_4c/3x3
I0403 21:44:25.351397 24059 net.cpp:386] inception_4c/relu_3x3 -> inception_4c/3x3 (in-place)
I0403 21:44:25.351578 24059 net.cpp:141] Setting up inception_4c/relu_3x3
I0403 21:44:25.351603 24059 net.cpp:148] Top shape: 24 256 14 14 (1204224)
I0403 21:44:25.351619 24059 net.cpp:156] Memory required for data: 1047659808
I0403 21:44:25.351634 24059 layer_factory.hpp:77] Creating layer inception_4c/5x5_reduce
I0403 21:44:25.351656 24059 net.cpp:91] Creating Layer inception_4c/5x5_reduce
I0403 21:44:25.351675 24059 net.cpp:425] inception_4c/5x5_reduce <- inception_4b/output_inception_4b/output_0_split_2
I0403 21:44:25.351696 24059 net.cpp:399] inception_4c/5x5_reduce -> inception_4c/5x5_reduce
I0403 21:44:25.352778 24059 net.cpp:141] Setting up inception_4c/5x5_reduce
I0403 21:44:25.352807 24059 net.cpp:148] Top shape: 24 24 14 14 (112896)
I0403 21:44:25.352823 24059 net.cpp:156] Memory required for data: 1048111392
I0403 21:44:25.352840 24059 layer_factory.hpp:77] Creating layer inception_4c/relu_5x5_reduce
I0403 21:44:25.352859 24059 net.cpp:91] Creating Layer inception_4c/relu_5x5_reduce
I0403 21:44:25.352875 24059 net.cpp:425] inception_4c/relu_5x5_reduce <- inception_4c/5x5_reduce
I0403 21:44:25.352896 24059 net.cpp:386] inception_4c/relu_5x5_reduce -> inception_4c/5x5_reduce (in-place)
I0403 21:44:25.353082 24059 net.cpp:141] Setting up inception_4c/relu_5x5_reduce
I0403 21:44:25.353107 24059 net.cpp:148] Top shape: 24 24 14 14 (112896)
I0403 21:44:25.353121 24059 net.cpp:156] Memory required for data: 1048562976
I0403 21:44:25.353137 24059 layer_factory.hpp:77] Creating layer inception_4c/5x5
I0403 21:44:25.353159 24059 net.cpp:91] Creating Layer inception_4c/5x5
I0403 21:44:25.353178 24059 net.cpp:425] inception_4c/5x5 <- inception_4c/5x5_reduce
I0403 21:44:25.353199 24059 net.cpp:399] inception_4c/5x5 -> inception_4c/5x5
I0403 21:44:25.354429 24059 net.cpp:141] Setting up inception_4c/5x5
I0403 21:44:25.354456 24059 net.cpp:148] Top shape: 24 64 14 14 (301056)
I0403 21:44:25.354472 24059 net.cpp:156] Memory required for data: 1049767200
I0403 21:44:25.354490 24059 layer_factory.hpp:77] Creating layer inception_4c/relu_5x5
I0403 21:44:25.354511 24059 net.cpp:91] Creating Layer inception_4c/relu_5x5
I0403 21:44:25.354528 24059 net.cpp:425] inception_4c/relu_5x5 <- inception_4c/5x5
I0403 21:44:25.354545 24059 net.cpp:386] inception_4c/relu_5x5 -> inception_4c/5x5 (in-place)
I0403 21:44:25.354832 24059 net.cpp:141] Setting up inception_4c/relu_5x5
I0403 21:44:25.354858 24059 net.cpp:148] Top shape: 24 64 14 14 (301056)
I0403 21:44:25.354874 24059 net.cpp:156] Memory required for data: 1050971424
I0403 21:44:25.354889 24059 layer_factory.hpp:77] Creating layer inception_4c/pool
I0403 21:44:25.354909 24059 net.cpp:91] Creating Layer inception_4c/pool
I0403 21:44:25.354926 24059 net.cpp:425] inception_4c/pool <- inception_4b/output_inception_4b/output_0_split_3
I0403 21:44:25.354945 24059 net.cpp:399] inception_4c/pool -> inception_4c/pool
I0403 21:44:25.355015 24059 net.cpp:141] Setting up inception_4c/pool
I0403 21:44:25.355037 24059 net.cpp:148] Top shape: 24 512 14 14 (2408448)
I0403 21:44:25.355051 24059 net.cpp:156] Memory required for data: 1060605216
I0403 21:44:25.355067 24059 layer_factory.hpp:77] Creating layer inception_4c/pool_proj
I0403 21:44:25.355087 24059 net.cpp:91] Creating Layer inception_4c/pool_proj
I0403 21:44:25.355104 24059 net.cpp:425] inception_4c/pool_proj <- inception_4c/pool
I0403 21:44:25.355124 24059 net.cpp:399] inception_4c/pool_proj -> inception_4c/pool_proj
I0403 21:44:25.356369 24059 net.cpp:141] Setting up inception_4c/pool_proj
I0403 21:44:25.356397 24059 net.cpp:148] Top shape: 24 64 14 14 (301056)
I0403 21:44:25.356427 24059 net.cpp:156] Memory required for data: 1061809440
I0403 21:44:25.356447 24059 layer_factory.hpp:77] Creating layer inception_4c/relu_pool_proj
I0403 21:44:25.356465 24059 net.cpp:91] Creating Layer inception_4c/relu_pool_proj
I0403 21:44:25.356482 24059 net.cpp:425] inception_4c/relu_pool_proj <- inception_4c/pool_proj
I0403 21:44:25.356501 24059 net.cpp:386] inception_4c/relu_pool_proj -> inception_4c/pool_proj (in-place)
I0403 21:44:25.356698 24059 net.cpp:141] Setting up inception_4c/relu_pool_proj
I0403 21:44:25.356721 24059 net.cpp:148] Top shape: 24 64 14 14 (301056)
I0403 21:44:25.356735 24059 net.cpp:156] Memory required for data: 1063013664
I0403 21:44:25.356750 24059 layer_factory.hpp:77] Creating layer inception_4c/output
I0403 21:44:25.356766 24059 net.cpp:91] Creating Layer inception_4c/output
I0403 21:44:25.356781 24059 net.cpp:425] inception_4c/output <- inception_4c/1x1
I0403 21:44:25.356798 24059 net.cpp:425] inception_4c/output <- inception_4c/3x3
I0403 21:44:25.356814 24059 net.cpp:425] inception_4c/output <- inception_4c/5x5
I0403 21:44:25.356830 24059 net.cpp:425] inception_4c/output <- inception_4c/pool_proj
I0403 21:44:25.356849 24059 net.cpp:399] inception_4c/output -> inception_4c/output
I0403 21:44:25.356899 24059 net.cpp:141] Setting up inception_4c/output
I0403 21:44:25.356921 24059 net.cpp:148] Top shape: 24 512 14 14 (2408448)
I0403 21:44:25.356935 24059 net.cpp:156] Memory required for data: 1072647456
I0403 21:44:25.356952 24059 layer_factory.hpp:77] Creating layer inception_4c/output_inception_4c/output_0_split
I0403 21:44:25.356968 24059 net.cpp:91] Creating Layer inception_4c/output_inception_4c/output_0_split
I0403 21:44:25.356983 24059 net.cpp:425] inception_4c/output_inception_4c/output_0_split <- inception_4c/output
I0403 21:44:25.357003 24059 net.cpp:399] inception_4c/output_inception_4c/output_0_split -> inception_4c/output_inception_4c/output_0_split_0
I0403 21:44:25.357024 24059 net.cpp:399] inception_4c/output_inception_4c/output_0_split -> inception_4c/output_inception_4c/output_0_split_1
I0403 21:44:25.357044 24059 net.cpp:399] inception_4c/output_inception_4c/output_0_split -> inception_4c/output_inception_4c/output_0_split_2
I0403 21:44:25.357064 24059 net.cpp:399] inception_4c/output_inception_4c/output_0_split -> inception_4c/output_inception_4c/output_0_split_3
I0403 21:44:25.357151 24059 net.cpp:141] Setting up inception_4c/output_inception_4c/output_0_split
I0403 21:44:25.357177 24059 net.cpp:148] Top shape: 24 512 14 14 (2408448)
I0403 21:44:25.357193 24059 net.cpp:148] Top shape: 24 512 14 14 (2408448)
I0403 21:44:25.357209 24059 net.cpp:148] Top shape: 24 512 14 14 (2408448)
I0403 21:44:25.357224 24059 net.cpp:148] Top shape: 24 512 14 14 (2408448)
I0403 21:44:25.357244 24059 net.cpp:156] Memory required for data: 1111182624
I0403 21:44:25.357259 24059 layer_factory.hpp:77] Creating layer inception_4d/1x1
I0403 21:44:25.357280 24059 net.cpp:91] Creating Layer inception_4d/1x1
I0403 21:44:25.357297 24059 net.cpp:425] inception_4d/1x1 <- inception_4c/output_inception_4c/output_0_split_0
I0403 21:44:25.357316 24059 net.cpp:399] inception_4d/1x1 -> inception_4d/1x1
I0403 21:44:25.358688 24059 net.cpp:141] Setting up inception_4d/1x1
I0403 21:44:25.358716 24059 net.cpp:148] Top shape: 24 112 14 14 (526848)
I0403 21:44:25.358731 24059 net.cpp:156] Memory required for data: 1113290016
I0403 21:44:25.358748 24059 layer_factory.hpp:77] Creating layer inception_4d/relu_1x1
I0403 21:44:25.358768 24059 net.cpp:91] Creating Layer inception_4d/relu_1x1
I0403 21:44:25.358785 24059 net.cpp:425] inception_4d/relu_1x1 <- inception_4d/1x1
I0403 21:44:25.358803 24059 net.cpp:386] inception_4d/relu_1x1 -> inception_4d/1x1 (in-place)
I0403 21:44:25.358989 24059 net.cpp:141] Setting up inception_4d/relu_1x1
I0403 21:44:25.359014 24059 net.cpp:148] Top shape: 24 112 14 14 (526848)
I0403 21:44:25.359027 24059 net.cpp:156] Memory required for data: 1115397408
I0403 21:44:25.359041 24059 layer_factory.hpp:77] Creating layer inception_4d/3x3_reduce
I0403 21:44:25.359076 24059 net.cpp:91] Creating Layer inception_4d/3x3_reduce
I0403 21:44:25.359094 24059 net.cpp:425] inception_4d/3x3_reduce <- inception_4c/output_inception_4c/output_0_split_1
I0403 21:44:25.359115 24059 net.cpp:399] inception_4d/3x3_reduce -> inception_4d/3x3_reduce
I0403 21:44:25.360616 24059 net.cpp:141] Setting up inception_4d/3x3_reduce
I0403 21:44:25.360643 24059 net.cpp:148] Top shape: 24 144 14 14 (677376)
I0403 21:44:25.360658 24059 net.cpp:156] Memory required for data: 1118106912
I0403 21:44:25.360677 24059 layer_factory.hpp:77] Creating layer inception_4d/relu_3x3_reduce
I0403 21:44:25.360697 24059 net.cpp:91] Creating Layer inception_4d/relu_3x3_reduce
I0403 21:44:25.360713 24059 net.cpp:425] inception_4d/relu_3x3_reduce <- inception_4d/3x3_reduce
I0403 21:44:25.360729 24059 net.cpp:386] inception_4d/relu_3x3_reduce -> inception_4d/3x3_reduce (in-place)
I0403 21:44:25.361049 24059 net.cpp:141] Setting up inception_4d/relu_3x3_reduce
I0403 21:44:25.361076 24059 net.cpp:148] Top shape: 24 144 14 14 (677376)
I0403 21:44:25.361093 24059 net.cpp:156] Memory required for data: 1120816416
I0403 21:44:25.361107 24059 layer_factory.hpp:77] Creating layer inception_4d/3x3
I0403 21:44:25.361130 24059 net.cpp:91] Creating Layer inception_4d/3x3
I0403 21:44:25.361150 24059 net.cpp:425] inception_4d/3x3 <- inception_4d/3x3_reduce
I0403 21:44:25.361171 24059 net.cpp:399] inception_4d/3x3 -> inception_4d/3x3
I0403 21:44:25.365398 24059 net.cpp:141] Setting up inception_4d/3x3
I0403 21:44:25.365430 24059 net.cpp:148] Top shape: 24 288 14 14 (1354752)
I0403 21:44:25.365447 24059 net.cpp:156] Memory required for data: 1126235424
I0403 21:44:25.365465 24059 layer_factory.hpp:77] Creating layer inception_4d/relu_3x3
I0403 21:44:25.365483 24059 net.cpp:91] Creating Layer inception_4d/relu_3x3
I0403 21:44:25.365499 24059 net.cpp:425] inception_4d/relu_3x3 <- inception_4d/3x3
I0403 21:44:25.365517 24059 net.cpp:386] inception_4d/relu_3x3 -> inception_4d/3x3 (in-place)
I0403 21:44:25.365702 24059 net.cpp:141] Setting up inception_4d/relu_3x3
I0403 21:44:25.365726 24059 net.cpp:148] Top shape: 24 288 14 14 (1354752)
I0403 21:44:25.365741 24059 net.cpp:156] Memory required for data: 1131654432
I0403 21:44:25.365754 24059 layer_factory.hpp:77] Creating layer inception_4d/5x5_reduce
I0403 21:44:25.365779 24059 net.cpp:91] Creating Layer inception_4d/5x5_reduce
I0403 21:44:25.365798 24059 net.cpp:425] inception_4d/5x5_reduce <- inception_4c/output_inception_4c/output_0_split_2
I0403 21:44:25.365819 24059 net.cpp:399] inception_4d/5x5_reduce -> inception_4d/5x5_reduce
I0403 21:44:25.366955 24059 net.cpp:141] Setting up inception_4d/5x5_reduce
I0403 21:44:25.366986 24059 net.cpp:148] Top shape: 24 32 14 14 (150528)
I0403 21:44:25.367002 24059 net.cpp:156] Memory required for data: 1132256544
I0403 21:44:25.367019 24059 layer_factory.hpp:77] Creating layer inception_4d/relu_5x5_reduce
I0403 21:44:25.367038 24059 net.cpp:91] Creating Layer inception_4d/relu_5x5_reduce
I0403 21:44:25.367053 24059 net.cpp:425] inception_4d/relu_5x5_reduce <- inception_4d/5x5_reduce
I0403 21:44:25.367072 24059 net.cpp:386] inception_4d/relu_5x5_reduce -> inception_4d/5x5_reduce (in-place)
I0403 21:44:25.367261 24059 net.cpp:141] Setting up inception_4d/relu_5x5_reduce
I0403 21:44:25.367285 24059 net.cpp:148] Top shape: 24 32 14 14 (150528)
I0403 21:44:25.367300 24059 net.cpp:156] Memory required for data: 1132858656
I0403 21:44:25.367316 24059 layer_factory.hpp:77] Creating layer inception_4d/5x5
I0403 21:44:25.367337 24059 net.cpp:91] Creating Layer inception_4d/5x5
I0403 21:44:25.367355 24059 net.cpp:425] inception_4d/5x5 <- inception_4d/5x5_reduce
I0403 21:44:25.367375 24059 net.cpp:399] inception_4d/5x5 -> inception_4d/5x5
I0403 21:44:25.368827 24059 net.cpp:141] Setting up inception_4d/5x5
I0403 21:44:25.368854 24059 net.cpp:148] Top shape: 24 64 14 14 (301056)
I0403 21:44:25.368870 24059 net.cpp:156] Memory required for data: 1134062880
I0403 21:44:25.368890 24059 layer_factory.hpp:77] Creating layer inception_4d/relu_5x5
I0403 21:44:25.368921 24059 net.cpp:91] Creating Layer inception_4d/relu_5x5
I0403 21:44:25.368939 24059 net.cpp:425] inception_4d/relu_5x5 <- inception_4d/5x5
I0403 21:44:25.368960 24059 net.cpp:386] inception_4d/relu_5x5 -> inception_4d/5x5 (in-place)
I0403 21:44:25.369259 24059 net.cpp:141] Setting up inception_4d/relu_5x5
I0403 21:44:25.369285 24059 net.cpp:148] Top shape: 24 64 14 14 (301056)
I0403 21:44:25.369300 24059 net.cpp:156] Memory required for data: 1135267104
I0403 21:44:25.369314 24059 layer_factory.hpp:77] Creating layer inception_4d/pool
I0403 21:44:25.369333 24059 net.cpp:91] Creating Layer inception_4d/pool
I0403 21:44:25.369348 24059 net.cpp:425] inception_4d/pool <- inception_4c/output_inception_4c/output_0_split_3
I0403 21:44:25.369367 24059 net.cpp:399] inception_4d/pool -> inception_4d/pool
I0403 21:44:25.369434 24059 net.cpp:141] Setting up inception_4d/pool
I0403 21:44:25.369458 24059 net.cpp:148] Top shape: 24 512 14 14 (2408448)
I0403 21:44:25.369472 24059 net.cpp:156] Memory required for data: 1144900896
I0403 21:44:25.369488 24059 layer_factory.hpp:77] Creating layer inception_4d/pool_proj
I0403 21:44:25.369514 24059 net.cpp:91] Creating Layer inception_4d/pool_proj
I0403 21:44:25.369532 24059 net.cpp:425] inception_4d/pool_proj <- inception_4d/pool
I0403 21:44:25.369550 24059 net.cpp:399] inception_4d/pool_proj -> inception_4d/pool_proj
I0403 21:44:25.371299 24059 net.cpp:141] Setting up inception_4d/pool_proj
I0403 21:44:25.371330 24059 net.cpp:148] Top shape: 24 64 14 14 (301056)
I0403 21:44:25.371345 24059 net.cpp:156] Memory required for data: 1146105120
I0403 21:44:25.371363 24059 layer_factory.hpp:77] Creating layer inception_4d/relu_pool_proj
I0403 21:44:25.371381 24059 net.cpp:91] Creating Layer inception_4d/relu_pool_proj
I0403 21:44:25.371397 24059 net.cpp:425] inception_4d/relu_pool_proj <- inception_4d/pool_proj
I0403 21:44:25.371414 24059 net.cpp:386] inception_4d/relu_pool_proj -> inception_4d/pool_proj (in-place)
I0403 21:44:25.371600 24059 net.cpp:141] Setting up inception_4d/relu_pool_proj
I0403 21:44:25.371624 24059 net.cpp:148] Top shape: 24 64 14 14 (301056)
I0403 21:44:25.371639 24059 net.cpp:156] Memory required for data: 1147309344
I0403 21:44:25.371654 24059 layer_factory.hpp:77] Creating layer inception_4d/output
I0403 21:44:25.371670 24059 net.cpp:91] Creating Layer inception_4d/output
I0403 21:44:25.371686 24059 net.cpp:425] inception_4d/output <- inception_4d/1x1
I0403 21:44:25.371703 24059 net.cpp:425] inception_4d/output <- inception_4d/3x3
I0403 21:44:25.371718 24059 net.cpp:425] inception_4d/output <- inception_4d/5x5
I0403 21:44:25.371734 24059 net.cpp:425] inception_4d/output <- inception_4d/pool_proj
I0403 21:44:25.371753 24059 net.cpp:399] inception_4d/output -> inception_4d/output
I0403 21:44:25.371800 24059 net.cpp:141] Setting up inception_4d/output
I0403 21:44:25.371825 24059 net.cpp:148] Top shape: 24 528 14 14 (2483712)
I0403 21:44:25.371840 24059 net.cpp:156] Memory required for data: 1157244192
I0403 21:44:25.371856 24059 layer_factory.hpp:77] Creating layer inception_4d/output_inception_4d/output_0_split
I0403 21:44:25.371872 24059 net.cpp:91] Creating Layer inception_4d/output_inception_4d/output_0_split
I0403 21:44:25.371888 24059 net.cpp:425] inception_4d/output_inception_4d/output_0_split <- inception_4d/output
I0403 21:44:25.371909 24059 net.cpp:399] inception_4d/output_inception_4d/output_0_split -> inception_4d/output_inception_4d/output_0_split_0
I0403 21:44:25.371932 24059 net.cpp:399] inception_4d/output_inception_4d/output_0_split -> inception_4d/output_inception_4d/output_0_split_1
I0403 21:44:25.371953 24059 net.cpp:399] inception_4d/output_inception_4d/output_0_split -> inception_4d/output_inception_4d/output_0_split_2
I0403 21:44:25.371973 24059 net.cpp:399] inception_4d/output_inception_4d/output_0_split -> inception_4d/output_inception_4d/output_0_split_3
I0403 21:44:25.371994 24059 net.cpp:399] inception_4d/output_inception_4d/output_0_split -> inception_4d/output_inception_4d/output_0_split_4
I0403 21:44:25.372095 24059 net.cpp:141] Setting up inception_4d/output_inception_4d/output_0_split
I0403 21:44:25.372130 24059 net.cpp:148] Top shape: 24 528 14 14 (2483712)
I0403 21:44:25.372148 24059 net.cpp:148] Top shape: 24 528 14 14 (2483712)
I0403 21:44:25.372164 24059 net.cpp:148] Top shape: 24 528 14 14 (2483712)
I0403 21:44:25.372179 24059 net.cpp:148] Top shape: 24 528 14 14 (2483712)
I0403 21:44:25.372195 24059 net.cpp:148] Top shape: 24 528 14 14 (2483712)
I0403 21:44:25.372208 24059 net.cpp:156] Memory required for data: 1206918432
I0403 21:44:25.372222 24059 layer_factory.hpp:77] Creating layer loss2/ave_pool
I0403 21:44:25.372246 24059 net.cpp:91] Creating Layer loss2/ave_pool
I0403 21:44:25.372264 24059 net.cpp:425] loss2/ave_pool <- inception_4d/output_inception_4d/output_0_split_0
I0403 21:44:25.372283 24059 net.cpp:399] loss2/ave_pool -> loss2/ave_pool
I0403 21:44:25.372594 24059 net.cpp:141] Setting up loss2/ave_pool
I0403 21:44:25.372622 24059 net.cpp:148] Top shape: 24 528 4 4 (202752)
I0403 21:44:25.372638 24059 net.cpp:156] Memory required for data: 1207729440
I0403 21:44:25.372653 24059 layer_factory.hpp:77] Creating layer loss2/conv
I0403 21:44:25.372675 24059 net.cpp:91] Creating Layer loss2/conv
I0403 21:44:25.372694 24059 net.cpp:425] loss2/conv <- loss2/ave_pool
I0403 21:44:25.372711 24059 net.cpp:399] loss2/conv -> loss2/conv
I0403 21:44:25.374632 24059 net.cpp:141] Setting up loss2/conv
I0403 21:44:25.374660 24059 net.cpp:148] Top shape: 24 128 4 4 (49152)
I0403 21:44:25.374675 24059 net.cpp:156] Memory required for data: 1207926048
I0403 21:44:25.374693 24059 layer_factory.hpp:77] Creating layer loss2/relu_conv
I0403 21:44:25.374713 24059 net.cpp:91] Creating Layer loss2/relu_conv
I0403 21:44:25.374732 24059 net.cpp:425] loss2/relu_conv <- loss2/conv
I0403 21:44:25.374748 24059 net.cpp:386] loss2/relu_conv -> loss2/conv (in-place)
I0403 21:44:25.375030 24059 net.cpp:141] Setting up loss2/relu_conv
I0403 21:44:25.375056 24059 net.cpp:148] Top shape: 24 128 4 4 (49152)
I0403 21:44:25.375069 24059 net.cpp:156] Memory required for data: 1208122656
I0403 21:44:25.375083 24059 layer_factory.hpp:77] Creating layer loss2/fc
I0403 21:44:25.375105 24059 net.cpp:91] Creating Layer loss2/fc
I0403 21:44:25.375121 24059 net.cpp:425] loss2/fc <- loss2/conv
I0403 21:44:25.375139 24059 net.cpp:399] loss2/fc -> loss2/fc
I0403 21:44:25.392416 24059 net.cpp:141] Setting up loss2/fc
I0403 21:44:25.392446 24059 net.cpp:148] Top shape: 24 1024 (24576)
I0403 21:44:25.392462 24059 net.cpp:156] Memory required for data: 1208220960
I0403 21:44:25.392482 24059 layer_factory.hpp:77] Creating layer loss2/relu_fc
I0403 21:44:25.392498 24059 net.cpp:91] Creating Layer loss2/relu_fc
I0403 21:44:25.392514 24059 net.cpp:425] loss2/relu_fc <- loss2/fc
I0403 21:44:25.392534 24059 net.cpp:386] loss2/relu_fc -> loss2/fc (in-place)
I0403 21:44:25.392834 24059 net.cpp:141] Setting up loss2/relu_fc
I0403 21:44:25.392863 24059 net.cpp:148] Top shape: 24 1024 (24576)
I0403 21:44:25.392877 24059 net.cpp:156] Memory required for data: 1208319264
I0403 21:44:25.392892 24059 layer_factory.hpp:77] Creating layer loss2/drop_fc
I0403 21:44:25.392910 24059 net.cpp:91] Creating Layer loss2/drop_fc
I0403 21:44:25.392925 24059 net.cpp:425] loss2/drop_fc <- loss2/fc
I0403 21:44:25.392945 24059 net.cpp:386] loss2/drop_fc -> loss2/fc (in-place)
I0403 21:44:25.392992 24059 net.cpp:141] Setting up loss2/drop_fc
I0403 21:44:25.393013 24059 net.cpp:148] Top shape: 24 1024 (24576)
I0403 21:44:25.393028 24059 net.cpp:156] Memory required for data: 1208417568
I0403 21:44:25.393041 24059 layer_factory.hpp:77] Creating layer loss2/classifier_plantvillage
I0403 21:44:25.393062 24059 net.cpp:91] Creating Layer loss2/classifier_plantvillage
I0403 21:44:25.393079 24059 net.cpp:425] loss2/classifier_plantvillage <- loss2/fc
I0403 21:44:25.393100 24059 net.cpp:399] loss2/classifier_plantvillage -> loss2/classifier_plantvillage
I0403 21:44:25.393496 24059 net.cpp:141] Setting up loss2/classifier_plantvillage
I0403 21:44:25.393519 24059 net.cpp:148] Top shape: 24 38 (912)
I0403 21:44:25.393548 24059 net.cpp:156] Memory required for data: 1208421216
I0403 21:44:25.393566 24059 layer_factory.hpp:77] Creating layer loss2/classifier_plantvillage_loss2/classifier_plantvillage_0_split
I0403 21:44:25.393587 24059 net.cpp:91] Creating Layer loss2/classifier_plantvillage_loss2/classifier_plantvillage_0_split
I0403 21:44:25.393604 24059 net.cpp:425] loss2/classifier_plantvillage_loss2/classifier_plantvillage_0_split <- loss2/classifier_plantvillage
I0403 21:44:25.393620 24059 net.cpp:399] loss2/classifier_plantvillage_loss2/classifier_plantvillage_0_split -> loss2/classifier_plantvillage_loss2/classifier_plantvillage_0_split_0
I0403 21:44:25.393641 24059 net.cpp:399] loss2/classifier_plantvillage_loss2/classifier_plantvillage_0_split -> loss2/classifier_plantvillage_loss2/classifier_plantvillage_0_split_1
I0403 21:44:25.393661 24059 net.cpp:399] loss2/classifier_plantvillage_loss2/classifier_plantvillage_0_split -> loss2/classifier_plantvillage_loss2/classifier_plantvillage_0_split_2
I0403 21:44:25.393738 24059 net.cpp:141] Setting up loss2/classifier_plantvillage_loss2/classifier_plantvillage_0_split
I0403 21:44:25.393760 24059 net.cpp:148] Top shape: 24 38 (912)
I0403 21:44:25.393776 24059 net.cpp:148] Top shape: 24 38 (912)
I0403 21:44:25.393791 24059 net.cpp:148] Top shape: 24 38 (912)
I0403 21:44:25.393805 24059 net.cpp:156] Memory required for data: 1208432160
I0403 21:44:25.393820 24059 layer_factory.hpp:77] Creating layer inception_4e/1x1
I0403 21:44:25.393839 24059 net.cpp:91] Creating Layer inception_4e/1x1
I0403 21:44:25.393856 24059 net.cpp:425] inception_4e/1x1 <- inception_4d/output_inception_4d/output_0_split_1
I0403 21:44:25.393877 24059 net.cpp:399] inception_4e/1x1 -> inception_4e/1x1
I0403 21:44:25.395665 24059 net.cpp:141] Setting up inception_4e/1x1
I0403 21:44:25.395692 24059 net.cpp:148] Top shape: 24 256 14 14 (1204224)
I0403 21:44:25.395707 24059 net.cpp:156] Memory required for data: 1213249056
I0403 21:44:25.395725 24059 layer_factory.hpp:77] Creating layer inception_4e/relu_1x1
I0403 21:44:25.395745 24059 net.cpp:91] Creating Layer inception_4e/relu_1x1
I0403 21:44:25.395761 24059 net.cpp:425] inception_4e/relu_1x1 <- inception_4e/1x1
I0403 21:44:25.395777 24059 net.cpp:386] inception_4e/relu_1x1 -> inception_4e/1x1 (in-place)
I0403 21:44:25.396072 24059 net.cpp:141] Setting up inception_4e/relu_1x1
I0403 21:44:25.396098 24059 net.cpp:148] Top shape: 24 256 14 14 (1204224)
I0403 21:44:25.396112 24059 net.cpp:156] Memory required for data: 1218065952
I0403 21:44:25.396127 24059 layer_factory.hpp:77] Creating layer inception_4e/3x3_reduce
I0403 21:44:25.396148 24059 net.cpp:91] Creating Layer inception_4e/3x3_reduce
I0403 21:44:25.396167 24059 net.cpp:425] inception_4e/3x3_reduce <- inception_4d/output_inception_4d/output_0_split_2
I0403 21:44:25.396188 24059 net.cpp:399] inception_4e/3x3_reduce -> inception_4e/3x3_reduce
I0403 21:44:25.398298 24059 net.cpp:141] Setting up inception_4e/3x3_reduce
I0403 21:44:25.398325 24059 net.cpp:148] Top shape: 24 160 14 14 (752640)
I0403 21:44:25.398340 24059 net.cpp:156] Memory required for data: 1221076512
I0403 21:44:25.398357 24059 layer_factory.hpp:77] Creating layer inception_4e/relu_3x3_reduce
I0403 21:44:25.398377 24059 net.cpp:91] Creating Layer inception_4e/relu_3x3_reduce
I0403 21:44:25.398393 24059 net.cpp:425] inception_4e/relu_3x3_reduce <- inception_4e/3x3_reduce
I0403 21:44:25.398411 24059 net.cpp:386] inception_4e/relu_3x3_reduce -> inception_4e/3x3_reduce (in-place)
I0403 21:44:25.398593 24059 net.cpp:141] Setting up inception_4e/relu_3x3_reduce
I0403 21:44:25.398617 24059 net.cpp:148] Top shape: 24 160 14 14 (752640)
I0403 21:44:25.398632 24059 net.cpp:156] Memory required for data: 1224087072
I0403 21:44:25.398645 24059 layer_factory.hpp:77] Creating layer inception_4e/3x3
I0403 21:44:25.398668 24059 net.cpp:91] Creating Layer inception_4e/3x3
I0403 21:44:25.398684 24059 net.cpp:425] inception_4e/3x3 <- inception_4e/3x3_reduce
I0403 21:44:25.398705 24059 net.cpp:399] inception_4e/3x3 -> inception_4e/3x3
I0403 21:44:25.403614 24059 net.cpp:141] Setting up inception_4e/3x3
I0403 21:44:25.403652 24059 net.cpp:148] Top shape: 24 320 14 14 (1505280)
I0403 21:44:25.403669 24059 net.cpp:156] Memory required for data: 1230108192
I0403 21:44:25.403687 24059 layer_factory.hpp:77] Creating layer inception_4e/relu_3x3
I0403 21:44:25.403707 24059 net.cpp:91] Creating Layer inception_4e/relu_3x3
I0403 21:44:25.403724 24059 net.cpp:425] inception_4e/relu_3x3 <- inception_4e/3x3
I0403 21:44:25.403741 24059 net.cpp:386] inception_4e/relu_3x3 -> inception_4e/3x3 (in-place)
I0403 21:44:25.404036 24059 net.cpp:141] Setting up inception_4e/relu_3x3
I0403 21:44:25.404062 24059 net.cpp:148] Top shape: 24 320 14 14 (1505280)
I0403 21:44:25.404078 24059 net.cpp:156] Memory required for data: 1236129312
I0403 21:44:25.404093 24059 layer_factory.hpp:77] Creating layer inception_4e/5x5_reduce
I0403 21:44:25.404116 24059 net.cpp:91] Creating Layer inception_4e/5x5_reduce
I0403 21:44:25.404134 24059 net.cpp:425] inception_4e/5x5_reduce <- inception_4d/output_inception_4d/output_0_split_3
I0403 21:44:25.404152 24059 net.cpp:399] inception_4e/5x5_reduce -> inception_4e/5x5_reduce
I0403 21:44:25.405210 24059 net.cpp:141] Setting up inception_4e/5x5_reduce
I0403 21:44:25.405241 24059 net.cpp:148] Top shape: 24 32 14 14 (150528)
I0403 21:44:25.405256 24059 net.cpp:156] Memory required for data: 1236731424
I0403 21:44:25.405274 24059 layer_factory.hpp:77] Creating layer inception_4e/relu_5x5_reduce
I0403 21:44:25.405292 24059 net.cpp:91] Creating Layer inception_4e/relu_5x5_reduce
I0403 21:44:25.405308 24059 net.cpp:425] inception_4e/relu_5x5_reduce <- inception_4e/5x5_reduce
I0403 21:44:25.405328 24059 net.cpp:386] inception_4e/relu_5x5_reduce -> inception_4e/5x5_reduce (in-place)
I0403 21:44:25.405627 24059 net.cpp:141] Setting up inception_4e/relu_5x5_reduce
I0403 21:44:25.405652 24059 net.cpp:148] Top shape: 24 32 14 14 (150528)
I0403 21:44:25.405668 24059 net.cpp:156] Memory required for data: 1237333536
I0403 21:44:25.405683 24059 layer_factory.hpp:77] Creating layer inception_4e/5x5
I0403 21:44:25.405719 24059 net.cpp:91] Creating Layer inception_4e/5x5
I0403 21:44:25.405736 24059 net.cpp:425] inception_4e/5x5 <- inception_4e/5x5_reduce
I0403 21:44:25.405755 24059 net.cpp:399] inception_4e/5x5 -> inception_4e/5x5
I0403 21:44:25.407699 24059 net.cpp:141] Setting up inception_4e/5x5
I0403 21:44:25.407727 24059 net.cpp:148] Top shape: 24 128 14 14 (602112)
I0403 21:44:25.407742 24059 net.cpp:156] Memory required for data: 1239741984
I0403 21:44:25.407762 24059 layer_factory.hpp:77] Creating layer inception_4e/relu_5x5
I0403 21:44:25.407779 24059 net.cpp:91] Creating Layer inception_4e/relu_5x5
I0403 21:44:25.407794 24059 net.cpp:425] inception_4e/relu_5x5 <- inception_4e/5x5
I0403 21:44:25.407814 24059 net.cpp:386] inception_4e/relu_5x5 -> inception_4e/5x5 (in-place)
I0403 21:44:25.408006 24059 net.cpp:141] Setting up inception_4e/relu_5x5
I0403 21:44:25.408030 24059 net.cpp:148] Top shape: 24 128 14 14 (602112)
I0403 21:44:25.408044 24059 net.cpp:156] Memory required for data: 1242150432
I0403 21:44:25.408059 24059 layer_factory.hpp:77] Creating layer inception_4e/pool
I0403 21:44:25.408078 24059 net.cpp:91] Creating Layer inception_4e/pool
I0403 21:44:25.408094 24059 net.cpp:425] inception_4e/pool <- inception_4d/output_inception_4d/output_0_split_4
I0403 21:44:25.408113 24059 net.cpp:399] inception_4e/pool -> inception_4e/pool
I0403 21:44:25.408181 24059 net.cpp:141] Setting up inception_4e/pool
I0403 21:44:25.408205 24059 net.cpp:148] Top shape: 24 528 14 14 (2483712)
I0403 21:44:25.408218 24059 net.cpp:156] Memory required for data: 1252085280
I0403 21:44:25.408242 24059 layer_factory.hpp:77] Creating layer inception_4e/pool_proj
I0403 21:44:25.408267 24059 net.cpp:91] Creating Layer inception_4e/pool_proj
I0403 21:44:25.408285 24059 net.cpp:425] inception_4e/pool_proj <- inception_4e/pool
I0403 21:44:25.408306 24059 net.cpp:399] inception_4e/pool_proj -> inception_4e/pool_proj
I0403 21:44:25.409787 24059 net.cpp:141] Setting up inception_4e/pool_proj
I0403 21:44:25.409827 24059 net.cpp:148] Top shape: 24 128 14 14 (602112)
I0403 21:44:25.409844 24059 net.cpp:156] Memory required for data: 1254493728
I0403 21:44:25.409862 24059 layer_factory.hpp:77] Creating layer inception_4e/relu_pool_proj
I0403 21:44:25.409879 24059 net.cpp:91] Creating Layer inception_4e/relu_pool_proj
I0403 21:44:25.409895 24059 net.cpp:425] inception_4e/relu_pool_proj <- inception_4e/pool_proj
I0403 21:44:25.409922 24059 net.cpp:386] inception_4e/relu_pool_proj -> inception_4e/pool_proj (in-place)
I0403 21:44:25.410223 24059 net.cpp:141] Setting up inception_4e/relu_pool_proj
I0403 21:44:25.410254 24059 net.cpp:148] Top shape: 24 128 14 14 (602112)
I0403 21:44:25.410269 24059 net.cpp:156] Memory required for data: 1256902176
I0403 21:44:25.410284 24059 layer_factory.hpp:77] Creating layer inception_4e/output
I0403 21:44:25.410301 24059 net.cpp:91] Creating Layer inception_4e/output
I0403 21:44:25.410316 24059 net.cpp:425] inception_4e/output <- inception_4e/1x1
I0403 21:44:25.410332 24059 net.cpp:425] inception_4e/output <- inception_4e/3x3
I0403 21:44:25.410348 24059 net.cpp:425] inception_4e/output <- inception_4e/5x5
I0403 21:44:25.410363 24059 net.cpp:425] inception_4e/output <- inception_4e/pool_proj
I0403 21:44:25.410380 24059 net.cpp:399] inception_4e/output -> inception_4e/output
I0403 21:44:25.410429 24059 net.cpp:141] Setting up inception_4e/output
I0403 21:44:25.410452 24059 net.cpp:148] Top shape: 24 832 14 14 (3913728)
I0403 21:44:25.410467 24059 net.cpp:156] Memory required for data: 1272557088
I0403 21:44:25.410481 24059 layer_factory.hpp:77] Creating layer pool4/3x3_s2
I0403 21:44:25.410501 24059 net.cpp:91] Creating Layer pool4/3x3_s2
I0403 21:44:25.410516 24059 net.cpp:425] pool4/3x3_s2 <- inception_4e/output
I0403 21:44:25.410533 24059 net.cpp:399] pool4/3x3_s2 -> pool4/3x3_s2
I0403 21:44:25.410600 24059 net.cpp:141] Setting up pool4/3x3_s2
I0403 21:44:25.410624 24059 net.cpp:148] Top shape: 24 832 7 7 (978432)
I0403 21:44:25.410637 24059 net.cpp:156] Memory required for data: 1276470816
I0403 21:44:25.410651 24059 layer_factory.hpp:77] Creating layer pool4/3x3_s2_pool4/3x3_s2_0_split
I0403 21:44:25.410667 24059 net.cpp:91] Creating Layer pool4/3x3_s2_pool4/3x3_s2_0_split
I0403 21:44:25.410683 24059 net.cpp:425] pool4/3x3_s2_pool4/3x3_s2_0_split <- pool4/3x3_s2
I0403 21:44:25.410702 24059 net.cpp:399] pool4/3x3_s2_pool4/3x3_s2_0_split -> pool4/3x3_s2_pool4/3x3_s2_0_split_0
I0403 21:44:25.410723 24059 net.cpp:399] pool4/3x3_s2_pool4/3x3_s2_0_split -> pool4/3x3_s2_pool4/3x3_s2_0_split_1
I0403 21:44:25.410743 24059 net.cpp:399] pool4/3x3_s2_pool4/3x3_s2_0_split -> pool4/3x3_s2_pool4/3x3_s2_0_split_2
I0403 21:44:25.410763 24059 net.cpp:399] pool4/3x3_s2_pool4/3x3_s2_0_split -> pool4/3x3_s2_pool4/3x3_s2_0_split_3
I0403 21:44:25.410853 24059 net.cpp:141] Setting up pool4/3x3_s2_pool4/3x3_s2_0_split
I0403 21:44:25.410877 24059 net.cpp:148] Top shape: 24 832 7 7 (978432)
I0403 21:44:25.410894 24059 net.cpp:148] Top shape: 24 832 7 7 (978432)
I0403 21:44:25.410909 24059 net.cpp:148] Top shape: 24 832 7 7 (978432)
I0403 21:44:25.410924 24059 net.cpp:148] Top shape: 24 832 7 7 (978432)
I0403 21:44:25.410938 24059 net.cpp:156] Memory required for data: 1292125728
I0403 21:44:25.410954 24059 layer_factory.hpp:77] Creating layer inception_5a/1x1
I0403 21:44:25.410975 24059 net.cpp:91] Creating Layer inception_5a/1x1
I0403 21:44:25.410992 24059 net.cpp:425] inception_5a/1x1 <- pool4/3x3_s2_pool4/3x3_s2_0_split_0
I0403 21:44:25.411010 24059 net.cpp:399] inception_5a/1x1 -> inception_5a/1x1
I0403 21:44:25.413902 24059 net.cpp:141] Setting up inception_5a/1x1
I0403 21:44:25.413930 24059 net.cpp:148] Top shape: 24 256 7 7 (301056)
I0403 21:44:25.413946 24059 net.cpp:156] Memory required for data: 1293329952
I0403 21:44:25.413965 24059 layer_factory.hpp:77] Creating layer inception_5a/relu_1x1
I0403 21:44:25.413982 24059 net.cpp:91] Creating Layer inception_5a/relu_1x1
I0403 21:44:25.414000 24059 net.cpp:425] inception_5a/relu_1x1 <- inception_5a/1x1
I0403 21:44:25.414019 24059 net.cpp:386] inception_5a/relu_1x1 -> inception_5a/1x1 (in-place)
I0403 21:44:25.414332 24059 net.cpp:141] Setting up inception_5a/relu_1x1
I0403 21:44:25.414358 24059 net.cpp:148] Top shape: 24 256 7 7 (301056)
I0403 21:44:25.414373 24059 net.cpp:156] Memory required for data: 1294534176
I0403 21:44:25.414388 24059 layer_factory.hpp:77] Creating layer inception_5a/3x3_reduce
I0403 21:44:25.414410 24059 net.cpp:91] Creating Layer inception_5a/3x3_reduce
I0403 21:44:25.414428 24059 net.cpp:425] inception_5a/3x3_reduce <- pool4/3x3_s2_pool4/3x3_s2_0_split_1
I0403 21:44:25.414450 24059 net.cpp:399] inception_5a/3x3_reduce -> inception_5a/3x3_reduce
I0403 21:44:25.416877 24059 net.cpp:141] Setting up inception_5a/3x3_reduce
I0403 21:44:25.416906 24059 net.cpp:148] Top shape: 24 160 7 7 (188160)
I0403 21:44:25.416923 24059 net.cpp:156] Memory required for data: 1295286816
I0403 21:44:25.416941 24059 layer_factory.hpp:77] Creating layer inception_5a/relu_3x3_reduce
I0403 21:44:25.416960 24059 net.cpp:91] Creating Layer inception_5a/relu_3x3_reduce
I0403 21:44:25.416977 24059 net.cpp:425] inception_5a/relu_3x3_reduce <- inception_5a/3x3_reduce
I0403 21:44:25.416996 24059 net.cpp:386] inception_5a/relu_3x3_reduce -> inception_5a/3x3_reduce (in-place)
I0403 21:44:25.417182 24059 net.cpp:141] Setting up inception_5a/relu_3x3_reduce
I0403 21:44:25.417208 24059 net.cpp:148] Top shape: 24 160 7 7 (188160)
I0403 21:44:25.417223 24059 net.cpp:156] Memory required for data: 1296039456
I0403 21:44:25.417243 24059 layer_factory.hpp:77] Creating layer inception_5a/3x3
I0403 21:44:25.417266 24059 net.cpp:91] Creating Layer inception_5a/3x3
I0403 21:44:25.417284 24059 net.cpp:425] inception_5a/3x3 <- inception_5a/3x3_reduce
I0403 21:44:25.417314 24059 net.cpp:399] inception_5a/3x3 -> inception_5a/3x3
I0403 21:44:25.422269 24059 net.cpp:141] Setting up inception_5a/3x3
I0403 21:44:25.422298 24059 net.cpp:148] Top shape: 24 320 7 7 (376320)
I0403 21:44:25.422314 24059 net.cpp:156] Memory required for data: 1297544736
I0403 21:44:25.422333 24059 layer_factory.hpp:77] Creating layer inception_5a/relu_3x3
I0403 21:44:25.422350 24059 net.cpp:91] Creating Layer inception_5a/relu_3x3
I0403 21:44:25.422368 24059 net.cpp:425] inception_5a/relu_3x3 <- inception_5a/3x3
I0403 21:44:25.422386 24059 net.cpp:386] inception_5a/relu_3x3 -> inception_5a/3x3 (in-place)
I0403 21:44:25.422684 24059 net.cpp:141] Setting up inception_5a/relu_3x3
I0403 21:44:25.422710 24059 net.cpp:148] Top shape: 24 320 7 7 (376320)
I0403 21:44:25.422724 24059 net.cpp:156] Memory required for data: 1299050016
I0403 21:44:25.422740 24059 layer_factory.hpp:77] Creating layer inception_5a/5x5_reduce
I0403 21:44:25.422761 24059 net.cpp:91] Creating Layer inception_5a/5x5_reduce
I0403 21:44:25.422780 24059 net.cpp:425] inception_5a/5x5_reduce <- pool4/3x3_s2_pool4/3x3_s2_0_split_2
I0403 21:44:25.422801 24059 net.cpp:399] inception_5a/5x5_reduce -> inception_5a/5x5_reduce
I0403 21:44:25.423969 24059 net.cpp:141] Setting up inception_5a/5x5_reduce
I0403 21:44:25.424000 24059 net.cpp:148] Top shape: 24 32 7 7 (37632)
I0403 21:44:25.424016 24059 net.cpp:156] Memory required for data: 1299200544
I0403 21:44:25.424036 24059 layer_factory.hpp:77] Creating layer inception_5a/relu_5x5_reduce
I0403 21:44:25.424055 24059 net.cpp:91] Creating Layer inception_5a/relu_5x5_reduce
I0403 21:44:25.424072 24059 net.cpp:425] inception_5a/relu_5x5_reduce <- inception_5a/5x5_reduce
I0403 21:44:25.424089 24059 net.cpp:386] inception_5a/relu_5x5_reduce -> inception_5a/5x5_reduce (in-place)
I0403 21:44:25.424396 24059 net.cpp:141] Setting up inception_5a/relu_5x5_reduce
I0403 21:44:25.424422 24059 net.cpp:148] Top shape: 24 32 7 7 (37632)
I0403 21:44:25.424437 24059 net.cpp:156] Memory required for data: 1299351072
I0403 21:44:25.424451 24059 layer_factory.hpp:77] Creating layer inception_5a/5x5
I0403 21:44:25.424474 24059 net.cpp:91] Creating Layer inception_5a/5x5
I0403 21:44:25.424491 24059 net.cpp:425] inception_5a/5x5 <- inception_5a/5x5_reduce
I0403 21:44:25.424512 24059 net.cpp:399] inception_5a/5x5 -> inception_5a/5x5
I0403 21:44:25.426200 24059 net.cpp:141] Setting up inception_5a/5x5
I0403 21:44:25.426242 24059 net.cpp:148] Top shape: 24 128 7 7 (150528)
I0403 21:44:25.426259 24059 net.cpp:156] Memory required for data: 1299953184
I0403 21:44:25.426277 24059 layer_factory.hpp:77] Creating layer inception_5a/relu_5x5
I0403 21:44:25.426295 24059 net.cpp:91] Creating Layer inception_5a/relu_5x5
I0403 21:44:25.426311 24059 net.cpp:425] inception_5a/relu_5x5 <- inception_5a/5x5
I0403 21:44:25.426331 24059 net.cpp:386] inception_5a/relu_5x5 -> inception_5a/5x5 (in-place)
I0403 21:44:25.426524 24059 net.cpp:141] Setting up inception_5a/relu_5x5
I0403 21:44:25.426548 24059 net.cpp:148] Top shape: 24 128 7 7 (150528)
I0403 21:44:25.426563 24059 net.cpp:156] Memory required for data: 1300555296
I0403 21:44:25.426578 24059 layer_factory.hpp:77] Creating layer inception_5a/pool
I0403 21:44:25.426597 24059 net.cpp:91] Creating Layer inception_5a/pool
I0403 21:44:25.426614 24059 net.cpp:425] inception_5a/pool <- pool4/3x3_s2_pool4/3x3_s2_0_split_3
I0403 21:44:25.426632 24059 net.cpp:399] inception_5a/pool -> inception_5a/pool
I0403 21:44:25.426702 24059 net.cpp:141] Setting up inception_5a/pool
I0403 21:44:25.426724 24059 net.cpp:148] Top shape: 24 832 7 7 (978432)
I0403 21:44:25.426739 24059 net.cpp:156] Memory required for data: 1304469024
I0403 21:44:25.426753 24059 layer_factory.hpp:77] Creating layer inception_5a/pool_proj
I0403 21:44:25.426775 24059 net.cpp:91] Creating Layer inception_5a/pool_proj
I0403 21:44:25.426794 24059 net.cpp:425] inception_5a/pool_proj <- inception_5a/pool
I0403 21:44:25.426815 24059 net.cpp:399] inception_5a/pool_proj -> inception_5a/pool_proj
I0403 21:44:25.429123 24059 net.cpp:141] Setting up inception_5a/pool_proj
I0403 21:44:25.429157 24059 net.cpp:148] Top shape: 24 128 7 7 (150528)
I0403 21:44:25.429172 24059 net.cpp:156] Memory required for data: 1305071136
I0403 21:44:25.429190 24059 layer_factory.hpp:77] Creating layer inception_5a/relu_pool_proj
I0403 21:44:25.429209 24059 net.cpp:91] Creating Layer inception_5a/relu_pool_proj
I0403 21:44:25.429225 24059 net.cpp:425] inception_5a/relu_pool_proj <- inception_5a/pool_proj
I0403 21:44:25.429251 24059 net.cpp:386] inception_5a/relu_pool_proj -> inception_5a/pool_proj (in-place)
I0403 21:44:25.429545 24059 net.cpp:141] Setting up inception_5a/relu_pool_proj
I0403 21:44:25.429574 24059 net.cpp:148] Top shape: 24 128 7 7 (150528)
I0403 21:44:25.429589 24059 net.cpp:156] Memory required for data: 1305673248
I0403 21:44:25.429603 24059 layer_factory.hpp:77] Creating layer inception_5a/output
I0403 21:44:25.429620 24059 net.cpp:91] Creating Layer inception_5a/output
I0403 21:44:25.429636 24059 net.cpp:425] inception_5a/output <- inception_5a/1x1
I0403 21:44:25.429652 24059 net.cpp:425] inception_5a/output <- inception_5a/3x3
I0403 21:44:25.429668 24059 net.cpp:425] inception_5a/output <- inception_5a/5x5
I0403 21:44:25.429683 24059 net.cpp:425] inception_5a/output <- inception_5a/pool_proj
I0403 21:44:25.429702 24059 net.cpp:399] inception_5a/output -> inception_5a/output
I0403 21:44:25.429751 24059 net.cpp:141] Setting up inception_5a/output
I0403 21:44:25.429774 24059 net.cpp:148] Top shape: 24 832 7 7 (978432)
I0403 21:44:25.429788 24059 net.cpp:156] Memory required for data: 1309586976
I0403 21:44:25.429803 24059 layer_factory.hpp:77] Creating layer inception_5a/output_inception_5a/output_0_split
I0403 21:44:25.429823 24059 net.cpp:91] Creating Layer inception_5a/output_inception_5a/output_0_split
I0403 21:44:25.429839 24059 net.cpp:425] inception_5a/output_inception_5a/output_0_split <- inception_5a/output
I0403 21:44:25.429857 24059 net.cpp:399] inception_5a/output_inception_5a/output_0_split -> inception_5a/output_inception_5a/output_0_split_0
I0403 21:44:25.429877 24059 net.cpp:399] inception_5a/output_inception_5a/output_0_split -> inception_5a/output_inception_5a/output_0_split_1
I0403 21:44:25.429898 24059 net.cpp:399] inception_5a/output_inception_5a/output_0_split -> inception_5a/output_inception_5a/output_0_split_2
I0403 21:44:25.429920 24059 net.cpp:399] inception_5a/output_inception_5a/output_0_split -> inception_5a/output_inception_5a/output_0_split_3
I0403 21:44:25.430029 24059 net.cpp:141] Setting up inception_5a/output_inception_5a/output_0_split
I0403 21:44:25.430052 24059 net.cpp:148] Top shape: 24 832 7 7 (978432)
I0403 21:44:25.430068 24059 net.cpp:148] Top shape: 24 832 7 7 (978432)
I0403 21:44:25.430083 24059 net.cpp:148] Top shape: 24 832 7 7 (978432)
I0403 21:44:25.430099 24059 net.cpp:148] Top shape: 24 832 7 7 (978432)
I0403 21:44:25.430111 24059 net.cpp:156] Memory required for data: 1325241888
I0403 21:44:25.430126 24059 layer_factory.hpp:77] Creating layer inception_5b/1x1
I0403 21:44:25.430147 24059 net.cpp:91] Creating Layer inception_5b/1x1
I0403 21:44:25.430166 24059 net.cpp:425] inception_5b/1x1 <- inception_5a/output_inception_5a/output_0_split_0
I0403 21:44:25.430186 24059 net.cpp:399] inception_5b/1x1 -> inception_5b/1x1
I0403 21:44:25.433889 24059 net.cpp:141] Setting up inception_5b/1x1
I0403 21:44:25.433920 24059 net.cpp:148] Top shape: 24 384 7 7 (451584)
I0403 21:44:25.433936 24059 net.cpp:156] Memory required for data: 1327048224
I0403 21:44:25.433956 24059 layer_factory.hpp:77] Creating layer inception_5b/relu_1x1
I0403 21:44:25.433974 24059 net.cpp:91] Creating Layer inception_5b/relu_1x1
I0403 21:44:25.433990 24059 net.cpp:425] inception_5b/relu_1x1 <- inception_5b/1x1
I0403 21:44:25.434007 24059 net.cpp:386] inception_5b/relu_1x1 -> inception_5b/1x1 (in-place)
I0403 21:44:25.434316 24059 net.cpp:141] Setting up inception_5b/relu_1x1
I0403 21:44:25.434345 24059 net.cpp:148] Top shape: 24 384 7 7 (451584)
I0403 21:44:25.434360 24059 net.cpp:156] Memory required for data: 1328854560
I0403 21:44:25.434375 24059 layer_factory.hpp:77] Creating layer inception_5b/3x3_reduce
I0403 21:44:25.434396 24059 net.cpp:91] Creating Layer inception_5b/3x3_reduce
I0403 21:44:25.434413 24059 net.cpp:425] inception_5b/3x3_reduce <- inception_5a/output_inception_5a/output_0_split_1
I0403 21:44:25.434432 24059 net.cpp:399] inception_5b/3x3_reduce -> inception_5b/3x3_reduce
I0403 21:44:25.437065 24059 net.cpp:141] Setting up inception_5b/3x3_reduce
I0403 21:44:25.437095 24059 net.cpp:148] Top shape: 24 192 7 7 (225792)
I0403 21:44:25.437111 24059 net.cpp:156] Memory required for data: 1329757728
I0403 21:44:25.437130 24059 layer_factory.hpp:77] Creating layer inception_5b/relu_3x3_reduce
I0403 21:44:25.437147 24059 net.cpp:91] Creating Layer inception_5b/relu_3x3_reduce
I0403 21:44:25.437163 24059 net.cpp:425] inception_5b/relu_3x3_reduce <- inception_5b/3x3_reduce
I0403 21:44:25.437183 24059 net.cpp:386] inception_5b/relu_3x3_reduce -> inception_5b/3x3_reduce (in-place)
I0403 21:44:25.437378 24059 net.cpp:141] Setting up inception_5b/relu_3x3_reduce
I0403 21:44:25.437402 24059 net.cpp:148] Top shape: 24 192 7 7 (225792)
I0403 21:44:25.437417 24059 net.cpp:156] Memory required for data: 1330660896
I0403 21:44:25.437432 24059 layer_factory.hpp:77] Creating layer inception_5b/3x3
I0403 21:44:25.437456 24059 net.cpp:91] Creating Layer inception_5b/3x3
I0403 21:44:25.437474 24059 net.cpp:425] inception_5b/3x3 <- inception_5b/3x3_reduce
I0403 21:44:25.437496 24059 net.cpp:399] inception_5b/3x3 -> inception_5b/3x3
I0403 21:44:25.444136 24059 net.cpp:141] Setting up inception_5b/3x3
I0403 21:44:25.444165 24059 net.cpp:148] Top shape: 24 384 7 7 (451584)
I0403 21:44:25.444181 24059 net.cpp:156] Memory required for data: 1332467232
I0403 21:44:25.444200 24059 layer_factory.hpp:77] Creating layer inception_5b/relu_3x3
I0403 21:44:25.444217 24059 net.cpp:91] Creating Layer inception_5b/relu_3x3
I0403 21:44:25.444237 24059 net.cpp:425] inception_5b/relu_3x3 <- inception_5b/3x3
I0403 21:44:25.444258 24059 net.cpp:386] inception_5b/relu_3x3 -> inception_5b/3x3 (in-place)
I0403 21:44:25.444553 24059 net.cpp:141] Setting up inception_5b/relu_3x3
I0403 21:44:25.444581 24059 net.cpp:148] Top shape: 24 384 7 7 (451584)
I0403 21:44:25.444597 24059 net.cpp:156] Memory required for data: 1334273568
I0403 21:44:25.444612 24059 layer_factory.hpp:77] Creating layer inception_5b/5x5_reduce
I0403 21:44:25.444649 24059 net.cpp:91] Creating Layer inception_5b/5x5_reduce
I0403 21:44:25.444667 24059 net.cpp:425] inception_5b/5x5_reduce <- inception_5a/output_inception_5a/output_0_split_2
I0403 21:44:25.444687 24059 net.cpp:399] inception_5b/5x5_reduce -> inception_5b/5x5_reduce
I0403 21:44:25.445943 24059 net.cpp:141] Setting up inception_5b/5x5_reduce
I0403 21:44:25.445972 24059 net.cpp:148] Top shape: 24 48 7 7 (56448)
I0403 21:44:25.445988 24059 net.cpp:156] Memory required for data: 1334499360
I0403 21:44:25.446007 24059 layer_factory.hpp:77] Creating layer inception_5b/relu_5x5_reduce
I0403 21:44:25.446023 24059 net.cpp:91] Creating Layer inception_5b/relu_5x5_reduce
I0403 21:44:25.446039 24059 net.cpp:425] inception_5b/relu_5x5_reduce <- inception_5b/5x5_reduce
I0403 21:44:25.446056 24059 net.cpp:386] inception_5b/relu_5x5_reduce -> inception_5b/5x5_reduce (in-place)
I0403 21:44:25.446432 24059 net.cpp:141] Setting up inception_5b/relu_5x5_reduce
I0403 21:44:25.446458 24059 net.cpp:148] Top shape: 24 48 7 7 (56448)
I0403 21:44:25.446473 24059 net.cpp:156] Memory required for data: 1334725152
I0403 21:44:25.446488 24059 layer_factory.hpp:77] Creating layer inception_5b/5x5
I0403 21:44:25.446508 24059 net.cpp:91] Creating Layer inception_5b/5x5
I0403 21:44:25.446526 24059 net.cpp:425] inception_5b/5x5 <- inception_5b/5x5_reduce
I0403 21:44:25.446544 24059 net.cpp:399] inception_5b/5x5 -> inception_5b/5x5
I0403 21:44:25.448570 24059 net.cpp:141] Setting up inception_5b/5x5
I0403 21:44:25.448596 24059 net.cpp:148] Top shape: 24 128 7 7 (150528)
I0403 21:44:25.448611 24059 net.cpp:156] Memory required for data: 1335327264
I0403 21:44:25.448629 24059 layer_factory.hpp:77] Creating layer inception_5b/relu_5x5
I0403 21:44:25.448647 24059 net.cpp:91] Creating Layer inception_5b/relu_5x5
I0403 21:44:25.448664 24059 net.cpp:425] inception_5b/relu_5x5 <- inception_5b/5x5
I0403 21:44:25.448684 24059 net.cpp:386] inception_5b/relu_5x5 -> inception_5b/5x5 (in-place)
I0403 21:44:25.448874 24059 net.cpp:141] Setting up inception_5b/relu_5x5
I0403 21:44:25.448899 24059 net.cpp:148] Top shape: 24 128 7 7 (150528)
I0403 21:44:25.448912 24059 net.cpp:156] Memory required for data: 1335929376
I0403 21:44:25.448926 24059 layer_factory.hpp:77] Creating layer inception_5b/pool
I0403 21:44:25.448946 24059 net.cpp:91] Creating Layer inception_5b/pool
I0403 21:44:25.448963 24059 net.cpp:425] inception_5b/pool <- inception_5a/output_inception_5a/output_0_split_3
I0403 21:44:25.448982 24059 net.cpp:399] inception_5b/pool -> inception_5b/pool
I0403 21:44:25.449054 24059 net.cpp:141] Setting up inception_5b/pool
I0403 21:44:25.449077 24059 net.cpp:148] Top shape: 24 832 7 7 (978432)
I0403 21:44:25.449091 24059 net.cpp:156] Memory required for data: 1339843104
I0403 21:44:25.449105 24059 layer_factory.hpp:77] Creating layer inception_5b/pool_proj
I0403 21:44:25.449127 24059 net.cpp:91] Creating Layer inception_5b/pool_proj
I0403 21:44:25.449144 24059 net.cpp:425] inception_5b/pool_proj <- inception_5b/pool
I0403 21:44:25.449165 24059 net.cpp:399] inception_5b/pool_proj -> inception_5b/pool_proj
I0403 21:44:25.451462 24059 net.cpp:141] Setting up inception_5b/pool_proj
I0403 21:44:25.451491 24059 net.cpp:148] Top shape: 24 128 7 7 (150528)
I0403 21:44:25.451506 24059 net.cpp:156] Memory required for data: 1340445216
I0403 21:44:25.451525 24059 layer_factory.hpp:77] Creating layer inception_5b/relu_pool_proj
I0403 21:44:25.451542 24059 net.cpp:91] Creating Layer inception_5b/relu_pool_proj
I0403 21:44:25.451558 24059 net.cpp:425] inception_5b/relu_pool_proj <- inception_5b/pool_proj
I0403 21:44:25.451578 24059 net.cpp:386] inception_5b/relu_pool_proj -> inception_5b/pool_proj (in-place)
I0403 21:44:25.451876 24059 net.cpp:141] Setting up inception_5b/relu_pool_proj
I0403 21:44:25.451905 24059 net.cpp:148] Top shape: 24 128 7 7 (150528)
I0403 21:44:25.451920 24059 net.cpp:156] Memory required for data: 1341047328
I0403 21:44:25.451933 24059 layer_factory.hpp:77] Creating layer inception_5b/output
I0403 21:44:25.451951 24059 net.cpp:91] Creating Layer inception_5b/output
I0403 21:44:25.451980 24059 net.cpp:425] inception_5b/output <- inception_5b/1x1
I0403 21:44:25.451997 24059 net.cpp:425] inception_5b/output <- inception_5b/3x3
I0403 21:44:25.452014 24059 net.cpp:425] inception_5b/output <- inception_5b/5x5
I0403 21:44:25.452030 24059 net.cpp:425] inception_5b/output <- inception_5b/pool_proj
I0403 21:44:25.452047 24059 net.cpp:399] inception_5b/output -> inception_5b/output
I0403 21:44:25.452098 24059 net.cpp:141] Setting up inception_5b/output
I0403 21:44:25.452121 24059 net.cpp:148] Top shape: 24 1024 7 7 (1204224)
I0403 21:44:25.452136 24059 net.cpp:156] Memory required for data: 1345864224
I0403 21:44:25.452150 24059 layer_factory.hpp:77] Creating layer pool5/7x7_s1
I0403 21:44:25.452170 24059 net.cpp:91] Creating Layer pool5/7x7_s1
I0403 21:44:25.452186 24059 net.cpp:425] pool5/7x7_s1 <- inception_5b/output
I0403 21:44:25.452204 24059 net.cpp:399] pool5/7x7_s1 -> pool5/7x7_s1
I0403 21:44:25.452422 24059 net.cpp:141] Setting up pool5/7x7_s1
I0403 21:44:25.452446 24059 net.cpp:148] Top shape: 24 1024 1 1 (24576)
I0403 21:44:25.452461 24059 net.cpp:156] Memory required for data: 1345962528
I0403 21:44:25.452476 24059 layer_factory.hpp:77] Creating layer pool5/drop_7x7_s1
I0403 21:44:25.452492 24059 net.cpp:91] Creating Layer pool5/drop_7x7_s1
I0403 21:44:25.452508 24059 net.cpp:425] pool5/drop_7x7_s1 <- pool5/7x7_s1
I0403 21:44:25.452527 24059 net.cpp:386] pool5/drop_7x7_s1 -> pool5/7x7_s1 (in-place)
I0403 21:44:25.452574 24059 net.cpp:141] Setting up pool5/drop_7x7_s1
I0403 21:44:25.452600 24059 net.cpp:148] Top shape: 24 1024 1 1 (24576)
I0403 21:44:25.452613 24059 net.cpp:156] Memory required for data: 1346060832
I0403 21:44:25.452628 24059 layer_factory.hpp:77] Creating layer loss3/classifier_plantvillage
I0403 21:44:25.452647 24059 net.cpp:91] Creating Layer loss3/classifier_plantvillage
I0403 21:44:25.452662 24059 net.cpp:425] loss3/classifier_plantvillage <- pool5/7x7_s1
I0403 21:44:25.452687 24059 net.cpp:399] loss3/classifier_plantvillage -> loss3/classifier_plantvillage
I0403 21:44:25.453102 24059 net.cpp:141] Setting up loss3/classifier_plantvillage
I0403 21:44:25.453125 24059 net.cpp:148] Top shape: 24 38 (912)
I0403 21:44:25.453140 24059 net.cpp:156] Memory required for data: 1346064480
I0403 21:44:25.453157 24059 layer_factory.hpp:77] Creating layer loss3/classifier_plantvillage_loss3/classifier_plantvillage_0_split
I0403 21:44:25.453177 24059 net.cpp:91] Creating Layer loss3/classifier_plantvillage_loss3/classifier_plantvillage_0_split
I0403 21:44:25.453194 24059 net.cpp:425] loss3/classifier_plantvillage_loss3/classifier_plantvillage_0_split <- loss3/classifier_plantvillage
I0403 21:44:25.453212 24059 net.cpp:399] loss3/classifier_plantvillage_loss3/classifier_plantvillage_0_split -> loss3/classifier_plantvillage_loss3/classifier_plantvillage_0_split_0
I0403 21:44:25.453234 24059 net.cpp:399] loss3/classifier_plantvillage_loss3/classifier_plantvillage_0_split -> loss3/classifier_plantvillage_loss3/classifier_plantvillage_0_split_1
I0403 21:44:25.453259 24059 net.cpp:399] loss3/classifier_plantvillage_loss3/classifier_plantvillage_0_split -> loss3/classifier_plantvillage_loss3/classifier_plantvillage_0_split_2
I0403 21:44:25.453280 24059 net.cpp:399] loss3/classifier_plantvillage_loss3/classifier_plantvillage_0_split -> loss3/classifier_plantvillage_loss3/classifier_plantvillage_0_split_3
I0403 21:44:25.453379 24059 net.cpp:141] Setting up loss3/classifier_plantvillage_loss3/classifier_plantvillage_0_split
I0403 21:44:25.453402 24059 net.cpp:148] Top shape: 24 38 (912)
I0403 21:44:25.453418 24059 net.cpp:148] Top shape: 24 38 (912)
I0403 21:44:25.453433 24059 net.cpp:148] Top shape: 24 38 (912)
I0403 21:44:25.453447 24059 net.cpp:148] Top shape: 24 38 (912)
I0403 21:44:25.453461 24059 net.cpp:156] Memory required for data: 1346079072
I0403 21:44:25.453475 24059 layer_factory.hpp:77] Creating layer loss1/loss
I0403 21:44:25.453496 24059 net.cpp:91] Creating Layer loss1/loss
I0403 21:44:25.453513 24059 net.cpp:425] loss1/loss <- loss1/classifier_plantvillage_loss1/classifier_plantvillage_0_split_0
I0403 21:44:25.453542 24059 net.cpp:425] loss1/loss <- label_data_1_split_0
…
