…
I0403 21:57:18.749709 24826 net.cpp:313] The NetState phase (1) differed from the phase (0) specified by a rule in layer data
I0403 21:57:18.750840 24826 net.cpp:49] Initializing net from parameters: 
state {
  phase: TEST
}
layer {
  name: "data"
  type: "Data"
  top: "data"
  top: "label"
  include {
    phase: TEST
  }
  transform_param {
    mirror: false
    crop_size: 224
    mean_file: "/home/mohanty/data/final_dataset/lmdb/segmented-80-20/mean.binaryproto"
  }
  data_param {
    source: "/home/mohanty/data/final_dataset/lmdb/segmented-80-20/test_db"
    batch_size: 24
    backend: LMDB
  }
}
layer {
  name: "conv1/7x7_s2"
  type: "Convolution"
  bottom: "data"
  top: "conv1/7x7_s2"
  param {
    lr_mult: 1
    decay_mult: 1
  }
  param {
    lr_mult: 2
    decay_mult: 0
  }
  convolution_param {
    num_output: 64
    pad: 3
    kernel_size: 7
    stride: 2
    weight_filler {
      type: "xavier"
      std: 0.1
    }
    bias_filler {
      type: "constant"
      value: 0.2
    }
  }
}
layer {
  name: "conv1/relu_7x7"
  type: "ReLU"
  bottom: "conv1/7x7_s2"
  top: "conv1/7x7_s2"
}
layer {
  name: "pool1/3x3_s2"
  type: "Pooling"
  bottom: "conv1/7x7_s2"
  top: "pool1/3x3_s2"
  pooling_param {
    pool: MAX
    kernel_size: 3
    stride: 2
  }
}
layer {
  name: "pool1/norm1"
  type: "LRN"
  bottom: "pool1/3x3_s2"
  top: "pool1/norm1"
  lrn_param {
    local_size: 5
    alpha: 0.0001
    beta: 0.75
  }
}
layer {
  name: "conv2/3x3_reduce"
  type: "Convolution"
  bottom: "pool1/norm1"
  top: "conv2/3x3_reduce"
  param {
    lr_mult: 1
    decay_mult: 1
  }
  param {
    lr_mult: 2
    decay_mult: 0
  }
  convolution_param {
    num_output: 64
    kernel_size: 1
    weight_filler {
      type: "xavier"
      std: 0.1
    }
    bias_filler {
      type: "constant"
      value: 0.2
    }
  }
}
layer {
  name: "conv2/relu_3x3_reduce"
  type: "ReLU"
  bottom: "conv2/3x3_reduce"
  top: "conv2/3x3_reduce"
}
layer {
  name: "conv2/3x3"
  type: "Convolution"
  bottom: "conv2/3x3_reduce"
  top: "conv2/3x3"
  param {
    lr_mult: 1
    decay_mult: 1
  }
  param {
    lr_mult: 2
    decay_mult: 0
  }
  convolution_param {
    num_output: 192
    pad: 1
    kernel_size: 3
    weight_filler {
      type: "xavier"
      std: 0.03
    }
    bias_filler {
      type: "constant"
      value: 0.2
    }
  }
}
layer {
  name: "conv2/relu_3x3"
  type: "ReLU"
  bottom: "conv2/3x3"
  top: "conv2/3x3"
}
layer {
  name: "conv2/norm2"
  type: "LRN"
  bottom: "conv2/3x3"
  top: "conv2/norm2"
  lrn_param {
    local_size: 5
    alpha: 0.0001
    beta: 0.75
  }
}
layer {
  name: "pool2/3x3_s2"
  type: "Pooling"
  bottom: "conv2/norm2"
  top: "pool2/3x3_s2"
  pooling_param {
    pool: MAX
    kernel_size: 3
    stride: 2
  }
}
layer {
  name: "inception_3a/1x1"
  type: "Convolution"
  bottom: "pool2/3x3_s2"
  top: "inception_3a/1x1"
  param {
    lr_mult: 1
    decay_mult: 1
  }
  param {
    lr_mult: 2
    decay_mult: 0
  }
  convolution_param {
    num_output: 64
    kernel_size: 1
    weight_filler {
      type: "xavier"
      std: 0.03
    }
    bias_filler {
      type: "constant"
      value: 0.2
    }
  }
}
layer {
  name: "inception_3a/relu_1x1"
  type: "ReLU"
  bottom: "inception_3a/1x1"
  top: "inception_3a/1x1"
}
layer {
  name: "inception_3a/3x3_reduce"
  type: "Convolution"
  bottom: "pool2/3x3_s2"
  top: "inception_3a/3x3_reduce"
  param {
    lr_mult: 1
    decay_mult: 1
  }
  param {
    lr_mult: 2
    decay_mult: 0
  }
  convolution_param {
    num_output: 96
    kernel_size: 1
    weight_filler {
      type: "xavier"
      std: 0.09
    }
    bias_filler {
      type: "constant"
      value: 0.2
    }
  }
}
layer {
  name: "inception_3a/relu_3x3_reduce"
  type: "ReLU"
  bottom: "inception_3a/3x3_reduce"
  top: "inception_3a/3x3_reduce"
}
layer {
  name: "inception_3a/3x3"
  type: "Convolution"
  bottom: "inception_3a/3x3_reduce"
  top: "inception_3a/3x3"
  param {
    lr_mult: 1
    decay_mult: 1
  }
  param {
    lr_mult: 2
    decay_mult: 0
  }
  convolution_param {
    num_output: 128
    pad: 1
    kernel_size: 3
    weight_filler {
      type: "xavier"
      std: 0.03
    }
    bias_filler {
      type: "constant"
      value: 0.2
    }
  }
}
layer {
  name: "inception_3a/relu_3x3"
  type: "ReLU"
  bottom: "inception_3a/3x3"
  top: "inception_3a/3x3"
}
layer {
  name: "inception_3a/5x5_reduce"
  type: "Convolution"
  bottom: "pool2/3x3_s2"
  top: "inception_3a/5x5_reduce"
  param {
    lr_mult: 1
    decay_mult: 1
  }
  param {
    lr_mult: 2
    decay_mult: 0
  }
  convolution_param {
    num_output: 16
    kernel_size: 1
    weight_filler {
      type: "xavier"
      std: 0.2
    }
    bias_filler {
      type: "constant"
      value: 0.2
    }
  }
}
layer {
  name: "inception_3a/relu_5x5_reduce"
  type: "ReLU"
  bottom: "inception_3a/5x5_reduce"
  top: "inception_3a/5x5_reduce"
}
layer {
  name: "inception_3a/5x5"
  type: "Convolution"
  bottom: "inception_3a/5x5_reduce"
  top: "inception_3a/5x5"
  param {
    lr_mult: 1
    decay_mult: 1
  }
  param {
    lr_mult: 2
    decay_mult: 0
  }
  convolution_param {
    num_output: 32
    pad: 2
    kernel_size: 5
    weight_filler {
      type: "xavier"
      std: 0.03
    }
    bias_filler {
      type: "constant"
      value: 0.2
    }
  }
}
layer {
  name: "inception_3a/relu_5x5"
  type: "ReLU"
  bottom: "inception_3a/5x5"
  top: "inception_3a/5x5"
}
layer {
  name: "inception_3a/pool"
  type: "Pooling"
  bottom: "pool2/3x3_s2"
  top: "inception_3a/pool"
  pooling_param {
    pool: MAX
    kernel_size: 3
    stride: 1
    pad: 1
  }
}
layer {
  name: "inception_3a/pool_proj"
  type: "Convolution"
  bottom: "inception_3a/pool"
  top: "inception_3a/pool_proj"
  param {
    lr_mult: 1
    decay_mult: 1
  }
  param {
    lr_mult: 2
    decay_mult: 0
  }
  convolution_param {
    num_output: 32
    kernel_size: 1
    weight_filler {
      type: "xavier"
      std: 0.1
    }
    bias_filler {
      type: "constant"
      value: 0.2
    }
  }
}
layer {
  name: "inception_3a/relu_pool_proj"
  type: "ReLU"
  bottom: "inception_3a/pool_proj"
  top: "inception_3a/pool_proj"
}
layer {
  name: "inception_3a/output"
  type: "Concat"
  bottom: "inception_3a/1x1"
  bottom: "inception_3a/3x3"
  bottom: "inception_3a/5x5"
  bottom: "inception_3a/pool_proj"
  top: "inception_3a/output"
}
layer {
  name: "inception_3b/1x1"
  type: "Convolution"
  bottom: "inception_3a/output"
  top: "inception_3b/1x1"
  param {
    lr_mult: 1
    decay_mult: 1
  }
  param {
    lr_mult: 2
    decay_mult: 0
  }
  convolution_param {
    num_output: 128
    kernel_size: 1
    weight_filler {
      type: "xavier"
      std: 0.03
    }
    bias_filler {
      type: "constant"
      value: 0.2
    }
  }
}
layer {
  name: "inception_3b/relu_1x1"
  type: "ReLU"
  bottom: "inception_3b/1x1"
  top: "inception_3b/1x1"
}
layer {
  name: "inception_3b/3x3_reduce"
  type: "Convolution"
  bottom: "inception_3a/output"
  top: "inception_3b/3x3_reduce"
  param {
    lr_mult: 1
    decay_mult: 1
  }
  param {
    lr_mult: 2
    decay_mult: 0
  }
  convolution_param {
    num_output: 128
    kernel_size: 1
    weight_filler {
      type: "xavier"
      std: 0.09
    }
    bias_filler {
      type: "constant"
      value: 0.2
    }
  }
}
layer {
  name: "inception_3b/relu_3x3_reduce"
  type: "ReLU"
  bottom: "inception_3b/3x3_reduce"
  top: "inception_3b/3x3_reduce"
}
layer {
  name: "inception_3b/3x3"
  type: "Convolution"
  bottom: "inception_3b/3x3_reduce"
  top: "inception_3b/3x3"
  param {
    lr_mult: 1
    decay_mult: 1
  }
  param {
    lr_mult: 2
    decay_mult: 0
  }
  convolution_param {
    num_output: 192
    pad: 1
    kernel_size: 3
    weight_filler {
      type: "xavier"
      std: 0.03
    }
    bias_filler {
      type: "constant"
      value: 0.2
    }
  }
}
layer {
  name: "inception_3b/relu_3x3"
  type: "ReLU"
  bottom: "inception_3b/3x3"
  top: "inception_3b/3x3"
}
layer {
  name: "inception_3b/5x5_reduce"
  type: "Convolution"
  bottom: "inception_3a/output"
  top: "inception_3b/5x5_reduce"
  param {
    lr_mult: 1
    decay_mult: 1
  }
  param {
    lr_mult: 2
    decay_mult: 0
  }
  convolution_param {
    num_output: 32
    kernel_size: 1
    weight_filler {
      type: "xavier"
      std: 0.2
    }
    bias_filler {
      type: "constant"
      value: 0.2
    }
  }
}
layer {
  name: "inception_3b/relu_5x5_reduce"
  type: "ReLU"
  bottom: "inception_3b/5x5_reduce"
  top: "inception_3b/5x5_reduce"
}
layer {
  name: "inception_3b/5x5"
  type: "Convolution"
  bottom: "inception_3b/5x5_reduce"
  top: "inception_3b/5x5"
  param {
    lr_mult: 1
    decay_mult: 1
  }
  param {
    lr_mult: 2
    decay_mult: 0
  }
  convolution_param {
    num_output: 96
    pad: 2
    kernel_size: 5
    weight_filler {
      type: "xavier"
      std: 0.03
    }
    bias_filler {
      type: "constant"
      value: 0.2
    }
  }
}
layer {
  name: "inception_3b/relu_5x5"
  type: "ReLU"
  bottom: "inception_3b/5x5"
  top: "inception_3b/5x5"
}
layer {
  name: "inception_3b/pool"
  type: "Pooling"
  bottom: "inception_3a/output"
  top: "inception_3b/pool"
  pooling_param {
    pool: MAX
    kernel_size: 3
    stride: 1
    pad: 1
  }
}
layer {
  name: "inception_3b/pool_proj"
  type: "Convolution"
  bottom: "inception_3b/pool"
  top: "inception_3b/pool_proj"
  param {
    lr_mult: 1
    decay_mult: 1
  }
  param {
    lr_mult: 2
    decay_mult: 0
  }
  convolution_param {
    num_output: 64
    kernel_size: 1
    weight_filler {
      type: "xavier"
      std: 0.1
    }
    bias_filler {
      type: "constant"
      value: 0.2
    }
  }
}
layer {
  name: "inception_3b/relu_pool_proj"
  type: "ReLU"
  bottom: "inception_3b/pool_proj"
  top: "inception_3b/pool_proj"
}
layer {
  name: "inception_3b/output"
  type: "Concat"
  bottom: "inception_3b/1x1"
  bottom: "inception_3b/3x3"
  bottom: "inception_3b/5x5"
  bottom: "inception_3b/pool_proj"
  top: "inception_3b/output"
}
layer {
  name: "pool3/3x3_s2"
  type: "Pooling"
  bottom: "inception_3b/output"
  top: "pool3/3x3_s2"
  pooling_param {
    pool: MAX
    kernel_size: 3
    stride: 2
  }
}
layer {
  name: "inception_4a/1x1"
  type: "Convolution"
  bottom: "pool3/3x3_s2"
  top: "inception_4a/1x1"
  param {
    lr_mult: 1
    decay_mult: 1
  }
  param {
    lr_mult: 2
    decay_mult: 0
  }
  convolution_param {
    num_output: 192
    kernel_size: 1
    weight_filler {
      type: "xavier"
      std: 0.03
    }
    bias_filler {
      type: "constant"
      value: 0.2
    }
  }
}
layer {
  name: "inception_4a/relu_1x1"
  type: "ReLU"
  bottom: "inception_4a/1x1"
  top: "inception_4a/1x1"
}
layer {
  name: "inception_4a/3x3_reduce"
  type: "Convolution"
  bottom: "pool3/3x3_s2"
  top: "inception_4a/3x3_reduce"
  param {
    lr_mult: 1
    decay_mult: 1
  }
  param {
    lr_mult: 2
    decay_mult: 0
  }
  convolution_param {
    num_output: 96
    kernel_size: 1
    weight_filler {
      type: "xavier"
      std: 0.09
    }
    bias_filler {
      type: "constant"
      value: 0.2
    }
  }
}
layer {
  name: "inception_4a/relu_3x3_reduce"
  type: "ReLU"
  bottom: "inception_4a/3x3_reduce"
  top: "inception_4a/3x3_reduce"
}
layer {
  name: "inception_4a/3x3"
  type: "Convolution"
  bottom: "inception_4a/3x3_reduce"
  top: "inception_4a/3x3"
  param {
    lr_mult: 1
    decay_mult: 1
  }
  param {
    lr_mult: 2
    decay_mult: 0
  }
  convolution_param {
    num_output: 208
    pad: 1
    kernel_size: 3
    weight_filler {
      type: "xavier"
      std: 0.03
    }
    bias_filler {
      type: "constant"
      value: 0.2
    }
  }
}
layer {
  name: "inception_4a/relu_3x3"
  type: "ReLU"
  bottom: "inception_4a/3x3"
  top: "inception_4a/3x3"
}
layer {
  name: "inception_4a/5x5_reduce"
  type: "Convolution"
  bottom: "pool3/3x3_s2"
  top: "inception_4a/5x5_reduce"
  param {
    lr_mult: 1
    decay_mult: 1
  }
  param {
    lr_mult: 2
    decay_mult: 0
  }
  convolution_param {
    num_output: 16
    kernel_size: 1
    weight_filler {
      type: "xavier"
      std: 0.2
    }
    bias_filler {
      type: "constant"
      value: 0.2
    }
  }
}
layer {
  name: "inception_4a/relu_5x5_reduce"
  type: "ReLU"
  bottom: "inception_4a/5x5_reduce"
  top: "inception_4a/5x5_reduce"
}
layer {
  name: "inception_4a/5x5"
  type: "Convolution"
  bottom: "inception_4a/5x5_reduce"
  top: "inception_4a/5x5"
  param {
    lr_mult: 1
    decay_mult: 1
  }
  param {
    lr_mult: 2
    decay_mult: 0
  }
  convolution_param {
    num_output: 48
    pad: 2
    kernel_size: 5
    weight_filler {
      type: "xavier"
      std: 0.03
    }
    bias_filler {
      type: "constant"
      value: 0.2
    }
  }
}
layer {
  name: "inception_4a/relu_5x5"
  type: "ReLU"
  bottom: "inception_4a/5x5"
  top: "inception_4a/5x5"
}
layer {
  name: "inception_4a/pool"
  type: "Pooling"
  bottom: "pool3/3x3_s2"
  top: "inception_4a/pool"
  pooling_param {
    pool: MAX
    kernel_size: 3
    stride: 1
    pad: 1
  }
}
layer {
  name: "inception_4a/pool_proj"
  type: "Convolution"
  bottom: "inception_4a/pool"
  top: "inception_4a/pool_proj"
  param {
    lr_mult: 1
    decay_mult: 1
  }
  param {
    lr_mult: 2
    decay_mult: 0
  }
  convolution_param {
    num_output: 64
    kernel_size: 1
    weight_filler {
      type: "xavier"
      std: 0.1
    }
    bias_filler {
      type: "constant"
      value: 0.2
    }
  }
}
layer {
  name: "inception_4a/relu_pool_proj"
  type: "ReLU"
  bottom: "inception_4a/pool_proj"
  top: "inception_4a/pool_proj"
}
layer {
  name: "inception_4a/output"
  type: "Concat"
  bottom: "inception_4a/1x1"
  bottom: "inception_4a/3x3"
  bottom: "inception_4a/5x5"
  bottom: "inception_4a/pool_proj"
  top: "inception_4a/output"
}
layer {
  name: "loss1/ave_pool"
  type: "Pooling"
  bottom: "inception_4a/output"
  top: "loss1/ave_pool"
  pooling_param {
    pool: AVE
    kernel_size: 5
    stride: 3
  }
}
layer {
  name: "loss1/conv"
  type: "Convolution"
  bottom: "loss1/ave_pool"
  top: "loss1/conv"
  param {
    lr_mult: 1
    decay_mult: 1
  }
  param {
    lr_mult: 2
    decay_mult: 0
  }
  convolution_param {
    num_output: 128
    kernel_size: 1
    weight_filler {
      type: "xavier"
      std: 0.08
    }
    bias_filler {
      type: "constant"
      value: 0.2
    }
  }
}
layer {
  name: "loss1/relu_conv"
  type: "ReLU"
  bottom: "loss1/conv"
  top: "loss1/conv"
}
layer {
  name: "loss1/fc"
  type: "InnerProduct"
  bottom: "loss1/conv"
  top: "loss1/fc"
  param {
    lr_mult: 1
    decay_mult: 1
  }
  param {
    lr_mult: 2
    decay_mult: 0
  }
  inner_product_param {
    num_output: 1024
    weight_filler {
      type: "xavier"
      std: 0.02
    }
    bias_filler {
      type: "constant"
      value: 0.2
    }
  }
}
layer {
  name: "loss1/relu_fc"
  type: "ReLU"
  bottom: "loss1/fc"
  top: "loss1/fc"
}
layer {
  name: "loss1/drop_fc"
  type: "Dropout"
  bottom: "loss1/fc"
  top: "loss1/fc"
  dropout_param {
    dropout_ratio: 0.7
  }
}
layer {
  name: "loss1/classifier_plantvillage"
  type: "InnerProduct"
  bottom: "loss1/fc"
  top: "loss1/classifier_plantvillage"
  param {
    lr_mult: 1
    decay_mult: 1
  }
  param {
    lr_mult: 2
    decay_mult: 0
  }
  inner_product_param {
    num_output: 38
    weight_filler {
      type: "xavier"
      std: 0.0009765625
    }
    bias_filler {
      type: "constant"
      value: 0
    }
  }
}
layer {
  name: "inception_4b/1x1"
  type: "Convolution"
  bottom: "inception_4a/output"
  top: "inception_4b/1x1"
  param {
    lr_mult: 1
    decay_mult: 1
  }
  param {
    lr_mult: 2
    decay_mult: 0
  }
  convolution_param {
    num_output: 160
    kernel_size: 1
    weight_filler {
      type: "xavier"
      std: 0.03
    }
    bias_filler {
      type: "constant"
      value: 0.2
    }
  }
}
layer {
  name: "inception_4b/relu_1x1"
  type: "ReLU"
  bottom: "inception_4b/1x1"
  top: "inception_4b/1x1"
}
layer {
  name: "inception_4b/3x3_reduce"
  type: "Convolution"
  bottom: "inception_4a/output"
  top: "inception_4b/3x3_reduce"
  param {
    lr_mult: 1
    decay_mult: 1
  }
  param {
    lr_mult: 2
    decay_mult: 0
  }
  convolution_param {
    num_output: 112
    kernel_size: 1
    weight_filler {
      type: "xavier"
      std: 0.09
    }
    bias_filler {
      type: "constant"
      value: 0.2
    }
  }
}
layer {
  name: "inception_4b/relu_3x3_reduce"
  type: "ReLU"
  bottom: "inception_4b/3x3_reduce"
  top: "inception_4b/3x3_reduce"
}
layer {
  name: "inception_4b/3x3"
  type: "Convolution"
  bottom: "inception_4b/3x3_reduce"
  top: "inception_4b/3x3"
  param {
    lr_mult: 1
    decay_mult: 1
  }
  param {
    lr_mult: 2
    decay_mult: 0
  }
  convolution_param {
    num_output: 224
    pad: 1
    kernel_size: 3
    weight_filler {
      type: "xavier"
      std: 0.03
    }
    bias_filler {
      type: "constant"
      value: 0.2
    }
  }
}
layer {
  name: "inception_4b/relu_3x3"
  type: "ReLU"
  bottom: "inception_4b/3x3"
  top: "inception_4b/3x3"
}
layer {
  name: "inception_4b/5x5_reduce"
  type: "Convolution"
  bottom: "inception_4a/output"
  top: "inception_4b/5x5_reduce"
  param {
    lr_mult: 1
    decay_mult: 1
  }
  param {
    lr_mult: 2
    decay_mult: 0
  }
  convolution_param {
    num_output: 24
    kernel_size: 1
    weight_filler {
      type: "xavier"
      std: 0.2
    }
    bias_filler {
      type: "constant"
      value: 0.2
    }
  }
}
layer {
  name: "inception_4b/relu_5x5_reduce"
  type: "ReLU"
  bottom: "inception_4b/5x5_reduce"
  top: "inception_4b/5x5_reduce"
}
layer {
  name: "inception_4b/5x5"
  type: "Convolution"
  bottom: "inception_4b/5x5_reduce"
  top: "inception_4b/5x5"
  param {
    lr_mult: 1
    decay_mult: 1
  }
  param {
    lr_mult: 2
    decay_mult: 0
  }
  convolution_param {
    num_output: 64
    pad: 2
    kernel_size: 5
    weight_filler {
      type: "xavier"
      std: 0.03
    }
    bias_filler {
      type: "constant"
      value: 0.2
    }
  }
}
layer {
  name: "inception_4b/relu_5x5"
  type: "ReLU"
  bottom: "inception_4b/5x5"
  top: "inception_4b/5x5"
}
layer {
  name: "inception_4b/pool"
  type: "Pooling"
  bottom: "inception_4a/output"
  top: "inception_4b/pool"
  pooling_param {
    pool: MAX
    kernel_size: 3
    stride: 1
    pad: 1
  }
}
layer {
  name: "inception_4b/pool_proj"
  type: "Convolution"
  bottom: "inception_4b/pool"
  top: "inception_4b/pool_proj"
  param {
    lr_mult: 1
    decay_mult: 1
  }
  param {
    lr_mult: 2
    decay_mult: 0
  }
  convolution_param {
    num_output: 64
    kernel_size: 1
    weight_filler {
      type: "xavier"
      std: 0.1
    }
    bias_filler {
      type: "constant"
      value: 0.2
    }
  }
}
layer {
  name: "inception_4b/relu_pool_proj"
  type: "ReLU"
  bottom: "inception_4b/pool_proj"
  top: "inception_4b/pool_proj"
}
layer {
  name: "inception_4b/output"
  type: "Concat"
  bottom: "inception_4b/1x1"
  bottom: "inception_4b/3x3"
  bottom: "inception_4b/5x5"
  bottom: "inception_4b/pool_proj"
  top: "inception_4b/output"
}
layer {
  name: "inception_4c/1x1"
  type: "Convolution"
  bottom: "inception_4b/output"
  top: "inception_4c/1x1"
  param {
    lr_mult: 1
    decay_mult: 1
  }
  param {
    lr_mult: 2
    decay_mult: 0
  }
  convolution_param {
    num_output: 128
    kernel_size: 1
    weight_filler {
      type: "xavier"
      std: 0.03
    }
    bias_filler {
      type: "constant"
      value: 0.2
    }
  }
}
layer {
  name: "inception_4c/relu_1x1"
  type: "ReLU"
  bottom: "inception_4c/1x1"
  top: "inception_4c/1x1"
}
layer {
  name: "inception_4c/3x3_reduce"
  type: "Convolution"
  bottom: "inception_4b/output"
  top: "inception_4c/3x3_reduce"
  param {
    lr_mult: 1
    decay_mult: 1
  }
  param {
    lr_mult: 2
    decay_mult: 0
  }
  convolution_param {
    num_output: 128
    kernel_size: 1
    weight_filler {
      type: "xavier"
      std: 0.09
    }
    bias_filler {
      type: "constant"
      value: 0.2
    }
  }
}
layer {
  name: "inception_4c/relu_3x3_reduce"
  type: "ReLU"
  bottom: "inception_4c/3x3_reduce"
  top: "inception_4c/3x3_reduce"
}
layer {
  name: "inception_4c/3x3"
  type: "Convolution"
  bottom: "inception_4c/3x3_reduce"
  top: "inception_4c/3x3"
  param {
    lr_mult: 1
    decay_mult: 1
  }
  param {
    lr_mult: 2
    decay_mult: 0
  }
  convolution_param {
    num_output: 256
    pad: 1
    kernel_size: 3
    weight_filler {
      type: "xavier"
      std: 0.03
    }
    bias_filler {
      type: "constant"
      value: 0.2
    }
  }
}
layer {
  name: "inception_4c/relu_3x3"
  type: "ReLU"
  bottom: "inception_4c/3x3"
  top: "inception_4c/3x3"
}
layer {
  name: "inception_4c/5x5_reduce"
  type: "Convolution"
  bottom: "inception_4b/output"
  top: "inception_4c/5x5_reduce"
  param {
    lr_mult: 1
    decay_mult: 1
  }
  param {
    lr_mult: 2
    decay_mult: 0
  }
  convolution_param {
    num_output: 24
    kernel_size: 1
    weight_filler {
      type: "xavier"
      std: 0.2
    }
    bias_filler {
      type: "constant"
      value: 0.2
    }
  }
}
layer {
  name: "inception_4c/relu_5x5_reduce"
  type: "ReLU"
  bottom: "inception_4c/5x5_reduce"
  top: "inception_4c/5x5_reduce"
}
layer {
  name: "inception_4c/5x5"
  type: "Convolution"
  bottom: "inception_4c/5x5_reduce"
  top: "inception_4c/5x5"
  param {
    lr_mult: 1
    decay_mult: 1
  }
  param {
    lr_mult: 2
    decay_mult: 0
  }
  convolution_param {
    num_output: 64
    pad: 2
    kernel_size: 5
    weight_filler {
      type: "xavier"
      std: 0.03
    }
    bias_filler {
      type: "constant"
      value: 0.2
    }
  }
}
layer {
  name: "inception_4c/relu_5x5"
  type: "ReLU"
  bottom: "inception_4c/5x5"
  top: "inception_4c/5x5"
}
layer {
  name: "inception_4c/pool"
  type: "Pooling"
  bottom: "inception_4b/output"
  top: "inception_4c/pool"
  pooling_param {
    pool: MAX
    kernel_size: 3
    stride: 1
    pad: 1
  }
}
layer {
  name: "inception_4c/pool_proj"
  type: "Convolution"
  bottom: "inception_4c/pool"
  top: "inception_4c/pool_proj"
  param {
    lr_mult: 1
    decay_mult: 1
  }
  param {
    lr_mult: 2
    decay_mult: 0
  }
  convolution_param {
    num_output: 64
    kernel_size: 1
    weight_filler {
      type: "xavier"
      std: 0.1
    }
    bias_filler {
      type: "constant"
      value: 0.2
    }
  }
}
layer {
  name: "inception_4c/relu_pool_proj"
  type: "ReLU"
  bottom: "inception_4c/pool_proj"
  top: "inception_4c/pool_proj"
}
layer {
  name: "inception_4c/output"
  type: "Concat"
  bottom: "inception_4c/1x1"
  bottom: "inception_4c/3x3"
  bottom: "inception_4c/5x5"
  bottom: "inception_4c/pool_proj"
  top: "inception_4c/output"
}
layer {
  name: "inception_4d/1x1"
  type: "Convolution"
  bottom: "inception_4c/output"
  top: "inception_4d/1x1"
  param {
    lr_mult: 1
    decay_mult: 1
  }
  param {
    lr_mult: 2
    decay_mult: 0
  }
  convolution_param {
    num_output: 112
    kernel_size: 1
    weight_filler {
      type: "xavier"
      std: 0.03
    }
    bias_filler {
      type: "constant"
      value: 0.2
    }
  }
}
layer {
  name: "inception_4d/relu_1x1"
  type: "ReLU"
  bottom: "inception_4d/1x1"
  top: "inception_4d/1x1"
}
layer {
  name: "inception_4d/3x3_reduce"
  type: "Convolution"
  bottom: "inception_4c/output"
  top: "inception_4d/3x3_reduce"
  param {
    lr_mult: 1
    decay_mult: 1
  }
  param {
    lr_mult: 2
    decay_mult: 0
  }
  convolution_param {
    num_output: 144
    kernel_size: 1
    weight_filler {
      type: "xavier"
      std: 0.09
    }
    bias_filler {
      type: "constant"
      value: 0.2
    }
  }
}
layer {
  name: "inception_4d/relu_3x3_reduce"
  type: "ReLU"
  bottom: "inception_4d/3x3_reduce"
  top: "inception_4d/3x3_reduce"
}
layer {
  name: "inception_4d/3x3"
  type: "Convolution"
  bottom: "inception_4d/3x3_reduce"
  top: "inception_4d/3x3"
  param {
    lr_mult: 1
    decay_mult: 1
  }
  param {
    lr_mult: 2
    decay_mult: 0
  }
  convolution_param {
    num_output: 288
    pad: 1
    kernel_size: 3
    weight_filler {
      type: "xavier"
      std: 0.03
    }
    bias_filler {
      type: "constant"
      value: 0.2
    }
  }
}
layer {
  name: "inception_4d/relu_3x3"
  type: "ReLU"
  bottom: "inception_4d/3x3"
  top: "inception_4d/3x3"
}
layer {
  name: "inception_4d/5x5_reduce"
  type: "Convolution"
  bottom: "inception_4c/output"
  top: "inception_4d/5x5_reduce"
  param {
    lr_mult: 1
    decay_mult: 1
  }
  param {
    lr_mult: 2
    decay_mult: 0
  }
  convolution_param {
    num_output: 32
    kernel_size: 1
    weight_filler {
      type: "xavier"
      std: 0.2
    }
    bias_filler {
      type: "constant"
      value: 0.2
    }
  }
}
layer {
  name: "inception_4d/relu_5x5_reduce"
  type: "ReLU"
  bottom: "inception_4d/5x5_reduce"
  top: "inception_4d/5x5_reduce"
}
layer {
  name: "inception_4d/5x5"
  type: "Convolution"
  bottom: "inception_4d/5x5_reduce"
  top: "inception_4d/5x5"
  param {
    lr_mult: 1
    decay_mult: 1
  }
  param {
    lr_mult: 2
    decay_mult: 0
  }
  convolution_param {
    num_output: 64
    pad: 2
    kernel_size: 5
    weight_filler {
      type: "xavier"
      std: 0.03
    }
    bias_filler {
      type: "constant"
      value: 0.2
    }
  }
}
layer {
  name: "inception_4d/relu_5x5"
  type: "ReLU"
  bottom: "inception_4d/5x5"
  top: "inception_4d/5x5"
}
layer {
  name: "inception_4d/pool"
  type: "Pooling"
  bottom: "inception_4c/output"
  top: "inception_4d/pool"
  pooling_param {
    pool: MAX
    kernel_size: 3
    stride: 1
    pad: 1
  }
}
layer {
  name: "inception_4d/pool_proj"
  type: "Convolution"
  bottom: "inception_4d/pool"
  top: "inception_4d/pool_proj"
  param {
    lr_mult: 1
    decay_mult: 1
  }
  param {
    lr_mult: 2
    decay_mult: 0
  }
  convolution_param {
    num_output: 64
    kernel_size: 1
    weight_filler {
      type: "xavier"
      std: 0.1
    }
    bias_filler {
      type: "constant"
      value: 0.2
    }
  }
}
layer {
  name: "inception_4d/relu_pool_proj"
  type: "ReLU"
  bottom: "inception_4d/pool_proj"
  top: "inception_4d/pool_proj"
}
layer {
  name: "inception_4d/output"
  type: "Concat"
  bottom: "inception_4d/1x1"
  bottom: "inception_4d/3x3"
  bottom: "inception_4d/5x5"
  bottom: "inception_4d/pool_proj"
  top: "inception_4d/output"
}
layer {
  name: "loss2/ave_pool"
  type: "Pooling"
  bottom: "inception_4d/output"
  top: "loss2/ave_pool"
  pooling_param {
    pool: AVE
    kernel_size: 5
    stride: 3
  }
}
layer {
  name: "loss2/conv"
  type: "Convolution"
  bottom: "loss2/ave_pool"
  top: "loss2/conv"
  param {
    lr_mult: 1
    decay_mult: 1
  }
  param {
    lr_mult: 2
    decay_mult: 0
  }
  convolution_param {
    num_output: 128
    kernel_size: 1
    weight_filler {
      type: "xavier"
      std: 0.08
    }
    bias_filler {
      type: "constant"
      value: 0.2
    }
  }
}
layer {
  name: "loss2/relu_conv"
  type: "ReLU"
  bottom: "loss2/conv"
  top: "loss2/conv"
}
layer {
  name: "loss2/fc"
  type: "InnerProduct"
  bottom: "loss2/conv"
  top: "loss2/fc"
  param {
    lr_mult: 1
    decay_mult: 1
  }
  param {
    lr_mult: 2
    decay_mult: 0
  }
  inner_product_param {
    num_output: 1024
    weight_filler {
      type: "xavier"
      std: 0.02
    }
    bias_filler {
      type: "constant"
      value: 0.2
    }
  }
}
layer {
  name: "loss2/relu_fc"
  type: "ReLU"
  bottom: "loss2/fc"
  top: "loss2/fc"
}
layer {
  name: "loss2/drop_fc"
  type: "Dropout"
  bottom: "loss2/fc"
  top: "loss2/fc"
  dropout_param {
    dropout_ratio: 0.7
  }
}
layer {
  name: "loss2/classifier_plantvillage"
  type: "InnerProduct"
  bottom: "loss2/fc"
  top: "loss2/classifier_plantvillage"
  param {
    lr_mult: 1
    decay_mult: 1
  }
  param {
    lr_mult: 2
    decay_mult: 0
  }
  inner_product_param {
    num_output: 38
    weight_filler {
      type: "xavier"
      std: 0.0009765625
    }
    bias_filler {
      type: "constant"
      value: 0
    }
  }
}
layer {
  name: "inception_4e/1x1"
  type: "Convolution"
  bottom: "inception_4d/output"
  top: "inception_4e/1x1"
  param {
    lr_mult: 1
    decay_mult: 1
  }
  param {
    lr_mult: 2
    decay_mult: 0
  }
  convolution_param {
    num_output: 256
    kernel_size: 1
    weight_filler {
      type: "xavier"
      std: 0.03
    }
    bias_filler {
      type: "constant"
      value: 0.2
    }
  }
}
layer {
  name: "inception_4e/relu_1x1"
  type: "ReLU"
  bottom: "inception_4e/1x1"
  top: "inception_4e/1x1"
}
layer {
  name: "inception_4e/3x3_reduce"
  type: "Convolution"
  bottom: "inception_4d/output"
  top: "inception_4e/3x3_reduce"
  param {
    lr_mult: 1
    decay_mult: 1
  }
  param {
    lr_mult: 2
    decay_mult: 0
  }
  convolution_param {
    num_output: 160
    kernel_size: 1
    weight_filler {
      type: "xavier"
      std: 0.09
    }
    bias_filler {
      type: "constant"
      value: 0.2
    }
  }
}
layer {
  name: "inception_4e/relu_3x3_reduce"
  type: "ReLU"
  bottom: "inception_4e/3x3_reduce"
  top: "inception_4e/3x3_reduce"
}
layer {
  name: "inception_4e/3x3"
  type: "Convolution"
  bottom: "inception_4e/3x3_reduce"
  top: "inception_4e/3x3"
  param {
    lr_mult: 1
    decay_mult: 1
  }
  param {
    lr_mult: 2
    decay_mult: 0
  }
  convolution_param {
    num_output: 320
    pad: 1
    kernel_size: 3
    weight_filler {
      type: "xavier"
      std: 0.03
    }
    bias_filler {
      type: "constant"
      value: 0.2
    }
  }
}
layer {
  name: "inception_4e/relu_3x3"
  type: "ReLU"
  bottom: "inception_4e/3x3"
  top: "inception_4e/3x3"
}
layer {
  name: "inception_4e/5x5_reduce"
  type: "Convolution"
  bottom: "inception_4d/output"
  top: "inception_4e/5x5_reduce"
  param {
    lr_mult: 1
    decay_mult: 1
  }
  param {
    lr_mult: 2
    decay_mult: 0
  }
  convolution_param {
    num_output: 32
    kernel_size: 1
    weight_filler {
      type: "xavier"
      std: 0.2
    }
    bias_filler {
      type: "constant"
      value: 0.2
    }
  }
}
layer {
  name: "inception_4e/relu_5x5_reduce"
  type: "ReLU"
  bottom: "inception_4e/5x5_reduce"
  top: "inception_4e/5x5_reduce"
}
layer {
  name: "inception_4e/5x5"
  type: "Convolution"
  bottom: "inception_4e/5x5_reduce"
  top: "inception_4e/
I0403 21:57:18.752074 24826 layer_factory.hpp:77] Creating layer data
I0403 21:57:18.752667 24826 net.cpp:91] Creating Layer data
I0403 21:57:18.752699 24826 net.cpp:399] data -> data
I0403 21:57:18.752753 24826 net.cpp:399] data -> label
I0403 21:57:18.752791 24826 data_transformer.cpp:25] Loading mean file from: /home/mohanty/data/final_dataset/lmdb/segmented-80-20/mean.binaryproto
I0403 21:57:18.753948 24829 db_lmdb.cpp:38] Opened lmdb /home/mohanty/data/final_dataset/lmdb/segmented-80-20/test_db
I0403 21:57:18.765686 24826 data_layer.cpp:41] output data size: 24,3,224,224
I0403 21:57:18.793124 24826 net.cpp:141] Setting up data
I0403 21:57:18.793205 24826 net.cpp:148] Top shape: 24 3 224 224 (3612672)
I0403 21:57:18.793233 24826 net.cpp:148] Top shape: 24 (24)
I0403 21:57:18.793251 24826 net.cpp:156] Memory required for data: 14450784
I0403 21:57:18.793280 24826 layer_factory.hpp:77] Creating layer label_data_1_split
I0403 21:57:18.793309 24826 net.cpp:91] Creating Layer label_data_1_split
I0403 21:57:18.793328 24826 net.cpp:425] label_data_1_split <- label
I0403 21:57:18.793361 24826 net.cpp:399] label_data_1_split -> label_data_1_split_0
I0403 21:57:18.793390 24826 net.cpp:399] label_data_1_split -> label_data_1_split_1
I0403 21:57:18.793413 24826 net.cpp:399] label_data_1_split -> label_data_1_split_2
I0403 21:57:18.793437 24826 net.cpp:399] label_data_1_split -> label_data_1_split_3
I0403 21:57:18.793457 24826 net.cpp:399] label_data_1_split -> label_data_1_split_4
I0403 21:57:18.793479 24826 net.cpp:399] label_data_1_split -> label_data_1_split_5
I0403 21:57:18.793500 24826 net.cpp:399] label_data_1_split -> label_data_1_split_6
I0403 21:57:18.793522 24826 net.cpp:399] label_data_1_split -> label_data_1_split_7
I0403 21:57:18.793542 24826 net.cpp:399] label_data_1_split -> label_data_1_split_8
I0403 21:57:18.793563 24826 net.cpp:399] label_data_1_split -> label_data_1_split_9
I0403 21:57:18.793685 24826 net.cpp:141] Setting up label_data_1_split
I0403 21:57:18.793709 24826 net.cpp:148] Top shape: 24 (24)
I0403 21:57:18.793727 24826 net.cpp:148] Top shape: 24 (24)
I0403 21:57:18.793743 24826 net.cpp:148] Top shape: 24 (24)
I0403 21:57:18.793759 24826 net.cpp:148] Top shape: 24 (24)
I0403 21:57:18.793776 24826 net.cpp:148] Top shape: 24 (24)
I0403 21:57:18.793792 24826 net.cpp:148] Top shape: 24 (24)
I0403 21:57:18.793809 24826 net.cpp:148] Top shape: 24 (24)
I0403 21:57:18.793826 24826 net.cpp:148] Top shape: 24 (24)
I0403 21:57:18.793843 24826 net.cpp:148] Top shape: 24 (24)
I0403 21:57:18.793859 24826 net.cpp:148] Top shape: 24 (24)
I0403 21:57:18.793912 24826 net.cpp:156] Memory required for data: 14451744
I0403 21:57:18.793931 24826 layer_factory.hpp:77] Creating layer conv1/7x7_s2
I0403 21:57:18.793973 24826 net.cpp:91] Creating Layer conv1/7x7_s2
I0403 21:57:18.793993 24826 net.cpp:425] conv1/7x7_s2 <- data
I0403 21:57:18.794013 24826 net.cpp:399] conv1/7x7_s2 -> conv1/7x7_s2
I0403 21:57:18.936609 24826 net.cpp:141] Setting up conv1/7x7_s2
I0403 21:57:18.936669 24826 net.cpp:148] Top shape: 24 64 112 112 (19267584)
I0403 21:57:18.936688 24826 net.cpp:156] Memory required for data: 91522080
I0403 21:57:18.936720 24826 layer_factory.hpp:77] Creating layer conv1/relu_7x7
I0403 21:57:18.936748 24826 net.cpp:91] Creating Layer conv1/relu_7x7
I0403 21:57:18.936769 24826 net.cpp:425] conv1/relu_7x7 <- conv1/7x7_s2
I0403 21:57:18.936789 24826 net.cpp:386] conv1/relu_7x7 -> conv1/7x7_s2 (in-place)
I0403 21:57:18.937052 24826 net.cpp:141] Setting up conv1/relu_7x7
I0403 21:57:18.937079 24826 net.cpp:148] Top shape: 24 64 112 112 (19267584)
I0403 21:57:18.937095 24826 net.cpp:156] Memory required for data: 168592416
I0403 21:57:18.937110 24826 layer_factory.hpp:77] Creating layer pool1/3x3_s2
I0403 21:57:18.937139 24826 net.cpp:91] Creating Layer pool1/3x3_s2
I0403 21:57:18.937157 24826 net.cpp:425] pool1/3x3_s2 <- conv1/7x7_s2
I0403 21:57:18.937176 24826 net.cpp:399] pool1/3x3_s2 -> pool1/3x3_s2
I0403 21:57:18.937258 24826 net.cpp:141] Setting up pool1/3x3_s2
I0403 21:57:18.937284 24826 net.cpp:148] Top shape: 24 64 56 56 (4816896)
I0403 21:57:18.937299 24826 net.cpp:156] Memory required for data: 187860000
I0403 21:57:18.937314 24826 layer_factory.hpp:77] Creating layer pool1/norm1
I0403 21:57:18.937343 24826 net.cpp:91] Creating Layer pool1/norm1
I0403 21:57:18.937363 24826 net.cpp:425] pool1/norm1 <- pool1/3x3_s2
I0403 21:57:18.937381 24826 net.cpp:399] pool1/norm1 -> pool1/norm1
I0403 21:57:18.937681 24826 net.cpp:141] Setting up pool1/norm1
I0403 21:57:18.937710 24826 net.cpp:148] Top shape: 24 64 56 56 (4816896)
I0403 21:57:18.937726 24826 net.cpp:156] Memory required for data: 207127584
I0403 21:57:18.937741 24826 layer_factory.hpp:77] Creating layer conv2/3x3_reduce
I0403 21:57:18.937768 24826 net.cpp:91] Creating Layer conv2/3x3_reduce
I0403 21:57:18.937786 24826 net.cpp:425] conv2/3x3_reduce <- pool1/norm1
I0403 21:57:18.937808 24826 net.cpp:399] conv2/3x3_reduce -> conv2/3x3_reduce
I0403 21:57:18.939224 24826 net.cpp:141] Setting up conv2/3x3_reduce
I0403 21:57:18.939257 24826 net.cpp:148] Top shape: 24 64 56 56 (4816896)
I0403 21:57:18.939272 24826 net.cpp:156] Memory required for data: 226395168
I0403 21:57:18.939294 24826 layer_factory.hpp:77] Creating layer conv2/relu_3x3_reduce
I0403 21:57:18.939316 24826 net.cpp:91] Creating Layer conv2/relu_3x3_reduce
I0403 21:57:18.939332 24826 net.cpp:425] conv2/relu_3x3_reduce <- conv2/3x3_reduce
I0403 21:57:18.939352 24826 net.cpp:386] conv2/relu_3x3_reduce -> conv2/3x3_reduce (in-place)
I0403 21:57:18.939621 24826 net.cpp:141] Setting up conv2/relu_3x3_reduce
I0403 21:57:18.939648 24826 net.cpp:148] Top shape: 24 64 56 56 (4816896)
I0403 21:57:18.939664 24826 net.cpp:156] Memory required for data: 245662752
I0403 21:57:18.939680 24826 layer_factory.hpp:77] Creating layer conv2/3x3
I0403 21:57:18.939703 24826 net.cpp:91] Creating Layer conv2/3x3
I0403 21:57:18.939723 24826 net.cpp:425] conv2/3x3 <- conv2/3x3_reduce
I0403 21:57:18.939745 24826 net.cpp:399] conv2/3x3 -> conv2/3x3
I0403 21:57:18.942046 24826 net.cpp:141] Setting up conv2/3x3
I0403 21:57:18.942076 24826 net.cpp:148] Top shape: 24 192 56 56 (14450688)
I0403 21:57:18.942092 24826 net.cpp:156] Memory required for data: 303465504
I0403 21:57:18.942114 24826 layer_factory.hpp:77] Creating layer conv2/relu_3x3
I0403 21:57:18.942133 24826 net.cpp:91] Creating Layer conv2/relu_3x3
I0403 21:57:18.942149 24826 net.cpp:425] conv2/relu_3x3 <- conv2/3x3
I0403 21:57:18.942169 24826 net.cpp:386] conv2/relu_3x3 -> conv2/3x3 (in-place)
I0403 21:57:18.942347 24826 net.cpp:141] Setting up conv2/relu_3x3
I0403 21:57:18.942374 24826 net.cpp:148] Top shape: 24 192 56 56 (14450688)
I0403 21:57:18.942422 24826 net.cpp:156] Memory required for data: 361268256
I0403 21:57:18.942438 24826 layer_factory.hpp:77] Creating layer conv2/norm2
I0403 21:57:18.942457 24826 net.cpp:91] Creating Layer conv2/norm2
I0403 21:57:18.942473 24826 net.cpp:425] conv2/norm2 <- conv2/3x3
I0403 21:57:18.942493 24826 net.cpp:399] conv2/norm2 -> conv2/norm2
I0403 21:57:18.942797 24826 net.cpp:141] Setting up conv2/norm2
I0403 21:57:18.942826 24826 net.cpp:148] Top shape: 24 192 56 56 (14450688)
I0403 21:57:18.942842 24826 net.cpp:156] Memory required for data: 419071008
I0403 21:57:18.942858 24826 layer_factory.hpp:77] Creating layer pool2/3x3_s2
I0403 21:57:18.942876 24826 net.cpp:91] Creating Layer pool2/3x3_s2
I0403 21:57:18.942893 24826 net.cpp:425] pool2/3x3_s2 <- conv2/norm2
I0403 21:57:18.942915 24826 net.cpp:399] pool2/3x3_s2 -> pool2/3x3_s2
I0403 21:57:18.942970 24826 net.cpp:141] Setting up pool2/3x3_s2
I0403 21:57:18.942994 24826 net.cpp:148] Top shape: 24 192 28 28 (3612672)
I0403 21:57:18.943009 24826 net.cpp:156] Memory required for data: 433521696
I0403 21:57:18.943025 24826 layer_factory.hpp:77] Creating layer pool2/3x3_s2_pool2/3x3_s2_0_split
I0403 21:57:18.943047 24826 net.cpp:91] Creating Layer pool2/3x3_s2_pool2/3x3_s2_0_split
I0403 21:57:18.943063 24826 net.cpp:425] pool2/3x3_s2_pool2/3x3_s2_0_split <- pool2/3x3_s2
I0403 21:57:18.943081 24826 net.cpp:399] pool2/3x3_s2_pool2/3x3_s2_0_split -> pool2/3x3_s2_pool2/3x3_s2_0_split_0
I0403 21:57:18.943100 24826 net.cpp:399] pool2/3x3_s2_pool2/3x3_s2_0_split -> pool2/3x3_s2_pool2/3x3_s2_0_split_1
I0403 21:57:18.943125 24826 net.cpp:399] pool2/3x3_s2_pool2/3x3_s2_0_split -> pool2/3x3_s2_pool2/3x3_s2_0_split_2
I0403 21:57:18.943146 24826 net.cpp:399] pool2/3x3_s2_pool2/3x3_s2_0_split -> pool2/3x3_s2_pool2/3x3_s2_0_split_3
I0403 21:57:18.943215 24826 net.cpp:141] Setting up pool2/3x3_s2_pool2/3x3_s2_0_split
I0403 21:57:18.943244 24826 net.cpp:148] Top shape: 24 192 28 28 (3612672)
I0403 21:57:18.943262 24826 net.cpp:148] Top shape: 24 192 28 28 (3612672)
I0403 21:57:18.943279 24826 net.cpp:148] Top shape: 24 192 28 28 (3612672)
I0403 21:57:18.943295 24826 net.cpp:148] Top shape: 24 192 28 28 (3612672)
I0403 21:57:18.943308 24826 net.cpp:156] Memory required for data: 491324448
I0403 21:57:18.943325 24826 layer_factory.hpp:77] Creating layer inception_3a/1x1
I0403 21:57:18.943347 24826 net.cpp:91] Creating Layer inception_3a/1x1
I0403 21:57:18.943367 24826 net.cpp:425] inception_3a/1x1 <- pool2/3x3_s2_pool2/3x3_s2_0_split_0
I0403 21:57:18.943388 24826 net.cpp:399] inception_3a/1x1 -> inception_3a/1x1
I0403 21:57:18.944908 24826 net.cpp:141] Setting up inception_3a/1x1
I0403 21:57:18.944939 24826 net.cpp:148] Top shape: 24 64 28 28 (1204224)
I0403 21:57:18.944955 24826 net.cpp:156] Memory required for data: 496141344
I0403 21:57:18.944974 24826 layer_factory.hpp:77] Creating layer inception_3a/relu_1x1
I0403 21:57:18.944994 24826 net.cpp:91] Creating Layer inception_3a/relu_1x1
I0403 21:57:18.945010 24826 net.cpp:425] inception_3a/relu_1x1 <- inception_3a/1x1
I0403 21:57:18.945030 24826 net.cpp:386] inception_3a/relu_1x1 -> inception_3a/1x1 (in-place)
I0403 21:57:18.945200 24826 net.cpp:141] Setting up inception_3a/relu_1x1
I0403 21:57:18.945226 24826 net.cpp:148] Top shape: 24 64 28 28 (1204224)
I0403 21:57:18.945246 24826 net.cpp:156] Memory required for data: 500958240
I0403 21:57:18.945262 24826 layer_factory.hpp:77] Creating layer inception_3a/3x3_reduce
I0403 21:57:18.945286 24826 net.cpp:91] Creating Layer inception_3a/3x3_reduce
I0403 21:57:18.945304 24826 net.cpp:425] inception_3a/3x3_reduce <- pool2/3x3_s2_pool2/3x3_s2_0_split_1
I0403 21:57:18.945325 24826 net.cpp:399] inception_3a/3x3_reduce -> inception_3a/3x3_reduce
I0403 21:57:18.947013 24826 net.cpp:141] Setting up inception_3a/3x3_reduce
I0403 21:57:18.947042 24826 net.cpp:148] Top shape: 24 96 28 28 (1806336)
I0403 21:57:18.947059 24826 net.cpp:156] Memory required for data: 508183584
I0403 21:57:18.947080 24826 layer_factory.hpp:77] Creating layer inception_3a/relu_3x3_reduce
I0403 21:57:18.947118 24826 net.cpp:91] Creating Layer inception_3a/relu_3x3_reduce
I0403 21:57:18.947139 24826 net.cpp:425] inception_3a/relu_3x3_reduce <- inception_3a/3x3_reduce
I0403 21:57:18.947156 24826 net.cpp:386] inception_3a/relu_3x3_reduce -> inception_3a/3x3_reduce (in-place)
I0403 21:57:18.947337 24826 net.cpp:141] Setting up inception_3a/relu_3x3_reduce
I0403 21:57:18.947365 24826 net.cpp:148] Top shape: 24 96 28 28 (1806336)
I0403 21:57:18.947379 24826 net.cpp:156] Memory required for data: 515408928
I0403 21:57:18.947396 24826 layer_factory.hpp:77] Creating layer inception_3a/3x3
I0403 21:57:18.947420 24826 net.cpp:91] Creating Layer inception_3a/3x3
I0403 21:57:18.947438 24826 net.cpp:425] inception_3a/3x3 <- inception_3a/3x3_reduce
I0403 21:57:18.947460 24826 net.cpp:399] inception_3a/3x3 -> inception_3a/3x3
I0403 21:57:18.949095 24826 net.cpp:141] Setting up inception_3a/3x3
I0403 21:57:18.949123 24826 net.cpp:148] Top shape: 24 128 28 28 (2408448)
I0403 21:57:18.949139 24826 net.cpp:156] Memory required for data: 525042720
I0403 21:57:18.949159 24826 layer_factory.hpp:77] Creating layer inception_3a/relu_3x3
I0403 21:57:18.949179 24826 net.cpp:91] Creating Layer inception_3a/relu_3x3
I0403 21:57:18.949196 24826 net.cpp:425] inception_3a/relu_3x3 <- inception_3a/3x3
I0403 21:57:18.949214 24826 net.cpp:386] inception_3a/relu_3x3 -> inception_3a/3x3 (in-place)
I0403 21:57:18.949491 24826 net.cpp:141] Setting up inception_3a/relu_3x3
I0403 21:57:18.949517 24826 net.cpp:148] Top shape: 24 128 28 28 (2408448)
I0403 21:57:18.949533 24826 net.cpp:156] Memory required for data: 534676512
I0403 21:57:18.949548 24826 layer_factory.hpp:77] Creating layer inception_3a/5x5_reduce
I0403 21:57:18.949571 24826 net.cpp:91] Creating Layer inception_3a/5x5_reduce
I0403 21:57:18.949589 24826 net.cpp:425] inception_3a/5x5_reduce <- pool2/3x3_s2_pool2/3x3_s2_0_split_2
I0403 21:57:18.949610 24826 net.cpp:399] inception_3a/5x5_reduce -> inception_3a/5x5_reduce
I0403 21:57:18.950562 24826 net.cpp:141] Setting up inception_3a/5x5_reduce
I0403 21:57:18.950589 24826 net.cpp:148] Top shape: 24 16 28 28 (301056)
I0403 21:57:18.950606 24826 net.cpp:156] Memory required for data: 535880736
I0403 21:57:18.950626 24826 layer_factory.hpp:77] Creating layer inception_3a/relu_5x5_reduce
I0403 21:57:18.950646 24826 net.cpp:91] Creating Layer inception_3a/relu_5x5_reduce
I0403 21:57:18.950664 24826 net.cpp:425] inception_3a/relu_5x5_reduce <- inception_3a/5x5_reduce
I0403 21:57:18.950681 24826 net.cpp:386] inception_3a/relu_5x5_reduce -> inception_3a/5x5_reduce (in-place)
I0403 21:57:18.950979 24826 net.cpp:141] Setting up inception_3a/relu_5x5_reduce
I0403 21:57:18.951009 24826 net.cpp:148] Top shape: 24 16 28 28 (301056)
I0403 21:57:18.951025 24826 net.cpp:156] Memory required for data: 537084960
I0403 21:57:18.951040 24826 layer_factory.hpp:77] Creating layer inception_3a/5x5
I0403 21:57:18.951061 24826 net.cpp:91] Creating Layer inception_3a/5x5
I0403 21:57:18.951079 24826 net.cpp:425] inception_3a/5x5 <- inception_3a/5x5_reduce
I0403 21:57:18.951100 24826 net.cpp:399] inception_3a/5x5 -> inception_3a/5x5
I0403 21:57:18.952102 24826 net.cpp:141] Setting up inception_3a/5x5
I0403 21:57:18.952131 24826 net.cpp:148] Top shape: 24 32 28 28 (602112)
I0403 21:57:18.952145 24826 net.cpp:156] Memory required for data: 539493408
I0403 21:57:18.952163 24826 layer_factory.hpp:77] Creating layer inception_3a/relu_5x5
I0403 21:57:18.952184 24826 net.cpp:91] Creating Layer inception_3a/relu_5x5
I0403 21:57:18.952203 24826 net.cpp:425] inception_3a/relu_5x5 <- inception_3a/5x5
I0403 21:57:18.952222 24826 net.cpp:386] inception_3a/relu_5x5 -> inception_3a/5x5 (in-place)
I0403 21:57:18.952402 24826 net.cpp:141] Setting up inception_3a/relu_5x5
I0403 21:57:18.952427 24826 net.cpp:148] Top shape: 24 32 28 28 (602112)
I0403 21:57:18.952442 24826 net.cpp:156] Memory required for data: 541901856
I0403 21:57:18.952457 24826 layer_factory.hpp:77] Creating layer inception_3a/pool
I0403 21:57:18.952477 24826 net.cpp:91] Creating Layer inception_3a/pool
I0403 21:57:18.952509 24826 net.cpp:425] inception_3a/pool <- pool2/3x3_s2_pool2/3x3_s2_0_split_3
I0403 21:57:18.952529 24826 net.cpp:399] inception_3a/pool -> inception_3a/pool
I0403 21:57:18.952589 24826 net.cpp:141] Setting up inception_3a/pool
I0403 21:57:18.952612 24826 net.cpp:148] Top shape: 24 192 28 28 (3612672)
I0403 21:57:18.952628 24826 net.cpp:156] Memory required for data: 556352544
I0403 21:57:18.952643 24826 layer_factory.hpp:77] Creating layer inception_3a/pool_proj
I0403 21:57:18.952666 24826 net.cpp:91] Creating Layer inception_3a/pool_proj
I0403 21:57:18.952685 24826 net.cpp:425] inception_3a/pool_proj <- inception_3a/pool
I0403 21:57:18.952708 24826 net.cpp:399] inception_3a/pool_proj -> inception_3a/pool_proj
I0403 21:57:18.953672 24826 net.cpp:141] Setting up inception_3a/pool_proj
I0403 21:57:18.953702 24826 net.cpp:148] Top shape: 24 32 28 28 (602112)
I0403 21:57:18.953721 24826 net.cpp:156] Memory required for data: 558760992
I0403 21:57:18.953743 24826 layer_factory.hpp:77] Creating layer inception_3a/relu_pool_proj
I0403 21:57:18.953765 24826 net.cpp:91] Creating Layer inception_3a/relu_pool_proj
I0403 21:57:18.953783 24826 net.cpp:425] inception_3a/relu_pool_proj <- inception_3a/pool_proj
I0403 21:57:18.953801 24826 net.cpp:386] inception_3a/relu_pool_proj -> inception_3a/pool_proj (in-place)
I0403 21:57:18.954073 24826 net.cpp:141] Setting up inception_3a/relu_pool_proj
I0403 21:57:18.954100 24826 net.cpp:148] Top shape: 24 32 28 28 (602112)
I0403 21:57:18.954115 24826 net.cpp:156] Memory required for data: 561169440
I0403 21:57:18.954130 24826 layer_factory.hpp:77] Creating layer inception_3a/output
I0403 21:57:18.954149 24826 net.cpp:91] Creating Layer inception_3a/output
I0403 21:57:18.954167 24826 net.cpp:425] inception_3a/output <- inception_3a/1x1
I0403 21:57:18.954185 24826 net.cpp:425] inception_3a/output <- inception_3a/3x3
I0403 21:57:18.954203 24826 net.cpp:425] inception_3a/output <- inception_3a/5x5
I0403 21:57:18.954219 24826 net.cpp:425] inception_3a/output <- inception_3a/pool_proj
I0403 21:57:18.954242 24826 net.cpp:399] inception_3a/output -> inception_3a/output
I0403 21:57:18.954288 24826 net.cpp:141] Setting up inception_3a/output
I0403 21:57:18.954314 24826 net.cpp:148] Top shape: 24 256 28 28 (4816896)
I0403 21:57:18.954331 24826 net.cpp:156] Memory required for data: 580437024
I0403 21:57:18.954346 24826 layer_factory.hpp:77] Creating layer inception_3a/output_inception_3a/output_0_split
I0403 21:57:18.954365 24826 net.cpp:91] Creating Layer inception_3a/output_inception_3a/output_0_split
I0403 21:57:18.954380 24826 net.cpp:425] inception_3a/output_inception_3a/output_0_split <- inception_3a/output
I0403 21:57:18.954399 24826 net.cpp:399] inception_3a/output_inception_3a/output_0_split -> inception_3a/output_inception_3a/output_0_split_0
I0403 21:57:18.954421 24826 net.cpp:399] inception_3a/output_inception_3a/output_0_split -> inception_3a/output_inception_3a/output_0_split_1
I0403 21:57:18.954445 24826 net.cpp:399] inception_3a/output_inception_3a/output_0_split -> inception_3a/output_inception_3a/output_0_split_2
I0403 21:57:18.954466 24826 net.cpp:399] inception_3a/output_inception_3a/output_0_split -> inception_3a/output_inception_3a/output_0_split_3
I0403 21:57:18.954541 24826 net.cpp:141] Setting up inception_3a/output_inception_3a/output_0_split
I0403 21:57:18.954565 24826 net.cpp:148] Top shape: 24 256 28 28 (4816896)
I0403 21:57:18.954582 24826 net.cpp:148] Top shape: 24 256 28 28 (4816896)
I0403 21:57:18.954599 24826 net.cpp:148] Top shape: 24 256 28 28 (4816896)
I0403 21:57:18.954614 24826 net.cpp:148] Top shape: 24 256 28 28 (4816896)
I0403 21:57:18.954628 24826 net.cpp:156] Memory required for data: 657507360
I0403 21:57:18.954643 24826 layer_factory.hpp:77] Creating layer inception_3b/1x1
I0403 21:57:18.954665 24826 net.cpp:91] Creating Layer inception_3b/1x1
I0403 21:57:18.954682 24826 net.cpp:425] inception_3b/1x1 <- inception_3a/output_inception_3a/output_0_split_0
I0403 21:57:18.954704 24826 net.cpp:399] inception_3b/1x1 -> inception_3b/1x1
I0403 21:57:18.955873 24826 net.cpp:141] Setting up inception_3b/1x1
I0403 21:57:18.955914 24826 net.cpp:148] Top shape: 24 128 28 28 (2408448)
I0403 21:57:18.955931 24826 net.cpp:156] Memory required for data: 667141152
I0403 21:57:18.955951 24826 layer_factory.hpp:77] Creating layer inception_3b/relu_1x1
I0403 21:57:18.955971 24826 net.cpp:91] Creating Layer inception_3b/relu_1x1
I0403 21:57:18.955988 24826 net.cpp:425] inception_3b/relu_1x1 <- inception_3b/1x1
I0403 21:57:18.956010 24826 net.cpp:386] inception_3b/relu_1x1 -> inception_3b/1x1 (in-place)
I0403 21:57:18.956193 24826 net.cpp:141] Setting up inception_3b/relu_1x1
I0403 21:57:18.956220 24826 net.cpp:148] Top shape: 24 128 28 28 (2408448)
I0403 21:57:18.956241 24826 net.cpp:156] Memory required for data: 676774944
I0403 21:57:18.956257 24826 layer_factory.hpp:77] Creating layer inception_3b/3x3_reduce
I0403 21:57:18.956281 24826 net.cpp:91] Creating Layer inception_3b/3x3_reduce
I0403 21:57:18.956301 24826 net.cpp:425] inception_3b/3x3_reduce <- inception_3a/output_inception_3a/output_0_split_1
I0403 21:57:18.956324 24826 net.cpp:399] inception_3b/3x3_reduce -> inception_3b/3x3_reduce
I0403 21:57:18.957487 24826 net.cpp:141] Setting up inception_3b/3x3_reduce
I0403 21:57:18.957518 24826 net.cpp:148] Top shape: 24 128 28 28 (2408448)
I0403 21:57:18.957535 24826 net.cpp:156] Memory required for data: 686408736
I0403 21:57:18.957556 24826 layer_factory.hpp:77] Creating layer inception_3b/relu_3x3_reduce
I0403 21:57:18.957573 24826 net.cpp:91] Creating Layer inception_3b/relu_3x3_reduce
I0403 21:57:18.957590 24826 net.cpp:425] inception_3b/relu_3x3_reduce <- inception_3b/3x3_reduce
I0403 21:57:18.957610 24826 net.cpp:386] inception_3b/relu_3x3_reduce -> inception_3b/3x3_reduce (in-place)
I0403 21:57:18.957788 24826 net.cpp:141] Setting up inception_3b/relu_3x3_reduce
I0403 21:57:18.957814 24826 net.cpp:148] Top shape: 24 128 28 28 (2408448)
I0403 21:57:18.957830 24826 net.cpp:156] Memory required for data: 696042528
I0403 21:57:18.957847 24826 layer_factory.hpp:77] Creating layer inception_3b/3x3
I0403 21:57:18.957875 24826 net.cpp:91] Creating Layer inception_3b/3x3
I0403 21:57:18.957893 24826 net.cpp:425] inception_3b/3x3 <- inception_3b/3x3_reduce
I0403 21:57:18.957913 24826 net.cpp:399] inception_3b/3x3 -> inception_3b/3x3
I0403 21:57:18.960925 24826 net.cpp:141] Setting up inception_3b/3x3
I0403 21:57:18.960955 24826 net.cpp:148] Top shape: 24 192 28 28 (3612672)
I0403 21:57:18.960973 24826 net.cpp:156] Memory required for data: 710493216
I0403 21:57:18.960993 24826 layer_factory.hpp:77] Creating layer inception_3b/relu_3x3
I0403 21:57:18.961014 24826 net.cpp:91] Creating Layer inception_3b/relu_3x3
I0403 21:57:18.961032 24826 net.cpp:425] inception_3b/relu_3x3 <- inception_3b/3x3
I0403 21:57:18.961051 24826 net.cpp:386] inception_3b/relu_3x3 -> inception_3b/3x3 (in-place)
I0403 21:57:18.961335 24826 net.cpp:141] Setting up inception_3b/relu_3x3
I0403 21:57:18.961364 24826 net.cpp:148] Top shape: 24 192 28 28 (3612672)
I0403 21:57:18.961380 24826 net.cpp:156] Memory required for data: 724943904
I0403 21:57:18.961396 24826 layer_factory.hpp:77] Creating layer inception_3b/5x5_reduce
I0403 21:57:18.961421 24826 net.cpp:91] Creating Layer inception_3b/5x5_reduce
I0403 21:57:18.961438 24826 net.cpp:425] inception_3b/5x5_reduce <- inception_3a/output_inception_3a/output_0_split_2
I0403 21:57:18.961462 24826 net.cpp:399] inception_3b/5x5_reduce -> inception_3b/5x5_reduce
I0403 21:57:18.962483 24826 net.cpp:141] Setting up inception_3b/5x5_reduce
I0403 21:57:18.962513 24826 net.cpp:148] Top shape: 24 32 28 28 (602112)
I0403 21:57:18.962529 24826 net.cpp:156] Memory required for data: 727352352
I0403 21:57:18.962549 24826 layer_factory.hpp:77] Creating layer inception_3b/relu_5x5_reduce
I0403 21:57:18.962571 24826 net.cpp:91] Creating Layer inception_3b/relu_5x5_reduce
I0403 21:57:18.962589 24826 net.cpp:425] inception_3b/relu_5x5_reduce <- inception_3b/5x5_reduce
I0403 21:57:18.962607 24826 net.cpp:386] inception_3b/relu_5x5_reduce -> inception_3b/5x5_reduce (in-place)
I0403 21:57:18.962803 24826 net.cpp:141] Setting up inception_3b/relu_5x5_reduce
I0403 21:57:18.962829 24826 net.cpp:148] Top shape: 24 32 28 28 (602112)
I0403 21:57:18.962846 24826 net.cpp:156] Memory required for data: 729760800
I0403 21:57:18.962862 24826 layer_factory.hpp:77] Creating layer inception_3b/5x5
I0403 21:57:18.962884 24826 net.cpp:91] Creating Layer inception_3b/5x5
I0403 21:57:18.962905 24826 net.cpp:425] inception_3b/5x5 <- inception_3b/5x5_reduce
I0403 21:57:18.962927 24826 net.cpp:399] inception_3b/5x5 -> inception_3b/5x5
I0403 21:57:18.964959 24826 net.cpp:141] Setting up inception_3b/5x5
I0403 21:57:18.964993 24826 net.cpp:148] Top shape: 24 96 28 28 (1806336)
I0403 21:57:18.965010 24826 net.cpp:156] Memory required for data: 736986144
I0403 21:57:18.965029 24826 layer_factory.hpp:77] Creating layer inception_3b/relu_5x5
I0403 21:57:18.965047 24826 net.cpp:91] Creating Layer inception_3b/relu_5x5
I0403 21:57:18.965065 24826 net.cpp:425] inception_3b/relu_5x5 <- inception_3b/5x5
I0403 21:57:18.965085 24826 net.cpp:386] inception_3b/relu_5x5 -> inception_3b/5x5 (in-place)
I0403 21:57:18.965288 24826 net.cpp:141] Setting up inception_3b/relu_5x5
I0403 21:57:18.965315 24826 net.cpp:148] Top shape: 24 96 28 28 (1806336)
I0403 21:57:18.965332 24826 net.cpp:156] Memory required for data: 744211488
I0403 21:57:18.965347 24826 layer_factory.hpp:77] Creating layer inception_3b/pool
I0403 21:57:18.965365 24826 net.cpp:91] Creating Layer inception_3b/pool
I0403 21:57:18.965384 24826 net.cpp:425] inception_3b/pool <- inception_3a/output_inception_3a/output_0_split_3
I0403 21:57:18.965402 24826 net.cpp:399] inception_3b/pool -> inception_3b/pool
I0403 21:57:18.965459 24826 net.cpp:141] Setting up inception_3b/pool
I0403 21:57:18.965484 24826 net.cpp:148] Top shape: 24 256 28 28 (4816896)
I0403 21:57:18.965499 24826 net.cpp:156] Memory required for data: 763479072
I0403 21:57:18.965515 24826 layer_factory.hpp:77] Creating layer inception_3b/pool_proj
I0403 21:57:18.965541 24826 net.cpp:91] Creating Layer inception_3b/pool_proj
I0403 21:57:18.965559 24826 net.cpp:425] inception_3b/pool_proj <- inception_3b/pool
I0403 21:57:18.965579 24826 net.cpp:399] inception_3b/pool_proj -> inception_3b/pool_proj
I0403 21:57:18.966656 24826 net.cpp:141] Setting up inception_3b/pool_proj
I0403 21:57:18.966686 24826 net.cpp:148] Top shape: 24 64 28 28 (1204224)
I0403 21:57:18.966702 24826 net.cpp:156] Memory required for data: 768295968
I0403 21:57:18.966722 24826 layer_factory.hpp:77] Creating layer inception_3b/relu_pool_proj
I0403 21:57:18.966742 24826 net.cpp:91] Creating Layer inception_3b/relu_pool_proj
I0403 21:57:18.966761 24826 net.cpp:425] inception_3b/relu_pool_proj <- inception_3b/pool_proj
I0403 21:57:18.966781 24826 net.cpp:386] inception_3b/relu_pool_proj -> inception_3b/pool_proj (in-place)
I0403 21:57:18.967188 24826 net.cpp:141] Setting up inception_3b/relu_pool_proj
I0403 21:57:18.967216 24826 net.cpp:148] Top shape: 24 64 28 28 (1204224)
I0403 21:57:18.967236 24826 net.cpp:156] Memory required for data: 773112864
I0403 21:57:18.967253 24826 layer_factory.hpp:77] Creating layer inception_3b/output
I0403 21:57:18.967275 24826 net.cpp:91] Creating Layer inception_3b/output
I0403 21:57:18.967293 24826 net.cpp:425] inception_3b/output <- inception_3b/1x1
I0403 21:57:18.967310 24826 net.cpp:425] inception_3b/output <- inception_3b/3x3
I0403 21:57:18.967327 24826 net.cpp:425] inception_3b/output <- inception_3b/5x5
I0403 21:57:18.967344 24826 net.cpp:425] inception_3b/output <- inception_3b/pool_proj
I0403 21:57:18.967361 24826 net.cpp:399] inception_3b/output -> inception_3b/output
I0403 21:57:18.967407 24826 net.cpp:141] Setting up inception_3b/output
I0403 21:57:18.967433 24826 net.cpp:148] Top shape: 24 480 28 28 (9031680)
I0403 21:57:18.967449 24826 net.cpp:156] Memory required for data: 809239584
I0403 21:57:18.967465 24826 layer_factory.hpp:77] Creating layer pool3/3x3_s2
I0403 21:57:18.967483 24826 net.cpp:91] Creating Layer pool3/3x3_s2
I0403 21:57:18.967500 24826 net.cpp:425] pool3/3x3_s2 <- inception_3b/output
I0403 21:57:18.967537 24826 net.cpp:399] pool3/3x3_s2 -> pool3/3x3_s2
I0403 21:57:18.967597 24826 net.cpp:141] Setting up pool3/3x3_s2
I0403 21:57:18.967624 24826 net.cpp:148] Top shape: 24 480 14 14 (2257920)
I0403 21:57:18.967640 24826 net.cpp:156] Memory required for data: 818271264
I0403 21:57:18.967655 24826 layer_factory.hpp:77] Creating layer pool3/3x3_s2_pool3/3x3_s2_0_split
I0403 21:57:18.967674 24826 net.cpp:91] Creating Layer pool3/3x3_s2_pool3/3x3_s2_0_split
I0403 21:57:18.967690 24826 net.cpp:425] pool3/3x3_s2_pool3/3x3_s2_0_split <- pool3/3x3_s2
I0403 21:57:18.967708 24826 net.cpp:399] pool3/3x3_s2_pool3/3x3_s2_0_split -> pool3/3x3_s2_pool3/3x3_s2_0_split_0
I0403 21:57:18.967730 24826 net.cpp:399] pool3/3x3_s2_pool3/3x3_s2_0_split -> pool3/3x3_s2_pool3/3x3_s2_0_split_1
I0403 21:57:18.967753 24826 net.cpp:399] pool3/3x3_s2_pool3/3x3_s2_0_split -> pool3/3x3_s2_pool3/3x3_s2_0_split_2
I0403 21:57:18.967774 24826 net.cpp:399] pool3/3x3_s2_pool3/3x3_s2_0_split -> pool3/3x3_s2_pool3/3x3_s2_0_split_3
I0403 21:57:18.967856 24826 net.cpp:141] Setting up pool3/3x3_s2_pool3/3x3_s2_0_split
I0403 21:57:18.967881 24826 net.cpp:148] Top shape: 24 480 14 14 (2257920)
I0403 21:57:18.967900 24826 net.cpp:148] Top shape: 24 480 14 14 (2257920)
I0403 21:57:18.967914 24826 net.cpp:148] Top shape: 24 480 14 14 (2257920)
I0403 21:57:18.967932 24826 net.cpp:148] Top shape: 24 480 14 14 (2257920)
I0403 21:57:18.967947 24826 net.cpp:156] Memory required for data: 854397984
I0403 21:57:18.967963 24826 layer_factory.hpp:77] Creating layer inception_4a/1x1
I0403 21:57:18.967988 24826 net.cpp:91] Creating Layer inception_4a/1x1
I0403 21:57:18.968008 24826 net.cpp:425] inception_4a/1x1 <- pool3/3x3_s2_pool3/3x3_s2_0_split_0
I0403 21:57:18.968029 24826 net.cpp:399] inception_4a/1x1 -> inception_4a/1x1
I0403 21:57:18.969655 24826 net.cpp:141] Setting up inception_4a/1x1
I0403 21:57:18.969683 24826 net.cpp:148] Top shape: 24 192 14 14 (903168)
I0403 21:57:18.969701 24826 net.cpp:156] Memory required for data: 858010656
I0403 21:57:18.969722 24826 layer_factory.hpp:77] Creating layer inception_4a/relu_1x1
I0403 21:57:18.969743 24826 net.cpp:91] Creating Layer inception_4a/relu_1x1
I0403 21:57:18.969760 24826 net.cpp:425] inception_4a/relu_1x1 <- inception_4a/1x1
I0403 21:57:18.969779 24826 net.cpp:386] inception_4a/relu_1x1 -> inception_4a/1x1 (in-place)
I0403 21:57:18.969960 24826 net.cpp:141] Setting up inception_4a/relu_1x1
I0403 21:57:18.969987 24826 net.cpp:148] Top shape: 24 192 14 14 (903168)
I0403 21:57:18.970003 24826 net.cpp:156] Memory required for data: 861623328
I0403 21:57:18.970019 24826 layer_factory.hpp:77] Creating layer inception_4a/3x3_reduce
I0403 21:57:18.970043 24826 net.cpp:91] Creating Layer inception_4a/3x3_reduce
I0403 21:57:18.970062 24826 net.cpp:425] inception_4a/3x3_reduce <- pool3/3x3_s2_pool3/3x3_s2_0_split_1
I0403 21:57:18.970083 24826 net.cpp:399] inception_4a/3x3_reduce -> inception_4a/3x3_reduce
I0403 21:57:18.971398 24826 net.cpp:141] Setting up inception_4a/3x3_reduce
I0403 21:57:18.971429 24826 net.cpp:148] Top shape: 24 96 14 14 (451584)
I0403 21:57:18.971447 24826 net.cpp:156] Memory required for data: 863429664
I0403 21:57:18.971472 24826 layer_factory.hpp:77] Creating layer inception_4a/relu_3x3_reduce
I0403 21:57:18.971493 24826 net.cpp:91] Creating Layer inception_4a/relu_3x3_reduce
I0403 21:57:18.971513 24826 net.cpp:425] inception_4a/relu_3x3_reduce <- inception_4a/3x3_reduce
I0403 21:57:18.971530 24826 net.cpp:386] inception_4a/relu_3x3_reduce -> inception_4a/3x3_reduce (in-place)
I0403 21:57:18.971709 24826 net.cpp:141] Setting up inception_4a/relu_3x3_reduce
I0403 21:57:18.971737 24826 net.cpp:148] Top shape: 24 96 14 14 (451584)
I0403 21:57:18.971753 24826 net.cpp:156] Memory required for data: 865236000
I0403 21:57:18.971771 24826 layer_factory.hpp:77] Creating layer inception_4a/3x3
I0403 21:57:18.971793 24826 net.cpp:91] Creating Layer inception_4a/3x3
I0403 21:57:18.971812 24826 net.cpp:425] inception_4a/3x3 <- inception_4a/3x3_reduce
I0403 21:57:18.971834 24826 net.cpp:399] inception_4a/3x3 -> inception_4a/3x3
I0403 21:57:18.974588 24826 net.cpp:141] Setting up inception_4a/3x3
I0403 21:57:18.974619 24826 net.cpp:148] Top shape: 24 208 14 14 (978432)
I0403 21:57:18.974637 24826 net.cpp:156] Memory required for data: 869149728
I0403 21:57:18.974656 24826 layer_factory.hpp:77] Creating layer inception_4a/relu_3x3
I0403 21:57:18.974675 24826 net.cpp:91] Creating Layer inception_4a/relu_3x3
I0403 21:57:18.974691 24826 net.cpp:425] inception_4a/relu_3x3 <- inception_4a/3x3
I0403 21:57:18.974712 24826 net.cpp:386] inception_4a/relu_3x3 -> inception_4a/3x3 (in-place)
I0403 21:57:18.974987 24826 net.cpp:141] Setting up inception_4a/relu_3x3
I0403 21:57:18.975015 24826 net.cpp:148] Top shape: 24 208 14 14 (978432)
I0403 21:57:18.975033 24826 net.cpp:156] Memory required for data: 873063456
I0403 21:57:18.975049 24826 layer_factory.hpp:77] Creating layer inception_4a/5x5_reduce
I0403 21:57:18.975072 24826 net.cpp:91] Creating Layer inception_4a/5x5_reduce
I0403 21:57:18.975091 24826 net.cpp:425] inception_4a/5x5_reduce <- pool3/3x3_s2_pool3/3x3_s2_0_split_2
I0403 21:57:18.975113 24826 net.cpp:399] inception_4a/5x5_reduce -> inception_4a/5x5_reduce
I0403 21:57:18.976125 24826 net.cpp:141] Setting up inception_4a/5x5_reduce
I0403 21:57:18.976153 24826 net.cpp:148] Top shape: 24 16 14 14 (75264)
I0403 21:57:18.976171 24826 net.cpp:156] Memory required for data: 873364512
I0403 21:57:18.976188 24826 layer_factory.hpp:77] Creating layer inception_4a/relu_5x5_reduce
I0403 21:57:18.976208 24826 net.cpp:91] Creating Layer inception_4a/relu_5x5_reduce
I0403 21:57:18.976227 24826 net.cpp:425] inception_4a/relu_5x5_reduce <- inception_4a/5x5_reduce
I0403 21:57:18.976249 24826 net.cpp:386] inception_4a/relu_5x5_reduce -> inception_4a/5x5_reduce (in-place)
I0403 21:57:18.976426 24826 net.cpp:141] Setting up inception_4a/relu_5x5_reduce
I0403 21:57:18.976452 24826 net.cpp:148] Top shape: 24 16 14 14 (75264)
I0403 21:57:18.976466 24826 net.cpp:156] Memory required for data: 873665568
I0403 21:57:18.976481 24826 layer_factory.hpp:77] Creating layer inception_4a/5x5
I0403 21:57:18.976505 24826 net.cpp:91] Creating Layer inception_4a/5x5
I0403 21:57:18.976522 24826 net.cpp:425] inception_4a/5x5 <- inception_4a/5x5_reduce
I0403 21:57:18.976544 24826 net.cpp:399] inception_4a/5x5 -> inception_4a/5x5
I0403 21:57:18.977622 24826 net.cpp:141] Setting up inception_4a/5x5
I0403 21:57:18.977650 24826 net.cpp:148] Top shape: 24 48 14 14 (225792)
I0403 21:57:18.977665 24826 net.cpp:156] Memory required for data: 874568736
I0403 21:57:18.977684 24826 layer_factory.hpp:77] Creating layer inception_4a/relu_5x5
I0403 21:57:18.977705 24826 net.cpp:91] Creating Layer inception_4a/relu_5x5
I0403 21:57:18.977722 24826 net.cpp:425] inception_4a/relu_5x5 <- inception_4a/5x5
I0403 21:57:18.977741 24826 net.cpp:386] inception_4a/relu_5x5 -> inception_4a/5x5 (in-place)
I0403 21:57:18.977921 24826 net.cpp:141] Setting up inception_4a/relu_5x5
I0403 21:57:18.977949 24826 net.cpp:148] Top shape: 24 48 14 14 (225792)
I0403 21:57:18.977965 24826 net.cpp:156] Memory required for data: 875471904
I0403 21:57:18.977982 24826 layer_factory.hpp:77] Creating layer inception_4a/pool
I0403 21:57:18.977999 24826 net.cpp:91] Creating Layer inception_4a/pool
I0403 21:57:18.978016 24826 net.cpp:425] inception_4a/pool <- pool3/3x3_s2_pool3/3x3_s2_0_split_3
I0403 21:57:18.978037 24826 net.cpp:399] inception_4a/pool -> inception_4a/pool
I0403 21:57:18.978097 24826 net.cpp:141] Setting up inception_4a/pool
I0403 21:57:18.978122 24826 net.cpp:148] Top shape: 24 480 14 14 (2257920)
I0403 21:57:18.978137 24826 net.cpp:156] Memory required for data: 884503584
I0403 21:57:18.978152 24826 layer_factory.hpp:77] Creating layer inception_4a/pool_proj
I0403 21:57:18.978174 24826 net.cpp:91] Creating Layer inception_4a/pool_proj
I0403 21:57:18.978193 24826 net.cpp:425] inception_4a/pool_proj <- inception_4a/pool
I0403 21:57:18.978215 24826 net.cpp:399] inception_4a/pool_proj -> inception_4a/pool_proj
I0403 21:57:18.979382 24826 net.cpp:141] Setting up inception_4a/pool_proj
I0403 21:57:18.979414 24826 net.cpp:148] Top shape: 24 64 14 14 (301056)
I0403 21:57:18.979445 24826 net.cpp:156] Memory required for data: 885707808
I0403 21:57:18.979466 24826 layer_factory.hpp:77] Creating layer inception_4a/relu_pool_proj
I0403 21:57:18.979485 24826 net.cpp:91] Creating Layer inception_4a/relu_pool_proj
I0403 21:57:18.979503 24826 net.cpp:425] inception_4a/relu_pool_proj <- inception_4a/pool_proj
I0403 21:57:18.979521 24826 net.cpp:386] inception_4a/relu_pool_proj -> inception_4a/pool_proj (in-place)
I0403 21:57:18.979799 24826 net.cpp:141] Setting up inception_4a/relu_pool_proj
I0403 21:57:18.979827 24826 net.cpp:148] Top shape: 24 64 14 14 (301056)
I0403 21:57:18.979845 24826 net.cpp:156] Memory required for data: 886912032
I0403 21:57:18.979859 24826 layer_factory.hpp:77] Creating layer inception_4a/output
I0403 21:57:18.979877 24826 net.cpp:91] Creating Layer inception_4a/output
I0403 21:57:18.979893 24826 net.cpp:425] inception_4a/output <- inception_4a/1x1
I0403 21:57:18.979909 24826 net.cpp:425] inception_4a/output <- inception_4a/3x3
I0403 21:57:18.979928 24826 net.cpp:425] inception_4a/output <- inception_4a/5x5
I0403 21:57:18.979944 24826 net.cpp:425] inception_4a/output <- inception_4a/pool_proj
I0403 21:57:18.979961 24826 net.cpp:399] inception_4a/output -> inception_4a/output
I0403 21:57:18.980007 24826 net.cpp:141] Setting up inception_4a/output
I0403 21:57:18.980031 24826 net.cpp:148] Top shape: 24 512 14 14 (2408448)
I0403 21:57:18.980046 24826 net.cpp:156] Memory required for data: 896545824
I0403 21:57:18.980062 24826 layer_factory.hpp:77] Creating layer inception_4a/output_inception_4a/output_0_split
I0403 21:57:18.980082 24826 net.cpp:91] Creating Layer inception_4a/output_inception_4a/output_0_split
I0403 21:57:18.980100 24826 net.cpp:425] inception_4a/output_inception_4a/output_0_split <- inception_4a/output
I0403 21:57:18.980118 24826 net.cpp:399] inception_4a/output_inception_4a/output_0_split -> inception_4a/output_inception_4a/output_0_split_0
I0403 21:57:18.980139 24826 net.cpp:399] inception_4a/output_inception_4a/output_0_split -> inception_4a/output_inception_4a/output_0_split_1
I0403 21:57:18.980160 24826 net.cpp:399] inception_4a/output_inception_4a/output_0_split -> inception_4a/output_inception_4a/output_0_split_2
I0403 21:57:18.980181 24826 net.cpp:399] inception_4a/output_inception_4a/output_0_split -> inception_4a/output_inception_4a/output_0_split_3
I0403 21:57:18.980206 24826 net.cpp:399] inception_4a/output_inception_4a/output_0_split -> inception_4a/output_inception_4a/output_0_split_4
I0403 21:57:18.980305 24826 net.cpp:141] Setting up inception_4a/output_inception_4a/output_0_split
I0403 21:57:18.980330 24826 net.cpp:148] Top shape: 24 512 14 14 (2408448)
I0403 21:57:18.980346 24826 net.cpp:148] Top shape: 24 512 14 14 (2408448)
I0403 21:57:18.980362 24826 net.cpp:148] Top shape: 24 512 14 14 (2408448)
I0403 21:57:18.980377 24826 net.cpp:148] Top shape: 24 512 14 14 (2408448)
I0403 21:57:18.980393 24826 net.cpp:148] Top shape: 24 512 14 14 (2408448)
I0403 21:57:18.980408 24826 net.cpp:156] Memory required for data: 944714784
I0403 21:57:18.980424 24826 layer_factory.hpp:77] Creating layer loss1/ave_pool
I0403 21:57:18.980443 24826 net.cpp:91] Creating Layer loss1/ave_pool
I0403 21:57:18.980459 24826 net.cpp:425] loss1/ave_pool <- inception_4a/output_inception_4a/output_0_split_0
I0403 21:57:18.980480 24826 net.cpp:399] loss1/ave_pool -> loss1/ave_pool
I0403 21:57:18.980680 24826 net.cpp:141] Setting up loss1/ave_pool
I0403 21:57:18.980710 24826 net.cpp:148] Top shape: 24 512 4 4 (196608)
I0403 21:57:18.980726 24826 net.cpp:156] Memory required for data: 945501216
I0403 21:57:18.980741 24826 layer_factory.hpp:77] Creating layer loss1/conv
I0403 21:57:18.980767 24826 net.cpp:91] Creating Layer loss1/conv
I0403 21:57:18.980784 24826 net.cpp:425] loss1/conv <- loss1/ave_pool
I0403 21:57:18.980803 24826 net.cpp:399] loss1/conv -> loss1/conv
I0403 21:57:18.982204 24826 net.cpp:141] Setting up loss1/conv
I0403 21:57:18.982236 24826 net.cpp:148] Top shape: 24 128 4 4 (49152)
I0403 21:57:18.982269 24826 net.cpp:156] Memory required for data: 945697824
I0403 21:57:18.982287 24826 layer_factory.hpp:77] Creating layer loss1/relu_conv
I0403 21:57:18.982306 24826 net.cpp:91] Creating Layer loss1/relu_conv
I0403 21:57:18.982322 24826 net.cpp:425] loss1/relu_conv <- loss1/conv
I0403 21:57:18.982342 24826 net.cpp:386] loss1/relu_conv -> loss1/conv (in-place)
I0403 21:57:18.982630 24826 net.cpp:141] Setting up loss1/relu_conv
I0403 21:57:18.982657 24826 net.cpp:148] Top shape: 24 128 4 4 (49152)
I0403 21:57:18.982672 24826 net.cpp:156] Memory required for data: 945894432
I0403 21:57:18.982688 24826 layer_factory.hpp:77] Creating layer loss1/fc
I0403 21:57:18.982712 24826 net.cpp:91] Creating Layer loss1/fc
I0403 21:57:18.982730 24826 net.cpp:425] loss1/fc <- loss1/conv
I0403 21:57:18.982751 24826 net.cpp:399] loss1/fc -> loss1/fc
I0403 21:57:19.000579 24826 net.cpp:141] Setting up loss1/fc
I0403 21:57:19.000613 24826 net.cpp:148] Top shape: 24 1024 (24576)
I0403 21:57:19.000630 24826 net.cpp:156] Memory required for data: 945992736
I0403 21:57:19.000649 24826 layer_factory.hpp:77] Creating layer loss1/relu_fc
I0403 21:57:19.000671 24826 net.cpp:91] Creating Layer loss1/relu_fc
I0403 21:57:19.000689 24826 net.cpp:425] loss1/relu_fc <- loss1/fc
I0403 21:57:19.000707 24826 net.cpp:386] loss1/relu_fc -> loss1/fc (in-place)
I0403 21:57:19.000891 24826 net.cpp:141] Setting up loss1/relu_fc
I0403 21:57:19.000917 24826 net.cpp:148] Top shape: 24 1024 (24576)
I0403 21:57:19.000933 24826 net.cpp:156] Memory required for data: 946091040
I0403 21:57:19.000948 24826 layer_factory.hpp:77] Creating layer loss1/drop_fc
I0403 21:57:19.000974 24826 net.cpp:91] Creating Layer loss1/drop_fc
I0403 21:57:19.000993 24826 net.cpp:425] loss1/drop_fc <- loss1/fc
I0403 21:57:19.001015 24826 net.cpp:386] loss1/drop_fc -> loss1/fc (in-place)
I0403 21:57:19.001068 24826 net.cpp:141] Setting up loss1/drop_fc
I0403 21:57:19.001093 24826 net.cpp:148] Top shape: 24 1024 (24576)
I0403 21:57:19.001108 24826 net.cpp:156] Memory required for data: 946189344
I0403 21:57:19.001123 24826 layer_factory.hpp:77] Creating layer loss1/classifier_plantvillage
I0403 21:57:19.001147 24826 net.cpp:91] Creating Layer loss1/classifier_plantvillage
I0403 21:57:19.001164 24826 net.cpp:425] loss1/classifier_plantvillage <- loss1/fc
I0403 21:57:19.001186 24826 net.cpp:399] loss1/classifier_plantvillage -> loss1/classifier_plantvillage
I0403 21:57:19.002111 24826 net.cpp:141] Setting up loss1/classifier_plantvillage
I0403 21:57:19.002142 24826 net.cpp:148] Top shape: 24 38 (912)
I0403 21:57:19.002159 24826 net.cpp:156] Memory required for data: 946192992
I0403 21:57:19.002177 24826 layer_factory.hpp:77] Creating layer loss1/classifier_plantvillage_loss1/classifier_plantvillage_0_split
I0403 21:57:19.002197 24826 net.cpp:91] Creating Layer loss1/classifier_plantvillage_loss1/classifier_plantvillage_0_split
I0403 21:57:19.002214 24826 net.cpp:425] loss1/classifier_plantvillage_loss1/classifier_plantvillage_0_split <- loss1/classifier_plantvillage
I0403 21:57:19.002251 24826 net.cpp:399] loss1/classifier_plantvillage_loss1/classifier_plantvillage_0_split -> loss1/classifier_plantvillage_loss1/classifier_plantvillage_0_split_0
I0403 21:57:19.002276 24826 net.cpp:399] loss1/classifier_plantvillage_loss1/classifier_plantvillage_0_split -> loss1/classifier_plantvillage_loss1/classifier_plantvillage_0_split_1
I0403 21:57:19.002307 24826 net.cpp:399] loss1/classifier_plantvillage_loss1/classifier_plantvillage_0_split -> loss1/classifier_plantvillage_loss1/classifier_plantvillage_0_split_2
I0403 21:57:19.002377 24826 net.cpp:141] Setting up loss1/classifier_plantvillage_loss1/classifier_plantvillage_0_split
I0403 21:57:19.002401 24826 net.cpp:148] Top shape: 24 38 (912)
I0403 21:57:19.002419 24826 net.cpp:148] Top shape: 24 38 (912)
I0403 21:57:19.002436 24826 net.cpp:148] Top shape: 24 38 (912)
I0403 21:57:19.002450 24826 net.cpp:156] Memory required for data: 946203936
I0403 21:57:19.002466 24826 layer_factory.hpp:77] Creating layer inception_4b/1x1
I0403 21:57:19.002490 24826 net.cpp:91] Creating Layer inception_4b/1x1
I0403 21:57:19.002526 24826 net.cpp:425] inception_4b/1x1 <- inception_4a/output_inception_4a/output_0_split_1
I0403 21:57:19.002547 24826 net.cpp:399] inception_4b/1x1 -> inception_4b/1x1
I0403 21:57:19.004256 24826 net.cpp:141] Setting up inception_4b/1x1
I0403 21:57:19.004286 24826 net.cpp:148] Top shape: 24 160 14 14 (752640)
I0403 21:57:19.004302 24826 net.cpp:156] Memory required for data: 949214496
I0403 21:57:19.004323 24826 layer_factory.hpp:77] Creating layer inception_4b/relu_1x1
I0403 21:57:19.004341 24826 net.cpp:91] Creating Layer inception_4b/relu_1x1
I0403 21:57:19.004364 24826 net.cpp:425] inception_4b/relu_1x1 <- inception_4b/1x1
I0403 21:57:19.004381 24826 net.cpp:386] inception_4b/relu_1x1 -> inception_4b/1x1 (in-place)
I0403 21:57:19.004567 24826 net.cpp:141] Setting up inception_4b/relu_1x1
I0403 21:57:19.004593 24826 net.cpp:148] Top shape: 24 160 14 14 (752640)
I0403 21:57:19.004608 24826 net.cpp:156] Memory required for data: 952225056
I0403 21:57:19.004624 24826 layer_factory.hpp:77] Creating layer inception_4b/3x3_reduce
I0403 21:57:19.004647 24826 net.cpp:91] Creating Layer inception_4b/3x3_reduce
I0403 21:57:19.004667 24826 net.cpp:425] inception_4b/3x3_reduce <- inception_4a/output_inception_4a/output_0_split_2
I0403 21:57:19.004690 24826 net.cpp:399] inception_4b/3x3_reduce -> inception_4b/3x3_reduce
I0403 21:57:19.006091 24826 net.cpp:141] Setting up inception_4b/3x3_reduce
I0403 21:57:19.006120 24826 net.cpp:148] Top shape: 24 112 14 14 (526848)
I0403 21:57:19.006137 24826 net.cpp:156] Memory required for data: 954332448
I0403 21:57:19.006157 24826 layer_factory.hpp:77] Creating layer inception_4b/relu_3x3_reduce
I0403 21:57:19.006178 24826 net.cpp:91] Creating Layer inception_4b/relu_3x3_reduce
I0403 21:57:19.006196 24826 net.cpp:425] inception_4b/relu_3x3_reduce <- inception_4b/3x3_reduce
I0403 21:57:19.006214 24826 net.cpp:386] inception_4b/relu_3x3_reduce -> inception_4b/3x3_reduce (in-place)
I0403 21:57:19.006510 24826 net.cpp:141] Setting up inception_4b/relu_3x3_reduce
I0403 21:57:19.006538 24826 net.cpp:148] Top shape: 24 112 14 14 (526848)
I0403 21:57:19.006554 24826 net.cpp:156] Memory required for data: 956439840
I0403 21:57:19.006570 24826 layer_factory.hpp:77] Creating layer inception_4b/3x3
I0403 21:57:19.006594 24826 net.cpp:91] Creating Layer inception_4b/3x3
I0403 21:57:19.006613 24826 net.cpp:425] inception_4b/3x3 <- inception_4b/3x3_reduce
I0403 21:57:19.006634 24826 net.cpp:399] inception_4b/3x3 -> inception_4b/3x3
I0403 21:57:19.009763 24826 net.cpp:141] Setting up inception_4b/3x3
I0403 21:57:19.009795 24826 net.cpp:148] Top shape: 24 224 14 14 (1053696)
I0403 21:57:19.009812 24826 net.cpp:156] Memory required for data: 960654624
I0403 21:57:19.009834 24826 layer_factory.hpp:77] Creating layer inception_4b/relu_3x3
I0403 21:57:19.009852 24826 net.cpp:91] Creating Layer inception_4b/relu_3x3
I0403 21:57:19.009870 24826 net.cpp:425] inception_4b/relu_3x3 <- inception_4b/3x3
I0403 21:57:19.009889 24826 net.cpp:386] inception_4b/relu_3x3 -> inception_4b/3x3 (in-place)
I0403 21:57:19.010082 24826 net.cpp:141] Setting up inception_4b/relu_3x3
I0403 21:57:19.010108 24826 net.cpp:148] Top shape: 24 224 14 14 (1053696)
I0403 21:57:19.010123 24826 net.cpp:156] Memory required for data: 964869408
I0403 21:57:19.010140 24826 layer_factory.hpp:77] Creating layer inception_4b/5x5_reduce
I0403 21:57:19.010164 24826 net.cpp:91] Creating Layer inception_4b/5x5_reduce
I0403 21:57:19.010182 24826 net.cpp:425] inception_4b/5x5_reduce <- inception_4a/output_inception_4a/output_0_split_3
I0403 21:57:19.010206 24826 net.cpp:399] inception_4b/5x5_reduce -> inception_4b/5x5_reduce
I0403 21:57:19.011334 24826 net.cpp:141] Setting up inception_4b/5x5_reduce
I0403 21:57:19.011363 24826 net.cpp:148] Top shape: 24 24 14 14 (112896)
I0403 21:57:19.011381 24826 net.cpp:156] Memory required for data: 965320992
I0403 21:57:19.011400 24826 layer_factory.hpp:77] Creating layer inception_4b/relu_5x5_reduce
I0403 21:57:19.011422 24826 net.cpp:91] Creating Layer inception_4b/relu_5x5_reduce
I0403 21:57:19.011456 24826 net.cpp:425] inception_4b/relu_5x5_reduce <- inception_4b/5x5_reduce
I0403 21:57:19.011476 24826 net.cpp:386] inception_4b/relu_5x5_reduce -> inception_4b/5x5_reduce (in-place)
I0403 21:57:19.011665 24826 net.cpp:141] Setting up inception_4b/relu_5x5_reduce
I0403 21:57:19.011693 24826 net.cpp:148] Top shape: 24 24 14 14 (112896)
I0403 21:57:19.011711 24826 net.cpp:156] Memory required for data: 965772576
I0403 21:57:19.011728 24826 layer_factory.hpp:77] Creating layer inception_4b/5x5
I0403 21:57:19.011749 24826 net.cpp:91] Creating Layer inception_4b/5x5
I0403 21:57:19.011766 24826 net.cpp:425] inception_4b/5x5 <- inception_4b/5x5_reduce
I0403 21:57:19.011788 24826 net.cpp:399] inception_4b/5x5 -> inception_4b/5x5
I0403 21:57:19.013068 24826 net.cpp:141] Setting up inception_4b/5x5
I0403 21:57:19.013098 24826 net.cpp:148] Top shape: 24 64 14 14 (301056)
I0403 21:57:19.013114 24826 net.cpp:156] Memory required for data: 966976800
I0403 21:57:19.013134 24826 layer_factory.hpp:77] Creating layer inception_4b/relu_5x5
I0403 21:57:19.013151 24826 net.cpp:91] Creating Layer inception_4b/relu_5x5
I0403 21:57:19.013172 24826 net.cpp:425] inception_4b/relu_5x5 <- inception_4b/5x5
I0403 21:57:19.013191 24826 net.cpp:386] inception_4b/relu_5x5 -> inception_4b/5x5 (in-place)
I0403 21:57:19.013499 24826 net.cpp:141] Setting up inception_4b/relu_5x5
I0403 21:57:19.013528 24826 net.cpp:148] Top shape: 24 64 14 14 (301056)
I0403 21:57:19.013543 24826 net.cpp:156] Memory required for data: 968181024
I0403 21:57:19.013559 24826 layer_factory.hpp:77] Creating layer inception_4b/pool
I0403 21:57:19.013578 24826 net.cpp:91] Creating Layer inception_4b/pool
I0403 21:57:19.013597 24826 net.cpp:425] inception_4b/pool <- inception_4a/output_inception_4a/output_0_split_4
I0403 21:57:19.013618 24826 net.cpp:399] inception_4b/pool -> inception_4b/pool
I0403 21:57:19.013684 24826 net.cpp:141] Setting up inception_4b/pool
I0403 21:57:19.013712 24826 net.cpp:148] Top shape: 24 512 14 14 (2408448)
I0403 21:57:19.013728 24826 net.cpp:156] Memory required for data: 977814816
I0403 21:57:19.013744 24826 layer_factory.hpp:77] Creating layer inception_4b/pool_proj
I0403 21:57:19.013768 24826 net.cpp:91] Creating Layer inception_4b/pool_proj
I0403 21:57:19.013788 24826 net.cpp:425] inception_4b/pool_proj <- inception_4b/pool
I0403 21:57:19.013808 24826 net.cpp:399] inception_4b/pool_proj -> inception_4b/pool_proj
I0403 21:57:19.015058 24826 net.cpp:141] Setting up inception_4b/pool_proj
I0403 21:57:19.015087 24826 net.cpp:148] Top shape: 24 64 14 14 (301056)
I0403 21:57:19.015105 24826 net.cpp:156] Memory required for data: 979019040
I0403 21:57:19.015125 24826 layer_factory.hpp:77] Creating layer inception_4b/relu_pool_proj
I0403 21:57:19.015147 24826 net.cpp:91] Creating Layer inception_4b/relu_pool_proj
I0403 21:57:19.015166 24826 net.cpp:425] inception_4b/relu_pool_proj <- inception_4b/pool_proj
I0403 21:57:19.015184 24826 net.cpp:386] inception_4b/relu_pool_proj -> inception_4b/pool_proj (in-place)
I0403 21:57:19.015374 24826 net.cpp:141] Setting up inception_4b/relu_pool_proj
I0403 21:57:19.015401 24826 net.cpp:148] Top shape: 24 64 14 14 (301056)
I0403 21:57:19.015416 24826 net.cpp:156] Memory required for data: 980223264
I0403 21:57:19.015432 24826 layer_factory.hpp:77] Creating layer inception_4b/output
I0403 21:57:19.015453 24826 net.cpp:91] Creating Layer inception_4b/output
I0403 21:57:19.015470 24826 net.cpp:425] inception_4b/output <- inception_4b/1x1
I0403 21:57:19.015487 24826 net.cpp:425] inception_4b/output <- inception_4b/3x3
I0403 21:57:19.015504 24826 net.cpp:425] inception_4b/output <- inception_4b/5x5
I0403 21:57:19.015521 24826 net.cpp:425] inception_4b/output <- inception_4b/pool_proj
I0403 21:57:19.015538 24826 net.cpp:399] inception_4b/output -> inception_4b/output
I0403 21:57:19.015586 24826 net.cpp:141] Setting up inception_4b/output
I0403 21:57:19.015611 24826 net.cpp:148] Top shape: 24 512 14 14 (2408448)
I0403 21:57:19.015626 24826 net.cpp:156] Memory required for data: 989857056
I0403 21:57:19.015657 24826 layer_factory.hpp:77] Creating layer inception_4b/output_inception_4b/output_0_split
I0403 21:57:19.015676 24826 net.cpp:91] Creating Layer inception_4b/output_inception_4b/output_0_split
I0403 21:57:19.015693 24826 net.cpp:425] inception_4b/output_inception_4b/output_0_split <- inception_4b/output
I0403 21:57:19.015713 24826 net.cpp:399] inception_4b/output_inception_4b/output_0_split -> inception_4b/output_inception_4b/output_0_split_0
I0403 21:57:19.015736 24826 net.cpp:399] inception_4b/output_inception_4b/output_0_split -> inception_4b/output_inception_4b/output_0_split_1
I0403 21:57:19.015759 24826 net.cpp:399] inception_4b/output_inception_4b/output_0_split -> inception_4b/output_inception_4b/output_0_split_2
I0403 21:57:19.015781 24826 net.cpp:399] inception_4b/output_inception_4b/output_0_split -> inception_4b/output_inception_4b/output_0_split_3
I0403 21:57:19.015869 24826 net.cpp:141] Setting up inception_4b/output_inception_4b/output_0_split
I0403 21:57:19.015897 24826 net.cpp:148] Top shape: 24 512 14 14 (2408448)
I0403 21:57:19.015915 24826 net.cpp:148] Top shape: 24 512 14 14 (2408448)
I0403 21:57:19.015933 24826 net.cpp:148] Top shape: 24 512 14 14 (2408448)
I0403 21:57:19.015949 24826 net.cpp:148] Top shape: 24 512 14 14 (2408448)
I0403 21:57:19.015964 24826 net.cpp:156] Memory required for data: 1028392224
I0403 21:57:19.015979 24826 layer_factory.hpp:77] Creating layer inception_4c/1x1
I0403 21:57:19.016001 24826 net.cpp:91] Creating Layer inception_4c/1x1
I0403 21:57:19.016021 24826 net.cpp:425] inception_4c/1x1 <- inception_4b/output_inception_4b/output_0_split_0
I0403 21:57:19.016042 24826 net.cpp:399] inception_4c/1x1 -> inception_4c/1x1
I0403 21:57:19.017531 24826 net.cpp:141] Setting up inception_4c/1x1
I0403 21:57:19.017560 24826 net.cpp:148] Top shape: 24 128 14 14 (602112)
I0403 21:57:19.017577 24826 net.cpp:156] Memory required for data: 1030800672
I0403 21:57:19.017597 24826 layer_factory.hpp:77] Creating layer inception_4c/relu_1x1
I0403 21:57:19.017621 24826 net.cpp:91] Creating Layer inception_4c/relu_1x1
I0403 21:57:19.017640 24826 net.cpp:425] inception_4c/relu_1x1 <- inception_4c/1x1
I0403 21:57:19.017658 24826 net.cpp:386] inception_4c/relu_1x1 -> inception_4c/1x1 (in-place)
I0403 21:57:19.017848 24826 net.cpp:141] Setting up inception_4c/relu_1x1
I0403 21:57:19.017874 24826 net.cpp:148] Top shape: 24 128 14 14 (602112)
I0403 21:57:19.017889 24826 net.cpp:156] Memory required for data: 1033209120
I0403 21:57:19.017904 24826 layer_factory.hpp:77] Creating layer inception_4c/3x3_reduce
I0403 21:57:19.017930 24826 net.cpp:91] Creating Layer inception_4c/3x3_reduce
I0403 21:57:19.017948 24826 net.cpp:425] inception_4c/3x3_reduce <- inception_4b/output_inception_4b/output_0_split_1
I0403 21:57:19.017971 24826 net.cpp:399] inception_4c/3x3_reduce -> inception_4c/3x3_reduce
I0403 21:57:19.019990 24826 net.cpp:141] Setting up inception_4c/3x3_reduce
I0403 21:57:19.020020 24826 net.cpp:148] Top shape: 24 128 14 14 (602112)
I0403 21:57:19.020036 24826 net.cpp:156] Memory required for data: 1035617568
I0403 21:57:19.020056 24826 layer_factory.hpp:77] Creating layer inception_4c/relu_3x3_reduce
I0403 21:57:19.020076 24826 net.cpp:91] Creating Layer inception_4c/relu_3x3_reduce
I0403 21:57:19.020092 24826 net.cpp:425] inception_4c/relu_3x3_reduce <- inception_4c/3x3_reduce
I0403 21:57:19.020112 24826 net.cpp:386] inception_4c/relu_3x3_reduce -> inception_4c/3x3_reduce (in-place)
I0403 21:57:19.020418 24826 net.cpp:141] Setting up inception_4c/relu_3x3_reduce
I0403 21:57:19.020445 24826 net.cpp:148] Top shape: 24 128 14 14 (602112)
I0403 21:57:19.020462 24826 net.cpp:156] Memory required for data: 1038026016
I0403 21:57:19.020478 24826 layer_factory.hpp:77] Creating layer inception_4c/3x3
I0403 21:57:19.020503 24826 net.cpp:91] Creating Layer inception_4c/3x3
I0403 21:57:19.020522 24826 net.cpp:425] inception_4c/3x3 <- inception_4c/3x3_reduce
I0403 21:57:19.020545 24826 net.cpp:399] inception_4c/3x3 -> inception_4c/3x3
I0403 21:57:19.026621 24826 net.cpp:141] Setting up inception_4c/3x3
I0403 21:57:19.026669 24826 net.cpp:148] Top shape: 24 256 14 14 (1204224)
I0403 21:57:19.026689 24826 net.cpp:156] Memory required for data: 1042842912
I0403 21:57:19.026722 24826 layer_factory.hpp:77] Creating layer inception_4c/relu_3x3
I0403 21:57:19.026746 24826 net.cpp:91] Creating Layer inception_4c/relu_3x3
I0403 21:57:19.026763 24826 net.cpp:425] inception_4c/relu_3x3 <- inception_4c/3x3
I0403 21:57:19.026782 24826 net.cpp:386] inception_4c/relu_3x3 -> inception_4c/3x3 (in-place)
I0403 21:57:19.026967 24826 net.cpp:141] Setting up inception_4c/relu_3x3
I0403 21:57:19.026993 24826 net.cpp:148] Top shape: 24 256 14 14 (1204224)
I0403 21:57:19.027009 24826 net.cpp:156] Memory required for data: 1047659808
I0403 21:57:19.027022 24826 layer_factory.hpp:77] Creating layer inception_4c/5x5_reduce
I0403 21:57:19.027046 24826 net.cpp:91] Creating Layer inception_4c/5x5_reduce
I0403 21:57:19.027065 24826 net.cpp:425] inception_4c/5x5_reduce <- inception_4b/output_inception_4b/output_0_split_2
I0403 21:57:19.027087 24826 net.cpp:399] inception_4c/5x5_reduce -> inception_4c/5x5_reduce
I0403 21:57:19.028213 24826 net.cpp:141] Setting up inception_4c/5x5_reduce
I0403 21:57:19.028254 24826 net.cpp:148] Top shape: 24 24 14 14 (112896)
I0403 21:57:19.028272 24826 net.cpp:156] Memory required for data: 1048111392
I0403 21:57:19.028291 24826 layer_factory.hpp:77] Creating layer inception_4c/relu_5x5_reduce
I0403 21:57:19.028308 24826 net.cpp:91] Creating Layer inception_4c/relu_5x5_reduce
I0403 21:57:19.028326 24826 net.cpp:425] inception_4c/relu_5x5_reduce <- inception_4c/5x5_reduce
I0403 21:57:19.028345 24826 net.cpp:386] inception_4c/relu_5x5_reduce -> inception_4c/5x5_reduce (in-place)
I0403 21:57:19.028533 24826 net.cpp:141] Setting up inception_4c/relu_5x5_reduce
I0403 21:57:19.028558 24826 net.cpp:148] Top shape: 24 24 14 14 (112896)
I0403 21:57:19.028574 24826 net.cpp:156] Memory required for data: 1048562976
I0403 21:57:19.028589 24826 layer_factory.hpp:77] Creating layer inception_4c/5x5
I0403 21:57:19.028612 24826 net.cpp:91] Creating Layer inception_4c/5x5
I0403 21:57:19.028631 24826 net.cpp:425] inception_4c/5x5 <- inception_4c/5x5_reduce
I0403 21:57:19.028653 24826 net.cpp:399] inception_4c/5x5 -> inception_4c/5x5
I0403 21:57:19.029911 24826 net.cpp:141] Setting up inception_4c/5x5
I0403 21:57:19.029939 24826 net.cpp:148] Top shape: 24 64 14 14 (301056)
I0403 21:57:19.029958 24826 net.cpp:156] Memory required for data: 1049767200
I0403 21:57:19.029975 24826 layer_factory.hpp:77] Creating layer inception_4c/relu_5x5
I0403 21:57:19.029997 24826 net.cpp:91] Creating Layer inception_4c/relu_5x5
I0403 21:57:19.030016 24826 net.cpp:425] inception_4c/relu_5x5 <- inception_4c/5x5
I0403 21:57:19.030035 24826 net.cpp:386] inception_4c/relu_5x5 -> inception_4c/5x5 (in-place)
I0403 21:57:19.030328 24826 net.cpp:141] Setting up inception_4c/relu_5x5
I0403 21:57:19.030354 24826 net.cpp:148] Top shape: 24 64 14 14 (301056)
I0403 21:57:19.030370 24826 net.cpp:156] Memory required for data: 1050971424
I0403 21:57:19.030385 24826 layer_factory.hpp:77] Creating layer inception_4c/pool
I0403 21:57:19.030405 24826 net.cpp:91] Creating Layer inception_4c/pool
I0403 21:57:19.030424 24826 net.cpp:425] inception_4c/pool <- inception_4b/output_inception_4b/output_0_split_3
I0403 21:57:19.030442 24826 net.cpp:399] inception_4c/pool -> inception_4c/pool
I0403 21:57:19.030508 24826 net.cpp:141] Setting up inception_4c/pool
I0403 21:57:19.030534 24826 net.cpp:148] Top shape: 24 512 14 14 (2408448)
I0403 21:57:19.030549 24826 net.cpp:156] Memory required for data: 1060605216
I0403 21:57:19.030563 24826 layer_factory.hpp:77] Creating layer inception_4c/pool_proj
I0403 21:57:19.030586 24826 net.cpp:91] Creating Layer inception_4c/pool_proj
I0403 21:57:19.030604 24826 net.cpp:425] inception_4c/pool_proj <- inception_4c/pool
I0403 21:57:19.030625 24826 net.cpp:399] inception_4c/pool_proj -> inception_4c/pool_proj
I0403 21:57:19.031864 24826 net.cpp:141] Setting up inception_4c/pool_proj
I0403 21:57:19.031893 24826 net.cpp:148] Top shape: 24 64 14 14 (301056)
I0403 21:57:19.031925 24826 net.cpp:156] Memory required for data: 1061809440
I0403 21:57:19.031945 24826 layer_factory.hpp:77] Creating layer inception_4c/relu_pool_proj
I0403 21:57:19.031967 24826 net.cpp:91] Creating Layer inception_4c/relu_pool_proj
I0403 21:57:19.031985 24826 net.cpp:425] inception_4c/relu_pool_proj <- inception_4c/pool_proj
I0403 21:57:19.032003 24826 net.cpp:386] inception_4c/relu_pool_proj -> inception_4c/pool_proj (in-place)
I0403 21:57:19.032186 24826 net.cpp:141] Setting up inception_4c/relu_pool_proj
I0403 21:57:19.032212 24826 net.cpp:148] Top shape: 24 64 14 14 (301056)
I0403 21:57:19.032232 24826 net.cpp:156] Memory required for data: 1063013664
I0403 21:57:19.032250 24826 layer_factory.hpp:77] Creating layer inception_4c/output
I0403 21:57:19.032270 24826 net.cpp:91] Creating Layer inception_4c/output
I0403 21:57:19.032287 24826 net.cpp:425] inception_4c/output <- inception_4c/1x1
I0403 21:57:19.032305 24826 net.cpp:425] inception_4c/output <- inception_4c/3x3
I0403 21:57:19.032321 24826 net.cpp:425] inception_4c/output <- inception_4c/5x5
I0403 21:57:19.032338 24826 net.cpp:425] inception_4c/output <- inception_4c/pool_proj
I0403 21:57:19.032356 24826 net.cpp:399] inception_4c/output -> inception_4c/output
I0403 21:57:19.032403 24826 net.cpp:141] Setting up inception_4c/output
I0403 21:57:19.032428 24826 net.cpp:148] Top shape: 24 512 14 14 (2408448)
I0403 21:57:19.032443 24826 net.cpp:156] Memory required for data: 1072647456
I0403 21:57:19.032457 24826 layer_factory.hpp:77] Creating layer inception_4c/output_inception_4c/output_0_split
I0403 21:57:19.032475 24826 net.cpp:91] Creating Layer inception_4c/output_inception_4c/output_0_split
I0403 21:57:19.032491 24826 net.cpp:425] inception_4c/output_inception_4c/output_0_split <- inception_4c/output
I0403 21:57:19.032511 24826 net.cpp:399] inception_4c/output_inception_4c/output_0_split -> inception_4c/output_inception_4c/output_0_split_0
I0403 21:57:19.032533 24826 net.cpp:399] inception_4c/output_inception_4c/output_0_split -> inception_4c/output_inception_4c/output_0_split_1
I0403 21:57:19.032553 24826 net.cpp:399] inception_4c/output_inception_4c/output_0_split -> inception_4c/output_inception_4c/output_0_split_2
I0403 21:57:19.032573 24826 net.cpp:399] inception_4c/output_inception_4c/output_0_split -> inception_4c/output_inception_4c/output_0_split_3
I0403 21:57:19.032663 24826 net.cpp:141] Setting up inception_4c/output_inception_4c/output_0_split
I0403 21:57:19.032690 24826 net.cpp:148] Top shape: 24 512 14 14 (2408448)
I0403 21:57:19.032706 24826 net.cpp:148] Top shape: 24 512 14 14 (2408448)
I0403 21:57:19.032722 24826 net.cpp:148] Top shape: 24 512 14 14 (2408448)
I0403 21:57:19.032738 24826 net.cpp:148] Top shape: 24 512 14 14 (2408448)
I0403 21:57:19.032752 24826 net.cpp:156] Memory required for data: 1111182624
I0403 21:57:19.032768 24826 layer_factory.hpp:77] Creating layer inception_4d/1x1
I0403 21:57:19.032789 24826 net.cpp:91] Creating Layer inception_4d/1x1
I0403 21:57:19.032809 24826 net.cpp:425] inception_4d/1x1 <- inception_4c/output_inception_4c/output_0_split_0
I0403 21:57:19.032826 24826 net.cpp:399] inception_4d/1x1 -> inception_4d/1x1
I0403 21:57:19.034205 24826 net.cpp:141] Setting up inception_4d/1x1
I0403 21:57:19.034240 24826 net.cpp:148] Top shape: 24 112 14 14 (526848)
I0403 21:57:19.034257 24826 net.cpp:156] Memory required for data: 1113290016
I0403 21:57:19.034276 24826 layer_factory.hpp:77] Creating layer inception_4d/relu_1x1
I0403 21:57:19.034296 24826 net.cpp:91] Creating Layer inception_4d/relu_1x1
I0403 21:57:19.034312 24826 net.cpp:425] inception_4d/relu_1x1 <- inception_4d/1x1
I0403 21:57:19.034332 24826 net.cpp:386] inception_4d/relu_1x1 -> inception_4d/1x1 (in-place)
I0403 21:57:19.034515 24826 net.cpp:141] Setting up inception_4d/relu_1x1
I0403 21:57:19.034540 24826 net.cpp:148] Top shape: 24 112 14 14 (526848)
I0403 21:57:19.034556 24826 net.cpp:156] Memory required for data: 1115397408
I0403 21:57:19.034572 24826 layer_factory.hpp:77] Creating layer inception_4d/3x3_reduce
I0403 21:57:19.034610 24826 net.cpp:91] Creating Layer inception_4d/3x3_reduce
I0403 21:57:19.034629 24826 net.cpp:425] inception_4d/3x3_reduce <- inception_4c/output_inception_4c/output_0_split_1
I0403 21:57:19.034651 24826 net.cpp:399] inception_4d/3x3_reduce -> inception_4d/3x3_reduce
I0403 21:57:19.036157 24826 net.cpp:141] Setting up inception_4d/3x3_reduce
I0403 21:57:19.036187 24826 net.cpp:148] Top shape: 24 144 14 14 (677376)
I0403 21:57:19.036206 24826 net.cpp:156] Memory required for data: 1118106912
I0403 21:57:19.036223 24826 layer_factory.hpp:77] Creating layer inception_4d/relu_3x3_reduce
I0403 21:57:19.036247 24826 net.cpp:91] Creating Layer inception_4d/relu_3x3_reduce
I0403 21:57:19.036265 24826 net.cpp:425] inception_4d/relu_3x3_reduce <- inception_4d/3x3_reduce
I0403 21:57:19.036283 24826 net.cpp:386] inception_4d/relu_3x3_reduce -> inception_4d/3x3_reduce (in-place)
I0403 21:57:19.036574 24826 net.cpp:141] Setting up inception_4d/relu_3x3_reduce
I0403 21:57:19.036603 24826 net.cpp:148] Top shape: 24 144 14 14 (677376)
I0403 21:57:19.036619 24826 net.cpp:156] Memory required for data: 1120816416
I0403 21:57:19.036635 24826 layer_factory.hpp:77] Creating layer inception_4d/3x3
I0403 21:57:19.036656 24826 net.cpp:91] Creating Layer inception_4d/3x3
I0403 21:57:19.036674 24826 net.cpp:425] inception_4d/3x3 <- inception_4d/3x3_reduce
I0403 21:57:19.036696 24826 net.cpp:399] inception_4d/3x3 -> inception_4d/3x3
I0403 21:57:19.040998 24826 net.cpp:141] Setting up inception_4d/3x3
I0403 21:57:19.041028 24826 net.cpp:148] Top shape: 24 288 14 14 (1354752)
I0403 21:57:19.041045 24826 net.cpp:156] Memory required for data: 1126235424
I0403 21:57:19.041064 24826 layer_factory.hpp:77] Creating layer inception_4d/relu_3x3
I0403 21:57:19.041082 24826 net.cpp:91] Creating Layer inception_4d/relu_3x3
I0403 21:57:19.041100 24826 net.cpp:425] inception_4d/relu_3x3 <- inception_4d/3x3
I0403 21:57:19.041121 24826 net.cpp:386] inception_4d/relu_3x3 -> inception_4d/3x3 (in-place)
I0403 21:57:19.041309 24826 net.cpp:141] Setting up inception_4d/relu_3x3
I0403 21:57:19.041335 24826 net.cpp:148] Top shape: 24 288 14 14 (1354752)
I0403 21:57:19.041350 24826 net.cpp:156] Memory required for data: 1131654432
I0403 21:57:19.041365 24826 layer_factory.hpp:77] Creating layer inception_4d/5x5_reduce
I0403 21:57:19.041388 24826 net.cpp:91] Creating Layer inception_4d/5x5_reduce
I0403 21:57:19.041409 24826 net.cpp:425] inception_4d/5x5_reduce <- inception_4c/output_inception_4c/output_0_split_2
I0403 21:57:19.041430 24826 net.cpp:399] inception_4d/5x5_reduce -> inception_4d/5x5_reduce
I0403 21:57:19.042613 24826 net.cpp:141] Setting up inception_4d/5x5_reduce
I0403 21:57:19.042644 24826 net.cpp:148] Top shape: 24 32 14 14 (150528)
I0403 21:57:19.042661 24826 net.cpp:156] Memory required for data: 1132256544
I0403 21:57:19.042680 24826 layer_factory.hpp:77] Creating layer inception_4d/relu_5x5_reduce
I0403 21:57:19.042700 24826 net.cpp:91] Creating Layer inception_4d/relu_5x5_reduce
I0403 21:57:19.042716 24826 net.cpp:425] inception_4d/relu_5x5_reduce <- inception_4d/5x5_reduce
I0403 21:57:19.042737 24826 net.cpp:386] inception_4d/relu_5x5_reduce -> inception_4d/5x5_reduce (in-place)
I0403 21:57:19.042929 24826 net.cpp:141] Setting up inception_4d/relu_5x5_reduce
I0403 21:57:19.042955 24826 net.cpp:148] Top shape: 24 32 14 14 (150528)
I0403 21:57:19.042971 24826 net.cpp:156] Memory required for data: 1132858656
I0403 21:57:19.042986 24826 layer_factory.hpp:77] Creating layer inception_4d/5x5
I0403 21:57:19.043010 24826 net.cpp:91] Creating Layer inception_4d/5x5
I0403 21:57:19.043030 24826 net.cpp:425] inception_4d/5x5 <- inception_4d/5x5_reduce
I0403 21:57:19.043051 24826 net.cpp:399] inception_4d/5x5 -> inception_4d/5x5
I0403 21:57:19.044539 24826 net.cpp:141] Setting up inception_4d/5x5
I0403 21:57:19.044569 24826 net.cpp:148] Top shape: 24 64 14 14 (301056)
I0403 21:57:19.044584 24826 net.cpp:156] Memory required for data: 1134062880
I0403 21:57:19.044605 24826 layer_factory.hpp:77] Creating layer inception_4d/relu_5x5
I0403 21:57:19.044642 24826 net.cpp:91] Creating Layer inception_4d/relu_5x5
I0403 21:57:19.044662 24826 net.cpp:425] inception_4d/relu_5x5 <- inception_4d/5x5
I0403 21:57:19.044680 24826 net.cpp:386] inception_4d/relu_5x5 -> inception_4d/5x5 (in-place)
I0403 21:57:19.044984 24826 net.cpp:141] Setting up inception_4d/relu_5x5
I0403 21:57:19.045011 24826 net.cpp:148] Top shape: 24 64 14 14 (301056)
I0403 21:57:19.045027 24826 net.cpp:156] Memory required for data: 1135267104
I0403 21:57:19.045042 24826 layer_factory.hpp:77] Creating layer inception_4d/pool
I0403 21:57:19.045063 24826 net.cpp:91] Creating Layer inception_4d/pool
I0403 21:57:19.045080 24826 net.cpp:425] inception_4d/pool <- inception_4c/output_inception_4c/output_0_split_3
I0403 21:57:19.045099 24826 net.cpp:399] inception_4d/pool -> inception_4d/pool
I0403 21:57:19.045166 24826 net.cpp:141] Setting up inception_4d/pool
I0403 21:57:19.045192 24826 net.cpp:148] Top shape: 24 512 14 14 (2408448)
I0403 21:57:19.045207 24826 net.cpp:156] Memory required for data: 1144900896
I0403 21:57:19.045223 24826 layer_factory.hpp:77] Creating layer inception_4d/pool_proj
I0403 21:57:19.045267 24826 net.cpp:91] Creating Layer inception_4d/pool_proj
I0403 21:57:19.045296 24826 net.cpp:425] inception_4d/pool_proj <- inception_4d/pool
I0403 21:57:19.045320 24826 net.cpp:399] inception_4d/pool_proj -> inception_4d/pool_proj
I0403 21:57:19.047176 24826 net.cpp:141] Setting up inception_4d/pool_proj
I0403 21:57:19.047207 24826 net.cpp:148] Top shape: 24 64 14 14 (301056)
I0403 21:57:19.047225 24826 net.cpp:156] Memory required for data: 1146105120
I0403 21:57:19.047251 24826 layer_factory.hpp:77] Creating layer inception_4d/relu_pool_proj
I0403 21:57:19.047271 24826 net.cpp:91] Creating Layer inception_4d/relu_pool_proj
I0403 21:57:19.047294 24826 net.cpp:425] inception_4d/relu_pool_proj <- inception_4d/pool_proj
I0403 21:57:19.047314 24826 net.cpp:386] inception_4d/relu_pool_proj -> inception_4d/pool_proj (in-place)
I0403 21:57:19.047508 24826 net.cpp:141] Setting up inception_4d/relu_pool_proj
I0403 21:57:19.047534 24826 net.cpp:148] Top shape: 24 64 14 14 (301056)
I0403 21:57:19.047550 24826 net.cpp:156] Memory required for data: 1147309344
I0403 21:57:19.047565 24826 layer_factory.hpp:77] Creating layer inception_4d/output
I0403 21:57:19.047590 24826 net.cpp:91] Creating Layer inception_4d/output
I0403 21:57:19.047606 24826 net.cpp:425] inception_4d/output <- inception_4d/1x1
I0403 21:57:19.047626 24826 net.cpp:425] inception_4d/output <- inception_4d/3x3
I0403 21:57:19.047644 24826 net.cpp:425] inception_4d/output <- inception_4d/5x5
I0403 21:57:19.047662 24826 net.cpp:425] inception_4d/output <- inception_4d/pool_proj
I0403 21:57:19.047680 24826 net.cpp:399] inception_4d/output -> inception_4d/output
I0403 21:57:19.047727 24826 net.cpp:141] Setting up inception_4d/output
I0403 21:57:19.047755 24826 net.cpp:148] Top shape: 24 528 14 14 (2483712)
I0403 21:57:19.047770 24826 net.cpp:156] Memory required for data: 1157244192
I0403 21:57:19.047786 24826 layer_factory.hpp:77] Creating layer inception_4d/output_inception_4d/output_0_split
I0403 21:57:19.047806 24826 net.cpp:91] Creating Layer inception_4d/output_inception_4d/output_0_split
I0403 21:57:19.047821 24826 net.cpp:425] inception_4d/output_inception_4d/output_0_split <- inception_4d/output
I0403 21:57:19.047842 24826 net.cpp:399] inception_4d/output_inception_4d/output_0_split -> inception_4d/output_inception_4d/output_0_split_0
I0403 21:57:19.047865 24826 net.cpp:399] inception_4d/output_inception_4d/output_0_split -> inception_4d/output_inception_4d/output_0_split_1
I0403 21:57:19.047886 24826 net.cpp:399] inception_4d/output_inception_4d/output_0_split -> inception_4d/output_inception_4d/output_0_split_2
I0403 21:57:19.047909 24826 net.cpp:399] inception_4d/output_inception_4d/output_0_split -> inception_4d/output_inception_4d/output_0_split_3
I0403 21:57:19.047933 24826 net.cpp:399] inception_4d/output_inception_4d/output_0_split -> inception_4d/output_inception_4d/output_0_split_4
I0403 21:57:19.048040 24826 net.cpp:141] Setting up inception_4d/output_inception_4d/output_0_split
I0403 21:57:19.048079 24826 net.cpp:148] Top shape: 24 528 14 14 (2483712)
I0403 21:57:19.048099 24826 net.cpp:148] Top shape: 24 528 14 14 (2483712)
I0403 21:57:19.048118 24826 net.cpp:148] Top shape: 24 528 14 14 (2483712)
I0403 21:57:19.048135 24826 net.cpp:148] Top shape: 24 528 14 14 (2483712)
I0403 21:57:19.048152 24826 net.cpp:148] Top shape: 24 528 14 14 (2483712)
I0403 21:57:19.048167 24826 net.cpp:156] Memory required for data: 1206918432
I0403 21:57:19.048182 24826 layer_factory.hpp:77] Creating layer loss2/ave_pool
I0403 21:57:19.048200 24826 net.cpp:91] Creating Layer loss2/ave_pool
I0403 21:57:19.048218 24826 net.cpp:425] loss2/ave_pool <- inception_4d/output_inception_4d/output_0_split_0
I0403 21:57:19.048252 24826 net.cpp:399] loss2/ave_pool -> loss2/ave_pool
I0403 21:57:19.048578 24826 net.cpp:141] Setting up loss2/ave_pool
I0403 21:57:19.048604 24826 net.cpp:148] Top shape: 24 528 4 4 (202752)
I0403 21:57:19.048621 24826 net.cpp:156] Memory required for data: 1207729440
I0403 21:57:19.048637 24826 layer_factory.hpp:77] Creating layer loss2/conv
I0403 21:57:19.048661 24826 net.cpp:91] Creating Layer loss2/conv
I0403 21:57:19.048679 24826 net.cpp:425] loss2/conv <- loss2/ave_pool
I0403 21:57:19.048702 24826 net.cpp:399] loss2/conv -> loss2/conv
I0403 21:57:19.050669 24826 net.cpp:141] Setting up loss2/conv
I0403 21:57:19.050700 24826 net.cpp:148] Top shape: 24 128 4 4 (49152)
I0403 21:57:19.050717 24826 net.cpp:156] Memory required for data: 1207926048
I0403 21:57:19.050737 24826 layer_factory.hpp:77] Creating layer loss2/relu_conv
I0403 21:57:19.050760 24826 net.cpp:91] Creating Layer loss2/relu_conv
I0403 21:57:19.050777 24826 net.cpp:425] loss2/relu_conv <- loss2/conv
I0403 21:57:19.050796 24826 net.cpp:386] loss2/relu_conv -> loss2/conv (in-place)
I0403 21:57:19.051090 24826 net.cpp:141] Setting up loss2/relu_conv
I0403 21:57:19.051118 24826 net.cpp:148] Top shape: 24 128 4 4 (49152)
I0403 21:57:19.051136 24826 net.cpp:156] Memory required for data: 1208122656
I0403 21:57:19.051151 24826 layer_factory.hpp:77] Creating layer loss2/fc
I0403 21:57:19.051173 24826 net.cpp:91] Creating Layer loss2/fc
I0403 21:57:19.051192 24826 net.cpp:425] loss2/fc <- loss2/conv
I0403 21:57:19.051213 24826 net.cpp:399] loss2/fc -> loss2/fc
I0403 21:57:19.069336 24826 net.cpp:141] Setting up loss2/fc
I0403 21:57:19.069373 24826 net.cpp:148] Top shape: 24 1024 (24576)
I0403 21:57:19.069389 24826 net.cpp:156] Memory required for data: 1208220960
I0403 21:57:19.069408 24826 layer_factory.hpp:77] Creating layer loss2/relu_fc
I0403 21:57:19.069427 24826 net.cpp:91] Creating Layer loss2/relu_fc
I0403 21:57:19.069445 24826 net.cpp:425] loss2/relu_fc <- loss2/fc
I0403 21:57:19.069464 24826 net.cpp:386] loss2/relu_fc -> loss2/fc (in-place)
I0403 21:57:19.069766 24826 net.cpp:141] Setting up loss2/relu_fc
I0403 21:57:19.069793 24826 net.cpp:148] Top shape: 24 1024 (24576)
I0403 21:57:19.069808 24826 net.cpp:156] Memory required for data: 1208319264
I0403 21:57:19.069824 24826 layer_factory.hpp:77] Creating layer loss2/drop_fc
I0403 21:57:19.069844 24826 net.cpp:91] Creating Layer loss2/drop_fc
I0403 21:57:19.069859 24826 net.cpp:425] loss2/drop_fc <- loss2/fc
I0403 21:57:19.069880 24826 net.cpp:386] loss2/drop_fc -> loss2/fc (in-place)
I0403 21:57:19.069928 24826 net.cpp:141] Setting up loss2/drop_fc
I0403 21:57:19.069952 24826 net.cpp:148] Top shape: 24 1024 (24576)
I0403 21:57:19.069967 24826 net.cpp:156] Memory required for data: 1208417568
I0403 21:57:19.069983 24826 layer_factory.hpp:77] Creating layer loss2/classifier_plantvillage
I0403 21:57:19.070006 24826 net.cpp:91] Creating Layer loss2/classifier_plantvillage
I0403 21:57:19.070024 24826 net.cpp:425] loss2/classifier_plantvillage <- loss2/fc
I0403 21:57:19.070045 24826 net.cpp:399] loss2/classifier_plantvillage -> loss2/classifier_plantvillage
I0403 21:57:19.070453 24826 net.cpp:141] Setting up loss2/classifier_plantvillage
I0403 21:57:19.070482 24826 net.cpp:148] Top shape: 24 38 (912)
I0403 21:57:19.070516 24826 net.cpp:156] Memory required for data: 1208421216
I0403 21:57:19.070536 24826 layer_factory.hpp:77] Creating layer loss2/classifier_plantvillage_loss2/classifier_plantvillage_0_split
I0403 21:57:19.070554 24826 net.cpp:91] Creating Layer loss2/classifier_plantvillage_loss2/classifier_plantvillage_0_split
I0403 21:57:19.070570 24826 net.cpp:425] loss2/classifier_plantvillage_loss2/classifier_plantvillage_0_split <- loss2/classifier_plantvillage
I0403 21:57:19.070588 24826 net.cpp:399] loss2/classifier_plantvillage_loss2/classifier_plantvillage_0_split -> loss2/classifier_plantvillage_loss2/classifier_plantvillage_0_split_0
I0403 21:57:19.070610 24826 net.cpp:399] loss2/classifier_plantvillage_loss2/classifier_plantvillage_0_split -> loss2/classifier_plantvillage_loss2/classifier_plantvillage_0_split_1
I0403 21:57:19.070631 24826 net.cpp:399] loss2/classifier_plantvillage_loss2/classifier_plantvillage_0_split -> loss2/classifier_plantvillage_loss2/classifier_plantvillage_0_split_2
I0403 21:57:19.070711 24826 net.cpp:141] Setting up loss2/classifier_plantvillage_loss2/classifier_plantvillage_0_split
I0403 21:57:19.070735 24826 net.cpp:148] Top shape: 24 38 (912)
I0403 21:57:19.070751 24826 net.cpp:148] Top shape: 24 38 (912)
I0403 21:57:19.070767 24826 net.cpp:148] Top shape: 24 38 (912)
I0403 21:57:19.070781 24826 net.cpp:156] Memory required for data: 1208432160
I0403 21:57:19.070796 24826 layer_factory.hpp:77] Creating layer inception_4e/1x1
I0403 21:57:19.070817 24826 net.cpp:91] Creating Layer inception_4e/1x1
I0403 21:57:19.070835 24826 net.cpp:425] inception_4e/1x1 <- inception_4d/output_inception_4d/output_0_split_1
I0403 21:57:19.070858 24826 net.cpp:399] inception_4e/1x1 -> inception_4e/1x1
I0403 21:57:19.072691 24826 net.cpp:141] Setting up inception_4e/1x1
I0403 21:57:19.072721 24826 net.cpp:148] Top shape: 24 256 14 14 (1204224)
I0403 21:57:19.072736 24826 net.cpp:156] Memory required for data: 1213249056
I0403 21:57:19.072756 24826 layer_factory.hpp:77] Creating layer inception_4e/relu_1x1
I0403 21:57:19.072777 24826 net.cpp:91] Creating Layer inception_4e/relu_1x1
I0403 21:57:19.072794 24826 net.cpp:425] inception_4e/relu_1x1 <- inception_4e/1x1
I0403 21:57:19.072813 24826 net.cpp:386] inception_4e/relu_1x1 -> inception_4e/1x1 (in-place)
I0403 21:57:19.073109 24826 net.cpp:141] Setting up inception_4e/relu_1x1
I0403 21:57:19.073135 24826 net.cpp:148] Top shape: 24 256 14 14 (1204224)
I0403 21:57:19.073151 24826 net.cpp:156] Memory required for data: 1218065952
I0403 21:57:19.073168 24826 layer_factory.hpp:77] Creating layer inception_4e/3x3_reduce
I0403 21:57:19.073190 24826 net.cpp:91] Creating Layer inception_4e/3x3_reduce
I0403 21:57:19.073209 24826 net.cpp:425] inception_4e/3x3_reduce <- inception_4d/output_inception_4d/output_0_split_2
I0403 21:57:19.073235 24826 net.cpp:399] inception_4e/3x3_reduce -> inception_4e/3x3_reduce
I0403 21:57:19.075388 24826 net.cpp:141] Setting up inception_4e/3x3_reduce
I0403 21:57:19.075417 24826 net.cpp:148] Top shape: 24 160 14 14 (752640)
I0403 21:57:19.075434 24826 net.cpp:156] Memory required for data: 1221076512
I0403 21:57:19.075453 24826 layer_factory.hpp:77] Creating layer inception_4e/relu_3x3_reduce
I0403 21:57:19.075474 24826 net.cpp:91] Creating Layer inception_4e/relu_3x3_reduce
I0403 21:57:19.075492 24826 net.cpp:425] inception_4e/relu_3x3_reduce <- inception_4e/3x3_reduce
I0403 21:57:19.075510 24826 net.cpp:386] inception_4e/relu_3x3_reduce -> inception_4e/3x3_reduce (in-place)
I0403 21:57:19.075696 24826 net.cpp:141] Setting up inception_4e/relu_3x3_reduce
I0403 21:57:19.075723 24826 net.cpp:148] Top shape: 24 160 14 14 (752640)
I0403 21:57:19.075738 24826 net.cpp:156] Memory required for data: 1224087072
I0403 21:57:19.075753 24826 layer_factory.hpp:77] Creating layer inception_4e/3x3
I0403 21:57:19.075776 24826 net.cpp:91] Creating Layer inception_4e/3x3
I0403 21:57:19.075795 24826 net.cpp:425] inception_4e/3x3 <- inception_4e/3x3_reduce
I0403 21:57:19.075815 24826 net.cpp:399] inception_4e/3x3 -> inception_4e/3x3
I0403 21:57:19.081737 24826 net.cpp:141] Setting up inception_4e/3x3
I0403 21:57:19.081784 24826 net.cpp:148] Top shape: 24 320 14 14 (1505280)
I0403 21:57:19.081804 24826 net.cpp:156] Memory required for data: 1230108192
I0403 21:57:19.081822 24826 layer_factory.hpp:77] Creating layer inception_4e/relu_3x3
I0403 21:57:19.081843 24826 net.cpp:91] Creating Layer inception_4e/relu_3x3
I0403 21:57:19.081862 24826 net.cpp:425] inception_4e/relu_3x3 <- inception_4e/3x3
I0403 21:57:19.081881 24826 net.cpp:386] inception_4e/relu_3x3 -> inception_4e/3x3 (in-place)
I0403 21:57:19.082185 24826 net.cpp:141] Setting up inception_4e/relu_3x3
I0403 21:57:19.082216 24826 net.cpp:148] Top shape: 24 320 14 14 (1505280)
I0403 21:57:19.082237 24826 net.cpp:156] Memory required for data: 1236129312
I0403 21:57:19.082254 24826 layer_factory.hpp:77] Creating layer inception_4e/5x5_reduce
I0403 21:57:19.082279 24826 net.cpp:91] Creating Layer inception_4e/5x5_reduce
I0403 21:57:19.082298 24826 net.cpp:425] inception_4e/5x5_reduce <- inception_4d/output_inception_4d/output_0_split_3
I0403 21:57:19.082319 24826 net.cpp:399] inception_4e/5x5_reduce -> inception_4e/5x5_reduce
I0403 21:57:19.083407 24826 net.cpp:141] Setting up inception_4e/5x5_reduce
I0403 21:57:19.083436 24826 net.cpp:148] Top shape: 24 32 14 14 (150528)
I0403 21:57:19.083453 24826 net.cpp:156] Memory required for data: 1236731424
I0403 21:57:19.083472 24826 layer_factory.hpp:77] Creating layer inception_4e/relu_5x5_reduce
I0403 21:57:19.083493 24826 net.cpp:91] Creating Layer inception_4e/relu_5x5_reduce
I0403 21:57:19.083513 24826 net.cpp:425] inception_4e/relu_5x5_reduce <- inception_4e/5x5_reduce
I0403 21:57:19.083530 24826 net.cpp:386] inception_4e/relu_5x5_reduce -> inception_4e/5x5_reduce (in-place)
I0403 21:57:19.083828 24826 net.cpp:141] Setting up inception_4e/relu_5x5_reduce
I0403 21:57:19.083854 24826 net.cpp:148] Top shape: 24 32 14 14 (150528)
I0403 21:57:19.083869 24826 net.cpp:156] Memory required for data: 1237333536
I0403 21:57:19.083885 24826 layer_factory.hpp:77] Creating layer inception_4e/5x5
I0403 21:57:19.083923 24826 net.cpp:91] Creating Layer inception_4e/5x5
I0403 21:57:19.083942 24826 net.cpp:425] inception_4e/5x5 <- inception_4e/5x5_reduce
I0403 21:57:19.083963 24826 net.cpp:399] inception_4e/5x5 -> inception_4e/5x5
I0403 21:57:19.085821 24826 net.cpp:141] Setting up inception_4e/5x5
I0403 21:57:19.085850 24826 net.cpp:148] Top shape: 24 128 14 14 (602112)
I0403 21:57:19.085866 24826 net.cpp:156] Memory required for data: 1239741984
I0403 21:57:19.085886 24826 layer_factory.hpp:77] Creating layer inception_4e/relu_5x5
I0403 21:57:19.085906 24826 net.cpp:91] Creating Layer inception_4e/relu_5x5
I0403 21:57:19.085923 24826 net.cpp:425] inception_4e/relu_5x5 <- inception_4e/5x5
I0403 21:57:19.085943 24826 net.cpp:386] inception_4e/relu_5x5 -> inception_4e/5x5 (in-place)
I0403 21:57:19.086141 24826 net.cpp:141] Setting up inception_4e/relu_5x5
I0403 21:57:19.086168 24826 net.cpp:148] Top shape: 24 128 14 14 (602112)
I0403 21:57:19.086184 24826 net.cpp:156] Memory required for data: 1242150432
I0403 21:57:19.086199 24826 layer_factory.hpp:77] Creating layer inception_4e/pool
I0403 21:57:19.086220 24826 net.cpp:91] Creating Layer inception_4e/pool
I0403 21:57:19.086242 24826 net.cpp:425] inception_4e/pool <- inception_4d/output_inception_4d/output_0_split_4
I0403 21:57:19.086261 24826 net.cpp:399] inception_4e/pool -> inception_4e/pool
I0403 21:57:19.086333 24826 net.cpp:141] Setting up inception_4e/pool
I0403 21:57:19.086359 24826 net.cpp:148] Top shape: 24 528 14 14 (2483712)
I0403 21:57:19.086374 24826 net.cpp:156] Memory required for data: 1252085280
I0403 21:57:19.086390 24826 layer_factory.hpp:77] Creating layer inception_4e/pool_proj
I0403 21:57:19.086412 24826 net.cpp:91] Creating Layer inception_4e/pool_proj
I0403 21:57:19.086431 24826 net.cpp:425] inception_4e/pool_proj <- inception_4e/pool
I0403 21:57:19.086452 24826 net.cpp:399] inception_4e/pool_proj -> inception_4e/pool_proj
I0403 21:57:19.087960 24826 net.cpp:141] Setting up inception_4e/pool_proj
I0403 21:57:19.087999 24826 net.cpp:148] Top shape: 24 128 14 14 (602112)
I0403 21:57:19.088017 24826 net.cpp:156] Memory required for data: 1254493728
I0403 21:57:19.088037 24826 layer_factory.hpp:77] Creating layer inception_4e/relu_pool_proj
I0403 21:57:19.088055 24826 net.cpp:91] Creating Layer inception_4e/relu_pool_proj
I0403 21:57:19.088073 24826 net.cpp:425] inception_4e/relu_pool_proj <- inception_4e/pool_proj
I0403 21:57:19.088093 24826 net.cpp:386] inception_4e/relu_pool_proj -> inception_4e/pool_proj (in-place)
I0403 21:57:19.088403 24826 net.cpp:141] Setting up inception_4e/relu_pool_proj
I0403 21:57:19.088430 24826 net.cpp:148] Top shape: 24 128 14 14 (602112)
I0403 21:57:19.088446 24826 net.cpp:156] Memory required for data: 1256902176
I0403 21:57:19.088461 24826 layer_factory.hpp:77] Creating layer inception_4e/output
I0403 21:57:19.088480 24826 net.cpp:91] Creating Layer inception_4e/output
I0403 21:57:19.088498 24826 net.cpp:425] inception_4e/output <- inception_4e/1x1
I0403 21:57:19.088515 24826 net.cpp:425] inception_4e/output <- inception_4e/3x3
I0403 21:57:19.088532 24826 net.cpp:425] inception_4e/output <- inception_4e/5x5
I0403 21:57:19.088548 24826 net.cpp:425] inception_4e/output <- inception_4e/pool_proj
I0403 21:57:19.088567 24826 net.cpp:399] inception_4e/output -> inception_4e/output
I0403 21:57:19.088618 24826 net.cpp:141] Setting up inception_4e/output
I0403 21:57:19.088645 24826 net.cpp:148] Top shape: 24 832 14 14 (3913728)
I0403 21:57:19.088661 24826 net.cpp:156] Memory required for data: 1272557088
I0403 21:57:19.088676 24826 layer_factory.hpp:77] Creating layer pool4/3x3_s2
I0403 21:57:19.088696 24826 net.cpp:91] Creating Layer pool4/3x3_s2
I0403 21:57:19.088711 24826 net.cpp:425] pool4/3x3_s2 <- inception_4e/output
I0403 21:57:19.088729 24826 net.cpp:399] pool4/3x3_s2 -> pool4/3x3_s2
I0403 21:57:19.088801 24826 net.cpp:141] Setting up pool4/3x3_s2
I0403 21:57:19.088826 24826 net.cpp:148] Top shape: 24 832 7 7 (978432)
I0403 21:57:19.088842 24826 net.cpp:156] Memory required for data: 1276470816
I0403 21:57:19.088857 24826 layer_factory.hpp:77] Creating layer pool4/3x3_s2_pool4/3x3_s2_0_split
I0403 21:57:19.088876 24826 net.cpp:91] Creating Layer pool4/3x3_s2_pool4/3x3_s2_0_split
I0403 21:57:19.088891 24826 net.cpp:425] pool4/3x3_s2_pool4/3x3_s2_0_split <- pool4/3x3_s2
I0403 21:57:19.088910 24826 net.cpp:399] pool4/3x3_s2_pool4/3x3_s2_0_split -> pool4/3x3_s2_pool4/3x3_s2_0_split_0
I0403 21:57:19.088933 24826 net.cpp:399] pool4/3x3_s2_pool4/3x3_s2_0_split -> pool4/3x3_s2_pool4/3x3_s2_0_split_1
I0403 21:57:19.088954 24826 net.cpp:399] pool4/3x3_s2_pool4/3x3_s2_0_split -> pool4/3x3_s2_pool4/3x3_s2_0_split_2
I0403 21:57:19.088975 24826 net.cpp:399] pool4/3x3_s2_pool4/3x3_s2_0_split -> pool4/3x3_s2_pool4/3x3_s2_0_split_3
I0403 21:57:19.089072 24826 net.cpp:141] Setting up pool4/3x3_s2_pool4/3x3_s2_0_split
I0403 21:57:19.089097 24826 net.cpp:148] Top shape: 24 832 7 7 (978432)
I0403 21:57:19.089114 24826 net.cpp:148] Top shape: 24 832 7 7 (978432)
I0403 21:57:19.089130 24826 net.cpp:148] Top shape: 24 832 7 7 (978432)
I0403 21:57:19.089148 24826 net.cpp:148] Top shape: 24 832 7 7 (978432)
I0403 21:57:19.089162 24826 net.cpp:156] Memory required for data: 1292125728
I0403 21:57:19.089179 24826 layer_factory.hpp:77] Creating layer inception_5a/1x1
I0403 21:57:19.089200 24826 net.cpp:91] Creating Layer inception_5a/1x1
I0403 21:57:19.089218 24826 net.cpp:425] inception_5a/1x1 <- pool4/3x3_s2_pool4/3x3_s2_0_split_0
I0403 21:57:19.089246 24826 net.cpp:399] inception_5a/1x1 -> inception_5a/1x1
I0403 21:57:19.092141 24826 net.cpp:141] Setting up inception_5a/1x1
I0403 21:57:19.092171 24826 net.cpp:148] Top shape: 24 256 7 7 (301056)
I0403 21:57:19.092188 24826 net.cpp:156] Memory required for data: 1293329952
I0403 21:57:19.092208 24826 layer_factory.hpp:77] Creating layer inception_5a/relu_1x1
I0403 21:57:19.092232 24826 net.cpp:91] Creating Layer inception_5a/relu_1x1
I0403 21:57:19.092252 24826 net.cpp:425] inception_5a/relu_1x1 <- inception_5a/1x1
I0403 21:57:19.092269 24826 net.cpp:386] inception_5a/relu_1x1 -> inception_5a/1x1 (in-place)
I0403 21:57:19.092586 24826 net.cpp:141] Setting up inception_5a/relu_1x1
I0403 21:57:19.092612 24826 net.cpp:148] Top shape: 24 256 7 7 (301056)
I0403 21:57:19.092629 24826 net.cpp:156] Memory required for data: 1294534176
I0403 21:57:19.092644 24826 layer_factory.hpp:77] Creating layer inception_5a/3x3_reduce
I0403 21:57:19.092666 24826 net.cpp:91] Creating Layer inception_5a/3x3_reduce
I0403 21:57:19.092686 24826 net.cpp:425] inception_5a/3x3_reduce <- pool4/3x3_s2_pool4/3x3_s2_0_split_1
I0403 21:57:19.092710 24826 net.cpp:399] inception_5a/3x3_reduce -> inception_5a/3x3_reduce
I0403 21:57:19.095188 24826 net.cpp:141] Setting up inception_5a/3x3_reduce
I0403 21:57:19.095221 24826 net.cpp:148] Top shape: 24 160 7 7 (188160)
I0403 21:57:19.095242 24826 net.cpp:156] Memory required for data: 1295286816
I0403 21:57:19.095262 24826 layer_factory.hpp:77] Creating layer inception_5a/relu_3x3_reduce
I0403 21:57:19.095281 24826 net.cpp:91] Creating Layer inception_5a/relu_3x3_reduce
I0403 21:57:19.095298 24826 net.cpp:425] inception_5a/relu_3x3_reduce <- inception_5a/3x3_reduce
I0403 21:57:19.095315 24826 net.cpp:386] inception_5a/relu_3x3_reduce -> inception_5a/3x3_reduce (in-place)
I0403 21:57:19.095507 24826 net.cpp:141] Setting up inception_5a/relu_3x3_reduce
I0403 21:57:19.095533 24826 net.cpp:148] Top shape: 24 160 7 7 (188160)
I0403 21:57:19.095547 24826 net.cpp:156] Memory required for data: 1296039456
I0403 21:57:19.095562 24826 layer_factory.hpp:77] Creating layer inception_5a/3x3
I0403 21:57:19.095585 24826 net.cpp:91] Creating Layer inception_5a/3x3
I0403 21:57:19.095604 24826 net.cpp:425] inception_5a/3x3 <- inception_5a/3x3_reduce
I0403 21:57:19.095628 24826 net.cpp:399] inception_5a/3x3 -> inception_5a/3x3
I0403 21:57:19.100704 24826 net.cpp:141] Setting up inception_5a/3x3
I0403 21:57:19.100734 24826 net.cpp:148] Top shape: 24 320 7 7 (376320)
I0403 21:57:19.100751 24826 net.cpp:156] Memory required for data: 1297544736
I0403 21:57:19.100770 24826 layer_factory.hpp:77] Creating layer inception_5a/relu_3x3
I0403 21:57:19.100788 24826 net.cpp:91] Creating Layer inception_5a/relu_3x3
I0403 21:57:19.100806 24826 net.cpp:425] inception_5a/relu_3x3 <- inception_5a/3x3
I0403 21:57:19.100826 24826 net.cpp:386] inception_5a/relu_3x3 -> inception_5a/3x3 (in-place)
I0403 21:57:19.101122 24826 net.cpp:141] Setting up inception_5a/relu_3x3
I0403 21:57:19.101150 24826 net.cpp:148] Top shape: 24 320 7 7 (376320)
I0403 21:57:19.101164 24826 net.cpp:156] Memory required for data: 1299050016
I0403 21:57:19.101179 24826 layer_factory.hpp:77] Creating layer inception_5a/5x5_reduce
I0403 21:57:19.101203 24826 net.cpp:91] Creating Layer inception_5a/5x5_reduce
I0403 21:57:19.101222 24826 net.cpp:425] inception_5a/5x5_reduce <- pool4/3x3_s2_pool4/3x3_s2_0_split_2
I0403 21:57:19.101249 24826 net.cpp:399] inception_5a/5x5_reduce -> inception_5a/5x5_reduce
I0403 21:57:19.102427 24826 net.cpp:141] Setting up inception_5a/5x5_reduce
I0403 21:57:19.102458 24826 net.cpp:148] Top shape: 24 32 7 7 (37632)
I0403 21:57:19.102476 24826 net.cpp:156] Memory required for data: 1299200544
I0403 21:57:19.102495 24826 layer_factory.hpp:77] Creating layer inception_5a/relu_5x5_reduce
I0403 21:57:19.102516 24826 net.cpp:91] Creating Layer inception_5a/relu_5x5_reduce
I0403 21:57:19.102533 24826 net.cpp:425] inception_5a/relu_5x5_reduce <- inception_5a/5x5_reduce
I0403 21:57:19.102550 24826 net.cpp:386] inception_5a/relu_5x5_reduce -> inception_5a/5x5_reduce (in-place)
I0403 21:57:19.102849 24826 net.cpp:141] Setting up inception_5a/relu_5x5_reduce
I0403 21:57:19.102875 24826 net.cpp:148] Top shape: 24 32 7 7 (37632)
I0403 21:57:19.102891 24826 net.cpp:156] Memory required for data: 1299351072
I0403 21:57:19.102907 24826 layer_factory.hpp:77] Creating layer inception_5a/5x5
I0403 21:57:19.102931 24826 net.cpp:91] Creating Layer inception_5a/5x5
I0403 21:57:19.102951 24826 net.cpp:425] inception_5a/5x5 <- inception_5a/5x5_reduce
I0403 21:57:19.102974 24826 net.cpp:399] inception_5a/5x5 -> inception_5a/5x5
I0403 21:57:19.104722 24826 net.cpp:141] Setting up inception_5a/5x5
I0403 21:57:19.104763 24826 net.cpp:148] Top shape: 24 128 7 7 (150528)
I0403 21:57:19.104779 24826 net.cpp:156] Memory required for data: 1299953184
I0403 21:57:19.104797 24826 layer_factory.hpp:77] Creating layer inception_5a/relu_5x5
I0403 21:57:19.104816 24826 net.cpp:91] Creating Layer inception_5a/relu_5x5
I0403 21:57:19.104833 24826 net.cpp:425] inception_5a/relu_5x5 <- inception_5a/5x5
I0403 21:57:19.104853 24826 net.cpp:386] inception_5a/relu_5x5 -> inception_5a/5x5 (in-place)
I0403 21:57:19.105047 24826 net.cpp:141] Setting up inception_5a/relu_5x5
I0403 21:57:19.105073 24826 net.cpp:148] Top shape: 24 128 7 7 (150528)
I0403 21:57:19.105089 24826 net.cpp:156] Memory required for data: 1300555296
I0403 21:57:19.105104 24826 layer_factory.hpp:77] Creating layer inception_5a/pool
I0403 21:57:19.105125 24826 net.cpp:91] Creating Layer inception_5a/pool
I0403 21:57:19.105142 24826 net.cpp:425] inception_5a/pool <- pool4/3x3_s2_pool4/3x3_s2_0_split_3
I0403 21:57:19.105161 24826 net.cpp:399] inception_5a/pool -> inception_5a/pool
I0403 21:57:19.105238 24826 net.cpp:141] Setting up inception_5a/pool
I0403 21:57:19.105263 24826 net.cpp:148] Top shape: 24 832 7 7 (978432)
I0403 21:57:19.105278 24826 net.cpp:156] Memory required for data: 1304469024
I0403 21:57:19.105293 24826 layer_factory.hpp:77] Creating layer inception_5a/pool_proj
I0403 21:57:19.105316 24826 net.cpp:91] Creating Layer inception_5a/pool_proj
I0403 21:57:19.105335 24826 net.cpp:425] inception_5a/pool_proj <- inception_5a/pool
I0403 21:57:19.105356 24826 net.cpp:399] inception_5a/pool_proj -> inception_5a/pool_proj
I0403 21:57:19.107738 24826 net.cpp:141] Setting up inception_5a/pool_proj
I0403 21:57:19.107771 24826 net.cpp:148] Top shape: 24 128 7 7 (150528)
I0403 21:57:19.107790 24826 net.cpp:156] Memory required for data: 1305071136
I0403 21:57:19.107810 24826 layer_factory.hpp:77] Creating layer inception_5a/relu_pool_proj
I0403 21:57:19.107831 24826 net.cpp:91] Creating Layer inception_5a/relu_pool_proj
I0403 21:57:19.107847 24826 net.cpp:425] inception_5a/relu_pool_proj <- inception_5a/pool_proj
I0403 21:57:19.107869 24826 net.cpp:386] inception_5a/relu_pool_proj -> inception_5a/pool_proj (in-place)
I0403 21:57:19.108180 24826 net.cpp:141] Setting up inception_5a/relu_pool_proj
I0403 21:57:19.108209 24826 net.cpp:148] Top shape: 24 128 7 7 (150528)
I0403 21:57:19.108235 24826 net.cpp:156] Memory required for data: 1305673248
I0403 21:57:19.108256 24826 layer_factory.hpp:77] Creating layer inception_5a/output
I0403 21:57:19.108276 24826 net.cpp:91] Creating Layer inception_5a/output
I0403 21:57:19.108295 24826 net.cpp:425] inception_5a/output <- inception_5a/1x1
I0403 21:57:19.108314 24826 net.cpp:425] inception_5a/output <- inception_5a/3x3
I0403 21:57:19.108330 24826 net.cpp:425] inception_5a/output <- inception_5a/5x5
I0403 21:57:19.108346 24826 net.cpp:425] inception_5a/output <- inception_5a/pool_proj
I0403 21:57:19.108366 24826 net.cpp:399] inception_5a/output -> inception_5a/output
I0403 21:57:19.108419 24826 net.cpp:141] Setting up inception_5a/output
I0403 21:57:19.108443 24826 net.cpp:148] Top shape: 24 832 7 7 (978432)
I0403 21:57:19.108460 24826 net.cpp:156] Memory required for data: 1309586976
I0403 21:57:19.108476 24826 layer_factory.hpp:77] Creating layer inception_5a/output_inception_5a/output_0_split
I0403 21:57:19.108496 24826 net.cpp:91] Creating Layer inception_5a/output_inception_5a/output_0_split
I0403 21:57:19.108513 24826 net.cpp:425] inception_5a/output_inception_5a/output_0_split <- inception_5a/output
I0403 21:57:19.108532 24826 net.cpp:399] inception_5a/output_inception_5a/output_0_split -> inception_5a/output_inception_5a/output_0_split_0
I0403 21:57:19.108554 24826 net.cpp:399] inception_5a/output_inception_5a/output_0_split -> inception_5a/output_inception_5a/output_0_split_1
I0403 21:57:19.108582 24826 net.cpp:399] inception_5a/output_inception_5a/output_0_split -> inception_5a/output_inception_5a/output_0_split_2
I0403 21:57:19.108604 24826 net.cpp:399] inception_5a/output_inception_5a/output_0_split -> inception_5a/output_inception_5a/output_0_split_3
I0403 21:57:19.108719 24826 net.cpp:141] Setting up inception_5a/output_inception_5a/output_0_split
I0403 21:57:19.108744 24826 net.cpp:148] Top shape: 24 832 7 7 (978432)
I0403 21:57:19.108763 24826 net.cpp:148] Top shape: 24 832 7 7 (978432)
I0403 21:57:19.108780 24826 net.cpp:148] Top shape: 24 832 7 7 (978432)
I0403 21:57:19.108798 24826 net.cpp:148] Top shape: 24 832 7 7 (978432)
I0403 21:57:19.108813 24826 net.cpp:156] Memory required for data: 1325241888
I0403 21:57:19.108827 24826 layer_factory.hpp:77] Creating layer inception_5b/1x1
I0403 21:57:19.108850 24826 net.cpp:91] Creating Layer inception_5b/1x1
I0403 21:57:19.108870 24826 net.cpp:425] inception_5b/1x1 <- inception_5a/output_inception_5a/output_0_split_0
I0403 21:57:19.108893 24826 net.cpp:399] inception_5b/1x1 -> inception_5b/1x1
I0403 21:57:19.112843 24826 net.cpp:141] Setting up inception_5b/1x1
I0403 21:57:19.112877 24826 net.cpp:148] Top shape: 24 384 7 7 (451584)
I0403 21:57:19.112895 24826 net.cpp:156] Memory required for data: 1327048224
I0403 21:57:19.112915 24826 layer_factory.hpp:77] Creating layer inception_5b/relu_1x1
I0403 21:57:19.112936 24826 net.cpp:91] Creating Layer inception_5b/relu_1x1
I0403 21:57:19.112952 24826 net.cpp:425] inception_5b/relu_1x1 <- inception_5b/1x1
I0403 21:57:19.112973 24826 net.cpp:386] inception_5b/relu_1x1 -> inception_5b/1x1 (in-place)
I0403 21:57:19.113296 24826 net.cpp:141] Setting up inception_5b/relu_1x1
I0403 21:57:19.113325 24826 net.cpp:148] Top shape: 24 384 7 7 (451584)
I0403 21:57:19.113343 24826 net.cpp:156] Memory required for data: 1328854560
I0403 21:57:19.113358 24826 layer_factory.hpp:77] Creating layer inception_5b/3x3_reduce
I0403 21:57:19.113381 24826 net.cpp:91] Creating Layer inception_5b/3x3_reduce
I0403 21:57:19.113401 24826 net.cpp:425] inception_5b/3x3_reduce <- inception_5a/output_inception_5a/output_0_split_1
I0403 21:57:19.113422 24826 net.cpp:399] inception_5b/3x3_reduce -> inception_5b/3x3_reduce
I0403 21:57:19.116194 24826 net.cpp:141] Setting up inception_5b/3x3_reduce
I0403 21:57:19.116230 24826 net.cpp:148] Top shape: 24 192 7 7 (225792)
I0403 21:57:19.116251 24826 net.cpp:156] Memory required for data: 1329757728
I0403 21:57:19.116271 24826 layer_factory.hpp:77] Creating layer inception_5b/relu_3x3_reduce
I0403 21:57:19.116291 24826 net.cpp:91] Creating Layer inception_5b/relu_3x3_reduce
I0403 21:57:19.116309 24826 net.cpp:425] inception_5b/relu_3x3_reduce <- inception_5b/3x3_reduce
I0403 21:57:19.116330 24826 net.cpp:386] inception_5b/relu_3x3_reduce -> inception_5b/3x3_reduce (in-place)
I0403 21:57:19.116530 24826 net.cpp:141] Setting up inception_5b/relu_3x3_reduce
I0403 21:57:19.116557 24826 net.cpp:148] Top shape: 24 192 7 7 (225792)
I0403 21:57:19.116574 24826 net.cpp:156] Memory required for data: 1330660896
I0403 21:57:19.116588 24826 layer_factory.hpp:77] Creating layer inception_5b/3x3
I0403 21:57:19.116612 24826 net.cpp:91] Creating Layer inception_5b/3x3
I0403 21:57:19.116631 24826 net.cpp:425] inception_5b/3x3 <- inception_5b/3x3_reduce
I0403 21:57:19.116654 24826 net.cpp:399] inception_5b/3x3 -> inception_5b/3x3
I0403 21:57:19.123630 24826 net.cpp:141] Setting up inception_5b/3x3
I0403 21:57:19.123663 24826 net.cpp:148] Top shape: 24 384 7 7 (451584)
I0403 21:57:19.123680 24826 net.cpp:156] Memory required for data: 1332467232
I0403 21:57:19.123700 24826 layer_factory.hpp:77] Creating layer inception_5b/relu_3x3
I0403 21:57:19.123721 24826 net.cpp:91] Creating Layer inception_5b/relu_3x3
I0403 21:57:19.123739 24826 net.cpp:425] inception_5b/relu_3x3 <- inception_5b/3x3
I0403 21:57:19.123759 24826 net.cpp:386] inception_5b/relu_3x3 -> inception_5b/3x3 (in-place)
I0403 21:57:19.124065 24826 net.cpp:141] Setting up inception_5b/relu_3x3
I0403 21:57:19.124099 24826 net.cpp:148] Top shape: 24 384 7 7 (451584)
I0403 21:57:19.124116 24826 net.cpp:156] Memory required for data: 1334273568
I0403 21:57:19.124133 24826 layer_factory.hpp:77] Creating layer inception_5b/5x5_reduce
I0403 21:57:19.124172 24826 net.cpp:91] Creating Layer inception_5b/5x5_reduce
I0403 21:57:19.124193 24826 net.cpp:425] inception_5b/5x5_reduce <- inception_5a/output_inception_5a/output_0_split_2
I0403 21:57:19.124224 24826 net.cpp:399] inception_5b/5x5_reduce -> inception_5b/5x5_reduce
I0403 21:57:19.125540 24826 net.cpp:141] Setting up inception_5b/5x5_reduce
I0403 21:57:19.125569 24826 net.cpp:148] Top shape: 24 48 7 7 (56448)
I0403 21:57:19.125586 24826 net.cpp:156] Memory required for data: 1334499360
I0403 21:57:19.125605 24826 layer_factory.hpp:77] Creating layer inception_5b/relu_5x5_reduce
I0403 21:57:19.125624 24826 net.cpp:91] Creating Layer inception_5b/relu_5x5_reduce
I0403 21:57:19.125641 24826 net.cpp:425] inception_5b/relu_5x5_reduce <- inception_5b/5x5_reduce
I0403 21:57:19.125663 24826 net.cpp:386] inception_5b/relu_5x5_reduce -> inception_5b/5x5_reduce (in-place)
I0403 21:57:19.126039 24826 net.cpp:141] Setting up inception_5b/relu_5x5_reduce
I0403 21:57:19.126067 24826 net.cpp:148] Top shape: 24 48 7 7 (56448)
I0403 21:57:19.126083 24826 net.cpp:156] Memory required for data: 1334725152
I0403 21:57:19.126098 24826 layer_factory.hpp:77] Creating layer inception_5b/5x5
I0403 21:57:19.126118 24826 net.cpp:91] Creating Layer inception_5b/5x5
I0403 21:57:19.126137 24826 net.cpp:425] inception_5b/5x5 <- inception_5b/5x5_reduce
I0403 21:57:19.126157 24826 net.cpp:399] inception_5b/5x5 -> inception_5b/5x5
I0403 21:57:19.128238 24826 net.cpp:141] Setting up inception_5b/5x5
I0403 21:57:19.128268 24826 net.cpp:148] Top shape: 24 128 7 7 (150528)
I0403 21:57:19.128284 24826 net.cpp:156] Memory required for data: 1335327264
I0403 21:57:19.128304 24826 layer_factory.hpp:77] Creating layer inception_5b/relu_5x5
I0403 21:57:19.128324 24826 net.cpp:91] Creating Layer inception_5b/relu_5x5
I0403 21:57:19.128342 24826 net.cpp:425] inception_5b/relu_5x5 <- inception_5b/5x5
I0403 21:57:19.128360 24826 net.cpp:386] inception_5b/relu_5x5 -> inception_5b/5x5 (in-place)
I0403 21:57:19.128553 24826 net.cpp:141] Setting up inception_5b/relu_5x5
I0403 21:57:19.128579 24826 net.cpp:148] Top shape: 24 128 7 7 (150528)
I0403 21:57:19.128594 24826 net.cpp:156] Memory required for data: 1335929376
I0403 21:57:19.128609 24826 layer_factory.hpp:77] Creating layer inception_5b/pool
I0403 21:57:19.128629 24826 net.cpp:91] Creating Layer inception_5b/pool
I0403 21:57:19.128648 24826 net.cpp:425] inception_5b/pool <- inception_5a/output_inception_5a/output_0_split_3
I0403 21:57:19.128667 24826 net.cpp:399] inception_5b/pool -> inception_5b/pool
I0403 21:57:19.128742 24826 net.cpp:141] Setting up inception_5b/pool
I0403 21:57:19.128768 24826 net.cpp:148] Top shape: 24 832 7 7 (978432)
I0403 21:57:19.128783 24826 net.cpp:156] Memory required for data: 1339843104
I0403 21:57:19.128798 24826 layer_factory.hpp:77] Creating layer inception_5b/pool_proj
I0403 21:57:19.128821 24826 net.cpp:91] Creating Layer inception_5b/pool_proj
I0403 21:57:19.128840 24826 net.cpp:425] inception_5b/pool_proj <- inception_5b/pool
I0403 21:57:19.128861 24826 net.cpp:399] inception_5b/pool_proj -> inception_5b/pool_proj
I0403 21:57:19.131193 24826 net.cpp:141] Setting up inception_5b/pool_proj
I0403 21:57:19.131223 24826 net.cpp:148] Top shape: 24 128 7 7 (150528)
I0403 21:57:19.131245 24826 net.cpp:156] Memory required for data: 1340445216
I0403 21:57:19.131264 24826 layer_factory.hpp:77] Creating layer inception_5b/relu_pool_proj
I0403 21:57:19.131284 24826 net.cpp:91] Creating Layer inception_5b/relu_pool_proj
I0403 21:57:19.131304 24826 net.cpp:425] inception_5b/relu_pool_proj <- inception_5b/pool_proj
I0403 21:57:19.131325 24826 net.cpp:386] inception_5b/relu_pool_proj -> inception_5b/pool_proj (in-place)
I0403 21:57:19.131628 24826 net.cpp:141] Setting up inception_5b/relu_pool_proj
I0403 21:57:19.131654 24826 net.cpp:148] Top shape: 24 128 7 7 (150528)
I0403 21:57:19.131670 24826 net.cpp:156] Memory required for data: 1341047328
I0403 21:57:19.131686 24826 layer_factory.hpp:77] Creating layer inception_5b/output
I0403 21:57:19.131705 24826 net.cpp:91] Creating Layer inception_5b/output
I0403 21:57:19.131736 24826 net.cpp:425] inception_5b/output <- inception_5b/1x1
I0403 21:57:19.131755 24826 net.cpp:425] inception_5b/output <- inception_5b/3x3
I0403 21:57:19.131772 24826 net.cpp:425] inception_5b/output <- inception_5b/5x5
I0403 21:57:19.131788 24826 net.cpp:425] inception_5b/output <- inception_5b/pool_proj
I0403 21:57:19.131808 24826 net.cpp:399] inception_5b/output -> inception_5b/output
I0403 21:57:19.131860 24826 net.cpp:141] Setting up inception_5b/output
I0403 21:57:19.131888 24826 net.cpp:148] Top shape: 24 1024 7 7 (1204224)
I0403 21:57:19.131904 24826 net.cpp:156] Memory required for data: 1345864224
I0403 21:57:19.131922 24826 layer_factory.hpp:77] Creating layer pool5/7x7_s1
I0403 21:57:19.131939 24826 net.cpp:91] Creating Layer pool5/7x7_s1
I0403 21:57:19.131955 24826 net.cpp:425] pool5/7x7_s1 <- inception_5b/output
I0403 21:57:19.131973 24826 net.cpp:399] pool5/7x7_s1 -> pool5/7x7_s1
I0403 21:57:19.132192 24826 net.cpp:141] Setting up pool5/7x7_s1
I0403 21:57:19.132220 24826 net.cpp:148] Top shape: 24 1024 1 1 (24576)
I0403 21:57:19.132239 24826 net.cpp:156] Memory required for data: 1345962528
I0403 21:57:19.132256 24826 layer_factory.hpp:77] Creating layer pool5/drop_7x7_s1
I0403 21:57:19.132275 24826 net.cpp:91] Creating Layer pool5/drop_7x7_s1
I0403 21:57:19.132292 24826 net.cpp:425] pool5/drop_7x7_s1 <- pool5/7x7_s1
I0403 21:57:19.132313 24826 net.cpp:386] pool5/drop_7x7_s1 -> pool5/7x7_s1 (in-place)
I0403 21:57:19.132364 24826 net.cpp:141] Setting up pool5/drop_7x7_s1
I0403 21:57:19.132391 24826 net.cpp:148] Top shape: 24 1024 1 1 (24576)
I0403 21:57:19.132407 24826 net.cpp:156] Memory required for data: 1346060832
I0403 21:57:19.132422 24826 layer_factory.hpp:77] Creating layer loss3/classifier_plantvillage
I0403 21:57:19.132442 24826 net.cpp:91] Creating Layer loss3/classifier_plantvillage
I0403 21:57:19.132460 24826 net.cpp:425] loss3/classifier_plantvillage <- pool5/7x7_s1
I0403 21:57:19.132482 24826 net.cpp:399] loss3/classifier_plantvillage -> loss3/classifier_plantvillage
I0403 21:57:19.132910 24826 net.cpp:141] Setting up loss3/classifier_plantvillage
I0403 21:57:19.132936 24826 net.cpp:148] Top shape: 24 38 (912)
I0403 21:57:19.132951 24826 net.cpp:156] Memory required for data: 1346064480
I0403 21:57:19.132971 24826 layer_factory.hpp:77] Creating layer loss3/classifier_plantvillage_loss3/classifier_plantvillage_0_split
I0403 21:57:19.132993 24826 net.cpp:91] Creating Layer loss3/classifier_plantvillage_loss3/classifier_plantvillage_0_split
I0403 21:57:19.133013 24826 net.cpp:425] loss3/classifier_plantvillage_loss3/classifier_plantvillage_0_split <- loss3/classifier_plantvillage
I0403 21:57:19.133029 24826 net.cpp:399] loss3/classifier_plantvillage_loss3/classifier_plantvillage_0_split -> loss3/classifier_plantvillage_loss3/classifier_plantvillage_0_split_0
I0403 21:57:19.133054 24826 net.cpp:399] loss3/classifier_plantvillage_loss3/classifier_plantvillage_0_split -> loss3/classifier_plantvillage_loss3/classifier_plantvillage_0_split_1
I0403 21:57:19.133075 24826 net.cpp:399] loss3/classifier_plantvillage_loss3/classifier_plantvillage_0_split -> loss3/classifier_plantvillage_loss3/classifier_plantvillage_0_split_2
I0403 21:57:19.133097 24826 net.cpp:399] loss3/classifier_plantvillage_loss3/classifier_plantvillage_0_split -> loss3/classifier_plantvillage_loss3/classifier_plantvillage_0_split_3
I0403 21:57:19.133200 24826 net.cpp:141] Setting up loss3/classifier_plantvillage_loss3/classifier_plantvillage_0_split
I0403 21:57:19.133224 24826 net.cpp:148] Top shape: 24 38 (912)
I0403 21:57:19.133245 24826 net.cpp:148] Top shape: 24 38 (912)
I0403 21:57:19.133262 24826 net.cpp:148] Top shape: 24 38 (912)
I0403 21:57:19.133277 24826 net.cpp:148] Top shape: 24 38 (912)
I0403 21:57:19.133292 24826 net.cpp:156] Memory required for data: 1346079072
I0403 21:57:19.133307 24826 layer_factory.hpp:77] Creating layer loss1/loss
I0403 21:57:19.133330 24826 net.cpp:91] Creating Layer loss1/loss
I0403 21:57:19.133348 24826 net.cpp:425] loss1/loss <- loss1/classifier_plantvillage_loss1/classifier_plantvillage_0_split_0
I0403 21:57:19.133379 24826 net.cpp:425] loss1/loss <- label_data_1_split_0
…
