…
I0403 21:39:25.570786 23770 net.cpp:313] The NetState phase (1) differed from the phase (0) specified by a rule in layer data
I0403 21:39:25.571916 23770 net.cpp:49] Initializing net from parameters: 
state {
  phase: TEST
}
layer {
  name: "data"
  type: "Data"
  top: "data"
  top: "label"
  include {
    phase: TEST
  }
  transform_param {
    mirror: false
    crop_size: 224
    mean_file: "/home/mohanty/data/final_dataset/lmdb/segmented-80-20/mean.binaryproto"
  }
  data_param {
    source: "/home/mohanty/data/final_dataset/lmdb/segmented-80-20/test_db"
    batch_size: 24
    backend: LMDB
  }
}
layer {
  name: "conv1/7x7_s2"
  type: "Convolution"
  bottom: "data"
  top: "conv1/7x7_s2"
  param {
    lr_mult: 1
    decay_mult: 1
  }
  param {
    lr_mult: 2
    decay_mult: 0
  }
  convolution_param {
    num_output: 64
    pad: 3
    kernel_size: 7
    stride: 2
    weight_filler {
      type: "xavier"
      std: 0.1
    }
    bias_filler {
      type: "constant"
      value: 0.2
    }
  }
}
layer {
  name: "conv1/relu_7x7"
  type: "ReLU"
  bottom: "conv1/7x7_s2"
  top: "conv1/7x7_s2"
}
layer {
  name: "pool1/3x3_s2"
  type: "Pooling"
  bottom: "conv1/7x7_s2"
  top: "pool1/3x3_s2"
  pooling_param {
    pool: MAX
    kernel_size: 3
    stride: 2
  }
}
layer {
  name: "pool1/norm1"
  type: "LRN"
  bottom: "pool1/3x3_s2"
  top: "pool1/norm1"
  lrn_param {
    local_size: 5
    alpha: 0.0001
    beta: 0.75
  }
}
layer {
  name: "conv2/3x3_reduce"
  type: "Convolution"
  bottom: "pool1/norm1"
  top: "conv2/3x3_reduce"
  param {
    lr_mult: 1
    decay_mult: 1
  }
  param {
    lr_mult: 2
    decay_mult: 0
  }
  convolution_param {
    num_output: 64
    kernel_size: 1
    weight_filler {
      type: "xavier"
      std: 0.1
    }
    bias_filler {
      type: "constant"
      value: 0.2
    }
  }
}
layer {
  name: "conv2/relu_3x3_reduce"
  type: "ReLU"
  bottom: "conv2/3x3_reduce"
  top: "conv2/3x3_reduce"
}
layer {
  name: "conv2/3x3"
  type: "Convolution"
  bottom: "conv2/3x3_reduce"
  top: "conv2/3x3"
  param {
    lr_mult: 1
    decay_mult: 1
  }
  param {
    lr_mult: 2
    decay_mult: 0
  }
  convolution_param {
    num_output: 192
    pad: 1
    kernel_size: 3
    weight_filler {
      type: "xavier"
      std: 0.03
    }
    bias_filler {
      type: "constant"
      value: 0.2
    }
  }
}
layer {
  name: "conv2/relu_3x3"
  type: "ReLU"
  bottom: "conv2/3x3"
  top: "conv2/3x3"
}
layer {
  name: "conv2/norm2"
  type: "LRN"
  bottom: "conv2/3x3"
  top: "conv2/norm2"
  lrn_param {
    local_size: 5
    alpha: 0.0001
    beta: 0.75
  }
}
layer {
  name: "pool2/3x3_s2"
  type: "Pooling"
  bottom: "conv2/norm2"
  top: "pool2/3x3_s2"
  pooling_param {
    pool: MAX
    kernel_size: 3
    stride: 2
  }
}
layer {
  name: "inception_3a/1x1"
  type: "Convolution"
  bottom: "pool2/3x3_s2"
  top: "inception_3a/1x1"
  param {
    lr_mult: 1
    decay_mult: 1
  }
  param {
    lr_mult: 2
    decay_mult: 0
  }
  convolution_param {
    num_output: 64
    kernel_size: 1
    weight_filler {
      type: "xavier"
      std: 0.03
    }
    bias_filler {
      type: "constant"
      value: 0.2
    }
  }
}
layer {
  name: "inception_3a/relu_1x1"
  type: "ReLU"
  bottom: "inception_3a/1x1"
  top: "inception_3a/1x1"
}
layer {
  name: "inception_3a/3x3_reduce"
  type: "Convolution"
  bottom: "pool2/3x3_s2"
  top: "inception_3a/3x3_reduce"
  param {
    lr_mult: 1
    decay_mult: 1
  }
  param {
    lr_mult: 2
    decay_mult: 0
  }
  convolution_param {
    num_output: 96
    kernel_size: 1
    weight_filler {
      type: "xavier"
      std: 0.09
    }
    bias_filler {
      type: "constant"
      value: 0.2
    }
  }
}
layer {
  name: "inception_3a/relu_3x3_reduce"
  type: "ReLU"
  bottom: "inception_3a/3x3_reduce"
  top: "inception_3a/3x3_reduce"
}
layer {
  name: "inception_3a/3x3"
  type: "Convolution"
  bottom: "inception_3a/3x3_reduce"
  top: "inception_3a/3x3"
  param {
    lr_mult: 1
    decay_mult: 1
  }
  param {
    lr_mult: 2
    decay_mult: 0
  }
  convolution_param {
    num_output: 128
    pad: 1
    kernel_size: 3
    weight_filler {
      type: "xavier"
      std: 0.03
    }
    bias_filler {
      type: "constant"
      value: 0.2
    }
  }
}
layer {
  name: "inception_3a/relu_3x3"
  type: "ReLU"
  bottom: "inception_3a/3x3"
  top: "inception_3a/3x3"
}
layer {
  name: "inception_3a/5x5_reduce"
  type: "Convolution"
  bottom: "pool2/3x3_s2"
  top: "inception_3a/5x5_reduce"
  param {
    lr_mult: 1
    decay_mult: 1
  }
  param {
    lr_mult: 2
    decay_mult: 0
  }
  convolution_param {
    num_output: 16
    kernel_size: 1
    weight_filler {
      type: "xavier"
      std: 0.2
    }
    bias_filler {
      type: "constant"
      value: 0.2
    }
  }
}
layer {
  name: "inception_3a/relu_5x5_reduce"
  type: "ReLU"
  bottom: "inception_3a/5x5_reduce"
  top: "inception_3a/5x5_reduce"
}
layer {
  name: "inception_3a/5x5"
  type: "Convolution"
  bottom: "inception_3a/5x5_reduce"
  top: "inception_3a/5x5"
  param {
    lr_mult: 1
    decay_mult: 1
  }
  param {
    lr_mult: 2
    decay_mult: 0
  }
  convolution_param {
    num_output: 32
    pad: 2
    kernel_size: 5
    weight_filler {
      type: "xavier"
      std: 0.03
    }
    bias_filler {
      type: "constant"
      value: 0.2
    }
  }
}
layer {
  name: "inception_3a/relu_5x5"
  type: "ReLU"
  bottom: "inception_3a/5x5"
  top: "inception_3a/5x5"
}
layer {
  name: "inception_3a/pool"
  type: "Pooling"
  bottom: "pool2/3x3_s2"
  top: "inception_3a/pool"
  pooling_param {
    pool: MAX
    kernel_size: 3
    stride: 1
    pad: 1
  }
}
layer {
  name: "inception_3a/pool_proj"
  type: "Convolution"
  bottom: "inception_3a/pool"
  top: "inception_3a/pool_proj"
  param {
    lr_mult: 1
    decay_mult: 1
  }
  param {
    lr_mult: 2
    decay_mult: 0
  }
  convolution_param {
    num_output: 32
    kernel_size: 1
    weight_filler {
      type: "xavier"
      std: 0.1
    }
    bias_filler {
      type: "constant"
      value: 0.2
    }
  }
}
layer {
  name: "inception_3a/relu_pool_proj"
  type: "ReLU"
  bottom: "inception_3a/pool_proj"
  top: "inception_3a/pool_proj"
}
layer {
  name: "inception_3a/output"
  type: "Concat"
  bottom: "inception_3a/1x1"
  bottom: "inception_3a/3x3"
  bottom: "inception_3a/5x5"
  bottom: "inception_3a/pool_proj"
  top: "inception_3a/output"
}
layer {
  name: "inception_3b/1x1"
  type: "Convolution"
  bottom: "inception_3a/output"
  top: "inception_3b/1x1"
  param {
    lr_mult: 1
    decay_mult: 1
  }
  param {
    lr_mult: 2
    decay_mult: 0
  }
  convolution_param {
    num_output: 128
    kernel_size: 1
    weight_filler {
      type: "xavier"
      std: 0.03
    }
    bias_filler {
      type: "constant"
      value: 0.2
    }
  }
}
layer {
  name: "inception_3b/relu_1x1"
  type: "ReLU"
  bottom: "inception_3b/1x1"
  top: "inception_3b/1x1"
}
layer {
  name: "inception_3b/3x3_reduce"
  type: "Convolution"
  bottom: "inception_3a/output"
  top: "inception_3b/3x3_reduce"
  param {
    lr_mult: 1
    decay_mult: 1
  }
  param {
    lr_mult: 2
    decay_mult: 0
  }
  convolution_param {
    num_output: 128
    kernel_size: 1
    weight_filler {
      type: "xavier"
      std: 0.09
    }
    bias_filler {
      type: "constant"
      value: 0.2
    }
  }
}
layer {
  name: "inception_3b/relu_3x3_reduce"
  type: "ReLU"
  bottom: "inception_3b/3x3_reduce"
  top: "inception_3b/3x3_reduce"
}
layer {
  name: "inception_3b/3x3"
  type: "Convolution"
  bottom: "inception_3b/3x3_reduce"
  top: "inception_3b/3x3"
  param {
    lr_mult: 1
    decay_mult: 1
  }
  param {
    lr_mult: 2
    decay_mult: 0
  }
  convolution_param {
    num_output: 192
    pad: 1
    kernel_size: 3
    weight_filler {
      type: "xavier"
      std: 0.03
    }
    bias_filler {
      type: "constant"
      value: 0.2
    }
  }
}
layer {
  name: "inception_3b/relu_3x3"
  type: "ReLU"
  bottom: "inception_3b/3x3"
  top: "inception_3b/3x3"
}
layer {
  name: "inception_3b/5x5_reduce"
  type: "Convolution"
  bottom: "inception_3a/output"
  top: "inception_3b/5x5_reduce"
  param {
    lr_mult: 1
    decay_mult: 1
  }
  param {
    lr_mult: 2
    decay_mult: 0
  }
  convolution_param {
    num_output: 32
    kernel_size: 1
    weight_filler {
      type: "xavier"
      std: 0.2
    }
    bias_filler {
      type: "constant"
      value: 0.2
    }
  }
}
layer {
  name: "inception_3b/relu_5x5_reduce"
  type: "ReLU"
  bottom: "inception_3b/5x5_reduce"
  top: "inception_3b/5x5_reduce"
}
layer {
  name: "inception_3b/5x5"
  type: "Convolution"
  bottom: "inception_3b/5x5_reduce"
  top: "inception_3b/5x5"
  param {
    lr_mult: 1
    decay_mult: 1
  }
  param {
    lr_mult: 2
    decay_mult: 0
  }
  convolution_param {
    num_output: 96
    pad: 2
    kernel_size: 5
    weight_filler {
      type: "xavier"
      std: 0.03
    }
    bias_filler {
      type: "constant"
      value: 0.2
    }
  }
}
layer {
  name: "inception_3b/relu_5x5"
  type: "ReLU"
  bottom: "inception_3b/5x5"
  top: "inception_3b/5x5"
}
layer {
  name: "inception_3b/pool"
  type: "Pooling"
  bottom: "inception_3a/output"
  top: "inception_3b/pool"
  pooling_param {
    pool: MAX
    kernel_size: 3
    stride: 1
    pad: 1
  }
}
layer {
  name: "inception_3b/pool_proj"
  type: "Convolution"
  bottom: "inception_3b/pool"
  top: "inception_3b/pool_proj"
  param {
    lr_mult: 1
    decay_mult: 1
  }
  param {
    lr_mult: 2
    decay_mult: 0
  }
  convolution_param {
    num_output: 64
    kernel_size: 1
    weight_filler {
      type: "xavier"
      std: 0.1
    }
    bias_filler {
      type: "constant"
      value: 0.2
    }
  }
}
layer {
  name: "inception_3b/relu_pool_proj"
  type: "ReLU"
  bottom: "inception_3b/pool_proj"
  top: "inception_3b/pool_proj"
}
layer {
  name: "inception_3b/output"
  type: "Concat"
  bottom: "inception_3b/1x1"
  bottom: "inception_3b/3x3"
  bottom: "inception_3b/5x5"
  bottom: "inception_3b/pool_proj"
  top: "inception_3b/output"
}
layer {
  name: "pool3/3x3_s2"
  type: "Pooling"
  bottom: "inception_3b/output"
  top: "pool3/3x3_s2"
  pooling_param {
    pool: MAX
    kernel_size: 3
    stride: 2
  }
}
layer {
  name: "inception_4a/1x1"
  type: "Convolution"
  bottom: "pool3/3x3_s2"
  top: "inception_4a/1x1"
  param {
    lr_mult: 1
    decay_mult: 1
  }
  param {
    lr_mult: 2
    decay_mult: 0
  }
  convolution_param {
    num_output: 192
    kernel_size: 1
    weight_filler {
      type: "xavier"
      std: 0.03
    }
    bias_filler {
      type: "constant"
      value: 0.2
    }
  }
}
layer {
  name: "inception_4a/relu_1x1"
  type: "ReLU"
  bottom: "inception_4a/1x1"
  top: "inception_4a/1x1"
}
layer {
  name: "inception_4a/3x3_reduce"
  type: "Convolution"
  bottom: "pool3/3x3_s2"
  top: "inception_4a/3x3_reduce"
  param {
    lr_mult: 1
    decay_mult: 1
  }
  param {
    lr_mult: 2
    decay_mult: 0
  }
  convolution_param {
    num_output: 96
    kernel_size: 1
    weight_filler {
      type: "xavier"
      std: 0.09
    }
    bias_filler {
      type: "constant"
      value: 0.2
    }
  }
}
layer {
  name: "inception_4a/relu_3x3_reduce"
  type: "ReLU"
  bottom: "inception_4a/3x3_reduce"
  top: "inception_4a/3x3_reduce"
}
layer {
  name: "inception_4a/3x3"
  type: "Convolution"
  bottom: "inception_4a/3x3_reduce"
  top: "inception_4a/3x3"
  param {
    lr_mult: 1
    decay_mult: 1
  }
  param {
    lr_mult: 2
    decay_mult: 0
  }
  convolution_param {
    num_output: 208
    pad: 1
    kernel_size: 3
    weight_filler {
      type: "xavier"
      std: 0.03
    }
    bias_filler {
      type: "constant"
      value: 0.2
    }
  }
}
layer {
  name: "inception_4a/relu_3x3"
  type: "ReLU"
  bottom: "inception_4a/3x3"
  top: "inception_4a/3x3"
}
layer {
  name: "inception_4a/5x5_reduce"
  type: "Convolution"
  bottom: "pool3/3x3_s2"
  top: "inception_4a/5x5_reduce"
  param {
    lr_mult: 1
    decay_mult: 1
  }
  param {
    lr_mult: 2
    decay_mult: 0
  }
  convolution_param {
    num_output: 16
    kernel_size: 1
    weight_filler {
      type: "xavier"
      std: 0.2
    }
    bias_filler {
      type: "constant"
      value: 0.2
    }
  }
}
layer {
  name: "inception_4a/relu_5x5_reduce"
  type: "ReLU"
  bottom: "inception_4a/5x5_reduce"
  top: "inception_4a/5x5_reduce"
}
layer {
  name: "inception_4a/5x5"
  type: "Convolution"
  bottom: "inception_4a/5x5_reduce"
  top: "inception_4a/5x5"
  param {
    lr_mult: 1
    decay_mult: 1
  }
  param {
    lr_mult: 2
    decay_mult: 0
  }
  convolution_param {
    num_output: 48
    pad: 2
    kernel_size: 5
    weight_filler {
      type: "xavier"
      std: 0.03
    }
    bias_filler {
      type: "constant"
      value: 0.2
    }
  }
}
layer {
  name: "inception_4a/relu_5x5"
  type: "ReLU"
  bottom: "inception_4a/5x5"
  top: "inception_4a/5x5"
}
layer {
  name: "inception_4a/pool"
  type: "Pooling"
  bottom: "pool3/3x3_s2"
  top: "inception_4a/pool"
  pooling_param {
    pool: MAX
    kernel_size: 3
    stride: 1
    pad: 1
  }
}
layer {
  name: "inception_4a/pool_proj"
  type: "Convolution"
  bottom: "inception_4a/pool"
  top: "inception_4a/pool_proj"
  param {
    lr_mult: 1
    decay_mult: 1
  }
  param {
    lr_mult: 2
    decay_mult: 0
  }
  convolution_param {
    num_output: 64
    kernel_size: 1
    weight_filler {
      type: "xavier"
      std: 0.1
    }
    bias_filler {
      type: "constant"
      value: 0.2
    }
  }
}
layer {
  name: "inception_4a/relu_pool_proj"
  type: "ReLU"
  bottom: "inception_4a/pool_proj"
  top: "inception_4a/pool_proj"
}
layer {
  name: "inception_4a/output"
  type: "Concat"
  bottom: "inception_4a/1x1"
  bottom: "inception_4a/3x3"
  bottom: "inception_4a/5x5"
  bottom: "inception_4a/pool_proj"
  top: "inception_4a/output"
}
layer {
  name: "loss1/ave_pool"
  type: "Pooling"
  bottom: "inception_4a/output"
  top: "loss1/ave_pool"
  pooling_param {
    pool: AVE
    kernel_size: 5
    stride: 3
  }
}
layer {
  name: "loss1/conv"
  type: "Convolution"
  bottom: "loss1/ave_pool"
  top: "loss1/conv"
  param {
    lr_mult: 1
    decay_mult: 1
  }
  param {
    lr_mult: 2
    decay_mult: 0
  }
  convolution_param {
    num_output: 128
    kernel_size: 1
    weight_filler {
      type: "xavier"
      std: 0.08
    }
    bias_filler {
      type: "constant"
      value: 0.2
    }
  }
}
layer {
  name: "loss1/relu_conv"
  type: "ReLU"
  bottom: "loss1/conv"
  top: "loss1/conv"
}
layer {
  name: "loss1/fc"
  type: "InnerProduct"
  bottom: "loss1/conv"
  top: "loss1/fc"
  param {
    lr_mult: 1
    decay_mult: 1
  }
  param {
    lr_mult: 2
    decay_mult: 0
  }
  inner_product_param {
    num_output: 1024
    weight_filler {
      type: "xavier"
      std: 0.02
    }
    bias_filler {
      type: "constant"
      value: 0.2
    }
  }
}
layer {
  name: "loss1/relu_fc"
  type: "ReLU"
  bottom: "loss1/fc"
  top: "loss1/fc"
}
layer {
  name: "loss1/drop_fc"
  type: "Dropout"
  bottom: "loss1/fc"
  top: "loss1/fc"
  dropout_param {
    dropout_ratio: 0.7
  }
}
layer {
  name: "loss1/classifier_plantvillage"
  type: "InnerProduct"
  bottom: "loss1/fc"
  top: "loss1/classifier_plantvillage"
  param {
    lr_mult: 1
    decay_mult: 1
  }
  param {
    lr_mult: 2
    decay_mult: 0
  }
  inner_product_param {
    num_output: 38
    weight_filler {
      type: "xavier"
      std: 0.0009765625
    }
    bias_filler {
      type: "constant"
      value: 0
    }
  }
}
layer {
  name: "inception_4b/1x1"
  type: "Convolution"
  bottom: "inception_4a/output"
  top: "inception_4b/1x1"
  param {
    lr_mult: 1
    decay_mult: 1
  }
  param {
    lr_mult: 2
    decay_mult: 0
  }
  convolution_param {
    num_output: 160
    kernel_size: 1
    weight_filler {
      type: "xavier"
      std: 0.03
    }
    bias_filler {
      type: "constant"
      value: 0.2
    }
  }
}
layer {
  name: "inception_4b/relu_1x1"
  type: "ReLU"
  bottom: "inception_4b/1x1"
  top: "inception_4b/1x1"
}
layer {
  name: "inception_4b/3x3_reduce"
  type: "Convolution"
  bottom: "inception_4a/output"
  top: "inception_4b/3x3_reduce"
  param {
    lr_mult: 1
    decay_mult: 1
  }
  param {
    lr_mult: 2
    decay_mult: 0
  }
  convolution_param {
    num_output: 112
    kernel_size: 1
    weight_filler {
      type: "xavier"
      std: 0.09
    }
    bias_filler {
      type: "constant"
      value: 0.2
    }
  }
}
layer {
  name: "inception_4b/relu_3x3_reduce"
  type: "ReLU"
  bottom: "inception_4b/3x3_reduce"
  top: "inception_4b/3x3_reduce"
}
layer {
  name: "inception_4b/3x3"
  type: "Convolution"
  bottom: "inception_4b/3x3_reduce"
  top: "inception_4b/3x3"
  param {
    lr_mult: 1
    decay_mult: 1
  }
  param {
    lr_mult: 2
    decay_mult: 0
  }
  convolution_param {
    num_output: 224
    pad: 1
    kernel_size: 3
    weight_filler {
      type: "xavier"
      std: 0.03
    }
    bias_filler {
      type: "constant"
      value: 0.2
    }
  }
}
layer {
  name: "inception_4b/relu_3x3"
  type: "ReLU"
  bottom: "inception_4b/3x3"
  top: "inception_4b/3x3"
}
layer {
  name: "inception_4b/5x5_reduce"
  type: "Convolution"
  bottom: "inception_4a/output"
  top: "inception_4b/5x5_reduce"
  param {
    lr_mult: 1
    decay_mult: 1
  }
  param {
    lr_mult: 2
    decay_mult: 0
  }
  convolution_param {
    num_output: 24
    kernel_size: 1
    weight_filler {
      type: "xavier"
      std: 0.2
    }
    bias_filler {
      type: "constant"
      value: 0.2
    }
  }
}
layer {
  name: "inception_4b/relu_5x5_reduce"
  type: "ReLU"
  bottom: "inception_4b/5x5_reduce"
  top: "inception_4b/5x5_reduce"
}
layer {
  name: "inception_4b/5x5"
  type: "Convolution"
  bottom: "inception_4b/5x5_reduce"
  top: "inception_4b/5x5"
  param {
    lr_mult: 1
    decay_mult: 1
  }
  param {
    lr_mult: 2
    decay_mult: 0
  }
  convolution_param {
    num_output: 64
    pad: 2
    kernel_size: 5
    weight_filler {
      type: "xavier"
      std: 0.03
    }
    bias_filler {
      type: "constant"
      value: 0.2
    }
  }
}
layer {
  name: "inception_4b/relu_5x5"
  type: "ReLU"
  bottom: "inception_4b/5x5"
  top: "inception_4b/5x5"
}
layer {
  name: "inception_4b/pool"
  type: "Pooling"
  bottom: "inception_4a/output"
  top: "inception_4b/pool"
  pooling_param {
    pool: MAX
    kernel_size: 3
    stride: 1
    pad: 1
  }
}
layer {
  name: "inception_4b/pool_proj"
  type: "Convolution"
  bottom: "inception_4b/pool"
  top: "inception_4b/pool_proj"
  param {
    lr_mult: 1
    decay_mult: 1
  }
  param {
    lr_mult: 2
    decay_mult: 0
  }
  convolution_param {
    num_output: 64
    kernel_size: 1
    weight_filler {
      type: "xavier"
      std: 0.1
    }
    bias_filler {
      type: "constant"
      value: 0.2
    }
  }
}
layer {
  name: "inception_4b/relu_pool_proj"
  type: "ReLU"
  bottom: "inception_4b/pool_proj"
  top: "inception_4b/pool_proj"
}
layer {
  name: "inception_4b/output"
  type: "Concat"
  bottom: "inception_4b/1x1"
  bottom: "inception_4b/3x3"
  bottom: "inception_4b/5x5"
  bottom: "inception_4b/pool_proj"
  top: "inception_4b/output"
}
layer {
  name: "inception_4c/1x1"
  type: "Convolution"
  bottom: "inception_4b/output"
  top: "inception_4c/1x1"
  param {
    lr_mult: 1
    decay_mult: 1
  }
  param {
    lr_mult: 2
    decay_mult: 0
  }
  convolution_param {
    num_output: 128
    kernel_size: 1
    weight_filler {
      type: "xavier"
      std: 0.03
    }
    bias_filler {
      type: "constant"
      value: 0.2
    }
  }
}
layer {
  name: "inception_4c/relu_1x1"
  type: "ReLU"
  bottom: "inception_4c/1x1"
  top: "inception_4c/1x1"
}
layer {
  name: "inception_4c/3x3_reduce"
  type: "Convolution"
  bottom: "inception_4b/output"
  top: "inception_4c/3x3_reduce"
  param {
    lr_mult: 1
    decay_mult: 1
  }
  param {
    lr_mult: 2
    decay_mult: 0
  }
  convolution_param {
    num_output: 128
    kernel_size: 1
    weight_filler {
      type: "xavier"
      std: 0.09
    }
    bias_filler {
      type: "constant"
      value: 0.2
    }
  }
}
layer {
  name: "inception_4c/relu_3x3_reduce"
  type: "ReLU"
  bottom: "inception_4c/3x3_reduce"
  top: "inception_4c/3x3_reduce"
}
layer {
  name: "inception_4c/3x3"
  type: "Convolution"
  bottom: "inception_4c/3x3_reduce"
  top: "inception_4c/3x3"
  param {
    lr_mult: 1
    decay_mult: 1
  }
  param {
    lr_mult: 2
    decay_mult: 0
  }
  convolution_param {
    num_output: 256
    pad: 1
    kernel_size: 3
    weight_filler {
      type: "xavier"
      std: 0.03
    }
    bias_filler {
      type: "constant"
      value: 0.2
    }
  }
}
layer {
  name: "inception_4c/relu_3x3"
  type: "ReLU"
  bottom: "inception_4c/3x3"
  top: "inception_4c/3x3"
}
layer {
  name: "inception_4c/5x5_reduce"
  type: "Convolution"
  bottom: "inception_4b/output"
  top: "inception_4c/5x5_reduce"
  param {
    lr_mult: 1
    decay_mult: 1
  }
  param {
    lr_mult: 2
    decay_mult: 0
  }
  convolution_param {
    num_output: 24
    kernel_size: 1
    weight_filler {
      type: "xavier"
      std: 0.2
    }
    bias_filler {
      type: "constant"
      value: 0.2
    }
  }
}
layer {
  name: "inception_4c/relu_5x5_reduce"
  type: "ReLU"
  bottom: "inception_4c/5x5_reduce"
  top: "inception_4c/5x5_reduce"
}
layer {
  name: "inception_4c/5x5"
  type: "Convolution"
  bottom: "inception_4c/5x5_reduce"
  top: "inception_4c/5x5"
  param {
    lr_mult: 1
    decay_mult: 1
  }
  param {
    lr_mult: 2
    decay_mult: 0
  }
  convolution_param {
    num_output: 64
    pad: 2
    kernel_size: 5
    weight_filler {
      type: "xavier"
      std: 0.03
    }
    bias_filler {
      type: "constant"
      value: 0.2
    }
  }
}
layer {
  name: "inception_4c/relu_5x5"
  type: "ReLU"
  bottom: "inception_4c/5x5"
  top: "inception_4c/5x5"
}
layer {
  name: "inception_4c/pool"
  type: "Pooling"
  bottom: "inception_4b/output"
  top: "inception_4c/pool"
  pooling_param {
    pool: MAX
    kernel_size: 3
    stride: 1
    pad: 1
  }
}
layer {
  name: "inception_4c/pool_proj"
  type: "Convolution"
  bottom: "inception_4c/pool"
  top: "inception_4c/pool_proj"
  param {
    lr_mult: 1
    decay_mult: 1
  }
  param {
    lr_mult: 2
    decay_mult: 0
  }
  convolution_param {
    num_output: 64
    kernel_size: 1
    weight_filler {
      type: "xavier"
      std: 0.1
    }
    bias_filler {
      type: "constant"
      value: 0.2
    }
  }
}
layer {
  name: "inception_4c/relu_pool_proj"
  type: "ReLU"
  bottom: "inception_4c/pool_proj"
  top: "inception_4c/pool_proj"
}
layer {
  name: "inception_4c/output"
  type: "Concat"
  bottom: "inception_4c/1x1"
  bottom: "inception_4c/3x3"
  bottom: "inception_4c/5x5"
  bottom: "inception_4c/pool_proj"
  top: "inception_4c/output"
}
layer {
  name: "inception_4d/1x1"
  type: "Convolution"
  bottom: "inception_4c/output"
  top: "inception_4d/1x1"
  param {
    lr_mult: 1
    decay_mult: 1
  }
  param {
    lr_mult: 2
    decay_mult: 0
  }
  convolution_param {
    num_output: 112
    kernel_size: 1
    weight_filler {
      type: "xavier"
      std: 0.03
    }
    bias_filler {
      type: "constant"
      value: 0.2
    }
  }
}
layer {
  name: "inception_4d/relu_1x1"
  type: "ReLU"
  bottom: "inception_4d/1x1"
  top: "inception_4d/1x1"
}
layer {
  name: "inception_4d/3x3_reduce"
  type: "Convolution"
  bottom: "inception_4c/output"
  top: "inception_4d/3x3_reduce"
  param {
    lr_mult: 1
    decay_mult: 1
  }
  param {
    lr_mult: 2
    decay_mult: 0
  }
  convolution_param {
    num_output: 144
    kernel_size: 1
    weight_filler {
      type: "xavier"
      std: 0.09
    }
    bias_filler {
      type: "constant"
      value: 0.2
    }
  }
}
layer {
  name: "inception_4d/relu_3x3_reduce"
  type: "ReLU"
  bottom: "inception_4d/3x3_reduce"
  top: "inception_4d/3x3_reduce"
}
layer {
  name: "inception_4d/3x3"
  type: "Convolution"
  bottom: "inception_4d/3x3_reduce"
  top: "inception_4d/3x3"
  param {
    lr_mult: 1
    decay_mult: 1
  }
  param {
    lr_mult: 2
    decay_mult: 0
  }
  convolution_param {
    num_output: 288
    pad: 1
    kernel_size: 3
    weight_filler {
      type: "xavier"
      std: 0.03
    }
    bias_filler {
      type: "constant"
      value: 0.2
    }
  }
}
layer {
  name: "inception_4d/relu_3x3"
  type: "ReLU"
  bottom: "inception_4d/3x3"
  top: "inception_4d/3x3"
}
layer {
  name: "inception_4d/5x5_reduce"
  type: "Convolution"
  bottom: "inception_4c/output"
  top: "inception_4d/5x5_reduce"
  param {
    lr_mult: 1
    decay_mult: 1
  }
  param {
    lr_mult: 2
    decay_mult: 0
  }
  convolution_param {
    num_output: 32
    kernel_size: 1
    weight_filler {
      type: "xavier"
      std: 0.2
    }
    bias_filler {
      type: "constant"
      value: 0.2
    }
  }
}
layer {
  name: "inception_4d/relu_5x5_reduce"
  type: "ReLU"
  bottom: "inception_4d/5x5_reduce"
  top: "inception_4d/5x5_reduce"
}
layer {
  name: "inception_4d/5x5"
  type: "Convolution"
  bottom: "inception_4d/5x5_reduce"
  top: "inception_4d/5x5"
  param {
    lr_mult: 1
    decay_mult: 1
  }
  param {
    lr_mult: 2
    decay_mult: 0
  }
  convolution_param {
    num_output: 64
    pad: 2
    kernel_size: 5
    weight_filler {
      type: "xavier"
      std: 0.03
    }
    bias_filler {
      type: "constant"
      value: 0.2
    }
  }
}
layer {
  name: "inception_4d/relu_5x5"
  type: "ReLU"
  bottom: "inception_4d/5x5"
  top: "inception_4d/5x5"
}
layer {
  name: "inception_4d/pool"
  type: "Pooling"
  bottom: "inception_4c/output"
  top: "inception_4d/pool"
  pooling_param {
    pool: MAX
    kernel_size: 3
    stride: 1
    pad: 1
  }
}
layer {
  name: "inception_4d/pool_proj"
  type: "Convolution"
  bottom: "inception_4d/pool"
  top: "inception_4d/pool_proj"
  param {
    lr_mult: 1
    decay_mult: 1
  }
  param {
    lr_mult: 2
    decay_mult: 0
  }
  convolution_param {
    num_output: 64
    kernel_size: 1
    weight_filler {
      type: "xavier"
      std: 0.1
    }
    bias_filler {
      type: "constant"
      value: 0.2
    }
  }
}
layer {
  name: "inception_4d/relu_pool_proj"
  type: "ReLU"
  bottom: "inception_4d/pool_proj"
  top: "inception_4d/pool_proj"
}
layer {
  name: "inception_4d/output"
  type: "Concat"
  bottom: "inception_4d/1x1"
  bottom: "inception_4d/3x3"
  bottom: "inception_4d/5x5"
  bottom: "inception_4d/pool_proj"
  top: "inception_4d/output"
}
layer {
  name: "loss2/ave_pool"
  type: "Pooling"
  bottom: "inception_4d/output"
  top: "loss2/ave_pool"
  pooling_param {
    pool: AVE
    kernel_size: 5
    stride: 3
  }
}
layer {
  name: "loss2/conv"
  type: "Convolution"
  bottom: "loss2/ave_pool"
  top: "loss2/conv"
  param {
    lr_mult: 1
    decay_mult: 1
  }
  param {
    lr_mult: 2
    decay_mult: 0
  }
  convolution_param {
    num_output: 128
    kernel_size: 1
    weight_filler {
      type: "xavier"
      std: 0.08
    }
    bias_filler {
      type: "constant"
      value: 0.2
    }
  }
}
layer {
  name: "loss2/relu_conv"
  type: "ReLU"
  bottom: "loss2/conv"
  top: "loss2/conv"
}
layer {
  name: "loss2/fc"
  type: "InnerProduct"
  bottom: "loss2/conv"
  top: "loss2/fc"
  param {
    lr_mult: 1
    decay_mult: 1
  }
  param {
    lr_mult: 2
    decay_mult: 0
  }
  inner_product_param {
    num_output: 1024
    weight_filler {
      type: "xavier"
      std: 0.02
    }
    bias_filler {
      type: "constant"
      value: 0.2
    }
  }
}
layer {
  name: "loss2/relu_fc"
  type: "ReLU"
  bottom: "loss2/fc"
  top: "loss2/fc"
}
layer {
  name: "loss2/drop_fc"
  type: "Dropout"
  bottom: "loss2/fc"
  top: "loss2/fc"
  dropout_param {
    dropout_ratio: 0.7
  }
}
layer {
  name: "loss2/classifier_plantvillage"
  type: "InnerProduct"
  bottom: "loss2/fc"
  top: "loss2/classifier_plantvillage"
  param {
    lr_mult: 1
    decay_mult: 1
  }
  param {
    lr_mult: 2
    decay_mult: 0
  }
  inner_product_param {
    num_output: 38
    weight_filler {
      type: "xavier"
      std: 0.0009765625
    }
    bias_filler {
      type: "constant"
      value: 0
    }
  }
}
layer {
  name: "inception_4e/1x1"
  type: "Convolution"
  bottom: "inception_4d/output"
  top: "inception_4e/1x1"
  param {
    lr_mult: 1
    decay_mult: 1
  }
  param {
    lr_mult: 2
    decay_mult: 0
  }
  convolution_param {
    num_output: 256
    kernel_size: 1
    weight_filler {
      type: "xavier"
      std: 0.03
    }
    bias_filler {
      type: "constant"
      value: 0.2
    }
  }
}
layer {
  name: "inception_4e/relu_1x1"
  type: "ReLU"
  bottom: "inception_4e/1x1"
  top: "inception_4e/1x1"
}
layer {
  name: "inception_4e/3x3_reduce"
  type: "Convolution"
  bottom: "inception_4d/output"
  top: "inception_4e/3x3_reduce"
  param {
    lr_mult: 1
    decay_mult: 1
  }
  param {
    lr_mult: 2
    decay_mult: 0
  }
  convolution_param {
    num_output: 160
    kernel_size: 1
    weight_filler {
      type: "xavier"
      std: 0.09
    }
    bias_filler {
      type: "constant"
      value: 0.2
    }
  }
}
layer {
  name: "inception_4e/relu_3x3_reduce"
  type: "ReLU"
  bottom: "inception_4e/3x3_reduce"
  top: "inception_4e/3x3_reduce"
}
layer {
  name: "inception_4e/3x3"
  type: "Convolution"
  bottom: "inception_4e/3x3_reduce"
  top: "inception_4e/3x3"
  param {
    lr_mult: 1
    decay_mult: 1
  }
  param {
    lr_mult: 2
    decay_mult: 0
  }
  convolution_param {
    num_output: 320
    pad: 1
    kernel_size: 3
    weight_filler {
      type: "xavier"
      std: 0.03
    }
    bias_filler {
      type: "constant"
      value: 0.2
    }
  }
}
layer {
  name: "inception_4e/relu_3x3"
  type: "ReLU"
  bottom: "inception_4e/3x3"
  top: "inception_4e/3x3"
}
layer {
  name: "inception_4e/5x5_reduce"
  type: "Convolution"
  bottom: "inception_4d/output"
  top: "inception_4e/5x5_reduce"
  param {
    lr_mult: 1
    decay_mult: 1
  }
  param {
    lr_mult: 2
    decay_mult: 0
  }
  convolution_param {
    num_output: 32
    kernel_size: 1
    weight_filler {
      type: "xavier"
      std: 0.2
    }
    bias_filler {
      type: "constant"
      value: 0.2
    }
  }
}
layer {
  name: "inception_4e/relu_5x5_reduce"
  type: "ReLU"
  bottom: "inception_4e/5x5_reduce"
  top: "inception_4e/5x5_reduce"
}
layer {
  name: "inception_4e/5x5"
  type: "Convolution"
  bottom: "inception_4e/5x5_reduce"
  top: "inception_4e/
I0403 21:39:25.573134 23770 layer_factory.hpp:77] Creating layer data
I0403 21:39:25.573743 23770 net.cpp:91] Creating Layer data
I0403 21:39:25.573778 23770 net.cpp:399] data -> data
I0403 21:39:25.573832 23770 net.cpp:399] data -> label
I0403 21:39:25.573869 23770 data_transformer.cpp:25] Loading mean file from: /home/mohanty/data/final_dataset/lmdb/segmented-80-20/mean.binaryproto
I0403 21:39:25.575054 23772 db_lmdb.cpp:38] Opened lmdb /home/mohanty/data/final_dataset/lmdb/segmented-80-20/test_db
I0403 21:39:25.586725 23770 data_layer.cpp:41] output data size: 24,3,224,224
I0403 21:39:25.614183 23770 net.cpp:141] Setting up data
I0403 21:39:25.614269 23770 net.cpp:148] Top shape: 24 3 224 224 (3612672)
I0403 21:39:25.614294 23770 net.cpp:148] Top shape: 24 (24)
I0403 21:39:25.614310 23770 net.cpp:156] Memory required for data: 14450784
I0403 21:39:25.614339 23770 layer_factory.hpp:77] Creating layer label_data_1_split
I0403 21:39:25.614368 23770 net.cpp:91] Creating Layer label_data_1_split
I0403 21:39:25.614387 23770 net.cpp:425] label_data_1_split <- label
I0403 21:39:25.614421 23770 net.cpp:399] label_data_1_split -> label_data_1_split_0
I0403 21:39:25.614452 23770 net.cpp:399] label_data_1_split -> label_data_1_split_1
I0403 21:39:25.614482 23770 net.cpp:399] label_data_1_split -> label_data_1_split_2
I0403 21:39:25.614505 23770 net.cpp:399] label_data_1_split -> label_data_1_split_3
I0403 21:39:25.614526 23770 net.cpp:399] label_data_1_split -> label_data_1_split_4
I0403 21:39:25.614547 23770 net.cpp:399] label_data_1_split -> label_data_1_split_5
I0403 21:39:25.614567 23770 net.cpp:399] label_data_1_split -> label_data_1_split_6
I0403 21:39:25.614588 23770 net.cpp:399] label_data_1_split -> label_data_1_split_7
I0403 21:39:25.614608 23770 net.cpp:399] label_data_1_split -> label_data_1_split_8
I0403 21:39:25.614629 23770 net.cpp:399] label_data_1_split -> label_data_1_split_9
I0403 21:39:25.614743 23770 net.cpp:141] Setting up label_data_1_split
I0403 21:39:25.614768 23770 net.cpp:148] Top shape: 24 (24)
I0403 21:39:25.614785 23770 net.cpp:148] Top shape: 24 (24)
I0403 21:39:25.614801 23770 net.cpp:148] Top shape: 24 (24)
I0403 21:39:25.614819 23770 net.cpp:148] Top shape: 24 (24)
I0403 21:39:25.614835 23770 net.cpp:148] Top shape: 24 (24)
I0403 21:39:25.614851 23770 net.cpp:148] Top shape: 24 (24)
I0403 21:39:25.614868 23770 net.cpp:148] Top shape: 24 (24)
I0403 21:39:25.614886 23770 net.cpp:148] Top shape: 24 (24)
I0403 21:39:25.614902 23770 net.cpp:148] Top shape: 24 (24)
I0403 21:39:25.614920 23770 net.cpp:148] Top shape: 24 (24)
I0403 21:39:25.614964 23770 net.cpp:156] Memory required for data: 14451744
I0403 21:39:25.614982 23770 layer_factory.hpp:77] Creating layer conv1/7x7_s2
I0403 21:39:25.615015 23770 net.cpp:91] Creating Layer conv1/7x7_s2
I0403 21:39:25.615034 23770 net.cpp:425] conv1/7x7_s2 <- data
I0403 21:39:25.615054 23770 net.cpp:399] conv1/7x7_s2 -> conv1/7x7_s2
I0403 21:39:25.753263 23770 net.cpp:141] Setting up conv1/7x7_s2
I0403 21:39:25.753340 23770 net.cpp:148] Top shape: 24 64 112 112 (19267584)
I0403 21:39:25.753357 23770 net.cpp:156] Memory required for data: 91522080
I0403 21:39:25.753388 23770 layer_factory.hpp:77] Creating layer conv1/relu_7x7
I0403 21:39:25.753414 23770 net.cpp:91] Creating Layer conv1/relu_7x7
I0403 21:39:25.753434 23770 net.cpp:425] conv1/relu_7x7 <- conv1/7x7_s2
I0403 21:39:25.753453 23770 net.cpp:386] conv1/relu_7x7 -> conv1/7x7_s2 (in-place)
I0403 21:39:25.753700 23770 net.cpp:141] Setting up conv1/relu_7x7
I0403 21:39:25.753728 23770 net.cpp:148] Top shape: 24 64 112 112 (19267584)
I0403 21:39:25.753744 23770 net.cpp:156] Memory required for data: 168592416
I0403 21:39:25.753761 23770 layer_factory.hpp:77] Creating layer pool1/3x3_s2
I0403 21:39:25.753785 23770 net.cpp:91] Creating Layer pool1/3x3_s2
I0403 21:39:25.753803 23770 net.cpp:425] pool1/3x3_s2 <- conv1/7x7_s2
I0403 21:39:25.753823 23770 net.cpp:399] pool1/3x3_s2 -> pool1/3x3_s2
I0403 21:39:25.753893 23770 net.cpp:141] Setting up pool1/3x3_s2
I0403 21:39:25.753918 23770 net.cpp:148] Top shape: 24 64 56 56 (4816896)
I0403 21:39:25.753933 23770 net.cpp:156] Memory required for data: 187860000
I0403 21:39:25.753948 23770 layer_factory.hpp:77] Creating layer pool1/norm1
I0403 21:39:25.753973 23770 net.cpp:91] Creating Layer pool1/norm1
I0403 21:39:25.753991 23770 net.cpp:425] pool1/norm1 <- pool1/3x3_s2
I0403 21:39:25.754009 23770 net.cpp:399] pool1/norm1 -> pool1/norm1
I0403 21:39:25.754287 23770 net.cpp:141] Setting up pool1/norm1
I0403 21:39:25.754314 23770 net.cpp:148] Top shape: 24 64 56 56 (4816896)
I0403 21:39:25.754330 23770 net.cpp:156] Memory required for data: 207127584
I0403 21:39:25.754345 23770 layer_factory.hpp:77] Creating layer conv2/3x3_reduce
I0403 21:39:25.754369 23770 net.cpp:91] Creating Layer conv2/3x3_reduce
I0403 21:39:25.754386 23770 net.cpp:425] conv2/3x3_reduce <- pool1/norm1
I0403 21:39:25.754405 23770 net.cpp:399] conv2/3x3_reduce -> conv2/3x3_reduce
I0403 21:39:25.755702 23770 net.cpp:141] Setting up conv2/3x3_reduce
I0403 21:39:25.755731 23770 net.cpp:148] Top shape: 24 64 56 56 (4816896)
I0403 21:39:25.755748 23770 net.cpp:156] Memory required for data: 226395168
I0403 21:39:25.755769 23770 layer_factory.hpp:77] Creating layer conv2/relu_3x3_reduce
I0403 21:39:25.755787 23770 net.cpp:91] Creating Layer conv2/relu_3x3_reduce
I0403 21:39:25.755805 23770 net.cpp:425] conv2/relu_3x3_reduce <- conv2/3x3_reduce
I0403 21:39:25.755822 23770 net.cpp:386] conv2/relu_3x3_reduce -> conv2/3x3_reduce (in-place)
I0403 21:39:25.756067 23770 net.cpp:141] Setting up conv2/relu_3x3_reduce
I0403 21:39:25.756094 23770 net.cpp:148] Top shape: 24 64 56 56 (4816896)
I0403 21:39:25.756109 23770 net.cpp:156] Memory required for data: 245662752
I0403 21:39:25.756124 23770 layer_factory.hpp:77] Creating layer conv2/3x3
I0403 21:39:25.756146 23770 net.cpp:91] Creating Layer conv2/3x3
I0403 21:39:25.756163 23770 net.cpp:425] conv2/3x3 <- conv2/3x3_reduce
I0403 21:39:25.756182 23770 net.cpp:399] conv2/3x3 -> conv2/3x3
I0403 21:39:25.758353 23770 net.cpp:141] Setting up conv2/3x3
I0403 21:39:25.758383 23770 net.cpp:148] Top shape: 24 192 56 56 (14450688)
I0403 21:39:25.758400 23770 net.cpp:156] Memory required for data: 303465504
I0403 21:39:25.758421 23770 layer_factory.hpp:77] Creating layer conv2/relu_3x3
I0403 21:39:25.758440 23770 net.cpp:91] Creating Layer conv2/relu_3x3
I0403 21:39:25.758457 23770 net.cpp:425] conv2/relu_3x3 <- conv2/3x3
I0403 21:39:25.758476 23770 net.cpp:386] conv2/relu_3x3 -> conv2/3x3 (in-place)
I0403 21:39:25.758630 23770 net.cpp:141] Setting up conv2/relu_3x3
I0403 21:39:25.758656 23770 net.cpp:148] Top shape: 24 192 56 56 (14450688)
I0403 21:39:25.758708 23770 net.cpp:156] Memory required for data: 361268256
I0403 21:39:25.758725 23770 layer_factory.hpp:77] Creating layer conv2/norm2
I0403 21:39:25.758744 23770 net.cpp:91] Creating Layer conv2/norm2
I0403 21:39:25.758761 23770 net.cpp:425] conv2/norm2 <- conv2/3x3
I0403 21:39:25.758781 23770 net.cpp:399] conv2/norm2 -> conv2/norm2
I0403 21:39:25.759057 23770 net.cpp:141] Setting up conv2/norm2
I0403 21:39:25.759083 23770 net.cpp:148] Top shape: 24 192 56 56 (14450688)
I0403 21:39:25.759099 23770 net.cpp:156] Memory required for data: 419071008
I0403 21:39:25.759114 23770 layer_factory.hpp:77] Creating layer pool2/3x3_s2
I0403 21:39:25.759131 23770 net.cpp:91] Creating Layer pool2/3x3_s2
I0403 21:39:25.759146 23770 net.cpp:425] pool2/3x3_s2 <- conv2/norm2
I0403 21:39:25.759166 23770 net.cpp:399] pool2/3x3_s2 -> pool2/3x3_s2
I0403 21:39:25.759228 23770 net.cpp:141] Setting up pool2/3x3_s2
I0403 21:39:25.759251 23770 net.cpp:148] Top shape: 24 192 28 28 (3612672)
I0403 21:39:25.759268 23770 net.cpp:156] Memory required for data: 433521696
I0403 21:39:25.759282 23770 layer_factory.hpp:77] Creating layer pool2/3x3_s2_pool2/3x3_s2_0_split
I0403 21:39:25.759299 23770 net.cpp:91] Creating Layer pool2/3x3_s2_pool2/3x3_s2_0_split
I0403 21:39:25.759315 23770 net.cpp:425] pool2/3x3_s2_pool2/3x3_s2_0_split <- pool2/3x3_s2
I0403 21:39:25.759332 23770 net.cpp:399] pool2/3x3_s2_pool2/3x3_s2_0_split -> pool2/3x3_s2_pool2/3x3_s2_0_split_0
I0403 21:39:25.759351 23770 net.cpp:399] pool2/3x3_s2_pool2/3x3_s2_0_split -> pool2/3x3_s2_pool2/3x3_s2_0_split_1
I0403 21:39:25.759373 23770 net.cpp:399] pool2/3x3_s2_pool2/3x3_s2_0_split -> pool2/3x3_s2_pool2/3x3_s2_0_split_2
I0403 21:39:25.759392 23770 net.cpp:399] pool2/3x3_s2_pool2/3x3_s2_0_split -> pool2/3x3_s2_pool2/3x3_s2_0_split_3
I0403 21:39:25.759455 23770 net.cpp:141] Setting up pool2/3x3_s2_pool2/3x3_s2_0_split
I0403 21:39:25.759477 23770 net.cpp:148] Top shape: 24 192 28 28 (3612672)
I0403 21:39:25.759493 23770 net.cpp:148] Top shape: 24 192 28 28 (3612672)
I0403 21:39:25.759510 23770 net.cpp:148] Top shape: 24 192 28 28 (3612672)
I0403 21:39:25.759524 23770 net.cpp:148] Top shape: 24 192 28 28 (3612672)
I0403 21:39:25.759538 23770 net.cpp:156] Memory required for data: 491324448
I0403 21:39:25.759553 23770 layer_factory.hpp:77] Creating layer inception_3a/1x1
I0403 21:39:25.759573 23770 net.cpp:91] Creating Layer inception_3a/1x1
I0403 21:39:25.759590 23770 net.cpp:425] inception_3a/1x1 <- pool2/3x3_s2_pool2/3x3_s2_0_split_0
I0403 21:39:25.759608 23770 net.cpp:399] inception_3a/1x1 -> inception_3a/1x1
I0403 21:39:25.761035 23770 net.cpp:141] Setting up inception_3a/1x1
I0403 21:39:25.761065 23770 net.cpp:148] Top shape: 24 64 28 28 (1204224)
I0403 21:39:25.761080 23770 net.cpp:156] Memory required for data: 496141344
I0403 21:39:25.761099 23770 layer_factory.hpp:77] Creating layer inception_3a/relu_1x1
I0403 21:39:25.761117 23770 net.cpp:91] Creating Layer inception_3a/relu_1x1
I0403 21:39:25.761134 23770 net.cpp:425] inception_3a/relu_1x1 <- inception_3a/1x1
I0403 21:39:25.761150 23770 net.cpp:386] inception_3a/relu_1x1 -> inception_3a/1x1 (in-place)
I0403 21:39:25.761310 23770 net.cpp:141] Setting up inception_3a/relu_1x1
I0403 21:39:25.761335 23770 net.cpp:148] Top shape: 24 64 28 28 (1204224)
I0403 21:39:25.761351 23770 net.cpp:156] Memory required for data: 500958240
I0403 21:39:25.761368 23770 layer_factory.hpp:77] Creating layer inception_3a/3x3_reduce
I0403 21:39:25.761390 23770 net.cpp:91] Creating Layer inception_3a/3x3_reduce
I0403 21:39:25.761409 23770 net.cpp:425] inception_3a/3x3_reduce <- pool2/3x3_s2_pool2/3x3_s2_0_split_1
I0403 21:39:25.761427 23770 net.cpp:399] inception_3a/3x3_reduce -> inception_3a/3x3_reduce
I0403 21:39:25.763098 23770 net.cpp:141] Setting up inception_3a/3x3_reduce
I0403 21:39:25.763128 23770 net.cpp:148] Top shape: 24 96 28 28 (1806336)
I0403 21:39:25.763145 23770 net.cpp:156] Memory required for data: 508183584
I0403 21:39:25.763167 23770 layer_factory.hpp:77] Creating layer inception_3a/relu_3x3_reduce
I0403 21:39:25.763207 23770 net.cpp:91] Creating Layer inception_3a/relu_3x3_reduce
I0403 21:39:25.763226 23770 net.cpp:425] inception_3a/relu_3x3_reduce <- inception_3a/3x3_reduce
I0403 21:39:25.763247 23770 net.cpp:386] inception_3a/relu_3x3_reduce -> inception_3a/3x3_reduce (in-place)
I0403 21:39:25.763427 23770 net.cpp:141] Setting up inception_3a/relu_3x3_reduce
I0403 21:39:25.763454 23770 net.cpp:148] Top shape: 24 96 28 28 (1806336)
I0403 21:39:25.763470 23770 net.cpp:156] Memory required for data: 515408928
I0403 21:39:25.763486 23770 layer_factory.hpp:77] Creating layer inception_3a/3x3
I0403 21:39:25.763506 23770 net.cpp:91] Creating Layer inception_3a/3x3
I0403 21:39:25.763522 23770 net.cpp:425] inception_3a/3x3 <- inception_3a/3x3_reduce
I0403 21:39:25.763543 23770 net.cpp:399] inception_3a/3x3 -> inception_3a/3x3
I0403 21:39:25.765143 23770 net.cpp:141] Setting up inception_3a/3x3
I0403 21:39:25.765173 23770 net.cpp:148] Top shape: 24 128 28 28 (2408448)
I0403 21:39:25.765192 23770 net.cpp:156] Memory required for data: 525042720
I0403 21:39:25.765214 23770 layer_factory.hpp:77] Creating layer inception_3a/relu_3x3
I0403 21:39:25.765244 23770 net.cpp:91] Creating Layer inception_3a/relu_3x3
I0403 21:39:25.765260 23770 net.cpp:425] inception_3a/relu_3x3 <- inception_3a/3x3
I0403 21:39:25.765280 23770 net.cpp:386] inception_3a/relu_3x3 -> inception_3a/3x3 (in-place)
I0403 21:39:25.765552 23770 net.cpp:141] Setting up inception_3a/relu_3x3
I0403 21:39:25.765583 23770 net.cpp:148] Top shape: 24 128 28 28 (2408448)
I0403 21:39:25.765599 23770 net.cpp:156] Memory required for data: 534676512
I0403 21:39:25.765614 23770 layer_factory.hpp:77] Creating layer inception_3a/5x5_reduce
I0403 21:39:25.765636 23770 net.cpp:91] Creating Layer inception_3a/5x5_reduce
I0403 21:39:25.765655 23770 net.cpp:425] inception_3a/5x5_reduce <- pool2/3x3_s2_pool2/3x3_s2_0_split_2
I0403 21:39:25.765676 23770 net.cpp:399] inception_3a/5x5_reduce -> inception_3a/5x5_reduce
I0403 21:39:25.766614 23770 net.cpp:141] Setting up inception_3a/5x5_reduce
I0403 21:39:25.766643 23770 net.cpp:148] Top shape: 24 16 28 28 (301056)
I0403 21:39:25.766659 23770 net.cpp:156] Memory required for data: 535880736
I0403 21:39:25.766676 23770 layer_factory.hpp:77] Creating layer inception_3a/relu_5x5_reduce
I0403 21:39:25.766696 23770 net.cpp:91] Creating Layer inception_3a/relu_5x5_reduce
I0403 21:39:25.766713 23770 net.cpp:425] inception_3a/relu_5x5_reduce <- inception_3a/5x5_reduce
I0403 21:39:25.766731 23770 net.cpp:386] inception_3a/relu_5x5_reduce -> inception_3a/5x5_reduce (in-place)
I0403 21:39:25.767017 23770 net.cpp:141] Setting up inception_3a/relu_5x5_reduce
I0403 21:39:25.767045 23770 net.cpp:148] Top shape: 24 16 28 28 (301056)
I0403 21:39:25.767058 23770 net.cpp:156] Memory required for data: 537084960
I0403 21:39:25.767073 23770 layer_factory.hpp:77] Creating layer inception_3a/5x5
I0403 21:39:25.767096 23770 net.cpp:91] Creating Layer inception_3a/5x5
I0403 21:39:25.767112 23770 net.cpp:425] inception_3a/5x5 <- inception_3a/5x5_reduce
I0403 21:39:25.767133 23770 net.cpp:399] inception_3a/5x5 -> inception_3a/5x5
I0403 21:39:25.768117 23770 net.cpp:141] Setting up inception_3a/5x5
I0403 21:39:25.768147 23770 net.cpp:148] Top shape: 24 32 28 28 (602112)
I0403 21:39:25.768163 23770 net.cpp:156] Memory required for data: 539493408
I0403 21:39:25.768183 23770 layer_factory.hpp:77] Creating layer inception_3a/relu_5x5
I0403 21:39:25.768211 23770 net.cpp:91] Creating Layer inception_3a/relu_5x5
I0403 21:39:25.768231 23770 net.cpp:425] inception_3a/relu_5x5 <- inception_3a/5x5
I0403 21:39:25.768252 23770 net.cpp:386] inception_3a/relu_5x5 -> inception_3a/5x5 (in-place)
I0403 21:39:25.768429 23770 net.cpp:141] Setting up inception_3a/relu_5x5
I0403 21:39:25.768455 23770 net.cpp:148] Top shape: 24 32 28 28 (602112)
I0403 21:39:25.768470 23770 net.cpp:156] Memory required for data: 541901856
I0403 21:39:25.768484 23770 layer_factory.hpp:77] Creating layer inception_3a/pool
I0403 21:39:25.768502 23770 net.cpp:91] Creating Layer inception_3a/pool
I0403 21:39:25.768533 23770 net.cpp:425] inception_3a/pool <- pool2/3x3_s2_pool2/3x3_s2_0_split_3
I0403 21:39:25.768554 23770 net.cpp:399] inception_3a/pool -> inception_3a/pool
I0403 21:39:25.768612 23770 net.cpp:141] Setting up inception_3a/pool
I0403 21:39:25.768635 23770 net.cpp:148] Top shape: 24 192 28 28 (3612672)
I0403 21:39:25.768651 23770 net.cpp:156] Memory required for data: 556352544
I0403 21:39:25.768666 23770 layer_factory.hpp:77] Creating layer inception_3a/pool_proj
I0403 21:39:25.768688 23770 net.cpp:91] Creating Layer inception_3a/pool_proj
I0403 21:39:25.768707 23770 net.cpp:425] inception_3a/pool_proj <- inception_3a/pool
I0403 21:39:25.768725 23770 net.cpp:399] inception_3a/pool_proj -> inception_3a/pool_proj
I0403 21:39:25.769662 23770 net.cpp:141] Setting up inception_3a/pool_proj
I0403 21:39:25.769690 23770 net.cpp:148] Top shape: 24 32 28 28 (602112)
I0403 21:39:25.769706 23770 net.cpp:156] Memory required for data: 558760992
I0403 21:39:25.769731 23770 layer_factory.hpp:77] Creating layer inception_3a/relu_pool_proj
I0403 21:39:25.769752 23770 net.cpp:91] Creating Layer inception_3a/relu_pool_proj
I0403 21:39:25.769769 23770 net.cpp:425] inception_3a/relu_pool_proj <- inception_3a/pool_proj
I0403 21:39:25.769786 23770 net.cpp:386] inception_3a/relu_pool_proj -> inception_3a/pool_proj (in-place)
I0403 21:39:25.770047 23770 net.cpp:141] Setting up inception_3a/relu_pool_proj
I0403 21:39:25.770076 23770 net.cpp:148] Top shape: 24 32 28 28 (602112)
I0403 21:39:25.770092 23770 net.cpp:156] Memory required for data: 561169440
I0403 21:39:25.770108 23770 layer_factory.hpp:77] Creating layer inception_3a/output
I0403 21:39:25.770125 23770 net.cpp:91] Creating Layer inception_3a/output
I0403 21:39:25.770141 23770 net.cpp:425] inception_3a/output <- inception_3a/1x1
I0403 21:39:25.770158 23770 net.cpp:425] inception_3a/output <- inception_3a/3x3
I0403 21:39:25.770174 23770 net.cpp:425] inception_3a/output <- inception_3a/5x5
I0403 21:39:25.770189 23770 net.cpp:425] inception_3a/output <- inception_3a/pool_proj
I0403 21:39:25.770213 23770 net.cpp:399] inception_3a/output -> inception_3a/output
I0403 21:39:25.770261 23770 net.cpp:141] Setting up inception_3a/output
I0403 21:39:25.770284 23770 net.cpp:148] Top shape: 24 256 28 28 (4816896)
I0403 21:39:25.770298 23770 net.cpp:156] Memory required for data: 580437024
I0403 21:39:25.770313 23770 layer_factory.hpp:77] Creating layer inception_3a/output_inception_3a/output_0_split
I0403 21:39:25.770334 23770 net.cpp:91] Creating Layer inception_3a/output_inception_3a/output_0_split
I0403 21:39:25.770351 23770 net.cpp:425] inception_3a/output_inception_3a/output_0_split <- inception_3a/output
I0403 21:39:25.770370 23770 net.cpp:399] inception_3a/output_inception_3a/output_0_split -> inception_3a/output_inception_3a/output_0_split_0
I0403 21:39:25.770390 23770 net.cpp:399] inception_3a/output_inception_3a/output_0_split -> inception_3a/output_inception_3a/output_0_split_1
I0403 21:39:25.770413 23770 net.cpp:399] inception_3a/output_inception_3a/output_0_split -> inception_3a/output_inception_3a/output_0_split_2
I0403 21:39:25.770436 23770 net.cpp:399] inception_3a/output_inception_3a/output_0_split -> inception_3a/output_inception_3a/output_0_split_3
I0403 21:39:25.770506 23770 net.cpp:141] Setting up inception_3a/output_inception_3a/output_0_split
I0403 21:39:25.770532 23770 net.cpp:148] Top shape: 24 256 28 28 (4816896)
I0403 21:39:25.770550 23770 net.cpp:148] Top shape: 24 256 28 28 (4816896)
I0403 21:39:25.770566 23770 net.cpp:148] Top shape: 24 256 28 28 (4816896)
I0403 21:39:25.770582 23770 net.cpp:148] Top shape: 24 256 28 28 (4816896)
I0403 21:39:25.770596 23770 net.cpp:156] Memory required for data: 657507360
I0403 21:39:25.770611 23770 layer_factory.hpp:77] Creating layer inception_3b/1x1
I0403 21:39:25.770632 23770 net.cpp:91] Creating Layer inception_3b/1x1
I0403 21:39:25.770650 23770 net.cpp:425] inception_3b/1x1 <- inception_3a/output_inception_3a/output_0_split_0
I0403 21:39:25.770669 23770 net.cpp:399] inception_3b/1x1 -> inception_3b/1x1
I0403 21:39:25.771769 23770 net.cpp:141] Setting up inception_3b/1x1
I0403 21:39:25.771809 23770 net.cpp:148] Top shape: 24 128 28 28 (2408448)
I0403 21:39:25.771826 23770 net.cpp:156] Memory required for data: 667141152
I0403 21:39:25.771845 23770 layer_factory.hpp:77] Creating layer inception_3b/relu_1x1
I0403 21:39:25.771864 23770 net.cpp:91] Creating Layer inception_3b/relu_1x1
I0403 21:39:25.771881 23770 net.cpp:425] inception_3b/relu_1x1 <- inception_3b/1x1
I0403 21:39:25.771899 23770 net.cpp:386] inception_3b/relu_1x1 -> inception_3b/1x1 (in-place)
I0403 21:39:25.772081 23770 net.cpp:141] Setting up inception_3b/relu_1x1
I0403 21:39:25.772106 23770 net.cpp:148] Top shape: 24 128 28 28 (2408448)
I0403 21:39:25.772120 23770 net.cpp:156] Memory required for data: 676774944
I0403 21:39:25.772136 23770 layer_factory.hpp:77] Creating layer inception_3b/3x3_reduce
I0403 21:39:25.772159 23770 net.cpp:91] Creating Layer inception_3b/3x3_reduce
I0403 21:39:25.772176 23770 net.cpp:425] inception_3b/3x3_reduce <- inception_3a/output_inception_3a/output_0_split_1
I0403 21:39:25.772210 23770 net.cpp:399] inception_3b/3x3_reduce -> inception_3b/3x3_reduce
I0403 21:39:25.773305 23770 net.cpp:141] Setting up inception_3b/3x3_reduce
I0403 21:39:25.773334 23770 net.cpp:148] Top shape: 24 128 28 28 (2408448)
I0403 21:39:25.773350 23770 net.cpp:156] Memory required for data: 686408736
I0403 21:39:25.773368 23770 layer_factory.hpp:77] Creating layer inception_3b/relu_3x3_reduce
I0403 21:39:25.773388 23770 net.cpp:91] Creating Layer inception_3b/relu_3x3_reduce
I0403 21:39:25.773406 23770 net.cpp:425] inception_3b/relu_3x3_reduce <- inception_3b/3x3_reduce
I0403 21:39:25.773422 23770 net.cpp:386] inception_3b/relu_3x3_reduce -> inception_3b/3x3_reduce (in-place)
I0403 21:39:25.773596 23770 net.cpp:141] Setting up inception_3b/relu_3x3_reduce
I0403 21:39:25.773620 23770 net.cpp:148] Top shape: 24 128 28 28 (2408448)
I0403 21:39:25.773636 23770 net.cpp:156] Memory required for data: 696042528
I0403 21:39:25.773650 23770 layer_factory.hpp:77] Creating layer inception_3b/3x3
I0403 21:39:25.773674 23770 net.cpp:91] Creating Layer inception_3b/3x3
I0403 21:39:25.773694 23770 net.cpp:425] inception_3b/3x3 <- inception_3b/3x3_reduce
I0403 21:39:25.773713 23770 net.cpp:399] inception_3b/3x3 -> inception_3b/3x3
I0403 21:39:25.776541 23770 net.cpp:141] Setting up inception_3b/3x3
I0403 21:39:25.776572 23770 net.cpp:148] Top shape: 24 192 28 28 (3612672)
I0403 21:39:25.776590 23770 net.cpp:156] Memory required for data: 710493216
I0403 21:39:25.776608 23770 layer_factory.hpp:77] Creating layer inception_3b/relu_3x3
I0403 21:39:25.776628 23770 net.cpp:91] Creating Layer inception_3b/relu_3x3
I0403 21:39:25.776644 23770 net.cpp:425] inception_3b/relu_3x3 <- inception_3b/3x3
I0403 21:39:25.776664 23770 net.cpp:386] inception_3b/relu_3x3 -> inception_3b/3x3 (in-place)
I0403 21:39:25.776931 23770 net.cpp:141] Setting up inception_3b/relu_3x3
I0403 21:39:25.776962 23770 net.cpp:148] Top shape: 24 192 28 28 (3612672)
I0403 21:39:25.776978 23770 net.cpp:156] Memory required for data: 724943904
I0403 21:39:25.776993 23770 layer_factory.hpp:77] Creating layer inception_3b/5x5_reduce
I0403 21:39:25.777015 23770 net.cpp:91] Creating Layer inception_3b/5x5_reduce
I0403 21:39:25.777034 23770 net.cpp:425] inception_3b/5x5_reduce <- inception_3a/output_inception_3a/output_0_split_2
I0403 21:39:25.777055 23770 net.cpp:399] inception_3b/5x5_reduce -> inception_3b/5x5_reduce
I0403 21:39:25.778051 23770 net.cpp:141] Setting up inception_3b/5x5_reduce
I0403 21:39:25.778081 23770 net.cpp:148] Top shape: 24 32 28 28 (602112)
I0403 21:39:25.778100 23770 net.cpp:156] Memory required for data: 727352352
I0403 21:39:25.778118 23770 layer_factory.hpp:77] Creating layer inception_3b/relu_5x5_reduce
I0403 21:39:25.778138 23770 net.cpp:91] Creating Layer inception_3b/relu_5x5_reduce
I0403 21:39:25.778156 23770 net.cpp:425] inception_3b/relu_5x5_reduce <- inception_3b/5x5_reduce
I0403 21:39:25.778177 23770 net.cpp:386] inception_3b/relu_5x5_reduce -> inception_3b/5x5_reduce (in-place)
I0403 21:39:25.778388 23770 net.cpp:141] Setting up inception_3b/relu_5x5_reduce
I0403 21:39:25.778414 23770 net.cpp:148] Top shape: 24 32 28 28 (602112)
I0403 21:39:25.778429 23770 net.cpp:156] Memory required for data: 729760800
I0403 21:39:25.778445 23770 layer_factory.hpp:77] Creating layer inception_3b/5x5
I0403 21:39:25.778466 23770 net.cpp:91] Creating Layer inception_3b/5x5
I0403 21:39:25.778483 23770 net.cpp:425] inception_3b/5x5 <- inception_3b/5x5_reduce
I0403 21:39:25.778504 23770 net.cpp:399] inception_3b/5x5 -> inception_3b/5x5
I0403 21:39:25.780457 23770 net.cpp:141] Setting up inception_3b/5x5
I0403 21:39:25.780485 23770 net.cpp:148] Top shape: 24 96 28 28 (1806336)
I0403 21:39:25.780501 23770 net.cpp:156] Memory required for data: 736986144
I0403 21:39:25.780519 23770 layer_factory.hpp:77] Creating layer inception_3b/relu_5x5
I0403 21:39:25.780540 23770 net.cpp:91] Creating Layer inception_3b/relu_5x5
I0403 21:39:25.780557 23770 net.cpp:425] inception_3b/relu_5x5 <- inception_3b/5x5
I0403 21:39:25.780575 23770 net.cpp:386] inception_3b/relu_5x5 -> inception_3b/5x5 (in-place)
I0403 21:39:25.780766 23770 net.cpp:141] Setting up inception_3b/relu_5x5
I0403 21:39:25.780791 23770 net.cpp:148] Top shape: 24 96 28 28 (1806336)
I0403 21:39:25.780807 23770 net.cpp:156] Memory required for data: 744211488
I0403 21:39:25.780820 23770 layer_factory.hpp:77] Creating layer inception_3b/pool
I0403 21:39:25.780838 23770 net.cpp:91] Creating Layer inception_3b/pool
I0403 21:39:25.780854 23770 net.cpp:425] inception_3b/pool <- inception_3a/output_inception_3a/output_0_split_3
I0403 21:39:25.780872 23770 net.cpp:399] inception_3b/pool -> inception_3b/pool
I0403 21:39:25.780926 23770 net.cpp:141] Setting up inception_3b/pool
I0403 21:39:25.780951 23770 net.cpp:148] Top shape: 24 256 28 28 (4816896)
I0403 21:39:25.780966 23770 net.cpp:156] Memory required for data: 763479072
I0403 21:39:25.780979 23770 layer_factory.hpp:77] Creating layer inception_3b/pool_proj
I0403 21:39:25.781004 23770 net.cpp:91] Creating Layer inception_3b/pool_proj
I0403 21:39:25.781023 23770 net.cpp:425] inception_3b/pool_proj <- inception_3b/pool
I0403 21:39:25.781040 23770 net.cpp:399] inception_3b/pool_proj -> inception_3b/pool_proj
I0403 21:39:25.782078 23770 net.cpp:141] Setting up inception_3b/pool_proj
I0403 21:39:25.782105 23770 net.cpp:148] Top shape: 24 64 28 28 (1204224)
I0403 21:39:25.782121 23770 net.cpp:156] Memory required for data: 768295968
I0403 21:39:25.782140 23770 layer_factory.hpp:77] Creating layer inception_3b/relu_pool_proj
I0403 21:39:25.782161 23770 net.cpp:91] Creating Layer inception_3b/relu_pool_proj
I0403 21:39:25.782178 23770 net.cpp:425] inception_3b/relu_pool_proj <- inception_3b/pool_proj
I0403 21:39:25.782199 23770 net.cpp:386] inception_3b/relu_pool_proj -> inception_3b/pool_proj (in-place)
I0403 21:39:25.782593 23770 net.cpp:141] Setting up inception_3b/relu_pool_proj
I0403 21:39:25.782619 23770 net.cpp:148] Top shape: 24 64 28 28 (1204224)
I0403 21:39:25.782635 23770 net.cpp:156] Memory required for data: 773112864
I0403 21:39:25.782650 23770 layer_factory.hpp:77] Creating layer inception_3b/output
I0403 21:39:25.782667 23770 net.cpp:91] Creating Layer inception_3b/output
I0403 21:39:25.782685 23770 net.cpp:425] inception_3b/output <- inception_3b/1x1
I0403 21:39:25.782701 23770 net.cpp:425] inception_3b/output <- inception_3b/3x3
I0403 21:39:25.782716 23770 net.cpp:425] inception_3b/output <- inception_3b/5x5
I0403 21:39:25.782732 23770 net.cpp:425] inception_3b/output <- inception_3b/pool_proj
I0403 21:39:25.782752 23770 net.cpp:399] inception_3b/output -> inception_3b/output
I0403 21:39:25.782793 23770 net.cpp:141] Setting up inception_3b/output
I0403 21:39:25.782817 23770 net.cpp:148] Top shape: 24 480 28 28 (9031680)
I0403 21:39:25.782834 23770 net.cpp:156] Memory required for data: 809239584
I0403 21:39:25.782848 23770 layer_factory.hpp:77] Creating layer pool3/3x3_s2
I0403 21:39:25.782866 23770 net.cpp:91] Creating Layer pool3/3x3_s2
I0403 21:39:25.782881 23770 net.cpp:425] pool3/3x3_s2 <- inception_3b/output
I0403 21:39:25.782917 23770 net.cpp:399] pool3/3x3_s2 -> pool3/3x3_s2
I0403 21:39:25.782975 23770 net.cpp:141] Setting up pool3/3x3_s2
I0403 21:39:25.782999 23770 net.cpp:148] Top shape: 24 480 14 14 (2257920)
I0403 21:39:25.783013 23770 net.cpp:156] Memory required for data: 818271264
I0403 21:39:25.783028 23770 layer_factory.hpp:77] Creating layer pool3/3x3_s2_pool3/3x3_s2_0_split
I0403 21:39:25.783046 23770 net.cpp:91] Creating Layer pool3/3x3_s2_pool3/3x3_s2_0_split
I0403 21:39:25.783062 23770 net.cpp:425] pool3/3x3_s2_pool3/3x3_s2_0_split <- pool3/3x3_s2
I0403 21:39:25.783082 23770 net.cpp:399] pool3/3x3_s2_pool3/3x3_s2_0_split -> pool3/3x3_s2_pool3/3x3_s2_0_split_0
I0403 21:39:25.783100 23770 net.cpp:399] pool3/3x3_s2_pool3/3x3_s2_0_split -> pool3/3x3_s2_pool3/3x3_s2_0_split_1
I0403 21:39:25.783121 23770 net.cpp:399] pool3/3x3_s2_pool3/3x3_s2_0_split -> pool3/3x3_s2_pool3/3x3_s2_0_split_2
I0403 21:39:25.783143 23770 net.cpp:399] pool3/3x3_s2_pool3/3x3_s2_0_split -> pool3/3x3_s2_pool3/3x3_s2_0_split_3
I0403 21:39:25.783224 23770 net.cpp:141] Setting up pool3/3x3_s2_pool3/3x3_s2_0_split
I0403 21:39:25.783247 23770 net.cpp:148] Top shape: 24 480 14 14 (2257920)
I0403 21:39:25.783263 23770 net.cpp:148] Top shape: 24 480 14 14 (2257920)
I0403 21:39:25.783279 23770 net.cpp:148] Top shape: 24 480 14 14 (2257920)
I0403 21:39:25.783294 23770 net.cpp:148] Top shape: 24 480 14 14 (2257920)
I0403 21:39:25.783308 23770 net.cpp:156] Memory required for data: 854397984
I0403 21:39:25.783324 23770 layer_factory.hpp:77] Creating layer inception_4a/1x1
I0403 21:39:25.783346 23770 net.cpp:91] Creating Layer inception_4a/1x1
I0403 21:39:25.783363 23770 net.cpp:425] inception_4a/1x1 <- pool3/3x3_s2_pool3/3x3_s2_0_split_0
I0403 21:39:25.783385 23770 net.cpp:399] inception_4a/1x1 -> inception_4a/1x1
I0403 21:39:25.784903 23770 net.cpp:141] Setting up inception_4a/1x1
I0403 21:39:25.784930 23770 net.cpp:148] Top shape: 24 192 14 14 (903168)
I0403 21:39:25.784945 23770 net.cpp:156] Memory required for data: 858010656
I0403 21:39:25.784965 23770 layer_factory.hpp:77] Creating layer inception_4a/relu_1x1
I0403 21:39:25.784986 23770 net.cpp:91] Creating Layer inception_4a/relu_1x1
I0403 21:39:25.785003 23770 net.cpp:425] inception_4a/relu_1x1 <- inception_4a/1x1
I0403 21:39:25.785020 23770 net.cpp:386] inception_4a/relu_1x1 -> inception_4a/1x1 (in-place)
I0403 21:39:25.785192 23770 net.cpp:141] Setting up inception_4a/relu_1x1
I0403 21:39:25.785225 23770 net.cpp:148] Top shape: 24 192 14 14 (903168)
I0403 21:39:25.785241 23770 net.cpp:156] Memory required for data: 861623328
I0403 21:39:25.785257 23770 layer_factory.hpp:77] Creating layer inception_4a/3x3_reduce
I0403 21:39:25.785279 23770 net.cpp:91] Creating Layer inception_4a/3x3_reduce
I0403 21:39:25.785295 23770 net.cpp:425] inception_4a/3x3_reduce <- pool3/3x3_s2_pool3/3x3_s2_0_split_1
I0403 21:39:25.785315 23770 net.cpp:399] inception_4a/3x3_reduce -> inception_4a/3x3_reduce
I0403 21:39:25.786561 23770 net.cpp:141] Setting up inception_4a/3x3_reduce
I0403 21:39:25.786588 23770 net.cpp:148] Top shape: 24 96 14 14 (451584)
I0403 21:39:25.786604 23770 net.cpp:156] Memory required for data: 863429664
I0403 21:39:25.786629 23770 layer_factory.hpp:77] Creating layer inception_4a/relu_3x3_reduce
I0403 21:39:25.786649 23770 net.cpp:91] Creating Layer inception_4a/relu_3x3_reduce
I0403 21:39:25.786665 23770 net.cpp:425] inception_4a/relu_3x3_reduce <- inception_4a/3x3_reduce
I0403 21:39:25.786685 23770 net.cpp:386] inception_4a/relu_3x3_reduce -> inception_4a/3x3_reduce (in-place)
I0403 21:39:25.786860 23770 net.cpp:141] Setting up inception_4a/relu_3x3_reduce
I0403 21:39:25.786888 23770 net.cpp:148] Top shape: 24 96 14 14 (451584)
I0403 21:39:25.786903 23770 net.cpp:156] Memory required for data: 865236000
I0403 21:39:25.786919 23770 layer_factory.hpp:77] Creating layer inception_4a/3x3
I0403 21:39:25.786939 23770 net.cpp:91] Creating Layer inception_4a/3x3
I0403 21:39:25.786958 23770 net.cpp:425] inception_4a/3x3 <- inception_4a/3x3_reduce
I0403 21:39:25.786979 23770 net.cpp:399] inception_4a/3x3 -> inception_4a/3x3
I0403 21:39:25.789633 23770 net.cpp:141] Setting up inception_4a/3x3
I0403 21:39:25.789664 23770 net.cpp:148] Top shape: 24 208 14 14 (978432)
I0403 21:39:25.789681 23770 net.cpp:156] Memory required for data: 869149728
I0403 21:39:25.789700 23770 layer_factory.hpp:77] Creating layer inception_4a/relu_3x3
I0403 21:39:25.789718 23770 net.cpp:91] Creating Layer inception_4a/relu_3x3
I0403 21:39:25.789736 23770 net.cpp:425] inception_4a/relu_3x3 <- inception_4a/3x3
I0403 21:39:25.789755 23770 net.cpp:386] inception_4a/relu_3x3 -> inception_4a/3x3 (in-place)
I0403 21:39:25.790030 23770 net.cpp:141] Setting up inception_4a/relu_3x3
I0403 21:39:25.790058 23770 net.cpp:148] Top shape: 24 208 14 14 (978432)
I0403 21:39:25.790074 23770 net.cpp:156] Memory required for data: 873063456
I0403 21:39:25.790089 23770 layer_factory.hpp:77] Creating layer inception_4a/5x5_reduce
I0403 21:39:25.790112 23770 net.cpp:91] Creating Layer inception_4a/5x5_reduce
I0403 21:39:25.790132 23770 net.cpp:425] inception_4a/5x5_reduce <- pool3/3x3_s2_pool3/3x3_s2_0_split_2
I0403 21:39:25.790151 23770 net.cpp:399] inception_4a/5x5_reduce -> inception_4a/5x5_reduce
I0403 21:39:25.791144 23770 net.cpp:141] Setting up inception_4a/5x5_reduce
I0403 21:39:25.791174 23770 net.cpp:148] Top shape: 24 16 14 14 (75264)
I0403 21:39:25.791191 23770 net.cpp:156] Memory required for data: 873364512
I0403 21:39:25.791218 23770 layer_factory.hpp:77] Creating layer inception_4a/relu_5x5_reduce
I0403 21:39:25.791239 23770 net.cpp:91] Creating Layer inception_4a/relu_5x5_reduce
I0403 21:39:25.791267 23770 net.cpp:425] inception_4a/relu_5x5_reduce <- inception_4a/5x5_reduce
I0403 21:39:25.791290 23770 net.cpp:386] inception_4a/relu_5x5_reduce -> inception_4a/5x5_reduce (in-place)
I0403 21:39:25.791470 23770 net.cpp:141] Setting up inception_4a/relu_5x5_reduce
I0403 21:39:25.791496 23770 net.cpp:148] Top shape: 24 16 14 14 (75264)
I0403 21:39:25.791512 23770 net.cpp:156] Memory required for data: 873665568
I0403 21:39:25.791539 23770 layer_factory.hpp:77] Creating layer inception_4a/5x5
I0403 21:39:25.791561 23770 net.cpp:91] Creating Layer inception_4a/5x5
I0403 21:39:25.791580 23770 net.cpp:425] inception_4a/5x5 <- inception_4a/5x5_reduce
I0403 21:39:25.791601 23770 net.cpp:399] inception_4a/5x5 -> inception_4a/5x5
I0403 21:39:25.792660 23770 net.cpp:141] Setting up inception_4a/5x5
I0403 21:39:25.792688 23770 net.cpp:148] Top shape: 24 48 14 14 (225792)
I0403 21:39:25.792706 23770 net.cpp:156] Memory required for data: 874568736
I0403 21:39:25.792723 23770 layer_factory.hpp:77] Creating layer inception_4a/relu_5x5
I0403 21:39:25.792744 23770 net.cpp:91] Creating Layer inception_4a/relu_5x5
I0403 21:39:25.792762 23770 net.cpp:425] inception_4a/relu_5x5 <- inception_4a/5x5
I0403 21:39:25.792779 23770 net.cpp:386] inception_4a/relu_5x5 -> inception_4a/5x5 (in-place)
I0403 21:39:25.792956 23770 net.cpp:141] Setting up inception_4a/relu_5x5
I0403 21:39:25.792981 23770 net.cpp:148] Top shape: 24 48 14 14 (225792)
I0403 21:39:25.792996 23770 net.cpp:156] Memory required for data: 875471904
I0403 21:39:25.793011 23770 layer_factory.hpp:77] Creating layer inception_4a/pool
I0403 21:39:25.793035 23770 net.cpp:91] Creating Layer inception_4a/pool
I0403 21:39:25.793052 23770 net.cpp:425] inception_4a/pool <- pool3/3x3_s2_pool3/3x3_s2_0_split_3
I0403 21:39:25.793071 23770 net.cpp:399] inception_4a/pool -> inception_4a/pool
I0403 21:39:25.793130 23770 net.cpp:141] Setting up inception_4a/pool
I0403 21:39:25.793154 23770 net.cpp:148] Top shape: 24 480 14 14 (2257920)
I0403 21:39:25.793169 23770 net.cpp:156] Memory required for data: 884503584
I0403 21:39:25.793184 23770 layer_factory.hpp:77] Creating layer inception_4a/pool_proj
I0403 21:39:25.793210 23770 net.cpp:91] Creating Layer inception_4a/pool_proj
I0403 21:39:25.793229 23770 net.cpp:425] inception_4a/pool_proj <- inception_4a/pool
I0403 21:39:25.793251 23770 net.cpp:399] inception_4a/pool_proj -> inception_4a/pool_proj
I0403 21:39:25.794389 23770 net.cpp:141] Setting up inception_4a/pool_proj
I0403 21:39:25.794417 23770 net.cpp:148] Top shape: 24 64 14 14 (301056)
I0403 21:39:25.794448 23770 net.cpp:156] Memory required for data: 885707808
I0403 21:39:25.794468 23770 layer_factory.hpp:77] Creating layer inception_4a/relu_pool_proj
I0403 21:39:25.794489 23770 net.cpp:91] Creating Layer inception_4a/relu_pool_proj
I0403 21:39:25.794507 23770 net.cpp:425] inception_4a/relu_pool_proj <- inception_4a/pool_proj
I0403 21:39:25.794524 23770 net.cpp:386] inception_4a/relu_pool_proj -> inception_4a/pool_proj (in-place)
I0403 21:39:25.794805 23770 net.cpp:141] Setting up inception_4a/relu_pool_proj
I0403 21:39:25.794831 23770 net.cpp:148] Top shape: 24 64 14 14 (301056)
I0403 21:39:25.794847 23770 net.cpp:156] Memory required for data: 886912032
I0403 21:39:25.794862 23770 layer_factory.hpp:77] Creating layer inception_4a/output
I0403 21:39:25.794881 23770 net.cpp:91] Creating Layer inception_4a/output
I0403 21:39:25.794898 23770 net.cpp:425] inception_4a/output <- inception_4a/1x1
I0403 21:39:25.794914 23770 net.cpp:425] inception_4a/output <- inception_4a/3x3
I0403 21:39:25.794930 23770 net.cpp:425] inception_4a/output <- inception_4a/5x5
I0403 21:39:25.794946 23770 net.cpp:425] inception_4a/output <- inception_4a/pool_proj
I0403 21:39:25.794963 23770 net.cpp:399] inception_4a/output -> inception_4a/output
I0403 21:39:25.795008 23770 net.cpp:141] Setting up inception_4a/output
I0403 21:39:25.795032 23770 net.cpp:148] Top shape: 24 512 14 14 (2408448)
I0403 21:39:25.795047 23770 net.cpp:156] Memory required for data: 896545824
I0403 21:39:25.795063 23770 layer_factory.hpp:77] Creating layer inception_4a/output_inception_4a/output_0_split
I0403 21:39:25.795079 23770 net.cpp:91] Creating Layer inception_4a/output_inception_4a/output_0_split
I0403 21:39:25.795095 23770 net.cpp:425] inception_4a/output_inception_4a/output_0_split <- inception_4a/output
I0403 21:39:25.795115 23770 net.cpp:399] inception_4a/output_inception_4a/output_0_split -> inception_4a/output_inception_4a/output_0_split_0
I0403 21:39:25.795137 23770 net.cpp:399] inception_4a/output_inception_4a/output_0_split -> inception_4a/output_inception_4a/output_0_split_1
I0403 21:39:25.795158 23770 net.cpp:399] inception_4a/output_inception_4a/output_0_split -> inception_4a/output_inception_4a/output_0_split_2
I0403 21:39:25.795179 23770 net.cpp:399] inception_4a/output_inception_4a/output_0_split -> inception_4a/output_inception_4a/output_0_split_3
I0403 21:39:25.795204 23770 net.cpp:399] inception_4a/output_inception_4a/output_0_split -> inception_4a/output_inception_4a/output_0_split_4
I0403 21:39:25.795297 23770 net.cpp:141] Setting up inception_4a/output_inception_4a/output_0_split
I0403 21:39:25.795321 23770 net.cpp:148] Top shape: 24 512 14 14 (2408448)
I0403 21:39:25.795339 23770 net.cpp:148] Top shape: 24 512 14 14 (2408448)
I0403 21:39:25.795356 23770 net.cpp:148] Top shape: 24 512 14 14 (2408448)
I0403 21:39:25.795372 23770 net.cpp:148] Top shape: 24 512 14 14 (2408448)
I0403 21:39:25.795387 23770 net.cpp:148] Top shape: 24 512 14 14 (2408448)
I0403 21:39:25.795403 23770 net.cpp:156] Memory required for data: 944714784
I0403 21:39:25.795418 23770 layer_factory.hpp:77] Creating layer loss1/ave_pool
I0403 21:39:25.795434 23770 net.cpp:91] Creating Layer loss1/ave_pool
I0403 21:39:25.795450 23770 net.cpp:425] loss1/ave_pool <- inception_4a/output_inception_4a/output_0_split_0
I0403 21:39:25.795469 23770 net.cpp:399] loss1/ave_pool -> loss1/ave_pool
I0403 21:39:25.795670 23770 net.cpp:141] Setting up loss1/ave_pool
I0403 21:39:25.795696 23770 net.cpp:148] Top shape: 24 512 4 4 (196608)
I0403 21:39:25.795711 23770 net.cpp:156] Memory required for data: 945501216
I0403 21:39:25.795727 23770 layer_factory.hpp:77] Creating layer loss1/conv
I0403 21:39:25.795748 23770 net.cpp:91] Creating Layer loss1/conv
I0403 21:39:25.795766 23770 net.cpp:425] loss1/conv <- loss1/ave_pool
I0403 21:39:25.795786 23770 net.cpp:399] loss1/conv -> loss1/conv
I0403 21:39:25.797150 23770 net.cpp:141] Setting up loss1/conv
I0403 21:39:25.797180 23770 net.cpp:148] Top shape: 24 128 4 4 (49152)
I0403 21:39:25.797214 23770 net.cpp:156] Memory required for data: 945697824
I0403 21:39:25.797235 23770 layer_factory.hpp:77] Creating layer loss1/relu_conv
I0403 21:39:25.797253 23770 net.cpp:91] Creating Layer loss1/relu_conv
I0403 21:39:25.797269 23770 net.cpp:425] loss1/relu_conv <- loss1/conv
I0403 21:39:25.797289 23770 net.cpp:386] loss1/relu_conv -> loss1/conv (in-place)
I0403 21:39:25.797565 23770 net.cpp:141] Setting up loss1/relu_conv
I0403 21:39:25.797593 23770 net.cpp:148] Top shape: 24 128 4 4 (49152)
I0403 21:39:25.797610 23770 net.cpp:156] Memory required for data: 945894432
I0403 21:39:25.797624 23770 layer_factory.hpp:77] Creating layer loss1/fc
I0403 21:39:25.797647 23770 net.cpp:91] Creating Layer loss1/fc
I0403 21:39:25.797667 23770 net.cpp:425] loss1/fc <- loss1/conv
I0403 21:39:25.797688 23770 net.cpp:399] loss1/fc -> loss1/fc
I0403 21:39:25.815043 23770 net.cpp:141] Setting up loss1/fc
I0403 21:39:25.815078 23770 net.cpp:148] Top shape: 24 1024 (24576)
I0403 21:39:25.815094 23770 net.cpp:156] Memory required for data: 945992736
I0403 21:39:25.815112 23770 layer_factory.hpp:77] Creating layer loss1/relu_fc
I0403 21:39:25.815134 23770 net.cpp:91] Creating Layer loss1/relu_fc
I0403 21:39:25.815150 23770 net.cpp:425] loss1/relu_fc <- loss1/fc
I0403 21:39:25.815170 23770 net.cpp:386] loss1/relu_fc -> loss1/fc (in-place)
I0403 21:39:25.815352 23770 net.cpp:141] Setting up loss1/relu_fc
I0403 21:39:25.815379 23770 net.cpp:148] Top shape: 24 1024 (24576)
I0403 21:39:25.815397 23770 net.cpp:156] Memory required for data: 946091040
I0403 21:39:25.815412 23770 layer_factory.hpp:77] Creating layer loss1/drop_fc
I0403 21:39:25.815438 23770 net.cpp:91] Creating Layer loss1/drop_fc
I0403 21:39:25.815457 23770 net.cpp:425] loss1/drop_fc <- loss1/fc
I0403 21:39:25.815475 23770 net.cpp:386] loss1/drop_fc -> loss1/fc (in-place)
I0403 21:39:25.815526 23770 net.cpp:141] Setting up loss1/drop_fc
I0403 21:39:25.815549 23770 net.cpp:148] Top shape: 24 1024 (24576)
I0403 21:39:25.815564 23770 net.cpp:156] Memory required for data: 946189344
I0403 21:39:25.815579 23770 layer_factory.hpp:77] Creating layer loss1/classifier_plantvillage
I0403 21:39:25.815598 23770 net.cpp:91] Creating Layer loss1/classifier_plantvillage
I0403 21:39:25.815614 23770 net.cpp:425] loss1/classifier_plantvillage <- loss1/fc
I0403 21:39:25.815639 23770 net.cpp:399] loss1/classifier_plantvillage -> loss1/classifier_plantvillage
I0403 21:39:25.816545 23770 net.cpp:141] Setting up loss1/classifier_plantvillage
I0403 21:39:25.816571 23770 net.cpp:148] Top shape: 24 38 (912)
I0403 21:39:25.816587 23770 net.cpp:156] Memory required for data: 946192992
I0403 21:39:25.816606 23770 layer_factory.hpp:77] Creating layer loss1/classifier_plantvillage_loss1/classifier_plantvillage_0_split
I0403 21:39:25.816625 23770 net.cpp:91] Creating Layer loss1/classifier_plantvillage_loss1/classifier_plantvillage_0_split
I0403 21:39:25.816642 23770 net.cpp:425] loss1/classifier_plantvillage_loss1/classifier_plantvillage_0_split <- loss1/classifier_plantvillage
I0403 21:39:25.816658 23770 net.cpp:399] loss1/classifier_plantvillage_loss1/classifier_plantvillage_0_split -> loss1/classifier_plantvillage_loss1/classifier_plantvillage_0_split_0
I0403 21:39:25.816679 23770 net.cpp:399] loss1/classifier_plantvillage_loss1/classifier_plantvillage_0_split -> loss1/classifier_plantvillage_loss1/classifier_plantvillage_0_split_1
I0403 21:39:25.816702 23770 net.cpp:399] loss1/classifier_plantvillage_loss1/classifier_plantvillage_0_split -> loss1/classifier_plantvillage_loss1/classifier_plantvillage_0_split_2
I0403 21:39:25.816766 23770 net.cpp:141] Setting up loss1/classifier_plantvillage_loss1/classifier_plantvillage_0_split
I0403 21:39:25.816790 23770 net.cpp:148] Top shape: 24 38 (912)
I0403 21:39:25.816807 23770 net.cpp:148] Top shape: 24 38 (912)
I0403 21:39:25.816822 23770 net.cpp:148] Top shape: 24 38 (912)
I0403 21:39:25.816834 23770 net.cpp:156] Memory required for data: 946203936
I0403 21:39:25.816849 23770 layer_factory.hpp:77] Creating layer inception_4b/1x1
I0403 21:39:25.816871 23770 net.cpp:91] Creating Layer inception_4b/1x1
I0403 21:39:25.816903 23770 net.cpp:425] inception_4b/1x1 <- inception_4a/output_inception_4a/output_0_split_1
I0403 21:39:25.816925 23770 net.cpp:399] inception_4b/1x1 -> inception_4b/1x1
I0403 21:39:25.818526 23770 net.cpp:141] Setting up inception_4b/1x1
I0403 21:39:25.818555 23770 net.cpp:148] Top shape: 24 160 14 14 (752640)
I0403 21:39:25.818572 23770 net.cpp:156] Memory required for data: 949214496
I0403 21:39:25.818590 23770 layer_factory.hpp:77] Creating layer inception_4b/relu_1x1
I0403 21:39:25.818609 23770 net.cpp:91] Creating Layer inception_4b/relu_1x1
I0403 21:39:25.818627 23770 net.cpp:425] inception_4b/relu_1x1 <- inception_4b/1x1
I0403 21:39:25.818646 23770 net.cpp:386] inception_4b/relu_1x1 -> inception_4b/1x1 (in-place)
I0403 21:39:25.818824 23770 net.cpp:141] Setting up inception_4b/relu_1x1
I0403 21:39:25.818850 23770 net.cpp:148] Top shape: 24 160 14 14 (752640)
I0403 21:39:25.818864 23770 net.cpp:156] Memory required for data: 952225056
I0403 21:39:25.818879 23770 layer_factory.hpp:77] Creating layer inception_4b/3x3_reduce
I0403 21:39:25.818902 23770 net.cpp:91] Creating Layer inception_4b/3x3_reduce
I0403 21:39:25.818920 23770 net.cpp:425] inception_4b/3x3_reduce <- inception_4a/output_inception_4a/output_0_split_2
I0403 21:39:25.818941 23770 net.cpp:399] inception_4b/3x3_reduce -> inception_4b/3x3_reduce
I0403 21:39:25.820268 23770 net.cpp:141] Setting up inception_4b/3x3_reduce
I0403 21:39:25.820297 23770 net.cpp:148] Top shape: 24 112 14 14 (526848)
I0403 21:39:25.820312 23770 net.cpp:156] Memory required for data: 954332448
I0403 21:39:25.820330 23770 layer_factory.hpp:77] Creating layer inception_4b/relu_3x3_reduce
I0403 21:39:25.820348 23770 net.cpp:91] Creating Layer inception_4b/relu_3x3_reduce
I0403 21:39:25.820365 23770 net.cpp:425] inception_4b/relu_3x3_reduce <- inception_4b/3x3_reduce
I0403 21:39:25.820385 23770 net.cpp:386] inception_4b/relu_3x3_reduce -> inception_4b/3x3_reduce (in-place)
I0403 21:39:25.820662 23770 net.cpp:141] Setting up inception_4b/relu_3x3_reduce
I0403 21:39:25.820688 23770 net.cpp:148] Top shape: 24 112 14 14 (526848)
I0403 21:39:25.820703 23770 net.cpp:156] Memory required for data: 956439840
I0403 21:39:25.820719 23770 layer_factory.hpp:77] Creating layer inception_4b/3x3
I0403 21:39:25.820740 23770 net.cpp:91] Creating Layer inception_4b/3x3
I0403 21:39:25.820760 23770 net.cpp:425] inception_4b/3x3 <- inception_4b/3x3_reduce
I0403 21:39:25.820780 23770 net.cpp:399] inception_4b/3x3 -> inception_4b/3x3
I0403 21:39:25.823699 23770 net.cpp:141] Setting up inception_4b/3x3
I0403 21:39:25.823729 23770 net.cpp:148] Top shape: 24 224 14 14 (1053696)
I0403 21:39:25.823745 23770 net.cpp:156] Memory required for data: 960654624
I0403 21:39:25.823763 23770 layer_factory.hpp:77] Creating layer inception_4b/relu_3x3
I0403 21:39:25.823783 23770 net.cpp:91] Creating Layer inception_4b/relu_3x3
I0403 21:39:25.823801 23770 net.cpp:425] inception_4b/relu_3x3 <- inception_4b/3x3
I0403 21:39:25.823817 23770 net.cpp:386] inception_4b/relu_3x3 -> inception_4b/3x3 (in-place)
I0403 21:39:25.823999 23770 net.cpp:141] Setting up inception_4b/relu_3x3
I0403 21:39:25.824028 23770 net.cpp:148] Top shape: 24 224 14 14 (1053696)
I0403 21:39:25.824043 23770 net.cpp:156] Memory required for data: 964869408
I0403 21:39:25.824059 23770 layer_factory.hpp:77] Creating layer inception_4b/5x5_reduce
I0403 21:39:25.824080 23770 net.cpp:91] Creating Layer inception_4b/5x5_reduce
I0403 21:39:25.824100 23770 net.cpp:425] inception_4b/5x5_reduce <- inception_4a/output_inception_4a/output_0_split_3
I0403 21:39:25.824120 23770 net.cpp:399] inception_4b/5x5_reduce -> inception_4b/5x5_reduce
I0403 21:39:25.825192 23770 net.cpp:141] Setting up inception_4b/5x5_reduce
I0403 21:39:25.825224 23770 net.cpp:148] Top shape: 24 24 14 14 (112896)
I0403 21:39:25.825240 23770 net.cpp:156] Memory required for data: 965320992
I0403 21:39:25.825258 23770 layer_factory.hpp:77] Creating layer inception_4b/relu_5x5_reduce
I0403 21:39:25.825276 23770 net.cpp:91] Creating Layer inception_4b/relu_5x5_reduce
I0403 21:39:25.825307 23770 net.cpp:425] inception_4b/relu_5x5_reduce <- inception_4b/5x5_reduce
I0403 21:39:25.825328 23770 net.cpp:386] inception_4b/relu_5x5_reduce -> inception_4b/5x5_reduce (in-place)
I0403 21:39:25.825512 23770 net.cpp:141] Setting up inception_4b/relu_5x5_reduce
I0403 21:39:25.825537 23770 net.cpp:148] Top shape: 24 24 14 14 (112896)
I0403 21:39:25.825552 23770 net.cpp:156] Memory required for data: 965772576
I0403 21:39:25.825567 23770 layer_factory.hpp:77] Creating layer inception_4b/5x5
I0403 21:39:25.825589 23770 net.cpp:91] Creating Layer inception_4b/5x5
I0403 21:39:25.825608 23770 net.cpp:425] inception_4b/5x5 <- inception_4b/5x5_reduce
I0403 21:39:25.825629 23770 net.cpp:399] inception_4b/5x5 -> inception_4b/5x5
I0403 21:39:25.826835 23770 net.cpp:141] Setting up inception_4b/5x5
I0403 21:39:25.826865 23770 net.cpp:148] Top shape: 24 64 14 14 (301056)
I0403 21:39:25.826881 23770 net.cpp:156] Memory required for data: 966976800
I0403 21:39:25.826900 23770 layer_factory.hpp:77] Creating layer inception_4b/relu_5x5
I0403 21:39:25.826917 23770 net.cpp:91] Creating Layer inception_4b/relu_5x5
I0403 21:39:25.826935 23770 net.cpp:425] inception_4b/relu_5x5 <- inception_4b/5x5
I0403 21:39:25.826956 23770 net.cpp:386] inception_4b/relu_5x5 -> inception_4b/5x5 (in-place)
I0403 21:39:25.827239 23770 net.cpp:141] Setting up inception_4b/relu_5x5
I0403 21:39:25.827271 23770 net.cpp:148] Top shape: 24 64 14 14 (301056)
I0403 21:39:25.827288 23770 net.cpp:156] Memory required for data: 968181024
I0403 21:39:25.827303 23770 layer_factory.hpp:77] Creating layer inception_4b/pool
I0403 21:39:25.827322 23770 net.cpp:91] Creating Layer inception_4b/pool
I0403 21:39:25.827338 23770 net.cpp:425] inception_4b/pool <- inception_4a/output_inception_4a/output_0_split_4
I0403 21:39:25.827359 23770 net.cpp:399] inception_4b/pool -> inception_4b/pool
I0403 21:39:25.827419 23770 net.cpp:141] Setting up inception_4b/pool
I0403 21:39:25.827445 23770 net.cpp:148] Top shape: 24 512 14 14 (2408448)
I0403 21:39:25.827458 23770 net.cpp:156] Memory required for data: 977814816
I0403 21:39:25.827473 23770 layer_factory.hpp:77] Creating layer inception_4b/pool_proj
I0403 21:39:25.827494 23770 net.cpp:91] Creating Layer inception_4b/pool_proj
I0403 21:39:25.827512 23770 net.cpp:425] inception_4b/pool_proj <- inception_4b/pool
I0403 21:39:25.827533 23770 net.cpp:399] inception_4b/pool_proj -> inception_4b/pool_proj
I0403 21:39:25.828713 23770 net.cpp:141] Setting up inception_4b/pool_proj
I0403 21:39:25.828743 23770 net.cpp:148] Top shape: 24 64 14 14 (301056)
I0403 21:39:25.828759 23770 net.cpp:156] Memory required for data: 979019040
I0403 21:39:25.828778 23770 layer_factory.hpp:77] Creating layer inception_4b/relu_pool_proj
I0403 21:39:25.828794 23770 net.cpp:91] Creating Layer inception_4b/relu_pool_proj
I0403 21:39:25.828810 23770 net.cpp:425] inception_4b/relu_pool_proj <- inception_4b/pool_proj
I0403 21:39:25.828829 23770 net.cpp:386] inception_4b/relu_pool_proj -> inception_4b/pool_proj (in-place)
I0403 21:39:25.829007 23770 net.cpp:141] Setting up inception_4b/relu_pool_proj
I0403 21:39:25.829033 23770 net.cpp:148] Top shape: 24 64 14 14 (301056)
I0403 21:39:25.829047 23770 net.cpp:156] Memory required for data: 980223264
I0403 21:39:25.829063 23770 layer_factory.hpp:77] Creating layer inception_4b/output
I0403 21:39:25.829080 23770 net.cpp:91] Creating Layer inception_4b/output
I0403 21:39:25.829095 23770 net.cpp:425] inception_4b/output <- inception_4b/1x1
I0403 21:39:25.829113 23770 net.cpp:425] inception_4b/output <- inception_4b/3x3
I0403 21:39:25.829128 23770 net.cpp:425] inception_4b/output <- inception_4b/5x5
I0403 21:39:25.829144 23770 net.cpp:425] inception_4b/output <- inception_4b/pool_proj
I0403 21:39:25.829162 23770 net.cpp:399] inception_4b/output -> inception_4b/output
I0403 21:39:25.829212 23770 net.cpp:141] Setting up inception_4b/output
I0403 21:39:25.829237 23770 net.cpp:148] Top shape: 24 512 14 14 (2408448)
I0403 21:39:25.829252 23770 net.cpp:156] Memory required for data: 989857056
I0403 21:39:25.829282 23770 layer_factory.hpp:77] Creating layer inception_4b/output_inception_4b/output_0_split
I0403 21:39:25.829299 23770 net.cpp:91] Creating Layer inception_4b/output_inception_4b/output_0_split
I0403 21:39:25.829315 23770 net.cpp:425] inception_4b/output_inception_4b/output_0_split <- inception_4b/output
I0403 21:39:25.829335 23770 net.cpp:399] inception_4b/output_inception_4b/output_0_split -> inception_4b/output_inception_4b/output_0_split_0
I0403 21:39:25.829356 23770 net.cpp:399] inception_4b/output_inception_4b/output_0_split -> inception_4b/output_inception_4b/output_0_split_1
I0403 21:39:25.829378 23770 net.cpp:399] inception_4b/output_inception_4b/output_0_split -> inception_4b/output_inception_4b/output_0_split_2
I0403 21:39:25.829398 23770 net.cpp:399] inception_4b/output_inception_4b/output_0_split -> inception_4b/output_inception_4b/output_0_split_3
I0403 21:39:25.829481 23770 net.cpp:141] Setting up inception_4b/output_inception_4b/output_0_split
I0403 21:39:25.829504 23770 net.cpp:148] Top shape: 24 512 14 14 (2408448)
I0403 21:39:25.829520 23770 net.cpp:148] Top shape: 24 512 14 14 (2408448)
I0403 21:39:25.829536 23770 net.cpp:148] Top shape: 24 512 14 14 (2408448)
I0403 21:39:25.829551 23770 net.cpp:148] Top shape: 24 512 14 14 (2408448)
I0403 21:39:25.829565 23770 net.cpp:156] Memory required for data: 1028392224
I0403 21:39:25.829578 23770 layer_factory.hpp:77] Creating layer inception_4c/1x1
I0403 21:39:25.829602 23770 net.cpp:91] Creating Layer inception_4c/1x1
I0403 21:39:25.829619 23770 net.cpp:425] inception_4c/1x1 <- inception_4b/output_inception_4b/output_0_split_0
I0403 21:39:25.829638 23770 net.cpp:399] inception_4c/1x1 -> inception_4c/1x1
I0403 21:39:25.831040 23770 net.cpp:141] Setting up inception_4c/1x1
I0403 21:39:25.831068 23770 net.cpp:148] Top shape: 24 128 14 14 (602112)
I0403 21:39:25.831084 23770 net.cpp:156] Memory required for data: 1030800672
I0403 21:39:25.831102 23770 layer_factory.hpp:77] Creating layer inception_4c/relu_1x1
I0403 21:39:25.831121 23770 net.cpp:91] Creating Layer inception_4c/relu_1x1
I0403 21:39:25.831140 23770 net.cpp:425] inception_4c/relu_1x1 <- inception_4c/1x1
I0403 21:39:25.831156 23770 net.cpp:386] inception_4c/relu_1x1 -> inception_4c/1x1 (in-place)
I0403 21:39:25.831341 23770 net.cpp:141] Setting up inception_4c/relu_1x1
I0403 21:39:25.831369 23770 net.cpp:148] Top shape: 24 128 14 14 (602112)
I0403 21:39:25.831385 23770 net.cpp:156] Memory required for data: 1033209120
I0403 21:39:25.831400 23770 layer_factory.hpp:77] Creating layer inception_4c/3x3_reduce
I0403 21:39:25.831423 23770 net.cpp:91] Creating Layer inception_4c/3x3_reduce
I0403 21:39:25.831440 23770 net.cpp:425] inception_4c/3x3_reduce <- inception_4b/output_inception_4b/output_0_split_1
I0403 21:39:25.831459 23770 net.cpp:399] inception_4c/3x3_reduce -> inception_4c/3x3_reduce
I0403 21:39:25.833375 23770 net.cpp:141] Setting up inception_4c/3x3_reduce
I0403 21:39:25.833406 23770 net.cpp:148] Top shape: 24 128 14 14 (602112)
I0403 21:39:25.833423 23770 net.cpp:156] Memory required for data: 1035617568
I0403 21:39:25.833442 23770 layer_factory.hpp:77] Creating layer inception_4c/relu_3x3_reduce
I0403 21:39:25.833461 23770 net.cpp:91] Creating Layer inception_4c/relu_3x3_reduce
I0403 21:39:25.833477 23770 net.cpp:425] inception_4c/relu_3x3_reduce <- inception_4c/3x3_reduce
I0403 21:39:25.833494 23770 net.cpp:386] inception_4c/relu_3x3_reduce -> inception_4c/3x3_reduce (in-place)
I0403 21:39:25.833781 23770 net.cpp:141] Setting up inception_4c/relu_3x3_reduce
I0403 21:39:25.833809 23770 net.cpp:148] Top shape: 24 128 14 14 (602112)
I0403 21:39:25.833825 23770 net.cpp:156] Memory required for data: 1038026016
I0403 21:39:25.833840 23770 layer_factory.hpp:77] Creating layer inception_4c/3x3
I0403 21:39:25.833863 23770 net.cpp:91] Creating Layer inception_4c/3x3
I0403 21:39:25.833883 23770 net.cpp:425] inception_4c/3x3 <- inception_4c/3x3_reduce
I0403 21:39:25.833901 23770 net.cpp:399] inception_4c/3x3 -> inception_4c/3x3
I0403 21:39:25.837458 23770 net.cpp:141] Setting up inception_4c/3x3
I0403 21:39:25.837503 23770 net.cpp:148] Top shape: 24 256 14 14 (1204224)
I0403 21:39:25.837520 23770 net.cpp:156] Memory required for data: 1042842912
I0403 21:39:25.837551 23770 layer_factory.hpp:77] Creating layer inception_4c/relu_3x3
I0403 21:39:25.837573 23770 net.cpp:91] Creating Layer inception_4c/relu_3x3
I0403 21:39:25.837589 23770 net.cpp:425] inception_4c/relu_3x3 <- inception_4c/3x3
I0403 21:39:25.837609 23770 net.cpp:386] inception_4c/relu_3x3 -> inception_4c/3x3 (in-place)
I0403 21:39:25.837790 23770 net.cpp:141] Setting up inception_4c/relu_3x3
I0403 21:39:25.837815 23770 net.cpp:148] Top shape: 24 256 14 14 (1204224)
I0403 21:39:25.837831 23770 net.cpp:156] Memory required for data: 1047659808
I0403 21:39:25.837846 23770 layer_factory.hpp:77] Creating layer inception_4c/5x5_reduce
I0403 21:39:25.837869 23770 net.cpp:91] Creating Layer inception_4c/5x5_reduce
I0403 21:39:25.837887 23770 net.cpp:425] inception_4c/5x5_reduce <- inception_4b/output_inception_4b/output_0_split_2
I0403 21:39:25.837908 23770 net.cpp:399] inception_4c/5x5_reduce -> inception_4c/5x5_reduce
I0403 21:39:25.839001 23770 net.cpp:141] Setting up inception_4c/5x5_reduce
I0403 21:39:25.839030 23770 net.cpp:148] Top shape: 24 24 14 14 (112896)
I0403 21:39:25.839046 23770 net.cpp:156] Memory required for data: 1048111392
I0403 21:39:25.839064 23770 layer_factory.hpp:77] Creating layer inception_4c/relu_5x5_reduce
I0403 21:39:25.839082 23770 net.cpp:91] Creating Layer inception_4c/relu_5x5_reduce
I0403 21:39:25.839099 23770 net.cpp:425] inception_4c/relu_5x5_reduce <- inception_4c/5x5_reduce
I0403 21:39:25.839119 23770 net.cpp:386] inception_4c/relu_5x5_reduce -> inception_4c/5x5_reduce (in-place)
I0403 21:39:25.839306 23770 net.cpp:141] Setting up inception_4c/relu_5x5_reduce
I0403 21:39:25.839332 23770 net.cpp:148] Top shape: 24 24 14 14 (112896)
I0403 21:39:25.839347 23770 net.cpp:156] Memory required for data: 1048562976
I0403 21:39:25.839361 23770 layer_factory.hpp:77] Creating layer inception_4c/5x5
I0403 21:39:25.839383 23770 net.cpp:91] Creating Layer inception_4c/5x5
I0403 21:39:25.839401 23770 net.cpp:425] inception_4c/5x5 <- inception_4c/5x5_reduce
I0403 21:39:25.839426 23770 net.cpp:399] inception_4c/5x5 -> inception_4c/5x5
I0403 21:39:25.840690 23770 net.cpp:141] Setting up inception_4c/5x5
I0403 21:39:25.840718 23770 net.cpp:148] Top shape: 24 64 14 14 (301056)
I0403 21:39:25.840733 23770 net.cpp:156] Memory required for data: 1049767200
I0403 21:39:25.840750 23770 layer_factory.hpp:77] Creating layer inception_4c/relu_5x5
I0403 21:39:25.840770 23770 net.cpp:91] Creating Layer inception_4c/relu_5x5
I0403 21:39:25.840787 23770 net.cpp:425] inception_4c/relu_5x5 <- inception_4c/5x5
I0403 21:39:25.840804 23770 net.cpp:386] inception_4c/relu_5x5 -> inception_4c/5x5 (in-place)
I0403 21:39:25.841094 23770 net.cpp:141] Setting up inception_4c/relu_5x5
I0403 21:39:25.841120 23770 net.cpp:148] Top shape: 24 64 14 14 (301056)
I0403 21:39:25.841135 23770 net.cpp:156] Memory required for data: 1050971424
I0403 21:39:25.841148 23770 layer_factory.hpp:77] Creating layer inception_4c/pool
I0403 21:39:25.841166 23770 net.cpp:91] Creating Layer inception_4c/pool
I0403 21:39:25.841182 23770 net.cpp:425] inception_4c/pool <- inception_4b/output_inception_4b/output_0_split_3
I0403 21:39:25.841205 23770 net.cpp:399] inception_4c/pool -> inception_4c/pool
I0403 21:39:25.841272 23770 net.cpp:141] Setting up inception_4c/pool
I0403 21:39:25.841295 23770 net.cpp:148] Top shape: 24 512 14 14 (2408448)
I0403 21:39:25.841310 23770 net.cpp:156] Memory required for data: 1060605216
I0403 21:39:25.841325 23770 layer_factory.hpp:77] Creating layer inception_4c/pool_proj
I0403 21:39:25.841346 23770 net.cpp:91] Creating Layer inception_4c/pool_proj
I0403 21:39:25.841363 23770 net.cpp:425] inception_4c/pool_proj <- inception_4c/pool
I0403 21:39:25.841384 23770 net.cpp:399] inception_4c/pool_proj -> inception_4c/pool_proj
I0403 21:39:25.842583 23770 net.cpp:141] Setting up inception_4c/pool_proj
I0403 21:39:25.842615 23770 net.cpp:148] Top shape: 24 64 14 14 (301056)
I0403 21:39:25.842644 23770 net.cpp:156] Memory required for data: 1061809440
I0403 21:39:25.842664 23770 layer_factory.hpp:77] Creating layer inception_4c/relu_pool_proj
I0403 21:39:25.842681 23770 net.cpp:91] Creating Layer inception_4c/relu_pool_proj
I0403 21:39:25.842697 23770 net.cpp:425] inception_4c/relu_pool_proj <- inception_4c/pool_proj
I0403 21:39:25.842716 23770 net.cpp:386] inception_4c/relu_pool_proj -> inception_4c/pool_proj (in-place)
I0403 21:39:25.842897 23770 net.cpp:141] Setting up inception_4c/relu_pool_proj
I0403 21:39:25.842922 23770 net.cpp:148] Top shape: 24 64 14 14 (301056)
I0403 21:39:25.842937 23770 net.cpp:156] Memory required for data: 1063013664
I0403 21:39:25.842952 23770 layer_factory.hpp:77] Creating layer inception_4c/output
I0403 21:39:25.842969 23770 net.cpp:91] Creating Layer inception_4c/output
I0403 21:39:25.842984 23770 net.cpp:425] inception_4c/output <- inception_4c/1x1
I0403 21:39:25.843001 23770 net.cpp:425] inception_4c/output <- inception_4c/3x3
I0403 21:39:25.843016 23770 net.cpp:425] inception_4c/output <- inception_4c/5x5
I0403 21:39:25.843031 23770 net.cpp:425] inception_4c/output <- inception_4c/pool_proj
I0403 21:39:25.843050 23770 net.cpp:399] inception_4c/output -> inception_4c/output
I0403 21:39:25.843097 23770 net.cpp:141] Setting up inception_4c/output
I0403 21:39:25.843121 23770 net.cpp:148] Top shape: 24 512 14 14 (2408448)
I0403 21:39:25.843134 23770 net.cpp:156] Memory required for data: 1072647456
I0403 21:39:25.843149 23770 layer_factory.hpp:77] Creating layer inception_4c/output_inception_4c/output_0_split
I0403 21:39:25.843165 23770 net.cpp:91] Creating Layer inception_4c/output_inception_4c/output_0_split
I0403 21:39:25.843180 23770 net.cpp:425] inception_4c/output_inception_4c/output_0_split <- inception_4c/output
I0403 21:39:25.843202 23770 net.cpp:399] inception_4c/output_inception_4c/output_0_split -> inception_4c/output_inception_4c/output_0_split_0
I0403 21:39:25.843225 23770 net.cpp:399] inception_4c/output_inception_4c/output_0_split -> inception_4c/output_inception_4c/output_0_split_1
I0403 21:39:25.843245 23770 net.cpp:399] inception_4c/output_inception_4c/output_0_split -> inception_4c/output_inception_4c/output_0_split_2
I0403 21:39:25.843264 23770 net.cpp:399] inception_4c/output_inception_4c/output_0_split -> inception_4c/output_inception_4c/output_0_split_3
I0403 21:39:25.843349 23770 net.cpp:141] Setting up inception_4c/output_inception_4c/output_0_split
I0403 21:39:25.843372 23770 net.cpp:148] Top shape: 24 512 14 14 (2408448)
I0403 21:39:25.843389 23770 net.cpp:148] Top shape: 24 512 14 14 (2408448)
I0403 21:39:25.843402 23770 net.cpp:148] Top shape: 24 512 14 14 (2408448)
I0403 21:39:25.843417 23770 net.cpp:148] Top shape: 24 512 14 14 (2408448)
I0403 21:39:25.843430 23770 net.cpp:156] Memory required for data: 1111182624
I0403 21:39:25.843444 23770 layer_factory.hpp:77] Creating layer inception_4d/1x1
I0403 21:39:25.843467 23770 net.cpp:91] Creating Layer inception_4d/1x1
I0403 21:39:25.843484 23770 net.cpp:425] inception_4d/1x1 <- inception_4c/output_inception_4c/output_0_split_0
I0403 21:39:25.843502 23770 net.cpp:399] inception_4d/1x1 -> inception_4d/1x1
I0403 21:39:25.844844 23770 net.cpp:141] Setting up inception_4d/1x1
I0403 21:39:25.844872 23770 net.cpp:148] Top shape: 24 112 14 14 (526848)
I0403 21:39:25.844887 23770 net.cpp:156] Memory required for data: 1113290016
I0403 21:39:25.844905 23770 layer_factory.hpp:77] Creating layer inception_4d/relu_1x1
I0403 21:39:25.844925 23770 net.cpp:91] Creating Layer inception_4d/relu_1x1
I0403 21:39:25.844943 23770 net.cpp:425] inception_4d/relu_1x1 <- inception_4d/1x1
I0403 21:39:25.844960 23770 net.cpp:386] inception_4d/relu_1x1 -> inception_4d/1x1 (in-place)
I0403 21:39:25.845144 23770 net.cpp:141] Setting up inception_4d/relu_1x1
I0403 21:39:25.845170 23770 net.cpp:148] Top shape: 24 112 14 14 (526848)
I0403 21:39:25.845183 23770 net.cpp:156] Memory required for data: 1115397408
I0403 21:39:25.845202 23770 layer_factory.hpp:77] Creating layer inception_4d/3x3_reduce
I0403 21:39:25.845238 23770 net.cpp:91] Creating Layer inception_4d/3x3_reduce
I0403 21:39:25.845257 23770 net.cpp:425] inception_4d/3x3_reduce <- inception_4c/output_inception_4c/output_0_split_1
I0403 21:39:25.845278 23770 net.cpp:399] inception_4d/3x3_reduce -> inception_4d/3x3_reduce
I0403 21:39:25.846756 23770 net.cpp:141] Setting up inception_4d/3x3_reduce
I0403 21:39:25.846783 23770 net.cpp:148] Top shape: 24 144 14 14 (677376)
I0403 21:39:25.846798 23770 net.cpp:156] Memory required for data: 1118106912
I0403 21:39:25.846817 23770 layer_factory.hpp:77] Creating layer inception_4d/relu_3x3_reduce
I0403 21:39:25.846835 23770 net.cpp:91] Creating Layer inception_4d/relu_3x3_reduce
I0403 21:39:25.846853 23770 net.cpp:425] inception_4d/relu_3x3_reduce <- inception_4d/3x3_reduce
I0403 21:39:25.846869 23770 net.cpp:386] inception_4d/relu_3x3_reduce -> inception_4d/3x3_reduce (in-place)
I0403 21:39:25.847156 23770 net.cpp:141] Setting up inception_4d/relu_3x3_reduce
I0403 21:39:25.847180 23770 net.cpp:148] Top shape: 24 144 14 14 (677376)
I0403 21:39:25.847198 23770 net.cpp:156] Memory required for data: 1120816416
I0403 21:39:25.847214 23770 layer_factory.hpp:77] Creating layer inception_4d/3x3
I0403 21:39:25.847237 23770 net.cpp:91] Creating Layer inception_4d/3x3
I0403 21:39:25.847254 23770 net.cpp:425] inception_4d/3x3 <- inception_4d/3x3_reduce
I0403 21:39:25.847275 23770 net.cpp:399] inception_4d/3x3 -> inception_4d/3x3
I0403 21:39:25.851446 23770 net.cpp:141] Setting up inception_4d/3x3
I0403 21:39:25.851477 23770 net.cpp:148] Top shape: 24 288 14 14 (1354752)
I0403 21:39:25.851493 23770 net.cpp:156] Memory required for data: 1126235424
I0403 21:39:25.851512 23770 layer_factory.hpp:77] Creating layer inception_4d/relu_3x3
I0403 21:39:25.851529 23770 net.cpp:91] Creating Layer inception_4d/relu_3x3
I0403 21:39:25.851546 23770 net.cpp:425] inception_4d/relu_3x3 <- inception_4d/3x3
I0403 21:39:25.851562 23770 net.cpp:386] inception_4d/relu_3x3 -> inception_4d/3x3 (in-place)
I0403 21:39:25.851744 23770 net.cpp:141] Setting up inception_4d/relu_3x3
I0403 21:39:25.851771 23770 net.cpp:148] Top shape: 24 288 14 14 (1354752)
I0403 21:39:25.851786 23770 net.cpp:156] Memory required for data: 1131654432
I0403 21:39:25.851800 23770 layer_factory.hpp:77] Creating layer inception_4d/5x5_reduce
I0403 21:39:25.851822 23770 net.cpp:91] Creating Layer inception_4d/5x5_reduce
I0403 21:39:25.851840 23770 net.cpp:425] inception_4d/5x5_reduce <- inception_4c/output_inception_4c/output_0_split_2
I0403 21:39:25.851861 23770 net.cpp:399] inception_4d/5x5_reduce -> inception_4d/5x5_reduce
I0403 21:39:25.852980 23770 net.cpp:141] Setting up inception_4d/5x5_reduce
I0403 21:39:25.853006 23770 net.cpp:148] Top shape: 24 32 14 14 (150528)
I0403 21:39:25.853023 23770 net.cpp:156] Memory required for data: 1132256544
I0403 21:39:25.853040 23770 layer_factory.hpp:77] Creating layer inception_4d/relu_5x5_reduce
I0403 21:39:25.853061 23770 net.cpp:91] Creating Layer inception_4d/relu_5x5_reduce
I0403 21:39:25.853078 23770 net.cpp:425] inception_4d/relu_5x5_reduce <- inception_4d/5x5_reduce
I0403 21:39:25.853094 23770 net.cpp:386] inception_4d/relu_5x5_reduce -> inception_4d/5x5_reduce (in-place)
I0403 21:39:25.853287 23770 net.cpp:141] Setting up inception_4d/relu_5x5_reduce
I0403 21:39:25.853312 23770 net.cpp:148] Top shape: 24 32 14 14 (150528)
I0403 21:39:25.853327 23770 net.cpp:156] Memory required for data: 1132858656
I0403 21:39:25.853341 23770 layer_factory.hpp:77] Creating layer inception_4d/5x5
I0403 21:39:25.853363 23770 net.cpp:91] Creating Layer inception_4d/5x5
I0403 21:39:25.853380 23770 net.cpp:425] inception_4d/5x5 <- inception_4d/5x5_reduce
I0403 21:39:25.853400 23770 net.cpp:399] inception_4d/5x5 -> inception_4d/5x5
I0403 21:39:25.854847 23770 net.cpp:141] Setting up inception_4d/5x5
I0403 21:39:25.854874 23770 net.cpp:148] Top shape: 24 64 14 14 (301056)
I0403 21:39:25.854889 23770 net.cpp:156] Memory required for data: 1134062880
I0403 21:39:25.854907 23770 layer_factory.hpp:77] Creating layer inception_4d/relu_5x5
I0403 21:39:25.854939 23770 net.cpp:91] Creating Layer inception_4d/relu_5x5
I0403 21:39:25.854959 23770 net.cpp:425] inception_4d/relu_5x5 <- inception_4d/5x5
I0403 21:39:25.854979 23770 net.cpp:386] inception_4d/relu_5x5 -> inception_4d/5x5 (in-place)
I0403 21:39:25.855281 23770 net.cpp:141] Setting up inception_4d/relu_5x5
I0403 21:39:25.855307 23770 net.cpp:148] Top shape: 24 64 14 14 (301056)
I0403 21:39:25.855322 23770 net.cpp:156] Memory required for data: 1135267104
I0403 21:39:25.855337 23770 layer_factory.hpp:77] Creating layer inception_4d/pool
I0403 21:39:25.855355 23770 net.cpp:91] Creating Layer inception_4d/pool
I0403 21:39:25.855371 23770 net.cpp:425] inception_4d/pool <- inception_4c/output_inception_4c/output_0_split_3
I0403 21:39:25.855391 23770 net.cpp:399] inception_4d/pool -> inception_4d/pool
I0403 21:39:25.855456 23770 net.cpp:141] Setting up inception_4d/pool
I0403 21:39:25.855479 23770 net.cpp:148] Top shape: 24 512 14 14 (2408448)
I0403 21:39:25.855494 23770 net.cpp:156] Memory required for data: 1144900896
I0403 21:39:25.855509 23770 layer_factory.hpp:77] Creating layer inception_4d/pool_proj
I0403 21:39:25.855532 23770 net.cpp:91] Creating Layer inception_4d/pool_proj
I0403 21:39:25.855551 23770 net.cpp:425] inception_4d/pool_proj <- inception_4d/pool
I0403 21:39:25.855568 23770 net.cpp:399] inception_4d/pool_proj -> inception_4d/pool_proj
I0403 21:39:25.857313 23770 net.cpp:141] Setting up inception_4d/pool_proj
I0403 21:39:25.857347 23770 net.cpp:148] Top shape: 24 64 14 14 (301056)
I0403 21:39:25.857363 23770 net.cpp:156] Memory required for data: 1146105120
I0403 21:39:25.857383 23770 layer_factory.hpp:77] Creating layer inception_4d/relu_pool_proj
I0403 21:39:25.857400 23770 net.cpp:91] Creating Layer inception_4d/relu_pool_proj
I0403 21:39:25.857416 23770 net.cpp:425] inception_4d/relu_pool_proj <- inception_4d/pool_proj
I0403 21:39:25.857432 23770 net.cpp:386] inception_4d/relu_pool_proj -> inception_4d/pool_proj (in-place)
I0403 21:39:25.857617 23770 net.cpp:141] Setting up inception_4d/relu_pool_proj
I0403 21:39:25.857643 23770 net.cpp:148] Top shape: 24 64 14 14 (301056)
I0403 21:39:25.857658 23770 net.cpp:156] Memory required for data: 1147309344
I0403 21:39:25.857673 23770 layer_factory.hpp:77] Creating layer inception_4d/output
I0403 21:39:25.857691 23770 net.cpp:91] Creating Layer inception_4d/output
I0403 21:39:25.857707 23770 net.cpp:425] inception_4d/output <- inception_4d/1x1
I0403 21:39:25.857722 23770 net.cpp:425] inception_4d/output <- inception_4d/3x3
I0403 21:39:25.857738 23770 net.cpp:425] inception_4d/output <- inception_4d/5x5
I0403 21:39:25.857754 23770 net.cpp:425] inception_4d/output <- inception_4d/pool_proj
I0403 21:39:25.857772 23770 net.cpp:399] inception_4d/output -> inception_4d/output
I0403 21:39:25.857831 23770 net.cpp:141] Setting up inception_4d/output
I0403 21:39:25.857853 23770 net.cpp:148] Top shape: 24 528 14 14 (2483712)
I0403 21:39:25.857868 23770 net.cpp:156] Memory required for data: 1157244192
I0403 21:39:25.857883 23770 layer_factory.hpp:77] Creating layer inception_4d/output_inception_4d/output_0_split
I0403 21:39:25.857903 23770 net.cpp:91] Creating Layer inception_4d/output_inception_4d/output_0_split
I0403 21:39:25.857920 23770 net.cpp:425] inception_4d/output_inception_4d/output_0_split <- inception_4d/output
I0403 21:39:25.857939 23770 net.cpp:399] inception_4d/output_inception_4d/output_0_split -> inception_4d/output_inception_4d/output_0_split_0
I0403 21:39:25.857965 23770 net.cpp:399] inception_4d/output_inception_4d/output_0_split -> inception_4d/output_inception_4d/output_0_split_1
I0403 21:39:25.857986 23770 net.cpp:399] inception_4d/output_inception_4d/output_0_split -> inception_4d/output_inception_4d/output_0_split_2
I0403 21:39:25.858008 23770 net.cpp:399] inception_4d/output_inception_4d/output_0_split -> inception_4d/output_inception_4d/output_0_split_3
I0403 21:39:25.858028 23770 net.cpp:399] inception_4d/output_inception_4d/output_0_split -> inception_4d/output_inception_4d/output_0_split_4
I0403 21:39:25.858129 23770 net.cpp:141] Setting up inception_4d/output_inception_4d/output_0_split
I0403 21:39:25.858165 23770 net.cpp:148] Top shape: 24 528 14 14 (2483712)
I0403 21:39:25.858181 23770 net.cpp:148] Top shape: 24 528 14 14 (2483712)
I0403 21:39:25.858206 23770 net.cpp:148] Top shape: 24 528 14 14 (2483712)
I0403 21:39:25.858225 23770 net.cpp:148] Top shape: 24 528 14 14 (2483712)
I0403 21:39:25.858242 23770 net.cpp:148] Top shape: 24 528 14 14 (2483712)
I0403 21:39:25.858255 23770 net.cpp:156] Memory required for data: 1206918432
I0403 21:39:25.858269 23770 layer_factory.hpp:77] Creating layer loss2/ave_pool
I0403 21:39:25.858289 23770 net.cpp:91] Creating Layer loss2/ave_pool
I0403 21:39:25.858306 23770 net.cpp:425] loss2/ave_pool <- inception_4d/output_inception_4d/output_0_split_0
I0403 21:39:25.858325 23770 net.cpp:399] loss2/ave_pool -> loss2/ave_pool
I0403 21:39:25.858641 23770 net.cpp:141] Setting up loss2/ave_pool
I0403 21:39:25.858670 23770 net.cpp:148] Top shape: 24 528 4 4 (202752)
I0403 21:39:25.858685 23770 net.cpp:156] Memory required for data: 1207729440
I0403 21:39:25.858700 23770 layer_factory.hpp:77] Creating layer loss2/conv
I0403 21:39:25.858721 23770 net.cpp:91] Creating Layer loss2/conv
I0403 21:39:25.858738 23770 net.cpp:425] loss2/conv <- loss2/ave_pool
I0403 21:39:25.858757 23770 net.cpp:399] loss2/conv -> loss2/conv
I0403 21:39:25.860627 23770 net.cpp:141] Setting up loss2/conv
I0403 21:39:25.860654 23770 net.cpp:148] Top shape: 24 128 4 4 (49152)
I0403 21:39:25.860671 23770 net.cpp:156] Memory required for data: 1207926048
I0403 21:39:25.860688 23770 layer_factory.hpp:77] Creating layer loss2/relu_conv
I0403 21:39:25.860708 23770 net.cpp:91] Creating Layer loss2/relu_conv
I0403 21:39:25.860726 23770 net.cpp:425] loss2/relu_conv <- loss2/conv
I0403 21:39:25.860743 23770 net.cpp:386] loss2/relu_conv -> loss2/conv (in-place)
I0403 21:39:25.861027 23770 net.cpp:141] Setting up loss2/relu_conv
I0403 21:39:25.861052 23770 net.cpp:148] Top shape: 24 128 4 4 (49152)
I0403 21:39:25.861068 23770 net.cpp:156] Memory required for data: 1208122656
I0403 21:39:25.861081 23770 layer_factory.hpp:77] Creating layer loss2/fc
I0403 21:39:25.861104 23770 net.cpp:91] Creating Layer loss2/fc
I0403 21:39:25.861121 23770 net.cpp:425] loss2/fc <- loss2/conv
I0403 21:39:25.861140 23770 net.cpp:399] loss2/fc -> loss2/fc
I0403 21:39:25.878384 23770 net.cpp:141] Setting up loss2/fc
I0403 21:39:25.878418 23770 net.cpp:148] Top shape: 24 1024 (24576)
I0403 21:39:25.878433 23770 net.cpp:156] Memory required for data: 1208220960
I0403 21:39:25.878451 23770 layer_factory.hpp:77] Creating layer loss2/relu_fc
I0403 21:39:25.878471 23770 net.cpp:91] Creating Layer loss2/relu_fc
I0403 21:39:25.878489 23770 net.cpp:425] loss2/relu_fc <- loss2/fc
I0403 21:39:25.878506 23770 net.cpp:386] loss2/relu_fc -> loss2/fc (in-place)
I0403 21:39:25.878801 23770 net.cpp:141] Setting up loss2/relu_fc
I0403 21:39:25.878829 23770 net.cpp:148] Top shape: 24 1024 (24576)
I0403 21:39:25.878844 23770 net.cpp:156] Memory required for data: 1208319264
I0403 21:39:25.878859 23770 layer_factory.hpp:77] Creating layer loss2/drop_fc
I0403 21:39:25.878877 23770 net.cpp:91] Creating Layer loss2/drop_fc
I0403 21:39:25.878892 23770 net.cpp:425] loss2/drop_fc <- loss2/fc
I0403 21:39:25.878916 23770 net.cpp:386] loss2/drop_fc -> loss2/fc (in-place)
I0403 21:39:25.878963 23770 net.cpp:141] Setting up loss2/drop_fc
I0403 21:39:25.878985 23770 net.cpp:148] Top shape: 24 1024 (24576)
I0403 21:39:25.878999 23770 net.cpp:156] Memory required for data: 1208417568
I0403 21:39:25.879014 23770 layer_factory.hpp:77] Creating layer loss2/classifier_plantvillage
I0403 21:39:25.879035 23770 net.cpp:91] Creating Layer loss2/classifier_plantvillage
I0403 21:39:25.879052 23770 net.cpp:425] loss2/classifier_plantvillage <- loss2/fc
I0403 21:39:25.879072 23770 net.cpp:399] loss2/classifier_plantvillage -> loss2/classifier_plantvillage
I0403 21:39:25.879463 23770 net.cpp:141] Setting up loss2/classifier_plantvillage
I0403 21:39:25.879487 23770 net.cpp:148] Top shape: 24 38 (912)
I0403 21:39:25.879518 23770 net.cpp:156] Memory required for data: 1208421216
I0403 21:39:25.879537 23770 layer_factory.hpp:77] Creating layer loss2/classifier_plantvillage_loss2/classifier_plantvillage_0_split
I0403 21:39:25.879554 23770 net.cpp:91] Creating Layer loss2/classifier_plantvillage_loss2/classifier_plantvillage_0_split
I0403 21:39:25.879573 23770 net.cpp:425] loss2/classifier_plantvillage_loss2/classifier_plantvillage_0_split <- loss2/classifier_plantvillage
I0403 21:39:25.879590 23770 net.cpp:399] loss2/classifier_plantvillage_loss2/classifier_plantvillage_0_split -> loss2/classifier_plantvillage_loss2/classifier_plantvillage_0_split_0
I0403 21:39:25.879611 23770 net.cpp:399] loss2/classifier_plantvillage_loss2/classifier_plantvillage_0_split -> loss2/classifier_plantvillage_loss2/classifier_plantvillage_0_split_1
I0403 21:39:25.879632 23770 net.cpp:399] loss2/classifier_plantvillage_loss2/classifier_plantvillage_0_split -> loss2/classifier_plantvillage_loss2/classifier_plantvillage_0_split_2
I0403 21:39:25.879708 23770 net.cpp:141] Setting up loss2/classifier_plantvillage_loss2/classifier_plantvillage_0_split
I0403 21:39:25.879730 23770 net.cpp:148] Top shape: 24 38 (912)
I0403 21:39:25.879745 23770 net.cpp:148] Top shape: 24 38 (912)
I0403 21:39:25.879760 23770 net.cpp:148] Top shape: 24 38 (912)
I0403 21:39:25.879775 23770 net.cpp:156] Memory required for data: 1208432160
I0403 21:39:25.879788 23770 layer_factory.hpp:77] Creating layer inception_4e/1x1
I0403 21:39:25.879807 23770 net.cpp:91] Creating Layer inception_4e/1x1
I0403 21:39:25.879823 23770 net.cpp:425] inception_4e/1x1 <- inception_4d/output_inception_4d/output_0_split_1
I0403 21:39:25.879843 23770 net.cpp:399] inception_4e/1x1 -> inception_4e/1x1
I0403 21:39:25.881624 23770 net.cpp:141] Setting up inception_4e/1x1
I0403 21:39:25.881651 23770 net.cpp:148] Top shape: 24 256 14 14 (1204224)
I0403 21:39:25.881666 23770 net.cpp:156] Memory required for data: 1213249056
I0403 21:39:25.881685 23770 layer_factory.hpp:77] Creating layer inception_4e/relu_1x1
I0403 21:39:25.881702 23770 net.cpp:91] Creating Layer inception_4e/relu_1x1
I0403 21:39:25.881718 23770 net.cpp:425] inception_4e/relu_1x1 <- inception_4e/1x1
I0403 21:39:25.881736 23770 net.cpp:386] inception_4e/relu_1x1 -> inception_4e/1x1 (in-place)
I0403 21:39:25.882027 23770 net.cpp:141] Setting up inception_4e/relu_1x1
I0403 21:39:25.882052 23770 net.cpp:148] Top shape: 24 256 14 14 (1204224)
I0403 21:39:25.882066 23770 net.cpp:156] Memory required for data: 1218065952
I0403 21:39:25.882081 23770 layer_factory.hpp:77] Creating layer inception_4e/3x3_reduce
I0403 21:39:25.882102 23770 net.cpp:91] Creating Layer inception_4e/3x3_reduce
I0403 21:39:25.882119 23770 net.cpp:425] inception_4e/3x3_reduce <- inception_4d/output_inception_4d/output_0_split_2
I0403 21:39:25.882140 23770 net.cpp:399] inception_4e/3x3_reduce -> inception_4e/3x3_reduce
I0403 21:39:25.884233 23770 net.cpp:141] Setting up inception_4e/3x3_reduce
I0403 21:39:25.884260 23770 net.cpp:148] Top shape: 24 160 14 14 (752640)
I0403 21:39:25.884276 23770 net.cpp:156] Memory required for data: 1221076512
I0403 21:39:25.884294 23770 layer_factory.hpp:77] Creating layer inception_4e/relu_3x3_reduce
I0403 21:39:25.884311 23770 net.cpp:91] Creating Layer inception_4e/relu_3x3_reduce
I0403 21:39:25.884327 23770 net.cpp:425] inception_4e/relu_3x3_reduce <- inception_4e/3x3_reduce
I0403 21:39:25.884346 23770 net.cpp:386] inception_4e/relu_3x3_reduce -> inception_4e/3x3_reduce (in-place)
I0403 21:39:25.884529 23770 net.cpp:141] Setting up inception_4e/relu_3x3_reduce
I0403 21:39:25.884553 23770 net.cpp:148] Top shape: 24 160 14 14 (752640)
I0403 21:39:25.884568 23770 net.cpp:156] Memory required for data: 1224087072
I0403 21:39:25.884582 23770 layer_factory.hpp:77] Creating layer inception_4e/3x3
I0403 21:39:25.884603 23770 net.cpp:91] Creating Layer inception_4e/3x3
I0403 21:39:25.884621 23770 net.cpp:425] inception_4e/3x3 <- inception_4e/3x3_reduce
I0403 21:39:25.884641 23770 net.cpp:399] inception_4e/3x3 -> inception_4e/3x3
I0403 21:39:25.889575 23770 net.cpp:141] Setting up inception_4e/3x3
I0403 21:39:25.889613 23770 net.cpp:148] Top shape: 24 320 14 14 (1505280)
I0403 21:39:25.889629 23770 net.cpp:156] Memory required for data: 1230108192
I0403 21:39:25.889648 23770 layer_factory.hpp:77] Creating layer inception_4e/relu_3x3
I0403 21:39:25.889668 23770 net.cpp:91] Creating Layer inception_4e/relu_3x3
I0403 21:39:25.889685 23770 net.cpp:425] inception_4e/relu_3x3 <- inception_4e/3x3
I0403 21:39:25.889703 23770 net.cpp:386] inception_4e/relu_3x3 -> inception_4e/3x3 (in-place)
I0403 21:39:25.889994 23770 net.cpp:141] Setting up inception_4e/relu_3x3
I0403 21:39:25.890020 23770 net.cpp:148] Top shape: 24 320 14 14 (1505280)
I0403 21:39:25.890034 23770 net.cpp:156] Memory required for data: 1236129312
I0403 21:39:25.890049 23770 layer_factory.hpp:77] Creating layer inception_4e/5x5_reduce
I0403 21:39:25.890074 23770 net.cpp:91] Creating Layer inception_4e/5x5_reduce
I0403 21:39:25.890091 23770 net.cpp:425] inception_4e/5x5_reduce <- inception_4d/output_inception_4d/output_0_split_3
I0403 21:39:25.890110 23770 net.cpp:399] inception_4e/5x5_reduce -> inception_4e/5x5_reduce
I0403 21:39:25.891158 23770 net.cpp:141] Setting up inception_4e/5x5_reduce
I0403 21:39:25.891185 23770 net.cpp:148] Top shape: 24 32 14 14 (150528)
I0403 21:39:25.891204 23770 net.cpp:156] Memory required for data: 1236731424
I0403 21:39:25.891223 23770 layer_factory.hpp:77] Creating layer inception_4e/relu_5x5_reduce
I0403 21:39:25.891242 23770 net.cpp:91] Creating Layer inception_4e/relu_5x5_reduce
I0403 21:39:25.891257 23770 net.cpp:425] inception_4e/relu_5x5_reduce <- inception_4e/5x5_reduce
I0403 21:39:25.891275 23770 net.cpp:386] inception_4e/relu_5x5_reduce -> inception_4e/5x5_reduce (in-place)
I0403 21:39:25.891566 23770 net.cpp:141] Setting up inception_4e/relu_5x5_reduce
I0403 21:39:25.891592 23770 net.cpp:148] Top shape: 24 32 14 14 (150528)
I0403 21:39:25.891607 23770 net.cpp:156] Memory required for data: 1237333536
I0403 21:39:25.891620 23770 layer_factory.hpp:77] Creating layer inception_4e/5x5
I0403 21:39:25.891657 23770 net.cpp:91] Creating Layer inception_4e/5x5
I0403 21:39:25.891675 23770 net.cpp:425] inception_4e/5x5 <- inception_4e/5x5_reduce
I0403 21:39:25.891695 23770 net.cpp:399] inception_4e/5x5 -> inception_4e/5x5
I0403 21:39:25.893502 23770 net.cpp:141] Setting up inception_4e/5x5
I0403 21:39:25.893532 23770 net.cpp:148] Top shape: 24 128 14 14 (602112)
I0403 21:39:25.893548 23770 net.cpp:156] Memory required for data: 1239741984
I0403 21:39:25.893565 23770 layer_factory.hpp:77] Creating layer inception_4e/relu_5x5
I0403 21:39:25.893584 23770 net.cpp:91] Creating Layer inception_4e/relu_5x5
I0403 21:39:25.893599 23770 net.cpp:425] inception_4e/relu_5x5 <- inception_4e/5x5
I0403 21:39:25.893615 23770 net.cpp:386] inception_4e/relu_5x5 -> inception_4e/5x5 (in-place)
I0403 21:39:25.893808 23770 net.cpp:141] Setting up inception_4e/relu_5x5
I0403 21:39:25.893833 23770 net.cpp:148] Top shape: 24 128 14 14 (602112)
I0403 21:39:25.893847 23770 net.cpp:156] Memory required for data: 1242150432
I0403 21:39:25.893862 23770 layer_factory.hpp:77] Creating layer inception_4e/pool
I0403 21:39:25.893878 23770 net.cpp:91] Creating Layer inception_4e/pool
I0403 21:39:25.893894 23770 net.cpp:425] inception_4e/pool <- inception_4d/output_inception_4d/output_0_split_4
I0403 21:39:25.893914 23770 net.cpp:399] inception_4e/pool -> inception_4e/pool
I0403 21:39:25.893983 23770 net.cpp:141] Setting up inception_4e/pool
I0403 21:39:25.894007 23770 net.cpp:148] Top shape: 24 528 14 14 (2483712)
I0403 21:39:25.894022 23770 net.cpp:156] Memory required for data: 1252085280
I0403 21:39:25.894037 23770 layer_factory.hpp:77] Creating layer inception_4e/pool_proj
I0403 21:39:25.894057 23770 net.cpp:91] Creating Layer inception_4e/pool_proj
I0403 21:39:25.894074 23770 net.cpp:425] inception_4e/pool_proj <- inception_4e/pool
I0403 21:39:25.894094 23770 net.cpp:399] inception_4e/pool_proj -> inception_4e/pool_proj
I0403 21:39:25.895609 23770 net.cpp:141] Setting up inception_4e/pool_proj
I0403 21:39:25.895649 23770 net.cpp:148] Top shape: 24 128 14 14 (602112)
I0403 21:39:25.895666 23770 net.cpp:156] Memory required for data: 1254493728
I0403 21:39:25.895685 23770 layer_factory.hpp:77] Creating layer inception_4e/relu_pool_proj
I0403 21:39:25.895704 23770 net.cpp:91] Creating Layer inception_4e/relu_pool_proj
I0403 21:39:25.895720 23770 net.cpp:425] inception_4e/relu_pool_proj <- inception_4e/pool_proj
I0403 21:39:25.895736 23770 net.cpp:386] inception_4e/relu_pool_proj -> inception_4e/pool_proj (in-place)
I0403 21:39:25.896023 23770 net.cpp:141] Setting up inception_4e/relu_pool_proj
I0403 21:39:25.896051 23770 net.cpp:148] Top shape: 24 128 14 14 (602112)
I0403 21:39:25.896067 23770 net.cpp:156] Memory required for data: 1256902176
I0403 21:39:25.896082 23770 layer_factory.hpp:77] Creating layer inception_4e/output
I0403 21:39:25.896100 23770 net.cpp:91] Creating Layer inception_4e/output
I0403 21:39:25.896116 23770 net.cpp:425] inception_4e/output <- inception_4e/1x1
I0403 21:39:25.896132 23770 net.cpp:425] inception_4e/output <- inception_4e/3x3
I0403 21:39:25.896147 23770 net.cpp:425] inception_4e/output <- inception_4e/5x5
I0403 21:39:25.896163 23770 net.cpp:425] inception_4e/output <- inception_4e/pool_proj
I0403 21:39:25.896179 23770 net.cpp:399] inception_4e/output -> inception_4e/output
I0403 21:39:25.896231 23770 net.cpp:141] Setting up inception_4e/output
I0403 21:39:25.896255 23770 net.cpp:148] Top shape: 24 832 14 14 (3913728)
I0403 21:39:25.896270 23770 net.cpp:156] Memory required for data: 1272557088
I0403 21:39:25.896284 23770 layer_factory.hpp:77] Creating layer pool4/3x3_s2
I0403 21:39:25.896303 23770 net.cpp:91] Creating Layer pool4/3x3_s2
I0403 21:39:25.896319 23770 net.cpp:425] pool4/3x3_s2 <- inception_4e/output
I0403 21:39:25.896337 23770 net.cpp:399] pool4/3x3_s2 -> pool4/3x3_s2
I0403 21:39:25.896404 23770 net.cpp:141] Setting up pool4/3x3_s2
I0403 21:39:25.896426 23770 net.cpp:148] Top shape: 24 832 7 7 (978432)
I0403 21:39:25.896440 23770 net.cpp:156] Memory required for data: 1276470816
I0403 21:39:25.896455 23770 layer_factory.hpp:77] Creating layer pool4/3x3_s2_pool4/3x3_s2_0_split
I0403 21:39:25.896471 23770 net.cpp:91] Creating Layer pool4/3x3_s2_pool4/3x3_s2_0_split
I0403 21:39:25.896487 23770 net.cpp:425] pool4/3x3_s2_pool4/3x3_s2_0_split <- pool4/3x3_s2
I0403 21:39:25.896510 23770 net.cpp:399] pool4/3x3_s2_pool4/3x3_s2_0_split -> pool4/3x3_s2_pool4/3x3_s2_0_split_0
I0403 21:39:25.896531 23770 net.cpp:399] pool4/3x3_s2_pool4/3x3_s2_0_split -> pool4/3x3_s2_pool4/3x3_s2_0_split_1
I0403 21:39:25.896553 23770 net.cpp:399] pool4/3x3_s2_pool4/3x3_s2_0_split -> pool4/3x3_s2_pool4/3x3_s2_0_split_2
I0403 21:39:25.896572 23770 net.cpp:399] pool4/3x3_s2_pool4/3x3_s2_0_split -> pool4/3x3_s2_pool4/3x3_s2_0_split_3
I0403 21:39:25.896661 23770 net.cpp:141] Setting up pool4/3x3_s2_pool4/3x3_s2_0_split
I0403 21:39:25.896685 23770 net.cpp:148] Top shape: 24 832 7 7 (978432)
I0403 21:39:25.896702 23770 net.cpp:148] Top shape: 24 832 7 7 (978432)
I0403 21:39:25.896718 23770 net.cpp:148] Top shape: 24 832 7 7 (978432)
I0403 21:39:25.896733 23770 net.cpp:148] Top shape: 24 832 7 7 (978432)
I0403 21:39:25.896746 23770 net.cpp:156] Memory required for data: 1292125728
I0403 21:39:25.896760 23770 layer_factory.hpp:77] Creating layer inception_5a/1x1
I0403 21:39:25.896782 23770 net.cpp:91] Creating Layer inception_5a/1x1
I0403 21:39:25.896800 23770 net.cpp:425] inception_5a/1x1 <- pool4/3x3_s2_pool4/3x3_s2_0_split_0
I0403 21:39:25.896818 23770 net.cpp:399] inception_5a/1x1 -> inception_5a/1x1
I0403 21:39:25.899626 23770 net.cpp:141] Setting up inception_5a/1x1
I0403 21:39:25.899657 23770 net.cpp:148] Top shape: 24 256 7 7 (301056)
I0403 21:39:25.899672 23770 net.cpp:156] Memory required for data: 1293329952
I0403 21:39:25.899690 23770 layer_factory.hpp:77] Creating layer inception_5a/relu_1x1
I0403 21:39:25.899709 23770 net.cpp:91] Creating Layer inception_5a/relu_1x1
I0403 21:39:25.899724 23770 net.cpp:425] inception_5a/relu_1x1 <- inception_5a/1x1
I0403 21:39:25.899744 23770 net.cpp:386] inception_5a/relu_1x1 -> inception_5a/1x1 (in-place)
I0403 21:39:25.900054 23770 net.cpp:141] Setting up inception_5a/relu_1x1
I0403 21:39:25.900082 23770 net.cpp:148] Top shape: 24 256 7 7 (301056)
I0403 21:39:25.900097 23770 net.cpp:156] Memory required for data: 1294534176
I0403 21:39:25.900112 23770 layer_factory.hpp:77] Creating layer inception_5a/3x3_reduce
I0403 21:39:25.900135 23770 net.cpp:91] Creating Layer inception_5a/3x3_reduce
I0403 21:39:25.900152 23770 net.cpp:425] inception_5a/3x3_reduce <- pool4/3x3_s2_pool4/3x3_s2_0_split_1
I0403 21:39:25.900171 23770 net.cpp:399] inception_5a/3x3_reduce -> inception_5a/3x3_reduce
I0403 21:39:25.902604 23770 net.cpp:141] Setting up inception_5a/3x3_reduce
I0403 21:39:25.902633 23770 net.cpp:148] Top shape: 24 160 7 7 (188160)
I0403 21:39:25.902649 23770 net.cpp:156] Memory required for data: 1295286816
I0403 21:39:25.902667 23770 layer_factory.hpp:77] Creating layer inception_5a/relu_3x3_reduce
I0403 21:39:25.902688 23770 net.cpp:91] Creating Layer inception_5a/relu_3x3_reduce
I0403 21:39:25.902705 23770 net.cpp:425] inception_5a/relu_3x3_reduce <- inception_5a/3x3_reduce
I0403 21:39:25.902722 23770 net.cpp:386] inception_5a/relu_3x3_reduce -> inception_5a/3x3_reduce (in-place)
I0403 21:39:25.902909 23770 net.cpp:141] Setting up inception_5a/relu_3x3_reduce
I0403 21:39:25.902935 23770 net.cpp:148] Top shape: 24 160 7 7 (188160)
I0403 21:39:25.902952 23770 net.cpp:156] Memory required for data: 1296039456
I0403 21:39:25.902967 23770 layer_factory.hpp:77] Creating layer inception_5a/3x3
I0403 21:39:25.902989 23770 net.cpp:91] Creating Layer inception_5a/3x3
I0403 21:39:25.903007 23770 net.cpp:425] inception_5a/3x3 <- inception_5a/3x3_reduce
I0403 21:39:25.903025 23770 net.cpp:399] inception_5a/3x3 -> inception_5a/3x3
I0403 21:39:25.907953 23770 net.cpp:141] Setting up inception_5a/3x3
I0403 21:39:25.907984 23770 net.cpp:148] Top shape: 24 320 7 7 (376320)
I0403 21:39:25.908000 23770 net.cpp:156] Memory required for data: 1297544736
I0403 21:39:25.908018 23770 layer_factory.hpp:77] Creating layer inception_5a/relu_3x3
I0403 21:39:25.908037 23770 net.cpp:91] Creating Layer inception_5a/relu_3x3
I0403 21:39:25.908053 23770 net.cpp:425] inception_5a/relu_3x3 <- inception_5a/3x3
I0403 21:39:25.908072 23770 net.cpp:386] inception_5a/relu_3x3 -> inception_5a/3x3 (in-place)
I0403 21:39:25.908371 23770 net.cpp:141] Setting up inception_5a/relu_3x3
I0403 21:39:25.908398 23770 net.cpp:148] Top shape: 24 320 7 7 (376320)
I0403 21:39:25.908413 23770 net.cpp:156] Memory required for data: 1299050016
I0403 21:39:25.908428 23770 layer_factory.hpp:77] Creating layer inception_5a/5x5_reduce
I0403 21:39:25.908450 23770 net.cpp:91] Creating Layer inception_5a/5x5_reduce
I0403 21:39:25.908468 23770 net.cpp:425] inception_5a/5x5_reduce <- pool4/3x3_s2_pool4/3x3_s2_0_split_2
I0403 21:39:25.908490 23770 net.cpp:399] inception_5a/5x5_reduce -> inception_5a/5x5_reduce
I0403 21:39:25.909642 23770 net.cpp:141] Setting up inception_5a/5x5_reduce
I0403 21:39:25.909672 23770 net.cpp:148] Top shape: 24 32 7 7 (37632)
I0403 21:39:25.909687 23770 net.cpp:156] Memory required for data: 1299200544
I0403 21:39:25.909706 23770 layer_factory.hpp:77] Creating layer inception_5a/relu_5x5_reduce
I0403 21:39:25.909724 23770 net.cpp:91] Creating Layer inception_5a/relu_5x5_reduce
I0403 21:39:25.909742 23770 net.cpp:425] inception_5a/relu_5x5_reduce <- inception_5a/5x5_reduce
I0403 21:39:25.909760 23770 net.cpp:386] inception_5a/relu_5x5_reduce -> inception_5a/5x5_reduce (in-place)
I0403 21:39:25.910054 23770 net.cpp:141] Setting up inception_5a/relu_5x5_reduce
I0403 21:39:25.910080 23770 net.cpp:148] Top shape: 24 32 7 7 (37632)
I0403 21:39:25.910095 23770 net.cpp:156] Memory required for data: 1299351072
I0403 21:39:25.910110 23770 layer_factory.hpp:77] Creating layer inception_5a/5x5
I0403 21:39:25.910132 23770 net.cpp:91] Creating Layer inception_5a/5x5
I0403 21:39:25.910151 23770 net.cpp:425] inception_5a/5x5 <- inception_5a/5x5_reduce
I0403 21:39:25.910174 23770 net.cpp:399] inception_5a/5x5 -> inception_5a/5x5
I0403 21:39:25.911877 23770 net.cpp:141] Setting up inception_5a/5x5
I0403 21:39:25.911928 23770 net.cpp:148] Top shape: 24 128 7 7 (150528)
I0403 21:39:25.911945 23770 net.cpp:156] Memory required for data: 1299953184
I0403 21:39:25.911965 23770 layer_factory.hpp:77] Creating layer inception_5a/relu_5x5
I0403 21:39:25.911983 23770 net.cpp:91] Creating Layer inception_5a/relu_5x5
I0403 21:39:25.911999 23770 net.cpp:425] inception_5a/relu_5x5 <- inception_5a/5x5
I0403 21:39:25.912019 23770 net.cpp:386] inception_5a/relu_5x5 -> inception_5a/5x5 (in-place)
I0403 21:39:25.912220 23770 net.cpp:141] Setting up inception_5a/relu_5x5
I0403 21:39:25.912256 23770 net.cpp:148] Top shape: 24 128 7 7 (150528)
I0403 21:39:25.912271 23770 net.cpp:156] Memory required for data: 1300555296
I0403 21:39:25.912284 23770 layer_factory.hpp:77] Creating layer inception_5a/pool
I0403 21:39:25.912302 23770 net.cpp:91] Creating Layer inception_5a/pool
I0403 21:39:25.912320 23770 net.cpp:425] inception_5a/pool <- pool4/3x3_s2_pool4/3x3_s2_0_split_3
I0403 21:39:25.912338 23770 net.cpp:399] inception_5a/pool -> inception_5a/pool
I0403 21:39:25.912407 23770 net.cpp:141] Setting up inception_5a/pool
I0403 21:39:25.912431 23770 net.cpp:148] Top shape: 24 832 7 7 (978432)
I0403 21:39:25.912444 23770 net.cpp:156] Memory required for data: 1304469024
I0403 21:39:25.912458 23770 layer_factory.hpp:77] Creating layer inception_5a/pool_proj
I0403 21:39:25.912479 23770 net.cpp:91] Creating Layer inception_5a/pool_proj
I0403 21:39:25.912497 23770 net.cpp:425] inception_5a/pool_proj <- inception_5a/pool
I0403 21:39:25.912518 23770 net.cpp:399] inception_5a/pool_proj -> inception_5a/pool_proj
I0403 21:39:25.914772 23770 net.cpp:141] Setting up inception_5a/pool_proj
I0403 21:39:25.914803 23770 net.cpp:148] Top shape: 24 128 7 7 (150528)
I0403 21:39:25.914819 23770 net.cpp:156] Memory required for data: 1305071136
I0403 21:39:25.914836 23770 layer_factory.hpp:77] Creating layer inception_5a/relu_pool_proj
I0403 21:39:25.914855 23770 net.cpp:91] Creating Layer inception_5a/relu_pool_proj
I0403 21:39:25.914871 23770 net.cpp:425] inception_5a/relu_pool_proj <- inception_5a/pool_proj
I0403 21:39:25.914891 23770 net.cpp:386] inception_5a/relu_pool_proj -> inception_5a/pool_proj (in-place)
I0403 21:39:25.915186 23770 net.cpp:141] Setting up inception_5a/relu_pool_proj
I0403 21:39:25.915218 23770 net.cpp:148] Top shape: 24 128 7 7 (150528)
I0403 21:39:25.915235 23770 net.cpp:156] Memory required for data: 1305673248
I0403 21:39:25.915249 23770 layer_factory.hpp:77] Creating layer inception_5a/output
I0403 21:39:25.915266 23770 net.cpp:91] Creating Layer inception_5a/output
I0403 21:39:25.915282 23770 net.cpp:425] inception_5a/output <- inception_5a/1x1
I0403 21:39:25.915297 23770 net.cpp:425] inception_5a/output <- inception_5a/3x3
I0403 21:39:25.915313 23770 net.cpp:425] inception_5a/output <- inception_5a/5x5
I0403 21:39:25.915328 23770 net.cpp:425] inception_5a/output <- inception_5a/pool_proj
I0403 21:39:25.915344 23770 net.cpp:399] inception_5a/output -> inception_5a/output
I0403 21:39:25.915395 23770 net.cpp:141] Setting up inception_5a/output
I0403 21:39:25.915417 23770 net.cpp:148] Top shape: 24 832 7 7 (978432)
I0403 21:39:25.915431 23770 net.cpp:156] Memory required for data: 1309586976
I0403 21:39:25.915446 23770 layer_factory.hpp:77] Creating layer inception_5a/output_inception_5a/output_0_split
I0403 21:39:25.915462 23770 net.cpp:91] Creating Layer inception_5a/output_inception_5a/output_0_split
I0403 21:39:25.915477 23770 net.cpp:425] inception_5a/output_inception_5a/output_0_split <- inception_5a/output
I0403 21:39:25.915496 23770 net.cpp:399] inception_5a/output_inception_5a/output_0_split -> inception_5a/output_inception_5a/output_0_split_0
I0403 21:39:25.915516 23770 net.cpp:399] inception_5a/output_inception_5a/output_0_split -> inception_5a/output_inception_5a/output_0_split_1
I0403 21:39:25.915537 23770 net.cpp:399] inception_5a/output_inception_5a/output_0_split -> inception_5a/output_inception_5a/output_0_split_2
I0403 21:39:25.915560 23770 net.cpp:399] inception_5a/output_inception_5a/output_0_split -> inception_5a/output_inception_5a/output_0_split_3
I0403 21:39:25.915668 23770 net.cpp:141] Setting up inception_5a/output_inception_5a/output_0_split
I0403 21:39:25.915690 23770 net.cpp:148] Top shape: 24 832 7 7 (978432)
I0403 21:39:25.915706 23770 net.cpp:148] Top shape: 24 832 7 7 (978432)
I0403 21:39:25.915721 23770 net.cpp:148] Top shape: 24 832 7 7 (978432)
I0403 21:39:25.915735 23770 net.cpp:148] Top shape: 24 832 7 7 (978432)
I0403 21:39:25.915750 23770 net.cpp:156] Memory required for data: 1325241888
I0403 21:39:25.915763 23770 layer_factory.hpp:77] Creating layer inception_5b/1x1
I0403 21:39:25.915784 23770 net.cpp:91] Creating Layer inception_5b/1x1
I0403 21:39:25.915802 23770 net.cpp:425] inception_5b/1x1 <- inception_5a/output_inception_5a/output_0_split_0
I0403 21:39:25.915822 23770 net.cpp:399] inception_5b/1x1 -> inception_5b/1x1
I0403 21:39:25.919528 23770 net.cpp:141] Setting up inception_5b/1x1
I0403 21:39:25.919558 23770 net.cpp:148] Top shape: 24 384 7 7 (451584)
I0403 21:39:25.919574 23770 net.cpp:156] Memory required for data: 1327048224
I0403 21:39:25.919591 23770 layer_factory.hpp:77] Creating layer inception_5b/relu_1x1
I0403 21:39:25.919611 23770 net.cpp:91] Creating Layer inception_5b/relu_1x1
I0403 21:39:25.919628 23770 net.cpp:425] inception_5b/relu_1x1 <- inception_5b/1x1
I0403 21:39:25.919646 23770 net.cpp:386] inception_5b/relu_1x1 -> inception_5b/1x1 (in-place)
I0403 21:39:25.919944 23770 net.cpp:141] Setting up inception_5b/relu_1x1
I0403 21:39:25.919970 23770 net.cpp:148] Top shape: 24 384 7 7 (451584)
I0403 21:39:25.919984 23770 net.cpp:156] Memory required for data: 1328854560
I0403 21:39:25.919999 23770 layer_factory.hpp:77] Creating layer inception_5b/3x3_reduce
I0403 21:39:25.920020 23770 net.cpp:91] Creating Layer inception_5b/3x3_reduce
I0403 21:39:25.920037 23770 net.cpp:425] inception_5b/3x3_reduce <- inception_5a/output_inception_5a/output_0_split_1
I0403 21:39:25.920058 23770 net.cpp:399] inception_5b/3x3_reduce -> inception_5b/3x3_reduce
I0403 21:39:25.922688 23770 net.cpp:141] Setting up inception_5b/3x3_reduce
I0403 21:39:25.922715 23770 net.cpp:148] Top shape: 24 192 7 7 (225792)
I0403 21:39:25.922730 23770 net.cpp:156] Memory required for data: 1329757728
I0403 21:39:25.922749 23770 layer_factory.hpp:77] Creating layer inception_5b/relu_3x3_reduce
I0403 21:39:25.922768 23770 net.cpp:91] Creating Layer inception_5b/relu_3x3_reduce
I0403 21:39:25.922785 23770 net.cpp:425] inception_5b/relu_3x3_reduce <- inception_5b/3x3_reduce
I0403 21:39:25.922802 23770 net.cpp:386] inception_5b/relu_3x3_reduce -> inception_5b/3x3_reduce (in-place)
I0403 21:39:25.922993 23770 net.cpp:141] Setting up inception_5b/relu_3x3_reduce
I0403 21:39:25.923017 23770 net.cpp:148] Top shape: 24 192 7 7 (225792)
I0403 21:39:25.923032 23770 net.cpp:156] Memory required for data: 1330660896
I0403 21:39:25.923046 23770 layer_factory.hpp:77] Creating layer inception_5b/3x3
I0403 21:39:25.923069 23770 net.cpp:91] Creating Layer inception_5b/3x3
I0403 21:39:25.923085 23770 net.cpp:425] inception_5b/3x3 <- inception_5b/3x3_reduce
I0403 21:39:25.923107 23770 net.cpp:399] inception_5b/3x3 -> inception_5b/3x3
I0403 21:39:25.929738 23770 net.cpp:141] Setting up inception_5b/3x3
I0403 21:39:25.929769 23770 net.cpp:148] Top shape: 24 384 7 7 (451584)
I0403 21:39:25.929785 23770 net.cpp:156] Memory required for data: 1332467232
I0403 21:39:25.929802 23770 layer_factory.hpp:77] Creating layer inception_5b/relu_3x3
I0403 21:39:25.929821 23770 net.cpp:91] Creating Layer inception_5b/relu_3x3
I0403 21:39:25.929836 23770 net.cpp:425] inception_5b/relu_3x3 <- inception_5b/3x3
I0403 21:39:25.929855 23770 net.cpp:386] inception_5b/relu_3x3 -> inception_5b/3x3 (in-place)
I0403 21:39:25.930152 23770 net.cpp:141] Setting up inception_5b/relu_3x3
I0403 21:39:25.930181 23770 net.cpp:148] Top shape: 24 384 7 7 (451584)
I0403 21:39:25.930199 23770 net.cpp:156] Memory required for data: 1334273568
I0403 21:39:25.930217 23770 layer_factory.hpp:77] Creating layer inception_5b/5x5_reduce
I0403 21:39:25.930258 23770 net.cpp:91] Creating Layer inception_5b/5x5_reduce
I0403 21:39:25.930276 23770 net.cpp:425] inception_5b/5x5_reduce <- inception_5a/output_inception_5a/output_0_split_2
I0403 21:39:25.930295 23770 net.cpp:399] inception_5b/5x5_reduce -> inception_5b/5x5_reduce
I0403 21:39:25.931553 23770 net.cpp:141] Setting up inception_5b/5x5_reduce
I0403 21:39:25.931583 23770 net.cpp:148] Top shape: 24 48 7 7 (56448)
I0403 21:39:25.931599 23770 net.cpp:156] Memory required for data: 1334499360
I0403 21:39:25.931617 23770 layer_factory.hpp:77] Creating layer inception_5b/relu_5x5_reduce
I0403 21:39:25.931634 23770 net.cpp:91] Creating Layer inception_5b/relu_5x5_reduce
I0403 21:39:25.931650 23770 net.cpp:425] inception_5b/relu_5x5_reduce <- inception_5b/5x5_reduce
I0403 21:39:25.931668 23770 net.cpp:386] inception_5b/relu_5x5_reduce -> inception_5b/5x5_reduce (in-place)
I0403 21:39:25.932061 23770 net.cpp:141] Setting up inception_5b/relu_5x5_reduce
I0403 21:39:25.932088 23770 net.cpp:148] Top shape: 24 48 7 7 (56448)
I0403 21:39:25.932103 23770 net.cpp:156] Memory required for data: 1334725152
I0403 21:39:25.932118 23770 layer_factory.hpp:77] Creating layer inception_5b/5x5
I0403 21:39:25.932138 23770 net.cpp:91] Creating Layer inception_5b/5x5
I0403 21:39:25.932157 23770 net.cpp:425] inception_5b/5x5 <- inception_5b/5x5_reduce
I0403 21:39:25.932175 23770 net.cpp:399] inception_5b/5x5 -> inception_5b/5x5
I0403 21:39:25.934213 23770 net.cpp:141] Setting up inception_5b/5x5
I0403 21:39:25.934243 23770 net.cpp:148] Top shape: 24 128 7 7 (150528)
I0403 21:39:25.934258 23770 net.cpp:156] Memory required for data: 1335327264
I0403 21:39:25.934276 23770 layer_factory.hpp:77] Creating layer inception_5b/relu_5x5
I0403 21:39:25.934293 23770 net.cpp:91] Creating Layer inception_5b/relu_5x5
I0403 21:39:25.934310 23770 net.cpp:425] inception_5b/relu_5x5 <- inception_5b/5x5
I0403 21:39:25.934330 23770 net.cpp:386] inception_5b/relu_5x5 -> inception_5b/5x5 (in-place)
I0403 21:39:25.934525 23770 net.cpp:141] Setting up inception_5b/relu_5x5
I0403 21:39:25.934548 23770 net.cpp:148] Top shape: 24 128 7 7 (150528)
I0403 21:39:25.934562 23770 net.cpp:156] Memory required for data: 1335929376
I0403 21:39:25.934577 23770 layer_factory.hpp:77] Creating layer inception_5b/pool
I0403 21:39:25.934593 23770 net.cpp:91] Creating Layer inception_5b/pool
I0403 21:39:25.934609 23770 net.cpp:425] inception_5b/pool <- inception_5a/output_inception_5a/output_0_split_3
I0403 21:39:25.934629 23770 net.cpp:399] inception_5b/pool -> inception_5b/pool
I0403 21:39:25.934701 23770 net.cpp:141] Setting up inception_5b/pool
I0403 21:39:25.934725 23770 net.cpp:148] Top shape: 24 832 7 7 (978432)
I0403 21:39:25.934738 23770 net.cpp:156] Memory required for data: 1339843104
I0403 21:39:25.934752 23770 layer_factory.hpp:77] Creating layer inception_5b/pool_proj
I0403 21:39:25.934774 23770 net.cpp:91] Creating Layer inception_5b/pool_proj
I0403 21:39:25.934792 23770 net.cpp:425] inception_5b/pool_proj <- inception_5b/pool
I0403 21:39:25.934811 23770 net.cpp:399] inception_5b/pool_proj -> inception_5b/pool_proj
I0403 21:39:25.937121 23770 net.cpp:141] Setting up inception_5b/pool_proj
I0403 21:39:25.937152 23770 net.cpp:148] Top shape: 24 128 7 7 (150528)
I0403 21:39:25.937168 23770 net.cpp:156] Memory required for data: 1340445216
I0403 21:39:25.937187 23770 layer_factory.hpp:77] Creating layer inception_5b/relu_pool_proj
I0403 21:39:25.937209 23770 net.cpp:91] Creating Layer inception_5b/relu_pool_proj
I0403 21:39:25.937227 23770 net.cpp:425] inception_5b/relu_pool_proj <- inception_5b/pool_proj
I0403 21:39:25.937243 23770 net.cpp:386] inception_5b/relu_pool_proj -> inception_5b/pool_proj (in-place)
I0403 21:39:25.937543 23770 net.cpp:141] Setting up inception_5b/relu_pool_proj
I0403 21:39:25.937572 23770 net.cpp:148] Top shape: 24 128 7 7 (150528)
I0403 21:39:25.937587 23770 net.cpp:156] Memory required for data: 1341047328
I0403 21:39:25.937602 23770 layer_factory.hpp:77] Creating layer inception_5b/output
I0403 21:39:25.937619 23770 net.cpp:91] Creating Layer inception_5b/output
I0403 21:39:25.937649 23770 net.cpp:425] inception_5b/output <- inception_5b/1x1
I0403 21:39:25.937666 23770 net.cpp:425] inception_5b/output <- inception_5b/3x3
I0403 21:39:25.937682 23770 net.cpp:425] inception_5b/output <- inception_5b/5x5
I0403 21:39:25.937697 23770 net.cpp:425] inception_5b/output <- inception_5b/pool_proj
I0403 21:39:25.937714 23770 net.cpp:399] inception_5b/output -> inception_5b/output
I0403 21:39:25.937765 23770 net.cpp:141] Setting up inception_5b/output
I0403 21:39:25.937788 23770 net.cpp:148] Top shape: 24 1024 7 7 (1204224)
I0403 21:39:25.937803 23770 net.cpp:156] Memory required for data: 1345864224
I0403 21:39:25.937818 23770 layer_factory.hpp:77] Creating layer pool5/7x7_s1
I0403 21:39:25.937836 23770 net.cpp:91] Creating Layer pool5/7x7_s1
I0403 21:39:25.937854 23770 net.cpp:425] pool5/7x7_s1 <- inception_5b/output
I0403 21:39:25.937870 23770 net.cpp:399] pool5/7x7_s1 -> pool5/7x7_s1
I0403 21:39:25.938084 23770 net.cpp:141] Setting up pool5/7x7_s1
I0403 21:39:25.938109 23770 net.cpp:148] Top shape: 24 1024 1 1 (24576)
I0403 21:39:25.938124 23770 net.cpp:156] Memory required for data: 1345962528
I0403 21:39:25.938138 23770 layer_factory.hpp:77] Creating layer pool5/drop_7x7_s1
I0403 21:39:25.938155 23770 net.cpp:91] Creating Layer pool5/drop_7x7_s1
I0403 21:39:25.938171 23770 net.cpp:425] pool5/drop_7x7_s1 <- pool5/7x7_s1
I0403 21:39:25.938189 23770 net.cpp:386] pool5/drop_7x7_s1 -> pool5/7x7_s1 (in-place)
I0403 21:39:25.938249 23770 net.cpp:141] Setting up pool5/drop_7x7_s1
I0403 21:39:25.938272 23770 net.cpp:148] Top shape: 24 1024 1 1 (24576)
I0403 21:39:25.938287 23770 net.cpp:156] Memory required for data: 1346060832
I0403 21:39:25.938300 23770 layer_factory.hpp:77] Creating layer loss3/classifier_plantvillage
I0403 21:39:25.938320 23770 net.cpp:91] Creating Layer loss3/classifier_plantvillage
I0403 21:39:25.938338 23770 net.cpp:425] loss3/classifier_plantvillage <- pool5/7x7_s1
I0403 21:39:25.938357 23770 net.cpp:399] loss3/classifier_plantvillage -> loss3/classifier_plantvillage
I0403 21:39:25.938771 23770 net.cpp:141] Setting up loss3/classifier_plantvillage
I0403 21:39:25.938796 23770 net.cpp:148] Top shape: 24 38 (912)
I0403 21:39:25.938809 23770 net.cpp:156] Memory required for data: 1346064480
I0403 21:39:25.938827 23770 layer_factory.hpp:77] Creating layer loss3/classifier_plantvillage_loss3/classifier_plantvillage_0_split
I0403 21:39:25.938843 23770 net.cpp:91] Creating Layer loss3/classifier_plantvillage_loss3/classifier_plantvillage_0_split
I0403 21:39:25.938858 23770 net.cpp:425] loss3/classifier_plantvillage_loss3/classifier_plantvillage_0_split <- loss3/classifier_plantvillage
I0403 21:39:25.938879 23770 net.cpp:399] loss3/classifier_plantvillage_loss3/classifier_plantvillage_0_split -> loss3/classifier_plantvillage_loss3/classifier_plantvillage_0_split_0
I0403 21:39:25.938900 23770 net.cpp:399] loss3/classifier_plantvillage_loss3/classifier_plantvillage_0_split -> loss3/classifier_plantvillage_loss3/classifier_plantvillage_0_split_1
I0403 21:39:25.938920 23770 net.cpp:399] loss3/classifier_plantvillage_loss3/classifier_plantvillage_0_split -> loss3/classifier_plantvillage_loss3/classifier_plantvillage_0_split_2
I0403 21:39:25.938941 23770 net.cpp:399] loss3/classifier_plantvillage_loss3/classifier_plantvillage_0_split -> loss3/classifier_plantvillage_loss3/classifier_plantvillage_0_split_3
I0403 21:39:25.939043 23770 net.cpp:141] Setting up loss3/classifier_plantvillage_loss3/classifier_plantvillage_0_split
I0403 21:39:25.939066 23770 net.cpp:148] Top shape: 24 38 (912)
I0403 21:39:25.939081 23770 net.cpp:148] Top shape: 24 38 (912)
I0403 21:39:25.939097 23770 net.cpp:148] Top shape: 24 38 (912)
I0403 21:39:25.939112 23770 net.cpp:148] Top shape: 24 38 (912)
I0403 21:39:25.939126 23770 net.cpp:156] Memory required for data: 1346079072
I0403 21:39:25.939141 23770 layer_factory.hpp:77] Creating layer loss1/loss
I0403 21:39:25.939160 23770 net.cpp:91] Creating Layer loss1/loss
I0403 21:39:25.939177 23770 net.cpp:425] loss1/loss <- loss1/classifier_plantvillage_loss1/classifier_plantvillage_0_split_0
I0403 21:39:25.939213 23770 net.cpp:425] loss1/loss <- label_data_1_split_0
…
