…
I0403 21:38:00.197425 23693 net.cpp:313] The NetState phase (1) differed from the phase (0) specified by a rule in layer data
I0403 21:38:00.198549 23693 net.cpp:49] Initializing net from parameters: 
state {
  phase: TEST
}
layer {
  name: "data"
  type: "Data"
  top: "data"
  top: "label"
  include {
    phase: TEST
  }
  transform_param {
    mirror: false
    crop_size: 224
    mean_file: "/home/mohanty/data/final_dataset/lmdb/segmented-80-20/mean.binaryproto"
  }
  data_param {
    source: "/home/mohanty/data/final_dataset/lmdb/segmented-80-20/test_db"
    batch_size: 24
    backend: LMDB
  }
}
layer {
  name: "conv1/7x7_s2"
  type: "Convolution"
  bottom: "data"
  top: "conv1/7x7_s2"
  param {
    lr_mult: 1
    decay_mult: 1
  }
  param {
    lr_mult: 2
    decay_mult: 0
  }
  convolution_param {
    num_output: 64
    pad: 3
    kernel_size: 7
    stride: 2
    weight_filler {
      type: "xavier"
      std: 0.1
    }
    bias_filler {
      type: "constant"
      value: 0.2
    }
  }
}
layer {
  name: "conv1/relu_7x7"
  type: "ReLU"
  bottom: "conv1/7x7_s2"
  top: "conv1/7x7_s2"
}
layer {
  name: "pool1/3x3_s2"
  type: "Pooling"
  bottom: "conv1/7x7_s2"
  top: "pool1/3x3_s2"
  pooling_param {
    pool: MAX
    kernel_size: 3
    stride: 2
  }
}
layer {
  name: "pool1/norm1"
  type: "LRN"
  bottom: "pool1/3x3_s2"
  top: "pool1/norm1"
  lrn_param {
    local_size: 5
    alpha: 0.0001
    beta: 0.75
  }
}
layer {
  name: "conv2/3x3_reduce"
  type: "Convolution"
  bottom: "pool1/norm1"
  top: "conv2/3x3_reduce"
  param {
    lr_mult: 1
    decay_mult: 1
  }
  param {
    lr_mult: 2
    decay_mult: 0
  }
  convolution_param {
    num_output: 64
    kernel_size: 1
    weight_filler {
      type: "xavier"
      std: 0.1
    }
    bias_filler {
      type: "constant"
      value: 0.2
    }
  }
}
layer {
  name: "conv2/relu_3x3_reduce"
  type: "ReLU"
  bottom: "conv2/3x3_reduce"
  top: "conv2/3x3_reduce"
}
layer {
  name: "conv2/3x3"
  type: "Convolution"
  bottom: "conv2/3x3_reduce"
  top: "conv2/3x3"
  param {
    lr_mult: 1
    decay_mult: 1
  }
  param {
    lr_mult: 2
    decay_mult: 0
  }
  convolution_param {
    num_output: 192
    pad: 1
    kernel_size: 3
    weight_filler {
      type: "xavier"
      std: 0.03
    }
    bias_filler {
      type: "constant"
      value: 0.2
    }
  }
}
layer {
  name: "conv2/relu_3x3"
  type: "ReLU"
  bottom: "conv2/3x3"
  top: "conv2/3x3"
}
layer {
  name: "conv2/norm2"
  type: "LRN"
  bottom: "conv2/3x3"
  top: "conv2/norm2"
  lrn_param {
    local_size: 5
    alpha: 0.0001
    beta: 0.75
  }
}
layer {
  name: "pool2/3x3_s2"
  type: "Pooling"
  bottom: "conv2/norm2"
  top: "pool2/3x3_s2"
  pooling_param {
    pool: MAX
    kernel_size: 3
    stride: 2
  }
}
layer {
  name: "inception_3a/1x1"
  type: "Convolution"
  bottom: "pool2/3x3_s2"
  top: "inception_3a/1x1"
  param {
    lr_mult: 1
    decay_mult: 1
  }
  param {
    lr_mult: 2
    decay_mult: 0
  }
  convolution_param {
    num_output: 64
    kernel_size: 1
    weight_filler {
      type: "xavier"
      std: 0.03
    }
    bias_filler {
      type: "constant"
      value: 0.2
    }
  }
}
layer {
  name: "inception_3a/relu_1x1"
  type: "ReLU"
  bottom: "inception_3a/1x1"
  top: "inception_3a/1x1"
}
layer {
  name: "inception_3a/3x3_reduce"
  type: "Convolution"
  bottom: "pool2/3x3_s2"
  top: "inception_3a/3x3_reduce"
  param {
    lr_mult: 1
    decay_mult: 1
  }
  param {
    lr_mult: 2
    decay_mult: 0
  }
  convolution_param {
    num_output: 96
    kernel_size: 1
    weight_filler {
      type: "xavier"
      std: 0.09
    }
    bias_filler {
      type: "constant"
      value: 0.2
    }
  }
}
layer {
  name: "inception_3a/relu_3x3_reduce"
  type: "ReLU"
  bottom: "inception_3a/3x3_reduce"
  top: "inception_3a/3x3_reduce"
}
layer {
  name: "inception_3a/3x3"
  type: "Convolution"
  bottom: "inception_3a/3x3_reduce"
  top: "inception_3a/3x3"
  param {
    lr_mult: 1
    decay_mult: 1
  }
  param {
    lr_mult: 2
    decay_mult: 0
  }
  convolution_param {
    num_output: 128
    pad: 1
    kernel_size: 3
    weight_filler {
      type: "xavier"
      std: 0.03
    }
    bias_filler {
      type: "constant"
      value: 0.2
    }
  }
}
layer {
  name: "inception_3a/relu_3x3"
  type: "ReLU"
  bottom: "inception_3a/3x3"
  top: "inception_3a/3x3"
}
layer {
  name: "inception_3a/5x5_reduce"
  type: "Convolution"
  bottom: "pool2/3x3_s2"
  top: "inception_3a/5x5_reduce"
  param {
    lr_mult: 1
    decay_mult: 1
  }
  param {
    lr_mult: 2
    decay_mult: 0
  }
  convolution_param {
    num_output: 16
    kernel_size: 1
    weight_filler {
      type: "xavier"
      std: 0.2
    }
    bias_filler {
      type: "constant"
      value: 0.2
    }
  }
}
layer {
  name: "inception_3a/relu_5x5_reduce"
  type: "ReLU"
  bottom: "inception_3a/5x5_reduce"
  top: "inception_3a/5x5_reduce"
}
layer {
  name: "inception_3a/5x5"
  type: "Convolution"
  bottom: "inception_3a/5x5_reduce"
  top: "inception_3a/5x5"
  param {
    lr_mult: 1
    decay_mult: 1
  }
  param {
    lr_mult: 2
    decay_mult: 0
  }
  convolution_param {
    num_output: 32
    pad: 2
    kernel_size: 5
    weight_filler {
      type: "xavier"
      std: 0.03
    }
    bias_filler {
      type: "constant"
      value: 0.2
    }
  }
}
layer {
  name: "inception_3a/relu_5x5"
  type: "ReLU"
  bottom: "inception_3a/5x5"
  top: "inception_3a/5x5"
}
layer {
  name: "inception_3a/pool"
  type: "Pooling"
  bottom: "pool2/3x3_s2"
  top: "inception_3a/pool"
  pooling_param {
    pool: MAX
    kernel_size: 3
    stride: 1
    pad: 1
  }
}
layer {
  name: "inception_3a/pool_proj"
  type: "Convolution"
  bottom: "inception_3a/pool"
  top: "inception_3a/pool_proj"
  param {
    lr_mult: 1
    decay_mult: 1
  }
  param {
    lr_mult: 2
    decay_mult: 0
  }
  convolution_param {
    num_output: 32
    kernel_size: 1
    weight_filler {
      type: "xavier"
      std: 0.1
    }
    bias_filler {
      type: "constant"
      value: 0.2
    }
  }
}
layer {
  name: "inception_3a/relu_pool_proj"
  type: "ReLU"
  bottom: "inception_3a/pool_proj"
  top: "inception_3a/pool_proj"
}
layer {
  name: "inception_3a/output"
  type: "Concat"
  bottom: "inception_3a/1x1"
  bottom: "inception_3a/3x3"
  bottom: "inception_3a/5x5"
  bottom: "inception_3a/pool_proj"
  top: "inception_3a/output"
}
layer {
  name: "inception_3b/1x1"
  type: "Convolution"
  bottom: "inception_3a/output"
  top: "inception_3b/1x1"
  param {
    lr_mult: 1
    decay_mult: 1
  }
  param {
    lr_mult: 2
    decay_mult: 0
  }
  convolution_param {
    num_output: 128
    kernel_size: 1
    weight_filler {
      type: "xavier"
      std: 0.03
    }
    bias_filler {
      type: "constant"
      value: 0.2
    }
  }
}
layer {
  name: "inception_3b/relu_1x1"
  type: "ReLU"
  bottom: "inception_3b/1x1"
  top: "inception_3b/1x1"
}
layer {
  name: "inception_3b/3x3_reduce"
  type: "Convolution"
  bottom: "inception_3a/output"
  top: "inception_3b/3x3_reduce"
  param {
    lr_mult: 1
    decay_mult: 1
  }
  param {
    lr_mult: 2
    decay_mult: 0
  }
  convolution_param {
    num_output: 128
    kernel_size: 1
    weight_filler {
      type: "xavier"
      std: 0.09
    }
    bias_filler {
      type: "constant"
      value: 0.2
    }
  }
}
layer {
  name: "inception_3b/relu_3x3_reduce"
  type: "ReLU"
  bottom: "inception_3b/3x3_reduce"
  top: "inception_3b/3x3_reduce"
}
layer {
  name: "inception_3b/3x3"
  type: "Convolution"
  bottom: "inception_3b/3x3_reduce"
  top: "inception_3b/3x3"
  param {
    lr_mult: 1
    decay_mult: 1
  }
  param {
    lr_mult: 2
    decay_mult: 0
  }
  convolution_param {
    num_output: 192
    pad: 1
    kernel_size: 3
    weight_filler {
      type: "xavier"
      std: 0.03
    }
    bias_filler {
      type: "constant"
      value: 0.2
    }
  }
}
layer {
  name: "inception_3b/relu_3x3"
  type: "ReLU"
  bottom: "inception_3b/3x3"
  top: "inception_3b/3x3"
}
layer {
  name: "inception_3b/5x5_reduce"
  type: "Convolution"
  bottom: "inception_3a/output"
  top: "inception_3b/5x5_reduce"
  param {
    lr_mult: 1
    decay_mult: 1
  }
  param {
    lr_mult: 2
    decay_mult: 0
  }
  convolution_param {
    num_output: 32
    kernel_size: 1
    weight_filler {
      type: "xavier"
      std: 0.2
    }
    bias_filler {
      type: "constant"
      value: 0.2
    }
  }
}
layer {
  name: "inception_3b/relu_5x5_reduce"
  type: "ReLU"
  bottom: "inception_3b/5x5_reduce"
  top: "inception_3b/5x5_reduce"
}
layer {
  name: "inception_3b/5x5"
  type: "Convolution"
  bottom: "inception_3b/5x5_reduce"
  top: "inception_3b/5x5"
  param {
    lr_mult: 1
    decay_mult: 1
  }
  param {
    lr_mult: 2
    decay_mult: 0
  }
  convolution_param {
    num_output: 96
    pad: 2
    kernel_size: 5
    weight_filler {
      type: "xavier"
      std: 0.03
    }
    bias_filler {
      type: "constant"
      value: 0.2
    }
  }
}
layer {
  name: "inception_3b/relu_5x5"
  type: "ReLU"
  bottom: "inception_3b/5x5"
  top: "inception_3b/5x5"
}
layer {
  name: "inception_3b/pool"
  type: "Pooling"
  bottom: "inception_3a/output"
  top: "inception_3b/pool"
  pooling_param {
    pool: MAX
    kernel_size: 3
    stride: 1
    pad: 1
  }
}
layer {
  name: "inception_3b/pool_proj"
  type: "Convolution"
  bottom: "inception_3b/pool"
  top: "inception_3b/pool_proj"
  param {
    lr_mult: 1
    decay_mult: 1
  }
  param {
    lr_mult: 2
    decay_mult: 0
  }
  convolution_param {
    num_output: 64
    kernel_size: 1
    weight_filler {
      type: "xavier"
      std: 0.1
    }
    bias_filler {
      type: "constant"
      value: 0.2
    }
  }
}
layer {
  name: "inception_3b/relu_pool_proj"
  type: "ReLU"
  bottom: "inception_3b/pool_proj"
  top: "inception_3b/pool_proj"
}
layer {
  name: "inception_3b/output"
  type: "Concat"
  bottom: "inception_3b/1x1"
  bottom: "inception_3b/3x3"
  bottom: "inception_3b/5x5"
  bottom: "inception_3b/pool_proj"
  top: "inception_3b/output"
}
layer {
  name: "pool3/3x3_s2"
  type: "Pooling"
  bottom: "inception_3b/output"
  top: "pool3/3x3_s2"
  pooling_param {
    pool: MAX
    kernel_size: 3
    stride: 2
  }
}
layer {
  name: "inception_4a/1x1"
  type: "Convolution"
  bottom: "pool3/3x3_s2"
  top: "inception_4a/1x1"
  param {
    lr_mult: 1
    decay_mult: 1
  }
  param {
    lr_mult: 2
    decay_mult: 0
  }
  convolution_param {
    num_output: 192
    kernel_size: 1
    weight_filler {
      type: "xavier"
      std: 0.03
    }
    bias_filler {
      type: "constant"
      value: 0.2
    }
  }
}
layer {
  name: "inception_4a/relu_1x1"
  type: "ReLU"
  bottom: "inception_4a/1x1"
  top: "inception_4a/1x1"
}
layer {
  name: "inception_4a/3x3_reduce"
  type: "Convolution"
  bottom: "pool3/3x3_s2"
  top: "inception_4a/3x3_reduce"
  param {
    lr_mult: 1
    decay_mult: 1
  }
  param {
    lr_mult: 2
    decay_mult: 0
  }
  convolution_param {
    num_output: 96
    kernel_size: 1
    weight_filler {
      type: "xavier"
      std: 0.09
    }
    bias_filler {
      type: "constant"
      value: 0.2
    }
  }
}
layer {
  name: "inception_4a/relu_3x3_reduce"
  type: "ReLU"
  bottom: "inception_4a/3x3_reduce"
  top: "inception_4a/3x3_reduce"
}
layer {
  name: "inception_4a/3x3"
  type: "Convolution"
  bottom: "inception_4a/3x3_reduce"
  top: "inception_4a/3x3"
  param {
    lr_mult: 1
    decay_mult: 1
  }
  param {
    lr_mult: 2
    decay_mult: 0
  }
  convolution_param {
    num_output: 208
    pad: 1
    kernel_size: 3
    weight_filler {
      type: "xavier"
      std: 0.03
    }
    bias_filler {
      type: "constant"
      value: 0.2
    }
  }
}
layer {
  name: "inception_4a/relu_3x3"
  type: "ReLU"
  bottom: "inception_4a/3x3"
  top: "inception_4a/3x3"
}
layer {
  name: "inception_4a/5x5_reduce"
  type: "Convolution"
  bottom: "pool3/3x3_s2"
  top: "inception_4a/5x5_reduce"
  param {
    lr_mult: 1
    decay_mult: 1
  }
  param {
    lr_mult: 2
    decay_mult: 0
  }
  convolution_param {
    num_output: 16
    kernel_size: 1
    weight_filler {
      type: "xavier"
      std: 0.2
    }
    bias_filler {
      type: "constant"
      value: 0.2
    }
  }
}
layer {
  name: "inception_4a/relu_5x5_reduce"
  type: "ReLU"
  bottom: "inception_4a/5x5_reduce"
  top: "inception_4a/5x5_reduce"
}
layer {
  name: "inception_4a/5x5"
  type: "Convolution"
  bottom: "inception_4a/5x5_reduce"
  top: "inception_4a/5x5"
  param {
    lr_mult: 1
    decay_mult: 1
  }
  param {
    lr_mult: 2
    decay_mult: 0
  }
  convolution_param {
    num_output: 48
    pad: 2
    kernel_size: 5
    weight_filler {
      type: "xavier"
      std: 0.03
    }
    bias_filler {
      type: "constant"
      value: 0.2
    }
  }
}
layer {
  name: "inception_4a/relu_5x5"
  type: "ReLU"
  bottom: "inception_4a/5x5"
  top: "inception_4a/5x5"
}
layer {
  name: "inception_4a/pool"
  type: "Pooling"
  bottom: "pool3/3x3_s2"
  top: "inception_4a/pool"
  pooling_param {
    pool: MAX
    kernel_size: 3
    stride: 1
    pad: 1
  }
}
layer {
  name: "inception_4a/pool_proj"
  type: "Convolution"
  bottom: "inception_4a/pool"
  top: "inception_4a/pool_proj"
  param {
    lr_mult: 1
    decay_mult: 1
  }
  param {
    lr_mult: 2
    decay_mult: 0
  }
  convolution_param {
    num_output: 64
    kernel_size: 1
    weight_filler {
      type: "xavier"
      std: 0.1
    }
    bias_filler {
      type: "constant"
      value: 0.2
    }
  }
}
layer {
  name: "inception_4a/relu_pool_proj"
  type: "ReLU"
  bottom: "inception_4a/pool_proj"
  top: "inception_4a/pool_proj"
}
layer {
  name: "inception_4a/output"
  type: "Concat"
  bottom: "inception_4a/1x1"
  bottom: "inception_4a/3x3"
  bottom: "inception_4a/5x5"
  bottom: "inception_4a/pool_proj"
  top: "inception_4a/output"
}
layer {
  name: "loss1/ave_pool"
  type: "Pooling"
  bottom: "inception_4a/output"
  top: "loss1/ave_pool"
  pooling_param {
    pool: AVE
    kernel_size: 5
    stride: 3
  }
}
layer {
  name: "loss1/conv"
  type: "Convolution"
  bottom: "loss1/ave_pool"
  top: "loss1/conv"
  param {
    lr_mult: 1
    decay_mult: 1
  }
  param {
    lr_mult: 2
    decay_mult: 0
  }
  convolution_param {
    num_output: 128
    kernel_size: 1
    weight_filler {
      type: "xavier"
      std: 0.08
    }
    bias_filler {
      type: "constant"
      value: 0.2
    }
  }
}
layer {
  name: "loss1/relu_conv"
  type: "ReLU"
  bottom: "loss1/conv"
  top: "loss1/conv"
}
layer {
  name: "loss1/fc"
  type: "InnerProduct"
  bottom: "loss1/conv"
  top: "loss1/fc"
  param {
    lr_mult: 1
    decay_mult: 1
  }
  param {
    lr_mult: 2
    decay_mult: 0
  }
  inner_product_param {
    num_output: 1024
    weight_filler {
      type: "xavier"
      std: 0.02
    }
    bias_filler {
      type: "constant"
      value: 0.2
    }
  }
}
layer {
  name: "loss1/relu_fc"
  type: "ReLU"
  bottom: "loss1/fc"
  top: "loss1/fc"
}
layer {
  name: "loss1/drop_fc"
  type: "Dropout"
  bottom: "loss1/fc"
  top: "loss1/fc"
  dropout_param {
    dropout_ratio: 0.7
  }
}
layer {
  name: "loss1/classifier_plantvillage"
  type: "InnerProduct"
  bottom: "loss1/fc"
  top: "loss1/classifier_plantvillage"
  param {
    lr_mult: 1
    decay_mult: 1
  }
  param {
    lr_mult: 2
    decay_mult: 0
  }
  inner_product_param {
    num_output: 38
    weight_filler {
      type: "xavier"
      std: 0.0009765625
    }
    bias_filler {
      type: "constant"
      value: 0
    }
  }
}
layer {
  name: "inception_4b/1x1"
  type: "Convolution"
  bottom: "inception_4a/output"
  top: "inception_4b/1x1"
  param {
    lr_mult: 1
    decay_mult: 1
  }
  param {
    lr_mult: 2
    decay_mult: 0
  }
  convolution_param {
    num_output: 160
    kernel_size: 1
    weight_filler {
      type: "xavier"
      std: 0.03
    }
    bias_filler {
      type: "constant"
      value: 0.2
    }
  }
}
layer {
  name: "inception_4b/relu_1x1"
  type: "ReLU"
  bottom: "inception_4b/1x1"
  top: "inception_4b/1x1"
}
layer {
  name: "inception_4b/3x3_reduce"
  type: "Convolution"
  bottom: "inception_4a/output"
  top: "inception_4b/3x3_reduce"
  param {
    lr_mult: 1
    decay_mult: 1
  }
  param {
    lr_mult: 2
    decay_mult: 0
  }
  convolution_param {
    num_output: 112
    kernel_size: 1
    weight_filler {
      type: "xavier"
      std: 0.09
    }
    bias_filler {
      type: "constant"
      value: 0.2
    }
  }
}
layer {
  name: "inception_4b/relu_3x3_reduce"
  type: "ReLU"
  bottom: "inception_4b/3x3_reduce"
  top: "inception_4b/3x3_reduce"
}
layer {
  name: "inception_4b/3x3"
  type: "Convolution"
  bottom: "inception_4b/3x3_reduce"
  top: "inception_4b/3x3"
  param {
    lr_mult: 1
    decay_mult: 1
  }
  param {
    lr_mult: 2
    decay_mult: 0
  }
  convolution_param {
    num_output: 224
    pad: 1
    kernel_size: 3
    weight_filler {
      type: "xavier"
      std: 0.03
    }
    bias_filler {
      type: "constant"
      value: 0.2
    }
  }
}
layer {
  name: "inception_4b/relu_3x3"
  type: "ReLU"
  bottom: "inception_4b/3x3"
  top: "inception_4b/3x3"
}
layer {
  name: "inception_4b/5x5_reduce"
  type: "Convolution"
  bottom: "inception_4a/output"
  top: "inception_4b/5x5_reduce"
  param {
    lr_mult: 1
    decay_mult: 1
  }
  param {
    lr_mult: 2
    decay_mult: 0
  }
  convolution_param {
    num_output: 24
    kernel_size: 1
    weight_filler {
      type: "xavier"
      std: 0.2
    }
    bias_filler {
      type: "constant"
      value: 0.2
    }
  }
}
layer {
  name: "inception_4b/relu_5x5_reduce"
  type: "ReLU"
  bottom: "inception_4b/5x5_reduce"
  top: "inception_4b/5x5_reduce"
}
layer {
  name: "inception_4b/5x5"
  type: "Convolution"
  bottom: "inception_4b/5x5_reduce"
  top: "inception_4b/5x5"
  param {
    lr_mult: 1
    decay_mult: 1
  }
  param {
    lr_mult: 2
    decay_mult: 0
  }
  convolution_param {
    num_output: 64
    pad: 2
    kernel_size: 5
    weight_filler {
      type: "xavier"
      std: 0.03
    }
    bias_filler {
      type: "constant"
      value: 0.2
    }
  }
}
layer {
  name: "inception_4b/relu_5x5"
  type: "ReLU"
  bottom: "inception_4b/5x5"
  top: "inception_4b/5x5"
}
layer {
  name: "inception_4b/pool"
  type: "Pooling"
  bottom: "inception_4a/output"
  top: "inception_4b/pool"
  pooling_param {
    pool: MAX
    kernel_size: 3
    stride: 1
    pad: 1
  }
}
layer {
  name: "inception_4b/pool_proj"
  type: "Convolution"
  bottom: "inception_4b/pool"
  top: "inception_4b/pool_proj"
  param {
    lr_mult: 1
    decay_mult: 1
  }
  param {
    lr_mult: 2
    decay_mult: 0
  }
  convolution_param {
    num_output: 64
    kernel_size: 1
    weight_filler {
      type: "xavier"
      std: 0.1
    }
    bias_filler {
      type: "constant"
      value: 0.2
    }
  }
}
layer {
  name: "inception_4b/relu_pool_proj"
  type: "ReLU"
  bottom: "inception_4b/pool_proj"
  top: "inception_4b/pool_proj"
}
layer {
  name: "inception_4b/output"
  type: "Concat"
  bottom: "inception_4b/1x1"
  bottom: "inception_4b/3x3"
  bottom: "inception_4b/5x5"
  bottom: "inception_4b/pool_proj"
  top: "inception_4b/output"
}
layer {
  name: "inception_4c/1x1"
  type: "Convolution"
  bottom: "inception_4b/output"
  top: "inception_4c/1x1"
  param {
    lr_mult: 1
    decay_mult: 1
  }
  param {
    lr_mult: 2
    decay_mult: 0
  }
  convolution_param {
    num_output: 128
    kernel_size: 1
    weight_filler {
      type: "xavier"
      std: 0.03
    }
    bias_filler {
      type: "constant"
      value: 0.2
    }
  }
}
layer {
  name: "inception_4c/relu_1x1"
  type: "ReLU"
  bottom: "inception_4c/1x1"
  top: "inception_4c/1x1"
}
layer {
  name: "inception_4c/3x3_reduce"
  type: "Convolution"
  bottom: "inception_4b/output"
  top: "inception_4c/3x3_reduce"
  param {
    lr_mult: 1
    decay_mult: 1
  }
  param {
    lr_mult: 2
    decay_mult: 0
  }
  convolution_param {
    num_output: 128
    kernel_size: 1
    weight_filler {
      type: "xavier"
      std: 0.09
    }
    bias_filler {
      type: "constant"
      value: 0.2
    }
  }
}
layer {
  name: "inception_4c/relu_3x3_reduce"
  type: "ReLU"
  bottom: "inception_4c/3x3_reduce"
  top: "inception_4c/3x3_reduce"
}
layer {
  name: "inception_4c/3x3"
  type: "Convolution"
  bottom: "inception_4c/3x3_reduce"
  top: "inception_4c/3x3"
  param {
    lr_mult: 1
    decay_mult: 1
  }
  param {
    lr_mult: 2
    decay_mult: 0
  }
  convolution_param {
    num_output: 256
    pad: 1
    kernel_size: 3
    weight_filler {
      type: "xavier"
      std: 0.03
    }
    bias_filler {
      type: "constant"
      value: 0.2
    }
  }
}
layer {
  name: "inception_4c/relu_3x3"
  type: "ReLU"
  bottom: "inception_4c/3x3"
  top: "inception_4c/3x3"
}
layer {
  name: "inception_4c/5x5_reduce"
  type: "Convolution"
  bottom: "inception_4b/output"
  top: "inception_4c/5x5_reduce"
  param {
    lr_mult: 1
    decay_mult: 1
  }
  param {
    lr_mult: 2
    decay_mult: 0
  }
  convolution_param {
    num_output: 24
    kernel_size: 1
    weight_filler {
      type: "xavier"
      std: 0.2
    }
    bias_filler {
      type: "constant"
      value: 0.2
    }
  }
}
layer {
  name: "inception_4c/relu_5x5_reduce"
  type: "ReLU"
  bottom: "inception_4c/5x5_reduce"
  top: "inception_4c/5x5_reduce"
}
layer {
  name: "inception_4c/5x5"
  type: "Convolution"
  bottom: "inception_4c/5x5_reduce"
  top: "inception_4c/5x5"
  param {
    lr_mult: 1
    decay_mult: 1
  }
  param {
    lr_mult: 2
    decay_mult: 0
  }
  convolution_param {
    num_output: 64
    pad: 2
    kernel_size: 5
    weight_filler {
      type: "xavier"
      std: 0.03
    }
    bias_filler {
      type: "constant"
      value: 0.2
    }
  }
}
layer {
  name: "inception_4c/relu_5x5"
  type: "ReLU"
  bottom: "inception_4c/5x5"
  top: "inception_4c/5x5"
}
layer {
  name: "inception_4c/pool"
  type: "Pooling"
  bottom: "inception_4b/output"
  top: "inception_4c/pool"
  pooling_param {
    pool: MAX
    kernel_size: 3
    stride: 1
    pad: 1
  }
}
layer {
  name: "inception_4c/pool_proj"
  type: "Convolution"
  bottom: "inception_4c/pool"
  top: "inception_4c/pool_proj"
  param {
    lr_mult: 1
    decay_mult: 1
  }
  param {
    lr_mult: 2
    decay_mult: 0
  }
  convolution_param {
    num_output: 64
    kernel_size: 1
    weight_filler {
      type: "xavier"
      std: 0.1
    }
    bias_filler {
      type: "constant"
      value: 0.2
    }
  }
}
layer {
  name: "inception_4c/relu_pool_proj"
  type: "ReLU"
  bottom: "inception_4c/pool_proj"
  top: "inception_4c/pool_proj"
}
layer {
  name: "inception_4c/output"
  type: "Concat"
  bottom: "inception_4c/1x1"
  bottom: "inception_4c/3x3"
  bottom: "inception_4c/5x5"
  bottom: "inception_4c/pool_proj"
  top: "inception_4c/output"
}
layer {
  name: "inception_4d/1x1"
  type: "Convolution"
  bottom: "inception_4c/output"
  top: "inception_4d/1x1"
  param {
    lr_mult: 1
    decay_mult: 1
  }
  param {
    lr_mult: 2
    decay_mult: 0
  }
  convolution_param {
    num_output: 112
    kernel_size: 1
    weight_filler {
      type: "xavier"
      std: 0.03
    }
    bias_filler {
      type: "constant"
      value: 0.2
    }
  }
}
layer {
  name: "inception_4d/relu_1x1"
  type: "ReLU"
  bottom: "inception_4d/1x1"
  top: "inception_4d/1x1"
}
layer {
  name: "inception_4d/3x3_reduce"
  type: "Convolution"
  bottom: "inception_4c/output"
  top: "inception_4d/3x3_reduce"
  param {
    lr_mult: 1
    decay_mult: 1
  }
  param {
    lr_mult: 2
    decay_mult: 0
  }
  convolution_param {
    num_output: 144
    kernel_size: 1
    weight_filler {
      type: "xavier"
      std: 0.09
    }
    bias_filler {
      type: "constant"
      value: 0.2
    }
  }
}
layer {
  name: "inception_4d/relu_3x3_reduce"
  type: "ReLU"
  bottom: "inception_4d/3x3_reduce"
  top: "inception_4d/3x3_reduce"
}
layer {
  name: "inception_4d/3x3"
  type: "Convolution"
  bottom: "inception_4d/3x3_reduce"
  top: "inception_4d/3x3"
  param {
    lr_mult: 1
    decay_mult: 1
  }
  param {
    lr_mult: 2
    decay_mult: 0
  }
  convolution_param {
    num_output: 288
    pad: 1
    kernel_size: 3
    weight_filler {
      type: "xavier"
      std: 0.03
    }
    bias_filler {
      type: "constant"
      value: 0.2
    }
  }
}
layer {
  name: "inception_4d/relu_3x3"
  type: "ReLU"
  bottom: "inception_4d/3x3"
  top: "inception_4d/3x3"
}
layer {
  name: "inception_4d/5x5_reduce"
  type: "Convolution"
  bottom: "inception_4c/output"
  top: "inception_4d/5x5_reduce"
  param {
    lr_mult: 1
    decay_mult: 1
  }
  param {
    lr_mult: 2
    decay_mult: 0
  }
  convolution_param {
    num_output: 32
    kernel_size: 1
    weight_filler {
      type: "xavier"
      std: 0.2
    }
    bias_filler {
      type: "constant"
      value: 0.2
    }
  }
}
layer {
  name: "inception_4d/relu_5x5_reduce"
  type: "ReLU"
  bottom: "inception_4d/5x5_reduce"
  top: "inception_4d/5x5_reduce"
}
layer {
  name: "inception_4d/5x5"
  type: "Convolution"
  bottom: "inception_4d/5x5_reduce"
  top: "inception_4d/5x5"
  param {
    lr_mult: 1
    decay_mult: 1
  }
  param {
    lr_mult: 2
    decay_mult: 0
  }
  convolution_param {
    num_output: 64
    pad: 2
    kernel_size: 5
    weight_filler {
      type: "xavier"
      std: 0.03
    }
    bias_filler {
      type: "constant"
      value: 0.2
    }
  }
}
layer {
  name: "inception_4d/relu_5x5"
  type: "ReLU"
  bottom: "inception_4d/5x5"
  top: "inception_4d/5x5"
}
layer {
  name: "inception_4d/pool"
  type: "Pooling"
  bottom: "inception_4c/output"
  top: "inception_4d/pool"
  pooling_param {
    pool: MAX
    kernel_size: 3
    stride: 1
    pad: 1
  }
}
layer {
  name: "inception_4d/pool_proj"
  type: "Convolution"
  bottom: "inception_4d/pool"
  top: "inception_4d/pool_proj"
  param {
    lr_mult: 1
    decay_mult: 1
  }
  param {
    lr_mult: 2
    decay_mult: 0
  }
  convolution_param {
    num_output: 64
    kernel_size: 1
    weight_filler {
      type: "xavier"
      std: 0.1
    }
    bias_filler {
      type: "constant"
      value: 0.2
    }
  }
}
layer {
  name: "inception_4d/relu_pool_proj"
  type: "ReLU"
  bottom: "inception_4d/pool_proj"
  top: "inception_4d/pool_proj"
}
layer {
  name: "inception_4d/output"
  type: "Concat"
  bottom: "inception_4d/1x1"
  bottom: "inception_4d/3x3"
  bottom: "inception_4d/5x5"
  bottom: "inception_4d/pool_proj"
  top: "inception_4d/output"
}
layer {
  name: "loss2/ave_pool"
  type: "Pooling"
  bottom: "inception_4d/output"
  top: "loss2/ave_pool"
  pooling_param {
    pool: AVE
    kernel_size: 5
    stride: 3
  }
}
layer {
  name: "loss2/conv"
  type: "Convolution"
  bottom: "loss2/ave_pool"
  top: "loss2/conv"
  param {
    lr_mult: 1
    decay_mult: 1
  }
  param {
    lr_mult: 2
    decay_mult: 0
  }
  convolution_param {
    num_output: 128
    kernel_size: 1
    weight_filler {
      type: "xavier"
      std: 0.08
    }
    bias_filler {
      type: "constant"
      value: 0.2
    }
  }
}
layer {
  name: "loss2/relu_conv"
  type: "ReLU"
  bottom: "loss2/conv"
  top: "loss2/conv"
}
layer {
  name: "loss2/fc"
  type: "InnerProduct"
  bottom: "loss2/conv"
  top: "loss2/fc"
  param {
    lr_mult: 1
    decay_mult: 1
  }
  param {
    lr_mult: 2
    decay_mult: 0
  }
  inner_product_param {
    num_output: 1024
    weight_filler {
      type: "xavier"
      std: 0.02
    }
    bias_filler {
      type: "constant"
      value: 0.2
    }
  }
}
layer {
  name: "loss2/relu_fc"
  type: "ReLU"
  bottom: "loss2/fc"
  top: "loss2/fc"
}
layer {
  name: "loss2/drop_fc"
  type: "Dropout"
  bottom: "loss2/fc"
  top: "loss2/fc"
  dropout_param {
    dropout_ratio: 0.7
  }
}
layer {
  name: "loss2/classifier_plantvillage"
  type: "InnerProduct"
  bottom: "loss2/fc"
  top: "loss2/classifier_plantvillage"
  param {
    lr_mult: 1
    decay_mult: 1
  }
  param {
    lr_mult: 2
    decay_mult: 0
  }
  inner_product_param {
    num_output: 38
    weight_filler {
      type: "xavier"
      std: 0.0009765625
    }
    bias_filler {
      type: "constant"
      value: 0
    }
  }
}
layer {
  name: "inception_4e/1x1"
  type: "Convolution"
  bottom: "inception_4d/output"
  top: "inception_4e/1x1"
  param {
    lr_mult: 1
    decay_mult: 1
  }
  param {
    lr_mult: 2
    decay_mult: 0
  }
  convolution_param {
    num_output: 256
    kernel_size: 1
    weight_filler {
      type: "xavier"
      std: 0.03
    }
    bias_filler {
      type: "constant"
      value: 0.2
    }
  }
}
layer {
  name: "inception_4e/relu_1x1"
  type: "ReLU"
  bottom: "inception_4e/1x1"
  top: "inception_4e/1x1"
}
layer {
  name: "inception_4e/3x3_reduce"
  type: "Convolution"
  bottom: "inception_4d/output"
  top: "inception_4e/3x3_reduce"
  param {
    lr_mult: 1
    decay_mult: 1
  }
  param {
    lr_mult: 2
    decay_mult: 0
  }
  convolution_param {
    num_output: 160
    kernel_size: 1
    weight_filler {
      type: "xavier"
      std: 0.09
    }
    bias_filler {
      type: "constant"
      value: 0.2
    }
  }
}
layer {
  name: "inception_4e/relu_3x3_reduce"
  type: "ReLU"
  bottom: "inception_4e/3x3_reduce"
  top: "inception_4e/3x3_reduce"
}
layer {
  name: "inception_4e/3x3"
  type: "Convolution"
  bottom: "inception_4e/3x3_reduce"
  top: "inception_4e/3x3"
  param {
    lr_mult: 1
    decay_mult: 1
  }
  param {
    lr_mult: 2
    decay_mult: 0
  }
  convolution_param {
    num_output: 320
    pad: 1
    kernel_size: 3
    weight_filler {
      type: "xavier"
      std: 0.03
    }
    bias_filler {
      type: "constant"
      value: 0.2
    }
  }
}
layer {
  name: "inception_4e/relu_3x3"
  type: "ReLU"
  bottom: "inception_4e/3x3"
  top: "inception_4e/3x3"
}
layer {
  name: "inception_4e/5x5_reduce"
  type: "Convolution"
  bottom: "inception_4d/output"
  top: "inception_4e/5x5_reduce"
  param {
    lr_mult: 1
    decay_mult: 1
  }
  param {
    lr_mult: 2
    decay_mult: 0
  }
  convolution_param {
    num_output: 32
    kernel_size: 1
    weight_filler {
      type: "xavier"
      std: 0.2
    }
    bias_filler {
      type: "constant"
      value: 0.2
    }
  }
}
layer {
  name: "inception_4e/relu_5x5_reduce"
  type: "ReLU"
  bottom: "inception_4e/5x5_reduce"
  top: "inception_4e/5x5_reduce"
}
layer {
  name: "inception_4e/5x5"
  type: "Convolution"
  bottom: "inception_4e/5x5_reduce"
  top: "inception_4e/
I0403 21:38:00.199695 23693 layer_factory.hpp:77] Creating layer data
I0403 21:38:00.200276 23693 net.cpp:91] Creating Layer data
I0403 21:38:00.200310 23693 net.cpp:399] data -> data
I0403 21:38:00.200362 23693 net.cpp:399] data -> label
I0403 21:38:00.200399 23693 data_transformer.cpp:25] Loading mean file from: /home/mohanty/data/final_dataset/lmdb/segmented-80-20/mean.binaryproto
I0403 21:38:00.201555 23696 db_lmdb.cpp:38] Opened lmdb /home/mohanty/data/final_dataset/lmdb/segmented-80-20/test_db
I0403 21:38:00.212947 23693 data_layer.cpp:41] output data size: 24,3,224,224
I0403 21:38:00.239967 23693 net.cpp:141] Setting up data
I0403 21:38:00.240049 23693 net.cpp:148] Top shape: 24 3 224 224 (3612672)
I0403 21:38:00.240072 23693 net.cpp:148] Top shape: 24 (24)
I0403 21:38:00.240088 23693 net.cpp:156] Memory required for data: 14450784
I0403 21:38:00.240116 23693 layer_factory.hpp:77] Creating layer label_data_1_split
I0403 21:38:00.240144 23693 net.cpp:91] Creating Layer label_data_1_split
I0403 21:38:00.240162 23693 net.cpp:425] label_data_1_split <- label
I0403 21:38:00.240195 23693 net.cpp:399] label_data_1_split -> label_data_1_split_0
I0403 21:38:00.240223 23693 net.cpp:399] label_data_1_split -> label_data_1_split_1
I0403 21:38:00.240252 23693 net.cpp:399] label_data_1_split -> label_data_1_split_2
I0403 21:38:00.240274 23693 net.cpp:399] label_data_1_split -> label_data_1_split_3
I0403 21:38:00.240295 23693 net.cpp:399] label_data_1_split -> label_data_1_split_4
I0403 21:38:00.240315 23693 net.cpp:399] label_data_1_split -> label_data_1_split_5
I0403 21:38:00.240336 23693 net.cpp:399] label_data_1_split -> label_data_1_split_6
I0403 21:38:00.240357 23693 net.cpp:399] label_data_1_split -> label_data_1_split_7
I0403 21:38:00.240378 23693 net.cpp:399] label_data_1_split -> label_data_1_split_8
I0403 21:38:00.240399 23693 net.cpp:399] label_data_1_split -> label_data_1_split_9
I0403 21:38:00.240514 23693 net.cpp:141] Setting up label_data_1_split
I0403 21:38:00.240538 23693 net.cpp:148] Top shape: 24 (24)
I0403 21:38:00.240556 23693 net.cpp:148] Top shape: 24 (24)
I0403 21:38:00.240573 23693 net.cpp:148] Top shape: 24 (24)
I0403 21:38:00.240589 23693 net.cpp:148] Top shape: 24 (24)
I0403 21:38:00.240605 23693 net.cpp:148] Top shape: 24 (24)
I0403 21:38:00.240619 23693 net.cpp:148] Top shape: 24 (24)
I0403 21:38:00.240635 23693 net.cpp:148] Top shape: 24 (24)
I0403 21:38:00.240651 23693 net.cpp:148] Top shape: 24 (24)
I0403 21:38:00.240666 23693 net.cpp:148] Top shape: 24 (24)
I0403 21:38:00.240684 23693 net.cpp:148] Top shape: 24 (24)
I0403 21:38:00.240728 23693 net.cpp:156] Memory required for data: 14451744
I0403 21:38:00.240746 23693 layer_factory.hpp:77] Creating layer conv1/7x7_s2
I0403 21:38:00.240777 23693 net.cpp:91] Creating Layer conv1/7x7_s2
I0403 21:38:00.240795 23693 net.cpp:425] conv1/7x7_s2 <- data
I0403 21:38:00.240815 23693 net.cpp:399] conv1/7x7_s2 -> conv1/7x7_s2
I0403 21:38:00.382761 23693 net.cpp:141] Setting up conv1/7x7_s2
I0403 21:38:00.382843 23693 net.cpp:148] Top shape: 24 64 112 112 (19267584)
I0403 21:38:00.382860 23693 net.cpp:156] Memory required for data: 91522080
I0403 21:38:00.382894 23693 layer_factory.hpp:77] Creating layer conv1/relu_7x7
I0403 21:38:00.382921 23693 net.cpp:91] Creating Layer conv1/relu_7x7
I0403 21:38:00.382941 23693 net.cpp:425] conv1/relu_7x7 <- conv1/7x7_s2
I0403 21:38:00.382962 23693 net.cpp:386] conv1/relu_7x7 -> conv1/7x7_s2 (in-place)
I0403 21:38:00.383216 23693 net.cpp:141] Setting up conv1/relu_7x7
I0403 21:38:00.383249 23693 net.cpp:148] Top shape: 24 64 112 112 (19267584)
I0403 21:38:00.383265 23693 net.cpp:156] Memory required for data: 168592416
I0403 21:38:00.383282 23693 layer_factory.hpp:77] Creating layer pool1/3x3_s2
I0403 21:38:00.383307 23693 net.cpp:91] Creating Layer pool1/3x3_s2
I0403 21:38:00.383327 23693 net.cpp:425] pool1/3x3_s2 <- conv1/7x7_s2
I0403 21:38:00.383345 23693 net.cpp:399] pool1/3x3_s2 -> pool1/3x3_s2
I0403 21:38:00.383422 23693 net.cpp:141] Setting up pool1/3x3_s2
I0403 21:38:00.383448 23693 net.cpp:148] Top shape: 24 64 56 56 (4816896)
I0403 21:38:00.383463 23693 net.cpp:156] Memory required for data: 187860000
I0403 21:38:00.383479 23693 layer_factory.hpp:77] Creating layer pool1/norm1
I0403 21:38:00.383504 23693 net.cpp:91] Creating Layer pool1/norm1
I0403 21:38:00.383523 23693 net.cpp:425] pool1/norm1 <- pool1/3x3_s2
I0403 21:38:00.383541 23693 net.cpp:399] pool1/norm1 -> pool1/norm1
I0403 21:38:00.383817 23693 net.cpp:141] Setting up pool1/norm1
I0403 21:38:00.383846 23693 net.cpp:148] Top shape: 24 64 56 56 (4816896)
I0403 21:38:00.383862 23693 net.cpp:156] Memory required for data: 207127584
I0403 21:38:00.383877 23693 layer_factory.hpp:77] Creating layer conv2/3x3_reduce
I0403 21:38:00.383901 23693 net.cpp:91] Creating Layer conv2/3x3_reduce
I0403 21:38:00.383919 23693 net.cpp:425] conv2/3x3_reduce <- pool1/norm1
I0403 21:38:00.383939 23693 net.cpp:399] conv2/3x3_reduce -> conv2/3x3_reduce
I0403 21:38:00.385267 23693 net.cpp:141] Setting up conv2/3x3_reduce
I0403 21:38:00.385298 23693 net.cpp:148] Top shape: 24 64 56 56 (4816896)
I0403 21:38:00.385313 23693 net.cpp:156] Memory required for data: 226395168
I0403 21:38:00.385335 23693 layer_factory.hpp:77] Creating layer conv2/relu_3x3_reduce
I0403 21:38:00.385354 23693 net.cpp:91] Creating Layer conv2/relu_3x3_reduce
I0403 21:38:00.385371 23693 net.cpp:425] conv2/relu_3x3_reduce <- conv2/3x3_reduce
I0403 21:38:00.385390 23693 net.cpp:386] conv2/relu_3x3_reduce -> conv2/3x3_reduce (in-place)
I0403 21:38:00.385632 23693 net.cpp:141] Setting up conv2/relu_3x3_reduce
I0403 21:38:00.385660 23693 net.cpp:148] Top shape: 24 64 56 56 (4816896)
I0403 21:38:00.385676 23693 net.cpp:156] Memory required for data: 245662752
I0403 21:38:00.385692 23693 layer_factory.hpp:77] Creating layer conv2/3x3
I0403 21:38:00.385715 23693 net.cpp:91] Creating Layer conv2/3x3
I0403 21:38:00.385731 23693 net.cpp:425] conv2/3x3 <- conv2/3x3_reduce
I0403 21:38:00.385751 23693 net.cpp:399] conv2/3x3 -> conv2/3x3
I0403 21:38:00.387979 23693 net.cpp:141] Setting up conv2/3x3
I0403 21:38:00.388012 23693 net.cpp:148] Top shape: 24 192 56 56 (14450688)
I0403 21:38:00.388031 23693 net.cpp:156] Memory required for data: 303465504
I0403 21:38:00.388053 23693 layer_factory.hpp:77] Creating layer conv2/relu_3x3
I0403 21:38:00.388073 23693 net.cpp:91] Creating Layer conv2/relu_3x3
I0403 21:38:00.388092 23693 net.cpp:425] conv2/relu_3x3 <- conv2/3x3
I0403 21:38:00.388113 23693 net.cpp:386] conv2/relu_3x3 -> conv2/3x3 (in-place)
I0403 21:38:00.388300 23693 net.cpp:141] Setting up conv2/relu_3x3
I0403 21:38:00.388327 23693 net.cpp:148] Top shape: 24 192 56 56 (14450688)
I0403 21:38:00.388384 23693 net.cpp:156] Memory required for data: 361268256
I0403 21:38:00.388402 23693 layer_factory.hpp:77] Creating layer conv2/norm2
I0403 21:38:00.388424 23693 net.cpp:91] Creating Layer conv2/norm2
I0403 21:38:00.388442 23693 net.cpp:425] conv2/norm2 <- conv2/3x3
I0403 21:38:00.388460 23693 net.cpp:399] conv2/norm2 -> conv2/norm2
I0403 21:38:00.388782 23693 net.cpp:141] Setting up conv2/norm2
I0403 21:38:00.388808 23693 net.cpp:148] Top shape: 24 192 56 56 (14450688)
I0403 21:38:00.388824 23693 net.cpp:156] Memory required for data: 419071008
I0403 21:38:00.388840 23693 layer_factory.hpp:77] Creating layer pool2/3x3_s2
I0403 21:38:00.388860 23693 net.cpp:91] Creating Layer pool2/3x3_s2
I0403 21:38:00.388877 23693 net.cpp:425] pool2/3x3_s2 <- conv2/norm2
I0403 21:38:00.388896 23693 net.cpp:399] pool2/3x3_s2 -> pool2/3x3_s2
I0403 21:38:00.388950 23693 net.cpp:141] Setting up pool2/3x3_s2
I0403 21:38:00.388974 23693 net.cpp:148] Top shape: 24 192 28 28 (3612672)
I0403 21:38:00.389000 23693 net.cpp:156] Memory required for data: 433521696
I0403 21:38:00.389016 23693 layer_factory.hpp:77] Creating layer pool2/3x3_s2_pool2/3x3_s2_0_split
I0403 21:38:00.389034 23693 net.cpp:91] Creating Layer pool2/3x3_s2_pool2/3x3_s2_0_split
I0403 21:38:00.389053 23693 net.cpp:425] pool2/3x3_s2_pool2/3x3_s2_0_split <- pool2/3x3_s2
I0403 21:38:00.389071 23693 net.cpp:399] pool2/3x3_s2_pool2/3x3_s2_0_split -> pool2/3x3_s2_pool2/3x3_s2_0_split_0
I0403 21:38:00.389089 23693 net.cpp:399] pool2/3x3_s2_pool2/3x3_s2_0_split -> pool2/3x3_s2_pool2/3x3_s2_0_split_1
I0403 21:38:00.389111 23693 net.cpp:399] pool2/3x3_s2_pool2/3x3_s2_0_split -> pool2/3x3_s2_pool2/3x3_s2_0_split_2
I0403 21:38:00.389132 23693 net.cpp:399] pool2/3x3_s2_pool2/3x3_s2_0_split -> pool2/3x3_s2_pool2/3x3_s2_0_split_3
I0403 21:38:00.389200 23693 net.cpp:141] Setting up pool2/3x3_s2_pool2/3x3_s2_0_split
I0403 21:38:00.389224 23693 net.cpp:148] Top shape: 24 192 28 28 (3612672)
I0403 21:38:00.389246 23693 net.cpp:148] Top shape: 24 192 28 28 (3612672)
I0403 21:38:00.389262 23693 net.cpp:148] Top shape: 24 192 28 28 (3612672)
I0403 21:38:00.389278 23693 net.cpp:148] Top shape: 24 192 28 28 (3612672)
I0403 21:38:00.389292 23693 net.cpp:156] Memory required for data: 491324448
I0403 21:38:00.389307 23693 layer_factory.hpp:77] Creating layer inception_3a/1x1
I0403 21:38:00.389329 23693 net.cpp:91] Creating Layer inception_3a/1x1
I0403 21:38:00.389348 23693 net.cpp:425] inception_3a/1x1 <- pool2/3x3_s2_pool2/3x3_s2_0_split_0
I0403 21:38:00.389369 23693 net.cpp:399] inception_3a/1x1 -> inception_3a/1x1
I0403 21:38:00.390861 23693 net.cpp:141] Setting up inception_3a/1x1
I0403 21:38:00.390893 23693 net.cpp:148] Top shape: 24 64 28 28 (1204224)
I0403 21:38:00.390911 23693 net.cpp:156] Memory required for data: 496141344
I0403 21:38:00.390930 23693 layer_factory.hpp:77] Creating layer inception_3a/relu_1x1
I0403 21:38:00.390949 23693 net.cpp:91] Creating Layer inception_3a/relu_1x1
I0403 21:38:00.390964 23693 net.cpp:425] inception_3a/relu_1x1 <- inception_3a/1x1
I0403 21:38:00.390981 23693 net.cpp:386] inception_3a/relu_1x1 -> inception_3a/1x1 (in-place)
I0403 21:38:00.391149 23693 net.cpp:141] Setting up inception_3a/relu_1x1
I0403 21:38:00.391175 23693 net.cpp:148] Top shape: 24 64 28 28 (1204224)
I0403 21:38:00.391196 23693 net.cpp:156] Memory required for data: 500958240
I0403 21:38:00.391211 23693 layer_factory.hpp:77] Creating layer inception_3a/3x3_reduce
I0403 21:38:00.391237 23693 net.cpp:91] Creating Layer inception_3a/3x3_reduce
I0403 21:38:00.391255 23693 net.cpp:425] inception_3a/3x3_reduce <- pool2/3x3_s2_pool2/3x3_s2_0_split_1
I0403 21:38:00.391276 23693 net.cpp:399] inception_3a/3x3_reduce -> inception_3a/3x3_reduce
I0403 21:38:00.392925 23693 net.cpp:141] Setting up inception_3a/3x3_reduce
I0403 21:38:00.392958 23693 net.cpp:148] Top shape: 24 96 28 28 (1806336)
I0403 21:38:00.392976 23693 net.cpp:156] Memory required for data: 508183584
I0403 21:38:00.392997 23693 layer_factory.hpp:77] Creating layer inception_3a/relu_3x3_reduce
I0403 21:38:00.393033 23693 net.cpp:91] Creating Layer inception_3a/relu_3x3_reduce
I0403 21:38:00.393052 23693 net.cpp:425] inception_3a/relu_3x3_reduce <- inception_3a/3x3_reduce
I0403 21:38:00.393070 23693 net.cpp:386] inception_3a/relu_3x3_reduce -> inception_3a/3x3_reduce (in-place)
I0403 21:38:00.393251 23693 net.cpp:141] Setting up inception_3a/relu_3x3_reduce
I0403 21:38:00.393277 23693 net.cpp:148] Top shape: 24 96 28 28 (1806336)
I0403 21:38:00.393292 23693 net.cpp:156] Memory required for data: 515408928
I0403 21:38:00.393306 23693 layer_factory.hpp:77] Creating layer inception_3a/3x3
I0403 21:38:00.393331 23693 net.cpp:91] Creating Layer inception_3a/3x3
I0403 21:38:00.393348 23693 net.cpp:425] inception_3a/3x3 <- inception_3a/3x3_reduce
I0403 21:38:00.393367 23693 net.cpp:399] inception_3a/3x3 -> inception_3a/3x3
I0403 21:38:00.394942 23693 net.cpp:141] Setting up inception_3a/3x3
I0403 21:38:00.394970 23693 net.cpp:148] Top shape: 24 128 28 28 (2408448)
I0403 21:38:00.394987 23693 net.cpp:156] Memory required for data: 525042720
I0403 21:38:00.395005 23693 layer_factory.hpp:77] Creating layer inception_3a/relu_3x3
I0403 21:38:00.395023 23693 net.cpp:91] Creating Layer inception_3a/relu_3x3
I0403 21:38:00.395040 23693 net.cpp:425] inception_3a/relu_3x3 <- inception_3a/3x3
I0403 21:38:00.395059 23693 net.cpp:386] inception_3a/relu_3x3 -> inception_3a/3x3 (in-place)
I0403 21:38:00.395328 23693 net.cpp:141] Setting up inception_3a/relu_3x3
I0403 21:38:00.395354 23693 net.cpp:148] Top shape: 24 128 28 28 (2408448)
I0403 21:38:00.395369 23693 net.cpp:156] Memory required for data: 534676512
I0403 21:38:00.395385 23693 layer_factory.hpp:77] Creating layer inception_3a/5x5_reduce
I0403 21:38:00.395406 23693 net.cpp:91] Creating Layer inception_3a/5x5_reduce
I0403 21:38:00.395424 23693 net.cpp:425] inception_3a/5x5_reduce <- pool2/3x3_s2_pool2/3x3_s2_0_split_2
I0403 21:38:00.395445 23693 net.cpp:399] inception_3a/5x5_reduce -> inception_3a/5x5_reduce
I0403 21:38:00.396364 23693 net.cpp:141] Setting up inception_3a/5x5_reduce
I0403 21:38:00.396392 23693 net.cpp:148] Top shape: 24 16 28 28 (301056)
I0403 21:38:00.396407 23693 net.cpp:156] Memory required for data: 535880736
I0403 21:38:00.396426 23693 layer_factory.hpp:77] Creating layer inception_3a/relu_5x5_reduce
I0403 21:38:00.396445 23693 net.cpp:91] Creating Layer inception_3a/relu_5x5_reduce
I0403 21:38:00.396462 23693 net.cpp:425] inception_3a/relu_5x5_reduce <- inception_3a/5x5_reduce
I0403 21:38:00.396481 23693 net.cpp:386] inception_3a/relu_5x5_reduce -> inception_3a/5x5_reduce (in-place)
I0403 21:38:00.396771 23693 net.cpp:141] Setting up inception_3a/relu_5x5_reduce
I0403 21:38:00.396797 23693 net.cpp:148] Top shape: 24 16 28 28 (301056)
I0403 21:38:00.396813 23693 net.cpp:156] Memory required for data: 537084960
I0403 21:38:00.396827 23693 layer_factory.hpp:77] Creating layer inception_3a/5x5
I0403 21:38:00.396849 23693 net.cpp:91] Creating Layer inception_3a/5x5
I0403 21:38:00.396867 23693 net.cpp:425] inception_3a/5x5 <- inception_3a/5x5_reduce
I0403 21:38:00.396888 23693 net.cpp:399] inception_3a/5x5 -> inception_3a/5x5
I0403 21:38:00.397863 23693 net.cpp:141] Setting up inception_3a/5x5
I0403 21:38:00.397894 23693 net.cpp:148] Top shape: 24 32 28 28 (602112)
I0403 21:38:00.397912 23693 net.cpp:156] Memory required for data: 539493408
I0403 21:38:00.397930 23693 layer_factory.hpp:77] Creating layer inception_3a/relu_5x5
I0403 21:38:00.397949 23693 net.cpp:91] Creating Layer inception_3a/relu_5x5
I0403 21:38:00.397966 23693 net.cpp:425] inception_3a/relu_5x5 <- inception_3a/5x5
I0403 21:38:00.397986 23693 net.cpp:386] inception_3a/relu_5x5 -> inception_3a/5x5 (in-place)
I0403 21:38:00.398156 23693 net.cpp:141] Setting up inception_3a/relu_5x5
I0403 21:38:00.398181 23693 net.cpp:148] Top shape: 24 32 28 28 (602112)
I0403 21:38:00.398196 23693 net.cpp:156] Memory required for data: 541901856
I0403 21:38:00.398211 23693 layer_factory.hpp:77] Creating layer inception_3a/pool
I0403 21:38:00.398238 23693 net.cpp:91] Creating Layer inception_3a/pool
I0403 21:38:00.398272 23693 net.cpp:425] inception_3a/pool <- pool2/3x3_s2_pool2/3x3_s2_0_split_3
I0403 21:38:00.398293 23693 net.cpp:399] inception_3a/pool -> inception_3a/pool
I0403 21:38:00.398351 23693 net.cpp:141] Setting up inception_3a/pool
I0403 21:38:00.398375 23693 net.cpp:148] Top shape: 24 192 28 28 (3612672)
I0403 21:38:00.398389 23693 net.cpp:156] Memory required for data: 556352544
I0403 21:38:00.398406 23693 layer_factory.hpp:77] Creating layer inception_3a/pool_proj
I0403 21:38:00.398427 23693 net.cpp:91] Creating Layer inception_3a/pool_proj
I0403 21:38:00.398445 23693 net.cpp:425] inception_3a/pool_proj <- inception_3a/pool
I0403 21:38:00.398468 23693 net.cpp:399] inception_3a/pool_proj -> inception_3a/pool_proj
I0403 21:38:00.399386 23693 net.cpp:141] Setting up inception_3a/pool_proj
I0403 21:38:00.399415 23693 net.cpp:148] Top shape: 24 32 28 28 (602112)
I0403 21:38:00.399430 23693 net.cpp:156] Memory required for data: 558760992
I0403 21:38:00.399456 23693 layer_factory.hpp:77] Creating layer inception_3a/relu_pool_proj
I0403 21:38:00.399474 23693 net.cpp:91] Creating Layer inception_3a/relu_pool_proj
I0403 21:38:00.399492 23693 net.cpp:425] inception_3a/relu_pool_proj <- inception_3a/pool_proj
I0403 21:38:00.399512 23693 net.cpp:386] inception_3a/relu_pool_proj -> inception_3a/pool_proj (in-place)
I0403 21:38:00.399777 23693 net.cpp:141] Setting up inception_3a/relu_pool_proj
I0403 21:38:00.399804 23693 net.cpp:148] Top shape: 24 32 28 28 (602112)
I0403 21:38:00.399819 23693 net.cpp:156] Memory required for data: 561169440
I0403 21:38:00.399835 23693 layer_factory.hpp:77] Creating layer inception_3a/output
I0403 21:38:00.399852 23693 net.cpp:91] Creating Layer inception_3a/output
I0403 21:38:00.399868 23693 net.cpp:425] inception_3a/output <- inception_3a/1x1
I0403 21:38:00.399884 23693 net.cpp:425] inception_3a/output <- inception_3a/3x3
I0403 21:38:00.399900 23693 net.cpp:425] inception_3a/output <- inception_3a/5x5
I0403 21:38:00.399916 23693 net.cpp:425] inception_3a/output <- inception_3a/pool_proj
I0403 21:38:00.399935 23693 net.cpp:399] inception_3a/output -> inception_3a/output
I0403 21:38:00.399979 23693 net.cpp:141] Setting up inception_3a/output
I0403 21:38:00.400005 23693 net.cpp:148] Top shape: 24 256 28 28 (4816896)
I0403 21:38:00.400022 23693 net.cpp:156] Memory required for data: 580437024
I0403 21:38:00.400038 23693 layer_factory.hpp:77] Creating layer inception_3a/output_inception_3a/output_0_split
I0403 21:38:00.400054 23693 net.cpp:91] Creating Layer inception_3a/output_inception_3a/output_0_split
I0403 21:38:00.400069 23693 net.cpp:425] inception_3a/output_inception_3a/output_0_split <- inception_3a/output
I0403 21:38:00.400087 23693 net.cpp:399] inception_3a/output_inception_3a/output_0_split -> inception_3a/output_inception_3a/output_0_split_0
I0403 21:38:00.400106 23693 net.cpp:399] inception_3a/output_inception_3a/output_0_split -> inception_3a/output_inception_3a/output_0_split_1
I0403 21:38:00.400131 23693 net.cpp:399] inception_3a/output_inception_3a/output_0_split -> inception_3a/output_inception_3a/output_0_split_2
I0403 21:38:00.400154 23693 net.cpp:399] inception_3a/output_inception_3a/output_0_split -> inception_3a/output_inception_3a/output_0_split_3
I0403 21:38:00.400239 23693 net.cpp:141] Setting up inception_3a/output_inception_3a/output_0_split
I0403 21:38:00.400265 23693 net.cpp:148] Top shape: 24 256 28 28 (4816896)
I0403 21:38:00.400282 23693 net.cpp:148] Top shape: 24 256 28 28 (4816896)
I0403 21:38:00.400298 23693 net.cpp:148] Top shape: 24 256 28 28 (4816896)
I0403 21:38:00.400315 23693 net.cpp:148] Top shape: 24 256 28 28 (4816896)
I0403 21:38:00.400327 23693 net.cpp:156] Memory required for data: 657507360
I0403 21:38:00.400342 23693 layer_factory.hpp:77] Creating layer inception_3b/1x1
I0403 21:38:00.400364 23693 net.cpp:91] Creating Layer inception_3b/1x1
I0403 21:38:00.400382 23693 net.cpp:425] inception_3b/1x1 <- inception_3a/output_inception_3a/output_0_split_0
I0403 21:38:00.400403 23693 net.cpp:399] inception_3b/1x1 -> inception_3b/1x1
I0403 21:38:00.401494 23693 net.cpp:141] Setting up inception_3b/1x1
I0403 21:38:00.401533 23693 net.cpp:148] Top shape: 24 128 28 28 (2408448)
I0403 21:38:00.401549 23693 net.cpp:156] Memory required for data: 667141152
I0403 21:38:00.401568 23693 layer_factory.hpp:77] Creating layer inception_3b/relu_1x1
I0403 21:38:00.401589 23693 net.cpp:91] Creating Layer inception_3b/relu_1x1
I0403 21:38:00.401607 23693 net.cpp:425] inception_3b/relu_1x1 <- inception_3b/1x1
I0403 21:38:00.401624 23693 net.cpp:386] inception_3b/relu_1x1 -> inception_3b/1x1 (in-place)
I0403 21:38:00.401793 23693 net.cpp:141] Setting up inception_3b/relu_1x1
I0403 21:38:00.401818 23693 net.cpp:148] Top shape: 24 128 28 28 (2408448)
I0403 21:38:00.401834 23693 net.cpp:156] Memory required for data: 676774944
I0403 21:38:00.401849 23693 layer_factory.hpp:77] Creating layer inception_3b/3x3_reduce
I0403 21:38:00.401871 23693 net.cpp:91] Creating Layer inception_3b/3x3_reduce
I0403 21:38:00.401888 23693 net.cpp:425] inception_3b/3x3_reduce <- inception_3a/output_inception_3a/output_0_split_1
I0403 21:38:00.401909 23693 net.cpp:399] inception_3b/3x3_reduce -> inception_3b/3x3_reduce
I0403 21:38:00.403003 23693 net.cpp:141] Setting up inception_3b/3x3_reduce
I0403 21:38:00.403035 23693 net.cpp:148] Top shape: 24 128 28 28 (2408448)
I0403 21:38:00.403053 23693 net.cpp:156] Memory required for data: 686408736
I0403 21:38:00.403070 23693 layer_factory.hpp:77] Creating layer inception_3b/relu_3x3_reduce
I0403 21:38:00.403089 23693 net.cpp:91] Creating Layer inception_3b/relu_3x3_reduce
I0403 21:38:00.403105 23693 net.cpp:425] inception_3b/relu_3x3_reduce <- inception_3b/3x3_reduce
I0403 21:38:00.403123 23693 net.cpp:386] inception_3b/relu_3x3_reduce -> inception_3b/3x3_reduce (in-place)
I0403 21:38:00.403301 23693 net.cpp:141] Setting up inception_3b/relu_3x3_reduce
I0403 21:38:00.403328 23693 net.cpp:148] Top shape: 24 128 28 28 (2408448)
I0403 21:38:00.403343 23693 net.cpp:156] Memory required for data: 696042528
I0403 21:38:00.403357 23693 layer_factory.hpp:77] Creating layer inception_3b/3x3
I0403 21:38:00.403381 23693 net.cpp:91] Creating Layer inception_3b/3x3
I0403 21:38:00.403400 23693 net.cpp:425] inception_3b/3x3 <- inception_3b/3x3_reduce
I0403 21:38:00.403421 23693 net.cpp:399] inception_3b/3x3 -> inception_3b/3x3
I0403 21:38:00.406257 23693 net.cpp:141] Setting up inception_3b/3x3
I0403 21:38:00.406286 23693 net.cpp:148] Top shape: 24 192 28 28 (3612672)
I0403 21:38:00.406303 23693 net.cpp:156] Memory required for data: 710493216
I0403 21:38:00.406322 23693 layer_factory.hpp:77] Creating layer inception_3b/relu_3x3
I0403 21:38:00.406340 23693 net.cpp:91] Creating Layer inception_3b/relu_3x3
I0403 21:38:00.406358 23693 net.cpp:425] inception_3b/relu_3x3 <- inception_3b/3x3
I0403 21:38:00.406378 23693 net.cpp:386] inception_3b/relu_3x3 -> inception_3b/3x3 (in-place)
I0403 21:38:00.406646 23693 net.cpp:141] Setting up inception_3b/relu_3x3
I0403 21:38:00.406672 23693 net.cpp:148] Top shape: 24 192 28 28 (3612672)
I0403 21:38:00.406687 23693 net.cpp:156] Memory required for data: 724943904
I0403 21:38:00.406702 23693 layer_factory.hpp:77] Creating layer inception_3b/5x5_reduce
I0403 21:38:00.406724 23693 net.cpp:91] Creating Layer inception_3b/5x5_reduce
I0403 21:38:00.406741 23693 net.cpp:425] inception_3b/5x5_reduce <- inception_3a/output_inception_3a/output_0_split_2
I0403 21:38:00.406765 23693 net.cpp:399] inception_3b/5x5_reduce -> inception_3b/5x5_reduce
I0403 21:38:00.407716 23693 net.cpp:141] Setting up inception_3b/5x5_reduce
I0403 21:38:00.407749 23693 net.cpp:148] Top shape: 24 32 28 28 (602112)
I0403 21:38:00.407765 23693 net.cpp:156] Memory required for data: 727352352
I0403 21:38:00.407783 23693 layer_factory.hpp:77] Creating layer inception_3b/relu_5x5_reduce
I0403 21:38:00.407802 23693 net.cpp:91] Creating Layer inception_3b/relu_5x5_reduce
I0403 21:38:00.407819 23693 net.cpp:425] inception_3b/relu_5x5_reduce <- inception_3b/5x5_reduce
I0403 21:38:00.407840 23693 net.cpp:386] inception_3b/relu_5x5_reduce -> inception_3b/5x5_reduce (in-place)
I0403 21:38:00.408023 23693 net.cpp:141] Setting up inception_3b/relu_5x5_reduce
I0403 21:38:00.408049 23693 net.cpp:148] Top shape: 24 32 28 28 (602112)
I0403 21:38:00.408063 23693 net.cpp:156] Memory required for data: 729760800
I0403 21:38:00.408078 23693 layer_factory.hpp:77] Creating layer inception_3b/5x5
I0403 21:38:00.408102 23693 net.cpp:91] Creating Layer inception_3b/5x5
I0403 21:38:00.408120 23693 net.cpp:425] inception_3b/5x5 <- inception_3b/5x5_reduce
I0403 21:38:00.408141 23693 net.cpp:399] inception_3b/5x5 -> inception_3b/5x5
I0403 21:38:00.410071 23693 net.cpp:141] Setting up inception_3b/5x5
I0403 21:38:00.410102 23693 net.cpp:148] Top shape: 24 96 28 28 (1806336)
I0403 21:38:00.410120 23693 net.cpp:156] Memory required for data: 736986144
I0403 21:38:00.410140 23693 layer_factory.hpp:77] Creating layer inception_3b/relu_5x5
I0403 21:38:00.410157 23693 net.cpp:91] Creating Layer inception_3b/relu_5x5
I0403 21:38:00.410173 23693 net.cpp:425] inception_3b/relu_5x5 <- inception_3b/5x5
I0403 21:38:00.410190 23693 net.cpp:386] inception_3b/relu_5x5 -> inception_3b/5x5 (in-place)
I0403 21:38:00.410383 23693 net.cpp:141] Setting up inception_3b/relu_5x5
I0403 21:38:00.410409 23693 net.cpp:148] Top shape: 24 96 28 28 (1806336)
I0403 21:38:00.410425 23693 net.cpp:156] Memory required for data: 744211488
I0403 21:38:00.410440 23693 layer_factory.hpp:77] Creating layer inception_3b/pool
I0403 21:38:00.410459 23693 net.cpp:91] Creating Layer inception_3b/pool
I0403 21:38:00.410475 23693 net.cpp:425] inception_3b/pool <- inception_3a/output_inception_3a/output_0_split_3
I0403 21:38:00.410492 23693 net.cpp:399] inception_3b/pool -> inception_3b/pool
I0403 21:38:00.410545 23693 net.cpp:141] Setting up inception_3b/pool
I0403 21:38:00.410573 23693 net.cpp:148] Top shape: 24 256 28 28 (4816896)
I0403 21:38:00.410589 23693 net.cpp:156] Memory required for data: 763479072
I0403 21:38:00.410604 23693 layer_factory.hpp:77] Creating layer inception_3b/pool_proj
I0403 21:38:00.410624 23693 net.cpp:91] Creating Layer inception_3b/pool_proj
I0403 21:38:00.410641 23693 net.cpp:425] inception_3b/pool_proj <- inception_3b/pool
I0403 21:38:00.410661 23693 net.cpp:399] inception_3b/pool_proj -> inception_3b/pool_proj
I0403 21:38:00.411674 23693 net.cpp:141] Setting up inception_3b/pool_proj
I0403 21:38:00.411700 23693 net.cpp:148] Top shape: 24 64 28 28 (1204224)
I0403 21:38:00.411715 23693 net.cpp:156] Memory required for data: 768295968
I0403 21:38:00.411734 23693 layer_factory.hpp:77] Creating layer inception_3b/relu_pool_proj
I0403 21:38:00.411754 23693 net.cpp:91] Creating Layer inception_3b/relu_pool_proj
I0403 21:38:00.411772 23693 net.cpp:425] inception_3b/relu_pool_proj <- inception_3b/pool_proj
I0403 21:38:00.411789 23693 net.cpp:386] inception_3b/relu_pool_proj -> inception_3b/pool_proj (in-place)
I0403 21:38:00.412173 23693 net.cpp:141] Setting up inception_3b/relu_pool_proj
I0403 21:38:00.412199 23693 net.cpp:148] Top shape: 24 64 28 28 (1204224)
I0403 21:38:00.412215 23693 net.cpp:156] Memory required for data: 773112864
I0403 21:38:00.412235 23693 layer_factory.hpp:77] Creating layer inception_3b/output
I0403 21:38:00.412255 23693 net.cpp:91] Creating Layer inception_3b/output
I0403 21:38:00.412271 23693 net.cpp:425] inception_3b/output <- inception_3b/1x1
I0403 21:38:00.412288 23693 net.cpp:425] inception_3b/output <- inception_3b/3x3
I0403 21:38:00.412305 23693 net.cpp:425] inception_3b/output <- inception_3b/5x5
I0403 21:38:00.412322 23693 net.cpp:425] inception_3b/output <- inception_3b/pool_proj
I0403 21:38:00.412343 23693 net.cpp:399] inception_3b/output -> inception_3b/output
I0403 21:38:00.412386 23693 net.cpp:141] Setting up inception_3b/output
I0403 21:38:00.412412 23693 net.cpp:148] Top shape: 24 480 28 28 (9031680)
I0403 21:38:00.412427 23693 net.cpp:156] Memory required for data: 809239584
I0403 21:38:00.412443 23693 layer_factory.hpp:77] Creating layer pool3/3x3_s2
I0403 21:38:00.412461 23693 net.cpp:91] Creating Layer pool3/3x3_s2
I0403 21:38:00.412477 23693 net.cpp:425] pool3/3x3_s2 <- inception_3b/output
I0403 21:38:00.412513 23693 net.cpp:399] pool3/3x3_s2 -> pool3/3x3_s2
I0403 21:38:00.412569 23693 net.cpp:141] Setting up pool3/3x3_s2
I0403 21:38:00.412593 23693 net.cpp:148] Top shape: 24 480 14 14 (2257920)
I0403 21:38:00.412609 23693 net.cpp:156] Memory required for data: 818271264
I0403 21:38:00.412624 23693 layer_factory.hpp:77] Creating layer pool3/3x3_s2_pool3/3x3_s2_0_split
I0403 21:38:00.412643 23693 net.cpp:91] Creating Layer pool3/3x3_s2_pool3/3x3_s2_0_split
I0403 21:38:00.412659 23693 net.cpp:425] pool3/3x3_s2_pool3/3x3_s2_0_split <- pool3/3x3_s2
I0403 21:38:00.412678 23693 net.cpp:399] pool3/3x3_s2_pool3/3x3_s2_0_split -> pool3/3x3_s2_pool3/3x3_s2_0_split_0
I0403 21:38:00.412696 23693 net.cpp:399] pool3/3x3_s2_pool3/3x3_s2_0_split -> pool3/3x3_s2_pool3/3x3_s2_0_split_1
I0403 21:38:00.412719 23693 net.cpp:399] pool3/3x3_s2_pool3/3x3_s2_0_split -> pool3/3x3_s2_pool3/3x3_s2_0_split_2
I0403 21:38:00.412739 23693 net.cpp:399] pool3/3x3_s2_pool3/3x3_s2_0_split -> pool3/3x3_s2_pool3/3x3_s2_0_split_3
I0403 21:38:00.412813 23693 net.cpp:141] Setting up pool3/3x3_s2_pool3/3x3_s2_0_split
I0403 21:38:00.412837 23693 net.cpp:148] Top shape: 24 480 14 14 (2257920)
I0403 21:38:00.412853 23693 net.cpp:148] Top shape: 24 480 14 14 (2257920)
I0403 21:38:00.412868 23693 net.cpp:148] Top shape: 24 480 14 14 (2257920)
I0403 21:38:00.412884 23693 net.cpp:148] Top shape: 24 480 14 14 (2257920)
I0403 21:38:00.412899 23693 net.cpp:156] Memory required for data: 854397984
I0403 21:38:00.412914 23693 layer_factory.hpp:77] Creating layer inception_4a/1x1
I0403 21:38:00.412938 23693 net.cpp:91] Creating Layer inception_4a/1x1
I0403 21:38:00.412957 23693 net.cpp:425] inception_4a/1x1 <- pool3/3x3_s2_pool3/3x3_s2_0_split_0
I0403 21:38:00.412978 23693 net.cpp:399] inception_4a/1x1 -> inception_4a/1x1
I0403 21:38:00.414573 23693 net.cpp:141] Setting up inception_4a/1x1
I0403 21:38:00.414602 23693 net.cpp:148] Top shape: 24 192 14 14 (903168)
I0403 21:38:00.414619 23693 net.cpp:156] Memory required for data: 858010656
I0403 21:38:00.414639 23693 layer_factory.hpp:77] Creating layer inception_4a/relu_1x1
I0403 21:38:00.414661 23693 net.cpp:91] Creating Layer inception_4a/relu_1x1
I0403 21:38:00.414680 23693 net.cpp:425] inception_4a/relu_1x1 <- inception_4a/1x1
I0403 21:38:00.414697 23693 net.cpp:386] inception_4a/relu_1x1 -> inception_4a/1x1 (in-place)
I0403 21:38:00.414870 23693 net.cpp:141] Setting up inception_4a/relu_1x1
I0403 21:38:00.414901 23693 net.cpp:148] Top shape: 24 192 14 14 (903168)
I0403 21:38:00.414917 23693 net.cpp:156] Memory required for data: 861623328
I0403 21:38:00.414933 23693 layer_factory.hpp:77] Creating layer inception_4a/3x3_reduce
I0403 21:38:00.414957 23693 net.cpp:91] Creating Layer inception_4a/3x3_reduce
I0403 21:38:00.414974 23693 net.cpp:425] inception_4a/3x3_reduce <- pool3/3x3_s2_pool3/3x3_s2_0_split_1
I0403 21:38:00.414994 23693 net.cpp:399] inception_4a/3x3_reduce -> inception_4a/3x3_reduce
I0403 21:38:00.416245 23693 net.cpp:141] Setting up inception_4a/3x3_reduce
I0403 21:38:00.416275 23693 net.cpp:148] Top shape: 24 96 14 14 (451584)
I0403 21:38:00.416291 23693 net.cpp:156] Memory required for data: 863429664
I0403 21:38:00.416316 23693 layer_factory.hpp:77] Creating layer inception_4a/relu_3x3_reduce
I0403 21:38:00.416339 23693 net.cpp:91] Creating Layer inception_4a/relu_3x3_reduce
I0403 21:38:00.416357 23693 net.cpp:425] inception_4a/relu_3x3_reduce <- inception_4a/3x3_reduce
I0403 21:38:00.416376 23693 net.cpp:386] inception_4a/relu_3x3_reduce -> inception_4a/3x3_reduce (in-place)
I0403 21:38:00.416551 23693 net.cpp:141] Setting up inception_4a/relu_3x3_reduce
I0403 21:38:00.416577 23693 net.cpp:148] Top shape: 24 96 14 14 (451584)
I0403 21:38:00.416592 23693 net.cpp:156] Memory required for data: 865236000
I0403 21:38:00.416607 23693 layer_factory.hpp:77] Creating layer inception_4a/3x3
I0403 21:38:00.416632 23693 net.cpp:91] Creating Layer inception_4a/3x3
I0403 21:38:00.416651 23693 net.cpp:425] inception_4a/3x3 <- inception_4a/3x3_reduce
I0403 21:38:00.416669 23693 net.cpp:399] inception_4a/3x3 -> inception_4a/3x3
I0403 21:38:00.419468 23693 net.cpp:141] Setting up inception_4a/3x3
I0403 21:38:00.419499 23693 net.cpp:148] Top shape: 24 208 14 14 (978432)
I0403 21:38:00.419517 23693 net.cpp:156] Memory required for data: 869149728
I0403 21:38:00.419538 23693 layer_factory.hpp:77] Creating layer inception_4a/relu_3x3
I0403 21:38:00.419556 23693 net.cpp:91] Creating Layer inception_4a/relu_3x3
I0403 21:38:00.419574 23693 net.cpp:425] inception_4a/relu_3x3 <- inception_4a/3x3
I0403 21:38:00.419592 23693 net.cpp:386] inception_4a/relu_3x3 -> inception_4a/3x3 (in-place)
I0403 21:38:00.419870 23693 net.cpp:141] Setting up inception_4a/relu_3x3
I0403 21:38:00.419898 23693 net.cpp:148] Top shape: 24 208 14 14 (978432)
I0403 21:38:00.419916 23693 net.cpp:156] Memory required for data: 873063456
I0403 21:38:00.419931 23693 layer_factory.hpp:77] Creating layer inception_4a/5x5_reduce
I0403 21:38:00.419955 23693 net.cpp:91] Creating Layer inception_4a/5x5_reduce
I0403 21:38:00.419973 23693 net.cpp:425] inception_4a/5x5_reduce <- pool3/3x3_s2_pool3/3x3_s2_0_split_2
I0403 21:38:00.419994 23693 net.cpp:399] inception_4a/5x5_reduce -> inception_4a/5x5_reduce
I0403 21:38:00.421015 23693 net.cpp:141] Setting up inception_4a/5x5_reduce
I0403 21:38:00.421046 23693 net.cpp:148] Top shape: 24 16 14 14 (75264)
I0403 21:38:00.421063 23693 net.cpp:156] Memory required for data: 873364512
I0403 21:38:00.421083 23693 layer_factory.hpp:77] Creating layer inception_4a/relu_5x5_reduce
I0403 21:38:00.421103 23693 net.cpp:91] Creating Layer inception_4a/relu_5x5_reduce
I0403 21:38:00.421119 23693 net.cpp:425] inception_4a/relu_5x5_reduce <- inception_4a/5x5_reduce
I0403 21:38:00.421139 23693 net.cpp:386] inception_4a/relu_5x5_reduce -> inception_4a/5x5_reduce (in-place)
I0403 21:38:00.421325 23693 net.cpp:141] Setting up inception_4a/relu_5x5_reduce
I0403 21:38:00.421351 23693 net.cpp:148] Top shape: 24 16 14 14 (75264)
I0403 21:38:00.421367 23693 net.cpp:156] Memory required for data: 873665568
I0403 21:38:00.421382 23693 layer_factory.hpp:77] Creating layer inception_4a/5x5
I0403 21:38:00.421406 23693 net.cpp:91] Creating Layer inception_4a/5x5
I0403 21:38:00.421423 23693 net.cpp:425] inception_4a/5x5 <- inception_4a/5x5_reduce
I0403 21:38:00.421444 23693 net.cpp:399] inception_4a/5x5 -> inception_4a/5x5
I0403 21:38:00.422515 23693 net.cpp:141] Setting up inception_4a/5x5
I0403 21:38:00.422544 23693 net.cpp:148] Top shape: 24 48 14 14 (225792)
I0403 21:38:00.422559 23693 net.cpp:156] Memory required for data: 874568736
I0403 21:38:00.422579 23693 layer_factory.hpp:77] Creating layer inception_4a/relu_5x5
I0403 21:38:00.422596 23693 net.cpp:91] Creating Layer inception_4a/relu_5x5
I0403 21:38:00.422612 23693 net.cpp:425] inception_4a/relu_5x5 <- inception_4a/5x5
I0403 21:38:00.422632 23693 net.cpp:386] inception_4a/relu_5x5 -> inception_4a/5x5 (in-place)
I0403 21:38:00.422811 23693 net.cpp:141] Setting up inception_4a/relu_5x5
I0403 21:38:00.422837 23693 net.cpp:148] Top shape: 24 48 14 14 (225792)
I0403 21:38:00.422853 23693 net.cpp:156] Memory required for data: 875471904
I0403 21:38:00.422869 23693 layer_factory.hpp:77] Creating layer inception_4a/pool
I0403 21:38:00.422888 23693 net.cpp:91] Creating Layer inception_4a/pool
I0403 21:38:00.422905 23693 net.cpp:425] inception_4a/pool <- pool3/3x3_s2_pool3/3x3_s2_0_split_3
I0403 21:38:00.422924 23693 net.cpp:399] inception_4a/pool -> inception_4a/pool
I0403 21:38:00.422987 23693 net.cpp:141] Setting up inception_4a/pool
I0403 21:38:00.423010 23693 net.cpp:148] Top shape: 24 480 14 14 (2257920)
I0403 21:38:00.423027 23693 net.cpp:156] Memory required for data: 884503584
I0403 21:38:00.423041 23693 layer_factory.hpp:77] Creating layer inception_4a/pool_proj
I0403 21:38:00.423063 23693 net.cpp:91] Creating Layer inception_4a/pool_proj
I0403 21:38:00.423081 23693 net.cpp:425] inception_4a/pool_proj <- inception_4a/pool
I0403 21:38:00.423102 23693 net.cpp:399] inception_4a/pool_proj -> inception_4a/pool_proj
I0403 21:38:00.424262 23693 net.cpp:141] Setting up inception_4a/pool_proj
I0403 21:38:00.424290 23693 net.cpp:148] Top shape: 24 64 14 14 (301056)
I0403 21:38:00.424322 23693 net.cpp:156] Memory required for data: 885707808
I0403 21:38:00.424342 23693 layer_factory.hpp:77] Creating layer inception_4a/relu_pool_proj
I0403 21:38:00.424363 23693 net.cpp:91] Creating Layer inception_4a/relu_pool_proj
I0403 21:38:00.424381 23693 net.cpp:425] inception_4a/relu_pool_proj <- inception_4a/pool_proj
I0403 21:38:00.424399 23693 net.cpp:386] inception_4a/relu_pool_proj -> inception_4a/pool_proj (in-place)
I0403 21:38:00.424676 23693 net.cpp:141] Setting up inception_4a/relu_pool_proj
I0403 21:38:00.424702 23693 net.cpp:148] Top shape: 24 64 14 14 (301056)
I0403 21:38:00.424718 23693 net.cpp:156] Memory required for data: 886912032
I0403 21:38:00.424733 23693 layer_factory.hpp:77] Creating layer inception_4a/output
I0403 21:38:00.424751 23693 net.cpp:91] Creating Layer inception_4a/output
I0403 21:38:00.424767 23693 net.cpp:425] inception_4a/output <- inception_4a/1x1
I0403 21:38:00.424792 23693 net.cpp:425] inception_4a/output <- inception_4a/3x3
I0403 21:38:00.424810 23693 net.cpp:425] inception_4a/output <- inception_4a/5x5
I0403 21:38:00.424828 23693 net.cpp:425] inception_4a/output <- inception_4a/pool_proj
I0403 21:38:00.424844 23693 net.cpp:399] inception_4a/output -> inception_4a/output
I0403 21:38:00.424890 23693 net.cpp:141] Setting up inception_4a/output
I0403 21:38:00.424913 23693 net.cpp:148] Top shape: 24 512 14 14 (2408448)
I0403 21:38:00.424929 23693 net.cpp:156] Memory required for data: 896545824
I0403 21:38:00.424945 23693 layer_factory.hpp:77] Creating layer inception_4a/output_inception_4a/output_0_split
I0403 21:38:00.424963 23693 net.cpp:91] Creating Layer inception_4a/output_inception_4a/output_0_split
I0403 21:38:00.424979 23693 net.cpp:425] inception_4a/output_inception_4a/output_0_split <- inception_4a/output
I0403 21:38:00.425000 23693 net.cpp:399] inception_4a/output_inception_4a/output_0_split -> inception_4a/output_inception_4a/output_0_split_0
I0403 21:38:00.425024 23693 net.cpp:399] inception_4a/output_inception_4a/output_0_split -> inception_4a/output_inception_4a/output_0_split_1
I0403 21:38:00.425045 23693 net.cpp:399] inception_4a/output_inception_4a/output_0_split -> inception_4a/output_inception_4a/output_0_split_2
I0403 21:38:00.425068 23693 net.cpp:399] inception_4a/output_inception_4a/output_0_split -> inception_4a/output_inception_4a/output_0_split_3
I0403 21:38:00.425089 23693 net.cpp:399] inception_4a/output_inception_4a/output_0_split -> inception_4a/output_inception_4a/output_0_split_4
I0403 21:38:00.425184 23693 net.cpp:141] Setting up inception_4a/output_inception_4a/output_0_split
I0403 21:38:00.425209 23693 net.cpp:148] Top shape: 24 512 14 14 (2408448)
I0403 21:38:00.425226 23693 net.cpp:148] Top shape: 24 512 14 14 (2408448)
I0403 21:38:00.425248 23693 net.cpp:148] Top shape: 24 512 14 14 (2408448)
I0403 21:38:00.425266 23693 net.cpp:148] Top shape: 24 512 14 14 (2408448)
I0403 21:38:00.425282 23693 net.cpp:148] Top shape: 24 512 14 14 (2408448)
I0403 21:38:00.425295 23693 net.cpp:156] Memory required for data: 944714784
I0403 21:38:00.425310 23693 layer_factory.hpp:77] Creating layer loss1/ave_pool
I0403 21:38:00.425328 23693 net.cpp:91] Creating Layer loss1/ave_pool
I0403 21:38:00.425345 23693 net.cpp:425] loss1/ave_pool <- inception_4a/output_inception_4a/output_0_split_0
I0403 21:38:00.425365 23693 net.cpp:399] loss1/ave_pool -> loss1/ave_pool
I0403 21:38:00.425567 23693 net.cpp:141] Setting up loss1/ave_pool
I0403 21:38:00.425595 23693 net.cpp:148] Top shape: 24 512 4 4 (196608)
I0403 21:38:00.425609 23693 net.cpp:156] Memory required for data: 945501216
I0403 21:38:00.425624 23693 layer_factory.hpp:77] Creating layer loss1/conv
I0403 21:38:00.425647 23693 net.cpp:91] Creating Layer loss1/conv
I0403 21:38:00.425664 23693 net.cpp:425] loss1/conv <- loss1/ave_pool
I0403 21:38:00.425686 23693 net.cpp:399] loss1/conv -> loss1/conv
I0403 21:38:00.427072 23693 net.cpp:141] Setting up loss1/conv
I0403 21:38:00.427103 23693 net.cpp:148] Top shape: 24 128 4 4 (49152)
I0403 21:38:00.427134 23693 net.cpp:156] Memory required for data: 945697824
I0403 21:38:00.427153 23693 layer_factory.hpp:77] Creating layer loss1/relu_conv
I0403 21:38:00.427171 23693 net.cpp:91] Creating Layer loss1/relu_conv
I0403 21:38:00.427189 23693 net.cpp:425] loss1/relu_conv <- loss1/conv
I0403 21:38:00.427207 23693 net.cpp:386] loss1/relu_conv -> loss1/conv (in-place)
I0403 21:38:00.427489 23693 net.cpp:141] Setting up loss1/relu_conv
I0403 21:38:00.427518 23693 net.cpp:148] Top shape: 24 128 4 4 (49152)
I0403 21:38:00.427534 23693 net.cpp:156] Memory required for data: 945894432
I0403 21:38:00.427551 23693 layer_factory.hpp:77] Creating layer loss1/fc
I0403 21:38:00.427574 23693 net.cpp:91] Creating Layer loss1/fc
I0403 21:38:00.427593 23693 net.cpp:425] loss1/fc <- loss1/conv
I0403 21:38:00.427614 23693 net.cpp:399] loss1/fc -> loss1/fc
I0403 21:38:00.445096 23693 net.cpp:141] Setting up loss1/fc
I0403 21:38:00.445132 23693 net.cpp:148] Top shape: 24 1024 (24576)
I0403 21:38:00.445147 23693 net.cpp:156] Memory required for data: 945992736
I0403 21:38:00.445165 23693 layer_factory.hpp:77] Creating layer loss1/relu_fc
I0403 21:38:00.445186 23693 net.cpp:91] Creating Layer loss1/relu_fc
I0403 21:38:00.445204 23693 net.cpp:425] loss1/relu_fc <- loss1/fc
I0403 21:38:00.445222 23693 net.cpp:386] loss1/relu_fc -> loss1/fc (in-place)
I0403 21:38:00.445407 23693 net.cpp:141] Setting up loss1/relu_fc
I0403 21:38:00.445435 23693 net.cpp:148] Top shape: 24 1024 (24576)
I0403 21:38:00.445449 23693 net.cpp:156] Memory required for data: 946091040
I0403 21:38:00.445466 23693 layer_factory.hpp:77] Creating layer loss1/drop_fc
I0403 21:38:00.445492 23693 net.cpp:91] Creating Layer loss1/drop_fc
I0403 21:38:00.445508 23693 net.cpp:425] loss1/drop_fc <- loss1/fc
I0403 21:38:00.445526 23693 net.cpp:386] loss1/drop_fc -> loss1/fc (in-place)
I0403 21:38:00.445577 23693 net.cpp:141] Setting up loss1/drop_fc
I0403 21:38:00.445601 23693 net.cpp:148] Top shape: 24 1024 (24576)
I0403 21:38:00.445616 23693 net.cpp:156] Memory required for data: 946189344
I0403 21:38:00.445632 23693 layer_factory.hpp:77] Creating layer loss1/classifier_plantvillage
I0403 21:38:00.445655 23693 net.cpp:91] Creating Layer loss1/classifier_plantvillage
I0403 21:38:00.445672 23693 net.cpp:425] loss1/classifier_plantvillage <- loss1/fc
I0403 21:38:00.445690 23693 net.cpp:399] loss1/classifier_plantvillage -> loss1/classifier_plantvillage
I0403 21:38:00.446593 23693 net.cpp:141] Setting up loss1/classifier_plantvillage
I0403 21:38:00.446622 23693 net.cpp:148] Top shape: 24 38 (912)
I0403 21:38:00.446640 23693 net.cpp:156] Memory required for data: 946192992
I0403 21:38:00.446657 23693 layer_factory.hpp:77] Creating layer loss1/classifier_plantvillage_loss1/classifier_plantvillage_0_split
I0403 21:38:00.446676 23693 net.cpp:91] Creating Layer loss1/classifier_plantvillage_loss1/classifier_plantvillage_0_split
I0403 21:38:00.446692 23693 net.cpp:425] loss1/classifier_plantvillage_loss1/classifier_plantvillage_0_split <- loss1/classifier_plantvillage
I0403 21:38:00.446710 23693 net.cpp:399] loss1/classifier_plantvillage_loss1/classifier_plantvillage_0_split -> loss1/classifier_plantvillage_loss1/classifier_plantvillage_0_split_0
I0403 21:38:00.446730 23693 net.cpp:399] loss1/classifier_plantvillage_loss1/classifier_plantvillage_0_split -> loss1/classifier_plantvillage_loss1/classifier_plantvillage_0_split_1
I0403 21:38:00.446751 23693 net.cpp:399] loss1/classifier_plantvillage_loss1/classifier_plantvillage_0_split -> loss1/classifier_plantvillage_loss1/classifier_plantvillage_0_split_2
I0403 21:38:00.446816 23693 net.cpp:141] Setting up loss1/classifier_plantvillage_loss1/classifier_plantvillage_0_split
I0403 21:38:00.446841 23693 net.cpp:148] Top shape: 24 38 (912)
I0403 21:38:00.446856 23693 net.cpp:148] Top shape: 24 38 (912)
I0403 21:38:00.446872 23693 net.cpp:148] Top shape: 24 38 (912)
I0403 21:38:00.446887 23693 net.cpp:156] Memory required for data: 946203936
I0403 21:38:00.446902 23693 layer_factory.hpp:77] Creating layer inception_4b/1x1
I0403 21:38:00.446923 23693 net.cpp:91] Creating Layer inception_4b/1x1
I0403 21:38:00.446955 23693 net.cpp:425] inception_4b/1x1 <- inception_4a/output_inception_4a/output_0_split_1
I0403 21:38:00.446981 23693 net.cpp:399] inception_4b/1x1 -> inception_4b/1x1
I0403 21:38:00.448597 23693 net.cpp:141] Setting up inception_4b/1x1
I0403 21:38:00.448628 23693 net.cpp:148] Top shape: 24 160 14 14 (752640)
I0403 21:38:00.448647 23693 net.cpp:156] Memory required for data: 949214496
I0403 21:38:00.448665 23693 layer_factory.hpp:77] Creating layer inception_4b/relu_1x1
I0403 21:38:00.448683 23693 net.cpp:91] Creating Layer inception_4b/relu_1x1
I0403 21:38:00.448700 23693 net.cpp:425] inception_4b/relu_1x1 <- inception_4b/1x1
I0403 21:38:00.448719 23693 net.cpp:386] inception_4b/relu_1x1 -> inception_4b/1x1 (in-place)
I0403 21:38:00.448894 23693 net.cpp:141] Setting up inception_4b/relu_1x1
I0403 21:38:00.448918 23693 net.cpp:148] Top shape: 24 160 14 14 (752640)
I0403 21:38:00.448933 23693 net.cpp:156] Memory required for data: 952225056
I0403 21:38:00.448948 23693 layer_factory.hpp:77] Creating layer inception_4b/3x3_reduce
I0403 21:38:00.448971 23693 net.cpp:91] Creating Layer inception_4b/3x3_reduce
I0403 21:38:00.448989 23693 net.cpp:425] inception_4b/3x3_reduce <- inception_4a/output_inception_4a/output_0_split_2
I0403 21:38:00.449012 23693 net.cpp:399] inception_4b/3x3_reduce -> inception_4b/3x3_reduce
I0403 21:38:00.450330 23693 net.cpp:141] Setting up inception_4b/3x3_reduce
I0403 21:38:00.450358 23693 net.cpp:148] Top shape: 24 112 14 14 (526848)
I0403 21:38:00.450374 23693 net.cpp:156] Memory required for data: 954332448
I0403 21:38:00.450393 23693 layer_factory.hpp:77] Creating layer inception_4b/relu_3x3_reduce
I0403 21:38:00.450410 23693 net.cpp:91] Creating Layer inception_4b/relu_3x3_reduce
I0403 21:38:00.450431 23693 net.cpp:425] inception_4b/relu_3x3_reduce <- inception_4b/3x3_reduce
I0403 21:38:00.450448 23693 net.cpp:386] inception_4b/relu_3x3_reduce -> inception_4b/3x3_reduce (in-place)
I0403 21:38:00.450724 23693 net.cpp:141] Setting up inception_4b/relu_3x3_reduce
I0403 21:38:00.450750 23693 net.cpp:148] Top shape: 24 112 14 14 (526848)
I0403 21:38:00.450767 23693 net.cpp:156] Memory required for data: 956439840
I0403 21:38:00.450780 23693 layer_factory.hpp:77] Creating layer inception_4b/3x3
I0403 21:38:00.450803 23693 net.cpp:91] Creating Layer inception_4b/3x3
I0403 21:38:00.450821 23693 net.cpp:425] inception_4b/3x3 <- inception_4b/3x3_reduce
I0403 21:38:00.450842 23693 net.cpp:399] inception_4b/3x3 -> inception_4b/3x3
I0403 21:38:00.453752 23693 net.cpp:141] Setting up inception_4b/3x3
I0403 21:38:00.453781 23693 net.cpp:148] Top shape: 24 224 14 14 (1053696)
I0403 21:38:00.453797 23693 net.cpp:156] Memory required for data: 960654624
I0403 21:38:00.453815 23693 layer_factory.hpp:77] Creating layer inception_4b/relu_3x3
I0403 21:38:00.453836 23693 net.cpp:91] Creating Layer inception_4b/relu_3x3
I0403 21:38:00.453855 23693 net.cpp:425] inception_4b/relu_3x3 <- inception_4b/3x3
I0403 21:38:00.453872 23693 net.cpp:386] inception_4b/relu_3x3 -> inception_4b/3x3 (in-place)
I0403 21:38:00.454046 23693 net.cpp:141] Setting up inception_4b/relu_3x3
I0403 21:38:00.454072 23693 net.cpp:148] Top shape: 24 224 14 14 (1053696)
I0403 21:38:00.454088 23693 net.cpp:156] Memory required for data: 964869408
I0403 21:38:00.454104 23693 layer_factory.hpp:77] Creating layer inception_4b/5x5_reduce
I0403 21:38:00.454126 23693 net.cpp:91] Creating Layer inception_4b/5x5_reduce
I0403 21:38:00.454144 23693 net.cpp:425] inception_4b/5x5_reduce <- inception_4a/output_inception_4a/output_0_split_3
I0403 21:38:00.454164 23693 net.cpp:399] inception_4b/5x5_reduce -> inception_4b/5x5_reduce
I0403 21:38:00.455215 23693 net.cpp:141] Setting up inception_4b/5x5_reduce
I0403 21:38:00.455248 23693 net.cpp:148] Top shape: 24 24 14 14 (112896)
I0403 21:38:00.455266 23693 net.cpp:156] Memory required for data: 965320992
I0403 21:38:00.455286 23693 layer_factory.hpp:77] Creating layer inception_4b/relu_5x5_reduce
I0403 21:38:00.455303 23693 net.cpp:91] Creating Layer inception_4b/relu_5x5_reduce
I0403 21:38:00.455334 23693 net.cpp:425] inception_4b/relu_5x5_reduce <- inception_4b/5x5_reduce
I0403 21:38:00.455356 23693 net.cpp:386] inception_4b/relu_5x5_reduce -> inception_4b/5x5_reduce (in-place)
I0403 21:38:00.455543 23693 net.cpp:141] Setting up inception_4b/relu_5x5_reduce
I0403 21:38:00.455569 23693 net.cpp:148] Top shape: 24 24 14 14 (112896)
I0403 21:38:00.455584 23693 net.cpp:156] Memory required for data: 965772576
I0403 21:38:00.455598 23693 layer_factory.hpp:77] Creating layer inception_4b/5x5
I0403 21:38:00.455621 23693 net.cpp:91] Creating Layer inception_4b/5x5
I0403 21:38:00.455639 23693 net.cpp:425] inception_4b/5x5 <- inception_4b/5x5_reduce
I0403 21:38:00.455660 23693 net.cpp:399] inception_4b/5x5 -> inception_4b/5x5
I0403 21:38:00.456879 23693 net.cpp:141] Setting up inception_4b/5x5
I0403 21:38:00.456909 23693 net.cpp:148] Top shape: 24 64 14 14 (301056)
I0403 21:38:00.456926 23693 net.cpp:156] Memory required for data: 966976800
I0403 21:38:00.456944 23693 layer_factory.hpp:77] Creating layer inception_4b/relu_5x5
I0403 21:38:00.456964 23693 net.cpp:91] Creating Layer inception_4b/relu_5x5
I0403 21:38:00.456980 23693 net.cpp:425] inception_4b/relu_5x5 <- inception_4b/5x5
I0403 21:38:00.456996 23693 net.cpp:386] inception_4b/relu_5x5 -> inception_4b/5x5 (in-place)
I0403 21:38:00.457276 23693 net.cpp:141] Setting up inception_4b/relu_5x5
I0403 21:38:00.457304 23693 net.cpp:148] Top shape: 24 64 14 14 (301056)
I0403 21:38:00.457320 23693 net.cpp:156] Memory required for data: 968181024
I0403 21:38:00.457336 23693 layer_factory.hpp:77] Creating layer inception_4b/pool
I0403 21:38:00.457353 23693 net.cpp:91] Creating Layer inception_4b/pool
I0403 21:38:00.457368 23693 net.cpp:425] inception_4b/pool <- inception_4a/output_inception_4a/output_0_split_4
I0403 21:38:00.457388 23693 net.cpp:399] inception_4b/pool -> inception_4b/pool
I0403 21:38:00.457453 23693 net.cpp:141] Setting up inception_4b/pool
I0403 21:38:00.457476 23693 net.cpp:148] Top shape: 24 512 14 14 (2408448)
I0403 21:38:00.457491 23693 net.cpp:156] Memory required for data: 977814816
I0403 21:38:00.457507 23693 layer_factory.hpp:77] Creating layer inception_4b/pool_proj
I0403 21:38:00.457530 23693 net.cpp:91] Creating Layer inception_4b/pool_proj
I0403 21:38:00.457550 23693 net.cpp:425] inception_4b/pool_proj <- inception_4b/pool
I0403 21:38:00.457568 23693 net.cpp:399] inception_4b/pool_proj -> inception_4b/pool_proj
I0403 21:38:00.458744 23693 net.cpp:141] Setting up inception_4b/pool_proj
I0403 21:38:00.458771 23693 net.cpp:148] Top shape: 24 64 14 14 (301056)
I0403 21:38:00.458788 23693 net.cpp:156] Memory required for data: 979019040
I0403 21:38:00.458807 23693 layer_factory.hpp:77] Creating layer inception_4b/relu_pool_proj
I0403 21:38:00.458824 23693 net.cpp:91] Creating Layer inception_4b/relu_pool_proj
I0403 21:38:00.458840 23693 net.cpp:425] inception_4b/relu_pool_proj <- inception_4b/pool_proj
I0403 21:38:00.458861 23693 net.cpp:386] inception_4b/relu_pool_proj -> inception_4b/pool_proj (in-place)
I0403 21:38:00.459038 23693 net.cpp:141] Setting up inception_4b/relu_pool_proj
I0403 21:38:00.459064 23693 net.cpp:148] Top shape: 24 64 14 14 (301056)
I0403 21:38:00.459079 23693 net.cpp:156] Memory required for data: 980223264
I0403 21:38:00.459092 23693 layer_factory.hpp:77] Creating layer inception_4b/output
I0403 21:38:00.459110 23693 net.cpp:91] Creating Layer inception_4b/output
I0403 21:38:00.459128 23693 net.cpp:425] inception_4b/output <- inception_4b/1x1
I0403 21:38:00.459146 23693 net.cpp:425] inception_4b/output <- inception_4b/3x3
I0403 21:38:00.459163 23693 net.cpp:425] inception_4b/output <- inception_4b/5x5
I0403 21:38:00.459180 23693 net.cpp:425] inception_4b/output <- inception_4b/pool_proj
I0403 21:38:00.459197 23693 net.cpp:399] inception_4b/output -> inception_4b/output
I0403 21:38:00.459244 23693 net.cpp:141] Setting up inception_4b/output
I0403 21:38:00.459273 23693 net.cpp:148] Top shape: 24 512 14 14 (2408448)
I0403 21:38:00.459290 23693 net.cpp:156] Memory required for data: 989857056
I0403 21:38:00.459319 23693 layer_factory.hpp:77] Creating layer inception_4b/output_inception_4b/output_0_split
I0403 21:38:00.459337 23693 net.cpp:91] Creating Layer inception_4b/output_inception_4b/output_0_split
I0403 21:38:00.459353 23693 net.cpp:425] inception_4b/output_inception_4b/output_0_split <- inception_4b/output
I0403 21:38:00.459374 23693 net.cpp:399] inception_4b/output_inception_4b/output_0_split -> inception_4b/output_inception_4b/output_0_split_0
I0403 21:38:00.459396 23693 net.cpp:399] inception_4b/output_inception_4b/output_0_split -> inception_4b/output_inception_4b/output_0_split_1
I0403 21:38:00.459417 23693 net.cpp:399] inception_4b/output_inception_4b/output_0_split -> inception_4b/output_inception_4b/output_0_split_2
I0403 21:38:00.459439 23693 net.cpp:399] inception_4b/output_inception_4b/output_0_split -> inception_4b/output_inception_4b/output_0_split_3
I0403 21:38:00.459522 23693 net.cpp:141] Setting up inception_4b/output_inception_4b/output_0_split
I0403 21:38:00.459547 23693 net.cpp:148] Top shape: 24 512 14 14 (2408448)
I0403 21:38:00.459564 23693 net.cpp:148] Top shape: 24 512 14 14 (2408448)
I0403 21:38:00.459580 23693 net.cpp:148] Top shape: 24 512 14 14 (2408448)
I0403 21:38:00.459595 23693 net.cpp:148] Top shape: 24 512 14 14 (2408448)
I0403 21:38:00.459609 23693 net.cpp:156] Memory required for data: 1028392224
I0403 21:38:00.459625 23693 layer_factory.hpp:77] Creating layer inception_4c/1x1
I0403 21:38:00.459647 23693 net.cpp:91] Creating Layer inception_4c/1x1
I0403 21:38:00.459666 23693 net.cpp:425] inception_4c/1x1 <- inception_4b/output_inception_4b/output_0_split_0
I0403 21:38:00.459684 23693 net.cpp:399] inception_4c/1x1 -> inception_4c/1x1
I0403 21:38:00.461149 23693 net.cpp:141] Setting up inception_4c/1x1
I0403 21:38:00.461179 23693 net.cpp:148] Top shape: 24 128 14 14 (602112)
I0403 21:38:00.461195 23693 net.cpp:156] Memory required for data: 1030800672
I0403 21:38:00.461215 23693 layer_factory.hpp:77] Creating layer inception_4c/relu_1x1
I0403 21:38:00.461238 23693 net.cpp:91] Creating Layer inception_4c/relu_1x1
I0403 21:38:00.461257 23693 net.cpp:425] inception_4c/relu_1x1 <- inception_4c/1x1
I0403 21:38:00.461275 23693 net.cpp:386] inception_4c/relu_1x1 -> inception_4c/1x1 (in-place)
I0403 21:38:00.461459 23693 net.cpp:141] Setting up inception_4c/relu_1x1
I0403 21:38:00.461485 23693 net.cpp:148] Top shape: 24 128 14 14 (602112)
I0403 21:38:00.461500 23693 net.cpp:156] Memory required for data: 1033209120
I0403 21:38:00.461515 23693 layer_factory.hpp:77] Creating layer inception_4c/3x3_reduce
I0403 21:38:00.461540 23693 net.cpp:91] Creating Layer inception_4c/3x3_reduce
I0403 21:38:00.461558 23693 net.cpp:425] inception_4c/3x3_reduce <- inception_4b/output_inception_4b/output_0_split_1
I0403 21:38:00.461578 23693 net.cpp:399] inception_4c/3x3_reduce -> inception_4c/3x3_reduce
I0403 21:38:00.463542 23693 net.cpp:141] Setting up inception_4c/3x3_reduce
I0403 21:38:00.463573 23693 net.cpp:148] Top shape: 24 128 14 14 (602112)
I0403 21:38:00.463593 23693 net.cpp:156] Memory required for data: 1035617568
I0403 21:38:00.463613 23693 layer_factory.hpp:77] Creating layer inception_4c/relu_3x3_reduce
I0403 21:38:00.463632 23693 net.cpp:91] Creating Layer inception_4c/relu_3x3_reduce
I0403 21:38:00.463650 23693 net.cpp:425] inception_4c/relu_3x3_reduce <- inception_4c/3x3_reduce
I0403 21:38:00.463670 23693 net.cpp:386] inception_4c/relu_3x3_reduce -> inception_4c/3x3_reduce (in-place)
I0403 21:38:00.463958 23693 net.cpp:141] Setting up inception_4c/relu_3x3_reduce
I0403 21:38:00.463989 23693 net.cpp:148] Top shape: 24 128 14 14 (602112)
I0403 21:38:00.464004 23693 net.cpp:156] Memory required for data: 1038026016
I0403 21:38:00.464020 23693 layer_factory.hpp:77] Creating layer inception_4c/3x3
I0403 21:38:00.464045 23693 net.cpp:91] Creating Layer inception_4c/3x3
I0403 21:38:00.464062 23693 net.cpp:425] inception_4c/3x3 <- inception_4c/3x3_reduce
I0403 21:38:00.464083 23693 net.cpp:399] inception_4c/3x3 -> inception_4c/3x3
I0403 21:38:00.467700 23693 net.cpp:141] Setting up inception_4c/3x3
I0403 21:38:00.467747 23693 net.cpp:148] Top shape: 24 256 14 14 (1204224)
I0403 21:38:00.467766 23693 net.cpp:156] Memory required for data: 1042842912
I0403 21:38:00.467797 23693 layer_factory.hpp:77] Creating layer inception_4c/relu_3x3
I0403 21:38:00.467820 23693 net.cpp:91] Creating Layer inception_4c/relu_3x3
I0403 21:38:00.467838 23693 net.cpp:425] inception_4c/relu_3x3 <- inception_4c/3x3
I0403 21:38:00.467859 23693 net.cpp:386] inception_4c/relu_3x3 -> inception_4c/3x3 (in-place)
I0403 21:38:00.468050 23693 net.cpp:141] Setting up inception_4c/relu_3x3
I0403 21:38:00.468078 23693 net.cpp:148] Top shape: 24 256 14 14 (1204224)
I0403 21:38:00.468096 23693 net.cpp:156] Memory required for data: 1047659808
I0403 21:38:00.468111 23693 layer_factory.hpp:77] Creating layer inception_4c/5x5_reduce
I0403 21:38:00.468135 23693 net.cpp:91] Creating Layer inception_4c/5x5_reduce
I0403 21:38:00.468154 23693 net.cpp:425] inception_4c/5x5_reduce <- inception_4b/output_inception_4b/output_0_split_2
I0403 21:38:00.468176 23693 net.cpp:399] inception_4c/5x5_reduce -> inception_4c/5x5_reduce
I0403 21:38:00.469275 23693 net.cpp:141] Setting up inception_4c/5x5_reduce
I0403 21:38:00.469306 23693 net.cpp:148] Top shape: 24 24 14 14 (112896)
I0403 21:38:00.469324 23693 net.cpp:156] Memory required for data: 1048111392
I0403 21:38:00.469343 23693 layer_factory.hpp:77] Creating layer inception_4c/relu_5x5_reduce
I0403 21:38:00.469362 23693 net.cpp:91] Creating Layer inception_4c/relu_5x5_reduce
I0403 21:38:00.469380 23693 net.cpp:425] inception_4c/relu_5x5_reduce <- inception_4c/5x5_reduce
I0403 21:38:00.469400 23693 net.cpp:386] inception_4c/relu_5x5_reduce -> inception_4c/5x5_reduce (in-place)
I0403 21:38:00.469584 23693 net.cpp:141] Setting up inception_4c/relu_5x5_reduce
I0403 21:38:00.469610 23693 net.cpp:148] Top shape: 24 24 14 14 (112896)
I0403 21:38:00.469625 23693 net.cpp:156] Memory required for data: 1048562976
I0403 21:38:00.469641 23693 layer_factory.hpp:77] Creating layer inception_4c/5x5
I0403 21:38:00.469663 23693 net.cpp:91] Creating Layer inception_4c/5x5
I0403 21:38:00.469681 23693 net.cpp:425] inception_4c/5x5 <- inception_4c/5x5_reduce
I0403 21:38:00.469703 23693 net.cpp:399] inception_4c/5x5 -> inception_4c/5x5
I0403 21:38:00.470947 23693 net.cpp:141] Setting up inception_4c/5x5
I0403 21:38:00.470975 23693 net.cpp:148] Top shape: 24 64 14 14 (301056)
I0403 21:38:00.470993 23693 net.cpp:156] Memory required for data: 1049767200
I0403 21:38:00.471012 23693 layer_factory.hpp:77] Creating layer inception_4c/relu_5x5
I0403 21:38:00.471036 23693 net.cpp:91] Creating Layer inception_4c/relu_5x5
I0403 21:38:00.471055 23693 net.cpp:425] inception_4c/relu_5x5 <- inception_4c/5x5
I0403 21:38:00.471073 23693 net.cpp:386] inception_4c/relu_5x5 -> inception_4c/5x5 (in-place)
I0403 21:38:00.471361 23693 net.cpp:141] Setting up inception_4c/relu_5x5
I0403 21:38:00.471390 23693 net.cpp:148] Top shape: 24 64 14 14 (301056)
I0403 21:38:00.471406 23693 net.cpp:156] Memory required for data: 1050971424
I0403 21:38:00.471422 23693 layer_factory.hpp:77] Creating layer inception_4c/pool
I0403 21:38:00.471442 23693 net.cpp:91] Creating Layer inception_4c/pool
I0403 21:38:00.471460 23693 net.cpp:425] inception_4c/pool <- inception_4b/output_inception_4b/output_0_split_3
I0403 21:38:00.471479 23693 net.cpp:399] inception_4c/pool -> inception_4c/pool
I0403 21:38:00.471547 23693 net.cpp:141] Setting up inception_4c/pool
I0403 21:38:00.471572 23693 net.cpp:148] Top shape: 24 512 14 14 (2408448)
I0403 21:38:00.471588 23693 net.cpp:156] Memory required for data: 1060605216
I0403 21:38:00.471603 23693 layer_factory.hpp:77] Creating layer inception_4c/pool_proj
I0403 21:38:00.471626 23693 net.cpp:91] Creating Layer inception_4c/pool_proj
I0403 21:38:00.471643 23693 net.cpp:425] inception_4c/pool_proj <- inception_4c/pool
I0403 21:38:00.471665 23693 net.cpp:399] inception_4c/pool_proj -> inception_4c/pool_proj
I0403 21:38:00.472895 23693 net.cpp:141] Setting up inception_4c/pool_proj
I0403 21:38:00.472926 23693 net.cpp:148] Top shape: 24 64 14 14 (301056)
I0403 21:38:00.472959 23693 net.cpp:156] Memory required for data: 1061809440
I0403 21:38:00.472978 23693 layer_factory.hpp:77] Creating layer inception_4c/relu_pool_proj
I0403 21:38:00.472998 23693 net.cpp:91] Creating Layer inception_4c/relu_pool_proj
I0403 21:38:00.473016 23693 net.cpp:425] inception_4c/relu_pool_proj <- inception_4c/pool_proj
I0403 21:38:00.473037 23693 net.cpp:386] inception_4c/relu_pool_proj -> inception_4c/pool_proj (in-place)
I0403 21:38:00.473222 23693 net.cpp:141] Setting up inception_4c/relu_pool_proj
I0403 21:38:00.473251 23693 net.cpp:148] Top shape: 24 64 14 14 (301056)
I0403 21:38:00.473268 23693 net.cpp:156] Memory required for data: 1063013664
I0403 21:38:00.473284 23693 layer_factory.hpp:77] Creating layer inception_4c/output
I0403 21:38:00.473300 23693 net.cpp:91] Creating Layer inception_4c/output
I0403 21:38:00.473317 23693 net.cpp:425] inception_4c/output <- inception_4c/1x1
I0403 21:38:00.473335 23693 net.cpp:425] inception_4c/output <- inception_4c/3x3
I0403 21:38:00.473356 23693 net.cpp:425] inception_4c/output <- inception_4c/5x5
I0403 21:38:00.473372 23693 net.cpp:425] inception_4c/output <- inception_4c/pool_proj
I0403 21:38:00.473390 23693 net.cpp:399] inception_4c/output -> inception_4c/output
I0403 21:38:00.473436 23693 net.cpp:141] Setting up inception_4c/output
I0403 21:38:00.473464 23693 net.cpp:148] Top shape: 24 512 14 14 (2408448)
I0403 21:38:00.473479 23693 net.cpp:156] Memory required for data: 1072647456
I0403 21:38:00.473495 23693 layer_factory.hpp:77] Creating layer inception_4c/output_inception_4c/output_0_split
I0403 21:38:00.473512 23693 net.cpp:91] Creating Layer inception_4c/output_inception_4c/output_0_split
I0403 21:38:00.473528 23693 net.cpp:425] inception_4c/output_inception_4c/output_0_split <- inception_4c/output
I0403 21:38:00.473549 23693 net.cpp:399] inception_4c/output_inception_4c/output_0_split -> inception_4c/output_inception_4c/output_0_split_0
I0403 21:38:00.473572 23693 net.cpp:399] inception_4c/output_inception_4c/output_0_split -> inception_4c/output_inception_4c/output_0_split_1
I0403 21:38:00.473594 23693 net.cpp:399] inception_4c/output_inception_4c/output_0_split -> inception_4c/output_inception_4c/output_0_split_2
I0403 21:38:00.473615 23693 net.cpp:399] inception_4c/output_inception_4c/output_0_split -> inception_4c/output_inception_4c/output_0_split_3
I0403 21:38:00.473704 23693 net.cpp:141] Setting up inception_4c/output_inception_4c/output_0_split
I0403 21:38:00.473731 23693 net.cpp:148] Top shape: 24 512 14 14 (2408448)
I0403 21:38:00.473749 23693 net.cpp:148] Top shape: 24 512 14 14 (2408448)
I0403 21:38:00.473765 23693 net.cpp:148] Top shape: 24 512 14 14 (2408448)
I0403 21:38:00.473781 23693 net.cpp:148] Top shape: 24 512 14 14 (2408448)
I0403 21:38:00.473795 23693 net.cpp:156] Memory required for data: 1111182624
I0403 21:38:00.473810 23693 layer_factory.hpp:77] Creating layer inception_4d/1x1
I0403 21:38:00.473830 23693 net.cpp:91] Creating Layer inception_4d/1x1
I0403 21:38:00.473847 23693 net.cpp:425] inception_4d/1x1 <- inception_4c/output_inception_4c/output_0_split_0
I0403 21:38:00.473872 23693 net.cpp:399] inception_4d/1x1 -> inception_4d/1x1
I0403 21:38:00.475255 23693 net.cpp:141] Setting up inception_4d/1x1
I0403 21:38:00.475283 23693 net.cpp:148] Top shape: 24 112 14 14 (526848)
I0403 21:38:00.475299 23693 net.cpp:156] Memory required for data: 1113290016
I0403 21:38:00.475317 23693 layer_factory.hpp:77] Creating layer inception_4d/relu_1x1
I0403 21:38:00.475340 23693 net.cpp:91] Creating Layer inception_4d/relu_1x1
I0403 21:38:00.475358 23693 net.cpp:425] inception_4d/relu_1x1 <- inception_4d/1x1
I0403 21:38:00.475376 23693 net.cpp:386] inception_4d/relu_1x1 -> inception_4d/1x1 (in-place)
I0403 21:38:00.475561 23693 net.cpp:141] Setting up inception_4d/relu_1x1
I0403 21:38:00.475589 23693 net.cpp:148] Top shape: 24 112 14 14 (526848)
I0403 21:38:00.475606 23693 net.cpp:156] Memory required for data: 1115397408
I0403 21:38:00.475621 23693 layer_factory.hpp:77] Creating layer inception_4d/3x3_reduce
I0403 21:38:00.475658 23693 net.cpp:91] Creating Layer inception_4d/3x3_reduce
I0403 21:38:00.475678 23693 net.cpp:425] inception_4d/3x3_reduce <- inception_4c/output_inception_4c/output_0_split_1
I0403 21:38:00.475699 23693 net.cpp:399] inception_4d/3x3_reduce -> inception_4d/3x3_reduce
I0403 21:38:00.477201 23693 net.cpp:141] Setting up inception_4d/3x3_reduce
I0403 21:38:00.477234 23693 net.cpp:148] Top shape: 24 144 14 14 (677376)
I0403 21:38:00.477252 23693 net.cpp:156] Memory required for data: 1118106912
I0403 21:38:00.477272 23693 layer_factory.hpp:77] Creating layer inception_4d/relu_3x3_reduce
I0403 21:38:00.477293 23693 net.cpp:91] Creating Layer inception_4d/relu_3x3_reduce
I0403 21:38:00.477311 23693 net.cpp:425] inception_4d/relu_3x3_reduce <- inception_4d/3x3_reduce
I0403 21:38:00.477329 23693 net.cpp:386] inception_4d/relu_3x3_reduce -> inception_4d/3x3_reduce (in-place)
I0403 21:38:00.477617 23693 net.cpp:141] Setting up inception_4d/relu_3x3_reduce
I0403 21:38:00.477643 23693 net.cpp:148] Top shape: 24 144 14 14 (677376)
I0403 21:38:00.477659 23693 net.cpp:156] Memory required for data: 1120816416
I0403 21:38:00.477675 23693 layer_factory.hpp:77] Creating layer inception_4d/3x3
I0403 21:38:00.477697 23693 net.cpp:91] Creating Layer inception_4d/3x3
I0403 21:38:00.477716 23693 net.cpp:425] inception_4d/3x3 <- inception_4d/3x3_reduce
I0403 21:38:00.477738 23693 net.cpp:399] inception_4d/3x3 -> inception_4d/3x3
I0403 21:38:00.481972 23693 net.cpp:141] Setting up inception_4d/3x3
I0403 21:38:00.482002 23693 net.cpp:148] Top shape: 24 288 14 14 (1354752)
I0403 21:38:00.482017 23693 net.cpp:156] Memory required for data: 1126235424
I0403 21:38:00.482036 23693 layer_factory.hpp:77] Creating layer inception_4d/relu_3x3
I0403 21:38:00.482056 23693 net.cpp:91] Creating Layer inception_4d/relu_3x3
I0403 21:38:00.482074 23693 net.cpp:425] inception_4d/relu_3x3 <- inception_4d/3x3
I0403 21:38:00.482092 23693 net.cpp:386] inception_4d/relu_3x3 -> inception_4d/3x3 (in-place)
I0403 21:38:00.482277 23693 net.cpp:141] Setting up inception_4d/relu_3x3
I0403 21:38:00.482303 23693 net.cpp:148] Top shape: 24 288 14 14 (1354752)
I0403 21:38:00.482317 23693 net.cpp:156] Memory required for data: 1131654432
I0403 21:38:00.482333 23693 layer_factory.hpp:77] Creating layer inception_4d/5x5_reduce
I0403 21:38:00.482355 23693 net.cpp:91] Creating Layer inception_4d/5x5_reduce
I0403 21:38:00.482372 23693 net.cpp:425] inception_4d/5x5_reduce <- inception_4c/output_inception_4c/output_0_split_2
I0403 21:38:00.482394 23693 net.cpp:399] inception_4d/5x5_reduce -> inception_4d/5x5_reduce
I0403 21:38:00.483501 23693 net.cpp:141] Setting up inception_4d/5x5_reduce
I0403 21:38:00.483531 23693 net.cpp:148] Top shape: 24 32 14 14 (150528)
I0403 21:38:00.483548 23693 net.cpp:156] Memory required for data: 1132256544
I0403 21:38:00.483567 23693 layer_factory.hpp:77] Creating layer inception_4d/relu_5x5_reduce
I0403 21:38:00.483584 23693 net.cpp:91] Creating Layer inception_4d/relu_5x5_reduce
I0403 21:38:00.483600 23693 net.cpp:425] inception_4d/relu_5x5_reduce <- inception_4d/5x5_reduce
I0403 21:38:00.483618 23693 net.cpp:386] inception_4d/relu_5x5_reduce -> inception_4d/5x5_reduce (in-place)
I0403 21:38:00.483803 23693 net.cpp:141] Setting up inception_4d/relu_5x5_reduce
I0403 21:38:00.483829 23693 net.cpp:148] Top shape: 24 32 14 14 (150528)
I0403 21:38:00.483846 23693 net.cpp:156] Memory required for data: 1132858656
I0403 21:38:00.483861 23693 layer_factory.hpp:77] Creating layer inception_4d/5x5
I0403 21:38:00.483882 23693 net.cpp:91] Creating Layer inception_4d/5x5
I0403 21:38:00.483901 23693 net.cpp:425] inception_4d/5x5 <- inception_4d/5x5_reduce
I0403 21:38:00.483919 23693 net.cpp:399] inception_4d/5x5 -> inception_4d/5x5
I0403 21:38:00.485357 23693 net.cpp:141] Setting up inception_4d/5x5
I0403 21:38:00.485384 23693 net.cpp:148] Top shape: 24 64 14 14 (301056)
I0403 21:38:00.485400 23693 net.cpp:156] Memory required for data: 1134062880
I0403 21:38:00.485419 23693 layer_factory.hpp:77] Creating layer inception_4d/relu_5x5
I0403 21:38:00.485450 23693 net.cpp:91] Creating Layer inception_4d/relu_5x5
I0403 21:38:00.485468 23693 net.cpp:425] inception_4d/relu_5x5 <- inception_4d/5x5
I0403 21:38:00.485488 23693 net.cpp:386] inception_4d/relu_5x5 -> inception_4d/5x5 (in-place)
I0403 21:38:00.485785 23693 net.cpp:141] Setting up inception_4d/relu_5x5
I0403 21:38:00.485811 23693 net.cpp:148] Top shape: 24 64 14 14 (301056)
I0403 21:38:00.485827 23693 net.cpp:156] Memory required for data: 1135267104
I0403 21:38:00.485843 23693 layer_factory.hpp:77] Creating layer inception_4d/pool
I0403 21:38:00.485860 23693 net.cpp:91] Creating Layer inception_4d/pool
I0403 21:38:00.485877 23693 net.cpp:425] inception_4d/pool <- inception_4c/output_inception_4c/output_0_split_3
I0403 21:38:00.485898 23693 net.cpp:399] inception_4d/pool -> inception_4d/pool
I0403 21:38:00.485963 23693 net.cpp:141] Setting up inception_4d/pool
I0403 21:38:00.485990 23693 net.cpp:148] Top shape: 24 512 14 14 (2408448)
I0403 21:38:00.486006 23693 net.cpp:156] Memory required for data: 1144900896
I0403 21:38:00.486021 23693 layer_factory.hpp:77] Creating layer inception_4d/pool_proj
I0403 21:38:00.486043 23693 net.cpp:91] Creating Layer inception_4d/pool_proj
I0403 21:38:00.486062 23693 net.cpp:425] inception_4d/pool_proj <- inception_4d/pool
I0403 21:38:00.486081 23693 net.cpp:399] inception_4d/pool_proj -> inception_4d/pool_proj
I0403 21:38:00.487818 23693 net.cpp:141] Setting up inception_4d/pool_proj
I0403 21:38:00.487848 23693 net.cpp:148] Top shape: 24 64 14 14 (301056)
I0403 21:38:00.487864 23693 net.cpp:156] Memory required for data: 1146105120
I0403 21:38:00.487882 23693 layer_factory.hpp:77] Creating layer inception_4d/relu_pool_proj
I0403 21:38:00.487903 23693 net.cpp:91] Creating Layer inception_4d/relu_pool_proj
I0403 21:38:00.487921 23693 net.cpp:425] inception_4d/relu_pool_proj <- inception_4d/pool_proj
I0403 21:38:00.487939 23693 net.cpp:386] inception_4d/relu_pool_proj -> inception_4d/pool_proj (in-place)
I0403 21:38:00.488122 23693 net.cpp:141] Setting up inception_4d/relu_pool_proj
I0403 21:38:00.488148 23693 net.cpp:148] Top shape: 24 64 14 14 (301056)
I0403 21:38:00.488163 23693 net.cpp:156] Memory required for data: 1147309344
I0403 21:38:00.488179 23693 layer_factory.hpp:77] Creating layer inception_4d/output
I0403 21:38:00.488198 23693 net.cpp:91] Creating Layer inception_4d/output
I0403 21:38:00.488214 23693 net.cpp:425] inception_4d/output <- inception_4d/1x1
I0403 21:38:00.488240 23693 net.cpp:425] inception_4d/output <- inception_4d/3x3
I0403 21:38:00.488260 23693 net.cpp:425] inception_4d/output <- inception_4d/5x5
I0403 21:38:00.488276 23693 net.cpp:425] inception_4d/output <- inception_4d/pool_proj
I0403 21:38:00.488296 23693 net.cpp:399] inception_4d/output -> inception_4d/output
I0403 21:38:00.488345 23693 net.cpp:141] Setting up inception_4d/output
I0403 21:38:00.488371 23693 net.cpp:148] Top shape: 24 528 14 14 (2483712)
I0403 21:38:00.488387 23693 net.cpp:156] Memory required for data: 1157244192
I0403 21:38:00.488401 23693 layer_factory.hpp:77] Creating layer inception_4d/output_inception_4d/output_0_split
I0403 21:38:00.488420 23693 net.cpp:91] Creating Layer inception_4d/output_inception_4d/output_0_split
I0403 21:38:00.488435 23693 net.cpp:425] inception_4d/output_inception_4d/output_0_split <- inception_4d/output
I0403 21:38:00.488452 23693 net.cpp:399] inception_4d/output_inception_4d/output_0_split -> inception_4d/output_inception_4d/output_0_split_0
I0403 21:38:00.488473 23693 net.cpp:399] inception_4d/output_inception_4d/output_0_split -> inception_4d/output_inception_4d/output_0_split_1
I0403 21:38:00.488498 23693 net.cpp:399] inception_4d/output_inception_4d/output_0_split -> inception_4d/output_inception_4d/output_0_split_2
I0403 21:38:00.488520 23693 net.cpp:399] inception_4d/output_inception_4d/output_0_split -> inception_4d/output_inception_4d/output_0_split_3
I0403 21:38:00.488543 23693 net.cpp:399] inception_4d/output_inception_4d/output_0_split -> inception_4d/output_inception_4d/output_0_split_4
I0403 21:38:00.488646 23693 net.cpp:141] Setting up inception_4d/output_inception_4d/output_0_split
I0403 21:38:00.488680 23693 net.cpp:148] Top shape: 24 528 14 14 (2483712)
I0403 21:38:00.488698 23693 net.cpp:148] Top shape: 24 528 14 14 (2483712)
I0403 21:38:00.488714 23693 net.cpp:148] Top shape: 24 528 14 14 (2483712)
I0403 21:38:00.488729 23693 net.cpp:148] Top shape: 24 528 14 14 (2483712)
I0403 21:38:00.488744 23693 net.cpp:148] Top shape: 24 528 14 14 (2483712)
I0403 21:38:00.488757 23693 net.cpp:156] Memory required for data: 1206918432
I0403 21:38:00.488772 23693 layer_factory.hpp:77] Creating layer loss2/ave_pool
I0403 21:38:00.488797 23693 net.cpp:91] Creating Layer loss2/ave_pool
I0403 21:38:00.488816 23693 net.cpp:425] loss2/ave_pool <- inception_4d/output_inception_4d/output_0_split_0
I0403 21:38:00.488834 23693 net.cpp:399] loss2/ave_pool -> loss2/ave_pool
I0403 21:38:00.489136 23693 net.cpp:141] Setting up loss2/ave_pool
I0403 21:38:00.489163 23693 net.cpp:148] Top shape: 24 528 4 4 (202752)
I0403 21:38:00.489178 23693 net.cpp:156] Memory required for data: 1207729440
I0403 21:38:00.489194 23693 layer_factory.hpp:77] Creating layer loss2/conv
I0403 21:38:00.489218 23693 net.cpp:91] Creating Layer loss2/conv
I0403 21:38:00.489241 23693 net.cpp:425] loss2/conv <- loss2/ave_pool
I0403 21:38:00.489261 23693 net.cpp:399] loss2/conv -> loss2/conv
I0403 21:38:00.491116 23693 net.cpp:141] Setting up loss2/conv
I0403 21:38:00.491143 23693 net.cpp:148] Top shape: 24 128 4 4 (49152)
I0403 21:38:00.491159 23693 net.cpp:156] Memory required for data: 1207926048
I0403 21:38:00.491178 23693 layer_factory.hpp:77] Creating layer loss2/relu_conv
I0403 21:38:00.491196 23693 net.cpp:91] Creating Layer loss2/relu_conv
I0403 21:38:00.491214 23693 net.cpp:425] loss2/relu_conv <- loss2/conv
I0403 21:38:00.491236 23693 net.cpp:386] loss2/relu_conv -> loss2/conv (in-place)
I0403 21:38:00.491518 23693 net.cpp:141] Setting up loss2/relu_conv
I0403 21:38:00.491544 23693 net.cpp:148] Top shape: 24 128 4 4 (49152)
I0403 21:38:00.491560 23693 net.cpp:156] Memory required for data: 1208122656
I0403 21:38:00.491576 23693 layer_factory.hpp:77] Creating layer loss2/fc
I0403 21:38:00.491595 23693 net.cpp:91] Creating Layer loss2/fc
I0403 21:38:00.491611 23693 net.cpp:425] loss2/fc <- loss2/conv
I0403 21:38:00.491632 23693 net.cpp:399] loss2/fc -> loss2/fc
I0403 21:38:00.508891 23693 net.cpp:141] Setting up loss2/fc
I0403 21:38:00.508924 23693 net.cpp:148] Top shape: 24 1024 (24576)
I0403 21:38:00.508942 23693 net.cpp:156] Memory required for data: 1208220960
I0403 21:38:00.508962 23693 layer_factory.hpp:77] Creating layer loss2/relu_fc
I0403 21:38:00.508981 23693 net.cpp:91] Creating Layer loss2/relu_fc
I0403 21:38:00.508998 23693 net.cpp:425] loss2/relu_fc <- loss2/fc
I0403 21:38:00.509016 23693 net.cpp:386] loss2/relu_fc -> loss2/fc (in-place)
I0403 21:38:00.509312 23693 net.cpp:141] Setting up loss2/relu_fc
I0403 21:38:00.509341 23693 net.cpp:148] Top shape: 24 1024 (24576)
I0403 21:38:00.509358 23693 net.cpp:156] Memory required for data: 1208319264
I0403 21:38:00.509373 23693 layer_factory.hpp:77] Creating layer loss2/drop_fc
I0403 21:38:00.509392 23693 net.cpp:91] Creating Layer loss2/drop_fc
I0403 21:38:00.509407 23693 net.cpp:425] loss2/drop_fc <- loss2/fc
I0403 21:38:00.509425 23693 net.cpp:386] loss2/drop_fc -> loss2/fc (in-place)
I0403 21:38:00.509475 23693 net.cpp:141] Setting up loss2/drop_fc
I0403 21:38:00.509500 23693 net.cpp:148] Top shape: 24 1024 (24576)
I0403 21:38:00.509513 23693 net.cpp:156] Memory required for data: 1208417568
I0403 21:38:00.509528 23693 layer_factory.hpp:77] Creating layer loss2/classifier_plantvillage
I0403 21:38:00.509549 23693 net.cpp:91] Creating Layer loss2/classifier_plantvillage
I0403 21:38:00.509567 23693 net.cpp:425] loss2/classifier_plantvillage <- loss2/fc
I0403 21:38:00.509587 23693 net.cpp:399] loss2/classifier_plantvillage -> loss2/classifier_plantvillage
I0403 21:38:00.509980 23693 net.cpp:141] Setting up loss2/classifier_plantvillage
I0403 21:38:00.510006 23693 net.cpp:148] Top shape: 24 38 (912)
I0403 21:38:00.510037 23693 net.cpp:156] Memory required for data: 1208421216
I0403 21:38:00.510057 23693 layer_factory.hpp:77] Creating layer loss2/classifier_plantvillage_loss2/classifier_plantvillage_0_split
I0403 21:38:00.510076 23693 net.cpp:91] Creating Layer loss2/classifier_plantvillage_loss2/classifier_plantvillage_0_split
I0403 21:38:00.510092 23693 net.cpp:425] loss2/classifier_plantvillage_loss2/classifier_plantvillage_0_split <- loss2/classifier_plantvillage
I0403 21:38:00.510113 23693 net.cpp:399] loss2/classifier_plantvillage_loss2/classifier_plantvillage_0_split -> loss2/classifier_plantvillage_loss2/classifier_plantvillage_0_split_0
I0403 21:38:00.510134 23693 net.cpp:399] loss2/classifier_plantvillage_loss2/classifier_plantvillage_0_split -> loss2/classifier_plantvillage_loss2/classifier_plantvillage_0_split_1
I0403 21:38:00.510154 23693 net.cpp:399] loss2/classifier_plantvillage_loss2/classifier_plantvillage_0_split -> loss2/classifier_plantvillage_loss2/classifier_plantvillage_0_split_2
I0403 21:38:00.510236 23693 net.cpp:141] Setting up loss2/classifier_plantvillage_loss2/classifier_plantvillage_0_split
I0403 21:38:00.510262 23693 net.cpp:148] Top shape: 24 38 (912)
I0403 21:38:00.510278 23693 net.cpp:148] Top shape: 24 38 (912)
I0403 21:38:00.510294 23693 net.cpp:148] Top shape: 24 38 (912)
I0403 21:38:00.510309 23693 net.cpp:156] Memory required for data: 1208432160
I0403 21:38:00.510324 23693 layer_factory.hpp:77] Creating layer inception_4e/1x1
I0403 21:38:00.510346 23693 net.cpp:91] Creating Layer inception_4e/1x1
I0403 21:38:00.510365 23693 net.cpp:425] inception_4e/1x1 <- inception_4d/output_inception_4d/output_0_split_1
I0403 21:38:00.510385 23693 net.cpp:399] inception_4e/1x1 -> inception_4e/1x1
I0403 21:38:00.512157 23693 net.cpp:141] Setting up inception_4e/1x1
I0403 21:38:00.512195 23693 net.cpp:148] Top shape: 24 256 14 14 (1204224)
I0403 21:38:00.512212 23693 net.cpp:156] Memory required for data: 1213249056
I0403 21:38:00.512235 23693 layer_factory.hpp:77] Creating layer inception_4e/relu_1x1
I0403 21:38:00.512258 23693 net.cpp:91] Creating Layer inception_4e/relu_1x1
I0403 21:38:00.512276 23693 net.cpp:425] inception_4e/relu_1x1 <- inception_4e/1x1
I0403 21:38:00.512295 23693 net.cpp:386] inception_4e/relu_1x1 -> inception_4e/1x1 (in-place)
I0403 21:38:00.512594 23693 net.cpp:141] Setting up inception_4e/relu_1x1
I0403 21:38:00.512620 23693 net.cpp:148] Top shape: 24 256 14 14 (1204224)
I0403 21:38:00.512636 23693 net.cpp:156] Memory required for data: 1218065952
I0403 21:38:00.512651 23693 layer_factory.hpp:77] Creating layer inception_4e/3x3_reduce
I0403 21:38:00.512673 23693 net.cpp:91] Creating Layer inception_4e/3x3_reduce
I0403 21:38:00.512692 23693 net.cpp:425] inception_4e/3x3_reduce <- inception_4d/output_inception_4d/output_0_split_2
I0403 21:38:00.512715 23693 net.cpp:399] inception_4e/3x3_reduce -> inception_4e/3x3_reduce
I0403 21:38:00.514878 23693 net.cpp:141] Setting up inception_4e/3x3_reduce
I0403 21:38:00.514909 23693 net.cpp:148] Top shape: 24 160 14 14 (752640)
I0403 21:38:00.514925 23693 net.cpp:156] Memory required for data: 1221076512
I0403 21:38:00.514945 23693 layer_factory.hpp:77] Creating layer inception_4e/relu_3x3_reduce
I0403 21:38:00.514963 23693 net.cpp:91] Creating Layer inception_4e/relu_3x3_reduce
I0403 21:38:00.514982 23693 net.cpp:425] inception_4e/relu_3x3_reduce <- inception_4e/3x3_reduce
I0403 21:38:00.515003 23693 net.cpp:386] inception_4e/relu_3x3_reduce -> inception_4e/3x3_reduce (in-place)
I0403 21:38:00.515187 23693 net.cpp:141] Setting up inception_4e/relu_3x3_reduce
I0403 21:38:00.515213 23693 net.cpp:148] Top shape: 24 160 14 14 (752640)
I0403 21:38:00.515233 23693 net.cpp:156] Memory required for data: 1224087072
I0403 21:38:00.515250 23693 layer_factory.hpp:77] Creating layer inception_4e/3x3
I0403 21:38:00.515274 23693 net.cpp:91] Creating Layer inception_4e/3x3
I0403 21:38:00.515292 23693 net.cpp:425] inception_4e/3x3 <- inception_4e/3x3_reduce
I0403 21:38:00.515314 23693 net.cpp:399] inception_4e/3x3 -> inception_4e/3x3
I0403 21:38:00.520364 23693 net.cpp:141] Setting up inception_4e/3x3
I0403 21:38:00.520406 23693 net.cpp:148] Top shape: 24 320 14 14 (1505280)
I0403 21:38:00.520424 23693 net.cpp:156] Memory required for data: 1230108192
I0403 21:38:00.520444 23693 layer_factory.hpp:77] Creating layer inception_4e/relu_3x3
I0403 21:38:00.520465 23693 net.cpp:91] Creating Layer inception_4e/relu_3x3
I0403 21:38:00.520484 23693 net.cpp:425] inception_4e/relu_3x3 <- inception_4e/3x3
I0403 21:38:00.520503 23693 net.cpp:386] inception_4e/relu_3x3 -> inception_4e/3x3 (in-place)
I0403 21:38:00.520805 23693 net.cpp:141] Setting up inception_4e/relu_3x3
I0403 21:38:00.520833 23693 net.cpp:148] Top shape: 24 320 14 14 (1505280)
I0403 21:38:00.520851 23693 net.cpp:156] Memory required for data: 1236129312
I0403 21:38:00.520867 23693 layer_factory.hpp:77] Creating layer inception_4e/5x5_reduce
I0403 21:38:00.520889 23693 net.cpp:91] Creating Layer inception_4e/5x5_reduce
I0403 21:38:00.520905 23693 net.cpp:425] inception_4e/5x5_reduce <- inception_4d/output_inception_4d/output_0_split_3
I0403 21:38:00.520930 23693 net.cpp:399] inception_4e/5x5_reduce -> inception_4e/5x5_reduce
I0403 21:38:00.522008 23693 net.cpp:141] Setting up inception_4e/5x5_reduce
I0403 21:38:00.522038 23693 net.cpp:148] Top shape: 24 32 14 14 (150528)
I0403 21:38:00.522055 23693 net.cpp:156] Memory required for data: 1236731424
I0403 21:38:00.522075 23693 layer_factory.hpp:77] Creating layer inception_4e/relu_5x5_reduce
I0403 21:38:00.522094 23693 net.cpp:91] Creating Layer inception_4e/relu_5x5_reduce
I0403 21:38:00.522112 23693 net.cpp:425] inception_4e/relu_5x5_reduce <- inception_4e/5x5_reduce
I0403 21:38:00.522132 23693 net.cpp:386] inception_4e/relu_5x5_reduce -> inception_4e/5x5_reduce (in-place)
I0403 21:38:00.522435 23693 net.cpp:141] Setting up inception_4e/relu_5x5_reduce
I0403 21:38:00.522462 23693 net.cpp:148] Top shape: 24 32 14 14 (150528)
I0403 21:38:00.522480 23693 net.cpp:156] Memory required for data: 1237333536
I0403 21:38:00.522495 23693 layer_factory.hpp:77] Creating layer inception_4e/5x5
I0403 21:38:00.522533 23693 net.cpp:91] Creating Layer inception_4e/5x5
I0403 21:38:00.522553 23693 net.cpp:425] inception_4e/5x5 <- inception_4e/5x5_reduce
I0403 21:38:00.522574 23693 net.cpp:399] inception_4e/5x5 -> inception_4e/5x5
I0403 21:38:00.524438 23693 net.cpp:141] Setting up inception_4e/5x5
I0403 21:38:00.524471 23693 net.cpp:148] Top shape: 24 128 14 14 (602112)
I0403 21:38:00.524489 23693 net.cpp:156] Memory required for data: 1239741984
I0403 21:38:00.524508 23693 layer_factory.hpp:77] Creating layer inception_4e/relu_5x5
I0403 21:38:00.524528 23693 net.cpp:91] Creating Layer inception_4e/relu_5x5
I0403 21:38:00.524545 23693 net.cpp:425] inception_4e/relu_5x5 <- inception_4e/5x5
I0403 21:38:00.524566 23693 net.cpp:386] inception_4e/relu_5x5 -> inception_4e/5x5 (in-place)
I0403 21:38:00.524765 23693 net.cpp:141] Setting up inception_4e/relu_5x5
I0403 21:38:00.524791 23693 net.cpp:148] Top shape: 24 128 14 14 (602112)
I0403 21:38:00.524806 23693 net.cpp:156] Memory required for data: 1242150432
I0403 21:38:00.524821 23693 layer_factory.hpp:77] Creating layer inception_4e/pool
I0403 21:38:00.524839 23693 net.cpp:91] Creating Layer inception_4e/pool
I0403 21:38:00.524857 23693 net.cpp:425] inception_4e/pool <- inception_4d/output_inception_4d/output_0_split_4
I0403 21:38:00.524878 23693 net.cpp:399] inception_4e/pool -> inception_4e/pool
I0403 21:38:00.524950 23693 net.cpp:141] Setting up inception_4e/pool
I0403 21:38:00.524976 23693 net.cpp:148] Top shape: 24 528 14 14 (2483712)
I0403 21:38:00.524991 23693 net.cpp:156] Memory required for data: 1252085280
I0403 21:38:00.525005 23693 layer_factory.hpp:77] Creating layer inception_4e/pool_proj
I0403 21:38:00.525029 23693 net.cpp:91] Creating Layer inception_4e/pool_proj
I0403 21:38:00.525048 23693 net.cpp:425] inception_4e/pool_proj <- inception_4e/pool
I0403 21:38:00.525068 23693 net.cpp:399] inception_4e/pool_proj -> inception_4e/pool_proj
I0403 21:38:00.526584 23693 net.cpp:141] Setting up inception_4e/pool_proj
I0403 21:38:00.526628 23693 net.cpp:148] Top shape: 24 128 14 14 (602112)
I0403 21:38:00.526645 23693 net.cpp:156] Memory required for data: 1254493728
I0403 21:38:00.526664 23693 layer_factory.hpp:77] Creating layer inception_4e/relu_pool_proj
I0403 21:38:00.526686 23693 net.cpp:91] Creating Layer inception_4e/relu_pool_proj
I0403 21:38:00.526705 23693 net.cpp:425] inception_4e/relu_pool_proj <- inception_4e/pool_proj
I0403 21:38:00.526722 23693 net.cpp:386] inception_4e/relu_pool_proj -> inception_4e/pool_proj (in-place)
I0403 21:38:00.527015 23693 net.cpp:141] Setting up inception_4e/relu_pool_proj
I0403 21:38:00.527043 23693 net.cpp:148] Top shape: 24 128 14 14 (602112)
I0403 21:38:00.527060 23693 net.cpp:156] Memory required for data: 1256902176
I0403 21:38:00.527076 23693 layer_factory.hpp:77] Creating layer inception_4e/output
I0403 21:38:00.527096 23693 net.cpp:91] Creating Layer inception_4e/output
I0403 21:38:00.527113 23693 net.cpp:425] inception_4e/output <- inception_4e/1x1
I0403 21:38:00.527130 23693 net.cpp:425] inception_4e/output <- inception_4e/3x3
I0403 21:38:00.527148 23693 net.cpp:425] inception_4e/output <- inception_4e/5x5
I0403 21:38:00.527164 23693 net.cpp:425] inception_4e/output <- inception_4e/pool_proj
I0403 21:38:00.527182 23693 net.cpp:399] inception_4e/output -> inception_4e/output
I0403 21:38:00.527240 23693 net.cpp:141] Setting up inception_4e/output
I0403 21:38:00.527264 23693 net.cpp:148] Top shape: 24 832 14 14 (3913728)
I0403 21:38:00.527281 23693 net.cpp:156] Memory required for data: 1272557088
I0403 21:38:00.527295 23693 layer_factory.hpp:77] Creating layer pool4/3x3_s2
I0403 21:38:00.527317 23693 net.cpp:91] Creating Layer pool4/3x3_s2
I0403 21:38:00.527335 23693 net.cpp:425] pool4/3x3_s2 <- inception_4e/output
I0403 21:38:00.527354 23693 net.cpp:399] pool4/3x3_s2 -> pool4/3x3_s2
I0403 21:38:00.527426 23693 net.cpp:141] Setting up pool4/3x3_s2
I0403 21:38:00.527451 23693 net.cpp:148] Top shape: 24 832 7 7 (978432)
I0403 21:38:00.527467 23693 net.cpp:156] Memory required for data: 1276470816
I0403 21:38:00.527482 23693 layer_factory.hpp:77] Creating layer pool4/3x3_s2_pool4/3x3_s2_0_split
I0403 21:38:00.527500 23693 net.cpp:91] Creating Layer pool4/3x3_s2_pool4/3x3_s2_0_split
I0403 21:38:00.527516 23693 net.cpp:425] pool4/3x3_s2_pool4/3x3_s2_0_split <- pool4/3x3_s2
I0403 21:38:00.527537 23693 net.cpp:399] pool4/3x3_s2_pool4/3x3_s2_0_split -> pool4/3x3_s2_pool4/3x3_s2_0_split_0
I0403 21:38:00.527559 23693 net.cpp:399] pool4/3x3_s2_pool4/3x3_s2_0_split -> pool4/3x3_s2_pool4/3x3_s2_0_split_1
I0403 21:38:00.527580 23693 net.cpp:399] pool4/3x3_s2_pool4/3x3_s2_0_split -> pool4/3x3_s2_pool4/3x3_s2_0_split_2
I0403 21:38:00.527602 23693 net.cpp:399] pool4/3x3_s2_pool4/3x3_s2_0_split -> pool4/3x3_s2_pool4/3x3_s2_0_split_3
I0403 21:38:00.527694 23693 net.cpp:141] Setting up pool4/3x3_s2_pool4/3x3_s2_0_split
I0403 21:38:00.527720 23693 net.cpp:148] Top shape: 24 832 7 7 (978432)
I0403 21:38:00.527740 23693 net.cpp:148] Top shape: 24 832 7 7 (978432)
I0403 21:38:00.527755 23693 net.cpp:148] Top shape: 24 832 7 7 (978432)
I0403 21:38:00.527771 23693 net.cpp:148] Top shape: 24 832 7 7 (978432)
I0403 21:38:00.527786 23693 net.cpp:156] Memory required for data: 1292125728
I0403 21:38:00.527801 23693 layer_factory.hpp:77] Creating layer inception_5a/1x1
I0403 21:38:00.527822 23693 net.cpp:91] Creating Layer inception_5a/1x1
I0403 21:38:00.527842 23693 net.cpp:425] inception_5a/1x1 <- pool4/3x3_s2_pool4/3x3_s2_0_split_0
I0403 21:38:00.527863 23693 net.cpp:399] inception_5a/1x1 -> inception_5a/1x1
I0403 21:38:00.530772 23693 net.cpp:141] Setting up inception_5a/1x1
I0403 21:38:00.530802 23693 net.cpp:148] Top shape: 24 256 7 7 (301056)
I0403 21:38:00.530819 23693 net.cpp:156] Memory required for data: 1293329952
I0403 21:38:00.530838 23693 layer_factory.hpp:77] Creating layer inception_5a/relu_1x1
I0403 21:38:00.530858 23693 net.cpp:91] Creating Layer inception_5a/relu_1x1
I0403 21:38:00.530875 23693 net.cpp:425] inception_5a/relu_1x1 <- inception_5a/1x1
I0403 21:38:00.530907 23693 net.cpp:386] inception_5a/relu_1x1 -> inception_5a/1x1 (in-place)
I0403 21:38:00.531213 23693 net.cpp:141] Setting up inception_5a/relu_1x1
I0403 21:38:00.531244 23693 net.cpp:148] Top shape: 24 256 7 7 (301056)
I0403 21:38:00.531261 23693 net.cpp:156] Memory required for data: 1294534176
I0403 21:38:00.531276 23693 layer_factory.hpp:77] Creating layer inception_5a/3x3_reduce
I0403 21:38:00.531299 23693 net.cpp:91] Creating Layer inception_5a/3x3_reduce
I0403 21:38:00.531319 23693 net.cpp:425] inception_5a/3x3_reduce <- pool4/3x3_s2_pool4/3x3_s2_0_split_1
I0403 21:38:00.531340 23693 net.cpp:399] inception_5a/3x3_reduce -> inception_5a/3x3_reduce
I0403 21:38:00.533745 23693 net.cpp:141] Setting up inception_5a/3x3_reduce
I0403 21:38:00.533773 23693 net.cpp:148] Top shape: 24 160 7 7 (188160)
I0403 21:38:00.533789 23693 net.cpp:156] Memory required for data: 1295286816
I0403 21:38:00.533808 23693 layer_factory.hpp:77] Creating layer inception_5a/relu_3x3_reduce
I0403 21:38:00.533828 23693 net.cpp:91] Creating Layer inception_5a/relu_3x3_reduce
I0403 21:38:00.533846 23693 net.cpp:425] inception_5a/relu_3x3_reduce <- inception_5a/3x3_reduce
I0403 21:38:00.533864 23693 net.cpp:386] inception_5a/relu_3x3_reduce -> inception_5a/3x3_reduce (in-place)
I0403 21:38:00.534044 23693 net.cpp:141] Setting up inception_5a/relu_3x3_reduce
I0403 21:38:00.534072 23693 net.cpp:148] Top shape: 24 160 7 7 (188160)
I0403 21:38:00.534088 23693 net.cpp:156] Memory required for data: 1296039456
I0403 21:38:00.534106 23693 layer_factory.hpp:77] Creating layer inception_5a/3x3
I0403 21:38:00.534127 23693 net.cpp:91] Creating Layer inception_5a/3x3
I0403 21:38:00.534147 23693 net.cpp:425] inception_5a/3x3 <- inception_5a/3x3_reduce
I0403 21:38:00.534165 23693 net.cpp:399] inception_5a/3x3 -> inception_5a/3x3
I0403 21:38:00.539093 23693 net.cpp:141] Setting up inception_5a/3x3
I0403 21:38:00.539124 23693 net.cpp:148] Top shape: 24 320 7 7 (376320)
I0403 21:38:00.539142 23693 net.cpp:156] Memory required for data: 1297544736
I0403 21:38:00.539161 23693 layer_factory.hpp:77] Creating layer inception_5a/relu_3x3
I0403 21:38:00.539180 23693 net.cpp:91] Creating Layer inception_5a/relu_3x3
I0403 21:38:00.539196 23693 net.cpp:425] inception_5a/relu_3x3 <- inception_5a/3x3
I0403 21:38:00.539216 23693 net.cpp:386] inception_5a/relu_3x3 -> inception_5a/3x3 (in-place)
I0403 21:38:00.539510 23693 net.cpp:141] Setting up inception_5a/relu_3x3
I0403 21:38:00.539538 23693 net.cpp:148] Top shape: 24 320 7 7 (376320)
I0403 21:38:00.539556 23693 net.cpp:156] Memory required for data: 1299050016
I0403 21:38:00.539571 23693 layer_factory.hpp:77] Creating layer inception_5a/5x5_reduce
I0403 21:38:00.539593 23693 net.cpp:91] Creating Layer inception_5a/5x5_reduce
I0403 21:38:00.539611 23693 net.cpp:425] inception_5a/5x5_reduce <- pool4/3x3_s2_pool4/3x3_s2_0_split_2
I0403 21:38:00.539631 23693 net.cpp:399] inception_5a/5x5_reduce -> inception_5a/5x5_reduce
I0403 21:38:00.540783 23693 net.cpp:141] Setting up inception_5a/5x5_reduce
I0403 21:38:00.540814 23693 net.cpp:148] Top shape: 24 32 7 7 (37632)
I0403 21:38:00.540832 23693 net.cpp:156] Memory required for data: 1299200544
I0403 21:38:00.540850 23693 layer_factory.hpp:77] Creating layer inception_5a/relu_5x5_reduce
I0403 21:38:00.540868 23693 net.cpp:91] Creating Layer inception_5a/relu_5x5_reduce
I0403 21:38:00.540885 23693 net.cpp:425] inception_5a/relu_5x5_reduce <- inception_5a/5x5_reduce
I0403 21:38:00.540905 23693 net.cpp:386] inception_5a/relu_5x5_reduce -> inception_5a/5x5_reduce (in-place)
I0403 21:38:00.541203 23693 net.cpp:141] Setting up inception_5a/relu_5x5_reduce
I0403 21:38:00.541232 23693 net.cpp:148] Top shape: 24 32 7 7 (37632)
I0403 21:38:00.541249 23693 net.cpp:156] Memory required for data: 1299351072
I0403 21:38:00.541265 23693 layer_factory.hpp:77] Creating layer inception_5a/5x5
I0403 21:38:00.541288 23693 net.cpp:91] Creating Layer inception_5a/5x5
I0403 21:38:00.541306 23693 net.cpp:425] inception_5a/5x5 <- inception_5a/5x5_reduce
I0403 21:38:00.541329 23693 net.cpp:399] inception_5a/5x5 -> inception_5a/5x5
I0403 21:38:00.543012 23693 net.cpp:141] Setting up inception_5a/5x5
I0403 21:38:00.543054 23693 net.cpp:148] Top shape: 24 128 7 7 (150528)
I0403 21:38:00.543072 23693 net.cpp:156] Memory required for data: 1299953184
I0403 21:38:00.543092 23693 layer_factory.hpp:77] Creating layer inception_5a/relu_5x5
I0403 21:38:00.543109 23693 net.cpp:91] Creating Layer inception_5a/relu_5x5
I0403 21:38:00.543126 23693 net.cpp:425] inception_5a/relu_5x5 <- inception_5a/5x5
I0403 21:38:00.543146 23693 net.cpp:386] inception_5a/relu_5x5 -> inception_5a/5x5 (in-place)
I0403 21:38:00.543339 23693 net.cpp:141] Setting up inception_5a/relu_5x5
I0403 21:38:00.543365 23693 net.cpp:148] Top shape: 24 128 7 7 (150528)
I0403 21:38:00.543380 23693 net.cpp:156] Memory required for data: 1300555296
I0403 21:38:00.543395 23693 layer_factory.hpp:77] Creating layer inception_5a/pool
I0403 21:38:00.543414 23693 net.cpp:91] Creating Layer inception_5a/pool
I0403 21:38:00.543431 23693 net.cpp:425] inception_5a/pool <- pool4/3x3_s2_pool4/3x3_s2_0_split_3
I0403 21:38:00.543452 23693 net.cpp:399] inception_5a/pool -> inception_5a/pool
I0403 21:38:00.543521 23693 net.cpp:141] Setting up inception_5a/pool
I0403 21:38:00.543545 23693 net.cpp:148] Top shape: 24 832 7 7 (978432)
I0403 21:38:00.543560 23693 net.cpp:156] Memory required for data: 1304469024
I0403 21:38:00.543576 23693 layer_factory.hpp:77] Creating layer inception_5a/pool_proj
I0403 21:38:00.543603 23693 net.cpp:91] Creating Layer inception_5a/pool_proj
I0403 21:38:00.543622 23693 net.cpp:425] inception_5a/pool_proj <- inception_5a/pool
I0403 21:38:00.543640 23693 net.cpp:399] inception_5a/pool_proj -> inception_5a/pool_proj
I0403 21:38:00.545882 23693 net.cpp:141] Setting up inception_5a/pool_proj
I0403 21:38:00.545913 23693 net.cpp:148] Top shape: 24 128 7 7 (150528)
I0403 21:38:00.545931 23693 net.cpp:156] Memory required for data: 1305071136
I0403 21:38:00.545951 23693 layer_factory.hpp:77] Creating layer inception_5a/relu_pool_proj
I0403 21:38:00.545969 23693 net.cpp:91] Creating Layer inception_5a/relu_pool_proj
I0403 21:38:00.545987 23693 net.cpp:425] inception_5a/relu_pool_proj <- inception_5a/pool_proj
I0403 21:38:00.546005 23693 net.cpp:386] inception_5a/relu_pool_proj -> inception_5a/pool_proj (in-place)
I0403 21:38:00.546298 23693 net.cpp:141] Setting up inception_5a/relu_pool_proj
I0403 21:38:00.546327 23693 net.cpp:148] Top shape: 24 128 7 7 (150528)
I0403 21:38:00.546344 23693 net.cpp:156] Memory required for data: 1305673248
I0403 21:38:00.546360 23693 layer_factory.hpp:77] Creating layer inception_5a/output
I0403 21:38:00.546376 23693 net.cpp:91] Creating Layer inception_5a/output
I0403 21:38:00.546392 23693 net.cpp:425] inception_5a/output <- inception_5a/1x1
I0403 21:38:00.546409 23693 net.cpp:425] inception_5a/output <- inception_5a/3x3
I0403 21:38:00.546425 23693 net.cpp:425] inception_5a/output <- inception_5a/5x5
I0403 21:38:00.546442 23693 net.cpp:425] inception_5a/output <- inception_5a/pool_proj
I0403 21:38:00.546460 23693 net.cpp:399] inception_5a/output -> inception_5a/output
I0403 21:38:00.546511 23693 net.cpp:141] Setting up inception_5a/output
I0403 21:38:00.546536 23693 net.cpp:148] Top shape: 24 832 7 7 (978432)
I0403 21:38:00.546550 23693 net.cpp:156] Memory required for data: 1309586976
I0403 21:38:00.546566 23693 layer_factory.hpp:77] Creating layer inception_5a/output_inception_5a/output_0_split
I0403 21:38:00.546584 23693 net.cpp:91] Creating Layer inception_5a/output_inception_5a/output_0_split
I0403 21:38:00.546602 23693 net.cpp:425] inception_5a/output_inception_5a/output_0_split <- inception_5a/output
I0403 21:38:00.546619 23693 net.cpp:399] inception_5a/output_inception_5a/output_0_split -> inception_5a/output_inception_5a/output_0_split_0
I0403 21:38:00.546639 23693 net.cpp:399] inception_5a/output_inception_5a/output_0_split -> inception_5a/output_inception_5a/output_0_split_1
I0403 21:38:00.546659 23693 net.cpp:399] inception_5a/output_inception_5a/output_0_split -> inception_5a/output_inception_5a/output_0_split_2
I0403 21:38:00.546681 23693 net.cpp:399] inception_5a/output_inception_5a/output_0_split -> inception_5a/output_inception_5a/output_0_split_3
I0403 21:38:00.546792 23693 net.cpp:141] Setting up inception_5a/output_inception_5a/output_0_split
I0403 21:38:00.546818 23693 net.cpp:148] Top shape: 24 832 7 7 (978432)
I0403 21:38:00.546834 23693 net.cpp:148] Top shape: 24 832 7 7 (978432)
I0403 21:38:00.546850 23693 net.cpp:148] Top shape: 24 832 7 7 (978432)
I0403 21:38:00.546866 23693 net.cpp:148] Top shape: 24 832 7 7 (978432)
I0403 21:38:00.546880 23693 net.cpp:156] Memory required for data: 1325241888
I0403 21:38:00.546895 23693 layer_factory.hpp:77] Creating layer inception_5b/1x1
I0403 21:38:00.546917 23693 net.cpp:91] Creating Layer inception_5b/1x1
I0403 21:38:00.546936 23693 net.cpp:425] inception_5b/1x1 <- inception_5a/output_inception_5a/output_0_split_0
I0403 21:38:00.546962 23693 net.cpp:399] inception_5b/1x1 -> inception_5b/1x1
I0403 21:38:00.550667 23693 net.cpp:141] Setting up inception_5b/1x1
I0403 21:38:00.550695 23693 net.cpp:148] Top shape: 24 384 7 7 (451584)
I0403 21:38:00.550711 23693 net.cpp:156] Memory required for data: 1327048224
I0403 21:38:00.550730 23693 layer_factory.hpp:77] Creating layer inception_5b/relu_1x1
I0403 21:38:00.550750 23693 net.cpp:91] Creating Layer inception_5b/relu_1x1
I0403 21:38:00.550770 23693 net.cpp:425] inception_5b/relu_1x1 <- inception_5b/1x1
I0403 21:38:00.550788 23693 net.cpp:386] inception_5b/relu_1x1 -> inception_5b/1x1 (in-place)
I0403 21:38:00.551085 23693 net.cpp:141] Setting up inception_5b/relu_1x1
I0403 21:38:00.551111 23693 net.cpp:148] Top shape: 24 384 7 7 (451584)
I0403 21:38:00.551127 23693 net.cpp:156] Memory required for data: 1328854560
I0403 21:38:00.551142 23693 layer_factory.hpp:77] Creating layer inception_5b/3x3_reduce
I0403 21:38:00.551165 23693 net.cpp:91] Creating Layer inception_5b/3x3_reduce
I0403 21:38:00.551193 23693 net.cpp:425] inception_5b/3x3_reduce <- inception_5a/output_inception_5a/output_0_split_1
I0403 21:38:00.551213 23693 net.cpp:399] inception_5b/3x3_reduce -> inception_5b/3x3_reduce
I0403 21:38:00.553841 23693 net.cpp:141] Setting up inception_5b/3x3_reduce
I0403 21:38:00.553872 23693 net.cpp:148] Top shape: 24 192 7 7 (225792)
I0403 21:38:00.553890 23693 net.cpp:156] Memory required for data: 1329757728
I0403 21:38:00.553910 23693 layer_factory.hpp:77] Creating layer inception_5b/relu_3x3_reduce
I0403 21:38:00.553927 23693 net.cpp:91] Creating Layer inception_5b/relu_3x3_reduce
I0403 21:38:00.553943 23693 net.cpp:425] inception_5b/relu_3x3_reduce <- inception_5b/3x3_reduce
I0403 21:38:00.553963 23693 net.cpp:386] inception_5b/relu_3x3_reduce -> inception_5b/3x3_reduce (in-place)
I0403 21:38:00.554152 23693 net.cpp:141] Setting up inception_5b/relu_3x3_reduce
I0403 21:38:00.554179 23693 net.cpp:148] Top shape: 24 192 7 7 (225792)
I0403 21:38:00.554195 23693 net.cpp:156] Memory required for data: 1330660896
I0403 21:38:00.554211 23693 layer_factory.hpp:77] Creating layer inception_5b/3x3
I0403 21:38:00.554236 23693 net.cpp:91] Creating Layer inception_5b/3x3
I0403 21:38:00.554257 23693 net.cpp:425] inception_5b/3x3 <- inception_5b/3x3_reduce
I0403 21:38:00.554276 23693 net.cpp:399] inception_5b/3x3 -> inception_5b/3x3
I0403 21:38:00.560895 23693 net.cpp:141] Setting up inception_5b/3x3
I0403 21:38:00.560926 23693 net.cpp:148] Top shape: 24 384 7 7 (451584)
I0403 21:38:00.560945 23693 net.cpp:156] Memory required for data: 1332467232
I0403 21:38:00.560962 23693 layer_factory.hpp:77] Creating layer inception_5b/relu_3x3
I0403 21:38:00.560981 23693 net.cpp:91] Creating Layer inception_5b/relu_3x3
I0403 21:38:00.560997 23693 net.cpp:425] inception_5b/relu_3x3 <- inception_5b/3x3
I0403 21:38:00.561015 23693 net.cpp:386] inception_5b/relu_3x3 -> inception_5b/3x3 (in-place)
I0403 21:38:00.561311 23693 net.cpp:141] Setting up inception_5b/relu_3x3
I0403 21:38:00.561341 23693 net.cpp:148] Top shape: 24 384 7 7 (451584)
I0403 21:38:00.561357 23693 net.cpp:156] Memory required for data: 1334273568
I0403 21:38:00.561372 23693 layer_factory.hpp:77] Creating layer inception_5b/5x5_reduce
I0403 21:38:00.561409 23693 net.cpp:91] Creating Layer inception_5b/5x5_reduce
I0403 21:38:00.561429 23693 net.cpp:425] inception_5b/5x5_reduce <- inception_5a/output_inception_5a/output_0_split_2
I0403 21:38:00.561450 23693 net.cpp:399] inception_5b/5x5_reduce -> inception_5b/5x5_reduce
I0403 21:38:00.562691 23693 net.cpp:141] Setting up inception_5b/5x5_reduce
I0403 21:38:00.562721 23693 net.cpp:148] Top shape: 24 48 7 7 (56448)
I0403 21:38:00.562736 23693 net.cpp:156] Memory required for data: 1334499360
I0403 21:38:00.562754 23693 layer_factory.hpp:77] Creating layer inception_5b/relu_5x5_reduce
I0403 21:38:00.562774 23693 net.cpp:91] Creating Layer inception_5b/relu_5x5_reduce
I0403 21:38:00.562793 23693 net.cpp:425] inception_5b/relu_5x5_reduce <- inception_5b/5x5_reduce
I0403 21:38:00.562811 23693 net.cpp:386] inception_5b/relu_5x5_reduce -> inception_5b/5x5_reduce (in-place)
I0403 21:38:00.563179 23693 net.cpp:141] Setting up inception_5b/relu_5x5_reduce
I0403 21:38:00.563205 23693 net.cpp:148] Top shape: 24 48 7 7 (56448)
I0403 21:38:00.563221 23693 net.cpp:156] Memory required for data: 1334725152
I0403 21:38:00.563241 23693 layer_factory.hpp:77] Creating layer inception_5b/5x5
I0403 21:38:00.563262 23693 net.cpp:91] Creating Layer inception_5b/5x5
I0403 21:38:00.563282 23693 net.cpp:425] inception_5b/5x5 <- inception_5b/5x5_reduce
I0403 21:38:00.563299 23693 net.cpp:399] inception_5b/5x5 -> inception_5b/5x5
I0403 21:38:00.565297 23693 net.cpp:141] Setting up inception_5b/5x5
I0403 21:38:00.565325 23693 net.cpp:148] Top shape: 24 128 7 7 (150528)
I0403 21:38:00.565341 23693 net.cpp:156] Memory required for data: 1335327264
I0403 21:38:00.565361 23693 layer_factory.hpp:77] Creating layer inception_5b/relu_5x5
I0403 21:38:00.565378 23693 net.cpp:91] Creating Layer inception_5b/relu_5x5
I0403 21:38:00.565395 23693 net.cpp:425] inception_5b/relu_5x5 <- inception_5b/5x5
I0403 21:38:00.565415 23693 net.cpp:386] inception_5b/relu_5x5 -> inception_5b/5x5 (in-place)
I0403 21:38:00.565608 23693 net.cpp:141] Setting up inception_5b/relu_5x5
I0403 21:38:00.565632 23693 net.cpp:148] Top shape: 24 128 7 7 (150528)
I0403 21:38:00.565647 23693 net.cpp:156] Memory required for data: 1335929376
I0403 21:38:00.565664 23693 layer_factory.hpp:77] Creating layer inception_5b/pool
I0403 21:38:00.565683 23693 net.cpp:91] Creating Layer inception_5b/pool
I0403 21:38:00.565701 23693 net.cpp:425] inception_5b/pool <- inception_5a/output_inception_5a/output_0_split_3
I0403 21:38:00.565719 23693 net.cpp:399] inception_5b/pool -> inception_5b/pool
I0403 21:38:00.565791 23693 net.cpp:141] Setting up inception_5b/pool
I0403 21:38:00.565817 23693 net.cpp:148] Top shape: 24 832 7 7 (978432)
I0403 21:38:00.565832 23693 net.cpp:156] Memory required for data: 1339843104
I0403 21:38:00.565847 23693 layer_factory.hpp:77] Creating layer inception_5b/pool_proj
I0403 21:38:00.565873 23693 net.cpp:91] Creating Layer inception_5b/pool_proj
I0403 21:38:00.565891 23693 net.cpp:425] inception_5b/pool_proj <- inception_5b/pool
I0403 21:38:00.565912 23693 net.cpp:399] inception_5b/pool_proj -> inception_5b/pool_proj
I0403 21:38:00.568300 23693 net.cpp:141] Setting up inception_5b/pool_proj
I0403 21:38:00.568332 23693 net.cpp:148] Top shape: 24 128 7 7 (150528)
I0403 21:38:00.568351 23693 net.cpp:156] Memory required for data: 1340445216
I0403 21:38:00.568370 23693 layer_factory.hpp:77] Creating layer inception_5b/relu_pool_proj
I0403 21:38:00.568390 23693 net.cpp:91] Creating Layer inception_5b/relu_pool_proj
I0403 21:38:00.568408 23693 net.cpp:425] inception_5b/relu_pool_proj <- inception_5b/pool_proj
I0403 21:38:00.568428 23693 net.cpp:386] inception_5b/relu_pool_proj -> inception_5b/pool_proj (in-place)
I0403 21:38:00.568735 23693 net.cpp:141] Setting up inception_5b/relu_pool_proj
I0403 21:38:00.568764 23693 net.cpp:148] Top shape: 24 128 7 7 (150528)
I0403 21:38:00.568783 23693 net.cpp:156] Memory required for data: 1341047328
I0403 21:38:00.568797 23693 layer_factory.hpp:77] Creating layer inception_5b/output
I0403 21:38:00.568815 23693 net.cpp:91] Creating Layer inception_5b/output
I0403 21:38:00.568846 23693 net.cpp:425] inception_5b/output <- inception_5b/1x1
I0403 21:38:00.568866 23693 net.cpp:425] inception_5b/output <- inception_5b/3x3
I0403 21:38:00.568884 23693 net.cpp:425] inception_5b/output <- inception_5b/5x5
I0403 21:38:00.568902 23693 net.cpp:425] inception_5b/output <- inception_5b/pool_proj
I0403 21:38:00.568919 23693 net.cpp:399] inception_5b/output -> inception_5b/output
I0403 21:38:00.568972 23693 net.cpp:141] Setting up inception_5b/output
I0403 21:38:00.568997 23693 net.cpp:148] Top shape: 24 1024 7 7 (1204224)
I0403 21:38:00.569013 23693 net.cpp:156] Memory required for data: 1345864224
I0403 21:38:00.569028 23693 layer_factory.hpp:77] Creating layer pool5/7x7_s1
I0403 21:38:00.569049 23693 net.cpp:91] Creating Layer pool5/7x7_s1
I0403 21:38:00.569067 23693 net.cpp:425] pool5/7x7_s1 <- inception_5b/output
I0403 21:38:00.569087 23693 net.cpp:399] pool5/7x7_s1 -> pool5/7x7_s1
I0403 21:38:00.569310 23693 net.cpp:141] Setting up pool5/7x7_s1
I0403 21:38:00.569342 23693 net.cpp:148] Top shape: 24 1024 1 1 (24576)
I0403 21:38:00.569360 23693 net.cpp:156] Memory required for data: 1345962528
I0403 21:38:00.569376 23693 layer_factory.hpp:77] Creating layer pool5/drop_7x7_s1
I0403 21:38:00.569394 23693 net.cpp:91] Creating Layer pool5/drop_7x7_s1
I0403 21:38:00.569411 23693 net.cpp:425] pool5/drop_7x7_s1 <- pool5/7x7_s1
I0403 21:38:00.569432 23693 net.cpp:386] pool5/drop_7x7_s1 -> pool5/7x7_s1 (in-place)
I0403 21:38:00.569483 23693 net.cpp:141] Setting up pool5/drop_7x7_s1
I0403 21:38:00.569507 23693 net.cpp:148] Top shape: 24 1024 1 1 (24576)
I0403 21:38:00.569524 23693 net.cpp:156] Memory required for data: 1346060832
I0403 21:38:00.569540 23693 layer_factory.hpp:77] Creating layer loss3/classifier_plantvillage
I0403 21:38:00.569561 23693 net.cpp:91] Creating Layer loss3/classifier_plantvillage
I0403 21:38:00.569579 23693 net.cpp:425] loss3/classifier_plantvillage <- pool5/7x7_s1
I0403 21:38:00.569602 23693 net.cpp:399] loss3/classifier_plantvillage -> loss3/classifier_plantvillage
I0403 21:38:00.570029 23693 net.cpp:141] Setting up loss3/classifier_plantvillage
I0403 21:38:00.570055 23693 net.cpp:148] Top shape: 24 38 (912)
I0403 21:38:00.570070 23693 net.cpp:156] Memory required for data: 1346064480
I0403 21:38:00.570087 23693 layer_factory.hpp:77] Creating layer loss3/classifier_plantvillage_loss3/classifier_plantvillage_0_split
I0403 21:38:00.570111 23693 net.cpp:91] Creating Layer loss3/classifier_plantvillage_loss3/classifier_plantvillage_0_split
I0403 21:38:00.570127 23693 net.cpp:425] loss3/classifier_plantvillage_loss3/classifier_plantvillage_0_split <- loss3/classifier_plantvillage
I0403 21:38:00.570147 23693 net.cpp:399] loss3/classifier_plantvillage_loss3/classifier_plantvillage_0_split -> loss3/classifier_plantvillage_loss3/classifier_plantvillage_0_split_0
I0403 21:38:00.570168 23693 net.cpp:399] loss3/classifier_plantvillage_loss3/classifier_plantvillage_0_split -> loss3/classifier_plantvillage_loss3/classifier_plantvillage_0_split_1
I0403 21:38:00.570190 23693 net.cpp:399] loss3/classifier_plantvillage_loss3/classifier_plantvillage_0_split -> loss3/classifier_plantvillage_loss3/classifier_plantvillage_0_split_2
I0403 21:38:00.570212 23693 net.cpp:399] loss3/classifier_plantvillage_loss3/classifier_plantvillage_0_split -> loss3/classifier_plantvillage_loss3/classifier_plantvillage_0_split_3
I0403 21:38:00.570319 23693 net.cpp:141] Setting up loss3/classifier_plantvillage_loss3/classifier_plantvillage_0_split
I0403 21:38:00.570344 23693 net.cpp:148] Top shape: 24 38 (912)
I0403 21:38:00.570363 23693 net.cpp:148] Top shape: 24 38 (912)
I0403 21:38:00.570379 23693 net.cpp:148] Top shape: 24 38 (912)
I0403 21:38:00.570394 23693 net.cpp:148] Top shape: 24 38 (912)
I0403 21:38:00.570410 23693 net.cpp:156] Memory required for data: 1346079072
I0403 21:38:00.570425 23693 layer_factory.hpp:77] Creating layer loss1/loss
I0403 21:38:00.570446 23693 net.cpp:91] Creating Layer loss1/loss
I0403 21:38:00.570464 23693 net.cpp:425] loss1/loss <- loss1/classifier_plantvillage_loss1/classifier_plantvillage_0_split_0
I0403 21:38:00.570497 23693 net.cpp:425] loss1/loss <- label_data_1_split_0
…
