…
I0403 21:46:33.634796 24180 net.cpp:313] The NetState phase (1) differed from the phase (0) specified by a rule in layer data
I0403 21:46:33.635927 24180 net.cpp:49] Initializing net from parameters: 
state {
  phase: TEST
}
layer {
  name: "data"
  type: "Data"
  top: "data"
  top: "label"
  include {
    phase: TEST
  }
  transform_param {
    mirror: false
    crop_size: 224
    mean_file: "/home/mohanty/data/final_dataset/lmdb/segmented-80-20/mean.binaryproto"
  }
  data_param {
    source: "/home/mohanty/data/final_dataset/lmdb/segmented-80-20/test_db"
    batch_size: 24
    backend: LMDB
  }
}
layer {
  name: "conv1/7x7_s2"
  type: "Convolution"
  bottom: "data"
  top: "conv1/7x7_s2"
  param {
    lr_mult: 1
    decay_mult: 1
  }
  param {
    lr_mult: 2
    decay_mult: 0
  }
  convolution_param {
    num_output: 64
    pad: 3
    kernel_size: 7
    stride: 2
    weight_filler {
      type: "xavier"
      std: 0.1
    }
    bias_filler {
      type: "constant"
      value: 0.2
    }
  }
}
layer {
  name: "conv1/relu_7x7"
  type: "ReLU"
  bottom: "conv1/7x7_s2"
  top: "conv1/7x7_s2"
}
layer {
  name: "pool1/3x3_s2"
  type: "Pooling"
  bottom: "conv1/7x7_s2"
  top: "pool1/3x3_s2"
  pooling_param {
    pool: MAX
    kernel_size: 3
    stride: 2
  }
}
layer {
  name: "pool1/norm1"
  type: "LRN"
  bottom: "pool1/3x3_s2"
  top: "pool1/norm1"
  lrn_param {
    local_size: 5
    alpha: 0.0001
    beta: 0.75
  }
}
layer {
  name: "conv2/3x3_reduce"
  type: "Convolution"
  bottom: "pool1/norm1"
  top: "conv2/3x3_reduce"
  param {
    lr_mult: 1
    decay_mult: 1
  }
  param {
    lr_mult: 2
    decay_mult: 0
  }
  convolution_param {
    num_output: 64
    kernel_size: 1
    weight_filler {
      type: "xavier"
      std: 0.1
    }
    bias_filler {
      type: "constant"
      value: 0.2
    }
  }
}
layer {
  name: "conv2/relu_3x3_reduce"
  type: "ReLU"
  bottom: "conv2/3x3_reduce"
  top: "conv2/3x3_reduce"
}
layer {
  name: "conv2/3x3"
  type: "Convolution"
  bottom: "conv2/3x3_reduce"
  top: "conv2/3x3"
  param {
    lr_mult: 1
    decay_mult: 1
  }
  param {
    lr_mult: 2
    decay_mult: 0
  }
  convolution_param {
    num_output: 192
    pad: 1
    kernel_size: 3
    weight_filler {
      type: "xavier"
      std: 0.03
    }
    bias_filler {
      type: "constant"
      value: 0.2
    }
  }
}
layer {
  name: "conv2/relu_3x3"
  type: "ReLU"
  bottom: "conv2/3x3"
  top: "conv2/3x3"
}
layer {
  name: "conv2/norm2"
  type: "LRN"
  bottom: "conv2/3x3"
  top: "conv2/norm2"
  lrn_param {
    local_size: 5
    alpha: 0.0001
    beta: 0.75
  }
}
layer {
  name: "pool2/3x3_s2"
  type: "Pooling"
  bottom: "conv2/norm2"
  top: "pool2/3x3_s2"
  pooling_param {
    pool: MAX
    kernel_size: 3
    stride: 2
  }
}
layer {
  name: "inception_3a/1x1"
  type: "Convolution"
  bottom: "pool2/3x3_s2"
  top: "inception_3a/1x1"
  param {
    lr_mult: 1
    decay_mult: 1
  }
  param {
    lr_mult: 2
    decay_mult: 0
  }
  convolution_param {
    num_output: 64
    kernel_size: 1
    weight_filler {
      type: "xavier"
      std: 0.03
    }
    bias_filler {
      type: "constant"
      value: 0.2
    }
  }
}
layer {
  name: "inception_3a/relu_1x1"
  type: "ReLU"
  bottom: "inception_3a/1x1"
  top: "inception_3a/1x1"
}
layer {
  name: "inception_3a/3x3_reduce"
  type: "Convolution"
  bottom: "pool2/3x3_s2"
  top: "inception_3a/3x3_reduce"
  param {
    lr_mult: 1
    decay_mult: 1
  }
  param {
    lr_mult: 2
    decay_mult: 0
  }
  convolution_param {
    num_output: 96
    kernel_size: 1
    weight_filler {
      type: "xavier"
      std: 0.09
    }
    bias_filler {
      type: "constant"
      value: 0.2
    }
  }
}
layer {
  name: "inception_3a/relu_3x3_reduce"
  type: "ReLU"
  bottom: "inception_3a/3x3_reduce"
  top: "inception_3a/3x3_reduce"
}
layer {
  name: "inception_3a/3x3"
  type: "Convolution"
  bottom: "inception_3a/3x3_reduce"
  top: "inception_3a/3x3"
  param {
    lr_mult: 1
    decay_mult: 1
  }
  param {
    lr_mult: 2
    decay_mult: 0
  }
  convolution_param {
    num_output: 128
    pad: 1
    kernel_size: 3
    weight_filler {
      type: "xavier"
      std: 0.03
    }
    bias_filler {
      type: "constant"
      value: 0.2
    }
  }
}
layer {
  name: "inception_3a/relu_3x3"
  type: "ReLU"
  bottom: "inception_3a/3x3"
  top: "inception_3a/3x3"
}
layer {
  name: "inception_3a/5x5_reduce"
  type: "Convolution"
  bottom: "pool2/3x3_s2"
  top: "inception_3a/5x5_reduce"
  param {
    lr_mult: 1
    decay_mult: 1
  }
  param {
    lr_mult: 2
    decay_mult: 0
  }
  convolution_param {
    num_output: 16
    kernel_size: 1
    weight_filler {
      type: "xavier"
      std: 0.2
    }
    bias_filler {
      type: "constant"
      value: 0.2
    }
  }
}
layer {
  name: "inception_3a/relu_5x5_reduce"
  type: "ReLU"
  bottom: "inception_3a/5x5_reduce"
  top: "inception_3a/5x5_reduce"
}
layer {
  name: "inception_3a/5x5"
  type: "Convolution"
  bottom: "inception_3a/5x5_reduce"
  top: "inception_3a/5x5"
  param {
    lr_mult: 1
    decay_mult: 1
  }
  param {
    lr_mult: 2
    decay_mult: 0
  }
  convolution_param {
    num_output: 32
    pad: 2
    kernel_size: 5
    weight_filler {
      type: "xavier"
      std: 0.03
    }
    bias_filler {
      type: "constant"
      value: 0.2
    }
  }
}
layer {
  name: "inception_3a/relu_5x5"
  type: "ReLU"
  bottom: "inception_3a/5x5"
  top: "inception_3a/5x5"
}
layer {
  name: "inception_3a/pool"
  type: "Pooling"
  bottom: "pool2/3x3_s2"
  top: "inception_3a/pool"
  pooling_param {
    pool: MAX
    kernel_size: 3
    stride: 1
    pad: 1
  }
}
layer {
  name: "inception_3a/pool_proj"
  type: "Convolution"
  bottom: "inception_3a/pool"
  top: "inception_3a/pool_proj"
  param {
    lr_mult: 1
    decay_mult: 1
  }
  param {
    lr_mult: 2
    decay_mult: 0
  }
  convolution_param {
    num_output: 32
    kernel_size: 1
    weight_filler {
      type: "xavier"
      std: 0.1
    }
    bias_filler {
      type: "constant"
      value: 0.2
    }
  }
}
layer {
  name: "inception_3a/relu_pool_proj"
  type: "ReLU"
  bottom: "inception_3a/pool_proj"
  top: "inception_3a/pool_proj"
}
layer {
  name: "inception_3a/output"
  type: "Concat"
  bottom: "inception_3a/1x1"
  bottom: "inception_3a/3x3"
  bottom: "inception_3a/5x5"
  bottom: "inception_3a/pool_proj"
  top: "inception_3a/output"
}
layer {
  name: "inception_3b/1x1"
  type: "Convolution"
  bottom: "inception_3a/output"
  top: "inception_3b/1x1"
  param {
    lr_mult: 1
    decay_mult: 1
  }
  param {
    lr_mult: 2
    decay_mult: 0
  }
  convolution_param {
    num_output: 128
    kernel_size: 1
    weight_filler {
      type: "xavier"
      std: 0.03
    }
    bias_filler {
      type: "constant"
      value: 0.2
    }
  }
}
layer {
  name: "inception_3b/relu_1x1"
  type: "ReLU"
  bottom: "inception_3b/1x1"
  top: "inception_3b/1x1"
}
layer {
  name: "inception_3b/3x3_reduce"
  type: "Convolution"
  bottom: "inception_3a/output"
  top: "inception_3b/3x3_reduce"
  param {
    lr_mult: 1
    decay_mult: 1
  }
  param {
    lr_mult: 2
    decay_mult: 0
  }
  convolution_param {
    num_output: 128
    kernel_size: 1
    weight_filler {
      type: "xavier"
      std: 0.09
    }
    bias_filler {
      type: "constant"
      value: 0.2
    }
  }
}
layer {
  name: "inception_3b/relu_3x3_reduce"
  type: "ReLU"
  bottom: "inception_3b/3x3_reduce"
  top: "inception_3b/3x3_reduce"
}
layer {
  name: "inception_3b/3x3"
  type: "Convolution"
  bottom: "inception_3b/3x3_reduce"
  top: "inception_3b/3x3"
  param {
    lr_mult: 1
    decay_mult: 1
  }
  param {
    lr_mult: 2
    decay_mult: 0
  }
  convolution_param {
    num_output: 192
    pad: 1
    kernel_size: 3
    weight_filler {
      type: "xavier"
      std: 0.03
    }
    bias_filler {
      type: "constant"
      value: 0.2
    }
  }
}
layer {
  name: "inception_3b/relu_3x3"
  type: "ReLU"
  bottom: "inception_3b/3x3"
  top: "inception_3b/3x3"
}
layer {
  name: "inception_3b/5x5_reduce"
  type: "Convolution"
  bottom: "inception_3a/output"
  top: "inception_3b/5x5_reduce"
  param {
    lr_mult: 1
    decay_mult: 1
  }
  param {
    lr_mult: 2
    decay_mult: 0
  }
  convolution_param {
    num_output: 32
    kernel_size: 1
    weight_filler {
      type: "xavier"
      std: 0.2
    }
    bias_filler {
      type: "constant"
      value: 0.2
    }
  }
}
layer {
  name: "inception_3b/relu_5x5_reduce"
  type: "ReLU"
  bottom: "inception_3b/5x5_reduce"
  top: "inception_3b/5x5_reduce"
}
layer {
  name: "inception_3b/5x5"
  type: "Convolution"
  bottom: "inception_3b/5x5_reduce"
  top: "inception_3b/5x5"
  param {
    lr_mult: 1
    decay_mult: 1
  }
  param {
    lr_mult: 2
    decay_mult: 0
  }
  convolution_param {
    num_output: 96
    pad: 2
    kernel_size: 5
    weight_filler {
      type: "xavier"
      std: 0.03
    }
    bias_filler {
      type: "constant"
      value: 0.2
    }
  }
}
layer {
  name: "inception_3b/relu_5x5"
  type: "ReLU"
  bottom: "inception_3b/5x5"
  top: "inception_3b/5x5"
}
layer {
  name: "inception_3b/pool"
  type: "Pooling"
  bottom: "inception_3a/output"
  top: "inception_3b/pool"
  pooling_param {
    pool: MAX
    kernel_size: 3
    stride: 1
    pad: 1
  }
}
layer {
  name: "inception_3b/pool_proj"
  type: "Convolution"
  bottom: "inception_3b/pool"
  top: "inception_3b/pool_proj"
  param {
    lr_mult: 1
    decay_mult: 1
  }
  param {
    lr_mult: 2
    decay_mult: 0
  }
  convolution_param {
    num_output: 64
    kernel_size: 1
    weight_filler {
      type: "xavier"
      std: 0.1
    }
    bias_filler {
      type: "constant"
      value: 0.2
    }
  }
}
layer {
  name: "inception_3b/relu_pool_proj"
  type: "ReLU"
  bottom: "inception_3b/pool_proj"
  top: "inception_3b/pool_proj"
}
layer {
  name: "inception_3b/output"
  type: "Concat"
  bottom: "inception_3b/1x1"
  bottom: "inception_3b/3x3"
  bottom: "inception_3b/5x5"
  bottom: "inception_3b/pool_proj"
  top: "inception_3b/output"
}
layer {
  name: "pool3/3x3_s2"
  type: "Pooling"
  bottom: "inception_3b/output"
  top: "pool3/3x3_s2"
  pooling_param {
    pool: MAX
    kernel_size: 3
    stride: 2
  }
}
layer {
  name: "inception_4a/1x1"
  type: "Convolution"
  bottom: "pool3/3x3_s2"
  top: "inception_4a/1x1"
  param {
    lr_mult: 1
    decay_mult: 1
  }
  param {
    lr_mult: 2
    decay_mult: 0
  }
  convolution_param {
    num_output: 192
    kernel_size: 1
    weight_filler {
      type: "xavier"
      std: 0.03
    }
    bias_filler {
      type: "constant"
      value: 0.2
    }
  }
}
layer {
  name: "inception_4a/relu_1x1"
  type: "ReLU"
  bottom: "inception_4a/1x1"
  top: "inception_4a/1x1"
}
layer {
  name: "inception_4a/3x3_reduce"
  type: "Convolution"
  bottom: "pool3/3x3_s2"
  top: "inception_4a/3x3_reduce"
  param {
    lr_mult: 1
    decay_mult: 1
  }
  param {
    lr_mult: 2
    decay_mult: 0
  }
  convolution_param {
    num_output: 96
    kernel_size: 1
    weight_filler {
      type: "xavier"
      std: 0.09
    }
    bias_filler {
      type: "constant"
      value: 0.2
    }
  }
}
layer {
  name: "inception_4a/relu_3x3_reduce"
  type: "ReLU"
  bottom: "inception_4a/3x3_reduce"
  top: "inception_4a/3x3_reduce"
}
layer {
  name: "inception_4a/3x3"
  type: "Convolution"
  bottom: "inception_4a/3x3_reduce"
  top: "inception_4a/3x3"
  param {
    lr_mult: 1
    decay_mult: 1
  }
  param {
    lr_mult: 2
    decay_mult: 0
  }
  convolution_param {
    num_output: 208
    pad: 1
    kernel_size: 3
    weight_filler {
      type: "xavier"
      std: 0.03
    }
    bias_filler {
      type: "constant"
      value: 0.2
    }
  }
}
layer {
  name: "inception_4a/relu_3x3"
  type: "ReLU"
  bottom: "inception_4a/3x3"
  top: "inception_4a/3x3"
}
layer {
  name: "inception_4a/5x5_reduce"
  type: "Convolution"
  bottom: "pool3/3x3_s2"
  top: "inception_4a/5x5_reduce"
  param {
    lr_mult: 1
    decay_mult: 1
  }
  param {
    lr_mult: 2
    decay_mult: 0
  }
  convolution_param {
    num_output: 16
    kernel_size: 1
    weight_filler {
      type: "xavier"
      std: 0.2
    }
    bias_filler {
      type: "constant"
      value: 0.2
    }
  }
}
layer {
  name: "inception_4a/relu_5x5_reduce"
  type: "ReLU"
  bottom: "inception_4a/5x5_reduce"
  top: "inception_4a/5x5_reduce"
}
layer {
  name: "inception_4a/5x5"
  type: "Convolution"
  bottom: "inception_4a/5x5_reduce"
  top: "inception_4a/5x5"
  param {
    lr_mult: 1
    decay_mult: 1
  }
  param {
    lr_mult: 2
    decay_mult: 0
  }
  convolution_param {
    num_output: 48
    pad: 2
    kernel_size: 5
    weight_filler {
      type: "xavier"
      std: 0.03
    }
    bias_filler {
      type: "constant"
      value: 0.2
    }
  }
}
layer {
  name: "inception_4a/relu_5x5"
  type: "ReLU"
  bottom: "inception_4a/5x5"
  top: "inception_4a/5x5"
}
layer {
  name: "inception_4a/pool"
  type: "Pooling"
  bottom: "pool3/3x3_s2"
  top: "inception_4a/pool"
  pooling_param {
    pool: MAX
    kernel_size: 3
    stride: 1
    pad: 1
  }
}
layer {
  name: "inception_4a/pool_proj"
  type: "Convolution"
  bottom: "inception_4a/pool"
  top: "inception_4a/pool_proj"
  param {
    lr_mult: 1
    decay_mult: 1
  }
  param {
    lr_mult: 2
    decay_mult: 0
  }
  convolution_param {
    num_output: 64
    kernel_size: 1
    weight_filler {
      type: "xavier"
      std: 0.1
    }
    bias_filler {
      type: "constant"
      value: 0.2
    }
  }
}
layer {
  name: "inception_4a/relu_pool_proj"
  type: "ReLU"
  bottom: "inception_4a/pool_proj"
  top: "inception_4a/pool_proj"
}
layer {
  name: "inception_4a/output"
  type: "Concat"
  bottom: "inception_4a/1x1"
  bottom: "inception_4a/3x3"
  bottom: "inception_4a/5x5"
  bottom: "inception_4a/pool_proj"
  top: "inception_4a/output"
}
layer {
  name: "loss1/ave_pool"
  type: "Pooling"
  bottom: "inception_4a/output"
  top: "loss1/ave_pool"
  pooling_param {
    pool: AVE
    kernel_size: 5
    stride: 3
  }
}
layer {
  name: "loss1/conv"
  type: "Convolution"
  bottom: "loss1/ave_pool"
  top: "loss1/conv"
  param {
    lr_mult: 1
    decay_mult: 1
  }
  param {
    lr_mult: 2
    decay_mult: 0
  }
  convolution_param {
    num_output: 128
    kernel_size: 1
    weight_filler {
      type: "xavier"
      std: 0.08
    }
    bias_filler {
      type: "constant"
      value: 0.2
    }
  }
}
layer {
  name: "loss1/relu_conv"
  type: "ReLU"
  bottom: "loss1/conv"
  top: "loss1/conv"
}
layer {
  name: "loss1/fc"
  type: "InnerProduct"
  bottom: "loss1/conv"
  top: "loss1/fc"
  param {
    lr_mult: 1
    decay_mult: 1
  }
  param {
    lr_mult: 2
    decay_mult: 0
  }
  inner_product_param {
    num_output: 1024
    weight_filler {
      type: "xavier"
      std: 0.02
    }
    bias_filler {
      type: "constant"
      value: 0.2
    }
  }
}
layer {
  name: "loss1/relu_fc"
  type: "ReLU"
  bottom: "loss1/fc"
  top: "loss1/fc"
}
layer {
  name: "loss1/drop_fc"
  type: "Dropout"
  bottom: "loss1/fc"
  top: "loss1/fc"
  dropout_param {
    dropout_ratio: 0.7
  }
}
layer {
  name: "loss1/classifier_plantvillage"
  type: "InnerProduct"
  bottom: "loss1/fc"
  top: "loss1/classifier_plantvillage"
  param {
    lr_mult: 1
    decay_mult: 1
  }
  param {
    lr_mult: 2
    decay_mult: 0
  }
  inner_product_param {
    num_output: 38
    weight_filler {
      type: "xavier"
      std: 0.0009765625
    }
    bias_filler {
      type: "constant"
      value: 0
    }
  }
}
layer {
  name: "inception_4b/1x1"
  type: "Convolution"
  bottom: "inception_4a/output"
  top: "inception_4b/1x1"
  param {
    lr_mult: 1
    decay_mult: 1
  }
  param {
    lr_mult: 2
    decay_mult: 0
  }
  convolution_param {
    num_output: 160
    kernel_size: 1
    weight_filler {
      type: "xavier"
      std: 0.03
    }
    bias_filler {
      type: "constant"
      value: 0.2
    }
  }
}
layer {
  name: "inception_4b/relu_1x1"
  type: "ReLU"
  bottom: "inception_4b/1x1"
  top: "inception_4b/1x1"
}
layer {
  name: "inception_4b/3x3_reduce"
  type: "Convolution"
  bottom: "inception_4a/output"
  top: "inception_4b/3x3_reduce"
  param {
    lr_mult: 1
    decay_mult: 1
  }
  param {
    lr_mult: 2
    decay_mult: 0
  }
  convolution_param {
    num_output: 112
    kernel_size: 1
    weight_filler {
      type: "xavier"
      std: 0.09
    }
    bias_filler {
      type: "constant"
      value: 0.2
    }
  }
}
layer {
  name: "inception_4b/relu_3x3_reduce"
  type: "ReLU"
  bottom: "inception_4b/3x3_reduce"
  top: "inception_4b/3x3_reduce"
}
layer {
  name: "inception_4b/3x3"
  type: "Convolution"
  bottom: "inception_4b/3x3_reduce"
  top: "inception_4b/3x3"
  param {
    lr_mult: 1
    decay_mult: 1
  }
  param {
    lr_mult: 2
    decay_mult: 0
  }
  convolution_param {
    num_output: 224
    pad: 1
    kernel_size: 3
    weight_filler {
      type: "xavier"
      std: 0.03
    }
    bias_filler {
      type: "constant"
      value: 0.2
    }
  }
}
layer {
  name: "inception_4b/relu_3x3"
  type: "ReLU"
  bottom: "inception_4b/3x3"
  top: "inception_4b/3x3"
}
layer {
  name: "inception_4b/5x5_reduce"
  type: "Convolution"
  bottom: "inception_4a/output"
  top: "inception_4b/5x5_reduce"
  param {
    lr_mult: 1
    decay_mult: 1
  }
  param {
    lr_mult: 2
    decay_mult: 0
  }
  convolution_param {
    num_output: 24
    kernel_size: 1
    weight_filler {
      type: "xavier"
      std: 0.2
    }
    bias_filler {
      type: "constant"
      value: 0.2
    }
  }
}
layer {
  name: "inception_4b/relu_5x5_reduce"
  type: "ReLU"
  bottom: "inception_4b/5x5_reduce"
  top: "inception_4b/5x5_reduce"
}
layer {
  name: "inception_4b/5x5"
  type: "Convolution"
  bottom: "inception_4b/5x5_reduce"
  top: "inception_4b/5x5"
  param {
    lr_mult: 1
    decay_mult: 1
  }
  param {
    lr_mult: 2
    decay_mult: 0
  }
  convolution_param {
    num_output: 64
    pad: 2
    kernel_size: 5
    weight_filler {
      type: "xavier"
      std: 0.03
    }
    bias_filler {
      type: "constant"
      value: 0.2
    }
  }
}
layer {
  name: "inception_4b/relu_5x5"
  type: "ReLU"
  bottom: "inception_4b/5x5"
  top: "inception_4b/5x5"
}
layer {
  name: "inception_4b/pool"
  type: "Pooling"
  bottom: "inception_4a/output"
  top: "inception_4b/pool"
  pooling_param {
    pool: MAX
    kernel_size: 3
    stride: 1
    pad: 1
  }
}
layer {
  name: "inception_4b/pool_proj"
  type: "Convolution"
  bottom: "inception_4b/pool"
  top: "inception_4b/pool_proj"
  param {
    lr_mult: 1
    decay_mult: 1
  }
  param {
    lr_mult: 2
    decay_mult: 0
  }
  convolution_param {
    num_output: 64
    kernel_size: 1
    weight_filler {
      type: "xavier"
      std: 0.1
    }
    bias_filler {
      type: "constant"
      value: 0.2
    }
  }
}
layer {
  name: "inception_4b/relu_pool_proj"
  type: "ReLU"
  bottom: "inception_4b/pool_proj"
  top: "inception_4b/pool_proj"
}
layer {
  name: "inception_4b/output"
  type: "Concat"
  bottom: "inception_4b/1x1"
  bottom: "inception_4b/3x3"
  bottom: "inception_4b/5x5"
  bottom: "inception_4b/pool_proj"
  top: "inception_4b/output"
}
layer {
  name: "inception_4c/1x1"
  type: "Convolution"
  bottom: "inception_4b/output"
  top: "inception_4c/1x1"
  param {
    lr_mult: 1
    decay_mult: 1
  }
  param {
    lr_mult: 2
    decay_mult: 0
  }
  convolution_param {
    num_output: 128
    kernel_size: 1
    weight_filler {
      type: "xavier"
      std: 0.03
    }
    bias_filler {
      type: "constant"
      value: 0.2
    }
  }
}
layer {
  name: "inception_4c/relu_1x1"
  type: "ReLU"
  bottom: "inception_4c/1x1"
  top: "inception_4c/1x1"
}
layer {
  name: "inception_4c/3x3_reduce"
  type: "Convolution"
  bottom: "inception_4b/output"
  top: "inception_4c/3x3_reduce"
  param {
    lr_mult: 1
    decay_mult: 1
  }
  param {
    lr_mult: 2
    decay_mult: 0
  }
  convolution_param {
    num_output: 128
    kernel_size: 1
    weight_filler {
      type: "xavier"
      std: 0.09
    }
    bias_filler {
      type: "constant"
      value: 0.2
    }
  }
}
layer {
  name: "inception_4c/relu_3x3_reduce"
  type: "ReLU"
  bottom: "inception_4c/3x3_reduce"
  top: "inception_4c/3x3_reduce"
}
layer {
  name: "inception_4c/3x3"
  type: "Convolution"
  bottom: "inception_4c/3x3_reduce"
  top: "inception_4c/3x3"
  param {
    lr_mult: 1
    decay_mult: 1
  }
  param {
    lr_mult: 2
    decay_mult: 0
  }
  convolution_param {
    num_output: 256
    pad: 1
    kernel_size: 3
    weight_filler {
      type: "xavier"
      std: 0.03
    }
    bias_filler {
      type: "constant"
      value: 0.2
    }
  }
}
layer {
  name: "inception_4c/relu_3x3"
  type: "ReLU"
  bottom: "inception_4c/3x3"
  top: "inception_4c/3x3"
}
layer {
  name: "inception_4c/5x5_reduce"
  type: "Convolution"
  bottom: "inception_4b/output"
  top: "inception_4c/5x5_reduce"
  param {
    lr_mult: 1
    decay_mult: 1
  }
  param {
    lr_mult: 2
    decay_mult: 0
  }
  convolution_param {
    num_output: 24
    kernel_size: 1
    weight_filler {
      type: "xavier"
      std: 0.2
    }
    bias_filler {
      type: "constant"
      value: 0.2
    }
  }
}
layer {
  name: "inception_4c/relu_5x5_reduce"
  type: "ReLU"
  bottom: "inception_4c/5x5_reduce"
  top: "inception_4c/5x5_reduce"
}
layer {
  name: "inception_4c/5x5"
  type: "Convolution"
  bottom: "inception_4c/5x5_reduce"
  top: "inception_4c/5x5"
  param {
    lr_mult: 1
    decay_mult: 1
  }
  param {
    lr_mult: 2
    decay_mult: 0
  }
  convolution_param {
    num_output: 64
    pad: 2
    kernel_size: 5
    weight_filler {
      type: "xavier"
      std: 0.03
    }
    bias_filler {
      type: "constant"
      value: 0.2
    }
  }
}
layer {
  name: "inception_4c/relu_5x5"
  type: "ReLU"
  bottom: "inception_4c/5x5"
  top: "inception_4c/5x5"
}
layer {
  name: "inception_4c/pool"
  type: "Pooling"
  bottom: "inception_4b/output"
  top: "inception_4c/pool"
  pooling_param {
    pool: MAX
    kernel_size: 3
    stride: 1
    pad: 1
  }
}
layer {
  name: "inception_4c/pool_proj"
  type: "Convolution"
  bottom: "inception_4c/pool"
  top: "inception_4c/pool_proj"
  param {
    lr_mult: 1
    decay_mult: 1
  }
  param {
    lr_mult: 2
    decay_mult: 0
  }
  convolution_param {
    num_output: 64
    kernel_size: 1
    weight_filler {
      type: "xavier"
      std: 0.1
    }
    bias_filler {
      type: "constant"
      value: 0.2
    }
  }
}
layer {
  name: "inception_4c/relu_pool_proj"
  type: "ReLU"
  bottom: "inception_4c/pool_proj"
  top: "inception_4c/pool_proj"
}
layer {
  name: "inception_4c/output"
  type: "Concat"
  bottom: "inception_4c/1x1"
  bottom: "inception_4c/3x3"
  bottom: "inception_4c/5x5"
  bottom: "inception_4c/pool_proj"
  top: "inception_4c/output"
}
layer {
  name: "inception_4d/1x1"
  type: "Convolution"
  bottom: "inception_4c/output"
  top: "inception_4d/1x1"
  param {
    lr_mult: 1
    decay_mult: 1
  }
  param {
    lr_mult: 2
    decay_mult: 0
  }
  convolution_param {
    num_output: 112
    kernel_size: 1
    weight_filler {
      type: "xavier"
      std: 0.03
    }
    bias_filler {
      type: "constant"
      value: 0.2
    }
  }
}
layer {
  name: "inception_4d/relu_1x1"
  type: "ReLU"
  bottom: "inception_4d/1x1"
  top: "inception_4d/1x1"
}
layer {
  name: "inception_4d/3x3_reduce"
  type: "Convolution"
  bottom: "inception_4c/output"
  top: "inception_4d/3x3_reduce"
  param {
    lr_mult: 1
    decay_mult: 1
  }
  param {
    lr_mult: 2
    decay_mult: 0
  }
  convolution_param {
    num_output: 144
    kernel_size: 1
    weight_filler {
      type: "xavier"
      std: 0.09
    }
    bias_filler {
      type: "constant"
      value: 0.2
    }
  }
}
layer {
  name: "inception_4d/relu_3x3_reduce"
  type: "ReLU"
  bottom: "inception_4d/3x3_reduce"
  top: "inception_4d/3x3_reduce"
}
layer {
  name: "inception_4d/3x3"
  type: "Convolution"
  bottom: "inception_4d/3x3_reduce"
  top: "inception_4d/3x3"
  param {
    lr_mult: 1
    decay_mult: 1
  }
  param {
    lr_mult: 2
    decay_mult: 0
  }
  convolution_param {
    num_output: 288
    pad: 1
    kernel_size: 3
    weight_filler {
      type: "xavier"
      std: 0.03
    }
    bias_filler {
      type: "constant"
      value: 0.2
    }
  }
}
layer {
  name: "inception_4d/relu_3x3"
  type: "ReLU"
  bottom: "inception_4d/3x3"
  top: "inception_4d/3x3"
}
layer {
  name: "inception_4d/5x5_reduce"
  type: "Convolution"
  bottom: "inception_4c/output"
  top: "inception_4d/5x5_reduce"
  param {
    lr_mult: 1
    decay_mult: 1
  }
  param {
    lr_mult: 2
    decay_mult: 0
  }
  convolution_param {
    num_output: 32
    kernel_size: 1
    weight_filler {
      type: "xavier"
      std: 0.2
    }
    bias_filler {
      type: "constant"
      value: 0.2
    }
  }
}
layer {
  name: "inception_4d/relu_5x5_reduce"
  type: "ReLU"
  bottom: "inception_4d/5x5_reduce"
  top: "inception_4d/5x5_reduce"
}
layer {
  name: "inception_4d/5x5"
  type: "Convolution"
  bottom: "inception_4d/5x5_reduce"
  top: "inception_4d/5x5"
  param {
    lr_mult: 1
    decay_mult: 1
  }
  param {
    lr_mult: 2
    decay_mult: 0
  }
  convolution_param {
    num_output: 64
    pad: 2
    kernel_size: 5
    weight_filler {
      type: "xavier"
      std: 0.03
    }
    bias_filler {
      type: "constant"
      value: 0.2
    }
  }
}
layer {
  name: "inception_4d/relu_5x5"
  type: "ReLU"
  bottom: "inception_4d/5x5"
  top: "inception_4d/5x5"
}
layer {
  name: "inception_4d/pool"
  type: "Pooling"
  bottom: "inception_4c/output"
  top: "inception_4d/pool"
  pooling_param {
    pool: MAX
    kernel_size: 3
    stride: 1
    pad: 1
  }
}
layer {
  name: "inception_4d/pool_proj"
  type: "Convolution"
  bottom: "inception_4d/pool"
  top: "inception_4d/pool_proj"
  param {
    lr_mult: 1
    decay_mult: 1
  }
  param {
    lr_mult: 2
    decay_mult: 0
  }
  convolution_param {
    num_output: 64
    kernel_size: 1
    weight_filler {
      type: "xavier"
      std: 0.1
    }
    bias_filler {
      type: "constant"
      value: 0.2
    }
  }
}
layer {
  name: "inception_4d/relu_pool_proj"
  type: "ReLU"
  bottom: "inception_4d/pool_proj"
  top: "inception_4d/pool_proj"
}
layer {
  name: "inception_4d/output"
  type: "Concat"
  bottom: "inception_4d/1x1"
  bottom: "inception_4d/3x3"
  bottom: "inception_4d/5x5"
  bottom: "inception_4d/pool_proj"
  top: "inception_4d/output"
}
layer {
  name: "loss2/ave_pool"
  type: "Pooling"
  bottom: "inception_4d/output"
  top: "loss2/ave_pool"
  pooling_param {
    pool: AVE
    kernel_size: 5
    stride: 3
  }
}
layer {
  name: "loss2/conv"
  type: "Convolution"
  bottom: "loss2/ave_pool"
  top: "loss2/conv"
  param {
    lr_mult: 1
    decay_mult: 1
  }
  param {
    lr_mult: 2
    decay_mult: 0
  }
  convolution_param {
    num_output: 128
    kernel_size: 1
    weight_filler {
      type: "xavier"
      std: 0.08
    }
    bias_filler {
      type: "constant"
      value: 0.2
    }
  }
}
layer {
  name: "loss2/relu_conv"
  type: "ReLU"
  bottom: "loss2/conv"
  top: "loss2/conv"
}
layer {
  name: "loss2/fc"
  type: "InnerProduct"
  bottom: "loss2/conv"
  top: "loss2/fc"
  param {
    lr_mult: 1
    decay_mult: 1
  }
  param {
    lr_mult: 2
    decay_mult: 0
  }
  inner_product_param {
    num_output: 1024
    weight_filler {
      type: "xavier"
      std: 0.02
    }
    bias_filler {
      type: "constant"
      value: 0.2
    }
  }
}
layer {
  name: "loss2/relu_fc"
  type: "ReLU"
  bottom: "loss2/fc"
  top: "loss2/fc"
}
layer {
  name: "loss2/drop_fc"
  type: "Dropout"
  bottom: "loss2/fc"
  top: "loss2/fc"
  dropout_param {
    dropout_ratio: 0.7
  }
}
layer {
  name: "loss2/classifier_plantvillage"
  type: "InnerProduct"
  bottom: "loss2/fc"
  top: "loss2/classifier_plantvillage"
  param {
    lr_mult: 1
    decay_mult: 1
  }
  param {
    lr_mult: 2
    decay_mult: 0
  }
  inner_product_param {
    num_output: 38
    weight_filler {
      type: "xavier"
      std: 0.0009765625
    }
    bias_filler {
      type: "constant"
      value: 0
    }
  }
}
layer {
  name: "inception_4e/1x1"
  type: "Convolution"
  bottom: "inception_4d/output"
  top: "inception_4e/1x1"
  param {
    lr_mult: 1
    decay_mult: 1
  }
  param {
    lr_mult: 2
    decay_mult: 0
  }
  convolution_param {
    num_output: 256
    kernel_size: 1
    weight_filler {
      type: "xavier"
      std: 0.03
    }
    bias_filler {
      type: "constant"
      value: 0.2
    }
  }
}
layer {
  name: "inception_4e/relu_1x1"
  type: "ReLU"
  bottom: "inception_4e/1x1"
  top: "inception_4e/1x1"
}
layer {
  name: "inception_4e/3x3_reduce"
  type: "Convolution"
  bottom: "inception_4d/output"
  top: "inception_4e/3x3_reduce"
  param {
    lr_mult: 1
    decay_mult: 1
  }
  param {
    lr_mult: 2
    decay_mult: 0
  }
  convolution_param {
    num_output: 160
    kernel_size: 1
    weight_filler {
      type: "xavier"
      std: 0.09
    }
    bias_filler {
      type: "constant"
      value: 0.2
    }
  }
}
layer {
  name: "inception_4e/relu_3x3_reduce"
  type: "ReLU"
  bottom: "inception_4e/3x3_reduce"
  top: "inception_4e/3x3_reduce"
}
layer {
  name: "inception_4e/3x3"
  type: "Convolution"
  bottom: "inception_4e/3x3_reduce"
  top: "inception_4e/3x3"
  param {
    lr_mult: 1
    decay_mult: 1
  }
  param {
    lr_mult: 2
    decay_mult: 0
  }
  convolution_param {
    num_output: 320
    pad: 1
    kernel_size: 3
    weight_filler {
      type: "xavier"
      std: 0.03
    }
    bias_filler {
      type: "constant"
      value: 0.2
    }
  }
}
layer {
  name: "inception_4e/relu_3x3"
  type: "ReLU"
  bottom: "inception_4e/3x3"
  top: "inception_4e/3x3"
}
layer {
  name: "inception_4e/5x5_reduce"
  type: "Convolution"
  bottom: "inception_4d/output"
  top: "inception_4e/5x5_reduce"
  param {
    lr_mult: 1
    decay_mult: 1
  }
  param {
    lr_mult: 2
    decay_mult: 0
  }
  convolution_param {
    num_output: 32
    kernel_size: 1
    weight_filler {
      type: "xavier"
      std: 0.2
    }
    bias_filler {
      type: "constant"
      value: 0.2
    }
  }
}
layer {
  name: "inception_4e/relu_5x5_reduce"
  type: "ReLU"
  bottom: "inception_4e/5x5_reduce"
  top: "inception_4e/5x5_reduce"
}
layer {
  name: "inception_4e/5x5"
  type: "Convolution"
  bottom: "inception_4e/5x5_reduce"
  top: "inception_4e/
I0403 21:46:33.637106 24180 layer_factory.hpp:77] Creating layer data
I0403 21:46:33.637706 24180 net.cpp:91] Creating Layer data
I0403 21:46:33.637738 24180 net.cpp:399] data -> data
I0403 21:46:33.637789 24180 net.cpp:399] data -> label
I0403 21:46:33.637826 24180 data_transformer.cpp:25] Loading mean file from: /home/mohanty/data/final_dataset/lmdb/segmented-80-20/mean.binaryproto
I0403 21:46:33.639014 24189 db_lmdb.cpp:38] Opened lmdb /home/mohanty/data/final_dataset/lmdb/segmented-80-20/test_db
I0403 21:46:33.650527 24180 data_layer.cpp:41] output data size: 24,3,224,224
I0403 21:46:33.677711 24180 net.cpp:141] Setting up data
I0403 21:46:33.677793 24180 net.cpp:148] Top shape: 24 3 224 224 (3612672)
I0403 21:46:33.677815 24180 net.cpp:148] Top shape: 24 (24)
I0403 21:46:33.677831 24180 net.cpp:156] Memory required for data: 14450784
I0403 21:46:33.677860 24180 layer_factory.hpp:77] Creating layer label_data_1_split
I0403 21:46:33.677888 24180 net.cpp:91] Creating Layer label_data_1_split
I0403 21:46:33.677907 24180 net.cpp:425] label_data_1_split <- label
I0403 21:46:33.677940 24180 net.cpp:399] label_data_1_split -> label_data_1_split_0
I0403 21:46:33.677969 24180 net.cpp:399] label_data_1_split -> label_data_1_split_1
I0403 21:46:33.677991 24180 net.cpp:399] label_data_1_split -> label_data_1_split_2
I0403 21:46:33.678012 24180 net.cpp:399] label_data_1_split -> label_data_1_split_3
I0403 21:46:33.678032 24180 net.cpp:399] label_data_1_split -> label_data_1_split_4
I0403 21:46:33.678053 24180 net.cpp:399] label_data_1_split -> label_data_1_split_5
I0403 21:46:33.678073 24180 net.cpp:399] label_data_1_split -> label_data_1_split_6
I0403 21:46:33.678093 24180 net.cpp:399] label_data_1_split -> label_data_1_split_7
I0403 21:46:33.678112 24180 net.cpp:399] label_data_1_split -> label_data_1_split_8
I0403 21:46:33.678133 24180 net.cpp:399] label_data_1_split -> label_data_1_split_9
I0403 21:46:33.678277 24180 net.cpp:141] Setting up label_data_1_split
I0403 21:46:33.678303 24180 net.cpp:148] Top shape: 24 (24)
I0403 21:46:33.678320 24180 net.cpp:148] Top shape: 24 (24)
I0403 21:46:33.678338 24180 net.cpp:148] Top shape: 24 (24)
I0403 21:46:33.678354 24180 net.cpp:148] Top shape: 24 (24)
I0403 21:46:33.678370 24180 net.cpp:148] Top shape: 24 (24)
I0403 21:46:33.678386 24180 net.cpp:148] Top shape: 24 (24)
I0403 21:46:33.678403 24180 net.cpp:148] Top shape: 24 (24)
I0403 21:46:33.678419 24180 net.cpp:148] Top shape: 24 (24)
I0403 21:46:33.678436 24180 net.cpp:148] Top shape: 24 (24)
I0403 21:46:33.678452 24180 net.cpp:148] Top shape: 24 (24)
I0403 21:46:33.678509 24180 net.cpp:156] Memory required for data: 14451744
I0403 21:46:33.678526 24180 layer_factory.hpp:77] Creating layer conv1/7x7_s2
I0403 21:46:33.678558 24180 net.cpp:91] Creating Layer conv1/7x7_s2
I0403 21:46:33.678577 24180 net.cpp:425] conv1/7x7_s2 <- data
I0403 21:46:33.678597 24180 net.cpp:399] conv1/7x7_s2 -> conv1/7x7_s2
I0403 21:46:33.819644 24180 net.cpp:141] Setting up conv1/7x7_s2
I0403 21:46:33.819718 24180 net.cpp:148] Top shape: 24 64 112 112 (19267584)
I0403 21:46:33.819736 24180 net.cpp:156] Memory required for data: 91522080
I0403 21:46:33.819766 24180 layer_factory.hpp:77] Creating layer conv1/relu_7x7
I0403 21:46:33.819792 24180 net.cpp:91] Creating Layer conv1/relu_7x7
I0403 21:46:33.819810 24180 net.cpp:425] conv1/relu_7x7 <- conv1/7x7_s2
I0403 21:46:33.819830 24180 net.cpp:386] conv1/relu_7x7 -> conv1/7x7_s2 (in-place)
I0403 21:46:33.820092 24180 net.cpp:141] Setting up conv1/relu_7x7
I0403 21:46:33.820119 24180 net.cpp:148] Top shape: 24 64 112 112 (19267584)
I0403 21:46:33.820135 24180 net.cpp:156] Memory required for data: 168592416
I0403 21:46:33.820149 24180 layer_factory.hpp:77] Creating layer pool1/3x3_s2
I0403 21:46:33.820175 24180 net.cpp:91] Creating Layer pool1/3x3_s2
I0403 21:46:33.820194 24180 net.cpp:425] pool1/3x3_s2 <- conv1/7x7_s2
I0403 21:46:33.820217 24180 net.cpp:399] pool1/3x3_s2 -> pool1/3x3_s2
I0403 21:46:33.820297 24180 net.cpp:141] Setting up pool1/3x3_s2
I0403 21:46:33.820322 24180 net.cpp:148] Top shape: 24 64 56 56 (4816896)
I0403 21:46:33.820336 24180 net.cpp:156] Memory required for data: 187860000
I0403 21:46:33.820351 24180 layer_factory.hpp:77] Creating layer pool1/norm1
I0403 21:46:33.820375 24180 net.cpp:91] Creating Layer pool1/norm1
I0403 21:46:33.820394 24180 net.cpp:425] pool1/norm1 <- pool1/3x3_s2
I0403 21:46:33.820413 24180 net.cpp:399] pool1/norm1 -> pool1/norm1
I0403 21:46:33.820713 24180 net.cpp:141] Setting up pool1/norm1
I0403 21:46:33.820740 24180 net.cpp:148] Top shape: 24 64 56 56 (4816896)
I0403 21:46:33.820755 24180 net.cpp:156] Memory required for data: 207127584
I0403 21:46:33.820770 24180 layer_factory.hpp:77] Creating layer conv2/3x3_reduce
I0403 21:46:33.820796 24180 net.cpp:91] Creating Layer conv2/3x3_reduce
I0403 21:46:33.820813 24180 net.cpp:425] conv2/3x3_reduce <- pool1/norm1
I0403 21:46:33.820834 24180 net.cpp:399] conv2/3x3_reduce -> conv2/3x3_reduce
I0403 21:46:33.822223 24180 net.cpp:141] Setting up conv2/3x3_reduce
I0403 21:46:33.822254 24180 net.cpp:148] Top shape: 24 64 56 56 (4816896)
I0403 21:46:33.822271 24180 net.cpp:156] Memory required for data: 226395168
I0403 21:46:33.822291 24180 layer_factory.hpp:77] Creating layer conv2/relu_3x3_reduce
I0403 21:46:33.822309 24180 net.cpp:91] Creating Layer conv2/relu_3x3_reduce
I0403 21:46:33.822325 24180 net.cpp:425] conv2/relu_3x3_reduce <- conv2/3x3_reduce
I0403 21:46:33.822346 24180 net.cpp:386] conv2/relu_3x3_reduce -> conv2/3x3_reduce (in-place)
I0403 21:46:33.822604 24180 net.cpp:141] Setting up conv2/relu_3x3_reduce
I0403 21:46:33.822633 24180 net.cpp:148] Top shape: 24 64 56 56 (4816896)
I0403 21:46:33.822649 24180 net.cpp:156] Memory required for data: 245662752
I0403 21:46:33.822664 24180 layer_factory.hpp:77] Creating layer conv2/3x3
I0403 21:46:33.822687 24180 net.cpp:91] Creating Layer conv2/3x3
I0403 21:46:33.822705 24180 net.cpp:425] conv2/3x3 <- conv2/3x3_reduce
I0403 21:46:33.822724 24180 net.cpp:399] conv2/3x3 -> conv2/3x3
I0403 21:46:33.825002 24180 net.cpp:141] Setting up conv2/3x3
I0403 21:46:33.825034 24180 net.cpp:148] Top shape: 24 192 56 56 (14450688)
I0403 21:46:33.825052 24180 net.cpp:156] Memory required for data: 303465504
I0403 21:46:33.825074 24180 layer_factory.hpp:77] Creating layer conv2/relu_3x3
I0403 21:46:33.825093 24180 net.cpp:91] Creating Layer conv2/relu_3x3
I0403 21:46:33.825109 24180 net.cpp:425] conv2/relu_3x3 <- conv2/3x3
I0403 21:46:33.825129 24180 net.cpp:386] conv2/relu_3x3 -> conv2/3x3 (in-place)
I0403 21:46:33.825309 24180 net.cpp:141] Setting up conv2/relu_3x3
I0403 21:46:33.825335 24180 net.cpp:148] Top shape: 24 192 56 56 (14450688)
I0403 21:46:33.825387 24180 net.cpp:156] Memory required for data: 361268256
I0403 21:46:33.825402 24180 layer_factory.hpp:77] Creating layer conv2/norm2
I0403 21:46:33.825423 24180 net.cpp:91] Creating Layer conv2/norm2
I0403 21:46:33.825439 24180 net.cpp:425] conv2/norm2 <- conv2/3x3
I0403 21:46:33.825456 24180 net.cpp:399] conv2/norm2 -> conv2/norm2
I0403 21:46:33.825752 24180 net.cpp:141] Setting up conv2/norm2
I0403 21:46:33.825778 24180 net.cpp:148] Top shape: 24 192 56 56 (14450688)
I0403 21:46:33.825793 24180 net.cpp:156] Memory required for data: 419071008
I0403 21:46:33.825806 24180 layer_factory.hpp:77] Creating layer pool2/3x3_s2
I0403 21:46:33.825826 24180 net.cpp:91] Creating Layer pool2/3x3_s2
I0403 21:46:33.825844 24180 net.cpp:425] pool2/3x3_s2 <- conv2/norm2
I0403 21:46:33.825861 24180 net.cpp:399] pool2/3x3_s2 -> pool2/3x3_s2
I0403 21:46:33.825913 24180 net.cpp:141] Setting up pool2/3x3_s2
I0403 21:46:33.825937 24180 net.cpp:148] Top shape: 24 192 28 28 (3612672)
I0403 21:46:33.825953 24180 net.cpp:156] Memory required for data: 433521696
I0403 21:46:33.825968 24180 layer_factory.hpp:77] Creating layer pool2/3x3_s2_pool2/3x3_s2_0_split
I0403 21:46:33.825989 24180 net.cpp:91] Creating Layer pool2/3x3_s2_pool2/3x3_s2_0_split
I0403 21:46:33.826004 24180 net.cpp:425] pool2/3x3_s2_pool2/3x3_s2_0_split <- pool2/3x3_s2
I0403 21:46:33.826022 24180 net.cpp:399] pool2/3x3_s2_pool2/3x3_s2_0_split -> pool2/3x3_s2_pool2/3x3_s2_0_split_0
I0403 21:46:33.826040 24180 net.cpp:399] pool2/3x3_s2_pool2/3x3_s2_0_split -> pool2/3x3_s2_pool2/3x3_s2_0_split_1
I0403 21:46:33.826059 24180 net.cpp:399] pool2/3x3_s2_pool2/3x3_s2_0_split -> pool2/3x3_s2_pool2/3x3_s2_0_split_2
I0403 21:46:33.826079 24180 net.cpp:399] pool2/3x3_s2_pool2/3x3_s2_0_split -> pool2/3x3_s2_pool2/3x3_s2_0_split_3
I0403 21:46:33.826148 24180 net.cpp:141] Setting up pool2/3x3_s2_pool2/3x3_s2_0_split
I0403 21:46:33.826170 24180 net.cpp:148] Top shape: 24 192 28 28 (3612672)
I0403 21:46:33.826202 24180 net.cpp:148] Top shape: 24 192 28 28 (3612672)
I0403 21:46:33.826220 24180 net.cpp:148] Top shape: 24 192 28 28 (3612672)
I0403 21:46:33.826236 24180 net.cpp:148] Top shape: 24 192 28 28 (3612672)
I0403 21:46:33.826251 24180 net.cpp:156] Memory required for data: 491324448
I0403 21:46:33.826267 24180 layer_factory.hpp:77] Creating layer inception_3a/1x1
I0403 21:46:33.826288 24180 net.cpp:91] Creating Layer inception_3a/1x1
I0403 21:46:33.826305 24180 net.cpp:425] inception_3a/1x1 <- pool2/3x3_s2_pool2/3x3_s2_0_split_0
I0403 21:46:33.826328 24180 net.cpp:399] inception_3a/1x1 -> inception_3a/1x1
I0403 21:46:33.827839 24180 net.cpp:141] Setting up inception_3a/1x1
I0403 21:46:33.827872 24180 net.cpp:148] Top shape: 24 64 28 28 (1204224)
I0403 21:46:33.827889 24180 net.cpp:156] Memory required for data: 496141344
I0403 21:46:33.827908 24180 layer_factory.hpp:77] Creating layer inception_3a/relu_1x1
I0403 21:46:33.827925 24180 net.cpp:91] Creating Layer inception_3a/relu_1x1
I0403 21:46:33.827942 24180 net.cpp:425] inception_3a/relu_1x1 <- inception_3a/1x1
I0403 21:46:33.827961 24180 net.cpp:386] inception_3a/relu_1x1 -> inception_3a/1x1 (in-place)
I0403 21:46:33.828130 24180 net.cpp:141] Setting up inception_3a/relu_1x1
I0403 21:46:33.828155 24180 net.cpp:148] Top shape: 24 64 28 28 (1204224)
I0403 21:46:33.828171 24180 net.cpp:156] Memory required for data: 500958240
I0403 21:46:33.828186 24180 layer_factory.hpp:77] Creating layer inception_3a/3x3_reduce
I0403 21:46:33.828220 24180 net.cpp:91] Creating Layer inception_3a/3x3_reduce
I0403 21:46:33.828240 24180 net.cpp:425] inception_3a/3x3_reduce <- pool2/3x3_s2_pool2/3x3_s2_0_split_1
I0403 21:46:33.828261 24180 net.cpp:399] inception_3a/3x3_reduce -> inception_3a/3x3_reduce
I0403 21:46:33.829910 24180 net.cpp:141] Setting up inception_3a/3x3_reduce
I0403 21:46:33.829941 24180 net.cpp:148] Top shape: 24 96 28 28 (1806336)
I0403 21:46:33.829959 24180 net.cpp:156] Memory required for data: 508183584
I0403 21:46:33.829987 24180 layer_factory.hpp:77] Creating layer inception_3a/relu_3x3_reduce
I0403 21:46:33.830023 24180 net.cpp:91] Creating Layer inception_3a/relu_3x3_reduce
I0403 21:46:33.830042 24180 net.cpp:425] inception_3a/relu_3x3_reduce <- inception_3a/3x3_reduce
I0403 21:46:33.830060 24180 net.cpp:386] inception_3a/relu_3x3_reduce -> inception_3a/3x3_reduce (in-place)
I0403 21:46:33.830243 24180 net.cpp:141] Setting up inception_3a/relu_3x3_reduce
I0403 21:46:33.830276 24180 net.cpp:148] Top shape: 24 96 28 28 (1806336)
I0403 21:46:33.830291 24180 net.cpp:156] Memory required for data: 515408928
I0403 21:46:33.830305 24180 layer_factory.hpp:77] Creating layer inception_3a/3x3
I0403 21:46:33.830329 24180 net.cpp:91] Creating Layer inception_3a/3x3
I0403 21:46:33.830346 24180 net.cpp:425] inception_3a/3x3 <- inception_3a/3x3_reduce
I0403 21:46:33.830364 24180 net.cpp:399] inception_3a/3x3 -> inception_3a/3x3
I0403 21:46:33.831948 24180 net.cpp:141] Setting up inception_3a/3x3
I0403 21:46:33.831975 24180 net.cpp:148] Top shape: 24 128 28 28 (2408448)
I0403 21:46:33.831991 24180 net.cpp:156] Memory required for data: 525042720
I0403 21:46:33.832010 24180 layer_factory.hpp:77] Creating layer inception_3a/relu_3x3
I0403 21:46:33.832027 24180 net.cpp:91] Creating Layer inception_3a/relu_3x3
I0403 21:46:33.832043 24180 net.cpp:425] inception_3a/relu_3x3 <- inception_3a/3x3
I0403 21:46:33.832062 24180 net.cpp:386] inception_3a/relu_3x3 -> inception_3a/3x3 (in-place)
I0403 21:46:33.832329 24180 net.cpp:141] Setting up inception_3a/relu_3x3
I0403 21:46:33.832355 24180 net.cpp:148] Top shape: 24 128 28 28 (2408448)
I0403 21:46:33.832370 24180 net.cpp:156] Memory required for data: 534676512
I0403 21:46:33.832386 24180 layer_factory.hpp:77] Creating layer inception_3a/5x5_reduce
I0403 21:46:33.832406 24180 net.cpp:91] Creating Layer inception_3a/5x5_reduce
I0403 21:46:33.832423 24180 net.cpp:425] inception_3a/5x5_reduce <- pool2/3x3_s2_pool2/3x3_s2_0_split_2
I0403 21:46:33.832443 24180 net.cpp:399] inception_3a/5x5_reduce -> inception_3a/5x5_reduce
I0403 21:46:33.833372 24180 net.cpp:141] Setting up inception_3a/5x5_reduce
I0403 21:46:33.833400 24180 net.cpp:148] Top shape: 24 16 28 28 (301056)
I0403 21:46:33.833416 24180 net.cpp:156] Memory required for data: 535880736
I0403 21:46:33.833434 24180 layer_factory.hpp:77] Creating layer inception_3a/relu_5x5_reduce
I0403 21:46:33.833452 24180 net.cpp:91] Creating Layer inception_3a/relu_5x5_reduce
I0403 21:46:33.833468 24180 net.cpp:425] inception_3a/relu_5x5_reduce <- inception_3a/5x5_reduce
I0403 21:46:33.833488 24180 net.cpp:386] inception_3a/relu_5x5_reduce -> inception_3a/5x5_reduce (in-place)
I0403 21:46:33.833786 24180 net.cpp:141] Setting up inception_3a/relu_5x5_reduce
I0403 21:46:33.833812 24180 net.cpp:148] Top shape: 24 16 28 28 (301056)
I0403 21:46:33.833827 24180 net.cpp:156] Memory required for data: 537084960
I0403 21:46:33.833842 24180 layer_factory.hpp:77] Creating layer inception_3a/5x5
I0403 21:46:33.833863 24180 net.cpp:91] Creating Layer inception_3a/5x5
I0403 21:46:33.833880 24180 net.cpp:425] inception_3a/5x5 <- inception_3a/5x5_reduce
I0403 21:46:33.833914 24180 net.cpp:399] inception_3a/5x5 -> inception_3a/5x5
I0403 21:46:33.834913 24180 net.cpp:141] Setting up inception_3a/5x5
I0403 21:46:33.834942 24180 net.cpp:148] Top shape: 24 32 28 28 (602112)
I0403 21:46:33.834959 24180 net.cpp:156] Memory required for data: 539493408
I0403 21:46:33.834980 24180 layer_factory.hpp:77] Creating layer inception_3a/relu_5x5
I0403 21:46:33.834997 24180 net.cpp:91] Creating Layer inception_3a/relu_5x5
I0403 21:46:33.835012 24180 net.cpp:425] inception_3a/relu_5x5 <- inception_3a/5x5
I0403 21:46:33.835032 24180 net.cpp:386] inception_3a/relu_5x5 -> inception_3a/5x5 (in-place)
I0403 21:46:33.835202 24180 net.cpp:141] Setting up inception_3a/relu_5x5
I0403 21:46:33.835227 24180 net.cpp:148] Top shape: 24 32 28 28 (602112)
I0403 21:46:33.835242 24180 net.cpp:156] Memory required for data: 541901856
I0403 21:46:33.835256 24180 layer_factory.hpp:77] Creating layer inception_3a/pool
I0403 21:46:33.835273 24180 net.cpp:91] Creating Layer inception_3a/pool
I0403 21:46:33.835305 24180 net.cpp:425] inception_3a/pool <- pool2/3x3_s2_pool2/3x3_s2_0_split_3
I0403 21:46:33.835325 24180 net.cpp:399] inception_3a/pool -> inception_3a/pool
I0403 21:46:33.835381 24180 net.cpp:141] Setting up inception_3a/pool
I0403 21:46:33.835405 24180 net.cpp:148] Top shape: 24 192 28 28 (3612672)
I0403 21:46:33.835420 24180 net.cpp:156] Memory required for data: 556352544
I0403 21:46:33.835435 24180 layer_factory.hpp:77] Creating layer inception_3a/pool_proj
I0403 21:46:33.835456 24180 net.cpp:91] Creating Layer inception_3a/pool_proj
I0403 21:46:33.835474 24180 net.cpp:425] inception_3a/pool_proj <- inception_3a/pool
I0403 21:46:33.835496 24180 net.cpp:399] inception_3a/pool_proj -> inception_3a/pool_proj
I0403 21:46:33.836431 24180 net.cpp:141] Setting up inception_3a/pool_proj
I0403 21:46:33.836459 24180 net.cpp:148] Top shape: 24 32 28 28 (602112)
I0403 21:46:33.836474 24180 net.cpp:156] Memory required for data: 558760992
I0403 21:46:33.836498 24180 layer_factory.hpp:77] Creating layer inception_3a/relu_pool_proj
I0403 21:46:33.836516 24180 net.cpp:91] Creating Layer inception_3a/relu_pool_proj
I0403 21:46:33.836534 24180 net.cpp:425] inception_3a/relu_pool_proj <- inception_3a/pool_proj
I0403 21:46:33.836552 24180 net.cpp:386] inception_3a/relu_pool_proj -> inception_3a/pool_proj (in-place)
I0403 21:46:33.836825 24180 net.cpp:141] Setting up inception_3a/relu_pool_proj
I0403 21:46:33.836851 24180 net.cpp:148] Top shape: 24 32 28 28 (602112)
I0403 21:46:33.836866 24180 net.cpp:156] Memory required for data: 561169440
I0403 21:46:33.836882 24180 layer_factory.hpp:77] Creating layer inception_3a/output
I0403 21:46:33.836900 24180 net.cpp:91] Creating Layer inception_3a/output
I0403 21:46:33.836917 24180 net.cpp:425] inception_3a/output <- inception_3a/1x1
I0403 21:46:33.836935 24180 net.cpp:425] inception_3a/output <- inception_3a/3x3
I0403 21:46:33.836951 24180 net.cpp:425] inception_3a/output <- inception_3a/5x5
I0403 21:46:33.836966 24180 net.cpp:425] inception_3a/output <- inception_3a/pool_proj
I0403 21:46:33.836985 24180 net.cpp:399] inception_3a/output -> inception_3a/output
I0403 21:46:33.837030 24180 net.cpp:141] Setting up inception_3a/output
I0403 21:46:33.837056 24180 net.cpp:148] Top shape: 24 256 28 28 (4816896)
I0403 21:46:33.837074 24180 net.cpp:156] Memory required for data: 580437024
I0403 21:46:33.837088 24180 layer_factory.hpp:77] Creating layer inception_3a/output_inception_3a/output_0_split
I0403 21:46:33.837105 24180 net.cpp:91] Creating Layer inception_3a/output_inception_3a/output_0_split
I0403 21:46:33.837121 24180 net.cpp:425] inception_3a/output_inception_3a/output_0_split <- inception_3a/output
I0403 21:46:33.837138 24180 net.cpp:399] inception_3a/output_inception_3a/output_0_split -> inception_3a/output_inception_3a/output_0_split_0
I0403 21:46:33.837157 24180 net.cpp:399] inception_3a/output_inception_3a/output_0_split -> inception_3a/output_inception_3a/output_0_split_1
I0403 21:46:33.837182 24180 net.cpp:399] inception_3a/output_inception_3a/output_0_split -> inception_3a/output_inception_3a/output_0_split_2
I0403 21:46:33.837208 24180 net.cpp:399] inception_3a/output_inception_3a/output_0_split -> inception_3a/output_inception_3a/output_0_split_3
I0403 21:46:33.837283 24180 net.cpp:141] Setting up inception_3a/output_inception_3a/output_0_split
I0403 21:46:33.837308 24180 net.cpp:148] Top shape: 24 256 28 28 (4816896)
I0403 21:46:33.837326 24180 net.cpp:148] Top shape: 24 256 28 28 (4816896)
I0403 21:46:33.837342 24180 net.cpp:148] Top shape: 24 256 28 28 (4816896)
I0403 21:46:33.837357 24180 net.cpp:148] Top shape: 24 256 28 28 (4816896)
I0403 21:46:33.837371 24180 net.cpp:156] Memory required for data: 657507360
I0403 21:46:33.837386 24180 layer_factory.hpp:77] Creating layer inception_3b/1x1
I0403 21:46:33.837409 24180 net.cpp:91] Creating Layer inception_3b/1x1
I0403 21:46:33.837425 24180 net.cpp:425] inception_3b/1x1 <- inception_3a/output_inception_3a/output_0_split_0
I0403 21:46:33.837445 24180 net.cpp:399] inception_3b/1x1 -> inception_3b/1x1
I0403 21:46:33.838582 24180 net.cpp:141] Setting up inception_3b/1x1
I0403 21:46:33.838621 24180 net.cpp:148] Top shape: 24 128 28 28 (2408448)
I0403 21:46:33.838639 24180 net.cpp:156] Memory required for data: 667141152
I0403 21:46:33.838659 24180 layer_factory.hpp:77] Creating layer inception_3b/relu_1x1
I0403 21:46:33.838677 24180 net.cpp:91] Creating Layer inception_3b/relu_1x1
I0403 21:46:33.838695 24180 net.cpp:425] inception_3b/relu_1x1 <- inception_3b/1x1
I0403 21:46:33.838712 24180 net.cpp:386] inception_3b/relu_1x1 -> inception_3b/1x1 (in-place)
I0403 21:46:33.838884 24180 net.cpp:141] Setting up inception_3b/relu_1x1
I0403 21:46:33.838910 24180 net.cpp:148] Top shape: 24 128 28 28 (2408448)
I0403 21:46:33.838925 24180 net.cpp:156] Memory required for data: 676774944
I0403 21:46:33.838940 24180 layer_factory.hpp:77] Creating layer inception_3b/3x3_reduce
I0403 21:46:33.838963 24180 net.cpp:91] Creating Layer inception_3b/3x3_reduce
I0403 21:46:33.838981 24180 net.cpp:425] inception_3b/3x3_reduce <- inception_3a/output_inception_3a/output_0_split_1
I0403 21:46:33.839004 24180 net.cpp:399] inception_3b/3x3_reduce -> inception_3b/3x3_reduce
I0403 21:46:33.840096 24180 net.cpp:141] Setting up inception_3b/3x3_reduce
I0403 21:46:33.840127 24180 net.cpp:148] Top shape: 24 128 28 28 (2408448)
I0403 21:46:33.840144 24180 net.cpp:156] Memory required for data: 686408736
I0403 21:46:33.840163 24180 layer_factory.hpp:77] Creating layer inception_3b/relu_3x3_reduce
I0403 21:46:33.840181 24180 net.cpp:91] Creating Layer inception_3b/relu_3x3_reduce
I0403 21:46:33.840203 24180 net.cpp:425] inception_3b/relu_3x3_reduce <- inception_3b/3x3_reduce
I0403 21:46:33.840220 24180 net.cpp:386] inception_3b/relu_3x3_reduce -> inception_3b/3x3_reduce (in-place)
I0403 21:46:33.840392 24180 net.cpp:141] Setting up inception_3b/relu_3x3_reduce
I0403 21:46:33.840416 24180 net.cpp:148] Top shape: 24 128 28 28 (2408448)
I0403 21:46:33.840431 24180 net.cpp:156] Memory required for data: 696042528
I0403 21:46:33.840446 24180 layer_factory.hpp:77] Creating layer inception_3b/3x3
I0403 21:46:33.840469 24180 net.cpp:91] Creating Layer inception_3b/3x3
I0403 21:46:33.840487 24180 net.cpp:425] inception_3b/3x3 <- inception_3b/3x3_reduce
I0403 21:46:33.840508 24180 net.cpp:399] inception_3b/3x3 -> inception_3b/3x3
I0403 21:46:33.843400 24180 net.cpp:141] Setting up inception_3b/3x3
I0403 21:46:33.843430 24180 net.cpp:148] Top shape: 24 192 28 28 (3612672)
I0403 21:46:33.843446 24180 net.cpp:156] Memory required for data: 710493216
I0403 21:46:33.843464 24180 layer_factory.hpp:77] Creating layer inception_3b/relu_3x3
I0403 21:46:33.843482 24180 net.cpp:91] Creating Layer inception_3b/relu_3x3
I0403 21:46:33.843497 24180 net.cpp:425] inception_3b/relu_3x3 <- inception_3b/3x3
I0403 21:46:33.843516 24180 net.cpp:386] inception_3b/relu_3x3 -> inception_3b/3x3 (in-place)
I0403 21:46:33.843786 24180 net.cpp:141] Setting up inception_3b/relu_3x3
I0403 21:46:33.843812 24180 net.cpp:148] Top shape: 24 192 28 28 (3612672)
I0403 21:46:33.843827 24180 net.cpp:156] Memory required for data: 724943904
I0403 21:46:33.843842 24180 layer_factory.hpp:77] Creating layer inception_3b/5x5_reduce
I0403 21:46:33.843864 24180 net.cpp:91] Creating Layer inception_3b/5x5_reduce
I0403 21:46:33.843881 24180 net.cpp:425] inception_3b/5x5_reduce <- inception_3a/output_inception_3a/output_0_split_2
I0403 21:46:33.843905 24180 net.cpp:399] inception_3b/5x5_reduce -> inception_3b/5x5_reduce
I0403 21:46:33.844893 24180 net.cpp:141] Setting up inception_3b/5x5_reduce
I0403 21:46:33.844921 24180 net.cpp:148] Top shape: 24 32 28 28 (602112)
I0403 21:46:33.844938 24180 net.cpp:156] Memory required for data: 727352352
I0403 21:46:33.844957 24180 layer_factory.hpp:77] Creating layer inception_3b/relu_5x5_reduce
I0403 21:46:33.844974 24180 net.cpp:91] Creating Layer inception_3b/relu_5x5_reduce
I0403 21:46:33.844990 24180 net.cpp:425] inception_3b/relu_5x5_reduce <- inception_3b/5x5_reduce
I0403 21:46:33.845007 24180 net.cpp:386] inception_3b/relu_5x5_reduce -> inception_3b/5x5_reduce (in-place)
I0403 21:46:33.845191 24180 net.cpp:141] Setting up inception_3b/relu_5x5_reduce
I0403 21:46:33.845221 24180 net.cpp:148] Top shape: 24 32 28 28 (602112)
I0403 21:46:33.845237 24180 net.cpp:156] Memory required for data: 729760800
I0403 21:46:33.845252 24180 layer_factory.hpp:77] Creating layer inception_3b/5x5
I0403 21:46:33.845273 24180 net.cpp:91] Creating Layer inception_3b/5x5
I0403 21:46:33.845290 24180 net.cpp:425] inception_3b/5x5 <- inception_3b/5x5_reduce
I0403 21:46:33.845311 24180 net.cpp:399] inception_3b/5x5 -> inception_3b/5x5
I0403 21:46:33.847224 24180 net.cpp:141] Setting up inception_3b/5x5
I0403 21:46:33.847254 24180 net.cpp:148] Top shape: 24 96 28 28 (1806336)
I0403 21:46:33.847271 24180 net.cpp:156] Memory required for data: 736986144
I0403 21:46:33.847290 24180 layer_factory.hpp:77] Creating layer inception_3b/relu_5x5
I0403 21:46:33.847308 24180 net.cpp:91] Creating Layer inception_3b/relu_5x5
I0403 21:46:33.847324 24180 net.cpp:425] inception_3b/relu_5x5 <- inception_3b/5x5
I0403 21:46:33.847342 24180 net.cpp:386] inception_3b/relu_5x5 -> inception_3b/5x5 (in-place)
I0403 21:46:33.847528 24180 net.cpp:141] Setting up inception_3b/relu_5x5
I0403 21:46:33.847553 24180 net.cpp:148] Top shape: 24 96 28 28 (1806336)
I0403 21:46:33.847568 24180 net.cpp:156] Memory required for data: 744211488
I0403 21:46:33.847584 24180 layer_factory.hpp:77] Creating layer inception_3b/pool
I0403 21:46:33.847601 24180 net.cpp:91] Creating Layer inception_3b/pool
I0403 21:46:33.847617 24180 net.cpp:425] inception_3b/pool <- inception_3a/output_inception_3a/output_0_split_3
I0403 21:46:33.847636 24180 net.cpp:399] inception_3b/pool -> inception_3b/pool
I0403 21:46:33.847689 24180 net.cpp:141] Setting up inception_3b/pool
I0403 21:46:33.847714 24180 net.cpp:148] Top shape: 24 256 28 28 (4816896)
I0403 21:46:33.847730 24180 net.cpp:156] Memory required for data: 763479072
I0403 21:46:33.847745 24180 layer_factory.hpp:77] Creating layer inception_3b/pool_proj
I0403 21:46:33.847766 24180 net.cpp:91] Creating Layer inception_3b/pool_proj
I0403 21:46:33.847784 24180 net.cpp:425] inception_3b/pool_proj <- inception_3b/pool
I0403 21:46:33.847802 24180 net.cpp:399] inception_3b/pool_proj -> inception_3b/pool_proj
I0403 21:46:33.848835 24180 net.cpp:141] Setting up inception_3b/pool_proj
I0403 21:46:33.848863 24180 net.cpp:148] Top shape: 24 64 28 28 (1204224)
I0403 21:46:33.848878 24180 net.cpp:156] Memory required for data: 768295968
I0403 21:46:33.848897 24180 layer_factory.hpp:77] Creating layer inception_3b/relu_pool_proj
I0403 21:46:33.848917 24180 net.cpp:91] Creating Layer inception_3b/relu_pool_proj
I0403 21:46:33.848934 24180 net.cpp:425] inception_3b/relu_pool_proj <- inception_3b/pool_proj
I0403 21:46:33.848954 24180 net.cpp:386] inception_3b/relu_pool_proj -> inception_3b/pool_proj (in-place)
I0403 21:46:33.849344 24180 net.cpp:141] Setting up inception_3b/relu_pool_proj
I0403 21:46:33.849370 24180 net.cpp:148] Top shape: 24 64 28 28 (1204224)
I0403 21:46:33.849385 24180 net.cpp:156] Memory required for data: 773112864
I0403 21:46:33.849400 24180 layer_factory.hpp:77] Creating layer inception_3b/output
I0403 21:46:33.849417 24180 net.cpp:91] Creating Layer inception_3b/output
I0403 21:46:33.849432 24180 net.cpp:425] inception_3b/output <- inception_3b/1x1
I0403 21:46:33.849449 24180 net.cpp:425] inception_3b/output <- inception_3b/3x3
I0403 21:46:33.849465 24180 net.cpp:425] inception_3b/output <- inception_3b/5x5
I0403 21:46:33.849480 24180 net.cpp:425] inception_3b/output <- inception_3b/pool_proj
I0403 21:46:33.849499 24180 net.cpp:399] inception_3b/output -> inception_3b/output
I0403 21:46:33.849542 24180 net.cpp:141] Setting up inception_3b/output
I0403 21:46:33.849568 24180 net.cpp:148] Top shape: 24 480 28 28 (9031680)
I0403 21:46:33.849583 24180 net.cpp:156] Memory required for data: 809239584
I0403 21:46:33.849598 24180 layer_factory.hpp:77] Creating layer pool3/3x3_s2
I0403 21:46:33.849616 24180 net.cpp:91] Creating Layer pool3/3x3_s2
I0403 21:46:33.849630 24180 net.cpp:425] pool3/3x3_s2 <- inception_3b/output
I0403 21:46:33.849665 24180 net.cpp:399] pool3/3x3_s2 -> pool3/3x3_s2
I0403 21:46:33.849723 24180 net.cpp:141] Setting up pool3/3x3_s2
I0403 21:46:33.849747 24180 net.cpp:148] Top shape: 24 480 14 14 (2257920)
I0403 21:46:33.849762 24180 net.cpp:156] Memory required for data: 818271264
I0403 21:46:33.849776 24180 layer_factory.hpp:77] Creating layer pool3/3x3_s2_pool3/3x3_s2_0_split
I0403 21:46:33.849795 24180 net.cpp:91] Creating Layer pool3/3x3_s2_pool3/3x3_s2_0_split
I0403 21:46:33.849812 24180 net.cpp:425] pool3/3x3_s2_pool3/3x3_s2_0_split <- pool3/3x3_s2
I0403 21:46:33.849828 24180 net.cpp:399] pool3/3x3_s2_pool3/3x3_s2_0_split -> pool3/3x3_s2_pool3/3x3_s2_0_split_0
I0403 21:46:33.849848 24180 net.cpp:399] pool3/3x3_s2_pool3/3x3_s2_0_split -> pool3/3x3_s2_pool3/3x3_s2_0_split_1
I0403 21:46:33.849871 24180 net.cpp:399] pool3/3x3_s2_pool3/3x3_s2_0_split -> pool3/3x3_s2_pool3/3x3_s2_0_split_2
I0403 21:46:33.849892 24180 net.cpp:399] pool3/3x3_s2_pool3/3x3_s2_0_split -> pool3/3x3_s2_pool3/3x3_s2_0_split_3
I0403 21:46:33.849964 24180 net.cpp:141] Setting up pool3/3x3_s2_pool3/3x3_s2_0_split
I0403 21:46:33.849988 24180 net.cpp:148] Top shape: 24 480 14 14 (2257920)
I0403 21:46:33.850004 24180 net.cpp:148] Top shape: 24 480 14 14 (2257920)
I0403 21:46:33.850019 24180 net.cpp:148] Top shape: 24 480 14 14 (2257920)
I0403 21:46:33.850033 24180 net.cpp:148] Top shape: 24 480 14 14 (2257920)
I0403 21:46:33.850047 24180 net.cpp:156] Memory required for data: 854397984
I0403 21:46:33.850061 24180 layer_factory.hpp:77] Creating layer inception_4a/1x1
I0403 21:46:33.850083 24180 net.cpp:91] Creating Layer inception_4a/1x1
I0403 21:46:33.850101 24180 net.cpp:425] inception_4a/1x1 <- pool3/3x3_s2_pool3/3x3_s2_0_split_0
I0403 21:46:33.850122 24180 net.cpp:399] inception_4a/1x1 -> inception_4a/1x1
I0403 21:46:33.851639 24180 net.cpp:141] Setting up inception_4a/1x1
I0403 21:46:33.851665 24180 net.cpp:148] Top shape: 24 192 14 14 (903168)
I0403 21:46:33.851681 24180 net.cpp:156] Memory required for data: 858010656
I0403 21:46:33.851699 24180 layer_factory.hpp:77] Creating layer inception_4a/relu_1x1
I0403 21:46:33.851719 24180 net.cpp:91] Creating Layer inception_4a/relu_1x1
I0403 21:46:33.851737 24180 net.cpp:425] inception_4a/relu_1x1 <- inception_4a/1x1
I0403 21:46:33.851754 24180 net.cpp:386] inception_4a/relu_1x1 -> inception_4a/1x1 (in-place)
I0403 21:46:33.851924 24180 net.cpp:141] Setting up inception_4a/relu_1x1
I0403 21:46:33.851951 24180 net.cpp:148] Top shape: 24 192 14 14 (903168)
I0403 21:46:33.851968 24180 net.cpp:156] Memory required for data: 861623328
I0403 21:46:33.851982 24180 layer_factory.hpp:77] Creating layer inception_4a/3x3_reduce
I0403 21:46:33.852005 24180 net.cpp:91] Creating Layer inception_4a/3x3_reduce
I0403 21:46:33.852022 24180 net.cpp:425] inception_4a/3x3_reduce <- pool3/3x3_s2_pool3/3x3_s2_0_split_1
I0403 21:46:33.852041 24180 net.cpp:399] inception_4a/3x3_reduce -> inception_4a/3x3_reduce
I0403 21:46:33.853261 24180 net.cpp:141] Setting up inception_4a/3x3_reduce
I0403 21:46:33.853289 24180 net.cpp:148] Top shape: 24 96 14 14 (451584)
I0403 21:46:33.853304 24180 net.cpp:156] Memory required for data: 863429664
I0403 21:46:33.853329 24180 layer_factory.hpp:77] Creating layer inception_4a/relu_3x3_reduce
I0403 21:46:33.853350 24180 net.cpp:91] Creating Layer inception_4a/relu_3x3_reduce
I0403 21:46:33.853368 24180 net.cpp:425] inception_4a/relu_3x3_reduce <- inception_4a/3x3_reduce
I0403 21:46:33.853385 24180 net.cpp:386] inception_4a/relu_3x3_reduce -> inception_4a/3x3_reduce (in-place)
I0403 21:46:33.853554 24180 net.cpp:141] Setting up inception_4a/relu_3x3_reduce
I0403 21:46:33.853579 24180 net.cpp:148] Top shape: 24 96 14 14 (451584)
I0403 21:46:33.853595 24180 net.cpp:156] Memory required for data: 865236000
I0403 21:46:33.853610 24180 layer_factory.hpp:77] Creating layer inception_4a/3x3
I0403 21:46:33.853633 24180 net.cpp:91] Creating Layer inception_4a/3x3
I0403 21:46:33.853651 24180 net.cpp:425] inception_4a/3x3 <- inception_4a/3x3_reduce
I0403 21:46:33.853670 24180 net.cpp:399] inception_4a/3x3 -> inception_4a/3x3
I0403 21:46:33.856326 24180 net.cpp:141] Setting up inception_4a/3x3
I0403 21:46:33.856358 24180 net.cpp:148] Top shape: 24 208 14 14 (978432)
I0403 21:46:33.856374 24180 net.cpp:156] Memory required for data: 869149728
I0403 21:46:33.856392 24180 layer_factory.hpp:77] Creating layer inception_4a/relu_3x3
I0403 21:46:33.856410 24180 net.cpp:91] Creating Layer inception_4a/relu_3x3
I0403 21:46:33.856426 24180 net.cpp:425] inception_4a/relu_3x3 <- inception_4a/3x3
I0403 21:46:33.856441 24180 net.cpp:386] inception_4a/relu_3x3 -> inception_4a/3x3 (in-place)
I0403 21:46:33.856714 24180 net.cpp:141] Setting up inception_4a/relu_3x3
I0403 21:46:33.856742 24180 net.cpp:148] Top shape: 24 208 14 14 (978432)
I0403 21:46:33.856758 24180 net.cpp:156] Memory required for data: 873063456
I0403 21:46:33.856773 24180 layer_factory.hpp:77] Creating layer inception_4a/5x5_reduce
I0403 21:46:33.856796 24180 net.cpp:91] Creating Layer inception_4a/5x5_reduce
I0403 21:46:33.856812 24180 net.cpp:425] inception_4a/5x5_reduce <- pool3/3x3_s2_pool3/3x3_s2_0_split_2
I0403 21:46:33.856832 24180 net.cpp:399] inception_4a/5x5_reduce -> inception_4a/5x5_reduce
I0403 21:46:33.857826 24180 net.cpp:141] Setting up inception_4a/5x5_reduce
I0403 21:46:33.857856 24180 net.cpp:148] Top shape: 24 16 14 14 (75264)
I0403 21:46:33.857874 24180 net.cpp:156] Memory required for data: 873364512
I0403 21:46:33.857892 24180 layer_factory.hpp:77] Creating layer inception_4a/relu_5x5_reduce
I0403 21:46:33.857909 24180 net.cpp:91] Creating Layer inception_4a/relu_5x5_reduce
I0403 21:46:33.857925 24180 net.cpp:425] inception_4a/relu_5x5_reduce <- inception_4a/5x5_reduce
I0403 21:46:33.857945 24180 net.cpp:386] inception_4a/relu_5x5_reduce -> inception_4a/5x5_reduce (in-place)
I0403 21:46:33.858126 24180 net.cpp:141] Setting up inception_4a/relu_5x5_reduce
I0403 21:46:33.858151 24180 net.cpp:148] Top shape: 24 16 14 14 (75264)
I0403 21:46:33.858166 24180 net.cpp:156] Memory required for data: 873665568
I0403 21:46:33.858192 24180 layer_factory.hpp:77] Creating layer inception_4a/5x5
I0403 21:46:33.858227 24180 net.cpp:91] Creating Layer inception_4a/5x5
I0403 21:46:33.858247 24180 net.cpp:425] inception_4a/5x5 <- inception_4a/5x5_reduce
I0403 21:46:33.858268 24180 net.cpp:399] inception_4a/5x5 -> inception_4a/5x5
I0403 21:46:33.859360 24180 net.cpp:141] Setting up inception_4a/5x5
I0403 21:46:33.859390 24180 net.cpp:148] Top shape: 24 48 14 14 (225792)
I0403 21:46:33.859405 24180 net.cpp:156] Memory required for data: 874568736
I0403 21:46:33.859423 24180 layer_factory.hpp:77] Creating layer inception_4a/relu_5x5
I0403 21:46:33.859444 24180 net.cpp:91] Creating Layer inception_4a/relu_5x5
I0403 21:46:33.859474 24180 net.cpp:425] inception_4a/relu_5x5 <- inception_4a/5x5
I0403 21:46:33.859493 24180 net.cpp:386] inception_4a/relu_5x5 -> inception_4a/5x5 (in-place)
I0403 21:46:33.859668 24180 net.cpp:141] Setting up inception_4a/relu_5x5
I0403 21:46:33.859693 24180 net.cpp:148] Top shape: 24 48 14 14 (225792)
I0403 21:46:33.859710 24180 net.cpp:156] Memory required for data: 875471904
I0403 21:46:33.859725 24180 layer_factory.hpp:77] Creating layer inception_4a/pool
I0403 21:46:33.859742 24180 net.cpp:91] Creating Layer inception_4a/pool
I0403 21:46:33.859760 24180 net.cpp:425] inception_4a/pool <- pool3/3x3_s2_pool3/3x3_s2_0_split_3
I0403 21:46:33.859777 24180 net.cpp:399] inception_4a/pool -> inception_4a/pool
I0403 21:46:33.859836 24180 net.cpp:141] Setting up inception_4a/pool
I0403 21:46:33.859859 24180 net.cpp:148] Top shape: 24 480 14 14 (2257920)
I0403 21:46:33.859874 24180 net.cpp:156] Memory required for data: 884503584
I0403 21:46:33.859889 24180 layer_factory.hpp:77] Creating layer inception_4a/pool_proj
I0403 21:46:33.859911 24180 net.cpp:91] Creating Layer inception_4a/pool_proj
I0403 21:46:33.859927 24180 net.cpp:425] inception_4a/pool_proj <- inception_4a/pool
I0403 21:46:33.859949 24180 net.cpp:399] inception_4a/pool_proj -> inception_4a/pool_proj
I0403 21:46:33.861115 24180 net.cpp:141] Setting up inception_4a/pool_proj
I0403 21:46:33.861145 24180 net.cpp:148] Top shape: 24 64 14 14 (301056)
I0403 21:46:33.861177 24180 net.cpp:156] Memory required for data: 885707808
I0403 21:46:33.861202 24180 layer_factory.hpp:77] Creating layer inception_4a/relu_pool_proj
I0403 21:46:33.861227 24180 net.cpp:91] Creating Layer inception_4a/relu_pool_proj
I0403 21:46:33.861248 24180 net.cpp:425] inception_4a/relu_pool_proj <- inception_4a/pool_proj
I0403 21:46:33.861276 24180 net.cpp:386] inception_4a/relu_pool_proj -> inception_4a/pool_proj (in-place)
I0403 21:46:33.861568 24180 net.cpp:141] Setting up inception_4a/relu_pool_proj
I0403 21:46:33.861594 24180 net.cpp:148] Top shape: 24 64 14 14 (301056)
I0403 21:46:33.861609 24180 net.cpp:156] Memory required for data: 886912032
I0403 21:46:33.861624 24180 layer_factory.hpp:77] Creating layer inception_4a/output
I0403 21:46:33.861641 24180 net.cpp:91] Creating Layer inception_4a/output
I0403 21:46:33.861656 24180 net.cpp:425] inception_4a/output <- inception_4a/1x1
I0403 21:46:33.861675 24180 net.cpp:425] inception_4a/output <- inception_4a/3x3
I0403 21:46:33.861691 24180 net.cpp:425] inception_4a/output <- inception_4a/5x5
I0403 21:46:33.861706 24180 net.cpp:425] inception_4a/output <- inception_4a/pool_proj
I0403 21:46:33.861723 24180 net.cpp:399] inception_4a/output -> inception_4a/output
I0403 21:46:33.861769 24180 net.cpp:141] Setting up inception_4a/output
I0403 21:46:33.861793 24180 net.cpp:148] Top shape: 24 512 14 14 (2408448)
I0403 21:46:33.861807 24180 net.cpp:156] Memory required for data: 896545824
I0403 21:46:33.861821 24180 layer_factory.hpp:77] Creating layer inception_4a/output_inception_4a/output_0_split
I0403 21:46:33.861838 24180 net.cpp:91] Creating Layer inception_4a/output_inception_4a/output_0_split
I0403 21:46:33.861855 24180 net.cpp:425] inception_4a/output_inception_4a/output_0_split <- inception_4a/output
I0403 21:46:33.861874 24180 net.cpp:399] inception_4a/output_inception_4a/output_0_split -> inception_4a/output_inception_4a/output_0_split_0
I0403 21:46:33.861894 24180 net.cpp:399] inception_4a/output_inception_4a/output_0_split -> inception_4a/output_inception_4a/output_0_split_1
I0403 21:46:33.861914 24180 net.cpp:399] inception_4a/output_inception_4a/output_0_split -> inception_4a/output_inception_4a/output_0_split_2
I0403 21:46:33.861937 24180 net.cpp:399] inception_4a/output_inception_4a/output_0_split -> inception_4a/output_inception_4a/output_0_split_3
I0403 21:46:33.861958 24180 net.cpp:399] inception_4a/output_inception_4a/output_0_split -> inception_4a/output_inception_4a/output_0_split_4
I0403 21:46:33.862048 24180 net.cpp:141] Setting up inception_4a/output_inception_4a/output_0_split
I0403 21:46:33.862071 24180 net.cpp:148] Top shape: 24 512 14 14 (2408448)
I0403 21:46:33.862087 24180 net.cpp:148] Top shape: 24 512 14 14 (2408448)
I0403 21:46:33.862103 24180 net.cpp:148] Top shape: 24 512 14 14 (2408448)
I0403 21:46:33.862118 24180 net.cpp:148] Top shape: 24 512 14 14 (2408448)
I0403 21:46:33.862133 24180 net.cpp:148] Top shape: 24 512 14 14 (2408448)
I0403 21:46:33.862148 24180 net.cpp:156] Memory required for data: 944714784
I0403 21:46:33.862162 24180 layer_factory.hpp:77] Creating layer loss1/ave_pool
I0403 21:46:33.862179 24180 net.cpp:91] Creating Layer loss1/ave_pool
I0403 21:46:33.862195 24180 net.cpp:425] loss1/ave_pool <- inception_4a/output_inception_4a/output_0_split_0
I0403 21:46:33.862218 24180 net.cpp:399] loss1/ave_pool -> loss1/ave_pool
I0403 21:46:33.862416 24180 net.cpp:141] Setting up loss1/ave_pool
I0403 21:46:33.862442 24180 net.cpp:148] Top shape: 24 512 4 4 (196608)
I0403 21:46:33.862457 24180 net.cpp:156] Memory required for data: 945501216
I0403 21:46:33.862473 24180 layer_factory.hpp:77] Creating layer loss1/conv
I0403 21:46:33.862493 24180 net.cpp:91] Creating Layer loss1/conv
I0403 21:46:33.862510 24180 net.cpp:425] loss1/conv <- loss1/ave_pool
I0403 21:46:33.862530 24180 net.cpp:399] loss1/conv -> loss1/conv
I0403 21:46:33.863899 24180 net.cpp:141] Setting up loss1/conv
I0403 21:46:33.863930 24180 net.cpp:148] Top shape: 24 128 4 4 (49152)
I0403 21:46:33.863961 24180 net.cpp:156] Memory required for data: 945697824
I0403 21:46:33.863981 24180 layer_factory.hpp:77] Creating layer loss1/relu_conv
I0403 21:46:33.863998 24180 net.cpp:91] Creating Layer loss1/relu_conv
I0403 21:46:33.864014 24180 net.cpp:425] loss1/relu_conv <- loss1/conv
I0403 21:46:33.864032 24180 net.cpp:386] loss1/relu_conv -> loss1/conv (in-place)
I0403 21:46:33.864310 24180 net.cpp:141] Setting up loss1/relu_conv
I0403 21:46:33.864341 24180 net.cpp:148] Top shape: 24 128 4 4 (49152)
I0403 21:46:33.864358 24180 net.cpp:156] Memory required for data: 945894432
I0403 21:46:33.864374 24180 layer_factory.hpp:77] Creating layer loss1/fc
I0403 21:46:33.864398 24180 net.cpp:91] Creating Layer loss1/fc
I0403 21:46:33.864415 24180 net.cpp:425] loss1/fc <- loss1/conv
I0403 21:46:33.864436 24180 net.cpp:399] loss1/fc -> loss1/fc
I0403 21:46:33.881893 24180 net.cpp:141] Setting up loss1/fc
I0403 21:46:33.881927 24180 net.cpp:148] Top shape: 24 1024 (24576)
I0403 21:46:33.881944 24180 net.cpp:156] Memory required for data: 945992736
I0403 21:46:33.881965 24180 layer_factory.hpp:77] Creating layer loss1/relu_fc
I0403 21:46:33.881986 24180 net.cpp:91] Creating Layer loss1/relu_fc
I0403 21:46:33.882004 24180 net.cpp:425] loss1/relu_fc <- loss1/fc
I0403 21:46:33.882020 24180 net.cpp:386] loss1/relu_fc -> loss1/fc (in-place)
I0403 21:46:33.882206 24180 net.cpp:141] Setting up loss1/relu_fc
I0403 21:46:33.882233 24180 net.cpp:148] Top shape: 24 1024 (24576)
I0403 21:46:33.882249 24180 net.cpp:156] Memory required for data: 946091040
I0403 21:46:33.882264 24180 layer_factory.hpp:77] Creating layer loss1/drop_fc
I0403 21:46:33.882289 24180 net.cpp:91] Creating Layer loss1/drop_fc
I0403 21:46:33.882308 24180 net.cpp:425] loss1/drop_fc <- loss1/fc
I0403 21:46:33.882324 24180 net.cpp:386] loss1/drop_fc -> loss1/fc (in-place)
I0403 21:46:33.882376 24180 net.cpp:141] Setting up loss1/drop_fc
I0403 21:46:33.882400 24180 net.cpp:148] Top shape: 24 1024 (24576)
I0403 21:46:33.882414 24180 net.cpp:156] Memory required for data: 946189344
I0403 21:46:33.882429 24180 layer_factory.hpp:77] Creating layer loss1/classifier_plantvillage
I0403 21:46:33.882450 24180 net.cpp:91] Creating Layer loss1/classifier_plantvillage
I0403 21:46:33.882467 24180 net.cpp:425] loss1/classifier_plantvillage <- loss1/fc
I0403 21:46:33.882485 24180 net.cpp:399] loss1/classifier_plantvillage -> loss1/classifier_plantvillage
I0403 21:46:33.883385 24180 net.cpp:141] Setting up loss1/classifier_plantvillage
I0403 21:46:33.883420 24180 net.cpp:148] Top shape: 24 38 (912)
I0403 21:46:33.883437 24180 net.cpp:156] Memory required for data: 946192992
I0403 21:46:33.883455 24180 layer_factory.hpp:77] Creating layer loss1/classifier_plantvillage_loss1/classifier_plantvillage_0_split
I0403 21:46:33.883473 24180 net.cpp:91] Creating Layer loss1/classifier_plantvillage_loss1/classifier_plantvillage_0_split
I0403 21:46:33.883491 24180 net.cpp:425] loss1/classifier_plantvillage_loss1/classifier_plantvillage_0_split <- loss1/classifier_plantvillage
I0403 21:46:33.883508 24180 net.cpp:399] loss1/classifier_plantvillage_loss1/classifier_plantvillage_0_split -> loss1/classifier_plantvillage_loss1/classifier_plantvillage_0_split_0
I0403 21:46:33.883527 24180 net.cpp:399] loss1/classifier_plantvillage_loss1/classifier_plantvillage_0_split -> loss1/classifier_plantvillage_loss1/classifier_plantvillage_0_split_1
I0403 21:46:33.883548 24180 net.cpp:399] loss1/classifier_plantvillage_loss1/classifier_plantvillage_0_split -> loss1/classifier_plantvillage_loss1/classifier_plantvillage_0_split_2
I0403 21:46:33.883611 24180 net.cpp:141] Setting up loss1/classifier_plantvillage_loss1/classifier_plantvillage_0_split
I0403 21:46:33.883635 24180 net.cpp:148] Top shape: 24 38 (912)
I0403 21:46:33.883651 24180 net.cpp:148] Top shape: 24 38 (912)
I0403 21:46:33.883667 24180 net.cpp:148] Top shape: 24 38 (912)
I0403 21:46:33.883682 24180 net.cpp:156] Memory required for data: 946203936
I0403 21:46:33.883695 24180 layer_factory.hpp:77] Creating layer inception_4b/1x1
I0403 21:46:33.883715 24180 net.cpp:91] Creating Layer inception_4b/1x1
I0403 21:46:33.883746 24180 net.cpp:425] inception_4b/1x1 <- inception_4a/output_inception_4a/output_0_split_1
I0403 21:46:33.883769 24180 net.cpp:399] inception_4b/1x1 -> inception_4b/1x1
I0403 21:46:33.885380 24180 net.cpp:141] Setting up inception_4b/1x1
I0403 21:46:33.885409 24180 net.cpp:148] Top shape: 24 160 14 14 (752640)
I0403 21:46:33.885426 24180 net.cpp:156] Memory required for data: 949214496
I0403 21:46:33.885445 24180 layer_factory.hpp:77] Creating layer inception_4b/relu_1x1
I0403 21:46:33.885462 24180 net.cpp:91] Creating Layer inception_4b/relu_1x1
I0403 21:46:33.885479 24180 net.cpp:425] inception_4b/relu_1x1 <- inception_4b/1x1
I0403 21:46:33.885499 24180 net.cpp:386] inception_4b/relu_1x1 -> inception_4b/1x1 (in-place)
I0403 21:46:33.885676 24180 net.cpp:141] Setting up inception_4b/relu_1x1
I0403 21:46:33.885701 24180 net.cpp:148] Top shape: 24 160 14 14 (752640)
I0403 21:46:33.885716 24180 net.cpp:156] Memory required for data: 952225056
I0403 21:46:33.885731 24180 layer_factory.hpp:77] Creating layer inception_4b/3x3_reduce
I0403 21:46:33.885753 24180 net.cpp:91] Creating Layer inception_4b/3x3_reduce
I0403 21:46:33.885771 24180 net.cpp:425] inception_4b/3x3_reduce <- inception_4a/output_inception_4a/output_0_split_2
I0403 21:46:33.885792 24180 net.cpp:399] inception_4b/3x3_reduce -> inception_4b/3x3_reduce
I0403 21:46:33.887112 24180 net.cpp:141] Setting up inception_4b/3x3_reduce
I0403 21:46:33.887140 24180 net.cpp:148] Top shape: 24 112 14 14 (526848)
I0403 21:46:33.887156 24180 net.cpp:156] Memory required for data: 954332448
I0403 21:46:33.887173 24180 layer_factory.hpp:77] Creating layer inception_4b/relu_3x3_reduce
I0403 21:46:33.887192 24180 net.cpp:91] Creating Layer inception_4b/relu_3x3_reduce
I0403 21:46:33.887217 24180 net.cpp:425] inception_4b/relu_3x3_reduce <- inception_4b/3x3_reduce
I0403 21:46:33.887234 24180 net.cpp:386] inception_4b/relu_3x3_reduce -> inception_4b/3x3_reduce (in-place)
I0403 21:46:33.887508 24180 net.cpp:141] Setting up inception_4b/relu_3x3_reduce
I0403 21:46:33.887534 24180 net.cpp:148] Top shape: 24 112 14 14 (526848)
I0403 21:46:33.887549 24180 net.cpp:156] Memory required for data: 956439840
I0403 21:46:33.887564 24180 layer_factory.hpp:77] Creating layer inception_4b/3x3
I0403 21:46:33.887586 24180 net.cpp:91] Creating Layer inception_4b/3x3
I0403 21:46:33.887605 24180 net.cpp:425] inception_4b/3x3 <- inception_4b/3x3_reduce
I0403 21:46:33.887629 24180 net.cpp:399] inception_4b/3x3 -> inception_4b/3x3
I0403 21:46:33.890604 24180 net.cpp:141] Setting up inception_4b/3x3
I0403 21:46:33.890633 24180 net.cpp:148] Top shape: 24 224 14 14 (1053696)
I0403 21:46:33.890650 24180 net.cpp:156] Memory required for data: 960654624
I0403 21:46:33.890667 24180 layer_factory.hpp:77] Creating layer inception_4b/relu_3x3
I0403 21:46:33.890688 24180 net.cpp:91] Creating Layer inception_4b/relu_3x3
I0403 21:46:33.890707 24180 net.cpp:425] inception_4b/relu_3x3 <- inception_4b/3x3
I0403 21:46:33.890723 24180 net.cpp:386] inception_4b/relu_3x3 -> inception_4b/3x3 (in-place)
I0403 21:46:33.890900 24180 net.cpp:141] Setting up inception_4b/relu_3x3
I0403 21:46:33.890928 24180 net.cpp:148] Top shape: 24 224 14 14 (1053696)
I0403 21:46:33.890944 24180 net.cpp:156] Memory required for data: 964869408
I0403 21:46:33.890959 24180 layer_factory.hpp:77] Creating layer inception_4b/5x5_reduce
I0403 21:46:33.890981 24180 net.cpp:91] Creating Layer inception_4b/5x5_reduce
I0403 21:46:33.890998 24180 net.cpp:425] inception_4b/5x5_reduce <- inception_4a/output_inception_4a/output_0_split_3
I0403 21:46:33.891017 24180 net.cpp:399] inception_4b/5x5_reduce -> inception_4b/5x5_reduce
I0403 21:46:33.892081 24180 net.cpp:141] Setting up inception_4b/5x5_reduce
I0403 21:46:33.892110 24180 net.cpp:148] Top shape: 24 24 14 14 (112896)
I0403 21:46:33.892127 24180 net.cpp:156] Memory required for data: 965320992
I0403 21:46:33.892145 24180 layer_factory.hpp:77] Creating layer inception_4b/relu_5x5_reduce
I0403 21:46:33.892164 24180 net.cpp:91] Creating Layer inception_4b/relu_5x5_reduce
I0403 21:46:33.892194 24180 net.cpp:425] inception_4b/relu_5x5_reduce <- inception_4b/5x5_reduce
I0403 21:46:33.892221 24180 net.cpp:386] inception_4b/relu_5x5_reduce -> inception_4b/5x5_reduce (in-place)
I0403 21:46:33.892405 24180 net.cpp:141] Setting up inception_4b/relu_5x5_reduce
I0403 21:46:33.892429 24180 net.cpp:148] Top shape: 24 24 14 14 (112896)
I0403 21:46:33.892444 24180 net.cpp:156] Memory required for data: 965772576
I0403 21:46:33.892459 24180 layer_factory.hpp:77] Creating layer inception_4b/5x5
I0403 21:46:33.892482 24180 net.cpp:91] Creating Layer inception_4b/5x5
I0403 21:46:33.892498 24180 net.cpp:425] inception_4b/5x5 <- inception_4b/5x5_reduce
I0403 21:46:33.892518 24180 net.cpp:399] inception_4b/5x5 -> inception_4b/5x5
I0403 21:46:33.893718 24180 net.cpp:141] Setting up inception_4b/5x5
I0403 21:46:33.893748 24180 net.cpp:148] Top shape: 24 64 14 14 (301056)
I0403 21:46:33.893764 24180 net.cpp:156] Memory required for data: 966976800
I0403 21:46:33.893782 24180 layer_factory.hpp:77] Creating layer inception_4b/relu_5x5
I0403 21:46:33.893800 24180 net.cpp:91] Creating Layer inception_4b/relu_5x5
I0403 21:46:33.893815 24180 net.cpp:425] inception_4b/relu_5x5 <- inception_4b/5x5
I0403 21:46:33.893834 24180 net.cpp:386] inception_4b/relu_5x5 -> inception_4b/5x5 (in-place)
I0403 21:46:33.894117 24180 net.cpp:141] Setting up inception_4b/relu_5x5
I0403 21:46:33.894145 24180 net.cpp:148] Top shape: 24 64 14 14 (301056)
I0403 21:46:33.894162 24180 net.cpp:156] Memory required for data: 968181024
I0403 21:46:33.894176 24180 layer_factory.hpp:77] Creating layer inception_4b/pool
I0403 21:46:33.894196 24180 net.cpp:91] Creating Layer inception_4b/pool
I0403 21:46:33.894215 24180 net.cpp:425] inception_4b/pool <- inception_4a/output_inception_4a/output_0_split_4
I0403 21:46:33.894237 24180 net.cpp:399] inception_4b/pool -> inception_4b/pool
I0403 21:46:33.894301 24180 net.cpp:141] Setting up inception_4b/pool
I0403 21:46:33.894325 24180 net.cpp:148] Top shape: 24 512 14 14 (2408448)
I0403 21:46:33.894341 24180 net.cpp:156] Memory required for data: 977814816
I0403 21:46:33.894356 24180 layer_factory.hpp:77] Creating layer inception_4b/pool_proj
I0403 21:46:33.894377 24180 net.cpp:91] Creating Layer inception_4b/pool_proj
I0403 21:46:33.894397 24180 net.cpp:425] inception_4b/pool_proj <- inception_4b/pool
I0403 21:46:33.894417 24180 net.cpp:399] inception_4b/pool_proj -> inception_4b/pool_proj
I0403 21:46:33.895607 24180 net.cpp:141] Setting up inception_4b/pool_proj
I0403 21:46:33.895635 24180 net.cpp:148] Top shape: 24 64 14 14 (301056)
I0403 21:46:33.895651 24180 net.cpp:156] Memory required for data: 979019040
I0403 21:46:33.895668 24180 layer_factory.hpp:77] Creating layer inception_4b/relu_pool_proj
I0403 21:46:33.895687 24180 net.cpp:91] Creating Layer inception_4b/relu_pool_proj
I0403 21:46:33.895704 24180 net.cpp:425] inception_4b/relu_pool_proj <- inception_4b/pool_proj
I0403 21:46:33.895725 24180 net.cpp:386] inception_4b/relu_pool_proj -> inception_4b/pool_proj (in-place)
I0403 21:46:33.895906 24180 net.cpp:141] Setting up inception_4b/relu_pool_proj
I0403 21:46:33.895931 24180 net.cpp:148] Top shape: 24 64 14 14 (301056)
I0403 21:46:33.895946 24180 net.cpp:156] Memory required for data: 980223264
I0403 21:46:33.895961 24180 layer_factory.hpp:77] Creating layer inception_4b/output
I0403 21:46:33.895977 24180 net.cpp:91] Creating Layer inception_4b/output
I0403 21:46:33.895998 24180 net.cpp:425] inception_4b/output <- inception_4b/1x1
I0403 21:46:33.896014 24180 net.cpp:425] inception_4b/output <- inception_4b/3x3
I0403 21:46:33.896030 24180 net.cpp:425] inception_4b/output <- inception_4b/5x5
I0403 21:46:33.896046 24180 net.cpp:425] inception_4b/output <- inception_4b/pool_proj
I0403 21:46:33.896062 24180 net.cpp:399] inception_4b/output -> inception_4b/output
I0403 21:46:33.896106 24180 net.cpp:141] Setting up inception_4b/output
I0403 21:46:33.896132 24180 net.cpp:148] Top shape: 24 512 14 14 (2408448)
I0403 21:46:33.896148 24180 net.cpp:156] Memory required for data: 989857056
I0403 21:46:33.896176 24180 layer_factory.hpp:77] Creating layer inception_4b/output_inception_4b/output_0_split
I0403 21:46:33.896194 24180 net.cpp:91] Creating Layer inception_4b/output_inception_4b/output_0_split
I0403 21:46:33.896214 24180 net.cpp:425] inception_4b/output_inception_4b/output_0_split <- inception_4b/output
I0403 21:46:33.896235 24180 net.cpp:399] inception_4b/output_inception_4b/output_0_split -> inception_4b/output_inception_4b/output_0_split_0
I0403 21:46:33.896257 24180 net.cpp:399] inception_4b/output_inception_4b/output_0_split -> inception_4b/output_inception_4b/output_0_split_1
I0403 21:46:33.896278 24180 net.cpp:399] inception_4b/output_inception_4b/output_0_split -> inception_4b/output_inception_4b/output_0_split_2
I0403 21:46:33.896298 24180 net.cpp:399] inception_4b/output_inception_4b/output_0_split -> inception_4b/output_inception_4b/output_0_split_3
I0403 21:46:33.896378 24180 net.cpp:141] Setting up inception_4b/output_inception_4b/output_0_split
I0403 21:46:33.896404 24180 net.cpp:148] Top shape: 24 512 14 14 (2408448)
I0403 21:46:33.896420 24180 net.cpp:148] Top shape: 24 512 14 14 (2408448)
I0403 21:46:33.896437 24180 net.cpp:148] Top shape: 24 512 14 14 (2408448)
I0403 21:46:33.896452 24180 net.cpp:148] Top shape: 24 512 14 14 (2408448)
I0403 21:46:33.896466 24180 net.cpp:156] Memory required for data: 1028392224
I0403 21:46:33.896481 24180 layer_factory.hpp:77] Creating layer inception_4c/1x1
I0403 21:46:33.896502 24180 net.cpp:91] Creating Layer inception_4c/1x1
I0403 21:46:33.896520 24180 net.cpp:425] inception_4c/1x1 <- inception_4b/output_inception_4b/output_0_split_0
I0403 21:46:33.896539 24180 net.cpp:399] inception_4c/1x1 -> inception_4c/1x1
I0403 21:46:33.897939 24180 net.cpp:141] Setting up inception_4c/1x1
I0403 21:46:33.897969 24180 net.cpp:148] Top shape: 24 128 14 14 (602112)
I0403 21:46:33.897984 24180 net.cpp:156] Memory required for data: 1030800672
I0403 21:46:33.898002 24180 layer_factory.hpp:77] Creating layer inception_4c/relu_1x1
I0403 21:46:33.898023 24180 net.cpp:91] Creating Layer inception_4c/relu_1x1
I0403 21:46:33.898041 24180 net.cpp:425] inception_4c/relu_1x1 <- inception_4c/1x1
I0403 21:46:33.898072 24180 net.cpp:386] inception_4c/relu_1x1 -> inception_4c/1x1 (in-place)
I0403 21:46:33.898267 24180 net.cpp:141] Setting up inception_4c/relu_1x1
I0403 21:46:33.898293 24180 net.cpp:148] Top shape: 24 128 14 14 (602112)
I0403 21:46:33.898309 24180 net.cpp:156] Memory required for data: 1033209120
I0403 21:46:33.898324 24180 layer_factory.hpp:77] Creating layer inception_4c/3x3_reduce
I0403 21:46:33.898349 24180 net.cpp:91] Creating Layer inception_4c/3x3_reduce
I0403 21:46:33.898378 24180 net.cpp:425] inception_4c/3x3_reduce <- inception_4b/output_inception_4b/output_0_split_1
I0403 21:46:33.898397 24180 net.cpp:399] inception_4c/3x3_reduce -> inception_4c/3x3_reduce
I0403 21:46:33.900318 24180 net.cpp:141] Setting up inception_4c/3x3_reduce
I0403 21:46:33.900351 24180 net.cpp:148] Top shape: 24 128 14 14 (602112)
I0403 21:46:33.900367 24180 net.cpp:156] Memory required for data: 1035617568
I0403 21:46:33.900387 24180 layer_factory.hpp:77] Creating layer inception_4c/relu_3x3_reduce
I0403 21:46:33.900404 24180 net.cpp:91] Creating Layer inception_4c/relu_3x3_reduce
I0403 21:46:33.900420 24180 net.cpp:425] inception_4c/relu_3x3_reduce <- inception_4c/3x3_reduce
I0403 21:46:33.900439 24180 net.cpp:386] inception_4c/relu_3x3_reduce -> inception_4c/3x3_reduce (in-place)
I0403 21:46:33.900717 24180 net.cpp:141] Setting up inception_4c/relu_3x3_reduce
I0403 21:46:33.900745 24180 net.cpp:148] Top shape: 24 128 14 14 (602112)
I0403 21:46:33.900761 24180 net.cpp:156] Memory required for data: 1038026016
I0403 21:46:33.900777 24180 layer_factory.hpp:77] Creating layer inception_4c/3x3
I0403 21:46:33.900800 24180 net.cpp:91] Creating Layer inception_4c/3x3
I0403 21:46:33.900818 24180 net.cpp:425] inception_4c/3x3 <- inception_4c/3x3_reduce
I0403 21:46:33.900837 24180 net.cpp:399] inception_4c/3x3 -> inception_4c/3x3
I0403 21:46:33.904399 24180 net.cpp:141] Setting up inception_4c/3x3
I0403 21:46:33.904439 24180 net.cpp:148] Top shape: 24 256 14 14 (1204224)
I0403 21:46:33.904456 24180 net.cpp:156] Memory required for data: 1042842912
I0403 21:46:33.904489 24180 layer_factory.hpp:77] Creating layer inception_4c/relu_3x3
I0403 21:46:33.904508 24180 net.cpp:91] Creating Layer inception_4c/relu_3x3
I0403 21:46:33.904525 24180 net.cpp:425] inception_4c/relu_3x3 <- inception_4c/3x3
I0403 21:46:33.904546 24180 net.cpp:386] inception_4c/relu_3x3 -> inception_4c/3x3 (in-place)
I0403 21:46:33.904722 24180 net.cpp:141] Setting up inception_4c/relu_3x3
I0403 21:46:33.904747 24180 net.cpp:148] Top shape: 24 256 14 14 (1204224)
I0403 21:46:33.904763 24180 net.cpp:156] Memory required for data: 1047659808
I0403 21:46:33.904778 24180 layer_factory.hpp:77] Creating layer inception_4c/5x5_reduce
I0403 21:46:33.904799 24180 net.cpp:91] Creating Layer inception_4c/5x5_reduce
I0403 21:46:33.904816 24180 net.cpp:425] inception_4c/5x5_reduce <- inception_4b/output_inception_4b/output_0_split_2
I0403 21:46:33.904836 24180 net.cpp:399] inception_4c/5x5_reduce -> inception_4c/5x5_reduce
I0403 21:46:33.905936 24180 net.cpp:141] Setting up inception_4c/5x5_reduce
I0403 21:46:33.905966 24180 net.cpp:148] Top shape: 24 24 14 14 (112896)
I0403 21:46:33.905983 24180 net.cpp:156] Memory required for data: 1048111392
I0403 21:46:33.906002 24180 layer_factory.hpp:77] Creating layer inception_4c/relu_5x5_reduce
I0403 21:46:33.906018 24180 net.cpp:91] Creating Layer inception_4c/relu_5x5_reduce
I0403 21:46:33.906033 24180 net.cpp:425] inception_4c/relu_5x5_reduce <- inception_4c/5x5_reduce
I0403 21:46:33.906052 24180 net.cpp:386] inception_4c/relu_5x5_reduce -> inception_4c/5x5_reduce (in-place)
I0403 21:46:33.906239 24180 net.cpp:141] Setting up inception_4c/relu_5x5_reduce
I0403 21:46:33.906262 24180 net.cpp:148] Top shape: 24 24 14 14 (112896)
I0403 21:46:33.906276 24180 net.cpp:156] Memory required for data: 1048562976
I0403 21:46:33.906291 24180 layer_factory.hpp:77] Creating layer inception_4c/5x5
I0403 21:46:33.906312 24180 net.cpp:91] Creating Layer inception_4c/5x5
I0403 21:46:33.906329 24180 net.cpp:425] inception_4c/5x5 <- inception_4c/5x5_reduce
I0403 21:46:33.906350 24180 net.cpp:399] inception_4c/5x5 -> inception_4c/5x5
I0403 21:46:33.907564 24180 net.cpp:141] Setting up inception_4c/5x5
I0403 21:46:33.907590 24180 net.cpp:148] Top shape: 24 64 14 14 (301056)
I0403 21:46:33.907606 24180 net.cpp:156] Memory required for data: 1049767200
I0403 21:46:33.907624 24180 layer_factory.hpp:77] Creating layer inception_4c/relu_5x5
I0403 21:46:33.907644 24180 net.cpp:91] Creating Layer inception_4c/relu_5x5
I0403 21:46:33.907661 24180 net.cpp:425] inception_4c/relu_5x5 <- inception_4c/5x5
I0403 21:46:33.907678 24180 net.cpp:386] inception_4c/relu_5x5 -> inception_4c/5x5 (in-place)
I0403 21:46:33.907959 24180 net.cpp:141] Setting up inception_4c/relu_5x5
I0403 21:46:33.907984 24180 net.cpp:148] Top shape: 24 64 14 14 (301056)
I0403 21:46:33.907999 24180 net.cpp:156] Memory required for data: 1050971424
I0403 21:46:33.908015 24180 layer_factory.hpp:77] Creating layer inception_4c/pool
I0403 21:46:33.908033 24180 net.cpp:91] Creating Layer inception_4c/pool
I0403 21:46:33.908051 24180 net.cpp:425] inception_4c/pool <- inception_4b/output_inception_4b/output_0_split_3
I0403 21:46:33.908067 24180 net.cpp:399] inception_4c/pool -> inception_4c/pool
I0403 21:46:33.908130 24180 net.cpp:141] Setting up inception_4c/pool
I0403 21:46:33.908154 24180 net.cpp:148] Top shape: 24 512 14 14 (2408448)
I0403 21:46:33.908169 24180 net.cpp:156] Memory required for data: 1060605216
I0403 21:46:33.908195 24180 layer_factory.hpp:77] Creating layer inception_4c/pool_proj
I0403 21:46:33.908229 24180 net.cpp:91] Creating Layer inception_4c/pool_proj
I0403 21:46:33.908248 24180 net.cpp:425] inception_4c/pool_proj <- inception_4c/pool
I0403 21:46:33.908268 24180 net.cpp:399] inception_4c/pool_proj -> inception_4c/pool_proj
I0403 21:46:33.909492 24180 net.cpp:141] Setting up inception_4c/pool_proj
I0403 21:46:33.909518 24180 net.cpp:148] Top shape: 24 64 14 14 (301056)
I0403 21:46:33.909548 24180 net.cpp:156] Memory required for data: 1061809440
I0403 21:46:33.909566 24180 layer_factory.hpp:77] Creating layer inception_4c/relu_pool_proj
I0403 21:46:33.909584 24180 net.cpp:91] Creating Layer inception_4c/relu_pool_proj
I0403 21:46:33.909600 24180 net.cpp:425] inception_4c/relu_pool_proj <- inception_4c/pool_proj
I0403 21:46:33.909617 24180 net.cpp:386] inception_4c/relu_pool_proj -> inception_4c/pool_proj (in-place)
I0403 21:46:33.909798 24180 net.cpp:141] Setting up inception_4c/relu_pool_proj
I0403 21:46:33.909822 24180 net.cpp:148] Top shape: 24 64 14 14 (301056)
I0403 21:46:33.909837 24180 net.cpp:156] Memory required for data: 1063013664
I0403 21:46:33.909850 24180 layer_factory.hpp:77] Creating layer inception_4c/output
I0403 21:46:33.909867 24180 net.cpp:91] Creating Layer inception_4c/output
I0403 21:46:33.909883 24180 net.cpp:425] inception_4c/output <- inception_4c/1x1
I0403 21:46:33.909900 24180 net.cpp:425] inception_4c/output <- inception_4c/3x3
I0403 21:46:33.909917 24180 net.cpp:425] inception_4c/output <- inception_4c/5x5
I0403 21:46:33.909934 24180 net.cpp:425] inception_4c/output <- inception_4c/pool_proj
I0403 21:46:33.909950 24180 net.cpp:399] inception_4c/output -> inception_4c/output
I0403 21:46:33.909992 24180 net.cpp:141] Setting up inception_4c/output
I0403 21:46:33.910017 24180 net.cpp:148] Top shape: 24 512 14 14 (2408448)
I0403 21:46:33.910033 24180 net.cpp:156] Memory required for data: 1072647456
I0403 21:46:33.910048 24180 layer_factory.hpp:77] Creating layer inception_4c/output_inception_4c/output_0_split
I0403 21:46:33.910064 24180 net.cpp:91] Creating Layer inception_4c/output_inception_4c/output_0_split
I0403 21:46:33.910079 24180 net.cpp:425] inception_4c/output_inception_4c/output_0_split <- inception_4c/output
I0403 21:46:33.910099 24180 net.cpp:399] inception_4c/output_inception_4c/output_0_split -> inception_4c/output_inception_4c/output_0_split_0
I0403 21:46:33.910118 24180 net.cpp:399] inception_4c/output_inception_4c/output_0_split -> inception_4c/output_inception_4c/output_0_split_1
I0403 21:46:33.910138 24180 net.cpp:399] inception_4c/output_inception_4c/output_0_split -> inception_4c/output_inception_4c/output_0_split_2
I0403 21:46:33.910158 24180 net.cpp:399] inception_4c/output_inception_4c/output_0_split -> inception_4c/output_inception_4c/output_0_split_3
I0403 21:46:33.910248 24180 net.cpp:141] Setting up inception_4c/output_inception_4c/output_0_split
I0403 21:46:33.910274 24180 net.cpp:148] Top shape: 24 512 14 14 (2408448)
I0403 21:46:33.910291 24180 net.cpp:148] Top shape: 24 512 14 14 (2408448)
I0403 21:46:33.910306 24180 net.cpp:148] Top shape: 24 512 14 14 (2408448)
I0403 21:46:33.910321 24180 net.cpp:148] Top shape: 24 512 14 14 (2408448)
I0403 21:46:33.910336 24180 net.cpp:156] Memory required for data: 1111182624
I0403 21:46:33.910349 24180 layer_factory.hpp:77] Creating layer inception_4d/1x1
I0403 21:46:33.910370 24180 net.cpp:91] Creating Layer inception_4d/1x1
I0403 21:46:33.910388 24180 net.cpp:425] inception_4d/1x1 <- inception_4c/output_inception_4c/output_0_split_0
I0403 21:46:33.910406 24180 net.cpp:399] inception_4d/1x1 -> inception_4d/1x1
I0403 21:46:33.911761 24180 net.cpp:141] Setting up inception_4d/1x1
I0403 21:46:33.911788 24180 net.cpp:148] Top shape: 24 112 14 14 (526848)
I0403 21:46:33.911806 24180 net.cpp:156] Memory required for data: 1113290016
I0403 21:46:33.911824 24180 layer_factory.hpp:77] Creating layer inception_4d/relu_1x1
I0403 21:46:33.911842 24180 net.cpp:91] Creating Layer inception_4d/relu_1x1
I0403 21:46:33.911859 24180 net.cpp:425] inception_4d/relu_1x1 <- inception_4d/1x1
I0403 21:46:33.911875 24180 net.cpp:386] inception_4d/relu_1x1 -> inception_4d/1x1 (in-place)
I0403 21:46:33.912055 24180 net.cpp:141] Setting up inception_4d/relu_1x1
I0403 21:46:33.912081 24180 net.cpp:148] Top shape: 24 112 14 14 (526848)
I0403 21:46:33.912096 24180 net.cpp:156] Memory required for data: 1115397408
I0403 21:46:33.912111 24180 layer_factory.hpp:77] Creating layer inception_4d/3x3_reduce
I0403 21:46:33.912145 24180 net.cpp:91] Creating Layer inception_4d/3x3_reduce
I0403 21:46:33.912163 24180 net.cpp:425] inception_4d/3x3_reduce <- inception_4c/output_inception_4c/output_0_split_1
I0403 21:46:33.912181 24180 net.cpp:399] inception_4d/3x3_reduce -> inception_4d/3x3_reduce
I0403 21:46:33.913656 24180 net.cpp:141] Setting up inception_4d/3x3_reduce
I0403 21:46:33.913683 24180 net.cpp:148] Top shape: 24 144 14 14 (677376)
I0403 21:46:33.913698 24180 net.cpp:156] Memory required for data: 1118106912
I0403 21:46:33.913717 24180 layer_factory.hpp:77] Creating layer inception_4d/relu_3x3_reduce
I0403 21:46:33.913738 24180 net.cpp:91] Creating Layer inception_4d/relu_3x3_reduce
I0403 21:46:33.913753 24180 net.cpp:425] inception_4d/relu_3x3_reduce <- inception_4d/3x3_reduce
I0403 21:46:33.913770 24180 net.cpp:386] inception_4d/relu_3x3_reduce -> inception_4d/3x3_reduce (in-place)
I0403 21:46:33.914053 24180 net.cpp:141] Setting up inception_4d/relu_3x3_reduce
I0403 21:46:33.914078 24180 net.cpp:148] Top shape: 24 144 14 14 (677376)
I0403 21:46:33.914093 24180 net.cpp:156] Memory required for data: 1120816416
I0403 21:46:33.914108 24180 layer_factory.hpp:77] Creating layer inception_4d/3x3
I0403 21:46:33.914129 24180 net.cpp:91] Creating Layer inception_4d/3x3
I0403 21:46:33.914146 24180 net.cpp:425] inception_4d/3x3 <- inception_4d/3x3_reduce
I0403 21:46:33.914166 24180 net.cpp:399] inception_4d/3x3 -> inception_4d/3x3
I0403 21:46:33.918349 24180 net.cpp:141] Setting up inception_4d/3x3
I0403 21:46:33.918378 24180 net.cpp:148] Top shape: 24 288 14 14 (1354752)
I0403 21:46:33.918395 24180 net.cpp:156] Memory required for data: 1126235424
I0403 21:46:33.918412 24180 layer_factory.hpp:77] Creating layer inception_4d/relu_3x3
I0403 21:46:33.918432 24180 net.cpp:91] Creating Layer inception_4d/relu_3x3
I0403 21:46:33.918449 24180 net.cpp:425] inception_4d/relu_3x3 <- inception_4d/3x3
I0403 21:46:33.918467 24180 net.cpp:386] inception_4d/relu_3x3 -> inception_4d/3x3 (in-place)
I0403 21:46:33.918651 24180 net.cpp:141] Setting up inception_4d/relu_3x3
I0403 21:46:33.918675 24180 net.cpp:148] Top shape: 24 288 14 14 (1354752)
I0403 21:46:33.918689 24180 net.cpp:156] Memory required for data: 1131654432
I0403 21:46:33.918702 24180 layer_factory.hpp:77] Creating layer inception_4d/5x5_reduce
I0403 21:46:33.918723 24180 net.cpp:91] Creating Layer inception_4d/5x5_reduce
I0403 21:46:33.918740 24180 net.cpp:425] inception_4d/5x5_reduce <- inception_4c/output_inception_4c/output_0_split_2
I0403 21:46:33.918761 24180 net.cpp:399] inception_4d/5x5_reduce -> inception_4d/5x5_reduce
I0403 21:46:33.919886 24180 net.cpp:141] Setting up inception_4d/5x5_reduce
I0403 21:46:33.919915 24180 net.cpp:148] Top shape: 24 32 14 14 (150528)
I0403 21:46:33.919932 24180 net.cpp:156] Memory required for data: 1132256544
I0403 21:46:33.919950 24180 layer_factory.hpp:77] Creating layer inception_4d/relu_5x5_reduce
I0403 21:46:33.919967 24180 net.cpp:91] Creating Layer inception_4d/relu_5x5_reduce
I0403 21:46:33.919983 24180 net.cpp:425] inception_4d/relu_5x5_reduce <- inception_4d/5x5_reduce
I0403 21:46:33.920001 24180 net.cpp:386] inception_4d/relu_5x5_reduce -> inception_4d/5x5_reduce (in-place)
I0403 21:46:33.920184 24180 net.cpp:141] Setting up inception_4d/relu_5x5_reduce
I0403 21:46:33.920214 24180 net.cpp:148] Top shape: 24 32 14 14 (150528)
I0403 21:46:33.920230 24180 net.cpp:156] Memory required for data: 1132858656
I0403 21:46:33.920245 24180 layer_factory.hpp:77] Creating layer inception_4d/5x5
I0403 21:46:33.920266 24180 net.cpp:91] Creating Layer inception_4d/5x5
I0403 21:46:33.920284 24180 net.cpp:425] inception_4d/5x5 <- inception_4d/5x5_reduce
I0403 21:46:33.920305 24180 net.cpp:399] inception_4d/5x5 -> inception_4d/5x5
I0403 21:46:33.921742 24180 net.cpp:141] Setting up inception_4d/5x5
I0403 21:46:33.921769 24180 net.cpp:148] Top shape: 24 64 14 14 (301056)
I0403 21:46:33.921784 24180 net.cpp:156] Memory required for data: 1134062880
I0403 21:46:33.921802 24180 layer_factory.hpp:77] Creating layer inception_4d/relu_5x5
I0403 21:46:33.921836 24180 net.cpp:91] Creating Layer inception_4d/relu_5x5
I0403 21:46:33.921856 24180 net.cpp:425] inception_4d/relu_5x5 <- inception_4d/5x5
I0403 21:46:33.921874 24180 net.cpp:386] inception_4d/relu_5x5 -> inception_4d/5x5 (in-place)
I0403 21:46:33.922168 24180 net.cpp:141] Setting up inception_4d/relu_5x5
I0403 21:46:33.922209 24180 net.cpp:148] Top shape: 24 64 14 14 (301056)
I0403 21:46:33.922225 24180 net.cpp:156] Memory required for data: 1135267104
I0403 21:46:33.922240 24180 layer_factory.hpp:77] Creating layer inception_4d/pool
I0403 21:46:33.922258 24180 net.cpp:91] Creating Layer inception_4d/pool
I0403 21:46:33.922274 24180 net.cpp:425] inception_4d/pool <- inception_4c/output_inception_4c/output_0_split_3
I0403 21:46:33.922294 24180 net.cpp:399] inception_4d/pool -> inception_4d/pool
I0403 21:46:33.922360 24180 net.cpp:141] Setting up inception_4d/pool
I0403 21:46:33.922386 24180 net.cpp:148] Top shape: 24 512 14 14 (2408448)
I0403 21:46:33.922401 24180 net.cpp:156] Memory required for data: 1144900896
I0403 21:46:33.922416 24180 layer_factory.hpp:77] Creating layer inception_4d/pool_proj
I0403 21:46:33.922440 24180 net.cpp:91] Creating Layer inception_4d/pool_proj
I0403 21:46:33.922456 24180 net.cpp:425] inception_4d/pool_proj <- inception_4d/pool
I0403 21:46:33.922487 24180 net.cpp:399] inception_4d/pool_proj -> inception_4d/pool_proj
I0403 21:46:33.924310 24180 net.cpp:141] Setting up inception_4d/pool_proj
I0403 21:46:33.924340 24180 net.cpp:148] Top shape: 24 64 14 14 (301056)
I0403 21:46:33.924355 24180 net.cpp:156] Memory required for data: 1146105120
I0403 21:46:33.924372 24180 layer_factory.hpp:77] Creating layer inception_4d/relu_pool_proj
I0403 21:46:33.924392 24180 net.cpp:91] Creating Layer inception_4d/relu_pool_proj
I0403 21:46:33.924408 24180 net.cpp:425] inception_4d/relu_pool_proj <- inception_4d/pool_proj
I0403 21:46:33.924424 24180 net.cpp:386] inception_4d/relu_pool_proj -> inception_4d/pool_proj (in-place)
I0403 21:46:33.924607 24180 net.cpp:141] Setting up inception_4d/relu_pool_proj
I0403 21:46:33.924630 24180 net.cpp:148] Top shape: 24 64 14 14 (301056)
I0403 21:46:33.924644 24180 net.cpp:156] Memory required for data: 1147309344
I0403 21:46:33.924659 24180 layer_factory.hpp:77] Creating layer inception_4d/output
I0403 21:46:33.924674 24180 net.cpp:91] Creating Layer inception_4d/output
I0403 21:46:33.924690 24180 net.cpp:425] inception_4d/output <- inception_4d/1x1
I0403 21:46:33.924705 24180 net.cpp:425] inception_4d/output <- inception_4d/3x3
I0403 21:46:33.924721 24180 net.cpp:425] inception_4d/output <- inception_4d/5x5
I0403 21:46:33.924737 24180 net.cpp:425] inception_4d/output <- inception_4d/pool_proj
I0403 21:46:33.924756 24180 net.cpp:399] inception_4d/output -> inception_4d/output
I0403 21:46:33.924801 24180 net.cpp:141] Setting up inception_4d/output
I0403 21:46:33.924826 24180 net.cpp:148] Top shape: 24 528 14 14 (2483712)
I0403 21:46:33.924840 24180 net.cpp:156] Memory required for data: 1157244192
I0403 21:46:33.924855 24180 layer_factory.hpp:77] Creating layer inception_4d/output_inception_4d/output_0_split
I0403 21:46:33.924872 24180 net.cpp:91] Creating Layer inception_4d/output_inception_4d/output_0_split
I0403 21:46:33.924887 24180 net.cpp:425] inception_4d/output_inception_4d/output_0_split <- inception_4d/output
I0403 21:46:33.924903 24180 net.cpp:399] inception_4d/output_inception_4d/output_0_split -> inception_4d/output_inception_4d/output_0_split_0
I0403 21:46:33.924926 24180 net.cpp:399] inception_4d/output_inception_4d/output_0_split -> inception_4d/output_inception_4d/output_0_split_1
I0403 21:46:33.924945 24180 net.cpp:399] inception_4d/output_inception_4d/output_0_split -> inception_4d/output_inception_4d/output_0_split_2
I0403 21:46:33.924967 24180 net.cpp:399] inception_4d/output_inception_4d/output_0_split -> inception_4d/output_inception_4d/output_0_split_3
I0403 21:46:33.924985 24180 net.cpp:399] inception_4d/output_inception_4d/output_0_split -> inception_4d/output_inception_4d/output_0_split_4
I0403 21:46:33.925088 24180 net.cpp:141] Setting up inception_4d/output_inception_4d/output_0_split
I0403 21:46:33.925123 24180 net.cpp:148] Top shape: 24 528 14 14 (2483712)
I0403 21:46:33.925139 24180 net.cpp:148] Top shape: 24 528 14 14 (2483712)
I0403 21:46:33.925154 24180 net.cpp:148] Top shape: 24 528 14 14 (2483712)
I0403 21:46:33.925169 24180 net.cpp:148] Top shape: 24 528 14 14 (2483712)
I0403 21:46:33.925184 24180 net.cpp:148] Top shape: 24 528 14 14 (2483712)
I0403 21:46:33.925200 24180 net.cpp:156] Memory required for data: 1206918432
I0403 21:46:33.925216 24180 layer_factory.hpp:77] Creating layer loss2/ave_pool
I0403 21:46:33.925235 24180 net.cpp:91] Creating Layer loss2/ave_pool
I0403 21:46:33.925251 24180 net.cpp:425] loss2/ave_pool <- inception_4d/output_inception_4d/output_0_split_0
I0403 21:46:33.925268 24180 net.cpp:399] loss2/ave_pool -> loss2/ave_pool
I0403 21:46:33.925577 24180 net.cpp:141] Setting up loss2/ave_pool
I0403 21:46:33.925604 24180 net.cpp:148] Top shape: 24 528 4 4 (202752)
I0403 21:46:33.925621 24180 net.cpp:156] Memory required for data: 1207729440
I0403 21:46:33.925634 24180 layer_factory.hpp:77] Creating layer loss2/conv
I0403 21:46:33.925655 24180 net.cpp:91] Creating Layer loss2/conv
I0403 21:46:33.925673 24180 net.cpp:425] loss2/conv <- loss2/ave_pool
I0403 21:46:33.925691 24180 net.cpp:399] loss2/conv -> loss2/conv
I0403 21:46:33.927561 24180 net.cpp:141] Setting up loss2/conv
I0403 21:46:33.927589 24180 net.cpp:148] Top shape: 24 128 4 4 (49152)
I0403 21:46:33.927604 24180 net.cpp:156] Memory required for data: 1207926048
I0403 21:46:33.927623 24180 layer_factory.hpp:77] Creating layer loss2/relu_conv
I0403 21:46:33.927639 24180 net.cpp:91] Creating Layer loss2/relu_conv
I0403 21:46:33.927655 24180 net.cpp:425] loss2/relu_conv <- loss2/conv
I0403 21:46:33.927675 24180 net.cpp:386] loss2/relu_conv -> loss2/conv (in-place)
I0403 21:46:33.927961 24180 net.cpp:141] Setting up loss2/relu_conv
I0403 21:46:33.927988 24180 net.cpp:148] Top shape: 24 128 4 4 (49152)
I0403 21:46:33.928001 24180 net.cpp:156] Memory required for data: 1208122656
I0403 21:46:33.928016 24180 layer_factory.hpp:77] Creating layer loss2/fc
I0403 21:46:33.928033 24180 net.cpp:91] Creating Layer loss2/fc
I0403 21:46:33.928050 24180 net.cpp:425] loss2/fc <- loss2/conv
I0403 21:46:33.928071 24180 net.cpp:399] loss2/fc -> loss2/fc
I0403 21:46:33.945358 24180 net.cpp:141] Setting up loss2/fc
I0403 21:46:33.945389 24180 net.cpp:148] Top shape: 24 1024 (24576)
I0403 21:46:33.945405 24180 net.cpp:156] Memory required for data: 1208220960
I0403 21:46:33.945423 24180 layer_factory.hpp:77] Creating layer loss2/relu_fc
I0403 21:46:33.945441 24180 net.cpp:91] Creating Layer loss2/relu_fc
I0403 21:46:33.945456 24180 net.cpp:425] loss2/relu_fc <- loss2/fc
I0403 21:46:33.945473 24180 net.cpp:386] loss2/relu_fc -> loss2/fc (in-place)
I0403 21:46:33.945765 24180 net.cpp:141] Setting up loss2/relu_fc
I0403 21:46:33.945791 24180 net.cpp:148] Top shape: 24 1024 (24576)
I0403 21:46:33.945806 24180 net.cpp:156] Memory required for data: 1208319264
I0403 21:46:33.945822 24180 layer_factory.hpp:77] Creating layer loss2/drop_fc
I0403 21:46:33.945838 24180 net.cpp:91] Creating Layer loss2/drop_fc
I0403 21:46:33.945854 24180 net.cpp:425] loss2/drop_fc <- loss2/fc
I0403 21:46:33.945870 24180 net.cpp:386] loss2/drop_fc -> loss2/fc (in-place)
I0403 21:46:33.945919 24180 net.cpp:141] Setting up loss2/drop_fc
I0403 21:46:33.945940 24180 net.cpp:148] Top shape: 24 1024 (24576)
I0403 21:46:33.945956 24180 net.cpp:156] Memory required for data: 1208417568
I0403 21:46:33.945971 24180 layer_factory.hpp:77] Creating layer loss2/classifier_plantvillage
I0403 21:46:33.945989 24180 net.cpp:91] Creating Layer loss2/classifier_plantvillage
I0403 21:46:33.946005 24180 net.cpp:425] loss2/classifier_plantvillage <- loss2/fc
I0403 21:46:33.946023 24180 net.cpp:399] loss2/classifier_plantvillage -> loss2/classifier_plantvillage
I0403 21:46:33.946419 24180 net.cpp:141] Setting up loss2/classifier_plantvillage
I0403 21:46:33.946442 24180 net.cpp:148] Top shape: 24 38 (912)
I0403 21:46:33.946472 24180 net.cpp:156] Memory required for data: 1208421216
I0403 21:46:33.946491 24180 layer_factory.hpp:77] Creating layer loss2/classifier_plantvillage_loss2/classifier_plantvillage_0_split
I0403 21:46:33.946508 24180 net.cpp:91] Creating Layer loss2/classifier_plantvillage_loss2/classifier_plantvillage_0_split
I0403 21:46:33.946524 24180 net.cpp:425] loss2/classifier_plantvillage_loss2/classifier_plantvillage_0_split <- loss2/classifier_plantvillage
I0403 21:46:33.946543 24180 net.cpp:399] loss2/classifier_plantvillage_loss2/classifier_plantvillage_0_split -> loss2/classifier_plantvillage_loss2/classifier_plantvillage_0_split_0
I0403 21:46:33.946564 24180 net.cpp:399] loss2/classifier_plantvillage_loss2/classifier_plantvillage_0_split -> loss2/classifier_plantvillage_loss2/classifier_plantvillage_0_split_1
I0403 21:46:33.946584 24180 net.cpp:399] loss2/classifier_plantvillage_loss2/classifier_plantvillage_0_split -> loss2/classifier_plantvillage_loss2/classifier_plantvillage_0_split_2
I0403 21:46:33.946660 24180 net.cpp:141] Setting up loss2/classifier_plantvillage_loss2/classifier_plantvillage_0_split
I0403 21:46:33.946682 24180 net.cpp:148] Top shape: 24 38 (912)
I0403 21:46:33.946698 24180 net.cpp:148] Top shape: 24 38 (912)
I0403 21:46:33.946713 24180 net.cpp:148] Top shape: 24 38 (912)
I0403 21:46:33.946727 24180 net.cpp:156] Memory required for data: 1208432160
I0403 21:46:33.946740 24180 layer_factory.hpp:77] Creating layer inception_4e/1x1
I0403 21:46:33.946761 24180 net.cpp:91] Creating Layer inception_4e/1x1
I0403 21:46:33.946779 24180 net.cpp:425] inception_4e/1x1 <- inception_4d/output_inception_4d/output_0_split_1
I0403 21:46:33.946796 24180 net.cpp:399] inception_4e/1x1 -> inception_4e/1x1
I0403 21:46:33.948578 24180 net.cpp:141] Setting up inception_4e/1x1
I0403 21:46:33.948606 24180 net.cpp:148] Top shape: 24 256 14 14 (1204224)
I0403 21:46:33.948621 24180 net.cpp:156] Memory required for data: 1213249056
I0403 21:46:33.948638 24180 layer_factory.hpp:77] Creating layer inception_4e/relu_1x1
I0403 21:46:33.948658 24180 net.cpp:91] Creating Layer inception_4e/relu_1x1
I0403 21:46:33.948674 24180 net.cpp:425] inception_4e/relu_1x1 <- inception_4e/1x1
I0403 21:46:33.948691 24180 net.cpp:386] inception_4e/relu_1x1 -> inception_4e/1x1 (in-place)
I0403 21:46:33.948982 24180 net.cpp:141] Setting up inception_4e/relu_1x1
I0403 21:46:33.949007 24180 net.cpp:148] Top shape: 24 256 14 14 (1204224)
I0403 21:46:33.949021 24180 net.cpp:156] Memory required for data: 1218065952
I0403 21:46:33.949036 24180 layer_factory.hpp:77] Creating layer inception_4e/3x3_reduce
I0403 21:46:33.949057 24180 net.cpp:91] Creating Layer inception_4e/3x3_reduce
I0403 21:46:33.949074 24180 net.cpp:425] inception_4e/3x3_reduce <- inception_4d/output_inception_4d/output_0_split_2
I0403 21:46:33.949095 24180 net.cpp:399] inception_4e/3x3_reduce -> inception_4e/3x3_reduce
I0403 21:46:33.951222 24180 net.cpp:141] Setting up inception_4e/3x3_reduce
I0403 21:46:33.951251 24180 net.cpp:148] Top shape: 24 160 14 14 (752640)
I0403 21:46:33.951267 24180 net.cpp:156] Memory required for data: 1221076512
I0403 21:46:33.951284 24180 layer_factory.hpp:77] Creating layer inception_4e/relu_3x3_reduce
I0403 21:46:33.951302 24180 net.cpp:91] Creating Layer inception_4e/relu_3x3_reduce
I0403 21:46:33.951318 24180 net.cpp:425] inception_4e/relu_3x3_reduce <- inception_4e/3x3_reduce
I0403 21:46:33.951336 24180 net.cpp:386] inception_4e/relu_3x3_reduce -> inception_4e/3x3_reduce (in-place)
I0403 21:46:33.951517 24180 net.cpp:141] Setting up inception_4e/relu_3x3_reduce
I0403 21:46:33.951541 24180 net.cpp:148] Top shape: 24 160 14 14 (752640)
I0403 21:46:33.951555 24180 net.cpp:156] Memory required for data: 1224087072
I0403 21:46:33.951570 24180 layer_factory.hpp:77] Creating layer inception_4e/3x3
I0403 21:46:33.951591 24180 net.cpp:91] Creating Layer inception_4e/3x3
I0403 21:46:33.951606 24180 net.cpp:425] inception_4e/3x3 <- inception_4e/3x3_reduce
I0403 21:46:33.951627 24180 net.cpp:399] inception_4e/3x3 -> inception_4e/3x3
I0403 21:46:33.956590 24180 net.cpp:141] Setting up inception_4e/3x3
I0403 21:46:33.956630 24180 net.cpp:148] Top shape: 24 320 14 14 (1505280)
I0403 21:46:33.956646 24180 net.cpp:156] Memory required for data: 1230108192
I0403 21:46:33.956663 24180 layer_factory.hpp:77] Creating layer inception_4e/relu_3x3
I0403 21:46:33.956683 24180 net.cpp:91] Creating Layer inception_4e/relu_3x3
I0403 21:46:33.956699 24180 net.cpp:425] inception_4e/relu_3x3 <- inception_4e/3x3
I0403 21:46:33.956717 24180 net.cpp:386] inception_4e/relu_3x3 -> inception_4e/3x3 (in-place)
I0403 21:46:33.957010 24180 net.cpp:141] Setting up inception_4e/relu_3x3
I0403 21:46:33.957037 24180 net.cpp:148] Top shape: 24 320 14 14 (1505280)
I0403 21:46:33.957052 24180 net.cpp:156] Memory required for data: 1236129312
I0403 21:46:33.957067 24180 layer_factory.hpp:77] Creating layer inception_4e/5x5_reduce
I0403 21:46:33.957087 24180 net.cpp:91] Creating Layer inception_4e/5x5_reduce
I0403 21:46:33.957103 24180 net.cpp:425] inception_4e/5x5_reduce <- inception_4d/output_inception_4d/output_0_split_3
I0403 21:46:33.957124 24180 net.cpp:399] inception_4e/5x5_reduce -> inception_4e/5x5_reduce
I0403 21:46:33.958184 24180 net.cpp:141] Setting up inception_4e/5x5_reduce
I0403 21:46:33.958220 24180 net.cpp:148] Top shape: 24 32 14 14 (150528)
I0403 21:46:33.958236 24180 net.cpp:156] Memory required for data: 1236731424
I0403 21:46:33.958255 24180 layer_factory.hpp:77] Creating layer inception_4e/relu_5x5_reduce
I0403 21:46:33.958271 24180 net.cpp:91] Creating Layer inception_4e/relu_5x5_reduce
I0403 21:46:33.958290 24180 net.cpp:425] inception_4e/relu_5x5_reduce <- inception_4e/5x5_reduce
I0403 21:46:33.958307 24180 net.cpp:386] inception_4e/relu_5x5_reduce -> inception_4e/5x5_reduce (in-place)
I0403 21:46:33.958597 24180 net.cpp:141] Setting up inception_4e/relu_5x5_reduce
I0403 21:46:33.958622 24180 net.cpp:148] Top shape: 24 32 14 14 (150528)
I0403 21:46:33.958636 24180 net.cpp:156] Memory required for data: 1237333536
I0403 21:46:33.958652 24180 layer_factory.hpp:77] Creating layer inception_4e/5x5
I0403 21:46:33.958688 24180 net.cpp:91] Creating Layer inception_4e/5x5
I0403 21:46:33.958706 24180 net.cpp:425] inception_4e/5x5 <- inception_4e/5x5_reduce
I0403 21:46:33.958725 24180 net.cpp:399] inception_4e/5x5 -> inception_4e/5x5
I0403 21:46:33.960573 24180 net.cpp:141] Setting up inception_4e/5x5
I0403 21:46:33.960602 24180 net.cpp:148] Top shape: 24 128 14 14 (602112)
I0403 21:46:33.960618 24180 net.cpp:156] Memory required for data: 1239741984
I0403 21:46:33.960638 24180 layer_factory.hpp:77] Creating layer inception_4e/relu_5x5
I0403 21:46:33.960655 24180 net.cpp:91] Creating Layer inception_4e/relu_5x5
I0403 21:46:33.960671 24180 net.cpp:425] inception_4e/relu_5x5 <- inception_4e/5x5
I0403 21:46:33.960690 24180 net.cpp:386] inception_4e/relu_5x5 -> inception_4e/5x5 (in-place)
I0403 21:46:33.960882 24180 net.cpp:141] Setting up inception_4e/relu_5x5
I0403 21:46:33.960906 24180 net.cpp:148] Top shape: 24 128 14 14 (602112)
I0403 21:46:33.960921 24180 net.cpp:156] Memory required for data: 1242150432
I0403 21:46:33.960935 24180 layer_factory.hpp:77] Creating layer inception_4e/pool
I0403 21:46:33.960954 24180 net.cpp:91] Creating Layer inception_4e/pool
I0403 21:46:33.960969 24180 net.cpp:425] inception_4e/pool <- inception_4d/output_inception_4d/output_0_split_4
I0403 21:46:33.960989 24180 net.cpp:399] inception_4e/pool -> inception_4e/pool
I0403 21:46:33.961058 24180 net.cpp:141] Setting up inception_4e/pool
I0403 21:46:33.961081 24180 net.cpp:148] Top shape: 24 528 14 14 (2483712)
I0403 21:46:33.961096 24180 net.cpp:156] Memory required for data: 1252085280
I0403 21:46:33.961109 24180 layer_factory.hpp:77] Creating layer inception_4e/pool_proj
I0403 21:46:33.961136 24180 net.cpp:91] Creating Layer inception_4e/pool_proj
I0403 21:46:33.961153 24180 net.cpp:425] inception_4e/pool_proj <- inception_4e/pool
I0403 21:46:33.961172 24180 net.cpp:399] inception_4e/pool_proj -> inception_4e/pool_proj
I0403 21:46:33.962638 24180 net.cpp:141] Setting up inception_4e/pool_proj
I0403 21:46:33.962677 24180 net.cpp:148] Top shape: 24 128 14 14 (602112)
I0403 21:46:33.962694 24180 net.cpp:156] Memory required for data: 1254493728
I0403 21:46:33.962713 24180 layer_factory.hpp:77] Creating layer inception_4e/relu_pool_proj
I0403 21:46:33.962729 24180 net.cpp:91] Creating Layer inception_4e/relu_pool_proj
I0403 21:46:33.962745 24180 net.cpp:425] inception_4e/relu_pool_proj <- inception_4e/pool_proj
I0403 21:46:33.962764 24180 net.cpp:386] inception_4e/relu_pool_proj -> inception_4e/pool_proj (in-place)
I0403 21:46:33.963049 24180 net.cpp:141] Setting up inception_4e/relu_pool_proj
I0403 21:46:33.963076 24180 net.cpp:148] Top shape: 24 128 14 14 (602112)
I0403 21:46:33.963093 24180 net.cpp:156] Memory required for data: 1256902176
I0403 21:46:33.963107 24180 layer_factory.hpp:77] Creating layer inception_4e/output
I0403 21:46:33.963124 24180 net.cpp:91] Creating Layer inception_4e/output
I0403 21:46:33.963140 24180 net.cpp:425] inception_4e/output <- inception_4e/1x1
I0403 21:46:33.963155 24180 net.cpp:425] inception_4e/output <- inception_4e/3x3
I0403 21:46:33.963171 24180 net.cpp:425] inception_4e/output <- inception_4e/5x5
I0403 21:46:33.963187 24180 net.cpp:425] inception_4e/output <- inception_4e/pool_proj
I0403 21:46:33.963208 24180 net.cpp:399] inception_4e/output -> inception_4e/output
I0403 21:46:33.963258 24180 net.cpp:141] Setting up inception_4e/output
I0403 21:46:33.963281 24180 net.cpp:148] Top shape: 24 832 14 14 (3913728)
I0403 21:46:33.963295 24180 net.cpp:156] Memory required for data: 1272557088
I0403 21:46:33.963310 24180 layer_factory.hpp:77] Creating layer pool4/3x3_s2
I0403 21:46:33.963330 24180 net.cpp:91] Creating Layer pool4/3x3_s2
I0403 21:46:33.963346 24180 net.cpp:425] pool4/3x3_s2 <- inception_4e/output
I0403 21:46:33.963363 24180 net.cpp:399] pool4/3x3_s2 -> pool4/3x3_s2
I0403 21:46:33.963429 24180 net.cpp:141] Setting up pool4/3x3_s2
I0403 21:46:33.963452 24180 net.cpp:148] Top shape: 24 832 7 7 (978432)
I0403 21:46:33.963467 24180 net.cpp:156] Memory required for data: 1276470816
I0403 21:46:33.963481 24180 layer_factory.hpp:77] Creating layer pool4/3x3_s2_pool4/3x3_s2_0_split
I0403 21:46:33.963498 24180 net.cpp:91] Creating Layer pool4/3x3_s2_pool4/3x3_s2_0_split
I0403 21:46:33.963512 24180 net.cpp:425] pool4/3x3_s2_pool4/3x3_s2_0_split <- pool4/3x3_s2
I0403 21:46:33.963532 24180 net.cpp:399] pool4/3x3_s2_pool4/3x3_s2_0_split -> pool4/3x3_s2_pool4/3x3_s2_0_split_0
I0403 21:46:33.963552 24180 net.cpp:399] pool4/3x3_s2_pool4/3x3_s2_0_split -> pool4/3x3_s2_pool4/3x3_s2_0_split_1
I0403 21:46:33.963572 24180 net.cpp:399] pool4/3x3_s2_pool4/3x3_s2_0_split -> pool4/3x3_s2_pool4/3x3_s2_0_split_2
I0403 21:46:33.963590 24180 net.cpp:399] pool4/3x3_s2_pool4/3x3_s2_0_split -> pool4/3x3_s2_pool4/3x3_s2_0_split_3
I0403 21:46:33.963676 24180 net.cpp:141] Setting up pool4/3x3_s2_pool4/3x3_s2_0_split
I0403 21:46:33.963701 24180 net.cpp:148] Top shape: 24 832 7 7 (978432)
I0403 21:46:33.963718 24180 net.cpp:148] Top shape: 24 832 7 7 (978432)
I0403 21:46:33.963734 24180 net.cpp:148] Top shape: 24 832 7 7 (978432)
I0403 21:46:33.963749 24180 net.cpp:148] Top shape: 24 832 7 7 (978432)
I0403 21:46:33.963762 24180 net.cpp:156] Memory required for data: 1292125728
I0403 21:46:33.963778 24180 layer_factory.hpp:77] Creating layer inception_5a/1x1
I0403 21:46:33.963799 24180 net.cpp:91] Creating Layer inception_5a/1x1
I0403 21:46:33.963816 24180 net.cpp:425] inception_5a/1x1 <- pool4/3x3_s2_pool4/3x3_s2_0_split_0
I0403 21:46:33.963835 24180 net.cpp:399] inception_5a/1x1 -> inception_5a/1x1
I0403 21:46:33.966660 24180 net.cpp:141] Setting up inception_5a/1x1
I0403 21:46:33.966688 24180 net.cpp:148] Top shape: 24 256 7 7 (301056)
I0403 21:46:33.966704 24180 net.cpp:156] Memory required for data: 1293329952
I0403 21:46:33.966722 24180 layer_factory.hpp:77] Creating layer inception_5a/relu_1x1
I0403 21:46:33.966739 24180 net.cpp:91] Creating Layer inception_5a/relu_1x1
I0403 21:46:33.966754 24180 net.cpp:425] inception_5a/relu_1x1 <- inception_5a/1x1
I0403 21:46:33.966778 24180 net.cpp:386] inception_5a/relu_1x1 -> inception_5a/1x1 (in-place)
I0403 21:46:33.967080 24180 net.cpp:141] Setting up inception_5a/relu_1x1
I0403 21:46:33.967105 24180 net.cpp:148] Top shape: 24 256 7 7 (301056)
I0403 21:46:33.967120 24180 net.cpp:156] Memory required for data: 1294534176
I0403 21:46:33.967135 24180 layer_factory.hpp:77] Creating layer inception_5a/3x3_reduce
I0403 21:46:33.967157 24180 net.cpp:91] Creating Layer inception_5a/3x3_reduce
I0403 21:46:33.967186 24180 net.cpp:425] inception_5a/3x3_reduce <- pool4/3x3_s2_pool4/3x3_s2_0_split_1
I0403 21:46:33.967212 24180 net.cpp:399] inception_5a/3x3_reduce -> inception_5a/3x3_reduce
I0403 21:46:33.969686 24180 net.cpp:141] Setting up inception_5a/3x3_reduce
I0403 21:46:33.969715 24180 net.cpp:148] Top shape: 24 160 7 7 (188160)
I0403 21:46:33.969732 24180 net.cpp:156] Memory required for data: 1295286816
I0403 21:46:33.969748 24180 layer_factory.hpp:77] Creating layer inception_5a/relu_3x3_reduce
I0403 21:46:33.969768 24180 net.cpp:91] Creating Layer inception_5a/relu_3x3_reduce
I0403 21:46:33.969784 24180 net.cpp:425] inception_5a/relu_3x3_reduce <- inception_5a/3x3_reduce
I0403 21:46:33.969800 24180 net.cpp:386] inception_5a/relu_3x3_reduce -> inception_5a/3x3_reduce (in-place)
I0403 21:46:33.969988 24180 net.cpp:141] Setting up inception_5a/relu_3x3_reduce
I0403 21:46:33.970015 24180 net.cpp:148] Top shape: 24 160 7 7 (188160)
I0403 21:46:33.970028 24180 net.cpp:156] Memory required for data: 1296039456
I0403 21:46:33.970042 24180 layer_factory.hpp:77] Creating layer inception_5a/3x3
I0403 21:46:33.970064 24180 net.cpp:91] Creating Layer inception_5a/3x3
I0403 21:46:33.970082 24180 net.cpp:425] inception_5a/3x3 <- inception_5a/3x3_reduce
I0403 21:46:33.970103 24180 net.cpp:399] inception_5a/3x3 -> inception_5a/3x3
I0403 21:46:33.975083 24180 net.cpp:141] Setting up inception_5a/3x3
I0403 21:46:33.975116 24180 net.cpp:148] Top shape: 24 320 7 7 (376320)
I0403 21:46:33.975132 24180 net.cpp:156] Memory required for data: 1297544736
I0403 21:46:33.975150 24180 layer_factory.hpp:77] Creating layer inception_5a/relu_3x3
I0403 21:46:33.975167 24180 net.cpp:91] Creating Layer inception_5a/relu_3x3
I0403 21:46:33.975183 24180 net.cpp:425] inception_5a/relu_3x3 <- inception_5a/3x3
I0403 21:46:33.975208 24180 net.cpp:386] inception_5a/relu_3x3 -> inception_5a/3x3 (in-place)
I0403 21:46:33.975498 24180 net.cpp:141] Setting up inception_5a/relu_3x3
I0403 21:46:33.975527 24180 net.cpp:148] Top shape: 24 320 7 7 (376320)
I0403 21:46:33.975541 24180 net.cpp:156] Memory required for data: 1299050016
I0403 21:46:33.975556 24180 layer_factory.hpp:77] Creating layer inception_5a/5x5_reduce
I0403 21:46:33.975579 24180 net.cpp:91] Creating Layer inception_5a/5x5_reduce
I0403 21:46:33.975597 24180 net.cpp:425] inception_5a/5x5_reduce <- pool4/3x3_s2_pool4/3x3_s2_0_split_2
I0403 21:46:33.975615 24180 net.cpp:399] inception_5a/5x5_reduce -> inception_5a/5x5_reduce
I0403 21:46:33.976804 24180 net.cpp:141] Setting up inception_5a/5x5_reduce
I0403 21:46:33.976843 24180 net.cpp:148] Top shape: 24 32 7 7 (37632)
I0403 21:46:33.976858 24180 net.cpp:156] Memory required for data: 1299200544
I0403 21:46:33.976877 24180 layer_factory.hpp:77] Creating layer inception_5a/relu_5x5_reduce
I0403 21:46:33.976896 24180 net.cpp:91] Creating Layer inception_5a/relu_5x5_reduce
I0403 21:46:33.976912 24180 net.cpp:425] inception_5a/relu_5x5_reduce <- inception_5a/5x5_reduce
I0403 21:46:33.976930 24180 net.cpp:386] inception_5a/relu_5x5_reduce -> inception_5a/5x5_reduce (in-place)
I0403 21:46:33.977238 24180 net.cpp:141] Setting up inception_5a/relu_5x5_reduce
I0403 21:46:33.977264 24180 net.cpp:148] Top shape: 24 32 7 7 (37632)
I0403 21:46:33.977279 24180 net.cpp:156] Memory required for data: 1299351072
I0403 21:46:33.977294 24180 layer_factory.hpp:77] Creating layer inception_5a/5x5
I0403 21:46:33.977315 24180 net.cpp:91] Creating Layer inception_5a/5x5
I0403 21:46:33.977334 24180 net.cpp:425] inception_5a/5x5 <- inception_5a/5x5_reduce
I0403 21:46:33.977355 24180 net.cpp:399] inception_5a/5x5 -> inception_5a/5x5
I0403 21:46:33.979060 24180 net.cpp:141] Setting up inception_5a/5x5
I0403 21:46:33.979100 24180 net.cpp:148] Top shape: 24 128 7 7 (150528)
I0403 21:46:33.979117 24180 net.cpp:156] Memory required for data: 1299953184
I0403 21:46:33.979135 24180 layer_factory.hpp:77] Creating layer inception_5a/relu_5x5
I0403 21:46:33.979152 24180 net.cpp:91] Creating Layer inception_5a/relu_5x5
I0403 21:46:33.979168 24180 net.cpp:425] inception_5a/relu_5x5 <- inception_5a/5x5
I0403 21:46:33.979188 24180 net.cpp:386] inception_5a/relu_5x5 -> inception_5a/5x5 (in-place)
I0403 21:46:33.979379 24180 net.cpp:141] Setting up inception_5a/relu_5x5
I0403 21:46:33.979403 24180 net.cpp:148] Top shape: 24 128 7 7 (150528)
I0403 21:46:33.979418 24180 net.cpp:156] Memory required for data: 1300555296
I0403 21:46:33.979431 24180 layer_factory.hpp:77] Creating layer inception_5a/pool
I0403 21:46:33.979449 24180 net.cpp:91] Creating Layer inception_5a/pool
I0403 21:46:33.979463 24180 net.cpp:425] inception_5a/pool <- pool4/3x3_s2_pool4/3x3_s2_0_split_3
I0403 21:46:33.979485 24180 net.cpp:399] inception_5a/pool -> inception_5a/pool
I0403 21:46:33.979554 24180 net.cpp:141] Setting up inception_5a/pool
I0403 21:46:33.979578 24180 net.cpp:148] Top shape: 24 832 7 7 (978432)
I0403 21:46:33.979591 24180 net.cpp:156] Memory required for data: 1304469024
I0403 21:46:33.979605 24180 layer_factory.hpp:77] Creating layer inception_5a/pool_proj
I0403 21:46:33.979627 24180 net.cpp:91] Creating Layer inception_5a/pool_proj
I0403 21:46:33.979645 24180 net.cpp:425] inception_5a/pool_proj <- inception_5a/pool
I0403 21:46:33.979662 24180 net.cpp:399] inception_5a/pool_proj -> inception_5a/pool_proj
I0403 21:46:33.981941 24180 net.cpp:141] Setting up inception_5a/pool_proj
I0403 21:46:33.981973 24180 net.cpp:148] Top shape: 24 128 7 7 (150528)
I0403 21:46:33.981989 24180 net.cpp:156] Memory required for data: 1305071136
I0403 21:46:33.982008 24180 layer_factory.hpp:77] Creating layer inception_5a/relu_pool_proj
I0403 21:46:33.982025 24180 net.cpp:91] Creating Layer inception_5a/relu_pool_proj
I0403 21:46:33.982041 24180 net.cpp:425] inception_5a/relu_pool_proj <- inception_5a/pool_proj
I0403 21:46:33.982059 24180 net.cpp:386] inception_5a/relu_pool_proj -> inception_5a/pool_proj (in-place)
I0403 21:46:33.982352 24180 net.cpp:141] Setting up inception_5a/relu_pool_proj
I0403 21:46:33.982379 24180 net.cpp:148] Top shape: 24 128 7 7 (150528)
I0403 21:46:33.982394 24180 net.cpp:156] Memory required for data: 1305673248
I0403 21:46:33.982409 24180 layer_factory.hpp:77] Creating layer inception_5a/output
I0403 21:46:33.982425 24180 net.cpp:91] Creating Layer inception_5a/output
I0403 21:46:33.982440 24180 net.cpp:425] inception_5a/output <- inception_5a/1x1
I0403 21:46:33.982457 24180 net.cpp:425] inception_5a/output <- inception_5a/3x3
I0403 21:46:33.982473 24180 net.cpp:425] inception_5a/output <- inception_5a/5x5
I0403 21:46:33.982489 24180 net.cpp:425] inception_5a/output <- inception_5a/pool_proj
I0403 21:46:33.982506 24180 net.cpp:399] inception_5a/output -> inception_5a/output
I0403 21:46:33.982555 24180 net.cpp:141] Setting up inception_5a/output
I0403 21:46:33.982578 24180 net.cpp:148] Top shape: 24 832 7 7 (978432)
I0403 21:46:33.982591 24180 net.cpp:156] Memory required for data: 1309586976
I0403 21:46:33.982605 24180 layer_factory.hpp:77] Creating layer inception_5a/output_inception_5a/output_0_split
I0403 21:46:33.982623 24180 net.cpp:91] Creating Layer inception_5a/output_inception_5a/output_0_split
I0403 21:46:33.982640 24180 net.cpp:425] inception_5a/output_inception_5a/output_0_split <- inception_5a/output
I0403 21:46:33.982656 24180 net.cpp:399] inception_5a/output_inception_5a/output_0_split -> inception_5a/output_inception_5a/output_0_split_0
I0403 21:46:33.982676 24180 net.cpp:399] inception_5a/output_inception_5a/output_0_split -> inception_5a/output_inception_5a/output_0_split_1
I0403 21:46:33.982695 24180 net.cpp:399] inception_5a/output_inception_5a/output_0_split -> inception_5a/output_inception_5a/output_0_split_2
I0403 21:46:33.982715 24180 net.cpp:399] inception_5a/output_inception_5a/output_0_split -> inception_5a/output_inception_5a/output_0_split_3
I0403 21:46:33.982825 24180 net.cpp:141] Setting up inception_5a/output_inception_5a/output_0_split
I0403 21:46:33.982848 24180 net.cpp:148] Top shape: 24 832 7 7 (978432)
I0403 21:46:33.982864 24180 net.cpp:148] Top shape: 24 832 7 7 (978432)
I0403 21:46:33.982879 24180 net.cpp:148] Top shape: 24 832 7 7 (978432)
I0403 21:46:33.982894 24180 net.cpp:148] Top shape: 24 832 7 7 (978432)
I0403 21:46:33.982908 24180 net.cpp:156] Memory required for data: 1325241888
I0403 21:46:33.982923 24180 layer_factory.hpp:77] Creating layer inception_5b/1x1
I0403 21:46:33.982944 24180 net.cpp:91] Creating Layer inception_5b/1x1
I0403 21:46:33.982961 24180 net.cpp:425] inception_5b/1x1 <- inception_5a/output_inception_5a/output_0_split_0
I0403 21:46:33.982985 24180 net.cpp:399] inception_5b/1x1 -> inception_5b/1x1
I0403 21:46:33.986757 24180 net.cpp:141] Setting up inception_5b/1x1
I0403 21:46:33.986786 24180 net.cpp:148] Top shape: 24 384 7 7 (451584)
I0403 21:46:33.986801 24180 net.cpp:156] Memory required for data: 1327048224
I0403 21:46:33.986819 24180 layer_factory.hpp:77] Creating layer inception_5b/relu_1x1
I0403 21:46:33.986840 24180 net.cpp:91] Creating Layer inception_5b/relu_1x1
I0403 21:46:33.986855 24180 net.cpp:425] inception_5b/relu_1x1 <- inception_5b/1x1
I0403 21:46:33.986873 24180 net.cpp:386] inception_5b/relu_1x1 -> inception_5b/1x1 (in-place)
I0403 21:46:33.987187 24180 net.cpp:141] Setting up inception_5b/relu_1x1
I0403 21:46:33.987216 24180 net.cpp:148] Top shape: 24 384 7 7 (451584)
I0403 21:46:33.987232 24180 net.cpp:156] Memory required for data: 1328854560
I0403 21:46:33.987247 24180 layer_factory.hpp:77] Creating layer inception_5b/3x3_reduce
I0403 21:46:33.987272 24180 net.cpp:91] Creating Layer inception_5b/3x3_reduce
I0403 21:46:33.987290 24180 net.cpp:425] inception_5b/3x3_reduce <- inception_5a/output_inception_5a/output_0_split_1
I0403 21:46:33.987309 24180 net.cpp:399] inception_5b/3x3_reduce -> inception_5b/3x3_reduce
I0403 21:46:33.989951 24180 net.cpp:141] Setting up inception_5b/3x3_reduce
I0403 21:46:33.989981 24180 net.cpp:148] Top shape: 24 192 7 7 (225792)
I0403 21:46:33.989998 24180 net.cpp:156] Memory required for data: 1329757728
I0403 21:46:33.990016 24180 layer_factory.hpp:77] Creating layer inception_5b/relu_3x3_reduce
I0403 21:46:33.990033 24180 net.cpp:91] Creating Layer inception_5b/relu_3x3_reduce
I0403 21:46:33.990049 24180 net.cpp:425] inception_5b/relu_3x3_reduce <- inception_5b/3x3_reduce
I0403 21:46:33.990067 24180 net.cpp:386] inception_5b/relu_3x3_reduce -> inception_5b/3x3_reduce (in-place)
I0403 21:46:33.990262 24180 net.cpp:141] Setting up inception_5b/relu_3x3_reduce
I0403 21:46:33.990288 24180 net.cpp:148] Top shape: 24 192 7 7 (225792)
I0403 21:46:33.990303 24180 net.cpp:156] Memory required for data: 1330660896
I0403 21:46:33.990317 24180 layer_factory.hpp:77] Creating layer inception_5b/3x3
I0403 21:46:33.990339 24180 net.cpp:91] Creating Layer inception_5b/3x3
I0403 21:46:33.990356 24180 net.cpp:425] inception_5b/3x3 <- inception_5b/3x3_reduce
I0403 21:46:33.990377 24180 net.cpp:399] inception_5b/3x3 -> inception_5b/3x3
I0403 21:46:33.997043 24180 net.cpp:141] Setting up inception_5b/3x3
I0403 21:46:33.997073 24180 net.cpp:148] Top shape: 24 384 7 7 (451584)
I0403 21:46:33.997089 24180 net.cpp:156] Memory required for data: 1332467232
I0403 21:46:33.997108 24180 layer_factory.hpp:77] Creating layer inception_5b/relu_3x3
I0403 21:46:33.997125 24180 net.cpp:91] Creating Layer inception_5b/relu_3x3
I0403 21:46:33.997143 24180 net.cpp:425] inception_5b/relu_3x3 <- inception_5b/3x3
I0403 21:46:33.997159 24180 net.cpp:386] inception_5b/relu_3x3 -> inception_5b/3x3 (in-place)
I0403 21:46:33.997457 24180 net.cpp:141] Setting up inception_5b/relu_3x3
I0403 21:46:33.997484 24180 net.cpp:148] Top shape: 24 384 7 7 (451584)
I0403 21:46:33.997500 24180 net.cpp:156] Memory required for data: 1334273568
I0403 21:46:33.997514 24180 layer_factory.hpp:77] Creating layer inception_5b/5x5_reduce
I0403 21:46:33.997551 24180 net.cpp:91] Creating Layer inception_5b/5x5_reduce
I0403 21:46:33.997570 24180 net.cpp:425] inception_5b/5x5_reduce <- inception_5a/output_inception_5a/output_0_split_2
I0403 21:46:33.997588 24180 net.cpp:399] inception_5b/5x5_reduce -> inception_5b/5x5_reduce
I0403 21:46:33.998900 24180 net.cpp:141] Setting up inception_5b/5x5_reduce
I0403 21:46:33.998929 24180 net.cpp:148] Top shape: 24 48 7 7 (56448)
I0403 21:46:33.998945 24180 net.cpp:156] Memory required for data: 1334499360
I0403 21:46:33.998965 24180 layer_factory.hpp:77] Creating layer inception_5b/relu_5x5_reduce
I0403 21:46:33.998981 24180 net.cpp:91] Creating Layer inception_5b/relu_5x5_reduce
I0403 21:46:33.998996 24180 net.cpp:425] inception_5b/relu_5x5_reduce <- inception_5b/5x5_reduce
I0403 21:46:33.999017 24180 net.cpp:386] inception_5b/relu_5x5_reduce -> inception_5b/5x5_reduce (in-place)
I0403 21:46:33.999390 24180 net.cpp:141] Setting up inception_5b/relu_5x5_reduce
I0403 21:46:33.999415 24180 net.cpp:148] Top shape: 24 48 7 7 (56448)
I0403 21:46:33.999430 24180 net.cpp:156] Memory required for data: 1334725152
I0403 21:46:33.999445 24180 layer_factory.hpp:77] Creating layer inception_5b/5x5
I0403 21:46:33.999464 24180 net.cpp:91] Creating Layer inception_5b/5x5
I0403 21:46:33.999481 24180 net.cpp:425] inception_5b/5x5 <- inception_5b/5x5_reduce
I0403 21:46:33.999498 24180 net.cpp:399] inception_5b/5x5 -> inception_5b/5x5
I0403 21:46:34.001551 24180 net.cpp:141] Setting up inception_5b/5x5
I0403 21:46:34.001579 24180 net.cpp:148] Top shape: 24 128 7 7 (150528)
I0403 21:46:34.001593 24180 net.cpp:156] Memory required for data: 1335327264
I0403 21:46:34.001611 24180 layer_factory.hpp:77] Creating layer inception_5b/relu_5x5
I0403 21:46:34.001629 24180 net.cpp:91] Creating Layer inception_5b/relu_5x5
I0403 21:46:34.001646 24180 net.cpp:425] inception_5b/relu_5x5 <- inception_5b/5x5
I0403 21:46:34.001664 24180 net.cpp:386] inception_5b/relu_5x5 -> inception_5b/5x5 (in-place)
I0403 21:46:34.001857 24180 net.cpp:141] Setting up inception_5b/relu_5x5
I0403 21:46:34.001880 24180 net.cpp:148] Top shape: 24 128 7 7 (150528)
I0403 21:46:34.001894 24180 net.cpp:156] Memory required for data: 1335929376
I0403 21:46:34.001909 24180 layer_factory.hpp:77] Creating layer inception_5b/pool
I0403 21:46:34.001927 24180 net.cpp:91] Creating Layer inception_5b/pool
I0403 21:46:34.001945 24180 net.cpp:425] inception_5b/pool <- inception_5a/output_inception_5a/output_0_split_3
I0403 21:46:34.001962 24180 net.cpp:399] inception_5b/pool -> inception_5b/pool
I0403 21:46:34.002037 24180 net.cpp:141] Setting up inception_5b/pool
I0403 21:46:34.002060 24180 net.cpp:148] Top shape: 24 832 7 7 (978432)
I0403 21:46:34.002074 24180 net.cpp:156] Memory required for data: 1339843104
I0403 21:46:34.002089 24180 layer_factory.hpp:77] Creating layer inception_5b/pool_proj
I0403 21:46:34.002110 24180 net.cpp:91] Creating Layer inception_5b/pool_proj
I0403 21:46:34.002126 24180 net.cpp:425] inception_5b/pool_proj <- inception_5b/pool
I0403 21:46:34.002146 24180 net.cpp:399] inception_5b/pool_proj -> inception_5b/pool_proj
I0403 21:46:34.004444 24180 net.cpp:141] Setting up inception_5b/pool_proj
I0403 21:46:34.004487 24180 net.cpp:148] Top shape: 24 128 7 7 (150528)
I0403 21:46:34.004503 24180 net.cpp:156] Memory required for data: 1340445216
I0403 21:46:34.004521 24180 layer_factory.hpp:77] Creating layer inception_5b/relu_pool_proj
I0403 21:46:34.004539 24180 net.cpp:91] Creating Layer inception_5b/relu_pool_proj
I0403 21:46:34.004555 24180 net.cpp:425] inception_5b/relu_pool_proj <- inception_5b/pool_proj
I0403 21:46:34.004575 24180 net.cpp:386] inception_5b/relu_pool_proj -> inception_5b/pool_proj (in-place)
I0403 21:46:34.004865 24180 net.cpp:141] Setting up inception_5b/relu_pool_proj
I0403 21:46:34.004892 24180 net.cpp:148] Top shape: 24 128 7 7 (150528)
I0403 21:46:34.004909 24180 net.cpp:156] Memory required for data: 1341047328
I0403 21:46:34.004922 24180 layer_factory.hpp:77] Creating layer inception_5b/output
I0403 21:46:34.004940 24180 net.cpp:91] Creating Layer inception_5b/output
I0403 21:46:34.004968 24180 net.cpp:425] inception_5b/output <- inception_5b/1x1
I0403 21:46:34.004987 24180 net.cpp:425] inception_5b/output <- inception_5b/3x3
I0403 21:46:34.005002 24180 net.cpp:425] inception_5b/output <- inception_5b/5x5
I0403 21:46:34.005017 24180 net.cpp:425] inception_5b/output <- inception_5b/pool_proj
I0403 21:46:34.005034 24180 net.cpp:399] inception_5b/output -> inception_5b/output
I0403 21:46:34.005086 24180 net.cpp:141] Setting up inception_5b/output
I0403 21:46:34.005110 24180 net.cpp:148] Top shape: 24 1024 7 7 (1204224)
I0403 21:46:34.005123 24180 net.cpp:156] Memory required for data: 1345864224
I0403 21:46:34.005137 24180 layer_factory.hpp:77] Creating layer pool5/7x7_s1
I0403 21:46:34.005157 24180 net.cpp:91] Creating Layer pool5/7x7_s1
I0403 21:46:34.005174 24180 net.cpp:425] pool5/7x7_s1 <- inception_5b/output
I0403 21:46:34.005192 24180 net.cpp:399] pool5/7x7_s1 -> pool5/7x7_s1
I0403 21:46:34.005411 24180 net.cpp:141] Setting up pool5/7x7_s1
I0403 21:46:34.005437 24180 net.cpp:148] Top shape: 24 1024 1 1 (24576)
I0403 21:46:34.005452 24180 net.cpp:156] Memory required for data: 1345962528
I0403 21:46:34.005466 24180 layer_factory.hpp:77] Creating layer pool5/drop_7x7_s1
I0403 21:46:34.005483 24180 net.cpp:91] Creating Layer pool5/drop_7x7_s1
I0403 21:46:34.005498 24180 net.cpp:425] pool5/drop_7x7_s1 <- pool5/7x7_s1
I0403 21:46:34.005517 24180 net.cpp:386] pool5/drop_7x7_s1 -> pool5/7x7_s1 (in-place)
I0403 21:46:34.005565 24180 net.cpp:141] Setting up pool5/drop_7x7_s1
I0403 21:46:34.005587 24180 net.cpp:148] Top shape: 24 1024 1 1 (24576)
I0403 21:46:34.005601 24180 net.cpp:156] Memory required for data: 1346060832
I0403 21:46:34.005615 24180 layer_factory.hpp:77] Creating layer loss3/classifier_plantvillage
I0403 21:46:34.005636 24180 net.cpp:91] Creating Layer loss3/classifier_plantvillage
I0403 21:46:34.005652 24180 net.cpp:425] loss3/classifier_plantvillage <- pool5/7x7_s1
I0403 21:46:34.005672 24180 net.cpp:399] loss3/classifier_plantvillage -> loss3/classifier_plantvillage
I0403 21:46:34.006085 24180 net.cpp:141] Setting up loss3/classifier_plantvillage
I0403 21:46:34.006108 24180 net.cpp:148] Top shape: 24 38 (912)
I0403 21:46:34.006122 24180 net.cpp:156] Memory required for data: 1346064480
I0403 21:46:34.006142 24180 layer_factory.hpp:77] Creating layer loss3/classifier_plantvillage_loss3/classifier_plantvillage_0_split
I0403 21:46:34.006161 24180 net.cpp:91] Creating Layer loss3/classifier_plantvillage_loss3/classifier_plantvillage_0_split
I0403 21:46:34.006178 24180 net.cpp:425] loss3/classifier_plantvillage_loss3/classifier_plantvillage_0_split <- loss3/classifier_plantvillage
I0403 21:46:34.006198 24180 net.cpp:399] loss3/classifier_plantvillage_loss3/classifier_plantvillage_0_split -> loss3/classifier_plantvillage_loss3/classifier_plantvillage_0_split_0
I0403 21:46:34.006219 24180 net.cpp:399] loss3/classifier_plantvillage_loss3/classifier_plantvillage_0_split -> loss3/classifier_plantvillage_loss3/classifier_plantvillage_0_split_1
I0403 21:46:34.006239 24180 net.cpp:399] loss3/classifier_plantvillage_loss3/classifier_plantvillage_0_split -> loss3/classifier_plantvillage_loss3/classifier_plantvillage_0_split_2
I0403 21:46:34.006258 24180 net.cpp:399] loss3/classifier_plantvillage_loss3/classifier_plantvillage_0_split -> loss3/classifier_plantvillage_loss3/classifier_plantvillage_0_split_3
I0403 21:46:34.006356 24180 net.cpp:141] Setting up loss3/classifier_plantvillage_loss3/classifier_plantvillage_0_split
I0403 21:46:34.006379 24180 net.cpp:148] Top shape: 24 38 (912)
I0403 21:46:34.006394 24180 net.cpp:148] Top shape: 24 38 (912)
I0403 21:46:34.006409 24180 net.cpp:148] Top shape: 24 38 (912)
I0403 21:46:34.006423 24180 net.cpp:148] Top shape: 24 38 (912)
I0403 21:46:34.006438 24180 net.cpp:156] Memory required for data: 1346079072
I0403 21:46:34.006451 24180 layer_factory.hpp:77] Creating layer loss1/loss
I0403 21:46:34.006472 24180 net.cpp:91] Creating Layer loss1/loss
I0403 21:46:34.006489 24180 net.cpp:425] loss1/loss <- loss1/classifier_plantvillage_loss1/classifier_plantvillage_0_split_0
I0403 21:46:34.006518 24180 net.cpp:425] loss1/loss <- label_data_1_split_0
…
