…
I0403 21:42:16.642844 23947 net.cpp:313] The NetState phase (1) differed from the phase (0) specified by a rule in layer data
I0403 21:42:16.643973 23947 net.cpp:49] Initializing net from parameters: 
state {
  phase: TEST
}
layer {
  name: "data"
  type: "Data"
  top: "data"
  top: "label"
  include {
    phase: TEST
  }
  transform_param {
    mirror: false
    crop_size: 224
    mean_file: "/home/mohanty/data/final_dataset/lmdb/segmented-80-20/mean.binaryproto"
  }
  data_param {
    source: "/home/mohanty/data/final_dataset/lmdb/segmented-80-20/test_db"
    batch_size: 24
    backend: LMDB
  }
}
layer {
  name: "conv1/7x7_s2"
  type: "Convolution"
  bottom: "data"
  top: "conv1/7x7_s2"
  param {
    lr_mult: 1
    decay_mult: 1
  }
  param {
    lr_mult: 2
    decay_mult: 0
  }
  convolution_param {
    num_output: 64
    pad: 3
    kernel_size: 7
    stride: 2
    weight_filler {
      type: "xavier"
      std: 0.1
    }
    bias_filler {
      type: "constant"
      value: 0.2
    }
  }
}
layer {
  name: "conv1/relu_7x7"
  type: "ReLU"
  bottom: "conv1/7x7_s2"
  top: "conv1/7x7_s2"
}
layer {
  name: "pool1/3x3_s2"
  type: "Pooling"
  bottom: "conv1/7x7_s2"
  top: "pool1/3x3_s2"
  pooling_param {
    pool: MAX
    kernel_size: 3
    stride: 2
  }
}
layer {
  name: "pool1/norm1"
  type: "LRN"
  bottom: "pool1/3x3_s2"
  top: "pool1/norm1"
  lrn_param {
    local_size: 5
    alpha: 0.0001
    beta: 0.75
  }
}
layer {
  name: "conv2/3x3_reduce"
  type: "Convolution"
  bottom: "pool1/norm1"
  top: "conv2/3x3_reduce"
  param {
    lr_mult: 1
    decay_mult: 1
  }
  param {
    lr_mult: 2
    decay_mult: 0
  }
  convolution_param {
    num_output: 64
    kernel_size: 1
    weight_filler {
      type: "xavier"
      std: 0.1
    }
    bias_filler {
      type: "constant"
      value: 0.2
    }
  }
}
layer {
  name: "conv2/relu_3x3_reduce"
  type: "ReLU"
  bottom: "conv2/3x3_reduce"
  top: "conv2/3x3_reduce"
}
layer {
  name: "conv2/3x3"
  type: "Convolution"
  bottom: "conv2/3x3_reduce"
  top: "conv2/3x3"
  param {
    lr_mult: 1
    decay_mult: 1
  }
  param {
    lr_mult: 2
    decay_mult: 0
  }
  convolution_param {
    num_output: 192
    pad: 1
    kernel_size: 3
    weight_filler {
      type: "xavier"
      std: 0.03
    }
    bias_filler {
      type: "constant"
      value: 0.2
    }
  }
}
layer {
  name: "conv2/relu_3x3"
  type: "ReLU"
  bottom: "conv2/3x3"
  top: "conv2/3x3"
}
layer {
  name: "conv2/norm2"
  type: "LRN"
  bottom: "conv2/3x3"
  top: "conv2/norm2"
  lrn_param {
    local_size: 5
    alpha: 0.0001
    beta: 0.75
  }
}
layer {
  name: "pool2/3x3_s2"
  type: "Pooling"
  bottom: "conv2/norm2"
  top: "pool2/3x3_s2"
  pooling_param {
    pool: MAX
    kernel_size: 3
    stride: 2
  }
}
layer {
  name: "inception_3a/1x1"
  type: "Convolution"
  bottom: "pool2/3x3_s2"
  top: "inception_3a/1x1"
  param {
    lr_mult: 1
    decay_mult: 1
  }
  param {
    lr_mult: 2
    decay_mult: 0
  }
  convolution_param {
    num_output: 64
    kernel_size: 1
    weight_filler {
      type: "xavier"
      std: 0.03
    }
    bias_filler {
      type: "constant"
      value: 0.2
    }
  }
}
layer {
  name: "inception_3a/relu_1x1"
  type: "ReLU"
  bottom: "inception_3a/1x1"
  top: "inception_3a/1x1"
}
layer {
  name: "inception_3a/3x3_reduce"
  type: "Convolution"
  bottom: "pool2/3x3_s2"
  top: "inception_3a/3x3_reduce"
  param {
    lr_mult: 1
    decay_mult: 1
  }
  param {
    lr_mult: 2
    decay_mult: 0
  }
  convolution_param {
    num_output: 96
    kernel_size: 1
    weight_filler {
      type: "xavier"
      std: 0.09
    }
    bias_filler {
      type: "constant"
      value: 0.2
    }
  }
}
layer {
  name: "inception_3a/relu_3x3_reduce"
  type: "ReLU"
  bottom: "inception_3a/3x3_reduce"
  top: "inception_3a/3x3_reduce"
}
layer {
  name: "inception_3a/3x3"
  type: "Convolution"
  bottom: "inception_3a/3x3_reduce"
  top: "inception_3a/3x3"
  param {
    lr_mult: 1
    decay_mult: 1
  }
  param {
    lr_mult: 2
    decay_mult: 0
  }
  convolution_param {
    num_output: 128
    pad: 1
    kernel_size: 3
    weight_filler {
      type: "xavier"
      std: 0.03
    }
    bias_filler {
      type: "constant"
      value: 0.2
    }
  }
}
layer {
  name: "inception_3a/relu_3x3"
  type: "ReLU"
  bottom: "inception_3a/3x3"
  top: "inception_3a/3x3"
}
layer {
  name: "inception_3a/5x5_reduce"
  type: "Convolution"
  bottom: "pool2/3x3_s2"
  top: "inception_3a/5x5_reduce"
  param {
    lr_mult: 1
    decay_mult: 1
  }
  param {
    lr_mult: 2
    decay_mult: 0
  }
  convolution_param {
    num_output: 16
    kernel_size: 1
    weight_filler {
      type: "xavier"
      std: 0.2
    }
    bias_filler {
      type: "constant"
      value: 0.2
    }
  }
}
layer {
  name: "inception_3a/relu_5x5_reduce"
  type: "ReLU"
  bottom: "inception_3a/5x5_reduce"
  top: "inception_3a/5x5_reduce"
}
layer {
  name: "inception_3a/5x5"
  type: "Convolution"
  bottom: "inception_3a/5x5_reduce"
  top: "inception_3a/5x5"
  param {
    lr_mult: 1
    decay_mult: 1
  }
  param {
    lr_mult: 2
    decay_mult: 0
  }
  convolution_param {
    num_output: 32
    pad: 2
    kernel_size: 5
    weight_filler {
      type: "xavier"
      std: 0.03
    }
    bias_filler {
      type: "constant"
      value: 0.2
    }
  }
}
layer {
  name: "inception_3a/relu_5x5"
  type: "ReLU"
  bottom: "inception_3a/5x5"
  top: "inception_3a/5x5"
}
layer {
  name: "inception_3a/pool"
  type: "Pooling"
  bottom: "pool2/3x3_s2"
  top: "inception_3a/pool"
  pooling_param {
    pool: MAX
    kernel_size: 3
    stride: 1
    pad: 1
  }
}
layer {
  name: "inception_3a/pool_proj"
  type: "Convolution"
  bottom: "inception_3a/pool"
  top: "inception_3a/pool_proj"
  param {
    lr_mult: 1
    decay_mult: 1
  }
  param {
    lr_mult: 2
    decay_mult: 0
  }
  convolution_param {
    num_output: 32
    kernel_size: 1
    weight_filler {
      type: "xavier"
      std: 0.1
    }
    bias_filler {
      type: "constant"
      value: 0.2
    }
  }
}
layer {
  name: "inception_3a/relu_pool_proj"
  type: "ReLU"
  bottom: "inception_3a/pool_proj"
  top: "inception_3a/pool_proj"
}
layer {
  name: "inception_3a/output"
  type: "Concat"
  bottom: "inception_3a/1x1"
  bottom: "inception_3a/3x3"
  bottom: "inception_3a/5x5"
  bottom: "inception_3a/pool_proj"
  top: "inception_3a/output"
}
layer {
  name: "inception_3b/1x1"
  type: "Convolution"
  bottom: "inception_3a/output"
  top: "inception_3b/1x1"
  param {
    lr_mult: 1
    decay_mult: 1
  }
  param {
    lr_mult: 2
    decay_mult: 0
  }
  convolution_param {
    num_output: 128
    kernel_size: 1
    weight_filler {
      type: "xavier"
      std: 0.03
    }
    bias_filler {
      type: "constant"
      value: 0.2
    }
  }
}
layer {
  name: "inception_3b/relu_1x1"
  type: "ReLU"
  bottom: "inception_3b/1x1"
  top: "inception_3b/1x1"
}
layer {
  name: "inception_3b/3x3_reduce"
  type: "Convolution"
  bottom: "inception_3a/output"
  top: "inception_3b/3x3_reduce"
  param {
    lr_mult: 1
    decay_mult: 1
  }
  param {
    lr_mult: 2
    decay_mult: 0
  }
  convolution_param {
    num_output: 128
    kernel_size: 1
    weight_filler {
      type: "xavier"
      std: 0.09
    }
    bias_filler {
      type: "constant"
      value: 0.2
    }
  }
}
layer {
  name: "inception_3b/relu_3x3_reduce"
  type: "ReLU"
  bottom: "inception_3b/3x3_reduce"
  top: "inception_3b/3x3_reduce"
}
layer {
  name: "inception_3b/3x3"
  type: "Convolution"
  bottom: "inception_3b/3x3_reduce"
  top: "inception_3b/3x3"
  param {
    lr_mult: 1
    decay_mult: 1
  }
  param {
    lr_mult: 2
    decay_mult: 0
  }
  convolution_param {
    num_output: 192
    pad: 1
    kernel_size: 3
    weight_filler {
      type: "xavier"
      std: 0.03
    }
    bias_filler {
      type: "constant"
      value: 0.2
    }
  }
}
layer {
  name: "inception_3b/relu_3x3"
  type: "ReLU"
  bottom: "inception_3b/3x3"
  top: "inception_3b/3x3"
}
layer {
  name: "inception_3b/5x5_reduce"
  type: "Convolution"
  bottom: "inception_3a/output"
  top: "inception_3b/5x5_reduce"
  param {
    lr_mult: 1
    decay_mult: 1
  }
  param {
    lr_mult: 2
    decay_mult: 0
  }
  convolution_param {
    num_output: 32
    kernel_size: 1
    weight_filler {
      type: "xavier"
      std: 0.2
    }
    bias_filler {
      type: "constant"
      value: 0.2
    }
  }
}
layer {
  name: "inception_3b/relu_5x5_reduce"
  type: "ReLU"
  bottom: "inception_3b/5x5_reduce"
  top: "inception_3b/5x5_reduce"
}
layer {
  name: "inception_3b/5x5"
  type: "Convolution"
  bottom: "inception_3b/5x5_reduce"
  top: "inception_3b/5x5"
  param {
    lr_mult: 1
    decay_mult: 1
  }
  param {
    lr_mult: 2
    decay_mult: 0
  }
  convolution_param {
    num_output: 96
    pad: 2
    kernel_size: 5
    weight_filler {
      type: "xavier"
      std: 0.03
    }
    bias_filler {
      type: "constant"
      value: 0.2
    }
  }
}
layer {
  name: "inception_3b/relu_5x5"
  type: "ReLU"
  bottom: "inception_3b/5x5"
  top: "inception_3b/5x5"
}
layer {
  name: "inception_3b/pool"
  type: "Pooling"
  bottom: "inception_3a/output"
  top: "inception_3b/pool"
  pooling_param {
    pool: MAX
    kernel_size: 3
    stride: 1
    pad: 1
  }
}
layer {
  name: "inception_3b/pool_proj"
  type: "Convolution"
  bottom: "inception_3b/pool"
  top: "inception_3b/pool_proj"
  param {
    lr_mult: 1
    decay_mult: 1
  }
  param {
    lr_mult: 2
    decay_mult: 0
  }
  convolution_param {
    num_output: 64
    kernel_size: 1
    weight_filler {
      type: "xavier"
      std: 0.1
    }
    bias_filler {
      type: "constant"
      value: 0.2
    }
  }
}
layer {
  name: "inception_3b/relu_pool_proj"
  type: "ReLU"
  bottom: "inception_3b/pool_proj"
  top: "inception_3b/pool_proj"
}
layer {
  name: "inception_3b/output"
  type: "Concat"
  bottom: "inception_3b/1x1"
  bottom: "inception_3b/3x3"
  bottom: "inception_3b/5x5"
  bottom: "inception_3b/pool_proj"
  top: "inception_3b/output"
}
layer {
  name: "pool3/3x3_s2"
  type: "Pooling"
  bottom: "inception_3b/output"
  top: "pool3/3x3_s2"
  pooling_param {
    pool: MAX
    kernel_size: 3
    stride: 2
  }
}
layer {
  name: "inception_4a/1x1"
  type: "Convolution"
  bottom: "pool3/3x3_s2"
  top: "inception_4a/1x1"
  param {
    lr_mult: 1
    decay_mult: 1
  }
  param {
    lr_mult: 2
    decay_mult: 0
  }
  convolution_param {
    num_output: 192
    kernel_size: 1
    weight_filler {
      type: "xavier"
      std: 0.03
    }
    bias_filler {
      type: "constant"
      value: 0.2
    }
  }
}
layer {
  name: "inception_4a/relu_1x1"
  type: "ReLU"
  bottom: "inception_4a/1x1"
  top: "inception_4a/1x1"
}
layer {
  name: "inception_4a/3x3_reduce"
  type: "Convolution"
  bottom: "pool3/3x3_s2"
  top: "inception_4a/3x3_reduce"
  param {
    lr_mult: 1
    decay_mult: 1
  }
  param {
    lr_mult: 2
    decay_mult: 0
  }
  convolution_param {
    num_output: 96
    kernel_size: 1
    weight_filler {
      type: "xavier"
      std: 0.09
    }
    bias_filler {
      type: "constant"
      value: 0.2
    }
  }
}
layer {
  name: "inception_4a/relu_3x3_reduce"
  type: "ReLU"
  bottom: "inception_4a/3x3_reduce"
  top: "inception_4a/3x3_reduce"
}
layer {
  name: "inception_4a/3x3"
  type: "Convolution"
  bottom: "inception_4a/3x3_reduce"
  top: "inception_4a/3x3"
  param {
    lr_mult: 1
    decay_mult: 1
  }
  param {
    lr_mult: 2
    decay_mult: 0
  }
  convolution_param {
    num_output: 208
    pad: 1
    kernel_size: 3
    weight_filler {
      type: "xavier"
      std: 0.03
    }
    bias_filler {
      type: "constant"
      value: 0.2
    }
  }
}
layer {
  name: "inception_4a/relu_3x3"
  type: "ReLU"
  bottom: "inception_4a/3x3"
  top: "inception_4a/3x3"
}
layer {
  name: "inception_4a/5x5_reduce"
  type: "Convolution"
  bottom: "pool3/3x3_s2"
  top: "inception_4a/5x5_reduce"
  param {
    lr_mult: 1
    decay_mult: 1
  }
  param {
    lr_mult: 2
    decay_mult: 0
  }
  convolution_param {
    num_output: 16
    kernel_size: 1
    weight_filler {
      type: "xavier"
      std: 0.2
    }
    bias_filler {
      type: "constant"
      value: 0.2
    }
  }
}
layer {
  name: "inception_4a/relu_5x5_reduce"
  type: "ReLU"
  bottom: "inception_4a/5x5_reduce"
  top: "inception_4a/5x5_reduce"
}
layer {
  name: "inception_4a/5x5"
  type: "Convolution"
  bottom: "inception_4a/5x5_reduce"
  top: "inception_4a/5x5"
  param {
    lr_mult: 1
    decay_mult: 1
  }
  param {
    lr_mult: 2
    decay_mult: 0
  }
  convolution_param {
    num_output: 48
    pad: 2
    kernel_size: 5
    weight_filler {
      type: "xavier"
      std: 0.03
    }
    bias_filler {
      type: "constant"
      value: 0.2
    }
  }
}
layer {
  name: "inception_4a/relu_5x5"
  type: "ReLU"
  bottom: "inception_4a/5x5"
  top: "inception_4a/5x5"
}
layer {
  name: "inception_4a/pool"
  type: "Pooling"
  bottom: "pool3/3x3_s2"
  top: "inception_4a/pool"
  pooling_param {
    pool: MAX
    kernel_size: 3
    stride: 1
    pad: 1
  }
}
layer {
  name: "inception_4a/pool_proj"
  type: "Convolution"
  bottom: "inception_4a/pool"
  top: "inception_4a/pool_proj"
  param {
    lr_mult: 1
    decay_mult: 1
  }
  param {
    lr_mult: 2
    decay_mult: 0
  }
  convolution_param {
    num_output: 64
    kernel_size: 1
    weight_filler {
      type: "xavier"
      std: 0.1
    }
    bias_filler {
      type: "constant"
      value: 0.2
    }
  }
}
layer {
  name: "inception_4a/relu_pool_proj"
  type: "ReLU"
  bottom: "inception_4a/pool_proj"
  top: "inception_4a/pool_proj"
}
layer {
  name: "inception_4a/output"
  type: "Concat"
  bottom: "inception_4a/1x1"
  bottom: "inception_4a/3x3"
  bottom: "inception_4a/5x5"
  bottom: "inception_4a/pool_proj"
  top: "inception_4a/output"
}
layer {
  name: "loss1/ave_pool"
  type: "Pooling"
  bottom: "inception_4a/output"
  top: "loss1/ave_pool"
  pooling_param {
    pool: AVE
    kernel_size: 5
    stride: 3
  }
}
layer {
  name: "loss1/conv"
  type: "Convolution"
  bottom: "loss1/ave_pool"
  top: "loss1/conv"
  param {
    lr_mult: 1
    decay_mult: 1
  }
  param {
    lr_mult: 2
    decay_mult: 0
  }
  convolution_param {
    num_output: 128
    kernel_size: 1
    weight_filler {
      type: "xavier"
      std: 0.08
    }
    bias_filler {
      type: "constant"
      value: 0.2
    }
  }
}
layer {
  name: "loss1/relu_conv"
  type: "ReLU"
  bottom: "loss1/conv"
  top: "loss1/conv"
}
layer {
  name: "loss1/fc"
  type: "InnerProduct"
  bottom: "loss1/conv"
  top: "loss1/fc"
  param {
    lr_mult: 1
    decay_mult: 1
  }
  param {
    lr_mult: 2
    decay_mult: 0
  }
  inner_product_param {
    num_output: 1024
    weight_filler {
      type: "xavier"
      std: 0.02
    }
    bias_filler {
      type: "constant"
      value: 0.2
    }
  }
}
layer {
  name: "loss1/relu_fc"
  type: "ReLU"
  bottom: "loss1/fc"
  top: "loss1/fc"
}
layer {
  name: "loss1/drop_fc"
  type: "Dropout"
  bottom: "loss1/fc"
  top: "loss1/fc"
  dropout_param {
    dropout_ratio: 0.7
  }
}
layer {
  name: "loss1/classifier_plantvillage"
  type: "InnerProduct"
  bottom: "loss1/fc"
  top: "loss1/classifier_plantvillage"
  param {
    lr_mult: 1
    decay_mult: 1
  }
  param {
    lr_mult: 2
    decay_mult: 0
  }
  inner_product_param {
    num_output: 38
    weight_filler {
      type: "xavier"
      std: 0.0009765625
    }
    bias_filler {
      type: "constant"
      value: 0
    }
  }
}
layer {
  name: "inception_4b/1x1"
  type: "Convolution"
  bottom: "inception_4a/output"
  top: "inception_4b/1x1"
  param {
    lr_mult: 1
    decay_mult: 1
  }
  param {
    lr_mult: 2
    decay_mult: 0
  }
  convolution_param {
    num_output: 160
    kernel_size: 1
    weight_filler {
      type: "xavier"
      std: 0.03
    }
    bias_filler {
      type: "constant"
      value: 0.2
    }
  }
}
layer {
  name: "inception_4b/relu_1x1"
  type: "ReLU"
  bottom: "inception_4b/1x1"
  top: "inception_4b/1x1"
}
layer {
  name: "inception_4b/3x3_reduce"
  type: "Convolution"
  bottom: "inception_4a/output"
  top: "inception_4b/3x3_reduce"
  param {
    lr_mult: 1
    decay_mult: 1
  }
  param {
    lr_mult: 2
    decay_mult: 0
  }
  convolution_param {
    num_output: 112
    kernel_size: 1
    weight_filler {
      type: "xavier"
      std: 0.09
    }
    bias_filler {
      type: "constant"
      value: 0.2
    }
  }
}
layer {
  name: "inception_4b/relu_3x3_reduce"
  type: "ReLU"
  bottom: "inception_4b/3x3_reduce"
  top: "inception_4b/3x3_reduce"
}
layer {
  name: "inception_4b/3x3"
  type: "Convolution"
  bottom: "inception_4b/3x3_reduce"
  top: "inception_4b/3x3"
  param {
    lr_mult: 1
    decay_mult: 1
  }
  param {
    lr_mult: 2
    decay_mult: 0
  }
  convolution_param {
    num_output: 224
    pad: 1
    kernel_size: 3
    weight_filler {
      type: "xavier"
      std: 0.03
    }
    bias_filler {
      type: "constant"
      value: 0.2
    }
  }
}
layer {
  name: "inception_4b/relu_3x3"
  type: "ReLU"
  bottom: "inception_4b/3x3"
  top: "inception_4b/3x3"
}
layer {
  name: "inception_4b/5x5_reduce"
  type: "Convolution"
  bottom: "inception_4a/output"
  top: "inception_4b/5x5_reduce"
  param {
    lr_mult: 1
    decay_mult: 1
  }
  param {
    lr_mult: 2
    decay_mult: 0
  }
  convolution_param {
    num_output: 24
    kernel_size: 1
    weight_filler {
      type: "xavier"
      std: 0.2
    }
    bias_filler {
      type: "constant"
      value: 0.2
    }
  }
}
layer {
  name: "inception_4b/relu_5x5_reduce"
  type: "ReLU"
  bottom: "inception_4b/5x5_reduce"
  top: "inception_4b/5x5_reduce"
}
layer {
  name: "inception_4b/5x5"
  type: "Convolution"
  bottom: "inception_4b/5x5_reduce"
  top: "inception_4b/5x5"
  param {
    lr_mult: 1
    decay_mult: 1
  }
  param {
    lr_mult: 2
    decay_mult: 0
  }
  convolution_param {
    num_output: 64
    pad: 2
    kernel_size: 5
    weight_filler {
      type: "xavier"
      std: 0.03
    }
    bias_filler {
      type: "constant"
      value: 0.2
    }
  }
}
layer {
  name: "inception_4b/relu_5x5"
  type: "ReLU"
  bottom: "inception_4b/5x5"
  top: "inception_4b/5x5"
}
layer {
  name: "inception_4b/pool"
  type: "Pooling"
  bottom: "inception_4a/output"
  top: "inception_4b/pool"
  pooling_param {
    pool: MAX
    kernel_size: 3
    stride: 1
    pad: 1
  }
}
layer {
  name: "inception_4b/pool_proj"
  type: "Convolution"
  bottom: "inception_4b/pool"
  top: "inception_4b/pool_proj"
  param {
    lr_mult: 1
    decay_mult: 1
  }
  param {
    lr_mult: 2
    decay_mult: 0
  }
  convolution_param {
    num_output: 64
    kernel_size: 1
    weight_filler {
      type: "xavier"
      std: 0.1
    }
    bias_filler {
      type: "constant"
      value: 0.2
    }
  }
}
layer {
  name: "inception_4b/relu_pool_proj"
  type: "ReLU"
  bottom: "inception_4b/pool_proj"
  top: "inception_4b/pool_proj"
}
layer {
  name: "inception_4b/output"
  type: "Concat"
  bottom: "inception_4b/1x1"
  bottom: "inception_4b/3x3"
  bottom: "inception_4b/5x5"
  bottom: "inception_4b/pool_proj"
  top: "inception_4b/output"
}
layer {
  name: "inception_4c/1x1"
  type: "Convolution"
  bottom: "inception_4b/output"
  top: "inception_4c/1x1"
  param {
    lr_mult: 1
    decay_mult: 1
  }
  param {
    lr_mult: 2
    decay_mult: 0
  }
  convolution_param {
    num_output: 128
    kernel_size: 1
    weight_filler {
      type: "xavier"
      std: 0.03
    }
    bias_filler {
      type: "constant"
      value: 0.2
    }
  }
}
layer {
  name: "inception_4c/relu_1x1"
  type: "ReLU"
  bottom: "inception_4c/1x1"
  top: "inception_4c/1x1"
}
layer {
  name: "inception_4c/3x3_reduce"
  type: "Convolution"
  bottom: "inception_4b/output"
  top: "inception_4c/3x3_reduce"
  param {
    lr_mult: 1
    decay_mult: 1
  }
  param {
    lr_mult: 2
    decay_mult: 0
  }
  convolution_param {
    num_output: 128
    kernel_size: 1
    weight_filler {
      type: "xavier"
      std: 0.09
    }
    bias_filler {
      type: "constant"
      value: 0.2
    }
  }
}
layer {
  name: "inception_4c/relu_3x3_reduce"
  type: "ReLU"
  bottom: "inception_4c/3x3_reduce"
  top: "inception_4c/3x3_reduce"
}
layer {
  name: "inception_4c/3x3"
  type: "Convolution"
  bottom: "inception_4c/3x3_reduce"
  top: "inception_4c/3x3"
  param {
    lr_mult: 1
    decay_mult: 1
  }
  param {
    lr_mult: 2
    decay_mult: 0
  }
  convolution_param {
    num_output: 256
    pad: 1
    kernel_size: 3
    weight_filler {
      type: "xavier"
      std: 0.03
    }
    bias_filler {
      type: "constant"
      value: 0.2
    }
  }
}
layer {
  name: "inception_4c/relu_3x3"
  type: "ReLU"
  bottom: "inception_4c/3x3"
  top: "inception_4c/3x3"
}
layer {
  name: "inception_4c/5x5_reduce"
  type: "Convolution"
  bottom: "inception_4b/output"
  top: "inception_4c/5x5_reduce"
  param {
    lr_mult: 1
    decay_mult: 1
  }
  param {
    lr_mult: 2
    decay_mult: 0
  }
  convolution_param {
    num_output: 24
    kernel_size: 1
    weight_filler {
      type: "xavier"
      std: 0.2
    }
    bias_filler {
      type: "constant"
      value: 0.2
    }
  }
}
layer {
  name: "inception_4c/relu_5x5_reduce"
  type: "ReLU"
  bottom: "inception_4c/5x5_reduce"
  top: "inception_4c/5x5_reduce"
}
layer {
  name: "inception_4c/5x5"
  type: "Convolution"
  bottom: "inception_4c/5x5_reduce"
  top: "inception_4c/5x5"
  param {
    lr_mult: 1
    decay_mult: 1
  }
  param {
    lr_mult: 2
    decay_mult: 0
  }
  convolution_param {
    num_output: 64
    pad: 2
    kernel_size: 5
    weight_filler {
      type: "xavier"
      std: 0.03
    }
    bias_filler {
      type: "constant"
      value: 0.2
    }
  }
}
layer {
  name: "inception_4c/relu_5x5"
  type: "ReLU"
  bottom: "inception_4c/5x5"
  top: "inception_4c/5x5"
}
layer {
  name: "inception_4c/pool"
  type: "Pooling"
  bottom: "inception_4b/output"
  top: "inception_4c/pool"
  pooling_param {
    pool: MAX
    kernel_size: 3
    stride: 1
    pad: 1
  }
}
layer {
  name: "inception_4c/pool_proj"
  type: "Convolution"
  bottom: "inception_4c/pool"
  top: "inception_4c/pool_proj"
  param {
    lr_mult: 1
    decay_mult: 1
  }
  param {
    lr_mult: 2
    decay_mult: 0
  }
  convolution_param {
    num_output: 64
    kernel_size: 1
    weight_filler {
      type: "xavier"
      std: 0.1
    }
    bias_filler {
      type: "constant"
      value: 0.2
    }
  }
}
layer {
  name: "inception_4c/relu_pool_proj"
  type: "ReLU"
  bottom: "inception_4c/pool_proj"
  top: "inception_4c/pool_proj"
}
layer {
  name: "inception_4c/output"
  type: "Concat"
  bottom: "inception_4c/1x1"
  bottom: "inception_4c/3x3"
  bottom: "inception_4c/5x5"
  bottom: "inception_4c/pool_proj"
  top: "inception_4c/output"
}
layer {
  name: "inception_4d/1x1"
  type: "Convolution"
  bottom: "inception_4c/output"
  top: "inception_4d/1x1"
  param {
    lr_mult: 1
    decay_mult: 1
  }
  param {
    lr_mult: 2
    decay_mult: 0
  }
  convolution_param {
    num_output: 112
    kernel_size: 1
    weight_filler {
      type: "xavier"
      std: 0.03
    }
    bias_filler {
      type: "constant"
      value: 0.2
    }
  }
}
layer {
  name: "inception_4d/relu_1x1"
  type: "ReLU"
  bottom: "inception_4d/1x1"
  top: "inception_4d/1x1"
}
layer {
  name: "inception_4d/3x3_reduce"
  type: "Convolution"
  bottom: "inception_4c/output"
  top: "inception_4d/3x3_reduce"
  param {
    lr_mult: 1
    decay_mult: 1
  }
  param {
    lr_mult: 2
    decay_mult: 0
  }
  convolution_param {
    num_output: 144
    kernel_size: 1
    weight_filler {
      type: "xavier"
      std: 0.09
    }
    bias_filler {
      type: "constant"
      value: 0.2
    }
  }
}
layer {
  name: "inception_4d/relu_3x3_reduce"
  type: "ReLU"
  bottom: "inception_4d/3x3_reduce"
  top: "inception_4d/3x3_reduce"
}
layer {
  name: "inception_4d/3x3"
  type: "Convolution"
  bottom: "inception_4d/3x3_reduce"
  top: "inception_4d/3x3"
  param {
    lr_mult: 1
    decay_mult: 1
  }
  param {
    lr_mult: 2
    decay_mult: 0
  }
  convolution_param {
    num_output: 288
    pad: 1
    kernel_size: 3
    weight_filler {
      type: "xavier"
      std: 0.03
    }
    bias_filler {
      type: "constant"
      value: 0.2
    }
  }
}
layer {
  name: "inception_4d/relu_3x3"
  type: "ReLU"
  bottom: "inception_4d/3x3"
  top: "inception_4d/3x3"
}
layer {
  name: "inception_4d/5x5_reduce"
  type: "Convolution"
  bottom: "inception_4c/output"
  top: "inception_4d/5x5_reduce"
  param {
    lr_mult: 1
    decay_mult: 1
  }
  param {
    lr_mult: 2
    decay_mult: 0
  }
  convolution_param {
    num_output: 32
    kernel_size: 1
    weight_filler {
      type: "xavier"
      std: 0.2
    }
    bias_filler {
      type: "constant"
      value: 0.2
    }
  }
}
layer {
  name: "inception_4d/relu_5x5_reduce"
  type: "ReLU"
  bottom: "inception_4d/5x5_reduce"
  top: "inception_4d/5x5_reduce"
}
layer {
  name: "inception_4d/5x5"
  type: "Convolution"
  bottom: "inception_4d/5x5_reduce"
  top: "inception_4d/5x5"
  param {
    lr_mult: 1
    decay_mult: 1
  }
  param {
    lr_mult: 2
    decay_mult: 0
  }
  convolution_param {
    num_output: 64
    pad: 2
    kernel_size: 5
    weight_filler {
      type: "xavier"
      std: 0.03
    }
    bias_filler {
      type: "constant"
      value: 0.2
    }
  }
}
layer {
  name: "inception_4d/relu_5x5"
  type: "ReLU"
  bottom: "inception_4d/5x5"
  top: "inception_4d/5x5"
}
layer {
  name: "inception_4d/pool"
  type: "Pooling"
  bottom: "inception_4c/output"
  top: "inception_4d/pool"
  pooling_param {
    pool: MAX
    kernel_size: 3
    stride: 1
    pad: 1
  }
}
layer {
  name: "inception_4d/pool_proj"
  type: "Convolution"
  bottom: "inception_4d/pool"
  top: "inception_4d/pool_proj"
  param {
    lr_mult: 1
    decay_mult: 1
  }
  param {
    lr_mult: 2
    decay_mult: 0
  }
  convolution_param {
    num_output: 64
    kernel_size: 1
    weight_filler {
      type: "xavier"
      std: 0.1
    }
    bias_filler {
      type: "constant"
      value: 0.2
    }
  }
}
layer {
  name: "inception_4d/relu_pool_proj"
  type: "ReLU"
  bottom: "inception_4d/pool_proj"
  top: "inception_4d/pool_proj"
}
layer {
  name: "inception_4d/output"
  type: "Concat"
  bottom: "inception_4d/1x1"
  bottom: "inception_4d/3x3"
  bottom: "inception_4d/5x5"
  bottom: "inception_4d/pool_proj"
  top: "inception_4d/output"
}
layer {
  name: "loss2/ave_pool"
  type: "Pooling"
  bottom: "inception_4d/output"
  top: "loss2/ave_pool"
  pooling_param {
    pool: AVE
    kernel_size: 5
    stride: 3
  }
}
layer {
  name: "loss2/conv"
  type: "Convolution"
  bottom: "loss2/ave_pool"
  top: "loss2/conv"
  param {
    lr_mult: 1
    decay_mult: 1
  }
  param {
    lr_mult: 2
    decay_mult: 0
  }
  convolution_param {
    num_output: 128
    kernel_size: 1
    weight_filler {
      type: "xavier"
      std: 0.08
    }
    bias_filler {
      type: "constant"
      value: 0.2
    }
  }
}
layer {
  name: "loss2/relu_conv"
  type: "ReLU"
  bottom: "loss2/conv"
  top: "loss2/conv"
}
layer {
  name: "loss2/fc"
  type: "InnerProduct"
  bottom: "loss2/conv"
  top: "loss2/fc"
  param {
    lr_mult: 1
    decay_mult: 1
  }
  param {
    lr_mult: 2
    decay_mult: 0
  }
  inner_product_param {
    num_output: 1024
    weight_filler {
      type: "xavier"
      std: 0.02
    }
    bias_filler {
      type: "constant"
      value: 0.2
    }
  }
}
layer {
  name: "loss2/relu_fc"
  type: "ReLU"
  bottom: "loss2/fc"
  top: "loss2/fc"
}
layer {
  name: "loss2/drop_fc"
  type: "Dropout"
  bottom: "loss2/fc"
  top: "loss2/fc"
  dropout_param {
    dropout_ratio: 0.7
  }
}
layer {
  name: "loss2/classifier_plantvillage"
  type: "InnerProduct"
  bottom: "loss2/fc"
  top: "loss2/classifier_plantvillage"
  param {
    lr_mult: 1
    decay_mult: 1
  }
  param {
    lr_mult: 2
    decay_mult: 0
  }
  inner_product_param {
    num_output: 38
    weight_filler {
      type: "xavier"
      std: 0.0009765625
    }
    bias_filler {
      type: "constant"
      value: 0
    }
  }
}
layer {
  name: "inception_4e/1x1"
  type: "Convolution"
  bottom: "inception_4d/output"
  top: "inception_4e/1x1"
  param {
    lr_mult: 1
    decay_mult: 1
  }
  param {
    lr_mult: 2
    decay_mult: 0
  }
  convolution_param {
    num_output: 256
    kernel_size: 1
    weight_filler {
      type: "xavier"
      std: 0.03
    }
    bias_filler {
      type: "constant"
      value: 0.2
    }
  }
}
layer {
  name: "inception_4e/relu_1x1"
  type: "ReLU"
  bottom: "inception_4e/1x1"
  top: "inception_4e/1x1"
}
layer {
  name: "inception_4e/3x3_reduce"
  type: "Convolution"
  bottom: "inception_4d/output"
  top: "inception_4e/3x3_reduce"
  param {
    lr_mult: 1
    decay_mult: 1
  }
  param {
    lr_mult: 2
    decay_mult: 0
  }
  convolution_param {
    num_output: 160
    kernel_size: 1
    weight_filler {
      type: "xavier"
      std: 0.09
    }
    bias_filler {
      type: "constant"
      value: 0.2
    }
  }
}
layer {
  name: "inception_4e/relu_3x3_reduce"
  type: "ReLU"
  bottom: "inception_4e/3x3_reduce"
  top: "inception_4e/3x3_reduce"
}
layer {
  name: "inception_4e/3x3"
  type: "Convolution"
  bottom: "inception_4e/3x3_reduce"
  top: "inception_4e/3x3"
  param {
    lr_mult: 1
    decay_mult: 1
  }
  param {
    lr_mult: 2
    decay_mult: 0
  }
  convolution_param {
    num_output: 320
    pad: 1
    kernel_size: 3
    weight_filler {
      type: "xavier"
      std: 0.03
    }
    bias_filler {
      type: "constant"
      value: 0.2
    }
  }
}
layer {
  name: "inception_4e/relu_3x3"
  type: "ReLU"
  bottom: "inception_4e/3x3"
  top: "inception_4e/3x3"
}
layer {
  name: "inception_4e/5x5_reduce"
  type: "Convolution"
  bottom: "inception_4d/output"
  top: "inception_4e/5x5_reduce"
  param {
    lr_mult: 1
    decay_mult: 1
  }
  param {
    lr_mult: 2
    decay_mult: 0
  }
  convolution_param {
    num_output: 32
    kernel_size: 1
    weight_filler {
      type: "xavier"
      std: 0.2
    }
    bias_filler {
      type: "constant"
      value: 0.2
    }
  }
}
layer {
  name: "inception_4e/relu_5x5_reduce"
  type: "ReLU"
  bottom: "inception_4e/5x5_reduce"
  top: "inception_4e/5x5_reduce"
}
layer {
  name: "inception_4e/5x5"
  type: "Convolution"
  bottom: "inception_4e/5x5_reduce"
  top: "inception_4e/
I0403 21:42:16.645135 23947 layer_factory.hpp:77] Creating layer data
I0403 21:42:16.645712 23947 net.cpp:91] Creating Layer data
I0403 21:42:16.645746 23947 net.cpp:399] data -> data
I0403 21:42:16.645797 23947 net.cpp:399] data -> label
I0403 21:42:16.645834 23947 data_transformer.cpp:25] Loading mean file from: /home/mohanty/data/final_dataset/lmdb/segmented-80-20/mean.binaryproto
I0403 21:42:16.646988 23949 db_lmdb.cpp:38] Opened lmdb /home/mohanty/data/final_dataset/lmdb/segmented-80-20/test_db
I0403 21:42:16.658579 23947 data_layer.cpp:41] output data size: 24,3,224,224
I0403 21:42:16.685896 23947 net.cpp:141] Setting up data
I0403 21:42:16.685984 23947 net.cpp:148] Top shape: 24 3 224 224 (3612672)
I0403 21:42:16.686007 23947 net.cpp:148] Top shape: 24 (24)
I0403 21:42:16.686023 23947 net.cpp:156] Memory required for data: 14450784
I0403 21:42:16.686051 23947 layer_factory.hpp:77] Creating layer label_data_1_split
I0403 21:42:16.686080 23947 net.cpp:91] Creating Layer label_data_1_split
I0403 21:42:16.686100 23947 net.cpp:425] label_data_1_split <- label
I0403 21:42:16.686132 23947 net.cpp:399] label_data_1_split -> label_data_1_split_0
I0403 21:42:16.686161 23947 net.cpp:399] label_data_1_split -> label_data_1_split_1
I0403 21:42:16.686184 23947 net.cpp:399] label_data_1_split -> label_data_1_split_2
I0403 21:42:16.686211 23947 net.cpp:399] label_data_1_split -> label_data_1_split_3
I0403 21:42:16.686234 23947 net.cpp:399] label_data_1_split -> label_data_1_split_4
I0403 21:42:16.686254 23947 net.cpp:399] label_data_1_split -> label_data_1_split_5
I0403 21:42:16.686275 23947 net.cpp:399] label_data_1_split -> label_data_1_split_6
I0403 21:42:16.686295 23947 net.cpp:399] label_data_1_split -> label_data_1_split_7
I0403 21:42:16.686316 23947 net.cpp:399] label_data_1_split -> label_data_1_split_8
I0403 21:42:16.686336 23947 net.cpp:399] label_data_1_split -> label_data_1_split_9
I0403 21:42:16.686452 23947 net.cpp:141] Setting up label_data_1_split
I0403 21:42:16.686477 23947 net.cpp:148] Top shape: 24 (24)
I0403 21:42:16.686496 23947 net.cpp:148] Top shape: 24 (24)
I0403 21:42:16.686511 23947 net.cpp:148] Top shape: 24 (24)
I0403 21:42:16.686527 23947 net.cpp:148] Top shape: 24 (24)
I0403 21:42:16.686543 23947 net.cpp:148] Top shape: 24 (24)
I0403 21:42:16.686560 23947 net.cpp:148] Top shape: 24 (24)
I0403 21:42:16.686578 23947 net.cpp:148] Top shape: 24 (24)
I0403 21:42:16.686594 23947 net.cpp:148] Top shape: 24 (24)
I0403 21:42:16.686610 23947 net.cpp:148] Top shape: 24 (24)
I0403 21:42:16.686626 23947 net.cpp:148] Top shape: 24 (24)
I0403 21:42:16.686676 23947 net.cpp:156] Memory required for data: 14451744
I0403 21:42:16.686693 23947 layer_factory.hpp:77] Creating layer conv1/7x7_s2
I0403 21:42:16.686727 23947 net.cpp:91] Creating Layer conv1/7x7_s2
I0403 21:42:16.686745 23947 net.cpp:425] conv1/7x7_s2 <- data
I0403 21:42:16.686764 23947 net.cpp:399] conv1/7x7_s2 -> conv1/7x7_s2
I0403 21:42:16.825996 23947 net.cpp:141] Setting up conv1/7x7_s2
I0403 21:42:16.826076 23947 net.cpp:148] Top shape: 24 64 112 112 (19267584)
I0403 21:42:16.826095 23947 net.cpp:156] Memory required for data: 91522080
I0403 21:42:16.826127 23947 layer_factory.hpp:77] Creating layer conv1/relu_7x7
I0403 21:42:16.826153 23947 net.cpp:91] Creating Layer conv1/relu_7x7
I0403 21:42:16.826174 23947 net.cpp:425] conv1/relu_7x7 <- conv1/7x7_s2
I0403 21:42:16.826194 23947 net.cpp:386] conv1/relu_7x7 -> conv1/7x7_s2 (in-place)
I0403 21:42:16.826444 23947 net.cpp:141] Setting up conv1/relu_7x7
I0403 21:42:16.826470 23947 net.cpp:148] Top shape: 24 64 112 112 (19267584)
I0403 21:42:16.826486 23947 net.cpp:156] Memory required for data: 168592416
I0403 21:42:16.826503 23947 layer_factory.hpp:77] Creating layer pool1/3x3_s2
I0403 21:42:16.826529 23947 net.cpp:91] Creating Layer pool1/3x3_s2
I0403 21:42:16.826547 23947 net.cpp:425] pool1/3x3_s2 <- conv1/7x7_s2
I0403 21:42:16.826566 23947 net.cpp:399] pool1/3x3_s2 -> pool1/3x3_s2
I0403 21:42:16.826638 23947 net.cpp:141] Setting up pool1/3x3_s2
I0403 21:42:16.826663 23947 net.cpp:148] Top shape: 24 64 56 56 (4816896)
I0403 21:42:16.826679 23947 net.cpp:156] Memory required for data: 187860000
I0403 21:42:16.826695 23947 layer_factory.hpp:77] Creating layer pool1/norm1
I0403 21:42:16.826719 23947 net.cpp:91] Creating Layer pool1/norm1
I0403 21:42:16.826737 23947 net.cpp:425] pool1/norm1 <- pool1/3x3_s2
I0403 21:42:16.826756 23947 net.cpp:399] pool1/norm1 -> pool1/norm1
I0403 21:42:16.827030 23947 net.cpp:141] Setting up pool1/norm1
I0403 21:42:16.827057 23947 net.cpp:148] Top shape: 24 64 56 56 (4816896)
I0403 21:42:16.827074 23947 net.cpp:156] Memory required for data: 207127584
I0403 21:42:16.827090 23947 layer_factory.hpp:77] Creating layer conv2/3x3_reduce
I0403 21:42:16.827114 23947 net.cpp:91] Creating Layer conv2/3x3_reduce
I0403 21:42:16.827131 23947 net.cpp:425] conv2/3x3_reduce <- pool1/norm1
I0403 21:42:16.827150 23947 net.cpp:399] conv2/3x3_reduce -> conv2/3x3_reduce
I0403 21:42:16.828496 23947 net.cpp:141] Setting up conv2/3x3_reduce
I0403 21:42:16.828526 23947 net.cpp:148] Top shape: 24 64 56 56 (4816896)
I0403 21:42:16.828542 23947 net.cpp:156] Memory required for data: 226395168
I0403 21:42:16.828563 23947 layer_factory.hpp:77] Creating layer conv2/relu_3x3_reduce
I0403 21:42:16.828583 23947 net.cpp:91] Creating Layer conv2/relu_3x3_reduce
I0403 21:42:16.828632 23947 net.cpp:425] conv2/relu_3x3_reduce <- conv2/3x3_reduce
I0403 21:42:16.828651 23947 net.cpp:386] conv2/relu_3x3_reduce -> conv2/3x3_reduce (in-place)
I0403 21:42:16.828932 23947 net.cpp:141] Setting up conv2/relu_3x3_reduce
I0403 21:42:16.828960 23947 net.cpp:148] Top shape: 24 64 56 56 (4816896)
I0403 21:42:16.828976 23947 net.cpp:156] Memory required for data: 245662752
I0403 21:42:16.828992 23947 layer_factory.hpp:77] Creating layer conv2/3x3
I0403 21:42:16.829016 23947 net.cpp:91] Creating Layer conv2/3x3
I0403 21:42:16.829035 23947 net.cpp:425] conv2/3x3 <- conv2/3x3_reduce
I0403 21:42:16.829057 23947 net.cpp:399] conv2/3x3 -> conv2/3x3
I0403 21:42:16.831302 23947 net.cpp:141] Setting up conv2/3x3
I0403 21:42:16.831332 23947 net.cpp:148] Top shape: 24 192 56 56 (14450688)
I0403 21:42:16.831351 23947 net.cpp:156] Memory required for data: 303465504
I0403 21:42:16.831372 23947 layer_factory.hpp:77] Creating layer conv2/relu_3x3
I0403 21:42:16.831393 23947 net.cpp:91] Creating Layer conv2/relu_3x3
I0403 21:42:16.831410 23947 net.cpp:425] conv2/relu_3x3 <- conv2/3x3
I0403 21:42:16.831429 23947 net.cpp:386] conv2/relu_3x3 -> conv2/3x3 (in-place)
I0403 21:42:16.831601 23947 net.cpp:141] Setting up conv2/relu_3x3
I0403 21:42:16.831627 23947 net.cpp:148] Top shape: 24 192 56 56 (14450688)
I0403 21:42:16.831676 23947 net.cpp:156] Memory required for data: 361268256
I0403 21:42:16.831691 23947 layer_factory.hpp:77] Creating layer conv2/norm2
I0403 21:42:16.831712 23947 net.cpp:91] Creating Layer conv2/norm2
I0403 21:42:16.831729 23947 net.cpp:425] conv2/norm2 <- conv2/3x3
I0403 21:42:16.831750 23947 net.cpp:399] conv2/norm2 -> conv2/norm2
I0403 21:42:16.832046 23947 net.cpp:141] Setting up conv2/norm2
I0403 21:42:16.832075 23947 net.cpp:148] Top shape: 24 192 56 56 (14450688)
I0403 21:42:16.832093 23947 net.cpp:156] Memory required for data: 419071008
I0403 21:42:16.832108 23947 layer_factory.hpp:77] Creating layer pool2/3x3_s2
I0403 21:42:16.832126 23947 net.cpp:91] Creating Layer pool2/3x3_s2
I0403 21:42:16.832144 23947 net.cpp:425] pool2/3x3_s2 <- conv2/norm2
I0403 21:42:16.832165 23947 net.cpp:399] pool2/3x3_s2 -> pool2/3x3_s2
I0403 21:42:16.832221 23947 net.cpp:141] Setting up pool2/3x3_s2
I0403 21:42:16.832247 23947 net.cpp:148] Top shape: 24 192 28 28 (3612672)
I0403 21:42:16.832262 23947 net.cpp:156] Memory required for data: 433521696
I0403 21:42:16.832278 23947 layer_factory.hpp:77] Creating layer pool2/3x3_s2_pool2/3x3_s2_0_split
I0403 21:42:16.832296 23947 net.cpp:91] Creating Layer pool2/3x3_s2_pool2/3x3_s2_0_split
I0403 21:42:16.832312 23947 net.cpp:425] pool2/3x3_s2_pool2/3x3_s2_0_split <- pool2/3x3_s2
I0403 21:42:16.832330 23947 net.cpp:399] pool2/3x3_s2_pool2/3x3_s2_0_split -> pool2/3x3_s2_pool2/3x3_s2_0_split_0
I0403 21:42:16.832350 23947 net.cpp:399] pool2/3x3_s2_pool2/3x3_s2_0_split -> pool2/3x3_s2_pool2/3x3_s2_0_split_1
I0403 21:42:16.832370 23947 net.cpp:399] pool2/3x3_s2_pool2/3x3_s2_0_split -> pool2/3x3_s2_pool2/3x3_s2_0_split_2
I0403 21:42:16.832392 23947 net.cpp:399] pool2/3x3_s2_pool2/3x3_s2_0_split -> pool2/3x3_s2_pool2/3x3_s2_0_split_3
I0403 21:42:16.832463 23947 net.cpp:141] Setting up pool2/3x3_s2_pool2/3x3_s2_0_split
I0403 21:42:16.832487 23947 net.cpp:148] Top shape: 24 192 28 28 (3612672)
I0403 21:42:16.832504 23947 net.cpp:148] Top shape: 24 192 28 28 (3612672)
I0403 21:42:16.832521 23947 net.cpp:148] Top shape: 24 192 28 28 (3612672)
I0403 21:42:16.832536 23947 net.cpp:148] Top shape: 24 192 28 28 (3612672)
I0403 21:42:16.832551 23947 net.cpp:156] Memory required for data: 491324448
I0403 21:42:16.832566 23947 layer_factory.hpp:77] Creating layer inception_3a/1x1
I0403 21:42:16.832589 23947 net.cpp:91] Creating Layer inception_3a/1x1
I0403 21:42:16.832607 23947 net.cpp:425] inception_3a/1x1 <- pool2/3x3_s2_pool2/3x3_s2_0_split_0
I0403 21:42:16.832628 23947 net.cpp:399] inception_3a/1x1 -> inception_3a/1x1
I0403 21:42:16.834146 23947 net.cpp:141] Setting up inception_3a/1x1
I0403 21:42:16.834174 23947 net.cpp:148] Top shape: 24 64 28 28 (1204224)
I0403 21:42:16.834192 23947 net.cpp:156] Memory required for data: 496141344
I0403 21:42:16.834215 23947 layer_factory.hpp:77] Creating layer inception_3a/relu_1x1
I0403 21:42:16.834236 23947 net.cpp:91] Creating Layer inception_3a/relu_1x1
I0403 21:42:16.834252 23947 net.cpp:425] inception_3a/relu_1x1 <- inception_3a/1x1
I0403 21:42:16.834272 23947 net.cpp:386] inception_3a/relu_1x1 -> inception_3a/1x1 (in-place)
I0403 21:42:16.834444 23947 net.cpp:141] Setting up inception_3a/relu_1x1
I0403 21:42:16.834468 23947 net.cpp:148] Top shape: 24 64 28 28 (1204224)
I0403 21:42:16.834483 23947 net.cpp:156] Memory required for data: 500958240
I0403 21:42:16.834499 23947 layer_factory.hpp:77] Creating layer inception_3a/3x3_reduce
I0403 21:42:16.834522 23947 net.cpp:91] Creating Layer inception_3a/3x3_reduce
I0403 21:42:16.834539 23947 net.cpp:425] inception_3a/3x3_reduce <- pool2/3x3_s2_pool2/3x3_s2_0_split_1
I0403 21:42:16.834560 23947 net.cpp:399] inception_3a/3x3_reduce -> inception_3a/3x3_reduce
I0403 21:42:16.836230 23947 net.cpp:141] Setting up inception_3a/3x3_reduce
I0403 21:42:16.836259 23947 net.cpp:148] Top shape: 24 96 28 28 (1806336)
I0403 21:42:16.836275 23947 net.cpp:156] Memory required for data: 508183584
I0403 21:42:16.836298 23947 layer_factory.hpp:77] Creating layer inception_3a/relu_3x3_reduce
I0403 21:42:16.836339 23947 net.cpp:91] Creating Layer inception_3a/relu_3x3_reduce
I0403 21:42:16.836359 23947 net.cpp:425] inception_3a/relu_3x3_reduce <- inception_3a/3x3_reduce
I0403 21:42:16.836377 23947 net.cpp:386] inception_3a/relu_3x3_reduce -> inception_3a/3x3_reduce (in-place)
I0403 21:42:16.836555 23947 net.cpp:141] Setting up inception_3a/relu_3x3_reduce
I0403 21:42:16.836582 23947 net.cpp:148] Top shape: 24 96 28 28 (1806336)
I0403 21:42:16.836598 23947 net.cpp:156] Memory required for data: 515408928
I0403 21:42:16.836614 23947 layer_factory.hpp:77] Creating layer inception_3a/3x3
I0403 21:42:16.836638 23947 net.cpp:91] Creating Layer inception_3a/3x3
I0403 21:42:16.836657 23947 net.cpp:425] inception_3a/3x3 <- inception_3a/3x3_reduce
I0403 21:42:16.836675 23947 net.cpp:399] inception_3a/3x3 -> inception_3a/3x3
I0403 21:42:16.838320 23947 net.cpp:141] Setting up inception_3a/3x3
I0403 21:42:16.838349 23947 net.cpp:148] Top shape: 24 128 28 28 (2408448)
I0403 21:42:16.838366 23947 net.cpp:156] Memory required for data: 525042720
I0403 21:42:16.838387 23947 layer_factory.hpp:77] Creating layer inception_3a/relu_3x3
I0403 21:42:16.838407 23947 net.cpp:91] Creating Layer inception_3a/relu_3x3
I0403 21:42:16.838424 23947 net.cpp:425] inception_3a/relu_3x3 <- inception_3a/3x3
I0403 21:42:16.838441 23947 net.cpp:386] inception_3a/relu_3x3 -> inception_3a/3x3 (in-place)
I0403 21:42:16.838716 23947 net.cpp:141] Setting up inception_3a/relu_3x3
I0403 21:42:16.838742 23947 net.cpp:148] Top shape: 24 128 28 28 (2408448)
I0403 21:42:16.838758 23947 net.cpp:156] Memory required for data: 534676512
I0403 21:42:16.838774 23947 layer_factory.hpp:77] Creating layer inception_3a/5x5_reduce
I0403 21:42:16.838798 23947 net.cpp:91] Creating Layer inception_3a/5x5_reduce
I0403 21:42:16.838816 23947 net.cpp:425] inception_3a/5x5_reduce <- pool2/3x3_s2_pool2/3x3_s2_0_split_2
I0403 21:42:16.838837 23947 net.cpp:399] inception_3a/5x5_reduce -> inception_3a/5x5_reduce
I0403 21:42:16.839787 23947 net.cpp:141] Setting up inception_3a/5x5_reduce
I0403 21:42:16.839817 23947 net.cpp:148] Top shape: 24 16 28 28 (301056)
I0403 21:42:16.839833 23947 net.cpp:156] Memory required for data: 535880736
I0403 21:42:16.839851 23947 layer_factory.hpp:77] Creating layer inception_3a/relu_5x5_reduce
I0403 21:42:16.839874 23947 net.cpp:91] Creating Layer inception_3a/relu_5x5_reduce
I0403 21:42:16.839893 23947 net.cpp:425] inception_3a/relu_5x5_reduce <- inception_3a/5x5_reduce
I0403 21:42:16.839912 23947 net.cpp:386] inception_3a/relu_5x5_reduce -> inception_3a/5x5_reduce (in-place)
I0403 21:42:16.840214 23947 net.cpp:141] Setting up inception_3a/relu_5x5_reduce
I0403 21:42:16.840241 23947 net.cpp:148] Top shape: 24 16 28 28 (301056)
I0403 21:42:16.840256 23947 net.cpp:156] Memory required for data: 537084960
I0403 21:42:16.840271 23947 layer_factory.hpp:77] Creating layer inception_3a/5x5
I0403 21:42:16.840297 23947 net.cpp:91] Creating Layer inception_3a/5x5
I0403 21:42:16.840317 23947 net.cpp:425] inception_3a/5x5 <- inception_3a/5x5_reduce
I0403 21:42:16.840335 23947 net.cpp:399] inception_3a/5x5 -> inception_3a/5x5
I0403 21:42:16.841337 23947 net.cpp:141] Setting up inception_3a/5x5
I0403 21:42:16.841366 23947 net.cpp:148] Top shape: 24 32 28 28 (602112)
I0403 21:42:16.841382 23947 net.cpp:156] Memory required for data: 539493408
I0403 21:42:16.841401 23947 layer_factory.hpp:77] Creating layer inception_3a/relu_5x5
I0403 21:42:16.841421 23947 net.cpp:91] Creating Layer inception_3a/relu_5x5
I0403 21:42:16.841439 23947 net.cpp:425] inception_3a/relu_5x5 <- inception_3a/5x5
I0403 21:42:16.841459 23947 net.cpp:386] inception_3a/relu_5x5 -> inception_3a/5x5 (in-place)
I0403 21:42:16.841631 23947 net.cpp:141] Setting up inception_3a/relu_5x5
I0403 21:42:16.841657 23947 net.cpp:148] Top shape: 24 32 28 28 (602112)
I0403 21:42:16.841673 23947 net.cpp:156] Memory required for data: 541901856
I0403 21:42:16.841688 23947 layer_factory.hpp:77] Creating layer inception_3a/pool
I0403 21:42:16.841709 23947 net.cpp:91] Creating Layer inception_3a/pool
I0403 21:42:16.841740 23947 net.cpp:425] inception_3a/pool <- pool2/3x3_s2_pool2/3x3_s2_0_split_3
I0403 21:42:16.841760 23947 net.cpp:399] inception_3a/pool -> inception_3a/pool
I0403 21:42:16.841820 23947 net.cpp:141] Setting up inception_3a/pool
I0403 21:42:16.841845 23947 net.cpp:148] Top shape: 24 192 28 28 (3612672)
I0403 21:42:16.841859 23947 net.cpp:156] Memory required for data: 556352544
I0403 21:42:16.841876 23947 layer_factory.hpp:77] Creating layer inception_3a/pool_proj
I0403 21:42:16.841898 23947 net.cpp:91] Creating Layer inception_3a/pool_proj
I0403 21:42:16.841918 23947 net.cpp:425] inception_3a/pool_proj <- inception_3a/pool
I0403 21:42:16.841943 23947 net.cpp:399] inception_3a/pool_proj -> inception_3a/pool_proj
I0403 21:42:16.842903 23947 net.cpp:141] Setting up inception_3a/pool_proj
I0403 21:42:16.842936 23947 net.cpp:148] Top shape: 24 32 28 28 (602112)
I0403 21:42:16.842955 23947 net.cpp:156] Memory required for data: 558760992
I0403 21:42:16.842978 23947 layer_factory.hpp:77] Creating layer inception_3a/relu_pool_proj
I0403 21:42:16.843004 23947 net.cpp:91] Creating Layer inception_3a/relu_pool_proj
I0403 21:42:16.843024 23947 net.cpp:425] inception_3a/relu_pool_proj <- inception_3a/pool_proj
I0403 21:42:16.843042 23947 net.cpp:386] inception_3a/relu_pool_proj -> inception_3a/pool_proj (in-place)
I0403 21:42:16.843319 23947 net.cpp:141] Setting up inception_3a/relu_pool_proj
I0403 21:42:16.843348 23947 net.cpp:148] Top shape: 24 32 28 28 (602112)
I0403 21:42:16.843364 23947 net.cpp:156] Memory required for data: 561169440
I0403 21:42:16.843379 23947 layer_factory.hpp:77] Creating layer inception_3a/output
I0403 21:42:16.843400 23947 net.cpp:91] Creating Layer inception_3a/output
I0403 21:42:16.843415 23947 net.cpp:425] inception_3a/output <- inception_3a/1x1
I0403 21:42:16.843432 23947 net.cpp:425] inception_3a/output <- inception_3a/3x3
I0403 21:42:16.843449 23947 net.cpp:425] inception_3a/output <- inception_3a/5x5
I0403 21:42:16.843466 23947 net.cpp:425] inception_3a/output <- inception_3a/pool_proj
I0403 21:42:16.843487 23947 net.cpp:399] inception_3a/output -> inception_3a/output
I0403 21:42:16.843536 23947 net.cpp:141] Setting up inception_3a/output
I0403 21:42:16.843560 23947 net.cpp:148] Top shape: 24 256 28 28 (4816896)
I0403 21:42:16.843576 23947 net.cpp:156] Memory required for data: 580437024
I0403 21:42:16.843591 23947 layer_factory.hpp:77] Creating layer inception_3a/output_inception_3a/output_0_split
I0403 21:42:16.843611 23947 net.cpp:91] Creating Layer inception_3a/output_inception_3a/output_0_split
I0403 21:42:16.843626 23947 net.cpp:425] inception_3a/output_inception_3a/output_0_split <- inception_3a/output
I0403 21:42:16.843647 23947 net.cpp:399] inception_3a/output_inception_3a/output_0_split -> inception_3a/output_inception_3a/output_0_split_0
I0403 21:42:16.843669 23947 net.cpp:399] inception_3a/output_inception_3a/output_0_split -> inception_3a/output_inception_3a/output_0_split_1
I0403 21:42:16.843693 23947 net.cpp:399] inception_3a/output_inception_3a/output_0_split -> inception_3a/output_inception_3a/output_0_split_2
I0403 21:42:16.843715 23947 net.cpp:399] inception_3a/output_inception_3a/output_0_split -> inception_3a/output_inception_3a/output_0_split_3
I0403 21:42:16.843792 23947 net.cpp:141] Setting up inception_3a/output_inception_3a/output_0_split
I0403 21:42:16.843816 23947 net.cpp:148] Top shape: 24 256 28 28 (4816896)
I0403 21:42:16.843835 23947 net.cpp:148] Top shape: 24 256 28 28 (4816896)
I0403 21:42:16.843852 23947 net.cpp:148] Top shape: 24 256 28 28 (4816896)
I0403 21:42:16.843868 23947 net.cpp:148] Top shape: 24 256 28 28 (4816896)
I0403 21:42:16.843881 23947 net.cpp:156] Memory required for data: 657507360
I0403 21:42:16.843896 23947 layer_factory.hpp:77] Creating layer inception_3b/1x1
I0403 21:42:16.843919 23947 net.cpp:91] Creating Layer inception_3b/1x1
I0403 21:42:16.843938 23947 net.cpp:425] inception_3b/1x1 <- inception_3a/output_inception_3a/output_0_split_0
I0403 21:42:16.843962 23947 net.cpp:399] inception_3b/1x1 -> inception_3b/1x1
I0403 21:42:16.845079 23947 net.cpp:141] Setting up inception_3b/1x1
I0403 21:42:16.845123 23947 net.cpp:148] Top shape: 24 128 28 28 (2408448)
I0403 21:42:16.845140 23947 net.cpp:156] Memory required for data: 667141152
I0403 21:42:16.845160 23947 layer_factory.hpp:77] Creating layer inception_3b/relu_1x1
I0403 21:42:16.845180 23947 net.cpp:91] Creating Layer inception_3b/relu_1x1
I0403 21:42:16.845201 23947 net.cpp:425] inception_3b/relu_1x1 <- inception_3b/1x1
I0403 21:42:16.845227 23947 net.cpp:386] inception_3b/relu_1x1 -> inception_3b/1x1 (in-place)
I0403 21:42:16.845402 23947 net.cpp:141] Setting up inception_3b/relu_1x1
I0403 21:42:16.845427 23947 net.cpp:148] Top shape: 24 128 28 28 (2408448)
I0403 21:42:16.845443 23947 net.cpp:156] Memory required for data: 676774944
I0403 21:42:16.845459 23947 layer_factory.hpp:77] Creating layer inception_3b/3x3_reduce
I0403 21:42:16.845481 23947 net.cpp:91] Creating Layer inception_3b/3x3_reduce
I0403 21:42:16.845500 23947 net.cpp:425] inception_3b/3x3_reduce <- inception_3a/output_inception_3a/output_0_split_1
I0403 21:42:16.845522 23947 net.cpp:399] inception_3b/3x3_reduce -> inception_3b/3x3_reduce
I0403 21:42:16.846647 23947 net.cpp:141] Setting up inception_3b/3x3_reduce
I0403 21:42:16.846675 23947 net.cpp:148] Top shape: 24 128 28 28 (2408448)
I0403 21:42:16.846691 23947 net.cpp:156] Memory required for data: 686408736
I0403 21:42:16.846710 23947 layer_factory.hpp:77] Creating layer inception_3b/relu_3x3_reduce
I0403 21:42:16.846729 23947 net.cpp:91] Creating Layer inception_3b/relu_3x3_reduce
I0403 21:42:16.846747 23947 net.cpp:425] inception_3b/relu_3x3_reduce <- inception_3b/3x3_reduce
I0403 21:42:16.846768 23947 net.cpp:386] inception_3b/relu_3x3_reduce -> inception_3b/3x3_reduce (in-place)
I0403 21:42:16.846940 23947 net.cpp:141] Setting up inception_3b/relu_3x3_reduce
I0403 21:42:16.846967 23947 net.cpp:148] Top shape: 24 128 28 28 (2408448)
I0403 21:42:16.846983 23947 net.cpp:156] Memory required for data: 696042528
I0403 21:42:16.846999 23947 layer_factory.hpp:77] Creating layer inception_3b/3x3
I0403 21:42:16.847026 23947 net.cpp:91] Creating Layer inception_3b/3x3
I0403 21:42:16.847045 23947 net.cpp:425] inception_3b/3x3 <- inception_3b/3x3_reduce
I0403 21:42:16.847066 23947 net.cpp:399] inception_3b/3x3 -> inception_3b/3x3
I0403 21:42:16.849980 23947 net.cpp:141] Setting up inception_3b/3x3
I0403 21:42:16.850011 23947 net.cpp:148] Top shape: 24 192 28 28 (3612672)
I0403 21:42:16.850028 23947 net.cpp:156] Memory required for data: 710493216
I0403 21:42:16.850047 23947 layer_factory.hpp:77] Creating layer inception_3b/relu_3x3
I0403 21:42:16.850069 23947 net.cpp:91] Creating Layer inception_3b/relu_3x3
I0403 21:42:16.850088 23947 net.cpp:425] inception_3b/relu_3x3 <- inception_3b/3x3
I0403 21:42:16.850106 23947 net.cpp:386] inception_3b/relu_3x3 -> inception_3b/3x3 (in-place)
I0403 21:42:16.850390 23947 net.cpp:141] Setting up inception_3b/relu_3x3
I0403 21:42:16.850419 23947 net.cpp:148] Top shape: 24 192 28 28 (3612672)
I0403 21:42:16.850435 23947 net.cpp:156] Memory required for data: 724943904
I0403 21:42:16.850450 23947 layer_factory.hpp:77] Creating layer inception_3b/5x5_reduce
I0403 21:42:16.850476 23947 net.cpp:91] Creating Layer inception_3b/5x5_reduce
I0403 21:42:16.850493 23947 net.cpp:425] inception_3b/5x5_reduce <- inception_3a/output_inception_3a/output_0_split_2
I0403 21:42:16.850515 23947 net.cpp:399] inception_3b/5x5_reduce -> inception_3b/5x5_reduce
I0403 21:42:16.851498 23947 net.cpp:141] Setting up inception_3b/5x5_reduce
I0403 21:42:16.851528 23947 net.cpp:148] Top shape: 24 32 28 28 (602112)
I0403 21:42:16.851544 23947 net.cpp:156] Memory required for data: 727352352
I0403 21:42:16.851562 23947 layer_factory.hpp:77] Creating layer inception_3b/relu_5x5_reduce
I0403 21:42:16.851582 23947 net.cpp:91] Creating Layer inception_3b/relu_5x5_reduce
I0403 21:42:16.851599 23947 net.cpp:425] inception_3b/relu_5x5_reduce <- inception_3b/5x5_reduce
I0403 21:42:16.851620 23947 net.cpp:386] inception_3b/relu_5x5_reduce -> inception_3b/5x5_reduce (in-place)
I0403 21:42:16.851811 23947 net.cpp:141] Setting up inception_3b/relu_5x5_reduce
I0403 21:42:16.851836 23947 net.cpp:148] Top shape: 24 32 28 28 (602112)
I0403 21:42:16.851852 23947 net.cpp:156] Memory required for data: 729760800
I0403 21:42:16.851868 23947 layer_factory.hpp:77] Creating layer inception_3b/5x5
I0403 21:42:16.851891 23947 net.cpp:91] Creating Layer inception_3b/5x5
I0403 21:42:16.851909 23947 net.cpp:425] inception_3b/5x5 <- inception_3b/5x5_reduce
I0403 21:42:16.851932 23947 net.cpp:399] inception_3b/5x5 -> inception_3b/5x5
I0403 21:42:16.853967 23947 net.cpp:141] Setting up inception_3b/5x5
I0403 21:42:16.853999 23947 net.cpp:148] Top shape: 24 96 28 28 (1806336)
I0403 21:42:16.854015 23947 net.cpp:156] Memory required for data: 736986144
I0403 21:42:16.854034 23947 layer_factory.hpp:77] Creating layer inception_3b/relu_5x5
I0403 21:42:16.854053 23947 net.cpp:91] Creating Layer inception_3b/relu_5x5
I0403 21:42:16.854071 23947 net.cpp:425] inception_3b/relu_5x5 <- inception_3b/5x5
I0403 21:42:16.854096 23947 net.cpp:386] inception_3b/relu_5x5 -> inception_3b/5x5 (in-place)
I0403 21:42:16.854303 23947 net.cpp:141] Setting up inception_3b/relu_5x5
I0403 21:42:16.854331 23947 net.cpp:148] Top shape: 24 96 28 28 (1806336)
I0403 21:42:16.854347 23947 net.cpp:156] Memory required for data: 744211488
I0403 21:42:16.854364 23947 layer_factory.hpp:77] Creating layer inception_3b/pool
I0403 21:42:16.854383 23947 net.cpp:91] Creating Layer inception_3b/pool
I0403 21:42:16.854403 23947 net.cpp:425] inception_3b/pool <- inception_3a/output_inception_3a/output_0_split_3
I0403 21:42:16.854423 23947 net.cpp:399] inception_3b/pool -> inception_3b/pool
I0403 21:42:16.854483 23947 net.cpp:141] Setting up inception_3b/pool
I0403 21:42:16.854508 23947 net.cpp:148] Top shape: 24 256 28 28 (4816896)
I0403 21:42:16.854524 23947 net.cpp:156] Memory required for data: 763479072
I0403 21:42:16.854542 23947 layer_factory.hpp:77] Creating layer inception_3b/pool_proj
I0403 21:42:16.854578 23947 net.cpp:91] Creating Layer inception_3b/pool_proj
I0403 21:42:16.854596 23947 net.cpp:425] inception_3b/pool_proj <- inception_3b/pool
I0403 21:42:16.854617 23947 net.cpp:399] inception_3b/pool_proj -> inception_3b/pool_proj
I0403 21:42:16.855705 23947 net.cpp:141] Setting up inception_3b/pool_proj
I0403 21:42:16.855734 23947 net.cpp:148] Top shape: 24 64 28 28 (1204224)
I0403 21:42:16.855754 23947 net.cpp:156] Memory required for data: 768295968
I0403 21:42:16.855773 23947 layer_factory.hpp:77] Creating layer inception_3b/relu_pool_proj
I0403 21:42:16.855792 23947 net.cpp:91] Creating Layer inception_3b/relu_pool_proj
I0403 21:42:16.855808 23947 net.cpp:425] inception_3b/relu_pool_proj <- inception_3b/pool_proj
I0403 21:42:16.855826 23947 net.cpp:386] inception_3b/relu_pool_proj -> inception_3b/pool_proj (in-place)
I0403 21:42:16.856211 23947 net.cpp:141] Setting up inception_3b/relu_pool_proj
I0403 21:42:16.856237 23947 net.cpp:148] Top shape: 24 64 28 28 (1204224)
I0403 21:42:16.856253 23947 net.cpp:156] Memory required for data: 773112864
I0403 21:42:16.856281 23947 layer_factory.hpp:77] Creating layer inception_3b/output
I0403 21:42:16.856302 23947 net.cpp:91] Creating Layer inception_3b/output
I0403 21:42:16.856320 23947 net.cpp:425] inception_3b/output <- inception_3b/1x1
I0403 21:42:16.856338 23947 net.cpp:425] inception_3b/output <- inception_3b/3x3
I0403 21:42:16.856356 23947 net.cpp:425] inception_3b/output <- inception_3b/5x5
I0403 21:42:16.856374 23947 net.cpp:425] inception_3b/output <- inception_3b/pool_proj
I0403 21:42:16.856394 23947 net.cpp:399] inception_3b/output -> inception_3b/output
I0403 21:42:16.856439 23947 net.cpp:141] Setting up inception_3b/output
I0403 21:42:16.856463 23947 net.cpp:148] Top shape: 24 480 28 28 (9031680)
I0403 21:42:16.856479 23947 net.cpp:156] Memory required for data: 809239584
I0403 21:42:16.856495 23947 layer_factory.hpp:77] Creating layer pool3/3x3_s2
I0403 21:42:16.856513 23947 net.cpp:91] Creating Layer pool3/3x3_s2
I0403 21:42:16.856533 23947 net.cpp:425] pool3/3x3_s2 <- inception_3b/output
I0403 21:42:16.856585 23947 net.cpp:399] pool3/3x3_s2 -> pool3/3x3_s2
I0403 21:42:16.856642 23947 net.cpp:141] Setting up pool3/3x3_s2
I0403 21:42:16.856667 23947 net.cpp:148] Top shape: 24 480 14 14 (2257920)
I0403 21:42:16.856683 23947 net.cpp:156] Memory required for data: 818271264
I0403 21:42:16.856698 23947 layer_factory.hpp:77] Creating layer pool3/3x3_s2_pool3/3x3_s2_0_split
I0403 21:42:16.856717 23947 net.cpp:91] Creating Layer pool3/3x3_s2_pool3/3x3_s2_0_split
I0403 21:42:16.856734 23947 net.cpp:425] pool3/3x3_s2_pool3/3x3_s2_0_split <- pool3/3x3_s2
I0403 21:42:16.856755 23947 net.cpp:399] pool3/3x3_s2_pool3/3x3_s2_0_split -> pool3/3x3_s2_pool3/3x3_s2_0_split_0
I0403 21:42:16.856775 23947 net.cpp:399] pool3/3x3_s2_pool3/3x3_s2_0_split -> pool3/3x3_s2_pool3/3x3_s2_0_split_1
I0403 21:42:16.856796 23947 net.cpp:399] pool3/3x3_s2_pool3/3x3_s2_0_split -> pool3/3x3_s2_pool3/3x3_s2_0_split_2
I0403 21:42:16.856817 23947 net.cpp:399] pool3/3x3_s2_pool3/3x3_s2_0_split -> pool3/3x3_s2_pool3/3x3_s2_0_split_3
I0403 21:42:16.856889 23947 net.cpp:141] Setting up pool3/3x3_s2_pool3/3x3_s2_0_split
I0403 21:42:16.856912 23947 net.cpp:148] Top shape: 24 480 14 14 (2257920)
I0403 21:42:16.856930 23947 net.cpp:148] Top shape: 24 480 14 14 (2257920)
I0403 21:42:16.856945 23947 net.cpp:148] Top shape: 24 480 14 14 (2257920)
I0403 21:42:16.856961 23947 net.cpp:148] Top shape: 24 480 14 14 (2257920)
I0403 21:42:16.856974 23947 net.cpp:156] Memory required for data: 854397984
I0403 21:42:16.856991 23947 layer_factory.hpp:77] Creating layer inception_4a/1x1
I0403 21:42:16.857012 23947 net.cpp:91] Creating Layer inception_4a/1x1
I0403 21:42:16.857030 23947 net.cpp:425] inception_4a/1x1 <- pool3/3x3_s2_pool3/3x3_s2_0_split_0
I0403 21:42:16.857053 23947 net.cpp:399] inception_4a/1x1 -> inception_4a/1x1
I0403 21:42:16.858642 23947 net.cpp:141] Setting up inception_4a/1x1
I0403 21:42:16.858672 23947 net.cpp:148] Top shape: 24 192 14 14 (903168)
I0403 21:42:16.858690 23947 net.cpp:156] Memory required for data: 858010656
I0403 21:42:16.858708 23947 layer_factory.hpp:77] Creating layer inception_4a/relu_1x1
I0403 21:42:16.858727 23947 net.cpp:91] Creating Layer inception_4a/relu_1x1
I0403 21:42:16.858744 23947 net.cpp:425] inception_4a/relu_1x1 <- inception_4a/1x1
I0403 21:42:16.858762 23947 net.cpp:386] inception_4a/relu_1x1 -> inception_4a/1x1 (in-place)
I0403 21:42:16.858932 23947 net.cpp:141] Setting up inception_4a/relu_1x1
I0403 21:42:16.858960 23947 net.cpp:148] Top shape: 24 192 14 14 (903168)
I0403 21:42:16.858975 23947 net.cpp:156] Memory required for data: 861623328
I0403 21:42:16.858991 23947 layer_factory.hpp:77] Creating layer inception_4a/3x3_reduce
I0403 21:42:16.859014 23947 net.cpp:91] Creating Layer inception_4a/3x3_reduce
I0403 21:42:16.859032 23947 net.cpp:425] inception_4a/3x3_reduce <- pool3/3x3_s2_pool3/3x3_s2_0_split_1
I0403 21:42:16.859053 23947 net.cpp:399] inception_4a/3x3_reduce -> inception_4a/3x3_reduce
I0403 21:42:16.860338 23947 net.cpp:141] Setting up inception_4a/3x3_reduce
I0403 21:42:16.860368 23947 net.cpp:148] Top shape: 24 96 14 14 (451584)
I0403 21:42:16.860384 23947 net.cpp:156] Memory required for data: 863429664
I0403 21:42:16.860412 23947 layer_factory.hpp:77] Creating layer inception_4a/relu_3x3_reduce
I0403 21:42:16.860432 23947 net.cpp:91] Creating Layer inception_4a/relu_3x3_reduce
I0403 21:42:16.860455 23947 net.cpp:425] inception_4a/relu_3x3_reduce <- inception_4a/3x3_reduce
I0403 21:42:16.860473 23947 net.cpp:386] inception_4a/relu_3x3_reduce -> inception_4a/3x3_reduce (in-place)
I0403 21:42:16.860659 23947 net.cpp:141] Setting up inception_4a/relu_3x3_reduce
I0403 21:42:16.860689 23947 net.cpp:148] Top shape: 24 96 14 14 (451584)
I0403 21:42:16.860707 23947 net.cpp:156] Memory required for data: 865236000
I0403 21:42:16.860723 23947 layer_factory.hpp:77] Creating layer inception_4a/3x3
I0403 21:42:16.860744 23947 net.cpp:91] Creating Layer inception_4a/3x3
I0403 21:42:16.860762 23947 net.cpp:425] inception_4a/3x3 <- inception_4a/3x3_reduce
I0403 21:42:16.860781 23947 net.cpp:399] inception_4a/3x3 -> inception_4a/3x3
I0403 21:42:16.863481 23947 net.cpp:141] Setting up inception_4a/3x3
I0403 21:42:16.863510 23947 net.cpp:148] Top shape: 24 208 14 14 (978432)
I0403 21:42:16.863528 23947 net.cpp:156] Memory required for data: 869149728
I0403 21:42:16.863546 23947 layer_factory.hpp:77] Creating layer inception_4a/relu_3x3
I0403 21:42:16.863564 23947 net.cpp:91] Creating Layer inception_4a/relu_3x3
I0403 21:42:16.863581 23947 net.cpp:425] inception_4a/relu_3x3 <- inception_4a/3x3
I0403 21:42:16.863602 23947 net.cpp:386] inception_4a/relu_3x3 -> inception_4a/3x3 (in-place)
I0403 21:42:16.863881 23947 net.cpp:141] Setting up inception_4a/relu_3x3
I0403 21:42:16.863909 23947 net.cpp:148] Top shape: 24 208 14 14 (978432)
I0403 21:42:16.863924 23947 net.cpp:156] Memory required for data: 873063456
I0403 21:42:16.863940 23947 layer_factory.hpp:77] Creating layer inception_4a/5x5_reduce
I0403 21:42:16.863965 23947 net.cpp:91] Creating Layer inception_4a/5x5_reduce
I0403 21:42:16.863991 23947 net.cpp:425] inception_4a/5x5_reduce <- pool3/3x3_s2_pool3/3x3_s2_0_split_2
I0403 21:42:16.864014 23947 net.cpp:399] inception_4a/5x5_reduce -> inception_4a/5x5_reduce
I0403 21:42:16.865003 23947 net.cpp:141] Setting up inception_4a/5x5_reduce
I0403 21:42:16.865032 23947 net.cpp:148] Top shape: 24 16 14 14 (75264)
I0403 21:42:16.865056 23947 net.cpp:156] Memory required for data: 873364512
I0403 21:42:16.865074 23947 layer_factory.hpp:77] Creating layer inception_4a/relu_5x5_reduce
I0403 21:42:16.865093 23947 net.cpp:91] Creating Layer inception_4a/relu_5x5_reduce
I0403 21:42:16.865109 23947 net.cpp:425] inception_4a/relu_5x5_reduce <- inception_4a/5x5_reduce
I0403 21:42:16.865130 23947 net.cpp:386] inception_4a/relu_5x5_reduce -> inception_4a/5x5_reduce (in-place)
I0403 21:42:16.865313 23947 net.cpp:141] Setting up inception_4a/relu_5x5_reduce
I0403 21:42:16.865337 23947 net.cpp:148] Top shape: 24 16 14 14 (75264)
I0403 21:42:16.865352 23947 net.cpp:156] Memory required for data: 873665568
I0403 21:42:16.865368 23947 layer_factory.hpp:77] Creating layer inception_4a/5x5
I0403 21:42:16.865399 23947 net.cpp:91] Creating Layer inception_4a/5x5
I0403 21:42:16.865418 23947 net.cpp:425] inception_4a/5x5 <- inception_4a/5x5_reduce
I0403 21:42:16.865440 23947 net.cpp:399] inception_4a/5x5 -> inception_4a/5x5
I0403 21:42:16.866497 23947 net.cpp:141] Setting up inception_4a/5x5
I0403 21:42:16.866525 23947 net.cpp:148] Top shape: 24 48 14 14 (225792)
I0403 21:42:16.866540 23947 net.cpp:156] Memory required for data: 874568736
I0403 21:42:16.866559 23947 layer_factory.hpp:77] Creating layer inception_4a/relu_5x5
I0403 21:42:16.866581 23947 net.cpp:91] Creating Layer inception_4a/relu_5x5
I0403 21:42:16.866600 23947 net.cpp:425] inception_4a/relu_5x5 <- inception_4a/5x5
I0403 21:42:16.866617 23947 net.cpp:386] inception_4a/relu_5x5 -> inception_4a/5x5 (in-place)
I0403 21:42:16.866788 23947 net.cpp:141] Setting up inception_4a/relu_5x5
I0403 21:42:16.866816 23947 net.cpp:148] Top shape: 24 48 14 14 (225792)
I0403 21:42:16.866832 23947 net.cpp:156] Memory required for data: 875471904
I0403 21:42:16.866847 23947 layer_factory.hpp:77] Creating layer inception_4a/pool
I0403 21:42:16.866865 23947 net.cpp:91] Creating Layer inception_4a/pool
I0403 21:42:16.866883 23947 net.cpp:425] inception_4a/pool <- pool3/3x3_s2_pool3/3x3_s2_0_split_3
I0403 21:42:16.866904 23947 net.cpp:399] inception_4a/pool -> inception_4a/pool
I0403 21:42:16.866964 23947 net.cpp:141] Setting up inception_4a/pool
I0403 21:42:16.866988 23947 net.cpp:148] Top shape: 24 480 14 14 (2257920)
I0403 21:42:16.867003 23947 net.cpp:156] Memory required for data: 884503584
I0403 21:42:16.867018 23947 layer_factory.hpp:77] Creating layer inception_4a/pool_proj
I0403 21:42:16.867040 23947 net.cpp:91] Creating Layer inception_4a/pool_proj
I0403 21:42:16.867060 23947 net.cpp:425] inception_4a/pool_proj <- inception_4a/pool
I0403 21:42:16.867079 23947 net.cpp:399] inception_4a/pool_proj -> inception_4a/pool_proj
I0403 21:42:16.868216 23947 net.cpp:141] Setting up inception_4a/pool_proj
I0403 21:42:16.868245 23947 net.cpp:148] Top shape: 24 64 14 14 (301056)
I0403 21:42:16.868276 23947 net.cpp:156] Memory required for data: 885707808
I0403 21:42:16.868296 23947 layer_factory.hpp:77] Creating layer inception_4a/relu_pool_proj
I0403 21:42:16.868319 23947 net.cpp:91] Creating Layer inception_4a/relu_pool_proj
I0403 21:42:16.868336 23947 net.cpp:425] inception_4a/relu_pool_proj <- inception_4a/pool_proj
I0403 21:42:16.868355 23947 net.cpp:386] inception_4a/relu_pool_proj -> inception_4a/pool_proj (in-place)
I0403 21:42:16.868643 23947 net.cpp:141] Setting up inception_4a/relu_pool_proj
I0403 21:42:16.868669 23947 net.cpp:148] Top shape: 24 64 14 14 (301056)
I0403 21:42:16.868685 23947 net.cpp:156] Memory required for data: 886912032
I0403 21:42:16.868700 23947 layer_factory.hpp:77] Creating layer inception_4a/output
I0403 21:42:16.868718 23947 net.cpp:91] Creating Layer inception_4a/output
I0403 21:42:16.868736 23947 net.cpp:425] inception_4a/output <- inception_4a/1x1
I0403 21:42:16.868753 23947 net.cpp:425] inception_4a/output <- inception_4a/3x3
I0403 21:42:16.868778 23947 net.cpp:425] inception_4a/output <- inception_4a/5x5
I0403 21:42:16.868796 23947 net.cpp:425] inception_4a/output <- inception_4a/pool_proj
I0403 21:42:16.868814 23947 net.cpp:399] inception_4a/output -> inception_4a/output
I0403 21:42:16.868860 23947 net.cpp:141] Setting up inception_4a/output
I0403 21:42:16.868883 23947 net.cpp:148] Top shape: 24 512 14 14 (2408448)
I0403 21:42:16.868898 23947 net.cpp:156] Memory required for data: 896545824
I0403 21:42:16.868913 23947 layer_factory.hpp:77] Creating layer inception_4a/output_inception_4a/output_0_split
I0403 21:42:16.868932 23947 net.cpp:91] Creating Layer inception_4a/output_inception_4a/output_0_split
I0403 21:42:16.868948 23947 net.cpp:425] inception_4a/output_inception_4a/output_0_split <- inception_4a/output
I0403 21:42:16.868969 23947 net.cpp:399] inception_4a/output_inception_4a/output_0_split -> inception_4a/output_inception_4a/output_0_split_0
I0403 21:42:16.868991 23947 net.cpp:399] inception_4a/output_inception_4a/output_0_split -> inception_4a/output_inception_4a/output_0_split_1
I0403 21:42:16.869012 23947 net.cpp:399] inception_4a/output_inception_4a/output_0_split -> inception_4a/output_inception_4a/output_0_split_2
I0403 21:42:16.869036 23947 net.cpp:399] inception_4a/output_inception_4a/output_0_split -> inception_4a/output_inception_4a/output_0_split_3
I0403 21:42:16.869058 23947 net.cpp:399] inception_4a/output_inception_4a/output_0_split -> inception_4a/output_inception_4a/output_0_split_4
I0403 21:42:16.869148 23947 net.cpp:141] Setting up inception_4a/output_inception_4a/output_0_split
I0403 21:42:16.869173 23947 net.cpp:148] Top shape: 24 512 14 14 (2408448)
I0403 21:42:16.869201 23947 net.cpp:148] Top shape: 24 512 14 14 (2408448)
I0403 21:42:16.869231 23947 net.cpp:148] Top shape: 24 512 14 14 (2408448)
I0403 21:42:16.869247 23947 net.cpp:148] Top shape: 24 512 14 14 (2408448)
I0403 21:42:16.869273 23947 net.cpp:148] Top shape: 24 512 14 14 (2408448)
I0403 21:42:16.869288 23947 net.cpp:156] Memory required for data: 944714784
I0403 21:42:16.869305 23947 layer_factory.hpp:77] Creating layer loss1/ave_pool
I0403 21:42:16.869323 23947 net.cpp:91] Creating Layer loss1/ave_pool
I0403 21:42:16.869340 23947 net.cpp:425] loss1/ave_pool <- inception_4a/output_inception_4a/output_0_split_0
I0403 21:42:16.869360 23947 net.cpp:399] loss1/ave_pool -> loss1/ave_pool
I0403 21:42:16.869575 23947 net.cpp:141] Setting up loss1/ave_pool
I0403 21:42:16.869611 23947 net.cpp:148] Top shape: 24 512 4 4 (196608)
I0403 21:42:16.869627 23947 net.cpp:156] Memory required for data: 945501216
I0403 21:42:16.869643 23947 layer_factory.hpp:77] Creating layer loss1/conv
I0403 21:42:16.869668 23947 net.cpp:91] Creating Layer loss1/conv
I0403 21:42:16.869686 23947 net.cpp:425] loss1/conv <- loss1/ave_pool
I0403 21:42:16.869706 23947 net.cpp:399] loss1/conv -> loss1/conv
I0403 21:42:16.871101 23947 net.cpp:141] Setting up loss1/conv
I0403 21:42:16.871130 23947 net.cpp:148] Top shape: 24 128 4 4 (49152)
I0403 21:42:16.871162 23947 net.cpp:156] Memory required for data: 945697824
I0403 21:42:16.871182 23947 layer_factory.hpp:77] Creating layer loss1/relu_conv
I0403 21:42:16.871204 23947 net.cpp:91] Creating Layer loss1/relu_conv
I0403 21:42:16.871223 23947 net.cpp:425] loss1/relu_conv <- loss1/conv
I0403 21:42:16.871244 23947 net.cpp:386] loss1/relu_conv -> loss1/conv (in-place)
I0403 21:42:16.871528 23947 net.cpp:141] Setting up loss1/relu_conv
I0403 21:42:16.871556 23947 net.cpp:148] Top shape: 24 128 4 4 (49152)
I0403 21:42:16.871572 23947 net.cpp:156] Memory required for data: 945894432
I0403 21:42:16.871587 23947 layer_factory.hpp:77] Creating layer loss1/fc
I0403 21:42:16.871610 23947 net.cpp:91] Creating Layer loss1/fc
I0403 21:42:16.871628 23947 net.cpp:425] loss1/fc <- loss1/conv
I0403 21:42:16.871650 23947 net.cpp:399] loss1/fc -> loss1/fc
I0403 21:42:16.889441 23947 net.cpp:141] Setting up loss1/fc
I0403 21:42:16.889480 23947 net.cpp:148] Top shape: 24 1024 (24576)
I0403 21:42:16.889497 23947 net.cpp:156] Memory required for data: 945992736
I0403 21:42:16.889515 23947 layer_factory.hpp:77] Creating layer loss1/relu_fc
I0403 21:42:16.889534 23947 net.cpp:91] Creating Layer loss1/relu_fc
I0403 21:42:16.889551 23947 net.cpp:425] loss1/relu_fc <- loss1/fc
I0403 21:42:16.889569 23947 net.cpp:386] loss1/relu_fc -> loss1/fc (in-place)
I0403 21:42:16.889755 23947 net.cpp:141] Setting up loss1/relu_fc
I0403 21:42:16.889781 23947 net.cpp:148] Top shape: 24 1024 (24576)
I0403 21:42:16.889796 23947 net.cpp:156] Memory required for data: 946091040
I0403 21:42:16.889811 23947 layer_factory.hpp:77] Creating layer loss1/drop_fc
I0403 21:42:16.889837 23947 net.cpp:91] Creating Layer loss1/drop_fc
I0403 21:42:16.889856 23947 net.cpp:425] loss1/drop_fc <- loss1/fc
I0403 21:42:16.889878 23947 net.cpp:386] loss1/drop_fc -> loss1/fc (in-place)
I0403 21:42:16.889928 23947 net.cpp:141] Setting up loss1/drop_fc
I0403 21:42:16.889953 23947 net.cpp:148] Top shape: 24 1024 (24576)
I0403 21:42:16.889969 23947 net.cpp:156] Memory required for data: 946189344
I0403 21:42:16.889986 23947 layer_factory.hpp:77] Creating layer loss1/classifier_plantvillage
I0403 21:42:16.890008 23947 net.cpp:91] Creating Layer loss1/classifier_plantvillage
I0403 21:42:16.890027 23947 net.cpp:425] loss1/classifier_plantvillage <- loss1/fc
I0403 21:42:16.890045 23947 net.cpp:399] loss1/classifier_plantvillage -> loss1/classifier_plantvillage
I0403 21:42:16.890950 23947 net.cpp:141] Setting up loss1/classifier_plantvillage
I0403 21:42:16.890980 23947 net.cpp:148] Top shape: 24 38 (912)
I0403 21:42:16.890997 23947 net.cpp:156] Memory required for data: 946192992
I0403 21:42:16.891016 23947 layer_factory.hpp:77] Creating layer loss1/classifier_plantvillage_loss1/classifier_plantvillage_0_split
I0403 21:42:16.891036 23947 net.cpp:91] Creating Layer loss1/classifier_plantvillage_loss1/classifier_plantvillage_0_split
I0403 21:42:16.891053 23947 net.cpp:425] loss1/classifier_plantvillage_loss1/classifier_plantvillage_0_split <- loss1/classifier_plantvillage
I0403 21:42:16.891072 23947 net.cpp:399] loss1/classifier_plantvillage_loss1/classifier_plantvillage_0_split -> loss1/classifier_plantvillage_loss1/classifier_plantvillage_0_split_0
I0403 21:42:16.891094 23947 net.cpp:399] loss1/classifier_plantvillage_loss1/classifier_plantvillage_0_split -> loss1/classifier_plantvillage_loss1/classifier_plantvillage_0_split_1
I0403 21:42:16.891116 23947 net.cpp:399] loss1/classifier_plantvillage_loss1/classifier_plantvillage_0_split -> loss1/classifier_plantvillage_loss1/classifier_plantvillage_0_split_2
I0403 21:42:16.891182 23947 net.cpp:141] Setting up loss1/classifier_plantvillage_loss1/classifier_plantvillage_0_split
I0403 21:42:16.891209 23947 net.cpp:148] Top shape: 24 38 (912)
I0403 21:42:16.891228 23947 net.cpp:148] Top shape: 24 38 (912)
I0403 21:42:16.891244 23947 net.cpp:148] Top shape: 24 38 (912)
I0403 21:42:16.891258 23947 net.cpp:156] Memory required for data: 946203936
I0403 21:42:16.891273 23947 layer_factory.hpp:77] Creating layer inception_4b/1x1
I0403 21:42:16.891294 23947 net.cpp:91] Creating Layer inception_4b/1x1
I0403 21:42:16.891330 23947 net.cpp:425] inception_4b/1x1 <- inception_4a/output_inception_4a/output_0_split_1
I0403 21:42:16.891352 23947 net.cpp:399] inception_4b/1x1 -> inception_4b/1x1
I0403 21:42:16.892956 23947 net.cpp:141] Setting up inception_4b/1x1
I0403 21:42:16.892985 23947 net.cpp:148] Top shape: 24 160 14 14 (752640)
I0403 21:42:16.893007 23947 net.cpp:156] Memory required for data: 949214496
I0403 21:42:16.893024 23947 layer_factory.hpp:77] Creating layer inception_4b/relu_1x1
I0403 21:42:16.893043 23947 net.cpp:91] Creating Layer inception_4b/relu_1x1
I0403 21:42:16.893061 23947 net.cpp:425] inception_4b/relu_1x1 <- inception_4b/1x1
I0403 21:42:16.893081 23947 net.cpp:386] inception_4b/relu_1x1 -> inception_4b/1x1 (in-place)
I0403 21:42:16.893260 23947 net.cpp:141] Setting up inception_4b/relu_1x1
I0403 21:42:16.893285 23947 net.cpp:148] Top shape: 24 160 14 14 (752640)
I0403 21:42:16.893301 23947 net.cpp:156] Memory required for data: 952225056
I0403 21:42:16.893316 23947 layer_factory.hpp:77] Creating layer inception_4b/3x3_reduce
I0403 21:42:16.893339 23947 net.cpp:91] Creating Layer inception_4b/3x3_reduce
I0403 21:42:16.893358 23947 net.cpp:425] inception_4b/3x3_reduce <- inception_4a/output_inception_4a/output_0_split_2
I0403 21:42:16.893379 23947 net.cpp:399] inception_4b/3x3_reduce -> inception_4b/3x3_reduce
I0403 21:42:16.894686 23947 net.cpp:141] Setting up inception_4b/3x3_reduce
I0403 21:42:16.894714 23947 net.cpp:148] Top shape: 24 112 14 14 (526848)
I0403 21:42:16.894731 23947 net.cpp:156] Memory required for data: 954332448
I0403 21:42:16.894749 23947 layer_factory.hpp:77] Creating layer inception_4b/relu_3x3_reduce
I0403 21:42:16.894770 23947 net.cpp:91] Creating Layer inception_4b/relu_3x3_reduce
I0403 21:42:16.894788 23947 net.cpp:425] inception_4b/relu_3x3_reduce <- inception_4b/3x3_reduce
I0403 21:42:16.894811 23947 net.cpp:386] inception_4b/relu_3x3_reduce -> inception_4b/3x3_reduce (in-place)
I0403 21:42:16.895094 23947 net.cpp:141] Setting up inception_4b/relu_3x3_reduce
I0403 21:42:16.895120 23947 net.cpp:148] Top shape: 24 112 14 14 (526848)
I0403 21:42:16.895136 23947 net.cpp:156] Memory required for data: 956439840
I0403 21:42:16.895153 23947 layer_factory.hpp:77] Creating layer inception_4b/3x3
I0403 21:42:16.895179 23947 net.cpp:91] Creating Layer inception_4b/3x3
I0403 21:42:16.895201 23947 net.cpp:425] inception_4b/3x3 <- inception_4b/3x3_reduce
I0403 21:42:16.895226 23947 net.cpp:399] inception_4b/3x3 -> inception_4b/3x3
I0403 21:42:16.898166 23947 net.cpp:141] Setting up inception_4b/3x3
I0403 21:42:16.898206 23947 net.cpp:148] Top shape: 24 224 14 14 (1053696)
I0403 21:42:16.898226 23947 net.cpp:156] Memory required for data: 960654624
I0403 21:42:16.898247 23947 layer_factory.hpp:77] Creating layer inception_4b/relu_3x3
I0403 21:42:16.898265 23947 net.cpp:91] Creating Layer inception_4b/relu_3x3
I0403 21:42:16.898282 23947 net.cpp:425] inception_4b/relu_3x3 <- inception_4b/3x3
I0403 21:42:16.898298 23947 net.cpp:386] inception_4b/relu_3x3 -> inception_4b/3x3 (in-place)
I0403 21:42:16.898491 23947 net.cpp:141] Setting up inception_4b/relu_3x3
I0403 21:42:16.898519 23947 net.cpp:148] Top shape: 24 224 14 14 (1053696)
I0403 21:42:16.898535 23947 net.cpp:156] Memory required for data: 964869408
I0403 21:42:16.898550 23947 layer_factory.hpp:77] Creating layer inception_4b/5x5_reduce
I0403 21:42:16.898574 23947 net.cpp:91] Creating Layer inception_4b/5x5_reduce
I0403 21:42:16.898594 23947 net.cpp:425] inception_4b/5x5_reduce <- inception_4a/output_inception_4a/output_0_split_3
I0403 21:42:16.898617 23947 net.cpp:399] inception_4b/5x5_reduce -> inception_4b/5x5_reduce
I0403 21:42:16.899695 23947 net.cpp:141] Setting up inception_4b/5x5_reduce
I0403 21:42:16.899724 23947 net.cpp:148] Top shape: 24 24 14 14 (112896)
I0403 21:42:16.899739 23947 net.cpp:156] Memory required for data: 965320992
I0403 21:42:16.899760 23947 layer_factory.hpp:77] Creating layer inception_4b/relu_5x5_reduce
I0403 21:42:16.899780 23947 net.cpp:91] Creating Layer inception_4b/relu_5x5_reduce
I0403 21:42:16.899812 23947 net.cpp:425] inception_4b/relu_5x5_reduce <- inception_4b/5x5_reduce
I0403 21:42:16.899832 23947 net.cpp:386] inception_4b/relu_5x5_reduce -> inception_4b/5x5_reduce (in-place)
I0403 21:42:16.900014 23947 net.cpp:141] Setting up inception_4b/relu_5x5_reduce
I0403 21:42:16.900040 23947 net.cpp:148] Top shape: 24 24 14 14 (112896)
I0403 21:42:16.900056 23947 net.cpp:156] Memory required for data: 965772576
I0403 21:42:16.900071 23947 layer_factory.hpp:77] Creating layer inception_4b/5x5
I0403 21:42:16.900095 23947 net.cpp:91] Creating Layer inception_4b/5x5
I0403 21:42:16.900115 23947 net.cpp:425] inception_4b/5x5 <- inception_4b/5x5_reduce
I0403 21:42:16.900133 23947 net.cpp:399] inception_4b/5x5 -> inception_4b/5x5
I0403 21:42:16.901335 23947 net.cpp:141] Setting up inception_4b/5x5
I0403 21:42:16.901365 23947 net.cpp:148] Top shape: 24 64 14 14 (301056)
I0403 21:42:16.901381 23947 net.cpp:156] Memory required for data: 966976800
I0403 21:42:16.901399 23947 layer_factory.hpp:77] Creating layer inception_4b/relu_5x5
I0403 21:42:16.901418 23947 net.cpp:91] Creating Layer inception_4b/relu_5x5
I0403 21:42:16.901435 23947 net.cpp:425] inception_4b/relu_5x5 <- inception_4b/5x5
I0403 21:42:16.901455 23947 net.cpp:386] inception_4b/relu_5x5 -> inception_4b/5x5 (in-place)
I0403 21:42:16.901736 23947 net.cpp:141] Setting up inception_4b/relu_5x5
I0403 21:42:16.901762 23947 net.cpp:148] Top shape: 24 64 14 14 (301056)
I0403 21:42:16.901777 23947 net.cpp:156] Memory required for data: 968181024
I0403 21:42:16.901793 23947 layer_factory.hpp:77] Creating layer inception_4b/pool
I0403 21:42:16.901813 23947 net.cpp:91] Creating Layer inception_4b/pool
I0403 21:42:16.901829 23947 net.cpp:425] inception_4b/pool <- inception_4a/output_inception_4a/output_0_split_4
I0403 21:42:16.901852 23947 net.cpp:399] inception_4b/pool -> inception_4b/pool
I0403 21:42:16.901916 23947 net.cpp:141] Setting up inception_4b/pool
I0403 21:42:16.901940 23947 net.cpp:148] Top shape: 24 512 14 14 (2408448)
I0403 21:42:16.901957 23947 net.cpp:156] Memory required for data: 977814816
I0403 21:42:16.901973 23947 layer_factory.hpp:77] Creating layer inception_4b/pool_proj
I0403 21:42:16.901998 23947 net.cpp:91] Creating Layer inception_4b/pool_proj
I0403 21:42:16.902015 23947 net.cpp:425] inception_4b/pool_proj <- inception_4b/pool
I0403 21:42:16.902035 23947 net.cpp:399] inception_4b/pool_proj -> inception_4b/pool_proj
I0403 21:42:16.903195 23947 net.cpp:141] Setting up inception_4b/pool_proj
I0403 21:42:16.903226 23947 net.cpp:148] Top shape: 24 64 14 14 (301056)
I0403 21:42:16.903244 23947 net.cpp:156] Memory required for data: 979019040
I0403 21:42:16.903262 23947 layer_factory.hpp:77] Creating layer inception_4b/relu_pool_proj
I0403 21:42:16.903282 23947 net.cpp:91] Creating Layer inception_4b/relu_pool_proj
I0403 21:42:16.903301 23947 net.cpp:425] inception_4b/relu_pool_proj <- inception_4b/pool_proj
I0403 21:42:16.903317 23947 net.cpp:386] inception_4b/relu_pool_proj -> inception_4b/pool_proj (in-place)
I0403 21:42:16.903496 23947 net.cpp:141] Setting up inception_4b/relu_pool_proj
I0403 21:42:16.903522 23947 net.cpp:148] Top shape: 24 64 14 14 (301056)
I0403 21:42:16.903542 23947 net.cpp:156] Memory required for data: 980223264
I0403 21:42:16.903558 23947 layer_factory.hpp:77] Creating layer inception_4b/output
I0403 21:42:16.903576 23947 net.cpp:91] Creating Layer inception_4b/output
I0403 21:42:16.903592 23947 net.cpp:425] inception_4b/output <- inception_4b/1x1
I0403 21:42:16.903609 23947 net.cpp:425] inception_4b/output <- inception_4b/3x3
I0403 21:42:16.903626 23947 net.cpp:425] inception_4b/output <- inception_4b/5x5
I0403 21:42:16.903642 23947 net.cpp:425] inception_4b/output <- inception_4b/pool_proj
I0403 21:42:16.903661 23947 net.cpp:399] inception_4b/output -> inception_4b/output
I0403 21:42:16.903707 23947 net.cpp:141] Setting up inception_4b/output
I0403 21:42:16.903731 23947 net.cpp:148] Top shape: 24 512 14 14 (2408448)
I0403 21:42:16.903748 23947 net.cpp:156] Memory required for data: 989857056
I0403 21:42:16.903777 23947 layer_factory.hpp:77] Creating layer inception_4b/output_inception_4b/output_0_split
I0403 21:42:16.903795 23947 net.cpp:91] Creating Layer inception_4b/output_inception_4b/output_0_split
I0403 21:42:16.903812 23947 net.cpp:425] inception_4b/output_inception_4b/output_0_split <- inception_4b/output
I0403 21:42:16.903834 23947 net.cpp:399] inception_4b/output_inception_4b/output_0_split -> inception_4b/output_inception_4b/output_0_split_0
I0403 21:42:16.903856 23947 net.cpp:399] inception_4b/output_inception_4b/output_0_split -> inception_4b/output_inception_4b/output_0_split_1
I0403 21:42:16.903877 23947 net.cpp:399] inception_4b/output_inception_4b/output_0_split -> inception_4b/output_inception_4b/output_0_split_2
I0403 21:42:16.903898 23947 net.cpp:399] inception_4b/output_inception_4b/output_0_split -> inception_4b/output_inception_4b/output_0_split_3
I0403 21:42:16.903980 23947 net.cpp:141] Setting up inception_4b/output_inception_4b/output_0_split
I0403 21:42:16.904003 23947 net.cpp:148] Top shape: 24 512 14 14 (2408448)
I0403 21:42:16.904021 23947 net.cpp:148] Top shape: 24 512 14 14 (2408448)
I0403 21:42:16.904037 23947 net.cpp:148] Top shape: 24 512 14 14 (2408448)
I0403 21:42:16.904053 23947 net.cpp:148] Top shape: 24 512 14 14 (2408448)
I0403 21:42:16.904067 23947 net.cpp:156] Memory required for data: 1028392224
I0403 21:42:16.904083 23947 layer_factory.hpp:77] Creating layer inception_4c/1x1
I0403 21:42:16.904105 23947 net.cpp:91] Creating Layer inception_4c/1x1
I0403 21:42:16.904124 23947 net.cpp:425] inception_4c/1x1 <- inception_4b/output_inception_4b/output_0_split_0
I0403 21:42:16.904146 23947 net.cpp:399] inception_4c/1x1 -> inception_4c/1x1
I0403 21:42:16.905544 23947 net.cpp:141] Setting up inception_4c/1x1
I0403 21:42:16.905575 23947 net.cpp:148] Top shape: 24 128 14 14 (602112)
I0403 21:42:16.905593 23947 net.cpp:156] Memory required for data: 1030800672
I0403 21:42:16.905613 23947 layer_factory.hpp:77] Creating layer inception_4c/relu_1x1
I0403 21:42:16.905633 23947 net.cpp:91] Creating Layer inception_4c/relu_1x1
I0403 21:42:16.905650 23947 net.cpp:425] inception_4c/relu_1x1 <- inception_4c/1x1
I0403 21:42:16.905668 23947 net.cpp:386] inception_4c/relu_1x1 -> inception_4c/1x1 (in-place)
I0403 21:42:16.905844 23947 net.cpp:141] Setting up inception_4c/relu_1x1
I0403 21:42:16.905874 23947 net.cpp:148] Top shape: 24 128 14 14 (602112)
I0403 21:42:16.905891 23947 net.cpp:156] Memory required for data: 1033209120
I0403 21:42:16.905906 23947 layer_factory.hpp:77] Creating layer inception_4c/3x3_reduce
I0403 21:42:16.905930 23947 net.cpp:91] Creating Layer inception_4c/3x3_reduce
I0403 21:42:16.905947 23947 net.cpp:425] inception_4c/3x3_reduce <- inception_4b/output_inception_4b/output_0_split_1
I0403 21:42:16.905971 23947 net.cpp:399] inception_4c/3x3_reduce -> inception_4c/3x3_reduce
I0403 21:42:16.907879 23947 net.cpp:141] Setting up inception_4c/3x3_reduce
I0403 21:42:16.907908 23947 net.cpp:148] Top shape: 24 128 14 14 (602112)
I0403 21:42:16.907933 23947 net.cpp:156] Memory required for data: 1035617568
I0403 21:42:16.907954 23947 layer_factory.hpp:77] Creating layer inception_4c/relu_3x3_reduce
I0403 21:42:16.907971 23947 net.cpp:91] Creating Layer inception_4c/relu_3x3_reduce
I0403 21:42:16.907987 23947 net.cpp:425] inception_4c/relu_3x3_reduce <- inception_4c/3x3_reduce
I0403 21:42:16.908009 23947 net.cpp:386] inception_4c/relu_3x3_reduce -> inception_4c/3x3_reduce (in-place)
I0403 21:42:16.908306 23947 net.cpp:141] Setting up inception_4c/relu_3x3_reduce
I0403 21:42:16.908334 23947 net.cpp:148] Top shape: 24 128 14 14 (602112)
I0403 21:42:16.908355 23947 net.cpp:156] Memory required for data: 1038026016
I0403 21:42:16.908371 23947 layer_factory.hpp:77] Creating layer inception_4c/3x3
I0403 21:42:16.908395 23947 net.cpp:91] Creating Layer inception_4c/3x3
I0403 21:42:16.908412 23947 net.cpp:425] inception_4c/3x3 <- inception_4c/3x3_reduce
I0403 21:42:16.908435 23947 net.cpp:399] inception_4c/3x3 -> inception_4c/3x3
I0403 21:42:16.911988 23947 net.cpp:141] Setting up inception_4c/3x3
I0403 21:42:16.912036 23947 net.cpp:148] Top shape: 24 256 14 14 (1204224)
I0403 21:42:16.912055 23947 net.cpp:156] Memory required for data: 1042842912
I0403 21:42:16.912086 23947 layer_factory.hpp:77] Creating layer inception_4c/relu_3x3
I0403 21:42:16.912107 23947 net.cpp:91] Creating Layer inception_4c/relu_3x3
I0403 21:42:16.912124 23947 net.cpp:425] inception_4c/relu_3x3 <- inception_4c/3x3
I0403 21:42:16.912144 23947 net.cpp:386] inception_4c/relu_3x3 -> inception_4c/3x3 (in-place)
I0403 21:42:16.912338 23947 net.cpp:141] Setting up inception_4c/relu_3x3
I0403 21:42:16.912364 23947 net.cpp:148] Top shape: 24 256 14 14 (1204224)
I0403 21:42:16.912379 23947 net.cpp:156] Memory required for data: 1047659808
I0403 21:42:16.912395 23947 layer_factory.hpp:77] Creating layer inception_4c/5x5_reduce
I0403 21:42:16.912417 23947 net.cpp:91] Creating Layer inception_4c/5x5_reduce
I0403 21:42:16.912436 23947 net.cpp:425] inception_4c/5x5_reduce <- inception_4b/output_inception_4b/output_0_split_2
I0403 21:42:16.912458 23947 net.cpp:399] inception_4c/5x5_reduce -> inception_4c/5x5_reduce
I0403 21:42:16.913516 23947 net.cpp:141] Setting up inception_4c/5x5_reduce
I0403 21:42:16.913544 23947 net.cpp:148] Top shape: 24 24 14 14 (112896)
I0403 21:42:16.913560 23947 net.cpp:156] Memory required for data: 1048111392
I0403 21:42:16.913579 23947 layer_factory.hpp:77] Creating layer inception_4c/relu_5x5_reduce
I0403 21:42:16.913599 23947 net.cpp:91] Creating Layer inception_4c/relu_5x5_reduce
I0403 21:42:16.913617 23947 net.cpp:425] inception_4c/relu_5x5_reduce <- inception_4c/5x5_reduce
I0403 21:42:16.913646 23947 net.cpp:386] inception_4c/relu_5x5_reduce -> inception_4c/5x5_reduce (in-place)
I0403 21:42:16.913825 23947 net.cpp:141] Setting up inception_4c/relu_5x5_reduce
I0403 21:42:16.913851 23947 net.cpp:148] Top shape: 24 24 14 14 (112896)
I0403 21:42:16.913866 23947 net.cpp:156] Memory required for data: 1048562976
I0403 21:42:16.913880 23947 layer_factory.hpp:77] Creating layer inception_4c/5x5
I0403 21:42:16.913908 23947 net.cpp:91] Creating Layer inception_4c/5x5
I0403 21:42:16.913926 23947 net.cpp:425] inception_4c/5x5 <- inception_4c/5x5_reduce
I0403 21:42:16.913947 23947 net.cpp:399] inception_4c/5x5 -> inception_4c/5x5
I0403 21:42:16.915153 23947 net.cpp:141] Setting up inception_4c/5x5
I0403 21:42:16.915181 23947 net.cpp:148] Top shape: 24 64 14 14 (301056)
I0403 21:42:16.915200 23947 net.cpp:156] Memory required for data: 1049767200
I0403 21:42:16.915220 23947 layer_factory.hpp:77] Creating layer inception_4c/relu_5x5
I0403 21:42:16.915243 23947 net.cpp:91] Creating Layer inception_4c/relu_5x5
I0403 21:42:16.915261 23947 net.cpp:425] inception_4c/relu_5x5 <- inception_4c/5x5
I0403 21:42:16.915277 23947 net.cpp:386] inception_4c/relu_5x5 -> inception_4c/5x5 (in-place)
I0403 21:42:16.915558 23947 net.cpp:141] Setting up inception_4c/relu_5x5
I0403 21:42:16.915585 23947 net.cpp:148] Top shape: 24 64 14 14 (301056)
I0403 21:42:16.915599 23947 net.cpp:156] Memory required for data: 1050971424
I0403 21:42:16.915616 23947 layer_factory.hpp:77] Creating layer inception_4c/pool
I0403 21:42:16.915637 23947 net.cpp:91] Creating Layer inception_4c/pool
I0403 21:42:16.915654 23947 net.cpp:425] inception_4c/pool <- inception_4b/output_inception_4b/output_0_split_3
I0403 21:42:16.915673 23947 net.cpp:399] inception_4c/pool -> inception_4c/pool
I0403 21:42:16.915738 23947 net.cpp:141] Setting up inception_4c/pool
I0403 21:42:16.915763 23947 net.cpp:148] Top shape: 24 512 14 14 (2408448)
I0403 21:42:16.915778 23947 net.cpp:156] Memory required for data: 1060605216
I0403 21:42:16.915793 23947 layer_factory.hpp:77] Creating layer inception_4c/pool_proj
I0403 21:42:16.915815 23947 net.cpp:91] Creating Layer inception_4c/pool_proj
I0403 21:42:16.915833 23947 net.cpp:425] inception_4c/pool_proj <- inception_4c/pool
I0403 21:42:16.915854 23947 net.cpp:399] inception_4c/pool_proj -> inception_4c/pool_proj
I0403 21:42:16.917044 23947 net.cpp:141] Setting up inception_4c/pool_proj
I0403 21:42:16.917073 23947 net.cpp:148] Top shape: 24 64 14 14 (301056)
I0403 21:42:16.917103 23947 net.cpp:156] Memory required for data: 1061809440
I0403 21:42:16.917122 23947 layer_factory.hpp:77] Creating layer inception_4c/relu_pool_proj
I0403 21:42:16.917140 23947 net.cpp:91] Creating Layer inception_4c/relu_pool_proj
I0403 21:42:16.917157 23947 net.cpp:425] inception_4c/relu_pool_proj <- inception_4c/pool_proj
I0403 21:42:16.917179 23947 net.cpp:386] inception_4c/relu_pool_proj -> inception_4c/pool_proj (in-place)
I0403 21:42:16.917362 23947 net.cpp:141] Setting up inception_4c/relu_pool_proj
I0403 21:42:16.917388 23947 net.cpp:148] Top shape: 24 64 14 14 (301056)
I0403 21:42:16.917404 23947 net.cpp:156] Memory required for data: 1063013664
I0403 21:42:16.917419 23947 layer_factory.hpp:77] Creating layer inception_4c/output
I0403 21:42:16.917439 23947 net.cpp:91] Creating Layer inception_4c/output
I0403 21:42:16.917464 23947 net.cpp:425] inception_4c/output <- inception_4c/1x1
I0403 21:42:16.917481 23947 net.cpp:425] inception_4c/output <- inception_4c/3x3
I0403 21:42:16.917498 23947 net.cpp:425] inception_4c/output <- inception_4c/5x5
I0403 21:42:16.917516 23947 net.cpp:425] inception_4c/output <- inception_4c/pool_proj
I0403 21:42:16.917534 23947 net.cpp:399] inception_4c/output -> inception_4c/output
I0403 21:42:16.917584 23947 net.cpp:141] Setting up inception_4c/output
I0403 21:42:16.917608 23947 net.cpp:148] Top shape: 24 512 14 14 (2408448)
I0403 21:42:16.917624 23947 net.cpp:156] Memory required for data: 1072647456
I0403 21:42:16.917639 23947 layer_factory.hpp:77] Creating layer inception_4c/output_inception_4c/output_0_split
I0403 21:42:16.917657 23947 net.cpp:91] Creating Layer inception_4c/output_inception_4c/output_0_split
I0403 21:42:16.917673 23947 net.cpp:425] inception_4c/output_inception_4c/output_0_split <- inception_4c/output
I0403 21:42:16.917695 23947 net.cpp:399] inception_4c/output_inception_4c/output_0_split -> inception_4c/output_inception_4c/output_0_split_0
I0403 21:42:16.917716 23947 net.cpp:399] inception_4c/output_inception_4c/output_0_split -> inception_4c/output_inception_4c/output_0_split_1
I0403 21:42:16.917737 23947 net.cpp:399] inception_4c/output_inception_4c/output_0_split -> inception_4c/output_inception_4c/output_0_split_2
I0403 21:42:16.917763 23947 net.cpp:399] inception_4c/output_inception_4c/output_0_split -> inception_4c/output_inception_4c/output_0_split_3
I0403 21:42:16.917848 23947 net.cpp:141] Setting up inception_4c/output_inception_4c/output_0_split
I0403 21:42:16.917872 23947 net.cpp:148] Top shape: 24 512 14 14 (2408448)
I0403 21:42:16.917889 23947 net.cpp:148] Top shape: 24 512 14 14 (2408448)
I0403 21:42:16.917904 23947 net.cpp:148] Top shape: 24 512 14 14 (2408448)
I0403 21:42:16.917920 23947 net.cpp:148] Top shape: 24 512 14 14 (2408448)
I0403 21:42:16.917934 23947 net.cpp:156] Memory required for data: 1111182624
I0403 21:42:16.917953 23947 layer_factory.hpp:77] Creating layer inception_4d/1x1
I0403 21:42:16.917976 23947 net.cpp:91] Creating Layer inception_4d/1x1
I0403 21:42:16.917994 23947 net.cpp:425] inception_4d/1x1 <- inception_4c/output_inception_4c/output_0_split_0
I0403 21:42:16.918015 23947 net.cpp:399] inception_4d/1x1 -> inception_4d/1x1
I0403 21:42:16.919416 23947 net.cpp:141] Setting up inception_4d/1x1
I0403 21:42:16.919448 23947 net.cpp:148] Top shape: 24 112 14 14 (526848)
I0403 21:42:16.919466 23947 net.cpp:156] Memory required for data: 1113290016
I0403 21:42:16.919486 23947 layer_factory.hpp:77] Creating layer inception_4d/relu_1x1
I0403 21:42:16.919504 23947 net.cpp:91] Creating Layer inception_4d/relu_1x1
I0403 21:42:16.919522 23947 net.cpp:425] inception_4d/relu_1x1 <- inception_4d/1x1
I0403 21:42:16.919543 23947 net.cpp:386] inception_4d/relu_1x1 -> inception_4d/1x1 (in-place)
I0403 21:42:16.919733 23947 net.cpp:141] Setting up inception_4d/relu_1x1
I0403 21:42:16.919757 23947 net.cpp:148] Top shape: 24 112 14 14 (526848)
I0403 21:42:16.919775 23947 net.cpp:156] Memory required for data: 1115397408
I0403 21:42:16.919790 23947 layer_factory.hpp:77] Creating layer inception_4d/3x3_reduce
I0403 21:42:16.919827 23947 net.cpp:91] Creating Layer inception_4d/3x3_reduce
I0403 21:42:16.919847 23947 net.cpp:425] inception_4d/3x3_reduce <- inception_4c/output_inception_4c/output_0_split_1
I0403 21:42:16.919869 23947 net.cpp:399] inception_4d/3x3_reduce -> inception_4d/3x3_reduce
I0403 21:42:16.921391 23947 net.cpp:141] Setting up inception_4d/3x3_reduce
I0403 21:42:16.921419 23947 net.cpp:148] Top shape: 24 144 14 14 (677376)
I0403 21:42:16.921435 23947 net.cpp:156] Memory required for data: 1118106912
I0403 21:42:16.921454 23947 layer_factory.hpp:77] Creating layer inception_4d/relu_3x3_reduce
I0403 21:42:16.921475 23947 net.cpp:91] Creating Layer inception_4d/relu_3x3_reduce
I0403 21:42:16.921494 23947 net.cpp:425] inception_4d/relu_3x3_reduce <- inception_4d/3x3_reduce
I0403 21:42:16.921514 23947 net.cpp:386] inception_4d/relu_3x3_reduce -> inception_4d/3x3_reduce (in-place)
I0403 21:42:16.921810 23947 net.cpp:141] Setting up inception_4d/relu_3x3_reduce
I0403 21:42:16.921838 23947 net.cpp:148] Top shape: 24 144 14 14 (677376)
I0403 21:42:16.921854 23947 net.cpp:156] Memory required for data: 1120816416
I0403 21:42:16.921869 23947 layer_factory.hpp:77] Creating layer inception_4d/3x3
I0403 21:42:16.921893 23947 net.cpp:91] Creating Layer inception_4d/3x3
I0403 21:42:16.921913 23947 net.cpp:425] inception_4d/3x3 <- inception_4d/3x3_reduce
I0403 21:42:16.921933 23947 net.cpp:399] inception_4d/3x3 -> inception_4d/3x3
I0403 21:42:16.926236 23947 net.cpp:141] Setting up inception_4d/3x3
I0403 21:42:16.926267 23947 net.cpp:148] Top shape: 24 288 14 14 (1354752)
I0403 21:42:16.926285 23947 net.cpp:156] Memory required for data: 1126235424
I0403 21:42:16.926306 23947 layer_factory.hpp:77] Creating layer inception_4d/relu_3x3
I0403 21:42:16.926324 23947 net.cpp:91] Creating Layer inception_4d/relu_3x3
I0403 21:42:16.926342 23947 net.cpp:425] inception_4d/relu_3x3 <- inception_4d/3x3
I0403 21:42:16.926365 23947 net.cpp:386] inception_4d/relu_3x3 -> inception_4d/3x3 (in-place)
I0403 21:42:16.926554 23947 net.cpp:141] Setting up inception_4d/relu_3x3
I0403 21:42:16.926580 23947 net.cpp:148] Top shape: 24 288 14 14 (1354752)
I0403 21:42:16.926595 23947 net.cpp:156] Memory required for data: 1131654432
I0403 21:42:16.926611 23947 layer_factory.hpp:77] Creating layer inception_4d/5x5_reduce
I0403 21:42:16.926635 23947 net.cpp:91] Creating Layer inception_4d/5x5_reduce
I0403 21:42:16.926658 23947 net.cpp:425] inception_4d/5x5_reduce <- inception_4c/output_inception_4c/output_0_split_2
I0403 21:42:16.926681 23947 net.cpp:399] inception_4d/5x5_reduce -> inception_4d/5x5_reduce
I0403 21:42:16.927830 23947 net.cpp:141] Setting up inception_4d/5x5_reduce
I0403 21:42:16.927860 23947 net.cpp:148] Top shape: 24 32 14 14 (150528)
I0403 21:42:16.927876 23947 net.cpp:156] Memory required for data: 1132256544
I0403 21:42:16.927896 23947 layer_factory.hpp:77] Creating layer inception_4d/relu_5x5_reduce
I0403 21:42:16.927916 23947 net.cpp:91] Creating Layer inception_4d/relu_5x5_reduce
I0403 21:42:16.927944 23947 net.cpp:425] inception_4d/relu_5x5_reduce <- inception_4d/5x5_reduce
I0403 21:42:16.927966 23947 net.cpp:386] inception_4d/relu_5x5_reduce -> inception_4d/5x5_reduce (in-place)
I0403 21:42:16.928154 23947 net.cpp:141] Setting up inception_4d/relu_5x5_reduce
I0403 21:42:16.928180 23947 net.cpp:148] Top shape: 24 32 14 14 (150528)
I0403 21:42:16.928205 23947 net.cpp:156] Memory required for data: 1132858656
I0403 21:42:16.928225 23947 layer_factory.hpp:77] Creating layer inception_4d/5x5
I0403 21:42:16.928249 23947 net.cpp:91] Creating Layer inception_4d/5x5
I0403 21:42:16.928269 23947 net.cpp:425] inception_4d/5x5 <- inception_4d/5x5_reduce
I0403 21:42:16.928299 23947 net.cpp:399] inception_4d/5x5 -> inception_4d/5x5
I0403 21:42:16.929796 23947 net.cpp:141] Setting up inception_4d/5x5
I0403 21:42:16.929826 23947 net.cpp:148] Top shape: 24 64 14 14 (301056)
I0403 21:42:16.929841 23947 net.cpp:156] Memory required for data: 1134062880
I0403 21:42:16.929862 23947 layer_factory.hpp:77] Creating layer inception_4d/relu_5x5
I0403 21:42:16.929899 23947 net.cpp:91] Creating Layer inception_4d/relu_5x5
I0403 21:42:16.929919 23947 net.cpp:425] inception_4d/relu_5x5 <- inception_4d/5x5
I0403 21:42:16.929937 23947 net.cpp:386] inception_4d/relu_5x5 -> inception_4d/5x5 (in-place)
I0403 21:42:16.930250 23947 net.cpp:141] Setting up inception_4d/relu_5x5
I0403 21:42:16.930279 23947 net.cpp:148] Top shape: 24 64 14 14 (301056)
I0403 21:42:16.930295 23947 net.cpp:156] Memory required for data: 1135267104
I0403 21:42:16.930311 23947 layer_factory.hpp:77] Creating layer inception_4d/pool
I0403 21:42:16.930332 23947 net.cpp:91] Creating Layer inception_4d/pool
I0403 21:42:16.930349 23947 net.cpp:425] inception_4d/pool <- inception_4c/output_inception_4c/output_0_split_3
I0403 21:42:16.930368 23947 net.cpp:399] inception_4d/pool -> inception_4d/pool
I0403 21:42:16.930438 23947 net.cpp:141] Setting up inception_4d/pool
I0403 21:42:16.930464 23947 net.cpp:148] Top shape: 24 512 14 14 (2408448)
I0403 21:42:16.930480 23947 net.cpp:156] Memory required for data: 1144900896
I0403 21:42:16.930501 23947 layer_factory.hpp:77] Creating layer inception_4d/pool_proj
I0403 21:42:16.930524 23947 net.cpp:91] Creating Layer inception_4d/pool_proj
I0403 21:42:16.930544 23947 net.cpp:425] inception_4d/pool_proj <- inception_4d/pool
I0403 21:42:16.930567 23947 net.cpp:399] inception_4d/pool_proj -> inception_4d/pool_proj
I0403 21:42:16.932360 23947 net.cpp:141] Setting up inception_4d/pool_proj
I0403 21:42:16.932394 23947 net.cpp:148] Top shape: 24 64 14 14 (301056)
I0403 21:42:16.932412 23947 net.cpp:156] Memory required for data: 1146105120
I0403 21:42:16.932431 23947 layer_factory.hpp:77] Creating layer inception_4d/relu_pool_proj
I0403 21:42:16.932451 23947 net.cpp:91] Creating Layer inception_4d/relu_pool_proj
I0403 21:42:16.932467 23947 net.cpp:425] inception_4d/relu_pool_proj <- inception_4d/pool_proj
I0403 21:42:16.932488 23947 net.cpp:386] inception_4d/relu_pool_proj -> inception_4d/pool_proj (in-place)
I0403 21:42:16.932674 23947 net.cpp:141] Setting up inception_4d/relu_pool_proj
I0403 21:42:16.932701 23947 net.cpp:148] Top shape: 24 64 14 14 (301056)
I0403 21:42:16.932716 23947 net.cpp:156] Memory required for data: 1147309344
I0403 21:42:16.932731 23947 layer_factory.hpp:77] Creating layer inception_4d/output
I0403 21:42:16.932749 23947 net.cpp:91] Creating Layer inception_4d/output
I0403 21:42:16.932765 23947 net.cpp:425] inception_4d/output <- inception_4d/1x1
I0403 21:42:16.932783 23947 net.cpp:425] inception_4d/output <- inception_4d/3x3
I0403 21:42:16.932801 23947 net.cpp:425] inception_4d/output <- inception_4d/5x5
I0403 21:42:16.932818 23947 net.cpp:425] inception_4d/output <- inception_4d/pool_proj
I0403 21:42:16.932839 23947 net.cpp:399] inception_4d/output -> inception_4d/output
I0403 21:42:16.932894 23947 net.cpp:141] Setting up inception_4d/output
I0403 21:42:16.932919 23947 net.cpp:148] Top shape: 24 528 14 14 (2483712)
I0403 21:42:16.932934 23947 net.cpp:156] Memory required for data: 1157244192
I0403 21:42:16.932952 23947 layer_factory.hpp:77] Creating layer inception_4d/output_inception_4d/output_0_split
I0403 21:42:16.932971 23947 net.cpp:91] Creating Layer inception_4d/output_inception_4d/output_0_split
I0403 21:42:16.932987 23947 net.cpp:425] inception_4d/output_inception_4d/output_0_split <- inception_4d/output
I0403 21:42:16.933009 23947 net.cpp:399] inception_4d/output_inception_4d/output_0_split -> inception_4d/output_inception_4d/output_0_split_0
I0403 21:42:16.933032 23947 net.cpp:399] inception_4d/output_inception_4d/output_0_split -> inception_4d/output_inception_4d/output_0_split_1
I0403 21:42:16.933055 23947 net.cpp:399] inception_4d/output_inception_4d/output_0_split -> inception_4d/output_inception_4d/output_0_split_2
I0403 21:42:16.933079 23947 net.cpp:399] inception_4d/output_inception_4d/output_0_split -> inception_4d/output_inception_4d/output_0_split_3
I0403 21:42:16.933100 23947 net.cpp:399] inception_4d/output_inception_4d/output_0_split -> inception_4d/output_inception_4d/output_0_split_4
I0403 21:42:16.933207 23947 net.cpp:141] Setting up inception_4d/output_inception_4d/output_0_split
I0403 21:42:16.933248 23947 net.cpp:148] Top shape: 24 528 14 14 (2483712)
I0403 21:42:16.933267 23947 net.cpp:148] Top shape: 24 528 14 14 (2483712)
I0403 21:42:16.933284 23947 net.cpp:148] Top shape: 24 528 14 14 (2483712)
I0403 21:42:16.933301 23947 net.cpp:148] Top shape: 24 528 14 14 (2483712)
I0403 21:42:16.933318 23947 net.cpp:148] Top shape: 24 528 14 14 (2483712)
I0403 21:42:16.933333 23947 net.cpp:156] Memory required for data: 1206918432
I0403 21:42:16.933348 23947 layer_factory.hpp:77] Creating layer loss2/ave_pool
I0403 21:42:16.933367 23947 net.cpp:91] Creating Layer loss2/ave_pool
I0403 21:42:16.933384 23947 net.cpp:425] loss2/ave_pool <- inception_4d/output_inception_4d/output_0_split_0
I0403 21:42:16.933406 23947 net.cpp:399] loss2/ave_pool -> loss2/ave_pool
I0403 21:42:16.933722 23947 net.cpp:141] Setting up loss2/ave_pool
I0403 21:42:16.933759 23947 net.cpp:148] Top shape: 24 528 4 4 (202752)
I0403 21:42:16.933776 23947 net.cpp:156] Memory required for data: 1207729440
I0403 21:42:16.933792 23947 layer_factory.hpp:77] Creating layer loss2/conv
I0403 21:42:16.933815 23947 net.cpp:91] Creating Layer loss2/conv
I0403 21:42:16.933835 23947 net.cpp:425] loss2/conv <- loss2/ave_pool
I0403 21:42:16.933857 23947 net.cpp:399] loss2/conv -> loss2/conv
I0403 21:42:16.935796 23947 net.cpp:141] Setting up loss2/conv
I0403 21:42:16.935825 23947 net.cpp:148] Top shape: 24 128 4 4 (49152)
I0403 21:42:16.935842 23947 net.cpp:156] Memory required for data: 1207926048
I0403 21:42:16.935863 23947 layer_factory.hpp:77] Creating layer loss2/relu_conv
I0403 21:42:16.935889 23947 net.cpp:91] Creating Layer loss2/relu_conv
I0403 21:42:16.935907 23947 net.cpp:425] loss2/relu_conv <- loss2/conv
I0403 21:42:16.935925 23947 net.cpp:386] loss2/relu_conv -> loss2/conv (in-place)
I0403 21:42:16.936214 23947 net.cpp:141] Setting up loss2/relu_conv
I0403 21:42:16.936241 23947 net.cpp:148] Top shape: 24 128 4 4 (49152)
I0403 21:42:16.936256 23947 net.cpp:156] Memory required for data: 1208122656
I0403 21:42:16.936272 23947 layer_factory.hpp:77] Creating layer loss2/fc
I0403 21:42:16.936295 23947 net.cpp:91] Creating Layer loss2/fc
I0403 21:42:16.936312 23947 net.cpp:425] loss2/fc <- loss2/conv
I0403 21:42:16.936333 23947 net.cpp:399] loss2/fc -> loss2/fc
I0403 21:42:16.953646 23947 net.cpp:141] Setting up loss2/fc
I0403 21:42:16.953681 23947 net.cpp:148] Top shape: 24 1024 (24576)
I0403 21:42:16.953698 23947 net.cpp:156] Memory required for data: 1208220960
I0403 21:42:16.953717 23947 layer_factory.hpp:77] Creating layer loss2/relu_fc
I0403 21:42:16.953737 23947 net.cpp:91] Creating Layer loss2/relu_fc
I0403 21:42:16.953755 23947 net.cpp:425] loss2/relu_fc <- loss2/fc
I0403 21:42:16.953776 23947 net.cpp:386] loss2/relu_fc -> loss2/fc (in-place)
I0403 21:42:16.954072 23947 net.cpp:141] Setting up loss2/relu_fc
I0403 21:42:16.954098 23947 net.cpp:148] Top shape: 24 1024 (24576)
I0403 21:42:16.954114 23947 net.cpp:156] Memory required for data: 1208319264
I0403 21:42:16.954129 23947 layer_factory.hpp:77] Creating layer loss2/drop_fc
I0403 21:42:16.954149 23947 net.cpp:91] Creating Layer loss2/drop_fc
I0403 21:42:16.954166 23947 net.cpp:425] loss2/drop_fc <- loss2/fc
I0403 21:42:16.954187 23947 net.cpp:386] loss2/drop_fc -> loss2/fc (in-place)
I0403 21:42:16.954241 23947 net.cpp:141] Setting up loss2/drop_fc
I0403 21:42:16.954267 23947 net.cpp:148] Top shape: 24 1024 (24576)
I0403 21:42:16.954284 23947 net.cpp:156] Memory required for data: 1208417568
I0403 21:42:16.954300 23947 layer_factory.hpp:77] Creating layer loss2/classifier_plantvillage
I0403 21:42:16.954319 23947 net.cpp:91] Creating Layer loss2/classifier_plantvillage
I0403 21:42:16.954335 23947 net.cpp:425] loss2/classifier_plantvillage <- loss2/fc
I0403 21:42:16.954357 23947 net.cpp:399] loss2/classifier_plantvillage -> loss2/classifier_plantvillage
I0403 21:42:16.954751 23947 net.cpp:141] Setting up loss2/classifier_plantvillage
I0403 21:42:16.954777 23947 net.cpp:148] Top shape: 24 38 (912)
I0403 21:42:16.954809 23947 net.cpp:156] Memory required for data: 1208421216
I0403 21:42:16.954829 23947 layer_factory.hpp:77] Creating layer loss2/classifier_plantvillage_loss2/classifier_plantvillage_0_split
I0403 21:42:16.954851 23947 net.cpp:91] Creating Layer loss2/classifier_plantvillage_loss2/classifier_plantvillage_0_split
I0403 21:42:16.954870 23947 net.cpp:425] loss2/classifier_plantvillage_loss2/classifier_plantvillage_0_split <- loss2/classifier_plantvillage
I0403 21:42:16.954888 23947 net.cpp:399] loss2/classifier_plantvillage_loss2/classifier_plantvillage_0_split -> loss2/classifier_plantvillage_loss2/classifier_plantvillage_0_split_0
I0403 21:42:16.954908 23947 net.cpp:399] loss2/classifier_plantvillage_loss2/classifier_plantvillage_0_split -> loss2/classifier_plantvillage_loss2/classifier_plantvillage_0_split_1
I0403 21:42:16.954934 23947 net.cpp:399] loss2/classifier_plantvillage_loss2/classifier_plantvillage_0_split -> loss2/classifier_plantvillage_loss2/classifier_plantvillage_0_split_2
I0403 21:42:16.955013 23947 net.cpp:141] Setting up loss2/classifier_plantvillage_loss2/classifier_plantvillage_0_split
I0403 21:42:16.955039 23947 net.cpp:148] Top shape: 24 38 (912)
I0403 21:42:16.955055 23947 net.cpp:148] Top shape: 24 38 (912)
I0403 21:42:16.955071 23947 net.cpp:148] Top shape: 24 38 (912)
I0403 21:42:16.955086 23947 net.cpp:156] Memory required for data: 1208432160
I0403 21:42:16.955102 23947 layer_factory.hpp:77] Creating layer inception_4e/1x1
I0403 21:42:16.955126 23947 net.cpp:91] Creating Layer inception_4e/1x1
I0403 21:42:16.955144 23947 net.cpp:425] inception_4e/1x1 <- inception_4d/output_inception_4d/output_0_split_1
I0403 21:42:16.955163 23947 net.cpp:399] inception_4e/1x1 -> inception_4e/1x1
I0403 21:42:16.956955 23947 net.cpp:141] Setting up inception_4e/1x1
I0403 21:42:16.956984 23947 net.cpp:148] Top shape: 24 256 14 14 (1204224)
I0403 21:42:16.957001 23947 net.cpp:156] Memory required for data: 1213249056
I0403 21:42:16.957020 23947 layer_factory.hpp:77] Creating layer inception_4e/relu_1x1
I0403 21:42:16.957044 23947 net.cpp:91] Creating Layer inception_4e/relu_1x1
I0403 21:42:16.957062 23947 net.cpp:425] inception_4e/relu_1x1 <- inception_4e/1x1
I0403 21:42:16.957080 23947 net.cpp:386] inception_4e/relu_1x1 -> inception_4e/1x1 (in-place)
I0403 21:42:16.957376 23947 net.cpp:141] Setting up inception_4e/relu_1x1
I0403 21:42:16.957403 23947 net.cpp:148] Top shape: 24 256 14 14 (1204224)
I0403 21:42:16.957418 23947 net.cpp:156] Memory required for data: 1218065952
I0403 21:42:16.957434 23947 layer_factory.hpp:77] Creating layer inception_4e/3x3_reduce
I0403 21:42:16.957458 23947 net.cpp:91] Creating Layer inception_4e/3x3_reduce
I0403 21:42:16.957475 23947 net.cpp:425] inception_4e/3x3_reduce <- inception_4d/output_inception_4d/output_0_split_2
I0403 21:42:16.957500 23947 net.cpp:399] inception_4e/3x3_reduce -> inception_4e/3x3_reduce
I0403 21:42:16.959591 23947 net.cpp:141] Setting up inception_4e/3x3_reduce
I0403 21:42:16.959621 23947 net.cpp:148] Top shape: 24 160 14 14 (752640)
I0403 21:42:16.959638 23947 net.cpp:156] Memory required for data: 1221076512
I0403 21:42:16.959658 23947 layer_factory.hpp:77] Creating layer inception_4e/relu_3x3_reduce
I0403 21:42:16.959678 23947 net.cpp:91] Creating Layer inception_4e/relu_3x3_reduce
I0403 21:42:16.959697 23947 net.cpp:425] inception_4e/relu_3x3_reduce <- inception_4e/3x3_reduce
I0403 21:42:16.959714 23947 net.cpp:386] inception_4e/relu_3x3_reduce -> inception_4e/3x3_reduce (in-place)
I0403 21:42:16.959897 23947 net.cpp:141] Setting up inception_4e/relu_3x3_reduce
I0403 21:42:16.959928 23947 net.cpp:148] Top shape: 24 160 14 14 (752640)
I0403 21:42:16.959944 23947 net.cpp:156] Memory required for data: 1224087072
I0403 21:42:16.959960 23947 layer_factory.hpp:77] Creating layer inception_4e/3x3
I0403 21:42:16.959980 23947 net.cpp:91] Creating Layer inception_4e/3x3
I0403 21:42:16.959998 23947 net.cpp:425] inception_4e/3x3 <- inception_4e/3x3_reduce
I0403 21:42:16.960021 23947 net.cpp:399] inception_4e/3x3 -> inception_4e/3x3
I0403 21:42:16.964917 23947 net.cpp:141] Setting up inception_4e/3x3
I0403 21:42:16.964963 23947 net.cpp:148] Top shape: 24 320 14 14 (1505280)
I0403 21:42:16.964982 23947 net.cpp:156] Memory required for data: 1230108192
I0403 21:42:16.965000 23947 layer_factory.hpp:77] Creating layer inception_4e/relu_3x3
I0403 21:42:16.965019 23947 net.cpp:91] Creating Layer inception_4e/relu_3x3
I0403 21:42:16.965036 23947 net.cpp:425] inception_4e/relu_3x3 <- inception_4e/3x3
I0403 21:42:16.965055 23947 net.cpp:386] inception_4e/relu_3x3 -> inception_4e/3x3 (in-place)
I0403 21:42:16.965361 23947 net.cpp:141] Setting up inception_4e/relu_3x3
I0403 21:42:16.965390 23947 net.cpp:148] Top shape: 24 320 14 14 (1505280)
I0403 21:42:16.965406 23947 net.cpp:156] Memory required for data: 1236129312
I0403 21:42:16.965422 23947 layer_factory.hpp:77] Creating layer inception_4e/5x5_reduce
I0403 21:42:16.965446 23947 net.cpp:91] Creating Layer inception_4e/5x5_reduce
I0403 21:42:16.965466 23947 net.cpp:425] inception_4e/5x5_reduce <- inception_4d/output_inception_4d/output_0_split_3
I0403 21:42:16.965488 23947 net.cpp:399] inception_4e/5x5_reduce -> inception_4e/5x5_reduce
I0403 21:42:16.966544 23947 net.cpp:141] Setting up inception_4e/5x5_reduce
I0403 21:42:16.966572 23947 net.cpp:148] Top shape: 24 32 14 14 (150528)
I0403 21:42:16.966588 23947 net.cpp:156] Memory required for data: 1236731424
I0403 21:42:16.966608 23947 layer_factory.hpp:77] Creating layer inception_4e/relu_5x5_reduce
I0403 21:42:16.966629 23947 net.cpp:91] Creating Layer inception_4e/relu_5x5_reduce
I0403 21:42:16.966646 23947 net.cpp:425] inception_4e/relu_5x5_reduce <- inception_4e/5x5_reduce
I0403 21:42:16.966665 23947 net.cpp:386] inception_4e/relu_5x5_reduce -> inception_4e/5x5_reduce (in-place)
I0403 21:42:16.966958 23947 net.cpp:141] Setting up inception_4e/relu_5x5_reduce
I0403 21:42:16.966984 23947 net.cpp:148] Top shape: 24 32 14 14 (150528)
I0403 21:42:16.967000 23947 net.cpp:156] Memory required for data: 1237333536
I0403 21:42:16.967015 23947 layer_factory.hpp:77] Creating layer inception_4e/5x5
I0403 21:42:16.967056 23947 net.cpp:91] Creating Layer inception_4e/5x5
I0403 21:42:16.967075 23947 net.cpp:425] inception_4e/5x5 <- inception_4e/5x5_reduce
I0403 21:42:16.967095 23947 net.cpp:399] inception_4e/5x5 -> inception_4e/5x5
I0403 21:42:16.968915 23947 net.cpp:141] Setting up inception_4e/5x5
I0403 21:42:16.968945 23947 net.cpp:148] Top shape: 24 128 14 14 (602112)
I0403 21:42:16.968961 23947 net.cpp:156] Memory required for data: 1239741984
I0403 21:42:16.968981 23947 layer_factory.hpp:77] Creating layer inception_4e/relu_5x5
I0403 21:42:16.968999 23947 net.cpp:91] Creating Layer inception_4e/relu_5x5
I0403 21:42:16.969020 23947 net.cpp:425] inception_4e/relu_5x5 <- inception_4e/5x5
I0403 21:42:16.969038 23947 net.cpp:386] inception_4e/relu_5x5 -> inception_4e/5x5 (in-place)
I0403 21:42:16.969238 23947 net.cpp:141] Setting up inception_4e/relu_5x5
I0403 21:42:16.969264 23947 net.cpp:148] Top shape: 24 128 14 14 (602112)
I0403 21:42:16.969280 23947 net.cpp:156] Memory required for data: 1242150432
I0403 21:42:16.969296 23947 layer_factory.hpp:77] Creating layer inception_4e/pool
I0403 21:42:16.969319 23947 net.cpp:91] Creating Layer inception_4e/pool
I0403 21:42:16.969338 23947 net.cpp:425] inception_4e/pool <- inception_4d/output_inception_4d/output_0_split_4
I0403 21:42:16.969357 23947 net.cpp:399] inception_4e/pool -> inception_4e/pool
I0403 21:42:16.969429 23947 net.cpp:141] Setting up inception_4e/pool
I0403 21:42:16.969454 23947 net.cpp:148] Top shape: 24 528 14 14 (2483712)
I0403 21:42:16.969470 23947 net.cpp:156] Memory required for data: 1252085280
I0403 21:42:16.969485 23947 layer_factory.hpp:77] Creating layer inception_4e/pool_proj
I0403 21:42:16.969506 23947 net.cpp:91] Creating Layer inception_4e/pool_proj
I0403 21:42:16.969526 23947 net.cpp:425] inception_4e/pool_proj <- inception_4e/pool
I0403 21:42:16.969552 23947 net.cpp:399] inception_4e/pool_proj -> inception_4e/pool_proj
I0403 21:42:16.971025 23947 net.cpp:141] Setting up inception_4e/pool_proj
I0403 21:42:16.971066 23947 net.cpp:148] Top shape: 24 128 14 14 (602112)
I0403 21:42:16.971084 23947 net.cpp:156] Memory required for data: 1254493728
I0403 21:42:16.971103 23947 layer_factory.hpp:77] Creating layer inception_4e/relu_pool_proj
I0403 21:42:16.971122 23947 net.cpp:91] Creating Layer inception_4e/relu_pool_proj
I0403 21:42:16.971139 23947 net.cpp:425] inception_4e/relu_pool_proj <- inception_4e/pool_proj
I0403 21:42:16.971159 23947 net.cpp:386] inception_4e/relu_pool_proj -> inception_4e/pool_proj (in-place)
I0403 21:42:16.971454 23947 net.cpp:141] Setting up inception_4e/relu_pool_proj
I0403 21:42:16.971483 23947 net.cpp:148] Top shape: 24 128 14 14 (602112)
I0403 21:42:16.971501 23947 net.cpp:156] Memory required for data: 1256902176
I0403 21:42:16.971516 23947 layer_factory.hpp:77] Creating layer inception_4e/output
I0403 21:42:16.971535 23947 net.cpp:91] Creating Layer inception_4e/output
I0403 21:42:16.971550 23947 net.cpp:425] inception_4e/output <- inception_4e/1x1
I0403 21:42:16.971568 23947 net.cpp:425] inception_4e/output <- inception_4e/3x3
I0403 21:42:16.971585 23947 net.cpp:425] inception_4e/output <- inception_4e/5x5
I0403 21:42:16.971602 23947 net.cpp:425] inception_4e/output <- inception_4e/pool_proj
I0403 21:42:16.971622 23947 net.cpp:399] inception_4e/output -> inception_4e/output
I0403 21:42:16.971671 23947 net.cpp:141] Setting up inception_4e/output
I0403 21:42:16.971695 23947 net.cpp:148] Top shape: 24 832 14 14 (3913728)
I0403 21:42:16.971711 23947 net.cpp:156] Memory required for data: 1272557088
I0403 21:42:16.971727 23947 layer_factory.hpp:77] Creating layer pool4/3x3_s2
I0403 21:42:16.971747 23947 net.cpp:91] Creating Layer pool4/3x3_s2
I0403 21:42:16.971765 23947 net.cpp:425] pool4/3x3_s2 <- inception_4e/output
I0403 21:42:16.971783 23947 net.cpp:399] pool4/3x3_s2 -> pool4/3x3_s2
I0403 21:42:16.971850 23947 net.cpp:141] Setting up pool4/3x3_s2
I0403 21:42:16.971875 23947 net.cpp:148] Top shape: 24 832 7 7 (978432)
I0403 21:42:16.971891 23947 net.cpp:156] Memory required for data: 1276470816
I0403 21:42:16.971906 23947 layer_factory.hpp:77] Creating layer pool4/3x3_s2_pool4/3x3_s2_0_split
I0403 21:42:16.971925 23947 net.cpp:91] Creating Layer pool4/3x3_s2_pool4/3x3_s2_0_split
I0403 21:42:16.971941 23947 net.cpp:425] pool4/3x3_s2_pool4/3x3_s2_0_split <- pool4/3x3_s2
I0403 21:42:16.971961 23947 net.cpp:399] pool4/3x3_s2_pool4/3x3_s2_0_split -> pool4/3x3_s2_pool4/3x3_s2_0_split_0
I0403 21:42:16.971982 23947 net.cpp:399] pool4/3x3_s2_pool4/3x3_s2_0_split -> pool4/3x3_s2_pool4/3x3_s2_0_split_1
I0403 21:42:16.972003 23947 net.cpp:399] pool4/3x3_s2_pool4/3x3_s2_0_split -> pool4/3x3_s2_pool4/3x3_s2_0_split_2
I0403 21:42:16.972025 23947 net.cpp:399] pool4/3x3_s2_pool4/3x3_s2_0_split -> pool4/3x3_s2_pool4/3x3_s2_0_split_3
I0403 21:42:16.972113 23947 net.cpp:141] Setting up pool4/3x3_s2_pool4/3x3_s2_0_split
I0403 21:42:16.972138 23947 net.cpp:148] Top shape: 24 832 7 7 (978432)
I0403 21:42:16.972156 23947 net.cpp:148] Top shape: 24 832 7 7 (978432)
I0403 21:42:16.972172 23947 net.cpp:148] Top shape: 24 832 7 7 (978432)
I0403 21:42:16.972188 23947 net.cpp:148] Top shape: 24 832 7 7 (978432)
I0403 21:42:16.972208 23947 net.cpp:156] Memory required for data: 1292125728
I0403 21:42:16.972225 23947 layer_factory.hpp:77] Creating layer inception_5a/1x1
I0403 21:42:16.972249 23947 net.cpp:91] Creating Layer inception_5a/1x1
I0403 21:42:16.972268 23947 net.cpp:425] inception_5a/1x1 <- pool4/3x3_s2_pool4/3x3_s2_0_split_0
I0403 21:42:16.972290 23947 net.cpp:399] inception_5a/1x1 -> inception_5a/1x1
I0403 21:42:16.975172 23947 net.cpp:141] Setting up inception_5a/1x1
I0403 21:42:16.975206 23947 net.cpp:148] Top shape: 24 256 7 7 (301056)
I0403 21:42:16.975225 23947 net.cpp:156] Memory required for data: 1293329952
I0403 21:42:16.975244 23947 layer_factory.hpp:77] Creating layer inception_5a/relu_1x1
I0403 21:42:16.975266 23947 net.cpp:91] Creating Layer inception_5a/relu_1x1
I0403 21:42:16.975286 23947 net.cpp:425] inception_5a/relu_1x1 <- inception_5a/1x1
I0403 21:42:16.975304 23947 net.cpp:386] inception_5a/relu_1x1 -> inception_5a/1x1 (in-place)
I0403 21:42:16.975698 23947 net.cpp:141] Setting up inception_5a/relu_1x1
I0403 21:42:16.975726 23947 net.cpp:148] Top shape: 24 256 7 7 (301056)
I0403 21:42:16.975744 23947 net.cpp:156] Memory required for data: 1294534176
I0403 21:42:16.975759 23947 layer_factory.hpp:77] Creating layer inception_5a/3x3_reduce
I0403 21:42:16.975782 23947 net.cpp:91] Creating Layer inception_5a/3x3_reduce
I0403 21:42:16.975802 23947 net.cpp:425] inception_5a/3x3_reduce <- pool4/3x3_s2_pool4/3x3_s2_0_split_1
I0403 21:42:16.975826 23947 net.cpp:399] inception_5a/3x3_reduce -> inception_5a/3x3_reduce
I0403 21:42:16.978328 23947 net.cpp:141] Setting up inception_5a/3x3_reduce
I0403 21:42:16.978361 23947 net.cpp:148] Top shape: 24 160 7 7 (188160)
I0403 21:42:16.978380 23947 net.cpp:156] Memory required for data: 1295286816
I0403 21:42:16.978400 23947 layer_factory.hpp:77] Creating layer inception_5a/relu_3x3_reduce
I0403 21:42:16.978420 23947 net.cpp:91] Creating Layer inception_5a/relu_3x3_reduce
I0403 21:42:16.978437 23947 net.cpp:425] inception_5a/relu_3x3_reduce <- inception_5a/3x3_reduce
I0403 21:42:16.978458 23947 net.cpp:386] inception_5a/relu_3x3_reduce -> inception_5a/3x3_reduce (in-place)
I0403 21:42:16.978652 23947 net.cpp:141] Setting up inception_5a/relu_3x3_reduce
I0403 21:42:16.978679 23947 net.cpp:148] Top shape: 24 160 7 7 (188160)
I0403 21:42:16.978695 23947 net.cpp:156] Memory required for data: 1296039456
I0403 21:42:16.978710 23947 layer_factory.hpp:77] Creating layer inception_5a/3x3
I0403 21:42:16.978734 23947 net.cpp:91] Creating Layer inception_5a/3x3
I0403 21:42:16.978754 23947 net.cpp:425] inception_5a/3x3 <- inception_5a/3x3_reduce
I0403 21:42:16.978777 23947 net.cpp:399] inception_5a/3x3 -> inception_5a/3x3
I0403 21:42:16.983849 23947 net.cpp:141] Setting up inception_5a/3x3
I0403 21:42:16.983880 23947 net.cpp:148] Top shape: 24 320 7 7 (376320)
I0403 21:42:16.983897 23947 net.cpp:156] Memory required for data: 1297544736
I0403 21:42:16.983917 23947 layer_factory.hpp:77] Creating layer inception_5a/relu_3x3
I0403 21:42:16.983938 23947 net.cpp:91] Creating Layer inception_5a/relu_3x3
I0403 21:42:16.983958 23947 net.cpp:425] inception_5a/relu_3x3 <- inception_5a/3x3
I0403 21:42:16.983976 23947 net.cpp:386] inception_5a/relu_3x3 -> inception_5a/3x3 (in-place)
I0403 21:42:16.984282 23947 net.cpp:141] Setting up inception_5a/relu_3x3
I0403 21:42:16.984310 23947 net.cpp:148] Top shape: 24 320 7 7 (376320)
I0403 21:42:16.984326 23947 net.cpp:156] Memory required for data: 1299050016
I0403 21:42:16.984343 23947 layer_factory.hpp:77] Creating layer inception_5a/5x5_reduce
I0403 21:42:16.984366 23947 net.cpp:91] Creating Layer inception_5a/5x5_reduce
I0403 21:42:16.984385 23947 net.cpp:425] inception_5a/5x5_reduce <- pool4/3x3_s2_pool4/3x3_s2_0_split_2
I0403 21:42:16.984410 23947 net.cpp:399] inception_5a/5x5_reduce -> inception_5a/5x5_reduce
I0403 21:42:16.985589 23947 net.cpp:141] Setting up inception_5a/5x5_reduce
I0403 21:42:16.985618 23947 net.cpp:148] Top shape: 24 32 7 7 (37632)
I0403 21:42:16.985635 23947 net.cpp:156] Memory required for data: 1299200544
I0403 21:42:16.985656 23947 layer_factory.hpp:77] Creating layer inception_5a/relu_5x5_reduce
I0403 21:42:16.985676 23947 net.cpp:91] Creating Layer inception_5a/relu_5x5_reduce
I0403 21:42:16.985693 23947 net.cpp:425] inception_5a/relu_5x5_reduce <- inception_5a/5x5_reduce
I0403 21:42:16.985713 23947 net.cpp:386] inception_5a/relu_5x5_reduce -> inception_5a/5x5_reduce (in-place)
I0403 21:42:16.986017 23947 net.cpp:141] Setting up inception_5a/relu_5x5_reduce
I0403 21:42:16.986044 23947 net.cpp:148] Top shape: 24 32 7 7 (37632)
I0403 21:42:16.986062 23947 net.cpp:156] Memory required for data: 1299351072
I0403 21:42:16.986078 23947 layer_factory.hpp:77] Creating layer inception_5a/5x5
I0403 21:42:16.986101 23947 net.cpp:91] Creating Layer inception_5a/5x5
I0403 21:42:16.986121 23947 net.cpp:425] inception_5a/5x5 <- inception_5a/5x5_reduce
I0403 21:42:16.986145 23947 net.cpp:399] inception_5a/5x5 -> inception_5a/5x5
I0403 21:42:16.987880 23947 net.cpp:141] Setting up inception_5a/5x5
I0403 21:42:16.987920 23947 net.cpp:148] Top shape: 24 128 7 7 (150528)
I0403 21:42:16.987939 23947 net.cpp:156] Memory required for data: 1299953184
I0403 21:42:16.987960 23947 layer_factory.hpp:77] Creating layer inception_5a/relu_5x5
I0403 21:42:16.987980 23947 net.cpp:91] Creating Layer inception_5a/relu_5x5
I0403 21:42:16.987999 23947 net.cpp:425] inception_5a/relu_5x5 <- inception_5a/5x5
I0403 21:42:16.988018 23947 net.cpp:386] inception_5a/relu_5x5 -> inception_5a/5x5 (in-place)
I0403 21:42:16.988227 23947 net.cpp:141] Setting up inception_5a/relu_5x5
I0403 21:42:16.988255 23947 net.cpp:148] Top shape: 24 128 7 7 (150528)
I0403 21:42:16.988270 23947 net.cpp:156] Memory required for data: 1300555296
I0403 21:42:16.988286 23947 layer_factory.hpp:77] Creating layer inception_5a/pool
I0403 21:42:16.988306 23947 net.cpp:91] Creating Layer inception_5a/pool
I0403 21:42:16.988327 23947 net.cpp:425] inception_5a/pool <- pool4/3x3_s2_pool4/3x3_s2_0_split_3
I0403 21:42:16.988345 23947 net.cpp:399] inception_5a/pool -> inception_5a/pool
I0403 21:42:16.988420 23947 net.cpp:141] Setting up inception_5a/pool
I0403 21:42:16.988445 23947 net.cpp:148] Top shape: 24 832 7 7 (978432)
I0403 21:42:16.988461 23947 net.cpp:156] Memory required for data: 1304469024
I0403 21:42:16.988477 23947 layer_factory.hpp:77] Creating layer inception_5a/pool_proj
I0403 21:42:16.988500 23947 net.cpp:91] Creating Layer inception_5a/pool_proj
I0403 21:42:16.988519 23947 net.cpp:425] inception_5a/pool_proj <- inception_5a/pool
I0403 21:42:16.988543 23947 net.cpp:399] inception_5a/pool_proj -> inception_5a/pool_proj
I0403 21:42:16.990877 23947 net.cpp:141] Setting up inception_5a/pool_proj
I0403 21:42:16.990908 23947 net.cpp:148] Top shape: 24 128 7 7 (150528)
I0403 21:42:16.990926 23947 net.cpp:156] Memory required for data: 1305071136
I0403 21:42:16.990957 23947 layer_factory.hpp:77] Creating layer inception_5a/relu_pool_proj
I0403 21:42:16.990977 23947 net.cpp:91] Creating Layer inception_5a/relu_pool_proj
I0403 21:42:16.990995 23947 net.cpp:425] inception_5a/relu_pool_proj <- inception_5a/pool_proj
I0403 21:42:16.991015 23947 net.cpp:386] inception_5a/relu_pool_proj -> inception_5a/pool_proj (in-place)
I0403 21:42:16.991312 23947 net.cpp:141] Setting up inception_5a/relu_pool_proj
I0403 21:42:16.991338 23947 net.cpp:148] Top shape: 24 128 7 7 (150528)
I0403 21:42:16.991354 23947 net.cpp:156] Memory required for data: 1305673248
I0403 21:42:16.991370 23947 layer_factory.hpp:77] Creating layer inception_5a/output
I0403 21:42:16.991389 23947 net.cpp:91] Creating Layer inception_5a/output
I0403 21:42:16.991405 23947 net.cpp:425] inception_5a/output <- inception_5a/1x1
I0403 21:42:16.991423 23947 net.cpp:425] inception_5a/output <- inception_5a/3x3
I0403 21:42:16.991439 23947 net.cpp:425] inception_5a/output <- inception_5a/5x5
I0403 21:42:16.991456 23947 net.cpp:425] inception_5a/output <- inception_5a/pool_proj
I0403 21:42:16.991478 23947 net.cpp:399] inception_5a/output -> inception_5a/output
I0403 21:42:16.991529 23947 net.cpp:141] Setting up inception_5a/output
I0403 21:42:16.991556 23947 net.cpp:148] Top shape: 24 832 7 7 (978432)
I0403 21:42:16.991572 23947 net.cpp:156] Memory required for data: 1309586976
I0403 21:42:16.991587 23947 layer_factory.hpp:77] Creating layer inception_5a/output_inception_5a/output_0_split
I0403 21:42:16.991605 23947 net.cpp:91] Creating Layer inception_5a/output_inception_5a/output_0_split
I0403 21:42:16.991621 23947 net.cpp:425] inception_5a/output_inception_5a/output_0_split <- inception_5a/output
I0403 21:42:16.991641 23947 net.cpp:399] inception_5a/output_inception_5a/output_0_split -> inception_5a/output_inception_5a/output_0_split_0
I0403 21:42:16.991662 23947 net.cpp:399] inception_5a/output_inception_5a/output_0_split -> inception_5a/output_inception_5a/output_0_split_1
I0403 21:42:16.991685 23947 net.cpp:399] inception_5a/output_inception_5a/output_0_split -> inception_5a/output_inception_5a/output_0_split_2
I0403 21:42:16.991709 23947 net.cpp:399] inception_5a/output_inception_5a/output_0_split -> inception_5a/output_inception_5a/output_0_split_3
I0403 21:42:16.991823 23947 net.cpp:141] Setting up inception_5a/output_inception_5a/output_0_split
I0403 21:42:16.991848 23947 net.cpp:148] Top shape: 24 832 7 7 (978432)
I0403 21:42:16.991864 23947 net.cpp:148] Top shape: 24 832 7 7 (978432)
I0403 21:42:16.991881 23947 net.cpp:148] Top shape: 24 832 7 7 (978432)
I0403 21:42:16.991897 23947 net.cpp:148] Top shape: 24 832 7 7 (978432)
I0403 21:42:16.991911 23947 net.cpp:156] Memory required for data: 1325241888
I0403 21:42:16.991926 23947 layer_factory.hpp:77] Creating layer inception_5b/1x1
I0403 21:42:16.991948 23947 net.cpp:91] Creating Layer inception_5b/1x1
I0403 21:42:16.991966 23947 net.cpp:425] inception_5b/1x1 <- inception_5a/output_inception_5a/output_0_split_0
I0403 21:42:16.991989 23947 net.cpp:399] inception_5b/1x1 -> inception_5b/1x1
I0403 21:42:16.995687 23947 net.cpp:141] Setting up inception_5b/1x1
I0403 21:42:16.995719 23947 net.cpp:148] Top shape: 24 384 7 7 (451584)
I0403 21:42:16.995738 23947 net.cpp:156] Memory required for data: 1327048224
I0403 21:42:16.995755 23947 layer_factory.hpp:77] Creating layer inception_5b/relu_1x1
I0403 21:42:16.995775 23947 net.cpp:91] Creating Layer inception_5b/relu_1x1
I0403 21:42:16.995793 23947 net.cpp:425] inception_5b/relu_1x1 <- inception_5b/1x1
I0403 21:42:16.995815 23947 net.cpp:386] inception_5b/relu_1x1 -> inception_5b/1x1 (in-place)
I0403 21:42:16.996114 23947 net.cpp:141] Setting up inception_5b/relu_1x1
I0403 21:42:16.996142 23947 net.cpp:148] Top shape: 24 384 7 7 (451584)
I0403 21:42:16.996160 23947 net.cpp:156] Memory required for data: 1328854560
I0403 21:42:16.996176 23947 layer_factory.hpp:77] Creating layer inception_5b/3x3_reduce
I0403 21:42:16.996211 23947 net.cpp:91] Creating Layer inception_5b/3x3_reduce
I0403 21:42:16.996232 23947 net.cpp:425] inception_5b/3x3_reduce <- inception_5a/output_inception_5a/output_0_split_1
I0403 21:42:16.996253 23947 net.cpp:399] inception_5b/3x3_reduce -> inception_5b/3x3_reduce
I0403 21:42:16.998942 23947 net.cpp:141] Setting up inception_5b/3x3_reduce
I0403 21:42:16.998973 23947 net.cpp:148] Top shape: 24 192 7 7 (225792)
I0403 21:42:16.998989 23947 net.cpp:156] Memory required for data: 1329757728
I0403 21:42:16.999009 23947 layer_factory.hpp:77] Creating layer inception_5b/relu_3x3_reduce
I0403 21:42:16.999029 23947 net.cpp:91] Creating Layer inception_5b/relu_3x3_reduce
I0403 21:42:16.999047 23947 net.cpp:425] inception_5b/relu_3x3_reduce <- inception_5b/3x3_reduce
I0403 21:42:16.999073 23947 net.cpp:386] inception_5b/relu_3x3_reduce -> inception_5b/3x3_reduce (in-place)
I0403 21:42:16.999269 23947 net.cpp:141] Setting up inception_5b/relu_3x3_reduce
I0403 21:42:16.999294 23947 net.cpp:148] Top shape: 24 192 7 7 (225792)
I0403 21:42:16.999310 23947 net.cpp:156] Memory required for data: 1330660896
I0403 21:42:16.999325 23947 layer_factory.hpp:77] Creating layer inception_5b/3x3
I0403 21:42:16.999347 23947 net.cpp:91] Creating Layer inception_5b/3x3
I0403 21:42:16.999366 23947 net.cpp:425] inception_5b/3x3 <- inception_5b/3x3_reduce
I0403 21:42:16.999387 23947 net.cpp:399] inception_5b/3x3 -> inception_5b/3x3
I0403 21:42:17.006011 23947 net.cpp:141] Setting up inception_5b/3x3
I0403 21:42:17.006039 23947 net.cpp:148] Top shape: 24 384 7 7 (451584)
I0403 21:42:17.006064 23947 net.cpp:156] Memory required for data: 1332467232
I0403 21:42:17.006084 23947 layer_factory.hpp:77] Creating layer inception_5b/relu_3x3
I0403 21:42:17.006101 23947 net.cpp:91] Creating Layer inception_5b/relu_3x3
I0403 21:42:17.006129 23947 net.cpp:425] inception_5b/relu_3x3 <- inception_5b/3x3
I0403 21:42:17.006148 23947 net.cpp:386] inception_5b/relu_3x3 -> inception_5b/3x3 (in-place)
I0403 21:42:17.006448 23947 net.cpp:141] Setting up inception_5b/relu_3x3
I0403 21:42:17.006479 23947 net.cpp:148] Top shape: 24 384 7 7 (451584)
I0403 21:42:17.006495 23947 net.cpp:156] Memory required for data: 1334273568
I0403 21:42:17.006510 23947 layer_factory.hpp:77] Creating layer inception_5b/5x5_reduce
I0403 21:42:17.006549 23947 net.cpp:91] Creating Layer inception_5b/5x5_reduce
I0403 21:42:17.006578 23947 net.cpp:425] inception_5b/5x5_reduce <- inception_5a/output_inception_5a/output_0_split_2
I0403 21:42:17.006603 23947 net.cpp:399] inception_5b/5x5_reduce -> inception_5b/5x5_reduce
I0403 21:42:17.007845 23947 net.cpp:141] Setting up inception_5b/5x5_reduce
I0403 21:42:17.007875 23947 net.cpp:148] Top shape: 24 48 7 7 (56448)
I0403 21:42:17.007894 23947 net.cpp:156] Memory required for data: 1334499360
I0403 21:42:17.007913 23947 layer_factory.hpp:77] Creating layer inception_5b/relu_5x5_reduce
I0403 21:42:17.007932 23947 net.cpp:91] Creating Layer inception_5b/relu_5x5_reduce
I0403 21:42:17.007952 23947 net.cpp:425] inception_5b/relu_5x5_reduce <- inception_5b/5x5_reduce
I0403 21:42:17.007972 23947 net.cpp:386] inception_5b/relu_5x5_reduce -> inception_5b/5x5_reduce (in-place)
I0403 21:42:17.008363 23947 net.cpp:141] Setting up inception_5b/relu_5x5_reduce
I0403 21:42:17.008390 23947 net.cpp:148] Top shape: 24 48 7 7 (56448)
I0403 21:42:17.008405 23947 net.cpp:156] Memory required for data: 1334725152
I0403 21:42:17.008420 23947 layer_factory.hpp:77] Creating layer inception_5b/5x5
I0403 21:42:17.008441 23947 net.cpp:91] Creating Layer inception_5b/5x5
I0403 21:42:17.008458 23947 net.cpp:425] inception_5b/5x5 <- inception_5b/5x5_reduce
I0403 21:42:17.008478 23947 net.cpp:399] inception_5b/5x5 -> inception_5b/5x5
I0403 21:42:17.010491 23947 net.cpp:141] Setting up inception_5b/5x5
I0403 21:42:17.010519 23947 net.cpp:148] Top shape: 24 128 7 7 (150528)
I0403 21:42:17.010536 23947 net.cpp:156] Memory required for data: 1335327264
I0403 21:42:17.010555 23947 layer_factory.hpp:77] Creating layer inception_5b/relu_5x5
I0403 21:42:17.010576 23947 net.cpp:91] Creating Layer inception_5b/relu_5x5
I0403 21:42:17.010593 23947 net.cpp:425] inception_5b/relu_5x5 <- inception_5b/5x5
I0403 21:42:17.010623 23947 net.cpp:386] inception_5b/relu_5x5 -> inception_5b/5x5 (in-place)
I0403 21:42:17.010820 23947 net.cpp:141] Setting up inception_5b/relu_5x5
I0403 21:42:17.010846 23947 net.cpp:148] Top shape: 24 128 7 7 (150528)
I0403 21:42:17.010862 23947 net.cpp:156] Memory required for data: 1335929376
I0403 21:42:17.010877 23947 layer_factory.hpp:77] Creating layer inception_5b/pool
I0403 21:42:17.010907 23947 net.cpp:91] Creating Layer inception_5b/pool
I0403 21:42:17.010927 23947 net.cpp:425] inception_5b/pool <- inception_5a/output_inception_5a/output_0_split_3
I0403 21:42:17.010946 23947 net.cpp:399] inception_5b/pool -> inception_5b/pool
I0403 21:42:17.011019 23947 net.cpp:141] Setting up inception_5b/pool
I0403 21:42:17.011054 23947 net.cpp:148] Top shape: 24 832 7 7 (978432)
I0403 21:42:17.011070 23947 net.cpp:156] Memory required for data: 1339843104
I0403 21:42:17.011085 23947 layer_factory.hpp:77] Creating layer inception_5b/pool_proj
I0403 21:42:17.011107 23947 net.cpp:91] Creating Layer inception_5b/pool_proj
I0403 21:42:17.011126 23947 net.cpp:425] inception_5b/pool_proj <- inception_5b/pool
I0403 21:42:17.011147 23947 net.cpp:399] inception_5b/pool_proj -> inception_5b/pool_proj
I0403 21:42:17.013448 23947 net.cpp:141] Setting up inception_5b/pool_proj
I0403 21:42:17.013478 23947 net.cpp:148] Top shape: 24 128 7 7 (150528)
I0403 21:42:17.013494 23947 net.cpp:156] Memory required for data: 1340445216
I0403 21:42:17.013514 23947 layer_factory.hpp:77] Creating layer inception_5b/relu_pool_proj
I0403 21:42:17.013532 23947 net.cpp:91] Creating Layer inception_5b/relu_pool_proj
I0403 21:42:17.013550 23947 net.cpp:425] inception_5b/relu_pool_proj <- inception_5b/pool_proj
I0403 21:42:17.013571 23947 net.cpp:386] inception_5b/relu_pool_proj -> inception_5b/pool_proj (in-place)
I0403 21:42:17.013869 23947 net.cpp:141] Setting up inception_5b/relu_pool_proj
I0403 21:42:17.013895 23947 net.cpp:148] Top shape: 24 128 7 7 (150528)
I0403 21:42:17.013911 23947 net.cpp:156] Memory required for data: 1341047328
I0403 21:42:17.013927 23947 layer_factory.hpp:77] Creating layer inception_5b/output
I0403 21:42:17.013945 23947 net.cpp:91] Creating Layer inception_5b/output
I0403 21:42:17.013978 23947 net.cpp:425] inception_5b/output <- inception_5b/1x1
I0403 21:42:17.014004 23947 net.cpp:425] inception_5b/output <- inception_5b/3x3
I0403 21:42:17.014022 23947 net.cpp:425] inception_5b/output <- inception_5b/5x5
I0403 21:42:17.014039 23947 net.cpp:425] inception_5b/output <- inception_5b/pool_proj
I0403 21:42:17.014060 23947 net.cpp:399] inception_5b/output -> inception_5b/output
I0403 21:42:17.014113 23947 net.cpp:141] Setting up inception_5b/output
I0403 21:42:17.014140 23947 net.cpp:148] Top shape: 24 1024 7 7 (1204224)
I0403 21:42:17.014158 23947 net.cpp:156] Memory required for data: 1345864224
I0403 21:42:17.014174 23947 layer_factory.hpp:77] Creating layer pool5/7x7_s1
I0403 21:42:17.014204 23947 net.cpp:91] Creating Layer pool5/7x7_s1
I0403 21:42:17.014221 23947 net.cpp:425] pool5/7x7_s1 <- inception_5b/output
I0403 21:42:17.014245 23947 net.cpp:399] pool5/7x7_s1 -> pool5/7x7_s1
I0403 21:42:17.014472 23947 net.cpp:141] Setting up pool5/7x7_s1
I0403 21:42:17.014506 23947 net.cpp:148] Top shape: 24 1024 1 1 (24576)
I0403 21:42:17.014523 23947 net.cpp:156] Memory required for data: 1345962528
I0403 21:42:17.014539 23947 layer_factory.hpp:77] Creating layer pool5/drop_7x7_s1
I0403 21:42:17.014557 23947 net.cpp:91] Creating Layer pool5/drop_7x7_s1
I0403 21:42:17.014576 23947 net.cpp:425] pool5/drop_7x7_s1 <- pool5/7x7_s1
I0403 21:42:17.014597 23947 net.cpp:386] pool5/drop_7x7_s1 -> pool5/7x7_s1 (in-place)
I0403 21:42:17.014652 23947 net.cpp:141] Setting up pool5/drop_7x7_s1
I0403 21:42:17.014678 23947 net.cpp:148] Top shape: 24 1024 1 1 (24576)
I0403 21:42:17.014695 23947 net.cpp:156] Memory required for data: 1346060832
I0403 21:42:17.014710 23947 layer_factory.hpp:77] Creating layer loss3/classifier_plantvillage
I0403 21:42:17.014731 23947 net.cpp:91] Creating Layer loss3/classifier_plantvillage
I0403 21:42:17.014750 23947 net.cpp:425] loss3/classifier_plantvillage <- pool5/7x7_s1
I0403 21:42:17.014770 23947 net.cpp:399] loss3/classifier_plantvillage -> loss3/classifier_plantvillage
I0403 21:42:17.015190 23947 net.cpp:141] Setting up loss3/classifier_plantvillage
I0403 21:42:17.015223 23947 net.cpp:148] Top shape: 24 38 (912)
I0403 21:42:17.015239 23947 net.cpp:156] Memory required for data: 1346064480
I0403 21:42:17.015259 23947 layer_factory.hpp:77] Creating layer loss3/classifier_plantvillage_loss3/classifier_plantvillage_0_split
I0403 21:42:17.015277 23947 net.cpp:91] Creating Layer loss3/classifier_plantvillage_loss3/classifier_plantvillage_0_split
I0403 21:42:17.015295 23947 net.cpp:425] loss3/classifier_plantvillage_loss3/classifier_plantvillage_0_split <- loss3/classifier_plantvillage
I0403 21:42:17.015313 23947 net.cpp:399] loss3/classifier_plantvillage_loss3/classifier_plantvillage_0_split -> loss3/classifier_plantvillage_loss3/classifier_plantvillage_0_split_0
I0403 21:42:17.015334 23947 net.cpp:399] loss3/classifier_plantvillage_loss3/classifier_plantvillage_0_split -> loss3/classifier_plantvillage_loss3/classifier_plantvillage_0_split_1
I0403 21:42:17.015358 23947 net.cpp:399] loss3/classifier_plantvillage_loss3/classifier_plantvillage_0_split -> loss3/classifier_plantvillage_loss3/classifier_plantvillage_0_split_2
I0403 21:42:17.015382 23947 net.cpp:399] loss3/classifier_plantvillage_loss3/classifier_plantvillage_0_split -> loss3/classifier_plantvillage_loss3/classifier_plantvillage_0_split_3
I0403 21:42:17.015480 23947 net.cpp:141] Setting up loss3/classifier_plantvillage_loss3/classifier_plantvillage_0_split
I0403 21:42:17.015504 23947 net.cpp:148] Top shape: 24 38 (912)
I0403 21:42:17.015521 23947 net.cpp:148] Top shape: 24 38 (912)
I0403 21:42:17.015537 23947 net.cpp:148] Top shape: 24 38 (912)
I0403 21:42:17.015552 23947 net.cpp:148] Top shape: 24 38 (912)
I0403 21:42:17.015566 23947 net.cpp:156] Memory required for data: 1346079072
I0403 21:42:17.015583 23947 layer_factory.hpp:77] Creating layer loss1/loss
I0403 21:42:17.015606 23947 net.cpp:91] Creating Layer loss1/loss
I0403 21:42:17.015626 23947 net.cpp:425] loss1/loss <- loss1/classifier_plantvillage_loss1/classifier_plantvillage_0_split_0
I0403 21:42:17.015658 23947 net.cpp:425] loss1/loss <- label_data_1_split_0
…
