…
I0403 21:40:08.226112 23820 net.cpp:313] The NetState phase (1) differed from the phase (0) specified by a rule in layer data
I0403 21:40:08.227242 23820 net.cpp:49] Initializing net from parameters: 
state {
  phase: TEST
}
layer {
  name: "data"
  type: "Data"
  top: "data"
  top: "label"
  include {
    phase: TEST
  }
  transform_param {
    mirror: false
    crop_size: 224
    mean_file: "/home/mohanty/data/final_dataset/lmdb/segmented-80-20/mean.binaryproto"
  }
  data_param {
    source: "/home/mohanty/data/final_dataset/lmdb/segmented-80-20/test_db"
    batch_size: 24
    backend: LMDB
  }
}
layer {
  name: "conv1/7x7_s2"
  type: "Convolution"
  bottom: "data"
  top: "conv1/7x7_s2"
  param {
    lr_mult: 1
    decay_mult: 1
  }
  param {
    lr_mult: 2
    decay_mult: 0
  }
  convolution_param {
    num_output: 64
    pad: 3
    kernel_size: 7
    stride: 2
    weight_filler {
      type: "xavier"
      std: 0.1
    }
    bias_filler {
      type: "constant"
      value: 0.2
    }
  }
}
layer {
  name: "conv1/relu_7x7"
  type: "ReLU"
  bottom: "conv1/7x7_s2"
  top: "conv1/7x7_s2"
}
layer {
  name: "pool1/3x3_s2"
  type: "Pooling"
  bottom: "conv1/7x7_s2"
  top: "pool1/3x3_s2"
  pooling_param {
    pool: MAX
    kernel_size: 3
    stride: 2
  }
}
layer {
  name: "pool1/norm1"
  type: "LRN"
  bottom: "pool1/3x3_s2"
  top: "pool1/norm1"
  lrn_param {
    local_size: 5
    alpha: 0.0001
    beta: 0.75
  }
}
layer {
  name: "conv2/3x3_reduce"
  type: "Convolution"
  bottom: "pool1/norm1"
  top: "conv2/3x3_reduce"
  param {
    lr_mult: 1
    decay_mult: 1
  }
  param {
    lr_mult: 2
    decay_mult: 0
  }
  convolution_param {
    num_output: 64
    kernel_size: 1
    weight_filler {
      type: "xavier"
      std: 0.1
    }
    bias_filler {
      type: "constant"
      value: 0.2
    }
  }
}
layer {
  name: "conv2/relu_3x3_reduce"
  type: "ReLU"
  bottom: "conv2/3x3_reduce"
  top: "conv2/3x3_reduce"
}
layer {
  name: "conv2/3x3"
  type: "Convolution"
  bottom: "conv2/3x3_reduce"
  top: "conv2/3x3"
  param {
    lr_mult: 1
    decay_mult: 1
  }
  param {
    lr_mult: 2
    decay_mult: 0
  }
  convolution_param {
    num_output: 192
    pad: 1
    kernel_size: 3
    weight_filler {
      type: "xavier"
      std: 0.03
    }
    bias_filler {
      type: "constant"
      value: 0.2
    }
  }
}
layer {
  name: "conv2/relu_3x3"
  type: "ReLU"
  bottom: "conv2/3x3"
  top: "conv2/3x3"
}
layer {
  name: "conv2/norm2"
  type: "LRN"
  bottom: "conv2/3x3"
  top: "conv2/norm2"
  lrn_param {
    local_size: 5
    alpha: 0.0001
    beta: 0.75
  }
}
layer {
  name: "pool2/3x3_s2"
  type: "Pooling"
  bottom: "conv2/norm2"
  top: "pool2/3x3_s2"
  pooling_param {
    pool: MAX
    kernel_size: 3
    stride: 2
  }
}
layer {
  name: "inception_3a/1x1"
  type: "Convolution"
  bottom: "pool2/3x3_s2"
  top: "inception_3a/1x1"
  param {
    lr_mult: 1
    decay_mult: 1
  }
  param {
    lr_mult: 2
    decay_mult: 0
  }
  convolution_param {
    num_output: 64
    kernel_size: 1
    weight_filler {
      type: "xavier"
      std: 0.03
    }
    bias_filler {
      type: "constant"
      value: 0.2
    }
  }
}
layer {
  name: "inception_3a/relu_1x1"
  type: "ReLU"
  bottom: "inception_3a/1x1"
  top: "inception_3a/1x1"
}
layer {
  name: "inception_3a/3x3_reduce"
  type: "Convolution"
  bottom: "pool2/3x3_s2"
  top: "inception_3a/3x3_reduce"
  param {
    lr_mult: 1
    decay_mult: 1
  }
  param {
    lr_mult: 2
    decay_mult: 0
  }
  convolution_param {
    num_output: 96
    kernel_size: 1
    weight_filler {
      type: "xavier"
      std: 0.09
    }
    bias_filler {
      type: "constant"
      value: 0.2
    }
  }
}
layer {
  name: "inception_3a/relu_3x3_reduce"
  type: "ReLU"
  bottom: "inception_3a/3x3_reduce"
  top: "inception_3a/3x3_reduce"
}
layer {
  name: "inception_3a/3x3"
  type: "Convolution"
  bottom: "inception_3a/3x3_reduce"
  top: "inception_3a/3x3"
  param {
    lr_mult: 1
    decay_mult: 1
  }
  param {
    lr_mult: 2
    decay_mult: 0
  }
  convolution_param {
    num_output: 128
    pad: 1
    kernel_size: 3
    weight_filler {
      type: "xavier"
      std: 0.03
    }
    bias_filler {
      type: "constant"
      value: 0.2
    }
  }
}
layer {
  name: "inception_3a/relu_3x3"
  type: "ReLU"
  bottom: "inception_3a/3x3"
  top: "inception_3a/3x3"
}
layer {
  name: "inception_3a/5x5_reduce"
  type: "Convolution"
  bottom: "pool2/3x3_s2"
  top: "inception_3a/5x5_reduce"
  param {
    lr_mult: 1
    decay_mult: 1
  }
  param {
    lr_mult: 2
    decay_mult: 0
  }
  convolution_param {
    num_output: 16
    kernel_size: 1
    weight_filler {
      type: "xavier"
      std: 0.2
    }
    bias_filler {
      type: "constant"
      value: 0.2
    }
  }
}
layer {
  name: "inception_3a/relu_5x5_reduce"
  type: "ReLU"
  bottom: "inception_3a/5x5_reduce"
  top: "inception_3a/5x5_reduce"
}
layer {
  name: "inception_3a/5x5"
  type: "Convolution"
  bottom: "inception_3a/5x5_reduce"
  top: "inception_3a/5x5"
  param {
    lr_mult: 1
    decay_mult: 1
  }
  param {
    lr_mult: 2
    decay_mult: 0
  }
  convolution_param {
    num_output: 32
    pad: 2
    kernel_size: 5
    weight_filler {
      type: "xavier"
      std: 0.03
    }
    bias_filler {
      type: "constant"
      value: 0.2
    }
  }
}
layer {
  name: "inception_3a/relu_5x5"
  type: "ReLU"
  bottom: "inception_3a/5x5"
  top: "inception_3a/5x5"
}
layer {
  name: "inception_3a/pool"
  type: "Pooling"
  bottom: "pool2/3x3_s2"
  top: "inception_3a/pool"
  pooling_param {
    pool: MAX
    kernel_size: 3
    stride: 1
    pad: 1
  }
}
layer {
  name: "inception_3a/pool_proj"
  type: "Convolution"
  bottom: "inception_3a/pool"
  top: "inception_3a/pool_proj"
  param {
    lr_mult: 1
    decay_mult: 1
  }
  param {
    lr_mult: 2
    decay_mult: 0
  }
  convolution_param {
    num_output: 32
    kernel_size: 1
    weight_filler {
      type: "xavier"
      std: 0.1
    }
    bias_filler {
      type: "constant"
      value: 0.2
    }
  }
}
layer {
  name: "inception_3a/relu_pool_proj"
  type: "ReLU"
  bottom: "inception_3a/pool_proj"
  top: "inception_3a/pool_proj"
}
layer {
  name: "inception_3a/output"
  type: "Concat"
  bottom: "inception_3a/1x1"
  bottom: "inception_3a/3x3"
  bottom: "inception_3a/5x5"
  bottom: "inception_3a/pool_proj"
  top: "inception_3a/output"
}
layer {
  name: "inception_3b/1x1"
  type: "Convolution"
  bottom: "inception_3a/output"
  top: "inception_3b/1x1"
  param {
    lr_mult: 1
    decay_mult: 1
  }
  param {
    lr_mult: 2
    decay_mult: 0
  }
  convolution_param {
    num_output: 128
    kernel_size: 1
    weight_filler {
      type: "xavier"
      std: 0.03
    }
    bias_filler {
      type: "constant"
      value: 0.2
    }
  }
}
layer {
  name: "inception_3b/relu_1x1"
  type: "ReLU"
  bottom: "inception_3b/1x1"
  top: "inception_3b/1x1"
}
layer {
  name: "inception_3b/3x3_reduce"
  type: "Convolution"
  bottom: "inception_3a/output"
  top: "inception_3b/3x3_reduce"
  param {
    lr_mult: 1
    decay_mult: 1
  }
  param {
    lr_mult: 2
    decay_mult: 0
  }
  convolution_param {
    num_output: 128
    kernel_size: 1
    weight_filler {
      type: "xavier"
      std: 0.09
    }
    bias_filler {
      type: "constant"
      value: 0.2
    }
  }
}
layer {
  name: "inception_3b/relu_3x3_reduce"
  type: "ReLU"
  bottom: "inception_3b/3x3_reduce"
  top: "inception_3b/3x3_reduce"
}
layer {
  name: "inception_3b/3x3"
  type: "Convolution"
  bottom: "inception_3b/3x3_reduce"
  top: "inception_3b/3x3"
  param {
    lr_mult: 1
    decay_mult: 1
  }
  param {
    lr_mult: 2
    decay_mult: 0
  }
  convolution_param {
    num_output: 192
    pad: 1
    kernel_size: 3
    weight_filler {
      type: "xavier"
      std: 0.03
    }
    bias_filler {
      type: "constant"
      value: 0.2
    }
  }
}
layer {
  name: "inception_3b/relu_3x3"
  type: "ReLU"
  bottom: "inception_3b/3x3"
  top: "inception_3b/3x3"
}
layer {
  name: "inception_3b/5x5_reduce"
  type: "Convolution"
  bottom: "inception_3a/output"
  top: "inception_3b/5x5_reduce"
  param {
    lr_mult: 1
    decay_mult: 1
  }
  param {
    lr_mult: 2
    decay_mult: 0
  }
  convolution_param {
    num_output: 32
    kernel_size: 1
    weight_filler {
      type: "xavier"
      std: 0.2
    }
    bias_filler {
      type: "constant"
      value: 0.2
    }
  }
}
layer {
  name: "inception_3b/relu_5x5_reduce"
  type: "ReLU"
  bottom: "inception_3b/5x5_reduce"
  top: "inception_3b/5x5_reduce"
}
layer {
  name: "inception_3b/5x5"
  type: "Convolution"
  bottom: "inception_3b/5x5_reduce"
  top: "inception_3b/5x5"
  param {
    lr_mult: 1
    decay_mult: 1
  }
  param {
    lr_mult: 2
    decay_mult: 0
  }
  convolution_param {
    num_output: 96
    pad: 2
    kernel_size: 5
    weight_filler {
      type: "xavier"
      std: 0.03
    }
    bias_filler {
      type: "constant"
      value: 0.2
    }
  }
}
layer {
  name: "inception_3b/relu_5x5"
  type: "ReLU"
  bottom: "inception_3b/5x5"
  top: "inception_3b/5x5"
}
layer {
  name: "inception_3b/pool"
  type: "Pooling"
  bottom: "inception_3a/output"
  top: "inception_3b/pool"
  pooling_param {
    pool: MAX
    kernel_size: 3
    stride: 1
    pad: 1
  }
}
layer {
  name: "inception_3b/pool_proj"
  type: "Convolution"
  bottom: "inception_3b/pool"
  top: "inception_3b/pool_proj"
  param {
    lr_mult: 1
    decay_mult: 1
  }
  param {
    lr_mult: 2
    decay_mult: 0
  }
  convolution_param {
    num_output: 64
    kernel_size: 1
    weight_filler {
      type: "xavier"
      std: 0.1
    }
    bias_filler {
      type: "constant"
      value: 0.2
    }
  }
}
layer {
  name: "inception_3b/relu_pool_proj"
  type: "ReLU"
  bottom: "inception_3b/pool_proj"
  top: "inception_3b/pool_proj"
}
layer {
  name: "inception_3b/output"
  type: "Concat"
  bottom: "inception_3b/1x1"
  bottom: "inception_3b/3x3"
  bottom: "inception_3b/5x5"
  bottom: "inception_3b/pool_proj"
  top: "inception_3b/output"
}
layer {
  name: "pool3/3x3_s2"
  type: "Pooling"
  bottom: "inception_3b/output"
  top: "pool3/3x3_s2"
  pooling_param {
    pool: MAX
    kernel_size: 3
    stride: 2
  }
}
layer {
  name: "inception_4a/1x1"
  type: "Convolution"
  bottom: "pool3/3x3_s2"
  top: "inception_4a/1x1"
  param {
    lr_mult: 1
    decay_mult: 1
  }
  param {
    lr_mult: 2
    decay_mult: 0
  }
  convolution_param {
    num_output: 192
    kernel_size: 1
    weight_filler {
      type: "xavier"
      std: 0.03
    }
    bias_filler {
      type: "constant"
      value: 0.2
    }
  }
}
layer {
  name: "inception_4a/relu_1x1"
  type: "ReLU"
  bottom: "inception_4a/1x1"
  top: "inception_4a/1x1"
}
layer {
  name: "inception_4a/3x3_reduce"
  type: "Convolution"
  bottom: "pool3/3x3_s2"
  top: "inception_4a/3x3_reduce"
  param {
    lr_mult: 1
    decay_mult: 1
  }
  param {
    lr_mult: 2
    decay_mult: 0
  }
  convolution_param {
    num_output: 96
    kernel_size: 1
    weight_filler {
      type: "xavier"
      std: 0.09
    }
    bias_filler {
      type: "constant"
      value: 0.2
    }
  }
}
layer {
  name: "inception_4a/relu_3x3_reduce"
  type: "ReLU"
  bottom: "inception_4a/3x3_reduce"
  top: "inception_4a/3x3_reduce"
}
layer {
  name: "inception_4a/3x3"
  type: "Convolution"
  bottom: "inception_4a/3x3_reduce"
  top: "inception_4a/3x3"
  param {
    lr_mult: 1
    decay_mult: 1
  }
  param {
    lr_mult: 2
    decay_mult: 0
  }
  convolution_param {
    num_output: 208
    pad: 1
    kernel_size: 3
    weight_filler {
      type: "xavier"
      std: 0.03
    }
    bias_filler {
      type: "constant"
      value: 0.2
    }
  }
}
layer {
  name: "inception_4a/relu_3x3"
  type: "ReLU"
  bottom: "inception_4a/3x3"
  top: "inception_4a/3x3"
}
layer {
  name: "inception_4a/5x5_reduce"
  type: "Convolution"
  bottom: "pool3/3x3_s2"
  top: "inception_4a/5x5_reduce"
  param {
    lr_mult: 1
    decay_mult: 1
  }
  param {
    lr_mult: 2
    decay_mult: 0
  }
  convolution_param {
    num_output: 16
    kernel_size: 1
    weight_filler {
      type: "xavier"
      std: 0.2
    }
    bias_filler {
      type: "constant"
      value: 0.2
    }
  }
}
layer {
  name: "inception_4a/relu_5x5_reduce"
  type: "ReLU"
  bottom: "inception_4a/5x5_reduce"
  top: "inception_4a/5x5_reduce"
}
layer {
  name: "inception_4a/5x5"
  type: "Convolution"
  bottom: "inception_4a/5x5_reduce"
  top: "inception_4a/5x5"
  param {
    lr_mult: 1
    decay_mult: 1
  }
  param {
    lr_mult: 2
    decay_mult: 0
  }
  convolution_param {
    num_output: 48
    pad: 2
    kernel_size: 5
    weight_filler {
      type: "xavier"
      std: 0.03
    }
    bias_filler {
      type: "constant"
      value: 0.2
    }
  }
}
layer {
  name: "inception_4a/relu_5x5"
  type: "ReLU"
  bottom: "inception_4a/5x5"
  top: "inception_4a/5x5"
}
layer {
  name: "inception_4a/pool"
  type: "Pooling"
  bottom: "pool3/3x3_s2"
  top: "inception_4a/pool"
  pooling_param {
    pool: MAX
    kernel_size: 3
    stride: 1
    pad: 1
  }
}
layer {
  name: "inception_4a/pool_proj"
  type: "Convolution"
  bottom: "inception_4a/pool"
  top: "inception_4a/pool_proj"
  param {
    lr_mult: 1
    decay_mult: 1
  }
  param {
    lr_mult: 2
    decay_mult: 0
  }
  convolution_param {
    num_output: 64
    kernel_size: 1
    weight_filler {
      type: "xavier"
      std: 0.1
    }
    bias_filler {
      type: "constant"
      value: 0.2
    }
  }
}
layer {
  name: "inception_4a/relu_pool_proj"
  type: "ReLU"
  bottom: "inception_4a/pool_proj"
  top: "inception_4a/pool_proj"
}
layer {
  name: "inception_4a/output"
  type: "Concat"
  bottom: "inception_4a/1x1"
  bottom: "inception_4a/3x3"
  bottom: "inception_4a/5x5"
  bottom: "inception_4a/pool_proj"
  top: "inception_4a/output"
}
layer {
  name: "loss1/ave_pool"
  type: "Pooling"
  bottom: "inception_4a/output"
  top: "loss1/ave_pool"
  pooling_param {
    pool: AVE
    kernel_size: 5
    stride: 3
  }
}
layer {
  name: "loss1/conv"
  type: "Convolution"
  bottom: "loss1/ave_pool"
  top: "loss1/conv"
  param {
    lr_mult: 1
    decay_mult: 1
  }
  param {
    lr_mult: 2
    decay_mult: 0
  }
  convolution_param {
    num_output: 128
    kernel_size: 1
    weight_filler {
      type: "xavier"
      std: 0.08
    }
    bias_filler {
      type: "constant"
      value: 0.2
    }
  }
}
layer {
  name: "loss1/relu_conv"
  type: "ReLU"
  bottom: "loss1/conv"
  top: "loss1/conv"
}
layer {
  name: "loss1/fc"
  type: "InnerProduct"
  bottom: "loss1/conv"
  top: "loss1/fc"
  param {
    lr_mult: 1
    decay_mult: 1
  }
  param {
    lr_mult: 2
    decay_mult: 0
  }
  inner_product_param {
    num_output: 1024
    weight_filler {
      type: "xavier"
      std: 0.02
    }
    bias_filler {
      type: "constant"
      value: 0.2
    }
  }
}
layer {
  name: "loss1/relu_fc"
  type: "ReLU"
  bottom: "loss1/fc"
  top: "loss1/fc"
}
layer {
  name: "loss1/drop_fc"
  type: "Dropout"
  bottom: "loss1/fc"
  top: "loss1/fc"
  dropout_param {
    dropout_ratio: 0.7
  }
}
layer {
  name: "loss1/classifier_plantvillage"
  type: "InnerProduct"
  bottom: "loss1/fc"
  top: "loss1/classifier_plantvillage"
  param {
    lr_mult: 1
    decay_mult: 1
  }
  param {
    lr_mult: 2
    decay_mult: 0
  }
  inner_product_param {
    num_output: 38
    weight_filler {
      type: "xavier"
      std: 0.0009765625
    }
    bias_filler {
      type: "constant"
      value: 0
    }
  }
}
layer {
  name: "inception_4b/1x1"
  type: "Convolution"
  bottom: "inception_4a/output"
  top: "inception_4b/1x1"
  param {
    lr_mult: 1
    decay_mult: 1
  }
  param {
    lr_mult: 2
    decay_mult: 0
  }
  convolution_param {
    num_output: 160
    kernel_size: 1
    weight_filler {
      type: "xavier"
      std: 0.03
    }
    bias_filler {
      type: "constant"
      value: 0.2
    }
  }
}
layer {
  name: "inception_4b/relu_1x1"
  type: "ReLU"
  bottom: "inception_4b/1x1"
  top: "inception_4b/1x1"
}
layer {
  name: "inception_4b/3x3_reduce"
  type: "Convolution"
  bottom: "inception_4a/output"
  top: "inception_4b/3x3_reduce"
  param {
    lr_mult: 1
    decay_mult: 1
  }
  param {
    lr_mult: 2
    decay_mult: 0
  }
  convolution_param {
    num_output: 112
    kernel_size: 1
    weight_filler {
      type: "xavier"
      std: 0.09
    }
    bias_filler {
      type: "constant"
      value: 0.2
    }
  }
}
layer {
  name: "inception_4b/relu_3x3_reduce"
  type: "ReLU"
  bottom: "inception_4b/3x3_reduce"
  top: "inception_4b/3x3_reduce"
}
layer {
  name: "inception_4b/3x3"
  type: "Convolution"
  bottom: "inception_4b/3x3_reduce"
  top: "inception_4b/3x3"
  param {
    lr_mult: 1
    decay_mult: 1
  }
  param {
    lr_mult: 2
    decay_mult: 0
  }
  convolution_param {
    num_output: 224
    pad: 1
    kernel_size: 3
    weight_filler {
      type: "xavier"
      std: 0.03
    }
    bias_filler {
      type: "constant"
      value: 0.2
    }
  }
}
layer {
  name: "inception_4b/relu_3x3"
  type: "ReLU"
  bottom: "inception_4b/3x3"
  top: "inception_4b/3x3"
}
layer {
  name: "inception_4b/5x5_reduce"
  type: "Convolution"
  bottom: "inception_4a/output"
  top: "inception_4b/5x5_reduce"
  param {
    lr_mult: 1
    decay_mult: 1
  }
  param {
    lr_mult: 2
    decay_mult: 0
  }
  convolution_param {
    num_output: 24
    kernel_size: 1
    weight_filler {
      type: "xavier"
      std: 0.2
    }
    bias_filler {
      type: "constant"
      value: 0.2
    }
  }
}
layer {
  name: "inception_4b/relu_5x5_reduce"
  type: "ReLU"
  bottom: "inception_4b/5x5_reduce"
  top: "inception_4b/5x5_reduce"
}
layer {
  name: "inception_4b/5x5"
  type: "Convolution"
  bottom: "inception_4b/5x5_reduce"
  top: "inception_4b/5x5"
  param {
    lr_mult: 1
    decay_mult: 1
  }
  param {
    lr_mult: 2
    decay_mult: 0
  }
  convolution_param {
    num_output: 64
    pad: 2
    kernel_size: 5
    weight_filler {
      type: "xavier"
      std: 0.03
    }
    bias_filler {
      type: "constant"
      value: 0.2
    }
  }
}
layer {
  name: "inception_4b/relu_5x5"
  type: "ReLU"
  bottom: "inception_4b/5x5"
  top: "inception_4b/5x5"
}
layer {
  name: "inception_4b/pool"
  type: "Pooling"
  bottom: "inception_4a/output"
  top: "inception_4b/pool"
  pooling_param {
    pool: MAX
    kernel_size: 3
    stride: 1
    pad: 1
  }
}
layer {
  name: "inception_4b/pool_proj"
  type: "Convolution"
  bottom: "inception_4b/pool"
  top: "inception_4b/pool_proj"
  param {
    lr_mult: 1
    decay_mult: 1
  }
  param {
    lr_mult: 2
    decay_mult: 0
  }
  convolution_param {
    num_output: 64
    kernel_size: 1
    weight_filler {
      type: "xavier"
      std: 0.1
    }
    bias_filler {
      type: "constant"
      value: 0.2
    }
  }
}
layer {
  name: "inception_4b/relu_pool_proj"
  type: "ReLU"
  bottom: "inception_4b/pool_proj"
  top: "inception_4b/pool_proj"
}
layer {
  name: "inception_4b/output"
  type: "Concat"
  bottom: "inception_4b/1x1"
  bottom: "inception_4b/3x3"
  bottom: "inception_4b/5x5"
  bottom: "inception_4b/pool_proj"
  top: "inception_4b/output"
}
layer {
  name: "inception_4c/1x1"
  type: "Convolution"
  bottom: "inception_4b/output"
  top: "inception_4c/1x1"
  param {
    lr_mult: 1
    decay_mult: 1
  }
  param {
    lr_mult: 2
    decay_mult: 0
  }
  convolution_param {
    num_output: 128
    kernel_size: 1
    weight_filler {
      type: "xavier"
      std: 0.03
    }
    bias_filler {
      type: "constant"
      value: 0.2
    }
  }
}
layer {
  name: "inception_4c/relu_1x1"
  type: "ReLU"
  bottom: "inception_4c/1x1"
  top: "inception_4c/1x1"
}
layer {
  name: "inception_4c/3x3_reduce"
  type: "Convolution"
  bottom: "inception_4b/output"
  top: "inception_4c/3x3_reduce"
  param {
    lr_mult: 1
    decay_mult: 1
  }
  param {
    lr_mult: 2
    decay_mult: 0
  }
  convolution_param {
    num_output: 128
    kernel_size: 1
    weight_filler {
      type: "xavier"
      std: 0.09
    }
    bias_filler {
      type: "constant"
      value: 0.2
    }
  }
}
layer {
  name: "inception_4c/relu_3x3_reduce"
  type: "ReLU"
  bottom: "inception_4c/3x3_reduce"
  top: "inception_4c/3x3_reduce"
}
layer {
  name: "inception_4c/3x3"
  type: "Convolution"
  bottom: "inception_4c/3x3_reduce"
  top: "inception_4c/3x3"
  param {
    lr_mult: 1
    decay_mult: 1
  }
  param {
    lr_mult: 2
    decay_mult: 0
  }
  convolution_param {
    num_output: 256
    pad: 1
    kernel_size: 3
    weight_filler {
      type: "xavier"
      std: 0.03
    }
    bias_filler {
      type: "constant"
      value: 0.2
    }
  }
}
layer {
  name: "inception_4c/relu_3x3"
  type: "ReLU"
  bottom: "inception_4c/3x3"
  top: "inception_4c/3x3"
}
layer {
  name: "inception_4c/5x5_reduce"
  type: "Convolution"
  bottom: "inception_4b/output"
  top: "inception_4c/5x5_reduce"
  param {
    lr_mult: 1
    decay_mult: 1
  }
  param {
    lr_mult: 2
    decay_mult: 0
  }
  convolution_param {
    num_output: 24
    kernel_size: 1
    weight_filler {
      type: "xavier"
      std: 0.2
    }
    bias_filler {
      type: "constant"
      value: 0.2
    }
  }
}
layer {
  name: "inception_4c/relu_5x5_reduce"
  type: "ReLU"
  bottom: "inception_4c/5x5_reduce"
  top: "inception_4c/5x5_reduce"
}
layer {
  name: "inception_4c/5x5"
  type: "Convolution"
  bottom: "inception_4c/5x5_reduce"
  top: "inception_4c/5x5"
  param {
    lr_mult: 1
    decay_mult: 1
  }
  param {
    lr_mult: 2
    decay_mult: 0
  }
  convolution_param {
    num_output: 64
    pad: 2
    kernel_size: 5
    weight_filler {
      type: "xavier"
      std: 0.03
    }
    bias_filler {
      type: "constant"
      value: 0.2
    }
  }
}
layer {
  name: "inception_4c/relu_5x5"
  type: "ReLU"
  bottom: "inception_4c/5x5"
  top: "inception_4c/5x5"
}
layer {
  name: "inception_4c/pool"
  type: "Pooling"
  bottom: "inception_4b/output"
  top: "inception_4c/pool"
  pooling_param {
    pool: MAX
    kernel_size: 3
    stride: 1
    pad: 1
  }
}
layer {
  name: "inception_4c/pool_proj"
  type: "Convolution"
  bottom: "inception_4c/pool"
  top: "inception_4c/pool_proj"
  param {
    lr_mult: 1
    decay_mult: 1
  }
  param {
    lr_mult: 2
    decay_mult: 0
  }
  convolution_param {
    num_output: 64
    kernel_size: 1
    weight_filler {
      type: "xavier"
      std: 0.1
    }
    bias_filler {
      type: "constant"
      value: 0.2
    }
  }
}
layer {
  name: "inception_4c/relu_pool_proj"
  type: "ReLU"
  bottom: "inception_4c/pool_proj"
  top: "inception_4c/pool_proj"
}
layer {
  name: "inception_4c/output"
  type: "Concat"
  bottom: "inception_4c/1x1"
  bottom: "inception_4c/3x3"
  bottom: "inception_4c/5x5"
  bottom: "inception_4c/pool_proj"
  top: "inception_4c/output"
}
layer {
  name: "inception_4d/1x1"
  type: "Convolution"
  bottom: "inception_4c/output"
  top: "inception_4d/1x1"
  param {
    lr_mult: 1
    decay_mult: 1
  }
  param {
    lr_mult: 2
    decay_mult: 0
  }
  convolution_param {
    num_output: 112
    kernel_size: 1
    weight_filler {
      type: "xavier"
      std: 0.03
    }
    bias_filler {
      type: "constant"
      value: 0.2
    }
  }
}
layer {
  name: "inception_4d/relu_1x1"
  type: "ReLU"
  bottom: "inception_4d/1x1"
  top: "inception_4d/1x1"
}
layer {
  name: "inception_4d/3x3_reduce"
  type: "Convolution"
  bottom: "inception_4c/output"
  top: "inception_4d/3x3_reduce"
  param {
    lr_mult: 1
    decay_mult: 1
  }
  param {
    lr_mult: 2
    decay_mult: 0
  }
  convolution_param {
    num_output: 144
    kernel_size: 1
    weight_filler {
      type: "xavier"
      std: 0.09
    }
    bias_filler {
      type: "constant"
      value: 0.2
    }
  }
}
layer {
  name: "inception_4d/relu_3x3_reduce"
  type: "ReLU"
  bottom: "inception_4d/3x3_reduce"
  top: "inception_4d/3x3_reduce"
}
layer {
  name: "inception_4d/3x3"
  type: "Convolution"
  bottom: "inception_4d/3x3_reduce"
  top: "inception_4d/3x3"
  param {
    lr_mult: 1
    decay_mult: 1
  }
  param {
    lr_mult: 2
    decay_mult: 0
  }
  convolution_param {
    num_output: 288
    pad: 1
    kernel_size: 3
    weight_filler {
      type: "xavier"
      std: 0.03
    }
    bias_filler {
      type: "constant"
      value: 0.2
    }
  }
}
layer {
  name: "inception_4d/relu_3x3"
  type: "ReLU"
  bottom: "inception_4d/3x3"
  top: "inception_4d/3x3"
}
layer {
  name: "inception_4d/5x5_reduce"
  type: "Convolution"
  bottom: "inception_4c/output"
  top: "inception_4d/5x5_reduce"
  param {
    lr_mult: 1
    decay_mult: 1
  }
  param {
    lr_mult: 2
    decay_mult: 0
  }
  convolution_param {
    num_output: 32
    kernel_size: 1
    weight_filler {
      type: "xavier"
      std: 0.2
    }
    bias_filler {
      type: "constant"
      value: 0.2
    }
  }
}
layer {
  name: "inception_4d/relu_5x5_reduce"
  type: "ReLU"
  bottom: "inception_4d/5x5_reduce"
  top: "inception_4d/5x5_reduce"
}
layer {
  name: "inception_4d/5x5"
  type: "Convolution"
  bottom: "inception_4d/5x5_reduce"
  top: "inception_4d/5x5"
  param {
    lr_mult: 1
    decay_mult: 1
  }
  param {
    lr_mult: 2
    decay_mult: 0
  }
  convolution_param {
    num_output: 64
    pad: 2
    kernel_size: 5
    weight_filler {
      type: "xavier"
      std: 0.03
    }
    bias_filler {
      type: "constant"
      value: 0.2
    }
  }
}
layer {
  name: "inception_4d/relu_5x5"
  type: "ReLU"
  bottom: "inception_4d/5x5"
  top: "inception_4d/5x5"
}
layer {
  name: "inception_4d/pool"
  type: "Pooling"
  bottom: "inception_4c/output"
  top: "inception_4d/pool"
  pooling_param {
    pool: MAX
    kernel_size: 3
    stride: 1
    pad: 1
  }
}
layer {
  name: "inception_4d/pool_proj"
  type: "Convolution"
  bottom: "inception_4d/pool"
  top: "inception_4d/pool_proj"
  param {
    lr_mult: 1
    decay_mult: 1
  }
  param {
    lr_mult: 2
    decay_mult: 0
  }
  convolution_param {
    num_output: 64
    kernel_size: 1
    weight_filler {
      type: "xavier"
      std: 0.1
    }
    bias_filler {
      type: "constant"
      value: 0.2
    }
  }
}
layer {
  name: "inception_4d/relu_pool_proj"
  type: "ReLU"
  bottom: "inception_4d/pool_proj"
  top: "inception_4d/pool_proj"
}
layer {
  name: "inception_4d/output"
  type: "Concat"
  bottom: "inception_4d/1x1"
  bottom: "inception_4d/3x3"
  bottom: "inception_4d/5x5"
  bottom: "inception_4d/pool_proj"
  top: "inception_4d/output"
}
layer {
  name: "loss2/ave_pool"
  type: "Pooling"
  bottom: "inception_4d/output"
  top: "loss2/ave_pool"
  pooling_param {
    pool: AVE
    kernel_size: 5
    stride: 3
  }
}
layer {
  name: "loss2/conv"
  type: "Convolution"
  bottom: "loss2/ave_pool"
  top: "loss2/conv"
  param {
    lr_mult: 1
    decay_mult: 1
  }
  param {
    lr_mult: 2
    decay_mult: 0
  }
  convolution_param {
    num_output: 128
    kernel_size: 1
    weight_filler {
      type: "xavier"
      std: 0.08
    }
    bias_filler {
      type: "constant"
      value: 0.2
    }
  }
}
layer {
  name: "loss2/relu_conv"
  type: "ReLU"
  bottom: "loss2/conv"
  top: "loss2/conv"
}
layer {
  name: "loss2/fc"
  type: "InnerProduct"
  bottom: "loss2/conv"
  top: "loss2/fc"
  param {
    lr_mult: 1
    decay_mult: 1
  }
  param {
    lr_mult: 2
    decay_mult: 0
  }
  inner_product_param {
    num_output: 1024
    weight_filler {
      type: "xavier"
      std: 0.02
    }
    bias_filler {
      type: "constant"
      value: 0.2
    }
  }
}
layer {
  name: "loss2/relu_fc"
  type: "ReLU"
  bottom: "loss2/fc"
  top: "loss2/fc"
}
layer {
  name: "loss2/drop_fc"
  type: "Dropout"
  bottom: "loss2/fc"
  top: "loss2/fc"
  dropout_param {
    dropout_ratio: 0.7
  }
}
layer {
  name: "loss2/classifier_plantvillage"
  type: "InnerProduct"
  bottom: "loss2/fc"
  top: "loss2/classifier_plantvillage"
  param {
    lr_mult: 1
    decay_mult: 1
  }
  param {
    lr_mult: 2
    decay_mult: 0
  }
  inner_product_param {
    num_output: 38
    weight_filler {
      type: "xavier"
      std: 0.0009765625
    }
    bias_filler {
      type: "constant"
      value: 0
    }
  }
}
layer {
  name: "inception_4e/1x1"
  type: "Convolution"
  bottom: "inception_4d/output"
  top: "inception_4e/1x1"
  param {
    lr_mult: 1
    decay_mult: 1
  }
  param {
    lr_mult: 2
    decay_mult: 0
  }
  convolution_param {
    num_output: 256
    kernel_size: 1
    weight_filler {
      type: "xavier"
      std: 0.03
    }
    bias_filler {
      type: "constant"
      value: 0.2
    }
  }
}
layer {
  name: "inception_4e/relu_1x1"
  type: "ReLU"
  bottom: "inception_4e/1x1"
  top: "inception_4e/1x1"
}
layer {
  name: "inception_4e/3x3_reduce"
  type: "Convolution"
  bottom: "inception_4d/output"
  top: "inception_4e/3x3_reduce"
  param {
    lr_mult: 1
    decay_mult: 1
  }
  param {
    lr_mult: 2
    decay_mult: 0
  }
  convolution_param {
    num_output: 160
    kernel_size: 1
    weight_filler {
      type: "xavier"
      std: 0.09
    }
    bias_filler {
      type: "constant"
      value: 0.2
    }
  }
}
layer {
  name: "inception_4e/relu_3x3_reduce"
  type: "ReLU"
  bottom: "inception_4e/3x3_reduce"
  top: "inception_4e/3x3_reduce"
}
layer {
  name: "inception_4e/3x3"
  type: "Convolution"
  bottom: "inception_4e/3x3_reduce"
  top: "inception_4e/3x3"
  param {
    lr_mult: 1
    decay_mult: 1
  }
  param {
    lr_mult: 2
    decay_mult: 0
  }
  convolution_param {
    num_output: 320
    pad: 1
    kernel_size: 3
    weight_filler {
      type: "xavier"
      std: 0.03
    }
    bias_filler {
      type: "constant"
      value: 0.2
    }
  }
}
layer {
  name: "inception_4e/relu_3x3"
  type: "ReLU"
  bottom: "inception_4e/3x3"
  top: "inception_4e/3x3"
}
layer {
  name: "inception_4e/5x5_reduce"
  type: "Convolution"
  bottom: "inception_4d/output"
  top: "inception_4e/5x5_reduce"
  param {
    lr_mult: 1
    decay_mult: 1
  }
  param {
    lr_mult: 2
    decay_mult: 0
  }
  convolution_param {
    num_output: 32
    kernel_size: 1
    weight_filler {
      type: "xavier"
      std: 0.2
    }
    bias_filler {
      type: "constant"
      value: 0.2
    }
  }
}
layer {
  name: "inception_4e/relu_5x5_reduce"
  type: "ReLU"
  bottom: "inception_4e/5x5_reduce"
  top: "inception_4e/5x5_reduce"
}
layer {
  name: "inception_4e/5x5"
  type: "Convolution"
  bottom: "inception_4e/5x5_reduce"
  top: "inception_4e/
I0403 21:40:08.228477 23820 layer_factory.hpp:77] Creating layer data
I0403 21:40:08.229064 23820 net.cpp:91] Creating Layer data
I0403 21:40:08.229096 23820 net.cpp:399] data -> data
I0403 21:40:08.229149 23820 net.cpp:399] data -> label
I0403 21:40:08.229190 23820 data_transformer.cpp:25] Loading mean file from: /home/mohanty/data/final_dataset/lmdb/segmented-80-20/mean.binaryproto
I0403 21:40:08.230406 23822 db_lmdb.cpp:38] Opened lmdb /home/mohanty/data/final_dataset/lmdb/segmented-80-20/test_db
I0403 21:40:08.242269 23820 data_layer.cpp:41] output data size: 24,3,224,224
I0403 21:40:08.269753 23820 net.cpp:141] Setting up data
I0403 21:40:08.269837 23820 net.cpp:148] Top shape: 24 3 224 224 (3612672)
I0403 21:40:08.269861 23820 net.cpp:148] Top shape: 24 (24)
I0403 21:40:08.269878 23820 net.cpp:156] Memory required for data: 14450784
I0403 21:40:08.269906 23820 layer_factory.hpp:77] Creating layer label_data_1_split
I0403 21:40:08.269937 23820 net.cpp:91] Creating Layer label_data_1_split
I0403 21:40:08.269958 23820 net.cpp:425] label_data_1_split <- label
I0403 21:40:08.269994 23820 net.cpp:399] label_data_1_split -> label_data_1_split_0
I0403 21:40:08.270022 23820 net.cpp:399] label_data_1_split -> label_data_1_split_1
I0403 21:40:08.270045 23820 net.cpp:399] label_data_1_split -> label_data_1_split_2
I0403 21:40:08.270067 23820 net.cpp:399] label_data_1_split -> label_data_1_split_3
I0403 21:40:08.270088 23820 net.cpp:399] label_data_1_split -> label_data_1_split_4
I0403 21:40:08.270110 23820 net.cpp:399] label_data_1_split -> label_data_1_split_5
I0403 21:40:08.270131 23820 net.cpp:399] label_data_1_split -> label_data_1_split_6
I0403 21:40:08.270153 23820 net.cpp:399] label_data_1_split -> label_data_1_split_7
I0403 21:40:08.270174 23820 net.cpp:399] label_data_1_split -> label_data_1_split_8
I0403 21:40:08.270195 23820 net.cpp:399] label_data_1_split -> label_data_1_split_9
I0403 21:40:08.270318 23820 net.cpp:141] Setting up label_data_1_split
I0403 21:40:08.270344 23820 net.cpp:148] Top shape: 24 (24)
I0403 21:40:08.270362 23820 net.cpp:148] Top shape: 24 (24)
I0403 21:40:08.270380 23820 net.cpp:148] Top shape: 24 (24)
I0403 21:40:08.270395 23820 net.cpp:148] Top shape: 24 (24)
I0403 21:40:08.270412 23820 net.cpp:148] Top shape: 24 (24)
I0403 21:40:08.270428 23820 net.cpp:148] Top shape: 24 (24)
I0403 21:40:08.270444 23820 net.cpp:148] Top shape: 24 (24)
I0403 21:40:08.270462 23820 net.cpp:148] Top shape: 24 (24)
I0403 21:40:08.270478 23820 net.cpp:148] Top shape: 24 (24)
I0403 21:40:08.270494 23820 net.cpp:148] Top shape: 24 (24)
I0403 21:40:08.270548 23820 net.cpp:156] Memory required for data: 14451744
I0403 21:40:08.270565 23820 layer_factory.hpp:77] Creating layer conv1/7x7_s2
I0403 21:40:08.270597 23820 net.cpp:91] Creating Layer conv1/7x7_s2
I0403 21:40:08.270617 23820 net.cpp:425] conv1/7x7_s2 <- data
I0403 21:40:08.270638 23820 net.cpp:399] conv1/7x7_s2 -> conv1/7x7_s2
I0403 21:40:08.415886 23820 net.cpp:141] Setting up conv1/7x7_s2
I0403 21:40:08.415969 23820 net.cpp:148] Top shape: 24 64 112 112 (19267584)
I0403 21:40:08.415988 23820 net.cpp:156] Memory required for data: 91522080
I0403 21:40:08.416020 23820 layer_factory.hpp:77] Creating layer conv1/relu_7x7
I0403 21:40:08.416049 23820 net.cpp:91] Creating Layer conv1/relu_7x7
I0403 21:40:08.416069 23820 net.cpp:425] conv1/relu_7x7 <- conv1/7x7_s2
I0403 21:40:08.416088 23820 net.cpp:386] conv1/relu_7x7 -> conv1/7x7_s2 (in-place)
I0403 21:40:08.416344 23820 net.cpp:141] Setting up conv1/relu_7x7
I0403 21:40:08.416373 23820 net.cpp:148] Top shape: 24 64 112 112 (19267584)
I0403 21:40:08.416389 23820 net.cpp:156] Memory required for data: 168592416
I0403 21:40:08.416404 23820 layer_factory.hpp:77] Creating layer pool1/3x3_s2
I0403 21:40:08.416429 23820 net.cpp:91] Creating Layer pool1/3x3_s2
I0403 21:40:08.416448 23820 net.cpp:425] pool1/3x3_s2 <- conv1/7x7_s2
I0403 21:40:08.416467 23820 net.cpp:399] pool1/3x3_s2 -> pool1/3x3_s2
I0403 21:40:08.416543 23820 net.cpp:141] Setting up pool1/3x3_s2
I0403 21:40:08.416568 23820 net.cpp:148] Top shape: 24 64 56 56 (4816896)
I0403 21:40:08.416584 23820 net.cpp:156] Memory required for data: 187860000
I0403 21:40:08.416599 23820 layer_factory.hpp:77] Creating layer pool1/norm1
I0403 21:40:08.416625 23820 net.cpp:91] Creating Layer pool1/norm1
I0403 21:40:08.416642 23820 net.cpp:425] pool1/norm1 <- pool1/3x3_s2
I0403 21:40:08.416661 23820 net.cpp:399] pool1/norm1 -> pool1/norm1
I0403 21:40:08.416937 23820 net.cpp:141] Setting up pool1/norm1
I0403 21:40:08.416967 23820 net.cpp:148] Top shape: 24 64 56 56 (4816896)
I0403 21:40:08.416983 23820 net.cpp:156] Memory required for data: 207127584
I0403 21:40:08.416999 23820 layer_factory.hpp:77] Creating layer conv2/3x3_reduce
I0403 21:40:08.417024 23820 net.cpp:91] Creating Layer conv2/3x3_reduce
I0403 21:40:08.417042 23820 net.cpp:425] conv2/3x3_reduce <- pool1/norm1
I0403 21:40:08.417062 23820 net.cpp:399] conv2/3x3_reduce -> conv2/3x3_reduce
I0403 21:40:08.418411 23820 net.cpp:141] Setting up conv2/3x3_reduce
I0403 21:40:08.418440 23820 net.cpp:148] Top shape: 24 64 56 56 (4816896)
I0403 21:40:08.418457 23820 net.cpp:156] Memory required for data: 226395168
I0403 21:40:08.418479 23820 layer_factory.hpp:77] Creating layer conv2/relu_3x3_reduce
I0403 21:40:08.418499 23820 net.cpp:91] Creating Layer conv2/relu_3x3_reduce
I0403 21:40:08.418515 23820 net.cpp:425] conv2/relu_3x3_reduce <- conv2/3x3_reduce
I0403 21:40:08.418534 23820 net.cpp:386] conv2/relu_3x3_reduce -> conv2/3x3_reduce (in-place)
I0403 21:40:08.418777 23820 net.cpp:141] Setting up conv2/relu_3x3_reduce
I0403 21:40:08.418804 23820 net.cpp:148] Top shape: 24 64 56 56 (4816896)
I0403 21:40:08.418820 23820 net.cpp:156] Memory required for data: 245662752
I0403 21:40:08.418836 23820 layer_factory.hpp:77] Creating layer conv2/3x3
I0403 21:40:08.418859 23820 net.cpp:91] Creating Layer conv2/3x3
I0403 21:40:08.418877 23820 net.cpp:425] conv2/3x3 <- conv2/3x3_reduce
I0403 21:40:08.418896 23820 net.cpp:399] conv2/3x3 -> conv2/3x3
I0403 21:40:08.421123 23820 net.cpp:141] Setting up conv2/3x3
I0403 21:40:08.421154 23820 net.cpp:148] Top shape: 24 192 56 56 (14450688)
I0403 21:40:08.421171 23820 net.cpp:156] Memory required for data: 303465504
I0403 21:40:08.421193 23820 layer_factory.hpp:77] Creating layer conv2/relu_3x3
I0403 21:40:08.421212 23820 net.cpp:91] Creating Layer conv2/relu_3x3
I0403 21:40:08.421233 23820 net.cpp:425] conv2/relu_3x3 <- conv2/3x3
I0403 21:40:08.421253 23820 net.cpp:386] conv2/relu_3x3 -> conv2/3x3 (in-place)
I0403 21:40:08.421411 23820 net.cpp:141] Setting up conv2/relu_3x3
I0403 21:40:08.421437 23820 net.cpp:148] Top shape: 24 192 56 56 (14450688)
I0403 21:40:08.421486 23820 net.cpp:156] Memory required for data: 361268256
I0403 21:40:08.421504 23820 layer_factory.hpp:77] Creating layer conv2/norm2
I0403 21:40:08.421522 23820 net.cpp:91] Creating Layer conv2/norm2
I0403 21:40:08.421538 23820 net.cpp:425] conv2/norm2 <- conv2/3x3
I0403 21:40:08.421557 23820 net.cpp:399] conv2/norm2 -> conv2/norm2
I0403 21:40:08.421838 23820 net.cpp:141] Setting up conv2/norm2
I0403 21:40:08.421865 23820 net.cpp:148] Top shape: 24 192 56 56 (14450688)
I0403 21:40:08.421881 23820 net.cpp:156] Memory required for data: 419071008
I0403 21:40:08.421898 23820 layer_factory.hpp:77] Creating layer pool2/3x3_s2
I0403 21:40:08.421917 23820 net.cpp:91] Creating Layer pool2/3x3_s2
I0403 21:40:08.421934 23820 net.cpp:425] pool2/3x3_s2 <- conv2/norm2
I0403 21:40:08.421955 23820 net.cpp:399] pool2/3x3_s2 -> pool2/3x3_s2
I0403 21:40:08.422005 23820 net.cpp:141] Setting up pool2/3x3_s2
I0403 21:40:08.422029 23820 net.cpp:148] Top shape: 24 192 28 28 (3612672)
I0403 21:40:08.422045 23820 net.cpp:156] Memory required for data: 433521696
I0403 21:40:08.422061 23820 layer_factory.hpp:77] Creating layer pool2/3x3_s2_pool2/3x3_s2_0_split
I0403 21:40:08.422080 23820 net.cpp:91] Creating Layer pool2/3x3_s2_pool2/3x3_s2_0_split
I0403 21:40:08.422096 23820 net.cpp:425] pool2/3x3_s2_pool2/3x3_s2_0_split <- pool2/3x3_s2
I0403 21:40:08.422116 23820 net.cpp:399] pool2/3x3_s2_pool2/3x3_s2_0_split -> pool2/3x3_s2_pool2/3x3_s2_0_split_0
I0403 21:40:08.422135 23820 net.cpp:399] pool2/3x3_s2_pool2/3x3_s2_0_split -> pool2/3x3_s2_pool2/3x3_s2_0_split_1
I0403 21:40:08.422155 23820 net.cpp:399] pool2/3x3_s2_pool2/3x3_s2_0_split -> pool2/3x3_s2_pool2/3x3_s2_0_split_2
I0403 21:40:08.422176 23820 net.cpp:399] pool2/3x3_s2_pool2/3x3_s2_0_split -> pool2/3x3_s2_pool2/3x3_s2_0_split_3
I0403 21:40:08.422245 23820 net.cpp:141] Setting up pool2/3x3_s2_pool2/3x3_s2_0_split
I0403 21:40:08.422269 23820 net.cpp:148] Top shape: 24 192 28 28 (3612672)
I0403 21:40:08.422287 23820 net.cpp:148] Top shape: 24 192 28 28 (3612672)
I0403 21:40:08.422305 23820 net.cpp:148] Top shape: 24 192 28 28 (3612672)
I0403 21:40:08.422322 23820 net.cpp:148] Top shape: 24 192 28 28 (3612672)
I0403 21:40:08.422336 23820 net.cpp:156] Memory required for data: 491324448
I0403 21:40:08.422351 23820 layer_factory.hpp:77] Creating layer inception_3a/1x1
I0403 21:40:08.422372 23820 net.cpp:91] Creating Layer inception_3a/1x1
I0403 21:40:08.422391 23820 net.cpp:425] inception_3a/1x1 <- pool2/3x3_s2_pool2/3x3_s2_0_split_0
I0403 21:40:08.422410 23820 net.cpp:399] inception_3a/1x1 -> inception_3a/1x1
I0403 21:40:08.423864 23820 net.cpp:141] Setting up inception_3a/1x1
I0403 21:40:08.423894 23820 net.cpp:148] Top shape: 24 64 28 28 (1204224)
I0403 21:40:08.423921 23820 net.cpp:156] Memory required for data: 496141344
I0403 21:40:08.423943 23820 layer_factory.hpp:77] Creating layer inception_3a/relu_1x1
I0403 21:40:08.423961 23820 net.cpp:91] Creating Layer inception_3a/relu_1x1
I0403 21:40:08.423979 23820 net.cpp:425] inception_3a/relu_1x1 <- inception_3a/1x1
I0403 21:40:08.423997 23820 net.cpp:386] inception_3a/relu_1x1 -> inception_3a/1x1 (in-place)
I0403 21:40:08.424154 23820 net.cpp:141] Setting up inception_3a/relu_1x1
I0403 21:40:08.424180 23820 net.cpp:148] Top shape: 24 64 28 28 (1204224)
I0403 21:40:08.424196 23820 net.cpp:156] Memory required for data: 500958240
I0403 21:40:08.424221 23820 layer_factory.hpp:77] Creating layer inception_3a/3x3_reduce
I0403 21:40:08.424247 23820 net.cpp:91] Creating Layer inception_3a/3x3_reduce
I0403 21:40:08.424266 23820 net.cpp:425] inception_3a/3x3_reduce <- pool2/3x3_s2_pool2/3x3_s2_0_split_1
I0403 21:40:08.424286 23820 net.cpp:399] inception_3a/3x3_reduce -> inception_3a/3x3_reduce
I0403 21:40:08.425986 23820 net.cpp:141] Setting up inception_3a/3x3_reduce
I0403 21:40:08.426014 23820 net.cpp:148] Top shape: 24 96 28 28 (1806336)
I0403 21:40:08.426031 23820 net.cpp:156] Memory required for data: 508183584
I0403 21:40:08.426056 23820 layer_factory.hpp:77] Creating layer inception_3a/relu_3x3_reduce
I0403 21:40:08.426092 23820 net.cpp:91] Creating Layer inception_3a/relu_3x3_reduce
I0403 21:40:08.426111 23820 net.cpp:425] inception_3a/relu_3x3_reduce <- inception_3a/3x3_reduce
I0403 21:40:08.426129 23820 net.cpp:386] inception_3a/relu_3x3_reduce -> inception_3a/3x3_reduce (in-place)
I0403 21:40:08.426316 23820 net.cpp:141] Setting up inception_3a/relu_3x3_reduce
I0403 21:40:08.426342 23820 net.cpp:148] Top shape: 24 96 28 28 (1806336)
I0403 21:40:08.426357 23820 net.cpp:156] Memory required for data: 515408928
I0403 21:40:08.426373 23820 layer_factory.hpp:77] Creating layer inception_3a/3x3
I0403 21:40:08.426396 23820 net.cpp:91] Creating Layer inception_3a/3x3
I0403 21:40:08.426416 23820 net.cpp:425] inception_3a/3x3 <- inception_3a/3x3_reduce
I0403 21:40:08.426437 23820 net.cpp:399] inception_3a/3x3 -> inception_3a/3x3
I0403 21:40:08.428055 23820 net.cpp:141] Setting up inception_3a/3x3
I0403 21:40:08.428083 23820 net.cpp:148] Top shape: 24 128 28 28 (2408448)
I0403 21:40:08.428098 23820 net.cpp:156] Memory required for data: 525042720
I0403 21:40:08.428118 23820 layer_factory.hpp:77] Creating layer inception_3a/relu_3x3
I0403 21:40:08.428139 23820 net.cpp:91] Creating Layer inception_3a/relu_3x3
I0403 21:40:08.428158 23820 net.cpp:425] inception_3a/relu_3x3 <- inception_3a/3x3
I0403 21:40:08.428176 23820 net.cpp:386] inception_3a/relu_3x3 -> inception_3a/3x3 (in-place)
I0403 21:40:08.428462 23820 net.cpp:141] Setting up inception_3a/relu_3x3
I0403 21:40:08.428488 23820 net.cpp:148] Top shape: 24 128 28 28 (2408448)
I0403 21:40:08.428504 23820 net.cpp:156] Memory required for data: 534676512
I0403 21:40:08.428521 23820 layer_factory.hpp:77] Creating layer inception_3a/5x5_reduce
I0403 21:40:08.428544 23820 net.cpp:91] Creating Layer inception_3a/5x5_reduce
I0403 21:40:08.428563 23820 net.cpp:425] inception_3a/5x5_reduce <- pool2/3x3_s2_pool2/3x3_s2_0_split_2
I0403 21:40:08.428582 23820 net.cpp:399] inception_3a/5x5_reduce -> inception_3a/5x5_reduce
I0403 21:40:08.429530 23820 net.cpp:141] Setting up inception_3a/5x5_reduce
I0403 21:40:08.429559 23820 net.cpp:148] Top shape: 24 16 28 28 (301056)
I0403 21:40:08.429576 23820 net.cpp:156] Memory required for data: 535880736
I0403 21:40:08.429596 23820 layer_factory.hpp:77] Creating layer inception_3a/relu_5x5_reduce
I0403 21:40:08.429617 23820 net.cpp:91] Creating Layer inception_3a/relu_5x5_reduce
I0403 21:40:08.429636 23820 net.cpp:425] inception_3a/relu_5x5_reduce <- inception_3a/5x5_reduce
I0403 21:40:08.429656 23820 net.cpp:386] inception_3a/relu_5x5_reduce -> inception_3a/5x5_reduce (in-place)
I0403 21:40:08.429945 23820 net.cpp:141] Setting up inception_3a/relu_5x5_reduce
I0403 21:40:08.429978 23820 net.cpp:148] Top shape: 24 16 28 28 (301056)
I0403 21:40:08.429994 23820 net.cpp:156] Memory required for data: 537084960
I0403 21:40:08.430011 23820 layer_factory.hpp:77] Creating layer inception_3a/5x5
I0403 21:40:08.430034 23820 net.cpp:91] Creating Layer inception_3a/5x5
I0403 21:40:08.430053 23820 net.cpp:425] inception_3a/5x5 <- inception_3a/5x5_reduce
I0403 21:40:08.430073 23820 net.cpp:399] inception_3a/5x5 -> inception_3a/5x5
I0403 21:40:08.431073 23820 net.cpp:141] Setting up inception_3a/5x5
I0403 21:40:08.431102 23820 net.cpp:148] Top shape: 24 32 28 28 (602112)
I0403 21:40:08.431118 23820 net.cpp:156] Memory required for data: 539493408
I0403 21:40:08.431138 23820 layer_factory.hpp:77] Creating layer inception_3a/relu_5x5
I0403 21:40:08.431159 23820 net.cpp:91] Creating Layer inception_3a/relu_5x5
I0403 21:40:08.431176 23820 net.cpp:425] inception_3a/relu_5x5 <- inception_3a/5x5
I0403 21:40:08.431195 23820 net.cpp:386] inception_3a/relu_5x5 -> inception_3a/5x5 (in-place)
I0403 21:40:08.431370 23820 net.cpp:141] Setting up inception_3a/relu_5x5
I0403 21:40:08.431397 23820 net.cpp:148] Top shape: 24 32 28 28 (602112)
I0403 21:40:08.431414 23820 net.cpp:156] Memory required for data: 541901856
I0403 21:40:08.431429 23820 layer_factory.hpp:77] Creating layer inception_3a/pool
I0403 21:40:08.431447 23820 net.cpp:91] Creating Layer inception_3a/pool
I0403 21:40:08.431479 23820 net.cpp:425] inception_3a/pool <- pool2/3x3_s2_pool2/3x3_s2_0_split_3
I0403 21:40:08.431499 23820 net.cpp:399] inception_3a/pool -> inception_3a/pool
I0403 21:40:08.431558 23820 net.cpp:141] Setting up inception_3a/pool
I0403 21:40:08.431582 23820 net.cpp:148] Top shape: 24 192 28 28 (3612672)
I0403 21:40:08.431597 23820 net.cpp:156] Memory required for data: 556352544
I0403 21:40:08.431613 23820 layer_factory.hpp:77] Creating layer inception_3a/pool_proj
I0403 21:40:08.431638 23820 net.cpp:91] Creating Layer inception_3a/pool_proj
I0403 21:40:08.431654 23820 net.cpp:425] inception_3a/pool_proj <- inception_3a/pool
I0403 21:40:08.431675 23820 net.cpp:399] inception_3a/pool_proj -> inception_3a/pool_proj
I0403 21:40:08.432634 23820 net.cpp:141] Setting up inception_3a/pool_proj
I0403 21:40:08.432663 23820 net.cpp:148] Top shape: 24 32 28 28 (602112)
I0403 21:40:08.432679 23820 net.cpp:156] Memory required for data: 558760992
I0403 21:40:08.432703 23820 layer_factory.hpp:77] Creating layer inception_3a/relu_pool_proj
I0403 21:40:08.432724 23820 net.cpp:91] Creating Layer inception_3a/relu_pool_proj
I0403 21:40:08.432744 23820 net.cpp:425] inception_3a/relu_pool_proj <- inception_3a/pool_proj
I0403 21:40:08.432762 23820 net.cpp:386] inception_3a/relu_pool_proj -> inception_3a/pool_proj (in-place)
I0403 21:40:08.433035 23820 net.cpp:141] Setting up inception_3a/relu_pool_proj
I0403 21:40:08.433063 23820 net.cpp:148] Top shape: 24 32 28 28 (602112)
I0403 21:40:08.433079 23820 net.cpp:156] Memory required for data: 561169440
I0403 21:40:08.433094 23820 layer_factory.hpp:77] Creating layer inception_3a/output
I0403 21:40:08.433115 23820 net.cpp:91] Creating Layer inception_3a/output
I0403 21:40:08.433130 23820 net.cpp:425] inception_3a/output <- inception_3a/1x1
I0403 21:40:08.433147 23820 net.cpp:425] inception_3a/output <- inception_3a/3x3
I0403 21:40:08.433164 23820 net.cpp:425] inception_3a/output <- inception_3a/5x5
I0403 21:40:08.433181 23820 net.cpp:425] inception_3a/output <- inception_3a/pool_proj
I0403 21:40:08.433197 23820 net.cpp:399] inception_3a/output -> inception_3a/output
I0403 21:40:08.433249 23820 net.cpp:141] Setting up inception_3a/output
I0403 21:40:08.433274 23820 net.cpp:148] Top shape: 24 256 28 28 (4816896)
I0403 21:40:08.433289 23820 net.cpp:156] Memory required for data: 580437024
I0403 21:40:08.433302 23820 layer_factory.hpp:77] Creating layer inception_3a/output_inception_3a/output_0_split
I0403 21:40:08.433320 23820 net.cpp:91] Creating Layer inception_3a/output_inception_3a/output_0_split
I0403 21:40:08.433336 23820 net.cpp:425] inception_3a/output_inception_3a/output_0_split <- inception_3a/output
I0403 21:40:08.433357 23820 net.cpp:399] inception_3a/output_inception_3a/output_0_split -> inception_3a/output_inception_3a/output_0_split_0
I0403 21:40:08.433378 23820 net.cpp:399] inception_3a/output_inception_3a/output_0_split -> inception_3a/output_inception_3a/output_0_split_1
I0403 21:40:08.433405 23820 net.cpp:399] inception_3a/output_inception_3a/output_0_split -> inception_3a/output_inception_3a/output_0_split_2
I0403 21:40:08.433429 23820 net.cpp:399] inception_3a/output_inception_3a/output_0_split -> inception_3a/output_inception_3a/output_0_split_3
I0403 21:40:08.433501 23820 net.cpp:141] Setting up inception_3a/output_inception_3a/output_0_split
I0403 21:40:08.433526 23820 net.cpp:148] Top shape: 24 256 28 28 (4816896)
I0403 21:40:08.433542 23820 net.cpp:148] Top shape: 24 256 28 28 (4816896)
I0403 21:40:08.433558 23820 net.cpp:148] Top shape: 24 256 28 28 (4816896)
I0403 21:40:08.433575 23820 net.cpp:148] Top shape: 24 256 28 28 (4816896)
I0403 21:40:08.433588 23820 net.cpp:156] Memory required for data: 657507360
I0403 21:40:08.433604 23820 layer_factory.hpp:77] Creating layer inception_3b/1x1
I0403 21:40:08.433625 23820 net.cpp:91] Creating Layer inception_3b/1x1
I0403 21:40:08.433645 23820 net.cpp:425] inception_3b/1x1 <- inception_3a/output_inception_3a/output_0_split_0
I0403 21:40:08.433666 23820 net.cpp:399] inception_3b/1x1 -> inception_3b/1x1
I0403 21:40:08.434782 23820 net.cpp:141] Setting up inception_3b/1x1
I0403 21:40:08.434821 23820 net.cpp:148] Top shape: 24 128 28 28 (2408448)
I0403 21:40:08.434839 23820 net.cpp:156] Memory required for data: 667141152
I0403 21:40:08.434857 23820 layer_factory.hpp:77] Creating layer inception_3b/relu_1x1
I0403 21:40:08.434880 23820 net.cpp:91] Creating Layer inception_3b/relu_1x1
I0403 21:40:08.434898 23820 net.cpp:425] inception_3b/relu_1x1 <- inception_3b/1x1
I0403 21:40:08.434917 23820 net.cpp:386] inception_3b/relu_1x1 -> inception_3b/1x1 (in-place)
I0403 21:40:08.435089 23820 net.cpp:141] Setting up inception_3b/relu_1x1
I0403 21:40:08.435116 23820 net.cpp:148] Top shape: 24 128 28 28 (2408448)
I0403 21:40:08.435130 23820 net.cpp:156] Memory required for data: 676774944
I0403 21:40:08.435145 23820 layer_factory.hpp:77] Creating layer inception_3b/3x3_reduce
I0403 21:40:08.435170 23820 net.cpp:91] Creating Layer inception_3b/3x3_reduce
I0403 21:40:08.435189 23820 net.cpp:425] inception_3b/3x3_reduce <- inception_3a/output_inception_3a/output_0_split_1
I0403 21:40:08.435210 23820 net.cpp:399] inception_3b/3x3_reduce -> inception_3b/3x3_reduce
I0403 21:40:08.436331 23820 net.cpp:141] Setting up inception_3b/3x3_reduce
I0403 21:40:08.436358 23820 net.cpp:148] Top shape: 24 128 28 28 (2408448)
I0403 21:40:08.436374 23820 net.cpp:156] Memory required for data: 686408736
I0403 21:40:08.436393 23820 layer_factory.hpp:77] Creating layer inception_3b/relu_3x3_reduce
I0403 21:40:08.436414 23820 net.cpp:91] Creating Layer inception_3b/relu_3x3_reduce
I0403 21:40:08.436430 23820 net.cpp:425] inception_3b/relu_3x3_reduce <- inception_3b/3x3_reduce
I0403 21:40:08.436450 23820 net.cpp:386] inception_3b/relu_3x3_reduce -> inception_3b/3x3_reduce (in-place)
I0403 21:40:08.436619 23820 net.cpp:141] Setting up inception_3b/relu_3x3_reduce
I0403 21:40:08.436645 23820 net.cpp:148] Top shape: 24 128 28 28 (2408448)
I0403 21:40:08.436661 23820 net.cpp:156] Memory required for data: 696042528
I0403 21:40:08.436677 23820 layer_factory.hpp:77] Creating layer inception_3b/3x3
I0403 21:40:08.436704 23820 net.cpp:91] Creating Layer inception_3b/3x3
I0403 21:40:08.436724 23820 net.cpp:425] inception_3b/3x3 <- inception_3b/3x3_reduce
I0403 21:40:08.436745 23820 net.cpp:399] inception_3b/3x3 -> inception_3b/3x3
I0403 21:40:08.439654 23820 net.cpp:141] Setting up inception_3b/3x3
I0403 21:40:08.439684 23820 net.cpp:148] Top shape: 24 192 28 28 (3612672)
I0403 21:40:08.439700 23820 net.cpp:156] Memory required for data: 710493216
I0403 21:40:08.439719 23820 layer_factory.hpp:77] Creating layer inception_3b/relu_3x3
I0403 21:40:08.439740 23820 net.cpp:91] Creating Layer inception_3b/relu_3x3
I0403 21:40:08.439759 23820 net.cpp:425] inception_3b/relu_3x3 <- inception_3b/3x3
I0403 21:40:08.439777 23820 net.cpp:386] inception_3b/relu_3x3 -> inception_3b/3x3 (in-place)
I0403 21:40:08.440049 23820 net.cpp:141] Setting up inception_3b/relu_3x3
I0403 21:40:08.440076 23820 net.cpp:148] Top shape: 24 192 28 28 (3612672)
I0403 21:40:08.440093 23820 net.cpp:156] Memory required for data: 724943904
I0403 21:40:08.440109 23820 layer_factory.hpp:77] Creating layer inception_3b/5x5_reduce
I0403 21:40:08.440134 23820 net.cpp:91] Creating Layer inception_3b/5x5_reduce
I0403 21:40:08.440153 23820 net.cpp:425] inception_3b/5x5_reduce <- inception_3a/output_inception_3a/output_0_split_2
I0403 21:40:08.440173 23820 net.cpp:399] inception_3b/5x5_reduce -> inception_3b/5x5_reduce
I0403 21:40:08.441154 23820 net.cpp:141] Setting up inception_3b/5x5_reduce
I0403 21:40:08.441191 23820 net.cpp:148] Top shape: 24 32 28 28 (602112)
I0403 21:40:08.441207 23820 net.cpp:156] Memory required for data: 727352352
I0403 21:40:08.441231 23820 layer_factory.hpp:77] Creating layer inception_3b/relu_5x5_reduce
I0403 21:40:08.441254 23820 net.cpp:91] Creating Layer inception_3b/relu_5x5_reduce
I0403 21:40:08.441273 23820 net.cpp:425] inception_3b/relu_5x5_reduce <- inception_3b/5x5_reduce
I0403 21:40:08.441292 23820 net.cpp:386] inception_3b/relu_5x5_reduce -> inception_3b/5x5_reduce (in-place)
I0403 21:40:08.441478 23820 net.cpp:141] Setting up inception_3b/relu_5x5_reduce
I0403 21:40:08.441506 23820 net.cpp:148] Top shape: 24 32 28 28 (602112)
I0403 21:40:08.441524 23820 net.cpp:156] Memory required for data: 729760800
I0403 21:40:08.441539 23820 layer_factory.hpp:77] Creating layer inception_3b/5x5
I0403 21:40:08.441561 23820 net.cpp:91] Creating Layer inception_3b/5x5
I0403 21:40:08.441581 23820 net.cpp:425] inception_3b/5x5 <- inception_3b/5x5_reduce
I0403 21:40:08.441601 23820 net.cpp:399] inception_3b/5x5 -> inception_3b/5x5
I0403 21:40:08.443575 23820 net.cpp:141] Setting up inception_3b/5x5
I0403 21:40:08.443605 23820 net.cpp:148] Top shape: 24 96 28 28 (1806336)
I0403 21:40:08.443621 23820 net.cpp:156] Memory required for data: 736986144
I0403 21:40:08.443640 23820 layer_factory.hpp:77] Creating layer inception_3b/relu_5x5
I0403 21:40:08.443660 23820 net.cpp:91] Creating Layer inception_3b/relu_5x5
I0403 21:40:08.443676 23820 net.cpp:425] inception_3b/relu_5x5 <- inception_3b/5x5
I0403 21:40:08.443697 23820 net.cpp:386] inception_3b/relu_5x5 -> inception_3b/5x5 (in-place)
I0403 21:40:08.443886 23820 net.cpp:141] Setting up inception_3b/relu_5x5
I0403 21:40:08.443912 23820 net.cpp:148] Top shape: 24 96 28 28 (1806336)
I0403 21:40:08.443928 23820 net.cpp:156] Memory required for data: 744211488
I0403 21:40:08.443943 23820 layer_factory.hpp:77] Creating layer inception_3b/pool
I0403 21:40:08.443963 23820 net.cpp:91] Creating Layer inception_3b/pool
I0403 21:40:08.443980 23820 net.cpp:425] inception_3b/pool <- inception_3a/output_inception_3a/output_0_split_3
I0403 21:40:08.444000 23820 net.cpp:399] inception_3b/pool -> inception_3b/pool
I0403 21:40:08.444056 23820 net.cpp:141] Setting up inception_3b/pool
I0403 21:40:08.444078 23820 net.cpp:148] Top shape: 24 256 28 28 (4816896)
I0403 21:40:08.444094 23820 net.cpp:156] Memory required for data: 763479072
I0403 21:40:08.444109 23820 layer_factory.hpp:77] Creating layer inception_3b/pool_proj
I0403 21:40:08.444133 23820 net.cpp:91] Creating Layer inception_3b/pool_proj
I0403 21:40:08.444151 23820 net.cpp:425] inception_3b/pool_proj <- inception_3b/pool
I0403 21:40:08.444174 23820 net.cpp:399] inception_3b/pool_proj -> inception_3b/pool_proj
I0403 21:40:08.445209 23820 net.cpp:141] Setting up inception_3b/pool_proj
I0403 21:40:08.445245 23820 net.cpp:148] Top shape: 24 64 28 28 (1204224)
I0403 21:40:08.445262 23820 net.cpp:156] Memory required for data: 768295968
I0403 21:40:08.445281 23820 layer_factory.hpp:77] Creating layer inception_3b/relu_pool_proj
I0403 21:40:08.445302 23820 net.cpp:91] Creating Layer inception_3b/relu_pool_proj
I0403 21:40:08.445319 23820 net.cpp:425] inception_3b/relu_pool_proj <- inception_3b/pool_proj
I0403 21:40:08.445339 23820 net.cpp:386] inception_3b/relu_pool_proj -> inception_3b/pool_proj (in-place)
I0403 21:40:08.445732 23820 net.cpp:141] Setting up inception_3b/relu_pool_proj
I0403 21:40:08.445762 23820 net.cpp:148] Top shape: 24 64 28 28 (1204224)
I0403 21:40:08.445780 23820 net.cpp:156] Memory required for data: 773112864
I0403 21:40:08.445796 23820 layer_factory.hpp:77] Creating layer inception_3b/output
I0403 21:40:08.445813 23820 net.cpp:91] Creating Layer inception_3b/output
I0403 21:40:08.445830 23820 net.cpp:425] inception_3b/output <- inception_3b/1x1
I0403 21:40:08.445847 23820 net.cpp:425] inception_3b/output <- inception_3b/3x3
I0403 21:40:08.445863 23820 net.cpp:425] inception_3b/output <- inception_3b/5x5
I0403 21:40:08.445880 23820 net.cpp:425] inception_3b/output <- inception_3b/pool_proj
I0403 21:40:08.445897 23820 net.cpp:399] inception_3b/output -> inception_3b/output
I0403 21:40:08.445945 23820 net.cpp:141] Setting up inception_3b/output
I0403 21:40:08.445968 23820 net.cpp:148] Top shape: 24 480 28 28 (9031680)
I0403 21:40:08.445983 23820 net.cpp:156] Memory required for data: 809239584
I0403 21:40:08.445999 23820 layer_factory.hpp:77] Creating layer pool3/3x3_s2
I0403 21:40:08.446020 23820 net.cpp:91] Creating Layer pool3/3x3_s2
I0403 21:40:08.446038 23820 net.cpp:425] pool3/3x3_s2 <- inception_3b/output
I0403 21:40:08.446072 23820 net.cpp:399] pool3/3x3_s2 -> pool3/3x3_s2
I0403 21:40:08.446133 23820 net.cpp:141] Setting up pool3/3x3_s2
I0403 21:40:08.446158 23820 net.cpp:148] Top shape: 24 480 14 14 (2257920)
I0403 21:40:08.446173 23820 net.cpp:156] Memory required for data: 818271264
I0403 21:40:08.446188 23820 layer_factory.hpp:77] Creating layer pool3/3x3_s2_pool3/3x3_s2_0_split
I0403 21:40:08.446207 23820 net.cpp:91] Creating Layer pool3/3x3_s2_pool3/3x3_s2_0_split
I0403 21:40:08.446223 23820 net.cpp:425] pool3/3x3_s2_pool3/3x3_s2_0_split <- pool3/3x3_s2
I0403 21:40:08.446249 23820 net.cpp:399] pool3/3x3_s2_pool3/3x3_s2_0_split -> pool3/3x3_s2_pool3/3x3_s2_0_split_0
I0403 21:40:08.446270 23820 net.cpp:399] pool3/3x3_s2_pool3/3x3_s2_0_split -> pool3/3x3_s2_pool3/3x3_s2_0_split_1
I0403 21:40:08.446290 23820 net.cpp:399] pool3/3x3_s2_pool3/3x3_s2_0_split -> pool3/3x3_s2_pool3/3x3_s2_0_split_2
I0403 21:40:08.446310 23820 net.cpp:399] pool3/3x3_s2_pool3/3x3_s2_0_split -> pool3/3x3_s2_pool3/3x3_s2_0_split_3
I0403 21:40:08.446385 23820 net.cpp:141] Setting up pool3/3x3_s2_pool3/3x3_s2_0_split
I0403 21:40:08.446413 23820 net.cpp:148] Top shape: 24 480 14 14 (2257920)
I0403 21:40:08.446431 23820 net.cpp:148] Top shape: 24 480 14 14 (2257920)
I0403 21:40:08.446447 23820 net.cpp:148] Top shape: 24 480 14 14 (2257920)
I0403 21:40:08.446463 23820 net.cpp:148] Top shape: 24 480 14 14 (2257920)
I0403 21:40:08.446477 23820 net.cpp:156] Memory required for data: 854397984
I0403 21:40:08.446492 23820 layer_factory.hpp:77] Creating layer inception_4a/1x1
I0403 21:40:08.446516 23820 net.cpp:91] Creating Layer inception_4a/1x1
I0403 21:40:08.446533 23820 net.cpp:425] inception_4a/1x1 <- pool3/3x3_s2_pool3/3x3_s2_0_split_0
I0403 21:40:08.446553 23820 net.cpp:399] inception_4a/1x1 -> inception_4a/1x1
I0403 21:40:08.448102 23820 net.cpp:141] Setting up inception_4a/1x1
I0403 21:40:08.448132 23820 net.cpp:148] Top shape: 24 192 14 14 (903168)
I0403 21:40:08.448148 23820 net.cpp:156] Memory required for data: 858010656
I0403 21:40:08.448168 23820 layer_factory.hpp:77] Creating layer inception_4a/relu_1x1
I0403 21:40:08.448185 23820 net.cpp:91] Creating Layer inception_4a/relu_1x1
I0403 21:40:08.448204 23820 net.cpp:425] inception_4a/relu_1x1 <- inception_4a/1x1
I0403 21:40:08.448225 23820 net.cpp:386] inception_4a/relu_1x1 -> inception_4a/1x1 (in-place)
I0403 21:40:08.448410 23820 net.cpp:141] Setting up inception_4a/relu_1x1
I0403 21:40:08.448436 23820 net.cpp:148] Top shape: 24 192 14 14 (903168)
I0403 21:40:08.448452 23820 net.cpp:156] Memory required for data: 861623328
I0403 21:40:08.448467 23820 layer_factory.hpp:77] Creating layer inception_4a/3x3_reduce
I0403 21:40:08.448490 23820 net.cpp:91] Creating Layer inception_4a/3x3_reduce
I0403 21:40:08.448508 23820 net.cpp:425] inception_4a/3x3_reduce <- pool3/3x3_s2_pool3/3x3_s2_0_split_1
I0403 21:40:08.448530 23820 net.cpp:399] inception_4a/3x3_reduce -> inception_4a/3x3_reduce
I0403 21:40:08.449785 23820 net.cpp:141] Setting up inception_4a/3x3_reduce
I0403 21:40:08.449815 23820 net.cpp:148] Top shape: 24 96 14 14 (451584)
I0403 21:40:08.449832 23820 net.cpp:156] Memory required for data: 863429664
I0403 21:40:08.449858 23820 layer_factory.hpp:77] Creating layer inception_4a/relu_3x3_reduce
I0403 21:40:08.449880 23820 net.cpp:91] Creating Layer inception_4a/relu_3x3_reduce
I0403 21:40:08.449898 23820 net.cpp:425] inception_4a/relu_3x3_reduce <- inception_4a/3x3_reduce
I0403 21:40:08.449914 23820 net.cpp:386] inception_4a/relu_3x3_reduce -> inception_4a/3x3_reduce (in-place)
I0403 21:40:08.450085 23820 net.cpp:141] Setting up inception_4a/relu_3x3_reduce
I0403 21:40:08.450111 23820 net.cpp:148] Top shape: 24 96 14 14 (451584)
I0403 21:40:08.450127 23820 net.cpp:156] Memory required for data: 865236000
I0403 21:40:08.450144 23820 layer_factory.hpp:77] Creating layer inception_4a/3x3
I0403 21:40:08.450165 23820 net.cpp:91] Creating Layer inception_4a/3x3
I0403 21:40:08.450184 23820 net.cpp:425] inception_4a/3x3 <- inception_4a/3x3_reduce
I0403 21:40:08.450206 23820 net.cpp:399] inception_4a/3x3 -> inception_4a/3x3
I0403 21:40:08.452875 23820 net.cpp:141] Setting up inception_4a/3x3
I0403 21:40:08.452904 23820 net.cpp:148] Top shape: 24 208 14 14 (978432)
I0403 21:40:08.452920 23820 net.cpp:156] Memory required for data: 869149728
I0403 21:40:08.452940 23820 layer_factory.hpp:77] Creating layer inception_4a/relu_3x3
I0403 21:40:08.452963 23820 net.cpp:91] Creating Layer inception_4a/relu_3x3
I0403 21:40:08.452981 23820 net.cpp:425] inception_4a/relu_3x3 <- inception_4a/3x3
I0403 21:40:08.452999 23820 net.cpp:386] inception_4a/relu_3x3 -> inception_4a/3x3 (in-place)
I0403 21:40:08.453281 23820 net.cpp:141] Setting up inception_4a/relu_3x3
I0403 21:40:08.453308 23820 net.cpp:148] Top shape: 24 208 14 14 (978432)
I0403 21:40:08.453325 23820 net.cpp:156] Memory required for data: 873063456
I0403 21:40:08.453341 23820 layer_factory.hpp:77] Creating layer inception_4a/5x5_reduce
I0403 21:40:08.453363 23820 net.cpp:91] Creating Layer inception_4a/5x5_reduce
I0403 21:40:08.453382 23820 net.cpp:425] inception_4a/5x5_reduce <- pool3/3x3_s2_pool3/3x3_s2_0_split_2
I0403 21:40:08.453403 23820 net.cpp:399] inception_4a/5x5_reduce -> inception_4a/5x5_reduce
I0403 21:40:08.454411 23820 net.cpp:141] Setting up inception_4a/5x5_reduce
I0403 21:40:08.454440 23820 net.cpp:148] Top shape: 24 16 14 14 (75264)
I0403 21:40:08.454458 23820 net.cpp:156] Memory required for data: 873364512
I0403 21:40:08.454478 23820 layer_factory.hpp:77] Creating layer inception_4a/relu_5x5_reduce
I0403 21:40:08.454499 23820 net.cpp:91] Creating Layer inception_4a/relu_5x5_reduce
I0403 21:40:08.454517 23820 net.cpp:425] inception_4a/relu_5x5_reduce <- inception_4a/5x5_reduce
I0403 21:40:08.454535 23820 net.cpp:386] inception_4a/relu_5x5_reduce -> inception_4a/5x5_reduce (in-place)
I0403 21:40:08.454706 23820 net.cpp:141] Setting up inception_4a/relu_5x5_reduce
I0403 21:40:08.454736 23820 net.cpp:148] Top shape: 24 16 14 14 (75264)
I0403 21:40:08.454753 23820 net.cpp:156] Memory required for data: 873665568
I0403 21:40:08.454769 23820 layer_factory.hpp:77] Creating layer inception_4a/5x5
I0403 21:40:08.454792 23820 net.cpp:91] Creating Layer inception_4a/5x5
I0403 21:40:08.454810 23820 net.cpp:425] inception_4a/5x5 <- inception_4a/5x5_reduce
I0403 21:40:08.454830 23820 net.cpp:399] inception_4a/5x5 -> inception_4a/5x5
I0403 21:40:08.455910 23820 net.cpp:141] Setting up inception_4a/5x5
I0403 21:40:08.455940 23820 net.cpp:148] Top shape: 24 48 14 14 (225792)
I0403 21:40:08.455960 23820 net.cpp:156] Memory required for data: 874568736
I0403 21:40:08.455978 23820 layer_factory.hpp:77] Creating layer inception_4a/relu_5x5
I0403 21:40:08.455996 23820 net.cpp:91] Creating Layer inception_4a/relu_5x5
I0403 21:40:08.456013 23820 net.cpp:425] inception_4a/relu_5x5 <- inception_4a/5x5
I0403 21:40:08.456034 23820 net.cpp:386] inception_4a/relu_5x5 -> inception_4a/5x5 (in-place)
I0403 21:40:08.456208 23820 net.cpp:141] Setting up inception_4a/relu_5x5
I0403 21:40:08.456238 23820 net.cpp:148] Top shape: 24 48 14 14 (225792)
I0403 21:40:08.456256 23820 net.cpp:156] Memory required for data: 875471904
I0403 21:40:08.456271 23820 layer_factory.hpp:77] Creating layer inception_4a/pool
I0403 21:40:08.456290 23820 net.cpp:91] Creating Layer inception_4a/pool
I0403 21:40:08.456307 23820 net.cpp:425] inception_4a/pool <- pool3/3x3_s2_pool3/3x3_s2_0_split_3
I0403 21:40:08.456331 23820 net.cpp:399] inception_4a/pool -> inception_4a/pool
I0403 21:40:08.456393 23820 net.cpp:141] Setting up inception_4a/pool
I0403 21:40:08.456418 23820 net.cpp:148] Top shape: 24 480 14 14 (2257920)
I0403 21:40:08.456434 23820 net.cpp:156] Memory required for data: 884503584
I0403 21:40:08.456449 23820 layer_factory.hpp:77] Creating layer inception_4a/pool_proj
I0403 21:40:08.456475 23820 net.cpp:91] Creating Layer inception_4a/pool_proj
I0403 21:40:08.456493 23820 net.cpp:425] inception_4a/pool_proj <- inception_4a/pool
I0403 21:40:08.456513 23820 net.cpp:399] inception_4a/pool_proj -> inception_4a/pool_proj
I0403 21:40:08.457669 23820 net.cpp:141] Setting up inception_4a/pool_proj
I0403 21:40:08.457700 23820 net.cpp:148] Top shape: 24 64 14 14 (301056)
I0403 21:40:08.457732 23820 net.cpp:156] Memory required for data: 885707808
I0403 21:40:08.457752 23820 layer_factory.hpp:77] Creating layer inception_4a/relu_pool_proj
I0403 21:40:08.457772 23820 net.cpp:91] Creating Layer inception_4a/relu_pool_proj
I0403 21:40:08.457789 23820 net.cpp:425] inception_4a/relu_pool_proj <- inception_4a/pool_proj
I0403 21:40:08.457810 23820 net.cpp:386] inception_4a/relu_pool_proj -> inception_4a/pool_proj (in-place)
I0403 21:40:08.458088 23820 net.cpp:141] Setting up inception_4a/relu_pool_proj
I0403 21:40:08.458117 23820 net.cpp:148] Top shape: 24 64 14 14 (301056)
I0403 21:40:08.458134 23820 net.cpp:156] Memory required for data: 886912032
I0403 21:40:08.458150 23820 layer_factory.hpp:77] Creating layer inception_4a/output
I0403 21:40:08.458168 23820 net.cpp:91] Creating Layer inception_4a/output
I0403 21:40:08.458184 23820 net.cpp:425] inception_4a/output <- inception_4a/1x1
I0403 21:40:08.458201 23820 net.cpp:425] inception_4a/output <- inception_4a/3x3
I0403 21:40:08.458217 23820 net.cpp:425] inception_4a/output <- inception_4a/5x5
I0403 21:40:08.458245 23820 net.cpp:425] inception_4a/output <- inception_4a/pool_proj
I0403 21:40:08.458267 23820 net.cpp:399] inception_4a/output -> inception_4a/output
I0403 21:40:08.458313 23820 net.cpp:141] Setting up inception_4a/output
I0403 21:40:08.458338 23820 net.cpp:148] Top shape: 24 512 14 14 (2408448)
I0403 21:40:08.458353 23820 net.cpp:156] Memory required for data: 896545824
I0403 21:40:08.458369 23820 layer_factory.hpp:77] Creating layer inception_4a/output_inception_4a/output_0_split
I0403 21:40:08.458389 23820 net.cpp:91] Creating Layer inception_4a/output_inception_4a/output_0_split
I0403 21:40:08.458405 23820 net.cpp:425] inception_4a/output_inception_4a/output_0_split <- inception_4a/output
I0403 21:40:08.458425 23820 net.cpp:399] inception_4a/output_inception_4a/output_0_split -> inception_4a/output_inception_4a/output_0_split_0
I0403 21:40:08.458447 23820 net.cpp:399] inception_4a/output_inception_4a/output_0_split -> inception_4a/output_inception_4a/output_0_split_1
I0403 21:40:08.458468 23820 net.cpp:399] inception_4a/output_inception_4a/output_0_split -> inception_4a/output_inception_4a/output_0_split_2
I0403 21:40:08.458490 23820 net.cpp:399] inception_4a/output_inception_4a/output_0_split -> inception_4a/output_inception_4a/output_0_split_3
I0403 21:40:08.458511 23820 net.cpp:399] inception_4a/output_inception_4a/output_0_split -> inception_4a/output_inception_4a/output_0_split_4
I0403 21:40:08.458603 23820 net.cpp:141] Setting up inception_4a/output_inception_4a/output_0_split
I0403 21:40:08.458628 23820 net.cpp:148] Top shape: 24 512 14 14 (2408448)
I0403 21:40:08.458647 23820 net.cpp:148] Top shape: 24 512 14 14 (2408448)
I0403 21:40:08.458663 23820 net.cpp:148] Top shape: 24 512 14 14 (2408448)
I0403 21:40:08.458679 23820 net.cpp:148] Top shape: 24 512 14 14 (2408448)
I0403 21:40:08.458695 23820 net.cpp:148] Top shape: 24 512 14 14 (2408448)
I0403 21:40:08.458710 23820 net.cpp:156] Memory required for data: 944714784
I0403 21:40:08.458725 23820 layer_factory.hpp:77] Creating layer loss1/ave_pool
I0403 21:40:08.458746 23820 net.cpp:91] Creating Layer loss1/ave_pool
I0403 21:40:08.458765 23820 net.cpp:425] loss1/ave_pool <- inception_4a/output_inception_4a/output_0_split_0
I0403 21:40:08.458782 23820 net.cpp:399] loss1/ave_pool -> loss1/ave_pool
I0403 21:40:08.458982 23820 net.cpp:141] Setting up loss1/ave_pool
I0403 21:40:08.459010 23820 net.cpp:148] Top shape: 24 512 4 4 (196608)
I0403 21:40:08.459028 23820 net.cpp:156] Memory required for data: 945501216
I0403 21:40:08.459043 23820 layer_factory.hpp:77] Creating layer loss1/conv
I0403 21:40:08.459066 23820 net.cpp:91] Creating Layer loss1/conv
I0403 21:40:08.459084 23820 net.cpp:425] loss1/conv <- loss1/ave_pool
I0403 21:40:08.459103 23820 net.cpp:399] loss1/conv -> loss1/conv
I0403 21:40:08.460506 23820 net.cpp:141] Setting up loss1/conv
I0403 21:40:08.460536 23820 net.cpp:148] Top shape: 24 128 4 4 (49152)
I0403 21:40:08.460566 23820 net.cpp:156] Memory required for data: 945697824
I0403 21:40:08.460587 23820 layer_factory.hpp:77] Creating layer loss1/relu_conv
I0403 21:40:08.460608 23820 net.cpp:91] Creating Layer loss1/relu_conv
I0403 21:40:08.460625 23820 net.cpp:425] loss1/relu_conv <- loss1/conv
I0403 21:40:08.460644 23820 net.cpp:386] loss1/relu_conv -> loss1/conv (in-place)
I0403 21:40:08.460921 23820 net.cpp:141] Setting up loss1/relu_conv
I0403 21:40:08.460947 23820 net.cpp:148] Top shape: 24 128 4 4 (49152)
I0403 21:40:08.460963 23820 net.cpp:156] Memory required for data: 945894432
I0403 21:40:08.460980 23820 layer_factory.hpp:77] Creating layer loss1/fc
I0403 21:40:08.461006 23820 net.cpp:91] Creating Layer loss1/fc
I0403 21:40:08.461025 23820 net.cpp:425] loss1/fc <- loss1/conv
I0403 21:40:08.461045 23820 net.cpp:399] loss1/fc -> loss1/fc
I0403 21:40:08.478865 23820 net.cpp:141] Setting up loss1/fc
I0403 21:40:08.478899 23820 net.cpp:148] Top shape: 24 1024 (24576)
I0403 21:40:08.478914 23820 net.cpp:156] Memory required for data: 945992736
I0403 21:40:08.478935 23820 layer_factory.hpp:77] Creating layer loss1/relu_fc
I0403 21:40:08.478955 23820 net.cpp:91] Creating Layer loss1/relu_fc
I0403 21:40:08.478972 23820 net.cpp:425] loss1/relu_fc <- loss1/fc
I0403 21:40:08.478992 23820 net.cpp:386] loss1/relu_fc -> loss1/fc (in-place)
I0403 21:40:08.479172 23820 net.cpp:141] Setting up loss1/relu_fc
I0403 21:40:08.479198 23820 net.cpp:148] Top shape: 24 1024 (24576)
I0403 21:40:08.479213 23820 net.cpp:156] Memory required for data: 946091040
I0403 21:40:08.479231 23820 layer_factory.hpp:77] Creating layer loss1/drop_fc
I0403 21:40:08.479259 23820 net.cpp:91] Creating Layer loss1/drop_fc
I0403 21:40:08.479277 23820 net.cpp:425] loss1/drop_fc <- loss1/fc
I0403 21:40:08.479297 23820 net.cpp:386] loss1/drop_fc -> loss1/fc (in-place)
I0403 21:40:08.479349 23820 net.cpp:141] Setting up loss1/drop_fc
I0403 21:40:08.479377 23820 net.cpp:148] Top shape: 24 1024 (24576)
I0403 21:40:08.479393 23820 net.cpp:156] Memory required for data: 946189344
I0403 21:40:08.479409 23820 layer_factory.hpp:77] Creating layer loss1/classifier_plantvillage
I0403 21:40:08.479429 23820 net.cpp:91] Creating Layer loss1/classifier_plantvillage
I0403 21:40:08.479444 23820 net.cpp:425] loss1/classifier_plantvillage <- loss1/fc
I0403 21:40:08.479470 23820 net.cpp:399] loss1/classifier_plantvillage -> loss1/classifier_plantvillage
I0403 21:40:08.480396 23820 net.cpp:141] Setting up loss1/classifier_plantvillage
I0403 21:40:08.480424 23820 net.cpp:148] Top shape: 24 38 (912)
I0403 21:40:08.480442 23820 net.cpp:156] Memory required for data: 946192992
I0403 21:40:08.480460 23820 layer_factory.hpp:77] Creating layer loss1/classifier_plantvillage_loss1/classifier_plantvillage_0_split
I0403 21:40:08.480479 23820 net.cpp:91] Creating Layer loss1/classifier_plantvillage_loss1/classifier_plantvillage_0_split
I0403 21:40:08.480495 23820 net.cpp:425] loss1/classifier_plantvillage_loss1/classifier_plantvillage_0_split <- loss1/classifier_plantvillage
I0403 21:40:08.480517 23820 net.cpp:399] loss1/classifier_plantvillage_loss1/classifier_plantvillage_0_split -> loss1/classifier_plantvillage_loss1/classifier_plantvillage_0_split_0
I0403 21:40:08.480540 23820 net.cpp:399] loss1/classifier_plantvillage_loss1/classifier_plantvillage_0_split -> loss1/classifier_plantvillage_loss1/classifier_plantvillage_0_split_1
I0403 21:40:08.480561 23820 net.cpp:399] loss1/classifier_plantvillage_loss1/classifier_plantvillage_0_split -> loss1/classifier_plantvillage_loss1/classifier_plantvillage_0_split_2
I0403 21:40:08.480630 23820 net.cpp:141] Setting up loss1/classifier_plantvillage_loss1/classifier_plantvillage_0_split
I0403 21:40:08.480654 23820 net.cpp:148] Top shape: 24 38 (912)
I0403 21:40:08.480672 23820 net.cpp:148] Top shape: 24 38 (912)
I0403 21:40:08.480690 23820 net.cpp:148] Top shape: 24 38 (912)
I0403 21:40:08.480705 23820 net.cpp:156] Memory required for data: 946203936
I0403 21:40:08.480720 23820 layer_factory.hpp:77] Creating layer inception_4b/1x1
I0403 21:40:08.480742 23820 net.cpp:91] Creating Layer inception_4b/1x1
I0403 21:40:08.480777 23820 net.cpp:425] inception_4b/1x1 <- inception_4a/output_inception_4a/output_0_split_1
I0403 21:40:08.480798 23820 net.cpp:399] inception_4b/1x1 -> inception_4b/1x1
I0403 21:40:08.482425 23820 net.cpp:141] Setting up inception_4b/1x1
I0403 21:40:08.482455 23820 net.cpp:148] Top shape: 24 160 14 14 (752640)
I0403 21:40:08.482471 23820 net.cpp:156] Memory required for data: 949214496
I0403 21:40:08.482491 23820 layer_factory.hpp:77] Creating layer inception_4b/relu_1x1
I0403 21:40:08.482512 23820 net.cpp:91] Creating Layer inception_4b/relu_1x1
I0403 21:40:08.482530 23820 net.cpp:425] inception_4b/relu_1x1 <- inception_4b/1x1
I0403 21:40:08.482549 23820 net.cpp:386] inception_4b/relu_1x1 -> inception_4b/1x1 (in-place)
I0403 21:40:08.482722 23820 net.cpp:141] Setting up inception_4b/relu_1x1
I0403 21:40:08.482751 23820 net.cpp:148] Top shape: 24 160 14 14 (752640)
I0403 21:40:08.482767 23820 net.cpp:156] Memory required for data: 952225056
I0403 21:40:08.482784 23820 layer_factory.hpp:77] Creating layer inception_4b/3x3_reduce
I0403 21:40:08.482808 23820 net.cpp:91] Creating Layer inception_4b/3x3_reduce
I0403 21:40:08.482828 23820 net.cpp:425] inception_4b/3x3_reduce <- inception_4a/output_inception_4a/output_0_split_2
I0403 21:40:08.482848 23820 net.cpp:399] inception_4b/3x3_reduce -> inception_4b/3x3_reduce
I0403 21:40:08.484197 23820 net.cpp:141] Setting up inception_4b/3x3_reduce
I0403 21:40:08.484232 23820 net.cpp:148] Top shape: 24 112 14 14 (526848)
I0403 21:40:08.484251 23820 net.cpp:156] Memory required for data: 954332448
I0403 21:40:08.484272 23820 layer_factory.hpp:77] Creating layer inception_4b/relu_3x3_reduce
I0403 21:40:08.484290 23820 net.cpp:91] Creating Layer inception_4b/relu_3x3_reduce
I0403 21:40:08.484308 23820 net.cpp:425] inception_4b/relu_3x3_reduce <- inception_4b/3x3_reduce
I0403 21:40:08.484328 23820 net.cpp:386] inception_4b/relu_3x3_reduce -> inception_4b/3x3_reduce (in-place)
I0403 21:40:08.484608 23820 net.cpp:141] Setting up inception_4b/relu_3x3_reduce
I0403 21:40:08.484637 23820 net.cpp:148] Top shape: 24 112 14 14 (526848)
I0403 21:40:08.484653 23820 net.cpp:156] Memory required for data: 956439840
I0403 21:40:08.484669 23820 layer_factory.hpp:77] Creating layer inception_4b/3x3
I0403 21:40:08.484690 23820 net.cpp:91] Creating Layer inception_4b/3x3
I0403 21:40:08.484709 23820 net.cpp:425] inception_4b/3x3 <- inception_4b/3x3_reduce
I0403 21:40:08.484730 23820 net.cpp:399] inception_4b/3x3 -> inception_4b/3x3
I0403 21:40:08.487723 23820 net.cpp:141] Setting up inception_4b/3x3
I0403 21:40:08.487753 23820 net.cpp:148] Top shape: 24 224 14 14 (1053696)
I0403 21:40:08.487769 23820 net.cpp:156] Memory required for data: 960654624
I0403 21:40:08.487789 23820 layer_factory.hpp:77] Creating layer inception_4b/relu_3x3
I0403 21:40:08.487808 23820 net.cpp:91] Creating Layer inception_4b/relu_3x3
I0403 21:40:08.487826 23820 net.cpp:425] inception_4b/relu_3x3 <- inception_4b/3x3
I0403 21:40:08.487846 23820 net.cpp:386] inception_4b/relu_3x3 -> inception_4b/3x3 (in-place)
I0403 21:40:08.488029 23820 net.cpp:141] Setting up inception_4b/relu_3x3
I0403 21:40:08.488056 23820 net.cpp:148] Top shape: 24 224 14 14 (1053696)
I0403 21:40:08.488071 23820 net.cpp:156] Memory required for data: 964869408
I0403 21:40:08.488087 23820 layer_factory.hpp:77] Creating layer inception_4b/5x5_reduce
I0403 21:40:08.488122 23820 net.cpp:91] Creating Layer inception_4b/5x5_reduce
I0403 21:40:08.488142 23820 net.cpp:425] inception_4b/5x5_reduce <- inception_4a/output_inception_4a/output_0_split_3
I0403 21:40:08.488165 23820 net.cpp:399] inception_4b/5x5_reduce -> inception_4b/5x5_reduce
I0403 21:40:08.489274 23820 net.cpp:141] Setting up inception_4b/5x5_reduce
I0403 21:40:08.489301 23820 net.cpp:148] Top shape: 24 24 14 14 (112896)
I0403 21:40:08.489317 23820 net.cpp:156] Memory required for data: 965320992
I0403 21:40:08.489337 23820 layer_factory.hpp:77] Creating layer inception_4b/relu_5x5_reduce
I0403 21:40:08.489358 23820 net.cpp:91] Creating Layer inception_4b/relu_5x5_reduce
I0403 21:40:08.489389 23820 net.cpp:425] inception_4b/relu_5x5_reduce <- inception_4b/5x5_reduce
I0403 21:40:08.489408 23820 net.cpp:386] inception_4b/relu_5x5_reduce -> inception_4b/5x5_reduce (in-place)
I0403 21:40:08.489593 23820 net.cpp:141] Setting up inception_4b/relu_5x5_reduce
I0403 21:40:08.489619 23820 net.cpp:148] Top shape: 24 24 14 14 (112896)
I0403 21:40:08.489636 23820 net.cpp:156] Memory required for data: 965772576
I0403 21:40:08.489653 23820 layer_factory.hpp:77] Creating layer inception_4b/5x5
I0403 21:40:08.489675 23820 net.cpp:91] Creating Layer inception_4b/5x5
I0403 21:40:08.489694 23820 net.cpp:425] inception_4b/5x5 <- inception_4b/5x5_reduce
I0403 21:40:08.489713 23820 net.cpp:399] inception_4b/5x5 -> inception_4b/5x5
I0403 21:40:08.490928 23820 net.cpp:141] Setting up inception_4b/5x5
I0403 21:40:08.490957 23820 net.cpp:148] Top shape: 24 64 14 14 (301056)
I0403 21:40:08.490974 23820 net.cpp:156] Memory required for data: 966976800
I0403 21:40:08.490993 23820 layer_factory.hpp:77] Creating layer inception_4b/relu_5x5
I0403 21:40:08.491014 23820 net.cpp:91] Creating Layer inception_4b/relu_5x5
I0403 21:40:08.491032 23820 net.cpp:425] inception_4b/relu_5x5 <- inception_4b/5x5
I0403 21:40:08.491051 23820 net.cpp:386] inception_4b/relu_5x5 -> inception_4b/5x5 (in-place)
I0403 21:40:08.491336 23820 net.cpp:141] Setting up inception_4b/relu_5x5
I0403 21:40:08.491364 23820 net.cpp:148] Top shape: 24 64 14 14 (301056)
I0403 21:40:08.491380 23820 net.cpp:156] Memory required for data: 968181024
I0403 21:40:08.491396 23820 layer_factory.hpp:77] Creating layer inception_4b/pool
I0403 21:40:08.491420 23820 net.cpp:91] Creating Layer inception_4b/pool
I0403 21:40:08.491438 23820 net.cpp:425] inception_4b/pool <- inception_4a/output_inception_4a/output_0_split_4
I0403 21:40:08.491457 23820 net.cpp:399] inception_4b/pool -> inception_4b/pool
I0403 21:40:08.491523 23820 net.cpp:141] Setting up inception_4b/pool
I0403 21:40:08.491549 23820 net.cpp:148] Top shape: 24 512 14 14 (2408448)
I0403 21:40:08.491564 23820 net.cpp:156] Memory required for data: 977814816
I0403 21:40:08.491580 23820 layer_factory.hpp:77] Creating layer inception_4b/pool_proj
I0403 21:40:08.491601 23820 net.cpp:91] Creating Layer inception_4b/pool_proj
I0403 21:40:08.491621 23820 net.cpp:425] inception_4b/pool_proj <- inception_4b/pool
I0403 21:40:08.491641 23820 net.cpp:399] inception_4b/pool_proj -> inception_4b/pool_proj
I0403 21:40:08.492835 23820 net.cpp:141] Setting up inception_4b/pool_proj
I0403 21:40:08.492863 23820 net.cpp:148] Top shape: 24 64 14 14 (301056)
I0403 21:40:08.492880 23820 net.cpp:156] Memory required for data: 979019040
I0403 21:40:08.492899 23820 layer_factory.hpp:77] Creating layer inception_4b/relu_pool_proj
I0403 21:40:08.492920 23820 net.cpp:91] Creating Layer inception_4b/relu_pool_proj
I0403 21:40:08.492939 23820 net.cpp:425] inception_4b/relu_pool_proj <- inception_4b/pool_proj
I0403 21:40:08.492959 23820 net.cpp:386] inception_4b/relu_pool_proj -> inception_4b/pool_proj (in-place)
I0403 21:40:08.493137 23820 net.cpp:141] Setting up inception_4b/relu_pool_proj
I0403 21:40:08.493165 23820 net.cpp:148] Top shape: 24 64 14 14 (301056)
I0403 21:40:08.493181 23820 net.cpp:156] Memory required for data: 980223264
I0403 21:40:08.493197 23820 layer_factory.hpp:77] Creating layer inception_4b/output
I0403 21:40:08.493216 23820 net.cpp:91] Creating Layer inception_4b/output
I0403 21:40:08.493237 23820 net.cpp:425] inception_4b/output <- inception_4b/1x1
I0403 21:40:08.493257 23820 net.cpp:425] inception_4b/output <- inception_4b/3x3
I0403 21:40:08.493273 23820 net.cpp:425] inception_4b/output <- inception_4b/5x5
I0403 21:40:08.493288 23820 net.cpp:425] inception_4b/output <- inception_4b/pool_proj
I0403 21:40:08.493305 23820 net.cpp:399] inception_4b/output -> inception_4b/output
I0403 21:40:08.493353 23820 net.cpp:141] Setting up inception_4b/output
I0403 21:40:08.493378 23820 net.cpp:148] Top shape: 24 512 14 14 (2408448)
I0403 21:40:08.493393 23820 net.cpp:156] Memory required for data: 989857056
I0403 21:40:08.493423 23820 layer_factory.hpp:77] Creating layer inception_4b/output_inception_4b/output_0_split
I0403 21:40:08.493445 23820 net.cpp:91] Creating Layer inception_4b/output_inception_4b/output_0_split
I0403 21:40:08.493461 23820 net.cpp:425] inception_4b/output_inception_4b/output_0_split <- inception_4b/output
I0403 21:40:08.493480 23820 net.cpp:399] inception_4b/output_inception_4b/output_0_split -> inception_4b/output_inception_4b/output_0_split_0
I0403 21:40:08.493501 23820 net.cpp:399] inception_4b/output_inception_4b/output_0_split -> inception_4b/output_inception_4b/output_0_split_1
I0403 21:40:08.493521 23820 net.cpp:399] inception_4b/output_inception_4b/output_0_split -> inception_4b/output_inception_4b/output_0_split_2
I0403 21:40:08.493541 23820 net.cpp:399] inception_4b/output_inception_4b/output_0_split -> inception_4b/output_inception_4b/output_0_split_3
I0403 21:40:08.493625 23820 net.cpp:141] Setting up inception_4b/output_inception_4b/output_0_split
I0403 21:40:08.493649 23820 net.cpp:148] Top shape: 24 512 14 14 (2408448)
I0403 21:40:08.493667 23820 net.cpp:148] Top shape: 24 512 14 14 (2408448)
I0403 21:40:08.493685 23820 net.cpp:148] Top shape: 24 512 14 14 (2408448)
I0403 21:40:08.493700 23820 net.cpp:148] Top shape: 24 512 14 14 (2408448)
I0403 21:40:08.493715 23820 net.cpp:156] Memory required for data: 1028392224
I0403 21:40:08.493728 23820 layer_factory.hpp:77] Creating layer inception_4c/1x1
I0403 21:40:08.493752 23820 net.cpp:91] Creating Layer inception_4c/1x1
I0403 21:40:08.493769 23820 net.cpp:425] inception_4c/1x1 <- inception_4b/output_inception_4b/output_0_split_0
I0403 21:40:08.493791 23820 net.cpp:399] inception_4c/1x1 -> inception_4c/1x1
I0403 21:40:08.495216 23820 net.cpp:141] Setting up inception_4c/1x1
I0403 21:40:08.495252 23820 net.cpp:148] Top shape: 24 128 14 14 (602112)
I0403 21:40:08.495271 23820 net.cpp:156] Memory required for data: 1030800672
I0403 21:40:08.495290 23820 layer_factory.hpp:77] Creating layer inception_4c/relu_1x1
I0403 21:40:08.495309 23820 net.cpp:91] Creating Layer inception_4c/relu_1x1
I0403 21:40:08.495326 23820 net.cpp:425] inception_4c/relu_1x1 <- inception_4c/1x1
I0403 21:40:08.495347 23820 net.cpp:386] inception_4c/relu_1x1 -> inception_4c/1x1 (in-place)
I0403 21:40:08.495529 23820 net.cpp:141] Setting up inception_4c/relu_1x1
I0403 21:40:08.495556 23820 net.cpp:148] Top shape: 24 128 14 14 (602112)
I0403 21:40:08.495571 23820 net.cpp:156] Memory required for data: 1033209120
I0403 21:40:08.495587 23820 layer_factory.hpp:77] Creating layer inception_4c/3x3_reduce
I0403 21:40:08.495609 23820 net.cpp:91] Creating Layer inception_4c/3x3_reduce
I0403 21:40:08.495628 23820 net.cpp:425] inception_4c/3x3_reduce <- inception_4b/output_inception_4b/output_0_split_1
I0403 21:40:08.495650 23820 net.cpp:399] inception_4c/3x3_reduce -> inception_4c/3x3_reduce
I0403 21:40:08.497608 23820 net.cpp:141] Setting up inception_4c/3x3_reduce
I0403 21:40:08.497638 23820 net.cpp:148] Top shape: 24 128 14 14 (602112)
I0403 21:40:08.497655 23820 net.cpp:156] Memory required for data: 1035617568
I0403 21:40:08.497674 23820 layer_factory.hpp:77] Creating layer inception_4c/relu_3x3_reduce
I0403 21:40:08.497696 23820 net.cpp:91] Creating Layer inception_4c/relu_3x3_reduce
I0403 21:40:08.497714 23820 net.cpp:425] inception_4c/relu_3x3_reduce <- inception_4c/3x3_reduce
I0403 21:40:08.497732 23820 net.cpp:386] inception_4c/relu_3x3_reduce -> inception_4c/3x3_reduce (in-place)
I0403 21:40:08.498019 23820 net.cpp:141] Setting up inception_4c/relu_3x3_reduce
I0403 21:40:08.498046 23820 net.cpp:148] Top shape: 24 128 14 14 (602112)
I0403 21:40:08.498062 23820 net.cpp:156] Memory required for data: 1038026016
I0403 21:40:08.498078 23820 layer_factory.hpp:77] Creating layer inception_4c/3x3
I0403 21:40:08.498102 23820 net.cpp:91] Creating Layer inception_4c/3x3
I0403 21:40:08.498121 23820 net.cpp:425] inception_4c/3x3 <- inception_4c/3x3_reduce
I0403 21:40:08.498142 23820 net.cpp:399] inception_4c/3x3 -> inception_4c/3x3
I0403 21:40:08.501796 23820 net.cpp:141] Setting up inception_4c/3x3
I0403 21:40:08.501837 23820 net.cpp:148] Top shape: 24 256 14 14 (1204224)
I0403 21:40:08.501854 23820 net.cpp:156] Memory required for data: 1042842912
I0403 21:40:08.501888 23820 layer_factory.hpp:77] Creating layer inception_4c/relu_3x3
I0403 21:40:08.501910 23820 net.cpp:91] Creating Layer inception_4c/relu_3x3
I0403 21:40:08.501929 23820 net.cpp:425] inception_4c/relu_3x3 <- inception_4c/3x3
I0403 21:40:08.501947 23820 net.cpp:386] inception_4c/relu_3x3 -> inception_4c/3x3 (in-place)
I0403 21:40:08.502130 23820 net.cpp:141] Setting up inception_4c/relu_3x3
I0403 21:40:08.502156 23820 net.cpp:148] Top shape: 24 256 14 14 (1204224)
I0403 21:40:08.502171 23820 net.cpp:156] Memory required for data: 1047659808
I0403 21:40:08.502187 23820 layer_factory.hpp:77] Creating layer inception_4c/5x5_reduce
I0403 21:40:08.502207 23820 net.cpp:91] Creating Layer inception_4c/5x5_reduce
I0403 21:40:08.502225 23820 net.cpp:425] inception_4c/5x5_reduce <- inception_4b/output_inception_4b/output_0_split_2
I0403 21:40:08.502254 23820 net.cpp:399] inception_4c/5x5_reduce -> inception_4c/5x5_reduce
I0403 21:40:08.503348 23820 net.cpp:141] Setting up inception_4c/5x5_reduce
I0403 21:40:08.503377 23820 net.cpp:148] Top shape: 24 24 14 14 (112896)
I0403 21:40:08.503394 23820 net.cpp:156] Memory required for data: 1048111392
I0403 21:40:08.503413 23820 layer_factory.hpp:77] Creating layer inception_4c/relu_5x5_reduce
I0403 21:40:08.503435 23820 net.cpp:91] Creating Layer inception_4c/relu_5x5_reduce
I0403 21:40:08.503453 23820 net.cpp:425] inception_4c/relu_5x5_reduce <- inception_4c/5x5_reduce
I0403 21:40:08.503471 23820 net.cpp:386] inception_4c/relu_5x5_reduce -> inception_4c/5x5_reduce (in-place)
I0403 21:40:08.503656 23820 net.cpp:141] Setting up inception_4c/relu_5x5_reduce
I0403 21:40:08.503684 23820 net.cpp:148] Top shape: 24 24 14 14 (112896)
I0403 21:40:08.503700 23820 net.cpp:156] Memory required for data: 1048562976
I0403 21:40:08.503715 23820 layer_factory.hpp:77] Creating layer inception_4c/5x5
I0403 21:40:08.503738 23820 net.cpp:91] Creating Layer inception_4c/5x5
I0403 21:40:08.503756 23820 net.cpp:425] inception_4c/5x5 <- inception_4c/5x5_reduce
I0403 21:40:08.503775 23820 net.cpp:399] inception_4c/5x5 -> inception_4c/5x5
I0403 21:40:08.505013 23820 net.cpp:141] Setting up inception_4c/5x5
I0403 21:40:08.505044 23820 net.cpp:148] Top shape: 24 64 14 14 (301056)
I0403 21:40:08.505060 23820 net.cpp:156] Memory required for data: 1049767200
I0403 21:40:08.505080 23820 layer_factory.hpp:77] Creating layer inception_4c/relu_5x5
I0403 21:40:08.505100 23820 net.cpp:91] Creating Layer inception_4c/relu_5x5
I0403 21:40:08.505117 23820 net.cpp:425] inception_4c/relu_5x5 <- inception_4c/5x5
I0403 21:40:08.505136 23820 net.cpp:386] inception_4c/relu_5x5 -> inception_4c/5x5 (in-place)
I0403 21:40:08.505432 23820 net.cpp:141] Setting up inception_4c/relu_5x5
I0403 21:40:08.505461 23820 net.cpp:148] Top shape: 24 64 14 14 (301056)
I0403 21:40:08.505483 23820 net.cpp:156] Memory required for data: 1050971424
I0403 21:40:08.505499 23820 layer_factory.hpp:77] Creating layer inception_4c/pool
I0403 21:40:08.505518 23820 net.cpp:91] Creating Layer inception_4c/pool
I0403 21:40:08.505537 23820 net.cpp:425] inception_4c/pool <- inception_4b/output_inception_4b/output_0_split_3
I0403 21:40:08.505558 23820 net.cpp:399] inception_4c/pool -> inception_4c/pool
I0403 21:40:08.505625 23820 net.cpp:141] Setting up inception_4c/pool
I0403 21:40:08.505650 23820 net.cpp:148] Top shape: 24 512 14 14 (2408448)
I0403 21:40:08.505666 23820 net.cpp:156] Memory required for data: 1060605216
I0403 21:40:08.505681 23820 layer_factory.hpp:77] Creating layer inception_4c/pool_proj
I0403 21:40:08.505703 23820 net.cpp:91] Creating Layer inception_4c/pool_proj
I0403 21:40:08.505722 23820 net.cpp:425] inception_4c/pool_proj <- inception_4c/pool
I0403 21:40:08.505743 23820 net.cpp:399] inception_4c/pool_proj -> inception_4c/pool_proj
I0403 21:40:08.506961 23820 net.cpp:141] Setting up inception_4c/pool_proj
I0403 21:40:08.506989 23820 net.cpp:148] Top shape: 24 64 14 14 (301056)
I0403 21:40:08.507024 23820 net.cpp:156] Memory required for data: 1061809440
I0403 21:40:08.507045 23820 layer_factory.hpp:77] Creating layer inception_4c/relu_pool_proj
I0403 21:40:08.507066 23820 net.cpp:91] Creating Layer inception_4c/relu_pool_proj
I0403 21:40:08.507084 23820 net.cpp:425] inception_4c/relu_pool_proj <- inception_4c/pool_proj
I0403 21:40:08.507102 23820 net.cpp:386] inception_4c/relu_pool_proj -> inception_4c/pool_proj (in-place)
I0403 21:40:08.507288 23820 net.cpp:141] Setting up inception_4c/relu_pool_proj
I0403 21:40:08.507316 23820 net.cpp:148] Top shape: 24 64 14 14 (301056)
I0403 21:40:08.507333 23820 net.cpp:156] Memory required for data: 1063013664
I0403 21:40:08.507349 23820 layer_factory.hpp:77] Creating layer inception_4c/output
I0403 21:40:08.507369 23820 net.cpp:91] Creating Layer inception_4c/output
I0403 21:40:08.507385 23820 net.cpp:425] inception_4c/output <- inception_4c/1x1
I0403 21:40:08.507401 23820 net.cpp:425] inception_4c/output <- inception_4c/3x3
I0403 21:40:08.507417 23820 net.cpp:425] inception_4c/output <- inception_4c/5x5
I0403 21:40:08.507434 23820 net.cpp:425] inception_4c/output <- inception_4c/pool_proj
I0403 21:40:08.507452 23820 net.cpp:399] inception_4c/output -> inception_4c/output
I0403 21:40:08.507498 23820 net.cpp:141] Setting up inception_4c/output
I0403 21:40:08.507524 23820 net.cpp:148] Top shape: 24 512 14 14 (2408448)
I0403 21:40:08.507539 23820 net.cpp:156] Memory required for data: 1072647456
I0403 21:40:08.507555 23820 layer_factory.hpp:77] Creating layer inception_4c/output_inception_4c/output_0_split
I0403 21:40:08.507575 23820 net.cpp:91] Creating Layer inception_4c/output_inception_4c/output_0_split
I0403 21:40:08.507591 23820 net.cpp:425] inception_4c/output_inception_4c/output_0_split <- inception_4c/output
I0403 21:40:08.507611 23820 net.cpp:399] inception_4c/output_inception_4c/output_0_split -> inception_4c/output_inception_4c/output_0_split_0
I0403 21:40:08.507630 23820 net.cpp:399] inception_4c/output_inception_4c/output_0_split -> inception_4c/output_inception_4c/output_0_split_1
I0403 21:40:08.507650 23820 net.cpp:399] inception_4c/output_inception_4c/output_0_split -> inception_4c/output_inception_4c/output_0_split_2
I0403 21:40:08.507670 23820 net.cpp:399] inception_4c/output_inception_4c/output_0_split -> inception_4c/output_inception_4c/output_0_split_3
I0403 21:40:08.507757 23820 net.cpp:141] Setting up inception_4c/output_inception_4c/output_0_split
I0403 21:40:08.507781 23820 net.cpp:148] Top shape: 24 512 14 14 (2408448)
I0403 21:40:08.507798 23820 net.cpp:148] Top shape: 24 512 14 14 (2408448)
I0403 21:40:08.507815 23820 net.cpp:148] Top shape: 24 512 14 14 (2408448)
I0403 21:40:08.507832 23820 net.cpp:148] Top shape: 24 512 14 14 (2408448)
I0403 21:40:08.507845 23820 net.cpp:156] Memory required for data: 1111182624
I0403 21:40:08.507861 23820 layer_factory.hpp:77] Creating layer inception_4d/1x1
I0403 21:40:08.507884 23820 net.cpp:91] Creating Layer inception_4d/1x1
I0403 21:40:08.507902 23820 net.cpp:425] inception_4d/1x1 <- inception_4c/output_inception_4c/output_0_split_0
I0403 21:40:08.507923 23820 net.cpp:399] inception_4d/1x1 -> inception_4d/1x1
I0403 21:40:08.509313 23820 net.cpp:141] Setting up inception_4d/1x1
I0403 21:40:08.509343 23820 net.cpp:148] Top shape: 24 112 14 14 (526848)
I0403 21:40:08.509359 23820 net.cpp:156] Memory required for data: 1113290016
I0403 21:40:08.509378 23820 layer_factory.hpp:77] Creating layer inception_4d/relu_1x1
I0403 21:40:08.509398 23820 net.cpp:91] Creating Layer inception_4d/relu_1x1
I0403 21:40:08.509415 23820 net.cpp:425] inception_4d/relu_1x1 <- inception_4d/1x1
I0403 21:40:08.509435 23820 net.cpp:386] inception_4d/relu_1x1 -> inception_4d/1x1 (in-place)
I0403 21:40:08.509627 23820 net.cpp:141] Setting up inception_4d/relu_1x1
I0403 21:40:08.509654 23820 net.cpp:148] Top shape: 24 112 14 14 (526848)
I0403 21:40:08.509668 23820 net.cpp:156] Memory required for data: 1115397408
I0403 21:40:08.509685 23820 layer_factory.hpp:77] Creating layer inception_4d/3x3_reduce
I0403 21:40:08.509721 23820 net.cpp:91] Creating Layer inception_4d/3x3_reduce
I0403 21:40:08.509740 23820 net.cpp:425] inception_4d/3x3_reduce <- inception_4c/output_inception_4c/output_0_split_1
I0403 21:40:08.509763 23820 net.cpp:399] inception_4d/3x3_reduce -> inception_4d/3x3_reduce
I0403 21:40:08.511281 23820 net.cpp:141] Setting up inception_4d/3x3_reduce
I0403 21:40:08.511312 23820 net.cpp:148] Top shape: 24 144 14 14 (677376)
I0403 21:40:08.511327 23820 net.cpp:156] Memory required for data: 1118106912
I0403 21:40:08.511346 23820 layer_factory.hpp:77] Creating layer inception_4d/relu_3x3_reduce
I0403 21:40:08.511364 23820 net.cpp:91] Creating Layer inception_4d/relu_3x3_reduce
I0403 21:40:08.511380 23820 net.cpp:425] inception_4d/relu_3x3_reduce <- inception_4d/3x3_reduce
I0403 21:40:08.511400 23820 net.cpp:386] inception_4d/relu_3x3_reduce -> inception_4d/3x3_reduce (in-place)
I0403 21:40:08.511687 23820 net.cpp:141] Setting up inception_4d/relu_3x3_reduce
I0403 21:40:08.511714 23820 net.cpp:148] Top shape: 24 144 14 14 (677376)
I0403 21:40:08.511731 23820 net.cpp:156] Memory required for data: 1120816416
I0403 21:40:08.511747 23820 layer_factory.hpp:77] Creating layer inception_4d/3x3
I0403 21:40:08.511770 23820 net.cpp:91] Creating Layer inception_4d/3x3
I0403 21:40:08.511786 23820 net.cpp:425] inception_4d/3x3 <- inception_4d/3x3_reduce
I0403 21:40:08.511806 23820 net.cpp:399] inception_4d/3x3 -> inception_4d/3x3
I0403 21:40:08.516100 23820 net.cpp:141] Setting up inception_4d/3x3
I0403 21:40:08.516129 23820 net.cpp:148] Top shape: 24 288 14 14 (1354752)
I0403 21:40:08.516144 23820 net.cpp:156] Memory required for data: 1126235424
I0403 21:40:08.516163 23820 layer_factory.hpp:77] Creating layer inception_4d/relu_3x3
I0403 21:40:08.516185 23820 net.cpp:91] Creating Layer inception_4d/relu_3x3
I0403 21:40:08.516201 23820 net.cpp:425] inception_4d/relu_3x3 <- inception_4d/3x3
I0403 21:40:08.516219 23820 net.cpp:386] inception_4d/relu_3x3 -> inception_4d/3x3 (in-place)
I0403 21:40:08.516407 23820 net.cpp:141] Setting up inception_4d/relu_3x3
I0403 21:40:08.516433 23820 net.cpp:148] Top shape: 24 288 14 14 (1354752)
I0403 21:40:08.516448 23820 net.cpp:156] Memory required for data: 1131654432
I0403 21:40:08.516463 23820 layer_factory.hpp:77] Creating layer inception_4d/5x5_reduce
I0403 21:40:08.516485 23820 net.cpp:91] Creating Layer inception_4d/5x5_reduce
I0403 21:40:08.516505 23820 net.cpp:425] inception_4d/5x5_reduce <- inception_4c/output_inception_4c/output_0_split_2
I0403 21:40:08.516525 23820 net.cpp:399] inception_4d/5x5_reduce -> inception_4d/5x5_reduce
I0403 21:40:08.517678 23820 net.cpp:141] Setting up inception_4d/5x5_reduce
I0403 21:40:08.517706 23820 net.cpp:148] Top shape: 24 32 14 14 (150528)
I0403 21:40:08.517722 23820 net.cpp:156] Memory required for data: 1132256544
I0403 21:40:08.517740 23820 layer_factory.hpp:77] Creating layer inception_4d/relu_5x5_reduce
I0403 21:40:08.517760 23820 net.cpp:91] Creating Layer inception_4d/relu_5x5_reduce
I0403 21:40:08.517776 23820 net.cpp:425] inception_4d/relu_5x5_reduce <- inception_4d/5x5_reduce
I0403 21:40:08.517796 23820 net.cpp:386] inception_4d/relu_5x5_reduce -> inception_4d/5x5_reduce (in-place)
I0403 21:40:08.517987 23820 net.cpp:141] Setting up inception_4d/relu_5x5_reduce
I0403 21:40:08.518012 23820 net.cpp:148] Top shape: 24 32 14 14 (150528)
I0403 21:40:08.518026 23820 net.cpp:156] Memory required for data: 1132858656
I0403 21:40:08.518043 23820 layer_factory.hpp:77] Creating layer inception_4d/5x5
I0403 21:40:08.518064 23820 net.cpp:91] Creating Layer inception_4d/5x5
I0403 21:40:08.518082 23820 net.cpp:425] inception_4d/5x5 <- inception_4d/5x5_reduce
I0403 21:40:08.518105 23820 net.cpp:399] inception_4d/5x5 -> inception_4d/5x5
I0403 21:40:08.519624 23820 net.cpp:141] Setting up inception_4d/5x5
I0403 21:40:08.519652 23820 net.cpp:148] Top shape: 24 64 14 14 (301056)
I0403 21:40:08.519670 23820 net.cpp:156] Memory required for data: 1134062880
I0403 21:40:08.519690 23820 layer_factory.hpp:77] Creating layer inception_4d/relu_5x5
I0403 21:40:08.519722 23820 net.cpp:91] Creating Layer inception_4d/relu_5x5
I0403 21:40:08.519740 23820 net.cpp:425] inception_4d/relu_5x5 <- inception_4d/5x5
I0403 21:40:08.519758 23820 net.cpp:386] inception_4d/relu_5x5 -> inception_4d/5x5 (in-place)
I0403 21:40:08.520058 23820 net.cpp:141] Setting up inception_4d/relu_5x5
I0403 21:40:08.520087 23820 net.cpp:148] Top shape: 24 64 14 14 (301056)
I0403 21:40:08.520102 23820 net.cpp:156] Memory required for data: 1135267104
I0403 21:40:08.520118 23820 layer_factory.hpp:77] Creating layer inception_4d/pool
I0403 21:40:08.520138 23820 net.cpp:91] Creating Layer inception_4d/pool
I0403 21:40:08.520153 23820 net.cpp:425] inception_4d/pool <- inception_4c/output_inception_4c/output_0_split_3
I0403 21:40:08.520171 23820 net.cpp:399] inception_4d/pool -> inception_4d/pool
I0403 21:40:08.520243 23820 net.cpp:141] Setting up inception_4d/pool
I0403 21:40:08.520267 23820 net.cpp:148] Top shape: 24 512 14 14 (2408448)
I0403 21:40:08.520282 23820 net.cpp:156] Memory required for data: 1144900896
I0403 21:40:08.520298 23820 layer_factory.hpp:77] Creating layer inception_4d/pool_proj
I0403 21:40:08.520319 23820 net.cpp:91] Creating Layer inception_4d/pool_proj
I0403 21:40:08.520337 23820 net.cpp:425] inception_4d/pool_proj <- inception_4d/pool
I0403 21:40:08.520359 23820 net.cpp:399] inception_4d/pool_proj -> inception_4d/pool_proj
I0403 21:40:08.522138 23820 net.cpp:141] Setting up inception_4d/pool_proj
I0403 21:40:08.522167 23820 net.cpp:148] Top shape: 24 64 14 14 (301056)
I0403 21:40:08.522184 23820 net.cpp:156] Memory required for data: 1146105120
I0403 21:40:08.522203 23820 layer_factory.hpp:77] Creating layer inception_4d/relu_pool_proj
I0403 21:40:08.522224 23820 net.cpp:91] Creating Layer inception_4d/relu_pool_proj
I0403 21:40:08.522246 23820 net.cpp:425] inception_4d/relu_pool_proj <- inception_4d/pool_proj
I0403 21:40:08.522264 23820 net.cpp:386] inception_4d/relu_pool_proj -> inception_4d/pool_proj (in-place)
I0403 21:40:08.522449 23820 net.cpp:141] Setting up inception_4d/relu_pool_proj
I0403 21:40:08.522475 23820 net.cpp:148] Top shape: 24 64 14 14 (301056)
I0403 21:40:08.522490 23820 net.cpp:156] Memory required for data: 1147309344
I0403 21:40:08.522505 23820 layer_factory.hpp:77] Creating layer inception_4d/output
I0403 21:40:08.522526 23820 net.cpp:91] Creating Layer inception_4d/output
I0403 21:40:08.522542 23820 net.cpp:425] inception_4d/output <- inception_4d/1x1
I0403 21:40:08.522559 23820 net.cpp:425] inception_4d/output <- inception_4d/3x3
I0403 21:40:08.522577 23820 net.cpp:425] inception_4d/output <- inception_4d/5x5
I0403 21:40:08.522593 23820 net.cpp:425] inception_4d/output <- inception_4d/pool_proj
I0403 21:40:08.522609 23820 net.cpp:399] inception_4d/output -> inception_4d/output
I0403 21:40:08.522660 23820 net.cpp:141] Setting up inception_4d/output
I0403 21:40:08.522682 23820 net.cpp:148] Top shape: 24 528 14 14 (2483712)
I0403 21:40:08.522697 23820 net.cpp:156] Memory required for data: 1157244192
I0403 21:40:08.522712 23820 layer_factory.hpp:77] Creating layer inception_4d/output_inception_4d/output_0_split
I0403 21:40:08.522730 23820 net.cpp:91] Creating Layer inception_4d/output_inception_4d/output_0_split
I0403 21:40:08.522747 23820 net.cpp:425] inception_4d/output_inception_4d/output_0_split <- inception_4d/output
I0403 21:40:08.522768 23820 net.cpp:399] inception_4d/output_inception_4d/output_0_split -> inception_4d/output_inception_4d/output_0_split_0
I0403 21:40:08.522789 23820 net.cpp:399] inception_4d/output_inception_4d/output_0_split -> inception_4d/output_inception_4d/output_0_split_1
I0403 21:40:08.522809 23820 net.cpp:399] inception_4d/output_inception_4d/output_0_split -> inception_4d/output_inception_4d/output_0_split_2
I0403 21:40:08.522830 23820 net.cpp:399] inception_4d/output_inception_4d/output_0_split -> inception_4d/output_inception_4d/output_0_split_3
I0403 21:40:08.522853 23820 net.cpp:399] inception_4d/output_inception_4d/output_0_split -> inception_4d/output_inception_4d/output_0_split_4
I0403 21:40:08.522958 23820 net.cpp:141] Setting up inception_4d/output_inception_4d/output_0_split
I0403 21:40:08.522992 23820 net.cpp:148] Top shape: 24 528 14 14 (2483712)
I0403 21:40:08.523010 23820 net.cpp:148] Top shape: 24 528 14 14 (2483712)
I0403 21:40:08.523026 23820 net.cpp:148] Top shape: 24 528 14 14 (2483712)
I0403 21:40:08.523042 23820 net.cpp:148] Top shape: 24 528 14 14 (2483712)
I0403 21:40:08.523058 23820 net.cpp:148] Top shape: 24 528 14 14 (2483712)
I0403 21:40:08.523073 23820 net.cpp:156] Memory required for data: 1206918432
I0403 21:40:08.523088 23820 layer_factory.hpp:77] Creating layer loss2/ave_pool
I0403 21:40:08.523107 23820 net.cpp:91] Creating Layer loss2/ave_pool
I0403 21:40:08.523123 23820 net.cpp:425] loss2/ave_pool <- inception_4d/output_inception_4d/output_0_split_0
I0403 21:40:08.523144 23820 net.cpp:399] loss2/ave_pool -> loss2/ave_pool
I0403 21:40:08.523460 23820 net.cpp:141] Setting up loss2/ave_pool
I0403 21:40:08.523486 23820 net.cpp:148] Top shape: 24 528 4 4 (202752)
I0403 21:40:08.523502 23820 net.cpp:156] Memory required for data: 1207729440
I0403 21:40:08.523517 23820 layer_factory.hpp:77] Creating layer loss2/conv
I0403 21:40:08.523540 23820 net.cpp:91] Creating Layer loss2/conv
I0403 21:40:08.523558 23820 net.cpp:425] loss2/conv <- loss2/ave_pool
I0403 21:40:08.523579 23820 net.cpp:399] loss2/conv -> loss2/conv
I0403 21:40:08.525499 23820 net.cpp:141] Setting up loss2/conv
I0403 21:40:08.525528 23820 net.cpp:148] Top shape: 24 128 4 4 (49152)
I0403 21:40:08.525544 23820 net.cpp:156] Memory required for data: 1207926048
I0403 21:40:08.525563 23820 layer_factory.hpp:77] Creating layer loss2/relu_conv
I0403 21:40:08.525584 23820 net.cpp:91] Creating Layer loss2/relu_conv
I0403 21:40:08.525601 23820 net.cpp:425] loss2/relu_conv <- loss2/conv
I0403 21:40:08.525619 23820 net.cpp:386] loss2/relu_conv -> loss2/conv (in-place)
I0403 21:40:08.525905 23820 net.cpp:141] Setting up loss2/relu_conv
I0403 21:40:08.525933 23820 net.cpp:148] Top shape: 24 128 4 4 (49152)
I0403 21:40:08.525948 23820 net.cpp:156] Memory required for data: 1208122656
I0403 21:40:08.525964 23820 layer_factory.hpp:77] Creating layer loss2/fc
I0403 21:40:08.525985 23820 net.cpp:91] Creating Layer loss2/fc
I0403 21:40:08.526001 23820 net.cpp:425] loss2/fc <- loss2/conv
I0403 21:40:08.526023 23820 net.cpp:399] loss2/fc -> loss2/fc
I0403 21:40:08.543808 23820 net.cpp:141] Setting up loss2/fc
I0403 21:40:08.543840 23820 net.cpp:148] Top shape: 24 1024 (24576)
I0403 21:40:08.543856 23820 net.cpp:156] Memory required for data: 1208220960
I0403 21:40:08.543875 23820 layer_factory.hpp:77] Creating layer loss2/relu_fc
I0403 21:40:08.543894 23820 net.cpp:91] Creating Layer loss2/relu_fc
I0403 21:40:08.543910 23820 net.cpp:425] loss2/relu_fc <- loss2/fc
I0403 21:40:08.543931 23820 net.cpp:386] loss2/relu_fc -> loss2/fc (in-place)
I0403 21:40:08.544236 23820 net.cpp:141] Setting up loss2/relu_fc
I0403 21:40:08.544262 23820 net.cpp:148] Top shape: 24 1024 (24576)
I0403 21:40:08.544278 23820 net.cpp:156] Memory required for data: 1208319264
I0403 21:40:08.544294 23820 layer_factory.hpp:77] Creating layer loss2/drop_fc
I0403 21:40:08.544312 23820 net.cpp:91] Creating Layer loss2/drop_fc
I0403 21:40:08.544328 23820 net.cpp:425] loss2/drop_fc <- loss2/fc
I0403 21:40:08.544348 23820 net.cpp:386] loss2/drop_fc -> loss2/fc (in-place)
I0403 21:40:08.544402 23820 net.cpp:141] Setting up loss2/drop_fc
I0403 21:40:08.544425 23820 net.cpp:148] Top shape: 24 1024 (24576)
I0403 21:40:08.544440 23820 net.cpp:156] Memory required for data: 1208417568
I0403 21:40:08.544455 23820 layer_factory.hpp:77] Creating layer loss2/classifier_plantvillage
I0403 21:40:08.544474 23820 net.cpp:91] Creating Layer loss2/classifier_plantvillage
I0403 21:40:08.544491 23820 net.cpp:425] loss2/classifier_plantvillage <- loss2/fc
I0403 21:40:08.544512 23820 net.cpp:399] loss2/classifier_plantvillage -> loss2/classifier_plantvillage
I0403 21:40:08.544915 23820 net.cpp:141] Setting up loss2/classifier_plantvillage
I0403 21:40:08.544940 23820 net.cpp:148] Top shape: 24 38 (912)
I0403 21:40:08.544973 23820 net.cpp:156] Memory required for data: 1208421216
I0403 21:40:08.544992 23820 layer_factory.hpp:77] Creating layer loss2/classifier_plantvillage_loss2/classifier_plantvillage_0_split
I0403 21:40:08.545013 23820 net.cpp:91] Creating Layer loss2/classifier_plantvillage_loss2/classifier_plantvillage_0_split
I0403 21:40:08.545029 23820 net.cpp:425] loss2/classifier_plantvillage_loss2/classifier_plantvillage_0_split <- loss2/classifier_plantvillage
I0403 21:40:08.545050 23820 net.cpp:399] loss2/classifier_plantvillage_loss2/classifier_plantvillage_0_split -> loss2/classifier_plantvillage_loss2/classifier_plantvillage_0_split_0
I0403 21:40:08.545073 23820 net.cpp:399] loss2/classifier_plantvillage_loss2/classifier_plantvillage_0_split -> loss2/classifier_plantvillage_loss2/classifier_plantvillage_0_split_1
I0403 21:40:08.545092 23820 net.cpp:399] loss2/classifier_plantvillage_loss2/classifier_plantvillage_0_split -> loss2/classifier_plantvillage_loss2/classifier_plantvillage_0_split_2
I0403 21:40:08.545169 23820 net.cpp:141] Setting up loss2/classifier_plantvillage_loss2/classifier_plantvillage_0_split
I0403 21:40:08.545199 23820 net.cpp:148] Top shape: 24 38 (912)
I0403 21:40:08.545215 23820 net.cpp:148] Top shape: 24 38 (912)
I0403 21:40:08.545234 23820 net.cpp:148] Top shape: 24 38 (912)
I0403 21:40:08.545249 23820 net.cpp:156] Memory required for data: 1208432160
I0403 21:40:08.545265 23820 layer_factory.hpp:77] Creating layer inception_4e/1x1
I0403 21:40:08.545287 23820 net.cpp:91] Creating Layer inception_4e/1x1
I0403 21:40:08.545305 23820 net.cpp:425] inception_4e/1x1 <- inception_4d/output_inception_4d/output_0_split_1
I0403 21:40:08.545325 23820 net.cpp:399] inception_4e/1x1 -> inception_4e/1x1
I0403 21:40:08.547144 23820 net.cpp:141] Setting up inception_4e/1x1
I0403 21:40:08.547174 23820 net.cpp:148] Top shape: 24 256 14 14 (1204224)
I0403 21:40:08.547191 23820 net.cpp:156] Memory required for data: 1213249056
I0403 21:40:08.547210 23820 layer_factory.hpp:77] Creating layer inception_4e/relu_1x1
I0403 21:40:08.547231 23820 net.cpp:91] Creating Layer inception_4e/relu_1x1
I0403 21:40:08.547250 23820 net.cpp:425] inception_4e/relu_1x1 <- inception_4e/1x1
I0403 21:40:08.547267 23820 net.cpp:386] inception_4e/relu_1x1 -> inception_4e/1x1 (in-place)
I0403 21:40:08.547567 23820 net.cpp:141] Setting up inception_4e/relu_1x1
I0403 21:40:08.547595 23820 net.cpp:148] Top shape: 24 256 14 14 (1204224)
I0403 21:40:08.547611 23820 net.cpp:156] Memory required for data: 1218065952
I0403 21:40:08.547626 23820 layer_factory.hpp:77] Creating layer inception_4e/3x3_reduce
I0403 21:40:08.547649 23820 net.cpp:91] Creating Layer inception_4e/3x3_reduce
I0403 21:40:08.547667 23820 net.cpp:425] inception_4e/3x3_reduce <- inception_4d/output_inception_4d/output_0_split_2
I0403 21:40:08.547686 23820 net.cpp:399] inception_4e/3x3_reduce -> inception_4e/3x3_reduce
I0403 21:40:08.549828 23820 net.cpp:141] Setting up inception_4e/3x3_reduce
I0403 21:40:08.549856 23820 net.cpp:148] Top shape: 24 160 14 14 (752640)
I0403 21:40:08.549872 23820 net.cpp:156] Memory required for data: 1221076512
I0403 21:40:08.549891 23820 layer_factory.hpp:77] Creating layer inception_4e/relu_3x3_reduce
I0403 21:40:08.549911 23820 net.cpp:91] Creating Layer inception_4e/relu_3x3_reduce
I0403 21:40:08.549928 23820 net.cpp:425] inception_4e/relu_3x3_reduce <- inception_4e/3x3_reduce
I0403 21:40:08.549945 23820 net.cpp:386] inception_4e/relu_3x3_reduce -> inception_4e/3x3_reduce (in-place)
I0403 21:40:08.550132 23820 net.cpp:141] Setting up inception_4e/relu_3x3_reduce
I0403 21:40:08.550158 23820 net.cpp:148] Top shape: 24 160 14 14 (752640)
I0403 21:40:08.550173 23820 net.cpp:156] Memory required for data: 1224087072
I0403 21:40:08.550189 23820 layer_factory.hpp:77] Creating layer inception_4e/3x3
I0403 21:40:08.550210 23820 net.cpp:91] Creating Layer inception_4e/3x3
I0403 21:40:08.550230 23820 net.cpp:425] inception_4e/3x3 <- inception_4e/3x3_reduce
I0403 21:40:08.550254 23820 net.cpp:399] inception_4e/3x3 -> inception_4e/3x3
I0403 21:40:08.555331 23820 net.cpp:141] Setting up inception_4e/3x3
I0403 21:40:08.555373 23820 net.cpp:148] Top shape: 24 320 14 14 (1505280)
I0403 21:40:08.555389 23820 net.cpp:156] Memory required for data: 1230108192
I0403 21:40:08.555408 23820 layer_factory.hpp:77] Creating layer inception_4e/relu_3x3
I0403 21:40:08.555426 23820 net.cpp:91] Creating Layer inception_4e/relu_3x3
I0403 21:40:08.555444 23820 net.cpp:425] inception_4e/relu_3x3 <- inception_4e/3x3
I0403 21:40:08.555462 23820 net.cpp:386] inception_4e/relu_3x3 -> inception_4e/3x3 (in-place)
I0403 21:40:08.555763 23820 net.cpp:141] Setting up inception_4e/relu_3x3
I0403 21:40:08.555788 23820 net.cpp:148] Top shape: 24 320 14 14 (1505280)
I0403 21:40:08.555804 23820 net.cpp:156] Memory required for data: 1236129312
I0403 21:40:08.555819 23820 layer_factory.hpp:77] Creating layer inception_4e/5x5_reduce
I0403 21:40:08.555842 23820 net.cpp:91] Creating Layer inception_4e/5x5_reduce
I0403 21:40:08.555860 23820 net.cpp:425] inception_4e/5x5_reduce <- inception_4d/output_inception_4d/output_0_split_3
I0403 21:40:08.555882 23820 net.cpp:399] inception_4e/5x5_reduce -> inception_4e/5x5_reduce
I0403 21:40:08.556954 23820 net.cpp:141] Setting up inception_4e/5x5_reduce
I0403 21:40:08.556982 23820 net.cpp:148] Top shape: 24 32 14 14 (150528)
I0403 21:40:08.557000 23820 net.cpp:156] Memory required for data: 1236731424
I0403 21:40:08.557019 23820 layer_factory.hpp:77] Creating layer inception_4e/relu_5x5_reduce
I0403 21:40:08.557039 23820 net.cpp:91] Creating Layer inception_4e/relu_5x5_reduce
I0403 21:40:08.557055 23820 net.cpp:425] inception_4e/relu_5x5_reduce <- inception_4e/5x5_reduce
I0403 21:40:08.557072 23820 net.cpp:386] inception_4e/relu_5x5_reduce -> inception_4e/5x5_reduce (in-place)
I0403 21:40:08.557371 23820 net.cpp:141] Setting up inception_4e/relu_5x5_reduce
I0403 21:40:08.557397 23820 net.cpp:148] Top shape: 24 32 14 14 (150528)
I0403 21:40:08.557415 23820 net.cpp:156] Memory required for data: 1237333536
I0403 21:40:08.557430 23820 layer_factory.hpp:77] Creating layer inception_4e/5x5
I0403 21:40:08.557467 23820 net.cpp:91] Creating Layer inception_4e/5x5
I0403 21:40:08.557487 23820 net.cpp:425] inception_4e/5x5 <- inception_4e/5x5_reduce
I0403 21:40:08.557508 23820 net.cpp:399] inception_4e/5x5 -> inception_4e/5x5
I0403 21:40:08.559367 23820 net.cpp:141] Setting up inception_4e/5x5
I0403 21:40:08.559396 23820 net.cpp:148] Top shape: 24 128 14 14 (602112)
I0403 21:40:08.559411 23820 net.cpp:156] Memory required for data: 1239741984
I0403 21:40:08.559429 23820 layer_factory.hpp:77] Creating layer inception_4e/relu_5x5
I0403 21:40:08.559450 23820 net.cpp:91] Creating Layer inception_4e/relu_5x5
I0403 21:40:08.559468 23820 net.cpp:425] inception_4e/relu_5x5 <- inception_4e/5x5
I0403 21:40:08.559486 23820 net.cpp:386] inception_4e/relu_5x5 -> inception_4e/5x5 (in-place)
I0403 21:40:08.559682 23820 net.cpp:141] Setting up inception_4e/relu_5x5
I0403 21:40:08.559707 23820 net.cpp:148] Top shape: 24 128 14 14 (602112)
I0403 21:40:08.559722 23820 net.cpp:156] Memory required for data: 1242150432
I0403 21:40:08.559737 23820 layer_factory.hpp:77] Creating layer inception_4e/pool
I0403 21:40:08.559757 23820 net.cpp:91] Creating Layer inception_4e/pool
I0403 21:40:08.559775 23820 net.cpp:425] inception_4e/pool <- inception_4d/output_inception_4d/output_0_split_4
I0403 21:40:08.559792 23820 net.cpp:399] inception_4e/pool -> inception_4e/pool
I0403 21:40:08.559864 23820 net.cpp:141] Setting up inception_4e/pool
I0403 21:40:08.559887 23820 net.cpp:148] Top shape: 24 528 14 14 (2483712)
I0403 21:40:08.559903 23820 net.cpp:156] Memory required for data: 1252085280
I0403 21:40:08.559918 23820 layer_factory.hpp:77] Creating layer inception_4e/pool_proj
I0403 21:40:08.559940 23820 net.cpp:91] Creating Layer inception_4e/pool_proj
I0403 21:40:08.559960 23820 net.cpp:425] inception_4e/pool_proj <- inception_4e/pool
I0403 21:40:08.559981 23820 net.cpp:399] inception_4e/pool_proj -> inception_4e/pool_proj
I0403 21:40:08.561498 23820 net.cpp:141] Setting up inception_4e/pool_proj
I0403 21:40:08.561537 23820 net.cpp:148] Top shape: 24 128 14 14 (602112)
I0403 21:40:08.561553 23820 net.cpp:156] Memory required for data: 1254493728
I0403 21:40:08.561571 23820 layer_factory.hpp:77] Creating layer inception_4e/relu_pool_proj
I0403 21:40:08.561592 23820 net.cpp:91] Creating Layer inception_4e/relu_pool_proj
I0403 21:40:08.561610 23820 net.cpp:425] inception_4e/relu_pool_proj <- inception_4e/pool_proj
I0403 21:40:08.561627 23820 net.cpp:386] inception_4e/relu_pool_proj -> inception_4e/pool_proj (in-place)
I0403 21:40:08.561919 23820 net.cpp:141] Setting up inception_4e/relu_pool_proj
I0403 21:40:08.561945 23820 net.cpp:148] Top shape: 24 128 14 14 (602112)
I0403 21:40:08.561962 23820 net.cpp:156] Memory required for data: 1256902176
I0403 21:40:08.561977 23820 layer_factory.hpp:77] Creating layer inception_4e/output
I0403 21:40:08.561995 23820 net.cpp:91] Creating Layer inception_4e/output
I0403 21:40:08.562011 23820 net.cpp:425] inception_4e/output <- inception_4e/1x1
I0403 21:40:08.562027 23820 net.cpp:425] inception_4e/output <- inception_4e/3x3
I0403 21:40:08.562047 23820 net.cpp:425] inception_4e/output <- inception_4e/5x5
I0403 21:40:08.562062 23820 net.cpp:425] inception_4e/output <- inception_4e/pool_proj
I0403 21:40:08.562079 23820 net.cpp:399] inception_4e/output -> inception_4e/output
I0403 21:40:08.562129 23820 net.cpp:141] Setting up inception_4e/output
I0403 21:40:08.562153 23820 net.cpp:148] Top shape: 24 832 14 14 (3913728)
I0403 21:40:08.562170 23820 net.cpp:156] Memory required for data: 1272557088
I0403 21:40:08.562185 23820 layer_factory.hpp:77] Creating layer pool4/3x3_s2
I0403 21:40:08.562202 23820 net.cpp:91] Creating Layer pool4/3x3_s2
I0403 21:40:08.562218 23820 net.cpp:425] pool4/3x3_s2 <- inception_4e/output
I0403 21:40:08.562244 23820 net.cpp:399] pool4/3x3_s2 -> pool4/3x3_s2
I0403 21:40:08.562312 23820 net.cpp:141] Setting up pool4/3x3_s2
I0403 21:40:08.562335 23820 net.cpp:148] Top shape: 24 832 7 7 (978432)
I0403 21:40:08.562350 23820 net.cpp:156] Memory required for data: 1276470816
I0403 21:40:08.562366 23820 layer_factory.hpp:77] Creating layer pool4/3x3_s2_pool4/3x3_s2_0_split
I0403 21:40:08.562388 23820 net.cpp:91] Creating Layer pool4/3x3_s2_pool4/3x3_s2_0_split
I0403 21:40:08.562405 23820 net.cpp:425] pool4/3x3_s2_pool4/3x3_s2_0_split <- pool4/3x3_s2
I0403 21:40:08.562423 23820 net.cpp:399] pool4/3x3_s2_pool4/3x3_s2_0_split -> pool4/3x3_s2_pool4/3x3_s2_0_split_0
I0403 21:40:08.562444 23820 net.cpp:399] pool4/3x3_s2_pool4/3x3_s2_0_split -> pool4/3x3_s2_pool4/3x3_s2_0_split_1
I0403 21:40:08.562463 23820 net.cpp:399] pool4/3x3_s2_pool4/3x3_s2_0_split -> pool4/3x3_s2_pool4/3x3_s2_0_split_2
I0403 21:40:08.562486 23820 net.cpp:399] pool4/3x3_s2_pool4/3x3_s2_0_split -> pool4/3x3_s2_pool4/3x3_s2_0_split_3
I0403 21:40:08.562578 23820 net.cpp:141] Setting up pool4/3x3_s2_pool4/3x3_s2_0_split
I0403 21:40:08.562602 23820 net.cpp:148] Top shape: 24 832 7 7 (978432)
I0403 21:40:08.562618 23820 net.cpp:148] Top shape: 24 832 7 7 (978432)
I0403 21:40:08.562634 23820 net.cpp:148] Top shape: 24 832 7 7 (978432)
I0403 21:40:08.562650 23820 net.cpp:148] Top shape: 24 832 7 7 (978432)
I0403 21:40:08.562664 23820 net.cpp:156] Memory required for data: 1292125728
I0403 21:40:08.562680 23820 layer_factory.hpp:77] Creating layer inception_5a/1x1
I0403 21:40:08.562701 23820 net.cpp:91] Creating Layer inception_5a/1x1
I0403 21:40:08.562719 23820 net.cpp:425] inception_5a/1x1 <- pool4/3x3_s2_pool4/3x3_s2_0_split_0
I0403 21:40:08.562741 23820 net.cpp:399] inception_5a/1x1 -> inception_5a/1x1
I0403 21:40:08.565603 23820 net.cpp:141] Setting up inception_5a/1x1
I0403 21:40:08.565630 23820 net.cpp:148] Top shape: 24 256 7 7 (301056)
I0403 21:40:08.565646 23820 net.cpp:156] Memory required for data: 1293329952
I0403 21:40:08.565665 23820 layer_factory.hpp:77] Creating layer inception_5a/relu_1x1
I0403 21:40:08.565685 23820 net.cpp:91] Creating Layer inception_5a/relu_1x1
I0403 21:40:08.565702 23820 net.cpp:425] inception_5a/relu_1x1 <- inception_5a/1x1
I0403 21:40:08.565719 23820 net.cpp:386] inception_5a/relu_1x1 -> inception_5a/1x1 (in-place)
I0403 21:40:08.566033 23820 net.cpp:141] Setting up inception_5a/relu_1x1
I0403 21:40:08.566059 23820 net.cpp:148] Top shape: 24 256 7 7 (301056)
I0403 21:40:08.566076 23820 net.cpp:156] Memory required for data: 1294534176
I0403 21:40:08.566090 23820 layer_factory.hpp:77] Creating layer inception_5a/3x3_reduce
I0403 21:40:08.566112 23820 net.cpp:91] Creating Layer inception_5a/3x3_reduce
I0403 21:40:08.566130 23820 net.cpp:425] inception_5a/3x3_reduce <- pool4/3x3_s2_pool4/3x3_s2_0_split_1
I0403 21:40:08.566153 23820 net.cpp:399] inception_5a/3x3_reduce -> inception_5a/3x3_reduce
I0403 21:40:08.568650 23820 net.cpp:141] Setting up inception_5a/3x3_reduce
I0403 21:40:08.568678 23820 net.cpp:148] Top shape: 24 160 7 7 (188160)
I0403 21:40:08.568694 23820 net.cpp:156] Memory required for data: 1295286816
I0403 21:40:08.568712 23820 layer_factory.hpp:77] Creating layer inception_5a/relu_3x3_reduce
I0403 21:40:08.568732 23820 net.cpp:91] Creating Layer inception_5a/relu_3x3_reduce
I0403 21:40:08.568749 23820 net.cpp:425] inception_5a/relu_3x3_reduce <- inception_5a/3x3_reduce
I0403 21:40:08.568769 23820 net.cpp:386] inception_5a/relu_3x3_reduce -> inception_5a/3x3_reduce (in-place)
I0403 21:40:08.568956 23820 net.cpp:141] Setting up inception_5a/relu_3x3_reduce
I0403 21:40:08.568981 23820 net.cpp:148] Top shape: 24 160 7 7 (188160)
I0403 21:40:08.568996 23820 net.cpp:156] Memory required for data: 1296039456
I0403 21:40:08.569011 23820 layer_factory.hpp:77] Creating layer inception_5a/3x3
I0403 21:40:08.569041 23820 net.cpp:91] Creating Layer inception_5a/3x3
I0403 21:40:08.569058 23820 net.cpp:425] inception_5a/3x3 <- inception_5a/3x3_reduce
I0403 21:40:08.569082 23820 net.cpp:399] inception_5a/3x3 -> inception_5a/3x3
I0403 21:40:08.574079 23820 net.cpp:141] Setting up inception_5a/3x3
I0403 21:40:08.574107 23820 net.cpp:148] Top shape: 24 320 7 7 (376320)
I0403 21:40:08.574123 23820 net.cpp:156] Memory required for data: 1297544736
I0403 21:40:08.574141 23820 layer_factory.hpp:77] Creating layer inception_5a/relu_3x3
I0403 21:40:08.574162 23820 net.cpp:91] Creating Layer inception_5a/relu_3x3
I0403 21:40:08.574178 23820 net.cpp:425] inception_5a/relu_3x3 <- inception_5a/3x3
I0403 21:40:08.574198 23820 net.cpp:386] inception_5a/relu_3x3 -> inception_5a/3x3 (in-place)
I0403 21:40:08.574492 23820 net.cpp:141] Setting up inception_5a/relu_3x3
I0403 21:40:08.574517 23820 net.cpp:148] Top shape: 24 320 7 7 (376320)
I0403 21:40:08.574532 23820 net.cpp:156] Memory required for data: 1299050016
I0403 21:40:08.574548 23820 layer_factory.hpp:77] Creating layer inception_5a/5x5_reduce
I0403 21:40:08.574570 23820 net.cpp:91] Creating Layer inception_5a/5x5_reduce
I0403 21:40:08.574587 23820 net.cpp:425] inception_5a/5x5_reduce <- pool4/3x3_s2_pool4/3x3_s2_0_split_2
I0403 21:40:08.574609 23820 net.cpp:399] inception_5a/5x5_reduce -> inception_5a/5x5_reduce
I0403 21:40:08.575753 23820 net.cpp:141] Setting up inception_5a/5x5_reduce
I0403 21:40:08.575780 23820 net.cpp:148] Top shape: 24 32 7 7 (37632)
I0403 21:40:08.575796 23820 net.cpp:156] Memory required for data: 1299200544
I0403 21:40:08.575814 23820 layer_factory.hpp:77] Creating layer inception_5a/relu_5x5_reduce
I0403 21:40:08.575835 23820 net.cpp:91] Creating Layer inception_5a/relu_5x5_reduce
I0403 21:40:08.575852 23820 net.cpp:425] inception_5a/relu_5x5_reduce <- inception_5a/5x5_reduce
I0403 21:40:08.575870 23820 net.cpp:386] inception_5a/relu_5x5_reduce -> inception_5a/5x5_reduce (in-place)
I0403 21:40:08.576164 23820 net.cpp:141] Setting up inception_5a/relu_5x5_reduce
I0403 21:40:08.576189 23820 net.cpp:148] Top shape: 24 32 7 7 (37632)
I0403 21:40:08.576203 23820 net.cpp:156] Memory required for data: 1299351072
I0403 21:40:08.576218 23820 layer_factory.hpp:77] Creating layer inception_5a/5x5
I0403 21:40:08.576247 23820 net.cpp:91] Creating Layer inception_5a/5x5
I0403 21:40:08.576266 23820 net.cpp:425] inception_5a/5x5 <- inception_5a/5x5_reduce
I0403 21:40:08.576284 23820 net.cpp:399] inception_5a/5x5 -> inception_5a/5x5
I0403 21:40:08.577986 23820 net.cpp:141] Setting up inception_5a/5x5
I0403 21:40:08.578024 23820 net.cpp:148] Top shape: 24 128 7 7 (150528)
I0403 21:40:08.578042 23820 net.cpp:156] Memory required for data: 1299953184
I0403 21:40:08.578059 23820 layer_factory.hpp:77] Creating layer inception_5a/relu_5x5
I0403 21:40:08.578079 23820 net.cpp:91] Creating Layer inception_5a/relu_5x5
I0403 21:40:08.578095 23820 net.cpp:425] inception_5a/relu_5x5 <- inception_5a/5x5
I0403 21:40:08.578112 23820 net.cpp:386] inception_5a/relu_5x5 -> inception_5a/5x5 (in-place)
I0403 21:40:08.578310 23820 net.cpp:141] Setting up inception_5a/relu_5x5
I0403 21:40:08.578337 23820 net.cpp:148] Top shape: 24 128 7 7 (150528)
I0403 21:40:08.578352 23820 net.cpp:156] Memory required for data: 1300555296
I0403 21:40:08.578367 23820 layer_factory.hpp:77] Creating layer inception_5a/pool
I0403 21:40:08.578385 23820 net.cpp:91] Creating Layer inception_5a/pool
I0403 21:40:08.578402 23820 net.cpp:425] inception_5a/pool <- pool4/3x3_s2_pool4/3x3_s2_0_split_3
I0403 21:40:08.578421 23820 net.cpp:399] inception_5a/pool -> inception_5a/pool
I0403 21:40:08.578498 23820 net.cpp:141] Setting up inception_5a/pool
I0403 21:40:08.578522 23820 net.cpp:148] Top shape: 24 832 7 7 (978432)
I0403 21:40:08.578537 23820 net.cpp:156] Memory required for data: 1304469024
I0403 21:40:08.578552 23820 layer_factory.hpp:77] Creating layer inception_5a/pool_proj
I0403 21:40:08.578572 23820 net.cpp:91] Creating Layer inception_5a/pool_proj
I0403 21:40:08.578589 23820 net.cpp:425] inception_5a/pool_proj <- inception_5a/pool
I0403 21:40:08.578610 23820 net.cpp:399] inception_5a/pool_proj -> inception_5a/pool_proj
I0403 21:40:08.580854 23820 net.cpp:141] Setting up inception_5a/pool_proj
I0403 21:40:08.580883 23820 net.cpp:148] Top shape: 24 128 7 7 (150528)
I0403 21:40:08.580899 23820 net.cpp:156] Memory required for data: 1305071136
I0403 21:40:08.580916 23820 layer_factory.hpp:77] Creating layer inception_5a/relu_pool_proj
I0403 21:40:08.580936 23820 net.cpp:91] Creating Layer inception_5a/relu_pool_proj
I0403 21:40:08.580955 23820 net.cpp:425] inception_5a/relu_pool_proj <- inception_5a/pool_proj
I0403 21:40:08.580973 23820 net.cpp:386] inception_5a/relu_pool_proj -> inception_5a/pool_proj (in-place)
I0403 21:40:08.581267 23820 net.cpp:141] Setting up inception_5a/relu_pool_proj
I0403 21:40:08.581293 23820 net.cpp:148] Top shape: 24 128 7 7 (150528)
I0403 21:40:08.581308 23820 net.cpp:156] Memory required for data: 1305673248
I0403 21:40:08.581323 23820 layer_factory.hpp:77] Creating layer inception_5a/output
I0403 21:40:08.581341 23820 net.cpp:91] Creating Layer inception_5a/output
I0403 21:40:08.581357 23820 net.cpp:425] inception_5a/output <- inception_5a/1x1
I0403 21:40:08.581374 23820 net.cpp:425] inception_5a/output <- inception_5a/3x3
I0403 21:40:08.581390 23820 net.cpp:425] inception_5a/output <- inception_5a/5x5
I0403 21:40:08.581405 23820 net.cpp:425] inception_5a/output <- inception_5a/pool_proj
I0403 21:40:08.581423 23820 net.cpp:399] inception_5a/output -> inception_5a/output
I0403 21:40:08.581472 23820 net.cpp:141] Setting up inception_5a/output
I0403 21:40:08.581498 23820 net.cpp:148] Top shape: 24 832 7 7 (978432)
I0403 21:40:08.581513 23820 net.cpp:156] Memory required for data: 1309586976
I0403 21:40:08.581527 23820 layer_factory.hpp:77] Creating layer inception_5a/output_inception_5a/output_0_split
I0403 21:40:08.581544 23820 net.cpp:91] Creating Layer inception_5a/output_inception_5a/output_0_split
I0403 21:40:08.581560 23820 net.cpp:425] inception_5a/output_inception_5a/output_0_split <- inception_5a/output
I0403 21:40:08.581578 23820 net.cpp:399] inception_5a/output_inception_5a/output_0_split -> inception_5a/output_inception_5a/output_0_split_0
I0403 21:40:08.581598 23820 net.cpp:399] inception_5a/output_inception_5a/output_0_split -> inception_5a/output_inception_5a/output_0_split_1
I0403 21:40:08.581619 23820 net.cpp:399] inception_5a/output_inception_5a/output_0_split -> inception_5a/output_inception_5a/output_0_split_2
I0403 21:40:08.581640 23820 net.cpp:399] inception_5a/output_inception_5a/output_0_split -> inception_5a/output_inception_5a/output_0_split_3
I0403 21:40:08.581750 23820 net.cpp:141] Setting up inception_5a/output_inception_5a/output_0_split
I0403 21:40:08.581773 23820 net.cpp:148] Top shape: 24 832 7 7 (978432)
I0403 21:40:08.581790 23820 net.cpp:148] Top shape: 24 832 7 7 (978432)
I0403 21:40:08.581806 23820 net.cpp:148] Top shape: 24 832 7 7 (978432)
I0403 21:40:08.581821 23820 net.cpp:148] Top shape: 24 832 7 7 (978432)
I0403 21:40:08.581835 23820 net.cpp:156] Memory required for data: 1325241888
I0403 21:40:08.581851 23820 layer_factory.hpp:77] Creating layer inception_5b/1x1
I0403 21:40:08.581873 23820 net.cpp:91] Creating Layer inception_5b/1x1
I0403 21:40:08.581890 23820 net.cpp:425] inception_5b/1x1 <- inception_5a/output_inception_5a/output_0_split_0
I0403 21:40:08.581909 23820 net.cpp:399] inception_5b/1x1 -> inception_5b/1x1
I0403 21:40:08.585597 23820 net.cpp:141] Setting up inception_5b/1x1
I0403 21:40:08.585624 23820 net.cpp:148] Top shape: 24 384 7 7 (451584)
I0403 21:40:08.585640 23820 net.cpp:156] Memory required for data: 1327048224
I0403 21:40:08.585659 23820 layer_factory.hpp:77] Creating layer inception_5b/relu_1x1
I0403 21:40:08.585676 23820 net.cpp:91] Creating Layer inception_5b/relu_1x1
I0403 21:40:08.585692 23820 net.cpp:425] inception_5b/relu_1x1 <- inception_5b/1x1
I0403 21:40:08.585712 23820 net.cpp:386] inception_5b/relu_1x1 -> inception_5b/1x1 (in-place)
I0403 21:40:08.586035 23820 net.cpp:141] Setting up inception_5b/relu_1x1
I0403 21:40:08.586061 23820 net.cpp:148] Top shape: 24 384 7 7 (451584)
I0403 21:40:08.586076 23820 net.cpp:156] Memory required for data: 1328854560
I0403 21:40:08.586091 23820 layer_factory.hpp:77] Creating layer inception_5b/3x3_reduce
I0403 21:40:08.586113 23820 net.cpp:91] Creating Layer inception_5b/3x3_reduce
I0403 21:40:08.586130 23820 net.cpp:425] inception_5b/3x3_reduce <- inception_5a/output_inception_5a/output_0_split_1
I0403 21:40:08.586153 23820 net.cpp:399] inception_5b/3x3_reduce -> inception_5b/3x3_reduce
I0403 21:40:08.588805 23820 net.cpp:141] Setting up inception_5b/3x3_reduce
I0403 21:40:08.588834 23820 net.cpp:148] Top shape: 24 192 7 7 (225792)
I0403 21:40:08.588850 23820 net.cpp:156] Memory required for data: 1329757728
I0403 21:40:08.588867 23820 layer_factory.hpp:77] Creating layer inception_5b/relu_3x3_reduce
I0403 21:40:08.588886 23820 net.cpp:91] Creating Layer inception_5b/relu_3x3_reduce
I0403 21:40:08.588901 23820 net.cpp:425] inception_5b/relu_3x3_reduce <- inception_5b/3x3_reduce
I0403 21:40:08.588922 23820 net.cpp:386] inception_5b/relu_3x3_reduce -> inception_5b/3x3_reduce (in-place)
I0403 21:40:08.589105 23820 net.cpp:141] Setting up inception_5b/relu_3x3_reduce
I0403 21:40:08.589129 23820 net.cpp:148] Top shape: 24 192 7 7 (225792)
I0403 21:40:08.589143 23820 net.cpp:156] Memory required for data: 1330660896
I0403 21:40:08.589159 23820 layer_factory.hpp:77] Creating layer inception_5b/3x3
I0403 21:40:08.589180 23820 net.cpp:91] Creating Layer inception_5b/3x3
I0403 21:40:08.589197 23820 net.cpp:425] inception_5b/3x3 <- inception_5b/3x3_reduce
I0403 21:40:08.589218 23820 net.cpp:399] inception_5b/3x3 -> inception_5b/3x3
I0403 21:40:08.595798 23820 net.cpp:141] Setting up inception_5b/3x3
I0403 21:40:08.595825 23820 net.cpp:148] Top shape: 24 384 7 7 (451584)
I0403 21:40:08.595840 23820 net.cpp:156] Memory required for data: 1332467232
I0403 21:40:08.595860 23820 layer_factory.hpp:77] Creating layer inception_5b/relu_3x3
I0403 21:40:08.595880 23820 net.cpp:91] Creating Layer inception_5b/relu_3x3
I0403 21:40:08.595896 23820 net.cpp:425] inception_5b/relu_3x3 <- inception_5b/3x3
I0403 21:40:08.595913 23820 net.cpp:386] inception_5b/relu_3x3 -> inception_5b/3x3 (in-place)
I0403 21:40:08.596204 23820 net.cpp:141] Setting up inception_5b/relu_3x3
I0403 21:40:08.596233 23820 net.cpp:148] Top shape: 24 384 7 7 (451584)
I0403 21:40:08.596249 23820 net.cpp:156] Memory required for data: 1334273568
I0403 21:40:08.596264 23820 layer_factory.hpp:77] Creating layer inception_5b/5x5_reduce
I0403 21:40:08.596304 23820 net.cpp:91] Creating Layer inception_5b/5x5_reduce
I0403 21:40:08.596323 23820 net.cpp:425] inception_5b/5x5_reduce <- inception_5a/output_inception_5a/output_0_split_2
I0403 21:40:08.596345 23820 net.cpp:399] inception_5b/5x5_reduce -> inception_5b/5x5_reduce
I0403 21:40:08.597589 23820 net.cpp:141] Setting up inception_5b/5x5_reduce
I0403 21:40:08.597615 23820 net.cpp:148] Top shape: 24 48 7 7 (56448)
I0403 21:40:08.597631 23820 net.cpp:156] Memory required for data: 1334499360
I0403 21:40:08.597650 23820 layer_factory.hpp:77] Creating layer inception_5b/relu_5x5_reduce
I0403 21:40:08.597669 23820 net.cpp:91] Creating Layer inception_5b/relu_5x5_reduce
I0403 21:40:08.597687 23820 net.cpp:425] inception_5b/relu_5x5_reduce <- inception_5b/5x5_reduce
I0403 21:40:08.597704 23820 net.cpp:386] inception_5b/relu_5x5_reduce -> inception_5b/5x5_reduce (in-place)
I0403 21:40:08.598067 23820 net.cpp:141] Setting up inception_5b/relu_5x5_reduce
I0403 21:40:08.598093 23820 net.cpp:148] Top shape: 24 48 7 7 (56448)
I0403 21:40:08.598109 23820 net.cpp:156] Memory required for data: 1334725152
I0403 21:40:08.598124 23820 layer_factory.hpp:77] Creating layer inception_5b/5x5
I0403 21:40:08.598143 23820 net.cpp:91] Creating Layer inception_5b/5x5
I0403 21:40:08.598160 23820 net.cpp:425] inception_5b/5x5 <- inception_5b/5x5_reduce
I0403 21:40:08.598177 23820 net.cpp:399] inception_5b/5x5 -> inception_5b/5x5
I0403 21:40:08.600186 23820 net.cpp:141] Setting up inception_5b/5x5
I0403 21:40:08.600214 23820 net.cpp:148] Top shape: 24 128 7 7 (150528)
I0403 21:40:08.600232 23820 net.cpp:156] Memory required for data: 1335327264
I0403 21:40:08.600251 23820 layer_factory.hpp:77] Creating layer inception_5b/relu_5x5
I0403 21:40:08.600271 23820 net.cpp:91] Creating Layer inception_5b/relu_5x5
I0403 21:40:08.600289 23820 net.cpp:425] inception_5b/relu_5x5 <- inception_5b/5x5
I0403 21:40:08.600306 23820 net.cpp:386] inception_5b/relu_5x5 -> inception_5b/5x5 (in-place)
I0403 21:40:08.600495 23820 net.cpp:141] Setting up inception_5b/relu_5x5
I0403 21:40:08.600522 23820 net.cpp:148] Top shape: 24 128 7 7 (150528)
I0403 21:40:08.600538 23820 net.cpp:156] Memory required for data: 1335929376
I0403 21:40:08.600553 23820 layer_factory.hpp:77] Creating layer inception_5b/pool
I0403 21:40:08.600569 23820 net.cpp:91] Creating Layer inception_5b/pool
I0403 21:40:08.600586 23820 net.cpp:425] inception_5b/pool <- inception_5a/output_inception_5a/output_0_split_3
I0403 21:40:08.600605 23820 net.cpp:399] inception_5b/pool -> inception_5b/pool
I0403 21:40:08.600674 23820 net.cpp:141] Setting up inception_5b/pool
I0403 21:40:08.600698 23820 net.cpp:148] Top shape: 24 832 7 7 (978432)
I0403 21:40:08.600713 23820 net.cpp:156] Memory required for data: 1339843104
I0403 21:40:08.600728 23820 layer_factory.hpp:77] Creating layer inception_5b/pool_proj
I0403 21:40:08.600749 23820 net.cpp:91] Creating Layer inception_5b/pool_proj
I0403 21:40:08.600766 23820 net.cpp:425] inception_5b/pool_proj <- inception_5b/pool
I0403 21:40:08.600786 23820 net.cpp:399] inception_5b/pool_proj -> inception_5b/pool_proj
I0403 21:40:08.603052 23820 net.cpp:141] Setting up inception_5b/pool_proj
I0403 21:40:08.603080 23820 net.cpp:148] Top shape: 24 128 7 7 (150528)
I0403 21:40:08.603096 23820 net.cpp:156] Memory required for data: 1340445216
I0403 21:40:08.603113 23820 layer_factory.hpp:77] Creating layer inception_5b/relu_pool_proj
I0403 21:40:08.603133 23820 net.cpp:91] Creating Layer inception_5b/relu_pool_proj
I0403 21:40:08.603152 23820 net.cpp:425] inception_5b/relu_pool_proj <- inception_5b/pool_proj
I0403 21:40:08.603168 23820 net.cpp:386] inception_5b/relu_pool_proj -> inception_5b/pool_proj (in-place)
I0403 21:40:08.603466 23820 net.cpp:141] Setting up inception_5b/relu_pool_proj
I0403 21:40:08.603492 23820 net.cpp:148] Top shape: 24 128 7 7 (150528)
I0403 21:40:08.603507 23820 net.cpp:156] Memory required for data: 1341047328
I0403 21:40:08.603523 23820 layer_factory.hpp:77] Creating layer inception_5b/output
I0403 21:40:08.603539 23820 net.cpp:91] Creating Layer inception_5b/output
I0403 21:40:08.603571 23820 net.cpp:425] inception_5b/output <- inception_5b/1x1
I0403 21:40:08.603590 23820 net.cpp:425] inception_5b/output <- inception_5b/3x3
I0403 21:40:08.603605 23820 net.cpp:425] inception_5b/output <- inception_5b/5x5
I0403 21:40:08.603621 23820 net.cpp:425] inception_5b/output <- inception_5b/pool_proj
I0403 21:40:08.603637 23820 net.cpp:399] inception_5b/output -> inception_5b/output
I0403 21:40:08.603688 23820 net.cpp:141] Setting up inception_5b/output
I0403 21:40:08.603713 23820 net.cpp:148] Top shape: 24 1024 7 7 (1204224)
I0403 21:40:08.603727 23820 net.cpp:156] Memory required for data: 1345864224
I0403 21:40:08.603742 23820 layer_factory.hpp:77] Creating layer pool5/7x7_s1
I0403 21:40:08.603760 23820 net.cpp:91] Creating Layer pool5/7x7_s1
I0403 21:40:08.603775 23820 net.cpp:425] pool5/7x7_s1 <- inception_5b/output
I0403 21:40:08.603795 23820 net.cpp:399] pool5/7x7_s1 -> pool5/7x7_s1
I0403 21:40:08.604006 23820 net.cpp:141] Setting up pool5/7x7_s1
I0403 21:40:08.604030 23820 net.cpp:148] Top shape: 24 1024 1 1 (24576)
I0403 21:40:08.604044 23820 net.cpp:156] Memory required for data: 1345962528
I0403 21:40:08.604059 23820 layer_factory.hpp:77] Creating layer pool5/drop_7x7_s1
I0403 21:40:08.604079 23820 net.cpp:91] Creating Layer pool5/drop_7x7_s1
I0403 21:40:08.604095 23820 net.cpp:425] pool5/drop_7x7_s1 <- pool5/7x7_s1
I0403 21:40:08.604112 23820 net.cpp:386] pool5/drop_7x7_s1 -> pool5/7x7_s1 (in-place)
I0403 21:40:08.604162 23820 net.cpp:141] Setting up pool5/drop_7x7_s1
I0403 21:40:08.604184 23820 net.cpp:148] Top shape: 24 1024 1 1 (24576)
I0403 21:40:08.604199 23820 net.cpp:156] Memory required for data: 1346060832
I0403 21:40:08.604213 23820 layer_factory.hpp:77] Creating layer loss3/classifier_plantvillage
I0403 21:40:08.604236 23820 net.cpp:91] Creating Layer loss3/classifier_plantvillage
I0403 21:40:08.604254 23820 net.cpp:425] loss3/classifier_plantvillage <- pool5/7x7_s1
I0403 21:40:08.604274 23820 net.cpp:399] loss3/classifier_plantvillage -> loss3/classifier_plantvillage
I0403 21:40:08.604689 23820 net.cpp:141] Setting up loss3/classifier_plantvillage
I0403 21:40:08.604713 23820 net.cpp:148] Top shape: 24 38 (912)
I0403 21:40:08.604727 23820 net.cpp:156] Memory required for data: 1346064480
I0403 21:40:08.604745 23820 layer_factory.hpp:77] Creating layer loss3/classifier_plantvillage_loss3/classifier_plantvillage_0_split
I0403 21:40:08.604763 23820 net.cpp:91] Creating Layer loss3/classifier_plantvillage_loss3/classifier_plantvillage_0_split
I0403 21:40:08.604779 23820 net.cpp:425] loss3/classifier_plantvillage_loss3/classifier_plantvillage_0_split <- loss3/classifier_plantvillage
I0403 21:40:08.604799 23820 net.cpp:399] loss3/classifier_plantvillage_loss3/classifier_plantvillage_0_split -> loss3/classifier_plantvillage_loss3/classifier_plantvillage_0_split_0
I0403 21:40:08.604821 23820 net.cpp:399] loss3/classifier_plantvillage_loss3/classifier_plantvillage_0_split -> loss3/classifier_plantvillage_loss3/classifier_plantvillage_0_split_1
I0403 21:40:08.604841 23820 net.cpp:399] loss3/classifier_plantvillage_loss3/classifier_plantvillage_0_split -> loss3/classifier_plantvillage_loss3/classifier_plantvillage_0_split_2
I0403 21:40:08.604861 23820 net.cpp:399] loss3/classifier_plantvillage_loss3/classifier_plantvillage_0_split -> loss3/classifier_plantvillage_loss3/classifier_plantvillage_0_split_3
I0403 21:40:08.604960 23820 net.cpp:141] Setting up loss3/classifier_plantvillage_loss3/classifier_plantvillage_0_split
I0403 21:40:08.604984 23820 net.cpp:148] Top shape: 24 38 (912)
I0403 21:40:08.605000 23820 net.cpp:148] Top shape: 24 38 (912)
I0403 21:40:08.605015 23820 net.cpp:148] Top shape: 24 38 (912)
I0403 21:40:08.605029 23820 net.cpp:148] Top shape: 24 38 (912)
I0403 21:40:08.605043 23820 net.cpp:156] Memory required for data: 1346079072
I0403 21:40:08.605057 23820 layer_factory.hpp:77] Creating layer loss1/loss
I0403 21:40:08.605082 23820 net.cpp:91] Creating Layer loss1/loss
I0403 21:40:08.605099 23820 net.cpp:425] loss1/loss <- loss1/classifier_plantvillage_loss1/classifier_plantvillage_0_split_0
I0403 21:40:08.605130 23820 net.cpp:425] loss1/loss <- label_data_1_split_0
…
