…
I0403 13:57:46.190387 12301 net.cpp:313] The NetState phase (1) differed from the phase (0) specified by a rule in layer data
I0403 13:57:46.190704 12301 net.cpp:49] Initializing net from parameters: 
state {
  phase: TEST
}
layer {
  name: "data"
  type: "Data"
  top: "data"
  top: "label"
  include {
    phase: TEST
  }
  transform_param {
    crop_size: 227
    mean_file: "/home/mohanty/data/final_dataset/lmdb/grayscale-60-40/mean.binaryproto"
  }
  data_param {
    source: "/home/mohanty/data/final_dataset/lmdb/grayscale-60-40/test_db"
    batch_size: 100
    backend: LMDB
  }
}
layer {
  name: "conv1"
  type: "Convolution"
  bottom: "data"
  top: "conv1"
  param {
    lr_mult: 1
    decay_mult: 1
  }
  param {
    lr_mult: 2
    decay_mult: 0
  }
  convolution_param {
    num_output: 96
    kernel_size: 11
    stride: 4
    weight_filler {
      type: "gaussian"
      std: 0.01
    }
    bias_filler {
      type: "constant"
      value: 0
    }
  }
}
layer {
  name: "relu1"
  type: "ReLU"
  bottom: "conv1"
  top: "conv1"
}
layer {
  name: "norm1"
  type: "LRN"
  bottom: "conv1"
  top: "norm1"
  lrn_param {
    local_size: 5
    alpha: 0.0001
    beta: 0.75
  }
}
layer {
  name: "pool1"
  type: "Pooling"
  bottom: "norm1"
  top: "pool1"
  pooling_param {
    pool: MAX
    kernel_size: 3
    stride: 2
  }
}
layer {
  name: "conv2"
  type: "Convolution"
  bottom: "pool1"
  top: "conv2"
  param {
    lr_mult: 1
    decay_mult: 1
  }
  param {
    lr_mult: 2
    decay_mult: 0
  }
  convolution_param {
    num_output: 256
    pad: 2
    kernel_size: 5
    group: 2
    weight_filler {
      type: "gaussian"
      std: 0.01
    }
    bias_filler {
      type: "constant"
      value: 0.1
    }
  }
}
layer {
  name: "relu2"
  type: "ReLU"
  bottom: "conv2"
  top: "conv2"
}
layer {
  name: "norm2"
  type: "LRN"
  bottom: "conv2"
  top: "norm2"
  lrn_param {
    local_size: 5
    alpha: 0.0001
    beta: 0.75
  }
}
layer {
  name: "pool2"
  type: "Pooling"
  bottom: "norm2"
  top: "pool2"
  pooling_param {
    pool: MAX
    kernel_size: 3
    stride: 2
  }
}
layer {
  name: "conv3"
  type: "Convolution"
  bottom: "pool2"
  top: "conv3"
  param {
    lr_mult: 1
    decay_mult: 1
  }
  param {
    lr_mult: 2
    decay_mult: 0
  }
  convolution_param {
    num_output: 384
    pad: 1
    kernel_size: 3
    weight_filler {
      type: "gaussian"
      std: 0.01
    }
    bias_filler {
      type: "constant"
      value: 0
    }
  }
}
layer {
  name: "relu3"
  type: "ReLU"
  bottom: "conv3"
  top: "conv3"
}
layer {
  name: "conv4"
  type: "Convolution"
  bottom: "conv3"
  top: "conv4"
  param {
    lr_mult: 1
    decay_mult: 1
  }
  param {
    lr_mult: 2
    decay_mult: 0
  }
  convolution_param {
    num_output: 384
    pad: 1
    kernel_size: 3
    group: 2
    weight_filler {
      type: "gaussian"
      std: 0.01
    }
    bias_filler {
      type: "constant"
      value: 0.1
    }
  }
}
layer {
  name: "relu4"
  type: "ReLU"
  bottom: "conv4"
  top: "conv4"
}
layer {
  name: "conv5"
  type: "Convolution"
  bottom: "conv4"
  top: "conv5"
  param {
    lr_mult: 1
    decay_mult: 1
  }
  param {
    lr_mult: 2
    decay_mult: 0
  }
  convolution_param {
    num_output: 256
    pad: 1
    kernel_size: 3
    group: 2
    weight_filler {
      type: "gaussian"
      std: 0.01
    }
    bias_filler {
      type: "constant"
      value: 0.1
    }
  }
}
layer {
  name: "relu5"
  type: "ReLU"
  bottom: "conv5"
  top: "conv5"
}
layer {
  name: "pool5"
  type: "Pooling"
  bottom: "conv5"
  top: "pool5"
  pooling_param {
    pool: MAX
    kernel_size: 3
    stride: 2
  }
}
layer {
  name: "fc6"
  type: "InnerProduct"
  bottom: "pool5"
  top: "fc6"
  param {
    lr_mult: 1
    decay_mult: 1
  }
  param {
    lr_mult: 2
    decay_mult: 0
  }
  inner_product_param {
    num_output: 4096
    weight_filler {
      type: "gaussian"
      std: 0.005
    }
    bias_filler {
      type: "constant"
      value: 0.1
    }
  }
}
layer {
  name: "relu6"
  type: "ReLU"
  bottom: "fc6"
  top: "fc6"
}
layer {
  name: "drop6"
  type: "Dropout"
  bottom: "fc6"
  top: "fc6"
  dropout_param {
    dropout_ratio: 0.5
  }
}
layer {
  name: "fc7"
  type: "InnerProduct"
  bottom: "fc6"
  top: "fc7"
  param {
    lr_mult: 1
    decay_mult: 1
  }
  param {
    lr_mult: 2
    decay_mult: 0
  }
  inner_product_param {
    num_output: 4096
    weight_filler {
      type: "gaussian"
      std: 0.005
    }
    bias_filler {
      type: "constant"
      value: 0.1
    }
  }
}
layer {
  name: "relu7"
  type: "ReLU"
  bottom: "fc7"
  top: "fc7"
}
layer {
  name: "drop7"
  type: "Dropout"
  bottom: "fc7"
  top: "fc7"
  dropout_param {
    dropout_ratio: 0.5
  }
}
layer {
  name: "fc8_plantvillage"
  type: "InnerProduct"
  bottom: "fc7"
  top: "fc8_plantvillage"
  param {
    lr_mult: 1
    decay_mult: 1
  }
  param {
    lr_mult: 2
    decay_mult: 0
  }
  inner_product_param {
    num_output: 38
    weight_filler {
      type: "gaussian"
      std: 0.01
    }
    bias_filler {
      type: "constant"
      value: 0
    }
  }
}
layer {
  name: "prob"
  type: "Softmax"
  bottom: "fc8_plantvillage"
  top: "prob"
  include {
    phase: TEST
  }
}
layer {
  name: "hdf5out"
  type: "HDF5Output"
  bottom: "prob"
  bottom: "label"
  include {
    phase: TEST
  }
  hdf5_output_param {
    file_name: "hdf5_dumps/iter_9425.h5"
  }
}
layer {
  name: "loss"
  type: "SoftmaxWithLoss"
  bottom: "fc8_plantvillage"
  bottom: "label"
  top: "loss"
}
layer {
  name: "accuracy"
  type: "Accuracy"
  bottom: "fc8_plantvillage"
  bottom: "label"
  top: "accuracy"
  include {
    phase: TEST
  }
}
I0403 13:57:46.191268 12301 layer_factory.hpp:77] Creating layer data
I0403 13:57:46.191934 12301 net.cpp:91] Creating Layer data
I0403 13:57:46.191967 12301 net.cpp:399] data -> data
I0403 13:57:46.192019 12301 net.cpp:399] data -> label
I0403 13:57:46.192055 12301 data_transformer.cpp:25] Loading mean file from: /home/mohanty/data/final_dataset/lmdb/grayscale-60-40/mean.binaryproto
I0403 13:57:46.194638 12304 db_lmdb.cpp:38] Opened lmdb /home/mohanty/data/final_dataset/lmdb/grayscale-60-40/test_db
I0403 13:57:46.206593 12301 data_layer.cpp:41] output data size: 100,3,227,227
I0403 13:57:46.328228 12301 net.cpp:141] Setting up data
I0403 13:57:46.328322 12301 net.cpp:148] Top shape: 100 3 227 227 (15458700)
I0403 13:57:46.328346 12301 net.cpp:148] Top shape: 100 (100)
I0403 13:57:46.328361 12301 net.cpp:156] Memory required for data: 61835200
I0403 13:57:46.328389 12301 layer_factory.hpp:77] Creating layer label_data_1_split
I0403 13:57:46.328416 12301 net.cpp:91] Creating Layer label_data_1_split
I0403 13:57:46.328434 12301 net.cpp:425] label_data_1_split <- label
I0403 13:57:46.328466 12301 net.cpp:399] label_data_1_split -> label_data_1_split_0
I0403 13:57:46.328495 12301 net.cpp:399] label_data_1_split -> label_data_1_split_1
I0403 13:57:46.328516 12301 net.cpp:399] label_data_1_split -> label_data_1_split_2
I0403 13:57:46.328580 12301 net.cpp:141] Setting up label_data_1_split
I0403 13:57:46.328609 12301 net.cpp:148] Top shape: 100 (100)
I0403 13:57:46.328627 12301 net.cpp:148] Top shape: 100 (100)
I0403 13:57:46.328644 12301 net.cpp:148] Top shape: 100 (100)
I0403 13:57:46.328657 12301 net.cpp:156] Memory required for data: 61836400
I0403 13:57:46.328671 12301 layer_factory.hpp:77] Creating layer conv1
I0403 13:57:46.328703 12301 net.cpp:91] Creating Layer conv1
I0403 13:57:46.328722 12301 net.cpp:425] conv1 <- data
I0403 13:57:46.328742 12301 net.cpp:399] conv1 -> conv1
I0403 13:57:46.470832 12301 net.cpp:141] Setting up conv1
I0403 13:57:46.470890 12301 net.cpp:148] Top shape: 100 96 55 55 (29040000)
I0403 13:57:46.470906 12301 net.cpp:156] Memory required for data: 177996400
I0403 13:57:46.470937 12301 layer_factory.hpp:77] Creating layer relu1
I0403 13:57:46.470963 12301 net.cpp:91] Creating Layer relu1
I0403 13:57:46.470981 12301 net.cpp:425] relu1 <- conv1
I0403 13:57:46.471000 12301 net.cpp:386] relu1 -> conv1 (in-place)
I0403 13:57:46.471264 12301 net.cpp:141] Setting up relu1
I0403 13:57:46.471293 12301 net.cpp:148] Top shape: 100 96 55 55 (29040000)
I0403 13:57:46.471341 12301 net.cpp:156] Memory required for data: 294156400
I0403 13:57:46.471357 12301 layer_factory.hpp:77] Creating layer norm1
I0403 13:57:46.471384 12301 net.cpp:91] Creating Layer norm1
I0403 13:57:46.471401 12301 net.cpp:425] norm1 <- conv1
I0403 13:57:46.471421 12301 net.cpp:399] norm1 -> norm1
I0403 13:57:46.471755 12301 net.cpp:141] Setting up norm1
I0403 13:57:46.471782 12301 net.cpp:148] Top shape: 100 96 55 55 (29040000)
I0403 13:57:46.471797 12301 net.cpp:156] Memory required for data: 410316400
I0403 13:57:46.471812 12301 layer_factory.hpp:77] Creating layer pool1
I0403 13:57:46.471834 12301 net.cpp:91] Creating Layer pool1
I0403 13:57:46.471850 12301 net.cpp:425] pool1 <- norm1
I0403 13:57:46.471870 12301 net.cpp:399] pool1 -> pool1
I0403 13:57:46.471938 12301 net.cpp:141] Setting up pool1
I0403 13:57:46.471963 12301 net.cpp:148] Top shape: 100 96 27 27 (6998400)
I0403 13:57:46.471978 12301 net.cpp:156] Memory required for data: 438310000
I0403 13:57:46.471993 12301 layer_factory.hpp:77] Creating layer conv2
I0403 13:57:46.472018 12301 net.cpp:91] Creating Layer conv2
I0403 13:57:46.472035 12301 net.cpp:425] conv2 <- pool1
I0403 13:57:46.472054 12301 net.cpp:399] conv2 -> conv2
I0403 13:57:46.487009 12301 net.cpp:141] Setting up conv2
I0403 13:57:46.487042 12301 net.cpp:148] Top shape: 100 256 27 27 (18662400)
I0403 13:57:46.487059 12301 net.cpp:156] Memory required for data: 512959600
I0403 13:57:46.487081 12301 layer_factory.hpp:77] Creating layer relu2
I0403 13:57:46.487098 12301 net.cpp:91] Creating Layer relu2
I0403 13:57:46.487113 12301 net.cpp:425] relu2 <- conv2
I0403 13:57:46.487133 12301 net.cpp:386] relu2 -> conv2 (in-place)
I0403 13:57:46.487486 12301 net.cpp:141] Setting up relu2
I0403 13:57:46.487514 12301 net.cpp:148] Top shape: 100 256 27 27 (18662400)
I0403 13:57:46.487529 12301 net.cpp:156] Memory required for data: 587609200
I0403 13:57:46.487543 12301 layer_factory.hpp:77] Creating layer norm2
I0403 13:57:46.487565 12301 net.cpp:91] Creating Layer norm2
I0403 13:57:46.487581 12301 net.cpp:425] norm2 <- conv2
I0403 13:57:46.487602 12301 net.cpp:399] norm2 -> norm2
I0403 13:57:46.487802 12301 net.cpp:141] Setting up norm2
I0403 13:57:46.487828 12301 net.cpp:148] Top shape: 100 256 27 27 (18662400)
I0403 13:57:46.487841 12301 net.cpp:156] Memory required for data: 662258800
I0403 13:57:46.487855 12301 layer_factory.hpp:77] Creating layer pool2
I0403 13:57:46.487872 12301 net.cpp:91] Creating Layer pool2
I0403 13:57:46.487887 12301 net.cpp:425] pool2 <- norm2
I0403 13:57:46.487905 12301 net.cpp:399] pool2 -> pool2
I0403 13:57:46.487957 12301 net.cpp:141] Setting up pool2
I0403 13:57:46.487978 12301 net.cpp:148] Top shape: 100 256 13 13 (4326400)
I0403 13:57:46.487993 12301 net.cpp:156] Memory required for data: 679564400
I0403 13:57:46.488006 12301 layer_factory.hpp:77] Creating layer conv3
I0403 13:57:46.488029 12301 net.cpp:91] Creating Layer conv3
I0403 13:57:46.488045 12301 net.cpp:425] conv3 <- pool2
I0403 13:57:46.488062 12301 net.cpp:399] conv3 -> conv3
I0403 13:57:46.532616 12301 net.cpp:141] Setting up conv3
I0403 13:57:46.532692 12301 net.cpp:148] Top shape: 100 384 13 13 (6489600)
I0403 13:57:46.532709 12301 net.cpp:156] Memory required for data: 705522800
I0403 13:57:46.532734 12301 layer_factory.hpp:77] Creating layer relu3
I0403 13:57:46.532757 12301 net.cpp:91] Creating Layer relu3
I0403 13:57:46.532775 12301 net.cpp:425] relu3 <- conv3
I0403 13:57:46.532796 12301 net.cpp:386] relu3 -> conv3 (in-place)
I0403 13:57:46.533076 12301 net.cpp:141] Setting up relu3
I0403 13:57:46.533102 12301 net.cpp:148] Top shape: 100 384 13 13 (6489600)
I0403 13:57:46.533118 12301 net.cpp:156] Memory required for data: 731481200
I0403 13:57:46.533133 12301 layer_factory.hpp:77] Creating layer conv4
I0403 13:57:46.533160 12301 net.cpp:91] Creating Layer conv4
I0403 13:57:46.533177 12301 net.cpp:425] conv4 <- conv3
I0403 13:57:46.533198 12301 net.cpp:399] conv4 -> conv4
I0403 13:57:46.562957 12301 net.cpp:141] Setting up conv4
I0403 13:57:46.563006 12301 net.cpp:148] Top shape: 100 384 13 13 (6489600)
I0403 13:57:46.563065 12301 net.cpp:156] Memory required for data: 757439600
I0403 13:57:46.563086 12301 layer_factory.hpp:77] Creating layer relu4
I0403 13:57:46.563108 12301 net.cpp:91] Creating Layer relu4
I0403 13:57:46.563124 12301 net.cpp:425] relu4 <- conv4
I0403 13:57:46.563146 12301 net.cpp:386] relu4 -> conv4 (in-place)
I0403 13:57:46.563421 12301 net.cpp:141] Setting up relu4
I0403 13:57:46.563449 12301 net.cpp:148] Top shape: 100 384 13 13 (6489600)
I0403 13:57:46.563465 12301 net.cpp:156] Memory required for data: 783398000
I0403 13:57:46.563479 12301 layer_factory.hpp:77] Creating layer conv5
I0403 13:57:46.563503 12301 net.cpp:91] Creating Layer conv5
I0403 13:57:46.563560 12301 net.cpp:425] conv5 <- conv4
I0403 13:57:46.563585 12301 net.cpp:399] conv5 -> conv5
I0403 13:57:46.583847 12301 net.cpp:141] Setting up conv5
I0403 13:57:46.583878 12301 net.cpp:148] Top shape: 100 256 13 13 (4326400)
I0403 13:57:46.583894 12301 net.cpp:156] Memory required for data: 800703600
I0403 13:57:46.583917 12301 layer_factory.hpp:77] Creating layer relu5
I0403 13:57:46.583935 12301 net.cpp:91] Creating Layer relu5
I0403 13:57:46.583950 12301 net.cpp:425] relu5 <- conv5
I0403 13:57:46.583969 12301 net.cpp:386] relu5 -> conv5 (in-place)
I0403 13:57:46.584244 12301 net.cpp:141] Setting up relu5
I0403 13:57:46.584270 12301 net.cpp:148] Top shape: 100 256 13 13 (4326400)
I0403 13:57:46.584285 12301 net.cpp:156] Memory required for data: 818009200
I0403 13:57:46.584300 12301 layer_factory.hpp:77] Creating layer pool5
I0403 13:57:46.584322 12301 net.cpp:91] Creating Layer pool5
I0403 13:57:46.584339 12301 net.cpp:425] pool5 <- conv5
I0403 13:57:46.584357 12301 net.cpp:399] pool5 -> pool5
I0403 13:57:46.584416 12301 net.cpp:141] Setting up pool5
I0403 13:57:46.584439 12301 net.cpp:148] Top shape: 100 256 6 6 (921600)
I0403 13:57:46.584453 12301 net.cpp:156] Memory required for data: 821695600
I0403 13:57:46.584467 12301 layer_factory.hpp:77] Creating layer fc6
I0403 13:57:46.584493 12301 net.cpp:91] Creating Layer fc6
I0403 13:57:46.584511 12301 net.cpp:425] fc6 <- pool5
I0403 13:57:46.584532 12301 net.cpp:399] fc6 -> fc6
I0403 13:57:48.127379 12301 net.cpp:141] Setting up fc6
I0403 13:57:48.127421 12301 net.cpp:148] Top shape: 100 4096 (409600)
I0403 13:57:48.127437 12301 net.cpp:156] Memory required for data: 823334000
I0403 13:57:48.127459 12301 layer_factory.hpp:77] Creating layer relu6
I0403 13:57:48.127481 12301 net.cpp:91] Creating Layer relu6
I0403 13:57:48.127499 12301 net.cpp:425] relu6 <- fc6
I0403 13:57:48.127518 12301 net.cpp:386] relu6 -> fc6 (in-place)
I0403 13:57:48.127737 12301 net.cpp:141] Setting up relu6
I0403 13:57:48.127763 12301 net.cpp:148] Top shape: 100 4096 (409600)
I0403 13:57:48.127777 12301 net.cpp:156] Memory required for data: 824972400
I0403 13:57:48.127792 12301 layer_factory.hpp:77] Creating layer drop6
I0403 13:57:48.127810 12301 net.cpp:91] Creating Layer drop6
I0403 13:57:48.127825 12301 net.cpp:425] drop6 <- fc6
I0403 13:57:48.127843 12301 net.cpp:386] drop6 -> fc6 (in-place)
I0403 13:57:48.127893 12301 net.cpp:141] Setting up drop6
I0403 13:57:48.127918 12301 net.cpp:148] Top shape: 100 4096 (409600)
I0403 13:57:48.127933 12301 net.cpp:156] Memory required for data: 826610800
I0403 13:57:48.127948 12301 layer_factory.hpp:77] Creating layer fc7
I0403 13:57:48.127966 12301 net.cpp:91] Creating Layer fc7
I0403 13:57:48.127981 12301 net.cpp:425] fc7 <- fc6
I0403 13:57:48.128000 12301 net.cpp:399] fc7 -> fc7
I0403 13:57:48.806552 12301 net.cpp:141] Setting up fc7
I0403 13:57:48.806607 12301 net.cpp:148] Top shape: 100 4096 (409600)
I0403 13:57:48.806624 12301 net.cpp:156] Memory required for data: 828249200
I0403 13:57:48.806646 12301 layer_factory.hpp:77] Creating layer relu7
I0403 13:57:48.806670 12301 net.cpp:91] Creating Layer relu7
I0403 13:57:48.806689 12301 net.cpp:425] relu7 <- fc7
I0403 13:57:48.806710 12301 net.cpp:386] relu7 -> fc7 (in-place)
I0403 13:57:48.807111 12301 net.cpp:141] Setting up relu7
I0403 13:57:48.807139 12301 net.cpp:148] Top shape: 100 4096 (409600)
I0403 13:57:48.807198 12301 net.cpp:156] Memory required for data: 829887600
I0403 13:57:48.807214 12301 layer_factory.hpp:77] Creating layer drop7
I0403 13:57:48.807235 12301 net.cpp:91] Creating Layer drop7
I0403 13:57:48.807250 12301 net.cpp:425] drop7 <- fc7
I0403 13:57:48.807271 12301 net.cpp:386] drop7 -> fc7 (in-place)
I0403 13:57:48.807317 12301 net.cpp:141] Setting up drop7
I0403 13:57:48.807339 12301 net.cpp:148] Top shape: 100 4096 (409600)
I0403 13:57:48.807354 12301 net.cpp:156] Memory required for data: 831526000
I0403 13:57:48.807369 12301 layer_factory.hpp:77] Creating layer fc8_plantvillage
I0403 13:57:48.807392 12301 net.cpp:91] Creating Layer fc8_plantvillage
I0403 13:57:48.807410 12301 net.cpp:425] fc8_plantvillage <- fc7
I0403 13:57:48.807430 12301 net.cpp:399] fc8_plantvillage -> fc8_plantvillage
I0403 13:57:48.814577 12301 net.cpp:141] Setting up fc8_plantvillage
I0403 13:57:48.814616 12301 net.cpp:148] Top shape: 100 38 (3800)
I0403 13:57:48.814638 12301 net.cpp:156] Memory required for data: 831541200
I0403 13:57:48.814658 12301 layer_factory.hpp:77] Creating layer fc8_plantvillage_fc8_plantvillage_0_split
I0403 13:57:48.814680 12301 net.cpp:91] Creating Layer fc8_plantvillage_fc8_plantvillage_0_split
I0403 13:57:48.814697 12301 net.cpp:425] fc8_plantvillage_fc8_plantvillage_0_split <- fc8_plantvillage
I0403 13:57:48.814718 12301 net.cpp:399] fc8_plantvillage_fc8_plantvillage_0_split -> fc8_plantvillage_fc8_plantvillage_0_split_0
I0403 13:57:48.814741 12301 net.cpp:399] fc8_plantvillage_fc8_plantvillage_0_split -> fc8_plantvillage_fc8_plantvillage_0_split_1
I0403 13:57:48.814762 12301 net.cpp:399] fc8_plantvillage_fc8_plantvillage_0_split -> fc8_plantvillage_fc8_plantvillage_0_split_2
I0403 13:57:48.814843 12301 net.cpp:141] Setting up fc8_plantvillage_fc8_plantvillage_0_split
I0403 13:57:48.814867 12301 net.cpp:148] Top shape: 100 38 (3800)
I0403 13:57:48.814884 12301 net.cpp:148] Top shape: 100 38 (3800)
I0403 13:57:48.814910 12301 net.cpp:148] Top shape: 100 38 (3800)
I0403 13:57:48.814932 12301 net.cpp:156] Memory required for data: 831586800
I0403 13:57:48.814951 12301 layer_factory.hpp:77] Creating layer prob
I0403 13:57:48.814973 12301 net.cpp:91] Creating Layer prob
I0403 13:57:48.814996 12301 net.cpp:425] prob <- fc8_plantvillage_fc8_plantvillage_0_split_0
I0403 13:57:48.815023 12301 net.cpp:399] prob -> prob
I0403 13:57:48.815265 12301 net.cpp:141] Setting up prob
I0403 13:57:48.815297 12301 net.cpp:148] Top shape: 100 38 (3800)
I0403 13:57:48.815315 12301 net.cpp:156] Memory required for data: 831602000
I0403 13:57:48.815330 12301 layer_factory.hpp:77] Creating layer hdf5out
I0403 13:57:48.815349 12301 net.cpp:91] Creating Layer hdf5out
I0403 13:57:48.815366 12301 net.cpp:425] hdf5out <- prob
I0403 13:57:48.815382 12301 net.cpp:425] hdf5out <- label_data_1_split_0
I0403 13:57:48.818516 12301 net.cpp:141] Setting up hdf5out
…
