…
I0403 13:47:14.117470 12060 net.cpp:313] The NetState phase (1) differed from the phase (0) specified by a rule in layer data
I0403 13:47:14.117781 12060 net.cpp:49] Initializing net from parameters: 
state {
  phase: TEST
}
layer {
  name: "data"
  type: "Data"
  top: "data"
  top: "label"
  include {
    phase: TEST
  }
  transform_param {
    crop_size: 227
    mean_file: "/home/mohanty/data/final_dataset/lmdb/grayscale-60-40/mean.binaryproto"
  }
  data_param {
    source: "/home/mohanty/data/final_dataset/lmdb/grayscale-60-40/test_db"
    batch_size: 100
    backend: LMDB
  }
}
layer {
  name: "conv1"
  type: "Convolution"
  bottom: "data"
  top: "conv1"
  param {
    lr_mult: 1
    decay_mult: 1
  }
  param {
    lr_mult: 2
    decay_mult: 0
  }
  convolution_param {
    num_output: 96
    kernel_size: 11
    stride: 4
    weight_filler {
      type: "gaussian"
      std: 0.01
    }
    bias_filler {
      type: "constant"
      value: 0
    }
  }
}
layer {
  name: "relu1"
  type: "ReLU"
  bottom: "conv1"
  top: "conv1"
}
layer {
  name: "norm1"
  type: "LRN"
  bottom: "conv1"
  top: "norm1"
  lrn_param {
    local_size: 5
    alpha: 0.0001
    beta: 0.75
  }
}
layer {
  name: "pool1"
  type: "Pooling"
  bottom: "norm1"
  top: "pool1"
  pooling_param {
    pool: MAX
    kernel_size: 3
    stride: 2
  }
}
layer {
  name: "conv2"
  type: "Convolution"
  bottom: "pool1"
  top: "conv2"
  param {
    lr_mult: 1
    decay_mult: 1
  }
  param {
    lr_mult: 2
    decay_mult: 0
  }
  convolution_param {
    num_output: 256
    pad: 2
    kernel_size: 5
    group: 2
    weight_filler {
      type: "gaussian"
      std: 0.01
    }
    bias_filler {
      type: "constant"
      value: 0.1
    }
  }
}
layer {
  name: "relu2"
  type: "ReLU"
  bottom: "conv2"
  top: "conv2"
}
layer {
  name: "norm2"
  type: "LRN"
  bottom: "conv2"
  top: "norm2"
  lrn_param {
    local_size: 5
    alpha: 0.0001
    beta: 0.75
  }
}
layer {
  name: "pool2"
  type: "Pooling"
  bottom: "norm2"
  top: "pool2"
  pooling_param {
    pool: MAX
    kernel_size: 3
    stride: 2
  }
}
layer {
  name: "conv3"
  type: "Convolution"
  bottom: "pool2"
  top: "conv3"
  param {
    lr_mult: 1
    decay_mult: 1
  }
  param {
    lr_mult: 2
    decay_mult: 0
  }
  convolution_param {
    num_output: 384
    pad: 1
    kernel_size: 3
    weight_filler {
      type: "gaussian"
      std: 0.01
    }
    bias_filler {
      type: "constant"
      value: 0
    }
  }
}
layer {
  name: "relu3"
  type: "ReLU"
  bottom: "conv3"
  top: "conv3"
}
layer {
  name: "conv4"
  type: "Convolution"
  bottom: "conv3"
  top: "conv4"
  param {
    lr_mult: 1
    decay_mult: 1
  }
  param {
    lr_mult: 2
    decay_mult: 0
  }
  convolution_param {
    num_output: 384
    pad: 1
    kernel_size: 3
    group: 2
    weight_filler {
      type: "gaussian"
      std: 0.01
    }
    bias_filler {
      type: "constant"
      value: 0.1
    }
  }
}
layer {
  name: "relu4"
  type: "ReLU"
  bottom: "conv4"
  top: "conv4"
}
layer {
  name: "conv5"
  type: "Convolution"
  bottom: "conv4"
  top: "conv5"
  param {
    lr_mult: 1
    decay_mult: 1
  }
  param {
    lr_mult: 2
    decay_mult: 0
  }
  convolution_param {
    num_output: 256
    pad: 1
    kernel_size: 3
    group: 2
    weight_filler {
      type: "gaussian"
      std: 0.01
    }
    bias_filler {
      type: "constant"
      value: 0.1
    }
  }
}
layer {
  name: "relu5"
  type: "ReLU"
  bottom: "conv5"
  top: "conv5"
}
layer {
  name: "pool5"
  type: "Pooling"
  bottom: "conv5"
  top: "pool5"
  pooling_param {
    pool: MAX
    kernel_size: 3
    stride: 2
  }
}
layer {
  name: "fc6"
  type: "InnerProduct"
  bottom: "pool5"
  top: "fc6"
  param {
    lr_mult: 1
    decay_mult: 1
  }
  param {
    lr_mult: 2
    decay_mult: 0
  }
  inner_product_param {
    num_output: 4096
    weight_filler {
      type: "gaussian"
      std: 0.005
    }
    bias_filler {
      type: "constant"
      value: 0.1
    }
  }
}
layer {
  name: "relu6"
  type: "ReLU"
  bottom: "fc6"
  top: "fc6"
}
layer {
  name: "drop6"
  type: "Dropout"
  bottom: "fc6"
  top: "fc6"
  dropout_param {
    dropout_ratio: 0.5
  }
}
layer {
  name: "fc7"
  type: "InnerProduct"
  bottom: "fc6"
  top: "fc7"
  param {
    lr_mult: 1
    decay_mult: 1
  }
  param {
    lr_mult: 2
    decay_mult: 0
  }
  inner_product_param {
    num_output: 4096
    weight_filler {
      type: "gaussian"
      std: 0.005
    }
    bias_filler {
      type: "constant"
      value: 0.1
    }
  }
}
layer {
  name: "relu7"
  type: "ReLU"
  bottom: "fc7"
  top: "fc7"
}
layer {
  name: "drop7"
  type: "Dropout"
  bottom: "fc7"
  top: "fc7"
  dropout_param {
    dropout_ratio: 0.5
  }
}
layer {
  name: "fc8_plantvillage"
  type: "InnerProduct"
  bottom: "fc7"
  top: "fc8_plantvillage"
  param {
    lr_mult: 1
    decay_mult: 1
  }
  param {
    lr_mult: 2
    decay_mult: 0
  }
  inner_product_param {
    num_output: 38
    weight_filler {
      type: "gaussian"
      std: 0.01
    }
    bias_filler {
      type: "constant"
      value: 0
    }
  }
}
layer {
  name: "prob"
  type: "Softmax"
  bottom: "fc8_plantvillage"
  top: "prob"
  include {
    phase: TEST
  }
}
layer {
  name: "hdf5out"
  type: "HDF5Output"
  bottom: "prob"
  bottom: "label"
  include {
    phase: TEST
  }
  hdf5_output_param {
    file_name: "hdf5_dumps/iter_4875.h5"
  }
}
layer {
  name: "loss"
  type: "SoftmaxWithLoss"
  bottom: "fc8_plantvillage"
  bottom: "label"
  top: "loss"
}
layer {
  name: "accuracy"
  type: "Accuracy"
  bottom: "fc8_plantvillage"
  bottom: "label"
  top: "accuracy"
  include {
    phase: TEST
  }
}
I0403 13:47:14.118331 12060 layer_factory.hpp:77] Creating layer data
I0403 13:47:14.118998 12060 net.cpp:91] Creating Layer data
I0403 13:47:14.119029 12060 net.cpp:399] data -> data
I0403 13:47:14.119077 12060 net.cpp:399] data -> label
I0403 13:47:14.119112 12060 data_transformer.cpp:25] Loading mean file from: /home/mohanty/data/final_dataset/lmdb/grayscale-60-40/mean.binaryproto
I0403 13:47:14.122233 12064 db_lmdb.cpp:38] Opened lmdb /home/mohanty/data/final_dataset/lmdb/grayscale-60-40/test_db
I0403 13:47:14.133083 12060 data_layer.cpp:41] output data size: 100,3,227,227
I0403 13:47:14.253017 12060 net.cpp:141] Setting up data
I0403 13:47:14.253075 12060 net.cpp:148] Top shape: 100 3 227 227 (15458700)
I0403 13:47:14.253098 12060 net.cpp:148] Top shape: 100 (100)
I0403 13:47:14.253113 12060 net.cpp:156] Memory required for data: 61835200
I0403 13:47:14.253140 12060 layer_factory.hpp:77] Creating layer label_data_1_split
I0403 13:47:14.253165 12060 net.cpp:91] Creating Layer label_data_1_split
I0403 13:47:14.253183 12060 net.cpp:425] label_data_1_split <- label
I0403 13:47:14.253216 12060 net.cpp:399] label_data_1_split -> label_data_1_split_0
I0403 13:47:14.253242 12060 net.cpp:399] label_data_1_split -> label_data_1_split_1
I0403 13:47:14.253264 12060 net.cpp:399] label_data_1_split -> label_data_1_split_2
I0403 13:47:14.253326 12060 net.cpp:141] Setting up label_data_1_split
I0403 13:47:14.253350 12060 net.cpp:148] Top shape: 100 (100)
I0403 13:47:14.253366 12060 net.cpp:148] Top shape: 100 (100)
I0403 13:47:14.253382 12060 net.cpp:148] Top shape: 100 (100)
I0403 13:47:14.253396 12060 net.cpp:156] Memory required for data: 61836400
I0403 13:47:14.253412 12060 layer_factory.hpp:77] Creating layer conv1
I0403 13:47:14.253443 12060 net.cpp:91] Creating Layer conv1
I0403 13:47:14.253461 12060 net.cpp:425] conv1 <- data
I0403 13:47:14.253481 12060 net.cpp:399] conv1 -> conv1
I0403 13:47:14.394840 12060 net.cpp:141] Setting up conv1
I0403 13:47:14.394914 12060 net.cpp:148] Top shape: 100 96 55 55 (29040000)
I0403 13:47:14.394932 12060 net.cpp:156] Memory required for data: 177996400
I0403 13:47:14.394963 12060 layer_factory.hpp:77] Creating layer relu1
I0403 13:47:14.394991 12060 net.cpp:91] Creating Layer relu1
I0403 13:47:14.395009 12060 net.cpp:425] relu1 <- conv1
I0403 13:47:14.395027 12060 net.cpp:386] relu1 -> conv1 (in-place)
I0403 13:47:14.395288 12060 net.cpp:141] Setting up relu1
I0403 13:47:14.395318 12060 net.cpp:148] Top shape: 100 96 55 55 (29040000)
I0403 13:47:14.395371 12060 net.cpp:156] Memory required for data: 294156400
I0403 13:47:14.395388 12060 layer_factory.hpp:77] Creating layer norm1
I0403 13:47:14.395416 12060 net.cpp:91] Creating Layer norm1
I0403 13:47:14.395433 12060 net.cpp:425] norm1 <- conv1
I0403 13:47:14.395452 12060 net.cpp:399] norm1 -> norm1
I0403 13:47:14.395788 12060 net.cpp:141] Setting up norm1
I0403 13:47:14.395817 12060 net.cpp:148] Top shape: 100 96 55 55 (29040000)
I0403 13:47:14.395831 12060 net.cpp:156] Memory required for data: 410316400
I0403 13:47:14.395848 12060 layer_factory.hpp:77] Creating layer pool1
I0403 13:47:14.395870 12060 net.cpp:91] Creating Layer pool1
I0403 13:47:14.395887 12060 net.cpp:425] pool1 <- norm1
I0403 13:47:14.395905 12060 net.cpp:399] pool1 -> pool1
I0403 13:47:14.395975 12060 net.cpp:141] Setting up pool1
I0403 13:47:14.396000 12060 net.cpp:148] Top shape: 100 96 27 27 (6998400)
I0403 13:47:14.396015 12060 net.cpp:156] Memory required for data: 438310000
I0403 13:47:14.396030 12060 layer_factory.hpp:77] Creating layer conv2
I0403 13:47:14.396059 12060 net.cpp:91] Creating Layer conv2
I0403 13:47:14.396077 12060 net.cpp:425] conv2 <- pool1
I0403 13:47:14.396098 12060 net.cpp:399] conv2 -> conv2
I0403 13:47:14.411568 12060 net.cpp:141] Setting up conv2
I0403 13:47:14.411609 12060 net.cpp:148] Top shape: 100 256 27 27 (18662400)
I0403 13:47:14.411629 12060 net.cpp:156] Memory required for data: 512959600
I0403 13:47:14.411651 12060 layer_factory.hpp:77] Creating layer relu2
I0403 13:47:14.411671 12060 net.cpp:91] Creating Layer relu2
I0403 13:47:14.411687 12060 net.cpp:425] relu2 <- conv2
I0403 13:47:14.411707 12060 net.cpp:386] relu2 -> conv2 (in-place)
I0403 13:47:14.412045 12060 net.cpp:141] Setting up relu2
I0403 13:47:14.412075 12060 net.cpp:148] Top shape: 100 256 27 27 (18662400)
I0403 13:47:14.412091 12060 net.cpp:156] Memory required for data: 587609200
I0403 13:47:14.412107 12060 layer_factory.hpp:77] Creating layer norm2
I0403 13:47:14.412129 12060 net.cpp:91] Creating Layer norm2
I0403 13:47:14.412147 12060 net.cpp:425] norm2 <- conv2
I0403 13:47:14.412165 12060 net.cpp:399] norm2 -> norm2
I0403 13:47:14.412367 12060 net.cpp:141] Setting up norm2
I0403 13:47:14.412398 12060 net.cpp:148] Top shape: 100 256 27 27 (18662400)
I0403 13:47:14.412415 12060 net.cpp:156] Memory required for data: 662258800
I0403 13:47:14.412431 12060 layer_factory.hpp:77] Creating layer pool2
I0403 13:47:14.412447 12060 net.cpp:91] Creating Layer pool2
I0403 13:47:14.412463 12060 net.cpp:425] pool2 <- norm2
I0403 13:47:14.412483 12060 net.cpp:399] pool2 -> pool2
I0403 13:47:14.412535 12060 net.cpp:141] Setting up pool2
I0403 13:47:14.412559 12060 net.cpp:148] Top shape: 100 256 13 13 (4326400)
I0403 13:47:14.412574 12060 net.cpp:156] Memory required for data: 679564400
I0403 13:47:14.412588 12060 layer_factory.hpp:77] Creating layer conv3
I0403 13:47:14.412616 12060 net.cpp:91] Creating Layer conv3
I0403 13:47:14.412634 12060 net.cpp:425] conv3 <- pool2
I0403 13:47:14.412654 12060 net.cpp:399] conv3 -> conv3
I0403 13:47:14.454733 12060 net.cpp:141] Setting up conv3
I0403 13:47:14.454778 12060 net.cpp:148] Top shape: 100 384 13 13 (6489600)
I0403 13:47:14.454795 12060 net.cpp:156] Memory required for data: 705522800
I0403 13:47:14.454819 12060 layer_factory.hpp:77] Creating layer relu3
I0403 13:47:14.454839 12060 net.cpp:91] Creating Layer relu3
I0403 13:47:14.454857 12060 net.cpp:425] relu3 <- conv3
I0403 13:47:14.454874 12060 net.cpp:386] relu3 -> conv3 (in-place)
I0403 13:47:14.455143 12060 net.cpp:141] Setting up relu3
I0403 13:47:14.455173 12060 net.cpp:148] Top shape: 100 384 13 13 (6489600)
I0403 13:47:14.455188 12060 net.cpp:156] Memory required for data: 731481200
I0403 13:47:14.455204 12060 layer_factory.hpp:77] Creating layer conv4
I0403 13:47:14.455229 12060 net.cpp:91] Creating Layer conv4
I0403 13:47:14.455245 12060 net.cpp:425] conv4 <- conv3
I0403 13:47:14.455265 12060 net.cpp:399] conv4 -> conv4
I0403 13:47:14.484999 12060 net.cpp:141] Setting up conv4
I0403 13:47:14.485055 12060 net.cpp:148] Top shape: 100 384 13 13 (6489600)
I0403 13:47:14.485105 12060 net.cpp:156] Memory required for data: 757439600
I0403 13:47:14.485126 12060 layer_factory.hpp:77] Creating layer relu4
I0403 13:47:14.485149 12060 net.cpp:91] Creating Layer relu4
I0403 13:47:14.485167 12060 net.cpp:425] relu4 <- conv4
I0403 13:47:14.485185 12060 net.cpp:386] relu4 -> conv4 (in-place)
I0403 13:47:14.485465 12060 net.cpp:141] Setting up relu4
I0403 13:47:14.485491 12060 net.cpp:148] Top shape: 100 384 13 13 (6489600)
I0403 13:47:14.485507 12060 net.cpp:156] Memory required for data: 783398000
I0403 13:47:14.485522 12060 layer_factory.hpp:77] Creating layer conv5
I0403 13:47:14.485548 12060 net.cpp:91] Creating Layer conv5
I0403 13:47:14.485602 12060 net.cpp:425] conv5 <- conv4
I0403 13:47:14.485630 12060 net.cpp:399] conv5 -> conv5
I0403 13:47:14.506614 12060 net.cpp:141] Setting up conv5
I0403 13:47:14.506671 12060 net.cpp:148] Top shape: 100 256 13 13 (4326400)
I0403 13:47:14.506688 12060 net.cpp:156] Memory required for data: 800703600
I0403 13:47:14.506713 12060 layer_factory.hpp:77] Creating layer relu5
I0403 13:47:14.506737 12060 net.cpp:91] Creating Layer relu5
I0403 13:47:14.506755 12060 net.cpp:425] relu5 <- conv5
I0403 13:47:14.506777 12060 net.cpp:386] relu5 -> conv5 (in-place)
I0403 13:47:14.507061 12060 net.cpp:141] Setting up relu5
I0403 13:47:14.507091 12060 net.cpp:148] Top shape: 100 256 13 13 (4326400)
I0403 13:47:14.507108 12060 net.cpp:156] Memory required for data: 818009200
I0403 13:47:14.507124 12060 layer_factory.hpp:77] Creating layer pool5
I0403 13:47:14.507146 12060 net.cpp:91] Creating Layer pool5
I0403 13:47:14.507164 12060 net.cpp:425] pool5 <- conv5
I0403 13:47:14.507185 12060 net.cpp:399] pool5 -> pool5
I0403 13:47:14.507246 12060 net.cpp:141] Setting up pool5
I0403 13:47:14.507275 12060 net.cpp:148] Top shape: 100 256 6 6 (921600)
I0403 13:47:14.507292 12060 net.cpp:156] Memory required for data: 821695600
I0403 13:47:14.507333 12060 layer_factory.hpp:77] Creating layer fc6
I0403 13:47:14.507364 12060 net.cpp:91] Creating Layer fc6
I0403 13:47:14.507381 12060 net.cpp:425] fc6 <- pool5
I0403 13:47:14.507402 12060 net.cpp:399] fc6 -> fc6
I0403 13:47:16.044222 12060 net.cpp:141] Setting up fc6
I0403 13:47:16.044272 12060 net.cpp:148] Top shape: 100 4096 (409600)
I0403 13:47:16.044288 12060 net.cpp:156] Memory required for data: 823334000
I0403 13:47:16.044308 12060 layer_factory.hpp:77] Creating layer relu6
I0403 13:47:16.044332 12060 net.cpp:91] Creating Layer relu6
I0403 13:47:16.044349 12060 net.cpp:425] relu6 <- fc6
I0403 13:47:16.044368 12060 net.cpp:386] relu6 -> fc6 (in-place)
I0403 13:47:16.044579 12060 net.cpp:141] Setting up relu6
I0403 13:47:16.044615 12060 net.cpp:148] Top shape: 100 4096 (409600)
I0403 13:47:16.044632 12060 net.cpp:156] Memory required for data: 824972400
I0403 13:47:16.044647 12060 layer_factory.hpp:77] Creating layer drop6
I0403 13:47:16.044666 12060 net.cpp:91] Creating Layer drop6
I0403 13:47:16.044680 12060 net.cpp:425] drop6 <- fc6
I0403 13:47:16.044697 12060 net.cpp:386] drop6 -> fc6 (in-place)
I0403 13:47:16.044747 12060 net.cpp:141] Setting up drop6
I0403 13:47:16.044770 12060 net.cpp:148] Top shape: 100 4096 (409600)
I0403 13:47:16.044782 12060 net.cpp:156] Memory required for data: 826610800
I0403 13:47:16.044797 12060 layer_factory.hpp:77] Creating layer fc7
I0403 13:47:16.044821 12060 net.cpp:91] Creating Layer fc7
I0403 13:47:16.044837 12060 net.cpp:425] fc7 <- fc6
I0403 13:47:16.044854 12060 net.cpp:399] fc7 -> fc7
I0403 13:47:16.719391 12060 net.cpp:141] Setting up fc7
I0403 13:47:16.719430 12060 net.cpp:148] Top shape: 100 4096 (409600)
I0403 13:47:16.719445 12060 net.cpp:156] Memory required for data: 828249200
I0403 13:47:16.719465 12060 layer_factory.hpp:77] Creating layer relu7
I0403 13:47:16.719486 12060 net.cpp:91] Creating Layer relu7
I0403 13:47:16.719502 12060 net.cpp:425] relu7 <- fc7
I0403 13:47:16.719521 12060 net.cpp:386] relu7 -> fc7 (in-place)
I0403 13:47:16.719910 12060 net.cpp:141] Setting up relu7
I0403 13:47:16.719938 12060 net.cpp:148] Top shape: 100 4096 (409600)
I0403 13:47:16.719991 12060 net.cpp:156] Memory required for data: 829887600
I0403 13:47:16.720007 12060 layer_factory.hpp:77] Creating layer drop7
I0403 13:47:16.720026 12060 net.cpp:91] Creating Layer drop7
I0403 13:47:16.720041 12060 net.cpp:425] drop7 <- fc7
I0403 13:47:16.720057 12060 net.cpp:386] drop7 -> fc7 (in-place)
I0403 13:47:16.720098 12060 net.cpp:141] Setting up drop7
I0403 13:47:16.720121 12060 net.cpp:148] Top shape: 100 4096 (409600)
I0403 13:47:16.720135 12060 net.cpp:156] Memory required for data: 831526000
I0403 13:47:16.720149 12060 layer_factory.hpp:77] Creating layer fc8_plantvillage
I0403 13:47:16.720170 12060 net.cpp:91] Creating Layer fc8_plantvillage
I0403 13:47:16.720186 12060 net.cpp:425] fc8_plantvillage <- fc7
I0403 13:47:16.720203 12060 net.cpp:399] fc8_plantvillage -> fc8_plantvillage
I0403 13:47:16.726969 12060 net.cpp:141] Setting up fc8_plantvillage
I0403 13:47:16.726997 12060 net.cpp:148] Top shape: 100 38 (3800)
I0403 13:47:16.727012 12060 net.cpp:156] Memory required for data: 831541200
I0403 13:47:16.727030 12060 layer_factory.hpp:77] Creating layer fc8_plantvillage_fc8_plantvillage_0_split
I0403 13:47:16.727048 12060 net.cpp:91] Creating Layer fc8_plantvillage_fc8_plantvillage_0_split
I0403 13:47:16.727064 12060 net.cpp:425] fc8_plantvillage_fc8_plantvillage_0_split <- fc8_plantvillage
I0403 13:47:16.727083 12060 net.cpp:399] fc8_plantvillage_fc8_plantvillage_0_split -> fc8_plantvillage_fc8_plantvillage_0_split_0
I0403 13:47:16.727103 12060 net.cpp:399] fc8_plantvillage_fc8_plantvillage_0_split -> fc8_plantvillage_fc8_plantvillage_0_split_1
I0403 13:47:16.727123 12060 net.cpp:399] fc8_plantvillage_fc8_plantvillage_0_split -> fc8_plantvillage_fc8_plantvillage_0_split_2
I0403 13:47:16.727200 12060 net.cpp:141] Setting up fc8_plantvillage_fc8_plantvillage_0_split
I0403 13:47:16.727222 12060 net.cpp:148] Top shape: 100 38 (3800)
I0403 13:47:16.727239 12060 net.cpp:148] Top shape: 100 38 (3800)
I0403 13:47:16.727254 12060 net.cpp:148] Top shape: 100 38 (3800)
I0403 13:47:16.727268 12060 net.cpp:156] Memory required for data: 831586800
I0403 13:47:16.727283 12060 layer_factory.hpp:77] Creating layer prob
I0403 13:47:16.727303 12060 net.cpp:91] Creating Layer prob
I0403 13:47:16.727320 12060 net.cpp:425] prob <- fc8_plantvillage_fc8_plantvillage_0_split_0
I0403 13:47:16.727339 12060 net.cpp:399] prob -> prob
I0403 13:47:16.727562 12060 net.cpp:141] Setting up prob
I0403 13:47:16.727591 12060 net.cpp:148] Top shape: 100 38 (3800)
I0403 13:47:16.727612 12060 net.cpp:156] Memory required for data: 831602000
I0403 13:47:16.727627 12060 layer_factory.hpp:77] Creating layer hdf5out
I0403 13:47:16.727644 12060 net.cpp:91] Creating Layer hdf5out
I0403 13:47:16.727660 12060 net.cpp:425] hdf5out <- prob
I0403 13:47:16.727675 12060 net.cpp:425] hdf5out <- label_data_1_split_0
I0403 13:47:16.731766 12060 net.cpp:141] Setting up hdf5out
…
