…
I0403 13:53:15.544973 12195 net.cpp:313] The NetState phase (1) differed from the phase (0) specified by a rule in layer data
I0403 13:53:15.545277 12195 net.cpp:49] Initializing net from parameters: 
state {
  phase: TEST
}
layer {
  name: "data"
  type: "Data"
  top: "data"
  top: "label"
  include {
    phase: TEST
  }
  transform_param {
    crop_size: 227
    mean_file: "/home/mohanty/data/final_dataset/lmdb/grayscale-60-40/mean.binaryproto"
  }
  data_param {
    source: "/home/mohanty/data/final_dataset/lmdb/grayscale-60-40/test_db"
    batch_size: 100
    backend: LMDB
  }
}
layer {
  name: "conv1"
  type: "Convolution"
  bottom: "data"
  top: "conv1"
  param {
    lr_mult: 1
    decay_mult: 1
  }
  param {
    lr_mult: 2
    decay_mult: 0
  }
  convolution_param {
    num_output: 96
    kernel_size: 11
    stride: 4
    weight_filler {
      type: "gaussian"
      std: 0.01
    }
    bias_filler {
      type: "constant"
      value: 0
    }
  }
}
layer {
  name: "relu1"
  type: "ReLU"
  bottom: "conv1"
  top: "conv1"
}
layer {
  name: "norm1"
  type: "LRN"
  bottom: "conv1"
  top: "norm1"
  lrn_param {
    local_size: 5
    alpha: 0.0001
    beta: 0.75
  }
}
layer {
  name: "pool1"
  type: "Pooling"
  bottom: "norm1"
  top: "pool1"
  pooling_param {
    pool: MAX
    kernel_size: 3
    stride: 2
  }
}
layer {
  name: "conv2"
  type: "Convolution"
  bottom: "pool1"
  top: "conv2"
  param {
    lr_mult: 1
    decay_mult: 1
  }
  param {
    lr_mult: 2
    decay_mult: 0
  }
  convolution_param {
    num_output: 256
    pad: 2
    kernel_size: 5
    group: 2
    weight_filler {
      type: "gaussian"
      std: 0.01
    }
    bias_filler {
      type: "constant"
      value: 0.1
    }
  }
}
layer {
  name: "relu2"
  type: "ReLU"
  bottom: "conv2"
  top: "conv2"
}
layer {
  name: "norm2"
  type: "LRN"
  bottom: "conv2"
  top: "norm2"
  lrn_param {
    local_size: 5
    alpha: 0.0001
    beta: 0.75
  }
}
layer {
  name: "pool2"
  type: "Pooling"
  bottom: "norm2"
  top: "pool2"
  pooling_param {
    pool: MAX
    kernel_size: 3
    stride: 2
  }
}
layer {
  name: "conv3"
  type: "Convolution"
  bottom: "pool2"
  top: "conv3"
  param {
    lr_mult: 1
    decay_mult: 1
  }
  param {
    lr_mult: 2
    decay_mult: 0
  }
  convolution_param {
    num_output: 384
    pad: 1
    kernel_size: 3
    weight_filler {
      type: "gaussian"
      std: 0.01
    }
    bias_filler {
      type: "constant"
      value: 0
    }
  }
}
layer {
  name: "relu3"
  type: "ReLU"
  bottom: "conv3"
  top: "conv3"
}
layer {
  name: "conv4"
  type: "Convolution"
  bottom: "conv3"
  top: "conv4"
  param {
    lr_mult: 1
    decay_mult: 1
  }
  param {
    lr_mult: 2
    decay_mult: 0
  }
  convolution_param {
    num_output: 384
    pad: 1
    kernel_size: 3
    group: 2
    weight_filler {
      type: "gaussian"
      std: 0.01
    }
    bias_filler {
      type: "constant"
      value: 0.1
    }
  }
}
layer {
  name: "relu4"
  type: "ReLU"
  bottom: "conv4"
  top: "conv4"
}
layer {
  name: "conv5"
  type: "Convolution"
  bottom: "conv4"
  top: "conv5"
  param {
    lr_mult: 1
    decay_mult: 1
  }
  param {
    lr_mult: 2
    decay_mult: 0
  }
  convolution_param {
    num_output: 256
    pad: 1
    kernel_size: 3
    group: 2
    weight_filler {
      type: "gaussian"
      std: 0.01
    }
    bias_filler {
      type: "constant"
      value: 0.1
    }
  }
}
layer {
  name: "relu5"
  type: "ReLU"
  bottom: "conv5"
  top: "conv5"
}
layer {
  name: "pool5"
  type: "Pooling"
  bottom: "conv5"
  top: "pool5"
  pooling_param {
    pool: MAX
    kernel_size: 3
    stride: 2
  }
}
layer {
  name: "fc6"
  type: "InnerProduct"
  bottom: "pool5"
  top: "fc6"
  param {
    lr_mult: 1
    decay_mult: 1
  }
  param {
    lr_mult: 2
    decay_mult: 0
  }
  inner_product_param {
    num_output: 4096
    weight_filler {
      type: "gaussian"
      std: 0.005
    }
    bias_filler {
      type: "constant"
      value: 0.1
    }
  }
}
layer {
  name: "relu6"
  type: "ReLU"
  bottom: "fc6"
  top: "fc6"
}
layer {
  name: "drop6"
  type: "Dropout"
  bottom: "fc6"
  top: "fc6"
  dropout_param {
    dropout_ratio: 0.5
  }
}
layer {
  name: "fc7"
  type: "InnerProduct"
  bottom: "fc6"
  top: "fc7"
  param {
    lr_mult: 1
    decay_mult: 1
  }
  param {
    lr_mult: 2
    decay_mult: 0
  }
  inner_product_param {
    num_output: 4096
    weight_filler {
      type: "gaussian"
      std: 0.005
    }
    bias_filler {
      type: "constant"
      value: 0.1
    }
  }
}
layer {
  name: "relu7"
  type: "ReLU"
  bottom: "fc7"
  top: "fc7"
}
layer {
  name: "drop7"
  type: "Dropout"
  bottom: "fc7"
  top: "fc7"
  dropout_param {
    dropout_ratio: 0.5
  }
}
layer {
  name: "fc8_plantvillage"
  type: "InnerProduct"
  bottom: "fc7"
  top: "fc8_plantvillage"
  param {
    lr_mult: 1
    decay_mult: 1
  }
  param {
    lr_mult: 2
    decay_mult: 0
  }
  inner_product_param {
    num_output: 38
    weight_filler {
      type: "gaussian"
      std: 0.01
    }
    bias_filler {
      type: "constant"
      value: 0
    }
  }
}
layer {
  name: "prob"
  type: "Softmax"
  bottom: "fc8_plantvillage"
  top: "prob"
  include {
    phase: TEST
  }
}
layer {
  name: "hdf5out"
  type: "HDF5Output"
  bottom: "prob"
  bottom: "label"
  include {
    phase: TEST
  }
  hdf5_output_param {
    file_name: "hdf5_dumps/iter_7475.h5"
  }
}
layer {
  name: "loss"
  type: "SoftmaxWithLoss"
  bottom: "fc8_plantvillage"
  bottom: "label"
  top: "loss"
}
layer {
  name: "accuracy"
  type: "Accuracy"
  bottom: "fc8_plantvillage"
  bottom: "label"
  top: "accuracy"
  include {
    phase: TEST
  }
}
I0403 13:53:15.545886 12195 layer_factory.hpp:77] Creating layer data
I0403 13:53:15.546533 12195 net.cpp:91] Creating Layer data
I0403 13:53:15.546571 12195 net.cpp:399] data -> data
I0403 13:53:15.546623 12195 net.cpp:399] data -> label
I0403 13:53:15.546660 12195 data_transformer.cpp:25] Loading mean file from: /home/mohanty/data/final_dataset/lmdb/grayscale-60-40/mean.binaryproto
I0403 13:53:15.549623 12198 db_lmdb.cpp:38] Opened lmdb /home/mohanty/data/final_dataset/lmdb/grayscale-60-40/test_db
I0403 13:53:15.561257 12195 data_layer.cpp:41] output data size: 100,3,227,227
I0403 13:53:15.682576 12195 net.cpp:141] Setting up data
I0403 13:53:15.682637 12195 net.cpp:148] Top shape: 100 3 227 227 (15458700)
I0403 13:53:15.682662 12195 net.cpp:148] Top shape: 100 (100)
I0403 13:53:15.682677 12195 net.cpp:156] Memory required for data: 61835200
I0403 13:53:15.682705 12195 layer_factory.hpp:77] Creating layer label_data_1_split
I0403 13:53:15.682730 12195 net.cpp:91] Creating Layer label_data_1_split
I0403 13:53:15.682749 12195 net.cpp:425] label_data_1_split <- label
I0403 13:53:15.682781 12195 net.cpp:399] label_data_1_split -> label_data_1_split_0
I0403 13:53:15.682809 12195 net.cpp:399] label_data_1_split -> label_data_1_split_1
I0403 13:53:15.682829 12195 net.cpp:399] label_data_1_split -> label_data_1_split_2
I0403 13:53:15.682893 12195 net.cpp:141] Setting up label_data_1_split
I0403 13:53:15.682916 12195 net.cpp:148] Top shape: 100 (100)
I0403 13:53:15.682932 12195 net.cpp:148] Top shape: 100 (100)
I0403 13:53:15.682948 12195 net.cpp:148] Top shape: 100 (100)
I0403 13:53:15.682962 12195 net.cpp:156] Memory required for data: 61836400
I0403 13:53:15.682977 12195 layer_factory.hpp:77] Creating layer conv1
I0403 13:53:15.683009 12195 net.cpp:91] Creating Layer conv1
I0403 13:53:15.683027 12195 net.cpp:425] conv1 <- data
I0403 13:53:15.683046 12195 net.cpp:399] conv1 -> conv1
I0403 13:53:15.826961 12195 net.cpp:141] Setting up conv1
I0403 13:53:15.827040 12195 net.cpp:148] Top shape: 100 96 55 55 (29040000)
I0403 13:53:15.827059 12195 net.cpp:156] Memory required for data: 177996400
I0403 13:53:15.827090 12195 layer_factory.hpp:77] Creating layer relu1
I0403 13:53:15.827118 12195 net.cpp:91] Creating Layer relu1
I0403 13:53:15.827136 12195 net.cpp:425] relu1 <- conv1
I0403 13:53:15.827155 12195 net.cpp:386] relu1 -> conv1 (in-place)
I0403 13:53:15.827491 12195 net.cpp:141] Setting up relu1
I0403 13:53:15.827518 12195 net.cpp:148] Top shape: 100 96 55 55 (29040000)
I0403 13:53:15.827579 12195 net.cpp:156] Memory required for data: 294156400
I0403 13:53:15.827595 12195 layer_factory.hpp:77] Creating layer norm1
I0403 13:53:15.827622 12195 net.cpp:91] Creating Layer norm1
I0403 13:53:15.827641 12195 net.cpp:425] norm1 <- conv1
I0403 13:53:15.827658 12195 net.cpp:399] norm1 -> norm1
I0403 13:53:15.827963 12195 net.cpp:141] Setting up norm1
I0403 13:53:15.827991 12195 net.cpp:148] Top shape: 100 96 55 55 (29040000)
I0403 13:53:15.828006 12195 net.cpp:156] Memory required for data: 410316400
I0403 13:53:15.828022 12195 layer_factory.hpp:77] Creating layer pool1
I0403 13:53:15.828045 12195 net.cpp:91] Creating Layer pool1
I0403 13:53:15.828063 12195 net.cpp:425] pool1 <- norm1
I0403 13:53:15.828080 12195 net.cpp:399] pool1 -> pool1
I0403 13:53:15.828146 12195 net.cpp:141] Setting up pool1
I0403 13:53:15.828171 12195 net.cpp:148] Top shape: 100 96 27 27 (6998400)
I0403 13:53:15.828186 12195 net.cpp:156] Memory required for data: 438310000
I0403 13:53:15.828200 12195 layer_factory.hpp:77] Creating layer conv2
I0403 13:53:15.828224 12195 net.cpp:91] Creating Layer conv2
I0403 13:53:15.828243 12195 net.cpp:425] conv2 <- pool1
I0403 13:53:15.828260 12195 net.cpp:399] conv2 -> conv2
I0403 13:53:15.843385 12195 net.cpp:141] Setting up conv2
I0403 13:53:15.843422 12195 net.cpp:148] Top shape: 100 256 27 27 (18662400)
I0403 13:53:15.843441 12195 net.cpp:156] Memory required for data: 512959600
I0403 13:53:15.843462 12195 layer_factory.hpp:77] Creating layer relu2
I0403 13:53:15.843487 12195 net.cpp:91] Creating Layer relu2
I0403 13:53:15.843503 12195 net.cpp:425] relu2 <- conv2
I0403 13:53:15.843521 12195 net.cpp:386] relu2 -> conv2 (in-place)
I0403 13:53:15.843797 12195 net.cpp:141] Setting up relu2
I0403 13:53:15.843824 12195 net.cpp:148] Top shape: 100 256 27 27 (18662400)
I0403 13:53:15.843840 12195 net.cpp:156] Memory required for data: 587609200
I0403 13:53:15.843855 12195 layer_factory.hpp:77] Creating layer norm2
I0403 13:53:15.843878 12195 net.cpp:91] Creating Layer norm2
I0403 13:53:15.843895 12195 net.cpp:425] norm2 <- conv2
I0403 13:53:15.843914 12195 net.cpp:399] norm2 -> norm2
I0403 13:53:15.844105 12195 net.cpp:141] Setting up norm2
I0403 13:53:15.844130 12195 net.cpp:148] Top shape: 100 256 27 27 (18662400)
I0403 13:53:15.844144 12195 net.cpp:156] Memory required for data: 662258800
I0403 13:53:15.844158 12195 layer_factory.hpp:77] Creating layer pool2
I0403 13:53:15.844178 12195 net.cpp:91] Creating Layer pool2
I0403 13:53:15.844194 12195 net.cpp:425] pool2 <- norm2
I0403 13:53:15.844211 12195 net.cpp:399] pool2 -> pool2
I0403 13:53:15.844264 12195 net.cpp:141] Setting up pool2
I0403 13:53:15.844286 12195 net.cpp:148] Top shape: 100 256 13 13 (4326400)
I0403 13:53:15.844301 12195 net.cpp:156] Memory required for data: 679564400
I0403 13:53:15.844316 12195 layer_factory.hpp:77] Creating layer conv3
I0403 13:53:15.844337 12195 net.cpp:91] Creating Layer conv3
I0403 13:53:15.844354 12195 net.cpp:425] conv3 <- pool2
I0403 13:53:15.844374 12195 net.cpp:399] conv3 -> conv3
I0403 13:53:15.882417 12195 net.cpp:141] Setting up conv3
I0403 13:53:15.882462 12195 net.cpp:148] Top shape: 100 384 13 13 (6489600)
I0403 13:53:15.882478 12195 net.cpp:156] Memory required for data: 705522800
I0403 13:53:15.882503 12195 layer_factory.hpp:77] Creating layer relu3
I0403 13:53:15.882524 12195 net.cpp:91] Creating Layer relu3
I0403 13:53:15.882540 12195 net.cpp:425] relu3 <- conv3
I0403 13:53:15.882558 12195 net.cpp:386] relu3 -> conv3 (in-place)
I0403 13:53:15.882838 12195 net.cpp:141] Setting up relu3
I0403 13:53:15.882874 12195 net.cpp:148] Top shape: 100 384 13 13 (6489600)
I0403 13:53:15.882890 12195 net.cpp:156] Memory required for data: 731481200
I0403 13:53:15.882905 12195 layer_factory.hpp:77] Creating layer conv4
I0403 13:53:15.882928 12195 net.cpp:91] Creating Layer conv4
I0403 13:53:15.882946 12195 net.cpp:425] conv4 <- conv3
I0403 13:53:15.882967 12195 net.cpp:399] conv4 -> conv4
I0403 13:53:15.913324 12195 net.cpp:141] Setting up conv4
I0403 13:53:15.913396 12195 net.cpp:148] Top shape: 100 384 13 13 (6489600)
I0403 13:53:15.913452 12195 net.cpp:156] Memory required for data: 757439600
I0403 13:53:15.913475 12195 layer_factory.hpp:77] Creating layer relu4
I0403 13:53:15.913501 12195 net.cpp:91] Creating Layer relu4
I0403 13:53:15.913521 12195 net.cpp:425] relu4 <- conv4
I0403 13:53:15.913540 12195 net.cpp:386] relu4 -> conv4 (in-place)
I0403 13:53:15.913836 12195 net.cpp:141] Setting up relu4
I0403 13:53:15.913863 12195 net.cpp:148] Top shape: 100 384 13 13 (6489600)
I0403 13:53:15.913882 12195 net.cpp:156] Memory required for data: 783398000
I0403 13:53:15.913897 12195 layer_factory.hpp:77] Creating layer conv5
I0403 13:53:15.913923 12195 net.cpp:91] Creating Layer conv5
I0403 13:53:15.913940 12195 net.cpp:425] conv5 <- conv4
I0403 13:53:15.914002 12195 net.cpp:399] conv5 -> conv5
I0403 13:53:15.934661 12195 net.cpp:141] Setting up conv5
I0403 13:53:15.934698 12195 net.cpp:148] Top shape: 100 256 13 13 (4326400)
I0403 13:53:15.934715 12195 net.cpp:156] Memory required for data: 800703600
I0403 13:53:15.934738 12195 layer_factory.hpp:77] Creating layer relu5
I0403 13:53:15.934762 12195 net.cpp:91] Creating Layer relu5
I0403 13:53:15.934779 12195 net.cpp:425] relu5 <- conv5
I0403 13:53:15.934798 12195 net.cpp:386] relu5 -> conv5 (in-place)
I0403 13:53:15.935072 12195 net.cpp:141] Setting up relu5
I0403 13:53:15.935099 12195 net.cpp:148] Top shape: 100 256 13 13 (4326400)
I0403 13:53:15.935114 12195 net.cpp:156] Memory required for data: 818009200
I0403 13:53:15.935129 12195 layer_factory.hpp:77] Creating layer pool5
I0403 13:53:15.935153 12195 net.cpp:91] Creating Layer pool5
I0403 13:53:15.935170 12195 net.cpp:425] pool5 <- conv5
I0403 13:53:15.935192 12195 net.cpp:399] pool5 -> pool5
I0403 13:53:15.935252 12195 net.cpp:141] Setting up pool5
I0403 13:53:15.935277 12195 net.cpp:148] Top shape: 100 256 6 6 (921600)
I0403 13:53:15.935292 12195 net.cpp:156] Memory required for data: 821695600
I0403 13:53:15.935307 12195 layer_factory.hpp:77] Creating layer fc6
I0403 13:53:15.935338 12195 net.cpp:91] Creating Layer fc6
I0403 13:53:15.935356 12195 net.cpp:425] fc6 <- pool5
I0403 13:53:15.935374 12195 net.cpp:399] fc6 -> fc6
I0403 13:53:17.471182 12195 net.cpp:141] Setting up fc6
I0403 13:53:17.471223 12195 net.cpp:148] Top shape: 100 4096 (409600)
I0403 13:53:17.471240 12195 net.cpp:156] Memory required for data: 823334000
I0403 13:53:17.471262 12195 layer_factory.hpp:77] Creating layer relu6
I0403 13:53:17.471284 12195 net.cpp:91] Creating Layer relu6
I0403 13:53:17.471302 12195 net.cpp:425] relu6 <- fc6
I0403 13:53:17.471324 12195 net.cpp:386] relu6 -> fc6 (in-place)
I0403 13:53:17.471532 12195 net.cpp:141] Setting up relu6
I0403 13:53:17.471559 12195 net.cpp:148] Top shape: 100 4096 (409600)
I0403 13:53:17.471580 12195 net.cpp:156] Memory required for data: 824972400
I0403 13:53:17.471596 12195 layer_factory.hpp:77] Creating layer drop6
I0403 13:53:17.471617 12195 net.cpp:91] Creating Layer drop6
I0403 13:53:17.471633 12195 net.cpp:425] drop6 <- fc6
I0403 13:53:17.471650 12195 net.cpp:386] drop6 -> fc6 (in-place)
I0403 13:53:17.471703 12195 net.cpp:141] Setting up drop6
I0403 13:53:17.471725 12195 net.cpp:148] Top shape: 100 4096 (409600)
I0403 13:53:17.471741 12195 net.cpp:156] Memory required for data: 826610800
I0403 13:53:17.471757 12195 layer_factory.hpp:77] Creating layer fc7
I0403 13:53:17.471776 12195 net.cpp:91] Creating Layer fc7
I0403 13:53:17.471792 12195 net.cpp:425] fc7 <- fc6
I0403 13:53:17.471813 12195 net.cpp:399] fc7 -> fc7
I0403 13:53:18.150606 12195 net.cpp:141] Setting up fc7
I0403 13:53:18.150650 12195 net.cpp:148] Top shape: 100 4096 (409600)
I0403 13:53:18.150667 12195 net.cpp:156] Memory required for data: 828249200
I0403 13:53:18.150689 12195 layer_factory.hpp:77] Creating layer relu7
I0403 13:53:18.150715 12195 net.cpp:91] Creating Layer relu7
I0403 13:53:18.150737 12195 net.cpp:425] relu7 <- fc7
I0403 13:53:18.150755 12195 net.cpp:386] relu7 -> fc7 (in-place)
I0403 13:53:18.151149 12195 net.cpp:141] Setting up relu7
I0403 13:53:18.151175 12195 net.cpp:148] Top shape: 100 4096 (409600)
I0403 13:53:18.151224 12195 net.cpp:156] Memory required for data: 829887600
I0403 13:53:18.151239 12195 layer_factory.hpp:77] Creating layer drop7
I0403 13:53:18.151262 12195 net.cpp:91] Creating Layer drop7
I0403 13:53:18.151278 12195 net.cpp:425] drop7 <- fc7
I0403 13:53:18.151294 12195 net.cpp:386] drop7 -> fc7 (in-place)
I0403 13:53:18.151337 12195 net.cpp:141] Setting up drop7
I0403 13:53:18.151361 12195 net.cpp:148] Top shape: 100 4096 (409600)
I0403 13:53:18.151376 12195 net.cpp:156] Memory required for data: 831526000
I0403 13:53:18.151391 12195 layer_factory.hpp:77] Creating layer fc8_plantvillage
I0403 13:53:18.151410 12195 net.cpp:91] Creating Layer fc8_plantvillage
I0403 13:53:18.151425 12195 net.cpp:425] fc8_plantvillage <- fc7
I0403 13:53:18.151445 12195 net.cpp:399] fc8_plantvillage -> fc8_plantvillage
I0403 13:53:18.158090 12195 net.cpp:141] Setting up fc8_plantvillage
I0403 13:53:18.158120 12195 net.cpp:148] Top shape: 100 38 (3800)
I0403 13:53:18.158135 12195 net.cpp:156] Memory required for data: 831541200
I0403 13:53:18.158154 12195 layer_factory.hpp:77] Creating layer fc8_plantvillage_fc8_plantvillage_0_split
I0403 13:53:18.158174 12195 net.cpp:91] Creating Layer fc8_plantvillage_fc8_plantvillage_0_split
I0403 13:53:18.158190 12195 net.cpp:425] fc8_plantvillage_fc8_plantvillage_0_split <- fc8_plantvillage
I0403 13:53:18.158207 12195 net.cpp:399] fc8_plantvillage_fc8_plantvillage_0_split -> fc8_plantvillage_fc8_plantvillage_0_split_0
I0403 13:53:18.158226 12195 net.cpp:399] fc8_plantvillage_fc8_plantvillage_0_split -> fc8_plantvillage_fc8_plantvillage_0_split_1
I0403 13:53:18.158244 12195 net.cpp:399] fc8_plantvillage_fc8_plantvillage_0_split -> fc8_plantvillage_fc8_plantvillage_0_split_2
I0403 13:53:18.158323 12195 net.cpp:141] Setting up fc8_plantvillage_fc8_plantvillage_0_split
I0403 13:53:18.158344 12195 net.cpp:148] Top shape: 100 38 (3800)
I0403 13:53:18.158360 12195 net.cpp:148] Top shape: 100 38 (3800)
I0403 13:53:18.158375 12195 net.cpp:148] Top shape: 100 38 (3800)
I0403 13:53:18.158387 12195 net.cpp:156] Memory required for data: 831586800
I0403 13:53:18.158401 12195 layer_factory.hpp:77] Creating layer prob
I0403 13:53:18.158418 12195 net.cpp:91] Creating Layer prob
I0403 13:53:18.158433 12195 net.cpp:425] prob <- fc8_plantvillage_fc8_plantvillage_0_split_0
I0403 13:53:18.158452 12195 net.cpp:399] prob -> prob
I0403 13:53:18.158679 12195 net.cpp:141] Setting up prob
I0403 13:53:18.158704 12195 net.cpp:148] Top shape: 100 38 (3800)
I0403 13:53:18.158718 12195 net.cpp:156] Memory required for data: 831602000
I0403 13:53:18.158732 12195 layer_factory.hpp:77] Creating layer hdf5out
I0403 13:53:18.158752 12195 net.cpp:91] Creating Layer hdf5out
I0403 13:53:18.158768 12195 net.cpp:425] hdf5out <- prob
I0403 13:53:18.158784 12195 net.cpp:425] hdf5out <- label_data_1_split_0
I0403 13:53:18.162952 12195 net.cpp:141] Setting up hdf5out
…
