…
I0403 13:54:45.858566 12241 net.cpp:313] The NetState phase (1) differed from the phase (0) specified by a rule in layer data
I0403 13:54:45.858858 12241 net.cpp:49] Initializing net from parameters: 
state {
  phase: TEST
}
layer {
  name: "data"
  type: "Data"
  top: "data"
  top: "label"
  include {
    phase: TEST
  }
  transform_param {
    crop_size: 227
    mean_file: "/home/mohanty/data/final_dataset/lmdb/grayscale-60-40/mean.binaryproto"
  }
  data_param {
    source: "/home/mohanty/data/final_dataset/lmdb/grayscale-60-40/test_db"
    batch_size: 100
    backend: LMDB
  }
}
layer {
  name: "conv1"
  type: "Convolution"
  bottom: "data"
  top: "conv1"
  param {
    lr_mult: 1
    decay_mult: 1
  }
  param {
    lr_mult: 2
    decay_mult: 0
  }
  convolution_param {
    num_output: 96
    kernel_size: 11
    stride: 4
    weight_filler {
      type: "gaussian"
      std: 0.01
    }
    bias_filler {
      type: "constant"
      value: 0
    }
  }
}
layer {
  name: "relu1"
  type: "ReLU"
  bottom: "conv1"
  top: "conv1"
}
layer {
  name: "norm1"
  type: "LRN"
  bottom: "conv1"
  top: "norm1"
  lrn_param {
    local_size: 5
    alpha: 0.0001
    beta: 0.75
  }
}
layer {
  name: "pool1"
  type: "Pooling"
  bottom: "norm1"
  top: "pool1"
  pooling_param {
    pool: MAX
    kernel_size: 3
    stride: 2
  }
}
layer {
  name: "conv2"
  type: "Convolution"
  bottom: "pool1"
  top: "conv2"
  param {
    lr_mult: 1
    decay_mult: 1
  }
  param {
    lr_mult: 2
    decay_mult: 0
  }
  convolution_param {
    num_output: 256
    pad: 2
    kernel_size: 5
    group: 2
    weight_filler {
      type: "gaussian"
      std: 0.01
    }
    bias_filler {
      type: "constant"
      value: 0.1
    }
  }
}
layer {
  name: "relu2"
  type: "ReLU"
  bottom: "conv2"
  top: "conv2"
}
layer {
  name: "norm2"
  type: "LRN"
  bottom: "conv2"
  top: "norm2"
  lrn_param {
    local_size: 5
    alpha: 0.0001
    beta: 0.75
  }
}
layer {
  name: "pool2"
  type: "Pooling"
  bottom: "norm2"
  top: "pool2"
  pooling_param {
    pool: MAX
    kernel_size: 3
    stride: 2
  }
}
layer {
  name: "conv3"
  type: "Convolution"
  bottom: "pool2"
  top: "conv3"
  param {
    lr_mult: 1
    decay_mult: 1
  }
  param {
    lr_mult: 2
    decay_mult: 0
  }
  convolution_param {
    num_output: 384
    pad: 1
    kernel_size: 3
    weight_filler {
      type: "gaussian"
      std: 0.01
    }
    bias_filler {
      type: "constant"
      value: 0
    }
  }
}
layer {
  name: "relu3"
  type: "ReLU"
  bottom: "conv3"
  top: "conv3"
}
layer {
  name: "conv4"
  type: "Convolution"
  bottom: "conv3"
  top: "conv4"
  param {
    lr_mult: 1
    decay_mult: 1
  }
  param {
    lr_mult: 2
    decay_mult: 0
  }
  convolution_param {
    num_output: 384
    pad: 1
    kernel_size: 3
    group: 2
    weight_filler {
      type: "gaussian"
      std: 0.01
    }
    bias_filler {
      type: "constant"
      value: 0.1
    }
  }
}
layer {
  name: "relu4"
  type: "ReLU"
  bottom: "conv4"
  top: "conv4"
}
layer {
  name: "conv5"
  type: "Convolution"
  bottom: "conv4"
  top: "conv5"
  param {
    lr_mult: 1
    decay_mult: 1
  }
  param {
    lr_mult: 2
    decay_mult: 0
  }
  convolution_param {
    num_output: 256
    pad: 1
    kernel_size: 3
    group: 2
    weight_filler {
      type: "gaussian"
      std: 0.01
    }
    bias_filler {
      type: "constant"
      value: 0.1
    }
  }
}
layer {
  name: "relu5"
  type: "ReLU"
  bottom: "conv5"
  top: "conv5"
}
layer {
  name: "pool5"
  type: "Pooling"
  bottom: "conv5"
  top: "pool5"
  pooling_param {
    pool: MAX
    kernel_size: 3
    stride: 2
  }
}
layer {
  name: "fc6"
  type: "InnerProduct"
  bottom: "pool5"
  top: "fc6"
  param {
    lr_mult: 1
    decay_mult: 1
  }
  param {
    lr_mult: 2
    decay_mult: 0
  }
  inner_product_param {
    num_output: 4096
    weight_filler {
      type: "gaussian"
      std: 0.005
    }
    bias_filler {
      type: "constant"
      value: 0.1
    }
  }
}
layer {
  name: "relu6"
  type: "ReLU"
  bottom: "fc6"
  top: "fc6"
}
layer {
  name: "drop6"
  type: "Dropout"
  bottom: "fc6"
  top: "fc6"
  dropout_param {
    dropout_ratio: 0.5
  }
}
layer {
  name: "fc7"
  type: "InnerProduct"
  bottom: "fc6"
  top: "fc7"
  param {
    lr_mult: 1
    decay_mult: 1
  }
  param {
    lr_mult: 2
    decay_mult: 0
  }
  inner_product_param {
    num_output: 4096
    weight_filler {
      type: "gaussian"
      std: 0.005
    }
    bias_filler {
      type: "constant"
      value: 0.1
    }
  }
}
layer {
  name: "relu7"
  type: "ReLU"
  bottom: "fc7"
  top: "fc7"
}
layer {
  name: "drop7"
  type: "Dropout"
  bottom: "fc7"
  top: "fc7"
  dropout_param {
    dropout_ratio: 0.5
  }
}
layer {
  name: "fc8_plantvillage"
  type: "InnerProduct"
  bottom: "fc7"
  top: "fc8_plantvillage"
  param {
    lr_mult: 1
    decay_mult: 1
  }
  param {
    lr_mult: 2
    decay_mult: 0
  }
  inner_product_param {
    num_output: 38
    weight_filler {
      type: "gaussian"
      std: 0.01
    }
    bias_filler {
      type: "constant"
      value: 0
    }
  }
}
layer {
  name: "prob"
  type: "Softmax"
  bottom: "fc8_plantvillage"
  top: "prob"
  include {
    phase: TEST
  }
}
layer {
  name: "hdf5out"
  type: "HDF5Output"
  bottom: "prob"
  bottom: "label"
  include {
    phase: TEST
  }
  hdf5_output_param {
    file_name: "hdf5_dumps/iter_8125.h5"
  }
}
layer {
  name: "loss"
  type: "SoftmaxWithLoss"
  bottom: "fc8_plantvillage"
  bottom: "label"
  top: "loss"
}
layer {
  name: "accuracy"
  type: "Accuracy"
  bottom: "fc8_plantvillage"
  bottom: "label"
  top: "accuracy"
  include {
    phase: TEST
  }
}
I0403 13:54:45.859427 12241 layer_factory.hpp:77] Creating layer data
I0403 13:54:45.860069 12241 net.cpp:91] Creating Layer data
I0403 13:54:45.860098 12241 net.cpp:399] data -> data
I0403 13:54:45.860147 12241 net.cpp:399] data -> label
I0403 13:54:45.860182 12241 data_transformer.cpp:25] Loading mean file from: /home/mohanty/data/final_dataset/lmdb/grayscale-60-40/mean.binaryproto
I0403 13:54:45.863021 12244 db_lmdb.cpp:38] Opened lmdb /home/mohanty/data/final_dataset/lmdb/grayscale-60-40/test_db
I0403 13:54:45.874404 12241 data_layer.cpp:41] output data size: 100,3,227,227
I0403 13:54:45.996497 12241 net.cpp:141] Setting up data
I0403 13:54:45.996589 12241 net.cpp:148] Top shape: 100 3 227 227 (15458700)
I0403 13:54:45.996618 12241 net.cpp:148] Top shape: 100 (100)
I0403 13:54:45.996634 12241 net.cpp:156] Memory required for data: 61835200
I0403 13:54:45.996664 12241 layer_factory.hpp:77] Creating layer label_data_1_split
I0403 13:54:45.996690 12241 net.cpp:91] Creating Layer label_data_1_split
I0403 13:54:45.996709 12241 net.cpp:425] label_data_1_split <- label
I0403 13:54:45.996742 12241 net.cpp:399] label_data_1_split -> label_data_1_split_0
I0403 13:54:45.996768 12241 net.cpp:399] label_data_1_split -> label_data_1_split_1
I0403 13:54:45.996789 12241 net.cpp:399] label_data_1_split -> label_data_1_split_2
I0403 13:54:45.996855 12241 net.cpp:141] Setting up label_data_1_split
I0403 13:54:45.996878 12241 net.cpp:148] Top shape: 100 (100)
I0403 13:54:45.996896 12241 net.cpp:148] Top shape: 100 (100)
I0403 13:54:45.996912 12241 net.cpp:148] Top shape: 100 (100)
I0403 13:54:45.996927 12241 net.cpp:156] Memory required for data: 61836400
I0403 13:54:45.996942 12241 layer_factory.hpp:77] Creating layer conv1
I0403 13:54:45.996973 12241 net.cpp:91] Creating Layer conv1
I0403 13:54:45.996992 12241 net.cpp:425] conv1 <- data
I0403 13:54:45.997012 12241 net.cpp:399] conv1 -> conv1
I0403 13:54:46.138577 12241 net.cpp:141] Setting up conv1
I0403 13:54:46.138643 12241 net.cpp:148] Top shape: 100 96 55 55 (29040000)
I0403 13:54:46.138660 12241 net.cpp:156] Memory required for data: 177996400
I0403 13:54:46.138690 12241 layer_factory.hpp:77] Creating layer relu1
I0403 13:54:46.138717 12241 net.cpp:91] Creating Layer relu1
I0403 13:54:46.138736 12241 net.cpp:425] relu1 <- conv1
I0403 13:54:46.138753 12241 net.cpp:386] relu1 -> conv1 (in-place)
I0403 13:54:46.139015 12241 net.cpp:141] Setting up relu1
I0403 13:54:46.139042 12241 net.cpp:148] Top shape: 100 96 55 55 (29040000)
I0403 13:54:46.139092 12241 net.cpp:156] Memory required for data: 294156400
I0403 13:54:46.139108 12241 layer_factory.hpp:77] Creating layer norm1
I0403 13:54:46.139137 12241 net.cpp:91] Creating Layer norm1
I0403 13:54:46.139156 12241 net.cpp:425] norm1 <- conv1
I0403 13:54:46.139174 12241 net.cpp:399] norm1 -> norm1
I0403 13:54:46.139531 12241 net.cpp:141] Setting up norm1
I0403 13:54:46.139559 12241 net.cpp:148] Top shape: 100 96 55 55 (29040000)
I0403 13:54:46.139575 12241 net.cpp:156] Memory required for data: 410316400
I0403 13:54:46.139588 12241 layer_factory.hpp:77] Creating layer pool1
I0403 13:54:46.139617 12241 net.cpp:91] Creating Layer pool1
I0403 13:54:46.139636 12241 net.cpp:425] pool1 <- norm1
I0403 13:54:46.139652 12241 net.cpp:399] pool1 -> pool1
I0403 13:54:46.139724 12241 net.cpp:141] Setting up pool1
I0403 13:54:46.139747 12241 net.cpp:148] Top shape: 100 96 27 27 (6998400)
I0403 13:54:46.139762 12241 net.cpp:156] Memory required for data: 438310000
I0403 13:54:46.139776 12241 layer_factory.hpp:77] Creating layer conv2
I0403 13:54:46.139802 12241 net.cpp:91] Creating Layer conv2
I0403 13:54:46.139818 12241 net.cpp:425] conv2 <- pool1
I0403 13:54:46.139838 12241 net.cpp:399] conv2 -> conv2
I0403 13:54:46.154749 12241 net.cpp:141] Setting up conv2
I0403 13:54:46.154783 12241 net.cpp:148] Top shape: 100 256 27 27 (18662400)
I0403 13:54:46.154798 12241 net.cpp:156] Memory required for data: 512959600
I0403 13:54:46.154819 12241 layer_factory.hpp:77] Creating layer relu2
I0403 13:54:46.154841 12241 net.cpp:91] Creating Layer relu2
I0403 13:54:46.154860 12241 net.cpp:425] relu2 <- conv2
I0403 13:54:46.154876 12241 net.cpp:386] relu2 -> conv2 (in-place)
I0403 13:54:46.155148 12241 net.cpp:141] Setting up relu2
I0403 13:54:46.155174 12241 net.cpp:148] Top shape: 100 256 27 27 (18662400)
I0403 13:54:46.155189 12241 net.cpp:156] Memory required for data: 587609200
I0403 13:54:46.155203 12241 layer_factory.hpp:77] Creating layer norm2
I0403 13:54:46.155225 12241 net.cpp:91] Creating Layer norm2
I0403 13:54:46.155241 12241 net.cpp:425] norm2 <- conv2
I0403 13:54:46.155262 12241 net.cpp:399] norm2 -> norm2
I0403 13:54:46.155457 12241 net.cpp:141] Setting up norm2
I0403 13:54:46.155483 12241 net.cpp:148] Top shape: 100 256 27 27 (18662400)
I0403 13:54:46.155498 12241 net.cpp:156] Memory required for data: 662258800
I0403 13:54:46.155513 12241 layer_factory.hpp:77] Creating layer pool2
I0403 13:54:46.155532 12241 net.cpp:91] Creating Layer pool2
I0403 13:54:46.155550 12241 net.cpp:425] pool2 <- norm2
I0403 13:54:46.155565 12241 net.cpp:399] pool2 -> pool2
I0403 13:54:46.155622 12241 net.cpp:141] Setting up pool2
I0403 13:54:46.155647 12241 net.cpp:148] Top shape: 100 256 13 13 (4326400)
I0403 13:54:46.155660 12241 net.cpp:156] Memory required for data: 679564400
I0403 13:54:46.155674 12241 layer_factory.hpp:77] Creating layer conv3
I0403 13:54:46.155696 12241 net.cpp:91] Creating Layer conv3
I0403 13:54:46.155714 12241 net.cpp:425] conv3 <- pool2
I0403 13:54:46.155735 12241 net.cpp:399] conv3 -> conv3
I0403 13:54:46.198107 12241 net.cpp:141] Setting up conv3
I0403 13:54:46.198146 12241 net.cpp:148] Top shape: 100 384 13 13 (6489600)
I0403 13:54:46.198163 12241 net.cpp:156] Memory required for data: 705522800
I0403 13:54:46.198192 12241 layer_factory.hpp:77] Creating layer relu3
I0403 13:54:46.198223 12241 net.cpp:91] Creating Layer relu3
I0403 13:54:46.198241 12241 net.cpp:425] relu3 <- conv3
I0403 13:54:46.198261 12241 net.cpp:386] relu3 -> conv3 (in-place)
I0403 13:54:46.198549 12241 net.cpp:141] Setting up relu3
I0403 13:54:46.198583 12241 net.cpp:148] Top shape: 100 384 13 13 (6489600)
I0403 13:54:46.198609 12241 net.cpp:156] Memory required for data: 731481200
I0403 13:54:46.198632 12241 layer_factory.hpp:77] Creating layer conv4
I0403 13:54:46.198662 12241 net.cpp:91] Creating Layer conv4
I0403 13:54:46.198686 12241 net.cpp:425] conv4 <- conv3
I0403 13:54:46.198714 12241 net.cpp:399] conv4 -> conv4
I0403 13:54:46.228268 12241 net.cpp:141] Setting up conv4
I0403 13:54:46.228318 12241 net.cpp:148] Top shape: 100 384 13 13 (6489600)
I0403 13:54:46.228368 12241 net.cpp:156] Memory required for data: 757439600
I0403 13:54:46.228389 12241 layer_factory.hpp:77] Creating layer relu4
I0403 13:54:46.228411 12241 net.cpp:91] Creating Layer relu4
I0403 13:54:46.228428 12241 net.cpp:425] relu4 <- conv4
I0403 13:54:46.228446 12241 net.cpp:386] relu4 -> conv4 (in-place)
I0403 13:54:46.228721 12241 net.cpp:141] Setting up relu4
I0403 13:54:46.228749 12241 net.cpp:148] Top shape: 100 384 13 13 (6489600)
I0403 13:54:46.228765 12241 net.cpp:156] Memory required for data: 783398000
I0403 13:54:46.228780 12241 layer_factory.hpp:77] Creating layer conv5
I0403 13:54:46.228804 12241 net.cpp:91] Creating Layer conv5
I0403 13:54:46.228821 12241 net.cpp:425] conv5 <- conv4
I0403 13:54:46.228843 12241 net.cpp:399] conv5 -> conv5
I0403 13:54:46.248625 12241 net.cpp:141] Setting up conv5
I0403 13:54:46.248657 12241 net.cpp:148] Top shape: 100 256 13 13 (4326400)
I0403 13:54:46.248674 12241 net.cpp:156] Memory required for data: 800703600
I0403 13:54:46.248697 12241 layer_factory.hpp:77] Creating layer relu5
I0403 13:54:46.248719 12241 net.cpp:91] Creating Layer relu5
I0403 13:54:46.248736 12241 net.cpp:425] relu5 <- conv5
I0403 13:54:46.248754 12241 net.cpp:386] relu5 -> conv5 (in-place)
I0403 13:54:46.249027 12241 net.cpp:141] Setting up relu5
I0403 13:54:46.249053 12241 net.cpp:148] Top shape: 100 256 13 13 (4326400)
I0403 13:54:46.249068 12241 net.cpp:156] Memory required for data: 818009200
I0403 13:54:46.249081 12241 layer_factory.hpp:77] Creating layer pool5
I0403 13:54:46.249105 12241 net.cpp:91] Creating Layer pool5
I0403 13:54:46.249122 12241 net.cpp:425] pool5 <- conv5
I0403 13:54:46.249145 12241 net.cpp:399] pool5 -> pool5
I0403 13:54:46.249203 12241 net.cpp:141] Setting up pool5
I0403 13:54:46.249228 12241 net.cpp:148] Top shape: 100 256 6 6 (921600)
I0403 13:54:46.249243 12241 net.cpp:156] Memory required for data: 821695600
I0403 13:54:46.249256 12241 layer_factory.hpp:77] Creating layer fc6
I0403 13:54:46.249284 12241 net.cpp:91] Creating Layer fc6
I0403 13:54:46.249302 12241 net.cpp:425] fc6 <- pool5
I0403 13:54:46.249320 12241 net.cpp:399] fc6 -> fc6
I0403 13:54:47.780860 12241 net.cpp:141] Setting up fc6
I0403 13:54:47.780901 12241 net.cpp:148] Top shape: 100 4096 (409600)
I0403 13:54:47.780917 12241 net.cpp:156] Memory required for data: 823334000
I0403 13:54:47.780938 12241 layer_factory.hpp:77] Creating layer relu6
I0403 13:54:47.780961 12241 net.cpp:91] Creating Layer relu6
I0403 13:54:47.780978 12241 net.cpp:425] relu6 <- fc6
I0403 13:54:47.780998 12241 net.cpp:386] relu6 -> fc6 (in-place)
I0403 13:54:47.781214 12241 net.cpp:141] Setting up relu6
I0403 13:54:47.781239 12241 net.cpp:148] Top shape: 100 4096 (409600)
I0403 13:54:47.781254 12241 net.cpp:156] Memory required for data: 824972400
I0403 13:54:47.781268 12241 layer_factory.hpp:77] Creating layer drop6
I0403 13:54:47.781289 12241 net.cpp:91] Creating Layer drop6
I0403 13:54:47.781306 12241 net.cpp:425] drop6 <- fc6
I0403 13:54:47.781322 12241 net.cpp:386] drop6 -> fc6 (in-place)
I0403 13:54:47.781375 12241 net.cpp:141] Setting up drop6
I0403 13:54:47.781397 12241 net.cpp:148] Top shape: 100 4096 (409600)
I0403 13:54:47.781412 12241 net.cpp:156] Memory required for data: 826610800
I0403 13:54:47.781427 12241 layer_factory.hpp:77] Creating layer fc7
I0403 13:54:47.781447 12241 net.cpp:91] Creating Layer fc7
I0403 13:54:47.781461 12241 net.cpp:425] fc7 <- fc6
I0403 13:54:47.781481 12241 net.cpp:399] fc7 -> fc7
I0403 13:54:48.455759 12241 net.cpp:141] Setting up fc7
I0403 13:54:48.455798 12241 net.cpp:148] Top shape: 100 4096 (409600)
I0403 13:54:48.455814 12241 net.cpp:156] Memory required for data: 828249200
I0403 13:54:48.455834 12241 layer_factory.hpp:77] Creating layer relu7
I0403 13:54:48.455858 12241 net.cpp:91] Creating Layer relu7
I0403 13:54:48.455875 12241 net.cpp:425] relu7 <- fc7
I0403 13:54:48.455894 12241 net.cpp:386] relu7 -> fc7 (in-place)
I0403 13:54:48.456284 12241 net.cpp:141] Setting up relu7
I0403 13:54:48.456310 12241 net.cpp:148] Top shape: 100 4096 (409600)
I0403 13:54:48.456364 12241 net.cpp:156] Memory required for data: 829887600
I0403 13:54:48.456379 12241 layer_factory.hpp:77] Creating layer drop7
I0403 13:54:48.456399 12241 net.cpp:91] Creating Layer drop7
I0403 13:54:48.456415 12241 net.cpp:425] drop7 <- fc7
I0403 13:54:48.456432 12241 net.cpp:386] drop7 -> fc7 (in-place)
I0403 13:54:48.456475 12241 net.cpp:141] Setting up drop7
I0403 13:54:48.456497 12241 net.cpp:148] Top shape: 100 4096 (409600)
I0403 13:54:48.456512 12241 net.cpp:156] Memory required for data: 831526000
I0403 13:54:48.456535 12241 layer_factory.hpp:77] Creating layer fc8_plantvillage
I0403 13:54:48.456554 12241 net.cpp:91] Creating Layer fc8_plantvillage
I0403 13:54:48.456569 12241 net.cpp:425] fc8_plantvillage <- fc7
I0403 13:54:48.456598 12241 net.cpp:399] fc8_plantvillage -> fc8_plantvillage
I0403 13:54:48.463297 12241 net.cpp:141] Setting up fc8_plantvillage
I0403 13:54:48.463327 12241 net.cpp:148] Top shape: 100 38 (3800)
I0403 13:54:48.463343 12241 net.cpp:156] Memory required for data: 831541200
I0403 13:54:48.463361 12241 layer_factory.hpp:77] Creating layer fc8_plantvillage_fc8_plantvillage_0_split
I0403 13:54:48.463382 12241 net.cpp:91] Creating Layer fc8_plantvillage_fc8_plantvillage_0_split
I0403 13:54:48.463397 12241 net.cpp:425] fc8_plantvillage_fc8_plantvillage_0_split <- fc8_plantvillage
I0403 13:54:48.463414 12241 net.cpp:399] fc8_plantvillage_fc8_plantvillage_0_split -> fc8_plantvillage_fc8_plantvillage_0_split_0
I0403 13:54:48.463434 12241 net.cpp:399] fc8_plantvillage_fc8_plantvillage_0_split -> fc8_plantvillage_fc8_plantvillage_0_split_1
I0403 13:54:48.463456 12241 net.cpp:399] fc8_plantvillage_fc8_plantvillage_0_split -> fc8_plantvillage_fc8_plantvillage_0_split_2
I0403 13:54:48.463536 12241 net.cpp:141] Setting up fc8_plantvillage_fc8_plantvillage_0_split
I0403 13:54:48.463559 12241 net.cpp:148] Top shape: 100 38 (3800)
I0403 13:54:48.463575 12241 net.cpp:148] Top shape: 100 38 (3800)
I0403 13:54:48.463590 12241 net.cpp:148] Top shape: 100 38 (3800)
I0403 13:54:48.463624 12241 net.cpp:156] Memory required for data: 831586800
I0403 13:54:48.463640 12241 layer_factory.hpp:77] Creating layer prob
I0403 13:54:48.463660 12241 net.cpp:91] Creating Layer prob
I0403 13:54:48.463676 12241 net.cpp:425] prob <- fc8_plantvillage_fc8_plantvillage_0_split_0
I0403 13:54:48.463696 12241 net.cpp:399] prob -> prob
I0403 13:54:48.463932 12241 net.cpp:141] Setting up prob
I0403 13:54:48.463958 12241 net.cpp:148] Top shape: 100 38 (3800)
I0403 13:54:48.463973 12241 net.cpp:156] Memory required for data: 831602000
I0403 13:54:48.463987 12241 layer_factory.hpp:77] Creating layer hdf5out
I0403 13:54:48.464010 12241 net.cpp:91] Creating Layer hdf5out
I0403 13:54:48.464026 12241 net.cpp:425] hdf5out <- prob
I0403 13:54:48.464042 12241 net.cpp:425] hdf5out <- label_data_1_split_0
I0403 13:54:48.478983 12241 net.cpp:141] Setting up hdf5out
…
