…
I0403 13:54:00.723920 12228 net.cpp:313] The NetState phase (1) differed from the phase (0) specified by a rule in layer data
I0403 13:54:00.724246 12228 net.cpp:49] Initializing net from parameters: 
state {
  phase: TEST
}
layer {
  name: "data"
  type: "Data"
  top: "data"
  top: "label"
  include {
    phase: TEST
  }
  transform_param {
    crop_size: 227
    mean_file: "/home/mohanty/data/final_dataset/lmdb/grayscale-60-40/mean.binaryproto"
  }
  data_param {
    source: "/home/mohanty/data/final_dataset/lmdb/grayscale-60-40/test_db"
    batch_size: 100
    backend: LMDB
  }
}
layer {
  name: "conv1"
  type: "Convolution"
  bottom: "data"
  top: "conv1"
  param {
    lr_mult: 1
    decay_mult: 1
  }
  param {
    lr_mult: 2
    decay_mult: 0
  }
  convolution_param {
    num_output: 96
    kernel_size: 11
    stride: 4
    weight_filler {
      type: "gaussian"
      std: 0.01
    }
    bias_filler {
      type: "constant"
      value: 0
    }
  }
}
layer {
  name: "relu1"
  type: "ReLU"
  bottom: "conv1"
  top: "conv1"
}
layer {
  name: "norm1"
  type: "LRN"
  bottom: "conv1"
  top: "norm1"
  lrn_param {
    local_size: 5
    alpha: 0.0001
    beta: 0.75
  }
}
layer {
  name: "pool1"
  type: "Pooling"
  bottom: "norm1"
  top: "pool1"
  pooling_param {
    pool: MAX
    kernel_size: 3
    stride: 2
  }
}
layer {
  name: "conv2"
  type: "Convolution"
  bottom: "pool1"
  top: "conv2"
  param {
    lr_mult: 1
    decay_mult: 1
  }
  param {
    lr_mult: 2
    decay_mult: 0
  }
  convolution_param {
    num_output: 256
    pad: 2
    kernel_size: 5
    group: 2
    weight_filler {
      type: "gaussian"
      std: 0.01
    }
    bias_filler {
      type: "constant"
      value: 0.1
    }
  }
}
layer {
  name: "relu2"
  type: "ReLU"
  bottom: "conv2"
  top: "conv2"
}
layer {
  name: "norm2"
  type: "LRN"
  bottom: "conv2"
  top: "norm2"
  lrn_param {
    local_size: 5
    alpha: 0.0001
    beta: 0.75
  }
}
layer {
  name: "pool2"
  type: "Pooling"
  bottom: "norm2"
  top: "pool2"
  pooling_param {
    pool: MAX
    kernel_size: 3
    stride: 2
  }
}
layer {
  name: "conv3"
  type: "Convolution"
  bottom: "pool2"
  top: "conv3"
  param {
    lr_mult: 1
    decay_mult: 1
  }
  param {
    lr_mult: 2
    decay_mult: 0
  }
  convolution_param {
    num_output: 384
    pad: 1
    kernel_size: 3
    weight_filler {
      type: "gaussian"
      std: 0.01
    }
    bias_filler {
      type: "constant"
      value: 0
    }
  }
}
layer {
  name: "relu3"
  type: "ReLU"
  bottom: "conv3"
  top: "conv3"
}
layer {
  name: "conv4"
  type: "Convolution"
  bottom: "conv3"
  top: "conv4"
  param {
    lr_mult: 1
    decay_mult: 1
  }
  param {
    lr_mult: 2
    decay_mult: 0
  }
  convolution_param {
    num_output: 384
    pad: 1
    kernel_size: 3
    group: 2
    weight_filler {
      type: "gaussian"
      std: 0.01
    }
    bias_filler {
      type: "constant"
      value: 0.1
    }
  }
}
layer {
  name: "relu4"
  type: "ReLU"
  bottom: "conv4"
  top: "conv4"
}
layer {
  name: "conv5"
  type: "Convolution"
  bottom: "conv4"
  top: "conv5"
  param {
    lr_mult: 1
    decay_mult: 1
  }
  param {
    lr_mult: 2
    decay_mult: 0
  }
  convolution_param {
    num_output: 256
    pad: 1
    kernel_size: 3
    group: 2
    weight_filler {
      type: "gaussian"
      std: 0.01
    }
    bias_filler {
      type: "constant"
      value: 0.1
    }
  }
}
layer {
  name: "relu5"
  type: "ReLU"
  bottom: "conv5"
  top: "conv5"
}
layer {
  name: "pool5"
  type: "Pooling"
  bottom: "conv5"
  top: "pool5"
  pooling_param {
    pool: MAX
    kernel_size: 3
    stride: 2
  }
}
layer {
  name: "fc6"
  type: "InnerProduct"
  bottom: "pool5"
  top: "fc6"
  param {
    lr_mult: 1
    decay_mult: 1
  }
  param {
    lr_mult: 2
    decay_mult: 0
  }
  inner_product_param {
    num_output: 4096
    weight_filler {
      type: "gaussian"
      std: 0.005
    }
    bias_filler {
      type: "constant"
      value: 0.1
    }
  }
}
layer {
  name: "relu6"
  type: "ReLU"
  bottom: "fc6"
  top: "fc6"
}
layer {
  name: "drop6"
  type: "Dropout"
  bottom: "fc6"
  top: "fc6"
  dropout_param {
    dropout_ratio: 0.5
  }
}
layer {
  name: "fc7"
  type: "InnerProduct"
  bottom: "fc6"
  top: "fc7"
  param {
    lr_mult: 1
    decay_mult: 1
  }
  param {
    lr_mult: 2
    decay_mult: 0
  }
  inner_product_param {
    num_output: 4096
    weight_filler {
      type: "gaussian"
      std: 0.005
    }
    bias_filler {
      type: "constant"
      value: 0.1
    }
  }
}
layer {
  name: "relu7"
  type: "ReLU"
  bottom: "fc7"
  top: "fc7"
}
layer {
  name: "drop7"
  type: "Dropout"
  bottom: "fc7"
  top: "fc7"
  dropout_param {
    dropout_ratio: 0.5
  }
}
layer {
  name: "fc8_plantvillage"
  type: "InnerProduct"
  bottom: "fc7"
  top: "fc8_plantvillage"
  param {
    lr_mult: 1
    decay_mult: 1
  }
  param {
    lr_mult: 2
    decay_mult: 0
  }
  inner_product_param {
    num_output: 38
    weight_filler {
      type: "gaussian"
      std: 0.01
    }
    bias_filler {
      type: "constant"
      value: 0
    }
  }
}
layer {
  name: "prob"
  type: "Softmax"
  bottom: "fc8_plantvillage"
  top: "prob"
  include {
    phase: TEST
  }
}
layer {
  name: "hdf5out"
  type: "HDF5Output"
  bottom: "prob"
  bottom: "label"
  include {
    phase: TEST
  }
  hdf5_output_param {
    file_name: "hdf5_dumps/iter_7800.h5"
  }
}
layer {
  name: "loss"
  type: "SoftmaxWithLoss"
  bottom: "fc8_plantvillage"
  bottom: "label"
  top: "loss"
}
layer {
  name: "accuracy"
  type: "Accuracy"
  bottom: "fc8_plantvillage"
  bottom: "label"
  top: "accuracy"
  include {
    phase: TEST
  }
}
I0403 13:54:00.724829 12228 layer_factory.hpp:77] Creating layer data
I0403 13:54:00.725505 12228 net.cpp:91] Creating Layer data
I0403 13:54:00.725546 12228 net.cpp:399] data -> data
I0403 13:54:00.725605 12228 net.cpp:399] data -> label
I0403 13:54:00.725642 12228 data_transformer.cpp:25] Loading mean file from: /home/mohanty/data/final_dataset/lmdb/grayscale-60-40/mean.binaryproto
I0403 13:54:00.728018 12231 db_lmdb.cpp:38] Opened lmdb /home/mohanty/data/final_dataset/lmdb/grayscale-60-40/test_db
I0403 13:54:00.740537 12228 data_layer.cpp:41] output data size: 100,3,227,227
I0403 13:54:00.865442 12228 net.cpp:141] Setting up data
I0403 13:54:00.865540 12228 net.cpp:148] Top shape: 100 3 227 227 (15458700)
I0403 13:54:00.865607 12228 net.cpp:148] Top shape: 100 (100)
I0403 13:54:00.865629 12228 net.cpp:156] Memory required for data: 61835200
I0403 13:54:00.865684 12228 layer_factory.hpp:77] Creating layer label_data_1_split
I0403 13:54:00.865725 12228 net.cpp:91] Creating Layer label_data_1_split
I0403 13:54:00.865747 12228 net.cpp:425] label_data_1_split <- label
I0403 13:54:00.865782 12228 net.cpp:399] label_data_1_split -> label_data_1_split_0
I0403 13:54:00.865809 12228 net.cpp:399] label_data_1_split -> label_data_1_split_1
I0403 13:54:00.865836 12228 net.cpp:399] label_data_1_split -> label_data_1_split_2
I0403 13:54:00.865916 12228 net.cpp:141] Setting up label_data_1_split
I0403 13:54:00.865942 12228 net.cpp:148] Top shape: 100 (100)
I0403 13:54:00.865964 12228 net.cpp:148] Top shape: 100 (100)
I0403 13:54:00.865985 12228 net.cpp:148] Top shape: 100 (100)
I0403 13:54:00.866015 12228 net.cpp:156] Memory required for data: 61836400
I0403 13:54:00.866044 12228 layer_factory.hpp:77] Creating layer conv1
I0403 13:54:00.866076 12228 net.cpp:91] Creating Layer conv1
I0403 13:54:00.866098 12228 net.cpp:425] conv1 <- data
I0403 13:54:00.866118 12228 net.cpp:399] conv1 -> conv1
I0403 13:54:01.010577 12228 net.cpp:141] Setting up conv1
I0403 13:54:01.010643 12228 net.cpp:148] Top shape: 100 96 55 55 (29040000)
I0403 13:54:01.010661 12228 net.cpp:156] Memory required for data: 177996400
I0403 13:54:01.010694 12228 layer_factory.hpp:77] Creating layer relu1
I0403 13:54:01.010723 12228 net.cpp:91] Creating Layer relu1
I0403 13:54:01.010742 12228 net.cpp:425] relu1 <- conv1
I0403 13:54:01.010762 12228 net.cpp:386] relu1 -> conv1 (in-place)
I0403 13:54:01.011030 12228 net.cpp:141] Setting up relu1
I0403 13:54:01.011059 12228 net.cpp:148] Top shape: 100 96 55 55 (29040000)
I0403 13:54:01.011111 12228 net.cpp:156] Memory required for data: 294156400
I0403 13:54:01.011127 12228 layer_factory.hpp:77] Creating layer norm1
I0403 13:54:01.011155 12228 net.cpp:91] Creating Layer norm1
I0403 13:54:01.011174 12228 net.cpp:425] norm1 <- conv1
I0403 13:54:01.011193 12228 net.cpp:399] norm1 -> norm1
I0403 13:54:01.011513 12228 net.cpp:141] Setting up norm1
I0403 13:54:01.011543 12228 net.cpp:148] Top shape: 100 96 55 55 (29040000)
I0403 13:54:01.011559 12228 net.cpp:156] Memory required for data: 410316400
I0403 13:54:01.011580 12228 layer_factory.hpp:77] Creating layer pool1
I0403 13:54:01.011605 12228 net.cpp:91] Creating Layer pool1
I0403 13:54:01.011623 12228 net.cpp:425] pool1 <- norm1
I0403 13:54:01.011641 12228 net.cpp:399] pool1 -> pool1
I0403 13:54:01.011709 12228 net.cpp:141] Setting up pool1
I0403 13:54:01.011735 12228 net.cpp:148] Top shape: 100 96 27 27 (6998400)
I0403 13:54:01.011750 12228 net.cpp:156] Memory required for data: 438310000
I0403 13:54:01.011766 12228 layer_factory.hpp:77] Creating layer conv2
I0403 13:54:01.011791 12228 net.cpp:91] Creating Layer conv2
I0403 13:54:01.011808 12228 net.cpp:425] conv2 <- pool1
I0403 13:54:01.011827 12228 net.cpp:399] conv2 -> conv2
I0403 13:54:01.027636 12228 net.cpp:141] Setting up conv2
I0403 13:54:01.027678 12228 net.cpp:148] Top shape: 100 256 27 27 (18662400)
I0403 13:54:01.027696 12228 net.cpp:156] Memory required for data: 512959600
I0403 13:54:01.027721 12228 layer_factory.hpp:77] Creating layer relu2
I0403 13:54:01.027751 12228 net.cpp:91] Creating Layer relu2
I0403 13:54:01.027787 12228 net.cpp:425] relu2 <- conv2
I0403 13:54:01.027817 12228 net.cpp:386] relu2 -> conv2 (in-place)
I0403 13:54:01.028110 12228 net.cpp:141] Setting up relu2
I0403 13:54:01.028141 12228 net.cpp:148] Top shape: 100 256 27 27 (18662400)
I0403 13:54:01.028157 12228 net.cpp:156] Memory required for data: 587609200
I0403 13:54:01.028184 12228 layer_factory.hpp:77] Creating layer norm2
I0403 13:54:01.028205 12228 net.cpp:91] Creating Layer norm2
I0403 13:54:01.028223 12228 net.cpp:425] norm2 <- conv2
I0403 13:54:01.028247 12228 net.cpp:399] norm2 -> norm2
I0403 13:54:01.028506 12228 net.cpp:141] Setting up norm2
I0403 13:54:01.028532 12228 net.cpp:148] Top shape: 100 256 27 27 (18662400)
I0403 13:54:01.028551 12228 net.cpp:156] Memory required for data: 662258800
I0403 13:54:01.028585 12228 layer_factory.hpp:77] Creating layer pool2
I0403 13:54:01.028609 12228 net.cpp:91] Creating Layer pool2
I0403 13:54:01.028627 12228 net.cpp:425] pool2 <- norm2
I0403 13:54:01.028656 12228 net.cpp:399] pool2 -> pool2
I0403 13:54:01.028715 12228 net.cpp:141] Setting up pool2
I0403 13:54:01.028739 12228 net.cpp:148] Top shape: 100 256 13 13 (4326400)
I0403 13:54:01.028755 12228 net.cpp:156] Memory required for data: 679564400
I0403 13:54:01.028771 12228 layer_factory.hpp:77] Creating layer conv3
I0403 13:54:01.028795 12228 net.cpp:91] Creating Layer conv3
I0403 13:54:01.028812 12228 net.cpp:425] conv3 <- pool2
I0403 13:54:01.028838 12228 net.cpp:399] conv3 -> conv3
I0403 13:54:01.071508 12228 net.cpp:141] Setting up conv3
I0403 13:54:01.071548 12228 net.cpp:148] Top shape: 100 384 13 13 (6489600)
I0403 13:54:01.071566 12228 net.cpp:156] Memory required for data: 705522800
I0403 13:54:01.071598 12228 layer_factory.hpp:77] Creating layer relu3
I0403 13:54:01.071622 12228 net.cpp:91] Creating Layer relu3
I0403 13:54:01.071641 12228 net.cpp:425] relu3 <- conv3
I0403 13:54:01.071661 12228 net.cpp:386] relu3 -> conv3 (in-place)
I0403 13:54:01.071945 12228 net.cpp:141] Setting up relu3
I0403 13:54:01.071974 12228 net.cpp:148] Top shape: 100 384 13 13 (6489600)
I0403 13:54:01.071990 12228 net.cpp:156] Memory required for data: 731481200
I0403 13:54:01.072005 12228 layer_factory.hpp:77] Creating layer conv4
I0403 13:54:01.072033 12228 net.cpp:91] Creating Layer conv4
I0403 13:54:01.072054 12228 net.cpp:425] conv4 <- conv3
I0403 13:54:01.072075 12228 net.cpp:399] conv4 -> conv4
I0403 13:54:01.103509 12228 net.cpp:141] Setting up conv4
I0403 13:54:01.103585 12228 net.cpp:148] Top shape: 100 384 13 13 (6489600)
I0403 13:54:01.103636 12228 net.cpp:156] Memory required for data: 757439600
I0403 13:54:01.103660 12228 layer_factory.hpp:77] Creating layer relu4
I0403 13:54:01.103687 12228 net.cpp:91] Creating Layer relu4
I0403 13:54:01.103705 12228 net.cpp:425] relu4 <- conv4
I0403 13:54:01.103726 12228 net.cpp:386] relu4 -> conv4 (in-place)
I0403 13:54:01.104015 12228 net.cpp:141] Setting up relu4
I0403 13:54:01.104043 12228 net.cpp:148] Top shape: 100 384 13 13 (6489600)
I0403 13:54:01.104059 12228 net.cpp:156] Memory required for data: 783398000
I0403 13:54:01.104075 12228 layer_factory.hpp:77] Creating layer conv5
I0403 13:54:01.104104 12228 net.cpp:91] Creating Layer conv5
I0403 13:54:01.104121 12228 net.cpp:425] conv5 <- conv4
I0403 13:54:01.104143 12228 net.cpp:399] conv5 -> conv5
I0403 13:54:01.125318 12228 net.cpp:141] Setting up conv5
I0403 13:54:01.125360 12228 net.cpp:148] Top shape: 100 256 13 13 (4326400)
I0403 13:54:01.125376 12228 net.cpp:156] Memory required for data: 800703600
I0403 13:54:01.125402 12228 layer_factory.hpp:77] Creating layer relu5
I0403 13:54:01.125423 12228 net.cpp:91] Creating Layer relu5
I0403 13:54:01.125440 12228 net.cpp:425] relu5 <- conv5
I0403 13:54:01.125458 12228 net.cpp:386] relu5 -> conv5 (in-place)
I0403 13:54:01.125746 12228 net.cpp:141] Setting up relu5
I0403 13:54:01.125773 12228 net.cpp:148] Top shape: 100 256 13 13 (4326400)
I0403 13:54:01.125789 12228 net.cpp:156] Memory required for data: 818009200
I0403 13:54:01.125804 12228 layer_factory.hpp:77] Creating layer pool5
I0403 13:54:01.125829 12228 net.cpp:91] Creating Layer pool5
I0403 13:54:01.125846 12228 net.cpp:425] pool5 <- conv5
I0403 13:54:01.125865 12228 net.cpp:399] pool5 -> pool5
I0403 13:54:01.125928 12228 net.cpp:141] Setting up pool5
I0403 13:54:01.125952 12228 net.cpp:148] Top shape: 100 256 6 6 (921600)
I0403 13:54:01.125967 12228 net.cpp:156] Memory required for data: 821695600
I0403 13:54:01.125982 12228 layer_factory.hpp:77] Creating layer fc6
I0403 13:54:01.126013 12228 net.cpp:91] Creating Layer fc6
I0403 13:54:01.126032 12228 net.cpp:425] fc6 <- pool5
I0403 13:54:01.126052 12228 net.cpp:399] fc6 -> fc6
I0403 13:54:02.672125 12228 net.cpp:141] Setting up fc6
I0403 13:54:02.672169 12228 net.cpp:148] Top shape: 100 4096 (409600)
I0403 13:54:02.672188 12228 net.cpp:156] Memory required for data: 823334000
I0403 13:54:02.672209 12228 layer_factory.hpp:77] Creating layer relu6
I0403 13:54:02.672231 12228 net.cpp:91] Creating Layer relu6
I0403 13:54:02.672250 12228 net.cpp:425] relu6 <- fc6
I0403 13:54:02.672282 12228 net.cpp:386] relu6 -> fc6 (in-place)
I0403 13:54:02.672503 12228 net.cpp:141] Setting up relu6
I0403 13:54:02.672529 12228 net.cpp:148] Top shape: 100 4096 (409600)
I0403 13:54:02.672544 12228 net.cpp:156] Memory required for data: 824972400
I0403 13:54:02.672574 12228 layer_factory.hpp:77] Creating layer drop6
I0403 13:54:02.672598 12228 net.cpp:91] Creating Layer drop6
I0403 13:54:02.672616 12228 net.cpp:425] drop6 <- fc6
I0403 13:54:02.672633 12228 net.cpp:386] drop6 -> fc6 (in-place)
I0403 13:54:02.672685 12228 net.cpp:141] Setting up drop6
I0403 13:54:02.672710 12228 net.cpp:148] Top shape: 100 4096 (409600)
I0403 13:54:02.672725 12228 net.cpp:156] Memory required for data: 826610800
I0403 13:54:02.672739 12228 layer_factory.hpp:77] Creating layer fc7
I0403 13:54:02.672760 12228 net.cpp:91] Creating Layer fc7
I0403 13:54:02.672777 12228 net.cpp:425] fc7 <- fc6
I0403 13:54:02.672798 12228 net.cpp:399] fc7 -> fc7
I0403 13:54:03.348618 12228 net.cpp:141] Setting up fc7
I0403 13:54:03.348686 12228 net.cpp:148] Top shape: 100 4096 (409600)
I0403 13:54:03.348701 12228 net.cpp:156] Memory required for data: 828249200
I0403 13:54:03.348722 12228 layer_factory.hpp:77] Creating layer relu7
I0403 13:54:03.348745 12228 net.cpp:91] Creating Layer relu7
I0403 13:54:03.348763 12228 net.cpp:425] relu7 <- fc7
I0403 13:54:03.348783 12228 net.cpp:386] relu7 -> fc7 (in-place)
I0403 13:54:03.349169 12228 net.cpp:141] Setting up relu7
I0403 13:54:03.349195 12228 net.cpp:148] Top shape: 100 4096 (409600)
I0403 13:54:03.349251 12228 net.cpp:156] Memory required for data: 829887600
I0403 13:54:03.349267 12228 layer_factory.hpp:77] Creating layer drop7
I0403 13:54:03.349287 12228 net.cpp:91] Creating Layer drop7
I0403 13:54:03.349303 12228 net.cpp:425] drop7 <- fc7
I0403 13:54:03.349320 12228 net.cpp:386] drop7 -> fc7 (in-place)
I0403 13:54:03.349364 12228 net.cpp:141] Setting up drop7
I0403 13:54:03.349385 12228 net.cpp:148] Top shape: 100 4096 (409600)
I0403 13:54:03.349398 12228 net.cpp:156] Memory required for data: 831526000
I0403 13:54:03.349413 12228 layer_factory.hpp:77] Creating layer fc8_plantvillage
I0403 13:54:03.349432 12228 net.cpp:91] Creating Layer fc8_plantvillage
I0403 13:54:03.349447 12228 net.cpp:425] fc8_plantvillage <- fc7
I0403 13:54:03.349467 12228 net.cpp:399] fc8_plantvillage -> fc8_plantvillage
I0403 13:54:03.356055 12228 net.cpp:141] Setting up fc8_plantvillage
I0403 13:54:03.356086 12228 net.cpp:148] Top shape: 100 38 (3800)
I0403 13:54:03.356101 12228 net.cpp:156] Memory required for data: 831541200
I0403 13:54:03.356119 12228 layer_factory.hpp:77] Creating layer fc8_plantvillage_fc8_plantvillage_0_split
I0403 13:54:03.356138 12228 net.cpp:91] Creating Layer fc8_plantvillage_fc8_plantvillage_0_split
I0403 13:54:03.356154 12228 net.cpp:425] fc8_plantvillage_fc8_plantvillage_0_split <- fc8_plantvillage
I0403 13:54:03.356173 12228 net.cpp:399] fc8_plantvillage_fc8_plantvillage_0_split -> fc8_plantvillage_fc8_plantvillage_0_split_0
I0403 13:54:03.356192 12228 net.cpp:399] fc8_plantvillage_fc8_plantvillage_0_split -> fc8_plantvillage_fc8_plantvillage_0_split_1
I0403 13:54:03.356212 12228 net.cpp:399] fc8_plantvillage_fc8_plantvillage_0_split -> fc8_plantvillage_fc8_plantvillage_0_split_2
I0403 13:54:03.356290 12228 net.cpp:141] Setting up fc8_plantvillage_fc8_plantvillage_0_split
I0403 13:54:03.356313 12228 net.cpp:148] Top shape: 100 38 (3800)
I0403 13:54:03.356329 12228 net.cpp:148] Top shape: 100 38 (3800)
I0403 13:54:03.356345 12228 net.cpp:148] Top shape: 100 38 (3800)
I0403 13:54:03.356359 12228 net.cpp:156] Memory required for data: 831586800
I0403 13:54:03.356374 12228 layer_factory.hpp:77] Creating layer prob
I0403 13:54:03.356391 12228 net.cpp:91] Creating Layer prob
I0403 13:54:03.356407 12228 net.cpp:425] prob <- fc8_plantvillage_fc8_plantvillage_0_split_0
I0403 13:54:03.356426 12228 net.cpp:399] prob -> prob
I0403 13:54:03.356668 12228 net.cpp:141] Setting up prob
I0403 13:54:03.356694 12228 net.cpp:148] Top shape: 100 38 (3800)
I0403 13:54:03.356709 12228 net.cpp:156] Memory required for data: 831602000
I0403 13:54:03.356724 12228 layer_factory.hpp:77] Creating layer hdf5out
I0403 13:54:03.356746 12228 net.cpp:91] Creating Layer hdf5out
I0403 13:54:03.356763 12228 net.cpp:425] hdf5out <- prob
I0403 13:54:03.356781 12228 net.cpp:425] hdf5out <- label_data_1_split_0
I0403 13:54:03.360746 12228 net.cpp:141] Setting up hdf5out
…
