…
I0403 13:44:13.410125 11997 net.cpp:313] The NetState phase (1) differed from the phase (0) specified by a rule in layer data
I0403 13:44:13.410445 11997 net.cpp:49] Initializing net from parameters: 
state {
  phase: TEST
}
layer {
  name: "data"
  type: "Data"
  top: "data"
  top: "label"
  include {
    phase: TEST
  }
  transform_param {
    crop_size: 227
    mean_file: "/home/mohanty/data/final_dataset/lmdb/grayscale-60-40/mean.binaryproto"
  }
  data_param {
    source: "/home/mohanty/data/final_dataset/lmdb/grayscale-60-40/test_db"
    batch_size: 100
    backend: LMDB
  }
}
layer {
  name: "conv1"
  type: "Convolution"
  bottom: "data"
  top: "conv1"
  param {
    lr_mult: 1
    decay_mult: 1
  }
  param {
    lr_mult: 2
    decay_mult: 0
  }
  convolution_param {
    num_output: 96
    kernel_size: 11
    stride: 4
    weight_filler {
      type: "gaussian"
      std: 0.01
    }
    bias_filler {
      type: "constant"
      value: 0
    }
  }
}
layer {
  name: "relu1"
  type: "ReLU"
  bottom: "conv1"
  top: "conv1"
}
layer {
  name: "norm1"
  type: "LRN"
  bottom: "conv1"
  top: "norm1"
  lrn_param {
    local_size: 5
    alpha: 0.0001
    beta: 0.75
  }
}
layer {
  name: "pool1"
  type: "Pooling"
  bottom: "norm1"
  top: "pool1"
  pooling_param {
    pool: MAX
    kernel_size: 3
    stride: 2
  }
}
layer {
  name: "conv2"
  type: "Convolution"
  bottom: "pool1"
  top: "conv2"
  param {
    lr_mult: 1
    decay_mult: 1
  }
  param {
    lr_mult: 2
    decay_mult: 0
  }
  convolution_param {
    num_output: 256
    pad: 2
    kernel_size: 5
    group: 2
    weight_filler {
      type: "gaussian"
      std: 0.01
    }
    bias_filler {
      type: "constant"
      value: 0.1
    }
  }
}
layer {
  name: "relu2"
  type: "ReLU"
  bottom: "conv2"
  top: "conv2"
}
layer {
  name: "norm2"
  type: "LRN"
  bottom: "conv2"
  top: "norm2"
  lrn_param {
    local_size: 5
    alpha: 0.0001
    beta: 0.75
  }
}
layer {
  name: "pool2"
  type: "Pooling"
  bottom: "norm2"
  top: "pool2"
  pooling_param {
    pool: MAX
    kernel_size: 3
    stride: 2
  }
}
layer {
  name: "conv3"
  type: "Convolution"
  bottom: "pool2"
  top: "conv3"
  param {
    lr_mult: 1
    decay_mult: 1
  }
  param {
    lr_mult: 2
    decay_mult: 0
  }
  convolution_param {
    num_output: 384
    pad: 1
    kernel_size: 3
    weight_filler {
      type: "gaussian"
      std: 0.01
    }
    bias_filler {
      type: "constant"
      value: 0
    }
  }
}
layer {
  name: "relu3"
  type: "ReLU"
  bottom: "conv3"
  top: "conv3"
}
layer {
  name: "conv4"
  type: "Convolution"
  bottom: "conv3"
  top: "conv4"
  param {
    lr_mult: 1
    decay_mult: 1
  }
  param {
    lr_mult: 2
    decay_mult: 0
  }
  convolution_param {
    num_output: 384
    pad: 1
    kernel_size: 3
    group: 2
    weight_filler {
      type: "gaussian"
      std: 0.01
    }
    bias_filler {
      type: "constant"
      value: 0.1
    }
  }
}
layer {
  name: "relu4"
  type: "ReLU"
  bottom: "conv4"
  top: "conv4"
}
layer {
  name: "conv5"
  type: "Convolution"
  bottom: "conv4"
  top: "conv5"
  param {
    lr_mult: 1
    decay_mult: 1
  }
  param {
    lr_mult: 2
    decay_mult: 0
  }
  convolution_param {
    num_output: 256
    pad: 1
    kernel_size: 3
    group: 2
    weight_filler {
      type: "gaussian"
      std: 0.01
    }
    bias_filler {
      type: "constant"
      value: 0.1
    }
  }
}
layer {
  name: "relu5"
  type: "ReLU"
  bottom: "conv5"
  top: "conv5"
}
layer {
  name: "pool5"
  type: "Pooling"
  bottom: "conv5"
  top: "pool5"
  pooling_param {
    pool: MAX
    kernel_size: 3
    stride: 2
  }
}
layer {
  name: "fc6"
  type: "InnerProduct"
  bottom: "pool5"
  top: "fc6"
  param {
    lr_mult: 1
    decay_mult: 1
  }
  param {
    lr_mult: 2
    decay_mult: 0
  }
  inner_product_param {
    num_output: 4096
    weight_filler {
      type: "gaussian"
      std: 0.005
    }
    bias_filler {
      type: "constant"
      value: 0.1
    }
  }
}
layer {
  name: "relu6"
  type: "ReLU"
  bottom: "fc6"
  top: "fc6"
}
layer {
  name: "drop6"
  type: "Dropout"
  bottom: "fc6"
  top: "fc6"
  dropout_param {
    dropout_ratio: 0.5
  }
}
layer {
  name: "fc7"
  type: "InnerProduct"
  bottom: "fc6"
  top: "fc7"
  param {
    lr_mult: 1
    decay_mult: 1
  }
  param {
    lr_mult: 2
    decay_mult: 0
  }
  inner_product_param {
    num_output: 4096
    weight_filler {
      type: "gaussian"
      std: 0.005
    }
    bias_filler {
      type: "constant"
      value: 0.1
    }
  }
}
layer {
  name: "relu7"
  type: "ReLU"
  bottom: "fc7"
  top: "fc7"
}
layer {
  name: "drop7"
  type: "Dropout"
  bottom: "fc7"
  top: "fc7"
  dropout_param {
    dropout_ratio: 0.5
  }
}
layer {
  name: "fc8_plantvillage"
  type: "InnerProduct"
  bottom: "fc7"
  top: "fc8_plantvillage"
  param {
    lr_mult: 1
    decay_mult: 1
  }
  param {
    lr_mult: 2
    decay_mult: 0
  }
  inner_product_param {
    num_output: 38
    weight_filler {
      type: "gaussian"
      std: 0.01
    }
    bias_filler {
      type: "constant"
      value: 0
    }
  }
}
layer {
  name: "prob"
  type: "Softmax"
  bottom: "fc8_plantvillage"
  top: "prob"
  include {
    phase: TEST
  }
}
layer {
  name: "hdf5out"
  type: "HDF5Output"
  bottom: "prob"
  bottom: "label"
  include {
    phase: TEST
  }
  hdf5_output_param {
    file_name: "hdf5_dumps/iter_3575.h5"
  }
}
layer {
  name: "loss"
  type: "SoftmaxWithLoss"
  bottom: "fc8_plantvillage"
  bottom: "label"
  top: "loss"
}
layer {
  name: "accuracy"
  type: "Accuracy"
  bottom: "fc8_plantvillage"
  bottom: "label"
  top: "accuracy"
  include {
    phase: TEST
  }
}
I0403 13:44:13.411036 11997 layer_factory.hpp:77] Creating layer data
I0403 13:44:13.411703 11997 net.cpp:91] Creating Layer data
I0403 13:44:13.411734 11997 net.cpp:399] data -> data
I0403 13:44:13.411787 11997 net.cpp:399] data -> label
I0403 13:44:13.411823 11997 data_transformer.cpp:25] Loading mean file from: /home/mohanty/data/final_dataset/lmdb/grayscale-60-40/mean.binaryproto
I0403 13:44:13.414793 12000 db_lmdb.cpp:38] Opened lmdb /home/mohanty/data/final_dataset/lmdb/grayscale-60-40/test_db
I0403 13:44:13.426360 11997 data_layer.cpp:41] output data size: 100,3,227,227
I0403 13:44:13.550016 11997 net.cpp:141] Setting up data
I0403 13:44:13.550077 11997 net.cpp:148] Top shape: 100 3 227 227 (15458700)
I0403 13:44:13.550101 11997 net.cpp:148] Top shape: 100 (100)
I0403 13:44:13.550115 11997 net.cpp:156] Memory required for data: 61835200
I0403 13:44:13.550143 11997 layer_factory.hpp:77] Creating layer label_data_1_split
I0403 13:44:13.550169 11997 net.cpp:91] Creating Layer label_data_1_split
I0403 13:44:13.550187 11997 net.cpp:425] label_data_1_split <- label
I0403 13:44:13.550220 11997 net.cpp:399] label_data_1_split -> label_data_1_split_0
I0403 13:44:13.550246 11997 net.cpp:399] label_data_1_split -> label_data_1_split_1
I0403 13:44:13.550267 11997 net.cpp:399] label_data_1_split -> label_data_1_split_2
I0403 13:44:13.550330 11997 net.cpp:141] Setting up label_data_1_split
I0403 13:44:13.550354 11997 net.cpp:148] Top shape: 100 (100)
I0403 13:44:13.550370 11997 net.cpp:148] Top shape: 100 (100)
I0403 13:44:13.550387 11997 net.cpp:148] Top shape: 100 (100)
I0403 13:44:13.550401 11997 net.cpp:156] Memory required for data: 61836400
I0403 13:44:13.550416 11997 layer_factory.hpp:77] Creating layer conv1
I0403 13:44:13.550448 11997 net.cpp:91] Creating Layer conv1
I0403 13:44:13.550467 11997 net.cpp:425] conv1 <- data
I0403 13:44:13.550487 11997 net.cpp:399] conv1 -> conv1
I0403 13:44:13.695906 11997 net.cpp:141] Setting up conv1
I0403 13:44:13.695984 11997 net.cpp:148] Top shape: 100 96 55 55 (29040000)
I0403 13:44:13.696002 11997 net.cpp:156] Memory required for data: 177996400
I0403 13:44:13.696033 11997 layer_factory.hpp:77] Creating layer relu1
I0403 13:44:13.696061 11997 net.cpp:91] Creating Layer relu1
I0403 13:44:13.696079 11997 net.cpp:425] relu1 <- conv1
I0403 13:44:13.696099 11997 net.cpp:386] relu1 -> conv1 (in-place)
I0403 13:44:13.696358 11997 net.cpp:141] Setting up relu1
I0403 13:44:13.696387 11997 net.cpp:148] Top shape: 100 96 55 55 (29040000)
I0403 13:44:13.696434 11997 net.cpp:156] Memory required for data: 294156400
I0403 13:44:13.696451 11997 layer_factory.hpp:77] Creating layer norm1
I0403 13:44:13.696478 11997 net.cpp:91] Creating Layer norm1
I0403 13:44:13.696496 11997 net.cpp:425] norm1 <- conv1
I0403 13:44:13.696514 11997 net.cpp:399] norm1 -> norm1
I0403 13:44:13.696847 11997 net.cpp:141] Setting up norm1
I0403 13:44:13.696876 11997 net.cpp:148] Top shape: 100 96 55 55 (29040000)
I0403 13:44:13.696892 11997 net.cpp:156] Memory required for data: 410316400
I0403 13:44:13.696905 11997 layer_factory.hpp:77] Creating layer pool1
I0403 13:44:13.696931 11997 net.cpp:91] Creating Layer pool1
I0403 13:44:13.696949 11997 net.cpp:425] pool1 <- norm1
I0403 13:44:13.696967 11997 net.cpp:399] pool1 -> pool1
I0403 13:44:13.697039 11997 net.cpp:141] Setting up pool1
I0403 13:44:13.697063 11997 net.cpp:148] Top shape: 100 96 27 27 (6998400)
I0403 13:44:13.697078 11997 net.cpp:156] Memory required for data: 438310000
I0403 13:44:13.697093 11997 layer_factory.hpp:77] Creating layer conv2
I0403 13:44:13.697118 11997 net.cpp:91] Creating Layer conv2
I0403 13:44:13.697135 11997 net.cpp:425] conv2 <- pool1
I0403 13:44:13.697159 11997 net.cpp:399] conv2 -> conv2
I0403 13:44:13.714242 11997 net.cpp:141] Setting up conv2
I0403 13:44:13.714279 11997 net.cpp:148] Top shape: 100 256 27 27 (18662400)
I0403 13:44:13.714308 11997 net.cpp:156] Memory required for data: 512959600
I0403 13:44:13.714334 11997 layer_factory.hpp:77] Creating layer relu2
I0403 13:44:13.714355 11997 net.cpp:91] Creating Layer relu2
I0403 13:44:13.714372 11997 net.cpp:425] relu2 <- conv2
I0403 13:44:13.714390 11997 net.cpp:386] relu2 -> conv2 (in-place)
I0403 13:44:13.714691 11997 net.cpp:141] Setting up relu2
I0403 13:44:13.714721 11997 net.cpp:148] Top shape: 100 256 27 27 (18662400)
I0403 13:44:13.714737 11997 net.cpp:156] Memory required for data: 587609200
I0403 13:44:13.714753 11997 layer_factory.hpp:77] Creating layer norm2
I0403 13:44:13.714776 11997 net.cpp:91] Creating Layer norm2
I0403 13:44:13.714838 11997 net.cpp:425] norm2 <- conv2
I0403 13:44:13.714865 11997 net.cpp:399] norm2 -> norm2
I0403 13:44:13.715072 11997 net.cpp:141] Setting up norm2
I0403 13:44:13.715097 11997 net.cpp:148] Top shape: 100 256 27 27 (18662400)
I0403 13:44:13.715113 11997 net.cpp:156] Memory required for data: 662258800
I0403 13:44:13.715127 11997 layer_factory.hpp:77] Creating layer pool2
I0403 13:44:13.715148 11997 net.cpp:91] Creating Layer pool2
I0403 13:44:13.715164 11997 net.cpp:425] pool2 <- norm2
I0403 13:44:13.715181 11997 net.cpp:399] pool2 -> pool2
I0403 13:44:13.715236 11997 net.cpp:141] Setting up pool2
I0403 13:44:13.715260 11997 net.cpp:148] Top shape: 100 256 13 13 (4326400)
I0403 13:44:13.715275 11997 net.cpp:156] Memory required for data: 679564400
I0403 13:44:13.715289 11997 layer_factory.hpp:77] Creating layer conv3
I0403 13:44:13.715312 11997 net.cpp:91] Creating Layer conv3
I0403 13:44:13.715329 11997 net.cpp:425] conv3 <- pool2
I0403 13:44:13.715349 11997 net.cpp:399] conv3 -> conv3
I0403 13:44:13.753137 11997 net.cpp:141] Setting up conv3
I0403 13:44:13.753186 11997 net.cpp:148] Top shape: 100 384 13 13 (6489600)
I0403 13:44:13.753203 11997 net.cpp:156] Memory required for data: 705522800
I0403 13:44:13.753226 11997 layer_factory.hpp:77] Creating layer relu3
I0403 13:44:13.753250 11997 net.cpp:91] Creating Layer relu3
I0403 13:44:13.753268 11997 net.cpp:425] relu3 <- conv3
I0403 13:44:13.753284 11997 net.cpp:386] relu3 -> conv3 (in-place)
I0403 13:44:13.753552 11997 net.cpp:141] Setting up relu3
I0403 13:44:13.753578 11997 net.cpp:148] Top shape: 100 384 13 13 (6489600)
I0403 13:44:13.753593 11997 net.cpp:156] Memory required for data: 731481200
I0403 13:44:13.753612 11997 layer_factory.hpp:77] Creating layer conv4
I0403 13:44:13.753638 11997 net.cpp:91] Creating Layer conv4
I0403 13:44:13.753656 11997 net.cpp:425] conv4 <- conv3
I0403 13:44:13.753675 11997 net.cpp:399] conv4 -> conv4
I0403 13:44:13.783781 11997 net.cpp:141] Setting up conv4
I0403 13:44:13.783849 11997 net.cpp:148] Top shape: 100 384 13 13 (6489600)
I0403 13:44:13.783900 11997 net.cpp:156] Memory required for data: 757439600
I0403 13:44:13.783921 11997 layer_factory.hpp:77] Creating layer relu4
I0403 13:44:13.783946 11997 net.cpp:91] Creating Layer relu4
I0403 13:44:13.783965 11997 net.cpp:425] relu4 <- conv4
I0403 13:44:13.783987 11997 net.cpp:386] relu4 -> conv4 (in-place)
I0403 13:44:13.784320 11997 net.cpp:141] Setting up relu4
I0403 13:44:13.784348 11997 net.cpp:148] Top shape: 100 384 13 13 (6489600)
I0403 13:44:13.784364 11997 net.cpp:156] Memory required for data: 783398000
I0403 13:44:13.784379 11997 layer_factory.hpp:77] Creating layer conv5
I0403 13:44:13.784405 11997 net.cpp:91] Creating Layer conv5
I0403 13:44:13.784422 11997 net.cpp:425] conv5 <- conv4
I0403 13:44:13.784445 11997 net.cpp:399] conv5 -> conv5
I0403 13:44:13.806053 11997 net.cpp:141] Setting up conv5
I0403 13:44:13.806090 11997 net.cpp:148] Top shape: 100 256 13 13 (4326400)
I0403 13:44:13.806107 11997 net.cpp:156] Memory required for data: 800703600
I0403 13:44:13.806133 11997 layer_factory.hpp:77] Creating layer relu5
I0403 13:44:13.806155 11997 net.cpp:91] Creating Layer relu5
I0403 13:44:13.806172 11997 net.cpp:425] relu5 <- conv5
I0403 13:44:13.806190 11997 net.cpp:386] relu5 -> conv5 (in-place)
I0403 13:44:13.806463 11997 net.cpp:141] Setting up relu5
I0403 13:44:13.806488 11997 net.cpp:148] Top shape: 100 256 13 13 (4326400)
I0403 13:44:13.806504 11997 net.cpp:156] Memory required for data: 818009200
I0403 13:44:13.806519 11997 layer_factory.hpp:77] Creating layer pool5
I0403 13:44:13.806542 11997 net.cpp:91] Creating Layer pool5
I0403 13:44:13.806558 11997 net.cpp:425] pool5 <- conv5
I0403 13:44:13.806576 11997 net.cpp:399] pool5 -> pool5
I0403 13:44:13.806674 11997 net.cpp:141] Setting up pool5
I0403 13:44:13.806699 11997 net.cpp:148] Top shape: 100 256 6 6 (921600)
I0403 13:44:13.806712 11997 net.cpp:156] Memory required for data: 821695600
I0403 13:44:13.806727 11997 layer_factory.hpp:77] Creating layer fc6
I0403 13:44:13.806756 11997 net.cpp:91] Creating Layer fc6
I0403 13:44:13.806772 11997 net.cpp:425] fc6 <- pool5
I0403 13:44:13.806792 11997 net.cpp:399] fc6 -> fc6
I0403 13:44:15.341372 11997 net.cpp:141] Setting up fc6
I0403 13:44:15.341418 11997 net.cpp:148] Top shape: 100 4096 (409600)
I0403 13:44:15.341434 11997 net.cpp:156] Memory required for data: 823334000
I0403 13:44:15.341455 11997 layer_factory.hpp:77] Creating layer relu6
I0403 13:44:15.341476 11997 net.cpp:91] Creating Layer relu6
I0403 13:44:15.341492 11997 net.cpp:425] relu6 <- fc6
I0403 13:44:15.341514 11997 net.cpp:386] relu6 -> fc6 (in-place)
I0403 13:44:15.341738 11997 net.cpp:141] Setting up relu6
I0403 13:44:15.341765 11997 net.cpp:148] Top shape: 100 4096 (409600)
I0403 13:44:15.341781 11997 net.cpp:156] Memory required for data: 824972400
I0403 13:44:15.341796 11997 layer_factory.hpp:77] Creating layer drop6
I0403 13:44:15.341823 11997 net.cpp:91] Creating Layer drop6
I0403 13:44:15.341840 11997 net.cpp:425] drop6 <- fc6
I0403 13:44:15.341857 11997 net.cpp:386] drop6 -> fc6 (in-place)
I0403 13:44:15.341912 11997 net.cpp:141] Setting up drop6
I0403 13:44:15.341934 11997 net.cpp:148] Top shape: 100 4096 (409600)
I0403 13:44:15.341948 11997 net.cpp:156] Memory required for data: 826610800
I0403 13:44:15.341963 11997 layer_factory.hpp:77] Creating layer fc7
I0403 13:44:15.341981 11997 net.cpp:91] Creating Layer fc7
I0403 13:44:15.341996 11997 net.cpp:425] fc7 <- fc6
I0403 13:44:15.342016 11997 net.cpp:399] fc7 -> fc7
I0403 13:44:16.018429 11997 net.cpp:141] Setting up fc7
I0403 13:44:16.018468 11997 net.cpp:148] Top shape: 100 4096 (409600)
I0403 13:44:16.018484 11997 net.cpp:156] Memory required for data: 828249200
I0403 13:44:16.018503 11997 layer_factory.hpp:77] Creating layer relu7
I0403 13:44:16.018527 11997 net.cpp:91] Creating Layer relu7
I0403 13:44:16.018543 11997 net.cpp:425] relu7 <- fc7
I0403 13:44:16.018561 11997 net.cpp:386] relu7 -> fc7 (in-place)
I0403 13:44:16.018949 11997 net.cpp:141] Setting up relu7
I0403 13:44:16.018975 11997 net.cpp:148] Top shape: 100 4096 (409600)
I0403 13:44:16.019028 11997 net.cpp:156] Memory required for data: 829887600
I0403 13:44:16.019044 11997 layer_factory.hpp:77] Creating layer drop7
I0403 13:44:16.019064 11997 net.cpp:91] Creating Layer drop7
I0403 13:44:16.019081 11997 net.cpp:425] drop7 <- fc7
I0403 13:44:16.019098 11997 net.cpp:386] drop7 -> fc7 (in-place)
I0403 13:44:16.019140 11997 net.cpp:141] Setting up drop7
I0403 13:44:16.019161 11997 net.cpp:148] Top shape: 100 4096 (409600)
I0403 13:44:16.019176 11997 net.cpp:156] Memory required for data: 831526000
I0403 13:44:16.019188 11997 layer_factory.hpp:77] Creating layer fc8_plantvillage
I0403 13:44:16.019207 11997 net.cpp:91] Creating Layer fc8_plantvillage
I0403 13:44:16.019222 11997 net.cpp:425] fc8_plantvillage <- fc7
I0403 13:44:16.019242 11997 net.cpp:399] fc8_plantvillage -> fc8_plantvillage
I0403 13:44:16.025761 11997 net.cpp:141] Setting up fc8_plantvillage
I0403 13:44:16.025791 11997 net.cpp:148] Top shape: 100 38 (3800)
I0403 13:44:16.025806 11997 net.cpp:156] Memory required for data: 831541200
I0403 13:44:16.025825 11997 layer_factory.hpp:77] Creating layer fc8_plantvillage_fc8_plantvillage_0_split
I0403 13:44:16.025842 11997 net.cpp:91] Creating Layer fc8_plantvillage_fc8_plantvillage_0_split
I0403 13:44:16.025856 11997 net.cpp:425] fc8_plantvillage_fc8_plantvillage_0_split <- fc8_plantvillage
I0403 13:44:16.025872 11997 net.cpp:399] fc8_plantvillage_fc8_plantvillage_0_split -> fc8_plantvillage_fc8_plantvillage_0_split_0
I0403 13:44:16.025892 11997 net.cpp:399] fc8_plantvillage_fc8_plantvillage_0_split -> fc8_plantvillage_fc8_plantvillage_0_split_1
I0403 13:44:16.025910 11997 net.cpp:399] fc8_plantvillage_fc8_plantvillage_0_split -> fc8_plantvillage_fc8_plantvillage_0_split_2
I0403 13:44:16.025985 11997 net.cpp:141] Setting up fc8_plantvillage_fc8_plantvillage_0_split
I0403 13:44:16.026007 11997 net.cpp:148] Top shape: 100 38 (3800)
I0403 13:44:16.026022 11997 net.cpp:148] Top shape: 100 38 (3800)
I0403 13:44:16.026037 11997 net.cpp:148] Top shape: 100 38 (3800)
I0403 13:44:16.026051 11997 net.cpp:156] Memory required for data: 831586800
I0403 13:44:16.026063 11997 layer_factory.hpp:77] Creating layer prob
I0403 13:44:16.026080 11997 net.cpp:91] Creating Layer prob
I0403 13:44:16.026094 11997 net.cpp:425] prob <- fc8_plantvillage_fc8_plantvillage_0_split_0
I0403 13:44:16.026111 11997 net.cpp:399] prob -> prob
I0403 13:44:16.026332 11997 net.cpp:141] Setting up prob
I0403 13:44:16.026356 11997 net.cpp:148] Top shape: 100 38 (3800)
I0403 13:44:16.026371 11997 net.cpp:156] Memory required for data: 831602000
I0403 13:44:16.026384 11997 layer_factory.hpp:77] Creating layer hdf5out
I0403 13:44:16.026404 11997 net.cpp:91] Creating Layer hdf5out
I0403 13:44:16.026422 11997 net.cpp:425] hdf5out <- prob
I0403 13:44:16.026437 11997 net.cpp:425] hdf5out <- label_data_1_split_0
I0403 13:44:16.046046 11997 net.cpp:141] Setting up hdf5out
…
