…
I0403 13:48:44.569178 12092 net.cpp:313] The NetState phase (1) differed from the phase (0) specified by a rule in layer data
I0403 13:48:44.569460 12092 net.cpp:49] Initializing net from parameters: 
state {
  phase: TEST
}
layer {
  name: "data"
  type: "Data"
  top: "data"
  top: "label"
  include {
    phase: TEST
  }
  transform_param {
    crop_size: 227
    mean_file: "/home/mohanty/data/final_dataset/lmdb/grayscale-60-40/mean.binaryproto"
  }
  data_param {
    source: "/home/mohanty/data/final_dataset/lmdb/grayscale-60-40/test_db"
    batch_size: 100
    backend: LMDB
  }
}
layer {
  name: "conv1"
  type: "Convolution"
  bottom: "data"
  top: "conv1"
  param {
    lr_mult: 1
    decay_mult: 1
  }
  param {
    lr_mult: 2
    decay_mult: 0
  }
  convolution_param {
    num_output: 96
    kernel_size: 11
    stride: 4
    weight_filler {
      type: "gaussian"
      std: 0.01
    }
    bias_filler {
      type: "constant"
      value: 0
    }
  }
}
layer {
  name: "relu1"
  type: "ReLU"
  bottom: "conv1"
  top: "conv1"
}
layer {
  name: "norm1"
  type: "LRN"
  bottom: "conv1"
  top: "norm1"
  lrn_param {
    local_size: 5
    alpha: 0.0001
    beta: 0.75
  }
}
layer {
  name: "pool1"
  type: "Pooling"
  bottom: "norm1"
  top: "pool1"
  pooling_param {
    pool: MAX
    kernel_size: 3
    stride: 2
  }
}
layer {
  name: "conv2"
  type: "Convolution"
  bottom: "pool1"
  top: "conv2"
  param {
    lr_mult: 1
    decay_mult: 1
  }
  param {
    lr_mult: 2
    decay_mult: 0
  }
  convolution_param {
    num_output: 256
    pad: 2
    kernel_size: 5
    group: 2
    weight_filler {
      type: "gaussian"
      std: 0.01
    }
    bias_filler {
      type: "constant"
      value: 0.1
    }
  }
}
layer {
  name: "relu2"
  type: "ReLU"
  bottom: "conv2"
  top: "conv2"
}
layer {
  name: "norm2"
  type: "LRN"
  bottom: "conv2"
  top: "norm2"
  lrn_param {
    local_size: 5
    alpha: 0.0001
    beta: 0.75
  }
}
layer {
  name: "pool2"
  type: "Pooling"
  bottom: "norm2"
  top: "pool2"
  pooling_param {
    pool: MAX
    kernel_size: 3
    stride: 2
  }
}
layer {
  name: "conv3"
  type: "Convolution"
  bottom: "pool2"
  top: "conv3"
  param {
    lr_mult: 1
    decay_mult: 1
  }
  param {
    lr_mult: 2
    decay_mult: 0
  }
  convolution_param {
    num_output: 384
    pad: 1
    kernel_size: 3
    weight_filler {
      type: "gaussian"
      std: 0.01
    }
    bias_filler {
      type: "constant"
      value: 0
    }
  }
}
layer {
  name: "relu3"
  type: "ReLU"
  bottom: "conv3"
  top: "conv3"
}
layer {
  name: "conv4"
  type: "Convolution"
  bottom: "conv3"
  top: "conv4"
  param {
    lr_mult: 1
    decay_mult: 1
  }
  param {
    lr_mult: 2
    decay_mult: 0
  }
  convolution_param {
    num_output: 384
    pad: 1
    kernel_size: 3
    group: 2
    weight_filler {
      type: "gaussian"
      std: 0.01
    }
    bias_filler {
      type: "constant"
      value: 0.1
    }
  }
}
layer {
  name: "relu4"
  type: "ReLU"
  bottom: "conv4"
  top: "conv4"
}
layer {
  name: "conv5"
  type: "Convolution"
  bottom: "conv4"
  top: "conv5"
  param {
    lr_mult: 1
    decay_mult: 1
  }
  param {
    lr_mult: 2
    decay_mult: 0
  }
  convolution_param {
    num_output: 256
    pad: 1
    kernel_size: 3
    group: 2
    weight_filler {
      type: "gaussian"
      std: 0.01
    }
    bias_filler {
      type: "constant"
      value: 0.1
    }
  }
}
layer {
  name: "relu5"
  type: "ReLU"
  bottom: "conv5"
  top: "conv5"
}
layer {
  name: "pool5"
  type: "Pooling"
  bottom: "conv5"
  top: "pool5"
  pooling_param {
    pool: MAX
    kernel_size: 3
    stride: 2
  }
}
layer {
  name: "fc6"
  type: "InnerProduct"
  bottom: "pool5"
  top: "fc6"
  param {
    lr_mult: 1
    decay_mult: 1
  }
  param {
    lr_mult: 2
    decay_mult: 0
  }
  inner_product_param {
    num_output: 4096
    weight_filler {
      type: "gaussian"
      std: 0.005
    }
    bias_filler {
      type: "constant"
      value: 0.1
    }
  }
}
layer {
  name: "relu6"
  type: "ReLU"
  bottom: "fc6"
  top: "fc6"
}
layer {
  name: "drop6"
  type: "Dropout"
  bottom: "fc6"
  top: "fc6"
  dropout_param {
    dropout_ratio: 0.5
  }
}
layer {
  name: "fc7"
  type: "InnerProduct"
  bottom: "fc6"
  top: "fc7"
  param {
    lr_mult: 1
    decay_mult: 1
  }
  param {
    lr_mult: 2
    decay_mult: 0
  }
  inner_product_param {
    num_output: 4096
    weight_filler {
      type: "gaussian"
      std: 0.005
    }
    bias_filler {
      type: "constant"
      value: 0.1
    }
  }
}
layer {
  name: "relu7"
  type: "ReLU"
  bottom: "fc7"
  top: "fc7"
}
layer {
  name: "drop7"
  type: "Dropout"
  bottom: "fc7"
  top: "fc7"
  dropout_param {
    dropout_ratio: 0.5
  }
}
layer {
  name: "fc8_plantvillage"
  type: "InnerProduct"
  bottom: "fc7"
  top: "fc8_plantvillage"
  param {
    lr_mult: 1
    decay_mult: 1
  }
  param {
    lr_mult: 2
    decay_mult: 0
  }
  inner_product_param {
    num_output: 38
    weight_filler {
      type: "gaussian"
      std: 0.01
    }
    bias_filler {
      type: "constant"
      value: 0
    }
  }
}
layer {
  name: "prob"
  type: "Softmax"
  bottom: "fc8_plantvillage"
  top: "prob"
  include {
    phase: TEST
  }
}
layer {
  name: "hdf5out"
  type: "HDF5Output"
  bottom: "prob"
  bottom: "label"
  include {
    phase: TEST
  }
  hdf5_output_param {
    file_name: "hdf5_dumps/iter_5525.h5"
  }
}
layer {
  name: "loss"
  type: "SoftmaxWithLoss"
  bottom: "fc8_plantvillage"
  bottom: "label"
  top: "loss"
}
layer {
  name: "accuracy"
  type: "Accuracy"
  bottom: "fc8_plantvillage"
  bottom: "label"
  top: "accuracy"
  include {
    phase: TEST
  }
}
I0403 13:48:44.570134 12092 layer_factory.hpp:77] Creating layer data
I0403 13:48:44.571182 12092 net.cpp:91] Creating Layer data
I0403 13:48:44.571218 12092 net.cpp:399] data -> data
I0403 13:48:44.571269 12092 net.cpp:399] data -> label
I0403 13:48:44.571306 12092 data_transformer.cpp:25] Loading mean file from: /home/mohanty/data/final_dataset/lmdb/grayscale-60-40/mean.binaryproto
I0403 13:48:44.573982 12096 db_lmdb.cpp:38] Opened lmdb /home/mohanty/data/final_dataset/lmdb/grayscale-60-40/test_db
I0403 13:48:44.585944 12092 data_layer.cpp:41] output data size: 100,3,227,227
I0403 13:48:44.707254 12092 net.cpp:141] Setting up data
I0403 13:48:44.707345 12092 net.cpp:148] Top shape: 100 3 227 227 (15458700)
I0403 13:48:44.707368 12092 net.cpp:148] Top shape: 100 (100)
I0403 13:48:44.707383 12092 net.cpp:156] Memory required for data: 61835200
I0403 13:48:44.707412 12092 layer_factory.hpp:77] Creating layer label_data_1_split
I0403 13:48:44.707437 12092 net.cpp:91] Creating Layer label_data_1_split
I0403 13:48:44.707455 12092 net.cpp:425] label_data_1_split <- label
I0403 13:48:44.707487 12092 net.cpp:399] label_data_1_split -> label_data_1_split_0
I0403 13:48:44.707516 12092 net.cpp:399] label_data_1_split -> label_data_1_split_1
I0403 13:48:44.707537 12092 net.cpp:399] label_data_1_split -> label_data_1_split_2
I0403 13:48:44.707604 12092 net.cpp:141] Setting up label_data_1_split
I0403 13:48:44.707628 12092 net.cpp:148] Top shape: 100 (100)
I0403 13:48:44.707645 12092 net.cpp:148] Top shape: 100 (100)
I0403 13:48:44.707661 12092 net.cpp:148] Top shape: 100 (100)
I0403 13:48:44.707676 12092 net.cpp:156] Memory required for data: 61836400
I0403 13:48:44.707691 12092 layer_factory.hpp:77] Creating layer conv1
I0403 13:48:44.707722 12092 net.cpp:91] Creating Layer conv1
I0403 13:48:44.707741 12092 net.cpp:425] conv1 <- data
I0403 13:48:44.707761 12092 net.cpp:399] conv1 -> conv1
I0403 13:48:44.851959 12092 net.cpp:141] Setting up conv1
I0403 13:48:44.852035 12092 net.cpp:148] Top shape: 100 96 55 55 (29040000)
I0403 13:48:44.852051 12092 net.cpp:156] Memory required for data: 177996400
I0403 13:48:44.852082 12092 layer_factory.hpp:77] Creating layer relu1
I0403 13:48:44.852109 12092 net.cpp:91] Creating Layer relu1
I0403 13:48:44.852128 12092 net.cpp:425] relu1 <- conv1
I0403 13:48:44.852146 12092 net.cpp:386] relu1 -> conv1 (in-place)
I0403 13:48:44.852398 12092 net.cpp:141] Setting up relu1
I0403 13:48:44.852426 12092 net.cpp:148] Top shape: 100 96 55 55 (29040000)
I0403 13:48:44.852488 12092 net.cpp:156] Memory required for data: 294156400
I0403 13:48:44.852505 12092 layer_factory.hpp:77] Creating layer norm1
I0403 13:48:44.852535 12092 net.cpp:91] Creating Layer norm1
I0403 13:48:44.852553 12092 net.cpp:425] norm1 <- conv1
I0403 13:48:44.852571 12092 net.cpp:399] norm1 -> norm1
I0403 13:48:44.852891 12092 net.cpp:141] Setting up norm1
I0403 13:48:44.852919 12092 net.cpp:148] Top shape: 100 96 55 55 (29040000)
I0403 13:48:44.852947 12092 net.cpp:156] Memory required for data: 410316400
I0403 13:48:44.852962 12092 layer_factory.hpp:77] Creating layer pool1
I0403 13:48:44.852988 12092 net.cpp:91] Creating Layer pool1
I0403 13:48:44.853005 12092 net.cpp:425] pool1 <- norm1
I0403 13:48:44.853024 12092 net.cpp:399] pool1 -> pool1
I0403 13:48:44.853096 12092 net.cpp:141] Setting up pool1
I0403 13:48:44.853121 12092 net.cpp:148] Top shape: 100 96 27 27 (6998400)
I0403 13:48:44.853134 12092 net.cpp:156] Memory required for data: 438310000
I0403 13:48:44.853149 12092 layer_factory.hpp:77] Creating layer conv2
I0403 13:48:44.853178 12092 net.cpp:91] Creating Layer conv2
I0403 13:48:44.853195 12092 net.cpp:425] conv2 <- pool1
I0403 13:48:44.853215 12092 net.cpp:399] conv2 -> conv2
I0403 13:48:44.868177 12092 net.cpp:141] Setting up conv2
I0403 13:48:44.868212 12092 net.cpp:148] Top shape: 100 256 27 27 (18662400)
I0403 13:48:44.868230 12092 net.cpp:156] Memory required for data: 512959600
I0403 13:48:44.868254 12092 layer_factory.hpp:77] Creating layer relu2
I0403 13:48:44.868276 12092 net.cpp:91] Creating Layer relu2
I0403 13:48:44.868293 12092 net.cpp:425] relu2 <- conv2
I0403 13:48:44.868309 12092 net.cpp:386] relu2 -> conv2 (in-place)
I0403 13:48:44.868584 12092 net.cpp:141] Setting up relu2
I0403 13:48:44.868615 12092 net.cpp:148] Top shape: 100 256 27 27 (18662400)
I0403 13:48:44.868635 12092 net.cpp:156] Memory required for data: 587609200
I0403 13:48:44.868650 12092 layer_factory.hpp:77] Creating layer norm2
I0403 13:48:44.868670 12092 net.cpp:91] Creating Layer norm2
I0403 13:48:44.868687 12092 net.cpp:425] norm2 <- conv2
I0403 13:48:44.868708 12092 net.cpp:399] norm2 -> norm2
I0403 13:48:44.868902 12092 net.cpp:141] Setting up norm2
I0403 13:48:44.868927 12092 net.cpp:148] Top shape: 100 256 27 27 (18662400)
I0403 13:48:44.868942 12092 net.cpp:156] Memory required for data: 662258800
I0403 13:48:44.868957 12092 layer_factory.hpp:77] Creating layer pool2
I0403 13:48:44.868978 12092 net.cpp:91] Creating Layer pool2
I0403 13:48:44.868995 12092 net.cpp:425] pool2 <- norm2
I0403 13:48:44.869012 12092 net.cpp:399] pool2 -> pool2
I0403 13:48:44.869065 12092 net.cpp:141] Setting up pool2
I0403 13:48:44.869087 12092 net.cpp:148] Top shape: 100 256 13 13 (4326400)
I0403 13:48:44.869102 12092 net.cpp:156] Memory required for data: 679564400
I0403 13:48:44.869117 12092 layer_factory.hpp:77] Creating layer conv3
I0403 13:48:44.869138 12092 net.cpp:91] Creating Layer conv3
I0403 13:48:44.869156 12092 net.cpp:425] conv3 <- pool2
I0403 13:48:44.869177 12092 net.cpp:399] conv3 -> conv3
I0403 13:48:44.908258 12092 net.cpp:141] Setting up conv3
I0403 13:48:44.908300 12092 net.cpp:148] Top shape: 100 384 13 13 (6489600)
I0403 13:48:44.908318 12092 net.cpp:156] Memory required for data: 705522800
I0403 13:48:44.908344 12092 layer_factory.hpp:77] Creating layer relu3
I0403 13:48:44.908370 12092 net.cpp:91] Creating Layer relu3
I0403 13:48:44.908388 12092 net.cpp:425] relu3 <- conv3
I0403 13:48:44.908407 12092 net.cpp:386] relu3 -> conv3 (in-place)
I0403 13:48:44.908692 12092 net.cpp:141] Setting up relu3
I0403 13:48:44.908720 12092 net.cpp:148] Top shape: 100 384 13 13 (6489600)
I0403 13:48:44.908736 12092 net.cpp:156] Memory required for data: 731481200
I0403 13:48:44.908751 12092 layer_factory.hpp:77] Creating layer conv4
I0403 13:48:44.908778 12092 net.cpp:91] Creating Layer conv4
I0403 13:48:44.908797 12092 net.cpp:425] conv4 <- conv3
I0403 13:48:44.908818 12092 net.cpp:399] conv4 -> conv4
I0403 13:48:44.938570 12092 net.cpp:141] Setting up conv4
I0403 13:48:44.938619 12092 net.cpp:148] Top shape: 100 384 13 13 (6489600)
I0403 13:48:44.938662 12092 net.cpp:156] Memory required for data: 757439600
I0403 13:48:44.938683 12092 layer_factory.hpp:77] Creating layer relu4
I0403 13:48:44.938704 12092 net.cpp:91] Creating Layer relu4
I0403 13:48:44.938720 12092 net.cpp:425] relu4 <- conv4
I0403 13:48:44.938740 12092 net.cpp:386] relu4 -> conv4 (in-place)
I0403 13:48:44.939015 12092 net.cpp:141] Setting up relu4
I0403 13:48:44.939043 12092 net.cpp:148] Top shape: 100 384 13 13 (6489600)
I0403 13:48:44.939057 12092 net.cpp:156] Memory required for data: 783398000
I0403 13:48:44.939072 12092 layer_factory.hpp:77] Creating layer conv5
I0403 13:48:44.939096 12092 net.cpp:91] Creating Layer conv5
I0403 13:48:44.939113 12092 net.cpp:425] conv5 <- conv4
I0403 13:48:44.939134 12092 net.cpp:399] conv5 -> conv5
I0403 13:48:44.959414 12092 net.cpp:141] Setting up conv5
I0403 13:48:44.959450 12092 net.cpp:148] Top shape: 100 256 13 13 (4326400)
I0403 13:48:44.959468 12092 net.cpp:156] Memory required for data: 800703600
I0403 13:48:44.959529 12092 layer_factory.hpp:77] Creating layer relu5
I0403 13:48:44.959558 12092 net.cpp:91] Creating Layer relu5
I0403 13:48:44.959576 12092 net.cpp:425] relu5 <- conv5
I0403 13:48:44.959595 12092 net.cpp:386] relu5 -> conv5 (in-place)
I0403 13:48:44.959884 12092 net.cpp:141] Setting up relu5
I0403 13:48:44.959911 12092 net.cpp:148] Top shape: 100 256 13 13 (4326400)
I0403 13:48:44.959928 12092 net.cpp:156] Memory required for data: 818009200
I0403 13:48:44.959944 12092 layer_factory.hpp:77] Creating layer pool5
I0403 13:48:44.959969 12092 net.cpp:91] Creating Layer pool5
I0403 13:48:44.959988 12092 net.cpp:425] pool5 <- conv5
I0403 13:48:44.960007 12092 net.cpp:399] pool5 -> pool5
I0403 13:48:44.960069 12092 net.cpp:141] Setting up pool5
I0403 13:48:44.960095 12092 net.cpp:148] Top shape: 100 256 6 6 (921600)
I0403 13:48:44.960111 12092 net.cpp:156] Memory required for data: 821695600
I0403 13:48:44.960126 12092 layer_factory.hpp:77] Creating layer fc6
I0403 13:48:44.960155 12092 net.cpp:91] Creating Layer fc6
I0403 13:48:44.960175 12092 net.cpp:425] fc6 <- pool5
I0403 13:48:44.960193 12092 net.cpp:399] fc6 -> fc6
I0403 13:48:46.505211 12092 net.cpp:141] Setting up fc6
I0403 13:48:46.505255 12092 net.cpp:148] Top shape: 100 4096 (409600)
I0403 13:48:46.505272 12092 net.cpp:156] Memory required for data: 823334000
I0403 13:48:46.505295 12092 layer_factory.hpp:77] Creating layer relu6
I0403 13:48:46.505317 12092 net.cpp:91] Creating Layer relu6
I0403 13:48:46.505336 12092 net.cpp:425] relu6 <- fc6
I0403 13:48:46.505359 12092 net.cpp:386] relu6 -> fc6 (in-place)
I0403 13:48:46.505575 12092 net.cpp:141] Setting up relu6
I0403 13:48:46.505607 12092 net.cpp:148] Top shape: 100 4096 (409600)
I0403 13:48:46.505626 12092 net.cpp:156] Memory required for data: 824972400
I0403 13:48:46.505642 12092 layer_factory.hpp:77] Creating layer drop6
I0403 13:48:46.505663 12092 net.cpp:91] Creating Layer drop6
I0403 13:48:46.505679 12092 net.cpp:425] drop6 <- fc6
I0403 13:48:46.505697 12092 net.cpp:386] drop6 -> fc6 (in-place)
I0403 13:48:46.505746 12092 net.cpp:141] Setting up drop6
I0403 13:48:46.505774 12092 net.cpp:148] Top shape: 100 4096 (409600)
I0403 13:48:46.505789 12092 net.cpp:156] Memory required for data: 826610800
I0403 13:48:46.505805 12092 layer_factory.hpp:77] Creating layer fc7
I0403 13:48:46.505823 12092 net.cpp:91] Creating Layer fc7
I0403 13:48:46.505839 12092 net.cpp:425] fc7 <- fc6
I0403 13:48:46.505859 12092 net.cpp:399] fc7 -> fc7
I0403 13:48:47.180802 12092 net.cpp:141] Setting up fc7
I0403 13:48:47.180845 12092 net.cpp:148] Top shape: 100 4096 (409600)
I0403 13:48:47.180861 12092 net.cpp:156] Memory required for data: 828249200
I0403 13:48:47.180883 12092 layer_factory.hpp:77] Creating layer relu7
I0403 13:48:47.180907 12092 net.cpp:91] Creating Layer relu7
I0403 13:48:47.180924 12092 net.cpp:425] relu7 <- fc7
I0403 13:48:47.180945 12092 net.cpp:386] relu7 -> fc7 (in-place)
I0403 13:48:47.181334 12092 net.cpp:141] Setting up relu7
I0403 13:48:47.181360 12092 net.cpp:148] Top shape: 100 4096 (409600)
I0403 13:48:47.181412 12092 net.cpp:156] Memory required for data: 829887600
I0403 13:48:47.181428 12092 layer_factory.hpp:77] Creating layer drop7
I0403 13:48:47.181447 12092 net.cpp:91] Creating Layer drop7
I0403 13:48:47.181463 12092 net.cpp:425] drop7 <- fc7
I0403 13:48:47.181480 12092 net.cpp:386] drop7 -> fc7 (in-place)
I0403 13:48:47.181525 12092 net.cpp:141] Setting up drop7
I0403 13:48:47.181547 12092 net.cpp:148] Top shape: 100 4096 (409600)
I0403 13:48:47.181560 12092 net.cpp:156] Memory required for data: 831526000
I0403 13:48:47.181574 12092 layer_factory.hpp:77] Creating layer fc8_plantvillage
I0403 13:48:47.181593 12092 net.cpp:91] Creating Layer fc8_plantvillage
I0403 13:48:47.181614 12092 net.cpp:425] fc8_plantvillage <- fc7
I0403 13:48:47.181637 12092 net.cpp:399] fc8_plantvillage -> fc8_plantvillage
I0403 13:48:47.188151 12092 net.cpp:141] Setting up fc8_plantvillage
I0403 13:48:47.188182 12092 net.cpp:148] Top shape: 100 38 (3800)
I0403 13:48:47.188199 12092 net.cpp:156] Memory required for data: 831541200
I0403 13:48:47.188218 12092 layer_factory.hpp:77] Creating layer fc8_plantvillage_fc8_plantvillage_0_split
I0403 13:48:47.188238 12092 net.cpp:91] Creating Layer fc8_plantvillage_fc8_plantvillage_0_split
I0403 13:48:47.188254 12092 net.cpp:425] fc8_plantvillage_fc8_plantvillage_0_split <- fc8_plantvillage
I0403 13:48:47.188272 12092 net.cpp:399] fc8_plantvillage_fc8_plantvillage_0_split -> fc8_plantvillage_fc8_plantvillage_0_split_0
I0403 13:48:47.188292 12092 net.cpp:399] fc8_plantvillage_fc8_plantvillage_0_split -> fc8_plantvillage_fc8_plantvillage_0_split_1
I0403 13:48:47.188311 12092 net.cpp:399] fc8_plantvillage_fc8_plantvillage_0_split -> fc8_plantvillage_fc8_plantvillage_0_split_2
I0403 13:48:47.188390 12092 net.cpp:141] Setting up fc8_plantvillage_fc8_plantvillage_0_split
I0403 13:48:47.188412 12092 net.cpp:148] Top shape: 100 38 (3800)
I0403 13:48:47.188428 12092 net.cpp:148] Top shape: 100 38 (3800)
I0403 13:48:47.188444 12092 net.cpp:148] Top shape: 100 38 (3800)
I0403 13:48:47.188458 12092 net.cpp:156] Memory required for data: 831586800
I0403 13:48:47.188473 12092 layer_factory.hpp:77] Creating layer prob
I0403 13:48:47.188491 12092 net.cpp:91] Creating Layer prob
I0403 13:48:47.188506 12092 net.cpp:425] prob <- fc8_plantvillage_fc8_plantvillage_0_split_0
I0403 13:48:47.188524 12092 net.cpp:399] prob -> prob
I0403 13:48:47.188756 12092 net.cpp:141] Setting up prob
I0403 13:48:47.188781 12092 net.cpp:148] Top shape: 100 38 (3800)
I0403 13:48:47.188796 12092 net.cpp:156] Memory required for data: 831602000
I0403 13:48:47.188809 12092 layer_factory.hpp:77] Creating layer hdf5out
I0403 13:48:47.188828 12092 net.cpp:91] Creating Layer hdf5out
I0403 13:48:47.188843 12092 net.cpp:425] hdf5out <- prob
I0403 13:48:47.188863 12092 net.cpp:425] hdf5out <- label_data_1_split_0
I0403 13:48:47.192184 12092 net.cpp:141] Setting up hdf5out
…
