…
I0403 13:51:44.892712 12167 net.cpp:313] The NetState phase (1) differed from the phase (0) specified by a rule in layer data
I0403 13:51:44.893033 12167 net.cpp:49] Initializing net from parameters: 
state {
  phase: TEST
}
layer {
  name: "data"
  type: "Data"
  top: "data"
  top: "label"
  include {
    phase: TEST
  }
  transform_param {
    crop_size: 227
    mean_file: "/home/mohanty/data/final_dataset/lmdb/grayscale-60-40/mean.binaryproto"
  }
  data_param {
    source: "/home/mohanty/data/final_dataset/lmdb/grayscale-60-40/test_db"
    batch_size: 100
    backend: LMDB
  }
}
layer {
  name: "conv1"
  type: "Convolution"
  bottom: "data"
  top: "conv1"
  param {
    lr_mult: 1
    decay_mult: 1
  }
  param {
    lr_mult: 2
    decay_mult: 0
  }
  convolution_param {
    num_output: 96
    kernel_size: 11
    stride: 4
    weight_filler {
      type: "gaussian"
      std: 0.01
    }
    bias_filler {
      type: "constant"
      value: 0
    }
  }
}
layer {
  name: "relu1"
  type: "ReLU"
  bottom: "conv1"
  top: "conv1"
}
layer {
  name: "norm1"
  type: "LRN"
  bottom: "conv1"
  top: "norm1"
  lrn_param {
    local_size: 5
    alpha: 0.0001
    beta: 0.75
  }
}
layer {
  name: "pool1"
  type: "Pooling"
  bottom: "norm1"
  top: "pool1"
  pooling_param {
    pool: MAX
    kernel_size: 3
    stride: 2
  }
}
layer {
  name: "conv2"
  type: "Convolution"
  bottom: "pool1"
  top: "conv2"
  param {
    lr_mult: 1
    decay_mult: 1
  }
  param {
    lr_mult: 2
    decay_mult: 0
  }
  convolution_param {
    num_output: 256
    pad: 2
    kernel_size: 5
    group: 2
    weight_filler {
      type: "gaussian"
      std: 0.01
    }
    bias_filler {
      type: "constant"
      value: 0.1
    }
  }
}
layer {
  name: "relu2"
  type: "ReLU"
  bottom: "conv2"
  top: "conv2"
}
layer {
  name: "norm2"
  type: "LRN"
  bottom: "conv2"
  top: "norm2"
  lrn_param {
    local_size: 5
    alpha: 0.0001
    beta: 0.75
  }
}
layer {
  name: "pool2"
  type: "Pooling"
  bottom: "norm2"
  top: "pool2"
  pooling_param {
    pool: MAX
    kernel_size: 3
    stride: 2
  }
}
layer {
  name: "conv3"
  type: "Convolution"
  bottom: "pool2"
  top: "conv3"
  param {
    lr_mult: 1
    decay_mult: 1
  }
  param {
    lr_mult: 2
    decay_mult: 0
  }
  convolution_param {
    num_output: 384
    pad: 1
    kernel_size: 3
    weight_filler {
      type: "gaussian"
      std: 0.01
    }
    bias_filler {
      type: "constant"
      value: 0
    }
  }
}
layer {
  name: "relu3"
  type: "ReLU"
  bottom: "conv3"
  top: "conv3"
}
layer {
  name: "conv4"
  type: "Convolution"
  bottom: "conv3"
  top: "conv4"
  param {
    lr_mult: 1
    decay_mult: 1
  }
  param {
    lr_mult: 2
    decay_mult: 0
  }
  convolution_param {
    num_output: 384
    pad: 1
    kernel_size: 3
    group: 2
    weight_filler {
      type: "gaussian"
      std: 0.01
    }
    bias_filler {
      type: "constant"
      value: 0.1
    }
  }
}
layer {
  name: "relu4"
  type: "ReLU"
  bottom: "conv4"
  top: "conv4"
}
layer {
  name: "conv5"
  type: "Convolution"
  bottom: "conv4"
  top: "conv5"
  param {
    lr_mult: 1
    decay_mult: 1
  }
  param {
    lr_mult: 2
    decay_mult: 0
  }
  convolution_param {
    num_output: 256
    pad: 1
    kernel_size: 3
    group: 2
    weight_filler {
      type: "gaussian"
      std: 0.01
    }
    bias_filler {
      type: "constant"
      value: 0.1
    }
  }
}
layer {
  name: "relu5"
  type: "ReLU"
  bottom: "conv5"
  top: "conv5"
}
layer {
  name: "pool5"
  type: "Pooling"
  bottom: "conv5"
  top: "pool5"
  pooling_param {
    pool: MAX
    kernel_size: 3
    stride: 2
  }
}
layer {
  name: "fc6"
  type: "InnerProduct"
  bottom: "pool5"
  top: "fc6"
  param {
    lr_mult: 1
    decay_mult: 1
  }
  param {
    lr_mult: 2
    decay_mult: 0
  }
  inner_product_param {
    num_output: 4096
    weight_filler {
      type: "gaussian"
      std: 0.005
    }
    bias_filler {
      type: "constant"
      value: 0.1
    }
  }
}
layer {
  name: "relu6"
  type: "ReLU"
  bottom: "fc6"
  top: "fc6"
}
layer {
  name: "drop6"
  type: "Dropout"
  bottom: "fc6"
  top: "fc6"
  dropout_param {
    dropout_ratio: 0.5
  }
}
layer {
  name: "fc7"
  type: "InnerProduct"
  bottom: "fc6"
  top: "fc7"
  param {
    lr_mult: 1
    decay_mult: 1
  }
  param {
    lr_mult: 2
    decay_mult: 0
  }
  inner_product_param {
    num_output: 4096
    weight_filler {
      type: "gaussian"
      std: 0.005
    }
    bias_filler {
      type: "constant"
      value: 0.1
    }
  }
}
layer {
  name: "relu7"
  type: "ReLU"
  bottom: "fc7"
  top: "fc7"
}
layer {
  name: "drop7"
  type: "Dropout"
  bottom: "fc7"
  top: "fc7"
  dropout_param {
    dropout_ratio: 0.5
  }
}
layer {
  name: "fc8_plantvillage"
  type: "InnerProduct"
  bottom: "fc7"
  top: "fc8_plantvillage"
  param {
    lr_mult: 1
    decay_mult: 1
  }
  param {
    lr_mult: 2
    decay_mult: 0
  }
  inner_product_param {
    num_output: 38
    weight_filler {
      type: "gaussian"
      std: 0.01
    }
    bias_filler {
      type: "constant"
      value: 0
    }
  }
}
layer {
  name: "prob"
  type: "Softmax"
  bottom: "fc8_plantvillage"
  top: "prob"
  include {
    phase: TEST
  }
}
layer {
  name: "hdf5out"
  type: "HDF5Output"
  bottom: "prob"
  bottom: "label"
  include {
    phase: TEST
  }
  hdf5_output_param {
    file_name: "hdf5_dumps/iter_6825.h5"
  }
}
layer {
  name: "loss"
  type: "SoftmaxWithLoss"
  bottom: "fc8_plantvillage"
  bottom: "label"
  top: "loss"
}
layer {
  name: "accuracy"
  type: "Accuracy"
  bottom: "fc8_plantvillage"
  bottom: "label"
  top: "accuracy"
  include {
    phase: TEST
  }
}
I0403 13:51:44.893615 12167 layer_factory.hpp:77] Creating layer data
I0403 13:51:44.894273 12167 net.cpp:91] Creating Layer data
I0403 13:51:44.894304 12167 net.cpp:399] data -> data
I0403 13:51:44.894357 12167 net.cpp:399] data -> label
I0403 13:51:44.894394 12167 data_transformer.cpp:25] Loading mean file from: /home/mohanty/data/final_dataset/lmdb/grayscale-60-40/mean.binaryproto
I0403 13:51:44.897502 12170 db_lmdb.cpp:38] Opened lmdb /home/mohanty/data/final_dataset/lmdb/grayscale-60-40/test_db
I0403 13:51:44.908897 12167 data_layer.cpp:41] output data size: 100,3,227,227
I0403 13:51:45.030185 12167 net.cpp:141] Setting up data
I0403 13:51:45.030279 12167 net.cpp:148] Top shape: 100 3 227 227 (15458700)
I0403 13:51:45.030302 12167 net.cpp:148] Top shape: 100 (100)
I0403 13:51:45.030316 12167 net.cpp:156] Memory required for data: 61835200
I0403 13:51:45.030344 12167 layer_factory.hpp:77] Creating layer label_data_1_split
I0403 13:51:45.030367 12167 net.cpp:91] Creating Layer label_data_1_split
I0403 13:51:45.030385 12167 net.cpp:425] label_data_1_split <- label
I0403 13:51:45.030416 12167 net.cpp:399] label_data_1_split -> label_data_1_split_0
I0403 13:51:45.030443 12167 net.cpp:399] label_data_1_split -> label_data_1_split_1
I0403 13:51:45.030463 12167 net.cpp:399] label_data_1_split -> label_data_1_split_2
I0403 13:51:45.030527 12167 net.cpp:141] Setting up label_data_1_split
I0403 13:51:45.030550 12167 net.cpp:148] Top shape: 100 (100)
I0403 13:51:45.030565 12167 net.cpp:148] Top shape: 100 (100)
I0403 13:51:45.030586 12167 net.cpp:148] Top shape: 100 (100)
I0403 13:51:45.030601 12167 net.cpp:156] Memory required for data: 61836400
I0403 13:51:45.030616 12167 layer_factory.hpp:77] Creating layer conv1
I0403 13:51:45.030647 12167 net.cpp:91] Creating Layer conv1
I0403 13:51:45.030664 12167 net.cpp:425] conv1 <- data
I0403 13:51:45.030683 12167 net.cpp:399] conv1 -> conv1
I0403 13:51:45.173957 12167 net.cpp:141] Setting up conv1
I0403 13:51:45.174031 12167 net.cpp:148] Top shape: 100 96 55 55 (29040000)
I0403 13:51:45.174048 12167 net.cpp:156] Memory required for data: 177996400
I0403 13:51:45.174078 12167 layer_factory.hpp:77] Creating layer relu1
I0403 13:51:45.174105 12167 net.cpp:91] Creating Layer relu1
I0403 13:51:45.174123 12167 net.cpp:425] relu1 <- conv1
I0403 13:51:45.174141 12167 net.cpp:386] relu1 -> conv1 (in-place)
I0403 13:51:45.174474 12167 net.cpp:141] Setting up relu1
I0403 13:51:45.174501 12167 net.cpp:148] Top shape: 100 96 55 55 (29040000)
I0403 13:51:45.174549 12167 net.cpp:156] Memory required for data: 294156400
I0403 13:51:45.174572 12167 layer_factory.hpp:77] Creating layer norm1
I0403 13:51:45.174607 12167 net.cpp:91] Creating Layer norm1
I0403 13:51:45.174628 12167 net.cpp:425] norm1 <- conv1
I0403 13:51:45.174645 12167 net.cpp:399] norm1 -> norm1
I0403 13:51:45.174948 12167 net.cpp:141] Setting up norm1
I0403 13:51:45.174975 12167 net.cpp:148] Top shape: 100 96 55 55 (29040000)
I0403 13:51:45.174989 12167 net.cpp:156] Memory required for data: 410316400
I0403 13:51:45.175004 12167 layer_factory.hpp:77] Creating layer pool1
I0403 13:51:45.175026 12167 net.cpp:91] Creating Layer pool1
I0403 13:51:45.175042 12167 net.cpp:425] pool1 <- norm1
I0403 13:51:45.175060 12167 net.cpp:399] pool1 -> pool1
I0403 13:51:45.175124 12167 net.cpp:141] Setting up pool1
I0403 13:51:45.175148 12167 net.cpp:148] Top shape: 100 96 27 27 (6998400)
I0403 13:51:45.175163 12167 net.cpp:156] Memory required for data: 438310000
I0403 13:51:45.175176 12167 layer_factory.hpp:77] Creating layer conv2
I0403 13:51:45.175199 12167 net.cpp:91] Creating Layer conv2
I0403 13:51:45.175215 12167 net.cpp:425] conv2 <- pool1
I0403 13:51:45.175232 12167 net.cpp:399] conv2 -> conv2
I0403 13:51:45.190536 12167 net.cpp:141] Setting up conv2
I0403 13:51:45.190570 12167 net.cpp:148] Top shape: 100 256 27 27 (18662400)
I0403 13:51:45.190585 12167 net.cpp:156] Memory required for data: 512959600
I0403 13:51:45.190610 12167 layer_factory.hpp:77] Creating layer relu2
I0403 13:51:45.190634 12167 net.cpp:91] Creating Layer relu2
I0403 13:51:45.190649 12167 net.cpp:425] relu2 <- conv2
I0403 13:51:45.190665 12167 net.cpp:386] relu2 -> conv2 (in-place)
I0403 13:51:45.190939 12167 net.cpp:141] Setting up relu2
I0403 13:51:45.190965 12167 net.cpp:148] Top shape: 100 256 27 27 (18662400)
I0403 13:51:45.190979 12167 net.cpp:156] Memory required for data: 587609200
I0403 13:51:45.190994 12167 layer_factory.hpp:77] Creating layer norm2
I0403 13:51:45.191015 12167 net.cpp:91] Creating Layer norm2
I0403 13:51:45.191031 12167 net.cpp:425] norm2 <- conv2
I0403 13:51:45.191051 12167 net.cpp:399] norm2 -> norm2
I0403 13:51:45.191295 12167 net.cpp:141] Setting up norm2
I0403 13:51:45.191321 12167 net.cpp:148] Top shape: 100 256 27 27 (18662400)
I0403 13:51:45.191336 12167 net.cpp:156] Memory required for data: 662258800
I0403 13:51:45.191350 12167 layer_factory.hpp:77] Creating layer pool2
I0403 13:51:45.191368 12167 net.cpp:91] Creating Layer pool2
I0403 13:51:45.191385 12167 net.cpp:425] pool2 <- norm2
I0403 13:51:45.191401 12167 net.cpp:399] pool2 -> pool2
I0403 13:51:45.191453 12167 net.cpp:141] Setting up pool2
I0403 13:51:45.191475 12167 net.cpp:148] Top shape: 100 256 13 13 (4326400)
I0403 13:51:45.191489 12167 net.cpp:156] Memory required for data: 679564400
I0403 13:51:45.191503 12167 layer_factory.hpp:77] Creating layer conv3
I0403 13:51:45.191524 12167 net.cpp:91] Creating Layer conv3
I0403 13:51:45.191541 12167 net.cpp:425] conv3 <- pool2
I0403 13:51:45.191562 12167 net.cpp:399] conv3 -> conv3
I0403 13:51:45.233039 12167 net.cpp:141] Setting up conv3
I0403 13:51:45.233084 12167 net.cpp:148] Top shape: 100 384 13 13 (6489600)
I0403 13:51:45.233100 12167 net.cpp:156] Memory required for data: 705522800
I0403 13:51:45.233127 12167 layer_factory.hpp:77] Creating layer relu3
I0403 13:51:45.233150 12167 net.cpp:91] Creating Layer relu3
I0403 13:51:45.233166 12167 net.cpp:425] relu3 <- conv3
I0403 13:51:45.233185 12167 net.cpp:386] relu3 -> conv3 (in-place)
I0403 13:51:45.233464 12167 net.cpp:141] Setting up relu3
I0403 13:51:45.233490 12167 net.cpp:148] Top shape: 100 384 13 13 (6489600)
I0403 13:51:45.233505 12167 net.cpp:156] Memory required for data: 731481200
I0403 13:51:45.233520 12167 layer_factory.hpp:77] Creating layer conv4
I0403 13:51:45.233546 12167 net.cpp:91] Creating Layer conv4
I0403 13:51:45.233563 12167 net.cpp:425] conv4 <- conv3
I0403 13:51:45.233584 12167 net.cpp:399] conv4 -> conv4
I0403 13:51:45.264389 12167 net.cpp:141] Setting up conv4
I0403 13:51:45.264454 12167 net.cpp:148] Top shape: 100 384 13 13 (6489600)
I0403 13:51:45.264503 12167 net.cpp:156] Memory required for data: 757439600
I0403 13:51:45.264524 12167 layer_factory.hpp:77] Creating layer relu4
I0403 13:51:45.264547 12167 net.cpp:91] Creating Layer relu4
I0403 13:51:45.264565 12167 net.cpp:425] relu4 <- conv4
I0403 13:51:45.264585 12167 net.cpp:386] relu4 -> conv4 (in-place)
I0403 13:51:45.264868 12167 net.cpp:141] Setting up relu4
I0403 13:51:45.264895 12167 net.cpp:148] Top shape: 100 384 13 13 (6489600)
I0403 13:51:45.264910 12167 net.cpp:156] Memory required for data: 783398000
I0403 13:51:45.264925 12167 layer_factory.hpp:77] Creating layer conv5
I0403 13:51:45.264948 12167 net.cpp:91] Creating Layer conv5
I0403 13:51:45.264966 12167 net.cpp:425] conv5 <- conv4
I0403 13:51:45.264986 12167 net.cpp:399] conv5 -> conv5
I0403 13:51:45.287223 12167 net.cpp:141] Setting up conv5
I0403 13:51:45.287257 12167 net.cpp:148] Top shape: 100 256 13 13 (4326400)
I0403 13:51:45.287272 12167 net.cpp:156] Memory required for data: 800703600
I0403 13:51:45.287295 12167 layer_factory.hpp:77] Creating layer relu5
I0403 13:51:45.287318 12167 net.cpp:91] Creating Layer relu5
I0403 13:51:45.287334 12167 net.cpp:425] relu5 <- conv5
I0403 13:51:45.287351 12167 net.cpp:386] relu5 -> conv5 (in-place)
I0403 13:51:45.287642 12167 net.cpp:141] Setting up relu5
I0403 13:51:45.287667 12167 net.cpp:148] Top shape: 100 256 13 13 (4326400)
I0403 13:51:45.287683 12167 net.cpp:156] Memory required for data: 818009200
I0403 13:51:45.287696 12167 layer_factory.hpp:77] Creating layer pool5
I0403 13:51:45.287719 12167 net.cpp:91] Creating Layer pool5
I0403 13:51:45.287736 12167 net.cpp:425] pool5 <- conv5
I0403 13:51:45.287756 12167 net.cpp:399] pool5 -> pool5
I0403 13:51:45.287813 12167 net.cpp:141] Setting up pool5
I0403 13:51:45.287837 12167 net.cpp:148] Top shape: 100 256 6 6 (921600)
I0403 13:51:45.287850 12167 net.cpp:156] Memory required for data: 821695600
I0403 13:51:45.287864 12167 layer_factory.hpp:77] Creating layer fc6
I0403 13:51:45.287892 12167 net.cpp:91] Creating Layer fc6
I0403 13:51:45.287909 12167 net.cpp:425] fc6 <- pool5
I0403 13:51:45.287927 12167 net.cpp:399] fc6 -> fc6
I0403 13:51:46.820299 12167 net.cpp:141] Setting up fc6
I0403 13:51:46.820339 12167 net.cpp:148] Top shape: 100 4096 (409600)
I0403 13:51:46.820354 12167 net.cpp:156] Memory required for data: 823334000
I0403 13:51:46.820375 12167 layer_factory.hpp:77] Creating layer relu6
I0403 13:51:46.820396 12167 net.cpp:91] Creating Layer relu6
I0403 13:51:46.820412 12167 net.cpp:425] relu6 <- fc6
I0403 13:51:46.820435 12167 net.cpp:386] relu6 -> fc6 (in-place)
I0403 13:51:46.820655 12167 net.cpp:141] Setting up relu6
I0403 13:51:46.820680 12167 net.cpp:148] Top shape: 100 4096 (409600)
I0403 13:51:46.820695 12167 net.cpp:156] Memory required for data: 824972400
I0403 13:51:46.820709 12167 layer_factory.hpp:77] Creating layer drop6
I0403 13:51:46.820729 12167 net.cpp:91] Creating Layer drop6
I0403 13:51:46.820744 12167 net.cpp:425] drop6 <- fc6
I0403 13:51:46.820761 12167 net.cpp:386] drop6 -> fc6 (in-place)
I0403 13:51:46.820812 12167 net.cpp:141] Setting up drop6
I0403 13:51:46.820834 12167 net.cpp:148] Top shape: 100 4096 (409600)
I0403 13:51:46.820848 12167 net.cpp:156] Memory required for data: 826610800
I0403 13:51:46.820863 12167 layer_factory.hpp:77] Creating layer fc7
I0403 13:51:46.820881 12167 net.cpp:91] Creating Layer fc7
I0403 13:51:46.820896 12167 net.cpp:425] fc7 <- fc6
I0403 13:51:46.820914 12167 net.cpp:399] fc7 -> fc7
I0403 13:51:47.497437 12167 net.cpp:141] Setting up fc7
I0403 13:51:47.497496 12167 net.cpp:148] Top shape: 100 4096 (409600)
I0403 13:51:47.497512 12167 net.cpp:156] Memory required for data: 828249200
I0403 13:51:47.497532 12167 layer_factory.hpp:77] Creating layer relu7
I0403 13:51:47.497555 12167 net.cpp:91] Creating Layer relu7
I0403 13:51:47.497572 12167 net.cpp:425] relu7 <- fc7
I0403 13:51:47.497591 12167 net.cpp:386] relu7 -> fc7 (in-place)
I0403 13:51:47.497988 12167 net.cpp:141] Setting up relu7
I0403 13:51:47.498014 12167 net.cpp:148] Top shape: 100 4096 (409600)
I0403 13:51:47.498078 12167 net.cpp:156] Memory required for data: 829887600
I0403 13:51:47.498093 12167 layer_factory.hpp:77] Creating layer drop7
I0403 13:51:47.498112 12167 net.cpp:91] Creating Layer drop7
I0403 13:51:47.498128 12167 net.cpp:425] drop7 <- fc7
I0403 13:51:47.498144 12167 net.cpp:386] drop7 -> fc7 (in-place)
I0403 13:51:47.498188 12167 net.cpp:141] Setting up drop7
I0403 13:51:47.498208 12167 net.cpp:148] Top shape: 100 4096 (409600)
I0403 13:51:47.498221 12167 net.cpp:156] Memory required for data: 831526000
I0403 13:51:47.498235 12167 layer_factory.hpp:77] Creating layer fc8_plantvillage
I0403 13:51:47.498255 12167 net.cpp:91] Creating Layer fc8_plantvillage
I0403 13:51:47.498270 12167 net.cpp:425] fc8_plantvillage <- fc7
I0403 13:51:47.498287 12167 net.cpp:399] fc8_plantvillage -> fc8_plantvillage
I0403 13:51:47.504828 12167 net.cpp:141] Setting up fc8_plantvillage
I0403 13:51:47.504858 12167 net.cpp:148] Top shape: 100 38 (3800)
I0403 13:51:47.504871 12167 net.cpp:156] Memory required for data: 831541200
I0403 13:51:47.504889 12167 layer_factory.hpp:77] Creating layer fc8_plantvillage_fc8_plantvillage_0_split
I0403 13:51:47.504909 12167 net.cpp:91] Creating Layer fc8_plantvillage_fc8_plantvillage_0_split
I0403 13:51:47.504925 12167 net.cpp:425] fc8_plantvillage_fc8_plantvillage_0_split <- fc8_plantvillage
I0403 13:51:47.504940 12167 net.cpp:399] fc8_plantvillage_fc8_plantvillage_0_split -> fc8_plantvillage_fc8_plantvillage_0_split_0
I0403 13:51:47.504958 12167 net.cpp:399] fc8_plantvillage_fc8_plantvillage_0_split -> fc8_plantvillage_fc8_plantvillage_0_split_1
I0403 13:51:47.504979 12167 net.cpp:399] fc8_plantvillage_fc8_plantvillage_0_split -> fc8_plantvillage_fc8_plantvillage_0_split_2
I0403 13:51:47.505058 12167 net.cpp:141] Setting up fc8_plantvillage_fc8_plantvillage_0_split
I0403 13:51:47.505079 12167 net.cpp:148] Top shape: 100 38 (3800)
I0403 13:51:47.505095 12167 net.cpp:148] Top shape: 100 38 (3800)
I0403 13:51:47.505110 12167 net.cpp:148] Top shape: 100 38 (3800)
I0403 13:51:47.505121 12167 net.cpp:156] Memory required for data: 831586800
I0403 13:51:47.505134 12167 layer_factory.hpp:77] Creating layer prob
I0403 13:51:47.505154 12167 net.cpp:91] Creating Layer prob
I0403 13:51:47.505169 12167 net.cpp:425] prob <- fc8_plantvillage_fc8_plantvillage_0_split_0
I0403 13:51:47.505187 12167 net.cpp:399] prob -> prob
I0403 13:51:47.505403 12167 net.cpp:141] Setting up prob
I0403 13:51:47.505426 12167 net.cpp:148] Top shape: 100 38 (3800)
I0403 13:51:47.505440 12167 net.cpp:156] Memory required for data: 831602000
I0403 13:51:47.505455 12167 layer_factory.hpp:77] Creating layer hdf5out
I0403 13:51:47.505473 12167 net.cpp:91] Creating Layer hdf5out
I0403 13:51:47.505489 12167 net.cpp:425] hdf5out <- prob
I0403 13:51:47.505504 12167 net.cpp:425] hdf5out <- label_data_1_split_0
I0403 13:51:47.509635 12167 net.cpp:141] Setting up hdf5out
…
