…
I0403 13:43:28.240890 11970 net.cpp:313] The NetState phase (1) differed from the phase (0) specified by a rule in layer data
I0403 13:43:28.241189 11970 net.cpp:49] Initializing net from parameters: 
state {
  phase: TEST
}
layer {
  name: "data"
  type: "Data"
  top: "data"
  top: "label"
  include {
    phase: TEST
  }
  transform_param {
    crop_size: 227
    mean_file: "/home/mohanty/data/final_dataset/lmdb/grayscale-60-40/mean.binaryproto"
  }
  data_param {
    source: "/home/mohanty/data/final_dataset/lmdb/grayscale-60-40/test_db"
    batch_size: 100
    backend: LMDB
  }
}
layer {
  name: "conv1"
  type: "Convolution"
  bottom: "data"
  top: "conv1"
  param {
    lr_mult: 1
    decay_mult: 1
  }
  param {
    lr_mult: 2
    decay_mult: 0
  }
  convolution_param {
    num_output: 96
    kernel_size: 11
    stride: 4
    weight_filler {
      type: "gaussian"
      std: 0.01
    }
    bias_filler {
      type: "constant"
      value: 0
    }
  }
}
layer {
  name: "relu1"
  type: "ReLU"
  bottom: "conv1"
  top: "conv1"
}
layer {
  name: "norm1"
  type: "LRN"
  bottom: "conv1"
  top: "norm1"
  lrn_param {
    local_size: 5
    alpha: 0.0001
    beta: 0.75
  }
}
layer {
  name: "pool1"
  type: "Pooling"
  bottom: "norm1"
  top: "pool1"
  pooling_param {
    pool: MAX
    kernel_size: 3
    stride: 2
  }
}
layer {
  name: "conv2"
  type: "Convolution"
  bottom: "pool1"
  top: "conv2"
  param {
    lr_mult: 1
    decay_mult: 1
  }
  param {
    lr_mult: 2
    decay_mult: 0
  }
  convolution_param {
    num_output: 256
    pad: 2
    kernel_size: 5
    group: 2
    weight_filler {
      type: "gaussian"
      std: 0.01
    }
    bias_filler {
      type: "constant"
      value: 0.1
    }
  }
}
layer {
  name: "relu2"
  type: "ReLU"
  bottom: "conv2"
  top: "conv2"
}
layer {
  name: "norm2"
  type: "LRN"
  bottom: "conv2"
  top: "norm2"
  lrn_param {
    local_size: 5
    alpha: 0.0001
    beta: 0.75
  }
}
layer {
  name: "pool2"
  type: "Pooling"
  bottom: "norm2"
  top: "pool2"
  pooling_param {
    pool: MAX
    kernel_size: 3
    stride: 2
  }
}
layer {
  name: "conv3"
  type: "Convolution"
  bottom: "pool2"
  top: "conv3"
  param {
    lr_mult: 1
    decay_mult: 1
  }
  param {
    lr_mult: 2
    decay_mult: 0
  }
  convolution_param {
    num_output: 384
    pad: 1
    kernel_size: 3
    weight_filler {
      type: "gaussian"
      std: 0.01
    }
    bias_filler {
      type: "constant"
      value: 0
    }
  }
}
layer {
  name: "relu3"
  type: "ReLU"
  bottom: "conv3"
  top: "conv3"
}
layer {
  name: "conv4"
  type: "Convolution"
  bottom: "conv3"
  top: "conv4"
  param {
    lr_mult: 1
    decay_mult: 1
  }
  param {
    lr_mult: 2
    decay_mult: 0
  }
  convolution_param {
    num_output: 384
    pad: 1
    kernel_size: 3
    group: 2
    weight_filler {
      type: "gaussian"
      std: 0.01
    }
    bias_filler {
      type: "constant"
      value: 0.1
    }
  }
}
layer {
  name: "relu4"
  type: "ReLU"
  bottom: "conv4"
  top: "conv4"
}
layer {
  name: "conv5"
  type: "Convolution"
  bottom: "conv4"
  top: "conv5"
  param {
    lr_mult: 1
    decay_mult: 1
  }
  param {
    lr_mult: 2
    decay_mult: 0
  }
  convolution_param {
    num_output: 256
    pad: 1
    kernel_size: 3
    group: 2
    weight_filler {
      type: "gaussian"
      std: 0.01
    }
    bias_filler {
      type: "constant"
      value: 0.1
    }
  }
}
layer {
  name: "relu5"
  type: "ReLU"
  bottom: "conv5"
  top: "conv5"
}
layer {
  name: "pool5"
  type: "Pooling"
  bottom: "conv5"
  top: "pool5"
  pooling_param {
    pool: MAX
    kernel_size: 3
    stride: 2
  }
}
layer {
  name: "fc6"
  type: "InnerProduct"
  bottom: "pool5"
  top: "fc6"
  param {
    lr_mult: 1
    decay_mult: 1
  }
  param {
    lr_mult: 2
    decay_mult: 0
  }
  inner_product_param {
    num_output: 4096
    weight_filler {
      type: "gaussian"
      std: 0.005
    }
    bias_filler {
      type: "constant"
      value: 0.1
    }
  }
}
layer {
  name: "relu6"
  type: "ReLU"
  bottom: "fc6"
  top: "fc6"
}
layer {
  name: "drop6"
  type: "Dropout"
  bottom: "fc6"
  top: "fc6"
  dropout_param {
    dropout_ratio: 0.5
  }
}
layer {
  name: "fc7"
  type: "InnerProduct"
  bottom: "fc6"
  top: "fc7"
  param {
    lr_mult: 1
    decay_mult: 1
  }
  param {
    lr_mult: 2
    decay_mult: 0
  }
  inner_product_param {
    num_output: 4096
    weight_filler {
      type: "gaussian"
      std: 0.005
    }
    bias_filler {
      type: "constant"
      value: 0.1
    }
  }
}
layer {
  name: "relu7"
  type: "ReLU"
  bottom: "fc7"
  top: "fc7"
}
layer {
  name: "drop7"
  type: "Dropout"
  bottom: "fc7"
  top: "fc7"
  dropout_param {
    dropout_ratio: 0.5
  }
}
layer {
  name: "fc8_plantvillage"
  type: "InnerProduct"
  bottom: "fc7"
  top: "fc8_plantvillage"
  param {
    lr_mult: 1
    decay_mult: 1
  }
  param {
    lr_mult: 2
    decay_mult: 0
  }
  inner_product_param {
    num_output: 38
    weight_filler {
      type: "gaussian"
      std: 0.01
    }
    bias_filler {
      type: "constant"
      value: 0
    }
  }
}
layer {
  name: "prob"
  type: "Softmax"
  bottom: "fc8_plantvillage"
  top: "prob"
  include {
    phase: TEST
  }
}
layer {
  name: "hdf5out"
  type: "HDF5Output"
  bottom: "prob"
  bottom: "label"
  include {
    phase: TEST
  }
  hdf5_output_param {
    file_name: "hdf5_dumps/iter_3250.h5"
  }
}
layer {
  name: "loss"
  type: "SoftmaxWithLoss"
  bottom: "fc8_plantvillage"
  bottom: "label"
  top: "loss"
}
layer {
  name: "accuracy"
  type: "Accuracy"
  bottom: "fc8_plantvillage"
  bottom: "label"
  top: "accuracy"
  include {
    phase: TEST
  }
}
I0403 13:43:28.241721 11970 layer_factory.hpp:77] Creating layer data
I0403 13:43:28.242352 11970 net.cpp:91] Creating Layer data
I0403 13:43:28.242386 11970 net.cpp:399] data -> data
I0403 13:43:28.242436 11970 net.cpp:399] data -> label
I0403 13:43:28.242471 11970 data_transformer.cpp:25] Loading mean file from: /home/mohanty/data/final_dataset/lmdb/grayscale-60-40/mean.binaryproto
I0403 13:43:28.245090 11973 db_lmdb.cpp:38] Opened lmdb /home/mohanty/data/final_dataset/lmdb/grayscale-60-40/test_db
I0403 13:43:28.256651 11970 data_layer.cpp:41] output data size: 100,3,227,227
I0403 13:43:28.375757 11970 net.cpp:141] Setting up data
I0403 13:43:28.375815 11970 net.cpp:148] Top shape: 100 3 227 227 (15458700)
I0403 13:43:28.375838 11970 net.cpp:148] Top shape: 100 (100)
I0403 13:43:28.375855 11970 net.cpp:156] Memory required for data: 61835200
I0403 13:43:28.375882 11970 layer_factory.hpp:77] Creating layer label_data_1_split
I0403 13:43:28.375906 11970 net.cpp:91] Creating Layer label_data_1_split
I0403 13:43:28.375924 11970 net.cpp:425] label_data_1_split <- label
I0403 13:43:28.375957 11970 net.cpp:399] label_data_1_split -> label_data_1_split_0
I0403 13:43:28.375983 11970 net.cpp:399] label_data_1_split -> label_data_1_split_1
I0403 13:43:28.376004 11970 net.cpp:399] label_data_1_split -> label_data_1_split_2
I0403 13:43:28.376065 11970 net.cpp:141] Setting up label_data_1_split
I0403 13:43:28.376088 11970 net.cpp:148] Top shape: 100 (100)
I0403 13:43:28.376106 11970 net.cpp:148] Top shape: 100 (100)
I0403 13:43:28.376121 11970 net.cpp:148] Top shape: 100 (100)
I0403 13:43:28.376135 11970 net.cpp:156] Memory required for data: 61836400
I0403 13:43:28.376150 11970 layer_factory.hpp:77] Creating layer conv1
I0403 13:43:28.376180 11970 net.cpp:91] Creating Layer conv1
I0403 13:43:28.376199 11970 net.cpp:425] conv1 <- data
I0403 13:43:28.376219 11970 net.cpp:399] conv1 -> conv1
I0403 13:43:28.516582 11970 net.cpp:141] Setting up conv1
I0403 13:43:28.516659 11970 net.cpp:148] Top shape: 100 96 55 55 (29040000)
I0403 13:43:28.516677 11970 net.cpp:156] Memory required for data: 177996400
I0403 13:43:28.516708 11970 layer_factory.hpp:77] Creating layer relu1
I0403 13:43:28.516736 11970 net.cpp:91] Creating Layer relu1
I0403 13:43:28.516754 11970 net.cpp:425] relu1 <- conv1
I0403 13:43:28.516773 11970 net.cpp:386] relu1 -> conv1 (in-place)
I0403 13:43:28.517041 11970 net.cpp:141] Setting up relu1
I0403 13:43:28.517069 11970 net.cpp:148] Top shape: 100 96 55 55 (29040000)
I0403 13:43:28.517119 11970 net.cpp:156] Memory required for data: 294156400
I0403 13:43:28.517135 11970 layer_factory.hpp:77] Creating layer norm1
I0403 13:43:28.517163 11970 net.cpp:91] Creating Layer norm1
I0403 13:43:28.517181 11970 net.cpp:425] norm1 <- conv1
I0403 13:43:28.517199 11970 net.cpp:399] norm1 -> norm1
I0403 13:43:28.517504 11970 net.cpp:141] Setting up norm1
I0403 13:43:28.517534 11970 net.cpp:148] Top shape: 100 96 55 55 (29040000)
I0403 13:43:28.517549 11970 net.cpp:156] Memory required for data: 410316400
I0403 13:43:28.517565 11970 layer_factory.hpp:77] Creating layer pool1
I0403 13:43:28.517592 11970 net.cpp:91] Creating Layer pool1
I0403 13:43:28.517611 11970 net.cpp:425] pool1 <- norm1
I0403 13:43:28.517628 11970 net.cpp:399] pool1 -> pool1
I0403 13:43:28.517694 11970 net.cpp:141] Setting up pool1
I0403 13:43:28.517719 11970 net.cpp:148] Top shape: 100 96 27 27 (6998400)
I0403 13:43:28.517734 11970 net.cpp:156] Memory required for data: 438310000
I0403 13:43:28.517748 11970 layer_factory.hpp:77] Creating layer conv2
I0403 13:43:28.517772 11970 net.cpp:91] Creating Layer conv2
I0403 13:43:28.517788 11970 net.cpp:425] conv2 <- pool1
I0403 13:43:28.517807 11970 net.cpp:399] conv2 -> conv2
I0403 13:43:28.532708 11970 net.cpp:141] Setting up conv2
I0403 13:43:28.532745 11970 net.cpp:148] Top shape: 100 256 27 27 (18662400)
I0403 13:43:28.532763 11970 net.cpp:156] Memory required for data: 512959600
I0403 13:43:28.532788 11970 layer_factory.hpp:77] Creating layer relu2
I0403 13:43:28.532810 11970 net.cpp:91] Creating Layer relu2
I0403 13:43:28.532829 11970 net.cpp:425] relu2 <- conv2
I0403 13:43:28.532850 11970 net.cpp:386] relu2 -> conv2 (in-place)
I0403 13:43:28.533128 11970 net.cpp:141] Setting up relu2
I0403 13:43:28.533156 11970 net.cpp:148] Top shape: 100 256 27 27 (18662400)
I0403 13:43:28.533172 11970 net.cpp:156] Memory required for data: 587609200
I0403 13:43:28.533188 11970 layer_factory.hpp:77] Creating layer norm2
I0403 13:43:28.533210 11970 net.cpp:91] Creating Layer norm2
I0403 13:43:28.533226 11970 net.cpp:425] norm2 <- conv2
I0403 13:43:28.533244 11970 net.cpp:399] norm2 -> norm2
I0403 13:43:28.533449 11970 net.cpp:141] Setting up norm2
I0403 13:43:28.533476 11970 net.cpp:148] Top shape: 100 256 27 27 (18662400)
I0403 13:43:28.533491 11970 net.cpp:156] Memory required for data: 662258800
I0403 13:43:28.533506 11970 layer_factory.hpp:77] Creating layer pool2
I0403 13:43:28.533525 11970 net.cpp:91] Creating Layer pool2
I0403 13:43:28.533541 11970 net.cpp:425] pool2 <- norm2
I0403 13:43:28.533558 11970 net.cpp:399] pool2 -> pool2
I0403 13:43:28.533615 11970 net.cpp:141] Setting up pool2
I0403 13:43:28.533638 11970 net.cpp:148] Top shape: 100 256 13 13 (4326400)
I0403 13:43:28.533653 11970 net.cpp:156] Memory required for data: 679564400
I0403 13:43:28.533668 11970 layer_factory.hpp:77] Creating layer conv3
I0403 13:43:28.533691 11970 net.cpp:91] Creating Layer conv3
I0403 13:43:28.533707 11970 net.cpp:425] conv3 <- pool2
I0403 13:43:28.533725 11970 net.cpp:399] conv3 -> conv3
I0403 13:43:28.575440 11970 net.cpp:141] Setting up conv3
I0403 13:43:28.575490 11970 net.cpp:148] Top shape: 100 384 13 13 (6489600)
I0403 13:43:28.575507 11970 net.cpp:156] Memory required for data: 705522800
I0403 13:43:28.575533 11970 layer_factory.hpp:77] Creating layer relu3
I0403 13:43:28.575554 11970 net.cpp:91] Creating Layer relu3
I0403 13:43:28.575573 11970 net.cpp:425] relu3 <- conv3
I0403 13:43:28.575592 11970 net.cpp:386] relu3 -> conv3 (in-place)
I0403 13:43:28.575863 11970 net.cpp:141] Setting up relu3
I0403 13:43:28.575891 11970 net.cpp:148] Top shape: 100 384 13 13 (6489600)
I0403 13:43:28.575907 11970 net.cpp:156] Memory required for data: 731481200
I0403 13:43:28.575922 11970 layer_factory.hpp:77] Creating layer conv4
I0403 13:43:28.575945 11970 net.cpp:91] Creating Layer conv4
I0403 13:43:28.575963 11970 net.cpp:425] conv4 <- conv3
I0403 13:43:28.575981 11970 net.cpp:399] conv4 -> conv4
I0403 13:43:28.605521 11970 net.cpp:141] Setting up conv4
I0403 13:43:28.605592 11970 net.cpp:148] Top shape: 100 384 13 13 (6489600)
I0403 13:43:28.605644 11970 net.cpp:156] Memory required for data: 757439600
I0403 13:43:28.605666 11970 layer_factory.hpp:77] Creating layer relu4
I0403 13:43:28.605690 11970 net.cpp:91] Creating Layer relu4
I0403 13:43:28.605710 11970 net.cpp:425] relu4 <- conv4
I0403 13:43:28.605728 11970 net.cpp:386] relu4 -> conv4 (in-place)
I0403 13:43:28.606014 11970 net.cpp:141] Setting up relu4
I0403 13:43:28.606040 11970 net.cpp:148] Top shape: 100 384 13 13 (6489600)
I0403 13:43:28.606056 11970 net.cpp:156] Memory required for data: 783398000
I0403 13:43:28.606070 11970 layer_factory.hpp:77] Creating layer conv5
I0403 13:43:28.606096 11970 net.cpp:91] Creating Layer conv5
I0403 13:43:28.606114 11970 net.cpp:425] conv5 <- conv4
I0403 13:43:28.606137 11970 net.cpp:399] conv5 -> conv5
I0403 13:43:28.627216 11970 net.cpp:141] Setting up conv5
I0403 13:43:28.627254 11970 net.cpp:148] Top shape: 100 256 13 13 (4326400)
I0403 13:43:28.627270 11970 net.cpp:156] Memory required for data: 800703600
I0403 13:43:28.627295 11970 layer_factory.hpp:77] Creating layer relu5
I0403 13:43:28.627321 11970 net.cpp:91] Creating Layer relu5
I0403 13:43:28.627341 11970 net.cpp:425] relu5 <- conv5
I0403 13:43:28.627358 11970 net.cpp:386] relu5 -> conv5 (in-place)
I0403 13:43:28.627645 11970 net.cpp:141] Setting up relu5
I0403 13:43:28.627672 11970 net.cpp:148] Top shape: 100 256 13 13 (4326400)
I0403 13:43:28.627688 11970 net.cpp:156] Memory required for data: 818009200
I0403 13:43:28.627703 11970 layer_factory.hpp:77] Creating layer pool5
I0403 13:43:28.627728 11970 net.cpp:91] Creating Layer pool5
I0403 13:43:28.627745 11970 net.cpp:425] pool5 <- conv5
I0403 13:43:28.627766 11970 net.cpp:399] pool5 -> pool5
I0403 13:43:28.627826 11970 net.cpp:141] Setting up pool5
I0403 13:43:28.627851 11970 net.cpp:148] Top shape: 100 256 6 6 (921600)
I0403 13:43:28.627866 11970 net.cpp:156] Memory required for data: 821695600
I0403 13:43:28.627883 11970 layer_factory.hpp:77] Creating layer fc6
I0403 13:43:28.627913 11970 net.cpp:91] Creating Layer fc6
I0403 13:43:28.627933 11970 net.cpp:425] fc6 <- pool5
I0403 13:43:28.627950 11970 net.cpp:399] fc6 -> fc6
I0403 13:43:30.156744 11970 net.cpp:141] Setting up fc6
I0403 13:43:30.156792 11970 net.cpp:148] Top shape: 100 4096 (409600)
I0403 13:43:30.156808 11970 net.cpp:156] Memory required for data: 823334000
I0403 13:43:30.156828 11970 layer_factory.hpp:77] Creating layer relu6
I0403 13:43:30.156849 11970 net.cpp:91] Creating Layer relu6
I0403 13:43:30.156865 11970 net.cpp:425] relu6 <- fc6
I0403 13:43:30.156886 11970 net.cpp:386] relu6 -> fc6 (in-place)
I0403 13:43:30.157099 11970 net.cpp:141] Setting up relu6
I0403 13:43:30.157122 11970 net.cpp:148] Top shape: 100 4096 (409600)
I0403 13:43:30.157136 11970 net.cpp:156] Memory required for data: 824972400
I0403 13:43:30.157150 11970 layer_factory.hpp:77] Creating layer drop6
I0403 13:43:30.157171 11970 net.cpp:91] Creating Layer drop6
I0403 13:43:30.157186 11970 net.cpp:425] drop6 <- fc6
I0403 13:43:30.157202 11970 net.cpp:386] drop6 -> fc6 (in-place)
I0403 13:43:30.157253 11970 net.cpp:141] Setting up drop6
I0403 13:43:30.157274 11970 net.cpp:148] Top shape: 100 4096 (409600)
I0403 13:43:30.157289 11970 net.cpp:156] Memory required for data: 826610800
I0403 13:43:30.157301 11970 layer_factory.hpp:77] Creating layer fc7
I0403 13:43:30.157320 11970 net.cpp:91] Creating Layer fc7
I0403 13:43:30.157335 11970 net.cpp:425] fc7 <- fc6
I0403 13:43:30.157353 11970 net.cpp:399] fc7 -> fc7
I0403 13:43:30.834528 11970 net.cpp:141] Setting up fc7
I0403 13:43:30.834584 11970 net.cpp:148] Top shape: 100 4096 (409600)
I0403 13:43:30.834602 11970 net.cpp:156] Memory required for data: 828249200
I0403 13:43:30.834624 11970 layer_factory.hpp:77] Creating layer relu7
I0403 13:43:30.834645 11970 net.cpp:91] Creating Layer relu7
I0403 13:43:30.834661 11970 net.cpp:425] relu7 <- fc7
I0403 13:43:30.834678 11970 net.cpp:386] relu7 -> fc7 (in-place)
I0403 13:43:30.835072 11970 net.cpp:141] Setting up relu7
I0403 13:43:30.835098 11970 net.cpp:148] Top shape: 100 4096 (409600)
I0403 13:43:30.835152 11970 net.cpp:156] Memory required for data: 829887600
I0403 13:43:30.835167 11970 layer_factory.hpp:77] Creating layer drop7
I0403 13:43:30.835188 11970 net.cpp:91] Creating Layer drop7
I0403 13:43:30.835203 11970 net.cpp:425] drop7 <- fc7
I0403 13:43:30.835219 11970 net.cpp:386] drop7 -> fc7 (in-place)
I0403 13:43:30.835275 11970 net.cpp:141] Setting up drop7
I0403 13:43:30.835297 11970 net.cpp:148] Top shape: 100 4096 (409600)
I0403 13:43:30.835312 11970 net.cpp:156] Memory required for data: 831526000
I0403 13:43:30.835326 11970 layer_factory.hpp:77] Creating layer fc8_plantvillage
I0403 13:43:30.835346 11970 net.cpp:91] Creating Layer fc8_plantvillage
I0403 13:43:30.835364 11970 net.cpp:425] fc8_plantvillage <- fc7
I0403 13:43:30.835382 11970 net.cpp:399] fc8_plantvillage -> fc8_plantvillage
I0403 13:43:30.842046 11970 net.cpp:141] Setting up fc8_plantvillage
I0403 13:43:30.842073 11970 net.cpp:148] Top shape: 100 38 (3800)
I0403 13:43:30.842088 11970 net.cpp:156] Memory required for data: 831541200
I0403 13:43:30.842106 11970 layer_factory.hpp:77] Creating layer fc8_plantvillage_fc8_plantvillage_0_split
I0403 13:43:30.842126 11970 net.cpp:91] Creating Layer fc8_plantvillage_fc8_plantvillage_0_split
I0403 13:43:30.842141 11970 net.cpp:425] fc8_plantvillage_fc8_plantvillage_0_split <- fc8_plantvillage
I0403 13:43:30.842157 11970 net.cpp:399] fc8_plantvillage_fc8_plantvillage_0_split -> fc8_plantvillage_fc8_plantvillage_0_split_0
I0403 13:43:30.842175 11970 net.cpp:399] fc8_plantvillage_fc8_plantvillage_0_split -> fc8_plantvillage_fc8_plantvillage_0_split_1
I0403 13:43:30.842198 11970 net.cpp:399] fc8_plantvillage_fc8_plantvillage_0_split -> fc8_plantvillage_fc8_plantvillage_0_split_2
I0403 13:43:30.842272 11970 net.cpp:141] Setting up fc8_plantvillage_fc8_plantvillage_0_split
I0403 13:43:30.842293 11970 net.cpp:148] Top shape: 100 38 (3800)
I0403 13:43:30.842308 11970 net.cpp:148] Top shape: 100 38 (3800)
I0403 13:43:30.842324 11970 net.cpp:148] Top shape: 100 38 (3800)
I0403 13:43:30.842336 11970 net.cpp:156] Memory required for data: 831586800
I0403 13:43:30.842350 11970 layer_factory.hpp:77] Creating layer prob
I0403 13:43:30.842370 11970 net.cpp:91] Creating Layer prob
I0403 13:43:30.842386 11970 net.cpp:425] prob <- fc8_plantvillage_fc8_plantvillage_0_split_0
I0403 13:43:30.842402 11970 net.cpp:399] prob -> prob
I0403 13:43:30.842622 11970 net.cpp:141] Setting up prob
I0403 13:43:30.842646 11970 net.cpp:148] Top shape: 100 38 (3800)
I0403 13:43:30.842660 11970 net.cpp:156] Memory required for data: 831602000
I0403 13:43:30.842674 11970 layer_factory.hpp:77] Creating layer hdf5out
I0403 13:43:30.842694 11970 net.cpp:91] Creating Layer hdf5out
I0403 13:43:30.842710 11970 net.cpp:425] hdf5out <- prob
I0403 13:43:30.842725 11970 net.cpp:425] hdf5out <- label_data_1_split_0
I0403 13:43:30.860394 11970 net.cpp:141] Setting up hdf5out
…
