…
I0403 13:50:14.630884 12135 net.cpp:313] The NetState phase (1) differed from the phase (0) specified by a rule in layer data
I0403 13:50:14.631182 12135 net.cpp:49] Initializing net from parameters: 
state {
  phase: TEST
}
layer {
  name: "data"
  type: "Data"
  top: "data"
  top: "label"
  include {
    phase: TEST
  }
  transform_param {
    crop_size: 227
    mean_file: "/home/mohanty/data/final_dataset/lmdb/grayscale-60-40/mean.binaryproto"
  }
  data_param {
    source: "/home/mohanty/data/final_dataset/lmdb/grayscale-60-40/test_db"
    batch_size: 100
    backend: LMDB
  }
}
layer {
  name: "conv1"
  type: "Convolution"
  bottom: "data"
  top: "conv1"
  param {
    lr_mult: 1
    decay_mult: 1
  }
  param {
    lr_mult: 2
    decay_mult: 0
  }
  convolution_param {
    num_output: 96
    kernel_size: 11
    stride: 4
    weight_filler {
      type: "gaussian"
      std: 0.01
    }
    bias_filler {
      type: "constant"
      value: 0
    }
  }
}
layer {
  name: "relu1"
  type: "ReLU"
  bottom: "conv1"
  top: "conv1"
}
layer {
  name: "norm1"
  type: "LRN"
  bottom: "conv1"
  top: "norm1"
  lrn_param {
    local_size: 5
    alpha: 0.0001
    beta: 0.75
  }
}
layer {
  name: "pool1"
  type: "Pooling"
  bottom: "norm1"
  top: "pool1"
  pooling_param {
    pool: MAX
    kernel_size: 3
    stride: 2
  }
}
layer {
  name: "conv2"
  type: "Convolution"
  bottom: "pool1"
  top: "conv2"
  param {
    lr_mult: 1
    decay_mult: 1
  }
  param {
    lr_mult: 2
    decay_mult: 0
  }
  convolution_param {
    num_output: 256
    pad: 2
    kernel_size: 5
    group: 2
    weight_filler {
      type: "gaussian"
      std: 0.01
    }
    bias_filler {
      type: "constant"
      value: 0.1
    }
  }
}
layer {
  name: "relu2"
  type: "ReLU"
  bottom: "conv2"
  top: "conv2"
}
layer {
  name: "norm2"
  type: "LRN"
  bottom: "conv2"
  top: "norm2"
  lrn_param {
    local_size: 5
    alpha: 0.0001
    beta: 0.75
  }
}
layer {
  name: "pool2"
  type: "Pooling"
  bottom: "norm2"
  top: "pool2"
  pooling_param {
    pool: MAX
    kernel_size: 3
    stride: 2
  }
}
layer {
  name: "conv3"
  type: "Convolution"
  bottom: "pool2"
  top: "conv3"
  param {
    lr_mult: 1
    decay_mult: 1
  }
  param {
    lr_mult: 2
    decay_mult: 0
  }
  convolution_param {
    num_output: 384
    pad: 1
    kernel_size: 3
    weight_filler {
      type: "gaussian"
      std: 0.01
    }
    bias_filler {
      type: "constant"
      value: 0
    }
  }
}
layer {
  name: "relu3"
  type: "ReLU"
  bottom: "conv3"
  top: "conv3"
}
layer {
  name: "conv4"
  type: "Convolution"
  bottom: "conv3"
  top: "conv4"
  param {
    lr_mult: 1
    decay_mult: 1
  }
  param {
    lr_mult: 2
    decay_mult: 0
  }
  convolution_param {
    num_output: 384
    pad: 1
    kernel_size: 3
    group: 2
    weight_filler {
      type: "gaussian"
      std: 0.01
    }
    bias_filler {
      type: "constant"
      value: 0.1
    }
  }
}
layer {
  name: "relu4"
  type: "ReLU"
  bottom: "conv4"
  top: "conv4"
}
layer {
  name: "conv5"
  type: "Convolution"
  bottom: "conv4"
  top: "conv5"
  param {
    lr_mult: 1
    decay_mult: 1
  }
  param {
    lr_mult: 2
    decay_mult: 0
  }
  convolution_param {
    num_output: 256
    pad: 1
    kernel_size: 3
    group: 2
    weight_filler {
      type: "gaussian"
      std: 0.01
    }
    bias_filler {
      type: "constant"
      value: 0.1
    }
  }
}
layer {
  name: "relu5"
  type: "ReLU"
  bottom: "conv5"
  top: "conv5"
}
layer {
  name: "pool5"
  type: "Pooling"
  bottom: "conv5"
  top: "pool5"
  pooling_param {
    pool: MAX
    kernel_size: 3
    stride: 2
  }
}
layer {
  name: "fc6"
  type: "InnerProduct"
  bottom: "pool5"
  top: "fc6"
  param {
    lr_mult: 1
    decay_mult: 1
  }
  param {
    lr_mult: 2
    decay_mult: 0
  }
  inner_product_param {
    num_output: 4096
    weight_filler {
      type: "gaussian"
      std: 0.005
    }
    bias_filler {
      type: "constant"
      value: 0.1
    }
  }
}
layer {
  name: "relu6"
  type: "ReLU"
  bottom: "fc6"
  top: "fc6"
}
layer {
  name: "drop6"
  type: "Dropout"
  bottom: "fc6"
  top: "fc6"
  dropout_param {
    dropout_ratio: 0.5
  }
}
layer {
  name: "fc7"
  type: "InnerProduct"
  bottom: "fc6"
  top: "fc7"
  param {
    lr_mult: 1
    decay_mult: 1
  }
  param {
    lr_mult: 2
    decay_mult: 0
  }
  inner_product_param {
    num_output: 4096
    weight_filler {
      type: "gaussian"
      std: 0.005
    }
    bias_filler {
      type: "constant"
      value: 0.1
    }
  }
}
layer {
  name: "relu7"
  type: "ReLU"
  bottom: "fc7"
  top: "fc7"
}
layer {
  name: "drop7"
  type: "Dropout"
  bottom: "fc7"
  top: "fc7"
  dropout_param {
    dropout_ratio: 0.5
  }
}
layer {
  name: "fc8_plantvillage"
  type: "InnerProduct"
  bottom: "fc7"
  top: "fc8_plantvillage"
  param {
    lr_mult: 1
    decay_mult: 1
  }
  param {
    lr_mult: 2
    decay_mult: 0
  }
  inner_product_param {
    num_output: 38
    weight_filler {
      type: "gaussian"
      std: 0.01
    }
    bias_filler {
      type: "constant"
      value: 0
    }
  }
}
layer {
  name: "prob"
  type: "Softmax"
  bottom: "fc8_plantvillage"
  top: "prob"
  include {
    phase: TEST
  }
}
layer {
  name: "hdf5out"
  type: "HDF5Output"
  bottom: "prob"
  bottom: "label"
  include {
    phase: TEST
  }
  hdf5_output_param {
    file_name: "hdf5_dumps/iter_6175.h5"
  }
}
layer {
  name: "loss"
  type: "SoftmaxWithLoss"
  bottom: "fc8_plantvillage"
  bottom: "label"
  top: "loss"
}
layer {
  name: "accuracy"
  type: "Accuracy"
  bottom: "fc8_plantvillage"
  bottom: "label"
  top: "accuracy"
  include {
    phase: TEST
  }
}
I0403 13:50:14.631742 12135 layer_factory.hpp:77] Creating layer data
I0403 13:50:14.632372 12135 net.cpp:91] Creating Layer data
I0403 13:50:14.632401 12135 net.cpp:399] data -> data
I0403 13:50:14.632450 12135 net.cpp:399] data -> label
I0403 13:50:14.632486 12135 data_transformer.cpp:25] Loading mean file from: /home/mohanty/data/final_dataset/lmdb/grayscale-60-40/mean.binaryproto
I0403 13:50:14.635332 12138 db_lmdb.cpp:38] Opened lmdb /home/mohanty/data/final_dataset/lmdb/grayscale-60-40/test_db
I0403 13:50:14.646910 12135 data_layer.cpp:41] output data size: 100,3,227,227
I0403 13:50:14.771198 12135 net.cpp:141] Setting up data
I0403 13:50:14.771260 12135 net.cpp:148] Top shape: 100 3 227 227 (15458700)
I0403 13:50:14.771283 12135 net.cpp:148] Top shape: 100 (100)
I0403 13:50:14.771299 12135 net.cpp:156] Memory required for data: 61835200
I0403 13:50:14.771328 12135 layer_factory.hpp:77] Creating layer label_data_1_split
I0403 13:50:14.771353 12135 net.cpp:91] Creating Layer label_data_1_split
I0403 13:50:14.771371 12135 net.cpp:425] label_data_1_split <- label
I0403 13:50:14.771404 12135 net.cpp:399] label_data_1_split -> label_data_1_split_0
I0403 13:50:14.771431 12135 net.cpp:399] label_data_1_split -> label_data_1_split_1
I0403 13:50:14.771453 12135 net.cpp:399] label_data_1_split -> label_data_1_split_2
I0403 13:50:14.771517 12135 net.cpp:141] Setting up label_data_1_split
I0403 13:50:14.771540 12135 net.cpp:148] Top shape: 100 (100)
I0403 13:50:14.771559 12135 net.cpp:148] Top shape: 100 (100)
I0403 13:50:14.771575 12135 net.cpp:148] Top shape: 100 (100)
I0403 13:50:14.771589 12135 net.cpp:156] Memory required for data: 61836400
I0403 13:50:14.771610 12135 layer_factory.hpp:77] Creating layer conv1
I0403 13:50:14.771642 12135 net.cpp:91] Creating Layer conv1
I0403 13:50:14.771661 12135 net.cpp:425] conv1 <- data
I0403 13:50:14.771680 12135 net.cpp:399] conv1 -> conv1
I0403 13:50:14.913441 12135 net.cpp:141] Setting up conv1
I0403 13:50:14.913519 12135 net.cpp:148] Top shape: 100 96 55 55 (29040000)
I0403 13:50:14.913537 12135 net.cpp:156] Memory required for data: 177996400
I0403 13:50:14.913565 12135 layer_factory.hpp:77] Creating layer relu1
I0403 13:50:14.913592 12135 net.cpp:91] Creating Layer relu1
I0403 13:50:14.913615 12135 net.cpp:425] relu1 <- conv1
I0403 13:50:14.913635 12135 net.cpp:386] relu1 -> conv1 (in-place)
I0403 13:50:14.913900 12135 net.cpp:141] Setting up relu1
I0403 13:50:14.913928 12135 net.cpp:148] Top shape: 100 96 55 55 (29040000)
I0403 13:50:14.913975 12135 net.cpp:156] Memory required for data: 294156400
I0403 13:50:14.913990 12135 layer_factory.hpp:77] Creating layer norm1
I0403 13:50:14.914018 12135 net.cpp:91] Creating Layer norm1
I0403 13:50:14.914036 12135 net.cpp:425] norm1 <- conv1
I0403 13:50:14.914057 12135 net.cpp:399] norm1 -> norm1
I0403 13:50:14.914372 12135 net.cpp:141] Setting up norm1
I0403 13:50:14.914402 12135 net.cpp:148] Top shape: 100 96 55 55 (29040000)
I0403 13:50:14.914417 12135 net.cpp:156] Memory required for data: 410316400
I0403 13:50:14.914433 12135 layer_factory.hpp:77] Creating layer pool1
I0403 13:50:14.914454 12135 net.cpp:91] Creating Layer pool1
I0403 13:50:14.914472 12135 net.cpp:425] pool1 <- norm1
I0403 13:50:14.914492 12135 net.cpp:399] pool1 -> pool1
I0403 13:50:14.914561 12135 net.cpp:141] Setting up pool1
I0403 13:50:14.914584 12135 net.cpp:148] Top shape: 100 96 27 27 (6998400)
I0403 13:50:14.914608 12135 net.cpp:156] Memory required for data: 438310000
I0403 13:50:14.914628 12135 layer_factory.hpp:77] Creating layer conv2
I0403 13:50:14.914654 12135 net.cpp:91] Creating Layer conv2
I0403 13:50:14.914670 12135 net.cpp:425] conv2 <- pool1
I0403 13:50:14.914690 12135 net.cpp:399] conv2 -> conv2
I0403 13:50:14.929677 12135 net.cpp:141] Setting up conv2
I0403 13:50:14.929713 12135 net.cpp:148] Top shape: 100 256 27 27 (18662400)
I0403 13:50:14.929729 12135 net.cpp:156] Memory required for data: 512959600
I0403 13:50:14.929751 12135 layer_factory.hpp:77] Creating layer relu2
I0403 13:50:14.929770 12135 net.cpp:91] Creating Layer relu2
I0403 13:50:14.929786 12135 net.cpp:425] relu2 <- conv2
I0403 13:50:14.929805 12135 net.cpp:386] relu2 -> conv2 (in-place)
I0403 13:50:14.930119 12135 net.cpp:141] Setting up relu2
I0403 13:50:14.930147 12135 net.cpp:148] Top shape: 100 256 27 27 (18662400)
I0403 13:50:14.930163 12135 net.cpp:156] Memory required for data: 587609200
I0403 13:50:14.930178 12135 layer_factory.hpp:77] Creating layer norm2
I0403 13:50:14.930199 12135 net.cpp:91] Creating Layer norm2
I0403 13:50:14.930217 12135 net.cpp:425] norm2 <- conv2
I0403 13:50:14.930235 12135 net.cpp:399] norm2 -> norm2
I0403 13:50:14.930433 12135 net.cpp:141] Setting up norm2
I0403 13:50:14.930462 12135 net.cpp:148] Top shape: 100 256 27 27 (18662400)
I0403 13:50:14.930479 12135 net.cpp:156] Memory required for data: 662258800
I0403 13:50:14.930492 12135 layer_factory.hpp:77] Creating layer pool2
I0403 13:50:14.930510 12135 net.cpp:91] Creating Layer pool2
I0403 13:50:14.930526 12135 net.cpp:425] pool2 <- norm2
I0403 13:50:14.930544 12135 net.cpp:399] pool2 -> pool2
I0403 13:50:14.930604 12135 net.cpp:141] Setting up pool2
I0403 13:50:14.930641 12135 net.cpp:148] Top shape: 100 256 13 13 (4326400)
I0403 13:50:14.930657 12135 net.cpp:156] Memory required for data: 679564400
I0403 13:50:14.930672 12135 layer_factory.hpp:77] Creating layer conv3
I0403 13:50:14.930696 12135 net.cpp:91] Creating Layer conv3
I0403 13:50:14.930714 12135 net.cpp:425] conv3 <- pool2
I0403 13:50:14.930735 12135 net.cpp:399] conv3 -> conv3
I0403 13:50:14.971736 12135 net.cpp:141] Setting up conv3
I0403 13:50:14.971812 12135 net.cpp:148] Top shape: 100 384 13 13 (6489600)
I0403 13:50:14.971829 12135 net.cpp:156] Memory required for data: 705522800
I0403 13:50:14.971854 12135 layer_factory.hpp:77] Creating layer relu3
I0403 13:50:14.971875 12135 net.cpp:91] Creating Layer relu3
I0403 13:50:14.971892 12135 net.cpp:425] relu3 <- conv3
I0403 13:50:14.971914 12135 net.cpp:386] relu3 -> conv3 (in-place)
I0403 13:50:14.972183 12135 net.cpp:141] Setting up relu3
I0403 13:50:14.972213 12135 net.cpp:148] Top shape: 100 384 13 13 (6489600)
I0403 13:50:14.972229 12135 net.cpp:156] Memory required for data: 731481200
I0403 13:50:14.972242 12135 layer_factory.hpp:77] Creating layer conv4
I0403 13:50:14.972270 12135 net.cpp:91] Creating Layer conv4
I0403 13:50:14.972286 12135 net.cpp:425] conv4 <- conv3
I0403 13:50:14.972306 12135 net.cpp:399] conv4 -> conv4
I0403 13:50:15.001802 12135 net.cpp:141] Setting up conv4
I0403 13:50:15.001843 12135 net.cpp:148] Top shape: 100 384 13 13 (6489600)
I0403 13:50:15.001896 12135 net.cpp:156] Memory required for data: 757439600
I0403 13:50:15.001916 12135 layer_factory.hpp:77] Creating layer relu4
I0403 13:50:15.001938 12135 net.cpp:91] Creating Layer relu4
I0403 13:50:15.001956 12135 net.cpp:425] relu4 <- conv4
I0403 13:50:15.001973 12135 net.cpp:386] relu4 -> conv4 (in-place)
I0403 13:50:15.002249 12135 net.cpp:141] Setting up relu4
I0403 13:50:15.002275 12135 net.cpp:148] Top shape: 100 384 13 13 (6489600)
I0403 13:50:15.002290 12135 net.cpp:156] Memory required for data: 783398000
I0403 13:50:15.002305 12135 layer_factory.hpp:77] Creating layer conv5
I0403 13:50:15.002328 12135 net.cpp:91] Creating Layer conv5
I0403 13:50:15.002346 12135 net.cpp:425] conv5 <- conv4
I0403 13:50:15.002363 12135 net.cpp:399] conv5 -> conv5
I0403 13:50:15.022871 12135 net.cpp:141] Setting up conv5
I0403 13:50:15.022907 12135 net.cpp:148] Top shape: 100 256 13 13 (4326400)
I0403 13:50:15.022923 12135 net.cpp:156] Memory required for data: 800703600
I0403 13:50:15.022948 12135 layer_factory.hpp:77] Creating layer relu5
I0403 13:50:15.022967 12135 net.cpp:91] Creating Layer relu5
I0403 13:50:15.022984 12135 net.cpp:425] relu5 <- conv5
I0403 13:50:15.023000 12135 net.cpp:386] relu5 -> conv5 (in-place)
I0403 13:50:15.023279 12135 net.cpp:141] Setting up relu5
I0403 13:50:15.023308 12135 net.cpp:148] Top shape: 100 256 13 13 (4326400)
I0403 13:50:15.023324 12135 net.cpp:156] Memory required for data: 818009200
I0403 13:50:15.023339 12135 layer_factory.hpp:77] Creating layer pool5
I0403 13:50:15.023360 12135 net.cpp:91] Creating Layer pool5
I0403 13:50:15.023377 12135 net.cpp:425] pool5 <- conv5
I0403 13:50:15.023397 12135 net.cpp:399] pool5 -> pool5
I0403 13:50:15.023458 12135 net.cpp:141] Setting up pool5
I0403 13:50:15.023483 12135 net.cpp:148] Top shape: 100 256 6 6 (921600)
I0403 13:50:15.023497 12135 net.cpp:156] Memory required for data: 821695600
I0403 13:50:15.023511 12135 layer_factory.hpp:77] Creating layer fc6
I0403 13:50:15.023541 12135 net.cpp:91] Creating Layer fc6
I0403 13:50:15.023561 12135 net.cpp:425] fc6 <- pool5
I0403 13:50:15.023581 12135 net.cpp:399] fc6 -> fc6
I0403 13:50:16.560026 12135 net.cpp:141] Setting up fc6
I0403 13:50:16.560076 12135 net.cpp:148] Top shape: 100 4096 (409600)
I0403 13:50:16.560092 12135 net.cpp:156] Memory required for data: 823334000
I0403 13:50:16.560112 12135 layer_factory.hpp:77] Creating layer relu6
I0403 13:50:16.560137 12135 net.cpp:91] Creating Layer relu6
I0403 13:50:16.560155 12135 net.cpp:425] relu6 <- fc6
I0403 13:50:16.560174 12135 net.cpp:386] relu6 -> fc6 (in-place)
I0403 13:50:16.560395 12135 net.cpp:141] Setting up relu6
I0403 13:50:16.560421 12135 net.cpp:148] Top shape: 100 4096 (409600)
I0403 13:50:16.560437 12135 net.cpp:156] Memory required for data: 824972400
I0403 13:50:16.560452 12135 layer_factory.hpp:77] Creating layer drop6
I0403 13:50:16.560470 12135 net.cpp:91] Creating Layer drop6
I0403 13:50:16.560484 12135 net.cpp:425] drop6 <- fc6
I0403 13:50:16.560502 12135 net.cpp:386] drop6 -> fc6 (in-place)
I0403 13:50:16.560554 12135 net.cpp:141] Setting up drop6
I0403 13:50:16.560575 12135 net.cpp:148] Top shape: 100 4096 (409600)
I0403 13:50:16.560590 12135 net.cpp:156] Memory required for data: 826610800
I0403 13:50:16.560609 12135 layer_factory.hpp:77] Creating layer fc7
I0403 13:50:16.560632 12135 net.cpp:91] Creating Layer fc7
I0403 13:50:16.560648 12135 net.cpp:425] fc7 <- fc6
I0403 13:50:16.560667 12135 net.cpp:399] fc7 -> fc7
I0403 13:50:17.233991 12135 net.cpp:141] Setting up fc7
I0403 13:50:17.234061 12135 net.cpp:148] Top shape: 100 4096 (409600)
I0403 13:50:17.234077 12135 net.cpp:156] Memory required for data: 828249200
I0403 13:50:17.234098 12135 layer_factory.hpp:77] Creating layer relu7
I0403 13:50:17.234122 12135 net.cpp:91] Creating Layer relu7
I0403 13:50:17.234139 12135 net.cpp:425] relu7 <- fc7
I0403 13:50:17.234158 12135 net.cpp:386] relu7 -> fc7 (in-place)
I0403 13:50:17.234540 12135 net.cpp:141] Setting up relu7
I0403 13:50:17.234568 12135 net.cpp:148] Top shape: 100 4096 (409600)
I0403 13:50:17.234645 12135 net.cpp:156] Memory required for data: 829887600
I0403 13:50:17.234661 12135 layer_factory.hpp:77] Creating layer drop7
I0403 13:50:17.234679 12135 net.cpp:91] Creating Layer drop7
I0403 13:50:17.234694 12135 net.cpp:425] drop7 <- fc7
I0403 13:50:17.234714 12135 net.cpp:386] drop7 -> fc7 (in-place)
I0403 13:50:17.234755 12135 net.cpp:141] Setting up drop7
I0403 13:50:17.234778 12135 net.cpp:148] Top shape: 100 4096 (409600)
I0403 13:50:17.234792 12135 net.cpp:156] Memory required for data: 831526000
I0403 13:50:17.234805 12135 layer_factory.hpp:77] Creating layer fc8_plantvillage
I0403 13:50:17.234827 12135 net.cpp:91] Creating Layer fc8_plantvillage
I0403 13:50:17.234843 12135 net.cpp:425] fc8_plantvillage <- fc7
I0403 13:50:17.234863 12135 net.cpp:399] fc8_plantvillage -> fc8_plantvillage
I0403 13:50:17.241569 12135 net.cpp:141] Setting up fc8_plantvillage
I0403 13:50:17.241597 12135 net.cpp:148] Top shape: 100 38 (3800)
I0403 13:50:17.241616 12135 net.cpp:156] Memory required for data: 831541200
I0403 13:50:17.241634 12135 layer_factory.hpp:77] Creating layer fc8_plantvillage_fc8_plantvillage_0_split
I0403 13:50:17.241653 12135 net.cpp:91] Creating Layer fc8_plantvillage_fc8_plantvillage_0_split
I0403 13:50:17.241668 12135 net.cpp:425] fc8_plantvillage_fc8_plantvillage_0_split <- fc8_plantvillage
I0403 13:50:17.241688 12135 net.cpp:399] fc8_plantvillage_fc8_plantvillage_0_split -> fc8_plantvillage_fc8_plantvillage_0_split_0
I0403 13:50:17.241709 12135 net.cpp:399] fc8_plantvillage_fc8_plantvillage_0_split -> fc8_plantvillage_fc8_plantvillage_0_split_1
I0403 13:50:17.241729 12135 net.cpp:399] fc8_plantvillage_fc8_plantvillage_0_split -> fc8_plantvillage_fc8_plantvillage_0_split_2
I0403 13:50:17.241808 12135 net.cpp:141] Setting up fc8_plantvillage_fc8_plantvillage_0_split
I0403 13:50:17.241832 12135 net.cpp:148] Top shape: 100 38 (3800)
I0403 13:50:17.241848 12135 net.cpp:148] Top shape: 100 38 (3800)
I0403 13:50:17.241863 12135 net.cpp:148] Top shape: 100 38 (3800)
I0403 13:50:17.241878 12135 net.cpp:156] Memory required for data: 831586800
I0403 13:50:17.241893 12135 layer_factory.hpp:77] Creating layer prob
I0403 13:50:17.241909 12135 net.cpp:91] Creating Layer prob
I0403 13:50:17.241925 12135 net.cpp:425] prob <- fc8_plantvillage_fc8_plantvillage_0_split_0
I0403 13:50:17.241942 12135 net.cpp:399] prob -> prob
I0403 13:50:17.242168 12135 net.cpp:141] Setting up prob
I0403 13:50:17.242202 12135 net.cpp:148] Top shape: 100 38 (3800)
I0403 13:50:17.242218 12135 net.cpp:156] Memory required for data: 831602000
I0403 13:50:17.242233 12135 layer_factory.hpp:77] Creating layer hdf5out
I0403 13:50:17.242251 12135 net.cpp:91] Creating Layer hdf5out
I0403 13:50:17.242267 12135 net.cpp:425] hdf5out <- prob
I0403 13:50:17.242283 12135 net.cpp:425] hdf5out <- label_data_1_split_0
I0403 13:50:17.246021 12135 net.cpp:141] Setting up hdf5out
…
