…
I0403 13:57:01.155830 12286 net.cpp:313] The NetState phase (1) differed from the phase (0) specified by a rule in layer data
I0403 13:57:01.156150 12286 net.cpp:49] Initializing net from parameters: 
state {
  phase: TEST
}
layer {
  name: "data"
  type: "Data"
  top: "data"
  top: "label"
  include {
    phase: TEST
  }
  transform_param {
    crop_size: 227
    mean_file: "/home/mohanty/data/final_dataset/lmdb/grayscale-60-40/mean.binaryproto"
  }
  data_param {
    source: "/home/mohanty/data/final_dataset/lmdb/grayscale-60-40/test_db"
    batch_size: 100
    backend: LMDB
  }
}
layer {
  name: "conv1"
  type: "Convolution"
  bottom: "data"
  top: "conv1"
  param {
    lr_mult: 1
    decay_mult: 1
  }
  param {
    lr_mult: 2
    decay_mult: 0
  }
  convolution_param {
    num_output: 96
    kernel_size: 11
    stride: 4
    weight_filler {
      type: "gaussian"
      std: 0.01
    }
    bias_filler {
      type: "constant"
      value: 0
    }
  }
}
layer {
  name: "relu1"
  type: "ReLU"
  bottom: "conv1"
  top: "conv1"
}
layer {
  name: "norm1"
  type: "LRN"
  bottom: "conv1"
  top: "norm1"
  lrn_param {
    local_size: 5
    alpha: 0.0001
    beta: 0.75
  }
}
layer {
  name: "pool1"
  type: "Pooling"
  bottom: "norm1"
  top: "pool1"
  pooling_param {
    pool: MAX
    kernel_size: 3
    stride: 2
  }
}
layer {
  name: "conv2"
  type: "Convolution"
  bottom: "pool1"
  top: "conv2"
  param {
    lr_mult: 1
    decay_mult: 1
  }
  param {
    lr_mult: 2
    decay_mult: 0
  }
  convolution_param {
    num_output: 256
    pad: 2
    kernel_size: 5
    group: 2
    weight_filler {
      type: "gaussian"
      std: 0.01
    }
    bias_filler {
      type: "constant"
      value: 0.1
    }
  }
}
layer {
  name: "relu2"
  type: "ReLU"
  bottom: "conv2"
  top: "conv2"
}
layer {
  name: "norm2"
  type: "LRN"
  bottom: "conv2"
  top: "norm2"
  lrn_param {
    local_size: 5
    alpha: 0.0001
    beta: 0.75
  }
}
layer {
  name: "pool2"
  type: "Pooling"
  bottom: "norm2"
  top: "pool2"
  pooling_param {
    pool: MAX
    kernel_size: 3
    stride: 2
  }
}
layer {
  name: "conv3"
  type: "Convolution"
  bottom: "pool2"
  top: "conv3"
  param {
    lr_mult: 1
    decay_mult: 1
  }
  param {
    lr_mult: 2
    decay_mult: 0
  }
  convolution_param {
    num_output: 384
    pad: 1
    kernel_size: 3
    weight_filler {
      type: "gaussian"
      std: 0.01
    }
    bias_filler {
      type: "constant"
      value: 0
    }
  }
}
layer {
  name: "relu3"
  type: "ReLU"
  bottom: "conv3"
  top: "conv3"
}
layer {
  name: "conv4"
  type: "Convolution"
  bottom: "conv3"
  top: "conv4"
  param {
    lr_mult: 1
    decay_mult: 1
  }
  param {
    lr_mult: 2
    decay_mult: 0
  }
  convolution_param {
    num_output: 384
    pad: 1
    kernel_size: 3
    group: 2
    weight_filler {
      type: "gaussian"
      std: 0.01
    }
    bias_filler {
      type: "constant"
      value: 0.1
    }
  }
}
layer {
  name: "relu4"
  type: "ReLU"
  bottom: "conv4"
  top: "conv4"
}
layer {
  name: "conv5"
  type: "Convolution"
  bottom: "conv4"
  top: "conv5"
  param {
    lr_mult: 1
    decay_mult: 1
  }
  param {
    lr_mult: 2
    decay_mult: 0
  }
  convolution_param {
    num_output: 256
    pad: 1
    kernel_size: 3
    group: 2
    weight_filler {
      type: "gaussian"
      std: 0.01
    }
    bias_filler {
      type: "constant"
      value: 0.1
    }
  }
}
layer {
  name: "relu5"
  type: "ReLU"
  bottom: "conv5"
  top: "conv5"
}
layer {
  name: "pool5"
  type: "Pooling"
  bottom: "conv5"
  top: "pool5"
  pooling_param {
    pool: MAX
    kernel_size: 3
    stride: 2
  }
}
layer {
  name: "fc6"
  type: "InnerProduct"
  bottom: "pool5"
  top: "fc6"
  param {
    lr_mult: 1
    decay_mult: 1
  }
  param {
    lr_mult: 2
    decay_mult: 0
  }
  inner_product_param {
    num_output: 4096
    weight_filler {
      type: "gaussian"
      std: 0.005
    }
    bias_filler {
      type: "constant"
      value: 0.1
    }
  }
}
layer {
  name: "relu6"
  type: "ReLU"
  bottom: "fc6"
  top: "fc6"
}
layer {
  name: "drop6"
  type: "Dropout"
  bottom: "fc6"
  top: "fc6"
  dropout_param {
    dropout_ratio: 0.5
  }
}
layer {
  name: "fc7"
  type: "InnerProduct"
  bottom: "fc6"
  top: "fc7"
  param {
    lr_mult: 1
    decay_mult: 1
  }
  param {
    lr_mult: 2
    decay_mult: 0
  }
  inner_product_param {
    num_output: 4096
    weight_filler {
      type: "gaussian"
      std: 0.005
    }
    bias_filler {
      type: "constant"
      value: 0.1
    }
  }
}
layer {
  name: "relu7"
  type: "ReLU"
  bottom: "fc7"
  top: "fc7"
}
layer {
  name: "drop7"
  type: "Dropout"
  bottom: "fc7"
  top: "fc7"
  dropout_param {
    dropout_ratio: 0.5
  }
}
layer {
  name: "fc8_plantvillage"
  type: "InnerProduct"
  bottom: "fc7"
  top: "fc8_plantvillage"
  param {
    lr_mult: 1
    decay_mult: 1
  }
  param {
    lr_mult: 2
    decay_mult: 0
  }
  inner_product_param {
    num_output: 38
    weight_filler {
      type: "gaussian"
      std: 0.01
    }
    bias_filler {
      type: "constant"
      value: 0
    }
  }
}
layer {
  name: "prob"
  type: "Softmax"
  bottom: "fc8_plantvillage"
  top: "prob"
  include {
    phase: TEST
  }
}
layer {
  name: "hdf5out"
  type: "HDF5Output"
  bottom: "prob"
  bottom: "label"
  include {
    phase: TEST
  }
  hdf5_output_param {
    file_name: "hdf5_dumps/iter_9100.h5"
  }
}
layer {
  name: "loss"
  type: "SoftmaxWithLoss"
  bottom: "fc8_plantvillage"
  bottom: "label"
  top: "loss"
}
layer {
  name: "accuracy"
  type: "Accuracy"
  bottom: "fc8_plantvillage"
  bottom: "label"
  top: "accuracy"
  include {
    phase: TEST
  }
}
I0403 13:57:01.156741 12286 layer_factory.hpp:77] Creating layer data
I0403 13:57:01.157414 12286 net.cpp:91] Creating Layer data
I0403 13:57:01.157449 12286 net.cpp:399] data -> data
I0403 13:57:01.157498 12286 net.cpp:399] data -> label
I0403 13:57:01.157534 12286 data_transformer.cpp:25] Loading mean file from: /home/mohanty/data/final_dataset/lmdb/grayscale-60-40/mean.binaryproto
I0403 13:57:01.160637 12290 db_lmdb.cpp:38] Opened lmdb /home/mohanty/data/final_dataset/lmdb/grayscale-60-40/test_db
I0403 13:57:01.172113 12286 data_layer.cpp:41] output data size: 100,3,227,227
I0403 13:57:01.293949 12286 net.cpp:141] Setting up data
I0403 13:57:01.294018 12286 net.cpp:148] Top shape: 100 3 227 227 (15458700)
I0403 13:57:01.294041 12286 net.cpp:148] Top shape: 100 (100)
I0403 13:57:01.294059 12286 net.cpp:156] Memory required for data: 61835200
I0403 13:57:01.294088 12286 layer_factory.hpp:77] Creating layer label_data_1_split
I0403 13:57:01.294113 12286 net.cpp:91] Creating Layer label_data_1_split
I0403 13:57:01.294131 12286 net.cpp:425] label_data_1_split <- label
I0403 13:57:01.294162 12286 net.cpp:399] label_data_1_split -> label_data_1_split_0
I0403 13:57:01.294190 12286 net.cpp:399] label_data_1_split -> label_data_1_split_1
I0403 13:57:01.294212 12286 net.cpp:399] label_data_1_split -> label_data_1_split_2
I0403 13:57:01.294275 12286 net.cpp:141] Setting up label_data_1_split
I0403 13:57:01.294301 12286 net.cpp:148] Top shape: 100 (100)
I0403 13:57:01.294317 12286 net.cpp:148] Top shape: 100 (100)
I0403 13:57:01.294333 12286 net.cpp:148] Top shape: 100 (100)
I0403 13:57:01.294348 12286 net.cpp:156] Memory required for data: 61836400
I0403 13:57:01.294363 12286 layer_factory.hpp:77] Creating layer conv1
I0403 13:57:01.294394 12286 net.cpp:91] Creating Layer conv1
I0403 13:57:01.294411 12286 net.cpp:425] conv1 <- data
I0403 13:57:01.294430 12286 net.cpp:399] conv1 -> conv1
I0403 13:57:01.435632 12286 net.cpp:141] Setting up conv1
I0403 13:57:01.435714 12286 net.cpp:148] Top shape: 100 96 55 55 (29040000)
I0403 13:57:01.435731 12286 net.cpp:156] Memory required for data: 177996400
I0403 13:57:01.435762 12286 layer_factory.hpp:77] Creating layer relu1
I0403 13:57:01.435791 12286 net.cpp:91] Creating Layer relu1
I0403 13:57:01.435808 12286 net.cpp:425] relu1 <- conv1
I0403 13:57:01.435830 12286 net.cpp:386] relu1 -> conv1 (in-place)
I0403 13:57:01.436105 12286 net.cpp:141] Setting up relu1
I0403 13:57:01.436133 12286 net.cpp:148] Top shape: 100 96 55 55 (29040000)
I0403 13:57:01.436184 12286 net.cpp:156] Memory required for data: 294156400
I0403 13:57:01.436205 12286 layer_factory.hpp:77] Creating layer norm1
I0403 13:57:01.436233 12286 net.cpp:91] Creating Layer norm1
I0403 13:57:01.436250 12286 net.cpp:425] norm1 <- conv1
I0403 13:57:01.436277 12286 net.cpp:399] norm1 -> norm1
I0403 13:57:01.436616 12286 net.cpp:141] Setting up norm1
I0403 13:57:01.436650 12286 net.cpp:148] Top shape: 100 96 55 55 (29040000)
I0403 13:57:01.436674 12286 net.cpp:156] Memory required for data: 410316400
I0403 13:57:01.436698 12286 layer_factory.hpp:77] Creating layer pool1
I0403 13:57:01.436730 12286 net.cpp:91] Creating Layer pool1
I0403 13:57:01.436748 12286 net.cpp:425] pool1 <- norm1
I0403 13:57:01.436769 12286 net.cpp:399] pool1 -> pool1
I0403 13:57:01.436841 12286 net.cpp:141] Setting up pool1
I0403 13:57:01.436866 12286 net.cpp:148] Top shape: 100 96 27 27 (6998400)
I0403 13:57:01.436880 12286 net.cpp:156] Memory required for data: 438310000
I0403 13:57:01.436895 12286 layer_factory.hpp:77] Creating layer conv2
I0403 13:57:01.436924 12286 net.cpp:91] Creating Layer conv2
I0403 13:57:01.436941 12286 net.cpp:425] conv2 <- pool1
I0403 13:57:01.436961 12286 net.cpp:399] conv2 -> conv2
I0403 13:57:01.452038 12286 net.cpp:141] Setting up conv2
I0403 13:57:01.452076 12286 net.cpp:148] Top shape: 100 256 27 27 (18662400)
I0403 13:57:01.452093 12286 net.cpp:156] Memory required for data: 512959600
I0403 13:57:01.452143 12286 layer_factory.hpp:77] Creating layer relu2
I0403 13:57:01.452169 12286 net.cpp:91] Creating Layer relu2
I0403 13:57:01.452186 12286 net.cpp:425] relu2 <- conv2
I0403 13:57:01.452204 12286 net.cpp:386] relu2 -> conv2 (in-place)
I0403 13:57:01.452476 12286 net.cpp:141] Setting up relu2
I0403 13:57:01.452502 12286 net.cpp:148] Top shape: 100 256 27 27 (18662400)
I0403 13:57:01.452517 12286 net.cpp:156] Memory required for data: 587609200
I0403 13:57:01.452533 12286 layer_factory.hpp:77] Creating layer norm2
I0403 13:57:01.452554 12286 net.cpp:91] Creating Layer norm2
I0403 13:57:01.452574 12286 net.cpp:425] norm2 <- conv2
I0403 13:57:01.452595 12286 net.cpp:399] norm2 -> norm2
I0403 13:57:01.452791 12286 net.cpp:141] Setting up norm2
I0403 13:57:01.452816 12286 net.cpp:148] Top shape: 100 256 27 27 (18662400)
I0403 13:57:01.452832 12286 net.cpp:156] Memory required for data: 662258800
I0403 13:57:01.452847 12286 layer_factory.hpp:77] Creating layer pool2
I0403 13:57:01.452865 12286 net.cpp:91] Creating Layer pool2
I0403 13:57:01.452882 12286 net.cpp:425] pool2 <- norm2
I0403 13:57:01.452898 12286 net.cpp:399] pool2 -> pool2
I0403 13:57:01.452950 12286 net.cpp:141] Setting up pool2
I0403 13:57:01.452972 12286 net.cpp:148] Top shape: 100 256 13 13 (4326400)
I0403 13:57:01.452986 12286 net.cpp:156] Memory required for data: 679564400
I0403 13:57:01.453001 12286 layer_factory.hpp:77] Creating layer conv3
I0403 13:57:01.453023 12286 net.cpp:91] Creating Layer conv3
I0403 13:57:01.453040 12286 net.cpp:425] conv3 <- pool2
I0403 13:57:01.453060 12286 net.cpp:399] conv3 -> conv3
I0403 13:57:01.492425 12286 net.cpp:141] Setting up conv3
I0403 13:57:01.492481 12286 net.cpp:148] Top shape: 100 384 13 13 (6489600)
I0403 13:57:01.492498 12286 net.cpp:156] Memory required for data: 705522800
I0403 13:57:01.492521 12286 layer_factory.hpp:77] Creating layer relu3
I0403 13:57:01.492543 12286 net.cpp:91] Creating Layer relu3
I0403 13:57:01.492561 12286 net.cpp:425] relu3 <- conv3
I0403 13:57:01.492584 12286 net.cpp:386] relu3 -> conv3 (in-place)
I0403 13:57:01.492871 12286 net.cpp:141] Setting up relu3
I0403 13:57:01.492897 12286 net.cpp:148] Top shape: 100 384 13 13 (6489600)
I0403 13:57:01.492913 12286 net.cpp:156] Memory required for data: 731481200
I0403 13:57:01.492926 12286 layer_factory.hpp:77] Creating layer conv4
I0403 13:57:01.492951 12286 net.cpp:91] Creating Layer conv4
I0403 13:57:01.492974 12286 net.cpp:425] conv4 <- conv3
I0403 13:57:01.492995 12286 net.cpp:399] conv4 -> conv4
I0403 13:57:01.523435 12286 net.cpp:141] Setting up conv4
I0403 13:57:01.523507 12286 net.cpp:148] Top shape: 100 384 13 13 (6489600)
I0403 13:57:01.523560 12286 net.cpp:156] Memory required for data: 757439600
I0403 13:57:01.523586 12286 layer_factory.hpp:77] Creating layer relu4
I0403 13:57:01.523609 12286 net.cpp:91] Creating Layer relu4
I0403 13:57:01.523627 12286 net.cpp:425] relu4 <- conv4
I0403 13:57:01.523649 12286 net.cpp:386] relu4 -> conv4 (in-place)
I0403 13:57:01.523937 12286 net.cpp:141] Setting up relu4
I0403 13:57:01.523968 12286 net.cpp:148] Top shape: 100 384 13 13 (6489600)
I0403 13:57:01.523988 12286 net.cpp:156] Memory required for data: 783398000
I0403 13:57:01.524003 12286 layer_factory.hpp:77] Creating layer conv5
I0403 13:57:01.524068 12286 net.cpp:91] Creating Layer conv5
I0403 13:57:01.524091 12286 net.cpp:425] conv5 <- conv4
I0403 13:57:01.524118 12286 net.cpp:399] conv5 -> conv5
I0403 13:57:01.544544 12286 net.cpp:141] Setting up conv5
I0403 13:57:01.544595 12286 net.cpp:148] Top shape: 100 256 13 13 (4326400)
I0403 13:57:01.544615 12286 net.cpp:156] Memory required for data: 800703600
I0403 13:57:01.544638 12286 layer_factory.hpp:77] Creating layer relu5
I0403 13:57:01.544661 12286 net.cpp:91] Creating Layer relu5
I0403 13:57:01.544677 12286 net.cpp:425] relu5 <- conv5
I0403 13:57:01.544693 12286 net.cpp:386] relu5 -> conv5 (in-place)
I0403 13:57:01.544968 12286 net.cpp:141] Setting up relu5
I0403 13:57:01.544994 12286 net.cpp:148] Top shape: 100 256 13 13 (4326400)
I0403 13:57:01.545011 12286 net.cpp:156] Memory required for data: 818009200
I0403 13:57:01.545024 12286 layer_factory.hpp:77] Creating layer pool5
I0403 13:57:01.545048 12286 net.cpp:91] Creating Layer pool5
I0403 13:57:01.545066 12286 net.cpp:425] pool5 <- conv5
I0403 13:57:01.545083 12286 net.cpp:399] pool5 -> pool5
I0403 13:57:01.545145 12286 net.cpp:141] Setting up pool5
I0403 13:57:01.545169 12286 net.cpp:148] Top shape: 100 256 6 6 (921600)
I0403 13:57:01.545183 12286 net.cpp:156] Memory required for data: 821695600
I0403 13:57:01.545197 12286 layer_factory.hpp:77] Creating layer fc6
I0403 13:57:01.545223 12286 net.cpp:91] Creating Layer fc6
I0403 13:57:01.545240 12286 net.cpp:425] fc6 <- pool5
I0403 13:57:01.545259 12286 net.cpp:399] fc6 -> fc6
I0403 13:57:03.080129 12286 net.cpp:141] Setting up fc6
I0403 13:57:03.080171 12286 net.cpp:148] Top shape: 100 4096 (409600)
I0403 13:57:03.080188 12286 net.cpp:156] Memory required for data: 823334000
I0403 13:57:03.080209 12286 layer_factory.hpp:77] Creating layer relu6
I0403 13:57:03.080230 12286 net.cpp:91] Creating Layer relu6
I0403 13:57:03.080257 12286 net.cpp:425] relu6 <- fc6
I0403 13:57:03.080279 12286 net.cpp:386] relu6 -> fc6 (in-place)
I0403 13:57:03.080492 12286 net.cpp:141] Setting up relu6
I0403 13:57:03.080516 12286 net.cpp:148] Top shape: 100 4096 (409600)
I0403 13:57:03.080530 12286 net.cpp:156] Memory required for data: 824972400
I0403 13:57:03.080545 12286 layer_factory.hpp:77] Creating layer drop6
I0403 13:57:03.080576 12286 net.cpp:91] Creating Layer drop6
I0403 13:57:03.080595 12286 net.cpp:425] drop6 <- fc6
I0403 13:57:03.080610 12286 net.cpp:386] drop6 -> fc6 (in-place)
I0403 13:57:03.080657 12286 net.cpp:141] Setting up drop6
I0403 13:57:03.080682 12286 net.cpp:148] Top shape: 100 4096 (409600)
I0403 13:57:03.080696 12286 net.cpp:156] Memory required for data: 826610800
I0403 13:57:03.080710 12286 layer_factory.hpp:77] Creating layer fc7
I0403 13:57:03.080729 12286 net.cpp:91] Creating Layer fc7
I0403 13:57:03.080744 12286 net.cpp:425] fc7 <- fc6
I0403 13:57:03.080762 12286 net.cpp:399] fc7 -> fc7
I0403 13:57:03.755811 12286 net.cpp:141] Setting up fc7
I0403 13:57:03.755862 12286 net.cpp:148] Top shape: 100 4096 (409600)
I0403 13:57:03.755878 12286 net.cpp:156] Memory required for data: 828249200
I0403 13:57:03.755897 12286 layer_factory.hpp:77] Creating layer relu7
I0403 13:57:03.755918 12286 net.cpp:91] Creating Layer relu7
I0403 13:57:03.755935 12286 net.cpp:425] relu7 <- fc7
I0403 13:57:03.755955 12286 net.cpp:386] relu7 -> fc7 (in-place)
I0403 13:57:03.756350 12286 net.cpp:141] Setting up relu7
I0403 13:57:03.756374 12286 net.cpp:148] Top shape: 100 4096 (409600)
I0403 13:57:03.756428 12286 net.cpp:156] Memory required for data: 829887600
I0403 13:57:03.756443 12286 layer_factory.hpp:77] Creating layer drop7
I0403 13:57:03.756460 12286 net.cpp:91] Creating Layer drop7
I0403 13:57:03.756475 12286 net.cpp:425] drop7 <- fc7
I0403 13:57:03.756494 12286 net.cpp:386] drop7 -> fc7 (in-place)
I0403 13:57:03.756536 12286 net.cpp:141] Setting up drop7
I0403 13:57:03.756558 12286 net.cpp:148] Top shape: 100 4096 (409600)
I0403 13:57:03.756577 12286 net.cpp:156] Memory required for data: 831526000
I0403 13:57:03.756592 12286 layer_factory.hpp:77] Creating layer fc8_plantvillage
I0403 13:57:03.756610 12286 net.cpp:91] Creating Layer fc8_plantvillage
I0403 13:57:03.756625 12286 net.cpp:425] fc8_plantvillage <- fc7
I0403 13:57:03.756646 12286 net.cpp:399] fc8_plantvillage -> fc8_plantvillage
I0403 13:57:03.763212 12286 net.cpp:141] Setting up fc8_plantvillage
I0403 13:57:03.763241 12286 net.cpp:148] Top shape: 100 38 (3800)
I0403 13:57:03.763257 12286 net.cpp:156] Memory required for data: 831541200
I0403 13:57:03.763275 12286 layer_factory.hpp:77] Creating layer fc8_plantvillage_fc8_plantvillage_0_split
I0403 13:57:03.763298 12286 net.cpp:91] Creating Layer fc8_plantvillage_fc8_plantvillage_0_split
I0403 13:57:03.763316 12286 net.cpp:425] fc8_plantvillage_fc8_plantvillage_0_split <- fc8_plantvillage
I0403 13:57:03.763334 12286 net.cpp:399] fc8_plantvillage_fc8_plantvillage_0_split -> fc8_plantvillage_fc8_plantvillage_0_split_0
I0403 13:57:03.763352 12286 net.cpp:399] fc8_plantvillage_fc8_plantvillage_0_split -> fc8_plantvillage_fc8_plantvillage_0_split_1
I0403 13:57:03.763372 12286 net.cpp:399] fc8_plantvillage_fc8_plantvillage_0_split -> fc8_plantvillage_fc8_plantvillage_0_split_2
I0403 13:57:03.763450 12286 net.cpp:141] Setting up fc8_plantvillage_fc8_plantvillage_0_split
I0403 13:57:03.763475 12286 net.cpp:148] Top shape: 100 38 (3800)
I0403 13:57:03.763491 12286 net.cpp:148] Top shape: 100 38 (3800)
I0403 13:57:03.763506 12286 net.cpp:148] Top shape: 100 38 (3800)
I0403 13:57:03.763520 12286 net.cpp:156] Memory required for data: 831586800
I0403 13:57:03.763533 12286 layer_factory.hpp:77] Creating layer prob
I0403 13:57:03.763551 12286 net.cpp:91] Creating Layer prob
I0403 13:57:03.763569 12286 net.cpp:425] prob <- fc8_plantvillage_fc8_plantvillage_0_split_0
I0403 13:57:03.763588 12286 net.cpp:399] prob -> prob
I0403 13:57:03.763816 12286 net.cpp:141] Setting up prob
I0403 13:57:03.763841 12286 net.cpp:148] Top shape: 100 38 (3800)
I0403 13:57:03.763855 12286 net.cpp:156] Memory required for data: 831602000
I0403 13:57:03.763870 12286 layer_factory.hpp:77] Creating layer hdf5out
I0403 13:57:03.763888 12286 net.cpp:91] Creating Layer hdf5out
I0403 13:57:03.763905 12286 net.cpp:425] hdf5out <- prob
I0403 13:57:03.763919 12286 net.cpp:425] hdf5out <- label_data_1_split_0
I0403 13:57:03.782232 12286 net.cpp:141] Setting up hdf5out
…
