…
I0403 13:39:42.179828 11885 net.cpp:313] The NetState phase (1) differed from the phase (0) specified by a rule in layer data
I0403 13:39:42.180110 11885 net.cpp:49] Initializing net from parameters: 
state {
  phase: TEST
}
layer {
  name: "data"
  type: "Data"
  top: "data"
  top: "label"
  include {
    phase: TEST
  }
  transform_param {
    crop_size: 227
    mean_file: "/home/mohanty/data/final_dataset/lmdb/grayscale-60-40/mean.binaryproto"
  }
  data_param {
    source: "/home/mohanty/data/final_dataset/lmdb/grayscale-60-40/test_db"
    batch_size: 100
    backend: LMDB
  }
}
layer {
  name: "conv1"
  type: "Convolution"
  bottom: "data"
  top: "conv1"
  param {
    lr_mult: 1
    decay_mult: 1
  }
  param {
    lr_mult: 2
    decay_mult: 0
  }
  convolution_param {
    num_output: 96
    kernel_size: 11
    stride: 4
    weight_filler {
      type: "gaussian"
      std: 0.01
    }
    bias_filler {
      type: "constant"
      value: 0
    }
  }
}
layer {
  name: "relu1"
  type: "ReLU"
  bottom: "conv1"
  top: "conv1"
}
layer {
  name: "norm1"
  type: "LRN"
  bottom: "conv1"
  top: "norm1"
  lrn_param {
    local_size: 5
    alpha: 0.0001
    beta: 0.75
  }
}
layer {
  name: "pool1"
  type: "Pooling"
  bottom: "norm1"
  top: "pool1"
  pooling_param {
    pool: MAX
    kernel_size: 3
    stride: 2
  }
}
layer {
  name: "conv2"
  type: "Convolution"
  bottom: "pool1"
  top: "conv2"
  param {
    lr_mult: 1
    decay_mult: 1
  }
  param {
    lr_mult: 2
    decay_mult: 0
  }
  convolution_param {
    num_output: 256
    pad: 2
    kernel_size: 5
    group: 2
    weight_filler {
      type: "gaussian"
      std: 0.01
    }
    bias_filler {
      type: "constant"
      value: 0.1
    }
  }
}
layer {
  name: "relu2"
  type: "ReLU"
  bottom: "conv2"
  top: "conv2"
}
layer {
  name: "norm2"
  type: "LRN"
  bottom: "conv2"
  top: "norm2"
  lrn_param {
    local_size: 5
    alpha: 0.0001
    beta: 0.75
  }
}
layer {
  name: "pool2"
  type: "Pooling"
  bottom: "norm2"
  top: "pool2"
  pooling_param {
    pool: MAX
    kernel_size: 3
    stride: 2
  }
}
layer {
  name: "conv3"
  type: "Convolution"
  bottom: "pool2"
  top: "conv3"
  param {
    lr_mult: 1
    decay_mult: 1
  }
  param {
    lr_mult: 2
    decay_mult: 0
  }
  convolution_param {
    num_output: 384
    pad: 1
    kernel_size: 3
    weight_filler {
      type: "gaussian"
      std: 0.01
    }
    bias_filler {
      type: "constant"
      value: 0
    }
  }
}
layer {
  name: "relu3"
  type: "ReLU"
  bottom: "conv3"
  top: "conv3"
}
layer {
  name: "conv4"
  type: "Convolution"
  bottom: "conv3"
  top: "conv4"
  param {
    lr_mult: 1
    decay_mult: 1
  }
  param {
    lr_mult: 2
    decay_mult: 0
  }
  convolution_param {
    num_output: 384
    pad: 1
    kernel_size: 3
    group: 2
    weight_filler {
      type: "gaussian"
      std: 0.01
    }
    bias_filler {
      type: "constant"
      value: 0.1
    }
  }
}
layer {
  name: "relu4"
  type: "ReLU"
  bottom: "conv4"
  top: "conv4"
}
layer {
  name: "conv5"
  type: "Convolution"
  bottom: "conv4"
  top: "conv5"
  param {
    lr_mult: 1
    decay_mult: 1
  }
  param {
    lr_mult: 2
    decay_mult: 0
  }
  convolution_param {
    num_output: 256
    pad: 1
    kernel_size: 3
    group: 2
    weight_filler {
      type: "gaussian"
      std: 0.01
    }
    bias_filler {
      type: "constant"
      value: 0.1
    }
  }
}
layer {
  name: "relu5"
  type: "ReLU"
  bottom: "conv5"
  top: "conv5"
}
layer {
  name: "pool5"
  type: "Pooling"
  bottom: "conv5"
  top: "pool5"
  pooling_param {
    pool: MAX
    kernel_size: 3
    stride: 2
  }
}
layer {
  name: "fc6"
  type: "InnerProduct"
  bottom: "pool5"
  top: "fc6"
  param {
    lr_mult: 1
    decay_mult: 1
  }
  param {
    lr_mult: 2
    decay_mult: 0
  }
  inner_product_param {
    num_output: 4096
    weight_filler {
      type: "gaussian"
      std: 0.005
    }
    bias_filler {
      type: "constant"
      value: 0.1
    }
  }
}
layer {
  name: "relu6"
  type: "ReLU"
  bottom: "fc6"
  top: "fc6"
}
layer {
  name: "drop6"
  type: "Dropout"
  bottom: "fc6"
  top: "fc6"
  dropout_param {
    dropout_ratio: 0.5
  }
}
layer {
  name: "fc7"
  type: "InnerProduct"
  bottom: "fc6"
  top: "fc7"
  param {
    lr_mult: 1
    decay_mult: 1
  }
  param {
    lr_mult: 2
    decay_mult: 0
  }
  inner_product_param {
    num_output: 4096
    weight_filler {
      type: "gaussian"
      std: 0.005
    }
    bias_filler {
      type: "constant"
      value: 0.1
    }
  }
}
layer {
  name: "relu7"
  type: "ReLU"
  bottom: "fc7"
  top: "fc7"
}
layer {
  name: "drop7"
  type: "Dropout"
  bottom: "fc7"
  top: "fc7"
  dropout_param {
    dropout_ratio: 0.5
  }
}
layer {
  name: "fc8_plantvillage"
  type: "InnerProduct"
  bottom: "fc7"
  top: "fc8_plantvillage"
  param {
    lr_mult: 1
    decay_mult: 1
  }
  param {
    lr_mult: 2
    decay_mult: 0
  }
  inner_product_param {
    num_output: 38
    weight_filler {
      type: "gaussian"
      std: 0.01
    }
    bias_filler {
      type: "constant"
      value: 0
    }
  }
}
layer {
  name: "prob"
  type: "Softmax"
  bottom: "fc8_plantvillage"
  top: "prob"
  include {
    phase: TEST
  }
}
layer {
  name: "hdf5out"
  type: "HDF5Output"
  bottom: "prob"
  bottom: "label"
  include {
    phase: TEST
  }
  hdf5_output_param {
    file_name: "hdf5_dumps/iter_1625.h5"
  }
}
layer {
  name: "loss"
  type: "SoftmaxWithLoss"
  bottom: "fc8_plantvillage"
  bottom: "label"
  top: "loss"
}
layer {
  name: "accuracy"
  type: "Accuracy"
  bottom: "fc8_plantvillage"
  bottom: "label"
  top: "accuracy"
  include {
    phase: TEST
  }
}
I0403 13:39:42.180649 11885 layer_factory.hpp:77] Creating layer data
I0403 13:39:42.181295 11885 net.cpp:91] Creating Layer data
I0403 13:39:42.181325 11885 net.cpp:399] data -> data
I0403 13:39:42.181375 11885 net.cpp:399] data -> label
I0403 13:39:42.181412 11885 data_transformer.cpp:25] Loading mean file from: /home/mohanty/data/final_dataset/lmdb/grayscale-60-40/mean.binaryproto
I0403 13:39:42.184144 11888 db_lmdb.cpp:38] Opened lmdb /home/mohanty/data/final_dataset/lmdb/grayscale-60-40/test_db
I0403 13:39:42.196203 11885 data_layer.cpp:41] output data size: 100,3,227,227
I0403 13:39:42.318652 11885 net.cpp:141] Setting up data
I0403 13:39:42.318744 11885 net.cpp:148] Top shape: 100 3 227 227 (15458700)
I0403 13:39:42.318768 11885 net.cpp:148] Top shape: 100 (100)
I0403 13:39:42.318783 11885 net.cpp:156] Memory required for data: 61835200
I0403 13:39:42.318810 11885 layer_factory.hpp:77] Creating layer label_data_1_split
I0403 13:39:42.318836 11885 net.cpp:91] Creating Layer label_data_1_split
I0403 13:39:42.318855 11885 net.cpp:425] label_data_1_split <- label
I0403 13:39:42.318897 11885 net.cpp:399] label_data_1_split -> label_data_1_split_0
I0403 13:39:42.318924 11885 net.cpp:399] label_data_1_split -> label_data_1_split_1
I0403 13:39:42.318945 11885 net.cpp:399] label_data_1_split -> label_data_1_split_2
I0403 13:39:42.319008 11885 net.cpp:141] Setting up label_data_1_split
I0403 13:39:42.319032 11885 net.cpp:148] Top shape: 100 (100)
I0403 13:39:42.319049 11885 net.cpp:148] Top shape: 100 (100)
I0403 13:39:42.319064 11885 net.cpp:148] Top shape: 100 (100)
I0403 13:39:42.319079 11885 net.cpp:156] Memory required for data: 61836400
I0403 13:39:42.319093 11885 layer_factory.hpp:77] Creating layer conv1
I0403 13:39:42.319124 11885 net.cpp:91] Creating Layer conv1
I0403 13:39:42.319144 11885 net.cpp:425] conv1 <- data
I0403 13:39:42.319162 11885 net.cpp:399] conv1 -> conv1
I0403 13:39:42.461473 11885 net.cpp:141] Setting up conv1
I0403 13:39:42.461549 11885 net.cpp:148] Top shape: 100 96 55 55 (29040000)
I0403 13:39:42.461565 11885 net.cpp:156] Memory required for data: 177996400
I0403 13:39:42.461596 11885 layer_factory.hpp:77] Creating layer relu1
I0403 13:39:42.461627 11885 net.cpp:91] Creating Layer relu1
I0403 13:39:42.461645 11885 net.cpp:425] relu1 <- conv1
I0403 13:39:42.461664 11885 net.cpp:386] relu1 -> conv1 (in-place)
I0403 13:39:42.461913 11885 net.cpp:141] Setting up relu1
I0403 13:39:42.461941 11885 net.cpp:148] Top shape: 100 96 55 55 (29040000)
I0403 13:39:42.461992 11885 net.cpp:156] Memory required for data: 294156400
I0403 13:39:42.462009 11885 layer_factory.hpp:77] Creating layer norm1
I0403 13:39:42.462035 11885 net.cpp:91] Creating Layer norm1
I0403 13:39:42.462052 11885 net.cpp:425] norm1 <- conv1
I0403 13:39:42.462070 11885 net.cpp:399] norm1 -> norm1
I0403 13:39:42.462370 11885 net.cpp:141] Setting up norm1
I0403 13:39:42.462398 11885 net.cpp:148] Top shape: 100 96 55 55 (29040000)
I0403 13:39:42.462414 11885 net.cpp:156] Memory required for data: 410316400
I0403 13:39:42.462429 11885 layer_factory.hpp:77] Creating layer pool1
I0403 13:39:42.462450 11885 net.cpp:91] Creating Layer pool1
I0403 13:39:42.462467 11885 net.cpp:425] pool1 <- norm1
I0403 13:39:42.462486 11885 net.cpp:399] pool1 -> pool1
I0403 13:39:42.462551 11885 net.cpp:141] Setting up pool1
I0403 13:39:42.462574 11885 net.cpp:148] Top shape: 100 96 27 27 (6998400)
I0403 13:39:42.462589 11885 net.cpp:156] Memory required for data: 438310000
I0403 13:39:42.462609 11885 layer_factory.hpp:77] Creating layer conv2
I0403 13:39:42.462632 11885 net.cpp:91] Creating Layer conv2
I0403 13:39:42.462648 11885 net.cpp:425] conv2 <- pool1
I0403 13:39:42.462666 11885 net.cpp:399] conv2 -> conv2
I0403 13:39:42.478000 11885 net.cpp:141] Setting up conv2
I0403 13:39:42.478034 11885 net.cpp:148] Top shape: 100 256 27 27 (18662400)
I0403 13:39:42.478055 11885 net.cpp:156] Memory required for data: 512959600
I0403 13:39:42.478077 11885 layer_factory.hpp:77] Creating layer relu2
I0403 13:39:42.478096 11885 net.cpp:91] Creating Layer relu2
I0403 13:39:42.478112 11885 net.cpp:425] relu2 <- conv2
I0403 13:39:42.478129 11885 net.cpp:386] relu2 -> conv2 (in-place)
I0403 13:39:42.478441 11885 net.cpp:141] Setting up relu2
I0403 13:39:42.478471 11885 net.cpp:148] Top shape: 100 256 27 27 (18662400)
I0403 13:39:42.478487 11885 net.cpp:156] Memory required for data: 587609200
I0403 13:39:42.478502 11885 layer_factory.hpp:77] Creating layer norm2
I0403 13:39:42.478523 11885 net.cpp:91] Creating Layer norm2
I0403 13:39:42.478539 11885 net.cpp:425] norm2 <- conv2
I0403 13:39:42.478559 11885 net.cpp:399] norm2 -> norm2
I0403 13:39:42.478762 11885 net.cpp:141] Setting up norm2
I0403 13:39:42.478788 11885 net.cpp:148] Top shape: 100 256 27 27 (18662400)
I0403 13:39:42.478804 11885 net.cpp:156] Memory required for data: 662258800
I0403 13:39:42.478819 11885 layer_factory.hpp:77] Creating layer pool2
I0403 13:39:42.478839 11885 net.cpp:91] Creating Layer pool2
I0403 13:39:42.478857 11885 net.cpp:425] pool2 <- norm2
I0403 13:39:42.478874 11885 net.cpp:399] pool2 -> pool2
I0403 13:39:42.478927 11885 net.cpp:141] Setting up pool2
I0403 13:39:42.478950 11885 net.cpp:148] Top shape: 100 256 13 13 (4326400)
I0403 13:39:42.478965 11885 net.cpp:156] Memory required for data: 679564400
I0403 13:39:42.478979 11885 layer_factory.hpp:77] Creating layer conv3
I0403 13:39:42.479003 11885 net.cpp:91] Creating Layer conv3
I0403 13:39:42.479020 11885 net.cpp:425] conv3 <- pool2
I0403 13:39:42.479041 11885 net.cpp:399] conv3 -> conv3
I0403 13:39:42.519032 11885 net.cpp:141] Setting up conv3
I0403 13:39:42.519103 11885 net.cpp:148] Top shape: 100 384 13 13 (6489600)
I0403 13:39:42.519119 11885 net.cpp:156] Memory required for data: 705522800
I0403 13:39:42.519145 11885 layer_factory.hpp:77] Creating layer relu3
I0403 13:39:42.519168 11885 net.cpp:91] Creating Layer relu3
I0403 13:39:42.519186 11885 net.cpp:425] relu3 <- conv3
I0403 13:39:42.519206 11885 net.cpp:386] relu3 -> conv3 (in-place)
I0403 13:39:42.519479 11885 net.cpp:141] Setting up relu3
I0403 13:39:42.519507 11885 net.cpp:148] Top shape: 100 384 13 13 (6489600)
I0403 13:39:42.519522 11885 net.cpp:156] Memory required for data: 731481200
I0403 13:39:42.519537 11885 layer_factory.hpp:77] Creating layer conv4
I0403 13:39:42.519567 11885 net.cpp:91] Creating Layer conv4
I0403 13:39:42.519583 11885 net.cpp:425] conv4 <- conv3
I0403 13:39:42.519606 11885 net.cpp:399] conv4 -> conv4
I0403 13:39:42.549367 11885 net.cpp:141] Setting up conv4
I0403 13:39:42.549415 11885 net.cpp:148] Top shape: 100 384 13 13 (6489600)
I0403 13:39:42.549464 11885 net.cpp:156] Memory required for data: 757439600
I0403 13:39:42.549486 11885 layer_factory.hpp:77] Creating layer relu4
I0403 13:39:42.549510 11885 net.cpp:91] Creating Layer relu4
I0403 13:39:42.549527 11885 net.cpp:425] relu4 <- conv4
I0403 13:39:42.549546 11885 net.cpp:386] relu4 -> conv4 (in-place)
I0403 13:39:42.549821 11885 net.cpp:141] Setting up relu4
I0403 13:39:42.549849 11885 net.cpp:148] Top shape: 100 384 13 13 (6489600)
I0403 13:39:42.549863 11885 net.cpp:156] Memory required for data: 783398000
I0403 13:39:42.549877 11885 layer_factory.hpp:77] Creating layer conv5
I0403 13:39:42.549903 11885 net.cpp:91] Creating Layer conv5
I0403 13:39:42.549919 11885 net.cpp:425] conv5 <- conv4
I0403 13:39:42.549942 11885 net.cpp:399] conv5 -> conv5
I0403 13:39:42.570250 11885 net.cpp:141] Setting up conv5
I0403 13:39:42.570282 11885 net.cpp:148] Top shape: 100 256 13 13 (4326400)
I0403 13:39:42.570298 11885 net.cpp:156] Memory required for data: 800703600
I0403 13:39:42.570324 11885 layer_factory.hpp:77] Creating layer relu5
I0403 13:39:42.570344 11885 net.cpp:91] Creating Layer relu5
I0403 13:39:42.570359 11885 net.cpp:425] relu5 <- conv5
I0403 13:39:42.570375 11885 net.cpp:386] relu5 -> conv5 (in-place)
I0403 13:39:42.570649 11885 net.cpp:141] Setting up relu5
I0403 13:39:42.570678 11885 net.cpp:148] Top shape: 100 256 13 13 (4326400)
I0403 13:39:42.570694 11885 net.cpp:156] Memory required for data: 818009200
I0403 13:39:42.570709 11885 layer_factory.hpp:77] Creating layer pool5
I0403 13:39:42.570729 11885 net.cpp:91] Creating Layer pool5
I0403 13:39:42.570746 11885 net.cpp:425] pool5 <- conv5
I0403 13:39:42.570766 11885 net.cpp:399] pool5 -> pool5
I0403 13:39:42.570824 11885 net.cpp:141] Setting up pool5
I0403 13:39:42.570848 11885 net.cpp:148] Top shape: 100 256 6 6 (921600)
I0403 13:39:42.570863 11885 net.cpp:156] Memory required for data: 821695600
I0403 13:39:42.570876 11885 layer_factory.hpp:77] Creating layer fc6
I0403 13:39:42.570905 11885 net.cpp:91] Creating Layer fc6
I0403 13:39:42.570924 11885 net.cpp:425] fc6 <- pool5
I0403 13:39:42.570943 11885 net.cpp:399] fc6 -> fc6
I0403 13:39:44.148659 11885 net.cpp:141] Setting up fc6
I0403 13:39:44.148699 11885 net.cpp:148] Top shape: 100 4096 (409600)
I0403 13:39:44.148715 11885 net.cpp:156] Memory required for data: 823334000
I0403 13:39:44.148736 11885 layer_factory.hpp:77] Creating layer relu6
I0403 13:39:44.148756 11885 net.cpp:91] Creating Layer relu6
I0403 13:39:44.148772 11885 net.cpp:425] relu6 <- fc6
I0403 13:39:44.148792 11885 net.cpp:386] relu6 -> fc6 (in-place)
I0403 13:39:44.149003 11885 net.cpp:141] Setting up relu6
I0403 13:39:44.149027 11885 net.cpp:148] Top shape: 100 4096 (409600)
I0403 13:39:44.149044 11885 net.cpp:156] Memory required for data: 824972400
I0403 13:39:44.149060 11885 layer_factory.hpp:77] Creating layer drop6
I0403 13:39:44.149077 11885 net.cpp:91] Creating Layer drop6
I0403 13:39:44.149091 11885 net.cpp:425] drop6 <- fc6
I0403 13:39:44.149107 11885 net.cpp:386] drop6 -> fc6 (in-place)
I0403 13:39:44.149158 11885 net.cpp:141] Setting up drop6
I0403 13:39:44.149180 11885 net.cpp:148] Top shape: 100 4096 (409600)
I0403 13:39:44.149194 11885 net.cpp:156] Memory required for data: 826610800
I0403 13:39:44.149207 11885 layer_factory.hpp:77] Creating layer fc7
I0403 13:39:44.149229 11885 net.cpp:91] Creating Layer fc7
I0403 13:39:44.149245 11885 net.cpp:425] fc7 <- fc6
I0403 13:39:44.149265 11885 net.cpp:399] fc7 -> fc7
I0403 13:39:44.842727 11885 net.cpp:141] Setting up fc7
I0403 13:39:44.842768 11885 net.cpp:148] Top shape: 100 4096 (409600)
I0403 13:39:44.842784 11885 net.cpp:156] Memory required for data: 828249200
I0403 13:39:44.842804 11885 layer_factory.hpp:77] Creating layer relu7
I0403 13:39:44.842828 11885 net.cpp:91] Creating Layer relu7
I0403 13:39:44.842845 11885 net.cpp:425] relu7 <- fc7
I0403 13:39:44.842864 11885 net.cpp:386] relu7 -> fc7 (in-place)
I0403 13:39:44.843258 11885 net.cpp:141] Setting up relu7
I0403 13:39:44.843286 11885 net.cpp:148] Top shape: 100 4096 (409600)
I0403 13:39:44.843341 11885 net.cpp:156] Memory required for data: 829887600
I0403 13:39:44.843358 11885 layer_factory.hpp:77] Creating layer drop7
I0403 13:39:44.843379 11885 net.cpp:91] Creating Layer drop7
I0403 13:39:44.843394 11885 net.cpp:425] drop7 <- fc7
I0403 13:39:44.843412 11885 net.cpp:386] drop7 -> fc7 (in-place)
I0403 13:39:44.843456 11885 net.cpp:141] Setting up drop7
I0403 13:39:44.843478 11885 net.cpp:148] Top shape: 100 4096 (409600)
I0403 13:39:44.843492 11885 net.cpp:156] Memory required for data: 831526000
I0403 13:39:44.843507 11885 layer_factory.hpp:77] Creating layer fc8_plantvillage
I0403 13:39:44.843525 11885 net.cpp:91] Creating Layer fc8_plantvillage
I0403 13:39:44.843541 11885 net.cpp:425] fc8_plantvillage <- fc7
I0403 13:39:44.843561 11885 net.cpp:399] fc8_plantvillage -> fc8_plantvillage
I0403 13:39:44.850456 11885 net.cpp:141] Setting up fc8_plantvillage
I0403 13:39:44.850489 11885 net.cpp:148] Top shape: 100 38 (3800)
I0403 13:39:44.850505 11885 net.cpp:156] Memory required for data: 831541200
I0403 13:39:44.850523 11885 layer_factory.hpp:77] Creating layer fc8_plantvillage_fc8_plantvillage_0_split
I0403 13:39:44.850541 11885 net.cpp:91] Creating Layer fc8_plantvillage_fc8_plantvillage_0_split
I0403 13:39:44.850556 11885 net.cpp:425] fc8_plantvillage_fc8_plantvillage_0_split <- fc8_plantvillage
I0403 13:39:44.850574 11885 net.cpp:399] fc8_plantvillage_fc8_plantvillage_0_split -> fc8_plantvillage_fc8_plantvillage_0_split_0
I0403 13:39:44.850594 11885 net.cpp:399] fc8_plantvillage_fc8_plantvillage_0_split -> fc8_plantvillage_fc8_plantvillage_0_split_1
I0403 13:39:44.850623 11885 net.cpp:399] fc8_plantvillage_fc8_plantvillage_0_split -> fc8_plantvillage_fc8_plantvillage_0_split_2
I0403 13:39:44.850703 11885 net.cpp:141] Setting up fc8_plantvillage_fc8_plantvillage_0_split
I0403 13:39:44.850725 11885 net.cpp:148] Top shape: 100 38 (3800)
I0403 13:39:44.850741 11885 net.cpp:148] Top shape: 100 38 (3800)
I0403 13:39:44.850756 11885 net.cpp:148] Top shape: 100 38 (3800)
I0403 13:39:44.850769 11885 net.cpp:156] Memory required for data: 831586800
I0403 13:39:44.850783 11885 layer_factory.hpp:77] Creating layer prob
I0403 13:39:44.850801 11885 net.cpp:91] Creating Layer prob
I0403 13:39:44.850816 11885 net.cpp:425] prob <- fc8_plantvillage_fc8_plantvillage_0_split_0
I0403 13:39:44.850834 11885 net.cpp:399] prob -> prob
I0403 13:39:44.851057 11885 net.cpp:141] Setting up prob
I0403 13:39:44.851081 11885 net.cpp:148] Top shape: 100 38 (3800)
I0403 13:39:44.851096 11885 net.cpp:156] Memory required for data: 831602000
I0403 13:39:44.851110 11885 layer_factory.hpp:77] Creating layer hdf5out
I0403 13:39:44.851132 11885 net.cpp:91] Creating Layer hdf5out
I0403 13:39:44.851148 11885 net.cpp:425] hdf5out <- prob
I0403 13:39:44.851164 11885 net.cpp:425] hdf5out <- label_data_1_split_0
I0403 13:39:44.853413 11885 net.cpp:141] Setting up hdf5out
…
