…
I0403 13:36:41.545622 11813 net.cpp:313] The NetState phase (1) differed from the phase (0) specified by a rule in layer data
I0403 13:36:41.545900 11813 net.cpp:49] Initializing net from parameters: 
state {
  phase: TEST
}
layer {
  name: "data"
  type: "Data"
  top: "data"
  top: "label"
  include {
    phase: TEST
  }
  transform_param {
    crop_size: 227
    mean_file: "/home/mohanty/data/final_dataset/lmdb/grayscale-60-40/mean.binaryproto"
  }
  data_param {
    source: "/home/mohanty/data/final_dataset/lmdb/grayscale-60-40/test_db"
    batch_size: 100
    backend: LMDB
  }
}
layer {
  name: "conv1"
  type: "Convolution"
  bottom: "data"
  top: "conv1"
  param {
    lr_mult: 1
    decay_mult: 1
  }
  param {
    lr_mult: 2
    decay_mult: 0
  }
  convolution_param {
    num_output: 96
    kernel_size: 11
    stride: 4
    weight_filler {
      type: "gaussian"
      std: 0.01
    }
    bias_filler {
      type: "constant"
      value: 0
    }
  }
}
layer {
  name: "relu1"
  type: "ReLU"
  bottom: "conv1"
  top: "conv1"
}
layer {
  name: "norm1"
  type: "LRN"
  bottom: "conv1"
  top: "norm1"
  lrn_param {
    local_size: 5
    alpha: 0.0001
    beta: 0.75
  }
}
layer {
  name: "pool1"
  type: "Pooling"
  bottom: "norm1"
  top: "pool1"
  pooling_param {
    pool: MAX
    kernel_size: 3
    stride: 2
  }
}
layer {
  name: "conv2"
  type: "Convolution"
  bottom: "pool1"
  top: "conv2"
  param {
    lr_mult: 1
    decay_mult: 1
  }
  param {
    lr_mult: 2
    decay_mult: 0
  }
  convolution_param {
    num_output: 256
    pad: 2
    kernel_size: 5
    group: 2
    weight_filler {
      type: "gaussian"
      std: 0.01
    }
    bias_filler {
      type: "constant"
      value: 0.1
    }
  }
}
layer {
  name: "relu2"
  type: "ReLU"
  bottom: "conv2"
  top: "conv2"
}
layer {
  name: "norm2"
  type: "LRN"
  bottom: "conv2"
  top: "norm2"
  lrn_param {
    local_size: 5
    alpha: 0.0001
    beta: 0.75
  }
}
layer {
  name: "pool2"
  type: "Pooling"
  bottom: "norm2"
  top: "pool2"
  pooling_param {
    pool: MAX
    kernel_size: 3
    stride: 2
  }
}
layer {
  name: "conv3"
  type: "Convolution"
  bottom: "pool2"
  top: "conv3"
  param {
    lr_mult: 1
    decay_mult: 1
  }
  param {
    lr_mult: 2
    decay_mult: 0
  }
  convolution_param {
    num_output: 384
    pad: 1
    kernel_size: 3
    weight_filler {
      type: "gaussian"
      std: 0.01
    }
    bias_filler {
      type: "constant"
      value: 0
    }
  }
}
layer {
  name: "relu3"
  type: "ReLU"
  bottom: "conv3"
  top: "conv3"
}
layer {
  name: "conv4"
  type: "Convolution"
  bottom: "conv3"
  top: "conv4"
  param {
    lr_mult: 1
    decay_mult: 1
  }
  param {
    lr_mult: 2
    decay_mult: 0
  }
  convolution_param {
    num_output: 384
    pad: 1
    kernel_size: 3
    group: 2
    weight_filler {
      type: "gaussian"
      std: 0.01
    }
    bias_filler {
      type: "constant"
      value: 0.1
    }
  }
}
layer {
  name: "relu4"
  type: "ReLU"
  bottom: "conv4"
  top: "conv4"
}
layer {
  name: "conv5"
  type: "Convolution"
  bottom: "conv4"
  top: "conv5"
  param {
    lr_mult: 1
    decay_mult: 1
  }
  param {
    lr_mult: 2
    decay_mult: 0
  }
  convolution_param {
    num_output: 256
    pad: 1
    kernel_size: 3
    group: 2
    weight_filler {
      type: "gaussian"
      std: 0.01
    }
    bias_filler {
      type: "constant"
      value: 0.1
    }
  }
}
layer {
  name: "relu5"
  type: "ReLU"
  bottom: "conv5"
  top: "conv5"
}
layer {
  name: "pool5"
  type: "Pooling"
  bottom: "conv5"
  top: "pool5"
  pooling_param {
    pool: MAX
    kernel_size: 3
    stride: 2
  }
}
layer {
  name: "fc6"
  type: "InnerProduct"
  bottom: "pool5"
  top: "fc6"
  param {
    lr_mult: 1
    decay_mult: 1
  }
  param {
    lr_mult: 2
    decay_mult: 0
  }
  inner_product_param {
    num_output: 4096
    weight_filler {
      type: "gaussian"
      std: 0.005
    }
    bias_filler {
      type: "constant"
      value: 0.1
    }
  }
}
layer {
  name: "relu6"
  type: "ReLU"
  bottom: "fc6"
  top: "fc6"
}
layer {
  name: "drop6"
  type: "Dropout"
  bottom: "fc6"
  top: "fc6"
  dropout_param {
    dropout_ratio: 0.5
  }
}
layer {
  name: "fc7"
  type: "InnerProduct"
  bottom: "fc6"
  top: "fc7"
  param {
    lr_mult: 1
    decay_mult: 1
  }
  param {
    lr_mult: 2
    decay_mult: 0
  }
  inner_product_param {
    num_output: 4096
    weight_filler {
      type: "gaussian"
      std: 0.005
    }
    bias_filler {
      type: "constant"
      value: 0.1
    }
  }
}
layer {
  name: "relu7"
  type: "ReLU"
  bottom: "fc7"
  top: "fc7"
}
layer {
  name: "drop7"
  type: "Dropout"
  bottom: "fc7"
  top: "fc7"
  dropout_param {
    dropout_ratio: 0.5
  }
}
layer {
  name: "fc8_plantvillage"
  type: "InnerProduct"
  bottom: "fc7"
  top: "fc8_plantvillage"
  param {
    lr_mult: 1
    decay_mult: 1
  }
  param {
    lr_mult: 2
    decay_mult: 0
  }
  inner_product_param {
    num_output: 38
    weight_filler {
      type: "gaussian"
      std: 0.01
    }
    bias_filler {
      type: "constant"
      value: 0
    }
  }
}
layer {
  name: "prob"
  type: "Softmax"
  bottom: "fc8_plantvillage"
  top: "prob"
  include {
    phase: TEST
  }
}
layer {
  name: "hdf5out"
  type: "HDF5Output"
  bottom: "prob"
  bottom: "label"
  include {
    phase: TEST
  }
  hdf5_output_param {
    file_name: "hdf5_dumps/iter_325.h5"
  }
}
layer {
  name: "loss"
  type: "SoftmaxWithLoss"
  bottom: "fc8_plantvillage"
  bottom: "label"
  top: "loss"
}
layer {
  name: "accuracy"
  type: "Accuracy"
  bottom: "fc8_plantvillage"
  bottom: "label"
  top: "accuracy"
  include {
    phase: TEST
  }
}
I0403 13:36:41.546478 11813 layer_factory.hpp:77] Creating layer data
I0403 13:36:41.547098 11813 net.cpp:91] Creating Layer data
I0403 13:36:41.547138 11813 net.cpp:399] data -> data
I0403 13:36:41.547188 11813 net.cpp:399] data -> label
I0403 13:36:41.547224 11813 data_transformer.cpp:25] Loading mean file from: /home/mohanty/data/final_dataset/lmdb/grayscale-60-40/mean.binaryproto
I0403 13:36:41.561123 11816 db_lmdb.cpp:38] Opened lmdb /home/mohanty/data/final_dataset/lmdb/grayscale-60-40/test_db
I0403 13:36:41.570940 11813 data_layer.cpp:41] output data size: 100,3,227,227
I0403 13:36:41.694037 11813 net.cpp:141] Setting up data
I0403 13:36:41.694139 11813 net.cpp:148] Top shape: 100 3 227 227 (15458700)
I0403 13:36:41.694162 11813 net.cpp:148] Top shape: 100 (100)
I0403 13:36:41.694178 11813 net.cpp:156] Memory required for data: 61835200
I0403 13:36:41.694207 11813 layer_factory.hpp:77] Creating layer label_data_1_split
I0403 13:36:41.694233 11813 net.cpp:91] Creating Layer label_data_1_split
I0403 13:36:41.694252 11813 net.cpp:425] label_data_1_split <- label
I0403 13:36:41.694288 11813 net.cpp:399] label_data_1_split -> label_data_1_split_0
I0403 13:36:41.694315 11813 net.cpp:399] label_data_1_split -> label_data_1_split_1
I0403 13:36:41.694336 11813 net.cpp:399] label_data_1_split -> label_data_1_split_2
I0403 13:36:41.694402 11813 net.cpp:141] Setting up label_data_1_split
I0403 13:36:41.694427 11813 net.cpp:148] Top shape: 100 (100)
I0403 13:36:41.694442 11813 net.cpp:148] Top shape: 100 (100)
I0403 13:36:41.694459 11813 net.cpp:148] Top shape: 100 (100)
I0403 13:36:41.694474 11813 net.cpp:156] Memory required for data: 61836400
I0403 13:36:41.694489 11813 layer_factory.hpp:77] Creating layer conv1
I0403 13:36:41.694521 11813 net.cpp:91] Creating Layer conv1
I0403 13:36:41.694540 11813 net.cpp:425] conv1 <- data
I0403 13:36:41.694569 11813 net.cpp:399] conv1 -> conv1
I0403 13:36:41.840811 11813 net.cpp:141] Setting up conv1
I0403 13:36:41.840886 11813 net.cpp:148] Top shape: 100 96 55 55 (29040000)
I0403 13:36:41.840904 11813 net.cpp:156] Memory required for data: 177996400
I0403 13:36:41.840935 11813 layer_factory.hpp:77] Creating layer relu1
I0403 13:36:41.840965 11813 net.cpp:91] Creating Layer relu1
I0403 13:36:41.840982 11813 net.cpp:425] relu1 <- conv1
I0403 13:36:41.841001 11813 net.cpp:386] relu1 -> conv1 (in-place)
I0403 13:36:41.841255 11813 net.cpp:141] Setting up relu1
I0403 13:36:41.841281 11813 net.cpp:148] Top shape: 100 96 55 55 (29040000)
I0403 13:36:41.841336 11813 net.cpp:156] Memory required for data: 294156400
I0403 13:36:41.841352 11813 layer_factory.hpp:77] Creating layer norm1
I0403 13:36:41.841379 11813 net.cpp:91] Creating Layer norm1
I0403 13:36:41.841398 11813 net.cpp:425] norm1 <- conv1
I0403 13:36:41.841416 11813 net.cpp:399] norm1 -> norm1
I0403 13:36:41.841785 11813 net.cpp:141] Setting up norm1
I0403 13:36:41.841814 11813 net.cpp:148] Top shape: 100 96 55 55 (29040000)
I0403 13:36:41.841830 11813 net.cpp:156] Memory required for data: 410316400
I0403 13:36:41.841845 11813 layer_factory.hpp:77] Creating layer pool1
I0403 13:36:41.841868 11813 net.cpp:91] Creating Layer pool1
I0403 13:36:41.841886 11813 net.cpp:425] pool1 <- norm1
I0403 13:36:41.841904 11813 net.cpp:399] pool1 -> pool1
I0403 13:36:41.841975 11813 net.cpp:141] Setting up pool1
I0403 13:36:41.841998 11813 net.cpp:148] Top shape: 100 96 27 27 (6998400)
I0403 13:36:41.842013 11813 net.cpp:156] Memory required for data: 438310000
I0403 13:36:41.842030 11813 layer_factory.hpp:77] Creating layer conv2
I0403 13:36:41.842053 11813 net.cpp:91] Creating Layer conv2
I0403 13:36:41.842070 11813 net.cpp:425] conv2 <- pool1
I0403 13:36:41.842088 11813 net.cpp:399] conv2 -> conv2
I0403 13:36:41.857377 11813 net.cpp:141] Setting up conv2
I0403 13:36:41.857416 11813 net.cpp:148] Top shape: 100 256 27 27 (18662400)
I0403 13:36:41.857434 11813 net.cpp:156] Memory required for data: 512959600
I0403 13:36:41.857456 11813 layer_factory.hpp:77] Creating layer relu2
I0403 13:36:41.857480 11813 net.cpp:91] Creating Layer relu2
I0403 13:36:41.857496 11813 net.cpp:425] relu2 <- conv2
I0403 13:36:41.857514 11813 net.cpp:386] relu2 -> conv2 (in-place)
I0403 13:36:41.857800 11813 net.cpp:141] Setting up relu2
I0403 13:36:41.857828 11813 net.cpp:148] Top shape: 100 256 27 27 (18662400)
I0403 13:36:41.857843 11813 net.cpp:156] Memory required for data: 587609200
I0403 13:36:41.857859 11813 layer_factory.hpp:77] Creating layer norm2
I0403 13:36:41.857882 11813 net.cpp:91] Creating Layer norm2
I0403 13:36:41.857900 11813 net.cpp:425] norm2 <- conv2
I0403 13:36:41.857920 11813 net.cpp:399] norm2 -> norm2
I0403 13:36:41.858126 11813 net.cpp:141] Setting up norm2
I0403 13:36:41.858152 11813 net.cpp:148] Top shape: 100 256 27 27 (18662400)
I0403 13:36:41.858167 11813 net.cpp:156] Memory required for data: 662258800
I0403 13:36:41.858182 11813 layer_factory.hpp:77] Creating layer pool2
I0403 13:36:41.858201 11813 net.cpp:91] Creating Layer pool2
I0403 13:36:41.858217 11813 net.cpp:425] pool2 <- norm2
I0403 13:36:41.858237 11813 net.cpp:399] pool2 -> pool2
I0403 13:36:41.858291 11813 net.cpp:141] Setting up pool2
I0403 13:36:41.858316 11813 net.cpp:148] Top shape: 100 256 13 13 (4326400)
I0403 13:36:41.858331 11813 net.cpp:156] Memory required for data: 679564400
I0403 13:36:41.858346 11813 layer_factory.hpp:77] Creating layer conv3
I0403 13:36:41.858368 11813 net.cpp:91] Creating Layer conv3
I0403 13:36:41.858386 11813 net.cpp:425] conv3 <- pool2
I0403 13:36:41.858407 11813 net.cpp:399] conv3 -> conv3
I0403 13:36:41.900574 11813 net.cpp:141] Setting up conv3
I0403 13:36:41.900630 11813 net.cpp:148] Top shape: 100 384 13 13 (6489600)
I0403 13:36:41.900647 11813 net.cpp:156] Memory required for data: 705522800
I0403 13:36:41.900672 11813 layer_factory.hpp:77] Creating layer relu3
I0403 13:36:41.900694 11813 net.cpp:91] Creating Layer relu3
I0403 13:36:41.900712 11813 net.cpp:425] relu3 <- conv3
I0403 13:36:41.900737 11813 net.cpp:386] relu3 -> conv3 (in-place)
I0403 13:36:41.901008 11813 net.cpp:141] Setting up relu3
I0403 13:36:41.901034 11813 net.cpp:148] Top shape: 100 384 13 13 (6489600)
I0403 13:36:41.901049 11813 net.cpp:156] Memory required for data: 731481200
I0403 13:36:41.901063 11813 layer_factory.hpp:77] Creating layer conv4
I0403 13:36:41.901088 11813 net.cpp:91] Creating Layer conv4
I0403 13:36:41.901106 11813 net.cpp:425] conv4 <- conv3
I0403 13:36:41.901129 11813 net.cpp:399] conv4 -> conv4
I0403 13:36:41.930495 11813 net.cpp:141] Setting up conv4
I0403 13:36:41.930536 11813 net.cpp:148] Top shape: 100 384 13 13 (6489600)
I0403 13:36:41.930584 11813 net.cpp:156] Memory required for data: 757439600
I0403 13:36:41.930609 11813 layer_factory.hpp:77] Creating layer relu4
I0403 13:36:41.930630 11813 net.cpp:91] Creating Layer relu4
I0403 13:36:41.930646 11813 net.cpp:425] relu4 <- conv4
I0403 13:36:41.930665 11813 net.cpp:386] relu4 -> conv4 (in-place)
I0403 13:36:41.930938 11813 net.cpp:141] Setting up relu4
I0403 13:36:41.930964 11813 net.cpp:148] Top shape: 100 384 13 13 (6489600)
I0403 13:36:41.930979 11813 net.cpp:156] Memory required for data: 783398000
I0403 13:36:41.930994 11813 layer_factory.hpp:77] Creating layer conv5
I0403 13:36:41.931016 11813 net.cpp:91] Creating Layer conv5
I0403 13:36:41.931033 11813 net.cpp:425] conv5 <- conv4
I0403 13:36:41.931054 11813 net.cpp:399] conv5 -> conv5
I0403 13:36:41.952005 11813 net.cpp:141] Setting up conv5
I0403 13:36:41.952060 11813 net.cpp:148] Top shape: 100 256 13 13 (4326400)
I0403 13:36:41.952077 11813 net.cpp:156] Memory required for data: 800703600
I0403 13:36:41.952102 11813 layer_factory.hpp:77] Creating layer relu5
I0403 13:36:41.952126 11813 net.cpp:91] Creating Layer relu5
I0403 13:36:41.952147 11813 net.cpp:425] relu5 <- conv5
I0403 13:36:41.952164 11813 net.cpp:386] relu5 -> conv5 (in-place)
I0403 13:36:41.952453 11813 net.cpp:141] Setting up relu5
I0403 13:36:41.952481 11813 net.cpp:148] Top shape: 100 256 13 13 (4326400)
I0403 13:36:41.952497 11813 net.cpp:156] Memory required for data: 818009200
I0403 13:36:41.952510 11813 layer_factory.hpp:77] Creating layer pool5
I0403 13:36:41.952535 11813 net.cpp:91] Creating Layer pool5
I0403 13:36:41.952553 11813 net.cpp:425] pool5 <- conv5
I0403 13:36:41.952571 11813 net.cpp:399] pool5 -> pool5
I0403 13:36:41.952641 11813 net.cpp:141] Setting up pool5
I0403 13:36:41.952664 11813 net.cpp:148] Top shape: 100 256 6 6 (921600)
I0403 13:36:41.952679 11813 net.cpp:156] Memory required for data: 821695600
I0403 13:36:41.952694 11813 layer_factory.hpp:77] Creating layer fc6
I0403 13:36:41.952721 11813 net.cpp:91] Creating Layer fc6
I0403 13:36:41.952739 11813 net.cpp:425] fc6 <- pool5
I0403 13:36:41.952759 11813 net.cpp:399] fc6 -> fc6
I0403 13:36:43.492312 11813 net.cpp:141] Setting up fc6
I0403 13:36:43.492352 11813 net.cpp:148] Top shape: 100 4096 (409600)
I0403 13:36:43.492368 11813 net.cpp:156] Memory required for data: 823334000
I0403 13:36:43.492388 11813 layer_factory.hpp:77] Creating layer relu6
I0403 13:36:43.492411 11813 net.cpp:91] Creating Layer relu6
I0403 13:36:43.492427 11813 net.cpp:425] relu6 <- fc6
I0403 13:36:43.492445 11813 net.cpp:386] relu6 -> fc6 (in-place)
I0403 13:36:43.492671 11813 net.cpp:141] Setting up relu6
I0403 13:36:43.492697 11813 net.cpp:148] Top shape: 100 4096 (409600)
I0403 13:36:43.492710 11813 net.cpp:156] Memory required for data: 824972400
I0403 13:36:43.492724 11813 layer_factory.hpp:77] Creating layer drop6
I0403 13:36:43.492743 11813 net.cpp:91] Creating Layer drop6
I0403 13:36:43.492758 11813 net.cpp:425] drop6 <- fc6
I0403 13:36:43.492776 11813 net.cpp:386] drop6 -> fc6 (in-place)
I0403 13:36:43.492825 11813 net.cpp:141] Setting up drop6
I0403 13:36:43.492853 11813 net.cpp:148] Top shape: 100 4096 (409600)
I0403 13:36:43.492868 11813 net.cpp:156] Memory required for data: 826610800
I0403 13:36:43.492883 11813 layer_factory.hpp:77] Creating layer fc7
I0403 13:36:43.492902 11813 net.cpp:91] Creating Layer fc7
I0403 13:36:43.492918 11813 net.cpp:425] fc7 <- fc6
I0403 13:36:43.492938 11813 net.cpp:399] fc7 -> fc7
I0403 13:36:44.165761 11813 net.cpp:141] Setting up fc7
I0403 13:36:44.165804 11813 net.cpp:148] Top shape: 100 4096 (409600)
I0403 13:36:44.165820 11813 net.cpp:156] Memory required for data: 828249200
I0403 13:36:44.165841 11813 layer_factory.hpp:77] Creating layer relu7
I0403 13:36:44.165863 11813 net.cpp:91] Creating Layer relu7
I0403 13:36:44.165880 11813 net.cpp:425] relu7 <- fc7
I0403 13:36:44.165901 11813 net.cpp:386] relu7 -> fc7 (in-place)
I0403 13:36:44.166295 11813 net.cpp:141] Setting up relu7
I0403 13:36:44.166321 11813 net.cpp:148] Top shape: 100 4096 (409600)
I0403 13:36:44.166376 11813 net.cpp:156] Memory required for data: 829887600
I0403 13:36:44.166393 11813 layer_factory.hpp:77] Creating layer drop7
I0403 13:36:44.166411 11813 net.cpp:91] Creating Layer drop7
I0403 13:36:44.166427 11813 net.cpp:425] drop7 <- fc7
I0403 13:36:44.166446 11813 net.cpp:386] drop7 -> fc7 (in-place)
I0403 13:36:44.166489 11813 net.cpp:141] Setting up drop7
I0403 13:36:44.166513 11813 net.cpp:148] Top shape: 100 4096 (409600)
I0403 13:36:44.166529 11813 net.cpp:156] Memory required for data: 831526000
I0403 13:36:44.166544 11813 layer_factory.hpp:77] Creating layer fc8_plantvillage
I0403 13:36:44.166563 11813 net.cpp:91] Creating Layer fc8_plantvillage
I0403 13:36:44.166579 11813 net.cpp:425] fc8_plantvillage <- fc7
I0403 13:36:44.166606 11813 net.cpp:399] fc8_plantvillage -> fc8_plantvillage
I0403 13:36:44.173308 11813 net.cpp:141] Setting up fc8_plantvillage
I0403 13:36:44.173336 11813 net.cpp:148] Top shape: 100 38 (3800)
I0403 13:36:44.173352 11813 net.cpp:156] Memory required for data: 831541200
I0403 13:36:44.173368 11813 layer_factory.hpp:77] Creating layer fc8_plantvillage_fc8_plantvillage_0_split
I0403 13:36:44.173389 11813 net.cpp:91] Creating Layer fc8_plantvillage_fc8_plantvillage_0_split
I0403 13:36:44.173405 11813 net.cpp:425] fc8_plantvillage_fc8_plantvillage_0_split <- fc8_plantvillage
I0403 13:36:44.173423 11813 net.cpp:399] fc8_plantvillage_fc8_plantvillage_0_split -> fc8_plantvillage_fc8_plantvillage_0_split_0
I0403 13:36:44.173441 11813 net.cpp:399] fc8_plantvillage_fc8_plantvillage_0_split -> fc8_plantvillage_fc8_plantvillage_0_split_1
I0403 13:36:44.173461 11813 net.cpp:399] fc8_plantvillage_fc8_plantvillage_0_split -> fc8_plantvillage_fc8_plantvillage_0_split_2
I0403 13:36:44.173540 11813 net.cpp:141] Setting up fc8_plantvillage_fc8_plantvillage_0_split
I0403 13:36:44.173563 11813 net.cpp:148] Top shape: 100 38 (3800)
I0403 13:36:44.173580 11813 net.cpp:148] Top shape: 100 38 (3800)
I0403 13:36:44.173595 11813 net.cpp:148] Top shape: 100 38 (3800)
I0403 13:36:44.173614 11813 net.cpp:156] Memory required for data: 831586800
I0403 13:36:44.173629 11813 layer_factory.hpp:77] Creating layer prob
I0403 13:36:44.173647 11813 net.cpp:91] Creating Layer prob
I0403 13:36:44.173663 11813 net.cpp:425] prob <- fc8_plantvillage_fc8_plantvillage_0_split_0
I0403 13:36:44.173681 11813 net.cpp:399] prob -> prob
I0403 13:36:44.173909 11813 net.cpp:141] Setting up prob
I0403 13:36:44.173934 11813 net.cpp:148] Top shape: 100 38 (3800)
I0403 13:36:44.173949 11813 net.cpp:156] Memory required for data: 831602000
I0403 13:36:44.173964 11813 layer_factory.hpp:77] Creating layer hdf5out
I0403 13:36:44.173981 11813 net.cpp:91] Creating Layer hdf5out
I0403 13:36:44.173996 11813 net.cpp:425] hdf5out <- prob
I0403 13:36:44.174012 11813 net.cpp:425] hdf5out <- label_data_1_split_0
I0403 13:36:44.185140 11813 net.cpp:141] Setting up hdf5out
…
