…
I0403 13:56:15.928859 12268 net.cpp:313] The NetState phase (1) differed from the phase (0) specified by a rule in layer data
I0403 13:56:15.929155 12268 net.cpp:49] Initializing net from parameters: 
state {
  phase: TEST
}
layer {
  name: "data"
  type: "Data"
  top: "data"
  top: "label"
  include {
    phase: TEST
  }
  transform_param {
    crop_size: 227
    mean_file: "/home/mohanty/data/final_dataset/lmdb/grayscale-60-40/mean.binaryproto"
  }
  data_param {
    source: "/home/mohanty/data/final_dataset/lmdb/grayscale-60-40/test_db"
    batch_size: 100
    backend: LMDB
  }
}
layer {
  name: "conv1"
  type: "Convolution"
  bottom: "data"
  top: "conv1"
  param {
    lr_mult: 1
    decay_mult: 1
  }
  param {
    lr_mult: 2
    decay_mult: 0
  }
  convolution_param {
    num_output: 96
    kernel_size: 11
    stride: 4
    weight_filler {
      type: "gaussian"
      std: 0.01
    }
    bias_filler {
      type: "constant"
      value: 0
    }
  }
}
layer {
  name: "relu1"
  type: "ReLU"
  bottom: "conv1"
  top: "conv1"
}
layer {
  name: "norm1"
  type: "LRN"
  bottom: "conv1"
  top: "norm1"
  lrn_param {
    local_size: 5
    alpha: 0.0001
    beta: 0.75
  }
}
layer {
  name: "pool1"
  type: "Pooling"
  bottom: "norm1"
  top: "pool1"
  pooling_param {
    pool: MAX
    kernel_size: 3
    stride: 2
  }
}
layer {
  name: "conv2"
  type: "Convolution"
  bottom: "pool1"
  top: "conv2"
  param {
    lr_mult: 1
    decay_mult: 1
  }
  param {
    lr_mult: 2
    decay_mult: 0
  }
  convolution_param {
    num_output: 256
    pad: 2
    kernel_size: 5
    group: 2
    weight_filler {
      type: "gaussian"
      std: 0.01
    }
    bias_filler {
      type: "constant"
      value: 0.1
    }
  }
}
layer {
  name: "relu2"
  type: "ReLU"
  bottom: "conv2"
  top: "conv2"
}
layer {
  name: "norm2"
  type: "LRN"
  bottom: "conv2"
  top: "norm2"
  lrn_param {
    local_size: 5
    alpha: 0.0001
    beta: 0.75
  }
}
layer {
  name: "pool2"
  type: "Pooling"
  bottom: "norm2"
  top: "pool2"
  pooling_param {
    pool: MAX
    kernel_size: 3
    stride: 2
  }
}
layer {
  name: "conv3"
  type: "Convolution"
  bottom: "pool2"
  top: "conv3"
  param {
    lr_mult: 1
    decay_mult: 1
  }
  param {
    lr_mult: 2
    decay_mult: 0
  }
  convolution_param {
    num_output: 384
    pad: 1
    kernel_size: 3
    weight_filler {
      type: "gaussian"
      std: 0.01
    }
    bias_filler {
      type: "constant"
      value: 0
    }
  }
}
layer {
  name: "relu3"
  type: "ReLU"
  bottom: "conv3"
  top: "conv3"
}
layer {
  name: "conv4"
  type: "Convolution"
  bottom: "conv3"
  top: "conv4"
  param {
    lr_mult: 1
    decay_mult: 1
  }
  param {
    lr_mult: 2
    decay_mult: 0
  }
  convolution_param {
    num_output: 384
    pad: 1
    kernel_size: 3
    group: 2
    weight_filler {
      type: "gaussian"
      std: 0.01
    }
    bias_filler {
      type: "constant"
      value: 0.1
    }
  }
}
layer {
  name: "relu4"
  type: "ReLU"
  bottom: "conv4"
  top: "conv4"
}
layer {
  name: "conv5"
  type: "Convolution"
  bottom: "conv4"
  top: "conv5"
  param {
    lr_mult: 1
    decay_mult: 1
  }
  param {
    lr_mult: 2
    decay_mult: 0
  }
  convolution_param {
    num_output: 256
    pad: 1
    kernel_size: 3
    group: 2
    weight_filler {
      type: "gaussian"
      std: 0.01
    }
    bias_filler {
      type: "constant"
      value: 0.1
    }
  }
}
layer {
  name: "relu5"
  type: "ReLU"
  bottom: "conv5"
  top: "conv5"
}
layer {
  name: "pool5"
  type: "Pooling"
  bottom: "conv5"
  top: "pool5"
  pooling_param {
    pool: MAX
    kernel_size: 3
    stride: 2
  }
}
layer {
  name: "fc6"
  type: "InnerProduct"
  bottom: "pool5"
  top: "fc6"
  param {
    lr_mult: 1
    decay_mult: 1
  }
  param {
    lr_mult: 2
    decay_mult: 0
  }
  inner_product_param {
    num_output: 4096
    weight_filler {
      type: "gaussian"
      std: 0.005
    }
    bias_filler {
      type: "constant"
      value: 0.1
    }
  }
}
layer {
  name: "relu6"
  type: "ReLU"
  bottom: "fc6"
  top: "fc6"
}
layer {
  name: "drop6"
  type: "Dropout"
  bottom: "fc6"
  top: "fc6"
  dropout_param {
    dropout_ratio: 0.5
  }
}
layer {
  name: "fc7"
  type: "InnerProduct"
  bottom: "fc6"
  top: "fc7"
  param {
    lr_mult: 1
    decay_mult: 1
  }
  param {
    lr_mult: 2
    decay_mult: 0
  }
  inner_product_param {
    num_output: 4096
    weight_filler {
      type: "gaussian"
      std: 0.005
    }
    bias_filler {
      type: "constant"
      value: 0.1
    }
  }
}
layer {
  name: "relu7"
  type: "ReLU"
  bottom: "fc7"
  top: "fc7"
}
layer {
  name: "drop7"
  type: "Dropout"
  bottom: "fc7"
  top: "fc7"
  dropout_param {
    dropout_ratio: 0.5
  }
}
layer {
  name: "fc8_plantvillage"
  type: "InnerProduct"
  bottom: "fc7"
  top: "fc8_plantvillage"
  param {
    lr_mult: 1
    decay_mult: 1
  }
  param {
    lr_mult: 2
    decay_mult: 0
  }
  inner_product_param {
    num_output: 38
    weight_filler {
      type: "gaussian"
      std: 0.01
    }
    bias_filler {
      type: "constant"
      value: 0
    }
  }
}
layer {
  name: "prob"
  type: "Softmax"
  bottom: "fc8_plantvillage"
  top: "prob"
  include {
    phase: TEST
  }
}
layer {
  name: "hdf5out"
  type: "HDF5Output"
  bottom: "prob"
  bottom: "label"
  include {
    phase: TEST
  }
  hdf5_output_param {
    file_name: "hdf5_dumps/iter_8775.h5"
  }
}
layer {
  name: "loss"
  type: "SoftmaxWithLoss"
  bottom: "fc8_plantvillage"
  bottom: "label"
  top: "loss"
}
layer {
  name: "accuracy"
  type: "Accuracy"
  bottom: "fc8_plantvillage"
  bottom: "label"
  top: "accuracy"
  include {
    phase: TEST
  }
}
I0403 13:56:15.929754 12268 layer_factory.hpp:77] Creating layer data
I0403 13:56:15.930383 12268 net.cpp:91] Creating Layer data
I0403 13:56:15.930413 12268 net.cpp:399] data -> data
I0403 13:56:15.930461 12268 net.cpp:399] data -> label
I0403 13:56:15.930497 12268 data_transformer.cpp:25] Loading mean file from: /home/mohanty/data/final_dataset/lmdb/grayscale-60-40/mean.binaryproto
I0403 13:56:15.933287 12271 db_lmdb.cpp:38] Opened lmdb /home/mohanty/data/final_dataset/lmdb/grayscale-60-40/test_db
I0403 13:56:15.944789 12268 data_layer.cpp:41] output data size: 100,3,227,227
I0403 13:56:16.065126 12268 net.cpp:141] Setting up data
I0403 13:56:16.065191 12268 net.cpp:148] Top shape: 100 3 227 227 (15458700)
I0403 13:56:16.065212 12268 net.cpp:148] Top shape: 100 (100)
I0403 13:56:16.065227 12268 net.cpp:156] Memory required for data: 61835200
I0403 13:56:16.065253 12268 layer_factory.hpp:77] Creating layer label_data_1_split
I0403 13:56:16.065277 12268 net.cpp:91] Creating Layer label_data_1_split
I0403 13:56:16.065294 12268 net.cpp:425] label_data_1_split <- label
I0403 13:56:16.065325 12268 net.cpp:399] label_data_1_split -> label_data_1_split_0
I0403 13:56:16.065351 12268 net.cpp:399] label_data_1_split -> label_data_1_split_1
I0403 13:56:16.065369 12268 net.cpp:399] label_data_1_split -> label_data_1_split_2
I0403 13:56:16.065431 12268 net.cpp:141] Setting up label_data_1_split
I0403 13:56:16.065453 12268 net.cpp:148] Top shape: 100 (100)
I0403 13:56:16.065469 12268 net.cpp:148] Top shape: 100 (100)
I0403 13:56:16.065485 12268 net.cpp:148] Top shape: 100 (100)
I0403 13:56:16.065497 12268 net.cpp:156] Memory required for data: 61836400
I0403 13:56:16.065510 12268 layer_factory.hpp:77] Creating layer conv1
I0403 13:56:16.065541 12268 net.cpp:91] Creating Layer conv1
I0403 13:56:16.065558 12268 net.cpp:425] conv1 <- data
I0403 13:56:16.065577 12268 net.cpp:399] conv1 -> conv1
I0403 13:56:16.207329 12268 net.cpp:141] Setting up conv1
I0403 13:56:16.207407 12268 net.cpp:148] Top shape: 100 96 55 55 (29040000)
I0403 13:56:16.207423 12268 net.cpp:156] Memory required for data: 177996400
I0403 13:56:16.207455 12268 layer_factory.hpp:77] Creating layer relu1
I0403 13:56:16.207482 12268 net.cpp:91] Creating Layer relu1
I0403 13:56:16.207500 12268 net.cpp:425] relu1 <- conv1
I0403 13:56:16.207520 12268 net.cpp:386] relu1 -> conv1 (in-place)
I0403 13:56:16.207789 12268 net.cpp:141] Setting up relu1
I0403 13:56:16.207818 12268 net.cpp:148] Top shape: 100 96 55 55 (29040000)
I0403 13:56:16.207870 12268 net.cpp:156] Memory required for data: 294156400
I0403 13:56:16.207885 12268 layer_factory.hpp:77] Creating layer norm1
I0403 13:56:16.207913 12268 net.cpp:91] Creating Layer norm1
I0403 13:56:16.207934 12268 net.cpp:425] norm1 <- conv1
I0403 13:56:16.207953 12268 net.cpp:399] norm1 -> norm1
I0403 13:56:16.208276 12268 net.cpp:141] Setting up norm1
I0403 13:56:16.208308 12268 net.cpp:148] Top shape: 100 96 55 55 (29040000)
I0403 13:56:16.208330 12268 net.cpp:156] Memory required for data: 410316400
I0403 13:56:16.208354 12268 layer_factory.hpp:77] Creating layer pool1
I0403 13:56:16.208389 12268 net.cpp:91] Creating Layer pool1
I0403 13:56:16.208407 12268 net.cpp:425] pool1 <- norm1
I0403 13:56:16.208426 12268 net.cpp:399] pool1 -> pool1
I0403 13:56:16.208493 12268 net.cpp:141] Setting up pool1
I0403 13:56:16.208518 12268 net.cpp:148] Top shape: 100 96 27 27 (6998400)
I0403 13:56:16.208534 12268 net.cpp:156] Memory required for data: 438310000
I0403 13:56:16.208549 12268 layer_factory.hpp:77] Creating layer conv2
I0403 13:56:16.208577 12268 net.cpp:91] Creating Layer conv2
I0403 13:56:16.208595 12268 net.cpp:425] conv2 <- pool1
I0403 13:56:16.208613 12268 net.cpp:399] conv2 -> conv2
I0403 13:56:16.223150 12268 net.cpp:141] Setting up conv2
I0403 13:56:16.223188 12268 net.cpp:148] Top shape: 100 256 27 27 (18662400)
I0403 13:56:16.223204 12268 net.cpp:156] Memory required for data: 512959600
I0403 13:56:16.223225 12268 layer_factory.hpp:77] Creating layer relu2
I0403 13:56:16.223248 12268 net.cpp:91] Creating Layer relu2
I0403 13:56:16.223263 12268 net.cpp:425] relu2 <- conv2
I0403 13:56:16.223280 12268 net.cpp:386] relu2 -> conv2 (in-place)
I0403 13:56:16.223572 12268 net.cpp:141] Setting up relu2
I0403 13:56:16.223599 12268 net.cpp:148] Top shape: 100 256 27 27 (18662400)
I0403 13:56:16.223613 12268 net.cpp:156] Memory required for data: 587609200
I0403 13:56:16.223633 12268 layer_factory.hpp:77] Creating layer norm2
I0403 13:56:16.223655 12268 net.cpp:91] Creating Layer norm2
I0403 13:56:16.223671 12268 net.cpp:425] norm2 <- conv2
I0403 13:56:16.223691 12268 net.cpp:399] norm2 -> norm2
I0403 13:56:16.223886 12268 net.cpp:141] Setting up norm2
I0403 13:56:16.223911 12268 net.cpp:148] Top shape: 100 256 27 27 (18662400)
I0403 13:56:16.223925 12268 net.cpp:156] Memory required for data: 662258800
I0403 13:56:16.223940 12268 layer_factory.hpp:77] Creating layer pool2
I0403 13:56:16.223958 12268 net.cpp:91] Creating Layer pool2
I0403 13:56:16.223973 12268 net.cpp:425] pool2 <- norm2
I0403 13:56:16.223990 12268 net.cpp:399] pool2 -> pool2
I0403 13:56:16.224042 12268 net.cpp:141] Setting up pool2
I0403 13:56:16.224066 12268 net.cpp:148] Top shape: 100 256 13 13 (4326400)
I0403 13:56:16.224079 12268 net.cpp:156] Memory required for data: 679564400
I0403 13:56:16.224093 12268 layer_factory.hpp:77] Creating layer conv3
I0403 13:56:16.224115 12268 net.cpp:91] Creating Layer conv3
I0403 13:56:16.224133 12268 net.cpp:425] conv3 <- pool2
I0403 13:56:16.224151 12268 net.cpp:399] conv3 -> conv3
I0403 13:56:16.265736 12268 net.cpp:141] Setting up conv3
I0403 13:56:16.265796 12268 net.cpp:148] Top shape: 100 384 13 13 (6489600)
I0403 13:56:16.265812 12268 net.cpp:156] Memory required for data: 705522800
I0403 13:56:16.265838 12268 layer_factory.hpp:77] Creating layer relu3
I0403 13:56:16.265859 12268 net.cpp:91] Creating Layer relu3
I0403 13:56:16.265877 12268 net.cpp:425] relu3 <- conv3
I0403 13:56:16.265893 12268 net.cpp:386] relu3 -> conv3 (in-place)
I0403 13:56:16.266172 12268 net.cpp:141] Setting up relu3
I0403 13:56:16.266199 12268 net.cpp:148] Top shape: 100 384 13 13 (6489600)
I0403 13:56:16.266214 12268 net.cpp:156] Memory required for data: 731481200
I0403 13:56:16.266229 12268 layer_factory.hpp:77] Creating layer conv4
I0403 13:56:16.266253 12268 net.cpp:91] Creating Layer conv4
I0403 13:56:16.266270 12268 net.cpp:425] conv4 <- conv3
I0403 13:56:16.266293 12268 net.cpp:399] conv4 -> conv4
I0403 13:56:16.296097 12268 net.cpp:141] Setting up conv4
I0403 13:56:16.296135 12268 net.cpp:148] Top shape: 100 384 13 13 (6489600)
I0403 13:56:16.296190 12268 net.cpp:156] Memory required for data: 757439600
I0403 13:56:16.296211 12268 layer_factory.hpp:77] Creating layer relu4
I0403 13:56:16.296238 12268 net.cpp:91] Creating Layer relu4
I0403 13:56:16.296262 12268 net.cpp:425] relu4 <- conv4
I0403 13:56:16.296288 12268 net.cpp:386] relu4 -> conv4 (in-place)
I0403 13:56:16.296587 12268 net.cpp:141] Setting up relu4
I0403 13:56:16.296614 12268 net.cpp:148] Top shape: 100 384 13 13 (6489600)
I0403 13:56:16.296630 12268 net.cpp:156] Memory required for data: 783398000
I0403 13:56:16.296645 12268 layer_factory.hpp:77] Creating layer conv5
I0403 13:56:16.296671 12268 net.cpp:91] Creating Layer conv5
I0403 13:56:16.296689 12268 net.cpp:425] conv5 <- conv4
I0403 13:56:16.296711 12268 net.cpp:399] conv5 -> conv5
I0403 13:56:16.316725 12268 net.cpp:141] Setting up conv5
I0403 13:56:16.316762 12268 net.cpp:148] Top shape: 100 256 13 13 (4326400)
I0403 13:56:16.316777 12268 net.cpp:156] Memory required for data: 800703600
I0403 13:56:16.316800 12268 layer_factory.hpp:77] Creating layer relu5
I0403 13:56:16.316823 12268 net.cpp:91] Creating Layer relu5
I0403 13:56:16.316841 12268 net.cpp:425] relu5 <- conv5
I0403 13:56:16.316859 12268 net.cpp:386] relu5 -> conv5 (in-place)
I0403 13:56:16.317133 12268 net.cpp:141] Setting up relu5
I0403 13:56:16.317159 12268 net.cpp:148] Top shape: 100 256 13 13 (4326400)
I0403 13:56:16.317174 12268 net.cpp:156] Memory required for data: 818009200
I0403 13:56:16.317189 12268 layer_factory.hpp:77] Creating layer pool5
I0403 13:56:16.317211 12268 net.cpp:91] Creating Layer pool5
I0403 13:56:16.317229 12268 net.cpp:425] pool5 <- conv5
I0403 13:56:16.317245 12268 net.cpp:399] pool5 -> pool5
I0403 13:56:16.317306 12268 net.cpp:141] Setting up pool5
I0403 13:56:16.317329 12268 net.cpp:148] Top shape: 100 256 6 6 (921600)
I0403 13:56:16.317343 12268 net.cpp:156] Memory required for data: 821695600
I0403 13:56:16.317358 12268 layer_factory.hpp:77] Creating layer fc6
I0403 13:56:16.317384 12268 net.cpp:91] Creating Layer fc6
I0403 13:56:16.317401 12268 net.cpp:425] fc6 <- pool5
I0403 13:56:16.317419 12268 net.cpp:399] fc6 -> fc6
I0403 13:56:17.855458 12268 net.cpp:141] Setting up fc6
I0403 13:56:17.855499 12268 net.cpp:148] Top shape: 100 4096 (409600)
I0403 13:56:17.855515 12268 net.cpp:156] Memory required for data: 823334000
I0403 13:56:17.855535 12268 layer_factory.hpp:77] Creating layer relu6
I0403 13:56:17.855556 12268 net.cpp:91] Creating Layer relu6
I0403 13:56:17.855578 12268 net.cpp:425] relu6 <- fc6
I0403 13:56:17.855604 12268 net.cpp:386] relu6 -> fc6 (in-place)
I0403 13:56:17.855814 12268 net.cpp:141] Setting up relu6
I0403 13:56:17.855839 12268 net.cpp:148] Top shape: 100 4096 (409600)
I0403 13:56:17.855854 12268 net.cpp:156] Memory required for data: 824972400
I0403 13:56:17.855868 12268 layer_factory.hpp:77] Creating layer drop6
I0403 13:56:17.855885 12268 net.cpp:91] Creating Layer drop6
I0403 13:56:17.855900 12268 net.cpp:425] drop6 <- fc6
I0403 13:56:17.855917 12268 net.cpp:386] drop6 -> fc6 (in-place)
I0403 13:56:17.855968 12268 net.cpp:141] Setting up drop6
I0403 13:56:17.855989 12268 net.cpp:148] Top shape: 100 4096 (409600)
I0403 13:56:17.856003 12268 net.cpp:156] Memory required for data: 826610800
I0403 13:56:17.856017 12268 layer_factory.hpp:77] Creating layer fc7
I0403 13:56:17.856035 12268 net.cpp:91] Creating Layer fc7
I0403 13:56:17.856050 12268 net.cpp:425] fc7 <- fc6
I0403 13:56:17.856068 12268 net.cpp:399] fc7 -> fc7
I0403 13:56:18.532722 12268 net.cpp:141] Setting up fc7
I0403 13:56:18.532763 12268 net.cpp:148] Top shape: 100 4096 (409600)
I0403 13:56:18.532778 12268 net.cpp:156] Memory required for data: 828249200
I0403 13:56:18.532799 12268 layer_factory.hpp:77] Creating layer relu7
I0403 13:56:18.532822 12268 net.cpp:91] Creating Layer relu7
I0403 13:56:18.532840 12268 net.cpp:425] relu7 <- fc7
I0403 13:56:18.532858 12268 net.cpp:386] relu7 -> fc7 (in-place)
I0403 13:56:18.533246 12268 net.cpp:141] Setting up relu7
I0403 13:56:18.533272 12268 net.cpp:148] Top shape: 100 4096 (409600)
I0403 13:56:18.533313 12268 net.cpp:156] Memory required for data: 829887600
I0403 13:56:18.533329 12268 layer_factory.hpp:77] Creating layer drop7
I0403 13:56:18.533350 12268 net.cpp:91] Creating Layer drop7
I0403 13:56:18.533367 12268 net.cpp:425] drop7 <- fc7
I0403 13:56:18.533385 12268 net.cpp:386] drop7 -> fc7 (in-place)
I0403 13:56:18.533424 12268 net.cpp:141] Setting up drop7
I0403 13:56:18.533449 12268 net.cpp:148] Top shape: 100 4096 (409600)
I0403 13:56:18.533464 12268 net.cpp:156] Memory required for data: 831526000
I0403 13:56:18.533478 12268 layer_factory.hpp:77] Creating layer fc8_plantvillage
I0403 13:56:18.533499 12268 net.cpp:91] Creating Layer fc8_plantvillage
I0403 13:56:18.533514 12268 net.cpp:425] fc8_plantvillage <- fc7
I0403 13:56:18.533532 12268 net.cpp:399] fc8_plantvillage -> fc8_plantvillage
I0403 13:56:18.540338 12268 net.cpp:141] Setting up fc8_plantvillage
I0403 13:56:18.540366 12268 net.cpp:148] Top shape: 100 38 (3800)
I0403 13:56:18.540382 12268 net.cpp:156] Memory required for data: 831541200
I0403 13:56:18.540400 12268 layer_factory.hpp:77] Creating layer fc8_plantvillage_fc8_plantvillage_0_split
I0403 13:56:18.540421 12268 net.cpp:91] Creating Layer fc8_plantvillage_fc8_plantvillage_0_split
I0403 13:56:18.540436 12268 net.cpp:425] fc8_plantvillage_fc8_plantvillage_0_split <- fc8_plantvillage
I0403 13:56:18.540453 12268 net.cpp:399] fc8_plantvillage_fc8_plantvillage_0_split -> fc8_plantvillage_fc8_plantvillage_0_split_0
I0403 13:56:18.540472 12268 net.cpp:399] fc8_plantvillage_fc8_plantvillage_0_split -> fc8_plantvillage_fc8_plantvillage_0_split_1
I0403 13:56:18.540491 12268 net.cpp:399] fc8_plantvillage_fc8_plantvillage_0_split -> fc8_plantvillage_fc8_plantvillage_0_split_2
I0403 13:56:18.540576 12268 net.cpp:141] Setting up fc8_plantvillage_fc8_plantvillage_0_split
I0403 13:56:18.540599 12268 net.cpp:148] Top shape: 100 38 (3800)
I0403 13:56:18.540616 12268 net.cpp:148] Top shape: 100 38 (3800)
I0403 13:56:18.540629 12268 net.cpp:148] Top shape: 100 38 (3800)
I0403 13:56:18.540643 12268 net.cpp:156] Memory required for data: 831586800
I0403 13:56:18.540657 12268 layer_factory.hpp:77] Creating layer prob
I0403 13:56:18.540675 12268 net.cpp:91] Creating Layer prob
I0403 13:56:18.540689 12268 net.cpp:425] prob <- fc8_plantvillage_fc8_plantvillage_0_split_0
I0403 13:56:18.540709 12268 net.cpp:399] prob -> prob
I0403 13:56:18.540930 12268 net.cpp:141] Setting up prob
I0403 13:56:18.540954 12268 net.cpp:148] Top shape: 100 38 (3800)
I0403 13:56:18.540968 12268 net.cpp:156] Memory required for data: 831602000
I0403 13:56:18.540983 12268 layer_factory.hpp:77] Creating layer hdf5out
I0403 13:56:18.541004 12268 net.cpp:91] Creating Layer hdf5out
I0403 13:56:18.541020 12268 net.cpp:425] hdf5out <- prob
I0403 13:56:18.541035 12268 net.cpp:425] hdf5out <- label_data_1_split_0
I0403 13:56:18.544881 12268 net.cpp:141] Setting up hdf5out
…
