…
I0403 13:47:59.313807 12074 net.cpp:313] The NetState phase (1) differed from the phase (0) specified by a rule in layer data
I0403 13:47:59.314106 12074 net.cpp:49] Initializing net from parameters: 
state {
  phase: TEST
}
layer {
  name: "data"
  type: "Data"
  top: "data"
  top: "label"
  include {
    phase: TEST
  }
  transform_param {
    crop_size: 227
    mean_file: "/home/mohanty/data/final_dataset/lmdb/grayscale-60-40/mean.binaryproto"
  }
  data_param {
    source: "/home/mohanty/data/final_dataset/lmdb/grayscale-60-40/test_db"
    batch_size: 100
    backend: LMDB
  }
}
layer {
  name: "conv1"
  type: "Convolution"
  bottom: "data"
  top: "conv1"
  param {
    lr_mult: 1
    decay_mult: 1
  }
  param {
    lr_mult: 2
    decay_mult: 0
  }
  convolution_param {
    num_output: 96
    kernel_size: 11
    stride: 4
    weight_filler {
      type: "gaussian"
      std: 0.01
    }
    bias_filler {
      type: "constant"
      value: 0
    }
  }
}
layer {
  name: "relu1"
  type: "ReLU"
  bottom: "conv1"
  top: "conv1"
}
layer {
  name: "norm1"
  type: "LRN"
  bottom: "conv1"
  top: "norm1"
  lrn_param {
    local_size: 5
    alpha: 0.0001
    beta: 0.75
  }
}
layer {
  name: "pool1"
  type: "Pooling"
  bottom: "norm1"
  top: "pool1"
  pooling_param {
    pool: MAX
    kernel_size: 3
    stride: 2
  }
}
layer {
  name: "conv2"
  type: "Convolution"
  bottom: "pool1"
  top: "conv2"
  param {
    lr_mult: 1
    decay_mult: 1
  }
  param {
    lr_mult: 2
    decay_mult: 0
  }
  convolution_param {
    num_output: 256
    pad: 2
    kernel_size: 5
    group: 2
    weight_filler {
      type: "gaussian"
      std: 0.01
    }
    bias_filler {
      type: "constant"
      value: 0.1
    }
  }
}
layer {
  name: "relu2"
  type: "ReLU"
  bottom: "conv2"
  top: "conv2"
}
layer {
  name: "norm2"
  type: "LRN"
  bottom: "conv2"
  top: "norm2"
  lrn_param {
    local_size: 5
    alpha: 0.0001
    beta: 0.75
  }
}
layer {
  name: "pool2"
  type: "Pooling"
  bottom: "norm2"
  top: "pool2"
  pooling_param {
    pool: MAX
    kernel_size: 3
    stride: 2
  }
}
layer {
  name: "conv3"
  type: "Convolution"
  bottom: "pool2"
  top: "conv3"
  param {
    lr_mult: 1
    decay_mult: 1
  }
  param {
    lr_mult: 2
    decay_mult: 0
  }
  convolution_param {
    num_output: 384
    pad: 1
    kernel_size: 3
    weight_filler {
      type: "gaussian"
      std: 0.01
    }
    bias_filler {
      type: "constant"
      value: 0
    }
  }
}
layer {
  name: "relu3"
  type: "ReLU"
  bottom: "conv3"
  top: "conv3"
}
layer {
  name: "conv4"
  type: "Convolution"
  bottom: "conv3"
  top: "conv4"
  param {
    lr_mult: 1
    decay_mult: 1
  }
  param {
    lr_mult: 2
    decay_mult: 0
  }
  convolution_param {
    num_output: 384
    pad: 1
    kernel_size: 3
    group: 2
    weight_filler {
      type: "gaussian"
      std: 0.01
    }
    bias_filler {
      type: "constant"
      value: 0.1
    }
  }
}
layer {
  name: "relu4"
  type: "ReLU"
  bottom: "conv4"
  top: "conv4"
}
layer {
  name: "conv5"
  type: "Convolution"
  bottom: "conv4"
  top: "conv5"
  param {
    lr_mult: 1
    decay_mult: 1
  }
  param {
    lr_mult: 2
    decay_mult: 0
  }
  convolution_param {
    num_output: 256
    pad: 1
    kernel_size: 3
    group: 2
    weight_filler {
      type: "gaussian"
      std: 0.01
    }
    bias_filler {
      type: "constant"
      value: 0.1
    }
  }
}
layer {
  name: "relu5"
  type: "ReLU"
  bottom: "conv5"
  top: "conv5"
}
layer {
  name: "pool5"
  type: "Pooling"
  bottom: "conv5"
  top: "pool5"
  pooling_param {
    pool: MAX
    kernel_size: 3
    stride: 2
  }
}
layer {
  name: "fc6"
  type: "InnerProduct"
  bottom: "pool5"
  top: "fc6"
  param {
    lr_mult: 1
    decay_mult: 1
  }
  param {
    lr_mult: 2
    decay_mult: 0
  }
  inner_product_param {
    num_output: 4096
    weight_filler {
      type: "gaussian"
      std: 0.005
    }
    bias_filler {
      type: "constant"
      value: 0.1
    }
  }
}
layer {
  name: "relu6"
  type: "ReLU"
  bottom: "fc6"
  top: "fc6"
}
layer {
  name: "drop6"
  type: "Dropout"
  bottom: "fc6"
  top: "fc6"
  dropout_param {
    dropout_ratio: 0.5
  }
}
layer {
  name: "fc7"
  type: "InnerProduct"
  bottom: "fc6"
  top: "fc7"
  param {
    lr_mult: 1
    decay_mult: 1
  }
  param {
    lr_mult: 2
    decay_mult: 0
  }
  inner_product_param {
    num_output: 4096
    weight_filler {
      type: "gaussian"
      std: 0.005
    }
    bias_filler {
      type: "constant"
      value: 0.1
    }
  }
}
layer {
  name: "relu7"
  type: "ReLU"
  bottom: "fc7"
  top: "fc7"
}
layer {
  name: "drop7"
  type: "Dropout"
  bottom: "fc7"
  top: "fc7"
  dropout_param {
    dropout_ratio: 0.5
  }
}
layer {
  name: "fc8_plantvillage"
  type: "InnerProduct"
  bottom: "fc7"
  top: "fc8_plantvillage"
  param {
    lr_mult: 1
    decay_mult: 1
  }
  param {
    lr_mult: 2
    decay_mult: 0
  }
  inner_product_param {
    num_output: 38
    weight_filler {
      type: "gaussian"
      std: 0.01
    }
    bias_filler {
      type: "constant"
      value: 0
    }
  }
}
layer {
  name: "prob"
  type: "Softmax"
  bottom: "fc8_plantvillage"
  top: "prob"
  include {
    phase: TEST
  }
}
layer {
  name: "hdf5out"
  type: "HDF5Output"
  bottom: "prob"
  bottom: "label"
  include {
    phase: TEST
  }
  hdf5_output_param {
    file_name: "hdf5_dumps/iter_5200.h5"
  }
}
layer {
  name: "loss"
  type: "SoftmaxWithLoss"
  bottom: "fc8_plantvillage"
  bottom: "label"
  top: "loss"
}
layer {
  name: "accuracy"
  type: "Accuracy"
  bottom: "fc8_plantvillage"
  bottom: "label"
  top: "accuracy"
  include {
    phase: TEST
  }
}
I0403 13:47:59.314713 12074 layer_factory.hpp:77] Creating layer data
I0403 13:47:59.315361 12074 net.cpp:91] Creating Layer data
I0403 13:47:59.315395 12074 net.cpp:399] data -> data
I0403 13:47:59.315445 12074 net.cpp:399] data -> label
I0403 13:47:59.315481 12074 data_transformer.cpp:25] Loading mean file from: /home/mohanty/data/final_dataset/lmdb/grayscale-60-40/mean.binaryproto
I0403 13:47:59.318168 12077 db_lmdb.cpp:38] Opened lmdb /home/mohanty/data/final_dataset/lmdb/grayscale-60-40/test_db
I0403 13:47:59.329978 12074 data_layer.cpp:41] output data size: 100,3,227,227
I0403 13:47:59.450903 12074 net.cpp:141] Setting up data
I0403 13:47:59.450960 12074 net.cpp:148] Top shape: 100 3 227 227 (15458700)
I0403 13:47:59.450983 12074 net.cpp:148] Top shape: 100 (100)
I0403 13:47:59.450996 12074 net.cpp:156] Memory required for data: 61835200
I0403 13:47:59.451023 12074 layer_factory.hpp:77] Creating layer label_data_1_split
I0403 13:47:59.451047 12074 net.cpp:91] Creating Layer label_data_1_split
I0403 13:47:59.451064 12074 net.cpp:425] label_data_1_split <- label
I0403 13:47:59.451095 12074 net.cpp:399] label_data_1_split -> label_data_1_split_0
I0403 13:47:59.451120 12074 net.cpp:399] label_data_1_split -> label_data_1_split_1
I0403 13:47:59.451139 12074 net.cpp:399] label_data_1_split -> label_data_1_split_2
I0403 13:47:59.451200 12074 net.cpp:141] Setting up label_data_1_split
I0403 13:47:59.451223 12074 net.cpp:148] Top shape: 100 (100)
I0403 13:47:59.451239 12074 net.cpp:148] Top shape: 100 (100)
I0403 13:47:59.451254 12074 net.cpp:148] Top shape: 100 (100)
I0403 13:47:59.451267 12074 net.cpp:156] Memory required for data: 61836400
I0403 13:47:59.451282 12074 layer_factory.hpp:77] Creating layer conv1
I0403 13:47:59.451314 12074 net.cpp:91] Creating Layer conv1
I0403 13:47:59.451333 12074 net.cpp:425] conv1 <- data
I0403 13:47:59.451350 12074 net.cpp:399] conv1 -> conv1
I0403 13:47:59.592068 12074 net.cpp:141] Setting up conv1
I0403 13:47:59.592145 12074 net.cpp:148] Top shape: 100 96 55 55 (29040000)
I0403 13:47:59.592162 12074 net.cpp:156] Memory required for data: 177996400
I0403 13:47:59.592192 12074 layer_factory.hpp:77] Creating layer relu1
I0403 13:47:59.592222 12074 net.cpp:91] Creating Layer relu1
I0403 13:47:59.592241 12074 net.cpp:425] relu1 <- conv1
I0403 13:47:59.592262 12074 net.cpp:386] relu1 -> conv1 (in-place)
I0403 13:47:59.592535 12074 net.cpp:141] Setting up relu1
I0403 13:47:59.592564 12074 net.cpp:148] Top shape: 100 96 55 55 (29040000)
I0403 13:47:59.592625 12074 net.cpp:156] Memory required for data: 294156400
I0403 13:47:59.592643 12074 layer_factory.hpp:77] Creating layer norm1
I0403 13:47:59.592670 12074 net.cpp:91] Creating Layer norm1
I0403 13:47:59.592689 12074 net.cpp:425] norm1 <- conv1
I0403 13:47:59.592708 12074 net.cpp:399] norm1 -> norm1
I0403 13:47:59.593039 12074 net.cpp:141] Setting up norm1
I0403 13:47:59.593066 12074 net.cpp:148] Top shape: 100 96 55 55 (29040000)
I0403 13:47:59.593081 12074 net.cpp:156] Memory required for data: 410316400
I0403 13:47:59.593096 12074 layer_factory.hpp:77] Creating layer pool1
I0403 13:47:59.593119 12074 net.cpp:91] Creating Layer pool1
I0403 13:47:59.593137 12074 net.cpp:425] pool1 <- norm1
I0403 13:47:59.593157 12074 net.cpp:399] pool1 -> pool1
I0403 13:47:59.593228 12074 net.cpp:141] Setting up pool1
I0403 13:47:59.593253 12074 net.cpp:148] Top shape: 100 96 27 27 (6998400)
I0403 13:47:59.593268 12074 net.cpp:156] Memory required for data: 438310000
I0403 13:47:59.593282 12074 layer_factory.hpp:77] Creating layer conv2
I0403 13:47:59.593312 12074 net.cpp:91] Creating Layer conv2
I0403 13:47:59.593327 12074 net.cpp:425] conv2 <- pool1
I0403 13:47:59.593348 12074 net.cpp:399] conv2 -> conv2
I0403 13:47:59.608364 12074 net.cpp:141] Setting up conv2
I0403 13:47:59.608418 12074 net.cpp:148] Top shape: 100 256 27 27 (18662400)
I0403 13:47:59.608435 12074 net.cpp:156] Memory required for data: 512959600
I0403 13:47:59.608458 12074 layer_factory.hpp:77] Creating layer relu2
I0403 13:47:59.608477 12074 net.cpp:91] Creating Layer relu2
I0403 13:47:59.608494 12074 net.cpp:425] relu2 <- conv2
I0403 13:47:59.608515 12074 net.cpp:386] relu2 -> conv2 (in-place)
I0403 13:47:59.608800 12074 net.cpp:141] Setting up relu2
I0403 13:47:59.608827 12074 net.cpp:148] Top shape: 100 256 27 27 (18662400)
I0403 13:47:59.608844 12074 net.cpp:156] Memory required for data: 587609200
I0403 13:47:59.608857 12074 layer_factory.hpp:77] Creating layer norm2
I0403 13:47:59.608880 12074 net.cpp:91] Creating Layer norm2
I0403 13:47:59.608898 12074 net.cpp:425] norm2 <- conv2
I0403 13:47:59.608918 12074 net.cpp:399] norm2 -> norm2
I0403 13:47:59.609120 12074 net.cpp:141] Setting up norm2
I0403 13:47:59.609146 12074 net.cpp:148] Top shape: 100 256 27 27 (18662400)
I0403 13:47:59.609161 12074 net.cpp:156] Memory required for data: 662258800
I0403 13:47:59.609176 12074 layer_factory.hpp:77] Creating layer pool2
I0403 13:47:59.609194 12074 net.cpp:91] Creating Layer pool2
I0403 13:47:59.609210 12074 net.cpp:425] pool2 <- norm2
I0403 13:47:59.609231 12074 net.cpp:399] pool2 -> pool2
I0403 13:47:59.609285 12074 net.cpp:141] Setting up pool2
I0403 13:47:59.609309 12074 net.cpp:148] Top shape: 100 256 13 13 (4326400)
I0403 13:47:59.609324 12074 net.cpp:156] Memory required for data: 679564400
I0403 13:47:59.609338 12074 layer_factory.hpp:77] Creating layer conv3
I0403 13:47:59.609364 12074 net.cpp:91] Creating Layer conv3
I0403 13:47:59.609380 12074 net.cpp:425] conv3 <- pool2
I0403 13:47:59.609398 12074 net.cpp:399] conv3 -> conv3
I0403 13:47:59.646785 12074 net.cpp:141] Setting up conv3
I0403 13:47:59.646834 12074 net.cpp:148] Top shape: 100 384 13 13 (6489600)
I0403 13:47:59.646850 12074 net.cpp:156] Memory required for data: 705522800
I0403 13:47:59.646873 12074 layer_factory.hpp:77] Creating layer relu3
I0403 13:47:59.646896 12074 net.cpp:91] Creating Layer relu3
I0403 13:47:59.646914 12074 net.cpp:425] relu3 <- conv3
I0403 13:47:59.646932 12074 net.cpp:386] relu3 -> conv3 (in-place)
I0403 13:47:59.647195 12074 net.cpp:141] Setting up relu3
I0403 13:47:59.647222 12074 net.cpp:148] Top shape: 100 384 13 13 (6489600)
I0403 13:47:59.647236 12074 net.cpp:156] Memory required for data: 731481200
I0403 13:47:59.647251 12074 layer_factory.hpp:77] Creating layer conv4
I0403 13:47:59.647276 12074 net.cpp:91] Creating Layer conv4
I0403 13:47:59.647296 12074 net.cpp:425] conv4 <- conv3
I0403 13:47:59.647316 12074 net.cpp:399] conv4 -> conv4
I0403 13:47:59.676657 12074 net.cpp:141] Setting up conv4
I0403 13:47:59.676713 12074 net.cpp:148] Top shape: 100 384 13 13 (6489600)
I0403 13:47:59.676769 12074 net.cpp:156] Memory required for data: 757439600
I0403 13:47:59.676790 12074 layer_factory.hpp:77] Creating layer relu4
I0403 13:47:59.676811 12074 net.cpp:91] Creating Layer relu4
I0403 13:47:59.676827 12074 net.cpp:425] relu4 <- conv4
I0403 13:47:59.676848 12074 net.cpp:386] relu4 -> conv4 (in-place)
I0403 13:47:59.677125 12074 net.cpp:141] Setting up relu4
I0403 13:47:59.677155 12074 net.cpp:148] Top shape: 100 384 13 13 (6489600)
I0403 13:47:59.677171 12074 net.cpp:156] Memory required for data: 783398000
I0403 13:47:59.677186 12074 layer_factory.hpp:77] Creating layer conv5
I0403 13:47:59.677211 12074 net.cpp:91] Creating Layer conv5
I0403 13:47:59.677228 12074 net.cpp:425] conv5 <- conv4
I0403 13:47:59.677248 12074 net.cpp:399] conv5 -> conv5
I0403 13:47:59.697769 12074 net.cpp:141] Setting up conv5
I0403 13:47:59.697829 12074 net.cpp:148] Top shape: 100 256 13 13 (4326400)
I0403 13:47:59.697845 12074 net.cpp:156] Memory required for data: 800703600
I0403 13:47:59.697870 12074 layer_factory.hpp:77] Creating layer relu5
I0403 13:47:59.697892 12074 net.cpp:91] Creating Layer relu5
I0403 13:47:59.697909 12074 net.cpp:425] relu5 <- conv5
I0403 13:47:59.697931 12074 net.cpp:386] relu5 -> conv5 (in-place)
I0403 13:47:59.698225 12074 net.cpp:141] Setting up relu5
I0403 13:47:59.698262 12074 net.cpp:148] Top shape: 100 256 13 13 (4326400)
I0403 13:47:59.698277 12074 net.cpp:156] Memory required for data: 818009200
I0403 13:47:59.698292 12074 layer_factory.hpp:77] Creating layer pool5
I0403 13:47:59.698318 12074 net.cpp:91] Creating Layer pool5
I0403 13:47:59.698335 12074 net.cpp:425] pool5 <- conv5
I0403 13:47:59.698355 12074 net.cpp:399] pool5 -> pool5
I0403 13:47:59.698423 12074 net.cpp:141] Setting up pool5
I0403 13:47:59.698449 12074 net.cpp:148] Top shape: 100 256 6 6 (921600)
I0403 13:47:59.698463 12074 net.cpp:156] Memory required for data: 821695600
I0403 13:47:59.698478 12074 layer_factory.hpp:77] Creating layer fc6
I0403 13:47:59.698508 12074 net.cpp:91] Creating Layer fc6
I0403 13:47:59.698525 12074 net.cpp:425] fc6 <- pool5
I0403 13:47:59.698544 12074 net.cpp:399] fc6 -> fc6
I0403 13:48:01.255357 12074 net.cpp:141] Setting up fc6
I0403 13:48:01.255406 12074 net.cpp:148] Top shape: 100 4096 (409600)
I0403 13:48:01.255422 12074 net.cpp:156] Memory required for data: 823334000
I0403 13:48:01.255445 12074 layer_factory.hpp:77] Creating layer relu6
I0403 13:48:01.255466 12074 net.cpp:91] Creating Layer relu6
I0403 13:48:01.255483 12074 net.cpp:425] relu6 <- fc6
I0403 13:48:01.255504 12074 net.cpp:386] relu6 -> fc6 (in-place)
I0403 13:48:01.255731 12074 net.cpp:141] Setting up relu6
I0403 13:48:01.255758 12074 net.cpp:148] Top shape: 100 4096 (409600)
I0403 13:48:01.255772 12074 net.cpp:156] Memory required for data: 824972400
I0403 13:48:01.255787 12074 layer_factory.hpp:77] Creating layer drop6
I0403 13:48:01.255806 12074 net.cpp:91] Creating Layer drop6
I0403 13:48:01.255821 12074 net.cpp:425] drop6 <- fc6
I0403 13:48:01.255843 12074 net.cpp:386] drop6 -> fc6 (in-place)
I0403 13:48:01.255897 12074 net.cpp:141] Setting up drop6
I0403 13:48:01.255923 12074 net.cpp:148] Top shape: 100 4096 (409600)
I0403 13:48:01.255938 12074 net.cpp:156] Memory required for data: 826610800
I0403 13:48:01.255952 12074 layer_factory.hpp:77] Creating layer fc7
I0403 13:48:01.255972 12074 net.cpp:91] Creating Layer fc7
I0403 13:48:01.255987 12074 net.cpp:425] fc7 <- fc6
I0403 13:48:01.256007 12074 net.cpp:399] fc7 -> fc7
I0403 13:48:01.932869 12074 net.cpp:141] Setting up fc7
I0403 13:48:01.932909 12074 net.cpp:148] Top shape: 100 4096 (409600)
I0403 13:48:01.932924 12074 net.cpp:156] Memory required for data: 828249200
I0403 13:48:01.932945 12074 layer_factory.hpp:77] Creating layer relu7
I0403 13:48:01.932965 12074 net.cpp:91] Creating Layer relu7
I0403 13:48:01.932981 12074 net.cpp:425] relu7 <- fc7
I0403 13:48:01.933002 12074 net.cpp:386] relu7 -> fc7 (in-place)
I0403 13:48:01.933387 12074 net.cpp:141] Setting up relu7
I0403 13:48:01.933413 12074 net.cpp:148] Top shape: 100 4096 (409600)
I0403 13:48:01.933468 12074 net.cpp:156] Memory required for data: 829887600
I0403 13:48:01.933485 12074 layer_factory.hpp:77] Creating layer drop7
I0403 13:48:01.933502 12074 net.cpp:91] Creating Layer drop7
I0403 13:48:01.933516 12074 net.cpp:425] drop7 <- fc7
I0403 13:48:01.933534 12074 net.cpp:386] drop7 -> fc7 (in-place)
I0403 13:48:01.933576 12074 net.cpp:141] Setting up drop7
I0403 13:48:01.933606 12074 net.cpp:148] Top shape: 100 4096 (409600)
I0403 13:48:01.933624 12074 net.cpp:156] Memory required for data: 831526000
I0403 13:48:01.933637 12074 layer_factory.hpp:77] Creating layer fc8_plantvillage
I0403 13:48:01.933656 12074 net.cpp:91] Creating Layer fc8_plantvillage
I0403 13:48:01.933671 12074 net.cpp:425] fc8_plantvillage <- fc7
I0403 13:48:01.933691 12074 net.cpp:399] fc8_plantvillage -> fc8_plantvillage
I0403 13:48:01.940448 12074 net.cpp:141] Setting up fc8_plantvillage
I0403 13:48:01.940477 12074 net.cpp:148] Top shape: 100 38 (3800)
I0403 13:48:01.940493 12074 net.cpp:156] Memory required for data: 831541200
I0403 13:48:01.940511 12074 layer_factory.hpp:77] Creating layer fc8_plantvillage_fc8_plantvillage_0_split
I0403 13:48:01.940529 12074 net.cpp:91] Creating Layer fc8_plantvillage_fc8_plantvillage_0_split
I0403 13:48:01.940544 12074 net.cpp:425] fc8_plantvillage_fc8_plantvillage_0_split <- fc8_plantvillage
I0403 13:48:01.940564 12074 net.cpp:399] fc8_plantvillage_fc8_plantvillage_0_split -> fc8_plantvillage_fc8_plantvillage_0_split_0
I0403 13:48:01.940587 12074 net.cpp:399] fc8_plantvillage_fc8_plantvillage_0_split -> fc8_plantvillage_fc8_plantvillage_0_split_1
I0403 13:48:01.940611 12074 net.cpp:399] fc8_plantvillage_fc8_plantvillage_0_split -> fc8_plantvillage_fc8_plantvillage_0_split_2
I0403 13:48:01.940692 12074 net.cpp:141] Setting up fc8_plantvillage_fc8_plantvillage_0_split
I0403 13:48:01.940717 12074 net.cpp:148] Top shape: 100 38 (3800)
I0403 13:48:01.940733 12074 net.cpp:148] Top shape: 100 38 (3800)
I0403 13:48:01.940748 12074 net.cpp:148] Top shape: 100 38 (3800)
I0403 13:48:01.940763 12074 net.cpp:156] Memory required for data: 831586800
I0403 13:48:01.940778 12074 layer_factory.hpp:77] Creating layer prob
I0403 13:48:01.940796 12074 net.cpp:91] Creating Layer prob
I0403 13:48:01.940812 12074 net.cpp:425] prob <- fc8_plantvillage_fc8_plantvillage_0_split_0
I0403 13:48:01.940832 12074 net.cpp:399] prob -> prob
I0403 13:48:01.941064 12074 net.cpp:141] Setting up prob
I0403 13:48:01.941090 12074 net.cpp:148] Top shape: 100 38 (3800)
I0403 13:48:01.941105 12074 net.cpp:156] Memory required for data: 831602000
I0403 13:48:01.941121 12074 layer_factory.hpp:77] Creating layer hdf5out
I0403 13:48:01.941141 12074 net.cpp:91] Creating Layer hdf5out
I0403 13:48:01.941157 12074 net.cpp:425] hdf5out <- prob
I0403 13:48:01.941172 12074 net.cpp:425] hdf5out <- label_data_1_split_0
I0403 13:48:01.955109 12074 net.cpp:141] Setting up hdf5out
…
