…
I0403 13:59:16.360975 12343 net.cpp:313] The NetState phase (1) differed from the phase (0) specified by a rule in layer data
I0403 13:59:16.361289 12343 net.cpp:49] Initializing net from parameters: 
state {
  phase: TEST
}
layer {
  name: "data"
  type: "Data"
  top: "data"
  top: "label"
  include {
    phase: TEST
  }
  transform_param {
    crop_size: 227
    mean_file: "/home/mohanty/data/final_dataset/lmdb/grayscale-60-40/mean.binaryproto"
  }
  data_param {
    source: "/home/mohanty/data/final_dataset/lmdb/grayscale-60-40/test_db"
    batch_size: 100
    backend: LMDB
  }
}
layer {
  name: "conv1"
  type: "Convolution"
  bottom: "data"
  top: "conv1"
  param {
    lr_mult: 1
    decay_mult: 1
  }
  param {
    lr_mult: 2
    decay_mult: 0
  }
  convolution_param {
    num_output: 96
    kernel_size: 11
    stride: 4
    weight_filler {
      type: "gaussian"
      std: 0.01
    }
    bias_filler {
      type: "constant"
      value: 0
    }
  }
}
layer {
  name: "relu1"
  type: "ReLU"
  bottom: "conv1"
  top: "conv1"
}
layer {
  name: "norm1"
  type: "LRN"
  bottom: "conv1"
  top: "norm1"
  lrn_param {
    local_size: 5
    alpha: 0.0001
    beta: 0.75
  }
}
layer {
  name: "pool1"
  type: "Pooling"
  bottom: "norm1"
  top: "pool1"
  pooling_param {
    pool: MAX
    kernel_size: 3
    stride: 2
  }
}
layer {
  name: "conv2"
  type: "Convolution"
  bottom: "pool1"
  top: "conv2"
  param {
    lr_mult: 1
    decay_mult: 1
  }
  param {
    lr_mult: 2
    decay_mult: 0
  }
  convolution_param {
    num_output: 256
    pad: 2
    kernel_size: 5
    group: 2
    weight_filler {
      type: "gaussian"
      std: 0.01
    }
    bias_filler {
      type: "constant"
      value: 0.1
    }
  }
}
layer {
  name: "relu2"
  type: "ReLU"
  bottom: "conv2"
  top: "conv2"
}
layer {
  name: "norm2"
  type: "LRN"
  bottom: "conv2"
  top: "norm2"
  lrn_param {
    local_size: 5
    alpha: 0.0001
    beta: 0.75
  }
}
layer {
  name: "pool2"
  type: "Pooling"
  bottom: "norm2"
  top: "pool2"
  pooling_param {
    pool: MAX
    kernel_size: 3
    stride: 2
  }
}
layer {
  name: "conv3"
  type: "Convolution"
  bottom: "pool2"
  top: "conv3"
  param {
    lr_mult: 1
    decay_mult: 1
  }
  param {
    lr_mult: 2
    decay_mult: 0
  }
  convolution_param {
    num_output: 384
    pad: 1
    kernel_size: 3
    weight_filler {
      type: "gaussian"
      std: 0.01
    }
    bias_filler {
      type: "constant"
      value: 0
    }
  }
}
layer {
  name: "relu3"
  type: "ReLU"
  bottom: "conv3"
  top: "conv3"
}
layer {
  name: "conv4"
  type: "Convolution"
  bottom: "conv3"
  top: "conv4"
  param {
    lr_mult: 1
    decay_mult: 1
  }
  param {
    lr_mult: 2
    decay_mult: 0
  }
  convolution_param {
    num_output: 384
    pad: 1
    kernel_size: 3
    group: 2
    weight_filler {
      type: "gaussian"
      std: 0.01
    }
    bias_filler {
      type: "constant"
      value: 0.1
    }
  }
}
layer {
  name: "relu4"
  type: "ReLU"
  bottom: "conv4"
  top: "conv4"
}
layer {
  name: "conv5"
  type: "Convolution"
  bottom: "conv4"
  top: "conv5"
  param {
    lr_mult: 1
    decay_mult: 1
  }
  param {
    lr_mult: 2
    decay_mult: 0
  }
  convolution_param {
    num_output: 256
    pad: 1
    kernel_size: 3
    group: 2
    weight_filler {
      type: "gaussian"
      std: 0.01
    }
    bias_filler {
      type: "constant"
      value: 0.1
    }
  }
}
layer {
  name: "relu5"
  type: "ReLU"
  bottom: "conv5"
  top: "conv5"
}
layer {
  name: "pool5"
  type: "Pooling"
  bottom: "conv5"
  top: "pool5"
  pooling_param {
    pool: MAX
    kernel_size: 3
    stride: 2
  }
}
layer {
  name: "fc6"
  type: "InnerProduct"
  bottom: "pool5"
  top: "fc6"
  param {
    lr_mult: 1
    decay_mult: 1
  }
  param {
    lr_mult: 2
    decay_mult: 0
  }
  inner_product_param {
    num_output: 4096
    weight_filler {
      type: "gaussian"
      std: 0.005
    }
    bias_filler {
      type: "constant"
      value: 0.1
    }
  }
}
layer {
  name: "relu6"
  type: "ReLU"
  bottom: "fc6"
  top: "fc6"
}
layer {
  name: "drop6"
  type: "Dropout"
  bottom: "fc6"
  top: "fc6"
  dropout_param {
    dropout_ratio: 0.5
  }
}
layer {
  name: "fc7"
  type: "InnerProduct"
  bottom: "fc6"
  top: "fc7"
  param {
    lr_mult: 1
    decay_mult: 1
  }
  param {
    lr_mult: 2
    decay_mult: 0
  }
  inner_product_param {
    num_output: 4096
    weight_filler {
      type: "gaussian"
      std: 0.005
    }
    bias_filler {
      type: "constant"
      value: 0.1
    }
  }
}
layer {
  name: "relu7"
  type: "ReLU"
  bottom: "fc7"
  top: "fc7"
}
layer {
  name: "drop7"
  type: "Dropout"
  bottom: "fc7"
  top: "fc7"
  dropout_param {
    dropout_ratio: 0.5
  }
}
layer {
  name: "fc8_plantvillage"
  type: "InnerProduct"
  bottom: "fc7"
  top: "fc8_plantvillage"
  param {
    lr_mult: 1
    decay_mult: 1
  }
  param {
    lr_mult: 2
    decay_mult: 0
  }
  inner_product_param {
    num_output: 38
    weight_filler {
      type: "gaussian"
      std: 0.01
    }
    bias_filler {
      type: "constant"
      value: 0
    }
  }
}
layer {
  name: "prob"
  type: "Softmax"
  bottom: "fc8_plantvillage"
  top: "prob"
  include {
    phase: TEST
  }
}
layer {
  name: "hdf5out"
  type: "HDF5Output"
  bottom: "prob"
  bottom: "label"
  include {
    phase: TEST
  }
  hdf5_output_param {
    file_name: "hdf5_dumps/iter_9758.h5"
  }
}
layer {
  name: "loss"
  type: "SoftmaxWithLoss"
  bottom: "fc8_plantvillage"
  bottom: "label"
  top: "loss"
}
layer {
  name: "accuracy"
  type: "Accuracy"
  bottom: "fc8_plantvillage"
  bottom: "label"
  top: "accuracy"
  include {
    phase: TEST
  }
}
I0403 13:59:16.361874 12343 layer_factory.hpp:77] Creating layer data
I0403 13:59:16.362524 12343 net.cpp:91] Creating Layer data
I0403 13:59:16.362555 12343 net.cpp:399] data -> data
I0403 13:59:16.362620 12343 net.cpp:399] data -> label
I0403 13:59:16.362659 12343 data_transformer.cpp:25] Loading mean file from: /home/mohanty/data/final_dataset/lmdb/grayscale-60-40/mean.binaryproto
I0403 13:59:16.365154 12347 db_lmdb.cpp:38] Opened lmdb /home/mohanty/data/final_dataset/lmdb/grayscale-60-40/test_db
I0403 13:59:16.377051 12343 data_layer.cpp:41] output data size: 100,3,227,227
I0403 13:59:16.496634 12343 net.cpp:141] Setting up data
I0403 13:59:16.496695 12343 net.cpp:148] Top shape: 100 3 227 227 (15458700)
I0403 13:59:16.496716 12343 net.cpp:148] Top shape: 100 (100)
I0403 13:59:16.496732 12343 net.cpp:156] Memory required for data: 61835200
I0403 13:59:16.496762 12343 layer_factory.hpp:77] Creating layer label_data_1_split
I0403 13:59:16.496786 12343 net.cpp:91] Creating Layer label_data_1_split
I0403 13:59:16.496804 12343 net.cpp:425] label_data_1_split <- label
I0403 13:59:16.496836 12343 net.cpp:399] label_data_1_split -> label_data_1_split_0
I0403 13:59:16.496862 12343 net.cpp:399] label_data_1_split -> label_data_1_split_1
I0403 13:59:16.496882 12343 net.cpp:399] label_data_1_split -> label_data_1_split_2
I0403 13:59:16.496944 12343 net.cpp:141] Setting up label_data_1_split
I0403 13:59:16.496966 12343 net.cpp:148] Top shape: 100 (100)
I0403 13:59:16.496981 12343 net.cpp:148] Top shape: 100 (100)
I0403 13:59:16.496997 12343 net.cpp:148] Top shape: 100 (100)
I0403 13:59:16.497010 12343 net.cpp:156] Memory required for data: 61836400
I0403 13:59:16.497025 12343 layer_factory.hpp:77] Creating layer conv1
I0403 13:59:16.497054 12343 net.cpp:91] Creating Layer conv1
I0403 13:59:16.497072 12343 net.cpp:425] conv1 <- data
I0403 13:59:16.497092 12343 net.cpp:399] conv1 -> conv1
I0403 13:59:16.638478 12343 net.cpp:141] Setting up conv1
I0403 13:59:16.638555 12343 net.cpp:148] Top shape: 100 96 55 55 (29040000)
I0403 13:59:16.638571 12343 net.cpp:156] Memory required for data: 177996400
I0403 13:59:16.638607 12343 layer_factory.hpp:77] Creating layer relu1
I0403 13:59:16.638636 12343 net.cpp:91] Creating Layer relu1
I0403 13:59:16.638654 12343 net.cpp:425] relu1 <- conv1
I0403 13:59:16.638675 12343 net.cpp:386] relu1 -> conv1 (in-place)
I0403 13:59:16.638950 12343 net.cpp:141] Setting up relu1
I0403 13:59:16.638978 12343 net.cpp:148] Top shape: 100 96 55 55 (29040000)
I0403 13:59:16.639031 12343 net.cpp:156] Memory required for data: 294156400
I0403 13:59:16.639047 12343 layer_factory.hpp:77] Creating layer norm1
I0403 13:59:16.639078 12343 net.cpp:91] Creating Layer norm1
I0403 13:59:16.639097 12343 net.cpp:425] norm1 <- conv1
I0403 13:59:16.639118 12343 net.cpp:399] norm1 -> norm1
I0403 13:59:16.639447 12343 net.cpp:141] Setting up norm1
I0403 13:59:16.639477 12343 net.cpp:148] Top shape: 100 96 55 55 (29040000)
I0403 13:59:16.639494 12343 net.cpp:156] Memory required for data: 410316400
I0403 13:59:16.639509 12343 layer_factory.hpp:77] Creating layer pool1
I0403 13:59:16.639531 12343 net.cpp:91] Creating Layer pool1
I0403 13:59:16.639549 12343 net.cpp:425] pool1 <- norm1
I0403 13:59:16.639569 12343 net.cpp:399] pool1 -> pool1
I0403 13:59:16.639645 12343 net.cpp:141] Setting up pool1
I0403 13:59:16.639672 12343 net.cpp:148] Top shape: 100 96 27 27 (6998400)
I0403 13:59:16.639688 12343 net.cpp:156] Memory required for data: 438310000
I0403 13:59:16.639703 12343 layer_factory.hpp:77] Creating layer conv2
I0403 13:59:16.639729 12343 net.cpp:91] Creating Layer conv2
I0403 13:59:16.639746 12343 net.cpp:425] conv2 <- pool1
I0403 13:59:16.639766 12343 net.cpp:399] conv2 -> conv2
I0403 13:59:16.655227 12343 net.cpp:141] Setting up conv2
I0403 13:59:16.655287 12343 net.cpp:148] Top shape: 100 256 27 27 (18662400)
I0403 13:59:16.655306 12343 net.cpp:156] Memory required for data: 512959600
I0403 13:59:16.655331 12343 layer_factory.hpp:77] Creating layer relu2
I0403 13:59:16.655352 12343 net.cpp:91] Creating Layer relu2
I0403 13:59:16.655372 12343 net.cpp:425] relu2 <- conv2
I0403 13:59:16.655391 12343 net.cpp:386] relu2 -> conv2 (in-place)
I0403 13:59:16.655683 12343 net.cpp:141] Setting up relu2
I0403 13:59:16.655711 12343 net.cpp:148] Top shape: 100 256 27 27 (18662400)
I0403 13:59:16.655726 12343 net.cpp:156] Memory required for data: 587609200
I0403 13:59:16.655741 12343 layer_factory.hpp:77] Creating layer norm2
I0403 13:59:16.655767 12343 net.cpp:91] Creating Layer norm2
I0403 13:59:16.655786 12343 net.cpp:425] norm2 <- conv2
I0403 13:59:16.655804 12343 net.cpp:399] norm2 -> norm2
I0403 13:59:16.656043 12343 net.cpp:141] Setting up norm2
I0403 13:59:16.656071 12343 net.cpp:148] Top shape: 100 256 27 27 (18662400)
I0403 13:59:16.656087 12343 net.cpp:156] Memory required for data: 662258800
I0403 13:59:16.656103 12343 layer_factory.hpp:77] Creating layer pool2
I0403 13:59:16.656121 12343 net.cpp:91] Creating Layer pool2
I0403 13:59:16.656137 12343 net.cpp:425] pool2 <- norm2
I0403 13:59:16.656154 12343 net.cpp:399] pool2 -> pool2
I0403 13:59:16.656208 12343 net.cpp:141] Setting up pool2
I0403 13:59:16.656232 12343 net.cpp:148] Top shape: 100 256 13 13 (4326400)
I0403 13:59:16.656246 12343 net.cpp:156] Memory required for data: 679564400
I0403 13:59:16.656265 12343 layer_factory.hpp:77] Creating layer conv3
I0403 13:59:16.656288 12343 net.cpp:91] Creating Layer conv3
I0403 13:59:16.656306 12343 net.cpp:425] conv3 <- pool2
I0403 13:59:16.656327 12343 net.cpp:399] conv3 -> conv3
I0403 13:59:16.696256 12343 net.cpp:141] Setting up conv3
I0403 13:59:16.696312 12343 net.cpp:148] Top shape: 100 384 13 13 (6489600)
I0403 13:59:16.696331 12343 net.cpp:156] Memory required for data: 705522800
I0403 13:59:16.696355 12343 layer_factory.hpp:77] Creating layer relu3
I0403 13:59:16.696379 12343 net.cpp:91] Creating Layer relu3
I0403 13:59:16.696396 12343 net.cpp:425] relu3 <- conv3
I0403 13:59:16.696416 12343 net.cpp:386] relu3 -> conv3 (in-place)
I0403 13:59:16.696691 12343 net.cpp:141] Setting up relu3
I0403 13:59:16.696720 12343 net.cpp:148] Top shape: 100 384 13 13 (6489600)
I0403 13:59:16.696738 12343 net.cpp:156] Memory required for data: 731481200
I0403 13:59:16.696753 12343 layer_factory.hpp:77] Creating layer conv4
I0403 13:59:16.696777 12343 net.cpp:91] Creating Layer conv4
I0403 13:59:16.696794 12343 net.cpp:425] conv4 <- conv3
I0403 13:59:16.696813 12343 net.cpp:399] conv4 -> conv4
I0403 13:59:16.727193 12343 net.cpp:141] Setting up conv4
I0403 13:59:16.727255 12343 net.cpp:148] Top shape: 100 384 13 13 (6489600)
I0403 13:59:16.727310 12343 net.cpp:156] Memory required for data: 757439600
I0403 13:59:16.727332 12343 layer_factory.hpp:77] Creating layer relu4
I0403 13:59:16.727360 12343 net.cpp:91] Creating Layer relu4
I0403 13:59:16.727380 12343 net.cpp:425] relu4 <- conv4
I0403 13:59:16.727401 12343 net.cpp:386] relu4 -> conv4 (in-place)
I0403 13:59:16.727695 12343 net.cpp:141] Setting up relu4
I0403 13:59:16.727722 12343 net.cpp:148] Top shape: 100 384 13 13 (6489600)
I0403 13:59:16.727738 12343 net.cpp:156] Memory required for data: 783398000
I0403 13:59:16.727753 12343 layer_factory.hpp:77] Creating layer conv5
I0403 13:59:16.727780 12343 net.cpp:91] Creating Layer conv5
I0403 13:59:16.727798 12343 net.cpp:425] conv5 <- conv4
I0403 13:59:16.727818 12343 net.cpp:399] conv5 -> conv5
I0403 13:59:16.748973 12343 net.cpp:141] Setting up conv5
I0403 13:59:16.749013 12343 net.cpp:148] Top shape: 100 256 13 13 (4326400)
I0403 13:59:16.749032 12343 net.cpp:156] Memory required for data: 800703600
I0403 13:59:16.749058 12343 layer_factory.hpp:77] Creating layer relu5
I0403 13:59:16.749078 12343 net.cpp:91] Creating Layer relu5
I0403 13:59:16.749095 12343 net.cpp:425] relu5 <- conv5
I0403 13:59:16.749114 12343 net.cpp:386] relu5 -> conv5 (in-place)
I0403 13:59:16.749400 12343 net.cpp:141] Setting up relu5
I0403 13:59:16.749429 12343 net.cpp:148] Top shape: 100 256 13 13 (4326400)
I0403 13:59:16.749447 12343 net.cpp:156] Memory required for data: 818009200
I0403 13:59:16.749462 12343 layer_factory.hpp:77] Creating layer pool5
I0403 13:59:16.749485 12343 net.cpp:91] Creating Layer pool5
I0403 13:59:16.749500 12343 net.cpp:425] pool5 <- conv5
I0403 13:59:16.749522 12343 net.cpp:399] pool5 -> pool5
I0403 13:59:16.749584 12343 net.cpp:141] Setting up pool5
I0403 13:59:16.749611 12343 net.cpp:148] Top shape: 100 256 6 6 (921600)
I0403 13:59:16.749629 12343 net.cpp:156] Memory required for data: 821695600
I0403 13:59:16.749642 12343 layer_factory.hpp:77] Creating layer fc6
I0403 13:59:16.749675 12343 net.cpp:91] Creating Layer fc6
I0403 13:59:16.749693 12343 net.cpp:425] fc6 <- pool5
I0403 13:59:16.749714 12343 net.cpp:399] fc6 -> fc6
I0403 13:59:18.294634 12343 net.cpp:141] Setting up fc6
I0403 13:59:18.294677 12343 net.cpp:148] Top shape: 100 4096 (409600)
I0403 13:59:18.294694 12343 net.cpp:156] Memory required for data: 823334000
I0403 13:59:18.294714 12343 layer_factory.hpp:77] Creating layer relu6
I0403 13:59:18.294739 12343 net.cpp:91] Creating Layer relu6
I0403 13:59:18.294759 12343 net.cpp:425] relu6 <- fc6
I0403 13:59:18.294780 12343 net.cpp:386] relu6 -> fc6 (in-place)
I0403 13:59:18.294992 12343 net.cpp:141] Setting up relu6
I0403 13:59:18.295020 12343 net.cpp:148] Top shape: 100 4096 (409600)
I0403 13:59:18.295037 12343 net.cpp:156] Memory required for data: 824972400
I0403 13:59:18.295050 12343 layer_factory.hpp:77] Creating layer drop6
I0403 13:59:18.295069 12343 net.cpp:91] Creating Layer drop6
I0403 13:59:18.295084 12343 net.cpp:425] drop6 <- fc6
I0403 13:59:18.295100 12343 net.cpp:386] drop6 -> fc6 (in-place)
I0403 13:59:18.295150 12343 net.cpp:141] Setting up drop6
I0403 13:59:18.295171 12343 net.cpp:148] Top shape: 100 4096 (409600)
I0403 13:59:18.295186 12343 net.cpp:156] Memory required for data: 826610800
I0403 13:59:18.295199 12343 layer_factory.hpp:77] Creating layer fc7
I0403 13:59:18.295220 12343 net.cpp:91] Creating Layer fc7
I0403 13:59:18.295235 12343 net.cpp:425] fc7 <- fc6
I0403 13:59:18.295253 12343 net.cpp:399] fc7 -> fc7
I0403 13:59:18.974153 12343 net.cpp:141] Setting up fc7
I0403 13:59:18.974195 12343 net.cpp:148] Top shape: 100 4096 (409600)
I0403 13:59:18.974212 12343 net.cpp:156] Memory required for data: 828249200
I0403 13:59:18.974233 12343 layer_factory.hpp:77] Creating layer relu7
I0403 13:59:18.974256 12343 net.cpp:91] Creating Layer relu7
I0403 13:59:18.974273 12343 net.cpp:425] relu7 <- fc7
I0403 13:59:18.974292 12343 net.cpp:386] relu7 -> fc7 (in-place)
I0403 13:59:18.974694 12343 net.cpp:141] Setting up relu7
I0403 13:59:18.974722 12343 net.cpp:148] Top shape: 100 4096 (409600)
I0403 13:59:18.974776 12343 net.cpp:156] Memory required for data: 829887600
I0403 13:59:18.974792 12343 layer_factory.hpp:77] Creating layer drop7
I0403 13:59:18.974809 12343 net.cpp:91] Creating Layer drop7
I0403 13:59:18.974824 12343 net.cpp:425] drop7 <- fc7
I0403 13:59:18.974840 12343 net.cpp:386] drop7 -> fc7 (in-place)
I0403 13:59:18.974884 12343 net.cpp:141] Setting up drop7
I0403 13:59:18.974905 12343 net.cpp:148] Top shape: 100 4096 (409600)
I0403 13:59:18.974918 12343 net.cpp:156] Memory required for data: 831526000
I0403 13:59:18.974932 12343 layer_factory.hpp:77] Creating layer fc8_plantvillage
I0403 13:59:18.974953 12343 net.cpp:91] Creating Layer fc8_plantvillage
I0403 13:59:18.974970 12343 net.cpp:425] fc8_plantvillage <- fc7
I0403 13:59:18.974987 12343 net.cpp:399] fc8_plantvillage -> fc8_plantvillage
I0403 13:59:18.981505 12343 net.cpp:141] Setting up fc8_plantvillage
I0403 13:59:18.981534 12343 net.cpp:148] Top shape: 100 38 (3800)
I0403 13:59:18.981549 12343 net.cpp:156] Memory required for data: 831541200
I0403 13:59:18.981565 12343 layer_factory.hpp:77] Creating layer fc8_plantvillage_fc8_plantvillage_0_split
I0403 13:59:18.981583 12343 net.cpp:91] Creating Layer fc8_plantvillage_fc8_plantvillage_0_split
I0403 13:59:18.981602 12343 net.cpp:425] fc8_plantvillage_fc8_plantvillage_0_split <- fc8_plantvillage
I0403 13:59:18.981621 12343 net.cpp:399] fc8_plantvillage_fc8_plantvillage_0_split -> fc8_plantvillage_fc8_plantvillage_0_split_0
I0403 13:59:18.981643 12343 net.cpp:399] fc8_plantvillage_fc8_plantvillage_0_split -> fc8_plantvillage_fc8_plantvillage_0_split_1
I0403 13:59:18.981664 12343 net.cpp:399] fc8_plantvillage_fc8_plantvillage_0_split -> fc8_plantvillage_fc8_plantvillage_0_split_2
I0403 13:59:18.981739 12343 net.cpp:141] Setting up fc8_plantvillage_fc8_plantvillage_0_split
I0403 13:59:18.981760 12343 net.cpp:148] Top shape: 100 38 (3800)
I0403 13:59:18.981775 12343 net.cpp:148] Top shape: 100 38 (3800)
I0403 13:59:18.981791 12343 net.cpp:148] Top shape: 100 38 (3800)
I0403 13:59:18.981803 12343 net.cpp:156] Memory required for data: 831586800
I0403 13:59:18.981817 12343 layer_factory.hpp:77] Creating layer prob
I0403 13:59:18.981834 12343 net.cpp:91] Creating Layer prob
I0403 13:59:18.981848 12343 net.cpp:425] prob <- fc8_plantvillage_fc8_plantvillage_0_split_0
I0403 13:59:18.981866 12343 net.cpp:399] prob -> prob
I0403 13:59:18.982077 12343 net.cpp:141] Setting up prob
I0403 13:59:18.982101 12343 net.cpp:148] Top shape: 100 38 (3800)
I0403 13:59:18.982116 12343 net.cpp:156] Memory required for data: 831602000
I0403 13:59:18.982130 12343 layer_factory.hpp:77] Creating layer hdf5out
I0403 13:59:18.982151 12343 net.cpp:91] Creating Layer hdf5out
I0403 13:59:18.982167 12343 net.cpp:425] hdf5out <- prob
I0403 13:59:18.982184 12343 net.cpp:425] hdf5out <- label_data_1_split_0
I0403 13:59:18.986101 12343 net.cpp:141] Setting up hdf5out
…
