…
I0403 13:37:26.579938 11832 net.cpp:313] The NetState phase (1) differed from the phase (0) specified by a rule in layer data
I0403 13:37:26.580236 11832 net.cpp:49] Initializing net from parameters: 
state {
  phase: TEST
}
layer {
  name: "data"
  type: "Data"
  top: "data"
  top: "label"
  include {
    phase: TEST
  }
  transform_param {
    crop_size: 227
    mean_file: "/home/mohanty/data/final_dataset/lmdb/grayscale-60-40/mean.binaryproto"
  }
  data_param {
    source: "/home/mohanty/data/final_dataset/lmdb/grayscale-60-40/test_db"
    batch_size: 100
    backend: LMDB
  }
}
layer {
  name: "conv1"
  type: "Convolution"
  bottom: "data"
  top: "conv1"
  param {
    lr_mult: 1
    decay_mult: 1
  }
  param {
    lr_mult: 2
    decay_mult: 0
  }
  convolution_param {
    num_output: 96
    kernel_size: 11
    stride: 4
    weight_filler {
      type: "gaussian"
      std: 0.01
    }
    bias_filler {
      type: "constant"
      value: 0
    }
  }
}
layer {
  name: "relu1"
  type: "ReLU"
  bottom: "conv1"
  top: "conv1"
}
layer {
  name: "norm1"
  type: "LRN"
  bottom: "conv1"
  top: "norm1"
  lrn_param {
    local_size: 5
    alpha: 0.0001
    beta: 0.75
  }
}
layer {
  name: "pool1"
  type: "Pooling"
  bottom: "norm1"
  top: "pool1"
  pooling_param {
    pool: MAX
    kernel_size: 3
    stride: 2
  }
}
layer {
  name: "conv2"
  type: "Convolution"
  bottom: "pool1"
  top: "conv2"
  param {
    lr_mult: 1
    decay_mult: 1
  }
  param {
    lr_mult: 2
    decay_mult: 0
  }
  convolution_param {
    num_output: 256
    pad: 2
    kernel_size: 5
    group: 2
    weight_filler {
      type: "gaussian"
      std: 0.01
    }
    bias_filler {
      type: "constant"
      value: 0.1
    }
  }
}
layer {
  name: "relu2"
  type: "ReLU"
  bottom: "conv2"
  top: "conv2"
}
layer {
  name: "norm2"
  type: "LRN"
  bottom: "conv2"
  top: "norm2"
  lrn_param {
    local_size: 5
    alpha: 0.0001
    beta: 0.75
  }
}
layer {
  name: "pool2"
  type: "Pooling"
  bottom: "norm2"
  top: "pool2"
  pooling_param {
    pool: MAX
    kernel_size: 3
    stride: 2
  }
}
layer {
  name: "conv3"
  type: "Convolution"
  bottom: "pool2"
  top: "conv3"
  param {
    lr_mult: 1
    decay_mult: 1
  }
  param {
    lr_mult: 2
    decay_mult: 0
  }
  convolution_param {
    num_output: 384
    pad: 1
    kernel_size: 3
    weight_filler {
      type: "gaussian"
      std: 0.01
    }
    bias_filler {
      type: "constant"
      value: 0
    }
  }
}
layer {
  name: "relu3"
  type: "ReLU"
  bottom: "conv3"
  top: "conv3"
}
layer {
  name: "conv4"
  type: "Convolution"
  bottom: "conv3"
  top: "conv4"
  param {
    lr_mult: 1
    decay_mult: 1
  }
  param {
    lr_mult: 2
    decay_mult: 0
  }
  convolution_param {
    num_output: 384
    pad: 1
    kernel_size: 3
    group: 2
    weight_filler {
      type: "gaussian"
      std: 0.01
    }
    bias_filler {
      type: "constant"
      value: 0.1
    }
  }
}
layer {
  name: "relu4"
  type: "ReLU"
  bottom: "conv4"
  top: "conv4"
}
layer {
  name: "conv5"
  type: "Convolution"
  bottom: "conv4"
  top: "conv5"
  param {
    lr_mult: 1
    decay_mult: 1
  }
  param {
    lr_mult: 2
    decay_mult: 0
  }
  convolution_param {
    num_output: 256
    pad: 1
    kernel_size: 3
    group: 2
    weight_filler {
      type: "gaussian"
      std: 0.01
    }
    bias_filler {
      type: "constant"
      value: 0.1
    }
  }
}
layer {
  name: "relu5"
  type: "ReLU"
  bottom: "conv5"
  top: "conv5"
}
layer {
  name: "pool5"
  type: "Pooling"
  bottom: "conv5"
  top: "pool5"
  pooling_param {
    pool: MAX
    kernel_size: 3
    stride: 2
  }
}
layer {
  name: "fc6"
  type: "InnerProduct"
  bottom: "pool5"
  top: "fc6"
  param {
    lr_mult: 1
    decay_mult: 1
  }
  param {
    lr_mult: 2
    decay_mult: 0
  }
  inner_product_param {
    num_output: 4096
    weight_filler {
      type: "gaussian"
      std: 0.005
    }
    bias_filler {
      type: "constant"
      value: 0.1
    }
  }
}
layer {
  name: "relu6"
  type: "ReLU"
  bottom: "fc6"
  top: "fc6"
}
layer {
  name: "drop6"
  type: "Dropout"
  bottom: "fc6"
  top: "fc6"
  dropout_param {
    dropout_ratio: 0.5
  }
}
layer {
  name: "fc7"
  type: "InnerProduct"
  bottom: "fc6"
  top: "fc7"
  param {
    lr_mult: 1
    decay_mult: 1
  }
  param {
    lr_mult: 2
    decay_mult: 0
  }
  inner_product_param {
    num_output: 4096
    weight_filler {
      type: "gaussian"
      std: 0.005
    }
    bias_filler {
      type: "constant"
      value: 0.1
    }
  }
}
layer {
  name: "relu7"
  type: "ReLU"
  bottom: "fc7"
  top: "fc7"
}
layer {
  name: "drop7"
  type: "Dropout"
  bottom: "fc7"
  top: "fc7"
  dropout_param {
    dropout_ratio: 0.5
  }
}
layer {
  name: "fc8_plantvillage"
  type: "InnerProduct"
  bottom: "fc7"
  top: "fc8_plantvillage"
  param {
    lr_mult: 1
    decay_mult: 1
  }
  param {
    lr_mult: 2
    decay_mult: 0
  }
  inner_product_param {
    num_output: 38
    weight_filler {
      type: "gaussian"
      std: 0.01
    }
    bias_filler {
      type: "constant"
      value: 0
    }
  }
}
layer {
  name: "prob"
  type: "Softmax"
  bottom: "fc8_plantvillage"
  top: "prob"
  include {
    phase: TEST
  }
}
layer {
  name: "hdf5out"
  type: "HDF5Output"
  bottom: "prob"
  bottom: "label"
  include {
    phase: TEST
  }
  hdf5_output_param {
    file_name: "hdf5_dumps/iter_650.h5"
  }
}
layer {
  name: "loss"
  type: "SoftmaxWithLoss"
  bottom: "fc8_plantvillage"
  bottom: "label"
  top: "loss"
}
layer {
  name: "accuracy"
  type: "Accuracy"
  bottom: "fc8_plantvillage"
  bottom: "label"
  top: "accuracy"
  include {
    phase: TEST
  }
}
I0403 13:37:26.580845 11832 layer_factory.hpp:77] Creating layer data
I0403 13:37:26.581482 11832 net.cpp:91] Creating Layer data
I0403 13:37:26.581512 11832 net.cpp:399] data -> data
I0403 13:37:26.581563 11832 net.cpp:399] data -> label
I0403 13:37:26.581604 11832 data_transformer.cpp:25] Loading mean file from: /home/mohanty/data/final_dataset/lmdb/grayscale-60-40/mean.binaryproto
I0403 13:37:26.584924 11835 db_lmdb.cpp:38] Opened lmdb /home/mohanty/data/final_dataset/lmdb/grayscale-60-40/test_db
I0403 13:37:26.595939 11832 data_layer.cpp:41] output data size: 100,3,227,227
I0403 13:37:26.715538 11832 net.cpp:141] Setting up data
I0403 13:37:26.715633 11832 net.cpp:148] Top shape: 100 3 227 227 (15458700)
I0403 13:37:26.715656 11832 net.cpp:148] Top shape: 100 (100)
I0403 13:37:26.715672 11832 net.cpp:156] Memory required for data: 61835200
I0403 13:37:26.715699 11832 layer_factory.hpp:77] Creating layer label_data_1_split
I0403 13:37:26.715723 11832 net.cpp:91] Creating Layer label_data_1_split
I0403 13:37:26.715740 11832 net.cpp:425] label_data_1_split <- label
I0403 13:37:26.715772 11832 net.cpp:399] label_data_1_split -> label_data_1_split_0
I0403 13:37:26.715800 11832 net.cpp:399] label_data_1_split -> label_data_1_split_1
I0403 13:37:26.715818 11832 net.cpp:399] label_data_1_split -> label_data_1_split_2
I0403 13:37:26.715881 11832 net.cpp:141] Setting up label_data_1_split
I0403 13:37:26.715904 11832 net.cpp:148] Top shape: 100 (100)
I0403 13:37:26.715922 11832 net.cpp:148] Top shape: 100 (100)
I0403 13:37:26.715939 11832 net.cpp:148] Top shape: 100 (100)
I0403 13:37:26.715952 11832 net.cpp:156] Memory required for data: 61836400
I0403 13:37:26.715967 11832 layer_factory.hpp:77] Creating layer conv1
I0403 13:37:26.715998 11832 net.cpp:91] Creating Layer conv1
I0403 13:37:26.716017 11832 net.cpp:425] conv1 <- data
I0403 13:37:26.716035 11832 net.cpp:399] conv1 -> conv1
I0403 13:37:26.856518 11832 net.cpp:141] Setting up conv1
I0403 13:37:26.856597 11832 net.cpp:148] Top shape: 100 96 55 55 (29040000)
I0403 13:37:26.856621 11832 net.cpp:156] Memory required for data: 177996400
I0403 13:37:26.856652 11832 layer_factory.hpp:77] Creating layer relu1
I0403 13:37:26.856678 11832 net.cpp:91] Creating Layer relu1
I0403 13:37:26.856695 11832 net.cpp:425] relu1 <- conv1
I0403 13:37:26.856716 11832 net.cpp:386] relu1 -> conv1 (in-place)
I0403 13:37:26.857000 11832 net.cpp:141] Setting up relu1
I0403 13:37:26.857028 11832 net.cpp:148] Top shape: 100 96 55 55 (29040000)
I0403 13:37:26.857091 11832 net.cpp:156] Memory required for data: 294156400
I0403 13:37:26.857107 11832 layer_factory.hpp:77] Creating layer norm1
I0403 13:37:26.857146 11832 net.cpp:91] Creating Layer norm1
I0403 13:37:26.857164 11832 net.cpp:425] norm1 <- conv1
I0403 13:37:26.857182 11832 net.cpp:399] norm1 -> norm1
I0403 13:37:26.857513 11832 net.cpp:141] Setting up norm1
I0403 13:37:26.857542 11832 net.cpp:148] Top shape: 100 96 55 55 (29040000)
I0403 13:37:26.857558 11832 net.cpp:156] Memory required for data: 410316400
I0403 13:37:26.857583 11832 layer_factory.hpp:77] Creating layer pool1
I0403 13:37:26.857611 11832 net.cpp:91] Creating Layer pool1
I0403 13:37:26.857631 11832 net.cpp:425] pool1 <- norm1
I0403 13:37:26.857650 11832 net.cpp:399] pool1 -> pool1
I0403 13:37:26.857722 11832 net.cpp:141] Setting up pool1
I0403 13:37:26.857746 11832 net.cpp:148] Top shape: 100 96 27 27 (6998400)
I0403 13:37:26.857761 11832 net.cpp:156] Memory required for data: 438310000
I0403 13:37:26.857776 11832 layer_factory.hpp:77] Creating layer conv2
I0403 13:37:26.857805 11832 net.cpp:91] Creating Layer conv2
I0403 13:37:26.857823 11832 net.cpp:425] conv2 <- pool1
I0403 13:37:26.857843 11832 net.cpp:399] conv2 -> conv2
I0403 13:37:26.872877 11832 net.cpp:141] Setting up conv2
I0403 13:37:26.872931 11832 net.cpp:148] Top shape: 100 256 27 27 (18662400)
I0403 13:37:26.872947 11832 net.cpp:156] Memory required for data: 512959600
I0403 13:37:26.872972 11832 layer_factory.hpp:77] Creating layer relu2
I0403 13:37:26.872994 11832 net.cpp:91] Creating Layer relu2
I0403 13:37:26.873011 11832 net.cpp:425] relu2 <- conv2
I0403 13:37:26.873030 11832 net.cpp:386] relu2 -> conv2 (in-place)
I0403 13:37:26.873316 11832 net.cpp:141] Setting up relu2
I0403 13:37:26.873342 11832 net.cpp:148] Top shape: 100 256 27 27 (18662400)
I0403 13:37:26.873358 11832 net.cpp:156] Memory required for data: 587609200
I0403 13:37:26.873373 11832 layer_factory.hpp:77] Creating layer norm2
I0403 13:37:26.873396 11832 net.cpp:91] Creating Layer norm2
I0403 13:37:26.873414 11832 net.cpp:425] norm2 <- conv2
I0403 13:37:26.873433 11832 net.cpp:399] norm2 -> norm2
I0403 13:37:26.873637 11832 net.cpp:141] Setting up norm2
I0403 13:37:26.873664 11832 net.cpp:148] Top shape: 100 256 27 27 (18662400)
I0403 13:37:26.873679 11832 net.cpp:156] Memory required for data: 662258800
I0403 13:37:26.873694 11832 layer_factory.hpp:77] Creating layer pool2
I0403 13:37:26.873714 11832 net.cpp:91] Creating Layer pool2
I0403 13:37:26.873731 11832 net.cpp:425] pool2 <- norm2
I0403 13:37:26.873749 11832 net.cpp:399] pool2 -> pool2
I0403 13:37:26.873802 11832 net.cpp:141] Setting up pool2
I0403 13:37:26.873827 11832 net.cpp:148] Top shape: 100 256 13 13 (4326400)
I0403 13:37:26.873842 11832 net.cpp:156] Memory required for data: 679564400
I0403 13:37:26.873857 11832 layer_factory.hpp:77] Creating layer conv3
I0403 13:37:26.873881 11832 net.cpp:91] Creating Layer conv3
I0403 13:37:26.873898 11832 net.cpp:425] conv3 <- pool2
I0403 13:37:26.873919 11832 net.cpp:399] conv3 -> conv3
I0403 13:37:26.917745 11832 net.cpp:141] Setting up conv3
I0403 13:37:26.917793 11832 net.cpp:148] Top shape: 100 384 13 13 (6489600)
I0403 13:37:26.917811 11832 net.cpp:156] Memory required for data: 705522800
I0403 13:37:26.917840 11832 layer_factory.hpp:77] Creating layer relu3
I0403 13:37:26.917862 11832 net.cpp:91] Creating Layer relu3
I0403 13:37:26.917879 11832 net.cpp:425] relu3 <- conv3
I0403 13:37:26.917897 11832 net.cpp:386] relu3 -> conv3 (in-place)
I0403 13:37:26.918170 11832 net.cpp:141] Setting up relu3
I0403 13:37:26.918196 11832 net.cpp:148] Top shape: 100 384 13 13 (6489600)
I0403 13:37:26.918211 11832 net.cpp:156] Memory required for data: 731481200
I0403 13:37:26.918226 11832 layer_factory.hpp:77] Creating layer conv4
I0403 13:37:26.918253 11832 net.cpp:91] Creating Layer conv4
I0403 13:37:26.918270 11832 net.cpp:425] conv4 <- conv3
I0403 13:37:26.918290 11832 net.cpp:399] conv4 -> conv4
I0403 13:37:26.947924 11832 net.cpp:141] Setting up conv4
I0403 13:37:26.947974 11832 net.cpp:148] Top shape: 100 384 13 13 (6489600)
I0403 13:37:26.948019 11832 net.cpp:156] Memory required for data: 757439600
I0403 13:37:26.948040 11832 layer_factory.hpp:77] Creating layer relu4
I0403 13:37:26.948062 11832 net.cpp:91] Creating Layer relu4
I0403 13:37:26.948079 11832 net.cpp:425] relu4 <- conv4
I0403 13:37:26.948096 11832 net.cpp:386] relu4 -> conv4 (in-place)
I0403 13:37:26.948377 11832 net.cpp:141] Setting up relu4
I0403 13:37:26.948405 11832 net.cpp:148] Top shape: 100 384 13 13 (6489600)
I0403 13:37:26.948420 11832 net.cpp:156] Memory required for data: 783398000
I0403 13:37:26.948436 11832 layer_factory.hpp:77] Creating layer conv5
I0403 13:37:26.948460 11832 net.cpp:91] Creating Layer conv5
I0403 13:37:26.948478 11832 net.cpp:425] conv5 <- conv4
I0403 13:37:26.948500 11832 net.cpp:399] conv5 -> conv5
I0403 13:37:26.968966 11832 net.cpp:141] Setting up conv5
I0403 13:37:26.969022 11832 net.cpp:148] Top shape: 100 256 13 13 (4326400)
I0403 13:37:26.969039 11832 net.cpp:156] Memory required for data: 800703600
I0403 13:37:26.969065 11832 layer_factory.hpp:77] Creating layer relu5
I0403 13:37:26.969089 11832 net.cpp:91] Creating Layer relu5
I0403 13:37:26.969107 11832 net.cpp:425] relu5 <- conv5
I0403 13:37:26.969132 11832 net.cpp:386] relu5 -> conv5 (in-place)
I0403 13:37:26.969411 11832 net.cpp:141] Setting up relu5
I0403 13:37:26.969439 11832 net.cpp:148] Top shape: 100 256 13 13 (4326400)
I0403 13:37:26.969455 11832 net.cpp:156] Memory required for data: 818009200
I0403 13:37:26.969468 11832 layer_factory.hpp:77] Creating layer pool5
I0403 13:37:26.969493 11832 net.cpp:91] Creating Layer pool5
I0403 13:37:26.969512 11832 net.cpp:425] pool5 <- conv5
I0403 13:37:26.969534 11832 net.cpp:399] pool5 -> pool5
I0403 13:37:26.969595 11832 net.cpp:141] Setting up pool5
I0403 13:37:26.969624 11832 net.cpp:148] Top shape: 100 256 6 6 (921600)
I0403 13:37:26.969640 11832 net.cpp:156] Memory required for data: 821695600
I0403 13:37:26.969655 11832 layer_factory.hpp:77] Creating layer fc6
I0403 13:37:26.969682 11832 net.cpp:91] Creating Layer fc6
I0403 13:37:26.969702 11832 net.cpp:425] fc6 <- pool5
I0403 13:37:26.969719 11832 net.cpp:399] fc6 -> fc6
I0403 13:37:28.499259 11832 net.cpp:141] Setting up fc6
I0403 13:37:28.499305 11832 net.cpp:148] Top shape: 100 4096 (409600)
I0403 13:37:28.499321 11832 net.cpp:156] Memory required for data: 823334000
I0403 13:37:28.499341 11832 layer_factory.hpp:77] Creating layer relu6
I0403 13:37:28.499362 11832 net.cpp:91] Creating Layer relu6
I0403 13:37:28.499378 11832 net.cpp:425] relu6 <- fc6
I0403 13:37:28.499399 11832 net.cpp:386] relu6 -> fc6 (in-place)
I0403 13:37:28.499613 11832 net.cpp:141] Setting up relu6
I0403 13:37:28.499637 11832 net.cpp:148] Top shape: 100 4096 (409600)
I0403 13:37:28.499651 11832 net.cpp:156] Memory required for data: 824972400
I0403 13:37:28.499665 11832 layer_factory.hpp:77] Creating layer drop6
I0403 13:37:28.499686 11832 net.cpp:91] Creating Layer drop6
I0403 13:37:28.499701 11832 net.cpp:425] drop6 <- fc6
I0403 13:37:28.499716 11832 net.cpp:386] drop6 -> fc6 (in-place)
I0403 13:37:28.499768 11832 net.cpp:141] Setting up drop6
I0403 13:37:28.499790 11832 net.cpp:148] Top shape: 100 4096 (409600)
I0403 13:37:28.499804 11832 net.cpp:156] Memory required for data: 826610800
I0403 13:37:28.499817 11832 layer_factory.hpp:77] Creating layer fc7
I0403 13:37:28.499836 11832 net.cpp:91] Creating Layer fc7
I0403 13:37:28.499851 11832 net.cpp:425] fc7 <- fc6
I0403 13:37:28.499872 11832 net.cpp:399] fc7 -> fc7
I0403 13:37:29.173424 11832 net.cpp:141] Setting up fc7
I0403 13:37:29.173462 11832 net.cpp:148] Top shape: 100 4096 (409600)
I0403 13:37:29.173478 11832 net.cpp:156] Memory required for data: 828249200
I0403 13:37:29.173498 11832 layer_factory.hpp:77] Creating layer relu7
I0403 13:37:29.173522 11832 net.cpp:91] Creating Layer relu7
I0403 13:37:29.173539 11832 net.cpp:425] relu7 <- fc7
I0403 13:37:29.173558 11832 net.cpp:386] relu7 -> fc7 (in-place)
I0403 13:37:29.173946 11832 net.cpp:141] Setting up relu7
I0403 13:37:29.173972 11832 net.cpp:148] Top shape: 100 4096 (409600)
I0403 13:37:29.174027 11832 net.cpp:156] Memory required for data: 829887600
I0403 13:37:29.174042 11832 layer_factory.hpp:77] Creating layer drop7
I0403 13:37:29.174062 11832 net.cpp:91] Creating Layer drop7
I0403 13:37:29.174078 11832 net.cpp:425] drop7 <- fc7
I0403 13:37:29.174095 11832 net.cpp:386] drop7 -> fc7 (in-place)
I0403 13:37:29.174139 11832 net.cpp:141] Setting up drop7
I0403 13:37:29.174160 11832 net.cpp:148] Top shape: 100 4096 (409600)
I0403 13:37:29.174175 11832 net.cpp:156] Memory required for data: 831526000
I0403 13:37:29.174188 11832 layer_factory.hpp:77] Creating layer fc8_plantvillage
I0403 13:37:29.174206 11832 net.cpp:91] Creating Layer fc8_plantvillage
I0403 13:37:29.174221 11832 net.cpp:425] fc8_plantvillage <- fc7
I0403 13:37:29.174240 11832 net.cpp:399] fc8_plantvillage -> fc8_plantvillage
I0403 13:37:29.180948 11832 net.cpp:141] Setting up fc8_plantvillage
I0403 13:37:29.180975 11832 net.cpp:148] Top shape: 100 38 (3800)
I0403 13:37:29.180990 11832 net.cpp:156] Memory required for data: 831541200
I0403 13:37:29.181008 11832 layer_factory.hpp:77] Creating layer fc8_plantvillage_fc8_plantvillage_0_split
I0403 13:37:29.181028 11832 net.cpp:91] Creating Layer fc8_plantvillage_fc8_plantvillage_0_split
I0403 13:37:29.181044 11832 net.cpp:425] fc8_plantvillage_fc8_plantvillage_0_split <- fc8_plantvillage
I0403 13:37:29.181062 11832 net.cpp:399] fc8_plantvillage_fc8_plantvillage_0_split -> fc8_plantvillage_fc8_plantvillage_0_split_0
I0403 13:37:29.181082 11832 net.cpp:399] fc8_plantvillage_fc8_plantvillage_0_split -> fc8_plantvillage_fc8_plantvillage_0_split_1
I0403 13:37:29.181104 11832 net.cpp:399] fc8_plantvillage_fc8_plantvillage_0_split -> fc8_plantvillage_fc8_plantvillage_0_split_2
I0403 13:37:29.181180 11832 net.cpp:141] Setting up fc8_plantvillage_fc8_plantvillage_0_split
I0403 13:37:29.181203 11832 net.cpp:148] Top shape: 100 38 (3800)
I0403 13:37:29.181219 11832 net.cpp:148] Top shape: 100 38 (3800)
I0403 13:37:29.181234 11832 net.cpp:148] Top shape: 100 38 (3800)
I0403 13:37:29.181248 11832 net.cpp:156] Memory required for data: 831586800
I0403 13:37:29.181264 11832 layer_factory.hpp:77] Creating layer prob
I0403 13:37:29.181284 11832 net.cpp:91] Creating Layer prob
I0403 13:37:29.181300 11832 net.cpp:425] prob <- fc8_plantvillage_fc8_plantvillage_0_split_0
I0403 13:37:29.181318 11832 net.cpp:399] prob -> prob
I0403 13:37:29.181540 11832 net.cpp:141] Setting up prob
I0403 13:37:29.181565 11832 net.cpp:148] Top shape: 100 38 (3800)
I0403 13:37:29.181579 11832 net.cpp:156] Memory required for data: 831602000
I0403 13:37:29.181593 11832 layer_factory.hpp:77] Creating layer hdf5out
I0403 13:37:29.181619 11832 net.cpp:91] Creating Layer hdf5out
I0403 13:37:29.181637 11832 net.cpp:425] hdf5out <- prob
I0403 13:37:29.181651 11832 net.cpp:425] hdf5out <- label_data_1_split_0
I0403 13:37:29.453956 11832 net.cpp:141] Setting up hdf5out
…
