…
I0403 13:41:12.778012 11922 net.cpp:313] The NetState phase (1) differed from the phase (0) specified by a rule in layer data
I0403 13:41:12.778748 11922 net.cpp:49] Initializing net from parameters: 
state {
  phase: TEST
}
layer {
  name: "data"
  type: "Data"
  top: "data"
  top: "label"
  include {
    phase: TEST
  }
  transform_param {
    crop_size: 227
    mean_file: "/home/mohanty/data/final_dataset/lmdb/grayscale-60-40/mean.binaryproto"
  }
  data_param {
    source: "/home/mohanty/data/final_dataset/lmdb/grayscale-60-40/test_db"
    batch_size: 100
    backend: LMDB
  }
}
layer {
  name: "conv1"
  type: "Convolution"
  bottom: "data"
  top: "conv1"
  param {
    lr_mult: 1
    decay_mult: 1
  }
  param {
    lr_mult: 2
    decay_mult: 0
  }
  convolution_param {
    num_output: 96
    kernel_size: 11
    stride: 4
    weight_filler {
      type: "gaussian"
      std: 0.01
    }
    bias_filler {
      type: "constant"
      value: 0
    }
  }
}
layer {
  name: "relu1"
  type: "ReLU"
  bottom: "conv1"
  top: "conv1"
}
layer {
  name: "norm1"
  type: "LRN"
  bottom: "conv1"
  top: "norm1"
  lrn_param {
    local_size: 5
    alpha: 0.0001
    beta: 0.75
  }
}
layer {
  name: "pool1"
  type: "Pooling"
  bottom: "norm1"
  top: "pool1"
  pooling_param {
    pool: MAX
    kernel_size: 3
    stride: 2
  }
}
layer {
  name: "conv2"
  type: "Convolution"
  bottom: "pool1"
  top: "conv2"
  param {
    lr_mult: 1
    decay_mult: 1
  }
  param {
    lr_mult: 2
    decay_mult: 0
  }
  convolution_param {
    num_output: 256
    pad: 2
    kernel_size: 5
    group: 2
    weight_filler {
      type: "gaussian"
      std: 0.01
    }
    bias_filler {
      type: "constant"
      value: 0.1
    }
  }
}
layer {
  name: "relu2"
  type: "ReLU"
  bottom: "conv2"
  top: "conv2"
}
layer {
  name: "norm2"
  type: "LRN"
  bottom: "conv2"
  top: "norm2"
  lrn_param {
    local_size: 5
    alpha: 0.0001
    beta: 0.75
  }
}
layer {
  name: "pool2"
  type: "Pooling"
  bottom: "norm2"
  top: "pool2"
  pooling_param {
    pool: MAX
    kernel_size: 3
    stride: 2
  }
}
layer {
  name: "conv3"
  type: "Convolution"
  bottom: "pool2"
  top: "conv3"
  param {
    lr_mult: 1
    decay_mult: 1
  }
  param {
    lr_mult: 2
    decay_mult: 0
  }
  convolution_param {
    num_output: 384
    pad: 1
    kernel_size: 3
    weight_filler {
      type: "gaussian"
      std: 0.01
    }
    bias_filler {
      type: "constant"
      value: 0
    }
  }
}
layer {
  name: "relu3"
  type: "ReLU"
  bottom: "conv3"
  top: "conv3"
}
layer {
  name: "conv4"
  type: "Convolution"
  bottom: "conv3"
  top: "conv4"
  param {
    lr_mult: 1
    decay_mult: 1
  }
  param {
    lr_mult: 2
    decay_mult: 0
  }
  convolution_param {
    num_output: 384
    pad: 1
    kernel_size: 3
    group: 2
    weight_filler {
      type: "gaussian"
      std: 0.01
    }
    bias_filler {
      type: "constant"
      value: 0.1
    }
  }
}
layer {
  name: "relu4"
  type: "ReLU"
  bottom: "conv4"
  top: "conv4"
}
layer {
  name: "conv5"
  type: "Convolution"
  bottom: "conv4"
  top: "conv5"
  param {
    lr_mult: 1
    decay_mult: 1
  }
  param {
    lr_mult: 2
    decay_mult: 0
  }
  convolution_param {
    num_output: 256
    pad: 1
    kernel_size: 3
    group: 2
    weight_filler {
      type: "gaussian"
      std: 0.01
    }
    bias_filler {
      type: "constant"
      value: 0.1
    }
  }
}
layer {
  name: "relu5"
  type: "ReLU"
  bottom: "conv5"
  top: "conv5"
}
layer {
  name: "pool5"
  type: "Pooling"
  bottom: "conv5"
  top: "pool5"
  pooling_param {
    pool: MAX
    kernel_size: 3
    stride: 2
  }
}
layer {
  name: "fc6"
  type: "InnerProduct"
  bottom: "pool5"
  top: "fc6"
  param {
    lr_mult: 1
    decay_mult: 1
  }
  param {
    lr_mult: 2
    decay_mult: 0
  }
  inner_product_param {
    num_output: 4096
    weight_filler {
      type: "gaussian"
      std: 0.005
    }
    bias_filler {
      type: "constant"
      value: 0.1
    }
  }
}
layer {
  name: "relu6"
  type: "ReLU"
  bottom: "fc6"
  top: "fc6"
}
layer {
  name: "drop6"
  type: "Dropout"
  bottom: "fc6"
  top: "fc6"
  dropout_param {
    dropout_ratio: 0.5
  }
}
layer {
  name: "fc7"
  type: "InnerProduct"
  bottom: "fc6"
  top: "fc7"
  param {
    lr_mult: 1
    decay_mult: 1
  }
  param {
    lr_mult: 2
    decay_mult: 0
  }
  inner_product_param {
    num_output: 4096
    weight_filler {
      type: "gaussian"
      std: 0.005
    }
    bias_filler {
      type: "constant"
      value: 0.1
    }
  }
}
layer {
  name: "relu7"
  type: "ReLU"
  bottom: "fc7"
  top: "fc7"
}
layer {
  name: "drop7"
  type: "Dropout"
  bottom: "fc7"
  top: "fc7"
  dropout_param {
    dropout_ratio: 0.5
  }
}
layer {
  name: "fc8_plantvillage"
  type: "InnerProduct"
  bottom: "fc7"
  top: "fc8_plantvillage"
  param {
    lr_mult: 1
    decay_mult: 1
  }
  param {
    lr_mult: 2
    decay_mult: 0
  }
  inner_product_param {
    num_output: 38
    weight_filler {
      type: "gaussian"
      std: 0.01
    }
    bias_filler {
      type: "constant"
      value: 0
    }
  }
}
layer {
  name: "prob"
  type: "Softmax"
  bottom: "fc8_plantvillage"
  top: "prob"
  include {
    phase: TEST
  }
}
layer {
  name: "hdf5out"
  type: "HDF5Output"
  bottom: "prob"
  bottom: "label"
  include {
    phase: TEST
  }
  hdf5_output_param {
    file_name: "hdf5_dumps/iter_2275.h5"
  }
}
layer {
  name: "loss"
  type: "SoftmaxWithLoss"
  bottom: "fc8_plantvillage"
  bottom: "label"
  top: "loss"
}
layer {
  name: "accuracy"
  type: "Accuracy"
  bottom: "fc8_plantvillage"
  bottom: "label"
  top: "accuracy"
  include {
    phase: TEST
  }
}
I0403 13:41:12.779965 11922 layer_factory.hpp:77] Creating layer data
I0403 13:41:12.781587 11922 net.cpp:91] Creating Layer data
I0403 13:41:12.781677 11922 net.cpp:399] data -> data
I0403 13:41:12.781791 11922 net.cpp:399] data -> label
I0403 13:41:12.781877 11922 data_transformer.cpp:25] Loading mean file from: /home/mohanty/data/final_dataset/lmdb/grayscale-60-40/mean.binaryproto
I0403 13:41:12.789425 11926 db_lmdb.cpp:38] Opened lmdb /home/mohanty/data/final_dataset/lmdb/grayscale-60-40/test_db
I0403 13:41:12.803650 11922 data_layer.cpp:41] output data size: 100,3,227,227
I0403 13:41:12.922786 11922 net.cpp:141] Setting up data
I0403 13:41:12.922878 11922 net.cpp:148] Top shape: 100 3 227 227 (15458700)
I0403 13:41:12.922901 11922 net.cpp:148] Top shape: 100 (100)
I0403 13:41:12.922919 11922 net.cpp:156] Memory required for data: 61835200
I0403 13:41:12.922946 11922 layer_factory.hpp:77] Creating layer label_data_1_split
I0403 13:41:12.922972 11922 net.cpp:91] Creating Layer label_data_1_split
I0403 13:41:12.922991 11922 net.cpp:425] label_data_1_split <- label
I0403 13:41:12.923022 11922 net.cpp:399] label_data_1_split -> label_data_1_split_0
I0403 13:41:12.923049 11922 net.cpp:399] label_data_1_split -> label_data_1_split_1
I0403 13:41:12.923069 11922 net.cpp:399] label_data_1_split -> label_data_1_split_2
I0403 13:41:12.923132 11922 net.cpp:141] Setting up label_data_1_split
I0403 13:41:12.923156 11922 net.cpp:148] Top shape: 100 (100)
I0403 13:41:12.923172 11922 net.cpp:148] Top shape: 100 (100)
I0403 13:41:12.923188 11922 net.cpp:148] Top shape: 100 (100)
I0403 13:41:12.923202 11922 net.cpp:156] Memory required for data: 61836400
I0403 13:41:12.923216 11922 layer_factory.hpp:77] Creating layer conv1
I0403 13:41:12.923249 11922 net.cpp:91] Creating Layer conv1
I0403 13:41:12.923269 11922 net.cpp:425] conv1 <- data
I0403 13:41:12.923287 11922 net.cpp:399] conv1 -> conv1
I0403 13:41:13.066956 11922 net.cpp:141] Setting up conv1
I0403 13:41:13.067031 11922 net.cpp:148] Top shape: 100 96 55 55 (29040000)
I0403 13:41:13.067049 11922 net.cpp:156] Memory required for data: 177996400
I0403 13:41:13.067081 11922 layer_factory.hpp:77] Creating layer relu1
I0403 13:41:13.067109 11922 net.cpp:91] Creating Layer relu1
I0403 13:41:13.067128 11922 net.cpp:425] relu1 <- conv1
I0403 13:41:13.067147 11922 net.cpp:386] relu1 -> conv1 (in-place)
I0403 13:41:13.067412 11922 net.cpp:141] Setting up relu1
I0403 13:41:13.067441 11922 net.cpp:148] Top shape: 100 96 55 55 (29040000)
I0403 13:41:13.067564 11922 net.cpp:156] Memory required for data: 294156400
I0403 13:41:13.067587 11922 layer_factory.hpp:77] Creating layer norm1
I0403 13:41:13.067623 11922 net.cpp:91] Creating Layer norm1
I0403 13:41:13.067643 11922 net.cpp:425] norm1 <- conv1
I0403 13:41:13.067662 11922 net.cpp:399] norm1 -> norm1
I0403 13:41:13.067980 11922 net.cpp:141] Setting up norm1
I0403 13:41:13.068007 11922 net.cpp:148] Top shape: 100 96 55 55 (29040000)
I0403 13:41:13.068023 11922 net.cpp:156] Memory required for data: 410316400
I0403 13:41:13.068038 11922 layer_factory.hpp:77] Creating layer pool1
I0403 13:41:13.068060 11922 net.cpp:91] Creating Layer pool1
I0403 13:41:13.068078 11922 net.cpp:425] pool1 <- norm1
I0403 13:41:13.068095 11922 net.cpp:399] pool1 -> pool1
I0403 13:41:13.068163 11922 net.cpp:141] Setting up pool1
I0403 13:41:13.068187 11922 net.cpp:148] Top shape: 100 96 27 27 (6998400)
I0403 13:41:13.068202 11922 net.cpp:156] Memory required for data: 438310000
I0403 13:41:13.068217 11922 layer_factory.hpp:77] Creating layer conv2
I0403 13:41:13.068241 11922 net.cpp:91] Creating Layer conv2
I0403 13:41:13.068260 11922 net.cpp:425] conv2 <- pool1
I0403 13:41:13.068277 11922 net.cpp:399] conv2 -> conv2
I0403 13:41:13.083575 11922 net.cpp:141] Setting up conv2
I0403 13:41:13.083629 11922 net.cpp:148] Top shape: 100 256 27 27 (18662400)
I0403 13:41:13.083647 11922 net.cpp:156] Memory required for data: 512959600
I0403 13:41:13.083672 11922 layer_factory.hpp:77] Creating layer relu2
I0403 13:41:13.083693 11922 net.cpp:91] Creating Layer relu2
I0403 13:41:13.083709 11922 net.cpp:425] relu2 <- conv2
I0403 13:41:13.083729 11922 net.cpp:386] relu2 -> conv2 (in-place)
I0403 13:41:13.084004 11922 net.cpp:141] Setting up relu2
I0403 13:41:13.084033 11922 net.cpp:148] Top shape: 100 256 27 27 (18662400)
I0403 13:41:13.084048 11922 net.cpp:156] Memory required for data: 587609200
I0403 13:41:13.084064 11922 layer_factory.hpp:77] Creating layer norm2
I0403 13:41:13.084084 11922 net.cpp:91] Creating Layer norm2
I0403 13:41:13.084101 11922 net.cpp:425] norm2 <- conv2
I0403 13:41:13.084120 11922 net.cpp:399] norm2 -> norm2
I0403 13:41:13.084314 11922 net.cpp:141] Setting up norm2
I0403 13:41:13.084342 11922 net.cpp:148] Top shape: 100 256 27 27 (18662400)
I0403 13:41:13.084357 11922 net.cpp:156] Memory required for data: 662258800
I0403 13:41:13.084372 11922 layer_factory.hpp:77] Creating layer pool2
I0403 13:41:13.084390 11922 net.cpp:91] Creating Layer pool2
I0403 13:41:13.084406 11922 net.cpp:425] pool2 <- norm2
I0403 13:41:13.084424 11922 net.cpp:399] pool2 -> pool2
I0403 13:41:13.084476 11922 net.cpp:141] Setting up pool2
I0403 13:41:13.084501 11922 net.cpp:148] Top shape: 100 256 13 13 (4326400)
I0403 13:41:13.084516 11922 net.cpp:156] Memory required for data: 679564400
I0403 13:41:13.084529 11922 layer_factory.hpp:77] Creating layer conv3
I0403 13:41:13.084550 11922 net.cpp:91] Creating Layer conv3
I0403 13:41:13.084566 11922 net.cpp:425] conv3 <- pool2
I0403 13:41:13.084585 11922 net.cpp:399] conv3 -> conv3
I0403 13:41:13.124094 11922 net.cpp:141] Setting up conv3
I0403 13:41:13.124152 11922 net.cpp:148] Top shape: 100 384 13 13 (6489600)
I0403 13:41:13.124168 11922 net.cpp:156] Memory required for data: 705522800
I0403 13:41:13.124192 11922 layer_factory.hpp:77] Creating layer relu3
I0403 13:41:13.124212 11922 net.cpp:91] Creating Layer relu3
I0403 13:41:13.124229 11922 net.cpp:425] relu3 <- conv3
I0403 13:41:13.124250 11922 net.cpp:386] relu3 -> conv3 (in-place)
I0403 13:41:13.124524 11922 net.cpp:141] Setting up relu3
I0403 13:41:13.124552 11922 net.cpp:148] Top shape: 100 384 13 13 (6489600)
I0403 13:41:13.124567 11922 net.cpp:156] Memory required for data: 731481200
I0403 13:41:13.124583 11922 layer_factory.hpp:77] Creating layer conv4
I0403 13:41:13.124615 11922 net.cpp:91] Creating Layer conv4
I0403 13:41:13.124635 11922 net.cpp:425] conv4 <- conv3
I0403 13:41:13.124656 11922 net.cpp:399] conv4 -> conv4
I0403 13:41:13.154172 11922 net.cpp:141] Setting up conv4
I0403 13:41:13.154227 11922 net.cpp:148] Top shape: 100 384 13 13 (6489600)
I0403 13:41:13.154281 11922 net.cpp:156] Memory required for data: 757439600
I0403 13:41:13.154304 11922 layer_factory.hpp:77] Creating layer relu4
I0403 13:41:13.154325 11922 net.cpp:91] Creating Layer relu4
I0403 13:41:13.154343 11922 net.cpp:425] relu4 <- conv4
I0403 13:41:13.154361 11922 net.cpp:386] relu4 -> conv4 (in-place)
I0403 13:41:13.154659 11922 net.cpp:141] Setting up relu4
I0403 13:41:13.154690 11922 net.cpp:148] Top shape: 100 384 13 13 (6489600)
I0403 13:41:13.154706 11922 net.cpp:156] Memory required for data: 783398000
I0403 13:41:13.154722 11922 layer_factory.hpp:77] Creating layer conv5
I0403 13:41:13.154749 11922 net.cpp:91] Creating Layer conv5
I0403 13:41:13.154767 11922 net.cpp:425] conv5 <- conv4
I0403 13:41:13.154785 11922 net.cpp:399] conv5 -> conv5
I0403 13:41:13.175328 11922 net.cpp:141] Setting up conv5
I0403 13:41:13.175390 11922 net.cpp:148] Top shape: 100 256 13 13 (4326400)
I0403 13:41:13.175410 11922 net.cpp:156] Memory required for data: 800703600
I0403 13:41:13.175437 11922 layer_factory.hpp:77] Creating layer relu5
I0403 13:41:13.175460 11922 net.cpp:91] Creating Layer relu5
I0403 13:41:13.175479 11922 net.cpp:425] relu5 <- conv5
I0403 13:41:13.175503 11922 net.cpp:386] relu5 -> conv5 (in-place)
I0403 13:41:13.175812 11922 net.cpp:141] Setting up relu5
I0403 13:41:13.175839 11922 net.cpp:148] Top shape: 100 256 13 13 (4326400)
I0403 13:41:13.175855 11922 net.cpp:156] Memory required for data: 818009200
I0403 13:41:13.175871 11922 layer_factory.hpp:77] Creating layer pool5
I0403 13:41:13.175907 11922 net.cpp:91] Creating Layer pool5
I0403 13:41:13.175928 11922 net.cpp:425] pool5 <- conv5
I0403 13:41:13.175950 11922 net.cpp:399] pool5 -> pool5
I0403 13:41:13.176014 11922 net.cpp:141] Setting up pool5
I0403 13:41:13.176038 11922 net.cpp:148] Top shape: 100 256 6 6 (921600)
I0403 13:41:13.176054 11922 net.cpp:156] Memory required for data: 821695600
I0403 13:41:13.176069 11922 layer_factory.hpp:77] Creating layer fc6
I0403 13:41:13.176095 11922 net.cpp:91] Creating Layer fc6
I0403 13:41:13.176112 11922 net.cpp:425] fc6 <- pool5
I0403 13:41:13.176133 11922 net.cpp:399] fc6 -> fc6
I0403 13:41:14.708523 11922 net.cpp:141] Setting up fc6
I0403 13:41:14.708591 11922 net.cpp:148] Top shape: 100 4096 (409600)
I0403 13:41:14.708613 11922 net.cpp:156] Memory required for data: 823334000
I0403 13:41:14.708634 11922 layer_factory.hpp:77] Creating layer relu6
I0403 13:41:14.708657 11922 net.cpp:91] Creating Layer relu6
I0403 13:41:14.708673 11922 net.cpp:425] relu6 <- fc6
I0403 13:41:14.708691 11922 net.cpp:386] relu6 -> fc6 (in-place)
I0403 13:41:14.708907 11922 net.cpp:141] Setting up relu6
I0403 13:41:14.708931 11922 net.cpp:148] Top shape: 100 4096 (409600)
I0403 13:41:14.708945 11922 net.cpp:156] Memory required for data: 824972400
I0403 13:41:14.708959 11922 layer_factory.hpp:77] Creating layer drop6
I0403 13:41:14.708977 11922 net.cpp:91] Creating Layer drop6
I0403 13:41:14.708992 11922 net.cpp:425] drop6 <- fc6
I0403 13:41:14.709010 11922 net.cpp:386] drop6 -> fc6 (in-place)
I0403 13:41:14.709060 11922 net.cpp:141] Setting up drop6
I0403 13:41:14.709081 11922 net.cpp:148] Top shape: 100 4096 (409600)
I0403 13:41:14.709095 11922 net.cpp:156] Memory required for data: 826610800
I0403 13:41:14.709110 11922 layer_factory.hpp:77] Creating layer fc7
I0403 13:41:14.709131 11922 net.cpp:91] Creating Layer fc7
I0403 13:41:14.709147 11922 net.cpp:425] fc7 <- fc6
I0403 13:41:14.709167 11922 net.cpp:399] fc7 -> fc7
I0403 13:41:15.384484 11922 net.cpp:141] Setting up fc7
I0403 13:41:15.384544 11922 net.cpp:148] Top shape: 100 4096 (409600)
I0403 13:41:15.384559 11922 net.cpp:156] Memory required for data: 828249200
I0403 13:41:15.384580 11922 layer_factory.hpp:77] Creating layer relu7
I0403 13:41:15.384611 11922 net.cpp:91] Creating Layer relu7
I0403 13:41:15.384630 11922 net.cpp:425] relu7 <- fc7
I0403 13:41:15.384652 11922 net.cpp:386] relu7 -> fc7 (in-place)
I0403 13:41:15.385057 11922 net.cpp:141] Setting up relu7
I0403 13:41:15.385083 11922 net.cpp:148] Top shape: 100 4096 (409600)
I0403 13:41:15.385133 11922 net.cpp:156] Memory required for data: 829887600
I0403 13:41:15.385149 11922 layer_factory.hpp:77] Creating layer drop7
I0403 13:41:15.385166 11922 net.cpp:91] Creating Layer drop7
I0403 13:41:15.385181 11922 net.cpp:425] drop7 <- fc7
I0403 13:41:15.385200 11922 net.cpp:386] drop7 -> fc7 (in-place)
I0403 13:41:15.385241 11922 net.cpp:141] Setting up drop7
I0403 13:41:15.385265 11922 net.cpp:148] Top shape: 100 4096 (409600)
I0403 13:41:15.385279 11922 net.cpp:156] Memory required for data: 831526000
I0403 13:41:15.385293 11922 layer_factory.hpp:77] Creating layer fc8_plantvillage
I0403 13:41:15.385313 11922 net.cpp:91] Creating Layer fc8_plantvillage
I0403 13:41:15.385326 11922 net.cpp:425] fc8_plantvillage <- fc7
I0403 13:41:15.385345 11922 net.cpp:399] fc8_plantvillage -> fc8_plantvillage
I0403 13:41:15.391926 11922 net.cpp:141] Setting up fc8_plantvillage
I0403 13:41:15.391953 11922 net.cpp:148] Top shape: 100 38 (3800)
I0403 13:41:15.391969 11922 net.cpp:156] Memory required for data: 831541200
I0403 13:41:15.391988 11922 layer_factory.hpp:77] Creating layer fc8_plantvillage_fc8_plantvillage_0_split
I0403 13:41:15.392007 11922 net.cpp:91] Creating Layer fc8_plantvillage_fc8_plantvillage_0_split
I0403 13:41:15.392022 11922 net.cpp:425] fc8_plantvillage_fc8_plantvillage_0_split <- fc8_plantvillage
I0403 13:41:15.392042 11922 net.cpp:399] fc8_plantvillage_fc8_plantvillage_0_split -> fc8_plantvillage_fc8_plantvillage_0_split_0
I0403 13:41:15.392062 11922 net.cpp:399] fc8_plantvillage_fc8_plantvillage_0_split -> fc8_plantvillage_fc8_plantvillage_0_split_1
I0403 13:41:15.392081 11922 net.cpp:399] fc8_plantvillage_fc8_plantvillage_0_split -> fc8_plantvillage_fc8_plantvillage_0_split_2
I0403 13:41:15.392156 11922 net.cpp:141] Setting up fc8_plantvillage_fc8_plantvillage_0_split
I0403 13:41:15.392181 11922 net.cpp:148] Top shape: 100 38 (3800)
I0403 13:41:15.392197 11922 net.cpp:148] Top shape: 100 38 (3800)
I0403 13:41:15.392212 11922 net.cpp:148] Top shape: 100 38 (3800)
I0403 13:41:15.392225 11922 net.cpp:156] Memory required for data: 831586800
I0403 13:41:15.392240 11922 layer_factory.hpp:77] Creating layer prob
I0403 13:41:15.392256 11922 net.cpp:91] Creating Layer prob
I0403 13:41:15.392271 11922 net.cpp:425] prob <- fc8_plantvillage_fc8_plantvillage_0_split_0
I0403 13:41:15.392287 11922 net.cpp:399] prob -> prob
I0403 13:41:15.392513 11922 net.cpp:141] Setting up prob
I0403 13:41:15.392537 11922 net.cpp:148] Top shape: 100 38 (3800)
I0403 13:41:15.392551 11922 net.cpp:156] Memory required for data: 831602000
I0403 13:41:15.392565 11922 layer_factory.hpp:77] Creating layer hdf5out
I0403 13:41:15.392582 11922 net.cpp:91] Creating Layer hdf5out
I0403 13:41:15.392602 11922 net.cpp:425] hdf5out <- prob
I0403 13:41:15.392621 11922 net.cpp:425] hdf5out <- label_data_1_split_0
I0403 13:41:15.395037 11922 net.cpp:141] Setting up hdf5out
…
