…
I0403 13:44:58.653784 12011 net.cpp:313] The NetState phase (1) differed from the phase (0) specified by a rule in layer data
I0403 13:44:58.654105 12011 net.cpp:49] Initializing net from parameters: 
state {
  phase: TEST
}
layer {
  name: "data"
  type: "Data"
  top: "data"
  top: "label"
  include {
    phase: TEST
  }
  transform_param {
    crop_size: 227
    mean_file: "/home/mohanty/data/final_dataset/lmdb/grayscale-60-40/mean.binaryproto"
  }
  data_param {
    source: "/home/mohanty/data/final_dataset/lmdb/grayscale-60-40/test_db"
    batch_size: 100
    backend: LMDB
  }
}
layer {
  name: "conv1"
  type: "Convolution"
  bottom: "data"
  top: "conv1"
  param {
    lr_mult: 1
    decay_mult: 1
  }
  param {
    lr_mult: 2
    decay_mult: 0
  }
  convolution_param {
    num_output: 96
    kernel_size: 11
    stride: 4
    weight_filler {
      type: "gaussian"
      std: 0.01
    }
    bias_filler {
      type: "constant"
      value: 0
    }
  }
}
layer {
  name: "relu1"
  type: "ReLU"
  bottom: "conv1"
  top: "conv1"
}
layer {
  name: "norm1"
  type: "LRN"
  bottom: "conv1"
  top: "norm1"
  lrn_param {
    local_size: 5
    alpha: 0.0001
    beta: 0.75
  }
}
layer {
  name: "pool1"
  type: "Pooling"
  bottom: "norm1"
  top: "pool1"
  pooling_param {
    pool: MAX
    kernel_size: 3
    stride: 2
  }
}
layer {
  name: "conv2"
  type: "Convolution"
  bottom: "pool1"
  top: "conv2"
  param {
    lr_mult: 1
    decay_mult: 1
  }
  param {
    lr_mult: 2
    decay_mult: 0
  }
  convolution_param {
    num_output: 256
    pad: 2
    kernel_size: 5
    group: 2
    weight_filler {
      type: "gaussian"
      std: 0.01
    }
    bias_filler {
      type: "constant"
      value: 0.1
    }
  }
}
layer {
  name: "relu2"
  type: "ReLU"
  bottom: "conv2"
  top: "conv2"
}
layer {
  name: "norm2"
  type: "LRN"
  bottom: "conv2"
  top: "norm2"
  lrn_param {
    local_size: 5
    alpha: 0.0001
    beta: 0.75
  }
}
layer {
  name: "pool2"
  type: "Pooling"
  bottom: "norm2"
  top: "pool2"
  pooling_param {
    pool: MAX
    kernel_size: 3
    stride: 2
  }
}
layer {
  name: "conv3"
  type: "Convolution"
  bottom: "pool2"
  top: "conv3"
  param {
    lr_mult: 1
    decay_mult: 1
  }
  param {
    lr_mult: 2
    decay_mult: 0
  }
  convolution_param {
    num_output: 384
    pad: 1
    kernel_size: 3
    weight_filler {
      type: "gaussian"
      std: 0.01
    }
    bias_filler {
      type: "constant"
      value: 0
    }
  }
}
layer {
  name: "relu3"
  type: "ReLU"
  bottom: "conv3"
  top: "conv3"
}
layer {
  name: "conv4"
  type: "Convolution"
  bottom: "conv3"
  top: "conv4"
  param {
    lr_mult: 1
    decay_mult: 1
  }
  param {
    lr_mult: 2
    decay_mult: 0
  }
  convolution_param {
    num_output: 384
    pad: 1
    kernel_size: 3
    group: 2
    weight_filler {
      type: "gaussian"
      std: 0.01
    }
    bias_filler {
      type: "constant"
      value: 0.1
    }
  }
}
layer {
  name: "relu4"
  type: "ReLU"
  bottom: "conv4"
  top: "conv4"
}
layer {
  name: "conv5"
  type: "Convolution"
  bottom: "conv4"
  top: "conv5"
  param {
    lr_mult: 1
    decay_mult: 1
  }
  param {
    lr_mult: 2
    decay_mult: 0
  }
  convolution_param {
    num_output: 256
    pad: 1
    kernel_size: 3
    group: 2
    weight_filler {
      type: "gaussian"
      std: 0.01
    }
    bias_filler {
      type: "constant"
      value: 0.1
    }
  }
}
layer {
  name: "relu5"
  type: "ReLU"
  bottom: "conv5"
  top: "conv5"
}
layer {
  name: "pool5"
  type: "Pooling"
  bottom: "conv5"
  top: "pool5"
  pooling_param {
    pool: MAX
    kernel_size: 3
    stride: 2
  }
}
layer {
  name: "fc6"
  type: "InnerProduct"
  bottom: "pool5"
  top: "fc6"
  param {
    lr_mult: 1
    decay_mult: 1
  }
  param {
    lr_mult: 2
    decay_mult: 0
  }
  inner_product_param {
    num_output: 4096
    weight_filler {
      type: "gaussian"
      std: 0.005
    }
    bias_filler {
      type: "constant"
      value: 0.1
    }
  }
}
layer {
  name: "relu6"
  type: "ReLU"
  bottom: "fc6"
  top: "fc6"
}
layer {
  name: "drop6"
  type: "Dropout"
  bottom: "fc6"
  top: "fc6"
  dropout_param {
    dropout_ratio: 0.5
  }
}
layer {
  name: "fc7"
  type: "InnerProduct"
  bottom: "fc6"
  top: "fc7"
  param {
    lr_mult: 1
    decay_mult: 1
  }
  param {
    lr_mult: 2
    decay_mult: 0
  }
  inner_product_param {
    num_output: 4096
    weight_filler {
      type: "gaussian"
      std: 0.005
    }
    bias_filler {
      type: "constant"
      value: 0.1
    }
  }
}
layer {
  name: "relu7"
  type: "ReLU"
  bottom: "fc7"
  top: "fc7"
}
layer {
  name: "drop7"
  type: "Dropout"
  bottom: "fc7"
  top: "fc7"
  dropout_param {
    dropout_ratio: 0.5
  }
}
layer {
  name: "fc8_plantvillage"
  type: "InnerProduct"
  bottom: "fc7"
  top: "fc8_plantvillage"
  param {
    lr_mult: 1
    decay_mult: 1
  }
  param {
    lr_mult: 2
    decay_mult: 0
  }
  inner_product_param {
    num_output: 38
    weight_filler {
      type: "gaussian"
      std: 0.01
    }
    bias_filler {
      type: "constant"
      value: 0
    }
  }
}
layer {
  name: "prob"
  type: "Softmax"
  bottom: "fc8_plantvillage"
  top: "prob"
  include {
    phase: TEST
  }
}
layer {
  name: "hdf5out"
  type: "HDF5Output"
  bottom: "prob"
  bottom: "label"
  include {
    phase: TEST
  }
  hdf5_output_param {
    file_name: "hdf5_dumps/iter_3900.h5"
  }
}
layer {
  name: "loss"
  type: "SoftmaxWithLoss"
  bottom: "fc8_plantvillage"
  bottom: "label"
  top: "loss"
}
layer {
  name: "accuracy"
  type: "Accuracy"
  bottom: "fc8_plantvillage"
  bottom: "label"
  top: "accuracy"
  include {
    phase: TEST
  }
}
I0403 13:44:58.654683 12011 layer_factory.hpp:77] Creating layer data
I0403 13:44:58.655344 12011 net.cpp:91] Creating Layer data
I0403 13:44:58.655376 12011 net.cpp:399] data -> data
I0403 13:44:58.655428 12011 net.cpp:399] data -> label
I0403 13:44:58.655464 12011 data_transformer.cpp:25] Loading mean file from: /home/mohanty/data/final_dataset/lmdb/grayscale-60-40/mean.binaryproto
I0403 13:44:58.658378 12015 db_lmdb.cpp:38] Opened lmdb /home/mohanty/data/final_dataset/lmdb/grayscale-60-40/test_db
I0403 13:44:58.670145 12011 data_layer.cpp:41] output data size: 100,3,227,227
I0403 13:44:58.789129 12011 net.cpp:141] Setting up data
I0403 13:44:58.789202 12011 net.cpp:148] Top shape: 100 3 227 227 (15458700)
I0403 13:44:58.789223 12011 net.cpp:148] Top shape: 100 (100)
I0403 13:44:58.789238 12011 net.cpp:156] Memory required for data: 61835200
I0403 13:44:58.789265 12011 layer_factory.hpp:77] Creating layer label_data_1_split
I0403 13:44:58.789289 12011 net.cpp:91] Creating Layer label_data_1_split
I0403 13:44:58.789307 12011 net.cpp:425] label_data_1_split <- label
I0403 13:44:58.789338 12011 net.cpp:399] label_data_1_split -> label_data_1_split_0
I0403 13:44:58.789364 12011 net.cpp:399] label_data_1_split -> label_data_1_split_1
I0403 13:44:58.789384 12011 net.cpp:399] label_data_1_split -> label_data_1_split_2
I0403 13:44:58.789445 12011 net.cpp:141] Setting up label_data_1_split
I0403 13:44:58.789468 12011 net.cpp:148] Top shape: 100 (100)
I0403 13:44:58.789484 12011 net.cpp:148] Top shape: 100 (100)
I0403 13:44:58.789499 12011 net.cpp:148] Top shape: 100 (100)
I0403 13:44:58.789512 12011 net.cpp:156] Memory required for data: 61836400
I0403 13:44:58.789526 12011 layer_factory.hpp:77] Creating layer conv1
I0403 13:44:58.789556 12011 net.cpp:91] Creating Layer conv1
I0403 13:44:58.789580 12011 net.cpp:425] conv1 <- data
I0403 13:44:58.789600 12011 net.cpp:399] conv1 -> conv1
I0403 13:44:58.932492 12011 net.cpp:141] Setting up conv1
I0403 13:44:58.932535 12011 net.cpp:148] Top shape: 100 96 55 55 (29040000)
I0403 13:44:58.932553 12011 net.cpp:156] Memory required for data: 177996400
I0403 13:44:58.932587 12011 layer_factory.hpp:77] Creating layer relu1
I0403 13:44:58.932616 12011 net.cpp:91] Creating Layer relu1
I0403 13:44:58.932636 12011 net.cpp:425] relu1 <- conv1
I0403 13:44:58.932656 12011 net.cpp:386] relu1 -> conv1 (in-place)
I0403 13:44:58.932917 12011 net.cpp:141] Setting up relu1
I0403 13:44:58.932945 12011 net.cpp:148] Top shape: 100 96 55 55 (29040000)
I0403 13:44:58.932981 12011 net.cpp:156] Memory required for data: 294156400
I0403 13:44:58.932997 12011 layer_factory.hpp:77] Creating layer norm1
I0403 13:44:58.933025 12011 net.cpp:91] Creating Layer norm1
I0403 13:44:58.933043 12011 net.cpp:425] norm1 <- conv1
I0403 13:44:58.933061 12011 net.cpp:399] norm1 -> norm1
I0403 13:44:58.933444 12011 net.cpp:141] Setting up norm1
I0403 13:44:58.933472 12011 net.cpp:148] Top shape: 100 96 55 55 (29040000)
I0403 13:44:58.933488 12011 net.cpp:156] Memory required for data: 410316400
I0403 13:44:58.933503 12011 layer_factory.hpp:77] Creating layer pool1
I0403 13:44:58.933526 12011 net.cpp:91] Creating Layer pool1
I0403 13:44:58.933543 12011 net.cpp:425] pool1 <- norm1
I0403 13:44:58.933562 12011 net.cpp:399] pool1 -> pool1
I0403 13:44:58.933632 12011 net.cpp:141] Setting up pool1
I0403 13:44:58.933668 12011 net.cpp:148] Top shape: 100 96 27 27 (6998400)
I0403 13:44:58.933682 12011 net.cpp:156] Memory required for data: 438310000
I0403 13:44:58.933697 12011 layer_factory.hpp:77] Creating layer conv2
I0403 13:44:58.933720 12011 net.cpp:91] Creating Layer conv2
I0403 13:44:58.933737 12011 net.cpp:425] conv2 <- pool1
I0403 13:44:58.933753 12011 net.cpp:399] conv2 -> conv2
I0403 13:44:58.948523 12011 net.cpp:141] Setting up conv2
I0403 13:44:58.948559 12011 net.cpp:148] Top shape: 100 256 27 27 (18662400)
I0403 13:44:58.948580 12011 net.cpp:156] Memory required for data: 512959600
I0403 13:44:58.948601 12011 layer_factory.hpp:77] Creating layer relu2
I0403 13:44:58.948621 12011 net.cpp:91] Creating Layer relu2
I0403 13:44:58.948637 12011 net.cpp:425] relu2 <- conv2
I0403 13:44:58.948652 12011 net.cpp:386] relu2 -> conv2 (in-place)
I0403 13:44:58.948915 12011 net.cpp:141] Setting up relu2
I0403 13:44:58.948941 12011 net.cpp:148] Top shape: 100 256 27 27 (18662400)
I0403 13:44:58.948956 12011 net.cpp:156] Memory required for data: 587609200
I0403 13:44:58.948972 12011 layer_factory.hpp:77] Creating layer norm2
I0403 13:44:58.948992 12011 net.cpp:91] Creating Layer norm2
I0403 13:44:58.949008 12011 net.cpp:425] norm2 <- conv2
I0403 13:44:58.949025 12011 net.cpp:399] norm2 -> norm2
I0403 13:44:58.949206 12011 net.cpp:141] Setting up norm2
I0403 13:44:58.949231 12011 net.cpp:148] Top shape: 100 256 27 27 (18662400)
I0403 13:44:58.949245 12011 net.cpp:156] Memory required for data: 662258800
I0403 13:44:58.949260 12011 layer_factory.hpp:77] Creating layer pool2
I0403 13:44:58.949278 12011 net.cpp:91] Creating Layer pool2
I0403 13:44:58.949292 12011 net.cpp:425] pool2 <- norm2
I0403 13:44:58.949309 12011 net.cpp:399] pool2 -> pool2
I0403 13:44:58.949357 12011 net.cpp:141] Setting up pool2
I0403 13:44:58.949379 12011 net.cpp:148] Top shape: 100 256 13 13 (4326400)
I0403 13:44:58.949393 12011 net.cpp:156] Memory required for data: 679564400
I0403 13:44:58.949409 12011 layer_factory.hpp:77] Creating layer conv3
I0403 13:44:58.949427 12011 net.cpp:91] Creating Layer conv3
I0403 13:44:58.949443 12011 net.cpp:425] conv3 <- pool2
I0403 13:44:58.949461 12011 net.cpp:399] conv3 -> conv3
I0403 13:44:58.987861 12011 net.cpp:141] Setting up conv3
I0403 13:44:58.987920 12011 net.cpp:148] Top shape: 100 384 13 13 (6489600)
I0403 13:44:58.987936 12011 net.cpp:156] Memory required for data: 705522800
I0403 13:44:58.987960 12011 layer_factory.hpp:77] Creating layer relu3
I0403 13:44:58.987982 12011 net.cpp:91] Creating Layer relu3
I0403 13:44:58.987998 12011 net.cpp:425] relu3 <- conv3
I0403 13:44:58.988019 12011 net.cpp:386] relu3 -> conv3 (in-place)
I0403 13:44:58.988301 12011 net.cpp:141] Setting up relu3
I0403 13:44:58.988327 12011 net.cpp:148] Top shape: 100 384 13 13 (6489600)
I0403 13:44:58.988343 12011 net.cpp:156] Memory required for data: 731481200
I0403 13:44:58.988358 12011 layer_factory.hpp:77] Creating layer conv4
I0403 13:44:58.988381 12011 net.cpp:91] Creating Layer conv4
I0403 13:44:58.988399 12011 net.cpp:425] conv4 <- conv3
I0403 13:44:58.988452 12011 net.cpp:399] conv4 -> conv4
I0403 13:44:59.018880 12011 net.cpp:141] Setting up conv4
I0403 13:44:59.018923 12011 net.cpp:148] Top shape: 100 384 13 13 (6489600)
I0403 13:44:59.018973 12011 net.cpp:156] Memory required for data: 757439600
I0403 13:44:59.018996 12011 layer_factory.hpp:77] Creating layer relu4
I0403 13:44:59.019019 12011 net.cpp:91] Creating Layer relu4
I0403 13:44:59.019037 12011 net.cpp:425] relu4 <- conv4
I0403 13:44:59.019060 12011 net.cpp:386] relu4 -> conv4 (in-place)
I0403 13:44:59.019342 12011 net.cpp:141] Setting up relu4
I0403 13:44:59.019371 12011 net.cpp:148] Top shape: 100 384 13 13 (6489600)
I0403 13:44:59.019387 12011 net.cpp:156] Memory required for data: 783398000
I0403 13:44:59.019402 12011 layer_factory.hpp:77] Creating layer conv5
I0403 13:44:59.019428 12011 net.cpp:91] Creating Layer conv5
I0403 13:44:59.019444 12011 net.cpp:425] conv5 <- conv4
I0403 13:44:59.019466 12011 net.cpp:399] conv5 -> conv5
I0403 13:44:59.039916 12011 net.cpp:141] Setting up conv5
I0403 13:44:59.039954 12011 net.cpp:148] Top shape: 100 256 13 13 (4326400)
I0403 13:44:59.039973 12011 net.cpp:156] Memory required for data: 800703600
I0403 13:44:59.039994 12011 layer_factory.hpp:77] Creating layer relu5
I0403 13:44:59.040014 12011 net.cpp:91] Creating Layer relu5
I0403 13:44:59.040030 12011 net.cpp:425] relu5 <- conv5
I0403 13:44:59.040048 12011 net.cpp:386] relu5 -> conv5 (in-place)
I0403 13:44:59.040325 12011 net.cpp:141] Setting up relu5
I0403 13:44:59.040350 12011 net.cpp:148] Top shape: 100 256 13 13 (4326400)
I0403 13:44:59.040365 12011 net.cpp:156] Memory required for data: 818009200
I0403 13:44:59.040380 12011 layer_factory.hpp:77] Creating layer pool5
I0403 13:44:59.040405 12011 net.cpp:91] Creating Layer pool5
I0403 13:44:59.040421 12011 net.cpp:425] pool5 <- conv5
I0403 13:44:59.040438 12011 net.cpp:399] pool5 -> pool5
I0403 13:44:59.040499 12011 net.cpp:141] Setting up pool5
I0403 13:44:59.040524 12011 net.cpp:148] Top shape: 100 256 6 6 (921600)
I0403 13:44:59.040539 12011 net.cpp:156] Memory required for data: 821695600
I0403 13:44:59.040552 12011 layer_factory.hpp:77] Creating layer fc6
I0403 13:44:59.040582 12011 net.cpp:91] Creating Layer fc6
I0403 13:44:59.040601 12011 net.cpp:425] fc6 <- pool5
I0403 13:44:59.040621 12011 net.cpp:399] fc6 -> fc6
I0403 13:45:00.583513 12011 net.cpp:141] Setting up fc6
I0403 13:45:00.583588 12011 net.cpp:148] Top shape: 100 4096 (409600)
I0403 13:45:00.583606 12011 net.cpp:156] Memory required for data: 823334000
I0403 13:45:00.583626 12011 layer_factory.hpp:77] Creating layer relu6
I0403 13:45:00.583649 12011 net.cpp:91] Creating Layer relu6
I0403 13:45:00.583667 12011 net.cpp:425] relu6 <- fc6
I0403 13:45:00.583685 12011 net.cpp:386] relu6 -> fc6 (in-place)
I0403 13:45:00.583907 12011 net.cpp:141] Setting up relu6
I0403 13:45:00.583932 12011 net.cpp:148] Top shape: 100 4096 (409600)
I0403 13:45:00.583946 12011 net.cpp:156] Memory required for data: 824972400
I0403 13:45:00.583961 12011 layer_factory.hpp:77] Creating layer drop6
I0403 13:45:00.583979 12011 net.cpp:91] Creating Layer drop6
I0403 13:45:00.583994 12011 net.cpp:425] drop6 <- fc6
I0403 13:45:00.584013 12011 net.cpp:386] drop6 -> fc6 (in-place)
I0403 13:45:00.584064 12011 net.cpp:141] Setting up drop6
I0403 13:45:00.584089 12011 net.cpp:148] Top shape: 100 4096 (409600)
I0403 13:45:00.584103 12011 net.cpp:156] Memory required for data: 826610800
I0403 13:45:00.584117 12011 layer_factory.hpp:77] Creating layer fc7
I0403 13:45:00.584136 12011 net.cpp:91] Creating Layer fc7
I0403 13:45:00.584151 12011 net.cpp:425] fc7 <- fc6
I0403 13:45:00.584172 12011 net.cpp:399] fc7 -> fc7
I0403 13:45:01.266654 12011 net.cpp:141] Setting up fc7
I0403 13:45:01.266711 12011 net.cpp:148] Top shape: 100 4096 (409600)
I0403 13:45:01.266726 12011 net.cpp:156] Memory required for data: 828249200
I0403 13:45:01.266747 12011 layer_factory.hpp:77] Creating layer relu7
I0403 13:45:01.266769 12011 net.cpp:91] Creating Layer relu7
I0403 13:45:01.266787 12011 net.cpp:425] relu7 <- fc7
I0403 13:45:01.266808 12011 net.cpp:386] relu7 -> fc7 (in-place)
I0403 13:45:01.267217 12011 net.cpp:141] Setting up relu7
I0403 13:45:01.267243 12011 net.cpp:148] Top shape: 100 4096 (409600)
I0403 13:45:01.267300 12011 net.cpp:156] Memory required for data: 829887600
I0403 13:45:01.267316 12011 layer_factory.hpp:77] Creating layer drop7
I0403 13:45:01.267335 12011 net.cpp:91] Creating Layer drop7
I0403 13:45:01.267351 12011 net.cpp:425] drop7 <- fc7
I0403 13:45:01.267370 12011 net.cpp:386] drop7 -> fc7 (in-place)
I0403 13:45:01.267413 12011 net.cpp:141] Setting up drop7
I0403 13:45:01.267437 12011 net.cpp:148] Top shape: 100 4096 (409600)
I0403 13:45:01.267452 12011 net.cpp:156] Memory required for data: 831526000
I0403 13:45:01.267467 12011 layer_factory.hpp:77] Creating layer fc8_plantvillage
I0403 13:45:01.267485 12011 net.cpp:91] Creating Layer fc8_plantvillage
I0403 13:45:01.267500 12011 net.cpp:425] fc8_plantvillage <- fc7
I0403 13:45:01.267520 12011 net.cpp:399] fc8_plantvillage -> fc8_plantvillage
I0403 13:45:01.274238 12011 net.cpp:141] Setting up fc8_plantvillage
I0403 13:45:01.274267 12011 net.cpp:148] Top shape: 100 38 (3800)
I0403 13:45:01.274282 12011 net.cpp:156] Memory required for data: 831541200
I0403 13:45:01.274301 12011 layer_factory.hpp:77] Creating layer fc8_plantvillage_fc8_plantvillage_0_split
I0403 13:45:01.274318 12011 net.cpp:91] Creating Layer fc8_plantvillage_fc8_plantvillage_0_split
I0403 13:45:01.274333 12011 net.cpp:425] fc8_plantvillage_fc8_plantvillage_0_split <- fc8_plantvillage
I0403 13:45:01.274353 12011 net.cpp:399] fc8_plantvillage_fc8_plantvillage_0_split -> fc8_plantvillage_fc8_plantvillage_0_split_0
I0403 13:45:01.274371 12011 net.cpp:399] fc8_plantvillage_fc8_plantvillage_0_split -> fc8_plantvillage_fc8_plantvillage_0_split_1
I0403 13:45:01.274391 12011 net.cpp:399] fc8_plantvillage_fc8_plantvillage_0_split -> fc8_plantvillage_fc8_plantvillage_0_split_2
I0403 13:45:01.274471 12011 net.cpp:141] Setting up fc8_plantvillage_fc8_plantvillage_0_split
I0403 13:45:01.274497 12011 net.cpp:148] Top shape: 100 38 (3800)
I0403 13:45:01.274513 12011 net.cpp:148] Top shape: 100 38 (3800)
I0403 13:45:01.274528 12011 net.cpp:148] Top shape: 100 38 (3800)
I0403 13:45:01.274541 12011 net.cpp:156] Memory required for data: 831586800
I0403 13:45:01.274555 12011 layer_factory.hpp:77] Creating layer prob
I0403 13:45:01.274585 12011 net.cpp:91] Creating Layer prob
I0403 13:45:01.274605 12011 net.cpp:425] prob <- fc8_plantvillage_fc8_plantvillage_0_split_0
I0403 13:45:01.274621 12011 net.cpp:399] prob -> prob
I0403 13:45:01.274847 12011 net.cpp:141] Setting up prob
I0403 13:45:01.274873 12011 net.cpp:148] Top shape: 100 38 (3800)
I0403 13:45:01.274888 12011 net.cpp:156] Memory required for data: 831602000
I0403 13:45:01.274901 12011 layer_factory.hpp:77] Creating layer hdf5out
I0403 13:45:01.274920 12011 net.cpp:91] Creating Layer hdf5out
I0403 13:45:01.274935 12011 net.cpp:425] hdf5out <- prob
I0403 13:45:01.274951 12011 net.cpp:425] hdf5out <- label_data_1_split_0
I0403 13:45:01.278405 12011 net.cpp:141] Setting up hdf5out
…
