…
I0403 13:40:27.690174 11908 net.cpp:313] The NetState phase (1) differed from the phase (0) specified by a rule in layer data
I0403 13:40:27.690460 11908 net.cpp:49] Initializing net from parameters: 
state {
  phase: TEST
}
layer {
  name: "data"
  type: "Data"
  top: "data"
  top: "label"
  include {
    phase: TEST
  }
  transform_param {
    crop_size: 227
    mean_file: "/home/mohanty/data/final_dataset/lmdb/grayscale-60-40/mean.binaryproto"
  }
  data_param {
    source: "/home/mohanty/data/final_dataset/lmdb/grayscale-60-40/test_db"
    batch_size: 100
    backend: LMDB
  }
}
layer {
  name: "conv1"
  type: "Convolution"
  bottom: "data"
  top: "conv1"
  param {
    lr_mult: 1
    decay_mult: 1
  }
  param {
    lr_mult: 2
    decay_mult: 0
  }
  convolution_param {
    num_output: 96
    kernel_size: 11
    stride: 4
    weight_filler {
      type: "gaussian"
      std: 0.01
    }
    bias_filler {
      type: "constant"
      value: 0
    }
  }
}
layer {
  name: "relu1"
  type: "ReLU"
  bottom: "conv1"
  top: "conv1"
}
layer {
  name: "norm1"
  type: "LRN"
  bottom: "conv1"
  top: "norm1"
  lrn_param {
    local_size: 5
    alpha: 0.0001
    beta: 0.75
  }
}
layer {
  name: "pool1"
  type: "Pooling"
  bottom: "norm1"
  top: "pool1"
  pooling_param {
    pool: MAX
    kernel_size: 3
    stride: 2
  }
}
layer {
  name: "conv2"
  type: "Convolution"
  bottom: "pool1"
  top: "conv2"
  param {
    lr_mult: 1
    decay_mult: 1
  }
  param {
    lr_mult: 2
    decay_mult: 0
  }
  convolution_param {
    num_output: 256
    pad: 2
    kernel_size: 5
    group: 2
    weight_filler {
      type: "gaussian"
      std: 0.01
    }
    bias_filler {
      type: "constant"
      value: 0.1
    }
  }
}
layer {
  name: "relu2"
  type: "ReLU"
  bottom: "conv2"
  top: "conv2"
}
layer {
  name: "norm2"
  type: "LRN"
  bottom: "conv2"
  top: "norm2"
  lrn_param {
    local_size: 5
    alpha: 0.0001
    beta: 0.75
  }
}
layer {
  name: "pool2"
  type: "Pooling"
  bottom: "norm2"
  top: "pool2"
  pooling_param {
    pool: MAX
    kernel_size: 3
    stride: 2
  }
}
layer {
  name: "conv3"
  type: "Convolution"
  bottom: "pool2"
  top: "conv3"
  param {
    lr_mult: 1
    decay_mult: 1
  }
  param {
    lr_mult: 2
    decay_mult: 0
  }
  convolution_param {
    num_output: 384
    pad: 1
    kernel_size: 3
    weight_filler {
      type: "gaussian"
      std: 0.01
    }
    bias_filler {
      type: "constant"
      value: 0
    }
  }
}
layer {
  name: "relu3"
  type: "ReLU"
  bottom: "conv3"
  top: "conv3"
}
layer {
  name: "conv4"
  type: "Convolution"
  bottom: "conv3"
  top: "conv4"
  param {
    lr_mult: 1
    decay_mult: 1
  }
  param {
    lr_mult: 2
    decay_mult: 0
  }
  convolution_param {
    num_output: 384
    pad: 1
    kernel_size: 3
    group: 2
    weight_filler {
      type: "gaussian"
      std: 0.01
    }
    bias_filler {
      type: "constant"
      value: 0.1
    }
  }
}
layer {
  name: "relu4"
  type: "ReLU"
  bottom: "conv4"
  top: "conv4"
}
layer {
  name: "conv5"
  type: "Convolution"
  bottom: "conv4"
  top: "conv5"
  param {
    lr_mult: 1
    decay_mult: 1
  }
  param {
    lr_mult: 2
    decay_mult: 0
  }
  convolution_param {
    num_output: 256
    pad: 1
    kernel_size: 3
    group: 2
    weight_filler {
      type: "gaussian"
      std: 0.01
    }
    bias_filler {
      type: "constant"
      value: 0.1
    }
  }
}
layer {
  name: "relu5"
  type: "ReLU"
  bottom: "conv5"
  top: "conv5"
}
layer {
  name: "pool5"
  type: "Pooling"
  bottom: "conv5"
  top: "pool5"
  pooling_param {
    pool: MAX
    kernel_size: 3
    stride: 2
  }
}
layer {
  name: "fc6"
  type: "InnerProduct"
  bottom: "pool5"
  top: "fc6"
  param {
    lr_mult: 1
    decay_mult: 1
  }
  param {
    lr_mult: 2
    decay_mult: 0
  }
  inner_product_param {
    num_output: 4096
    weight_filler {
      type: "gaussian"
      std: 0.005
    }
    bias_filler {
      type: "constant"
      value: 0.1
    }
  }
}
layer {
  name: "relu6"
  type: "ReLU"
  bottom: "fc6"
  top: "fc6"
}
layer {
  name: "drop6"
  type: "Dropout"
  bottom: "fc6"
  top: "fc6"
  dropout_param {
    dropout_ratio: 0.5
  }
}
layer {
  name: "fc7"
  type: "InnerProduct"
  bottom: "fc6"
  top: "fc7"
  param {
    lr_mult: 1
    decay_mult: 1
  }
  param {
    lr_mult: 2
    decay_mult: 0
  }
  inner_product_param {
    num_output: 4096
    weight_filler {
      type: "gaussian"
      std: 0.005
    }
    bias_filler {
      type: "constant"
      value: 0.1
    }
  }
}
layer {
  name: "relu7"
  type: "ReLU"
  bottom: "fc7"
  top: "fc7"
}
layer {
  name: "drop7"
  type: "Dropout"
  bottom: "fc7"
  top: "fc7"
  dropout_param {
    dropout_ratio: 0.5
  }
}
layer {
  name: "fc8_plantvillage"
  type: "InnerProduct"
  bottom: "fc7"
  top: "fc8_plantvillage"
  param {
    lr_mult: 1
    decay_mult: 1
  }
  param {
    lr_mult: 2
    decay_mult: 0
  }
  inner_product_param {
    num_output: 38
    weight_filler {
      type: "gaussian"
      std: 0.01
    }
    bias_filler {
      type: "constant"
      value: 0
    }
  }
}
layer {
  name: "prob"
  type: "Softmax"
  bottom: "fc8_plantvillage"
  top: "prob"
  include {
    phase: TEST
  }
}
layer {
  name: "hdf5out"
  type: "HDF5Output"
  bottom: "prob"
  bottom: "label"
  include {
    phase: TEST
  }
  hdf5_output_param {
    file_name: "hdf5_dumps/iter_1950.h5"
  }
}
layer {
  name: "loss"
  type: "SoftmaxWithLoss"
  bottom: "fc8_plantvillage"
  bottom: "label"
  top: "loss"
}
layer {
  name: "accuracy"
  type: "Accuracy"
  bottom: "fc8_plantvillage"
  bottom: "label"
  top: "accuracy"
  include {
    phase: TEST
  }
}
I0403 13:40:27.691141 11908 layer_factory.hpp:77] Creating layer data
I0403 13:40:27.691795 11908 net.cpp:91] Creating Layer data
I0403 13:40:27.691828 11908 net.cpp:399] data -> data
I0403 13:40:27.691877 11908 net.cpp:399] data -> label
I0403 13:40:27.691913 11908 data_transformer.cpp:25] Loading mean file from: /home/mohanty/data/final_dataset/lmdb/grayscale-60-40/mean.binaryproto
I0403 13:40:27.694772 11911 db_lmdb.cpp:38] Opened lmdb /home/mohanty/data/final_dataset/lmdb/grayscale-60-40/test_db
I0403 13:40:27.708142 11908 data_layer.cpp:41] output data size: 100,3,227,227
I0403 13:40:27.828584 11908 net.cpp:141] Setting up data
I0403 13:40:27.828680 11908 net.cpp:148] Top shape: 100 3 227 227 (15458700)
I0403 13:40:27.828702 11908 net.cpp:148] Top shape: 100 (100)
I0403 13:40:27.828718 11908 net.cpp:156] Memory required for data: 61835200
I0403 13:40:27.828745 11908 layer_factory.hpp:77] Creating layer label_data_1_split
I0403 13:40:27.828770 11908 net.cpp:91] Creating Layer label_data_1_split
I0403 13:40:27.828789 11908 net.cpp:425] label_data_1_split <- label
I0403 13:40:27.828821 11908 net.cpp:399] label_data_1_split -> label_data_1_split_0
I0403 13:40:27.828848 11908 net.cpp:399] label_data_1_split -> label_data_1_split_1
I0403 13:40:27.828868 11908 net.cpp:399] label_data_1_split -> label_data_1_split_2
I0403 13:40:27.828932 11908 net.cpp:141] Setting up label_data_1_split
I0403 13:40:27.828954 11908 net.cpp:148] Top shape: 100 (100)
I0403 13:40:27.828971 11908 net.cpp:148] Top shape: 100 (100)
I0403 13:40:27.828987 11908 net.cpp:148] Top shape: 100 (100)
I0403 13:40:27.829001 11908 net.cpp:156] Memory required for data: 61836400
I0403 13:40:27.829016 11908 layer_factory.hpp:77] Creating layer conv1
I0403 13:40:27.829048 11908 net.cpp:91] Creating Layer conv1
I0403 13:40:27.829067 11908 net.cpp:425] conv1 <- data
I0403 13:40:27.829087 11908 net.cpp:399] conv1 -> conv1
I0403 13:40:27.968602 11908 net.cpp:141] Setting up conv1
I0403 13:40:27.968683 11908 net.cpp:148] Top shape: 100 96 55 55 (29040000)
I0403 13:40:27.968700 11908 net.cpp:156] Memory required for data: 177996400
I0403 13:40:27.968732 11908 layer_factory.hpp:77] Creating layer relu1
I0403 13:40:27.968760 11908 net.cpp:91] Creating Layer relu1
I0403 13:40:27.968780 11908 net.cpp:425] relu1 <- conv1
I0403 13:40:27.968799 11908 net.cpp:386] relu1 -> conv1 (in-place)
I0403 13:40:27.969056 11908 net.cpp:141] Setting up relu1
I0403 13:40:27.969084 11908 net.cpp:148] Top shape: 100 96 55 55 (29040000)
I0403 13:40:27.969138 11908 net.cpp:156] Memory required for data: 294156400
I0403 13:40:27.969156 11908 layer_factory.hpp:77] Creating layer norm1
I0403 13:40:27.969182 11908 net.cpp:91] Creating Layer norm1
I0403 13:40:27.969202 11908 net.cpp:425] norm1 <- conv1
I0403 13:40:27.969219 11908 net.cpp:399] norm1 -> norm1
I0403 13:40:27.969527 11908 net.cpp:141] Setting up norm1
I0403 13:40:27.969557 11908 net.cpp:148] Top shape: 100 96 55 55 (29040000)
I0403 13:40:27.969573 11908 net.cpp:156] Memory required for data: 410316400
I0403 13:40:27.969588 11908 layer_factory.hpp:77] Creating layer pool1
I0403 13:40:27.969615 11908 net.cpp:91] Creating Layer pool1
I0403 13:40:27.969635 11908 net.cpp:425] pool1 <- norm1
I0403 13:40:27.969653 11908 net.cpp:399] pool1 -> pool1
I0403 13:40:27.969722 11908 net.cpp:141] Setting up pool1
I0403 13:40:27.969745 11908 net.cpp:148] Top shape: 100 96 27 27 (6998400)
I0403 13:40:27.969760 11908 net.cpp:156] Memory required for data: 438310000
I0403 13:40:27.969775 11908 layer_factory.hpp:77] Creating layer conv2
I0403 13:40:27.969800 11908 net.cpp:91] Creating Layer conv2
I0403 13:40:27.969817 11908 net.cpp:425] conv2 <- pool1
I0403 13:40:27.969836 11908 net.cpp:399] conv2 -> conv2
I0403 13:40:27.984958 11908 net.cpp:141] Setting up conv2
I0403 13:40:27.985002 11908 net.cpp:148] Top shape: 100 256 27 27 (18662400)
I0403 13:40:27.985019 11908 net.cpp:156] Memory required for data: 512959600
I0403 13:40:27.985044 11908 layer_factory.hpp:77] Creating layer relu2
I0403 13:40:27.985065 11908 net.cpp:91] Creating Layer relu2
I0403 13:40:27.985082 11908 net.cpp:425] relu2 <- conv2
I0403 13:40:27.985100 11908 net.cpp:386] relu2 -> conv2 (in-place)
I0403 13:40:27.985384 11908 net.cpp:141] Setting up relu2
I0403 13:40:27.985414 11908 net.cpp:148] Top shape: 100 256 27 27 (18662400)
I0403 13:40:27.985430 11908 net.cpp:156] Memory required for data: 587609200
I0403 13:40:27.985445 11908 layer_factory.hpp:77] Creating layer norm2
I0403 13:40:27.985466 11908 net.cpp:91] Creating Layer norm2
I0403 13:40:27.985482 11908 net.cpp:425] norm2 <- conv2
I0403 13:40:27.985502 11908 net.cpp:399] norm2 -> norm2
I0403 13:40:27.985707 11908 net.cpp:141] Setting up norm2
I0403 13:40:27.985734 11908 net.cpp:148] Top shape: 100 256 27 27 (18662400)
I0403 13:40:27.985750 11908 net.cpp:156] Memory required for data: 662258800
I0403 13:40:27.985765 11908 layer_factory.hpp:77] Creating layer pool2
I0403 13:40:27.985785 11908 net.cpp:91] Creating Layer pool2
I0403 13:40:27.985802 11908 net.cpp:425] pool2 <- norm2
I0403 13:40:27.985821 11908 net.cpp:399] pool2 -> pool2
I0403 13:40:27.985874 11908 net.cpp:141] Setting up pool2
I0403 13:40:27.985898 11908 net.cpp:148] Top shape: 100 256 13 13 (4326400)
I0403 13:40:27.985913 11908 net.cpp:156] Memory required for data: 679564400
I0403 13:40:27.985926 11908 layer_factory.hpp:77] Creating layer conv3
I0403 13:40:27.985949 11908 net.cpp:91] Creating Layer conv3
I0403 13:40:27.985967 11908 net.cpp:425] conv3 <- pool2
I0403 13:40:27.985988 11908 net.cpp:399] conv3 -> conv3
I0403 13:40:28.023330 11908 net.cpp:141] Setting up conv3
I0403 13:40:28.023385 11908 net.cpp:148] Top shape: 100 384 13 13 (6489600)
I0403 13:40:28.023401 11908 net.cpp:156] Memory required for data: 705522800
I0403 13:40:28.023423 11908 layer_factory.hpp:77] Creating layer relu3
I0403 13:40:28.023445 11908 net.cpp:91] Creating Layer relu3
I0403 13:40:28.023463 11908 net.cpp:425] relu3 <- conv3
I0403 13:40:28.023483 11908 net.cpp:386] relu3 -> conv3 (in-place)
I0403 13:40:28.023756 11908 net.cpp:141] Setting up relu3
I0403 13:40:28.023782 11908 net.cpp:148] Top shape: 100 384 13 13 (6489600)
I0403 13:40:28.023797 11908 net.cpp:156] Memory required for data: 731481200
I0403 13:40:28.023811 11908 layer_factory.hpp:77] Creating layer conv4
I0403 13:40:28.023838 11908 net.cpp:91] Creating Layer conv4
I0403 13:40:28.023855 11908 net.cpp:425] conv4 <- conv3
I0403 13:40:28.023874 11908 net.cpp:399] conv4 -> conv4
I0403 13:40:28.053517 11908 net.cpp:141] Setting up conv4
I0403 13:40:28.053583 11908 net.cpp:148] Top shape: 100 384 13 13 (6489600)
I0403 13:40:28.053638 11908 net.cpp:156] Memory required for data: 757439600
I0403 13:40:28.053663 11908 layer_factory.hpp:77] Creating layer relu4
I0403 13:40:28.053690 11908 net.cpp:91] Creating Layer relu4
I0403 13:40:28.053711 11908 net.cpp:425] relu4 <- conv4
I0403 13:40:28.053731 11908 net.cpp:386] relu4 -> conv4 (in-place)
I0403 13:40:28.054010 11908 net.cpp:141] Setting up relu4
I0403 13:40:28.054038 11908 net.cpp:148] Top shape: 100 384 13 13 (6489600)
I0403 13:40:28.054054 11908 net.cpp:156] Memory required for data: 783398000
I0403 13:40:28.054069 11908 layer_factory.hpp:77] Creating layer conv5
I0403 13:40:28.054093 11908 net.cpp:91] Creating Layer conv5
I0403 13:40:28.054111 11908 net.cpp:425] conv5 <- conv4
I0403 13:40:28.054133 11908 net.cpp:399] conv5 -> conv5
I0403 13:40:28.074250 11908 net.cpp:141] Setting up conv5
I0403 13:40:28.074293 11908 net.cpp:148] Top shape: 100 256 13 13 (4326400)
I0403 13:40:28.074311 11908 net.cpp:156] Memory required for data: 800703600
I0403 13:40:28.074337 11908 layer_factory.hpp:77] Creating layer relu5
I0403 13:40:28.074358 11908 net.cpp:91] Creating Layer relu5
I0403 13:40:28.074375 11908 net.cpp:425] relu5 <- conv5
I0403 13:40:28.074393 11908 net.cpp:386] relu5 -> conv5 (in-place)
I0403 13:40:28.074673 11908 net.cpp:141] Setting up relu5
I0403 13:40:28.074702 11908 net.cpp:148] Top shape: 100 256 13 13 (4326400)
I0403 13:40:28.074719 11908 net.cpp:156] Memory required for data: 818009200
I0403 13:40:28.074734 11908 layer_factory.hpp:77] Creating layer pool5
I0403 13:40:28.074755 11908 net.cpp:91] Creating Layer pool5
I0403 13:40:28.074772 11908 net.cpp:425] pool5 <- conv5
I0403 13:40:28.074793 11908 net.cpp:399] pool5 -> pool5
I0403 13:40:28.074853 11908 net.cpp:141] Setting up pool5
I0403 13:40:28.074877 11908 net.cpp:148] Top shape: 100 256 6 6 (921600)
I0403 13:40:28.074893 11908 net.cpp:156] Memory required for data: 821695600
I0403 13:40:28.074908 11908 layer_factory.hpp:77] Creating layer fc6
I0403 13:40:28.074935 11908 net.cpp:91] Creating Layer fc6
I0403 13:40:28.074954 11908 net.cpp:425] fc6 <- pool5
I0403 13:40:28.074975 11908 net.cpp:399] fc6 -> fc6
I0403 13:40:29.604039 11908 net.cpp:141] Setting up fc6
I0403 13:40:29.604109 11908 net.cpp:148] Top shape: 100 4096 (409600)
I0403 13:40:29.604125 11908 net.cpp:156] Memory required for data: 823334000
I0403 13:40:29.604143 11908 layer_factory.hpp:77] Creating layer relu6
I0403 13:40:29.604166 11908 net.cpp:91] Creating Layer relu6
I0403 13:40:29.604182 11908 net.cpp:425] relu6 <- fc6
I0403 13:40:29.604202 11908 net.cpp:386] relu6 -> fc6 (in-place)
I0403 13:40:29.604409 11908 net.cpp:141] Setting up relu6
I0403 13:40:29.604434 11908 net.cpp:148] Top shape: 100 4096 (409600)
I0403 13:40:29.604449 11908 net.cpp:156] Memory required for data: 824972400
I0403 13:40:29.604463 11908 layer_factory.hpp:77] Creating layer drop6
I0403 13:40:29.604483 11908 net.cpp:91] Creating Layer drop6
I0403 13:40:29.604498 11908 net.cpp:425] drop6 <- fc6
I0403 13:40:29.604516 11908 net.cpp:386] drop6 -> fc6 (in-place)
I0403 13:40:29.604567 11908 net.cpp:141] Setting up drop6
I0403 13:40:29.604588 11908 net.cpp:148] Top shape: 100 4096 (409600)
I0403 13:40:29.604614 11908 net.cpp:156] Memory required for data: 826610800
I0403 13:40:29.604631 11908 layer_factory.hpp:77] Creating layer fc7
I0403 13:40:29.604653 11908 net.cpp:91] Creating Layer fc7
I0403 13:40:29.604671 11908 net.cpp:425] fc7 <- fc6
I0403 13:40:29.604687 11908 net.cpp:399] fc7 -> fc7
I0403 13:40:30.279431 11908 net.cpp:141] Setting up fc7
I0403 13:40:30.279494 11908 net.cpp:148] Top shape: 100 4096 (409600)
I0403 13:40:30.279510 11908 net.cpp:156] Memory required for data: 828249200
I0403 13:40:30.279531 11908 layer_factory.hpp:77] Creating layer relu7
I0403 13:40:30.279553 11908 net.cpp:91] Creating Layer relu7
I0403 13:40:30.279570 11908 net.cpp:425] relu7 <- fc7
I0403 13:40:30.279589 11908 net.cpp:386] relu7 -> fc7 (in-place)
I0403 13:40:30.279985 11908 net.cpp:141] Setting up relu7
I0403 13:40:30.280011 11908 net.cpp:148] Top shape: 100 4096 (409600)
I0403 13:40:30.280060 11908 net.cpp:156] Memory required for data: 829887600
I0403 13:40:30.280076 11908 layer_factory.hpp:77] Creating layer drop7
I0403 13:40:30.280095 11908 net.cpp:91] Creating Layer drop7
I0403 13:40:30.280112 11908 net.cpp:425] drop7 <- fc7
I0403 13:40:30.280128 11908 net.cpp:386] drop7 -> fc7 (in-place)
I0403 13:40:30.280172 11908 net.cpp:141] Setting up drop7
I0403 13:40:30.280194 11908 net.cpp:148] Top shape: 100 4096 (409600)
I0403 13:40:30.280208 11908 net.cpp:156] Memory required for data: 831526000
I0403 13:40:30.280221 11908 layer_factory.hpp:77] Creating layer fc8_plantvillage
I0403 13:40:30.280239 11908 net.cpp:91] Creating Layer fc8_plantvillage
I0403 13:40:30.280254 11908 net.cpp:425] fc8_plantvillage <- fc7
I0403 13:40:30.280273 11908 net.cpp:399] fc8_plantvillage -> fc8_plantvillage
I0403 13:40:30.286789 11908 net.cpp:141] Setting up fc8_plantvillage
I0403 13:40:30.286819 11908 net.cpp:148] Top shape: 100 38 (3800)
I0403 13:40:30.286835 11908 net.cpp:156] Memory required for data: 831541200
I0403 13:40:30.286852 11908 layer_factory.hpp:77] Creating layer fc8_plantvillage_fc8_plantvillage_0_split
I0403 13:40:30.286870 11908 net.cpp:91] Creating Layer fc8_plantvillage_fc8_plantvillage_0_split
I0403 13:40:30.286885 11908 net.cpp:425] fc8_plantvillage_fc8_plantvillage_0_split <- fc8_plantvillage
I0403 13:40:30.286902 11908 net.cpp:399] fc8_plantvillage_fc8_plantvillage_0_split -> fc8_plantvillage_fc8_plantvillage_0_split_0
I0403 13:40:30.286921 11908 net.cpp:399] fc8_plantvillage_fc8_plantvillage_0_split -> fc8_plantvillage_fc8_plantvillage_0_split_1
I0403 13:40:30.286942 11908 net.cpp:399] fc8_plantvillage_fc8_plantvillage_0_split -> fc8_plantvillage_fc8_plantvillage_0_split_2
I0403 13:40:30.287019 11908 net.cpp:141] Setting up fc8_plantvillage_fc8_plantvillage_0_split
I0403 13:40:30.287040 11908 net.cpp:148] Top shape: 100 38 (3800)
I0403 13:40:30.287056 11908 net.cpp:148] Top shape: 100 38 (3800)
I0403 13:40:30.287071 11908 net.cpp:148] Top shape: 100 38 (3800)
I0403 13:40:30.287084 11908 net.cpp:156] Memory required for data: 831586800
I0403 13:40:30.287098 11908 layer_factory.hpp:77] Creating layer prob
I0403 13:40:30.287117 11908 net.cpp:91] Creating Layer prob
I0403 13:40:30.287132 11908 net.cpp:425] prob <- fc8_plantvillage_fc8_plantvillage_0_split_0
I0403 13:40:30.287148 11908 net.cpp:399] prob -> prob
I0403 13:40:30.287366 11908 net.cpp:141] Setting up prob
I0403 13:40:30.287390 11908 net.cpp:148] Top shape: 100 38 (3800)
I0403 13:40:30.287405 11908 net.cpp:156] Memory required for data: 831602000
I0403 13:40:30.287420 11908 layer_factory.hpp:77] Creating layer hdf5out
I0403 13:40:30.287441 11908 net.cpp:91] Creating Layer hdf5out
I0403 13:40:30.287457 11908 net.cpp:425] hdf5out <- prob
I0403 13:40:30.287472 11908 net.cpp:425] hdf5out <- label_data_1_split_0
I0403 13:40:30.290025 11908 net.cpp:141] Setting up hdf5out
…
