…
I0403 13:38:57.169646 11872 net.cpp:313] The NetState phase (1) differed from the phase (0) specified by a rule in layer data
I0403 13:38:57.169925 11872 net.cpp:49] Initializing net from parameters: 
state {
  phase: TEST
}
layer {
  name: "data"
  type: "Data"
  top: "data"
  top: "label"
  include {
    phase: TEST
  }
  transform_param {
    crop_size: 227
    mean_file: "/home/mohanty/data/final_dataset/lmdb/grayscale-60-40/mean.binaryproto"
  }
  data_param {
    source: "/home/mohanty/data/final_dataset/lmdb/grayscale-60-40/test_db"
    batch_size: 100
    backend: LMDB
  }
}
layer {
  name: "conv1"
  type: "Convolution"
  bottom: "data"
  top: "conv1"
  param {
    lr_mult: 1
    decay_mult: 1
  }
  param {
    lr_mult: 2
    decay_mult: 0
  }
  convolution_param {
    num_output: 96
    kernel_size: 11
    stride: 4
    weight_filler {
      type: "gaussian"
      std: 0.01
    }
    bias_filler {
      type: "constant"
      value: 0
    }
  }
}
layer {
  name: "relu1"
  type: "ReLU"
  bottom: "conv1"
  top: "conv1"
}
layer {
  name: "norm1"
  type: "LRN"
  bottom: "conv1"
  top: "norm1"
  lrn_param {
    local_size: 5
    alpha: 0.0001
    beta: 0.75
  }
}
layer {
  name: "pool1"
  type: "Pooling"
  bottom: "norm1"
  top: "pool1"
  pooling_param {
    pool: MAX
    kernel_size: 3
    stride: 2
  }
}
layer {
  name: "conv2"
  type: "Convolution"
  bottom: "pool1"
  top: "conv2"
  param {
    lr_mult: 1
    decay_mult: 1
  }
  param {
    lr_mult: 2
    decay_mult: 0
  }
  convolution_param {
    num_output: 256
    pad: 2
    kernel_size: 5
    group: 2
    weight_filler {
      type: "gaussian"
      std: 0.01
    }
    bias_filler {
      type: "constant"
      value: 0.1
    }
  }
}
layer {
  name: "relu2"
  type: "ReLU"
  bottom: "conv2"
  top: "conv2"
}
layer {
  name: "norm2"
  type: "LRN"
  bottom: "conv2"
  top: "norm2"
  lrn_param {
    local_size: 5
    alpha: 0.0001
    beta: 0.75
  }
}
layer {
  name: "pool2"
  type: "Pooling"
  bottom: "norm2"
  top: "pool2"
  pooling_param {
    pool: MAX
    kernel_size: 3
    stride: 2
  }
}
layer {
  name: "conv3"
  type: "Convolution"
  bottom: "pool2"
  top: "conv3"
  param {
    lr_mult: 1
    decay_mult: 1
  }
  param {
    lr_mult: 2
    decay_mult: 0
  }
  convolution_param {
    num_output: 384
    pad: 1
    kernel_size: 3
    weight_filler {
      type: "gaussian"
      std: 0.01
    }
    bias_filler {
      type: "constant"
      value: 0
    }
  }
}
layer {
  name: "relu3"
  type: "ReLU"
  bottom: "conv3"
  top: "conv3"
}
layer {
  name: "conv4"
  type: "Convolution"
  bottom: "conv3"
  top: "conv4"
  param {
    lr_mult: 1
    decay_mult: 1
  }
  param {
    lr_mult: 2
    decay_mult: 0
  }
  convolution_param {
    num_output: 384
    pad: 1
    kernel_size: 3
    group: 2
    weight_filler {
      type: "gaussian"
      std: 0.01
    }
    bias_filler {
      type: "constant"
      value: 0.1
    }
  }
}
layer {
  name: "relu4"
  type: "ReLU"
  bottom: "conv4"
  top: "conv4"
}
layer {
  name: "conv5"
  type: "Convolution"
  bottom: "conv4"
  top: "conv5"
  param {
    lr_mult: 1
    decay_mult: 1
  }
  param {
    lr_mult: 2
    decay_mult: 0
  }
  convolution_param {
    num_output: 256
    pad: 1
    kernel_size: 3
    group: 2
    weight_filler {
      type: "gaussian"
      std: 0.01
    }
    bias_filler {
      type: "constant"
      value: 0.1
    }
  }
}
layer {
  name: "relu5"
  type: "ReLU"
  bottom: "conv5"
  top: "conv5"
}
layer {
  name: "pool5"
  type: "Pooling"
  bottom: "conv5"
  top: "pool5"
  pooling_param {
    pool: MAX
    kernel_size: 3
    stride: 2
  }
}
layer {
  name: "fc6"
  type: "InnerProduct"
  bottom: "pool5"
  top: "fc6"
  param {
    lr_mult: 1
    decay_mult: 1
  }
  param {
    lr_mult: 2
    decay_mult: 0
  }
  inner_product_param {
    num_output: 4096
    weight_filler {
      type: "gaussian"
      std: 0.005
    }
    bias_filler {
      type: "constant"
      value: 0.1
    }
  }
}
layer {
  name: "relu6"
  type: "ReLU"
  bottom: "fc6"
  top: "fc6"
}
layer {
  name: "drop6"
  type: "Dropout"
  bottom: "fc6"
  top: "fc6"
  dropout_param {
    dropout_ratio: 0.5
  }
}
layer {
  name: "fc7"
  type: "InnerProduct"
  bottom: "fc6"
  top: "fc7"
  param {
    lr_mult: 1
    decay_mult: 1
  }
  param {
    lr_mult: 2
    decay_mult: 0
  }
  inner_product_param {
    num_output: 4096
    weight_filler {
      type: "gaussian"
      std: 0.005
    }
    bias_filler {
      type: "constant"
      value: 0.1
    }
  }
}
layer {
  name: "relu7"
  type: "ReLU"
  bottom: "fc7"
  top: "fc7"
}
layer {
  name: "drop7"
  type: "Dropout"
  bottom: "fc7"
  top: "fc7"
  dropout_param {
    dropout_ratio: 0.5
  }
}
layer {
  name: "fc8_plantvillage"
  type: "InnerProduct"
  bottom: "fc7"
  top: "fc8_plantvillage"
  param {
    lr_mult: 1
    decay_mult: 1
  }
  param {
    lr_mult: 2
    decay_mult: 0
  }
  inner_product_param {
    num_output: 38
    weight_filler {
      type: "gaussian"
      std: 0.01
    }
    bias_filler {
      type: "constant"
      value: 0
    }
  }
}
layer {
  name: "prob"
  type: "Softmax"
  bottom: "fc8_plantvillage"
  top: "prob"
  include {
    phase: TEST
  }
}
layer {
  name: "hdf5out"
  type: "HDF5Output"
  bottom: "prob"
  bottom: "label"
  include {
    phase: TEST
  }
  hdf5_output_param {
    file_name: "hdf5_dumps/iter_1300.h5"
  }
}
layer {
  name: "loss"
  type: "SoftmaxWithLoss"
  bottom: "fc8_plantvillage"
  bottom: "label"
  top: "loss"
}
layer {
  name: "accuracy"
  type: "Accuracy"
  bottom: "fc8_plantvillage"
  bottom: "label"
  top: "accuracy"
  include {
    phase: TEST
  }
}
I0403 13:38:57.170475 11872 layer_factory.hpp:77] Creating layer data
I0403 13:38:57.171116 11872 net.cpp:91] Creating Layer data
I0403 13:38:57.171146 11872 net.cpp:399] data -> data
I0403 13:38:57.171196 11872 net.cpp:399] data -> label
I0403 13:38:57.171246 11872 data_transformer.cpp:25] Loading mean file from: /home/mohanty/data/final_dataset/lmdb/grayscale-60-40/mean.binaryproto
I0403 13:38:57.183159 11875 db_lmdb.cpp:38] Opened lmdb /home/mohanty/data/final_dataset/lmdb/grayscale-60-40/test_db
I0403 13:38:57.188114 11872 data_layer.cpp:41] output data size: 100,3,227,227
I0403 13:38:57.309675 11872 net.cpp:141] Setting up data
I0403 13:38:57.309768 11872 net.cpp:148] Top shape: 100 3 227 227 (15458700)
I0403 13:38:57.309792 11872 net.cpp:148] Top shape: 100 (100)
I0403 13:38:57.309806 11872 net.cpp:156] Memory required for data: 61835200
I0403 13:38:57.309842 11872 layer_factory.hpp:77] Creating layer label_data_1_split
I0403 13:38:57.309869 11872 net.cpp:91] Creating Layer label_data_1_split
I0403 13:38:57.309885 11872 net.cpp:425] label_data_1_split <- label
I0403 13:38:57.309916 11872 net.cpp:399] label_data_1_split -> label_data_1_split_0
I0403 13:38:57.309943 11872 net.cpp:399] label_data_1_split -> label_data_1_split_1
I0403 13:38:57.309964 11872 net.cpp:399] label_data_1_split -> label_data_1_split_2
I0403 13:38:57.310029 11872 net.cpp:141] Setting up label_data_1_split
I0403 13:38:57.310051 11872 net.cpp:148] Top shape: 100 (100)
I0403 13:38:57.310067 11872 net.cpp:148] Top shape: 100 (100)
I0403 13:38:57.310083 11872 net.cpp:148] Top shape: 100 (100)
I0403 13:38:57.310097 11872 net.cpp:156] Memory required for data: 61836400
I0403 13:38:57.310112 11872 layer_factory.hpp:77] Creating layer conv1
I0403 13:38:57.310142 11872 net.cpp:91] Creating Layer conv1
I0403 13:38:57.310160 11872 net.cpp:425] conv1 <- data
I0403 13:38:57.310179 11872 net.cpp:399] conv1 -> conv1
I0403 13:38:57.452746 11872 net.cpp:141] Setting up conv1
I0403 13:38:57.452821 11872 net.cpp:148] Top shape: 100 96 55 55 (29040000)
I0403 13:38:57.452839 11872 net.cpp:156] Memory required for data: 177996400
I0403 13:38:57.452869 11872 layer_factory.hpp:77] Creating layer relu1
I0403 13:38:57.452896 11872 net.cpp:91] Creating Layer relu1
I0403 13:38:57.452914 11872 net.cpp:425] relu1 <- conv1
I0403 13:38:57.452932 11872 net.cpp:386] relu1 -> conv1 (in-place)
I0403 13:38:57.453182 11872 net.cpp:141] Setting up relu1
I0403 13:38:57.453208 11872 net.cpp:148] Top shape: 100 96 55 55 (29040000)
I0403 13:38:57.453256 11872 net.cpp:156] Memory required for data: 294156400
I0403 13:38:57.453272 11872 layer_factory.hpp:77] Creating layer norm1
I0403 13:38:57.453299 11872 net.cpp:91] Creating Layer norm1
I0403 13:38:57.453317 11872 net.cpp:425] norm1 <- conv1
I0403 13:38:57.453335 11872 net.cpp:399] norm1 -> norm1
I0403 13:38:57.453642 11872 net.cpp:141] Setting up norm1
I0403 13:38:57.453670 11872 net.cpp:148] Top shape: 100 96 55 55 (29040000)
I0403 13:38:57.453685 11872 net.cpp:156] Memory required for data: 410316400
I0403 13:38:57.453701 11872 layer_factory.hpp:77] Creating layer pool1
I0403 13:38:57.453722 11872 net.cpp:91] Creating Layer pool1
I0403 13:38:57.453739 11872 net.cpp:425] pool1 <- norm1
I0403 13:38:57.453757 11872 net.cpp:399] pool1 -> pool1
I0403 13:38:57.453821 11872 net.cpp:141] Setting up pool1
I0403 13:38:57.453845 11872 net.cpp:148] Top shape: 100 96 27 27 (6998400)
I0403 13:38:57.453860 11872 net.cpp:156] Memory required for data: 438310000
I0403 13:38:57.453874 11872 layer_factory.hpp:77] Creating layer conv2
I0403 13:38:57.453898 11872 net.cpp:91] Creating Layer conv2
I0403 13:38:57.453914 11872 net.cpp:425] conv2 <- pool1
I0403 13:38:57.453932 11872 net.cpp:399] conv2 -> conv2
I0403 13:38:57.468441 11872 net.cpp:141] Setting up conv2
I0403 13:38:57.468478 11872 net.cpp:148] Top shape: 100 256 27 27 (18662400)
I0403 13:38:57.468495 11872 net.cpp:156] Memory required for data: 512959600
I0403 13:38:57.468518 11872 layer_factory.hpp:77] Creating layer relu2
I0403 13:38:57.468538 11872 net.cpp:91] Creating Layer relu2
I0403 13:38:57.468554 11872 net.cpp:425] relu2 <- conv2
I0403 13:38:57.468577 11872 net.cpp:386] relu2 -> conv2 (in-place)
I0403 13:38:57.468868 11872 net.cpp:141] Setting up relu2
I0403 13:38:57.468894 11872 net.cpp:148] Top shape: 100 256 27 27 (18662400)
I0403 13:38:57.468909 11872 net.cpp:156] Memory required for data: 587609200
I0403 13:38:57.468924 11872 layer_factory.hpp:77] Creating layer norm2
I0403 13:38:57.468946 11872 net.cpp:91] Creating Layer norm2
I0403 13:38:57.468962 11872 net.cpp:425] norm2 <- conv2
I0403 13:38:57.468981 11872 net.cpp:399] norm2 -> norm2
I0403 13:38:57.469171 11872 net.cpp:141] Setting up norm2
I0403 13:38:57.469197 11872 net.cpp:148] Top shape: 100 256 27 27 (18662400)
I0403 13:38:57.469211 11872 net.cpp:156] Memory required for data: 662258800
I0403 13:38:57.469226 11872 layer_factory.hpp:77] Creating layer pool2
I0403 13:38:57.469244 11872 net.cpp:91] Creating Layer pool2
I0403 13:38:57.469259 11872 net.cpp:425] pool2 <- norm2
I0403 13:38:57.469277 11872 net.cpp:399] pool2 -> pool2
I0403 13:38:57.469328 11872 net.cpp:141] Setting up pool2
I0403 13:38:57.469350 11872 net.cpp:148] Top shape: 100 256 13 13 (4326400)
I0403 13:38:57.469364 11872 net.cpp:156] Memory required for data: 679564400
I0403 13:38:57.469378 11872 layer_factory.hpp:77] Creating layer conv3
I0403 13:38:57.469403 11872 net.cpp:91] Creating Layer conv3
I0403 13:38:57.469419 11872 net.cpp:425] conv3 <- pool2
I0403 13:38:57.469436 11872 net.cpp:399] conv3 -> conv3
I0403 13:38:57.511725 11872 net.cpp:141] Setting up conv3
I0403 13:38:57.511802 11872 net.cpp:148] Top shape: 100 384 13 13 (6489600)
I0403 13:38:57.511819 11872 net.cpp:156] Memory required for data: 705522800
I0403 13:38:57.511854 11872 layer_factory.hpp:77] Creating layer relu3
I0403 13:38:57.511878 11872 net.cpp:91] Creating Layer relu3
I0403 13:38:57.511895 11872 net.cpp:425] relu3 <- conv3
I0403 13:38:57.511917 11872 net.cpp:386] relu3 -> conv3 (in-place)
I0403 13:38:57.512210 11872 net.cpp:141] Setting up relu3
I0403 13:38:57.512239 11872 net.cpp:148] Top shape: 100 384 13 13 (6489600)
I0403 13:38:57.512256 11872 net.cpp:156] Memory required for data: 731481200
I0403 13:38:57.512271 11872 layer_factory.hpp:77] Creating layer conv4
I0403 13:38:57.512298 11872 net.cpp:91] Creating Layer conv4
I0403 13:38:57.512315 11872 net.cpp:425] conv4 <- conv3
I0403 13:38:57.512337 11872 net.cpp:399] conv4 -> conv4
I0403 13:38:57.541366 11872 net.cpp:141] Setting up conv4
I0403 13:38:57.541414 11872 net.cpp:148] Top shape: 100 384 13 13 (6489600)
I0403 13:38:57.541465 11872 net.cpp:156] Memory required for data: 757439600
I0403 13:38:57.541489 11872 layer_factory.hpp:77] Creating layer relu4
I0403 13:38:57.541510 11872 net.cpp:91] Creating Layer relu4
I0403 13:38:57.541527 11872 net.cpp:425] relu4 <- conv4
I0403 13:38:57.541554 11872 net.cpp:386] relu4 -> conv4 (in-place)
I0403 13:38:57.541831 11872 net.cpp:141] Setting up relu4
I0403 13:38:57.541857 11872 net.cpp:148] Top shape: 100 384 13 13 (6489600)
I0403 13:38:57.541872 11872 net.cpp:156] Memory required for data: 783398000
I0403 13:38:57.541887 11872 layer_factory.hpp:77] Creating layer conv5
I0403 13:38:57.541911 11872 net.cpp:91] Creating Layer conv5
I0403 13:38:57.541929 11872 net.cpp:425] conv5 <- conv4
I0403 13:38:57.541946 11872 net.cpp:399] conv5 -> conv5
I0403 13:38:57.561898 11872 net.cpp:141] Setting up conv5
I0403 13:38:57.561944 11872 net.cpp:148] Top shape: 100 256 13 13 (4326400)
I0403 13:38:57.561961 11872 net.cpp:156] Memory required for data: 800703600
I0403 13:38:57.561985 11872 layer_factory.hpp:77] Creating layer relu5
I0403 13:38:57.562003 11872 net.cpp:91] Creating Layer relu5
I0403 13:38:57.562018 11872 net.cpp:425] relu5 <- conv5
I0403 13:38:57.562036 11872 net.cpp:386] relu5 -> conv5 (in-place)
I0403 13:38:57.562305 11872 net.cpp:141] Setting up relu5
I0403 13:38:57.562331 11872 net.cpp:148] Top shape: 100 256 13 13 (4326400)
I0403 13:38:57.562346 11872 net.cpp:156] Memory required for data: 818009200
I0403 13:38:57.562361 11872 layer_factory.hpp:77] Creating layer pool5
I0403 13:38:57.562382 11872 net.cpp:91] Creating Layer pool5
I0403 13:38:57.562398 11872 net.cpp:425] pool5 <- conv5
I0403 13:38:57.562419 11872 net.cpp:399] pool5 -> pool5
I0403 13:38:57.562479 11872 net.cpp:141] Setting up pool5
I0403 13:38:57.562500 11872 net.cpp:148] Top shape: 100 256 6 6 (921600)
I0403 13:38:57.562515 11872 net.cpp:156] Memory required for data: 821695600
I0403 13:38:57.562528 11872 layer_factory.hpp:77] Creating layer fc6
I0403 13:38:57.562556 11872 net.cpp:91] Creating Layer fc6
I0403 13:38:57.562579 11872 net.cpp:425] fc6 <- pool5
I0403 13:38:57.562602 11872 net.cpp:399] fc6 -> fc6
I0403 13:38:59.128577 11872 net.cpp:141] Setting up fc6
I0403 13:38:59.128628 11872 net.cpp:148] Top shape: 100 4096 (409600)
I0403 13:38:59.128643 11872 net.cpp:156] Memory required for data: 823334000
I0403 13:38:59.128662 11872 layer_factory.hpp:77] Creating layer relu6
I0403 13:38:59.128685 11872 net.cpp:91] Creating Layer relu6
I0403 13:38:59.128703 11872 net.cpp:425] relu6 <- fc6
I0403 13:38:59.128721 11872 net.cpp:386] relu6 -> fc6 (in-place)
I0403 13:38:59.128931 11872 net.cpp:141] Setting up relu6
I0403 13:38:59.128955 11872 net.cpp:148] Top shape: 100 4096 (409600)
I0403 13:38:59.128969 11872 net.cpp:156] Memory required for data: 824972400
I0403 13:38:59.128983 11872 layer_factory.hpp:77] Creating layer drop6
I0403 13:38:59.129000 11872 net.cpp:91] Creating Layer drop6
I0403 13:38:59.129014 11872 net.cpp:425] drop6 <- fc6
I0403 13:38:59.129032 11872 net.cpp:386] drop6 -> fc6 (in-place)
I0403 13:38:59.129081 11872 net.cpp:141] Setting up drop6
I0403 13:38:59.129101 11872 net.cpp:148] Top shape: 100 4096 (409600)
I0403 13:38:59.129115 11872 net.cpp:156] Memory required for data: 826610800
I0403 13:38:59.129129 11872 layer_factory.hpp:77] Creating layer fc7
I0403 13:38:59.129149 11872 net.cpp:91] Creating Layer fc7
I0403 13:38:59.129168 11872 net.cpp:425] fc7 <- fc6
I0403 13:38:59.129186 11872 net.cpp:399] fc7 -> fc7
I0403 13:38:59.818871 11872 net.cpp:141] Setting up fc7
I0403 13:38:59.818910 11872 net.cpp:148] Top shape: 100 4096 (409600)
I0403 13:38:59.818927 11872 net.cpp:156] Memory required for data: 828249200
I0403 13:38:59.818945 11872 layer_factory.hpp:77] Creating layer relu7
I0403 13:38:59.818966 11872 net.cpp:91] Creating Layer relu7
I0403 13:38:59.818984 11872 net.cpp:425] relu7 <- fc7
I0403 13:38:59.819003 11872 net.cpp:386] relu7 -> fc7 (in-place)
I0403 13:38:59.819401 11872 net.cpp:141] Setting up relu7
I0403 13:38:59.819427 11872 net.cpp:148] Top shape: 100 4096 (409600)
I0403 13:38:59.819483 11872 net.cpp:156] Memory required for data: 829887600
I0403 13:38:59.819499 11872 layer_factory.hpp:77] Creating layer drop7
I0403 13:38:59.819517 11872 net.cpp:91] Creating Layer drop7
I0403 13:38:59.819532 11872 net.cpp:425] drop7 <- fc7
I0403 13:38:59.819551 11872 net.cpp:386] drop7 -> fc7 (in-place)
I0403 13:38:59.819598 11872 net.cpp:141] Setting up drop7
I0403 13:38:59.819620 11872 net.cpp:148] Top shape: 100 4096 (409600)
I0403 13:38:59.819634 11872 net.cpp:156] Memory required for data: 831526000
I0403 13:38:59.819648 11872 layer_factory.hpp:77] Creating layer fc8_plantvillage
I0403 13:38:59.819670 11872 net.cpp:91] Creating Layer fc8_plantvillage
I0403 13:38:59.819686 11872 net.cpp:425] fc8_plantvillage <- fc7
I0403 13:38:59.819706 11872 net.cpp:399] fc8_plantvillage -> fc8_plantvillage
I0403 13:38:59.826359 11872 net.cpp:141] Setting up fc8_plantvillage
I0403 13:38:59.826385 11872 net.cpp:148] Top shape: 100 38 (3800)
I0403 13:38:59.826401 11872 net.cpp:156] Memory required for data: 831541200
I0403 13:38:59.826418 11872 layer_factory.hpp:77] Creating layer fc8_plantvillage_fc8_plantvillage_0_split
I0403 13:38:59.826437 11872 net.cpp:91] Creating Layer fc8_plantvillage_fc8_plantvillage_0_split
I0403 13:38:59.826452 11872 net.cpp:425] fc8_plantvillage_fc8_plantvillage_0_split <- fc8_plantvillage
I0403 13:38:59.826470 11872 net.cpp:399] fc8_plantvillage_fc8_plantvillage_0_split -> fc8_plantvillage_fc8_plantvillage_0_split_0
I0403 13:38:59.826489 11872 net.cpp:399] fc8_plantvillage_fc8_plantvillage_0_split -> fc8_plantvillage_fc8_plantvillage_0_split_1
I0403 13:38:59.826508 11872 net.cpp:399] fc8_plantvillage_fc8_plantvillage_0_split -> fc8_plantvillage_fc8_plantvillage_0_split_2
I0403 13:38:59.826589 11872 net.cpp:141] Setting up fc8_plantvillage_fc8_plantvillage_0_split
I0403 13:38:59.826612 11872 net.cpp:148] Top shape: 100 38 (3800)
I0403 13:38:59.826628 11872 net.cpp:148] Top shape: 100 38 (3800)
I0403 13:38:59.826643 11872 net.cpp:148] Top shape: 100 38 (3800)
I0403 13:38:59.826656 11872 net.cpp:156] Memory required for data: 831586800
I0403 13:38:59.826670 11872 layer_factory.hpp:77] Creating layer prob
I0403 13:38:59.826688 11872 net.cpp:91] Creating Layer prob
I0403 13:38:59.826704 11872 net.cpp:425] prob <- fc8_plantvillage_fc8_plantvillage_0_split_0
I0403 13:38:59.826724 11872 net.cpp:399] prob -> prob
I0403 13:38:59.826947 11872 net.cpp:141] Setting up prob
I0403 13:38:59.826977 11872 net.cpp:148] Top shape: 100 38 (3800)
I0403 13:38:59.826992 11872 net.cpp:156] Memory required for data: 831602000
I0403 13:38:59.827006 11872 layer_factory.hpp:77] Creating layer hdf5out
I0403 13:38:59.827025 11872 net.cpp:91] Creating Layer hdf5out
I0403 13:38:59.827040 11872 net.cpp:425] hdf5out <- prob
I0403 13:38:59.827055 11872 net.cpp:425] hdf5out <- label_data_1_split_0
I0403 13:38:59.829166 11872 net.cpp:141] Setting up hdf5out
…
