…
I0403 13:42:42.972362 11951 net.cpp:313] The NetState phase (1) differed from the phase (0) specified by a rule in layer data
I0403 13:42:42.972679 11951 net.cpp:49] Initializing net from parameters: 
state {
  phase: TEST
}
layer {
  name: "data"
  type: "Data"
  top: "data"
  top: "label"
  include {
    phase: TEST
  }
  transform_param {
    crop_size: 227
    mean_file: "/home/mohanty/data/final_dataset/lmdb/grayscale-60-40/mean.binaryproto"
  }
  data_param {
    source: "/home/mohanty/data/final_dataset/lmdb/grayscale-60-40/test_db"
    batch_size: 100
    backend: LMDB
  }
}
layer {
  name: "conv1"
  type: "Convolution"
  bottom: "data"
  top: "conv1"
  param {
    lr_mult: 1
    decay_mult: 1
  }
  param {
    lr_mult: 2
    decay_mult: 0
  }
  convolution_param {
    num_output: 96
    kernel_size: 11
    stride: 4
    weight_filler {
      type: "gaussian"
      std: 0.01
    }
    bias_filler {
      type: "constant"
      value: 0
    }
  }
}
layer {
  name: "relu1"
  type: "ReLU"
  bottom: "conv1"
  top: "conv1"
}
layer {
  name: "norm1"
  type: "LRN"
  bottom: "conv1"
  top: "norm1"
  lrn_param {
    local_size: 5
    alpha: 0.0001
    beta: 0.75
  }
}
layer {
  name: "pool1"
  type: "Pooling"
  bottom: "norm1"
  top: "pool1"
  pooling_param {
    pool: MAX
    kernel_size: 3
    stride: 2
  }
}
layer {
  name: "conv2"
  type: "Convolution"
  bottom: "pool1"
  top: "conv2"
  param {
    lr_mult: 1
    decay_mult: 1
  }
  param {
    lr_mult: 2
    decay_mult: 0
  }
  convolution_param {
    num_output: 256
    pad: 2
    kernel_size: 5
    group: 2
    weight_filler {
      type: "gaussian"
      std: 0.01
    }
    bias_filler {
      type: "constant"
      value: 0.1
    }
  }
}
layer {
  name: "relu2"
  type: "ReLU"
  bottom: "conv2"
  top: "conv2"
}
layer {
  name: "norm2"
  type: "LRN"
  bottom: "conv2"
  top: "norm2"
  lrn_param {
    local_size: 5
    alpha: 0.0001
    beta: 0.75
  }
}
layer {
  name: "pool2"
  type: "Pooling"
  bottom: "norm2"
  top: "pool2"
  pooling_param {
    pool: MAX
    kernel_size: 3
    stride: 2
  }
}
layer {
  name: "conv3"
  type: "Convolution"
  bottom: "pool2"
  top: "conv3"
  param {
    lr_mult: 1
    decay_mult: 1
  }
  param {
    lr_mult: 2
    decay_mult: 0
  }
  convolution_param {
    num_output: 384
    pad: 1
    kernel_size: 3
    weight_filler {
      type: "gaussian"
      std: 0.01
    }
    bias_filler {
      type: "constant"
      value: 0
    }
  }
}
layer {
  name: "relu3"
  type: "ReLU"
  bottom: "conv3"
  top: "conv3"
}
layer {
  name: "conv4"
  type: "Convolution"
  bottom: "conv3"
  top: "conv4"
  param {
    lr_mult: 1
    decay_mult: 1
  }
  param {
    lr_mult: 2
    decay_mult: 0
  }
  convolution_param {
    num_output: 384
    pad: 1
    kernel_size: 3
    group: 2
    weight_filler {
      type: "gaussian"
      std: 0.01
    }
    bias_filler {
      type: "constant"
      value: 0.1
    }
  }
}
layer {
  name: "relu4"
  type: "ReLU"
  bottom: "conv4"
  top: "conv4"
}
layer {
  name: "conv5"
  type: "Convolution"
  bottom: "conv4"
  top: "conv5"
  param {
    lr_mult: 1
    decay_mult: 1
  }
  param {
    lr_mult: 2
    decay_mult: 0
  }
  convolution_param {
    num_output: 256
    pad: 1
    kernel_size: 3
    group: 2
    weight_filler {
      type: "gaussian"
      std: 0.01
    }
    bias_filler {
      type: "constant"
      value: 0.1
    }
  }
}
layer {
  name: "relu5"
  type: "ReLU"
  bottom: "conv5"
  top: "conv5"
}
layer {
  name: "pool5"
  type: "Pooling"
  bottom: "conv5"
  top: "pool5"
  pooling_param {
    pool: MAX
    kernel_size: 3
    stride: 2
  }
}
layer {
  name: "fc6"
  type: "InnerProduct"
  bottom: "pool5"
  top: "fc6"
  param {
    lr_mult: 1
    decay_mult: 1
  }
  param {
    lr_mult: 2
    decay_mult: 0
  }
  inner_product_param {
    num_output: 4096
    weight_filler {
      type: "gaussian"
      std: 0.005
    }
    bias_filler {
      type: "constant"
      value: 0.1
    }
  }
}
layer {
  name: "relu6"
  type: "ReLU"
  bottom: "fc6"
  top: "fc6"
}
layer {
  name: "drop6"
  type: "Dropout"
  bottom: "fc6"
  top: "fc6"
  dropout_param {
    dropout_ratio: 0.5
  }
}
layer {
  name: "fc7"
  type: "InnerProduct"
  bottom: "fc6"
  top: "fc7"
  param {
    lr_mult: 1
    decay_mult: 1
  }
  param {
    lr_mult: 2
    decay_mult: 0
  }
  inner_product_param {
    num_output: 4096
    weight_filler {
      type: "gaussian"
      std: 0.005
    }
    bias_filler {
      type: "constant"
      value: 0.1
    }
  }
}
layer {
  name: "relu7"
  type: "ReLU"
  bottom: "fc7"
  top: "fc7"
}
layer {
  name: "drop7"
  type: "Dropout"
  bottom: "fc7"
  top: "fc7"
  dropout_param {
    dropout_ratio: 0.5
  }
}
layer {
  name: "fc8_plantvillage"
  type: "InnerProduct"
  bottom: "fc7"
  top: "fc8_plantvillage"
  param {
    lr_mult: 1
    decay_mult: 1
  }
  param {
    lr_mult: 2
    decay_mult: 0
  }
  inner_product_param {
    num_output: 38
    weight_filler {
      type: "gaussian"
      std: 0.01
    }
    bias_filler {
      type: "constant"
      value: 0
    }
  }
}
layer {
  name: "prob"
  type: "Softmax"
  bottom: "fc8_plantvillage"
  top: "prob"
  include {
    phase: TEST
  }
}
layer {
  name: "hdf5out"
  type: "HDF5Output"
  bottom: "prob"
  bottom: "label"
  include {
    phase: TEST
  }
  hdf5_output_param {
    file_name: "hdf5_dumps/iter_2925.h5"
  }
}
layer {
  name: "loss"
  type: "SoftmaxWithLoss"
  bottom: "fc8_plantvillage"
  bottom: "label"
  top: "loss"
}
layer {
  name: "accuracy"
  type: "Accuracy"
  bottom: "fc8_plantvillage"
  bottom: "label"
  top: "accuracy"
  include {
    phase: TEST
  }
}
I0403 13:42:42.973280 11951 layer_factory.hpp:77] Creating layer data
I0403 13:42:42.973937 11951 net.cpp:91] Creating Layer data
I0403 13:42:42.973970 11951 net.cpp:399] data -> data
I0403 13:42:42.974020 11951 net.cpp:399] data -> label
I0403 13:42:42.974057 11951 data_transformer.cpp:25] Loading mean file from: /home/mohanty/data/final_dataset/lmdb/grayscale-60-40/mean.binaryproto
I0403 13:42:42.976680 11954 db_lmdb.cpp:38] Opened lmdb /home/mohanty/data/final_dataset/lmdb/grayscale-60-40/test_db
I0403 13:42:42.988770 11951 data_layer.cpp:41] output data size: 100,3,227,227
I0403 13:42:43.114907 11951 net.cpp:141] Setting up data
I0403 13:42:43.114964 11951 net.cpp:148] Top shape: 100 3 227 227 (15458700)
I0403 13:42:43.114989 11951 net.cpp:148] Top shape: 100 (100)
I0403 13:42:43.115005 11951 net.cpp:156] Memory required for data: 61835200
I0403 13:42:43.115031 11951 layer_factory.hpp:77] Creating layer label_data_1_split
I0403 13:42:43.115056 11951 net.cpp:91] Creating Layer label_data_1_split
I0403 13:42:43.115074 11951 net.cpp:425] label_data_1_split <- label
I0403 13:42:43.115108 11951 net.cpp:399] label_data_1_split -> label_data_1_split_0
I0403 13:42:43.115136 11951 net.cpp:399] label_data_1_split -> label_data_1_split_1
I0403 13:42:43.115157 11951 net.cpp:399] label_data_1_split -> label_data_1_split_2
I0403 13:42:43.115219 11951 net.cpp:141] Setting up label_data_1_split
I0403 13:42:43.115243 11951 net.cpp:148] Top shape: 100 (100)
I0403 13:42:43.115262 11951 net.cpp:148] Top shape: 100 (100)
I0403 13:42:43.115279 11951 net.cpp:148] Top shape: 100 (100)
I0403 13:42:43.115294 11951 net.cpp:156] Memory required for data: 61836400
I0403 13:42:43.115309 11951 layer_factory.hpp:77] Creating layer conv1
I0403 13:42:43.115340 11951 net.cpp:91] Creating Layer conv1
I0403 13:42:43.115360 11951 net.cpp:425] conv1 <- data
I0403 13:42:43.115380 11951 net.cpp:399] conv1 -> conv1
I0403 13:42:43.255265 11951 net.cpp:141] Setting up conv1
I0403 13:42:43.255343 11951 net.cpp:148] Top shape: 100 96 55 55 (29040000)
I0403 13:42:43.255362 11951 net.cpp:156] Memory required for data: 177996400
I0403 13:42:43.255393 11951 layer_factory.hpp:77] Creating layer relu1
I0403 13:42:43.255420 11951 net.cpp:91] Creating Layer relu1
I0403 13:42:43.255439 11951 net.cpp:425] relu1 <- conv1
I0403 13:42:43.255458 11951 net.cpp:386] relu1 -> conv1 (in-place)
I0403 13:42:43.255723 11951 net.cpp:141] Setting up relu1
I0403 13:42:43.255751 11951 net.cpp:148] Top shape: 100 96 55 55 (29040000)
I0403 13:42:43.255801 11951 net.cpp:156] Memory required for data: 294156400
I0403 13:42:43.255817 11951 layer_factory.hpp:77] Creating layer norm1
I0403 13:42:43.255846 11951 net.cpp:91] Creating Layer norm1
I0403 13:42:43.255862 11951 net.cpp:425] norm1 <- conv1
I0403 13:42:43.255882 11951 net.cpp:399] norm1 -> norm1
I0403 13:42:43.256192 11951 net.cpp:141] Setting up norm1
I0403 13:42:43.256223 11951 net.cpp:148] Top shape: 100 96 55 55 (29040000)
I0403 13:42:43.256243 11951 net.cpp:156] Memory required for data: 410316400
I0403 13:42:43.256263 11951 layer_factory.hpp:77] Creating layer pool1
I0403 13:42:43.256288 11951 net.cpp:91] Creating Layer pool1
I0403 13:42:43.256305 11951 net.cpp:425] pool1 <- norm1
I0403 13:42:43.256324 11951 net.cpp:399] pool1 -> pool1
I0403 13:42:43.256391 11951 net.cpp:141] Setting up pool1
I0403 13:42:43.256415 11951 net.cpp:148] Top shape: 100 96 27 27 (6998400)
I0403 13:42:43.256430 11951 net.cpp:156] Memory required for data: 438310000
I0403 13:42:43.256445 11951 layer_factory.hpp:77] Creating layer conv2
I0403 13:42:43.256469 11951 net.cpp:91] Creating Layer conv2
I0403 13:42:43.256486 11951 net.cpp:425] conv2 <- pool1
I0403 13:42:43.256503 11951 net.cpp:399] conv2 -> conv2
I0403 13:42:43.271443 11951 net.cpp:141] Setting up conv2
I0403 13:42:43.271493 11951 net.cpp:148] Top shape: 100 256 27 27 (18662400)
I0403 13:42:43.271510 11951 net.cpp:156] Memory required for data: 512959600
I0403 13:42:43.271538 11951 layer_factory.hpp:77] Creating layer relu2
I0403 13:42:43.271559 11951 net.cpp:91] Creating Layer relu2
I0403 13:42:43.271576 11951 net.cpp:425] relu2 <- conv2
I0403 13:42:43.271595 11951 net.cpp:386] relu2 -> conv2 (in-place)
I0403 13:42:43.271890 11951 net.cpp:141] Setting up relu2
I0403 13:42:43.271919 11951 net.cpp:148] Top shape: 100 256 27 27 (18662400)
I0403 13:42:43.271937 11951 net.cpp:156] Memory required for data: 587609200
I0403 13:42:43.271953 11951 layer_factory.hpp:77] Creating layer norm2
I0403 13:42:43.271975 11951 net.cpp:91] Creating Layer norm2
I0403 13:42:43.271991 11951 net.cpp:425] norm2 <- conv2
I0403 13:42:43.272012 11951 net.cpp:399] norm2 -> norm2
I0403 13:42:43.272227 11951 net.cpp:141] Setting up norm2
I0403 13:42:43.272253 11951 net.cpp:148] Top shape: 100 256 27 27 (18662400)
I0403 13:42:43.272269 11951 net.cpp:156] Memory required for data: 662258800
I0403 13:42:43.272284 11951 layer_factory.hpp:77] Creating layer pool2
I0403 13:42:43.272305 11951 net.cpp:91] Creating Layer pool2
I0403 13:42:43.272322 11951 net.cpp:425] pool2 <- norm2
I0403 13:42:43.272339 11951 net.cpp:399] pool2 -> pool2
I0403 13:42:43.272394 11951 net.cpp:141] Setting up pool2
I0403 13:42:43.272418 11951 net.cpp:148] Top shape: 100 256 13 13 (4326400)
I0403 13:42:43.272433 11951 net.cpp:156] Memory required for data: 679564400
I0403 13:42:43.272449 11951 layer_factory.hpp:77] Creating layer conv3
I0403 13:42:43.272471 11951 net.cpp:91] Creating Layer conv3
I0403 13:42:43.272490 11951 net.cpp:425] conv3 <- pool2
I0403 13:42:43.272510 11951 net.cpp:399] conv3 -> conv3
I0403 13:42:43.316285 11951 net.cpp:141] Setting up conv3
I0403 13:42:43.316337 11951 net.cpp:148] Top shape: 100 384 13 13 (6489600)
I0403 13:42:43.316354 11951 net.cpp:156] Memory required for data: 705522800
I0403 13:42:43.316378 11951 layer_factory.hpp:77] Creating layer relu3
I0403 13:42:43.316402 11951 net.cpp:91] Creating Layer relu3
I0403 13:42:43.316421 11951 net.cpp:425] relu3 <- conv3
I0403 13:42:43.316439 11951 net.cpp:386] relu3 -> conv3 (in-place)
I0403 13:42:43.316715 11951 net.cpp:141] Setting up relu3
I0403 13:42:43.316741 11951 net.cpp:148] Top shape: 100 384 13 13 (6489600)
I0403 13:42:43.316756 11951 net.cpp:156] Memory required for data: 731481200
I0403 13:42:43.316771 11951 layer_factory.hpp:77] Creating layer conv4
I0403 13:42:43.316798 11951 net.cpp:91] Creating Layer conv4
I0403 13:42:43.316817 11951 net.cpp:425] conv4 <- conv3
I0403 13:42:43.316838 11951 net.cpp:399] conv4 -> conv4
I0403 13:42:43.346273 11951 net.cpp:141] Setting up conv4
I0403 13:42:43.346328 11951 net.cpp:148] Top shape: 100 384 13 13 (6489600)
I0403 13:42:43.346377 11951 net.cpp:156] Memory required for data: 757439600
I0403 13:42:43.346400 11951 layer_factory.hpp:77] Creating layer relu4
I0403 13:42:43.346421 11951 net.cpp:91] Creating Layer relu4
I0403 13:42:43.346437 11951 net.cpp:425] relu4 <- conv4
I0403 13:42:43.346458 11951 net.cpp:386] relu4 -> conv4 (in-place)
I0403 13:42:43.346747 11951 net.cpp:141] Setting up relu4
I0403 13:42:43.346774 11951 net.cpp:148] Top shape: 100 384 13 13 (6489600)
I0403 13:42:43.346789 11951 net.cpp:156] Memory required for data: 783398000
I0403 13:42:43.346806 11951 layer_factory.hpp:77] Creating layer conv5
I0403 13:42:43.346829 11951 net.cpp:91] Creating Layer conv5
I0403 13:42:43.346848 11951 net.cpp:425] conv5 <- conv4
I0403 13:42:43.346869 11951 net.cpp:399] conv5 -> conv5
I0403 13:42:43.367355 11951 net.cpp:141] Setting up conv5
I0403 13:42:43.367416 11951 net.cpp:148] Top shape: 100 256 13 13 (4326400)
I0403 13:42:43.367434 11951 net.cpp:156] Memory required for data: 800703600
I0403 13:42:43.367460 11951 layer_factory.hpp:77] Creating layer relu5
I0403 13:42:43.367483 11951 net.cpp:91] Creating Layer relu5
I0403 13:42:43.367503 11951 net.cpp:425] relu5 <- conv5
I0403 13:42:43.367522 11951 net.cpp:386] relu5 -> conv5 (in-place)
I0403 13:42:43.367813 11951 net.cpp:141] Setting up relu5
I0403 13:42:43.367841 11951 net.cpp:148] Top shape: 100 256 13 13 (4326400)
I0403 13:42:43.367856 11951 net.cpp:156] Memory required for data: 818009200
I0403 13:42:43.367872 11951 layer_factory.hpp:77] Creating layer pool5
I0403 13:42:43.367897 11951 net.cpp:91] Creating Layer pool5
I0403 13:42:43.367914 11951 net.cpp:425] pool5 <- conv5
I0403 13:42:43.367933 11951 net.cpp:399] pool5 -> pool5
I0403 13:42:43.367995 11951 net.cpp:141] Setting up pool5
I0403 13:42:43.368019 11951 net.cpp:148] Top shape: 100 256 6 6 (921600)
I0403 13:42:43.368034 11951 net.cpp:156] Memory required for data: 821695600
I0403 13:42:43.368049 11951 layer_factory.hpp:77] Creating layer fc6
I0403 13:42:43.368079 11951 net.cpp:91] Creating Layer fc6
I0403 13:42:43.368098 11951 net.cpp:425] fc6 <- pool5
I0403 13:42:43.368116 11951 net.cpp:399] fc6 -> fc6
I0403 13:42:44.900029 11951 net.cpp:141] Setting up fc6
I0403 13:42:44.900071 11951 net.cpp:148] Top shape: 100 4096 (409600)
I0403 13:42:44.900089 11951 net.cpp:156] Memory required for data: 823334000
I0403 13:42:44.900110 11951 layer_factory.hpp:77] Creating layer relu6
I0403 13:42:44.900131 11951 net.cpp:91] Creating Layer relu6
I0403 13:42:44.900149 11951 net.cpp:425] relu6 <- fc6
I0403 13:42:44.900171 11951 net.cpp:386] relu6 -> fc6 (in-place)
I0403 13:42:44.900382 11951 net.cpp:141] Setting up relu6
I0403 13:42:44.900408 11951 net.cpp:148] Top shape: 100 4096 (409600)
I0403 13:42:44.900424 11951 net.cpp:156] Memory required for data: 824972400
I0403 13:42:44.900437 11951 layer_factory.hpp:77] Creating layer drop6
I0403 13:42:44.900459 11951 net.cpp:91] Creating Layer drop6
I0403 13:42:44.900475 11951 net.cpp:425] drop6 <- fc6
I0403 13:42:44.900491 11951 net.cpp:386] drop6 -> fc6 (in-place)
I0403 13:42:44.900539 11951 net.cpp:141] Setting up drop6
I0403 13:42:44.900565 11951 net.cpp:148] Top shape: 100 4096 (409600)
I0403 13:42:44.900581 11951 net.cpp:156] Memory required for data: 826610800
I0403 13:42:44.900596 11951 layer_factory.hpp:77] Creating layer fc7
I0403 13:42:44.900624 11951 net.cpp:91] Creating Layer fc7
I0403 13:42:44.900640 11951 net.cpp:425] fc7 <- fc6
I0403 13:42:44.900660 11951 net.cpp:399] fc7 -> fc7
I0403 13:42:45.576786 11951 net.cpp:141] Setting up fc7
I0403 13:42:45.576827 11951 net.cpp:148] Top shape: 100 4096 (409600)
I0403 13:42:45.576851 11951 net.cpp:156] Memory required for data: 828249200
I0403 13:42:45.576872 11951 layer_factory.hpp:77] Creating layer relu7
I0403 13:42:45.576894 11951 net.cpp:91] Creating Layer relu7
I0403 13:42:45.576912 11951 net.cpp:425] relu7 <- fc7
I0403 13:42:45.576936 11951 net.cpp:386] relu7 -> fc7 (in-place)
I0403 13:42:45.577338 11951 net.cpp:141] Setting up relu7
I0403 13:42:45.577363 11951 net.cpp:148] Top shape: 100 4096 (409600)
I0403 13:42:45.577419 11951 net.cpp:156] Memory required for data: 829887600
I0403 13:42:45.577435 11951 layer_factory.hpp:77] Creating layer drop7
I0403 13:42:45.577452 11951 net.cpp:91] Creating Layer drop7
I0403 13:42:45.577468 11951 net.cpp:425] drop7 <- fc7
I0403 13:42:45.577487 11951 net.cpp:386] drop7 -> fc7 (in-place)
I0403 13:42:45.577533 11951 net.cpp:141] Setting up drop7
I0403 13:42:45.577553 11951 net.cpp:148] Top shape: 100 4096 (409600)
I0403 13:42:45.577574 11951 net.cpp:156] Memory required for data: 831526000
I0403 13:42:45.577586 11951 layer_factory.hpp:77] Creating layer fc8_plantvillage
I0403 13:42:45.577610 11951 net.cpp:91] Creating Layer fc8_plantvillage
I0403 13:42:45.577626 11951 net.cpp:425] fc8_plantvillage <- fc7
I0403 13:42:45.577647 11951 net.cpp:399] fc8_plantvillage -> fc8_plantvillage
I0403 13:42:45.584167 11951 net.cpp:141] Setting up fc8_plantvillage
I0403 13:42:45.584197 11951 net.cpp:148] Top shape: 100 38 (3800)
I0403 13:42:45.584213 11951 net.cpp:156] Memory required for data: 831541200
I0403 13:42:45.584231 11951 layer_factory.hpp:77] Creating layer fc8_plantvillage_fc8_plantvillage_0_split
I0403 13:42:45.584249 11951 net.cpp:91] Creating Layer fc8_plantvillage_fc8_plantvillage_0_split
I0403 13:42:45.584272 11951 net.cpp:425] fc8_plantvillage_fc8_plantvillage_0_split <- fc8_plantvillage
I0403 13:42:45.584290 11951 net.cpp:399] fc8_plantvillage_fc8_plantvillage_0_split -> fc8_plantvillage_fc8_plantvillage_0_split_0
I0403 13:42:45.584311 11951 net.cpp:399] fc8_plantvillage_fc8_plantvillage_0_split -> fc8_plantvillage_fc8_plantvillage_0_split_1
I0403 13:42:45.584329 11951 net.cpp:399] fc8_plantvillage_fc8_plantvillage_0_split -> fc8_plantvillage_fc8_plantvillage_0_split_2
I0403 13:42:45.584405 11951 net.cpp:141] Setting up fc8_plantvillage_fc8_plantvillage_0_split
I0403 13:42:45.584429 11951 net.cpp:148] Top shape: 100 38 (3800)
I0403 13:42:45.584444 11951 net.cpp:148] Top shape: 100 38 (3800)
I0403 13:42:45.584458 11951 net.cpp:148] Top shape: 100 38 (3800)
I0403 13:42:45.584471 11951 net.cpp:156] Memory required for data: 831586800
I0403 13:42:45.584484 11951 layer_factory.hpp:77] Creating layer prob
I0403 13:42:45.584502 11951 net.cpp:91] Creating Layer prob
I0403 13:42:45.584517 11951 net.cpp:425] prob <- fc8_plantvillage_fc8_plantvillage_0_split_0
I0403 13:42:45.584534 11951 net.cpp:399] prob -> prob
I0403 13:42:45.584769 11951 net.cpp:141] Setting up prob
I0403 13:42:45.584794 11951 net.cpp:148] Top shape: 100 38 (3800)
I0403 13:42:45.584810 11951 net.cpp:156] Memory required for data: 831602000
I0403 13:42:45.584823 11951 layer_factory.hpp:77] Creating layer hdf5out
I0403 13:42:45.584841 11951 net.cpp:91] Creating Layer hdf5out
I0403 13:42:45.584856 11951 net.cpp:425] hdf5out <- prob
I0403 13:42:45.584875 11951 net.cpp:425] hdf5out <- label_data_1_split_0
I0403 13:42:45.587476 11951 net.cpp:141] Setting up hdf5out
…
