…
I0403 13:58:31.275638 12316 net.cpp:313] The NetState phase (1) differed from the phase (0) specified by a rule in layer data
I0403 13:58:31.275952 12316 net.cpp:49] Initializing net from parameters: 
state {
  phase: TEST
}
layer {
  name: "data"
  type: "Data"
  top: "data"
  top: "label"
  include {
    phase: TEST
  }
  transform_param {
    crop_size: 227
    mean_file: "/home/mohanty/data/final_dataset/lmdb/grayscale-60-40/mean.binaryproto"
  }
  data_param {
    source: "/home/mohanty/data/final_dataset/lmdb/grayscale-60-40/test_db"
    batch_size: 100
    backend: LMDB
  }
}
layer {
  name: "conv1"
  type: "Convolution"
  bottom: "data"
  top: "conv1"
  param {
    lr_mult: 1
    decay_mult: 1
  }
  param {
    lr_mult: 2
    decay_mult: 0
  }
  convolution_param {
    num_output: 96
    kernel_size: 11
    stride: 4
    weight_filler {
      type: "gaussian"
      std: 0.01
    }
    bias_filler {
      type: "constant"
      value: 0
    }
  }
}
layer {
  name: "relu1"
  type: "ReLU"
  bottom: "conv1"
  top: "conv1"
}
layer {
  name: "norm1"
  type: "LRN"
  bottom: "conv1"
  top: "norm1"
  lrn_param {
    local_size: 5
    alpha: 0.0001
    beta: 0.75
  }
}
layer {
  name: "pool1"
  type: "Pooling"
  bottom: "norm1"
  top: "pool1"
  pooling_param {
    pool: MAX
    kernel_size: 3
    stride: 2
  }
}
layer {
  name: "conv2"
  type: "Convolution"
  bottom: "pool1"
  top: "conv2"
  param {
    lr_mult: 1
    decay_mult: 1
  }
  param {
    lr_mult: 2
    decay_mult: 0
  }
  convolution_param {
    num_output: 256
    pad: 2
    kernel_size: 5
    group: 2
    weight_filler {
      type: "gaussian"
      std: 0.01
    }
    bias_filler {
      type: "constant"
      value: 0.1
    }
  }
}
layer {
  name: "relu2"
  type: "ReLU"
  bottom: "conv2"
  top: "conv2"
}
layer {
  name: "norm2"
  type: "LRN"
  bottom: "conv2"
  top: "norm2"
  lrn_param {
    local_size: 5
    alpha: 0.0001
    beta: 0.75
  }
}
layer {
  name: "pool2"
  type: "Pooling"
  bottom: "norm2"
  top: "pool2"
  pooling_param {
    pool: MAX
    kernel_size: 3
    stride: 2
  }
}
layer {
  name: "conv3"
  type: "Convolution"
  bottom: "pool2"
  top: "conv3"
  param {
    lr_mult: 1
    decay_mult: 1
  }
  param {
    lr_mult: 2
    decay_mult: 0
  }
  convolution_param {
    num_output: 384
    pad: 1
    kernel_size: 3
    weight_filler {
      type: "gaussian"
      std: 0.01
    }
    bias_filler {
      type: "constant"
      value: 0
    }
  }
}
layer {
  name: "relu3"
  type: "ReLU"
  bottom: "conv3"
  top: "conv3"
}
layer {
  name: "conv4"
  type: "Convolution"
  bottom: "conv3"
  top: "conv4"
  param {
    lr_mult: 1
    decay_mult: 1
  }
  param {
    lr_mult: 2
    decay_mult: 0
  }
  convolution_param {
    num_output: 384
    pad: 1
    kernel_size: 3
    group: 2
    weight_filler {
      type: "gaussian"
      std: 0.01
    }
    bias_filler {
      type: "constant"
      value: 0.1
    }
  }
}
layer {
  name: "relu4"
  type: "ReLU"
  bottom: "conv4"
  top: "conv4"
}
layer {
  name: "conv5"
  type: "Convolution"
  bottom: "conv4"
  top: "conv5"
  param {
    lr_mult: 1
    decay_mult: 1
  }
  param {
    lr_mult: 2
    decay_mult: 0
  }
  convolution_param {
    num_output: 256
    pad: 1
    kernel_size: 3
    group: 2
    weight_filler {
      type: "gaussian"
      std: 0.01
    }
    bias_filler {
      type: "constant"
      value: 0.1
    }
  }
}
layer {
  name: "relu5"
  type: "ReLU"
  bottom: "conv5"
  top: "conv5"
}
layer {
  name: "pool5"
  type: "Pooling"
  bottom: "conv5"
  top: "pool5"
  pooling_param {
    pool: MAX
    kernel_size: 3
    stride: 2
  }
}
layer {
  name: "fc6"
  type: "InnerProduct"
  bottom: "pool5"
  top: "fc6"
  param {
    lr_mult: 1
    decay_mult: 1
  }
  param {
    lr_mult: 2
    decay_mult: 0
  }
  inner_product_param {
    num_output: 4096
    weight_filler {
      type: "gaussian"
      std: 0.005
    }
    bias_filler {
      type: "constant"
      value: 0.1
    }
  }
}
layer {
  name: "relu6"
  type: "ReLU"
  bottom: "fc6"
  top: "fc6"
}
layer {
  name: "drop6"
  type: "Dropout"
  bottom: "fc6"
  top: "fc6"
  dropout_param {
    dropout_ratio: 0.5
  }
}
layer {
  name: "fc7"
  type: "InnerProduct"
  bottom: "fc6"
  top: "fc7"
  param {
    lr_mult: 1
    decay_mult: 1
  }
  param {
    lr_mult: 2
    decay_mult: 0
  }
  inner_product_param {
    num_output: 4096
    weight_filler {
      type: "gaussian"
      std: 0.005
    }
    bias_filler {
      type: "constant"
      value: 0.1
    }
  }
}
layer {
  name: "relu7"
  type: "ReLU"
  bottom: "fc7"
  top: "fc7"
}
layer {
  name: "drop7"
  type: "Dropout"
  bottom: "fc7"
  top: "fc7"
  dropout_param {
    dropout_ratio: 0.5
  }
}
layer {
  name: "fc8_plantvillage"
  type: "InnerProduct"
  bottom: "fc7"
  top: "fc8_plantvillage"
  param {
    lr_mult: 1
    decay_mult: 1
  }
  param {
    lr_mult: 2
    decay_mult: 0
  }
  inner_product_param {
    num_output: 38
    weight_filler {
      type: "gaussian"
      std: 0.01
    }
    bias_filler {
      type: "constant"
      value: 0
    }
  }
}
layer {
  name: "prob"
  type: "Softmax"
  bottom: "fc8_plantvillage"
  top: "prob"
  include {
    phase: TEST
  }
}
layer {
  name: "hdf5out"
  type: "HDF5Output"
  bottom: "prob"
  bottom: "label"
  include {
    phase: TEST
  }
  hdf5_output_param {
    file_name: "hdf5_dumps/iter_9750.h5"
  }
}
layer {
  name: "loss"
  type: "SoftmaxWithLoss"
  bottom: "fc8_plantvillage"
  bottom: "label"
  top: "loss"
}
layer {
  name: "accuracy"
  type: "Accuracy"
  bottom: "fc8_plantvillage"
  bottom: "label"
  top: "accuracy"
  include {
    phase: TEST
  }
}
I0403 13:58:31.276561 12316 layer_factory.hpp:77] Creating layer data
I0403 13:58:31.277217 12316 net.cpp:91] Creating Layer data
I0403 13:58:31.277261 12316 net.cpp:399] data -> data
I0403 13:58:31.277315 12316 net.cpp:399] data -> label
I0403 13:58:31.277354 12316 data_transformer.cpp:25] Loading mean file from: /home/mohanty/data/final_dataset/lmdb/grayscale-60-40/mean.binaryproto
I0403 13:58:31.280318 12319 db_lmdb.cpp:38] Opened lmdb /home/mohanty/data/final_dataset/lmdb/grayscale-60-40/test_db
I0403 13:58:31.291584 12316 data_layer.cpp:41] output data size: 100,3,227,227
I0403 13:58:31.411977 12316 net.cpp:141] Setting up data
I0403 13:58:31.412031 12316 net.cpp:148] Top shape: 100 3 227 227 (15458700)
I0403 13:58:31.412053 12316 net.cpp:148] Top shape: 100 (100)
I0403 13:58:31.412068 12316 net.cpp:156] Memory required for data: 61835200
I0403 13:58:31.412096 12316 layer_factory.hpp:77] Creating layer label_data_1_split
I0403 13:58:31.412119 12316 net.cpp:91] Creating Layer label_data_1_split
I0403 13:58:31.412135 12316 net.cpp:425] label_data_1_split <- label
I0403 13:58:31.412165 12316 net.cpp:399] label_data_1_split -> label_data_1_split_0
I0403 13:58:31.412191 12316 net.cpp:399] label_data_1_split -> label_data_1_split_1
I0403 13:58:31.412210 12316 net.cpp:399] label_data_1_split -> label_data_1_split_2
I0403 13:58:31.412272 12316 net.cpp:141] Setting up label_data_1_split
I0403 13:58:31.412297 12316 net.cpp:148] Top shape: 100 (100)
I0403 13:58:31.412312 12316 net.cpp:148] Top shape: 100 (100)
I0403 13:58:31.412327 12316 net.cpp:148] Top shape: 100 (100)
I0403 13:58:31.412339 12316 net.cpp:156] Memory required for data: 61836400
I0403 13:58:31.412353 12316 layer_factory.hpp:77] Creating layer conv1
I0403 13:58:31.412382 12316 net.cpp:91] Creating Layer conv1
I0403 13:58:31.412400 12316 net.cpp:425] conv1 <- data
I0403 13:58:31.412418 12316 net.cpp:399] conv1 -> conv1
I0403 13:58:31.554252 12316 net.cpp:141] Setting up conv1
I0403 13:58:31.554330 12316 net.cpp:148] Top shape: 100 96 55 55 (29040000)
I0403 13:58:31.554348 12316 net.cpp:156] Memory required for data: 177996400
I0403 13:58:31.554379 12316 layer_factory.hpp:77] Creating layer relu1
I0403 13:58:31.554407 12316 net.cpp:91] Creating Layer relu1
I0403 13:58:31.554425 12316 net.cpp:425] relu1 <- conv1
I0403 13:58:31.554443 12316 net.cpp:386] relu1 -> conv1 (in-place)
I0403 13:58:31.554713 12316 net.cpp:141] Setting up relu1
I0403 13:58:31.554740 12316 net.cpp:148] Top shape: 100 96 55 55 (29040000)
I0403 13:58:31.554790 12316 net.cpp:156] Memory required for data: 294156400
I0403 13:58:31.554806 12316 layer_factory.hpp:77] Creating layer norm1
I0403 13:58:31.554833 12316 net.cpp:91] Creating Layer norm1
I0403 13:58:31.554852 12316 net.cpp:425] norm1 <- conv1
I0403 13:58:31.554868 12316 net.cpp:399] norm1 -> norm1
I0403 13:58:31.555182 12316 net.cpp:141] Setting up norm1
I0403 13:58:31.555209 12316 net.cpp:148] Top shape: 100 96 55 55 (29040000)
I0403 13:58:31.555225 12316 net.cpp:156] Memory required for data: 410316400
I0403 13:58:31.555240 12316 layer_factory.hpp:77] Creating layer pool1
I0403 13:58:31.555263 12316 net.cpp:91] Creating Layer pool1
I0403 13:58:31.555280 12316 net.cpp:425] pool1 <- norm1
I0403 13:58:31.555299 12316 net.cpp:399] pool1 -> pool1
I0403 13:58:31.555368 12316 net.cpp:141] Setting up pool1
I0403 13:58:31.555392 12316 net.cpp:148] Top shape: 100 96 27 27 (6998400)
I0403 13:58:31.555408 12316 net.cpp:156] Memory required for data: 438310000
I0403 13:58:31.555423 12316 layer_factory.hpp:77] Creating layer conv2
I0403 13:58:31.555447 12316 net.cpp:91] Creating Layer conv2
I0403 13:58:31.555464 12316 net.cpp:425] conv2 <- pool1
I0403 13:58:31.555482 12316 net.cpp:399] conv2 -> conv2
I0403 13:58:31.570828 12316 net.cpp:141] Setting up conv2
I0403 13:58:31.570883 12316 net.cpp:148] Top shape: 100 256 27 27 (18662400)
I0403 13:58:31.570901 12316 net.cpp:156] Memory required for data: 512959600
I0403 13:58:31.570925 12316 layer_factory.hpp:77] Creating layer relu2
I0403 13:58:31.570946 12316 net.cpp:91] Creating Layer relu2
I0403 13:58:31.570963 12316 net.cpp:425] relu2 <- conv2
I0403 13:58:31.570981 12316 net.cpp:386] relu2 -> conv2 (in-place)
I0403 13:58:31.571270 12316 net.cpp:141] Setting up relu2
I0403 13:58:31.571300 12316 net.cpp:148] Top shape: 100 256 27 27 (18662400)
I0403 13:58:31.571316 12316 net.cpp:156] Memory required for data: 587609200
I0403 13:58:31.571331 12316 layer_factory.hpp:77] Creating layer norm2
I0403 13:58:31.571354 12316 net.cpp:91] Creating Layer norm2
I0403 13:58:31.571370 12316 net.cpp:425] norm2 <- conv2
I0403 13:58:31.571389 12316 net.cpp:399] norm2 -> norm2
I0403 13:58:31.571602 12316 net.cpp:141] Setting up norm2
I0403 13:58:31.571629 12316 net.cpp:148] Top shape: 100 256 27 27 (18662400)
I0403 13:58:31.571645 12316 net.cpp:156] Memory required for data: 662258800
I0403 13:58:31.571660 12316 layer_factory.hpp:77] Creating layer pool2
I0403 13:58:31.571677 12316 net.cpp:91] Creating Layer pool2
I0403 13:58:31.571693 12316 net.cpp:425] pool2 <- norm2
I0403 13:58:31.571710 12316 net.cpp:399] pool2 -> pool2
I0403 13:58:31.571763 12316 net.cpp:141] Setting up pool2
I0403 13:58:31.571789 12316 net.cpp:148] Top shape: 100 256 13 13 (4326400)
I0403 13:58:31.571854 12316 net.cpp:156] Memory required for data: 679564400
I0403 13:58:31.571872 12316 layer_factory.hpp:77] Creating layer conv3
I0403 13:58:31.571897 12316 net.cpp:91] Creating Layer conv3
I0403 13:58:31.571914 12316 net.cpp:425] conv3 <- pool2
I0403 13:58:31.571933 12316 net.cpp:399] conv3 -> conv3
I0403 13:58:31.609768 12316 net.cpp:141] Setting up conv3
I0403 13:58:31.609825 12316 net.cpp:148] Top shape: 100 384 13 13 (6489600)
I0403 13:58:31.609843 12316 net.cpp:156] Memory required for data: 705522800
I0403 13:58:31.609865 12316 layer_factory.hpp:77] Creating layer relu3
I0403 13:58:31.609886 12316 net.cpp:91] Creating Layer relu3
I0403 13:58:31.609902 12316 net.cpp:425] relu3 <- conv3
I0403 13:58:31.609921 12316 net.cpp:386] relu3 -> conv3 (in-place)
I0403 13:58:31.610185 12316 net.cpp:141] Setting up relu3
I0403 13:58:31.610213 12316 net.cpp:148] Top shape: 100 384 13 13 (6489600)
I0403 13:58:31.610227 12316 net.cpp:156] Memory required for data: 731481200
I0403 13:58:31.610241 12316 layer_factory.hpp:77] Creating layer conv4
I0403 13:58:31.610265 12316 net.cpp:91] Creating Layer conv4
I0403 13:58:31.610281 12316 net.cpp:425] conv4 <- conv3
I0403 13:58:31.610301 12316 net.cpp:399] conv4 -> conv4
I0403 13:58:31.640182 12316 net.cpp:141] Setting up conv4
I0403 13:58:31.640240 12316 net.cpp:148] Top shape: 100 384 13 13 (6489600)
I0403 13:58:31.640292 12316 net.cpp:156] Memory required for data: 757439600
I0403 13:58:31.640313 12316 layer_factory.hpp:77] Creating layer relu4
I0403 13:58:31.640337 12316 net.cpp:91] Creating Layer relu4
I0403 13:58:31.640357 12316 net.cpp:425] relu4 <- conv4
I0403 13:58:31.640374 12316 net.cpp:386] relu4 -> conv4 (in-place)
I0403 13:58:31.640662 12316 net.cpp:141] Setting up relu4
I0403 13:58:31.640689 12316 net.cpp:148] Top shape: 100 384 13 13 (6489600)
I0403 13:58:31.640705 12316 net.cpp:156] Memory required for data: 783398000
I0403 13:58:31.640719 12316 layer_factory.hpp:77] Creating layer conv5
I0403 13:58:31.640744 12316 net.cpp:91] Creating Layer conv5
I0403 13:58:31.640761 12316 net.cpp:425] conv5 <- conv4
I0403 13:58:31.640785 12316 net.cpp:399] conv5 -> conv5
I0403 13:58:31.661774 12316 net.cpp:141] Setting up conv5
I0403 13:58:31.661813 12316 net.cpp:148] Top shape: 100 256 13 13 (4326400)
I0403 13:58:31.661829 12316 net.cpp:156] Memory required for data: 800703600
I0403 13:58:31.661857 12316 layer_factory.hpp:77] Creating layer relu5
I0403 13:58:31.661880 12316 net.cpp:91] Creating Layer relu5
I0403 13:58:31.661897 12316 net.cpp:425] relu5 <- conv5
I0403 13:58:31.661916 12316 net.cpp:386] relu5 -> conv5 (in-place)
I0403 13:58:31.662199 12316 net.cpp:141] Setting up relu5
I0403 13:58:31.662230 12316 net.cpp:148] Top shape: 100 256 13 13 (4326400)
I0403 13:58:31.662245 12316 net.cpp:156] Memory required for data: 818009200
I0403 13:58:31.662261 12316 layer_factory.hpp:77] Creating layer pool5
I0403 13:58:31.662282 12316 net.cpp:91] Creating Layer pool5
I0403 13:58:31.662300 12316 net.cpp:425] pool5 <- conv5
I0403 13:58:31.662320 12316 net.cpp:399] pool5 -> pool5
I0403 13:58:31.662384 12316 net.cpp:141] Setting up pool5
I0403 13:58:31.662406 12316 net.cpp:148] Top shape: 100 256 6 6 (921600)
I0403 13:58:31.662421 12316 net.cpp:156] Memory required for data: 821695600
I0403 13:58:31.662436 12316 layer_factory.hpp:77] Creating layer fc6
I0403 13:58:31.662466 12316 net.cpp:91] Creating Layer fc6
I0403 13:58:31.662484 12316 net.cpp:425] fc6 <- pool5
I0403 13:58:31.662505 12316 net.cpp:399] fc6 -> fc6
I0403 13:58:33.203580 12316 net.cpp:141] Setting up fc6
I0403 13:58:33.203636 12316 net.cpp:148] Top shape: 100 4096 (409600)
I0403 13:58:33.203654 12316 net.cpp:156] Memory required for data: 823334000
I0403 13:58:33.203675 12316 layer_factory.hpp:77] Creating layer relu6
I0403 13:58:33.203696 12316 net.cpp:91] Creating Layer relu6
I0403 13:58:33.203714 12316 net.cpp:425] relu6 <- fc6
I0403 13:58:33.203735 12316 net.cpp:386] relu6 -> fc6 (in-place)
I0403 13:58:33.203950 12316 net.cpp:141] Setting up relu6
I0403 13:58:33.203976 12316 net.cpp:148] Top shape: 100 4096 (409600)
I0403 13:58:33.203994 12316 net.cpp:156] Memory required for data: 824972400
I0403 13:58:33.204008 12316 layer_factory.hpp:77] Creating layer drop6
I0403 13:58:33.204026 12316 net.cpp:91] Creating Layer drop6
I0403 13:58:33.204042 12316 net.cpp:425] drop6 <- fc6
I0403 13:58:33.204059 12316 net.cpp:386] drop6 -> fc6 (in-place)
I0403 13:58:33.204110 12316 net.cpp:141] Setting up drop6
I0403 13:58:33.204133 12316 net.cpp:148] Top shape: 100 4096 (409600)
I0403 13:58:33.204147 12316 net.cpp:156] Memory required for data: 826610800
I0403 13:58:33.204162 12316 layer_factory.hpp:77] Creating layer fc7
I0403 13:58:33.204185 12316 net.cpp:91] Creating Layer fc7
I0403 13:58:33.204200 12316 net.cpp:425] fc7 <- fc6
I0403 13:58:33.204218 12316 net.cpp:399] fc7 -> fc7
I0403 13:58:33.878378 12316 net.cpp:141] Setting up fc7
I0403 13:58:33.878417 12316 net.cpp:148] Top shape: 100 4096 (409600)
I0403 13:58:33.878433 12316 net.cpp:156] Memory required for data: 828249200
I0403 13:58:33.878453 12316 layer_factory.hpp:77] Creating layer relu7
I0403 13:58:33.878476 12316 net.cpp:91] Creating Layer relu7
I0403 13:58:33.878494 12316 net.cpp:425] relu7 <- fc7
I0403 13:58:33.878512 12316 net.cpp:386] relu7 -> fc7 (in-place)
I0403 13:58:33.878907 12316 net.cpp:141] Setting up relu7
I0403 13:58:33.878932 12316 net.cpp:148] Top shape: 100 4096 (409600)
I0403 13:58:33.878986 12316 net.cpp:156] Memory required for data: 829887600
I0403 13:58:33.879003 12316 layer_factory.hpp:77] Creating layer drop7
I0403 13:58:33.879024 12316 net.cpp:91] Creating Layer drop7
I0403 13:58:33.879040 12316 net.cpp:425] drop7 <- fc7
I0403 13:58:33.879055 12316 net.cpp:386] drop7 -> fc7 (in-place)
I0403 13:58:33.879099 12316 net.cpp:141] Setting up drop7
I0403 13:58:33.879120 12316 net.cpp:148] Top shape: 100 4096 (409600)
I0403 13:58:33.879134 12316 net.cpp:156] Memory required for data: 831526000
I0403 13:58:33.879148 12316 layer_factory.hpp:77] Creating layer fc8_plantvillage
I0403 13:58:33.879166 12316 net.cpp:91] Creating Layer fc8_plantvillage
I0403 13:58:33.879181 12316 net.cpp:425] fc8_plantvillage <- fc7
I0403 13:58:33.879201 12316 net.cpp:399] fc8_plantvillage -> fc8_plantvillage
I0403 13:58:33.885723 12316 net.cpp:141] Setting up fc8_plantvillage
I0403 13:58:33.885752 12316 net.cpp:148] Top shape: 100 38 (3800)
I0403 13:58:33.885767 12316 net.cpp:156] Memory required for data: 831541200
I0403 13:58:33.885784 12316 layer_factory.hpp:77] Creating layer fc8_plantvillage_fc8_plantvillage_0_split
I0403 13:58:33.885802 12316 net.cpp:91] Creating Layer fc8_plantvillage_fc8_plantvillage_0_split
I0403 13:58:33.885818 12316 net.cpp:425] fc8_plantvillage_fc8_plantvillage_0_split <- fc8_plantvillage
I0403 13:58:33.885834 12316 net.cpp:399] fc8_plantvillage_fc8_plantvillage_0_split -> fc8_plantvillage_fc8_plantvillage_0_split_0
I0403 13:58:33.885854 12316 net.cpp:399] fc8_plantvillage_fc8_plantvillage_0_split -> fc8_plantvillage_fc8_plantvillage_0_split_1
I0403 13:58:33.885874 12316 net.cpp:399] fc8_plantvillage_fc8_plantvillage_0_split -> fc8_plantvillage_fc8_plantvillage_0_split_2
I0403 13:58:33.885949 12316 net.cpp:141] Setting up fc8_plantvillage_fc8_plantvillage_0_split
I0403 13:58:33.885972 12316 net.cpp:148] Top shape: 100 38 (3800)
I0403 13:58:33.885987 12316 net.cpp:148] Top shape: 100 38 (3800)
I0403 13:58:33.886003 12316 net.cpp:148] Top shape: 100 38 (3800)
I0403 13:58:33.886015 12316 net.cpp:156] Memory required for data: 831586800
I0403 13:58:33.886029 12316 layer_factory.hpp:77] Creating layer prob
I0403 13:58:33.886046 12316 net.cpp:91] Creating Layer prob
I0403 13:58:33.886060 12316 net.cpp:425] prob <- fc8_plantvillage_fc8_plantvillage_0_split_0
I0403 13:58:33.886077 12316 net.cpp:399] prob -> prob
I0403 13:58:33.886301 12316 net.cpp:141] Setting up prob
I0403 13:58:33.886324 12316 net.cpp:148] Top shape: 100 38 (3800)
I0403 13:58:33.886338 12316 net.cpp:156] Memory required for data: 831602000
I0403 13:58:33.886353 12316 layer_factory.hpp:77] Creating layer hdf5out
I0403 13:58:33.886373 12316 net.cpp:91] Creating Layer hdf5out
I0403 13:58:33.886389 12316 net.cpp:425] hdf5out <- prob
I0403 13:58:33.886405 12316 net.cpp:425] hdf5out <- label_data_1_split_0
I0403 13:58:33.902650 12316 net.cpp:141] Setting up hdf5out
…
