…
I0403 13:49:29.604163 12116 net.cpp:313] The NetState phase (1) differed from the phase (0) specified by a rule in layer data
I0403 13:49:29.604462 12116 net.cpp:49] Initializing net from parameters: 
state {
  phase: TEST
}
layer {
  name: "data"
  type: "Data"
  top: "data"
  top: "label"
  include {
    phase: TEST
  }
  transform_param {
    crop_size: 227
    mean_file: "/home/mohanty/data/final_dataset/lmdb/grayscale-60-40/mean.binaryproto"
  }
  data_param {
    source: "/home/mohanty/data/final_dataset/lmdb/grayscale-60-40/test_db"
    batch_size: 100
    backend: LMDB
  }
}
layer {
  name: "conv1"
  type: "Convolution"
  bottom: "data"
  top: "conv1"
  param {
    lr_mult: 1
    decay_mult: 1
  }
  param {
    lr_mult: 2
    decay_mult: 0
  }
  convolution_param {
    num_output: 96
    kernel_size: 11
    stride: 4
    weight_filler {
      type: "gaussian"
      std: 0.01
    }
    bias_filler {
      type: "constant"
      value: 0
    }
  }
}
layer {
  name: "relu1"
  type: "ReLU"
  bottom: "conv1"
  top: "conv1"
}
layer {
  name: "norm1"
  type: "LRN"
  bottom: "conv1"
  top: "norm1"
  lrn_param {
    local_size: 5
    alpha: 0.0001
    beta: 0.75
  }
}
layer {
  name: "pool1"
  type: "Pooling"
  bottom: "norm1"
  top: "pool1"
  pooling_param {
    pool: MAX
    kernel_size: 3
    stride: 2
  }
}
layer {
  name: "conv2"
  type: "Convolution"
  bottom: "pool1"
  top: "conv2"
  param {
    lr_mult: 1
    decay_mult: 1
  }
  param {
    lr_mult: 2
    decay_mult: 0
  }
  convolution_param {
    num_output: 256
    pad: 2
    kernel_size: 5
    group: 2
    weight_filler {
      type: "gaussian"
      std: 0.01
    }
    bias_filler {
      type: "constant"
      value: 0.1
    }
  }
}
layer {
  name: "relu2"
  type: "ReLU"
  bottom: "conv2"
  top: "conv2"
}
layer {
  name: "norm2"
  type: "LRN"
  bottom: "conv2"
  top: "norm2"
  lrn_param {
    local_size: 5
    alpha: 0.0001
    beta: 0.75
  }
}
layer {
  name: "pool2"
  type: "Pooling"
  bottom: "norm2"
  top: "pool2"
  pooling_param {
    pool: MAX
    kernel_size: 3
    stride: 2
  }
}
layer {
  name: "conv3"
  type: "Convolution"
  bottom: "pool2"
  top: "conv3"
  param {
    lr_mult: 1
    decay_mult: 1
  }
  param {
    lr_mult: 2
    decay_mult: 0
  }
  convolution_param {
    num_output: 384
    pad: 1
    kernel_size: 3
    weight_filler {
      type: "gaussian"
      std: 0.01
    }
    bias_filler {
      type: "constant"
      value: 0
    }
  }
}
layer {
  name: "relu3"
  type: "ReLU"
  bottom: "conv3"
  top: "conv3"
}
layer {
  name: "conv4"
  type: "Convolution"
  bottom: "conv3"
  top: "conv4"
  param {
    lr_mult: 1
    decay_mult: 1
  }
  param {
    lr_mult: 2
    decay_mult: 0
  }
  convolution_param {
    num_output: 384
    pad: 1
    kernel_size: 3
    group: 2
    weight_filler {
      type: "gaussian"
      std: 0.01
    }
    bias_filler {
      type: "constant"
      value: 0.1
    }
  }
}
layer {
  name: "relu4"
  type: "ReLU"
  bottom: "conv4"
  top: "conv4"
}
layer {
  name: "conv5"
  type: "Convolution"
  bottom: "conv4"
  top: "conv5"
  param {
    lr_mult: 1
    decay_mult: 1
  }
  param {
    lr_mult: 2
    decay_mult: 0
  }
  convolution_param {
    num_output: 256
    pad: 1
    kernel_size: 3
    group: 2
    weight_filler {
      type: "gaussian"
      std: 0.01
    }
    bias_filler {
      type: "constant"
      value: 0.1
    }
  }
}
layer {
  name: "relu5"
  type: "ReLU"
  bottom: "conv5"
  top: "conv5"
}
layer {
  name: "pool5"
  type: "Pooling"
  bottom: "conv5"
  top: "pool5"
  pooling_param {
    pool: MAX
    kernel_size: 3
    stride: 2
  }
}
layer {
  name: "fc6"
  type: "InnerProduct"
  bottom: "pool5"
  top: "fc6"
  param {
    lr_mult: 1
    decay_mult: 1
  }
  param {
    lr_mult: 2
    decay_mult: 0
  }
  inner_product_param {
    num_output: 4096
    weight_filler {
      type: "gaussian"
      std: 0.005
    }
    bias_filler {
      type: "constant"
      value: 0.1
    }
  }
}
layer {
  name: "relu6"
  type: "ReLU"
  bottom: "fc6"
  top: "fc6"
}
layer {
  name: "drop6"
  type: "Dropout"
  bottom: "fc6"
  top: "fc6"
  dropout_param {
    dropout_ratio: 0.5
  }
}
layer {
  name: "fc7"
  type: "InnerProduct"
  bottom: "fc6"
  top: "fc7"
  param {
    lr_mult: 1
    decay_mult: 1
  }
  param {
    lr_mult: 2
    decay_mult: 0
  }
  inner_product_param {
    num_output: 4096
    weight_filler {
      type: "gaussian"
      std: 0.005
    }
    bias_filler {
      type: "constant"
      value: 0.1
    }
  }
}
layer {
  name: "relu7"
  type: "ReLU"
  bottom: "fc7"
  top: "fc7"
}
layer {
  name: "drop7"
  type: "Dropout"
  bottom: "fc7"
  top: "fc7"
  dropout_param {
    dropout_ratio: 0.5
  }
}
layer {
  name: "fc8_plantvillage"
  type: "InnerProduct"
  bottom: "fc7"
  top: "fc8_plantvillage"
  param {
    lr_mult: 1
    decay_mult: 1
  }
  param {
    lr_mult: 2
    decay_mult: 0
  }
  inner_product_param {
    num_output: 38
    weight_filler {
      type: "gaussian"
      std: 0.01
    }
    bias_filler {
      type: "constant"
      value: 0
    }
  }
}
layer {
  name: "prob"
  type: "Softmax"
  bottom: "fc8_plantvillage"
  top: "prob"
  include {
    phase: TEST
  }
}
layer {
  name: "hdf5out"
  type: "HDF5Output"
  bottom: "prob"
  bottom: "label"
  include {
    phase: TEST
  }
  hdf5_output_param {
    file_name: "hdf5_dumps/iter_5850.h5"
  }
}
layer {
  name: "loss"
  type: "SoftmaxWithLoss"
  bottom: "fc8_plantvillage"
  bottom: "label"
  top: "loss"
}
layer {
  name: "accuracy"
  type: "Accuracy"
  bottom: "fc8_plantvillage"
  bottom: "label"
  top: "accuracy"
  include {
    phase: TEST
  }
}
I0403 13:49:29.605031 12116 layer_factory.hpp:77] Creating layer data
I0403 13:49:29.605669 12116 net.cpp:91] Creating Layer data
I0403 13:49:29.605702 12116 net.cpp:399] data -> data
I0403 13:49:29.605752 12116 net.cpp:399] data -> label
I0403 13:49:29.605788 12116 data_transformer.cpp:25] Loading mean file from: /home/mohanty/data/final_dataset/lmdb/grayscale-60-40/mean.binaryproto
I0403 13:49:29.608383 12119 db_lmdb.cpp:38] Opened lmdb /home/mohanty/data/final_dataset/lmdb/grayscale-60-40/test_db
I0403 13:49:29.620203 12116 data_layer.cpp:41] output data size: 100,3,227,227
I0403 13:49:29.741372 12116 net.cpp:141] Setting up data
I0403 13:49:29.741458 12116 net.cpp:148] Top shape: 100 3 227 227 (15458700)
I0403 13:49:29.741482 12116 net.cpp:148] Top shape: 100 (100)
I0403 13:49:29.741497 12116 net.cpp:156] Memory required for data: 61835200
I0403 13:49:29.741524 12116 layer_factory.hpp:77] Creating layer label_data_1_split
I0403 13:49:29.741549 12116 net.cpp:91] Creating Layer label_data_1_split
I0403 13:49:29.741566 12116 net.cpp:425] label_data_1_split <- label
I0403 13:49:29.741603 12116 net.cpp:399] label_data_1_split -> label_data_1_split_0
I0403 13:49:29.741631 12116 net.cpp:399] label_data_1_split -> label_data_1_split_1
I0403 13:49:29.741652 12116 net.cpp:399] label_data_1_split -> label_data_1_split_2
I0403 13:49:29.741717 12116 net.cpp:141] Setting up label_data_1_split
I0403 13:49:29.741741 12116 net.cpp:148] Top shape: 100 (100)
I0403 13:49:29.741758 12116 net.cpp:148] Top shape: 100 (100)
I0403 13:49:29.741775 12116 net.cpp:148] Top shape: 100 (100)
I0403 13:49:29.741789 12116 net.cpp:156] Memory required for data: 61836400
I0403 13:49:29.741804 12116 layer_factory.hpp:77] Creating layer conv1
I0403 13:49:29.741837 12116 net.cpp:91] Creating Layer conv1
I0403 13:49:29.741854 12116 net.cpp:425] conv1 <- data
I0403 13:49:29.741874 12116 net.cpp:399] conv1 -> conv1
I0403 13:49:29.883436 12116 net.cpp:141] Setting up conv1
I0403 13:49:29.883512 12116 net.cpp:148] Top shape: 100 96 55 55 (29040000)
I0403 13:49:29.883529 12116 net.cpp:156] Memory required for data: 177996400
I0403 13:49:29.883560 12116 layer_factory.hpp:77] Creating layer relu1
I0403 13:49:29.883587 12116 net.cpp:91] Creating Layer relu1
I0403 13:49:29.883610 12116 net.cpp:425] relu1 <- conv1
I0403 13:49:29.883628 12116 net.cpp:386] relu1 -> conv1 (in-place)
I0403 13:49:29.883885 12116 net.cpp:141] Setting up relu1
I0403 13:49:29.883913 12116 net.cpp:148] Top shape: 100 96 55 55 (29040000)
I0403 13:49:29.883966 12116 net.cpp:156] Memory required for data: 294156400
I0403 13:49:29.883982 12116 layer_factory.hpp:77] Creating layer norm1
I0403 13:49:29.884009 12116 net.cpp:91] Creating Layer norm1
I0403 13:49:29.884027 12116 net.cpp:425] norm1 <- conv1
I0403 13:49:29.884043 12116 net.cpp:399] norm1 -> norm1
I0403 13:49:29.884410 12116 net.cpp:141] Setting up norm1
I0403 13:49:29.884438 12116 net.cpp:148] Top shape: 100 96 55 55 (29040000)
I0403 13:49:29.884454 12116 net.cpp:156] Memory required for data: 410316400
I0403 13:49:29.884469 12116 layer_factory.hpp:77] Creating layer pool1
I0403 13:49:29.884490 12116 net.cpp:91] Creating Layer pool1
I0403 13:49:29.884508 12116 net.cpp:425] pool1 <- norm1
I0403 13:49:29.884526 12116 net.cpp:399] pool1 -> pool1
I0403 13:49:29.884590 12116 net.cpp:141] Setting up pool1
I0403 13:49:29.884625 12116 net.cpp:148] Top shape: 100 96 27 27 (6998400)
I0403 13:49:29.884641 12116 net.cpp:156] Memory required for data: 438310000
I0403 13:49:29.884655 12116 layer_factory.hpp:77] Creating layer conv2
I0403 13:49:29.884678 12116 net.cpp:91] Creating Layer conv2
I0403 13:49:29.884695 12116 net.cpp:425] conv2 <- pool1
I0403 13:49:29.884711 12116 net.cpp:399] conv2 -> conv2
I0403 13:49:29.900018 12116 net.cpp:141] Setting up conv2
I0403 13:49:29.900069 12116 net.cpp:148] Top shape: 100 256 27 27 (18662400)
I0403 13:49:29.900085 12116 net.cpp:156] Memory required for data: 512959600
I0403 13:49:29.900109 12116 layer_factory.hpp:77] Creating layer relu2
I0403 13:49:29.900130 12116 net.cpp:91] Creating Layer relu2
I0403 13:49:29.900146 12116 net.cpp:425] relu2 <- conv2
I0403 13:49:29.900166 12116 net.cpp:386] relu2 -> conv2 (in-place)
I0403 13:49:29.900441 12116 net.cpp:141] Setting up relu2
I0403 13:49:29.900468 12116 net.cpp:148] Top shape: 100 256 27 27 (18662400)
I0403 13:49:29.900485 12116 net.cpp:156] Memory required for data: 587609200
I0403 13:49:29.900499 12116 layer_factory.hpp:77] Creating layer norm2
I0403 13:49:29.900521 12116 net.cpp:91] Creating Layer norm2
I0403 13:49:29.900537 12116 net.cpp:425] norm2 <- conv2
I0403 13:49:29.900555 12116 net.cpp:399] norm2 -> norm2
I0403 13:49:29.900753 12116 net.cpp:141] Setting up norm2
I0403 13:49:29.900779 12116 net.cpp:148] Top shape: 100 256 27 27 (18662400)
I0403 13:49:29.900794 12116 net.cpp:156] Memory required for data: 662258800
I0403 13:49:29.900809 12116 layer_factory.hpp:77] Creating layer pool2
I0403 13:49:29.900826 12116 net.cpp:91] Creating Layer pool2
I0403 13:49:29.900841 12116 net.cpp:425] pool2 <- norm2
I0403 13:49:29.900859 12116 net.cpp:399] pool2 -> pool2
I0403 13:49:29.900909 12116 net.cpp:141] Setting up pool2
I0403 13:49:29.900933 12116 net.cpp:148] Top shape: 100 256 13 13 (4326400)
I0403 13:49:29.900948 12116 net.cpp:156] Memory required for data: 679564400
I0403 13:49:29.900962 12116 layer_factory.hpp:77] Creating layer conv3
I0403 13:49:29.900984 12116 net.cpp:91] Creating Layer conv3
I0403 13:49:29.901000 12116 net.cpp:425] conv3 <- pool2
I0403 13:49:29.901018 12116 net.cpp:399] conv3 -> conv3
I0403 13:49:29.941128 12116 net.cpp:141] Setting up conv3
I0403 13:49:29.941196 12116 net.cpp:148] Top shape: 100 384 13 13 (6489600)
I0403 13:49:29.941212 12116 net.cpp:156] Memory required for data: 705522800
I0403 13:49:29.941238 12116 layer_factory.hpp:77] Creating layer relu3
I0403 13:49:29.941261 12116 net.cpp:91] Creating Layer relu3
I0403 13:49:29.941277 12116 net.cpp:425] relu3 <- conv3
I0403 13:49:29.941295 12116 net.cpp:386] relu3 -> conv3 (in-place)
I0403 13:49:29.941560 12116 net.cpp:141] Setting up relu3
I0403 13:49:29.941587 12116 net.cpp:148] Top shape: 100 384 13 13 (6489600)
I0403 13:49:29.941606 12116 net.cpp:156] Memory required for data: 731481200
I0403 13:49:29.941622 12116 layer_factory.hpp:77] Creating layer conv4
I0403 13:49:29.941647 12116 net.cpp:91] Creating Layer conv4
I0403 13:49:29.941663 12116 net.cpp:425] conv4 <- conv3
I0403 13:49:29.941681 12116 net.cpp:399] conv4 -> conv4
I0403 13:49:29.971055 12116 net.cpp:141] Setting up conv4
I0403 13:49:29.971101 12116 net.cpp:148] Top shape: 100 384 13 13 (6489600)
I0403 13:49:29.971149 12116 net.cpp:156] Memory required for data: 757439600
I0403 13:49:29.971169 12116 layer_factory.hpp:77] Creating layer relu4
I0403 13:49:29.971191 12116 net.cpp:91] Creating Layer relu4
I0403 13:49:29.971209 12116 net.cpp:425] relu4 <- conv4
I0403 13:49:29.971225 12116 net.cpp:386] relu4 -> conv4 (in-place)
I0403 13:49:29.971498 12116 net.cpp:141] Setting up relu4
I0403 13:49:29.971525 12116 net.cpp:148] Top shape: 100 384 13 13 (6489600)
I0403 13:49:29.971541 12116 net.cpp:156] Memory required for data: 783398000
I0403 13:49:29.971556 12116 layer_factory.hpp:77] Creating layer conv5
I0403 13:49:29.971578 12116 net.cpp:91] Creating Layer conv5
I0403 13:49:29.971596 12116 net.cpp:425] conv5 <- conv4
I0403 13:49:29.971621 12116 net.cpp:399] conv5 -> conv5
I0403 13:49:29.992533 12116 net.cpp:141] Setting up conv5
I0403 13:49:29.992581 12116 net.cpp:148] Top shape: 100 256 13 13 (4326400)
I0403 13:49:29.992597 12116 net.cpp:156] Memory required for data: 800703600
I0403 13:49:29.992627 12116 layer_factory.hpp:77] Creating layer relu5
I0403 13:49:29.992653 12116 net.cpp:91] Creating Layer relu5
I0403 13:49:29.992671 12116 net.cpp:425] relu5 <- conv5
I0403 13:49:29.992691 12116 net.cpp:386] relu5 -> conv5 (in-place)
I0403 13:49:29.992977 12116 net.cpp:141] Setting up relu5
I0403 13:49:29.993007 12116 net.cpp:148] Top shape: 100 256 13 13 (4326400)
I0403 13:49:29.993023 12116 net.cpp:156] Memory required for data: 818009200
I0403 13:49:29.993039 12116 layer_factory.hpp:77] Creating layer pool5
I0403 13:49:29.993060 12116 net.cpp:91] Creating Layer pool5
I0403 13:49:29.993077 12116 net.cpp:425] pool5 <- conv5
I0403 13:49:29.993098 12116 net.cpp:399] pool5 -> pool5
I0403 13:49:29.993160 12116 net.cpp:141] Setting up pool5
I0403 13:49:29.993186 12116 net.cpp:148] Top shape: 100 256 6 6 (921600)
I0403 13:49:29.993201 12116 net.cpp:156] Memory required for data: 821695600
I0403 13:49:29.993216 12116 layer_factory.hpp:77] Creating layer fc6
I0403 13:49:29.993242 12116 net.cpp:91] Creating Layer fc6
I0403 13:49:29.993262 12116 net.cpp:425] fc6 <- pool5
I0403 13:49:29.993283 12116 net.cpp:399] fc6 -> fc6
I0403 13:49:31.535959 12116 net.cpp:141] Setting up fc6
I0403 13:49:31.536020 12116 net.cpp:148] Top shape: 100 4096 (409600)
I0403 13:49:31.536036 12116 net.cpp:156] Memory required for data: 823334000
I0403 13:49:31.536056 12116 layer_factory.hpp:77] Creating layer relu6
I0403 13:49:31.536079 12116 net.cpp:91] Creating Layer relu6
I0403 13:49:31.536097 12116 net.cpp:425] relu6 <- fc6
I0403 13:49:31.536115 12116 net.cpp:386] relu6 -> fc6 (in-place)
I0403 13:49:31.536335 12116 net.cpp:141] Setting up relu6
I0403 13:49:31.536361 12116 net.cpp:148] Top shape: 100 4096 (409600)
I0403 13:49:31.536376 12116 net.cpp:156] Memory required for data: 824972400
I0403 13:49:31.536391 12116 layer_factory.hpp:77] Creating layer drop6
I0403 13:49:31.536408 12116 net.cpp:91] Creating Layer drop6
I0403 13:49:31.536423 12116 net.cpp:425] drop6 <- fc6
I0403 13:49:31.536438 12116 net.cpp:386] drop6 -> fc6 (in-place)
I0403 13:49:31.536490 12116 net.cpp:141] Setting up drop6
I0403 13:49:31.536512 12116 net.cpp:148] Top shape: 100 4096 (409600)
I0403 13:49:31.536525 12116 net.cpp:156] Memory required for data: 826610800
I0403 13:49:31.536540 12116 layer_factory.hpp:77] Creating layer fc7
I0403 13:49:31.536562 12116 net.cpp:91] Creating Layer fc7
I0403 13:49:31.536578 12116 net.cpp:425] fc7 <- fc6
I0403 13:49:31.536594 12116 net.cpp:399] fc7 -> fc7
I0403 13:49:32.209553 12116 net.cpp:141] Setting up fc7
I0403 13:49:32.209595 12116 net.cpp:148] Top shape: 100 4096 (409600)
I0403 13:49:32.209617 12116 net.cpp:156] Memory required for data: 828249200
I0403 13:49:32.209638 12116 layer_factory.hpp:77] Creating layer relu7
I0403 13:49:32.209661 12116 net.cpp:91] Creating Layer relu7
I0403 13:49:32.209678 12116 net.cpp:425] relu7 <- fc7
I0403 13:49:32.209698 12116 net.cpp:386] relu7 -> fc7 (in-place)
I0403 13:49:32.210099 12116 net.cpp:141] Setting up relu7
I0403 13:49:32.210129 12116 net.cpp:148] Top shape: 100 4096 (409600)
I0403 13:49:32.210186 12116 net.cpp:156] Memory required for data: 829887600
I0403 13:49:32.210201 12116 layer_factory.hpp:77] Creating layer drop7
I0403 13:49:32.210221 12116 net.cpp:91] Creating Layer drop7
I0403 13:49:32.210234 12116 net.cpp:425] drop7 <- fc7
I0403 13:49:32.210252 12116 net.cpp:386] drop7 -> fc7 (in-place)
I0403 13:49:32.210299 12116 net.cpp:141] Setting up drop7
I0403 13:49:32.210321 12116 net.cpp:148] Top shape: 100 4096 (409600)
I0403 13:49:32.210335 12116 net.cpp:156] Memory required for data: 831526000
I0403 13:49:32.210350 12116 layer_factory.hpp:77] Creating layer fc8_plantvillage
I0403 13:49:32.210371 12116 net.cpp:91] Creating Layer fc8_plantvillage
I0403 13:49:32.210386 12116 net.cpp:425] fc8_plantvillage <- fc7
I0403 13:49:32.210403 12116 net.cpp:399] fc8_plantvillage -> fc8_plantvillage
I0403 13:49:32.217123 12116 net.cpp:141] Setting up fc8_plantvillage
I0403 13:49:32.217152 12116 net.cpp:148] Top shape: 100 38 (3800)
I0403 13:49:32.217169 12116 net.cpp:156] Memory required for data: 831541200
I0403 13:49:32.217187 12116 layer_factory.hpp:77] Creating layer fc8_plantvillage_fc8_plantvillage_0_split
I0403 13:49:32.217206 12116 net.cpp:91] Creating Layer fc8_plantvillage_fc8_plantvillage_0_split
I0403 13:49:32.217223 12116 net.cpp:425] fc8_plantvillage_fc8_plantvillage_0_split <- fc8_plantvillage
I0403 13:49:32.217243 12116 net.cpp:399] fc8_plantvillage_fc8_plantvillage_0_split -> fc8_plantvillage_fc8_plantvillage_0_split_0
I0403 13:49:32.217267 12116 net.cpp:399] fc8_plantvillage_fc8_plantvillage_0_split -> fc8_plantvillage_fc8_plantvillage_0_split_1
I0403 13:49:32.217293 12116 net.cpp:399] fc8_plantvillage_fc8_plantvillage_0_split -> fc8_plantvillage_fc8_plantvillage_0_split_2
I0403 13:49:32.217373 12116 net.cpp:141] Setting up fc8_plantvillage_fc8_plantvillage_0_split
I0403 13:49:32.217398 12116 net.cpp:148] Top shape: 100 38 (3800)
I0403 13:49:32.217417 12116 net.cpp:148] Top shape: 100 38 (3800)
I0403 13:49:32.217433 12116 net.cpp:148] Top shape: 100 38 (3800)
I0403 13:49:32.217458 12116 net.cpp:156] Memory required for data: 831586800
I0403 13:49:32.217471 12116 layer_factory.hpp:77] Creating layer prob
I0403 13:49:32.217494 12116 net.cpp:91] Creating Layer prob
I0403 13:49:32.217509 12116 net.cpp:425] prob <- fc8_plantvillage_fc8_plantvillage_0_split_0
I0403 13:49:32.217528 12116 net.cpp:399] prob -> prob
I0403 13:49:32.217762 12116 net.cpp:141] Setting up prob
I0403 13:49:32.217792 12116 net.cpp:148] Top shape: 100 38 (3800)
I0403 13:49:32.217818 12116 net.cpp:156] Memory required for data: 831602000
I0403 13:49:32.217831 12116 layer_factory.hpp:77] Creating layer hdf5out
I0403 13:49:32.217851 12116 net.cpp:91] Creating Layer hdf5out
I0403 13:49:32.217867 12116 net.cpp:425] hdf5out <- prob
I0403 13:49:32.217885 12116 net.cpp:425] hdf5out <- label_data_1_split_0
I0403 13:49:32.221745 12116 net.cpp:141] Setting up hdf5out
…
