…
I0403 13:52:30.368233 12182 net.cpp:313] The NetState phase (1) differed from the phase (0) specified by a rule in layer data
I0403 13:52:30.368522 12182 net.cpp:49] Initializing net from parameters: 
state {
  phase: TEST
}
layer {
  name: "data"
  type: "Data"
  top: "data"
  top: "label"
  include {
    phase: TEST
  }
  transform_param {
    crop_size: 227
    mean_file: "/home/mohanty/data/final_dataset/lmdb/grayscale-60-40/mean.binaryproto"
  }
  data_param {
    source: "/home/mohanty/data/final_dataset/lmdb/grayscale-60-40/test_db"
    batch_size: 100
    backend: LMDB
  }
}
layer {
  name: "conv1"
  type: "Convolution"
  bottom: "data"
  top: "conv1"
  param {
    lr_mult: 1
    decay_mult: 1
  }
  param {
    lr_mult: 2
    decay_mult: 0
  }
  convolution_param {
    num_output: 96
    kernel_size: 11
    stride: 4
    weight_filler {
      type: "gaussian"
      std: 0.01
    }
    bias_filler {
      type: "constant"
      value: 0
    }
  }
}
layer {
  name: "relu1"
  type: "ReLU"
  bottom: "conv1"
  top: "conv1"
}
layer {
  name: "norm1"
  type: "LRN"
  bottom: "conv1"
  top: "norm1"
  lrn_param {
    local_size: 5
    alpha: 0.0001
    beta: 0.75
  }
}
layer {
  name: "pool1"
  type: "Pooling"
  bottom: "norm1"
  top: "pool1"
  pooling_param {
    pool: MAX
    kernel_size: 3
    stride: 2
  }
}
layer {
  name: "conv2"
  type: "Convolution"
  bottom: "pool1"
  top: "conv2"
  param {
    lr_mult: 1
    decay_mult: 1
  }
  param {
    lr_mult: 2
    decay_mult: 0
  }
  convolution_param {
    num_output: 256
    pad: 2
    kernel_size: 5
    group: 2
    weight_filler {
      type: "gaussian"
      std: 0.01
    }
    bias_filler {
      type: "constant"
      value: 0.1
    }
  }
}
layer {
  name: "relu2"
  type: "ReLU"
  bottom: "conv2"
  top: "conv2"
}
layer {
  name: "norm2"
  type: "LRN"
  bottom: "conv2"
  top: "norm2"
  lrn_param {
    local_size: 5
    alpha: 0.0001
    beta: 0.75
  }
}
layer {
  name: "pool2"
  type: "Pooling"
  bottom: "norm2"
  top: "pool2"
  pooling_param {
    pool: MAX
    kernel_size: 3
    stride: 2
  }
}
layer {
  name: "conv3"
  type: "Convolution"
  bottom: "pool2"
  top: "conv3"
  param {
    lr_mult: 1
    decay_mult: 1
  }
  param {
    lr_mult: 2
    decay_mult: 0
  }
  convolution_param {
    num_output: 384
    pad: 1
    kernel_size: 3
    weight_filler {
      type: "gaussian"
      std: 0.01
    }
    bias_filler {
      type: "constant"
      value: 0
    }
  }
}
layer {
  name: "relu3"
  type: "ReLU"
  bottom: "conv3"
  top: "conv3"
}
layer {
  name: "conv4"
  type: "Convolution"
  bottom: "conv3"
  top: "conv4"
  param {
    lr_mult: 1
    decay_mult: 1
  }
  param {
    lr_mult: 2
    decay_mult: 0
  }
  convolution_param {
    num_output: 384
    pad: 1
    kernel_size: 3
    group: 2
    weight_filler {
      type: "gaussian"
      std: 0.01
    }
    bias_filler {
      type: "constant"
      value: 0.1
    }
  }
}
layer {
  name: "relu4"
  type: "ReLU"
  bottom: "conv4"
  top: "conv4"
}
layer {
  name: "conv5"
  type: "Convolution"
  bottom: "conv4"
  top: "conv5"
  param {
    lr_mult: 1
    decay_mult: 1
  }
  param {
    lr_mult: 2
    decay_mult: 0
  }
  convolution_param {
    num_output: 256
    pad: 1
    kernel_size: 3
    group: 2
    weight_filler {
      type: "gaussian"
      std: 0.01
    }
    bias_filler {
      type: "constant"
      value: 0.1
    }
  }
}
layer {
  name: "relu5"
  type: "ReLU"
  bottom: "conv5"
  top: "conv5"
}
layer {
  name: "pool5"
  type: "Pooling"
  bottom: "conv5"
  top: "pool5"
  pooling_param {
    pool: MAX
    kernel_size: 3
    stride: 2
  }
}
layer {
  name: "fc6"
  type: "InnerProduct"
  bottom: "pool5"
  top: "fc6"
  param {
    lr_mult: 1
    decay_mult: 1
  }
  param {
    lr_mult: 2
    decay_mult: 0
  }
  inner_product_param {
    num_output: 4096
    weight_filler {
      type: "gaussian"
      std: 0.005
    }
    bias_filler {
      type: "constant"
      value: 0.1
    }
  }
}
layer {
  name: "relu6"
  type: "ReLU"
  bottom: "fc6"
  top: "fc6"
}
layer {
  name: "drop6"
  type: "Dropout"
  bottom: "fc6"
  top: "fc6"
  dropout_param {
    dropout_ratio: 0.5
  }
}
layer {
  name: "fc7"
  type: "InnerProduct"
  bottom: "fc6"
  top: "fc7"
  param {
    lr_mult: 1
    decay_mult: 1
  }
  param {
    lr_mult: 2
    decay_mult: 0
  }
  inner_product_param {
    num_output: 4096
    weight_filler {
      type: "gaussian"
      std: 0.005
    }
    bias_filler {
      type: "constant"
      value: 0.1
    }
  }
}
layer {
  name: "relu7"
  type: "ReLU"
  bottom: "fc7"
  top: "fc7"
}
layer {
  name: "drop7"
  type: "Dropout"
  bottom: "fc7"
  top: "fc7"
  dropout_param {
    dropout_ratio: 0.5
  }
}
layer {
  name: "fc8_plantvillage"
  type: "InnerProduct"
  bottom: "fc7"
  top: "fc8_plantvillage"
  param {
    lr_mult: 1
    decay_mult: 1
  }
  param {
    lr_mult: 2
    decay_mult: 0
  }
  inner_product_param {
    num_output: 38
    weight_filler {
      type: "gaussian"
      std: 0.01
    }
    bias_filler {
      type: "constant"
      value: 0
    }
  }
}
layer {
  name: "prob"
  type: "Softmax"
  bottom: "fc8_plantvillage"
  top: "prob"
  include {
    phase: TEST
  }
}
layer {
  name: "hdf5out"
  type: "HDF5Output"
  bottom: "prob"
  bottom: "label"
  include {
    phase: TEST
  }
  hdf5_output_param {
    file_name: "hdf5_dumps/iter_7150.h5"
  }
}
layer {
  name: "loss"
  type: "SoftmaxWithLoss"
  bottom: "fc8_plantvillage"
  bottom: "label"
  top: "loss"
}
layer {
  name: "accuracy"
  type: "Accuracy"
  bottom: "fc8_plantvillage"
  bottom: "label"
  top: "accuracy"
  include {
    phase: TEST
  }
}
I0403 13:52:30.369096 12182 layer_factory.hpp:77] Creating layer data
I0403 13:52:30.369732 12182 net.cpp:91] Creating Layer data
I0403 13:52:30.369762 12182 net.cpp:399] data -> data
I0403 13:52:30.369812 12182 net.cpp:399] data -> label
I0403 13:52:30.369848 12182 data_transformer.cpp:25] Loading mean file from: /home/mohanty/data/final_dataset/lmdb/grayscale-60-40/mean.binaryproto
I0403 13:52:30.520486 12185 db_lmdb.cpp:38] Opened lmdb /home/mohanty/data/final_dataset/lmdb/grayscale-60-40/test_db
I0403 13:52:30.527734 12182 data_layer.cpp:41] output data size: 100,3,227,227
I0403 13:52:30.646817 12182 net.cpp:141] Setting up data
I0403 13:52:30.646910 12182 net.cpp:148] Top shape: 100 3 227 227 (15458700)
I0403 13:52:30.646934 12182 net.cpp:148] Top shape: 100 (100)
I0403 13:52:30.646950 12182 net.cpp:156] Memory required for data: 61835200
I0403 13:52:30.646978 12182 layer_factory.hpp:77] Creating layer label_data_1_split
I0403 13:52:30.647004 12182 net.cpp:91] Creating Layer label_data_1_split
I0403 13:52:30.647023 12182 net.cpp:425] label_data_1_split <- label
I0403 13:52:30.647056 12182 net.cpp:399] label_data_1_split -> label_data_1_split_0
I0403 13:52:30.647083 12182 net.cpp:399] label_data_1_split -> label_data_1_split_1
I0403 13:52:30.647104 12182 net.cpp:399] label_data_1_split -> label_data_1_split_2
I0403 13:52:30.647167 12182 net.cpp:141] Setting up label_data_1_split
I0403 13:52:30.647192 12182 net.cpp:148] Top shape: 100 (100)
I0403 13:52:30.647208 12182 net.cpp:148] Top shape: 100 (100)
I0403 13:52:30.647224 12182 net.cpp:148] Top shape: 100 (100)
I0403 13:52:30.647238 12182 net.cpp:156] Memory required for data: 61836400
I0403 13:52:30.647253 12182 layer_factory.hpp:77] Creating layer conv1
I0403 13:52:30.647284 12182 net.cpp:91] Creating Layer conv1
I0403 13:52:30.647303 12182 net.cpp:425] conv1 <- data
I0403 13:52:30.647323 12182 net.cpp:399] conv1 -> conv1
I0403 13:52:30.790621 12182 net.cpp:141] Setting up conv1
I0403 13:52:30.790686 12182 net.cpp:148] Top shape: 100 96 55 55 (29040000)
I0403 13:52:30.790704 12182 net.cpp:156] Memory required for data: 177996400
I0403 13:52:30.790736 12182 layer_factory.hpp:77] Creating layer relu1
I0403 13:52:30.790765 12182 net.cpp:91] Creating Layer relu1
I0403 13:52:30.790783 12182 net.cpp:425] relu1 <- conv1
I0403 13:52:30.790802 12182 net.cpp:386] relu1 -> conv1 (in-place)
I0403 13:52:30.791065 12182 net.cpp:141] Setting up relu1
I0403 13:52:30.791093 12182 net.cpp:148] Top shape: 100 96 55 55 (29040000)
I0403 13:52:30.791141 12182 net.cpp:156] Memory required for data: 294156400
I0403 13:52:30.791158 12182 layer_factory.hpp:77] Creating layer norm1
I0403 13:52:30.791187 12182 net.cpp:91] Creating Layer norm1
I0403 13:52:30.791205 12182 net.cpp:425] norm1 <- conv1
I0403 13:52:30.791224 12182 net.cpp:399] norm1 -> norm1
I0403 13:52:30.791543 12182 net.cpp:141] Setting up norm1
I0403 13:52:30.791575 12182 net.cpp:148] Top shape: 100 96 55 55 (29040000)
I0403 13:52:30.791592 12182 net.cpp:156] Memory required for data: 410316400
I0403 13:52:30.791609 12182 layer_factory.hpp:77] Creating layer pool1
I0403 13:52:30.791632 12182 net.cpp:91] Creating Layer pool1
I0403 13:52:30.791649 12182 net.cpp:425] pool1 <- norm1
I0403 13:52:30.791668 12182 net.cpp:399] pool1 -> pool1
I0403 13:52:30.791738 12182 net.cpp:141] Setting up pool1
I0403 13:52:30.791761 12182 net.cpp:148] Top shape: 100 96 27 27 (6998400)
I0403 13:52:30.791777 12182 net.cpp:156] Memory required for data: 438310000
I0403 13:52:30.791791 12182 layer_factory.hpp:77] Creating layer conv2
I0403 13:52:30.791815 12182 net.cpp:91] Creating Layer conv2
I0403 13:52:30.791832 12182 net.cpp:425] conv2 <- pool1
I0403 13:52:30.791851 12182 net.cpp:399] conv2 -> conv2
I0403 13:52:30.806787 12182 net.cpp:141] Setting up conv2
I0403 13:52:30.806826 12182 net.cpp:148] Top shape: 100 256 27 27 (18662400)
I0403 13:52:30.806845 12182 net.cpp:156] Memory required for data: 512959600
I0403 13:52:30.806867 12182 layer_factory.hpp:77] Creating layer relu2
I0403 13:52:30.806888 12182 net.cpp:91] Creating Layer relu2
I0403 13:52:30.806905 12182 net.cpp:425] relu2 <- conv2
I0403 13:52:30.806926 12182 net.cpp:386] relu2 -> conv2 (in-place)
I0403 13:52:30.807210 12182 net.cpp:141] Setting up relu2
I0403 13:52:30.807238 12182 net.cpp:148] Top shape: 100 256 27 27 (18662400)
I0403 13:52:30.807255 12182 net.cpp:156] Memory required for data: 587609200
I0403 13:52:30.807271 12182 layer_factory.hpp:77] Creating layer norm2
I0403 13:52:30.807293 12182 net.cpp:91] Creating Layer norm2
I0403 13:52:30.807313 12182 net.cpp:425] norm2 <- conv2
I0403 13:52:30.807333 12182 net.cpp:399] norm2 -> norm2
I0403 13:52:30.807548 12182 net.cpp:141] Setting up norm2
I0403 13:52:30.807580 12182 net.cpp:148] Top shape: 100 256 27 27 (18662400)
I0403 13:52:30.807598 12182 net.cpp:156] Memory required for data: 662258800
I0403 13:52:30.807613 12182 layer_factory.hpp:77] Creating layer pool2
I0403 13:52:30.807631 12182 net.cpp:91] Creating Layer pool2
I0403 13:52:30.807647 12182 net.cpp:425] pool2 <- norm2
I0403 13:52:30.807667 12182 net.cpp:399] pool2 -> pool2
I0403 13:52:30.807720 12182 net.cpp:141] Setting up pool2
I0403 13:52:30.807744 12182 net.cpp:148] Top shape: 100 256 13 13 (4326400)
I0403 13:52:30.807760 12182 net.cpp:156] Memory required for data: 679564400
I0403 13:52:30.807775 12182 layer_factory.hpp:77] Creating layer conv3
I0403 13:52:30.807797 12182 net.cpp:91] Creating Layer conv3
I0403 13:52:30.807814 12182 net.cpp:425] conv3 <- pool2
I0403 13:52:30.807835 12182 net.cpp:399] conv3 -> conv3
I0403 13:52:30.850889 12182 net.cpp:141] Setting up conv3
I0403 13:52:30.850966 12182 net.cpp:148] Top shape: 100 384 13 13 (6489600)
I0403 13:52:30.850991 12182 net.cpp:156] Memory required for data: 705522800
I0403 13:52:30.851019 12182 layer_factory.hpp:77] Creating layer relu3
I0403 13:52:30.851052 12182 net.cpp:91] Creating Layer relu3
I0403 13:52:30.851078 12182 net.cpp:425] relu3 <- conv3
I0403 13:52:30.851111 12182 net.cpp:386] relu3 -> conv3 (in-place)
I0403 13:52:30.851426 12182 net.cpp:141] Setting up relu3
I0403 13:52:30.851461 12182 net.cpp:148] Top shape: 100 384 13 13 (6489600)
I0403 13:52:30.851487 12182 net.cpp:156] Memory required for data: 731481200
I0403 13:52:30.851510 12182 layer_factory.hpp:77] Creating layer conv4
I0403 13:52:30.851547 12182 net.cpp:91] Creating Layer conv4
I0403 13:52:30.851570 12182 net.cpp:425] conv4 <- conv3
I0403 13:52:30.851595 12182 net.cpp:399] conv4 -> conv4
I0403 13:52:30.882576 12182 net.cpp:141] Setting up conv4
I0403 13:52:30.882624 12182 net.cpp:148] Top shape: 100 384 13 13 (6489600)
I0403 13:52:30.882678 12182 net.cpp:156] Memory required for data: 757439600
I0403 13:52:30.882700 12182 layer_factory.hpp:77] Creating layer relu4
I0403 13:52:30.882724 12182 net.cpp:91] Creating Layer relu4
I0403 13:52:30.882741 12182 net.cpp:425] relu4 <- conv4
I0403 13:52:30.882761 12182 net.cpp:386] relu4 -> conv4 (in-place)
I0403 13:52:30.883050 12182 net.cpp:141] Setting up relu4
I0403 13:52:30.883081 12182 net.cpp:148] Top shape: 100 384 13 13 (6489600)
I0403 13:52:30.883098 12182 net.cpp:156] Memory required for data: 783398000
I0403 13:52:30.883114 12182 layer_factory.hpp:77] Creating layer conv5
I0403 13:52:30.883141 12182 net.cpp:91] Creating Layer conv5
I0403 13:52:30.883159 12182 net.cpp:425] conv5 <- conv4
I0403 13:52:30.883178 12182 net.cpp:399] conv5 -> conv5
I0403 13:52:30.904088 12182 net.cpp:141] Setting up conv5
I0403 13:52:30.904124 12182 net.cpp:148] Top shape: 100 256 13 13 (4326400)
I0403 13:52:30.904142 12182 net.cpp:156] Memory required for data: 800703600
I0403 13:52:30.904167 12182 layer_factory.hpp:77] Creating layer relu5
I0403 13:52:30.904189 12182 net.cpp:91] Creating Layer relu5
I0403 13:52:30.904206 12182 net.cpp:425] relu5 <- conv5
I0403 13:52:30.904227 12182 net.cpp:386] relu5 -> conv5 (in-place)
I0403 13:52:30.904510 12182 net.cpp:141] Setting up relu5
I0403 13:52:30.904537 12182 net.cpp:148] Top shape: 100 256 13 13 (4326400)
I0403 13:52:30.904553 12182 net.cpp:156] Memory required for data: 818009200
I0403 13:52:30.904579 12182 layer_factory.hpp:77] Creating layer pool5
I0403 13:52:30.904608 12182 net.cpp:91] Creating Layer pool5
I0403 13:52:30.904628 12182 net.cpp:425] pool5 <- conv5
I0403 13:52:30.904645 12182 net.cpp:399] pool5 -> pool5
I0403 13:52:30.904706 12182 net.cpp:141] Setting up pool5
I0403 13:52:30.904731 12182 net.cpp:148] Top shape: 100 256 6 6 (921600)
I0403 13:52:30.904745 12182 net.cpp:156] Memory required for data: 821695600
I0403 13:52:30.904760 12182 layer_factory.hpp:77] Creating layer fc6
I0403 13:52:30.904788 12182 net.cpp:91] Creating Layer fc6
I0403 13:52:30.904805 12182 net.cpp:425] fc6 <- pool5
I0403 13:52:30.904825 12182 net.cpp:399] fc6 -> fc6
I0403 13:52:32.449587 12182 net.cpp:141] Setting up fc6
I0403 13:52:32.449652 12182 net.cpp:148] Top shape: 100 4096 (409600)
I0403 13:52:32.449669 12182 net.cpp:156] Memory required for data: 823334000
I0403 13:52:32.449689 12182 layer_factory.hpp:77] Creating layer relu6
I0403 13:52:32.449712 12182 net.cpp:91] Creating Layer relu6
I0403 13:52:32.449729 12182 net.cpp:425] relu6 <- fc6
I0403 13:52:32.449748 12182 net.cpp:386] relu6 -> fc6 (in-place)
I0403 13:52:32.449966 12182 net.cpp:141] Setting up relu6
I0403 13:52:32.449993 12182 net.cpp:148] Top shape: 100 4096 (409600)
I0403 13:52:32.450008 12182 net.cpp:156] Memory required for data: 824972400
I0403 13:52:32.450023 12182 layer_factory.hpp:77] Creating layer drop6
I0403 13:52:32.450042 12182 net.cpp:91] Creating Layer drop6
I0403 13:52:32.450057 12182 net.cpp:425] drop6 <- fc6
I0403 13:52:32.450075 12182 net.cpp:386] drop6 -> fc6 (in-place)
I0403 13:52:32.450126 12182 net.cpp:141] Setting up drop6
I0403 13:52:32.450148 12182 net.cpp:148] Top shape: 100 4096 (409600)
I0403 13:52:32.450162 12182 net.cpp:156] Memory required for data: 826610800
I0403 13:52:32.450177 12182 layer_factory.hpp:77] Creating layer fc7
I0403 13:52:32.450202 12182 net.cpp:91] Creating Layer fc7
I0403 13:52:32.450219 12182 net.cpp:425] fc7 <- fc6
I0403 13:52:32.450238 12182 net.cpp:399] fc7 -> fc7
I0403 13:52:33.128381 12182 net.cpp:141] Setting up fc7
I0403 13:52:33.128432 12182 net.cpp:148] Top shape: 100 4096 (409600)
I0403 13:52:33.128448 12182 net.cpp:156] Memory required for data: 828249200
I0403 13:52:33.128468 12182 layer_factory.hpp:77] Creating layer relu7
I0403 13:52:33.128490 12182 net.cpp:91] Creating Layer relu7
I0403 13:52:33.128509 12182 net.cpp:425] relu7 <- fc7
I0403 13:52:33.128527 12182 net.cpp:386] relu7 -> fc7 (in-place)
I0403 13:52:33.128916 12182 net.cpp:141] Setting up relu7
I0403 13:52:33.128942 12182 net.cpp:148] Top shape: 100 4096 (409600)
I0403 13:52:33.128991 12182 net.cpp:156] Memory required for data: 829887600
I0403 13:52:33.129007 12182 layer_factory.hpp:77] Creating layer drop7
I0403 13:52:33.129027 12182 net.cpp:91] Creating Layer drop7
I0403 13:52:33.129042 12182 net.cpp:425] drop7 <- fc7
I0403 13:52:33.129062 12182 net.cpp:386] drop7 -> fc7 (in-place)
I0403 13:52:33.129106 12182 net.cpp:141] Setting up drop7
I0403 13:52:33.129127 12182 net.cpp:148] Top shape: 100 4096 (409600)
I0403 13:52:33.129142 12182 net.cpp:156] Memory required for data: 831526000
I0403 13:52:33.129156 12182 layer_factory.hpp:77] Creating layer fc8_plantvillage
I0403 13:52:33.129179 12182 net.cpp:91] Creating Layer fc8_plantvillage
I0403 13:52:33.129194 12182 net.cpp:425] fc8_plantvillage <- fc7
I0403 13:52:33.129215 12182 net.cpp:399] fc8_plantvillage -> fc8_plantvillage
I0403 13:52:33.135996 12182 net.cpp:141] Setting up fc8_plantvillage
I0403 13:52:33.136026 12182 net.cpp:148] Top shape: 100 38 (3800)
I0403 13:52:33.136041 12182 net.cpp:156] Memory required for data: 831541200
I0403 13:52:33.136059 12182 layer_factory.hpp:77] Creating layer fc8_plantvillage_fc8_plantvillage_0_split
I0403 13:52:33.136078 12182 net.cpp:91] Creating Layer fc8_plantvillage_fc8_plantvillage_0_split
I0403 13:52:33.136096 12182 net.cpp:425] fc8_plantvillage_fc8_plantvillage_0_split <- fc8_plantvillage
I0403 13:52:33.136116 12182 net.cpp:399] fc8_plantvillage_fc8_plantvillage_0_split -> fc8_plantvillage_fc8_plantvillage_0_split_0
I0403 13:52:33.136137 12182 net.cpp:399] fc8_plantvillage_fc8_plantvillage_0_split -> fc8_plantvillage_fc8_plantvillage_0_split_1
I0403 13:52:33.136157 12182 net.cpp:399] fc8_plantvillage_fc8_plantvillage_0_split -> fc8_plantvillage_fc8_plantvillage_0_split_2
I0403 13:52:33.136237 12182 net.cpp:141] Setting up fc8_plantvillage_fc8_plantvillage_0_split
I0403 13:52:33.136275 12182 net.cpp:148] Top shape: 100 38 (3800)
I0403 13:52:33.136293 12182 net.cpp:148] Top shape: 100 38 (3800)
I0403 13:52:33.136309 12182 net.cpp:148] Top shape: 100 38 (3800)
I0403 13:52:33.136323 12182 net.cpp:156] Memory required for data: 831586800
I0403 13:52:33.136338 12182 layer_factory.hpp:77] Creating layer prob
I0403 13:52:33.136358 12182 net.cpp:91] Creating Layer prob
I0403 13:52:33.136373 12182 net.cpp:425] prob <- fc8_plantvillage_fc8_plantvillage_0_split_0
I0403 13:52:33.136390 12182 net.cpp:399] prob -> prob
I0403 13:52:33.136636 12182 net.cpp:141] Setting up prob
I0403 13:52:33.136664 12182 net.cpp:148] Top shape: 100 38 (3800)
I0403 13:52:33.136682 12182 net.cpp:156] Memory required for data: 831602000
I0403 13:52:33.136695 12182 layer_factory.hpp:77] Creating layer hdf5out
I0403 13:52:33.136713 12182 net.cpp:91] Creating Layer hdf5out
I0403 13:52:33.136729 12182 net.cpp:425] hdf5out <- prob
I0403 13:52:33.136744 12182 net.cpp:425] hdf5out <- label_data_1_split_0
I0403 13:52:33.141144 12182 net.cpp:141] Setting up hdf5out
…
