…
I0403 13:45:44.030434 12029 net.cpp:313] The NetState phase (1) differed from the phase (0) specified by a rule in layer data
I0403 13:45:44.030740 12029 net.cpp:49] Initializing net from parameters: 
state {
  phase: TEST
}
layer {
  name: "data"
  type: "Data"
  top: "data"
  top: "label"
  include {
    phase: TEST
  }
  transform_param {
    crop_size: 227
    mean_file: "/home/mohanty/data/final_dataset/lmdb/grayscale-60-40/mean.binaryproto"
  }
  data_param {
    source: "/home/mohanty/data/final_dataset/lmdb/grayscale-60-40/test_db"
    batch_size: 100
    backend: LMDB
  }
}
layer {
  name: "conv1"
  type: "Convolution"
  bottom: "data"
  top: "conv1"
  param {
    lr_mult: 1
    decay_mult: 1
  }
  param {
    lr_mult: 2
    decay_mult: 0
  }
  convolution_param {
    num_output: 96
    kernel_size: 11
    stride: 4
    weight_filler {
      type: "gaussian"
      std: 0.01
    }
    bias_filler {
      type: "constant"
      value: 0
    }
  }
}
layer {
  name: "relu1"
  type: "ReLU"
  bottom: "conv1"
  top: "conv1"
}
layer {
  name: "norm1"
  type: "LRN"
  bottom: "conv1"
  top: "norm1"
  lrn_param {
    local_size: 5
    alpha: 0.0001
    beta: 0.75
  }
}
layer {
  name: "pool1"
  type: "Pooling"
  bottom: "norm1"
  top: "pool1"
  pooling_param {
    pool: MAX
    kernel_size: 3
    stride: 2
  }
}
layer {
  name: "conv2"
  type: "Convolution"
  bottom: "pool1"
  top: "conv2"
  param {
    lr_mult: 1
    decay_mult: 1
  }
  param {
    lr_mult: 2
    decay_mult: 0
  }
  convolution_param {
    num_output: 256
    pad: 2
    kernel_size: 5
    group: 2
    weight_filler {
      type: "gaussian"
      std: 0.01
    }
    bias_filler {
      type: "constant"
      value: 0.1
    }
  }
}
layer {
  name: "relu2"
  type: "ReLU"
  bottom: "conv2"
  top: "conv2"
}
layer {
  name: "norm2"
  type: "LRN"
  bottom: "conv2"
  top: "norm2"
  lrn_param {
    local_size: 5
    alpha: 0.0001
    beta: 0.75
  }
}
layer {
  name: "pool2"
  type: "Pooling"
  bottom: "norm2"
  top: "pool2"
  pooling_param {
    pool: MAX
    kernel_size: 3
    stride: 2
  }
}
layer {
  name: "conv3"
  type: "Convolution"
  bottom: "pool2"
  top: "conv3"
  param {
    lr_mult: 1
    decay_mult: 1
  }
  param {
    lr_mult: 2
    decay_mult: 0
  }
  convolution_param {
    num_output: 384
    pad: 1
    kernel_size: 3
    weight_filler {
      type: "gaussian"
      std: 0.01
    }
    bias_filler {
      type: "constant"
      value: 0
    }
  }
}
layer {
  name: "relu3"
  type: "ReLU"
  bottom: "conv3"
  top: "conv3"
}
layer {
  name: "conv4"
  type: "Convolution"
  bottom: "conv3"
  top: "conv4"
  param {
    lr_mult: 1
    decay_mult: 1
  }
  param {
    lr_mult: 2
    decay_mult: 0
  }
  convolution_param {
    num_output: 384
    pad: 1
    kernel_size: 3
    group: 2
    weight_filler {
      type: "gaussian"
      std: 0.01
    }
    bias_filler {
      type: "constant"
      value: 0.1
    }
  }
}
layer {
  name: "relu4"
  type: "ReLU"
  bottom: "conv4"
  top: "conv4"
}
layer {
  name: "conv5"
  type: "Convolution"
  bottom: "conv4"
  top: "conv5"
  param {
    lr_mult: 1
    decay_mult: 1
  }
  param {
    lr_mult: 2
    decay_mult: 0
  }
  convolution_param {
    num_output: 256
    pad: 1
    kernel_size: 3
    group: 2
    weight_filler {
      type: "gaussian"
      std: 0.01
    }
    bias_filler {
      type: "constant"
      value: 0.1
    }
  }
}
layer {
  name: "relu5"
  type: "ReLU"
  bottom: "conv5"
  top: "conv5"
}
layer {
  name: "pool5"
  type: "Pooling"
  bottom: "conv5"
  top: "pool5"
  pooling_param {
    pool: MAX
    kernel_size: 3
    stride: 2
  }
}
layer {
  name: "fc6"
  type: "InnerProduct"
  bottom: "pool5"
  top: "fc6"
  param {
    lr_mult: 1
    decay_mult: 1
  }
  param {
    lr_mult: 2
    decay_mult: 0
  }
  inner_product_param {
    num_output: 4096
    weight_filler {
      type: "gaussian"
      std: 0.005
    }
    bias_filler {
      type: "constant"
      value: 0.1
    }
  }
}
layer {
  name: "relu6"
  type: "ReLU"
  bottom: "fc6"
  top: "fc6"
}
layer {
  name: "drop6"
  type: "Dropout"
  bottom: "fc6"
  top: "fc6"
  dropout_param {
    dropout_ratio: 0.5
  }
}
layer {
  name: "fc7"
  type: "InnerProduct"
  bottom: "fc6"
  top: "fc7"
  param {
    lr_mult: 1
    decay_mult: 1
  }
  param {
    lr_mult: 2
    decay_mult: 0
  }
  inner_product_param {
    num_output: 4096
    weight_filler {
      type: "gaussian"
      std: 0.005
    }
    bias_filler {
      type: "constant"
      value: 0.1
    }
  }
}
layer {
  name: "relu7"
  type: "ReLU"
  bottom: "fc7"
  top: "fc7"
}
layer {
  name: "drop7"
  type: "Dropout"
  bottom: "fc7"
  top: "fc7"
  dropout_param {
    dropout_ratio: 0.5
  }
}
layer {
  name: "fc8_plantvillage"
  type: "InnerProduct"
  bottom: "fc7"
  top: "fc8_plantvillage"
  param {
    lr_mult: 1
    decay_mult: 1
  }
  param {
    lr_mult: 2
    decay_mult: 0
  }
  inner_product_param {
    num_output: 38
    weight_filler {
      type: "gaussian"
      std: 0.01
    }
    bias_filler {
      type: "constant"
      value: 0
    }
  }
}
layer {
  name: "prob"
  type: "Softmax"
  bottom: "fc8_plantvillage"
  top: "prob"
  include {
    phase: TEST
  }
}
layer {
  name: "hdf5out"
  type: "HDF5Output"
  bottom: "prob"
  bottom: "label"
  include {
    phase: TEST
  }
  hdf5_output_param {
    file_name: "hdf5_dumps/iter_4225.h5"
  }
}
layer {
  name: "loss"
  type: "SoftmaxWithLoss"
  bottom: "fc8_plantvillage"
  bottom: "label"
  top: "loss"
}
layer {
  name: "accuracy"
  type: "Accuracy"
  bottom: "fc8_plantvillage"
  bottom: "label"
  top: "accuracy"
  include {
    phase: TEST
  }
}
I0403 13:45:44.031312 12029 layer_factory.hpp:77] Creating layer data
I0403 13:45:44.031936 12029 net.cpp:91] Creating Layer data
I0403 13:45:44.031966 12029 net.cpp:399] data -> data
I0403 13:45:44.032028 12029 net.cpp:399] data -> label
I0403 13:45:44.032065 12029 data_transformer.cpp:25] Loading mean file from: /home/mohanty/data/final_dataset/lmdb/grayscale-60-40/mean.binaryproto
I0403 13:45:44.034742 12031 db_lmdb.cpp:38] Opened lmdb /home/mohanty/data/final_dataset/lmdb/grayscale-60-40/test_db
I0403 13:45:44.046202 12029 data_layer.cpp:41] output data size: 100,3,227,227
I0403 13:45:44.166486 12029 net.cpp:141] Setting up data
I0403 13:45:44.166541 12029 net.cpp:148] Top shape: 100 3 227 227 (15458700)
I0403 13:45:44.166563 12029 net.cpp:148] Top shape: 100 (100)
I0403 13:45:44.166584 12029 net.cpp:156] Memory required for data: 61835200
I0403 13:45:44.166610 12029 layer_factory.hpp:77] Creating layer label_data_1_split
I0403 13:45:44.166635 12029 net.cpp:91] Creating Layer label_data_1_split
I0403 13:45:44.166651 12029 net.cpp:425] label_data_1_split <- label
I0403 13:45:44.166682 12029 net.cpp:399] label_data_1_split -> label_data_1_split_0
I0403 13:45:44.166707 12029 net.cpp:399] label_data_1_split -> label_data_1_split_1
I0403 13:45:44.166728 12029 net.cpp:399] label_data_1_split -> label_data_1_split_2
I0403 13:45:44.166786 12029 net.cpp:141] Setting up label_data_1_split
I0403 13:45:44.166810 12029 net.cpp:148] Top shape: 100 (100)
I0403 13:45:44.166826 12029 net.cpp:148] Top shape: 100 (100)
I0403 13:45:44.166841 12029 net.cpp:148] Top shape: 100 (100)
I0403 13:45:44.166854 12029 net.cpp:156] Memory required for data: 61836400
I0403 13:45:44.166868 12029 layer_factory.hpp:77] Creating layer conv1
I0403 13:45:44.166898 12029 net.cpp:91] Creating Layer conv1
I0403 13:45:44.166915 12029 net.cpp:425] conv1 <- data
I0403 13:45:44.166934 12029 net.cpp:399] conv1 -> conv1
I0403 13:45:44.309240 12029 net.cpp:141] Setting up conv1
I0403 13:45:44.309319 12029 net.cpp:148] Top shape: 100 96 55 55 (29040000)
I0403 13:45:44.309337 12029 net.cpp:156] Memory required for data: 177996400
I0403 13:45:44.309368 12029 layer_factory.hpp:77] Creating layer relu1
I0403 13:45:44.309397 12029 net.cpp:91] Creating Layer relu1
I0403 13:45:44.309417 12029 net.cpp:425] relu1 <- conv1
I0403 13:45:44.309437 12029 net.cpp:386] relu1 -> conv1 (in-place)
I0403 13:45:44.309707 12029 net.cpp:141] Setting up relu1
I0403 13:45:44.309736 12029 net.cpp:148] Top shape: 100 96 55 55 (29040000)
I0403 13:45:44.309792 12029 net.cpp:156] Memory required for data: 294156400
I0403 13:45:44.309808 12029 layer_factory.hpp:77] Creating layer norm1
I0403 13:45:44.309836 12029 net.cpp:91] Creating Layer norm1
I0403 13:45:44.309854 12029 net.cpp:425] norm1 <- conv1
I0403 13:45:44.309873 12029 net.cpp:399] norm1 -> norm1
I0403 13:45:44.310191 12029 net.cpp:141] Setting up norm1
I0403 13:45:44.310220 12029 net.cpp:148] Top shape: 100 96 55 55 (29040000)
I0403 13:45:44.310237 12029 net.cpp:156] Memory required for data: 410316400
I0403 13:45:44.310252 12029 layer_factory.hpp:77] Creating layer pool1
I0403 13:45:44.310278 12029 net.cpp:91] Creating Layer pool1
I0403 13:45:44.310297 12029 net.cpp:425] pool1 <- norm1
I0403 13:45:44.310315 12029 net.cpp:399] pool1 -> pool1
I0403 13:45:44.310384 12029 net.cpp:141] Setting up pool1
I0403 13:45:44.310410 12029 net.cpp:148] Top shape: 100 96 27 27 (6998400)
I0403 13:45:44.310425 12029 net.cpp:156] Memory required for data: 438310000
I0403 13:45:44.310441 12029 layer_factory.hpp:77] Creating layer conv2
I0403 13:45:44.310466 12029 net.cpp:91] Creating Layer conv2
I0403 13:45:44.310482 12029 net.cpp:425] conv2 <- pool1
I0403 13:45:44.310500 12029 net.cpp:399] conv2 -> conv2
I0403 13:45:44.326472 12029 net.cpp:141] Setting up conv2
I0403 13:45:44.326529 12029 net.cpp:148] Top shape: 100 256 27 27 (18662400)
I0403 13:45:44.326545 12029 net.cpp:156] Memory required for data: 512959600
I0403 13:45:44.326573 12029 layer_factory.hpp:77] Creating layer relu2
I0403 13:45:44.326596 12029 net.cpp:91] Creating Layer relu2
I0403 13:45:44.326613 12029 net.cpp:425] relu2 <- conv2
I0403 13:45:44.326634 12029 net.cpp:386] relu2 -> conv2 (in-place)
I0403 13:45:44.326966 12029 net.cpp:141] Setting up relu2
I0403 13:45:44.326994 12029 net.cpp:148] Top shape: 100 256 27 27 (18662400)
I0403 13:45:44.327009 12029 net.cpp:156] Memory required for data: 587609200
I0403 13:45:44.327025 12029 layer_factory.hpp:77] Creating layer norm2
I0403 13:45:44.327049 12029 net.cpp:91] Creating Layer norm2
I0403 13:45:44.327067 12029 net.cpp:425] norm2 <- conv2
I0403 13:45:44.327085 12029 net.cpp:399] norm2 -> norm2
I0403 13:45:44.327296 12029 net.cpp:141] Setting up norm2
I0403 13:45:44.327322 12029 net.cpp:148] Top shape: 100 256 27 27 (18662400)
I0403 13:45:44.327338 12029 net.cpp:156] Memory required for data: 662258800
I0403 13:45:44.327354 12029 layer_factory.hpp:77] Creating layer pool2
I0403 13:45:44.327373 12029 net.cpp:91] Creating Layer pool2
I0403 13:45:44.327389 12029 net.cpp:425] pool2 <- norm2
I0403 13:45:44.327409 12029 net.cpp:399] pool2 -> pool2
I0403 13:45:44.327466 12029 net.cpp:141] Setting up pool2
I0403 13:45:44.327489 12029 net.cpp:148] Top shape: 100 256 13 13 (4326400)
I0403 13:45:44.327504 12029 net.cpp:156] Memory required for data: 679564400
I0403 13:45:44.327518 12029 layer_factory.hpp:77] Creating layer conv3
I0403 13:45:44.327545 12029 net.cpp:91] Creating Layer conv3
I0403 13:45:44.327563 12029 net.cpp:425] conv3 <- pool2
I0403 13:45:44.327587 12029 net.cpp:399] conv3 -> conv3
I0403 13:45:44.368083 12029 net.cpp:141] Setting up conv3
I0403 13:45:44.368134 12029 net.cpp:148] Top shape: 100 384 13 13 (6489600)
I0403 13:45:44.368152 12029 net.cpp:156] Memory required for data: 705522800
I0403 13:45:44.368175 12029 layer_factory.hpp:77] Creating layer relu3
I0403 13:45:44.368196 12029 net.cpp:91] Creating Layer relu3
I0403 13:45:44.368211 12029 net.cpp:425] relu3 <- conv3
I0403 13:45:44.368232 12029 net.cpp:386] relu3 -> conv3 (in-place)
I0403 13:45:44.368500 12029 net.cpp:141] Setting up relu3
I0403 13:45:44.368527 12029 net.cpp:148] Top shape: 100 384 13 13 (6489600)
I0403 13:45:44.368542 12029 net.cpp:156] Memory required for data: 731481200
I0403 13:45:44.368556 12029 layer_factory.hpp:77] Creating layer conv4
I0403 13:45:44.368585 12029 net.cpp:91] Creating Layer conv4
I0403 13:45:44.368604 12029 net.cpp:425] conv4 <- conv3
I0403 13:45:44.368624 12029 net.cpp:399] conv4 -> conv4
I0403 13:45:44.398818 12029 net.cpp:141] Setting up conv4
I0403 13:45:44.398877 12029 net.cpp:148] Top shape: 100 384 13 13 (6489600)
I0403 13:45:44.398934 12029 net.cpp:156] Memory required for data: 757439600
I0403 13:45:44.398955 12029 layer_factory.hpp:77] Creating layer relu4
I0403 13:45:44.398977 12029 net.cpp:91] Creating Layer relu4
I0403 13:45:44.398993 12029 net.cpp:425] relu4 <- conv4
I0403 13:45:44.399013 12029 net.cpp:386] relu4 -> conv4 (in-place)
I0403 13:45:44.399302 12029 net.cpp:141] Setting up relu4
I0403 13:45:44.399332 12029 net.cpp:148] Top shape: 100 384 13 13 (6489600)
I0403 13:45:44.399348 12029 net.cpp:156] Memory required for data: 783398000
I0403 13:45:44.399364 12029 layer_factory.hpp:77] Creating layer conv5
I0403 13:45:44.399389 12029 net.cpp:91] Creating Layer conv5
I0403 13:45:44.399407 12029 net.cpp:425] conv5 <- conv4
I0403 13:45:44.399440 12029 net.cpp:399] conv5 -> conv5
I0403 13:45:44.420420 12029 net.cpp:141] Setting up conv5
I0403 13:45:44.420461 12029 net.cpp:148] Top shape: 100 256 13 13 (4326400)
I0403 13:45:44.420478 12029 net.cpp:156] Memory required for data: 800703600
I0403 13:45:44.420503 12029 layer_factory.hpp:77] Creating layer relu5
I0403 13:45:44.420524 12029 net.cpp:91] Creating Layer relu5
I0403 13:45:44.420542 12029 net.cpp:425] relu5 <- conv5
I0403 13:45:44.420562 12029 net.cpp:386] relu5 -> conv5 (in-place)
I0403 13:45:44.420848 12029 net.cpp:141] Setting up relu5
I0403 13:45:44.420876 12029 net.cpp:148] Top shape: 100 256 13 13 (4326400)
I0403 13:45:44.420891 12029 net.cpp:156] Memory required for data: 818009200
I0403 13:45:44.420905 12029 layer_factory.hpp:77] Creating layer pool5
I0403 13:45:44.420929 12029 net.cpp:91] Creating Layer pool5
I0403 13:45:44.420948 12029 net.cpp:425] pool5 <- conv5
I0403 13:45:44.420966 12029 net.cpp:399] pool5 -> pool5
I0403 13:45:44.421030 12029 net.cpp:141] Setting up pool5
I0403 13:45:44.421053 12029 net.cpp:148] Top shape: 100 256 6 6 (921600)
I0403 13:45:44.421068 12029 net.cpp:156] Memory required for data: 821695600
I0403 13:45:44.421082 12029 layer_factory.hpp:77] Creating layer fc6
I0403 13:45:44.421108 12029 net.cpp:91] Creating Layer fc6
I0403 13:45:44.421125 12029 net.cpp:425] fc6 <- pool5
I0403 13:45:44.421146 12029 net.cpp:399] fc6 -> fc6
I0403 13:45:45.955121 12029 net.cpp:141] Setting up fc6
I0403 13:45:45.955163 12029 net.cpp:148] Top shape: 100 4096 (409600)
I0403 13:45:45.955178 12029 net.cpp:156] Memory required for data: 823334000
I0403 13:45:45.955199 12029 layer_factory.hpp:77] Creating layer relu6
I0403 13:45:45.955224 12029 net.cpp:91] Creating Layer relu6
I0403 13:45:45.955241 12029 net.cpp:425] relu6 <- fc6
I0403 13:45:45.955261 12029 net.cpp:386] relu6 -> fc6 (in-place)
I0403 13:45:45.955479 12029 net.cpp:141] Setting up relu6
I0403 13:45:45.955504 12029 net.cpp:148] Top shape: 100 4096 (409600)
I0403 13:45:45.955518 12029 net.cpp:156] Memory required for data: 824972400
I0403 13:45:45.955533 12029 layer_factory.hpp:77] Creating layer drop6
I0403 13:45:45.955549 12029 net.cpp:91] Creating Layer drop6
I0403 13:45:45.955564 12029 net.cpp:425] drop6 <- fc6
I0403 13:45:45.955595 12029 net.cpp:386] drop6 -> fc6 (in-place)
I0403 13:45:45.955644 12029 net.cpp:141] Setting up drop6
I0403 13:45:45.955668 12029 net.cpp:148] Top shape: 100 4096 (409600)
I0403 13:45:45.955683 12029 net.cpp:156] Memory required for data: 826610800
I0403 13:45:45.955696 12029 layer_factory.hpp:77] Creating layer fc7
I0403 13:45:45.955714 12029 net.cpp:91] Creating Layer fc7
I0403 13:45:45.955729 12029 net.cpp:425] fc7 <- fc6
I0403 13:45:45.955749 12029 net.cpp:399] fc7 -> fc7
I0403 13:45:46.629966 12029 net.cpp:141] Setting up fc7
I0403 13:45:46.630004 12029 net.cpp:148] Top shape: 100 4096 (409600)
I0403 13:45:46.630020 12029 net.cpp:156] Memory required for data: 828249200
I0403 13:45:46.630039 12029 layer_factory.hpp:77] Creating layer relu7
I0403 13:45:46.630060 12029 net.cpp:91] Creating Layer relu7
I0403 13:45:46.630076 12029 net.cpp:425] relu7 <- fc7
I0403 13:45:46.630097 12029 net.cpp:386] relu7 -> fc7 (in-place)
I0403 13:45:46.630470 12029 net.cpp:141] Setting up relu7
I0403 13:45:46.630498 12029 net.cpp:148] Top shape: 100 4096 (409600)
I0403 13:45:46.630530 12029 net.cpp:156] Memory required for data: 829887600
I0403 13:45:46.630545 12029 layer_factory.hpp:77] Creating layer drop7
I0403 13:45:46.630563 12029 net.cpp:91] Creating Layer drop7
I0403 13:45:46.630583 12029 net.cpp:425] drop7 <- fc7
I0403 13:45:46.630601 12029 net.cpp:386] drop7 -> fc7 (in-place)
I0403 13:45:46.630642 12029 net.cpp:141] Setting up drop7
I0403 13:45:46.630663 12029 net.cpp:148] Top shape: 100 4096 (409600)
I0403 13:45:46.630677 12029 net.cpp:156] Memory required for data: 831526000
I0403 13:45:46.630691 12029 layer_factory.hpp:77] Creating layer fc8_plantvillage
I0403 13:45:46.630712 12029 net.cpp:91] Creating Layer fc8_plantvillage
I0403 13:45:46.630728 12029 net.cpp:425] fc8_plantvillage <- fc7
I0403 13:45:46.630746 12029 net.cpp:399] fc8_plantvillage -> fc8_plantvillage
I0403 13:45:46.637287 12029 net.cpp:141] Setting up fc8_plantvillage
I0403 13:45:46.637315 12029 net.cpp:148] Top shape: 100 38 (3800)
I0403 13:45:46.637329 12029 net.cpp:156] Memory required for data: 831541200
I0403 13:45:46.637346 12029 layer_factory.hpp:77] Creating layer fc8_plantvillage_fc8_plantvillage_0_split
I0403 13:45:46.637363 12029 net.cpp:91] Creating Layer fc8_plantvillage_fc8_plantvillage_0_split
I0403 13:45:46.637377 12029 net.cpp:425] fc8_plantvillage_fc8_plantvillage_0_split <- fc8_plantvillage
I0403 13:45:46.637397 12029 net.cpp:399] fc8_plantvillage_fc8_plantvillage_0_split -> fc8_plantvillage_fc8_plantvillage_0_split_0
I0403 13:45:46.637416 12029 net.cpp:399] fc8_plantvillage_fc8_plantvillage_0_split -> fc8_plantvillage_fc8_plantvillage_0_split_1
I0403 13:45:46.637436 12029 net.cpp:399] fc8_plantvillage_fc8_plantvillage_0_split -> fc8_plantvillage_fc8_plantvillage_0_split_2
I0403 13:45:46.637511 12029 net.cpp:141] Setting up fc8_plantvillage_fc8_plantvillage_0_split
I0403 13:45:46.637532 12029 net.cpp:148] Top shape: 100 38 (3800)
I0403 13:45:46.637548 12029 net.cpp:148] Top shape: 100 38 (3800)
I0403 13:45:46.637562 12029 net.cpp:148] Top shape: 100 38 (3800)
I0403 13:45:46.637580 12029 net.cpp:156] Memory required for data: 831586800
I0403 13:45:46.637594 12029 layer_factory.hpp:77] Creating layer prob
I0403 13:45:46.637611 12029 net.cpp:91] Creating Layer prob
I0403 13:45:46.637626 12029 net.cpp:425] prob <- fc8_plantvillage_fc8_plantvillage_0_split_0
I0403 13:45:46.637645 12029 net.cpp:399] prob -> prob
I0403 13:45:46.637863 12029 net.cpp:141] Setting up prob
I0403 13:45:46.637892 12029 net.cpp:148] Top shape: 100 38 (3800)
I0403 13:45:46.637907 12029 net.cpp:156] Memory required for data: 831602000
I0403 13:45:46.637920 12029 layer_factory.hpp:77] Creating layer hdf5out
I0403 13:45:46.637938 12029 net.cpp:91] Creating Layer hdf5out
I0403 13:45:46.637953 12029 net.cpp:425] hdf5out <- prob
I0403 13:45:46.637969 12029 net.cpp:425] hdf5out <- label_data_1_split_0
I0403 13:45:46.658275 12029 net.cpp:141] Setting up hdf5out
…
