…
I0403 13:41:57.828869 11935 net.cpp:313] The NetState phase (1) differed from the phase (0) specified by a rule in layer data
I0403 13:41:57.829179 11935 net.cpp:49] Initializing net from parameters: 
state {
  phase: TEST
}
layer {
  name: "data"
  type: "Data"
  top: "data"
  top: "label"
  include {
    phase: TEST
  }
  transform_param {
    crop_size: 227
    mean_file: "/home/mohanty/data/final_dataset/lmdb/grayscale-60-40/mean.binaryproto"
  }
  data_param {
    source: "/home/mohanty/data/final_dataset/lmdb/grayscale-60-40/test_db"
    batch_size: 100
    backend: LMDB
  }
}
layer {
  name: "conv1"
  type: "Convolution"
  bottom: "data"
  top: "conv1"
  param {
    lr_mult: 1
    decay_mult: 1
  }
  param {
    lr_mult: 2
    decay_mult: 0
  }
  convolution_param {
    num_output: 96
    kernel_size: 11
    stride: 4
    weight_filler {
      type: "gaussian"
      std: 0.01
    }
    bias_filler {
      type: "constant"
      value: 0
    }
  }
}
layer {
  name: "relu1"
  type: "ReLU"
  bottom: "conv1"
  top: "conv1"
}
layer {
  name: "norm1"
  type: "LRN"
  bottom: "conv1"
  top: "norm1"
  lrn_param {
    local_size: 5
    alpha: 0.0001
    beta: 0.75
  }
}
layer {
  name: "pool1"
  type: "Pooling"
  bottom: "norm1"
  top: "pool1"
  pooling_param {
    pool: MAX
    kernel_size: 3
    stride: 2
  }
}
layer {
  name: "conv2"
  type: "Convolution"
  bottom: "pool1"
  top: "conv2"
  param {
    lr_mult: 1
    decay_mult: 1
  }
  param {
    lr_mult: 2
    decay_mult: 0
  }
  convolution_param {
    num_output: 256
    pad: 2
    kernel_size: 5
    group: 2
    weight_filler {
      type: "gaussian"
      std: 0.01
    }
    bias_filler {
      type: "constant"
      value: 0.1
    }
  }
}
layer {
  name: "relu2"
  type: "ReLU"
  bottom: "conv2"
  top: "conv2"
}
layer {
  name: "norm2"
  type: "LRN"
  bottom: "conv2"
  top: "norm2"
  lrn_param {
    local_size: 5
    alpha: 0.0001
    beta: 0.75
  }
}
layer {
  name: "pool2"
  type: "Pooling"
  bottom: "norm2"
  top: "pool2"
  pooling_param {
    pool: MAX
    kernel_size: 3
    stride: 2
  }
}
layer {
  name: "conv3"
  type: "Convolution"
  bottom: "pool2"
  top: "conv3"
  param {
    lr_mult: 1
    decay_mult: 1
  }
  param {
    lr_mult: 2
    decay_mult: 0
  }
  convolution_param {
    num_output: 384
    pad: 1
    kernel_size: 3
    weight_filler {
      type: "gaussian"
      std: 0.01
    }
    bias_filler {
      type: "constant"
      value: 0
    }
  }
}
layer {
  name: "relu3"
  type: "ReLU"
  bottom: "conv3"
  top: "conv3"
}
layer {
  name: "conv4"
  type: "Convolution"
  bottom: "conv3"
  top: "conv4"
  param {
    lr_mult: 1
    decay_mult: 1
  }
  param {
    lr_mult: 2
    decay_mult: 0
  }
  convolution_param {
    num_output: 384
    pad: 1
    kernel_size: 3
    group: 2
    weight_filler {
      type: "gaussian"
      std: 0.01
    }
    bias_filler {
      type: "constant"
      value: 0.1
    }
  }
}
layer {
  name: "relu4"
  type: "ReLU"
  bottom: "conv4"
  top: "conv4"
}
layer {
  name: "conv5"
  type: "Convolution"
  bottom: "conv4"
  top: "conv5"
  param {
    lr_mult: 1
    decay_mult: 1
  }
  param {
    lr_mult: 2
    decay_mult: 0
  }
  convolution_param {
    num_output: 256
    pad: 1
    kernel_size: 3
    group: 2
    weight_filler {
      type: "gaussian"
      std: 0.01
    }
    bias_filler {
      type: "constant"
      value: 0.1
    }
  }
}
layer {
  name: "relu5"
  type: "ReLU"
  bottom: "conv5"
  top: "conv5"
}
layer {
  name: "pool5"
  type: "Pooling"
  bottom: "conv5"
  top: "pool5"
  pooling_param {
    pool: MAX
    kernel_size: 3
    stride: 2
  }
}
layer {
  name: "fc6"
  type: "InnerProduct"
  bottom: "pool5"
  top: "fc6"
  param {
    lr_mult: 1
    decay_mult: 1
  }
  param {
    lr_mult: 2
    decay_mult: 0
  }
  inner_product_param {
    num_output: 4096
    weight_filler {
      type: "gaussian"
      std: 0.005
    }
    bias_filler {
      type: "constant"
      value: 0.1
    }
  }
}
layer {
  name: "relu6"
  type: "ReLU"
  bottom: "fc6"
  top: "fc6"
}
layer {
  name: "drop6"
  type: "Dropout"
  bottom: "fc6"
  top: "fc6"
  dropout_param {
    dropout_ratio: 0.5
  }
}
layer {
  name: "fc7"
  type: "InnerProduct"
  bottom: "fc6"
  top: "fc7"
  param {
    lr_mult: 1
    decay_mult: 1
  }
  param {
    lr_mult: 2
    decay_mult: 0
  }
  inner_product_param {
    num_output: 4096
    weight_filler {
      type: "gaussian"
      std: 0.005
    }
    bias_filler {
      type: "constant"
      value: 0.1
    }
  }
}
layer {
  name: "relu7"
  type: "ReLU"
  bottom: "fc7"
  top: "fc7"
}
layer {
  name: "drop7"
  type: "Dropout"
  bottom: "fc7"
  top: "fc7"
  dropout_param {
    dropout_ratio: 0.5
  }
}
layer {
  name: "fc8_plantvillage"
  type: "InnerProduct"
  bottom: "fc7"
  top: "fc8_plantvillage"
  param {
    lr_mult: 1
    decay_mult: 1
  }
  param {
    lr_mult: 2
    decay_mult: 0
  }
  inner_product_param {
    num_output: 38
    weight_filler {
      type: "gaussian"
      std: 0.01
    }
    bias_filler {
      type: "constant"
      value: 0
    }
  }
}
layer {
  name: "prob"
  type: "Softmax"
  bottom: "fc8_plantvillage"
  top: "prob"
  include {
    phase: TEST
  }
}
layer {
  name: "hdf5out"
  type: "HDF5Output"
  bottom: "prob"
  bottom: "label"
  include {
    phase: TEST
  }
  hdf5_output_param {
    file_name: "hdf5_dumps/iter_2600.h5"
  }
}
layer {
  name: "loss"
  type: "SoftmaxWithLoss"
  bottom: "fc8_plantvillage"
  bottom: "label"
  top: "loss"
}
layer {
  name: "accuracy"
  type: "Accuracy"
  bottom: "fc8_plantvillage"
  bottom: "label"
  top: "accuracy"
  include {
    phase: TEST
  }
}
I0403 13:41:57.829800 11935 layer_factory.hpp:77] Creating layer data
I0403 13:41:57.830476 11935 net.cpp:91] Creating Layer data
I0403 13:41:57.830509 11935 net.cpp:399] data -> data
I0403 13:41:57.830562 11935 net.cpp:399] data -> label
I0403 13:41:57.830603 11935 data_transformer.cpp:25] Loading mean file from: /home/mohanty/data/final_dataset/lmdb/grayscale-60-40/mean.binaryproto
I0403 13:41:57.842519 11939 db_lmdb.cpp:38] Opened lmdb /home/mohanty/data/final_dataset/lmdb/grayscale-60-40/test_db
I0403 13:41:57.847218 11935 data_layer.cpp:41] output data size: 100,3,227,227
I0403 13:41:57.968299 11935 net.cpp:141] Setting up data
I0403 13:41:57.968376 11935 net.cpp:148] Top shape: 100 3 227 227 (15458700)
I0403 13:41:57.968399 11935 net.cpp:148] Top shape: 100 (100)
I0403 13:41:57.968413 11935 net.cpp:156] Memory required for data: 61835200
I0403 13:41:57.968441 11935 layer_factory.hpp:77] Creating layer label_data_1_split
I0403 13:41:57.968466 11935 net.cpp:91] Creating Layer label_data_1_split
I0403 13:41:57.968483 11935 net.cpp:425] label_data_1_split <- label
I0403 13:41:57.968514 11935 net.cpp:399] label_data_1_split -> label_data_1_split_0
I0403 13:41:57.968541 11935 net.cpp:399] label_data_1_split -> label_data_1_split_1
I0403 13:41:57.968562 11935 net.cpp:399] label_data_1_split -> label_data_1_split_2
I0403 13:41:57.968629 11935 net.cpp:141] Setting up label_data_1_split
I0403 13:41:57.968652 11935 net.cpp:148] Top shape: 100 (100)
I0403 13:41:57.968669 11935 net.cpp:148] Top shape: 100 (100)
I0403 13:41:57.968685 11935 net.cpp:148] Top shape: 100 (100)
I0403 13:41:57.968698 11935 net.cpp:156] Memory required for data: 61836400
I0403 13:41:57.968713 11935 layer_factory.hpp:77] Creating layer conv1
I0403 13:41:57.968744 11935 net.cpp:91] Creating Layer conv1
I0403 13:41:57.968762 11935 net.cpp:425] conv1 <- data
I0403 13:41:57.968780 11935 net.cpp:399] conv1 -> conv1
I0403 13:41:58.110519 11935 net.cpp:141] Setting up conv1
I0403 13:41:58.110572 11935 net.cpp:148] Top shape: 100 96 55 55 (29040000)
I0403 13:41:58.110592 11935 net.cpp:156] Memory required for data: 177996400
I0403 13:41:58.110628 11935 layer_factory.hpp:77] Creating layer relu1
I0403 13:41:58.110657 11935 net.cpp:91] Creating Layer relu1
I0403 13:41:58.110677 11935 net.cpp:425] relu1 <- conv1
I0403 13:41:58.110697 11935 net.cpp:386] relu1 -> conv1 (in-place)
I0403 13:41:58.110960 11935 net.cpp:141] Setting up relu1
I0403 13:41:58.110990 11935 net.cpp:148] Top shape: 100 96 55 55 (29040000)
I0403 13:41:58.111039 11935 net.cpp:156] Memory required for data: 294156400
I0403 13:41:58.111057 11935 layer_factory.hpp:77] Creating layer norm1
I0403 13:41:58.111084 11935 net.cpp:91] Creating Layer norm1
I0403 13:41:58.111104 11935 net.cpp:425] norm1 <- conv1
I0403 13:41:58.111121 11935 net.cpp:399] norm1 -> norm1
I0403 13:41:58.111438 11935 net.cpp:141] Setting up norm1
I0403 13:41:58.111467 11935 net.cpp:148] Top shape: 100 96 55 55 (29040000)
I0403 13:41:58.111484 11935 net.cpp:156] Memory required for data: 410316400
I0403 13:41:58.111500 11935 layer_factory.hpp:77] Creating layer pool1
I0403 13:41:58.111523 11935 net.cpp:91] Creating Layer pool1
I0403 13:41:58.111541 11935 net.cpp:425] pool1 <- norm1
I0403 13:41:58.111562 11935 net.cpp:399] pool1 -> pool1
I0403 13:41:58.111634 11935 net.cpp:141] Setting up pool1
I0403 13:41:58.111660 11935 net.cpp:148] Top shape: 100 96 27 27 (6998400)
I0403 13:41:58.111675 11935 net.cpp:156] Memory required for data: 438310000
I0403 13:41:58.111688 11935 layer_factory.hpp:77] Creating layer conv2
I0403 13:41:58.111713 11935 net.cpp:91] Creating Layer conv2
I0403 13:41:58.111731 11935 net.cpp:425] conv2 <- pool1
I0403 13:41:58.111749 11935 net.cpp:399] conv2 -> conv2
I0403 13:41:58.127182 11935 net.cpp:141] Setting up conv2
I0403 13:41:58.127219 11935 net.cpp:148] Top shape: 100 256 27 27 (18662400)
I0403 13:41:58.127236 11935 net.cpp:156] Memory required for data: 512959600
I0403 13:41:58.127259 11935 layer_factory.hpp:77] Creating layer relu2
I0403 13:41:58.127279 11935 net.cpp:91] Creating Layer relu2
I0403 13:41:58.127296 11935 net.cpp:425] relu2 <- conv2
I0403 13:41:58.127315 11935 net.cpp:386] relu2 -> conv2 (in-place)
I0403 13:41:58.127590 11935 net.cpp:141] Setting up relu2
I0403 13:41:58.127621 11935 net.cpp:148] Top shape: 100 256 27 27 (18662400)
I0403 13:41:58.127637 11935 net.cpp:156] Memory required for data: 587609200
I0403 13:41:58.127652 11935 layer_factory.hpp:77] Creating layer norm2
I0403 13:41:58.127672 11935 net.cpp:91] Creating Layer norm2
I0403 13:41:58.127688 11935 net.cpp:425] norm2 <- conv2
I0403 13:41:58.127707 11935 net.cpp:399] norm2 -> norm2
I0403 13:41:58.127889 11935 net.cpp:141] Setting up norm2
I0403 13:41:58.127915 11935 net.cpp:148] Top shape: 100 256 27 27 (18662400)
I0403 13:41:58.127930 11935 net.cpp:156] Memory required for data: 662258800
I0403 13:41:58.127944 11935 layer_factory.hpp:77] Creating layer pool2
I0403 13:41:58.127962 11935 net.cpp:91] Creating Layer pool2
I0403 13:41:58.127979 11935 net.cpp:425] pool2 <- norm2
I0403 13:41:58.128044 11935 net.cpp:399] pool2 -> pool2
I0403 13:41:58.128101 11935 net.cpp:141] Setting up pool2
I0403 13:41:58.128124 11935 net.cpp:148] Top shape: 100 256 13 13 (4326400)
I0403 13:41:58.128139 11935 net.cpp:156] Memory required for data: 679564400
I0403 13:41:58.128154 11935 layer_factory.hpp:77] Creating layer conv3
I0403 13:41:58.128173 11935 net.cpp:91] Creating Layer conv3
I0403 13:41:58.128190 11935 net.cpp:425] conv3 <- pool2
I0403 13:41:58.128208 11935 net.cpp:399] conv3 -> conv3
I0403 13:41:58.170511 11935 net.cpp:141] Setting up conv3
I0403 13:41:58.170584 11935 net.cpp:148] Top shape: 100 384 13 13 (6489600)
I0403 13:41:58.170608 11935 net.cpp:156] Memory required for data: 705522800
I0403 13:41:58.170634 11935 layer_factory.hpp:77] Creating layer relu3
I0403 13:41:58.170656 11935 net.cpp:91] Creating Layer relu3
I0403 13:41:58.170675 11935 net.cpp:425] relu3 <- conv3
I0403 13:41:58.170696 11935 net.cpp:386] relu3 -> conv3 (in-place)
I0403 13:41:58.170990 11935 net.cpp:141] Setting up relu3
I0403 13:41:58.171018 11935 net.cpp:148] Top shape: 100 384 13 13 (6489600)
I0403 13:41:58.171033 11935 net.cpp:156] Memory required for data: 731481200
I0403 13:41:58.171049 11935 layer_factory.hpp:77] Creating layer conv4
I0403 13:41:58.171074 11935 net.cpp:91] Creating Layer conv4
I0403 13:41:58.171092 11935 net.cpp:425] conv4 <- conv3
I0403 13:41:58.171113 11935 net.cpp:399] conv4 -> conv4
I0403 13:41:58.201767 11935 net.cpp:141] Setting up conv4
I0403 13:41:58.201808 11935 net.cpp:148] Top shape: 100 384 13 13 (6489600)
I0403 13:41:58.201869 11935 net.cpp:156] Memory required for data: 757439600
I0403 13:41:58.201890 11935 layer_factory.hpp:77] Creating layer relu4
I0403 13:41:58.201912 11935 net.cpp:91] Creating Layer relu4
I0403 13:41:58.201930 11935 net.cpp:425] relu4 <- conv4
I0403 13:41:58.201951 11935 net.cpp:386] relu4 -> conv4 (in-place)
I0403 13:41:58.202231 11935 net.cpp:141] Setting up relu4
I0403 13:41:58.202260 11935 net.cpp:148] Top shape: 100 384 13 13 (6489600)
I0403 13:41:58.202276 11935 net.cpp:156] Memory required for data: 783398000
I0403 13:41:58.202291 11935 layer_factory.hpp:77] Creating layer conv5
I0403 13:41:58.202317 11935 net.cpp:91] Creating Layer conv5
I0403 13:41:58.202335 11935 net.cpp:425] conv5 <- conv4
I0403 13:41:58.202353 11935 net.cpp:399] conv5 -> conv5
I0403 13:41:58.222769 11935 net.cpp:141] Setting up conv5
I0403 13:41:58.222808 11935 net.cpp:148] Top shape: 100 256 13 13 (4326400)
I0403 13:41:58.222825 11935 net.cpp:156] Memory required for data: 800703600
I0403 13:41:58.222856 11935 layer_factory.hpp:77] Creating layer relu5
I0403 13:41:58.222875 11935 net.cpp:91] Creating Layer relu5
I0403 13:41:58.222892 11935 net.cpp:425] relu5 <- conv5
I0403 13:41:58.222911 11935 net.cpp:386] relu5 -> conv5 (in-place)
I0403 13:41:58.223193 11935 net.cpp:141] Setting up relu5
I0403 13:41:58.223220 11935 net.cpp:148] Top shape: 100 256 13 13 (4326400)
I0403 13:41:58.223235 11935 net.cpp:156] Memory required for data: 818009200
I0403 13:41:58.223250 11935 layer_factory.hpp:77] Creating layer pool5
I0403 13:41:58.223273 11935 net.cpp:91] Creating Layer pool5
I0403 13:41:58.223289 11935 net.cpp:425] pool5 <- conv5
I0403 13:41:58.223310 11935 net.cpp:399] pool5 -> pool5
I0403 13:41:58.223371 11935 net.cpp:141] Setting up pool5
I0403 13:41:58.223394 11935 net.cpp:148] Top shape: 100 256 6 6 (921600)
I0403 13:41:58.223408 11935 net.cpp:156] Memory required for data: 821695600
I0403 13:41:58.223423 11935 layer_factory.hpp:77] Creating layer fc6
I0403 13:41:58.223451 11935 net.cpp:91] Creating Layer fc6
I0403 13:41:58.223469 11935 net.cpp:425] fc6 <- pool5
I0403 13:41:58.223489 11935 net.cpp:399] fc6 -> fc6
I0403 13:41:59.754091 11935 net.cpp:141] Setting up fc6
I0403 13:41:59.754142 11935 net.cpp:148] Top shape: 100 4096 (409600)
I0403 13:41:59.754158 11935 net.cpp:156] Memory required for data: 823334000
I0403 13:41:59.754178 11935 layer_factory.hpp:77] Creating layer relu6
I0403 13:41:59.754204 11935 net.cpp:91] Creating Layer relu6
I0403 13:41:59.754221 11935 net.cpp:425] relu6 <- fc6
I0403 13:41:59.754240 11935 net.cpp:386] relu6 -> fc6 (in-place)
I0403 13:41:59.754456 11935 net.cpp:141] Setting up relu6
I0403 13:41:59.754482 11935 net.cpp:148] Top shape: 100 4096 (409600)
I0403 13:41:59.754495 11935 net.cpp:156] Memory required for data: 824972400
I0403 13:41:59.754509 11935 layer_factory.hpp:77] Creating layer drop6
I0403 13:41:59.754528 11935 net.cpp:91] Creating Layer drop6
I0403 13:41:59.754542 11935 net.cpp:425] drop6 <- fc6
I0403 13:41:59.754560 11935 net.cpp:386] drop6 -> fc6 (in-place)
I0403 13:41:59.754633 11935 net.cpp:141] Setting up drop6
I0403 13:41:59.754662 11935 net.cpp:148] Top shape: 100 4096 (409600)
I0403 13:41:59.754678 11935 net.cpp:156] Memory required for data: 826610800
I0403 13:41:59.754693 11935 layer_factory.hpp:77] Creating layer fc7
I0403 13:41:59.754712 11935 net.cpp:91] Creating Layer fc7
I0403 13:41:59.754727 11935 net.cpp:425] fc7 <- fc6
I0403 13:41:59.754748 11935 net.cpp:399] fc7 -> fc7
I0403 13:42:00.427973 11935 net.cpp:141] Setting up fc7
I0403 13:42:00.428019 11935 net.cpp:148] Top shape: 100 4096 (409600)
I0403 13:42:00.428033 11935 net.cpp:156] Memory required for data: 828249200
I0403 13:42:00.428053 11935 layer_factory.hpp:77] Creating layer relu7
I0403 13:42:00.428073 11935 net.cpp:91] Creating Layer relu7
I0403 13:42:00.428091 11935 net.cpp:425] relu7 <- fc7
I0403 13:42:00.428112 11935 net.cpp:386] relu7 -> fc7 (in-place)
I0403 13:42:00.428503 11935 net.cpp:141] Setting up relu7
I0403 13:42:00.428530 11935 net.cpp:148] Top shape: 100 4096 (409600)
I0403 13:42:00.428570 11935 net.cpp:156] Memory required for data: 829887600
I0403 13:42:00.428585 11935 layer_factory.hpp:77] Creating layer drop7
I0403 13:42:00.428606 11935 net.cpp:91] Creating Layer drop7
I0403 13:42:00.428622 11935 net.cpp:425] drop7 <- fc7
I0403 13:42:00.428642 11935 net.cpp:386] drop7 -> fc7 (in-place)
I0403 13:42:00.428683 11935 net.cpp:141] Setting up drop7
I0403 13:42:00.428704 11935 net.cpp:148] Top shape: 100 4096 (409600)
I0403 13:42:00.428716 11935 net.cpp:156] Memory required for data: 831526000
I0403 13:42:00.428730 11935 layer_factory.hpp:77] Creating layer fc8_plantvillage
I0403 13:42:00.428751 11935 net.cpp:91] Creating Layer fc8_plantvillage
I0403 13:42:00.428766 11935 net.cpp:425] fc8_plantvillage <- fc7
I0403 13:42:00.428786 11935 net.cpp:399] fc8_plantvillage -> fc8_plantvillage
I0403 13:42:00.435292 11935 net.cpp:141] Setting up fc8_plantvillage
I0403 13:42:00.435319 11935 net.cpp:148] Top shape: 100 38 (3800)
I0403 13:42:00.435333 11935 net.cpp:156] Memory required for data: 831541200
I0403 13:42:00.435350 11935 layer_factory.hpp:77] Creating layer fc8_plantvillage_fc8_plantvillage_0_split
I0403 13:42:00.435369 11935 net.cpp:91] Creating Layer fc8_plantvillage_fc8_plantvillage_0_split
I0403 13:42:00.435382 11935 net.cpp:425] fc8_plantvillage_fc8_plantvillage_0_split <- fc8_plantvillage
I0403 13:42:00.435400 11935 net.cpp:399] fc8_plantvillage_fc8_plantvillage_0_split -> fc8_plantvillage_fc8_plantvillage_0_split_0
I0403 13:42:00.435420 11935 net.cpp:399] fc8_plantvillage_fc8_plantvillage_0_split -> fc8_plantvillage_fc8_plantvillage_0_split_1
I0403 13:42:00.435438 11935 net.cpp:399] fc8_plantvillage_fc8_plantvillage_0_split -> fc8_plantvillage_fc8_plantvillage_0_split_2
I0403 13:42:00.435513 11935 net.cpp:141] Setting up fc8_plantvillage_fc8_plantvillage_0_split
I0403 13:42:00.435536 11935 net.cpp:148] Top shape: 100 38 (3800)
I0403 13:42:00.435551 11935 net.cpp:148] Top shape: 100 38 (3800)
I0403 13:42:00.435565 11935 net.cpp:148] Top shape: 100 38 (3800)
I0403 13:42:00.435578 11935 net.cpp:156] Memory required for data: 831586800
I0403 13:42:00.435591 11935 layer_factory.hpp:77] Creating layer prob
I0403 13:42:00.435612 11935 net.cpp:91] Creating Layer prob
I0403 13:42:00.435627 11935 net.cpp:425] prob <- fc8_plantvillage_fc8_plantvillage_0_split_0
I0403 13:42:00.435647 11935 net.cpp:399] prob -> prob
I0403 13:42:00.435865 11935 net.cpp:141] Setting up prob
I0403 13:42:00.435894 11935 net.cpp:148] Top shape: 100 38 (3800)
I0403 13:42:00.435907 11935 net.cpp:156] Memory required for data: 831602000
I0403 13:42:00.435921 11935 layer_factory.hpp:77] Creating layer hdf5out
I0403 13:42:00.435940 11935 net.cpp:91] Creating Layer hdf5out
I0403 13:42:00.435955 11935 net.cpp:425] hdf5out <- prob
I0403 13:42:00.435969 11935 net.cpp:425] hdf5out <- label_data_1_split_0
I0403 13:42:00.438500 11935 net.cpp:141] Setting up hdf5out
…
