…
I0403 13:46:29.074383 12042 net.cpp:313] The NetState phase (1) differed from the phase (0) specified by a rule in layer data
I0403 13:46:29.074702 12042 net.cpp:49] Initializing net from parameters: 
state {
  phase: TEST
}
layer {
  name: "data"
  type: "Data"
  top: "data"
  top: "label"
  include {
    phase: TEST
  }
  transform_param {
    crop_size: 227
    mean_file: "/home/mohanty/data/final_dataset/lmdb/grayscale-60-40/mean.binaryproto"
  }
  data_param {
    source: "/home/mohanty/data/final_dataset/lmdb/grayscale-60-40/test_db"
    batch_size: 100
    backend: LMDB
  }
}
layer {
  name: "conv1"
  type: "Convolution"
  bottom: "data"
  top: "conv1"
  param {
    lr_mult: 1
    decay_mult: 1
  }
  param {
    lr_mult: 2
    decay_mult: 0
  }
  convolution_param {
    num_output: 96
    kernel_size: 11
    stride: 4
    weight_filler {
      type: "gaussian"
      std: 0.01
    }
    bias_filler {
      type: "constant"
      value: 0
    }
  }
}
layer {
  name: "relu1"
  type: "ReLU"
  bottom: "conv1"
  top: "conv1"
}
layer {
  name: "norm1"
  type: "LRN"
  bottom: "conv1"
  top: "norm1"
  lrn_param {
    local_size: 5
    alpha: 0.0001
    beta: 0.75
  }
}
layer {
  name: "pool1"
  type: "Pooling"
  bottom: "norm1"
  top: "pool1"
  pooling_param {
    pool: MAX
    kernel_size: 3
    stride: 2
  }
}
layer {
  name: "conv2"
  type: "Convolution"
  bottom: "pool1"
  top: "conv2"
  param {
    lr_mult: 1
    decay_mult: 1
  }
  param {
    lr_mult: 2
    decay_mult: 0
  }
  convolution_param {
    num_output: 256
    pad: 2
    kernel_size: 5
    group: 2
    weight_filler {
      type: "gaussian"
      std: 0.01
    }
    bias_filler {
      type: "constant"
      value: 0.1
    }
  }
}
layer {
  name: "relu2"
  type: "ReLU"
  bottom: "conv2"
  top: "conv2"
}
layer {
  name: "norm2"
  type: "LRN"
  bottom: "conv2"
  top: "norm2"
  lrn_param {
    local_size: 5
    alpha: 0.0001
    beta: 0.75
  }
}
layer {
  name: "pool2"
  type: "Pooling"
  bottom: "norm2"
  top: "pool2"
  pooling_param {
    pool: MAX
    kernel_size: 3
    stride: 2
  }
}
layer {
  name: "conv3"
  type: "Convolution"
  bottom: "pool2"
  top: "conv3"
  param {
    lr_mult: 1
    decay_mult: 1
  }
  param {
    lr_mult: 2
    decay_mult: 0
  }
  convolution_param {
    num_output: 384
    pad: 1
    kernel_size: 3
    weight_filler {
      type: "gaussian"
      std: 0.01
    }
    bias_filler {
      type: "constant"
      value: 0
    }
  }
}
layer {
  name: "relu3"
  type: "ReLU"
  bottom: "conv3"
  top: "conv3"
}
layer {
  name: "conv4"
  type: "Convolution"
  bottom: "conv3"
  top: "conv4"
  param {
    lr_mult: 1
    decay_mult: 1
  }
  param {
    lr_mult: 2
    decay_mult: 0
  }
  convolution_param {
    num_output: 384
    pad: 1
    kernel_size: 3
    group: 2
    weight_filler {
      type: "gaussian"
      std: 0.01
    }
    bias_filler {
      type: "constant"
      value: 0.1
    }
  }
}
layer {
  name: "relu4"
  type: "ReLU"
  bottom: "conv4"
  top: "conv4"
}
layer {
  name: "conv5"
  type: "Convolution"
  bottom: "conv4"
  top: "conv5"
  param {
    lr_mult: 1
    decay_mult: 1
  }
  param {
    lr_mult: 2
    decay_mult: 0
  }
  convolution_param {
    num_output: 256
    pad: 1
    kernel_size: 3
    group: 2
    weight_filler {
      type: "gaussian"
      std: 0.01
    }
    bias_filler {
      type: "constant"
      value: 0.1
    }
  }
}
layer {
  name: "relu5"
  type: "ReLU"
  bottom: "conv5"
  top: "conv5"
}
layer {
  name: "pool5"
  type: "Pooling"
  bottom: "conv5"
  top: "pool5"
  pooling_param {
    pool: MAX
    kernel_size: 3
    stride: 2
  }
}
layer {
  name: "fc6"
  type: "InnerProduct"
  bottom: "pool5"
  top: "fc6"
  param {
    lr_mult: 1
    decay_mult: 1
  }
  param {
    lr_mult: 2
    decay_mult: 0
  }
  inner_product_param {
    num_output: 4096
    weight_filler {
      type: "gaussian"
      std: 0.005
    }
    bias_filler {
      type: "constant"
      value: 0.1
    }
  }
}
layer {
  name: "relu6"
  type: "ReLU"
  bottom: "fc6"
  top: "fc6"
}
layer {
  name: "drop6"
  type: "Dropout"
  bottom: "fc6"
  top: "fc6"
  dropout_param {
    dropout_ratio: 0.5
  }
}
layer {
  name: "fc7"
  type: "InnerProduct"
  bottom: "fc6"
  top: "fc7"
  param {
    lr_mult: 1
    decay_mult: 1
  }
  param {
    lr_mult: 2
    decay_mult: 0
  }
  inner_product_param {
    num_output: 4096
    weight_filler {
      type: "gaussian"
      std: 0.005
    }
    bias_filler {
      type: "constant"
      value: 0.1
    }
  }
}
layer {
  name: "relu7"
  type: "ReLU"
  bottom: "fc7"
  top: "fc7"
}
layer {
  name: "drop7"
  type: "Dropout"
  bottom: "fc7"
  top: "fc7"
  dropout_param {
    dropout_ratio: 0.5
  }
}
layer {
  name: "fc8_plantvillage"
  type: "InnerProduct"
  bottom: "fc7"
  top: "fc8_plantvillage"
  param {
    lr_mult: 1
    decay_mult: 1
  }
  param {
    lr_mult: 2
    decay_mult: 0
  }
  inner_product_param {
    num_output: 38
    weight_filler {
      type: "gaussian"
      std: 0.01
    }
    bias_filler {
      type: "constant"
      value: 0
    }
  }
}
layer {
  name: "prob"
  type: "Softmax"
  bottom: "fc8_plantvillage"
  top: "prob"
  include {
    phase: TEST
  }
}
layer {
  name: "hdf5out"
  type: "HDF5Output"
  bottom: "prob"
  bottom: "label"
  include {
    phase: TEST
  }
  hdf5_output_param {
    file_name: "hdf5_dumps/iter_4550.h5"
  }
}
layer {
  name: "loss"
  type: "SoftmaxWithLoss"
  bottom: "fc8_plantvillage"
  bottom: "label"
  top: "loss"
}
layer {
  name: "accuracy"
  type: "Accuracy"
  bottom: "fc8_plantvillage"
  bottom: "label"
  top: "accuracy"
  include {
    phase: TEST
  }
}
I0403 13:46:29.075261 12042 layer_factory.hpp:77] Creating layer data
I0403 13:46:29.076304 12042 net.cpp:91] Creating Layer data
I0403 13:46:29.076336 12042 net.cpp:399] data -> data
I0403 13:46:29.076390 12042 net.cpp:399] data -> label
I0403 13:46:29.076426 12042 data_transformer.cpp:25] Loading mean file from: /home/mohanty/data/final_dataset/lmdb/grayscale-60-40/mean.binaryproto
I0403 13:46:29.079285 12045 db_lmdb.cpp:38] Opened lmdb /home/mohanty/data/final_dataset/lmdb/grayscale-60-40/test_db
I0403 13:46:29.090926 12042 data_layer.cpp:41] output data size: 100,3,227,227
I0403 13:46:29.215517 12042 net.cpp:141] Setting up data
I0403 13:46:29.215580 12042 net.cpp:148] Top shape: 100 3 227 227 (15458700)
I0403 13:46:29.215605 12042 net.cpp:148] Top shape: 100 (100)
I0403 13:46:29.215620 12042 net.cpp:156] Memory required for data: 61835200
I0403 13:46:29.215648 12042 layer_factory.hpp:77] Creating layer label_data_1_split
I0403 13:46:29.215673 12042 net.cpp:91] Creating Layer label_data_1_split
I0403 13:46:29.215692 12042 net.cpp:425] label_data_1_split <- label
I0403 13:46:29.215724 12042 net.cpp:399] label_data_1_split -> label_data_1_split_0
I0403 13:46:29.215752 12042 net.cpp:399] label_data_1_split -> label_data_1_split_1
I0403 13:46:29.215772 12042 net.cpp:399] label_data_1_split -> label_data_1_split_2
I0403 13:46:29.215837 12042 net.cpp:141] Setting up label_data_1_split
I0403 13:46:29.215859 12042 net.cpp:148] Top shape: 100 (100)
I0403 13:46:29.215876 12042 net.cpp:148] Top shape: 100 (100)
I0403 13:46:29.215893 12042 net.cpp:148] Top shape: 100 (100)
I0403 13:46:29.215908 12042 net.cpp:156] Memory required for data: 61836400
I0403 13:46:29.215924 12042 layer_factory.hpp:77] Creating layer conv1
I0403 13:46:29.215955 12042 net.cpp:91] Creating Layer conv1
I0403 13:46:29.215975 12042 net.cpp:425] conv1 <- data
I0403 13:46:29.215994 12042 net.cpp:399] conv1 -> conv1
I0403 13:46:29.358762 12042 net.cpp:141] Setting up conv1
I0403 13:46:29.358837 12042 net.cpp:148] Top shape: 100 96 55 55 (29040000)
I0403 13:46:29.358855 12042 net.cpp:156] Memory required for data: 177996400
I0403 13:46:29.358885 12042 layer_factory.hpp:77] Creating layer relu1
I0403 13:46:29.358911 12042 net.cpp:91] Creating Layer relu1
I0403 13:46:29.358928 12042 net.cpp:425] relu1 <- conv1
I0403 13:46:29.358948 12042 net.cpp:386] relu1 -> conv1 (in-place)
I0403 13:46:29.359244 12042 net.cpp:141] Setting up relu1
I0403 13:46:29.359273 12042 net.cpp:148] Top shape: 100 96 55 55 (29040000)
I0403 13:46:29.359321 12042 net.cpp:156] Memory required for data: 294156400
I0403 13:46:29.359338 12042 layer_factory.hpp:77] Creating layer norm1
I0403 13:46:29.359364 12042 net.cpp:91] Creating Layer norm1
I0403 13:46:29.359382 12042 net.cpp:425] norm1 <- conv1
I0403 13:46:29.359400 12042 net.cpp:399] norm1 -> norm1
I0403 13:46:29.359715 12042 net.cpp:141] Setting up norm1
I0403 13:46:29.359743 12042 net.cpp:148] Top shape: 100 96 55 55 (29040000)
I0403 13:46:29.359758 12042 net.cpp:156] Memory required for data: 410316400
I0403 13:46:29.359773 12042 layer_factory.hpp:77] Creating layer pool1
I0403 13:46:29.359796 12042 net.cpp:91] Creating Layer pool1
I0403 13:46:29.359812 12042 net.cpp:425] pool1 <- norm1
I0403 13:46:29.359830 12042 net.cpp:399] pool1 -> pool1
I0403 13:46:29.359895 12042 net.cpp:141] Setting up pool1
I0403 13:46:29.359920 12042 net.cpp:148] Top shape: 100 96 27 27 (6998400)
I0403 13:46:29.359933 12042 net.cpp:156] Memory required for data: 438310000
I0403 13:46:29.359948 12042 layer_factory.hpp:77] Creating layer conv2
I0403 13:46:29.359972 12042 net.cpp:91] Creating Layer conv2
I0403 13:46:29.359988 12042 net.cpp:425] conv2 <- pool1
I0403 13:46:29.360009 12042 net.cpp:399] conv2 -> conv2
I0403 13:46:29.375291 12042 net.cpp:141] Setting up conv2
I0403 13:46:29.375327 12042 net.cpp:148] Top shape: 100 256 27 27 (18662400)
I0403 13:46:29.375344 12042 net.cpp:156] Memory required for data: 512959600
I0403 13:46:29.375365 12042 layer_factory.hpp:77] Creating layer relu2
I0403 13:46:29.375383 12042 net.cpp:91] Creating Layer relu2
I0403 13:46:29.375399 12042 net.cpp:425] relu2 <- conv2
I0403 13:46:29.375416 12042 net.cpp:386] relu2 -> conv2 (in-place)
I0403 13:46:29.375699 12042 net.cpp:141] Setting up relu2
I0403 13:46:29.375725 12042 net.cpp:148] Top shape: 100 256 27 27 (18662400)
I0403 13:46:29.375741 12042 net.cpp:156] Memory required for data: 587609200
I0403 13:46:29.375756 12042 layer_factory.hpp:77] Creating layer norm2
I0403 13:46:29.375804 12042 net.cpp:91] Creating Layer norm2
I0403 13:46:29.375828 12042 net.cpp:425] norm2 <- conv2
I0403 13:46:29.375846 12042 net.cpp:399] norm2 -> norm2
I0403 13:46:29.376044 12042 net.cpp:141] Setting up norm2
I0403 13:46:29.376071 12042 net.cpp:148] Top shape: 100 256 27 27 (18662400)
I0403 13:46:29.376087 12042 net.cpp:156] Memory required for data: 662258800
I0403 13:46:29.376101 12042 layer_factory.hpp:77] Creating layer pool2
I0403 13:46:29.376118 12042 net.cpp:91] Creating Layer pool2
I0403 13:46:29.376134 12042 net.cpp:425] pool2 <- norm2
I0403 13:46:29.376152 12042 net.cpp:399] pool2 -> pool2
I0403 13:46:29.376202 12042 net.cpp:141] Setting up pool2
I0403 13:46:29.376224 12042 net.cpp:148] Top shape: 100 256 13 13 (4326400)
I0403 13:46:29.376238 12042 net.cpp:156] Memory required for data: 679564400
I0403 13:46:29.376252 12042 layer_factory.hpp:77] Creating layer conv3
I0403 13:46:29.376277 12042 net.cpp:91] Creating Layer conv3
I0403 13:46:29.376293 12042 net.cpp:425] conv3 <- pool2
I0403 13:46:29.376313 12042 net.cpp:399] conv3 -> conv3
I0403 13:46:29.416414 12042 net.cpp:141] Setting up conv3
I0403 13:46:29.416487 12042 net.cpp:148] Top shape: 100 384 13 13 (6489600)
I0403 13:46:29.416506 12042 net.cpp:156] Memory required for data: 705522800
I0403 13:46:29.416532 12042 layer_factory.hpp:77] Creating layer relu3
I0403 13:46:29.416554 12042 net.cpp:91] Creating Layer relu3
I0403 13:46:29.416575 12042 net.cpp:425] relu3 <- conv3
I0403 13:46:29.416599 12042 net.cpp:386] relu3 -> conv3 (in-place)
I0403 13:46:29.416877 12042 net.cpp:141] Setting up relu3
I0403 13:46:29.416906 12042 net.cpp:148] Top shape: 100 384 13 13 (6489600)
I0403 13:46:29.416924 12042 net.cpp:156] Memory required for data: 731481200
I0403 13:46:29.416940 12042 layer_factory.hpp:77] Creating layer conv4
I0403 13:46:29.416967 12042 net.cpp:91] Creating Layer conv4
I0403 13:46:29.416985 12042 net.cpp:425] conv4 <- conv3
I0403 13:46:29.417003 12042 net.cpp:399] conv4 -> conv4
I0403 13:46:29.447093 12042 net.cpp:141] Setting up conv4
I0403 13:46:29.447141 12042 net.cpp:148] Top shape: 100 384 13 13 (6489600)
I0403 13:46:29.447190 12042 net.cpp:156] Memory required for data: 757439600
I0403 13:46:29.447212 12042 layer_factory.hpp:77] Creating layer relu4
I0403 13:46:29.447284 12042 net.cpp:91] Creating Layer relu4
I0403 13:46:29.447307 12042 net.cpp:425] relu4 <- conv4
I0403 13:46:29.447326 12042 net.cpp:386] relu4 -> conv4 (in-place)
I0403 13:46:29.447614 12042 net.cpp:141] Setting up relu4
I0403 13:46:29.447640 12042 net.cpp:148] Top shape: 100 384 13 13 (6489600)
I0403 13:46:29.447655 12042 net.cpp:156] Memory required for data: 783398000
I0403 13:46:29.447670 12042 layer_factory.hpp:77] Creating layer conv5
I0403 13:46:29.447695 12042 net.cpp:91] Creating Layer conv5
I0403 13:46:29.447712 12042 net.cpp:425] conv5 <- conv4
I0403 13:46:29.447731 12042 net.cpp:399] conv5 -> conv5
I0403 13:46:29.468389 12042 net.cpp:141] Setting up conv5
I0403 13:46:29.468425 12042 net.cpp:148] Top shape: 100 256 13 13 (4326400)
I0403 13:46:29.468443 12042 net.cpp:156] Memory required for data: 800703600
I0403 13:46:29.468467 12042 layer_factory.hpp:77] Creating layer relu5
I0403 13:46:29.468487 12042 net.cpp:91] Creating Layer relu5
I0403 13:46:29.468503 12042 net.cpp:425] relu5 <- conv5
I0403 13:46:29.468520 12042 net.cpp:386] relu5 -> conv5 (in-place)
I0403 13:46:29.468806 12042 net.cpp:141] Setting up relu5
I0403 13:46:29.468833 12042 net.cpp:148] Top shape: 100 256 13 13 (4326400)
I0403 13:46:29.468848 12042 net.cpp:156] Memory required for data: 818009200
I0403 13:46:29.468864 12042 layer_factory.hpp:77] Creating layer pool5
I0403 13:46:29.468886 12042 net.cpp:91] Creating Layer pool5
I0403 13:46:29.468904 12042 net.cpp:425] pool5 <- conv5
I0403 13:46:29.468924 12042 net.cpp:399] pool5 -> pool5
I0403 13:46:29.468986 12042 net.cpp:141] Setting up pool5
I0403 13:46:29.469009 12042 net.cpp:148] Top shape: 100 256 6 6 (921600)
I0403 13:46:29.469024 12042 net.cpp:156] Memory required for data: 821695600
I0403 13:46:29.469038 12042 layer_factory.hpp:77] Creating layer fc6
I0403 13:46:29.469069 12042 net.cpp:91] Creating Layer fc6
I0403 13:46:29.469087 12042 net.cpp:425] fc6 <- pool5
I0403 13:46:29.469107 12042 net.cpp:399] fc6 -> fc6
I0403 13:46:31.011345 12042 net.cpp:141] Setting up fc6
I0403 13:46:31.011387 12042 net.cpp:148] Top shape: 100 4096 (409600)
I0403 13:46:31.011404 12042 net.cpp:156] Memory required for data: 823334000
I0403 13:46:31.011425 12042 layer_factory.hpp:77] Creating layer relu6
I0403 13:46:31.011448 12042 net.cpp:91] Creating Layer relu6
I0403 13:46:31.011467 12042 net.cpp:425] relu6 <- fc6
I0403 13:46:31.011487 12042 net.cpp:386] relu6 -> fc6 (in-place)
I0403 13:46:31.011709 12042 net.cpp:141] Setting up relu6
I0403 13:46:31.011737 12042 net.cpp:148] Top shape: 100 4096 (409600)
I0403 13:46:31.011754 12042 net.cpp:156] Memory required for data: 824972400
I0403 13:46:31.011770 12042 layer_factory.hpp:77] Creating layer drop6
I0403 13:46:31.011788 12042 net.cpp:91] Creating Layer drop6
I0403 13:46:31.011803 12042 net.cpp:425] drop6 <- fc6
I0403 13:46:31.011821 12042 net.cpp:386] drop6 -> fc6 (in-place)
I0403 13:46:31.011874 12042 net.cpp:141] Setting up drop6
I0403 13:46:31.011898 12042 net.cpp:148] Top shape: 100 4096 (409600)
I0403 13:46:31.011914 12042 net.cpp:156] Memory required for data: 826610800
I0403 13:46:31.011929 12042 layer_factory.hpp:77] Creating layer fc7
I0403 13:46:31.011951 12042 net.cpp:91] Creating Layer fc7
I0403 13:46:31.011968 12042 net.cpp:425] fc7 <- fc6
I0403 13:46:31.011986 12042 net.cpp:399] fc7 -> fc7
I0403 13:46:31.689909 12042 net.cpp:141] Setting up fc7
I0403 13:46:31.689976 12042 net.cpp:148] Top shape: 100 4096 (409600)
I0403 13:46:31.689992 12042 net.cpp:156] Memory required for data: 828249200
I0403 13:46:31.690012 12042 layer_factory.hpp:77] Creating layer relu7
I0403 13:46:31.690037 12042 net.cpp:91] Creating Layer relu7
I0403 13:46:31.690054 12042 net.cpp:425] relu7 <- fc7
I0403 13:46:31.690074 12042 net.cpp:386] relu7 -> fc7 (in-place)
I0403 13:46:31.690459 12042 net.cpp:141] Setting up relu7
I0403 13:46:31.690486 12042 net.cpp:148] Top shape: 100 4096 (409600)
I0403 13:46:31.690533 12042 net.cpp:156] Memory required for data: 829887600
I0403 13:46:31.690549 12042 layer_factory.hpp:77] Creating layer drop7
I0403 13:46:31.690572 12042 net.cpp:91] Creating Layer drop7
I0403 13:46:31.690588 12042 net.cpp:425] drop7 <- fc7
I0403 13:46:31.690608 12042 net.cpp:386] drop7 -> fc7 (in-place)
I0403 13:46:31.690649 12042 net.cpp:141] Setting up drop7
I0403 13:46:31.690671 12042 net.cpp:148] Top shape: 100 4096 (409600)
I0403 13:46:31.690685 12042 net.cpp:156] Memory required for data: 831526000
I0403 13:46:31.690699 12042 layer_factory.hpp:77] Creating layer fc8_plantvillage
I0403 13:46:31.690721 12042 net.cpp:91] Creating Layer fc8_plantvillage
I0403 13:46:31.690737 12042 net.cpp:425] fc8_plantvillage <- fc7
I0403 13:46:31.690757 12042 net.cpp:399] fc8_plantvillage -> fc8_plantvillage
I0403 13:46:31.697278 12042 net.cpp:141] Setting up fc8_plantvillage
I0403 13:46:31.697305 12042 net.cpp:148] Top shape: 100 38 (3800)
I0403 13:46:31.697320 12042 net.cpp:156] Memory required for data: 831541200
I0403 13:46:31.697338 12042 layer_factory.hpp:77] Creating layer fc8_plantvillage_fc8_plantvillage_0_split
I0403 13:46:31.697356 12042 net.cpp:91] Creating Layer fc8_plantvillage_fc8_plantvillage_0_split
I0403 13:46:31.697371 12042 net.cpp:425] fc8_plantvillage_fc8_plantvillage_0_split <- fc8_plantvillage
I0403 13:46:31.697391 12042 net.cpp:399] fc8_plantvillage_fc8_plantvillage_0_split -> fc8_plantvillage_fc8_plantvillage_0_split_0
I0403 13:46:31.697410 12042 net.cpp:399] fc8_plantvillage_fc8_plantvillage_0_split -> fc8_plantvillage_fc8_plantvillage_0_split_1
I0403 13:46:31.697429 12042 net.cpp:399] fc8_plantvillage_fc8_plantvillage_0_split -> fc8_plantvillage_fc8_plantvillage_0_split_2
I0403 13:46:31.697505 12042 net.cpp:141] Setting up fc8_plantvillage_fc8_plantvillage_0_split
I0403 13:46:31.697528 12042 net.cpp:148] Top shape: 100 38 (3800)
I0403 13:46:31.697543 12042 net.cpp:148] Top shape: 100 38 (3800)
I0403 13:46:31.697558 12042 net.cpp:148] Top shape: 100 38 (3800)
I0403 13:46:31.697576 12042 net.cpp:156] Memory required for data: 831586800
I0403 13:46:31.697590 12042 layer_factory.hpp:77] Creating layer prob
I0403 13:46:31.697608 12042 net.cpp:91] Creating Layer prob
I0403 13:46:31.697623 12042 net.cpp:425] prob <- fc8_plantvillage_fc8_plantvillage_0_split_0
I0403 13:46:31.697639 12042 net.cpp:399] prob -> prob
I0403 13:46:31.697855 12042 net.cpp:141] Setting up prob
I0403 13:46:31.697883 12042 net.cpp:148] Top shape: 100 38 (3800)
I0403 13:46:31.697898 12042 net.cpp:156] Memory required for data: 831602000
I0403 13:46:31.697913 12042 layer_factory.hpp:77] Creating layer hdf5out
I0403 13:46:31.697932 12042 net.cpp:91] Creating Layer hdf5out
I0403 13:46:31.697947 12042 net.cpp:425] hdf5out <- prob
I0403 13:46:31.697962 12042 net.cpp:425] hdf5out <- label_data_1_split_0
I0403 13:46:31.701472 12042 net.cpp:141] Setting up hdf5out
…
