…
I0403 13:38:12.154657 11847 net.cpp:313] The NetState phase (1) differed from the phase (0) specified by a rule in layer data
I0403 13:38:12.154960 11847 net.cpp:49] Initializing net from parameters: 
state {
  phase: TEST
}
layer {
  name: "data"
  type: "Data"
  top: "data"
  top: "label"
  include {
    phase: TEST
  }
  transform_param {
    crop_size: 227
    mean_file: "/home/mohanty/data/final_dataset/lmdb/grayscale-60-40/mean.binaryproto"
  }
  data_param {
    source: "/home/mohanty/data/final_dataset/lmdb/grayscale-60-40/test_db"
    batch_size: 100
    backend: LMDB
  }
}
layer {
  name: "conv1"
  type: "Convolution"
  bottom: "data"
  top: "conv1"
  param {
    lr_mult: 1
    decay_mult: 1
  }
  param {
    lr_mult: 2
    decay_mult: 0
  }
  convolution_param {
    num_output: 96
    kernel_size: 11
    stride: 4
    weight_filler {
      type: "gaussian"
      std: 0.01
    }
    bias_filler {
      type: "constant"
      value: 0
    }
  }
}
layer {
  name: "relu1"
  type: "ReLU"
  bottom: "conv1"
  top: "conv1"
}
layer {
  name: "norm1"
  type: "LRN"
  bottom: "conv1"
  top: "norm1"
  lrn_param {
    local_size: 5
    alpha: 0.0001
    beta: 0.75
  }
}
layer {
  name: "pool1"
  type: "Pooling"
  bottom: "norm1"
  top: "pool1"
  pooling_param {
    pool: MAX
    kernel_size: 3
    stride: 2
  }
}
layer {
  name: "conv2"
  type: "Convolution"
  bottom: "pool1"
  top: "conv2"
  param {
    lr_mult: 1
    decay_mult: 1
  }
  param {
    lr_mult: 2
    decay_mult: 0
  }
  convolution_param {
    num_output: 256
    pad: 2
    kernel_size: 5
    group: 2
    weight_filler {
      type: "gaussian"
      std: 0.01
    }
    bias_filler {
      type: "constant"
      value: 0.1
    }
  }
}
layer {
  name: "relu2"
  type: "ReLU"
  bottom: "conv2"
  top: "conv2"
}
layer {
  name: "norm2"
  type: "LRN"
  bottom: "conv2"
  top: "norm2"
  lrn_param {
    local_size: 5
    alpha: 0.0001
    beta: 0.75
  }
}
layer {
  name: "pool2"
  type: "Pooling"
  bottom: "norm2"
  top: "pool2"
  pooling_param {
    pool: MAX
    kernel_size: 3
    stride: 2
  }
}
layer {
  name: "conv3"
  type: "Convolution"
  bottom: "pool2"
  top: "conv3"
  param {
    lr_mult: 1
    decay_mult: 1
  }
  param {
    lr_mult: 2
    decay_mult: 0
  }
  convolution_param {
    num_output: 384
    pad: 1
    kernel_size: 3
    weight_filler {
      type: "gaussian"
      std: 0.01
    }
    bias_filler {
      type: "constant"
      value: 0
    }
  }
}
layer {
  name: "relu3"
  type: "ReLU"
  bottom: "conv3"
  top: "conv3"
}
layer {
  name: "conv4"
  type: "Convolution"
  bottom: "conv3"
  top: "conv4"
  param {
    lr_mult: 1
    decay_mult: 1
  }
  param {
    lr_mult: 2
    decay_mult: 0
  }
  convolution_param {
    num_output: 384
    pad: 1
    kernel_size: 3
    group: 2
    weight_filler {
      type: "gaussian"
      std: 0.01
    }
    bias_filler {
      type: "constant"
      value: 0.1
    }
  }
}
layer {
  name: "relu4"
  type: "ReLU"
  bottom: "conv4"
  top: "conv4"
}
layer {
  name: "conv5"
  type: "Convolution"
  bottom: "conv4"
  top: "conv5"
  param {
    lr_mult: 1
    decay_mult: 1
  }
  param {
    lr_mult: 2
    decay_mult: 0
  }
  convolution_param {
    num_output: 256
    pad: 1
    kernel_size: 3
    group: 2
    weight_filler {
      type: "gaussian"
      std: 0.01
    }
    bias_filler {
      type: "constant"
      value: 0.1
    }
  }
}
layer {
  name: "relu5"
  type: "ReLU"
  bottom: "conv5"
  top: "conv5"
}
layer {
  name: "pool5"
  type: "Pooling"
  bottom: "conv5"
  top: "pool5"
  pooling_param {
    pool: MAX
    kernel_size: 3
    stride: 2
  }
}
layer {
  name: "fc6"
  type: "InnerProduct"
  bottom: "pool5"
  top: "fc6"
  param {
    lr_mult: 1
    decay_mult: 1
  }
  param {
    lr_mult: 2
    decay_mult: 0
  }
  inner_product_param {
    num_output: 4096
    weight_filler {
      type: "gaussian"
      std: 0.005
    }
    bias_filler {
      type: "constant"
      value: 0.1
    }
  }
}
layer {
  name: "relu6"
  type: "ReLU"
  bottom: "fc6"
  top: "fc6"
}
layer {
  name: "drop6"
  type: "Dropout"
  bottom: "fc6"
  top: "fc6"
  dropout_param {
    dropout_ratio: 0.5
  }
}
layer {
  name: "fc7"
  type: "InnerProduct"
  bottom: "fc6"
  top: "fc7"
  param {
    lr_mult: 1
    decay_mult: 1
  }
  param {
    lr_mult: 2
    decay_mult: 0
  }
  inner_product_param {
    num_output: 4096
    weight_filler {
      type: "gaussian"
      std: 0.005
    }
    bias_filler {
      type: "constant"
      value: 0.1
    }
  }
}
layer {
  name: "relu7"
  type: "ReLU"
  bottom: "fc7"
  top: "fc7"
}
layer {
  name: "drop7"
  type: "Dropout"
  bottom: "fc7"
  top: "fc7"
  dropout_param {
    dropout_ratio: 0.5
  }
}
layer {
  name: "fc8_plantvillage"
  type: "InnerProduct"
  bottom: "fc7"
  top: "fc8_plantvillage"
  param {
    lr_mult: 1
    decay_mult: 1
  }
  param {
    lr_mult: 2
    decay_mult: 0
  }
  inner_product_param {
    num_output: 38
    weight_filler {
      type: "gaussian"
      std: 0.01
    }
    bias_filler {
      type: "constant"
      value: 0
    }
  }
}
layer {
  name: "prob"
  type: "Softmax"
  bottom: "fc8_plantvillage"
  top: "prob"
  include {
    phase: TEST
  }
}
layer {
  name: "hdf5out"
  type: "HDF5Output"
  bottom: "prob"
  bottom: "label"
  include {
    phase: TEST
  }
  hdf5_output_param {
    file_name: "hdf5_dumps/iter_975.h5"
  }
}
layer {
  name: "loss"
  type: "SoftmaxWithLoss"
  bottom: "fc8_plantvillage"
  bottom: "label"
  top: "loss"
}
layer {
  name: "accuracy"
  type: "Accuracy"
  bottom: "fc8_plantvillage"
  bottom: "label"
  top: "accuracy"
  include {
    phase: TEST
  }
}
I0403 13:38:12.155558 11847 layer_factory.hpp:77] Creating layer data
I0403 13:38:12.156208 11847 net.cpp:91] Creating Layer data
I0403 13:38:12.156241 11847 net.cpp:399] data -> data
I0403 13:38:12.156292 11847 net.cpp:399] data -> label
I0403 13:38:12.156328 11847 data_transformer.cpp:25] Loading mean file from: /home/mohanty/data/final_dataset/lmdb/grayscale-60-40/mean.binaryproto
I0403 13:38:12.159209 11851 db_lmdb.cpp:38] Opened lmdb /home/mohanty/data/final_dataset/lmdb/grayscale-60-40/test_db
I0403 13:38:12.170964 11847 data_layer.cpp:41] output data size: 100,3,227,227
I0403 13:38:12.291733 11847 net.cpp:141] Setting up data
I0403 13:38:12.291791 11847 net.cpp:148] Top shape: 100 3 227 227 (15458700)
I0403 13:38:12.291813 11847 net.cpp:148] Top shape: 100 (100)
I0403 13:38:12.291828 11847 net.cpp:156] Memory required for data: 61835200
I0403 13:38:12.291864 11847 layer_factory.hpp:77] Creating layer label_data_1_split
I0403 13:38:12.291889 11847 net.cpp:91] Creating Layer label_data_1_split
I0403 13:38:12.291908 11847 net.cpp:425] label_data_1_split <- label
I0403 13:38:12.291939 11847 net.cpp:399] label_data_1_split -> label_data_1_split_0
I0403 13:38:12.291965 11847 net.cpp:399] label_data_1_split -> label_data_1_split_1
I0403 13:38:12.291985 11847 net.cpp:399] label_data_1_split -> label_data_1_split_2
I0403 13:38:12.292049 11847 net.cpp:141] Setting up label_data_1_split
I0403 13:38:12.292073 11847 net.cpp:148] Top shape: 100 (100)
I0403 13:38:12.292088 11847 net.cpp:148] Top shape: 100 (100)
I0403 13:38:12.292104 11847 net.cpp:148] Top shape: 100 (100)
I0403 13:38:12.292119 11847 net.cpp:156] Memory required for data: 61836400
I0403 13:38:12.292132 11847 layer_factory.hpp:77] Creating layer conv1
I0403 13:38:12.292163 11847 net.cpp:91] Creating Layer conv1
I0403 13:38:12.292181 11847 net.cpp:425] conv1 <- data
I0403 13:38:12.292201 11847 net.cpp:399] conv1 -> conv1
I0403 13:38:12.432595 11847 net.cpp:141] Setting up conv1
I0403 13:38:12.432674 11847 net.cpp:148] Top shape: 100 96 55 55 (29040000)
I0403 13:38:12.432693 11847 net.cpp:156] Memory required for data: 177996400
I0403 13:38:12.432723 11847 layer_factory.hpp:77] Creating layer relu1
I0403 13:38:12.432751 11847 net.cpp:91] Creating Layer relu1
I0403 13:38:12.432770 11847 net.cpp:425] relu1 <- conv1
I0403 13:38:12.432788 11847 net.cpp:386] relu1 -> conv1 (in-place)
I0403 13:38:12.433053 11847 net.cpp:141] Setting up relu1
I0403 13:38:12.433084 11847 net.cpp:148] Top shape: 100 96 55 55 (29040000)
I0403 13:38:12.433132 11847 net.cpp:156] Memory required for data: 294156400
I0403 13:38:12.433148 11847 layer_factory.hpp:77] Creating layer norm1
I0403 13:38:12.433178 11847 net.cpp:91] Creating Layer norm1
I0403 13:38:12.433197 11847 net.cpp:425] norm1 <- conv1
I0403 13:38:12.433215 11847 net.cpp:399] norm1 -> norm1
I0403 13:38:12.433537 11847 net.cpp:141] Setting up norm1
I0403 13:38:12.433565 11847 net.cpp:148] Top shape: 100 96 55 55 (29040000)
I0403 13:38:12.433581 11847 net.cpp:156] Memory required for data: 410316400
I0403 13:38:12.433596 11847 layer_factory.hpp:77] Creating layer pool1
I0403 13:38:12.433627 11847 net.cpp:91] Creating Layer pool1
I0403 13:38:12.433646 11847 net.cpp:425] pool1 <- norm1
I0403 13:38:12.433663 11847 net.cpp:399] pool1 -> pool1
I0403 13:38:12.433737 11847 net.cpp:141] Setting up pool1
I0403 13:38:12.433760 11847 net.cpp:148] Top shape: 100 96 27 27 (6998400)
I0403 13:38:12.433775 11847 net.cpp:156] Memory required for data: 438310000
I0403 13:38:12.433790 11847 layer_factory.hpp:77] Creating layer conv2
I0403 13:38:12.433816 11847 net.cpp:91] Creating Layer conv2
I0403 13:38:12.433835 11847 net.cpp:425] conv2 <- pool1
I0403 13:38:12.433854 11847 net.cpp:399] conv2 -> conv2
I0403 13:38:12.449102 11847 net.cpp:141] Setting up conv2
I0403 13:38:12.449141 11847 net.cpp:148] Top shape: 100 256 27 27 (18662400)
I0403 13:38:12.449157 11847 net.cpp:156] Memory required for data: 512959600
I0403 13:38:12.449179 11847 layer_factory.hpp:77] Creating layer relu2
I0403 13:38:12.449201 11847 net.cpp:91] Creating Layer relu2
I0403 13:38:12.449218 11847 net.cpp:425] relu2 <- conv2
I0403 13:38:12.449235 11847 net.cpp:386] relu2 -> conv2 (in-place)
I0403 13:38:12.449509 11847 net.cpp:141] Setting up relu2
I0403 13:38:12.449535 11847 net.cpp:148] Top shape: 100 256 27 27 (18662400)
I0403 13:38:12.449558 11847 net.cpp:156] Memory required for data: 587609200
I0403 13:38:12.449573 11847 layer_factory.hpp:77] Creating layer norm2
I0403 13:38:12.449595 11847 net.cpp:91] Creating Layer norm2
I0403 13:38:12.449616 11847 net.cpp:425] norm2 <- conv2
I0403 13:38:12.449636 11847 net.cpp:399] norm2 -> norm2
I0403 13:38:12.449841 11847 net.cpp:141] Setting up norm2
I0403 13:38:12.449868 11847 net.cpp:148] Top shape: 100 256 27 27 (18662400)
I0403 13:38:12.449923 11847 net.cpp:156] Memory required for data: 662258800
I0403 13:38:12.449941 11847 layer_factory.hpp:77] Creating layer pool2
I0403 13:38:12.449959 11847 net.cpp:91] Creating Layer pool2
I0403 13:38:12.449975 11847 net.cpp:425] pool2 <- norm2
I0403 13:38:12.449993 11847 net.cpp:399] pool2 -> pool2
I0403 13:38:12.450047 11847 net.cpp:141] Setting up pool2
I0403 13:38:12.450068 11847 net.cpp:148] Top shape: 100 256 13 13 (4326400)
I0403 13:38:12.450083 11847 net.cpp:156] Memory required for data: 679564400
I0403 13:38:12.450095 11847 layer_factory.hpp:77] Creating layer conv3
I0403 13:38:12.450119 11847 net.cpp:91] Creating Layer conv3
I0403 13:38:12.450136 11847 net.cpp:425] conv3 <- pool2
I0403 13:38:12.450153 11847 net.cpp:399] conv3 -> conv3
I0403 13:38:12.491564 11847 net.cpp:141] Setting up conv3
I0403 13:38:12.491631 11847 net.cpp:148] Top shape: 100 384 13 13 (6489600)
I0403 13:38:12.491648 11847 net.cpp:156] Memory required for data: 705522800
I0403 13:38:12.491672 11847 layer_factory.hpp:77] Creating layer relu3
I0403 13:38:12.491694 11847 net.cpp:91] Creating Layer relu3
I0403 13:38:12.491713 11847 net.cpp:425] relu3 <- conv3
I0403 13:38:12.491731 11847 net.cpp:386] relu3 -> conv3 (in-place)
I0403 13:38:12.492007 11847 net.cpp:141] Setting up relu3
I0403 13:38:12.492034 11847 net.cpp:148] Top shape: 100 384 13 13 (6489600)
I0403 13:38:12.492049 11847 net.cpp:156] Memory required for data: 731481200
I0403 13:38:12.492064 11847 layer_factory.hpp:77] Creating layer conv4
I0403 13:38:12.492087 11847 net.cpp:91] Creating Layer conv4
I0403 13:38:12.492105 11847 net.cpp:425] conv4 <- conv3
I0403 13:38:12.492126 11847 net.cpp:399] conv4 -> conv4
I0403 13:38:12.522558 11847 net.cpp:141] Setting up conv4
I0403 13:38:12.522636 11847 net.cpp:148] Top shape: 100 384 13 13 (6489600)
I0403 13:38:12.522691 11847 net.cpp:156] Memory required for data: 757439600
I0403 13:38:12.522714 11847 layer_factory.hpp:77] Creating layer relu4
I0403 13:38:12.522737 11847 net.cpp:91] Creating Layer relu4
I0403 13:38:12.522753 11847 net.cpp:425] relu4 <- conv4
I0403 13:38:12.522778 11847 net.cpp:386] relu4 -> conv4 (in-place)
I0403 13:38:12.523061 11847 net.cpp:141] Setting up relu4
I0403 13:38:12.523088 11847 net.cpp:148] Top shape: 100 384 13 13 (6489600)
I0403 13:38:12.523103 11847 net.cpp:156] Memory required for data: 783398000
I0403 13:38:12.523118 11847 layer_factory.hpp:77] Creating layer conv5
I0403 13:38:12.523193 11847 net.cpp:91] Creating Layer conv5
I0403 13:38:12.523216 11847 net.cpp:425] conv5 <- conv4
I0403 13:38:12.523238 11847 net.cpp:399] conv5 -> conv5
I0403 13:38:12.544306 11847 net.cpp:141] Setting up conv5
I0403 13:38:12.544350 11847 net.cpp:148] Top shape: 100 256 13 13 (4326400)
I0403 13:38:12.544368 11847 net.cpp:156] Memory required for data: 800703600
I0403 13:38:12.544392 11847 layer_factory.hpp:77] Creating layer relu5
I0403 13:38:12.544422 11847 net.cpp:91] Creating Layer relu5
I0403 13:38:12.544438 11847 net.cpp:425] relu5 <- conv5
I0403 13:38:12.544459 11847 net.cpp:386] relu5 -> conv5 (in-place)
I0403 13:38:12.544764 11847 net.cpp:141] Setting up relu5
I0403 13:38:12.544790 11847 net.cpp:148] Top shape: 100 256 13 13 (4326400)
I0403 13:38:12.544805 11847 net.cpp:156] Memory required for data: 818009200
I0403 13:38:12.544818 11847 layer_factory.hpp:77] Creating layer pool5
I0403 13:38:12.544844 11847 net.cpp:91] Creating Layer pool5
I0403 13:38:12.544862 11847 net.cpp:425] pool5 <- conv5
I0403 13:38:12.544879 11847 net.cpp:399] pool5 -> pool5
I0403 13:38:12.544937 11847 net.cpp:141] Setting up pool5
I0403 13:38:12.544961 11847 net.cpp:148] Top shape: 100 256 6 6 (921600)
I0403 13:38:12.544975 11847 net.cpp:156] Memory required for data: 821695600
I0403 13:38:12.544989 11847 layer_factory.hpp:77] Creating layer fc6
I0403 13:38:12.545022 11847 net.cpp:91] Creating Layer fc6
I0403 13:38:12.545039 11847 net.cpp:425] fc6 <- pool5
I0403 13:38:12.545058 11847 net.cpp:399] fc6 -> fc6
I0403 13:38:14.085048 11847 net.cpp:141] Setting up fc6
I0403 13:38:14.085091 11847 net.cpp:148] Top shape: 100 4096 (409600)
I0403 13:38:14.085108 11847 net.cpp:156] Memory required for data: 823334000
I0403 13:38:14.085129 11847 layer_factory.hpp:77] Creating layer relu6
I0403 13:38:14.085150 11847 net.cpp:91] Creating Layer relu6
I0403 13:38:14.085167 11847 net.cpp:425] relu6 <- fc6
I0403 13:38:14.085189 11847 net.cpp:386] relu6 -> fc6 (in-place)
I0403 13:38:14.085407 11847 net.cpp:141] Setting up relu6
I0403 13:38:14.085432 11847 net.cpp:148] Top shape: 100 4096 (409600)
I0403 13:38:14.085445 11847 net.cpp:156] Memory required for data: 824972400
I0403 13:38:14.085459 11847 layer_factory.hpp:77] Creating layer drop6
I0403 13:38:14.085477 11847 net.cpp:91] Creating Layer drop6
I0403 13:38:14.085492 11847 net.cpp:425] drop6 <- fc6
I0403 13:38:14.085510 11847 net.cpp:386] drop6 -> fc6 (in-place)
I0403 13:38:14.085562 11847 net.cpp:141] Setting up drop6
I0403 13:38:14.085587 11847 net.cpp:148] Top shape: 100 4096 (409600)
I0403 13:38:14.085607 11847 net.cpp:156] Memory required for data: 826610800
I0403 13:38:14.085623 11847 layer_factory.hpp:77] Creating layer fc7
I0403 13:38:14.085643 11847 net.cpp:91] Creating Layer fc7
I0403 13:38:14.085657 11847 net.cpp:425] fc7 <- fc6
I0403 13:38:14.085676 11847 net.cpp:399] fc7 -> fc7
I0403 13:38:14.759901 11847 net.cpp:141] Setting up fc7
I0403 13:38:14.759970 11847 net.cpp:148] Top shape: 100 4096 (409600)
I0403 13:38:14.759986 11847 net.cpp:156] Memory required for data: 828249200
I0403 13:38:14.760006 11847 layer_factory.hpp:77] Creating layer relu7
I0403 13:38:14.760030 11847 net.cpp:91] Creating Layer relu7
I0403 13:38:14.760047 11847 net.cpp:425] relu7 <- fc7
I0403 13:38:14.760066 11847 net.cpp:386] relu7 -> fc7 (in-place)
I0403 13:38:14.760458 11847 net.cpp:141] Setting up relu7
I0403 13:38:14.760484 11847 net.cpp:148] Top shape: 100 4096 (409600)
I0403 13:38:14.760535 11847 net.cpp:156] Memory required for data: 829887600
I0403 13:38:14.760550 11847 layer_factory.hpp:77] Creating layer drop7
I0403 13:38:14.760567 11847 net.cpp:91] Creating Layer drop7
I0403 13:38:14.760618 11847 net.cpp:425] drop7 <- fc7
I0403 13:38:14.760637 11847 net.cpp:386] drop7 -> fc7 (in-place)
I0403 13:38:14.760679 11847 net.cpp:141] Setting up drop7
I0403 13:38:14.760702 11847 net.cpp:148] Top shape: 100 4096 (409600)
I0403 13:38:14.760717 11847 net.cpp:156] Memory required for data: 831526000
I0403 13:38:14.760732 11847 layer_factory.hpp:77] Creating layer fc8_plantvillage
I0403 13:38:14.760751 11847 net.cpp:91] Creating Layer fc8_plantvillage
I0403 13:38:14.760767 11847 net.cpp:425] fc8_plantvillage <- fc7
I0403 13:38:14.760787 11847 net.cpp:399] fc8_plantvillage -> fc8_plantvillage
I0403 13:38:14.767318 11847 net.cpp:141] Setting up fc8_plantvillage
I0403 13:38:14.767344 11847 net.cpp:148] Top shape: 100 38 (3800)
I0403 13:38:14.767359 11847 net.cpp:156] Memory required for data: 831541200
I0403 13:38:14.767376 11847 layer_factory.hpp:77] Creating layer fc8_plantvillage_fc8_plantvillage_0_split
I0403 13:38:14.767398 11847 net.cpp:91] Creating Layer fc8_plantvillage_fc8_plantvillage_0_split
I0403 13:38:14.767416 11847 net.cpp:425] fc8_plantvillage_fc8_plantvillage_0_split <- fc8_plantvillage
I0403 13:38:14.767434 11847 net.cpp:399] fc8_plantvillage_fc8_plantvillage_0_split -> fc8_plantvillage_fc8_plantvillage_0_split_0
I0403 13:38:14.767457 11847 net.cpp:399] fc8_plantvillage_fc8_plantvillage_0_split -> fc8_plantvillage_fc8_plantvillage_0_split_1
I0403 13:38:14.767477 11847 net.cpp:399] fc8_plantvillage_fc8_plantvillage_0_split -> fc8_plantvillage_fc8_plantvillage_0_split_2
I0403 13:38:14.767552 11847 net.cpp:141] Setting up fc8_plantvillage_fc8_plantvillage_0_split
I0403 13:38:14.767580 11847 net.cpp:148] Top shape: 100 38 (3800)
I0403 13:38:14.767596 11847 net.cpp:148] Top shape: 100 38 (3800)
I0403 13:38:14.767617 11847 net.cpp:148] Top shape: 100 38 (3800)
I0403 13:38:14.767637 11847 net.cpp:156] Memory required for data: 831586800
I0403 13:38:14.767652 11847 layer_factory.hpp:77] Creating layer prob
I0403 13:38:14.767676 11847 net.cpp:91] Creating Layer prob
I0403 13:38:14.767691 11847 net.cpp:425] prob <- fc8_plantvillage_fc8_plantvillage_0_split_0
I0403 13:38:14.767712 11847 net.cpp:399] prob -> prob
I0403 13:38:14.767931 11847 net.cpp:141] Setting up prob
I0403 13:38:14.767958 11847 net.cpp:148] Top shape: 100 38 (3800)
I0403 13:38:14.767977 11847 net.cpp:156] Memory required for data: 831602000
I0403 13:38:14.767994 11847 layer_factory.hpp:77] Creating layer hdf5out
I0403 13:38:14.768016 11847 net.cpp:91] Creating Layer hdf5out
I0403 13:38:14.768040 11847 net.cpp:425] hdf5out <- prob
I0403 13:38:14.768056 11847 net.cpp:425] hdf5out <- label_data_1_split_0
I0403 13:38:14.770455 11847 net.cpp:141] Setting up hdf5out
…
