…
I0403 13:50:59.682787 12148 net.cpp:313] The NetState phase (1) differed from the phase (0) specified by a rule in layer data
I0403 13:50:59.683090 12148 net.cpp:49] Initializing net from parameters: 
state {
  phase: TEST
}
layer {
  name: "data"
  type: "Data"
  top: "data"
  top: "label"
  include {
    phase: TEST
  }
  transform_param {
    crop_size: 227
    mean_file: "/home/mohanty/data/final_dataset/lmdb/grayscale-60-40/mean.binaryproto"
  }
  data_param {
    source: "/home/mohanty/data/final_dataset/lmdb/grayscale-60-40/test_db"
    batch_size: 100
    backend: LMDB
  }
}
layer {
  name: "conv1"
  type: "Convolution"
  bottom: "data"
  top: "conv1"
  param {
    lr_mult: 1
    decay_mult: 1
  }
  param {
    lr_mult: 2
    decay_mult: 0
  }
  convolution_param {
    num_output: 96
    kernel_size: 11
    stride: 4
    weight_filler {
      type: "gaussian"
      std: 0.01
    }
    bias_filler {
      type: "constant"
      value: 0
    }
  }
}
layer {
  name: "relu1"
  type: "ReLU"
  bottom: "conv1"
  top: "conv1"
}
layer {
  name: "norm1"
  type: "LRN"
  bottom: "conv1"
  top: "norm1"
  lrn_param {
    local_size: 5
    alpha: 0.0001
    beta: 0.75
  }
}
layer {
  name: "pool1"
  type: "Pooling"
  bottom: "norm1"
  top: "pool1"
  pooling_param {
    pool: MAX
    kernel_size: 3
    stride: 2
  }
}
layer {
  name: "conv2"
  type: "Convolution"
  bottom: "pool1"
  top: "conv2"
  param {
    lr_mult: 1
    decay_mult: 1
  }
  param {
    lr_mult: 2
    decay_mult: 0
  }
  convolution_param {
    num_output: 256
    pad: 2
    kernel_size: 5
    group: 2
    weight_filler {
      type: "gaussian"
      std: 0.01
    }
    bias_filler {
      type: "constant"
      value: 0.1
    }
  }
}
layer {
  name: "relu2"
  type: "ReLU"
  bottom: "conv2"
  top: "conv2"
}
layer {
  name: "norm2"
  type: "LRN"
  bottom: "conv2"
  top: "norm2"
  lrn_param {
    local_size: 5
    alpha: 0.0001
    beta: 0.75
  }
}
layer {
  name: "pool2"
  type: "Pooling"
  bottom: "norm2"
  top: "pool2"
  pooling_param {
    pool: MAX
    kernel_size: 3
    stride: 2
  }
}
layer {
  name: "conv3"
  type: "Convolution"
  bottom: "pool2"
  top: "conv3"
  param {
    lr_mult: 1
    decay_mult: 1
  }
  param {
    lr_mult: 2
    decay_mult: 0
  }
  convolution_param {
    num_output: 384
    pad: 1
    kernel_size: 3
    weight_filler {
      type: "gaussian"
      std: 0.01
    }
    bias_filler {
      type: "constant"
      value: 0
    }
  }
}
layer {
  name: "relu3"
  type: "ReLU"
  bottom: "conv3"
  top: "conv3"
}
layer {
  name: "conv4"
  type: "Convolution"
  bottom: "conv3"
  top: "conv4"
  param {
    lr_mult: 1
    decay_mult: 1
  }
  param {
    lr_mult: 2
    decay_mult: 0
  }
  convolution_param {
    num_output: 384
    pad: 1
    kernel_size: 3
    group: 2
    weight_filler {
      type: "gaussian"
      std: 0.01
    }
    bias_filler {
      type: "constant"
      value: 0.1
    }
  }
}
layer {
  name: "relu4"
  type: "ReLU"
  bottom: "conv4"
  top: "conv4"
}
layer {
  name: "conv5"
  type: "Convolution"
  bottom: "conv4"
  top: "conv5"
  param {
    lr_mult: 1
    decay_mult: 1
  }
  param {
    lr_mult: 2
    decay_mult: 0
  }
  convolution_param {
    num_output: 256
    pad: 1
    kernel_size: 3
    group: 2
    weight_filler {
      type: "gaussian"
      std: 0.01
    }
    bias_filler {
      type: "constant"
      value: 0.1
    }
  }
}
layer {
  name: "relu5"
  type: "ReLU"
  bottom: "conv5"
  top: "conv5"
}
layer {
  name: "pool5"
  type: "Pooling"
  bottom: "conv5"
  top: "pool5"
  pooling_param {
    pool: MAX
    kernel_size: 3
    stride: 2
  }
}
layer {
  name: "fc6"
  type: "InnerProduct"
  bottom: "pool5"
  top: "fc6"
  param {
    lr_mult: 1
    decay_mult: 1
  }
  param {
    lr_mult: 2
    decay_mult: 0
  }
  inner_product_param {
    num_output: 4096
    weight_filler {
      type: "gaussian"
      std: 0.005
    }
    bias_filler {
      type: "constant"
      value: 0.1
    }
  }
}
layer {
  name: "relu6"
  type: "ReLU"
  bottom: "fc6"
  top: "fc6"
}
layer {
  name: "drop6"
  type: "Dropout"
  bottom: "fc6"
  top: "fc6"
  dropout_param {
    dropout_ratio: 0.5
  }
}
layer {
  name: "fc7"
  type: "InnerProduct"
  bottom: "fc6"
  top: "fc7"
  param {
    lr_mult: 1
    decay_mult: 1
  }
  param {
    lr_mult: 2
    decay_mult: 0
  }
  inner_product_param {
    num_output: 4096
    weight_filler {
      type: "gaussian"
      std: 0.005
    }
    bias_filler {
      type: "constant"
      value: 0.1
    }
  }
}
layer {
  name: "relu7"
  type: "ReLU"
  bottom: "fc7"
  top: "fc7"
}
layer {
  name: "drop7"
  type: "Dropout"
  bottom: "fc7"
  top: "fc7"
  dropout_param {
    dropout_ratio: 0.5
  }
}
layer {
  name: "fc8_plantvillage"
  type: "InnerProduct"
  bottom: "fc7"
  top: "fc8_plantvillage"
  param {
    lr_mult: 1
    decay_mult: 1
  }
  param {
    lr_mult: 2
    decay_mult: 0
  }
  inner_product_param {
    num_output: 38
    weight_filler {
      type: "gaussian"
      std: 0.01
    }
    bias_filler {
      type: "constant"
      value: 0
    }
  }
}
layer {
  name: "prob"
  type: "Softmax"
  bottom: "fc8_plantvillage"
  top: "prob"
  include {
    phase: TEST
  }
}
layer {
  name: "hdf5out"
  type: "HDF5Output"
  bottom: "prob"
  bottom: "label"
  include {
    phase: TEST
  }
  hdf5_output_param {
    file_name: "hdf5_dumps/iter_6500.h5"
  }
}
layer {
  name: "loss"
  type: "SoftmaxWithLoss"
  bottom: "fc8_plantvillage"
  bottom: "label"
  top: "loss"
}
layer {
  name: "accuracy"
  type: "Accuracy"
  bottom: "fc8_plantvillage"
  bottom: "label"
  top: "accuracy"
  include {
    phase: TEST
  }
}
I0403 13:50:59.683646 12148 layer_factory.hpp:77] Creating layer data
I0403 13:50:59.684262 12148 net.cpp:91] Creating Layer data
I0403 13:50:59.684293 12148 net.cpp:399] data -> data
I0403 13:50:59.684341 12148 net.cpp:399] data -> label
I0403 13:50:59.684376 12148 data_transformer.cpp:25] Loading mean file from: /home/mohanty/data/final_dataset/lmdb/grayscale-60-40/mean.binaryproto
I0403 13:50:59.687054 12151 db_lmdb.cpp:38] Opened lmdb /home/mohanty/data/final_dataset/lmdb/grayscale-60-40/test_db
I0403 13:50:59.698832 12148 data_layer.cpp:41] output data size: 100,3,227,227
I0403 13:50:59.818279 12148 net.cpp:141] Setting up data
I0403 13:50:59.818372 12148 net.cpp:148] Top shape: 100 3 227 227 (15458700)
I0403 13:50:59.818393 12148 net.cpp:148] Top shape: 100 (100)
I0403 13:50:59.818408 12148 net.cpp:156] Memory required for data: 61835200
I0403 13:50:59.818434 12148 layer_factory.hpp:77] Creating layer label_data_1_split
I0403 13:50:59.818459 12148 net.cpp:91] Creating Layer label_data_1_split
I0403 13:50:59.818475 12148 net.cpp:425] label_data_1_split <- label
I0403 13:50:59.818506 12148 net.cpp:399] label_data_1_split -> label_data_1_split_0
I0403 13:50:59.818531 12148 net.cpp:399] label_data_1_split -> label_data_1_split_1
I0403 13:50:59.818550 12148 net.cpp:399] label_data_1_split -> label_data_1_split_2
I0403 13:50:59.818615 12148 net.cpp:141] Setting up label_data_1_split
I0403 13:50:59.818639 12148 net.cpp:148] Top shape: 100 (100)
I0403 13:50:59.818655 12148 net.cpp:148] Top shape: 100 (100)
I0403 13:50:59.818670 12148 net.cpp:148] Top shape: 100 (100)
I0403 13:50:59.818682 12148 net.cpp:156] Memory required for data: 61836400
I0403 13:50:59.818697 12148 layer_factory.hpp:77] Creating layer conv1
I0403 13:50:59.818727 12148 net.cpp:91] Creating Layer conv1
I0403 13:50:59.818744 12148 net.cpp:425] conv1 <- data
I0403 13:50:59.818763 12148 net.cpp:399] conv1 -> conv1
I0403 13:50:59.959166 12148 net.cpp:141] Setting up conv1
I0403 13:50:59.959250 12148 net.cpp:148] Top shape: 100 96 55 55 (29040000)
I0403 13:50:59.959270 12148 net.cpp:156] Memory required for data: 177996400
I0403 13:50:59.959300 12148 layer_factory.hpp:77] Creating layer relu1
I0403 13:50:59.959326 12148 net.cpp:91] Creating Layer relu1
I0403 13:50:59.959344 12148 net.cpp:425] relu1 <- conv1
I0403 13:50:59.959365 12148 net.cpp:386] relu1 -> conv1 (in-place)
I0403 13:50:59.959645 12148 net.cpp:141] Setting up relu1
I0403 13:50:59.959672 12148 net.cpp:148] Top shape: 100 96 55 55 (29040000)
I0403 13:50:59.959719 12148 net.cpp:156] Memory required for data: 294156400
I0403 13:50:59.959734 12148 layer_factory.hpp:77] Creating layer norm1
I0403 13:50:59.959763 12148 net.cpp:91] Creating Layer norm1
I0403 13:50:59.959780 12148 net.cpp:425] norm1 <- conv1
I0403 13:50:59.959797 12148 net.cpp:399] norm1 -> norm1
I0403 13:50:59.960183 12148 net.cpp:141] Setting up norm1
I0403 13:50:59.960211 12148 net.cpp:148] Top shape: 100 96 55 55 (29040000)
I0403 13:50:59.960225 12148 net.cpp:156] Memory required for data: 410316400
I0403 13:50:59.960240 12148 layer_factory.hpp:77] Creating layer pool1
I0403 13:50:59.960263 12148 net.cpp:91] Creating Layer pool1
I0403 13:50:59.960280 12148 net.cpp:425] pool1 <- norm1
I0403 13:50:59.960300 12148 net.cpp:399] pool1 -> pool1
I0403 13:50:59.960368 12148 net.cpp:141] Setting up pool1
I0403 13:50:59.960391 12148 net.cpp:148] Top shape: 100 96 27 27 (6998400)
I0403 13:50:59.960405 12148 net.cpp:156] Memory required for data: 438310000
I0403 13:50:59.960420 12148 layer_factory.hpp:77] Creating layer conv2
I0403 13:50:59.960444 12148 net.cpp:91] Creating Layer conv2
I0403 13:50:59.960461 12148 net.cpp:425] conv2 <- pool1
I0403 13:50:59.960480 12148 net.cpp:399] conv2 -> conv2
I0403 13:50:59.975543 12148 net.cpp:141] Setting up conv2
I0403 13:50:59.975595 12148 net.cpp:148] Top shape: 100 256 27 27 (18662400)
I0403 13:50:59.975612 12148 net.cpp:156] Memory required for data: 512959600
I0403 13:50:59.975633 12148 layer_factory.hpp:77] Creating layer relu2
I0403 13:50:59.975654 12148 net.cpp:91] Creating Layer relu2
I0403 13:50:59.975672 12148 net.cpp:425] relu2 <- conv2
I0403 13:50:59.975688 12148 net.cpp:386] relu2 -> conv2 (in-place)
I0403 13:50:59.975962 12148 net.cpp:141] Setting up relu2
I0403 13:50:59.975989 12148 net.cpp:148] Top shape: 100 256 27 27 (18662400)
I0403 13:50:59.976004 12148 net.cpp:156] Memory required for data: 587609200
I0403 13:50:59.976019 12148 layer_factory.hpp:77] Creating layer norm2
I0403 13:50:59.976042 12148 net.cpp:91] Creating Layer norm2
I0403 13:50:59.976058 12148 net.cpp:425] norm2 <- conv2
I0403 13:50:59.976078 12148 net.cpp:399] norm2 -> norm2
I0403 13:50:59.976275 12148 net.cpp:141] Setting up norm2
I0403 13:50:59.976303 12148 net.cpp:148] Top shape: 100 256 27 27 (18662400)
I0403 13:50:59.976318 12148 net.cpp:156] Memory required for data: 662258800
I0403 13:50:59.976332 12148 layer_factory.hpp:77] Creating layer pool2
I0403 13:50:59.976352 12148 net.cpp:91] Creating Layer pool2
I0403 13:50:59.976368 12148 net.cpp:425] pool2 <- norm2
I0403 13:50:59.976385 12148 net.cpp:399] pool2 -> pool2
I0403 13:50:59.976438 12148 net.cpp:141] Setting up pool2
I0403 13:50:59.976459 12148 net.cpp:148] Top shape: 100 256 13 13 (4326400)
I0403 13:50:59.976474 12148 net.cpp:156] Memory required for data: 679564400
I0403 13:50:59.976487 12148 layer_factory.hpp:77] Creating layer conv3
I0403 13:50:59.976510 12148 net.cpp:91] Creating Layer conv3
I0403 13:50:59.976526 12148 net.cpp:425] conv3 <- pool2
I0403 13:50:59.976547 12148 net.cpp:399] conv3 -> conv3
I0403 13:51:00.019861 12148 net.cpp:141] Setting up conv3
I0403 13:51:00.019908 12148 net.cpp:148] Top shape: 100 384 13 13 (6489600)
I0403 13:51:00.019925 12148 net.cpp:156] Memory required for data: 705522800
I0403 13:51:00.019950 12148 layer_factory.hpp:77] Creating layer relu3
I0403 13:51:00.019974 12148 net.cpp:91] Creating Layer relu3
I0403 13:51:00.019994 12148 net.cpp:425] relu3 <- conv3
I0403 13:51:00.020012 12148 net.cpp:386] relu3 -> conv3 (in-place)
I0403 13:51:00.020290 12148 net.cpp:141] Setting up relu3
I0403 13:51:00.020318 12148 net.cpp:148] Top shape: 100 384 13 13 (6489600)
I0403 13:51:00.020333 12148 net.cpp:156] Memory required for data: 731481200
I0403 13:51:00.020349 12148 layer_factory.hpp:77] Creating layer conv4
I0403 13:51:00.020373 12148 net.cpp:91] Creating Layer conv4
I0403 13:51:00.020390 12148 net.cpp:425] conv4 <- conv3
I0403 13:51:00.020413 12148 net.cpp:399] conv4 -> conv4
I0403 13:51:00.050655 12148 net.cpp:141] Setting up conv4
I0403 13:51:00.050714 12148 net.cpp:148] Top shape: 100 384 13 13 (6489600)
I0403 13:51:00.050761 12148 net.cpp:156] Memory required for data: 757439600
I0403 13:51:00.050783 12148 layer_factory.hpp:77] Creating layer relu4
I0403 13:51:00.050806 12148 net.cpp:91] Creating Layer relu4
I0403 13:51:00.050822 12148 net.cpp:425] relu4 <- conv4
I0403 13:51:00.050843 12148 net.cpp:386] relu4 -> conv4 (in-place)
I0403 13:51:00.051120 12148 net.cpp:141] Setting up relu4
I0403 13:51:00.051146 12148 net.cpp:148] Top shape: 100 384 13 13 (6489600)
I0403 13:51:00.051162 12148 net.cpp:156] Memory required for data: 783398000
I0403 13:51:00.051177 12148 layer_factory.hpp:77] Creating layer conv5
I0403 13:51:00.051203 12148 net.cpp:91] Creating Layer conv5
I0403 13:51:00.051219 12148 net.cpp:425] conv5 <- conv4
I0403 13:51:00.051244 12148 net.cpp:399] conv5 -> conv5
I0403 13:51:00.071796 12148 net.cpp:141] Setting up conv5
I0403 13:51:00.071830 12148 net.cpp:148] Top shape: 100 256 13 13 (4326400)
I0403 13:51:00.071846 12148 net.cpp:156] Memory required for data: 800703600
I0403 13:51:00.071869 12148 layer_factory.hpp:77] Creating layer relu5
I0403 13:51:00.071892 12148 net.cpp:91] Creating Layer relu5
I0403 13:51:00.071907 12148 net.cpp:425] relu5 <- conv5
I0403 13:51:00.071925 12148 net.cpp:386] relu5 -> conv5 (in-place)
I0403 13:51:00.072193 12148 net.cpp:141] Setting up relu5
I0403 13:51:00.072221 12148 net.cpp:148] Top shape: 100 256 13 13 (4326400)
I0403 13:51:00.072235 12148 net.cpp:156] Memory required for data: 818009200
I0403 13:51:00.072250 12148 layer_factory.hpp:77] Creating layer pool5
I0403 13:51:00.072275 12148 net.cpp:91] Creating Layer pool5
I0403 13:51:00.072293 12148 net.cpp:425] pool5 <- conv5
I0403 13:51:00.072309 12148 net.cpp:399] pool5 -> pool5
I0403 13:51:00.072370 12148 net.cpp:141] Setting up pool5
I0403 13:51:00.072392 12148 net.cpp:148] Top shape: 100 256 6 6 (921600)
I0403 13:51:00.072407 12148 net.cpp:156] Memory required for data: 821695600
I0403 13:51:00.072422 12148 layer_factory.hpp:77] Creating layer fc6
I0403 13:51:00.072449 12148 net.cpp:91] Creating Layer fc6
I0403 13:51:00.072466 12148 net.cpp:425] fc6 <- pool5
I0403 13:51:00.072484 12148 net.cpp:399] fc6 -> fc6
I0403 13:51:01.642983 12148 net.cpp:141] Setting up fc6
I0403 13:51:01.643046 12148 net.cpp:148] Top shape: 100 4096 (409600)
I0403 13:51:01.643062 12148 net.cpp:156] Memory required for data: 823334000
I0403 13:51:01.643085 12148 layer_factory.hpp:77] Creating layer relu6
I0403 13:51:01.643105 12148 net.cpp:91] Creating Layer relu6
I0403 13:51:01.643122 12148 net.cpp:425] relu6 <- fc6
I0403 13:51:01.643144 12148 net.cpp:386] relu6 -> fc6 (in-place)
I0403 13:51:01.643373 12148 net.cpp:141] Setting up relu6
I0403 13:51:01.643398 12148 net.cpp:148] Top shape: 100 4096 (409600)
I0403 13:51:01.643412 12148 net.cpp:156] Memory required for data: 824972400
I0403 13:51:01.643427 12148 layer_factory.hpp:77] Creating layer drop6
I0403 13:51:01.643448 12148 net.cpp:91] Creating Layer drop6
I0403 13:51:01.643465 12148 net.cpp:425] drop6 <- fc6
I0403 13:51:01.643481 12148 net.cpp:386] drop6 -> fc6 (in-place)
I0403 13:51:01.643529 12148 net.cpp:141] Setting up drop6
I0403 13:51:01.643555 12148 net.cpp:148] Top shape: 100 4096 (409600)
I0403 13:51:01.643575 12148 net.cpp:156] Memory required for data: 826610800
I0403 13:51:01.643591 12148 layer_factory.hpp:77] Creating layer fc7
I0403 13:51:01.643611 12148 net.cpp:91] Creating Layer fc7
I0403 13:51:01.643626 12148 net.cpp:425] fc7 <- fc6
I0403 13:51:01.643646 12148 net.cpp:399] fc7 -> fc7
I0403 13:51:02.340071 12148 net.cpp:141] Setting up fc7
I0403 13:51:02.340117 12148 net.cpp:148] Top shape: 100 4096 (409600)
I0403 13:51:02.340133 12148 net.cpp:156] Memory required for data: 828249200
I0403 13:51:02.340154 12148 layer_factory.hpp:77] Creating layer relu7
I0403 13:51:02.340175 12148 net.cpp:91] Creating Layer relu7
I0403 13:51:02.340193 12148 net.cpp:425] relu7 <- fc7
I0403 13:51:02.340214 12148 net.cpp:386] relu7 -> fc7 (in-place)
I0403 13:51:02.340641 12148 net.cpp:141] Setting up relu7
I0403 13:51:02.340667 12148 net.cpp:148] Top shape: 100 4096 (409600)
I0403 13:51:02.340723 12148 net.cpp:156] Memory required for data: 829887600
I0403 13:51:02.340739 12148 layer_factory.hpp:77] Creating layer drop7
I0403 13:51:02.340759 12148 net.cpp:91] Creating Layer drop7
I0403 13:51:02.340773 12148 net.cpp:425] drop7 <- fc7
I0403 13:51:02.340793 12148 net.cpp:386] drop7 -> fc7 (in-place)
I0403 13:51:02.340840 12148 net.cpp:141] Setting up drop7
I0403 13:51:02.340863 12148 net.cpp:148] Top shape: 100 4096 (409600)
I0403 13:51:02.340878 12148 net.cpp:156] Memory required for data: 831526000
I0403 13:51:02.340893 12148 layer_factory.hpp:77] Creating layer fc8_plantvillage
I0403 13:51:02.340912 12148 net.cpp:91] Creating Layer fc8_plantvillage
I0403 13:51:02.340929 12148 net.cpp:425] fc8_plantvillage <- fc7
I0403 13:51:02.340950 12148 net.cpp:399] fc8_plantvillage -> fc8_plantvillage
I0403 13:51:02.347918 12148 net.cpp:141] Setting up fc8_plantvillage
I0403 13:51:02.347949 12148 net.cpp:148] Top shape: 100 38 (3800)
I0403 13:51:02.347964 12148 net.cpp:156] Memory required for data: 831541200
I0403 13:51:02.347981 12148 layer_factory.hpp:77] Creating layer fc8_plantvillage_fc8_plantvillage_0_split
I0403 13:51:02.348002 12148 net.cpp:91] Creating Layer fc8_plantvillage_fc8_plantvillage_0_split
I0403 13:51:02.348019 12148 net.cpp:425] fc8_plantvillage_fc8_plantvillage_0_split <- fc8_plantvillage
I0403 13:51:02.348037 12148 net.cpp:399] fc8_plantvillage_fc8_plantvillage_0_split -> fc8_plantvillage_fc8_plantvillage_0_split_0
I0403 13:51:02.348057 12148 net.cpp:399] fc8_plantvillage_fc8_plantvillage_0_split -> fc8_plantvillage_fc8_plantvillage_0_split_1
I0403 13:51:02.348076 12148 net.cpp:399] fc8_plantvillage_fc8_plantvillage_0_split -> fc8_plantvillage_fc8_plantvillage_0_split_2
I0403 13:51:02.348156 12148 net.cpp:141] Setting up fc8_plantvillage_fc8_plantvillage_0_split
I0403 13:51:02.348179 12148 net.cpp:148] Top shape: 100 38 (3800)
I0403 13:51:02.348196 12148 net.cpp:148] Top shape: 100 38 (3800)
I0403 13:51:02.348212 12148 net.cpp:148] Top shape: 100 38 (3800)
I0403 13:51:02.348227 12148 net.cpp:156] Memory required for data: 831586800
I0403 13:51:02.348240 12148 layer_factory.hpp:77] Creating layer prob
I0403 13:51:02.348259 12148 net.cpp:91] Creating Layer prob
I0403 13:51:02.348274 12148 net.cpp:425] prob <- fc8_plantvillage_fc8_plantvillage_0_split_0
I0403 13:51:02.348292 12148 net.cpp:399] prob -> prob
I0403 13:51:02.348525 12148 net.cpp:141] Setting up prob
I0403 13:51:02.348549 12148 net.cpp:148] Top shape: 100 38 (3800)
I0403 13:51:02.348564 12148 net.cpp:156] Memory required for data: 831602000
I0403 13:51:02.348585 12148 layer_factory.hpp:77] Creating layer hdf5out
I0403 13:51:02.348605 12148 net.cpp:91] Creating Layer hdf5out
I0403 13:51:02.348621 12148 net.cpp:425] hdf5out <- prob
I0403 13:51:02.348639 12148 net.cpp:425] hdf5out <- label_data_1_split_0
I0403 13:51:02.353636 12148 net.cpp:141] Setting up hdf5out
…
