…
I0403 13:55:30.893868 12254 net.cpp:313] The NetState phase (1) differed from the phase (0) specified by a rule in layer data
I0403 13:55:30.894196 12254 net.cpp:49] Initializing net from parameters: 
state {
  phase: TEST
}
layer {
  name: "data"
  type: "Data"
  top: "data"
  top: "label"
  include {
    phase: TEST
  }
  transform_param {
    crop_size: 227
    mean_file: "/home/mohanty/data/final_dataset/lmdb/grayscale-60-40/mean.binaryproto"
  }
  data_param {
    source: "/home/mohanty/data/final_dataset/lmdb/grayscale-60-40/test_db"
    batch_size: 100
    backend: LMDB
  }
}
layer {
  name: "conv1"
  type: "Convolution"
  bottom: "data"
  top: "conv1"
  param {
    lr_mult: 1
    decay_mult: 1
  }
  param {
    lr_mult: 2
    decay_mult: 0
  }
  convolution_param {
    num_output: 96
    kernel_size: 11
    stride: 4
    weight_filler {
      type: "gaussian"
      std: 0.01
    }
    bias_filler {
      type: "constant"
      value: 0
    }
  }
}
layer {
  name: "relu1"
  type: "ReLU"
  bottom: "conv1"
  top: "conv1"
}
layer {
  name: "norm1"
  type: "LRN"
  bottom: "conv1"
  top: "norm1"
  lrn_param {
    local_size: 5
    alpha: 0.0001
    beta: 0.75
  }
}
layer {
  name: "pool1"
  type: "Pooling"
  bottom: "norm1"
  top: "pool1"
  pooling_param {
    pool: MAX
    kernel_size: 3
    stride: 2
  }
}
layer {
  name: "conv2"
  type: "Convolution"
  bottom: "pool1"
  top: "conv2"
  param {
    lr_mult: 1
    decay_mult: 1
  }
  param {
    lr_mult: 2
    decay_mult: 0
  }
  convolution_param {
    num_output: 256
    pad: 2
    kernel_size: 5
    group: 2
    weight_filler {
      type: "gaussian"
      std: 0.01
    }
    bias_filler {
      type: "constant"
      value: 0.1
    }
  }
}
layer {
  name: "relu2"
  type: "ReLU"
  bottom: "conv2"
  top: "conv2"
}
layer {
  name: "norm2"
  type: "LRN"
  bottom: "conv2"
  top: "norm2"
  lrn_param {
    local_size: 5
    alpha: 0.0001
    beta: 0.75
  }
}
layer {
  name: "pool2"
  type: "Pooling"
  bottom: "norm2"
  top: "pool2"
  pooling_param {
    pool: MAX
    kernel_size: 3
    stride: 2
  }
}
layer {
  name: "conv3"
  type: "Convolution"
  bottom: "pool2"
  top: "conv3"
  param {
    lr_mult: 1
    decay_mult: 1
  }
  param {
    lr_mult: 2
    decay_mult: 0
  }
  convolution_param {
    num_output: 384
    pad: 1
    kernel_size: 3
    weight_filler {
      type: "gaussian"
      std: 0.01
    }
    bias_filler {
      type: "constant"
      value: 0
    }
  }
}
layer {
  name: "relu3"
  type: "ReLU"
  bottom: "conv3"
  top: "conv3"
}
layer {
  name: "conv4"
  type: "Convolution"
  bottom: "conv3"
  top: "conv4"
  param {
    lr_mult: 1
    decay_mult: 1
  }
  param {
    lr_mult: 2
    decay_mult: 0
  }
  convolution_param {
    num_output: 384
    pad: 1
    kernel_size: 3
    group: 2
    weight_filler {
      type: "gaussian"
      std: 0.01
    }
    bias_filler {
      type: "constant"
      value: 0.1
    }
  }
}
layer {
  name: "relu4"
  type: "ReLU"
  bottom: "conv4"
  top: "conv4"
}
layer {
  name: "conv5"
  type: "Convolution"
  bottom: "conv4"
  top: "conv5"
  param {
    lr_mult: 1
    decay_mult: 1
  }
  param {
    lr_mult: 2
    decay_mult: 0
  }
  convolution_param {
    num_output: 256
    pad: 1
    kernel_size: 3
    group: 2
    weight_filler {
      type: "gaussian"
      std: 0.01
    }
    bias_filler {
      type: "constant"
      value: 0.1
    }
  }
}
layer {
  name: "relu5"
  type: "ReLU"
  bottom: "conv5"
  top: "conv5"
}
layer {
  name: "pool5"
  type: "Pooling"
  bottom: "conv5"
  top: "pool5"
  pooling_param {
    pool: MAX
    kernel_size: 3
    stride: 2
  }
}
layer {
  name: "fc6"
  type: "InnerProduct"
  bottom: "pool5"
  top: "fc6"
  param {
    lr_mult: 1
    decay_mult: 1
  }
  param {
    lr_mult: 2
    decay_mult: 0
  }
  inner_product_param {
    num_output: 4096
    weight_filler {
      type: "gaussian"
      std: 0.005
    }
    bias_filler {
      type: "constant"
      value: 0.1
    }
  }
}
layer {
  name: "relu6"
  type: "ReLU"
  bottom: "fc6"
  top: "fc6"
}
layer {
  name: "drop6"
  type: "Dropout"
  bottom: "fc6"
  top: "fc6"
  dropout_param {
    dropout_ratio: 0.5
  }
}
layer {
  name: "fc7"
  type: "InnerProduct"
  bottom: "fc6"
  top: "fc7"
  param {
    lr_mult: 1
    decay_mult: 1
  }
  param {
    lr_mult: 2
    decay_mult: 0
  }
  inner_product_param {
    num_output: 4096
    weight_filler {
      type: "gaussian"
      std: 0.005
    }
    bias_filler {
      type: "constant"
      value: 0.1
    }
  }
}
layer {
  name: "relu7"
  type: "ReLU"
  bottom: "fc7"
  top: "fc7"
}
layer {
  name: "drop7"
  type: "Dropout"
  bottom: "fc7"
  top: "fc7"
  dropout_param {
    dropout_ratio: 0.5
  }
}
layer {
  name: "fc8_plantvillage"
  type: "InnerProduct"
  bottom: "fc7"
  top: "fc8_plantvillage"
  param {
    lr_mult: 1
    decay_mult: 1
  }
  param {
    lr_mult: 2
    decay_mult: 0
  }
  inner_product_param {
    num_output: 38
    weight_filler {
      type: "gaussian"
      std: 0.01
    }
    bias_filler {
      type: "constant"
      value: 0
    }
  }
}
layer {
  name: "prob"
  type: "Softmax"
  bottom: "fc8_plantvillage"
  top: "prob"
  include {
    phase: TEST
  }
}
layer {
  name: "hdf5out"
  type: "HDF5Output"
  bottom: "prob"
  bottom: "label"
  include {
    phase: TEST
  }
  hdf5_output_param {
    file_name: "hdf5_dumps/iter_8450.h5"
  }
}
layer {
  name: "loss"
  type: "SoftmaxWithLoss"
  bottom: "fc8_plantvillage"
  bottom: "label"
  top: "loss"
}
layer {
  name: "accuracy"
  type: "Accuracy"
  bottom: "fc8_plantvillage"
  bottom: "label"
  top: "accuracy"
  include {
    phase: TEST
  }
}
I0403 13:55:30.894755 12254 layer_factory.hpp:77] Creating layer data
I0403 13:55:30.895390 12254 net.cpp:91] Creating Layer data
I0403 13:55:30.895419 12254 net.cpp:399] data -> data
I0403 13:55:30.895472 12254 net.cpp:399] data -> label
I0403 13:55:30.895508 12254 data_transformer.cpp:25] Loading mean file from: /home/mohanty/data/final_dataset/lmdb/grayscale-60-40/mean.binaryproto
I0403 13:55:30.898000 12257 db_lmdb.cpp:38] Opened lmdb /home/mohanty/data/final_dataset/lmdb/grayscale-60-40/test_db
I0403 13:55:30.909613 12254 data_layer.cpp:41] output data size: 100,3,227,227
I0403 13:55:31.030012 12254 net.cpp:141] Setting up data
I0403 13:55:31.030107 12254 net.cpp:148] Top shape: 100 3 227 227 (15458700)
I0403 13:55:31.030130 12254 net.cpp:148] Top shape: 100 (100)
I0403 13:55:31.030145 12254 net.cpp:156] Memory required for data: 61835200
I0403 13:55:31.030174 12254 layer_factory.hpp:77] Creating layer label_data_1_split
I0403 13:55:31.030200 12254 net.cpp:91] Creating Layer label_data_1_split
I0403 13:55:31.030218 12254 net.cpp:425] label_data_1_split <- label
I0403 13:55:31.030251 12254 net.cpp:399] label_data_1_split -> label_data_1_split_0
I0403 13:55:31.030280 12254 net.cpp:399] label_data_1_split -> label_data_1_split_1
I0403 13:55:31.030302 12254 net.cpp:399] label_data_1_split -> label_data_1_split_2
I0403 13:55:31.030365 12254 net.cpp:141] Setting up label_data_1_split
I0403 13:55:31.030390 12254 net.cpp:148] Top shape: 100 (100)
I0403 13:55:31.030406 12254 net.cpp:148] Top shape: 100 (100)
I0403 13:55:31.030422 12254 net.cpp:148] Top shape: 100 (100)
I0403 13:55:31.030436 12254 net.cpp:156] Memory required for data: 61836400
I0403 13:55:31.030452 12254 layer_factory.hpp:77] Creating layer conv1
I0403 13:55:31.030483 12254 net.cpp:91] Creating Layer conv1
I0403 13:55:31.030501 12254 net.cpp:425] conv1 <- data
I0403 13:55:31.030521 12254 net.cpp:399] conv1 -> conv1
I0403 13:55:31.172492 12254 net.cpp:141] Setting up conv1
I0403 13:55:31.172580 12254 net.cpp:148] Top shape: 100 96 55 55 (29040000)
I0403 13:55:31.172597 12254 net.cpp:156] Memory required for data: 177996400
I0403 13:55:31.172628 12254 layer_factory.hpp:77] Creating layer relu1
I0403 13:55:31.172654 12254 net.cpp:91] Creating Layer relu1
I0403 13:55:31.172672 12254 net.cpp:425] relu1 <- conv1
I0403 13:55:31.172690 12254 net.cpp:386] relu1 -> conv1 (in-place)
I0403 13:55:31.172983 12254 net.cpp:141] Setting up relu1
I0403 13:55:31.173010 12254 net.cpp:148] Top shape: 100 96 55 55 (29040000)
I0403 13:55:31.173058 12254 net.cpp:156] Memory required for data: 294156400
I0403 13:55:31.173074 12254 layer_factory.hpp:77] Creating layer norm1
I0403 13:55:31.173100 12254 net.cpp:91] Creating Layer norm1
I0403 13:55:31.173118 12254 net.cpp:425] norm1 <- conv1
I0403 13:55:31.173135 12254 net.cpp:399] norm1 -> norm1
I0403 13:55:31.173432 12254 net.cpp:141] Setting up norm1
I0403 13:55:31.173460 12254 net.cpp:148] Top shape: 100 96 55 55 (29040000)
I0403 13:55:31.173475 12254 net.cpp:156] Memory required for data: 410316400
I0403 13:55:31.173490 12254 layer_factory.hpp:77] Creating layer pool1
I0403 13:55:31.173511 12254 net.cpp:91] Creating Layer pool1
I0403 13:55:31.173527 12254 net.cpp:425] pool1 <- norm1
I0403 13:55:31.173544 12254 net.cpp:399] pool1 -> pool1
I0403 13:55:31.173612 12254 net.cpp:141] Setting up pool1
I0403 13:55:31.173636 12254 net.cpp:148] Top shape: 100 96 27 27 (6998400)
I0403 13:55:31.173651 12254 net.cpp:156] Memory required for data: 438310000
I0403 13:55:31.173666 12254 layer_factory.hpp:77] Creating layer conv2
I0403 13:55:31.173688 12254 net.cpp:91] Creating Layer conv2
I0403 13:55:31.173703 12254 net.cpp:425] conv2 <- pool1
I0403 13:55:31.173722 12254 net.cpp:399] conv2 -> conv2
I0403 13:55:31.188624 12254 net.cpp:141] Setting up conv2
I0403 13:55:31.188663 12254 net.cpp:148] Top shape: 100 256 27 27 (18662400)
I0403 13:55:31.188678 12254 net.cpp:156] Memory required for data: 512959600
I0403 13:55:31.188700 12254 layer_factory.hpp:77] Creating layer relu2
I0403 13:55:31.188719 12254 net.cpp:91] Creating Layer relu2
I0403 13:55:31.188735 12254 net.cpp:425] relu2 <- conv2
I0403 13:55:31.188753 12254 net.cpp:386] relu2 -> conv2 (in-place)
I0403 13:55:31.189024 12254 net.cpp:141] Setting up relu2
I0403 13:55:31.189051 12254 net.cpp:148] Top shape: 100 256 27 27 (18662400)
I0403 13:55:31.189066 12254 net.cpp:156] Memory required for data: 587609200
I0403 13:55:31.189081 12254 layer_factory.hpp:77] Creating layer norm2
I0403 13:55:31.189102 12254 net.cpp:91] Creating Layer norm2
I0403 13:55:31.189118 12254 net.cpp:425] norm2 <- conv2
I0403 13:55:31.189136 12254 net.cpp:399] norm2 -> norm2
I0403 13:55:31.189316 12254 net.cpp:141] Setting up norm2
I0403 13:55:31.189343 12254 net.cpp:148] Top shape: 100 256 27 27 (18662400)
I0403 13:55:31.189358 12254 net.cpp:156] Memory required for data: 662258800
I0403 13:55:31.189373 12254 layer_factory.hpp:77] Creating layer pool2
I0403 13:55:31.189393 12254 net.cpp:91] Creating Layer pool2
I0403 13:55:31.189409 12254 net.cpp:425] pool2 <- norm2
I0403 13:55:31.189425 12254 net.cpp:399] pool2 -> pool2
I0403 13:55:31.189474 12254 net.cpp:141] Setting up pool2
I0403 13:55:31.189527 12254 net.cpp:148] Top shape: 100 256 13 13 (4326400)
I0403 13:55:31.189544 12254 net.cpp:156] Memory required for data: 679564400
I0403 13:55:31.189559 12254 layer_factory.hpp:77] Creating layer conv3
I0403 13:55:31.189585 12254 net.cpp:91] Creating Layer conv3
I0403 13:55:31.189602 12254 net.cpp:425] conv3 <- pool2
I0403 13:55:31.189620 12254 net.cpp:399] conv3 -> conv3
I0403 13:55:31.230124 12254 net.cpp:141] Setting up conv3
I0403 13:55:31.230170 12254 net.cpp:148] Top shape: 100 384 13 13 (6489600)
I0403 13:55:31.230185 12254 net.cpp:156] Memory required for data: 705522800
I0403 13:55:31.230211 12254 layer_factory.hpp:77] Creating layer relu3
I0403 13:55:31.230234 12254 net.cpp:91] Creating Layer relu3
I0403 13:55:31.230252 12254 net.cpp:425] relu3 <- conv3
I0403 13:55:31.230273 12254 net.cpp:386] relu3 -> conv3 (in-place)
I0403 13:55:31.230542 12254 net.cpp:141] Setting up relu3
I0403 13:55:31.230571 12254 net.cpp:148] Top shape: 100 384 13 13 (6489600)
I0403 13:55:31.230588 12254 net.cpp:156] Memory required for data: 731481200
I0403 13:55:31.230602 12254 layer_factory.hpp:77] Creating layer conv4
I0403 13:55:31.230629 12254 net.cpp:91] Creating Layer conv4
I0403 13:55:31.230646 12254 net.cpp:425] conv4 <- conv3
I0403 13:55:31.230664 12254 net.cpp:399] conv4 -> conv4
I0403 13:55:31.260052 12254 net.cpp:141] Setting up conv4
I0403 13:55:31.260097 12254 net.cpp:148] Top shape: 100 384 13 13 (6489600)
I0403 13:55:31.260148 12254 net.cpp:156] Memory required for data: 757439600
I0403 13:55:31.260169 12254 layer_factory.hpp:77] Creating layer relu4
I0403 13:55:31.260190 12254 net.cpp:91] Creating Layer relu4
I0403 13:55:31.260207 12254 net.cpp:425] relu4 <- conv4
I0403 13:55:31.260226 12254 net.cpp:386] relu4 -> conv4 (in-place)
I0403 13:55:31.260500 12254 net.cpp:141] Setting up relu4
I0403 13:55:31.260535 12254 net.cpp:148] Top shape: 100 384 13 13 (6489600)
I0403 13:55:31.260550 12254 net.cpp:156] Memory required for data: 783398000
I0403 13:55:31.260565 12254 layer_factory.hpp:77] Creating layer conv5
I0403 13:55:31.260604 12254 net.cpp:91] Creating Layer conv5
I0403 13:55:31.260622 12254 net.cpp:425] conv5 <- conv4
I0403 13:55:31.260643 12254 net.cpp:399] conv5 -> conv5
I0403 13:55:31.281126 12254 net.cpp:141] Setting up conv5
I0403 13:55:31.281167 12254 net.cpp:148] Top shape: 100 256 13 13 (4326400)
I0403 13:55:31.281183 12254 net.cpp:156] Memory required for data: 800703600
I0403 13:55:31.281209 12254 layer_factory.hpp:77] Creating layer relu5
I0403 13:55:31.281230 12254 net.cpp:91] Creating Layer relu5
I0403 13:55:31.281246 12254 net.cpp:425] relu5 <- conv5
I0403 13:55:31.281265 12254 net.cpp:386] relu5 -> conv5 (in-place)
I0403 13:55:31.281541 12254 net.cpp:141] Setting up relu5
I0403 13:55:31.281575 12254 net.cpp:148] Top shape: 100 256 13 13 (4326400)
I0403 13:55:31.281594 12254 net.cpp:156] Memory required for data: 818009200
I0403 13:55:31.281608 12254 layer_factory.hpp:77] Creating layer pool5
I0403 13:55:31.281630 12254 net.cpp:91] Creating Layer pool5
I0403 13:55:31.281646 12254 net.cpp:425] pool5 <- conv5
I0403 13:55:31.281666 12254 net.cpp:399] pool5 -> pool5
I0403 13:55:31.281726 12254 net.cpp:141] Setting up pool5
I0403 13:55:31.281749 12254 net.cpp:148] Top shape: 100 256 6 6 (921600)
I0403 13:55:31.281764 12254 net.cpp:156] Memory required for data: 821695600
I0403 13:55:31.281779 12254 layer_factory.hpp:77] Creating layer fc6
I0403 13:55:31.281808 12254 net.cpp:91] Creating Layer fc6
I0403 13:55:31.281827 12254 net.cpp:425] fc6 <- pool5
I0403 13:55:31.281847 12254 net.cpp:399] fc6 -> fc6
I0403 13:55:32.818717 12254 net.cpp:141] Setting up fc6
I0403 13:55:32.818761 12254 net.cpp:148] Top shape: 100 4096 (409600)
I0403 13:55:32.818778 12254 net.cpp:156] Memory required for data: 823334000
I0403 13:55:32.818796 12254 layer_factory.hpp:77] Creating layer relu6
I0403 13:55:32.818819 12254 net.cpp:91] Creating Layer relu6
I0403 13:55:32.818835 12254 net.cpp:425] relu6 <- fc6
I0403 13:55:32.818856 12254 net.cpp:386] relu6 -> fc6 (in-place)
I0403 13:55:32.819067 12254 net.cpp:141] Setting up relu6
I0403 13:55:32.819092 12254 net.cpp:148] Top shape: 100 4096 (409600)
I0403 13:55:32.819105 12254 net.cpp:156] Memory required for data: 824972400
I0403 13:55:32.819119 12254 layer_factory.hpp:77] Creating layer drop6
I0403 13:55:32.819139 12254 net.cpp:91] Creating Layer drop6
I0403 13:55:32.819155 12254 net.cpp:425] drop6 <- fc6
I0403 13:55:32.819170 12254 net.cpp:386] drop6 -> fc6 (in-place)
I0403 13:55:32.819221 12254 net.cpp:141] Setting up drop6
I0403 13:55:32.819244 12254 net.cpp:148] Top shape: 100 4096 (409600)
I0403 13:55:32.819257 12254 net.cpp:156] Memory required for data: 826610800
I0403 13:55:32.819272 12254 layer_factory.hpp:77] Creating layer fc7
I0403 13:55:32.819293 12254 net.cpp:91] Creating Layer fc7
I0403 13:55:32.819308 12254 net.cpp:425] fc7 <- fc6
I0403 13:55:32.819324 12254 net.cpp:399] fc7 -> fc7
I0403 13:55:33.494155 12254 net.cpp:141] Setting up fc7
I0403 13:55:33.494228 12254 net.cpp:148] Top shape: 100 4096 (409600)
I0403 13:55:33.494245 12254 net.cpp:156] Memory required for data: 828249200
I0403 13:55:33.494266 12254 layer_factory.hpp:77] Creating layer relu7
I0403 13:55:33.494289 12254 net.cpp:91] Creating Layer relu7
I0403 13:55:33.494307 12254 net.cpp:425] relu7 <- fc7
I0403 13:55:33.494325 12254 net.cpp:386] relu7 -> fc7 (in-place)
I0403 13:55:33.494735 12254 net.cpp:141] Setting up relu7
I0403 13:55:33.494762 12254 net.cpp:148] Top shape: 100 4096 (409600)
I0403 13:55:33.494817 12254 net.cpp:156] Memory required for data: 829887600
I0403 13:55:33.494833 12254 layer_factory.hpp:77] Creating layer drop7
I0403 13:55:33.494854 12254 net.cpp:91] Creating Layer drop7
I0403 13:55:33.494869 12254 net.cpp:425] drop7 <- fc7
I0403 13:55:33.494886 12254 net.cpp:386] drop7 -> fc7 (in-place)
I0403 13:55:33.494931 12254 net.cpp:141] Setting up drop7
I0403 13:55:33.494954 12254 net.cpp:148] Top shape: 100 4096 (409600)
I0403 13:55:33.494968 12254 net.cpp:156] Memory required for data: 831526000
I0403 13:55:33.494982 12254 layer_factory.hpp:77] Creating layer fc8_plantvillage
I0403 13:55:33.495002 12254 net.cpp:91] Creating Layer fc8_plantvillage
I0403 13:55:33.495015 12254 net.cpp:425] fc8_plantvillage <- fc7
I0403 13:55:33.495034 12254 net.cpp:399] fc8_plantvillage -> fc8_plantvillage
I0403 13:55:33.501703 12254 net.cpp:141] Setting up fc8_plantvillage
I0403 13:55:33.501731 12254 net.cpp:148] Top shape: 100 38 (3800)
I0403 13:55:33.501747 12254 net.cpp:156] Memory required for data: 831541200
I0403 13:55:33.501766 12254 layer_factory.hpp:77] Creating layer fc8_plantvillage_fc8_plantvillage_0_split
I0403 13:55:33.501785 12254 net.cpp:91] Creating Layer fc8_plantvillage_fc8_plantvillage_0_split
I0403 13:55:33.501801 12254 net.cpp:425] fc8_plantvillage_fc8_plantvillage_0_split <- fc8_plantvillage
I0403 13:55:33.501816 12254 net.cpp:399] fc8_plantvillage_fc8_plantvillage_0_split -> fc8_plantvillage_fc8_plantvillage_0_split_0
I0403 13:55:33.501835 12254 net.cpp:399] fc8_plantvillage_fc8_plantvillage_0_split -> fc8_plantvillage_fc8_plantvillage_0_split_1
I0403 13:55:33.501854 12254 net.cpp:399] fc8_plantvillage_fc8_plantvillage_0_split -> fc8_plantvillage_fc8_plantvillage_0_split_2
I0403 13:55:33.501929 12254 net.cpp:141] Setting up fc8_plantvillage_fc8_plantvillage_0_split
I0403 13:55:33.501951 12254 net.cpp:148] Top shape: 100 38 (3800)
I0403 13:55:33.501966 12254 net.cpp:148] Top shape: 100 38 (3800)
I0403 13:55:33.501981 12254 net.cpp:148] Top shape: 100 38 (3800)
I0403 13:55:33.501993 12254 net.cpp:156] Memory required for data: 831586800
I0403 13:55:33.502007 12254 layer_factory.hpp:77] Creating layer prob
I0403 13:55:33.502025 12254 net.cpp:91] Creating Layer prob
I0403 13:55:33.502039 12254 net.cpp:425] prob <- fc8_plantvillage_fc8_plantvillage_0_split_0
I0403 13:55:33.502056 12254 net.cpp:399] prob -> prob
I0403 13:55:33.502275 12254 net.cpp:141] Setting up prob
I0403 13:55:33.502300 12254 net.cpp:148] Top shape: 100 38 (3800)
I0403 13:55:33.502313 12254 net.cpp:156] Memory required for data: 831602000
I0403 13:55:33.502327 12254 layer_factory.hpp:77] Creating layer hdf5out
I0403 13:55:33.502348 12254 net.cpp:91] Creating Layer hdf5out
I0403 13:55:33.502365 12254 net.cpp:425] hdf5out <- prob
I0403 13:55:33.502380 12254 net.cpp:425] hdf5out <- label_data_1_split_0
I0403 13:55:33.506701 12254 net.cpp:141] Setting up hdf5out
…
