…
I0403 12:40:21.428390 26572 net.cpp:313] The NetState phase (1) differed from the phase (0) specified by a rule in layer data
I0403 12:40:21.428707 26572 net.cpp:49] Initializing net from parameters: 
state {
  phase: TEST
}
layer {
  name: "data"
  type: "Data"
  top: "data"
  top: "label"
  include {
    phase: TEST
  }
  transform_param {
    crop_size: 227
    mean_file: "/home/mohanty/data/final_dataset/lmdb/color-40-60/mean.binaryproto"
  }
  data_param {
    source: "/home/mohanty/data/final_dataset/lmdb/color-40-60/test_db"
    batch_size: 100
    backend: LMDB
  }
}
layer {
  name: "conv1"
  type: "Convolution"
  bottom: "data"
  top: "conv1"
  param {
    lr_mult: 1
    decay_mult: 1
  }
  param {
    lr_mult: 2
    decay_mult: 0
  }
  convolution_param {
    num_output: 96
    kernel_size: 11
    stride: 4
    weight_filler {
      type: "gaussian"
      std: 0.01
    }
    bias_filler {
      type: "constant"
      value: 0
    }
  }
}
layer {
  name: "relu1"
  type: "ReLU"
  bottom: "conv1"
  top: "conv1"
}
layer {
  name: "norm1"
  type: "LRN"
  bottom: "conv1"
  top: "norm1"
  lrn_param {
    local_size: 5
    alpha: 0.0001
    beta: 0.75
  }
}
layer {
  name: "pool1"
  type: "Pooling"
  bottom: "norm1"
  top: "pool1"
  pooling_param {
    pool: MAX
    kernel_size: 3
    stride: 2
  }
}
layer {
  name: "conv2"
  type: "Convolution"
  bottom: "pool1"
  top: "conv2"
  param {
    lr_mult: 1
    decay_mult: 1
  }
  param {
    lr_mult: 2
    decay_mult: 0
  }
  convolution_param {
    num_output: 256
    pad: 2
    kernel_size: 5
    group: 2
    weight_filler {
      type: "gaussian"
      std: 0.01
    }
    bias_filler {
      type: "constant"
      value: 0.1
    }
  }
}
layer {
  name: "relu2"
  type: "ReLU"
  bottom: "conv2"
  top: "conv2"
}
layer {
  name: "norm2"
  type: "LRN"
  bottom: "conv2"
  top: "norm2"
  lrn_param {
    local_size: 5
    alpha: 0.0001
    beta: 0.75
  }
}
layer {
  name: "pool2"
  type: "Pooling"
  bottom: "norm2"
  top: "pool2"
  pooling_param {
    pool: MAX
    kernel_size: 3
    stride: 2
  }
}
layer {
  name: "conv3"
  type: "Convolution"
  bottom: "pool2"
  top: "conv3"
  param {
    lr_mult: 1
    decay_mult: 1
  }
  param {
    lr_mult: 2
    decay_mult: 0
  }
  convolution_param {
    num_output: 384
    pad: 1
    kernel_size: 3
    weight_filler {
      type: "gaussian"
      std: 0.01
    }
    bias_filler {
      type: "constant"
      value: 0
    }
  }
}
layer {
  name: "relu3"
  type: "ReLU"
  bottom: "conv3"
  top: "conv3"
}
layer {
  name: "conv4"
  type: "Convolution"
  bottom: "conv3"
  top: "conv4"
  param {
    lr_mult: 1
    decay_mult: 1
  }
  param {
    lr_mult: 2
    decay_mult: 0
  }
  convolution_param {
    num_output: 384
    pad: 1
    kernel_size: 3
    group: 2
    weight_filler {
      type: "gaussian"
      std: 0.01
    }
    bias_filler {
      type: "constant"
      value: 0.1
    }
  }
}
layer {
  name: "relu4"
  type: "ReLU"
  bottom: "conv4"
  top: "conv4"
}
layer {
  name: "conv5"
  type: "Convolution"
  bottom: "conv4"
  top: "conv5"
  param {
    lr_mult: 1
    decay_mult: 1
  }
  param {
    lr_mult: 2
    decay_mult: 0
  }
  convolution_param {
    num_output: 256
    pad: 1
    kernel_size: 3
    group: 2
    weight_filler {
      type: "gaussian"
      std: 0.01
    }
    bias_filler {
      type: "constant"
      value: 0.1
    }
  }
}
layer {
  name: "relu5"
  type: "ReLU"
  bottom: "conv5"
  top: "conv5"
}
layer {
  name: "pool5"
  type: "Pooling"
  bottom: "conv5"
  top: "pool5"
  pooling_param {
    pool: MAX
    kernel_size: 3
    stride: 2
  }
}
layer {
  name: "fc6"
  type: "InnerProduct"
  bottom: "pool5"
  top: "fc6"
  param {
    lr_mult: 1
    decay_mult: 1
  }
  param {
    lr_mult: 2
    decay_mult: 0
  }
  inner_product_param {
    num_output: 4096
    weight_filler {
      type: "gaussian"
      std: 0.005
    }
    bias_filler {
      type: "constant"
      value: 0.1
    }
  }
}
layer {
  name: "relu6"
  type: "ReLU"
  bottom: "fc6"
  top: "fc6"
}
layer {
  name: "drop6"
  type: "Dropout"
  bottom: "fc6"
  top: "fc6"
  dropout_param {
    dropout_ratio: 0.5
  }
}
layer {
  name: "fc7"
  type: "InnerProduct"
  bottom: "fc6"
  top: "fc7"
  param {
    lr_mult: 1
    decay_mult: 1
  }
  param {
    lr_mult: 2
    decay_mult: 0
  }
  inner_product_param {
    num_output: 4096
    weight_filler {
      type: "gaussian"
      std: 0.005
    }
    bias_filler {
      type: "constant"
      value: 0.1
    }
  }
}
layer {
  name: "relu7"
  type: "ReLU"
  bottom: "fc7"
  top: "fc7"
}
layer {
  name: "drop7"
  type: "Dropout"
  bottom: "fc7"
  top: "fc7"
  dropout_param {
    dropout_ratio: 0.5
  }
}
layer {
  name: "fc8_plantvillage"
  type: "InnerProduct"
  bottom: "fc7"
  top: "fc8_plantvillage"
  param {
    lr_mult: 1
    decay_mult: 1
  }
  param {
    lr_mult: 2
    decay_mult: 0
  }
  inner_product_param {
    num_output: 38
    weight_filler {
      type: "gaussian"
      std: 0.01
    }
    bias_filler {
      type: "constant"
      value: 0
    }
  }
}
layer {
  name: "prob"
  type: "Softmax"
  bottom: "fc8_plantvillage"
  top: "prob"
  include {
    phase: TEST
  }
}
layer {
  name: "hdf5out"
  type: "HDF5Output"
  bottom: "prob"
  bottom: "label"
  include {
    phase: TEST
  }
  hdf5_output_param {
    file_name: "hdf5_dumps/iter_4557.h5"
  }
}
layer {
  name: "loss"
  type: "SoftmaxWithLoss"
  bottom: "fc8_plantvillage"
  bottom: "label"
  top: "loss"
}
layer {
  name: "accuracy"
  type: "Accuracy"
  bottom: "fc8_plantvillage"
  bottom: "label"
  top: "accuracy"
  include {
    phase: TEST
  }
}
I0403 12:40:21.429280 26572 layer_factory.hpp:77] Creating layer data
I0403 12:40:21.429941 26572 net.cpp:91] Creating Layer data
I0403 12:40:21.429973 26572 net.cpp:399] data -> data
I0403 12:40:21.430024 26572 net.cpp:399] data -> label
I0403 12:40:21.430064 26572 data_transformer.cpp:25] Loading mean file from: /home/mohanty/data/final_dataset/lmdb/color-40-60/mean.binaryproto
I0403 12:40:21.432271 26575 db_lmdb.cpp:38] Opened lmdb /home/mohanty/data/final_dataset/lmdb/color-40-60/test_db
I0403 12:40:21.444741 26572 data_layer.cpp:41] output data size: 100,3,227,227
I0403 12:40:21.567998 26572 net.cpp:141] Setting up data
I0403 12:40:21.568089 26572 net.cpp:148] Top shape: 100 3 227 227 (15458700)
I0403 12:40:21.568114 26572 net.cpp:148] Top shape: 100 (100)
I0403 12:40:21.568130 26572 net.cpp:156] Memory required for data: 61835200
I0403 12:40:21.568159 26572 layer_factory.hpp:77] Creating layer label_data_1_split
I0403 12:40:21.568186 26572 net.cpp:91] Creating Layer label_data_1_split
I0403 12:40:21.568205 26572 net.cpp:425] label_data_1_split <- label
I0403 12:40:21.568236 26572 net.cpp:399] label_data_1_split -> label_data_1_split_0
I0403 12:40:21.568265 26572 net.cpp:399] label_data_1_split -> label_data_1_split_1
I0403 12:40:21.568287 26572 net.cpp:399] label_data_1_split -> label_data_1_split_2
I0403 12:40:21.568358 26572 net.cpp:141] Setting up label_data_1_split
I0403 12:40:21.568384 26572 net.cpp:148] Top shape: 100 (100)
I0403 12:40:21.568403 26572 net.cpp:148] Top shape: 100 (100)
I0403 12:40:21.568419 26572 net.cpp:148] Top shape: 100 (100)
I0403 12:40:21.568434 26572 net.cpp:156] Memory required for data: 61836400
I0403 12:40:21.568450 26572 layer_factory.hpp:77] Creating layer conv1
I0403 12:40:21.568483 26572 net.cpp:91] Creating Layer conv1
I0403 12:40:21.568502 26572 net.cpp:425] conv1 <- data
I0403 12:40:21.568524 26572 net.cpp:399] conv1 -> conv1
I0403 12:40:21.711902 26572 net.cpp:141] Setting up conv1
I0403 12:40:21.711979 26572 net.cpp:148] Top shape: 100 96 55 55 (29040000)
I0403 12:40:21.711997 26572 net.cpp:156] Memory required for data: 177996400
I0403 12:40:21.712028 26572 layer_factory.hpp:77] Creating layer relu1
I0403 12:40:21.712054 26572 net.cpp:91] Creating Layer relu1
I0403 12:40:21.712074 26572 net.cpp:425] relu1 <- conv1
I0403 12:40:21.712093 26572 net.cpp:386] relu1 -> conv1 (in-place)
I0403 12:40:21.712362 26572 net.cpp:141] Setting up relu1
I0403 12:40:21.712389 26572 net.cpp:148] Top shape: 100 96 55 55 (29040000)
I0403 12:40:21.712406 26572 net.cpp:156] Memory required for data: 294156400
I0403 12:40:21.712453 26572 layer_factory.hpp:77] Creating layer norm1
I0403 12:40:21.712483 26572 net.cpp:91] Creating Layer norm1
I0403 12:40:21.712502 26572 net.cpp:425] norm1 <- conv1
I0403 12:40:21.712522 26572 net.cpp:399] norm1 -> norm1
I0403 12:40:21.712853 26572 net.cpp:141] Setting up norm1
I0403 12:40:21.712882 26572 net.cpp:148] Top shape: 100 96 55 55 (29040000)
I0403 12:40:21.712899 26572 net.cpp:156] Memory required for data: 410316400
I0403 12:40:21.712929 26572 layer_factory.hpp:77] Creating layer pool1
I0403 12:40:21.712950 26572 net.cpp:91] Creating Layer pool1
I0403 12:40:21.712968 26572 net.cpp:425] pool1 <- norm1
I0403 12:40:21.712986 26572 net.cpp:399] pool1 -> pool1
I0403 12:40:21.713053 26572 net.cpp:141] Setting up pool1
I0403 12:40:21.713078 26572 net.cpp:148] Top shape: 100 96 27 27 (6998400)
I0403 12:40:21.713094 26572 net.cpp:156] Memory required for data: 438310000
I0403 12:40:21.713109 26572 layer_factory.hpp:77] Creating layer conv2
I0403 12:40:21.713135 26572 net.cpp:91] Creating Layer conv2
I0403 12:40:21.713151 26572 net.cpp:425] conv2 <- pool1
I0403 12:40:21.713171 26572 net.cpp:399] conv2 -> conv2
I0403 12:40:21.728152 26572 net.cpp:141] Setting up conv2
I0403 12:40:21.728193 26572 net.cpp:148] Top shape: 100 256 27 27 (18662400)
I0403 12:40:21.728212 26572 net.cpp:156] Memory required for data: 512959600
I0403 12:40:21.728267 26572 layer_factory.hpp:77] Creating layer relu2
I0403 12:40:21.728291 26572 net.cpp:91] Creating Layer relu2
I0403 12:40:21.728307 26572 net.cpp:425] relu2 <- conv2
I0403 12:40:21.728332 26572 net.cpp:386] relu2 -> conv2 (in-place)
I0403 12:40:21.728600 26572 net.cpp:141] Setting up relu2
I0403 12:40:21.728628 26572 net.cpp:148] Top shape: 100 256 27 27 (18662400)
I0403 12:40:21.728644 26572 net.cpp:156] Memory required for data: 587609200
I0403 12:40:21.728660 26572 layer_factory.hpp:77] Creating layer norm2
I0403 12:40:21.728682 26572 net.cpp:91] Creating Layer norm2
I0403 12:40:21.728698 26572 net.cpp:425] norm2 <- conv2
I0403 12:40:21.728718 26572 net.cpp:399] norm2 -> norm2
I0403 12:40:21.728902 26572 net.cpp:141] Setting up norm2
I0403 12:40:21.728929 26572 net.cpp:148] Top shape: 100 256 27 27 (18662400)
I0403 12:40:21.728945 26572 net.cpp:156] Memory required for data: 662258800
I0403 12:40:21.728961 26572 layer_factory.hpp:77] Creating layer pool2
I0403 12:40:21.728979 26572 net.cpp:91] Creating Layer pool2
I0403 12:40:21.728996 26572 net.cpp:425] pool2 <- norm2
I0403 12:40:21.729015 26572 net.cpp:399] pool2 -> pool2
I0403 12:40:21.729064 26572 net.cpp:141] Setting up pool2
I0403 12:40:21.729089 26572 net.cpp:148] Top shape: 100 256 13 13 (4326400)
I0403 12:40:21.729104 26572 net.cpp:156] Memory required for data: 679564400
I0403 12:40:21.729118 26572 layer_factory.hpp:77] Creating layer conv3
I0403 12:40:21.729140 26572 net.cpp:91] Creating Layer conv3
I0403 12:40:21.729156 26572 net.cpp:425] conv3 <- pool2
I0403 12:40:21.729176 26572 net.cpp:399] conv3 -> conv3
I0403 12:40:21.770889 26572 net.cpp:141] Setting up conv3
I0403 12:40:21.770970 26572 net.cpp:148] Top shape: 100 384 13 13 (6489600)
I0403 12:40:21.770988 26572 net.cpp:156] Memory required for data: 705522800
I0403 12:40:21.771015 26572 layer_factory.hpp:77] Creating layer relu3
I0403 12:40:21.771041 26572 net.cpp:91] Creating Layer relu3
I0403 12:40:21.771060 26572 net.cpp:425] relu3 <- conv3
I0403 12:40:21.771080 26572 net.cpp:386] relu3 -> conv3 (in-place)
I0403 12:40:21.771370 26572 net.cpp:141] Setting up relu3
I0403 12:40:21.771400 26572 net.cpp:148] Top shape: 100 384 13 13 (6489600)
I0403 12:40:21.771416 26572 net.cpp:156] Memory required for data: 731481200
I0403 12:40:21.771433 26572 layer_factory.hpp:77] Creating layer conv4
I0403 12:40:21.771461 26572 net.cpp:91] Creating Layer conv4
I0403 12:40:21.771481 26572 net.cpp:425] conv4 <- conv3
I0403 12:40:21.771503 26572 net.cpp:399] conv4 -> conv4
I0403 12:40:21.801379 26572 net.cpp:141] Setting up conv4
I0403 12:40:21.801448 26572 net.cpp:148] Top shape: 100 384 13 13 (6489600)
I0403 12:40:21.801498 26572 net.cpp:156] Memory required for data: 757439600
I0403 12:40:21.801522 26572 layer_factory.hpp:77] Creating layer relu4
I0403 12:40:21.801545 26572 net.cpp:91] Creating Layer relu4
I0403 12:40:21.801563 26572 net.cpp:425] relu4 <- conv4
I0403 12:40:21.801584 26572 net.cpp:386] relu4 -> conv4 (in-place)
I0403 12:40:21.801867 26572 net.cpp:141] Setting up relu4
I0403 12:40:21.801897 26572 net.cpp:148] Top shape: 100 384 13 13 (6489600)
I0403 12:40:21.801913 26572 net.cpp:156] Memory required for data: 783398000
I0403 12:40:21.801929 26572 layer_factory.hpp:77] Creating layer conv5
I0403 12:40:21.801955 26572 net.cpp:91] Creating Layer conv5
I0403 12:40:21.801973 26572 net.cpp:425] conv5 <- conv4
I0403 12:40:21.801992 26572 net.cpp:399] conv5 -> conv5
I0403 12:40:21.822482 26572 net.cpp:141] Setting up conv5
I0403 12:40:21.822540 26572 net.cpp:148] Top shape: 100 256 13 13 (4326400)
I0403 12:40:21.822557 26572 net.cpp:156] Memory required for data: 800703600
I0403 12:40:21.822594 26572 layer_factory.hpp:77] Creating layer relu5
I0403 12:40:21.822615 26572 net.cpp:91] Creating Layer relu5
I0403 12:40:21.822633 26572 net.cpp:425] relu5 <- conv5
I0403 12:40:21.822655 26572 net.cpp:386] relu5 -> conv5 (in-place)
I0403 12:40:21.822935 26572 net.cpp:141] Setting up relu5
I0403 12:40:21.822963 26572 net.cpp:148] Top shape: 100 256 13 13 (4326400)
I0403 12:40:21.822980 26572 net.cpp:156] Memory required for data: 818009200
I0403 12:40:21.822995 26572 layer_factory.hpp:77] Creating layer pool5
I0403 12:40:21.823021 26572 net.cpp:91] Creating Layer pool5
I0403 12:40:21.823040 26572 net.cpp:425] pool5 <- conv5
I0403 12:40:21.823060 26572 net.cpp:399] pool5 -> pool5
I0403 12:40:21.823122 26572 net.cpp:141] Setting up pool5
I0403 12:40:21.823148 26572 net.cpp:148] Top shape: 100 256 6 6 (921600)
I0403 12:40:21.823163 26572 net.cpp:156] Memory required for data: 821695600
I0403 12:40:21.823179 26572 layer_factory.hpp:77] Creating layer fc6
I0403 12:40:21.823207 26572 net.cpp:91] Creating Layer fc6
I0403 12:40:21.823227 26572 net.cpp:425] fc6 <- pool5
I0403 12:40:21.823246 26572 net.cpp:399] fc6 -> fc6
I0403 12:40:23.388777 26572 net.cpp:141] Setting up fc6
I0403 12:40:23.388864 26572 net.cpp:148] Top shape: 100 4096 (409600)
I0403 12:40:23.388880 26572 net.cpp:156] Memory required for data: 823334000
I0403 12:40:23.388901 26572 layer_factory.hpp:77] Creating layer relu6
I0403 12:40:23.388923 26572 net.cpp:91] Creating Layer relu6
I0403 12:40:23.388942 26572 net.cpp:425] relu6 <- fc6
I0403 12:40:23.388963 26572 net.cpp:386] relu6 -> fc6 (in-place)
I0403 12:40:23.389181 26572 net.cpp:141] Setting up relu6
I0403 12:40:23.389205 26572 net.cpp:148] Top shape: 100 4096 (409600)
I0403 12:40:23.389220 26572 net.cpp:156] Memory required for data: 824972400
I0403 12:40:23.389235 26572 layer_factory.hpp:77] Creating layer drop6
I0403 12:40:23.389253 26572 net.cpp:91] Creating Layer drop6
I0403 12:40:23.389269 26572 net.cpp:425] drop6 <- fc6
I0403 12:40:23.389289 26572 net.cpp:386] drop6 -> fc6 (in-place)
I0403 12:40:23.389344 26572 net.cpp:141] Setting up drop6
I0403 12:40:23.389370 26572 net.cpp:148] Top shape: 100 4096 (409600)
I0403 12:40:23.389386 26572 net.cpp:156] Memory required for data: 826610800
I0403 12:40:23.389401 26572 layer_factory.hpp:77] Creating layer fc7
I0403 12:40:23.389421 26572 net.cpp:91] Creating Layer fc7
I0403 12:40:23.389438 26572 net.cpp:425] fc7 <- fc6
I0403 12:40:23.389459 26572 net.cpp:399] fc7 -> fc7
I0403 12:40:24.075893 26572 net.cpp:141] Setting up fc7
I0403 12:40:24.075943 26572 net.cpp:148] Top shape: 100 4096 (409600)
I0403 12:40:24.075960 26572 net.cpp:156] Memory required for data: 828249200
I0403 12:40:24.075981 26572 layer_factory.hpp:77] Creating layer relu7
I0403 12:40:24.076004 26572 net.cpp:91] Creating Layer relu7
I0403 12:40:24.076022 26572 net.cpp:425] relu7 <- fc7
I0403 12:40:24.076045 26572 net.cpp:386] relu7 -> fc7 (in-place)
I0403 12:40:24.076457 26572 net.cpp:141] Setting up relu7
I0403 12:40:24.076483 26572 net.cpp:148] Top shape: 100 4096 (409600)
I0403 12:40:24.076544 26572 net.cpp:156] Memory required for data: 829887600
I0403 12:40:24.076560 26572 layer_factory.hpp:77] Creating layer drop7
I0403 12:40:24.076580 26572 net.cpp:91] Creating Layer drop7
I0403 12:40:24.076596 26572 net.cpp:425] drop7 <- fc7
I0403 12:40:24.076616 26572 net.cpp:386] drop7 -> fc7 (in-place)
I0403 12:40:24.076658 26572 net.cpp:141] Setting up drop7
I0403 12:40:24.076681 26572 net.cpp:148] Top shape: 100 4096 (409600)
I0403 12:40:24.076697 26572 net.cpp:156] Memory required for data: 831526000
I0403 12:40:24.076712 26572 layer_factory.hpp:77] Creating layer fc8_plantvillage
I0403 12:40:24.076731 26572 net.cpp:91] Creating Layer fc8_plantvillage
I0403 12:40:24.076746 26572 net.cpp:425] fc8_plantvillage <- fc7
I0403 12:40:24.076766 26572 net.cpp:399] fc8_plantvillage -> fc8_plantvillage
I0403 12:40:24.083515 26572 net.cpp:141] Setting up fc8_plantvillage
I0403 12:40:24.083544 26572 net.cpp:148] Top shape: 100 38 (3800)
I0403 12:40:24.083560 26572 net.cpp:156] Memory required for data: 831541200
I0403 12:40:24.083578 26572 layer_factory.hpp:77] Creating layer fc8_plantvillage_fc8_plantvillage_0_split
I0403 12:40:24.083596 26572 net.cpp:91] Creating Layer fc8_plantvillage_fc8_plantvillage_0_split
I0403 12:40:24.083611 26572 net.cpp:425] fc8_plantvillage_fc8_plantvillage_0_split <- fc8_plantvillage
I0403 12:40:24.083631 26572 net.cpp:399] fc8_plantvillage_fc8_plantvillage_0_split -> fc8_plantvillage_fc8_plantvillage_0_split_0
I0403 12:40:24.083652 26572 net.cpp:399] fc8_plantvillage_fc8_plantvillage_0_split -> fc8_plantvillage_fc8_plantvillage_0_split_1
I0403 12:40:24.083673 26572 net.cpp:399] fc8_plantvillage_fc8_plantvillage_0_split -> fc8_plantvillage_fc8_plantvillage_0_split_2
I0403 12:40:24.083747 26572 net.cpp:141] Setting up fc8_plantvillage_fc8_plantvillage_0_split
I0403 12:40:24.083770 26572 net.cpp:148] Top shape: 100 38 (3800)
I0403 12:40:24.083786 26572 net.cpp:148] Top shape: 100 38 (3800)
I0403 12:40:24.083801 26572 net.cpp:148] Top shape: 100 38 (3800)
I0403 12:40:24.083814 26572 net.cpp:156] Memory required for data: 831586800
I0403 12:40:24.083828 26572 layer_factory.hpp:77] Creating layer prob
I0403 12:40:24.083847 26572 net.cpp:91] Creating Layer prob
I0403 12:40:24.083863 26572 net.cpp:425] prob <- fc8_plantvillage_fc8_plantvillage_0_split_0
I0403 12:40:24.083881 26572 net.cpp:399] prob -> prob
I0403 12:40:24.084100 26572 net.cpp:141] Setting up prob
I0403 12:40:24.084125 26572 net.cpp:148] Top shape: 100 38 (3800)
I0403 12:40:24.084141 26572 net.cpp:156] Memory required for data: 831602000
I0403 12:40:24.084156 26572 layer_factory.hpp:77] Creating layer hdf5out
I0403 12:40:24.084175 26572 net.cpp:91] Creating Layer hdf5out
I0403 12:40:24.084190 26572 net.cpp:425] hdf5out <- prob
I0403 12:40:24.084206 26572 net.cpp:425] hdf5out <- label_data_1_split_0
I0403 12:40:24.087707 26572 net.cpp:141] Setting up hdf5out
…
