…
I0403 12:27:07.609455 26260 net.cpp:313] The NetState phase (1) differed from the phase (0) specified by a rule in layer data
I0403 12:27:07.609782 26260 net.cpp:49] Initializing net from parameters: 
state {
  phase: TEST
}
layer {
  name: "data"
  type: "Data"
  top: "data"
  top: "label"
  include {
    phase: TEST
  }
  transform_param {
    crop_size: 227
    mean_file: "/home/mohanty/data/final_dataset/lmdb/color-40-60/mean.binaryproto"
  }
  data_param {
    source: "/home/mohanty/data/final_dataset/lmdb/color-40-60/test_db"
    batch_size: 100
    backend: LMDB
  }
}
layer {
  name: "conv1"
  type: "Convolution"
  bottom: "data"
  top: "conv1"
  param {
    lr_mult: 1
    decay_mult: 1
  }
  param {
    lr_mult: 2
    decay_mult: 0
  }
  convolution_param {
    num_output: 96
    kernel_size: 11
    stride: 4
    weight_filler {
      type: "gaussian"
      std: 0.01
    }
    bias_filler {
      type: "constant"
      value: 0
    }
  }
}
layer {
  name: "relu1"
  type: "ReLU"
  bottom: "conv1"
  top: "conv1"
}
layer {
  name: "norm1"
  type: "LRN"
  bottom: "conv1"
  top: "norm1"
  lrn_param {
    local_size: 5
    alpha: 0.0001
    beta: 0.75
  }
}
layer {
  name: "pool1"
  type: "Pooling"
  bottom: "norm1"
  top: "pool1"
  pooling_param {
    pool: MAX
    kernel_size: 3
    stride: 2
  }
}
layer {
  name: "conv2"
  type: "Convolution"
  bottom: "pool1"
  top: "conv2"
  param {
    lr_mult: 1
    decay_mult: 1
  }
  param {
    lr_mult: 2
    decay_mult: 0
  }
  convolution_param {
    num_output: 256
    pad: 2
    kernel_size: 5
    group: 2
    weight_filler {
      type: "gaussian"
      std: 0.01
    }
    bias_filler {
      type: "constant"
      value: 0.1
    }
  }
}
layer {
  name: "relu2"
  type: "ReLU"
  bottom: "conv2"
  top: "conv2"
}
layer {
  name: "norm2"
  type: "LRN"
  bottom: "conv2"
  top: "norm2"
  lrn_param {
    local_size: 5
    alpha: 0.0001
    beta: 0.75
  }
}
layer {
  name: "pool2"
  type: "Pooling"
  bottom: "norm2"
  top: "pool2"
  pooling_param {
    pool: MAX
    kernel_size: 3
    stride: 2
  }
}
layer {
  name: "conv3"
  type: "Convolution"
  bottom: "pool2"
  top: "conv3"
  param {
    lr_mult: 1
    decay_mult: 1
  }
  param {
    lr_mult: 2
    decay_mult: 0
  }
  convolution_param {
    num_output: 384
    pad: 1
    kernel_size: 3
    weight_filler {
      type: "gaussian"
      std: 0.01
    }
    bias_filler {
      type: "constant"
      value: 0
    }
  }
}
layer {
  name: "relu3"
  type: "ReLU"
  bottom: "conv3"
  top: "conv3"
}
layer {
  name: "conv4"
  type: "Convolution"
  bottom: "conv3"
  top: "conv4"
  param {
    lr_mult: 1
    decay_mult: 1
  }
  param {
    lr_mult: 2
    decay_mult: 0
  }
  convolution_param {
    num_output: 384
    pad: 1
    kernel_size: 3
    group: 2
    weight_filler {
      type: "gaussian"
      std: 0.01
    }
    bias_filler {
      type: "constant"
      value: 0.1
    }
  }
}
layer {
  name: "relu4"
  type: "ReLU"
  bottom: "conv4"
  top: "conv4"
}
layer {
  name: "conv5"
  type: "Convolution"
  bottom: "conv4"
  top: "conv5"
  param {
    lr_mult: 1
    decay_mult: 1
  }
  param {
    lr_mult: 2
    decay_mult: 0
  }
  convolution_param {
    num_output: 256
    pad: 1
    kernel_size: 3
    group: 2
    weight_filler {
      type: "gaussian"
      std: 0.01
    }
    bias_filler {
      type: "constant"
      value: 0.1
    }
  }
}
layer {
  name: "relu5"
  type: "ReLU"
  bottom: "conv5"
  top: "conv5"
}
layer {
  name: "pool5"
  type: "Pooling"
  bottom: "conv5"
  top: "pool5"
  pooling_param {
    pool: MAX
    kernel_size: 3
    stride: 2
  }
}
layer {
  name: "fc6"
  type: "InnerProduct"
  bottom: "pool5"
  top: "fc6"
  param {
    lr_mult: 1
    decay_mult: 1
  }
  param {
    lr_mult: 2
    decay_mult: 0
  }
  inner_product_param {
    num_output: 4096
    weight_filler {
      type: "gaussian"
      std: 0.005
    }
    bias_filler {
      type: "constant"
      value: 0.1
    }
  }
}
layer {
  name: "relu6"
  type: "ReLU"
  bottom: "fc6"
  top: "fc6"
}
layer {
  name: "drop6"
  type: "Dropout"
  bottom: "fc6"
  top: "fc6"
  dropout_param {
    dropout_ratio: 0.5
  }
}
layer {
  name: "fc7"
  type: "InnerProduct"
  bottom: "fc6"
  top: "fc7"
  param {
    lr_mult: 1
    decay_mult: 1
  }
  param {
    lr_mult: 2
    decay_mult: 0
  }
  inner_product_param {
    num_output: 4096
    weight_filler {
      type: "gaussian"
      std: 0.005
    }
    bias_filler {
      type: "constant"
      value: 0.1
    }
  }
}
layer {
  name: "relu7"
  type: "ReLU"
  bottom: "fc7"
  top: "fc7"
}
layer {
  name: "drop7"
  type: "Dropout"
  bottom: "fc7"
  top: "fc7"
  dropout_param {
    dropout_ratio: 0.5
  }
}
layer {
  name: "fc8_plantvillage"
  type: "InnerProduct"
  bottom: "fc7"
  top: "fc8_plantvillage"
  param {
    lr_mult: 1
    decay_mult: 1
  }
  param {
    lr_mult: 2
    decay_mult: 0
  }
  inner_product_param {
    num_output: 38
    weight_filler {
      type: "gaussian"
      std: 0.01
    }
    bias_filler {
      type: "constant"
      value: 0
    }
  }
}
layer {
  name: "prob"
  type: "Softmax"
  bottom: "fc8_plantvillage"
  top: "prob"
  include {
    phase: TEST
  }
}
layer {
  name: "hdf5out"
  type: "HDF5Output"
  bottom: "prob"
  bottom: "label"
  include {
    phase: TEST
  }
  hdf5_output_param {
    file_name: "hdf5_dumps/iter_1953.h5"
  }
}
layer {
  name: "loss"
  type: "SoftmaxWithLoss"
  bottom: "fc8_plantvillage"
  bottom: "label"
  top: "loss"
}
layer {
  name: "accuracy"
  type: "Accuracy"
  bottom: "fc8_plantvillage"
  bottom: "label"
  top: "accuracy"
  include {
    phase: TEST
  }
}
I0403 12:27:07.610363 26260 layer_factory.hpp:77] Creating layer data
I0403 12:27:07.611022 26260 net.cpp:91] Creating Layer data
I0403 12:27:07.611057 26260 net.cpp:399] data -> data
I0403 12:27:07.611111 26260 net.cpp:399] data -> label
I0403 12:27:07.611150 26260 data_transformer.cpp:25] Loading mean file from: /home/mohanty/data/final_dataset/lmdb/color-40-60/mean.binaryproto
I0403 12:27:07.614084 26264 db_lmdb.cpp:38] Opened lmdb /home/mohanty/data/final_dataset/lmdb/color-40-60/test_db
I0403 12:27:07.625704 26260 data_layer.cpp:41] output data size: 100,3,227,227
I0403 12:27:07.748046 26260 net.cpp:141] Setting up data
I0403 12:27:07.748108 26260 net.cpp:148] Top shape: 100 3 227 227 (15458700)
I0403 12:27:07.748132 26260 net.cpp:148] Top shape: 100 (100)
I0403 12:27:07.748148 26260 net.cpp:156] Memory required for data: 61835200
I0403 12:27:07.748188 26260 layer_factory.hpp:77] Creating layer label_data_1_split
I0403 12:27:07.748216 26260 net.cpp:91] Creating Layer label_data_1_split
I0403 12:27:07.748234 26260 net.cpp:425] label_data_1_split <- label
I0403 12:27:07.748266 26260 net.cpp:399] label_data_1_split -> label_data_1_split_0
I0403 12:27:07.748296 26260 net.cpp:399] label_data_1_split -> label_data_1_split_1
I0403 12:27:07.748317 26260 net.cpp:399] label_data_1_split -> label_data_1_split_2
I0403 12:27:07.748385 26260 net.cpp:141] Setting up label_data_1_split
I0403 12:27:07.748409 26260 net.cpp:148] Top shape: 100 (100)
I0403 12:27:07.748426 26260 net.cpp:148] Top shape: 100 (100)
I0403 12:27:07.748443 26260 net.cpp:148] Top shape: 100 (100)
I0403 12:27:07.748458 26260 net.cpp:156] Memory required for data: 61836400
I0403 12:27:07.748473 26260 layer_factory.hpp:77] Creating layer conv1
I0403 12:27:07.748505 26260 net.cpp:91] Creating Layer conv1
I0403 12:27:07.748524 26260 net.cpp:425] conv1 <- data
I0403 12:27:07.748546 26260 net.cpp:399] conv1 -> conv1
I0403 12:27:07.893077 26260 net.cpp:141] Setting up conv1
I0403 12:27:07.893137 26260 net.cpp:148] Top shape: 100 96 55 55 (29040000)
I0403 12:27:07.893157 26260 net.cpp:156] Memory required for data: 177996400
I0403 12:27:07.893188 26260 layer_factory.hpp:77] Creating layer relu1
I0403 12:27:07.893215 26260 net.cpp:91] Creating Layer relu1
I0403 12:27:07.893235 26260 net.cpp:425] relu1 <- conv1
I0403 12:27:07.893254 26260 net.cpp:386] relu1 -> conv1 (in-place)
I0403 12:27:07.893530 26260 net.cpp:141] Setting up relu1
I0403 12:27:07.893559 26260 net.cpp:148] Top shape: 100 96 55 55 (29040000)
I0403 12:27:07.893576 26260 net.cpp:156] Memory required for data: 294156400
I0403 12:27:07.893625 26260 layer_factory.hpp:77] Creating layer norm1
I0403 12:27:07.893654 26260 net.cpp:91] Creating Layer norm1
I0403 12:27:07.893672 26260 net.cpp:425] norm1 <- conv1
I0403 12:27:07.893692 26260 net.cpp:399] norm1 -> norm1
I0403 12:27:07.894002 26260 net.cpp:141] Setting up norm1
I0403 12:27:07.894032 26260 net.cpp:148] Top shape: 100 96 55 55 (29040000)
I0403 12:27:07.894048 26260 net.cpp:156] Memory required for data: 410316400
I0403 12:27:07.894064 26260 layer_factory.hpp:77] Creating layer pool1
I0403 12:27:07.894089 26260 net.cpp:91] Creating Layer pool1
I0403 12:27:07.894106 26260 net.cpp:425] pool1 <- norm1
I0403 12:27:07.894125 26260 net.cpp:399] pool1 -> pool1
I0403 12:27:07.894193 26260 net.cpp:141] Setting up pool1
I0403 12:27:07.894219 26260 net.cpp:148] Top shape: 100 96 27 27 (6998400)
I0403 12:27:07.894234 26260 net.cpp:156] Memory required for data: 438310000
I0403 12:27:07.894249 26260 layer_factory.hpp:77] Creating layer conv2
I0403 12:27:07.894275 26260 net.cpp:91] Creating Layer conv2
I0403 12:27:07.894292 26260 net.cpp:425] conv2 <- pool1
I0403 12:27:07.894311 26260 net.cpp:399] conv2 -> conv2
I0403 12:27:07.909850 26260 net.cpp:141] Setting up conv2
I0403 12:27:07.909900 26260 net.cpp:148] Top shape: 100 256 27 27 (18662400)
I0403 12:27:07.909917 26260 net.cpp:156] Memory required for data: 512959600
I0403 12:27:07.909940 26260 layer_factory.hpp:77] Creating layer relu2
I0403 12:27:07.909961 26260 net.cpp:91] Creating Layer relu2
I0403 12:27:07.909978 26260 net.cpp:425] relu2 <- conv2
I0403 12:27:07.909999 26260 net.cpp:386] relu2 -> conv2 (in-place)
I0403 12:27:07.910284 26260 net.cpp:141] Setting up relu2
I0403 12:27:07.910312 26260 net.cpp:148] Top shape: 100 256 27 27 (18662400)
I0403 12:27:07.910328 26260 net.cpp:156] Memory required for data: 587609200
I0403 12:27:07.910348 26260 layer_factory.hpp:77] Creating layer norm2
I0403 12:27:07.910374 26260 net.cpp:91] Creating Layer norm2
I0403 12:27:07.910393 26260 net.cpp:425] norm2 <- conv2
I0403 12:27:07.910413 26260 net.cpp:399] norm2 -> norm2
I0403 12:27:07.910622 26260 net.cpp:141] Setting up norm2
I0403 12:27:07.910650 26260 net.cpp:148] Top shape: 100 256 27 27 (18662400)
I0403 12:27:07.910665 26260 net.cpp:156] Memory required for data: 662258800
I0403 12:27:07.910681 26260 layer_factory.hpp:77] Creating layer pool2
I0403 12:27:07.910701 26260 net.cpp:91] Creating Layer pool2
I0403 12:27:07.910717 26260 net.cpp:425] pool2 <- norm2
I0403 12:27:07.910737 26260 net.cpp:399] pool2 -> pool2
I0403 12:27:07.910790 26260 net.cpp:141] Setting up pool2
I0403 12:27:07.910815 26260 net.cpp:148] Top shape: 100 256 13 13 (4326400)
I0403 12:27:07.910831 26260 net.cpp:156] Memory required for data: 679564400
I0403 12:27:07.910847 26260 layer_factory.hpp:77] Creating layer conv3
I0403 12:27:07.910873 26260 net.cpp:91] Creating Layer conv3
I0403 12:27:07.910892 26260 net.cpp:425] conv3 <- pool2
I0403 12:27:07.910910 26260 net.cpp:399] conv3 -> conv3
I0403 12:27:07.951350 26260 net.cpp:141] Setting up conv3
I0403 12:27:07.951397 26260 net.cpp:148] Top shape: 100 384 13 13 (6489600)
I0403 12:27:07.951416 26260 net.cpp:156] Memory required for data: 705522800
I0403 12:27:07.951442 26260 layer_factory.hpp:77] Creating layer relu3
I0403 12:27:07.951464 26260 net.cpp:91] Creating Layer relu3
I0403 12:27:07.951483 26260 net.cpp:425] relu3 <- conv3
I0403 12:27:07.951505 26260 net.cpp:386] relu3 -> conv3 (in-place)
I0403 12:27:07.951814 26260 net.cpp:141] Setting up relu3
I0403 12:27:07.951843 26260 net.cpp:148] Top shape: 100 384 13 13 (6489600)
I0403 12:27:07.951858 26260 net.cpp:156] Memory required for data: 731481200
I0403 12:27:07.951874 26260 layer_factory.hpp:77] Creating layer conv4
I0403 12:27:07.951900 26260 net.cpp:91] Creating Layer conv4
I0403 12:27:07.951920 26260 net.cpp:425] conv4 <- conv3
I0403 12:27:07.951941 26260 net.cpp:399] conv4 -> conv4
I0403 12:27:07.981799 26260 net.cpp:141] Setting up conv4
I0403 12:27:07.981868 26260 net.cpp:148] Top shape: 100 384 13 13 (6489600)
I0403 12:27:07.981915 26260 net.cpp:156] Memory required for data: 757439600
I0403 12:27:07.981938 26260 layer_factory.hpp:77] Creating layer relu4
I0403 12:27:07.981961 26260 net.cpp:91] Creating Layer relu4
I0403 12:27:07.981977 26260 net.cpp:425] relu4 <- conv4
I0403 12:27:07.981999 26260 net.cpp:386] relu4 -> conv4 (in-place)
I0403 12:27:07.982278 26260 net.cpp:141] Setting up relu4
I0403 12:27:07.982309 26260 net.cpp:148] Top shape: 100 384 13 13 (6489600)
I0403 12:27:07.982326 26260 net.cpp:156] Memory required for data: 783398000
I0403 12:27:07.982342 26260 layer_factory.hpp:77] Creating layer conv5
I0403 12:27:07.982373 26260 net.cpp:91] Creating Layer conv5
I0403 12:27:07.982403 26260 net.cpp:425] conv5 <- conv4
I0403 12:27:07.982420 26260 net.cpp:399] conv5 -> conv5
I0403 12:27:08.003072 26260 net.cpp:141] Setting up conv5
I0403 12:27:08.003129 26260 net.cpp:148] Top shape: 100 256 13 13 (4326400)
I0403 12:27:08.003144 26260 net.cpp:156] Memory required for data: 800703600
I0403 12:27:08.003170 26260 layer_factory.hpp:77] Creating layer relu5
I0403 12:27:08.003191 26260 net.cpp:91] Creating Layer relu5
I0403 12:27:08.003208 26260 net.cpp:425] relu5 <- conv5
I0403 12:27:08.003232 26260 net.cpp:386] relu5 -> conv5 (in-place)
I0403 12:27:08.003528 26260 net.cpp:141] Setting up relu5
I0403 12:27:08.003557 26260 net.cpp:148] Top shape: 100 256 13 13 (4326400)
I0403 12:27:08.003574 26260 net.cpp:156] Memory required for data: 818009200
I0403 12:27:08.003590 26260 layer_factory.hpp:77] Creating layer pool5
I0403 12:27:08.003618 26260 net.cpp:91] Creating Layer pool5
I0403 12:27:08.003635 26260 net.cpp:425] pool5 <- conv5
I0403 12:27:08.003655 26260 net.cpp:399] pool5 -> pool5
I0403 12:27:08.003720 26260 net.cpp:141] Setting up pool5
I0403 12:27:08.003746 26260 net.cpp:148] Top shape: 100 256 6 6 (921600)
I0403 12:27:08.003761 26260 net.cpp:156] Memory required for data: 821695600
I0403 12:27:08.003775 26260 layer_factory.hpp:77] Creating layer fc6
I0403 12:27:08.003803 26260 net.cpp:91] Creating Layer fc6
I0403 12:27:08.003823 26260 net.cpp:425] fc6 <- pool5
I0403 12:27:08.003845 26260 net.cpp:399] fc6 -> fc6
I0403 12:27:09.566066 26260 net.cpp:141] Setting up fc6
I0403 12:27:09.566144 26260 net.cpp:148] Top shape: 100 4096 (409600)
I0403 12:27:09.566161 26260 net.cpp:156] Memory required for data: 823334000
I0403 12:27:09.566184 26260 layer_factory.hpp:77] Creating layer relu6
I0403 12:27:09.566210 26260 net.cpp:91] Creating Layer relu6
I0403 12:27:09.566228 26260 net.cpp:425] relu6 <- fc6
I0403 12:27:09.566247 26260 net.cpp:386] relu6 -> fc6 (in-place)
I0403 12:27:09.566480 26260 net.cpp:141] Setting up relu6
I0403 12:27:09.566507 26260 net.cpp:148] Top shape: 100 4096 (409600)
I0403 12:27:09.566522 26260 net.cpp:156] Memory required for data: 824972400
I0403 12:27:09.566537 26260 layer_factory.hpp:77] Creating layer drop6
I0403 12:27:09.566556 26260 net.cpp:91] Creating Layer drop6
I0403 12:27:09.566572 26260 net.cpp:425] drop6 <- fc6
I0403 12:27:09.566592 26260 net.cpp:386] drop6 -> fc6 (in-place)
I0403 12:27:09.566644 26260 net.cpp:141] Setting up drop6
I0403 12:27:09.566671 26260 net.cpp:148] Top shape: 100 4096 (409600)
I0403 12:27:09.566687 26260 net.cpp:156] Memory required for data: 826610800
I0403 12:27:09.566702 26260 layer_factory.hpp:77] Creating layer fc7
I0403 12:27:09.566723 26260 net.cpp:91] Creating Layer fc7
I0403 12:27:09.566737 26260 net.cpp:425] fc7 <- fc6
I0403 12:27:09.566757 26260 net.cpp:399] fc7 -> fc7
I0403 12:27:10.251876 26260 net.cpp:141] Setting up fc7
I0403 12:27:10.251951 26260 net.cpp:148] Top shape: 100 4096 (409600)
I0403 12:27:10.251970 26260 net.cpp:156] Memory required for data: 828249200
I0403 12:27:10.251991 26260 layer_factory.hpp:77] Creating layer relu7
I0403 12:27:10.252015 26260 net.cpp:91] Creating Layer relu7
I0403 12:27:10.252032 26260 net.cpp:425] relu7 <- fc7
I0403 12:27:10.252053 26260 net.cpp:386] relu7 -> fc7 (in-place)
I0403 12:27:10.252466 26260 net.cpp:141] Setting up relu7
I0403 12:27:10.252496 26260 net.cpp:148] Top shape: 100 4096 (409600)
I0403 12:27:10.252543 26260 net.cpp:156] Memory required for data: 829887600
I0403 12:27:10.252560 26260 layer_factory.hpp:77] Creating layer drop7
I0403 12:27:10.252578 26260 net.cpp:91] Creating Layer drop7
I0403 12:27:10.252594 26260 net.cpp:425] drop7 <- fc7
I0403 12:27:10.252614 26260 net.cpp:386] drop7 -> fc7 (in-place)
I0403 12:27:10.252660 26260 net.cpp:141] Setting up drop7
I0403 12:27:10.252682 26260 net.cpp:148] Top shape: 100 4096 (409600)
I0403 12:27:10.252698 26260 net.cpp:156] Memory required for data: 831526000
I0403 12:27:10.252713 26260 layer_factory.hpp:77] Creating layer fc8_plantvillage
I0403 12:27:10.252737 26260 net.cpp:91] Creating Layer fc8_plantvillage
I0403 12:27:10.252753 26260 net.cpp:425] fc8_plantvillage <- fc7
I0403 12:27:10.252774 26260 net.cpp:399] fc8_plantvillage -> fc8_plantvillage
I0403 12:27:10.259572 26260 net.cpp:141] Setting up fc8_plantvillage
I0403 12:27:10.259601 26260 net.cpp:148] Top shape: 100 38 (3800)
I0403 12:27:10.259618 26260 net.cpp:156] Memory required for data: 831541200
I0403 12:27:10.259636 26260 layer_factory.hpp:77] Creating layer fc8_plantvillage_fc8_plantvillage_0_split
I0403 12:27:10.259656 26260 net.cpp:91] Creating Layer fc8_plantvillage_fc8_plantvillage_0_split
I0403 12:27:10.259672 26260 net.cpp:425] fc8_plantvillage_fc8_plantvillage_0_split <- fc8_plantvillage
I0403 12:27:10.259692 26260 net.cpp:399] fc8_plantvillage_fc8_plantvillage_0_split -> fc8_plantvillage_fc8_plantvillage_0_split_0
I0403 12:27:10.259714 26260 net.cpp:399] fc8_plantvillage_fc8_plantvillage_0_split -> fc8_plantvillage_fc8_plantvillage_0_split_1
I0403 12:27:10.259734 26260 net.cpp:399] fc8_plantvillage_fc8_plantvillage_0_split -> fc8_plantvillage_fc8_plantvillage_0_split_2
I0403 12:27:10.259810 26260 net.cpp:141] Setting up fc8_plantvillage_fc8_plantvillage_0_split
I0403 12:27:10.259835 26260 net.cpp:148] Top shape: 100 38 (3800)
I0403 12:27:10.259852 26260 net.cpp:148] Top shape: 100 38 (3800)
I0403 12:27:10.259868 26260 net.cpp:148] Top shape: 100 38 (3800)
I0403 12:27:10.259883 26260 net.cpp:156] Memory required for data: 831586800
I0403 12:27:10.259898 26260 layer_factory.hpp:77] Creating layer prob
I0403 12:27:10.259917 26260 net.cpp:91] Creating Layer prob
I0403 12:27:10.259932 26260 net.cpp:425] prob <- fc8_plantvillage_fc8_plantvillage_0_split_0
I0403 12:27:10.259953 26260 net.cpp:399] prob -> prob
I0403 12:27:10.260177 26260 net.cpp:141] Setting up prob
I0403 12:27:10.260207 26260 net.cpp:148] Top shape: 100 38 (3800)
I0403 12:27:10.260224 26260 net.cpp:156] Memory required for data: 831602000
I0403 12:27:10.260239 26260 layer_factory.hpp:77] Creating layer hdf5out
I0403 12:27:10.260258 26260 net.cpp:91] Creating Layer hdf5out
I0403 12:27:10.260275 26260 net.cpp:425] hdf5out <- prob
I0403 12:27:10.260304 26260 net.cpp:425] hdf5out <- label_data_1_split_0
I0403 12:27:10.264153 26260 net.cpp:141] Setting up hdf5out
…
