…
I0403 12:34:51.571980 26450 net.cpp:313] The NetState phase (1) differed from the phase (0) specified by a rule in layer data
I0403 12:34:51.572280 26450 net.cpp:49] Initializing net from parameters: 
state {
  phase: TEST
}
layer {
  name: "data"
  type: "Data"
  top: "data"
  top: "label"
  include {
    phase: TEST
  }
  transform_param {
    crop_size: 227
    mean_file: "/home/mohanty/data/final_dataset/lmdb/color-40-60/mean.binaryproto"
  }
  data_param {
    source: "/home/mohanty/data/final_dataset/lmdb/color-40-60/test_db"
    batch_size: 100
    backend: LMDB
  }
}
layer {
  name: "conv1"
  type: "Convolution"
  bottom: "data"
  top: "conv1"
  param {
    lr_mult: 1
    decay_mult: 1
  }
  param {
    lr_mult: 2
    decay_mult: 0
  }
  convolution_param {
    num_output: 96
    kernel_size: 11
    stride: 4
    weight_filler {
      type: "gaussian"
      std: 0.01
    }
    bias_filler {
      type: "constant"
      value: 0
    }
  }
}
layer {
  name: "relu1"
  type: "ReLU"
  bottom: "conv1"
  top: "conv1"
}
layer {
  name: "norm1"
  type: "LRN"
  bottom: "conv1"
  top: "norm1"
  lrn_param {
    local_size: 5
    alpha: 0.0001
    beta: 0.75
  }
}
layer {
  name: "pool1"
  type: "Pooling"
  bottom: "norm1"
  top: "pool1"
  pooling_param {
    pool: MAX
    kernel_size: 3
    stride: 2
  }
}
layer {
  name: "conv2"
  type: "Convolution"
  bottom: "pool1"
  top: "conv2"
  param {
    lr_mult: 1
    decay_mult: 1
  }
  param {
    lr_mult: 2
    decay_mult: 0
  }
  convolution_param {
    num_output: 256
    pad: 2
    kernel_size: 5
    group: 2
    weight_filler {
      type: "gaussian"
      std: 0.01
    }
    bias_filler {
      type: "constant"
      value: 0.1
    }
  }
}
layer {
  name: "relu2"
  type: "ReLU"
  bottom: "conv2"
  top: "conv2"
}
layer {
  name: "norm2"
  type: "LRN"
  bottom: "conv2"
  top: "norm2"
  lrn_param {
    local_size: 5
    alpha: 0.0001
    beta: 0.75
  }
}
layer {
  name: "pool2"
  type: "Pooling"
  bottom: "norm2"
  top: "pool2"
  pooling_param {
    pool: MAX
    kernel_size: 3
    stride: 2
  }
}
layer {
  name: "conv3"
  type: "Convolution"
  bottom: "pool2"
  top: "conv3"
  param {
    lr_mult: 1
    decay_mult: 1
  }
  param {
    lr_mult: 2
    decay_mult: 0
  }
  convolution_param {
    num_output: 384
    pad: 1
    kernel_size: 3
    weight_filler {
      type: "gaussian"
      std: 0.01
    }
    bias_filler {
      type: "constant"
      value: 0
    }
  }
}
layer {
  name: "relu3"
  type: "ReLU"
  bottom: "conv3"
  top: "conv3"
}
layer {
  name: "conv4"
  type: "Convolution"
  bottom: "conv3"
  top: "conv4"
  param {
    lr_mult: 1
    decay_mult: 1
  }
  param {
    lr_mult: 2
    decay_mult: 0
  }
  convolution_param {
    num_output: 384
    pad: 1
    kernel_size: 3
    group: 2
    weight_filler {
      type: "gaussian"
      std: 0.01
    }
    bias_filler {
      type: "constant"
      value: 0.1
    }
  }
}
layer {
  name: "relu4"
  type: "ReLU"
  bottom: "conv4"
  top: "conv4"
}
layer {
  name: "conv5"
  type: "Convolution"
  bottom: "conv4"
  top: "conv5"
  param {
    lr_mult: 1
    decay_mult: 1
  }
  param {
    lr_mult: 2
    decay_mult: 0
  }
  convolution_param {
    num_output: 256
    pad: 1
    kernel_size: 3
    group: 2
    weight_filler {
      type: "gaussian"
      std: 0.01
    }
    bias_filler {
      type: "constant"
      value: 0.1
    }
  }
}
layer {
  name: "relu5"
  type: "ReLU"
  bottom: "conv5"
  top: "conv5"
}
layer {
  name: "pool5"
  type: "Pooling"
  bottom: "conv5"
  top: "pool5"
  pooling_param {
    pool: MAX
    kernel_size: 3
    stride: 2
  }
}
layer {
  name: "fc6"
  type: "InnerProduct"
  bottom: "pool5"
  top: "fc6"
  param {
    lr_mult: 1
    decay_mult: 1
  }
  param {
    lr_mult: 2
    decay_mult: 0
  }
  inner_product_param {
    num_output: 4096
    weight_filler {
      type: "gaussian"
      std: 0.005
    }
    bias_filler {
      type: "constant"
      value: 0.1
    }
  }
}
layer {
  name: "relu6"
  type: "ReLU"
  bottom: "fc6"
  top: "fc6"
}
layer {
  name: "drop6"
  type: "Dropout"
  bottom: "fc6"
  top: "fc6"
  dropout_param {
    dropout_ratio: 0.5
  }
}
layer {
  name: "fc7"
  type: "InnerProduct"
  bottom: "fc6"
  top: "fc7"
  param {
    lr_mult: 1
    decay_mult: 1
  }
  param {
    lr_mult: 2
    decay_mult: 0
  }
  inner_product_param {
    num_output: 4096
    weight_filler {
      type: "gaussian"
      std: 0.005
    }
    bias_filler {
      type: "constant"
      value: 0.1
    }
  }
}
layer {
  name: "relu7"
  type: "ReLU"
  bottom: "fc7"
  top: "fc7"
}
layer {
  name: "drop7"
  type: "Dropout"
  bottom: "fc7"
  top: "fc7"
  dropout_param {
    dropout_ratio: 0.5
  }
}
layer {
  name: "fc8_plantvillage"
  type: "InnerProduct"
  bottom: "fc7"
  top: "fc8_plantvillage"
  param {
    lr_mult: 1
    decay_mult: 1
  }
  param {
    lr_mult: 2
    decay_mult: 0
  }
  inner_product_param {
    num_output: 38
    weight_filler {
      type: "gaussian"
      std: 0.01
    }
    bias_filler {
      type: "constant"
      value: 0
    }
  }
}
layer {
  name: "prob"
  type: "Softmax"
  bottom: "fc8_plantvillage"
  top: "prob"
  include {
    phase: TEST
  }
}
layer {
  name: "hdf5out"
  type: "HDF5Output"
  bottom: "prob"
  bottom: "label"
  include {
    phase: TEST
  }
  hdf5_output_param {
    file_name: "hdf5_dumps/iter_3472.h5"
  }
}
layer {
  name: "loss"
  type: "SoftmaxWithLoss"
  bottom: "fc8_plantvillage"
  bottom: "label"
  top: "loss"
}
layer {
  name: "accuracy"
  type: "Accuracy"
  bottom: "fc8_plantvillage"
  bottom: "label"
  top: "accuracy"
  include {
    phase: TEST
  }
}
I0403 12:34:51.572860 26450 layer_factory.hpp:77] Creating layer data
I0403 12:34:51.573487 26450 net.cpp:91] Creating Layer data
I0403 12:34:51.573519 26450 net.cpp:399] data -> data
I0403 12:34:51.573571 26450 net.cpp:399] data -> label
I0403 12:34:51.573611 26450 data_transformer.cpp:25] Loading mean file from: /home/mohanty/data/final_dataset/lmdb/color-40-60/mean.binaryproto
I0403 12:34:51.585494 26453 db_lmdb.cpp:38] Opened lmdb /home/mohanty/data/final_dataset/lmdb/color-40-60/test_db
I0403 12:34:51.590921 26450 data_layer.cpp:41] output data size: 100,3,227,227
I0403 12:34:51.711621 26450 net.cpp:141] Setting up data
I0403 12:34:51.711694 26450 net.cpp:148] Top shape: 100 3 227 227 (15458700)
I0403 12:34:51.711716 26450 net.cpp:148] Top shape: 100 (100)
I0403 12:34:51.711732 26450 net.cpp:156] Memory required for data: 61835200
I0403 12:34:51.711758 26450 layer_factory.hpp:77] Creating layer label_data_1_split
I0403 12:34:51.711783 26450 net.cpp:91] Creating Layer label_data_1_split
I0403 12:34:51.711801 26450 net.cpp:425] label_data_1_split <- label
I0403 12:34:51.711833 26450 net.cpp:399] label_data_1_split -> label_data_1_split_0
I0403 12:34:51.711859 26450 net.cpp:399] label_data_1_split -> label_data_1_split_1
I0403 12:34:51.711879 26450 net.cpp:399] label_data_1_split -> label_data_1_split_2
I0403 12:34:51.711941 26450 net.cpp:141] Setting up label_data_1_split
I0403 12:34:51.711963 26450 net.cpp:148] Top shape: 100 (100)
I0403 12:34:51.711979 26450 net.cpp:148] Top shape: 100 (100)
I0403 12:34:51.711995 26450 net.cpp:148] Top shape: 100 (100)
I0403 12:34:51.712012 26450 net.cpp:156] Memory required for data: 61836400
I0403 12:34:51.712026 26450 layer_factory.hpp:77] Creating layer conv1
I0403 12:34:51.712056 26450 net.cpp:91] Creating Layer conv1
I0403 12:34:51.712074 26450 net.cpp:425] conv1 <- data
I0403 12:34:51.712095 26450 net.cpp:399] conv1 -> conv1
I0403 12:34:51.855542 26450 net.cpp:141] Setting up conv1
I0403 12:34:51.855620 26450 net.cpp:148] Top shape: 100 96 55 55 (29040000)
I0403 12:34:51.855639 26450 net.cpp:156] Memory required for data: 177996400
I0403 12:34:51.855672 26450 layer_factory.hpp:77] Creating layer relu1
I0403 12:34:51.855701 26450 net.cpp:91] Creating Layer relu1
I0403 12:34:51.855720 26450 net.cpp:425] relu1 <- conv1
I0403 12:34:51.855737 26450 net.cpp:386] relu1 -> conv1 (in-place)
I0403 12:34:51.855995 26450 net.cpp:141] Setting up relu1
I0403 12:34:51.856024 26450 net.cpp:148] Top shape: 100 96 55 55 (29040000)
I0403 12:34:51.856040 26450 net.cpp:156] Memory required for data: 294156400
I0403 12:34:51.856091 26450 layer_factory.hpp:77] Creating layer norm1
I0403 12:34:51.856120 26450 net.cpp:91] Creating Layer norm1
I0403 12:34:51.856140 26450 net.cpp:425] norm1 <- conv1
I0403 12:34:51.856160 26450 net.cpp:399] norm1 -> norm1
I0403 12:34:51.856477 26450 net.cpp:141] Setting up norm1
I0403 12:34:51.856504 26450 net.cpp:148] Top shape: 100 96 55 55 (29040000)
I0403 12:34:51.856520 26450 net.cpp:156] Memory required for data: 410316400
I0403 12:34:51.856536 26450 layer_factory.hpp:77] Creating layer pool1
I0403 12:34:51.856560 26450 net.cpp:91] Creating Layer pool1
I0403 12:34:51.856577 26450 net.cpp:425] pool1 <- norm1
I0403 12:34:51.856596 26450 net.cpp:399] pool1 -> pool1
I0403 12:34:51.856663 26450 net.cpp:141] Setting up pool1
I0403 12:34:51.856688 26450 net.cpp:148] Top shape: 100 96 27 27 (6998400)
I0403 12:34:51.856703 26450 net.cpp:156] Memory required for data: 438310000
I0403 12:34:51.856717 26450 layer_factory.hpp:77] Creating layer conv2
I0403 12:34:51.856744 26450 net.cpp:91] Creating Layer conv2
I0403 12:34:51.856760 26450 net.cpp:425] conv2 <- pool1
I0403 12:34:51.856781 26450 net.cpp:399] conv2 -> conv2
I0403 12:34:51.872409 26450 net.cpp:141] Setting up conv2
I0403 12:34:51.872448 26450 net.cpp:148] Top shape: 100 256 27 27 (18662400)
I0403 12:34:51.872467 26450 net.cpp:156] Memory required for data: 512959600
I0403 12:34:51.872489 26450 layer_factory.hpp:77] Creating layer relu2
I0403 12:34:51.872511 26450 net.cpp:91] Creating Layer relu2
I0403 12:34:51.872529 26450 net.cpp:425] relu2 <- conv2
I0403 12:34:51.872548 26450 net.cpp:386] relu2 -> conv2 (in-place)
I0403 12:34:51.872822 26450 net.cpp:141] Setting up relu2
I0403 12:34:51.872851 26450 net.cpp:148] Top shape: 100 256 27 27 (18662400)
I0403 12:34:51.872869 26450 net.cpp:156] Memory required for data: 587609200
I0403 12:34:51.872884 26450 layer_factory.hpp:77] Creating layer norm2
I0403 12:34:51.872905 26450 net.cpp:91] Creating Layer norm2
I0403 12:34:51.872927 26450 net.cpp:425] norm2 <- conv2
I0403 12:34:51.872946 26450 net.cpp:399] norm2 -> norm2
I0403 12:34:51.873143 26450 net.cpp:141] Setting up norm2
I0403 12:34:51.873168 26450 net.cpp:148] Top shape: 100 256 27 27 (18662400)
I0403 12:34:51.873184 26450 net.cpp:156] Memory required for data: 662258800
I0403 12:34:51.873198 26450 layer_factory.hpp:77] Creating layer pool2
I0403 12:34:51.873219 26450 net.cpp:91] Creating Layer pool2
I0403 12:34:51.873235 26450 net.cpp:425] pool2 <- norm2
I0403 12:34:51.873253 26450 net.cpp:399] pool2 -> pool2
I0403 12:34:51.873306 26450 net.cpp:141] Setting up pool2
I0403 12:34:51.873333 26450 net.cpp:148] Top shape: 100 256 13 13 (4326400)
I0403 12:34:51.873348 26450 net.cpp:156] Memory required for data: 679564400
I0403 12:34:51.873363 26450 layer_factory.hpp:77] Creating layer conv3
I0403 12:34:51.873386 26450 net.cpp:91] Creating Layer conv3
I0403 12:34:51.873404 26450 net.cpp:425] conv3 <- pool2
I0403 12:34:51.873425 26450 net.cpp:399] conv3 -> conv3
I0403 12:34:51.913213 26450 net.cpp:141] Setting up conv3
I0403 12:34:51.913283 26450 net.cpp:148] Top shape: 100 384 13 13 (6489600)
I0403 12:34:51.913300 26450 net.cpp:156] Memory required for data: 705522800
I0403 12:34:51.913334 26450 layer_factory.hpp:77] Creating layer relu3
I0403 12:34:51.913359 26450 net.cpp:91] Creating Layer relu3
I0403 12:34:51.913377 26450 net.cpp:425] relu3 <- conv3
I0403 12:34:51.913395 26450 net.cpp:386] relu3 -> conv3 (in-place)
I0403 12:34:51.913667 26450 net.cpp:141] Setting up relu3
I0403 12:34:51.913697 26450 net.cpp:148] Top shape: 100 384 13 13 (6489600)
I0403 12:34:51.913713 26450 net.cpp:156] Memory required for data: 731481200
I0403 12:34:51.913729 26450 layer_factory.hpp:77] Creating layer conv4
I0403 12:34:51.913753 26450 net.cpp:91] Creating Layer conv4
I0403 12:34:51.913769 26450 net.cpp:425] conv4 <- conv3
I0403 12:34:51.913789 26450 net.cpp:399] conv4 -> conv4
I0403 12:34:51.944754 26450 net.cpp:141] Setting up conv4
I0403 12:34:51.944821 26450 net.cpp:148] Top shape: 100 384 13 13 (6489600)
I0403 12:34:51.944921 26450 net.cpp:156] Memory required for data: 757439600
I0403 12:34:51.944950 26450 layer_factory.hpp:77] Creating layer relu4
I0403 12:34:51.944977 26450 net.cpp:91] Creating Layer relu4
I0403 12:34:51.944994 26450 net.cpp:425] relu4 <- conv4
I0403 12:34:51.945013 26450 net.cpp:386] relu4 -> conv4 (in-place)
I0403 12:34:51.945293 26450 net.cpp:141] Setting up relu4
I0403 12:34:51.945324 26450 net.cpp:148] Top shape: 100 384 13 13 (6489600)
I0403 12:34:51.945343 26450 net.cpp:156] Memory required for data: 783398000
I0403 12:34:51.945358 26450 layer_factory.hpp:77] Creating layer conv5
I0403 12:34:51.945384 26450 net.cpp:91] Creating Layer conv5
I0403 12:34:51.945399 26450 net.cpp:425] conv5 <- conv4
I0403 12:34:51.945421 26450 net.cpp:399] conv5 -> conv5
I0403 12:34:51.966963 26450 net.cpp:141] Setting up conv5
I0403 12:34:51.967020 26450 net.cpp:148] Top shape: 100 256 13 13 (4326400)
I0403 12:34:51.967037 26450 net.cpp:156] Memory required for data: 800703600
I0403 12:34:51.967063 26450 layer_factory.hpp:77] Creating layer relu5
I0403 12:34:51.967088 26450 net.cpp:91] Creating Layer relu5
I0403 12:34:51.967106 26450 net.cpp:425] relu5 <- conv5
I0403 12:34:51.967125 26450 net.cpp:386] relu5 -> conv5 (in-place)
I0403 12:34:51.967480 26450 net.cpp:141] Setting up relu5
I0403 12:34:51.967509 26450 net.cpp:148] Top shape: 100 256 13 13 (4326400)
I0403 12:34:51.967526 26450 net.cpp:156] Memory required for data: 818009200
I0403 12:34:51.967541 26450 layer_factory.hpp:77] Creating layer pool5
I0403 12:34:51.967566 26450 net.cpp:91] Creating Layer pool5
I0403 12:34:51.967584 26450 net.cpp:425] pool5 <- conv5
I0403 12:34:51.967607 26450 net.cpp:399] pool5 -> pool5
I0403 12:34:51.967667 26450 net.cpp:141] Setting up pool5
I0403 12:34:51.967692 26450 net.cpp:148] Top shape: 100 256 6 6 (921600)
I0403 12:34:51.967708 26450 net.cpp:156] Memory required for data: 821695600
I0403 12:34:51.967723 26450 layer_factory.hpp:77] Creating layer fc6
I0403 12:34:51.967752 26450 net.cpp:91] Creating Layer fc6
I0403 12:34:51.967770 26450 net.cpp:425] fc6 <- pool5
I0403 12:34:51.967792 26450 net.cpp:399] fc6 -> fc6
I0403 12:34:53.551869 26450 net.cpp:141] Setting up fc6
I0403 12:34:53.551911 26450 net.cpp:148] Top shape: 100 4096 (409600)
I0403 12:34:53.551928 26450 net.cpp:156] Memory required for data: 823334000
I0403 12:34:53.551949 26450 layer_factory.hpp:77] Creating layer relu6
I0403 12:34:53.551973 26450 net.cpp:91] Creating Layer relu6
I0403 12:34:53.551991 26450 net.cpp:425] relu6 <- fc6
I0403 12:34:53.552011 26450 net.cpp:386] relu6 -> fc6 (in-place)
I0403 12:34:53.552225 26450 net.cpp:141] Setting up relu6
I0403 12:34:53.552250 26450 net.cpp:148] Top shape: 100 4096 (409600)
I0403 12:34:53.552265 26450 net.cpp:156] Memory required for data: 824972400
I0403 12:34:53.552281 26450 layer_factory.hpp:77] Creating layer drop6
I0403 12:34:53.552302 26450 net.cpp:91] Creating Layer drop6
I0403 12:34:53.552322 26450 net.cpp:425] drop6 <- fc6
I0403 12:34:53.552342 26450 net.cpp:386] drop6 -> fc6 (in-place)
I0403 12:34:53.552395 26450 net.cpp:141] Setting up drop6
I0403 12:34:53.552419 26450 net.cpp:148] Top shape: 100 4096 (409600)
I0403 12:34:53.552434 26450 net.cpp:156] Memory required for data: 826610800
I0403 12:34:53.552448 26450 layer_factory.hpp:77] Creating layer fc7
I0403 12:34:53.552467 26450 net.cpp:91] Creating Layer fc7
I0403 12:34:53.552482 26450 net.cpp:425] fc7 <- fc6
I0403 12:34:53.552503 26450 net.cpp:399] fc7 -> fc7
I0403 12:34:54.238644 26450 net.cpp:141] Setting up fc7
I0403 12:34:54.238730 26450 net.cpp:148] Top shape: 100 4096 (409600)
I0403 12:34:54.238749 26450 net.cpp:156] Memory required for data: 828249200
I0403 12:34:54.238771 26450 layer_factory.hpp:77] Creating layer relu7
I0403 12:34:54.238793 26450 net.cpp:91] Creating Layer relu7
I0403 12:34:54.238811 26450 net.cpp:425] relu7 <- fc7
I0403 12:34:54.238831 26450 net.cpp:386] relu7 -> fc7 (in-place)
I0403 12:34:54.239244 26450 net.cpp:141] Setting up relu7
I0403 12:34:54.239271 26450 net.cpp:148] Top shape: 100 4096 (409600)
I0403 12:34:54.239326 26450 net.cpp:156] Memory required for data: 829887600
I0403 12:34:54.239344 26450 layer_factory.hpp:77] Creating layer drop7
I0403 12:34:54.239365 26450 net.cpp:91] Creating Layer drop7
I0403 12:34:54.239382 26450 net.cpp:425] drop7 <- fc7
I0403 12:34:54.239401 26450 net.cpp:386] drop7 -> fc7 (in-place)
I0403 12:34:54.239445 26450 net.cpp:141] Setting up drop7
I0403 12:34:54.239469 26450 net.cpp:148] Top shape: 100 4096 (409600)
I0403 12:34:54.239483 26450 net.cpp:156] Memory required for data: 831526000
I0403 12:34:54.239500 26450 layer_factory.hpp:77] Creating layer fc8_plantvillage
I0403 12:34:54.239521 26450 net.cpp:91] Creating Layer fc8_plantvillage
I0403 12:34:54.239549 26450 net.cpp:425] fc8_plantvillage <- fc7
I0403 12:34:54.239568 26450 net.cpp:399] fc8_plantvillage -> fc8_plantvillage
I0403 12:34:54.246440 26450 net.cpp:141] Setting up fc8_plantvillage
I0403 12:34:54.246470 26450 net.cpp:148] Top shape: 100 38 (3800)
I0403 12:34:54.246487 26450 net.cpp:156] Memory required for data: 831541200
I0403 12:34:54.246506 26450 layer_factory.hpp:77] Creating layer fc8_plantvillage_fc8_plantvillage_0_split
I0403 12:34:54.246527 26450 net.cpp:91] Creating Layer fc8_plantvillage_fc8_plantvillage_0_split
I0403 12:34:54.246546 26450 net.cpp:425] fc8_plantvillage_fc8_plantvillage_0_split <- fc8_plantvillage
I0403 12:34:54.246563 26450 net.cpp:399] fc8_plantvillage_fc8_plantvillage_0_split -> fc8_plantvillage_fc8_plantvillage_0_split_0
I0403 12:34:54.246585 26450 net.cpp:399] fc8_plantvillage_fc8_plantvillage_0_split -> fc8_plantvillage_fc8_plantvillage_0_split_1
I0403 12:34:54.246605 26450 net.cpp:399] fc8_plantvillage_fc8_plantvillage_0_split -> fc8_plantvillage_fc8_plantvillage_0_split_2
I0403 12:34:54.246682 26450 net.cpp:141] Setting up fc8_plantvillage_fc8_plantvillage_0_split
I0403 12:34:54.246706 26450 net.cpp:148] Top shape: 100 38 (3800)
I0403 12:34:54.246723 26450 net.cpp:148] Top shape: 100 38 (3800)
I0403 12:34:54.246739 26450 net.cpp:148] Top shape: 100 38 (3800)
I0403 12:34:54.246752 26450 net.cpp:156] Memory required for data: 831586800
I0403 12:34:54.246767 26450 layer_factory.hpp:77] Creating layer prob
I0403 12:34:54.246788 26450 net.cpp:91] Creating Layer prob
I0403 12:34:54.246805 26450 net.cpp:425] prob <- fc8_plantvillage_fc8_plantvillage_0_split_0
I0403 12:34:54.246824 26450 net.cpp:399] prob -> prob
I0403 12:34:54.247050 26450 net.cpp:141] Setting up prob
I0403 12:34:54.247074 26450 net.cpp:148] Top shape: 100 38 (3800)
I0403 12:34:54.247089 26450 net.cpp:156] Memory required for data: 831602000
I0403 12:34:54.247104 26450 layer_factory.hpp:77] Creating layer hdf5out
I0403 12:34:54.247125 26450 net.cpp:91] Creating Layer hdf5out
I0403 12:34:54.247143 26450 net.cpp:425] hdf5out <- prob
I0403 12:34:54.247159 26450 net.cpp:425] hdf5out <- label_data_1_split_0
I0403 12:34:54.251425 26450 net.cpp:141] Setting up hdf5out
…
