…
I0403 12:35:57.471174 26468 net.cpp:313] The NetState phase (1) differed from the phase (0) specified by a rule in layer data
I0403 12:35:57.471470 26468 net.cpp:49] Initializing net from parameters: 
state {
  phase: TEST
}
layer {
  name: "data"
  type: "Data"
  top: "data"
  top: "label"
  include {
    phase: TEST
  }
  transform_param {
    crop_size: 227
    mean_file: "/home/mohanty/data/final_dataset/lmdb/color-40-60/mean.binaryproto"
  }
  data_param {
    source: "/home/mohanty/data/final_dataset/lmdb/color-40-60/test_db"
    batch_size: 100
    backend: LMDB
  }
}
layer {
  name: "conv1"
  type: "Convolution"
  bottom: "data"
  top: "conv1"
  param {
    lr_mult: 1
    decay_mult: 1
  }
  param {
    lr_mult: 2
    decay_mult: 0
  }
  convolution_param {
    num_output: 96
    kernel_size: 11
    stride: 4
    weight_filler {
      type: "gaussian"
      std: 0.01
    }
    bias_filler {
      type: "constant"
      value: 0
    }
  }
}
layer {
  name: "relu1"
  type: "ReLU"
  bottom: "conv1"
  top: "conv1"
}
layer {
  name: "norm1"
  type: "LRN"
  bottom: "conv1"
  top: "norm1"
  lrn_param {
    local_size: 5
    alpha: 0.0001
    beta: 0.75
  }
}
layer {
  name: "pool1"
  type: "Pooling"
  bottom: "norm1"
  top: "pool1"
  pooling_param {
    pool: MAX
    kernel_size: 3
    stride: 2
  }
}
layer {
  name: "conv2"
  type: "Convolution"
  bottom: "pool1"
  top: "conv2"
  param {
    lr_mult: 1
    decay_mult: 1
  }
  param {
    lr_mult: 2
    decay_mult: 0
  }
  convolution_param {
    num_output: 256
    pad: 2
    kernel_size: 5
    group: 2
    weight_filler {
      type: "gaussian"
      std: 0.01
    }
    bias_filler {
      type: "constant"
      value: 0.1
    }
  }
}
layer {
  name: "relu2"
  type: "ReLU"
  bottom: "conv2"
  top: "conv2"
}
layer {
  name: "norm2"
  type: "LRN"
  bottom: "conv2"
  top: "norm2"
  lrn_param {
    local_size: 5
    alpha: 0.0001
    beta: 0.75
  }
}
layer {
  name: "pool2"
  type: "Pooling"
  bottom: "norm2"
  top: "pool2"
  pooling_param {
    pool: MAX
    kernel_size: 3
    stride: 2
  }
}
layer {
  name: "conv3"
  type: "Convolution"
  bottom: "pool2"
  top: "conv3"
  param {
    lr_mult: 1
    decay_mult: 1
  }
  param {
    lr_mult: 2
    decay_mult: 0
  }
  convolution_param {
    num_output: 384
    pad: 1
    kernel_size: 3
    weight_filler {
      type: "gaussian"
      std: 0.01
    }
    bias_filler {
      type: "constant"
      value: 0
    }
  }
}
layer {
  name: "relu3"
  type: "ReLU"
  bottom: "conv3"
  top: "conv3"
}
layer {
  name: "conv4"
  type: "Convolution"
  bottom: "conv3"
  top: "conv4"
  param {
    lr_mult: 1
    decay_mult: 1
  }
  param {
    lr_mult: 2
    decay_mult: 0
  }
  convolution_param {
    num_output: 384
    pad: 1
    kernel_size: 3
    group: 2
    weight_filler {
      type: "gaussian"
      std: 0.01
    }
    bias_filler {
      type: "constant"
      value: 0.1
    }
  }
}
layer {
  name: "relu4"
  type: "ReLU"
  bottom: "conv4"
  top: "conv4"
}
layer {
  name: "conv5"
  type: "Convolution"
  bottom: "conv4"
  top: "conv5"
  param {
    lr_mult: 1
    decay_mult: 1
  }
  param {
    lr_mult: 2
    decay_mult: 0
  }
  convolution_param {
    num_output: 256
    pad: 1
    kernel_size: 3
    group: 2
    weight_filler {
      type: "gaussian"
      std: 0.01
    }
    bias_filler {
      type: "constant"
      value: 0.1
    }
  }
}
layer {
  name: "relu5"
  type: "ReLU"
  bottom: "conv5"
  top: "conv5"
}
layer {
  name: "pool5"
  type: "Pooling"
  bottom: "conv5"
  top: "pool5"
  pooling_param {
    pool: MAX
    kernel_size: 3
    stride: 2
  }
}
layer {
  name: "fc6"
  type: "InnerProduct"
  bottom: "pool5"
  top: "fc6"
  param {
    lr_mult: 1
    decay_mult: 1
  }
  param {
    lr_mult: 2
    decay_mult: 0
  }
  inner_product_param {
    num_output: 4096
    weight_filler {
      type: "gaussian"
      std: 0.005
    }
    bias_filler {
      type: "constant"
      value: 0.1
    }
  }
}
layer {
  name: "relu6"
  type: "ReLU"
  bottom: "fc6"
  top: "fc6"
}
layer {
  name: "drop6"
  type: "Dropout"
  bottom: "fc6"
  top: "fc6"
  dropout_param {
    dropout_ratio: 0.5
  }
}
layer {
  name: "fc7"
  type: "InnerProduct"
  bottom: "fc6"
  top: "fc7"
  param {
    lr_mult: 1
    decay_mult: 1
  }
  param {
    lr_mult: 2
    decay_mult: 0
  }
  inner_product_param {
    num_output: 4096
    weight_filler {
      type: "gaussian"
      std: 0.005
    }
    bias_filler {
      type: "constant"
      value: 0.1
    }
  }
}
layer {
  name: "relu7"
  type: "ReLU"
  bottom: "fc7"
  top: "fc7"
}
layer {
  name: "drop7"
  type: "Dropout"
  bottom: "fc7"
  top: "fc7"
  dropout_param {
    dropout_ratio: 0.5
  }
}
layer {
  name: "fc8_plantvillage"
  type: "InnerProduct"
  bottom: "fc7"
  top: "fc8_plantvillage"
  param {
    lr_mult: 1
    decay_mult: 1
  }
  param {
    lr_mult: 2
    decay_mult: 0
  }
  inner_product_param {
    num_output: 38
    weight_filler {
      type: "gaussian"
      std: 0.01
    }
    bias_filler {
      type: "constant"
      value: 0
    }
  }
}
layer {
  name: "prob"
  type: "Softmax"
  bottom: "fc8_plantvillage"
  top: "prob"
  include {
    phase: TEST
  }
}
layer {
  name: "hdf5out"
  type: "HDF5Output"
  bottom: "prob"
  bottom: "label"
  include {
    phase: TEST
  }
  hdf5_output_param {
    file_name: "hdf5_dumps/iter_3689.h5"
  }
}
layer {
  name: "loss"
  type: "SoftmaxWithLoss"
  bottom: "fc8_plantvillage"
  bottom: "label"
  top: "loss"
}
layer {
  name: "accuracy"
  type: "Accuracy"
  bottom: "fc8_plantvillage"
  bottom: "label"
  top: "accuracy"
  include {
    phase: TEST
  }
}
I0403 12:35:57.472072 26468 layer_factory.hpp:77] Creating layer data
I0403 12:35:57.472713 26468 net.cpp:91] Creating Layer data
I0403 12:35:57.472744 26468 net.cpp:399] data -> data
I0403 12:35:57.472796 26468 net.cpp:399] data -> label
I0403 12:35:57.472836 26468 data_transformer.cpp:25] Loading mean file from: /home/mohanty/data/final_dataset/lmdb/color-40-60/mean.binaryproto
I0403 12:35:57.476187 26472 db_lmdb.cpp:38] Opened lmdb /home/mohanty/data/final_dataset/lmdb/color-40-60/test_db
I0403 12:35:57.487223 26468 data_layer.cpp:41] output data size: 100,3,227,227
I0403 12:35:57.608391 26468 net.cpp:141] Setting up data
I0403 12:35:57.608484 26468 net.cpp:148] Top shape: 100 3 227 227 (15458700)
I0403 12:35:57.608507 26468 net.cpp:148] Top shape: 100 (100)
I0403 12:35:57.608525 26468 net.cpp:156] Memory required for data: 61835200
I0403 12:35:57.608553 26468 layer_factory.hpp:77] Creating layer label_data_1_split
I0403 12:35:57.608580 26468 net.cpp:91] Creating Layer label_data_1_split
I0403 12:35:57.608599 26468 net.cpp:425] label_data_1_split <- label
I0403 12:35:57.608631 26468 net.cpp:399] label_data_1_split -> label_data_1_split_0
I0403 12:35:57.608659 26468 net.cpp:399] label_data_1_split -> label_data_1_split_1
I0403 12:35:57.608680 26468 net.cpp:399] label_data_1_split -> label_data_1_split_2
I0403 12:35:57.608747 26468 net.cpp:141] Setting up label_data_1_split
I0403 12:35:57.608772 26468 net.cpp:148] Top shape: 100 (100)
I0403 12:35:57.608788 26468 net.cpp:148] Top shape: 100 (100)
I0403 12:35:57.608804 26468 net.cpp:148] Top shape: 100 (100)
I0403 12:35:57.608819 26468 net.cpp:156] Memory required for data: 61836400
I0403 12:35:57.608835 26468 layer_factory.hpp:77] Creating layer conv1
I0403 12:35:57.608868 26468 net.cpp:91] Creating Layer conv1
I0403 12:35:57.608887 26468 net.cpp:425] conv1 <- data
I0403 12:35:57.608907 26468 net.cpp:399] conv1 -> conv1
I0403 12:35:57.752794 26468 net.cpp:141] Setting up conv1
I0403 12:35:57.752871 26468 net.cpp:148] Top shape: 100 96 55 55 (29040000)
I0403 12:35:57.752889 26468 net.cpp:156] Memory required for data: 177996400
I0403 12:35:57.752921 26468 layer_factory.hpp:77] Creating layer relu1
I0403 12:35:57.752949 26468 net.cpp:91] Creating Layer relu1
I0403 12:35:57.752969 26468 net.cpp:425] relu1 <- conv1
I0403 12:35:57.752987 26468 net.cpp:386] relu1 -> conv1 (in-place)
I0403 12:35:57.753309 26468 net.cpp:141] Setting up relu1
I0403 12:35:57.753348 26468 net.cpp:148] Top shape: 100 96 55 55 (29040000)
I0403 12:35:57.753365 26468 net.cpp:156] Memory required for data: 294156400
I0403 12:35:57.753414 26468 layer_factory.hpp:77] Creating layer norm1
I0403 12:35:57.753446 26468 net.cpp:91] Creating Layer norm1
I0403 12:35:57.753465 26468 net.cpp:425] norm1 <- conv1
I0403 12:35:57.753485 26468 net.cpp:399] norm1 -> norm1
I0403 12:35:57.753806 26468 net.cpp:141] Setting up norm1
I0403 12:35:57.753835 26468 net.cpp:148] Top shape: 100 96 55 55 (29040000)
I0403 12:35:57.753851 26468 net.cpp:156] Memory required for data: 410316400
I0403 12:35:57.753868 26468 layer_factory.hpp:77] Creating layer pool1
I0403 12:35:57.753893 26468 net.cpp:91] Creating Layer pool1
I0403 12:35:57.753911 26468 net.cpp:425] pool1 <- norm1
I0403 12:35:57.753934 26468 net.cpp:399] pool1 -> pool1
I0403 12:35:57.754001 26468 net.cpp:141] Setting up pool1
I0403 12:35:57.754026 26468 net.cpp:148] Top shape: 100 96 27 27 (6998400)
I0403 12:35:57.754042 26468 net.cpp:156] Memory required for data: 438310000
I0403 12:35:57.754057 26468 layer_factory.hpp:77] Creating layer conv2
I0403 12:35:57.754082 26468 net.cpp:91] Creating Layer conv2
I0403 12:35:57.754098 26468 net.cpp:425] conv2 <- pool1
I0403 12:35:57.754118 26468 net.cpp:399] conv2 -> conv2
I0403 12:35:57.769399 26468 net.cpp:141] Setting up conv2
I0403 12:35:57.769448 26468 net.cpp:148] Top shape: 100 256 27 27 (18662400)
I0403 12:35:57.769465 26468 net.cpp:156] Memory required for data: 512959600
I0403 12:35:57.769489 26468 layer_factory.hpp:77] Creating layer relu2
I0403 12:35:57.769510 26468 net.cpp:91] Creating Layer relu2
I0403 12:35:57.769528 26468 net.cpp:425] relu2 <- conv2
I0403 12:35:57.769547 26468 net.cpp:386] relu2 -> conv2 (in-place)
I0403 12:35:57.769858 26468 net.cpp:141] Setting up relu2
I0403 12:35:57.769886 26468 net.cpp:148] Top shape: 100 256 27 27 (18662400)
I0403 12:35:57.769903 26468 net.cpp:156] Memory required for data: 587609200
I0403 12:35:57.769919 26468 layer_factory.hpp:77] Creating layer norm2
I0403 12:35:57.769942 26468 net.cpp:91] Creating Layer norm2
I0403 12:35:57.769958 26468 net.cpp:425] norm2 <- conv2
I0403 12:35:57.769978 26468 net.cpp:399] norm2 -> norm2
I0403 12:35:57.770164 26468 net.cpp:141] Setting up norm2
I0403 12:35:57.770190 26468 net.cpp:148] Top shape: 100 256 27 27 (18662400)
I0403 12:35:57.770206 26468 net.cpp:156] Memory required for data: 662258800
I0403 12:35:57.770221 26468 layer_factory.hpp:77] Creating layer pool2
I0403 12:35:57.770241 26468 net.cpp:91] Creating Layer pool2
I0403 12:35:57.770259 26468 net.cpp:425] pool2 <- norm2
I0403 12:35:57.770278 26468 net.cpp:399] pool2 -> pool2
I0403 12:35:57.770337 26468 net.cpp:141] Setting up pool2
I0403 12:35:57.770362 26468 net.cpp:148] Top shape: 100 256 13 13 (4326400)
I0403 12:35:57.770377 26468 net.cpp:156] Memory required for data: 679564400
I0403 12:35:57.770392 26468 layer_factory.hpp:77] Creating layer conv3
I0403 12:35:57.770416 26468 net.cpp:91] Creating Layer conv3
I0403 12:35:57.770433 26468 net.cpp:425] conv3 <- pool2
I0403 12:35:57.770453 26468 net.cpp:399] conv3 -> conv3
I0403 12:35:57.810642 26468 net.cpp:141] Setting up conv3
I0403 12:35:57.810714 26468 net.cpp:148] Top shape: 100 384 13 13 (6489600)
I0403 12:35:57.810731 26468 net.cpp:156] Memory required for data: 705522800
I0403 12:35:57.810757 26468 layer_factory.hpp:77] Creating layer relu3
I0403 12:35:57.810782 26468 net.cpp:91] Creating Layer relu3
I0403 12:35:57.810801 26468 net.cpp:425] relu3 <- conv3
I0403 12:35:57.810822 26468 net.cpp:386] relu3 -> conv3 (in-place)
I0403 12:35:57.811094 26468 net.cpp:141] Setting up relu3
I0403 12:35:57.811121 26468 net.cpp:148] Top shape: 100 384 13 13 (6489600)
I0403 12:35:57.811137 26468 net.cpp:156] Memory required for data: 731481200
I0403 12:35:57.811153 26468 layer_factory.hpp:77] Creating layer conv4
I0403 12:35:57.811182 26468 net.cpp:91] Creating Layer conv4
I0403 12:35:57.811200 26468 net.cpp:425] conv4 <- conv3
I0403 12:35:57.811223 26468 net.cpp:399] conv4 -> conv4
I0403 12:35:57.841976 26468 net.cpp:141] Setting up conv4
I0403 12:35:57.842044 26468 net.cpp:148] Top shape: 100 384 13 13 (6489600)
I0403 12:35:57.842097 26468 net.cpp:156] Memory required for data: 757439600
I0403 12:35:57.842120 26468 layer_factory.hpp:77] Creating layer relu4
I0403 12:35:57.842142 26468 net.cpp:91] Creating Layer relu4
I0403 12:35:57.842160 26468 net.cpp:425] relu4 <- conv4
I0403 12:35:57.842180 26468 net.cpp:386] relu4 -> conv4 (in-place)
I0403 12:35:57.842527 26468 net.cpp:141] Setting up relu4
I0403 12:35:57.842558 26468 net.cpp:148] Top shape: 100 384 13 13 (6489600)
I0403 12:35:57.842597 26468 net.cpp:156] Memory required for data: 783398000
I0403 12:35:57.842614 26468 layer_factory.hpp:77] Creating layer conv5
I0403 12:35:57.842638 26468 net.cpp:91] Creating Layer conv5
I0403 12:35:57.842653 26468 net.cpp:425] conv5 <- conv4
I0403 12:35:57.842677 26468 net.cpp:399] conv5 -> conv5
I0403 12:35:57.863823 26468 net.cpp:141] Setting up conv5
I0403 12:35:57.863873 26468 net.cpp:148] Top shape: 100 256 13 13 (4326400)
I0403 12:35:57.863889 26468 net.cpp:156] Memory required for data: 800703600
I0403 12:35:57.863917 26468 layer_factory.hpp:77] Creating layer relu5
I0403 12:35:57.863940 26468 net.cpp:91] Creating Layer relu5
I0403 12:35:57.863956 26468 net.cpp:425] relu5 <- conv5
I0403 12:35:57.863977 26468 net.cpp:386] relu5 -> conv5 (in-place)
I0403 12:35:57.864248 26468 net.cpp:141] Setting up relu5
I0403 12:35:57.864277 26468 net.cpp:148] Top shape: 100 256 13 13 (4326400)
I0403 12:35:57.864295 26468 net.cpp:156] Memory required for data: 818009200
I0403 12:35:57.864310 26468 layer_factory.hpp:77] Creating layer pool5
I0403 12:35:57.864344 26468 net.cpp:91] Creating Layer pool5
I0403 12:35:57.864363 26468 net.cpp:425] pool5 <- conv5
I0403 12:35:57.864384 26468 net.cpp:399] pool5 -> pool5
I0403 12:35:57.864444 26468 net.cpp:141] Setting up pool5
I0403 12:35:57.864471 26468 net.cpp:148] Top shape: 100 256 6 6 (921600)
I0403 12:35:57.864487 26468 net.cpp:156] Memory required for data: 821695600
I0403 12:35:57.864501 26468 layer_factory.hpp:77] Creating layer fc6
I0403 12:35:57.864528 26468 net.cpp:91] Creating Layer fc6
I0403 12:35:57.864547 26468 net.cpp:425] fc6 <- pool5
I0403 12:35:57.864568 26468 net.cpp:399] fc6 -> fc6
I0403 12:35:59.458029 26468 net.cpp:141] Setting up fc6
I0403 12:35:59.458112 26468 net.cpp:148] Top shape: 100 4096 (409600)
I0403 12:35:59.458128 26468 net.cpp:156] Memory required for data: 823334000
I0403 12:35:59.458150 26468 layer_factory.hpp:77] Creating layer relu6
I0403 12:35:59.458173 26468 net.cpp:91] Creating Layer relu6
I0403 12:35:59.458191 26468 net.cpp:425] relu6 <- fc6
I0403 12:35:59.458211 26468 net.cpp:386] relu6 -> fc6 (in-place)
I0403 12:35:59.458434 26468 net.cpp:141] Setting up relu6
I0403 12:35:59.458461 26468 net.cpp:148] Top shape: 100 4096 (409600)
I0403 12:35:59.458477 26468 net.cpp:156] Memory required for data: 824972400
I0403 12:35:59.458493 26468 layer_factory.hpp:77] Creating layer drop6
I0403 12:35:59.458513 26468 net.cpp:91] Creating Layer drop6
I0403 12:35:59.458528 26468 net.cpp:425] drop6 <- fc6
I0403 12:35:59.458547 26468 net.cpp:386] drop6 -> fc6 (in-place)
I0403 12:35:59.458598 26468 net.cpp:141] Setting up drop6
I0403 12:35:59.458621 26468 net.cpp:148] Top shape: 100 4096 (409600)
I0403 12:35:59.458636 26468 net.cpp:156] Memory required for data: 826610800
I0403 12:35:59.458652 26468 layer_factory.hpp:77] Creating layer fc7
I0403 12:35:59.458673 26468 net.cpp:91] Creating Layer fc7
I0403 12:35:59.458689 26468 net.cpp:425] fc7 <- fc6
I0403 12:35:59.458710 26468 net.cpp:399] fc7 -> fc7
I0403 12:36:00.147804 26468 net.cpp:141] Setting up fc7
I0403 12:36:00.147891 26468 net.cpp:148] Top shape: 100 4096 (409600)
I0403 12:36:00.147908 26468 net.cpp:156] Memory required for data: 828249200
I0403 12:36:00.147930 26468 layer_factory.hpp:77] Creating layer relu7
I0403 12:36:00.147953 26468 net.cpp:91] Creating Layer relu7
I0403 12:36:00.147970 26468 net.cpp:425] relu7 <- fc7
I0403 12:36:00.147990 26468 net.cpp:386] relu7 -> fc7 (in-place)
I0403 12:36:00.148406 26468 net.cpp:141] Setting up relu7
I0403 12:36:00.148435 26468 net.cpp:148] Top shape: 100 4096 (409600)
I0403 12:36:00.148483 26468 net.cpp:156] Memory required for data: 829887600
I0403 12:36:00.148499 26468 layer_factory.hpp:77] Creating layer drop7
I0403 12:36:00.148519 26468 net.cpp:91] Creating Layer drop7
I0403 12:36:00.148535 26468 net.cpp:425] drop7 <- fc7
I0403 12:36:00.148551 26468 net.cpp:386] drop7 -> fc7 (in-place)
I0403 12:36:00.148596 26468 net.cpp:141] Setting up drop7
I0403 12:36:00.148618 26468 net.cpp:148] Top shape: 100 4096 (409600)
I0403 12:36:00.148633 26468 net.cpp:156] Memory required for data: 831526000
I0403 12:36:00.148648 26468 layer_factory.hpp:77] Creating layer fc8_plantvillage
I0403 12:36:00.148669 26468 net.cpp:91] Creating Layer fc8_plantvillage
I0403 12:36:00.148686 26468 net.cpp:425] fc8_plantvillage <- fc7
I0403 12:36:00.148705 26468 net.cpp:399] fc8_plantvillage -> fc8_plantvillage
I0403 12:36:00.155463 26468 net.cpp:141] Setting up fc8_plantvillage
I0403 12:36:00.155494 26468 net.cpp:148] Top shape: 100 38 (3800)
I0403 12:36:00.155510 26468 net.cpp:156] Memory required for data: 831541200
I0403 12:36:00.155529 26468 layer_factory.hpp:77] Creating layer fc8_plantvillage_fc8_plantvillage_0_split
I0403 12:36:00.155547 26468 net.cpp:91] Creating Layer fc8_plantvillage_fc8_plantvillage_0_split
I0403 12:36:00.155565 26468 net.cpp:425] fc8_plantvillage_fc8_plantvillage_0_split <- fc8_plantvillage
I0403 12:36:00.155585 26468 net.cpp:399] fc8_plantvillage_fc8_plantvillage_0_split -> fc8_plantvillage_fc8_plantvillage_0_split_0
I0403 12:36:00.155606 26468 net.cpp:399] fc8_plantvillage_fc8_plantvillage_0_split -> fc8_plantvillage_fc8_plantvillage_0_split_1
I0403 12:36:00.155625 26468 net.cpp:399] fc8_plantvillage_fc8_plantvillage_0_split -> fc8_plantvillage_fc8_plantvillage_0_split_2
I0403 12:36:00.155701 26468 net.cpp:141] Setting up fc8_plantvillage_fc8_plantvillage_0_split
I0403 12:36:00.155725 26468 net.cpp:148] Top shape: 100 38 (3800)
I0403 12:36:00.155742 26468 net.cpp:148] Top shape: 100 38 (3800)
I0403 12:36:00.155758 26468 net.cpp:148] Top shape: 100 38 (3800)
I0403 12:36:00.155771 26468 net.cpp:156] Memory required for data: 831586800
I0403 12:36:00.155786 26468 layer_factory.hpp:77] Creating layer prob
I0403 12:36:00.155807 26468 net.cpp:91] Creating Layer prob
I0403 12:36:00.155823 26468 net.cpp:425] prob <- fc8_plantvillage_fc8_plantvillage_0_split_0
I0403 12:36:00.155843 26468 net.cpp:399] prob -> prob
I0403 12:36:00.156069 26468 net.cpp:141] Setting up prob
I0403 12:36:00.156097 26468 net.cpp:148] Top shape: 100 38 (3800)
I0403 12:36:00.156114 26468 net.cpp:156] Memory required for data: 831602000
I0403 12:36:00.156129 26468 layer_factory.hpp:77] Creating layer hdf5out
I0403 12:36:00.156149 26468 net.cpp:91] Creating Layer hdf5out
I0403 12:36:00.156165 26468 net.cpp:425] hdf5out <- prob
I0403 12:36:00.156183 26468 net.cpp:425] hdf5out <- label_data_1_split_0
I0403 12:36:00.186699 26468 net.cpp:141] Setting up hdf5out
…
