…
I0403 12:23:49.887398 26193 net.cpp:313] The NetState phase (1) differed from the phase (0) specified by a rule in layer data
I0403 12:23:49.887697 26193 net.cpp:49] Initializing net from parameters: 
state {
  phase: TEST
}
layer {
  name: "data"
  type: "Data"
  top: "data"
  top: "label"
  include {
    phase: TEST
  }
  transform_param {
    crop_size: 227
    mean_file: "/home/mohanty/data/final_dataset/lmdb/color-40-60/mean.binaryproto"
  }
  data_param {
    source: "/home/mohanty/data/final_dataset/lmdb/color-40-60/test_db"
    batch_size: 100
    backend: LMDB
  }
}
layer {
  name: "conv1"
  type: "Convolution"
  bottom: "data"
  top: "conv1"
  param {
    lr_mult: 1
    decay_mult: 1
  }
  param {
    lr_mult: 2
    decay_mult: 0
  }
  convolution_param {
    num_output: 96
    kernel_size: 11
    stride: 4
    weight_filler {
      type: "gaussian"
      std: 0.01
    }
    bias_filler {
      type: "constant"
      value: 0
    }
  }
}
layer {
  name: "relu1"
  type: "ReLU"
  bottom: "conv1"
  top: "conv1"
}
layer {
  name: "norm1"
  type: "LRN"
  bottom: "conv1"
  top: "norm1"
  lrn_param {
    local_size: 5
    alpha: 0.0001
    beta: 0.75
  }
}
layer {
  name: "pool1"
  type: "Pooling"
  bottom: "norm1"
  top: "pool1"
  pooling_param {
    pool: MAX
    kernel_size: 3
    stride: 2
  }
}
layer {
  name: "conv2"
  type: "Convolution"
  bottom: "pool1"
  top: "conv2"
  param {
    lr_mult: 1
    decay_mult: 1
  }
  param {
    lr_mult: 2
    decay_mult: 0
  }
  convolution_param {
    num_output: 256
    pad: 2
    kernel_size: 5
    group: 2
    weight_filler {
      type: "gaussian"
      std: 0.01
    }
    bias_filler {
      type: "constant"
      value: 0.1
    }
  }
}
layer {
  name: "relu2"
  type: "ReLU"
  bottom: "conv2"
  top: "conv2"
}
layer {
  name: "norm2"
  type: "LRN"
  bottom: "conv2"
  top: "norm2"
  lrn_param {
    local_size: 5
    alpha: 0.0001
    beta: 0.75
  }
}
layer {
  name: "pool2"
  type: "Pooling"
  bottom: "norm2"
  top: "pool2"
  pooling_param {
    pool: MAX
    kernel_size: 3
    stride: 2
  }
}
layer {
  name: "conv3"
  type: "Convolution"
  bottom: "pool2"
  top: "conv3"
  param {
    lr_mult: 1
    decay_mult: 1
  }
  param {
    lr_mult: 2
    decay_mult: 0
  }
  convolution_param {
    num_output: 384
    pad: 1
    kernel_size: 3
    weight_filler {
      type: "gaussian"
      std: 0.01
    }
    bias_filler {
      type: "constant"
      value: 0
    }
  }
}
layer {
  name: "relu3"
  type: "ReLU"
  bottom: "conv3"
  top: "conv3"
}
layer {
  name: "conv4"
  type: "Convolution"
  bottom: "conv3"
  top: "conv4"
  param {
    lr_mult: 1
    decay_mult: 1
  }
  param {
    lr_mult: 2
    decay_mult: 0
  }
  convolution_param {
    num_output: 384
    pad: 1
    kernel_size: 3
    group: 2
    weight_filler {
      type: "gaussian"
      std: 0.01
    }
    bias_filler {
      type: "constant"
      value: 0.1
    }
  }
}
layer {
  name: "relu4"
  type: "ReLU"
  bottom: "conv4"
  top: "conv4"
}
layer {
  name: "conv5"
  type: "Convolution"
  bottom: "conv4"
  top: "conv5"
  param {
    lr_mult: 1
    decay_mult: 1
  }
  param {
    lr_mult: 2
    decay_mult: 0
  }
  convolution_param {
    num_output: 256
    pad: 1
    kernel_size: 3
    group: 2
    weight_filler {
      type: "gaussian"
      std: 0.01
    }
    bias_filler {
      type: "constant"
      value: 0.1
    }
  }
}
layer {
  name: "relu5"
  type: "ReLU"
  bottom: "conv5"
  top: "conv5"
}
layer {
  name: "pool5"
  type: "Pooling"
  bottom: "conv5"
  top: "pool5"
  pooling_param {
    pool: MAX
    kernel_size: 3
    stride: 2
  }
}
layer {
  name: "fc6"
  type: "InnerProduct"
  bottom: "pool5"
  top: "fc6"
  param {
    lr_mult: 1
    decay_mult: 1
  }
  param {
    lr_mult: 2
    decay_mult: 0
  }
  inner_product_param {
    num_output: 4096
    weight_filler {
      type: "gaussian"
      std: 0.005
    }
    bias_filler {
      type: "constant"
      value: 0.1
    }
  }
}
layer {
  name: "relu6"
  type: "ReLU"
  bottom: "fc6"
  top: "fc6"
}
layer {
  name: "drop6"
  type: "Dropout"
  bottom: "fc6"
  top: "fc6"
  dropout_param {
    dropout_ratio: 0.5
  }
}
layer {
  name: "fc7"
  type: "InnerProduct"
  bottom: "fc6"
  top: "fc7"
  param {
    lr_mult: 1
    decay_mult: 1
  }
  param {
    lr_mult: 2
    decay_mult: 0
  }
  inner_product_param {
    num_output: 4096
    weight_filler {
      type: "gaussian"
      std: 0.005
    }
    bias_filler {
      type: "constant"
      value: 0.1
    }
  }
}
layer {
  name: "relu7"
  type: "ReLU"
  bottom: "fc7"
  top: "fc7"
}
layer {
  name: "drop7"
  type: "Dropout"
  bottom: "fc7"
  top: "fc7"
  dropout_param {
    dropout_ratio: 0.5
  }
}
layer {
  name: "fc8_plantvillage"
  type: "InnerProduct"
  bottom: "fc7"
  top: "fc8_plantvillage"
  param {
    lr_mult: 1
    decay_mult: 1
  }
  param {
    lr_mult: 2
    decay_mult: 0
  }
  inner_product_param {
    num_output: 38
    weight_filler {
      type: "gaussian"
      std: 0.01
    }
    bias_filler {
      type: "constant"
      value: 0
    }
  }
}
layer {
  name: "prob"
  type: "Softmax"
  bottom: "fc8_plantvillage"
  top: "prob"
  include {
    phase: TEST
  }
}
layer {
  name: "hdf5out"
  type: "HDF5Output"
  bottom: "prob"
  bottom: "label"
  include {
    phase: TEST
  }
  hdf5_output_param {
    file_name: "hdf5_dumps/iter_1302.h5"
  }
}
layer {
  name: "loss"
  type: "SoftmaxWithLoss"
  bottom: "fc8_plantvillage"
  bottom: "label"
  top: "loss"
}
layer {
  name: "accuracy"
  type: "Accuracy"
  bottom: "fc8_plantvillage"
  bottom: "label"
  top: "accuracy"
  include {
    phase: TEST
  }
}
I0403 12:23:49.888289 26193 layer_factory.hpp:77] Creating layer data
I0403 12:23:49.888936 26193 net.cpp:91] Creating Layer data
I0403 12:23:49.888967 26193 net.cpp:399] data -> data
I0403 12:23:49.889017 26193 net.cpp:399] data -> label
I0403 12:23:49.889057 26193 data_transformer.cpp:25] Loading mean file from: /home/mohanty/data/final_dataset/lmdb/color-40-60/mean.binaryproto
I0403 12:23:49.891916 26196 db_lmdb.cpp:38] Opened lmdb /home/mohanty/data/final_dataset/lmdb/color-40-60/test_db
I0403 12:23:49.903566 26193 data_layer.cpp:41] output data size: 100,3,227,227
I0403 12:23:50.027668 26193 net.cpp:141] Setting up data
I0403 12:23:50.027729 26193 net.cpp:148] Top shape: 100 3 227 227 (15458700)
I0403 12:23:50.027751 26193 net.cpp:148] Top shape: 100 (100)
I0403 12:23:50.027768 26193 net.cpp:156] Memory required for data: 61835200
I0403 12:23:50.027794 26193 layer_factory.hpp:77] Creating layer label_data_1_split
I0403 12:23:50.027822 26193 net.cpp:91] Creating Layer label_data_1_split
I0403 12:23:50.027839 26193 net.cpp:425] label_data_1_split <- label
I0403 12:23:50.027871 26193 net.cpp:399] label_data_1_split -> label_data_1_split_0
I0403 12:23:50.027899 26193 net.cpp:399] label_data_1_split -> label_data_1_split_1
I0403 12:23:50.027920 26193 net.cpp:399] label_data_1_split -> label_data_1_split_2
I0403 12:23:50.027982 26193 net.cpp:141] Setting up label_data_1_split
I0403 12:23:50.028005 26193 net.cpp:148] Top shape: 100 (100)
I0403 12:23:50.028023 26193 net.cpp:148] Top shape: 100 (100)
I0403 12:23:50.028039 26193 net.cpp:148] Top shape: 100 (100)
I0403 12:23:50.028054 26193 net.cpp:156] Memory required for data: 61836400
I0403 12:23:50.028069 26193 layer_factory.hpp:77] Creating layer conv1
I0403 12:23:50.028102 26193 net.cpp:91] Creating Layer conv1
I0403 12:23:50.028121 26193 net.cpp:425] conv1 <- data
I0403 12:23:50.028141 26193 net.cpp:399] conv1 -> conv1
I0403 12:23:50.173687 26193 net.cpp:141] Setting up conv1
I0403 12:23:50.173765 26193 net.cpp:148] Top shape: 100 96 55 55 (29040000)
I0403 12:23:50.173784 26193 net.cpp:156] Memory required for data: 177996400
I0403 12:23:50.173816 26193 layer_factory.hpp:77] Creating layer relu1
I0403 12:23:50.173847 26193 net.cpp:91] Creating Layer relu1
I0403 12:23:50.173867 26193 net.cpp:425] relu1 <- conv1
I0403 12:23:50.173890 26193 net.cpp:386] relu1 -> conv1 (in-place)
I0403 12:23:50.174177 26193 net.cpp:141] Setting up relu1
I0403 12:23:50.174208 26193 net.cpp:148] Top shape: 100 96 55 55 (29040000)
I0403 12:23:50.174226 26193 net.cpp:156] Memory required for data: 294156400
I0403 12:23:50.174273 26193 layer_factory.hpp:77] Creating layer norm1
I0403 12:23:50.174304 26193 net.cpp:91] Creating Layer norm1
I0403 12:23:50.174322 26193 net.cpp:425] norm1 <- conv1
I0403 12:23:50.174356 26193 net.cpp:399] norm1 -> norm1
I0403 12:23:50.174712 26193 net.cpp:141] Setting up norm1
I0403 12:23:50.174742 26193 net.cpp:148] Top shape: 100 96 55 55 (29040000)
I0403 12:23:50.174759 26193 net.cpp:156] Memory required for data: 410316400
I0403 12:23:50.174775 26193 layer_factory.hpp:77] Creating layer pool1
I0403 12:23:50.174800 26193 net.cpp:91] Creating Layer pool1
I0403 12:23:50.174818 26193 net.cpp:425] pool1 <- norm1
I0403 12:23:50.174839 26193 net.cpp:399] pool1 -> pool1
I0403 12:23:50.174916 26193 net.cpp:141] Setting up pool1
I0403 12:23:50.174940 26193 net.cpp:148] Top shape: 100 96 27 27 (6998400)
I0403 12:23:50.174957 26193 net.cpp:156] Memory required for data: 438310000
I0403 12:23:50.174973 26193 layer_factory.hpp:77] Creating layer conv2
I0403 12:23:50.175001 26193 net.cpp:91] Creating Layer conv2
I0403 12:23:50.175019 26193 net.cpp:425] conv2 <- pool1
I0403 12:23:50.175041 26193 net.cpp:399] conv2 -> conv2
I0403 12:23:50.190886 26193 net.cpp:141] Setting up conv2
I0403 12:23:50.190935 26193 net.cpp:148] Top shape: 100 256 27 27 (18662400)
I0403 12:23:50.190954 26193 net.cpp:156] Memory required for data: 512959600
I0403 12:23:50.190979 26193 layer_factory.hpp:77] Creating layer relu2
I0403 12:23:50.190999 26193 net.cpp:91] Creating Layer relu2
I0403 12:23:50.191016 26193 net.cpp:425] relu2 <- conv2
I0403 12:23:50.191038 26193 net.cpp:386] relu2 -> conv2 (in-place)
I0403 12:23:50.191331 26193 net.cpp:141] Setting up relu2
I0403 12:23:50.191365 26193 net.cpp:148] Top shape: 100 256 27 27 (18662400)
I0403 12:23:50.191383 26193 net.cpp:156] Memory required for data: 587609200
I0403 12:23:50.191400 26193 layer_factory.hpp:77] Creating layer norm2
I0403 12:23:50.191424 26193 net.cpp:91] Creating Layer norm2
I0403 12:23:50.191442 26193 net.cpp:425] norm2 <- conv2
I0403 12:23:50.191463 26193 net.cpp:399] norm2 -> norm2
I0403 12:23:50.191678 26193 net.cpp:141] Setting up norm2
I0403 12:23:50.191705 26193 net.cpp:148] Top shape: 100 256 27 27 (18662400)
I0403 12:23:50.191721 26193 net.cpp:156] Memory required for data: 662258800
I0403 12:23:50.191738 26193 layer_factory.hpp:77] Creating layer pool2
I0403 12:23:50.191757 26193 net.cpp:91] Creating Layer pool2
I0403 12:23:50.191774 26193 net.cpp:425] pool2 <- norm2
I0403 12:23:50.191795 26193 net.cpp:399] pool2 -> pool2
I0403 12:23:50.191851 26193 net.cpp:141] Setting up pool2
I0403 12:23:50.191876 26193 net.cpp:148] Top shape: 100 256 13 13 (4326400)
I0403 12:23:50.191891 26193 net.cpp:156] Memory required for data: 679564400
I0403 12:23:50.191906 26193 layer_factory.hpp:77] Creating layer conv3
I0403 12:23:50.191932 26193 net.cpp:91] Creating Layer conv3
I0403 12:23:50.191952 26193 net.cpp:425] conv3 <- pool2
I0403 12:23:50.191972 26193 net.cpp:399] conv3 -> conv3
I0403 12:23:50.234879 26193 net.cpp:141] Setting up conv3
I0403 12:23:50.234949 26193 net.cpp:148] Top shape: 100 384 13 13 (6489600)
I0403 12:23:50.234966 26193 net.cpp:156] Memory required for data: 705522800
I0403 12:23:50.234993 26193 layer_factory.hpp:77] Creating layer relu3
I0403 12:23:50.235019 26193 net.cpp:91] Creating Layer relu3
I0403 12:23:50.235038 26193 net.cpp:425] relu3 <- conv3
I0403 12:23:50.235056 26193 net.cpp:386] relu3 -> conv3 (in-place)
I0403 12:23:50.235338 26193 net.cpp:141] Setting up relu3
I0403 12:23:50.235370 26193 net.cpp:148] Top shape: 100 384 13 13 (6489600)
I0403 12:23:50.235388 26193 net.cpp:156] Memory required for data: 731481200
I0403 12:23:50.235404 26193 layer_factory.hpp:77] Creating layer conv4
I0403 12:23:50.235432 26193 net.cpp:91] Creating Layer conv4
I0403 12:23:50.235450 26193 net.cpp:425] conv4 <- conv3
I0403 12:23:50.235471 26193 net.cpp:399] conv4 -> conv4
I0403 12:23:50.267101 26193 net.cpp:141] Setting up conv4
I0403 12:23:50.267170 26193 net.cpp:148] Top shape: 100 384 13 13 (6489600)
I0403 12:23:50.267222 26193 net.cpp:156] Memory required for data: 757439600
I0403 12:23:50.267246 26193 layer_factory.hpp:77] Creating layer relu4
I0403 12:23:50.267271 26193 net.cpp:91] Creating Layer relu4
I0403 12:23:50.267289 26193 net.cpp:425] relu4 <- conv4
I0403 12:23:50.267313 26193 net.cpp:386] relu4 -> conv4 (in-place)
I0403 12:23:50.267608 26193 net.cpp:141] Setting up relu4
I0403 12:23:50.267640 26193 net.cpp:148] Top shape: 100 384 13 13 (6489600)
I0403 12:23:50.267658 26193 net.cpp:156] Memory required for data: 783398000
I0403 12:23:50.267674 26193 layer_factory.hpp:77] Creating layer conv5
I0403 12:23:50.267702 26193 net.cpp:91] Creating Layer conv5
I0403 12:23:50.267721 26193 net.cpp:425] conv5 <- conv4
I0403 12:23:50.267741 26193 net.cpp:399] conv5 -> conv5
I0403 12:23:50.289423 26193 net.cpp:141] Setting up conv5
I0403 12:23:50.289469 26193 net.cpp:148] Top shape: 100 256 13 13 (4326400)
I0403 12:23:50.289486 26193 net.cpp:156] Memory required for data: 800703600
I0403 12:23:50.289511 26193 layer_factory.hpp:77] Creating layer relu5
I0403 12:23:50.289535 26193 net.cpp:91] Creating Layer relu5
I0403 12:23:50.289551 26193 net.cpp:425] relu5 <- conv5
I0403 12:23:50.289573 26193 net.cpp:386] relu5 -> conv5 (in-place)
I0403 12:23:50.289861 26193 net.cpp:141] Setting up relu5
I0403 12:23:50.289891 26193 net.cpp:148] Top shape: 100 256 13 13 (4326400)
I0403 12:23:50.289906 26193 net.cpp:156] Memory required for data: 818009200
I0403 12:23:50.289922 26193 layer_factory.hpp:77] Creating layer pool5
I0403 12:23:50.289948 26193 net.cpp:91] Creating Layer pool5
I0403 12:23:50.289968 26193 net.cpp:425] pool5 <- conv5
I0403 12:23:50.289988 26193 net.cpp:399] pool5 -> pool5
I0403 12:23:50.290052 26193 net.cpp:141] Setting up pool5
I0403 12:23:50.290077 26193 net.cpp:148] Top shape: 100 256 6 6 (921600)
I0403 12:23:50.290093 26193 net.cpp:156] Memory required for data: 821695600
I0403 12:23:50.290108 26193 layer_factory.hpp:77] Creating layer fc6
I0403 12:23:50.290138 26193 net.cpp:91] Creating Layer fc6
I0403 12:23:50.290158 26193 net.cpp:425] fc6 <- pool5
I0403 12:23:50.290177 26193 net.cpp:399] fc6 -> fc6
I0403 12:23:51.906339 26193 net.cpp:141] Setting up fc6
I0403 12:23:51.906395 26193 net.cpp:148] Top shape: 100 4096 (409600)
I0403 12:23:51.906411 26193 net.cpp:156] Memory required for data: 823334000
I0403 12:23:51.906432 26193 layer_factory.hpp:77] Creating layer relu6
I0403 12:23:51.906455 26193 net.cpp:91] Creating Layer relu6
I0403 12:23:51.906473 26193 net.cpp:425] relu6 <- fc6
I0403 12:23:51.906497 26193 net.cpp:386] relu6 -> fc6 (in-place)
I0403 12:23:51.906720 26193 net.cpp:141] Setting up relu6
I0403 12:23:51.906745 26193 net.cpp:148] Top shape: 100 4096 (409600)
I0403 12:23:51.906760 26193 net.cpp:156] Memory required for data: 824972400
I0403 12:23:51.906776 26193 layer_factory.hpp:77] Creating layer drop6
I0403 12:23:51.906795 26193 net.cpp:91] Creating Layer drop6
I0403 12:23:51.906810 26193 net.cpp:425] drop6 <- fc6
I0403 12:23:51.906832 26193 net.cpp:386] drop6 -> fc6 (in-place)
I0403 12:23:51.906884 26193 net.cpp:141] Setting up drop6
I0403 12:23:51.906909 26193 net.cpp:148] Top shape: 100 4096 (409600)
I0403 12:23:51.906926 26193 net.cpp:156] Memory required for data: 826610800
I0403 12:23:51.906941 26193 layer_factory.hpp:77] Creating layer fc7
I0403 12:23:51.906961 26193 net.cpp:91] Creating Layer fc7
I0403 12:23:51.906977 26193 net.cpp:425] fc7 <- fc6
I0403 12:23:51.906999 26193 net.cpp:399] fc7 -> fc7
I0403 12:23:52.615211 26193 net.cpp:141] Setting up fc7
I0403 12:23:52.615252 26193 net.cpp:148] Top shape: 100 4096 (409600)
I0403 12:23:52.615267 26193 net.cpp:156] Memory required for data: 828249200
I0403 12:23:52.615288 26193 layer_factory.hpp:77] Creating layer relu7
I0403 12:23:52.615310 26193 net.cpp:91] Creating Layer relu7
I0403 12:23:52.615329 26193 net.cpp:425] relu7 <- fc7
I0403 12:23:52.615355 26193 net.cpp:386] relu7 -> fc7 (in-place)
I0403 12:23:52.615731 26193 net.cpp:141] Setting up relu7
I0403 12:23:52.615758 26193 net.cpp:148] Top shape: 100 4096 (409600)
I0403 12:23:52.615804 26193 net.cpp:156] Memory required for data: 829887600
I0403 12:23:52.615821 26193 layer_factory.hpp:77] Creating layer drop7
I0403 12:23:52.615840 26193 net.cpp:91] Creating Layer drop7
I0403 12:23:52.615855 26193 net.cpp:425] drop7 <- fc7
I0403 12:23:52.615875 26193 net.cpp:386] drop7 -> fc7 (in-place)
I0403 12:23:52.615916 26193 net.cpp:141] Setting up drop7
I0403 12:23:52.615942 26193 net.cpp:148] Top shape: 100 4096 (409600)
I0403 12:23:52.615957 26193 net.cpp:156] Memory required for data: 831526000
I0403 12:23:52.615972 26193 layer_factory.hpp:77] Creating layer fc8_plantvillage
I0403 12:23:52.615991 26193 net.cpp:91] Creating Layer fc8_plantvillage
I0403 12:23:52.616006 26193 net.cpp:425] fc8_plantvillage <- fc7
I0403 12:23:52.616026 26193 net.cpp:399] fc8_plantvillage -> fc8_plantvillage
I0403 12:23:52.622894 26193 net.cpp:141] Setting up fc8_plantvillage
I0403 12:23:52.622922 26193 net.cpp:148] Top shape: 100 38 (3800)
I0403 12:23:52.622937 26193 net.cpp:156] Memory required for data: 831541200
I0403 12:23:52.622956 26193 layer_factory.hpp:77] Creating layer fc8_plantvillage_fc8_plantvillage_0_split
I0403 12:23:52.622975 26193 net.cpp:91] Creating Layer fc8_plantvillage_fc8_plantvillage_0_split
I0403 12:23:52.622992 26193 net.cpp:425] fc8_plantvillage_fc8_plantvillage_0_split <- fc8_plantvillage
I0403 12:23:52.623010 26193 net.cpp:399] fc8_plantvillage_fc8_plantvillage_0_split -> fc8_plantvillage_fc8_plantvillage_0_split_0
I0403 12:23:52.623031 26193 net.cpp:399] fc8_plantvillage_fc8_plantvillage_0_split -> fc8_plantvillage_fc8_plantvillage_0_split_1
I0403 12:23:52.623051 26193 net.cpp:399] fc8_plantvillage_fc8_plantvillage_0_split -> fc8_plantvillage_fc8_plantvillage_0_split_2
I0403 12:23:52.623142 26193 net.cpp:141] Setting up fc8_plantvillage_fc8_plantvillage_0_split
I0403 12:23:52.623167 26193 net.cpp:148] Top shape: 100 38 (3800)
I0403 12:23:52.623183 26193 net.cpp:148] Top shape: 100 38 (3800)
I0403 12:23:52.623199 26193 net.cpp:148] Top shape: 100 38 (3800)
I0403 12:23:52.623213 26193 net.cpp:156] Memory required for data: 831586800
I0403 12:23:52.623227 26193 layer_factory.hpp:77] Creating layer prob
I0403 12:23:52.623245 26193 net.cpp:91] Creating Layer prob
I0403 12:23:52.623260 26193 net.cpp:425] prob <- fc8_plantvillage_fc8_plantvillage_0_split_0
I0403 12:23:52.623281 26193 net.cpp:399] prob -> prob
I0403 12:23:52.623528 26193 net.cpp:141] Setting up prob
I0403 12:23:52.623554 26193 net.cpp:148] Top shape: 100 38 (3800)
I0403 12:23:52.623569 26193 net.cpp:156] Memory required for data: 831602000
I0403 12:23:52.623584 26193 layer_factory.hpp:77] Creating layer hdf5out
I0403 12:23:52.623603 26193 net.cpp:91] Creating Layer hdf5out
I0403 12:23:52.623618 26193 net.cpp:425] hdf5out <- prob
I0403 12:23:52.623633 26193 net.cpp:425] hdf5out <- label_data_1_split_0
I0403 12:23:52.627104 26193 net.cpp:141] Setting up hdf5out
…
