…
I0403 12:49:10.151489 26777 net.cpp:313] The NetState phase (1) differed from the phase (0) specified by a rule in layer data
I0403 12:49:10.151788 26777 net.cpp:49] Initializing net from parameters: 
state {
  phase: TEST
}
layer {
  name: "data"
  type: "Data"
  top: "data"
  top: "label"
  include {
    phase: TEST
  }
  transform_param {
    crop_size: 227
    mean_file: "/home/mohanty/data/final_dataset/lmdb/color-40-60/mean.binaryproto"
  }
  data_param {
    source: "/home/mohanty/data/final_dataset/lmdb/color-40-60/test_db"
    batch_size: 100
    backend: LMDB
  }
}
layer {
  name: "conv1"
  type: "Convolution"
  bottom: "data"
  top: "conv1"
  param {
    lr_mult: 1
    decay_mult: 1
  }
  param {
    lr_mult: 2
    decay_mult: 0
  }
  convolution_param {
    num_output: 96
    kernel_size: 11
    stride: 4
    weight_filler {
      type: "gaussian"
      std: 0.01
    }
    bias_filler {
      type: "constant"
      value: 0
    }
  }
}
layer {
  name: "relu1"
  type: "ReLU"
  bottom: "conv1"
  top: "conv1"
}
layer {
  name: "norm1"
  type: "LRN"
  bottom: "conv1"
  top: "norm1"
  lrn_param {
    local_size: 5
    alpha: 0.0001
    beta: 0.75
  }
}
layer {
  name: "pool1"
  type: "Pooling"
  bottom: "norm1"
  top: "pool1"
  pooling_param {
    pool: MAX
    kernel_size: 3
    stride: 2
  }
}
layer {
  name: "conv2"
  type: "Convolution"
  bottom: "pool1"
  top: "conv2"
  param {
    lr_mult: 1
    decay_mult: 1
  }
  param {
    lr_mult: 2
    decay_mult: 0
  }
  convolution_param {
    num_output: 256
    pad: 2
    kernel_size: 5
    group: 2
    weight_filler {
      type: "gaussian"
      std: 0.01
    }
    bias_filler {
      type: "constant"
      value: 0.1
    }
  }
}
layer {
  name: "relu2"
  type: "ReLU"
  bottom: "conv2"
  top: "conv2"
}
layer {
  name: "norm2"
  type: "LRN"
  bottom: "conv2"
  top: "norm2"
  lrn_param {
    local_size: 5
    alpha: 0.0001
    beta: 0.75
  }
}
layer {
  name: "pool2"
  type: "Pooling"
  bottom: "norm2"
  top: "pool2"
  pooling_param {
    pool: MAX
    kernel_size: 3
    stride: 2
  }
}
layer {
  name: "conv3"
  type: "Convolution"
  bottom: "pool2"
  top: "conv3"
  param {
    lr_mult: 1
    decay_mult: 1
  }
  param {
    lr_mult: 2
    decay_mult: 0
  }
  convolution_param {
    num_output: 384
    pad: 1
    kernel_size: 3
    weight_filler {
      type: "gaussian"
      std: 0.01
    }
    bias_filler {
      type: "constant"
      value: 0
    }
  }
}
layer {
  name: "relu3"
  type: "ReLU"
  bottom: "conv3"
  top: "conv3"
}
layer {
  name: "conv4"
  type: "Convolution"
  bottom: "conv3"
  top: "conv4"
  param {
    lr_mult: 1
    decay_mult: 1
  }
  param {
    lr_mult: 2
    decay_mult: 0
  }
  convolution_param {
    num_output: 384
    pad: 1
    kernel_size: 3
    group: 2
    weight_filler {
      type: "gaussian"
      std: 0.01
    }
    bias_filler {
      type: "constant"
      value: 0.1
    }
  }
}
layer {
  name: "relu4"
  type: "ReLU"
  bottom: "conv4"
  top: "conv4"
}
layer {
  name: "conv5"
  type: "Convolution"
  bottom: "conv4"
  top: "conv5"
  param {
    lr_mult: 1
    decay_mult: 1
  }
  param {
    lr_mult: 2
    decay_mult: 0
  }
  convolution_param {
    num_output: 256
    pad: 1
    kernel_size: 3
    group: 2
    weight_filler {
      type: "gaussian"
      std: 0.01
    }
    bias_filler {
      type: "constant"
      value: 0.1
    }
  }
}
layer {
  name: "relu5"
  type: "ReLU"
  bottom: "conv5"
  top: "conv5"
}
layer {
  name: "pool5"
  type: "Pooling"
  bottom: "conv5"
  top: "pool5"
  pooling_param {
    pool: MAX
    kernel_size: 3
    stride: 2
  }
}
layer {
  name: "fc6"
  type: "InnerProduct"
  bottom: "pool5"
  top: "fc6"
  param {
    lr_mult: 1
    decay_mult: 1
  }
  param {
    lr_mult: 2
    decay_mult: 0
  }
  inner_product_param {
    num_output: 4096
    weight_filler {
      type: "gaussian"
      std: 0.005
    }
    bias_filler {
      type: "constant"
      value: 0.1
    }
  }
}
layer {
  name: "relu6"
  type: "ReLU"
  bottom: "fc6"
  top: "fc6"
}
layer {
  name: "drop6"
  type: "Dropout"
  bottom: "fc6"
  top: "fc6"
  dropout_param {
    dropout_ratio: 0.5
  }
}
layer {
  name: "fc7"
  type: "InnerProduct"
  bottom: "fc6"
  top: "fc7"
  param {
    lr_mult: 1
    decay_mult: 1
  }
  param {
    lr_mult: 2
    decay_mult: 0
  }
  inner_product_param {
    num_output: 4096
    weight_filler {
      type: "gaussian"
      std: 0.005
    }
    bias_filler {
      type: "constant"
      value: 0.1
    }
  }
}
layer {
  name: "relu7"
  type: "ReLU"
  bottom: "fc7"
  top: "fc7"
}
layer {
  name: "drop7"
  type: "Dropout"
  bottom: "fc7"
  top: "fc7"
  dropout_param {
    dropout_ratio: 0.5
  }
}
layer {
  name: "fc8_plantvillage"
  type: "InnerProduct"
  bottom: "fc7"
  top: "fc8_plantvillage"
  param {
    lr_mult: 1
    decay_mult: 1
  }
  param {
    lr_mult: 2
    decay_mult: 0
  }
  inner_product_param {
    num_output: 38
    weight_filler {
      type: "gaussian"
      std: 0.01
    }
    bias_filler {
      type: "constant"
      value: 0
    }
  }
}
layer {
  name: "prob"
  type: "Softmax"
  bottom: "fc8_plantvillage"
  top: "prob"
  include {
    phase: TEST
  }
}
layer {
  name: "hdf5out"
  type: "HDF5Output"
  bottom: "prob"
  bottom: "label"
  include {
    phase: TEST
  }
  hdf5_output_param {
    file_name: "hdf5_dumps/iter_6293.h5"
  }
}
layer {
  name: "loss"
  type: "SoftmaxWithLoss"
  bottom: "fc8_plantvillage"
  bottom: "label"
  top: "loss"
}
layer {
  name: "accuracy"
  type: "Accuracy"
  bottom: "fc8_plantvillage"
  bottom: "label"
  top: "accuracy"
  include {
    phase: TEST
  }
}
I0403 12:49:10.152310 26777 layer_factory.hpp:77] Creating layer data
I0403 12:49:10.152943 26777 net.cpp:91] Creating Layer data
I0403 12:49:10.152976 26777 net.cpp:399] data -> data
I0403 12:49:10.153029 26777 net.cpp:399] data -> label
I0403 12:49:10.153067 26777 data_transformer.cpp:25] Loading mean file from: /home/mohanty/data/final_dataset/lmdb/color-40-60/mean.binaryproto
I0403 12:49:10.155915 26780 db_lmdb.cpp:38] Opened lmdb /home/mohanty/data/final_dataset/lmdb/color-40-60/test_db
I0403 12:49:10.167608 26777 data_layer.cpp:41] output data size: 100,3,227,227
I0403 12:49:10.291031 26777 net.cpp:141] Setting up data
I0403 12:49:10.291121 26777 net.cpp:148] Top shape: 100 3 227 227 (15458700)
I0403 12:49:10.291146 26777 net.cpp:148] Top shape: 100 (100)
I0403 12:49:10.291163 26777 net.cpp:156] Memory required for data: 61835200
I0403 12:49:10.291193 26777 layer_factory.hpp:77] Creating layer label_data_1_split
I0403 12:49:10.291221 26777 net.cpp:91] Creating Layer label_data_1_split
I0403 12:49:10.291241 26777 net.cpp:425] label_data_1_split <- label
I0403 12:49:10.291273 26777 net.cpp:399] label_data_1_split -> label_data_1_split_0
I0403 12:49:10.291301 26777 net.cpp:399] label_data_1_split -> label_data_1_split_1
I0403 12:49:10.291329 26777 net.cpp:399] label_data_1_split -> label_data_1_split_2
I0403 12:49:10.291398 26777 net.cpp:141] Setting up label_data_1_split
I0403 12:49:10.291422 26777 net.cpp:148] Top shape: 100 (100)
I0403 12:49:10.291440 26777 net.cpp:148] Top shape: 100 (100)
I0403 12:49:10.291457 26777 net.cpp:148] Top shape: 100 (100)
I0403 12:49:10.291473 26777 net.cpp:156] Memory required for data: 61836400
I0403 12:49:10.291489 26777 layer_factory.hpp:77] Creating layer conv1
I0403 12:49:10.291522 26777 net.cpp:91] Creating Layer conv1
I0403 12:49:10.291541 26777 net.cpp:425] conv1 <- data
I0403 12:49:10.291561 26777 net.cpp:399] conv1 -> conv1
I0403 12:49:10.440213 26777 net.cpp:141] Setting up conv1
I0403 12:49:10.440290 26777 net.cpp:148] Top shape: 100 96 55 55 (29040000)
I0403 12:49:10.440310 26777 net.cpp:156] Memory required for data: 177996400
I0403 12:49:10.440342 26777 layer_factory.hpp:77] Creating layer relu1
I0403 12:49:10.440376 26777 net.cpp:91] Creating Layer relu1
I0403 12:49:10.440397 26777 net.cpp:425] relu1 <- conv1
I0403 12:49:10.440418 26777 net.cpp:386] relu1 -> conv1 (in-place)
I0403 12:49:10.440676 26777 net.cpp:141] Setting up relu1
I0403 12:49:10.440706 26777 net.cpp:148] Top shape: 100 96 55 55 (29040000)
I0403 12:49:10.440721 26777 net.cpp:156] Memory required for data: 294156400
I0403 12:49:10.440771 26777 layer_factory.hpp:77] Creating layer norm1
I0403 12:49:10.440800 26777 net.cpp:91] Creating Layer norm1
I0403 12:49:10.440819 26777 net.cpp:425] norm1 <- conv1
I0403 12:49:10.440839 26777 net.cpp:399] norm1 -> norm1
I0403 12:49:10.441148 26777 net.cpp:141] Setting up norm1
I0403 12:49:10.441177 26777 net.cpp:148] Top shape: 100 96 55 55 (29040000)
I0403 12:49:10.441195 26777 net.cpp:156] Memory required for data: 410316400
I0403 12:49:10.441210 26777 layer_factory.hpp:77] Creating layer pool1
I0403 12:49:10.441234 26777 net.cpp:91] Creating Layer pool1
I0403 12:49:10.441252 26777 net.cpp:425] pool1 <- norm1
I0403 12:49:10.441272 26777 net.cpp:399] pool1 -> pool1
I0403 12:49:10.441339 26777 net.cpp:141] Setting up pool1
I0403 12:49:10.441370 26777 net.cpp:148] Top shape: 100 96 27 27 (6998400)
I0403 12:49:10.441386 26777 net.cpp:156] Memory required for data: 438310000
I0403 12:49:10.441402 26777 layer_factory.hpp:77] Creating layer conv2
I0403 12:49:10.441428 26777 net.cpp:91] Creating Layer conv2
I0403 12:49:10.441445 26777 net.cpp:425] conv2 <- pool1
I0403 12:49:10.441464 26777 net.cpp:399] conv2 -> conv2
I0403 12:49:10.457012 26777 net.cpp:141] Setting up conv2
I0403 12:49:10.457061 26777 net.cpp:148] Top shape: 100 256 27 27 (18662400)
I0403 12:49:10.457077 26777 net.cpp:156] Memory required for data: 512959600
I0403 12:49:10.457103 26777 layer_factory.hpp:77] Creating layer relu2
I0403 12:49:10.457125 26777 net.cpp:91] Creating Layer relu2
I0403 12:49:10.457142 26777 net.cpp:425] relu2 <- conv2
I0403 12:49:10.457161 26777 net.cpp:386] relu2 -> conv2 (in-place)
I0403 12:49:10.457440 26777 net.cpp:141] Setting up relu2
I0403 12:49:10.457469 26777 net.cpp:148] Top shape: 100 256 27 27 (18662400)
I0403 12:49:10.457485 26777 net.cpp:156] Memory required for data: 587609200
I0403 12:49:10.457502 26777 layer_factory.hpp:77] Creating layer norm2
I0403 12:49:10.457525 26777 net.cpp:91] Creating Layer norm2
I0403 12:49:10.457542 26777 net.cpp:425] norm2 <- conv2
I0403 12:49:10.457561 26777 net.cpp:399] norm2 -> norm2
I0403 12:49:10.457748 26777 net.cpp:141] Setting up norm2
I0403 12:49:10.457777 26777 net.cpp:148] Top shape: 100 256 27 27 (18662400)
I0403 12:49:10.457793 26777 net.cpp:156] Memory required for data: 662258800
I0403 12:49:10.457809 26777 layer_factory.hpp:77] Creating layer pool2
I0403 12:49:10.457828 26777 net.cpp:91] Creating Layer pool2
I0403 12:49:10.457845 26777 net.cpp:425] pool2 <- norm2
I0403 12:49:10.457864 26777 net.cpp:399] pool2 -> pool2
I0403 12:49:10.457916 26777 net.cpp:141] Setting up pool2
I0403 12:49:10.457939 26777 net.cpp:148] Top shape: 100 256 13 13 (4326400)
I0403 12:49:10.457957 26777 net.cpp:156] Memory required for data: 679564400
I0403 12:49:10.457973 26777 layer_factory.hpp:77] Creating layer conv3
I0403 12:49:10.457995 26777 net.cpp:91] Creating Layer conv3
I0403 12:49:10.458014 26777 net.cpp:425] conv3 <- pool2
I0403 12:49:10.458034 26777 net.cpp:399] conv3 -> conv3
I0403 12:49:10.498733 26777 net.cpp:141] Setting up conv3
I0403 12:49:10.498807 26777 net.cpp:148] Top shape: 100 384 13 13 (6489600)
I0403 12:49:10.498826 26777 net.cpp:156] Memory required for data: 705522800
I0403 12:49:10.498852 26777 layer_factory.hpp:77] Creating layer relu3
I0403 12:49:10.498883 26777 net.cpp:91] Creating Layer relu3
I0403 12:49:10.498904 26777 net.cpp:425] relu3 <- conv3
I0403 12:49:10.498925 26777 net.cpp:386] relu3 -> conv3 (in-place)
I0403 12:49:10.499215 26777 net.cpp:141] Setting up relu3
I0403 12:49:10.499244 26777 net.cpp:148] Top shape: 100 384 13 13 (6489600)
I0403 12:49:10.499264 26777 net.cpp:156] Memory required for data: 731481200
I0403 12:49:10.499280 26777 layer_factory.hpp:77] Creating layer conv4
I0403 12:49:10.499307 26777 net.cpp:91] Creating Layer conv4
I0403 12:49:10.499327 26777 net.cpp:425] conv4 <- conv3
I0403 12:49:10.499356 26777 net.cpp:399] conv4 -> conv4
I0403 12:49:10.530375 26777 net.cpp:141] Setting up conv4
I0403 12:49:10.530444 26777 net.cpp:148] Top shape: 100 384 13 13 (6489600)
I0403 12:49:10.530495 26777 net.cpp:156] Memory required for data: 757439600
I0403 12:49:10.530519 26777 layer_factory.hpp:77] Creating layer relu4
I0403 12:49:10.530544 26777 net.cpp:91] Creating Layer relu4
I0403 12:49:10.530563 26777 net.cpp:425] relu4 <- conv4
I0403 12:49:10.530587 26777 net.cpp:386] relu4 -> conv4 (in-place)
I0403 12:49:10.530915 26777 net.cpp:141] Setting up relu4
I0403 12:49:10.530942 26777 net.cpp:148] Top shape: 100 384 13 13 (6489600)
I0403 12:49:10.530959 26777 net.cpp:156] Memory required for data: 783398000
I0403 12:49:10.530974 26777 layer_factory.hpp:77] Creating layer conv5
I0403 12:49:10.531003 26777 net.cpp:91] Creating Layer conv5
I0403 12:49:10.531023 26777 net.cpp:425] conv5 <- conv4
I0403 12:49:10.531045 26777 net.cpp:399] conv5 -> conv5
I0403 12:49:10.552181 26777 net.cpp:141] Setting up conv5
I0403 12:49:10.552233 26777 net.cpp:148] Top shape: 100 256 13 13 (4326400)
I0403 12:49:10.552251 26777 net.cpp:156] Memory required for data: 800703600
I0403 12:49:10.552279 26777 layer_factory.hpp:77] Creating layer relu5
I0403 12:49:10.552302 26777 net.cpp:91] Creating Layer relu5
I0403 12:49:10.552320 26777 net.cpp:425] relu5 <- conv5
I0403 12:49:10.552341 26777 net.cpp:386] relu5 -> conv5 (in-place)
I0403 12:49:10.552636 26777 net.cpp:141] Setting up relu5
I0403 12:49:10.552664 26777 net.cpp:148] Top shape: 100 256 13 13 (4326400)
I0403 12:49:10.552680 26777 net.cpp:156] Memory required for data: 818009200
I0403 12:49:10.552697 26777 layer_factory.hpp:77] Creating layer pool5
I0403 12:49:10.552724 26777 net.cpp:91] Creating Layer pool5
I0403 12:49:10.552742 26777 net.cpp:425] pool5 <- conv5
I0403 12:49:10.552763 26777 net.cpp:399] pool5 -> pool5
I0403 12:49:10.552827 26777 net.cpp:141] Setting up pool5
I0403 12:49:10.552852 26777 net.cpp:148] Top shape: 100 256 6 6 (921600)
I0403 12:49:10.552868 26777 net.cpp:156] Memory required for data: 821695600
I0403 12:49:10.552884 26777 layer_factory.hpp:77] Creating layer fc6
I0403 12:49:10.552916 26777 net.cpp:91] Creating Layer fc6
I0403 12:49:10.552934 26777 net.cpp:425] fc6 <- pool5
I0403 12:49:10.552955 26777 net.cpp:399] fc6 -> fc6
I0403 12:49:12.137272 26777 net.cpp:141] Setting up fc6
I0403 12:49:12.137341 26777 net.cpp:148] Top shape: 100 4096 (409600)
I0403 12:49:12.137364 26777 net.cpp:156] Memory required for data: 823334000
I0403 12:49:12.137388 26777 layer_factory.hpp:77] Creating layer relu6
I0403 12:49:12.137411 26777 net.cpp:91] Creating Layer relu6
I0403 12:49:12.137429 26777 net.cpp:425] relu6 <- fc6
I0403 12:49:12.137451 26777 net.cpp:386] relu6 -> fc6 (in-place)
I0403 12:49:12.137679 26777 net.cpp:141] Setting up relu6
I0403 12:49:12.137704 26777 net.cpp:148] Top shape: 100 4096 (409600)
I0403 12:49:12.137720 26777 net.cpp:156] Memory required for data: 824972400
I0403 12:49:12.137737 26777 layer_factory.hpp:77] Creating layer drop6
I0403 12:49:12.137758 26777 net.cpp:91] Creating Layer drop6
I0403 12:49:12.137773 26777 net.cpp:425] drop6 <- fc6
I0403 12:49:12.137791 26777 net.cpp:386] drop6 -> fc6 (in-place)
I0403 12:49:12.137845 26777 net.cpp:141] Setting up drop6
I0403 12:49:12.137868 26777 net.cpp:148] Top shape: 100 4096 (409600)
I0403 12:49:12.137883 26777 net.cpp:156] Memory required for data: 826610800
I0403 12:49:12.137899 26777 layer_factory.hpp:77] Creating layer fc7
I0403 12:49:12.137919 26777 net.cpp:91] Creating Layer fc7
I0403 12:49:12.137935 26777 net.cpp:425] fc7 <- fc6
I0403 12:49:12.137956 26777 net.cpp:399] fc7 -> fc7
I0403 12:49:12.827196 26777 net.cpp:141] Setting up fc7
I0403 12:49:12.827239 26777 net.cpp:148] Top shape: 100 4096 (409600)
I0403 12:49:12.827255 26777 net.cpp:156] Memory required for data: 828249200
I0403 12:49:12.827291 26777 layer_factory.hpp:77] Creating layer relu7
I0403 12:49:12.827316 26777 net.cpp:91] Creating Layer relu7
I0403 12:49:12.827338 26777 net.cpp:425] relu7 <- fc7
I0403 12:49:12.827364 26777 net.cpp:386] relu7 -> fc7 (in-place)
I0403 12:49:12.827785 26777 net.cpp:141] Setting up relu7
I0403 12:49:12.827812 26777 net.cpp:148] Top shape: 100 4096 (409600)
I0403 12:49:12.827863 26777 net.cpp:156] Memory required for data: 829887600
I0403 12:49:12.827880 26777 layer_factory.hpp:77] Creating layer drop7
I0403 12:49:12.827903 26777 net.cpp:91] Creating Layer drop7
I0403 12:49:12.827919 26777 net.cpp:425] drop7 <- fc7
I0403 12:49:12.827939 26777 net.cpp:386] drop7 -> fc7 (in-place)
I0403 12:49:12.827983 26777 net.cpp:141] Setting up drop7
I0403 12:49:12.828007 26777 net.cpp:148] Top shape: 100 4096 (409600)
I0403 12:49:12.828022 26777 net.cpp:156] Memory required for data: 831526000
I0403 12:49:12.828037 26777 layer_factory.hpp:77] Creating layer fc8_plantvillage
I0403 12:49:12.828058 26777 net.cpp:91] Creating Layer fc8_plantvillage
I0403 12:49:12.828074 26777 net.cpp:425] fc8_plantvillage <- fc7
I0403 12:49:12.828096 26777 net.cpp:399] fc8_plantvillage -> fc8_plantvillage
I0403 12:49:12.834990 26777 net.cpp:141] Setting up fc8_plantvillage
I0403 12:49:12.835023 26777 net.cpp:148] Top shape: 100 38 (3800)
I0403 12:49:12.835039 26777 net.cpp:156] Memory required for data: 831541200
I0403 12:49:12.835060 26777 layer_factory.hpp:77] Creating layer fc8_plantvillage_fc8_plantvillage_0_split
I0403 12:49:12.835079 26777 net.cpp:91] Creating Layer fc8_plantvillage_fc8_plantvillage_0_split
I0403 12:49:12.835095 26777 net.cpp:425] fc8_plantvillage_fc8_plantvillage_0_split <- fc8_plantvillage
I0403 12:49:12.835113 26777 net.cpp:399] fc8_plantvillage_fc8_plantvillage_0_split -> fc8_plantvillage_fc8_plantvillage_0_split_0
I0403 12:49:12.835134 26777 net.cpp:399] fc8_plantvillage_fc8_plantvillage_0_split -> fc8_plantvillage_fc8_plantvillage_0_split_1
I0403 12:49:12.835153 26777 net.cpp:399] fc8_plantvillage_fc8_plantvillage_0_split -> fc8_plantvillage_fc8_plantvillage_0_split_2
I0403 12:49:12.835232 26777 net.cpp:141] Setting up fc8_plantvillage_fc8_plantvillage_0_split
I0403 12:49:12.835256 26777 net.cpp:148] Top shape: 100 38 (3800)
I0403 12:49:12.835273 26777 net.cpp:148] Top shape: 100 38 (3800)
I0403 12:49:12.835289 26777 net.cpp:148] Top shape: 100 38 (3800)
I0403 12:49:12.835302 26777 net.cpp:156] Memory required for data: 831586800
I0403 12:49:12.835317 26777 layer_factory.hpp:77] Creating layer prob
I0403 12:49:12.835335 26777 net.cpp:91] Creating Layer prob
I0403 12:49:12.835371 26777 net.cpp:425] prob <- fc8_plantvillage_fc8_plantvillage_0_split_0
I0403 12:49:12.835391 26777 net.cpp:399] prob -> prob
I0403 12:49:12.835633 26777 net.cpp:141] Setting up prob
I0403 12:49:12.835660 26777 net.cpp:148] Top shape: 100 38 (3800)
I0403 12:49:12.835676 26777 net.cpp:156] Memory required for data: 831602000
I0403 12:49:12.835705 26777 layer_factory.hpp:77] Creating layer hdf5out
I0403 12:49:12.835728 26777 net.cpp:91] Creating Layer hdf5out
I0403 12:49:12.835744 26777 net.cpp:425] hdf5out <- prob
I0403 12:49:12.835762 26777 net.cpp:425] hdf5out <- label_data_1_split_0
I0403 12:49:12.857388 26777 net.cpp:141] Setting up hdf5out
…
