…
I0403 12:44:45.714177 26674 net.cpp:313] The NetState phase (1) differed from the phase (0) specified by a rule in layer data
I0403 12:44:45.714515 26674 net.cpp:49] Initializing net from parameters: 
state {
  phase: TEST
}
layer {
  name: "data"
  type: "Data"
  top: "data"
  top: "label"
  include {
    phase: TEST
  }
  transform_param {
    crop_size: 227
    mean_file: "/home/mohanty/data/final_dataset/lmdb/color-40-60/mean.binaryproto"
  }
  data_param {
    source: "/home/mohanty/data/final_dataset/lmdb/color-40-60/test_db"
    batch_size: 100
    backend: LMDB
  }
}
layer {
  name: "conv1"
  type: "Convolution"
  bottom: "data"
  top: "conv1"
  param {
    lr_mult: 1
    decay_mult: 1
  }
  param {
    lr_mult: 2
    decay_mult: 0
  }
  convolution_param {
    num_output: 96
    kernel_size: 11
    stride: 4
    weight_filler {
      type: "gaussian"
      std: 0.01
    }
    bias_filler {
      type: "constant"
      value: 0
    }
  }
}
layer {
  name: "relu1"
  type: "ReLU"
  bottom: "conv1"
  top: "conv1"
}
layer {
  name: "norm1"
  type: "LRN"
  bottom: "conv1"
  top: "norm1"
  lrn_param {
    local_size: 5
    alpha: 0.0001
    beta: 0.75
  }
}
layer {
  name: "pool1"
  type: "Pooling"
  bottom: "norm1"
  top: "pool1"
  pooling_param {
    pool: MAX
    kernel_size: 3
    stride: 2
  }
}
layer {
  name: "conv2"
  type: "Convolution"
  bottom: "pool1"
  top: "conv2"
  param {
    lr_mult: 1
    decay_mult: 1
  }
  param {
    lr_mult: 2
    decay_mult: 0
  }
  convolution_param {
    num_output: 256
    pad: 2
    kernel_size: 5
    group: 2
    weight_filler {
      type: "gaussian"
      std: 0.01
    }
    bias_filler {
      type: "constant"
      value: 0.1
    }
  }
}
layer {
  name: "relu2"
  type: "ReLU"
  bottom: "conv2"
  top: "conv2"
}
layer {
  name: "norm2"
  type: "LRN"
  bottom: "conv2"
  top: "norm2"
  lrn_param {
    local_size: 5
    alpha: 0.0001
    beta: 0.75
  }
}
layer {
  name: "pool2"
  type: "Pooling"
  bottom: "norm2"
  top: "pool2"
  pooling_param {
    pool: MAX
    kernel_size: 3
    stride: 2
  }
}
layer {
  name: "conv3"
  type: "Convolution"
  bottom: "pool2"
  top: "conv3"
  param {
    lr_mult: 1
    decay_mult: 1
  }
  param {
    lr_mult: 2
    decay_mult: 0
  }
  convolution_param {
    num_output: 384
    pad: 1
    kernel_size: 3
    weight_filler {
      type: "gaussian"
      std: 0.01
    }
    bias_filler {
      type: "constant"
      value: 0
    }
  }
}
layer {
  name: "relu3"
  type: "ReLU"
  bottom: "conv3"
  top: "conv3"
}
layer {
  name: "conv4"
  type: "Convolution"
  bottom: "conv3"
  top: "conv4"
  param {
    lr_mult: 1
    decay_mult: 1
  }
  param {
    lr_mult: 2
    decay_mult: 0
  }
  convolution_param {
    num_output: 384
    pad: 1
    kernel_size: 3
    group: 2
    weight_filler {
      type: "gaussian"
      std: 0.01
    }
    bias_filler {
      type: "constant"
      value: 0.1
    }
  }
}
layer {
  name: "relu4"
  type: "ReLU"
  bottom: "conv4"
  top: "conv4"
}
layer {
  name: "conv5"
  type: "Convolution"
  bottom: "conv4"
  top: "conv5"
  param {
    lr_mult: 1
    decay_mult: 1
  }
  param {
    lr_mult: 2
    decay_mult: 0
  }
  convolution_param {
    num_output: 256
    pad: 1
    kernel_size: 3
    group: 2
    weight_filler {
      type: "gaussian"
      std: 0.01
    }
    bias_filler {
      type: "constant"
      value: 0.1
    }
  }
}
layer {
  name: "relu5"
  type: "ReLU"
  bottom: "conv5"
  top: "conv5"
}
layer {
  name: "pool5"
  type: "Pooling"
  bottom: "conv5"
  top: "pool5"
  pooling_param {
    pool: MAX
    kernel_size: 3
    stride: 2
  }
}
layer {
  name: "fc6"
  type: "InnerProduct"
  bottom: "pool5"
  top: "fc6"
  param {
    lr_mult: 1
    decay_mult: 1
  }
  param {
    lr_mult: 2
    decay_mult: 0
  }
  inner_product_param {
    num_output: 4096
    weight_filler {
      type: "gaussian"
      std: 0.005
    }
    bias_filler {
      type: "constant"
      value: 0.1
    }
  }
}
layer {
  name: "relu6"
  type: "ReLU"
  bottom: "fc6"
  top: "fc6"
}
layer {
  name: "drop6"
  type: "Dropout"
  bottom: "fc6"
  top: "fc6"
  dropout_param {
    dropout_ratio: 0.5
  }
}
layer {
  name: "fc7"
  type: "InnerProduct"
  bottom: "fc6"
  top: "fc7"
  param {
    lr_mult: 1
    decay_mult: 1
  }
  param {
    lr_mult: 2
    decay_mult: 0
  }
  inner_product_param {
    num_output: 4096
    weight_filler {
      type: "gaussian"
      std: 0.005
    }
    bias_filler {
      type: "constant"
      value: 0.1
    }
  }
}
layer {
  name: "relu7"
  type: "ReLU"
  bottom: "fc7"
  top: "fc7"
}
layer {
  name: "drop7"
  type: "Dropout"
  bottom: "fc7"
  top: "fc7"
  dropout_param {
    dropout_ratio: 0.5
  }
}
layer {
  name: "fc8_plantvillage"
  type: "InnerProduct"
  bottom: "fc7"
  top: "fc8_plantvillage"
  param {
    lr_mult: 1
    decay_mult: 1
  }
  param {
    lr_mult: 2
    decay_mult: 0
  }
  inner_product_param {
    num_output: 38
    weight_filler {
      type: "gaussian"
      std: 0.01
    }
    bias_filler {
      type: "constant"
      value: 0
    }
  }
}
layer {
  name: "prob"
  type: "Softmax"
  bottom: "fc8_plantvillage"
  top: "prob"
  include {
    phase: TEST
  }
}
layer {
  name: "hdf5out"
  type: "HDF5Output"
  bottom: "prob"
  bottom: "label"
  include {
    phase: TEST
  }
  hdf5_output_param {
    file_name: "hdf5_dumps/iter_5425.h5"
  }
}
layer {
  name: "loss"
  type: "SoftmaxWithLoss"
  bottom: "fc8_plantvillage"
  bottom: "label"
  top: "loss"
}
layer {
  name: "accuracy"
  type: "Accuracy"
  bottom: "fc8_plantvillage"
  bottom: "label"
  top: "accuracy"
  include {
    phase: TEST
  }
}
I0403 12:44:45.715034 26674 layer_factory.hpp:77] Creating layer data
I0403 12:44:45.715689 26674 net.cpp:91] Creating Layer data
I0403 12:44:45.715724 26674 net.cpp:399] data -> data
I0403 12:44:45.715777 26674 net.cpp:399] data -> label
I0403 12:44:45.715816 26674 data_transformer.cpp:25] Loading mean file from: /home/mohanty/data/final_dataset/lmdb/color-40-60/mean.binaryproto
I0403 12:44:45.718607 26677 db_lmdb.cpp:38] Opened lmdb /home/mohanty/data/final_dataset/lmdb/color-40-60/test_db
I0403 12:44:45.730399 26674 data_layer.cpp:41] output data size: 100,3,227,227
I0403 12:44:45.854123 26674 net.cpp:141] Setting up data
I0403 12:44:45.854217 26674 net.cpp:148] Top shape: 100 3 227 227 (15458700)
I0403 12:44:45.854240 26674 net.cpp:148] Top shape: 100 (100)
I0403 12:44:45.854256 26674 net.cpp:156] Memory required for data: 61835200
I0403 12:44:45.854285 26674 layer_factory.hpp:77] Creating layer label_data_1_split
I0403 12:44:45.854311 26674 net.cpp:91] Creating Layer label_data_1_split
I0403 12:44:45.854342 26674 net.cpp:425] label_data_1_split <- label
I0403 12:44:45.854377 26674 net.cpp:399] label_data_1_split -> label_data_1_split_0
I0403 12:44:45.854406 26674 net.cpp:399] label_data_1_split -> label_data_1_split_1
I0403 12:44:45.854429 26674 net.cpp:399] label_data_1_split -> label_data_1_split_2
I0403 12:44:45.854495 26674 net.cpp:141] Setting up label_data_1_split
I0403 12:44:45.854519 26674 net.cpp:148] Top shape: 100 (100)
I0403 12:44:45.854538 26674 net.cpp:148] Top shape: 100 (100)
I0403 12:44:45.854555 26674 net.cpp:148] Top shape: 100 (100)
I0403 12:44:45.854571 26674 net.cpp:156] Memory required for data: 61836400
I0403 12:44:45.854588 26674 layer_factory.hpp:77] Creating layer conv1
I0403 12:44:45.854620 26674 net.cpp:91] Creating Layer conv1
I0403 12:44:45.854641 26674 net.cpp:425] conv1 <- data
I0403 12:44:45.854661 26674 net.cpp:399] conv1 -> conv1
I0403 12:44:46.005650 26674 net.cpp:141] Setting up conv1
I0403 12:44:46.005728 26674 net.cpp:148] Top shape: 100 96 55 55 (29040000)
I0403 12:44:46.005746 26674 net.cpp:156] Memory required for data: 177996400
I0403 12:44:46.005779 26674 layer_factory.hpp:77] Creating layer relu1
I0403 12:44:46.005807 26674 net.cpp:91] Creating Layer relu1
I0403 12:44:46.005827 26674 net.cpp:425] relu1 <- conv1
I0403 12:44:46.005847 26674 net.cpp:386] relu1 -> conv1 (in-place)
I0403 12:44:46.006119 26674 net.cpp:141] Setting up relu1
I0403 12:44:46.006147 26674 net.cpp:148] Top shape: 100 96 55 55 (29040000)
I0403 12:44:46.006176 26674 net.cpp:156] Memory required for data: 294156400
I0403 12:44:46.006229 26674 layer_factory.hpp:77] Creating layer norm1
I0403 12:44:46.006260 26674 net.cpp:91] Creating Layer norm1
I0403 12:44:46.006281 26674 net.cpp:425] norm1 <- conv1
I0403 12:44:46.006301 26674 net.cpp:399] norm1 -> norm1
I0403 12:44:46.006692 26674 net.cpp:141] Setting up norm1
I0403 12:44:46.006721 26674 net.cpp:148] Top shape: 100 96 55 55 (29040000)
I0403 12:44:46.006738 26674 net.cpp:156] Memory required for data: 410316400
I0403 12:44:46.006754 26674 layer_factory.hpp:77] Creating layer pool1
I0403 12:44:46.006779 26674 net.cpp:91] Creating Layer pool1
I0403 12:44:46.006810 26674 net.cpp:425] pool1 <- norm1
I0403 12:44:46.006839 26674 net.cpp:399] pool1 -> pool1
I0403 12:44:46.006909 26674 net.cpp:141] Setting up pool1
I0403 12:44:46.006937 26674 net.cpp:148] Top shape: 100 96 27 27 (6998400)
I0403 12:44:46.006953 26674 net.cpp:156] Memory required for data: 438310000
I0403 12:44:46.006968 26674 layer_factory.hpp:77] Creating layer conv2
I0403 12:44:46.006994 26674 net.cpp:91] Creating Layer conv2
I0403 12:44:46.007012 26674 net.cpp:425] conv2 <- pool1
I0403 12:44:46.007032 26674 net.cpp:399] conv2 -> conv2
I0403 12:44:46.022536 26674 net.cpp:141] Setting up conv2
I0403 12:44:46.022588 26674 net.cpp:148] Top shape: 100 256 27 27 (18662400)
I0403 12:44:46.022606 26674 net.cpp:156] Memory required for data: 512959600
I0403 12:44:46.022629 26674 layer_factory.hpp:77] Creating layer relu2
I0403 12:44:46.022655 26674 net.cpp:91] Creating Layer relu2
I0403 12:44:46.022686 26674 net.cpp:425] relu2 <- conv2
I0403 12:44:46.022703 26674 net.cpp:386] relu2 -> conv2 (in-place)
I0403 12:44:46.023028 26674 net.cpp:141] Setting up relu2
I0403 12:44:46.023056 26674 net.cpp:148] Top shape: 100 256 27 27 (18662400)
I0403 12:44:46.023072 26674 net.cpp:156] Memory required for data: 587609200
I0403 12:44:46.023087 26674 layer_factory.hpp:77] Creating layer norm2
I0403 12:44:46.023111 26674 net.cpp:91] Creating Layer norm2
I0403 12:44:46.023129 26674 net.cpp:425] norm2 <- conv2
I0403 12:44:46.023149 26674 net.cpp:399] norm2 -> norm2
I0403 12:44:46.023357 26674 net.cpp:141] Setting up norm2
I0403 12:44:46.023383 26674 net.cpp:148] Top shape: 100 256 27 27 (18662400)
I0403 12:44:46.023399 26674 net.cpp:156] Memory required for data: 662258800
I0403 12:44:46.023414 26674 layer_factory.hpp:77] Creating layer pool2
I0403 12:44:46.023435 26674 net.cpp:91] Creating Layer pool2
I0403 12:44:46.023452 26674 net.cpp:425] pool2 <- norm2
I0403 12:44:46.023470 26674 net.cpp:399] pool2 -> pool2
I0403 12:44:46.023522 26674 net.cpp:141] Setting up pool2
I0403 12:44:46.023547 26674 net.cpp:148] Top shape: 100 256 13 13 (4326400)
I0403 12:44:46.023562 26674 net.cpp:156] Memory required for data: 679564400
I0403 12:44:46.023577 26674 layer_factory.hpp:77] Creating layer conv3
I0403 12:44:46.023602 26674 net.cpp:91] Creating Layer conv3
I0403 12:44:46.023620 26674 net.cpp:425] conv3 <- pool2
I0403 12:44:46.023648 26674 net.cpp:399] conv3 -> conv3
I0403 12:44:46.063444 26674 net.cpp:141] Setting up conv3
I0403 12:44:46.063518 26674 net.cpp:148] Top shape: 100 384 13 13 (6489600)
I0403 12:44:46.063535 26674 net.cpp:156] Memory required for data: 705522800
I0403 12:44:46.063565 26674 layer_factory.hpp:77] Creating layer relu3
I0403 12:44:46.063591 26674 net.cpp:91] Creating Layer relu3
I0403 12:44:46.063609 26674 net.cpp:425] relu3 <- conv3
I0403 12:44:46.063629 26674 net.cpp:386] relu3 -> conv3 (in-place)
I0403 12:44:46.063917 26674 net.cpp:141] Setting up relu3
I0403 12:44:46.063953 26674 net.cpp:148] Top shape: 100 384 13 13 (6489600)
I0403 12:44:46.063969 26674 net.cpp:156] Memory required for data: 731481200
I0403 12:44:46.063985 26674 layer_factory.hpp:77] Creating layer conv4
I0403 12:44:46.064012 26674 net.cpp:91] Creating Layer conv4
I0403 12:44:46.064030 26674 net.cpp:425] conv4 <- conv3
I0403 12:44:46.064051 26674 net.cpp:399] conv4 -> conv4
I0403 12:44:46.095273 26674 net.cpp:141] Setting up conv4
I0403 12:44:46.095347 26674 net.cpp:148] Top shape: 100 384 13 13 (6489600)
I0403 12:44:46.095396 26674 net.cpp:156] Memory required for data: 757439600
I0403 12:44:46.095419 26674 layer_factory.hpp:77] Creating layer relu4
I0403 12:44:46.095444 26674 net.cpp:91] Creating Layer relu4
I0403 12:44:46.095463 26674 net.cpp:425] relu4 <- conv4
I0403 12:44:46.095484 26674 net.cpp:386] relu4 -> conv4 (in-place)
I0403 12:44:46.095806 26674 net.cpp:141] Setting up relu4
I0403 12:44:46.095835 26674 net.cpp:148] Top shape: 100 384 13 13 (6489600)
I0403 12:44:46.095850 26674 net.cpp:156] Memory required for data: 783398000
I0403 12:44:46.095866 26674 layer_factory.hpp:77] Creating layer conv5
I0403 12:44:46.095893 26674 net.cpp:91] Creating Layer conv5
I0403 12:44:46.095912 26674 net.cpp:425] conv5 <- conv4
I0403 12:44:46.095934 26674 net.cpp:399] conv5 -> conv5
I0403 12:44:46.117362 26674 net.cpp:141] Setting up conv5
I0403 12:44:46.117415 26674 net.cpp:148] Top shape: 100 256 13 13 (4326400)
I0403 12:44:46.117434 26674 net.cpp:156] Memory required for data: 800703600
I0403 12:44:46.117458 26674 layer_factory.hpp:77] Creating layer relu5
I0403 12:44:46.117482 26674 net.cpp:91] Creating Layer relu5
I0403 12:44:46.117501 26674 net.cpp:425] relu5 <- conv5
I0403 12:44:46.117521 26674 net.cpp:386] relu5 -> conv5 (in-place)
I0403 12:44:46.117812 26674 net.cpp:141] Setting up relu5
I0403 12:44:46.117841 26674 net.cpp:148] Top shape: 100 256 13 13 (4326400)
I0403 12:44:46.117857 26674 net.cpp:156] Memory required for data: 818009200
I0403 12:44:46.117872 26674 layer_factory.hpp:77] Creating layer pool5
I0403 12:44:46.117897 26674 net.cpp:91] Creating Layer pool5
I0403 12:44:46.117915 26674 net.cpp:425] pool5 <- conv5
I0403 12:44:46.117938 26674 net.cpp:399] pool5 -> pool5
I0403 12:44:46.118000 26674 net.cpp:141] Setting up pool5
I0403 12:44:46.118026 26674 net.cpp:148] Top shape: 100 256 6 6 (921600)
I0403 12:44:46.118041 26674 net.cpp:156] Memory required for data: 821695600
I0403 12:44:46.118055 26674 layer_factory.hpp:77] Creating layer fc6
I0403 12:44:46.118085 26674 net.cpp:91] Creating Layer fc6
I0403 12:44:46.118105 26674 net.cpp:425] fc6 <- pool5
I0403 12:44:46.118124 26674 net.cpp:399] fc6 -> fc6
I0403 12:44:47.699878 26674 net.cpp:141] Setting up fc6
I0403 12:44:47.699926 26674 net.cpp:148] Top shape: 100 4096 (409600)
I0403 12:44:47.699944 26674 net.cpp:156] Memory required for data: 823334000
I0403 12:44:47.699965 26674 layer_factory.hpp:77] Creating layer relu6
I0403 12:44:47.699987 26674 net.cpp:91] Creating Layer relu6
I0403 12:44:47.700004 26674 net.cpp:425] relu6 <- fc6
I0403 12:44:47.700026 26674 net.cpp:386] relu6 -> fc6 (in-place)
I0403 12:44:47.700258 26674 net.cpp:141] Setting up relu6
I0403 12:44:47.700284 26674 net.cpp:148] Top shape: 100 4096 (409600)
I0403 12:44:47.700299 26674 net.cpp:156] Memory required for data: 824972400
I0403 12:44:47.700314 26674 layer_factory.hpp:77] Creating layer drop6
I0403 12:44:47.700357 26674 net.cpp:91] Creating Layer drop6
I0403 12:44:47.700374 26674 net.cpp:425] drop6 <- fc6
I0403 12:44:47.700393 26674 net.cpp:386] drop6 -> fc6 (in-place)
I0403 12:44:47.700445 26674 net.cpp:141] Setting up drop6
I0403 12:44:47.700469 26674 net.cpp:148] Top shape: 100 4096 (409600)
I0403 12:44:47.700484 26674 net.cpp:156] Memory required for data: 826610800
I0403 12:44:47.700505 26674 layer_factory.hpp:77] Creating layer fc7
I0403 12:44:47.700525 26674 net.cpp:91] Creating Layer fc7
I0403 12:44:47.700553 26674 net.cpp:425] fc7 <- fc6
I0403 12:44:47.700578 26674 net.cpp:399] fc7 -> fc7
I0403 12:44:48.400288 26674 net.cpp:141] Setting up fc7
I0403 12:44:48.400372 26674 net.cpp:148] Top shape: 100 4096 (409600)
I0403 12:44:48.400389 26674 net.cpp:156] Memory required for data: 828249200
I0403 12:44:48.400413 26674 layer_factory.hpp:77] Creating layer relu7
I0403 12:44:48.400439 26674 net.cpp:91] Creating Layer relu7
I0403 12:44:48.400456 26674 net.cpp:425] relu7 <- fc7
I0403 12:44:48.400476 26674 net.cpp:386] relu7 -> fc7 (in-place)
I0403 12:44:48.400924 26674 net.cpp:141] Setting up relu7
I0403 12:44:48.400951 26674 net.cpp:148] Top shape: 100 4096 (409600)
I0403 12:44:48.401000 26674 net.cpp:156] Memory required for data: 829887600
I0403 12:44:48.401017 26674 layer_factory.hpp:77] Creating layer drop7
I0403 12:44:48.401039 26674 net.cpp:91] Creating Layer drop7
I0403 12:44:48.401057 26674 net.cpp:425] drop7 <- fc7
I0403 12:44:48.401074 26674 net.cpp:386] drop7 -> fc7 (in-place)
I0403 12:44:48.401120 26674 net.cpp:141] Setting up drop7
I0403 12:44:48.401144 26674 net.cpp:148] Top shape: 100 4096 (409600)
I0403 12:44:48.401160 26674 net.cpp:156] Memory required for data: 831526000
I0403 12:44:48.401175 26674 layer_factory.hpp:77] Creating layer fc8_plantvillage
I0403 12:44:48.401196 26674 net.cpp:91] Creating Layer fc8_plantvillage
I0403 12:44:48.401212 26674 net.cpp:425] fc8_plantvillage <- fc7
I0403 12:44:48.401233 26674 net.cpp:399] fc8_plantvillage -> fc8_plantvillage
I0403 12:44:48.408032 26674 net.cpp:141] Setting up fc8_plantvillage
I0403 12:44:48.408062 26674 net.cpp:148] Top shape: 100 38 (3800)
I0403 12:44:48.408079 26674 net.cpp:156] Memory required for data: 831541200
I0403 12:44:48.408098 26674 layer_factory.hpp:77] Creating layer fc8_plantvillage_fc8_plantvillage_0_split
I0403 12:44:48.408120 26674 net.cpp:91] Creating Layer fc8_plantvillage_fc8_plantvillage_0_split
I0403 12:44:48.408136 26674 net.cpp:425] fc8_plantvillage_fc8_plantvillage_0_split <- fc8_plantvillage
I0403 12:44:48.408155 26674 net.cpp:399] fc8_plantvillage_fc8_plantvillage_0_split -> fc8_plantvillage_fc8_plantvillage_0_split_0
I0403 12:44:48.408176 26674 net.cpp:399] fc8_plantvillage_fc8_plantvillage_0_split -> fc8_plantvillage_fc8_plantvillage_0_split_1
I0403 12:44:48.408200 26674 net.cpp:399] fc8_plantvillage_fc8_plantvillage_0_split -> fc8_plantvillage_fc8_plantvillage_0_split_2
I0403 12:44:48.408280 26674 net.cpp:141] Setting up fc8_plantvillage_fc8_plantvillage_0_split
I0403 12:44:48.408304 26674 net.cpp:148] Top shape: 100 38 (3800)
I0403 12:44:48.408329 26674 net.cpp:148] Top shape: 100 38 (3800)
I0403 12:44:48.408345 26674 net.cpp:148] Top shape: 100 38 (3800)
I0403 12:44:48.408360 26674 net.cpp:156] Memory required for data: 831586800
I0403 12:44:48.408375 26674 layer_factory.hpp:77] Creating layer prob
I0403 12:44:48.408395 26674 net.cpp:91] Creating Layer prob
I0403 12:44:48.408411 26674 net.cpp:425] prob <- fc8_plantvillage_fc8_plantvillage_0_split_0
I0403 12:44:48.408433 26674 net.cpp:399] prob -> prob
I0403 12:44:48.408670 26674 net.cpp:141] Setting up prob
I0403 12:44:48.408699 26674 net.cpp:148] Top shape: 100 38 (3800)
I0403 12:44:48.408715 26674 net.cpp:156] Memory required for data: 831602000
I0403 12:44:48.408730 26674 layer_factory.hpp:77] Creating layer hdf5out
I0403 12:44:48.408752 26674 net.cpp:91] Creating Layer hdf5out
I0403 12:44:48.408769 26674 net.cpp:425] hdf5out <- prob
I0403 12:44:48.408787 26674 net.cpp:425] hdf5out <- label_data_1_split_0
I0403 12:44:48.413704 26674 net.cpp:141] Setting up hdf5out
…
