…
I0403 12:33:45.409934 26424 net.cpp:313] The NetState phase (1) differed from the phase (0) specified by a rule in layer data
I0403 12:33:45.410251 26424 net.cpp:49] Initializing net from parameters: 
state {
  phase: TEST
}
layer {
  name: "data"
  type: "Data"
  top: "data"
  top: "label"
  include {
    phase: TEST
  }
  transform_param {
    crop_size: 227
    mean_file: "/home/mohanty/data/final_dataset/lmdb/color-40-60/mean.binaryproto"
  }
  data_param {
    source: "/home/mohanty/data/final_dataset/lmdb/color-40-60/test_db"
    batch_size: 100
    backend: LMDB
  }
}
layer {
  name: "conv1"
  type: "Convolution"
  bottom: "data"
  top: "conv1"
  param {
    lr_mult: 1
    decay_mult: 1
  }
  param {
    lr_mult: 2
    decay_mult: 0
  }
  convolution_param {
    num_output: 96
    kernel_size: 11
    stride: 4
    weight_filler {
      type: "gaussian"
      std: 0.01
    }
    bias_filler {
      type: "constant"
      value: 0
    }
  }
}
layer {
  name: "relu1"
  type: "ReLU"
  bottom: "conv1"
  top: "conv1"
}
layer {
  name: "norm1"
  type: "LRN"
  bottom: "conv1"
  top: "norm1"
  lrn_param {
    local_size: 5
    alpha: 0.0001
    beta: 0.75
  }
}
layer {
  name: "pool1"
  type: "Pooling"
  bottom: "norm1"
  top: "pool1"
  pooling_param {
    pool: MAX
    kernel_size: 3
    stride: 2
  }
}
layer {
  name: "conv2"
  type: "Convolution"
  bottom: "pool1"
  top: "conv2"
  param {
    lr_mult: 1
    decay_mult: 1
  }
  param {
    lr_mult: 2
    decay_mult: 0
  }
  convolution_param {
    num_output: 256
    pad: 2
    kernel_size: 5
    group: 2
    weight_filler {
      type: "gaussian"
      std: 0.01
    }
    bias_filler {
      type: "constant"
      value: 0.1
    }
  }
}
layer {
  name: "relu2"
  type: "ReLU"
  bottom: "conv2"
  top: "conv2"
}
layer {
  name: "norm2"
  type: "LRN"
  bottom: "conv2"
  top: "norm2"
  lrn_param {
    local_size: 5
    alpha: 0.0001
    beta: 0.75
  }
}
layer {
  name: "pool2"
  type: "Pooling"
  bottom: "norm2"
  top: "pool2"
  pooling_param {
    pool: MAX
    kernel_size: 3
    stride: 2
  }
}
layer {
  name: "conv3"
  type: "Convolution"
  bottom: "pool2"
  top: "conv3"
  param {
    lr_mult: 1
    decay_mult: 1
  }
  param {
    lr_mult: 2
    decay_mult: 0
  }
  convolution_param {
    num_output: 384
    pad: 1
    kernel_size: 3
    weight_filler {
      type: "gaussian"
      std: 0.01
    }
    bias_filler {
      type: "constant"
      value: 0
    }
  }
}
layer {
  name: "relu3"
  type: "ReLU"
  bottom: "conv3"
  top: "conv3"
}
layer {
  name: "conv4"
  type: "Convolution"
  bottom: "conv3"
  top: "conv4"
  param {
    lr_mult: 1
    decay_mult: 1
  }
  param {
    lr_mult: 2
    decay_mult: 0
  }
  convolution_param {
    num_output: 384
    pad: 1
    kernel_size: 3
    group: 2
    weight_filler {
      type: "gaussian"
      std: 0.01
    }
    bias_filler {
      type: "constant"
      value: 0.1
    }
  }
}
layer {
  name: "relu4"
  type: "ReLU"
  bottom: "conv4"
  top: "conv4"
}
layer {
  name: "conv5"
  type: "Convolution"
  bottom: "conv4"
  top: "conv5"
  param {
    lr_mult: 1
    decay_mult: 1
  }
  param {
    lr_mult: 2
    decay_mult: 0
  }
  convolution_param {
    num_output: 256
    pad: 1
    kernel_size: 3
    group: 2
    weight_filler {
      type: "gaussian"
      std: 0.01
    }
    bias_filler {
      type: "constant"
      value: 0.1
    }
  }
}
layer {
  name: "relu5"
  type: "ReLU"
  bottom: "conv5"
  top: "conv5"
}
layer {
  name: "pool5"
  type: "Pooling"
  bottom: "conv5"
  top: "pool5"
  pooling_param {
    pool: MAX
    kernel_size: 3
    stride: 2
  }
}
layer {
  name: "fc6"
  type: "InnerProduct"
  bottom: "pool5"
  top: "fc6"
  param {
    lr_mult: 1
    decay_mult: 1
  }
  param {
    lr_mult: 2
    decay_mult: 0
  }
  inner_product_param {
    num_output: 4096
    weight_filler {
      type: "gaussian"
      std: 0.005
    }
    bias_filler {
      type: "constant"
      value: 0.1
    }
  }
}
layer {
  name: "relu6"
  type: "ReLU"
  bottom: "fc6"
  top: "fc6"
}
layer {
  name: "drop6"
  type: "Dropout"
  bottom: "fc6"
  top: "fc6"
  dropout_param {
    dropout_ratio: 0.5
  }
}
layer {
  name: "fc7"
  type: "InnerProduct"
  bottom: "fc6"
  top: "fc7"
  param {
    lr_mult: 1
    decay_mult: 1
  }
  param {
    lr_mult: 2
    decay_mult: 0
  }
  inner_product_param {
    num_output: 4096
    weight_filler {
      type: "gaussian"
      std: 0.005
    }
    bias_filler {
      type: "constant"
      value: 0.1
    }
  }
}
layer {
  name: "relu7"
  type: "ReLU"
  bottom: "fc7"
  top: "fc7"
}
layer {
  name: "drop7"
  type: "Dropout"
  bottom: "fc7"
  top: "fc7"
  dropout_param {
    dropout_ratio: 0.5
  }
}
layer {
  name: "fc8_plantvillage"
  type: "InnerProduct"
  bottom: "fc7"
  top: "fc8_plantvillage"
  param {
    lr_mult: 1
    decay_mult: 1
  }
  param {
    lr_mult: 2
    decay_mult: 0
  }
  inner_product_param {
    num_output: 38
    weight_filler {
      type: "gaussian"
      std: 0.01
    }
    bias_filler {
      type: "constant"
      value: 0
    }
  }
}
layer {
  name: "prob"
  type: "Softmax"
  bottom: "fc8_plantvillage"
  top: "prob"
  include {
    phase: TEST
  }
}
layer {
  name: "hdf5out"
  type: "HDF5Output"
  bottom: "prob"
  bottom: "label"
  include {
    phase: TEST
  }
  hdf5_output_param {
    file_name: "hdf5_dumps/iter_3255.h5"
  }
}
layer {
  name: "loss"
  type: "SoftmaxWithLoss"
  bottom: "fc8_plantvillage"
  bottom: "label"
  top: "loss"
}
layer {
  name: "accuracy"
  type: "Accuracy"
  bottom: "fc8_plantvillage"
  bottom: "label"
  top: "accuracy"
  include {
    phase: TEST
  }
}
I0403 12:33:45.410846 26424 layer_factory.hpp:77] Creating layer data
I0403 12:33:45.411504 26424 net.cpp:91] Creating Layer data
I0403 12:33:45.411536 26424 net.cpp:399] data -> data
I0403 12:33:45.411588 26424 net.cpp:399] data -> label
I0403 12:33:45.411630 26424 data_transformer.cpp:25] Loading mean file from: /home/mohanty/data/final_dataset/lmdb/color-40-60/mean.binaryproto
I0403 12:33:45.414499 26427 db_lmdb.cpp:38] Opened lmdb /home/mohanty/data/final_dataset/lmdb/color-40-60/test_db
I0403 12:33:45.426141 26424 data_layer.cpp:41] output data size: 100,3,227,227
I0403 12:33:45.550760 26424 net.cpp:141] Setting up data
I0403 12:33:45.550853 26424 net.cpp:148] Top shape: 100 3 227 227 (15458700)
I0403 12:33:45.550878 26424 net.cpp:148] Top shape: 100 (100)
I0403 12:33:45.550894 26424 net.cpp:156] Memory required for data: 61835200
I0403 12:33:45.550920 26424 layer_factory.hpp:77] Creating layer label_data_1_split
I0403 12:33:45.550948 26424 net.cpp:91] Creating Layer label_data_1_split
I0403 12:33:45.550967 26424 net.cpp:425] label_data_1_split <- label
I0403 12:33:45.551002 26424 net.cpp:399] label_data_1_split -> label_data_1_split_0
I0403 12:33:45.551030 26424 net.cpp:399] label_data_1_split -> label_data_1_split_1
I0403 12:33:45.551054 26424 net.cpp:399] label_data_1_split -> label_data_1_split_2
I0403 12:33:45.551122 26424 net.cpp:141] Setting up label_data_1_split
I0403 12:33:45.551147 26424 net.cpp:148] Top shape: 100 (100)
I0403 12:33:45.551165 26424 net.cpp:148] Top shape: 100 (100)
I0403 12:33:45.551182 26424 net.cpp:148] Top shape: 100 (100)
I0403 12:33:45.551198 26424 net.cpp:156] Memory required for data: 61836400
I0403 12:33:45.551213 26424 layer_factory.hpp:77] Creating layer conv1
I0403 12:33:45.551254 26424 net.cpp:91] Creating Layer conv1
I0403 12:33:45.551276 26424 net.cpp:425] conv1 <- data
I0403 12:33:45.551296 26424 net.cpp:399] conv1 -> conv1
I0403 12:33:45.696158 26424 net.cpp:141] Setting up conv1
I0403 12:33:45.696213 26424 net.cpp:148] Top shape: 100 96 55 55 (29040000)
I0403 12:33:45.696230 26424 net.cpp:156] Memory required for data: 177996400
I0403 12:33:45.696264 26424 layer_factory.hpp:77] Creating layer relu1
I0403 12:33:45.696292 26424 net.cpp:91] Creating Layer relu1
I0403 12:33:45.696311 26424 net.cpp:425] relu1 <- conv1
I0403 12:33:45.696332 26424 net.cpp:386] relu1 -> conv1 (in-place)
I0403 12:33:45.696615 26424 net.cpp:141] Setting up relu1
I0403 12:33:45.696645 26424 net.cpp:148] Top shape: 100 96 55 55 (29040000)
I0403 12:33:45.696661 26424 net.cpp:156] Memory required for data: 294156400
I0403 12:33:45.696713 26424 layer_factory.hpp:77] Creating layer norm1
I0403 12:33:45.696743 26424 net.cpp:91] Creating Layer norm1
I0403 12:33:45.696775 26424 net.cpp:425] norm1 <- conv1
I0403 12:33:45.696794 26424 net.cpp:399] norm1 -> norm1
I0403 12:33:45.697099 26424 net.cpp:141] Setting up norm1
I0403 12:33:45.697129 26424 net.cpp:148] Top shape: 100 96 55 55 (29040000)
I0403 12:33:45.697144 26424 net.cpp:156] Memory required for data: 410316400
I0403 12:33:45.697160 26424 layer_factory.hpp:77] Creating layer pool1
I0403 12:33:45.697185 26424 net.cpp:91] Creating Layer pool1
I0403 12:33:45.697201 26424 net.cpp:425] pool1 <- norm1
I0403 12:33:45.697221 26424 net.cpp:399] pool1 -> pool1
I0403 12:33:45.697288 26424 net.cpp:141] Setting up pool1
I0403 12:33:45.697312 26424 net.cpp:148] Top shape: 100 96 27 27 (6998400)
I0403 12:33:45.697329 26424 net.cpp:156] Memory required for data: 438310000
I0403 12:33:45.697345 26424 layer_factory.hpp:77] Creating layer conv2
I0403 12:33:45.697376 26424 net.cpp:91] Creating Layer conv2
I0403 12:33:45.697394 26424 net.cpp:425] conv2 <- pool1
I0403 12:33:45.697413 26424 net.cpp:399] conv2 -> conv2
I0403 12:33:45.712633 26424 net.cpp:141] Setting up conv2
I0403 12:33:45.712682 26424 net.cpp:148] Top shape: 100 256 27 27 (18662400)
I0403 12:33:45.712700 26424 net.cpp:156] Memory required for data: 512959600
I0403 12:33:45.712725 26424 layer_factory.hpp:77] Creating layer relu2
I0403 12:33:45.712748 26424 net.cpp:91] Creating Layer relu2
I0403 12:33:45.712766 26424 net.cpp:425] relu2 <- conv2
I0403 12:33:45.712786 26424 net.cpp:386] relu2 -> conv2 (in-place)
I0403 12:33:45.713066 26424 net.cpp:141] Setting up relu2
I0403 12:33:45.713095 26424 net.cpp:148] Top shape: 100 256 27 27 (18662400)
I0403 12:33:45.713112 26424 net.cpp:156] Memory required for data: 587609200
I0403 12:33:45.713129 26424 layer_factory.hpp:77] Creating layer norm2
I0403 12:33:45.713155 26424 net.cpp:91] Creating Layer norm2
I0403 12:33:45.713177 26424 net.cpp:425] norm2 <- conv2
I0403 12:33:45.713197 26424 net.cpp:399] norm2 -> norm2
I0403 12:33:45.713399 26424 net.cpp:141] Setting up norm2
I0403 12:33:45.713428 26424 net.cpp:148] Top shape: 100 256 27 27 (18662400)
I0403 12:33:45.713445 26424 net.cpp:156] Memory required for data: 662258800
I0403 12:33:45.713462 26424 layer_factory.hpp:77] Creating layer pool2
I0403 12:33:45.713482 26424 net.cpp:91] Creating Layer pool2
I0403 12:33:45.713498 26424 net.cpp:425] pool2 <- norm2
I0403 12:33:45.713518 26424 net.cpp:399] pool2 -> pool2
I0403 12:33:45.713570 26424 net.cpp:141] Setting up pool2
I0403 12:33:45.713595 26424 net.cpp:148] Top shape: 100 256 13 13 (4326400)
I0403 12:33:45.713611 26424 net.cpp:156] Memory required for data: 679564400
I0403 12:33:45.713626 26424 layer_factory.hpp:77] Creating layer conv3
I0403 12:33:45.713649 26424 net.cpp:91] Creating Layer conv3
I0403 12:33:45.713668 26424 net.cpp:425] conv3 <- pool2
I0403 12:33:45.713688 26424 net.cpp:399] conv3 -> conv3
I0403 12:33:45.753098 26424 net.cpp:141] Setting up conv3
I0403 12:33:45.753171 26424 net.cpp:148] Top shape: 100 384 13 13 (6489600)
I0403 12:33:45.753188 26424 net.cpp:156] Memory required for data: 705522800
I0403 12:33:45.753214 26424 layer_factory.hpp:77] Creating layer relu3
I0403 12:33:45.753243 26424 net.cpp:91] Creating Layer relu3
I0403 12:33:45.753263 26424 net.cpp:425] relu3 <- conv3
I0403 12:33:45.753298 26424 net.cpp:386] relu3 -> conv3 (in-place)
I0403 12:33:45.753607 26424 net.cpp:141] Setting up relu3
I0403 12:33:45.753638 26424 net.cpp:148] Top shape: 100 384 13 13 (6489600)
I0403 12:33:45.753655 26424 net.cpp:156] Memory required for data: 731481200
I0403 12:33:45.753672 26424 layer_factory.hpp:77] Creating layer conv4
I0403 12:33:45.753701 26424 net.cpp:91] Creating Layer conv4
I0403 12:33:45.753721 26424 net.cpp:425] conv4 <- conv3
I0403 12:33:45.753741 26424 net.cpp:399] conv4 -> conv4
I0403 12:33:45.790015 26424 net.cpp:141] Setting up conv4
I0403 12:33:45.790086 26424 net.cpp:148] Top shape: 100 384 13 13 (6489600)
I0403 12:33:45.790138 26424 net.cpp:156] Memory required for data: 757439600
I0403 12:33:45.790161 26424 layer_factory.hpp:77] Creating layer relu4
I0403 12:33:45.790187 26424 net.cpp:91] Creating Layer relu4
I0403 12:33:45.790210 26424 net.cpp:425] relu4 <- conv4
I0403 12:33:45.790230 26424 net.cpp:386] relu4 -> conv4 (in-place)
I0403 12:33:45.790544 26424 net.cpp:141] Setting up relu4
I0403 12:33:45.790572 26424 net.cpp:148] Top shape: 100 384 13 13 (6489600)
I0403 12:33:45.790590 26424 net.cpp:156] Memory required for data: 783398000
I0403 12:33:45.790606 26424 layer_factory.hpp:77] Creating layer conv5
I0403 12:33:45.790635 26424 net.cpp:91] Creating Layer conv5
I0403 12:33:45.790655 26424 net.cpp:425] conv5 <- conv4
I0403 12:33:45.790678 26424 net.cpp:399] conv5 -> conv5
I0403 12:33:45.811784 26424 net.cpp:141] Setting up conv5
I0403 12:33:45.811837 26424 net.cpp:148] Top shape: 100 256 13 13 (4326400)
I0403 12:33:45.811856 26424 net.cpp:156] Memory required for data: 800703600
I0403 12:33:45.811885 26424 layer_factory.hpp:77] Creating layer relu5
I0403 12:33:45.811909 26424 net.cpp:91] Creating Layer relu5
I0403 12:33:45.811926 26424 net.cpp:425] relu5 <- conv5
I0403 12:33:45.811945 26424 net.cpp:386] relu5 -> conv5 (in-place)
I0403 12:33:45.812247 26424 net.cpp:141] Setting up relu5
I0403 12:33:45.812278 26424 net.cpp:148] Top shape: 100 256 13 13 (4326400)
I0403 12:33:45.812296 26424 net.cpp:156] Memory required for data: 818009200
I0403 12:33:45.812314 26424 layer_factory.hpp:77] Creating layer pool5
I0403 12:33:45.812336 26424 net.cpp:91] Creating Layer pool5
I0403 12:33:45.812360 26424 net.cpp:425] pool5 <- conv5
I0403 12:33:45.812383 26424 net.cpp:399] pool5 -> pool5
I0403 12:33:45.812446 26424 net.cpp:141] Setting up pool5
I0403 12:33:45.812472 26424 net.cpp:148] Top shape: 100 256 6 6 (921600)
I0403 12:33:45.812489 26424 net.cpp:156] Memory required for data: 821695600
I0403 12:33:45.812505 26424 layer_factory.hpp:77] Creating layer fc6
I0403 12:33:45.812538 26424 net.cpp:91] Creating Layer fc6
I0403 12:33:45.812558 26424 net.cpp:425] fc6 <- pool5
I0403 12:33:45.812580 26424 net.cpp:399] fc6 -> fc6
I0403 12:33:47.393314 26424 net.cpp:141] Setting up fc6
I0403 12:33:47.393400 26424 net.cpp:148] Top shape: 100 4096 (409600)
I0403 12:33:47.393419 26424 net.cpp:156] Memory required for data: 823334000
I0403 12:33:47.393442 26424 layer_factory.hpp:77] Creating layer relu6
I0403 12:33:47.393470 26424 net.cpp:91] Creating Layer relu6
I0403 12:33:47.393488 26424 net.cpp:425] relu6 <- fc6
I0403 12:33:47.393509 26424 net.cpp:386] relu6 -> fc6 (in-place)
I0403 12:33:47.393736 26424 net.cpp:141] Setting up relu6
I0403 12:33:47.393765 26424 net.cpp:148] Top shape: 100 4096 (409600)
I0403 12:33:47.393781 26424 net.cpp:156] Memory required for data: 824972400
I0403 12:33:47.393797 26424 layer_factory.hpp:77] Creating layer drop6
I0403 12:33:47.393816 26424 net.cpp:91] Creating Layer drop6
I0403 12:33:47.393831 26424 net.cpp:425] drop6 <- fc6
I0403 12:33:47.393847 26424 net.cpp:386] drop6 -> fc6 (in-place)
I0403 12:33:47.393899 26424 net.cpp:141] Setting up drop6
I0403 12:33:47.393923 26424 net.cpp:148] Top shape: 100 4096 (409600)
I0403 12:33:47.393939 26424 net.cpp:156] Memory required for data: 826610800
I0403 12:33:47.393954 26424 layer_factory.hpp:77] Creating layer fc7
I0403 12:33:47.393977 26424 net.cpp:91] Creating Layer fc7
I0403 12:33:47.393993 26424 net.cpp:425] fc7 <- fc6
I0403 12:33:47.394011 26424 net.cpp:399] fc7 -> fc7
I0403 12:33:48.081784 26424 net.cpp:141] Setting up fc7
I0403 12:33:48.081871 26424 net.cpp:148] Top shape: 100 4096 (409600)
I0403 12:33:48.081889 26424 net.cpp:156] Memory required for data: 828249200
I0403 12:33:48.081912 26424 layer_factory.hpp:77] Creating layer relu7
I0403 12:33:48.081938 26424 net.cpp:91] Creating Layer relu7
I0403 12:33:48.081955 26424 net.cpp:425] relu7 <- fc7
I0403 12:33:48.081976 26424 net.cpp:386] relu7 -> fc7 (in-place)
I0403 12:33:48.082404 26424 net.cpp:141] Setting up relu7
I0403 12:33:48.082432 26424 net.cpp:148] Top shape: 100 4096 (409600)
I0403 12:33:48.082482 26424 net.cpp:156] Memory required for data: 829887600
I0403 12:33:48.082499 26424 layer_factory.hpp:77] Creating layer drop7
I0403 12:33:48.082522 26424 net.cpp:91] Creating Layer drop7
I0403 12:33:48.082540 26424 net.cpp:425] drop7 <- fc7
I0403 12:33:48.082558 26424 net.cpp:386] drop7 -> fc7 (in-place)
I0403 12:33:48.082605 26424 net.cpp:141] Setting up drop7
I0403 12:33:48.082628 26424 net.cpp:148] Top shape: 100 4096 (409600)
I0403 12:33:48.082643 26424 net.cpp:156] Memory required for data: 831526000
I0403 12:33:48.082659 26424 layer_factory.hpp:77] Creating layer fc8_plantvillage
I0403 12:33:48.082681 26424 net.cpp:91] Creating Layer fc8_plantvillage
I0403 12:33:48.082698 26424 net.cpp:425] fc8_plantvillage <- fc7
I0403 12:33:48.082716 26424 net.cpp:399] fc8_plantvillage -> fc8_plantvillage
I0403 12:33:48.089646 26424 net.cpp:141] Setting up fc8_plantvillage
I0403 12:33:48.089679 26424 net.cpp:148] Top shape: 100 38 (3800)
I0403 12:33:48.089695 26424 net.cpp:156] Memory required for data: 831541200
I0403 12:33:48.089715 26424 layer_factory.hpp:77] Creating layer fc8_plantvillage_fc8_plantvillage_0_split
I0403 12:33:48.089735 26424 net.cpp:91] Creating Layer fc8_plantvillage_fc8_plantvillage_0_split
I0403 12:33:48.089751 26424 net.cpp:425] fc8_plantvillage_fc8_plantvillage_0_split <- fc8_plantvillage
I0403 12:33:48.089769 26424 net.cpp:399] fc8_plantvillage_fc8_plantvillage_0_split -> fc8_plantvillage_fc8_plantvillage_0_split_0
I0403 12:33:48.089792 26424 net.cpp:399] fc8_plantvillage_fc8_plantvillage_0_split -> fc8_plantvillage_fc8_plantvillage_0_split_1
I0403 12:33:48.089817 26424 net.cpp:399] fc8_plantvillage_fc8_plantvillage_0_split -> fc8_plantvillage_fc8_plantvillage_0_split_2
I0403 12:33:48.089895 26424 net.cpp:141] Setting up fc8_plantvillage_fc8_plantvillage_0_split
I0403 12:33:48.089920 26424 net.cpp:148] Top shape: 100 38 (3800)
I0403 12:33:48.089938 26424 net.cpp:148] Top shape: 100 38 (3800)
I0403 12:33:48.089954 26424 net.cpp:148] Top shape: 100 38 (3800)
I0403 12:33:48.089969 26424 net.cpp:156] Memory required for data: 831586800
I0403 12:33:48.089985 26424 layer_factory.hpp:77] Creating layer prob
I0403 12:33:48.090005 26424 net.cpp:91] Creating Layer prob
I0403 12:33:48.090020 26424 net.cpp:425] prob <- fc8_plantvillage_fc8_plantvillage_0_split_0
I0403 12:33:48.090039 26424 net.cpp:399] prob -> prob
I0403 12:33:48.090270 26424 net.cpp:141] Setting up prob
I0403 12:33:48.090297 26424 net.cpp:148] Top shape: 100 38 (3800)
I0403 12:33:48.090313 26424 net.cpp:156] Memory required for data: 831602000
I0403 12:33:48.090330 26424 layer_factory.hpp:77] Creating layer hdf5out
I0403 12:33:48.090360 26424 net.cpp:91] Creating Layer hdf5out
I0403 12:33:48.090379 26424 net.cpp:425] hdf5out <- prob
I0403 12:33:48.090397 26424 net.cpp:425] hdf5out <- label_data_1_split_0
I0403 12:33:48.094224 26424 net.cpp:141] Setting up hdf5out
…
