…
I0403 12:18:17.980949 26054 net.cpp:313] The NetState phase (1) differed from the phase (0) specified by a rule in layer data
I0403 12:18:17.981648 26054 net.cpp:49] Initializing net from parameters: 
state {
  phase: TEST
}
layer {
  name: "data"
  type: "Data"
  top: "data"
  top: "label"
  include {
    phase: TEST
  }
  transform_param {
    crop_size: 227
    mean_file: "/home/mohanty/data/final_dataset/lmdb/color-40-60/mean.binaryproto"
  }
  data_param {
    source: "/home/mohanty/data/final_dataset/lmdb/color-40-60/test_db"
    batch_size: 100
    backend: LMDB
  }
}
layer {
  name: "conv1"
  type: "Convolution"
  bottom: "data"
  top: "conv1"
  param {
    lr_mult: 1
    decay_mult: 1
  }
  param {
    lr_mult: 2
    decay_mult: 0
  }
  convolution_param {
    num_output: 96
    kernel_size: 11
    stride: 4
    weight_filler {
      type: "gaussian"
      std: 0.01
    }
    bias_filler {
      type: "constant"
      value: 0
    }
  }
}
layer {
  name: "relu1"
  type: "ReLU"
  bottom: "conv1"
  top: "conv1"
}
layer {
  name: "norm1"
  type: "LRN"
  bottom: "conv1"
  top: "norm1"
  lrn_param {
    local_size: 5
    alpha: 0.0001
    beta: 0.75
  }
}
layer {
  name: "pool1"
  type: "Pooling"
  bottom: "norm1"
  top: "pool1"
  pooling_param {
    pool: MAX
    kernel_size: 3
    stride: 2
  }
}
layer {
  name: "conv2"
  type: "Convolution"
  bottom: "pool1"
  top: "conv2"
  param {
    lr_mult: 1
    decay_mult: 1
  }
  param {
    lr_mult: 2
    decay_mult: 0
  }
  convolution_param {
    num_output: 256
    pad: 2
    kernel_size: 5
    group: 2
    weight_filler {
      type: "gaussian"
      std: 0.01
    }
    bias_filler {
      type: "constant"
      value: 0.1
    }
  }
}
layer {
  name: "relu2"
  type: "ReLU"
  bottom: "conv2"
  top: "conv2"
}
layer {
  name: "norm2"
  type: "LRN"
  bottom: "conv2"
  top: "norm2"
  lrn_param {
    local_size: 5
    alpha: 0.0001
    beta: 0.75
  }
}
layer {
  name: "pool2"
  type: "Pooling"
  bottom: "norm2"
  top: "pool2"
  pooling_param {
    pool: MAX
    kernel_size: 3
    stride: 2
  }
}
layer {
  name: "conv3"
  type: "Convolution"
  bottom: "pool2"
  top: "conv3"
  param {
    lr_mult: 1
    decay_mult: 1
  }
  param {
    lr_mult: 2
    decay_mult: 0
  }
  convolution_param {
    num_output: 384
    pad: 1
    kernel_size: 3
    weight_filler {
      type: "gaussian"
      std: 0.01
    }
    bias_filler {
      type: "constant"
      value: 0
    }
  }
}
layer {
  name: "relu3"
  type: "ReLU"
  bottom: "conv3"
  top: "conv3"
}
layer {
  name: "conv4"
  type: "Convolution"
  bottom: "conv3"
  top: "conv4"
  param {
    lr_mult: 1
    decay_mult: 1
  }
  param {
    lr_mult: 2
    decay_mult: 0
  }
  convolution_param {
    num_output: 384
    pad: 1
    kernel_size: 3
    group: 2
    weight_filler {
      type: "gaussian"
      std: 0.01
    }
    bias_filler {
      type: "constant"
      value: 0.1
    }
  }
}
layer {
  name: "relu4"
  type: "ReLU"
  bottom: "conv4"
  top: "conv4"
}
layer {
  name: "conv5"
  type: "Convolution"
  bottom: "conv4"
  top: "conv5"
  param {
    lr_mult: 1
    decay_mult: 1
  }
  param {
    lr_mult: 2
    decay_mult: 0
  }
  convolution_param {
    num_output: 256
    pad: 1
    kernel_size: 3
    group: 2
    weight_filler {
      type: "gaussian"
      std: 0.01
    }
    bias_filler {
      type: "constant"
      value: 0.1
    }
  }
}
layer {
  name: "relu5"
  type: "ReLU"
  bottom: "conv5"
  top: "conv5"
}
layer {
  name: "pool5"
  type: "Pooling"
  bottom: "conv5"
  top: "pool5"
  pooling_param {
    pool: MAX
    kernel_size: 3
    stride: 2
  }
}
layer {
  name: "fc6"
  type: "InnerProduct"
  bottom: "pool5"
  top: "fc6"
  param {
    lr_mult: 1
    decay_mult: 1
  }
  param {
    lr_mult: 2
    decay_mult: 0
  }
  inner_product_param {
    num_output: 4096
    weight_filler {
      type: "gaussian"
      std: 0.005
    }
    bias_filler {
      type: "constant"
      value: 0.1
    }
  }
}
layer {
  name: "relu6"
  type: "ReLU"
  bottom: "fc6"
  top: "fc6"
}
layer {
  name: "drop6"
  type: "Dropout"
  bottom: "fc6"
  top: "fc6"
  dropout_param {
    dropout_ratio: 0.5
  }
}
layer {
  name: "fc7"
  type: "InnerProduct"
  bottom: "fc6"
  top: "fc7"
  param {
    lr_mult: 1
    decay_mult: 1
  }
  param {
    lr_mult: 2
    decay_mult: 0
  }
  inner_product_param {
    num_output: 4096
    weight_filler {
      type: "gaussian"
      std: 0.005
    }
    bias_filler {
      type: "constant"
      value: 0.1
    }
  }
}
layer {
  name: "relu7"
  type: "ReLU"
  bottom: "fc7"
  top: "fc7"
}
layer {
  name: "drop7"
  type: "Dropout"
  bottom: "fc7"
  top: "fc7"
  dropout_param {
    dropout_ratio: 0.5
  }
}
layer {
  name: "fc8_plantvillage"
  type: "InnerProduct"
  bottom: "fc7"
  top: "fc8_plantvillage"
  param {
    lr_mult: 1
    decay_mult: 1
  }
  param {
    lr_mult: 2
    decay_mult: 0
  }
  inner_product_param {
    num_output: 38
    weight_filler {
      type: "gaussian"
      std: 0.01
    }
    bias_filler {
      type: "constant"
      value: 0
    }
  }
}
layer {
  name: "prob"
  type: "Softmax"
  bottom: "fc8_plantvillage"
  top: "prob"
  include {
    phase: TEST
  }
}
layer {
  name: "hdf5out"
  type: "HDF5Output"
  bottom: "prob"
  bottom: "label"
  include {
    phase: TEST
  }
  hdf5_output_param {
    file_name: "hdf5_dumps/iter_217.h5"
  }
}
layer {
  name: "loss"
  type: "SoftmaxWithLoss"
  bottom: "fc8_plantvillage"
  bottom: "label"
  top: "loss"
}
layer {
  name: "accuracy"
  type: "Accuracy"
  bottom: "fc8_plantvillage"
  bottom: "label"
  top: "accuracy"
  include {
    phase: TEST
  }
}
I0403 12:18:18.000610 26054 layer_factory.hpp:77] Creating layer data
I0403 12:18:18.001420 26054 net.cpp:91] Creating Layer data
I0403 12:18:18.001461 26054 net.cpp:399] data -> data
I0403 12:18:18.001514 26054 net.cpp:399] data -> label
I0403 12:18:18.001595 26054 data_transformer.cpp:25] Loading mean file from: /home/mohanty/data/final_dataset/lmdb/color-40-60/mean.binaryproto
I0403 12:18:18.053632 26062 db_lmdb.cpp:38] Opened lmdb /home/mohanty/data/final_dataset/lmdb/color-40-60/test_db
I0403 12:18:18.058300 26054 data_layer.cpp:41] output data size: 100,3,227,227
I0403 12:18:18.196043 26054 net.cpp:141] Setting up data
I0403 12:18:18.196125 26054 net.cpp:148] Top shape: 100 3 227 227 (15458700)
I0403 12:18:18.196154 26054 net.cpp:148] Top shape: 100 (100)
I0403 12:18:18.196173 26054 net.cpp:156] Memory required for data: 61835200
I0403 12:18:18.196203 26054 layer_factory.hpp:77] Creating layer label_data_1_split
I0403 12:18:18.196233 26054 net.cpp:91] Creating Layer label_data_1_split
I0403 12:18:18.196252 26054 net.cpp:425] label_data_1_split <- label
I0403 12:18:18.196283 26054 net.cpp:399] label_data_1_split -> label_data_1_split_0
I0403 12:18:18.196319 26054 net.cpp:399] label_data_1_split -> label_data_1_split_1
I0403 12:18:18.196346 26054 net.cpp:399] label_data_1_split -> label_data_1_split_2
I0403 12:18:18.196432 26054 net.cpp:141] Setting up label_data_1_split
I0403 12:18:18.196461 26054 net.cpp:148] Top shape: 100 (100)
I0403 12:18:18.196481 26054 net.cpp:148] Top shape: 100 (100)
I0403 12:18:18.196501 26054 net.cpp:148] Top shape: 100 (100)
I0403 12:18:18.196517 26054 net.cpp:156] Memory required for data: 61836400
I0403 12:18:18.196535 26054 layer_factory.hpp:77] Creating layer conv1
I0403 12:18:18.196571 26054 net.cpp:91] Creating Layer conv1
I0403 12:18:18.196593 26054 net.cpp:425] conv1 <- data
I0403 12:18:18.196617 26054 net.cpp:399] conv1 -> conv1
I0403 12:18:18.642031 26054 net.cpp:141] Setting up conv1
I0403 12:18:18.642105 26054 net.cpp:148] Top shape: 100 96 55 55 (29040000)
I0403 12:18:18.642128 26054 net.cpp:156] Memory required for data: 177996400
I0403 12:18:18.642168 26054 layer_factory.hpp:77] Creating layer relu1
I0403 12:18:18.642216 26054 net.cpp:91] Creating Layer relu1
I0403 12:18:18.642243 26054 net.cpp:425] relu1 <- conv1
I0403 12:18:18.642269 26054 net.cpp:386] relu1 -> conv1 (in-place)
I0403 12:18:18.642606 26054 net.cpp:141] Setting up relu1
I0403 12:18:18.642642 26054 net.cpp:148] Top shape: 100 96 55 55 (29040000)
I0403 12:18:18.642660 26054 net.cpp:156] Memory required for data: 294156400
I0403 12:18:18.642715 26054 layer_factory.hpp:77] Creating layer norm1
I0403 12:18:18.642765 26054 net.cpp:91] Creating Layer norm1
I0403 12:18:18.642787 26054 net.cpp:425] norm1 <- conv1
I0403 12:18:18.642815 26054 net.cpp:399] norm1 -> norm1
I0403 12:18:18.643234 26054 net.cpp:141] Setting up norm1
I0403 12:18:18.643265 26054 net.cpp:148] Top shape: 100 96 55 55 (29040000)
I0403 12:18:18.643285 26054 net.cpp:156] Memory required for data: 410316400
I0403 12:18:18.643303 26054 layer_factory.hpp:77] Creating layer pool1
I0403 12:18:18.643352 26054 net.cpp:91] Creating Layer pool1
I0403 12:18:18.643376 26054 net.cpp:425] pool1 <- norm1
I0403 12:18:18.643401 26054 net.cpp:399] pool1 -> pool1
I0403 12:18:18.643520 26054 net.cpp:141] Setting up pool1
I0403 12:18:18.643550 26054 net.cpp:148] Top shape: 100 96 27 27 (6998400)
I0403 12:18:18.643569 26054 net.cpp:156] Memory required for data: 438310000
I0403 12:18:18.643587 26054 layer_factory.hpp:77] Creating layer conv2
I0403 12:18:18.643621 26054 net.cpp:91] Creating Layer conv2
I0403 12:18:18.643643 26054 net.cpp:425] conv2 <- pool1
I0403 12:18:18.643666 26054 net.cpp:399] conv2 -> conv2
I0403 12:18:18.661635 26054 net.cpp:141] Setting up conv2
I0403 12:18:18.661685 26054 net.cpp:148] Top shape: 100 256 27 27 (18662400)
I0403 12:18:18.661705 26054 net.cpp:156] Memory required for data: 512959600
I0403 12:18:18.661733 26054 layer_factory.hpp:77] Creating layer relu2
I0403 12:18:18.661761 26054 net.cpp:91] Creating Layer relu2
I0403 12:18:18.661782 26054 net.cpp:425] relu2 <- conv2
I0403 12:18:18.661804 26054 net.cpp:386] relu2 -> conv2 (in-place)
I0403 12:18:18.662137 26054 net.cpp:141] Setting up relu2
I0403 12:18:18.662169 26054 net.cpp:148] Top shape: 100 256 27 27 (18662400)
I0403 12:18:18.662189 26054 net.cpp:156] Memory required for data: 587609200
I0403 12:18:18.662207 26054 layer_factory.hpp:77] Creating layer norm2
I0403 12:18:18.662236 26054 net.cpp:91] Creating Layer norm2
I0403 12:18:18.662258 26054 net.cpp:425] norm2 <- conv2
I0403 12:18:18.662284 26054 net.cpp:399] norm2 -> norm2
I0403 12:18:18.662534 26054 net.cpp:141] Setting up norm2
I0403 12:18:18.662566 26054 net.cpp:148] Top shape: 100 256 27 27 (18662400)
I0403 12:18:18.662585 26054 net.cpp:156] Memory required for data: 662258800
I0403 12:18:18.662603 26054 layer_factory.hpp:77] Creating layer pool2
I0403 12:18:18.662626 26054 net.cpp:91] Creating Layer pool2
I0403 12:18:18.662645 26054 net.cpp:425] pool2 <- norm2
I0403 12:18:18.662669 26054 net.cpp:399] pool2 -> pool2
I0403 12:18:18.662734 26054 net.cpp:141] Setting up pool2
I0403 12:18:18.662765 26054 net.cpp:148] Top shape: 100 256 13 13 (4326400)
I0403 12:18:18.662784 26054 net.cpp:156] Memory required for data: 679564400
I0403 12:18:18.662806 26054 layer_factory.hpp:77] Creating layer conv3
I0403 12:18:18.662833 26054 net.cpp:91] Creating Layer conv3
I0403 12:18:18.662854 26054 net.cpp:425] conv3 <- pool2
I0403 12:18:18.662878 26054 net.cpp:399] conv3 -> conv3
I0403 12:18:18.708719 26054 net.cpp:141] Setting up conv3
I0403 12:18:18.708786 26054 net.cpp:148] Top shape: 100 384 13 13 (6489600)
I0403 12:18:18.708806 26054 net.cpp:156] Memory required for data: 705522800
I0403 12:18:18.708837 26054 layer_factory.hpp:77] Creating layer relu3
I0403 12:18:18.708864 26054 net.cpp:91] Creating Layer relu3
I0403 12:18:18.708886 26054 net.cpp:425] relu3 <- conv3
I0403 12:18:18.708914 26054 net.cpp:386] relu3 -> conv3 (in-place)
I0403 12:18:18.709254 26054 net.cpp:141] Setting up relu3
I0403 12:18:18.709286 26054 net.cpp:148] Top shape: 100 384 13 13 (6489600)
I0403 12:18:18.709306 26054 net.cpp:156] Memory required for data: 731481200
I0403 12:18:18.709331 26054 layer_factory.hpp:77] Creating layer conv4
I0403 12:18:18.709363 26054 net.cpp:91] Creating Layer conv4
I0403 12:18:18.709385 26054 net.cpp:425] conv4 <- conv3
I0403 12:18:18.709413 26054 net.cpp:399] conv4 -> conv4
I0403 12:18:18.744896 26054 net.cpp:141] Setting up conv4
I0403 12:18:18.744961 26054 net.cpp:148] Top shape: 100 384 13 13 (6489600)
I0403 12:18:18.745015 26054 net.cpp:156] Memory required for data: 757439600
I0403 12:18:18.745043 26054 layer_factory.hpp:77] Creating layer relu4
I0403 12:18:18.745071 26054 net.cpp:91] Creating Layer relu4
I0403 12:18:18.745093 26054 net.cpp:425] relu4 <- conv4
I0403 12:18:18.745120 26054 net.cpp:386] relu4 -> conv4 (in-place)
I0403 12:18:18.745468 26054 net.cpp:141] Setting up relu4
I0403 12:18:18.745503 26054 net.cpp:148] Top shape: 100 384 13 13 (6489600)
I0403 12:18:18.745523 26054 net.cpp:156] Memory required for data: 783398000
I0403 12:18:18.745544 26054 layer_factory.hpp:77] Creating layer conv5
I0403 12:18:18.745574 26054 net.cpp:91] Creating Layer conv5
I0403 12:18:18.745596 26054 net.cpp:425] conv5 <- conv4
I0403 12:18:18.745622 26054 net.cpp:399] conv5 -> conv5
I0403 12:18:18.770030 26054 net.cpp:141] Setting up conv5
I0403 12:18:18.770081 26054 net.cpp:148] Top shape: 100 256 13 13 (4326400)
I0403 12:18:18.770102 26054 net.cpp:156] Memory required for data: 800703600
I0403 12:18:18.770133 26054 layer_factory.hpp:77] Creating layer relu5
I0403 12:18:18.770158 26054 net.cpp:91] Creating Layer relu5
I0403 12:18:18.770184 26054 net.cpp:425] relu5 <- conv5
I0403 12:18:18.770206 26054 net.cpp:386] relu5 -> conv5 (in-place)
I0403 12:18:18.770542 26054 net.cpp:141] Setting up relu5
I0403 12:18:18.770576 26054 net.cpp:148] Top shape: 100 256 13 13 (4326400)
I0403 12:18:18.770596 26054 net.cpp:156] Memory required for data: 818009200
I0403 12:18:18.770613 26054 layer_factory.hpp:77] Creating layer pool5
I0403 12:18:18.770655 26054 net.cpp:91] Creating Layer pool5
I0403 12:18:18.770680 26054 net.cpp:425] pool5 <- conv5
I0403 12:18:18.770714 26054 net.cpp:399] pool5 -> pool5
I0403 12:18:18.770792 26054 net.cpp:141] Setting up pool5
I0403 12:18:18.770822 26054 net.cpp:148] Top shape: 100 256 6 6 (921600)
I0403 12:18:18.770840 26054 net.cpp:156] Memory required for data: 821695600
I0403 12:18:18.770859 26054 layer_factory.hpp:77] Creating layer fc6
I0403 12:18:18.770915 26054 net.cpp:91] Creating Layer fc6
I0403 12:18:18.770938 26054 net.cpp:425] fc6 <- pool5
I0403 12:18:18.770964 26054 net.cpp:399] fc6 -> fc6
I0403 12:18:20.398550 26054 net.cpp:141] Setting up fc6
I0403 12:18:20.398644 26054 net.cpp:148] Top shape: 100 4096 (409600)
I0403 12:18:20.398660 26054 net.cpp:156] Memory required for data: 823334000
I0403 12:18:20.398682 26054 layer_factory.hpp:77] Creating layer relu6
I0403 12:18:20.398706 26054 net.cpp:91] Creating Layer relu6
I0403 12:18:20.398725 26054 net.cpp:425] relu6 <- fc6
I0403 12:18:20.398743 26054 net.cpp:386] relu6 -> fc6 (in-place)
I0403 12:18:20.398977 26054 net.cpp:141] Setting up relu6
I0403 12:18:20.399001 26054 net.cpp:148] Top shape: 100 4096 (409600)
I0403 12:18:20.399016 26054 net.cpp:156] Memory required for data: 824972400
I0403 12:18:20.399032 26054 layer_factory.hpp:77] Creating layer drop6
I0403 12:18:20.399051 26054 net.cpp:91] Creating Layer drop6
I0403 12:18:20.399066 26054 net.cpp:425] drop6 <- fc6
I0403 12:18:20.399086 26054 net.cpp:386] drop6 -> fc6 (in-place)
I0403 12:18:20.399163 26054 net.cpp:141] Setting up drop6
I0403 12:18:20.399189 26054 net.cpp:148] Top shape: 100 4096 (409600)
I0403 12:18:20.399205 26054 net.cpp:156] Memory required for data: 826610800
I0403 12:18:20.399219 26054 layer_factory.hpp:77] Creating layer fc7
I0403 12:18:20.399240 26054 net.cpp:91] Creating Layer fc7
I0403 12:18:20.399255 26054 net.cpp:425] fc7 <- fc6
I0403 12:18:20.399276 26054 net.cpp:399] fc7 -> fc7
I0403 12:18:21.072446 26054 net.cpp:141] Setting up fc7
I0403 12:18:21.072526 26054 net.cpp:148] Top shape: 100 4096 (409600)
I0403 12:18:21.072543 26054 net.cpp:156] Memory required for data: 828249200
I0403 12:18:21.072566 26054 layer_factory.hpp:77] Creating layer relu7
I0403 12:18:21.072589 26054 net.cpp:91] Creating Layer relu7
I0403 12:18:21.072607 26054 net.cpp:425] relu7 <- fc7
I0403 12:18:21.072629 26054 net.cpp:386] relu7 -> fc7 (in-place)
I0403 12:18:21.073020 26054 net.cpp:141] Setting up relu7
I0403 12:18:21.073046 26054 net.cpp:148] Top shape: 100 4096 (409600)
I0403 12:18:21.073110 26054 net.cpp:156] Memory required for data: 829887600
I0403 12:18:21.073127 26054 layer_factory.hpp:77] Creating layer drop7
I0403 12:18:21.073148 26054 net.cpp:91] Creating Layer drop7
I0403 12:18:21.073164 26054 net.cpp:425] drop7 <- fc7
I0403 12:18:21.073184 26054 net.cpp:386] drop7 -> fc7 (in-place)
I0403 12:18:21.073230 26054 net.cpp:141] Setting up drop7
I0403 12:18:21.073254 26054 net.cpp:148] Top shape: 100 4096 (409600)
I0403 12:18:21.073271 26054 net.cpp:156] Memory required for data: 831526000
I0403 12:18:21.073287 26054 layer_factory.hpp:77] Creating layer fc8_plantvillage
I0403 12:18:21.073307 26054 net.cpp:91] Creating Layer fc8_plantvillage
I0403 12:18:21.073336 26054 net.cpp:425] fc8_plantvillage <- fc7
I0403 12:18:21.073361 26054 net.cpp:399] fc8_plantvillage -> fc8_plantvillage
I0403 12:18:21.080107 26054 net.cpp:141] Setting up fc8_plantvillage
I0403 12:18:21.080137 26054 net.cpp:148] Top shape: 100 38 (3800)
I0403 12:18:21.080152 26054 net.cpp:156] Memory required for data: 831541200
I0403 12:18:21.080171 26054 layer_factory.hpp:77] Creating layer fc8_plantvillage_fc8_plantvillage_0_split
I0403 12:18:21.080191 26054 net.cpp:91] Creating Layer fc8_plantvillage_fc8_plantvillage_0_split
I0403 12:18:21.080209 26054 net.cpp:425] fc8_plantvillage_fc8_plantvillage_0_split <- fc8_plantvillage
I0403 12:18:21.080229 26054 net.cpp:399] fc8_plantvillage_fc8_plantvillage_0_split -> fc8_plantvillage_fc8_plantvillage_0_split_0
I0403 12:18:21.080248 26054 net.cpp:399] fc8_plantvillage_fc8_plantvillage_0_split -> fc8_plantvillage_fc8_plantvillage_0_split_1
I0403 12:18:21.080271 26054 net.cpp:399] fc8_plantvillage_fc8_plantvillage_0_split -> fc8_plantvillage_fc8_plantvillage_0_split_2
I0403 12:18:21.080353 26054 net.cpp:141] Setting up fc8_plantvillage_fc8_plantvillage_0_split
I0403 12:18:21.080377 26054 net.cpp:148] Top shape: 100 38 (3800)
I0403 12:18:21.080394 26054 net.cpp:148] Top shape: 100 38 (3800)
I0403 12:18:21.080410 26054 net.cpp:148] Top shape: 100 38 (3800)
I0403 12:18:21.080425 26054 net.cpp:156] Memory required for data: 831586800
I0403 12:18:21.080438 26054 layer_factory.hpp:77] Creating layer prob
I0403 12:18:21.080457 26054 net.cpp:91] Creating Layer prob
I0403 12:18:21.080472 26054 net.cpp:425] prob <- fc8_plantvillage_fc8_plantvillage_0_split_0
I0403 12:18:21.080490 26054 net.cpp:399] prob -> prob
I0403 12:18:21.080718 26054 net.cpp:141] Setting up prob
I0403 12:18:21.080744 26054 net.cpp:148] Top shape: 100 38 (3800)
I0403 12:18:21.080760 26054 net.cpp:156] Memory required for data: 831602000
I0403 12:18:21.080775 26054 layer_factory.hpp:77] Creating layer hdf5out
I0403 12:18:21.080793 26054 net.cpp:91] Creating Layer hdf5out
I0403 12:18:21.080809 26054 net.cpp:425] hdf5out <- prob
I0403 12:18:21.080826 26054 net.cpp:425] hdf5out <- label_data_1_split_0
I0403 12:18:21.113591 26054 net.cpp:141] Setting up hdf5out
…
