…
I0403 12:48:04.171011 26750 net.cpp:313] The NetState phase (1) differed from the phase (0) specified by a rule in layer data
I0403 12:48:04.171375 26750 net.cpp:49] Initializing net from parameters: 
state {
  phase: TEST
}
layer {
  name: "data"
  type: "Data"
  top: "data"
  top: "label"
  include {
    phase: TEST
  }
  transform_param {
    crop_size: 227
    mean_file: "/home/mohanty/data/final_dataset/lmdb/color-40-60/mean.binaryproto"
  }
  data_param {
    source: "/home/mohanty/data/final_dataset/lmdb/color-40-60/test_db"
    batch_size: 100
    backend: LMDB
  }
}
layer {
  name: "conv1"
  type: "Convolution"
  bottom: "data"
  top: "conv1"
  param {
    lr_mult: 1
    decay_mult: 1
  }
  param {
    lr_mult: 2
    decay_mult: 0
  }
  convolution_param {
    num_output: 96
    kernel_size: 11
    stride: 4
    weight_filler {
      type: "gaussian"
      std: 0.01
    }
    bias_filler {
      type: "constant"
      value: 0
    }
  }
}
layer {
  name: "relu1"
  type: "ReLU"
  bottom: "conv1"
  top: "conv1"
}
layer {
  name: "norm1"
  type: "LRN"
  bottom: "conv1"
  top: "norm1"
  lrn_param {
    local_size: 5
    alpha: 0.0001
    beta: 0.75
  }
}
layer {
  name: "pool1"
  type: "Pooling"
  bottom: "norm1"
  top: "pool1"
  pooling_param {
    pool: MAX
    kernel_size: 3
    stride: 2
  }
}
layer {
  name: "conv2"
  type: "Convolution"
  bottom: "pool1"
  top: "conv2"
  param {
    lr_mult: 1
    decay_mult: 1
  }
  param {
    lr_mult: 2
    decay_mult: 0
  }
  convolution_param {
    num_output: 256
    pad: 2
    kernel_size: 5
    group: 2
    weight_filler {
      type: "gaussian"
      std: 0.01
    }
    bias_filler {
      type: "constant"
      value: 0.1
    }
  }
}
layer {
  name: "relu2"
  type: "ReLU"
  bottom: "conv2"
  top: "conv2"
}
layer {
  name: "norm2"
  type: "LRN"
  bottom: "conv2"
  top: "norm2"
  lrn_param {
    local_size: 5
    alpha: 0.0001
    beta: 0.75
  }
}
layer {
  name: "pool2"
  type: "Pooling"
  bottom: "norm2"
  top: "pool2"
  pooling_param {
    pool: MAX
    kernel_size: 3
    stride: 2
  }
}
layer {
  name: "conv3"
  type: "Convolution"
  bottom: "pool2"
  top: "conv3"
  param {
    lr_mult: 1
    decay_mult: 1
  }
  param {
    lr_mult: 2
    decay_mult: 0
  }
  convolution_param {
    num_output: 384
    pad: 1
    kernel_size: 3
    weight_filler {
      type: "gaussian"
      std: 0.01
    }
    bias_filler {
      type: "constant"
      value: 0
    }
  }
}
layer {
  name: "relu3"
  type: "ReLU"
  bottom: "conv3"
  top: "conv3"
}
layer {
  name: "conv4"
  type: "Convolution"
  bottom: "conv3"
  top: "conv4"
  param {
    lr_mult: 1
    decay_mult: 1
  }
  param {
    lr_mult: 2
    decay_mult: 0
  }
  convolution_param {
    num_output: 384
    pad: 1
    kernel_size: 3
    group: 2
    weight_filler {
      type: "gaussian"
      std: 0.01
    }
    bias_filler {
      type: "constant"
      value: 0.1
    }
  }
}
layer {
  name: "relu4"
  type: "ReLU"
  bottom: "conv4"
  top: "conv4"
}
layer {
  name: "conv5"
  type: "Convolution"
  bottom: "conv4"
  top: "conv5"
  param {
    lr_mult: 1
    decay_mult: 1
  }
  param {
    lr_mult: 2
    decay_mult: 0
  }
  convolution_param {
    num_output: 256
    pad: 1
    kernel_size: 3
    group: 2
    weight_filler {
      type: "gaussian"
      std: 0.01
    }
    bias_filler {
      type: "constant"
      value: 0.1
    }
  }
}
layer {
  name: "relu5"
  type: "ReLU"
  bottom: "conv5"
  top: "conv5"
}
layer {
  name: "pool5"
  type: "Pooling"
  bottom: "conv5"
  top: "pool5"
  pooling_param {
    pool: MAX
    kernel_size: 3
    stride: 2
  }
}
layer {
  name: "fc6"
  type: "InnerProduct"
  bottom: "pool5"
  top: "fc6"
  param {
    lr_mult: 1
    decay_mult: 1
  }
  param {
    lr_mult: 2
    decay_mult: 0
  }
  inner_product_param {
    num_output: 4096
    weight_filler {
      type: "gaussian"
      std: 0.005
    }
    bias_filler {
      type: "constant"
      value: 0.1
    }
  }
}
layer {
  name: "relu6"
  type: "ReLU"
  bottom: "fc6"
  top: "fc6"
}
layer {
  name: "drop6"
  type: "Dropout"
  bottom: "fc6"
  top: "fc6"
  dropout_param {
    dropout_ratio: 0.5
  }
}
layer {
  name: "fc7"
  type: "InnerProduct"
  bottom: "fc6"
  top: "fc7"
  param {
    lr_mult: 1
    decay_mult: 1
  }
  param {
    lr_mult: 2
    decay_mult: 0
  }
  inner_product_param {
    num_output: 4096
    weight_filler {
      type: "gaussian"
      std: 0.005
    }
    bias_filler {
      type: "constant"
      value: 0.1
    }
  }
}
layer {
  name: "relu7"
  type: "ReLU"
  bottom: "fc7"
  top: "fc7"
}
layer {
  name: "drop7"
  type: "Dropout"
  bottom: "fc7"
  top: "fc7"
  dropout_param {
    dropout_ratio: 0.5
  }
}
layer {
  name: "fc8_plantvillage"
  type: "InnerProduct"
  bottom: "fc7"
  top: "fc8_plantvillage"
  param {
    lr_mult: 1
    decay_mult: 1
  }
  param {
    lr_mult: 2
    decay_mult: 0
  }
  inner_product_param {
    num_output: 38
    weight_filler {
      type: "gaussian"
      std: 0.01
    }
    bias_filler {
      type: "constant"
      value: 0
    }
  }
}
layer {
  name: "prob"
  type: "Softmax"
  bottom: "fc8_plantvillage"
  top: "prob"
  include {
    phase: TEST
  }
}
layer {
  name: "hdf5out"
  type: "HDF5Output"
  bottom: "prob"
  bottom: "label"
  include {
    phase: TEST
  }
  hdf5_output_param {
    file_name: "hdf5_dumps/iter_6076.h5"
  }
}
layer {
  name: "loss"
  type: "SoftmaxWithLoss"
  bottom: "fc8_plantvillage"
  bottom: "label"
  top: "loss"
}
layer {
  name: "accuracy"
  type: "Accuracy"
  bottom: "fc8_plantvillage"
  bottom: "label"
  top: "accuracy"
  include {
    phase: TEST
  }
}
I0403 12:48:04.172016 26750 layer_factory.hpp:77] Creating layer data
I0403 12:48:04.172786 26750 net.cpp:91] Creating Layer data
I0403 12:48:04.172827 26750 net.cpp:399] data -> data
I0403 12:48:04.172888 26750 net.cpp:399] data -> label
I0403 12:48:04.172931 26750 data_transformer.cpp:25] Loading mean file from: /home/mohanty/data/final_dataset/lmdb/color-40-60/mean.binaryproto
I0403 12:48:04.176082 26755 db_lmdb.cpp:38] Opened lmdb /home/mohanty/data/final_dataset/lmdb/color-40-60/test_db
I0403 12:48:04.189461 26750 data_layer.cpp:41] output data size: 100,3,227,227
I0403 12:48:04.327520 26750 net.cpp:141] Setting up data
I0403 12:48:04.327625 26750 net.cpp:148] Top shape: 100 3 227 227 (15458700)
I0403 12:48:04.327652 26750 net.cpp:148] Top shape: 100 (100)
I0403 12:48:04.327672 26750 net.cpp:156] Memory required for data: 61835200
I0403 12:48:04.327704 26750 layer_factory.hpp:77] Creating layer label_data_1_split
I0403 12:48:04.327735 26750 net.cpp:91] Creating Layer label_data_1_split
I0403 12:48:04.327759 26750 net.cpp:425] label_data_1_split <- label
I0403 12:48:04.327797 26750 net.cpp:399] label_data_1_split -> label_data_1_split_0
I0403 12:48:04.327831 26750 net.cpp:399] label_data_1_split -> label_data_1_split_1
I0403 12:48:04.327857 26750 net.cpp:399] label_data_1_split -> label_data_1_split_2
I0403 12:48:04.327932 26750 net.cpp:141] Setting up label_data_1_split
I0403 12:48:04.327960 26750 net.cpp:148] Top shape: 100 (100)
I0403 12:48:04.327980 26750 net.cpp:148] Top shape: 100 (100)
I0403 12:48:04.328001 26750 net.cpp:148] Top shape: 100 (100)
I0403 12:48:04.328018 26750 net.cpp:156] Memory required for data: 61836400
I0403 12:48:04.328037 26750 layer_factory.hpp:77] Creating layer conv1
I0403 12:48:04.328075 26750 net.cpp:91] Creating Layer conv1
I0403 12:48:04.328099 26750 net.cpp:425] conv1 <- data
I0403 12:48:04.328122 26750 net.cpp:399] conv1 -> conv1
I0403 12:48:04.494786 26750 net.cpp:141] Setting up conv1
I0403 12:48:04.494870 26750 net.cpp:148] Top shape: 100 96 55 55 (29040000)
I0403 12:48:04.494891 26750 net.cpp:156] Memory required for data: 177996400
I0403 12:48:04.494930 26750 layer_factory.hpp:77] Creating layer relu1
I0403 12:48:04.494963 26750 net.cpp:91] Creating Layer relu1
I0403 12:48:04.494985 26750 net.cpp:425] relu1 <- conv1
I0403 12:48:04.495009 26750 net.cpp:386] relu1 -> conv1 (in-place)
I0403 12:48:04.495322 26750 net.cpp:141] Setting up relu1
I0403 12:48:04.495355 26750 net.cpp:148] Top shape: 100 96 55 55 (29040000)
I0403 12:48:04.495374 26750 net.cpp:156] Memory required for data: 294156400
I0403 12:48:04.495429 26750 layer_factory.hpp:77] Creating layer norm1
I0403 12:48:04.495463 26750 net.cpp:91] Creating Layer norm1
I0403 12:48:04.495486 26750 net.cpp:425] norm1 <- conv1
I0403 12:48:04.495508 26750 net.cpp:399] norm1 -> norm1
I0403 12:48:04.495870 26750 net.cpp:141] Setting up norm1
I0403 12:48:04.495903 26750 net.cpp:148] Top shape: 100 96 55 55 (29040000)
I0403 12:48:04.495923 26750 net.cpp:156] Memory required for data: 410316400
I0403 12:48:04.495941 26750 layer_factory.hpp:77] Creating layer pool1
I0403 12:48:04.495970 26750 net.cpp:91] Creating Layer pool1
I0403 12:48:04.495993 26750 net.cpp:425] pool1 <- norm1
I0403 12:48:04.496016 26750 net.cpp:399] pool1 -> pool1
I0403 12:48:04.496096 26750 net.cpp:141] Setting up pool1
I0403 12:48:04.496126 26750 net.cpp:148] Top shape: 100 96 27 27 (6998400)
I0403 12:48:04.496145 26750 net.cpp:156] Memory required for data: 438310000
I0403 12:48:04.496163 26750 layer_factory.hpp:77] Creating layer conv2
I0403 12:48:04.496192 26750 net.cpp:91] Creating Layer conv2
I0403 12:48:04.496213 26750 net.cpp:425] conv2 <- pool1
I0403 12:48:04.496235 26750 net.cpp:399] conv2 -> conv2
I0403 12:48:04.514469 26750 net.cpp:141] Setting up conv2
I0403 12:48:04.514511 26750 net.cpp:148] Top shape: 100 256 27 27 (18662400)
I0403 12:48:04.514531 26750 net.cpp:156] Memory required for data: 512959600
I0403 12:48:04.514561 26750 layer_factory.hpp:77] Creating layer relu2
I0403 12:48:04.514587 26750 net.cpp:91] Creating Layer relu2
I0403 12:48:04.514607 26750 net.cpp:425] relu2 <- conv2
I0403 12:48:04.514633 26750 net.cpp:386] relu2 -> conv2 (in-place)
I0403 12:48:04.514969 26750 net.cpp:141] Setting up relu2
I0403 12:48:04.515002 26750 net.cpp:148] Top shape: 100 256 27 27 (18662400)
I0403 12:48:04.515020 26750 net.cpp:156] Memory required for data: 587609200
I0403 12:48:04.515040 26750 layer_factory.hpp:77] Creating layer norm2
I0403 12:48:04.515071 26750 net.cpp:91] Creating Layer norm2
I0403 12:48:04.515091 26750 net.cpp:425] norm2 <- conv2
I0403 12:48:04.515115 26750 net.cpp:399] norm2 -> norm2
I0403 12:48:04.515362 26750 net.cpp:141] Setting up norm2
I0403 12:48:04.515393 26750 net.cpp:148] Top shape: 100 256 27 27 (18662400)
I0403 12:48:04.515413 26750 net.cpp:156] Memory required for data: 662258800
I0403 12:48:04.515431 26750 layer_factory.hpp:77] Creating layer pool2
I0403 12:48:04.515455 26750 net.cpp:91] Creating Layer pool2
I0403 12:48:04.515475 26750 net.cpp:425] pool2 <- norm2
I0403 12:48:04.515501 26750 net.cpp:399] pool2 -> pool2
I0403 12:48:04.515566 26750 net.cpp:141] Setting up pool2
I0403 12:48:04.515594 26750 net.cpp:148] Top shape: 100 256 13 13 (4326400)
I0403 12:48:04.515612 26750 net.cpp:156] Memory required for data: 679564400
I0403 12:48:04.515631 26750 layer_factory.hpp:77] Creating layer conv3
I0403 12:48:04.515662 26750 net.cpp:91] Creating Layer conv3
I0403 12:48:04.515684 26750 net.cpp:425] conv3 <- pool2
I0403 12:48:04.515707 26750 net.cpp:399] conv3 -> conv3
I0403 12:48:04.565477 26750 net.cpp:141] Setting up conv3
I0403 12:48:04.565564 26750 net.cpp:148] Top shape: 100 384 13 13 (6489600)
I0403 12:48:04.565585 26750 net.cpp:156] Memory required for data: 705522800
I0403 12:48:04.565618 26750 layer_factory.hpp:77] Creating layer relu3
I0403 12:48:04.565645 26750 net.cpp:91] Creating Layer relu3
I0403 12:48:04.565667 26750 net.cpp:425] relu3 <- conv3
I0403 12:48:04.565696 26750 net.cpp:386] relu3 -> conv3 (in-place)
I0403 12:48:04.566026 26750 net.cpp:141] Setting up relu3
I0403 12:48:04.566059 26750 net.cpp:148] Top shape: 100 384 13 13 (6489600)
I0403 12:48:04.566078 26750 net.cpp:156] Memory required for data: 731481200
I0403 12:48:04.566098 26750 layer_factory.hpp:77] Creating layer conv4
I0403 12:48:04.566130 26750 net.cpp:91] Creating Layer conv4
I0403 12:48:04.566153 26750 net.cpp:425] conv4 <- conv3
I0403 12:48:04.566179 26750 net.cpp:399] conv4 -> conv4
I0403 12:48:04.602654 26750 net.cpp:141] Setting up conv4
I0403 12:48:04.602744 26750 net.cpp:148] Top shape: 100 384 13 13 (6489600)
I0403 12:48:04.602802 26750 net.cpp:156] Memory required for data: 757439600
I0403 12:48:04.602828 26750 layer_factory.hpp:77] Creating layer relu4
I0403 12:48:04.602856 26750 net.cpp:91] Creating Layer relu4
I0403 12:48:04.602879 26750 net.cpp:425] relu4 <- conv4
I0403 12:48:04.602905 26750 net.cpp:386] relu4 -> conv4 (in-place)
I0403 12:48:04.603238 26750 net.cpp:141] Setting up relu4
I0403 12:48:04.603272 26750 net.cpp:148] Top shape: 100 384 13 13 (6489600)
I0403 12:48:04.603293 26750 net.cpp:156] Memory required for data: 783398000
I0403 12:48:04.603312 26750 layer_factory.hpp:77] Creating layer conv5
I0403 12:48:04.603350 26750 net.cpp:91] Creating Layer conv5
I0403 12:48:04.603374 26750 net.cpp:425] conv5 <- conv4
I0403 12:48:04.603396 26750 net.cpp:399] conv5 -> conv5
I0403 12:48:04.628284 26750 net.cpp:141] Setting up conv5
I0403 12:48:04.628352 26750 net.cpp:148] Top shape: 100 256 13 13 (4326400)
I0403 12:48:04.628376 26750 net.cpp:156] Memory required for data: 800703600
I0403 12:48:04.628406 26750 layer_factory.hpp:77] Creating layer relu5
I0403 12:48:04.628438 26750 net.cpp:91] Creating Layer relu5
I0403 12:48:04.628459 26750 net.cpp:425] relu5 <- conv5
I0403 12:48:04.628484 26750 net.cpp:386] relu5 -> conv5 (in-place)
I0403 12:48:04.628816 26750 net.cpp:141] Setting up relu5
I0403 12:48:04.628850 26750 net.cpp:148] Top shape: 100 256 13 13 (4326400)
I0403 12:48:04.628870 26750 net.cpp:156] Memory required for data: 818009200
I0403 12:48:04.628890 26750 layer_factory.hpp:77] Creating layer pool5
I0403 12:48:04.628916 26750 net.cpp:91] Creating Layer pool5
I0403 12:48:04.628937 26750 net.cpp:425] pool5 <- conv5
I0403 12:48:04.628962 26750 net.cpp:399] pool5 -> pool5
I0403 12:48:04.629034 26750 net.cpp:141] Setting up pool5
I0403 12:48:04.629065 26750 net.cpp:148] Top shape: 100 256 6 6 (921600)
I0403 12:48:04.629083 26750 net.cpp:156] Memory required for data: 821695600
I0403 12:48:04.629101 26750 layer_factory.hpp:77] Creating layer fc6
I0403 12:48:04.629137 26750 net.cpp:91] Creating Layer fc6
I0403 12:48:04.629158 26750 net.cpp:425] fc6 <- pool5
I0403 12:48:04.629184 26750 net.cpp:399] fc6 -> fc6
I0403 12:48:06.225441 26750 net.cpp:141] Setting up fc6
I0403 12:48:06.225520 26750 net.cpp:148] Top shape: 100 4096 (409600)
I0403 12:48:06.225538 26750 net.cpp:156] Memory required for data: 823334000
I0403 12:48:06.225561 26750 layer_factory.hpp:77] Creating layer relu6
I0403 12:48:06.225589 26750 net.cpp:91] Creating Layer relu6
I0403 12:48:06.225608 26750 net.cpp:425] relu6 <- fc6
I0403 12:48:06.225630 26750 net.cpp:386] relu6 -> fc6 (in-place)
I0403 12:48:06.225865 26750 net.cpp:141] Setting up relu6
I0403 12:48:06.225890 26750 net.cpp:148] Top shape: 100 4096 (409600)
I0403 12:48:06.225908 26750 net.cpp:156] Memory required for data: 824972400
I0403 12:48:06.225924 26750 layer_factory.hpp:77] Creating layer drop6
I0403 12:48:06.225944 26750 net.cpp:91] Creating Layer drop6
I0403 12:48:06.225960 26750 net.cpp:425] drop6 <- fc6
I0403 12:48:06.225982 26750 net.cpp:386] drop6 -> fc6 (in-place)
I0403 12:48:06.226037 26750 net.cpp:141] Setting up drop6
I0403 12:48:06.226063 26750 net.cpp:148] Top shape: 100 4096 (409600)
I0403 12:48:06.226080 26750 net.cpp:156] Memory required for data: 826610800
I0403 12:48:06.226096 26750 layer_factory.hpp:77] Creating layer fc7
I0403 12:48:06.226117 26750 net.cpp:91] Creating Layer fc7
I0403 12:48:06.226135 26750 net.cpp:425] fc7 <- fc6
I0403 12:48:06.226158 26750 net.cpp:399] fc7 -> fc7
I0403 12:48:06.916049 26750 net.cpp:141] Setting up fc7
I0403 12:48:06.916123 26750 net.cpp:148] Top shape: 100 4096 (409600)
I0403 12:48:06.916139 26750 net.cpp:156] Memory required for data: 828249200
I0403 12:48:06.916162 26750 layer_factory.hpp:77] Creating layer relu7
I0403 12:48:06.916185 26750 net.cpp:91] Creating Layer relu7
I0403 12:48:06.916203 26750 net.cpp:425] relu7 <- fc7
I0403 12:48:06.916224 26750 net.cpp:386] relu7 -> fc7 (in-place)
I0403 12:48:06.916620 26750 net.cpp:141] Setting up relu7
I0403 12:48:06.916651 26750 net.cpp:148] Top shape: 100 4096 (409600)
I0403 12:48:06.916698 26750 net.cpp:156] Memory required for data: 829887600
I0403 12:48:06.916715 26750 layer_factory.hpp:77] Creating layer drop7
I0403 12:48:06.916735 26750 net.cpp:91] Creating Layer drop7
I0403 12:48:06.916752 26750 net.cpp:425] drop7 <- fc7
I0403 12:48:06.916772 26750 net.cpp:386] drop7 -> fc7 (in-place)
I0403 12:48:06.916817 26750 net.cpp:141] Setting up drop7
I0403 12:48:06.916841 26750 net.cpp:148] Top shape: 100 4096 (409600)
I0403 12:48:06.916856 26750 net.cpp:156] Memory required for data: 831526000
I0403 12:48:06.916872 26750 layer_factory.hpp:77] Creating layer fc8_plantvillage
I0403 12:48:06.916895 26750 net.cpp:91] Creating Layer fc8_plantvillage
I0403 12:48:06.916913 26750 net.cpp:425] fc8_plantvillage <- fc7
I0403 12:48:06.916932 26750 net.cpp:399] fc8_plantvillage -> fc8_plantvillage
I0403 12:48:06.923923 26750 net.cpp:141] Setting up fc8_plantvillage
I0403 12:48:06.923950 26750 net.cpp:148] Top shape: 100 38 (3800)
I0403 12:48:06.923966 26750 net.cpp:156] Memory required for data: 831541200
I0403 12:48:06.923986 26750 layer_factory.hpp:77] Creating layer fc8_plantvillage_fc8_plantvillage_0_split
I0403 12:48:06.924005 26750 net.cpp:91] Creating Layer fc8_plantvillage_fc8_plantvillage_0_split
I0403 12:48:06.924021 26750 net.cpp:425] fc8_plantvillage_fc8_plantvillage_0_split <- fc8_plantvillage
I0403 12:48:06.924041 26750 net.cpp:399] fc8_plantvillage_fc8_plantvillage_0_split -> fc8_plantvillage_fc8_plantvillage_0_split_0
I0403 12:48:06.924063 26750 net.cpp:399] fc8_plantvillage_fc8_plantvillage_0_split -> fc8_plantvillage_fc8_plantvillage_0_split_1
I0403 12:48:06.924084 26750 net.cpp:399] fc8_plantvillage_fc8_plantvillage_0_split -> fc8_plantvillage_fc8_plantvillage_0_split_2
I0403 12:48:06.924161 26750 net.cpp:141] Setting up fc8_plantvillage_fc8_plantvillage_0_split
I0403 12:48:06.924186 26750 net.cpp:148] Top shape: 100 38 (3800)
I0403 12:48:06.924202 26750 net.cpp:148] Top shape: 100 38 (3800)
I0403 12:48:06.924218 26750 net.cpp:148] Top shape: 100 38 (3800)
I0403 12:48:06.924233 26750 net.cpp:156] Memory required for data: 831586800
I0403 12:48:06.924248 26750 layer_factory.hpp:77] Creating layer prob
I0403 12:48:06.924280 26750 net.cpp:91] Creating Layer prob
I0403 12:48:06.924298 26750 net.cpp:425] prob <- fc8_plantvillage_fc8_plantvillage_0_split_0
I0403 12:48:06.924322 26750 net.cpp:399] prob -> prob
I0403 12:48:06.924578 26750 net.cpp:141] Setting up prob
I0403 12:48:06.924608 26750 net.cpp:148] Top shape: 100 38 (3800)
I0403 12:48:06.924625 26750 net.cpp:156] Memory required for data: 831602000
I0403 12:48:06.924640 26750 layer_factory.hpp:77] Creating layer hdf5out
I0403 12:48:06.924660 26750 net.cpp:91] Creating Layer hdf5out
I0403 12:48:06.924677 26750 net.cpp:425] hdf5out <- prob
I0403 12:48:06.924695 26750 net.cpp:425] hdf5out <- label_data_1_split_0
I0403 12:48:06.946209 26750 net.cpp:141] Setting up hdf5out
…
