…
I0403 12:26:02.045742 26241 net.cpp:313] The NetState phase (1) differed from the phase (0) specified by a rule in layer data
I0403 12:26:02.046063 26241 net.cpp:49] Initializing net from parameters: 
state {
  phase: TEST
}
layer {
  name: "data"
  type: "Data"
  top: "data"
  top: "label"
  include {
    phase: TEST
  }
  transform_param {
    crop_size: 227
    mean_file: "/home/mohanty/data/final_dataset/lmdb/color-40-60/mean.binaryproto"
  }
  data_param {
    source: "/home/mohanty/data/final_dataset/lmdb/color-40-60/test_db"
    batch_size: 100
    backend: LMDB
  }
}
layer {
  name: "conv1"
  type: "Convolution"
  bottom: "data"
  top: "conv1"
  param {
    lr_mult: 1
    decay_mult: 1
  }
  param {
    lr_mult: 2
    decay_mult: 0
  }
  convolution_param {
    num_output: 96
    kernel_size: 11
    stride: 4
    weight_filler {
      type: "gaussian"
      std: 0.01
    }
    bias_filler {
      type: "constant"
      value: 0
    }
  }
}
layer {
  name: "relu1"
  type: "ReLU"
  bottom: "conv1"
  top: "conv1"
}
layer {
  name: "norm1"
  type: "LRN"
  bottom: "conv1"
  top: "norm1"
  lrn_param {
    local_size: 5
    alpha: 0.0001
    beta: 0.75
  }
}
layer {
  name: "pool1"
  type: "Pooling"
  bottom: "norm1"
  top: "pool1"
  pooling_param {
    pool: MAX
    kernel_size: 3
    stride: 2
  }
}
layer {
  name: "conv2"
  type: "Convolution"
  bottom: "pool1"
  top: "conv2"
  param {
    lr_mult: 1
    decay_mult: 1
  }
  param {
    lr_mult: 2
    decay_mult: 0
  }
  convolution_param {
    num_output: 256
    pad: 2
    kernel_size: 5
    group: 2
    weight_filler {
      type: "gaussian"
      std: 0.01
    }
    bias_filler {
      type: "constant"
      value: 0.1
    }
  }
}
layer {
  name: "relu2"
  type: "ReLU"
  bottom: "conv2"
  top: "conv2"
}
layer {
  name: "norm2"
  type: "LRN"
  bottom: "conv2"
  top: "norm2"
  lrn_param {
    local_size: 5
    alpha: 0.0001
    beta: 0.75
  }
}
layer {
  name: "pool2"
  type: "Pooling"
  bottom: "norm2"
  top: "pool2"
  pooling_param {
    pool: MAX
    kernel_size: 3
    stride: 2
  }
}
layer {
  name: "conv3"
  type: "Convolution"
  bottom: "pool2"
  top: "conv3"
  param {
    lr_mult: 1
    decay_mult: 1
  }
  param {
    lr_mult: 2
    decay_mult: 0
  }
  convolution_param {
    num_output: 384
    pad: 1
    kernel_size: 3
    weight_filler {
      type: "gaussian"
      std: 0.01
    }
    bias_filler {
      type: "constant"
      value: 0
    }
  }
}
layer {
  name: "relu3"
  type: "ReLU"
  bottom: "conv3"
  top: "conv3"
}
layer {
  name: "conv4"
  type: "Convolution"
  bottom: "conv3"
  top: "conv4"
  param {
    lr_mult: 1
    decay_mult: 1
  }
  param {
    lr_mult: 2
    decay_mult: 0
  }
  convolution_param {
    num_output: 384
    pad: 1
    kernel_size: 3
    group: 2
    weight_filler {
      type: "gaussian"
      std: 0.01
    }
    bias_filler {
      type: "constant"
      value: 0.1
    }
  }
}
layer {
  name: "relu4"
  type: "ReLU"
  bottom: "conv4"
  top: "conv4"
}
layer {
  name: "conv5"
  type: "Convolution"
  bottom: "conv4"
  top: "conv5"
  param {
    lr_mult: 1
    decay_mult: 1
  }
  param {
    lr_mult: 2
    decay_mult: 0
  }
  convolution_param {
    num_output: 256
    pad: 1
    kernel_size: 3
    group: 2
    weight_filler {
      type: "gaussian"
      std: 0.01
    }
    bias_filler {
      type: "constant"
      value: 0.1
    }
  }
}
layer {
  name: "relu5"
  type: "ReLU"
  bottom: "conv5"
  top: "conv5"
}
layer {
  name: "pool5"
  type: "Pooling"
  bottom: "conv5"
  top: "pool5"
  pooling_param {
    pool: MAX
    kernel_size: 3
    stride: 2
  }
}
layer {
  name: "fc6"
  type: "InnerProduct"
  bottom: "pool5"
  top: "fc6"
  param {
    lr_mult: 1
    decay_mult: 1
  }
  param {
    lr_mult: 2
    decay_mult: 0
  }
  inner_product_param {
    num_output: 4096
    weight_filler {
      type: "gaussian"
      std: 0.005
    }
    bias_filler {
      type: "constant"
      value: 0.1
    }
  }
}
layer {
  name: "relu6"
  type: "ReLU"
  bottom: "fc6"
  top: "fc6"
}
layer {
  name: "drop6"
  type: "Dropout"
  bottom: "fc6"
  top: "fc6"
  dropout_param {
    dropout_ratio: 0.5
  }
}
layer {
  name: "fc7"
  type: "InnerProduct"
  bottom: "fc6"
  top: "fc7"
  param {
    lr_mult: 1
    decay_mult: 1
  }
  param {
    lr_mult: 2
    decay_mult: 0
  }
  inner_product_param {
    num_output: 4096
    weight_filler {
      type: "gaussian"
      std: 0.005
    }
    bias_filler {
      type: "constant"
      value: 0.1
    }
  }
}
layer {
  name: "relu7"
  type: "ReLU"
  bottom: "fc7"
  top: "fc7"
}
layer {
  name: "drop7"
  type: "Dropout"
  bottom: "fc7"
  top: "fc7"
  dropout_param {
    dropout_ratio: 0.5
  }
}
layer {
  name: "fc8_plantvillage"
  type: "InnerProduct"
  bottom: "fc7"
  top: "fc8_plantvillage"
  param {
    lr_mult: 1
    decay_mult: 1
  }
  param {
    lr_mult: 2
    decay_mult: 0
  }
  inner_product_param {
    num_output: 38
    weight_filler {
      type: "gaussian"
      std: 0.01
    }
    bias_filler {
      type: "constant"
      value: 0
    }
  }
}
layer {
  name: "prob"
  type: "Softmax"
  bottom: "fc8_plantvillage"
  top: "prob"
  include {
    phase: TEST
  }
}
layer {
  name: "hdf5out"
  type: "HDF5Output"
  bottom: "prob"
  bottom: "label"
  include {
    phase: TEST
  }
  hdf5_output_param {
    file_name: "hdf5_dumps/iter_1736.h5"
  }
}
layer {
  name: "loss"
  type: "SoftmaxWithLoss"
  bottom: "fc8_plantvillage"
  bottom: "label"
  top: "loss"
}
layer {
  name: "accuracy"
  type: "Accuracy"
  bottom: "fc8_plantvillage"
  bottom: "label"
  top: "accuracy"
  include {
    phase: TEST
  }
}
I0403 12:26:02.046643 26241 layer_factory.hpp:77] Creating layer data
I0403 12:26:02.047302 26241 net.cpp:91] Creating Layer data
I0403 12:26:02.047336 26241 net.cpp:399] data -> data
I0403 12:26:02.047396 26241 net.cpp:399] data -> label
I0403 12:26:02.047438 26241 data_transformer.cpp:25] Loading mean file from: /home/mohanty/data/final_dataset/lmdb/color-40-60/mean.binaryproto
I0403 12:26:02.050477 26246 db_lmdb.cpp:38] Opened lmdb /home/mohanty/data/final_dataset/lmdb/color-40-60/test_db
I0403 12:26:02.061691 26241 data_layer.cpp:41] output data size: 100,3,227,227
I0403 12:26:02.185520 26241 net.cpp:141] Setting up data
I0403 12:26:02.185611 26241 net.cpp:148] Top shape: 100 3 227 227 (15458700)
I0403 12:26:02.185634 26241 net.cpp:148] Top shape: 100 (100)
I0403 12:26:02.185649 26241 net.cpp:156] Memory required for data: 61835200
I0403 12:26:02.185675 26241 layer_factory.hpp:77] Creating layer label_data_1_split
I0403 12:26:02.185703 26241 net.cpp:91] Creating Layer label_data_1_split
I0403 12:26:02.185720 26241 net.cpp:425] label_data_1_split <- label
I0403 12:26:02.185753 26241 net.cpp:399] label_data_1_split -> label_data_1_split_0
I0403 12:26:02.185781 26241 net.cpp:399] label_data_1_split -> label_data_1_split_1
I0403 12:26:02.185801 26241 net.cpp:399] label_data_1_split -> label_data_1_split_2
I0403 12:26:02.185863 26241 net.cpp:141] Setting up label_data_1_split
I0403 12:26:02.185886 26241 net.cpp:148] Top shape: 100 (100)
I0403 12:26:02.185904 26241 net.cpp:148] Top shape: 100 (100)
I0403 12:26:02.185920 26241 net.cpp:148] Top shape: 100 (100)
I0403 12:26:02.185935 26241 net.cpp:156] Memory required for data: 61836400
I0403 12:26:02.185950 26241 layer_factory.hpp:77] Creating layer conv1
I0403 12:26:02.185981 26241 net.cpp:91] Creating Layer conv1
I0403 12:26:02.186000 26241 net.cpp:425] conv1 <- data
I0403 12:26:02.186019 26241 net.cpp:399] conv1 -> conv1
I0403 12:26:02.327338 26241 net.cpp:141] Setting up conv1
I0403 12:26:02.327391 26241 net.cpp:148] Top shape: 100 96 55 55 (29040000)
I0403 12:26:02.327409 26241 net.cpp:156] Memory required for data: 177996400
I0403 12:26:02.327441 26241 layer_factory.hpp:77] Creating layer relu1
I0403 12:26:02.327471 26241 net.cpp:91] Creating Layer relu1
I0403 12:26:02.327489 26241 net.cpp:425] relu1 <- conv1
I0403 12:26:02.327510 26241 net.cpp:386] relu1 -> conv1 (in-place)
I0403 12:26:02.327790 26241 net.cpp:141] Setting up relu1
I0403 12:26:02.327818 26241 net.cpp:148] Top shape: 100 96 55 55 (29040000)
I0403 12:26:02.327834 26241 net.cpp:156] Memory required for data: 294156400
I0403 12:26:02.327883 26241 layer_factory.hpp:77] Creating layer norm1
I0403 12:26:02.327913 26241 net.cpp:91] Creating Layer norm1
I0403 12:26:02.327934 26241 net.cpp:425] norm1 <- conv1
I0403 12:26:02.327952 26241 net.cpp:399] norm1 -> norm1
I0403 12:26:02.328266 26241 net.cpp:141] Setting up norm1
I0403 12:26:02.328294 26241 net.cpp:148] Top shape: 100 96 55 55 (29040000)
I0403 12:26:02.328311 26241 net.cpp:156] Memory required for data: 410316400
I0403 12:26:02.328327 26241 layer_factory.hpp:77] Creating layer pool1
I0403 12:26:02.328354 26241 net.cpp:91] Creating Layer pool1
I0403 12:26:02.328374 26241 net.cpp:425] pool1 <- norm1
I0403 12:26:02.328394 26241 net.cpp:399] pool1 -> pool1
I0403 12:26:02.328461 26241 net.cpp:141] Setting up pool1
I0403 12:26:02.328487 26241 net.cpp:148] Top shape: 100 96 27 27 (6998400)
I0403 12:26:02.328502 26241 net.cpp:156] Memory required for data: 438310000
I0403 12:26:02.328519 26241 layer_factory.hpp:77] Creating layer conv2
I0403 12:26:02.328544 26241 net.cpp:91] Creating Layer conv2
I0403 12:26:02.328562 26241 net.cpp:425] conv2 <- pool1
I0403 12:26:02.328583 26241 net.cpp:399] conv2 -> conv2
I0403 12:26:02.343931 26241 net.cpp:141] Setting up conv2
I0403 12:26:02.343982 26241 net.cpp:148] Top shape: 100 256 27 27 (18662400)
I0403 12:26:02.344002 26241 net.cpp:156] Memory required for data: 512959600
I0403 12:26:02.344027 26241 layer_factory.hpp:77] Creating layer relu2
I0403 12:26:02.344050 26241 net.cpp:91] Creating Layer relu2
I0403 12:26:02.344069 26241 net.cpp:425] relu2 <- conv2
I0403 12:26:02.344089 26241 net.cpp:386] relu2 -> conv2 (in-place)
I0403 12:26:02.344398 26241 net.cpp:141] Setting up relu2
I0403 12:26:02.344432 26241 net.cpp:148] Top shape: 100 256 27 27 (18662400)
I0403 12:26:02.344456 26241 net.cpp:156] Memory required for data: 587609200
I0403 12:26:02.344475 26241 layer_factory.hpp:77] Creating layer norm2
I0403 12:26:02.344501 26241 net.cpp:91] Creating Layer norm2
I0403 12:26:02.344521 26241 net.cpp:425] norm2 <- conv2
I0403 12:26:02.344539 26241 net.cpp:399] norm2 -> norm2
I0403 12:26:02.344750 26241 net.cpp:141] Setting up norm2
I0403 12:26:02.344779 26241 net.cpp:148] Top shape: 100 256 27 27 (18662400)
I0403 12:26:02.344795 26241 net.cpp:156] Memory required for data: 662258800
I0403 12:26:02.344811 26241 layer_factory.hpp:77] Creating layer pool2
I0403 12:26:02.344833 26241 net.cpp:91] Creating Layer pool2
I0403 12:26:02.344851 26241 net.cpp:425] pool2 <- norm2
I0403 12:26:02.344871 26241 net.cpp:399] pool2 -> pool2
I0403 12:26:02.344926 26241 net.cpp:141] Setting up pool2
I0403 12:26:02.344952 26241 net.cpp:148] Top shape: 100 256 13 13 (4326400)
I0403 12:26:02.344969 26241 net.cpp:156] Memory required for data: 679564400
I0403 12:26:02.344985 26241 layer_factory.hpp:77] Creating layer conv3
I0403 12:26:02.345010 26241 net.cpp:91] Creating Layer conv3
I0403 12:26:02.345028 26241 net.cpp:425] conv3 <- pool2
I0403 12:26:02.345051 26241 net.cpp:399] conv3 -> conv3
I0403 12:26:02.383416 26241 net.cpp:141] Setting up conv3
I0403 12:26:02.383491 26241 net.cpp:148] Top shape: 100 384 13 13 (6489600)
I0403 12:26:02.383508 26241 net.cpp:156] Memory required for data: 705522800
I0403 12:26:02.383535 26241 layer_factory.hpp:77] Creating layer relu3
I0403 12:26:02.383556 26241 net.cpp:91] Creating Layer relu3
I0403 12:26:02.383574 26241 net.cpp:425] relu3 <- conv3
I0403 12:26:02.383594 26241 net.cpp:386] relu3 -> conv3 (in-place)
I0403 12:26:02.383867 26241 net.cpp:141] Setting up relu3
I0403 12:26:02.383895 26241 net.cpp:148] Top shape: 100 384 13 13 (6489600)
I0403 12:26:02.383911 26241 net.cpp:156] Memory required for data: 731481200
I0403 12:26:02.383927 26241 layer_factory.hpp:77] Creating layer conv4
I0403 12:26:02.383954 26241 net.cpp:91] Creating Layer conv4
I0403 12:26:02.383971 26241 net.cpp:425] conv4 <- conv3
I0403 12:26:02.383991 26241 net.cpp:399] conv4 -> conv4
I0403 12:26:02.419469 26241 net.cpp:141] Setting up conv4
I0403 12:26:02.419541 26241 net.cpp:148] Top shape: 100 384 13 13 (6489600)
I0403 12:26:02.419610 26241 net.cpp:156] Memory required for data: 757439600
I0403 12:26:02.419636 26241 layer_factory.hpp:77] Creating layer relu4
I0403 12:26:02.419661 26241 net.cpp:91] Creating Layer relu4
I0403 12:26:02.419680 26241 net.cpp:425] relu4 <- conv4
I0403 12:26:02.419703 26241 net.cpp:386] relu4 -> conv4 (in-place)
I0403 12:26:02.420003 26241 net.cpp:141] Setting up relu4
I0403 12:26:02.420032 26241 net.cpp:148] Top shape: 100 384 13 13 (6489600)
I0403 12:26:02.420049 26241 net.cpp:156] Memory required for data: 783398000
I0403 12:26:02.420066 26241 layer_factory.hpp:77] Creating layer conv5
I0403 12:26:02.420094 26241 net.cpp:91] Creating Layer conv5
I0403 12:26:02.420123 26241 net.cpp:425] conv5 <- conv4
I0403 12:26:02.420145 26241 net.cpp:399] conv5 -> conv5
I0403 12:26:02.440692 26241 net.cpp:141] Setting up conv5
I0403 12:26:02.440749 26241 net.cpp:148] Top shape: 100 256 13 13 (4326400)
I0403 12:26:02.440768 26241 net.cpp:156] Memory required for data: 800703600
I0403 12:26:02.440793 26241 layer_factory.hpp:77] Creating layer relu5
I0403 12:26:02.440819 26241 net.cpp:91] Creating Layer relu5
I0403 12:26:02.440840 26241 net.cpp:425] relu5 <- conv5
I0403 12:26:02.440858 26241 net.cpp:386] relu5 -> conv5 (in-place)
I0403 12:26:02.441151 26241 net.cpp:141] Setting up relu5
I0403 12:26:02.441182 26241 net.cpp:148] Top shape: 100 256 13 13 (4326400)
I0403 12:26:02.441200 26241 net.cpp:156] Memory required for data: 818009200
I0403 12:26:02.441215 26241 layer_factory.hpp:77] Creating layer pool5
I0403 12:26:02.441239 26241 net.cpp:91] Creating Layer pool5
I0403 12:26:02.441256 26241 net.cpp:425] pool5 <- conv5
I0403 12:26:02.441278 26241 net.cpp:399] pool5 -> pool5
I0403 12:26:02.441341 26241 net.cpp:141] Setting up pool5
I0403 12:26:02.441373 26241 net.cpp:148] Top shape: 100 256 6 6 (921600)
I0403 12:26:02.441390 26241 net.cpp:156] Memory required for data: 821695600
I0403 12:26:02.441406 26241 layer_factory.hpp:77] Creating layer fc6
I0403 12:26:02.441434 26241 net.cpp:91] Creating Layer fc6
I0403 12:26:02.441452 26241 net.cpp:425] fc6 <- pool5
I0403 12:26:02.441475 26241 net.cpp:399] fc6 -> fc6
I0403 12:26:04.012972 26241 net.cpp:141] Setting up fc6
I0403 12:26:04.013015 26241 net.cpp:148] Top shape: 100 4096 (409600)
I0403 12:26:04.013032 26241 net.cpp:156] Memory required for data: 823334000
I0403 12:26:04.013056 26241 layer_factory.hpp:77] Creating layer relu6
I0403 12:26:04.013082 26241 net.cpp:91] Creating Layer relu6
I0403 12:26:04.013100 26241 net.cpp:425] relu6 <- fc6
I0403 12:26:04.013119 26241 net.cpp:386] relu6 -> fc6 (in-place)
I0403 12:26:04.013336 26241 net.cpp:141] Setting up relu6
I0403 12:26:04.013372 26241 net.cpp:148] Top shape: 100 4096 (409600)
I0403 12:26:04.013391 26241 net.cpp:156] Memory required for data: 824972400
I0403 12:26:04.013407 26241 layer_factory.hpp:77] Creating layer drop6
I0403 12:26:04.013428 26241 net.cpp:91] Creating Layer drop6
I0403 12:26:04.013447 26241 net.cpp:425] drop6 <- fc6
I0403 12:26:04.013463 26241 net.cpp:386] drop6 -> fc6 (in-place)
I0403 12:26:04.013517 26241 net.cpp:141] Setting up drop6
I0403 12:26:04.013541 26241 net.cpp:148] Top shape: 100 4096 (409600)
I0403 12:26:04.013556 26241 net.cpp:156] Memory required for data: 826610800
I0403 12:26:04.013571 26241 layer_factory.hpp:77] Creating layer fc7
I0403 12:26:04.013595 26241 net.cpp:91] Creating Layer fc7
I0403 12:26:04.013612 26241 net.cpp:425] fc7 <- fc6
I0403 12:26:04.013631 26241 net.cpp:399] fc7 -> fc7
I0403 12:26:04.703732 26241 net.cpp:141] Setting up fc7
I0403 12:26:04.703810 26241 net.cpp:148] Top shape: 100 4096 (409600)
I0403 12:26:04.703830 26241 net.cpp:156] Memory required for data: 828249200
I0403 12:26:04.703850 26241 layer_factory.hpp:77] Creating layer relu7
I0403 12:26:04.703873 26241 net.cpp:91] Creating Layer relu7
I0403 12:26:04.703891 26241 net.cpp:425] relu7 <- fc7
I0403 12:26:04.703912 26241 net.cpp:386] relu7 -> fc7 (in-place)
I0403 12:26:04.704316 26241 net.cpp:141] Setting up relu7
I0403 12:26:04.704350 26241 net.cpp:148] Top shape: 100 4096 (409600)
I0403 12:26:04.704399 26241 net.cpp:156] Memory required for data: 829887600
I0403 12:26:04.704417 26241 layer_factory.hpp:77] Creating layer drop7
I0403 12:26:04.704437 26241 net.cpp:91] Creating Layer drop7
I0403 12:26:04.704453 26241 net.cpp:425] drop7 <- fc7
I0403 12:26:04.704473 26241 net.cpp:386] drop7 -> fc7 (in-place)
I0403 12:26:04.704517 26241 net.cpp:141] Setting up drop7
I0403 12:26:04.704540 26241 net.cpp:148] Top shape: 100 4096 (409600)
I0403 12:26:04.704567 26241 net.cpp:156] Memory required for data: 831526000
I0403 12:26:04.704582 26241 layer_factory.hpp:77] Creating layer fc8_plantvillage
I0403 12:26:04.704605 26241 net.cpp:91] Creating Layer fc8_plantvillage
I0403 12:26:04.704624 26241 net.cpp:425] fc8_plantvillage <- fc7
I0403 12:26:04.704643 26241 net.cpp:399] fc8_plantvillage -> fc8_plantvillage
I0403 12:26:04.711401 26241 net.cpp:141] Setting up fc8_plantvillage
I0403 12:26:04.711429 26241 net.cpp:148] Top shape: 100 38 (3800)
I0403 12:26:04.711447 26241 net.cpp:156] Memory required for data: 831541200
I0403 12:26:04.711464 26241 layer_factory.hpp:77] Creating layer fc8_plantvillage_fc8_plantvillage_0_split
I0403 12:26:04.711486 26241 net.cpp:91] Creating Layer fc8_plantvillage_fc8_plantvillage_0_split
I0403 12:26:04.711503 26241 net.cpp:425] fc8_plantvillage_fc8_plantvillage_0_split <- fc8_plantvillage
I0403 12:26:04.711522 26241 net.cpp:399] fc8_plantvillage_fc8_plantvillage_0_split -> fc8_plantvillage_fc8_plantvillage_0_split_0
I0403 12:26:04.711546 26241 net.cpp:399] fc8_plantvillage_fc8_plantvillage_0_split -> fc8_plantvillage_fc8_plantvillage_0_split_1
I0403 12:26:04.711566 26241 net.cpp:399] fc8_plantvillage_fc8_plantvillage_0_split -> fc8_plantvillage_fc8_plantvillage_0_split_2
I0403 12:26:04.711642 26241 net.cpp:141] Setting up fc8_plantvillage_fc8_plantvillage_0_split
I0403 12:26:04.711668 26241 net.cpp:148] Top shape: 100 38 (3800)
I0403 12:26:04.711684 26241 net.cpp:148] Top shape: 100 38 (3800)
I0403 12:26:04.711701 26241 net.cpp:148] Top shape: 100 38 (3800)
I0403 12:26:04.711716 26241 net.cpp:156] Memory required for data: 831586800
I0403 12:26:04.711730 26241 layer_factory.hpp:77] Creating layer prob
I0403 12:26:04.711752 26241 net.cpp:91] Creating Layer prob
I0403 12:26:04.711769 26241 net.cpp:425] prob <- fc8_plantvillage_fc8_plantvillage_0_split_0
I0403 12:26:04.711787 26241 net.cpp:399] prob -> prob
I0403 12:26:04.712014 26241 net.cpp:141] Setting up prob
I0403 12:26:04.712040 26241 net.cpp:148] Top shape: 100 38 (3800)
I0403 12:26:04.712055 26241 net.cpp:156] Memory required for data: 831602000
I0403 12:26:04.712071 26241 layer_factory.hpp:77] Creating layer hdf5out
I0403 12:26:04.712093 26241 net.cpp:91] Creating Layer hdf5out
I0403 12:26:04.712111 26241 net.cpp:425] hdf5out <- prob
I0403 12:26:04.712128 26241 net.cpp:425] hdf5out <- label_data_1_split_0
I0403 12:26:04.716828 26241 net.cpp:141] Setting up hdf5out
…
