…
I0403 12:37:03.447373 26493 net.cpp:313] The NetState phase (1) differed from the phase (0) specified by a rule in layer data
I0403 12:37:03.447666 26493 net.cpp:49] Initializing net from parameters: 
state {
  phase: TEST
}
layer {
  name: "data"
  type: "Data"
  top: "data"
  top: "label"
  include {
    phase: TEST
  }
  transform_param {
    crop_size: 227
    mean_file: "/home/mohanty/data/final_dataset/lmdb/color-40-60/mean.binaryproto"
  }
  data_param {
    source: "/home/mohanty/data/final_dataset/lmdb/color-40-60/test_db"
    batch_size: 100
    backend: LMDB
  }
}
layer {
  name: "conv1"
  type: "Convolution"
  bottom: "data"
  top: "conv1"
  param {
    lr_mult: 1
    decay_mult: 1
  }
  param {
    lr_mult: 2
    decay_mult: 0
  }
  convolution_param {
    num_output: 96
    kernel_size: 11
    stride: 4
    weight_filler {
      type: "gaussian"
      std: 0.01
    }
    bias_filler {
      type: "constant"
      value: 0
    }
  }
}
layer {
  name: "relu1"
  type: "ReLU"
  bottom: "conv1"
  top: "conv1"
}
layer {
  name: "norm1"
  type: "LRN"
  bottom: "conv1"
  top: "norm1"
  lrn_param {
    local_size: 5
    alpha: 0.0001
    beta: 0.75
  }
}
layer {
  name: "pool1"
  type: "Pooling"
  bottom: "norm1"
  top: "pool1"
  pooling_param {
    pool: MAX
    kernel_size: 3
    stride: 2
  }
}
layer {
  name: "conv2"
  type: "Convolution"
  bottom: "pool1"
  top: "conv2"
  param {
    lr_mult: 1
    decay_mult: 1
  }
  param {
    lr_mult: 2
    decay_mult: 0
  }
  convolution_param {
    num_output: 256
    pad: 2
    kernel_size: 5
    group: 2
    weight_filler {
      type: "gaussian"
      std: 0.01
    }
    bias_filler {
      type: "constant"
      value: 0.1
    }
  }
}
layer {
  name: "relu2"
  type: "ReLU"
  bottom: "conv2"
  top: "conv2"
}
layer {
  name: "norm2"
  type: "LRN"
  bottom: "conv2"
  top: "norm2"
  lrn_param {
    local_size: 5
    alpha: 0.0001
    beta: 0.75
  }
}
layer {
  name: "pool2"
  type: "Pooling"
  bottom: "norm2"
  top: "pool2"
  pooling_param {
    pool: MAX
    kernel_size: 3
    stride: 2
  }
}
layer {
  name: "conv3"
  type: "Convolution"
  bottom: "pool2"
  top: "conv3"
  param {
    lr_mult: 1
    decay_mult: 1
  }
  param {
    lr_mult: 2
    decay_mult: 0
  }
  convolution_param {
    num_output: 384
    pad: 1
    kernel_size: 3
    weight_filler {
      type: "gaussian"
      std: 0.01
    }
    bias_filler {
      type: "constant"
      value: 0
    }
  }
}
layer {
  name: "relu3"
  type: "ReLU"
  bottom: "conv3"
  top: "conv3"
}
layer {
  name: "conv4"
  type: "Convolution"
  bottom: "conv3"
  top: "conv4"
  param {
    lr_mult: 1
    decay_mult: 1
  }
  param {
    lr_mult: 2
    decay_mult: 0
  }
  convolution_param {
    num_output: 384
    pad: 1
    kernel_size: 3
    group: 2
    weight_filler {
      type: "gaussian"
      std: 0.01
    }
    bias_filler {
      type: "constant"
      value: 0.1
    }
  }
}
layer {
  name: "relu4"
  type: "ReLU"
  bottom: "conv4"
  top: "conv4"
}
layer {
  name: "conv5"
  type: "Convolution"
  bottom: "conv4"
  top: "conv5"
  param {
    lr_mult: 1
    decay_mult: 1
  }
  param {
    lr_mult: 2
    decay_mult: 0
  }
  convolution_param {
    num_output: 256
    pad: 1
    kernel_size: 3
    group: 2
    weight_filler {
      type: "gaussian"
      std: 0.01
    }
    bias_filler {
      type: "constant"
      value: 0.1
    }
  }
}
layer {
  name: "relu5"
  type: "ReLU"
  bottom: "conv5"
  top: "conv5"
}
layer {
  name: "pool5"
  type: "Pooling"
  bottom: "conv5"
  top: "pool5"
  pooling_param {
    pool: MAX
    kernel_size: 3
    stride: 2
  }
}
layer {
  name: "fc6"
  type: "InnerProduct"
  bottom: "pool5"
  top: "fc6"
  param {
    lr_mult: 1
    decay_mult: 1
  }
  param {
    lr_mult: 2
    decay_mult: 0
  }
  inner_product_param {
    num_output: 4096
    weight_filler {
      type: "gaussian"
      std: 0.005
    }
    bias_filler {
      type: "constant"
      value: 0.1
    }
  }
}
layer {
  name: "relu6"
  type: "ReLU"
  bottom: "fc6"
  top: "fc6"
}
layer {
  name: "drop6"
  type: "Dropout"
  bottom: "fc6"
  top: "fc6"
  dropout_param {
    dropout_ratio: 0.5
  }
}
layer {
  name: "fc7"
  type: "InnerProduct"
  bottom: "fc6"
  top: "fc7"
  param {
    lr_mult: 1
    decay_mult: 1
  }
  param {
    lr_mult: 2
    decay_mult: 0
  }
  inner_product_param {
    num_output: 4096
    weight_filler {
      type: "gaussian"
      std: 0.005
    }
    bias_filler {
      type: "constant"
      value: 0.1
    }
  }
}
layer {
  name: "relu7"
  type: "ReLU"
  bottom: "fc7"
  top: "fc7"
}
layer {
  name: "drop7"
  type: "Dropout"
  bottom: "fc7"
  top: "fc7"
  dropout_param {
    dropout_ratio: 0.5
  }
}
layer {
  name: "fc8_plantvillage"
  type: "InnerProduct"
  bottom: "fc7"
  top: "fc8_plantvillage"
  param {
    lr_mult: 1
    decay_mult: 1
  }
  param {
    lr_mult: 2
    decay_mult: 0
  }
  inner_product_param {
    num_output: 38
    weight_filler {
      type: "gaussian"
      std: 0.01
    }
    bias_filler {
      type: "constant"
      value: 0
    }
  }
}
layer {
  name: "prob"
  type: "Softmax"
  bottom: "fc8_plantvillage"
  top: "prob"
  include {
    phase: TEST
  }
}
layer {
  name: "hdf5out"
  type: "HDF5Output"
  bottom: "prob"
  bottom: "label"
  include {
    phase: TEST
  }
  hdf5_output_param {
    file_name: "hdf5_dumps/iter_3906.h5"
  }
}
layer {
  name: "loss"
  type: "SoftmaxWithLoss"
  bottom: "fc8_plantvillage"
  bottom: "label"
  top: "loss"
}
layer {
  name: "accuracy"
  type: "Accuracy"
  bottom: "fc8_plantvillage"
  bottom: "label"
  top: "accuracy"
  include {
    phase: TEST
  }
}
I0403 12:37:03.448243 26493 layer_factory.hpp:77] Creating layer data
I0403 12:37:03.448904 26493 net.cpp:91] Creating Layer data
I0403 12:37:03.448935 26493 net.cpp:399] data -> data
I0403 12:37:03.448988 26493 net.cpp:399] data -> label
I0403 12:37:03.449028 26493 data_transformer.cpp:25] Loading mean file from: /home/mohanty/data/final_dataset/lmdb/color-40-60/mean.binaryproto
I0403 12:37:03.451743 26498 db_lmdb.cpp:38] Opened lmdb /home/mohanty/data/final_dataset/lmdb/color-40-60/test_db
I0403 12:37:03.479557 26493 data_layer.cpp:41] output data size: 100,3,227,227
I0403 12:37:03.602735 26493 net.cpp:141] Setting up data
I0403 12:37:03.602797 26493 net.cpp:148] Top shape: 100 3 227 227 (15458700)
I0403 12:37:03.602823 26493 net.cpp:148] Top shape: 100 (100)
I0403 12:37:03.602850 26493 net.cpp:156] Memory required for data: 61835200
I0403 12:37:03.602879 26493 layer_factory.hpp:77] Creating layer label_data_1_split
I0403 12:37:03.602905 26493 net.cpp:91] Creating Layer label_data_1_split
I0403 12:37:03.602922 26493 net.cpp:425] label_data_1_split <- label
I0403 12:37:03.602954 26493 net.cpp:399] label_data_1_split -> label_data_1_split_0
I0403 12:37:03.602983 26493 net.cpp:399] label_data_1_split -> label_data_1_split_1
I0403 12:37:03.603004 26493 net.cpp:399] label_data_1_split -> label_data_1_split_2
I0403 12:37:03.603070 26493 net.cpp:141] Setting up label_data_1_split
I0403 12:37:03.603094 26493 net.cpp:148] Top shape: 100 (100)
I0403 12:37:03.603111 26493 net.cpp:148] Top shape: 100 (100)
I0403 12:37:03.603127 26493 net.cpp:148] Top shape: 100 (100)
I0403 12:37:03.603143 26493 net.cpp:156] Memory required for data: 61836400
I0403 12:37:03.603158 26493 layer_factory.hpp:77] Creating layer conv1
I0403 12:37:03.603190 26493 net.cpp:91] Creating Layer conv1
I0403 12:37:03.603209 26493 net.cpp:425] conv1 <- data
I0403 12:37:03.603229 26493 net.cpp:399] conv1 -> conv1
I0403 12:37:03.749616 26493 net.cpp:141] Setting up conv1
I0403 12:37:03.749693 26493 net.cpp:148] Top shape: 100 96 55 55 (29040000)
I0403 12:37:03.749712 26493 net.cpp:156] Memory required for data: 177996400
I0403 12:37:03.749745 26493 layer_factory.hpp:77] Creating layer relu1
I0403 12:37:03.749774 26493 net.cpp:91] Creating Layer relu1
I0403 12:37:03.749795 26493 net.cpp:425] relu1 <- conv1
I0403 12:37:03.749816 26493 net.cpp:386] relu1 -> conv1 (in-place)
I0403 12:37:03.750079 26493 net.cpp:141] Setting up relu1
I0403 12:37:03.750108 26493 net.cpp:148] Top shape: 100 96 55 55 (29040000)
I0403 12:37:03.750125 26493 net.cpp:156] Memory required for data: 294156400
I0403 12:37:03.750174 26493 layer_factory.hpp:77] Creating layer norm1
I0403 12:37:03.750203 26493 net.cpp:91] Creating Layer norm1
I0403 12:37:03.750223 26493 net.cpp:425] norm1 <- conv1
I0403 12:37:03.750243 26493 net.cpp:399] norm1 -> norm1
I0403 12:37:03.750561 26493 net.cpp:141] Setting up norm1
I0403 12:37:03.750591 26493 net.cpp:148] Top shape: 100 96 55 55 (29040000)
I0403 12:37:03.750607 26493 net.cpp:156] Memory required for data: 410316400
I0403 12:37:03.750624 26493 layer_factory.hpp:77] Creating layer pool1
I0403 12:37:03.750648 26493 net.cpp:91] Creating Layer pool1
I0403 12:37:03.750668 26493 net.cpp:425] pool1 <- norm1
I0403 12:37:03.750687 26493 net.cpp:399] pool1 -> pool1
I0403 12:37:03.750756 26493 net.cpp:141] Setting up pool1
I0403 12:37:03.750782 26493 net.cpp:148] Top shape: 100 96 27 27 (6998400)
I0403 12:37:03.750798 26493 net.cpp:156] Memory required for data: 438310000
I0403 12:37:03.750814 26493 layer_factory.hpp:77] Creating layer conv2
I0403 12:37:03.750843 26493 net.cpp:91] Creating Layer conv2
I0403 12:37:03.750859 26493 net.cpp:425] conv2 <- pool1
I0403 12:37:03.750880 26493 net.cpp:399] conv2 -> conv2
I0403 12:37:03.766551 26493 net.cpp:141] Setting up conv2
I0403 12:37:03.766644 26493 net.cpp:148] Top shape: 100 256 27 27 (18662400)
I0403 12:37:03.766669 26493 net.cpp:156] Memory required for data: 512959600
I0403 12:37:03.766695 26493 layer_factory.hpp:77] Creating layer relu2
I0403 12:37:03.766718 26493 net.cpp:91] Creating Layer relu2
I0403 12:37:03.766736 26493 net.cpp:425] relu2 <- conv2
I0403 12:37:03.766757 26493 net.cpp:386] relu2 -> conv2 (in-place)
I0403 12:37:03.767048 26493 net.cpp:141] Setting up relu2
I0403 12:37:03.767077 26493 net.cpp:148] Top shape: 100 256 27 27 (18662400)
I0403 12:37:03.767094 26493 net.cpp:156] Memory required for data: 587609200
I0403 12:37:03.767112 26493 layer_factory.hpp:77] Creating layer norm2
I0403 12:37:03.767137 26493 net.cpp:91] Creating Layer norm2
I0403 12:37:03.767155 26493 net.cpp:425] norm2 <- conv2
I0403 12:37:03.767175 26493 net.cpp:399] norm2 -> norm2
I0403 12:37:03.767385 26493 net.cpp:141] Setting up norm2
I0403 12:37:03.767416 26493 net.cpp:148] Top shape: 100 256 27 27 (18662400)
I0403 12:37:03.767434 26493 net.cpp:156] Memory required for data: 662258800
I0403 12:37:03.767451 26493 layer_factory.hpp:77] Creating layer pool2
I0403 12:37:03.767470 26493 net.cpp:91] Creating Layer pool2
I0403 12:37:03.767487 26493 net.cpp:425] pool2 <- norm2
I0403 12:37:03.767508 26493 net.cpp:399] pool2 -> pool2
I0403 12:37:03.767565 26493 net.cpp:141] Setting up pool2
I0403 12:37:03.767590 26493 net.cpp:148] Top shape: 100 256 13 13 (4326400)
I0403 12:37:03.767607 26493 net.cpp:156] Memory required for data: 679564400
I0403 12:37:03.767623 26493 layer_factory.hpp:77] Creating layer conv3
I0403 12:37:03.767650 26493 net.cpp:91] Creating Layer conv3
I0403 12:37:03.767669 26493 net.cpp:425] conv3 <- pool2
I0403 12:37:03.767689 26493 net.cpp:399] conv3 -> conv3
I0403 12:37:03.810348 26493 net.cpp:141] Setting up conv3
I0403 12:37:03.810423 26493 net.cpp:148] Top shape: 100 384 13 13 (6489600)
I0403 12:37:03.810442 26493 net.cpp:156] Memory required for data: 705522800
I0403 12:37:03.810469 26493 layer_factory.hpp:77] Creating layer relu3
I0403 12:37:03.810493 26493 net.cpp:91] Creating Layer relu3
I0403 12:37:03.810511 26493 net.cpp:425] relu3 <- conv3
I0403 12:37:03.810534 26493 net.cpp:386] relu3 -> conv3 (in-place)
I0403 12:37:03.810812 26493 net.cpp:141] Setting up relu3
I0403 12:37:03.810842 26493 net.cpp:148] Top shape: 100 384 13 13 (6489600)
I0403 12:37:03.810859 26493 net.cpp:156] Memory required for data: 731481200
I0403 12:37:03.810875 26493 layer_factory.hpp:77] Creating layer conv4
I0403 12:37:03.810904 26493 net.cpp:91] Creating Layer conv4
I0403 12:37:03.810922 26493 net.cpp:425] conv4 <- conv3
I0403 12:37:03.810957 26493 net.cpp:399] conv4 -> conv4
I0403 12:37:03.842322 26493 net.cpp:141] Setting up conv4
I0403 12:37:03.842396 26493 net.cpp:148] Top shape: 100 384 13 13 (6489600)
I0403 12:37:03.842447 26493 net.cpp:156] Memory required for data: 757439600
I0403 12:37:03.842471 26493 layer_factory.hpp:77] Creating layer relu4
I0403 12:37:03.842496 26493 net.cpp:91] Creating Layer relu4
I0403 12:37:03.842515 26493 net.cpp:425] relu4 <- conv4
I0403 12:37:03.842535 26493 net.cpp:386] relu4 -> conv4 (in-place)
I0403 12:37:03.842831 26493 net.cpp:141] Setting up relu4
I0403 12:37:03.842859 26493 net.cpp:148] Top shape: 100 384 13 13 (6489600)
I0403 12:37:03.842875 26493 net.cpp:156] Memory required for data: 783398000
I0403 12:37:03.842890 26493 layer_factory.hpp:77] Creating layer conv5
I0403 12:37:03.842917 26493 net.cpp:91] Creating Layer conv5
I0403 12:37:03.842936 26493 net.cpp:425] conv5 <- conv4
I0403 12:37:03.842957 26493 net.cpp:399] conv5 -> conv5
I0403 12:37:03.864428 26493 net.cpp:141] Setting up conv5
I0403 12:37:03.864477 26493 net.cpp:148] Top shape: 100 256 13 13 (4326400)
I0403 12:37:03.864497 26493 net.cpp:156] Memory required for data: 800703600
I0403 12:37:03.864524 26493 layer_factory.hpp:77] Creating layer relu5
I0403 12:37:03.864547 26493 net.cpp:91] Creating Layer relu5
I0403 12:37:03.864565 26493 net.cpp:425] relu5 <- conv5
I0403 12:37:03.864585 26493 net.cpp:386] relu5 -> conv5 (in-place)
I0403 12:37:03.864881 26493 net.cpp:141] Setting up relu5
I0403 12:37:03.864910 26493 net.cpp:148] Top shape: 100 256 13 13 (4326400)
I0403 12:37:03.864926 26493 net.cpp:156] Memory required for data: 818009200
I0403 12:37:03.864943 26493 layer_factory.hpp:77] Creating layer pool5
I0403 12:37:03.864965 26493 net.cpp:91] Creating Layer pool5
I0403 12:37:03.864984 26493 net.cpp:425] pool5 <- conv5
I0403 12:37:03.865006 26493 net.cpp:399] pool5 -> pool5
I0403 12:37:03.865069 26493 net.cpp:141] Setting up pool5
I0403 12:37:03.865094 26493 net.cpp:148] Top shape: 100 256 6 6 (921600)
I0403 12:37:03.865110 26493 net.cpp:156] Memory required for data: 821695600
I0403 12:37:03.865125 26493 layer_factory.hpp:77] Creating layer fc6
I0403 12:37:03.865156 26493 net.cpp:91] Creating Layer fc6
I0403 12:37:03.865178 26493 net.cpp:425] fc6 <- pool5
I0403 12:37:03.865239 26493 net.cpp:399] fc6 -> fc6
I0403 12:37:05.452391 26493 net.cpp:141] Setting up fc6
I0403 12:37:05.452467 26493 net.cpp:148] Top shape: 100 4096 (409600)
I0403 12:37:05.452486 26493 net.cpp:156] Memory required for data: 823334000
I0403 12:37:05.452508 26493 layer_factory.hpp:77] Creating layer relu6
I0403 12:37:05.452533 26493 net.cpp:91] Creating Layer relu6
I0403 12:37:05.452551 26493 net.cpp:425] relu6 <- fc6
I0403 12:37:05.452571 26493 net.cpp:386] relu6 -> fc6 (in-place)
I0403 12:37:05.452800 26493 net.cpp:141] Setting up relu6
I0403 12:37:05.452826 26493 net.cpp:148] Top shape: 100 4096 (409600)
I0403 12:37:05.452841 26493 net.cpp:156] Memory required for data: 824972400
I0403 12:37:05.452857 26493 layer_factory.hpp:77] Creating layer drop6
I0403 12:37:05.452875 26493 net.cpp:91] Creating Layer drop6
I0403 12:37:05.452893 26493 net.cpp:425] drop6 <- fc6
I0403 12:37:05.452911 26493 net.cpp:386] drop6 -> fc6 (in-place)
I0403 12:37:05.452963 26493 net.cpp:141] Setting up drop6
I0403 12:37:05.452986 26493 net.cpp:148] Top shape: 100 4096 (409600)
I0403 12:37:05.453001 26493 net.cpp:156] Memory required for data: 826610800
I0403 12:37:05.453016 26493 layer_factory.hpp:77] Creating layer fc7
I0403 12:37:05.453039 26493 net.cpp:91] Creating Layer fc7
I0403 12:37:05.453057 26493 net.cpp:425] fc7 <- fc6
I0403 12:37:05.453078 26493 net.cpp:399] fc7 -> fc7
I0403 12:37:06.146359 26493 net.cpp:141] Setting up fc7
I0403 12:37:06.146435 26493 net.cpp:148] Top shape: 100 4096 (409600)
I0403 12:37:06.146452 26493 net.cpp:156] Memory required for data: 828249200
I0403 12:37:06.146474 26493 layer_factory.hpp:77] Creating layer relu7
I0403 12:37:06.146497 26493 net.cpp:91] Creating Layer relu7
I0403 12:37:06.146515 26493 net.cpp:425] relu7 <- fc7
I0403 12:37:06.146538 26493 net.cpp:386] relu7 -> fc7 (in-place)
I0403 12:37:06.146949 26493 net.cpp:141] Setting up relu7
I0403 12:37:06.146978 26493 net.cpp:148] Top shape: 100 4096 (409600)
I0403 12:37:06.147028 26493 net.cpp:156] Memory required for data: 829887600
I0403 12:37:06.147045 26493 layer_factory.hpp:77] Creating layer drop7
I0403 12:37:06.147065 26493 net.cpp:91] Creating Layer drop7
I0403 12:37:06.147080 26493 net.cpp:425] drop7 <- fc7
I0403 12:37:06.147100 26493 net.cpp:386] drop7 -> fc7 (in-place)
I0403 12:37:06.147145 26493 net.cpp:141] Setting up drop7
I0403 12:37:06.147168 26493 net.cpp:148] Top shape: 100 4096 (409600)
I0403 12:37:06.147183 26493 net.cpp:156] Memory required for data: 831526000
I0403 12:37:06.147197 26493 layer_factory.hpp:77] Creating layer fc8_plantvillage
I0403 12:37:06.147220 26493 net.cpp:91] Creating Layer fc8_plantvillage
I0403 12:37:06.147236 26493 net.cpp:425] fc8_plantvillage <- fc7
I0403 12:37:06.147258 26493 net.cpp:399] fc8_plantvillage -> fc8_plantvillage
I0403 12:37:06.154043 26493 net.cpp:141] Setting up fc8_plantvillage
I0403 12:37:06.154072 26493 net.cpp:148] Top shape: 100 38 (3800)
I0403 12:37:06.154089 26493 net.cpp:156] Memory required for data: 831541200
I0403 12:37:06.154109 26493 layer_factory.hpp:77] Creating layer fc8_plantvillage_fc8_plantvillage_0_split
I0403 12:37:06.154129 26493 net.cpp:91] Creating Layer fc8_plantvillage_fc8_plantvillage_0_split
I0403 12:37:06.154144 26493 net.cpp:425] fc8_plantvillage_fc8_plantvillage_0_split <- fc8_plantvillage
I0403 12:37:06.154165 26493 net.cpp:399] fc8_plantvillage_fc8_plantvillage_0_split -> fc8_plantvillage_fc8_plantvillage_0_split_0
I0403 12:37:06.154186 26493 net.cpp:399] fc8_plantvillage_fc8_plantvillage_0_split -> fc8_plantvillage_fc8_plantvillage_0_split_1
I0403 12:37:06.154206 26493 net.cpp:399] fc8_plantvillage_fc8_plantvillage_0_split -> fc8_plantvillage_fc8_plantvillage_0_split_2
I0403 12:37:06.154284 26493 net.cpp:141] Setting up fc8_plantvillage_fc8_plantvillage_0_split
I0403 12:37:06.154309 26493 net.cpp:148] Top shape: 100 38 (3800)
I0403 12:37:06.154325 26493 net.cpp:148] Top shape: 100 38 (3800)
I0403 12:37:06.154341 26493 net.cpp:148] Top shape: 100 38 (3800)
I0403 12:37:06.154361 26493 net.cpp:156] Memory required for data: 831586800
I0403 12:37:06.154377 26493 layer_factory.hpp:77] Creating layer prob
I0403 12:37:06.154397 26493 net.cpp:91] Creating Layer prob
I0403 12:37:06.154413 26493 net.cpp:425] prob <- fc8_plantvillage_fc8_plantvillage_0_split_0
I0403 12:37:06.154433 26493 net.cpp:399] prob -> prob
I0403 12:37:06.154660 26493 net.cpp:141] Setting up prob
I0403 12:37:06.154690 26493 net.cpp:148] Top shape: 100 38 (3800)
I0403 12:37:06.154707 26493 net.cpp:156] Memory required for data: 831602000
I0403 12:37:06.154723 26493 layer_factory.hpp:77] Creating layer hdf5out
I0403 12:37:06.154743 26493 net.cpp:91] Creating Layer hdf5out
I0403 12:37:06.154759 26493 net.cpp:425] hdf5out <- prob
I0403 12:37:06.154777 26493 net.cpp:425] hdf5out <- label_data_1_split_0
I0403 12:37:06.158298 26493 net.cpp:141] Setting up hdf5out
…
