…
I0403 12:22:42.478206 26160 net.cpp:313] The NetState phase (1) differed from the phase (0) specified by a rule in layer data
I0403 12:22:42.478535 26160 net.cpp:49] Initializing net from parameters: 
state {
  phase: TEST
}
layer {
  name: "data"
  type: "Data"
  top: "data"
  top: "label"
  include {
    phase: TEST
  }
  transform_param {
    crop_size: 227
    mean_file: "/home/mohanty/data/final_dataset/lmdb/color-40-60/mean.binaryproto"
  }
  data_param {
    source: "/home/mohanty/data/final_dataset/lmdb/color-40-60/test_db"
    batch_size: 100
    backend: LMDB
  }
}
layer {
  name: "conv1"
  type: "Convolution"
  bottom: "data"
  top: "conv1"
  param {
    lr_mult: 1
    decay_mult: 1
  }
  param {
    lr_mult: 2
    decay_mult: 0
  }
  convolution_param {
    num_output: 96
    kernel_size: 11
    stride: 4
    weight_filler {
      type: "gaussian"
      std: 0.01
    }
    bias_filler {
      type: "constant"
      value: 0
    }
  }
}
layer {
  name: "relu1"
  type: "ReLU"
  bottom: "conv1"
  top: "conv1"
}
layer {
  name: "norm1"
  type: "LRN"
  bottom: "conv1"
  top: "norm1"
  lrn_param {
    local_size: 5
    alpha: 0.0001
    beta: 0.75
  }
}
layer {
  name: "pool1"
  type: "Pooling"
  bottom: "norm1"
  top: "pool1"
  pooling_param {
    pool: MAX
    kernel_size: 3
    stride: 2
  }
}
layer {
  name: "conv2"
  type: "Convolution"
  bottom: "pool1"
  top: "conv2"
  param {
    lr_mult: 1
    decay_mult: 1
  }
  param {
    lr_mult: 2
    decay_mult: 0
  }
  convolution_param {
    num_output: 256
    pad: 2
    kernel_size: 5
    group: 2
    weight_filler {
      type: "gaussian"
      std: 0.01
    }
    bias_filler {
      type: "constant"
      value: 0.1
    }
  }
}
layer {
  name: "relu2"
  type: "ReLU"
  bottom: "conv2"
  top: "conv2"
}
layer {
  name: "norm2"
  type: "LRN"
  bottom: "conv2"
  top: "norm2"
  lrn_param {
    local_size: 5
    alpha: 0.0001
    beta: 0.75
  }
}
layer {
  name: "pool2"
  type: "Pooling"
  bottom: "norm2"
  top: "pool2"
  pooling_param {
    pool: MAX
    kernel_size: 3
    stride: 2
  }
}
layer {
  name: "conv3"
  type: "Convolution"
  bottom: "pool2"
  top: "conv3"
  param {
    lr_mult: 1
    decay_mult: 1
  }
  param {
    lr_mult: 2
    decay_mult: 0
  }
  convolution_param {
    num_output: 384
    pad: 1
    kernel_size: 3
    weight_filler {
      type: "gaussian"
      std: 0.01
    }
    bias_filler {
      type: "constant"
      value: 0
    }
  }
}
layer {
  name: "relu3"
  type: "ReLU"
  bottom: "conv3"
  top: "conv3"
}
layer {
  name: "conv4"
  type: "Convolution"
  bottom: "conv3"
  top: "conv4"
  param {
    lr_mult: 1
    decay_mult: 1
  }
  param {
    lr_mult: 2
    decay_mult: 0
  }
  convolution_param {
    num_output: 384
    pad: 1
    kernel_size: 3
    group: 2
    weight_filler {
      type: "gaussian"
      std: 0.01
    }
    bias_filler {
      type: "constant"
      value: 0.1
    }
  }
}
layer {
  name: "relu4"
  type: "ReLU"
  bottom: "conv4"
  top: "conv4"
}
layer {
  name: "conv5"
  type: "Convolution"
  bottom: "conv4"
  top: "conv5"
  param {
    lr_mult: 1
    decay_mult: 1
  }
  param {
    lr_mult: 2
    decay_mult: 0
  }
  convolution_param {
    num_output: 256
    pad: 1
    kernel_size: 3
    group: 2
    weight_filler {
      type: "gaussian"
      std: 0.01
    }
    bias_filler {
      type: "constant"
      value: 0.1
    }
  }
}
layer {
  name: "relu5"
  type: "ReLU"
  bottom: "conv5"
  top: "conv5"
}
layer {
  name: "pool5"
  type: "Pooling"
  bottom: "conv5"
  top: "pool5"
  pooling_param {
    pool: MAX
    kernel_size: 3
    stride: 2
  }
}
layer {
  name: "fc6"
  type: "InnerProduct"
  bottom: "pool5"
  top: "fc6"
  param {
    lr_mult: 1
    decay_mult: 1
  }
  param {
    lr_mult: 2
    decay_mult: 0
  }
  inner_product_param {
    num_output: 4096
    weight_filler {
      type: "gaussian"
      std: 0.005
    }
    bias_filler {
      type: "constant"
      value: 0.1
    }
  }
}
layer {
  name: "relu6"
  type: "ReLU"
  bottom: "fc6"
  top: "fc6"
}
layer {
  name: "drop6"
  type: "Dropout"
  bottom: "fc6"
  top: "fc6"
  dropout_param {
    dropout_ratio: 0.5
  }
}
layer {
  name: "fc7"
  type: "InnerProduct"
  bottom: "fc6"
  top: "fc7"
  param {
    lr_mult: 1
    decay_mult: 1
  }
  param {
    lr_mult: 2
    decay_mult: 0
  }
  inner_product_param {
    num_output: 4096
    weight_filler {
      type: "gaussian"
      std: 0.005
    }
    bias_filler {
      type: "constant"
      value: 0.1
    }
  }
}
layer {
  name: "relu7"
  type: "ReLU"
  bottom: "fc7"
  top: "fc7"
}
layer {
  name: "drop7"
  type: "Dropout"
  bottom: "fc7"
  top: "fc7"
  dropout_param {
    dropout_ratio: 0.5
  }
}
layer {
  name: "fc8_plantvillage"
  type: "InnerProduct"
  bottom: "fc7"
  top: "fc8_plantvillage"
  param {
    lr_mult: 1
    decay_mult: 1
  }
  param {
    lr_mult: 2
    decay_mult: 0
  }
  inner_product_param {
    num_output: 38
    weight_filler {
      type: "gaussian"
      std: 0.01
    }
    bias_filler {
      type: "constant"
      value: 0
    }
  }
}
layer {
  name: "prob"
  type: "Softmax"
  bottom: "fc8_plantvillage"
  top: "prob"
  include {
    phase: TEST
  }
}
layer {
  name: "hdf5out"
  type: "HDF5Output"
  bottom: "prob"
  bottom: "label"
  include {
    phase: TEST
  }
  hdf5_output_param {
    file_name: "hdf5_dumps/iter_1085.h5"
  }
}
layer {
  name: "loss"
  type: "SoftmaxWithLoss"
  bottom: "fc8_plantvillage"
  bottom: "label"
  top: "loss"
}
layer {
  name: "accuracy"
  type: "Accuracy"
  bottom: "fc8_plantvillage"
  bottom: "label"
  top: "accuracy"
  include {
    phase: TEST
  }
}
I0403 12:22:42.479111 26160 layer_factory.hpp:77] Creating layer data
I0403 12:22:42.479768 26160 net.cpp:91] Creating Layer data
I0403 12:22:42.479802 26160 net.cpp:399] data -> data
I0403 12:22:42.479856 26160 net.cpp:399] data -> label
I0403 12:22:42.479895 26160 data_transformer.cpp:25] Loading mean file from: /home/mohanty/data/final_dataset/lmdb/color-40-60/mean.binaryproto
I0403 12:22:42.482493 26163 db_lmdb.cpp:38] Opened lmdb /home/mohanty/data/final_dataset/lmdb/color-40-60/test_db
I0403 12:22:42.494303 26160 data_layer.cpp:41] output data size: 100,3,227,227
I0403 12:22:42.618273 26160 net.cpp:141] Setting up data
I0403 12:22:42.618371 26160 net.cpp:148] Top shape: 100 3 227 227 (15458700)
I0403 12:22:42.618397 26160 net.cpp:148] Top shape: 100 (100)
I0403 12:22:42.618413 26160 net.cpp:156] Memory required for data: 61835200
I0403 12:22:42.618443 26160 layer_factory.hpp:77] Creating layer label_data_1_split
I0403 12:22:42.618470 26160 net.cpp:91] Creating Layer label_data_1_split
I0403 12:22:42.618490 26160 net.cpp:425] label_data_1_split <- label
I0403 12:22:42.618525 26160 net.cpp:399] label_data_1_split -> label_data_1_split_0
I0403 12:22:42.618553 26160 net.cpp:399] label_data_1_split -> label_data_1_split_1
I0403 12:22:42.618576 26160 net.cpp:399] label_data_1_split -> label_data_1_split_2
I0403 12:22:42.618641 26160 net.cpp:141] Setting up label_data_1_split
I0403 12:22:42.618666 26160 net.cpp:148] Top shape: 100 (100)
I0403 12:22:42.618685 26160 net.cpp:148] Top shape: 100 (100)
I0403 12:22:42.618703 26160 net.cpp:148] Top shape: 100 (100)
I0403 12:22:42.618721 26160 net.cpp:156] Memory required for data: 61836400
I0403 12:22:42.618736 26160 layer_factory.hpp:77] Creating layer conv1
I0403 12:22:42.618770 26160 net.cpp:91] Creating Layer conv1
I0403 12:22:42.618789 26160 net.cpp:425] conv1 <- data
I0403 12:22:42.618811 26160 net.cpp:399] conv1 -> conv1
I0403 12:22:42.763808 26160 net.cpp:141] Setting up conv1
I0403 12:22:42.763887 26160 net.cpp:148] Top shape: 100 96 55 55 (29040000)
I0403 12:22:42.763906 26160 net.cpp:156] Memory required for data: 177996400
I0403 12:22:42.763937 26160 layer_factory.hpp:77] Creating layer relu1
I0403 12:22:42.763967 26160 net.cpp:91] Creating Layer relu1
I0403 12:22:42.763985 26160 net.cpp:425] relu1 <- conv1
I0403 12:22:42.764005 26160 net.cpp:386] relu1 -> conv1 (in-place)
I0403 12:22:42.764318 26160 net.cpp:141] Setting up relu1
I0403 12:22:42.764348 26160 net.cpp:148] Top shape: 100 96 55 55 (29040000)
I0403 12:22:42.764364 26160 net.cpp:156] Memory required for data: 294156400
I0403 12:22:42.764431 26160 layer_factory.hpp:77] Creating layer norm1
I0403 12:22:42.764463 26160 net.cpp:91] Creating Layer norm1
I0403 12:22:42.764483 26160 net.cpp:425] norm1 <- conv1
I0403 12:22:42.764503 26160 net.cpp:399] norm1 -> norm1
I0403 12:22:42.764837 26160 net.cpp:141] Setting up norm1
I0403 12:22:42.764865 26160 net.cpp:148] Top shape: 100 96 55 55 (29040000)
I0403 12:22:42.764883 26160 net.cpp:156] Memory required for data: 410316400
I0403 12:22:42.764900 26160 layer_factory.hpp:77] Creating layer pool1
I0403 12:22:42.764927 26160 net.cpp:91] Creating Layer pool1
I0403 12:22:42.764946 26160 net.cpp:425] pool1 <- norm1
I0403 12:22:42.764966 26160 net.cpp:399] pool1 -> pool1
I0403 12:22:42.765039 26160 net.cpp:141] Setting up pool1
I0403 12:22:42.765066 26160 net.cpp:148] Top shape: 100 96 27 27 (6998400)
I0403 12:22:42.765084 26160 net.cpp:156] Memory required for data: 438310000
I0403 12:22:42.765100 26160 layer_factory.hpp:77] Creating layer conv2
I0403 12:22:42.765128 26160 net.cpp:91] Creating Layer conv2
I0403 12:22:42.765148 26160 net.cpp:425] conv2 <- pool1
I0403 12:22:42.765172 26160 net.cpp:399] conv2 -> conv2
I0403 12:22:42.780908 26160 net.cpp:141] Setting up conv2
I0403 12:22:42.780951 26160 net.cpp:148] Top shape: 100 256 27 27 (18662400)
I0403 12:22:42.780971 26160 net.cpp:156] Memory required for data: 512959600
I0403 12:22:42.780994 26160 layer_factory.hpp:77] Creating layer relu2
I0403 12:22:42.781018 26160 net.cpp:91] Creating Layer relu2
I0403 12:22:42.781038 26160 net.cpp:425] relu2 <- conv2
I0403 12:22:42.781059 26160 net.cpp:386] relu2 -> conv2 (in-place)
I0403 12:22:42.781380 26160 net.cpp:141] Setting up relu2
I0403 12:22:42.781410 26160 net.cpp:148] Top shape: 100 256 27 27 (18662400)
I0403 12:22:42.781426 26160 net.cpp:156] Memory required for data: 587609200
I0403 12:22:42.781443 26160 layer_factory.hpp:77] Creating layer norm2
I0403 12:22:42.781468 26160 net.cpp:91] Creating Layer norm2
I0403 12:22:42.781488 26160 net.cpp:425] norm2 <- conv2
I0403 12:22:42.781510 26160 net.cpp:399] norm2 -> norm2
I0403 12:22:42.781714 26160 net.cpp:141] Setting up norm2
I0403 12:22:42.781743 26160 net.cpp:148] Top shape: 100 256 27 27 (18662400)
I0403 12:22:42.781759 26160 net.cpp:156] Memory required for data: 662258800
I0403 12:22:42.781776 26160 layer_factory.hpp:77] Creating layer pool2
I0403 12:22:42.781796 26160 net.cpp:91] Creating Layer pool2
I0403 12:22:42.781813 26160 net.cpp:425] pool2 <- norm2
I0403 12:22:42.781836 26160 net.cpp:399] pool2 -> pool2
I0403 12:22:42.781893 26160 net.cpp:141] Setting up pool2
I0403 12:22:42.781919 26160 net.cpp:148] Top shape: 100 256 13 13 (4326400)
I0403 12:22:42.781937 26160 net.cpp:156] Memory required for data: 679564400
I0403 12:22:42.781954 26160 layer_factory.hpp:77] Creating layer conv3
I0403 12:22:42.781978 26160 net.cpp:91] Creating Layer conv3
I0403 12:22:42.781998 26160 net.cpp:425] conv3 <- pool2
I0403 12:22:42.782021 26160 net.cpp:399] conv3 -> conv3
I0403 12:22:42.824764 26160 net.cpp:141] Setting up conv3
I0403 12:22:42.824841 26160 net.cpp:148] Top shape: 100 384 13 13 (6489600)
I0403 12:22:42.824859 26160 net.cpp:156] Memory required for data: 705522800
I0403 12:22:42.824892 26160 layer_factory.hpp:77] Creating layer relu3
I0403 12:22:42.824918 26160 net.cpp:91] Creating Layer relu3
I0403 12:22:42.824936 26160 net.cpp:425] relu3 <- conv3
I0403 12:22:42.824957 26160 net.cpp:386] relu3 -> conv3 (in-place)
I0403 12:22:42.825249 26160 net.cpp:141] Setting up relu3
I0403 12:22:42.825278 26160 net.cpp:148] Top shape: 100 384 13 13 (6489600)
I0403 12:22:42.825295 26160 net.cpp:156] Memory required for data: 731481200
I0403 12:22:42.825314 26160 layer_factory.hpp:77] Creating layer conv4
I0403 12:22:42.825350 26160 net.cpp:91] Creating Layer conv4
I0403 12:22:42.825371 26160 net.cpp:425] conv4 <- conv3
I0403 12:22:42.825398 26160 net.cpp:399] conv4 -> conv4
I0403 12:22:42.856559 26160 net.cpp:141] Setting up conv4
I0403 12:22:42.856626 26160 net.cpp:148] Top shape: 100 384 13 13 (6489600)
I0403 12:22:42.856678 26160 net.cpp:156] Memory required for data: 757439600
I0403 12:22:42.856701 26160 layer_factory.hpp:77] Creating layer relu4
I0403 12:22:42.856729 26160 net.cpp:91] Creating Layer relu4
I0403 12:22:42.856750 26160 net.cpp:425] relu4 <- conv4
I0403 12:22:42.856770 26160 net.cpp:386] relu4 -> conv4 (in-place)
I0403 12:22:42.857054 26160 net.cpp:141] Setting up relu4
I0403 12:22:42.857082 26160 net.cpp:148] Top shape: 100 384 13 13 (6489600)
I0403 12:22:42.857098 26160 net.cpp:156] Memory required for data: 783398000
I0403 12:22:42.857115 26160 layer_factory.hpp:77] Creating layer conv5
I0403 12:22:42.857142 26160 net.cpp:91] Creating Layer conv5
I0403 12:22:42.857161 26160 net.cpp:425] conv5 <- conv4
I0403 12:22:42.857183 26160 net.cpp:399] conv5 -> conv5
I0403 12:22:42.878144 26160 net.cpp:141] Setting up conv5
I0403 12:22:42.878196 26160 net.cpp:148] Top shape: 100 256 13 13 (4326400)
I0403 12:22:42.878214 26160 net.cpp:156] Memory required for data: 800703600
I0403 12:22:42.878242 26160 layer_factory.hpp:77] Creating layer relu5
I0403 12:22:42.878267 26160 net.cpp:91] Creating Layer relu5
I0403 12:22:42.878286 26160 net.cpp:425] relu5 <- conv5
I0403 12:22:42.878306 26160 net.cpp:386] relu5 -> conv5 (in-place)
I0403 12:22:42.878597 26160 net.cpp:141] Setting up relu5
I0403 12:22:42.878626 26160 net.cpp:148] Top shape: 100 256 13 13 (4326400)
I0403 12:22:42.878643 26160 net.cpp:156] Memory required for data: 818009200
I0403 12:22:42.878660 26160 layer_factory.hpp:77] Creating layer pool5
I0403 12:22:42.878687 26160 net.cpp:91] Creating Layer pool5
I0403 12:22:42.878706 26160 net.cpp:425] pool5 <- conv5
I0403 12:22:42.878726 26160 net.cpp:399] pool5 -> pool5
I0403 12:22:42.878793 26160 net.cpp:141] Setting up pool5
I0403 12:22:42.878818 26160 net.cpp:148] Top shape: 100 256 6 6 (921600)
I0403 12:22:42.878834 26160 net.cpp:156] Memory required for data: 821695600
I0403 12:22:42.878885 26160 layer_factory.hpp:77] Creating layer fc6
I0403 12:22:42.878921 26160 net.cpp:91] Creating Layer fc6
I0403 12:22:42.878942 26160 net.cpp:425] fc6 <- pool5
I0403 12:22:42.878962 26160 net.cpp:399] fc6 -> fc6
I0403 12:22:44.497541 26160 net.cpp:141] Setting up fc6
I0403 12:22:44.497619 26160 net.cpp:148] Top shape: 100 4096 (409600)
I0403 12:22:44.497637 26160 net.cpp:156] Memory required for data: 823334000
I0403 12:22:44.497660 26160 layer_factory.hpp:77] Creating layer relu6
I0403 12:22:44.497684 26160 net.cpp:91] Creating Layer relu6
I0403 12:22:44.497701 26160 net.cpp:425] relu6 <- fc6
I0403 12:22:44.497725 26160 net.cpp:386] relu6 -> fc6 (in-place)
I0403 12:22:44.497952 26160 net.cpp:141] Setting up relu6
I0403 12:22:44.497979 26160 net.cpp:148] Top shape: 100 4096 (409600)
I0403 12:22:44.497995 26160 net.cpp:156] Memory required for data: 824972400
I0403 12:22:44.498011 26160 layer_factory.hpp:77] Creating layer drop6
I0403 12:22:44.498030 26160 net.cpp:91] Creating Layer drop6
I0403 12:22:44.498045 26160 net.cpp:425] drop6 <- fc6
I0403 12:22:44.498065 26160 net.cpp:386] drop6 -> fc6 (in-place)
I0403 12:22:44.498121 26160 net.cpp:141] Setting up drop6
I0403 12:22:44.498145 26160 net.cpp:148] Top shape: 100 4096 (409600)
I0403 12:22:44.498162 26160 net.cpp:156] Memory required for data: 826610800
I0403 12:22:44.498178 26160 layer_factory.hpp:77] Creating layer fc7
I0403 12:22:44.498198 26160 net.cpp:91] Creating Layer fc7
I0403 12:22:44.498214 26160 net.cpp:425] fc7 <- fc6
I0403 12:22:44.498240 26160 net.cpp:399] fc7 -> fc7
I0403 12:22:46.664149 26160 net.cpp:141] Setting up fc7
I0403 12:22:46.664232 26160 net.cpp:148] Top shape: 100 4096 (409600)
I0403 12:22:46.664252 26160 net.cpp:156] Memory required for data: 828249200
I0403 12:22:46.664288 26160 layer_factory.hpp:77] Creating layer relu7
I0403 12:22:46.664322 26160 net.cpp:91] Creating Layer relu7
I0403 12:22:46.664345 26160 net.cpp:425] relu7 <- fc7
I0403 12:22:46.664371 26160 net.cpp:386] relu7 -> fc7 (in-place)
I0403 12:22:46.664767 26160 net.cpp:141] Setting up relu7
I0403 12:22:46.664795 26160 net.cpp:148] Top shape: 100 4096 (409600)
I0403 12:22:46.664844 26160 net.cpp:156] Memory required for data: 829887600
I0403 12:22:46.664861 26160 layer_factory.hpp:77] Creating layer drop7
I0403 12:22:46.664883 26160 net.cpp:91] Creating Layer drop7
I0403 12:22:46.664901 26160 net.cpp:425] drop7 <- fc7
I0403 12:22:46.664918 26160 net.cpp:386] drop7 -> fc7 (in-place)
I0403 12:22:46.664961 26160 net.cpp:141] Setting up drop7
I0403 12:22:46.664988 26160 net.cpp:148] Top shape: 100 4096 (409600)
I0403 12:22:46.665004 26160 net.cpp:156] Memory required for data: 831526000
I0403 12:22:46.665020 26160 layer_factory.hpp:77] Creating layer fc8_plantvillage
I0403 12:22:46.665040 26160 net.cpp:91] Creating Layer fc8_plantvillage
I0403 12:22:46.665056 26160 net.cpp:425] fc8_plantvillage <- fc7
I0403 12:22:46.665077 26160 net.cpp:399] fc8_plantvillage -> fc8_plantvillage
I0403 12:22:46.671764 26160 net.cpp:141] Setting up fc8_plantvillage
I0403 12:22:46.671797 26160 net.cpp:148] Top shape: 100 38 (3800)
I0403 12:22:46.671813 26160 net.cpp:156] Memory required for data: 831541200
I0403 12:22:46.671833 26160 layer_factory.hpp:77] Creating layer fc8_plantvillage_fc8_plantvillage_0_split
I0403 12:22:46.671856 26160 net.cpp:91] Creating Layer fc8_plantvillage_fc8_plantvillage_0_split
I0403 12:22:46.671875 26160 net.cpp:425] fc8_plantvillage_fc8_plantvillage_0_split <- fc8_plantvillage
I0403 12:22:46.671892 26160 net.cpp:399] fc8_plantvillage_fc8_plantvillage_0_split -> fc8_plantvillage_fc8_plantvillage_0_split_0
I0403 12:22:46.671914 26160 net.cpp:399] fc8_plantvillage_fc8_plantvillage_0_split -> fc8_plantvillage_fc8_plantvillage_0_split_1
I0403 12:22:46.671936 26160 net.cpp:399] fc8_plantvillage_fc8_plantvillage_0_split -> fc8_plantvillage_fc8_plantvillage_0_split_2
I0403 12:22:46.672015 26160 net.cpp:141] Setting up fc8_plantvillage_fc8_plantvillage_0_split
I0403 12:22:46.672040 26160 net.cpp:148] Top shape: 100 38 (3800)
I0403 12:22:46.672058 26160 net.cpp:148] Top shape: 100 38 (3800)
I0403 12:22:46.672075 26160 net.cpp:148] Top shape: 100 38 (3800)
I0403 12:22:46.672091 26160 net.cpp:156] Memory required for data: 831586800
I0403 12:22:46.672107 26160 layer_factory.hpp:77] Creating layer prob
I0403 12:22:46.672127 26160 net.cpp:91] Creating Layer prob
I0403 12:22:46.672142 26160 net.cpp:425] prob <- fc8_plantvillage_fc8_plantvillage_0_split_0
I0403 12:22:46.672163 26160 net.cpp:399] prob -> prob
I0403 12:22:46.672394 26160 net.cpp:141] Setting up prob
I0403 12:22:46.672421 26160 net.cpp:148] Top shape: 100 38 (3800)
I0403 12:22:46.672437 26160 net.cpp:156] Memory required for data: 831602000
I0403 12:22:46.672453 26160 layer_factory.hpp:77] Creating layer hdf5out
I0403 12:22:46.672475 26160 net.cpp:91] Creating Layer hdf5out
I0403 12:22:46.672492 26160 net.cpp:425] hdf5out <- prob
I0403 12:22:46.672509 26160 net.cpp:425] hdf5out <- label_data_1_split_0
I0403 12:22:46.676471 26160 net.cpp:141] Setting up hdf5out
…
