…
I0403 12:29:21.626279 26321 net.cpp:313] The NetState phase (1) differed from the phase (0) specified by a rule in layer data
I0403 12:29:21.626610 26321 net.cpp:49] Initializing net from parameters: 
state {
  phase: TEST
}
layer {
  name: "data"
  type: "Data"
  top: "data"
  top: "label"
  include {
    phase: TEST
  }
  transform_param {
    crop_size: 227
    mean_file: "/home/mohanty/data/final_dataset/lmdb/color-40-60/mean.binaryproto"
  }
  data_param {
    source: "/home/mohanty/data/final_dataset/lmdb/color-40-60/test_db"
    batch_size: 100
    backend: LMDB
  }
}
layer {
  name: "conv1"
  type: "Convolution"
  bottom: "data"
  top: "conv1"
  param {
    lr_mult: 1
    decay_mult: 1
  }
  param {
    lr_mult: 2
    decay_mult: 0
  }
  convolution_param {
    num_output: 96
    kernel_size: 11
    stride: 4
    weight_filler {
      type: "gaussian"
      std: 0.01
    }
    bias_filler {
      type: "constant"
      value: 0
    }
  }
}
layer {
  name: "relu1"
  type: "ReLU"
  bottom: "conv1"
  top: "conv1"
}
layer {
  name: "norm1"
  type: "LRN"
  bottom: "conv1"
  top: "norm1"
  lrn_param {
    local_size: 5
    alpha: 0.0001
    beta: 0.75
  }
}
layer {
  name: "pool1"
  type: "Pooling"
  bottom: "norm1"
  top: "pool1"
  pooling_param {
    pool: MAX
    kernel_size: 3
    stride: 2
  }
}
layer {
  name: "conv2"
  type: "Convolution"
  bottom: "pool1"
  top: "conv2"
  param {
    lr_mult: 1
    decay_mult: 1
  }
  param {
    lr_mult: 2
    decay_mult: 0
  }
  convolution_param {
    num_output: 256
    pad: 2
    kernel_size: 5
    group: 2
    weight_filler {
      type: "gaussian"
      std: 0.01
    }
    bias_filler {
      type: "constant"
      value: 0.1
    }
  }
}
layer {
  name: "relu2"
  type: "ReLU"
  bottom: "conv2"
  top: "conv2"
}
layer {
  name: "norm2"
  type: "LRN"
  bottom: "conv2"
  top: "norm2"
  lrn_param {
    local_size: 5
    alpha: 0.0001
    beta: 0.75
  }
}
layer {
  name: "pool2"
  type: "Pooling"
  bottom: "norm2"
  top: "pool2"
  pooling_param {
    pool: MAX
    kernel_size: 3
    stride: 2
  }
}
layer {
  name: "conv3"
  type: "Convolution"
  bottom: "pool2"
  top: "conv3"
  param {
    lr_mult: 1
    decay_mult: 1
  }
  param {
    lr_mult: 2
    decay_mult: 0
  }
  convolution_param {
    num_output: 384
    pad: 1
    kernel_size: 3
    weight_filler {
      type: "gaussian"
      std: 0.01
    }
    bias_filler {
      type: "constant"
      value: 0
    }
  }
}
layer {
  name: "relu3"
  type: "ReLU"
  bottom: "conv3"
  top: "conv3"
}
layer {
  name: "conv4"
  type: "Convolution"
  bottom: "conv3"
  top: "conv4"
  param {
    lr_mult: 1
    decay_mult: 1
  }
  param {
    lr_mult: 2
    decay_mult: 0
  }
  convolution_param {
    num_output: 384
    pad: 1
    kernel_size: 3
    group: 2
    weight_filler {
      type: "gaussian"
      std: 0.01
    }
    bias_filler {
      type: "constant"
      value: 0.1
    }
  }
}
layer {
  name: "relu4"
  type: "ReLU"
  bottom: "conv4"
  top: "conv4"
}
layer {
  name: "conv5"
  type: "Convolution"
  bottom: "conv4"
  top: "conv5"
  param {
    lr_mult: 1
    decay_mult: 1
  }
  param {
    lr_mult: 2
    decay_mult: 0
  }
  convolution_param {
    num_output: 256
    pad: 1
    kernel_size: 3
    group: 2
    weight_filler {
      type: "gaussian"
      std: 0.01
    }
    bias_filler {
      type: "constant"
      value: 0.1
    }
  }
}
layer {
  name: "relu5"
  type: "ReLU"
  bottom: "conv5"
  top: "conv5"
}
layer {
  name: "pool5"
  type: "Pooling"
  bottom: "conv5"
  top: "pool5"
  pooling_param {
    pool: MAX
    kernel_size: 3
    stride: 2
  }
}
layer {
  name: "fc6"
  type: "InnerProduct"
  bottom: "pool5"
  top: "fc6"
  param {
    lr_mult: 1
    decay_mult: 1
  }
  param {
    lr_mult: 2
    decay_mult: 0
  }
  inner_product_param {
    num_output: 4096
    weight_filler {
      type: "gaussian"
      std: 0.005
    }
    bias_filler {
      type: "constant"
      value: 0.1
    }
  }
}
layer {
  name: "relu6"
  type: "ReLU"
  bottom: "fc6"
  top: "fc6"
}
layer {
  name: "drop6"
  type: "Dropout"
  bottom: "fc6"
  top: "fc6"
  dropout_param {
    dropout_ratio: 0.5
  }
}
layer {
  name: "fc7"
  type: "InnerProduct"
  bottom: "fc6"
  top: "fc7"
  param {
    lr_mult: 1
    decay_mult: 1
  }
  param {
    lr_mult: 2
    decay_mult: 0
  }
  inner_product_param {
    num_output: 4096
    weight_filler {
      type: "gaussian"
      std: 0.005
    }
    bias_filler {
      type: "constant"
      value: 0.1
    }
  }
}
layer {
  name: "relu7"
  type: "ReLU"
  bottom: "fc7"
  top: "fc7"
}
layer {
  name: "drop7"
  type: "Dropout"
  bottom: "fc7"
  top: "fc7"
  dropout_param {
    dropout_ratio: 0.5
  }
}
layer {
  name: "fc8_plantvillage"
  type: "InnerProduct"
  bottom: "fc7"
  top: "fc8_plantvillage"
  param {
    lr_mult: 1
    decay_mult: 1
  }
  param {
    lr_mult: 2
    decay_mult: 0
  }
  inner_product_param {
    num_output: 38
    weight_filler {
      type: "gaussian"
      std: 0.01
    }
    bias_filler {
      type: "constant"
      value: 0
    }
  }
}
layer {
  name: "prob"
  type: "Softmax"
  bottom: "fc8_plantvillage"
  top: "prob"
  include {
    phase: TEST
  }
}
layer {
  name: "hdf5out"
  type: "HDF5Output"
  bottom: "prob"
  bottom: "label"
  include {
    phase: TEST
  }
  hdf5_output_param {
    file_name: "hdf5_dumps/iter_2387.h5"
  }
}
layer {
  name: "loss"
  type: "SoftmaxWithLoss"
  bottom: "fc8_plantvillage"
  bottom: "label"
  top: "loss"
}
layer {
  name: "accuracy"
  type: "Accuracy"
  bottom: "fc8_plantvillage"
  bottom: "label"
  top: "accuracy"
  include {
    phase: TEST
  }
}
I0403 12:29:21.627230 26321 layer_factory.hpp:77] Creating layer data
I0403 12:29:21.627898 26321 net.cpp:91] Creating Layer data
I0403 12:29:21.627930 26321 net.cpp:399] data -> data
I0403 12:29:21.627985 26321 net.cpp:399] data -> label
I0403 12:29:21.628024 26321 data_transformer.cpp:25] Loading mean file from: /home/mohanty/data/final_dataset/lmdb/color-40-60/mean.binaryproto
I0403 12:29:21.630853 26324 db_lmdb.cpp:38] Opened lmdb /home/mohanty/data/final_dataset/lmdb/color-40-60/test_db
I0403 12:29:21.642374 26321 data_layer.cpp:41] output data size: 100,3,227,227
I0403 12:29:21.763236 26321 net.cpp:141] Setting up data
I0403 12:29:21.763326 26321 net.cpp:148] Top shape: 100 3 227 227 (15458700)
I0403 12:29:21.763362 26321 net.cpp:148] Top shape: 100 (100)
I0403 12:29:21.763382 26321 net.cpp:156] Memory required for data: 61835200
I0403 12:29:21.763411 26321 layer_factory.hpp:77] Creating layer label_data_1_split
I0403 12:29:21.763437 26321 net.cpp:91] Creating Layer label_data_1_split
I0403 12:29:21.763456 26321 net.cpp:425] label_data_1_split <- label
I0403 12:29:21.763489 26321 net.cpp:399] label_data_1_split -> label_data_1_split_0
I0403 12:29:21.763516 26321 net.cpp:399] label_data_1_split -> label_data_1_split_1
I0403 12:29:21.763538 26321 net.cpp:399] label_data_1_split -> label_data_1_split_2
I0403 12:29:21.763605 26321 net.cpp:141] Setting up label_data_1_split
I0403 12:29:21.763630 26321 net.cpp:148] Top shape: 100 (100)
I0403 12:29:21.763648 26321 net.cpp:148] Top shape: 100 (100)
I0403 12:29:21.763664 26321 net.cpp:148] Top shape: 100 (100)
I0403 12:29:21.763679 26321 net.cpp:156] Memory required for data: 61836400
I0403 12:29:21.763695 26321 layer_factory.hpp:77] Creating layer conv1
I0403 12:29:21.763726 26321 net.cpp:91] Creating Layer conv1
I0403 12:29:21.763746 26321 net.cpp:425] conv1 <- data
I0403 12:29:21.763766 26321 net.cpp:399] conv1 -> conv1
I0403 12:29:21.908568 26321 net.cpp:141] Setting up conv1
I0403 12:29:21.908651 26321 net.cpp:148] Top shape: 100 96 55 55 (29040000)
I0403 12:29:21.908669 26321 net.cpp:156] Memory required for data: 177996400
I0403 12:29:21.908701 26321 layer_factory.hpp:77] Creating layer relu1
I0403 12:29:21.908730 26321 net.cpp:91] Creating Layer relu1
I0403 12:29:21.908747 26321 net.cpp:425] relu1 <- conv1
I0403 12:29:21.908768 26321 net.cpp:386] relu1 -> conv1 (in-place)
I0403 12:29:21.909029 26321 net.cpp:141] Setting up relu1
I0403 12:29:21.909059 26321 net.cpp:148] Top shape: 100 96 55 55 (29040000)
I0403 12:29:21.909075 26321 net.cpp:156] Memory required for data: 294156400
I0403 12:29:21.909127 26321 layer_factory.hpp:77] Creating layer norm1
I0403 12:29:21.909157 26321 net.cpp:91] Creating Layer norm1
I0403 12:29:21.909176 26321 net.cpp:425] norm1 <- conv1
I0403 12:29:21.909196 26321 net.cpp:399] norm1 -> norm1
I0403 12:29:21.909512 26321 net.cpp:141] Setting up norm1
I0403 12:29:21.909543 26321 net.cpp:148] Top shape: 100 96 55 55 (29040000)
I0403 12:29:21.909559 26321 net.cpp:156] Memory required for data: 410316400
I0403 12:29:21.909574 26321 layer_factory.hpp:77] Creating layer pool1
I0403 12:29:21.909598 26321 net.cpp:91] Creating Layer pool1
I0403 12:29:21.909616 26321 net.cpp:425] pool1 <- norm1
I0403 12:29:21.909636 26321 net.cpp:399] pool1 -> pool1
I0403 12:29:21.909708 26321 net.cpp:141] Setting up pool1
I0403 12:29:21.909734 26321 net.cpp:148] Top shape: 100 96 27 27 (6998400)
I0403 12:29:21.909749 26321 net.cpp:156] Memory required for data: 438310000
I0403 12:29:21.909765 26321 layer_factory.hpp:77] Creating layer conv2
I0403 12:29:21.909790 26321 net.cpp:91] Creating Layer conv2
I0403 12:29:21.909807 26321 net.cpp:425] conv2 <- pool1
I0403 12:29:21.909826 26321 net.cpp:399] conv2 -> conv2
I0403 12:29:21.925030 26321 net.cpp:141] Setting up conv2
I0403 12:29:21.925081 26321 net.cpp:148] Top shape: 100 256 27 27 (18662400)
I0403 12:29:21.925097 26321 net.cpp:156] Memory required for data: 512959600
I0403 12:29:21.925120 26321 layer_factory.hpp:77] Creating layer relu2
I0403 12:29:21.925142 26321 net.cpp:91] Creating Layer relu2
I0403 12:29:21.925159 26321 net.cpp:425] relu2 <- conv2
I0403 12:29:21.925178 26321 net.cpp:386] relu2 -> conv2 (in-place)
I0403 12:29:21.925479 26321 net.cpp:141] Setting up relu2
I0403 12:29:21.925508 26321 net.cpp:148] Top shape: 100 256 27 27 (18662400)
I0403 12:29:21.925525 26321 net.cpp:156] Memory required for data: 587609200
I0403 12:29:21.925541 26321 layer_factory.hpp:77] Creating layer norm2
I0403 12:29:21.925566 26321 net.cpp:91] Creating Layer norm2
I0403 12:29:21.925585 26321 net.cpp:425] norm2 <- conv2
I0403 12:29:21.925618 26321 net.cpp:399] norm2 -> norm2
I0403 12:29:21.925818 26321 net.cpp:141] Setting up norm2
I0403 12:29:21.925845 26321 net.cpp:148] Top shape: 100 256 27 27 (18662400)
I0403 12:29:21.925861 26321 net.cpp:156] Memory required for data: 662258800
I0403 12:29:21.925878 26321 layer_factory.hpp:77] Creating layer pool2
I0403 12:29:21.925895 26321 net.cpp:91] Creating Layer pool2
I0403 12:29:21.925911 26321 net.cpp:425] pool2 <- norm2
I0403 12:29:21.925935 26321 net.cpp:399] pool2 -> pool2
I0403 12:29:21.925988 26321 net.cpp:141] Setting up pool2
I0403 12:29:21.926012 26321 net.cpp:148] Top shape: 100 256 13 13 (4326400)
I0403 12:29:21.926028 26321 net.cpp:156] Memory required for data: 679564400
I0403 12:29:21.926041 26321 layer_factory.hpp:77] Creating layer conv3
I0403 12:29:21.926067 26321 net.cpp:91] Creating Layer conv3
I0403 12:29:21.926085 26321 net.cpp:425] conv3 <- pool2
I0403 12:29:21.926105 26321 net.cpp:399] conv3 -> conv3
I0403 12:29:21.965001 26321 net.cpp:141] Setting up conv3
I0403 12:29:21.965071 26321 net.cpp:148] Top shape: 100 384 13 13 (6489600)
I0403 12:29:21.965088 26321 net.cpp:156] Memory required for data: 705522800
I0403 12:29:21.965113 26321 layer_factory.hpp:77] Creating layer relu3
I0403 12:29:21.965139 26321 net.cpp:91] Creating Layer relu3
I0403 12:29:21.965158 26321 net.cpp:425] relu3 <- conv3
I0403 12:29:21.965178 26321 net.cpp:386] relu3 -> conv3 (in-place)
I0403 12:29:21.965451 26321 net.cpp:141] Setting up relu3
I0403 12:29:21.965478 26321 net.cpp:148] Top shape: 100 384 13 13 (6489600)
I0403 12:29:21.965494 26321 net.cpp:156] Memory required for data: 731481200
I0403 12:29:21.965509 26321 layer_factory.hpp:77] Creating layer conv4
I0403 12:29:21.965536 26321 net.cpp:91] Creating Layer conv4
I0403 12:29:21.965553 26321 net.cpp:425] conv4 <- conv3
I0403 12:29:21.965576 26321 net.cpp:399] conv4 -> conv4
I0403 12:29:21.996099 26321 net.cpp:141] Setting up conv4
I0403 12:29:21.996167 26321 net.cpp:148] Top shape: 100 384 13 13 (6489600)
I0403 12:29:21.996219 26321 net.cpp:156] Memory required for data: 757439600
I0403 12:29:21.996243 26321 layer_factory.hpp:77] Creating layer relu4
I0403 12:29:21.996265 26321 net.cpp:91] Creating Layer relu4
I0403 12:29:21.996284 26321 net.cpp:425] relu4 <- conv4
I0403 12:29:21.996305 26321 net.cpp:386] relu4 -> conv4 (in-place)
I0403 12:29:21.996670 26321 net.cpp:141] Setting up relu4
I0403 12:29:21.996700 26321 net.cpp:148] Top shape: 100 384 13 13 (6489600)
I0403 12:29:21.996716 26321 net.cpp:156] Memory required for data: 783398000
I0403 12:29:21.996732 26321 layer_factory.hpp:77] Creating layer conv5
I0403 12:29:21.996759 26321 net.cpp:91] Creating Layer conv5
I0403 12:29:21.996778 26321 net.cpp:425] conv5 <- conv4
I0403 12:29:21.996800 26321 net.cpp:399] conv5 -> conv5
I0403 12:29:22.017810 26321 net.cpp:141] Setting up conv5
I0403 12:29:22.017869 26321 net.cpp:148] Top shape: 100 256 13 13 (4326400)
I0403 12:29:22.017887 26321 net.cpp:156] Memory required for data: 800703600
I0403 12:29:22.017913 26321 layer_factory.hpp:77] Creating layer relu5
I0403 12:29:22.017935 26321 net.cpp:91] Creating Layer relu5
I0403 12:29:22.017953 26321 net.cpp:425] relu5 <- conv5
I0403 12:29:22.017977 26321 net.cpp:386] relu5 -> conv5 (in-place)
I0403 12:29:22.018272 26321 net.cpp:141] Setting up relu5
I0403 12:29:22.018301 26321 net.cpp:148] Top shape: 100 256 13 13 (4326400)
I0403 12:29:22.018317 26321 net.cpp:156] Memory required for data: 818009200
I0403 12:29:22.018332 26321 layer_factory.hpp:77] Creating layer pool5
I0403 12:29:22.018362 26321 net.cpp:91] Creating Layer pool5
I0403 12:29:22.018381 26321 net.cpp:425] pool5 <- conv5
I0403 12:29:22.018402 26321 net.cpp:399] pool5 -> pool5
I0403 12:29:22.018466 26321 net.cpp:141] Setting up pool5
I0403 12:29:22.018491 26321 net.cpp:148] Top shape: 100 256 6 6 (921600)
I0403 12:29:22.018508 26321 net.cpp:156] Memory required for data: 821695600
I0403 12:29:22.018527 26321 layer_factory.hpp:77] Creating layer fc6
I0403 12:29:22.018558 26321 net.cpp:91] Creating Layer fc6
I0403 12:29:22.018576 26321 net.cpp:425] fc6 <- pool5
I0403 12:29:22.018596 26321 net.cpp:399] fc6 -> fc6
I0403 12:29:23.616843 26321 net.cpp:141] Setting up fc6
I0403 12:29:23.616889 26321 net.cpp:148] Top shape: 100 4096 (409600)
I0403 12:29:23.616906 26321 net.cpp:156] Memory required for data: 823334000
I0403 12:29:23.616930 26321 layer_factory.hpp:77] Creating layer relu6
I0403 12:29:23.616951 26321 net.cpp:91] Creating Layer relu6
I0403 12:29:23.616971 26321 net.cpp:425] relu6 <- fc6
I0403 12:29:23.616994 26321 net.cpp:386] relu6 -> fc6 (in-place)
I0403 12:29:23.617219 26321 net.cpp:141] Setting up relu6
I0403 12:29:23.617246 26321 net.cpp:148] Top shape: 100 4096 (409600)
I0403 12:29:23.617264 26321 net.cpp:156] Memory required for data: 824972400
I0403 12:29:23.617277 26321 layer_factory.hpp:77] Creating layer drop6
I0403 12:29:23.617297 26321 net.cpp:91] Creating Layer drop6
I0403 12:29:23.617313 26321 net.cpp:425] drop6 <- fc6
I0403 12:29:23.617334 26321 net.cpp:386] drop6 -> fc6 (in-place)
I0403 12:29:23.617396 26321 net.cpp:141] Setting up drop6
I0403 12:29:23.617421 26321 net.cpp:148] Top shape: 100 4096 (409600)
I0403 12:29:23.617436 26321 net.cpp:156] Memory required for data: 826610800
I0403 12:29:23.617451 26321 layer_factory.hpp:77] Creating layer fc7
I0403 12:29:23.617471 26321 net.cpp:91] Creating Layer fc7
I0403 12:29:23.617488 26321 net.cpp:425] fc7 <- fc6
I0403 12:29:23.617511 26321 net.cpp:399] fc7 -> fc7
I0403 12:29:24.334995 26321 net.cpp:141] Setting up fc7
I0403 12:29:24.335072 26321 net.cpp:148] Top shape: 100 4096 (409600)
I0403 12:29:24.335090 26321 net.cpp:156] Memory required for data: 828249200
I0403 12:29:24.335113 26321 layer_factory.hpp:77] Creating layer relu7
I0403 12:29:24.335139 26321 net.cpp:91] Creating Layer relu7
I0403 12:29:24.335157 26321 net.cpp:425] relu7 <- fc7
I0403 12:29:24.335178 26321 net.cpp:386] relu7 -> fc7 (in-place)
I0403 12:29:24.335602 26321 net.cpp:141] Setting up relu7
I0403 12:29:24.335631 26321 net.cpp:148] Top shape: 100 4096 (409600)
I0403 12:29:24.335680 26321 net.cpp:156] Memory required for data: 829887600
I0403 12:29:24.335698 26321 layer_factory.hpp:77] Creating layer drop7
I0403 12:29:24.335717 26321 net.cpp:91] Creating Layer drop7
I0403 12:29:24.335762 26321 net.cpp:425] drop7 <- fc7
I0403 12:29:24.335782 26321 net.cpp:386] drop7 -> fc7 (in-place)
I0403 12:29:24.335827 26321 net.cpp:141] Setting up drop7
I0403 12:29:24.335855 26321 net.cpp:148] Top shape: 100 4096 (409600)
I0403 12:29:24.335872 26321 net.cpp:156] Memory required for data: 831526000
I0403 12:29:24.335888 26321 layer_factory.hpp:77] Creating layer fc8_plantvillage
I0403 12:29:24.335909 26321 net.cpp:91] Creating Layer fc8_plantvillage
I0403 12:29:24.335927 26321 net.cpp:425] fc8_plantvillage <- fc7
I0403 12:29:24.335948 26321 net.cpp:399] fc8_plantvillage -> fc8_plantvillage
I0403 12:29:24.342916 26321 net.cpp:141] Setting up fc8_plantvillage
I0403 12:29:24.342946 26321 net.cpp:148] Top shape: 100 38 (3800)
I0403 12:29:24.342962 26321 net.cpp:156] Memory required for data: 831541200
I0403 12:29:24.342983 26321 layer_factory.hpp:77] Creating layer fc8_plantvillage_fc8_plantvillage_0_split
I0403 12:29:24.343004 26321 net.cpp:91] Creating Layer fc8_plantvillage_fc8_plantvillage_0_split
I0403 12:29:24.343021 26321 net.cpp:425] fc8_plantvillage_fc8_plantvillage_0_split <- fc8_plantvillage
I0403 12:29:24.343039 26321 net.cpp:399] fc8_plantvillage_fc8_plantvillage_0_split -> fc8_plantvillage_fc8_plantvillage_0_split_0
I0403 12:29:24.343060 26321 net.cpp:399] fc8_plantvillage_fc8_plantvillage_0_split -> fc8_plantvillage_fc8_plantvillage_0_split_1
I0403 12:29:24.343082 26321 net.cpp:399] fc8_plantvillage_fc8_plantvillage_0_split -> fc8_plantvillage_fc8_plantvillage_0_split_2
I0403 12:29:24.343163 26321 net.cpp:141] Setting up fc8_plantvillage_fc8_plantvillage_0_split
I0403 12:29:24.343188 26321 net.cpp:148] Top shape: 100 38 (3800)
I0403 12:29:24.343205 26321 net.cpp:148] Top shape: 100 38 (3800)
I0403 12:29:24.343221 26321 net.cpp:148] Top shape: 100 38 (3800)
I0403 12:29:24.343236 26321 net.cpp:156] Memory required for data: 831586800
I0403 12:29:24.343251 26321 layer_factory.hpp:77] Creating layer prob
I0403 12:29:24.343271 26321 net.cpp:91] Creating Layer prob
I0403 12:29:24.343286 26321 net.cpp:425] prob <- fc8_plantvillage_fc8_plantvillage_0_split_0
I0403 12:29:24.343307 26321 net.cpp:399] prob -> prob
I0403 12:29:24.343559 26321 net.cpp:141] Setting up prob
I0403 12:29:24.343588 26321 net.cpp:148] Top shape: 100 38 (3800)
I0403 12:29:24.343605 26321 net.cpp:156] Memory required for data: 831602000
I0403 12:29:24.343621 26321 layer_factory.hpp:77] Creating layer hdf5out
I0403 12:29:24.343644 26321 net.cpp:91] Creating Layer hdf5out
I0403 12:29:24.343662 26321 net.cpp:425] hdf5out <- prob
I0403 12:29:24.343679 26321 net.cpp:425] hdf5out <- label_data_1_split_0
I0403 12:29:24.347360 26321 net.cpp:141] Setting up hdf5out
…
