…
I0403 12:43:39.618662 26648 net.cpp:313] The NetState phase (1) differed from the phase (0) specified by a rule in layer data
I0403 12:43:39.618962 26648 net.cpp:49] Initializing net from parameters: 
state {
  phase: TEST
}
layer {
  name: "data"
  type: "Data"
  top: "data"
  top: "label"
  include {
    phase: TEST
  }
  transform_param {
    crop_size: 227
    mean_file: "/home/mohanty/data/final_dataset/lmdb/color-40-60/mean.binaryproto"
  }
  data_param {
    source: "/home/mohanty/data/final_dataset/lmdb/color-40-60/test_db"
    batch_size: 100
    backend: LMDB
  }
}
layer {
  name: "conv1"
  type: "Convolution"
  bottom: "data"
  top: "conv1"
  param {
    lr_mult: 1
    decay_mult: 1
  }
  param {
    lr_mult: 2
    decay_mult: 0
  }
  convolution_param {
    num_output: 96
    kernel_size: 11
    stride: 4
    weight_filler {
      type: "gaussian"
      std: 0.01
    }
    bias_filler {
      type: "constant"
      value: 0
    }
  }
}
layer {
  name: "relu1"
  type: "ReLU"
  bottom: "conv1"
  top: "conv1"
}
layer {
  name: "norm1"
  type: "LRN"
  bottom: "conv1"
  top: "norm1"
  lrn_param {
    local_size: 5
    alpha: 0.0001
    beta: 0.75
  }
}
layer {
  name: "pool1"
  type: "Pooling"
  bottom: "norm1"
  top: "pool1"
  pooling_param {
    pool: MAX
    kernel_size: 3
    stride: 2
  }
}
layer {
  name: "conv2"
  type: "Convolution"
  bottom: "pool1"
  top: "conv2"
  param {
    lr_mult: 1
    decay_mult: 1
  }
  param {
    lr_mult: 2
    decay_mult: 0
  }
  convolution_param {
    num_output: 256
    pad: 2
    kernel_size: 5
    group: 2
    weight_filler {
      type: "gaussian"
      std: 0.01
    }
    bias_filler {
      type: "constant"
      value: 0.1
    }
  }
}
layer {
  name: "relu2"
  type: "ReLU"
  bottom: "conv2"
  top: "conv2"
}
layer {
  name: "norm2"
  type: "LRN"
  bottom: "conv2"
  top: "norm2"
  lrn_param {
    local_size: 5
    alpha: 0.0001
    beta: 0.75
  }
}
layer {
  name: "pool2"
  type: "Pooling"
  bottom: "norm2"
  top: "pool2"
  pooling_param {
    pool: MAX
    kernel_size: 3
    stride: 2
  }
}
layer {
  name: "conv3"
  type: "Convolution"
  bottom: "pool2"
  top: "conv3"
  param {
    lr_mult: 1
    decay_mult: 1
  }
  param {
    lr_mult: 2
    decay_mult: 0
  }
  convolution_param {
    num_output: 384
    pad: 1
    kernel_size: 3
    weight_filler {
      type: "gaussian"
      std: 0.01
    }
    bias_filler {
      type: "constant"
      value: 0
    }
  }
}
layer {
  name: "relu3"
  type: "ReLU"
  bottom: "conv3"
  top: "conv3"
}
layer {
  name: "conv4"
  type: "Convolution"
  bottom: "conv3"
  top: "conv4"
  param {
    lr_mult: 1
    decay_mult: 1
  }
  param {
    lr_mult: 2
    decay_mult: 0
  }
  convolution_param {
    num_output: 384
    pad: 1
    kernel_size: 3
    group: 2
    weight_filler {
      type: "gaussian"
      std: 0.01
    }
    bias_filler {
      type: "constant"
      value: 0.1
    }
  }
}
layer {
  name: "relu4"
  type: "ReLU"
  bottom: "conv4"
  top: "conv4"
}
layer {
  name: "conv5"
  type: "Convolution"
  bottom: "conv4"
  top: "conv5"
  param {
    lr_mult: 1
    decay_mult: 1
  }
  param {
    lr_mult: 2
    decay_mult: 0
  }
  convolution_param {
    num_output: 256
    pad: 1
    kernel_size: 3
    group: 2
    weight_filler {
      type: "gaussian"
      std: 0.01
    }
    bias_filler {
      type: "constant"
      value: 0.1
    }
  }
}
layer {
  name: "relu5"
  type: "ReLU"
  bottom: "conv5"
  top: "conv5"
}
layer {
  name: "pool5"
  type: "Pooling"
  bottom: "conv5"
  top: "pool5"
  pooling_param {
    pool: MAX
    kernel_size: 3
    stride: 2
  }
}
layer {
  name: "fc6"
  type: "InnerProduct"
  bottom: "pool5"
  top: "fc6"
  param {
    lr_mult: 1
    decay_mult: 1
  }
  param {
    lr_mult: 2
    decay_mult: 0
  }
  inner_product_param {
    num_output: 4096
    weight_filler {
      type: "gaussian"
      std: 0.005
    }
    bias_filler {
      type: "constant"
      value: 0.1
    }
  }
}
layer {
  name: "relu6"
  type: "ReLU"
  bottom: "fc6"
  top: "fc6"
}
layer {
  name: "drop6"
  type: "Dropout"
  bottom: "fc6"
  top: "fc6"
  dropout_param {
    dropout_ratio: 0.5
  }
}
layer {
  name: "fc7"
  type: "InnerProduct"
  bottom: "fc6"
  top: "fc7"
  param {
    lr_mult: 1
    decay_mult: 1
  }
  param {
    lr_mult: 2
    decay_mult: 0
  }
  inner_product_param {
    num_output: 4096
    weight_filler {
      type: "gaussian"
      std: 0.005
    }
    bias_filler {
      type: "constant"
      value: 0.1
    }
  }
}
layer {
  name: "relu7"
  type: "ReLU"
  bottom: "fc7"
  top: "fc7"
}
layer {
  name: "drop7"
  type: "Dropout"
  bottom: "fc7"
  top: "fc7"
  dropout_param {
    dropout_ratio: 0.5
  }
}
layer {
  name: "fc8_plantvillage"
  type: "InnerProduct"
  bottom: "fc7"
  top: "fc8_plantvillage"
  param {
    lr_mult: 1
    decay_mult: 1
  }
  param {
    lr_mult: 2
    decay_mult: 0
  }
  inner_product_param {
    num_output: 38
    weight_filler {
      type: "gaussian"
      std: 0.01
    }
    bias_filler {
      type: "constant"
      value: 0
    }
  }
}
layer {
  name: "prob"
  type: "Softmax"
  bottom: "fc8_plantvillage"
  top: "prob"
  include {
    phase: TEST
  }
}
layer {
  name: "hdf5out"
  type: "HDF5Output"
  bottom: "prob"
  bottom: "label"
  include {
    phase: TEST
  }
  hdf5_output_param {
    file_name: "hdf5_dumps/iter_5208.h5"
  }
}
layer {
  name: "loss"
  type: "SoftmaxWithLoss"
  bottom: "fc8_plantvillage"
  bottom: "label"
  top: "loss"
}
layer {
  name: "accuracy"
  type: "Accuracy"
  bottom: "fc8_plantvillage"
  bottom: "label"
  top: "accuracy"
  include {
    phase: TEST
  }
}
I0403 12:43:39.619570 26648 layer_factory.hpp:77] Creating layer data
I0403 12:43:39.620232 26648 net.cpp:91] Creating Layer data
I0403 12:43:39.620265 26648 net.cpp:399] data -> data
I0403 12:43:39.620321 26648 net.cpp:399] data -> label
I0403 12:43:39.620360 26648 data_transformer.cpp:25] Loading mean file from: /home/mohanty/data/final_dataset/lmdb/color-40-60/mean.binaryproto
I0403 12:43:39.623937 26651 db_lmdb.cpp:38] Opened lmdb /home/mohanty/data/final_dataset/lmdb/color-40-60/test_db
I0403 12:43:39.634985 26648 data_layer.cpp:41] output data size: 100,3,227,227
I0403 12:43:39.757426 26648 net.cpp:141] Setting up data
I0403 12:43:39.757519 26648 net.cpp:148] Top shape: 100 3 227 227 (15458700)
I0403 12:43:39.757542 26648 net.cpp:148] Top shape: 100 (100)
I0403 12:43:39.757557 26648 net.cpp:156] Memory required for data: 61835200
I0403 12:43:39.757586 26648 layer_factory.hpp:77] Creating layer label_data_1_split
I0403 12:43:39.757611 26648 net.cpp:91] Creating Layer label_data_1_split
I0403 12:43:39.757630 26648 net.cpp:425] label_data_1_split <- label
I0403 12:43:39.757663 26648 net.cpp:399] label_data_1_split -> label_data_1_split_0
I0403 12:43:39.757693 26648 net.cpp:399] label_data_1_split -> label_data_1_split_1
I0403 12:43:39.757714 26648 net.cpp:399] label_data_1_split -> label_data_1_split_2
I0403 12:43:39.757777 26648 net.cpp:141] Setting up label_data_1_split
I0403 12:43:39.757802 26648 net.cpp:148] Top shape: 100 (100)
I0403 12:43:39.757818 26648 net.cpp:148] Top shape: 100 (100)
I0403 12:43:39.757835 26648 net.cpp:148] Top shape: 100 (100)
I0403 12:43:39.757851 26648 net.cpp:156] Memory required for data: 61836400
I0403 12:43:39.757868 26648 layer_factory.hpp:77] Creating layer conv1
I0403 12:43:39.757900 26648 net.cpp:91] Creating Layer conv1
I0403 12:43:39.757920 26648 net.cpp:425] conv1 <- data
I0403 12:43:39.757941 26648 net.cpp:399] conv1 -> conv1
I0403 12:43:39.901041 26648 net.cpp:141] Setting up conv1
I0403 12:43:39.901116 26648 net.cpp:148] Top shape: 100 96 55 55 (29040000)
I0403 12:43:39.901134 26648 net.cpp:156] Memory required for data: 177996400
I0403 12:43:39.901166 26648 layer_factory.hpp:77] Creating layer relu1
I0403 12:43:39.901196 26648 net.cpp:91] Creating Layer relu1
I0403 12:43:39.901216 26648 net.cpp:425] relu1 <- conv1
I0403 12:43:39.901238 26648 net.cpp:386] relu1 -> conv1 (in-place)
I0403 12:43:39.901516 26648 net.cpp:141] Setting up relu1
I0403 12:43:39.901545 26648 net.cpp:148] Top shape: 100 96 55 55 (29040000)
I0403 12:43:39.901561 26648 net.cpp:156] Memory required for data: 294156400
I0403 12:43:39.901607 26648 layer_factory.hpp:77] Creating layer norm1
I0403 12:43:39.901636 26648 net.cpp:91] Creating Layer norm1
I0403 12:43:39.901655 26648 net.cpp:425] norm1 <- conv1
I0403 12:43:39.901676 26648 net.cpp:399] norm1 -> norm1
I0403 12:43:39.901990 26648 net.cpp:141] Setting up norm1
I0403 12:43:39.902019 26648 net.cpp:148] Top shape: 100 96 55 55 (29040000)
I0403 12:43:39.902039 26648 net.cpp:156] Memory required for data: 410316400
I0403 12:43:39.902055 26648 layer_factory.hpp:77] Creating layer pool1
I0403 12:43:39.902078 26648 net.cpp:91] Creating Layer pool1
I0403 12:43:39.902097 26648 net.cpp:425] pool1 <- norm1
I0403 12:43:39.902117 26648 net.cpp:399] pool1 -> pool1
I0403 12:43:39.902184 26648 net.cpp:141] Setting up pool1
I0403 12:43:39.902209 26648 net.cpp:148] Top shape: 100 96 27 27 (6998400)
I0403 12:43:39.902225 26648 net.cpp:156] Memory required for data: 438310000
I0403 12:43:39.902241 26648 layer_factory.hpp:77] Creating layer conv2
I0403 12:43:39.902269 26648 net.cpp:91] Creating Layer conv2
I0403 12:43:39.902286 26648 net.cpp:425] conv2 <- pool1
I0403 12:43:39.902304 26648 net.cpp:399] conv2 -> conv2
I0403 12:43:39.917388 26648 net.cpp:141] Setting up conv2
I0403 12:43:39.917448 26648 net.cpp:148] Top shape: 100 256 27 27 (18662400)
I0403 12:43:39.917465 26648 net.cpp:156] Memory required for data: 512959600
I0403 12:43:39.917490 26648 layer_factory.hpp:77] Creating layer relu2
I0403 12:43:39.917512 26648 net.cpp:91] Creating Layer relu2
I0403 12:43:39.917529 26648 net.cpp:425] relu2 <- conv2
I0403 12:43:39.917547 26648 net.cpp:386] relu2 -> conv2 (in-place)
I0403 12:43:39.917812 26648 net.cpp:141] Setting up relu2
I0403 12:43:39.917850 26648 net.cpp:148] Top shape: 100 256 27 27 (18662400)
I0403 12:43:39.917865 26648 net.cpp:156] Memory required for data: 587609200
I0403 12:43:39.917882 26648 layer_factory.hpp:77] Creating layer norm2
I0403 12:43:39.917904 26648 net.cpp:91] Creating Layer norm2
I0403 12:43:39.917922 26648 net.cpp:425] norm2 <- conv2
I0403 12:43:39.917940 26648 net.cpp:399] norm2 -> norm2
I0403 12:43:39.918138 26648 net.cpp:141] Setting up norm2
I0403 12:43:39.918164 26648 net.cpp:148] Top shape: 100 256 27 27 (18662400)
I0403 12:43:39.918179 26648 net.cpp:156] Memory required for data: 662258800
I0403 12:43:39.918196 26648 layer_factory.hpp:77] Creating layer pool2
I0403 12:43:39.918216 26648 net.cpp:91] Creating Layer pool2
I0403 12:43:39.918231 26648 net.cpp:425] pool2 <- norm2
I0403 12:43:39.918249 26648 net.cpp:399] pool2 -> pool2
I0403 12:43:39.918301 26648 net.cpp:141] Setting up pool2
I0403 12:43:39.918329 26648 net.cpp:148] Top shape: 100 256 13 13 (4326400)
I0403 12:43:39.918345 26648 net.cpp:156] Memory required for data: 679564400
I0403 12:43:39.918361 26648 layer_factory.hpp:77] Creating layer conv3
I0403 12:43:39.918385 26648 net.cpp:91] Creating Layer conv3
I0403 12:43:39.918401 26648 net.cpp:425] conv3 <- pool2
I0403 12:43:39.918421 26648 net.cpp:399] conv3 -> conv3
I0403 12:43:39.962453 26648 net.cpp:141] Setting up conv3
I0403 12:43:39.962527 26648 net.cpp:148] Top shape: 100 384 13 13 (6489600)
I0403 12:43:39.962545 26648 net.cpp:156] Memory required for data: 705522800
I0403 12:43:39.962574 26648 layer_factory.hpp:77] Creating layer relu3
I0403 12:43:39.962597 26648 net.cpp:91] Creating Layer relu3
I0403 12:43:39.962616 26648 net.cpp:425] relu3 <- conv3
I0403 12:43:39.962636 26648 net.cpp:386] relu3 -> conv3 (in-place)
I0403 12:43:39.962911 26648 net.cpp:141] Setting up relu3
I0403 12:43:39.962940 26648 net.cpp:148] Top shape: 100 384 13 13 (6489600)
I0403 12:43:39.962955 26648 net.cpp:156] Memory required for data: 731481200
I0403 12:43:39.962972 26648 layer_factory.hpp:77] Creating layer conv4
I0403 12:43:39.962997 26648 net.cpp:91] Creating Layer conv4
I0403 12:43:39.963016 26648 net.cpp:425] conv4 <- conv3
I0403 12:43:39.963037 26648 net.cpp:399] conv4 -> conv4
I0403 12:43:39.992944 26648 net.cpp:141] Setting up conv4
I0403 12:43:39.993019 26648 net.cpp:148] Top shape: 100 384 13 13 (6489600)
I0403 12:43:39.993069 26648 net.cpp:156] Memory required for data: 757439600
I0403 12:43:39.993094 26648 layer_factory.hpp:77] Creating layer relu4
I0403 12:43:39.993118 26648 net.cpp:91] Creating Layer relu4
I0403 12:43:39.993137 26648 net.cpp:425] relu4 <- conv4
I0403 12:43:39.993160 26648 net.cpp:386] relu4 -> conv4 (in-place)
I0403 12:43:39.993446 26648 net.cpp:141] Setting up relu4
I0403 12:43:39.993477 26648 net.cpp:148] Top shape: 100 384 13 13 (6489600)
I0403 12:43:39.993494 26648 net.cpp:156] Memory required for data: 783398000
I0403 12:43:39.993511 26648 layer_factory.hpp:77] Creating layer conv5
I0403 12:43:39.993537 26648 net.cpp:91] Creating Layer conv5
I0403 12:43:39.993557 26648 net.cpp:425] conv5 <- conv4
I0403 12:43:39.993577 26648 net.cpp:399] conv5 -> conv5
I0403 12:43:40.014256 26648 net.cpp:141] Setting up conv5
I0403 12:43:40.014313 26648 net.cpp:148] Top shape: 100 256 13 13 (4326400)
I0403 12:43:40.014335 26648 net.cpp:156] Memory required for data: 800703600
I0403 12:43:40.014361 26648 layer_factory.hpp:77] Creating layer relu5
I0403 12:43:40.014384 26648 net.cpp:91] Creating Layer relu5
I0403 12:43:40.014401 26648 net.cpp:425] relu5 <- conv5
I0403 12:43:40.014422 26648 net.cpp:386] relu5 -> conv5 (in-place)
I0403 12:43:40.014706 26648 net.cpp:141] Setting up relu5
I0403 12:43:40.014734 26648 net.cpp:148] Top shape: 100 256 13 13 (4326400)
I0403 12:43:40.014750 26648 net.cpp:156] Memory required for data: 818009200
I0403 12:43:40.014765 26648 layer_factory.hpp:77] Creating layer pool5
I0403 12:43:40.014793 26648 net.cpp:91] Creating Layer pool5
I0403 12:43:40.014811 26648 net.cpp:425] pool5 <- conv5
I0403 12:43:40.014832 26648 net.cpp:399] pool5 -> pool5
I0403 12:43:40.014894 26648 net.cpp:141] Setting up pool5
I0403 12:43:40.014919 26648 net.cpp:148] Top shape: 100 256 6 6 (921600)
I0403 12:43:40.014935 26648 net.cpp:156] Memory required for data: 821695600
I0403 12:43:40.014951 26648 layer_factory.hpp:77] Creating layer fc6
I0403 12:43:40.014978 26648 net.cpp:91] Creating Layer fc6
I0403 12:43:40.014997 26648 net.cpp:425] fc6 <- pool5
I0403 12:43:40.015019 26648 net.cpp:399] fc6 -> fc6
I0403 12:43:41.596434 26648 net.cpp:141] Setting up fc6
I0403 12:43:41.596477 26648 net.cpp:148] Top shape: 100 4096 (409600)
I0403 12:43:41.596494 26648 net.cpp:156] Memory required for data: 823334000
I0403 12:43:41.596518 26648 layer_factory.hpp:77] Creating layer relu6
I0403 12:43:41.596544 26648 net.cpp:91] Creating Layer relu6
I0403 12:43:41.596565 26648 net.cpp:425] relu6 <- fc6
I0403 12:43:41.596585 26648 net.cpp:386] relu6 -> fc6 (in-place)
I0403 12:43:41.596806 26648 net.cpp:141] Setting up relu6
I0403 12:43:41.596830 26648 net.cpp:148] Top shape: 100 4096 (409600)
I0403 12:43:41.596846 26648 net.cpp:156] Memory required for data: 824972400
I0403 12:43:41.596863 26648 layer_factory.hpp:77] Creating layer drop6
I0403 12:43:41.596882 26648 net.cpp:91] Creating Layer drop6
I0403 12:43:41.596897 26648 net.cpp:425] drop6 <- fc6
I0403 12:43:41.596917 26648 net.cpp:386] drop6 -> fc6 (in-place)
I0403 12:43:41.596969 26648 net.cpp:141] Setting up drop6
I0403 12:43:41.596995 26648 net.cpp:148] Top shape: 100 4096 (409600)
I0403 12:43:41.597012 26648 net.cpp:156] Memory required for data: 826610800
I0403 12:43:41.597028 26648 layer_factory.hpp:77] Creating layer fc7
I0403 12:43:41.597060 26648 net.cpp:91] Creating Layer fc7
I0403 12:43:41.597076 26648 net.cpp:425] fc7 <- fc6
I0403 12:43:41.597097 26648 net.cpp:399] fc7 -> fc7
I0403 12:43:42.291539 26648 net.cpp:141] Setting up fc7
I0403 12:43:42.291620 26648 net.cpp:148] Top shape: 100 4096 (409600)
I0403 12:43:42.291637 26648 net.cpp:156] Memory required for data: 828249200
I0403 12:43:42.291661 26648 layer_factory.hpp:77] Creating layer relu7
I0403 12:43:42.291684 26648 net.cpp:91] Creating Layer relu7
I0403 12:43:42.291703 26648 net.cpp:425] relu7 <- fc7
I0403 12:43:42.291728 26648 net.cpp:386] relu7 -> fc7 (in-place)
I0403 12:43:42.292141 26648 net.cpp:141] Setting up relu7
I0403 12:43:42.292168 26648 net.cpp:148] Top shape: 100 4096 (409600)
I0403 12:43:42.292234 26648 net.cpp:156] Memory required for data: 829887600
I0403 12:43:42.292253 26648 layer_factory.hpp:77] Creating layer drop7
I0403 12:43:42.292273 26648 net.cpp:91] Creating Layer drop7
I0403 12:43:42.292289 26648 net.cpp:425] drop7 <- fc7
I0403 12:43:42.292310 26648 net.cpp:386] drop7 -> fc7 (in-place)
I0403 12:43:42.292364 26648 net.cpp:141] Setting up drop7
I0403 12:43:42.292388 26648 net.cpp:148] Top shape: 100 4096 (409600)
I0403 12:43:42.292404 26648 net.cpp:156] Memory required for data: 831526000
I0403 12:43:42.292419 26648 layer_factory.hpp:77] Creating layer fc8_plantvillage
I0403 12:43:42.292443 26648 net.cpp:91] Creating Layer fc8_plantvillage
I0403 12:43:42.292459 26648 net.cpp:425] fc8_plantvillage <- fc7
I0403 12:43:42.292480 26648 net.cpp:399] fc8_plantvillage -> fc8_plantvillage
I0403 12:43:42.299341 26648 net.cpp:141] Setting up fc8_plantvillage
I0403 12:43:42.299371 26648 net.cpp:148] Top shape: 100 38 (3800)
I0403 12:43:42.299387 26648 net.cpp:156] Memory required for data: 831541200
I0403 12:43:42.299407 26648 layer_factory.hpp:77] Creating layer fc8_plantvillage_fc8_plantvillage_0_split
I0403 12:43:42.299427 26648 net.cpp:91] Creating Layer fc8_plantvillage_fc8_plantvillage_0_split
I0403 12:43:42.299444 26648 net.cpp:425] fc8_plantvillage_fc8_plantvillage_0_split <- fc8_plantvillage
I0403 12:43:42.299466 26648 net.cpp:399] fc8_plantvillage_fc8_plantvillage_0_split -> fc8_plantvillage_fc8_plantvillage_0_split_0
I0403 12:43:42.299489 26648 net.cpp:399] fc8_plantvillage_fc8_plantvillage_0_split -> fc8_plantvillage_fc8_plantvillage_0_split_1
I0403 12:43:42.299510 26648 net.cpp:399] fc8_plantvillage_fc8_plantvillage_0_split -> fc8_plantvillage_fc8_plantvillage_0_split_2
I0403 12:43:42.299598 26648 net.cpp:141] Setting up fc8_plantvillage_fc8_plantvillage_0_split
I0403 12:43:42.299623 26648 net.cpp:148] Top shape: 100 38 (3800)
I0403 12:43:42.299639 26648 net.cpp:148] Top shape: 100 38 (3800)
I0403 12:43:42.299655 26648 net.cpp:148] Top shape: 100 38 (3800)
I0403 12:43:42.299671 26648 net.cpp:156] Memory required for data: 831586800
I0403 12:43:42.299686 26648 layer_factory.hpp:77] Creating layer prob
I0403 12:43:42.299707 26648 net.cpp:91] Creating Layer prob
I0403 12:43:42.299723 26648 net.cpp:425] prob <- fc8_plantvillage_fc8_plantvillage_0_split_0
I0403 12:43:42.299744 26648 net.cpp:399] prob -> prob
I0403 12:43:42.299979 26648 net.cpp:141] Setting up prob
I0403 12:43:42.300009 26648 net.cpp:148] Top shape: 100 38 (3800)
I0403 12:43:42.300025 26648 net.cpp:156] Memory required for data: 831602000
I0403 12:43:42.300041 26648 layer_factory.hpp:77] Creating layer hdf5out
I0403 12:43:42.300061 26648 net.cpp:91] Creating Layer hdf5out
I0403 12:43:42.300077 26648 net.cpp:425] hdf5out <- prob
I0403 12:43:42.300094 26648 net.cpp:425] hdf5out <- label_data_1_split_0
I0403 12:43:42.303776 26648 net.cpp:141] Setting up hdf5out
…
