…
I0403 12:38:09.437005 26520 net.cpp:313] The NetState phase (1) differed from the phase (0) specified by a rule in layer data
I0403 12:38:09.437317 26520 net.cpp:49] Initializing net from parameters: 
state {
  phase: TEST
}
layer {
  name: "data"
  type: "Data"
  top: "data"
  top: "label"
  include {
    phase: TEST
  }
  transform_param {
    crop_size: 227
    mean_file: "/home/mohanty/data/final_dataset/lmdb/color-40-60/mean.binaryproto"
  }
  data_param {
    source: "/home/mohanty/data/final_dataset/lmdb/color-40-60/test_db"
    batch_size: 100
    backend: LMDB
  }
}
layer {
  name: "conv1"
  type: "Convolution"
  bottom: "data"
  top: "conv1"
  param {
    lr_mult: 1
    decay_mult: 1
  }
  param {
    lr_mult: 2
    decay_mult: 0
  }
  convolution_param {
    num_output: 96
    kernel_size: 11
    stride: 4
    weight_filler {
      type: "gaussian"
      std: 0.01
    }
    bias_filler {
      type: "constant"
      value: 0
    }
  }
}
layer {
  name: "relu1"
  type: "ReLU"
  bottom: "conv1"
  top: "conv1"
}
layer {
  name: "norm1"
  type: "LRN"
  bottom: "conv1"
  top: "norm1"
  lrn_param {
    local_size: 5
    alpha: 0.0001
    beta: 0.75
  }
}
layer {
  name: "pool1"
  type: "Pooling"
  bottom: "norm1"
  top: "pool1"
  pooling_param {
    pool: MAX
    kernel_size: 3
    stride: 2
  }
}
layer {
  name: "conv2"
  type: "Convolution"
  bottom: "pool1"
  top: "conv2"
  param {
    lr_mult: 1
    decay_mult: 1
  }
  param {
    lr_mult: 2
    decay_mult: 0
  }
  convolution_param {
    num_output: 256
    pad: 2
    kernel_size: 5
    group: 2
    weight_filler {
      type: "gaussian"
      std: 0.01
    }
    bias_filler {
      type: "constant"
      value: 0.1
    }
  }
}
layer {
  name: "relu2"
  type: "ReLU"
  bottom: "conv2"
  top: "conv2"
}
layer {
  name: "norm2"
  type: "LRN"
  bottom: "conv2"
  top: "norm2"
  lrn_param {
    local_size: 5
    alpha: 0.0001
    beta: 0.75
  }
}
layer {
  name: "pool2"
  type: "Pooling"
  bottom: "norm2"
  top: "pool2"
  pooling_param {
    pool: MAX
    kernel_size: 3
    stride: 2
  }
}
layer {
  name: "conv3"
  type: "Convolution"
  bottom: "pool2"
  top: "conv3"
  param {
    lr_mult: 1
    decay_mult: 1
  }
  param {
    lr_mult: 2
    decay_mult: 0
  }
  convolution_param {
    num_output: 384
    pad: 1
    kernel_size: 3
    weight_filler {
      type: "gaussian"
      std: 0.01
    }
    bias_filler {
      type: "constant"
      value: 0
    }
  }
}
layer {
  name: "relu3"
  type: "ReLU"
  bottom: "conv3"
  top: "conv3"
}
layer {
  name: "conv4"
  type: "Convolution"
  bottom: "conv3"
  top: "conv4"
  param {
    lr_mult: 1
    decay_mult: 1
  }
  param {
    lr_mult: 2
    decay_mult: 0
  }
  convolution_param {
    num_output: 384
    pad: 1
    kernel_size: 3
    group: 2
    weight_filler {
      type: "gaussian"
      std: 0.01
    }
    bias_filler {
      type: "constant"
      value: 0.1
    }
  }
}
layer {
  name: "relu4"
  type: "ReLU"
  bottom: "conv4"
  top: "conv4"
}
layer {
  name: "conv5"
  type: "Convolution"
  bottom: "conv4"
  top: "conv5"
  param {
    lr_mult: 1
    decay_mult: 1
  }
  param {
    lr_mult: 2
    decay_mult: 0
  }
  convolution_param {
    num_output: 256
    pad: 1
    kernel_size: 3
    group: 2
    weight_filler {
      type: "gaussian"
      std: 0.01
    }
    bias_filler {
      type: "constant"
      value: 0.1
    }
  }
}
layer {
  name: "relu5"
  type: "ReLU"
  bottom: "conv5"
  top: "conv5"
}
layer {
  name: "pool5"
  type: "Pooling"
  bottom: "conv5"
  top: "pool5"
  pooling_param {
    pool: MAX
    kernel_size: 3
    stride: 2
  }
}
layer {
  name: "fc6"
  type: "InnerProduct"
  bottom: "pool5"
  top: "fc6"
  param {
    lr_mult: 1
    decay_mult: 1
  }
  param {
    lr_mult: 2
    decay_mult: 0
  }
  inner_product_param {
    num_output: 4096
    weight_filler {
      type: "gaussian"
      std: 0.005
    }
    bias_filler {
      type: "constant"
      value: 0.1
    }
  }
}
layer {
  name: "relu6"
  type: "ReLU"
  bottom: "fc6"
  top: "fc6"
}
layer {
  name: "drop6"
  type: "Dropout"
  bottom: "fc6"
  top: "fc6"
  dropout_param {
    dropout_ratio: 0.5
  }
}
layer {
  name: "fc7"
  type: "InnerProduct"
  bottom: "fc6"
  top: "fc7"
  param {
    lr_mult: 1
    decay_mult: 1
  }
  param {
    lr_mult: 2
    decay_mult: 0
  }
  inner_product_param {
    num_output: 4096
    weight_filler {
      type: "gaussian"
      std: 0.005
    }
    bias_filler {
      type: "constant"
      value: 0.1
    }
  }
}
layer {
  name: "relu7"
  type: "ReLU"
  bottom: "fc7"
  top: "fc7"
}
layer {
  name: "drop7"
  type: "Dropout"
  bottom: "fc7"
  top: "fc7"
  dropout_param {
    dropout_ratio: 0.5
  }
}
layer {
  name: "fc8_plantvillage"
  type: "InnerProduct"
  bottom: "fc7"
  top: "fc8_plantvillage"
  param {
    lr_mult: 1
    decay_mult: 1
  }
  param {
    lr_mult: 2
    decay_mult: 0
  }
  inner_product_param {
    num_output: 38
    weight_filler {
      type: "gaussian"
      std: 0.01
    }
    bias_filler {
      type: "constant"
      value: 0
    }
  }
}
layer {
  name: "prob"
  type: "Softmax"
  bottom: "fc8_plantvillage"
  top: "prob"
  include {
    phase: TEST
  }
}
layer {
  name: "hdf5out"
  type: "HDF5Output"
  bottom: "prob"
  bottom: "label"
  include {
    phase: TEST
  }
  hdf5_output_param {
    file_name: "hdf5_dumps/iter_4123.h5"
  }
}
layer {
  name: "loss"
  type: "SoftmaxWithLoss"
  bottom: "fc8_plantvillage"
  bottom: "label"
  top: "loss"
}
layer {
  name: "accuracy"
  type: "Accuracy"
  bottom: "fc8_plantvillage"
  bottom: "label"
  top: "accuracy"
  include {
    phase: TEST
  }
}
I0403 12:38:09.437928 26520 layer_factory.hpp:77] Creating layer data
I0403 12:38:09.438597 26520 net.cpp:91] Creating Layer data
I0403 12:38:09.438632 26520 net.cpp:399] data -> data
I0403 12:38:09.438685 26520 net.cpp:399] data -> label
I0403 12:38:09.438724 26520 data_transformer.cpp:25] Loading mean file from: /home/mohanty/data/final_dataset/lmdb/color-40-60/mean.binaryproto
I0403 12:38:09.441548 26523 db_lmdb.cpp:38] Opened lmdb /home/mohanty/data/final_dataset/lmdb/color-40-60/test_db
I0403 12:38:09.453227 26520 data_layer.cpp:41] output data size: 100,3,227,227
I0403 12:38:09.574427 26520 net.cpp:141] Setting up data
I0403 12:38:09.574517 26520 net.cpp:148] Top shape: 100 3 227 227 (15458700)
I0403 12:38:09.574540 26520 net.cpp:148] Top shape: 100 (100)
I0403 12:38:09.574555 26520 net.cpp:156] Memory required for data: 61835200
I0403 12:38:09.574581 26520 layer_factory.hpp:77] Creating layer label_data_1_split
I0403 12:38:09.574609 26520 net.cpp:91] Creating Layer label_data_1_split
I0403 12:38:09.574625 26520 net.cpp:425] label_data_1_split <- label
I0403 12:38:09.574656 26520 net.cpp:399] label_data_1_split -> label_data_1_split_0
I0403 12:38:09.574694 26520 net.cpp:399] label_data_1_split -> label_data_1_split_1
I0403 12:38:09.574717 26520 net.cpp:399] label_data_1_split -> label_data_1_split_2
I0403 12:38:09.574781 26520 net.cpp:141] Setting up label_data_1_split
I0403 12:38:09.574805 26520 net.cpp:148] Top shape: 100 (100)
I0403 12:38:09.574822 26520 net.cpp:148] Top shape: 100 (100)
I0403 12:38:09.574838 26520 net.cpp:148] Top shape: 100 (100)
I0403 12:38:09.574852 26520 net.cpp:156] Memory required for data: 61836400
I0403 12:38:09.574867 26520 layer_factory.hpp:77] Creating layer conv1
I0403 12:38:09.574900 26520 net.cpp:91] Creating Layer conv1
I0403 12:38:09.574919 26520 net.cpp:425] conv1 <- data
I0403 12:38:09.574939 26520 net.cpp:399] conv1 -> conv1
I0403 12:38:09.720693 26520 net.cpp:141] Setting up conv1
I0403 12:38:09.720752 26520 net.cpp:148] Top shape: 100 96 55 55 (29040000)
I0403 12:38:09.720770 26520 net.cpp:156] Memory required for data: 177996400
I0403 12:38:09.720800 26520 layer_factory.hpp:77] Creating layer relu1
I0403 12:38:09.720829 26520 net.cpp:91] Creating Layer relu1
I0403 12:38:09.720846 26520 net.cpp:425] relu1 <- conv1
I0403 12:38:09.720867 26520 net.cpp:386] relu1 -> conv1 (in-place)
I0403 12:38:09.721151 26520 net.cpp:141] Setting up relu1
I0403 12:38:09.721180 26520 net.cpp:148] Top shape: 100 96 55 55 (29040000)
I0403 12:38:09.721199 26520 net.cpp:156] Memory required for data: 294156400
I0403 12:38:09.721248 26520 layer_factory.hpp:77] Creating layer norm1
I0403 12:38:09.721279 26520 net.cpp:91] Creating Layer norm1
I0403 12:38:09.721298 26520 net.cpp:425] norm1 <- conv1
I0403 12:38:09.721323 26520 net.cpp:399] norm1 -> norm1
I0403 12:38:09.721689 26520 net.cpp:141] Setting up norm1
I0403 12:38:09.721717 26520 net.cpp:148] Top shape: 100 96 55 55 (29040000)
I0403 12:38:09.721732 26520 net.cpp:156] Memory required for data: 410316400
I0403 12:38:09.721747 26520 layer_factory.hpp:77] Creating layer pool1
I0403 12:38:09.721772 26520 net.cpp:91] Creating Layer pool1
I0403 12:38:09.721791 26520 net.cpp:425] pool1 <- norm1
I0403 12:38:09.721807 26520 net.cpp:399] pool1 -> pool1
I0403 12:38:09.721876 26520 net.cpp:141] Setting up pool1
I0403 12:38:09.721900 26520 net.cpp:148] Top shape: 100 96 27 27 (6998400)
I0403 12:38:09.721915 26520 net.cpp:156] Memory required for data: 438310000
I0403 12:38:09.721930 26520 layer_factory.hpp:77] Creating layer conv2
I0403 12:38:09.721957 26520 net.cpp:91] Creating Layer conv2
I0403 12:38:09.721974 26520 net.cpp:425] conv2 <- pool1
I0403 12:38:09.721994 26520 net.cpp:399] conv2 -> conv2
I0403 12:38:09.737460 26520 net.cpp:141] Setting up conv2
I0403 12:38:09.737511 26520 net.cpp:148] Top shape: 100 256 27 27 (18662400)
I0403 12:38:09.737530 26520 net.cpp:156] Memory required for data: 512959600
I0403 12:38:09.737555 26520 layer_factory.hpp:77] Creating layer relu2
I0403 12:38:09.737578 26520 net.cpp:91] Creating Layer relu2
I0403 12:38:09.737596 26520 net.cpp:425] relu2 <- conv2
I0403 12:38:09.737617 26520 net.cpp:386] relu2 -> conv2 (in-place)
I0403 12:38:09.737911 26520 net.cpp:141] Setting up relu2
I0403 12:38:09.737941 26520 net.cpp:148] Top shape: 100 256 27 27 (18662400)
I0403 12:38:09.737958 26520 net.cpp:156] Memory required for data: 587609200
I0403 12:38:09.737973 26520 layer_factory.hpp:77] Creating layer norm2
I0403 12:38:09.737995 26520 net.cpp:91] Creating Layer norm2
I0403 12:38:09.738013 26520 net.cpp:425] norm2 <- conv2
I0403 12:38:09.738035 26520 net.cpp:399] norm2 -> norm2
I0403 12:38:09.738234 26520 net.cpp:141] Setting up norm2
I0403 12:38:09.738261 26520 net.cpp:148] Top shape: 100 256 27 27 (18662400)
I0403 12:38:09.738277 26520 net.cpp:156] Memory required for data: 662258800
I0403 12:38:09.738292 26520 layer_factory.hpp:77] Creating layer pool2
I0403 12:38:09.738322 26520 net.cpp:91] Creating Layer pool2
I0403 12:38:09.738355 26520 net.cpp:425] pool2 <- norm2
I0403 12:38:09.738374 26520 net.cpp:399] pool2 -> pool2
I0403 12:38:09.738431 26520 net.cpp:141] Setting up pool2
I0403 12:38:09.738456 26520 net.cpp:148] Top shape: 100 256 13 13 (4326400)
I0403 12:38:09.738472 26520 net.cpp:156] Memory required for data: 679564400
I0403 12:38:09.738488 26520 layer_factory.hpp:77] Creating layer conv3
I0403 12:38:09.738513 26520 net.cpp:91] Creating Layer conv3
I0403 12:38:09.738531 26520 net.cpp:425] conv3 <- pool2
I0403 12:38:09.738553 26520 net.cpp:399] conv3 -> conv3
I0403 12:38:09.779433 26520 net.cpp:141] Setting up conv3
I0403 12:38:09.779510 26520 net.cpp:148] Top shape: 100 384 13 13 (6489600)
I0403 12:38:09.779528 26520 net.cpp:156] Memory required for data: 705522800
I0403 12:38:09.779559 26520 layer_factory.hpp:77] Creating layer relu3
I0403 12:38:09.779584 26520 net.cpp:91] Creating Layer relu3
I0403 12:38:09.779603 26520 net.cpp:425] relu3 <- conv3
I0403 12:38:09.779623 26520 net.cpp:386] relu3 -> conv3 (in-place)
I0403 12:38:09.779901 26520 net.cpp:141] Setting up relu3
I0403 12:38:09.779929 26520 net.cpp:148] Top shape: 100 384 13 13 (6489600)
I0403 12:38:09.779950 26520 net.cpp:156] Memory required for data: 731481200
I0403 12:38:09.779966 26520 layer_factory.hpp:77] Creating layer conv4
I0403 12:38:09.779990 26520 net.cpp:91] Creating Layer conv4
I0403 12:38:09.780009 26520 net.cpp:425] conv4 <- conv3
I0403 12:38:09.780030 26520 net.cpp:399] conv4 -> conv4
I0403 12:38:09.810901 26520 net.cpp:141] Setting up conv4
I0403 12:38:09.810964 26520 net.cpp:148] Top shape: 100 384 13 13 (6489600)
I0403 12:38:09.811013 26520 net.cpp:156] Memory required for data: 757439600
I0403 12:38:09.811036 26520 layer_factory.hpp:77] Creating layer relu4
I0403 12:38:09.811061 26520 net.cpp:91] Creating Layer relu4
I0403 12:38:09.811080 26520 net.cpp:425] relu4 <- conv4
I0403 12:38:09.811100 26520 net.cpp:386] relu4 -> conv4 (in-place)
I0403 12:38:09.811388 26520 net.cpp:141] Setting up relu4
I0403 12:38:09.811416 26520 net.cpp:148] Top shape: 100 384 13 13 (6489600)
I0403 12:38:09.811432 26520 net.cpp:156] Memory required for data: 783398000
I0403 12:38:09.811449 26520 layer_factory.hpp:77] Creating layer conv5
I0403 12:38:09.811475 26520 net.cpp:91] Creating Layer conv5
I0403 12:38:09.811493 26520 net.cpp:425] conv5 <- conv4
I0403 12:38:09.811516 26520 net.cpp:399] conv5 -> conv5
I0403 12:38:09.832753 26520 net.cpp:141] Setting up conv5
I0403 12:38:09.832808 26520 net.cpp:148] Top shape: 100 256 13 13 (4326400)
I0403 12:38:09.832824 26520 net.cpp:156] Memory required for data: 800703600
I0403 12:38:09.832849 26520 layer_factory.hpp:77] Creating layer relu5
I0403 12:38:09.832875 26520 net.cpp:91] Creating Layer relu5
I0403 12:38:09.832893 26520 net.cpp:425] relu5 <- conv5
I0403 12:38:09.832912 26520 net.cpp:386] relu5 -> conv5 (in-place)
I0403 12:38:09.833194 26520 net.cpp:141] Setting up relu5
I0403 12:38:09.833221 26520 net.cpp:148] Top shape: 100 256 13 13 (4326400)
I0403 12:38:09.833236 26520 net.cpp:156] Memory required for data: 818009200
I0403 12:38:09.833251 26520 layer_factory.hpp:77] Creating layer pool5
I0403 12:38:09.833278 26520 net.cpp:91] Creating Layer pool5
I0403 12:38:09.833308 26520 net.cpp:425] pool5 <- conv5
I0403 12:38:09.833344 26520 net.cpp:399] pool5 -> pool5
I0403 12:38:09.833447 26520 net.cpp:141] Setting up pool5
I0403 12:38:09.833474 26520 net.cpp:148] Top shape: 100 256 6 6 (921600)
I0403 12:38:09.833489 26520 net.cpp:156] Memory required for data: 821695600
I0403 12:38:09.833504 26520 layer_factory.hpp:77] Creating layer fc6
I0403 12:38:09.833534 26520 net.cpp:91] Creating Layer fc6
I0403 12:38:09.833554 26520 net.cpp:425] fc6 <- pool5
I0403 12:38:09.833575 26520 net.cpp:399] fc6 -> fc6
I0403 12:38:11.421972 26520 net.cpp:141] Setting up fc6
I0403 12:38:11.422013 26520 net.cpp:148] Top shape: 100 4096 (409600)
I0403 12:38:11.422029 26520 net.cpp:156] Memory required for data: 823334000
I0403 12:38:11.422050 26520 layer_factory.hpp:77] Creating layer relu6
I0403 12:38:11.422072 26520 net.cpp:91] Creating Layer relu6
I0403 12:38:11.422091 26520 net.cpp:425] relu6 <- fc6
I0403 12:38:11.422112 26520 net.cpp:386] relu6 -> fc6 (in-place)
I0403 12:38:11.422332 26520 net.cpp:141] Setting up relu6
I0403 12:38:11.422356 26520 net.cpp:148] Top shape: 100 4096 (409600)
I0403 12:38:11.422370 26520 net.cpp:156] Memory required for data: 824972400
I0403 12:38:11.422385 26520 layer_factory.hpp:77] Creating layer drop6
I0403 12:38:11.422405 26520 net.cpp:91] Creating Layer drop6
I0403 12:38:11.422421 26520 net.cpp:425] drop6 <- fc6
I0403 12:38:11.422437 26520 net.cpp:386] drop6 -> fc6 (in-place)
I0403 12:38:11.422488 26520 net.cpp:141] Setting up drop6
I0403 12:38:11.422511 26520 net.cpp:148] Top shape: 100 4096 (409600)
I0403 12:38:11.422525 26520 net.cpp:156] Memory required for data: 826610800
I0403 12:38:11.422540 26520 layer_factory.hpp:77] Creating layer fc7
I0403 12:38:11.422560 26520 net.cpp:91] Creating Layer fc7
I0403 12:38:11.422575 26520 net.cpp:425] fc7 <- fc6
I0403 12:38:11.422597 26520 net.cpp:399] fc7 -> fc7
I0403 12:38:12.107372 26520 net.cpp:141] Setting up fc7
I0403 12:38:12.107450 26520 net.cpp:148] Top shape: 100 4096 (409600)
I0403 12:38:12.107468 26520 net.cpp:156] Memory required for data: 828249200
I0403 12:38:12.107491 26520 layer_factory.hpp:77] Creating layer relu7
I0403 12:38:12.107512 26520 net.cpp:91] Creating Layer relu7
I0403 12:38:12.107529 26520 net.cpp:425] relu7 <- fc7
I0403 12:38:12.107548 26520 net.cpp:386] relu7 -> fc7 (in-place)
I0403 12:38:12.107964 26520 net.cpp:141] Setting up relu7
I0403 12:38:12.107991 26520 net.cpp:148] Top shape: 100 4096 (409600)
I0403 12:38:12.108042 26520 net.cpp:156] Memory required for data: 829887600
I0403 12:38:12.108057 26520 layer_factory.hpp:77] Creating layer drop7
I0403 12:38:12.108078 26520 net.cpp:91] Creating Layer drop7
I0403 12:38:12.108094 26520 net.cpp:425] drop7 <- fc7
I0403 12:38:12.108113 26520 net.cpp:386] drop7 -> fc7 (in-place)
I0403 12:38:12.108155 26520 net.cpp:141] Setting up drop7
I0403 12:38:12.108178 26520 net.cpp:148] Top shape: 100 4096 (409600)
I0403 12:38:12.108192 26520 net.cpp:156] Memory required for data: 831526000
I0403 12:38:12.108207 26520 layer_factory.hpp:77] Creating layer fc8_plantvillage
I0403 12:38:12.108227 26520 net.cpp:91] Creating Layer fc8_plantvillage
I0403 12:38:12.108247 26520 net.cpp:425] fc8_plantvillage <- fc7
I0403 12:38:12.108264 26520 net.cpp:399] fc8_plantvillage -> fc8_plantvillage
I0403 12:38:12.114991 26520 net.cpp:141] Setting up fc8_plantvillage
I0403 12:38:12.115021 26520 net.cpp:148] Top shape: 100 38 (3800)
I0403 12:38:12.115037 26520 net.cpp:156] Memory required for data: 831541200
I0403 12:38:12.115056 26520 layer_factory.hpp:77] Creating layer fc8_plantvillage_fc8_plantvillage_0_split
I0403 12:38:12.115078 26520 net.cpp:91] Creating Layer fc8_plantvillage_fc8_plantvillage_0_split
I0403 12:38:12.115095 26520 net.cpp:425] fc8_plantvillage_fc8_plantvillage_0_split <- fc8_plantvillage
I0403 12:38:12.115113 26520 net.cpp:399] fc8_plantvillage_fc8_plantvillage_0_split -> fc8_plantvillage_fc8_plantvillage_0_split_0
I0403 12:38:12.115133 26520 net.cpp:399] fc8_plantvillage_fc8_plantvillage_0_split -> fc8_plantvillage_fc8_plantvillage_0_split_1
I0403 12:38:12.115154 26520 net.cpp:399] fc8_plantvillage_fc8_plantvillage_0_split -> fc8_plantvillage_fc8_plantvillage_0_split_2
I0403 12:38:12.115234 26520 net.cpp:141] Setting up fc8_plantvillage_fc8_plantvillage_0_split
I0403 12:38:12.115258 26520 net.cpp:148] Top shape: 100 38 (3800)
I0403 12:38:12.115274 26520 net.cpp:148] Top shape: 100 38 (3800)
I0403 12:38:12.115290 26520 net.cpp:148] Top shape: 100 38 (3800)
I0403 12:38:12.115303 26520 net.cpp:156] Memory required for data: 831586800
I0403 12:38:12.115325 26520 layer_factory.hpp:77] Creating layer prob
I0403 12:38:12.115348 26520 net.cpp:91] Creating Layer prob
I0403 12:38:12.115366 26520 net.cpp:425] prob <- fc8_plantvillage_fc8_plantvillage_0_split_0
I0403 12:38:12.115384 26520 net.cpp:399] prob -> prob
I0403 12:38:12.115608 26520 net.cpp:141] Setting up prob
I0403 12:38:12.115635 26520 net.cpp:148] Top shape: 100 38 (3800)
I0403 12:38:12.115650 26520 net.cpp:156] Memory required for data: 831602000
I0403 12:38:12.115664 26520 layer_factory.hpp:77] Creating layer hdf5out
I0403 12:38:12.115686 26520 net.cpp:91] Creating Layer hdf5out
I0403 12:38:12.115703 26520 net.cpp:425] hdf5out <- prob
I0403 12:38:12.115720 26520 net.cpp:425] hdf5out <- label_data_1_split_0
I0403 12:38:12.119678 26520 net.cpp:141] Setting up hdf5out
…
