…
I0403 12:32:39.373958 26392 net.cpp:313] The NetState phase (1) differed from the phase (0) specified by a rule in layer data
I0403 12:32:39.374255 26392 net.cpp:49] Initializing net from parameters: 
state {
  phase: TEST
}
layer {
  name: "data"
  type: "Data"
  top: "data"
  top: "label"
  include {
    phase: TEST
  }
  transform_param {
    crop_size: 227
    mean_file: "/home/mohanty/data/final_dataset/lmdb/color-40-60/mean.binaryproto"
  }
  data_param {
    source: "/home/mohanty/data/final_dataset/lmdb/color-40-60/test_db"
    batch_size: 100
    backend: LMDB
  }
}
layer {
  name: "conv1"
  type: "Convolution"
  bottom: "data"
  top: "conv1"
  param {
    lr_mult: 1
    decay_mult: 1
  }
  param {
    lr_mult: 2
    decay_mult: 0
  }
  convolution_param {
    num_output: 96
    kernel_size: 11
    stride: 4
    weight_filler {
      type: "gaussian"
      std: 0.01
    }
    bias_filler {
      type: "constant"
      value: 0
    }
  }
}
layer {
  name: "relu1"
  type: "ReLU"
  bottom: "conv1"
  top: "conv1"
}
layer {
  name: "norm1"
  type: "LRN"
  bottom: "conv1"
  top: "norm1"
  lrn_param {
    local_size: 5
    alpha: 0.0001
    beta: 0.75
  }
}
layer {
  name: "pool1"
  type: "Pooling"
  bottom: "norm1"
  top: "pool1"
  pooling_param {
    pool: MAX
    kernel_size: 3
    stride: 2
  }
}
layer {
  name: "conv2"
  type: "Convolution"
  bottom: "pool1"
  top: "conv2"
  param {
    lr_mult: 1
    decay_mult: 1
  }
  param {
    lr_mult: 2
    decay_mult: 0
  }
  convolution_param {
    num_output: 256
    pad: 2
    kernel_size: 5
    group: 2
    weight_filler {
      type: "gaussian"
      std: 0.01
    }
    bias_filler {
      type: "constant"
      value: 0.1
    }
  }
}
layer {
  name: "relu2"
  type: "ReLU"
  bottom: "conv2"
  top: "conv2"
}
layer {
  name: "norm2"
  type: "LRN"
  bottom: "conv2"
  top: "norm2"
  lrn_param {
    local_size: 5
    alpha: 0.0001
    beta: 0.75
  }
}
layer {
  name: "pool2"
  type: "Pooling"
  bottom: "norm2"
  top: "pool2"
  pooling_param {
    pool: MAX
    kernel_size: 3
    stride: 2
  }
}
layer {
  name: "conv3"
  type: "Convolution"
  bottom: "pool2"
  top: "conv3"
  param {
    lr_mult: 1
    decay_mult: 1
  }
  param {
    lr_mult: 2
    decay_mult: 0
  }
  convolution_param {
    num_output: 384
    pad: 1
    kernel_size: 3
    weight_filler {
      type: "gaussian"
      std: 0.01
    }
    bias_filler {
      type: "constant"
      value: 0
    }
  }
}
layer {
  name: "relu3"
  type: "ReLU"
  bottom: "conv3"
  top: "conv3"
}
layer {
  name: "conv4"
  type: "Convolution"
  bottom: "conv3"
  top: "conv4"
  param {
    lr_mult: 1
    decay_mult: 1
  }
  param {
    lr_mult: 2
    decay_mult: 0
  }
  convolution_param {
    num_output: 384
    pad: 1
    kernel_size: 3
    group: 2
    weight_filler {
      type: "gaussian"
      std: 0.01
    }
    bias_filler {
      type: "constant"
      value: 0.1
    }
  }
}
layer {
  name: "relu4"
  type: "ReLU"
  bottom: "conv4"
  top: "conv4"
}
layer {
  name: "conv5"
  type: "Convolution"
  bottom: "conv4"
  top: "conv5"
  param {
    lr_mult: 1
    decay_mult: 1
  }
  param {
    lr_mult: 2
    decay_mult: 0
  }
  convolution_param {
    num_output: 256
    pad: 1
    kernel_size: 3
    group: 2
    weight_filler {
      type: "gaussian"
      std: 0.01
    }
    bias_filler {
      type: "constant"
      value: 0.1
    }
  }
}
layer {
  name: "relu5"
  type: "ReLU"
  bottom: "conv5"
  top: "conv5"
}
layer {
  name: "pool5"
  type: "Pooling"
  bottom: "conv5"
  top: "pool5"
  pooling_param {
    pool: MAX
    kernel_size: 3
    stride: 2
  }
}
layer {
  name: "fc6"
  type: "InnerProduct"
  bottom: "pool5"
  top: "fc6"
  param {
    lr_mult: 1
    decay_mult: 1
  }
  param {
    lr_mult: 2
    decay_mult: 0
  }
  inner_product_param {
    num_output: 4096
    weight_filler {
      type: "gaussian"
      std: 0.005
    }
    bias_filler {
      type: "constant"
      value: 0.1
    }
  }
}
layer {
  name: "relu6"
  type: "ReLU"
  bottom: "fc6"
  top: "fc6"
}
layer {
  name: "drop6"
  type: "Dropout"
  bottom: "fc6"
  top: "fc6"
  dropout_param {
    dropout_ratio: 0.5
  }
}
layer {
  name: "fc7"
  type: "InnerProduct"
  bottom: "fc6"
  top: "fc7"
  param {
    lr_mult: 1
    decay_mult: 1
  }
  param {
    lr_mult: 2
    decay_mult: 0
  }
  inner_product_param {
    num_output: 4096
    weight_filler {
      type: "gaussian"
      std: 0.005
    }
    bias_filler {
      type: "constant"
      value: 0.1
    }
  }
}
layer {
  name: "relu7"
  type: "ReLU"
  bottom: "fc7"
  top: "fc7"
}
layer {
  name: "drop7"
  type: "Dropout"
  bottom: "fc7"
  top: "fc7"
  dropout_param {
    dropout_ratio: 0.5
  }
}
layer {
  name: "fc8_plantvillage"
  type: "InnerProduct"
  bottom: "fc7"
  top: "fc8_plantvillage"
  param {
    lr_mult: 1
    decay_mult: 1
  }
  param {
    lr_mult: 2
    decay_mult: 0
  }
  inner_product_param {
    num_output: 38
    weight_filler {
      type: "gaussian"
      std: 0.01
    }
    bias_filler {
      type: "constant"
      value: 0
    }
  }
}
layer {
  name: "prob"
  type: "Softmax"
  bottom: "fc8_plantvillage"
  top: "prob"
  include {
    phase: TEST
  }
}
layer {
  name: "hdf5out"
  type: "HDF5Output"
  bottom: "prob"
  bottom: "label"
  include {
    phase: TEST
  }
  hdf5_output_param {
    file_name: "hdf5_dumps/iter_3038.h5"
  }
}
layer {
  name: "loss"
  type: "SoftmaxWithLoss"
  bottom: "fc8_plantvillage"
  bottom: "label"
  top: "loss"
}
layer {
  name: "accuracy"
  type: "Accuracy"
  bottom: "fc8_plantvillage"
  bottom: "label"
  top: "accuracy"
  include {
    phase: TEST
  }
}
I0403 12:32:39.374898 26392 layer_factory.hpp:77] Creating layer data
I0403 12:32:39.375543 26392 net.cpp:91] Creating Layer data
I0403 12:32:39.375576 26392 net.cpp:399] data -> data
I0403 12:32:39.375628 26392 net.cpp:399] data -> label
I0403 12:32:39.375665 26392 data_transformer.cpp:25] Loading mean file from: /home/mohanty/data/final_dataset/lmdb/color-40-60/mean.binaryproto
I0403 12:32:39.378247 26395 db_lmdb.cpp:38] Opened lmdb /home/mohanty/data/final_dataset/lmdb/color-40-60/test_db
I0403 12:32:39.390168 26392 data_layer.cpp:41] output data size: 100,3,227,227
I0403 12:32:39.510382 26392 net.cpp:141] Setting up data
I0403 12:32:39.510457 26392 net.cpp:148] Top shape: 100 3 227 227 (15458700)
I0403 12:32:39.510481 26392 net.cpp:148] Top shape: 100 (100)
I0403 12:32:39.510498 26392 net.cpp:156] Memory required for data: 61835200
I0403 12:32:39.510524 26392 layer_factory.hpp:77] Creating layer label_data_1_split
I0403 12:32:39.510550 26392 net.cpp:91] Creating Layer label_data_1_split
I0403 12:32:39.510568 26392 net.cpp:425] label_data_1_split <- label
I0403 12:32:39.510601 26392 net.cpp:399] label_data_1_split -> label_data_1_split_0
I0403 12:32:39.510627 26392 net.cpp:399] label_data_1_split -> label_data_1_split_1
I0403 12:32:39.510649 26392 net.cpp:399] label_data_1_split -> label_data_1_split_2
I0403 12:32:39.510713 26392 net.cpp:141] Setting up label_data_1_split
I0403 12:32:39.510737 26392 net.cpp:148] Top shape: 100 (100)
I0403 12:32:39.510754 26392 net.cpp:148] Top shape: 100 (100)
I0403 12:32:39.510771 26392 net.cpp:148] Top shape: 100 (100)
I0403 12:32:39.510787 26392 net.cpp:156] Memory required for data: 61836400
I0403 12:32:39.510802 26392 layer_factory.hpp:77] Creating layer conv1
I0403 12:32:39.510831 26392 net.cpp:91] Creating Layer conv1
I0403 12:32:39.510849 26392 net.cpp:425] conv1 <- data
I0403 12:32:39.510869 26392 net.cpp:399] conv1 -> conv1
I0403 12:32:39.653767 26392 net.cpp:141] Setting up conv1
I0403 12:32:39.653844 26392 net.cpp:148] Top shape: 100 96 55 55 (29040000)
I0403 12:32:39.653862 26392 net.cpp:156] Memory required for data: 177996400
I0403 12:32:39.653893 26392 layer_factory.hpp:77] Creating layer relu1
I0403 12:32:39.653920 26392 net.cpp:91] Creating Layer relu1
I0403 12:32:39.653939 26392 net.cpp:425] relu1 <- conv1
I0403 12:32:39.653959 26392 net.cpp:386] relu1 -> conv1 (in-place)
I0403 12:32:39.654216 26392 net.cpp:141] Setting up relu1
I0403 12:32:39.654244 26392 net.cpp:148] Top shape: 100 96 55 55 (29040000)
I0403 12:32:39.654260 26392 net.cpp:156] Memory required for data: 294156400
I0403 12:32:39.654310 26392 layer_factory.hpp:77] Creating layer norm1
I0403 12:32:39.654355 26392 net.cpp:91] Creating Layer norm1
I0403 12:32:39.654374 26392 net.cpp:425] norm1 <- conv1
I0403 12:32:39.654392 26392 net.cpp:399] norm1 -> norm1
I0403 12:32:39.654702 26392 net.cpp:141] Setting up norm1
I0403 12:32:39.654731 26392 net.cpp:148] Top shape: 100 96 55 55 (29040000)
I0403 12:32:39.654747 26392 net.cpp:156] Memory required for data: 410316400
I0403 12:32:39.654763 26392 layer_factory.hpp:77] Creating layer pool1
I0403 12:32:39.654788 26392 net.cpp:91] Creating Layer pool1
I0403 12:32:39.654804 26392 net.cpp:425] pool1 <- norm1
I0403 12:32:39.654825 26392 net.cpp:399] pool1 -> pool1
I0403 12:32:39.654892 26392 net.cpp:141] Setting up pool1
I0403 12:32:39.654917 26392 net.cpp:148] Top shape: 100 96 27 27 (6998400)
I0403 12:32:39.654932 26392 net.cpp:156] Memory required for data: 438310000
I0403 12:32:39.654948 26392 layer_factory.hpp:77] Creating layer conv2
I0403 12:32:39.654973 26392 net.cpp:91] Creating Layer conv2
I0403 12:32:39.654990 26392 net.cpp:425] conv2 <- pool1
I0403 12:32:39.655009 26392 net.cpp:399] conv2 -> conv2
I0403 12:32:39.670191 26392 net.cpp:141] Setting up conv2
I0403 12:32:39.670230 26392 net.cpp:148] Top shape: 100 256 27 27 (18662400)
I0403 12:32:39.670281 26392 net.cpp:156] Memory required for data: 512959600
I0403 12:32:39.670310 26392 layer_factory.hpp:77] Creating layer relu2
I0403 12:32:39.670338 26392 net.cpp:91] Creating Layer relu2
I0403 12:32:39.670356 26392 net.cpp:425] relu2 <- conv2
I0403 12:32:39.670375 26392 net.cpp:386] relu2 -> conv2 (in-place)
I0403 12:32:39.670663 26392 net.cpp:141] Setting up relu2
I0403 12:32:39.670691 26392 net.cpp:148] Top shape: 100 256 27 27 (18662400)
I0403 12:32:39.670708 26392 net.cpp:156] Memory required for data: 587609200
I0403 12:32:39.670723 26392 layer_factory.hpp:77] Creating layer norm2
I0403 12:32:39.670747 26392 net.cpp:91] Creating Layer norm2
I0403 12:32:39.670763 26392 net.cpp:425] norm2 <- conv2
I0403 12:32:39.670781 26392 net.cpp:399] norm2 -> norm2
I0403 12:32:39.670975 26392 net.cpp:141] Setting up norm2
I0403 12:32:39.671001 26392 net.cpp:148] Top shape: 100 256 27 27 (18662400)
I0403 12:32:39.671016 26392 net.cpp:156] Memory required for data: 662258800
I0403 12:32:39.671031 26392 layer_factory.hpp:77] Creating layer pool2
I0403 12:32:39.671051 26392 net.cpp:91] Creating Layer pool2
I0403 12:32:39.671066 26392 net.cpp:425] pool2 <- norm2
I0403 12:32:39.671085 26392 net.cpp:399] pool2 -> pool2
I0403 12:32:39.671133 26392 net.cpp:141] Setting up pool2
I0403 12:32:39.671155 26392 net.cpp:148] Top shape: 100 256 13 13 (4326400)
I0403 12:32:39.671170 26392 net.cpp:156] Memory required for data: 679564400
I0403 12:32:39.671185 26392 layer_factory.hpp:77] Creating layer conv3
I0403 12:32:39.671207 26392 net.cpp:91] Creating Layer conv3
I0403 12:32:39.671223 26392 net.cpp:425] conv3 <- pool2
I0403 12:32:39.671242 26392 net.cpp:399] conv3 -> conv3
I0403 12:32:39.712791 26392 net.cpp:141] Setting up conv3
I0403 12:32:39.712865 26392 net.cpp:148] Top shape: 100 384 13 13 (6489600)
I0403 12:32:39.712884 26392 net.cpp:156] Memory required for data: 705522800
I0403 12:32:39.712910 26392 layer_factory.hpp:77] Creating layer relu3
I0403 12:32:39.712935 26392 net.cpp:91] Creating Layer relu3
I0403 12:32:39.712954 26392 net.cpp:425] relu3 <- conv3
I0403 12:32:39.712975 26392 net.cpp:386] relu3 -> conv3 (in-place)
I0403 12:32:39.713240 26392 net.cpp:141] Setting up relu3
I0403 12:32:39.713268 26392 net.cpp:148] Top shape: 100 384 13 13 (6489600)
I0403 12:32:39.713284 26392 net.cpp:156] Memory required for data: 731481200
I0403 12:32:39.713299 26392 layer_factory.hpp:77] Creating layer conv4
I0403 12:32:39.713330 26392 net.cpp:91] Creating Layer conv4
I0403 12:32:39.713347 26392 net.cpp:425] conv4 <- conv3
I0403 12:32:39.713367 26392 net.cpp:399] conv4 -> conv4
I0403 12:32:39.743494 26392 net.cpp:141] Setting up conv4
I0403 12:32:39.743559 26392 net.cpp:148] Top shape: 100 384 13 13 (6489600)
I0403 12:32:39.743609 26392 net.cpp:156] Memory required for data: 757439600
I0403 12:32:39.743633 26392 layer_factory.hpp:77] Creating layer relu4
I0403 12:32:39.743654 26392 net.cpp:91] Creating Layer relu4
I0403 12:32:39.743671 26392 net.cpp:425] relu4 <- conv4
I0403 12:32:39.743693 26392 net.cpp:386] relu4 -> conv4 (in-place)
I0403 12:32:39.744015 26392 net.cpp:141] Setting up relu4
I0403 12:32:39.744045 26392 net.cpp:148] Top shape: 100 384 13 13 (6489600)
I0403 12:32:39.744060 26392 net.cpp:156] Memory required for data: 783398000
I0403 12:32:39.744076 26392 layer_factory.hpp:77] Creating layer conv5
I0403 12:32:39.744102 26392 net.cpp:91] Creating Layer conv5
I0403 12:32:39.744120 26392 net.cpp:425] conv5 <- conv4
I0403 12:32:39.744143 26392 net.cpp:399] conv5 -> conv5
I0403 12:32:39.765380 26392 net.cpp:141] Setting up conv5
I0403 12:32:39.765440 26392 net.cpp:148] Top shape: 100 256 13 13 (4326400)
I0403 12:32:39.765458 26392 net.cpp:156] Memory required for data: 800703600
I0403 12:32:39.765485 26392 layer_factory.hpp:77] Creating layer relu5
I0403 12:32:39.765506 26392 net.cpp:91] Creating Layer relu5
I0403 12:32:39.765524 26392 net.cpp:425] relu5 <- conv5
I0403 12:32:39.765545 26392 net.cpp:386] relu5 -> conv5 (in-place)
I0403 12:32:39.765836 26392 net.cpp:141] Setting up relu5
I0403 12:32:39.765863 26392 net.cpp:148] Top shape: 100 256 13 13 (4326400)
I0403 12:32:39.765880 26392 net.cpp:156] Memory required for data: 818009200
I0403 12:32:39.765897 26392 layer_factory.hpp:77] Creating layer pool5
I0403 12:32:39.765923 26392 net.cpp:91] Creating Layer pool5
I0403 12:32:39.765940 26392 net.cpp:425] pool5 <- conv5
I0403 12:32:39.765960 26392 net.cpp:399] pool5 -> pool5
I0403 12:32:39.766026 26392 net.cpp:141] Setting up pool5
I0403 12:32:39.766050 26392 net.cpp:148] Top shape: 100 256 6 6 (921600)
I0403 12:32:39.766067 26392 net.cpp:156] Memory required for data: 821695600
I0403 12:32:39.766083 26392 layer_factory.hpp:77] Creating layer fc6
I0403 12:32:39.766110 26392 net.cpp:91] Creating Layer fc6
I0403 12:32:39.766129 26392 net.cpp:425] fc6 <- pool5
I0403 12:32:39.766152 26392 net.cpp:399] fc6 -> fc6
I0403 12:32:41.354946 26392 net.cpp:141] Setting up fc6
I0403 12:32:41.354990 26392 net.cpp:148] Top shape: 100 4096 (409600)
I0403 12:32:41.355005 26392 net.cpp:156] Memory required for data: 823334000
I0403 12:32:41.355026 26392 layer_factory.hpp:77] Creating layer relu6
I0403 12:32:41.355049 26392 net.cpp:91] Creating Layer relu6
I0403 12:32:41.355067 26392 net.cpp:425] relu6 <- fc6
I0403 12:32:41.355087 26392 net.cpp:386] relu6 -> fc6 (in-place)
I0403 12:32:41.355298 26392 net.cpp:141] Setting up relu6
I0403 12:32:41.355329 26392 net.cpp:148] Top shape: 100 4096 (409600)
I0403 12:32:41.355358 26392 net.cpp:156] Memory required for data: 824972400
I0403 12:32:41.355373 26392 layer_factory.hpp:77] Creating layer drop6
I0403 12:32:41.355393 26392 net.cpp:91] Creating Layer drop6
I0403 12:32:41.355411 26392 net.cpp:425] drop6 <- fc6
I0403 12:32:41.355432 26392 net.cpp:386] drop6 -> fc6 (in-place)
I0403 12:32:41.355481 26392 net.cpp:141] Setting up drop6
I0403 12:32:41.355509 26392 net.cpp:148] Top shape: 100 4096 (409600)
I0403 12:32:41.355523 26392 net.cpp:156] Memory required for data: 826610800
I0403 12:32:41.355538 26392 layer_factory.hpp:77] Creating layer fc7
I0403 12:32:41.355558 26392 net.cpp:91] Creating Layer fc7
I0403 12:32:41.355574 26392 net.cpp:425] fc7 <- fc6
I0403 12:32:41.355594 26392 net.cpp:399] fc7 -> fc7
I0403 12:32:42.045053 26392 net.cpp:141] Setting up fc7
I0403 12:32:42.045127 26392 net.cpp:148] Top shape: 100 4096 (409600)
I0403 12:32:42.045145 26392 net.cpp:156] Memory required for data: 828249200
I0403 12:32:42.045166 26392 layer_factory.hpp:77] Creating layer relu7
I0403 12:32:42.045188 26392 net.cpp:91] Creating Layer relu7
I0403 12:32:42.045205 26392 net.cpp:425] relu7 <- fc7
I0403 12:32:42.045228 26392 net.cpp:386] relu7 -> fc7 (in-place)
I0403 12:32:42.045624 26392 net.cpp:141] Setting up relu7
I0403 12:32:42.045651 26392 net.cpp:148] Top shape: 100 4096 (409600)
I0403 12:32:42.045698 26392 net.cpp:156] Memory required for data: 829887600
I0403 12:32:42.045714 26392 layer_factory.hpp:77] Creating layer drop7
I0403 12:32:42.045733 26392 net.cpp:91] Creating Layer drop7
I0403 12:32:42.045748 26392 net.cpp:425] drop7 <- fc7
I0403 12:32:42.045769 26392 net.cpp:386] drop7 -> fc7 (in-place)
I0403 12:32:42.045812 26392 net.cpp:141] Setting up drop7
I0403 12:32:42.045837 26392 net.cpp:148] Top shape: 100 4096 (409600)
I0403 12:32:42.045852 26392 net.cpp:156] Memory required for data: 831526000
I0403 12:32:42.045867 26392 layer_factory.hpp:77] Creating layer fc8_plantvillage
I0403 12:32:42.045887 26392 net.cpp:91] Creating Layer fc8_plantvillage
I0403 12:32:42.045903 26392 net.cpp:425] fc8_plantvillage <- fc7
I0403 12:32:42.045924 26392 net.cpp:399] fc8_plantvillage -> fc8_plantvillage
I0403 12:32:42.052623 26392 net.cpp:141] Setting up fc8_plantvillage
I0403 12:32:42.052651 26392 net.cpp:148] Top shape: 100 38 (3800)
I0403 12:32:42.052666 26392 net.cpp:156] Memory required for data: 831541200
I0403 12:32:42.052685 26392 layer_factory.hpp:77] Creating layer fc8_plantvillage_fc8_plantvillage_0_split
I0403 12:32:42.052705 26392 net.cpp:91] Creating Layer fc8_plantvillage_fc8_plantvillage_0_split
I0403 12:32:42.052723 26392 net.cpp:425] fc8_plantvillage_fc8_plantvillage_0_split <- fc8_plantvillage
I0403 12:32:42.052742 26392 net.cpp:399] fc8_plantvillage_fc8_plantvillage_0_split -> fc8_plantvillage_fc8_plantvillage_0_split_0
I0403 12:32:42.052762 26392 net.cpp:399] fc8_plantvillage_fc8_plantvillage_0_split -> fc8_plantvillage_fc8_plantvillage_0_split_1
I0403 12:32:42.052783 26392 net.cpp:399] fc8_plantvillage_fc8_plantvillage_0_split -> fc8_plantvillage_fc8_plantvillage_0_split_2
I0403 12:32:42.052865 26392 net.cpp:141] Setting up fc8_plantvillage_fc8_plantvillage_0_split
I0403 12:32:42.052891 26392 net.cpp:148] Top shape: 100 38 (3800)
I0403 12:32:42.052908 26392 net.cpp:148] Top shape: 100 38 (3800)
I0403 12:32:42.052923 26392 net.cpp:148] Top shape: 100 38 (3800)
I0403 12:32:42.052937 26392 net.cpp:156] Memory required for data: 831586800
I0403 12:32:42.052953 26392 layer_factory.hpp:77] Creating layer prob
I0403 12:32:42.052971 26392 net.cpp:91] Creating Layer prob
I0403 12:32:42.052988 26392 net.cpp:425] prob <- fc8_plantvillage_fc8_plantvillage_0_split_0
I0403 12:32:42.053004 26392 net.cpp:399] prob -> prob
I0403 12:32:42.053231 26392 net.cpp:141] Setting up prob
I0403 12:32:42.053258 26392 net.cpp:148] Top shape: 100 38 (3800)
I0403 12:32:42.053273 26392 net.cpp:156] Memory required for data: 831602000
I0403 12:32:42.053288 26392 layer_factory.hpp:77] Creating layer hdf5out
I0403 12:32:42.053308 26392 net.cpp:91] Creating Layer hdf5out
I0403 12:32:42.053336 26392 net.cpp:425] hdf5out <- prob
I0403 12:32:42.053355 26392 net.cpp:425] hdf5out <- label_data_1_split_0
I0403 12:32:42.057118 26392 net.cpp:141] Setting up hdf5out
…
