…
I0403 12:41:27.719291 26597 net.cpp:313] The NetState phase (1) differed from the phase (0) specified by a rule in layer data
I0403 12:41:27.719609 26597 net.cpp:49] Initializing net from parameters: 
state {
  phase: TEST
}
layer {
  name: "data"
  type: "Data"
  top: "data"
  top: "label"
  include {
    phase: TEST
  }
  transform_param {
    crop_size: 227
    mean_file: "/home/mohanty/data/final_dataset/lmdb/color-40-60/mean.binaryproto"
  }
  data_param {
    source: "/home/mohanty/data/final_dataset/lmdb/color-40-60/test_db"
    batch_size: 100
    backend: LMDB
  }
}
layer {
  name: "conv1"
  type: "Convolution"
  bottom: "data"
  top: "conv1"
  param {
    lr_mult: 1
    decay_mult: 1
  }
  param {
    lr_mult: 2
    decay_mult: 0
  }
  convolution_param {
    num_output: 96
    kernel_size: 11
    stride: 4
    weight_filler {
      type: "gaussian"
      std: 0.01
    }
    bias_filler {
      type: "constant"
      value: 0
    }
  }
}
layer {
  name: "relu1"
  type: "ReLU"
  bottom: "conv1"
  top: "conv1"
}
layer {
  name: "norm1"
  type: "LRN"
  bottom: "conv1"
  top: "norm1"
  lrn_param {
    local_size: 5
    alpha: 0.0001
    beta: 0.75
  }
}
layer {
  name: "pool1"
  type: "Pooling"
  bottom: "norm1"
  top: "pool1"
  pooling_param {
    pool: MAX
    kernel_size: 3
    stride: 2
  }
}
layer {
  name: "conv2"
  type: "Convolution"
  bottom: "pool1"
  top: "conv2"
  param {
    lr_mult: 1
    decay_mult: 1
  }
  param {
    lr_mult: 2
    decay_mult: 0
  }
  convolution_param {
    num_output: 256
    pad: 2
    kernel_size: 5
    group: 2
    weight_filler {
      type: "gaussian"
      std: 0.01
    }
    bias_filler {
      type: "constant"
      value: 0.1
    }
  }
}
layer {
  name: "relu2"
  type: "ReLU"
  bottom: "conv2"
  top: "conv2"
}
layer {
  name: "norm2"
  type: "LRN"
  bottom: "conv2"
  top: "norm2"
  lrn_param {
    local_size: 5
    alpha: 0.0001
    beta: 0.75
  }
}
layer {
  name: "pool2"
  type: "Pooling"
  bottom: "norm2"
  top: "pool2"
  pooling_param {
    pool: MAX
    kernel_size: 3
    stride: 2
  }
}
layer {
  name: "conv3"
  type: "Convolution"
  bottom: "pool2"
  top: "conv3"
  param {
    lr_mult: 1
    decay_mult: 1
  }
  param {
    lr_mult: 2
    decay_mult: 0
  }
  convolution_param {
    num_output: 384
    pad: 1
    kernel_size: 3
    weight_filler {
      type: "gaussian"
      std: 0.01
    }
    bias_filler {
      type: "constant"
      value: 0
    }
  }
}
layer {
  name: "relu3"
  type: "ReLU"
  bottom: "conv3"
  top: "conv3"
}
layer {
  name: "conv4"
  type: "Convolution"
  bottom: "conv3"
  top: "conv4"
  param {
    lr_mult: 1
    decay_mult: 1
  }
  param {
    lr_mult: 2
    decay_mult: 0
  }
  convolution_param {
    num_output: 384
    pad: 1
    kernel_size: 3
    group: 2
    weight_filler {
      type: "gaussian"
      std: 0.01
    }
    bias_filler {
      type: "constant"
      value: 0.1
    }
  }
}
layer {
  name: "relu4"
  type: "ReLU"
  bottom: "conv4"
  top: "conv4"
}
layer {
  name: "conv5"
  type: "Convolution"
  bottom: "conv4"
  top: "conv5"
  param {
    lr_mult: 1
    decay_mult: 1
  }
  param {
    lr_mult: 2
    decay_mult: 0
  }
  convolution_param {
    num_output: 256
    pad: 1
    kernel_size: 3
    group: 2
    weight_filler {
      type: "gaussian"
      std: 0.01
    }
    bias_filler {
      type: "constant"
      value: 0.1
    }
  }
}
layer {
  name: "relu5"
  type: "ReLU"
  bottom: "conv5"
  top: "conv5"
}
layer {
  name: "pool5"
  type: "Pooling"
  bottom: "conv5"
  top: "pool5"
  pooling_param {
    pool: MAX
    kernel_size: 3
    stride: 2
  }
}
layer {
  name: "fc6"
  type: "InnerProduct"
  bottom: "pool5"
  top: "fc6"
  param {
    lr_mult: 1
    decay_mult: 1
  }
  param {
    lr_mult: 2
    decay_mult: 0
  }
  inner_product_param {
    num_output: 4096
    weight_filler {
      type: "gaussian"
      std: 0.005
    }
    bias_filler {
      type: "constant"
      value: 0.1
    }
  }
}
layer {
  name: "relu6"
  type: "ReLU"
  bottom: "fc6"
  top: "fc6"
}
layer {
  name: "drop6"
  type: "Dropout"
  bottom: "fc6"
  top: "fc6"
  dropout_param {
    dropout_ratio: 0.5
  }
}
layer {
  name: "fc7"
  type: "InnerProduct"
  bottom: "fc6"
  top: "fc7"
  param {
    lr_mult: 1
    decay_mult: 1
  }
  param {
    lr_mult: 2
    decay_mult: 0
  }
  inner_product_param {
    num_output: 4096
    weight_filler {
      type: "gaussian"
      std: 0.005
    }
    bias_filler {
      type: "constant"
      value: 0.1
    }
  }
}
layer {
  name: "relu7"
  type: "ReLU"
  bottom: "fc7"
  top: "fc7"
}
layer {
  name: "drop7"
  type: "Dropout"
  bottom: "fc7"
  top: "fc7"
  dropout_param {
    dropout_ratio: 0.5
  }
}
layer {
  name: "fc8_plantvillage"
  type: "InnerProduct"
  bottom: "fc7"
  top: "fc8_plantvillage"
  param {
    lr_mult: 1
    decay_mult: 1
  }
  param {
    lr_mult: 2
    decay_mult: 0
  }
  inner_product_param {
    num_output: 38
    weight_filler {
      type: "gaussian"
      std: 0.01
    }
    bias_filler {
      type: "constant"
      value: 0
    }
  }
}
layer {
  name: "prob"
  type: "Softmax"
  bottom: "fc8_plantvillage"
  top: "prob"
  include {
    phase: TEST
  }
}
layer {
  name: "hdf5out"
  type: "HDF5Output"
  bottom: "prob"
  bottom: "label"
  include {
    phase: TEST
  }
  hdf5_output_param {
    file_name: "hdf5_dumps/iter_4774.h5"
  }
}
layer {
  name: "loss"
  type: "SoftmaxWithLoss"
  bottom: "fc8_plantvillage"
  bottom: "label"
  top: "loss"
}
layer {
  name: "accuracy"
  type: "Accuracy"
  bottom: "fc8_plantvillage"
  bottom: "label"
  top: "accuracy"
  include {
    phase: TEST
  }
}
I0403 12:41:27.720212 26597 layer_factory.hpp:77] Creating layer data
I0403 12:41:27.720861 26597 net.cpp:91] Creating Layer data
I0403 12:41:27.720896 26597 net.cpp:399] data -> data
I0403 12:41:27.720949 26597 net.cpp:399] data -> label
I0403 12:41:27.720989 26597 data_transformer.cpp:25] Loading mean file from: /home/mohanty/data/final_dataset/lmdb/color-40-60/mean.binaryproto
I0403 12:41:27.724218 26601 db_lmdb.cpp:38] Opened lmdb /home/mohanty/data/final_dataset/lmdb/color-40-60/test_db
I0403 12:41:27.736773 26597 data_layer.cpp:41] output data size: 100,3,227,227
I0403 12:41:27.859761 26597 net.cpp:141] Setting up data
I0403 12:41:27.859855 26597 net.cpp:148] Top shape: 100 3 227 227 (15458700)
I0403 12:41:27.859881 26597 net.cpp:148] Top shape: 100 (100)
I0403 12:41:27.859899 26597 net.cpp:156] Memory required for data: 61835200
I0403 12:41:27.859928 26597 layer_factory.hpp:77] Creating layer label_data_1_split
I0403 12:41:27.859956 26597 net.cpp:91] Creating Layer label_data_1_split
I0403 12:41:27.859975 26597 net.cpp:425] label_data_1_split <- label
I0403 12:41:27.860010 26597 net.cpp:399] label_data_1_split -> label_data_1_split_0
I0403 12:41:27.860038 26597 net.cpp:399] label_data_1_split -> label_data_1_split_1
I0403 12:41:27.860060 26597 net.cpp:399] label_data_1_split -> label_data_1_split_2
I0403 12:41:27.860126 26597 net.cpp:141] Setting up label_data_1_split
I0403 12:41:27.860152 26597 net.cpp:148] Top shape: 100 (100)
I0403 12:41:27.860170 26597 net.cpp:148] Top shape: 100 (100)
I0403 12:41:27.860188 26597 net.cpp:148] Top shape: 100 (100)
I0403 12:41:27.860203 26597 net.cpp:156] Memory required for data: 61836400
I0403 12:41:27.860220 26597 layer_factory.hpp:77] Creating layer conv1
I0403 12:41:27.860255 26597 net.cpp:91] Creating Layer conv1
I0403 12:41:27.860275 26597 net.cpp:425] conv1 <- data
I0403 12:41:27.860299 26597 net.cpp:399] conv1 -> conv1
I0403 12:41:28.007618 26597 net.cpp:141] Setting up conv1
I0403 12:41:28.007691 26597 net.cpp:148] Top shape: 100 96 55 55 (29040000)
I0403 12:41:28.007710 26597 net.cpp:156] Memory required for data: 177996400
I0403 12:41:28.007742 26597 layer_factory.hpp:77] Creating layer relu1
I0403 12:41:28.007771 26597 net.cpp:91] Creating Layer relu1
I0403 12:41:28.007789 26597 net.cpp:425] relu1 <- conv1
I0403 12:41:28.007808 26597 net.cpp:386] relu1 -> conv1 (in-place)
I0403 12:41:28.008234 26597 net.cpp:141] Setting up relu1
I0403 12:41:28.008263 26597 net.cpp:148] Top shape: 100 96 55 55 (29040000)
I0403 12:41:28.008280 26597 net.cpp:156] Memory required for data: 294156400
I0403 12:41:28.008334 26597 layer_factory.hpp:77] Creating layer norm1
I0403 12:41:28.008369 26597 net.cpp:91] Creating Layer norm1
I0403 12:41:28.008389 26597 net.cpp:425] norm1 <- conv1
I0403 12:41:28.008409 26597 net.cpp:399] norm1 -> norm1
I0403 12:41:28.008720 26597 net.cpp:141] Setting up norm1
I0403 12:41:28.008749 26597 net.cpp:148] Top shape: 100 96 55 55 (29040000)
I0403 12:41:28.008767 26597 net.cpp:156] Memory required for data: 410316400
I0403 12:41:28.008785 26597 layer_factory.hpp:77] Creating layer pool1
I0403 12:41:28.008821 26597 net.cpp:91] Creating Layer pool1
I0403 12:41:28.008839 26597 net.cpp:425] pool1 <- norm1
I0403 12:41:28.008858 26597 net.cpp:399] pool1 -> pool1
I0403 12:41:28.008929 26597 net.cpp:141] Setting up pool1
I0403 12:41:28.008955 26597 net.cpp:148] Top shape: 100 96 27 27 (6998400)
I0403 12:41:28.008971 26597 net.cpp:156] Memory required for data: 438310000
I0403 12:41:28.008988 26597 layer_factory.hpp:77] Creating layer conv2
I0403 12:41:28.009013 26597 net.cpp:91] Creating Layer conv2
I0403 12:41:28.009030 26597 net.cpp:425] conv2 <- pool1
I0403 12:41:28.009050 26597 net.cpp:399] conv2 -> conv2
I0403 12:41:28.024592 26597 net.cpp:141] Setting up conv2
I0403 12:41:28.024642 26597 net.cpp:148] Top shape: 100 256 27 27 (18662400)
I0403 12:41:28.024660 26597 net.cpp:156] Memory required for data: 512959600
I0403 12:41:28.024730 26597 layer_factory.hpp:77] Creating layer relu2
I0403 12:41:28.024757 26597 net.cpp:91] Creating Layer relu2
I0403 12:41:28.024775 26597 net.cpp:425] relu2 <- conv2
I0403 12:41:28.024794 26597 net.cpp:386] relu2 -> conv2 (in-place)
I0403 12:41:28.025064 26597 net.cpp:141] Setting up relu2
I0403 12:41:28.025091 26597 net.cpp:148] Top shape: 100 256 27 27 (18662400)
I0403 12:41:28.025109 26597 net.cpp:156] Memory required for data: 587609200
I0403 12:41:28.025125 26597 layer_factory.hpp:77] Creating layer norm2
I0403 12:41:28.025159 26597 net.cpp:91] Creating Layer norm2
I0403 12:41:28.025178 26597 net.cpp:425] norm2 <- conv2
I0403 12:41:28.025199 26597 net.cpp:399] norm2 -> norm2
I0403 12:41:28.025394 26597 net.cpp:141] Setting up norm2
I0403 12:41:28.025423 26597 net.cpp:148] Top shape: 100 256 27 27 (18662400)
I0403 12:41:28.025437 26597 net.cpp:156] Memory required for data: 662258800
I0403 12:41:28.025454 26597 layer_factory.hpp:77] Creating layer pool2
I0403 12:41:28.025486 26597 net.cpp:91] Creating Layer pool2
I0403 12:41:28.025502 26597 net.cpp:425] pool2 <- norm2
I0403 12:41:28.025522 26597 net.cpp:399] pool2 -> pool2
I0403 12:41:28.025574 26597 net.cpp:141] Setting up pool2
I0403 12:41:28.025599 26597 net.cpp:148] Top shape: 100 256 13 13 (4326400)
I0403 12:41:28.025615 26597 net.cpp:156] Memory required for data: 679564400
I0403 12:41:28.025630 26597 layer_factory.hpp:77] Creating layer conv3
I0403 12:41:28.025653 26597 net.cpp:91] Creating Layer conv3
I0403 12:41:28.025672 26597 net.cpp:425] conv3 <- pool2
I0403 12:41:28.025692 26597 net.cpp:399] conv3 -> conv3
I0403 12:41:28.069921 26597 net.cpp:141] Setting up conv3
I0403 12:41:28.069993 26597 net.cpp:148] Top shape: 100 384 13 13 (6489600)
I0403 12:41:28.070009 26597 net.cpp:156] Memory required for data: 705522800
I0403 12:41:28.070035 26597 layer_factory.hpp:77] Creating layer relu3
I0403 12:41:28.070057 26597 net.cpp:91] Creating Layer relu3
I0403 12:41:28.070075 26597 net.cpp:425] relu3 <- conv3
I0403 12:41:28.070094 26597 net.cpp:386] relu3 -> conv3 (in-place)
I0403 12:41:28.070372 26597 net.cpp:141] Setting up relu3
I0403 12:41:28.070399 26597 net.cpp:148] Top shape: 100 384 13 13 (6489600)
I0403 12:41:28.070416 26597 net.cpp:156] Memory required for data: 731481200
I0403 12:41:28.070431 26597 layer_factory.hpp:77] Creating layer conv4
I0403 12:41:28.070459 26597 net.cpp:91] Creating Layer conv4
I0403 12:41:28.070477 26597 net.cpp:425] conv4 <- conv3
I0403 12:41:28.070499 26597 net.cpp:399] conv4 -> conv4
I0403 12:41:28.100854 26597 net.cpp:141] Setting up conv4
I0403 12:41:28.100920 26597 net.cpp:148] Top shape: 100 384 13 13 (6489600)
I0403 12:41:28.100970 26597 net.cpp:156] Memory required for data: 757439600
I0403 12:41:28.100993 26597 layer_factory.hpp:77] Creating layer relu4
I0403 12:41:28.101016 26597 net.cpp:91] Creating Layer relu4
I0403 12:41:28.101033 26597 net.cpp:425] relu4 <- conv4
I0403 12:41:28.101058 26597 net.cpp:386] relu4 -> conv4 (in-place)
I0403 12:41:28.101338 26597 net.cpp:141] Setting up relu4
I0403 12:41:28.101373 26597 net.cpp:148] Top shape: 100 384 13 13 (6489600)
I0403 12:41:28.101392 26597 net.cpp:156] Memory required for data: 783398000
I0403 12:41:28.101408 26597 layer_factory.hpp:77] Creating layer conv5
I0403 12:41:28.101433 26597 net.cpp:91] Creating Layer conv5
I0403 12:41:28.101452 26597 net.cpp:425] conv5 <- conv4
I0403 12:41:28.101475 26597 net.cpp:399] conv5 -> conv5
I0403 12:41:28.123081 26597 net.cpp:141] Setting up conv5
I0403 12:41:28.123142 26597 net.cpp:148] Top shape: 100 256 13 13 (4326400)
I0403 12:41:28.123162 26597 net.cpp:156] Memory required for data: 800703600
I0403 12:41:28.123189 26597 layer_factory.hpp:77] Creating layer relu5
I0403 12:41:28.123211 26597 net.cpp:91] Creating Layer relu5
I0403 12:41:28.123229 26597 net.cpp:425] relu5 <- conv5
I0403 12:41:28.123251 26597 net.cpp:386] relu5 -> conv5 (in-place)
I0403 12:41:28.123545 26597 net.cpp:141] Setting up relu5
I0403 12:41:28.123574 26597 net.cpp:148] Top shape: 100 256 13 13 (4326400)
I0403 12:41:28.123591 26597 net.cpp:156] Memory required for data: 818009200
I0403 12:41:28.123608 26597 layer_factory.hpp:77] Creating layer pool5
I0403 12:41:28.123636 26597 net.cpp:91] Creating Layer pool5
I0403 12:41:28.123654 26597 net.cpp:425] pool5 <- conv5
I0403 12:41:28.123674 26597 net.cpp:399] pool5 -> pool5
I0403 12:41:28.123749 26597 net.cpp:141] Setting up pool5
I0403 12:41:28.123775 26597 net.cpp:148] Top shape: 100 256 6 6 (921600)
I0403 12:41:28.123826 26597 net.cpp:156] Memory required for data: 821695600
I0403 12:41:28.123848 26597 layer_factory.hpp:77] Creating layer fc6
I0403 12:41:28.123877 26597 net.cpp:91] Creating Layer fc6
I0403 12:41:28.123896 26597 net.cpp:425] fc6 <- pool5
I0403 12:41:28.123919 26597 net.cpp:399] fc6 -> fc6
I0403 12:41:29.711000 26597 net.cpp:141] Setting up fc6
I0403 12:41:29.711045 26597 net.cpp:148] Top shape: 100 4096 (409600)
I0403 12:41:29.711062 26597 net.cpp:156] Memory required for data: 823334000
I0403 12:41:29.711084 26597 layer_factory.hpp:77] Creating layer relu6
I0403 12:41:29.711107 26597 net.cpp:91] Creating Layer relu6
I0403 12:41:29.711136 26597 net.cpp:425] relu6 <- fc6
I0403 12:41:29.711158 26597 net.cpp:386] relu6 -> fc6 (in-place)
I0403 12:41:29.711385 26597 net.cpp:141] Setting up relu6
I0403 12:41:29.711412 26597 net.cpp:148] Top shape: 100 4096 (409600)
I0403 12:41:29.711427 26597 net.cpp:156] Memory required for data: 824972400
I0403 12:41:29.711453 26597 layer_factory.hpp:77] Creating layer drop6
I0403 12:41:29.711472 26597 net.cpp:91] Creating Layer drop6
I0403 12:41:29.711486 26597 net.cpp:425] drop6 <- fc6
I0403 12:41:29.711506 26597 net.cpp:386] drop6 -> fc6 (in-place)
I0403 12:41:29.711555 26597 net.cpp:141] Setting up drop6
I0403 12:41:29.711581 26597 net.cpp:148] Top shape: 100 4096 (409600)
I0403 12:41:29.711597 26597 net.cpp:156] Memory required for data: 826610800
I0403 12:41:29.711612 26597 layer_factory.hpp:77] Creating layer fc7
I0403 12:41:29.711632 26597 net.cpp:91] Creating Layer fc7
I0403 12:41:29.711647 26597 net.cpp:425] fc7 <- fc6
I0403 12:41:29.711668 26597 net.cpp:399] fc7 -> fc7
I0403 12:41:30.400053 26597 net.cpp:141] Setting up fc7
I0403 12:41:30.400130 26597 net.cpp:148] Top shape: 100 4096 (409600)
I0403 12:41:30.400146 26597 net.cpp:156] Memory required for data: 828249200
I0403 12:41:30.400169 26597 layer_factory.hpp:77] Creating layer relu7
I0403 12:41:30.400192 26597 net.cpp:91] Creating Layer relu7
I0403 12:41:30.400209 26597 net.cpp:425] relu7 <- fc7
I0403 12:41:30.400231 26597 net.cpp:386] relu7 -> fc7 (in-place)
I0403 12:41:30.400648 26597 net.cpp:141] Setting up relu7
I0403 12:41:30.400676 26597 net.cpp:148] Top shape: 100 4096 (409600)
I0403 12:41:30.400727 26597 net.cpp:156] Memory required for data: 829887600
I0403 12:41:30.400744 26597 layer_factory.hpp:77] Creating layer drop7
I0403 12:41:30.400764 26597 net.cpp:91] Creating Layer drop7
I0403 12:41:30.400779 26597 net.cpp:425] drop7 <- fc7
I0403 12:41:30.400799 26597 net.cpp:386] drop7 -> fc7 (in-place)
I0403 12:41:30.400842 26597 net.cpp:141] Setting up drop7
I0403 12:41:30.400868 26597 net.cpp:148] Top shape: 100 4096 (409600)
I0403 12:41:30.400885 26597 net.cpp:156] Memory required for data: 831526000
I0403 12:41:30.400902 26597 layer_factory.hpp:77] Creating layer fc8_plantvillage
I0403 12:41:30.400921 26597 net.cpp:91] Creating Layer fc8_plantvillage
I0403 12:41:30.400936 26597 net.cpp:425] fc8_plantvillage <- fc7
I0403 12:41:30.400956 26597 net.cpp:399] fc8_plantvillage -> fc8_plantvillage
I0403 12:41:30.407685 26597 net.cpp:141] Setting up fc8_plantvillage
I0403 12:41:30.407714 26597 net.cpp:148] Top shape: 100 38 (3800)
I0403 12:41:30.407730 26597 net.cpp:156] Memory required for data: 831541200
I0403 12:41:30.407748 26597 layer_factory.hpp:77] Creating layer fc8_plantvillage_fc8_plantvillage_0_split
I0403 12:41:30.407768 26597 net.cpp:91] Creating Layer fc8_plantvillage_fc8_plantvillage_0_split
I0403 12:41:30.407784 26597 net.cpp:425] fc8_plantvillage_fc8_plantvillage_0_split <- fc8_plantvillage
I0403 12:41:30.407804 26597 net.cpp:399] fc8_plantvillage_fc8_plantvillage_0_split -> fc8_plantvillage_fc8_plantvillage_0_split_0
I0403 12:41:30.407826 26597 net.cpp:399] fc8_plantvillage_fc8_plantvillage_0_split -> fc8_plantvillage_fc8_plantvillage_0_split_1
I0403 12:41:30.407847 26597 net.cpp:399] fc8_plantvillage_fc8_plantvillage_0_split -> fc8_plantvillage_fc8_plantvillage_0_split_2
I0403 12:41:30.407924 26597 net.cpp:141] Setting up fc8_plantvillage_fc8_plantvillage_0_split
I0403 12:41:30.407950 26597 net.cpp:148] Top shape: 100 38 (3800)
I0403 12:41:30.407968 26597 net.cpp:148] Top shape: 100 38 (3800)
I0403 12:41:30.407985 26597 net.cpp:148] Top shape: 100 38 (3800)
I0403 12:41:30.407999 26597 net.cpp:156] Memory required for data: 831586800
I0403 12:41:30.408015 26597 layer_factory.hpp:77] Creating layer prob
I0403 12:41:30.408035 26597 net.cpp:91] Creating Layer prob
I0403 12:41:30.408049 26597 net.cpp:425] prob <- fc8_plantvillage_fc8_plantvillage_0_split_0
I0403 12:41:30.408067 26597 net.cpp:399] prob -> prob
I0403 12:41:30.408293 26597 net.cpp:141] Setting up prob
I0403 12:41:30.408319 26597 net.cpp:148] Top shape: 100 38 (3800)
I0403 12:41:30.408335 26597 net.cpp:156] Memory required for data: 831602000
I0403 12:41:30.408357 26597 layer_factory.hpp:77] Creating layer hdf5out
I0403 12:41:30.408377 26597 net.cpp:91] Creating Layer hdf5out
I0403 12:41:30.408392 26597 net.cpp:425] hdf5out <- prob
I0403 12:41:30.408409 26597 net.cpp:425] hdf5out <- label_data_1_split_0
I0403 12:41:30.412663 26597 net.cpp:141] Setting up hdf5out
…
