…
I0403 12:42:33.618043 26621 net.cpp:313] The NetState phase (1) differed from the phase (0) specified by a rule in layer data
I0403 12:42:33.618342 26621 net.cpp:49] Initializing net from parameters: 
state {
  phase: TEST
}
layer {
  name: "data"
  type: "Data"
  top: "data"
  top: "label"
  include {
    phase: TEST
  }
  transform_param {
    crop_size: 227
    mean_file: "/home/mohanty/data/final_dataset/lmdb/color-40-60/mean.binaryproto"
  }
  data_param {
    source: "/home/mohanty/data/final_dataset/lmdb/color-40-60/test_db"
    batch_size: 100
    backend: LMDB
  }
}
layer {
  name: "conv1"
  type: "Convolution"
  bottom: "data"
  top: "conv1"
  param {
    lr_mult: 1
    decay_mult: 1
  }
  param {
    lr_mult: 2
    decay_mult: 0
  }
  convolution_param {
    num_output: 96
    kernel_size: 11
    stride: 4
    weight_filler {
      type: "gaussian"
      std: 0.01
    }
    bias_filler {
      type: "constant"
      value: 0
    }
  }
}
layer {
  name: "relu1"
  type: "ReLU"
  bottom: "conv1"
  top: "conv1"
}
layer {
  name: "norm1"
  type: "LRN"
  bottom: "conv1"
  top: "norm1"
  lrn_param {
    local_size: 5
    alpha: 0.0001
    beta: 0.75
  }
}
layer {
  name: "pool1"
  type: "Pooling"
  bottom: "norm1"
  top: "pool1"
  pooling_param {
    pool: MAX
    kernel_size: 3
    stride: 2
  }
}
layer {
  name: "conv2"
  type: "Convolution"
  bottom: "pool1"
  top: "conv2"
  param {
    lr_mult: 1
    decay_mult: 1
  }
  param {
    lr_mult: 2
    decay_mult: 0
  }
  convolution_param {
    num_output: 256
    pad: 2
    kernel_size: 5
    group: 2
    weight_filler {
      type: "gaussian"
      std: 0.01
    }
    bias_filler {
      type: "constant"
      value: 0.1
    }
  }
}
layer {
  name: "relu2"
  type: "ReLU"
  bottom: "conv2"
  top: "conv2"
}
layer {
  name: "norm2"
  type: "LRN"
  bottom: "conv2"
  top: "norm2"
  lrn_param {
    local_size: 5
    alpha: 0.0001
    beta: 0.75
  }
}
layer {
  name: "pool2"
  type: "Pooling"
  bottom: "norm2"
  top: "pool2"
  pooling_param {
    pool: MAX
    kernel_size: 3
    stride: 2
  }
}
layer {
  name: "conv3"
  type: "Convolution"
  bottom: "pool2"
  top: "conv3"
  param {
    lr_mult: 1
    decay_mult: 1
  }
  param {
    lr_mult: 2
    decay_mult: 0
  }
  convolution_param {
    num_output: 384
    pad: 1
    kernel_size: 3
    weight_filler {
      type: "gaussian"
      std: 0.01
    }
    bias_filler {
      type: "constant"
      value: 0
    }
  }
}
layer {
  name: "relu3"
  type: "ReLU"
  bottom: "conv3"
  top: "conv3"
}
layer {
  name: "conv4"
  type: "Convolution"
  bottom: "conv3"
  top: "conv4"
  param {
    lr_mult: 1
    decay_mult: 1
  }
  param {
    lr_mult: 2
    decay_mult: 0
  }
  convolution_param {
    num_output: 384
    pad: 1
    kernel_size: 3
    group: 2
    weight_filler {
      type: "gaussian"
      std: 0.01
    }
    bias_filler {
      type: "constant"
      value: 0.1
    }
  }
}
layer {
  name: "relu4"
  type: "ReLU"
  bottom: "conv4"
  top: "conv4"
}
layer {
  name: "conv5"
  type: "Convolution"
  bottom: "conv4"
  top: "conv5"
  param {
    lr_mult: 1
    decay_mult: 1
  }
  param {
    lr_mult: 2
    decay_mult: 0
  }
  convolution_param {
    num_output: 256
    pad: 1
    kernel_size: 3
    group: 2
    weight_filler {
      type: "gaussian"
      std: 0.01
    }
    bias_filler {
      type: "constant"
      value: 0.1
    }
  }
}
layer {
  name: "relu5"
  type: "ReLU"
  bottom: "conv5"
  top: "conv5"
}
layer {
  name: "pool5"
  type: "Pooling"
  bottom: "conv5"
  top: "pool5"
  pooling_param {
    pool: MAX
    kernel_size: 3
    stride: 2
  }
}
layer {
  name: "fc6"
  type: "InnerProduct"
  bottom: "pool5"
  top: "fc6"
  param {
    lr_mult: 1
    decay_mult: 1
  }
  param {
    lr_mult: 2
    decay_mult: 0
  }
  inner_product_param {
    num_output: 4096
    weight_filler {
      type: "gaussian"
      std: 0.005
    }
    bias_filler {
      type: "constant"
      value: 0.1
    }
  }
}
layer {
  name: "relu6"
  type: "ReLU"
  bottom: "fc6"
  top: "fc6"
}
layer {
  name: "drop6"
  type: "Dropout"
  bottom: "fc6"
  top: "fc6"
  dropout_param {
    dropout_ratio: 0.5
  }
}
layer {
  name: "fc7"
  type: "InnerProduct"
  bottom: "fc6"
  top: "fc7"
  param {
    lr_mult: 1
    decay_mult: 1
  }
  param {
    lr_mult: 2
    decay_mult: 0
  }
  inner_product_param {
    num_output: 4096
    weight_filler {
      type: "gaussian"
      std: 0.005
    }
    bias_filler {
      type: "constant"
      value: 0.1
    }
  }
}
layer {
  name: "relu7"
  type: "ReLU"
  bottom: "fc7"
  top: "fc7"
}
layer {
  name: "drop7"
  type: "Dropout"
  bottom: "fc7"
  top: "fc7"
  dropout_param {
    dropout_ratio: 0.5
  }
}
layer {
  name: "fc8_plantvillage"
  type: "InnerProduct"
  bottom: "fc7"
  top: "fc8_plantvillage"
  param {
    lr_mult: 1
    decay_mult: 1
  }
  param {
    lr_mult: 2
    decay_mult: 0
  }
  inner_product_param {
    num_output: 38
    weight_filler {
      type: "gaussian"
      std: 0.01
    }
    bias_filler {
      type: "constant"
      value: 0
    }
  }
}
layer {
  name: "prob"
  type: "Softmax"
  bottom: "fc8_plantvillage"
  top: "prob"
  include {
    phase: TEST
  }
}
layer {
  name: "hdf5out"
  type: "HDF5Output"
  bottom: "prob"
  bottom: "label"
  include {
    phase: TEST
  }
  hdf5_output_param {
    file_name: "hdf5_dumps/iter_4991.h5"
  }
}
layer {
  name: "loss"
  type: "SoftmaxWithLoss"
  bottom: "fc8_plantvillage"
  bottom: "label"
  top: "loss"
}
layer {
  name: "accuracy"
  type: "Accuracy"
  bottom: "fc8_plantvillage"
  bottom: "label"
  top: "accuracy"
  include {
    phase: TEST
  }
}
I0403 12:42:33.618938 26621 layer_factory.hpp:77] Creating layer data
I0403 12:42:33.619567 26621 net.cpp:91] Creating Layer data
I0403 12:42:33.619598 26621 net.cpp:399] data -> data
I0403 12:42:33.619652 26621 net.cpp:399] data -> label
I0403 12:42:33.619688 26621 data_transformer.cpp:25] Loading mean file from: /home/mohanty/data/final_dataset/lmdb/color-40-60/mean.binaryproto
I0403 12:42:33.622453 26626 db_lmdb.cpp:38] Opened lmdb /home/mohanty/data/final_dataset/lmdb/color-40-60/test_db
I0403 12:42:33.633986 26621 data_layer.cpp:41] output data size: 100,3,227,227
I0403 12:42:33.759402 26621 net.cpp:141] Setting up data
I0403 12:42:33.759498 26621 net.cpp:148] Top shape: 100 3 227 227 (15458700)
I0403 12:42:33.759523 26621 net.cpp:148] Top shape: 100 (100)
I0403 12:42:33.759539 26621 net.cpp:156] Memory required for data: 61835200
I0403 12:42:33.759570 26621 layer_factory.hpp:77] Creating layer label_data_1_split
I0403 12:42:33.759598 26621 net.cpp:91] Creating Layer label_data_1_split
I0403 12:42:33.759618 26621 net.cpp:425] label_data_1_split <- label
I0403 12:42:33.759650 26621 net.cpp:399] label_data_1_split -> label_data_1_split_0
I0403 12:42:33.759680 26621 net.cpp:399] label_data_1_split -> label_data_1_split_1
I0403 12:42:33.759702 26621 net.cpp:399] label_data_1_split -> label_data_1_split_2
I0403 12:42:33.759768 26621 net.cpp:141] Setting up label_data_1_split
I0403 12:42:33.759793 26621 net.cpp:148] Top shape: 100 (100)
I0403 12:42:33.759811 26621 net.cpp:148] Top shape: 100 (100)
I0403 12:42:33.759829 26621 net.cpp:148] Top shape: 100 (100)
I0403 12:42:33.759845 26621 net.cpp:156] Memory required for data: 61836400
I0403 12:42:33.759860 26621 layer_factory.hpp:77] Creating layer conv1
I0403 12:42:33.759893 26621 net.cpp:91] Creating Layer conv1
I0403 12:42:33.759913 26621 net.cpp:425] conv1 <- data
I0403 12:42:33.759934 26621 net.cpp:399] conv1 -> conv1
I0403 12:42:33.905699 26621 net.cpp:141] Setting up conv1
I0403 12:42:33.905760 26621 net.cpp:148] Top shape: 100 96 55 55 (29040000)
I0403 12:42:33.905777 26621 net.cpp:156] Memory required for data: 177996400
I0403 12:42:33.905812 26621 layer_factory.hpp:77] Creating layer relu1
I0403 12:42:33.905843 26621 net.cpp:91] Creating Layer relu1
I0403 12:42:33.905863 26621 net.cpp:425] relu1 <- conv1
I0403 12:42:33.905884 26621 net.cpp:386] relu1 -> conv1 (in-place)
I0403 12:42:33.906147 26621 net.cpp:141] Setting up relu1
I0403 12:42:33.906175 26621 net.cpp:148] Top shape: 100 96 55 55 (29040000)
I0403 12:42:33.906193 26621 net.cpp:156] Memory required for data: 294156400
I0403 12:42:33.906239 26621 layer_factory.hpp:77] Creating layer norm1
I0403 12:42:33.906270 26621 net.cpp:91] Creating Layer norm1
I0403 12:42:33.906291 26621 net.cpp:425] norm1 <- conv1
I0403 12:42:33.906311 26621 net.cpp:399] norm1 -> norm1
I0403 12:42:33.906746 26621 net.cpp:141] Setting up norm1
I0403 12:42:33.906776 26621 net.cpp:148] Top shape: 100 96 55 55 (29040000)
I0403 12:42:33.906793 26621 net.cpp:156] Memory required for data: 410316400
I0403 12:42:33.906810 26621 layer_factory.hpp:77] Creating layer pool1
I0403 12:42:33.906836 26621 net.cpp:91] Creating Layer pool1
I0403 12:42:33.906854 26621 net.cpp:425] pool1 <- norm1
I0403 12:42:33.906873 26621 net.cpp:399] pool1 -> pool1
I0403 12:42:33.906941 26621 net.cpp:141] Setting up pool1
I0403 12:42:33.906968 26621 net.cpp:148] Top shape: 100 96 27 27 (6998400)
I0403 12:42:33.906985 26621 net.cpp:156] Memory required for data: 438310000
I0403 12:42:33.907002 26621 layer_factory.hpp:77] Creating layer conv2
I0403 12:42:33.907027 26621 net.cpp:91] Creating Layer conv2
I0403 12:42:33.907045 26621 net.cpp:425] conv2 <- pool1
I0403 12:42:33.907064 26621 net.cpp:399] conv2 -> conv2
I0403 12:42:33.922735 26621 net.cpp:141] Setting up conv2
I0403 12:42:33.922787 26621 net.cpp:148] Top shape: 100 256 27 27 (18662400)
I0403 12:42:33.922806 26621 net.cpp:156] Memory required for data: 512959600
I0403 12:42:33.922830 26621 layer_factory.hpp:77] Creating layer relu2
I0403 12:42:33.922853 26621 net.cpp:91] Creating Layer relu2
I0403 12:42:33.922873 26621 net.cpp:425] relu2 <- conv2
I0403 12:42:33.922894 26621 net.cpp:386] relu2 -> conv2 (in-place)
I0403 12:42:33.923182 26621 net.cpp:141] Setting up relu2
I0403 12:42:33.923212 26621 net.cpp:148] Top shape: 100 256 27 27 (18662400)
I0403 12:42:33.923228 26621 net.cpp:156] Memory required for data: 587609200
I0403 12:42:33.923243 26621 layer_factory.hpp:77] Creating layer norm2
I0403 12:42:33.923316 26621 net.cpp:91] Creating Layer norm2
I0403 12:42:33.923339 26621 net.cpp:425] norm2 <- conv2
I0403 12:42:33.923370 26621 net.cpp:399] norm2 -> norm2
I0403 12:42:33.923583 26621 net.cpp:141] Setting up norm2
I0403 12:42:33.923614 26621 net.cpp:148] Top shape: 100 256 27 27 (18662400)
I0403 12:42:33.923630 26621 net.cpp:156] Memory required for data: 662258800
I0403 12:42:33.923646 26621 layer_factory.hpp:77] Creating layer pool2
I0403 12:42:33.923667 26621 net.cpp:91] Creating Layer pool2
I0403 12:42:33.923684 26621 net.cpp:425] pool2 <- norm2
I0403 12:42:33.923705 26621 net.cpp:399] pool2 -> pool2
I0403 12:42:33.923760 26621 net.cpp:141] Setting up pool2
I0403 12:42:33.923789 26621 net.cpp:148] Top shape: 100 256 13 13 (4326400)
I0403 12:42:33.923805 26621 net.cpp:156] Memory required for data: 679564400
I0403 12:42:33.923822 26621 layer_factory.hpp:77] Creating layer conv3
I0403 12:42:33.923851 26621 net.cpp:91] Creating Layer conv3
I0403 12:42:33.923869 26621 net.cpp:425] conv3 <- pool2
I0403 12:42:33.923889 26621 net.cpp:399] conv3 -> conv3
I0403 12:42:33.968478 26621 net.cpp:141] Setting up conv3
I0403 12:42:33.968556 26621 net.cpp:148] Top shape: 100 384 13 13 (6489600)
I0403 12:42:33.968576 26621 net.cpp:156] Memory required for data: 705522800
I0403 12:42:33.968605 26621 layer_factory.hpp:77] Creating layer relu3
I0403 12:42:33.968628 26621 net.cpp:91] Creating Layer relu3
I0403 12:42:33.968647 26621 net.cpp:425] relu3 <- conv3
I0403 12:42:33.968670 26621 net.cpp:386] relu3 -> conv3 (in-place)
I0403 12:42:33.968952 26621 net.cpp:141] Setting up relu3
I0403 12:42:33.968983 26621 net.cpp:148] Top shape: 100 384 13 13 (6489600)
I0403 12:42:33.969002 26621 net.cpp:156] Memory required for data: 731481200
I0403 12:42:33.969017 26621 layer_factory.hpp:77] Creating layer conv4
I0403 12:42:33.969046 26621 net.cpp:91] Creating Layer conv4
I0403 12:42:33.969065 26621 net.cpp:425] conv4 <- conv3
I0403 12:42:33.969089 26621 net.cpp:399] conv4 -> conv4
I0403 12:42:33.999297 26621 net.cpp:141] Setting up conv4
I0403 12:42:33.999349 26621 net.cpp:148] Top shape: 100 384 13 13 (6489600)
I0403 12:42:33.999400 26621 net.cpp:156] Memory required for data: 757439600
I0403 12:42:33.999421 26621 layer_factory.hpp:77] Creating layer relu4
I0403 12:42:33.999447 26621 net.cpp:91] Creating Layer relu4
I0403 12:42:33.999466 26621 net.cpp:425] relu4 <- conv4
I0403 12:42:33.999487 26621 net.cpp:386] relu4 -> conv4 (in-place)
I0403 12:42:33.999759 26621 net.cpp:141] Setting up relu4
I0403 12:42:33.999788 26621 net.cpp:148] Top shape: 100 384 13 13 (6489600)
I0403 12:42:33.999804 26621 net.cpp:156] Memory required for data: 783398000
I0403 12:42:33.999819 26621 layer_factory.hpp:77] Creating layer conv5
I0403 12:42:33.999845 26621 net.cpp:91] Creating Layer conv5
I0403 12:42:33.999862 26621 net.cpp:425] conv5 <- conv4
I0403 12:42:33.999882 26621 net.cpp:399] conv5 -> conv5
I0403 12:42:34.020333 26621 net.cpp:141] Setting up conv5
I0403 12:42:34.020395 26621 net.cpp:148] Top shape: 100 256 13 13 (4326400)
I0403 12:42:34.020412 26621 net.cpp:156] Memory required for data: 800703600
I0403 12:42:34.020438 26621 layer_factory.hpp:77] Creating layer relu5
I0403 12:42:34.020460 26621 net.cpp:91] Creating Layer relu5
I0403 12:42:34.020479 26621 net.cpp:425] relu5 <- conv5
I0403 12:42:34.020501 26621 net.cpp:386] relu5 -> conv5 (in-place)
I0403 12:42:34.020787 26621 net.cpp:141] Setting up relu5
I0403 12:42:34.020815 26621 net.cpp:148] Top shape: 100 256 13 13 (4326400)
I0403 12:42:34.020831 26621 net.cpp:156] Memory required for data: 818009200
I0403 12:42:34.020848 26621 layer_factory.hpp:77] Creating layer pool5
I0403 12:42:34.020869 26621 net.cpp:91] Creating Layer pool5
I0403 12:42:34.020886 26621 net.cpp:425] pool5 <- conv5
I0403 12:42:34.020910 26621 net.cpp:399] pool5 -> pool5
I0403 12:42:34.020974 26621 net.cpp:141] Setting up pool5
I0403 12:42:34.020999 26621 net.cpp:148] Top shape: 100 256 6 6 (921600)
I0403 12:42:34.021014 26621 net.cpp:156] Memory required for data: 821695600
I0403 12:42:34.021030 26621 layer_factory.hpp:77] Creating layer fc6
I0403 12:42:34.021059 26621 net.cpp:91] Creating Layer fc6
I0403 12:42:34.021078 26621 net.cpp:425] fc6 <- pool5
I0403 12:42:34.021100 26621 net.cpp:399] fc6 -> fc6
I0403 12:42:35.604249 26621 net.cpp:141] Setting up fc6
I0403 12:42:35.604324 26621 net.cpp:148] Top shape: 100 4096 (409600)
I0403 12:42:35.604341 26621 net.cpp:156] Memory required for data: 823334000
I0403 12:42:35.604368 26621 layer_factory.hpp:77] Creating layer relu6
I0403 12:42:35.604394 26621 net.cpp:91] Creating Layer relu6
I0403 12:42:35.604413 26621 net.cpp:425] relu6 <- fc6
I0403 12:42:35.604434 26621 net.cpp:386] relu6 -> fc6 (in-place)
I0403 12:42:35.604656 26621 net.cpp:141] Setting up relu6
I0403 12:42:35.604681 26621 net.cpp:148] Top shape: 100 4096 (409600)
I0403 12:42:35.604696 26621 net.cpp:156] Memory required for data: 824972400
I0403 12:42:35.604712 26621 layer_factory.hpp:77] Creating layer drop6
I0403 12:42:35.604730 26621 net.cpp:91] Creating Layer drop6
I0403 12:42:35.604746 26621 net.cpp:425] drop6 <- fc6
I0403 12:42:35.604765 26621 net.cpp:386] drop6 -> fc6 (in-place)
I0403 12:42:35.604817 26621 net.cpp:141] Setting up drop6
I0403 12:42:35.604840 26621 net.cpp:148] Top shape: 100 4096 (409600)
I0403 12:42:35.604856 26621 net.cpp:156] Memory required for data: 826610800
I0403 12:42:35.604871 26621 layer_factory.hpp:77] Creating layer fc7
I0403 12:42:35.604894 26621 net.cpp:91] Creating Layer fc7
I0403 12:42:35.604912 26621 net.cpp:425] fc7 <- fc6
I0403 12:42:35.604931 26621 net.cpp:399] fc7 -> fc7
I0403 12:42:36.296841 26621 net.cpp:141] Setting up fc7
I0403 12:42:36.296926 26621 net.cpp:148] Top shape: 100 4096 (409600)
I0403 12:42:36.296942 26621 net.cpp:156] Memory required for data: 828249200
I0403 12:42:36.296964 26621 layer_factory.hpp:77] Creating layer relu7
I0403 12:42:36.296986 26621 net.cpp:91] Creating Layer relu7
I0403 12:42:36.297004 26621 net.cpp:425] relu7 <- fc7
I0403 12:42:36.297026 26621 net.cpp:386] relu7 -> fc7 (in-place)
I0403 12:42:36.297425 26621 net.cpp:141] Setting up relu7
I0403 12:42:36.297452 26621 net.cpp:148] Top shape: 100 4096 (409600)
I0403 12:42:36.297502 26621 net.cpp:156] Memory required for data: 829887600
I0403 12:42:36.297518 26621 layer_factory.hpp:77] Creating layer drop7
I0403 12:42:36.297538 26621 net.cpp:91] Creating Layer drop7
I0403 12:42:36.297554 26621 net.cpp:425] drop7 <- fc7
I0403 12:42:36.297574 26621 net.cpp:386] drop7 -> fc7 (in-place)
I0403 12:42:36.297616 26621 net.cpp:141] Setting up drop7
I0403 12:42:36.297639 26621 net.cpp:148] Top shape: 100 4096 (409600)
I0403 12:42:36.297654 26621 net.cpp:156] Memory required for data: 831526000
I0403 12:42:36.297669 26621 layer_factory.hpp:77] Creating layer fc8_plantvillage
I0403 12:42:36.297693 26621 net.cpp:91] Creating Layer fc8_plantvillage
I0403 12:42:36.297709 26621 net.cpp:425] fc8_plantvillage <- fc7
I0403 12:42:36.297729 26621 net.cpp:399] fc8_plantvillage -> fc8_plantvillage
I0403 12:42:36.304312 26621 net.cpp:141] Setting up fc8_plantvillage
I0403 12:42:36.304340 26621 net.cpp:148] Top shape: 100 38 (3800)
I0403 12:42:36.304361 26621 net.cpp:156] Memory required for data: 831541200
I0403 12:42:36.304380 26621 layer_factory.hpp:77] Creating layer fc8_plantvillage_fc8_plantvillage_0_split
I0403 12:42:36.304399 26621 net.cpp:91] Creating Layer fc8_plantvillage_fc8_plantvillage_0_split
I0403 12:42:36.304415 26621 net.cpp:425] fc8_plantvillage_fc8_plantvillage_0_split <- fc8_plantvillage
I0403 12:42:36.304436 26621 net.cpp:399] fc8_plantvillage_fc8_plantvillage_0_split -> fc8_plantvillage_fc8_plantvillage_0_split_0
I0403 12:42:36.304456 26621 net.cpp:399] fc8_plantvillage_fc8_plantvillage_0_split -> fc8_plantvillage_fc8_plantvillage_0_split_1
I0403 12:42:36.304476 26621 net.cpp:399] fc8_plantvillage_fc8_plantvillage_0_split -> fc8_plantvillage_fc8_plantvillage_0_split_2
I0403 12:42:36.304553 26621 net.cpp:141] Setting up fc8_plantvillage_fc8_plantvillage_0_split
I0403 12:42:36.304576 26621 net.cpp:148] Top shape: 100 38 (3800)
I0403 12:42:36.304592 26621 net.cpp:148] Top shape: 100 38 (3800)
I0403 12:42:36.304608 26621 net.cpp:148] Top shape: 100 38 (3800)
I0403 12:42:36.304622 26621 net.cpp:156] Memory required for data: 831586800
I0403 12:42:36.304637 26621 layer_factory.hpp:77] Creating layer prob
I0403 12:42:36.304656 26621 net.cpp:91] Creating Layer prob
I0403 12:42:36.304672 26621 net.cpp:425] prob <- fc8_plantvillage_fc8_plantvillage_0_split_0
I0403 12:42:36.304692 26621 net.cpp:399] prob -> prob
I0403 12:42:36.304908 26621 net.cpp:141] Setting up prob
I0403 12:42:36.304937 26621 net.cpp:148] Top shape: 100 38 (3800)
I0403 12:42:36.304954 26621 net.cpp:156] Memory required for data: 831602000
I0403 12:42:36.304968 26621 layer_factory.hpp:77] Creating layer hdf5out
I0403 12:42:36.304986 26621 net.cpp:91] Creating Layer hdf5out
I0403 12:42:36.305002 26621 net.cpp:425] hdf5out <- prob
I0403 12:42:36.305019 26621 net.cpp:425] hdf5out <- label_data_1_split_0
I0403 12:42:36.308960 26621 net.cpp:141] Setting up hdf5out
…
