…
I0403 12:30:27.349838 26350 net.cpp:313] The NetState phase (1) differed from the phase (0) specified by a rule in layer data
I0403 12:30:27.350134 26350 net.cpp:49] Initializing net from parameters: 
state {
  phase: TEST
}
layer {
  name: "data"
  type: "Data"
  top: "data"
  top: "label"
  include {
    phase: TEST
  }
  transform_param {
    crop_size: 227
    mean_file: "/home/mohanty/data/final_dataset/lmdb/color-40-60/mean.binaryproto"
  }
  data_param {
    source: "/home/mohanty/data/final_dataset/lmdb/color-40-60/test_db"
    batch_size: 100
    backend: LMDB
  }
}
layer {
  name: "conv1"
  type: "Convolution"
  bottom: "data"
  top: "conv1"
  param {
    lr_mult: 1
    decay_mult: 1
  }
  param {
    lr_mult: 2
    decay_mult: 0
  }
  convolution_param {
    num_output: 96
    kernel_size: 11
    stride: 4
    weight_filler {
      type: "gaussian"
      std: 0.01
    }
    bias_filler {
      type: "constant"
      value: 0
    }
  }
}
layer {
  name: "relu1"
  type: "ReLU"
  bottom: "conv1"
  top: "conv1"
}
layer {
  name: "norm1"
  type: "LRN"
  bottom: "conv1"
  top: "norm1"
  lrn_param {
    local_size: 5
    alpha: 0.0001
    beta: 0.75
  }
}
layer {
  name: "pool1"
  type: "Pooling"
  bottom: "norm1"
  top: "pool1"
  pooling_param {
    pool: MAX
    kernel_size: 3
    stride: 2
  }
}
layer {
  name: "conv2"
  type: "Convolution"
  bottom: "pool1"
  top: "conv2"
  param {
    lr_mult: 1
    decay_mult: 1
  }
  param {
    lr_mult: 2
    decay_mult: 0
  }
  convolution_param {
    num_output: 256
    pad: 2
    kernel_size: 5
    group: 2
    weight_filler {
      type: "gaussian"
      std: 0.01
    }
    bias_filler {
      type: "constant"
      value: 0.1
    }
  }
}
layer {
  name: "relu2"
  type: "ReLU"
  bottom: "conv2"
  top: "conv2"
}
layer {
  name: "norm2"
  type: "LRN"
  bottom: "conv2"
  top: "norm2"
  lrn_param {
    local_size: 5
    alpha: 0.0001
    beta: 0.75
  }
}
layer {
  name: "pool2"
  type: "Pooling"
  bottom: "norm2"
  top: "pool2"
  pooling_param {
    pool: MAX
    kernel_size: 3
    stride: 2
  }
}
layer {
  name: "conv3"
  type: "Convolution"
  bottom: "pool2"
  top: "conv3"
  param {
    lr_mult: 1
    decay_mult: 1
  }
  param {
    lr_mult: 2
    decay_mult: 0
  }
  convolution_param {
    num_output: 384
    pad: 1
    kernel_size: 3
    weight_filler {
      type: "gaussian"
      std: 0.01
    }
    bias_filler {
      type: "constant"
      value: 0
    }
  }
}
layer {
  name: "relu3"
  type: "ReLU"
  bottom: "conv3"
  top: "conv3"
}
layer {
  name: "conv4"
  type: "Convolution"
  bottom: "conv3"
  top: "conv4"
  param {
    lr_mult: 1
    decay_mult: 1
  }
  param {
    lr_mult: 2
    decay_mult: 0
  }
  convolution_param {
    num_output: 384
    pad: 1
    kernel_size: 3
    group: 2
    weight_filler {
      type: "gaussian"
      std: 0.01
    }
    bias_filler {
      type: "constant"
      value: 0.1
    }
  }
}
layer {
  name: "relu4"
  type: "ReLU"
  bottom: "conv4"
  top: "conv4"
}
layer {
  name: "conv5"
  type: "Convolution"
  bottom: "conv4"
  top: "conv5"
  param {
    lr_mult: 1
    decay_mult: 1
  }
  param {
    lr_mult: 2
    decay_mult: 0
  }
  convolution_param {
    num_output: 256
    pad: 1
    kernel_size: 3
    group: 2
    weight_filler {
      type: "gaussian"
      std: 0.01
    }
    bias_filler {
      type: "constant"
      value: 0.1
    }
  }
}
layer {
  name: "relu5"
  type: "ReLU"
  bottom: "conv5"
  top: "conv5"
}
layer {
  name: "pool5"
  type: "Pooling"
  bottom: "conv5"
  top: "pool5"
  pooling_param {
    pool: MAX
    kernel_size: 3
    stride: 2
  }
}
layer {
  name: "fc6"
  type: "InnerProduct"
  bottom: "pool5"
  top: "fc6"
  param {
    lr_mult: 1
    decay_mult: 1
  }
  param {
    lr_mult: 2
    decay_mult: 0
  }
  inner_product_param {
    num_output: 4096
    weight_filler {
      type: "gaussian"
      std: 0.005
    }
    bias_filler {
      type: "constant"
      value: 0.1
    }
  }
}
layer {
  name: "relu6"
  type: "ReLU"
  bottom: "fc6"
  top: "fc6"
}
layer {
  name: "drop6"
  type: "Dropout"
  bottom: "fc6"
  top: "fc6"
  dropout_param {
    dropout_ratio: 0.5
  }
}
layer {
  name: "fc7"
  type: "InnerProduct"
  bottom: "fc6"
  top: "fc7"
  param {
    lr_mult: 1
    decay_mult: 1
  }
  param {
    lr_mult: 2
    decay_mult: 0
  }
  inner_product_param {
    num_output: 4096
    weight_filler {
      type: "gaussian"
      std: 0.005
    }
    bias_filler {
      type: "constant"
      value: 0.1
    }
  }
}
layer {
  name: "relu7"
  type: "ReLU"
  bottom: "fc7"
  top: "fc7"
}
layer {
  name: "drop7"
  type: "Dropout"
  bottom: "fc7"
  top: "fc7"
  dropout_param {
    dropout_ratio: 0.5
  }
}
layer {
  name: "fc8_plantvillage"
  type: "InnerProduct"
  bottom: "fc7"
  top: "fc8_plantvillage"
  param {
    lr_mult: 1
    decay_mult: 1
  }
  param {
    lr_mult: 2
    decay_mult: 0
  }
  inner_product_param {
    num_output: 38
    weight_filler {
      type: "gaussian"
      std: 0.01
    }
    bias_filler {
      type: "constant"
      value: 0
    }
  }
}
layer {
  name: "prob"
  type: "Softmax"
  bottom: "fc8_plantvillage"
  top: "prob"
  include {
    phase: TEST
  }
}
layer {
  name: "hdf5out"
  type: "HDF5Output"
  bottom: "prob"
  bottom: "label"
  include {
    phase: TEST
  }
  hdf5_output_param {
    file_name: "hdf5_dumps/iter_2604.h5"
  }
}
layer {
  name: "loss"
  type: "SoftmaxWithLoss"
  bottom: "fc8_plantvillage"
  bottom: "label"
  top: "loss"
}
layer {
  name: "accuracy"
  type: "Accuracy"
  bottom: "fc8_plantvillage"
  bottom: "label"
  top: "accuracy"
  include {
    phase: TEST
  }
}
I0403 12:30:27.350666 26350 layer_factory.hpp:77] Creating layer data
I0403 12:30:27.351323 26350 net.cpp:91] Creating Layer data
I0403 12:30:27.351356 26350 net.cpp:399] data -> data
I0403 12:30:27.351408 26350 net.cpp:399] data -> label
I0403 12:30:27.351447 26350 data_transformer.cpp:25] Loading mean file from: /home/mohanty/data/final_dataset/lmdb/color-40-60/mean.binaryproto
I0403 12:30:27.354032 26353 db_lmdb.cpp:38] Opened lmdb /home/mohanty/data/final_dataset/lmdb/color-40-60/test_db
I0403 12:30:27.367409 26350 data_layer.cpp:41] output data size: 100,3,227,227
I0403 12:30:27.490653 26350 net.cpp:141] Setting up data
I0403 12:30:27.490746 26350 net.cpp:148] Top shape: 100 3 227 227 (15458700)
I0403 12:30:27.490772 26350 net.cpp:148] Top shape: 100 (100)
I0403 12:30:27.490788 26350 net.cpp:156] Memory required for data: 61835200
I0403 12:30:27.490818 26350 layer_factory.hpp:77] Creating layer label_data_1_split
I0403 12:30:27.490844 26350 net.cpp:91] Creating Layer label_data_1_split
I0403 12:30:27.490864 26350 net.cpp:425] label_data_1_split <- label
I0403 12:30:27.490896 26350 net.cpp:399] label_data_1_split -> label_data_1_split_0
I0403 12:30:27.490924 26350 net.cpp:399] label_data_1_split -> label_data_1_split_1
I0403 12:30:27.490947 26350 net.cpp:399] label_data_1_split -> label_data_1_split_2
I0403 12:30:27.491009 26350 net.cpp:141] Setting up label_data_1_split
I0403 12:30:27.491035 26350 net.cpp:148] Top shape: 100 (100)
I0403 12:30:27.491053 26350 net.cpp:148] Top shape: 100 (100)
I0403 12:30:27.491071 26350 net.cpp:148] Top shape: 100 (100)
I0403 12:30:27.491086 26350 net.cpp:156] Memory required for data: 61836400
I0403 12:30:27.491102 26350 layer_factory.hpp:77] Creating layer conv1
I0403 12:30:27.491134 26350 net.cpp:91] Creating Layer conv1
I0403 12:30:27.491154 26350 net.cpp:425] conv1 <- data
I0403 12:30:27.491174 26350 net.cpp:399] conv1 -> conv1
I0403 12:30:27.633293 26350 net.cpp:141] Setting up conv1
I0403 12:30:27.633360 26350 net.cpp:148] Top shape: 100 96 55 55 (29040000)
I0403 12:30:27.633381 26350 net.cpp:156] Memory required for data: 177996400
I0403 12:30:27.633414 26350 layer_factory.hpp:77] Creating layer relu1
I0403 12:30:27.633442 26350 net.cpp:91] Creating Layer relu1
I0403 12:30:27.633462 26350 net.cpp:425] relu1 <- conv1
I0403 12:30:27.633481 26350 net.cpp:386] relu1 -> conv1 (in-place)
I0403 12:30:27.633739 26350 net.cpp:141] Setting up relu1
I0403 12:30:27.633769 26350 net.cpp:148] Top shape: 100 96 55 55 (29040000)
I0403 12:30:27.633785 26350 net.cpp:156] Memory required for data: 294156400
I0403 12:30:27.633833 26350 layer_factory.hpp:77] Creating layer norm1
I0403 12:30:27.633862 26350 net.cpp:91] Creating Layer norm1
I0403 12:30:27.633882 26350 net.cpp:425] norm1 <- conv1
I0403 12:30:27.633900 26350 net.cpp:399] norm1 -> norm1
I0403 12:30:27.634207 26350 net.cpp:141] Setting up norm1
I0403 12:30:27.634237 26350 net.cpp:148] Top shape: 100 96 55 55 (29040000)
I0403 12:30:27.634253 26350 net.cpp:156] Memory required for data: 410316400
I0403 12:30:27.634268 26350 layer_factory.hpp:77] Creating layer pool1
I0403 12:30:27.634291 26350 net.cpp:91] Creating Layer pool1
I0403 12:30:27.634310 26350 net.cpp:425] pool1 <- norm1
I0403 12:30:27.634328 26350 net.cpp:399] pool1 -> pool1
I0403 12:30:27.634408 26350 net.cpp:141] Setting up pool1
I0403 12:30:27.634435 26350 net.cpp:148] Top shape: 100 96 27 27 (6998400)
I0403 12:30:27.634451 26350 net.cpp:156] Memory required for data: 438310000
I0403 12:30:27.634467 26350 layer_factory.hpp:77] Creating layer conv2
I0403 12:30:27.634492 26350 net.cpp:91] Creating Layer conv2
I0403 12:30:27.634511 26350 net.cpp:425] conv2 <- pool1
I0403 12:30:27.634531 26350 net.cpp:399] conv2 -> conv2
I0403 12:30:27.650591 26350 net.cpp:141] Setting up conv2
I0403 12:30:27.650641 26350 net.cpp:148] Top shape: 100 256 27 27 (18662400)
I0403 12:30:27.650660 26350 net.cpp:156] Memory required for data: 512959600
I0403 12:30:27.650687 26350 layer_factory.hpp:77] Creating layer relu2
I0403 12:30:27.650710 26350 net.cpp:91] Creating Layer relu2
I0403 12:30:27.650727 26350 net.cpp:425] relu2 <- conv2
I0403 12:30:27.650746 26350 net.cpp:386] relu2 -> conv2 (in-place)
I0403 12:30:27.651028 26350 net.cpp:141] Setting up relu2
I0403 12:30:27.651059 26350 net.cpp:148] Top shape: 100 256 27 27 (18662400)
I0403 12:30:27.651075 26350 net.cpp:156] Memory required for data: 587609200
I0403 12:30:27.651092 26350 layer_factory.hpp:77] Creating layer norm2
I0403 12:30:27.651113 26350 net.cpp:91] Creating Layer norm2
I0403 12:30:27.651129 26350 net.cpp:425] norm2 <- conv2
I0403 12:30:27.651151 26350 net.cpp:399] norm2 -> norm2
I0403 12:30:27.651360 26350 net.cpp:141] Setting up norm2
I0403 12:30:27.651387 26350 net.cpp:148] Top shape: 100 256 27 27 (18662400)
I0403 12:30:27.651404 26350 net.cpp:156] Memory required for data: 662258800
I0403 12:30:27.651420 26350 layer_factory.hpp:77] Creating layer pool2
I0403 12:30:27.651442 26350 net.cpp:91] Creating Layer pool2
I0403 12:30:27.651458 26350 net.cpp:425] pool2 <- norm2
I0403 12:30:27.651478 26350 net.cpp:399] pool2 -> pool2
I0403 12:30:27.651532 26350 net.cpp:141] Setting up pool2
I0403 12:30:27.651556 26350 net.cpp:148] Top shape: 100 256 13 13 (4326400)
I0403 12:30:27.651572 26350 net.cpp:156] Memory required for data: 679564400
I0403 12:30:27.651588 26350 layer_factory.hpp:77] Creating layer conv3
I0403 12:30:27.651613 26350 net.cpp:91] Creating Layer conv3
I0403 12:30:27.651631 26350 net.cpp:425] conv3 <- pool2
I0403 12:30:27.651653 26350 net.cpp:399] conv3 -> conv3
I0403 12:30:27.690107 26350 net.cpp:141] Setting up conv3
I0403 12:30:27.690181 26350 net.cpp:148] Top shape: 100 384 13 13 (6489600)
I0403 12:30:27.690197 26350 net.cpp:156] Memory required for data: 705522800
I0403 12:30:27.690224 26350 layer_factory.hpp:77] Creating layer relu3
I0403 12:30:27.690250 26350 net.cpp:91] Creating Layer relu3
I0403 12:30:27.690270 26350 net.cpp:425] relu3 <- conv3
I0403 12:30:27.690290 26350 net.cpp:386] relu3 -> conv3 (in-place)
I0403 12:30:27.690577 26350 net.cpp:141] Setting up relu3
I0403 12:30:27.690603 26350 net.cpp:148] Top shape: 100 384 13 13 (6489600)
I0403 12:30:27.690620 26350 net.cpp:156] Memory required for data: 731481200
I0403 12:30:27.690635 26350 layer_factory.hpp:77] Creating layer conv4
I0403 12:30:27.690665 26350 net.cpp:91] Creating Layer conv4
I0403 12:30:27.690685 26350 net.cpp:425] conv4 <- conv3
I0403 12:30:27.690704 26350 net.cpp:399] conv4 -> conv4
I0403 12:30:27.720453 26350 net.cpp:141] Setting up conv4
I0403 12:30:27.720492 26350 net.cpp:148] Top shape: 100 384 13 13 (6489600)
I0403 12:30:27.720541 26350 net.cpp:156] Memory required for data: 757439600
I0403 12:30:27.720566 26350 layer_factory.hpp:77] Creating layer relu4
I0403 12:30:27.720590 26350 net.cpp:91] Creating Layer relu4
I0403 12:30:27.720609 26350 net.cpp:425] relu4 <- conv4
I0403 12:30:27.720628 26350 net.cpp:386] relu4 -> conv4 (in-place)
I0403 12:30:27.720917 26350 net.cpp:141] Setting up relu4
I0403 12:30:27.720947 26350 net.cpp:148] Top shape: 100 384 13 13 (6489600)
I0403 12:30:27.720963 26350 net.cpp:156] Memory required for data: 783398000
I0403 12:30:27.720978 26350 layer_factory.hpp:77] Creating layer conv5
I0403 12:30:27.721002 26350 net.cpp:91] Creating Layer conv5
I0403 12:30:27.721032 26350 net.cpp:425] conv5 <- conv4
I0403 12:30:27.721055 26350 net.cpp:399] conv5 -> conv5
I0403 12:30:27.741413 26350 net.cpp:141] Setting up conv5
I0403 12:30:27.741466 26350 net.cpp:148] Top shape: 100 256 13 13 (4326400)
I0403 12:30:27.741483 26350 net.cpp:156] Memory required for data: 800703600
I0403 12:30:27.741510 26350 layer_factory.hpp:77] Creating layer relu5
I0403 12:30:27.741533 26350 net.cpp:91] Creating Layer relu5
I0403 12:30:27.741549 26350 net.cpp:425] relu5 <- conv5
I0403 12:30:27.741567 26350 net.cpp:386] relu5 -> conv5 (in-place)
I0403 12:30:27.741839 26350 net.cpp:141] Setting up relu5
I0403 12:30:27.741869 26350 net.cpp:148] Top shape: 100 256 13 13 (4326400)
I0403 12:30:27.741886 26350 net.cpp:156] Memory required for data: 818009200
I0403 12:30:27.741902 26350 layer_factory.hpp:77] Creating layer pool5
I0403 12:30:27.741925 26350 net.cpp:91] Creating Layer pool5
I0403 12:30:27.741941 26350 net.cpp:425] pool5 <- conv5
I0403 12:30:27.741976 26350 net.cpp:399] pool5 -> pool5
I0403 12:30:27.742041 26350 net.cpp:141] Setting up pool5
I0403 12:30:27.742066 26350 net.cpp:148] Top shape: 100 256 6 6 (921600)
I0403 12:30:27.742081 26350 net.cpp:156] Memory required for data: 821695600
I0403 12:30:27.742097 26350 layer_factory.hpp:77] Creating layer fc6
I0403 12:30:27.742126 26350 net.cpp:91] Creating Layer fc6
I0403 12:30:27.742146 26350 net.cpp:425] fc6 <- pool5
I0403 12:30:27.742166 26350 net.cpp:399] fc6 -> fc6
I0403 12:30:29.313288 26350 net.cpp:141] Setting up fc6
I0403 12:30:29.313367 26350 net.cpp:148] Top shape: 100 4096 (409600)
I0403 12:30:29.313386 26350 net.cpp:156] Memory required for data: 823334000
I0403 12:30:29.313408 26350 layer_factory.hpp:77] Creating layer relu6
I0403 12:30:29.313431 26350 net.cpp:91] Creating Layer relu6
I0403 12:30:29.313448 26350 net.cpp:425] relu6 <- fc6
I0403 12:30:29.313470 26350 net.cpp:386] relu6 -> fc6 (in-place)
I0403 12:30:29.313689 26350 net.cpp:141] Setting up relu6
I0403 12:30:29.313715 26350 net.cpp:148] Top shape: 100 4096 (409600)
I0403 12:30:29.313731 26350 net.cpp:156] Memory required for data: 824972400
I0403 12:30:29.313747 26350 layer_factory.hpp:77] Creating layer drop6
I0403 12:30:29.313769 26350 net.cpp:91] Creating Layer drop6
I0403 12:30:29.313786 26350 net.cpp:425] drop6 <- fc6
I0403 12:30:29.313804 26350 net.cpp:386] drop6 -> fc6 (in-place)
I0403 12:30:29.313858 26350 net.cpp:141] Setting up drop6
I0403 12:30:29.313882 26350 net.cpp:148] Top shape: 100 4096 (409600)
I0403 12:30:29.313897 26350 net.cpp:156] Memory required for data: 826610800
I0403 12:30:29.313915 26350 layer_factory.hpp:77] Creating layer fc7
I0403 12:30:29.313936 26350 net.cpp:91] Creating Layer fc7
I0403 12:30:29.313953 26350 net.cpp:425] fc7 <- fc6
I0403 12:30:29.313972 26350 net.cpp:399] fc7 -> fc7
I0403 12:30:30.002341 26350 net.cpp:141] Setting up fc7
I0403 12:30:30.002420 26350 net.cpp:148] Top shape: 100 4096 (409600)
I0403 12:30:30.002439 26350 net.cpp:156] Memory required for data: 828249200
I0403 12:30:30.002460 26350 layer_factory.hpp:77] Creating layer relu7
I0403 12:30:30.002485 26350 net.cpp:91] Creating Layer relu7
I0403 12:30:30.002506 26350 net.cpp:425] relu7 <- fc7
I0403 12:30:30.002526 26350 net.cpp:386] relu7 -> fc7 (in-place)
I0403 12:30:30.002976 26350 net.cpp:141] Setting up relu7
I0403 12:30:30.003006 26350 net.cpp:148] Top shape: 100 4096 (409600)
I0403 12:30:30.003060 26350 net.cpp:156] Memory required for data: 829887600
I0403 12:30:30.003077 26350 layer_factory.hpp:77] Creating layer drop7
I0403 12:30:30.003101 26350 net.cpp:91] Creating Layer drop7
I0403 12:30:30.003118 26350 net.cpp:425] drop7 <- fc7
I0403 12:30:30.003137 26350 net.cpp:386] drop7 -> fc7 (in-place)
I0403 12:30:30.003185 26350 net.cpp:141] Setting up drop7
I0403 12:30:30.003209 26350 net.cpp:148] Top shape: 100 4096 (409600)
I0403 12:30:30.003224 26350 net.cpp:156] Memory required for data: 831526000
I0403 12:30:30.003242 26350 layer_factory.hpp:77] Creating layer fc8_plantvillage
I0403 12:30:30.003262 26350 net.cpp:91] Creating Layer fc8_plantvillage
I0403 12:30:30.003278 26350 net.cpp:425] fc8_plantvillage <- fc7
I0403 12:30:30.003310 26350 net.cpp:399] fc8_plantvillage -> fc8_plantvillage
I0403 12:30:30.010293 26350 net.cpp:141] Setting up fc8_plantvillage
I0403 12:30:30.010326 26350 net.cpp:148] Top shape: 100 38 (3800)
I0403 12:30:30.010349 26350 net.cpp:156] Memory required for data: 831541200
I0403 12:30:30.010370 26350 layer_factory.hpp:77] Creating layer fc8_plantvillage_fc8_plantvillage_0_split
I0403 12:30:30.010390 26350 net.cpp:91] Creating Layer fc8_plantvillage_fc8_plantvillage_0_split
I0403 12:30:30.010406 26350 net.cpp:425] fc8_plantvillage_fc8_plantvillage_0_split <- fc8_plantvillage
I0403 12:30:30.010426 26350 net.cpp:399] fc8_plantvillage_fc8_plantvillage_0_split -> fc8_plantvillage_fc8_plantvillage_0_split_0
I0403 12:30:30.010448 26350 net.cpp:399] fc8_plantvillage_fc8_plantvillage_0_split -> fc8_plantvillage_fc8_plantvillage_0_split_1
I0403 12:30:30.010471 26350 net.cpp:399] fc8_plantvillage_fc8_plantvillage_0_split -> fc8_plantvillage_fc8_plantvillage_0_split_2
I0403 12:30:30.010551 26350 net.cpp:141] Setting up fc8_plantvillage_fc8_plantvillage_0_split
I0403 12:30:30.010588 26350 net.cpp:148] Top shape: 100 38 (3800)
I0403 12:30:30.010607 26350 net.cpp:148] Top shape: 100 38 (3800)
I0403 12:30:30.010623 26350 net.cpp:148] Top shape: 100 38 (3800)
I0403 12:30:30.010637 26350 net.cpp:156] Memory required for data: 831586800
I0403 12:30:30.010650 26350 layer_factory.hpp:77] Creating layer prob
I0403 12:30:30.010670 26350 net.cpp:91] Creating Layer prob
I0403 12:30:30.010685 26350 net.cpp:425] prob <- fc8_plantvillage_fc8_plantvillage_0_split_0
I0403 12:30:30.010702 26350 net.cpp:399] prob -> prob
I0403 12:30:30.010924 26350 net.cpp:141] Setting up prob
I0403 12:30:30.010951 26350 net.cpp:148] Top shape: 100 38 (3800)
I0403 12:30:30.010967 26350 net.cpp:156] Memory required for data: 831602000
I0403 12:30:30.010983 26350 layer_factory.hpp:77] Creating layer hdf5out
I0403 12:30:30.011006 26350 net.cpp:91] Creating Layer hdf5out
I0403 12:30:30.011023 26350 net.cpp:425] hdf5out <- prob
I0403 12:30:30.011040 26350 net.cpp:425] hdf5out <- label_data_1_split_0
I0403 12:30:30.014875 26350 net.cpp:141] Setting up hdf5out
…
