…
I0403 12:20:30.903062 26116 net.cpp:313] The NetState phase (1) differed from the phase (0) specified by a rule in layer data
I0403 12:20:30.903378 26116 net.cpp:49] Initializing net from parameters: 
state {
  phase: TEST
}
layer {
  name: "data"
  type: "Data"
  top: "data"
  top: "label"
  include {
    phase: TEST
  }
  transform_param {
    crop_size: 227
    mean_file: "/home/mohanty/data/final_dataset/lmdb/color-40-60/mean.binaryproto"
  }
  data_param {
    source: "/home/mohanty/data/final_dataset/lmdb/color-40-60/test_db"
    batch_size: 100
    backend: LMDB
  }
}
layer {
  name: "conv1"
  type: "Convolution"
  bottom: "data"
  top: "conv1"
  param {
    lr_mult: 1
    decay_mult: 1
  }
  param {
    lr_mult: 2
    decay_mult: 0
  }
  convolution_param {
    num_output: 96
    kernel_size: 11
    stride: 4
    weight_filler {
      type: "gaussian"
      std: 0.01
    }
    bias_filler {
      type: "constant"
      value: 0
    }
  }
}
layer {
  name: "relu1"
  type: "ReLU"
  bottom: "conv1"
  top: "conv1"
}
layer {
  name: "norm1"
  type: "LRN"
  bottom: "conv1"
  top: "norm1"
  lrn_param {
    local_size: 5
    alpha: 0.0001
    beta: 0.75
  }
}
layer {
  name: "pool1"
  type: "Pooling"
  bottom: "norm1"
  top: "pool1"
  pooling_param {
    pool: MAX
    kernel_size: 3
    stride: 2
  }
}
layer {
  name: "conv2"
  type: "Convolution"
  bottom: "pool1"
  top: "conv2"
  param {
    lr_mult: 1
    decay_mult: 1
  }
  param {
    lr_mult: 2
    decay_mult: 0
  }
  convolution_param {
    num_output: 256
    pad: 2
    kernel_size: 5
    group: 2
    weight_filler {
      type: "gaussian"
      std: 0.01
    }
    bias_filler {
      type: "constant"
      value: 0.1
    }
  }
}
layer {
  name: "relu2"
  type: "ReLU"
  bottom: "conv2"
  top: "conv2"
}
layer {
  name: "norm2"
  type: "LRN"
  bottom: "conv2"
  top: "norm2"
  lrn_param {
    local_size: 5
    alpha: 0.0001
    beta: 0.75
  }
}
layer {
  name: "pool2"
  type: "Pooling"
  bottom: "norm2"
  top: "pool2"
  pooling_param {
    pool: MAX
    kernel_size: 3
    stride: 2
  }
}
layer {
  name: "conv3"
  type: "Convolution"
  bottom: "pool2"
  top: "conv3"
  param {
    lr_mult: 1
    decay_mult: 1
  }
  param {
    lr_mult: 2
    decay_mult: 0
  }
  convolution_param {
    num_output: 384
    pad: 1
    kernel_size: 3
    weight_filler {
      type: "gaussian"
      std: 0.01
    }
    bias_filler {
      type: "constant"
      value: 0
    }
  }
}
layer {
  name: "relu3"
  type: "ReLU"
  bottom: "conv3"
  top: "conv3"
}
layer {
  name: "conv4"
  type: "Convolution"
  bottom: "conv3"
  top: "conv4"
  param {
    lr_mult: 1
    decay_mult: 1
  }
  param {
    lr_mult: 2
    decay_mult: 0
  }
  convolution_param {
    num_output: 384
    pad: 1
    kernel_size: 3
    group: 2
    weight_filler {
      type: "gaussian"
      std: 0.01
    }
    bias_filler {
      type: "constant"
      value: 0.1
    }
  }
}
layer {
  name: "relu4"
  type: "ReLU"
  bottom: "conv4"
  top: "conv4"
}
layer {
  name: "conv5"
  type: "Convolution"
  bottom: "conv4"
  top: "conv5"
  param {
    lr_mult: 1
    decay_mult: 1
  }
  param {
    lr_mult: 2
    decay_mult: 0
  }
  convolution_param {
    num_output: 256
    pad: 1
    kernel_size: 3
    group: 2
    weight_filler {
      type: "gaussian"
      std: 0.01
    }
    bias_filler {
      type: "constant"
      value: 0.1
    }
  }
}
layer {
  name: "relu5"
  type: "ReLU"
  bottom: "conv5"
  top: "conv5"
}
layer {
  name: "pool5"
  type: "Pooling"
  bottom: "conv5"
  top: "pool5"
  pooling_param {
    pool: MAX
    kernel_size: 3
    stride: 2
  }
}
layer {
  name: "fc6"
  type: "InnerProduct"
  bottom: "pool5"
  top: "fc6"
  param {
    lr_mult: 1
    decay_mult: 1
  }
  param {
    lr_mult: 2
    decay_mult: 0
  }
  inner_product_param {
    num_output: 4096
    weight_filler {
      type: "gaussian"
      std: 0.005
    }
    bias_filler {
      type: "constant"
      value: 0.1
    }
  }
}
layer {
  name: "relu6"
  type: "ReLU"
  bottom: "fc6"
  top: "fc6"
}
layer {
  name: "drop6"
  type: "Dropout"
  bottom: "fc6"
  top: "fc6"
  dropout_param {
    dropout_ratio: 0.5
  }
}
layer {
  name: "fc7"
  type: "InnerProduct"
  bottom: "fc6"
  top: "fc7"
  param {
    lr_mult: 1
    decay_mult: 1
  }
  param {
    lr_mult: 2
    decay_mult: 0
  }
  inner_product_param {
    num_output: 4096
    weight_filler {
      type: "gaussian"
      std: 0.005
    }
    bias_filler {
      type: "constant"
      value: 0.1
    }
  }
}
layer {
  name: "relu7"
  type: "ReLU"
  bottom: "fc7"
  top: "fc7"
}
layer {
  name: "drop7"
  type: "Dropout"
  bottom: "fc7"
  top: "fc7"
  dropout_param {
    dropout_ratio: 0.5
  }
}
layer {
  name: "fc8_plantvillage"
  type: "InnerProduct"
  bottom: "fc7"
  top: "fc8_plantvillage"
  param {
    lr_mult: 1
    decay_mult: 1
  }
  param {
    lr_mult: 2
    decay_mult: 0
  }
  inner_product_param {
    num_output: 38
    weight_filler {
      type: "gaussian"
      std: 0.01
    }
    bias_filler {
      type: "constant"
      value: 0
    }
  }
}
layer {
  name: "prob"
  type: "Softmax"
  bottom: "fc8_plantvillage"
  top: "prob"
  include {
    phase: TEST
  }
}
layer {
  name: "hdf5out"
  type: "HDF5Output"
  bottom: "prob"
  bottom: "label"
  include {
    phase: TEST
  }
  hdf5_output_param {
    file_name: "hdf5_dumps/iter_651.h5"
  }
}
layer {
  name: "loss"
  type: "SoftmaxWithLoss"
  bottom: "fc8_plantvillage"
  bottom: "label"
  top: "loss"
}
layer {
  name: "accuracy"
  type: "Accuracy"
  bottom: "fc8_plantvillage"
  bottom: "label"
  top: "accuracy"
  include {
    phase: TEST
  }
}
I0403 12:20:30.903934 26116 layer_factory.hpp:77] Creating layer data
I0403 12:20:30.904583 26116 net.cpp:91] Creating Layer data
I0403 12:20:30.904618 26116 net.cpp:399] data -> data
I0403 12:20:30.904670 26116 net.cpp:399] data -> label
I0403 12:20:30.904707 26116 data_transformer.cpp:25] Loading mean file from: /home/mohanty/data/final_dataset/lmdb/color-40-60/mean.binaryproto
I0403 12:20:30.907646 26119 db_lmdb.cpp:38] Opened lmdb /home/mohanty/data/final_dataset/lmdb/color-40-60/test_db
I0403 12:20:30.918895 26116 data_layer.cpp:41] output data size: 100,3,227,227
I0403 12:20:31.040153 26116 net.cpp:141] Setting up data
I0403 12:20:31.040216 26116 net.cpp:148] Top shape: 100 3 227 227 (15458700)
I0403 12:20:31.040241 26116 net.cpp:148] Top shape: 100 (100)
I0403 12:20:31.040257 26116 net.cpp:156] Memory required for data: 61835200
I0403 12:20:31.040287 26116 layer_factory.hpp:77] Creating layer label_data_1_split
I0403 12:20:31.040329 26116 net.cpp:91] Creating Layer label_data_1_split
I0403 12:20:31.040350 26116 net.cpp:425] label_data_1_split <- label
I0403 12:20:31.040385 26116 net.cpp:399] label_data_1_split -> label_data_1_split_0
I0403 12:20:31.040413 26116 net.cpp:399] label_data_1_split -> label_data_1_split_1
I0403 12:20:31.040434 26116 net.cpp:399] label_data_1_split -> label_data_1_split_2
I0403 12:20:31.040499 26116 net.cpp:141] Setting up label_data_1_split
I0403 12:20:31.040525 26116 net.cpp:148] Top shape: 100 (100)
I0403 12:20:31.040544 26116 net.cpp:148] Top shape: 100 (100)
I0403 12:20:31.040561 26116 net.cpp:148] Top shape: 100 (100)
I0403 12:20:31.040576 26116 net.cpp:156] Memory required for data: 61836400
I0403 12:20:31.040602 26116 layer_factory.hpp:77] Creating layer conv1
I0403 12:20:31.040637 26116 net.cpp:91] Creating Layer conv1
I0403 12:20:31.040655 26116 net.cpp:425] conv1 <- data
I0403 12:20:31.040678 26116 net.cpp:399] conv1 -> conv1
I0403 12:20:31.188249 26116 net.cpp:141] Setting up conv1
I0403 12:20:31.188331 26116 net.cpp:148] Top shape: 100 96 55 55 (29040000)
I0403 12:20:31.188351 26116 net.cpp:156] Memory required for data: 177996400
I0403 12:20:31.188386 26116 layer_factory.hpp:77] Creating layer relu1
I0403 12:20:31.188416 26116 net.cpp:91] Creating Layer relu1
I0403 12:20:31.188436 26116 net.cpp:425] relu1 <- conv1
I0403 12:20:31.188455 26116 net.cpp:386] relu1 -> conv1 (in-place)
I0403 12:20:31.188737 26116 net.cpp:141] Setting up relu1
I0403 12:20:31.188769 26116 net.cpp:148] Top shape: 100 96 55 55 (29040000)
I0403 12:20:31.188786 26116 net.cpp:156] Memory required for data: 294156400
I0403 12:20:31.188835 26116 layer_factory.hpp:77] Creating layer norm1
I0403 12:20:31.188863 26116 net.cpp:91] Creating Layer norm1
I0403 12:20:31.188884 26116 net.cpp:425] norm1 <- conv1
I0403 12:20:31.188905 26116 net.cpp:399] norm1 -> norm1
I0403 12:20:31.189250 26116 net.cpp:141] Setting up norm1
I0403 12:20:31.189280 26116 net.cpp:148] Top shape: 100 96 55 55 (29040000)
I0403 12:20:31.189296 26116 net.cpp:156] Memory required for data: 410316400
I0403 12:20:31.189312 26116 layer_factory.hpp:77] Creating layer pool1
I0403 12:20:31.189342 26116 net.cpp:91] Creating Layer pool1
I0403 12:20:31.189359 26116 net.cpp:425] pool1 <- norm1
I0403 12:20:31.189381 26116 net.cpp:399] pool1 -> pool1
I0403 12:20:31.189456 26116 net.cpp:141] Setting up pool1
I0403 12:20:31.189483 26116 net.cpp:148] Top shape: 100 96 27 27 (6998400)
I0403 12:20:31.189498 26116 net.cpp:156] Memory required for data: 438310000
I0403 12:20:31.189514 26116 layer_factory.hpp:77] Creating layer conv2
I0403 12:20:31.189543 26116 net.cpp:91] Creating Layer conv2
I0403 12:20:31.189564 26116 net.cpp:425] conv2 <- pool1
I0403 12:20:31.189584 26116 net.cpp:399] conv2 -> conv2
I0403 12:20:31.204972 26116 net.cpp:141] Setting up conv2
I0403 12:20:31.205024 26116 net.cpp:148] Top shape: 100 256 27 27 (18662400)
I0403 12:20:31.205044 26116 net.cpp:156] Memory required for data: 512959600
I0403 12:20:31.205068 26116 layer_factory.hpp:77] Creating layer relu2
I0403 12:20:31.205091 26116 net.cpp:91] Creating Layer relu2
I0403 12:20:31.205109 26116 net.cpp:425] relu2 <- conv2
I0403 12:20:31.205132 26116 net.cpp:386] relu2 -> conv2 (in-place)
I0403 12:20:31.205425 26116 net.cpp:141] Setting up relu2
I0403 12:20:31.205453 26116 net.cpp:148] Top shape: 100 256 27 27 (18662400)
I0403 12:20:31.205469 26116 net.cpp:156] Memory required for data: 587609200
I0403 12:20:31.205487 26116 layer_factory.hpp:77] Creating layer norm2
I0403 12:20:31.205512 26116 net.cpp:91] Creating Layer norm2
I0403 12:20:31.205529 26116 net.cpp:425] norm2 <- conv2
I0403 12:20:31.205549 26116 net.cpp:399] norm2 -> norm2
I0403 12:20:31.205755 26116 net.cpp:141] Setting up norm2
I0403 12:20:31.205785 26116 net.cpp:148] Top shape: 100 256 27 27 (18662400)
I0403 12:20:31.205803 26116 net.cpp:156] Memory required for data: 662258800
I0403 12:20:31.205819 26116 layer_factory.hpp:77] Creating layer pool2
I0403 12:20:31.205839 26116 net.cpp:91] Creating Layer pool2
I0403 12:20:31.205857 26116 net.cpp:425] pool2 <- norm2
I0403 12:20:31.205876 26116 net.cpp:399] pool2 -> pool2
I0403 12:20:31.205931 26116 net.cpp:141] Setting up pool2
I0403 12:20:31.205958 26116 net.cpp:148] Top shape: 100 256 13 13 (4326400)
I0403 12:20:31.205974 26116 net.cpp:156] Memory required for data: 679564400
I0403 12:20:31.205991 26116 layer_factory.hpp:77] Creating layer conv3
I0403 12:20:31.206015 26116 net.cpp:91] Creating Layer conv3
I0403 12:20:31.206033 26116 net.cpp:425] conv3 <- pool2
I0403 12:20:31.206053 26116 net.cpp:399] conv3 -> conv3
I0403 12:20:31.245026 26116 net.cpp:141] Setting up conv3
I0403 12:20:31.245090 26116 net.cpp:148] Top shape: 100 384 13 13 (6489600)
I0403 12:20:31.245107 26116 net.cpp:156] Memory required for data: 705522800
I0403 12:20:31.245134 26116 layer_factory.hpp:77] Creating layer relu3
I0403 12:20:31.245159 26116 net.cpp:91] Creating Layer relu3
I0403 12:20:31.245177 26116 net.cpp:425] relu3 <- conv3
I0403 12:20:31.245200 26116 net.cpp:386] relu3 -> conv3 (in-place)
I0403 12:20:31.245494 26116 net.cpp:141] Setting up relu3
I0403 12:20:31.245522 26116 net.cpp:148] Top shape: 100 384 13 13 (6489600)
I0403 12:20:31.245539 26116 net.cpp:156] Memory required for data: 731481200
I0403 12:20:31.245555 26116 layer_factory.hpp:77] Creating layer conv4
I0403 12:20:31.245582 26116 net.cpp:91] Creating Layer conv4
I0403 12:20:31.245600 26116 net.cpp:425] conv4 <- conv3
I0403 12:20:31.245623 26116 net.cpp:399] conv4 -> conv4
I0403 12:20:31.275918 26116 net.cpp:141] Setting up conv4
I0403 12:20:31.275990 26116 net.cpp:148] Top shape: 100 384 13 13 (6489600)
I0403 12:20:31.276039 26116 net.cpp:156] Memory required for data: 757439600
I0403 12:20:31.276062 26116 layer_factory.hpp:77] Creating layer relu4
I0403 12:20:31.276084 26116 net.cpp:91] Creating Layer relu4
I0403 12:20:31.276101 26116 net.cpp:425] relu4 <- conv4
I0403 12:20:31.276121 26116 net.cpp:386] relu4 -> conv4 (in-place)
I0403 12:20:31.276479 26116 net.cpp:141] Setting up relu4
I0403 12:20:31.276510 26116 net.cpp:148] Top shape: 100 384 13 13 (6489600)
I0403 12:20:31.276527 26116 net.cpp:156] Memory required for data: 783398000
I0403 12:20:31.276543 26116 layer_factory.hpp:77] Creating layer conv5
I0403 12:20:31.276571 26116 net.cpp:91] Creating Layer conv5
I0403 12:20:31.276588 26116 net.cpp:425] conv5 <- conv4
I0403 12:20:31.276608 26116 net.cpp:399] conv5 -> conv5
I0403 12:20:31.297178 26116 net.cpp:141] Setting up conv5
I0403 12:20:31.297227 26116 net.cpp:148] Top shape: 100 256 13 13 (4326400)
I0403 12:20:31.297246 26116 net.cpp:156] Memory required for data: 800703600
I0403 12:20:31.297272 26116 layer_factory.hpp:77] Creating layer relu5
I0403 12:20:31.297294 26116 net.cpp:91] Creating Layer relu5
I0403 12:20:31.297312 26116 net.cpp:425] relu5 <- conv5
I0403 12:20:31.297339 26116 net.cpp:386] relu5 -> conv5 (in-place)
I0403 12:20:31.297631 26116 net.cpp:141] Setting up relu5
I0403 12:20:31.297660 26116 net.cpp:148] Top shape: 100 256 13 13 (4326400)
I0403 12:20:31.297675 26116 net.cpp:156] Memory required for data: 818009200
I0403 12:20:31.297693 26116 layer_factory.hpp:77] Creating layer pool5
I0403 12:20:31.297719 26116 net.cpp:91] Creating Layer pool5
I0403 12:20:31.297736 26116 net.cpp:425] pool5 <- conv5
I0403 12:20:31.297756 26116 net.cpp:399] pool5 -> pool5
I0403 12:20:31.297821 26116 net.cpp:141] Setting up pool5
I0403 12:20:31.297857 26116 net.cpp:148] Top shape: 100 256 6 6 (921600)
I0403 12:20:31.297873 26116 net.cpp:156] Memory required for data: 821695600
I0403 12:20:31.297889 26116 layer_factory.hpp:77] Creating layer fc6
I0403 12:20:31.297916 26116 net.cpp:91] Creating Layer fc6
I0403 12:20:31.297935 26116 net.cpp:425] fc6 <- pool5
I0403 12:20:31.297956 26116 net.cpp:399] fc6 -> fc6
I0403 12:20:32.863150 26116 net.cpp:141] Setting up fc6
I0403 12:20:32.863229 26116 net.cpp:148] Top shape: 100 4096 (409600)
I0403 12:20:32.863245 26116 net.cpp:156] Memory required for data: 823334000
I0403 12:20:32.863267 26116 layer_factory.hpp:77] Creating layer relu6
I0403 12:20:32.863291 26116 net.cpp:91] Creating Layer relu6
I0403 12:20:32.863309 26116 net.cpp:425] relu6 <- fc6
I0403 12:20:32.863343 26116 net.cpp:386] relu6 -> fc6 (in-place)
I0403 12:20:32.863589 26116 net.cpp:141] Setting up relu6
I0403 12:20:32.863615 26116 net.cpp:148] Top shape: 100 4096 (409600)
I0403 12:20:32.863629 26116 net.cpp:156] Memory required for data: 824972400
I0403 12:20:32.863646 26116 layer_factory.hpp:77] Creating layer drop6
I0403 12:20:32.863665 26116 net.cpp:91] Creating Layer drop6
I0403 12:20:32.863680 26116 net.cpp:425] drop6 <- fc6
I0403 12:20:32.863700 26116 net.cpp:386] drop6 -> fc6 (in-place)
I0403 12:20:32.863754 26116 net.cpp:141] Setting up drop6
I0403 12:20:32.863777 26116 net.cpp:148] Top shape: 100 4096 (409600)
I0403 12:20:32.863793 26116 net.cpp:156] Memory required for data: 826610800
I0403 12:20:32.863817 26116 layer_factory.hpp:77] Creating layer fc7
I0403 12:20:32.863840 26116 net.cpp:91] Creating Layer fc7
I0403 12:20:32.863857 26116 net.cpp:425] fc7 <- fc6
I0403 12:20:32.863878 26116 net.cpp:399] fc7 -> fc7
I0403 12:20:33.547847 26116 net.cpp:141] Setting up fc7
I0403 12:20:33.547924 26116 net.cpp:148] Top shape: 100 4096 (409600)
I0403 12:20:33.547941 26116 net.cpp:156] Memory required for data: 828249200
I0403 12:20:33.547963 26116 layer_factory.hpp:77] Creating layer relu7
I0403 12:20:33.547986 26116 net.cpp:91] Creating Layer relu7
I0403 12:20:33.548005 26116 net.cpp:425] relu7 <- fc7
I0403 12:20:33.548029 26116 net.cpp:386] relu7 -> fc7 (in-place)
I0403 12:20:33.548445 26116 net.cpp:141] Setting up relu7
I0403 12:20:33.548472 26116 net.cpp:148] Top shape: 100 4096 (409600)
I0403 12:20:33.548538 26116 net.cpp:156] Memory required for data: 829887600
I0403 12:20:33.548555 26116 layer_factory.hpp:77] Creating layer drop7
I0403 12:20:33.548575 26116 net.cpp:91] Creating Layer drop7
I0403 12:20:33.548593 26116 net.cpp:425] drop7 <- fc7
I0403 12:20:33.548614 26116 net.cpp:386] drop7 -> fc7 (in-place)
I0403 12:20:33.548660 26116 net.cpp:141] Setting up drop7
I0403 12:20:33.548686 26116 net.cpp:148] Top shape: 100 4096 (409600)
I0403 12:20:33.548703 26116 net.cpp:156] Memory required for data: 831526000
I0403 12:20:33.548720 26116 layer_factory.hpp:77] Creating layer fc8_plantvillage
I0403 12:20:33.548741 26116 net.cpp:91] Creating Layer fc8_plantvillage
I0403 12:20:33.548758 26116 net.cpp:425] fc8_plantvillage <- fc7
I0403 12:20:33.548779 26116 net.cpp:399] fc8_plantvillage -> fc8_plantvillage
I0403 12:20:33.555553 26116 net.cpp:141] Setting up fc8_plantvillage
I0403 12:20:33.555583 26116 net.cpp:148] Top shape: 100 38 (3800)
I0403 12:20:33.555599 26116 net.cpp:156] Memory required for data: 831541200
I0403 12:20:33.555619 26116 layer_factory.hpp:77] Creating layer fc8_plantvillage_fc8_plantvillage_0_split
I0403 12:20:33.555639 26116 net.cpp:91] Creating Layer fc8_plantvillage_fc8_plantvillage_0_split
I0403 12:20:33.555655 26116 net.cpp:425] fc8_plantvillage_fc8_plantvillage_0_split <- fc8_plantvillage
I0403 12:20:33.555675 26116 net.cpp:399] fc8_plantvillage_fc8_plantvillage_0_split -> fc8_plantvillage_fc8_plantvillage_0_split_0
I0403 12:20:33.555696 26116 net.cpp:399] fc8_plantvillage_fc8_plantvillage_0_split -> fc8_plantvillage_fc8_plantvillage_0_split_1
I0403 12:20:33.555718 26116 net.cpp:399] fc8_plantvillage_fc8_plantvillage_0_split -> fc8_plantvillage_fc8_plantvillage_0_split_2
I0403 12:20:33.555795 26116 net.cpp:141] Setting up fc8_plantvillage_fc8_plantvillage_0_split
I0403 12:20:33.555821 26116 net.cpp:148] Top shape: 100 38 (3800)
I0403 12:20:33.555840 26116 net.cpp:148] Top shape: 100 38 (3800)
I0403 12:20:33.555856 26116 net.cpp:148] Top shape: 100 38 (3800)
I0403 12:20:33.555871 26116 net.cpp:156] Memory required for data: 831586800
I0403 12:20:33.555887 26116 layer_factory.hpp:77] Creating layer prob
I0403 12:20:33.555907 26116 net.cpp:91] Creating Layer prob
I0403 12:20:33.555922 26116 net.cpp:425] prob <- fc8_plantvillage_fc8_plantvillage_0_split_0
I0403 12:20:33.555940 26116 net.cpp:399] prob -> prob
I0403 12:20:33.556174 26116 net.cpp:141] Setting up prob
I0403 12:20:33.556200 26116 net.cpp:148] Top shape: 100 38 (3800)
I0403 12:20:33.556216 26116 net.cpp:156] Memory required for data: 831602000
I0403 12:20:33.556231 26116 layer_factory.hpp:77] Creating layer hdf5out
I0403 12:20:33.556252 26116 net.cpp:91] Creating Layer hdf5out
I0403 12:20:33.556267 26116 net.cpp:425] hdf5out <- prob
I0403 12:20:33.556284 26116 net.cpp:425] hdf5out <- label_data_1_split_0
I0403 12:20:33.561573 26116 net.cpp:141] Setting up hdf5out
…
