…
I0403 12:51:22.230209 26829 net.cpp:313] The NetState phase (1) differed from the phase (0) specified by a rule in layer data
I0403 12:51:22.230518 26829 net.cpp:49] Initializing net from parameters: 
state {
  phase: TEST
}
layer {
  name: "data"
  type: "Data"
  top: "data"
  top: "label"
  include {
    phase: TEST
  }
  transform_param {
    crop_size: 227
    mean_file: "/home/mohanty/data/final_dataset/lmdb/color-40-60/mean.binaryproto"
  }
  data_param {
    source: "/home/mohanty/data/final_dataset/lmdb/color-40-60/test_db"
    batch_size: 100
    backend: LMDB
  }
}
layer {
  name: "conv1"
  type: "Convolution"
  bottom: "data"
  top: "conv1"
  param {
    lr_mult: 1
    decay_mult: 1
  }
  param {
    lr_mult: 2
    decay_mult: 0
  }
  convolution_param {
    num_output: 96
    kernel_size: 11
    stride: 4
    weight_filler {
      type: "gaussian"
      std: 0.01
    }
    bias_filler {
      type: "constant"
      value: 0
    }
  }
}
layer {
  name: "relu1"
  type: "ReLU"
  bottom: "conv1"
  top: "conv1"
}
layer {
  name: "norm1"
  type: "LRN"
  bottom: "conv1"
  top: "norm1"
  lrn_param {
    local_size: 5
    alpha: 0.0001
    beta: 0.75
  }
}
layer {
  name: "pool1"
  type: "Pooling"
  bottom: "norm1"
  top: "pool1"
  pooling_param {
    pool: MAX
    kernel_size: 3
    stride: 2
  }
}
layer {
  name: "conv2"
  type: "Convolution"
  bottom: "pool1"
  top: "conv2"
  param {
    lr_mult: 1
    decay_mult: 1
  }
  param {
    lr_mult: 2
    decay_mult: 0
  }
  convolution_param {
    num_output: 256
    pad: 2
    kernel_size: 5
    group: 2
    weight_filler {
      type: "gaussian"
      std: 0.01
    }
    bias_filler {
      type: "constant"
      value: 0.1
    }
  }
}
layer {
  name: "relu2"
  type: "ReLU"
  bottom: "conv2"
  top: "conv2"
}
layer {
  name: "norm2"
  type: "LRN"
  bottom: "conv2"
  top: "norm2"
  lrn_param {
    local_size: 5
    alpha: 0.0001
    beta: 0.75
  }
}
layer {
  name: "pool2"
  type: "Pooling"
  bottom: "norm2"
  top: "pool2"
  pooling_param {
    pool: MAX
    kernel_size: 3
    stride: 2
  }
}
layer {
  name: "conv3"
  type: "Convolution"
  bottom: "pool2"
  top: "conv3"
  param {
    lr_mult: 1
    decay_mult: 1
  }
  param {
    lr_mult: 2
    decay_mult: 0
  }
  convolution_param {
    num_output: 384
    pad: 1
    kernel_size: 3
    weight_filler {
      type: "gaussian"
      std: 0.01
    }
    bias_filler {
      type: "constant"
      value: 0
    }
  }
}
layer {
  name: "relu3"
  type: "ReLU"
  bottom: "conv3"
  top: "conv3"
}
layer {
  name: "conv4"
  type: "Convolution"
  bottom: "conv3"
  top: "conv4"
  param {
    lr_mult: 1
    decay_mult: 1
  }
  param {
    lr_mult: 2
    decay_mult: 0
  }
  convolution_param {
    num_output: 384
    pad: 1
    kernel_size: 3
    group: 2
    weight_filler {
      type: "gaussian"
      std: 0.01
    }
    bias_filler {
      type: "constant"
      value: 0.1
    }
  }
}
layer {
  name: "relu4"
  type: "ReLU"
  bottom: "conv4"
  top: "conv4"
}
layer {
  name: "conv5"
  type: "Convolution"
  bottom: "conv4"
  top: "conv5"
  param {
    lr_mult: 1
    decay_mult: 1
  }
  param {
    lr_mult: 2
    decay_mult: 0
  }
  convolution_param {
    num_output: 256
    pad: 1
    kernel_size: 3
    group: 2
    weight_filler {
      type: "gaussian"
      std: 0.01
    }
    bias_filler {
      type: "constant"
      value: 0.1
    }
  }
}
layer {
  name: "relu5"
  type: "ReLU"
  bottom: "conv5"
  top: "conv5"
}
layer {
  name: "pool5"
  type: "Pooling"
  bottom: "conv5"
  top: "pool5"
  pooling_param {
    pool: MAX
    kernel_size: 3
    stride: 2
  }
}
layer {
  name: "fc6"
  type: "InnerProduct"
  bottom: "pool5"
  top: "fc6"
  param {
    lr_mult: 1
    decay_mult: 1
  }
  param {
    lr_mult: 2
    decay_mult: 0
  }
  inner_product_param {
    num_output: 4096
    weight_filler {
      type: "gaussian"
      std: 0.005
    }
    bias_filler {
      type: "constant"
      value: 0.1
    }
  }
}
layer {
  name: "relu6"
  type: "ReLU"
  bottom: "fc6"
  top: "fc6"
}
layer {
  name: "drop6"
  type: "Dropout"
  bottom: "fc6"
  top: "fc6"
  dropout_param {
    dropout_ratio: 0.5
  }
}
layer {
  name: "fc7"
  type: "InnerProduct"
  bottom: "fc6"
  top: "fc7"
  param {
    lr_mult: 1
    decay_mult: 1
  }
  param {
    lr_mult: 2
    decay_mult: 0
  }
  inner_product_param {
    num_output: 4096
    weight_filler {
      type: "gaussian"
      std: 0.005
    }
    bias_filler {
      type: "constant"
      value: 0.1
    }
  }
}
layer {
  name: "relu7"
  type: "ReLU"
  bottom: "fc7"
  top: "fc7"
}
layer {
  name: "drop7"
  type: "Dropout"
  bottom: "fc7"
  top: "fc7"
  dropout_param {
    dropout_ratio: 0.5
  }
}
layer {
  name: "fc8_plantvillage"
  type: "InnerProduct"
  bottom: "fc7"
  top: "fc8_plantvillage"
  param {
    lr_mult: 1
    decay_mult: 1
  }
  param {
    lr_mult: 2
    decay_mult: 0
  }
  inner_product_param {
    num_output: 38
    weight_filler {
      type: "gaussian"
      std: 0.01
    }
    bias_filler {
      type: "constant"
      value: 0
    }
  }
}
layer {
  name: "prob"
  type: "Softmax"
  bottom: "fc8_plantvillage"
  top: "prob"
  include {
    phase: TEST
  }
}
layer {
  name: "hdf5out"
  type: "HDF5Output"
  bottom: "prob"
  bottom: "label"
  include {
    phase: TEST
  }
  hdf5_output_param {
    file_name: "hdf5_dumps/iter_6525.h5"
  }
}
layer {
  name: "loss"
  type: "SoftmaxWithLoss"
  bottom: "fc8_plantvillage"
  bottom: "label"
  top: "loss"
}
layer {
  name: "accuracy"
  type: "Accuracy"
  bottom: "fc8_plantvillage"
  bottom: "label"
  top: "accuracy"
  include {
    phase: TEST
  }
}
I0403 12:51:22.231204 26829 layer_factory.hpp:77] Creating layer data
I0403 12:51:22.231931 26829 net.cpp:91] Creating Layer data
I0403 12:51:22.231966 26829 net.cpp:399] data -> data
I0403 12:51:22.232028 26829 net.cpp:399] data -> label
I0403 12:51:22.232064 26829 data_transformer.cpp:25] Loading mean file from: /home/mohanty/data/final_dataset/lmdb/color-40-60/mean.binaryproto
I0403 12:51:22.234951 26832 db_lmdb.cpp:38] Opened lmdb /home/mohanty/data/final_dataset/lmdb/color-40-60/test_db
I0403 12:51:22.246681 26829 data_layer.cpp:41] output data size: 100,3,227,227
I0403 12:51:22.366670 26829 net.cpp:141] Setting up data
I0403 12:51:22.366762 26829 net.cpp:148] Top shape: 100 3 227 227 (15458700)
I0403 12:51:22.366786 26829 net.cpp:148] Top shape: 100 (100)
I0403 12:51:22.366801 26829 net.cpp:156] Memory required for data: 61835200
I0403 12:51:22.366829 26829 layer_factory.hpp:77] Creating layer label_data_1_split
I0403 12:51:22.366855 26829 net.cpp:91] Creating Layer label_data_1_split
I0403 12:51:22.366874 26829 net.cpp:425] label_data_1_split <- label
I0403 12:51:22.366906 26829 net.cpp:399] label_data_1_split -> label_data_1_split_0
I0403 12:51:22.366935 26829 net.cpp:399] label_data_1_split -> label_data_1_split_1
I0403 12:51:22.366955 26829 net.cpp:399] label_data_1_split -> label_data_1_split_2
I0403 12:51:22.367017 26829 net.cpp:141] Setting up label_data_1_split
I0403 12:51:22.367041 26829 net.cpp:148] Top shape: 100 (100)
I0403 12:51:22.367058 26829 net.cpp:148] Top shape: 100 (100)
I0403 12:51:22.367075 26829 net.cpp:148] Top shape: 100 (100)
I0403 12:51:22.367090 26829 net.cpp:156] Memory required for data: 61836400
I0403 12:51:22.367106 26829 layer_factory.hpp:77] Creating layer conv1
I0403 12:51:22.367137 26829 net.cpp:91] Creating Layer conv1
I0403 12:51:22.367156 26829 net.cpp:425] conv1 <- data
I0403 12:51:22.367177 26829 net.cpp:399] conv1 -> conv1
I0403 12:51:22.507391 26829 net.cpp:141] Setting up conv1
I0403 12:51:22.507468 26829 net.cpp:148] Top shape: 100 96 55 55 (29040000)
I0403 12:51:22.507486 26829 net.cpp:156] Memory required for data: 177996400
I0403 12:51:22.507519 26829 layer_factory.hpp:77] Creating layer relu1
I0403 12:51:22.507547 26829 net.cpp:91] Creating Layer relu1
I0403 12:51:22.507566 26829 net.cpp:425] relu1 <- conv1
I0403 12:51:22.507586 26829 net.cpp:386] relu1 -> conv1 (in-place)
I0403 12:51:22.507843 26829 net.cpp:141] Setting up relu1
I0403 12:51:22.507871 26829 net.cpp:148] Top shape: 100 96 55 55 (29040000)
I0403 12:51:22.507889 26829 net.cpp:156] Memory required for data: 294156400
I0403 12:51:22.507937 26829 layer_factory.hpp:77] Creating layer norm1
I0403 12:51:22.507966 26829 net.cpp:91] Creating Layer norm1
I0403 12:51:22.507985 26829 net.cpp:425] norm1 <- conv1
I0403 12:51:22.508004 26829 net.cpp:399] norm1 -> norm1
I0403 12:51:22.508311 26829 net.cpp:141] Setting up norm1
I0403 12:51:22.508344 26829 net.cpp:148] Top shape: 100 96 55 55 (29040000)
I0403 12:51:22.508361 26829 net.cpp:156] Memory required for data: 410316400
I0403 12:51:22.508378 26829 layer_factory.hpp:77] Creating layer pool1
I0403 12:51:22.508400 26829 net.cpp:91] Creating Layer pool1
I0403 12:51:22.508419 26829 net.cpp:425] pool1 <- norm1
I0403 12:51:22.508436 26829 net.cpp:399] pool1 -> pool1
I0403 12:51:22.508504 26829 net.cpp:141] Setting up pool1
I0403 12:51:22.508530 26829 net.cpp:148] Top shape: 100 96 27 27 (6998400)
I0403 12:51:22.508546 26829 net.cpp:156] Memory required for data: 438310000
I0403 12:51:22.508563 26829 layer_factory.hpp:77] Creating layer conv2
I0403 12:51:22.508589 26829 net.cpp:91] Creating Layer conv2
I0403 12:51:22.508605 26829 net.cpp:425] conv2 <- pool1
I0403 12:51:22.508625 26829 net.cpp:399] conv2 -> conv2
I0403 12:51:22.523946 26829 net.cpp:141] Setting up conv2
I0403 12:51:22.523994 26829 net.cpp:148] Top shape: 100 256 27 27 (18662400)
I0403 12:51:22.524013 26829 net.cpp:156] Memory required for data: 512959600
I0403 12:51:22.524037 26829 layer_factory.hpp:77] Creating layer relu2
I0403 12:51:22.524060 26829 net.cpp:91] Creating Layer relu2
I0403 12:51:22.524077 26829 net.cpp:425] relu2 <- conv2
I0403 12:51:22.524098 26829 net.cpp:386] relu2 -> conv2 (in-place)
I0403 12:51:22.524389 26829 net.cpp:141] Setting up relu2
I0403 12:51:22.524420 26829 net.cpp:148] Top shape: 100 256 27 27 (18662400)
I0403 12:51:22.524436 26829 net.cpp:156] Memory required for data: 587609200
I0403 12:51:22.524453 26829 layer_factory.hpp:77] Creating layer norm2
I0403 12:51:22.524476 26829 net.cpp:91] Creating Layer norm2
I0403 12:51:22.524493 26829 net.cpp:425] norm2 <- conv2
I0403 12:51:22.524515 26829 net.cpp:399] norm2 -> norm2
I0403 12:51:22.524723 26829 net.cpp:141] Setting up norm2
I0403 12:51:22.524751 26829 net.cpp:148] Top shape: 100 256 27 27 (18662400)
I0403 12:51:22.524767 26829 net.cpp:156] Memory required for data: 662258800
I0403 12:51:22.524785 26829 layer_factory.hpp:77] Creating layer pool2
I0403 12:51:22.524806 26829 net.cpp:91] Creating Layer pool2
I0403 12:51:22.524822 26829 net.cpp:425] pool2 <- norm2
I0403 12:51:22.524842 26829 net.cpp:399] pool2 -> pool2
I0403 12:51:22.524895 26829 net.cpp:141] Setting up pool2
I0403 12:51:22.524921 26829 net.cpp:148] Top shape: 100 256 13 13 (4326400)
I0403 12:51:22.524937 26829 net.cpp:156] Memory required for data: 679564400
I0403 12:51:22.524955 26829 layer_factory.hpp:77] Creating layer conv3
I0403 12:51:22.524978 26829 net.cpp:91] Creating Layer conv3
I0403 12:51:22.524997 26829 net.cpp:425] conv3 <- pool2
I0403 12:51:22.525017 26829 net.cpp:399] conv3 -> conv3
I0403 12:51:22.569162 26829 net.cpp:141] Setting up conv3
I0403 12:51:22.569205 26829 net.cpp:148] Top shape: 100 384 13 13 (6489600)
I0403 12:51:22.569222 26829 net.cpp:156] Memory required for data: 705522800
I0403 12:51:22.569249 26829 layer_factory.hpp:77] Creating layer relu3
I0403 12:51:22.569273 26829 net.cpp:91] Creating Layer relu3
I0403 12:51:22.569293 26829 net.cpp:425] relu3 <- conv3
I0403 12:51:22.569314 26829 net.cpp:386] relu3 -> conv3 (in-place)
I0403 12:51:22.569576 26829 net.cpp:141] Setting up relu3
I0403 12:51:22.569604 26829 net.cpp:148] Top shape: 100 384 13 13 (6489600)
I0403 12:51:22.569620 26829 net.cpp:156] Memory required for data: 731481200
I0403 12:51:22.569635 26829 layer_factory.hpp:77] Creating layer conv4
I0403 12:51:22.569659 26829 net.cpp:91] Creating Layer conv4
I0403 12:51:22.569676 26829 net.cpp:425] conv4 <- conv3
I0403 12:51:22.569697 26829 net.cpp:399] conv4 -> conv4
I0403 12:51:22.599160 26829 net.cpp:141] Setting up conv4
I0403 12:51:22.599231 26829 net.cpp:148] Top shape: 100 384 13 13 (6489600)
I0403 12:51:22.599279 26829 net.cpp:156] Memory required for data: 757439600
I0403 12:51:22.599303 26829 layer_factory.hpp:77] Creating layer relu4
I0403 12:51:22.599328 26829 net.cpp:91] Creating Layer relu4
I0403 12:51:22.599349 26829 net.cpp:425] relu4 <- conv4
I0403 12:51:22.599369 26829 net.cpp:386] relu4 -> conv4 (in-place)
I0403 12:51:22.599642 26829 net.cpp:141] Setting up relu4
I0403 12:51:22.599674 26829 net.cpp:148] Top shape: 100 384 13 13 (6489600)
I0403 12:51:22.599692 26829 net.cpp:156] Memory required for data: 783398000
I0403 12:51:22.599709 26829 layer_factory.hpp:77] Creating layer conv5
I0403 12:51:22.599735 26829 net.cpp:91] Creating Layer conv5
I0403 12:51:22.599753 26829 net.cpp:425] conv5 <- conv4
I0403 12:51:22.599772 26829 net.cpp:399] conv5 -> conv5
I0403 12:51:22.620201 26829 net.cpp:141] Setting up conv5
I0403 12:51:22.620255 26829 net.cpp:148] Top shape: 100 256 13 13 (4326400)
I0403 12:51:22.620273 26829 net.cpp:156] Memory required for data: 800703600
I0403 12:51:22.620301 26829 layer_factory.hpp:77] Creating layer relu5
I0403 12:51:22.620326 26829 net.cpp:91] Creating Layer relu5
I0403 12:51:22.620347 26829 net.cpp:425] relu5 <- conv5
I0403 12:51:22.620368 26829 net.cpp:386] relu5 -> conv5 (in-place)
I0403 12:51:22.620656 26829 net.cpp:141] Setting up relu5
I0403 12:51:22.620684 26829 net.cpp:148] Top shape: 100 256 13 13 (4326400)
I0403 12:51:22.620700 26829 net.cpp:156] Memory required for data: 818009200
I0403 12:51:22.620718 26829 layer_factory.hpp:77] Creating layer pool5
I0403 12:51:22.620743 26829 net.cpp:91] Creating Layer pool5
I0403 12:51:22.620760 26829 net.cpp:425] pool5 <- conv5
I0403 12:51:22.620779 26829 net.cpp:399] pool5 -> pool5
I0403 12:51:22.620856 26829 net.cpp:141] Setting up pool5
I0403 12:51:22.620880 26829 net.cpp:148] Top shape: 100 256 6 6 (921600)
I0403 12:51:22.620895 26829 net.cpp:156] Memory required for data: 821695600
I0403 12:51:22.620911 26829 layer_factory.hpp:77] Creating layer fc6
I0403 12:51:22.620939 26829 net.cpp:91] Creating Layer fc6
I0403 12:51:22.620957 26829 net.cpp:425] fc6 <- pool5
I0403 12:51:22.620978 26829 net.cpp:399] fc6 -> fc6
I0403 12:51:24.194232 26829 net.cpp:141] Setting up fc6
I0403 12:51:24.194314 26829 net.cpp:148] Top shape: 100 4096 (409600)
I0403 12:51:24.194337 26829 net.cpp:156] Memory required for data: 823334000
I0403 12:51:24.194360 26829 layer_factory.hpp:77] Creating layer relu6
I0403 12:51:24.194382 26829 net.cpp:91] Creating Layer relu6
I0403 12:51:24.194401 26829 net.cpp:425] relu6 <- fc6
I0403 12:51:24.194421 26829 net.cpp:386] relu6 -> fc6 (in-place)
I0403 12:51:24.194644 26829 net.cpp:141] Setting up relu6
I0403 12:51:24.194674 26829 net.cpp:148] Top shape: 100 4096 (409600)
I0403 12:51:24.194689 26829 net.cpp:156] Memory required for data: 824972400
I0403 12:51:24.194705 26829 layer_factory.hpp:77] Creating layer drop6
I0403 12:51:24.194725 26829 net.cpp:91] Creating Layer drop6
I0403 12:51:24.194741 26829 net.cpp:425] drop6 <- fc6
I0403 12:51:24.194763 26829 net.cpp:386] drop6 -> fc6 (in-place)
I0403 12:51:24.194816 26829 net.cpp:141] Setting up drop6
I0403 12:51:24.194840 26829 net.cpp:148] Top shape: 100 4096 (409600)
I0403 12:51:24.194855 26829 net.cpp:156] Memory required for data: 826610800
I0403 12:51:24.194870 26829 layer_factory.hpp:77] Creating layer fc7
I0403 12:51:24.194892 26829 net.cpp:91] Creating Layer fc7
I0403 12:51:24.194910 26829 net.cpp:425] fc7 <- fc6
I0403 12:51:24.194931 26829 net.cpp:399] fc7 -> fc7
I0403 12:51:24.878206 26829 net.cpp:141] Setting up fc7
I0403 12:51:24.878281 26829 net.cpp:148] Top shape: 100 4096 (409600)
I0403 12:51:24.878299 26829 net.cpp:156] Memory required for data: 828249200
I0403 12:51:24.878326 26829 layer_factory.hpp:77] Creating layer relu7
I0403 12:51:24.878350 26829 net.cpp:91] Creating Layer relu7
I0403 12:51:24.878368 26829 net.cpp:425] relu7 <- fc7
I0403 12:51:24.878391 26829 net.cpp:386] relu7 -> fc7 (in-place)
I0403 12:51:24.878787 26829 net.cpp:141] Setting up relu7
I0403 12:51:24.878815 26829 net.cpp:148] Top shape: 100 4096 (409600)
I0403 12:51:24.878862 26829 net.cpp:156] Memory required for data: 829887600
I0403 12:51:24.878880 26829 layer_factory.hpp:77] Creating layer drop7
I0403 12:51:24.878898 26829 net.cpp:91] Creating Layer drop7
I0403 12:51:24.878913 26829 net.cpp:425] drop7 <- fc7
I0403 12:51:24.878933 26829 net.cpp:386] drop7 -> fc7 (in-place)
I0403 12:51:24.878978 26829 net.cpp:141] Setting up drop7
I0403 12:51:24.879000 26829 net.cpp:148] Top shape: 100 4096 (409600)
I0403 12:51:24.879015 26829 net.cpp:156] Memory required for data: 831526000
I0403 12:51:24.879030 26829 layer_factory.hpp:77] Creating layer fc8_plantvillage
I0403 12:51:24.879056 26829 net.cpp:91] Creating Layer fc8_plantvillage
I0403 12:51:24.879072 26829 net.cpp:425] fc8_plantvillage <- fc7
I0403 12:51:24.879093 26829 net.cpp:399] fc8_plantvillage -> fc8_plantvillage
I0403 12:51:24.885835 26829 net.cpp:141] Setting up fc8_plantvillage
I0403 12:51:24.885864 26829 net.cpp:148] Top shape: 100 38 (3800)
I0403 12:51:24.885879 26829 net.cpp:156] Memory required for data: 831541200
I0403 12:51:24.885897 26829 layer_factory.hpp:77] Creating layer fc8_plantvillage_fc8_plantvillage_0_split
I0403 12:51:24.885917 26829 net.cpp:91] Creating Layer fc8_plantvillage_fc8_plantvillage_0_split
I0403 12:51:24.885933 26829 net.cpp:425] fc8_plantvillage_fc8_plantvillage_0_split <- fc8_plantvillage
I0403 12:51:24.885953 26829 net.cpp:399] fc8_plantvillage_fc8_plantvillage_0_split -> fc8_plantvillage_fc8_plantvillage_0_split_0
I0403 12:51:24.885974 26829 net.cpp:399] fc8_plantvillage_fc8_plantvillage_0_split -> fc8_plantvillage_fc8_plantvillage_0_split_1
I0403 12:51:24.885995 26829 net.cpp:399] fc8_plantvillage_fc8_plantvillage_0_split -> fc8_plantvillage_fc8_plantvillage_0_split_2
I0403 12:51:24.886073 26829 net.cpp:141] Setting up fc8_plantvillage_fc8_plantvillage_0_split
I0403 12:51:24.886101 26829 net.cpp:148] Top shape: 100 38 (3800)
I0403 12:51:24.886116 26829 net.cpp:148] Top shape: 100 38 (3800)
I0403 12:51:24.886133 26829 net.cpp:148] Top shape: 100 38 (3800)
I0403 12:51:24.886147 26829 net.cpp:156] Memory required for data: 831586800
I0403 12:51:24.886163 26829 layer_factory.hpp:77] Creating layer prob
I0403 12:51:24.886181 26829 net.cpp:91] Creating Layer prob
I0403 12:51:24.886198 26829 net.cpp:425] prob <- fc8_plantvillage_fc8_plantvillage_0_split_0
I0403 12:51:24.886215 26829 net.cpp:399] prob -> prob
I0403 12:51:24.886441 26829 net.cpp:141] Setting up prob
I0403 12:51:24.886471 26829 net.cpp:148] Top shape: 100 38 (3800)
I0403 12:51:24.886488 26829 net.cpp:156] Memory required for data: 831602000
I0403 12:51:24.886502 26829 layer_factory.hpp:77] Creating layer hdf5out
I0403 12:51:24.886521 26829 net.cpp:91] Creating Layer hdf5out
I0403 12:51:24.886538 26829 net.cpp:425] hdf5out <- prob
I0403 12:51:24.886555 26829 net.cpp:425] hdf5out <- label_data_1_split_0
I0403 12:51:24.890838 26829 net.cpp:141] Setting up hdf5out
…
