…
I0403 12:24:56.197648 26218 net.cpp:313] The NetState phase (1) differed from the phase (0) specified by a rule in layer data
I0403 12:24:56.197955 26218 net.cpp:49] Initializing net from parameters: 
state {
  phase: TEST
}
layer {
  name: "data"
  type: "Data"
  top: "data"
  top: "label"
  include {
    phase: TEST
  }
  transform_param {
    crop_size: 227
    mean_file: "/home/mohanty/data/final_dataset/lmdb/color-40-60/mean.binaryproto"
  }
  data_param {
    source: "/home/mohanty/data/final_dataset/lmdb/color-40-60/test_db"
    batch_size: 100
    backend: LMDB
  }
}
layer {
  name: "conv1"
  type: "Convolution"
  bottom: "data"
  top: "conv1"
  param {
    lr_mult: 1
    decay_mult: 1
  }
  param {
    lr_mult: 2
    decay_mult: 0
  }
  convolution_param {
    num_output: 96
    kernel_size: 11
    stride: 4
    weight_filler {
      type: "gaussian"
      std: 0.01
    }
    bias_filler {
      type: "constant"
      value: 0
    }
  }
}
layer {
  name: "relu1"
  type: "ReLU"
  bottom: "conv1"
  top: "conv1"
}
layer {
  name: "norm1"
  type: "LRN"
  bottom: "conv1"
  top: "norm1"
  lrn_param {
    local_size: 5
    alpha: 0.0001
    beta: 0.75
  }
}
layer {
  name: "pool1"
  type: "Pooling"
  bottom: "norm1"
  top: "pool1"
  pooling_param {
    pool: MAX
    kernel_size: 3
    stride: 2
  }
}
layer {
  name: "conv2"
  type: "Convolution"
  bottom: "pool1"
  top: "conv2"
  param {
    lr_mult: 1
    decay_mult: 1
  }
  param {
    lr_mult: 2
    decay_mult: 0
  }
  convolution_param {
    num_output: 256
    pad: 2
    kernel_size: 5
    group: 2
    weight_filler {
      type: "gaussian"
      std: 0.01
    }
    bias_filler {
      type: "constant"
      value: 0.1
    }
  }
}
layer {
  name: "relu2"
  type: "ReLU"
  bottom: "conv2"
  top: "conv2"
}
layer {
  name: "norm2"
  type: "LRN"
  bottom: "conv2"
  top: "norm2"
  lrn_param {
    local_size: 5
    alpha: 0.0001
    beta: 0.75
  }
}
layer {
  name: "pool2"
  type: "Pooling"
  bottom: "norm2"
  top: "pool2"
  pooling_param {
    pool: MAX
    kernel_size: 3
    stride: 2
  }
}
layer {
  name: "conv3"
  type: "Convolution"
  bottom: "pool2"
  top: "conv3"
  param {
    lr_mult: 1
    decay_mult: 1
  }
  param {
    lr_mult: 2
    decay_mult: 0
  }
  convolution_param {
    num_output: 384
    pad: 1
    kernel_size: 3
    weight_filler {
      type: "gaussian"
      std: 0.01
    }
    bias_filler {
      type: "constant"
      value: 0
    }
  }
}
layer {
  name: "relu3"
  type: "ReLU"
  bottom: "conv3"
  top: "conv3"
}
layer {
  name: "conv4"
  type: "Convolution"
  bottom: "conv3"
  top: "conv4"
  param {
    lr_mult: 1
    decay_mult: 1
  }
  param {
    lr_mult: 2
    decay_mult: 0
  }
  convolution_param {
    num_output: 384
    pad: 1
    kernel_size: 3
    group: 2
    weight_filler {
      type: "gaussian"
      std: 0.01
    }
    bias_filler {
      type: "constant"
      value: 0.1
    }
  }
}
layer {
  name: "relu4"
  type: "ReLU"
  bottom: "conv4"
  top: "conv4"
}
layer {
  name: "conv5"
  type: "Convolution"
  bottom: "conv4"
  top: "conv5"
  param {
    lr_mult: 1
    decay_mult: 1
  }
  param {
    lr_mult: 2
    decay_mult: 0
  }
  convolution_param {
    num_output: 256
    pad: 1
    kernel_size: 3
    group: 2
    weight_filler {
      type: "gaussian"
      std: 0.01
    }
    bias_filler {
      type: "constant"
      value: 0.1
    }
  }
}
layer {
  name: "relu5"
  type: "ReLU"
  bottom: "conv5"
  top: "conv5"
}
layer {
  name: "pool5"
  type: "Pooling"
  bottom: "conv5"
  top: "pool5"
  pooling_param {
    pool: MAX
    kernel_size: 3
    stride: 2
  }
}
layer {
  name: "fc6"
  type: "InnerProduct"
  bottom: "pool5"
  top: "fc6"
  param {
    lr_mult: 1
    decay_mult: 1
  }
  param {
    lr_mult: 2
    decay_mult: 0
  }
  inner_product_param {
    num_output: 4096
    weight_filler {
      type: "gaussian"
      std: 0.005
    }
    bias_filler {
      type: "constant"
      value: 0.1
    }
  }
}
layer {
  name: "relu6"
  type: "ReLU"
  bottom: "fc6"
  top: "fc6"
}
layer {
  name: "drop6"
  type: "Dropout"
  bottom: "fc6"
  top: "fc6"
  dropout_param {
    dropout_ratio: 0.5
  }
}
layer {
  name: "fc7"
  type: "InnerProduct"
  bottom: "fc6"
  top: "fc7"
  param {
    lr_mult: 1
    decay_mult: 1
  }
  param {
    lr_mult: 2
    decay_mult: 0
  }
  inner_product_param {
    num_output: 4096
    weight_filler {
      type: "gaussian"
      std: 0.005
    }
    bias_filler {
      type: "constant"
      value: 0.1
    }
  }
}
layer {
  name: "relu7"
  type: "ReLU"
  bottom: "fc7"
  top: "fc7"
}
layer {
  name: "drop7"
  type: "Dropout"
  bottom: "fc7"
  top: "fc7"
  dropout_param {
    dropout_ratio: 0.5
  }
}
layer {
  name: "fc8_plantvillage"
  type: "InnerProduct"
  bottom: "fc7"
  top: "fc8_plantvillage"
  param {
    lr_mult: 1
    decay_mult: 1
  }
  param {
    lr_mult: 2
    decay_mult: 0
  }
  inner_product_param {
    num_output: 38
    weight_filler {
      type: "gaussian"
      std: 0.01
    }
    bias_filler {
      type: "constant"
      value: 0
    }
  }
}
layer {
  name: "prob"
  type: "Softmax"
  bottom: "fc8_plantvillage"
  top: "prob"
  include {
    phase: TEST
  }
}
layer {
  name: "hdf5out"
  type: "HDF5Output"
  bottom: "prob"
  bottom: "label"
  include {
    phase: TEST
  }
  hdf5_output_param {
    file_name: "hdf5_dumps/iter_1519.h5"
  }
}
layer {
  name: "loss"
  type: "SoftmaxWithLoss"
  bottom: "fc8_plantvillage"
  bottom: "label"
  top: "loss"
}
layer {
  name: "accuracy"
  type: "Accuracy"
  bottom: "fc8_plantvillage"
  bottom: "label"
  top: "accuracy"
  include {
    phase: TEST
  }
}
I0403 12:24:56.199240 26218 layer_factory.hpp:77] Creating layer data
I0403 12:24:56.199901 26218 net.cpp:91] Creating Layer data
I0403 12:24:56.199936 26218 net.cpp:399] data -> data
I0403 12:24:56.199990 26218 net.cpp:399] data -> label
I0403 12:24:56.200027 26218 data_transformer.cpp:25] Loading mean file from: /home/mohanty/data/final_dataset/lmdb/color-40-60/mean.binaryproto
I0403 12:24:56.202989 26221 db_lmdb.cpp:38] Opened lmdb /home/mohanty/data/final_dataset/lmdb/color-40-60/test_db
I0403 12:24:56.214511 26218 data_layer.cpp:41] output data size: 100,3,227,227
I0403 12:24:56.337450 26218 net.cpp:141] Setting up data
I0403 12:24:56.337540 26218 net.cpp:148] Top shape: 100 3 227 227 (15458700)
I0403 12:24:56.337563 26218 net.cpp:148] Top shape: 100 (100)
I0403 12:24:56.337579 26218 net.cpp:156] Memory required for data: 61835200
I0403 12:24:56.337607 26218 layer_factory.hpp:77] Creating layer label_data_1_split
I0403 12:24:56.337633 26218 net.cpp:91] Creating Layer label_data_1_split
I0403 12:24:56.337653 26218 net.cpp:425] label_data_1_split <- label
I0403 12:24:56.337685 26218 net.cpp:399] label_data_1_split -> label_data_1_split_0
I0403 12:24:56.337713 26218 net.cpp:399] label_data_1_split -> label_data_1_split_1
I0403 12:24:56.337733 26218 net.cpp:399] label_data_1_split -> label_data_1_split_2
I0403 12:24:56.337796 26218 net.cpp:141] Setting up label_data_1_split
I0403 12:24:56.337821 26218 net.cpp:148] Top shape: 100 (100)
I0403 12:24:56.337837 26218 net.cpp:148] Top shape: 100 (100)
I0403 12:24:56.337854 26218 net.cpp:148] Top shape: 100 (100)
I0403 12:24:56.337869 26218 net.cpp:156] Memory required for data: 61836400
I0403 12:24:56.337884 26218 layer_factory.hpp:77] Creating layer conv1
I0403 12:24:56.337918 26218 net.cpp:91] Creating Layer conv1
I0403 12:24:56.337936 26218 net.cpp:425] conv1 <- data
I0403 12:24:56.337956 26218 net.cpp:399] conv1 -> conv1
I0403 12:24:56.481292 26218 net.cpp:141] Setting up conv1
I0403 12:24:56.481374 26218 net.cpp:148] Top shape: 100 96 55 55 (29040000)
I0403 12:24:56.481395 26218 net.cpp:156] Memory required for data: 177996400
I0403 12:24:56.481427 26218 layer_factory.hpp:77] Creating layer relu1
I0403 12:24:56.481457 26218 net.cpp:91] Creating Layer relu1
I0403 12:24:56.481477 26218 net.cpp:425] relu1 <- conv1
I0403 12:24:56.481497 26218 net.cpp:386] relu1 -> conv1 (in-place)
I0403 12:24:56.481789 26218 net.cpp:141] Setting up relu1
I0403 12:24:56.481822 26218 net.cpp:148] Top shape: 100 96 55 55 (29040000)
I0403 12:24:56.481842 26218 net.cpp:156] Memory required for data: 294156400
I0403 12:24:56.481892 26218 layer_factory.hpp:77] Creating layer norm1
I0403 12:24:56.481922 26218 net.cpp:91] Creating Layer norm1
I0403 12:24:56.481942 26218 net.cpp:425] norm1 <- conv1
I0403 12:24:56.481963 26218 net.cpp:399] norm1 -> norm1
I0403 12:24:56.482311 26218 net.cpp:141] Setting up norm1
I0403 12:24:56.482341 26218 net.cpp:148] Top shape: 100 96 55 55 (29040000)
I0403 12:24:56.482363 26218 net.cpp:156] Memory required for data: 410316400
I0403 12:24:56.482381 26218 layer_factory.hpp:77] Creating layer pool1
I0403 12:24:56.482404 26218 net.cpp:91] Creating Layer pool1
I0403 12:24:56.482424 26218 net.cpp:425] pool1 <- norm1
I0403 12:24:56.482445 26218 net.cpp:399] pool1 -> pool1
I0403 12:24:56.482518 26218 net.cpp:141] Setting up pool1
I0403 12:24:56.482544 26218 net.cpp:148] Top shape: 100 96 27 27 (6998400)
I0403 12:24:56.482561 26218 net.cpp:156] Memory required for data: 438310000
I0403 12:24:56.482578 26218 layer_factory.hpp:77] Creating layer conv2
I0403 12:24:56.482606 26218 net.cpp:91] Creating Layer conv2
I0403 12:24:56.482626 26218 net.cpp:425] conv2 <- pool1
I0403 12:24:56.482645 26218 net.cpp:399] conv2 -> conv2
I0403 12:24:56.498181 26218 net.cpp:141] Setting up conv2
I0403 12:24:56.498222 26218 net.cpp:148] Top shape: 100 256 27 27 (18662400)
I0403 12:24:56.498241 26218 net.cpp:156] Memory required for data: 512959600
I0403 12:24:56.498265 26218 layer_factory.hpp:77] Creating layer relu2
I0403 12:24:56.498286 26218 net.cpp:91] Creating Layer relu2
I0403 12:24:56.498303 26218 net.cpp:425] relu2 <- conv2
I0403 12:24:56.498324 26218 net.cpp:386] relu2 -> conv2 (in-place)
I0403 12:24:56.498617 26218 net.cpp:141] Setting up relu2
I0403 12:24:56.498646 26218 net.cpp:148] Top shape: 100 256 27 27 (18662400)
I0403 12:24:56.498662 26218 net.cpp:156] Memory required for data: 587609200
I0403 12:24:56.498677 26218 layer_factory.hpp:77] Creating layer norm2
I0403 12:24:56.498702 26218 net.cpp:91] Creating Layer norm2
I0403 12:24:56.498719 26218 net.cpp:425] norm2 <- conv2
I0403 12:24:56.498739 26218 net.cpp:399] norm2 -> norm2
I0403 12:24:56.498958 26218 net.cpp:141] Setting up norm2
I0403 12:24:56.498987 26218 net.cpp:148] Top shape: 100 256 27 27 (18662400)
I0403 12:24:56.499003 26218 net.cpp:156] Memory required for data: 662258800
I0403 12:24:56.499020 26218 layer_factory.hpp:77] Creating layer pool2
I0403 12:24:56.499040 26218 net.cpp:91] Creating Layer pool2
I0403 12:24:56.499056 26218 net.cpp:425] pool2 <- norm2
I0403 12:24:56.499078 26218 net.cpp:399] pool2 -> pool2
I0403 12:24:56.499135 26218 net.cpp:141] Setting up pool2
I0403 12:24:56.499158 26218 net.cpp:148] Top shape: 100 256 13 13 (4326400)
I0403 12:24:56.499174 26218 net.cpp:156] Memory required for data: 679564400
I0403 12:24:56.499191 26218 layer_factory.hpp:77] Creating layer conv3
I0403 12:24:56.499213 26218 net.cpp:91] Creating Layer conv3
I0403 12:24:56.499231 26218 net.cpp:425] conv3 <- pool2
I0403 12:24:56.499253 26218 net.cpp:399] conv3 -> conv3
I0403 12:24:56.538952 26218 net.cpp:141] Setting up conv3
I0403 12:24:56.539029 26218 net.cpp:148] Top shape: 100 384 13 13 (6489600)
I0403 12:24:56.539048 26218 net.cpp:156] Memory required for data: 705522800
I0403 12:24:56.539075 26218 layer_factory.hpp:77] Creating layer relu3
I0403 12:24:56.539098 26218 net.cpp:91] Creating Layer relu3
I0403 12:24:56.539116 26218 net.cpp:425] relu3 <- conv3
I0403 12:24:56.539139 26218 net.cpp:386] relu3 -> conv3 (in-place)
I0403 12:24:56.539433 26218 net.cpp:141] Setting up relu3
I0403 12:24:56.539464 26218 net.cpp:148] Top shape: 100 384 13 13 (6489600)
I0403 12:24:56.539481 26218 net.cpp:156] Memory required for data: 731481200
I0403 12:24:56.539499 26218 layer_factory.hpp:77] Creating layer conv4
I0403 12:24:56.539528 26218 net.cpp:91] Creating Layer conv4
I0403 12:24:56.539548 26218 net.cpp:425] conv4 <- conv3
I0403 12:24:56.539572 26218 net.cpp:399] conv4 -> conv4
I0403 12:24:56.575862 26218 net.cpp:141] Setting up conv4
I0403 12:24:56.575932 26218 net.cpp:148] Top shape: 100 384 13 13 (6489600)
I0403 12:24:56.575983 26218 net.cpp:156] Memory required for data: 757439600
I0403 12:24:56.576006 26218 layer_factory.hpp:77] Creating layer relu4
I0403 12:24:56.576028 26218 net.cpp:91] Creating Layer relu4
I0403 12:24:56.576047 26218 net.cpp:425] relu4 <- conv4
I0403 12:24:56.576068 26218 net.cpp:386] relu4 -> conv4 (in-place)
I0403 12:24:56.576372 26218 net.cpp:141] Setting up relu4
I0403 12:24:56.576403 26218 net.cpp:148] Top shape: 100 384 13 13 (6489600)
I0403 12:24:56.576421 26218 net.cpp:156] Memory required for data: 783398000
I0403 12:24:56.576436 26218 layer_factory.hpp:77] Creating layer conv5
I0403 12:24:56.576464 26218 net.cpp:91] Creating Layer conv5
I0403 12:24:56.576484 26218 net.cpp:425] conv5 <- conv4
I0403 12:24:56.576504 26218 net.cpp:399] conv5 -> conv5
I0403 12:24:56.597662 26218 net.cpp:141] Setting up conv5
I0403 12:24:56.597720 26218 net.cpp:148] Top shape: 100 256 13 13 (4326400)
I0403 12:24:56.597739 26218 net.cpp:156] Memory required for data: 800703600
I0403 12:24:56.597765 26218 layer_factory.hpp:77] Creating layer relu5
I0403 12:24:56.597787 26218 net.cpp:91] Creating Layer relu5
I0403 12:24:56.597805 26218 net.cpp:425] relu5 <- conv5
I0403 12:24:56.597827 26218 net.cpp:386] relu5 -> conv5 (in-place)
I0403 12:24:56.598126 26218 net.cpp:141] Setting up relu5
I0403 12:24:56.598155 26218 net.cpp:148] Top shape: 100 256 13 13 (4326400)
I0403 12:24:56.598171 26218 net.cpp:156] Memory required for data: 818009200
I0403 12:24:56.598188 26218 layer_factory.hpp:77] Creating layer pool5
I0403 12:24:56.598214 26218 net.cpp:91] Creating Layer pool5
I0403 12:24:56.598232 26218 net.cpp:425] pool5 <- conv5
I0403 12:24:56.598253 26218 net.cpp:399] pool5 -> pool5
I0403 12:24:56.598317 26218 net.cpp:141] Setting up pool5
I0403 12:24:56.598343 26218 net.cpp:148] Top shape: 100 256 6 6 (921600)
I0403 12:24:56.598366 26218 net.cpp:156] Memory required for data: 821695600
I0403 12:24:56.598381 26218 layer_factory.hpp:77] Creating layer fc6
I0403 12:24:56.598409 26218 net.cpp:91] Creating Layer fc6
I0403 12:24:56.598428 26218 net.cpp:425] fc6 <- pool5
I0403 12:24:56.598450 26218 net.cpp:399] fc6 -> fc6
I0403 12:24:58.184402 26218 net.cpp:141] Setting up fc6
I0403 12:24:58.184478 26218 net.cpp:148] Top shape: 100 4096 (409600)
I0403 12:24:58.184496 26218 net.cpp:156] Memory required for data: 823334000
I0403 12:24:58.184517 26218 layer_factory.hpp:77] Creating layer relu6
I0403 12:24:58.184540 26218 net.cpp:91] Creating Layer relu6
I0403 12:24:58.184558 26218 net.cpp:425] relu6 <- fc6
I0403 12:24:58.184578 26218 net.cpp:386] relu6 -> fc6 (in-place)
I0403 12:24:58.184794 26218 net.cpp:141] Setting up relu6
I0403 12:24:58.184821 26218 net.cpp:148] Top shape: 100 4096 (409600)
I0403 12:24:58.184837 26218 net.cpp:156] Memory required for data: 824972400
I0403 12:24:58.184851 26218 layer_factory.hpp:77] Creating layer drop6
I0403 12:24:58.184870 26218 net.cpp:91] Creating Layer drop6
I0403 12:24:58.184886 26218 net.cpp:425] drop6 <- fc6
I0403 12:24:58.184906 26218 net.cpp:386] drop6 -> fc6 (in-place)
I0403 12:24:58.184955 26218 net.cpp:141] Setting up drop6
I0403 12:24:58.184979 26218 net.cpp:148] Top shape: 100 4096 (409600)
I0403 12:24:58.184994 26218 net.cpp:156] Memory required for data: 826610800
I0403 12:24:58.185009 26218 layer_factory.hpp:77] Creating layer fc7
I0403 12:24:58.185031 26218 net.cpp:91] Creating Layer fc7
I0403 12:24:58.185048 26218 net.cpp:425] fc7 <- fc6
I0403 12:24:58.185068 26218 net.cpp:399] fc7 -> fc7
I0403 12:24:58.875632 26218 net.cpp:141] Setting up fc7
I0403 12:24:58.875704 26218 net.cpp:148] Top shape: 100 4096 (409600)
I0403 12:24:58.875720 26218 net.cpp:156] Memory required for data: 828249200
I0403 12:24:58.875741 26218 layer_factory.hpp:77] Creating layer relu7
I0403 12:24:58.875764 26218 net.cpp:91] Creating Layer relu7
I0403 12:24:58.875782 26218 net.cpp:425] relu7 <- fc7
I0403 12:24:58.875802 26218 net.cpp:386] relu7 -> fc7 (in-place)
I0403 12:24:58.876204 26218 net.cpp:141] Setting up relu7
I0403 12:24:58.876230 26218 net.cpp:148] Top shape: 100 4096 (409600)
I0403 12:24:58.876278 26218 net.cpp:156] Memory required for data: 829887600
I0403 12:24:58.876294 26218 layer_factory.hpp:77] Creating layer drop7
I0403 12:24:58.876313 26218 net.cpp:91] Creating Layer drop7
I0403 12:24:58.876330 26218 net.cpp:425] drop7 <- fc7
I0403 12:24:58.876355 26218 net.cpp:386] drop7 -> fc7 (in-place)
I0403 12:24:58.876400 26218 net.cpp:141] Setting up drop7
I0403 12:24:58.876423 26218 net.cpp:148] Top shape: 100 4096 (409600)
I0403 12:24:58.876438 26218 net.cpp:156] Memory required for data: 831526000
I0403 12:24:58.876454 26218 layer_factory.hpp:77] Creating layer fc8_plantvillage
I0403 12:24:58.876477 26218 net.cpp:91] Creating Layer fc8_plantvillage
I0403 12:24:58.876493 26218 net.cpp:425] fc8_plantvillage <- fc7
I0403 12:24:58.876515 26218 net.cpp:399] fc8_plantvillage -> fc8_plantvillage
I0403 12:24:58.883566 26218 net.cpp:141] Setting up fc8_plantvillage
I0403 12:24:58.883596 26218 net.cpp:148] Top shape: 100 38 (3800)
I0403 12:24:58.883613 26218 net.cpp:156] Memory required for data: 831541200
I0403 12:24:58.883631 26218 layer_factory.hpp:77] Creating layer fc8_plantvillage_fc8_plantvillage_0_split
I0403 12:24:58.883652 26218 net.cpp:91] Creating Layer fc8_plantvillage_fc8_plantvillage_0_split
I0403 12:24:58.883669 26218 net.cpp:425] fc8_plantvillage_fc8_plantvillage_0_split <- fc8_plantvillage
I0403 12:24:58.883690 26218 net.cpp:399] fc8_plantvillage_fc8_plantvillage_0_split -> fc8_plantvillage_fc8_plantvillage_0_split_0
I0403 12:24:58.883713 26218 net.cpp:399] fc8_plantvillage_fc8_plantvillage_0_split -> fc8_plantvillage_fc8_plantvillage_0_split_1
I0403 12:24:58.883734 26218 net.cpp:399] fc8_plantvillage_fc8_plantvillage_0_split -> fc8_plantvillage_fc8_plantvillage_0_split_2
I0403 12:24:58.883815 26218 net.cpp:141] Setting up fc8_plantvillage_fc8_plantvillage_0_split
I0403 12:24:58.883841 26218 net.cpp:148] Top shape: 100 38 (3800)
I0403 12:24:58.883860 26218 net.cpp:148] Top shape: 100 38 (3800)
I0403 12:24:58.883877 26218 net.cpp:148] Top shape: 100 38 (3800)
I0403 12:24:58.883891 26218 net.cpp:156] Memory required for data: 831586800
I0403 12:24:58.883906 26218 layer_factory.hpp:77] Creating layer prob
I0403 12:24:58.883925 26218 net.cpp:91] Creating Layer prob
I0403 12:24:58.883941 26218 net.cpp:425] prob <- fc8_plantvillage_fc8_plantvillage_0_split_0
I0403 12:24:58.883960 26218 net.cpp:399] prob -> prob
I0403 12:24:58.884191 26218 net.cpp:141] Setting up prob
I0403 12:24:58.884220 26218 net.cpp:148] Top shape: 100 38 (3800)
I0403 12:24:58.884237 26218 net.cpp:156] Memory required for data: 831602000
I0403 12:24:58.884253 26218 layer_factory.hpp:77] Creating layer hdf5out
I0403 12:24:58.884273 26218 net.cpp:91] Creating Layer hdf5out
I0403 12:24:58.884289 26218 net.cpp:425] hdf5out <- prob
I0403 12:24:58.884305 26218 net.cpp:425] hdf5out <- label_data_1_split_0
I0403 12:24:58.888543 26218 net.cpp:141] Setting up hdf5out
…
