…
I0403 12:45:51.807510 26702 net.cpp:313] The NetState phase (1) differed from the phase (0) specified by a rule in layer data
I0403 12:45:51.807804 26702 net.cpp:49] Initializing net from parameters: 
state {
  phase: TEST
}
layer {
  name: "data"
  type: "Data"
  top: "data"
  top: "label"
  include {
    phase: TEST
  }
  transform_param {
    crop_size: 227
    mean_file: "/home/mohanty/data/final_dataset/lmdb/color-40-60/mean.binaryproto"
  }
  data_param {
    source: "/home/mohanty/data/final_dataset/lmdb/color-40-60/test_db"
    batch_size: 100
    backend: LMDB
  }
}
layer {
  name: "conv1"
  type: "Convolution"
  bottom: "data"
  top: "conv1"
  param {
    lr_mult: 1
    decay_mult: 1
  }
  param {
    lr_mult: 2
    decay_mult: 0
  }
  convolution_param {
    num_output: 96
    kernel_size: 11
    stride: 4
    weight_filler {
      type: "gaussian"
      std: 0.01
    }
    bias_filler {
      type: "constant"
      value: 0
    }
  }
}
layer {
  name: "relu1"
  type: "ReLU"
  bottom: "conv1"
  top: "conv1"
}
layer {
  name: "norm1"
  type: "LRN"
  bottom: "conv1"
  top: "norm1"
  lrn_param {
    local_size: 5
    alpha: 0.0001
    beta: 0.75
  }
}
layer {
  name: "pool1"
  type: "Pooling"
  bottom: "norm1"
  top: "pool1"
  pooling_param {
    pool: MAX
    kernel_size: 3
    stride: 2
  }
}
layer {
  name: "conv2"
  type: "Convolution"
  bottom: "pool1"
  top: "conv2"
  param {
    lr_mult: 1
    decay_mult: 1
  }
  param {
    lr_mult: 2
    decay_mult: 0
  }
  convolution_param {
    num_output: 256
    pad: 2
    kernel_size: 5
    group: 2
    weight_filler {
      type: "gaussian"
      std: 0.01
    }
    bias_filler {
      type: "constant"
      value: 0.1
    }
  }
}
layer {
  name: "relu2"
  type: "ReLU"
  bottom: "conv2"
  top: "conv2"
}
layer {
  name: "norm2"
  type: "LRN"
  bottom: "conv2"
  top: "norm2"
  lrn_param {
    local_size: 5
    alpha: 0.0001
    beta: 0.75
  }
}
layer {
  name: "pool2"
  type: "Pooling"
  bottom: "norm2"
  top: "pool2"
  pooling_param {
    pool: MAX
    kernel_size: 3
    stride: 2
  }
}
layer {
  name: "conv3"
  type: "Convolution"
  bottom: "pool2"
  top: "conv3"
  param {
    lr_mult: 1
    decay_mult: 1
  }
  param {
    lr_mult: 2
    decay_mult: 0
  }
  convolution_param {
    num_output: 384
    pad: 1
    kernel_size: 3
    weight_filler {
      type: "gaussian"
      std: 0.01
    }
    bias_filler {
      type: "constant"
      value: 0
    }
  }
}
layer {
  name: "relu3"
  type: "ReLU"
  bottom: "conv3"
  top: "conv3"
}
layer {
  name: "conv4"
  type: "Convolution"
  bottom: "conv3"
  top: "conv4"
  param {
    lr_mult: 1
    decay_mult: 1
  }
  param {
    lr_mult: 2
    decay_mult: 0
  }
  convolution_param {
    num_output: 384
    pad: 1
    kernel_size: 3
    group: 2
    weight_filler {
      type: "gaussian"
      std: 0.01
    }
    bias_filler {
      type: "constant"
      value: 0.1
    }
  }
}
layer {
  name: "relu4"
  type: "ReLU"
  bottom: "conv4"
  top: "conv4"
}
layer {
  name: "conv5"
  type: "Convolution"
  bottom: "conv4"
  top: "conv5"
  param {
    lr_mult: 1
    decay_mult: 1
  }
  param {
    lr_mult: 2
    decay_mult: 0
  }
  convolution_param {
    num_output: 256
    pad: 1
    kernel_size: 3
    group: 2
    weight_filler {
      type: "gaussian"
      std: 0.01
    }
    bias_filler {
      type: "constant"
      value: 0.1
    }
  }
}
layer {
  name: "relu5"
  type: "ReLU"
  bottom: "conv5"
  top: "conv5"
}
layer {
  name: "pool5"
  type: "Pooling"
  bottom: "conv5"
  top: "pool5"
  pooling_param {
    pool: MAX
    kernel_size: 3
    stride: 2
  }
}
layer {
  name: "fc6"
  type: "InnerProduct"
  bottom: "pool5"
  top: "fc6"
  param {
    lr_mult: 1
    decay_mult: 1
  }
  param {
    lr_mult: 2
    decay_mult: 0
  }
  inner_product_param {
    num_output: 4096
    weight_filler {
      type: "gaussian"
      std: 0.005
    }
    bias_filler {
      type: "constant"
      value: 0.1
    }
  }
}
layer {
  name: "relu6"
  type: "ReLU"
  bottom: "fc6"
  top: "fc6"
}
layer {
  name: "drop6"
  type: "Dropout"
  bottom: "fc6"
  top: "fc6"
  dropout_param {
    dropout_ratio: 0.5
  }
}
layer {
  name: "fc7"
  type: "InnerProduct"
  bottom: "fc6"
  top: "fc7"
  param {
    lr_mult: 1
    decay_mult: 1
  }
  param {
    lr_mult: 2
    decay_mult: 0
  }
  inner_product_param {
    num_output: 4096
    weight_filler {
      type: "gaussian"
      std: 0.005
    }
    bias_filler {
      type: "constant"
      value: 0.1
    }
  }
}
layer {
  name: "relu7"
  type: "ReLU"
  bottom: "fc7"
  top: "fc7"
}
layer {
  name: "drop7"
  type: "Dropout"
  bottom: "fc7"
  top: "fc7"
  dropout_param {
    dropout_ratio: 0.5
  }
}
layer {
  name: "fc8_plantvillage"
  type: "InnerProduct"
  bottom: "fc7"
  top: "fc8_plantvillage"
  param {
    lr_mult: 1
    decay_mult: 1
  }
  param {
    lr_mult: 2
    decay_mult: 0
  }
  inner_product_param {
    num_output: 38
    weight_filler {
      type: "gaussian"
      std: 0.01
    }
    bias_filler {
      type: "constant"
      value: 0
    }
  }
}
layer {
  name: "prob"
  type: "Softmax"
  bottom: "fc8_plantvillage"
  top: "prob"
  include {
    phase: TEST
  }
}
layer {
  name: "hdf5out"
  type: "HDF5Output"
  bottom: "prob"
  bottom: "label"
  include {
    phase: TEST
  }
  hdf5_output_param {
    file_name: "hdf5_dumps/iter_5642.h5"
  }
}
layer {
  name: "loss"
  type: "SoftmaxWithLoss"
  bottom: "fc8_plantvillage"
  bottom: "label"
  top: "loss"
}
layer {
  name: "accuracy"
  type: "Accuracy"
  bottom: "fc8_plantvillage"
  bottom: "label"
  top: "accuracy"
  include {
    phase: TEST
  }
}
I0403 12:45:51.808403 26702 layer_factory.hpp:77] Creating layer data
I0403 12:45:51.809072 26702 net.cpp:91] Creating Layer data
I0403 12:45:51.809106 26702 net.cpp:399] data -> data
I0403 12:45:51.809172 26702 net.cpp:399] data -> label
I0403 12:45:51.809209 26702 data_transformer.cpp:25] Loading mean file from: /home/mohanty/data/final_dataset/lmdb/color-40-60/mean.binaryproto
I0403 12:45:51.812080 26705 db_lmdb.cpp:38] Opened lmdb /home/mohanty/data/final_dataset/lmdb/color-40-60/test_db
I0403 12:45:51.823611 26702 data_layer.cpp:41] output data size: 100,3,227,227
I0403 12:45:51.948470 26702 net.cpp:141] Setting up data
I0403 12:45:51.948531 26702 net.cpp:148] Top shape: 100 3 227 227 (15458700)
I0403 12:45:51.948566 26702 net.cpp:148] Top shape: 100 (100)
I0403 12:45:51.948582 26702 net.cpp:156] Memory required for data: 61835200
I0403 12:45:51.948611 26702 layer_factory.hpp:77] Creating layer label_data_1_split
I0403 12:45:51.948639 26702 net.cpp:91] Creating Layer label_data_1_split
I0403 12:45:51.948658 26702 net.cpp:425] label_data_1_split <- label
I0403 12:45:51.948693 26702 net.cpp:399] label_data_1_split -> label_data_1_split_0
I0403 12:45:51.948721 26702 net.cpp:399] label_data_1_split -> label_data_1_split_1
I0403 12:45:51.948743 26702 net.cpp:399] label_data_1_split -> label_data_1_split_2
I0403 12:45:51.948808 26702 net.cpp:141] Setting up label_data_1_split
I0403 12:45:51.948833 26702 net.cpp:148] Top shape: 100 (100)
I0403 12:45:51.948851 26702 net.cpp:148] Top shape: 100 (100)
I0403 12:45:51.948868 26702 net.cpp:148] Top shape: 100 (100)
I0403 12:45:51.948884 26702 net.cpp:156] Memory required for data: 61836400
I0403 12:45:51.948899 26702 layer_factory.hpp:77] Creating layer conv1
I0403 12:45:51.948931 26702 net.cpp:91] Creating Layer conv1
I0403 12:45:51.948951 26702 net.cpp:425] conv1 <- data
I0403 12:45:51.948971 26702 net.cpp:399] conv1 -> conv1
I0403 12:45:52.096096 26702 net.cpp:141] Setting up conv1
I0403 12:45:52.096174 26702 net.cpp:148] Top shape: 100 96 55 55 (29040000)
I0403 12:45:52.096192 26702 net.cpp:156] Memory required for data: 177996400
I0403 12:45:52.096225 26702 layer_factory.hpp:77] Creating layer relu1
I0403 12:45:52.096253 26702 net.cpp:91] Creating Layer relu1
I0403 12:45:52.096273 26702 net.cpp:425] relu1 <- conv1
I0403 12:45:52.096294 26702 net.cpp:386] relu1 -> conv1 (in-place)
I0403 12:45:52.096567 26702 net.cpp:141] Setting up relu1
I0403 12:45:52.096596 26702 net.cpp:148] Top shape: 100 96 55 55 (29040000)
I0403 12:45:52.096612 26702 net.cpp:156] Memory required for data: 294156400
I0403 12:45:52.096662 26702 layer_factory.hpp:77] Creating layer norm1
I0403 12:45:52.096693 26702 net.cpp:91] Creating Layer norm1
I0403 12:45:52.096712 26702 net.cpp:425] norm1 <- conv1
I0403 12:45:52.096735 26702 net.cpp:399] norm1 -> norm1
I0403 12:45:52.097065 26702 net.cpp:141] Setting up norm1
I0403 12:45:52.097096 26702 net.cpp:148] Top shape: 100 96 55 55 (29040000)
I0403 12:45:52.097115 26702 net.cpp:156] Memory required for data: 410316400
I0403 12:45:52.097129 26702 layer_factory.hpp:77] Creating layer pool1
I0403 12:45:52.097154 26702 net.cpp:91] Creating Layer pool1
I0403 12:45:52.097172 26702 net.cpp:425] pool1 <- norm1
I0403 12:45:52.097193 26702 net.cpp:399] pool1 -> pool1
I0403 12:45:52.097265 26702 net.cpp:141] Setting up pool1
I0403 12:45:52.097292 26702 net.cpp:148] Top shape: 100 96 27 27 (6998400)
I0403 12:45:52.097311 26702 net.cpp:156] Memory required for data: 438310000
I0403 12:45:52.097326 26702 layer_factory.hpp:77] Creating layer conv2
I0403 12:45:52.097357 26702 net.cpp:91] Creating Layer conv2
I0403 12:45:52.097378 26702 net.cpp:425] conv2 <- pool1
I0403 12:45:52.097401 26702 net.cpp:399] conv2 -> conv2
I0403 12:45:52.112743 26702 net.cpp:141] Setting up conv2
I0403 12:45:52.112794 26702 net.cpp:148] Top shape: 100 256 27 27 (18662400)
I0403 12:45:52.112812 26702 net.cpp:156] Memory required for data: 512959600
I0403 12:45:52.112836 26702 layer_factory.hpp:77] Creating layer relu2
I0403 12:45:52.112856 26702 net.cpp:91] Creating Layer relu2
I0403 12:45:52.112874 26702 net.cpp:425] relu2 <- conv2
I0403 12:45:52.112893 26702 net.cpp:386] relu2 -> conv2 (in-place)
I0403 12:45:52.113179 26702 net.cpp:141] Setting up relu2
I0403 12:45:52.113207 26702 net.cpp:148] Top shape: 100 256 27 27 (18662400)
I0403 12:45:52.113224 26702 net.cpp:156] Memory required for data: 587609200
I0403 12:45:52.113240 26702 layer_factory.hpp:77] Creating layer norm2
I0403 12:45:52.113266 26702 net.cpp:91] Creating Layer norm2
I0403 12:45:52.113284 26702 net.cpp:425] norm2 <- conv2
I0403 12:45:52.113313 26702 net.cpp:399] norm2 -> norm2
I0403 12:45:52.113543 26702 net.cpp:141] Setting up norm2
I0403 12:45:52.113574 26702 net.cpp:148] Top shape: 100 256 27 27 (18662400)
I0403 12:45:52.113600 26702 net.cpp:156] Memory required for data: 662258800
I0403 12:45:52.113616 26702 layer_factory.hpp:77] Creating layer pool2
I0403 12:45:52.113636 26702 net.cpp:91] Creating Layer pool2
I0403 12:45:52.113652 26702 net.cpp:425] pool2 <- norm2
I0403 12:45:52.113670 26702 net.cpp:399] pool2 -> pool2
I0403 12:45:52.113728 26702 net.cpp:141] Setting up pool2
I0403 12:45:52.113754 26702 net.cpp:148] Top shape: 100 256 13 13 (4326400)
I0403 12:45:52.113768 26702 net.cpp:156] Memory required for data: 679564400
I0403 12:45:52.113785 26702 layer_factory.hpp:77] Creating layer conv3
I0403 12:45:52.113809 26702 net.cpp:91] Creating Layer conv3
I0403 12:45:52.113826 26702 net.cpp:425] conv3 <- pool2
I0403 12:45:52.113848 26702 net.cpp:399] conv3 -> conv3
I0403 12:45:52.153836 26702 net.cpp:141] Setting up conv3
I0403 12:45:52.153908 26702 net.cpp:148] Top shape: 100 384 13 13 (6489600)
I0403 12:45:52.153925 26702 net.cpp:156] Memory required for data: 705522800
I0403 12:45:52.153951 26702 layer_factory.hpp:77] Creating layer relu3
I0403 12:45:52.153975 26702 net.cpp:91] Creating Layer relu3
I0403 12:45:52.153992 26702 net.cpp:425] relu3 <- conv3
I0403 12:45:52.154013 26702 net.cpp:386] relu3 -> conv3 (in-place)
I0403 12:45:52.154292 26702 net.cpp:141] Setting up relu3
I0403 12:45:52.154323 26702 net.cpp:148] Top shape: 100 384 13 13 (6489600)
I0403 12:45:52.154340 26702 net.cpp:156] Memory required for data: 731481200
I0403 12:45:52.154362 26702 layer_factory.hpp:77] Creating layer conv4
I0403 12:45:52.154392 26702 net.cpp:91] Creating Layer conv4
I0403 12:45:52.154409 26702 net.cpp:425] conv4 <- conv3
I0403 12:45:52.154429 26702 net.cpp:399] conv4 -> conv4
I0403 12:45:52.184732 26702 net.cpp:141] Setting up conv4
I0403 12:45:52.184798 26702 net.cpp:148] Top shape: 100 384 13 13 (6489600)
I0403 12:45:52.184846 26702 net.cpp:156] Memory required for data: 757439600
I0403 12:45:52.184870 26702 layer_factory.hpp:77] Creating layer relu4
I0403 12:45:52.184895 26702 net.cpp:91] Creating Layer relu4
I0403 12:45:52.184914 26702 net.cpp:425] relu4 <- conv4
I0403 12:45:52.184933 26702 net.cpp:386] relu4 -> conv4 (in-place)
I0403 12:45:52.185209 26702 net.cpp:141] Setting up relu4
I0403 12:45:52.185236 26702 net.cpp:148] Top shape: 100 384 13 13 (6489600)
I0403 12:45:52.185252 26702 net.cpp:156] Memory required for data: 783398000
I0403 12:45:52.185267 26702 layer_factory.hpp:77] Creating layer conv5
I0403 12:45:52.185293 26702 net.cpp:91] Creating Layer conv5
I0403 12:45:52.185312 26702 net.cpp:425] conv5 <- conv4
I0403 12:45:52.185330 26702 net.cpp:399] conv5 -> conv5
I0403 12:45:52.205914 26702 net.cpp:141] Setting up conv5
I0403 12:45:52.205962 26702 net.cpp:148] Top shape: 100 256 13 13 (4326400)
I0403 12:45:52.205981 26702 net.cpp:156] Memory required for data: 800703600
I0403 12:45:52.206006 26702 layer_factory.hpp:77] Creating layer relu5
I0403 12:45:52.206027 26702 net.cpp:91] Creating Layer relu5
I0403 12:45:52.206043 26702 net.cpp:425] relu5 <- conv5
I0403 12:45:52.206061 26702 net.cpp:386] relu5 -> conv5 (in-place)
I0403 12:45:52.206358 26702 net.cpp:141] Setting up relu5
I0403 12:45:52.206389 26702 net.cpp:148] Top shape: 100 256 13 13 (4326400)
I0403 12:45:52.206405 26702 net.cpp:156] Memory required for data: 818009200
I0403 12:45:52.206420 26702 layer_factory.hpp:77] Creating layer pool5
I0403 12:45:52.206442 26702 net.cpp:91] Creating Layer pool5
I0403 12:45:52.206460 26702 net.cpp:425] pool5 <- conv5
I0403 12:45:52.206481 26702 net.cpp:399] pool5 -> pool5
I0403 12:45:52.206545 26702 net.cpp:141] Setting up pool5
I0403 12:45:52.206570 26702 net.cpp:148] Top shape: 100 256 6 6 (921600)
I0403 12:45:52.206585 26702 net.cpp:156] Memory required for data: 821695600
I0403 12:45:52.206600 26702 layer_factory.hpp:77] Creating layer fc6
I0403 12:45:52.206663 26702 net.cpp:91] Creating Layer fc6
I0403 12:45:52.206686 26702 net.cpp:425] fc6 <- pool5
I0403 12:45:52.206712 26702 net.cpp:399] fc6 -> fc6
I0403 12:45:53.793997 26702 net.cpp:141] Setting up fc6
I0403 12:45:53.794076 26702 net.cpp:148] Top shape: 100 4096 (409600)
I0403 12:45:53.794093 26702 net.cpp:156] Memory required for data: 823334000
I0403 12:45:53.794116 26702 layer_factory.hpp:77] Creating layer relu6
I0403 12:45:53.794140 26702 net.cpp:91] Creating Layer relu6
I0403 12:45:53.794158 26702 net.cpp:425] relu6 <- fc6
I0403 12:45:53.794178 26702 net.cpp:386] relu6 -> fc6 (in-place)
I0403 12:45:53.794410 26702 net.cpp:141] Setting up relu6
I0403 12:45:53.794438 26702 net.cpp:148] Top shape: 100 4096 (409600)
I0403 12:45:53.794455 26702 net.cpp:156] Memory required for data: 824972400
I0403 12:45:53.794471 26702 layer_factory.hpp:77] Creating layer drop6
I0403 12:45:53.794491 26702 net.cpp:91] Creating Layer drop6
I0403 12:45:53.794507 26702 net.cpp:425] drop6 <- fc6
I0403 12:45:53.794523 26702 net.cpp:386] drop6 -> fc6 (in-place)
I0403 12:45:53.794579 26702 net.cpp:141] Setting up drop6
I0403 12:45:53.794602 26702 net.cpp:148] Top shape: 100 4096 (409600)
I0403 12:45:53.794617 26702 net.cpp:156] Memory required for data: 826610800
I0403 12:45:53.794632 26702 layer_factory.hpp:77] Creating layer fc7
I0403 12:45:53.794656 26702 net.cpp:91] Creating Layer fc7
I0403 12:45:53.794673 26702 net.cpp:425] fc7 <- fc6
I0403 12:45:53.794690 26702 net.cpp:399] fc7 -> fc7
I0403 12:45:54.482558 26702 net.cpp:141] Setting up fc7
I0403 12:45:54.482635 26702 net.cpp:148] Top shape: 100 4096 (409600)
I0403 12:45:54.482650 26702 net.cpp:156] Memory required for data: 828249200
I0403 12:45:54.482671 26702 layer_factory.hpp:77] Creating layer relu7
I0403 12:45:54.482697 26702 net.cpp:91] Creating Layer relu7
I0403 12:45:54.482715 26702 net.cpp:425] relu7 <- fc7
I0403 12:45:54.482736 26702 net.cpp:386] relu7 -> fc7 (in-place)
I0403 12:45:54.483137 26702 net.cpp:141] Setting up relu7
I0403 12:45:54.483166 26702 net.cpp:148] Top shape: 100 4096 (409600)
I0403 12:45:54.483214 26702 net.cpp:156] Memory required for data: 829887600
I0403 12:45:54.483232 26702 layer_factory.hpp:77] Creating layer drop7
I0403 12:45:54.483250 26702 net.cpp:91] Creating Layer drop7
I0403 12:45:54.483266 26702 net.cpp:425] drop7 <- fc7
I0403 12:45:54.483284 26702 net.cpp:386] drop7 -> fc7 (in-place)
I0403 12:45:54.483331 26702 net.cpp:141] Setting up drop7
I0403 12:45:54.483366 26702 net.cpp:148] Top shape: 100 4096 (409600)
I0403 12:45:54.483384 26702 net.cpp:156] Memory required for data: 831526000
I0403 12:45:54.483398 26702 layer_factory.hpp:77] Creating layer fc8_plantvillage
I0403 12:45:54.483422 26702 net.cpp:91] Creating Layer fc8_plantvillage
I0403 12:45:54.483439 26702 net.cpp:425] fc8_plantvillage <- fc7
I0403 12:45:54.483458 26702 net.cpp:399] fc8_plantvillage -> fc8_plantvillage
I0403 12:45:54.490198 26702 net.cpp:141] Setting up fc8_plantvillage
I0403 12:45:54.490227 26702 net.cpp:148] Top shape: 100 38 (3800)
I0403 12:45:54.490243 26702 net.cpp:156] Memory required for data: 831541200
I0403 12:45:54.490262 26702 layer_factory.hpp:77] Creating layer fc8_plantvillage_fc8_plantvillage_0_split
I0403 12:45:54.490281 26702 net.cpp:91] Creating Layer fc8_plantvillage_fc8_plantvillage_0_split
I0403 12:45:54.490298 26702 net.cpp:425] fc8_plantvillage_fc8_plantvillage_0_split <- fc8_plantvillage
I0403 12:45:54.490319 26702 net.cpp:399] fc8_plantvillage_fc8_plantvillage_0_split -> fc8_plantvillage_fc8_plantvillage_0_split_0
I0403 12:45:54.490339 26702 net.cpp:399] fc8_plantvillage_fc8_plantvillage_0_split -> fc8_plantvillage_fc8_plantvillage_0_split_1
I0403 12:45:54.490367 26702 net.cpp:399] fc8_plantvillage_fc8_plantvillage_0_split -> fc8_plantvillage_fc8_plantvillage_0_split_2
I0403 12:45:54.490445 26702 net.cpp:141] Setting up fc8_plantvillage_fc8_plantvillage_0_split
I0403 12:45:54.490471 26702 net.cpp:148] Top shape: 100 38 (3800)
I0403 12:45:54.490488 26702 net.cpp:148] Top shape: 100 38 (3800)
I0403 12:45:54.490504 26702 net.cpp:148] Top shape: 100 38 (3800)
I0403 12:45:54.490516 26702 net.cpp:156] Memory required for data: 831586800
I0403 12:45:54.490530 26702 layer_factory.hpp:77] Creating layer prob
I0403 12:45:54.490550 26702 net.cpp:91] Creating Layer prob
I0403 12:45:54.490566 26702 net.cpp:425] prob <- fc8_plantvillage_fc8_plantvillage_0_split_0
I0403 12:45:54.490584 26702 net.cpp:399] prob -> prob
I0403 12:45:54.490808 26702 net.cpp:141] Setting up prob
I0403 12:45:54.490834 26702 net.cpp:148] Top shape: 100 38 (3800)
I0403 12:45:54.490850 26702 net.cpp:156] Memory required for data: 831602000
I0403 12:45:54.490865 26702 layer_factory.hpp:77] Creating layer hdf5out
I0403 12:45:54.490890 26702 net.cpp:91] Creating Layer hdf5out
I0403 12:45:54.490907 26702 net.cpp:425] hdf5out <- prob
I0403 12:45:54.490924 26702 net.cpp:425] hdf5out <- label_data_1_split_0
I0403 12:45:54.508731 26702 net.cpp:141] Setting up hdf5out
…
