…
I0403 12:50:16.221972 26804 net.cpp:313] The NetState phase (1) differed from the phase (0) specified by a rule in layer data
I0403 12:50:16.222277 26804 net.cpp:49] Initializing net from parameters: 
state {
  phase: TEST
}
layer {
  name: "data"
  type: "Data"
  top: "data"
  top: "label"
  include {
    phase: TEST
  }
  transform_param {
    crop_size: 227
    mean_file: "/home/mohanty/data/final_dataset/lmdb/color-40-60/mean.binaryproto"
  }
  data_param {
    source: "/home/mohanty/data/final_dataset/lmdb/color-40-60/test_db"
    batch_size: 100
    backend: LMDB
  }
}
layer {
  name: "conv1"
  type: "Convolution"
  bottom: "data"
  top: "conv1"
  param {
    lr_mult: 1
    decay_mult: 1
  }
  param {
    lr_mult: 2
    decay_mult: 0
  }
  convolution_param {
    num_output: 96
    kernel_size: 11
    stride: 4
    weight_filler {
      type: "gaussian"
      std: 0.01
    }
    bias_filler {
      type: "constant"
      value: 0
    }
  }
}
layer {
  name: "relu1"
  type: "ReLU"
  bottom: "conv1"
  top: "conv1"
}
layer {
  name: "norm1"
  type: "LRN"
  bottom: "conv1"
  top: "norm1"
  lrn_param {
    local_size: 5
    alpha: 0.0001
    beta: 0.75
  }
}
layer {
  name: "pool1"
  type: "Pooling"
  bottom: "norm1"
  top: "pool1"
  pooling_param {
    pool: MAX
    kernel_size: 3
    stride: 2
  }
}
layer {
  name: "conv2"
  type: "Convolution"
  bottom: "pool1"
  top: "conv2"
  param {
    lr_mult: 1
    decay_mult: 1
  }
  param {
    lr_mult: 2
    decay_mult: 0
  }
  convolution_param {
    num_output: 256
    pad: 2
    kernel_size: 5
    group: 2
    weight_filler {
      type: "gaussian"
      std: 0.01
    }
    bias_filler {
      type: "constant"
      value: 0.1
    }
  }
}
layer {
  name: "relu2"
  type: "ReLU"
  bottom: "conv2"
  top: "conv2"
}
layer {
  name: "norm2"
  type: "LRN"
  bottom: "conv2"
  top: "norm2"
  lrn_param {
    local_size: 5
    alpha: 0.0001
    beta: 0.75
  }
}
layer {
  name: "pool2"
  type: "Pooling"
  bottom: "norm2"
  top: "pool2"
  pooling_param {
    pool: MAX
    kernel_size: 3
    stride: 2
  }
}
layer {
  name: "conv3"
  type: "Convolution"
  bottom: "pool2"
  top: "conv3"
  param {
    lr_mult: 1
    decay_mult: 1
  }
  param {
    lr_mult: 2
    decay_mult: 0
  }
  convolution_param {
    num_output: 384
    pad: 1
    kernel_size: 3
    weight_filler {
      type: "gaussian"
      std: 0.01
    }
    bias_filler {
      type: "constant"
      value: 0
    }
  }
}
layer {
  name: "relu3"
  type: "ReLU"
  bottom: "conv3"
  top: "conv3"
}
layer {
  name: "conv4"
  type: "Convolution"
  bottom: "conv3"
  top: "conv4"
  param {
    lr_mult: 1
    decay_mult: 1
  }
  param {
    lr_mult: 2
    decay_mult: 0
  }
  convolution_param {
    num_output: 384
    pad: 1
    kernel_size: 3
    group: 2
    weight_filler {
      type: "gaussian"
      std: 0.01
    }
    bias_filler {
      type: "constant"
      value: 0.1
    }
  }
}
layer {
  name: "relu4"
  type: "ReLU"
  bottom: "conv4"
  top: "conv4"
}
layer {
  name: "conv5"
  type: "Convolution"
  bottom: "conv4"
  top: "conv5"
  param {
    lr_mult: 1
    decay_mult: 1
  }
  param {
    lr_mult: 2
    decay_mult: 0
  }
  convolution_param {
    num_output: 256
    pad: 1
    kernel_size: 3
    group: 2
    weight_filler {
      type: "gaussian"
      std: 0.01
    }
    bias_filler {
      type: "constant"
      value: 0.1
    }
  }
}
layer {
  name: "relu5"
  type: "ReLU"
  bottom: "conv5"
  top: "conv5"
}
layer {
  name: "pool5"
  type: "Pooling"
  bottom: "conv5"
  top: "pool5"
  pooling_param {
    pool: MAX
    kernel_size: 3
    stride: 2
  }
}
layer {
  name: "fc6"
  type: "InnerProduct"
  bottom: "pool5"
  top: "fc6"
  param {
    lr_mult: 1
    decay_mult: 1
  }
  param {
    lr_mult: 2
    decay_mult: 0
  }
  inner_product_param {
    num_output: 4096
    weight_filler {
      type: "gaussian"
      std: 0.005
    }
    bias_filler {
      type: "constant"
      value: 0.1
    }
  }
}
layer {
  name: "relu6"
  type: "ReLU"
  bottom: "fc6"
  top: "fc6"
}
layer {
  name: "drop6"
  type: "Dropout"
  bottom: "fc6"
  top: "fc6"
  dropout_param {
    dropout_ratio: 0.5
  }
}
layer {
  name: "fc7"
  type: "InnerProduct"
  bottom: "fc6"
  top: "fc7"
  param {
    lr_mult: 1
    decay_mult: 1
  }
  param {
    lr_mult: 2
    decay_mult: 0
  }
  inner_product_param {
    num_output: 4096
    weight_filler {
      type: "gaussian"
      std: 0.005
    }
    bias_filler {
      type: "constant"
      value: 0.1
    }
  }
}
layer {
  name: "relu7"
  type: "ReLU"
  bottom: "fc7"
  top: "fc7"
}
layer {
  name: "drop7"
  type: "Dropout"
  bottom: "fc7"
  top: "fc7"
  dropout_param {
    dropout_ratio: 0.5
  }
}
layer {
  name: "fc8_plantvillage"
  type: "InnerProduct"
  bottom: "fc7"
  top: "fc8_plantvillage"
  param {
    lr_mult: 1
    decay_mult: 1
  }
  param {
    lr_mult: 2
    decay_mult: 0
  }
  inner_product_param {
    num_output: 38
    weight_filler {
      type: "gaussian"
      std: 0.01
    }
    bias_filler {
      type: "constant"
      value: 0
    }
  }
}
layer {
  name: "prob"
  type: "Softmax"
  bottom: "fc8_plantvillage"
  top: "prob"
  include {
    phase: TEST
  }
}
layer {
  name: "hdf5out"
  type: "HDF5Output"
  bottom: "prob"
  bottom: "label"
  include {
    phase: TEST
  }
  hdf5_output_param {
    file_name: "hdf5_dumps/iter_6510.h5"
  }
}
layer {
  name: "loss"
  type: "SoftmaxWithLoss"
  bottom: "fc8_plantvillage"
  bottom: "label"
  top: "loss"
}
layer {
  name: "accuracy"
  type: "Accuracy"
  bottom: "fc8_plantvillage"
  bottom: "label"
  top: "accuracy"
  include {
    phase: TEST
  }
}
I0403 12:50:16.222859 26804 layer_factory.hpp:77] Creating layer data
I0403 12:50:16.223520 26804 net.cpp:91] Creating Layer data
I0403 12:50:16.223552 26804 net.cpp:399] data -> data
I0403 12:50:16.223609 26804 net.cpp:399] data -> label
I0403 12:50:16.223649 26804 data_transformer.cpp:25] Loading mean file from: /home/mohanty/data/final_dataset/lmdb/color-40-60/mean.binaryproto
I0403 12:50:16.226413 26807 db_lmdb.cpp:38] Opened lmdb /home/mohanty/data/final_dataset/lmdb/color-40-60/test_db
I0403 12:50:16.238109 26804 data_layer.cpp:41] output data size: 100,3,227,227
I0403 12:50:16.361706 26804 net.cpp:141] Setting up data
I0403 12:50:16.361799 26804 net.cpp:148] Top shape: 100 3 227 227 (15458700)
I0403 12:50:16.361824 26804 net.cpp:148] Top shape: 100 (100)
I0403 12:50:16.361840 26804 net.cpp:156] Memory required for data: 61835200
I0403 12:50:16.361867 26804 layer_factory.hpp:77] Creating layer label_data_1_split
I0403 12:50:16.361893 26804 net.cpp:91] Creating Layer label_data_1_split
I0403 12:50:16.361912 26804 net.cpp:425] label_data_1_split <- label
I0403 12:50:16.361945 26804 net.cpp:399] label_data_1_split -> label_data_1_split_0
I0403 12:50:16.361974 26804 net.cpp:399] label_data_1_split -> label_data_1_split_1
I0403 12:50:16.361997 26804 net.cpp:399] label_data_1_split -> label_data_1_split_2
I0403 12:50:16.362066 26804 net.cpp:141] Setting up label_data_1_split
I0403 12:50:16.362090 26804 net.cpp:148] Top shape: 100 (100)
I0403 12:50:16.362108 26804 net.cpp:148] Top shape: 100 (100)
I0403 12:50:16.362128 26804 net.cpp:148] Top shape: 100 (100)
I0403 12:50:16.362143 26804 net.cpp:156] Memory required for data: 61836400
I0403 12:50:16.362159 26804 layer_factory.hpp:77] Creating layer conv1
I0403 12:50:16.362192 26804 net.cpp:91] Creating Layer conv1
I0403 12:50:16.362212 26804 net.cpp:425] conv1 <- data
I0403 12:50:16.362233 26804 net.cpp:399] conv1 -> conv1
I0403 12:50:16.505177 26804 net.cpp:141] Setting up conv1
I0403 12:50:16.505254 26804 net.cpp:148] Top shape: 100 96 55 55 (29040000)
I0403 12:50:16.505272 26804 net.cpp:156] Memory required for data: 177996400
I0403 12:50:16.505321 26804 layer_factory.hpp:77] Creating layer relu1
I0403 12:50:16.505353 26804 net.cpp:91] Creating Layer relu1
I0403 12:50:16.505373 26804 net.cpp:425] relu1 <- conv1
I0403 12:50:16.505393 26804 net.cpp:386] relu1 -> conv1 (in-place)
I0403 12:50:16.505722 26804 net.cpp:141] Setting up relu1
I0403 12:50:16.505750 26804 net.cpp:148] Top shape: 100 96 55 55 (29040000)
I0403 12:50:16.505767 26804 net.cpp:156] Memory required for data: 294156400
I0403 12:50:16.505817 26804 layer_factory.hpp:77] Creating layer norm1
I0403 12:50:16.505847 26804 net.cpp:91] Creating Layer norm1
I0403 12:50:16.505866 26804 net.cpp:425] norm1 <- conv1
I0403 12:50:16.505884 26804 net.cpp:399] norm1 -> norm1
I0403 12:50:16.506197 26804 net.cpp:141] Setting up norm1
I0403 12:50:16.506227 26804 net.cpp:148] Top shape: 100 96 55 55 (29040000)
I0403 12:50:16.506243 26804 net.cpp:156] Memory required for data: 410316400
I0403 12:50:16.506259 26804 layer_factory.hpp:77] Creating layer pool1
I0403 12:50:16.506284 26804 net.cpp:91] Creating Layer pool1
I0403 12:50:16.506302 26804 net.cpp:425] pool1 <- norm1
I0403 12:50:16.506327 26804 net.cpp:399] pool1 -> pool1
I0403 12:50:16.506398 26804 net.cpp:141] Setting up pool1
I0403 12:50:16.506424 26804 net.cpp:148] Top shape: 100 96 27 27 (6998400)
I0403 12:50:16.506440 26804 net.cpp:156] Memory required for data: 438310000
I0403 12:50:16.506456 26804 layer_factory.hpp:77] Creating layer conv2
I0403 12:50:16.506482 26804 net.cpp:91] Creating Layer conv2
I0403 12:50:16.506500 26804 net.cpp:425] conv2 <- pool1
I0403 12:50:16.506520 26804 net.cpp:399] conv2 -> conv2
I0403 12:50:16.521844 26804 net.cpp:141] Setting up conv2
I0403 12:50:16.521884 26804 net.cpp:148] Top shape: 100 256 27 27 (18662400)
I0403 12:50:16.521903 26804 net.cpp:156] Memory required for data: 512959600
I0403 12:50:16.521926 26804 layer_factory.hpp:77] Creating layer relu2
I0403 12:50:16.521950 26804 net.cpp:91] Creating Layer relu2
I0403 12:50:16.521968 26804 net.cpp:425] relu2 <- conv2
I0403 12:50:16.521988 26804 net.cpp:386] relu2 -> conv2 (in-place)
I0403 12:50:16.522303 26804 net.cpp:141] Setting up relu2
I0403 12:50:16.522338 26804 net.cpp:148] Top shape: 100 256 27 27 (18662400)
I0403 12:50:16.522356 26804 net.cpp:156] Memory required for data: 587609200
I0403 12:50:16.522373 26804 layer_factory.hpp:77] Creating layer norm2
I0403 12:50:16.522397 26804 net.cpp:91] Creating Layer norm2
I0403 12:50:16.522416 26804 net.cpp:425] norm2 <- conv2
I0403 12:50:16.522435 26804 net.cpp:399] norm2 -> norm2
I0403 12:50:16.522639 26804 net.cpp:141] Setting up norm2
I0403 12:50:16.522665 26804 net.cpp:148] Top shape: 100 256 27 27 (18662400)
I0403 12:50:16.522682 26804 net.cpp:156] Memory required for data: 662258800
I0403 12:50:16.522699 26804 layer_factory.hpp:77] Creating layer pool2
I0403 12:50:16.522721 26804 net.cpp:91] Creating Layer pool2
I0403 12:50:16.522737 26804 net.cpp:425] pool2 <- norm2
I0403 12:50:16.522756 26804 net.cpp:399] pool2 -> pool2
I0403 12:50:16.522810 26804 net.cpp:141] Setting up pool2
I0403 12:50:16.522835 26804 net.cpp:148] Top shape: 100 256 13 13 (4326400)
I0403 12:50:16.522850 26804 net.cpp:156] Memory required for data: 679564400
I0403 12:50:16.522866 26804 layer_factory.hpp:77] Creating layer conv3
I0403 12:50:16.522891 26804 net.cpp:91] Creating Layer conv3
I0403 12:50:16.522909 26804 net.cpp:425] conv3 <- pool2
I0403 12:50:16.522932 26804 net.cpp:399] conv3 -> conv3
I0403 12:50:16.565048 26804 net.cpp:141] Setting up conv3
I0403 12:50:16.565124 26804 net.cpp:148] Top shape: 100 384 13 13 (6489600)
I0403 12:50:16.565142 26804 net.cpp:156] Memory required for data: 705522800
I0403 12:50:16.565170 26804 layer_factory.hpp:77] Creating layer relu3
I0403 12:50:16.565193 26804 net.cpp:91] Creating Layer relu3
I0403 12:50:16.565212 26804 net.cpp:425] relu3 <- conv3
I0403 12:50:16.565232 26804 net.cpp:386] relu3 -> conv3 (in-place)
I0403 12:50:16.565516 26804 net.cpp:141] Setting up relu3
I0403 12:50:16.565546 26804 net.cpp:148] Top shape: 100 384 13 13 (6489600)
I0403 12:50:16.565563 26804 net.cpp:156] Memory required for data: 731481200
I0403 12:50:16.565579 26804 layer_factory.hpp:77] Creating layer conv4
I0403 12:50:16.565608 26804 net.cpp:91] Creating Layer conv4
I0403 12:50:16.565625 26804 net.cpp:425] conv4 <- conv3
I0403 12:50:16.565645 26804 net.cpp:399] conv4 -> conv4
I0403 12:50:16.596568 26804 net.cpp:141] Setting up conv4
I0403 12:50:16.596638 26804 net.cpp:148] Top shape: 100 384 13 13 (6489600)
I0403 12:50:16.596704 26804 net.cpp:156] Memory required for data: 757439600
I0403 12:50:16.596730 26804 layer_factory.hpp:77] Creating layer relu4
I0403 12:50:16.596760 26804 net.cpp:91] Creating Layer relu4
I0403 12:50:16.596779 26804 net.cpp:425] relu4 <- conv4
I0403 12:50:16.596801 26804 net.cpp:386] relu4 -> conv4 (in-place)
I0403 12:50:16.597095 26804 net.cpp:141] Setting up relu4
I0403 12:50:16.597123 26804 net.cpp:148] Top shape: 100 384 13 13 (6489600)
I0403 12:50:16.597141 26804 net.cpp:156] Memory required for data: 783398000
I0403 12:50:16.597157 26804 layer_factory.hpp:77] Creating layer conv5
I0403 12:50:16.597196 26804 net.cpp:91] Creating Layer conv5
I0403 12:50:16.597215 26804 net.cpp:425] conv5 <- conv4
I0403 12:50:16.597239 26804 net.cpp:399] conv5 -> conv5
I0403 12:50:16.618537 26804 net.cpp:141] Setting up conv5
I0403 12:50:16.618603 26804 net.cpp:148] Top shape: 100 256 13 13 (4326400)
I0403 12:50:16.618620 26804 net.cpp:156] Memory required for data: 800703600
I0403 12:50:16.618646 26804 layer_factory.hpp:77] Creating layer relu5
I0403 12:50:16.618672 26804 net.cpp:91] Creating Layer relu5
I0403 12:50:16.618691 26804 net.cpp:425] relu5 <- conv5
I0403 12:50:16.618710 26804 net.cpp:386] relu5 -> conv5 (in-place)
I0403 12:50:16.618999 26804 net.cpp:141] Setting up relu5
I0403 12:50:16.619029 26804 net.cpp:148] Top shape: 100 256 13 13 (4326400)
I0403 12:50:16.619046 26804 net.cpp:156] Memory required for data: 818009200
I0403 12:50:16.619062 26804 layer_factory.hpp:77] Creating layer pool5
I0403 12:50:16.619084 26804 net.cpp:91] Creating Layer pool5
I0403 12:50:16.619102 26804 net.cpp:425] pool5 <- conv5
I0403 12:50:16.619123 26804 net.cpp:399] pool5 -> pool5
I0403 12:50:16.619185 26804 net.cpp:141] Setting up pool5
I0403 12:50:16.619213 26804 net.cpp:148] Top shape: 100 256 6 6 (921600)
I0403 12:50:16.619264 26804 net.cpp:156] Memory required for data: 821695600
I0403 12:50:16.619287 26804 layer_factory.hpp:77] Creating layer fc6
I0403 12:50:16.619318 26804 net.cpp:91] Creating Layer fc6
I0403 12:50:16.619338 26804 net.cpp:425] fc6 <- pool5
I0403 12:50:16.619360 26804 net.cpp:399] fc6 -> fc6
I0403 12:50:18.217811 26804 net.cpp:141] Setting up fc6
I0403 12:50:18.217885 26804 net.cpp:148] Top shape: 100 4096 (409600)
I0403 12:50:18.217902 26804 net.cpp:156] Memory required for data: 823334000
I0403 12:50:18.217924 26804 layer_factory.hpp:77] Creating layer relu6
I0403 12:50:18.217949 26804 net.cpp:91] Creating Layer relu6
I0403 12:50:18.217967 26804 net.cpp:425] relu6 <- fc6
I0403 12:50:18.217986 26804 net.cpp:386] relu6 -> fc6 (in-place)
I0403 12:50:18.218212 26804 net.cpp:141] Setting up relu6
I0403 12:50:18.218237 26804 net.cpp:148] Top shape: 100 4096 (409600)
I0403 12:50:18.218253 26804 net.cpp:156] Memory required for data: 824972400
I0403 12:50:18.218268 26804 layer_factory.hpp:77] Creating layer drop6
I0403 12:50:18.218289 26804 net.cpp:91] Creating Layer drop6
I0403 12:50:18.218307 26804 net.cpp:425] drop6 <- fc6
I0403 12:50:18.218329 26804 net.cpp:386] drop6 -> fc6 (in-place)
I0403 12:50:18.218385 26804 net.cpp:141] Setting up drop6
I0403 12:50:18.218410 26804 net.cpp:148] Top shape: 100 4096 (409600)
I0403 12:50:18.218425 26804 net.cpp:156] Memory required for data: 826610800
I0403 12:50:18.218439 26804 layer_factory.hpp:77] Creating layer fc7
I0403 12:50:18.218462 26804 net.cpp:91] Creating Layer fc7
I0403 12:50:18.218479 26804 net.cpp:425] fc7 <- fc6
I0403 12:50:18.218497 26804 net.cpp:399] fc7 -> fc7
I0403 12:50:18.903858 26804 net.cpp:141] Setting up fc7
I0403 12:50:18.903904 26804 net.cpp:148] Top shape: 100 4096 (409600)
I0403 12:50:18.903923 26804 net.cpp:156] Memory required for data: 828249200
I0403 12:50:18.903945 26804 layer_factory.hpp:77] Creating layer relu7
I0403 12:50:18.903967 26804 net.cpp:91] Creating Layer relu7
I0403 12:50:18.903985 26804 net.cpp:425] relu7 <- fc7
I0403 12:50:18.904003 26804 net.cpp:386] relu7 -> fc7 (in-place)
I0403 12:50:18.904412 26804 net.cpp:141] Setting up relu7
I0403 12:50:18.904443 26804 net.cpp:148] Top shape: 100 4096 (409600)
I0403 12:50:18.904491 26804 net.cpp:156] Memory required for data: 829887600
I0403 12:50:18.904510 26804 layer_factory.hpp:77] Creating layer drop7
I0403 12:50:18.904542 26804 net.cpp:91] Creating Layer drop7
I0403 12:50:18.904558 26804 net.cpp:425] drop7 <- fc7
I0403 12:50:18.904577 26804 net.cpp:386] drop7 -> fc7 (in-place)
I0403 12:50:18.904623 26804 net.cpp:141] Setting up drop7
I0403 12:50:18.904649 26804 net.cpp:148] Top shape: 100 4096 (409600)
I0403 12:50:18.904664 26804 net.cpp:156] Memory required for data: 831526000
I0403 12:50:18.904680 26804 layer_factory.hpp:77] Creating layer fc8_plantvillage
I0403 12:50:18.904702 26804 net.cpp:91] Creating Layer fc8_plantvillage
I0403 12:50:18.904721 26804 net.cpp:425] fc8_plantvillage <- fc7
I0403 12:50:18.904739 26804 net.cpp:399] fc8_plantvillage -> fc8_plantvillage
I0403 12:50:18.911478 26804 net.cpp:141] Setting up fc8_plantvillage
I0403 12:50:18.911509 26804 net.cpp:148] Top shape: 100 38 (3800)
I0403 12:50:18.911525 26804 net.cpp:156] Memory required for data: 831541200
I0403 12:50:18.911543 26804 layer_factory.hpp:77] Creating layer fc8_plantvillage_fc8_plantvillage_0_split
I0403 12:50:18.911567 26804 net.cpp:91] Creating Layer fc8_plantvillage_fc8_plantvillage_0_split
I0403 12:50:18.911586 26804 net.cpp:425] fc8_plantvillage_fc8_plantvillage_0_split <- fc8_plantvillage
I0403 12:50:18.911604 26804 net.cpp:399] fc8_plantvillage_fc8_plantvillage_0_split -> fc8_plantvillage_fc8_plantvillage_0_split_0
I0403 12:50:18.911628 26804 net.cpp:399] fc8_plantvillage_fc8_plantvillage_0_split -> fc8_plantvillage_fc8_plantvillage_0_split_1
I0403 12:50:18.911650 26804 net.cpp:399] fc8_plantvillage_fc8_plantvillage_0_split -> fc8_plantvillage_fc8_plantvillage_0_split_2
I0403 12:50:18.911730 26804 net.cpp:141] Setting up fc8_plantvillage_fc8_plantvillage_0_split
I0403 12:50:18.911754 26804 net.cpp:148] Top shape: 100 38 (3800)
I0403 12:50:18.911772 26804 net.cpp:148] Top shape: 100 38 (3800)
I0403 12:50:18.911787 26804 net.cpp:148] Top shape: 100 38 (3800)
I0403 12:50:18.911801 26804 net.cpp:156] Memory required for data: 831586800
I0403 12:50:18.911818 26804 layer_factory.hpp:77] Creating layer prob
I0403 12:50:18.911839 26804 net.cpp:91] Creating Layer prob
I0403 12:50:18.911854 26804 net.cpp:425] prob <- fc8_plantvillage_fc8_plantvillage_0_split_0
I0403 12:50:18.911873 26804 net.cpp:399] prob -> prob
I0403 12:50:18.912102 26804 net.cpp:141] Setting up prob
I0403 12:50:18.912128 26804 net.cpp:148] Top shape: 100 38 (3800)
I0403 12:50:18.912144 26804 net.cpp:156] Memory required for data: 831602000
I0403 12:50:18.912159 26804 layer_factory.hpp:77] Creating layer hdf5out
I0403 12:50:18.912181 26804 net.cpp:91] Creating Layer hdf5out
I0403 12:50:18.912199 26804 net.cpp:425] hdf5out <- prob
I0403 12:50:18.912215 26804 net.cpp:425] hdf5out <- label_data_1_split_0
I0403 12:50:18.916203 26804 net.cpp:141] Setting up hdf5out
…
