…
I0403 12:46:57.924073 26727 net.cpp:313] The NetState phase (1) differed from the phase (0) specified by a rule in layer data
I0403 12:46:57.924403 26727 net.cpp:49] Initializing net from parameters: 
state {
  phase: TEST
}
layer {
  name: "data"
  type: "Data"
  top: "data"
  top: "label"
  include {
    phase: TEST
  }
  transform_param {
    crop_size: 227
    mean_file: "/home/mohanty/data/final_dataset/lmdb/color-40-60/mean.binaryproto"
  }
  data_param {
    source: "/home/mohanty/data/final_dataset/lmdb/color-40-60/test_db"
    batch_size: 100
    backend: LMDB
  }
}
layer {
  name: "conv1"
  type: "Convolution"
  bottom: "data"
  top: "conv1"
  param {
    lr_mult: 1
    decay_mult: 1
  }
  param {
    lr_mult: 2
    decay_mult: 0
  }
  convolution_param {
    num_output: 96
    kernel_size: 11
    stride: 4
    weight_filler {
      type: "gaussian"
      std: 0.01
    }
    bias_filler {
      type: "constant"
      value: 0
    }
  }
}
layer {
  name: "relu1"
  type: "ReLU"
  bottom: "conv1"
  top: "conv1"
}
layer {
  name: "norm1"
  type: "LRN"
  bottom: "conv1"
  top: "norm1"
  lrn_param {
    local_size: 5
    alpha: 0.0001
    beta: 0.75
  }
}
layer {
  name: "pool1"
  type: "Pooling"
  bottom: "norm1"
  top: "pool1"
  pooling_param {
    pool: MAX
    kernel_size: 3
    stride: 2
  }
}
layer {
  name: "conv2"
  type: "Convolution"
  bottom: "pool1"
  top: "conv2"
  param {
    lr_mult: 1
    decay_mult: 1
  }
  param {
    lr_mult: 2
    decay_mult: 0
  }
  convolution_param {
    num_output: 256
    pad: 2
    kernel_size: 5
    group: 2
    weight_filler {
      type: "gaussian"
      std: 0.01
    }
    bias_filler {
      type: "constant"
      value: 0.1
    }
  }
}
layer {
  name: "relu2"
  type: "ReLU"
  bottom: "conv2"
  top: "conv2"
}
layer {
  name: "norm2"
  type: "LRN"
  bottom: "conv2"
  top: "norm2"
  lrn_param {
    local_size: 5
    alpha: 0.0001
    beta: 0.75
  }
}
layer {
  name: "pool2"
  type: "Pooling"
  bottom: "norm2"
  top: "pool2"
  pooling_param {
    pool: MAX
    kernel_size: 3
    stride: 2
  }
}
layer {
  name: "conv3"
  type: "Convolution"
  bottom: "pool2"
  top: "conv3"
  param {
    lr_mult: 1
    decay_mult: 1
  }
  param {
    lr_mult: 2
    decay_mult: 0
  }
  convolution_param {
    num_output: 384
    pad: 1
    kernel_size: 3
    weight_filler {
      type: "gaussian"
      std: 0.01
    }
    bias_filler {
      type: "constant"
      value: 0
    }
  }
}
layer {
  name: "relu3"
  type: "ReLU"
  bottom: "conv3"
  top: "conv3"
}
layer {
  name: "conv4"
  type: "Convolution"
  bottom: "conv3"
  top: "conv4"
  param {
    lr_mult: 1
    decay_mult: 1
  }
  param {
    lr_mult: 2
    decay_mult: 0
  }
  convolution_param {
    num_output: 384
    pad: 1
    kernel_size: 3
    group: 2
    weight_filler {
      type: "gaussian"
      std: 0.01
    }
    bias_filler {
      type: "constant"
      value: 0.1
    }
  }
}
layer {
  name: "relu4"
  type: "ReLU"
  bottom: "conv4"
  top: "conv4"
}
layer {
  name: "conv5"
  type: "Convolution"
  bottom: "conv4"
  top: "conv5"
  param {
    lr_mult: 1
    decay_mult: 1
  }
  param {
    lr_mult: 2
    decay_mult: 0
  }
  convolution_param {
    num_output: 256
    pad: 1
    kernel_size: 3
    group: 2
    weight_filler {
      type: "gaussian"
      std: 0.01
    }
    bias_filler {
      type: "constant"
      value: 0.1
    }
  }
}
layer {
  name: "relu5"
  type: "ReLU"
  bottom: "conv5"
  top: "conv5"
}
layer {
  name: "pool5"
  type: "Pooling"
  bottom: "conv5"
  top: "pool5"
  pooling_param {
    pool: MAX
    kernel_size: 3
    stride: 2
  }
}
layer {
  name: "fc6"
  type: "InnerProduct"
  bottom: "pool5"
  top: "fc6"
  param {
    lr_mult: 1
    decay_mult: 1
  }
  param {
    lr_mult: 2
    decay_mult: 0
  }
  inner_product_param {
    num_output: 4096
    weight_filler {
      type: "gaussian"
      std: 0.005
    }
    bias_filler {
      type: "constant"
      value: 0.1
    }
  }
}
layer {
  name: "relu6"
  type: "ReLU"
  bottom: "fc6"
  top: "fc6"
}
layer {
  name: "drop6"
  type: "Dropout"
  bottom: "fc6"
  top: "fc6"
  dropout_param {
    dropout_ratio: 0.5
  }
}
layer {
  name: "fc7"
  type: "InnerProduct"
  bottom: "fc6"
  top: "fc7"
  param {
    lr_mult: 1
    decay_mult: 1
  }
  param {
    lr_mult: 2
    decay_mult: 0
  }
  inner_product_param {
    num_output: 4096
    weight_filler {
      type: "gaussian"
      std: 0.005
    }
    bias_filler {
      type: "constant"
      value: 0.1
    }
  }
}
layer {
  name: "relu7"
  type: "ReLU"
  bottom: "fc7"
  top: "fc7"
}
layer {
  name: "drop7"
  type: "Dropout"
  bottom: "fc7"
  top: "fc7"
  dropout_param {
    dropout_ratio: 0.5
  }
}
layer {
  name: "fc8_plantvillage"
  type: "InnerProduct"
  bottom: "fc7"
  top: "fc8_plantvillage"
  param {
    lr_mult: 1
    decay_mult: 1
  }
  param {
    lr_mult: 2
    decay_mult: 0
  }
  inner_product_param {
    num_output: 38
    weight_filler {
      type: "gaussian"
      std: 0.01
    }
    bias_filler {
      type: "constant"
      value: 0
    }
  }
}
layer {
  name: "prob"
  type: "Softmax"
  bottom: "fc8_plantvillage"
  top: "prob"
  include {
    phase: TEST
  }
}
layer {
  name: "hdf5out"
  type: "HDF5Output"
  bottom: "prob"
  bottom: "label"
  include {
    phase: TEST
  }
  hdf5_output_param {
    file_name: "hdf5_dumps/iter_5859.h5"
  }
}
layer {
  name: "loss"
  type: "SoftmaxWithLoss"
  bottom: "fc8_plantvillage"
  bottom: "label"
  top: "loss"
}
layer {
  name: "accuracy"
  type: "Accuracy"
  bottom: "fc8_plantvillage"
  bottom: "label"
  top: "accuracy"
  include {
    phase: TEST
  }
}
I0403 12:46:57.924980 26727 layer_factory.hpp:77] Creating layer data
I0403 12:46:57.925643 26727 net.cpp:91] Creating Layer data
I0403 12:46:57.925678 26727 net.cpp:399] data -> data
I0403 12:46:57.925731 26727 net.cpp:399] data -> label
I0403 12:46:57.925770 26727 data_transformer.cpp:25] Loading mean file from: /home/mohanty/data/final_dataset/lmdb/color-40-60/mean.binaryproto
I0403 12:46:57.928428 26730 db_lmdb.cpp:38] Opened lmdb /home/mohanty/data/final_dataset/lmdb/color-40-60/test_db
I0403 12:46:57.940429 26727 data_layer.cpp:41] output data size: 100,3,227,227
I0403 12:46:58.063930 26727 net.cpp:141] Setting up data
I0403 12:46:58.063990 26727 net.cpp:148] Top shape: 100 3 227 227 (15458700)
I0403 12:46:58.064015 26727 net.cpp:148] Top shape: 100 (100)
I0403 12:46:58.064033 26727 net.cpp:156] Memory required for data: 61835200
I0403 12:46:58.064062 26727 layer_factory.hpp:77] Creating layer label_data_1_split
I0403 12:46:58.064090 26727 net.cpp:91] Creating Layer label_data_1_split
I0403 12:46:58.064108 26727 net.cpp:425] label_data_1_split <- label
I0403 12:46:58.064141 26727 net.cpp:399] label_data_1_split -> label_data_1_split_0
I0403 12:46:58.064169 26727 net.cpp:399] label_data_1_split -> label_data_1_split_1
I0403 12:46:58.064193 26727 net.cpp:399] label_data_1_split -> label_data_1_split_2
I0403 12:46:58.064259 26727 net.cpp:141] Setting up label_data_1_split
I0403 12:46:58.064283 26727 net.cpp:148] Top shape: 100 (100)
I0403 12:46:58.064306 26727 net.cpp:148] Top shape: 100 (100)
I0403 12:46:58.064322 26727 net.cpp:148] Top shape: 100 (100)
I0403 12:46:58.064338 26727 net.cpp:156] Memory required for data: 61836400
I0403 12:46:58.064358 26727 layer_factory.hpp:77] Creating layer conv1
I0403 12:46:58.064393 26727 net.cpp:91] Creating Layer conv1
I0403 12:46:58.064412 26727 net.cpp:425] conv1 <- data
I0403 12:46:58.064434 26727 net.cpp:399] conv1 -> conv1
I0403 12:46:58.209561 26727 net.cpp:141] Setting up conv1
I0403 12:46:58.209640 26727 net.cpp:148] Top shape: 100 96 55 55 (29040000)
I0403 12:46:58.209661 26727 net.cpp:156] Memory required for data: 177996400
I0403 12:46:58.209697 26727 layer_factory.hpp:77] Creating layer relu1
I0403 12:46:58.209728 26727 net.cpp:91] Creating Layer relu1
I0403 12:46:58.209748 26727 net.cpp:425] relu1 <- conv1
I0403 12:46:58.209769 26727 net.cpp:386] relu1 -> conv1 (in-place)
I0403 12:46:58.210049 26727 net.cpp:141] Setting up relu1
I0403 12:46:58.210079 26727 net.cpp:148] Top shape: 100 96 55 55 (29040000)
I0403 12:46:58.210096 26727 net.cpp:156] Memory required for data: 294156400
I0403 12:46:58.210149 26727 layer_factory.hpp:77] Creating layer norm1
I0403 12:46:58.210180 26727 net.cpp:91] Creating Layer norm1
I0403 12:46:58.210201 26727 net.cpp:425] norm1 <- conv1
I0403 12:46:58.210222 26727 net.cpp:399] norm1 -> norm1
I0403 12:46:58.210547 26727 net.cpp:141] Setting up norm1
I0403 12:46:58.210578 26727 net.cpp:148] Top shape: 100 96 55 55 (29040000)
I0403 12:46:58.210595 26727 net.cpp:156] Memory required for data: 410316400
I0403 12:46:58.210613 26727 layer_factory.hpp:77] Creating layer pool1
I0403 12:46:58.210638 26727 net.cpp:91] Creating Layer pool1
I0403 12:46:58.210657 26727 net.cpp:425] pool1 <- norm1
I0403 12:46:58.210678 26727 net.cpp:399] pool1 -> pool1
I0403 12:46:58.210752 26727 net.cpp:141] Setting up pool1
I0403 12:46:58.210777 26727 net.cpp:148] Top shape: 100 96 27 27 (6998400)
I0403 12:46:58.210794 26727 net.cpp:156] Memory required for data: 438310000
I0403 12:46:58.210813 26727 layer_factory.hpp:77] Creating layer conv2
I0403 12:46:58.210839 26727 net.cpp:91] Creating Layer conv2
I0403 12:46:58.210857 26727 net.cpp:425] conv2 <- pool1
I0403 12:46:58.210877 26727 net.cpp:399] conv2 -> conv2
I0403 12:46:58.226336 26727 net.cpp:141] Setting up conv2
I0403 12:46:58.226387 26727 net.cpp:148] Top shape: 100 256 27 27 (18662400)
I0403 12:46:58.226408 26727 net.cpp:156] Memory required for data: 512959600
I0403 12:46:58.226436 26727 layer_factory.hpp:77] Creating layer relu2
I0403 12:46:58.226459 26727 net.cpp:91] Creating Layer relu2
I0403 12:46:58.226478 26727 net.cpp:425] relu2 <- conv2
I0403 12:46:58.226500 26727 net.cpp:386] relu2 -> conv2 (in-place)
I0403 12:46:58.226794 26727 net.cpp:141] Setting up relu2
I0403 12:46:58.226825 26727 net.cpp:148] Top shape: 100 256 27 27 (18662400)
I0403 12:46:58.226845 26727 net.cpp:156] Memory required for data: 587609200
I0403 12:46:58.226862 26727 layer_factory.hpp:77] Creating layer norm2
I0403 12:46:58.226886 26727 net.cpp:91] Creating Layer norm2
I0403 12:46:58.226905 26727 net.cpp:425] norm2 <- conv2
I0403 12:46:58.226927 26727 net.cpp:399] norm2 -> norm2
I0403 12:46:58.227157 26727 net.cpp:141] Setting up norm2
I0403 12:46:58.227190 26727 net.cpp:148] Top shape: 100 256 27 27 (18662400)
I0403 12:46:58.227206 26727 net.cpp:156] Memory required for data: 662258800
I0403 12:46:58.227223 26727 layer_factory.hpp:77] Creating layer pool2
I0403 12:46:58.227246 26727 net.cpp:91] Creating Layer pool2
I0403 12:46:58.227267 26727 net.cpp:425] pool2 <- norm2
I0403 12:46:58.227288 26727 net.cpp:399] pool2 -> pool2
I0403 12:46:58.227349 26727 net.cpp:141] Setting up pool2
I0403 12:46:58.227376 26727 net.cpp:148] Top shape: 100 256 13 13 (4326400)
I0403 12:46:58.227392 26727 net.cpp:156] Memory required for data: 679564400
I0403 12:46:58.227409 26727 layer_factory.hpp:77] Creating layer conv3
I0403 12:46:58.227435 26727 net.cpp:91] Creating Layer conv3
I0403 12:46:58.227454 26727 net.cpp:425] conv3 <- pool2
I0403 12:46:58.227476 26727 net.cpp:399] conv3 -> conv3
I0403 12:46:58.270701 26727 net.cpp:141] Setting up conv3
I0403 12:46:58.270753 26727 net.cpp:148] Top shape: 100 384 13 13 (6489600)
I0403 12:46:58.270771 26727 net.cpp:156] Memory required for data: 705522800
I0403 12:46:58.270799 26727 layer_factory.hpp:77] Creating layer relu3
I0403 12:46:58.270828 26727 net.cpp:91] Creating Layer relu3
I0403 12:46:58.270850 26727 net.cpp:425] relu3 <- conv3
I0403 12:46:58.270871 26727 net.cpp:386] relu3 -> conv3 (in-place)
I0403 12:46:58.271163 26727 net.cpp:141] Setting up relu3
I0403 12:46:58.271193 26727 net.cpp:148] Top shape: 100 384 13 13 (6489600)
I0403 12:46:58.271210 26727 net.cpp:156] Memory required for data: 731481200
I0403 12:46:58.271227 26727 layer_factory.hpp:77] Creating layer conv4
I0403 12:46:58.271258 26727 net.cpp:91] Creating Layer conv4
I0403 12:46:58.271278 26727 net.cpp:425] conv4 <- conv3
I0403 12:46:58.271301 26727 net.cpp:399] conv4 -> conv4
I0403 12:46:58.301738 26727 net.cpp:141] Setting up conv4
I0403 12:46:58.301803 26727 net.cpp:148] Top shape: 100 384 13 13 (6489600)
I0403 12:46:58.301852 26727 net.cpp:156] Memory required for data: 757439600
I0403 12:46:58.301875 26727 layer_factory.hpp:77] Creating layer relu4
I0403 12:46:58.301900 26727 net.cpp:91] Creating Layer relu4
I0403 12:46:58.301919 26727 net.cpp:425] relu4 <- conv4
I0403 12:46:58.301939 26727 net.cpp:386] relu4 -> conv4 (in-place)
I0403 12:46:58.302224 26727 net.cpp:141] Setting up relu4
I0403 12:46:58.302251 26727 net.cpp:148] Top shape: 100 384 13 13 (6489600)
I0403 12:46:58.302268 26727 net.cpp:156] Memory required for data: 783398000
I0403 12:46:58.302284 26727 layer_factory.hpp:77] Creating layer conv5
I0403 12:46:58.302309 26727 net.cpp:91] Creating Layer conv5
I0403 12:46:58.302330 26727 net.cpp:425] conv5 <- conv4
I0403 12:46:58.302356 26727 net.cpp:399] conv5 -> conv5
I0403 12:46:58.322852 26727 net.cpp:141] Setting up conv5
I0403 12:46:58.322906 26727 net.cpp:148] Top shape: 100 256 13 13 (4326400)
I0403 12:46:58.322924 26727 net.cpp:156] Memory required for data: 800703600
I0403 12:46:58.322954 26727 layer_factory.hpp:77] Creating layer relu5
I0403 12:46:58.322979 26727 net.cpp:91] Creating Layer relu5
I0403 12:46:58.322998 26727 net.cpp:425] relu5 <- conv5
I0403 12:46:58.323016 26727 net.cpp:386] relu5 -> conv5 (in-place)
I0403 12:46:58.323299 26727 net.cpp:141] Setting up relu5
I0403 12:46:58.323329 26727 net.cpp:148] Top shape: 100 256 13 13 (4326400)
I0403 12:46:58.323357 26727 net.cpp:156] Memory required for data: 818009200
I0403 12:46:58.323379 26727 layer_factory.hpp:77] Creating layer pool5
I0403 12:46:58.323401 26727 net.cpp:91] Creating Layer pool5
I0403 12:46:58.323421 26727 net.cpp:425] pool5 <- conv5
I0403 12:46:58.323446 26727 net.cpp:399] pool5 -> pool5
I0403 12:46:58.323509 26727 net.cpp:141] Setting up pool5
I0403 12:46:58.323535 26727 net.cpp:148] Top shape: 100 256 6 6 (921600)
I0403 12:46:58.323551 26727 net.cpp:156] Memory required for data: 821695600
I0403 12:46:58.323568 26727 layer_factory.hpp:77] Creating layer fc6
I0403 12:46:58.323602 26727 net.cpp:91] Creating Layer fc6
I0403 12:46:58.323622 26727 net.cpp:425] fc6 <- pool5
I0403 12:46:58.323644 26727 net.cpp:399] fc6 -> fc6
I0403 12:46:59.917160 26727 net.cpp:141] Setting up fc6
I0403 12:46:59.917239 26727 net.cpp:148] Top shape: 100 4096 (409600)
I0403 12:46:59.917258 26727 net.cpp:156] Memory required for data: 823334000
I0403 12:46:59.917281 26727 layer_factory.hpp:77] Creating layer relu6
I0403 12:46:59.917305 26727 net.cpp:91] Creating Layer relu6
I0403 12:46:59.917323 26727 net.cpp:425] relu6 <- fc6
I0403 12:46:59.917351 26727 net.cpp:386] relu6 -> fc6 (in-place)
I0403 12:46:59.917582 26727 net.cpp:141] Setting up relu6
I0403 12:46:59.917608 26727 net.cpp:148] Top shape: 100 4096 (409600)
I0403 12:46:59.917624 26727 net.cpp:156] Memory required for data: 824972400
I0403 12:46:59.917640 26727 layer_factory.hpp:77] Creating layer drop6
I0403 12:46:59.917661 26727 net.cpp:91] Creating Layer drop6
I0403 12:46:59.917678 26727 net.cpp:425] drop6 <- fc6
I0403 12:46:59.917697 26727 net.cpp:386] drop6 -> fc6 (in-place)
I0403 12:46:59.917752 26727 net.cpp:141] Setting up drop6
I0403 12:46:59.917778 26727 net.cpp:148] Top shape: 100 4096 (409600)
I0403 12:46:59.917794 26727 net.cpp:156] Memory required for data: 826610800
I0403 12:46:59.917809 26727 layer_factory.hpp:77] Creating layer fc7
I0403 12:46:59.917834 26727 net.cpp:91] Creating Layer fc7
I0403 12:46:59.917850 26727 net.cpp:425] fc7 <- fc6
I0403 12:46:59.917870 26727 net.cpp:399] fc7 -> fc7
I0403 12:47:00.602826 26727 net.cpp:141] Setting up fc7
I0403 12:47:00.602902 26727 net.cpp:148] Top shape: 100 4096 (409600)
I0403 12:47:00.602921 26727 net.cpp:156] Memory required for data: 828249200
I0403 12:47:00.602942 26727 layer_factory.hpp:77] Creating layer relu7
I0403 12:47:00.602968 26727 net.cpp:91] Creating Layer relu7
I0403 12:47:00.602988 26727 net.cpp:425] relu7 <- fc7
I0403 12:47:00.603008 26727 net.cpp:386] relu7 -> fc7 (in-place)
I0403 12:47:00.603421 26727 net.cpp:141] Setting up relu7
I0403 12:47:00.603448 26727 net.cpp:148] Top shape: 100 4096 (409600)
I0403 12:47:00.603500 26727 net.cpp:156] Memory required for data: 829887600
I0403 12:47:00.603518 26727 layer_factory.hpp:77] Creating layer drop7
I0403 12:47:00.603538 26727 net.cpp:91] Creating Layer drop7
I0403 12:47:00.603556 26727 net.cpp:425] drop7 <- fc7
I0403 12:47:00.603575 26727 net.cpp:386] drop7 -> fc7 (in-place)
I0403 12:47:00.603623 26727 net.cpp:141] Setting up drop7
I0403 12:47:00.603648 26727 net.cpp:148] Top shape: 100 4096 (409600)
I0403 12:47:00.603664 26727 net.cpp:156] Memory required for data: 831526000
I0403 12:47:00.603680 26727 layer_factory.hpp:77] Creating layer fc8_plantvillage
I0403 12:47:00.603701 26727 net.cpp:91] Creating Layer fc8_plantvillage
I0403 12:47:00.603718 26727 net.cpp:425] fc8_plantvillage <- fc7
I0403 12:47:00.603739 26727 net.cpp:399] fc8_plantvillage -> fc8_plantvillage
I0403 12:47:00.610493 26727 net.cpp:141] Setting up fc8_plantvillage
I0403 12:47:00.610527 26727 net.cpp:148] Top shape: 100 38 (3800)
I0403 12:47:00.610544 26727 net.cpp:156] Memory required for data: 831541200
I0403 12:47:00.610565 26727 layer_factory.hpp:77] Creating layer fc8_plantvillage_fc8_plantvillage_0_split
I0403 12:47:00.610584 26727 net.cpp:91] Creating Layer fc8_plantvillage_fc8_plantvillage_0_split
I0403 12:47:00.610601 26727 net.cpp:425] fc8_plantvillage_fc8_plantvillage_0_split <- fc8_plantvillage
I0403 12:47:00.610620 26727 net.cpp:399] fc8_plantvillage_fc8_plantvillage_0_split -> fc8_plantvillage_fc8_plantvillage_0_split_0
I0403 12:47:00.610642 26727 net.cpp:399] fc8_plantvillage_fc8_plantvillage_0_split -> fc8_plantvillage_fc8_plantvillage_0_split_1
I0403 12:47:00.610664 26727 net.cpp:399] fc8_plantvillage_fc8_plantvillage_0_split -> fc8_plantvillage_fc8_plantvillage_0_split_2
I0403 12:47:00.610744 26727 net.cpp:141] Setting up fc8_plantvillage_fc8_plantvillage_0_split
I0403 12:47:00.610769 26727 net.cpp:148] Top shape: 100 38 (3800)
I0403 12:47:00.610787 26727 net.cpp:148] Top shape: 100 38 (3800)
I0403 12:47:00.610805 26727 net.cpp:148] Top shape: 100 38 (3800)
I0403 12:47:00.610819 26727 net.cpp:156] Memory required for data: 831586800
I0403 12:47:00.610836 26727 layer_factory.hpp:77] Creating layer prob
I0403 12:47:00.610855 26727 net.cpp:91] Creating Layer prob
I0403 12:47:00.610872 26727 net.cpp:425] prob <- fc8_plantvillage_fc8_plantvillage_0_split_0
I0403 12:47:00.610891 26727 net.cpp:399] prob -> prob
I0403 12:47:00.611122 26727 net.cpp:141] Setting up prob
I0403 12:47:00.611150 26727 net.cpp:148] Top shape: 100 38 (3800)
I0403 12:47:00.611166 26727 net.cpp:156] Memory required for data: 831602000
I0403 12:47:00.611182 26727 layer_factory.hpp:77] Creating layer hdf5out
I0403 12:47:00.611207 26727 net.cpp:91] Creating Layer hdf5out
I0403 12:47:00.611224 26727 net.cpp:425] hdf5out <- prob
I0403 12:47:00.611241 26727 net.cpp:425] hdf5out <- label_data_1_split_0
I0403 12:47:00.615259 26727 net.cpp:141] Setting up hdf5out
…
