…
I0403 12:31:33.468578 26366 net.cpp:313] The NetState phase (1) differed from the phase (0) specified by a rule in layer data
I0403 12:31:33.468885 26366 net.cpp:49] Initializing net from parameters: 
state {
  phase: TEST
}
layer {
  name: "data"
  type: "Data"
  top: "data"
  top: "label"
  include {
    phase: TEST
  }
  transform_param {
    crop_size: 227
    mean_file: "/home/mohanty/data/final_dataset/lmdb/color-40-60/mean.binaryproto"
  }
  data_param {
    source: "/home/mohanty/data/final_dataset/lmdb/color-40-60/test_db"
    batch_size: 100
    backend: LMDB
  }
}
layer {
  name: "conv1"
  type: "Convolution"
  bottom: "data"
  top: "conv1"
  param {
    lr_mult: 1
    decay_mult: 1
  }
  param {
    lr_mult: 2
    decay_mult: 0
  }
  convolution_param {
    num_output: 96
    kernel_size: 11
    stride: 4
    weight_filler {
      type: "gaussian"
      std: 0.01
    }
    bias_filler {
      type: "constant"
      value: 0
    }
  }
}
layer {
  name: "relu1"
  type: "ReLU"
  bottom: "conv1"
  top: "conv1"
}
layer {
  name: "norm1"
  type: "LRN"
  bottom: "conv1"
  top: "norm1"
  lrn_param {
    local_size: 5
    alpha: 0.0001
    beta: 0.75
  }
}
layer {
  name: "pool1"
  type: "Pooling"
  bottom: "norm1"
  top: "pool1"
  pooling_param {
    pool: MAX
    kernel_size: 3
    stride: 2
  }
}
layer {
  name: "conv2"
  type: "Convolution"
  bottom: "pool1"
  top: "conv2"
  param {
    lr_mult: 1
    decay_mult: 1
  }
  param {
    lr_mult: 2
    decay_mult: 0
  }
  convolution_param {
    num_output: 256
    pad: 2
    kernel_size: 5
    group: 2
    weight_filler {
      type: "gaussian"
      std: 0.01
    }
    bias_filler {
      type: "constant"
      value: 0.1
    }
  }
}
layer {
  name: "relu2"
  type: "ReLU"
  bottom: "conv2"
  top: "conv2"
}
layer {
  name: "norm2"
  type: "LRN"
  bottom: "conv2"
  top: "norm2"
  lrn_param {
    local_size: 5
    alpha: 0.0001
    beta: 0.75
  }
}
layer {
  name: "pool2"
  type: "Pooling"
  bottom: "norm2"
  top: "pool2"
  pooling_param {
    pool: MAX
    kernel_size: 3
    stride: 2
  }
}
layer {
  name: "conv3"
  type: "Convolution"
  bottom: "pool2"
  top: "conv3"
  param {
    lr_mult: 1
    decay_mult: 1
  }
  param {
    lr_mult: 2
    decay_mult: 0
  }
  convolution_param {
    num_output: 384
    pad: 1
    kernel_size: 3
    weight_filler {
      type: "gaussian"
      std: 0.01
    }
    bias_filler {
      type: "constant"
      value: 0
    }
  }
}
layer {
  name: "relu3"
  type: "ReLU"
  bottom: "conv3"
  top: "conv3"
}
layer {
  name: "conv4"
  type: "Convolution"
  bottom: "conv3"
  top: "conv4"
  param {
    lr_mult: 1
    decay_mult: 1
  }
  param {
    lr_mult: 2
    decay_mult: 0
  }
  convolution_param {
    num_output: 384
    pad: 1
    kernel_size: 3
    group: 2
    weight_filler {
      type: "gaussian"
      std: 0.01
    }
    bias_filler {
      type: "constant"
      value: 0.1
    }
  }
}
layer {
  name: "relu4"
  type: "ReLU"
  bottom: "conv4"
  top: "conv4"
}
layer {
  name: "conv5"
  type: "Convolution"
  bottom: "conv4"
  top: "conv5"
  param {
    lr_mult: 1
    decay_mult: 1
  }
  param {
    lr_mult: 2
    decay_mult: 0
  }
  convolution_param {
    num_output: 256
    pad: 1
    kernel_size: 3
    group: 2
    weight_filler {
      type: "gaussian"
      std: 0.01
    }
    bias_filler {
      type: "constant"
      value: 0.1
    }
  }
}
layer {
  name: "relu5"
  type: "ReLU"
  bottom: "conv5"
  top: "conv5"
}
layer {
  name: "pool5"
  type: "Pooling"
  bottom: "conv5"
  top: "pool5"
  pooling_param {
    pool: MAX
    kernel_size: 3
    stride: 2
  }
}
layer {
  name: "fc6"
  type: "InnerProduct"
  bottom: "pool5"
  top: "fc6"
  param {
    lr_mult: 1
    decay_mult: 1
  }
  param {
    lr_mult: 2
    decay_mult: 0
  }
  inner_product_param {
    num_output: 4096
    weight_filler {
      type: "gaussian"
      std: 0.005
    }
    bias_filler {
      type: "constant"
      value: 0.1
    }
  }
}
layer {
  name: "relu6"
  type: "ReLU"
  bottom: "fc6"
  top: "fc6"
}
layer {
  name: "drop6"
  type: "Dropout"
  bottom: "fc6"
  top: "fc6"
  dropout_param {
    dropout_ratio: 0.5
  }
}
layer {
  name: "fc7"
  type: "InnerProduct"
  bottom: "fc6"
  top: "fc7"
  param {
    lr_mult: 1
    decay_mult: 1
  }
  param {
    lr_mult: 2
    decay_mult: 0
  }
  inner_product_param {
    num_output: 4096
    weight_filler {
      type: "gaussian"
      std: 0.005
    }
    bias_filler {
      type: "constant"
      value: 0.1
    }
  }
}
layer {
  name: "relu7"
  type: "ReLU"
  bottom: "fc7"
  top: "fc7"
}
layer {
  name: "drop7"
  type: "Dropout"
  bottom: "fc7"
  top: "fc7"
  dropout_param {
    dropout_ratio: 0.5
  }
}
layer {
  name: "fc8_plantvillage"
  type: "InnerProduct"
  bottom: "fc7"
  top: "fc8_plantvillage"
  param {
    lr_mult: 1
    decay_mult: 1
  }
  param {
    lr_mult: 2
    decay_mult: 0
  }
  inner_product_param {
    num_output: 38
    weight_filler {
      type: "gaussian"
      std: 0.01
    }
    bias_filler {
      type: "constant"
      value: 0
    }
  }
}
layer {
  name: "prob"
  type: "Softmax"
  bottom: "fc8_plantvillage"
  top: "prob"
  include {
    phase: TEST
  }
}
layer {
  name: "hdf5out"
  type: "HDF5Output"
  bottom: "prob"
  bottom: "label"
  include {
    phase: TEST
  }
  hdf5_output_param {
    file_name: "hdf5_dumps/iter_2821.h5"
  }
}
layer {
  name: "loss"
  type: "SoftmaxWithLoss"
  bottom: "fc8_plantvillage"
  bottom: "label"
  top: "loss"
}
layer {
  name: "accuracy"
  type: "Accuracy"
  bottom: "fc8_plantvillage"
  bottom: "label"
  top: "accuracy"
  include {
    phase: TEST
  }
}
I0403 12:31:33.469493 26366 layer_factory.hpp:77] Creating layer data
I0403 12:31:33.470176 26366 net.cpp:91] Creating Layer data
I0403 12:31:33.470207 26366 net.cpp:399] data -> data
I0403 12:31:33.470263 26366 net.cpp:399] data -> label
I0403 12:31:33.470302 26366 data_transformer.cpp:25] Loading mean file from: /home/mohanty/data/final_dataset/lmdb/color-40-60/mean.binaryproto
I0403 12:31:33.473086 26371 db_lmdb.cpp:38] Opened lmdb /home/mohanty/data/final_dataset/lmdb/color-40-60/test_db
I0403 12:31:33.484735 26366 data_layer.cpp:41] output data size: 100,3,227,227
I0403 12:31:33.605877 26366 net.cpp:141] Setting up data
I0403 12:31:33.605968 26366 net.cpp:148] Top shape: 100 3 227 227 (15458700)
I0403 12:31:33.605993 26366 net.cpp:148] Top shape: 100 (100)
I0403 12:31:33.606009 26366 net.cpp:156] Memory required for data: 61835200
I0403 12:31:33.606037 26366 layer_factory.hpp:77] Creating layer label_data_1_split
I0403 12:31:33.606063 26366 net.cpp:91] Creating Layer label_data_1_split
I0403 12:31:33.606083 26366 net.cpp:425] label_data_1_split <- label
I0403 12:31:33.606114 26366 net.cpp:399] label_data_1_split -> label_data_1_split_0
I0403 12:31:33.606142 26366 net.cpp:399] label_data_1_split -> label_data_1_split_1
I0403 12:31:33.606163 26366 net.cpp:399] label_data_1_split -> label_data_1_split_2
I0403 12:31:33.606226 26366 net.cpp:141] Setting up label_data_1_split
I0403 12:31:33.606251 26366 net.cpp:148] Top shape: 100 (100)
I0403 12:31:33.606268 26366 net.cpp:148] Top shape: 100 (100)
I0403 12:31:33.606284 26366 net.cpp:148] Top shape: 100 (100)
I0403 12:31:33.606299 26366 net.cpp:156] Memory required for data: 61836400
I0403 12:31:33.606314 26366 layer_factory.hpp:77] Creating layer conv1
I0403 12:31:33.606350 26366 net.cpp:91] Creating Layer conv1
I0403 12:31:33.606370 26366 net.cpp:425] conv1 <- data
I0403 12:31:33.606391 26366 net.cpp:399] conv1 -> conv1
I0403 12:31:33.752356 26366 net.cpp:141] Setting up conv1
I0403 12:31:33.752436 26366 net.cpp:148] Top shape: 100 96 55 55 (29040000)
I0403 12:31:33.752456 26366 net.cpp:156] Memory required for data: 177996400
I0403 12:31:33.752488 26366 layer_factory.hpp:77] Creating layer relu1
I0403 12:31:33.752517 26366 net.cpp:91] Creating Layer relu1
I0403 12:31:33.752537 26366 net.cpp:425] relu1 <- conv1
I0403 12:31:33.752559 26366 net.cpp:386] relu1 -> conv1 (in-place)
I0403 12:31:33.752853 26366 net.cpp:141] Setting up relu1
I0403 12:31:33.752883 26366 net.cpp:148] Top shape: 100 96 55 55 (29040000)
I0403 12:31:33.752899 26366 net.cpp:156] Memory required for data: 294156400
I0403 12:31:33.752946 26366 layer_factory.hpp:77] Creating layer norm1
I0403 12:31:33.752979 26366 net.cpp:91] Creating Layer norm1
I0403 12:31:33.752998 26366 net.cpp:425] norm1 <- conv1
I0403 12:31:33.753018 26366 net.cpp:399] norm1 -> norm1
I0403 12:31:33.753371 26366 net.cpp:141] Setting up norm1
I0403 12:31:33.753398 26366 net.cpp:148] Top shape: 100 96 55 55 (29040000)
I0403 12:31:33.753415 26366 net.cpp:156] Memory required for data: 410316400
I0403 12:31:33.753430 26366 layer_factory.hpp:77] Creating layer pool1
I0403 12:31:33.753456 26366 net.cpp:91] Creating Layer pool1
I0403 12:31:33.753474 26366 net.cpp:425] pool1 <- norm1
I0403 12:31:33.753494 26366 net.cpp:399] pool1 -> pool1
I0403 12:31:33.753567 26366 net.cpp:141] Setting up pool1
I0403 12:31:33.753593 26366 net.cpp:148] Top shape: 100 96 27 27 (6998400)
I0403 12:31:33.753608 26366 net.cpp:156] Memory required for data: 438310000
I0403 12:31:33.753624 26366 layer_factory.hpp:77] Creating layer conv2
I0403 12:31:33.753651 26366 net.cpp:91] Creating Layer conv2
I0403 12:31:33.753669 26366 net.cpp:425] conv2 <- pool1
I0403 12:31:33.753691 26366 net.cpp:399] conv2 -> conv2
I0403 12:31:33.769446 26366 net.cpp:141] Setting up conv2
I0403 12:31:33.769498 26366 net.cpp:148] Top shape: 100 256 27 27 (18662400)
I0403 12:31:33.769516 26366 net.cpp:156] Memory required for data: 512959600
I0403 12:31:33.769541 26366 layer_factory.hpp:77] Creating layer relu2
I0403 12:31:33.769565 26366 net.cpp:91] Creating Layer relu2
I0403 12:31:33.769584 26366 net.cpp:425] relu2 <- conv2
I0403 12:31:33.769616 26366 net.cpp:386] relu2 -> conv2 (in-place)
I0403 12:31:33.769901 26366 net.cpp:141] Setting up relu2
I0403 12:31:33.769928 26366 net.cpp:148] Top shape: 100 256 27 27 (18662400)
I0403 12:31:33.769944 26366 net.cpp:156] Memory required for data: 587609200
I0403 12:31:33.769960 26366 layer_factory.hpp:77] Creating layer norm2
I0403 12:31:33.769984 26366 net.cpp:91] Creating Layer norm2
I0403 12:31:33.770002 26366 net.cpp:425] norm2 <- conv2
I0403 12:31:33.770025 26366 net.cpp:399] norm2 -> norm2
I0403 12:31:33.770227 26366 net.cpp:141] Setting up norm2
I0403 12:31:33.770254 26366 net.cpp:148] Top shape: 100 256 27 27 (18662400)
I0403 12:31:33.770269 26366 net.cpp:156] Memory required for data: 662258800
I0403 12:31:33.770287 26366 layer_factory.hpp:77] Creating layer pool2
I0403 12:31:33.770308 26366 net.cpp:91] Creating Layer pool2
I0403 12:31:33.770325 26366 net.cpp:425] pool2 <- norm2
I0403 12:31:33.770344 26366 net.cpp:399] pool2 -> pool2
I0403 12:31:33.770403 26366 net.cpp:141] Setting up pool2
I0403 12:31:33.770428 26366 net.cpp:148] Top shape: 100 256 13 13 (4326400)
I0403 12:31:33.770443 26366 net.cpp:156] Memory required for data: 679564400
I0403 12:31:33.770459 26366 layer_factory.hpp:77] Creating layer conv3
I0403 12:31:33.770484 26366 net.cpp:91] Creating Layer conv3
I0403 12:31:33.770503 26366 net.cpp:425] conv3 <- pool2
I0403 12:31:33.770524 26366 net.cpp:399] conv3 -> conv3
I0403 12:31:33.813133 26366 net.cpp:141] Setting up conv3
I0403 12:31:33.813210 26366 net.cpp:148] Top shape: 100 384 13 13 (6489600)
I0403 12:31:33.813227 26366 net.cpp:156] Memory required for data: 705522800
I0403 12:31:33.813256 26366 layer_factory.hpp:77] Creating layer relu3
I0403 12:31:33.813282 26366 net.cpp:91] Creating Layer relu3
I0403 12:31:33.813300 26366 net.cpp:425] relu3 <- conv3
I0403 12:31:33.813320 26366 net.cpp:386] relu3 -> conv3 (in-place)
I0403 12:31:33.813623 26366 net.cpp:141] Setting up relu3
I0403 12:31:33.813652 26366 net.cpp:148] Top shape: 100 384 13 13 (6489600)
I0403 12:31:33.813670 26366 net.cpp:156] Memory required for data: 731481200
I0403 12:31:33.813688 26366 layer_factory.hpp:77] Creating layer conv4
I0403 12:31:33.813714 26366 net.cpp:91] Creating Layer conv4
I0403 12:31:33.813732 26366 net.cpp:425] conv4 <- conv3
I0403 12:31:33.813756 26366 net.cpp:399] conv4 -> conv4
I0403 12:31:33.855442 26366 net.cpp:141] Setting up conv4
I0403 12:31:33.855568 26366 net.cpp:148] Top shape: 100 384 13 13 (6489600)
I0403 12:31:33.855614 26366 net.cpp:156] Memory required for data: 757439600
I0403 12:31:33.855638 26366 layer_factory.hpp:77] Creating layer relu4
I0403 12:31:33.855664 26366 net.cpp:91] Creating Layer relu4
I0403 12:31:33.855684 26366 net.cpp:425] relu4 <- conv4
I0403 12:31:33.855703 26366 net.cpp:386] relu4 -> conv4 (in-place)
I0403 12:31:33.855988 26366 net.cpp:141] Setting up relu4
I0403 12:31:33.856017 26366 net.cpp:148] Top shape: 100 384 13 13 (6489600)
I0403 12:31:33.856034 26366 net.cpp:156] Memory required for data: 783398000
I0403 12:31:33.856050 26366 layer_factory.hpp:77] Creating layer conv5
I0403 12:31:33.856076 26366 net.cpp:91] Creating Layer conv5
I0403 12:31:33.856094 26366 net.cpp:425] conv5 <- conv4
I0403 12:31:33.856117 26366 net.cpp:399] conv5 -> conv5
I0403 12:31:33.877135 26366 net.cpp:141] Setting up conv5
I0403 12:31:33.877190 26366 net.cpp:148] Top shape: 100 256 13 13 (4326400)
I0403 12:31:33.877208 26366 net.cpp:156] Memory required for data: 800703600
I0403 12:31:33.877234 26366 layer_factory.hpp:77] Creating layer relu5
I0403 12:31:33.877259 26366 net.cpp:91] Creating Layer relu5
I0403 12:31:33.877277 26366 net.cpp:425] relu5 <- conv5
I0403 12:31:33.877296 26366 net.cpp:386] relu5 -> conv5 (in-place)
I0403 12:31:33.877588 26366 net.cpp:141] Setting up relu5
I0403 12:31:33.877615 26366 net.cpp:148] Top shape: 100 256 13 13 (4326400)
I0403 12:31:33.877631 26366 net.cpp:156] Memory required for data: 818009200
I0403 12:31:33.877647 26366 layer_factory.hpp:77] Creating layer pool5
I0403 12:31:33.877673 26366 net.cpp:91] Creating Layer pool5
I0403 12:31:33.877692 26366 net.cpp:425] pool5 <- conv5
I0403 12:31:33.877714 26366 net.cpp:399] pool5 -> pool5
I0403 12:31:33.877776 26366 net.cpp:141] Setting up pool5
I0403 12:31:33.877800 26366 net.cpp:148] Top shape: 100 256 6 6 (921600)
I0403 12:31:33.877816 26366 net.cpp:156] Memory required for data: 821695600
I0403 12:31:33.877832 26366 layer_factory.hpp:77] Creating layer fc6
I0403 12:31:33.877862 26366 net.cpp:91] Creating Layer fc6
I0403 12:31:33.877882 26366 net.cpp:425] fc6 <- pool5
I0403 12:31:33.877900 26366 net.cpp:399] fc6 -> fc6
I0403 12:31:35.449498 26366 net.cpp:141] Setting up fc6
I0403 12:31:35.449550 26366 net.cpp:148] Top shape: 100 4096 (409600)
I0403 12:31:35.449566 26366 net.cpp:156] Memory required for data: 823334000
I0403 12:31:35.449589 26366 layer_factory.hpp:77] Creating layer relu6
I0403 12:31:35.449611 26366 net.cpp:91] Creating Layer relu6
I0403 12:31:35.449630 26366 net.cpp:425] relu6 <- fc6
I0403 12:31:35.449663 26366 net.cpp:386] relu6 -> fc6 (in-place)
I0403 12:31:35.449890 26366 net.cpp:141] Setting up relu6
I0403 12:31:35.449915 26366 net.cpp:148] Top shape: 100 4096 (409600)
I0403 12:31:35.449931 26366 net.cpp:156] Memory required for data: 824972400
I0403 12:31:35.449946 26366 layer_factory.hpp:77] Creating layer drop6
I0403 12:31:35.449968 26366 net.cpp:91] Creating Layer drop6
I0403 12:31:35.449985 26366 net.cpp:425] drop6 <- fc6
I0403 12:31:35.450003 26366 net.cpp:386] drop6 -> fc6 (in-place)
I0403 12:31:35.450055 26366 net.cpp:141] Setting up drop6
I0403 12:31:35.450079 26366 net.cpp:148] Top shape: 100 4096 (409600)
I0403 12:31:35.450094 26366 net.cpp:156] Memory required for data: 826610800
I0403 12:31:35.450110 26366 layer_factory.hpp:77] Creating layer fc7
I0403 12:31:35.450130 26366 net.cpp:91] Creating Layer fc7
I0403 12:31:35.450146 26366 net.cpp:425] fc7 <- fc6
I0403 12:31:35.450168 26366 net.cpp:399] fc7 -> fc7
I0403 12:31:36.135501 26366 net.cpp:141] Setting up fc7
I0403 12:31:36.135577 26366 net.cpp:148] Top shape: 100 4096 (409600)
I0403 12:31:36.135596 26366 net.cpp:156] Memory required for data: 828249200
I0403 12:31:36.135617 26366 layer_factory.hpp:77] Creating layer relu7
I0403 12:31:36.135643 26366 net.cpp:91] Creating Layer relu7
I0403 12:31:36.135663 26366 net.cpp:425] relu7 <- fc7
I0403 12:31:36.135681 26366 net.cpp:386] relu7 -> fc7 (in-place)
I0403 12:31:36.136075 26366 net.cpp:141] Setting up relu7
I0403 12:31:36.136101 26366 net.cpp:148] Top shape: 100 4096 (409600)
I0403 12:31:36.136148 26366 net.cpp:156] Memory required for data: 829887600
I0403 12:31:36.136167 26366 layer_factory.hpp:77] Creating layer drop7
I0403 12:31:36.136188 26366 net.cpp:91] Creating Layer drop7
I0403 12:31:36.136204 26366 net.cpp:425] drop7 <- fc7
I0403 12:31:36.136220 26366 net.cpp:386] drop7 -> fc7 (in-place)
I0403 12:31:36.136266 26366 net.cpp:141] Setting up drop7
I0403 12:31:36.136291 26366 net.cpp:148] Top shape: 100 4096 (409600)
I0403 12:31:36.136307 26366 net.cpp:156] Memory required for data: 831526000
I0403 12:31:36.136327 26366 layer_factory.hpp:77] Creating layer fc8_plantvillage
I0403 12:31:36.136346 26366 net.cpp:91] Creating Layer fc8_plantvillage
I0403 12:31:36.136363 26366 net.cpp:425] fc8_plantvillage <- fc7
I0403 12:31:36.136382 26366 net.cpp:399] fc8_plantvillage -> fc8_plantvillage
I0403 12:31:36.143084 26366 net.cpp:141] Setting up fc8_plantvillage
I0403 12:31:36.143112 26366 net.cpp:148] Top shape: 100 38 (3800)
I0403 12:31:36.143128 26366 net.cpp:156] Memory required for data: 831541200
I0403 12:31:36.143147 26366 layer_factory.hpp:77] Creating layer fc8_plantvillage_fc8_plantvillage_0_split
I0403 12:31:36.143168 26366 net.cpp:91] Creating Layer fc8_plantvillage_fc8_plantvillage_0_split
I0403 12:31:36.143185 26366 net.cpp:425] fc8_plantvillage_fc8_plantvillage_0_split <- fc8_plantvillage
I0403 12:31:36.143203 26366 net.cpp:399] fc8_plantvillage_fc8_plantvillage_0_split -> fc8_plantvillage_fc8_plantvillage_0_split_0
I0403 12:31:36.143224 26366 net.cpp:399] fc8_plantvillage_fc8_plantvillage_0_split -> fc8_plantvillage_fc8_plantvillage_0_split_1
I0403 12:31:36.143246 26366 net.cpp:399] fc8_plantvillage_fc8_plantvillage_0_split -> fc8_plantvillage_fc8_plantvillage_0_split_2
I0403 12:31:36.143339 26366 net.cpp:141] Setting up fc8_plantvillage_fc8_plantvillage_0_split
I0403 12:31:36.143364 26366 net.cpp:148] Top shape: 100 38 (3800)
I0403 12:31:36.143381 26366 net.cpp:148] Top shape: 100 38 (3800)
I0403 12:31:36.143399 26366 net.cpp:148] Top shape: 100 38 (3800)
I0403 12:31:36.143414 26366 net.cpp:156] Memory required for data: 831586800
I0403 12:31:36.143429 26366 layer_factory.hpp:77] Creating layer prob
I0403 12:31:36.143448 26366 net.cpp:91] Creating Layer prob
I0403 12:31:36.143465 26366 net.cpp:425] prob <- fc8_plantvillage_fc8_plantvillage_0_split_0
I0403 12:31:36.143486 26366 net.cpp:399] prob -> prob
I0403 12:31:36.143730 26366 net.cpp:141] Setting up prob
I0403 12:31:36.143757 26366 net.cpp:148] Top shape: 100 38 (3800)
I0403 12:31:36.143772 26366 net.cpp:156] Memory required for data: 831602000
I0403 12:31:36.143787 26366 layer_factory.hpp:77] Creating layer hdf5out
I0403 12:31:36.143810 26366 net.cpp:91] Creating Layer hdf5out
I0403 12:31:36.143827 26366 net.cpp:425] hdf5out <- prob
I0403 12:31:36.143842 26366 net.cpp:425] hdf5out <- label_data_1_split_0
I0403 12:31:36.155496 26366 net.cpp:141] Setting up hdf5out
…
