…
I0403 12:19:24.884385 26087 net.cpp:313] The NetState phase (1) differed from the phase (0) specified by a rule in layer data
I0403 12:19:24.884692 26087 net.cpp:49] Initializing net from parameters: 
state {
  phase: TEST
}
layer {
  name: "data"
  type: "Data"
  top: "data"
  top: "label"
  include {
    phase: TEST
  }
  transform_param {
    crop_size: 227
    mean_file: "/home/mohanty/data/final_dataset/lmdb/color-40-60/mean.binaryproto"
  }
  data_param {
    source: "/home/mohanty/data/final_dataset/lmdb/color-40-60/test_db"
    batch_size: 100
    backend: LMDB
  }
}
layer {
  name: "conv1"
  type: "Convolution"
  bottom: "data"
  top: "conv1"
  param {
    lr_mult: 1
    decay_mult: 1
  }
  param {
    lr_mult: 2
    decay_mult: 0
  }
  convolution_param {
    num_output: 96
    kernel_size: 11
    stride: 4
    weight_filler {
      type: "gaussian"
      std: 0.01
    }
    bias_filler {
      type: "constant"
      value: 0
    }
  }
}
layer {
  name: "relu1"
  type: "ReLU"
  bottom: "conv1"
  top: "conv1"
}
layer {
  name: "norm1"
  type: "LRN"
  bottom: "conv1"
  top: "norm1"
  lrn_param {
    local_size: 5
    alpha: 0.0001
    beta: 0.75
  }
}
layer {
  name: "pool1"
  type: "Pooling"
  bottom: "norm1"
  top: "pool1"
  pooling_param {
    pool: MAX
    kernel_size: 3
    stride: 2
  }
}
layer {
  name: "conv2"
  type: "Convolution"
  bottom: "pool1"
  top: "conv2"
  param {
    lr_mult: 1
    decay_mult: 1
  }
  param {
    lr_mult: 2
    decay_mult: 0
  }
  convolution_param {
    num_output: 256
    pad: 2
    kernel_size: 5
    group: 2
    weight_filler {
      type: "gaussian"
      std: 0.01
    }
    bias_filler {
      type: "constant"
      value: 0.1
    }
  }
}
layer {
  name: "relu2"
  type: "ReLU"
  bottom: "conv2"
  top: "conv2"
}
layer {
  name: "norm2"
  type: "LRN"
  bottom: "conv2"
  top: "norm2"
  lrn_param {
    local_size: 5
    alpha: 0.0001
    beta: 0.75
  }
}
layer {
  name: "pool2"
  type: "Pooling"
  bottom: "norm2"
  top: "pool2"
  pooling_param {
    pool: MAX
    kernel_size: 3
    stride: 2
  }
}
layer {
  name: "conv3"
  type: "Convolution"
  bottom: "pool2"
  top: "conv3"
  param {
    lr_mult: 1
    decay_mult: 1
  }
  param {
    lr_mult: 2
    decay_mult: 0
  }
  convolution_param {
    num_output: 384
    pad: 1
    kernel_size: 3
    weight_filler {
      type: "gaussian"
      std: 0.01
    }
    bias_filler {
      type: "constant"
      value: 0
    }
  }
}
layer {
  name: "relu3"
  type: "ReLU"
  bottom: "conv3"
  top: "conv3"
}
layer {
  name: "conv4"
  type: "Convolution"
  bottom: "conv3"
  top: "conv4"
  param {
    lr_mult: 1
    decay_mult: 1
  }
  param {
    lr_mult: 2
    decay_mult: 0
  }
  convolution_param {
    num_output: 384
    pad: 1
    kernel_size: 3
    group: 2
    weight_filler {
      type: "gaussian"
      std: 0.01
    }
    bias_filler {
      type: "constant"
      value: 0.1
    }
  }
}
layer {
  name: "relu4"
  type: "ReLU"
  bottom: "conv4"
  top: "conv4"
}
layer {
  name: "conv5"
  type: "Convolution"
  bottom: "conv4"
  top: "conv5"
  param {
    lr_mult: 1
    decay_mult: 1
  }
  param {
    lr_mult: 2
    decay_mult: 0
  }
  convolution_param {
    num_output: 256
    pad: 1
    kernel_size: 3
    group: 2
    weight_filler {
      type: "gaussian"
      std: 0.01
    }
    bias_filler {
      type: "constant"
      value: 0.1
    }
  }
}
layer {
  name: "relu5"
  type: "ReLU"
  bottom: "conv5"
  top: "conv5"
}
layer {
  name: "pool5"
  type: "Pooling"
  bottom: "conv5"
  top: "pool5"
  pooling_param {
    pool: MAX
    kernel_size: 3
    stride: 2
  }
}
layer {
  name: "fc6"
  type: "InnerProduct"
  bottom: "pool5"
  top: "fc6"
  param {
    lr_mult: 1
    decay_mult: 1
  }
  param {
    lr_mult: 2
    decay_mult: 0
  }
  inner_product_param {
    num_output: 4096
    weight_filler {
      type: "gaussian"
      std: 0.005
    }
    bias_filler {
      type: "constant"
      value: 0.1
    }
  }
}
layer {
  name: "relu6"
  type: "ReLU"
  bottom: "fc6"
  top: "fc6"
}
layer {
  name: "drop6"
  type: "Dropout"
  bottom: "fc6"
  top: "fc6"
  dropout_param {
    dropout_ratio: 0.5
  }
}
layer {
  name: "fc7"
  type: "InnerProduct"
  bottom: "fc6"
  top: "fc7"
  param {
    lr_mult: 1
    decay_mult: 1
  }
  param {
    lr_mult: 2
    decay_mult: 0
  }
  inner_product_param {
    num_output: 4096
    weight_filler {
      type: "gaussian"
      std: 0.005
    }
    bias_filler {
      type: "constant"
      value: 0.1
    }
  }
}
layer {
  name: "relu7"
  type: "ReLU"
  bottom: "fc7"
  top: "fc7"
}
layer {
  name: "drop7"
  type: "Dropout"
  bottom: "fc7"
  top: "fc7"
  dropout_param {
    dropout_ratio: 0.5
  }
}
layer {
  name: "fc8_plantvillage"
  type: "InnerProduct"
  bottom: "fc7"
  top: "fc8_plantvillage"
  param {
    lr_mult: 1
    decay_mult: 1
  }
  param {
    lr_mult: 2
    decay_mult: 0
  }
  inner_product_param {
    num_output: 38
    weight_filler {
      type: "gaussian"
      std: 0.01
    }
    bias_filler {
      type: "constant"
      value: 0
    }
  }
}
layer {
  name: "prob"
  type: "Softmax"
  bottom: "fc8_plantvillage"
  top: "prob"
  include {
    phase: TEST
  }
}
layer {
  name: "hdf5out"
  type: "HDF5Output"
  bottom: "prob"
  bottom: "label"
  include {
    phase: TEST
  }
  hdf5_output_param {
    file_name: "hdf5_dumps/iter_434.h5"
  }
}
layer {
  name: "loss"
  type: "SoftmaxWithLoss"
  bottom: "fc8_plantvillage"
  bottom: "label"
  top: "loss"
}
layer {
  name: "accuracy"
  type: "Accuracy"
  bottom: "fc8_plantvillage"
  bottom: "label"
  top: "accuracy"
  include {
    phase: TEST
  }
}
I0403 12:19:24.885296 26087 layer_factory.hpp:77] Creating layer data
I0403 12:19:24.885954 26087 net.cpp:91] Creating Layer data
I0403 12:19:24.885987 26087 net.cpp:399] data -> data
I0403 12:19:24.886039 26087 net.cpp:399] data -> label
I0403 12:19:24.886077 26087 data_transformer.cpp:25] Loading mean file from: /home/mohanty/data/final_dataset/lmdb/color-40-60/mean.binaryproto
I0403 12:19:24.888432 26090 db_lmdb.cpp:38] Opened lmdb /home/mohanty/data/final_dataset/lmdb/color-40-60/test_db
I0403 12:19:24.900610 26087 data_layer.cpp:41] output data size: 100,3,227,227
I0403 12:19:25.021129 26087 net.cpp:141] Setting up data
I0403 12:19:25.021221 26087 net.cpp:148] Top shape: 100 3 227 227 (15458700)
I0403 12:19:25.021246 26087 net.cpp:148] Top shape: 100 (100)
I0403 12:19:25.021263 26087 net.cpp:156] Memory required for data: 61835200
I0403 12:19:25.021292 26087 layer_factory.hpp:77] Creating layer label_data_1_split
I0403 12:19:25.021320 26087 net.cpp:91] Creating Layer label_data_1_split
I0403 12:19:25.021340 26087 net.cpp:425] label_data_1_split <- label
I0403 12:19:25.021379 26087 net.cpp:399] label_data_1_split -> label_data_1_split_0
I0403 12:19:25.021410 26087 net.cpp:399] label_data_1_split -> label_data_1_split_1
I0403 12:19:25.021433 26087 net.cpp:399] label_data_1_split -> label_data_1_split_2
I0403 12:19:25.021499 26087 net.cpp:141] Setting up label_data_1_split
I0403 12:19:25.021525 26087 net.cpp:148] Top shape: 100 (100)
I0403 12:19:25.021545 26087 net.cpp:148] Top shape: 100 (100)
I0403 12:19:25.021564 26087 net.cpp:148] Top shape: 100 (100)
I0403 12:19:25.021580 26087 net.cpp:156] Memory required for data: 61836400
I0403 12:19:25.021597 26087 layer_factory.hpp:77] Creating layer conv1
I0403 12:19:25.021631 26087 net.cpp:91] Creating Layer conv1
I0403 12:19:25.021651 26087 net.cpp:425] conv1 <- data
I0403 12:19:25.021672 26087 net.cpp:399] conv1 -> conv1
I0403 12:19:25.169450 26087 net.cpp:141] Setting up conv1
I0403 12:19:25.169526 26087 net.cpp:148] Top shape: 100 96 55 55 (29040000)
I0403 12:19:25.169559 26087 net.cpp:156] Memory required for data: 177996400
I0403 12:19:25.169591 26087 layer_factory.hpp:77] Creating layer relu1
I0403 12:19:25.169631 26087 net.cpp:91] Creating Layer relu1
I0403 12:19:25.169651 26087 net.cpp:425] relu1 <- conv1
I0403 12:19:25.169672 26087 net.cpp:386] relu1 -> conv1 (in-place)
I0403 12:19:25.169920 26087 net.cpp:141] Setting up relu1
I0403 12:19:25.169948 26087 net.cpp:148] Top shape: 100 96 55 55 (29040000)
I0403 12:19:25.169965 26087 net.cpp:156] Memory required for data: 294156400
I0403 12:19:25.170016 26087 layer_factory.hpp:77] Creating layer norm1
I0403 12:19:25.170045 26087 net.cpp:91] Creating Layer norm1
I0403 12:19:25.170065 26087 net.cpp:425] norm1 <- conv1
I0403 12:19:25.170084 26087 net.cpp:399] norm1 -> norm1
I0403 12:19:25.170421 26087 net.cpp:141] Setting up norm1
I0403 12:19:25.170449 26087 net.cpp:148] Top shape: 100 96 55 55 (29040000)
I0403 12:19:25.170466 26087 net.cpp:156] Memory required for data: 410316400
I0403 12:19:25.170482 26087 layer_factory.hpp:77] Creating layer pool1
I0403 12:19:25.170507 26087 net.cpp:91] Creating Layer pool1
I0403 12:19:25.170526 26087 net.cpp:425] pool1 <- norm1
I0403 12:19:25.170547 26087 net.cpp:399] pool1 -> pool1
I0403 12:19:25.170614 26087 net.cpp:141] Setting up pool1
I0403 12:19:25.170639 26087 net.cpp:148] Top shape: 100 96 27 27 (6998400)
I0403 12:19:25.170655 26087 net.cpp:156] Memory required for data: 438310000
I0403 12:19:25.170673 26087 layer_factory.hpp:77] Creating layer conv2
I0403 12:19:25.170699 26087 net.cpp:91] Creating Layer conv2
I0403 12:19:25.170717 26087 net.cpp:425] conv2 <- pool1
I0403 12:19:25.170737 26087 net.cpp:399] conv2 -> conv2
I0403 12:19:25.185902 26087 net.cpp:141] Setting up conv2
I0403 12:19:25.185952 26087 net.cpp:148] Top shape: 100 256 27 27 (18662400)
I0403 12:19:25.185971 26087 net.cpp:156] Memory required for data: 512959600
I0403 12:19:25.185995 26087 layer_factory.hpp:77] Creating layer relu2
I0403 12:19:25.186020 26087 net.cpp:91] Creating Layer relu2
I0403 12:19:25.186041 26087 net.cpp:425] relu2 <- conv2
I0403 12:19:25.186061 26087 net.cpp:386] relu2 -> conv2 (in-place)
I0403 12:19:25.186439 26087 net.cpp:141] Setting up relu2
I0403 12:19:25.186467 26087 net.cpp:148] Top shape: 100 256 27 27 (18662400)
I0403 12:19:25.186485 26087 net.cpp:156] Memory required for data: 587609200
I0403 12:19:25.186501 26087 layer_factory.hpp:77] Creating layer norm2
I0403 12:19:25.186527 26087 net.cpp:91] Creating Layer norm2
I0403 12:19:25.186545 26087 net.cpp:425] norm2 <- conv2
I0403 12:19:25.186566 26087 net.cpp:399] norm2 -> norm2
I0403 12:19:25.186816 26087 net.cpp:141] Setting up norm2
I0403 12:19:25.186846 26087 net.cpp:148] Top shape: 100 256 27 27 (18662400)
I0403 12:19:25.186862 26087 net.cpp:156] Memory required for data: 662258800
I0403 12:19:25.186879 26087 layer_factory.hpp:77] Creating layer pool2
I0403 12:19:25.186902 26087 net.cpp:91] Creating Layer pool2
I0403 12:19:25.186921 26087 net.cpp:425] pool2 <- norm2
I0403 12:19:25.186940 26087 net.cpp:399] pool2 -> pool2
I0403 12:19:25.186995 26087 net.cpp:141] Setting up pool2
I0403 12:19:25.187021 26087 net.cpp:148] Top shape: 100 256 13 13 (4326400)
I0403 12:19:25.187036 26087 net.cpp:156] Memory required for data: 679564400
I0403 12:19:25.187052 26087 layer_factory.hpp:77] Creating layer conv3
I0403 12:19:25.187077 26087 net.cpp:91] Creating Layer conv3
I0403 12:19:25.187095 26087 net.cpp:425] conv3 <- pool2
I0403 12:19:25.187117 26087 net.cpp:399] conv3 -> conv3
I0403 12:19:25.226196 26087 net.cpp:141] Setting up conv3
I0403 12:19:25.226270 26087 net.cpp:148] Top shape: 100 384 13 13 (6489600)
I0403 12:19:25.226290 26087 net.cpp:156] Memory required for data: 705522800
I0403 12:19:25.226318 26087 layer_factory.hpp:77] Creating layer relu3
I0403 12:19:25.226349 26087 net.cpp:91] Creating Layer relu3
I0403 12:19:25.226372 26087 net.cpp:425] relu3 <- conv3
I0403 12:19:25.226399 26087 net.cpp:386] relu3 -> conv3 (in-place)
I0403 12:19:25.226688 26087 net.cpp:141] Setting up relu3
I0403 12:19:25.226722 26087 net.cpp:148] Top shape: 100 384 13 13 (6489600)
I0403 12:19:25.226739 26087 net.cpp:156] Memory required for data: 731481200
I0403 12:19:25.226757 26087 layer_factory.hpp:77] Creating layer conv4
I0403 12:19:25.226786 26087 net.cpp:91] Creating Layer conv4
I0403 12:19:25.226807 26087 net.cpp:425] conv4 <- conv3
I0403 12:19:25.226831 26087 net.cpp:399] conv4 -> conv4
I0403 12:19:25.258097 26087 net.cpp:141] Setting up conv4
I0403 12:19:25.258167 26087 net.cpp:148] Top shape: 100 384 13 13 (6489600)
I0403 12:19:25.258215 26087 net.cpp:156] Memory required for data: 757439600
I0403 12:19:25.258241 26087 layer_factory.hpp:77] Creating layer relu4
I0403 12:19:25.258266 26087 net.cpp:91] Creating Layer relu4
I0403 12:19:25.258285 26087 net.cpp:425] relu4 <- conv4
I0403 12:19:25.258308 26087 net.cpp:386] relu4 -> conv4 (in-place)
I0403 12:19:25.258657 26087 net.cpp:141] Setting up relu4
I0403 12:19:25.258687 26087 net.cpp:148] Top shape: 100 384 13 13 (6489600)
I0403 12:19:25.258703 26087 net.cpp:156] Memory required for data: 783398000
I0403 12:19:25.258720 26087 layer_factory.hpp:77] Creating layer conv5
I0403 12:19:25.258750 26087 net.cpp:91] Creating Layer conv5
I0403 12:19:25.258771 26087 net.cpp:425] conv5 <- conv4
I0403 12:19:25.258795 26087 net.cpp:399] conv5 -> conv5
I0403 12:19:25.279953 26087 net.cpp:141] Setting up conv5
I0403 12:19:25.280005 26087 net.cpp:148] Top shape: 100 256 13 13 (4326400)
I0403 12:19:25.280024 26087 net.cpp:156] Memory required for data: 800703600
I0403 12:19:25.280050 26087 layer_factory.hpp:77] Creating layer relu5
I0403 12:19:25.280077 26087 net.cpp:91] Creating Layer relu5
I0403 12:19:25.280097 26087 net.cpp:425] relu5 <- conv5
I0403 12:19:25.280117 26087 net.cpp:386] relu5 -> conv5 (in-place)
I0403 12:19:25.280402 26087 net.cpp:141] Setting up relu5
I0403 12:19:25.280431 26087 net.cpp:148] Top shape: 100 256 13 13 (4326400)
I0403 12:19:25.280448 26087 net.cpp:156] Memory required for data: 818009200
I0403 12:19:25.280465 26087 layer_factory.hpp:77] Creating layer pool5
I0403 12:19:25.280493 26087 net.cpp:91] Creating Layer pool5
I0403 12:19:25.280513 26087 net.cpp:425] pool5 <- conv5
I0403 12:19:25.280532 26087 net.cpp:399] pool5 -> pool5
I0403 12:19:25.280598 26087 net.cpp:141] Setting up pool5
I0403 12:19:25.280623 26087 net.cpp:148] Top shape: 100 256 6 6 (921600)
I0403 12:19:25.280640 26087 net.cpp:156] Memory required for data: 821695600
I0403 12:19:25.280657 26087 layer_factory.hpp:77] Creating layer fc6
I0403 12:19:25.280688 26087 net.cpp:91] Creating Layer fc6
I0403 12:19:25.280707 26087 net.cpp:425] fc6 <- pool5
I0403 12:19:25.280726 26087 net.cpp:399] fc6 -> fc6
I0403 12:19:26.854737 26087 net.cpp:141] Setting up fc6
I0403 12:19:26.854780 26087 net.cpp:148] Top shape: 100 4096 (409600)
I0403 12:19:26.854797 26087 net.cpp:156] Memory required for data: 823334000
I0403 12:19:26.854820 26087 layer_factory.hpp:77] Creating layer relu6
I0403 12:19:26.854842 26087 net.cpp:91] Creating Layer relu6
I0403 12:19:26.854861 26087 net.cpp:425] relu6 <- fc6
I0403 12:19:26.854884 26087 net.cpp:386] relu6 -> fc6 (in-place)
I0403 12:19:26.855113 26087 net.cpp:141] Setting up relu6
I0403 12:19:26.855140 26087 net.cpp:148] Top shape: 100 4096 (409600)
I0403 12:19:26.855156 26087 net.cpp:156] Memory required for data: 824972400
I0403 12:19:26.855173 26087 layer_factory.hpp:77] Creating layer drop6
I0403 12:19:26.855198 26087 net.cpp:91] Creating Layer drop6
I0403 12:19:26.855228 26087 net.cpp:425] drop6 <- fc6
I0403 12:19:26.855247 26087 net.cpp:386] drop6 -> fc6 (in-place)
I0403 12:19:26.855295 26087 net.cpp:141] Setting up drop6
I0403 12:19:26.855320 26087 net.cpp:148] Top shape: 100 4096 (409600)
I0403 12:19:26.855336 26087 net.cpp:156] Memory required for data: 826610800
I0403 12:19:26.855360 26087 layer_factory.hpp:77] Creating layer fc7
I0403 12:19:26.855381 26087 net.cpp:91] Creating Layer fc7
I0403 12:19:26.855397 26087 net.cpp:425] fc7 <- fc6
I0403 12:19:26.855419 26087 net.cpp:399] fc7 -> fc7
I0403 12:19:27.552961 26087 net.cpp:141] Setting up fc7
I0403 12:19:27.553038 26087 net.cpp:148] Top shape: 100 4096 (409600)
I0403 12:19:27.553056 26087 net.cpp:156] Memory required for data: 828249200
I0403 12:19:27.553078 26087 layer_factory.hpp:77] Creating layer relu7
I0403 12:19:27.553102 26087 net.cpp:91] Creating Layer relu7
I0403 12:19:27.553122 26087 net.cpp:425] relu7 <- fc7
I0403 12:19:27.553144 26087 net.cpp:386] relu7 -> fc7 (in-place)
I0403 12:19:27.553562 26087 net.cpp:141] Setting up relu7
I0403 12:19:27.553591 26087 net.cpp:148] Top shape: 100 4096 (409600)
I0403 12:19:27.553637 26087 net.cpp:156] Memory required for data: 829887600
I0403 12:19:27.553655 26087 layer_factory.hpp:77] Creating layer drop7
I0403 12:19:27.553674 26087 net.cpp:91] Creating Layer drop7
I0403 12:19:27.553691 26087 net.cpp:425] drop7 <- fc7
I0403 12:19:27.553714 26087 net.cpp:386] drop7 -> fc7 (in-place)
I0403 12:19:27.553761 26087 net.cpp:141] Setting up drop7
I0403 12:19:27.553788 26087 net.cpp:148] Top shape: 100 4096 (409600)
I0403 12:19:27.553803 26087 net.cpp:156] Memory required for data: 831526000
I0403 12:19:27.553819 26087 layer_factory.hpp:77] Creating layer fc8_plantvillage
I0403 12:19:27.553839 26087 net.cpp:91] Creating Layer fc8_plantvillage
I0403 12:19:27.553855 26087 net.cpp:425] fc8_plantvillage <- fc7
I0403 12:19:27.553879 26087 net.cpp:399] fc8_plantvillage -> fc8_plantvillage
I0403 12:19:27.560587 26087 net.cpp:141] Setting up fc8_plantvillage
I0403 12:19:27.560617 26087 net.cpp:148] Top shape: 100 38 (3800)
I0403 12:19:27.560636 26087 net.cpp:156] Memory required for data: 831541200
I0403 12:19:27.560654 26087 layer_factory.hpp:77] Creating layer fc8_plantvillage_fc8_plantvillage_0_split
I0403 12:19:27.560678 26087 net.cpp:91] Creating Layer fc8_plantvillage_fc8_plantvillage_0_split
I0403 12:19:27.560695 26087 net.cpp:425] fc8_plantvillage_fc8_plantvillage_0_split <- fc8_plantvillage
I0403 12:19:27.560714 26087 net.cpp:399] fc8_plantvillage_fc8_plantvillage_0_split -> fc8_plantvillage_fc8_plantvillage_0_split_0
I0403 12:19:27.560735 26087 net.cpp:399] fc8_plantvillage_fc8_plantvillage_0_split -> fc8_plantvillage_fc8_plantvillage_0_split_1
I0403 12:19:27.560756 26087 net.cpp:399] fc8_plantvillage_fc8_plantvillage_0_split -> fc8_plantvillage_fc8_plantvillage_0_split_2
I0403 12:19:27.560837 26087 net.cpp:141] Setting up fc8_plantvillage_fc8_plantvillage_0_split
I0403 12:19:27.560861 26087 net.cpp:148] Top shape: 100 38 (3800)
I0403 12:19:27.560878 26087 net.cpp:148] Top shape: 100 38 (3800)
I0403 12:19:27.560894 26087 net.cpp:148] Top shape: 100 38 (3800)
I0403 12:19:27.560910 26087 net.cpp:156] Memory required for data: 831586800
I0403 12:19:27.560925 26087 layer_factory.hpp:77] Creating layer prob
I0403 12:19:27.560945 26087 net.cpp:91] Creating Layer prob
I0403 12:19:27.560961 26087 net.cpp:425] prob <- fc8_plantvillage_fc8_plantvillage_0_split_0
I0403 12:19:27.560979 26087 net.cpp:399] prob -> prob
I0403 12:19:27.561206 26087 net.cpp:141] Setting up prob
I0403 12:19:27.561233 26087 net.cpp:148] Top shape: 100 38 (3800)
I0403 12:19:27.561249 26087 net.cpp:156] Memory required for data: 831602000
I0403 12:19:27.561264 26087 layer_factory.hpp:77] Creating layer hdf5out
I0403 12:19:27.561283 26087 net.cpp:91] Creating Layer hdf5out
I0403 12:19:27.561301 26087 net.cpp:425] hdf5out <- prob
I0403 12:19:27.561318 26087 net.cpp:425] hdf5out <- label_data_1_split_0
I0403 12:19:27.568789 26087 net.cpp:141] Setting up hdf5out
…
