…
I0403 12:21:36.644495 26142 net.cpp:313] The NetState phase (1) differed from the phase (0) specified by a rule in layer data
I0403 12:21:36.644804 26142 net.cpp:49] Initializing net from parameters: 
state {
  phase: TEST
}
layer {
  name: "data"
  type: "Data"
  top: "data"
  top: "label"
  include {
    phase: TEST
  }
  transform_param {
    crop_size: 227
    mean_file: "/home/mohanty/data/final_dataset/lmdb/color-40-60/mean.binaryproto"
  }
  data_param {
    source: "/home/mohanty/data/final_dataset/lmdb/color-40-60/test_db"
    batch_size: 100
    backend: LMDB
  }
}
layer {
  name: "conv1"
  type: "Convolution"
  bottom: "data"
  top: "conv1"
  param {
    lr_mult: 1
    decay_mult: 1
  }
  param {
    lr_mult: 2
    decay_mult: 0
  }
  convolution_param {
    num_output: 96
    kernel_size: 11
    stride: 4
    weight_filler {
      type: "gaussian"
      std: 0.01
    }
    bias_filler {
      type: "constant"
      value: 0
    }
  }
}
layer {
  name: "relu1"
  type: "ReLU"
  bottom: "conv1"
  top: "conv1"
}
layer {
  name: "norm1"
  type: "LRN"
  bottom: "conv1"
  top: "norm1"
  lrn_param {
    local_size: 5
    alpha: 0.0001
    beta: 0.75
  }
}
layer {
  name: "pool1"
  type: "Pooling"
  bottom: "norm1"
  top: "pool1"
  pooling_param {
    pool: MAX
    kernel_size: 3
    stride: 2
  }
}
layer {
  name: "conv2"
  type: "Convolution"
  bottom: "pool1"
  top: "conv2"
  param {
    lr_mult: 1
    decay_mult: 1
  }
  param {
    lr_mult: 2
    decay_mult: 0
  }
  convolution_param {
    num_output: 256
    pad: 2
    kernel_size: 5
    group: 2
    weight_filler {
      type: "gaussian"
      std: 0.01
    }
    bias_filler {
      type: "constant"
      value: 0.1
    }
  }
}
layer {
  name: "relu2"
  type: "ReLU"
  bottom: "conv2"
  top: "conv2"
}
layer {
  name: "norm2"
  type: "LRN"
  bottom: "conv2"
  top: "norm2"
  lrn_param {
    local_size: 5
    alpha: 0.0001
    beta: 0.75
  }
}
layer {
  name: "pool2"
  type: "Pooling"
  bottom: "norm2"
  top: "pool2"
  pooling_param {
    pool: MAX
    kernel_size: 3
    stride: 2
  }
}
layer {
  name: "conv3"
  type: "Convolution"
  bottom: "pool2"
  top: "conv3"
  param {
    lr_mult: 1
    decay_mult: 1
  }
  param {
    lr_mult: 2
    decay_mult: 0
  }
  convolution_param {
    num_output: 384
    pad: 1
    kernel_size: 3
    weight_filler {
      type: "gaussian"
      std: 0.01
    }
    bias_filler {
      type: "constant"
      value: 0
    }
  }
}
layer {
  name: "relu3"
  type: "ReLU"
  bottom: "conv3"
  top: "conv3"
}
layer {
  name: "conv4"
  type: "Convolution"
  bottom: "conv3"
  top: "conv4"
  param {
    lr_mult: 1
    decay_mult: 1
  }
  param {
    lr_mult: 2
    decay_mult: 0
  }
  convolution_param {
    num_output: 384
    pad: 1
    kernel_size: 3
    group: 2
    weight_filler {
      type: "gaussian"
      std: 0.01
    }
    bias_filler {
      type: "constant"
      value: 0.1
    }
  }
}
layer {
  name: "relu4"
  type: "ReLU"
  bottom: "conv4"
  top: "conv4"
}
layer {
  name: "conv5"
  type: "Convolution"
  bottom: "conv4"
  top: "conv5"
  param {
    lr_mult: 1
    decay_mult: 1
  }
  param {
    lr_mult: 2
    decay_mult: 0
  }
  convolution_param {
    num_output: 256
    pad: 1
    kernel_size: 3
    group: 2
    weight_filler {
      type: "gaussian"
      std: 0.01
    }
    bias_filler {
      type: "constant"
      value: 0.1
    }
  }
}
layer {
  name: "relu5"
  type: "ReLU"
  bottom: "conv5"
  top: "conv5"
}
layer {
  name: "pool5"
  type: "Pooling"
  bottom: "conv5"
  top: "pool5"
  pooling_param {
    pool: MAX
    kernel_size: 3
    stride: 2
  }
}
layer {
  name: "fc6"
  type: "InnerProduct"
  bottom: "pool5"
  top: "fc6"
  param {
    lr_mult: 1
    decay_mult: 1
  }
  param {
    lr_mult: 2
    decay_mult: 0
  }
  inner_product_param {
    num_output: 4096
    weight_filler {
      type: "gaussian"
      std: 0.005
    }
    bias_filler {
      type: "constant"
      value: 0.1
    }
  }
}
layer {
  name: "relu6"
  type: "ReLU"
  bottom: "fc6"
  top: "fc6"
}
layer {
  name: "drop6"
  type: "Dropout"
  bottom: "fc6"
  top: "fc6"
  dropout_param {
    dropout_ratio: 0.5
  }
}
layer {
  name: "fc7"
  type: "InnerProduct"
  bottom: "fc6"
  top: "fc7"
  param {
    lr_mult: 1
    decay_mult: 1
  }
  param {
    lr_mult: 2
    decay_mult: 0
  }
  inner_product_param {
    num_output: 4096
    weight_filler {
      type: "gaussian"
      std: 0.005
    }
    bias_filler {
      type: "constant"
      value: 0.1
    }
  }
}
layer {
  name: "relu7"
  type: "ReLU"
  bottom: "fc7"
  top: "fc7"
}
layer {
  name: "drop7"
  type: "Dropout"
  bottom: "fc7"
  top: "fc7"
  dropout_param {
    dropout_ratio: 0.5
  }
}
layer {
  name: "fc8_plantvillage"
  type: "InnerProduct"
  bottom: "fc7"
  top: "fc8_plantvillage"
  param {
    lr_mult: 1
    decay_mult: 1
  }
  param {
    lr_mult: 2
    decay_mult: 0
  }
  inner_product_param {
    num_output: 38
    weight_filler {
      type: "gaussian"
      std: 0.01
    }
    bias_filler {
      type: "constant"
      value: 0
    }
  }
}
layer {
  name: "prob"
  type: "Softmax"
  bottom: "fc8_plantvillage"
  top: "prob"
  include {
    phase: TEST
  }
}
layer {
  name: "hdf5out"
  type: "HDF5Output"
  bottom: "prob"
  bottom: "label"
  include {
    phase: TEST
  }
  hdf5_output_param {
    file_name: "hdf5_dumps/iter_868.h5"
  }
}
layer {
  name: "loss"
  type: "SoftmaxWithLoss"
  bottom: "fc8_plantvillage"
  bottom: "label"
  top: "loss"
}
layer {
  name: "accuracy"
  type: "Accuracy"
  bottom: "fc8_plantvillage"
  bottom: "label"
  top: "accuracy"
  include {
    phase: TEST
  }
}
I0403 12:21:36.645416 26142 layer_factory.hpp:77] Creating layer data
I0403 12:21:36.646069 26142 net.cpp:91] Creating Layer data
I0403 12:21:36.646102 26142 net.cpp:399] data -> data
I0403 12:21:36.646157 26142 net.cpp:399] data -> label
I0403 12:21:36.646195 26142 data_transformer.cpp:25] Loading mean file from: /home/mohanty/data/final_dataset/lmdb/color-40-60/mean.binaryproto
I0403 12:21:36.649030 26145 db_lmdb.cpp:38] Opened lmdb /home/mohanty/data/final_dataset/lmdb/color-40-60/test_db
I0403 12:21:36.671362 26142 data_layer.cpp:41] output data size: 100,3,227,227
I0403 12:21:36.795169 26142 net.cpp:141] Setting up data
I0403 12:21:36.795264 26142 net.cpp:148] Top shape: 100 3 227 227 (15458700)
I0403 12:21:36.795289 26142 net.cpp:148] Top shape: 100 (100)
I0403 12:21:36.795305 26142 net.cpp:156] Memory required for data: 61835200
I0403 12:21:36.795341 26142 layer_factory.hpp:77] Creating layer label_data_1_split
I0403 12:21:36.795367 26142 net.cpp:91] Creating Layer label_data_1_split
I0403 12:21:36.795387 26142 net.cpp:425] label_data_1_split <- label
I0403 12:21:36.795419 26142 net.cpp:399] label_data_1_split -> label_data_1_split_0
I0403 12:21:36.795447 26142 net.cpp:399] label_data_1_split -> label_data_1_split_1
I0403 12:21:36.795469 26142 net.cpp:399] label_data_1_split -> label_data_1_split_2
I0403 12:21:36.795536 26142 net.cpp:141] Setting up label_data_1_split
I0403 12:21:36.795560 26142 net.cpp:148] Top shape: 100 (100)
I0403 12:21:36.795579 26142 net.cpp:148] Top shape: 100 (100)
I0403 12:21:36.795598 26142 net.cpp:148] Top shape: 100 (100)
I0403 12:21:36.795614 26142 net.cpp:156] Memory required for data: 61836400
I0403 12:21:36.795629 26142 layer_factory.hpp:77] Creating layer conv1
I0403 12:21:36.795661 26142 net.cpp:91] Creating Layer conv1
I0403 12:21:36.795680 26142 net.cpp:425] conv1 <- data
I0403 12:21:36.795702 26142 net.cpp:399] conv1 -> conv1
I0403 12:21:36.940963 26142 net.cpp:141] Setting up conv1
I0403 12:21:36.941042 26142 net.cpp:148] Top shape: 100 96 55 55 (29040000)
I0403 12:21:36.941062 26142 net.cpp:156] Memory required for data: 177996400
I0403 12:21:36.941097 26142 layer_factory.hpp:77] Creating layer relu1
I0403 12:21:36.941128 26142 net.cpp:91] Creating Layer relu1
I0403 12:21:36.941149 26142 net.cpp:425] relu1 <- conv1
I0403 12:21:36.941170 26142 net.cpp:386] relu1 -> conv1 (in-place)
I0403 12:21:36.941459 26142 net.cpp:141] Setting up relu1
I0403 12:21:36.941489 26142 net.cpp:148] Top shape: 100 96 55 55 (29040000)
I0403 12:21:36.941507 26142 net.cpp:156] Memory required for data: 294156400
I0403 12:21:36.941556 26142 layer_factory.hpp:77] Creating layer norm1
I0403 12:21:36.941603 26142 net.cpp:91] Creating Layer norm1
I0403 12:21:36.941625 26142 net.cpp:425] norm1 <- conv1
I0403 12:21:36.941645 26142 net.cpp:399] norm1 -> norm1
I0403 12:21:36.941998 26142 net.cpp:141] Setting up norm1
I0403 12:21:36.942031 26142 net.cpp:148] Top shape: 100 96 55 55 (29040000)
I0403 12:21:36.942049 26142 net.cpp:156] Memory required for data: 410316400
I0403 12:21:36.942065 26142 layer_factory.hpp:77] Creating layer pool1
I0403 12:21:36.942090 26142 net.cpp:91] Creating Layer pool1
I0403 12:21:36.942106 26142 net.cpp:425] pool1 <- norm1
I0403 12:21:36.942126 26142 net.cpp:399] pool1 -> pool1
I0403 12:21:36.942203 26142 net.cpp:141] Setting up pool1
I0403 12:21:36.942229 26142 net.cpp:148] Top shape: 100 96 27 27 (6998400)
I0403 12:21:36.942245 26142 net.cpp:156] Memory required for data: 438310000
I0403 12:21:36.942262 26142 layer_factory.hpp:77] Creating layer conv2
I0403 12:21:36.942291 26142 net.cpp:91] Creating Layer conv2
I0403 12:21:36.942309 26142 net.cpp:425] conv2 <- pool1
I0403 12:21:36.942330 26142 net.cpp:399] conv2 -> conv2
I0403 12:21:36.957893 26142 net.cpp:141] Setting up conv2
I0403 12:21:36.957942 26142 net.cpp:148] Top shape: 100 256 27 27 (18662400)
I0403 12:21:36.957960 26142 net.cpp:156] Memory required for data: 512959600
I0403 12:21:36.957985 26142 layer_factory.hpp:77] Creating layer relu2
I0403 12:21:36.958008 26142 net.cpp:91] Creating Layer relu2
I0403 12:21:36.958024 26142 net.cpp:425] relu2 <- conv2
I0403 12:21:36.958046 26142 net.cpp:386] relu2 -> conv2 (in-place)
I0403 12:21:36.958338 26142 net.cpp:141] Setting up relu2
I0403 12:21:36.958372 26142 net.cpp:148] Top shape: 100 256 27 27 (18662400)
I0403 12:21:36.958390 26142 net.cpp:156] Memory required for data: 587609200
I0403 12:21:36.958407 26142 layer_factory.hpp:77] Creating layer norm2
I0403 12:21:36.958433 26142 net.cpp:91] Creating Layer norm2
I0403 12:21:36.958451 26142 net.cpp:425] norm2 <- conv2
I0403 12:21:36.958472 26142 net.cpp:399] norm2 -> norm2
I0403 12:21:36.958727 26142 net.cpp:141] Setting up norm2
I0403 12:21:36.958760 26142 net.cpp:148] Top shape: 100 256 27 27 (18662400)
I0403 12:21:36.958777 26142 net.cpp:156] Memory required for data: 662258800
I0403 12:21:36.958794 26142 layer_factory.hpp:77] Creating layer pool2
I0403 12:21:36.958813 26142 net.cpp:91] Creating Layer pool2
I0403 12:21:36.958830 26142 net.cpp:425] pool2 <- norm2
I0403 12:21:36.958854 26142 net.cpp:399] pool2 -> pool2
I0403 12:21:36.958910 26142 net.cpp:141] Setting up pool2
I0403 12:21:36.958936 26142 net.cpp:148] Top shape: 100 256 13 13 (4326400)
I0403 12:21:36.958952 26142 net.cpp:156] Memory required for data: 679564400
I0403 12:21:36.958969 26142 layer_factory.hpp:77] Creating layer conv3
I0403 12:21:36.958993 26142 net.cpp:91] Creating Layer conv3
I0403 12:21:36.959012 26142 net.cpp:425] conv3 <- pool2
I0403 12:21:36.959035 26142 net.cpp:399] conv3 -> conv3
I0403 12:21:37.002802 26142 net.cpp:141] Setting up conv3
I0403 12:21:37.002881 26142 net.cpp:148] Top shape: 100 384 13 13 (6489600)
I0403 12:21:37.002900 26142 net.cpp:156] Memory required for data: 705522800
I0403 12:21:37.002940 26142 layer_factory.hpp:77] Creating layer relu3
I0403 12:21:37.002965 26142 net.cpp:91] Creating Layer relu3
I0403 12:21:37.002984 26142 net.cpp:425] relu3 <- conv3
I0403 12:21:37.003003 26142 net.cpp:386] relu3 -> conv3 (in-place)
I0403 12:21:37.003305 26142 net.cpp:141] Setting up relu3
I0403 12:21:37.003353 26142 net.cpp:148] Top shape: 100 384 13 13 (6489600)
I0403 12:21:37.003371 26142 net.cpp:156] Memory required for data: 731481200
I0403 12:21:37.003388 26142 layer_factory.hpp:77] Creating layer conv4
I0403 12:21:37.003415 26142 net.cpp:91] Creating Layer conv4
I0403 12:21:37.003434 26142 net.cpp:425] conv4 <- conv3
I0403 12:21:37.003454 26142 net.cpp:399] conv4 -> conv4
I0403 12:21:37.034267 26142 net.cpp:141] Setting up conv4
I0403 12:21:37.034332 26142 net.cpp:148] Top shape: 100 384 13 13 (6489600)
I0403 12:21:37.034395 26142 net.cpp:156] Memory required for data: 757439600
I0403 12:21:37.034422 26142 layer_factory.hpp:77] Creating layer relu4
I0403 12:21:37.034451 26142 net.cpp:91] Creating Layer relu4
I0403 12:21:37.034472 26142 net.cpp:425] relu4 <- conv4
I0403 12:21:37.034495 26142 net.cpp:386] relu4 -> conv4 (in-place)
I0403 12:21:37.034795 26142 net.cpp:141] Setting up relu4
I0403 12:21:37.034824 26142 net.cpp:148] Top shape: 100 384 13 13 (6489600)
I0403 12:21:37.034840 26142 net.cpp:156] Memory required for data: 783398000
I0403 12:21:37.034857 26142 layer_factory.hpp:77] Creating layer conv5
I0403 12:21:37.034883 26142 net.cpp:91] Creating Layer conv5
I0403 12:21:37.034903 26142 net.cpp:425] conv5 <- conv4
I0403 12:21:37.034925 26142 net.cpp:399] conv5 -> conv5
I0403 12:21:37.056067 26142 net.cpp:141] Setting up conv5
I0403 12:21:37.056123 26142 net.cpp:148] Top shape: 100 256 13 13 (4326400)
I0403 12:21:37.056141 26142 net.cpp:156] Memory required for data: 800703600
I0403 12:21:37.056169 26142 layer_factory.hpp:77] Creating layer relu5
I0403 12:21:37.056196 26142 net.cpp:91] Creating Layer relu5
I0403 12:21:37.056217 26142 net.cpp:425] relu5 <- conv5
I0403 12:21:37.056242 26142 net.cpp:386] relu5 -> conv5 (in-place)
I0403 12:21:37.056550 26142 net.cpp:141] Setting up relu5
I0403 12:21:37.056582 26142 net.cpp:148] Top shape: 100 256 13 13 (4326400)
I0403 12:21:37.056601 26142 net.cpp:156] Memory required for data: 818009200
I0403 12:21:37.056617 26142 layer_factory.hpp:77] Creating layer pool5
I0403 12:21:37.056641 26142 net.cpp:91] Creating Layer pool5
I0403 12:21:37.056658 26142 net.cpp:425] pool5 <- conv5
I0403 12:21:37.056681 26142 net.cpp:399] pool5 -> pool5
I0403 12:21:37.056746 26142 net.cpp:141] Setting up pool5
I0403 12:21:37.056773 26142 net.cpp:148] Top shape: 100 256 6 6 (921600)
I0403 12:21:37.056790 26142 net.cpp:156] Memory required for data: 821695600
I0403 12:21:37.056807 26142 layer_factory.hpp:77] Creating layer fc6
I0403 12:21:37.056834 26142 net.cpp:91] Creating Layer fc6
I0403 12:21:37.056854 26142 net.cpp:425] fc6 <- pool5
I0403 12:21:37.056876 26142 net.cpp:399] fc6 -> fc6
I0403 12:21:38.613680 26142 net.cpp:141] Setting up fc6
I0403 12:21:38.613725 26142 net.cpp:148] Top shape: 100 4096 (409600)
I0403 12:21:38.613744 26142 net.cpp:156] Memory required for data: 823334000
I0403 12:21:38.613765 26142 layer_factory.hpp:77] Creating layer relu6
I0403 12:21:38.613788 26142 net.cpp:91] Creating Layer relu6
I0403 12:21:38.613806 26142 net.cpp:425] relu6 <- fc6
I0403 12:21:38.613837 26142 net.cpp:386] relu6 -> fc6 (in-place)
I0403 12:21:38.614045 26142 net.cpp:141] Setting up relu6
I0403 12:21:38.614073 26142 net.cpp:148] Top shape: 100 4096 (409600)
I0403 12:21:38.614089 26142 net.cpp:156] Memory required for data: 824972400
I0403 12:21:38.614104 26142 layer_factory.hpp:77] Creating layer drop6
I0403 12:21:38.614123 26142 net.cpp:91] Creating Layer drop6
I0403 12:21:38.614138 26142 net.cpp:425] drop6 <- fc6
I0403 12:21:38.614156 26142 net.cpp:386] drop6 -> fc6 (in-place)
I0403 12:21:38.614205 26142 net.cpp:141] Setting up drop6
I0403 12:21:38.614228 26142 net.cpp:148] Top shape: 100 4096 (409600)
I0403 12:21:38.614243 26142 net.cpp:156] Memory required for data: 826610800
I0403 12:21:38.614258 26142 layer_factory.hpp:77] Creating layer fc7
I0403 12:21:38.614279 26142 net.cpp:91] Creating Layer fc7
I0403 12:21:38.614296 26142 net.cpp:425] fc7 <- fc6
I0403 12:21:38.614315 26142 net.cpp:399] fc7 -> fc7
I0403 12:21:39.302898 26142 net.cpp:141] Setting up fc7
I0403 12:21:39.302978 26142 net.cpp:148] Top shape: 100 4096 (409600)
I0403 12:21:39.302995 26142 net.cpp:156] Memory required for data: 828249200
I0403 12:21:39.303019 26142 layer_factory.hpp:77] Creating layer relu7
I0403 12:21:39.303042 26142 net.cpp:91] Creating Layer relu7
I0403 12:21:39.303061 26142 net.cpp:425] relu7 <- fc7
I0403 12:21:39.303081 26142 net.cpp:386] relu7 -> fc7 (in-place)
I0403 12:21:39.303501 26142 net.cpp:141] Setting up relu7
I0403 12:21:39.303531 26142 net.cpp:148] Top shape: 100 4096 (409600)
I0403 12:21:39.303581 26142 net.cpp:156] Memory required for data: 829887600
I0403 12:21:39.303598 26142 layer_factory.hpp:77] Creating layer drop7
I0403 12:21:39.303618 26142 net.cpp:91] Creating Layer drop7
I0403 12:21:39.303633 26142 net.cpp:425] drop7 <- fc7
I0403 12:21:39.303650 26142 net.cpp:386] drop7 -> fc7 (in-place)
I0403 12:21:39.303696 26142 net.cpp:141] Setting up drop7
I0403 12:21:39.303721 26142 net.cpp:148] Top shape: 100 4096 (409600)
I0403 12:21:39.303737 26142 net.cpp:156] Memory required for data: 831526000
I0403 12:21:39.303753 26142 layer_factory.hpp:77] Creating layer fc8_plantvillage
I0403 12:21:39.303776 26142 net.cpp:91] Creating Layer fc8_plantvillage
I0403 12:21:39.303793 26142 net.cpp:425] fc8_plantvillage <- fc7
I0403 12:21:39.303812 26142 net.cpp:399] fc8_plantvillage -> fc8_plantvillage
I0403 12:21:39.310559 26142 net.cpp:141] Setting up fc8_plantvillage
I0403 12:21:39.310587 26142 net.cpp:148] Top shape: 100 38 (3800)
I0403 12:21:39.310603 26142 net.cpp:156] Memory required for data: 831541200
I0403 12:21:39.310621 26142 layer_factory.hpp:77] Creating layer fc8_plantvillage_fc8_plantvillage_0_split
I0403 12:21:39.310642 26142 net.cpp:91] Creating Layer fc8_plantvillage_fc8_plantvillage_0_split
I0403 12:21:39.310657 26142 net.cpp:425] fc8_plantvillage_fc8_plantvillage_0_split <- fc8_plantvillage
I0403 12:21:39.310678 26142 net.cpp:399] fc8_plantvillage_fc8_plantvillage_0_split -> fc8_plantvillage_fc8_plantvillage_0_split_0
I0403 12:21:39.310700 26142 net.cpp:399] fc8_plantvillage_fc8_plantvillage_0_split -> fc8_plantvillage_fc8_plantvillage_0_split_1
I0403 12:21:39.310721 26142 net.cpp:399] fc8_plantvillage_fc8_plantvillage_0_split -> fc8_plantvillage_fc8_plantvillage_0_split_2
I0403 12:21:39.310797 26142 net.cpp:141] Setting up fc8_plantvillage_fc8_plantvillage_0_split
I0403 12:21:39.310822 26142 net.cpp:148] Top shape: 100 38 (3800)
I0403 12:21:39.310839 26142 net.cpp:148] Top shape: 100 38 (3800)
I0403 12:21:39.310856 26142 net.cpp:148] Top shape: 100 38 (3800)
I0403 12:21:39.310871 26142 net.cpp:156] Memory required for data: 831586800
I0403 12:21:39.310886 26142 layer_factory.hpp:77] Creating layer prob
I0403 12:21:39.310907 26142 net.cpp:91] Creating Layer prob
I0403 12:21:39.310925 26142 net.cpp:425] prob <- fc8_plantvillage_fc8_plantvillage_0_split_0
I0403 12:21:39.310943 26142 net.cpp:399] prob -> prob
I0403 12:21:39.311163 26142 net.cpp:141] Setting up prob
I0403 12:21:39.311193 26142 net.cpp:148] Top shape: 100 38 (3800)
I0403 12:21:39.311210 26142 net.cpp:156] Memory required for data: 831602000
I0403 12:21:39.311228 26142 layer_factory.hpp:77] Creating layer hdf5out
I0403 12:21:39.311246 26142 net.cpp:91] Creating Layer hdf5out
I0403 12:21:39.311262 26142 net.cpp:425] hdf5out <- prob
I0403 12:21:39.311280 26142 net.cpp:425] hdf5out <- label_data_1_split_0
I0403 12:21:39.314932 26142 net.cpp:141] Setting up hdf5out
…
