…
I0403 12:39:15.458274 26551 net.cpp:313] The NetState phase (1) differed from the phase (0) specified by a rule in layer data
I0403 12:39:15.458587 26551 net.cpp:49] Initializing net from parameters: 
state {
  phase: TEST
}
layer {
  name: "data"
  type: "Data"
  top: "data"
  top: "label"
  include {
    phase: TEST
  }
  transform_param {
    crop_size: 227
    mean_file: "/home/mohanty/data/final_dataset/lmdb/color-40-60/mean.binaryproto"
  }
  data_param {
    source: "/home/mohanty/data/final_dataset/lmdb/color-40-60/test_db"
    batch_size: 100
    backend: LMDB
  }
}
layer {
  name: "conv1"
  type: "Convolution"
  bottom: "data"
  top: "conv1"
  param {
    lr_mult: 1
    decay_mult: 1
  }
  param {
    lr_mult: 2
    decay_mult: 0
  }
  convolution_param {
    num_output: 96
    kernel_size: 11
    stride: 4
    weight_filler {
      type: "gaussian"
      std: 0.01
    }
    bias_filler {
      type: "constant"
      value: 0
    }
  }
}
layer {
  name: "relu1"
  type: "ReLU"
  bottom: "conv1"
  top: "conv1"
}
layer {
  name: "norm1"
  type: "LRN"
  bottom: "conv1"
  top: "norm1"
  lrn_param {
    local_size: 5
    alpha: 0.0001
    beta: 0.75
  }
}
layer {
  name: "pool1"
  type: "Pooling"
  bottom: "norm1"
  top: "pool1"
  pooling_param {
    pool: MAX
    kernel_size: 3
    stride: 2
  }
}
layer {
  name: "conv2"
  type: "Convolution"
  bottom: "pool1"
  top: "conv2"
  param {
    lr_mult: 1
    decay_mult: 1
  }
  param {
    lr_mult: 2
    decay_mult: 0
  }
  convolution_param {
    num_output: 256
    pad: 2
    kernel_size: 5
    group: 2
    weight_filler {
      type: "gaussian"
      std: 0.01
    }
    bias_filler {
      type: "constant"
      value: 0.1
    }
  }
}
layer {
  name: "relu2"
  type: "ReLU"
  bottom: "conv2"
  top: "conv2"
}
layer {
  name: "norm2"
  type: "LRN"
  bottom: "conv2"
  top: "norm2"
  lrn_param {
    local_size: 5
    alpha: 0.0001
    beta: 0.75
  }
}
layer {
  name: "pool2"
  type: "Pooling"
  bottom: "norm2"
  top: "pool2"
  pooling_param {
    pool: MAX
    kernel_size: 3
    stride: 2
  }
}
layer {
  name: "conv3"
  type: "Convolution"
  bottom: "pool2"
  top: "conv3"
  param {
    lr_mult: 1
    decay_mult: 1
  }
  param {
    lr_mult: 2
    decay_mult: 0
  }
  convolution_param {
    num_output: 384
    pad: 1
    kernel_size: 3
    weight_filler {
      type: "gaussian"
      std: 0.01
    }
    bias_filler {
      type: "constant"
      value: 0
    }
  }
}
layer {
  name: "relu3"
  type: "ReLU"
  bottom: "conv3"
  top: "conv3"
}
layer {
  name: "conv4"
  type: "Convolution"
  bottom: "conv3"
  top: "conv4"
  param {
    lr_mult: 1
    decay_mult: 1
  }
  param {
    lr_mult: 2
    decay_mult: 0
  }
  convolution_param {
    num_output: 384
    pad: 1
    kernel_size: 3
    group: 2
    weight_filler {
      type: "gaussian"
      std: 0.01
    }
    bias_filler {
      type: "constant"
      value: 0.1
    }
  }
}
layer {
  name: "relu4"
  type: "ReLU"
  bottom: "conv4"
  top: "conv4"
}
layer {
  name: "conv5"
  type: "Convolution"
  bottom: "conv4"
  top: "conv5"
  param {
    lr_mult: 1
    decay_mult: 1
  }
  param {
    lr_mult: 2
    decay_mult: 0
  }
  convolution_param {
    num_output: 256
    pad: 1
    kernel_size: 3
    group: 2
    weight_filler {
      type: "gaussian"
      std: 0.01
    }
    bias_filler {
      type: "constant"
      value: 0.1
    }
  }
}
layer {
  name: "relu5"
  type: "ReLU"
  bottom: "conv5"
  top: "conv5"
}
layer {
  name: "pool5"
  type: "Pooling"
  bottom: "conv5"
  top: "pool5"
  pooling_param {
    pool: MAX
    kernel_size: 3
    stride: 2
  }
}
layer {
  name: "fc6"
  type: "InnerProduct"
  bottom: "pool5"
  top: "fc6"
  param {
    lr_mult: 1
    decay_mult: 1
  }
  param {
    lr_mult: 2
    decay_mult: 0
  }
  inner_product_param {
    num_output: 4096
    weight_filler {
      type: "gaussian"
      std: 0.005
    }
    bias_filler {
      type: "constant"
      value: 0.1
    }
  }
}
layer {
  name: "relu6"
  type: "ReLU"
  bottom: "fc6"
  top: "fc6"
}
layer {
  name: "drop6"
  type: "Dropout"
  bottom: "fc6"
  top: "fc6"
  dropout_param {
    dropout_ratio: 0.5
  }
}
layer {
  name: "fc7"
  type: "InnerProduct"
  bottom: "fc6"
  top: "fc7"
  param {
    lr_mult: 1
    decay_mult: 1
  }
  param {
    lr_mult: 2
    decay_mult: 0
  }
  inner_product_param {
    num_output: 4096
    weight_filler {
      type: "gaussian"
      std: 0.005
    }
    bias_filler {
      type: "constant"
      value: 0.1
    }
  }
}
layer {
  name: "relu7"
  type: "ReLU"
  bottom: "fc7"
  top: "fc7"
}
layer {
  name: "drop7"
  type: "Dropout"
  bottom: "fc7"
  top: "fc7"
  dropout_param {
    dropout_ratio: 0.5
  }
}
layer {
  name: "fc8_plantvillage"
  type: "InnerProduct"
  bottom: "fc7"
  top: "fc8_plantvillage"
  param {
    lr_mult: 1
    decay_mult: 1
  }
  param {
    lr_mult: 2
    decay_mult: 0
  }
  inner_product_param {
    num_output: 38
    weight_filler {
      type: "gaussian"
      std: 0.01
    }
    bias_filler {
      type: "constant"
      value: 0
    }
  }
}
layer {
  name: "prob"
  type: "Softmax"
  bottom: "fc8_plantvillage"
  top: "prob"
  include {
    phase: TEST
  }
}
layer {
  name: "hdf5out"
  type: "HDF5Output"
  bottom: "prob"
  bottom: "label"
  include {
    phase: TEST
  }
  hdf5_output_param {
    file_name: "hdf5_dumps/iter_4340.h5"
  }
}
layer {
  name: "loss"
  type: "SoftmaxWithLoss"
  bottom: "fc8_plantvillage"
  bottom: "label"
  top: "loss"
}
layer {
  name: "accuracy"
  type: "Accuracy"
  bottom: "fc8_plantvillage"
  bottom: "label"
  top: "accuracy"
  include {
    phase: TEST
  }
}
I0403 12:39:15.459134 26551 layer_factory.hpp:77] Creating layer data
I0403 12:39:15.459776 26551 net.cpp:91] Creating Layer data
I0403 12:39:15.459810 26551 net.cpp:399] data -> data
I0403 12:39:15.459863 26551 net.cpp:399] data -> label
I0403 12:39:15.459902 26551 data_transformer.cpp:25] Loading mean file from: /home/mohanty/data/final_dataset/lmdb/color-40-60/mean.binaryproto
I0403 12:39:15.463276 26555 db_lmdb.cpp:38] Opened lmdb /home/mohanty/data/final_dataset/lmdb/color-40-60/test_db
I0403 12:39:15.474233 26551 data_layer.cpp:41] output data size: 100,3,227,227
I0403 12:39:15.597102 26551 net.cpp:141] Setting up data
I0403 12:39:15.597193 26551 net.cpp:148] Top shape: 100 3 227 227 (15458700)
I0403 12:39:15.597216 26551 net.cpp:148] Top shape: 100 (100)
I0403 12:39:15.597232 26551 net.cpp:156] Memory required for data: 61835200
I0403 12:39:15.597260 26551 layer_factory.hpp:77] Creating layer label_data_1_split
I0403 12:39:15.597287 26551 net.cpp:91] Creating Layer label_data_1_split
I0403 12:39:15.597304 26551 net.cpp:425] label_data_1_split <- label
I0403 12:39:15.597337 26551 net.cpp:399] label_data_1_split -> label_data_1_split_0
I0403 12:39:15.597369 26551 net.cpp:399] label_data_1_split -> label_data_1_split_1
I0403 12:39:15.597406 26551 net.cpp:399] label_data_1_split -> label_data_1_split_2
I0403 12:39:15.597476 26551 net.cpp:141] Setting up label_data_1_split
I0403 12:39:15.597501 26551 net.cpp:148] Top shape: 100 (100)
I0403 12:39:15.597518 26551 net.cpp:148] Top shape: 100 (100)
I0403 12:39:15.597537 26551 net.cpp:148] Top shape: 100 (100)
I0403 12:39:15.597551 26551 net.cpp:156] Memory required for data: 61836400
I0403 12:39:15.597568 26551 layer_factory.hpp:77] Creating layer conv1
I0403 12:39:15.597601 26551 net.cpp:91] Creating Layer conv1
I0403 12:39:15.597621 26551 net.cpp:425] conv1 <- data
I0403 12:39:15.597642 26551 net.cpp:399] conv1 -> conv1
I0403 12:39:15.742903 26551 net.cpp:141] Setting up conv1
I0403 12:39:15.742946 26551 net.cpp:148] Top shape: 100 96 55 55 (29040000)
I0403 12:39:15.742964 26551 net.cpp:156] Memory required for data: 177996400
I0403 12:39:15.742996 26551 layer_factory.hpp:77] Creating layer relu1
I0403 12:39:15.743026 26551 net.cpp:91] Creating Layer relu1
I0403 12:39:15.743043 26551 net.cpp:425] relu1 <- conv1
I0403 12:39:15.743064 26551 net.cpp:386] relu1 -> conv1 (in-place)
I0403 12:39:15.743324 26551 net.cpp:141] Setting up relu1
I0403 12:39:15.743351 26551 net.cpp:148] Top shape: 100 96 55 55 (29040000)
I0403 12:39:15.743381 26551 net.cpp:156] Memory required for data: 294156400
I0403 12:39:15.743433 26551 layer_factory.hpp:77] Creating layer norm1
I0403 12:39:15.743464 26551 net.cpp:91] Creating Layer norm1
I0403 12:39:15.743484 26551 net.cpp:425] norm1 <- conv1
I0403 12:39:15.743504 26551 net.cpp:399] norm1 -> norm1
I0403 12:39:15.743818 26551 net.cpp:141] Setting up norm1
I0403 12:39:15.743847 26551 net.cpp:148] Top shape: 100 96 55 55 (29040000)
I0403 12:39:15.743865 26551 net.cpp:156] Memory required for data: 410316400
I0403 12:39:15.743880 26551 layer_factory.hpp:77] Creating layer pool1
I0403 12:39:15.743906 26551 net.cpp:91] Creating Layer pool1
I0403 12:39:15.743923 26551 net.cpp:425] pool1 <- norm1
I0403 12:39:15.743943 26551 net.cpp:399] pool1 -> pool1
I0403 12:39:15.744011 26551 net.cpp:141] Setting up pool1
I0403 12:39:15.744037 26551 net.cpp:148] Top shape: 100 96 27 27 (6998400)
I0403 12:39:15.744055 26551 net.cpp:156] Memory required for data: 438310000
I0403 12:39:15.744071 26551 layer_factory.hpp:77] Creating layer conv2
I0403 12:39:15.744096 26551 net.cpp:91] Creating Layer conv2
I0403 12:39:15.744113 26551 net.cpp:425] conv2 <- pool1
I0403 12:39:15.744134 26551 net.cpp:399] conv2 -> conv2
I0403 12:39:15.759559 26551 net.cpp:141] Setting up conv2
I0403 12:39:15.759609 26551 net.cpp:148] Top shape: 100 256 27 27 (18662400)
I0403 12:39:15.759629 26551 net.cpp:156] Memory required for data: 512959600
I0403 12:39:15.759655 26551 layer_factory.hpp:77] Creating layer relu2
I0403 12:39:15.759676 26551 net.cpp:91] Creating Layer relu2
I0403 12:39:15.759695 26551 net.cpp:425] relu2 <- conv2
I0403 12:39:15.759714 26551 net.cpp:386] relu2 -> conv2 (in-place)
I0403 12:39:15.759990 26551 net.cpp:141] Setting up relu2
I0403 12:39:15.760020 26551 net.cpp:148] Top shape: 100 256 27 27 (18662400)
I0403 12:39:15.760036 26551 net.cpp:156] Memory required for data: 587609200
I0403 12:39:15.760053 26551 layer_factory.hpp:77] Creating layer norm2
I0403 12:39:15.760076 26551 net.cpp:91] Creating Layer norm2
I0403 12:39:15.760094 26551 net.cpp:425] norm2 <- conv2
I0403 12:39:15.760114 26551 net.cpp:399] norm2 -> norm2
I0403 12:39:15.760330 26551 net.cpp:141] Setting up norm2
I0403 12:39:15.760359 26551 net.cpp:148] Top shape: 100 256 27 27 (18662400)
I0403 12:39:15.760375 26551 net.cpp:156] Memory required for data: 662258800
I0403 12:39:15.760391 26551 layer_factory.hpp:77] Creating layer pool2
I0403 12:39:15.760413 26551 net.cpp:91] Creating Layer pool2
I0403 12:39:15.760432 26551 net.cpp:425] pool2 <- norm2
I0403 12:39:15.760452 26551 net.cpp:399] pool2 -> pool2
I0403 12:39:15.760506 26551 net.cpp:141] Setting up pool2
I0403 12:39:15.760531 26551 net.cpp:148] Top shape: 100 256 13 13 (4326400)
I0403 12:39:15.760547 26551 net.cpp:156] Memory required for data: 679564400
I0403 12:39:15.760565 26551 layer_factory.hpp:77] Creating layer conv3
I0403 12:39:15.760588 26551 net.cpp:91] Creating Layer conv3
I0403 12:39:15.760606 26551 net.cpp:425] conv3 <- pool2
I0403 12:39:15.760627 26551 net.cpp:399] conv3 -> conv3
I0403 12:39:15.805565 26551 net.cpp:141] Setting up conv3
I0403 12:39:15.805639 26551 net.cpp:148] Top shape: 100 384 13 13 (6489600)
I0403 12:39:15.805656 26551 net.cpp:156] Memory required for data: 705522800
I0403 12:39:15.805683 26551 layer_factory.hpp:77] Creating layer relu3
I0403 12:39:15.805711 26551 net.cpp:91] Creating Layer relu3
I0403 12:39:15.805729 26551 net.cpp:425] relu3 <- conv3
I0403 12:39:15.805749 26551 net.cpp:386] relu3 -> conv3 (in-place)
I0403 12:39:15.806026 26551 net.cpp:141] Setting up relu3
I0403 12:39:15.806054 26551 net.cpp:148] Top shape: 100 384 13 13 (6489600)
I0403 12:39:15.806071 26551 net.cpp:156] Memory required for data: 731481200
I0403 12:39:15.806087 26551 layer_factory.hpp:77] Creating layer conv4
I0403 12:39:15.806114 26551 net.cpp:91] Creating Layer conv4
I0403 12:39:15.806133 26551 net.cpp:425] conv4 <- conv3
I0403 12:39:15.806154 26551 net.cpp:399] conv4 -> conv4
I0403 12:39:15.836592 26551 net.cpp:141] Setting up conv4
I0403 12:39:15.836655 26551 net.cpp:148] Top shape: 100 384 13 13 (6489600)
I0403 12:39:15.836705 26551 net.cpp:156] Memory required for data: 757439600
I0403 12:39:15.836729 26551 layer_factory.hpp:77] Creating layer relu4
I0403 12:39:15.836751 26551 net.cpp:91] Creating Layer relu4
I0403 12:39:15.836771 26551 net.cpp:425] relu4 <- conv4
I0403 12:39:15.836793 26551 net.cpp:386] relu4 -> conv4 (in-place)
I0403 12:39:15.837082 26551 net.cpp:141] Setting up relu4
I0403 12:39:15.837112 26551 net.cpp:148] Top shape: 100 384 13 13 (6489600)
I0403 12:39:15.837128 26551 net.cpp:156] Memory required for data: 783398000
I0403 12:39:15.837146 26551 layer_factory.hpp:77] Creating layer conv5
I0403 12:39:15.837172 26551 net.cpp:91] Creating Layer conv5
I0403 12:39:15.837191 26551 net.cpp:425] conv5 <- conv4
I0403 12:39:15.837214 26551 net.cpp:399] conv5 -> conv5
I0403 12:39:15.858471 26551 net.cpp:141] Setting up conv5
I0403 12:39:15.858527 26551 net.cpp:148] Top shape: 100 256 13 13 (4326400)
I0403 12:39:15.858547 26551 net.cpp:156] Memory required for data: 800703600
I0403 12:39:15.858577 26551 layer_factory.hpp:77] Creating layer relu5
I0403 12:39:15.858602 26551 net.cpp:91] Creating Layer relu5
I0403 12:39:15.858618 26551 net.cpp:425] relu5 <- conv5
I0403 12:39:15.858639 26551 net.cpp:386] relu5 -> conv5 (in-place)
I0403 12:39:15.858929 26551 net.cpp:141] Setting up relu5
I0403 12:39:15.858958 26551 net.cpp:148] Top shape: 100 256 13 13 (4326400)
I0403 12:39:15.858980 26551 net.cpp:156] Memory required for data: 818009200
I0403 12:39:15.858996 26551 layer_factory.hpp:77] Creating layer pool5
I0403 12:39:15.859024 26551 net.cpp:91] Creating Layer pool5
I0403 12:39:15.859041 26551 net.cpp:425] pool5 <- conv5
I0403 12:39:15.859061 26551 net.cpp:399] pool5 -> pool5
I0403 12:39:15.859127 26551 net.cpp:141] Setting up pool5
I0403 12:39:15.859153 26551 net.cpp:148] Top shape: 100 256 6 6 (921600)
I0403 12:39:15.859169 26551 net.cpp:156] Memory required for data: 821695600
I0403 12:39:15.859186 26551 layer_factory.hpp:77] Creating layer fc6
I0403 12:39:15.859216 26551 net.cpp:91] Creating Layer fc6
I0403 12:39:15.859236 26551 net.cpp:425] fc6 <- pool5
I0403 12:39:15.859256 26551 net.cpp:399] fc6 -> fc6
I0403 12:39:17.444628 26551 net.cpp:141] Setting up fc6
I0403 12:39:17.444670 26551 net.cpp:148] Top shape: 100 4096 (409600)
I0403 12:39:17.444689 26551 net.cpp:156] Memory required for data: 823334000
I0403 12:39:17.444710 26551 layer_factory.hpp:77] Creating layer relu6
I0403 12:39:17.444732 26551 net.cpp:91] Creating Layer relu6
I0403 12:39:17.444749 26551 net.cpp:425] relu6 <- fc6
I0403 12:39:17.444785 26551 net.cpp:386] relu6 -> fc6 (in-place)
I0403 12:39:17.445008 26551 net.cpp:141] Setting up relu6
I0403 12:39:17.445036 26551 net.cpp:148] Top shape: 100 4096 (409600)
I0403 12:39:17.445052 26551 net.cpp:156] Memory required for data: 824972400
I0403 12:39:17.445068 26551 layer_factory.hpp:77] Creating layer drop6
I0403 12:39:17.445089 26551 net.cpp:91] Creating Layer drop6
I0403 12:39:17.445106 26551 net.cpp:425] drop6 <- fc6
I0403 12:39:17.445123 26551 net.cpp:386] drop6 -> fc6 (in-place)
I0403 12:39:17.445178 26551 net.cpp:141] Setting up drop6
I0403 12:39:17.445202 26551 net.cpp:148] Top shape: 100 4096 (409600)
I0403 12:39:17.445219 26551 net.cpp:156] Memory required for data: 826610800
I0403 12:39:17.445235 26551 layer_factory.hpp:77] Creating layer fc7
I0403 12:39:17.445255 26551 net.cpp:91] Creating Layer fc7
I0403 12:39:17.445272 26551 net.cpp:425] fc7 <- fc6
I0403 12:39:17.445293 26551 net.cpp:399] fc7 -> fc7
I0403 12:39:18.143414 26551 net.cpp:141] Setting up fc7
I0403 12:39:18.143489 26551 net.cpp:148] Top shape: 100 4096 (409600)
I0403 12:39:18.143507 26551 net.cpp:156] Memory required for data: 828249200
I0403 12:39:18.143529 26551 layer_factory.hpp:77] Creating layer relu7
I0403 12:39:18.143555 26551 net.cpp:91] Creating Layer relu7
I0403 12:39:18.143573 26551 net.cpp:425] relu7 <- fc7
I0403 12:39:18.143594 26551 net.cpp:386] relu7 -> fc7 (in-place)
I0403 12:39:18.144009 26551 net.cpp:141] Setting up relu7
I0403 12:39:18.144037 26551 net.cpp:148] Top shape: 100 4096 (409600)
I0403 12:39:18.144088 26551 net.cpp:156] Memory required for data: 829887600
I0403 12:39:18.144104 26551 layer_factory.hpp:77] Creating layer drop7
I0403 12:39:18.144124 26551 net.cpp:91] Creating Layer drop7
I0403 12:39:18.144141 26551 net.cpp:425] drop7 <- fc7
I0403 12:39:18.144162 26551 net.cpp:386] drop7 -> fc7 (in-place)
I0403 12:39:18.144208 26551 net.cpp:141] Setting up drop7
I0403 12:39:18.144232 26551 net.cpp:148] Top shape: 100 4096 (409600)
I0403 12:39:18.144248 26551 net.cpp:156] Memory required for data: 831526000
I0403 12:39:18.144263 26551 layer_factory.hpp:77] Creating layer fc8_plantvillage
I0403 12:39:18.144282 26551 net.cpp:91] Creating Layer fc8_plantvillage
I0403 12:39:18.144299 26551 net.cpp:425] fc8_plantvillage <- fc7
I0403 12:39:18.144326 26551 net.cpp:399] fc8_plantvillage -> fc8_plantvillage
I0403 12:39:18.151093 26551 net.cpp:141] Setting up fc8_plantvillage
I0403 12:39:18.151124 26551 net.cpp:148] Top shape: 100 38 (3800)
I0403 12:39:18.151141 26551 net.cpp:156] Memory required for data: 831541200
I0403 12:39:18.151161 26551 layer_factory.hpp:77] Creating layer fc8_plantvillage_fc8_plantvillage_0_split
I0403 12:39:18.151180 26551 net.cpp:91] Creating Layer fc8_plantvillage_fc8_plantvillage_0_split
I0403 12:39:18.151196 26551 net.cpp:425] fc8_plantvillage_fc8_plantvillage_0_split <- fc8_plantvillage
I0403 12:39:18.151214 26551 net.cpp:399] fc8_plantvillage_fc8_plantvillage_0_split -> fc8_plantvillage_fc8_plantvillage_0_split_0
I0403 12:39:18.151235 26551 net.cpp:399] fc8_plantvillage_fc8_plantvillage_0_split -> fc8_plantvillage_fc8_plantvillage_0_split_1
I0403 12:39:18.151257 26551 net.cpp:399] fc8_plantvillage_fc8_plantvillage_0_split -> fc8_plantvillage_fc8_plantvillage_0_split_2
I0403 12:39:18.151342 26551 net.cpp:141] Setting up fc8_plantvillage_fc8_plantvillage_0_split
I0403 12:39:18.151366 26551 net.cpp:148] Top shape: 100 38 (3800)
I0403 12:39:18.151383 26551 net.cpp:148] Top shape: 100 38 (3800)
I0403 12:39:18.151399 26551 net.cpp:148] Top shape: 100 38 (3800)
I0403 12:39:18.151413 26551 net.cpp:156] Memory required for data: 831586800
I0403 12:39:18.151429 26551 layer_factory.hpp:77] Creating layer prob
I0403 12:39:18.151448 26551 net.cpp:91] Creating Layer prob
I0403 12:39:18.151463 26551 net.cpp:425] prob <- fc8_plantvillage_fc8_plantvillage_0_split_0
I0403 12:39:18.151481 26551 net.cpp:399] prob -> prob
I0403 12:39:18.151707 26551 net.cpp:141] Setting up prob
I0403 12:39:18.151734 26551 net.cpp:148] Top shape: 100 38 (3800)
I0403 12:39:18.151749 26551 net.cpp:156] Memory required for data: 831602000
I0403 12:39:18.151765 26551 layer_factory.hpp:77] Creating layer hdf5out
I0403 12:39:18.151787 26551 net.cpp:91] Creating Layer hdf5out
I0403 12:39:18.151804 26551 net.cpp:425] hdf5out <- prob
I0403 12:39:18.151821 26551 net.cpp:425] hdf5out <- label_data_1_split_0
I0403 12:39:18.167773 26551 net.cpp:141] Setting up hdf5out
…
