…
I0403 12:28:15.604318 26285 net.cpp:313] The NetState phase (1) differed from the phase (0) specified by a rule in layer data
I0403 12:28:15.604636 26285 net.cpp:49] Initializing net from parameters: 
state {
  phase: TEST
}
layer {
  name: "data"
  type: "Data"
  top: "data"
  top: "label"
  include {
    phase: TEST
  }
  transform_param {
    crop_size: 227
    mean_file: "/home/mohanty/data/final_dataset/lmdb/color-40-60/mean.binaryproto"
  }
  data_param {
    source: "/home/mohanty/data/final_dataset/lmdb/color-40-60/test_db"
    batch_size: 100
    backend: LMDB
  }
}
layer {
  name: "conv1"
  type: "Convolution"
  bottom: "data"
  top: "conv1"
  param {
    lr_mult: 1
    decay_mult: 1
  }
  param {
    lr_mult: 2
    decay_mult: 0
  }
  convolution_param {
    num_output: 96
    kernel_size: 11
    stride: 4
    weight_filler {
      type: "gaussian"
      std: 0.01
    }
    bias_filler {
      type: "constant"
      value: 0
    }
  }
}
layer {
  name: "relu1"
  type: "ReLU"
  bottom: "conv1"
  top: "conv1"
}
layer {
  name: "norm1"
  type: "LRN"
  bottom: "conv1"
  top: "norm1"
  lrn_param {
    local_size: 5
    alpha: 0.0001
    beta: 0.75
  }
}
layer {
  name: "pool1"
  type: "Pooling"
  bottom: "norm1"
  top: "pool1"
  pooling_param {
    pool: MAX
    kernel_size: 3
    stride: 2
  }
}
layer {
  name: "conv2"
  type: "Convolution"
  bottom: "pool1"
  top: "conv2"
  param {
    lr_mult: 1
    decay_mult: 1
  }
  param {
    lr_mult: 2
    decay_mult: 0
  }
  convolution_param {
    num_output: 256
    pad: 2
    kernel_size: 5
    group: 2
    weight_filler {
      type: "gaussian"
      std: 0.01
    }
    bias_filler {
      type: "constant"
      value: 0.1
    }
  }
}
layer {
  name: "relu2"
  type: "ReLU"
  bottom: "conv2"
  top: "conv2"
}
layer {
  name: "norm2"
  type: "LRN"
  bottom: "conv2"
  top: "norm2"
  lrn_param {
    local_size: 5
    alpha: 0.0001
    beta: 0.75
  }
}
layer {
  name: "pool2"
  type: "Pooling"
  bottom: "norm2"
  top: "pool2"
  pooling_param {
    pool: MAX
    kernel_size: 3
    stride: 2
  }
}
layer {
  name: "conv3"
  type: "Convolution"
  bottom: "pool2"
  top: "conv3"
  param {
    lr_mult: 1
    decay_mult: 1
  }
  param {
    lr_mult: 2
    decay_mult: 0
  }
  convolution_param {
    num_output: 384
    pad: 1
    kernel_size: 3
    weight_filler {
      type: "gaussian"
      std: 0.01
    }
    bias_filler {
      type: "constant"
      value: 0
    }
  }
}
layer {
  name: "relu3"
  type: "ReLU"
  bottom: "conv3"
  top: "conv3"
}
layer {
  name: "conv4"
  type: "Convolution"
  bottom: "conv3"
  top: "conv4"
  param {
    lr_mult: 1
    decay_mult: 1
  }
  param {
    lr_mult: 2
    decay_mult: 0
  }
  convolution_param {
    num_output: 384
    pad: 1
    kernel_size: 3
    group: 2
    weight_filler {
      type: "gaussian"
      std: 0.01
    }
    bias_filler {
      type: "constant"
      value: 0.1
    }
  }
}
layer {
  name: "relu4"
  type: "ReLU"
  bottom: "conv4"
  top: "conv4"
}
layer {
  name: "conv5"
  type: "Convolution"
  bottom: "conv4"
  top: "conv5"
  param {
    lr_mult: 1
    decay_mult: 1
  }
  param {
    lr_mult: 2
    decay_mult: 0
  }
  convolution_param {
    num_output: 256
    pad: 1
    kernel_size: 3
    group: 2
    weight_filler {
      type: "gaussian"
      std: 0.01
    }
    bias_filler {
      type: "constant"
      value: 0.1
    }
  }
}
layer {
  name: "relu5"
  type: "ReLU"
  bottom: "conv5"
  top: "conv5"
}
layer {
  name: "pool5"
  type: "Pooling"
  bottom: "conv5"
  top: "pool5"
  pooling_param {
    pool: MAX
    kernel_size: 3
    stride: 2
  }
}
layer {
  name: "fc6"
  type: "InnerProduct"
  bottom: "pool5"
  top: "fc6"
  param {
    lr_mult: 1
    decay_mult: 1
  }
  param {
    lr_mult: 2
    decay_mult: 0
  }
  inner_product_param {
    num_output: 4096
    weight_filler {
      type: "gaussian"
      std: 0.005
    }
    bias_filler {
      type: "constant"
      value: 0.1
    }
  }
}
layer {
  name: "relu6"
  type: "ReLU"
  bottom: "fc6"
  top: "fc6"
}
layer {
  name: "drop6"
  type: "Dropout"
  bottom: "fc6"
  top: "fc6"
  dropout_param {
    dropout_ratio: 0.5
  }
}
layer {
  name: "fc7"
  type: "InnerProduct"
  bottom: "fc6"
  top: "fc7"
  param {
    lr_mult: 1
    decay_mult: 1
  }
  param {
    lr_mult: 2
    decay_mult: 0
  }
  inner_product_param {
    num_output: 4096
    weight_filler {
      type: "gaussian"
      std: 0.005
    }
    bias_filler {
      type: "constant"
      value: 0.1
    }
  }
}
layer {
  name: "relu7"
  type: "ReLU"
  bottom: "fc7"
  top: "fc7"
}
layer {
  name: "drop7"
  type: "Dropout"
  bottom: "fc7"
  top: "fc7"
  dropout_param {
    dropout_ratio: 0.5
  }
}
layer {
  name: "fc8_plantvillage"
  type: "InnerProduct"
  bottom: "fc7"
  top: "fc8_plantvillage"
  param {
    lr_mult: 1
    decay_mult: 1
  }
  param {
    lr_mult: 2
    decay_mult: 0
  }
  inner_product_param {
    num_output: 38
    weight_filler {
      type: "gaussian"
      std: 0.01
    }
    bias_filler {
      type: "constant"
      value: 0
    }
  }
}
layer {
  name: "prob"
  type: "Softmax"
  bottom: "fc8_plantvillage"
  top: "prob"
  include {
    phase: TEST
  }
}
layer {
  name: "hdf5out"
  type: "HDF5Output"
  bottom: "prob"
  bottom: "label"
  include {
    phase: TEST
  }
  hdf5_output_param {
    file_name: "hdf5_dumps/iter_2170.h5"
  }
}
layer {
  name: "loss"
  type: "SoftmaxWithLoss"
  bottom: "fc8_plantvillage"
  bottom: "label"
  top: "loss"
}
layer {
  name: "accuracy"
  type: "Accuracy"
  bottom: "fc8_plantvillage"
  bottom: "label"
  top: "accuracy"
  include {
    phase: TEST
  }
}
I0403 12:28:15.605150 26285 layer_factory.hpp:77] Creating layer data
I0403 12:28:15.605854 26285 net.cpp:91] Creating Layer data
I0403 12:28:15.605890 26285 net.cpp:399] data -> data
I0403 12:28:15.605944 26285 net.cpp:399] data -> label
I0403 12:28:15.605983 26285 data_transformer.cpp:25] Loading mean file from: /home/mohanty/data/final_dataset/lmdb/color-40-60/mean.binaryproto
I0403 12:28:15.608777 26288 db_lmdb.cpp:38] Opened lmdb /home/mohanty/data/final_dataset/lmdb/color-40-60/test_db
I0403 12:28:15.620484 26285 data_layer.cpp:41] output data size: 100,3,227,227
I0403 12:28:15.744370 26285 net.cpp:141] Setting up data
I0403 12:28:15.744431 26285 net.cpp:148] Top shape: 100 3 227 227 (15458700)
I0403 12:28:15.744456 26285 net.cpp:148] Top shape: 100 (100)
I0403 12:28:15.744472 26285 net.cpp:156] Memory required for data: 61835200
I0403 12:28:15.744503 26285 layer_factory.hpp:77] Creating layer label_data_1_split
I0403 12:28:15.744530 26285 net.cpp:91] Creating Layer label_data_1_split
I0403 12:28:15.744551 26285 net.cpp:425] label_data_1_split <- label
I0403 12:28:15.744586 26285 net.cpp:399] label_data_1_split -> label_data_1_split_0
I0403 12:28:15.744616 26285 net.cpp:399] label_data_1_split -> label_data_1_split_1
I0403 12:28:15.744638 26285 net.cpp:399] label_data_1_split -> label_data_1_split_2
I0403 12:28:15.744705 26285 net.cpp:141] Setting up label_data_1_split
I0403 12:28:15.744729 26285 net.cpp:148] Top shape: 100 (100)
I0403 12:28:15.744748 26285 net.cpp:148] Top shape: 100 (100)
I0403 12:28:15.744767 26285 net.cpp:148] Top shape: 100 (100)
I0403 12:28:15.744782 26285 net.cpp:156] Memory required for data: 61836400
I0403 12:28:15.744799 26285 layer_factory.hpp:77] Creating layer conv1
I0403 12:28:15.744832 26285 net.cpp:91] Creating Layer conv1
I0403 12:28:15.744853 26285 net.cpp:425] conv1 <- data
I0403 12:28:15.744874 26285 net.cpp:399] conv1 -> conv1
I0403 12:28:15.896944 26285 net.cpp:141] Setting up conv1
I0403 12:28:15.897032 26285 net.cpp:148] Top shape: 100 96 55 55 (29040000)
I0403 12:28:15.897050 26285 net.cpp:156] Memory required for data: 177996400
I0403 12:28:15.897083 26285 layer_factory.hpp:77] Creating layer relu1
I0403 12:28:15.897114 26285 net.cpp:91] Creating Layer relu1
I0403 12:28:15.897133 26285 net.cpp:425] relu1 <- conv1
I0403 12:28:15.897155 26285 net.cpp:386] relu1 -> conv1 (in-place)
I0403 12:28:15.897423 26285 net.cpp:141] Setting up relu1
I0403 12:28:15.897451 26285 net.cpp:148] Top shape: 100 96 55 55 (29040000)
I0403 12:28:15.897469 26285 net.cpp:156] Memory required for data: 294156400
I0403 12:28:15.897517 26285 layer_factory.hpp:77] Creating layer norm1
I0403 12:28:15.897547 26285 net.cpp:91] Creating Layer norm1
I0403 12:28:15.897567 26285 net.cpp:425] norm1 <- conv1
I0403 12:28:15.897588 26285 net.cpp:399] norm1 -> norm1
I0403 12:28:15.897904 26285 net.cpp:141] Setting up norm1
I0403 12:28:15.897934 26285 net.cpp:148] Top shape: 100 96 55 55 (29040000)
I0403 12:28:15.897951 26285 net.cpp:156] Memory required for data: 410316400
I0403 12:28:15.897969 26285 layer_factory.hpp:77] Creating layer pool1
I0403 12:28:15.897994 26285 net.cpp:91] Creating Layer pool1
I0403 12:28:15.898015 26285 net.cpp:425] pool1 <- norm1
I0403 12:28:15.898038 26285 net.cpp:399] pool1 -> pool1
I0403 12:28:15.898113 26285 net.cpp:141] Setting up pool1
I0403 12:28:15.898138 26285 net.cpp:148] Top shape: 100 96 27 27 (6998400)
I0403 12:28:15.898156 26285 net.cpp:156] Memory required for data: 438310000
I0403 12:28:15.898174 26285 layer_factory.hpp:77] Creating layer conv2
I0403 12:28:15.898200 26285 net.cpp:91] Creating Layer conv2
I0403 12:28:15.898218 26285 net.cpp:425] conv2 <- pool1
I0403 12:28:15.898239 26285 net.cpp:399] conv2 -> conv2
I0403 12:28:15.913581 26285 net.cpp:141] Setting up conv2
I0403 12:28:15.913627 26285 net.cpp:148] Top shape: 100 256 27 27 (18662400)
I0403 12:28:15.913645 26285 net.cpp:156] Memory required for data: 512959600
I0403 12:28:15.913671 26285 layer_factory.hpp:77] Creating layer relu2
I0403 12:28:15.913692 26285 net.cpp:91] Creating Layer relu2
I0403 12:28:15.913712 26285 net.cpp:425] relu2 <- conv2
I0403 12:28:15.913730 26285 net.cpp:386] relu2 -> conv2 (in-place)
I0403 12:28:15.914012 26285 net.cpp:141] Setting up relu2
I0403 12:28:15.914041 26285 net.cpp:148] Top shape: 100 256 27 27 (18662400)
I0403 12:28:15.914058 26285 net.cpp:156] Memory required for data: 587609200
I0403 12:28:15.914077 26285 layer_factory.hpp:77] Creating layer norm2
I0403 12:28:15.914098 26285 net.cpp:91] Creating Layer norm2
I0403 12:28:15.914116 26285 net.cpp:425] norm2 <- conv2
I0403 12:28:15.914136 26285 net.cpp:399] norm2 -> norm2
I0403 12:28:15.914340 26285 net.cpp:141] Setting up norm2
I0403 12:28:15.914376 26285 net.cpp:148] Top shape: 100 256 27 27 (18662400)
I0403 12:28:15.914393 26285 net.cpp:156] Memory required for data: 662258800
I0403 12:28:15.914409 26285 layer_factory.hpp:77] Creating layer pool2
I0403 12:28:15.914429 26285 net.cpp:91] Creating Layer pool2
I0403 12:28:15.914445 26285 net.cpp:425] pool2 <- norm2
I0403 12:28:15.914466 26285 net.cpp:399] pool2 -> pool2
I0403 12:28:15.914526 26285 net.cpp:141] Setting up pool2
I0403 12:28:15.914551 26285 net.cpp:148] Top shape: 100 256 13 13 (4326400)
I0403 12:28:15.914568 26285 net.cpp:156] Memory required for data: 679564400
I0403 12:28:15.914585 26285 layer_factory.hpp:77] Creating layer conv3
I0403 12:28:15.914611 26285 net.cpp:91] Creating Layer conv3
I0403 12:28:15.914631 26285 net.cpp:425] conv3 <- pool2
I0403 12:28:15.914654 26285 net.cpp:399] conv3 -> conv3
I0403 12:28:15.954187 26285 net.cpp:141] Setting up conv3
I0403 12:28:15.954243 26285 net.cpp:148] Top shape: 100 384 13 13 (6489600)
I0403 12:28:15.954275 26285 net.cpp:156] Memory required for data: 705522800
I0403 12:28:15.954304 26285 layer_factory.hpp:77] Creating layer relu3
I0403 12:28:15.954329 26285 net.cpp:91] Creating Layer relu3
I0403 12:28:15.954360 26285 net.cpp:425] relu3 <- conv3
I0403 12:28:15.954385 26285 net.cpp:386] relu3 -> conv3 (in-place)
I0403 12:28:15.954692 26285 net.cpp:141] Setting up relu3
I0403 12:28:15.954722 26285 net.cpp:148] Top shape: 100 384 13 13 (6489600)
I0403 12:28:15.954740 26285 net.cpp:156] Memory required for data: 731481200
I0403 12:28:15.954754 26285 layer_factory.hpp:77] Creating layer conv4
I0403 12:28:15.954780 26285 net.cpp:91] Creating Layer conv4
I0403 12:28:15.954800 26285 net.cpp:425] conv4 <- conv3
I0403 12:28:15.954825 26285 net.cpp:399] conv4 -> conv4
I0403 12:28:15.985517 26285 net.cpp:141] Setting up conv4
I0403 12:28:15.985589 26285 net.cpp:148] Top shape: 100 384 13 13 (6489600)
I0403 12:28:15.985641 26285 net.cpp:156] Memory required for data: 757439600
I0403 12:28:15.985664 26285 layer_factory.hpp:77] Creating layer relu4
I0403 12:28:15.985689 26285 net.cpp:91] Creating Layer relu4
I0403 12:28:15.985708 26285 net.cpp:425] relu4 <- conv4
I0403 12:28:15.985728 26285 net.cpp:386] relu4 -> conv4 (in-place)
I0403 12:28:15.986052 26285 net.cpp:141] Setting up relu4
I0403 12:28:15.986080 26285 net.cpp:148] Top shape: 100 384 13 13 (6489600)
I0403 12:28:15.986100 26285 net.cpp:156] Memory required for data: 783398000
I0403 12:28:15.986117 26285 layer_factory.hpp:77] Creating layer conv5
I0403 12:28:15.986142 26285 net.cpp:91] Creating Layer conv5
I0403 12:28:15.986160 26285 net.cpp:425] conv5 <- conv4
I0403 12:28:15.986183 26285 net.cpp:399] conv5 -> conv5
I0403 12:28:16.007340 26285 net.cpp:141] Setting up conv5
I0403 12:28:16.007396 26285 net.cpp:148] Top shape: 100 256 13 13 (4326400)
I0403 12:28:16.007414 26285 net.cpp:156] Memory required for data: 800703600
I0403 12:28:16.007446 26285 layer_factory.hpp:77] Creating layer relu5
I0403 12:28:16.007468 26285 net.cpp:91] Creating Layer relu5
I0403 12:28:16.007486 26285 net.cpp:425] relu5 <- conv5
I0403 12:28:16.007508 26285 net.cpp:386] relu5 -> conv5 (in-place)
I0403 12:28:16.007796 26285 net.cpp:141] Setting up relu5
I0403 12:28:16.007827 26285 net.cpp:148] Top shape: 100 256 13 13 (4326400)
I0403 12:28:16.007845 26285 net.cpp:156] Memory required for data: 818009200
I0403 12:28:16.007861 26285 layer_factory.hpp:77] Creating layer pool5
I0403 12:28:16.007884 26285 net.cpp:91] Creating Layer pool5
I0403 12:28:16.007910 26285 net.cpp:425] pool5 <- conv5
I0403 12:28:16.007932 26285 net.cpp:399] pool5 -> pool5
I0403 12:28:16.007997 26285 net.cpp:141] Setting up pool5
I0403 12:28:16.008025 26285 net.cpp:148] Top shape: 100 256 6 6 (921600)
I0403 12:28:16.008041 26285 net.cpp:156] Memory required for data: 821695600
I0403 12:28:16.008056 26285 layer_factory.hpp:77] Creating layer fc6
I0403 12:28:16.008085 26285 net.cpp:91] Creating Layer fc6
I0403 12:28:16.008103 26285 net.cpp:425] fc6 <- pool5
I0403 12:28:16.008126 26285 net.cpp:399] fc6 -> fc6
I0403 12:28:17.593802 26285 net.cpp:141] Setting up fc6
I0403 12:28:17.593883 26285 net.cpp:148] Top shape: 100 4096 (409600)
I0403 12:28:17.593901 26285 net.cpp:156] Memory required for data: 823334000
I0403 12:28:17.593924 26285 layer_factory.hpp:77] Creating layer relu6
I0403 12:28:17.593946 26285 net.cpp:91] Creating Layer relu6
I0403 12:28:17.593966 26285 net.cpp:425] relu6 <- fc6
I0403 12:28:17.593986 26285 net.cpp:386] relu6 -> fc6 (in-place)
I0403 12:28:17.594208 26285 net.cpp:141] Setting up relu6
I0403 12:28:17.594235 26285 net.cpp:148] Top shape: 100 4096 (409600)
I0403 12:28:17.594251 26285 net.cpp:156] Memory required for data: 824972400
I0403 12:28:17.594266 26285 layer_factory.hpp:77] Creating layer drop6
I0403 12:28:17.594286 26285 net.cpp:91] Creating Layer drop6
I0403 12:28:17.594302 26285 net.cpp:425] drop6 <- fc6
I0403 12:28:17.594323 26285 net.cpp:386] drop6 -> fc6 (in-place)
I0403 12:28:17.594382 26285 net.cpp:141] Setting up drop6
I0403 12:28:17.594406 26285 net.cpp:148] Top shape: 100 4096 (409600)
I0403 12:28:17.594422 26285 net.cpp:156] Memory required for data: 826610800
I0403 12:28:17.594437 26285 layer_factory.hpp:77] Creating layer fc7
I0403 12:28:17.594460 26285 net.cpp:91] Creating Layer fc7
I0403 12:28:17.594476 26285 net.cpp:425] fc7 <- fc6
I0403 12:28:17.594498 26285 net.cpp:399] fc7 -> fc7
I0403 12:28:18.288933 26285 net.cpp:141] Setting up fc7
I0403 12:28:18.289007 26285 net.cpp:148] Top shape: 100 4096 (409600)
I0403 12:28:18.289026 26285 net.cpp:156] Memory required for data: 828249200
I0403 12:28:18.289047 26285 layer_factory.hpp:77] Creating layer relu7
I0403 12:28:18.289069 26285 net.cpp:91] Creating Layer relu7
I0403 12:28:18.289086 26285 net.cpp:425] relu7 <- fc7
I0403 12:28:18.289108 26285 net.cpp:386] relu7 -> fc7 (in-place)
I0403 12:28:18.289508 26285 net.cpp:141] Setting up relu7
I0403 12:28:18.289540 26285 net.cpp:148] Top shape: 100 4096 (409600)
I0403 12:28:18.289587 26285 net.cpp:156] Memory required for data: 829887600
I0403 12:28:18.289603 26285 layer_factory.hpp:77] Creating layer drop7
I0403 12:28:18.289623 26285 net.cpp:91] Creating Layer drop7
I0403 12:28:18.289639 26285 net.cpp:425] drop7 <- fc7
I0403 12:28:18.289657 26285 net.cpp:386] drop7 -> fc7 (in-place)
I0403 12:28:18.289705 26285 net.cpp:141] Setting up drop7
I0403 12:28:18.289728 26285 net.cpp:148] Top shape: 100 4096 (409600)
I0403 12:28:18.289742 26285 net.cpp:156] Memory required for data: 831526000
I0403 12:28:18.289757 26285 layer_factory.hpp:77] Creating layer fc8_plantvillage
I0403 12:28:18.289780 26285 net.cpp:91] Creating Layer fc8_plantvillage
I0403 12:28:18.289798 26285 net.cpp:425] fc8_plantvillage <- fc7
I0403 12:28:18.289816 26285 net.cpp:399] fc8_plantvillage -> fc8_plantvillage
I0403 12:28:18.296548 26285 net.cpp:141] Setting up fc8_plantvillage
I0403 12:28:18.296577 26285 net.cpp:148] Top shape: 100 38 (3800)
I0403 12:28:18.296596 26285 net.cpp:156] Memory required for data: 831541200
I0403 12:28:18.296613 26285 layer_factory.hpp:77] Creating layer fc8_plantvillage_fc8_plantvillage_0_split
I0403 12:28:18.296633 26285 net.cpp:91] Creating Layer fc8_plantvillage_fc8_plantvillage_0_split
I0403 12:28:18.296649 26285 net.cpp:425] fc8_plantvillage_fc8_plantvillage_0_split <- fc8_plantvillage
I0403 12:28:18.296670 26285 net.cpp:399] fc8_plantvillage_fc8_plantvillage_0_split -> fc8_plantvillage_fc8_plantvillage_0_split_0
I0403 12:28:18.296692 26285 net.cpp:399] fc8_plantvillage_fc8_plantvillage_0_split -> fc8_plantvillage_fc8_plantvillage_0_split_1
I0403 12:28:18.296713 26285 net.cpp:399] fc8_plantvillage_fc8_plantvillage_0_split -> fc8_plantvillage_fc8_plantvillage_0_split_2
I0403 12:28:18.296789 26285 net.cpp:141] Setting up fc8_plantvillage_fc8_plantvillage_0_split
I0403 12:28:18.296815 26285 net.cpp:148] Top shape: 100 38 (3800)
I0403 12:28:18.296831 26285 net.cpp:148] Top shape: 100 38 (3800)
I0403 12:28:18.296847 26285 net.cpp:148] Top shape: 100 38 (3800)
I0403 12:28:18.296861 26285 net.cpp:156] Memory required for data: 831586800
I0403 12:28:18.296876 26285 layer_factory.hpp:77] Creating layer prob
I0403 12:28:18.296897 26285 net.cpp:91] Creating Layer prob
I0403 12:28:18.296916 26285 net.cpp:425] prob <- fc8_plantvillage_fc8_plantvillage_0_split_0
I0403 12:28:18.296933 26285 net.cpp:399] prob -> prob
I0403 12:28:18.297159 26285 net.cpp:141] Setting up prob
I0403 12:28:18.297189 26285 net.cpp:148] Top shape: 100 38 (3800)
I0403 12:28:18.297206 26285 net.cpp:156] Memory required for data: 831602000
I0403 12:28:18.297222 26285 layer_factory.hpp:77] Creating layer hdf5out
I0403 12:28:18.297241 26285 net.cpp:91] Creating Layer hdf5out
I0403 12:28:18.297257 26285 net.cpp:425] hdf5out <- prob
I0403 12:28:18.297274 26285 net.cpp:425] hdf5out <- label_data_1_split_0
I0403 12:28:18.301316 26285 net.cpp:141] Setting up hdf5out
…
