…
I0403 02:30:37.907476 25318 net.cpp:313] The NetState phase (0) differed from the phase (1) specified by a rule in layer loss3/top-5
I0403 02:30:37.912120 25318 net.cpp:49] Initializing net from parameters: 
state {
  phase: TRAIN
}
layer {
  name: "data"
  type: "Data"
  top: "data"
  top: "label"
  include {
    phase: TRAIN
  }
  transform_param {
    mirror: true
    crop_size: 224
    mean_file: "/home/mohanty/data/final_dataset/lmdb/segmented-20-80/mean.binaryproto"
  }
  data_param {
    source: "/home/mohanty/data/final_dataset/lmdb/segmented-20-80/train_db"
    batch_size: 24
    backend: LMDB
  }
}
layer {
  name: "conv1/7x7_s2"
  type: "Convolution"
  bottom: "data"
  top: "conv1/7x7_s2"
  param {
    lr_mult: 1
    decay_mult: 1
  }
  param {
    lr_mult: 2
    decay_mult: 0
  }
  convolution_param {
    num_output: 64
    pad: 3
    kernel_size: 7
    stride: 2
    weight_filler {
      type: "xavier"
      std: 0.1
    }
    bias_filler {
      type: "constant"
      value: 0.2
    }
  }
}
layer {
  name: "conv1/relu_7x7"
  type: "ReLU"
  bottom: "conv1/7x7_s2"
  top: "conv1/7x7_s2"
}
layer {
  name: "pool1/3x3_s2"
  type: "Pooling"
  bottom: "conv1/7x7_s2"
  top: "pool1/3x3_s2"
  pooling_param {
    pool: MAX
    kernel_size: 3
    stride: 2
  }
}
layer {
  name: "pool1/norm1"
  type: "LRN"
  bottom: "pool1/3x3_s2"
  top: "pool1/norm1"
  lrn_param {
    local_size: 5
    alpha: 0.0001
    beta: 0.75
  }
}
layer {
  name: "conv2/3x3_reduce"
  type: "Convolution"
  bottom: "pool1/norm1"
  top: "conv2/3x3_reduce"
  param {
    lr_mult: 1
    decay_mult: 1
  }
  param {
    lr_mult: 2
    decay_mult: 0
  }
  convolution_param {
    num_output: 64
    kernel_size: 1
    weight_filler {
      type: "xavier"
      std: 0.1
    }
    bias_filler {
      type: "constant"
      value: 0.2
    }
  }
}
layer {
  name: "conv2/relu_3x3_reduce"
  type: "ReLU"
  bottom: "conv2/3x3_reduce"
  top: "conv2/3x3_reduce"
}
layer {
  name: "conv2/3x3"
  type: "Convolution"
  bottom: "conv2/3x3_reduce"
  top: "conv2/3x3"
  param {
    lr_mult: 1
    decay_mult: 1
  }
  param {
    lr_mult: 2
    decay_mult: 0
  }
  convolution_param {
    num_output: 192
    pad: 1
    kernel_size: 3
    weight_filler {
      type: "xavier"
      std: 0.03
    }
    bias_filler {
      type: "constant"
      value: 0.2
    }
  }
}
layer {
  name: "conv2/relu_3x3"
  type: "ReLU"
  bottom: "conv2/3x3"
  top: "conv2/3x3"
}
layer {
  name: "conv2/norm2"
  type: "LRN"
  bottom: "conv2/3x3"
  top: "conv2/norm2"
  lrn_param {
    local_size: 5
    alpha: 0.0001
    beta: 0.75
  }
}
layer {
  name: "pool2/3x3_s2"
  type: "Pooling"
  bottom: "conv2/norm2"
  top: "pool2/3x3_s2"
  pooling_param {
    pool: MAX
    kernel_size: 3
    stride: 2
  }
}
layer {
  name: "inception_3a/1x1"
  type: "Convolution"
  bottom: "pool2/3x3_s2"
  top: "inception_3a/1x1"
  param {
    lr_mult: 1
    decay_mult: 1
  }
  param {
    lr_mult: 2
    decay_mult: 0
  }
  convolution_param {
    num_output: 64
    kernel_size: 1
    weight_filler {
      type: "xavier"
      std: 0.03
    }
    bias_filler {
      type: "constant"
      value: 0.2
    }
  }
}
layer {
  name: "inception_3a/relu_1x1"
  type: "ReLU"
  bottom: "inception_3a/1x1"
  top: "inception_3a/1x1"
}
layer {
  name: "inception_3a/3x3_reduce"
  type: "Convolution"
  bottom: "pool2/3x3_s2"
  top: "inception_3a/3x3_reduce"
  param {
    lr_mult: 1
    decay_mult: 1
  }
  param {
    lr_mult: 2
    decay_mult: 0
  }
  convolution_param {
    num_output: 96
    kernel_size: 1
    weight_filler {
      type: "xavier"
      std: 0.09
    }
    bias_filler {
      type: "constant"
      value: 0.2
    }
  }
}
layer {
  name: "inception_3a/relu_3x3_reduce"
  type: "ReLU"
  bottom: "inception_3a/3x3_reduce"
  top: "inception_3a/3x3_reduce"
}
layer {
  name: "inception_3a/3x3"
  type: "Convolution"
  bottom: "inception_3a/3x3_reduce"
  top: "inception_3a/3x3"
  param {
    lr_mult: 1
    decay_mult: 1
  }
  param {
    lr_mult: 2
    decay_mult: 0
  }
  convolution_param {
    num_output: 128
    pad: 1
    kernel_size: 3
    weight_filler {
      type: "xavier"
      std: 0.03
    }
    bias_filler {
      type: "constant"
      value: 0.2
    }
  }
}
layer {
  name: "inception_3a/relu_3x3"
  type: "ReLU"
  bottom: "inception_3a/3x3"
  top: "inception_3a/3x3"
}
layer {
  name: "inception_3a/5x5_reduce"
  type: "Convolution"
  bottom: "pool2/3x3_s2"
  top: "inception_3a/5x5_reduce"
  param {
    lr_mult: 1
    decay_mult: 1
  }
  param {
    lr_mult: 2
    decay_mult: 0
  }
  convolution_param {
    num_output: 16
    kernel_size: 1
    weight_filler {
      type: "xavier"
      std: 0.2
    }
    bias_filler {
      type: "constant"
      value: 0.2
    }
  }
}
layer {
  name: "inception_3a/relu_5x5_reduce"
  type: "ReLU"
  bottom: "inception_3a/5x5_reduce"
  top: "inception_3a/5x5_reduce"
}
layer {
  name: "inception_3a/5x5"
  type: "Convolution"
  bottom: "inception_3a/5x5_reduce"
  top: "inception_3a/5x5"
  param {
    lr_mult: 1
    decay_mult: 1
  }
  param {
    lr_mult: 2
    decay_mult: 0
  }
  convolution_param {
    num_output: 32
    pad: 2
    kernel_size: 5
    weight_filler {
      type: "xavier"
      std: 0.03
    }
    bias_filler {
      type: "constant"
      value: 0.2
    }
  }
}
layer {
  name: "inception_3a/relu_5x5"
  type: "ReLU"
  bottom: "inception_3a/5x5"
  top: "inception_3a/5x5"
}
layer {
  name: "inception_3a/pool"
  type: "Pooling"
  bottom: "pool2/3x3_s2"
  top: "inception_3a/pool"
  pooling_param {
    pool: MAX
    kernel_size: 3
    stride: 1
    pad: 1
  }
}
layer {
  name: "inception_3a/pool_proj"
  type: "Convolution"
  bottom: "inception_3a/pool"
  top: "inception_3a/pool_proj"
  param {
    lr_mult: 1
    decay_mult: 1
  }
  param {
    lr_mult: 2
    decay_mult: 0
  }
  convolution_param {
    num_output: 32
    kernel_size: 1
    weight_filler {
      type: "xavier"
      std: 0.1
    }
    bias_filler {
      type: "constant"
      value: 0.2
    }
  }
}
layer {
  name: "inception_3a/relu_pool_proj"
  type: "ReLU"
  bottom: "inception_3a/pool_proj"
  top: "inception_3a/pool_proj"
}
layer {
  name: "inception_3a/output"
  type: "Concat"
  bottom: "inception_3a/1x1"
  bottom: "inception_3a/3x3"
  bottom: "inception_3a/5x5"
  bottom: "inception_3a/pool_proj"
  top: "inception_3a/output"
}
layer {
  name: "inception_3b/1x1"
  type: "Convolution"
  bottom: "inception_3a/output"
  top: "inception_3b/1x1"
  param {
    lr_mult: 1
    decay_mult: 1
  }
  param {
    lr_mult: 2
    decay_mult: 0
  }
  convolution_param {
    num_output: 128
    kernel_size: 1
    weight_filler {
      type: "xavier"
      std: 0.03
    }
    bias_filler {
      type: "constant"
      value: 0.2
    }
  }
}
layer {
  name: "inception_3b/relu_1x1"
  type: "ReLU"
  bottom: "inception_3b/1x1"
  top: "inception_3b/1x1"
}
layer {
  name: "inception_3b/3x3_reduce"
  type: "Convolution"
  bottom: "inception_3a/output"
  top: "inception_3b/3x3_reduce"
  param {
    lr_mult: 1
    decay_mult: 1
  }
  param {
    lr_mult: 2
    decay_mult: 0
  }
  convolution_param {
    num_output: 128
    kernel_size: 1
    weight_filler {
      type: "xavier"
      std: 0.09
    }
    bias_filler {
      type: "constant"
      value: 0.2
    }
  }
}
layer {
  name: "inception_3b/relu_3x3_reduce"
  type: "ReLU"
  bottom: "inception_3b/3x3_reduce"
  top: "inception_3b/3x3_reduce"
}
layer {
  name: "inception_3b/3x3"
  type: "Convolution"
  bottom: "inception_3b/3x3_reduce"
  top: "inception_3b/3x3"
  param {
    lr_mult: 1
    decay_mult: 1
  }
  param {
    lr_mult: 2
    decay_mult: 0
  }
  convolution_param {
    num_output: 192
    pad: 1
    kernel_size: 3
    weight_filler {
      type: "xavier"
      std: 0.03
    }
    bias_filler {
      type: "constant"
      value: 0.2
    }
  }
}
layer {
  name: "inception_3b/relu_3x3"
  type: "ReLU"
  bottom: "inception_3b/3x3"
  top: "inception_3b/3x3"
}
layer {
  name: "inception_3b/5x5_reduce"
  type: "Convolution"
  bottom: "inception_3a/output"
  top: "inception_3b/5x5_reduce"
  param {
    lr_mult: 1
    decay_mult: 1
  }
  param {
    lr_mult: 2
    decay_mult: 0
  }
  convolution_param {
    num_output: 32
    kernel_size: 1
    weight_filler {
      type: "xavier"
      std: 0.2
    }
    bias_filler {
      type: "constant"
      value: 0.2
    }
  }
}
layer {
  name: "inception_3b/relu_5x5_reduce"
  type: "ReLU"
  bottom: "inception_3b/5x5_reduce"
  top: "inception_3b/5x5_reduce"
}
layer {
  name: "inception_3b/5x5"
  type: "Convolution"
  bottom: "inception_3b/5x5_reduce"
  top: "inception_3b/5x5"
  param {
    lr_mult: 1
    decay_mult: 1
  }
  param {
    lr_mult: 2
    decay_mult: 0
  }
  convolution_param {
    num_output: 96
    pad: 2
    kernel_size: 5
    weight_filler {
      type: "xavier"
      std: 0.03
    }
    bias_filler {
      type: "constant"
      value: 0.2
    }
  }
}
layer {
  name: "inception_3b/relu_5x5"
  type: "ReLU"
  bottom: "inception_3b/5x5"
  top: "inception_3b/5x5"
}
layer {
  name: "inception_3b/pool"
  type: "Pooling"
  bottom: "inception_3a/output"
  top: "inception_3b/pool"
  pooling_param {
    pool: MAX
    kernel_size: 3
    stride: 1
    pad: 1
  }
}
layer {
  name: "inception_3b/pool_proj"
  type: "Convolution"
  bottom: "inception_3b/pool"
  top: "inception_3b/pool_proj"
  param {
    lr_mult: 1
    decay_mult: 1
  }
  param {
    lr_mult: 2
    decay_mult: 0
  }
  convolution_param {
    num_output: 64
    kernel_size: 1
    weight_filler {
      type: "xavier"
      std: 0.1
    }
    bias_filler {
      type: "constant"
      value: 0.2
    }
  }
}
layer {
  name: "inception_3b/relu_pool_proj"
  type: "ReLU"
  bottom: "inception_3b/pool_proj"
  top: "inception_3b/pool_proj"
}
layer {
  name: "inception_3b/output"
  type: "Concat"
  bottom: "inception_3b/1x1"
  bottom: "inception_3b/3x3"
  bottom: "inception_3b/5x5"
  bottom: "inception_3b/pool_proj"
  top: "inception_3b/output"
}
layer {
  name: "pool3/3x3_s2"
  type: "Pooling"
  bottom: "inception_3b/output"
  top: "pool3/3x3_s2"
  pooling_param {
    pool: MAX
    kernel_size: 3
    stride: 2
  }
}
layer {
  name: "inception_4a/1x1"
  type: "Convolution"
  bottom: "pool3/3x3_s2"
  top: "inception_4a/1x1"
  param {
    lr_mult: 1
    decay_mult: 1
  }
  param {
    lr_mult: 2
    decay_mult: 0
  }
  convolution_param {
    num_output: 192
    kernel_size: 1
    weight_filler {
      type: "xavier"
      std: 0.03
    }
    bias_filler {
      type: "constant"
      value: 0.2
    }
  }
}
layer {
  name: "inception_4a/relu_1x1"
  type: "ReLU"
  bottom: "inception_4a/1x1"
  top: "inception_4a/1x1"
}
layer {
  name: "inception_4a/3x3_reduce"
  type: "Convolution"
  bottom: "pool3/3x3_s2"
  top: "inception_4a/3x3_reduce"
  param {
    lr_mult: 1
    decay_mult: 1
  }
  param {
    lr_mult: 2
    decay_mult: 0
  }
  convolution_param {
    num_output: 96
    kernel_size: 1
    weight_filler {
      type: "xavier"
      std: 0.09
    }
    bias_filler {
      type: "constant"
      value: 0.2
    }
  }
}
layer {
  name: "inception_4a/relu_3x3_reduce"
  type: "ReLU"
  bottom: "inception_4a/3x3_reduce"
  top: "inception_4a/3x3_reduce"
}
layer {
  name: "inception_4a/3x3"
  type: "Convolution"
  bottom: "inception_4a/3x3_reduce"
  top: "inception_4a/3x3"
  param {
    lr_mult: 1
    decay_mult: 1
  }
  param {
    lr_mult: 2
    decay_mult: 0
  }
  convolution_param {
    num_output: 208
    pad: 1
    kernel_size: 3
    weight_filler {
      type: "xavier"
      std: 0.03
    }
    bias_filler {
      type: "constant"
      value: 0.2
    }
  }
}
layer {
  name: "inception_4a/relu_3x3"
  type: "ReLU"
  bottom: "inception_4a/3x3"
  top: "inception_4a/3x3"
}
layer {
  name: "inception_4a/5x5_reduce"
  type: "Convolution"
  bottom: "pool3/3x3_s2"
  top: "inception_4a/5x5_reduce"
  param {
    lr_mult: 1
    decay_mult: 1
  }
  param {
    lr_mult: 2
    decay_mult: 0
  }
  convolution_param {
    num_output: 16
    kernel_size: 1
    weight_filler {
      type: "xavier"
      std: 0.2
    }
    bias_filler {
      type: "constant"
      value: 0.2
    }
  }
}
layer {
  name: "inception_4a/relu_5x5_reduce"
  type: "ReLU"
  bottom: "inception_4a/5x5_reduce"
  top: "inception_4a/5x5_reduce"
}
layer {
  name: "inception_4a/5x5"
  type: "Convolution"
  bottom: "inception_4a/5x5_reduce"
  top: "inception_4a/5x5"
  param {
    lr_mult: 1
    decay_mult: 1
  }
  param {
    lr_mult: 2
    decay_mult: 0
  }
  convolution_param {
    num_output: 48
    pad: 2
    kernel_size: 5
    weight_filler {
      type: "xavier"
      std: 0.03
    }
    bias_filler {
      type: "constant"
      value: 0.2
    }
  }
}
layer {
  name: "inception_4a/relu_5x5"
  type: "ReLU"
  bottom: "inception_4a/5x5"
  top: "inception_4a/5x5"
}
layer {
  name: "inception_4a/pool"
  type: "Pooling"
  bottom: "pool3/3x3_s2"
  top: "inception_4a/pool"
  pooling_param {
    pool: MAX
    kernel_size: 3
    stride: 1
    pad: 1
  }
}
layer {
  name: "inception_4a/pool_proj"
  type: "Convolution"
  bottom: "inception_4a/pool"
  top: "inception_4a/pool_proj"
  param {
    lr_mult: 1
    decay_mult: 1
  }
  param {
    lr_mult: 2
    decay_mult: 0
  }
  convolution_param {
    num_output: 64
    kernel_size: 1
    weight_filler {
      type: "xavier"
      std: 0.1
    }
    bias_filler {
      type: "constant"
      value: 0.2
    }
  }
}
layer {
  name: "inception_4a/relu_pool_proj"
  type: "ReLU"
  bottom: "inception_4a/pool_proj"
  top: "inception_4a/pool_proj"
}
layer {
  name: "inception_4a/output"
  type: "Concat"
  bottom: "inception_4a/1x1"
  bottom: "inception_4a/3x3"
  bottom: "inception_4a/5x5"
  bottom: "inception_4a/pool_proj"
  top: "inception_4a/output"
}
layer {
  name: "loss1/ave_pool"
  type: "Pooling"
  bottom: "inception_4a/output"
  top: "loss1/ave_pool"
  pooling_param {
    pool: AVE
    kernel_size: 5
    stride: 3
  }
}
layer {
  name: "loss1/conv"
  type: "Convolution"
  bottom: "loss1/ave_pool"
  top: "loss1/conv"
  param {
    lr_mult: 1
    decay_mult: 1
  }
  param {
    lr_mult: 2
    decay_mult: 0
  }
  convolution_param {
    num_output: 128
    kernel_size: 1
    weight_filler {
      type: "xavier"
      std: 0.08
    }
    bias_filler {
      type: "constant"
      value: 0.2
    }
  }
}
layer {
  name: "loss1/relu_conv"
  type: "ReLU"
  bottom: "loss1/conv"
  top: "loss1/conv"
}
layer {
  name: "loss1/fc"
  type: "InnerProduct"
  bottom: "loss1/conv"
  top: "loss1/fc"
  param {
    lr_mult: 1
    decay_mult: 1
  }
  param {
    lr_mult: 2
    decay_mult: 0
  }
  inner_product_param {
    num_output: 1024
    weight_filler {
      type: "xavier"
      std: 0.02
    }
    bias_filler {
      type: "constant"
      value: 0.2
    }
  }
}
layer {
  name: "loss1/relu_fc"
  type: "ReLU"
  bottom: "loss1/fc"
  top: "loss1/fc"
}
layer {
  name: "loss1/drop_fc"
  type: "Dropout"
  bottom: "loss1/fc"
  top: "loss1/fc"
  dropout_param {
    dropout_ratio: 0.7
  }
}
layer {
  name: "loss1/classifier_plantvillage"
  type: "InnerProduct"
  bottom: "loss1/fc"
  top: "loss1/classifier_plantvillage"
  param {
    lr_mult: 1
    decay_mult: 1
  }
  param {
    lr_mult: 2
    decay_mult: 0
  }
  inner_product_param {
    num_output: 38
    weight_filler {
      type: "xavier"
      std: 0.0009765625
    }
    bias_filler {
      type: "constant"
      value: 0
    }
  }
}
layer {
  name: "inception_4b/1x1"
  type: "Convolution"
  bottom: "inception_4a/output"
  top: "inception_4b/1x1"
  param {
    lr_mult: 1
    decay_mult: 1
  }
  param {
    lr_mult: 2
    decay_mult: 0
  }
  convolution_param {
    num_output: 160
    kernel_size: 1
    weight_filler {
      type: "xavier"
      std: 0.03
    }
    bias_filler {
      type: "constant"
      value: 0.2
    }
  }
}
layer {
  name: "inception_4b/relu_1x1"
  type: "ReLU"
  bottom: "inception_4b/1x1"
  top: "inception_4b/1x1"
}
layer {
  name: "inception_4b/3x3_reduce"
  type: "Convolution"
  bottom: "inception_4a/output"
  top: "inception_4b/3x3_reduce"
  param {
    lr_mult: 1
    decay_mult: 1
  }
  param {
    lr_mult: 2
    decay_mult: 0
  }
  convolution_param {
    num_output: 112
    kernel_size: 1
    weight_filler {
      type: "xavier"
      std: 0.09
    }
    bias_filler {
      type: "constant"
      value: 0.2
    }
  }
}
layer {
  name: "inception_4b/relu_3x3_reduce"
  type: "ReLU"
  bottom: "inception_4b/3x3_reduce"
  top: "inception_4b/3x3_reduce"
}
layer {
  name: "inception_4b/3x3"
  type: "Convolution"
  bottom: "inception_4b/3x3_reduce"
  top: "inception_4b/3x3"
  param {
    lr_mult: 1
    decay_mult: 1
  }
  param {
    lr_mult: 2
    decay_mult: 0
  }
  convolution_param {
    num_output: 224
    pad: 1
    kernel_size: 3
    weight_filler {
      type: "xavier"
      std: 0.03
    }
    bias_filler {
      type: "constant"
      value: 0.2
    }
  }
}
layer {
  name: "inception_4b/relu_3x3"
  type: "ReLU"
  bottom: "inception_4b/3x3"
  top: "inception_4b/3x3"
}
layer {
  name: "inception_4b/5x5_reduce"
  type: "Convolution"
  bottom: "inception_4a/output"
  top: "inception_4b/5x5_reduce"
  param {
    lr_mult: 1
    decay_mult: 1
  }
  param {
    lr_mult: 2
    decay_mult: 0
  }
  convolution_param {
    num_output: 24
    kernel_size: 1
    weight_filler {
      type: "xavier"
      std: 0.2
    }
    bias_filler {
      type: "constant"
      value: 0.2
    }
  }
}
layer {
  name: "inception_4b/relu_5x5_reduce"
  type: "ReLU"
  bottom: "inception_4b/5x5_reduce"
  top: "inception_4b/5x5_reduce"
}
layer {
  name: "inception_4b/5x5"
  type: "Convolution"
  bottom: "inception_4b/5x5_reduce"
  top: "inception_4b/5x5"
  param {
    lr_mult: 1
    decay_mult: 1
  }
  param {
    lr_mult: 2
    decay_mult: 0
  }
  convolution_param {
    num_output: 64
    pad: 2
    kernel_size: 5
    weight_filler {
      type: "xavier"
      std: 0.03
    }
    bias_filler {
      type: "constant"
      value: 0.2
    }
  }
}
layer {
  name: "inception_4b/relu_5x5"
  type: "ReLU"
  bottom: "inception_4b/5x5"
  top: "inception_4b/5x5"
}
layer {
  name: "inception_4b/pool"
  type: "Pooling"
  bottom: "inception_4a/output"
  top: "inception_4b/pool"
  pooling_param {
    pool: MAX
    kernel_size: 3
    stride: 1
    pad: 1
  }
}
layer {
  name: "inception_4b/pool_proj"
  type: "Convolution"
  bottom: "inception_4b/pool"
  top: "inception_4b/pool_proj"
  param {
    lr_mult: 1
    decay_mult: 1
  }
  param {
    lr_mult: 2
    decay_mult: 0
  }
  convolution_param {
    num_output: 64
    kernel_size: 1
    weight_filler {
      type: "xavier"
      std: 0.1
    }
    bias_filler {
      type: "constant"
      value: 0.2
    }
  }
}
layer {
  name: "inception_4b/relu_pool_proj"
  type: "ReLU"
  bottom: "inception_4b/pool_proj"
  top: "inception_4b/pool_proj"
}
layer {
  name: "inception_4b/output"
  type: "Concat"
  bottom: "inception_4b/1x1"
  bottom: "inception_4b/3x3"
  bottom: "inception_4b/5x5"
  bottom: "inception_4b/pool_proj"
  top: "inception_4b/output"
}
layer {
  name: "inception_4c/1x1"
  type: "Convolution"
  bottom: "inception_4b/output"
  top: "inception_4c/1x1"
  param {
    lr_mult: 1
    decay_mult: 1
  }
  param {
    lr_mult: 2
    decay_mult: 0
  }
  convolution_param {
    num_output: 128
    kernel_size: 1
    weight_filler {
      type: "xavier"
      std: 0.03
    }
    bias_filler {
      type: "constant"
      value: 0.2
    }
  }
}
layer {
  name: "inception_4c/relu_1x1"
  type: "ReLU"
  bottom: "inception_4c/1x1"
  top: "inception_4c/1x1"
}
layer {
  name: "inception_4c/3x3_reduce"
  type: "Convolution"
  bottom: "inception_4b/output"
  top: "inception_4c/3x3_reduce"
  param {
    lr_mult: 1
    decay_mult: 1
  }
  param {
    lr_mult: 2
    decay_mult: 0
  }
  convolution_param {
    num_output: 128
    kernel_size: 1
    weight_filler {
      type: "xavier"
      std: 0.09
    }
    bias_filler {
      type: "constant"
      value: 0.2
    }
  }
}
layer {
  name: "inception_4c/relu_3x3_reduce"
  type: "ReLU"
  bottom: "inception_4c/3x3_reduce"
  top: "inception_4c/3x3_reduce"
}
layer {
  name: "inception_4c/3x3"
  type: "Convolution"
  bottom: "inception_4c/3x3_reduce"
  top: "inception_4c/3x3"
  param {
    lr_mult: 1
    decay_mult: 1
  }
  param {
    lr_mult: 2
    decay_mult: 0
  }
  convolution_param {
    num_output: 256
    pad: 1
    kernel_size: 3
    weight_filler {
      type: "xavier"
      std: 0.03
    }
    bias_filler {
      type: "constant"
      value: 0.2
    }
  }
}
layer {
  name: "inception_4c/relu_3x3"
  type: "ReLU"
  bottom: "inception_4c/3x3"
  top: "inception_4c/3x3"
}
layer {
  name: "inception_4c/5x5_reduce"
  type: "Convolution"
  bottom: "inception_4b/output"
  top: "inception_4c/5x5_reduce"
  param {
    lr_mult: 1
    decay_mult: 1
  }
  param {
    lr_mult: 2
    decay_mult: 0
  }
  convolution_param {
    num_output: 24
    kernel_size: 1
    weight_filler {
      type: "xavier"
      std: 0.2
    }
    bias_filler {
      type: "constant"
      value: 0.2
    }
  }
}
layer {
  name: "inception_4c/relu_5x5_reduce"
  type: "ReLU"
  bottom: "inception_4c/5x5_reduce"
  top: "inception_4c/5x5_reduce"
}
layer {
  name: "inception_4c/5x5"
  type: "Convolution"
  bottom: "inception_4c/5x5_reduce"
  top: "inception_4c/5x5"
  param {
    lr_mult: 1
    decay_mult: 1
  }
  param {
    lr_mult: 2
    decay_mult: 0
  }
  convolution_param {
    num_output: 64
    pad: 2
    kernel_size: 5
    weight_filler {
      type: "xavier"
      std: 0.03
    }
    bias_filler {
      type: "constant"
      value: 0.2
    }
  }
}
layer {
  name: "inception_4c/relu_5x5"
  type: "ReLU"
  bottom: "inception_4c/5x5"
  top: "inception_4c/5x5"
}
layer {
  name: "inception_4c/pool"
  type: "Pooling"
  bottom: "inception_4b/output"
  top: "inception_4c/pool"
  pooling_param {
    pool: MAX
    kernel_size: 3
    stride: 1
    pad: 1
  }
}
layer {
  name: "inception_4c/pool_proj"
  type: "Convolution"
  bottom: "inception_4c/pool"
  top: "inception_4c/pool_proj"
  param {
    lr_mult: 1
    decay_mult: 1
  }
  param {
    lr_mult: 2
    decay_mult: 0
  }
  convolution_param {
    num_output: 64
    kernel_size: 1
    weight_filler {
      type: "xavier"
      std: 0.1
    }
    bias_filler {
      type: "constant"
      value: 0.2
    }
  }
}
layer {
  name: "inception_4c/relu_pool_proj"
  type: "ReLU"
  bottom: "inception_4c/pool_proj"
  top: "inception_4c/pool_proj"
}
layer {
  name: "inception_4c/output"
  type: "Concat"
  bottom: "inception_4c/1x1"
  bottom: "inception_4c/3x3"
  bottom: "inception_4c/5x5"
  bottom: "inception_4c/pool_proj"
  top: "inception_4c/output"
}
layer {
  name: "inception_4d/1x1"
  type: "Convolution"
  bottom: "inception_4c/output"
  top: "inception_4d/1x1"
  param {
    lr_mult: 1
    decay_mult: 1
  }
  param {
    lr_mult: 2
    decay_mult: 0
  }
  convolution_param {
    num_output: 112
    kernel_size: 1
    weight_filler {
      type: "xavier"
      std: 0.03
    }
    bias_filler {
      type: "constant"
      value: 0.2
    }
  }
}
layer {
  name: "inception_4d/relu_1x1"
  type: "ReLU"
  bottom: "inception_4d/1x1"
  top: "inception_4d/1x1"
}
layer {
  name: "inception_4d/3x3_reduce"
  type: "Convolution"
  bottom: "inception_4c/output"
  top: "inception_4d/3x3_reduce"
  param {
    lr_mult: 1
    decay_mult: 1
  }
  param {
    lr_mult: 2
    decay_mult: 0
  }
  convolution_param {
    num_output: 144
    kernel_size: 1
    weight_filler {
      type: "xavier"
      std: 0.09
    }
    bias_filler {
      type: "constant"
      value: 0.2
    }
  }
}
layer {
  name: "inception_4d/relu_3x3_reduce"
  type: "ReLU"
  bottom: "inception_4d/3x3_reduce"
  top: "inception_4d/3x3_reduce"
}
layer {
  name: "inception_4d/3x3"
  type: "Convolution"
  bottom: "inception_4d/3x3_reduce"
  top: "inception_4d/3x3"
  param {
    lr_mult: 1
    decay_mult: 1
  }
  param {
    lr_mult: 2
    decay_mult: 0
  }
  convolution_param {
    num_output: 288
    pad: 1
    kernel_size: 3
    weight_filler {
      type: "xavier"
      std: 0.03
    }
    bias_filler {
      type: "constant"
      value: 0.2
    }
  }
}
layer {
  name: "inception_4d/relu_3x3"
  type: "ReLU"
  bottom: "inception_4d/3x3"
  top: "inception_4d/3x3"
}
layer {
  name: "inception_4d/5x5_reduce"
  type: "Convolution"
  bottom: "inception_4c/output"
  top: "inception_4d/5x5_reduce"
  param {
    lr_mult: 1
    decay_mult: 1
  }
  param {
    lr_mult: 2
    decay_mult: 0
  }
  convolution_param {
    num_output: 32
    kernel_size: 1
    weight_filler {
      type: "xavier"
      std: 0.2
    }
    bias_filler {
      type: "constant"
      value: 0.2
    }
  }
}
layer {
  name: "inception_4d/relu_5x5_reduce"
  type: "ReLU"
  bottom: "inception_4d/5x5_reduce"
  top: "inception_4d/5x5_reduce"
}
layer {
  name: "inception_4d/5x5"
  type: "Convolution"
  bottom: "inception_4d/5x5_reduce"
  top: "inception_4d/5x5"
  param {
    lr_mult: 1
    decay_mult: 1
  }
  param {
    lr_mult: 2
    decay_mult: 0
  }
  convolution_param {
    num_output: 64
    pad: 2
    kernel_size: 5
    weight_filler {
      type: "xavier"
      std: 0.03
    }
    bias_filler {
      type: "constant"
      value: 0.2
    }
  }
}
layer {
  name: "inception_4d/relu_5x5"
  type: "ReLU"
  bottom: "inception_4d/5x5"
  top: "inception_4d/5x5"
}
layer {
  name: "inception_4d/pool"
  type: "Pooling"
  bottom: "inception_4c/output"
  top: "inception_4d/pool"
  pooling_param {
    pool: MAX
    kernel_size: 3
    stride: 1
    pad: 1
  }
}
layer {
  name: "inception_4d/pool_proj"
  type: "Convolution"
  bottom: "inception_4d/pool"
  top: "inception_4d/pool_proj"
  param {
    lr_mult: 1
    decay_mult: 1
  }
  param {
    lr_mult: 2
    decay_mult: 0
  }
  convolution_param {
    num_output: 64
    kernel_size: 1
    weight_filler {
      type: "xavier"
      std: 0.1
    }
    bias_filler {
      type: "constant"
      value: 0.2
    }
  }
}
layer {
  name: "inception_4d/relu_pool_proj"
  type: "ReLU"
  bottom: "inception_4d/pool_proj"
  top: "inception_4d/pool_proj"
}
layer {
  name: "inception_4d/output"
  type: "Concat"
  bottom: "inception_4d/1x1"
  bottom: "inception_4d/3x3"
  bottom: "inception_4d/5x5"
  bottom: "inception_4d/pool_proj"
  top: "inception_4d/output"
}
layer {
  name: "loss2/ave_pool"
  type: "Pooling"
  bottom: "inception_4d/output"
  top: "loss2/ave_pool"
  pooling_param {
    pool: AVE
    kernel_size: 5
    stride: 3
  }
}
layer {
  name: "loss2/conv"
  type: "Convolution"
  bottom: "loss2/ave_pool"
  top: "loss2/conv"
  param {
    lr_mult: 1
    decay_mult: 1
  }
  param {
    lr_mult: 2
    decay_mult: 0
  }
  convolution_param {
    num_output: 128
    kernel_size: 1
    weight_filler {
      type: "xavier"
      std: 0.08
    }
    bias_filler {
      type: "constant"
      value: 0.2
    }
  }
}
layer {
  name: "loss2/relu_conv"
  type: "ReLU"
  bottom: "loss2/conv"
  top: "loss2/conv"
}
layer {
  name: "loss2/fc"
  type: "InnerProduct"
  bottom: "loss2/conv"
  top: "loss2/fc"
  param {
    lr_mult: 1
    decay_mult: 1
  }
  param {
    lr_mult: 2
    decay_mult: 0
  }
  inner_product_param {
    num_output: 1024
    weight_filler {
      type: "xavier"
      std: 0.02
    }
    bias_filler {
      type: "constant"
      value: 0.2
    }
  }
}
layer {
  name: "loss2/relu_fc"
  type: "ReLU"
  bottom: "loss2/fc"
  top: "loss2/fc"
}
layer {
  name: "loss2/drop_fc"
  type: "Dropout"
  bottom: "loss2/fc"
  top: "loss2/fc"
  dropout_param {
    dropout_ratio: 0.7
  }
}
layer {
  name: "loss2/classifier_plantvillage"
  type: "InnerProduct"
  bottom: "loss2/fc"
  top: "loss2/classifier_plantvillage"
  param {
    lr_mult: 1
    decay_mult: 1
  }
  param {
    lr_mult: 2
    decay_mult: 0
  }
  inner_product_param {
    num_output: 38
    weight_filler {
      type: "xavier"
      std: 0.0009765625
    }
    bias_filler {
      type: "constant"
      value: 0
    }
  }
}
layer {
  name: "inception_4e/1x1"
  type: "Convolution"
  bottom: "inception_4d/output"
  top: "inception_4e/1x1"
  param {
    lr_mult: 1
    decay_mult: 1
  }
  param {
    lr_mult: 2
    decay_mult: 0
  }
  convolution_param {
    num_output: 256
    kernel_size: 1
    weight_filler {
      type: "xavier"
      std: 0.03
    }
    bias_filler {
      type: "constant"
      value: 0.2
    }
  }
}
layer {
  name: "inception_4e/relu_1x1"
  type: "ReLU"
  bottom: "inception_4e/1x1"
  top: "inception_4e/1x1"
}
layer {
  name: "inception_4e/3x3_reduce"
  type: "Convolution"
  bottom: "inception_4d/output"
  top: "inception_4e/3x3_reduce"
  param {
    lr_mult: 1
    decay_mult: 1
  }
  param {
    lr_mult: 2
    decay_mult: 0
  }
  convolution_param {
    num_output: 160
    kernel_size: 1
    weight_filler {
      type: "xavier"
      std: 0.09
    }
    bias_filler {
      type: "constant"
      value: 0.2
    }
  }
}
layer {
  name: "inception_4e/relu_3x3_reduce"
  type: "ReLU"
  bottom: "inception_4e/3x3_reduce"
  top: "inception_4e/3x3_reduce"
}
layer {
  name: "inception_4e/3x3"
  type: "Convolution"
  bottom: "inception_4e/3x3_reduce"
  top: "inception_4e/3x3"
  param {
    lr_mult: 1
    decay_mult: 1
  }
  param {
    lr_mult: 2
    decay_mult: 0
  }
  convolution_param {
    num_output: 320
    pad: 1
    kernel_size: 3
    weight_filler {
      type: "xavier"
      std: 0.03
    }
    bias_filler {
      type: "constant"
      value: 0.2
    }
  }
}
layer {
  name: "inception_4e/relu_3x3"
  type: "ReLU"
  bottom: "inception_4e/3x3"
  top: "inception_4e/3x3"
}
layer {
  name: "inception_4e/5x5_reduce"
  type: "Convolution"
  bottom: "inception_4d/output"
  top: "inception_4e/5x5_reduce"
  param {
    lr_mult: 1
    decay_mult: 1
  }
  param {
    lr_mult: 2
    decay_mult: 0
  }
  convolution_param {
    num_output: 32
    kernel_size: 1
    weight_filler {
      type: "xavier"
      std: 0.2
    }
    bias_filler {
      type: "constant"
      value: 0.2
    }
  }
}
layer {
  name: "inception_4e/relu_5x5_reduce"
  type: "ReLU"
  bottom: "inception_4e/5x5_reduce"
  top: "inception_4e/5x5_reduce"
}
layer {
  name: "inception_4e/5x5"
  type: "Convolution"
  bottom: "inception_4e/5x5_reduce"
  top: "inception_4
I0403 02:30:37.913616 25318 layer_factory.hpp:77] Creating layer data
I0403 02:30:37.914336 25318 net.cpp:91] Creating Layer data
I0403 02:30:37.914386 25318 net.cpp:399] data -> data
I0403 02:30:37.914454 25318 net.cpp:399] data -> label
I0403 02:30:37.914496 25318 data_transformer.cpp:25] Loading mean file from: /home/mohanty/data/final_dataset/lmdb/segmented-20-80/mean.binaryproto
I0403 02:30:37.931826 25326 db_lmdb.cpp:38] Opened lmdb /home/mohanty/data/final_dataset/lmdb/segmented-20-80/train_db
I0403 02:30:37.954391 25318 data_layer.cpp:41] output data size: 24,3,224,224
I0403 02:30:37.986557 25318 net.cpp:141] Setting up data
I0403 02:30:37.986646 25318 net.cpp:148] Top shape: 24 3 224 224 (3612672)
I0403 02:30:37.986673 25318 net.cpp:148] Top shape: 24 (24)
I0403 02:30:37.986692 25318 net.cpp:156] Memory required for data: 14450784
I0403 02:30:37.986763 25318 layer_factory.hpp:77] Creating layer label_data_1_split
I0403 02:30:37.986800 25318 net.cpp:91] Creating Layer label_data_1_split
I0403 02:30:37.986825 25318 net.cpp:425] label_data_1_split <- label
I0403 02:30:37.986860 25318 net.cpp:399] label_data_1_split -> label_data_1_split_0
I0403 02:30:37.986893 25318 net.cpp:399] label_data_1_split -> label_data_1_split_1
I0403 02:30:37.986919 25318 net.cpp:399] label_data_1_split -> label_data_1_split_2
I0403 02:30:37.986999 25318 net.cpp:141] Setting up label_data_1_split
I0403 02:30:37.987027 25318 net.cpp:148] Top shape: 24 (24)
I0403 02:30:37.987048 25318 net.cpp:148] Top shape: 24 (24)
I0403 02:30:37.987068 25318 net.cpp:148] Top shape: 24 (24)
I0403 02:30:37.987085 25318 net.cpp:156] Memory required for data: 14451072
I0403 02:30:37.987104 25318 layer_factory.hpp:77] Creating layer conv1/7x7_s2
I0403 02:30:37.987159 25318 net.cpp:91] Creating Layer conv1/7x7_s2
I0403 02:30:37.987185 25318 net.cpp:425] conv1/7x7_s2 <- data
I0403 02:30:37.987210 25318 net.cpp:399] conv1/7x7_s2 -> conv1/7x7_s2
I0403 02:30:37.988380 25318 net.cpp:141] Setting up conv1/7x7_s2
I0403 02:30:37.988418 25318 net.cpp:148] Top shape: 24 64 112 112 (19267584)
I0403 02:30:37.988440 25318 net.cpp:156] Memory required for data: 91521408
I0403 02:30:37.988481 25318 layer_factory.hpp:77] Creating layer conv1/relu_7x7
I0403 02:30:37.988513 25318 net.cpp:91] Creating Layer conv1/relu_7x7
I0403 02:30:37.988535 25318 net.cpp:425] conv1/relu_7x7 <- conv1/7x7_s2
I0403 02:30:37.988557 25318 net.cpp:386] conv1/relu_7x7 -> conv1/7x7_s2 (in-place)
I0403 02:30:37.988584 25318 net.cpp:141] Setting up conv1/relu_7x7
I0403 02:30:37.988608 25318 net.cpp:148] Top shape: 24 64 112 112 (19267584)
I0403 02:30:37.988626 25318 net.cpp:156] Memory required for data: 168591744
I0403 02:30:37.988646 25318 layer_factory.hpp:77] Creating layer pool1/3x3_s2
I0403 02:30:37.988670 25318 net.cpp:91] Creating Layer pool1/3x3_s2
I0403 02:30:37.988689 25318 net.cpp:425] pool1/3x3_s2 <- conv1/7x7_s2
I0403 02:30:37.988711 25318 net.cpp:399] pool1/3x3_s2 -> pool1/3x3_s2
I0403 02:30:37.988790 25318 net.cpp:141] Setting up pool1/3x3_s2
I0403 02:30:37.988818 25318 net.cpp:148] Top shape: 24 64 56 56 (4816896)
I0403 02:30:37.988837 25318 net.cpp:156] Memory required for data: 187859328
I0403 02:30:37.988855 25318 layer_factory.hpp:77] Creating layer pool1/norm1
I0403 02:30:37.988881 25318 net.cpp:91] Creating Layer pool1/norm1
I0403 02:30:37.988901 25318 net.cpp:425] pool1/norm1 <- pool1/3x3_s2
I0403 02:30:37.988924 25318 net.cpp:399] pool1/norm1 -> pool1/norm1
I0403 02:30:37.988988 25318 net.cpp:141] Setting up pool1/norm1
I0403 02:30:37.989017 25318 net.cpp:148] Top shape: 24 64 56 56 (4816896)
I0403 02:30:37.989035 25318 net.cpp:156] Memory required for data: 207126912
I0403 02:30:37.989053 25318 layer_factory.hpp:77] Creating layer conv2/3x3_reduce
I0403 02:30:37.989080 25318 net.cpp:91] Creating Layer conv2/3x3_reduce
I0403 02:30:37.989101 25318 net.cpp:425] conv2/3x3_reduce <- pool1/norm1
I0403 02:30:37.989132 25318 net.cpp:399] conv2/3x3_reduce -> conv2/3x3_reduce
I0403 02:30:37.991474 25318 net.cpp:141] Setting up conv2/3x3_reduce
I0403 02:30:37.991511 25318 net.cpp:148] Top shape: 24 64 56 56 (4816896)
I0403 02:30:37.991531 25318 net.cpp:156] Memory required for data: 226394496
I0403 02:30:37.991556 25318 layer_factory.hpp:77] Creating layer conv2/relu_3x3_reduce
I0403 02:30:37.991581 25318 net.cpp:91] Creating Layer conv2/relu_3x3_reduce
I0403 02:30:37.991603 25318 net.cpp:425] conv2/relu_3x3_reduce <- conv2/3x3_reduce
I0403 02:30:37.991626 25318 net.cpp:386] conv2/relu_3x3_reduce -> conv2/3x3_reduce (in-place)
I0403 02:30:37.991648 25318 net.cpp:141] Setting up conv2/relu_3x3_reduce
I0403 02:30:37.991668 25318 net.cpp:148] Top shape: 24 64 56 56 (4816896)
I0403 02:30:37.991686 25318 net.cpp:156] Memory required for data: 245662080
I0403 02:30:37.991704 25318 layer_factory.hpp:77] Creating layer conv2/3x3
I0403 02:30:37.991734 25318 net.cpp:91] Creating Layer conv2/3x3
I0403 02:30:37.991755 25318 net.cpp:425] conv2/3x3 <- conv2/3x3_reduce
I0403 02:30:37.991802 25318 net.cpp:399] conv2/3x3 -> conv2/3x3
I0403 02:30:37.993264 25328 blocking_queue.cpp:50] Waiting for data
I0403 02:30:37.993440 25318 net.cpp:141] Setting up conv2/3x3
I0403 02:30:37.993479 25318 net.cpp:148] Top shape: 24 192 56 56 (14450688)
I0403 02:30:37.993510 25318 net.cpp:156] Memory required for data: 303464832
I0403 02:30:37.993541 25318 layer_factory.hpp:77] Creating layer conv2/relu_3x3
I0403 02:30:37.993568 25318 net.cpp:91] Creating Layer conv2/relu_3x3
I0403 02:30:37.993590 25318 net.cpp:425] conv2/relu_3x3 <- conv2/3x3
I0403 02:30:37.993613 25318 net.cpp:386] conv2/relu_3x3 -> conv2/3x3 (in-place)
I0403 02:30:37.993636 25318 net.cpp:141] Setting up conv2/relu_3x3
I0403 02:30:37.993659 25318 net.cpp:148] Top shape: 24 192 56 56 (14450688)
I0403 02:30:37.993676 25318 net.cpp:156] Memory required for data: 361267584
I0403 02:30:37.993695 25318 layer_factory.hpp:77] Creating layer conv2/norm2
I0403 02:30:37.993717 25318 net.cpp:91] Creating Layer conv2/norm2
I0403 02:30:37.993738 25318 net.cpp:425] conv2/norm2 <- conv2/3x3
I0403 02:30:37.993762 25318 net.cpp:399] conv2/norm2 -> conv2/norm2
I0403 02:30:37.993818 25318 net.cpp:141] Setting up conv2/norm2
I0403 02:30:37.993847 25318 net.cpp:148] Top shape: 24 192 56 56 (14450688)
I0403 02:30:37.993866 25318 net.cpp:156] Memory required for data: 419070336
I0403 02:30:37.993886 25318 layer_factory.hpp:77] Creating layer pool2/3x3_s2
I0403 02:30:37.993911 25318 net.cpp:91] Creating Layer pool2/3x3_s2
I0403 02:30:37.993932 25318 net.cpp:425] pool2/3x3_s2 <- conv2/norm2
I0403 02:30:37.993954 25318 net.cpp:399] pool2/3x3_s2 -> pool2/3x3_s2
I0403 02:30:37.994009 25318 net.cpp:141] Setting up pool2/3x3_s2
I0403 02:30:37.994037 25318 net.cpp:148] Top shape: 24 192 28 28 (3612672)
I0403 02:30:37.994056 25318 net.cpp:156] Memory required for data: 433521024
I0403 02:30:37.994074 25318 layer_factory.hpp:77] Creating layer pool2/3x3_s2_pool2/3x3_s2_0_split
I0403 02:30:37.994097 25318 net.cpp:91] Creating Layer pool2/3x3_s2_pool2/3x3_s2_0_split
I0403 02:30:37.994123 25318 net.cpp:425] pool2/3x3_s2_pool2/3x3_s2_0_split <- pool2/3x3_s2
I0403 02:30:37.994146 25318 net.cpp:399] pool2/3x3_s2_pool2/3x3_s2_0_split -> pool2/3x3_s2_pool2/3x3_s2_0_split_0
I0403 02:30:37.994173 25318 net.cpp:399] pool2/3x3_s2_pool2/3x3_s2_0_split -> pool2/3x3_s2_pool2/3x3_s2_0_split_1
I0403 02:30:37.994199 25318 net.cpp:399] pool2/3x3_s2_pool2/3x3_s2_0_split -> pool2/3x3_s2_pool2/3x3_s2_0_split_2
I0403 02:30:37.994225 25318 net.cpp:399] pool2/3x3_s2_pool2/3x3_s2_0_split -> pool2/3x3_s2_pool2/3x3_s2_0_split_3
I0403 02:30:37.994297 25318 net.cpp:141] Setting up pool2/3x3_s2_pool2/3x3_s2_0_split
I0403 02:30:37.994326 25318 net.cpp:148] Top shape: 24 192 28 28 (3612672)
I0403 02:30:37.994346 25318 net.cpp:148] Top shape: 24 192 28 28 (3612672)
I0403 02:30:37.994366 25318 net.cpp:148] Top shape: 24 192 28 28 (3612672)
I0403 02:30:37.994385 25318 net.cpp:148] Top shape: 24 192 28 28 (3612672)
I0403 02:30:37.994405 25318 net.cpp:156] Memory required for data: 491323776
I0403 02:30:37.994423 25318 layer_factory.hpp:77] Creating layer inception_3a/1x1
I0403 02:30:37.994449 25318 net.cpp:91] Creating Layer inception_3a/1x1
I0403 02:30:37.994470 25318 net.cpp:425] inception_3a/1x1 <- pool2/3x3_s2_pool2/3x3_s2_0_split_0
I0403 02:30:37.994495 25318 net.cpp:399] inception_3a/1x1 -> inception_3a/1x1
I0403 02:30:37.995465 25318 net.cpp:141] Setting up inception_3a/1x1
I0403 02:30:37.995501 25318 net.cpp:148] Top shape: 24 64 28 28 (1204224)
I0403 02:30:37.995522 25318 net.cpp:156] Memory required for data: 496140672
I0403 02:30:37.995544 25318 layer_factory.hpp:77] Creating layer inception_3a/relu_1x1
I0403 02:30:37.995570 25318 net.cpp:91] Creating Layer inception_3a/relu_1x1
I0403 02:30:37.995594 25318 net.cpp:425] inception_3a/relu_1x1 <- inception_3a/1x1
I0403 02:30:37.995617 25318 net.cpp:386] inception_3a/relu_1x1 -> inception_3a/1x1 (in-place)
I0403 02:30:37.995640 25318 net.cpp:141] Setting up inception_3a/relu_1x1
I0403 02:30:37.995661 25318 net.cpp:148] Top shape: 24 64 28 28 (1204224)
I0403 02:30:37.995698 25318 net.cpp:156] Memory required for data: 500957568
I0403 02:30:37.995736 25318 layer_factory.hpp:77] Creating layer inception_3a/3x3_reduce
I0403 02:30:37.995764 25318 net.cpp:91] Creating Layer inception_3a/3x3_reduce
I0403 02:30:37.995795 25318 net.cpp:425] inception_3a/3x3_reduce <- pool2/3x3_s2_pool2/3x3_s2_0_split_1
I0403 02:30:37.995828 25318 net.cpp:399] inception_3a/3x3_reduce -> inception_3a/3x3_reduce
I0403 02:30:37.996848 25318 net.cpp:141] Setting up inception_3a/3x3_reduce
I0403 02:30:37.996893 25318 net.cpp:148] Top shape: 24 96 28 28 (1806336)
I0403 02:30:37.996937 25318 net.cpp:156] Memory required for data: 508182912
I0403 02:30:37.996994 25318 layer_factory.hpp:77] Creating layer inception_3a/relu_3x3_reduce
I0403 02:30:37.997025 25318 net.cpp:91] Creating Layer inception_3a/relu_3x3_reduce
I0403 02:30:37.997053 25318 net.cpp:425] inception_3a/relu_3x3_reduce <- inception_3a/3x3_reduce
I0403 02:30:37.997089 25318 net.cpp:386] inception_3a/relu_3x3_reduce -> inception_3a/3x3_reduce (in-place)
I0403 02:30:37.997150 25318 net.cpp:141] Setting up inception_3a/relu_3x3_reduce
I0403 02:30:37.997195 25318 net.cpp:148] Top shape: 24 96 28 28 (1806336)
I0403 02:30:37.997241 25318 net.cpp:156] Memory required for data: 515408256
I0403 02:30:37.997263 25318 layer_factory.hpp:77] Creating layer inception_3a/3x3
I0403 02:30:37.997293 25318 net.cpp:91] Creating Layer inception_3a/3x3
I0403 02:30:37.997334 25318 net.cpp:425] inception_3a/3x3 <- inception_3a/3x3_reduce
I0403 02:30:37.997364 25318 net.cpp:399] inception_3a/3x3 -> inception_3a/3x3
I0403 02:30:37.998443 25318 net.cpp:141] Setting up inception_3a/3x3
I0403 02:30:37.998479 25318 net.cpp:148] Top shape: 24 128 28 28 (2408448)
I0403 02:30:37.998499 25318 net.cpp:156] Memory required for data: 525042048
I0403 02:30:37.998525 25318 layer_factory.hpp:77] Creating layer inception_3a/relu_3x3
I0403 02:30:37.998551 25318 net.cpp:91] Creating Layer inception_3a/relu_3x3
I0403 02:30:37.998574 25318 net.cpp:425] inception_3a/relu_3x3 <- inception_3a/3x3
I0403 02:30:37.998599 25318 net.cpp:386] inception_3a/relu_3x3 -> inception_3a/3x3 (in-place)
I0403 02:30:37.998623 25318 net.cpp:141] Setting up inception_3a/relu_3x3
I0403 02:30:37.998646 25318 net.cpp:148] Top shape: 24 128 28 28 (2408448)
I0403 02:30:37.998666 25318 net.cpp:156] Memory required for data: 534675840
I0403 02:30:37.998683 25318 layer_factory.hpp:77] Creating layer inception_3a/5x5_reduce
I0403 02:30:37.998713 25318 net.cpp:91] Creating Layer inception_3a/5x5_reduce
I0403 02:30:37.998736 25318 net.cpp:425] inception_3a/5x5_reduce <- pool2/3x3_s2_pool2/3x3_s2_0_split_2
I0403 02:30:37.998764 25318 net.cpp:399] inception_3a/5x5_reduce -> inception_3a/5x5_reduce
I0403 02:30:37.999068 25318 net.cpp:141] Setting up inception_3a/5x5_reduce
I0403 02:30:37.999121 25318 net.cpp:148] Top shape: 24 16 28 28 (301056)
I0403 02:30:37.999171 25318 net.cpp:156] Memory required for data: 535880064
I0403 02:30:37.999212 25318 layer_factory.hpp:77] Creating layer inception_3a/relu_5x5_reduce
I0403 02:30:37.999238 25318 net.cpp:91] Creating Layer inception_3a/relu_5x5_reduce
I0403 02:30:37.999259 25318 net.cpp:425] inception_3a/relu_5x5_reduce <- inception_3a/5x5_reduce
I0403 02:30:37.999281 25318 net.cpp:386] inception_3a/relu_5x5_reduce -> inception_3a/5x5_reduce (in-place)
I0403 02:30:37.999305 25318 net.cpp:141] Setting up inception_3a/relu_5x5_reduce
I0403 02:30:37.999341 25318 net.cpp:148] Top shape: 24 16 28 28 (301056)
I0403 02:30:37.999361 25318 net.cpp:156] Memory required for data: 537084288
I0403 02:30:37.999379 25318 layer_factory.hpp:77] Creating layer inception_3a/5x5
I0403 02:30:37.999411 25318 net.cpp:91] Creating Layer inception_3a/5x5
I0403 02:30:37.999434 25318 net.cpp:425] inception_3a/5x5 <- inception_3a/5x5_reduce
I0403 02:30:37.999462 25318 net.cpp:399] inception_3a/5x5 -> inception_3a/5x5
I0403 02:30:37.999816 25318 net.cpp:141] Setting up inception_3a/5x5
I0403 02:30:37.999850 25318 net.cpp:148] Top shape: 24 32 28 28 (602112)
I0403 02:30:37.999891 25318 net.cpp:156] Memory required for data: 539492736
I0403 02:30:37.999917 25318 layer_factory.hpp:77] Creating layer inception_3a/relu_5x5
I0403 02:30:37.999943 25318 net.cpp:91] Creating Layer inception_3a/relu_5x5
I0403 02:30:37.999964 25318 net.cpp:425] inception_3a/relu_5x5 <- inception_3a/5x5
I0403 02:30:37.999989 25318 net.cpp:386] inception_3a/relu_5x5 -> inception_3a/5x5 (in-place)
I0403 02:30:38.000015 25318 net.cpp:141] Setting up inception_3a/relu_5x5
I0403 02:30:38.000039 25318 net.cpp:148] Top shape: 24 32 28 28 (602112)
I0403 02:30:38.000058 25318 net.cpp:156] Memory required for data: 541901184
I0403 02:30:38.000078 25318 layer_factory.hpp:77] Creating layer inception_3a/pool
I0403 02:30:38.000128 25318 net.cpp:91] Creating Layer inception_3a/pool
I0403 02:30:38.000154 25318 net.cpp:425] inception_3a/pool <- pool2/3x3_s2_pool2/3x3_s2_0_split_3
I0403 02:30:38.000176 25318 net.cpp:399] inception_3a/pool -> inception_3a/pool
I0403 02:30:38.000238 25318 net.cpp:141] Setting up inception_3a/pool
I0403 02:30:38.000268 25318 net.cpp:148] Top shape: 24 192 28 28 (3612672)
I0403 02:30:38.000286 25318 net.cpp:156] Memory required for data: 556351872
I0403 02:30:38.000304 25318 layer_factory.hpp:77] Creating layer inception_3a/pool_proj
I0403 02:30:38.000346 25318 net.cpp:91] Creating Layer inception_3a/pool_proj
I0403 02:30:38.000371 25318 net.cpp:425] inception_3a/pool_proj <- inception_3a/pool
I0403 02:30:38.000398 25318 net.cpp:399] inception_3a/pool_proj -> inception_3a/pool_proj
I0403 02:30:38.000702 25318 net.cpp:141] Setting up inception_3a/pool_proj
I0403 02:30:38.000740 25318 net.cpp:148] Top shape: 24 32 28 28 (602112)
I0403 02:30:38.000761 25318 net.cpp:156] Memory required for data: 558760320
I0403 02:30:38.000789 25318 layer_factory.hpp:77] Creating layer inception_3a/relu_pool_proj
I0403 02:30:38.000814 25318 net.cpp:91] Creating Layer inception_3a/relu_pool_proj
I0403 02:30:38.000838 25318 net.cpp:425] inception_3a/relu_pool_proj <- inception_3a/pool_proj
I0403 02:30:38.000861 25318 net.cpp:386] inception_3a/relu_pool_proj -> inception_3a/pool_proj (in-place)
I0403 02:30:38.000887 25318 net.cpp:141] Setting up inception_3a/relu_pool_proj
I0403 02:30:38.000910 25318 net.cpp:148] Top shape: 24 32 28 28 (602112)
I0403 02:30:38.000931 25318 net.cpp:156] Memory required for data: 561168768
I0403 02:30:38.000952 25318 layer_factory.hpp:77] Creating layer inception_3a/output
I0403 02:30:38.000978 25318 net.cpp:91] Creating Layer inception_3a/output
I0403 02:30:38.001003 25318 net.cpp:425] inception_3a/output <- inception_3a/1x1
I0403 02:30:38.001025 25318 net.cpp:425] inception_3a/output <- inception_3a/3x3
I0403 02:30:38.001045 25318 net.cpp:425] inception_3a/output <- inception_3a/5x5
I0403 02:30:38.001067 25318 net.cpp:425] inception_3a/output <- inception_3a/pool_proj
I0403 02:30:38.001090 25318 net.cpp:399] inception_3a/output -> inception_3a/output
I0403 02:30:38.001152 25318 net.cpp:141] Setting up inception_3a/output
I0403 02:30:38.001184 25318 net.cpp:148] Top shape: 24 256 28 28 (4816896)
I0403 02:30:38.001204 25318 net.cpp:156] Memory required for data: 580436352
I0403 02:30:38.001224 25318 layer_factory.hpp:77] Creating layer inception_3a/output_inception_3a/output_0_split
I0403 02:30:38.001250 25318 net.cpp:91] Creating Layer inception_3a/output_inception_3a/output_0_split
I0403 02:30:38.001271 25318 net.cpp:425] inception_3a/output_inception_3a/output_0_split <- inception_3a/output
I0403 02:30:38.001297 25318 net.cpp:399] inception_3a/output_inception_3a/output_0_split -> inception_3a/output_inception_3a/output_0_split_0
I0403 02:30:38.001325 25318 net.cpp:399] inception_3a/output_inception_3a/output_0_split -> inception_3a/output_inception_3a/output_0_split_1
I0403 02:30:38.001353 25318 net.cpp:399] inception_3a/output_inception_3a/output_0_split -> inception_3a/output_inception_3a/output_0_split_2
I0403 02:30:38.001379 25318 net.cpp:399] inception_3a/output_inception_3a/output_0_split -> inception_3a/output_inception_3a/output_0_split_3
I0403 02:30:38.001466 25318 net.cpp:141] Setting up inception_3a/output_inception_3a/output_0_split
I0403 02:30:38.001513 25318 net.cpp:148] Top shape: 24 256 28 28 (4816896)
I0403 02:30:38.001538 25318 net.cpp:148] Top shape: 24 256 28 28 (4816896)
I0403 02:30:38.001557 25318 net.cpp:148] Top shape: 24 256 28 28 (4816896)
I0403 02:30:38.001579 25318 net.cpp:148] Top shape: 24 256 28 28 (4816896)
I0403 02:30:38.001616 25318 net.cpp:156] Memory required for data: 657506688
I0403 02:30:38.001669 25318 layer_factory.hpp:77] Creating layer inception_3b/1x1
I0403 02:30:38.001729 25318 net.cpp:91] Creating Layer inception_3b/1x1
I0403 02:30:38.001761 25318 net.cpp:425] inception_3b/1x1 <- inception_3a/output_inception_3a/output_0_split_0
I0403 02:30:38.001806 25318 net.cpp:399] inception_3b/1x1 -> inception_3b/1x1
I0403 02:30:38.002331 25318 net.cpp:141] Setting up inception_3b/1x1
I0403 02:30:38.035979 25318 net.cpp:148] Top shape: 24 128 28 28 (2408448)
I0403 02:30:38.036010 25318 net.cpp:156] Memory required for data: 667140480
I0403 02:30:38.036041 25318 layer_factory.hpp:77] Creating layer inception_3b/relu_1x1
I0403 02:30:38.036077 25318 net.cpp:91] Creating Layer inception_3b/relu_1x1
I0403 02:30:38.036147 25318 net.cpp:425] inception_3b/relu_1x1 <- inception_3b/1x1
I0403 02:30:38.036240 25318 net.cpp:386] inception_3b/relu_1x1 -> inception_3b/1x1 (in-place)
I0403 02:30:38.036298 25318 net.cpp:141] Setting up inception_3b/relu_1x1
I0403 02:30:38.036381 25318 net.cpp:148] Top shape: 24 128 28 28 (2408448)
I0403 02:30:38.036442 25318 net.cpp:156] Memory required for data: 676774272
I0403 02:30:38.036481 25318 layer_factory.hpp:77] Creating layer inception_3b/3x3_reduce
I0403 02:30:38.036535 25318 net.cpp:91] Creating Layer inception_3b/3x3_reduce
I0403 02:30:38.036578 25318 net.cpp:425] inception_3b/3x3_reduce <- inception_3a/output_inception_3a/output_0_split_1
I0403 02:30:38.036634 25318 net.cpp:399] inception_3b/3x3_reduce -> inception_3b/3x3_reduce
I0403 02:30:38.037683 25318 net.cpp:141] Setting up inception_3b/3x3_reduce
I0403 02:30:38.037750 25318 net.cpp:148] Top shape: 24 128 28 28 (2408448)
I0403 02:30:38.037788 25318 net.cpp:156] Memory required for data: 686408064
I0403 02:30:38.037834 25318 layer_factory.hpp:77] Creating layer inception_3b/relu_3x3_reduce
I0403 02:30:38.037883 25318 net.cpp:91] Creating Layer inception_3b/relu_3x3_reduce
I0403 02:30:38.037950 25318 net.cpp:425] inception_3b/relu_3x3_reduce <- inception_3b/3x3_reduce
I0403 02:30:38.038033 25318 net.cpp:386] inception_3b/relu_3x3_reduce -> inception_3b/3x3_reduce (in-place)
I0403 02:30:38.038128 25318 net.cpp:141] Setting up inception_3b/relu_3x3_reduce
I0403 02:30:38.038198 25318 net.cpp:148] Top shape: 24 128 28 28 (2408448)
I0403 02:30:38.038271 25318 net.cpp:156] Memory required for data: 696041856
I0403 02:30:38.038334 25318 layer_factory.hpp:77] Creating layer inception_3b/3x3
I0403 02:30:38.038441 25318 net.cpp:91] Creating Layer inception_3b/3x3
I0403 02:30:38.038491 25318 net.cpp:425] inception_3b/3x3 <- inception_3b/3x3_reduce
I0403 02:30:38.038578 25318 net.cpp:399] inception_3b/3x3 -> inception_3b/3x3
I0403 02:30:38.043589 25318 net.cpp:141] Setting up inception_3b/3x3
I0403 02:30:38.043668 25318 net.cpp:148] Top shape: 24 192 28 28 (3612672)
I0403 02:30:38.043709 25318 net.cpp:156] Memory required for data: 710492544
I0403 02:30:38.043754 25318 layer_factory.hpp:77] Creating layer inception_3b/relu_3x3
I0403 02:30:38.043803 25318 net.cpp:91] Creating Layer inception_3b/relu_3x3
I0403 02:30:38.043848 25318 net.cpp:425] inception_3b/relu_3x3 <- inception_3b/3x3
I0403 02:30:38.043895 25318 net.cpp:386] inception_3b/relu_3x3 -> inception_3b/3x3 (in-place)
I0403 02:30:38.043943 25318 net.cpp:141] Setting up inception_3b/relu_3x3
I0403 02:30:38.043987 25318 net.cpp:148] Top shape: 24 192 28 28 (3612672)
I0403 02:30:38.044024 25318 net.cpp:156] Memory required for data: 724943232
I0403 02:30:38.044060 25318 layer_factory.hpp:77] Creating layer inception_3b/5x5_reduce
I0403 02:30:38.044128 25318 net.cpp:91] Creating Layer inception_3b/5x5_reduce
I0403 02:30:38.044176 25318 net.cpp:425] inception_3b/5x5_reduce <- inception_3a/output_inception_3a/output_0_split_2
I0403 02:30:38.044276 25318 net.cpp:399] inception_3b/5x5_reduce -> inception_3b/5x5_reduce
I0403 02:30:38.044971 25318 net.cpp:141] Setting up inception_3b/5x5_reduce
I0403 02:30:38.045060 25318 net.cpp:148] Top shape: 24 32 28 28 (602112)
I0403 02:30:38.045143 25318 net.cpp:156] Memory required for data: 727351680
I0403 02:30:38.045199 25318 layer_factory.hpp:77] Creating layer inception_3b/relu_5x5_reduce
I0403 02:30:38.045277 25318 net.cpp:91] Creating Layer inception_3b/relu_5x5_reduce
I0403 02:30:38.045321 25318 net.cpp:425] inception_3b/relu_5x5_reduce <- inception_3b/5x5_reduce
I0403 02:30:38.045367 25318 net.cpp:386] inception_3b/relu_5x5_reduce -> inception_3b/5x5_reduce (in-place)
I0403 02:30:38.045419 25318 net.cpp:141] Setting up inception_3b/relu_5x5_reduce
I0403 02:30:38.045474 25318 net.cpp:148] Top shape: 24 32 28 28 (602112)
I0403 02:30:38.045511 25318 net.cpp:156] Memory required for data: 729760128
I0403 02:30:38.045547 25318 layer_factory.hpp:77] Creating layer inception_3b/5x5
I0403 02:30:38.045598 25318 net.cpp:91] Creating Layer inception_3b/5x5
I0403 02:30:38.045641 25318 net.cpp:425] inception_3b/5x5 <- inception_3b/5x5_reduce
I0403 02:30:38.045724 25318 net.cpp:399] inception_3b/5x5 -> inception_3b/5x5
I0403 02:30:38.047862 25318 net.cpp:141] Setting up inception_3b/5x5
I0403 02:30:38.047899 25318 net.cpp:148] Top shape: 24 96 28 28 (1806336)
I0403 02:30:38.047919 25318 net.cpp:156] Memory required for data: 736985472
I0403 02:30:38.047940 25318 layer_factory.hpp:77] Creating layer inception_3b/relu_5x5
I0403 02:30:38.047966 25318 net.cpp:91] Creating Layer inception_3b/relu_5x5
I0403 02:30:38.047988 25318 net.cpp:425] inception_3b/relu_5x5 <- inception_3b/5x5
I0403 02:30:38.048012 25318 net.cpp:386] inception_3b/relu_5x5 -> inception_3b/5x5 (in-place)
I0403 02:30:38.048037 25318 net.cpp:141] Setting up inception_3b/relu_5x5
I0403 02:30:38.048058 25318 net.cpp:148] Top shape: 24 96 28 28 (1806336)
I0403 02:30:38.048075 25318 net.cpp:156] Memory required for data: 744210816
I0403 02:30:38.048092 25318 layer_factory.hpp:77] Creating layer inception_3b/pool
I0403 02:30:38.048120 25318 net.cpp:91] Creating Layer inception_3b/pool
I0403 02:30:38.048144 25318 net.cpp:425] inception_3b/pool <- inception_3a/output_inception_3a/output_0_split_3
I0403 02:30:38.048171 25318 net.cpp:399] inception_3b/pool -> inception_3b/pool
I0403 02:30:38.048233 25318 net.cpp:141] Setting up inception_3b/pool
I0403 02:30:38.048261 25318 net.cpp:148] Top shape: 24 256 28 28 (4816896)
I0403 02:30:38.048279 25318 net.cpp:156] Memory required for data: 763478400
I0403 02:30:38.048295 25318 layer_factory.hpp:77] Creating layer inception_3b/pool_proj
I0403 02:30:38.048324 25318 net.cpp:91] Creating Layer inception_3b/pool_proj
I0403 02:30:38.048346 25318 net.cpp:425] inception_3b/pool_proj <- inception_3b/pool
I0403 02:30:38.048372 25318 net.cpp:399] inception_3b/pool_proj -> inception_3b/pool_proj
I0403 02:30:38.048738 25318 net.cpp:141] Setting up inception_3b/pool_proj
I0403 02:30:38.048779 25318 net.cpp:148] Top shape: 24 64 28 28 (1204224)
I0403 02:30:38.048796 25318 net.cpp:156] Memory required for data: 768295296
I0403 02:30:38.048817 25318 layer_factory.hpp:77] Creating layer inception_3b/relu_pool_proj
I0403 02:30:38.048840 25318 net.cpp:91] Creating Layer inception_3b/relu_pool_proj
I0403 02:30:38.048861 25318 net.cpp:425] inception_3b/relu_pool_proj <- inception_3b/pool_proj
I0403 02:30:38.048882 25318 net.cpp:386] inception_3b/relu_pool_proj -> inception_3b/pool_proj (in-place)
I0403 02:30:38.048910 25318 net.cpp:141] Setting up inception_3b/relu_pool_proj
I0403 02:30:38.048931 25318 net.cpp:148] Top shape: 24 64 28 28 (1204224)
I0403 02:30:38.048949 25318 net.cpp:156] Memory required for data: 773112192
I0403 02:30:38.048967 25318 layer_factory.hpp:77] Creating layer inception_3b/output
I0403 02:30:38.048990 25318 net.cpp:91] Creating Layer inception_3b/output
I0403 02:30:38.049008 25318 net.cpp:425] inception_3b/output <- inception_3b/1x1
I0403 02:30:38.049048 25318 net.cpp:425] inception_3b/output <- inception_3b/3x3
I0403 02:30:38.049069 25318 net.cpp:425] inception_3b/output <- inception_3b/5x5
I0403 02:30:38.049089 25318 net.cpp:425] inception_3b/output <- inception_3b/pool_proj
I0403 02:30:38.049115 25318 net.cpp:399] inception_3b/output -> inception_3b/output
I0403 02:30:38.049165 25318 net.cpp:141] Setting up inception_3b/output
I0403 02:30:38.049193 25318 net.cpp:148] Top shape: 24 480 28 28 (9031680)
I0403 02:30:38.049211 25318 net.cpp:156] Memory required for data: 809238912
I0403 02:30:38.049228 25318 layer_factory.hpp:77] Creating layer pool3/3x3_s2
I0403 02:30:38.049250 25318 net.cpp:91] Creating Layer pool3/3x3_s2
I0403 02:30:38.049270 25318 net.cpp:425] pool3/3x3_s2 <- inception_3b/output
I0403 02:30:38.049294 25318 net.cpp:399] pool3/3x3_s2 -> pool3/3x3_s2
I0403 02:30:38.049355 25318 net.cpp:141] Setting up pool3/3x3_s2
I0403 02:30:38.049384 25318 net.cpp:148] Top shape: 24 480 14 14 (2257920)
I0403 02:30:38.049403 25318 net.cpp:156] Memory required for data: 818270592
I0403 02:30:38.049420 25318 layer_factory.hpp:77] Creating layer pool3/3x3_s2_pool3/3x3_s2_0_split
I0403 02:30:38.049442 25318 net.cpp:91] Creating Layer pool3/3x3_s2_pool3/3x3_s2_0_split
I0403 02:30:38.049460 25318 net.cpp:425] pool3/3x3_s2_pool3/3x3_s2_0_split <- pool3/3x3_s2
I0403 02:30:38.049482 25318 net.cpp:399] pool3/3x3_s2_pool3/3x3_s2_0_split -> pool3/3x3_s2_pool3/3x3_s2_0_split_0
I0403 02:30:38.049506 25318 net.cpp:399] pool3/3x3_s2_pool3/3x3_s2_0_split -> pool3/3x3_s2_pool3/3x3_s2_0_split_1
I0403 02:30:38.049531 25318 net.cpp:399] pool3/3x3_s2_pool3/3x3_s2_0_split -> pool3/3x3_s2_pool3/3x3_s2_0_split_2
I0403 02:30:38.049557 25318 net.cpp:399] pool3/3x3_s2_pool3/3x3_s2_0_split -> pool3/3x3_s2_pool3/3x3_s2_0_split_3
I0403 02:30:38.049641 25318 net.cpp:141] Setting up pool3/3x3_s2_pool3/3x3_s2_0_split
I0403 02:30:38.049669 25318 net.cpp:148] Top shape: 24 480 14 14 (2257920)
I0403 02:30:38.049687 25318 net.cpp:148] Top shape: 24 480 14 14 (2257920)
I0403 02:30:38.049706 25318 net.cpp:148] Top shape: 24 480 14 14 (2257920)
I0403 02:30:38.049726 25318 net.cpp:148] Top shape: 24 480 14 14 (2257920)
I0403 02:30:38.049741 25318 net.cpp:156] Memory required for data: 854397312
I0403 02:30:38.049759 25318 layer_factory.hpp:77] Creating layer inception_4a/1x1
I0403 02:30:38.049787 25318 net.cpp:91] Creating Layer inception_4a/1x1
I0403 02:30:38.049808 25318 net.cpp:425] inception_4a/1x1 <- pool3/3x3_s2_pool3/3x3_s2_0_split_0
I0403 02:30:38.049834 25318 net.cpp:399] inception_4a/1x1 -> inception_4a/1x1
I0403 02:30:38.050695 25318 net.cpp:141] Setting up inception_4a/1x1
I0403 02:30:38.050726 25318 net.cpp:148] Top shape: 24 192 14 14 (903168)
I0403 02:30:38.050745 25318 net.cpp:156] Memory required for data: 858009984
I0403 02:30:38.050765 25318 layer_factory.hpp:77] Creating layer inception_4a/relu_1x1
I0403 02:30:38.050791 25318 net.cpp:91] Creating Layer inception_4a/relu_1x1
I0403 02:30:38.050812 25318 net.cpp:425] inception_4a/relu_1x1 <- inception_4a/1x1
I0403 02:30:38.050833 25318 net.cpp:386] inception_4a/relu_1x1 -> inception_4a/1x1 (in-place)
I0403 02:30:38.050855 25318 net.cpp:141] Setting up inception_4a/relu_1x1
I0403 02:30:38.050875 25318 net.cpp:148] Top shape: 24 192 14 14 (903168)
I0403 02:30:38.050892 25318 net.cpp:156] Memory required for data: 861622656
I0403 02:30:38.050909 25318 layer_factory.hpp:77] Creating layer inception_4a/3x3_reduce
I0403 02:30:38.050936 25318 net.cpp:91] Creating Layer inception_4a/3x3_reduce
I0403 02:30:38.050957 25318 net.cpp:425] inception_4a/3x3_reduce <- pool3/3x3_s2_pool3/3x3_s2_0_split_1
I0403 02:30:38.050987 25318 net.cpp:399] inception_4a/3x3_reduce -> inception_4a/3x3_reduce
I0403 02:30:38.051559 25318 net.cpp:141] Setting up inception_4a/3x3_reduce
I0403 02:30:38.051590 25318 net.cpp:148] Top shape: 24 96 14 14 (451584)
I0403 02:30:38.051607 25318 net.cpp:156] Memory required for data: 863428992
I0403 02:30:38.051637 25318 layer_factory.hpp:77] Creating layer inception_4a/relu_3x3_reduce
I0403 02:30:38.051662 25318 net.cpp:91] Creating Layer inception_4a/relu_3x3_reduce
I0403 02:30:38.051698 25318 net.cpp:425] inception_4a/relu_3x3_reduce <- inception_4a/3x3_reduce
I0403 02:30:38.051722 25318 net.cpp:386] inception_4a/relu_3x3_reduce -> inception_4a/3x3_reduce (in-place)
I0403 02:30:38.051745 25318 net.cpp:141] Setting up inception_4a/relu_3x3_reduce
I0403 02:30:38.051767 25318 net.cpp:148] Top shape: 24 96 14 14 (451584)
I0403 02:30:38.051786 25318 net.cpp:156] Memory required for data: 865235328
I0403 02:30:38.051803 25318 layer_factory.hpp:77] Creating layer inception_4a/3x3
I0403 02:30:38.051832 25318 net.cpp:91] Creating Layer inception_4a/3x3
I0403 02:30:38.051854 25318 net.cpp:425] inception_4a/3x3 <- inception_4a/3x3_reduce
I0403 02:30:38.051879 25318 net.cpp:399] inception_4a/3x3 -> inception_4a/3x3
I0403 02:30:38.054420 25318 net.cpp:141] Setting up inception_4a/3x3
I0403 02:30:38.054464 25318 net.cpp:148] Top shape: 24 208 14 14 (978432)
I0403 02:30:38.054486 25318 net.cpp:156] Memory required for data: 869149056
I0403 02:30:38.054510 25318 layer_factory.hpp:77] Creating layer inception_4a/relu_3x3
I0403 02:30:38.054538 25318 net.cpp:91] Creating Layer inception_4a/relu_3x3
I0403 02:30:38.054559 25318 net.cpp:425] inception_4a/relu_3x3 <- inception_4a/3x3
I0403 02:30:38.054581 25318 net.cpp:386] inception_4a/relu_3x3 -> inception_4a/3x3 (in-place)
I0403 02:30:38.054605 25318 net.cpp:141] Setting up inception_4a/relu_3x3
I0403 02:30:38.054628 25318 net.cpp:148] Top shape: 24 208 14 14 (978432)
I0403 02:30:38.054647 25318 net.cpp:156] Memory required for data: 873062784
I0403 02:30:38.054666 25318 layer_factory.hpp:77] Creating layer inception_4a/5x5_reduce
I0403 02:30:38.054694 25318 net.cpp:91] Creating Layer inception_4a/5x5_reduce
I0403 02:30:38.054716 25318 net.cpp:425] inception_4a/5x5_reduce <- pool3/3x3_s2_pool3/3x3_s2_0_split_2
I0403 02:30:38.054744 25318 net.cpp:399] inception_4a/5x5_reduce -> inception_4a/5x5_reduce
I0403 02:30:38.055053 25318 net.cpp:141] Setting up inception_4a/5x5_reduce
I0403 02:30:38.055085 25318 net.cpp:148] Top shape: 24 16 14 14 (75264)
I0403 02:30:38.055102 25318 net.cpp:156] Memory required for data: 873363840
I0403 02:30:38.055130 25318 layer_factory.hpp:77] Creating layer inception_4a/relu_5x5_reduce
I0403 02:30:38.055153 25318 net.cpp:91] Creating Layer inception_4a/relu_5x5_reduce
I0403 02:30:38.055173 25318 net.cpp:425] inception_4a/relu_5x5_reduce <- inception_4a/5x5_reduce
I0403 02:30:38.055194 25318 net.cpp:386] inception_4a/relu_5x5_reduce -> inception_4a/5x5_reduce (in-place)
I0403 02:30:38.055217 25318 net.cpp:141] Setting up inception_4a/relu_5x5_reduce
I0403 02:30:38.055238 25318 net.cpp:148] Top shape: 24 16 14 14 (75264)
I0403 02:30:38.055255 25318 net.cpp:156] Memory required for data: 873664896
I0403 02:30:38.055272 25318 layer_factory.hpp:77] Creating layer inception_4a/5x5
I0403 02:30:38.055301 25318 net.cpp:91] Creating Layer inception_4a/5x5
I0403 02:30:38.055323 25318 net.cpp:425] inception_4a/5x5 <- inception_4a/5x5_reduce
I0403 02:30:38.055349 25318 net.cpp:399] inception_4a/5x5 -> inception_4a/5x5
I0403 02:30:38.055737 25318 net.cpp:141] Setting up inception_4a/5x5
I0403 02:30:38.055768 25318 net.cpp:148] Top shape: 24 48 14 14 (225792)
I0403 02:30:38.055784 25318 net.cpp:156] Memory required for data: 874568064
I0403 02:30:38.055805 25318 layer_factory.hpp:77] Creating layer inception_4a/relu_5x5
I0403 02:30:38.055831 25318 net.cpp:91] Creating Layer inception_4a/relu_5x5
I0403 02:30:38.055852 25318 net.cpp:425] inception_4a/relu_5x5 <- inception_4a/5x5
I0403 02:30:38.055874 25318 net.cpp:386] inception_4a/relu_5x5 -> inception_4a/5x5 (in-place)
I0403 02:30:38.055896 25318 net.cpp:141] Setting up inception_4a/relu_5x5
I0403 02:30:38.055917 25318 net.cpp:148] Top shape: 24 48 14 14 (225792)
I0403 02:30:38.055934 25318 net.cpp:156] Memory required for data: 875471232
I0403 02:30:38.055951 25318 layer_factory.hpp:77] Creating layer inception_4a/pool
I0403 02:30:38.055976 25318 net.cpp:91] Creating Layer inception_4a/pool
I0403 02:30:38.055999 25318 net.cpp:425] inception_4a/pool <- pool3/3x3_s2_pool3/3x3_s2_0_split_3
I0403 02:30:38.056041 25318 net.cpp:399] inception_4a/pool -> inception_4a/pool
I0403 02:30:38.056104 25318 net.cpp:141] Setting up inception_4a/pool
I0403 02:30:38.056141 25318 net.cpp:148] Top shape: 24 480 14 14 (2257920)
I0403 02:30:38.056161 25318 net.cpp:156] Memory required for data: 884502912
I0403 02:30:38.056180 25318 layer_factory.hpp:77] Creating layer inception_4a/pool_proj
I0403 02:30:38.056208 25318 net.cpp:91] Creating Layer inception_4a/pool_proj
I0403 02:30:38.056231 25318 net.cpp:425] inception_4a/pool_proj <- inception_4a/pool
I0403 02:30:38.056254 25318 net.cpp:399] inception_4a/pool_proj -> inception_4a/pool_proj
I0403 02:30:38.056710 25318 net.cpp:141] Setting up inception_4a/pool_proj
I0403 02:30:38.056740 25318 net.cpp:148] Top shape: 24 64 14 14 (301056)
I0403 02:30:38.056758 25318 net.cpp:156] Memory required for data: 885707136
I0403 02:30:38.056779 25318 layer_factory.hpp:77] Creating layer inception_4a/relu_pool_proj
I0403 02:30:38.056803 25318 net.cpp:91] Creating Layer inception_4a/relu_pool_proj
I0403 02:30:38.056823 25318 net.cpp:425] inception_4a/relu_pool_proj <- inception_4a/pool_proj
I0403 02:30:38.056846 25318 net.cpp:386] inception_4a/relu_pool_proj -> inception_4a/pool_proj (in-place)
I0403 02:30:38.056872 25318 net.cpp:141] Setting up inception_4a/relu_pool_proj
I0403 02:30:38.056893 25318 net.cpp:148] Top shape: 24 64 14 14 (301056)
I0403 02:30:38.056911 25318 net.cpp:156] Memory required for data: 886911360
I0403 02:30:38.056928 25318 layer_factory.hpp:77] Creating layer inception_4a/output
I0403 02:30:38.056949 25318 net.cpp:91] Creating Layer inception_4a/output
I0403 02:30:38.056967 25318 net.cpp:425] inception_4a/output <- inception_4a/1x1
I0403 02:30:38.056988 25318 net.cpp:425] inception_4a/output <- inception_4a/3x3
I0403 02:30:38.057006 25318 net.cpp:425] inception_4a/output <- inception_4a/5x5
I0403 02:30:38.057026 25318 net.cpp:425] inception_4a/output <- inception_4a/pool_proj
I0403 02:30:38.057047 25318 net.cpp:399] inception_4a/output -> inception_4a/output
I0403 02:30:38.057096 25318 net.cpp:141] Setting up inception_4a/output
I0403 02:30:38.057138 25318 net.cpp:148] Top shape: 24 512 14 14 (2408448)
I0403 02:30:38.057158 25318 net.cpp:156] Memory required for data: 896545152
I0403 02:30:38.057178 25318 layer_factory.hpp:77] Creating layer inception_4a/output_inception_4a/output_0_split
I0403 02:30:38.057199 25318 net.cpp:91] Creating Layer inception_4a/output_inception_4a/output_0_split
I0403 02:30:38.057220 25318 net.cpp:425] inception_4a/output_inception_4a/output_0_split <- inception_4a/output
I0403 02:30:38.057251 25318 net.cpp:399] inception_4a/output_inception_4a/output_0_split -> inception_4a/output_inception_4a/output_0_split_0
I0403 02:30:38.057277 25318 net.cpp:399] inception_4a/output_inception_4a/output_0_split -> inception_4a/output_inception_4a/output_0_split_1
I0403 02:30:38.057304 25318 net.cpp:399] inception_4a/output_inception_4a/output_0_split -> inception_4a/output_inception_4a/output_0_split_2
I0403 02:30:38.057329 25318 net.cpp:399] inception_4a/output_inception_4a/output_0_split -> inception_4a/output_inception_4a/output_0_split_3
I0403 02:30:38.057358 25318 net.cpp:399] inception_4a/output_inception_4a/output_0_split -> inception_4a/output_inception_4a/output_0_split_4
I0403 02:30:38.057451 25318 net.cpp:141] Setting up inception_4a/output_inception_4a/output_0_split
I0403 02:30:38.057478 25318 net.cpp:148] Top shape: 24 512 14 14 (2408448)
I0403 02:30:38.057498 25318 net.cpp:148] Top shape: 24 512 14 14 (2408448)
I0403 02:30:38.057517 25318 net.cpp:148] Top shape: 24 512 14 14 (2408448)
I0403 02:30:38.057534 25318 net.cpp:148] Top shape: 24 512 14 14 (2408448)
I0403 02:30:38.057554 25318 net.cpp:148] Top shape: 24 512 14 14 (2408448)
I0403 02:30:38.057570 25318 net.cpp:156] Memory required for data: 944714112
I0403 02:30:38.057588 25318 layer_factory.hpp:77] Creating layer loss1/ave_pool
I0403 02:30:38.057611 25318 net.cpp:91] Creating Layer loss1/ave_pool
I0403 02:30:38.057646 25318 net.cpp:425] loss1/ave_pool <- inception_4a/output_inception_4a/output_0_split_0
I0403 02:30:38.057673 25318 net.cpp:399] loss1/ave_pool -> loss1/ave_pool
I0403 02:30:38.057719 25318 net.cpp:141] Setting up loss1/ave_pool
I0403 02:30:38.057751 25318 net.cpp:148] Top shape: 24 512 4 4 (196608)
I0403 02:30:38.057770 25318 net.cpp:156] Memory required for data: 945500544
I0403 02:30:38.057788 25318 layer_factory.hpp:77] Creating layer loss1/conv
I0403 02:30:38.057816 25318 net.cpp:91] Creating Layer loss1/conv
I0403 02:30:38.057839 25318 net.cpp:425] loss1/conv <- loss1/ave_pool
I0403 02:30:38.057862 25318 net.cpp:399] loss1/conv -> loss1/conv
I0403 02:30:38.058549 25318 net.cpp:141] Setting up loss1/conv
I0403 02:30:38.058581 25318 net.cpp:148] Top shape: 24 128 4 4 (49152)
I0403 02:30:38.058598 25318 net.cpp:156] Memory required for data: 945697152
I0403 02:30:38.058620 25318 layer_factory.hpp:77] Creating layer loss1/relu_conv
I0403 02:30:38.058641 25318 net.cpp:91] Creating Layer loss1/relu_conv
I0403 02:30:38.058661 25318 net.cpp:425] loss1/relu_conv <- loss1/conv
I0403 02:30:38.058683 25318 net.cpp:386] loss1/relu_conv -> loss1/conv (in-place)
I0403 02:30:38.058708 25318 net.cpp:141] Setting up loss1/relu_conv
I0403 02:30:38.058730 25318 net.cpp:148] Top shape: 24 128 4 4 (49152)
I0403 02:30:38.058748 25318 net.cpp:156] Memory required for data: 945893760
I0403 02:30:38.058766 25318 layer_factory.hpp:77] Creating layer loss1/fc
I0403 02:30:38.058797 25318 net.cpp:91] Creating Layer loss1/fc
I0403 02:30:38.058820 25318 net.cpp:425] loss1/fc <- loss1/conv
I0403 02:30:38.058845 25318 net.cpp:399] loss1/fc -> loss1/fc
I0403 02:30:38.078572 25318 net.cpp:141] Setting up loss1/fc
I0403 02:30:38.086021 25318 net.cpp:148] Top shape: 24 1024 (24576)
I0403 02:30:38.086060 25318 net.cpp:156] Memory required for data: 945992064
I0403 02:30:38.086097 25318 layer_factory.hpp:77] Creating layer loss1/relu_fc
I0403 02:30:38.086163 25318 net.cpp:91] Creating Layer loss1/relu_fc
I0403 02:30:38.086248 25318 net.cpp:425] loss1/relu_fc <- loss1/fc
I0403 02:30:38.086343 25318 net.cpp:386] loss1/relu_fc -> loss1/fc (in-place)
I0403 02:30:38.086422 25318 net.cpp:141] Setting up loss1/relu_fc
I0403 02:30:38.086472 25318 net.cpp:148] Top shape: 24 1024 (24576)
I0403 02:30:38.086508 25318 net.cpp:156] Memory required for data: 946090368
I0403 02:30:38.086544 25318 layer_factory.hpp:77] Creating layer loss1/drop_fc
I0403 02:30:38.086616 25318 net.cpp:91] Creating Layer loss1/drop_fc
I0403 02:30:38.086665 25318 net.cpp:425] loss1/drop_fc <- loss1/fc
I0403 02:30:38.086714 25318 net.cpp:386] loss1/drop_fc -> loss1/fc (in-place)
I0403 02:30:38.086844 25318 net.cpp:141] Setting up loss1/drop_fc
I0403 02:30:38.086904 25318 net.cpp:148] Top shape: 24 1024 (24576)
I0403 02:30:38.086941 25318 net.cpp:156] Memory required for data: 946188672
I0403 02:30:38.086979 25318 layer_factory.hpp:77] Creating layer loss1/classifier_plantvillage
I0403 02:30:38.087029 25318 net.cpp:91] Creating Layer loss1/classifier_plantvillage
I0403 02:30:38.087071 25318 net.cpp:425] loss1/classifier_plantvillage <- loss1/fc
I0403 02:30:38.087159 25318 net.cpp:399] loss1/classifier_plantvillage -> loss1/classifier_plantvillage
I0403 02:30:38.089272 25318 net.cpp:141] Setting up loss1/classifier_plantvillage
I0403 02:30:38.089347 25318 net.cpp:148] Top shape: 24 38 (912)
I0403 02:30:38.089386 25318 net.cpp:156] Memory required for data: 946192320
I0403 02:30:38.089434 25318 layer_factory.hpp:77] Creating layer inception_4b/1x1
I0403 02:30:38.089499 25318 net.cpp:91] Creating Layer inception_4b/1x1
I0403 02:30:38.089546 25318 net.cpp:425] inception_4b/1x1 <- inception_4a/output_inception_4a/output_0_split_1
I0403 02:30:38.089602 25318 net.cpp:399] inception_4b/1x1 -> inception_4b/1x1
I0403 02:30:38.091377 25318 net.cpp:141] Setting up inception_4b/1x1
I0403 02:30:38.091444 25318 net.cpp:148] Top shape: 24 160 14 14 (752640)
I0403 02:30:38.091483 25318 net.cpp:156] Memory required for data: 949202880
I0403 02:30:38.091529 25318 layer_factory.hpp:77] Creating layer inception_4b/relu_1x1
I0403 02:30:38.091624 25318 net.cpp:91] Creating Layer inception_4b/relu_1x1
I0403 02:30:38.091671 25318 net.cpp:425] inception_4b/relu_1x1 <- inception_4b/1x1
I0403 02:30:38.091718 25318 net.cpp:386] inception_4b/relu_1x1 -> inception_4b/1x1 (in-place)
I0403 02:30:38.091779 25318 net.cpp:141] Setting up inception_4b/relu_1x1
I0403 02:30:38.091825 25318 net.cpp:148] Top shape: 24 160 14 14 (752640)
I0403 02:30:38.091862 25318 net.cpp:156] Memory required for data: 952213440
I0403 02:30:38.091899 25318 layer_factory.hpp:77] Creating layer inception_4b/3x3_reduce
I0403 02:30:38.091953 25318 net.cpp:91] Creating Layer inception_4b/3x3_reduce
I0403 02:30:38.091998 25318 net.cpp:425] inception_4b/3x3_reduce <- inception_4a/output_inception_4a/output_0_split_2
I0403 02:30:38.092054 25318 net.cpp:399] inception_4b/3x3_reduce -> inception_4b/3x3_reduce
I0403 02:30:38.093497 25318 net.cpp:141] Setting up inception_4b/3x3_reduce
I0403 02:30:38.093565 25318 net.cpp:148] Top shape: 24 112 14 14 (526848)
I0403 02:30:38.093632 25318 net.cpp:156] Memory required for data: 954320832
I0403 02:30:38.093705 25318 layer_factory.hpp:77] Creating layer inception_4b/relu_3x3_reduce
I0403 02:30:38.093780 25318 net.cpp:91] Creating Layer inception_4b/relu_3x3_reduce
I0403 02:30:38.093848 25318 net.cpp:425] inception_4b/relu_3x3_reduce <- inception_4b/3x3_reduce
I0403 02:30:38.093921 25318 net.cpp:386] inception_4b/relu_3x3_reduce -> inception_4b/3x3_reduce (in-place)
I0403 02:30:38.094008 25318 net.cpp:141] Setting up inception_4b/relu_3x3_reduce
I0403 02:30:38.094080 25318 net.cpp:148] Top shape: 24 112 14 14 (526848)
I0403 02:30:38.094159 25318 net.cpp:156] Memory required for data: 956428224
I0403 02:30:38.094200 25318 layer_factory.hpp:77] Creating layer inception_4b/3x3
I0403 02:30:38.094283 25318 net.cpp:91] Creating Layer inception_4b/3x3
I0403 02:30:38.094353 25318 net.cpp:425] inception_4b/3x3 <- inception_4b/3x3_reduce
I0403 02:30:38.094435 25318 net.cpp:399] inception_4b/3x3 -> inception_4b/3x3
I0403 02:30:38.098263 25318 net.cpp:141] Setting up inception_4b/3x3
I0403 02:30:38.098300 25318 net.cpp:148] Top shape: 24 224 14 14 (1053696)
I0403 02:30:38.098320 25318 net.cpp:156] Memory required for data: 960643008
I0403 02:30:38.098342 25318 layer_factory.hpp:77] Creating layer inception_4b/relu_3x3
I0403 02:30:38.098366 25318 net.cpp:91] Creating Layer inception_4b/relu_3x3
I0403 02:30:38.098387 25318 net.cpp:425] inception_4b/relu_3x3 <- inception_4b/3x3
I0403 02:30:38.098410 25318 net.cpp:386] inception_4b/relu_3x3 -> inception_4b/3x3 (in-place)
I0403 02:30:38.098434 25318 net.cpp:141] Setting up inception_4b/relu_3x3
I0403 02:30:38.098458 25318 net.cpp:148] Top shape: 24 224 14 14 (1053696)
I0403 02:30:38.098475 25318 net.cpp:156] Memory required for data: 964857792
I0403 02:30:38.098492 25318 layer_factory.hpp:77] Creating layer inception_4b/5x5_reduce
I0403 02:30:38.098520 25318 net.cpp:91] Creating Layer inception_4b/5x5_reduce
I0403 02:30:38.098544 25318 net.cpp:425] inception_4b/5x5_reduce <- inception_4a/output_inception_4a/output_0_split_3
I0403 02:30:38.098570 25318 net.cpp:399] inception_4b/5x5_reduce -> inception_4b/5x5_reduce
I0403 02:30:38.098927 25318 net.cpp:141] Setting up inception_4b/5x5_reduce
I0403 02:30:38.098958 25318 net.cpp:148] Top shape: 24 24 14 14 (112896)
I0403 02:30:38.098976 25318 net.cpp:156] Memory required for data: 965309376
I0403 02:30:38.098999 25318 layer_factory.hpp:77] Creating layer inception_4b/relu_5x5_reduce
I0403 02:30:38.099021 25318 net.cpp:91] Creating Layer inception_4b/relu_5x5_reduce
I0403 02:30:38.099041 25318 net.cpp:425] inception_4b/relu_5x5_reduce <- inception_4b/5x5_reduce
I0403 02:30:38.099064 25318 net.cpp:386] inception_4b/relu_5x5_reduce -> inception_4b/5x5_reduce (in-place)
I0403 02:30:38.099089 25318 net.cpp:141] Setting up inception_4b/relu_5x5_reduce
I0403 02:30:38.099114 25318 net.cpp:148] Top shape: 24 24 14 14 (112896)
I0403 02:30:38.099135 25318 net.cpp:156] Memory required for data: 965760960
I0403 02:30:38.099153 25318 layer_factory.hpp:77] Creating layer inception_4b/5x5
I0403 02:30:38.099201 25318 net.cpp:91] Creating Layer inception_4b/5x5
I0403 02:30:38.099225 25318 net.cpp:425] inception_4b/5x5 <- inception_4b/5x5_reduce
I0403 02:30:38.099253 25318 net.cpp:399] inception_4b/5x5 -> inception_4b/5x5
I0403 02:30:38.099776 25318 net.cpp:141] Setting up inception_4b/5x5
I0403 02:30:38.099807 25318 net.cpp:148] Top shape: 24 64 14 14 (301056)
I0403 02:30:38.099825 25318 net.cpp:156] Memory required for data: 966965184
I0403 02:30:38.099846 25318 layer_factory.hpp:77] Creating layer inception_4b/relu_5x5
I0403 02:30:38.099869 25318 net.cpp:91] Creating Layer inception_4b/relu_5x5
I0403 02:30:38.099890 25318 net.cpp:425] inception_4b/relu_5x5 <- inception_4b/5x5
I0403 02:30:38.099911 25318 net.cpp:386] inception_4b/relu_5x5 -> inception_4b/5x5 (in-place)
I0403 02:30:38.099934 25318 net.cpp:141] Setting up inception_4b/relu_5x5
I0403 02:30:38.099956 25318 net.cpp:148] Top shape: 24 64 14 14 (301056)
I0403 02:30:38.099972 25318 net.cpp:156] Memory required for data: 968169408
I0403 02:30:38.099990 25318 layer_factory.hpp:77] Creating layer inception_4b/pool
I0403 02:30:38.100013 25318 net.cpp:91] Creating Layer inception_4b/pool
I0403 02:30:38.100035 25318 net.cpp:425] inception_4b/pool <- inception_4a/output_inception_4a/output_0_split_4
I0403 02:30:38.100057 25318 net.cpp:399] inception_4b/pool -> inception_4b/pool
I0403 02:30:38.100126 25318 net.cpp:141] Setting up inception_4b/pool
I0403 02:30:38.100154 25318 net.cpp:148] Top shape: 24 512 14 14 (2408448)
I0403 02:30:38.100172 25318 net.cpp:156] Memory required for data: 977803200
I0403 02:30:38.100189 25318 layer_factory.hpp:77] Creating layer inception_4b/pool_proj
I0403 02:30:38.100219 25318 net.cpp:91] Creating Layer inception_4b/pool_proj
I0403 02:30:38.100239 25318 net.cpp:425] inception_4b/pool_proj <- inception_4b/pool
I0403 02:30:38.100262 25318 net.cpp:399] inception_4b/pool_proj -> inception_4b/pool_proj
I0403 02:30:38.100754 25318 net.cpp:141] Setting up inception_4b/pool_proj
I0403 02:30:38.100785 25318 net.cpp:148] Top shape: 24 64 14 14 (301056)
I0403 02:30:38.100803 25318 net.cpp:156] Memory required for data: 979007424
I0403 02:30:38.100826 25318 layer_factory.hpp:77] Creating layer inception_4b/relu_pool_proj
I0403 02:30:38.100850 25318 net.cpp:91] Creating Layer inception_4b/relu_pool_proj
I0403 02:30:38.100873 25318 net.cpp:425] inception_4b/relu_pool_proj <- inception_4b/pool_proj
I0403 02:30:38.100895 25318 net.cpp:386] inception_4b/relu_pool_proj -> inception_4b/pool_proj (in-place)
I0403 02:30:38.100919 25318 net.cpp:141] Setting up inception_4b/relu_pool_proj
I0403 02:30:38.100941 25318 net.cpp:148] Top shape: 24 64 14 14 (301056)
I0403 02:30:38.100958 25318 net.cpp:156] Memory required for data: 980211648
I0403 02:30:38.100975 25318 layer_factory.hpp:77] Creating layer inception_4b/output
I0403 02:30:38.100997 25318 net.cpp:91] Creating Layer inception_4b/output
I0403 02:30:38.101016 25318 net.cpp:425] inception_4b/output <- inception_4b/1x1
I0403 02:30:38.101037 25318 net.cpp:425] inception_4b/output <- inception_4b/3x3
I0403 02:30:38.101058 25318 net.cpp:425] inception_4b/output <- inception_4b/5x5
I0403 02:30:38.101076 25318 net.cpp:425] inception_4b/output <- inception_4b/pool_proj
I0403 02:30:38.101100 25318 net.cpp:399] inception_4b/output -> inception_4b/output
I0403 02:30:38.101155 25318 net.cpp:141] Setting up inception_4b/output
I0403 02:30:38.101181 25318 net.cpp:148] Top shape: 24 512 14 14 (2408448)
I0403 02:30:38.101199 25318 net.cpp:156] Memory required for data: 989845440
I0403 02:30:38.101217 25318 layer_factory.hpp:77] Creating layer inception_4b/output_inception_4b/output_0_split
I0403 02:30:38.101240 25318 net.cpp:91] Creating Layer inception_4b/output_inception_4b/output_0_split
I0403 02:30:38.101261 25318 net.cpp:425] inception_4b/output_inception_4b/output_0_split <- inception_4b/output
I0403 02:30:38.101284 25318 net.cpp:399] inception_4b/output_inception_4b/output_0_split -> inception_4b/output_inception_4b/output_0_split_0
I0403 02:30:38.101308 25318 net.cpp:399] inception_4b/output_inception_4b/output_0_split -> inception_4b/output_inception_4b/output_0_split_1
I0403 02:30:38.101351 25318 net.cpp:399] inception_4b/output_inception_4b/output_0_split -> inception_4b/output_inception_4b/output_0_split_2
I0403 02:30:38.101382 25318 net.cpp:399] inception_4b/output_inception_4b/output_0_split -> inception_4b/output_inception_4b/output_0_split_3
I0403 02:30:38.101467 25318 net.cpp:141] Setting up inception_4b/output_inception_4b/output_0_split
I0403 02:30:38.101495 25318 net.cpp:148] Top shape: 24 512 14 14 (2408448)
I0403 02:30:38.101516 25318 net.cpp:148] Top shape: 24 512 14 14 (2408448)
I0403 02:30:38.101534 25318 net.cpp:148] Top shape: 24 512 14 14 (2408448)
I0403 02:30:38.101552 25318 net.cpp:148] Top shape: 24 512 14 14 (2408448)
I0403 02:30:38.101569 25318 net.cpp:156] Memory required for data: 1028380608
I0403 02:30:38.101588 25318 layer_factory.hpp:77] Creating layer inception_4c/1x1
I0403 02:30:38.101616 25318 net.cpp:91] Creating Layer inception_4c/1x1
I0403 02:30:38.101639 25318 net.cpp:425] inception_4c/1x1 <- inception_4b/output_inception_4b/output_0_split_0
I0403 02:30:38.101665 25318 net.cpp:399] inception_4c/1x1 -> inception_4c/1x1
I0403 02:30:38.102357 25318 net.cpp:141] Setting up inception_4c/1x1
I0403 02:30:38.102413 25318 net.cpp:148] Top shape: 24 128 14 14 (602112)
I0403 02:30:38.102463 25318 net.cpp:156] Memory required for data: 1030789056
I0403 02:30:38.102516 25318 layer_factory.hpp:77] Creating layer inception_4c/relu_1x1
I0403 02:30:38.102569 25318 net.cpp:91] Creating Layer inception_4c/relu_1x1
I0403 02:30:38.102622 25318 net.cpp:425] inception_4c/relu_1x1 <- inception_4c/1x1
I0403 02:30:38.102674 25318 net.cpp:386] inception_4c/relu_1x1 -> inception_4c/1x1 (in-place)
I0403 02:30:38.102727 25318 net.cpp:141] Setting up inception_4c/relu_1x1
I0403 02:30:38.102780 25318 net.cpp:148] Top shape: 24 128 14 14 (602112)
I0403 02:30:38.102826 25318 net.cpp:156] Memory required for data: 1033197504
I0403 02:30:38.102874 25318 layer_factory.hpp:77] Creating layer inception_4c/3x3_reduce
I0403 02:30:38.102936 25318 net.cpp:91] Creating Layer inception_4c/3x3_reduce
I0403 02:30:38.102988 25318 net.cpp:425] inception_4c/3x3_reduce <- inception_4b/output_inception_4b/output_0_split_1
I0403 02:30:38.103044 25318 net.cpp:399] inception_4c/3x3_reduce -> inception_4c/3x3_reduce
I0403 02:30:38.104421 25318 net.cpp:141] Setting up inception_4c/3x3_reduce
I0403 02:30:38.104459 25318 net.cpp:148] Top shape: 24 128 14 14 (602112)
I0403 02:30:38.104477 25318 net.cpp:156] Memory required for data: 1035605952
I0403 02:30:38.104499 25318 layer_factory.hpp:77] Creating layer inception_4c/relu_3x3_reduce
I0403 02:30:38.104521 25318 net.cpp:91] Creating Layer inception_4c/relu_3x3_reduce
I0403 02:30:38.104542 25318 net.cpp:425] inception_4c/relu_3x3_reduce <- inception_4c/3x3_reduce
I0403 02:30:38.104573 25318 net.cpp:386] inception_4c/relu_3x3_reduce -> inception_4c/3x3_reduce (in-place)
I0403 02:30:38.104599 25318 net.cpp:141] Setting up inception_4c/relu_3x3_reduce
I0403 02:30:38.104621 25318 net.cpp:148] Top shape: 24 128 14 14 (602112)
I0403 02:30:38.104638 25318 net.cpp:156] Memory required for data: 1038014400
I0403 02:30:38.104656 25318 layer_factory.hpp:77] Creating layer inception_4c/3x3
I0403 02:30:38.104682 25318 net.cpp:91] Creating Layer inception_4c/3x3
I0403 02:30:38.104702 25318 net.cpp:425] inception_4c/3x3 <- inception_4c/3x3_reduce
I0403 02:30:38.104728 25318 net.cpp:399] inception_4c/3x3 -> inception_4c/3x3
I0403 02:30:38.107681 25318 net.cpp:141] Setting up inception_4c/3x3
I0403 02:30:38.107717 25318 net.cpp:148] Top shape: 24 256 14 14 (1204224)
I0403 02:30:38.107735 25318 net.cpp:156] Memory required for data: 1042831296
I0403 02:30:38.107774 25318 layer_factory.hpp:77] Creating layer inception_4c/relu_3x3
I0403 02:30:38.107831 25318 net.cpp:91] Creating Layer inception_4c/relu_3x3
I0403 02:30:38.107864 25318 net.cpp:425] inception_4c/relu_3x3 <- inception_4c/3x3
I0403 02:30:38.107910 25318 net.cpp:386] inception_4c/relu_3x3 -> inception_4c/3x3 (in-place)
I0403 02:30:38.107978 25318 net.cpp:141] Setting up inception_4c/relu_3x3
I0403 02:30:38.108021 25318 net.cpp:148] Top shape: 24 256 14 14 (1204224)
I0403 02:30:38.108059 25318 net.cpp:156] Memory required for data: 1047648192
I0403 02:30:38.108114 25318 layer_factory.hpp:77] Creating layer inception_4c/5x5_reduce
I0403 02:30:38.108160 25318 net.cpp:91] Creating Layer inception_4c/5x5_reduce
I0403 02:30:38.108206 25318 net.cpp:425] inception_4c/5x5_reduce <- inception_4b/output_inception_4b/output_0_split_2
I0403 02:30:38.108260 25318 net.cpp:399] inception_4c/5x5_reduce -> inception_4c/5x5_reduce
I0403 02:30:38.108634 25318 net.cpp:141] Setting up inception_4c/5x5_reduce
I0403 02:30:38.108665 25318 net.cpp:148] Top shape: 24 24 14 14 (112896)
I0403 02:30:38.108685 25318 net.cpp:156] Memory required for data: 1048099776
I0403 02:30:38.108707 25318 layer_factory.hpp:77] Creating layer inception_4c/relu_5x5_reduce
I0403 02:30:38.108733 25318 net.cpp:91] Creating Layer inception_4c/relu_5x5_reduce
I0403 02:30:38.108755 25318 net.cpp:425] inception_4c/relu_5x5_reduce <- inception_4c/5x5_reduce
I0403 02:30:38.108777 25318 net.cpp:386] inception_4c/relu_5x5_reduce -> inception_4c/5x5_reduce (in-place)
I0403 02:30:38.108801 25318 net.cpp:141] Setting up inception_4c/relu_5x5_reduce
I0403 02:30:38.108822 25318 net.cpp:148] Top shape: 24 24 14 14 (112896)
I0403 02:30:38.108840 25318 net.cpp:156] Memory required for data: 1048551360
I0403 02:30:38.108858 25318 layer_factory.hpp:77] Creating layer inception_4c/5x5
I0403 02:30:38.108886 25318 net.cpp:91] Creating Layer inception_4c/5x5
I0403 02:30:38.108907 25318 net.cpp:425] inception_4c/5x5 <- inception_4c/5x5_reduce
I0403 02:30:38.108932 25318 net.cpp:399] inception_4c/5x5 -> inception_4c/5x5
I0403 02:30:38.109467 25318 net.cpp:141] Setting up inception_4c/5x5
I0403 02:30:38.109498 25318 net.cpp:148] Top shape: 24 64 14 14 (301056)
I0403 02:30:38.109518 25318 net.cpp:156] Memory required for data: 1049755584
I0403 02:30:38.109539 25318 layer_factory.hpp:77] Creating layer inception_4c/relu_5x5
I0403 02:30:38.109560 25318 net.cpp:91] Creating Layer inception_4c/relu_5x5
I0403 02:30:38.109580 25318 net.cpp:425] inception_4c/relu_5x5 <- inception_4c/5x5
I0403 02:30:38.109604 25318 net.cpp:386] inception_4c/relu_5x5 -> inception_4c/5x5 (in-place)
I0403 02:30:38.109628 25318 net.cpp:141] Setting up inception_4c/relu_5x5
I0403 02:30:38.109650 25318 net.cpp:148] Top shape: 24 64 14 14 (301056)
I0403 02:30:38.109668 25318 net.cpp:156] Memory required for data: 1050959808
I0403 02:30:38.109686 25318 layer_factory.hpp:77] Creating layer inception_4c/pool
I0403 02:30:38.109707 25318 net.cpp:91] Creating Layer inception_4c/pool
I0403 02:30:38.109729 25318 net.cpp:425] inception_4c/pool <- inception_4b/output_inception_4b/output_0_split_3
I0403 02:30:38.109752 25318 net.cpp:399] inception_4c/pool -> inception_4c/pool
I0403 02:30:38.109817 25318 net.cpp:141] Setting up inception_4c/pool
I0403 02:30:38.109848 25318 net.cpp:148] Top shape: 24 512 14 14 (2408448)
I0403 02:30:38.109866 25318 net.cpp:156] Memory required for data: 1060593600
I0403 02:30:38.109884 25318 layer_factory.hpp:77] Creating layer inception_4c/pool_proj
I0403 02:30:38.109910 25318 net.cpp:91] Creating Layer inception_4c/pool_proj
I0403 02:30:38.109930 25318 net.cpp:425] inception_4c/pool_proj <- inception_4c/pool
I0403 02:30:38.109957 25318 net.cpp:399] inception_4c/pool_proj -> inception_4c/pool_proj
I0403 02:30:38.110446 25318 net.cpp:141] Setting up inception_4c/pool_proj
I0403 02:30:38.110476 25318 net.cpp:148] Top shape: 24 64 14 14 (301056)
I0403 02:30:38.110496 25318 net.cpp:156] Memory required for data: 1061797824
I0403 02:30:38.110517 25318 layer_factory.hpp:77] Creating layer inception_4c/relu_pool_proj
I0403 02:30:38.110540 25318 net.cpp:91] Creating Layer inception_4c/relu_pool_proj
I0403 02:30:38.110561 25318 net.cpp:425] inception_4c/relu_pool_proj <- inception_4c/pool_proj
I0403 02:30:38.110584 25318 net.cpp:386] inception_4c/relu_pool_proj -> inception_4c/pool_proj (in-place)
I0403 02:30:38.110607 25318 net.cpp:141] Setting up inception_4c/relu_pool_proj
I0403 02:30:38.110646 25318 net.cpp:148] Top shape: 24 64 14 14 (301056)
I0403 02:30:38.110666 25318 net.cpp:156] Memory required for data: 1063002048
I0403 02:30:38.110682 25318 layer_factory.hpp:77] Creating layer inception_4c/output
I0403 02:30:38.110707 25318 net.cpp:91] Creating Layer inception_4c/output
I0403 02:30:38.110728 25318 net.cpp:425] inception_4c/output <- inception_4c/1x1
I0403 02:30:38.110750 25318 net.cpp:425] inception_4c/output <- inception_4c/3x3
I0403 02:30:38.110769 25318 net.cpp:425] inception_4c/output <- inception_4c/5x5
I0403 02:30:38.110787 25318 net.cpp:425] inception_4c/output <- inception_4c/pool_proj
I0403 02:30:38.110808 25318 net.cpp:399] inception_4c/output -> inception_4c/output
I0403 02:30:38.110858 25318 net.cpp:141] Setting up inception_4c/output
I0403 02:30:38.110887 25318 net.cpp:148] Top shape: 24 512 14 14 (2408448)
I0403 02:30:38.110904 25318 net.cpp:156] Memory required for data: 1072635840
I0403 02:30:38.110924 25318 layer_factory.hpp:77] Creating layer inception_4c/output_inception_4c/output_0_split
I0403 02:30:38.110945 25318 net.cpp:91] Creating Layer inception_4c/output_inception_4c/output_0_split
I0403 02:30:38.110965 25318 net.cpp:425] inception_4c/output_inception_4c/output_0_split <- inception_4c/output
I0403 02:30:38.110991 25318 net.cpp:399] inception_4c/output_inception_4c/output_0_split -> inception_4c/output_inception_4c/output_0_split_0
I0403 02:30:38.111018 25318 net.cpp:399] inception_4c/output_inception_4c/output_0_split -> inception_4c/output_inception_4c/output_0_split_1
I0403 02:30:38.111045 25318 net.cpp:399] inception_4c/output_inception_4c/output_0_split -> inception_4c/output_inception_4c/output_0_split_2
I0403 02:30:38.111071 25318 net.cpp:399] inception_4c/output_inception_4c/output_0_split -> inception_4c/output_inception_4c/output_0_split_3
I0403 02:30:38.111161 25318 net.cpp:141] Setting up inception_4c/output_inception_4c/output_0_split
I0403 02:30:38.111192 25318 net.cpp:148] Top shape: 24 512 14 14 (2408448)
I0403 02:30:38.111213 25318 net.cpp:148] Top shape: 24 512 14 14 (2408448)
I0403 02:30:38.111232 25318 net.cpp:148] Top shape: 24 512 14 14 (2408448)
I0403 02:30:38.111251 25318 net.cpp:148] Top shape: 24 512 14 14 (2408448)
I0403 02:30:38.111268 25318 net.cpp:156] Memory required for data: 1111171008
I0403 02:30:38.111286 25318 layer_factory.hpp:77] Creating layer inception_4d/1x1
I0403 02:30:38.111313 25318 net.cpp:91] Creating Layer inception_4d/1x1
I0403 02:30:38.111336 25318 net.cpp:425] inception_4d/1x1 <- inception_4c/output_inception_4c/output_0_split_0
I0403 02:30:38.111361 25318 net.cpp:399] inception_4d/1x1 -> inception_4d/1x1
I0403 02:30:38.111999 25318 net.cpp:141] Setting up inception_4d/1x1
I0403 02:30:38.112031 25318 net.cpp:148] Top shape: 24 112 14 14 (526848)
I0403 02:30:38.112049 25318 net.cpp:156] Memory required for data: 1113278400
I0403 02:30:38.112071 25318 layer_factory.hpp:77] Creating layer inception_4d/relu_1x1
I0403 02:30:38.112093 25318 net.cpp:91] Creating Layer inception_4d/relu_1x1
I0403 02:30:38.112119 25318 net.cpp:425] inception_4d/relu_1x1 <- inception_4d/1x1
I0403 02:30:38.112148 25318 net.cpp:386] inception_4d/relu_1x1 -> inception_4d/1x1 (in-place)
I0403 02:30:38.112174 25318 net.cpp:141] Setting up inception_4d/relu_1x1
I0403 02:30:38.112196 25318 net.cpp:148] Top shape: 24 112 14 14 (526848)
I0403 02:30:38.112215 25318 net.cpp:156] Memory required for data: 1115385792
I0403 02:30:38.112232 25318 layer_factory.hpp:77] Creating layer inception_4d/3x3_reduce
I0403 02:30:38.112262 25318 net.cpp:91] Creating Layer inception_4d/3x3_reduce
I0403 02:30:38.112285 25318 net.cpp:425] inception_4d/3x3_reduce <- inception_4c/output_inception_4c/output_0_split_1
I0403 02:30:38.112310 25318 net.cpp:399] inception_4d/3x3_reduce -> inception_4d/3x3_reduce
I0403 02:30:38.113095 25318 net.cpp:141] Setting up inception_4d/3x3_reduce
I0403 02:30:38.113131 25318 net.cpp:148] Top shape: 24 144 14 14 (677376)
I0403 02:30:38.113150 25318 net.cpp:156] Memory required for data: 1118095296
I0403 02:30:38.113190 25318 layer_factory.hpp:77] Creating layer inception_4d/relu_3x3_reduce
I0403 02:30:38.113214 25318 net.cpp:91] Creating Layer inception_4d/relu_3x3_reduce
I0403 02:30:38.113236 25318 net.cpp:425] inception_4d/relu_3x3_reduce <- inception_4d/3x3_reduce
I0403 02:30:38.113260 25318 net.cpp:386] inception_4d/relu_3x3_reduce -> inception_4d/3x3_reduce (in-place)
I0403 02:30:38.113286 25318 net.cpp:141] Setting up inception_4d/relu_3x3_reduce
I0403 02:30:38.113307 25318 net.cpp:148] Top shape: 24 144 14 14 (677376)
I0403 02:30:38.113325 25318 net.cpp:156] Memory required for data: 1120804800
I0403 02:30:38.113343 25318 layer_factory.hpp:77] Creating layer inception_4d/3x3
I0403 02:30:38.113371 25318 net.cpp:91] Creating Layer inception_4d/3x3
I0403 02:30:38.113394 25318 net.cpp:425] inception_4d/3x3 <- inception_4d/3x3_reduce
I0403 02:30:38.113417 25318 net.cpp:399] inception_4d/3x3 -> inception_4d/3x3
I0403 02:30:38.117343 25318 net.cpp:141] Setting up inception_4d/3x3
I0403 02:30:38.117383 25318 net.cpp:148] Top shape: 24 288 14 14 (1354752)
I0403 02:30:38.117403 25318 net.cpp:156] Memory required for data: 1126223808
I0403 02:30:38.117427 25318 layer_factory.hpp:77] Creating layer inception_4d/relu_3x3
I0403 02:30:38.117450 25318 net.cpp:91] Creating Layer inception_4d/relu_3x3
I0403 02:30:38.117471 25318 net.cpp:425] inception_4d/relu_3x3 <- inception_4d/3x3
I0403 02:30:38.117492 25318 net.cpp:386] inception_4d/relu_3x3 -> inception_4d/3x3 (in-place)
I0403 02:30:38.117517 25318 net.cpp:141] Setting up inception_4d/relu_3x3
I0403 02:30:38.117539 25318 net.cpp:148] Top shape: 24 288 14 14 (1354752)
I0403 02:30:38.117558 25318 net.cpp:156] Memory required for data: 1131642816
I0403 02:30:38.117575 25318 layer_factory.hpp:77] Creating layer inception_4d/5x5_reduce
I0403 02:30:38.117604 25318 net.cpp:91] Creating Layer inception_4d/5x5_reduce
I0403 02:30:38.117627 25318 net.cpp:425] inception_4d/5x5_reduce <- inception_4c/output_inception_4c/output_0_split_2
I0403 02:30:38.117655 25318 net.cpp:399] inception_4d/5x5_reduce -> inception_4d/5x5_reduce
I0403 02:30:38.118039 25318 net.cpp:141] Setting up inception_4d/5x5_reduce
I0403 02:30:38.118070 25318 net.cpp:148] Top shape: 24 32 14 14 (150528)
I0403 02:30:38.118089 25318 net.cpp:156] Memory required for data: 1132244928
I0403 02:30:38.118116 25318 layer_factory.hpp:77] Creating layer inception_4d/relu_5x5_reduce
I0403 02:30:38.118145 25318 net.cpp:91] Creating Layer inception_4d/relu_5x5_reduce
I0403 02:30:38.118167 25318 net.cpp:425] inception_4d/relu_5x5_reduce <- inception_4d/5x5_reduce
I0403 02:30:38.118190 25318 net.cpp:386] inception_4d/relu_5x5_reduce -> inception_4d/5x5_reduce (in-place)
I0403 02:30:38.118213 25318 net.cpp:141] Setting up inception_4d/relu_5x5_reduce
I0403 02:30:38.118235 25318 net.cpp:148] Top shape: 24 32 14 14 (150528)
I0403 02:30:38.118253 25318 net.cpp:156] Memory required for data: 1132847040
I0403 02:30:38.118271 25318 layer_factory.hpp:77] Creating layer inception_4d/5x5
I0403 02:30:38.118300 25318 net.cpp:91] Creating Layer inception_4d/5x5
I0403 02:30:38.118322 25318 net.cpp:425] inception_4d/5x5 <- inception_4d/5x5_reduce
I0403 02:30:38.118350 25318 net.cpp:399] inception_4d/5x5 -> inception_4d/5x5
I0403 02:30:38.118963 25318 net.cpp:141] Setting up inception_4d/5x5
I0403 02:30:38.118993 25318 net.cpp:148] Top shape: 24 64 14 14 (301056)
I0403 02:30:38.119011 25318 net.cpp:156] Memory required for data: 1134051264
I0403 02:30:38.119034 25318 layer_factory.hpp:77] Creating layer inception_4d/relu_5x5
I0403 02:30:38.119056 25318 net.cpp:91] Creating Layer inception_4d/relu_5x5
I0403 02:30:38.119076 25318 net.cpp:425] inception_4d/relu_5x5 <- inception_4d/5x5
I0403 02:30:38.119098 25318 net.cpp:386] inception_4d/relu_5x5 -> inception_4d/5x5 (in-place)
I0403 02:30:38.119128 25318 net.cpp:141] Setting up inception_4d/relu_5x5
I0403 02:30:38.119151 25318 net.cpp:148] Top shape: 24 64 14 14 (301056)
I0403 02:30:38.119169 25318 net.cpp:156] Memory required for data: 1135255488
I0403 02:30:38.119186 25318 layer_factory.hpp:77] Creating layer inception_4d/pool
I0403 02:30:38.119230 25318 net.cpp:91] Creating Layer inception_4d/pool
I0403 02:30:38.119252 25318 net.cpp:425] inception_4d/pool <- inception_4c/output_inception_4c/output_0_split_3
I0403 02:30:38.119277 25318 net.cpp:399] inception_4d/pool -> inception_4d/pool
I0403 02:30:38.119340 25318 net.cpp:141] Setting up inception_4d/pool
I0403 02:30:38.119370 25318 net.cpp:148] Top shape: 24 512 14 14 (2408448)
I0403 02:30:38.119388 25318 net.cpp:156] Memory required for data: 1144889280
I0403 02:30:38.119406 25318 layer_factory.hpp:77] Creating layer inception_4d/pool_proj
I0403 02:30:38.119437 25318 net.cpp:91] Creating Layer inception_4d/pool_proj
I0403 02:30:38.119460 25318 net.cpp:425] inception_4d/pool_proj <- inception_4d/pool
I0403 02:30:38.119485 25318 net.cpp:399] inception_4d/pool_proj -> inception_4d/pool_proj
I0403 02:30:38.120623 25318 net.cpp:141] Setting up inception_4d/pool_proj
I0403 02:30:38.120658 25318 net.cpp:148] Top shape: 24 64 14 14 (301056)
I0403 02:30:38.120677 25318 net.cpp:156] Memory required for data: 1146093504
I0403 02:30:38.120700 25318 layer_factory.hpp:77] Creating layer inception_4d/relu_pool_proj
I0403 02:30:38.120724 25318 net.cpp:91] Creating Layer inception_4d/relu_pool_proj
I0403 02:30:38.120746 25318 net.cpp:425] inception_4d/relu_pool_proj <- inception_4d/pool_proj
I0403 02:30:38.120771 25318 net.cpp:386] inception_4d/relu_pool_proj -> inception_4d/pool_proj (in-place)
I0403 02:30:38.120796 25318 net.cpp:141] Setting up inception_4d/relu_pool_proj
I0403 02:30:38.120820 25318 net.cpp:148] Top shape: 24 64 14 14 (301056)
I0403 02:30:38.120837 25318 net.cpp:156] Memory required for data: 1147297728
I0403 02:30:38.120856 25318 layer_factory.hpp:77] Creating layer inception_4d/output
I0403 02:30:38.120877 25318 net.cpp:91] Creating Layer inception_4d/output
I0403 02:30:38.120898 25318 net.cpp:425] inception_4d/output <- inception_4d/1x1
I0403 02:30:38.120916 25318 net.cpp:425] inception_4d/output <- inception_4d/3x3
I0403 02:30:38.120937 25318 net.cpp:425] inception_4d/output <- inception_4d/5x5
I0403 02:30:38.132968 25318 net.cpp:425] inception_4d/output <- inception_4d/pool_proj
I0403 02:30:38.133033 25318 net.cpp:399] inception_4d/output -> inception_4d/output
I0403 02:30:38.133136 25318 net.cpp:141] Setting up inception_4d/output
I0403 02:30:38.133229 25318 net.cpp:148] Top shape: 24 528 14 14 (2483712)
I0403 02:30:38.133283 25318 net.cpp:156] Memory required for data: 1157232576
I0403 02:30:38.133350 25318 layer_factory.hpp:77] Creating layer inception_4d/output_inception_4d/output_0_split
I0403 02:30:38.133404 25318 net.cpp:91] Creating Layer inception_4d/output_inception_4d/output_0_split
I0403 02:30:38.133471 25318 net.cpp:425] inception_4d/output_inception_4d/output_0_split <- inception_4d/output
I0403 02:30:38.133554 25318 net.cpp:399] inception_4d/output_inception_4d/output_0_split -> inception_4d/output_inception_4d/output_0_split_0
I0403 02:30:38.133636 25318 net.cpp:399] inception_4d/output_inception_4d/output_0_split -> inception_4d/output_inception_4d/output_0_split_1
I0403 02:30:38.133693 25318 net.cpp:399] inception_4d/output_inception_4d/output_0_split -> inception_4d/output_inception_4d/output_0_split_2
I0403 02:30:38.133749 25318 net.cpp:399] inception_4d/output_inception_4d/output_0_split -> inception_4d/output_inception_4d/output_0_split_3
I0403 02:30:38.133808 25318 net.cpp:399] inception_4d/output_inception_4d/output_0_split -> inception_4d/output_inception_4d/output_0_split_4
I0403 02:30:38.134030 25318 net.cpp:141] Setting up inception_4d/output_inception_4d/output_0_split
I0403 02:30:38.134122 25318 net.cpp:148] Top shape: 24 528 14 14 (2483712)
I0403 02:30:38.134176 25318 net.cpp:148] Top shape: 24 528 14 14 (2483712)
I0403 02:30:38.134248 25318 net.cpp:148] Top shape: 24 528 14 14 (2483712)
I0403 02:30:38.134313 25318 net.cpp:148] Top shape: 24 528 14 14 (2483712)
I0403 02:30:38.134352 25318 net.cpp:148] Top shape: 24 528 14 14 (2483712)
I0403 02:30:38.134389 25318 net.cpp:156] Memory required for data: 1206906816
I0403 02:30:38.134471 25318 layer_factory.hpp:77] Creating layer loss2/ave_pool
I0403 02:30:38.134521 25318 net.cpp:91] Creating Layer loss2/ave_pool
I0403 02:30:38.134564 25318 net.cpp:425] loss2/ave_pool <- inception_4d/output_inception_4d/output_0_split_0
I0403 02:30:38.134618 25318 net.cpp:399] loss2/ave_pool -> loss2/ave_pool
I0403 02:30:38.134721 25318 net.cpp:141] Setting up loss2/ave_pool
I0403 02:30:38.134786 25318 net.cpp:148] Top shape: 24 528 4 4 (202752)
I0403 02:30:38.134824 25318 net.cpp:156] Memory required for data: 1207717824
I0403 02:30:38.134861 25318 layer_factory.hpp:77] Creating layer loss2/conv
I0403 02:30:38.134920 25318 net.cpp:91] Creating Layer loss2/conv
I0403 02:30:38.134965 25318 net.cpp:425] loss2/conv <- loss2/ave_pool
I0403 02:30:38.135016 25318 net.cpp:399] loss2/conv -> loss2/conv
I0403 02:30:38.137485 25318 net.cpp:141] Setting up loss2/conv
I0403 02:30:38.137521 25318 net.cpp:148] Top shape: 24 128 4 4 (49152)
I0403 02:30:38.137540 25318 net.cpp:156] Memory required for data: 1207914432
I0403 02:30:38.137563 25318 layer_factory.hpp:77] Creating layer loss2/relu_conv
I0403 02:30:38.137596 25318 net.cpp:91] Creating Layer loss2/relu_conv
I0403 02:30:38.137626 25318 net.cpp:425] loss2/relu_conv <- loss2/conv
I0403 02:30:38.137670 25318 net.cpp:386] loss2/relu_conv -> loss2/conv (in-place)
I0403 02:30:38.137717 25318 net.cpp:141] Setting up loss2/relu_conv
I0403 02:30:38.137763 25318 net.cpp:148] Top shape: 24 128 4 4 (49152)
I0403 02:30:38.137810 25318 net.cpp:156] Memory required for data: 1208111040
I0403 02:30:38.137853 25318 layer_factory.hpp:77] Creating layer loss2/fc
I0403 02:30:38.137881 25318 net.cpp:91] Creating Layer loss2/fc
I0403 02:30:38.137925 25318 net.cpp:425] loss2/fc <- loss2/conv
I0403 02:30:38.137980 25318 net.cpp:399] loss2/fc -> loss2/fc
I0403 02:30:38.157732 25318 net.cpp:141] Setting up loss2/fc
I0403 02:30:38.157778 25318 net.cpp:148] Top shape: 24 1024 (24576)
I0403 02:30:38.157799 25318 net.cpp:156] Memory required for data: 1208209344
I0403 02:30:38.157822 25318 layer_factory.hpp:77] Creating layer loss2/relu_fc
I0403 02:30:38.157846 25318 net.cpp:91] Creating Layer loss2/relu_fc
I0403 02:30:38.157867 25318 net.cpp:425] loss2/relu_fc <- loss2/fc
I0403 02:30:38.157893 25318 net.cpp:386] loss2/relu_fc -> loss2/fc (in-place)
I0403 02:30:38.157922 25318 net.cpp:141] Setting up loss2/relu_fc
I0403 02:30:38.157944 25318 net.cpp:148] Top shape: 24 1024 (24576)
I0403 02:30:38.157963 25318 net.cpp:156] Memory required for data: 1208307648
I0403 02:30:38.157980 25318 layer_factory.hpp:77] Creating layer loss2/drop_fc
I0403 02:30:38.158004 25318 net.cpp:91] Creating Layer loss2/drop_fc
I0403 02:30:38.158025 25318 net.cpp:425] loss2/drop_fc <- loss2/fc
I0403 02:30:38.158046 25318 net.cpp:386] loss2/drop_fc -> loss2/fc (in-place)
I0403 02:30:38.158095 25318 net.cpp:141] Setting up loss2/drop_fc
I0403 02:30:38.158128 25318 net.cpp:148] Top shape: 24 1024 (24576)
I0403 02:30:38.158146 25318 net.cpp:156] Memory required for data: 1208405952
I0403 02:30:38.158164 25318 layer_factory.hpp:77] Creating layer loss2/classifier_plantvillage
I0403 02:30:38.158190 25318 net.cpp:91] Creating Layer loss2/classifier_plantvillage
I0403 02:30:38.158212 25318 net.cpp:425] loss2/classifier_plantvillage <- loss2/fc
I0403 02:30:38.158237 25318 net.cpp:399] loss2/classifier_plantvillage -> loss2/classifier_plantvillage
I0403 02:30:38.158638 25318 net.cpp:141] Setting up loss2/classifier_plantvillage
I0403 02:30:38.158685 25318 net.cpp:148] Top shape: 24 38 (912)
I0403 02:30:38.158732 25318 net.cpp:156] Memory required for data: 1208409600
I0403 02:30:38.158778 25318 layer_factory.hpp:77] Creating layer inception_4e/1x1
I0403 02:30:38.158833 25318 net.cpp:91] Creating Layer inception_4e/1x1
I0403 02:30:38.158870 25318 net.cpp:425] inception_4e/1x1 <- inception_4d/output_inception_4d/output_0_split_1
I0403 02:30:38.158915 25318 net.cpp:399] inception_4e/1x1 -> inception_4e/1x1
I0403 02:30:38.160131 25318 net.cpp:141] Setting up inception_4e/1x1
I0403 02:30:38.160166 25318 net.cpp:148] Top shape: 24 256 14 14 (1204224)
I0403 02:30:38.160207 25318 net.cpp:156] Memory required for data: 1213226496
I0403 02:30:38.160231 25318 layer_factory.hpp:77] Creating layer inception_4e/relu_1x1
I0403 02:30:38.160254 25318 net.cpp:91] Creating Layer inception_4e/relu_1x1
I0403 02:30:38.160275 25318 net.cpp:425] inception_4e/relu_1x1 <- inception_4e/1x1
I0403 02:30:38.160300 25318 net.cpp:386] inception_4e/relu_1x1 -> inception_4e/1x1 (in-place)
I0403 02:30:38.160327 25318 net.cpp:141] Setting up inception_4e/relu_1x1
I0403 02:30:38.160351 25318 net.cpp:148] Top shape: 24 256 14 14 (1204224)
I0403 02:30:38.160369 25318 net.cpp:156] Memory required for data: 1218043392
I0403 02:30:38.160387 25318 layer_factory.hpp:77] Creating layer inception_4e/3x3_reduce
I0403 02:30:38.160416 25318 net.cpp:91] Creating Layer inception_4e/3x3_reduce
I0403 02:30:38.160440 25318 net.cpp:425] inception_4e/3x3_reduce <- inception_4d/output_inception_4d/output_0_split_2
I0403 02:30:38.160465 25318 net.cpp:399] inception_4e/3x3_reduce -> inception_4e/3x3_reduce
I0403 02:30:38.161943 25318 net.cpp:141] Setting up inception_4e/3x3_reduce
I0403 02:30:38.161980 25318 net.cpp:148] Top shape: 24 160 14 14 (752640)
I0403 02:30:38.162000 25318 net.cpp:156] Memory required for data: 1221053952
I0403 02:30:38.162021 25318 layer_factory.hpp:77] Creating layer inception_4e/relu_3x3_reduce
I0403 02:30:38.162045 25318 net.cpp:91] Creating Layer inception_4e/relu_3x3_reduce
I0403 02:30:38.162065 25318 net.cpp:425] inception_4e/relu_3x3_reduce <- inception_4e/3x3_reduce
I0403 02:30:38.162088 25318 net.cpp:386] inception_4e/relu_3x3_reduce -> inception_4e/3x3_reduce (in-place)
I0403 02:30:38.162117 25318 net.cpp:141] Setting up inception_4e/relu_3x3_reduce
I0403 02:30:38.162140 25318 net.cpp:148] Top shape: 24 160 14 14 (752640)
I0403 02:30:38.162160 25318 net.cpp:156] Memory required for data: 1224064512
I0403 02:30:38.162178 25318 layer_factory.hpp:77] Creating layer inception_4e/3x3
I0403 02:30:38.162205 25318 net.cpp:91] Creating Layer inception_4e/3x3
I0403 02:30:38.162228 25318 net.cpp:425] inception_4e/3x3 <- inception_4e/3x3_reduce
I0403 02:30:38.162256 25318 net.cpp:399] inception_4e/3x3 -> inception_4e/3x3
I0403 02:30:38.166995 25318 net.cpp:141] Setting up inception_4e/3x3
I0403 02:30:38.167033 25318 net.cpp:148] Top shape: 24 320 14 14 (1505280)
I0403 02:30:38.167053 25318 net.cpp:156] Memory required for data: 1230085632
I0403 02:30:38.167105 25318 layer_factory.hpp:77] Creating layer inception_4e/relu_3x3
I0403 02:30:38.167160 25318 net.cpp:91] Creating Layer inception_4e/relu_3x3
I0403 02:30:38.167212 25318 net.cpp:425] inception_4e/relu_3x3 <- inception_4e/3x3
I0403 02:30:38.167256 25318 net.cpp:386] inception_4e/relu_3x3 -> inception_4e/3x3 (in-place)
I0403 02:30:38.167310 25318 net.cpp:141] Setting up inception_4e/relu_3x3
I0403 02:30:38.167361 25318 net.cpp:148] Top shape: 24 320 14 14 (1505280)
I0403 02:30:38.167379 25318 net.cpp:156] Memory required for data: 1236106752
I0403 02:30:38.167426 25318 layer_factory.hpp:77] Creating layer inception_4e/5x5_reduce
I0403 02:30:38.167484 25318 net.cpp:91] Creating Layer inception_4e/5x5_reduce
I0403 02:30:38.167531 25318 net.cpp:425] inception_4e/5x5_reduce <- inception_4d/output_inception_4d/output_0_split_3
I0403 02:30:38.167556 25318 net.cpp:399] inception_4e/5x5_reduce -> inception_4e/5x5_reduce
I0403 02:30:38.167960 25318 net.cpp:141] Setting up inception_4e/5x5_reduce
I0403 02:30:38.167992 25318 net.cpp:148] Top shape: 24 32 14 14 (150528)
I0403 02:30:38.168011 25318 net.cpp:156] Memory required for data: 1236708864
I0403 02:30:38.168035 25318 layer_factory.hpp:77] Creating layer inception_4e/relu_5x5_reduce
I0403 02:30:38.168056 25318 net.cpp:91] Creating Layer inception_4e/relu_5x5_reduce
I0403 02:30:38.168076 25318 net.cpp:425] inception_4e/relu_5x5_reduce <- inception_4e/5x5_reduce
I0403 02:30:38.168100 25318 net.cpp:386] inception_4e/relu_5x5_reduce -> inception_4e/5x5_reduce (in-place)
I0403 02:30:38.168131 25318 net.cpp:141] Setting up inception_4e/relu_5x5_reduce
I0403 02:30:38.168155 25318 net.cpp:148] Top shape: 24 32 14 14 (150528)
I0403 02:30:38.168192 25318 net.cpp:156] Memory required for data: 1237310976
I0403 02:30:38.168211 25318 layer_factory.hpp:77] Creating layer inception_4e/5x5
I0403 02:30:38.168241 25318 net.cpp:91] Creating Layer inception_4e/5x5
I0403 02:30:38.168263 25318 net.cpp:425] inception_4e/5x5 <- inception_4e/5x5_reduce
I0403 02:30:38.168287 25318 net.cpp:399] inception_4e/5x5 -> inception_4e/5x5
I0403 02:30:38.169248 25318 net.cpp:141] Setting up inception_4e/5x5
I0403 02:30:38.169281 25318 net.cpp:148] Top shape: 24 128 14 14 (602112)
I0403 02:30:38.169298 25318 net.cpp:156] Memory required for data: 1239719424
I0403 02:30:38.169320 25318 layer_factory.hpp:77] Creating layer inception_4e/relu_5x5
I0403 02:30:38.169342 25318 net.cpp:91] Creating Layer inception_4e/relu_5x5
I0403 02:30:38.169363 25318 net.cpp:425] inception_4e/relu_5x5 <- inception_4e/5x5
I0403 02:30:38.169387 25318 net.cpp:386] inception_4e/relu_5x5 -> inception_4e/5x5 (in-place)
I0403 02:30:38.169412 25318 net.cpp:141] Setting up inception_4e/relu_5x5
I0403 02:30:38.169435 25318 net.cpp:148] Top shape: 24 128 14 14 (602112)
I0403 02:30:38.169451 25318 net.cpp:156] Memory required for data: 1242127872
I0403 02:30:38.169468 25318 layer_factory.hpp:77] Creating layer inception_4e/pool
I0403 02:30:38.169510 25318 net.cpp:91] Creating Layer inception_4e/pool
I0403 02:30:38.169536 25318 net.cpp:425] inception_4e/pool <- inception_4d/output_inception_4d/output_0_split_4
I0403 02:30:38.169560 25318 net.cpp:399] inception_4e/pool -> inception_4e/pool
I0403 02:30:38.169626 25318 net.cpp:141] Setting up inception_4e/pool
I0403 02:30:38.169656 25318 net.cpp:148] Top shape: 24 528 14 14 (2483712)
I0403 02:30:38.169674 25318 net.cpp:156] Memory required for data: 1252062720
I0403 02:30:38.169693 25318 layer_factory.hpp:77] Creating layer inception_4e/pool_proj
I0403 02:30:38.169723 25318 net.cpp:91] Creating Layer inception_4e/pool_proj
I0403 02:30:38.169745 25318 net.cpp:425] inception_4e/pool_proj <- inception_4e/pool
I0403 02:30:38.169770 25318 net.cpp:399] inception_4e/pool_proj -> inception_4e/pool_proj
I0403 02:30:38.170497 25318 net.cpp:141] Setting up inception_4e/pool_proj
I0403 02:30:38.170528 25318 net.cpp:148] Top shape: 24 128 14 14 (602112)
I0403 02:30:38.170547 25318 net.cpp:156] Memory required for data: 1254471168
I0403 02:30:38.170570 25318 layer_factory.hpp:77] Creating layer inception_4e/relu_pool_proj
I0403 02:30:38.170593 25318 net.cpp:91] Creating Layer inception_4e/relu_pool_proj
I0403 02:30:38.170614 25318 net.cpp:425] inception_4e/relu_pool_proj <- inception_4e/pool_proj
I0403 02:30:38.170635 25318 net.cpp:386] inception_4e/relu_pool_proj -> inception_4e/pool_proj (in-place)
I0403 02:30:38.170658 25318 net.cpp:141] Setting up inception_4e/relu_pool_proj
I0403 02:30:38.170680 25318 net.cpp:148] Top shape: 24 128 14 14 (602112)
I0403 02:30:38.170697 25318 net.cpp:156] Memory required for data: 1256879616
I0403 02:30:38.170714 25318 layer_factory.hpp:77] Creating layer inception_4e/output
I0403 02:30:38.170740 25318 net.cpp:91] Creating Layer inception_4e/output
I0403 02:30:38.170763 25318 net.cpp:425] inception_4e/output <- inception_4e/1x1
I0403 02:30:38.170783 25318 net.cpp:425] inception_4e/output <- inception_4e/3x3
I0403 02:30:38.170802 25318 net.cpp:425] inception_4e/output <- inception_4e/5x5
I0403 02:30:38.170821 25318 net.cpp:425] inception_4e/output <- inception_4e/pool_proj
I0403 02:30:38.170843 25318 net.cpp:399] inception_4e/output -> inception_4e/output
I0403 02:30:38.170893 25318 net.cpp:141] Setting up inception_4e/output
I0403 02:30:38.170922 25318 net.cpp:148] Top shape: 24 832 14 14 (3913728)
I0403 02:30:38.170940 25318 net.cpp:156] Memory required for data: 1272534528
I0403 02:30:38.170958 25318 layer_factory.hpp:77] Creating layer pool4/3x3_s2
I0403 02:30:38.170979 25318 net.cpp:91] Creating Layer pool4/3x3_s2
I0403 02:30:38.171000 25318 net.cpp:425] pool4/3x3_s2 <- inception_4e/output
I0403 02:30:38.171025 25318 net.cpp:399] pool4/3x3_s2 -> pool4/3x3_s2
I0403 02:30:38.171087 25318 net.cpp:141] Setting up pool4/3x3_s2
I0403 02:30:38.171133 25318 net.cpp:148] Top shape: 24 832 7 7 (978432)
I0403 02:30:38.171154 25318 net.cpp:156] Memory required for data: 1276448256
I0403 02:30:38.171171 25318 layer_factory.hpp:77] Creating layer pool4/3x3_s2_pool4/3x3_s2_0_split
I0403 02:30:38.171196 25318 net.cpp:91] Creating Layer pool4/3x3_s2_pool4/3x3_s2_0_split
I0403 02:30:38.171218 25318 net.cpp:425] pool4/3x3_s2_pool4/3x3_s2_0_split <- pool4/3x3_s2
I0403 02:30:38.171241 25318 net.cpp:399] pool4/3x3_s2_pool4/3x3_s2_0_split -> pool4/3x3_s2_pool4/3x3_s2_0_split_0
I0403 02:30:38.171265 25318 net.cpp:399] pool4/3x3_s2_pool4/3x3_s2_0_split -> pool4/3x3_s2_pool4/3x3_s2_0_split_1
I0403 02:30:38.171295 25318 net.cpp:399] pool4/3x3_s2_pool4/3x3_s2_0_split -> pool4/3x3_s2_pool4/3x3_s2_0_split_2
I0403 02:30:38.171322 25318 net.cpp:399] pool4/3x3_s2_pool4/3x3_s2_0_split -> pool4/3x3_s2_pool4/3x3_s2_0_split_3
I0403 02:30:38.171406 25318 net.cpp:141] Setting up pool4/3x3_s2_pool4/3x3_s2_0_split
I0403 02:30:38.171434 25318 net.cpp:148] Top shape: 24 832 7 7 (978432)
I0403 02:30:38.171455 25318 net.cpp:148] Top shape: 24 832 7 7 (978432)
I0403 02:30:38.171474 25318 net.cpp:148] Top shape: 24 832 7 7 (978432)
I0403 02:30:38.171492 25318 net.cpp:148] Top shape: 24 832 7 7 (978432)
I0403 02:30:38.171509 25318 net.cpp:156] Memory required for data: 1292103168
I0403 02:30:38.171527 25318 layer_factory.hpp:77] Creating layer inception_5a/1x1
I0403 02:30:38.171555 25318 net.cpp:91] Creating Layer inception_5a/1x1
I0403 02:30:38.171578 25318 net.cpp:425] inception_5a/1x1 <- pool4/3x3_s2_pool4/3x3_s2_0_split_0
I0403 02:30:38.171608 25318 net.cpp:399] inception_5a/1x1 -> inception_5a/1x1
I0403 02:30:38.173955 25318 net.cpp:141] Setting up inception_5a/1x1
I0403 02:30:38.173991 25318 net.cpp:148] Top shape: 24 256 7 7 (301056)
I0403 02:30:38.174010 25318 net.cpp:156] Memory required for data: 1293307392
I0403 02:30:38.174034 25318 layer_factory.hpp:77] Creating layer inception_5a/relu_1x1
I0403 02:30:38.174060 25318 net.cpp:91] Creating Layer inception_5a/relu_1x1
I0403 02:30:38.174083 25318 net.cpp:425] inception_5a/relu_1x1 <- inception_5a/1x1
I0403 02:30:38.174105 25318 net.cpp:386] inception_5a/relu_1x1 -> inception_5a/1x1 (in-place)
I0403 02:30:38.174136 25318 net.cpp:141] Setting up inception_5a/relu_1x1
I0403 02:30:38.174180 25318 net.cpp:148] Top shape: 24 256 7 7 (301056)
I0403 02:30:38.174221 25318 net.cpp:156] Memory required for data: 1294511616
I0403 02:30:38.174259 25318 layer_factory.hpp:77] Creating layer inception_5a/3x3_reduce
I0403 02:30:38.174298 25318 net.cpp:91] Creating Layer inception_5a/3x3_reduce
I0403 02:30:38.174346 25318 net.cpp:425] inception_5a/3x3_reduce <- pool4/3x3_s2_pool4/3x3_s2_0_split_1
I0403 02:30:38.174404 25318 net.cpp:399] inception_5a/3x3_reduce -> inception_5a/3x3_reduce
I0403 02:30:38.176254 25318 net.cpp:141] Setting up inception_5a/3x3_reduce
I0403 02:30:38.176291 25318 net.cpp:148] Top shape: 24 160 7 7 (188160)
I0403 02:30:38.176311 25318 net.cpp:156] Memory required for data: 1295264256
I0403 02:30:38.176333 25318 layer_factory.hpp:77] Creating layer inception_5a/relu_3x3_reduce
I0403 02:30:38.176357 25318 net.cpp:91] Creating Layer inception_5a/relu_3x3_reduce
I0403 02:30:38.176378 25318 net.cpp:425] inception_5a/relu_3x3_reduce <- inception_5a/3x3_reduce
I0403 02:30:38.176404 25318 net.cpp:386] inception_5a/relu_3x3_reduce -> inception_5a/3x3_reduce (in-place)
I0403 02:30:38.176430 25318 net.cpp:141] Setting up inception_5a/relu_3x3_reduce
I0403 02:30:38.176453 25318 net.cpp:148] Top shape: 24 160 7 7 (188160)
I0403 02:30:38.176472 25318 net.cpp:156] Memory required for data: 1296016896
I0403 02:30:38.176489 25318 layer_factory.hpp:77] Creating layer inception_5a/3x3
I0403 02:30:38.176519 25318 net.cpp:91] Creating Layer inception_5a/3x3
I0403 02:30:38.176542 25318 net.cpp:425] inception_5a/3x3 <- inception_5a/3x3_reduce
I0403 02:30:38.176568 25318 net.cpp:399] inception_5a/3x3 -> inception_5a/3x3
I0403 02:30:38.181310 25318 net.cpp:141] Setting up inception_5a/3x3
I0403 02:30:38.181393 25318 net.cpp:148] Top shape: 24 320 7 7 (376320)
I0403 02:30:38.181435 25318 net.cpp:156] Memory required for data: 1297522176
I0403 02:30:38.181473 25318 layer_factory.hpp:77] Creating layer inception_5a/relu_3x3
I0403 02:30:38.181511 25318 net.cpp:91] Creating Layer inception_5a/relu_3x3
I0403 02:30:38.181560 25318 net.cpp:425] inception_5a/relu_3x3 <- inception_5a/3x3
I0403 02:30:38.181608 25318 net.cpp:386] inception_5a/relu_3x3 -> inception_5a/3x3 (in-place)
I0403 02:30:38.181658 25318 net.cpp:141] Setting up inception_5a/relu_3x3
I0403 02:30:38.181704 25318 net.cpp:148] Top shape: 24 320 7 7 (376320)
I0403 02:30:38.181740 25318 net.cpp:156] Memory required for data: 1299027456
I0403 02:30:38.181773 25318 layer_factory.hpp:77] Creating layer inception_5a/5x5_reduce
I0403 02:30:38.181823 25318 net.cpp:91] Creating Layer inception_5a/5x5_reduce
I0403 02:30:38.181864 25318 net.cpp:425] inception_5a/5x5_reduce <- pool4/3x3_s2_pool4/3x3_s2_0_split_2
I0403 02:30:38.181921 25318 net.cpp:399] inception_5a/5x5_reduce -> inception_5a/5x5_reduce
I0403 02:30:38.182410 25318 net.cpp:141] Setting up inception_5a/5x5_reduce
I0403 02:30:38.182452 25318 net.cpp:148] Top shape: 24 32 7 7 (37632)
I0403 02:30:38.182494 25318 net.cpp:156] Memory required for data: 1299177984
I0403 02:30:38.182540 25318 layer_factory.hpp:77] Creating layer inception_5a/relu_5x5_reduce
I0403 02:30:38.182584 25318 net.cpp:91] Creating Layer inception_5a/relu_5x5_reduce
I0403 02:30:38.182611 25318 net.cpp:425] inception_5a/relu_5x5_reduce <- inception_5a/5x5_reduce
I0403 02:30:38.182649 25318 net.cpp:386] inception_5a/relu_5x5_reduce -> inception_5a/5x5_reduce (in-place)
I0403 02:30:38.182698 25318 net.cpp:141] Setting up inception_5a/relu_5x5_reduce
I0403 02:30:38.182729 25318 net.cpp:148] Top shape: 24 32 7 7 (37632)
I0403 02:30:38.182765 25318 net.cpp:156] Memory required for data: 1299328512
I0403 02:30:38.182804 25318 layer_factory.hpp:77] Creating layer inception_5a/5x5
I0403 02:30:38.182857 25318 net.cpp:91] Creating Layer inception_5a/5x5
I0403 02:30:38.182895 25318 net.cpp:425] inception_5a/5x5 <- inception_5a/5x5_reduce
I0403 02:30:38.182947 25318 net.cpp:399] inception_5a/5x5 -> inception_5a/5x5
I0403 02:30:38.183933 25318 net.cpp:141] Setting up inception_5a/5x5
I0403 02:30:38.183981 25318 net.cpp:148] Top shape: 24 128 7 7 (150528)
I0403 02:30:38.184006 25318 net.cpp:156] Memory required for data: 1299930624
I0403 02:30:38.184032 25318 layer_factory.hpp:77] Creating layer inception_5a/relu_5x5
I0403 02:30:38.184077 25318 net.cpp:91] Creating Layer inception_5a/relu_5x5
I0403 02:30:38.184123 25318 net.cpp:425] inception_5a/relu_5x5 <- inception_5a/5x5
I0403 02:30:38.184157 25318 net.cpp:386] inception_5a/relu_5x5 -> inception_5a/5x5 (in-place)
I0403 02:30:38.184193 25318 net.cpp:141] Setting up inception_5a/relu_5x5
I0403 02:30:38.184245 25318 net.cpp:148] Top shape: 24 128 7 7 (150528)
I0403 02:30:38.184288 25318 net.cpp:156] Memory required for data: 1300532736
I0403 02:30:38.184331 25318 layer_factory.hpp:77] Creating layer inception_5a/pool
I0403 02:30:38.184384 25318 net.cpp:91] Creating Layer inception_5a/pool
I0403 02:30:38.184428 25318 net.cpp:425] inception_5a/pool <- pool4/3x3_s2_pool4/3x3_s2_0_split_3
I0403 02:30:38.184473 25318 net.cpp:399] inception_5a/pool -> inception_5a/pool
I0403 02:30:38.184546 25318 net.cpp:141] Setting up inception_5a/pool
I0403 02:30:38.184592 25318 net.cpp:148] Top shape: 24 832 7 7 (978432)
I0403 02:30:38.184620 25318 net.cpp:156] Memory required for data: 1304446464
I0403 02:30:38.184653 25318 layer_factory.hpp:77] Creating layer inception_5a/pool_proj
I0403 02:30:38.184705 25318 net.cpp:91] Creating Layer inception_5a/pool_proj
I0403 02:30:38.184736 25318 net.cpp:425] inception_5a/pool_proj <- inception_5a/pool
I0403 02:30:38.184784 25318 net.cpp:399] inception_5a/pool_proj -> inception_5a/pool_proj
I0403 02:30:38.186434 25318 net.cpp:141] Setting up inception_5a/pool_proj
I0403 02:30:38.186471 25318 net.cpp:148] Top shape: 24 128 7 7 (150528)
I0403 02:30:38.186491 25318 net.cpp:156] Memory required for data: 1305048576
I0403 02:30:38.186533 25318 layer_factory.hpp:77] Creating layer inception_5a/relu_pool_proj
I0403 02:30:38.186558 25318 net.cpp:91] Creating Layer inception_5a/relu_pool_proj
I0403 02:30:38.186578 25318 net.cpp:425] inception_5a/relu_pool_proj <- inception_5a/pool_proj
I0403 02:30:38.186604 25318 net.cpp:386] inception_5a/relu_pool_proj -> inception_5a/pool_proj (in-place)
I0403 02:30:38.186630 25318 net.cpp:141] Setting up inception_5a/relu_pool_proj
I0403 02:30:38.186651 25318 net.cpp:148] Top shape: 24 128 7 7 (150528)
I0403 02:30:38.186671 25318 net.cpp:156] Memory required for data: 1305650688
I0403 02:30:38.186687 25318 layer_factory.hpp:77] Creating layer inception_5a/output
I0403 02:30:38.186709 25318 net.cpp:91] Creating Layer inception_5a/output
I0403 02:30:38.186729 25318 net.cpp:425] inception_5a/output <- inception_5a/1x1
I0403 02:30:38.186749 25318 net.cpp:425] inception_5a/output <- inception_5a/3x3
I0403 02:30:38.186769 25318 net.cpp:425] inception_5a/output <- inception_5a/5x5
I0403 02:30:38.186787 25318 net.cpp:425] inception_5a/output <- inception_5a/pool_proj
I0403 02:30:38.186812 25318 net.cpp:399] inception_5a/output -> inception_5a/output
I0403 02:30:38.186861 25318 net.cpp:141] Setting up inception_5a/output
I0403 02:30:38.186888 25318 net.cpp:148] Top shape: 24 832 7 7 (978432)
I0403 02:30:38.186908 25318 net.cpp:156] Memory required for data: 1309564416
I0403 02:30:38.186924 25318 layer_factory.hpp:77] Creating layer inception_5a/output_inception_5a/output_0_split
I0403 02:30:38.186946 25318 net.cpp:91] Creating Layer inception_5a/output_inception_5a/output_0_split
I0403 02:30:38.186965 25318 net.cpp:425] inception_5a/output_inception_5a/output_0_split <- inception_5a/output
I0403 02:30:38.186990 25318 net.cpp:399] inception_5a/output_inception_5a/output_0_split -> inception_5a/output_inception_5a/output_0_split_0
I0403 02:30:38.187017 25318 net.cpp:399] inception_5a/output_inception_5a/output_0_split -> inception_5a/output_inception_5a/output_0_split_1
I0403 02:30:38.187043 25318 net.cpp:399] inception_5a/output_inception_5a/output_0_split -> inception_5a/output_inception_5a/output_0_split_2
I0403 02:30:38.187069 25318 net.cpp:399] inception_5a/output_inception_5a/output_0_split -> inception_5a/output_inception_5a/output_0_split_3
I0403 02:30:38.187173 25318 net.cpp:141] Setting up inception_5a/output_inception_5a/output_0_split
I0403 02:30:38.187204 25318 net.cpp:148] Top shape: 24 832 7 7 (978432)
I0403 02:30:38.187225 25318 net.cpp:148] Top shape: 24 832 7 7 (978432)
I0403 02:30:38.187244 25318 net.cpp:148] Top shape: 24 832 7 7 (978432)
I0403 02:30:38.187263 25318 net.cpp:148] Top shape: 24 832 7 7 (978432)
I0403 02:30:38.187279 25318 net.cpp:156] Memory required for data: 1325219328
I0403 02:30:38.187296 25318 layer_factory.hpp:77] Creating layer inception_5b/1x1
I0403 02:30:38.187325 25318 net.cpp:91] Creating Layer inception_5b/1x1
I0403 02:30:38.187348 25318 net.cpp:425] inception_5b/1x1 <- inception_5a/output_inception_5a/output_0_split_0
I0403 02:30:38.187372 25318 net.cpp:399] inception_5b/1x1 -> inception_5b/1x1
I0403 02:30:38.190541 25318 net.cpp:141] Setting up inception_5b/1x1
I0403 02:30:38.190577 25318 net.cpp:148] Top shape: 24 384 7 7 (451584)
I0403 02:30:38.190596 25318 net.cpp:156] Memory required for data: 1327025664
I0403 02:30:38.190619 25318 layer_factory.hpp:77] Creating layer inception_5b/relu_1x1
I0403 02:30:38.190644 25318 net.cpp:91] Creating Layer inception_5b/relu_1x1
I0403 02:30:38.190662 25318 net.cpp:425] inception_5b/relu_1x1 <- inception_5b/1x1
I0403 02:30:38.190686 25318 net.cpp:386] inception_5b/relu_1x1 -> inception_5b/1x1 (in-place)
I0403 02:30:38.190711 25318 net.cpp:141] Setting up inception_5b/relu_1x1
I0403 02:30:38.190733 25318 net.cpp:148] Top shape: 24 384 7 7 (451584)
I0403 02:30:38.190750 25318 net.cpp:156] Memory required for data: 1328832000
I0403 02:30:38.190768 25318 layer_factory.hpp:77] Creating layer inception_5b/3x3_reduce
I0403 02:30:38.190798 25318 net.cpp:91] Creating Layer inception_5b/3x3_reduce
I0403 02:30:38.190835 25318 net.cpp:425] inception_5b/3x3_reduce <- inception_5a/output_inception_5a/output_0_split_1
I0403 02:30:38.190861 25318 net.cpp:399] inception_5b/3x3_reduce -> inception_5b/3x3_reduce
I0403 02:30:38.192868 25318 net.cpp:141] Setting up inception_5b/3x3_reduce
I0403 02:30:38.192905 25318 net.cpp:148] Top shape: 24 192 7 7 (225792)
I0403 02:30:38.192924 25318 net.cpp:156] Memory required for data: 1329735168
I0403 02:30:38.192947 25318 layer_factory.hpp:77] Creating layer inception_5b/relu_3x3_reduce
I0403 02:30:38.192970 25318 net.cpp:91] Creating Layer inception_5b/relu_3x3_reduce
I0403 02:30:38.192991 25318 net.cpp:425] inception_5b/relu_3x3_reduce <- inception_5b/3x3_reduce
I0403 02:30:38.193017 25318 net.cpp:386] inception_5b/relu_3x3_reduce -> inception_5b/3x3_reduce (in-place)
I0403 02:30:38.193042 25318 net.cpp:141] Setting up inception_5b/relu_3x3_reduce
I0403 02:30:38.193064 25318 net.cpp:148] Top shape: 24 192 7 7 (225792)
I0403 02:30:38.193083 25318 net.cpp:156] Memory required for data: 1330638336
I0403 02:30:38.193099 25318 layer_factory.hpp:77] Creating layer inception_5b/3x3
I0403 02:30:38.193133 25318 net.cpp:91] Creating Layer inception_5b/3x3
I0403 02:30:38.193164 25318 net.cpp:425] inception_5b/3x3 <- inception_5b/3x3_reduce
I0403 02:30:38.193200 25318 net.cpp:399] inception_5b/3x3 -> inception_5b/3x3
I0403 02:30:38.199851 25318 net.cpp:141] Setting up inception_5b/3x3
I0403 02:30:38.199887 25318 net.cpp:148] Top shape: 24 384 7 7 (451584)
I0403 02:30:38.199906 25318 net.cpp:156] Memory required for data: 1332444672
I0403 02:30:38.199929 25318 layer_factory.hpp:77] Creating layer inception_5b/relu_3x3
I0403 02:30:38.199952 25318 net.cpp:91] Creating Layer inception_5b/relu_3x3
I0403 02:30:38.199981 25318 net.cpp:425] inception_5b/relu_3x3 <- inception_5b/3x3
I0403 02:30:38.200011 25318 net.cpp:386] inception_5b/relu_3x3 -> inception_5b/3x3 (in-place)
I0403 02:30:38.200047 25318 net.cpp:141] Setting up inception_5b/relu_3x3
I0403 02:30:38.200069 25318 net.cpp:148] Top shape: 24 384 7 7 (451584)
I0403 02:30:38.200088 25318 net.cpp:156] Memory required for data: 1334251008
I0403 02:30:38.200104 25318 layer_factory.hpp:77] Creating layer inception_5b/5x5_reduce
I0403 02:30:38.200139 25318 net.cpp:91] Creating Layer inception_5b/5x5_reduce
I0403 02:30:38.200161 25318 net.cpp:425] inception_5b/5x5_reduce <- inception_5a/output_inception_5a/output_0_split_2
I0403 02:30:38.200188 25318 net.cpp:399] inception_5b/5x5_reduce -> inception_5b/5x5_reduce
I0403 02:30:38.200757 25318 net.cpp:141] Setting up inception_5b/5x5_reduce
I0403 02:30:38.200789 25318 net.cpp:148] Top shape: 24 48 7 7 (56448)
I0403 02:30:38.200824 25318 net.cpp:156] Memory required for data: 1334476800
I0403 02:30:38.200860 25318 layer_factory.hpp:77] Creating layer inception_5b/relu_5x5_reduce
I0403 02:30:38.200889 25318 net.cpp:91] Creating Layer inception_5b/relu_5x5_reduce
I0403 02:30:38.200916 25318 net.cpp:425] inception_5b/relu_5x5_reduce <- inception_5b/5x5_reduce
I0403 02:30:38.200945 25318 net.cpp:386] inception_5b/relu_5x5_reduce -> inception_5b/5x5_reduce (in-place)
I0403 02:30:38.200983 25318 net.cpp:141] Setting up inception_5b/relu_5x5_reduce
I0403 02:30:38.201025 25318 net.cpp:148] Top shape: 24 48 7 7 (56448)
I0403 02:30:38.201057 25318 net.cpp:156] Memory required for data: 1334702592
I0403 02:30:38.201084 25318 layer_factory.hpp:77] Creating layer inception_5b/5x5
I0403 02:30:38.201131 25318 net.cpp:91] Creating Layer inception_5b/5x5
I0403 02:30:38.201159 25318 net.cpp:425] inception_5b/5x5 <- inception_5b/5x5_reduce
I0403 02:30:38.201206 25318 net.cpp:399] inception_5b/5x5 -> inception_5b/5x5
I0403 02:30:38.202561 25318 net.cpp:141] Setting up inception_5b/5x5
I0403 02:30:38.202600 25318 net.cpp:148] Top shape: 24 128 7 7 (150528)
I0403 02:30:38.202620 25318 net.cpp:156] Memory required for data: 1335304704
I0403 02:30:38.202641 25318 layer_factory.hpp:77] Creating layer inception_5b/relu_5x5
I0403 02:30:38.202664 25318 net.cpp:91] Creating Layer inception_5b/relu_5x5
I0403 02:30:38.202684 25318 net.cpp:425] inception_5b/relu_5x5 <- inception_5b/5x5
I0403 02:30:38.202725 25318 net.cpp:386] inception_5b/relu_5x5 -> inception_5b/5x5 (in-place)
I0403 02:30:38.202754 25318 net.cpp:141] Setting up inception_5b/relu_5x5
I0403 02:30:38.202780 25318 net.cpp:148] Top shape: 24 128 7 7 (150528)
I0403 02:30:38.202801 25318 net.cpp:156] Memory required for data: 1335906816
I0403 02:30:38.202821 25318 layer_factory.hpp:77] Creating layer inception_5b/pool
I0403 02:30:38.202846 25318 net.cpp:91] Creating Layer inception_5b/pool
I0403 02:30:38.202865 25318 net.cpp:425] inception_5b/pool <- inception_5a/output_inception_5a/output_0_split_3
I0403 02:30:38.202891 25318 net.cpp:399] inception_5b/pool -> inception_5b/pool
I0403 02:30:38.202957 25318 net.cpp:141] Setting up inception_5b/pool
I0403 02:30:38.202986 25318 net.cpp:148] Top shape: 24 832 7 7 (978432)
I0403 02:30:38.203006 25318 net.cpp:156] Memory required for data: 1339820544
I0403 02:30:38.203024 25318 layer_factory.hpp:77] Creating layer inception_5b/pool_proj
I0403 02:30:38.203052 25318 net.cpp:91] Creating Layer inception_5b/pool_proj
I0403 02:30:38.203078 25318 net.cpp:425] inception_5b/pool_proj <- inception_5b/pool
I0403 02:30:38.203101 25318 net.cpp:399] inception_5b/pool_proj -> inception_5b/pool_proj
I0403 02:30:38.204743 25318 net.cpp:141] Setting up inception_5b/pool_proj
I0403 02:30:38.204779 25318 net.cpp:148] Top shape: 24 128 7 7 (150528)
I0403 02:30:38.204798 25318 net.cpp:156] Memory required for data: 1340422656
I0403 02:30:38.204820 25318 layer_factory.hpp:77] Creating layer inception_5b/relu_pool_proj
I0403 02:30:38.204844 25318 net.cpp:91] Creating Layer inception_5b/relu_pool_proj
I0403 02:30:38.204865 25318 net.cpp:425] inception_5b/relu_pool_proj <- inception_5b/pool_proj
I0403 02:30:38.204890 25318 net.cpp:386] inception_5b/relu_pool_proj -> inception_5b/pool_proj (in-place)
I0403 02:30:38.204916 25318 net.cpp:141] Setting up inception_5b/relu_pool_proj
I0403 02:30:38.204936 25318 net.cpp:148] Top shape: 24 128 7 7 (150528)
I0403 02:30:38.204955 25318 net.cpp:156] Memory required for data: 1341024768
I0403 02:30:38.204973 25318 layer_factory.hpp:77] Creating layer inception_5b/output
I0403 02:30:38.204998 25318 net.cpp:91] Creating Layer inception_5b/output
I0403 02:30:38.205021 25318 net.cpp:425] inception_5b/output <- inception_5b/1x1
I0403 02:30:38.205041 25318 net.cpp:425] inception_5b/output <- inception_5b/3x3
I0403 02:30:38.205061 25318 net.cpp:425] inception_5b/output <- inception_5b/5x5
I0403 02:30:38.205081 25318 net.cpp:425] inception_5b/output <- inception_5b/pool_proj
I0403 02:30:38.205104 25318 net.cpp:399] inception_5b/output -> inception_5b/output
I0403 02:30:38.205169 25318 net.cpp:141] Setting up inception_5b/output
I0403 02:30:38.205199 25318 net.cpp:148] Top shape: 24 1024 7 7 (1204224)
I0403 02:30:38.205217 25318 net.cpp:156] Memory required for data: 1345841664
I0403 02:30:38.205236 25318 layer_factory.hpp:77] Creating layer pool5/7x7_s1
I0403 02:30:38.205258 25318 net.cpp:91] Creating Layer pool5/7x7_s1
I0403 02:30:38.205279 25318 net.cpp:425] pool5/7x7_s1 <- inception_5b/output
I0403 02:30:38.205302 25318 net.cpp:399] pool5/7x7_s1 -> pool5/7x7_s1
I0403 02:30:38.205353 25318 net.cpp:141] Setting up pool5/7x7_s1
I0403 02:30:38.205384 25318 net.cpp:148] Top shape: 24 1024 1 1 (24576)
I0403 02:30:38.205402 25318 net.cpp:156] Memory required for data: 1345939968
I0403 02:30:38.205420 25318 layer_factory.hpp:77] Creating layer pool5/drop_7x7_s1
I0403 02:30:38.205442 25318 net.cpp:91] Creating Layer pool5/drop_7x7_s1
I0403 02:30:38.205463 25318 net.cpp:425] pool5/drop_7x7_s1 <- pool5/7x7_s1
I0403 02:30:38.205484 25318 net.cpp:386] pool5/drop_7x7_s1 -> pool5/7x7_s1 (in-place)
I0403 02:30:38.205533 25318 net.cpp:141] Setting up pool5/drop_7x7_s1
I0403 02:30:38.205559 25318 net.cpp:148] Top shape: 24 1024 1 1 (24576)
I0403 02:30:38.205577 25318 net.cpp:156] Memory required for data: 1346038272
I0403 02:30:38.205595 25318 layer_factory.hpp:77] Creating layer loss3/classifier_plantvillage
I0403 02:30:38.205622 25318 net.cpp:91] Creating Layer loss3/classifier_plantvillage
I0403 02:30:38.205660 25318 net.cpp:425] loss3/classifier_plantvillage <- pool5/7x7_s1
I0403 02:30:38.205688 25318 net.cpp:399] loss3/classifier_plantvillage -> loss3/classifier_plantvillage
I0403 02:30:38.206115 25318 net.cpp:141] Setting up loss3/classifier_plantvillage
I0403 02:30:38.206147 25318 net.cpp:148] Top shape: 24 38 (912)
I0403 02:30:38.206166 25318 net.cpp:156] Memory required for data: 1346041920
I0403 02:30:38.206187 25318 layer_factory.hpp:77] Creating layer loss1/loss
I0403 02:30:38.206218 25318 net.cpp:91] Creating Layer loss1/loss
I0403 02:30:38.206244 25318 net.cpp:425] loss1/loss <- loss1/classifier_plantvillage
I0403 02:30:38.206265 25318 net.cpp:425] loss1/loss <- label_data_1_split_0
I0403 02:30:38.206289 25318 net.cpp:399] loss1/loss -> loss1/loss
…
I0403 02:30:38.218714 25318 net.cpp:313] The NetState phase (1) differed from the phase (0) specified by a rule in layer data
I0403 02:30:38.223517 25318 net.cpp:49] Initializing net from parameters: 
state {
  phase: TEST
}
layer {
  name: "data"
  type: "Data"
  top: "data"
  top: "label"
  include {
    phase: TEST
  }
  transform_param {
    mirror: false
    crop_size: 224
    mean_file: "/home/mohanty/data/final_dataset/lmdb/segmented-20-80/mean.binaryproto"
  }
  data_param {
    source: "/home/mohanty/data/final_dataset/lmdb/segmented-20-80/test_db"
    batch_size: 24
    backend: LMDB
  }
}
layer {
  name: "conv1/7x7_s2"
  type: "Convolution"
  bottom: "data"
  top: "conv1/7x7_s2"
  param {
    lr_mult: 1
    decay_mult: 1
  }
  param {
    lr_mult: 2
    decay_mult: 0
  }
  convolution_param {
    num_output: 64
    pad: 3
    kernel_size: 7
    stride: 2
    weight_filler {
      type: "xavier"
      std: 0.1
    }
    bias_filler {
      type: "constant"
      value: 0.2
    }
  }
}
layer {
  name: "conv1/relu_7x7"
  type: "ReLU"
  bottom: "conv1/7x7_s2"
  top: "conv1/7x7_s2"
}
layer {
  name: "pool1/3x3_s2"
  type: "Pooling"
  bottom: "conv1/7x7_s2"
  top: "pool1/3x3_s2"
  pooling_param {
    pool: MAX
    kernel_size: 3
    stride: 2
  }
}
layer {
  name: "pool1/norm1"
  type: "LRN"
  bottom: "pool1/3x3_s2"
  top: "pool1/norm1"
  lrn_param {
    local_size: 5
    alpha: 0.0001
    beta: 0.75
  }
}
layer {
  name: "conv2/3x3_reduce"
  type: "Convolution"
  bottom: "pool1/norm1"
  top: "conv2/3x3_reduce"
  param {
    lr_mult: 1
    decay_mult: 1
  }
  param {
    lr_mult: 2
    decay_mult: 0
  }
  convolution_param {
    num_output: 64
    kernel_size: 1
    weight_filler {
      type: "xavier"
      std: 0.1
    }
    bias_filler {
      type: "constant"
      value: 0.2
    }
  }
}
layer {
  name: "conv2/relu_3x3_reduce"
  type: "ReLU"
  bottom: "conv2/3x3_reduce"
  top: "conv2/3x3_reduce"
}
layer {
  name: "conv2/3x3"
  type: "Convolution"
  bottom: "conv2/3x3_reduce"
  top: "conv2/3x3"
  param {
    lr_mult: 1
    decay_mult: 1
  }
  param {
    lr_mult: 2
    decay_mult: 0
  }
  convolution_param {
    num_output: 192
    pad: 1
    kernel_size: 3
    weight_filler {
      type: "xavier"
      std: 0.03
    }
    bias_filler {
      type: "constant"
      value: 0.2
    }
  }
}
layer {
  name: "conv2/relu_3x3"
  type: "ReLU"
  bottom: "conv2/3x3"
  top: "conv2/3x3"
}
layer {
  name: "conv2/norm2"
  type: "LRN"
  bottom: "conv2/3x3"
  top: "conv2/norm2"
  lrn_param {
    local_size: 5
    alpha: 0.0001
    beta: 0.75
  }
}
layer {
  name: "pool2/3x3_s2"
  type: "Pooling"
  bottom: "conv2/norm2"
  top: "pool2/3x3_s2"
  pooling_param {
    pool: MAX
    kernel_size: 3
    stride: 2
  }
}
layer {
  name: "inception_3a/1x1"
  type: "Convolution"
  bottom: "pool2/3x3_s2"
  top: "inception_3a/1x1"
  param {
    lr_mult: 1
    decay_mult: 1
  }
  param {
    lr_mult: 2
    decay_mult: 0
  }
  convolution_param {
    num_output: 64
    kernel_size: 1
    weight_filler {
      type: "xavier"
      std: 0.03
    }
    bias_filler {
      type: "constant"
      value: 0.2
    }
  }
}
layer {
  name: "inception_3a/relu_1x1"
  type: "ReLU"
  bottom: "inception_3a/1x1"
  top: "inception_3a/1x1"
}
layer {
  name: "inception_3a/3x3_reduce"
  type: "Convolution"
  bottom: "pool2/3x3_s2"
  top: "inception_3a/3x3_reduce"
  param {
    lr_mult: 1
    decay_mult: 1
  }
  param {
    lr_mult: 2
    decay_mult: 0
  }
  convolution_param {
    num_output: 96
    kernel_size: 1
    weight_filler {
      type: "xavier"
      std: 0.09
    }
    bias_filler {
      type: "constant"
      value: 0.2
    }
  }
}
layer {
  name: "inception_3a/relu_3x3_reduce"
  type: "ReLU"
  bottom: "inception_3a/3x3_reduce"
  top: "inception_3a/3x3_reduce"
}
layer {
  name: "inception_3a/3x3"
  type: "Convolution"
  bottom: "inception_3a/3x3_reduce"
  top: "inception_3a/3x3"
  param {
    lr_mult: 1
    decay_mult: 1
  }
  param {
    lr_mult: 2
    decay_mult: 0
  }
  convolution_param {
    num_output: 128
    pad: 1
    kernel_size: 3
    weight_filler {
      type: "xavier"
      std: 0.03
    }
    bias_filler {
      type: "constant"
      value: 0.2
    }
  }
}
layer {
  name: "inception_3a/relu_3x3"
  type: "ReLU"
  bottom: "inception_3a/3x3"
  top: "inception_3a/3x3"
}
layer {
  name: "inception_3a/5x5_reduce"
  type: "Convolution"
  bottom: "pool2/3x3_s2"
  top: "inception_3a/5x5_reduce"
  param {
    lr_mult: 1
    decay_mult: 1
  }
  param {
    lr_mult: 2
    decay_mult: 0
  }
  convolution_param {
    num_output: 16
    kernel_size: 1
    weight_filler {
      type: "xavier"
      std: 0.2
    }
    bias_filler {
      type: "constant"
      value: 0.2
    }
  }
}
layer {
  name: "inception_3a/relu_5x5_reduce"
  type: "ReLU"
  bottom: "inception_3a/5x5_reduce"
  top: "inception_3a/5x5_reduce"
}
layer {
  name: "inception_3a/5x5"
  type: "Convolution"
  bottom: "inception_3a/5x5_reduce"
  top: "inception_3a/5x5"
  param {
    lr_mult: 1
    decay_mult: 1
  }
  param {
    lr_mult: 2
    decay_mult: 0
  }
  convolution_param {
    num_output: 32
    pad: 2
    kernel_size: 5
    weight_filler {
      type: "xavier"
      std: 0.03
    }
    bias_filler {
      type: "constant"
      value: 0.2
    }
  }
}
layer {
  name: "inception_3a/relu_5x5"
  type: "ReLU"
  bottom: "inception_3a/5x5"
  top: "inception_3a/5x5"
}
layer {
  name: "inception_3a/pool"
  type: "Pooling"
  bottom: "pool2/3x3_s2"
  top: "inception_3a/pool"
  pooling_param {
    pool: MAX
    kernel_size: 3
    stride: 1
    pad: 1
  }
}
layer {
  name: "inception_3a/pool_proj"
  type: "Convolution"
  bottom: "inception_3a/pool"
  top: "inception_3a/pool_proj"
  param {
    lr_mult: 1
    decay_mult: 1
  }
  param {
    lr_mult: 2
    decay_mult: 0
  }
  convolution_param {
    num_output: 32
    kernel_size: 1
    weight_filler {
      type: "xavier"
      std: 0.1
    }
    bias_filler {
      type: "constant"
      value: 0.2
    }
  }
}
layer {
  name: "inception_3a/relu_pool_proj"
  type: "ReLU"
  bottom: "inception_3a/pool_proj"
  top: "inception_3a/pool_proj"
}
layer {
  name: "inception_3a/output"
  type: "Concat"
  bottom: "inception_3a/1x1"
  bottom: "inception_3a/3x3"
  bottom: "inception_3a/5x5"
  bottom: "inception_3a/pool_proj"
  top: "inception_3a/output"
}
layer {
  name: "inception_3b/1x1"
  type: "Convolution"
  bottom: "inception_3a/output"
  top: "inception_3b/1x1"
  param {
    lr_mult: 1
    decay_mult: 1
  }
  param {
    lr_mult: 2
    decay_mult: 0
  }
  convolution_param {
    num_output: 128
    kernel_size: 1
    weight_filler {
      type: "xavier"
      std: 0.03
    }
    bias_filler {
      type: "constant"
      value: 0.2
    }
  }
}
layer {
  name: "inception_3b/relu_1x1"
  type: "ReLU"
  bottom: "inception_3b/1x1"
  top: "inception_3b/1x1"
}
layer {
  name: "inception_3b/3x3_reduce"
  type: "Convolution"
  bottom: "inception_3a/output"
  top: "inception_3b/3x3_reduce"
  param {
    lr_mult: 1
    decay_mult: 1
  }
  param {
    lr_mult: 2
    decay_mult: 0
  }
  convolution_param {
    num_output: 128
    kernel_size: 1
    weight_filler {
      type: "xavier"
      std: 0.09
    }
    bias_filler {
      type: "constant"
      value: 0.2
    }
  }
}
layer {
  name: "inception_3b/relu_3x3_reduce"
  type: "ReLU"
  bottom: "inception_3b/3x3_reduce"
  top: "inception_3b/3x3_reduce"
}
layer {
  name: "inception_3b/3x3"
  type: "Convolution"
  bottom: "inception_3b/3x3_reduce"
  top: "inception_3b/3x3"
  param {
    lr_mult: 1
    decay_mult: 1
  }
  param {
    lr_mult: 2
    decay_mult: 0
  }
  convolution_param {
    num_output: 192
    pad: 1
    kernel_size: 3
    weight_filler {
      type: "xavier"
      std: 0.03
    }
    bias_filler {
      type: "constant"
      value: 0.2
    }
  }
}
layer {
  name: "inception_3b/relu_3x3"
  type: "ReLU"
  bottom: "inception_3b/3x3"
  top: "inception_3b/3x3"
}
layer {
  name: "inception_3b/5x5_reduce"
  type: "Convolution"
  bottom: "inception_3a/output"
  top: "inception_3b/5x5_reduce"
  param {
    lr_mult: 1
    decay_mult: 1
  }
  param {
    lr_mult: 2
    decay_mult: 0
  }
  convolution_param {
    num_output: 32
    kernel_size: 1
    weight_filler {
      type: "xavier"
      std: 0.2
    }
    bias_filler {
      type: "constant"
      value: 0.2
    }
  }
}
layer {
  name: "inception_3b/relu_5x5_reduce"
  type: "ReLU"
  bottom: "inception_3b/5x5_reduce"
  top: "inception_3b/5x5_reduce"
}
layer {
  name: "inception_3b/5x5"
  type: "Convolution"
  bottom: "inception_3b/5x5_reduce"
  top: "inception_3b/5x5"
  param {
    lr_mult: 1
    decay_mult: 1
  }
  param {
    lr_mult: 2
    decay_mult: 0
  }
  convolution_param {
    num_output: 96
    pad: 2
    kernel_size: 5
    weight_filler {
      type: "xavier"
      std: 0.03
    }
    bias_filler {
      type: "constant"
      value: 0.2
    }
  }
}
layer {
  name: "inception_3b/relu_5x5"
  type: "ReLU"
  bottom: "inception_3b/5x5"
  top: "inception_3b/5x5"
}
layer {
  name: "inception_3b/pool"
  type: "Pooling"
  bottom: "inception_3a/output"
  top: "inception_3b/pool"
  pooling_param {
    pool: MAX
    kernel_size: 3
    stride: 1
    pad: 1
  }
}
layer {
  name: "inception_3b/pool_proj"
  type: "Convolution"
  bottom: "inception_3b/pool"
  top: "inception_3b/pool_proj"
  param {
    lr_mult: 1
    decay_mult: 1
  }
  param {
    lr_mult: 2
    decay_mult: 0
  }
  convolution_param {
    num_output: 64
    kernel_size: 1
    weight_filler {
      type: "xavier"
      std: 0.1
    }
    bias_filler {
      type: "constant"
      value: 0.2
    }
  }
}
layer {
  name: "inception_3b/relu_pool_proj"
  type: "ReLU"
  bottom: "inception_3b/pool_proj"
  top: "inception_3b/pool_proj"
}
layer {
  name: "inception_3b/output"
  type: "Concat"
  bottom: "inception_3b/1x1"
  bottom: "inception_3b/3x3"
  bottom: "inception_3b/5x5"
  bottom: "inception_3b/pool_proj"
  top: "inception_3b/output"
}
layer {
  name: "pool3/3x3_s2"
  type: "Pooling"
  bottom: "inception_3b/output"
  top: "pool3/3x3_s2"
  pooling_param {
    pool: MAX
    kernel_size: 3
    stride: 2
  }
}
layer {
  name: "inception_4a/1x1"
  type: "Convolution"
  bottom: "pool3/3x3_s2"
  top: "inception_4a/1x1"
  param {
    lr_mult: 1
    decay_mult: 1
  }
  param {
    lr_mult: 2
    decay_mult: 0
  }
  convolution_param {
    num_output: 192
    kernel_size: 1
    weight_filler {
      type: "xavier"
      std: 0.03
    }
    bias_filler {
      type: "constant"
      value: 0.2
    }
  }
}
layer {
  name: "inception_4a/relu_1x1"
  type: "ReLU"
  bottom: "inception_4a/1x1"
  top: "inception_4a/1x1"
}
layer {
  name: "inception_4a/3x3_reduce"
  type: "Convolution"
  bottom: "pool3/3x3_s2"
  top: "inception_4a/3x3_reduce"
  param {
    lr_mult: 1
    decay_mult: 1
  }
  param {
    lr_mult: 2
    decay_mult: 0
  }
  convolution_param {
    num_output: 96
    kernel_size: 1
    weight_filler {
      type: "xavier"
      std: 0.09
    }
    bias_filler {
      type: "constant"
      value: 0.2
    }
  }
}
layer {
  name: "inception_4a/relu_3x3_reduce"
  type: "ReLU"
  bottom: "inception_4a/3x3_reduce"
  top: "inception_4a/3x3_reduce"
}
layer {
  name: "inception_4a/3x3"
  type: "Convolution"
  bottom: "inception_4a/3x3_reduce"
  top: "inception_4a/3x3"
  param {
    lr_mult: 1
    decay_mult: 1
  }
  param {
    lr_mult: 2
    decay_mult: 0
  }
  convolution_param {
    num_output: 208
    pad: 1
    kernel_size: 3
    weight_filler {
      type: "xavier"
      std: 0.03
    }
    bias_filler {
      type: "constant"
      value: 0.2
    }
  }
}
layer {
  name: "inception_4a/relu_3x3"
  type: "ReLU"
  bottom: "inception_4a/3x3"
  top: "inception_4a/3x3"
}
layer {
  name: "inception_4a/5x5_reduce"
  type: "Convolution"
  bottom: "pool3/3x3_s2"
  top: "inception_4a/5x5_reduce"
  param {
    lr_mult: 1
    decay_mult: 1
  }
  param {
    lr_mult: 2
    decay_mult: 0
  }
  convolution_param {
    num_output: 16
    kernel_size: 1
    weight_filler {
      type: "xavier"
      std: 0.2
    }
    bias_filler {
      type: "constant"
      value: 0.2
    }
  }
}
layer {
  name: "inception_4a/relu_5x5_reduce"
  type: "ReLU"
  bottom: "inception_4a/5x5_reduce"
  top: "inception_4a/5x5_reduce"
}
layer {
  name: "inception_4a/5x5"
  type: "Convolution"
  bottom: "inception_4a/5x5_reduce"
  top: "inception_4a/5x5"
  param {
    lr_mult: 1
    decay_mult: 1
  }
  param {
    lr_mult: 2
    decay_mult: 0
  }
  convolution_param {
    num_output: 48
    pad: 2
    kernel_size: 5
    weight_filler {
      type: "xavier"
      std: 0.03
    }
    bias_filler {
      type: "constant"
      value: 0.2
    }
  }
}
layer {
  name: "inception_4a/relu_5x5"
  type: "ReLU"
  bottom: "inception_4a/5x5"
  top: "inception_4a/5x5"
}
layer {
  name: "inception_4a/pool"
  type: "Pooling"
  bottom: "pool3/3x3_s2"
  top: "inception_4a/pool"
  pooling_param {
    pool: MAX
    kernel_size: 3
    stride: 1
    pad: 1
  }
}
layer {
  name: "inception_4a/pool_proj"
  type: "Convolution"
  bottom: "inception_4a/pool"
  top: "inception_4a/pool_proj"
  param {
    lr_mult: 1
    decay_mult: 1
  }
  param {
    lr_mult: 2
    decay_mult: 0
  }
  convolution_param {
    num_output: 64
    kernel_size: 1
    weight_filler {
      type: "xavier"
      std: 0.1
    }
    bias_filler {
      type: "constant"
      value: 0.2
    }
  }
}
layer {
  name: "inception_4a/relu_pool_proj"
  type: "ReLU"
  bottom: "inception_4a/pool_proj"
  top: "inception_4a/pool_proj"
}
layer {
  name: "inception_4a/output"
  type: "Concat"
  bottom: "inception_4a/1x1"
  bottom: "inception_4a/3x3"
  bottom: "inception_4a/5x5"
  bottom: "inception_4a/pool_proj"
  top: "inception_4a/output"
}
layer {
  name: "loss1/ave_pool"
  type: "Pooling"
  bottom: "inception_4a/output"
  top: "loss1/ave_pool"
  pooling_param {
    pool: AVE
    kernel_size: 5
    stride: 3
  }
}
layer {
  name: "loss1/conv"
  type: "Convolution"
  bottom: "loss1/ave_pool"
  top: "loss1/conv"
  param {
    lr_mult: 1
    decay_mult: 1
  }
  param {
    lr_mult: 2
    decay_mult: 0
  }
  convolution_param {
    num_output: 128
    kernel_size: 1
    weight_filler {
      type: "xavier"
      std: 0.08
    }
    bias_filler {
      type: "constant"
      value: 0.2
    }
  }
}
layer {
  name: "loss1/relu_conv"
  type: "ReLU"
  bottom: "loss1/conv"
  top: "loss1/conv"
}
layer {
  name: "loss1/fc"
  type: "InnerProduct"
  bottom: "loss1/conv"
  top: "loss1/fc"
  param {
    lr_mult: 1
    decay_mult: 1
  }
  param {
    lr_mult: 2
    decay_mult: 0
  }
  inner_product_param {
    num_output: 1024
    weight_filler {
      type: "xavier"
      std: 0.02
    }
    bias_filler {
      type: "constant"
      value: 0.2
    }
  }
}
layer {
  name: "loss1/relu_fc"
  type: "ReLU"
  bottom: "loss1/fc"
  top: "loss1/fc"
}
layer {
  name: "loss1/drop_fc"
  type: "Dropout"
  bottom: "loss1/fc"
  top: "loss1/fc"
  dropout_param {
    dropout_ratio: 0.7
  }
}
layer {
  name: "loss1/classifier_plantvillage"
  type: "InnerProduct"
  bottom: "loss1/fc"
  top: "loss1/classifier_plantvillage"
  param {
    lr_mult: 1
    decay_mult: 1
  }
  param {
    lr_mult: 2
    decay_mult: 0
  }
  inner_product_param {
    num_output: 38
    weight_filler {
      type: "xavier"
      std: 0.0009765625
    }
    bias_filler {
      type: "constant"
      value: 0
    }
  }
}
layer {
  name: "inception_4b/1x1"
  type: "Convolution"
  bottom: "inception_4a/output"
  top: "inception_4b/1x1"
  param {
    lr_mult: 1
    decay_mult: 1
  }
  param {
    lr_mult: 2
    decay_mult: 0
  }
  convolution_param {
    num_output: 160
    kernel_size: 1
    weight_filler {
      type: "xavier"
      std: 0.03
    }
    bias_filler {
      type: "constant"
      value: 0.2
    }
  }
}
layer {
…
I0403 02:30:38.494880 25318 layer_factory.hpp:77] Creating layer inception_4c/pool
I0403 02:30:38.494902 25318 net.cpp:91] Creating Layer inception_4c/pool
I0403 02:30:38.494923 25318 net.cpp:425] inception_4c/pool <- inception_4b/output_inception_4b/output_0_split_3
I0403 02:30:38.494947 25318 net.cpp:399] inception_4c/pool -> inception_4c/pool
I0403 02:30:38.495023 25318 net.cpp:141] Setting up inception_4c/pool
I0403 02:30:38.495054 25318 net.cpp:148] Top shape: 24 512 14 14 (2408448)
I0403 02:30:38.495071 25318 net.cpp:156] Memory required for data: 1060605120
I0403 02:30:38.495090 25318 layer_factory.hpp:77] Creating layer inception_4c/pool_proj
I0403 02:30:38.495126 25318 net.cpp:91] Creating Layer inception_4c/pool_proj
I0403 02:30:38.495149 25318 net.cpp:425] inception_4c/pool_proj <- inception_4c/pool
I0403 02:30:38.495177 25318 net.cpp:399] inception_4c/pool_proj -> inception_4c/pool_proj
I0403 02:30:38.495705 25318 net.cpp:141] Setting up inception_4c/pool_proj
I0403 02:30:38.495738 25318 net.cpp:148] Top shape: 24 64 14 14 (301056)
I0403 02:30:38.495755 25318 net.cpp:156] Memory required for data: 1061809344
I0403 02:30:38.495777 25318 layer_factory.hpp:77] Creating layer inception_4c/relu_pool_proj
I0403 02:30:38.495805 25318 net.cpp:91] Creating Layer inception_4c/relu_pool_proj
I0403 02:30:38.495827 25318 net.cpp:425] inception_4c/relu_pool_proj <- inception_4c/pool_proj
I0403 02:30:38.495851 25318 net.cpp:386] inception_4c/relu_pool_proj -> inception_4c/pool_proj (in-place)
I0403 02:30:38.495877 25318 net.cpp:141] Setting up inception_4c/relu_pool_proj
I0403 02:30:38.495899 25318 net.cpp:148] Top shape: 24 64 14 14 (301056)
I0403 02:30:38.495918 25318 net.cpp:156] Memory required for data: 1063013568
I0403 02:30:38.495935 25318 layer_factory.hpp:77] Creating layer inception_4c/output
I0403 02:30:38.495961 25318 net.cpp:91] Creating Layer inception_4c/output
I0403 02:30:38.495981 25318 net.cpp:425] inception_4c/output <- inception_4c/1x1
I0403 02:30:38.496002 25318 net.cpp:425] inception_4c/output <- inception_4c/3x3
I0403 02:30:38.496023 25318 net.cpp:425] inception_4c/output <- inception_4c/5x5
I0403 02:30:38.496042 25318 net.cpp:425] inception_4c/output <- inception_4c/pool_proj
I0403 02:30:38.496062 25318 net.cpp:399] inception_4c/output -> inception_4c/output
I0403 02:30:38.496116 25318 net.cpp:141] Setting up inception_4c/output
I0403 02:30:38.496148 25318 net.cpp:148] Top shape: 24 512 14 14 (2408448)
I0403 02:30:38.496168 25318 net.cpp:156] Memory required for data: 1072647360
I0403 02:30:38.496186 25318 layer_factory.hpp:77] Creating layer inception_4c/output_inception_4c/output_0_split
I0403 02:30:38.496208 25318 net.cpp:91] Creating Layer inception_4c/output_inception_4c/output_0_split
I0403 02:30:38.496227 25318 net.cpp:425] inception_4c/output_inception_4c/output_0_split <- inception_4c/output
I0403 02:30:38.496253 25318 net.cpp:399] inception_4c/output_inception_4c/output_0_split -> inception_4c/output_inception_4c/output_0_split_0
I0403 02:30:38.496280 25318 net.cpp:399] inception_4c/output_inception_4c/output_0_split -> inception_4c/output_inception_4c/output_0_split_1
I0403 02:30:38.496307 25318 net.cpp:399] inception_4c/output_inception_4c/output_0_split -> inception_4c/output_inception_4c/output_0_split_2
I0403 02:30:38.496392 25318 net.cpp:399] inception_4c/output_inception_4c/output_0_split -> inception_4c/output_inception_4c/output_0_split_3
I0403 02:30:38.496511 25318 net.cpp:141] Setting up inception_4c/output_inception_4c/output_0_split
I0403 02:30:38.496546 25318 net.cpp:148] Top shape: 24 512 14 14 (2408448)
I0403 02:30:38.496567 25318 net.cpp:148] Top shape: 24 512 14 14 (2408448)
I0403 02:30:38.496587 25318 net.cpp:148] Top shape: 24 512 14 14 (2408448)
I0403 02:30:38.496605 25318 net.cpp:148] Top shape: 24 512 14 14 (2408448)
I0403 02:30:38.496623 25318 net.cpp:156] Memory required for data: 1111182528
I0403 02:30:38.496640 25318 layer_factory.hpp:77] Creating layer inception_4d/1x1
I0403 02:30:38.496666 25318 net.cpp:91] Creating Layer inception_4d/1x1
I0403 02:30:38.496688 25318 net.cpp:425] inception_4d/1x1 <- inception_4c/output_inception_4c/output_0_split_0
I0403 02:30:38.496716 25318 net.cpp:399] inception_4d/1x1 -> inception_4d/1x1
I0403 02:30:38.497428 25318 net.cpp:141] Setting up inception_4d/1x1
I0403 02:30:38.497462 25318 net.cpp:148] Top shape: 24 112 14 14 (526848)
I0403 02:30:38.497480 25318 net.cpp:156] Memory required for data: 1113289920
I0403 02:30:38.497503 25318 layer_factory.hpp:77] Creating layer inception_4d/relu_1x1
I0403 02:30:38.497526 25318 net.cpp:91] Creating Layer inception_4d/relu_1x1
I0403 02:30:38.497550 25318 net.cpp:425] inception_4d/relu_1x1 <- inception_4d/1x1
I0403 02:30:38.497571 25318 net.cpp:386] inception_4d/relu_1x1 -> inception_4d/1x1 (in-place)
I0403 02:30:38.497594 25318 net.cpp:141] Setting up inception_4d/relu_1x1
I0403 02:30:38.497616 25318 net.cpp:148] Top shape: 24 112 14 14 (526848)
I0403 02:30:38.497633 25318 net.cpp:156] Memory required for data: 1115397312
I0403 02:30:38.497651 25318 layer_factory.hpp:77] Creating layer inception_4d/3x3_reduce
I0403 02:30:38.497679 25318 net.cpp:91] Creating Layer inception_4d/3x3_reduce
I0403 02:30:38.497700 25318 net.cpp:425] inception_4d/3x3_reduce <- inception_4c/output_inception_4c/output_0_split_1
I0403 02:30:38.497728 25318 net.cpp:399] inception_4d/3x3_reduce -> inception_4d/3x3_reduce
I0403 02:30:38.498627 25318 net.cpp:141] Setting up inception_4d/3x3_reduce
I0403 02:30:38.498675 25318 net.cpp:148] Top shape: 24 144 14 14 (677376)
I0403 02:30:38.498723 25318 net.cpp:156] Memory required for data: 1118106816
I0403 02:30:38.498777 25318 layer_factory.hpp:77] Creating layer inception_4d/relu_3x3_reduce
I0403 02:30:38.498821 25318 net.cpp:91] Creating Layer inception_4d/relu_3x3_reduce
I0403 02:30:38.498867 25318 net.cpp:425] inception_4d/relu_3x3_reduce <- inception_4d/3x3_reduce
I0403 02:30:38.498921 25318 net.cpp:386] inception_4d/relu_3x3_reduce -> inception_4d/3x3_reduce (in-place)
I0403 02:30:38.498982 25318 net.cpp:141] Setting up inception_4d/relu_3x3_reduce
I0403 02:30:38.499006 25318 net.cpp:148] Top shape: 24 144 14 14 (677376)
I0403 02:30:38.499024 25318 net.cpp:156] Memory required for data: 1120816320
I0403 02:30:38.499042 25318 layer_factory.hpp:77] Creating layer inception_4d/3x3
I0403 02:30:38.499068 25318 net.cpp:91] Creating Layer inception_4d/3x3
I0403 02:30:38.499089 25318 net.cpp:425] inception_4d/3x3 <- inception_4d/3x3_reduce
I0403 02:30:38.499121 25318 net.cpp:399] inception_4d/3x3 -> inception_4d/3x3
I0403 02:30:38.527375 25318 net.cpp:141] Setting up inception_4d/3x3
I0403 02:30:38.527477 25318 net.cpp:148] Top shape: 24 288 14 14 (1354752)
I0403 02:30:38.528097 25318 net.cpp:156] Memory required for data: 1126235328
I0403 02:30:38.528157 25318 layer_factory.hpp:77] Creating layer inception_4d/relu_3x3
I0403 02:30:38.528225 25318 net.cpp:91] Creating Layer inception_4d/relu_3x3
I0403 02:30:38.528332 25318 net.cpp:425] inception_4d/relu_3x3 <- inception_4d/3x3
I0403 02:30:38.528367 25318 net.cpp:386] inception_4d/relu_3x3 -> inception_4d/3x3 (in-place)
I0403 02:30:38.528399 25318 net.cpp:141] Setting up inception_4d/relu_3x3
I0403 02:30:38.528430 25318 net.cpp:148] Top shape: 24 288 14 14 (1354752)
I0403 02:30:38.528451 25318 net.cpp:156] Memory required for data: 1131654336
I0403 02:30:38.528480 25318 layer_factory.hpp:77] Creating layer inception_4d/5x5_reduce
I0403 02:30:38.528544 25318 net.cpp:91] Creating Layer inception_4d/5x5_reduce
I0403 02:30:38.528573 25318 net.cpp:425] inception_4d/5x5_reduce <- inception_4c/output_inception_4c/output_0_split_2
I0403 02:30:38.528609 25318 net.cpp:399] inception_4d/5x5_reduce -> inception_4d/5x5_reduce
I0403 02:30:38.529777 25318 net.cpp:141] Setting up inception_4d/5x5_reduce
I0403 02:30:38.529896 25318 net.cpp:148] Top shape: 24 32 14 14 (150528)
I0403 02:30:38.529953 25318 net.cpp:156] Memory required for data: 1132256448
I0403 02:30:38.530026 25318 layer_factory.hpp:77] Creating layer inception_4d/relu_5x5_reduce
I0403 02:30:38.530189 25318 net.cpp:91] Creating Layer inception_4d/relu_5x5_reduce
I0403 02:30:38.530387 25318 net.cpp:425] inception_4d/relu_5x5_reduce <- inception_4d/5x5_reduce
I0403 02:30:38.530583 25318 net.cpp:386] inception_4d/relu_5x5_reduce -> inception_4d/5x5_reduce (in-place)
I0403 02:30:38.530678 25318 net.cpp:141] Setting up inception_4d/relu_5x5_reduce
I0403 02:30:38.530725 25318 net.cpp:148] Top shape: 24 32 14 14 (150528)
I0403 02:30:38.530827 25318 net.cpp:156] Memory required for data: 1132858560
I0403 02:30:38.530876 25318 layer_factory.hpp:77] Creating layer inception_4d/5x5
I0403 02:30:38.530938 25318 net.cpp:91] Creating Layer inception_4d/5x5
I0403 02:30:38.531047 25318 net.cpp:425] inception_4d/5x5 <- inception_4d/5x5_reduce
I0403 02:30:38.531119 25318 net.cpp:399] inception_4d/5x5 -> inception_4d/5x5
I0403 02:30:38.532585 25318 net.cpp:141] Setting up inception_4d/5x5
I0403 02:30:38.532652 25318 net.cpp:148] Top shape: 24 64 14 14 (301056)
I0403 02:30:38.532691 25318 net.cpp:156] Memory required for data: 1134062784
I0403 02:30:38.532737 25318 layer_factory.hpp:77] Creating layer inception_4d/relu_5x5
I0403 02:30:38.532786 25318 net.cpp:91] Creating Layer inception_4d/relu_5x5
I0403 02:30:38.532830 25318 net.cpp:425] inception_4d/relu_5x5 <- inception_4d/5x5
I0403 02:30:38.532881 25318 net.cpp:386] inception_4d/relu_5x5 -> inception_4d/5x5 (in-place)
I0403 02:30:38.532971 25318 net.cpp:141] Setting up inception_4d/relu_5x5
I0403 02:30:38.533053 25318 net.cpp:148] Top shape: 24 64 14 14 (301056)
I0403 02:30:38.533102 25318 net.cpp:156] Memory required for data: 1135267008
I0403 02:30:38.533141 25318 layer_factory.hpp:77] Creating layer inception_4d/pool
I0403 02:30:38.533188 25318 net.cpp:91] Creating Layer inception_4d/pool
I0403 02:30:38.533231 25318 net.cpp:425] inception_4d/pool <- inception_4c/output_inception_4c/output_0_split_3
I0403 02:30:38.533288 25318 net.cpp:399] inception_4d/pool -> inception_4d/pool
I0403 02:30:38.533437 25318 net.cpp:141] Setting up inception_4d/pool
I0403 02:30:38.533502 25318 net.cpp:148] Top shape: 24 512 14 14 (2408448)
I0403 02:30:38.533543 25318 net.cpp:156] Memory required for data: 1144900800
I0403 02:30:38.533581 25318 layer_factory.hpp:77] Creating layer inception_4d/pool_proj
I0403 02:30:38.533634 25318 net.cpp:91] Creating Layer inception_4d/pool_proj
I0403 02:30:38.533679 25318 net.cpp:425] inception_4d/pool_proj <- inception_4d/pool
I0403 02:30:38.533735 25318 net.cpp:399] inception_4d/pool_proj -> inception_4d/pool_proj
I0403 02:30:38.534899 25318 net.cpp:141] Setting up inception_4d/pool_proj
I0403 02:30:38.534965 25318 net.cpp:148] Top shape: 24 64 14 14 (301056)
I0403 02:30:38.535003 25318 net.cpp:156] Memory required for data: 1146105024
I0403 02:30:38.535050 25318 layer_factory.hpp:77] Creating layer inception_4d/relu_pool_proj
I0403 02:30:38.535107 25318 net.cpp:91] Creating Layer inception_4d/relu_pool_proj
I0403 02:30:38.535153 25318 net.cpp:425] inception_4d/relu_pool_proj <- inception_4d/pool_proj
I0403 02:30:38.535212 25318 net.cpp:386] inception_4d/relu_pool_proj -> inception_4d/pool_proj (in-place)
I0403 02:30:38.535303 25318 net.cpp:141] Setting up inception_4d/relu_pool_proj
I0403 02:30:38.535351 25318 net.cpp:148] Top shape: 24 64 14 14 (301056)
I0403 02:30:38.535387 25318 net.cpp:156] Memory required for data: 1147309248
I0403 02:30:38.535445 25318 layer_factory.hpp:77] Creating layer inception_4d/output
I0403 02:30:38.535550 25318 net.cpp:91] Creating Layer inception_4d/output
I0403 02:30:38.535604 25318 net.cpp:425] inception_4d/output <- inception_4d/1x1
I0403 02:30:38.535681 25318 net.cpp:425] inception_4d/output <- inception_4d/3x3
I0403 02:30:38.535899 25318 net.cpp:425] inception_4d/output <- inception_4d/5x5
I0403 02:30:38.535954 25318 net.cpp:425] inception_4d/output <- inception_4d/pool_proj
I0403 02:30:38.536002 25318 net.cpp:399] inception_4d/output -> inception_4d/output
I0403 02:30:38.536133 25318 net.cpp:141] Setting up inception_4d/output
I0403 02:30:38.536195 25318 net.cpp:148] Top shape: 24 528 14 14 (2483712)
I0403 02:30:38.536234 25318 net.cpp:156] Memory required for data: 1157244096
I0403 02:30:38.536272 25318 layer_factory.hpp:77] Creating layer inception_4d/output_inception_4d/output_0_split
I0403 02:30:38.536319 25318 net.cpp:91] Creating Layer inception_4d/output_inception_4d/output_0_split
I0403 02:30:38.536360 25318 net.cpp:425] inception_4d/output_inception_4d/output_0_split <- inception_4d/output
I0403 02:30:38.536415 25318 net.cpp:399] inception_4d/output_inception_4d/output_0_split -> inception_4d/output_inception_4d/output_0_split_0
I0403 02:30:38.536473 25318 net.cpp:399] inception_4d/output_inception_4d/output_0_split -> inception_4d/output_inception_4d/output_0_split_1
I0403 02:30:38.536530 25318 net.cpp:399] inception_4d/output_inception_4d/output_0_split -> inception_4d/output_inception_4d/output_0_split_2
I0403 02:30:38.536584 25318 net.cpp:399] inception_4d/output_inception_4d/output_0_split -> inception_4d/output_inception_4d/output_0_split_3
I0403 02:30:38.536638 25318 net.cpp:399] inception_4d/output_inception_4d/output_0_split -> inception_4d/output_inception_4d/output_0_split_4
I0403 02:30:38.536880 25318 net.cpp:141] Setting up inception_4d/output_inception_4d/output_0_split
I0403 02:30:38.536939 25318 net.cpp:148] Top shape: 24 528 14 14 (2483712)
I0403 02:30:38.536983 25318 net.cpp:148] Top shape: 24 528 14 14 (2483712)
I0403 02:30:38.537052 25318 net.cpp:148] Top shape: 24 528 14 14 (2483712)
I0403 02:30:38.537142 25318 net.cpp:148] Top shape: 24 528 14 14 (2483712)
I0403 02:30:38.537170 25318 net.cpp:148] Top shape: 24 528 14 14 (2483712)
I0403 02:30:38.537196 25318 net.cpp:156] Memory required for data: 1206918336
I0403 02:30:38.537242 25318 layer_factory.hpp:77] Creating layer loss2/ave_pool
I0403 02:30:38.537298 25318 net.cpp:91] Creating Layer loss2/ave_pool
I0403 02:30:38.537325 25318 net.cpp:425] loss2/ave_pool <- inception_4d/output_inception_4d/output_0_split_0
I0403 02:30:38.537355 25318 net.cpp:399] loss2/ave_pool -> loss2/ave_pool
I0403 02:30:38.537410 25318 net.cpp:141] Setting up loss2/ave_pool
I0403 02:30:38.537508 25318 net.cpp:148] Top shape: 24 528 4 4 (202752)
I0403 02:30:38.537596 25318 net.cpp:156] Memory required for data: 1207729344
I0403 02:30:38.537622 25318 layer_factory.hpp:77] Creating layer loss2/conv
I0403 02:30:38.537648 25318 net.cpp:91] Creating Layer loss2/conv
I0403 02:30:38.537670 25318 net.cpp:425] loss2/conv <- loss2/ave_pool
I0403 02:30:38.537703 25318 net.cpp:399] loss2/conv -> loss2/conv
I0403 02:30:38.539124 25318 net.cpp:141] Setting up loss2/conv
I0403 02:30:38.539160 25318 net.cpp:148] Top shape: 24 128 4 4 (49152)
I0403 02:30:38.539180 25318 net.cpp:156] Memory required for data: 1207925952
I0403 02:30:38.539202 25318 layer_factory.hpp:77] Creating layer loss2/relu_conv
I0403 02:30:38.539229 25318 net.cpp:91] Creating Layer loss2/relu_conv
I0403 02:30:38.539252 25318 net.cpp:425] loss2/relu_conv <- loss2/conv
I0403 02:30:38.539273 25318 net.cpp:386] loss2/relu_conv -> loss2/conv (in-place)
I0403 02:30:38.539297 25318 net.cpp:141] Setting up loss2/relu_conv
I0403 02:30:38.539319 25318 net.cpp:148] Top shape: 24 128 4 4 (49152)
I0403 02:30:38.539337 25318 net.cpp:156] Memory required for data: 1208122560
I0403 02:30:38.539356 25318 layer_factory.hpp:77] Creating layer loss2/fc
I0403 02:30:38.539382 25318 net.cpp:91] Creating Layer loss2/fc
I0403 02:30:38.539405 25318 net.cpp:425] loss2/fc <- loss2/conv
I0403 02:30:38.539428 25318 net.cpp:399] loss2/fc -> loss2/fc
I0403 02:30:38.558960 25318 net.cpp:141] Setting up loss2/fc
I0403 02:30:38.559010 25318 net.cpp:148] Top shape: 24 1024 (24576)
I0403 02:30:38.559029 25318 net.cpp:156] Memory required for data: 1208220864
I0403 02:30:38.559053 25318 layer_factory.hpp:77] Creating layer loss2/relu_fc
I0403 02:30:38.559082 25318 net.cpp:91] Creating Layer loss2/relu_fc
I0403 02:30:38.559108 25318 net.cpp:425] loss2/relu_fc <- loss2/fc
I0403 02:30:38.559134 25318 net.cpp:386] loss2/relu_fc -> loss2/fc (in-place)
I0403 02:30:38.559159 25318 net.cpp:141] Setting up loss2/relu_fc
I0403 02:30:38.559182 25318 net.cpp:148] Top shape: 24 1024 (24576)
I0403 02:30:38.559200 25318 net.cpp:156] Memory required for data: 1208319168
I0403 02:30:38.559217 25318 layer_factory.hpp:77] Creating layer loss2/drop_fc
I0403 02:30:38.559242 25318 net.cpp:91] Creating Layer loss2/drop_fc
I0403 02:30:38.559262 25318 net.cpp:425] loss2/drop_fc <- loss2/fc
I0403 02:30:38.559283 25318 net.cpp:386] loss2/drop_fc -> loss2/fc (in-place)
I0403 02:30:38.559340 25318 net.cpp:141] Setting up loss2/drop_fc
I0403 02:30:38.559368 25318 net.cpp:148] Top shape: 24 1024 (24576)
I0403 02:30:38.559386 25318 net.cpp:156] Memory required for data: 1208417472
I0403 02:30:38.559406 25318 layer_factory.hpp:77] Creating layer loss2/classifier_plantvillage
I0403 02:30:38.559429 25318 net.cpp:91] Creating Layer loss2/classifier_plantvillage
I0403 02:30:38.559453 25318 net.cpp:425] loss2/classifier_plantvillage <- loss2/fc
I0403 02:30:38.559476 25318 net.cpp:399] loss2/classifier_plantvillage -> loss2/classifier_plantvillage
I0403 02:30:38.559914 25318 net.cpp:141] Setting up loss2/classifier_plantvillage
I0403 02:30:38.559947 25318 net.cpp:148] Top shape: 24 38 (912)
I0403 02:30:38.559967 25318 net.cpp:156] Memory required for data: 1208421120
I0403 02:30:38.559989 25318 layer_factory.hpp:77] Creating layer loss2/classifier_plantvillage_loss2/classifier_plantvillage_0_split
I0403 02:30:38.560012 25318 net.cpp:91] Creating Layer loss2/classifier_plantvillage_loss2/classifier_plantvillage_0_split
I0403 02:30:38.560032 25318 net.cpp:425] loss2/classifier_plantvillage_loss2/classifier_plantvillage_0_split <- loss2/classifier_plantvillage
I0403 02:30:38.560055 25318 net.cpp:399] loss2/classifier_plantvillage_loss2/classifier_plantvillage_0_split -> loss2/classifier_plantvillage_loss2/classifier_plantvillage_0_split_0
I0403 02:30:38.560087 25318 net.cpp:399] loss2/classifier_plantvillage_loss2/classifier_plantvillage_0_split -> loss2/classifier_plantvillage_loss2/classifier_plantvillage_0_split_1
I0403 02:30:38.560119 25318 net.cpp:399] loss2/classifier_plantvillage_loss2/classifier_plantvillage_0_split -> loss2/classifier_plantvillage_loss2/classifier_plantvillage_0_split_2
I0403 02:30:38.560204 25318 net.cpp:141] Setting up loss2/classifier_plantvillage_loss2/classifier_plantvillage_0_split
I0403 02:30:38.560235 25318 net.cpp:148] Top shape: 24 38 (912)
I0403 02:30:38.560255 25318 net.cpp:148] Top shape: 24 38 (912)
I0403 02:30:38.560272 25318 net.cpp:148] Top shape: 24 38 (912)
I0403 02:30:38.560289 25318 net.cpp:156] Memory required for data: 1208432064
I0403 02:30:38.560307 25318 layer_factory.hpp:77] Creating layer inception_4e/1x1
I0403 02:30:38.560335 25318 net.cpp:91] Creating Layer inception_4e/1x1
I0403 02:30:38.560359 25318 net.cpp:425] inception_4e/1x1 <- inception_4d/output_inception_4d/output_0_split_1
I0403 02:30:38.560389 25318 net.cpp:399] inception_4e/1x1 -> inception_4e/1x1
I0403 02:30:38.561615 25318 net.cpp:141] Setting up inception_4e/1x1
I0403 02:30:38.561648 25318 net.cpp:148] Top shape: 24 256 14 14 (1204224)
I0403 02:30:38.561668 25318 net.cpp:156] Memory required for data: 1213248960
I0403 02:30:38.561691 25318 layer_factory.hpp:77] Creating layer inception_4e/relu_1x1
I0403 02:30:38.561713 25318 net.cpp:91] Creating Layer inception_4e/relu_1x1
I0403 02:30:38.561735 25318 net.cpp:425] inception_4e/relu_1x1 <- inception_4e/1x1
I0403 02:30:38.561758 25318 net.cpp:386] inception_4e/relu_1x1 -> inception_4e/1x1 (in-place)
I0403 02:30:38.561784 25318 net.cpp:141] Setting up inception_4e/relu_1x1
I0403 02:30:38.561827 25318 net.cpp:148] Top shape: 24 256 14 14 (1204224)
I0403 02:30:38.561846 25318 net.cpp:156] Memory required for data: 1218065856
I0403 02:30:38.561866 25318 layer_factory.hpp:77] Creating layer inception_4e/3x3_reduce
I0403 02:30:38.561894 25318 net.cpp:91] Creating Layer inception_4e/3x3_reduce
I0403 02:30:38.561918 25318 net.cpp:425] inception_4e/3x3_reduce <- inception_4d/output_inception_4d/output_0_split_2
I0403 02:30:38.561945 25318 net.cpp:399] inception_4e/3x3_reduce -> inception_4e/3x3_reduce
I0403 02:30:38.563580 25318 net.cpp:141] Setting up inception_4e/3x3_reduce
I0403 02:30:38.563618 25318 net.cpp:148] Top shape: 24 160 14 14 (752640)
I0403 02:30:38.563638 25318 net.cpp:156] Memory required for data: 1221076416
I0403 02:30:38.563663 25318 layer_factory.hpp:77] Creating layer inception_4e/relu_3x3_reduce
I0403 02:30:38.563688 25318 net.cpp:91] Creating Layer inception_4e/relu_3x3_reduce
I0403 02:30:38.563714 25318 net.cpp:425] inception_4e/relu_3x3_reduce <- inception_4e/3x3_reduce
I0403 02:30:38.563737 25318 net.cpp:386] inception_4e/relu_3x3_reduce -> inception_4e/3x3_reduce (in-place)
I0403 02:30:38.563761 25318 net.cpp:141] Setting up inception_4e/relu_3x3_reduce
I0403 02:30:38.563784 25318 net.cpp:148] Top shape: 24 160 14 14 (752640)
I0403 02:30:38.563802 25318 net.cpp:156] Memory required for data: 1224086976
I0403 02:30:38.563820 25318 layer_factory.hpp:77] Creating layer inception_4e/3x3
I0403 02:30:38.563849 25318 net.cpp:91] Creating Layer inception_4e/3x3
I0403 02:30:38.563871 25318 net.cpp:425] inception_4e/3x3 <- inception_4e/3x3_reduce
I0403 02:30:38.563896 25318 net.cpp:399] inception_4e/3x3 -> inception_4e/3x3
I0403 02:30:38.568644 25318 net.cpp:141] Setting up inception_4e/3x3
I0403 02:30:38.582823 25318 net.cpp:148] Top shape: 24 320 14 14 (1505280)
I0403 02:30:38.582875 25318 net.cpp:156] Memory required for data: 1230108096
I0403 02:30:38.582929 25318 layer_factory.hpp:77] Creating layer inception_4e/relu_3x3
I0403 02:30:38.582954 25318 net.cpp:91] Creating Layer inception_4e/relu_3x3
I0403 02:30:38.582990 25318 net.cpp:425] inception_4e/relu_3x3 <- inception_4e/3x3
I0403 02:30:38.583060 25318 net.cpp:386] inception_4e/relu_3x3 -> inception_4e/3x3 (in-place)
I0403 02:30:38.583119 25318 net.cpp:141] Setting up inception_4e/relu_3x3
I0403 02:30:38.583202 25318 net.cpp:148] Top shape: 24 320 14 14 (1505280)
I0403 02:30:38.583262 25318 net.cpp:156] Memory required for data: 1236129216
I0403 02:30:38.583333 25318 layer_factory.hpp:77] Creating layer inception_4e/5x5_reduce
I0403 02:30:38.583431 25318 net.cpp:91] Creating Layer inception_4e/5x5_reduce
I0403 02:30:38.583510 25318 net.cpp:425] inception_4e/5x5_reduce <- inception_4d/output_inception_4d/output_0_split_3
I0403 02:30:38.583590 25318 net.cpp:399] inception_4e/5x5_reduce -> inception_4e/5x5_reduce
I0403 02:30:38.585726 25318 net.cpp:141] Setting up inception_4e/5x5_reduce
I0403 02:30:38.585804 25318 net.cpp:148] Top shape: 24 32 14 14 (150528)
I0403 02:30:38.585846 25318 net.cpp:156] Memory required for data: 1236731328
I0403 02:30:38.585894 25318 layer_factory.hpp:77] Creating layer inception_4e/relu_5x5_reduce
I0403 02:30:38.585949 25318 net.cpp:91] Creating Layer inception_4e/relu_5x5_reduce
I0403 02:30:38.585997 25318 net.cpp:425] inception_4e/relu_5x5_reduce <- inception_4e/5x5_reduce
I0403 02:30:38.586046 25318 net.cpp:386] inception_4e/relu_5x5_reduce -> inception_4e/5x5_reduce (in-place)
I0403 02:30:38.586112 25318 net.cpp:141] Setting up inception_4e/relu_5x5_reduce
I0403 02:30:38.586160 25318 net.cpp:148] Top shape: 24 32 14 14 (150528)
I0403 02:30:38.586199 25318 net.cpp:156] Memory required for data: 1237333440
I0403 02:30:38.586236 25318 layer_factory.hpp:77] Creating layer inception_4e/5x5
I0403 02:30:38.586335 25318 net.cpp:91] Creating Layer inception_4e/5x5
I0403 02:30:38.586387 25318 net.cpp:425] inception_4e/5x5 <- inception_4e/5x5_reduce
I0403 02:30:38.586441 25318 net.cpp:399] inception_4e/5x5 -> inception_4e/5x5
I0403 02:30:38.587795 25318 net.cpp:141] Setting up inception_4e/5x5
I0403 02:30:38.587846 25318 net.cpp:148] Top shape: 24 128 14 14 (602112)
I0403 02:30:38.587867 25318 net.cpp:156] Memory required for data: 1239741888
I0403 02:30:38.587890 25318 layer_factory.hpp:77] Creating layer inception_4e/relu_5x5
I0403 02:30:38.587919 25318 net.cpp:91] Creating Layer inception_4e/relu_5x5
I0403 02:30:38.587942 25318 net.cpp:425] inception_4e/relu_5x5 <- inception_4e/5x5
I0403 02:30:38.587965 25318 net.cpp:386] inception_4e/relu_5x5 -> inception_4e/5x5 (in-place)
I0403 02:30:38.587991 25318 net.cpp:141] Setting up inception_4e/relu_5x5
I0403 02:30:38.588014 25318 net.cpp:148] Top shape: 24 128 14 14 (602112)
I0403 02:30:38.588032 25318 net.cpp:156] Memory required for data: 1242150336
I0403 02:30:38.588050 25318 layer_factory.hpp:77] Creating layer inception_4e/pool
I0403 02:30:38.588083 25318 net.cpp:91] Creating Layer inception_4e/pool
I0403 02:30:38.588109 25318 net.cpp:425] inception_4e/pool <- inception_4d/output_inception_4d/output_0_split_4
I0403 02:30:38.588135 25318 net.cpp:399] inception_4e/pool -> inception_4e/pool
I0403 02:30:38.588203 25318 net.cpp:141] Setting up inception_4e/pool
I0403 02:30:38.588235 25318 net.cpp:148] Top shape: 24 528 14 14 (2483712)
I0403 02:30:38.588255 25318 net.cpp:156] Memory required for data: 1252085184
I0403 02:30:38.588274 25318 layer_factory.hpp:77] Creating layer inception_4e/pool_proj
I0403 02:30:38.588305 25318 net.cpp:91] Creating Layer inception_4e/pool_proj
I0403 02:30:38.588330 25318 net.cpp:425] inception_4e/pool_proj <- inception_4e/pool
I0403 02:30:38.588354 25318 net.cpp:399] inception_4e/pool_proj -> inception_4e/pool_proj
I0403 02:30:38.589066 25318 net.cpp:141] Setting up inception_4e/pool_proj
I0403 02:30:38.589125 25318 net.cpp:148] Top shape: 24 128 14 14 (602112)
I0403 02:30:38.589166 25318 net.cpp:156] Memory required for data: 1254493632
I0403 02:30:38.589211 25318 layer_factory.hpp:77] Creating layer inception_4e/relu_pool_proj
I0403 02:30:38.589236 25318 net.cpp:91] Creating Layer inception_4e/relu_pool_proj
I0403 02:30:38.589282 25318 net.cpp:425] inception_4e/relu_pool_proj <- inception_4e/pool_proj
I0403 02:30:38.589321 25318 net.cpp:386] inception_4e/relu_pool_proj -> inception_4e/pool_proj (in-place)
I0403 02:30:38.589385 25318 net.cpp:141] Setting up inception_4e/relu_pool_proj
I0403 02:30:38.589422 25318 net.cpp:148] Top shape: 24 128 14 14 (602112)
I0403 02:30:38.589462 25318 net.cpp:156] Memory required for data: 1256902080
I0403 02:30:38.589503 25318 layer_factory.hpp:77] Creating layer inception_4e/output
I0403 02:30:38.589552 25318 net.cpp:91] Creating Layer inception_4e/output
I0403 02:30:38.589575 25318 net.cpp:425] inception_4e/output <- inception_4e/1x1
I0403 02:30:38.589607 25318 net.cpp:425] inception_4e/output <- inception_4e/3x3
I0403 02:30:38.589637 25318 net.cpp:425] inception_4e/output <- inception_4e/5x5
I0403 02:30:38.589679 25318 net.cpp:425] inception_4e/output <- inception_4e/pool_proj
I0403 02:30:38.589740 25318 net.cpp:399] inception_4e/output -> inception_4e/output
I0403 02:30:38.589849 25318 net.cpp:141] Setting up inception_4e/output
I0403 02:30:38.589905 25318 net.cpp:148] Top shape: 24 832 14 14 (3913728)
I0403 02:30:38.589926 25318 net.cpp:156] Memory required for data: 1272556992
I0403 02:30:38.589943 25318 layer_factory.hpp:77] Creating layer pool4/3x3_s2
I0403 02:30:38.589965 25318 net.cpp:91] Creating Layer pool4/3x3_s2
I0403 02:30:38.589987 25318 net.cpp:425] pool4/3x3_s2 <- inception_4e/output
I0403 02:30:38.590015 25318 net.cpp:399] pool4/3x3_s2 -> pool4/3x3_s2
I0403 02:30:38.590086 25318 net.cpp:141] Setting up pool4/3x3_s2
I0403 02:30:38.590117 25318 net.cpp:148] Top shape: 24 832 7 7 (978432)
I0403 02:30:38.590136 25318 net.cpp:156] Memory required for data: 1276470720
I0403 02:30:38.590153 25318 layer_factory.hpp:77] Creating layer pool4/3x3_s2_pool4/3x3_s2_0_split
I0403 02:30:38.590179 25318 net.cpp:91] Creating Layer pool4/3x3_s2_pool4/3x3_s2_0_split
I0403 02:30:38.590203 25318 net.cpp:425] pool4/3x3_s2_pool4/3x3_s2_0_split <- pool4/3x3_s2
I0403 02:30:38.590246 25318 net.cpp:399] pool4/3x3_s2_pool4/3x3_s2_0_split -> pool4/3x3_s2_pool4/3x3_s2_0_split_0
I0403 02:30:38.590279 25318 net.cpp:399] pool4/3x3_s2_pool4/3x3_s2_0_split -> pool4/3x3_s2_pool4/3x3_s2_0_split_1
I0403 02:30:38.590308 25318 net.cpp:399] pool4/3x3_s2_pool4/3x3_s2_0_split -> pool4/3x3_s2_pool4/3x3_s2_0_split_2
I0403 02:30:38.590338 25318 net.cpp:399] pool4/3x3_s2_pool4/3x3_s2_0_split -> pool4/3x3_s2_pool4/3x3_s2_0_split_3
I0403 02:30:38.590453 25318 net.cpp:141] Setting up pool4/3x3_s2_pool4/3x3_s2_0_split
I0403 02:30:38.590502 25318 net.cpp:148] Top shape: 24 832 7 7 (978432)
I0403 02:30:38.590549 25318 net.cpp:148] Top shape: 24 832 7 7 (978432)
I0403 02:30:38.590574 25318 net.cpp:148] Top shape: 24 832 7 7 (978432)
I0403 02:30:38.590595 25318 net.cpp:148] Top shape: 24 832 7 7 (978432)
I0403 02:30:38.590633 25318 net.cpp:156] Memory required for data: 1292125632
I0403 02:30:38.590651 25318 layer_factory.hpp:77] Creating layer inception_5a/1x1
I0403 02:30:38.590680 25318 net.cpp:91] Creating Layer inception_5a/1x1
I0403 02:30:38.590713 25318 net.cpp:425] inception_5a/1x1 <- pool4/3x3_s2_pool4/3x3_s2_0_split_0
I0403 02:30:38.590742 25318 net.cpp:399] inception_5a/1x1 -> inception_5a/1x1
I0403 02:30:38.593111 25318 net.cpp:141] Setting up inception_5a/1x1
I0403 02:30:38.593164 25318 net.cpp:148] Top shape: 24 256 7 7 (301056)
I0403 02:30:38.593215 25318 net.cpp:156] Memory required for data: 1293329856
I0403 02:30:38.593264 25318 layer_factory.hpp:77] Creating layer inception_5a/relu_1x1
I0403 02:30:38.593304 25318 net.cpp:91] Creating Layer inception_5a/relu_1x1
I0403 02:30:38.593350 25318 net.cpp:425] inception_5a/relu_1x1 <- inception_5a/1x1
I0403 02:30:38.593407 25318 net.cpp:386] inception_5a/relu_1x1 -> inception_5a/1x1 (in-place)
I0403 02:30:38.593453 25318 net.cpp:141] Setting up inception_5a/relu_1x1
I0403 02:30:38.593485 25318 net.cpp:148] Top shape: 24 256 7 7 (301056)
I0403 02:30:38.593526 25318 net.cpp:156] Memory required for data: 1294534080
I0403 02:30:38.593574 25318 layer_factory.hpp:77] Creating layer inception_5a/3x3_reduce
I0403 02:30:38.593636 25318 net.cpp:91] Creating Layer inception_5a/3x3_reduce
I0403 02:30:38.593677 25318 net.cpp:425] inception_5a/3x3_reduce <- pool4/3x3_s2_pool4/3x3_s2_0_split_1
I0403 02:30:38.593734 25318 net.cpp:399] inception_5a/3x3_reduce -> inception_5a/3x3_reduce
I0403 02:30:38.595551 25318 net.cpp:141] Setting up inception_5a/3x3_reduce
I0403 02:30:38.595607 25318 net.cpp:148] Top shape: 24 160 7 7 (188160)
I0403 02:30:38.595652 25318 net.cpp:156] Memory required for data: 1295286720
I0403 02:30:38.595700 25318 layer_factory.hpp:77] Creating layer inception_5a/relu_3x3_reduce
I0403 02:30:38.595737 25318 net.cpp:91] Creating Layer inception_5a/relu_3x3_reduce
I0403 02:30:38.595782 25318 net.cpp:425] inception_5a/relu_3x3_reduce <- inception_5a/3x3_reduce
I0403 02:30:38.595834 25318 net.cpp:386] inception_5a/relu_3x3_reduce -> inception_5a/3x3_reduce (in-place)
I0403 02:30:38.595880 25318 net.cpp:141] Setting up inception_5a/relu_3x3_reduce
I0403 02:30:38.595911 25318 net.cpp:148] Top shape: 24 160 7 7 (188160)
I0403 02:30:38.595938 25318 net.cpp:156] Memory required for data: 1296039360
I0403 02:30:38.595969 25318 layer_factory.hpp:77] Creating layer inception_5a/3x3
I0403 02:30:38.596015 25318 net.cpp:91] Creating Layer inception_5a/3x3
I0403 02:30:38.596056 25318 net.cpp:425] inception_5a/3x3 <- inception_5a/3x3_reduce
I0403 02:30:38.596117 25318 net.cpp:399] inception_5a/3x3 -> inception_5a/3x3
I0403 02:30:38.600838 25318 net.cpp:141] Setting up inception_5a/3x3
I0403 02:30:38.600875 25318 net.cpp:148] Top shape: 24 320 7 7 (376320)
I0403 02:30:38.600895 25318 net.cpp:156] Memory required for data: 1297544640
I0403 02:30:38.600919 25318 layer_factory.hpp:77] Creating layer inception_5a/relu_3x3
I0403 02:30:38.600941 25318 net.cpp:91] Creating Layer inception_5a/relu_3x3
I0403 02:30:38.600963 25318 net.cpp:425] inception_5a/relu_3x3 <- inception_5a/3x3
I0403 02:30:38.600988 25318 net.cpp:386] inception_5a/relu_3x3 -> inception_5a/3x3 (in-place)
I0403 02:30:38.601032 25318 net.cpp:141] Setting up inception_5a/relu_3x3
I0403 02:30:38.601055 25318 net.cpp:148] Top shape: 24 320 7 7 (376320)
I0403 02:30:38.601074 25318 net.cpp:156] Memory required for data: 1299049920
I0403 02:30:38.601099 25318 layer_factory.hpp:77] Creating layer inception_5a/5x5_reduce
I0403 02:30:38.601130 25318 net.cpp:91] Creating Layer inception_5a/5x5_reduce
I0403 02:30:38.601152 25318 net.cpp:425] inception_5a/5x5_reduce <- pool4/3x3_s2_pool4/3x3_s2_0_split_2
I0403 02:30:38.601177 25318 net.cpp:399] inception_5a/5x5_reduce -> inception_5a/5x5_reduce
I0403 02:30:38.601645 25318 net.cpp:141] Setting up inception_5a/5x5_reduce
I0403 02:30:38.601675 25318 net.cpp:148] Top shape: 24 32 7 7 (37632)
I0403 02:30:38.601696 25318 net.cpp:156] Memory required for data: 1299200448
I0403 02:30:38.601718 25318 layer_factory.hpp:77] Creating layer inception_5a/relu_5x5_reduce
I0403 02:30:38.601744 25318 net.cpp:91] Creating Layer inception_5a/relu_5x5_reduce
I0403 02:30:38.601768 25318 net.cpp:425] inception_5a/relu_5x5_reduce <- inception_5a/5x5_reduce
I0403 02:30:38.601789 25318 net.cpp:386] inception_5a/relu_5x5_reduce -> inception_5a/5x5_reduce (in-place)
I0403 02:30:38.601814 25318 net.cpp:141] Setting up inception_5a/relu_5x5_reduce
I0403 02:30:38.601836 25318 net.cpp:148] Top shape: 24 32 7 7 (37632)
I0403 02:30:38.601855 25318 net.cpp:156] Memory required for data: 1299350976
I0403 02:30:38.601872 25318 layer_factory.hpp:77] Creating layer inception_5a/5x5
I0403 02:30:38.601900 25318 net.cpp:91] Creating Layer inception_5a/5x5
I0403 02:30:38.601922 25318 net.cpp:425] inception_5a/5x5 <- inception_5a/5x5_reduce
I0403 02:30:38.601946 25318 net.cpp:399] inception_5a/5x5 -> inception_5a/5x5
I0403 02:30:38.602916 25318 net.cpp:141] Setting up inception_5a/5x5
I0403 02:30:38.602952 25318 net.cpp:148] Top shape: 24 128 7 7 (150528)
I0403 02:30:38.602972 25318 net.cpp:156] Memory required for data: 1299953088
I0403 02:30:38.602994 25318 layer_factory.hpp:77] Creating layer inception_5a/relu_5x5
I0403 02:30:38.603018 25318 net.cpp:91] Creating Layer inception_5a/relu_5x5
I0403 02:30:38.603039 25318 net.cpp:425] inception_5a/relu_5x5 <- inception_5a/5x5
I0403 02:30:38.603061 25318 net.cpp:386] inception_5a/relu_5x5 -> inception_5a/5x5 (in-place)
I0403 02:30:38.603091 25318 net.cpp:141] Setting up inception_5a/relu_5x5
I0403 02:30:38.603121 25318 net.cpp:148] Top shape: 24 128 7 7 (150528)
I0403 02:30:38.603147 25318 net.cpp:156] Memory required for data: 1300555200
I0403 02:30:38.603170 25318 layer_factory.hpp:77] Creating layer inception_5a/pool
I0403 02:30:38.603196 25318 net.cpp:91] Creating Layer inception_5a/pool
I0403 02:30:38.603229 25318 net.cpp:425] inception_5a/pool <- pool4/3x3_s2_pool4/3x3_s2_0_split_3
I0403 02:30:38.603273 25318 net.cpp:399] inception_5a/pool -> inception_5a/pool
I0403 02:30:38.603345 25318 net.cpp:141] Setting up inception_5a/pool
I0403 02:30:38.603374 25318 net.cpp:148] Top shape: 24 832 7 7 (978432)
I0403 02:30:38.603392 25318 net.cpp:156] Memory required for data: 1304468928
I0403 02:30:38.603410 25318 layer_factory.hpp:77] Creating layer inception_5a/pool_proj
I0403 02:30:38.603438 25318 net.cpp:91] Creating Layer inception_5a/pool_proj
I0403 02:30:38.603462 25318 net.cpp:425] inception_5a/pool_proj <- inception_5a/pool
I0403 02:30:38.603488 25318 net.cpp:399] inception_5a/pool_proj -> inception_5a/pool_proj
I0403 02:30:38.605103 25318 net.cpp:141] Setting up inception_5a/pool_proj
I0403 02:30:38.605139 25318 net.cpp:148] Top shape: 24 128 7 7 (150528)
I0403 02:30:38.605159 25318 net.cpp:156] Memory required for data: 1305071040
I0403 02:30:38.605193 25318 layer_factory.hpp:77] Creating layer inception_5a/relu_pool_proj
I0403 02:30:38.605231 25318 net.cpp:91] Creating Layer inception_5a/relu_pool_proj
I0403 02:30:38.605268 25318 net.cpp:425] inception_5a/relu_pool_proj <- inception_5a/pool_proj
I0403 02:30:38.605311 25318 net.cpp:386] inception_5a/relu_pool_proj -> inception_5a/pool_proj (in-place)
I0403 02:30:38.605339 25318 net.cpp:141] Setting up inception_5a/relu_pool_proj
I0403 02:30:38.605379 25318 net.cpp:148] Top shape: 24 128 7 7 (150528)
I0403 02:30:38.605398 25318 net.cpp:156] Memory required for data: 1305673152
I0403 02:30:38.605417 25318 layer_factory.hpp:77] Creating layer inception_5a/output
I0403 02:30:38.605438 25318 net.cpp:91] Creating Layer inception_5a/output
I0403 02:30:38.605459 25318 net.cpp:425] inception_5a/output <- inception_5a/1x1
I0403 02:30:38.605480 25318 net.cpp:425] inception_5a/output <- inception_5a/3x3
I0403 02:30:38.605500 25318 net.cpp:425] inception_5a/output <- inception_5a/5x5
I0403 02:30:38.605522 25318 net.cpp:425] inception_5a/output <- inception_5a/pool_proj
I0403 02:30:38.605545 25318 net.cpp:399] inception_5a/output -> inception_5a/output
I0403 02:30:38.605595 25318 net.cpp:141] Setting up inception_5a/output
I0403 02:30:38.605625 25318 net.cpp:148] Top shape: 24 832 7 7 (978432)
I0403 02:30:38.635859 25318 net.cpp:156] Memory required for data: 1309586880
I0403 02:30:38.635902 25318 layer_factory.hpp:77] Creating layer inception_5a/output_inception_5a/output_0_split
I0403 02:30:38.635939 25318 net.cpp:91] Creating Layer inception_5a/output_inception_5a/output_0_split
I0403 02:30:38.635987 25318 net.cpp:425] inception_5a/output_inception_5a/output_0_split <- inception_5a/output
I0403 02:30:38.636015 25318 net.cpp:399] inception_5a/output_inception_5a/output_0_split -> inception_5a/output_inception_5a/output_0_split_0
I0403 02:30:38.636065 25318 net.cpp:399] inception_5a/output_inception_5a/output_0_split -> inception_5a/output_inception_5a/output_0_split_1
I0403 02:30:38.636116 25318 net.cpp:399] inception_5a/output_inception_5a/output_0_split -> inception_5a/output_inception_5a/output_0_split_2
I0403 02:30:38.636147 25318 net.cpp:399] inception_5a/output_inception_5a/output_0_split -> inception_5a/output_inception_5a/output_0_split_3
I0403 02:30:38.636358 25318 net.cpp:141] Setting up inception_5a/output_inception_5a/output_0_split
I0403 02:30:38.636430 25318 net.cpp:148] Top shape: 24 832 7 7 (978432)
I0403 02:30:38.636477 25318 net.cpp:148] Top shape: 24 832 7 7 (978432)
I0403 02:30:38.636518 25318 net.cpp:148] Top shape: 24 832 7 7 (978432)
I0403 02:30:38.636559 25318 net.cpp:148] Top shape: 24 832 7 7 (978432)
I0403 02:30:38.636595 25318 net.cpp:156] Memory required for data: 1325241792
I0403 02:30:38.636632 25318 layer_factory.hpp:77] Creating layer inception_5b/1x1
I0403 02:30:38.636693 25318 net.cpp:91] Creating Layer inception_5b/1x1
I0403 02:30:38.636741 25318 net.cpp:425] inception_5b/1x1 <- inception_5a/output_inception_5a/output_0_split_0
I0403 02:30:38.636795 25318 net.cpp:399] inception_5b/1x1 -> inception_5b/1x1
I0403 02:30:38.640360 25318 net.cpp:141] Setting up inception_5b/1x1
I0403 02:30:38.640399 25318 net.cpp:148] Top shape: 24 384 7 7 (451584)
I0403 02:30:38.640419 25318 net.cpp:156] Memory required for data: 1327048128
I0403 02:30:38.640444 25318 layer_factory.hpp:77] Creating layer inception_5b/relu_1x1
I0403 02:30:38.640467 25318 net.cpp:91] Creating Layer inception_5b/relu_1x1
I0403 02:30:38.640522 25318 net.cpp:425] inception_5b/relu_1x1 <- inception_5b/1x1
I0403 02:30:38.640550 25318 net.cpp:386] inception_5b/relu_1x1 -> inception_5b/1x1 (in-place)
I0403 02:30:38.640578 25318 net.cpp:141] Setting up inception_5b/relu_1x1
I0403 02:30:38.640599 25318 net.cpp:148] Top shape: 24 384 7 7 (451584)
I0403 02:30:38.640617 25318 net.cpp:156] Memory required for data: 1328854464
I0403 02:30:38.640636 25318 layer_factory.hpp:77] Creating layer inception_5b/3x3_reduce
I0403 02:30:38.640664 25318 net.cpp:91] Creating Layer inception_5b/3x3_reduce
I0403 02:30:38.640687 25318 net.cpp:425] inception_5b/3x3_reduce <- inception_5a/output_inception_5a/output_0_split_1
I0403 02:30:38.640712 25318 net.cpp:399] inception_5b/3x3_reduce -> inception_5b/3x3_reduce
I0403 02:30:38.642706 25318 net.cpp:141] Setting up inception_5b/3x3_reduce
I0403 02:30:38.642757 25318 net.cpp:148] Top shape: 24 192 7 7 (225792)
I0403 02:30:38.642797 25318 net.cpp:156] Memory required for data: 1329757632
I0403 02:30:38.642838 25318 layer_factory.hpp:77] Creating layer inception_5b/relu_3x3_reduce
I0403 02:30:38.642882 25318 net.cpp:91] Creating Layer inception_5b/relu_3x3_reduce
I0403 02:30:38.642909 25318 net.cpp:425] inception_5b/relu_3x3_reduce <- inception_5b/3x3_reduce
I0403 02:30:38.642935 25318 net.cpp:386] inception_5b/relu_3x3_reduce -> inception_5b/3x3_reduce (in-place)
I0403 02:30:38.642979 25318 net.cpp:141] Setting up inception_5b/relu_3x3_reduce
I0403 02:30:38.643015 25318 net.cpp:148] Top shape: 24 192 7 7 (225792)
I0403 02:30:38.643049 25318 net.cpp:156] Memory required for data: 1330660800
I0403 02:30:38.643081 25318 layer_factory.hpp:77] Creating layer inception_5b/3x3
I0403 02:30:38.643112 25318 net.cpp:91] Creating Layer inception_5b/3x3
I0403 02:30:38.643136 25318 net.cpp:425] inception_5b/3x3 <- inception_5b/3x3_reduce
I0403 02:30:38.643160 25318 net.cpp:399] inception_5b/3x3 -> inception_5b/3x3
I0403 02:30:38.650013 25318 net.cpp:141] Setting up inception_5b/3x3
I0403 02:30:38.650051 25318 net.cpp:148] Top shape: 24 384 7 7 (451584)
I0403 02:30:38.650071 25318 net.cpp:156] Memory required for data: 1332467136
I0403 02:30:38.650100 25318 layer_factory.hpp:77] Creating layer inception_5b/relu_3x3
I0403 02:30:38.650125 25318 net.cpp:91] Creating Layer inception_5b/relu_3x3
I0403 02:30:38.650147 25318 net.cpp:425] inception_5b/relu_3x3 <- inception_5b/3x3
I0403 02:30:38.650169 25318 net.cpp:386] inception_5b/relu_3x3 -> inception_5b/3x3 (in-place)
I0403 02:30:38.650195 25318 net.cpp:141] Setting up inception_5b/relu_3x3
I0403 02:30:38.650218 25318 net.cpp:148] Top shape: 24 384 7 7 (451584)
I0403 02:30:38.650238 25318 net.cpp:156] Memory required for data: 1334273472
I0403 02:30:38.650255 25318 layer_factory.hpp:77] Creating layer inception_5b/5x5_reduce
I0403 02:30:38.650285 25318 net.cpp:91] Creating Layer inception_5b/5x5_reduce
I0403 02:30:38.650308 25318 net.cpp:425] inception_5b/5x5_reduce <- inception_5a/output_inception_5a/output_0_split_2
I0403 02:30:38.650336 25318 net.cpp:399] inception_5b/5x5_reduce -> inception_5b/5x5_reduce
I0403 02:30:38.651715 25318 net.cpp:141] Setting up inception_5b/5x5_reduce
I0403 02:30:38.651751 25318 net.cpp:148] Top shape: 24 48 7 7 (56448)
I0403 02:30:38.651770 25318 net.cpp:156] Memory required for data: 1334499264
I0403 02:30:38.651793 25318 layer_factory.hpp:77] Creating layer inception_5b/relu_5x5_reduce
I0403 02:30:38.651818 25318 net.cpp:91] Creating Layer inception_5b/relu_5x5_reduce
I0403 02:30:38.651893 25318 net.cpp:425] inception_5b/relu_5x5_reduce <- inception_5b/5x5_reduce
I0403 02:30:38.651923 25318 net.cpp:386] inception_5b/relu_5x5_reduce -> inception_5b/5x5_reduce (in-place)
I0403 02:30:38.651950 25318 net.cpp:141] Setting up inception_5b/relu_5x5_reduce
I0403 02:30:38.651973 25318 net.cpp:148] Top shape: 24 48 7 7 (56448)
I0403 02:30:38.651991 25318 net.cpp:156] Memory required for data: 1334725056
I0403 02:30:38.652009 25318 layer_factory.hpp:77] Creating layer inception_5b/5x5
I0403 02:30:38.652039 25318 net.cpp:91] Creating Layer inception_5b/5x5
I0403 02:30:38.652062 25318 net.cpp:425] inception_5b/5x5 <- inception_5b/5x5_reduce
I0403 02:30:38.652096 25318 net.cpp:399] inception_5b/5x5 -> inception_5b/5x5
I0403 02:30:38.653518 25318 net.cpp:141] Setting up inception_5b/5x5
I0403 02:30:38.653550 25318 net.cpp:148] Top shape: 24 128 7 7 (150528)
I0403 02:30:38.653569 25318 net.cpp:156] Memory required for data: 1335327168
I0403 02:30:38.653594 25318 layer_factory.hpp:77] Creating layer inception_5b/relu_5x5
I0403 02:30:38.653620 25318 net.cpp:91] Creating Layer inception_5b/relu_5x5
I0403 02:30:38.653642 25318 net.cpp:425] inception_5b/relu_5x5 <- inception_5b/5x5
I0403 02:30:38.653666 25318 net.cpp:386] inception_5b/relu_5x5 -> inception_5b/5x5 (in-place)
I0403 02:30:38.653689 25318 net.cpp:141] Setting up inception_5b/relu_5x5
I0403 02:30:38.653712 25318 net.cpp:148] Top shape: 24 128 7 7 (150528)
I0403 02:30:38.653729 25318 net.cpp:156] Memory required for data: 1335929280
I0403 02:30:38.653748 25318 layer_factory.hpp:77] Creating layer inception_5b/pool
I0403 02:30:38.653770 25318 net.cpp:91] Creating Layer inception_5b/pool
I0403 02:30:38.653815 25318 net.cpp:425] inception_5b/pool <- inception_5a/output_inception_5a/output_0_split_3
I0403 02:30:38.653841 25318 net.cpp:399] inception_5b/pool -> inception_5b/pool
I0403 02:30:38.653910 25318 net.cpp:141] Setting up inception_5b/pool
I0403 02:30:38.653944 25318 net.cpp:148] Top shape: 24 832 7 7 (978432)
I0403 02:30:38.653964 25318 net.cpp:156] Memory required for data: 1339843008
I0403 02:30:38.653982 25318 layer_factory.hpp:77] Creating layer inception_5b/pool_proj
I0403 02:30:38.654008 25318 net.cpp:91] Creating Layer inception_5b/pool_proj
I0403 02:30:38.654029 25318 net.cpp:425] inception_5b/pool_proj <- inception_5b/pool
I0403 02:30:38.654057 25318 net.cpp:399] inception_5b/pool_proj -> inception_5b/pool_proj
I0403 02:30:38.655678 25318 net.cpp:141] Setting up inception_5b/pool_proj
I0403 02:30:38.655730 25318 net.cpp:148] Top shape: 24 128 7 7 (150528)
I0403 02:30:38.655760 25318 net.cpp:156] Memory required for data: 1340445120
I0403 02:30:38.655796 25318 layer_factory.hpp:77] Creating layer inception_5b/relu_pool_proj
I0403 02:30:38.655835 25318 net.cpp:91] Creating Layer inception_5b/relu_pool_proj
I0403 02:30:38.655876 25318 net.cpp:425] inception_5b/relu_pool_proj <- inception_5b/pool_proj
I0403 02:30:38.655946 25318 net.cpp:386] inception_5b/relu_pool_proj -> inception_5b/pool_proj (in-place)
I0403 02:30:38.656009 25318 net.cpp:141] Setting up inception_5b/relu_pool_proj
I0403 02:30:38.656059 25318 net.cpp:148] Top shape: 24 128 7 7 (150528)
I0403 02:30:38.656095 25318 net.cpp:156] Memory required for data: 1341047232
I0403 02:30:38.656136 25318 layer_factory.hpp:77] Creating layer inception_5b/output
I0403 02:30:38.656177 25318 net.cpp:91] Creating Layer inception_5b/output
I0403 02:30:38.656213 25318 net.cpp:425] inception_5b/output <- inception_5b/1x1
I0403 02:30:38.656251 25318 net.cpp:425] inception_5b/output <- inception_5b/3x3
I0403 02:30:38.656286 25318 net.cpp:425] inception_5b/output <- inception_5b/5x5
I0403 02:30:38.656322 25318 net.cpp:425] inception_5b/output <- inception_5b/pool_proj
I0403 02:30:38.656363 25318 net.cpp:399] inception_5b/output -> inception_5b/output
I0403 02:30:38.656440 25318 net.cpp:141] Setting up inception_5b/output
I0403 02:30:38.656499 25318 net.cpp:148] Top shape: 24 1024 7 7 (1204224)
I0403 02:30:38.656533 25318 net.cpp:156] Memory required for data: 1345864128
I0403 02:30:38.656564 25318 layer_factory.hpp:77] Creating layer pool5/7x7_s1
I0403 02:30:38.656599 25318 net.cpp:91] Creating Layer pool5/7x7_s1
I0403 02:30:38.656635 25318 net.cpp:425] pool5/7x7_s1 <- inception_5b/output
I0403 02:30:38.656674 25318 net.cpp:399] pool5/7x7_s1 -> pool5/7x7_s1
I0403 02:30:38.656738 25318 net.cpp:141] Setting up pool5/7x7_s1
I0403 02:30:38.656782 25318 net.cpp:148] Top shape: 24 1024 1 1 (24576)
I0403 02:30:38.656812 25318 net.cpp:156] Memory required for data: 1345962432
I0403 02:30:38.656843 25318 layer_factory.hpp:77] Creating layer pool5/drop_7x7_s1
I0403 02:30:38.656883 25318 net.cpp:91] Creating Layer pool5/drop_7x7_s1
I0403 02:30:38.656919 25318 net.cpp:425] pool5/drop_7x7_s1 <- pool5/7x7_s1
I0403 02:30:38.656998 25318 net.cpp:386] pool5/drop_7x7_s1 -> pool5/7x7_s1 (in-place)
I0403 02:30:38.657073 25318 net.cpp:141] Setting up pool5/drop_7x7_s1
I0403 02:30:38.657135 25318 net.cpp:148] Top shape: 24 1024 1 1 (24576)
I0403 02:30:38.657234 25318 net.cpp:156] Memory required for data: 1346060736
I0403 02:30:38.657333 25318 layer_factory.hpp:77] Creating layer loss3/classifier_plantvillage
I0403 02:30:38.657388 25318 net.cpp:91] Creating Layer loss3/classifier_plantvillage
I0403 02:30:38.657430 25318 net.cpp:425] loss3/classifier_plantvillage <- pool5/7x7_s1
I0403 02:30:38.657479 25318 net.cpp:399] loss3/classifier_plantvillage -> loss3/classifier_plantvillage
I0403 02:30:38.657964 25318 net.cpp:141] Setting up loss3/classifier_plantvillage
I0403 02:30:38.658010 25318 net.cpp:148] Top shape: 24 38 (912)
I0403 02:30:38.658049 25318 net.cpp:156] Memory required for data: 1346064384
I0403 02:30:38.658193 25318 layer_factory.hpp:77] Creating layer loss3/classifier_plantvillage_loss3/classifier_plantvillage_0_split
I0403 02:30:38.658267 25318 net.cpp:91] Creating Layer loss3/classifier_plantvillage_loss3/classifier_plantvillage_0_split
I0403 02:30:38.658313 25318 net.cpp:425] loss3/classifier_plantvillage_loss3/classifier_plantvillage_0_split <- loss3/classifier_plantvillage
I0403 02:30:38.658349 25318 net.cpp:399] loss3/classifier_plantvillage_loss3/classifier_plantvillage_0_split -> loss3/classifier_plantvillage_loss3/classifier_plantvillage_0_split_0
I0403 02:30:38.658455 25318 net.cpp:399] loss3/classifier_plantvillage_loss3/classifier_plantvillage_0_split -> loss3/classifier_plantvillage_loss3/classifier_plantvillage_0_split_1
I0403 02:30:38.658509 25318 net.cpp:399] loss3/classifier_plantvillage_loss3/classifier_plantvillage_0_split -> loss3/classifier_plantvillage_loss3/classifier_plantvillage_0_split_2
I0403 02:30:38.658668 25318 net.cpp:141] Setting up loss3/classifier_plantvillage_loss3/classifier_plantvillage_0_split
I0403 02:30:38.658723 25318 net.cpp:148] Top shape: 24 38 (912)
I0403 02:30:38.658757 25318 net.cpp:148] Top shape: 24 38 (912)
I0403 02:30:38.658793 25318 net.cpp:148] Top shape: 24 38 (912)
I0403 02:30:38.658825 25318 net.cpp:156] Memory required for data: 1346075328
I0403 02:30:38.658859 25318 layer_factory.hpp:77] Creating layer loss1/loss
I0403 02:30:38.658895 25318 net.cpp:91] Creating Layer loss1/loss
I0403 02:30:38.658933 25318 net.cpp:425] loss1/loss <- loss1/classifier_plantvillage_loss1/classifier_plantvillage_0_split_0
I0403 02:30:38.658970 25318 net.cpp:425] loss1/loss <- label_data_1_split_0
…
