…
I0403 04:35:04.819886 25961 net.cpp:313] The NetState phase (0) differed from the phase (1) specified by a rule in layer loss3/top-5
I0403 04:35:04.823722 25961 net.cpp:49] Initializing net from parameters: 
state {
  phase: TRAIN
}
layer {
  name: "data"
  type: "Data"
  top: "data"
  top: "label"
  include {
    phase: TRAIN
  }
  transform_param {
    mirror: true
    crop_size: 224
    mean_file: "/home/mohanty/data/final_dataset/lmdb/segmented-40-60/mean.binaryproto"
  }
  data_param {
    source: "/home/mohanty/data/final_dataset/lmdb/segmented-40-60/train_db"
    batch_size: 24
    backend: LMDB
  }
}
layer {
  name: "conv1/7x7_s2"
  type: "Convolution"
  bottom: "data"
  top: "conv1/7x7_s2"
  param {
    lr_mult: 1
    decay_mult: 1
  }
  param {
    lr_mult: 2
    decay_mult: 0
  }
  convolution_param {
    num_output: 64
    pad: 3
    kernel_size: 7
    stride: 2
    weight_filler {
      type: "xavier"
      std: 0.1
    }
    bias_filler {
      type: "constant"
      value: 0.2
    }
  }
}
layer {
  name: "conv1/relu_7x7"
  type: "ReLU"
  bottom: "conv1/7x7_s2"
  top: "conv1/7x7_s2"
}
layer {
  name: "pool1/3x3_s2"
  type: "Pooling"
  bottom: "conv1/7x7_s2"
  top: "pool1/3x3_s2"
  pooling_param {
    pool: MAX
    kernel_size: 3
    stride: 2
  }
}
layer {
  name: "pool1/norm1"
  type: "LRN"
  bottom: "pool1/3x3_s2"
  top: "pool1/norm1"
  lrn_param {
    local_size: 5
    alpha: 0.0001
    beta: 0.75
  }
}
layer {
  name: "conv2/3x3_reduce"
  type: "Convolution"
  bottom: "pool1/norm1"
  top: "conv2/3x3_reduce"
  param {
    lr_mult: 1
    decay_mult: 1
  }
  param {
    lr_mult: 2
    decay_mult: 0
  }
  convolution_param {
    num_output: 64
    kernel_size: 1
    weight_filler {
      type: "xavier"
      std: 0.1
    }
    bias_filler {
      type: "constant"
      value: 0.2
    }
  }
}
layer {
  name: "conv2/relu_3x3_reduce"
  type: "ReLU"
  bottom: "conv2/3x3_reduce"
  top: "conv2/3x3_reduce"
}
layer {
  name: "conv2/3x3"
  type: "Convolution"
  bottom: "conv2/3x3_reduce"
  top: "conv2/3x3"
  param {
    lr_mult: 1
    decay_mult: 1
  }
  param {
    lr_mult: 2
    decay_mult: 0
  }
  convolution_param {
    num_output: 192
    pad: 1
    kernel_size: 3
    weight_filler {
      type: "xavier"
      std: 0.03
    }
    bias_filler {
      type: "constant"
      value: 0.2
    }
  }
}
layer {
  name: "conv2/relu_3x3"
  type: "ReLU"
  bottom: "conv2/3x3"
  top: "conv2/3x3"
}
layer {
  name: "conv2/norm2"
  type: "LRN"
  bottom: "conv2/3x3"
  top: "conv2/norm2"
  lrn_param {
    local_size: 5
    alpha: 0.0001
    beta: 0.75
  }
}
layer {
  name: "pool2/3x3_s2"
  type: "Pooling"
  bottom: "conv2/norm2"
  top: "pool2/3x3_s2"
  pooling_param {
    pool: MAX
    kernel_size: 3
    stride: 2
  }
}
layer {
  name: "inception_3a/1x1"
  type: "Convolution"
  bottom: "pool2/3x3_s2"
  top: "inception_3a/1x1"
  param {
    lr_mult: 1
    decay_mult: 1
  }
  param {
    lr_mult: 2
    decay_mult: 0
  }
  convolution_param {
    num_output: 64
    kernel_size: 1
    weight_filler {
      type: "xavier"
      std: 0.03
    }
    bias_filler {
      type: "constant"
      value: 0.2
    }
  }
}
layer {
  name: "inception_3a/relu_1x1"
  type: "ReLU"
  bottom: "inception_3a/1x1"
  top: "inception_3a/1x1"
}
layer {
  name: "inception_3a/3x3_reduce"
  type: "Convolution"
  bottom: "pool2/3x3_s2"
  top: "inception_3a/3x3_reduce"
  param {
    lr_mult: 1
    decay_mult: 1
  }
  param {
    lr_mult: 2
    decay_mult: 0
  }
  convolution_param {
    num_output: 96
    kernel_size: 1
    weight_filler {
      type: "xavier"
      std: 0.09
    }
    bias_filler {
      type: "constant"
      value: 0.2
    }
  }
}
layer {
  name: "inception_3a/relu_3x3_reduce"
  type: "ReLU"
  bottom: "inception_3a/3x3_reduce"
  top: "inception_3a/3x3_reduce"
}
layer {
  name: "inception_3a/3x3"
  type: "Convolution"
  bottom: "inception_3a/3x3_reduce"
  top: "inception_3a/3x3"
  param {
    lr_mult: 1
    decay_mult: 1
  }
  param {
    lr_mult: 2
    decay_mult: 0
  }
  convolution_param {
    num_output: 128
    pad: 1
    kernel_size: 3
    weight_filler {
      type: "xavier"
      std: 0.03
    }
    bias_filler {
      type: "constant"
      value: 0.2
    }
  }
}
layer {
  name: "inception_3a/relu_3x3"
  type: "ReLU"
  bottom: "inception_3a/3x3"
  top: "inception_3a/3x3"
}
layer {
  name: "inception_3a/5x5_reduce"
  type: "Convolution"
  bottom: "pool2/3x3_s2"
  top: "inception_3a/5x5_reduce"
  param {
    lr_mult: 1
    decay_mult: 1
  }
  param {
    lr_mult: 2
    decay_mult: 0
  }
  convolution_param {
    num_output: 16
    kernel_size: 1
    weight_filler {
      type: "xavier"
      std: 0.2
    }
    bias_filler {
      type: "constant"
      value: 0.2
    }
  }
}
layer {
  name: "inception_3a/relu_5x5_reduce"
  type: "ReLU"
  bottom: "inception_3a/5x5_reduce"
  top: "inception_3a/5x5_reduce"
}
layer {
  name: "inception_3a/5x5"
  type: "Convolution"
  bottom: "inception_3a/5x5_reduce"
  top: "inception_3a/5x5"
  param {
    lr_mult: 1
    decay_mult: 1
  }
  param {
    lr_mult: 2
    decay_mult: 0
  }
  convolution_param {
    num_output: 32
    pad: 2
    kernel_size: 5
    weight_filler {
      type: "xavier"
      std: 0.03
    }
    bias_filler {
      type: "constant"
      value: 0.2
    }
  }
}
layer {
  name: "inception_3a/relu_5x5"
  type: "ReLU"
  bottom: "inception_3a/5x5"
  top: "inception_3a/5x5"
}
layer {
  name: "inception_3a/pool"
  type: "Pooling"
  bottom: "pool2/3x3_s2"
  top: "inception_3a/pool"
  pooling_param {
    pool: MAX
    kernel_size: 3
    stride: 1
    pad: 1
  }
}
layer {
  name: "inception_3a/pool_proj"
  type: "Convolution"
  bottom: "inception_3a/pool"
  top: "inception_3a/pool_proj"
  param {
    lr_mult: 1
    decay_mult: 1
  }
  param {
    lr_mult: 2
    decay_mult: 0
  }
  convolution_param {
    num_output: 32
    kernel_size: 1
    weight_filler {
      type: "xavier"
      std: 0.1
    }
    bias_filler {
      type: "constant"
      value: 0.2
    }
  }
}
layer {
  name: "inception_3a/relu_pool_proj"
  type: "ReLU"
  bottom: "inception_3a/pool_proj"
  top: "inception_3a/pool_proj"
}
layer {
  name: "inception_3a/output"
  type: "Concat"
  bottom: "inception_3a/1x1"
  bottom: "inception_3a/3x3"
  bottom: "inception_3a/5x5"
  bottom: "inception_3a/pool_proj"
  top: "inception_3a/output"
}
layer {
  name: "inception_3b/1x1"
  type: "Convolution"
  bottom: "inception_3a/output"
  top: "inception_3b/1x1"
  param {
    lr_mult: 1
    decay_mult: 1
  }
  param {
    lr_mult: 2
    decay_mult: 0
  }
  convolution_param {
    num_output: 128
    kernel_size: 1
    weight_filler {
      type: "xavier"
      std: 0.03
    }
    bias_filler {
      type: "constant"
      value: 0.2
    }
  }
}
layer {
  name: "inception_3b/relu_1x1"
  type: "ReLU"
  bottom: "inception_3b/1x1"
  top: "inception_3b/1x1"
}
layer {
  name: "inception_3b/3x3_reduce"
  type: "Convolution"
  bottom: "inception_3a/output"
  top: "inception_3b/3x3_reduce"
  param {
    lr_mult: 1
    decay_mult: 1
  }
  param {
    lr_mult: 2
    decay_mult: 0
  }
  convolution_param {
    num_output: 128
    kernel_size: 1
    weight_filler {
      type: "xavier"
      std: 0.09
    }
    bias_filler {
      type: "constant"
      value: 0.2
    }
  }
}
layer {
  name: "inception_3b/relu_3x3_reduce"
  type: "ReLU"
  bottom: "inception_3b/3x3_reduce"
  top: "inception_3b/3x3_reduce"
}
layer {
  name: "inception_3b/3x3"
  type: "Convolution"
  bottom: "inception_3b/3x3_reduce"
  top: "inception_3b/3x3"
  param {
    lr_mult: 1
    decay_mult: 1
  }
  param {
    lr_mult: 2
    decay_mult: 0
  }
  convolution_param {
    num_output: 192
    pad: 1
    kernel_size: 3
    weight_filler {
      type: "xavier"
      std: 0.03
    }
    bias_filler {
      type: "constant"
      value: 0.2
    }
  }
}
layer {
  name: "inception_3b/relu_3x3"
  type: "ReLU"
  bottom: "inception_3b/3x3"
  top: "inception_3b/3x3"
}
layer {
  name: "inception_3b/5x5_reduce"
  type: "Convolution"
  bottom: "inception_3a/output"
  top: "inception_3b/5x5_reduce"
  param {
    lr_mult: 1
    decay_mult: 1
  }
  param {
    lr_mult: 2
    decay_mult: 0
  }
  convolution_param {
    num_output: 32
    kernel_size: 1
    weight_filler {
      type: "xavier"
      std: 0.2
    }
    bias_filler {
      type: "constant"
      value: 0.2
    }
  }
}
layer {
  name: "inception_3b/relu_5x5_reduce"
  type: "ReLU"
  bottom: "inception_3b/5x5_reduce"
  top: "inception_3b/5x5_reduce"
}
layer {
  name: "inception_3b/5x5"
  type: "Convolution"
  bottom: "inception_3b/5x5_reduce"
  top: "inception_3b/5x5"
  param {
    lr_mult: 1
    decay_mult: 1
  }
  param {
    lr_mult: 2
    decay_mult: 0
  }
  convolution_param {
    num_output: 96
    pad: 2
    kernel_size: 5
    weight_filler {
      type: "xavier"
      std: 0.03
    }
    bias_filler {
      type: "constant"
      value: 0.2
    }
  }
}
layer {
  name: "inception_3b/relu_5x5"
  type: "ReLU"
  bottom: "inception_3b/5x5"
  top: "inception_3b/5x5"
}
layer {
  name: "inception_3b/pool"
  type: "Pooling"
  bottom: "inception_3a/output"
  top: "inception_3b/pool"
  pooling_param {
    pool: MAX
    kernel_size: 3
    stride: 1
    pad: 1
  }
}
layer {
  name: "inception_3b/pool_proj"
  type: "Convolution"
  bottom: "inception_3b/pool"
  top: "inception_3b/pool_proj"
  param {
    lr_mult: 1
    decay_mult: 1
  }
  param {
    lr_mult: 2
    decay_mult: 0
  }
  convolution_param {
    num_output: 64
    kernel_size: 1
    weight_filler {
      type: "xavier"
      std: 0.1
    }
    bias_filler {
      type: "constant"
      value: 0.2
    }
  }
}
layer {
  name: "inception_3b/relu_pool_proj"
  type: "ReLU"
  bottom: "inception_3b/pool_proj"
  top: "inception_3b/pool_proj"
}
layer {
  name: "inception_3b/output"
  type: "Concat"
  bottom: "inception_3b/1x1"
  bottom: "inception_3b/3x3"
  bottom: "inception_3b/5x5"
  bottom: "inception_3b/pool_proj"
  top: "inception_3b/output"
}
layer {
  name: "pool3/3x3_s2"
  type: "Pooling"
  bottom: "inception_3b/output"
  top: "pool3/3x3_s2"
  pooling_param {
    pool: MAX
    kernel_size: 3
    stride: 2
  }
}
layer {
  name: "inception_4a/1x1"
  type: "Convolution"
  bottom: "pool3/3x3_s2"
  top: "inception_4a/1x1"
  param {
    lr_mult: 1
    decay_mult: 1
  }
  param {
    lr_mult: 2
    decay_mult: 0
  }
  convolution_param {
    num_output: 192
    kernel_size: 1
    weight_filler {
      type: "xavier"
      std: 0.03
    }
    bias_filler {
      type: "constant"
      value: 0.2
    }
  }
}
layer {
  name: "inception_4a/relu_1x1"
  type: "ReLU"
  bottom: "inception_4a/1x1"
  top: "inception_4a/1x1"
}
layer {
  name: "inception_4a/3x3_reduce"
  type: "Convolution"
  bottom: "pool3/3x3_s2"
  top: "inception_4a/3x3_reduce"
  param {
    lr_mult: 1
    decay_mult: 1
  }
  param {
    lr_mult: 2
    decay_mult: 0
  }
  convolution_param {
    num_output: 96
    kernel_size: 1
    weight_filler {
      type: "xavier"
      std: 0.09
    }
    bias_filler {
      type: "constant"
      value: 0.2
    }
  }
}
layer {
  name: "inception_4a/relu_3x3_reduce"
  type: "ReLU"
  bottom: "inception_4a/3x3_reduce"
  top: "inception_4a/3x3_reduce"
}
layer {
  name: "inception_4a/3x3"
  type: "Convolution"
  bottom: "inception_4a/3x3_reduce"
  top: "inception_4a/3x3"
  param {
    lr_mult: 1
    decay_mult: 1
  }
  param {
    lr_mult: 2
    decay_mult: 0
  }
  convolution_param {
    num_output: 208
    pad: 1
    kernel_size: 3
    weight_filler {
      type: "xavier"
      std: 0.03
    }
    bias_filler {
      type: "constant"
      value: 0.2
    }
  }
}
layer {
  name: "inception_4a/relu_3x3"
  type: "ReLU"
  bottom: "inception_4a/3x3"
  top: "inception_4a/3x3"
}
layer {
  name: "inception_4a/5x5_reduce"
  type: "Convolution"
  bottom: "pool3/3x3_s2"
  top: "inception_4a/5x5_reduce"
  param {
    lr_mult: 1
    decay_mult: 1
  }
  param {
    lr_mult: 2
    decay_mult: 0
  }
  convolution_param {
    num_output: 16
    kernel_size: 1
    weight_filler {
      type: "xavier"
      std: 0.2
    }
    bias_filler {
      type: "constant"
      value: 0.2
    }
  }
}
layer {
  name: "inception_4a/relu_5x5_reduce"
  type: "ReLU"
  bottom: "inception_4a/5x5_reduce"
  top: "inception_4a/5x5_reduce"
}
layer {
  name: "inception_4a/5x5"
  type: "Convolution"
  bottom: "inception_4a/5x5_reduce"
  top: "inception_4a/5x5"
  param {
    lr_mult: 1
    decay_mult: 1
  }
  param {
    lr_mult: 2
    decay_mult: 0
  }
  convolution_param {
    num_output: 48
    pad: 2
    kernel_size: 5
    weight_filler {
      type: "xavier"
      std: 0.03
    }
    bias_filler {
      type: "constant"
      value: 0.2
    }
  }
}
layer {
  name: "inception_4a/relu_5x5"
  type: "ReLU"
  bottom: "inception_4a/5x5"
  top: "inception_4a/5x5"
}
layer {
  name: "inception_4a/pool"
  type: "Pooling"
  bottom: "pool3/3x3_s2"
  top: "inception_4a/pool"
  pooling_param {
    pool: MAX
    kernel_size: 3
    stride: 1
    pad: 1
  }
}
layer {
  name: "inception_4a/pool_proj"
  type: "Convolution"
  bottom: "inception_4a/pool"
  top: "inception_4a/pool_proj"
  param {
    lr_mult: 1
    decay_mult: 1
  }
  param {
    lr_mult: 2
    decay_mult: 0
  }
  convolution_param {
    num_output: 64
    kernel_size: 1
    weight_filler {
      type: "xavier"
      std: 0.1
    }
    bias_filler {
      type: "constant"
      value: 0.2
    }
  }
}
layer {
  name: "inception_4a/relu_pool_proj"
  type: "ReLU"
  bottom: "inception_4a/pool_proj"
  top: "inception_4a/pool_proj"
}
layer {
  name: "inception_4a/output"
  type: "Concat"
  bottom: "inception_4a/1x1"
  bottom: "inception_4a/3x3"
  bottom: "inception_4a/5x5"
  bottom: "inception_4a/pool_proj"
  top: "inception_4a/output"
}
layer {
  name: "loss1/ave_pool"
  type: "Pooling"
  bottom: "inception_4a/output"
  top: "loss1/ave_pool"
  pooling_param {
    pool: AVE
    kernel_size: 5
    stride: 3
  }
}
layer {
  name: "loss1/conv"
  type: "Convolution"
  bottom: "loss1/ave_pool"
  top: "loss1/conv"
  param {
    lr_mult: 1
    decay_mult: 1
  }
  param {
    lr_mult: 2
    decay_mult: 0
  }
  convolution_param {
    num_output: 128
    kernel_size: 1
    weight_filler {
      type: "xavier"
      std: 0.08
    }
    bias_filler {
      type: "constant"
      value: 0.2
    }
  }
}
layer {
  name: "loss1/relu_conv"
  type: "ReLU"
  bottom: "loss1/conv"
  top: "loss1/conv"
}
layer {
  name: "loss1/fc"
  type: "InnerProduct"
  bottom: "loss1/conv"
  top: "loss1/fc"
  param {
    lr_mult: 1
    decay_mult: 1
  }
  param {
    lr_mult: 2
    decay_mult: 0
  }
  inner_product_param {
    num_output: 1024
    weight_filler {
      type: "xavier"
      std: 0.02
    }
    bias_filler {
      type: "constant"
      value: 0.2
    }
  }
}
layer {
  name: "loss1/relu_fc"
  type: "ReLU"
  bottom: "loss1/fc"
  top: "loss1/fc"
}
layer {
  name: "loss1/drop_fc"
  type: "Dropout"
  bottom: "loss1/fc"
  top: "loss1/fc"
  dropout_param {
    dropout_ratio: 0.7
  }
}
layer {
  name: "loss1/classifier_plantvillage"
  type: "InnerProduct"
  bottom: "loss1/fc"
  top: "loss1/classifier_plantvillage"
  param {
    lr_mult: 1
    decay_mult: 1
  }
  param {
    lr_mult: 2
    decay_mult: 0
  }
  inner_product_param {
    num_output: 38
    weight_filler {
      type: "xavier"
      std: 0.0009765625
    }
    bias_filler {
      type: "constant"
      value: 0
    }
  }
}
layer {
  name: "inception_4b/1x1"
  type: "Convolution"
  bottom: "inception_4a/output"
  top: "inception_4b/1x1"
  param {
    lr_mult: 1
    decay_mult: 1
  }
  param {
    lr_mult: 2
    decay_mult: 0
  }
  convolution_param {
    num_output: 160
    kernel_size: 1
    weight_filler {
      type: "xavier"
      std: 0.03
    }
    bias_filler {
      type: "constant"
      value: 0.2
    }
  }
}
layer {
  name: "inception_4b/relu_1x1"
  type: "ReLU"
  bottom: "inception_4b/1x1"
  top: "inception_4b/1x1"
}
layer {
  name: "inception_4b/3x3_reduce"
  type: "Convolution"
  bottom: "inception_4a/output"
  top: "inception_4b/3x3_reduce"
  param {
    lr_mult: 1
    decay_mult: 1
  }
  param {
    lr_mult: 2
    decay_mult: 0
  }
  convolution_param {
    num_output: 112
    kernel_size: 1
    weight_filler {
      type: "xavier"
      std: 0.09
    }
    bias_filler {
      type: "constant"
      value: 0.2
    }
  }
}
layer {
  name: "inception_4b/relu_3x3_reduce"
  type: "ReLU"
  bottom: "inception_4b/3x3_reduce"
  top: "inception_4b/3x3_reduce"
}
layer {
  name: "inception_4b/3x3"
  type: "Convolution"
  bottom: "inception_4b/3x3_reduce"
  top: "inception_4b/3x3"
  param {
    lr_mult: 1
    decay_mult: 1
  }
  param {
    lr_mult: 2
    decay_mult: 0
  }
  convolution_param {
    num_output: 224
    pad: 1
    kernel_size: 3
    weight_filler {
      type: "xavier"
      std: 0.03
    }
    bias_filler {
      type: "constant"
      value: 0.2
    }
  }
}
layer {
  name: "inception_4b/relu_3x3"
  type: "ReLU"
  bottom: "inception_4b/3x3"
  top: "inception_4b/3x3"
}
layer {
  name: "inception_4b/5x5_reduce"
  type: "Convolution"
  bottom: "inception_4a/output"
  top: "inception_4b/5x5_reduce"
  param {
    lr_mult: 1
    decay_mult: 1
  }
  param {
    lr_mult: 2
    decay_mult: 0
  }
  convolution_param {
    num_output: 24
    kernel_size: 1
    weight_filler {
      type: "xavier"
      std: 0.2
    }
    bias_filler {
      type: "constant"
      value: 0.2
    }
  }
}
layer {
  name: "inception_4b/relu_5x5_reduce"
  type: "ReLU"
  bottom: "inception_4b/5x5_reduce"
  top: "inception_4b/5x5_reduce"
}
layer {
  name: "inception_4b/5x5"
  type: "Convolution"
  bottom: "inception_4b/5x5_reduce"
  top: "inception_4b/5x5"
  param {
    lr_mult: 1
    decay_mult: 1
  }
  param {
    lr_mult: 2
    decay_mult: 0
  }
  convolution_param {
    num_output: 64
    pad: 2
    kernel_size: 5
    weight_filler {
      type: "xavier"
      std: 0.03
    }
    bias_filler {
      type: "constant"
      value: 0.2
    }
  }
}
layer {
  name: "inception_4b/relu_5x5"
  type: "ReLU"
  bottom: "inception_4b/5x5"
  top: "inception_4b/5x5"
}
layer {
  name: "inception_4b/pool"
  type: "Pooling"
  bottom: "inception_4a/output"
  top: "inception_4b/pool"
  pooling_param {
    pool: MAX
    kernel_size: 3
    stride: 1
    pad: 1
  }
}
layer {
  name: "inception_4b/pool_proj"
  type: "Convolution"
  bottom: "inception_4b/pool"
  top: "inception_4b/pool_proj"
  param {
    lr_mult: 1
    decay_mult: 1
  }
  param {
    lr_mult: 2
    decay_mult: 0
  }
  convolution_param {
    num_output: 64
    kernel_size: 1
    weight_filler {
      type: "xavier"
      std: 0.1
    }
    bias_filler {
      type: "constant"
      value: 0.2
    }
  }
}
layer {
  name: "inception_4b/relu_pool_proj"
  type: "ReLU"
  bottom: "inception_4b/pool_proj"
  top: "inception_4b/pool_proj"
}
layer {
  name: "inception_4b/output"
  type: "Concat"
  bottom: "inception_4b/1x1"
  bottom: "inception_4b/3x3"
  bottom: "inception_4b/5x5"
  bottom: "inception_4b/pool_proj"
  top: "inception_4b/output"
}
layer {
  name: "inception_4c/1x1"
  type: "Convolution"
  bottom: "inception_4b/output"
  top: "inception_4c/1x1"
  param {
    lr_mult: 1
    decay_mult: 1
  }
  param {
    lr_mult: 2
    decay_mult: 0
  }
  convolution_param {
    num_output: 128
    kernel_size: 1
    weight_filler {
      type: "xavier"
      std: 0.03
    }
    bias_filler {
      type: "constant"
      value: 0.2
    }
  }
}
layer {
  name: "inception_4c/relu_1x1"
  type: "ReLU"
  bottom: "inception_4c/1x1"
  top: "inception_4c/1x1"
}
layer {
  name: "inception_4c/3x3_reduce"
  type: "Convolution"
  bottom: "inception_4b/output"
  top: "inception_4c/3x3_reduce"
  param {
    lr_mult: 1
    decay_mult: 1
  }
  param {
    lr_mult: 2
    decay_mult: 0
  }
  convolution_param {
    num_output: 128
    kernel_size: 1
    weight_filler {
      type: "xavier"
      std: 0.09
    }
    bias_filler {
      type: "constant"
      value: 0.2
    }
  }
}
layer {
  name: "inception_4c/relu_3x3_reduce"
  type: "ReLU"
  bottom: "inception_4c/3x3_reduce"
  top: "inception_4c/3x3_reduce"
}
layer {
  name: "inception_4c/3x3"
  type: "Convolution"
  bottom: "inception_4c/3x3_reduce"
  top: "inception_4c/3x3"
  param {
    lr_mult: 1
    decay_mult: 1
  }
  param {
    lr_mult: 2
    decay_mult: 0
  }
  convolution_param {
    num_output: 256
    pad: 1
    kernel_size: 3
    weight_filler {
      type: "xavier"
      std: 0.03
    }
    bias_filler {
      type: "constant"
      value: 0.2
    }
  }
}
layer {
  name: "inception_4c/relu_3x3"
  type: "ReLU"
  bottom: "inception_4c/3x3"
  top: "inception_4c/3x3"
}
layer {
  name: "inception_4c/5x5_reduce"
  type: "Convolution"
  bottom: "inception_4b/output"
  top: "inception_4c/5x5_reduce"
  param {
    lr_mult: 1
    decay_mult: 1
  }
  param {
    lr_mult: 2
    decay_mult: 0
  }
  convolution_param {
    num_output: 24
    kernel_size: 1
    weight_filler {
      type: "xavier"
      std: 0.2
    }
    bias_filler {
      type: "constant"
      value: 0.2
    }
  }
}
layer {
  name: "inception_4c/relu_5x5_reduce"
  type: "ReLU"
  bottom: "inception_4c/5x5_reduce"
  top: "inception_4c/5x5_reduce"
}
layer {
  name: "inception_4c/5x5"
  type: "Convolution"
  bottom: "inception_4c/5x5_reduce"
  top: "inception_4c/5x5"
  param {
    lr_mult: 1
    decay_mult: 1
  }
  param {
    lr_mult: 2
    decay_mult: 0
  }
  convolution_param {
    num_output: 64
    pad: 2
    kernel_size: 5
    weight_filler {
      type: "xavier"
      std: 0.03
    }
    bias_filler {
      type: "constant"
      value: 0.2
    }
  }
}
layer {
  name: "inception_4c/relu_5x5"
  type: "ReLU"
  bottom: "inception_4c/5x5"
  top: "inception_4c/5x5"
}
layer {
  name: "inception_4c/pool"
  type: "Pooling"
  bottom: "inception_4b/output"
  top: "inception_4c/pool"
  pooling_param {
    pool: MAX
    kernel_size: 3
    stride: 1
    pad: 1
  }
}
layer {
  name: "inception_4c/pool_proj"
  type: "Convolution"
  bottom: "inception_4c/pool"
  top: "inception_4c/pool_proj"
  param {
    lr_mult: 1
    decay_mult: 1
  }
  param {
    lr_mult: 2
    decay_mult: 0
  }
  convolution_param {
    num_output: 64
    kernel_size: 1
    weight_filler {
      type: "xavier"
      std: 0.1
    }
    bias_filler {
      type: "constant"
      value: 0.2
    }
  }
}
layer {
  name: "inception_4c/relu_pool_proj"
  type: "ReLU"
  bottom: "inception_4c/pool_proj"
  top: "inception_4c/pool_proj"
}
layer {
  name: "inception_4c/output"
  type: "Concat"
  bottom: "inception_4c/1x1"
  bottom: "inception_4c/3x3"
  bottom: "inception_4c/5x5"
  bottom: "inception_4c/pool_proj"
  top: "inception_4c/output"
}
layer {
  name: "inception_4d/1x1"
  type: "Convolution"
  bottom: "inception_4c/output"
  top: "inception_4d/1x1"
  param {
    lr_mult: 1
    decay_mult: 1
  }
  param {
    lr_mult: 2
    decay_mult: 0
  }
  convolution_param {
    num_output: 112
    kernel_size: 1
    weight_filler {
      type: "xavier"
      std: 0.03
    }
    bias_filler {
      type: "constant"
      value: 0.2
    }
  }
}
layer {
  name: "inception_4d/relu_1x1"
  type: "ReLU"
  bottom: "inception_4d/1x1"
  top: "inception_4d/1x1"
}
layer {
  name: "inception_4d/3x3_reduce"
  type: "Convolution"
  bottom: "inception_4c/output"
  top: "inception_4d/3x3_reduce"
  param {
    lr_mult: 1
    decay_mult: 1
  }
  param {
    lr_mult: 2
    decay_mult: 0
  }
  convolution_param {
    num_output: 144
    kernel_size: 1
    weight_filler {
      type: "xavier"
      std: 0.09
    }
    bias_filler {
      type: "constant"
      value: 0.2
    }
  }
}
layer {
  name: "inception_4d/relu_3x3_reduce"
  type: "ReLU"
  bottom: "inception_4d/3x3_reduce"
  top: "inception_4d/3x3_reduce"
}
layer {
  name: "inception_4d/3x3"
  type: "Convolution"
  bottom: "inception_4d/3x3_reduce"
  top: "inception_4d/3x3"
  param {
    lr_mult: 1
    decay_mult: 1
  }
  param {
    lr_mult: 2
    decay_mult: 0
  }
  convolution_param {
    num_output: 288
    pad: 1
    kernel_size: 3
    weight_filler {
      type: "xavier"
      std: 0.03
    }
    bias_filler {
      type: "constant"
      value: 0.2
    }
  }
}
layer {
  name: "inception_4d/relu_3x3"
  type: "ReLU"
  bottom: "inception_4d/3x3"
  top: "inception_4d/3x3"
}
layer {
  name: "inception_4d/5x5_reduce"
  type: "Convolution"
  bottom: "inception_4c/output"
  top: "inception_4d/5x5_reduce"
  param {
    lr_mult: 1
    decay_mult: 1
  }
  param {
    lr_mult: 2
    decay_mult: 0
  }
  convolution_param {
    num_output: 32
    kernel_size: 1
    weight_filler {
      type: "xavier"
      std: 0.2
    }
    bias_filler {
      type: "constant"
      value: 0.2
    }
  }
}
layer {
  name: "inception_4d/relu_5x5_reduce"
  type: "ReLU"
  bottom: "inception_4d/5x5_reduce"
  top: "inception_4d/5x5_reduce"
}
layer {
  name: "inception_4d/5x5"
  type: "Convolution"
  bottom: "inception_4d/5x5_reduce"
  top: "inception_4d/5x5"
  param {
    lr_mult: 1
    decay_mult: 1
  }
  param {
    lr_mult: 2
    decay_mult: 0
  }
  convolution_param {
    num_output: 64
    pad: 2
    kernel_size: 5
    weight_filler {
      type: "xavier"
      std: 0.03
    }
    bias_filler {
      type: "constant"
      value: 0.2
    }
  }
}
layer {
  name: "inception_4d/relu_5x5"
  type: "ReLU"
  bottom: "inception_4d/5x5"
  top: "inception_4d/5x5"
}
layer {
  name: "inception_4d/pool"
  type: "Pooling"
  bottom: "inception_4c/output"
  top: "inception_4d/pool"
  pooling_param {
    pool: MAX
    kernel_size: 3
    stride: 1
    pad: 1
  }
}
layer {
  name: "inception_4d/pool_proj"
  type: "Convolution"
  bottom: "inception_4d/pool"
  top: "inception_4d/pool_proj"
  param {
    lr_mult: 1
    decay_mult: 1
  }
  param {
    lr_mult: 2
    decay_mult: 0
  }
  convolution_param {
    num_output: 64
    kernel_size: 1
    weight_filler {
      type: "xavier"
      std: 0.1
    }
    bias_filler {
      type: "constant"
      value: 0.2
    }
  }
}
layer {
  name: "inception_4d/relu_pool_proj"
  type: "ReLU"
  bottom: "inception_4d/pool_proj"
  top: "inception_4d/pool_proj"
}
layer {
  name: "inception_4d/output"
  type: "Concat"
  bottom: "inception_4d/1x1"
  bottom: "inception_4d/3x3"
  bottom: "inception_4d/5x5"
  bottom: "inception_4d/pool_proj"
  top: "inception_4d/output"
}
layer {
  name: "loss2/ave_pool"
  type: "Pooling"
  bottom: "inception_4d/output"
  top: "loss2/ave_pool"
  pooling_param {
    pool: AVE
    kernel_size: 5
    stride: 3
  }
}
layer {
  name: "loss2/conv"
  type: "Convolution"
  bottom: "loss2/ave_pool"
  top: "loss2/conv"
  param {
    lr_mult: 1
    decay_mult: 1
  }
  param {
    lr_mult: 2
    decay_mult: 0
  }
  convolution_param {
    num_output: 128
    kernel_size: 1
    weight_filler {
      type: "xavier"
      std: 0.08
    }
    bias_filler {
      type: "constant"
      value: 0.2
    }
  }
}
layer {
  name: "loss2/relu_conv"
  type: "ReLU"
  bottom: "loss2/conv"
  top: "loss2/conv"
}
layer {
  name: "loss2/fc"
  type: "InnerProduct"
  bottom: "loss2/conv"
  top: "loss2/fc"
  param {
    lr_mult: 1
    decay_mult: 1
  }
  param {
    lr_mult: 2
    decay_mult: 0
  }
  inner_product_param {
    num_output: 1024
    weight_filler {
      type: "xavier"
      std: 0.02
    }
    bias_filler {
      type: "constant"
      value: 0.2
    }
  }
}
layer {
  name: "loss2/relu_fc"
  type: "ReLU"
  bottom: "loss2/fc"
  top: "loss2/fc"
}
layer {
  name: "loss2/drop_fc"
  type: "Dropout"
  bottom: "loss2/fc"
  top: "loss2/fc"
  dropout_param {
    dropout_ratio: 0.7
  }
}
layer {
  name: "loss2/classifier_plantvillage"
  type: "InnerProduct"
  bottom: "loss2/fc"
  top: "loss2/classifier_plantvillage"
  param {
    lr_mult: 1
    decay_mult: 1
  }
  param {
    lr_mult: 2
    decay_mult: 0
  }
  inner_product_param {
    num_output: 38
    weight_filler {
      type: "xavier"
      std: 0.0009765625
    }
    bias_filler {
      type: "constant"
      value: 0
    }
  }
}
layer {
  name: "inception_4e/1x1"
  type: "Convolution"
  bottom: "inception_4d/output"
  top: "inception_4e/1x1"
  param {
    lr_mult: 1
    decay_mult: 1
  }
  param {
    lr_mult: 2
    decay_mult: 0
  }
  convolution_param {
    num_output: 256
    kernel_size: 1
    weight_filler {
      type: "xavier"
      std: 0.03
    }
    bias_filler {
      type: "constant"
      value: 0.2
    }
  }
}
layer {
  name: "inception_4e/relu_1x1"
  type: "ReLU"
  bottom: "inception_4e/1x1"
  top: "inception_4e/1x1"
}
layer {
  name: "inception_4e/3x3_reduce"
  type: "Convolution"
  bottom: "inception_4d/output"
  top: "inception_4e/3x3_reduce"
  param {
    lr_mult: 1
    decay_mult: 1
  }
  param {
    lr_mult: 2
    decay_mult: 0
  }
  convolution_param {
    num_output: 160
    kernel_size: 1
    weight_filler {
      type: "xavier"
      std: 0.09
    }
    bias_filler {
      type: "constant"
      value: 0.2
    }
  }
}
layer {
  name: "inception_4e/relu_3x3_reduce"
  type: "ReLU"
  bottom: "inception_4e/3x3_reduce"
  top: "inception_4e/3x3_reduce"
}
layer {
  name: "inception_4e/3x3"
  type: "Convolution"
  bottom: "inception_4e/3x3_reduce"
  top: "inception_4e/3x3"
  param {
    lr_mult: 1
    decay_mult: 1
  }
  param {
    lr_mult: 2
    decay_mult: 0
  }
  convolution_param {
    num_output: 320
    pad: 1
    kernel_size: 3
    weight_filler {
      type: "xavier"
      std: 0.03
    }
    bias_filler {
      type: "constant"
      value: 0.2
    }
  }
}
layer {
  name: "inception_4e/relu_3x3"
  type: "ReLU"
  bottom: "inception_4e/3x3"
  top: "inception_4e/3x3"
}
layer {
  name: "inception_4e/5x5_reduce"
  type: "Convolution"
  bottom: "inception_4d/output"
  top: "inception_4e/5x5_reduce"
  param {
    lr_mult: 1
    decay_mult: 1
  }
  param {
    lr_mult: 2
    decay_mult: 0
  }
  convolution_param {
    num_output: 32
    kernel_size: 1
    weight_filler {
      type: "xavier"
      std: 0.2
    }
    bias_filler {
      type: "constant"
      value: 0.2
    }
  }
}
layer {
  name: "inception_4e/relu_5x5_reduce"
  type: "ReLU"
  bottom: "inception_4e/5x5_reduce"
  top: "inception_4e/5x5_reduce"
}
layer {
  name: "inception_4e/5x5"
  type: "Convolution"
  bottom: "inception_4e/5x5_reduce"
  top: "inception_4
I0403 04:35:04.845607 25961 layer_factory.hpp:77] Creating layer data
I0403 04:35:04.847196 25961 net.cpp:91] Creating Layer data
I0403 04:35:04.847286 25961 net.cpp:399] data -> data
I0403 04:35:04.847404 25961 net.cpp:399] data -> label
I0403 04:35:04.847492 25961 data_transformer.cpp:25] Loading mean file from: /home/mohanty/data/final_dataset/lmdb/segmented-40-60/mean.binaryproto
I0403 04:35:04.876739 25964 db_lmdb.cpp:38] Opened lmdb /home/mohanty/data/final_dataset/lmdb/segmented-40-60/train_db
I0403 04:35:04.888517 25961 data_layer.cpp:41] output data size: 24,3,224,224
I0403 04:35:04.917100 25961 net.cpp:141] Setting up data
I0403 04:35:04.917171 25961 net.cpp:148] Top shape: 24 3 224 224 (3612672)
I0403 04:35:04.917194 25961 net.cpp:148] Top shape: 24 (24)
I0403 04:35:04.917210 25961 net.cpp:156] Memory required for data: 14450784
I0403 04:35:04.917271 25961 layer_factory.hpp:77] Creating layer label_data_1_split
I0403 04:35:04.917304 25961 net.cpp:91] Creating Layer label_data_1_split
I0403 04:35:04.917325 25961 net.cpp:425] label_data_1_split <- label
I0403 04:35:04.917357 25961 net.cpp:399] label_data_1_split -> label_data_1_split_0
I0403 04:35:04.917387 25961 net.cpp:399] label_data_1_split -> label_data_1_split_1
I0403 04:35:04.917407 25961 net.cpp:399] label_data_1_split -> label_data_1_split_2
I0403 04:35:04.917474 25961 net.cpp:141] Setting up label_data_1_split
I0403 04:35:04.917500 25961 net.cpp:148] Top shape: 24 (24)
I0403 04:35:04.917518 25961 net.cpp:148] Top shape: 24 (24)
I0403 04:35:04.917536 25961 net.cpp:148] Top shape: 24 (24)
I0403 04:35:04.917551 25961 net.cpp:156] Memory required for data: 14451072
I0403 04:35:04.917565 25961 layer_factory.hpp:77] Creating layer conv1/7x7_s2
I0403 04:35:04.917599 25961 net.cpp:91] Creating Layer conv1/7x7_s2
I0403 04:35:04.917619 25961 net.cpp:425] conv1/7x7_s2 <- data
I0403 04:35:04.917640 25961 net.cpp:399] conv1/7x7_s2 -> conv1/7x7_s2
I0403 04:35:04.918665 25961 net.cpp:141] Setting up conv1/7x7_s2
I0403 04:35:04.918694 25961 net.cpp:148] Top shape: 24 64 112 112 (19267584)
I0403 04:35:04.918710 25961 net.cpp:156] Memory required for data: 91521408
I0403 04:35:04.918747 25961 layer_factory.hpp:77] Creating layer conv1/relu_7x7
I0403 04:35:04.918773 25961 net.cpp:91] Creating Layer conv1/relu_7x7
I0403 04:35:04.918792 25961 net.cpp:425] conv1/relu_7x7 <- conv1/7x7_s2
I0403 04:35:04.918810 25961 net.cpp:386] conv1/relu_7x7 -> conv1/7x7_s2 (in-place)
I0403 04:35:04.918833 25961 net.cpp:141] Setting up conv1/relu_7x7
I0403 04:35:04.918851 25961 net.cpp:148] Top shape: 24 64 112 112 (19267584)
I0403 04:35:04.918866 25961 net.cpp:156] Memory required for data: 168591744
I0403 04:35:04.918881 25961 layer_factory.hpp:77] Creating layer pool1/3x3_s2
I0403 04:35:04.918901 25961 net.cpp:91] Creating Layer pool1/3x3_s2
I0403 04:35:04.918920 25961 net.cpp:425] pool1/3x3_s2 <- conv1/7x7_s2
I0403 04:35:04.918938 25961 net.cpp:399] pool1/3x3_s2 -> pool1/3x3_s2
I0403 04:35:04.919008 25961 net.cpp:141] Setting up pool1/3x3_s2
I0403 04:35:04.919033 25961 net.cpp:148] Top shape: 24 64 56 56 (4816896)
I0403 04:35:04.919049 25961 net.cpp:156] Memory required for data: 187859328
I0403 04:35:04.919064 25961 layer_factory.hpp:77] Creating layer pool1/norm1
I0403 04:35:04.919085 25961 net.cpp:91] Creating Layer pool1/norm1
I0403 04:35:04.919101 25961 net.cpp:425] pool1/norm1 <- pool1/3x3_s2
I0403 04:35:04.919121 25961 net.cpp:399] pool1/norm1 -> pool1/norm1
I0403 04:35:04.919173 25961 net.cpp:141] Setting up pool1/norm1
I0403 04:35:04.919198 25961 net.cpp:148] Top shape: 24 64 56 56 (4816896)
I0403 04:35:04.919212 25961 net.cpp:156] Memory required for data: 207126912
I0403 04:35:04.919227 25961 layer_factory.hpp:77] Creating layer conv2/3x3_reduce
I0403 04:35:04.919250 25961 net.cpp:91] Creating Layer conv2/3x3_reduce
I0403 04:35:04.919267 25961 net.cpp:425] conv2/3x3_reduce <- pool1/norm1
I0403 04:35:04.919288 25961 net.cpp:399] conv2/3x3_reduce -> conv2/3x3_reduce
I0403 04:35:04.921524 25961 net.cpp:141] Setting up conv2/3x3_reduce
I0403 04:35:04.921563 25961 net.cpp:148] Top shape: 24 64 56 56 (4816896)
I0403 04:35:04.921582 25961 net.cpp:156] Memory required for data: 226394496
I0403 04:35:04.921604 25961 layer_factory.hpp:77] Creating layer conv2/relu_3x3_reduce
I0403 04:35:04.921627 25961 net.cpp:91] Creating Layer conv2/relu_3x3_reduce
I0403 04:35:04.921644 25961 net.cpp:425] conv2/relu_3x3_reduce <- conv2/3x3_reduce
I0403 04:35:04.921664 25961 net.cpp:386] conv2/relu_3x3_reduce -> conv2/3x3_reduce (in-place)
I0403 04:35:04.921684 25961 net.cpp:141] Setting up conv2/relu_3x3_reduce
I0403 04:35:04.921702 25961 net.cpp:148] Top shape: 24 64 56 56 (4816896)
I0403 04:35:04.921717 25961 net.cpp:156] Memory required for data: 245662080
I0403 04:35:04.921733 25961 layer_factory.hpp:77] Creating layer conv2/3x3
I0403 04:35:04.921758 25961 net.cpp:91] Creating Layer conv2/3x3
I0403 04:35:04.921777 25961 net.cpp:425] conv2/3x3 <- conv2/3x3_reduce
I0403 04:35:04.921815 25961 net.cpp:399] conv2/3x3 -> conv2/3x3
I0403 04:35:04.923120 25965 blocking_queue.cpp:50] Waiting for data
I0403 04:35:04.923235 25961 net.cpp:141] Setting up conv2/3x3
I0403 04:35:04.923265 25961 net.cpp:148] Top shape: 24 192 56 56 (14450688)
I0403 04:35:04.923282 25961 net.cpp:156] Memory required for data: 303464832
I0403 04:35:04.923305 25961 layer_factory.hpp:77] Creating layer conv2/relu_3x3
I0403 04:35:04.923324 25961 net.cpp:91] Creating Layer conv2/relu_3x3
I0403 04:35:04.923341 25961 net.cpp:425] conv2/relu_3x3 <- conv2/3x3
I0403 04:35:04.923359 25961 net.cpp:386] conv2/relu_3x3 -> conv2/3x3 (in-place)
I0403 04:35:04.923379 25961 net.cpp:141] Setting up conv2/relu_3x3
I0403 04:35:04.923398 25961 net.cpp:148] Top shape: 24 192 56 56 (14450688)
I0403 04:35:04.923413 25961 net.cpp:156] Memory required for data: 361267584
I0403 04:35:04.923427 25961 layer_factory.hpp:77] Creating layer conv2/norm2
I0403 04:35:04.923446 25961 net.cpp:91] Creating Layer conv2/norm2
I0403 04:35:04.923462 25961 net.cpp:425] conv2/norm2 <- conv2/3x3
I0403 04:35:04.923481 25961 net.cpp:399] conv2/norm2 -> conv2/norm2
I0403 04:35:04.923530 25961 net.cpp:141] Setting up conv2/norm2
I0403 04:35:04.923553 25961 net.cpp:148] Top shape: 24 192 56 56 (14450688)
I0403 04:35:04.923568 25961 net.cpp:156] Memory required for data: 419070336
I0403 04:35:04.923584 25961 layer_factory.hpp:77] Creating layer pool2/3x3_s2
I0403 04:35:04.923604 25961 net.cpp:91] Creating Layer pool2/3x3_s2
I0403 04:35:04.923619 25961 net.cpp:425] pool2/3x3_s2 <- conv2/norm2
I0403 04:35:04.923638 25961 net.cpp:399] pool2/3x3_s2 -> pool2/3x3_s2
I0403 04:35:04.923686 25961 net.cpp:141] Setting up pool2/3x3_s2
I0403 04:35:04.923708 25961 net.cpp:148] Top shape: 24 192 28 28 (3612672)
I0403 04:35:04.923723 25961 net.cpp:156] Memory required for data: 433521024
I0403 04:35:04.923738 25961 layer_factory.hpp:77] Creating layer pool2/3x3_s2_pool2/3x3_s2_0_split
I0403 04:35:04.923756 25961 net.cpp:91] Creating Layer pool2/3x3_s2_pool2/3x3_s2_0_split
I0403 04:35:04.923774 25961 net.cpp:425] pool2/3x3_s2_pool2/3x3_s2_0_split <- pool2/3x3_s2
I0403 04:35:04.923792 25961 net.cpp:399] pool2/3x3_s2_pool2/3x3_s2_0_split -> pool2/3x3_s2_pool2/3x3_s2_0_split_0
I0403 04:35:04.923813 25961 net.cpp:399] pool2/3x3_s2_pool2/3x3_s2_0_split -> pool2/3x3_s2_pool2/3x3_s2_0_split_1
I0403 04:35:04.923835 25961 net.cpp:399] pool2/3x3_s2_pool2/3x3_s2_0_split -> pool2/3x3_s2_pool2/3x3_s2_0_split_2
I0403 04:35:04.923854 25961 net.cpp:399] pool2/3x3_s2_pool2/3x3_s2_0_split -> pool2/3x3_s2_pool2/3x3_s2_0_split_3
I0403 04:35:04.923915 25961 net.cpp:141] Setting up pool2/3x3_s2_pool2/3x3_s2_0_split
I0403 04:35:04.923938 25961 net.cpp:148] Top shape: 24 192 28 28 (3612672)
I0403 04:35:04.923954 25961 net.cpp:148] Top shape: 24 192 28 28 (3612672)
I0403 04:35:04.923977 25961 net.cpp:148] Top shape: 24 192 28 28 (3612672)
I0403 04:35:04.923993 25961 net.cpp:148] Top shape: 24 192 28 28 (3612672)
I0403 04:35:04.924008 25961 net.cpp:156] Memory required for data: 491323776
I0403 04:35:04.924022 25961 layer_factory.hpp:77] Creating layer inception_3a/1x1
I0403 04:35:04.924046 25961 net.cpp:91] Creating Layer inception_3a/1x1
I0403 04:35:04.924063 25961 net.cpp:425] inception_3a/1x1 <- pool2/3x3_s2_pool2/3x3_s2_0_split_0
I0403 04:35:04.924084 25961 net.cpp:399] inception_3a/1x1 -> inception_3a/1x1
I0403 04:35:04.924901 25961 net.cpp:141] Setting up inception_3a/1x1
I0403 04:35:04.924931 25961 net.cpp:148] Top shape: 24 64 28 28 (1204224)
I0403 04:35:04.924947 25961 net.cpp:156] Memory required for data: 496140672
I0403 04:35:04.924970 25961 layer_factory.hpp:77] Creating layer inception_3a/relu_1x1
I0403 04:35:04.924993 25961 net.cpp:91] Creating Layer inception_3a/relu_1x1
I0403 04:35:04.925009 25961 net.cpp:425] inception_3a/relu_1x1 <- inception_3a/1x1
I0403 04:35:04.925031 25961 net.cpp:386] inception_3a/relu_1x1 -> inception_3a/1x1 (in-place)
I0403 04:35:04.925053 25961 net.cpp:141] Setting up inception_3a/relu_1x1
I0403 04:35:04.925071 25961 net.cpp:148] Top shape: 24 64 28 28 (1204224)
I0403 04:35:04.925101 25961 net.cpp:156] Memory required for data: 500957568
I0403 04:35:04.925117 25961 layer_factory.hpp:77] Creating layer inception_3a/3x3_reduce
I0403 04:35:04.925140 25961 net.cpp:91] Creating Layer inception_3a/3x3_reduce
I0403 04:35:04.925159 25961 net.cpp:425] inception_3a/3x3_reduce <- pool2/3x3_s2_pool2/3x3_s2_0_split_1
I0403 04:35:04.925180 25961 net.cpp:399] inception_3a/3x3_reduce -> inception_3a/3x3_reduce
I0403 04:35:04.926055 25961 net.cpp:141] Setting up inception_3a/3x3_reduce
I0403 04:35:04.926084 25961 net.cpp:148] Top shape: 24 96 28 28 (1806336)
I0403 04:35:04.926100 25961 net.cpp:156] Memory required for data: 508182912
I0403 04:35:04.926123 25961 layer_factory.hpp:77] Creating layer inception_3a/relu_3x3_reduce
I0403 04:35:04.926148 25961 net.cpp:91] Creating Layer inception_3a/relu_3x3_reduce
I0403 04:35:04.926167 25961 net.cpp:425] inception_3a/relu_3x3_reduce <- inception_3a/3x3_reduce
I0403 04:35:04.926187 25961 net.cpp:386] inception_3a/relu_3x3_reduce -> inception_3a/3x3_reduce (in-place)
I0403 04:35:04.926208 25961 net.cpp:141] Setting up inception_3a/relu_3x3_reduce
I0403 04:35:04.926226 25961 net.cpp:148] Top shape: 24 96 28 28 (1806336)
I0403 04:35:04.926241 25961 net.cpp:156] Memory required for data: 515408256
I0403 04:35:04.926256 25961 layer_factory.hpp:77] Creating layer inception_3a/3x3
I0403 04:35:04.926281 25961 net.cpp:91] Creating Layer inception_3a/3x3
I0403 04:35:04.926298 25961 net.cpp:425] inception_3a/3x3 <- inception_3a/3x3_reduce
I0403 04:35:04.926321 25961 net.cpp:399] inception_3a/3x3 -> inception_3a/3x3
I0403 04:35:04.927178 25961 net.cpp:141] Setting up inception_3a/3x3
I0403 04:35:04.927204 25961 net.cpp:148] Top shape: 24 128 28 28 (2408448)
I0403 04:35:04.927220 25961 net.cpp:156] Memory required for data: 525042048
I0403 04:35:04.927239 25961 layer_factory.hpp:77] Creating layer inception_3a/relu_3x3
I0403 04:35:04.927258 25961 net.cpp:91] Creating Layer inception_3a/relu_3x3
I0403 04:35:04.927274 25961 net.cpp:425] inception_3a/relu_3x3 <- inception_3a/3x3
I0403 04:35:04.927292 25961 net.cpp:386] inception_3a/relu_3x3 -> inception_3a/3x3 (in-place)
I0403 04:35:04.927312 25961 net.cpp:141] Setting up inception_3a/relu_3x3
I0403 04:35:04.927330 25961 net.cpp:148] Top shape: 24 128 28 28 (2408448)
I0403 04:35:04.927345 25961 net.cpp:156] Memory required for data: 534675840
I0403 04:35:04.927361 25961 layer_factory.hpp:77] Creating layer inception_3a/5x5_reduce
I0403 04:35:04.927386 25961 net.cpp:91] Creating Layer inception_3a/5x5_reduce
I0403 04:35:04.927404 25961 net.cpp:425] inception_3a/5x5_reduce <- pool2/3x3_s2_pool2/3x3_s2_0_split_2
I0403 04:35:04.927424 25961 net.cpp:399] inception_3a/5x5_reduce -> inception_3a/5x5_reduce
I0403 04:35:04.927660 25961 net.cpp:141] Setting up inception_3a/5x5_reduce
I0403 04:35:04.927685 25961 net.cpp:148] Top shape: 24 16 28 28 (301056)
I0403 04:35:04.927701 25961 net.cpp:156] Memory required for data: 535880064
I0403 04:35:04.927719 25961 layer_factory.hpp:77] Creating layer inception_3a/relu_5x5_reduce
I0403 04:35:04.927742 25961 net.cpp:91] Creating Layer inception_3a/relu_5x5_reduce
I0403 04:35:04.927759 25961 net.cpp:425] inception_3a/relu_5x5_reduce <- inception_3a/5x5_reduce
I0403 04:35:04.927778 25961 net.cpp:386] inception_3a/relu_5x5_reduce -> inception_3a/5x5_reduce (in-place)
I0403 04:35:04.927798 25961 net.cpp:141] Setting up inception_3a/relu_5x5_reduce
I0403 04:35:04.927816 25961 net.cpp:148] Top shape: 24 16 28 28 (301056)
I0403 04:35:04.927830 25961 net.cpp:156] Memory required for data: 537084288
I0403 04:35:04.927845 25961 layer_factory.hpp:77] Creating layer inception_3a/5x5
I0403 04:35:04.927868 25961 net.cpp:91] Creating Layer inception_3a/5x5
I0403 04:35:04.927887 25961 net.cpp:425] inception_3a/5x5 <- inception_3a/5x5_reduce
I0403 04:35:04.927909 25961 net.cpp:399] inception_3a/5x5 -> inception_3a/5x5
I0403 04:35:04.928211 25961 net.cpp:141] Setting up inception_3a/5x5
I0403 04:35:04.928238 25961 net.cpp:148] Top shape: 24 32 28 28 (602112)
I0403 04:35:04.928273 25961 net.cpp:156] Memory required for data: 539492736
I0403 04:35:04.928293 25961 layer_factory.hpp:77] Creating layer inception_3a/relu_5x5
I0403 04:35:04.928313 25961 net.cpp:91] Creating Layer inception_3a/relu_5x5
I0403 04:35:04.928330 25961 net.cpp:425] inception_3a/relu_5x5 <- inception_3a/5x5
I0403 04:35:04.928349 25961 net.cpp:386] inception_3a/relu_5x5 -> inception_3a/5x5 (in-place)
I0403 04:35:04.928369 25961 net.cpp:141] Setting up inception_3a/relu_5x5
I0403 04:35:04.928387 25961 net.cpp:148] Top shape: 24 32 28 28 (602112)
I0403 04:35:04.928401 25961 net.cpp:156] Memory required for data: 541901184
I0403 04:35:04.928416 25961 layer_factory.hpp:77] Creating layer inception_3a/pool
I0403 04:35:04.928437 25961 net.cpp:91] Creating Layer inception_3a/pool
I0403 04:35:04.928455 25961 net.cpp:425] inception_3a/pool <- pool2/3x3_s2_pool2/3x3_s2_0_split_3
I0403 04:35:04.928473 25961 net.cpp:399] inception_3a/pool -> inception_3a/pool
I0403 04:35:04.928524 25961 net.cpp:141] Setting up inception_3a/pool
I0403 04:35:04.928547 25961 net.cpp:148] Top shape: 24 192 28 28 (3612672)
I0403 04:35:04.928562 25961 net.cpp:156] Memory required for data: 556351872
I0403 04:35:04.928578 25961 layer_factory.hpp:77] Creating layer inception_3a/pool_proj
I0403 04:35:04.928603 25961 net.cpp:91] Creating Layer inception_3a/pool_proj
I0403 04:35:04.928622 25961 net.cpp:425] inception_3a/pool_proj <- inception_3a/pool
I0403 04:35:04.928642 25961 net.cpp:399] inception_3a/pool_proj -> inception_3a/pool_proj
I0403 04:35:04.928884 25961 net.cpp:141] Setting up inception_3a/pool_proj
I0403 04:35:04.928908 25961 net.cpp:148] Top shape: 24 32 28 28 (602112)
I0403 04:35:04.928925 25961 net.cpp:156] Memory required for data: 558760320
I0403 04:35:04.928948 25961 layer_factory.hpp:77] Creating layer inception_3a/relu_pool_proj
I0403 04:35:04.928974 25961 net.cpp:91] Creating Layer inception_3a/relu_pool_proj
I0403 04:35:04.928992 25961 net.cpp:425] inception_3a/relu_pool_proj <- inception_3a/pool_proj
I0403 04:35:04.929010 25961 net.cpp:386] inception_3a/relu_pool_proj -> inception_3a/pool_proj (in-place)
I0403 04:35:04.929030 25961 net.cpp:141] Setting up inception_3a/relu_pool_proj
I0403 04:35:04.929049 25961 net.cpp:148] Top shape: 24 32 28 28 (602112)
I0403 04:35:04.929064 25961 net.cpp:156] Memory required for data: 561168768
I0403 04:35:04.929078 25961 layer_factory.hpp:77] Creating layer inception_3a/output
I0403 04:35:04.929096 25961 net.cpp:91] Creating Layer inception_3a/output
I0403 04:35:04.929111 25961 net.cpp:425] inception_3a/output <- inception_3a/1x1
I0403 04:35:04.929128 25961 net.cpp:425] inception_3a/output <- inception_3a/3x3
I0403 04:35:04.929144 25961 net.cpp:425] inception_3a/output <- inception_3a/5x5
I0403 04:35:04.929162 25961 net.cpp:425] inception_3a/output <- inception_3a/pool_proj
I0403 04:35:04.929182 25961 net.cpp:399] inception_3a/output -> inception_3a/output
I0403 04:35:04.929257 25961 net.cpp:141] Setting up inception_3a/output
I0403 04:35:04.929282 25961 net.cpp:148] Top shape: 24 256 28 28 (4816896)
I0403 04:35:04.929297 25961 net.cpp:156] Memory required for data: 580436352
I0403 04:35:04.929313 25961 layer_factory.hpp:77] Creating layer inception_3a/output_inception_3a/output_0_split
I0403 04:35:04.929332 25961 net.cpp:91] Creating Layer inception_3a/output_inception_3a/output_0_split
I0403 04:35:04.929347 25961 net.cpp:425] inception_3a/output_inception_3a/output_0_split <- inception_3a/output
I0403 04:35:04.929365 25961 net.cpp:399] inception_3a/output_inception_3a/output_0_split -> inception_3a/output_inception_3a/output_0_split_0
I0403 04:35:04.929388 25961 net.cpp:399] inception_3a/output_inception_3a/output_0_split -> inception_3a/output_inception_3a/output_0_split_1
I0403 04:35:04.929410 25961 net.cpp:399] inception_3a/output_inception_3a/output_0_split -> inception_3a/output_inception_3a/output_0_split_2
I0403 04:35:04.929431 25961 net.cpp:399] inception_3a/output_inception_3a/output_0_split -> inception_3a/output_inception_3a/output_0_split_3
I0403 04:35:04.929500 25961 net.cpp:141] Setting up inception_3a/output_inception_3a/output_0_split
I0403 04:35:04.929536 25961 net.cpp:148] Top shape: 24 256 28 28 (4816896)
I0403 04:35:04.929553 25961 net.cpp:148] Top shape: 24 256 28 28 (4816896)
I0403 04:35:04.929569 25961 net.cpp:148] Top shape: 24 256 28 28 (4816896)
I0403 04:35:04.929584 25961 net.cpp:148] Top shape: 24 256 28 28 (4816896)
I0403 04:35:04.929600 25961 net.cpp:156] Memory required for data: 657506688
I0403 04:35:04.929615 25961 layer_factory.hpp:77] Creating layer inception_3b/1x1
I0403 04:35:04.929637 25961 net.cpp:91] Creating Layer inception_3b/1x1
I0403 04:35:04.929656 25961 net.cpp:425] inception_3b/1x1 <- inception_3a/output_inception_3a/output_0_split_0
I0403 04:35:04.929678 25961 net.cpp:399] inception_3b/1x1 -> inception_3b/1x1
I0403 04:35:04.930078 25961 net.cpp:141] Setting up inception_3b/1x1
I0403 04:35:04.930104 25961 net.cpp:148] Top shape: 24 128 28 28 (2408448)
I0403 04:35:04.930119 25961 net.cpp:156] Memory required for data: 667140480
I0403 04:35:04.930138 25961 layer_factory.hpp:77] Creating layer inception_3b/relu_1x1
I0403 04:35:04.930160 25961 net.cpp:91] Creating Layer inception_3b/relu_1x1
I0403 04:35:04.930176 25961 net.cpp:425] inception_3b/relu_1x1 <- inception_3b/1x1
I0403 04:35:04.930196 25961 net.cpp:386] inception_3b/relu_1x1 -> inception_3b/1x1 (in-place)
I0403 04:35:04.930215 25961 net.cpp:141] Setting up inception_3b/relu_1x1
I0403 04:35:04.930234 25961 net.cpp:148] Top shape: 24 128 28 28 (2408448)
I0403 04:35:04.930249 25961 net.cpp:156] Memory required for data: 676774272
I0403 04:35:04.930263 25961 layer_factory.hpp:77] Creating layer inception_3b/3x3_reduce
I0403 04:35:04.930289 25961 net.cpp:91] Creating Layer inception_3b/3x3_reduce
I0403 04:35:04.930306 25961 net.cpp:425] inception_3b/3x3_reduce <- inception_3a/output_inception_3a/output_0_split_1
I0403 04:35:04.930330 25961 net.cpp:399] inception_3b/3x3_reduce -> inception_3b/3x3_reduce
I0403 04:35:04.930733 25961 net.cpp:141] Setting up inception_3b/3x3_reduce
I0403 04:35:04.930759 25961 net.cpp:148] Top shape: 24 128 28 28 (2408448)
I0403 04:35:04.930775 25961 net.cpp:156] Memory required for data: 686408064
I0403 04:35:04.930794 25961 layer_factory.hpp:77] Creating layer inception_3b/relu_3x3_reduce
I0403 04:35:04.930814 25961 net.cpp:91] Creating Layer inception_3b/relu_3x3_reduce
I0403 04:35:04.930830 25961 net.cpp:425] inception_3b/relu_3x3_reduce <- inception_3b/3x3_reduce
I0403 04:35:04.930848 25961 net.cpp:386] inception_3b/relu_3x3_reduce -> inception_3b/3x3_reduce (in-place)
I0403 04:35:04.930868 25961 net.cpp:141] Setting up inception_3b/relu_3x3_reduce
I0403 04:35:04.930886 25961 net.cpp:148] Top shape: 24 128 28 28 (2408448)
I0403 04:35:04.930901 25961 net.cpp:156] Memory required for data: 696041856
I0403 04:35:04.930914 25961 layer_factory.hpp:77] Creating layer inception_3b/3x3
I0403 04:35:04.930941 25961 net.cpp:91] Creating Layer inception_3b/3x3
I0403 04:35:04.930964 25961 net.cpp:425] inception_3b/3x3 <- inception_3b/3x3_reduce
I0403 04:35:04.930990 25961 net.cpp:399] inception_3b/3x3 -> inception_3b/3x3
I0403 04:35:04.933053 25961 net.cpp:141] Setting up inception_3b/3x3
I0403 04:35:04.933084 25961 net.cpp:148] Top shape: 24 192 28 28 (3612672)
I0403 04:35:04.933100 25961 net.cpp:156] Memory required for data: 710492544
I0403 04:35:04.933120 25961 layer_factory.hpp:77] Creating layer inception_3b/relu_3x3
I0403 04:35:04.933140 25961 net.cpp:91] Creating Layer inception_3b/relu_3x3
I0403 04:35:04.933156 25961 net.cpp:425] inception_3b/relu_3x3 <- inception_3b/3x3
I0403 04:35:04.933176 25961 net.cpp:386] inception_3b/relu_3x3 -> inception_3b/3x3 (in-place)
I0403 04:35:04.933195 25961 net.cpp:141] Setting up inception_3b/relu_3x3
I0403 04:35:04.933213 25961 net.cpp:148] Top shape: 24 192 28 28 (3612672)
I0403 04:35:04.933228 25961 net.cpp:156] Memory required for data: 724943232
I0403 04:35:04.933243 25961 layer_factory.hpp:77] Creating layer inception_3b/5x5_reduce
I0403 04:35:04.933269 25961 net.cpp:91] Creating Layer inception_3b/5x5_reduce
I0403 04:35:04.933287 25961 net.cpp:425] inception_3b/5x5_reduce <- inception_3a/output_inception_3a/output_0_split_2
I0403 04:35:04.933326 25961 net.cpp:399] inception_3b/5x5_reduce -> inception_3b/5x5_reduce
I0403 04:35:04.933589 25961 net.cpp:141] Setting up inception_3b/5x5_reduce
I0403 04:35:04.933615 25961 net.cpp:148] Top shape: 24 32 28 28 (602112)
I0403 04:35:04.933631 25961 net.cpp:156] Memory required for data: 727351680
I0403 04:35:04.933650 25961 layer_factory.hpp:77] Creating layer inception_3b/relu_5x5_reduce
I0403 04:35:04.933672 25961 net.cpp:91] Creating Layer inception_3b/relu_5x5_reduce
I0403 04:35:04.933691 25961 net.cpp:425] inception_3b/relu_5x5_reduce <- inception_3b/5x5_reduce
I0403 04:35:04.933708 25961 net.cpp:386] inception_3b/relu_5x5_reduce -> inception_3b/5x5_reduce (in-place)
I0403 04:35:04.933729 25961 net.cpp:141] Setting up inception_3b/relu_5x5_reduce
I0403 04:35:04.933748 25961 net.cpp:148] Top shape: 24 32 28 28 (602112)
I0403 04:35:04.933761 25961 net.cpp:156] Memory required for data: 729760128
I0403 04:35:04.933778 25961 layer_factory.hpp:77] Creating layer inception_3b/5x5
I0403 04:35:04.933801 25961 net.cpp:91] Creating Layer inception_3b/5x5
I0403 04:35:04.933820 25961 net.cpp:425] inception_3b/5x5 <- inception_3b/5x5_reduce
I0403 04:35:04.933847 25961 net.cpp:399] inception_3b/5x5 -> inception_3b/5x5
I0403 04:35:04.935072 25961 net.cpp:141] Setting up inception_3b/5x5
I0403 04:35:04.935102 25961 net.cpp:148] Top shape: 24 96 28 28 (1806336)
I0403 04:35:04.935118 25961 net.cpp:156] Memory required for data: 736985472
I0403 04:35:04.935138 25961 layer_factory.hpp:77] Creating layer inception_3b/relu_5x5
I0403 04:35:04.935158 25961 net.cpp:91] Creating Layer inception_3b/relu_5x5
I0403 04:35:04.935174 25961 net.cpp:425] inception_3b/relu_5x5 <- inception_3b/5x5
I0403 04:35:04.935196 25961 net.cpp:386] inception_3b/relu_5x5 -> inception_3b/5x5 (in-place)
I0403 04:35:04.935219 25961 net.cpp:141] Setting up inception_3b/relu_5x5
I0403 04:35:04.935237 25961 net.cpp:148] Top shape: 24 96 28 28 (1806336)
I0403 04:35:04.935252 25961 net.cpp:156] Memory required for data: 744210816
I0403 04:35:04.935267 25961 layer_factory.hpp:77] Creating layer inception_3b/pool
I0403 04:35:04.935286 25961 net.cpp:91] Creating Layer inception_3b/pool
I0403 04:35:04.935302 25961 net.cpp:425] inception_3b/pool <- inception_3a/output_inception_3a/output_0_split_3
I0403 04:35:04.935320 25961 net.cpp:399] inception_3b/pool -> inception_3b/pool
I0403 04:35:04.935374 25961 net.cpp:141] Setting up inception_3b/pool
I0403 04:35:04.935398 25961 net.cpp:148] Top shape: 24 256 28 28 (4816896)
I0403 04:35:04.935413 25961 net.cpp:156] Memory required for data: 763478400
I0403 04:35:04.935428 25961 layer_factory.hpp:77] Creating layer inception_3b/pool_proj
I0403 04:35:04.935452 25961 net.cpp:91] Creating Layer inception_3b/pool_proj
I0403 04:35:04.935472 25961 net.cpp:425] inception_3b/pool_proj <- inception_3b/pool
I0403 04:35:04.935494 25961 net.cpp:399] inception_3b/pool_proj -> inception_3b/pool_proj
I0403 04:35:04.935801 25961 net.cpp:141] Setting up inception_3b/pool_proj
I0403 04:35:04.935827 25961 net.cpp:148] Top shape: 24 64 28 28 (1204224)
I0403 04:35:04.935842 25961 net.cpp:156] Memory required for data: 768295296
I0403 04:35:04.935860 25961 layer_factory.hpp:77] Creating layer inception_3b/relu_pool_proj
I0403 04:35:04.935883 25961 net.cpp:91] Creating Layer inception_3b/relu_pool_proj
I0403 04:35:04.935900 25961 net.cpp:425] inception_3b/relu_pool_proj <- inception_3b/pool_proj
I0403 04:35:04.935919 25961 net.cpp:386] inception_3b/relu_pool_proj -> inception_3b/pool_proj (in-place)
I0403 04:35:04.935940 25961 net.cpp:141] Setting up inception_3b/relu_pool_proj
I0403 04:35:04.935961 25961 net.cpp:148] Top shape: 24 64 28 28 (1204224)
I0403 04:35:04.935977 25961 net.cpp:156] Memory required for data: 773112192
I0403 04:35:04.935992 25961 layer_factory.hpp:77] Creating layer inception_3b/output
I0403 04:35:04.936015 25961 net.cpp:91] Creating Layer inception_3b/output
I0403 04:35:04.936033 25961 net.cpp:425] inception_3b/output <- inception_3b/1x1
I0403 04:35:04.936065 25961 net.cpp:425] inception_3b/output <- inception_3b/3x3
I0403 04:35:04.936082 25961 net.cpp:425] inception_3b/output <- inception_3b/5x5
I0403 04:35:04.936100 25961 net.cpp:425] inception_3b/output <- inception_3b/pool_proj
I0403 04:35:04.936117 25961 net.cpp:399] inception_3b/output -> inception_3b/output
I0403 04:35:04.936156 25961 net.cpp:141] Setting up inception_3b/output
I0403 04:35:04.936182 25961 net.cpp:148] Top shape: 24 480 28 28 (9031680)
I0403 04:35:04.936197 25961 net.cpp:156] Memory required for data: 809238912
I0403 04:35:04.936213 25961 layer_factory.hpp:77] Creating layer pool3/3x3_s2
I0403 04:35:04.936231 25961 net.cpp:91] Creating Layer pool3/3x3_s2
I0403 04:35:04.936247 25961 net.cpp:425] pool3/3x3_s2 <- inception_3b/output
I0403 04:35:04.936269 25961 net.cpp:399] pool3/3x3_s2 -> pool3/3x3_s2
I0403 04:35:04.936319 25961 net.cpp:141] Setting up pool3/3x3_s2
I0403 04:35:04.936342 25961 net.cpp:148] Top shape: 24 480 14 14 (2257920)
I0403 04:35:04.936357 25961 net.cpp:156] Memory required for data: 818270592
I0403 04:35:04.936372 25961 layer_factory.hpp:77] Creating layer pool3/3x3_s2_pool3/3x3_s2_0_split
I0403 04:35:04.936398 25961 net.cpp:91] Creating Layer pool3/3x3_s2_pool3/3x3_s2_0_split
I0403 04:35:04.936414 25961 net.cpp:425] pool3/3x3_s2_pool3/3x3_s2_0_split <- pool3/3x3_s2
I0403 04:35:04.936434 25961 net.cpp:399] pool3/3x3_s2_pool3/3x3_s2_0_split -> pool3/3x3_s2_pool3/3x3_s2_0_split_0
I0403 04:35:04.936453 25961 net.cpp:399] pool3/3x3_s2_pool3/3x3_s2_0_split -> pool3/3x3_s2_pool3/3x3_s2_0_split_1
I0403 04:35:04.936475 25961 net.cpp:399] pool3/3x3_s2_pool3/3x3_s2_0_split -> pool3/3x3_s2_pool3/3x3_s2_0_split_2
I0403 04:35:04.936496 25961 net.cpp:399] pool3/3x3_s2_pool3/3x3_s2_0_split -> pool3/3x3_s2_pool3/3x3_s2_0_split_3
I0403 04:35:04.936563 25961 net.cpp:141] Setting up pool3/3x3_s2_pool3/3x3_s2_0_split
I0403 04:35:04.936585 25961 net.cpp:148] Top shape: 24 480 14 14 (2257920)
I0403 04:35:04.936602 25961 net.cpp:148] Top shape: 24 480 14 14 (2257920)
I0403 04:35:04.936619 25961 net.cpp:148] Top shape: 24 480 14 14 (2257920)
I0403 04:35:04.936635 25961 net.cpp:148] Top shape: 24 480 14 14 (2257920)
I0403 04:35:04.936650 25961 net.cpp:156] Memory required for data: 854397312
I0403 04:35:04.936663 25961 layer_factory.hpp:77] Creating layer inception_4a/1x1
I0403 04:35:04.936689 25961 net.cpp:91] Creating Layer inception_4a/1x1
I0403 04:35:04.936709 25961 net.cpp:425] inception_4a/1x1 <- pool3/3x3_s2_pool3/3x3_s2_0_split_0
I0403 04:35:04.936733 25961 net.cpp:399] inception_4a/1x1 -> inception_4a/1x1
I0403 04:35:04.937475 25961 net.cpp:141] Setting up inception_4a/1x1
I0403 04:35:04.937501 25961 net.cpp:148] Top shape: 24 192 14 14 (903168)
I0403 04:35:04.937517 25961 net.cpp:156] Memory required for data: 858009984
I0403 04:35:04.937536 25961 layer_factory.hpp:77] Creating layer inception_4a/relu_1x1
I0403 04:35:04.937558 25961 net.cpp:91] Creating Layer inception_4a/relu_1x1
I0403 04:35:04.937575 25961 net.cpp:425] inception_4a/relu_1x1 <- inception_4a/1x1
I0403 04:35:04.937593 25961 net.cpp:386] inception_4a/relu_1x1 -> inception_4a/1x1 (in-place)
I0403 04:35:04.937613 25961 net.cpp:141] Setting up inception_4a/relu_1x1
I0403 04:35:04.937630 25961 net.cpp:148] Top shape: 24 192 14 14 (903168)
I0403 04:35:04.937645 25961 net.cpp:156] Memory required for data: 861622656
I0403 04:35:04.937660 25961 layer_factory.hpp:77] Creating layer inception_4a/3x3_reduce
I0403 04:35:04.937685 25961 net.cpp:91] Creating Layer inception_4a/3x3_reduce
I0403 04:35:04.937703 25961 net.cpp:425] inception_4a/3x3_reduce <- pool3/3x3_s2_pool3/3x3_s2_0_split_1
I0403 04:35:04.937724 25961 net.cpp:399] inception_4a/3x3_reduce -> inception_4a/3x3_reduce
I0403 04:35:04.938225 25961 net.cpp:141] Setting up inception_4a/3x3_reduce
I0403 04:35:04.938256 25961 net.cpp:148] Top shape: 24 96 14 14 (451584)
I0403 04:35:04.938272 25961 net.cpp:156] Memory required for data: 863428992
I0403 04:35:04.938295 25961 layer_factory.hpp:77] Creating layer inception_4a/relu_3x3_reduce
I0403 04:35:04.938318 25961 net.cpp:91] Creating Layer inception_4a/relu_3x3_reduce
I0403 04:35:04.938349 25961 net.cpp:425] inception_4a/relu_3x3_reduce <- inception_4a/3x3_reduce
I0403 04:35:04.938369 25961 net.cpp:386] inception_4a/relu_3x3_reduce -> inception_4a/3x3_reduce (in-place)
I0403 04:35:04.938390 25961 net.cpp:141] Setting up inception_4a/relu_3x3_reduce
I0403 04:35:04.938408 25961 net.cpp:148] Top shape: 24 96 14 14 (451584)
I0403 04:35:04.938423 25961 net.cpp:156] Memory required for data: 865235328
I0403 04:35:04.938438 25961 layer_factory.hpp:77] Creating layer inception_4a/3x3
I0403 04:35:04.938462 25961 net.cpp:91] Creating Layer inception_4a/3x3
I0403 04:35:04.938482 25961 net.cpp:425] inception_4a/3x3 <- inception_4a/3x3_reduce
I0403 04:35:04.938501 25961 net.cpp:399] inception_4a/3x3 -> inception_4a/3x3
I0403 04:35:04.940318 25961 net.cpp:141] Setting up inception_4a/3x3
I0403 04:35:04.940347 25961 net.cpp:148] Top shape: 24 208 14 14 (978432)
I0403 04:35:04.940363 25961 net.cpp:156] Memory required for data: 869149056
I0403 04:35:04.940382 25961 layer_factory.hpp:77] Creating layer inception_4a/relu_3x3
I0403 04:35:04.940402 25961 net.cpp:91] Creating Layer inception_4a/relu_3x3
I0403 04:35:04.940418 25961 net.cpp:425] inception_4a/relu_3x3 <- inception_4a/3x3
I0403 04:35:04.940439 25961 net.cpp:386] inception_4a/relu_3x3 -> inception_4a/3x3 (in-place)
I0403 04:35:04.940460 25961 net.cpp:141] Setting up inception_4a/relu_3x3
I0403 04:35:04.940477 25961 net.cpp:148] Top shape: 24 208 14 14 (978432)
I0403 04:35:04.940493 25961 net.cpp:156] Memory required for data: 873062784
I0403 04:35:04.940508 25961 layer_factory.hpp:77] Creating layer inception_4a/5x5_reduce
I0403 04:35:04.940532 25961 net.cpp:91] Creating Layer inception_4a/5x5_reduce
I0403 04:35:04.940551 25961 net.cpp:425] inception_4a/5x5_reduce <- pool3/3x3_s2_pool3/3x3_s2_0_split_2
I0403 04:35:04.940570 25961 net.cpp:399] inception_4a/5x5_reduce -> inception_4a/5x5_reduce
I0403 04:35:04.940831 25961 net.cpp:141] Setting up inception_4a/5x5_reduce
I0403 04:35:04.940856 25961 net.cpp:148] Top shape: 24 16 14 14 (75264)
I0403 04:35:04.940872 25961 net.cpp:156] Memory required for data: 873363840
I0403 04:35:04.940891 25961 layer_factory.hpp:77] Creating layer inception_4a/relu_5x5_reduce
I0403 04:35:04.940912 25961 net.cpp:91] Creating Layer inception_4a/relu_5x5_reduce
I0403 04:35:04.940929 25961 net.cpp:425] inception_4a/relu_5x5_reduce <- inception_4a/5x5_reduce
I0403 04:35:04.940948 25961 net.cpp:386] inception_4a/relu_5x5_reduce -> inception_4a/5x5_reduce (in-place)
I0403 04:35:04.940974 25961 net.cpp:141] Setting up inception_4a/relu_5x5_reduce
I0403 04:35:04.940994 25961 net.cpp:148] Top shape: 24 16 14 14 (75264)
I0403 04:35:04.941009 25961 net.cpp:156] Memory required for data: 873664896
I0403 04:35:04.941023 25961 layer_factory.hpp:77] Creating layer inception_4a/5x5
I0403 04:35:04.941048 25961 net.cpp:91] Creating Layer inception_4a/5x5
I0403 04:35:04.941067 25961 net.cpp:425] inception_4a/5x5 <- inception_4a/5x5_reduce
I0403 04:35:04.941087 25961 net.cpp:399] inception_4a/5x5 -> inception_4a/5x5
I0403 04:35:04.941419 25961 net.cpp:141] Setting up inception_4a/5x5
I0403 04:35:04.941444 25961 net.cpp:148] Top shape: 24 48 14 14 (225792)
I0403 04:35:04.941460 25961 net.cpp:156] Memory required for data: 874568064
I0403 04:35:04.941478 25961 layer_factory.hpp:77] Creating layer inception_4a/relu_5x5
I0403 04:35:04.941498 25961 net.cpp:91] Creating Layer inception_4a/relu_5x5
I0403 04:35:04.941514 25961 net.cpp:425] inception_4a/relu_5x5 <- inception_4a/5x5
I0403 04:35:04.941535 25961 net.cpp:386] inception_4a/relu_5x5 -> inception_4a/5x5 (in-place)
I0403 04:35:04.941556 25961 net.cpp:141] Setting up inception_4a/relu_5x5
I0403 04:35:04.941575 25961 net.cpp:148] Top shape: 24 48 14 14 (225792)
I0403 04:35:04.941589 25961 net.cpp:156] Memory required for data: 875471232
I0403 04:35:04.941604 25961 layer_factory.hpp:77] Creating layer inception_4a/pool
I0403 04:35:04.941623 25961 net.cpp:91] Creating Layer inception_4a/pool
I0403 04:35:04.941640 25961 net.cpp:425] inception_4a/pool <- pool3/3x3_s2_pool3/3x3_s2_0_split_3
I0403 04:35:04.941679 25961 net.cpp:399] inception_4a/pool -> inception_4a/pool
I0403 04:35:04.941733 25961 net.cpp:141] Setting up inception_4a/pool
I0403 04:35:04.941759 25961 net.cpp:148] Top shape: 24 480 14 14 (2257920)
I0403 04:35:04.941776 25961 net.cpp:156] Memory required for data: 884502912
I0403 04:35:04.941792 25961 layer_factory.hpp:77] Creating layer inception_4a/pool_proj
I0403 04:35:04.941812 25961 net.cpp:91] Creating Layer inception_4a/pool_proj
I0403 04:35:04.941831 25961 net.cpp:425] inception_4a/pool_proj <- inception_4a/pool
I0403 04:35:04.941854 25961 net.cpp:399] inception_4a/pool_proj -> inception_4a/pool_proj
I0403 04:35:04.942255 25961 net.cpp:141] Setting up inception_4a/pool_proj
I0403 04:35:04.942281 25961 net.cpp:148] Top shape: 24 64 14 14 (301056)
I0403 04:35:04.942296 25961 net.cpp:156] Memory required for data: 885707136
I0403 04:35:04.942315 25961 layer_factory.hpp:77] Creating layer inception_4a/relu_pool_proj
I0403 04:35:04.942335 25961 net.cpp:91] Creating Layer inception_4a/relu_pool_proj
I0403 04:35:04.942351 25961 net.cpp:425] inception_4a/relu_pool_proj <- inception_4a/pool_proj
I0403 04:35:04.942370 25961 net.cpp:386] inception_4a/relu_pool_proj -> inception_4a/pool_proj (in-place)
I0403 04:35:04.942390 25961 net.cpp:141] Setting up inception_4a/relu_pool_proj
I0403 04:35:04.942409 25961 net.cpp:148] Top shape: 24 64 14 14 (301056)
I0403 04:35:04.942423 25961 net.cpp:156] Memory required for data: 886911360
I0403 04:35:04.942438 25961 layer_factory.hpp:77] Creating layer inception_4a/output
I0403 04:35:04.942459 25961 net.cpp:91] Creating Layer inception_4a/output
I0403 04:35:04.942476 25961 net.cpp:425] inception_4a/output <- inception_4a/1x1
I0403 04:35:04.942492 25961 net.cpp:425] inception_4a/output <- inception_4a/3x3
I0403 04:35:04.942509 25961 net.cpp:425] inception_4a/output <- inception_4a/5x5
I0403 04:35:04.942526 25961 net.cpp:425] inception_4a/output <- inception_4a/pool_proj
I0403 04:35:04.942544 25961 net.cpp:399] inception_4a/output -> inception_4a/output
I0403 04:35:04.942586 25961 net.cpp:141] Setting up inception_4a/output
I0403 04:35:04.942610 25961 net.cpp:148] Top shape: 24 512 14 14 (2408448)
I0403 04:35:04.942625 25961 net.cpp:156] Memory required for data: 896545152
I0403 04:35:04.942641 25961 layer_factory.hpp:77] Creating layer inception_4a/output_inception_4a/output_0_split
I0403 04:35:04.942658 25961 net.cpp:91] Creating Layer inception_4a/output_inception_4a/output_0_split
I0403 04:35:04.942674 25961 net.cpp:425] inception_4a/output_inception_4a/output_0_split <- inception_4a/output
I0403 04:35:04.942697 25961 net.cpp:399] inception_4a/output_inception_4a/output_0_split -> inception_4a/output_inception_4a/output_0_split_0
I0403 04:35:04.942718 25961 net.cpp:399] inception_4a/output_inception_4a/output_0_split -> inception_4a/output_inception_4a/output_0_split_1
I0403 04:35:04.942739 25961 net.cpp:399] inception_4a/output_inception_4a/output_0_split -> inception_4a/output_inception_4a/output_0_split_2
I0403 04:35:04.942759 25961 net.cpp:399] inception_4a/output_inception_4a/output_0_split -> inception_4a/output_inception_4a/output_0_split_3
I0403 04:35:04.942780 25961 net.cpp:399] inception_4a/output_inception_4a/output_0_split -> inception_4a/output_inception_4a/output_0_split_4
I0403 04:35:04.942859 25961 net.cpp:141] Setting up inception_4a/output_inception_4a/output_0_split
I0403 04:35:04.942883 25961 net.cpp:148] Top shape: 24 512 14 14 (2408448)
I0403 04:35:04.942899 25961 net.cpp:148] Top shape: 24 512 14 14 (2408448)
I0403 04:35:04.942915 25961 net.cpp:148] Top shape: 24 512 14 14 (2408448)
I0403 04:35:04.942931 25961 net.cpp:148] Top shape: 24 512 14 14 (2408448)
I0403 04:35:04.942946 25961 net.cpp:148] Top shape: 24 512 14 14 (2408448)
I0403 04:35:04.942966 25961 net.cpp:156] Memory required for data: 944714112
I0403 04:35:04.942982 25961 layer_factory.hpp:77] Creating layer loss1/ave_pool
I0403 04:35:04.943001 25961 net.cpp:91] Creating Layer loss1/ave_pool
I0403 04:35:04.943030 25961 net.cpp:425] loss1/ave_pool <- inception_4a/output_inception_4a/output_0_split_0
I0403 04:35:04.943053 25961 net.cpp:399] loss1/ave_pool -> loss1/ave_pool
I0403 04:35:04.943092 25961 net.cpp:141] Setting up loss1/ave_pool
I0403 04:35:04.943119 25961 net.cpp:148] Top shape: 24 512 4 4 (196608)
I0403 04:35:04.943133 25961 net.cpp:156] Memory required for data: 945500544
I0403 04:35:04.943148 25961 layer_factory.hpp:77] Creating layer loss1/conv
I0403 04:35:04.943169 25961 net.cpp:91] Creating Layer loss1/conv
I0403 04:35:04.943187 25961 net.cpp:425] loss1/conv <- loss1/ave_pool
I0403 04:35:04.943209 25961 net.cpp:399] loss1/conv -> loss1/conv
I0403 04:35:04.943797 25961 net.cpp:141] Setting up loss1/conv
I0403 04:35:04.943824 25961 net.cpp:148] Top shape: 24 128 4 4 (49152)
I0403 04:35:04.943840 25961 net.cpp:156] Memory required for data: 945697152
I0403 04:35:04.943858 25961 layer_factory.hpp:77] Creating layer loss1/relu_conv
I0403 04:35:04.943876 25961 net.cpp:91] Creating Layer loss1/relu_conv
I0403 04:35:04.943893 25961 net.cpp:425] loss1/relu_conv <- loss1/conv
I0403 04:35:04.943912 25961 net.cpp:386] loss1/relu_conv -> loss1/conv (in-place)
I0403 04:35:04.943931 25961 net.cpp:141] Setting up loss1/relu_conv
I0403 04:35:04.943950 25961 net.cpp:148] Top shape: 24 128 4 4 (49152)
I0403 04:35:04.943970 25961 net.cpp:156] Memory required for data: 945893760
I0403 04:35:04.943986 25961 layer_factory.hpp:77] Creating layer loss1/fc
I0403 04:35:04.944012 25961 net.cpp:91] Creating Layer loss1/fc
I0403 04:35:04.944031 25961 net.cpp:425] loss1/fc <- loss1/conv
I0403 04:35:04.944051 25961 net.cpp:399] loss1/fc -> loss1/fc
I0403 04:35:04.960759 25961 net.cpp:141] Setting up loss1/fc
I0403 04:35:04.960800 25961 net.cpp:148] Top shape: 24 1024 (24576)
I0403 04:35:04.960818 25961 net.cpp:156] Memory required for data: 945992064
I0403 04:35:04.960836 25961 layer_factory.hpp:77] Creating layer loss1/relu_fc
I0403 04:35:04.960857 25961 net.cpp:91] Creating Layer loss1/relu_fc
I0403 04:35:04.960875 25961 net.cpp:425] loss1/relu_fc <- loss1/fc
I0403 04:35:04.960892 25961 net.cpp:386] loss1/relu_fc -> loss1/fc (in-place)
I0403 04:35:04.960913 25961 net.cpp:141] Setting up loss1/relu_fc
I0403 04:35:04.960932 25961 net.cpp:148] Top shape: 24 1024 (24576)
I0403 04:35:04.960947 25961 net.cpp:156] Memory required for data: 946090368
I0403 04:35:04.960966 25961 layer_factory.hpp:77] Creating layer loss1/drop_fc
I0403 04:35:04.961000 25961 net.cpp:91] Creating Layer loss1/drop_fc
I0403 04:35:04.961019 25961 net.cpp:425] loss1/drop_fc <- loss1/fc
I0403 04:35:04.961038 25961 net.cpp:386] loss1/drop_fc -> loss1/fc (in-place)
I0403 04:35:04.961086 25961 net.cpp:141] Setting up loss1/drop_fc
I0403 04:35:04.961112 25961 net.cpp:148] Top shape: 24 1024 (24576)
I0403 04:35:04.961129 25961 net.cpp:156] Memory required for data: 946188672
I0403 04:35:04.961144 25961 layer_factory.hpp:77] Creating layer loss1/classifier_plantvillage
I0403 04:35:04.961165 25961 net.cpp:91] Creating Layer loss1/classifier_plantvillage
I0403 04:35:04.961184 25961 net.cpp:425] loss1/classifier_plantvillage <- loss1/fc
I0403 04:35:04.961205 25961 net.cpp:399] loss1/classifier_plantvillage -> loss1/classifier_plantvillage
I0403 04:35:04.962097 25961 net.cpp:141] Setting up loss1/classifier_plantvillage
I0403 04:35:04.962127 25961 net.cpp:148] Top shape: 24 38 (912)
I0403 04:35:04.962143 25961 net.cpp:156] Memory required for data: 946192320
I0403 04:35:04.962162 25961 layer_factory.hpp:77] Creating layer inception_4b/1x1
I0403 04:35:04.962190 25961 net.cpp:91] Creating Layer inception_4b/1x1
I0403 04:35:04.962210 25961 net.cpp:425] inception_4b/1x1 <- inception_4a/output_inception_4a/output_0_split_1
I0403 04:35:04.962234 25961 net.cpp:399] inception_4b/1x1 -> inception_4b/1x1
I0403 04:35:04.962930 25961 net.cpp:141] Setting up inception_4b/1x1
I0403 04:35:04.962960 25961 net.cpp:148] Top shape: 24 160 14 14 (752640)
I0403 04:35:04.962977 25961 net.cpp:156] Memory required for data: 949202880
I0403 04:35:04.962997 25961 layer_factory.hpp:77] Creating layer inception_4b/relu_1x1
I0403 04:35:04.963035 25961 net.cpp:91] Creating Layer inception_4b/relu_1x1
I0403 04:35:04.963054 25961 net.cpp:425] inception_4b/relu_1x1 <- inception_4b/1x1
I0403 04:35:04.963073 25961 net.cpp:386] inception_4b/relu_1x1 -> inception_4b/1x1 (in-place)
I0403 04:35:04.963093 25961 net.cpp:141] Setting up inception_4b/relu_1x1
I0403 04:35:04.963111 25961 net.cpp:148] Top shape: 24 160 14 14 (752640)
I0403 04:35:04.963125 25961 net.cpp:156] Memory required for data: 952213440
I0403 04:35:04.963141 25961 layer_factory.hpp:77] Creating layer inception_4b/3x3_reduce
I0403 04:35:04.963165 25961 net.cpp:91] Creating Layer inception_4b/3x3_reduce
I0403 04:35:04.963184 25961 net.cpp:425] inception_4b/3x3_reduce <- inception_4a/output_inception_4a/output_0_split_2
I0403 04:35:04.963207 25961 net.cpp:399] inception_4b/3x3_reduce -> inception_4b/3x3_reduce
I0403 04:35:04.963762 25961 net.cpp:141] Setting up inception_4b/3x3_reduce
I0403 04:35:04.963788 25961 net.cpp:148] Top shape: 24 112 14 14 (526848)
I0403 04:35:04.963804 25961 net.cpp:156] Memory required for data: 954320832
I0403 04:35:04.963822 25961 layer_factory.hpp:77] Creating layer inception_4b/relu_3x3_reduce
I0403 04:35:04.963841 25961 net.cpp:91] Creating Layer inception_4b/relu_3x3_reduce
I0403 04:35:04.963858 25961 net.cpp:425] inception_4b/relu_3x3_reduce <- inception_4b/3x3_reduce
I0403 04:35:04.963876 25961 net.cpp:386] inception_4b/relu_3x3_reduce -> inception_4b/3x3_reduce (in-place)
I0403 04:35:04.963896 25961 net.cpp:141] Setting up inception_4b/relu_3x3_reduce
I0403 04:35:04.963913 25961 net.cpp:148] Top shape: 24 112 14 14 (526848)
I0403 04:35:04.963928 25961 net.cpp:156] Memory required for data: 956428224
I0403 04:35:04.963943 25961 layer_factory.hpp:77] Creating layer inception_4b/3x3
I0403 04:35:04.963971 25961 net.cpp:91] Creating Layer inception_4b/3x3
I0403 04:35:04.963991 25961 net.cpp:425] inception_4b/3x3 <- inception_4b/3x3_reduce
I0403 04:35:04.964013 25961 net.cpp:399] inception_4b/3x3 -> inception_4b/3x3
I0403 04:35:04.966104 25961 net.cpp:141] Setting up inception_4b/3x3
I0403 04:35:04.966135 25961 net.cpp:148] Top shape: 24 224 14 14 (1053696)
I0403 04:35:04.966152 25961 net.cpp:156] Memory required for data: 960643008
I0403 04:35:04.966172 25961 layer_factory.hpp:77] Creating layer inception_4b/relu_3x3
I0403 04:35:04.966192 25961 net.cpp:91] Creating Layer inception_4b/relu_3x3
I0403 04:35:04.966208 25961 net.cpp:425] inception_4b/relu_3x3 <- inception_4b/3x3
I0403 04:35:04.966228 25961 net.cpp:386] inception_4b/relu_3x3 -> inception_4b/3x3 (in-place)
I0403 04:35:04.966248 25961 net.cpp:141] Setting up inception_4b/relu_3x3
I0403 04:35:04.966266 25961 net.cpp:148] Top shape: 24 224 14 14 (1053696)
I0403 04:35:04.966281 25961 net.cpp:156] Memory required for data: 964857792
I0403 04:35:04.966296 25961 layer_factory.hpp:77] Creating layer inception_4b/5x5_reduce
I0403 04:35:04.966320 25961 net.cpp:91] Creating Layer inception_4b/5x5_reduce
I0403 04:35:04.966339 25961 net.cpp:425] inception_4b/5x5_reduce <- inception_4a/output_inception_4a/output_0_split_3
I0403 04:35:04.966362 25961 net.cpp:399] inception_4b/5x5_reduce -> inception_4b/5x5_reduce
I0403 04:35:04.966661 25961 net.cpp:141] Setting up inception_4b/5x5_reduce
I0403 04:35:04.966686 25961 net.cpp:148] Top shape: 24 24 14 14 (112896)
I0403 04:35:04.966702 25961 net.cpp:156] Memory required for data: 965309376
I0403 04:35:04.966720 25961 layer_factory.hpp:77] Creating layer inception_4b/relu_5x5_reduce
I0403 04:35:04.966742 25961 net.cpp:91] Creating Layer inception_4b/relu_5x5_reduce
I0403 04:35:04.966760 25961 net.cpp:425] inception_4b/relu_5x5_reduce <- inception_4b/5x5_reduce
I0403 04:35:04.966779 25961 net.cpp:386] inception_4b/relu_5x5_reduce -> inception_4b/5x5_reduce (in-place)
I0403 04:35:04.966799 25961 net.cpp:141] Setting up inception_4b/relu_5x5_reduce
I0403 04:35:04.966817 25961 net.cpp:148] Top shape: 24 24 14 14 (112896)
I0403 04:35:04.966833 25961 net.cpp:156] Memory required for data: 965760960
I0403 04:35:04.966848 25961 layer_factory.hpp:77] Creating layer inception_4b/5x5
I0403 04:35:04.966887 25961 net.cpp:91] Creating Layer inception_4b/5x5
I0403 04:35:04.966907 25961 net.cpp:425] inception_4b/5x5 <- inception_4b/5x5_reduce
I0403 04:35:04.966931 25961 net.cpp:399] inception_4b/5x5 -> inception_4b/5x5
I0403 04:35:04.967378 25961 net.cpp:141] Setting up inception_4b/5x5
I0403 04:35:04.967404 25961 net.cpp:148] Top shape: 24 64 14 14 (301056)
I0403 04:35:04.967420 25961 net.cpp:156] Memory required for data: 966965184
I0403 04:35:04.967438 25961 layer_factory.hpp:77] Creating layer inception_4b/relu_5x5
I0403 04:35:04.967458 25961 net.cpp:91] Creating Layer inception_4b/relu_5x5
I0403 04:35:04.967475 25961 net.cpp:425] inception_4b/relu_5x5 <- inception_4b/5x5
I0403 04:35:04.967494 25961 net.cpp:386] inception_4b/relu_5x5 -> inception_4b/5x5 (in-place)
I0403 04:35:04.967514 25961 net.cpp:141] Setting up inception_4b/relu_5x5
I0403 04:35:04.967531 25961 net.cpp:148] Top shape: 24 64 14 14 (301056)
I0403 04:35:04.967546 25961 net.cpp:156] Memory required for data: 968169408
I0403 04:35:04.967561 25961 layer_factory.hpp:77] Creating layer inception_4b/pool
I0403 04:35:04.967582 25961 net.cpp:91] Creating Layer inception_4b/pool
I0403 04:35:04.967599 25961 net.cpp:425] inception_4b/pool <- inception_4a/output_inception_4a/output_0_split_4
I0403 04:35:04.967618 25961 net.cpp:399] inception_4b/pool -> inception_4b/pool
I0403 04:35:04.967672 25961 net.cpp:141] Setting up inception_4b/pool
I0403 04:35:04.967696 25961 net.cpp:148] Top shape: 24 512 14 14 (2408448)
I0403 04:35:04.967711 25961 net.cpp:156] Memory required for data: 977803200
I0403 04:35:04.967726 25961 layer_factory.hpp:77] Creating layer inception_4b/pool_proj
I0403 04:35:04.967752 25961 net.cpp:91] Creating Layer inception_4b/pool_proj
I0403 04:35:04.967770 25961 net.cpp:425] inception_4b/pool_proj <- inception_4b/pool
I0403 04:35:04.967790 25961 net.cpp:399] inception_4b/pool_proj -> inception_4b/pool_proj
I0403 04:35:04.968224 25961 net.cpp:141] Setting up inception_4b/pool_proj
I0403 04:35:04.968251 25961 net.cpp:148] Top shape: 24 64 14 14 (301056)
I0403 04:35:04.968267 25961 net.cpp:156] Memory required for data: 979007424
I0403 04:35:04.968286 25961 layer_factory.hpp:77] Creating layer inception_4b/relu_pool_proj
I0403 04:35:04.968305 25961 net.cpp:91] Creating Layer inception_4b/relu_pool_proj
I0403 04:35:04.968322 25961 net.cpp:425] inception_4b/relu_pool_proj <- inception_4b/pool_proj
I0403 04:35:04.968343 25961 net.cpp:386] inception_4b/relu_pool_proj -> inception_4b/pool_proj (in-place)
I0403 04:35:04.968365 25961 net.cpp:141] Setting up inception_4b/relu_pool_proj
I0403 04:35:04.968384 25961 net.cpp:148] Top shape: 24 64 14 14 (301056)
I0403 04:35:04.968397 25961 net.cpp:156] Memory required for data: 980211648
I0403 04:35:04.968412 25961 layer_factory.hpp:77] Creating layer inception_4b/output
I0403 04:35:04.968430 25961 net.cpp:91] Creating Layer inception_4b/output
I0403 04:35:04.968446 25961 net.cpp:425] inception_4b/output <- inception_4b/1x1
I0403 04:35:04.968463 25961 net.cpp:425] inception_4b/output <- inception_4b/3x3
I0403 04:35:04.968480 25961 net.cpp:425] inception_4b/output <- inception_4b/5x5
I0403 04:35:04.968497 25961 net.cpp:425] inception_4b/output <- inception_4b/pool_proj
I0403 04:35:04.968515 25961 net.cpp:399] inception_4b/output -> inception_4b/output
I0403 04:35:04.968557 25961 net.cpp:141] Setting up inception_4b/output
I0403 04:35:04.968580 25961 net.cpp:148] Top shape: 24 512 14 14 (2408448)
I0403 04:35:04.968595 25961 net.cpp:156] Memory required for data: 989845440
I0403 04:35:04.968611 25961 layer_factory.hpp:77] Creating layer inception_4b/output_inception_4b/output_0_split
I0403 04:35:04.968629 25961 net.cpp:91] Creating Layer inception_4b/output_inception_4b/output_0_split
I0403 04:35:04.968646 25961 net.cpp:425] inception_4b/output_inception_4b/output_0_split <- inception_4b/output
I0403 04:35:04.968667 25961 net.cpp:399] inception_4b/output_inception_4b/output_0_split -> inception_4b/output_inception_4b/output_0_split_0
I0403 04:35:04.968689 25961 net.cpp:399] inception_4b/output_inception_4b/output_0_split -> inception_4b/output_inception_4b/output_0_split_1
I0403 04:35:04.968724 25961 net.cpp:399] inception_4b/output_inception_4b/output_0_split -> inception_4b/output_inception_4b/output_0_split_2
I0403 04:35:04.968746 25961 net.cpp:399] inception_4b/output_inception_4b/output_0_split -> inception_4b/output_inception_4b/output_0_split_3
I0403 04:35:04.968819 25961 net.cpp:141] Setting up inception_4b/output_inception_4b/output_0_split
I0403 04:35:04.968842 25961 net.cpp:148] Top shape: 24 512 14 14 (2408448)
I0403 04:35:04.968859 25961 net.cpp:148] Top shape: 24 512 14 14 (2408448)
I0403 04:35:04.968875 25961 net.cpp:148] Top shape: 24 512 14 14 (2408448)
I0403 04:35:04.968891 25961 net.cpp:148] Top shape: 24 512 14 14 (2408448)
I0403 04:35:04.968905 25961 net.cpp:156] Memory required for data: 1028380608
I0403 04:35:04.968920 25961 layer_factory.hpp:77] Creating layer inception_4c/1x1
I0403 04:35:04.968945 25961 net.cpp:91] Creating Layer inception_4c/1x1
I0403 04:35:04.968969 25961 net.cpp:425] inception_4c/1x1 <- inception_4b/output_inception_4b/output_0_split_0
I0403 04:35:04.968991 25961 net.cpp:399] inception_4c/1x1 -> inception_4c/1x1
I0403 04:35:04.969579 25961 net.cpp:141] Setting up inception_4c/1x1
I0403 04:35:04.969605 25961 net.cpp:148] Top shape: 24 128 14 14 (602112)
I0403 04:35:04.969620 25961 net.cpp:156] Memory required for data: 1030789056
I0403 04:35:04.969640 25961 layer_factory.hpp:77] Creating layer inception_4c/relu_1x1
I0403 04:35:04.969660 25961 net.cpp:91] Creating Layer inception_4c/relu_1x1
I0403 04:35:04.969676 25961 net.cpp:425] inception_4c/relu_1x1 <- inception_4c/1x1
I0403 04:35:04.969697 25961 net.cpp:386] inception_4c/relu_1x1 -> inception_4c/1x1 (in-place)
I0403 04:35:04.969718 25961 net.cpp:141] Setting up inception_4c/relu_1x1
I0403 04:35:04.969737 25961 net.cpp:148] Top shape: 24 128 14 14 (602112)
I0403 04:35:04.969751 25961 net.cpp:156] Memory required for data: 1033197504
I0403 04:35:04.969766 25961 layer_factory.hpp:77] Creating layer inception_4c/3x3_reduce
I0403 04:35:04.969786 25961 net.cpp:91] Creating Layer inception_4c/3x3_reduce
I0403 04:35:04.969805 25961 net.cpp:425] inception_4c/3x3_reduce <- inception_4b/output_inception_4b/output_0_split_1
I0403 04:35:04.969827 25961 net.cpp:399] inception_4c/3x3_reduce -> inception_4c/3x3_reduce
I0403 04:35:04.970983 25961 net.cpp:141] Setting up inception_4c/3x3_reduce
I0403 04:35:04.971011 25961 net.cpp:148] Top shape: 24 128 14 14 (602112)
I0403 04:35:04.971029 25961 net.cpp:156] Memory required for data: 1035605952
I0403 04:35:04.971047 25961 layer_factory.hpp:77] Creating layer inception_4c/relu_3x3_reduce
I0403 04:35:04.971066 25961 net.cpp:91] Creating Layer inception_4c/relu_3x3_reduce
I0403 04:35:04.971083 25961 net.cpp:425] inception_4c/relu_3x3_reduce <- inception_4c/3x3_reduce
I0403 04:35:04.971101 25961 net.cpp:386] inception_4c/relu_3x3_reduce -> inception_4c/3x3_reduce (in-place)
I0403 04:35:04.971122 25961 net.cpp:141] Setting up inception_4c/relu_3x3_reduce
I0403 04:35:04.971139 25961 net.cpp:148] Top shape: 24 128 14 14 (602112)
I0403 04:35:04.971154 25961 net.cpp:156] Memory required for data: 1038014400
I0403 04:35:04.971168 25961 layer_factory.hpp:77] Creating layer inception_4c/3x3
I0403 04:35:04.971206 25961 net.cpp:91] Creating Layer inception_4c/3x3
I0403 04:35:04.971225 25961 net.cpp:425] inception_4c/3x3 <- inception_4c/3x3_reduce
I0403 04:35:04.971248 25961 net.cpp:399] inception_4c/3x3 -> inception_4c/3x3
I0403 04:35:04.973722 25961 net.cpp:141] Setting up inception_4c/3x3
I0403 04:35:04.973750 25961 net.cpp:148] Top shape: 24 256 14 14 (1204224)
I0403 04:35:04.973767 25961 net.cpp:156] Memory required for data: 1042831296
I0403 04:35:04.973798 25961 layer_factory.hpp:77] Creating layer inception_4c/relu_3x3
I0403 04:35:04.973822 25961 net.cpp:91] Creating Layer inception_4c/relu_3x3
I0403 04:35:04.973840 25961 net.cpp:425] inception_4c/relu_3x3 <- inception_4c/3x3
I0403 04:35:04.973860 25961 net.cpp:386] inception_4c/relu_3x3 -> inception_4c/3x3 (in-place)
I0403 04:35:04.973893 25961 net.cpp:141] Setting up inception_4c/relu_3x3
I0403 04:35:04.973912 25961 net.cpp:148] Top shape: 24 256 14 14 (1204224)
I0403 04:35:04.973927 25961 net.cpp:156] Memory required for data: 1047648192
I0403 04:35:04.973942 25961 layer_factory.hpp:77] Creating layer inception_4c/5x5_reduce
I0403 04:35:04.973970 25961 net.cpp:91] Creating Layer inception_4c/5x5_reduce
I0403 04:35:04.973989 25961 net.cpp:425] inception_4c/5x5_reduce <- inception_4b/output_inception_4b/output_0_split_2
I0403 04:35:04.974010 25961 net.cpp:399] inception_4c/5x5_reduce -> inception_4c/5x5_reduce
I0403 04:35:04.974299 25961 net.cpp:141] Setting up inception_4c/5x5_reduce
I0403 04:35:04.974325 25961 net.cpp:148] Top shape: 24 24 14 14 (112896)
I0403 04:35:04.974340 25961 net.cpp:156] Memory required for data: 1048099776
I0403 04:35:04.974359 25961 layer_factory.hpp:77] Creating layer inception_4c/relu_5x5_reduce
I0403 04:35:04.974377 25961 net.cpp:91] Creating Layer inception_4c/relu_5x5_reduce
I0403 04:35:04.974395 25961 net.cpp:425] inception_4c/relu_5x5_reduce <- inception_4c/5x5_reduce
I0403 04:35:04.974416 25961 net.cpp:386] inception_4c/relu_5x5_reduce -> inception_4c/5x5_reduce (in-place)
I0403 04:35:04.974437 25961 net.cpp:141] Setting up inception_4c/relu_5x5_reduce
I0403 04:35:04.974455 25961 net.cpp:148] Top shape: 24 24 14 14 (112896)
I0403 04:35:04.974469 25961 net.cpp:156] Memory required for data: 1048551360
I0403 04:35:04.974484 25961 layer_factory.hpp:77] Creating layer inception_4c/5x5
I0403 04:35:04.974512 25961 net.cpp:91] Creating Layer inception_4c/5x5
I0403 04:35:04.974530 25961 net.cpp:425] inception_4c/5x5 <- inception_4c/5x5_reduce
I0403 04:35:04.974550 25961 net.cpp:399] inception_4c/5x5 -> inception_4c/5x5
I0403 04:35:04.975006 25961 net.cpp:141] Setting up inception_4c/5x5
I0403 04:35:04.975033 25961 net.cpp:148] Top shape: 24 64 14 14 (301056)
I0403 04:35:04.975049 25961 net.cpp:156] Memory required for data: 1049755584
I0403 04:35:04.975069 25961 layer_factory.hpp:77] Creating layer inception_4c/relu_5x5
I0403 04:35:04.975087 25961 net.cpp:91] Creating Layer inception_4c/relu_5x5
I0403 04:35:04.975103 25961 net.cpp:425] inception_4c/relu_5x5 <- inception_4c/5x5
I0403 04:35:04.975123 25961 net.cpp:386] inception_4c/relu_5x5 -> inception_4c/5x5 (in-place)
I0403 04:35:04.975145 25961 net.cpp:141] Setting up inception_4c/relu_5x5
I0403 04:35:04.975163 25961 net.cpp:148] Top shape: 24 64 14 14 (301056)
I0403 04:35:04.975178 25961 net.cpp:156] Memory required for data: 1050959808
I0403 04:35:04.975194 25961 layer_factory.hpp:77] Creating layer inception_4c/pool
I0403 04:35:04.975213 25961 net.cpp:91] Creating Layer inception_4c/pool
I0403 04:35:04.975229 25961 net.cpp:425] inception_4c/pool <- inception_4b/output_inception_4b/output_0_split_3
I0403 04:35:04.975247 25961 net.cpp:399] inception_4c/pool -> inception_4c/pool
I0403 04:35:04.975306 25961 net.cpp:141] Setting up inception_4c/pool
I0403 04:35:04.975329 25961 net.cpp:148] Top shape: 24 512 14 14 (2408448)
I0403 04:35:04.975344 25961 net.cpp:156] Memory required for data: 1060593600
I0403 04:35:04.975360 25961 layer_factory.hpp:77] Creating layer inception_4c/pool_proj
I0403 04:35:04.975383 25961 net.cpp:91] Creating Layer inception_4c/pool_proj
I0403 04:35:04.975402 25961 net.cpp:425] inception_4c/pool_proj <- inception_4c/pool
I0403 04:35:04.975425 25961 net.cpp:399] inception_4c/pool_proj -> inception_4c/pool_proj
I0403 04:35:04.975838 25961 net.cpp:141] Setting up inception_4c/pool_proj
I0403 04:35:04.975864 25961 net.cpp:148] Top shape: 24 64 14 14 (301056)
I0403 04:35:04.975880 25961 net.cpp:156] Memory required for data: 1061797824
I0403 04:35:04.975899 25961 layer_factory.hpp:77] Creating layer inception_4c/relu_pool_proj
I0403 04:35:04.975917 25961 net.cpp:91] Creating Layer inception_4c/relu_pool_proj
I0403 04:35:04.975934 25961 net.cpp:425] inception_4c/relu_pool_proj <- inception_4c/pool_proj
I0403 04:35:04.975953 25961 net.cpp:386] inception_4c/relu_pool_proj -> inception_4c/pool_proj (in-place)
I0403 04:35:04.975980 25961 net.cpp:141] Setting up inception_4c/relu_pool_proj
I0403 04:35:04.976012 25961 net.cpp:148] Top shape: 24 64 14 14 (301056)
I0403 04:35:04.976027 25961 net.cpp:156] Memory required for data: 1063002048
I0403 04:35:04.976042 25961 layer_factory.hpp:77] Creating layer inception_4c/output
I0403 04:35:04.976064 25961 net.cpp:91] Creating Layer inception_4c/output
I0403 04:35:04.976081 25961 net.cpp:425] inception_4c/output <- inception_4c/1x1
I0403 04:35:04.976099 25961 net.cpp:425] inception_4c/output <- inception_4c/3x3
I0403 04:35:04.976115 25961 net.cpp:425] inception_4c/output <- inception_4c/5x5
I0403 04:35:04.976131 25961 net.cpp:425] inception_4c/output <- inception_4c/pool_proj
I0403 04:35:04.976150 25961 net.cpp:399] inception_4c/output -> inception_4c/output
I0403 04:35:04.976192 25961 net.cpp:141] Setting up inception_4c/output
I0403 04:35:04.976217 25961 net.cpp:148] Top shape: 24 512 14 14 (2408448)
I0403 04:35:04.976233 25961 net.cpp:156] Memory required for data: 1072635840
I0403 04:35:04.976248 25961 layer_factory.hpp:77] Creating layer inception_4c/output_inception_4c/output_0_split
I0403 04:35:04.976266 25961 net.cpp:91] Creating Layer inception_4c/output_inception_4c/output_0_split
I0403 04:35:04.976281 25961 net.cpp:425] inception_4c/output_inception_4c/output_0_split <- inception_4c/output
I0403 04:35:04.976300 25961 net.cpp:399] inception_4c/output_inception_4c/output_0_split -> inception_4c/output_inception_4c/output_0_split_0
I0403 04:35:04.976323 25961 net.cpp:399] inception_4c/output_inception_4c/output_0_split -> inception_4c/output_inception_4c/output_0_split_1
I0403 04:35:04.976346 25961 net.cpp:399] inception_4c/output_inception_4c/output_0_split -> inception_4c/output_inception_4c/output_0_split_2
I0403 04:35:04.976367 25961 net.cpp:399] inception_4c/output_inception_4c/output_0_split -> inception_4c/output_inception_4c/output_0_split_3
I0403 04:35:04.976438 25961 net.cpp:141] Setting up inception_4c/output_inception_4c/output_0_split
I0403 04:35:04.976462 25961 net.cpp:148] Top shape: 24 512 14 14 (2408448)
I0403 04:35:04.976478 25961 net.cpp:148] Top shape: 24 512 14 14 (2408448)
I0403 04:35:04.976495 25961 net.cpp:148] Top shape: 24 512 14 14 (2408448)
I0403 04:35:04.976511 25961 net.cpp:148] Top shape: 24 512 14 14 (2408448)
I0403 04:35:04.976526 25961 net.cpp:156] Memory required for data: 1111171008
I0403 04:35:04.976541 25961 layer_factory.hpp:77] Creating layer inception_4d/1x1
I0403 04:35:04.976564 25961 net.cpp:91] Creating Layer inception_4d/1x1
I0403 04:35:04.976583 25961 net.cpp:425] inception_4d/1x1 <- inception_4c/output_inception_4c/output_0_split_0
I0403 04:35:04.976604 25961 net.cpp:399] inception_4d/1x1 -> inception_4d/1x1
I0403 04:35:04.977159 25961 net.cpp:141] Setting up inception_4d/1x1
I0403 04:35:04.977186 25961 net.cpp:148] Top shape: 24 112 14 14 (526848)
I0403 04:35:04.977201 25961 net.cpp:156] Memory required for data: 1113278400
I0403 04:35:04.977221 25961 layer_factory.hpp:77] Creating layer inception_4d/relu_1x1
I0403 04:35:04.977239 25961 net.cpp:91] Creating Layer inception_4d/relu_1x1
I0403 04:35:04.977257 25961 net.cpp:425] inception_4d/relu_1x1 <- inception_4d/1x1
I0403 04:35:04.977278 25961 net.cpp:386] inception_4d/relu_1x1 -> inception_4d/1x1 (in-place)
I0403 04:35:04.977299 25961 net.cpp:141] Setting up inception_4d/relu_1x1
I0403 04:35:04.977318 25961 net.cpp:148] Top shape: 24 112 14 14 (526848)
I0403 04:35:04.977332 25961 net.cpp:156] Memory required for data: 1115385792
I0403 04:35:04.977347 25961 layer_factory.hpp:77] Creating layer inception_4d/3x3_reduce
I0403 04:35:04.977368 25961 net.cpp:91] Creating Layer inception_4d/3x3_reduce
I0403 04:35:04.977386 25961 net.cpp:425] inception_4d/3x3_reduce <- inception_4c/output_inception_4c/output_0_split_1
I0403 04:35:04.977413 25961 net.cpp:399] inception_4d/3x3_reduce -> inception_4d/3x3_reduce
I0403 04:35:04.978094 25961 net.cpp:141] Setting up inception_4d/3x3_reduce
I0403 04:35:04.978121 25961 net.cpp:148] Top shape: 24 144 14 14 (677376)
I0403 04:35:04.978137 25961 net.cpp:156] Memory required for data: 1118095296
I0403 04:35:04.978169 25961 layer_factory.hpp:77] Creating layer inception_4d/relu_3x3_reduce
I0403 04:35:04.978190 25961 net.cpp:91] Creating Layer inception_4d/relu_3x3_reduce
I0403 04:35:04.978209 25961 net.cpp:425] inception_4d/relu_3x3_reduce <- inception_4d/3x3_reduce
I0403 04:35:04.978227 25961 net.cpp:386] inception_4d/relu_3x3_reduce -> inception_4d/3x3_reduce (in-place)
I0403 04:35:04.978247 25961 net.cpp:141] Setting up inception_4d/relu_3x3_reduce
I0403 04:35:04.978266 25961 net.cpp:148] Top shape: 24 144 14 14 (677376)
I0403 04:35:04.978281 25961 net.cpp:156] Memory required for data: 1120804800
I0403 04:35:04.978296 25961 layer_factory.hpp:77] Creating layer inception_4d/3x3
I0403 04:35:04.978319 25961 net.cpp:91] Creating Layer inception_4d/3x3
I0403 04:35:04.978340 25961 net.cpp:425] inception_4d/3x3 <- inception_4d/3x3_reduce
I0403 04:35:04.978361 25961 net.cpp:399] inception_4d/3x3 -> inception_4d/3x3
I0403 04:35:04.981653 25961 net.cpp:141] Setting up inception_4d/3x3
I0403 04:35:04.981683 25961 net.cpp:148] Top shape: 24 288 14 14 (1354752)
I0403 04:35:04.981698 25961 net.cpp:156] Memory required for data: 1126223808
I0403 04:35:04.981717 25961 layer_factory.hpp:77] Creating layer inception_4d/relu_3x3
I0403 04:35:04.981739 25961 net.cpp:91] Creating Layer inception_4d/relu_3x3
I0403 04:35:04.981758 25961 net.cpp:425] inception_4d/relu_3x3 <- inception_4d/3x3
I0403 04:35:04.981777 25961 net.cpp:386] inception_4d/relu_3x3 -> inception_4d/3x3 (in-place)
I0403 04:35:04.981797 25961 net.cpp:141] Setting up inception_4d/relu_3x3
I0403 04:35:04.981815 25961 net.cpp:148] Top shape: 24 288 14 14 (1354752)
I0403 04:35:04.981830 25961 net.cpp:156] Memory required for data: 1131642816
I0403 04:35:04.981845 25961 layer_factory.hpp:77] Creating layer inception_4d/5x5_reduce
I0403 04:35:04.981869 25961 net.cpp:91] Creating Layer inception_4d/5x5_reduce
I0403 04:35:04.981887 25961 net.cpp:425] inception_4d/5x5_reduce <- inception_4c/output_inception_4c/output_0_split_2
I0403 04:35:04.981909 25961 net.cpp:399] inception_4d/5x5_reduce -> inception_4d/5x5_reduce
I0403 04:35:04.982240 25961 net.cpp:141] Setting up inception_4d/5x5_reduce
I0403 04:35:04.982267 25961 net.cpp:148] Top shape: 24 32 14 14 (150528)
I0403 04:35:04.982283 25961 net.cpp:156] Memory required for data: 1132244928
I0403 04:35:04.982302 25961 layer_factory.hpp:77] Creating layer inception_4d/relu_5x5_reduce
I0403 04:35:04.982321 25961 net.cpp:91] Creating Layer inception_4d/relu_5x5_reduce
I0403 04:35:04.982337 25961 net.cpp:425] inception_4d/relu_5x5_reduce <- inception_4d/5x5_reduce
I0403 04:35:04.982357 25961 net.cpp:386] inception_4d/relu_5x5_reduce -> inception_4d/5x5_reduce (in-place)
I0403 04:35:04.982379 25961 net.cpp:141] Setting up inception_4d/relu_5x5_reduce
I0403 04:35:04.982396 25961 net.cpp:148] Top shape: 24 32 14 14 (150528)
I0403 04:35:04.982411 25961 net.cpp:156] Memory required for data: 1132847040
I0403 04:35:04.982427 25961 layer_factory.hpp:77] Creating layer inception_4d/5x5
I0403 04:35:04.982451 25961 net.cpp:91] Creating Layer inception_4d/5x5
I0403 04:35:04.982470 25961 net.cpp:425] inception_4d/5x5 <- inception_4d/5x5_reduce
I0403 04:35:04.982489 25961 net.cpp:399] inception_4d/5x5 -> inception_4d/5x5
I0403 04:35:04.983017 25961 net.cpp:141] Setting up inception_4d/5x5
I0403 04:35:04.983043 25961 net.cpp:148] Top shape: 24 64 14 14 (301056)
I0403 04:35:04.983058 25961 net.cpp:156] Memory required for data: 1134051264
I0403 04:35:04.983078 25961 layer_factory.hpp:77] Creating layer inception_4d/relu_5x5
I0403 04:35:04.983098 25961 net.cpp:91] Creating Layer inception_4d/relu_5x5
I0403 04:35:04.983116 25961 net.cpp:425] inception_4d/relu_5x5 <- inception_4d/5x5
I0403 04:35:04.983134 25961 net.cpp:386] inception_4d/relu_5x5 -> inception_4d/5x5 (in-place)
I0403 04:35:04.983155 25961 net.cpp:141] Setting up inception_4d/relu_5x5
I0403 04:35:04.983172 25961 net.cpp:148] Top shape: 24 64 14 14 (301056)
I0403 04:35:04.983188 25961 net.cpp:156] Memory required for data: 1135255488
I0403 04:35:04.983203 25961 layer_factory.hpp:77] Creating layer inception_4d/pool
I0403 04:35:04.983237 25961 net.cpp:91] Creating Layer inception_4d/pool
I0403 04:35:04.983254 25961 net.cpp:425] inception_4d/pool <- inception_4c/output_inception_4c/output_0_split_3
I0403 04:35:04.983275 25961 net.cpp:399] inception_4d/pool -> inception_4d/pool
I0403 04:35:04.983330 25961 net.cpp:141] Setting up inception_4d/pool
I0403 04:35:04.983355 25961 net.cpp:148] Top shape: 24 512 14 14 (2408448)
I0403 04:35:04.983369 25961 net.cpp:156] Memory required for data: 1144889280
I0403 04:35:04.983384 25961 layer_factory.hpp:77] Creating layer inception_4d/pool_proj
I0403 04:35:04.983412 25961 net.cpp:91] Creating Layer inception_4d/pool_proj
I0403 04:35:04.983433 25961 net.cpp:425] inception_4d/pool_proj <- inception_4d/pool
I0403 04:35:04.983453 25961 net.cpp:399] inception_4d/pool_proj -> inception_4d/pool_proj
I0403 04:35:04.984424 25961 net.cpp:141] Setting up inception_4d/pool_proj
I0403 04:35:04.984453 25961 net.cpp:148] Top shape: 24 64 14 14 (301056)
I0403 04:35:04.984470 25961 net.cpp:156] Memory required for data: 1146093504
I0403 04:35:04.984489 25961 layer_factory.hpp:77] Creating layer inception_4d/relu_pool_proj
I0403 04:35:04.984508 25961 net.cpp:91] Creating Layer inception_4d/relu_pool_proj
I0403 04:35:04.984525 25961 net.cpp:425] inception_4d/relu_pool_proj <- inception_4d/pool_proj
I0403 04:35:04.984544 25961 net.cpp:386] inception_4d/relu_pool_proj -> inception_4d/pool_proj (in-place)
I0403 04:35:04.984565 25961 net.cpp:141] Setting up inception_4d/relu_pool_proj
I0403 04:35:04.984582 25961 net.cpp:148] Top shape: 24 64 14 14 (301056)
I0403 04:35:04.984597 25961 net.cpp:156] Memory required for data: 1147297728
I0403 04:35:04.984612 25961 layer_factory.hpp:77] Creating layer inception_4d/output
I0403 04:35:04.984633 25961 net.cpp:91] Creating Layer inception_4d/output
I0403 04:35:04.984649 25961 net.cpp:425] inception_4d/output <- inception_4d/1x1
I0403 04:35:04.984668 25961 net.cpp:425] inception_4d/output <- inception_4d/3x3
I0403 04:35:04.984683 25961 net.cpp:425] inception_4d/output <- inception_4d/5x5
I0403 04:35:04.984700 25961 net.cpp:425] inception_4d/output <- inception_4d/pool_proj
I0403 04:35:04.984719 25961 net.cpp:399] inception_4d/output -> inception_4d/output
I0403 04:35:04.984761 25961 net.cpp:141] Setting up inception_4d/output
I0403 04:35:04.984784 25961 net.cpp:148] Top shape: 24 528 14 14 (2483712)
I0403 04:35:04.984800 25961 net.cpp:156] Memory required for data: 1157232576
I0403 04:35:04.984815 25961 layer_factory.hpp:77] Creating layer inception_4d/output_inception_4d/output_0_split
I0403 04:35:04.984834 25961 net.cpp:91] Creating Layer inception_4d/output_inception_4d/output_0_split
I0403 04:35:04.984851 25961 net.cpp:425] inception_4d/output_inception_4d/output_0_split <- inception_4d/output
I0403 04:35:04.984874 25961 net.cpp:399] inception_4d/output_inception_4d/output_0_split -> inception_4d/output_inception_4d/output_0_split_0
I0403 04:35:04.984895 25961 net.cpp:399] inception_4d/output_inception_4d/output_0_split -> inception_4d/output_inception_4d/output_0_split_1
I0403 04:35:04.984917 25961 net.cpp:399] inception_4d/output_inception_4d/output_0_split -> inception_4d/output_inception_4d/output_0_split_2
I0403 04:35:04.984938 25961 net.cpp:399] inception_4d/output_inception_4d/output_0_split -> inception_4d/output_inception_4d/output_0_split_3
I0403 04:35:04.984962 25961 net.cpp:399] inception_4d/output_inception_4d/output_0_split -> inception_4d/output_inception_4d/output_0_split_4
I0403 04:35:04.985049 25961 net.cpp:141] Setting up inception_4d/output_inception_4d/output_0_split
I0403 04:35:04.985072 25961 net.cpp:148] Top shape: 24 528 14 14 (2483712)
I0403 04:35:04.985090 25961 net.cpp:148] Top shape: 24 528 14 14 (2483712)
I0403 04:35:04.985106 25961 net.cpp:148] Top shape: 24 528 14 14 (2483712)
I0403 04:35:04.985122 25961 net.cpp:148] Top shape: 24 528 14 14 (2483712)
I0403 04:35:04.985138 25961 net.cpp:148] Top shape: 24 528 14 14 (2483712)
I0403 04:35:04.985152 25961 net.cpp:156] Memory required for data: 1206906816
I0403 04:35:04.985183 25961 layer_factory.hpp:77] Creating layer loss2/ave_pool
I0403 04:35:04.985203 25961 net.cpp:91] Creating Layer loss2/ave_pool
I0403 04:35:04.985221 25961 net.cpp:425] loss2/ave_pool <- inception_4d/output_inception_4d/output_0_split_0
I0403 04:35:04.985240 25961 net.cpp:399] loss2/ave_pool -> loss2/ave_pool
I0403 04:35:04.985282 25961 net.cpp:141] Setting up loss2/ave_pool
I0403 04:35:04.985308 25961 net.cpp:148] Top shape: 24 528 4 4 (202752)
I0403 04:35:04.985326 25961 net.cpp:156] Memory required for data: 1207717824
I0403 04:35:04.985340 25961 layer_factory.hpp:77] Creating layer loss2/conv
I0403 04:35:04.985363 25961 net.cpp:91] Creating Layer loss2/conv
I0403 04:35:04.985381 25961 net.cpp:425] loss2/conv <- loss2/ave_pool
I0403 04:35:04.985404 25961 net.cpp:399] loss2/conv -> loss2/conv
I0403 04:35:04.986570 25961 net.cpp:141] Setting up loss2/conv
I0403 04:35:04.986599 25961 net.cpp:148] Top shape: 24 128 4 4 (49152)
I0403 04:35:04.986615 25961 net.cpp:156] Memory required for data: 1207914432
I0403 04:35:04.986634 25961 layer_factory.hpp:77] Creating layer loss2/relu_conv
I0403 04:35:04.986659 25961 net.cpp:91] Creating Layer loss2/relu_conv
I0403 04:35:04.986677 25961 net.cpp:425] loss2/relu_conv <- loss2/conv
I0403 04:35:04.986696 25961 net.cpp:386] loss2/relu_conv -> loss2/conv (in-place)
I0403 04:35:04.986716 25961 net.cpp:141] Setting up loss2/relu_conv
I0403 04:35:04.986734 25961 net.cpp:148] Top shape: 24 128 4 4 (49152)
I0403 04:35:04.986750 25961 net.cpp:156] Memory required for data: 1208111040
I0403 04:35:04.986765 25961 layer_factory.hpp:77] Creating layer loss2/fc
I0403 04:35:04.986788 25961 net.cpp:91] Creating Layer loss2/fc
I0403 04:35:04.986805 25961 net.cpp:425] loss2/fc <- loss2/conv
I0403 04:35:04.986825 25961 net.cpp:399] loss2/fc -> loss2/fc
I0403 04:35:05.003789 25961 net.cpp:141] Setting up loss2/fc
I0403 04:35:05.003824 25961 net.cpp:148] Top shape: 24 1024 (24576)
I0403 04:35:05.003840 25961 net.cpp:156] Memory required for data: 1208209344
I0403 04:35:05.003859 25961 layer_factory.hpp:77] Creating layer loss2/relu_fc
I0403 04:35:05.003880 25961 net.cpp:91] Creating Layer loss2/relu_fc
I0403 04:35:05.003896 25961 net.cpp:425] loss2/relu_fc <- loss2/fc
I0403 04:35:05.003926 25961 net.cpp:386] loss2/relu_fc -> loss2/fc (in-place)
I0403 04:35:05.003950 25961 net.cpp:141] Setting up loss2/relu_fc
I0403 04:35:05.003975 25961 net.cpp:148] Top shape: 24 1024 (24576)
I0403 04:35:05.003991 25961 net.cpp:156] Memory required for data: 1208307648
I0403 04:35:05.004006 25961 layer_factory.hpp:77] Creating layer loss2/drop_fc
I0403 04:35:05.004025 25961 net.cpp:91] Creating Layer loss2/drop_fc
I0403 04:35:05.004041 25961 net.cpp:425] loss2/drop_fc <- loss2/fc
I0403 04:35:05.004060 25961 net.cpp:386] loss2/drop_fc -> loss2/fc (in-place)
I0403 04:35:05.004102 25961 net.cpp:141] Setting up loss2/drop_fc
I0403 04:35:05.004127 25961 net.cpp:148] Top shape: 24 1024 (24576)
I0403 04:35:05.004142 25961 net.cpp:156] Memory required for data: 1208405952
I0403 04:35:05.004156 25961 layer_factory.hpp:77] Creating layer loss2/classifier_plantvillage
I0403 04:35:05.004176 25961 net.cpp:91] Creating Layer loss2/classifier_plantvillage
I0403 04:35:05.004194 25961 net.cpp:425] loss2/classifier_plantvillage <- loss2/fc
I0403 04:35:05.004227 25961 net.cpp:399] loss2/classifier_plantvillage -> loss2/classifier_plantvillage
I0403 04:35:05.004560 25961 net.cpp:141] Setting up loss2/classifier_plantvillage
I0403 04:35:05.004585 25961 net.cpp:148] Top shape: 24 38 (912)
I0403 04:35:05.004601 25961 net.cpp:156] Memory required for data: 1208409600
I0403 04:35:05.004618 25961 layer_factory.hpp:77] Creating layer inception_4e/1x1
I0403 04:35:05.004643 25961 net.cpp:91] Creating Layer inception_4e/1x1
I0403 04:35:05.004662 25961 net.cpp:425] inception_4e/1x1 <- inception_4d/output_inception_4d/output_0_split_1
I0403 04:35:05.004681 25961 net.cpp:399] inception_4e/1x1 -> inception_4e/1x1
I0403 04:35:05.005664 25961 net.cpp:141] Setting up inception_4e/1x1
I0403 04:35:05.005691 25961 net.cpp:148] Top shape: 24 256 14 14 (1204224)
I0403 04:35:05.005720 25961 net.cpp:156] Memory required for data: 1213226496
I0403 04:35:05.005740 25961 layer_factory.hpp:77] Creating layer inception_4e/relu_1x1
I0403 04:35:05.005759 25961 net.cpp:91] Creating Layer inception_4e/relu_1x1
I0403 04:35:05.005776 25961 net.cpp:425] inception_4e/relu_1x1 <- inception_4e/1x1
I0403 04:35:05.005795 25961 net.cpp:386] inception_4e/relu_1x1 -> inception_4e/1x1 (in-place)
I0403 04:35:05.005813 25961 net.cpp:141] Setting up inception_4e/relu_1x1
I0403 04:35:05.005831 25961 net.cpp:148] Top shape: 24 256 14 14 (1204224)
I0403 04:35:05.005846 25961 net.cpp:156] Memory required for data: 1218043392
I0403 04:35:05.005861 25961 layer_factory.hpp:77] Creating layer inception_4e/3x3_reduce
I0403 04:35:05.005884 25961 net.cpp:91] Creating Layer inception_4e/3x3_reduce
I0403 04:35:05.005903 25961 net.cpp:425] inception_4e/3x3_reduce <- inception_4d/output_inception_4d/output_0_split_2
I0403 04:35:05.005925 25961 net.cpp:399] inception_4e/3x3_reduce -> inception_4e/3x3_reduce
I0403 04:35:05.007169 25961 net.cpp:141] Setting up inception_4e/3x3_reduce
I0403 04:35:05.007212 25961 net.cpp:148] Top shape: 24 160 14 14 (752640)
I0403 04:35:05.007230 25961 net.cpp:156] Memory required for data: 1221053952
I0403 04:35:05.007249 25961 layer_factory.hpp:77] Creating layer inception_4e/relu_3x3_reduce
I0403 04:35:05.007269 25961 net.cpp:91] Creating Layer inception_4e/relu_3x3_reduce
I0403 04:35:05.007287 25961 net.cpp:425] inception_4e/relu_3x3_reduce <- inception_4e/3x3_reduce
I0403 04:35:05.007304 25961 net.cpp:386] inception_4e/relu_3x3_reduce -> inception_4e/3x3_reduce (in-place)
I0403 04:35:05.007325 25961 net.cpp:141] Setting up inception_4e/relu_3x3_reduce
I0403 04:35:05.007344 25961 net.cpp:148] Top shape: 24 160 14 14 (752640)
I0403 04:35:05.007359 25961 net.cpp:156] Memory required for data: 1224064512
I0403 04:35:05.007375 25961 layer_factory.hpp:77] Creating layer inception_4e/3x3
I0403 04:35:05.007400 25961 net.cpp:91] Creating Layer inception_4e/3x3
I0403 04:35:05.007418 25961 net.cpp:425] inception_4e/3x3 <- inception_4e/3x3_reduce
I0403 04:35:05.007441 25961 net.cpp:399] inception_4e/3x3 -> inception_4e/3x3
I0403 04:35:05.011350 25961 net.cpp:141] Setting up inception_4e/3x3
I0403 04:35:05.011379 25961 net.cpp:148] Top shape: 24 320 14 14 (1505280)
I0403 04:35:05.011396 25961 net.cpp:156] Memory required for data: 1230085632
I0403 04:35:05.011415 25961 layer_factory.hpp:77] Creating layer inception_4e/relu_3x3
I0403 04:35:05.011435 25961 net.cpp:91] Creating Layer inception_4e/relu_3x3
I0403 04:35:05.011452 25961 net.cpp:425] inception_4e/relu_3x3 <- inception_4e/3x3
I0403 04:35:05.011485 25961 net.cpp:386] inception_4e/relu_3x3 -> inception_4e/3x3 (in-place)
I0403 04:35:05.011507 25961 net.cpp:141] Setting up inception_4e/relu_3x3
I0403 04:35:05.011524 25961 net.cpp:148] Top shape: 24 320 14 14 (1505280)
I0403 04:35:05.011539 25961 net.cpp:156] Memory required for data: 1236106752
I0403 04:35:05.011554 25961 layer_factory.hpp:77] Creating layer inception_4e/5x5_reduce
I0403 04:35:05.011577 25961 net.cpp:91] Creating Layer inception_4e/5x5_reduce
I0403 04:35:05.011595 25961 net.cpp:425] inception_4e/5x5_reduce <- inception_4d/output_inception_4d/output_0_split_3
I0403 04:35:05.011615 25961 net.cpp:399] inception_4e/5x5_reduce -> inception_4e/5x5_reduce
I0403 04:35:05.011939 25961 net.cpp:141] Setting up inception_4e/5x5_reduce
I0403 04:35:05.011967 25961 net.cpp:148] Top shape: 24 32 14 14 (150528)
I0403 04:35:05.011983 25961 net.cpp:156] Memory required for data: 1236708864
I0403 04:35:05.012001 25961 layer_factory.hpp:77] Creating layer inception_4e/relu_5x5_reduce
I0403 04:35:05.012019 25961 net.cpp:91] Creating Layer inception_4e/relu_5x5_reduce
I0403 04:35:05.012037 25961 net.cpp:425] inception_4e/relu_5x5_reduce <- inception_4e/5x5_reduce
I0403 04:35:05.012056 25961 net.cpp:386] inception_4e/relu_5x5_reduce -> inception_4e/5x5_reduce (in-place)
I0403 04:35:05.012078 25961 net.cpp:141] Setting up inception_4e/relu_5x5_reduce
I0403 04:35:05.012094 25961 net.cpp:148] Top shape: 24 32 14 14 (150528)
I0403 04:35:05.012123 25961 net.cpp:156] Memory required for data: 1237310976
I0403 04:35:05.012138 25961 layer_factory.hpp:77] Creating layer inception_4e/5x5
I0403 04:35:05.012164 25961 net.cpp:91] Creating Layer inception_4e/5x5
I0403 04:35:05.012184 25961 net.cpp:425] inception_4e/5x5 <- inception_4e/5x5_reduce
I0403 04:35:05.012204 25961 net.cpp:399] inception_4e/5x5 -> inception_4e/5x5
I0403 04:35:05.013005 25961 net.cpp:141] Setting up inception_4e/5x5
I0403 04:35:05.013031 25961 net.cpp:148] Top shape: 24 128 14 14 (602112)
I0403 04:35:05.013046 25961 net.cpp:156] Memory required for data: 1239719424
I0403 04:35:05.013063 25961 layer_factory.hpp:77] Creating layer inception_4e/relu_5x5
I0403 04:35:05.013082 25961 net.cpp:91] Creating Layer inception_4e/relu_5x5
I0403 04:35:05.013099 25961 net.cpp:425] inception_4e/relu_5x5 <- inception_4e/5x5
I0403 04:35:05.013118 25961 net.cpp:386] inception_4e/relu_5x5 -> inception_4e/5x5 (in-place)
I0403 04:35:05.013140 25961 net.cpp:141] Setting up inception_4e/relu_5x5
I0403 04:35:05.013159 25961 net.cpp:148] Top shape: 24 128 14 14 (602112)
I0403 04:35:05.013172 25961 net.cpp:156] Memory required for data: 1242127872
I0403 04:35:05.013188 25961 layer_factory.hpp:77] Creating layer inception_4e/pool
I0403 04:35:05.013223 25961 net.cpp:91] Creating Layer inception_4e/pool
I0403 04:35:05.013243 25961 net.cpp:425] inception_4e/pool <- inception_4d/output_inception_4d/output_0_split_4
I0403 04:35:05.013263 25961 net.cpp:399] inception_4e/pool -> inception_4e/pool
I0403 04:35:05.013317 25961 net.cpp:141] Setting up inception_4e/pool
I0403 04:35:05.013342 25961 net.cpp:148] Top shape: 24 528 14 14 (2483712)
I0403 04:35:05.013358 25961 net.cpp:156] Memory required for data: 1252062720
I0403 04:35:05.013375 25961 layer_factory.hpp:77] Creating layer inception_4e/pool_proj
I0403 04:35:05.013396 25961 net.cpp:91] Creating Layer inception_4e/pool_proj
I0403 04:35:05.013412 25961 net.cpp:425] inception_4e/pool_proj <- inception_4e/pool
I0403 04:35:05.013434 25961 net.cpp:399] inception_4e/pool_proj -> inception_4e/pool_proj
I0403 04:35:05.014056 25961 net.cpp:141] Setting up inception_4e/pool_proj
I0403 04:35:05.014082 25961 net.cpp:148] Top shape: 24 128 14 14 (602112)
I0403 04:35:05.014099 25961 net.cpp:156] Memory required for data: 1254471168
I0403 04:35:05.014118 25961 layer_factory.hpp:77] Creating layer inception_4e/relu_pool_proj
I0403 04:35:05.014137 25961 net.cpp:91] Creating Layer inception_4e/relu_pool_proj
I0403 04:35:05.014154 25961 net.cpp:425] inception_4e/relu_pool_proj <- inception_4e/pool_proj
I0403 04:35:05.014173 25961 net.cpp:386] inception_4e/relu_pool_proj -> inception_4e/pool_proj (in-place)
I0403 04:35:05.014192 25961 net.cpp:141] Setting up inception_4e/relu_pool_proj
I0403 04:35:05.014210 25961 net.cpp:148] Top shape: 24 128 14 14 (602112)
I0403 04:35:05.014225 25961 net.cpp:156] Memory required for data: 1256879616
I0403 04:35:05.014240 25961 layer_factory.hpp:77] Creating layer inception_4e/output
I0403 04:35:05.014261 25961 net.cpp:91] Creating Layer inception_4e/output
I0403 04:35:05.014278 25961 net.cpp:425] inception_4e/output <- inception_4e/1x1
I0403 04:35:05.014295 25961 net.cpp:425] inception_4e/output <- inception_4e/3x3
I0403 04:35:05.014312 25961 net.cpp:425] inception_4e/output <- inception_4e/5x5
I0403 04:35:05.014329 25961 net.cpp:425] inception_4e/output <- inception_4e/pool_proj
I0403 04:35:05.014348 25961 net.cpp:399] inception_4e/output -> inception_4e/output
I0403 04:35:05.014391 25961 net.cpp:141] Setting up inception_4e/output
I0403 04:35:05.014415 25961 net.cpp:148] Top shape: 24 832 14 14 (3913728)
I0403 04:35:05.014430 25961 net.cpp:156] Memory required for data: 1272534528
I0403 04:35:05.014446 25961 layer_factory.hpp:77] Creating layer pool4/3x3_s2
I0403 04:35:05.014464 25961 net.cpp:91] Creating Layer pool4/3x3_s2
I0403 04:35:05.014482 25961 net.cpp:425] pool4/3x3_s2 <- inception_4e/output
I0403 04:35:05.014503 25961 net.cpp:399] pool4/3x3_s2 -> pool4/3x3_s2
I0403 04:35:05.014556 25961 net.cpp:141] Setting up pool4/3x3_s2
I0403 04:35:05.014591 25961 net.cpp:148] Top shape: 24 832 7 7 (978432)
I0403 04:35:05.014608 25961 net.cpp:156] Memory required for data: 1276448256
I0403 04:35:05.014623 25961 layer_factory.hpp:77] Creating layer pool4/3x3_s2_pool4/3x3_s2_0_split
I0403 04:35:05.014644 25961 net.cpp:91] Creating Layer pool4/3x3_s2_pool4/3x3_s2_0_split
I0403 04:35:05.014662 25961 net.cpp:425] pool4/3x3_s2_pool4/3x3_s2_0_split <- pool4/3x3_s2
I0403 04:35:05.014680 25961 net.cpp:399] pool4/3x3_s2_pool4/3x3_s2_0_split -> pool4/3x3_s2_pool4/3x3_s2_0_split_0
I0403 04:35:05.014701 25961 net.cpp:399] pool4/3x3_s2_pool4/3x3_s2_0_split -> pool4/3x3_s2_pool4/3x3_s2_0_split_1
I0403 04:35:05.014724 25961 net.cpp:399] pool4/3x3_s2_pool4/3x3_s2_0_split -> pool4/3x3_s2_pool4/3x3_s2_0_split_2
I0403 04:35:05.014746 25961 net.cpp:399] pool4/3x3_s2_pool4/3x3_s2_0_split -> pool4/3x3_s2_pool4/3x3_s2_0_split_3
I0403 04:35:05.014821 25961 net.cpp:141] Setting up pool4/3x3_s2_pool4/3x3_s2_0_split
I0403 04:35:05.014844 25961 net.cpp:148] Top shape: 24 832 7 7 (978432)
I0403 04:35:05.014860 25961 net.cpp:148] Top shape: 24 832 7 7 (978432)
I0403 04:35:05.014876 25961 net.cpp:148] Top shape: 24 832 7 7 (978432)
I0403 04:35:05.014891 25961 net.cpp:148] Top shape: 24 832 7 7 (978432)
I0403 04:35:05.014906 25961 net.cpp:156] Memory required for data: 1292103168
I0403 04:35:05.014921 25961 layer_factory.hpp:77] Creating layer inception_5a/1x1
I0403 04:35:05.014946 25961 net.cpp:91] Creating Layer inception_5a/1x1
I0403 04:35:05.014969 25961 net.cpp:425] inception_5a/1x1 <- pool4/3x3_s2_pool4/3x3_s2_0_split_0
I0403 04:35:05.014997 25961 net.cpp:399] inception_5a/1x1 -> inception_5a/1x1
I0403 04:35:05.017014 25961 net.cpp:141] Setting up inception_5a/1x1
I0403 04:35:05.017043 25961 net.cpp:148] Top shape: 24 256 7 7 (301056)
I0403 04:35:05.017060 25961 net.cpp:156] Memory required for data: 1293307392
I0403 04:35:05.017079 25961 layer_factory.hpp:77] Creating layer inception_5a/relu_1x1
I0403 04:35:05.017099 25961 net.cpp:91] Creating Layer inception_5a/relu_1x1
I0403 04:35:05.017115 25961 net.cpp:425] inception_5a/relu_1x1 <- inception_5a/1x1
I0403 04:35:05.017137 25961 net.cpp:386] inception_5a/relu_1x1 -> inception_5a/1x1 (in-place)
I0403 04:35:05.017158 25961 net.cpp:141] Setting up inception_5a/relu_1x1
I0403 04:35:05.017175 25961 net.cpp:148] Top shape: 24 256 7 7 (301056)
I0403 04:35:05.017191 25961 net.cpp:156] Memory required for data: 1294511616
I0403 04:35:05.017206 25961 layer_factory.hpp:77] Creating layer inception_5a/3x3_reduce
I0403 04:35:05.017230 25961 net.cpp:91] Creating Layer inception_5a/3x3_reduce
I0403 04:35:05.017248 25961 net.cpp:425] inception_5a/3x3_reduce <- pool4/3x3_s2_pool4/3x3_s2_0_split_1
I0403 04:35:05.017269 25961 net.cpp:399] inception_5a/3x3_reduce -> inception_5a/3x3_reduce
I0403 04:35:05.018841 25961 net.cpp:141] Setting up inception_5a/3x3_reduce
I0403 04:35:05.018872 25961 net.cpp:148] Top shape: 24 160 7 7 (188160)
I0403 04:35:05.018888 25961 net.cpp:156] Memory required for data: 1295264256
I0403 04:35:05.018908 25961 layer_factory.hpp:77] Creating layer inception_5a/relu_3x3_reduce
I0403 04:35:05.018928 25961 net.cpp:91] Creating Layer inception_5a/relu_3x3_reduce
I0403 04:35:05.018944 25961 net.cpp:425] inception_5a/relu_3x3_reduce <- inception_5a/3x3_reduce
I0403 04:35:05.018970 25961 net.cpp:386] inception_5a/relu_3x3_reduce -> inception_5a/3x3_reduce (in-place)
I0403 04:35:05.018993 25961 net.cpp:141] Setting up inception_5a/relu_3x3_reduce
I0403 04:35:05.019013 25961 net.cpp:148] Top shape: 24 160 7 7 (188160)
I0403 04:35:05.019028 25961 net.cpp:156] Memory required for data: 1296016896
I0403 04:35:05.019043 25961 layer_factory.hpp:77] Creating layer inception_5a/3x3
I0403 04:35:05.019068 25961 net.cpp:91] Creating Layer inception_5a/3x3
I0403 04:35:05.019086 25961 net.cpp:425] inception_5a/3x3 <- inception_5a/3x3_reduce
I0403 04:35:05.019107 25961 net.cpp:399] inception_5a/3x3 -> inception_5a/3x3
I0403 04:35:05.023097 25961 net.cpp:141] Setting up inception_5a/3x3
I0403 04:35:05.023138 25961 net.cpp:148] Top shape: 24 320 7 7 (376320)
I0403 04:35:05.023156 25961 net.cpp:156] Memory required for data: 1297522176
I0403 04:35:05.023175 25961 layer_factory.hpp:77] Creating layer inception_5a/relu_3x3
I0403 04:35:05.023196 25961 net.cpp:91] Creating Layer inception_5a/relu_3x3
I0403 04:35:05.023213 25961 net.cpp:425] inception_5a/relu_3x3 <- inception_5a/3x3
I0403 04:35:05.023236 25961 net.cpp:386] inception_5a/relu_3x3 -> inception_5a/3x3 (in-place)
I0403 04:35:05.023257 25961 net.cpp:141] Setting up inception_5a/relu_3x3
I0403 04:35:05.023274 25961 net.cpp:148] Top shape: 24 320 7 7 (376320)
I0403 04:35:05.023289 25961 net.cpp:156] Memory required for data: 1299027456
I0403 04:35:05.023304 25961 layer_factory.hpp:77] Creating layer inception_5a/5x5_reduce
I0403 04:35:05.023329 25961 net.cpp:91] Creating Layer inception_5a/5x5_reduce
I0403 04:35:05.023347 25961 net.cpp:425] inception_5a/5x5_reduce <- pool4/3x3_s2_pool4/3x3_s2_0_split_2
I0403 04:35:05.023370 25961 net.cpp:399] inception_5a/5x5_reduce -> inception_5a/5x5_reduce
I0403 04:35:05.023771 25961 net.cpp:141] Setting up inception_5a/5x5_reduce
I0403 04:35:05.023797 25961 net.cpp:148] Top shape: 24 32 7 7 (37632)
I0403 04:35:05.023813 25961 net.cpp:156] Memory required for data: 1299177984
I0403 04:35:05.023831 25961 layer_factory.hpp:77] Creating layer inception_5a/relu_5x5_reduce
I0403 04:35:05.023851 25961 net.cpp:91] Creating Layer inception_5a/relu_5x5_reduce
I0403 04:35:05.023869 25961 net.cpp:425] inception_5a/relu_5x5_reduce <- inception_5a/5x5_reduce
I0403 04:35:05.023890 25961 net.cpp:386] inception_5a/relu_5x5_reduce -> inception_5a/5x5_reduce (in-place)
I0403 04:35:05.023912 25961 net.cpp:141] Setting up inception_5a/relu_5x5_reduce
I0403 04:35:05.023931 25961 net.cpp:148] Top shape: 24 32 7 7 (37632)
I0403 04:35:05.023946 25961 net.cpp:156] Memory required for data: 1299328512
I0403 04:35:05.023964 25961 layer_factory.hpp:77] Creating layer inception_5a/5x5
I0403 04:35:05.023988 25961 net.cpp:91] Creating Layer inception_5a/5x5
I0403 04:35:05.024008 25961 net.cpp:425] inception_5a/5x5 <- inception_5a/5x5_reduce
I0403 04:35:05.024029 25961 net.cpp:399] inception_5a/5x5 -> inception_5a/5x5
I0403 04:35:05.024859 25961 net.cpp:141] Setting up inception_5a/5x5
I0403 04:35:05.024885 25961 net.cpp:148] Top shape: 24 128 7 7 (150528)
I0403 04:35:05.024901 25961 net.cpp:156] Memory required for data: 1299930624
I0403 04:35:05.024920 25961 layer_factory.hpp:77] Creating layer inception_5a/relu_5x5
I0403 04:35:05.024940 25961 net.cpp:91] Creating Layer inception_5a/relu_5x5
I0403 04:35:05.024960 25961 net.cpp:425] inception_5a/relu_5x5 <- inception_5a/5x5
I0403 04:35:05.024981 25961 net.cpp:386] inception_5a/relu_5x5 -> inception_5a/5x5 (in-place)
I0403 04:35:05.025002 25961 net.cpp:141] Setting up inception_5a/relu_5x5
I0403 04:35:05.025020 25961 net.cpp:148] Top shape: 24 128 7 7 (150528)
I0403 04:35:05.025035 25961 net.cpp:156] Memory required for data: 1300532736
I0403 04:35:05.025051 25961 layer_factory.hpp:77] Creating layer inception_5a/pool
I0403 04:35:05.025073 25961 net.cpp:91] Creating Layer inception_5a/pool
I0403 04:35:05.025089 25961 net.cpp:425] inception_5a/pool <- pool4/3x3_s2_pool4/3x3_s2_0_split_3
I0403 04:35:05.025110 25961 net.cpp:399] inception_5a/pool -> inception_5a/pool
I0403 04:35:05.025167 25961 net.cpp:141] Setting up inception_5a/pool
I0403 04:35:05.025192 25961 net.cpp:148] Top shape: 24 832 7 7 (978432)
I0403 04:35:05.025208 25961 net.cpp:156] Memory required for data: 1304446464
I0403 04:35:05.025223 25961 layer_factory.hpp:77] Creating layer inception_5a/pool_proj
I0403 04:35:05.025248 25961 net.cpp:91] Creating Layer inception_5a/pool_proj
I0403 04:35:05.025266 25961 net.cpp:425] inception_5a/pool_proj <- inception_5a/pool
I0403 04:35:05.025287 25961 net.cpp:399] inception_5a/pool_proj -> inception_5a/pool_proj
I0403 04:35:05.026703 25961 net.cpp:141] Setting up inception_5a/pool_proj
I0403 04:35:05.026733 25961 net.cpp:148] Top shape: 24 128 7 7 (150528)
I0403 04:35:05.026749 25961 net.cpp:156] Memory required for data: 1305048576
I0403 04:35:05.026783 25961 layer_factory.hpp:77] Creating layer inception_5a/relu_pool_proj
I0403 04:35:05.026804 25961 net.cpp:91] Creating Layer inception_5a/relu_pool_proj
I0403 04:35:05.026821 25961 net.cpp:425] inception_5a/relu_pool_proj <- inception_5a/pool_proj
I0403 04:35:05.026844 25961 net.cpp:386] inception_5a/relu_pool_proj -> inception_5a/pool_proj (in-place)
I0403 04:35:05.026865 25961 net.cpp:141] Setting up inception_5a/relu_pool_proj
I0403 04:35:05.026883 25961 net.cpp:148] Top shape: 24 128 7 7 (150528)
I0403 04:35:05.026898 25961 net.cpp:156] Memory required for data: 1305650688
I0403 04:35:05.026912 25961 layer_factory.hpp:77] Creating layer inception_5a/output
I0403 04:35:05.026931 25961 net.cpp:91] Creating Layer inception_5a/output
I0403 04:35:05.026947 25961 net.cpp:425] inception_5a/output <- inception_5a/1x1
I0403 04:35:05.026969 25961 net.cpp:425] inception_5a/output <- inception_5a/3x3
I0403 04:35:05.026988 25961 net.cpp:425] inception_5a/output <- inception_5a/5x5
I0403 04:35:05.027004 25961 net.cpp:425] inception_5a/output <- inception_5a/pool_proj
I0403 04:35:05.027022 25961 net.cpp:399] inception_5a/output -> inception_5a/output
I0403 04:35:05.027065 25961 net.cpp:141] Setting up inception_5a/output
I0403 04:35:05.027089 25961 net.cpp:148] Top shape: 24 832 7 7 (978432)
I0403 04:35:05.027106 25961 net.cpp:156] Memory required for data: 1309564416
I0403 04:35:05.027122 25961 layer_factory.hpp:77] Creating layer inception_5a/output_inception_5a/output_0_split
I0403 04:35:05.027139 25961 net.cpp:91] Creating Layer inception_5a/output_inception_5a/output_0_split
I0403 04:35:05.027156 25961 net.cpp:425] inception_5a/output_inception_5a/output_0_split <- inception_5a/output
I0403 04:35:05.027178 25961 net.cpp:399] inception_5a/output_inception_5a/output_0_split -> inception_5a/output_inception_5a/output_0_split_0
I0403 04:35:05.027200 25961 net.cpp:399] inception_5a/output_inception_5a/output_0_split -> inception_5a/output_inception_5a/output_0_split_1
I0403 04:35:05.027223 25961 net.cpp:399] inception_5a/output_inception_5a/output_0_split -> inception_5a/output_inception_5a/output_0_split_2
I0403 04:35:05.027245 25961 net.cpp:399] inception_5a/output_inception_5a/output_0_split -> inception_5a/output_inception_5a/output_0_split_3
I0403 04:35:05.027319 25961 net.cpp:141] Setting up inception_5a/output_inception_5a/output_0_split
I0403 04:35:05.027345 25961 net.cpp:148] Top shape: 24 832 7 7 (978432)
I0403 04:35:05.027364 25961 net.cpp:148] Top shape: 24 832 7 7 (978432)
I0403 04:35:05.027379 25961 net.cpp:148] Top shape: 24 832 7 7 (978432)
I0403 04:35:05.027396 25961 net.cpp:148] Top shape: 24 832 7 7 (978432)
I0403 04:35:05.027411 25961 net.cpp:156] Memory required for data: 1325219328
I0403 04:35:05.027426 25961 layer_factory.hpp:77] Creating layer inception_5b/1x1
I0403 04:35:05.027451 25961 net.cpp:91] Creating Layer inception_5b/1x1
I0403 04:35:05.027470 25961 net.cpp:425] inception_5b/1x1 <- inception_5a/output_inception_5a/output_0_split_0
I0403 04:35:05.027492 25961 net.cpp:399] inception_5b/1x1 -> inception_5b/1x1
I0403 04:35:05.030238 25961 net.cpp:141] Setting up inception_5b/1x1
I0403 04:35:05.030269 25961 net.cpp:148] Top shape: 24 384 7 7 (451584)
I0403 04:35:05.030287 25961 net.cpp:156] Memory required for data: 1327025664
I0403 04:35:05.030305 25961 layer_factory.hpp:77] Creating layer inception_5b/relu_1x1
I0403 04:35:05.030325 25961 net.cpp:91] Creating Layer inception_5b/relu_1x1
I0403 04:35:05.030342 25961 net.cpp:425] inception_5b/relu_1x1 <- inception_5b/1x1
I0403 04:35:05.030364 25961 net.cpp:386] inception_5b/relu_1x1 -> inception_5b/1x1 (in-place)
I0403 04:35:05.030385 25961 net.cpp:141] Setting up inception_5b/relu_1x1
I0403 04:35:05.030405 25961 net.cpp:148] Top shape: 24 384 7 7 (451584)
I0403 04:35:05.030419 25961 net.cpp:156] Memory required for data: 1328832000
I0403 04:35:05.030434 25961 layer_factory.hpp:77] Creating layer inception_5b/3x3_reduce
I0403 04:35:05.030459 25961 net.cpp:91] Creating Layer inception_5b/3x3_reduce
I0403 04:35:05.030491 25961 net.cpp:425] inception_5b/3x3_reduce <- inception_5a/output_inception_5a/output_0_split_1
I0403 04:35:05.030514 25961 net.cpp:399] inception_5b/3x3_reduce -> inception_5b/3x3_reduce
I0403 04:35:05.032246 25961 net.cpp:141] Setting up inception_5b/3x3_reduce
I0403 04:35:05.032275 25961 net.cpp:148] Top shape: 24 192 7 7 (225792)
I0403 04:35:05.032294 25961 net.cpp:156] Memory required for data: 1329735168
I0403 04:35:05.032312 25961 layer_factory.hpp:77] Creating layer inception_5b/relu_3x3_reduce
I0403 04:35:05.032331 25961 net.cpp:91] Creating Layer inception_5b/relu_3x3_reduce
I0403 04:35:05.032349 25961 net.cpp:425] inception_5b/relu_3x3_reduce <- inception_5b/3x3_reduce
I0403 04:35:05.032371 25961 net.cpp:386] inception_5b/relu_3x3_reduce -> inception_5b/3x3_reduce (in-place)
I0403 04:35:05.032393 25961 net.cpp:141] Setting up inception_5b/relu_3x3_reduce
I0403 04:35:05.032412 25961 net.cpp:148] Top shape: 24 192 7 7 (225792)
I0403 04:35:05.032426 25961 net.cpp:156] Memory required for data: 1330638336
I0403 04:35:05.032441 25961 layer_factory.hpp:77] Creating layer inception_5b/3x3
I0403 04:35:05.032466 25961 net.cpp:91] Creating Layer inception_5b/3x3
I0403 04:35:05.032485 25961 net.cpp:425] inception_5b/3x3 <- inception_5b/3x3_reduce
I0403 04:35:05.032505 25961 net.cpp:399] inception_5b/3x3 -> inception_5b/3x3
I0403 04:35:05.037971 25961 net.cpp:141] Setting up inception_5b/3x3
I0403 04:35:05.037998 25961 net.cpp:148] Top shape: 24 384 7 7 (451584)
I0403 04:35:05.038014 25961 net.cpp:156] Memory required for data: 1332444672
I0403 04:35:05.038033 25961 layer_factory.hpp:77] Creating layer inception_5b/relu_3x3
I0403 04:35:05.038053 25961 net.cpp:91] Creating Layer inception_5b/relu_3x3
I0403 04:35:05.038070 25961 net.cpp:425] inception_5b/relu_3x3 <- inception_5b/3x3
I0403 04:35:05.038089 25961 net.cpp:386] inception_5b/relu_3x3 -> inception_5b/3x3 (in-place)
I0403 04:35:05.038108 25961 net.cpp:141] Setting up inception_5b/relu_3x3
I0403 04:35:05.038125 25961 net.cpp:148] Top shape: 24 384 7 7 (451584)
I0403 04:35:05.038141 25961 net.cpp:156] Memory required for data: 1334251008
I0403 04:35:05.038154 25961 layer_factory.hpp:77] Creating layer inception_5b/5x5_reduce
I0403 04:35:05.038178 25961 net.cpp:91] Creating Layer inception_5b/5x5_reduce
I0403 04:35:05.038197 25961 net.cpp:425] inception_5b/5x5_reduce <- inception_5a/output_inception_5a/output_0_split_2
I0403 04:35:05.038219 25961 net.cpp:399] inception_5b/5x5_reduce -> inception_5b/5x5_reduce
I0403 04:35:05.038691 25961 net.cpp:141] Setting up inception_5b/5x5_reduce
I0403 04:35:05.038717 25961 net.cpp:148] Top shape: 24 48 7 7 (56448)
I0403 04:35:05.038733 25961 net.cpp:156] Memory required for data: 1334476800
I0403 04:35:05.038750 25961 layer_factory.hpp:77] Creating layer inception_5b/relu_5x5_reduce
I0403 04:35:05.038771 25961 net.cpp:91] Creating Layer inception_5b/relu_5x5_reduce
I0403 04:35:05.038789 25961 net.cpp:425] inception_5b/relu_5x5_reduce <- inception_5b/5x5_reduce
I0403 04:35:05.038807 25961 net.cpp:386] inception_5b/relu_5x5_reduce -> inception_5b/5x5_reduce (in-place)
I0403 04:35:05.038826 25961 net.cpp:141] Setting up inception_5b/relu_5x5_reduce
I0403 04:35:05.038844 25961 net.cpp:148] Top shape: 24 48 7 7 (56448)
I0403 04:35:05.038858 25961 net.cpp:156] Memory required for data: 1334702592
I0403 04:35:05.038873 25961 layer_factory.hpp:77] Creating layer inception_5b/5x5
I0403 04:35:05.038897 25961 net.cpp:91] Creating Layer inception_5b/5x5
I0403 04:35:05.038914 25961 net.cpp:425] inception_5b/5x5 <- inception_5b/5x5_reduce
I0403 04:35:05.038938 25961 net.cpp:399] inception_5b/5x5 -> inception_5b/5x5
I0403 04:35:05.040086 25961 net.cpp:141] Setting up inception_5b/5x5
I0403 04:35:05.040115 25961 net.cpp:148] Top shape: 24 128 7 7 (150528)
I0403 04:35:05.040132 25961 net.cpp:156] Memory required for data: 1335304704
I0403 04:35:05.040150 25961 layer_factory.hpp:77] Creating layer inception_5b/relu_5x5
I0403 04:35:05.040170 25961 net.cpp:91] Creating Layer inception_5b/relu_5x5
I0403 04:35:05.040189 25961 net.cpp:425] inception_5b/relu_5x5 <- inception_5b/5x5
I0403 04:35:05.040221 25961 net.cpp:386] inception_5b/relu_5x5 -> inception_5b/5x5 (in-place)
I0403 04:35:05.040243 25961 net.cpp:141] Setting up inception_5b/relu_5x5
I0403 04:35:05.040261 25961 net.cpp:148] Top shape: 24 128 7 7 (150528)
I0403 04:35:05.040277 25961 net.cpp:156] Memory required for data: 1335906816
I0403 04:35:05.040292 25961 layer_factory.hpp:77] Creating layer inception_5b/pool
I0403 04:35:05.040308 25961 net.cpp:91] Creating Layer inception_5b/pool
I0403 04:35:05.040324 25961 net.cpp:425] inception_5b/pool <- inception_5a/output_inception_5a/output_0_split_3
I0403 04:35:05.040343 25961 net.cpp:399] inception_5b/pool -> inception_5b/pool
I0403 04:35:05.040400 25961 net.cpp:141] Setting up inception_5b/pool
I0403 04:35:05.040422 25961 net.cpp:148] Top shape: 24 832 7 7 (978432)
I0403 04:35:05.040437 25961 net.cpp:156] Memory required for data: 1339820544
I0403 04:35:05.040452 25961 layer_factory.hpp:77] Creating layer inception_5b/pool_proj
I0403 04:35:05.040477 25961 net.cpp:91] Creating Layer inception_5b/pool_proj
I0403 04:35:05.040494 25961 net.cpp:425] inception_5b/pool_proj <- inception_5b/pool
I0403 04:35:05.040518 25961 net.cpp:399] inception_5b/pool_proj -> inception_5b/pool_proj
I0403 04:35:05.041885 25961 net.cpp:141] Setting up inception_5b/pool_proj
I0403 04:35:05.041916 25961 net.cpp:148] Top shape: 24 128 7 7 (150528)
I0403 04:35:05.041934 25961 net.cpp:156] Memory required for data: 1340422656
I0403 04:35:05.041952 25961 layer_factory.hpp:77] Creating layer inception_5b/relu_pool_proj
I0403 04:35:05.041976 25961 net.cpp:91] Creating Layer inception_5b/relu_pool_proj
I0403 04:35:05.041995 25961 net.cpp:425] inception_5b/relu_pool_proj <- inception_5b/pool_proj
I0403 04:35:05.042013 25961 net.cpp:386] inception_5b/relu_pool_proj -> inception_5b/pool_proj (in-place)
I0403 04:35:05.042033 25961 net.cpp:141] Setting up inception_5b/relu_pool_proj
I0403 04:35:05.042052 25961 net.cpp:148] Top shape: 24 128 7 7 (150528)
I0403 04:35:05.042067 25961 net.cpp:156] Memory required for data: 1341024768
I0403 04:35:05.042080 25961 layer_factory.hpp:77] Creating layer inception_5b/output
I0403 04:35:05.042098 25961 net.cpp:91] Creating Layer inception_5b/output
I0403 04:35:05.042114 25961 net.cpp:425] inception_5b/output <- inception_5b/1x1
I0403 04:35:05.042131 25961 net.cpp:425] inception_5b/output <- inception_5b/3x3
I0403 04:35:05.042148 25961 net.cpp:425] inception_5b/output <- inception_5b/5x5
I0403 04:35:05.042165 25961 net.cpp:425] inception_5b/output <- inception_5b/pool_proj
I0403 04:35:05.042186 25961 net.cpp:399] inception_5b/output -> inception_5b/output
I0403 04:35:05.042227 25961 net.cpp:141] Setting up inception_5b/output
I0403 04:35:05.042253 25961 net.cpp:148] Top shape: 24 1024 7 7 (1204224)
I0403 04:35:05.042268 25961 net.cpp:156] Memory required for data: 1345841664
I0403 04:35:05.042284 25961 layer_factory.hpp:77] Creating layer pool5/7x7_s1
I0403 04:35:05.042300 25961 net.cpp:91] Creating Layer pool5/7x7_s1
I0403 04:35:05.042317 25961 net.cpp:425] pool5/7x7_s1 <- inception_5b/output
I0403 04:35:05.042336 25961 net.cpp:399] pool5/7x7_s1 -> pool5/7x7_s1
I0403 04:35:05.042378 25961 net.cpp:141] Setting up pool5/7x7_s1
I0403 04:35:05.042402 25961 net.cpp:148] Top shape: 24 1024 1 1 (24576)
I0403 04:35:05.042417 25961 net.cpp:156] Memory required for data: 1345939968
I0403 04:35:05.042431 25961 layer_factory.hpp:77] Creating layer pool5/drop_7x7_s1
I0403 04:35:05.042453 25961 net.cpp:91] Creating Layer pool5/drop_7x7_s1
I0403 04:35:05.042469 25961 net.cpp:425] pool5/drop_7x7_s1 <- pool5/7x7_s1
I0403 04:35:05.042487 25961 net.cpp:386] pool5/drop_7x7_s1 -> pool5/7x7_s1 (in-place)
I0403 04:35:05.042526 25961 net.cpp:141] Setting up pool5/drop_7x7_s1
I0403 04:35:05.042551 25961 net.cpp:148] Top shape: 24 1024 1 1 (24576)
I0403 04:35:05.042567 25961 net.cpp:156] Memory required for data: 1346038272
I0403 04:35:05.042582 25961 layer_factory.hpp:77] Creating layer loss3/classifier_plantvillage
I0403 04:35:05.042603 25961 net.cpp:91] Creating Layer loss3/classifier_plantvillage
I0403 04:35:05.042634 25961 net.cpp:425] loss3/classifier_plantvillage <- pool5/7x7_s1
I0403 04:35:05.042661 25961 net.cpp:399] loss3/classifier_plantvillage -> loss3/classifier_plantvillage
I0403 04:35:05.043016 25961 net.cpp:141] Setting up loss3/classifier_plantvillage
I0403 04:35:05.043043 25961 net.cpp:148] Top shape: 24 38 (912)
I0403 04:35:05.043058 25961 net.cpp:156] Memory required for data: 1346041920
I0403 04:35:05.043076 25961 layer_factory.hpp:77] Creating layer loss1/loss
I0403 04:35:05.043102 25961 net.cpp:91] Creating Layer loss1/loss
I0403 04:35:05.043120 25961 net.cpp:425] loss1/loss <- loss1/classifier_plantvillage
I0403 04:35:05.043138 25961 net.cpp:425] loss1/loss <- label_data_1_split_0
I0403 04:35:05.043156 25961 net.cpp:399] loss1/loss -> loss1/loss
…
I0403 04:35:05.053784 25961 net.cpp:313] The NetState phase (1) differed from the phase (0) specified by a rule in layer data
I0403 04:35:05.057953 25961 net.cpp:49] Initializing net from parameters: 
state {
  phase: TEST
}
layer {
  name: "data"
  type: "Data"
  top: "data"
  top: "label"
  include {
    phase: TEST
  }
  transform_param {
    mirror: false
    crop_size: 224
    mean_file: "/home/mohanty/data/final_dataset/lmdb/segmented-40-60/mean.binaryproto"
  }
  data_param {
    source: "/home/mohanty/data/final_dataset/lmdb/segmented-40-60/test_db"
    batch_size: 24
    backend: LMDB
  }
}
layer {
  name: "conv1/7x7_s2"
  type: "Convolution"
  bottom: "data"
  top: "conv1/7x7_s2"
  param {
    lr_mult: 1
    decay_mult: 1
  }
  param {
    lr_mult: 2
    decay_mult: 0
  }
  convolution_param {
    num_output: 64
    pad: 3
    kernel_size: 7
    stride: 2
    weight_filler {
      type: "xavier"
      std: 0.1
    }
    bias_filler {
      type: "constant"
      value: 0.2
    }
  }
}
layer {
  name: "conv1/relu_7x7"
  type: "ReLU"
  bottom: "conv1/7x7_s2"
  top: "conv1/7x7_s2"
}
layer {
  name: "pool1/3x3_s2"
  type: "Pooling"
  bottom: "conv1/7x7_s2"
  top: "pool1/3x3_s2"
  pooling_param {
    pool: MAX
    kernel_size: 3
    stride: 2
  }
}
layer {
  name: "pool1/norm1"
  type: "LRN"
  bottom: "pool1/3x3_s2"
  top: "pool1/norm1"
  lrn_param {
    local_size: 5
    alpha: 0.0001
    beta: 0.75
  }
}
layer {
  name: "conv2/3x3_reduce"
  type: "Convolution"
  bottom: "pool1/norm1"
  top: "conv2/3x3_reduce"
  param {
    lr_mult: 1
    decay_mult: 1
  }
  param {
    lr_mult: 2
    decay_mult: 0
  }
  convolution_param {
    num_output: 64
    kernel_size: 1
    weight_filler {
      type: "xavier"
      std: 0.1
    }
    bias_filler {
      type: "constant"
      value: 0.2
    }
  }
}
layer {
  name: "conv2/relu_3x3_reduce"
  type: "ReLU"
  bottom: "conv2/3x3_reduce"
  top: "conv2/3x3_reduce"
}
layer {
  name: "conv2/3x3"
  type: "Convolution"
  bottom: "conv2/3x3_reduce"
  top: "conv2/3x3"
  param {
    lr_mult: 1
    decay_mult: 1
  }
  param {
    lr_mult: 2
    decay_mult: 0
  }
  convolution_param {
    num_output: 192
    pad: 1
    kernel_size: 3
    weight_filler {
      type: "xavier"
      std: 0.03
    }
    bias_filler {
      type: "constant"
      value: 0.2
    }
  }
}
layer {
  name: "conv2/relu_3x3"
  type: "ReLU"
  bottom: "conv2/3x3"
  top: "conv2/3x3"
}
layer {
  name: "conv2/norm2"
  type: "LRN"
  bottom: "conv2/3x3"
  top: "conv2/norm2"
  lrn_param {
    local_size: 5
    alpha: 0.0001
    beta: 0.75
  }
}
layer {
  name: "pool2/3x3_s2"
  type: "Pooling"
  bottom: "conv2/norm2"
  top: "pool2/3x3_s2"
  pooling_param {
    pool: MAX
    kernel_size: 3
    stride: 2
  }
}
layer {
  name: "inception_3a/1x1"
  type: "Convolution"
  bottom: "pool2/3x3_s2"
  top: "inception_3a/1x1"
  param {
    lr_mult: 1
    decay_mult: 1
  }
  param {
    lr_mult: 2
    decay_mult: 0
  }
  convolution_param {
    num_output: 64
    kernel_size: 1
    weight_filler {
      type: "xavier"
      std: 0.03
    }
    bias_filler {
      type: "constant"
      value: 0.2
    }
  }
}
layer {
  name: "inception_3a/relu_1x1"
  type: "ReLU"
  bottom: "inception_3a/1x1"
  top: "inception_3a/1x1"
}
layer {
  name: "inception_3a/3x3_reduce"
  type: "Convolution"
  bottom: "pool2/3x3_s2"
  top: "inception_3a/3x3_reduce"
  param {
    lr_mult: 1
    decay_mult: 1
  }
  param {
    lr_mult: 2
    decay_mult: 0
  }
  convolution_param {
    num_output: 96
    kernel_size: 1
    weight_filler {
      type: "xavier"
      std: 0.09
    }
    bias_filler {
      type: "constant"
      value: 0.2
    }
  }
}
layer {
  name: "inception_3a/relu_3x3_reduce"
  type: "ReLU"
  bottom: "inception_3a/3x3_reduce"
  top: "inception_3a/3x3_reduce"
}
layer {
  name: "inception_3a/3x3"
  type: "Convolution"
  bottom: "inception_3a/3x3_reduce"
  top: "inception_3a/3x3"
  param {
    lr_mult: 1
    decay_mult: 1
  }
  param {
    lr_mult: 2
    decay_mult: 0
  }
  convolution_param {
    num_output: 128
    pad: 1
    kernel_size: 3
    weight_filler {
      type: "xavier"
      std: 0.03
    }
    bias_filler {
      type: "constant"
      value: 0.2
    }
  }
}
layer {
  name: "inception_3a/relu_3x3"
  type: "ReLU"
  bottom: "inception_3a/3x3"
  top: "inception_3a/3x3"
}
layer {
  name: "inception_3a/5x5_reduce"
  type: "Convolution"
  bottom: "pool2/3x3_s2"
  top: "inception_3a/5x5_reduce"
  param {
    lr_mult: 1
    decay_mult: 1
  }
  param {
    lr_mult: 2
    decay_mult: 0
  }
  convolution_param {
    num_output: 16
    kernel_size: 1
    weight_filler {
      type: "xavier"
      std: 0.2
    }
    bias_filler {
      type: "constant"
      value: 0.2
    }
  }
}
layer {
  name: "inception_3a/relu_5x5_reduce"
  type: "ReLU"
  bottom: "inception_3a/5x5_reduce"
  top: "inception_3a/5x5_reduce"
}
layer {
  name: "inception_3a/5x5"
  type: "Convolution"
  bottom: "inception_3a/5x5_reduce"
  top: "inception_3a/5x5"
  param {
    lr_mult: 1
    decay_mult: 1
  }
  param {
    lr_mult: 2
    decay_mult: 0
  }
  convolution_param {
    num_output: 32
    pad: 2
    kernel_size: 5
    weight_filler {
      type: "xavier"
      std: 0.03
    }
    bias_filler {
      type: "constant"
      value: 0.2
    }
  }
}
layer {
  name: "inception_3a/relu_5x5"
  type: "ReLU"
  bottom: "inception_3a/5x5"
  top: "inception_3a/5x5"
}
layer {
  name: "inception_3a/pool"
  type: "Pooling"
  bottom: "pool2/3x3_s2"
  top: "inception_3a/pool"
  pooling_param {
    pool: MAX
    kernel_size: 3
    stride: 1
    pad: 1
  }
}
layer {
  name: "inception_3a/pool_proj"
  type: "Convolution"
  bottom: "inception_3a/pool"
  top: "inception_3a/pool_proj"
  param {
    lr_mult: 1
    decay_mult: 1
  }
  param {
    lr_mult: 2
    decay_mult: 0
  }
  convolution_param {
    num_output: 32
    kernel_size: 1
    weight_filler {
      type: "xavier"
      std: 0.1
    }
    bias_filler {
      type: "constant"
      value: 0.2
    }
  }
}
layer {
  name: "inception_3a/relu_pool_proj"
  type: "ReLU"
  bottom: "inception_3a/pool_proj"
  top: "inception_3a/pool_proj"
}
layer {
  name: "inception_3a/output"
  type: "Concat"
  bottom: "inception_3a/1x1"
  bottom: "inception_3a/3x3"
  bottom: "inception_3a/5x5"
  bottom: "inception_3a/pool_proj"
  top: "inception_3a/output"
}
layer {
  name: "inception_3b/1x1"
  type: "Convolution"
  bottom: "inception_3a/output"
  top: "inception_3b/1x1"
  param {
    lr_mult: 1
    decay_mult: 1
  }
  param {
    lr_mult: 2
    decay_mult: 0
  }
  convolution_param {
    num_output: 128
    kernel_size: 1
    weight_filler {
      type: "xavier"
      std: 0.03
    }
    bias_filler {
      type: "constant"
      value: 0.2
    }
  }
}
layer {
  name: "inception_3b/relu_1x1"
  type: "ReLU"
  bottom: "inception_3b/1x1"
  top: "inception_3b/1x1"
}
layer {
  name: "inception_3b/3x3_reduce"
  type: "Convolution"
  bottom: "inception_3a/output"
  top: "inception_3b/3x3_reduce"
  param {
    lr_mult: 1
    decay_mult: 1
  }
  param {
    lr_mult: 2
    decay_mult: 0
  }
  convolution_param {
    num_output: 128
    kernel_size: 1
    weight_filler {
      type: "xavier"
      std: 0.09
    }
    bias_filler {
      type: "constant"
      value: 0.2
    }
  }
}
layer {
  name: "inception_3b/relu_3x3_reduce"
  type: "ReLU"
  bottom: "inception_3b/3x3_reduce"
  top: "inception_3b/3x3_reduce"
}
layer {
  name: "inception_3b/3x3"
  type: "Convolution"
  bottom: "inception_3b/3x3_reduce"
  top: "inception_3b/3x3"
  param {
    lr_mult: 1
    decay_mult: 1
  }
  param {
    lr_mult: 2
    decay_mult: 0
  }
  convolution_param {
    num_output: 192
    pad: 1
    kernel_size: 3
    weight_filler {
      type: "xavier"
      std: 0.03
    }
    bias_filler {
      type: "constant"
      value: 0.2
    }
  }
}
layer {
  name: "inception_3b/relu_3x3"
  type: "ReLU"
  bottom: "inception_3b/3x3"
  top: "inception_3b/3x3"
}
layer {
  name: "inception_3b/5x5_reduce"
  type: "Convolution"
  bottom: "inception_3a/output"
  top: "inception_3b/5x5_reduce"
  param {
    lr_mult: 1
    decay_mult: 1
  }
  param {
    lr_mult: 2
    decay_mult: 0
  }
  convolution_param {
    num_output: 32
    kernel_size: 1
    weight_filler {
      type: "xavier"
      std: 0.2
    }
    bias_filler {
      type: "constant"
      value: 0.2
    }
  }
}
layer {
  name: "inception_3b/relu_5x5_reduce"
  type: "ReLU"
  bottom: "inception_3b/5x5_reduce"
  top: "inception_3b/5x5_reduce"
}
layer {
  name: "inception_3b/5x5"
  type: "Convolution"
  bottom: "inception_3b/5x5_reduce"
  top: "inception_3b/5x5"
  param {
    lr_mult: 1
    decay_mult: 1
  }
  param {
    lr_mult: 2
    decay_mult: 0
  }
  convolution_param {
    num_output: 96
    pad: 2
    kernel_size: 5
    weight_filler {
      type: "xavier"
      std: 0.03
    }
    bias_filler {
      type: "constant"
      value: 0.2
    }
  }
}
layer {
  name: "inception_3b/relu_5x5"
  type: "ReLU"
  bottom: "inception_3b/5x5"
  top: "inception_3b/5x5"
}
layer {
  name: "inception_3b/pool"
  type: "Pooling"
  bottom: "inception_3a/output"
  top: "inception_3b/pool"
  pooling_param {
    pool: MAX
    kernel_size: 3
    stride: 1
    pad: 1
  }
}
layer {
  name: "inception_3b/pool_proj"
  type: "Convolution"
  bottom: "inception_3b/pool"
  top: "inception_3b/pool_proj"
  param {
    lr_mult: 1
    decay_mult: 1
  }
  param {
    lr_mult: 2
    decay_mult: 0
  }
  convolution_param {
    num_output: 64
    kernel_size: 1
    weight_filler {
      type: "xavier"
      std: 0.1
    }
    bias_filler {
      type: "constant"
      value: 0.2
    }
  }
}
layer {
  name: "inception_3b/relu_pool_proj"
  type: "ReLU"
  bottom: "inception_3b/pool_proj"
  top: "inception_3b/pool_proj"
}
layer {
  name: "inception_3b/output"
  type: "Concat"
  bottom: "inception_3b/1x1"
  bottom: "inception_3b/3x3"
  bottom: "inception_3b/5x5"
  bottom: "inception_3b/pool_proj"
  top: "inception_3b/output"
}
layer {
  name: "pool3/3x3_s2"
  type: "Pooling"
  bottom: "inception_3b/output"
  top: "pool3/3x3_s2"
  pooling_param {
    pool: MAX
    kernel_size: 3
    stride: 2
  }
}
layer {
  name: "inception_4a/1x1"
  type: "Convolution"
  bottom: "pool3/3x3_s2"
  top: "inception_4a/1x1"
  param {
    lr_mult: 1
    decay_mult: 1
  }
  param {
    lr_mult: 2
    decay_mult: 0
  }
  convolution_param {
    num_output: 192
    kernel_size: 1
    weight_filler {
      type: "xavier"
      std: 0.03
    }
    bias_filler {
      type: "constant"
      value: 0.2
    }
  }
}
layer {
  name: "inception_4a/relu_1x1"
  type: "ReLU"
  bottom: "inception_4a/1x1"
  top: "inception_4a/1x1"
}
layer {
  name: "inception_4a/3x3_reduce"
  type: "Convolution"
  bottom: "pool3/3x3_s2"
  top: "inception_4a/3x3_reduce"
  param {
    lr_mult: 1
    decay_mult: 1
  }
  param {
    lr_mult: 2
    decay_mult: 0
  }
  convolution_param {
    num_output: 96
    kernel_size: 1
    weight_filler {
      type: "xavier"
      std: 0.09
    }
    bias_filler {
      type: "constant"
      value: 0.2
    }
  }
}
layer {
  name: "inception_4a/relu_3x3_reduce"
  type: "ReLU"
  bottom: "inception_4a/3x3_reduce"
  top: "inception_4a/3x3_reduce"
}
layer {
  name: "inception_4a/3x3"
  type: "Convolution"
  bottom: "inception_4a/3x3_reduce"
  top: "inception_4a/3x3"
  param {
    lr_mult: 1
    decay_mult: 1
  }
  param {
    lr_mult: 2
    decay_mult: 0
  }
  convolution_param {
    num_output: 208
    pad: 1
    kernel_size: 3
    weight_filler {
      type: "xavier"
      std: 0.03
    }
    bias_filler {
      type: "constant"
      value: 0.2
    }
  }
}
layer {
  name: "inception_4a/relu_3x3"
  type: "ReLU"
  bottom: "inception_4a/3x3"
  top: "inception_4a/3x3"
}
layer {
  name: "inception_4a/5x5_reduce"
  type: "Convolution"
  bottom: "pool3/3x3_s2"
  top: "inception_4a/5x5_reduce"
  param {
    lr_mult: 1
    decay_mult: 1
  }
  param {
    lr_mult: 2
    decay_mult: 0
  }
  convolution_param {
    num_output: 16
    kernel_size: 1
    weight_filler {
      type: "xavier"
      std: 0.2
    }
    bias_filler {
      type: "constant"
      value: 0.2
    }
  }
}
layer {
  name: "inception_4a/relu_5x5_reduce"
  type: "ReLU"
  bottom: "inception_4a/5x5_reduce"
  top: "inception_4a/5x5_reduce"
}
layer {
  name: "inception_4a/5x5"
  type: "Convolution"
  bottom: "inception_4a/5x5_reduce"
  top: "inception_4a/5x5"
  param {
    lr_mult: 1
    decay_mult: 1
  }
  param {
    lr_mult: 2
    decay_mult: 0
  }
  convolution_param {
    num_output: 48
    pad: 2
    kernel_size: 5
    weight_filler {
      type: "xavier"
      std: 0.03
    }
    bias_filler {
      type: "constant"
      value: 0.2
    }
  }
}
layer {
  name: "inception_4a/relu_5x5"
  type: "ReLU"
  bottom: "inception_4a/5x5"
  top: "inception_4a/5x5"
}
layer {
  name: "inception_4a/pool"
  type: "Pooling"
  bottom: "pool3/3x3_s2"
  top: "inception_4a/pool"
  pooling_param {
    pool: MAX
    kernel_size: 3
    stride: 1
    pad: 1
  }
}
layer {
  name: "inception_4a/pool_proj"
  type: "Convolution"
  bottom: "inception_4a/pool"
  top: "inception_4a/pool_proj"
  param {
    lr_mult: 1
    decay_mult: 1
  }
  param {
    lr_mult: 2
    decay_mult: 0
  }
  convolution_param {
    num_output: 64
    kernel_size: 1
    weight_filler {
      type: "xavier"
      std: 0.1
    }
    bias_filler {
      type: "constant"
      value: 0.2
    }
  }
}
layer {
  name: "inception_4a/relu_pool_proj"
  type: "ReLU"
  bottom: "inception_4a/pool_proj"
  top: "inception_4a/pool_proj"
}
layer {
  name: "inception_4a/output"
  type: "Concat"
  bottom: "inception_4a/1x1"
  bottom: "inception_4a/3x3"
  bottom: "inception_4a/5x5"
  bottom: "inception_4a/pool_proj"
  top: "inception_4a/output"
}
layer {
  name: "loss1/ave_pool"
  type: "Pooling"
  bottom: "inception_4a/output"
  top: "loss1/ave_pool"
  pooling_param {
    pool: AVE
    kernel_size: 5
    stride: 3
  }
}
layer {
  name: "loss1/conv"
  type: "Convolution"
  bottom: "loss1/ave_pool"
  top: "loss1/conv"
  param {
    lr_mult: 1
    decay_mult: 1
  }
  param {
    lr_mult: 2
    decay_mult: 0
  }
  convolution_param {
    num_output: 128
    kernel_size: 1
    weight_filler {
      type: "xavier"
      std: 0.08
    }
    bias_filler {
      type: "constant"
      value: 0.2
    }
  }
}
layer {
  name: "loss1/relu_conv"
  type: "ReLU"
  bottom: "loss1/conv"
  top: "loss1/conv"
}
layer {
  name: "loss1/fc"
  type: "InnerProduct"
  bottom: "loss1/conv"
  top: "loss1/fc"
  param {
    lr_mult: 1
    decay_mult: 1
  }
  param {
    lr_mult: 2
    decay_mult: 0
  }
  inner_product_param {
    num_output: 1024
    weight_filler {
      type: "xavier"
      std: 0.02
    }
    bias_filler {
      type: "constant"
      value: 0.2
    }
  }
}
layer {
  name: "loss1/relu_fc"
  type: "ReLU"
  bottom: "loss1/fc"
  top: "loss1/fc"
}
layer {
  name: "loss1/drop_fc"
  type: "Dropout"
  bottom: "loss1/fc"
  top: "loss1/fc"
  dropout_param {
    dropout_ratio: 0.7
  }
}
layer {
  name: "loss1/classifier_plantvillage"
  type: "InnerProduct"
  bottom: "loss1/fc"
  top: "loss1/classifier_plantvillage"
  param {
    lr_mult: 1
    decay_mult: 1
  }
  param {
    lr_mult: 2
    decay_mult: 0
  }
  inner_product_param {
    num_output: 38
    weight_filler {
      type: "xavier"
      std: 0.0009765625
    }
    bias_filler {
      type: "constant"
      value: 0
    }
  }
}
layer {
  name: "inception_4b/1x1"
  type: "Convolution"
  bottom: "inception_4a/output"
  top: "inception_4b/1x1"
  param {
    lr_mult: 1
    decay_mult: 1
  }
  param {
    lr_mult: 2
    decay_mult: 0
  }
  convolution_param {
    num_output: 160
    kernel_size: 1
    weight_filler {
      type: "xavier"
      std: 0.03
    }
    bias_filler {
      type: "constant"
      value: 0.2
    }
  }
}
layer {
…
I0403 04:35:05.191690 25961 layer_factory.hpp:77] Creating layer inception_4c/pool
I0403 04:35:05.191711 25961 net.cpp:91] Creating Layer inception_4c/pool
I0403 04:35:05.191730 25961 net.cpp:425] inception_4c/pool <- inception_4b/output_inception_4b/output_0_split_3
I0403 04:35:05.191748 25961 net.cpp:399] inception_4c/pool -> inception_4c/pool
I0403 04:35:05.191815 25961 net.cpp:141] Setting up inception_4c/pool
I0403 04:35:05.191839 25961 net.cpp:148] Top shape: 24 512 14 14 (2408448)
I0403 04:35:05.191854 25961 net.cpp:156] Memory required for data: 1060605120
I0403 04:35:05.191870 25961 layer_factory.hpp:77] Creating layer inception_4c/pool_proj
I0403 04:35:05.191895 25961 net.cpp:91] Creating Layer inception_4c/pool_proj
I0403 04:35:05.191913 25961 net.cpp:425] inception_4c/pool_proj <- inception_4c/pool
I0403 04:35:05.191936 25961 net.cpp:399] inception_4c/pool_proj -> inception_4c/pool_proj
I0403 04:35:05.192392 25961 net.cpp:141] Setting up inception_4c/pool_proj
I0403 04:35:05.192420 25961 net.cpp:148] Top shape: 24 64 14 14 (301056)
I0403 04:35:05.192435 25961 net.cpp:156] Memory required for data: 1061809344
I0403 04:35:05.192452 25961 layer_factory.hpp:77] Creating layer inception_4c/relu_pool_proj
I0403 04:35:05.192471 25961 net.cpp:91] Creating Layer inception_4c/relu_pool_proj
I0403 04:35:05.192488 25961 net.cpp:425] inception_4c/relu_pool_proj <- inception_4c/pool_proj
I0403 04:35:05.192512 25961 net.cpp:386] inception_4c/relu_pool_proj -> inception_4c/pool_proj (in-place)
I0403 04:35:05.192533 25961 net.cpp:141] Setting up inception_4c/relu_pool_proj
I0403 04:35:05.192551 25961 net.cpp:148] Top shape: 24 64 14 14 (301056)
I0403 04:35:05.192565 25961 net.cpp:156] Memory required for data: 1063013568
I0403 04:35:05.192580 25961 layer_factory.hpp:77] Creating layer inception_4c/output
I0403 04:35:05.192600 25961 net.cpp:91] Creating Layer inception_4c/output
I0403 04:35:05.192615 25961 net.cpp:425] inception_4c/output <- inception_4c/1x1
I0403 04:35:05.192631 25961 net.cpp:425] inception_4c/output <- inception_4c/3x3
I0403 04:35:05.192649 25961 net.cpp:425] inception_4c/output <- inception_4c/5x5
I0403 04:35:05.192665 25961 net.cpp:425] inception_4c/output <- inception_4c/pool_proj
I0403 04:35:05.192687 25961 net.cpp:399] inception_4c/output -> inception_4c/output
I0403 04:35:05.192729 25961 net.cpp:141] Setting up inception_4c/output
I0403 04:35:05.192754 25961 net.cpp:148] Top shape: 24 512 14 14 (2408448)
I0403 04:35:05.192769 25961 net.cpp:156] Memory required for data: 1072647360
I0403 04:35:05.192785 25961 layer_factory.hpp:77] Creating layer inception_4c/output_inception_4c/output_0_split
I0403 04:35:05.192806 25961 net.cpp:91] Creating Layer inception_4c/output_inception_4c/output_0_split
I0403 04:35:05.192822 25961 net.cpp:425] inception_4c/output_inception_4c/output_0_split <- inception_4c/output
I0403 04:35:05.192842 25961 net.cpp:399] inception_4c/output_inception_4c/output_0_split -> inception_4c/output_inception_4c/output_0_split_0
I0403 04:35:05.192862 25961 net.cpp:399] inception_4c/output_inception_4c/output_0_split -> inception_4c/output_inception_4c/output_0_split_1
I0403 04:35:05.192884 25961 net.cpp:399] inception_4c/output_inception_4c/output_0_split -> inception_4c/output_inception_4c/output_0_split_2
I0403 04:35:05.192909 25961 net.cpp:399] inception_4c/output_inception_4c/output_0_split -> inception_4c/output_inception_4c/output_0_split_3
I0403 04:35:05.193007 25961 net.cpp:141] Setting up inception_4c/output_inception_4c/output_0_split
I0403 04:35:05.193032 25961 net.cpp:148] Top shape: 24 512 14 14 (2408448)
I0403 04:35:05.193050 25961 net.cpp:148] Top shape: 24 512 14 14 (2408448)
I0403 04:35:05.193066 25961 net.cpp:148] Top shape: 24 512 14 14 (2408448)
I0403 04:35:05.193083 25961 net.cpp:148] Top shape: 24 512 14 14 (2408448)
I0403 04:35:05.193097 25961 net.cpp:156] Memory required for data: 1111182528
I0403 04:35:05.193111 25961 layer_factory.hpp:77] Creating layer inception_4d/1x1
I0403 04:35:05.193136 25961 net.cpp:91] Creating Layer inception_4d/1x1
I0403 04:35:05.193156 25961 net.cpp:425] inception_4d/1x1 <- inception_4c/output_inception_4c/output_0_split_0
I0403 04:35:05.193177 25961 net.cpp:399] inception_4d/1x1 -> inception_4d/1x1
I0403 04:35:05.193771 25961 net.cpp:141] Setting up inception_4d/1x1
I0403 04:35:05.193797 25961 net.cpp:148] Top shape: 24 112 14 14 (526848)
I0403 04:35:05.193814 25961 net.cpp:156] Memory required for data: 1113289920
I0403 04:35:05.193832 25961 layer_factory.hpp:77] Creating layer inception_4d/relu_1x1
I0403 04:35:05.193851 25961 net.cpp:91] Creating Layer inception_4d/relu_1x1
I0403 04:35:05.193868 25961 net.cpp:425] inception_4d/relu_1x1 <- inception_4d/1x1
I0403 04:35:05.193886 25961 net.cpp:386] inception_4d/relu_1x1 -> inception_4d/1x1 (in-place)
I0403 04:35:05.193907 25961 net.cpp:141] Setting up inception_4d/relu_1x1
I0403 04:35:05.193924 25961 net.cpp:148] Top shape: 24 112 14 14 (526848)
I0403 04:35:05.193940 25961 net.cpp:156] Memory required for data: 1115397312
I0403 04:35:05.193958 25961 layer_factory.hpp:77] Creating layer inception_4d/3x3_reduce
I0403 04:35:05.193984 25961 net.cpp:91] Creating Layer inception_4d/3x3_reduce
I0403 04:35:05.194003 25961 net.cpp:425] inception_4d/3x3_reduce <- inception_4c/output_inception_4c/output_0_split_1
I0403 04:35:05.194026 25961 net.cpp:399] inception_4d/3x3_reduce -> inception_4d/3x3_reduce
I0403 04:35:05.194736 25961 net.cpp:141] Setting up inception_4d/3x3_reduce
I0403 04:35:05.194762 25961 net.cpp:148] Top shape: 24 144 14 14 (677376)
I0403 04:35:05.194778 25961 net.cpp:156] Memory required for data: 1118106816
I0403 04:35:05.194797 25961 layer_factory.hpp:77] Creating layer inception_4d/relu_3x3_reduce
I0403 04:35:05.194820 25961 net.cpp:91] Creating Layer inception_4d/relu_3x3_reduce
I0403 04:35:05.194839 25961 net.cpp:425] inception_4d/relu_3x3_reduce <- inception_4d/3x3_reduce
I0403 04:35:05.194857 25961 net.cpp:386] inception_4d/relu_3x3_reduce -> inception_4d/3x3_reduce (in-place)
I0403 04:35:05.194878 25961 net.cpp:141] Setting up inception_4d/relu_3x3_reduce
I0403 04:35:05.194896 25961 net.cpp:148] Top shape: 24 144 14 14 (677376)
I0403 04:35:05.194911 25961 net.cpp:156] Memory required for data: 1120816320
I0403 04:35:05.194926 25961 layer_factory.hpp:77] Creating layer inception_4d/3x3
I0403 04:35:05.194950 25961 net.cpp:91] Creating Layer inception_4d/3x3
I0403 04:35:05.194972 25961 net.cpp:425] inception_4d/3x3 <- inception_4d/3x3_reduce
I0403 04:35:05.194999 25961 net.cpp:399] inception_4d/3x3 -> inception_4d/3x3
I0403 04:35:05.198498 25961 net.cpp:141] Setting up inception_4d/3x3
I0403 04:35:05.198528 25961 net.cpp:148] Top shape: 24 288 14 14 (1354752)
I0403 04:35:05.198544 25961 net.cpp:156] Memory required for data: 1126235328
I0403 04:35:05.198564 25961 layer_factory.hpp:77] Creating layer inception_4d/relu_3x3
I0403 04:35:05.198583 25961 net.cpp:91] Creating Layer inception_4d/relu_3x3
I0403 04:35:05.198601 25961 net.cpp:425] inception_4d/relu_3x3 <- inception_4d/3x3
I0403 04:35:05.198626 25961 net.cpp:386] inception_4d/relu_3x3 -> inception_4d/3x3 (in-place)
I0403 04:35:05.198647 25961 net.cpp:141] Setting up inception_4d/relu_3x3
I0403 04:35:05.198667 25961 net.cpp:148] Top shape: 24 288 14 14 (1354752)
I0403 04:35:05.198681 25961 net.cpp:156] Memory required for data: 1131654336
I0403 04:35:05.198696 25961 layer_factory.hpp:77] Creating layer inception_4d/5x5_reduce
I0403 04:35:05.198736 25961 net.cpp:91] Creating Layer inception_4d/5x5_reduce
I0403 04:35:05.198756 25961 net.cpp:425] inception_4d/5x5_reduce <- inception_4c/output_inception_4c/output_0_split_2
I0403 04:35:05.198777 25961 net.cpp:399] inception_4d/5x5_reduce -> inception_4d/5x5_reduce
I0403 04:35:05.199151 25961 net.cpp:141] Setting up inception_4d/5x5_reduce
I0403 04:35:05.199177 25961 net.cpp:148] Top shape: 24 32 14 14 (150528)
I0403 04:35:05.199193 25961 net.cpp:156] Memory required for data: 1132256448
I0403 04:35:05.199211 25961 layer_factory.hpp:77] Creating layer inception_4d/relu_5x5_reduce
I0403 04:35:05.199230 25961 net.cpp:91] Creating Layer inception_4d/relu_5x5_reduce
I0403 04:35:05.199251 25961 net.cpp:425] inception_4d/relu_5x5_reduce <- inception_4d/5x5_reduce
I0403 04:35:05.199270 25961 net.cpp:386] inception_4d/relu_5x5_reduce -> inception_4d/5x5_reduce (in-place)
I0403 04:35:05.199291 25961 net.cpp:141] Setting up inception_4d/relu_5x5_reduce
I0403 04:35:05.199311 25961 net.cpp:148] Top shape: 24 32 14 14 (150528)
I0403 04:35:05.199324 25961 net.cpp:156] Memory required for data: 1132858560
I0403 04:35:05.199339 25961 layer_factory.hpp:77] Creating layer inception_4d/5x5
I0403 04:35:05.199364 25961 net.cpp:91] Creating Layer inception_4d/5x5
I0403 04:35:05.199383 25961 net.cpp:425] inception_4d/5x5 <- inception_4d/5x5_reduce
I0403 04:35:05.199404 25961 net.cpp:399] inception_4d/5x5 -> inception_4d/5x5
I0403 04:35:05.199972 25961 net.cpp:141] Setting up inception_4d/5x5
I0403 04:35:05.200000 25961 net.cpp:148] Top shape: 24 64 14 14 (301056)
I0403 04:35:05.200014 25961 net.cpp:156] Memory required for data: 1134062784
I0403 04:35:05.200032 25961 layer_factory.hpp:77] Creating layer inception_4d/relu_5x5
I0403 04:35:05.200052 25961 net.cpp:91] Creating Layer inception_4d/relu_5x5
I0403 04:35:05.200069 25961 net.cpp:425] inception_4d/relu_5x5 <- inception_4d/5x5
I0403 04:35:05.200091 25961 net.cpp:386] inception_4d/relu_5x5 -> inception_4d/5x5 (in-place)
I0403 04:35:05.200114 25961 net.cpp:141] Setting up inception_4d/relu_5x5
I0403 04:35:05.200130 25961 net.cpp:148] Top shape: 24 64 14 14 (301056)
I0403 04:35:05.200145 25961 net.cpp:156] Memory required for data: 1135267008
I0403 04:35:05.200160 25961 layer_factory.hpp:77] Creating layer inception_4d/pool
I0403 04:35:05.200179 25961 net.cpp:91] Creating Layer inception_4d/pool
I0403 04:35:05.200196 25961 net.cpp:425] inception_4d/pool <- inception_4c/output_inception_4c/output_0_split_3
I0403 04:35:05.200217 25961 net.cpp:399] inception_4d/pool -> inception_4d/pool
I0403 04:35:05.200278 25961 net.cpp:141] Setting up inception_4d/pool
I0403 04:35:05.200301 25961 net.cpp:148] Top shape: 24 512 14 14 (2408448)
I0403 04:35:05.200316 25961 net.cpp:156] Memory required for data: 1144900800
I0403 04:35:05.200332 25961 layer_factory.hpp:77] Creating layer inception_4d/pool_proj
I0403 04:35:05.200356 25961 net.cpp:91] Creating Layer inception_4d/pool_proj
I0403 04:35:05.200376 25961 net.cpp:425] inception_4d/pool_proj <- inception_4d/pool
I0403 04:35:05.200399 25961 net.cpp:399] inception_4d/pool_proj -> inception_4d/pool_proj
I0403 04:35:05.200848 25961 net.cpp:141] Setting up inception_4d/pool_proj
I0403 04:35:05.200875 25961 net.cpp:148] Top shape: 24 64 14 14 (301056)
I0403 04:35:05.200889 25961 net.cpp:156] Memory required for data: 1146105024
I0403 04:35:05.200908 25961 layer_factory.hpp:77] Creating layer inception_4d/relu_pool_proj
I0403 04:35:05.200928 25961 net.cpp:91] Creating Layer inception_4d/relu_pool_proj
I0403 04:35:05.200945 25961 net.cpp:425] inception_4d/relu_pool_proj <- inception_4d/pool_proj
I0403 04:35:05.200968 25961 net.cpp:386] inception_4d/relu_pool_proj -> inception_4d/pool_proj (in-place)
I0403 04:35:05.200990 25961 net.cpp:141] Setting up inception_4d/relu_pool_proj
I0403 04:35:05.201009 25961 net.cpp:148] Top shape: 24 64 14 14 (301056)
I0403 04:35:05.201025 25961 net.cpp:156] Memory required for data: 1147309248
I0403 04:35:05.201040 25961 layer_factory.hpp:77] Creating layer inception_4d/output
I0403 04:35:05.201074 25961 net.cpp:91] Creating Layer inception_4d/output
I0403 04:35:05.201092 25961 net.cpp:425] inception_4d/output <- inception_4d/1x1
I0403 04:35:05.201110 25961 net.cpp:425] inception_4d/output <- inception_4d/3x3
I0403 04:35:05.201128 25961 net.cpp:425] inception_4d/output <- inception_4d/5x5
I0403 04:35:05.201143 25961 net.cpp:425] inception_4d/output <- inception_4d/pool_proj
I0403 04:35:05.201162 25961 net.cpp:399] inception_4d/output -> inception_4d/output
I0403 04:35:05.201207 25961 net.cpp:141] Setting up inception_4d/output
I0403 04:35:05.201231 25961 net.cpp:148] Top shape: 24 528 14 14 (2483712)
I0403 04:35:05.201247 25961 net.cpp:156] Memory required for data: 1157244096
I0403 04:35:05.201262 25961 layer_factory.hpp:77] Creating layer inception_4d/output_inception_4d/output_0_split
I0403 04:35:05.201282 25961 net.cpp:91] Creating Layer inception_4d/output_inception_4d/output_0_split
I0403 04:35:05.201298 25961 net.cpp:425] inception_4d/output_inception_4d/output_0_split <- inception_4d/output
I0403 04:35:05.201323 25961 net.cpp:399] inception_4d/output_inception_4d/output_0_split -> inception_4d/output_inception_4d/output_0_split_0
I0403 04:35:05.201346 25961 net.cpp:399] inception_4d/output_inception_4d/output_0_split -> inception_4d/output_inception_4d/output_0_split_1
I0403 04:35:05.201367 25961 net.cpp:399] inception_4d/output_inception_4d/output_0_split -> inception_4d/output_inception_4d/output_0_split_2
I0403 04:35:05.201390 25961 net.cpp:399] inception_4d/output_inception_4d/output_0_split -> inception_4d/output_inception_4d/output_0_split_3
I0403 04:35:05.201408 25961 net.cpp:399] inception_4d/output_inception_4d/output_0_split -> inception_4d/output_inception_4d/output_0_split_4
I0403 04:35:05.201500 25961 net.cpp:141] Setting up inception_4d/output_inception_4d/output_0_split
I0403 04:35:05.201526 25961 net.cpp:148] Top shape: 24 528 14 14 (2483712)
I0403 04:35:05.201545 25961 net.cpp:148] Top shape: 24 528 14 14 (2483712)
I0403 04:35:05.201560 25961 net.cpp:148] Top shape: 24 528 14 14 (2483712)
I0403 04:35:05.201575 25961 net.cpp:148] Top shape: 24 528 14 14 (2483712)
I0403 04:35:05.201591 25961 net.cpp:148] Top shape: 24 528 14 14 (2483712)
I0403 04:35:05.201606 25961 net.cpp:156] Memory required for data: 1206918336
I0403 04:35:05.201622 25961 layer_factory.hpp:77] Creating layer loss2/ave_pool
I0403 04:35:05.201639 25961 net.cpp:91] Creating Layer loss2/ave_pool
I0403 04:35:05.201655 25961 net.cpp:425] loss2/ave_pool <- inception_4d/output_inception_4d/output_0_split_0
I0403 04:35:05.201674 25961 net.cpp:399] loss2/ave_pool -> loss2/ave_pool
I0403 04:35:05.201719 25961 net.cpp:141] Setting up loss2/ave_pool
I0403 04:35:05.201743 25961 net.cpp:148] Top shape: 24 528 4 4 (202752)
I0403 04:35:05.201758 25961 net.cpp:156] Memory required for data: 1207729344
I0403 04:35:05.201773 25961 layer_factory.hpp:77] Creating layer loss2/conv
I0403 04:35:05.201798 25961 net.cpp:91] Creating Layer loss2/conv
I0403 04:35:05.201817 25961 net.cpp:425] loss2/conv <- loss2/ave_pool
I0403 04:35:05.201841 25961 net.cpp:399] loss2/conv -> loss2/conv
I0403 04:35:05.203055 25961 net.cpp:141] Setting up loss2/conv
I0403 04:35:05.203085 25961 net.cpp:148] Top shape: 24 128 4 4 (49152)
I0403 04:35:05.203102 25961 net.cpp:156] Memory required for data: 1207925952
I0403 04:35:05.203121 25961 layer_factory.hpp:77] Creating layer loss2/relu_conv
I0403 04:35:05.203143 25961 net.cpp:91] Creating Layer loss2/relu_conv
I0403 04:35:05.203162 25961 net.cpp:425] loss2/relu_conv <- loss2/conv
I0403 04:35:05.203181 25961 net.cpp:386] loss2/relu_conv -> loss2/conv (in-place)
I0403 04:35:05.203202 25961 net.cpp:141] Setting up loss2/relu_conv
I0403 04:35:05.203219 25961 net.cpp:148] Top shape: 24 128 4 4 (49152)
I0403 04:35:05.203234 25961 net.cpp:156] Memory required for data: 1208122560
I0403 04:35:05.203249 25961 layer_factory.hpp:77] Creating layer loss2/fc
I0403 04:35:05.203272 25961 net.cpp:91] Creating Layer loss2/fc
I0403 04:35:05.203289 25961 net.cpp:425] loss2/fc <- loss2/conv
I0403 04:35:05.203310 25961 net.cpp:399] loss2/fc -> loss2/fc
I0403 04:35:05.220067 25961 net.cpp:141] Setting up loss2/fc
I0403 04:35:05.220114 25961 net.cpp:148] Top shape: 24 1024 (24576)
I0403 04:35:05.220131 25961 net.cpp:156] Memory required for data: 1208220864
I0403 04:35:05.220152 25961 layer_factory.hpp:77] Creating layer loss2/relu_fc
I0403 04:35:05.220175 25961 net.cpp:91] Creating Layer loss2/relu_fc
I0403 04:35:05.220193 25961 net.cpp:425] loss2/relu_fc <- loss2/fc
I0403 04:35:05.220212 25961 net.cpp:386] loss2/relu_fc -> loss2/fc (in-place)
I0403 04:35:05.220233 25961 net.cpp:141] Setting up loss2/relu_fc
I0403 04:35:05.220252 25961 net.cpp:148] Top shape: 24 1024 (24576)
I0403 04:35:05.220268 25961 net.cpp:156] Memory required for data: 1208319168
I0403 04:35:05.220283 25961 layer_factory.hpp:77] Creating layer loss2/drop_fc
I0403 04:35:05.220305 25961 net.cpp:91] Creating Layer loss2/drop_fc
I0403 04:35:05.220322 25961 net.cpp:425] loss2/drop_fc <- loss2/fc
I0403 04:35:05.220341 25961 net.cpp:386] loss2/drop_fc -> loss2/fc (in-place)
I0403 04:35:05.220391 25961 net.cpp:141] Setting up loss2/drop_fc
I0403 04:35:05.220414 25961 net.cpp:148] Top shape: 24 1024 (24576)
I0403 04:35:05.220429 25961 net.cpp:156] Memory required for data: 1208417472
I0403 04:35:05.220445 25961 layer_factory.hpp:77] Creating layer loss2/classifier_plantvillage
I0403 04:35:05.220466 25961 net.cpp:91] Creating Layer loss2/classifier_plantvillage
I0403 04:35:05.220484 25961 net.cpp:425] loss2/classifier_plantvillage <- loss2/fc
I0403 04:35:05.220510 25961 net.cpp:399] loss2/classifier_plantvillage -> loss2/classifier_plantvillage
I0403 04:35:05.220885 25961 net.cpp:141] Setting up loss2/classifier_plantvillage
I0403 04:35:05.220911 25961 net.cpp:148] Top shape: 24 38 (912)
I0403 04:35:05.220927 25961 net.cpp:156] Memory required for data: 1208421120
I0403 04:35:05.220947 25961 layer_factory.hpp:77] Creating layer loss2/classifier_plantvillage_loss2/classifier_plantvillage_0_split
I0403 04:35:05.220971 25961 net.cpp:91] Creating Layer loss2/classifier_plantvillage_loss2/classifier_plantvillage_0_split
I0403 04:35:05.220991 25961 net.cpp:425] loss2/classifier_plantvillage_loss2/classifier_plantvillage_0_split <- loss2/classifier_plantvillage
I0403 04:35:05.221010 25961 net.cpp:399] loss2/classifier_plantvillage_loss2/classifier_plantvillage_0_split -> loss2/classifier_plantvillage_loss2/classifier_plantvillage_0_split_0
I0403 04:35:05.221036 25961 net.cpp:399] loss2/classifier_plantvillage_loss2/classifier_plantvillage_0_split -> loss2/classifier_plantvillage_loss2/classifier_plantvillage_0_split_1
I0403 04:35:05.221062 25961 net.cpp:399] loss2/classifier_plantvillage_loss2/classifier_plantvillage_0_split -> loss2/classifier_plantvillage_loss2/classifier_plantvillage_0_split_2
I0403 04:35:05.221137 25961 net.cpp:141] Setting up loss2/classifier_plantvillage_loss2/classifier_plantvillage_0_split
I0403 04:35:05.221161 25961 net.cpp:148] Top shape: 24 38 (912)
I0403 04:35:05.221179 25961 net.cpp:148] Top shape: 24 38 (912)
I0403 04:35:05.221194 25961 net.cpp:148] Top shape: 24 38 (912)
I0403 04:35:05.221210 25961 net.cpp:156] Memory required for data: 1208432064
I0403 04:35:05.221225 25961 layer_factory.hpp:77] Creating layer inception_4e/1x1
I0403 04:35:05.221247 25961 net.cpp:91] Creating Layer inception_4e/1x1
I0403 04:35:05.221266 25961 net.cpp:425] inception_4e/1x1 <- inception_4d/output_inception_4d/output_0_split_1
I0403 04:35:05.221292 25961 net.cpp:399] inception_4e/1x1 -> inception_4e/1x1
I0403 04:35:05.222368 25961 net.cpp:141] Setting up inception_4e/1x1
I0403 04:35:05.222395 25961 net.cpp:148] Top shape: 24 256 14 14 (1204224)
I0403 04:35:05.222411 25961 net.cpp:156] Memory required for data: 1213248960
I0403 04:35:05.222429 25961 layer_factory.hpp:77] Creating layer inception_4e/relu_1x1
I0403 04:35:05.222448 25961 net.cpp:91] Creating Layer inception_4e/relu_1x1
I0403 04:35:05.222465 25961 net.cpp:425] inception_4e/relu_1x1 <- inception_4e/1x1
I0403 04:35:05.222484 25961 net.cpp:386] inception_4e/relu_1x1 -> inception_4e/1x1 (in-place)
I0403 04:35:05.222504 25961 net.cpp:141] Setting up inception_4e/relu_1x1
I0403 04:35:05.222544 25961 net.cpp:148] Top shape: 24 256 14 14 (1204224)
I0403 04:35:05.222563 25961 net.cpp:156] Memory required for data: 1218065856
I0403 04:35:05.222581 25961 layer_factory.hpp:77] Creating layer inception_4e/3x3_reduce
I0403 04:35:05.222607 25961 net.cpp:91] Creating Layer inception_4e/3x3_reduce
I0403 04:35:05.222627 25961 net.cpp:425] inception_4e/3x3_reduce <- inception_4d/output_inception_4d/output_0_split_2
I0403 04:35:05.222651 25961 net.cpp:399] inception_4e/3x3_reduce -> inception_4e/3x3_reduce
I0403 04:35:05.223994 25961 net.cpp:141] Setting up inception_4e/3x3_reduce
I0403 04:35:05.224026 25961 net.cpp:148] Top shape: 24 160 14 14 (752640)
I0403 04:35:05.224043 25961 net.cpp:156] Memory required for data: 1221076416
I0403 04:35:05.224063 25961 layer_factory.hpp:77] Creating layer inception_4e/relu_3x3_reduce
I0403 04:35:05.224083 25961 net.cpp:91] Creating Layer inception_4e/relu_3x3_reduce
I0403 04:35:05.224103 25961 net.cpp:425] inception_4e/relu_3x3_reduce <- inception_4e/3x3_reduce
I0403 04:35:05.224128 25961 net.cpp:386] inception_4e/relu_3x3_reduce -> inception_4e/3x3_reduce (in-place)
I0403 04:35:05.224149 25961 net.cpp:141] Setting up inception_4e/relu_3x3_reduce
I0403 04:35:05.224167 25961 net.cpp:148] Top shape: 24 160 14 14 (752640)
I0403 04:35:05.224184 25961 net.cpp:156] Memory required for data: 1224086976
I0403 04:35:05.224198 25961 layer_factory.hpp:77] Creating layer inception_4e/3x3
I0403 04:35:05.224223 25961 net.cpp:91] Creating Layer inception_4e/3x3
I0403 04:35:05.224242 25961 net.cpp:425] inception_4e/3x3 <- inception_4e/3x3_reduce
I0403 04:35:05.224262 25961 net.cpp:399] inception_4e/3x3 -> inception_4e/3x3
I0403 04:35:05.228327 25961 net.cpp:141] Setting up inception_4e/3x3
I0403 04:35:05.228358 25961 net.cpp:148] Top shape: 24 320 14 14 (1505280)
I0403 04:35:05.228374 25961 net.cpp:156] Memory required for data: 1230108096
I0403 04:35:05.228392 25961 layer_factory.hpp:77] Creating layer inception_4e/relu_3x3
I0403 04:35:05.228415 25961 net.cpp:91] Creating Layer inception_4e/relu_3x3
I0403 04:35:05.228435 25961 net.cpp:425] inception_4e/relu_3x3 <- inception_4e/3x3
I0403 04:35:05.228452 25961 net.cpp:386] inception_4e/relu_3x3 -> inception_4e/3x3 (in-place)
I0403 04:35:05.228473 25961 net.cpp:141] Setting up inception_4e/relu_3x3
I0403 04:35:05.228492 25961 net.cpp:148] Top shape: 24 320 14 14 (1505280)
I0403 04:35:05.228507 25961 net.cpp:156] Memory required for data: 1236129216
I0403 04:35:05.228523 25961 layer_factory.hpp:77] Creating layer inception_4e/5x5_reduce
I0403 04:35:05.228546 25961 net.cpp:91] Creating Layer inception_4e/5x5_reduce
I0403 04:35:05.228564 25961 net.cpp:425] inception_4e/5x5_reduce <- inception_4d/output_inception_4d/output_0_split_3
I0403 04:35:05.228587 25961 net.cpp:399] inception_4e/5x5_reduce -> inception_4e/5x5_reduce
I0403 04:35:05.229490 25961 net.cpp:141] Setting up inception_4e/5x5_reduce
I0403 04:35:05.229519 25961 net.cpp:148] Top shape: 24 32 14 14 (150528)
I0403 04:35:05.229535 25961 net.cpp:156] Memory required for data: 1236731328
I0403 04:35:05.229554 25961 layer_factory.hpp:77] Creating layer inception_4e/relu_5x5_reduce
I0403 04:35:05.229574 25961 net.cpp:91] Creating Layer inception_4e/relu_5x5_reduce
I0403 04:35:05.229591 25961 net.cpp:425] inception_4e/relu_5x5_reduce <- inception_4e/5x5_reduce
I0403 04:35:05.229612 25961 net.cpp:386] inception_4e/relu_5x5_reduce -> inception_4e/5x5_reduce (in-place)
I0403 04:35:05.229635 25961 net.cpp:141] Setting up inception_4e/relu_5x5_reduce
I0403 04:35:05.229652 25961 net.cpp:148] Top shape: 24 32 14 14 (150528)
I0403 04:35:05.229667 25961 net.cpp:156] Memory required for data: 1237333440
I0403 04:35:05.229682 25961 layer_factory.hpp:77] Creating layer inception_4e/5x5
I0403 04:35:05.229725 25961 net.cpp:91] Creating Layer inception_4e/5x5
I0403 04:35:05.229745 25961 net.cpp:425] inception_4e/5x5 <- inception_4e/5x5_reduce
I0403 04:35:05.229766 25961 net.cpp:399] inception_4e/5x5 -> inception_4e/5x5
I0403 04:35:05.230589 25961 net.cpp:141] Setting up inception_4e/5x5
I0403 04:35:05.230630 25961 net.cpp:148] Top shape: 24 128 14 14 (602112)
I0403 04:35:05.230648 25961 net.cpp:156] Memory required for data: 1239741888
I0403 04:35:05.230666 25961 layer_factory.hpp:77] Creating layer inception_4e/relu_5x5
I0403 04:35:05.230689 25961 net.cpp:91] Creating Layer inception_4e/relu_5x5
I0403 04:35:05.230707 25961 net.cpp:425] inception_4e/relu_5x5 <- inception_4e/5x5
I0403 04:35:05.230726 25961 net.cpp:386] inception_4e/relu_5x5 -> inception_4e/5x5 (in-place)
I0403 04:35:05.230746 25961 net.cpp:141] Setting up inception_4e/relu_5x5
I0403 04:35:05.230764 25961 net.cpp:148] Top shape: 24 128 14 14 (602112)
I0403 04:35:05.230779 25961 net.cpp:156] Memory required for data: 1242150336
I0403 04:35:05.230794 25961 layer_factory.hpp:77] Creating layer inception_4e/pool
I0403 04:35:05.230816 25961 net.cpp:91] Creating Layer inception_4e/pool
I0403 04:35:05.230834 25961 net.cpp:425] inception_4e/pool <- inception_4d/output_inception_4d/output_0_split_4
I0403 04:35:05.230854 25961 net.cpp:399] inception_4e/pool -> inception_4e/pool
I0403 04:35:05.230909 25961 net.cpp:141] Setting up inception_4e/pool
I0403 04:35:05.230938 25961 net.cpp:148] Top shape: 24 528 14 14 (2483712)
I0403 04:35:05.230954 25961 net.cpp:156] Memory required for data: 1252085184
I0403 04:35:05.230975 25961 layer_factory.hpp:77] Creating layer inception_4e/pool_proj
I0403 04:35:05.231000 25961 net.cpp:91] Creating Layer inception_4e/pool_proj
I0403 04:35:05.231020 25961 net.cpp:425] inception_4e/pool_proj <- inception_4e/pool
I0403 04:35:05.231041 25961 net.cpp:399] inception_4e/pool_proj -> inception_4e/pool_proj
I0403 04:35:05.231658 25961 net.cpp:141] Setting up inception_4e/pool_proj
I0403 04:35:05.231684 25961 net.cpp:148] Top shape: 24 128 14 14 (602112)
I0403 04:35:05.231701 25961 net.cpp:156] Memory required for data: 1254493632
I0403 04:35:05.231719 25961 layer_factory.hpp:77] Creating layer inception_4e/relu_pool_proj
I0403 04:35:05.231739 25961 net.cpp:91] Creating Layer inception_4e/relu_pool_proj
I0403 04:35:05.231755 25961 net.cpp:425] inception_4e/relu_pool_proj <- inception_4e/pool_proj
I0403 04:35:05.231773 25961 net.cpp:386] inception_4e/relu_pool_proj -> inception_4e/pool_proj (in-place)
I0403 04:35:05.231794 25961 net.cpp:141] Setting up inception_4e/relu_pool_proj
I0403 04:35:05.231812 25961 net.cpp:148] Top shape: 24 128 14 14 (602112)
I0403 04:35:05.231827 25961 net.cpp:156] Memory required for data: 1256902080
I0403 04:35:05.231842 25961 layer_factory.hpp:77] Creating layer inception_4e/output
I0403 04:35:05.231863 25961 net.cpp:91] Creating Layer inception_4e/output
I0403 04:35:05.231880 25961 net.cpp:425] inception_4e/output <- inception_4e/1x1
I0403 04:35:05.231897 25961 net.cpp:425] inception_4e/output <- inception_4e/3x3
I0403 04:35:05.231915 25961 net.cpp:425] inception_4e/output <- inception_4e/5x5
I0403 04:35:05.231935 25961 net.cpp:425] inception_4e/output <- inception_4e/pool_proj
I0403 04:35:05.231953 25961 net.cpp:399] inception_4e/output -> inception_4e/output
I0403 04:35:05.232002 25961 net.cpp:141] Setting up inception_4e/output
I0403 04:35:05.232025 25961 net.cpp:148] Top shape: 24 832 14 14 (3913728)
I0403 04:35:05.232040 25961 net.cpp:156] Memory required for data: 1272556992
I0403 04:35:05.232055 25961 layer_factory.hpp:77] Creating layer pool4/3x3_s2
I0403 04:35:05.232074 25961 net.cpp:91] Creating Layer pool4/3x3_s2
I0403 04:35:05.232091 25961 net.cpp:425] pool4/3x3_s2 <- inception_4e/output
I0403 04:35:05.232115 25961 net.cpp:399] pool4/3x3_s2 -> pool4/3x3_s2
I0403 04:35:05.232168 25961 net.cpp:141] Setting up pool4/3x3_s2
I0403 04:35:05.232192 25961 net.cpp:148] Top shape: 24 832 7 7 (978432)
I0403 04:35:05.232208 25961 net.cpp:156] Memory required for data: 1276470720
I0403 04:35:05.232223 25961 layer_factory.hpp:77] Creating layer pool4/3x3_s2_pool4/3x3_s2_0_split
I0403 04:35:05.232249 25961 net.cpp:91] Creating Layer pool4/3x3_s2_pool4/3x3_s2_0_split
I0403 04:35:05.232265 25961 net.cpp:425] pool4/3x3_s2_pool4/3x3_s2_0_split <- pool4/3x3_s2
I0403 04:35:05.232298 25961 net.cpp:399] pool4/3x3_s2_pool4/3x3_s2_0_split -> pool4/3x3_s2_pool4/3x3_s2_0_split_0
I0403 04:35:05.232321 25961 net.cpp:399] pool4/3x3_s2_pool4/3x3_s2_0_split -> pool4/3x3_s2_pool4/3x3_s2_0_split_1
I0403 04:35:05.232345 25961 net.cpp:399] pool4/3x3_s2_pool4/3x3_s2_0_split -> pool4/3x3_s2_pool4/3x3_s2_0_split_2
I0403 04:35:05.232367 25961 net.cpp:399] pool4/3x3_s2_pool4/3x3_s2_0_split -> pool4/3x3_s2_pool4/3x3_s2_0_split_3
I0403 04:35:05.232436 25961 net.cpp:141] Setting up pool4/3x3_s2_pool4/3x3_s2_0_split
I0403 04:35:05.232460 25961 net.cpp:148] Top shape: 24 832 7 7 (978432)
I0403 04:35:05.232477 25961 net.cpp:148] Top shape: 24 832 7 7 (978432)
I0403 04:35:05.232494 25961 net.cpp:148] Top shape: 24 832 7 7 (978432)
I0403 04:35:05.232511 25961 net.cpp:148] Top shape: 24 832 7 7 (978432)
I0403 04:35:05.232525 25961 net.cpp:156] Memory required for data: 1292125632
I0403 04:35:05.232540 25961 layer_factory.hpp:77] Creating layer inception_5a/1x1
I0403 04:35:05.232565 25961 net.cpp:91] Creating Layer inception_5a/1x1
I0403 04:35:05.232583 25961 net.cpp:425] inception_5a/1x1 <- pool4/3x3_s2_pool4/3x3_s2_0_split_0
I0403 04:35:05.232607 25961 net.cpp:399] inception_5a/1x1 -> inception_5a/1x1
I0403 04:35:05.234633 25961 net.cpp:141] Setting up inception_5a/1x1
I0403 04:35:05.234664 25961 net.cpp:148] Top shape: 24 256 7 7 (301056)
I0403 04:35:05.234680 25961 net.cpp:156] Memory required for data: 1293329856
I0403 04:35:05.234700 25961 layer_factory.hpp:77] Creating layer inception_5a/relu_1x1
I0403 04:35:05.234722 25961 net.cpp:91] Creating Layer inception_5a/relu_1x1
I0403 04:35:05.234741 25961 net.cpp:425] inception_5a/relu_1x1 <- inception_5a/1x1
I0403 04:35:05.234760 25961 net.cpp:386] inception_5a/relu_1x1 -> inception_5a/1x1 (in-place)
I0403 04:35:05.234781 25961 net.cpp:141] Setting up inception_5a/relu_1x1
I0403 04:35:05.234798 25961 net.cpp:148] Top shape: 24 256 7 7 (301056)
I0403 04:35:05.234813 25961 net.cpp:156] Memory required for data: 1294534080
I0403 04:35:05.234828 25961 layer_factory.hpp:77] Creating layer inception_5a/3x3_reduce
I0403 04:35:05.234853 25961 net.cpp:91] Creating Layer inception_5a/3x3_reduce
I0403 04:35:05.234872 25961 net.cpp:425] inception_5a/3x3_reduce <- pool4/3x3_s2_pool4/3x3_s2_0_split_1
I0403 04:35:05.234892 25961 net.cpp:399] inception_5a/3x3_reduce -> inception_5a/3x3_reduce
I0403 04:35:05.236479 25961 net.cpp:141] Setting up inception_5a/3x3_reduce
I0403 04:35:05.236508 25961 net.cpp:148] Top shape: 24 160 7 7 (188160)
I0403 04:35:05.236526 25961 net.cpp:156] Memory required for data: 1295286720
I0403 04:35:05.236544 25961 layer_factory.hpp:77] Creating layer inception_5a/relu_3x3_reduce
I0403 04:35:05.236564 25961 net.cpp:91] Creating Layer inception_5a/relu_3x3_reduce
I0403 04:35:05.236582 25961 net.cpp:425] inception_5a/relu_3x3_reduce <- inception_5a/3x3_reduce
I0403 04:35:05.236603 25961 net.cpp:386] inception_5a/relu_3x3_reduce -> inception_5a/3x3_reduce (in-place)
I0403 04:35:05.236624 25961 net.cpp:141] Setting up inception_5a/relu_3x3_reduce
I0403 04:35:05.236642 25961 net.cpp:148] Top shape: 24 160 7 7 (188160)
I0403 04:35:05.236657 25961 net.cpp:156] Memory required for data: 1296039360
I0403 04:35:05.236673 25961 layer_factory.hpp:77] Creating layer inception_5a/3x3
I0403 04:35:05.236697 25961 net.cpp:91] Creating Layer inception_5a/3x3
I0403 04:35:05.236716 25961 net.cpp:425] inception_5a/3x3 <- inception_5a/3x3_reduce
I0403 04:35:05.236737 25961 net.cpp:399] inception_5a/3x3 -> inception_5a/3x3
I0403 04:35:05.240746 25961 net.cpp:141] Setting up inception_5a/3x3
I0403 04:35:05.240777 25961 net.cpp:148] Top shape: 24 320 7 7 (376320)
I0403 04:35:05.240793 25961 net.cpp:156] Memory required for data: 1297544640
I0403 04:35:05.240813 25961 layer_factory.hpp:77] Creating layer inception_5a/relu_3x3
I0403 04:35:05.240833 25961 net.cpp:91] Creating Layer inception_5a/relu_3x3
I0403 04:35:05.240850 25961 net.cpp:425] inception_5a/relu_3x3 <- inception_5a/3x3
I0403 04:35:05.240871 25961 net.cpp:386] inception_5a/relu_3x3 -> inception_5a/3x3 (in-place)
I0403 04:35:05.240908 25961 net.cpp:141] Setting up inception_5a/relu_3x3
I0403 04:35:05.240927 25961 net.cpp:148] Top shape: 24 320 7 7 (376320)
I0403 04:35:05.240943 25961 net.cpp:156] Memory required for data: 1299049920
I0403 04:35:05.240963 25961 layer_factory.hpp:77] Creating layer inception_5a/5x5_reduce
I0403 04:35:05.240993 25961 net.cpp:91] Creating Layer inception_5a/5x5_reduce
I0403 04:35:05.241014 25961 net.cpp:425] inception_5a/5x5_reduce <- pool4/3x3_s2_pool4/3x3_s2_0_split_2
I0403 04:35:05.241034 25961 net.cpp:399] inception_5a/5x5_reduce -> inception_5a/5x5_reduce
I0403 04:35:05.241436 25961 net.cpp:141] Setting up inception_5a/5x5_reduce
I0403 04:35:05.241462 25961 net.cpp:148] Top shape: 24 32 7 7 (37632)
I0403 04:35:05.241477 25961 net.cpp:156] Memory required for data: 1299200448
I0403 04:35:05.241497 25961 layer_factory.hpp:77] Creating layer inception_5a/relu_5x5_reduce
I0403 04:35:05.241514 25961 net.cpp:91] Creating Layer inception_5a/relu_5x5_reduce
I0403 04:35:05.241533 25961 net.cpp:425] inception_5a/relu_5x5_reduce <- inception_5a/5x5_reduce
I0403 04:35:05.241554 25961 net.cpp:386] inception_5a/relu_5x5_reduce -> inception_5a/5x5_reduce (in-place)
I0403 04:35:05.241575 25961 net.cpp:141] Setting up inception_5a/relu_5x5_reduce
I0403 04:35:05.241592 25961 net.cpp:148] Top shape: 24 32 7 7 (37632)
I0403 04:35:05.241608 25961 net.cpp:156] Memory required for data: 1299350976
I0403 04:35:05.241623 25961 layer_factory.hpp:77] Creating layer inception_5a/5x5
I0403 04:35:05.241647 25961 net.cpp:91] Creating Layer inception_5a/5x5
I0403 04:35:05.241665 25961 net.cpp:425] inception_5a/5x5 <- inception_5a/5x5_reduce
I0403 04:35:05.241686 25961 net.cpp:399] inception_5a/5x5 -> inception_5a/5x5
I0403 04:35:05.242527 25961 net.cpp:141] Setting up inception_5a/5x5
I0403 04:35:05.242557 25961 net.cpp:148] Top shape: 24 128 7 7 (150528)
I0403 04:35:05.242573 25961 net.cpp:156] Memory required for data: 1299953088
I0403 04:35:05.242593 25961 layer_factory.hpp:77] Creating layer inception_5a/relu_5x5
I0403 04:35:05.242611 25961 net.cpp:91] Creating Layer inception_5a/relu_5x5
I0403 04:35:05.242627 25961 net.cpp:425] inception_5a/relu_5x5 <- inception_5a/5x5
I0403 04:35:05.242646 25961 net.cpp:386] inception_5a/relu_5x5 -> inception_5a/5x5 (in-place)
I0403 04:35:05.242667 25961 net.cpp:141] Setting up inception_5a/relu_5x5
I0403 04:35:05.242686 25961 net.cpp:148] Top shape: 24 128 7 7 (150528)
I0403 04:35:05.242700 25961 net.cpp:156] Memory required for data: 1300555200
I0403 04:35:05.242715 25961 layer_factory.hpp:77] Creating layer inception_5a/pool
I0403 04:35:05.242734 25961 net.cpp:91] Creating Layer inception_5a/pool
I0403 04:35:05.242750 25961 net.cpp:425] inception_5a/pool <- pool4/3x3_s2_pool4/3x3_s2_0_split_3
I0403 04:35:05.242772 25961 net.cpp:399] inception_5a/pool -> inception_5a/pool
I0403 04:35:05.242830 25961 net.cpp:141] Setting up inception_5a/pool
I0403 04:35:05.242854 25961 net.cpp:148] Top shape: 24 832 7 7 (978432)
I0403 04:35:05.242868 25961 net.cpp:156] Memory required for data: 1304468928
I0403 04:35:05.242883 25961 layer_factory.hpp:77] Creating layer inception_5a/pool_proj
I0403 04:35:05.242908 25961 net.cpp:91] Creating Layer inception_5a/pool_proj
I0403 04:35:05.242928 25961 net.cpp:425] inception_5a/pool_proj <- inception_5a/pool
I0403 04:35:05.242949 25961 net.cpp:399] inception_5a/pool_proj -> inception_5a/pool_proj
I0403 04:35:05.244360 25961 net.cpp:141] Setting up inception_5a/pool_proj
I0403 04:35:05.244390 25961 net.cpp:148] Top shape: 24 128 7 7 (150528)
I0403 04:35:05.244407 25961 net.cpp:156] Memory required for data: 1305071040
I0403 04:35:05.244426 25961 layer_factory.hpp:77] Creating layer inception_5a/relu_pool_proj
I0403 04:35:05.244446 25961 net.cpp:91] Creating Layer inception_5a/relu_pool_proj
I0403 04:35:05.244462 25961 net.cpp:425] inception_5a/relu_pool_proj <- inception_5a/pool_proj
I0403 04:35:05.244482 25961 net.cpp:386] inception_5a/relu_pool_proj -> inception_5a/pool_proj (in-place)
I0403 04:35:05.244503 25961 net.cpp:141] Setting up inception_5a/relu_pool_proj
I0403 04:35:05.244537 25961 net.cpp:148] Top shape: 24 128 7 7 (150528)
I0403 04:35:05.244554 25961 net.cpp:156] Memory required for data: 1305673152
I0403 04:35:05.244570 25961 layer_factory.hpp:77] Creating layer inception_5a/output
I0403 04:35:05.244590 25961 net.cpp:91] Creating Layer inception_5a/output
I0403 04:35:05.244608 25961 net.cpp:425] inception_5a/output <- inception_5a/1x1
I0403 04:35:05.244626 25961 net.cpp:425] inception_5a/output <- inception_5a/3x3
I0403 04:35:05.244643 25961 net.cpp:425] inception_5a/output <- inception_5a/5x5
I0403 04:35:05.244660 25961 net.cpp:425] inception_5a/output <- inception_5a/pool_proj
I0403 04:35:05.244679 25961 net.cpp:399] inception_5a/output -> inception_5a/output
I0403 04:35:05.244724 25961 net.cpp:141] Setting up inception_5a/output
I0403 04:35:05.244747 25961 net.cpp:148] Top shape: 24 832 7 7 (978432)
I0403 04:35:05.244762 25961 net.cpp:156] Memory required for data: 1309586880
I0403 04:35:05.244778 25961 layer_factory.hpp:77] Creating layer inception_5a/output_inception_5a/output_0_split
I0403 04:35:05.244797 25961 net.cpp:91] Creating Layer inception_5a/output_inception_5a/output_0_split
I0403 04:35:05.244813 25961 net.cpp:425] inception_5a/output_inception_5a/output_0_split <- inception_5a/output
I0403 04:35:05.244832 25961 net.cpp:399] inception_5a/output_inception_5a/output_0_split -> inception_5a/output_inception_5a/output_0_split_0
I0403 04:35:05.244856 25961 net.cpp:399] inception_5a/output_inception_5a/output_0_split -> inception_5a/output_inception_5a/output_0_split_1
I0403 04:35:05.244879 25961 net.cpp:399] inception_5a/output_inception_5a/output_0_split -> inception_5a/output_inception_5a/output_0_split_2
I0403 04:35:05.244900 25961 net.cpp:399] inception_5a/output_inception_5a/output_0_split -> inception_5a/output_inception_5a/output_0_split_3
I0403 04:35:05.244978 25961 net.cpp:141] Setting up inception_5a/output_inception_5a/output_0_split
I0403 04:35:05.245003 25961 net.cpp:148] Top shape: 24 832 7 7 (978432)
I0403 04:35:05.245020 25961 net.cpp:148] Top shape: 24 832 7 7 (978432)
I0403 04:35:05.245035 25961 net.cpp:148] Top shape: 24 832 7 7 (978432)
I0403 04:35:05.245051 25961 net.cpp:148] Top shape: 24 832 7 7 (978432)
I0403 04:35:05.245066 25961 net.cpp:156] Memory required for data: 1325241792
I0403 04:35:05.245081 25961 layer_factory.hpp:77] Creating layer inception_5b/1x1
I0403 04:35:05.245105 25961 net.cpp:91] Creating Layer inception_5b/1x1
I0403 04:35:05.245126 25961 net.cpp:425] inception_5b/1x1 <- inception_5a/output_inception_5a/output_0_split_0
I0403 04:35:05.245147 25961 net.cpp:399] inception_5b/1x1 -> inception_5b/1x1
I0403 04:35:05.247890 25961 net.cpp:141] Setting up inception_5b/1x1
I0403 04:35:05.247921 25961 net.cpp:148] Top shape: 24 384 7 7 (451584)
I0403 04:35:05.247939 25961 net.cpp:156] Memory required for data: 1327048128
I0403 04:35:05.247962 25961 layer_factory.hpp:77] Creating layer inception_5b/relu_1x1
I0403 04:35:05.247983 25961 net.cpp:91] Creating Layer inception_5b/relu_1x1
I0403 04:35:05.248002 25961 net.cpp:425] inception_5b/relu_1x1 <- inception_5b/1x1
I0403 04:35:05.248019 25961 net.cpp:386] inception_5b/relu_1x1 -> inception_5b/1x1 (in-place)
I0403 04:35:05.248041 25961 net.cpp:141] Setting up inception_5b/relu_1x1
I0403 04:35:05.248059 25961 net.cpp:148] Top shape: 24 384 7 7 (451584)
I0403 04:35:05.248075 25961 net.cpp:156] Memory required for data: 1328854464
I0403 04:35:05.248090 25961 layer_factory.hpp:77] Creating layer inception_5b/3x3_reduce
I0403 04:35:05.248114 25961 net.cpp:91] Creating Layer inception_5b/3x3_reduce
I0403 04:35:05.248133 25961 net.cpp:425] inception_5b/3x3_reduce <- inception_5a/output_inception_5a/output_0_split_1
I0403 04:35:05.248157 25961 net.cpp:399] inception_5b/3x3_reduce -> inception_5b/3x3_reduce
I0403 04:35:05.249883 25961 net.cpp:141] Setting up inception_5b/3x3_reduce
I0403 04:35:05.249913 25961 net.cpp:148] Top shape: 24 192 7 7 (225792)
I0403 04:35:05.249933 25961 net.cpp:156] Memory required for data: 1329757632
I0403 04:35:05.249951 25961 layer_factory.hpp:77] Creating layer inception_5b/relu_3x3_reduce
I0403 04:35:05.249990 25961 net.cpp:91] Creating Layer inception_5b/relu_3x3_reduce
I0403 04:35:05.250010 25961 net.cpp:425] inception_5b/relu_3x3_reduce <- inception_5b/3x3_reduce
I0403 04:35:05.250028 25961 net.cpp:386] inception_5b/relu_3x3_reduce -> inception_5b/3x3_reduce (in-place)
I0403 04:35:05.250048 25961 net.cpp:141] Setting up inception_5b/relu_3x3_reduce
I0403 04:35:05.250066 25961 net.cpp:148] Top shape: 24 192 7 7 (225792)
I0403 04:35:05.250082 25961 net.cpp:156] Memory required for data: 1330660800
I0403 04:35:05.250097 25961 layer_factory.hpp:77] Creating layer inception_5b/3x3
I0403 04:35:05.250120 25961 net.cpp:91] Creating Layer inception_5b/3x3
I0403 04:35:05.250138 25961 net.cpp:425] inception_5b/3x3 <- inception_5b/3x3_reduce
I0403 04:35:05.250161 25961 net.cpp:399] inception_5b/3x3 -> inception_5b/3x3
I0403 04:35:05.255733 25961 net.cpp:141] Setting up inception_5b/3x3
I0403 04:35:05.255764 25961 net.cpp:148] Top shape: 24 384 7 7 (451584)
I0403 04:35:05.255779 25961 net.cpp:156] Memory required for data: 1332467136
I0403 04:35:05.255798 25961 layer_factory.hpp:77] Creating layer inception_5b/relu_3x3
I0403 04:35:05.255821 25961 net.cpp:91] Creating Layer inception_5b/relu_3x3
I0403 04:35:05.255839 25961 net.cpp:425] inception_5b/relu_3x3 <- inception_5b/3x3
I0403 04:35:05.255858 25961 net.cpp:386] inception_5b/relu_3x3 -> inception_5b/3x3 (in-place)
I0403 04:35:05.255879 25961 net.cpp:141] Setting up inception_5b/relu_3x3
I0403 04:35:05.255897 25961 net.cpp:148] Top shape: 24 384 7 7 (451584)
I0403 04:35:05.255913 25961 net.cpp:156] Memory required for data: 1334273472
I0403 04:35:05.255928 25961 layer_factory.hpp:77] Creating layer inception_5b/5x5_reduce
I0403 04:35:05.255952 25961 net.cpp:91] Creating Layer inception_5b/5x5_reduce
I0403 04:35:05.255976 25961 net.cpp:425] inception_5b/5x5_reduce <- inception_5a/output_inception_5a/output_0_split_2
I0403 04:35:05.255997 25961 net.cpp:399] inception_5b/5x5_reduce -> inception_5b/5x5_reduce
I0403 04:35:05.257040 25961 net.cpp:141] Setting up inception_5b/5x5_reduce
I0403 04:35:05.257071 25961 net.cpp:148] Top shape: 24 48 7 7 (56448)
I0403 04:35:05.257086 25961 net.cpp:156] Memory required for data: 1334499264
I0403 04:35:05.257105 25961 layer_factory.hpp:77] Creating layer inception_5b/relu_5x5_reduce
I0403 04:35:05.257129 25961 net.cpp:91] Creating Layer inception_5b/relu_5x5_reduce
I0403 04:35:05.257148 25961 net.cpp:425] inception_5b/relu_5x5_reduce <- inception_5b/5x5_reduce
I0403 04:35:05.257167 25961 net.cpp:386] inception_5b/relu_5x5_reduce -> inception_5b/5x5_reduce (in-place)
I0403 04:35:05.257189 25961 net.cpp:141] Setting up inception_5b/relu_5x5_reduce
I0403 04:35:05.257207 25961 net.cpp:148] Top shape: 24 48 7 7 (56448)
I0403 04:35:05.257222 25961 net.cpp:156] Memory required for data: 1334725056
I0403 04:35:05.257238 25961 layer_factory.hpp:77] Creating layer inception_5b/5x5
I0403 04:35:05.257262 25961 net.cpp:91] Creating Layer inception_5b/5x5
I0403 04:35:05.257282 25961 net.cpp:425] inception_5b/5x5 <- inception_5b/5x5_reduce
I0403 04:35:05.257302 25961 net.cpp:399] inception_5b/5x5 -> inception_5b/5x5
I0403 04:35:05.258489 25961 net.cpp:141] Setting up inception_5b/5x5
I0403 04:35:05.258517 25961 net.cpp:148] Top shape: 24 128 7 7 (150528)
I0403 04:35:05.258533 25961 net.cpp:156] Memory required for data: 1335327168
I0403 04:35:05.258551 25961 layer_factory.hpp:77] Creating layer inception_5b/relu_5x5
I0403 04:35:05.258571 25961 net.cpp:91] Creating Layer inception_5b/relu_5x5
I0403 04:35:05.258589 25961 net.cpp:425] inception_5b/relu_5x5 <- inception_5b/5x5
I0403 04:35:05.258610 25961 net.cpp:386] inception_5b/relu_5x5 -> inception_5b/5x5 (in-place)
I0403 04:35:05.258632 25961 net.cpp:141] Setting up inception_5b/relu_5x5
I0403 04:35:05.258651 25961 net.cpp:148] Top shape: 24 128 7 7 (150528)
I0403 04:35:05.258666 25961 net.cpp:156] Memory required for data: 1335929280
I0403 04:35:05.258680 25961 layer_factory.hpp:77] Creating layer inception_5b/pool
I0403 04:35:05.258698 25961 net.cpp:91] Creating Layer inception_5b/pool
I0403 04:35:05.258733 25961 net.cpp:425] inception_5b/pool <- inception_5a/output_inception_5a/output_0_split_3
I0403 04:35:05.258754 25961 net.cpp:399] inception_5b/pool -> inception_5b/pool
I0403 04:35:05.258812 25961 net.cpp:141] Setting up inception_5b/pool
I0403 04:35:05.258836 25961 net.cpp:148] Top shape: 24 832 7 7 (978432)
I0403 04:35:05.258852 25961 net.cpp:156] Memory required for data: 1339843008
I0403 04:35:05.258867 25961 layer_factory.hpp:77] Creating layer inception_5b/pool_proj
I0403 04:35:05.258891 25961 net.cpp:91] Creating Layer inception_5b/pool_proj
I0403 04:35:05.258910 25961 net.cpp:425] inception_5b/pool_proj <- inception_5b/pool
I0403 04:35:05.258934 25961 net.cpp:399] inception_5b/pool_proj -> inception_5b/pool_proj
I0403 04:35:05.260354 25961 net.cpp:141] Setting up inception_5b/pool_proj
I0403 04:35:05.260385 25961 net.cpp:148] Top shape: 24 128 7 7 (150528)
I0403 04:35:05.260401 25961 net.cpp:156] Memory required for data: 1340445120
I0403 04:35:05.260421 25961 layer_factory.hpp:77] Creating layer inception_5b/relu_pool_proj
I0403 04:35:05.260440 25961 net.cpp:91] Creating Layer inception_5b/relu_pool_proj
I0403 04:35:05.260458 25961 net.cpp:425] inception_5b/relu_pool_proj <- inception_5b/pool_proj
I0403 04:35:05.260481 25961 net.cpp:386] inception_5b/relu_pool_proj -> inception_5b/pool_proj (in-place)
I0403 04:35:05.260504 25961 net.cpp:141] Setting up inception_5b/relu_pool_proj
I0403 04:35:05.260522 25961 net.cpp:148] Top shape: 24 128 7 7 (150528)
I0403 04:35:05.260538 25961 net.cpp:156] Memory required for data: 1341047232
I0403 04:35:05.260552 25961 layer_factory.hpp:77] Creating layer inception_5b/output
I0403 04:35:05.260571 25961 net.cpp:91] Creating Layer inception_5b/output
I0403 04:35:05.260593 25961 net.cpp:425] inception_5b/output <- inception_5b/1x1
I0403 04:35:05.260610 25961 net.cpp:425] inception_5b/output <- inception_5b/3x3
I0403 04:35:05.260628 25961 net.cpp:425] inception_5b/output <- inception_5b/5x5
I0403 04:35:05.260646 25961 net.cpp:425] inception_5b/output <- inception_5b/pool_proj
I0403 04:35:05.260668 25961 net.cpp:399] inception_5b/output -> inception_5b/output
I0403 04:35:05.260710 25961 net.cpp:141] Setting up inception_5b/output
I0403 04:35:05.260733 25961 net.cpp:148] Top shape: 24 1024 7 7 (1204224)
I0403 04:35:05.260749 25961 net.cpp:156] Memory required for data: 1345864128
I0403 04:35:05.260764 25961 layer_factory.hpp:77] Creating layer pool5/7x7_s1
I0403 04:35:05.260785 25961 net.cpp:91] Creating Layer pool5/7x7_s1
I0403 04:35:05.260803 25961 net.cpp:425] pool5/7x7_s1 <- inception_5b/output
I0403 04:35:05.260823 25961 net.cpp:399] pool5/7x7_s1 -> pool5/7x7_s1
I0403 04:35:05.260865 25961 net.cpp:141] Setting up pool5/7x7_s1
I0403 04:35:05.260888 25961 net.cpp:148] Top shape: 24 1024 1 1 (24576)
I0403 04:35:05.260905 25961 net.cpp:156] Memory required for data: 1345962432
I0403 04:35:05.260920 25961 layer_factory.hpp:77] Creating layer pool5/drop_7x7_s1
I0403 04:35:05.260938 25961 net.cpp:91] Creating Layer pool5/drop_7x7_s1
I0403 04:35:05.260954 25961 net.cpp:425] pool5/drop_7x7_s1 <- pool5/7x7_s1
I0403 04:35:05.260987 25961 net.cpp:386] pool5/drop_7x7_s1 -> pool5/7x7_s1 (in-place)
I0403 04:35:05.261029 25961 net.cpp:141] Setting up pool5/drop_7x7_s1
I0403 04:35:05.261054 25961 net.cpp:148] Top shape: 24 1024 1 1 (24576)
I0403 04:35:05.261070 25961 net.cpp:156] Memory required for data: 1346060736
I0403 04:35:05.261086 25961 layer_factory.hpp:77] Creating layer loss3/classifier_plantvillage
I0403 04:35:05.261108 25961 net.cpp:91] Creating Layer loss3/classifier_plantvillage
I0403 04:35:05.261126 25961 net.cpp:425] loss3/classifier_plantvillage <- pool5/7x7_s1
I0403 04:35:05.261152 25961 net.cpp:399] loss3/classifier_plantvillage -> loss3/classifier_plantvillage
I0403 04:35:05.261502 25961 net.cpp:141] Setting up loss3/classifier_plantvillage
I0403 04:35:05.261528 25961 net.cpp:148] Top shape: 24 38 (912)
I0403 04:35:05.261544 25961 net.cpp:156] Memory required for data: 1346064384
I0403 04:35:05.261564 25961 layer_factory.hpp:77] Creating layer loss3/classifier_plantvillage_loss3/classifier_plantvillage_0_split
I0403 04:35:05.261601 25961 net.cpp:91] Creating Layer loss3/classifier_plantvillage_loss3/classifier_plantvillage_0_split
I0403 04:35:05.261620 25961 net.cpp:425] loss3/classifier_plantvillage_loss3/classifier_plantvillage_0_split <- loss3/classifier_plantvillage
I0403 04:35:05.261639 25961 net.cpp:399] loss3/classifier_plantvillage_loss3/classifier_plantvillage_0_split -> loss3/classifier_plantvillage_loss3/classifier_plantvillage_0_split_0
I0403 04:35:05.261662 25961 net.cpp:399] loss3/classifier_plantvillage_loss3/classifier_plantvillage_0_split -> loss3/classifier_plantvillage_loss3/classifier_plantvillage_0_split_1
I0403 04:35:05.261683 25961 net.cpp:399] loss3/classifier_plantvillage_loss3/classifier_plantvillage_0_split -> loss3/classifier_plantvillage_loss3/classifier_plantvillage_0_split_2
I0403 04:35:05.261749 25961 net.cpp:141] Setting up loss3/classifier_plantvillage_loss3/classifier_plantvillage_0_split
I0403 04:35:05.261773 25961 net.cpp:148] Top shape: 24 38 (912)
I0403 04:35:05.261790 25961 net.cpp:148] Top shape: 24 38 (912)
I0403 04:35:05.261806 25961 net.cpp:148] Top shape: 24 38 (912)
I0403 04:35:05.261821 25961 net.cpp:156] Memory required for data: 1346075328
I0403 04:35:05.261837 25961 layer_factory.hpp:77] Creating layer loss1/loss
I0403 04:35:05.261855 25961 net.cpp:91] Creating Layer loss1/loss
I0403 04:35:05.261872 25961 net.cpp:425] loss1/loss <- loss1/classifier_plantvillage_loss1/classifier_plantvillage_0_split_0
I0403 04:35:05.261889 25961 net.cpp:425] loss1/loss <- label_data_1_split_0
…
