…
I0403 14:43:20.073693  1853 net.cpp:313] The NetState phase (1) differed from the phase (0) specified by a rule in layer data
I0403 14:43:20.073983  1853 net.cpp:49] Initializing net from parameters: 
state {
  phase: TEST
}
layer {
  name: "data"
  type: "Data"
  top: "data"
  top: "label"
  include {
    phase: TEST
  }
  transform_param {
    crop_size: 227
    mean_file: "/home/mohanty/data/final_dataset/lmdb/color-60-40/mean.binaryproto"
  }
  data_param {
    source: "/home/mohanty/data/final_dataset/lmdb/color-60-40/test_db"
    batch_size: 100
    backend: LMDB
  }
}
layer {
  name: "conv1"
  type: "Convolution"
  bottom: "data"
  top: "conv1"
  param {
    lr_mult: 1
    decay_mult: 1
  }
  param {
    lr_mult: 2
    decay_mult: 0
  }
  convolution_param {
    num_output: 96
    kernel_size: 11
    stride: 4
    weight_filler {
      type: "gaussian"
      std: 0.01
    }
    bias_filler {
      type: "constant"
      value: 0
    }
  }
}
layer {
  name: "relu1"
  type: "ReLU"
  bottom: "conv1"
  top: "conv1"
}
layer {
  name: "norm1"
  type: "LRN"
  bottom: "conv1"
  top: "norm1"
  lrn_param {
    local_size: 5
    alpha: 0.0001
    beta: 0.75
  }
}
layer {
  name: "pool1"
  type: "Pooling"
  bottom: "norm1"
  top: "pool1"
  pooling_param {
    pool: MAX
    kernel_size: 3
    stride: 2
  }
}
layer {
  name: "conv2"
  type: "Convolution"
  bottom: "pool1"
  top: "conv2"
  param {
    lr_mult: 1
    decay_mult: 1
  }
  param {
    lr_mult: 2
    decay_mult: 0
  }
  convolution_param {
    num_output: 256
    pad: 2
    kernel_size: 5
    group: 2
    weight_filler {
      type: "gaussian"
      std: 0.01
    }
    bias_filler {
      type: "constant"
      value: 0.1
    }
  }
}
layer {
  name: "relu2"
  type: "ReLU"
  bottom: "conv2"
  top: "conv2"
}
layer {
  name: "norm2"
  type: "LRN"
  bottom: "conv2"
  top: "norm2"
  lrn_param {
    local_size: 5
    alpha: 0.0001
    beta: 0.75
  }
}
layer {
  name: "pool2"
  type: "Pooling"
  bottom: "norm2"
  top: "pool2"
  pooling_param {
    pool: MAX
    kernel_size: 3
    stride: 2
  }
}
layer {
  name: "conv3"
  type: "Convolution"
  bottom: "pool2"
  top: "conv3"
  param {
    lr_mult: 1
    decay_mult: 1
  }
  param {
    lr_mult: 2
    decay_mult: 0
  }
  convolution_param {
    num_output: 384
    pad: 1
    kernel_size: 3
    weight_filler {
      type: "gaussian"
      std: 0.01
    }
    bias_filler {
      type: "constant"
      value: 0
    }
  }
}
layer {
  name: "relu3"
  type: "ReLU"
  bottom: "conv3"
  top: "conv3"
}
layer {
  name: "conv4"
  type: "Convolution"
  bottom: "conv3"
  top: "conv4"
  param {
    lr_mult: 1
    decay_mult: 1
  }
  param {
    lr_mult: 2
    decay_mult: 0
  }
  convolution_param {
    num_output: 384
    pad: 1
    kernel_size: 3
    group: 2
    weight_filler {
      type: "gaussian"
      std: 0.01
    }
    bias_filler {
      type: "constant"
      value: 0.1
    }
  }
}
layer {
  name: "relu4"
  type: "ReLU"
  bottom: "conv4"
  top: "conv4"
}
layer {
  name: "conv5"
  type: "Convolution"
  bottom: "conv4"
  top: "conv5"
  param {
    lr_mult: 1
    decay_mult: 1
  }
  param {
    lr_mult: 2
    decay_mult: 0
  }
  convolution_param {
    num_output: 256
    pad: 1
    kernel_size: 3
    group: 2
    weight_filler {
      type: "gaussian"
      std: 0.01
    }
    bias_filler {
      type: "constant"
      value: 0.1
    }
  }
}
layer {
  name: "relu5"
  type: "ReLU"
  bottom: "conv5"
  top: "conv5"
}
layer {
  name: "pool5"
  type: "Pooling"
  bottom: "conv5"
  top: "pool5"
  pooling_param {
    pool: MAX
    kernel_size: 3
    stride: 2
  }
}
layer {
  name: "fc6"
  type: "InnerProduct"
  bottom: "pool5"
  top: "fc6"
  param {
    lr_mult: 1
    decay_mult: 1
  }
  param {
    lr_mult: 2
    decay_mult: 0
  }
  inner_product_param {
    num_output: 4096
    weight_filler {
      type: "gaussian"
      std: 0.005
    }
    bias_filler {
      type: "constant"
      value: 0.1
    }
  }
}
layer {
  name: "relu6"
  type: "ReLU"
  bottom: "fc6"
  top: "fc6"
}
layer {
  name: "drop6"
  type: "Dropout"
  bottom: "fc6"
  top: "fc6"
  dropout_param {
    dropout_ratio: 0.5
  }
}
layer {
  name: "fc7"
  type: "InnerProduct"
  bottom: "fc6"
  top: "fc7"
  param {
    lr_mult: 1
    decay_mult: 1
  }
  param {
    lr_mult: 2
    decay_mult: 0
  }
  inner_product_param {
    num_output: 4096
    weight_filler {
      type: "gaussian"
      std: 0.005
    }
    bias_filler {
      type: "constant"
      value: 0.1
    }
  }
}
layer {
  name: "relu7"
  type: "ReLU"
  bottom: "fc7"
  top: "fc7"
}
layer {
  name: "drop7"
  type: "Dropout"
  bottom: "fc7"
  top: "fc7"
  dropout_param {
    dropout_ratio: 0.5
  }
}
layer {
  name: "fc8_plantvillage"
  type: "InnerProduct"
  bottom: "fc7"
  top: "fc8_plantvillage"
  param {
    lr_mult: 1
    decay_mult: 1
  }
  param {
    lr_mult: 2
    decay_mult: 0
  }
  inner_product_param {
    num_output: 38
    weight_filler {
      type: "gaussian"
      std: 0.01
    }
    bias_filler {
      type: "constant"
      value: 0
    }
  }
}
layer {
  name: "prob"
  type: "Softmax"
  bottom: "fc8_plantvillage"
  top: "prob"
  include {
    phase: TEST
  }
}
layer {
  name: "hdf5out"
  type: "HDF5Output"
  bottom: "prob"
  bottom: "label"
  include {
    phase: TEST
  }
  hdf5_output_param {
    file_name: "hdf5_dumps/iter_4225.h5"
  }
}
layer {
  name: "loss"
  type: "SoftmaxWithLoss"
  bottom: "fc8_plantvillage"
  bottom: "label"
  top: "loss"
}
layer {
  name: "accuracy"
  type: "Accuracy"
  bottom: "fc8_plantvillage"
  bottom: "label"
  top: "accuracy"
  include {
    phase: TEST
  }
}
I0403 14:43:20.074671  1853 layer_factory.hpp:77] Creating layer data
I0403 14:43:20.075289  1853 net.cpp:91] Creating Layer data
I0403 14:43:20.075320  1853 net.cpp:399] data -> data
I0403 14:43:20.075369  1853 net.cpp:399] data -> label
I0403 14:43:20.075403  1853 data_transformer.cpp:25] Loading mean file from: /home/mohanty/data/final_dataset/lmdb/color-60-40/mean.binaryproto
I0403 14:43:20.078428  1857 db_lmdb.cpp:38] Opened lmdb /home/mohanty/data/final_dataset/lmdb/color-60-40/test_db
I0403 14:43:20.089576  1853 data_layer.cpp:41] output data size: 100,3,227,227
I0403 14:43:20.208112  1853 net.cpp:141] Setting up data
I0403 14:43:20.208216  1853 net.cpp:148] Top shape: 100 3 227 227 (15458700)
I0403 14:43:20.208243  1853 net.cpp:148] Top shape: 100 (100)
I0403 14:43:20.208261  1853 net.cpp:156] Memory required for data: 61835200
I0403 14:43:20.208287  1853 layer_factory.hpp:77] Creating layer label_data_1_split
I0403 14:43:20.208312  1853 net.cpp:91] Creating Layer label_data_1_split
I0403 14:43:20.208331  1853 net.cpp:425] label_data_1_split <- label
I0403 14:43:20.208364  1853 net.cpp:399] label_data_1_split -> label_data_1_split_0
I0403 14:43:20.208390  1853 net.cpp:399] label_data_1_split -> label_data_1_split_1
I0403 14:43:20.208411  1853 net.cpp:399] label_data_1_split -> label_data_1_split_2
I0403 14:43:20.208474  1853 net.cpp:141] Setting up label_data_1_split
I0403 14:43:20.208498  1853 net.cpp:148] Top shape: 100 (100)
I0403 14:43:20.208515  1853 net.cpp:148] Top shape: 100 (100)
I0403 14:43:20.208533  1853 net.cpp:148] Top shape: 100 (100)
I0403 14:43:20.208546  1853 net.cpp:156] Memory required for data: 61836400
I0403 14:43:20.208561  1853 layer_factory.hpp:77] Creating layer conv1
I0403 14:43:20.208593  1853 net.cpp:91] Creating Layer conv1
I0403 14:43:20.208611  1853 net.cpp:425] conv1 <- data
I0403 14:43:20.208631  1853 net.cpp:399] conv1 -> conv1
I0403 14:43:20.350412  1853 net.cpp:141] Setting up conv1
I0403 14:43:20.350493  1853 net.cpp:148] Top shape: 100 96 55 55 (29040000)
I0403 14:43:20.350509  1853 net.cpp:156] Memory required for data: 177996400
I0403 14:43:20.350543  1853 layer_factory.hpp:77] Creating layer relu1
I0403 14:43:20.350569  1853 net.cpp:91] Creating Layer relu1
I0403 14:43:20.350589  1853 net.cpp:425] relu1 <- conv1
I0403 14:43:20.350607  1853 net.cpp:386] relu1 -> conv1 (in-place)
I0403 14:43:20.350860  1853 net.cpp:141] Setting up relu1
I0403 14:43:20.350886  1853 net.cpp:148] Top shape: 100 96 55 55 (29040000)
I0403 14:43:20.350903  1853 net.cpp:156] Memory required for data: 294156400
I0403 14:43:20.350950  1853 layer_factory.hpp:77] Creating layer norm1
I0403 14:43:20.350977  1853 net.cpp:91] Creating Layer norm1
I0403 14:43:20.350996  1853 net.cpp:425] norm1 <- conv1
I0403 14:43:20.351013  1853 net.cpp:399] norm1 -> norm1
I0403 14:43:20.351332  1853 net.cpp:141] Setting up norm1
I0403 14:43:20.351361  1853 net.cpp:148] Top shape: 100 96 55 55 (29040000)
I0403 14:43:20.351375  1853 net.cpp:156] Memory required for data: 410316400
I0403 14:43:20.351392  1853 layer_factory.hpp:77] Creating layer pool1
I0403 14:43:20.351414  1853 net.cpp:91] Creating Layer pool1
I0403 14:43:20.351430  1853 net.cpp:425] pool1 <- norm1
I0403 14:43:20.351449  1853 net.cpp:399] pool1 -> pool1
I0403 14:43:20.351514  1853 net.cpp:141] Setting up pool1
I0403 14:43:20.351537  1853 net.cpp:148] Top shape: 100 96 27 27 (6998400)
I0403 14:43:20.351552  1853 net.cpp:156] Memory required for data: 438310000
I0403 14:43:20.351567  1853 layer_factory.hpp:77] Creating layer conv2
I0403 14:43:20.351593  1853 net.cpp:91] Creating Layer conv2
I0403 14:43:20.351611  1853 net.cpp:425] conv2 <- pool1
I0403 14:43:20.351630  1853 net.cpp:399] conv2 -> conv2
I0403 14:43:20.366269  1853 net.cpp:141] Setting up conv2
I0403 14:43:20.366312  1853 net.cpp:148] Top shape: 100 256 27 27 (18662400)
I0403 14:43:20.366330  1853 net.cpp:156] Memory required for data: 512959600
I0403 14:43:20.366353  1853 layer_factory.hpp:77] Creating layer relu2
I0403 14:43:20.366372  1853 net.cpp:91] Creating Layer relu2
I0403 14:43:20.366389  1853 net.cpp:425] relu2 <- conv2
I0403 14:43:20.366406  1853 net.cpp:386] relu2 -> conv2 (in-place)
I0403 14:43:20.366701  1853 net.cpp:141] Setting up relu2
I0403 14:43:20.366729  1853 net.cpp:148] Top shape: 100 256 27 27 (18662400)
I0403 14:43:20.366744  1853 net.cpp:156] Memory required for data: 587609200
I0403 14:43:20.366760  1853 layer_factory.hpp:77] Creating layer norm2
I0403 14:43:20.366782  1853 net.cpp:91] Creating Layer norm2
I0403 14:43:20.366799  1853 net.cpp:425] norm2 <- conv2
I0403 14:43:20.366818  1853 net.cpp:399] norm2 -> norm2
I0403 14:43:20.367022  1853 net.cpp:141] Setting up norm2
I0403 14:43:20.367049  1853 net.cpp:148] Top shape: 100 256 27 27 (18662400)
I0403 14:43:20.367065  1853 net.cpp:156] Memory required for data: 662258800
I0403 14:43:20.367080  1853 layer_factory.hpp:77] Creating layer pool2
I0403 14:43:20.367099  1853 net.cpp:91] Creating Layer pool2
I0403 14:43:20.367115  1853 net.cpp:425] pool2 <- norm2
I0403 14:43:20.367136  1853 net.cpp:399] pool2 -> pool2
I0403 14:43:20.367188  1853 net.cpp:141] Setting up pool2
I0403 14:43:20.367211  1853 net.cpp:148] Top shape: 100 256 13 13 (4326400)
I0403 14:43:20.367226  1853 net.cpp:156] Memory required for data: 679564400
I0403 14:43:20.367245  1853 layer_factory.hpp:77] Creating layer conv3
I0403 14:43:20.367271  1853 net.cpp:91] Creating Layer conv3
I0403 14:43:20.367288  1853 net.cpp:425] conv3 <- pool2
I0403 14:43:20.367311  1853 net.cpp:399] conv3 -> conv3
I0403 14:43:20.411840  1853 net.cpp:141] Setting up conv3
I0403 14:43:20.411888  1853 net.cpp:148] Top shape: 100 384 13 13 (6489600)
I0403 14:43:20.411906  1853 net.cpp:156] Memory required for data: 705522800
I0403 14:43:20.411932  1853 layer_factory.hpp:77] Creating layer relu3
I0403 14:43:20.411954  1853 net.cpp:91] Creating Layer relu3
I0403 14:43:20.411972  1853 net.cpp:425] relu3 <- conv3
I0403 14:43:20.411993  1853 net.cpp:386] relu3 -> conv3 (in-place)
I0403 14:43:20.412295  1853 net.cpp:141] Setting up relu3
I0403 14:43:20.412327  1853 net.cpp:148] Top shape: 100 384 13 13 (6489600)
I0403 14:43:20.412343  1853 net.cpp:156] Memory required for data: 731481200
I0403 14:43:20.412359  1853 layer_factory.hpp:77] Creating layer conv4
I0403 14:43:20.412385  1853 net.cpp:91] Creating Layer conv4
I0403 14:43:20.412402  1853 net.cpp:425] conv4 <- conv3
I0403 14:43:20.412421  1853 net.cpp:399] conv4 -> conv4
I0403 14:43:20.441905  1853 net.cpp:141] Setting up conv4
I0403 14:43:20.441958  1853 net.cpp:148] Top shape: 100 384 13 13 (6489600)
I0403 14:43:20.441995  1853 net.cpp:156] Memory required for data: 757439600
I0403 14:43:20.442016  1853 layer_factory.hpp:77] Creating layer relu4
I0403 14:43:20.442041  1853 net.cpp:91] Creating Layer relu4
I0403 14:43:20.442060  1853 net.cpp:425] relu4 <- conv4
I0403 14:43:20.442078  1853 net.cpp:386] relu4 -> conv4 (in-place)
I0403 14:43:20.442369  1853 net.cpp:141] Setting up relu4
I0403 14:43:20.442396  1853 net.cpp:148] Top shape: 100 384 13 13 (6489600)
I0403 14:43:20.442411  1853 net.cpp:156] Memory required for data: 783398000
I0403 14:43:20.442426  1853 layer_factory.hpp:77] Creating layer conv5
I0403 14:43:20.442454  1853 net.cpp:91] Creating Layer conv5
I0403 14:43:20.442472  1853 net.cpp:425] conv5 <- conv4
I0403 14:43:20.442490  1853 net.cpp:399] conv5 -> conv5
I0403 14:43:20.462718  1853 net.cpp:141] Setting up conv5
I0403 14:43:20.462764  1853 net.cpp:148] Top shape: 100 256 13 13 (4326400)
I0403 14:43:20.462781  1853 net.cpp:156] Memory required for data: 800703600
I0403 14:43:20.462805  1853 layer_factory.hpp:77] Creating layer relu5
I0403 14:43:20.462826  1853 net.cpp:91] Creating Layer relu5
I0403 14:43:20.462842  1853 net.cpp:425] relu5 <- conv5
I0403 14:43:20.462864  1853 net.cpp:386] relu5 -> conv5 (in-place)
I0403 14:43:20.463153  1853 net.cpp:141] Setting up relu5
I0403 14:43:20.463182  1853 net.cpp:148] Top shape: 100 256 13 13 (4326400)
I0403 14:43:20.463199  1853 net.cpp:156] Memory required for data: 818009200
I0403 14:43:20.463215  1853 layer_factory.hpp:77] Creating layer pool5
I0403 14:43:20.463238  1853 net.cpp:91] Creating Layer pool5
I0403 14:43:20.463261  1853 net.cpp:425] pool5 <- conv5
I0403 14:43:20.463284  1853 net.cpp:399] pool5 -> pool5
I0403 14:43:20.463346  1853 net.cpp:141] Setting up pool5
I0403 14:43:20.463369  1853 net.cpp:148] Top shape: 100 256 6 6 (921600)
I0403 14:43:20.463384  1853 net.cpp:156] Memory required for data: 821695600
I0403 14:43:20.463399  1853 layer_factory.hpp:77] Creating layer fc6
I0403 14:43:20.463428  1853 net.cpp:91] Creating Layer fc6
I0403 14:43:20.463448  1853 net.cpp:425] fc6 <- pool5
I0403 14:43:20.463469  1853 net.cpp:399] fc6 -> fc6
I0403 14:43:22.009905  1853 net.cpp:141] Setting up fc6
I0403 14:43:22.009949  1853 net.cpp:148] Top shape: 100 4096 (409600)
I0403 14:43:22.009966  1853 net.cpp:156] Memory required for data: 823334000
I0403 14:43:22.009989  1853 layer_factory.hpp:77] Creating layer relu6
I0403 14:43:22.010013  1853 net.cpp:91] Creating Layer relu6
I0403 14:43:22.010032  1853 net.cpp:425] relu6 <- fc6
I0403 14:43:22.010051  1853 net.cpp:386] relu6 -> fc6 (in-place)
I0403 14:43:22.010275  1853 net.cpp:141] Setting up relu6
I0403 14:43:22.010303  1853 net.cpp:148] Top shape: 100 4096 (409600)
I0403 14:43:22.010318  1853 net.cpp:156] Memory required for data: 824972400
I0403 14:43:22.010332  1853 layer_factory.hpp:77] Creating layer drop6
I0403 14:43:22.010351  1853 net.cpp:91] Creating Layer drop6
I0403 14:43:22.010366  1853 net.cpp:425] drop6 <- fc6
I0403 14:43:22.010383  1853 net.cpp:386] drop6 -> fc6 (in-place)
I0403 14:43:22.010437  1853 net.cpp:141] Setting up drop6
I0403 14:43:22.010460  1853 net.cpp:148] Top shape: 100 4096 (409600)
I0403 14:43:22.010474  1853 net.cpp:156] Memory required for data: 826610800
I0403 14:43:22.010489  1853 layer_factory.hpp:77] Creating layer fc7
I0403 14:43:22.010512  1853 net.cpp:91] Creating Layer fc7
I0403 14:43:22.010529  1853 net.cpp:425] fc7 <- fc6
I0403 14:43:22.010546  1853 net.cpp:399] fc7 -> fc7
I0403 14:43:22.689481  1853 net.cpp:141] Setting up fc7
I0403 14:43:22.689563  1853 net.cpp:148] Top shape: 100 4096 (409600)
I0403 14:43:22.689579  1853 net.cpp:156] Memory required for data: 828249200
I0403 14:43:22.689600  1853 layer_factory.hpp:77] Creating layer relu7
I0403 14:43:22.689625  1853 net.cpp:91] Creating Layer relu7
I0403 14:43:22.689643  1853 net.cpp:425] relu7 <- fc7
I0403 14:43:22.689668  1853 net.cpp:386] relu7 -> fc7 (in-place)
I0403 14:43:22.690080  1853 net.cpp:141] Setting up relu7
I0403 14:43:22.690109  1853 net.cpp:148] Top shape: 100 4096 (409600)
I0403 14:43:22.690160  1853 net.cpp:156] Memory required for data: 829887600
I0403 14:43:22.690176  1853 layer_factory.hpp:77] Creating layer drop7
I0403 14:43:22.690194  1853 net.cpp:91] Creating Layer drop7
I0403 14:43:22.690209  1853 net.cpp:425] drop7 <- fc7
I0403 14:43:22.690229  1853 net.cpp:386] drop7 -> fc7 (in-place)
I0403 14:43:22.690279  1853 net.cpp:141] Setting up drop7
I0403 14:43:22.690301  1853 net.cpp:148] Top shape: 100 4096 (409600)
I0403 14:43:22.690315  1853 net.cpp:156] Memory required for data: 831526000
I0403 14:43:22.690330  1853 layer_factory.hpp:77] Creating layer fc8_plantvillage
I0403 14:43:22.690351  1853 net.cpp:91] Creating Layer fc8_plantvillage
I0403 14:43:22.690368  1853 net.cpp:425] fc8_plantvillage <- fc7
I0403 14:43:22.690390  1853 net.cpp:399] fc8_plantvillage -> fc8_plantvillage
I0403 14:43:22.697096  1853 net.cpp:141] Setting up fc8_plantvillage
I0403 14:43:22.697124  1853 net.cpp:148] Top shape: 100 38 (3800)
I0403 14:43:22.697140  1853 net.cpp:156] Memory required for data: 831541200
I0403 14:43:22.697159  1853 layer_factory.hpp:77] Creating layer fc8_plantvillage_fc8_plantvillage_0_split
I0403 14:43:22.697177  1853 net.cpp:91] Creating Layer fc8_plantvillage_fc8_plantvillage_0_split
I0403 14:43:22.697193  1853 net.cpp:425] fc8_plantvillage_fc8_plantvillage_0_split <- fc8_plantvillage
I0403 14:43:22.697213  1853 net.cpp:399] fc8_plantvillage_fc8_plantvillage_0_split -> fc8_plantvillage_fc8_plantvillage_0_split_0
I0403 14:43:22.697234  1853 net.cpp:399] fc8_plantvillage_fc8_plantvillage_0_split -> fc8_plantvillage_fc8_plantvillage_0_split_1
I0403 14:43:22.697266  1853 net.cpp:399] fc8_plantvillage_fc8_plantvillage_0_split -> fc8_plantvillage_fc8_plantvillage_0_split_2
I0403 14:43:22.697345  1853 net.cpp:141] Setting up fc8_plantvillage_fc8_plantvillage_0_split
I0403 14:43:22.697367  1853 net.cpp:148] Top shape: 100 38 (3800)
I0403 14:43:22.697383  1853 net.cpp:148] Top shape: 100 38 (3800)
I0403 14:43:22.697399  1853 net.cpp:148] Top shape: 100 38 (3800)
I0403 14:43:22.697413  1853 net.cpp:156] Memory required for data: 831586800
I0403 14:43:22.697428  1853 layer_factory.hpp:77] Creating layer prob
I0403 14:43:22.697448  1853 net.cpp:91] Creating Layer prob
I0403 14:43:22.697463  1853 net.cpp:425] prob <- fc8_plantvillage_fc8_plantvillage_0_split_0
I0403 14:43:22.697480  1853 net.cpp:399] prob -> prob
I0403 14:43:22.697710  1853 net.cpp:141] Setting up prob
I0403 14:43:22.697739  1853 net.cpp:148] Top shape: 100 38 (3800)
I0403 14:43:22.697756  1853 net.cpp:156] Memory required for data: 831602000
I0403 14:43:22.697770  1853 layer_factory.hpp:77] Creating layer hdf5out
I0403 14:43:22.697789  1853 net.cpp:91] Creating Layer hdf5out
I0403 14:43:22.697804  1853 net.cpp:425] hdf5out <- prob
I0403 14:43:22.697821  1853 net.cpp:425] hdf5out <- label_data_1_split_0
I0403 14:43:22.700130  1853 net.cpp:141] Setting up hdf5out
…
