…
I0403 14:39:32.033680  1716 net.cpp:313] The NetState phase (1) differed from the phase (0) specified by a rule in layer data
I0403 14:39:32.033995  1716 net.cpp:49] Initializing net from parameters: 
state {
  phase: TEST
}
layer {
  name: "data"
  type: "Data"
  top: "data"
  top: "label"
  include {
    phase: TEST
  }
  transform_param {
    crop_size: 227
    mean_file: "/home/mohanty/data/final_dataset/lmdb/color-60-40/mean.binaryproto"
  }
  data_param {
    source: "/home/mohanty/data/final_dataset/lmdb/color-60-40/test_db"
    batch_size: 100
    backend: LMDB
  }
}
layer {
  name: "conv1"
  type: "Convolution"
  bottom: "data"
  top: "conv1"
  param {
    lr_mult: 1
    decay_mult: 1
  }
  param {
    lr_mult: 2
    decay_mult: 0
  }
  convolution_param {
    num_output: 96
    kernel_size: 11
    stride: 4
    weight_filler {
      type: "gaussian"
      std: 0.01
    }
    bias_filler {
      type: "constant"
      value: 0
    }
  }
}
layer {
  name: "relu1"
  type: "ReLU"
  bottom: "conv1"
  top: "conv1"
}
layer {
  name: "norm1"
  type: "LRN"
  bottom: "conv1"
  top: "norm1"
  lrn_param {
    local_size: 5
    alpha: 0.0001
    beta: 0.75
  }
}
layer {
  name: "pool1"
  type: "Pooling"
  bottom: "norm1"
  top: "pool1"
  pooling_param {
    pool: MAX
    kernel_size: 3
    stride: 2
  }
}
layer {
  name: "conv2"
  type: "Convolution"
  bottom: "pool1"
  top: "conv2"
  param {
    lr_mult: 1
    decay_mult: 1
  }
  param {
    lr_mult: 2
    decay_mult: 0
  }
  convolution_param {
    num_output: 256
    pad: 2
    kernel_size: 5
    group: 2
    weight_filler {
      type: "gaussian"
      std: 0.01
    }
    bias_filler {
      type: "constant"
      value: 0.1
    }
  }
}
layer {
  name: "relu2"
  type: "ReLU"
  bottom: "conv2"
  top: "conv2"
}
layer {
  name: "norm2"
  type: "LRN"
  bottom: "conv2"
  top: "norm2"
  lrn_param {
    local_size: 5
    alpha: 0.0001
    beta: 0.75
  }
}
layer {
  name: "pool2"
  type: "Pooling"
  bottom: "norm2"
  top: "pool2"
  pooling_param {
    pool: MAX
    kernel_size: 3
    stride: 2
  }
}
layer {
  name: "conv3"
  type: "Convolution"
  bottom: "pool2"
  top: "conv3"
  param {
    lr_mult: 1
    decay_mult: 1
  }
  param {
    lr_mult: 2
    decay_mult: 0
  }
  convolution_param {
    num_output: 384
    pad: 1
    kernel_size: 3
    weight_filler {
      type: "gaussian"
      std: 0.01
    }
    bias_filler {
      type: "constant"
      value: 0
    }
  }
}
layer {
  name: "relu3"
  type: "ReLU"
  bottom: "conv3"
  top: "conv3"
}
layer {
  name: "conv4"
  type: "Convolution"
  bottom: "conv3"
  top: "conv4"
  param {
    lr_mult: 1
    decay_mult: 1
  }
  param {
    lr_mult: 2
    decay_mult: 0
  }
  convolution_param {
    num_output: 384
    pad: 1
    kernel_size: 3
    group: 2
    weight_filler {
      type: "gaussian"
      std: 0.01
    }
    bias_filler {
      type: "constant"
      value: 0.1
    }
  }
}
layer {
  name: "relu4"
  type: "ReLU"
  bottom: "conv4"
  top: "conv4"
}
layer {
  name: "conv5"
  type: "Convolution"
  bottom: "conv4"
  top: "conv5"
  param {
    lr_mult: 1
    decay_mult: 1
  }
  param {
    lr_mult: 2
    decay_mult: 0
  }
  convolution_param {
    num_output: 256
    pad: 1
    kernel_size: 3
    group: 2
    weight_filler {
      type: "gaussian"
      std: 0.01
    }
    bias_filler {
      type: "constant"
      value: 0.1
    }
  }
}
layer {
  name: "relu5"
  type: "ReLU"
  bottom: "conv5"
  top: "conv5"
}
layer {
  name: "pool5"
  type: "Pooling"
  bottom: "conv5"
  top: "pool5"
  pooling_param {
    pool: MAX
    kernel_size: 3
    stride: 2
  }
}
layer {
  name: "fc6"
  type: "InnerProduct"
  bottom: "pool5"
  top: "fc6"
  param {
    lr_mult: 1
    decay_mult: 1
  }
  param {
    lr_mult: 2
    decay_mult: 0
  }
  inner_product_param {
    num_output: 4096
    weight_filler {
      type: "gaussian"
      std: 0.005
    }
    bias_filler {
      type: "constant"
      value: 0.1
    }
  }
}
layer {
  name: "relu6"
  type: "ReLU"
  bottom: "fc6"
  top: "fc6"
}
layer {
  name: "drop6"
  type: "Dropout"
  bottom: "fc6"
  top: "fc6"
  dropout_param {
    dropout_ratio: 0.5
  }
}
layer {
  name: "fc7"
  type: "InnerProduct"
  bottom: "fc6"
  top: "fc7"
  param {
    lr_mult: 1
    decay_mult: 1
  }
  param {
    lr_mult: 2
    decay_mult: 0
  }
  inner_product_param {
    num_output: 4096
    weight_filler {
      type: "gaussian"
      std: 0.005
    }
    bias_filler {
      type: "constant"
      value: 0.1
    }
  }
}
layer {
  name: "relu7"
  type: "ReLU"
  bottom: "fc7"
  top: "fc7"
}
layer {
  name: "drop7"
  type: "Dropout"
  bottom: "fc7"
  top: "fc7"
  dropout_param {
    dropout_ratio: 0.5
  }
}
layer {
  name: "fc8_plantvillage"
  type: "InnerProduct"
  bottom: "fc7"
  top: "fc8_plantvillage"
  param {
    lr_mult: 1
    decay_mult: 1
  }
  param {
    lr_mult: 2
    decay_mult: 0
  }
  inner_product_param {
    num_output: 38
    weight_filler {
      type: "gaussian"
      std: 0.01
    }
    bias_filler {
      type: "constant"
      value: 0
    }
  }
}
layer {
  name: "prob"
  type: "Softmax"
  bottom: "fc8_plantvillage"
  top: "prob"
  include {
    phase: TEST
  }
}
layer {
  name: "hdf5out"
  type: "HDF5Output"
  bottom: "prob"
  bottom: "label"
  include {
    phase: TEST
  }
  hdf5_output_param {
    file_name: "hdf5_dumps/iter_2600.h5"
  }
}
layer {
  name: "loss"
  type: "SoftmaxWithLoss"
  bottom: "fc8_plantvillage"
  bottom: "label"
  top: "loss"
}
layer {
  name: "accuracy"
  type: "Accuracy"
  bottom: "fc8_plantvillage"
  bottom: "label"
  top: "accuracy"
  include {
    phase: TEST
  }
}
I0403 14:39:32.034613  1716 layer_factory.hpp:77] Creating layer data
I0403 14:39:32.035274  1716 net.cpp:91] Creating Layer data
I0403 14:39:32.035308  1716 net.cpp:399] data -> data
I0403 14:39:32.035361  1716 net.cpp:399] data -> label
I0403 14:39:32.035398  1716 data_transformer.cpp:25] Loading mean file from: /home/mohanty/data/final_dataset/lmdb/color-60-40/mean.binaryproto
I0403 14:39:32.038087  1720 db_lmdb.cpp:38] Opened lmdb /home/mohanty/data/final_dataset/lmdb/color-60-40/test_db
I0403 14:39:32.050163  1716 data_layer.cpp:41] output data size: 100,3,227,227
I0403 14:39:32.172019  1716 net.cpp:141] Setting up data
I0403 14:39:32.172124  1716 net.cpp:148] Top shape: 100 3 227 227 (15458700)
I0403 14:39:32.172150  1716 net.cpp:148] Top shape: 100 (100)
I0403 14:39:32.172168  1716 net.cpp:156] Memory required for data: 61835200
I0403 14:39:32.172197  1716 layer_factory.hpp:77] Creating layer label_data_1_split
I0403 14:39:32.172224  1716 net.cpp:91] Creating Layer label_data_1_split
I0403 14:39:32.172243  1716 net.cpp:425] label_data_1_split <- label
I0403 14:39:32.172291  1716 net.cpp:399] label_data_1_split -> label_data_1_split_0
I0403 14:39:32.172322  1716 net.cpp:399] label_data_1_split -> label_data_1_split_1
I0403 14:39:32.172345  1716 net.cpp:399] label_data_1_split -> label_data_1_split_2
I0403 14:39:32.172413  1716 net.cpp:141] Setting up label_data_1_split
I0403 14:39:32.172440  1716 net.cpp:148] Top shape: 100 (100)
I0403 14:39:32.172459  1716 net.cpp:148] Top shape: 100 (100)
I0403 14:39:32.172477  1716 net.cpp:148] Top shape: 100 (100)
I0403 14:39:32.172492  1716 net.cpp:156] Memory required for data: 61836400
I0403 14:39:32.172508  1716 layer_factory.hpp:77] Creating layer conv1
I0403 14:39:32.172543  1716 net.cpp:91] Creating Layer conv1
I0403 14:39:32.172564  1716 net.cpp:425] conv1 <- data
I0403 14:39:32.172585  1716 net.cpp:399] conv1 -> conv1
I0403 14:39:32.318931  1716 net.cpp:141] Setting up conv1
I0403 14:39:32.318997  1716 net.cpp:148] Top shape: 100 96 55 55 (29040000)
I0403 14:39:32.319015  1716 net.cpp:156] Memory required for data: 177996400
I0403 14:39:32.319046  1716 layer_factory.hpp:77] Creating layer relu1
I0403 14:39:32.319074  1716 net.cpp:91] Creating Layer relu1
I0403 14:39:32.319093  1716 net.cpp:425] relu1 <- conv1
I0403 14:39:32.319116  1716 net.cpp:386] relu1 -> conv1 (in-place)
I0403 14:39:32.319424  1716 net.cpp:141] Setting up relu1
I0403 14:39:32.319453  1716 net.cpp:148] Top shape: 100 96 55 55 (29040000)
I0403 14:39:32.319470  1716 net.cpp:156] Memory required for data: 294156400
I0403 14:39:32.319517  1716 layer_factory.hpp:77] Creating layer norm1
I0403 14:39:32.319548  1716 net.cpp:91] Creating Layer norm1
I0403 14:39:32.319567  1716 net.cpp:425] norm1 <- conv1
I0403 14:39:32.319586  1716 net.cpp:399] norm1 -> norm1
I0403 14:39:32.319921  1716 net.cpp:141] Setting up norm1
I0403 14:39:32.319950  1716 net.cpp:148] Top shape: 100 96 55 55 (29040000)
I0403 14:39:32.319967  1716 net.cpp:156] Memory required for data: 410316400
I0403 14:39:32.319983  1716 layer_factory.hpp:77] Creating layer pool1
I0403 14:39:32.320008  1716 net.cpp:91] Creating Layer pool1
I0403 14:39:32.320026  1716 net.cpp:425] pool1 <- norm1
I0403 14:39:32.320049  1716 net.cpp:399] pool1 -> pool1
I0403 14:39:32.320117  1716 net.cpp:141] Setting up pool1
I0403 14:39:32.320143  1716 net.cpp:148] Top shape: 100 96 27 27 (6998400)
I0403 14:39:32.320159  1716 net.cpp:156] Memory required for data: 438310000
I0403 14:39:32.320175  1716 layer_factory.hpp:77] Creating layer conv2
I0403 14:39:32.320201  1716 net.cpp:91] Creating Layer conv2
I0403 14:39:32.320221  1716 net.cpp:425] conv2 <- pool1
I0403 14:39:32.320242  1716 net.cpp:399] conv2 -> conv2
I0403 14:39:32.336460  1716 net.cpp:141] Setting up conv2
I0403 14:39:32.336499  1716 net.cpp:148] Top shape: 100 256 27 27 (18662400)
I0403 14:39:32.336519  1716 net.cpp:156] Memory required for data: 512959600
I0403 14:39:32.336544  1716 layer_factory.hpp:77] Creating layer relu2
I0403 14:39:32.336565  1716 net.cpp:91] Creating Layer relu2
I0403 14:39:32.336582  1716 net.cpp:425] relu2 <- conv2
I0403 14:39:32.336601  1716 net.cpp:386] relu2 -> conv2 (in-place)
I0403 14:39:32.336895  1716 net.cpp:141] Setting up relu2
I0403 14:39:32.336926  1716 net.cpp:148] Top shape: 100 256 27 27 (18662400)
I0403 14:39:32.336944  1716 net.cpp:156] Memory required for data: 587609200
I0403 14:39:32.336961  1716 layer_factory.hpp:77] Creating layer norm2
I0403 14:39:32.336982  1716 net.cpp:91] Creating Layer norm2
I0403 14:39:32.336997  1716 net.cpp:425] norm2 <- conv2
I0403 14:39:32.337025  1716 net.cpp:399] norm2 -> norm2
I0403 14:39:32.337246  1716 net.cpp:141] Setting up norm2
I0403 14:39:32.337280  1716 net.cpp:148] Top shape: 100 256 27 27 (18662400)
I0403 14:39:32.337298  1716 net.cpp:156] Memory required for data: 662258800
I0403 14:39:32.337313  1716 layer_factory.hpp:77] Creating layer pool2
I0403 14:39:32.337332  1716 net.cpp:91] Creating Layer pool2
I0403 14:39:32.337348  1716 net.cpp:425] pool2 <- norm2
I0403 14:39:32.337366  1716 net.cpp:399] pool2 -> pool2
I0403 14:39:32.337420  1716 net.cpp:141] Setting up pool2
I0403 14:39:32.337445  1716 net.cpp:148] Top shape: 100 256 13 13 (4326400)
I0403 14:39:32.337460  1716 net.cpp:156] Memory required for data: 679564400
I0403 14:39:32.337476  1716 layer_factory.hpp:77] Creating layer conv3
I0403 14:39:32.337499  1716 net.cpp:91] Creating Layer conv3
I0403 14:39:32.337517  1716 net.cpp:425] conv3 <- pool2
I0403 14:39:32.337538  1716 net.cpp:399] conv3 -> conv3
I0403 14:39:32.380094  1716 net.cpp:141] Setting up conv3
I0403 14:39:32.380161  1716 net.cpp:148] Top shape: 100 384 13 13 (6489600)
I0403 14:39:32.380179  1716 net.cpp:156] Memory required for data: 705522800
I0403 14:39:32.380204  1716 layer_factory.hpp:77] Creating layer relu3
I0403 14:39:32.380233  1716 net.cpp:91] Creating Layer relu3
I0403 14:39:32.380251  1716 net.cpp:425] relu3 <- conv3
I0403 14:39:32.380276  1716 net.cpp:386] relu3 -> conv3 (in-place)
I0403 14:39:32.380575  1716 net.cpp:141] Setting up relu3
I0403 14:39:32.380606  1716 net.cpp:148] Top shape: 100 384 13 13 (6489600)
I0403 14:39:32.380623  1716 net.cpp:156] Memory required for data: 731481200
I0403 14:39:32.380640  1716 layer_factory.hpp:77] Creating layer conv4
I0403 14:39:32.380667  1716 net.cpp:91] Creating Layer conv4
I0403 14:39:32.380686  1716 net.cpp:425] conv4 <- conv3
I0403 14:39:32.380707  1716 net.cpp:399] conv4 -> conv4
I0403 14:39:32.414067  1716 net.cpp:141] Setting up conv4
I0403 14:39:32.414124  1716 net.cpp:148] Top shape: 100 384 13 13 (6489600)
I0403 14:39:32.414175  1716 net.cpp:156] Memory required for data: 757439600
I0403 14:39:32.414201  1716 layer_factory.hpp:77] Creating layer relu4
I0403 14:39:32.414228  1716 net.cpp:91] Creating Layer relu4
I0403 14:39:32.414249  1716 net.cpp:425] relu4 <- conv4
I0403 14:39:32.414274  1716 net.cpp:386] relu4 -> conv4 (in-place)
I0403 14:39:32.414577  1716 net.cpp:141] Setting up relu4
I0403 14:39:32.414604  1716 net.cpp:148] Top shape: 100 384 13 13 (6489600)
I0403 14:39:32.414621  1716 net.cpp:156] Memory required for data: 783398000
I0403 14:39:32.414638  1716 layer_factory.hpp:77] Creating layer conv5
I0403 14:39:32.414665  1716 net.cpp:91] Creating Layer conv5
I0403 14:39:32.414685  1716 net.cpp:425] conv5 <- conv4
I0403 14:39:32.414710  1716 net.cpp:399] conv5 -> conv5
I0403 14:39:32.437237  1716 net.cpp:141] Setting up conv5
I0403 14:39:32.437290  1716 net.cpp:148] Top shape: 100 256 13 13 (4326400)
I0403 14:39:32.437309  1716 net.cpp:156] Memory required for data: 800703600
I0403 14:39:32.437353  1716 layer_factory.hpp:77] Creating layer relu5
I0403 14:39:32.437377  1716 net.cpp:91] Creating Layer relu5
I0403 14:39:32.437396  1716 net.cpp:425] relu5 <- conv5
I0403 14:39:32.437415  1716 net.cpp:386] relu5 -> conv5 (in-place)
I0403 14:39:32.437717  1716 net.cpp:141] Setting up relu5
I0403 14:39:32.437749  1716 net.cpp:148] Top shape: 100 256 13 13 (4326400)
I0403 14:39:32.437767  1716 net.cpp:156] Memory required for data: 818009200
I0403 14:39:32.437784  1716 layer_factory.hpp:77] Creating layer pool5
I0403 14:39:32.437806  1716 net.cpp:91] Creating Layer pool5
I0403 14:39:32.437824  1716 net.cpp:425] pool5 <- conv5
I0403 14:39:32.437847  1716 net.cpp:399] pool5 -> pool5
I0403 14:39:32.437911  1716 net.cpp:141] Setting up pool5
I0403 14:39:32.437935  1716 net.cpp:148] Top shape: 100 256 6 6 (921600)
I0403 14:39:32.437952  1716 net.cpp:156] Memory required for data: 821695600
I0403 14:39:32.437968  1716 layer_factory.hpp:77] Creating layer fc6
I0403 14:39:32.437999  1716 net.cpp:91] Creating Layer fc6
I0403 14:39:32.438017  1716 net.cpp:425] fc6 <- pool5
I0403 14:39:32.438040  1716 net.cpp:399] fc6 -> fc6
I0403 14:39:33.975509  1716 net.cpp:141] Setting up fc6
I0403 14:39:33.975566  1716 net.cpp:148] Top shape: 100 4096 (409600)
I0403 14:39:33.975584  1716 net.cpp:156] Memory required for data: 823334000
I0403 14:39:33.975607  1716 layer_factory.hpp:77] Creating layer relu6
I0403 14:39:33.975630  1716 net.cpp:91] Creating Layer relu6
I0403 14:39:33.975647  1716 net.cpp:425] relu6 <- fc6
I0403 14:39:33.975671  1716 net.cpp:386] relu6 -> fc6 (in-place)
I0403 14:39:33.975885  1716 net.cpp:141] Setting up relu6
I0403 14:39:33.975915  1716 net.cpp:148] Top shape: 100 4096 (409600)
I0403 14:39:33.975934  1716 net.cpp:156] Memory required for data: 824972400
I0403 14:39:33.975951  1716 layer_factory.hpp:77] Creating layer drop6
I0403 14:39:33.975971  1716 net.cpp:91] Creating Layer drop6
I0403 14:39:33.975987  1716 net.cpp:425] drop6 <- fc6
I0403 14:39:33.976006  1716 net.cpp:386] drop6 -> fc6 (in-place)
I0403 14:39:33.976059  1716 net.cpp:141] Setting up drop6
I0403 14:39:33.976083  1716 net.cpp:148] Top shape: 100 4096 (409600)
I0403 14:39:33.976099  1716 net.cpp:156] Memory required for data: 826610800
I0403 14:39:33.976114  1716 layer_factory.hpp:77] Creating layer fc7
I0403 14:39:33.976137  1716 net.cpp:91] Creating Layer fc7
I0403 14:39:33.976155  1716 net.cpp:425] fc7 <- fc6
I0403 14:39:33.976172  1716 net.cpp:399] fc7 -> fc7
I0403 14:39:34.658782  1716 net.cpp:141] Setting up fc7
I0403 14:39:34.658843  1716 net.cpp:148] Top shape: 100 4096 (409600)
I0403 14:39:34.658860  1716 net.cpp:156] Memory required for data: 828249200
I0403 14:39:34.658881  1716 layer_factory.hpp:77] Creating layer relu7
I0403 14:39:34.658906  1716 net.cpp:91] Creating Layer relu7
I0403 14:39:34.658924  1716 net.cpp:425] relu7 <- fc7
I0403 14:39:34.658944  1716 net.cpp:386] relu7 -> fc7 (in-place)
I0403 14:39:34.659369  1716 net.cpp:141] Setting up relu7
I0403 14:39:34.659396  1716 net.cpp:148] Top shape: 100 4096 (409600)
I0403 14:39:34.659446  1716 net.cpp:156] Memory required for data: 829887600
I0403 14:39:34.659461  1716 layer_factory.hpp:77] Creating layer drop7
I0403 14:39:34.659483  1716 net.cpp:91] Creating Layer drop7
I0403 14:39:34.659502  1716 net.cpp:425] drop7 <- fc7
I0403 14:39:34.659519  1716 net.cpp:386] drop7 -> fc7 (in-place)
I0403 14:39:34.659564  1716 net.cpp:141] Setting up drop7
I0403 14:39:34.659586  1716 net.cpp:148] Top shape: 100 4096 (409600)
I0403 14:39:34.659601  1716 net.cpp:156] Memory required for data: 831526000
I0403 14:39:34.659617  1716 layer_factory.hpp:77] Creating layer fc8_plantvillage
I0403 14:39:34.659639  1716 net.cpp:91] Creating Layer fc8_plantvillage
I0403 14:39:34.659657  1716 net.cpp:425] fc8_plantvillage <- fc7
I0403 14:39:34.659674  1716 net.cpp:399] fc8_plantvillage -> fc8_plantvillage
I0403 14:39:34.666429  1716 net.cpp:141] Setting up fc8_plantvillage
I0403 14:39:34.666458  1716 net.cpp:148] Top shape: 100 38 (3800)
I0403 14:39:34.666474  1716 net.cpp:156] Memory required for data: 831541200
I0403 14:39:34.666493  1716 layer_factory.hpp:77] Creating layer fc8_plantvillage_fc8_plantvillage_0_split
I0403 14:39:34.666514  1716 net.cpp:91] Creating Layer fc8_plantvillage_fc8_plantvillage_0_split
I0403 14:39:34.666530  1716 net.cpp:425] fc8_plantvillage_fc8_plantvillage_0_split <- fc8_plantvillage
I0403 14:39:34.666548  1716 net.cpp:399] fc8_plantvillage_fc8_plantvillage_0_split -> fc8_plantvillage_fc8_plantvillage_0_split_0
I0403 14:39:34.666571  1716 net.cpp:399] fc8_plantvillage_fc8_plantvillage_0_split -> fc8_plantvillage_fc8_plantvillage_0_split_1
I0403 14:39:34.666594  1716 net.cpp:399] fc8_plantvillage_fc8_plantvillage_0_split -> fc8_plantvillage_fc8_plantvillage_0_split_2
I0403 14:39:34.666671  1716 net.cpp:141] Setting up fc8_plantvillage_fc8_plantvillage_0_split
I0403 14:39:34.666694  1716 net.cpp:148] Top shape: 100 38 (3800)
I0403 14:39:34.666712  1716 net.cpp:148] Top shape: 100 38 (3800)
I0403 14:39:34.666728  1716 net.cpp:148] Top shape: 100 38 (3800)
I0403 14:39:34.666743  1716 net.cpp:156] Memory required for data: 831586800
I0403 14:39:34.666756  1716 layer_factory.hpp:77] Creating layer prob
I0403 14:39:34.666775  1716 net.cpp:91] Creating Layer prob
I0403 14:39:34.666791  1716 net.cpp:425] prob <- fc8_plantvillage_fc8_plantvillage_0_split_0
I0403 14:39:34.666810  1716 net.cpp:399] prob -> prob
I0403 14:39:34.667035  1716 net.cpp:141] Setting up prob
I0403 14:39:34.667062  1716 net.cpp:148] Top shape: 100 38 (3800)
I0403 14:39:34.667078  1716 net.cpp:156] Memory required for data: 831602000
I0403 14:39:34.667093  1716 layer_factory.hpp:77] Creating layer hdf5out
I0403 14:39:34.667114  1716 net.cpp:91] Creating Layer hdf5out
I0403 14:39:34.667131  1716 net.cpp:425] hdf5out <- prob
I0403 14:39:34.667148  1716 net.cpp:425] hdf5out <- label_data_1_split_0
I0403 14:39:34.670277  1716 net.cpp:141] Setting up hdf5out
…
