…
I0403 14:51:42.436540  2068 net.cpp:313] The NetState phase (1) differed from the phase (0) specified by a rule in layer data
I0403 14:51:42.436835  2068 net.cpp:49] Initializing net from parameters: 
state {
  phase: TEST
}
layer {
  name: "data"
  type: "Data"
  top: "data"
  top: "label"
  include {
    phase: TEST
  }
  transform_param {
    crop_size: 227
    mean_file: "/home/mohanty/data/final_dataset/lmdb/color-60-40/mean.binaryproto"
  }
  data_param {
    source: "/home/mohanty/data/final_dataset/lmdb/color-60-40/test_db"
    batch_size: 100
    backend: LMDB
  }
}
layer {
  name: "conv1"
  type: "Convolution"
  bottom: "data"
  top: "conv1"
  param {
    lr_mult: 1
    decay_mult: 1
  }
  param {
    lr_mult: 2
    decay_mult: 0
  }
  convolution_param {
    num_output: 96
    kernel_size: 11
    stride: 4
    weight_filler {
      type: "gaussian"
      std: 0.01
    }
    bias_filler {
      type: "constant"
      value: 0
    }
  }
}
layer {
  name: "relu1"
  type: "ReLU"
  bottom: "conv1"
  top: "conv1"
}
layer {
  name: "norm1"
  type: "LRN"
  bottom: "conv1"
  top: "norm1"
  lrn_param {
    local_size: 5
    alpha: 0.0001
    beta: 0.75
  }
}
layer {
  name: "pool1"
  type: "Pooling"
  bottom: "norm1"
  top: "pool1"
  pooling_param {
    pool: MAX
    kernel_size: 3
    stride: 2
  }
}
layer {
  name: "conv2"
  type: "Convolution"
  bottom: "pool1"
  top: "conv2"
  param {
    lr_mult: 1
    decay_mult: 1
  }
  param {
    lr_mult: 2
    decay_mult: 0
  }
  convolution_param {
    num_output: 256
    pad: 2
    kernel_size: 5
    group: 2
    weight_filler {
      type: "gaussian"
      std: 0.01
    }
    bias_filler {
      type: "constant"
      value: 0.1
    }
  }
}
layer {
  name: "relu2"
  type: "ReLU"
  bottom: "conv2"
  top: "conv2"
}
layer {
  name: "norm2"
  type: "LRN"
  bottom: "conv2"
  top: "norm2"
  lrn_param {
    local_size: 5
    alpha: 0.0001
    beta: 0.75
  }
}
layer {
  name: "pool2"
  type: "Pooling"
  bottom: "norm2"
  top: "pool2"
  pooling_param {
    pool: MAX
    kernel_size: 3
    stride: 2
  }
}
layer {
  name: "conv3"
  type: "Convolution"
  bottom: "pool2"
  top: "conv3"
  param {
    lr_mult: 1
    decay_mult: 1
  }
  param {
    lr_mult: 2
    decay_mult: 0
  }
  convolution_param {
    num_output: 384
    pad: 1
    kernel_size: 3
    weight_filler {
      type: "gaussian"
      std: 0.01
    }
    bias_filler {
      type: "constant"
      value: 0
    }
  }
}
layer {
  name: "relu3"
  type: "ReLU"
  bottom: "conv3"
  top: "conv3"
}
layer {
  name: "conv4"
  type: "Convolution"
  bottom: "conv3"
  top: "conv4"
  param {
    lr_mult: 1
    decay_mult: 1
  }
  param {
    lr_mult: 2
    decay_mult: 0
  }
  convolution_param {
    num_output: 384
    pad: 1
    kernel_size: 3
    group: 2
    weight_filler {
      type: "gaussian"
      std: 0.01
    }
    bias_filler {
      type: "constant"
      value: 0.1
    }
  }
}
layer {
  name: "relu4"
  type: "ReLU"
  bottom: "conv4"
  top: "conv4"
}
layer {
  name: "conv5"
  type: "Convolution"
  bottom: "conv4"
  top: "conv5"
  param {
    lr_mult: 1
    decay_mult: 1
  }
  param {
    lr_mult: 2
    decay_mult: 0
  }
  convolution_param {
    num_output: 256
    pad: 1
    kernel_size: 3
    group: 2
    weight_filler {
      type: "gaussian"
      std: 0.01
    }
    bias_filler {
      type: "constant"
      value: 0.1
    }
  }
}
layer {
  name: "relu5"
  type: "ReLU"
  bottom: "conv5"
  top: "conv5"
}
layer {
  name: "pool5"
  type: "Pooling"
  bottom: "conv5"
  top: "pool5"
  pooling_param {
    pool: MAX
    kernel_size: 3
    stride: 2
  }
}
layer {
  name: "fc6"
  type: "InnerProduct"
  bottom: "pool5"
  top: "fc6"
  param {
    lr_mult: 1
    decay_mult: 1
  }
  param {
    lr_mult: 2
    decay_mult: 0
  }
  inner_product_param {
    num_output: 4096
    weight_filler {
      type: "gaussian"
      std: 0.005
    }
    bias_filler {
      type: "constant"
      value: 0.1
    }
  }
}
layer {
  name: "relu6"
  type: "ReLU"
  bottom: "fc6"
  top: "fc6"
}
layer {
  name: "drop6"
  type: "Dropout"
  bottom: "fc6"
  top: "fc6"
  dropout_param {
    dropout_ratio: 0.5
  }
}
layer {
  name: "fc7"
  type: "InnerProduct"
  bottom: "fc6"
  top: "fc7"
  param {
    lr_mult: 1
    decay_mult: 1
  }
  param {
    lr_mult: 2
    decay_mult: 0
  }
  inner_product_param {
    num_output: 4096
    weight_filler {
      type: "gaussian"
      std: 0.005
    }
    bias_filler {
      type: "constant"
      value: 0.1
    }
  }
}
layer {
  name: "relu7"
  type: "ReLU"
  bottom: "fc7"
  top: "fc7"
}
layer {
  name: "drop7"
  type: "Dropout"
  bottom: "fc7"
  top: "fc7"
  dropout_param {
    dropout_ratio: 0.5
  }
}
layer {
  name: "fc8_plantvillage"
  type: "InnerProduct"
  bottom: "fc7"
  top: "fc8_plantvillage"
  param {
    lr_mult: 1
    decay_mult: 1
  }
  param {
    lr_mult: 2
    decay_mult: 0
  }
  inner_product_param {
    num_output: 38
    weight_filler {
      type: "gaussian"
      std: 0.01
    }
    bias_filler {
      type: "constant"
      value: 0
    }
  }
}
layer {
  name: "prob"
  type: "Softmax"
  bottom: "fc8_plantvillage"
  top: "prob"
  include {
    phase: TEST
  }
}
layer {
  name: "hdf5out"
  type: "HDF5Output"
  bottom: "prob"
  bottom: "label"
  include {
    phase: TEST
  }
  hdf5_output_param {
    file_name: "hdf5_dumps/iter_7800.h5"
  }
}
layer {
  name: "loss"
  type: "SoftmaxWithLoss"
  bottom: "fc8_plantvillage"
  bottom: "label"
  top: "loss"
}
layer {
  name: "accuracy"
  type: "Accuracy"
  bottom: "fc8_plantvillage"
  bottom: "label"
  top: "accuracy"
  include {
    phase: TEST
  }
}
I0403 14:51:42.437427  2068 layer_factory.hpp:77] Creating layer data
I0403 14:51:42.438083  2068 net.cpp:91] Creating Layer data
I0403 14:51:42.438114  2068 net.cpp:399] data -> data
I0403 14:51:42.438168  2068 net.cpp:399] data -> label
I0403 14:51:42.438205  2068 data_transformer.cpp:25] Loading mean file from: /home/mohanty/data/final_dataset/lmdb/color-60-40/mean.binaryproto
I0403 14:51:42.440853  2073 db_lmdb.cpp:38] Opened lmdb /home/mohanty/data/final_dataset/lmdb/color-60-40/test_db
I0403 14:51:42.452980  2068 data_layer.cpp:41] output data size: 100,3,227,227
I0403 14:51:42.573145  2068 net.cpp:141] Setting up data
I0403 14:51:42.573251  2068 net.cpp:148] Top shape: 100 3 227 227 (15458700)
I0403 14:51:42.573276  2068 net.cpp:148] Top shape: 100 (100)
I0403 14:51:42.573292  2068 net.cpp:156] Memory required for data: 61835200
I0403 14:51:42.573323  2068 layer_factory.hpp:77] Creating layer label_data_1_split
I0403 14:51:42.573348  2068 net.cpp:91] Creating Layer label_data_1_split
I0403 14:51:42.573367  2068 net.cpp:425] label_data_1_split <- label
I0403 14:51:42.573400  2068 net.cpp:399] label_data_1_split -> label_data_1_split_0
I0403 14:51:42.573427  2068 net.cpp:399] label_data_1_split -> label_data_1_split_1
I0403 14:51:42.573449  2068 net.cpp:399] label_data_1_split -> label_data_1_split_2
I0403 14:51:42.573513  2068 net.cpp:141] Setting up label_data_1_split
I0403 14:51:42.573537  2068 net.cpp:148] Top shape: 100 (100)
I0403 14:51:42.573555  2068 net.cpp:148] Top shape: 100 (100)
I0403 14:51:42.573572  2068 net.cpp:148] Top shape: 100 (100)
I0403 14:51:42.573586  2068 net.cpp:156] Memory required for data: 61836400
I0403 14:51:42.573602  2068 layer_factory.hpp:77] Creating layer conv1
I0403 14:51:42.573635  2068 net.cpp:91] Creating Layer conv1
I0403 14:51:42.573655  2068 net.cpp:425] conv1 <- data
I0403 14:51:42.573676  2068 net.cpp:399] conv1 -> conv1
I0403 14:51:42.716006  2068 net.cpp:141] Setting up conv1
I0403 14:51:42.716078  2068 net.cpp:148] Top shape: 100 96 55 55 (29040000)
I0403 14:51:42.716094  2068 net.cpp:156] Memory required for data: 177996400
I0403 14:51:42.716125  2068 layer_factory.hpp:77] Creating layer relu1
I0403 14:51:42.716153  2068 net.cpp:91] Creating Layer relu1
I0403 14:51:42.716172  2068 net.cpp:425] relu1 <- conv1
I0403 14:51:42.716223  2068 net.cpp:386] relu1 -> conv1 (in-place)
I0403 14:51:42.716552  2068 net.cpp:141] Setting up relu1
I0403 14:51:42.716579  2068 net.cpp:148] Top shape: 100 96 55 55 (29040000)
I0403 14:51:42.716595  2068 net.cpp:156] Memory required for data: 294156400
I0403 14:51:42.716642  2068 layer_factory.hpp:77] Creating layer norm1
I0403 14:51:42.716670  2068 net.cpp:91] Creating Layer norm1
I0403 14:51:42.716688  2068 net.cpp:425] norm1 <- conv1
I0403 14:51:42.716707  2068 net.cpp:399] norm1 -> norm1
I0403 14:51:42.717015  2068 net.cpp:141] Setting up norm1
I0403 14:51:42.717042  2068 net.cpp:148] Top shape: 100 96 55 55 (29040000)
I0403 14:51:42.717058  2068 net.cpp:156] Memory required for data: 410316400
I0403 14:51:42.717073  2068 layer_factory.hpp:77] Creating layer pool1
I0403 14:51:42.717097  2068 net.cpp:91] Creating Layer pool1
I0403 14:51:42.717114  2068 net.cpp:425] pool1 <- norm1
I0403 14:51:42.717133  2068 net.cpp:399] pool1 -> pool1
I0403 14:51:42.717200  2068 net.cpp:141] Setting up pool1
I0403 14:51:42.717234  2068 net.cpp:148] Top shape: 100 96 27 27 (6998400)
I0403 14:51:42.717257  2068 net.cpp:156] Memory required for data: 438310000
I0403 14:51:42.717272  2068 layer_factory.hpp:77] Creating layer conv2
I0403 14:51:42.717298  2068 net.cpp:91] Creating Layer conv2
I0403 14:51:42.717314  2068 net.cpp:425] conv2 <- pool1
I0403 14:51:42.717332  2068 net.cpp:399] conv2 -> conv2
I0403 14:51:42.732589  2068 net.cpp:141] Setting up conv2
I0403 14:51:42.732647  2068 net.cpp:148] Top shape: 100 256 27 27 (18662400)
I0403 14:51:42.732666  2068 net.cpp:156] Memory required for data: 512959600
I0403 14:51:42.732689  2068 layer_factory.hpp:77] Creating layer relu2
I0403 14:51:42.732708  2068 net.cpp:91] Creating Layer relu2
I0403 14:51:42.732724  2068 net.cpp:425] relu2 <- conv2
I0403 14:51:42.732745  2068 net.cpp:386] relu2 -> conv2 (in-place)
I0403 14:51:42.733032  2068 net.cpp:141] Setting up relu2
I0403 14:51:42.733059  2068 net.cpp:148] Top shape: 100 256 27 27 (18662400)
I0403 14:51:42.733075  2068 net.cpp:156] Memory required for data: 587609200
I0403 14:51:42.733091  2068 layer_factory.hpp:77] Creating layer norm2
I0403 14:51:42.733115  2068 net.cpp:91] Creating Layer norm2
I0403 14:51:42.733132  2068 net.cpp:425] norm2 <- conv2
I0403 14:51:42.733151  2068 net.cpp:399] norm2 -> norm2
I0403 14:51:42.733364  2068 net.cpp:141] Setting up norm2
I0403 14:51:42.733392  2068 net.cpp:148] Top shape: 100 256 27 27 (18662400)
I0403 14:51:42.733408  2068 net.cpp:156] Memory required for data: 662258800
I0403 14:51:42.733424  2068 layer_factory.hpp:77] Creating layer pool2
I0403 14:51:42.733443  2068 net.cpp:91] Creating Layer pool2
I0403 14:51:42.733458  2068 net.cpp:425] pool2 <- norm2
I0403 14:51:42.733479  2068 net.cpp:399] pool2 -> pool2
I0403 14:51:42.733536  2068 net.cpp:141] Setting up pool2
I0403 14:51:42.733562  2068 net.cpp:148] Top shape: 100 256 13 13 (4326400)
I0403 14:51:42.733578  2068 net.cpp:156] Memory required for data: 679564400
I0403 14:51:42.733593  2068 layer_factory.hpp:77] Creating layer conv3
I0403 14:51:42.733615  2068 net.cpp:91] Creating Layer conv3
I0403 14:51:42.733631  2068 net.cpp:425] conv3 <- pool2
I0403 14:51:42.733652  2068 net.cpp:399] conv3 -> conv3
I0403 14:51:42.774941  2068 net.cpp:141] Setting up conv3
I0403 14:51:42.775013  2068 net.cpp:148] Top shape: 100 384 13 13 (6489600)
I0403 14:51:42.775030  2068 net.cpp:156] Memory required for data: 705522800
I0403 14:51:42.775054  2068 layer_factory.hpp:77] Creating layer relu3
I0403 14:51:42.775074  2068 net.cpp:91] Creating Layer relu3
I0403 14:51:42.775091  2068 net.cpp:425] relu3 <- conv3
I0403 14:51:42.775111  2068 net.cpp:386] relu3 -> conv3 (in-place)
I0403 14:51:42.775391  2068 net.cpp:141] Setting up relu3
I0403 14:51:42.775418  2068 net.cpp:148] Top shape: 100 384 13 13 (6489600)
I0403 14:51:42.775432  2068 net.cpp:156] Memory required for data: 731481200
I0403 14:51:42.775449  2068 layer_factory.hpp:77] Creating layer conv4
I0403 14:51:42.775473  2068 net.cpp:91] Creating Layer conv4
I0403 14:51:42.775490  2068 net.cpp:425] conv4 <- conv3
I0403 14:51:42.775511  2068 net.cpp:399] conv4 -> conv4
I0403 14:51:42.805416  2068 net.cpp:141] Setting up conv4
I0403 14:51:42.805464  2068 net.cpp:148] Top shape: 100 384 13 13 (6489600)
I0403 14:51:42.805512  2068 net.cpp:156] Memory required for data: 757439600
I0403 14:51:42.805533  2068 layer_factory.hpp:77] Creating layer relu4
I0403 14:51:42.805555  2068 net.cpp:91] Creating Layer relu4
I0403 14:51:42.805572  2068 net.cpp:425] relu4 <- conv4
I0403 14:51:42.805591  2068 net.cpp:386] relu4 -> conv4 (in-place)
I0403 14:51:42.805912  2068 net.cpp:141] Setting up relu4
I0403 14:51:42.805943  2068 net.cpp:148] Top shape: 100 384 13 13 (6489600)
I0403 14:51:42.805959  2068 net.cpp:156] Memory required for data: 783398000
I0403 14:51:42.805974  2068 layer_factory.hpp:77] Creating layer conv5
I0403 14:51:42.805999  2068 net.cpp:91] Creating Layer conv5
I0403 14:51:42.806018  2068 net.cpp:425] conv5 <- conv4
I0403 14:51:42.806036  2068 net.cpp:399] conv5 -> conv5
I0403 14:51:42.827181  2068 net.cpp:141] Setting up conv5
I0403 14:51:42.827253  2068 net.cpp:148] Top shape: 100 256 13 13 (4326400)
I0403 14:51:42.827272  2068 net.cpp:156] Memory required for data: 800703600
I0403 14:51:42.827298  2068 layer_factory.hpp:77] Creating layer relu5
I0403 14:51:42.827321  2068 net.cpp:91] Creating Layer relu5
I0403 14:51:42.827337  2068 net.cpp:425] relu5 <- conv5
I0403 14:51:42.827358  2068 net.cpp:386] relu5 -> conv5 (in-place)
I0403 14:51:42.827644  2068 net.cpp:141] Setting up relu5
I0403 14:51:42.827672  2068 net.cpp:148] Top shape: 100 256 13 13 (4326400)
I0403 14:51:42.827687  2068 net.cpp:156] Memory required for data: 818009200
I0403 14:51:42.827702  2068 layer_factory.hpp:77] Creating layer pool5
I0403 14:51:42.827728  2068 net.cpp:91] Creating Layer pool5
I0403 14:51:42.827745  2068 net.cpp:425] pool5 <- conv5
I0403 14:51:42.827764  2068 net.cpp:399] pool5 -> pool5
I0403 14:51:42.827827  2068 net.cpp:141] Setting up pool5
I0403 14:51:42.827852  2068 net.cpp:148] Top shape: 100 256 6 6 (921600)
I0403 14:51:42.827867  2068 net.cpp:156] Memory required for data: 821695600
I0403 14:51:42.827882  2068 layer_factory.hpp:77] Creating layer fc6
I0403 14:51:42.827908  2068 net.cpp:91] Creating Layer fc6
I0403 14:51:42.827926  2068 net.cpp:425] fc6 <- pool5
I0403 14:51:42.827947  2068 net.cpp:399] fc6 -> fc6
I0403 14:51:44.367452  2068 net.cpp:141] Setting up fc6
I0403 14:51:44.367530  2068 net.cpp:148] Top shape: 100 4096 (409600)
I0403 14:51:44.367547  2068 net.cpp:156] Memory required for data: 823334000
I0403 14:51:44.367568  2068 layer_factory.hpp:77] Creating layer relu6
I0403 14:51:44.367588  2068 net.cpp:91] Creating Layer relu6
I0403 14:51:44.367605  2068 net.cpp:425] relu6 <- fc6
I0403 14:51:44.367624  2068 net.cpp:386] relu6 -> fc6 (in-place)
I0403 14:51:44.367831  2068 net.cpp:141] Setting up relu6
I0403 14:51:44.367858  2068 net.cpp:148] Top shape: 100 4096 (409600)
I0403 14:51:44.367872  2068 net.cpp:156] Memory required for data: 824972400
I0403 14:51:44.367887  2068 layer_factory.hpp:77] Creating layer drop6
I0403 14:51:44.367904  2068 net.cpp:91] Creating Layer drop6
I0403 14:51:44.367919  2068 net.cpp:425] drop6 <- fc6
I0403 14:51:44.367938  2068 net.cpp:386] drop6 -> fc6 (in-place)
I0403 14:51:44.367988  2068 net.cpp:141] Setting up drop6
I0403 14:51:44.368010  2068 net.cpp:148] Top shape: 100 4096 (409600)
I0403 14:51:44.368024  2068 net.cpp:156] Memory required for data: 826610800
I0403 14:51:44.368038  2068 layer_factory.hpp:77] Creating layer fc7
I0403 14:51:44.368060  2068 net.cpp:91] Creating Layer fc7
I0403 14:51:44.368077  2068 net.cpp:425] fc7 <- fc6
I0403 14:51:44.368095  2068 net.cpp:399] fc7 -> fc7
I0403 14:51:45.044797  2068 net.cpp:141] Setting up fc7
I0403 14:51:45.044857  2068 net.cpp:148] Top shape: 100 4096 (409600)
I0403 14:51:45.044873  2068 net.cpp:156] Memory required for data: 828249200
I0403 14:51:45.044893  2068 layer_factory.hpp:77] Creating layer relu7
I0403 14:51:45.044914  2068 net.cpp:91] Creating Layer relu7
I0403 14:51:45.044932  2068 net.cpp:425] relu7 <- fc7
I0403 14:51:45.044953  2068 net.cpp:386] relu7 -> fc7 (in-place)
I0403 14:51:45.045377  2068 net.cpp:141] Setting up relu7
I0403 14:51:45.045403  2068 net.cpp:148] Top shape: 100 4096 (409600)
I0403 14:51:45.045449  2068 net.cpp:156] Memory required for data: 829887600
I0403 14:51:45.045466  2068 layer_factory.hpp:77] Creating layer drop7
I0403 14:51:45.045485  2068 net.cpp:91] Creating Layer drop7
I0403 14:51:45.045500  2068 net.cpp:425] drop7 <- fc7
I0403 14:51:45.045519  2068 net.cpp:386] drop7 -> fc7 (in-place)
I0403 14:51:45.045563  2068 net.cpp:141] Setting up drop7
I0403 14:51:45.045585  2068 net.cpp:148] Top shape: 100 4096 (409600)
I0403 14:51:45.045599  2068 net.cpp:156] Memory required for data: 831526000
I0403 14:51:45.045614  2068 layer_factory.hpp:77] Creating layer fc8_plantvillage
I0403 14:51:45.045635  2068 net.cpp:91] Creating Layer fc8_plantvillage
I0403 14:51:45.045652  2068 net.cpp:425] fc8_plantvillage <- fc7
I0403 14:51:45.045672  2068 net.cpp:399] fc8_plantvillage -> fc8_plantvillage
I0403 14:51:45.052423  2068 net.cpp:141] Setting up fc8_plantvillage
I0403 14:51:45.052450  2068 net.cpp:148] Top shape: 100 38 (3800)
I0403 14:51:45.052466  2068 net.cpp:156] Memory required for data: 831541200
I0403 14:51:45.052484  2068 layer_factory.hpp:77] Creating layer fc8_plantvillage_fc8_plantvillage_0_split
I0403 14:51:45.052502  2068 net.cpp:91] Creating Layer fc8_plantvillage_fc8_plantvillage_0_split
I0403 14:51:45.052517  2068 net.cpp:425] fc8_plantvillage_fc8_plantvillage_0_split <- fc8_plantvillage
I0403 14:51:45.052537  2068 net.cpp:399] fc8_plantvillage_fc8_plantvillage_0_split -> fc8_plantvillage_fc8_plantvillage_0_split_0
I0403 14:51:45.052558  2068 net.cpp:399] fc8_plantvillage_fc8_plantvillage_0_split -> fc8_plantvillage_fc8_plantvillage_0_split_1
I0403 14:51:45.052578  2068 net.cpp:399] fc8_plantvillage_fc8_plantvillage_0_split -> fc8_plantvillage_fc8_plantvillage_0_split_2
I0403 14:51:45.052654  2068 net.cpp:141] Setting up fc8_plantvillage_fc8_plantvillage_0_split
I0403 14:51:45.052680  2068 net.cpp:148] Top shape: 100 38 (3800)
I0403 14:51:45.052696  2068 net.cpp:148] Top shape: 100 38 (3800)
I0403 14:51:45.052711  2068 net.cpp:148] Top shape: 100 38 (3800)
I0403 14:51:45.052726  2068 net.cpp:156] Memory required for data: 831586800
I0403 14:51:45.052741  2068 layer_factory.hpp:77] Creating layer prob
I0403 14:51:45.052758  2068 net.cpp:91] Creating Layer prob
I0403 14:51:45.052773  2068 net.cpp:425] prob <- fc8_plantvillage_fc8_plantvillage_0_split_0
I0403 14:51:45.052790  2068 net.cpp:399] prob -> prob
I0403 14:51:45.053009  2068 net.cpp:141] Setting up prob
I0403 14:51:45.053037  2068 net.cpp:148] Top shape: 100 38 (3800)
I0403 14:51:45.053052  2068 net.cpp:156] Memory required for data: 831602000
I0403 14:51:45.053067  2068 layer_factory.hpp:77] Creating layer hdf5out
I0403 14:51:45.053086  2068 net.cpp:91] Creating Layer hdf5out
I0403 14:51:45.053102  2068 net.cpp:425] hdf5out <- prob
I0403 14:51:45.053118  2068 net.cpp:425] hdf5out <- label_data_1_split_0
I0403 14:51:45.055480  2068 net.cpp:141] Setting up hdf5out
…
