…
I0403 14:47:54.083936  1977 net.cpp:313] The NetState phase (1) differed from the phase (0) specified by a rule in layer data
I0403 14:47:54.084219  1977 net.cpp:49] Initializing net from parameters: 
state {
  phase: TEST
}
layer {
  name: "data"
  type: "Data"
  top: "data"
  top: "label"
  include {
    phase: TEST
  }
  transform_param {
    crop_size: 227
    mean_file: "/home/mohanty/data/final_dataset/lmdb/color-60-40/mean.binaryproto"
  }
  data_param {
    source: "/home/mohanty/data/final_dataset/lmdb/color-60-40/test_db"
    batch_size: 100
    backend: LMDB
  }
}
layer {
  name: "conv1"
  type: "Convolution"
  bottom: "data"
  top: "conv1"
  param {
    lr_mult: 1
    decay_mult: 1
  }
  param {
    lr_mult: 2
    decay_mult: 0
  }
  convolution_param {
    num_output: 96
    kernel_size: 11
    stride: 4
    weight_filler {
      type: "gaussian"
      std: 0.01
    }
    bias_filler {
      type: "constant"
      value: 0
    }
  }
}
layer {
  name: "relu1"
  type: "ReLU"
  bottom: "conv1"
  top: "conv1"
}
layer {
  name: "norm1"
  type: "LRN"
  bottom: "conv1"
  top: "norm1"
  lrn_param {
    local_size: 5
    alpha: 0.0001
    beta: 0.75
  }
}
layer {
  name: "pool1"
  type: "Pooling"
  bottom: "norm1"
  top: "pool1"
  pooling_param {
    pool: MAX
    kernel_size: 3
    stride: 2
  }
}
layer {
  name: "conv2"
  type: "Convolution"
  bottom: "pool1"
  top: "conv2"
  param {
    lr_mult: 1
    decay_mult: 1
  }
  param {
    lr_mult: 2
    decay_mult: 0
  }
  convolution_param {
    num_output: 256
    pad: 2
    kernel_size: 5
    group: 2
    weight_filler {
      type: "gaussian"
      std: 0.01
    }
    bias_filler {
      type: "constant"
      value: 0.1
    }
  }
}
layer {
  name: "relu2"
  type: "ReLU"
  bottom: "conv2"
  top: "conv2"
}
layer {
  name: "norm2"
  type: "LRN"
  bottom: "conv2"
  top: "norm2"
  lrn_param {
    local_size: 5
    alpha: 0.0001
    beta: 0.75
  }
}
layer {
  name: "pool2"
  type: "Pooling"
  bottom: "norm2"
  top: "pool2"
  pooling_param {
    pool: MAX
    kernel_size: 3
    stride: 2
  }
}
layer {
  name: "conv3"
  type: "Convolution"
  bottom: "pool2"
  top: "conv3"
  param {
    lr_mult: 1
    decay_mult: 1
  }
  param {
    lr_mult: 2
    decay_mult: 0
  }
  convolution_param {
    num_output: 384
    pad: 1
    kernel_size: 3
    weight_filler {
      type: "gaussian"
      std: 0.01
    }
    bias_filler {
      type: "constant"
      value: 0
    }
  }
}
layer {
  name: "relu3"
  type: "ReLU"
  bottom: "conv3"
  top: "conv3"
}
layer {
  name: "conv4"
  type: "Convolution"
  bottom: "conv3"
  top: "conv4"
  param {
    lr_mult: 1
    decay_mult: 1
  }
  param {
    lr_mult: 2
    decay_mult: 0
  }
  convolution_param {
    num_output: 384
    pad: 1
    kernel_size: 3
    group: 2
    weight_filler {
      type: "gaussian"
      std: 0.01
    }
    bias_filler {
      type: "constant"
      value: 0.1
    }
  }
}
layer {
  name: "relu4"
  type: "ReLU"
  bottom: "conv4"
  top: "conv4"
}
layer {
  name: "conv5"
  type: "Convolution"
  bottom: "conv4"
  top: "conv5"
  param {
    lr_mult: 1
    decay_mult: 1
  }
  param {
    lr_mult: 2
    decay_mult: 0
  }
  convolution_param {
    num_output: 256
    pad: 1
    kernel_size: 3
    group: 2
    weight_filler {
      type: "gaussian"
      std: 0.01
    }
    bias_filler {
      type: "constant"
      value: 0.1
    }
  }
}
layer {
  name: "relu5"
  type: "ReLU"
  bottom: "conv5"
  top: "conv5"
}
layer {
  name: "pool5"
  type: "Pooling"
  bottom: "conv5"
  top: "pool5"
  pooling_param {
    pool: MAX
    kernel_size: 3
    stride: 2
  }
}
layer {
  name: "fc6"
  type: "InnerProduct"
  bottom: "pool5"
  top: "fc6"
  param {
    lr_mult: 1
    decay_mult: 1
  }
  param {
    lr_mult: 2
    decay_mult: 0
  }
  inner_product_param {
    num_output: 4096
    weight_filler {
      type: "gaussian"
      std: 0.005
    }
    bias_filler {
      type: "constant"
      value: 0.1
    }
  }
}
layer {
  name: "relu6"
  type: "ReLU"
  bottom: "fc6"
  top: "fc6"
}
layer {
  name: "drop6"
  type: "Dropout"
  bottom: "fc6"
  top: "fc6"
  dropout_param {
    dropout_ratio: 0.5
  }
}
layer {
  name: "fc7"
  type: "InnerProduct"
  bottom: "fc6"
  top: "fc7"
  param {
    lr_mult: 1
    decay_mult: 1
  }
  param {
    lr_mult: 2
    decay_mult: 0
  }
  inner_product_param {
    num_output: 4096
    weight_filler {
      type: "gaussian"
      std: 0.005
    }
    bias_filler {
      type: "constant"
      value: 0.1
    }
  }
}
layer {
  name: "relu7"
  type: "ReLU"
  bottom: "fc7"
  top: "fc7"
}
layer {
  name: "drop7"
  type: "Dropout"
  bottom: "fc7"
  top: "fc7"
  dropout_param {
    dropout_ratio: 0.5
  }
}
layer {
  name: "fc8_plantvillage"
  type: "InnerProduct"
  bottom: "fc7"
  top: "fc8_plantvillage"
  param {
    lr_mult: 1
    decay_mult: 1
  }
  param {
    lr_mult: 2
    decay_mult: 0
  }
  inner_product_param {
    num_output: 38
    weight_filler {
      type: "gaussian"
      std: 0.01
    }
    bias_filler {
      type: "constant"
      value: 0
    }
  }
}
layer {
  name: "prob"
  type: "Softmax"
  bottom: "fc8_plantvillage"
  top: "prob"
  include {
    phase: TEST
  }
}
layer {
  name: "hdf5out"
  type: "HDF5Output"
  bottom: "prob"
  bottom: "label"
  include {
    phase: TEST
  }
  hdf5_output_param {
    file_name: "hdf5_dumps/iter_6175.h5"
  }
}
layer {
  name: "loss"
  type: "SoftmaxWithLoss"
  bottom: "fc8_plantvillage"
  bottom: "label"
  top: "loss"
}
layer {
  name: "accuracy"
  type: "Accuracy"
  bottom: "fc8_plantvillage"
  bottom: "label"
  top: "accuracy"
  include {
    phase: TEST
  }
}
I0403 14:47:54.084825  1977 layer_factory.hpp:77] Creating layer data
I0403 14:47:54.085469  1977 net.cpp:91] Creating Layer data
I0403 14:47:54.085502  1977 net.cpp:399] data -> data
I0403 14:47:54.085553  1977 net.cpp:399] data -> label
I0403 14:47:54.085589  1977 data_transformer.cpp:25] Loading mean file from: /home/mohanty/data/final_dataset/lmdb/color-60-40/mean.binaryproto
I0403 14:47:54.088426  1979 db_lmdb.cpp:38] Opened lmdb /home/mohanty/data/final_dataset/lmdb/color-60-40/test_db
I0403 14:47:54.100076  1977 data_layer.cpp:41] output data size: 100,3,227,227
I0403 14:47:54.218999  1977 net.cpp:141] Setting up data
I0403 14:47:54.219110  1977 net.cpp:148] Top shape: 100 3 227 227 (15458700)
I0403 14:47:54.219135  1977 net.cpp:148] Top shape: 100 (100)
I0403 14:47:54.219151  1977 net.cpp:156] Memory required for data: 61835200
I0403 14:47:54.219179  1977 layer_factory.hpp:77] Creating layer label_data_1_split
I0403 14:47:54.219205  1977 net.cpp:91] Creating Layer label_data_1_split
I0403 14:47:54.219224  1977 net.cpp:425] label_data_1_split <- label
I0403 14:47:54.219260  1977 net.cpp:399] label_data_1_split -> label_data_1_split_0
I0403 14:47:54.219290  1977 net.cpp:399] label_data_1_split -> label_data_1_split_1
I0403 14:47:54.219310  1977 net.cpp:399] label_data_1_split -> label_data_1_split_2
I0403 14:47:54.219375  1977 net.cpp:141] Setting up label_data_1_split
I0403 14:47:54.219399  1977 net.cpp:148] Top shape: 100 (100)
I0403 14:47:54.219416  1977 net.cpp:148] Top shape: 100 (100)
I0403 14:47:54.219434  1977 net.cpp:148] Top shape: 100 (100)
I0403 14:47:54.219449  1977 net.cpp:156] Memory required for data: 61836400
I0403 14:47:54.219465  1977 layer_factory.hpp:77] Creating layer conv1
I0403 14:47:54.219498  1977 net.cpp:91] Creating Layer conv1
I0403 14:47:54.219517  1977 net.cpp:425] conv1 <- data
I0403 14:47:54.219537  1977 net.cpp:399] conv1 -> conv1
I0403 14:47:54.362329  1977 net.cpp:141] Setting up conv1
I0403 14:47:54.362411  1977 net.cpp:148] Top shape: 100 96 55 55 (29040000)
I0403 14:47:54.362427  1977 net.cpp:156] Memory required for data: 177996400
I0403 14:47:54.362458  1977 layer_factory.hpp:77] Creating layer relu1
I0403 14:47:54.362485  1977 net.cpp:91] Creating Layer relu1
I0403 14:47:54.362504  1977 net.cpp:425] relu1 <- conv1
I0403 14:47:54.362522  1977 net.cpp:386] relu1 -> conv1 (in-place)
I0403 14:47:54.362771  1977 net.cpp:141] Setting up relu1
I0403 14:47:54.362798  1977 net.cpp:148] Top shape: 100 96 55 55 (29040000)
I0403 14:47:54.362813  1977 net.cpp:156] Memory required for data: 294156400
I0403 14:47:54.362859  1977 layer_factory.hpp:77] Creating layer norm1
I0403 14:47:54.362887  1977 net.cpp:91] Creating Layer norm1
I0403 14:47:54.362905  1977 net.cpp:425] norm1 <- conv1
I0403 14:47:54.362923  1977 net.cpp:399] norm1 -> norm1
I0403 14:47:54.363299  1977 net.cpp:141] Setting up norm1
I0403 14:47:54.363327  1977 net.cpp:148] Top shape: 100 96 55 55 (29040000)
I0403 14:47:54.363343  1977 net.cpp:156] Memory required for data: 410316400
I0403 14:47:54.363358  1977 layer_factory.hpp:77] Creating layer pool1
I0403 14:47:54.363380  1977 net.cpp:91] Creating Layer pool1
I0403 14:47:54.363397  1977 net.cpp:425] pool1 <- norm1
I0403 14:47:54.363415  1977 net.cpp:399] pool1 -> pool1
I0403 14:47:54.363487  1977 net.cpp:141] Setting up pool1
I0403 14:47:54.363509  1977 net.cpp:148] Top shape: 100 96 27 27 (6998400)
I0403 14:47:54.363524  1977 net.cpp:156] Memory required for data: 438310000
I0403 14:47:54.363539  1977 layer_factory.hpp:77] Creating layer conv2
I0403 14:47:54.363564  1977 net.cpp:91] Creating Layer conv2
I0403 14:47:54.363579  1977 net.cpp:425] conv2 <- pool1
I0403 14:47:54.363597  1977 net.cpp:399] conv2 -> conv2
I0403 14:47:54.378500  1977 net.cpp:141] Setting up conv2
I0403 14:47:54.378533  1977 net.cpp:148] Top shape: 100 256 27 27 (18662400)
I0403 14:47:54.378550  1977 net.cpp:156] Memory required for data: 512959600
I0403 14:47:54.378571  1977 layer_factory.hpp:77] Creating layer relu2
I0403 14:47:54.378589  1977 net.cpp:91] Creating Layer relu2
I0403 14:47:54.378605  1977 net.cpp:425] relu2 <- conv2
I0403 14:47:54.378624  1977 net.cpp:386] relu2 -> conv2 (in-place)
I0403 14:47:54.378906  1977 net.cpp:141] Setting up relu2
I0403 14:47:54.378932  1977 net.cpp:148] Top shape: 100 256 27 27 (18662400)
I0403 14:47:54.378947  1977 net.cpp:156] Memory required for data: 587609200
I0403 14:47:54.378962  1977 layer_factory.hpp:77] Creating layer norm2
I0403 14:47:54.378984  1977 net.cpp:91] Creating Layer norm2
I0403 14:47:54.379003  1977 net.cpp:425] norm2 <- conv2
I0403 14:47:54.379022  1977 net.cpp:399] norm2 -> norm2
I0403 14:47:54.379218  1977 net.cpp:141] Setting up norm2
I0403 14:47:54.379247  1977 net.cpp:148] Top shape: 100 256 27 27 (18662400)
I0403 14:47:54.379264  1977 net.cpp:156] Memory required for data: 662258800
I0403 14:47:54.379279  1977 layer_factory.hpp:77] Creating layer pool2
I0403 14:47:54.379297  1977 net.cpp:91] Creating Layer pool2
I0403 14:47:54.379312  1977 net.cpp:425] pool2 <- norm2
I0403 14:47:54.379333  1977 net.cpp:399] pool2 -> pool2
I0403 14:47:54.379382  1977 net.cpp:141] Setting up pool2
I0403 14:47:54.379405  1977 net.cpp:148] Top shape: 100 256 13 13 (4326400)
I0403 14:47:54.379420  1977 net.cpp:156] Memory required for data: 679564400
I0403 14:47:54.379436  1977 layer_factory.hpp:77] Creating layer conv3
I0403 14:47:54.379459  1977 net.cpp:91] Creating Layer conv3
I0403 14:47:54.379479  1977 net.cpp:425] conv3 <- pool2
I0403 14:47:54.379498  1977 net.cpp:399] conv3 -> conv3
I0403 14:47:54.418411  1977 net.cpp:141] Setting up conv3
I0403 14:47:54.418489  1977 net.cpp:148] Top shape: 100 384 13 13 (6489600)
I0403 14:47:54.418506  1977 net.cpp:156] Memory required for data: 705522800
I0403 14:47:54.418531  1977 layer_factory.hpp:77] Creating layer relu3
I0403 14:47:54.418555  1977 net.cpp:91] Creating Layer relu3
I0403 14:47:54.418573  1977 net.cpp:425] relu3 <- conv3
I0403 14:47:54.418592  1977 net.cpp:386] relu3 -> conv3 (in-place)
I0403 14:47:54.418872  1977 net.cpp:141] Setting up relu3
I0403 14:47:54.418898  1977 net.cpp:148] Top shape: 100 384 13 13 (6489600)
I0403 14:47:54.418915  1977 net.cpp:156] Memory required for data: 731481200
I0403 14:47:54.418931  1977 layer_factory.hpp:77] Creating layer conv4
I0403 14:47:54.418957  1977 net.cpp:91] Creating Layer conv4
I0403 14:47:54.418975  1977 net.cpp:425] conv4 <- conv3
I0403 14:47:54.418998  1977 net.cpp:399] conv4 -> conv4
I0403 14:47:54.455698  1977 net.cpp:141] Setting up conv4
I0403 14:47:54.455796  1977 net.cpp:148] Top shape: 100 384 13 13 (6489600)
I0403 14:47:54.455845  1977 net.cpp:156] Memory required for data: 757439600
I0403 14:47:54.455868  1977 layer_factory.hpp:77] Creating layer relu4
I0403 14:47:54.455889  1977 net.cpp:91] Creating Layer relu4
I0403 14:47:54.455906  1977 net.cpp:425] relu4 <- conv4
I0403 14:47:54.455927  1977 net.cpp:386] relu4 -> conv4 (in-place)
I0403 14:47:54.456205  1977 net.cpp:141] Setting up relu4
I0403 14:47:54.456233  1977 net.cpp:148] Top shape: 100 384 13 13 (6489600)
I0403 14:47:54.456254  1977 net.cpp:156] Memory required for data: 783398000
I0403 14:47:54.456270  1977 layer_factory.hpp:77] Creating layer conv5
I0403 14:47:54.456295  1977 net.cpp:91] Creating Layer conv5
I0403 14:47:54.456312  1977 net.cpp:425] conv5 <- conv4
I0403 14:47:54.456332  1977 net.cpp:399] conv5 -> conv5
I0403 14:47:54.476688  1977 net.cpp:141] Setting up conv5
I0403 14:47:54.476723  1977 net.cpp:148] Top shape: 100 256 13 13 (4326400)
I0403 14:47:54.476740  1977 net.cpp:156] Memory required for data: 800703600
I0403 14:47:54.476763  1977 layer_factory.hpp:77] Creating layer relu5
I0403 14:47:54.476783  1977 net.cpp:91] Creating Layer relu5
I0403 14:47:54.476799  1977 net.cpp:425] relu5 <- conv5
I0403 14:47:54.476819  1977 net.cpp:386] relu5 -> conv5 (in-place)
I0403 14:47:54.477090  1977 net.cpp:141] Setting up relu5
I0403 14:47:54.477116  1977 net.cpp:148] Top shape: 100 256 13 13 (4326400)
I0403 14:47:54.477131  1977 net.cpp:156] Memory required for data: 818009200
I0403 14:47:54.477146  1977 layer_factory.hpp:77] Creating layer pool5
I0403 14:47:54.477169  1977 net.cpp:91] Creating Layer pool5
I0403 14:47:54.477190  1977 net.cpp:425] pool5 <- conv5
I0403 14:47:54.477207  1977 net.cpp:399] pool5 -> pool5
I0403 14:47:54.477269  1977 net.cpp:141] Setting up pool5
I0403 14:47:54.477293  1977 net.cpp:148] Top shape: 100 256 6 6 (921600)
I0403 14:47:54.477308  1977 net.cpp:156] Memory required for data: 821695600
I0403 14:47:54.477322  1977 layer_factory.hpp:77] Creating layer fc6
I0403 14:47:54.477350  1977 net.cpp:91] Creating Layer fc6
I0403 14:47:54.477368  1977 net.cpp:425] fc6 <- pool5
I0403 14:47:54.477387  1977 net.cpp:399] fc6 -> fc6
I0403 14:47:56.018625  1977 net.cpp:141] Setting up fc6
I0403 14:47:56.018712  1977 net.cpp:148] Top shape: 100 4096 (409600)
I0403 14:47:56.018728  1977 net.cpp:156] Memory required for data: 823334000
I0403 14:47:56.018749  1977 layer_factory.hpp:77] Creating layer relu6
I0403 14:47:56.018771  1977 net.cpp:91] Creating Layer relu6
I0403 14:47:56.018790  1977 net.cpp:425] relu6 <- fc6
I0403 14:47:56.018811  1977 net.cpp:386] relu6 -> fc6 (in-place)
I0403 14:47:56.019032  1977 net.cpp:141] Setting up relu6
I0403 14:47:56.019057  1977 net.cpp:148] Top shape: 100 4096 (409600)
I0403 14:47:56.019071  1977 net.cpp:156] Memory required for data: 824972400
I0403 14:47:56.019088  1977 layer_factory.hpp:77] Creating layer drop6
I0403 14:47:56.019107  1977 net.cpp:91] Creating Layer drop6
I0403 14:47:56.019122  1977 net.cpp:425] drop6 <- fc6
I0403 14:47:56.019143  1977 net.cpp:386] drop6 -> fc6 (in-place)
I0403 14:47:56.019193  1977 net.cpp:141] Setting up drop6
I0403 14:47:56.019219  1977 net.cpp:148] Top shape: 100 4096 (409600)
I0403 14:47:56.019234  1977 net.cpp:156] Memory required for data: 826610800
I0403 14:47:56.019254  1977 layer_factory.hpp:77] Creating layer fc7
I0403 14:47:56.019275  1977 net.cpp:91] Creating Layer fc7
I0403 14:47:56.019291  1977 net.cpp:425] fc7 <- fc6
I0403 14:47:56.019312  1977 net.cpp:399] fc7 -> fc7
I0403 14:47:56.700387  1977 net.cpp:141] Setting up fc7
I0403 14:47:56.700433  1977 net.cpp:148] Top shape: 100 4096 (409600)
I0403 14:47:56.700449  1977 net.cpp:156] Memory required for data: 828249200
I0403 14:47:56.700471  1977 layer_factory.hpp:77] Creating layer relu7
I0403 14:47:56.700495  1977 net.cpp:91] Creating Layer relu7
I0403 14:47:56.700511  1977 net.cpp:425] relu7 <- fc7
I0403 14:47:56.700532  1977 net.cpp:386] relu7 -> fc7 (in-place)
I0403 14:47:56.700937  1977 net.cpp:141] Setting up relu7
I0403 14:47:56.700963  1977 net.cpp:148] Top shape: 100 4096 (409600)
I0403 14:47:56.701011  1977 net.cpp:156] Memory required for data: 829887600
I0403 14:47:56.701028  1977 layer_factory.hpp:77] Creating layer drop7
I0403 14:47:56.701047  1977 net.cpp:91] Creating Layer drop7
I0403 14:47:56.701063  1977 net.cpp:425] drop7 <- fc7
I0403 14:47:56.701082  1977 net.cpp:386] drop7 -> fc7 (in-place)
I0403 14:47:56.701125  1977 net.cpp:141] Setting up drop7
I0403 14:47:56.701150  1977 net.cpp:148] Top shape: 100 4096 (409600)
I0403 14:47:56.701166  1977 net.cpp:156] Memory required for data: 831526000
I0403 14:47:56.701181  1977 layer_factory.hpp:77] Creating layer fc8_plantvillage
I0403 14:47:56.701201  1977 net.cpp:91] Creating Layer fc8_plantvillage
I0403 14:47:56.701216  1977 net.cpp:425] fc8_plantvillage <- fc7
I0403 14:47:56.701236  1977 net.cpp:399] fc8_plantvillage -> fc8_plantvillage
I0403 14:47:56.707958  1977 net.cpp:141] Setting up fc8_plantvillage
I0403 14:47:56.707988  1977 net.cpp:148] Top shape: 100 38 (3800)
I0403 14:47:56.708003  1977 net.cpp:156] Memory required for data: 831541200
I0403 14:47:56.708020  1977 layer_factory.hpp:77] Creating layer fc8_plantvillage_fc8_plantvillage_0_split
I0403 14:47:56.708040  1977 net.cpp:91] Creating Layer fc8_plantvillage_fc8_plantvillage_0_split
I0403 14:47:56.708055  1977 net.cpp:425] fc8_plantvillage_fc8_plantvillage_0_split <- fc8_plantvillage
I0403 14:47:56.708076  1977 net.cpp:399] fc8_plantvillage_fc8_plantvillage_0_split -> fc8_plantvillage_fc8_plantvillage_0_split_0
I0403 14:47:56.708096  1977 net.cpp:399] fc8_plantvillage_fc8_plantvillage_0_split -> fc8_plantvillage_fc8_plantvillage_0_split_1
I0403 14:47:56.708117  1977 net.cpp:399] fc8_plantvillage_fc8_plantvillage_0_split -> fc8_plantvillage_fc8_plantvillage_0_split_2
I0403 14:47:56.708192  1977 net.cpp:141] Setting up fc8_plantvillage_fc8_plantvillage_0_split
I0403 14:47:56.708216  1977 net.cpp:148] Top shape: 100 38 (3800)
I0403 14:47:56.708232  1977 net.cpp:148] Top shape: 100 38 (3800)
I0403 14:47:56.708255  1977 net.cpp:148] Top shape: 100 38 (3800)
I0403 14:47:56.708268  1977 net.cpp:156] Memory required for data: 831586800
I0403 14:47:56.708283  1977 layer_factory.hpp:77] Creating layer prob
I0403 14:47:56.708302  1977 net.cpp:91] Creating Layer prob
I0403 14:47:56.708317  1977 net.cpp:425] prob <- fc8_plantvillage_fc8_plantvillage_0_split_0
I0403 14:47:56.708338  1977 net.cpp:399] prob -> prob
I0403 14:47:56.708564  1977 net.cpp:141] Setting up prob
I0403 14:47:56.708588  1977 net.cpp:148] Top shape: 100 38 (3800)
I0403 14:47:56.708602  1977 net.cpp:156] Memory required for data: 831602000
I0403 14:47:56.708617  1977 layer_factory.hpp:77] Creating layer hdf5out
I0403 14:47:56.708636  1977 net.cpp:91] Creating Layer hdf5out
I0403 14:47:56.708652  1977 net.cpp:425] hdf5out <- prob
I0403 14:47:56.708667  1977 net.cpp:425] hdf5out <- label_data_1_split_0
I0403 14:47:56.711139  1977 net.cpp:141] Setting up hdf5out
…
