…
I0403 14:55:31.050426  2166 net.cpp:313] The NetState phase (1) differed from the phase (0) specified by a rule in layer data
I0403 14:55:31.050730  2166 net.cpp:49] Initializing net from parameters: 
state {
  phase: TEST
}
layer {
  name: "data"
  type: "Data"
  top: "data"
  top: "label"
  include {
    phase: TEST
  }
  transform_param {
    crop_size: 227
    mean_file: "/home/mohanty/data/final_dataset/lmdb/color-60-40/mean.binaryproto"
  }
  data_param {
    source: "/home/mohanty/data/final_dataset/lmdb/color-60-40/test_db"
    batch_size: 100
    backend: LMDB
  }
}
layer {
  name: "conv1"
  type: "Convolution"
  bottom: "data"
  top: "conv1"
  param {
    lr_mult: 1
    decay_mult: 1
  }
  param {
    lr_mult: 2
    decay_mult: 0
  }
  convolution_param {
    num_output: 96
    kernel_size: 11
    stride: 4
    weight_filler {
      type: "gaussian"
      std: 0.01
    }
    bias_filler {
      type: "constant"
      value: 0
    }
  }
}
layer {
  name: "relu1"
  type: "ReLU"
  bottom: "conv1"
  top: "conv1"
}
layer {
  name: "norm1"
  type: "LRN"
  bottom: "conv1"
  top: "norm1"
  lrn_param {
    local_size: 5
    alpha: 0.0001
    beta: 0.75
  }
}
layer {
  name: "pool1"
  type: "Pooling"
  bottom: "norm1"
  top: "pool1"
  pooling_param {
    pool: MAX
    kernel_size: 3
    stride: 2
  }
}
layer {
  name: "conv2"
  type: "Convolution"
  bottom: "pool1"
  top: "conv2"
  param {
    lr_mult: 1
    decay_mult: 1
  }
  param {
    lr_mult: 2
    decay_mult: 0
  }
  convolution_param {
    num_output: 256
    pad: 2
    kernel_size: 5
    group: 2
    weight_filler {
      type: "gaussian"
      std: 0.01
    }
    bias_filler {
      type: "constant"
      value: 0.1
    }
  }
}
layer {
  name: "relu2"
  type: "ReLU"
  bottom: "conv2"
  top: "conv2"
}
layer {
  name: "norm2"
  type: "LRN"
  bottom: "conv2"
  top: "norm2"
  lrn_param {
    local_size: 5
    alpha: 0.0001
    beta: 0.75
  }
}
layer {
  name: "pool2"
  type: "Pooling"
  bottom: "norm2"
  top: "pool2"
  pooling_param {
    pool: MAX
    kernel_size: 3
    stride: 2
  }
}
layer {
  name: "conv3"
  type: "Convolution"
  bottom: "pool2"
  top: "conv3"
  param {
    lr_mult: 1
    decay_mult: 1
  }
  param {
    lr_mult: 2
    decay_mult: 0
  }
  convolution_param {
    num_output: 384
    pad: 1
    kernel_size: 3
    weight_filler {
      type: "gaussian"
      std: 0.01
    }
    bias_filler {
      type: "constant"
      value: 0
    }
  }
}
layer {
  name: "relu3"
  type: "ReLU"
  bottom: "conv3"
  top: "conv3"
}
layer {
  name: "conv4"
  type: "Convolution"
  bottom: "conv3"
  top: "conv4"
  param {
    lr_mult: 1
    decay_mult: 1
  }
  param {
    lr_mult: 2
    decay_mult: 0
  }
  convolution_param {
    num_output: 384
    pad: 1
    kernel_size: 3
    group: 2
    weight_filler {
      type: "gaussian"
      std: 0.01
    }
    bias_filler {
      type: "constant"
      value: 0.1
    }
  }
}
layer {
  name: "relu4"
  type: "ReLU"
  bottom: "conv4"
  top: "conv4"
}
layer {
  name: "conv5"
  type: "Convolution"
  bottom: "conv4"
  top: "conv5"
  param {
    lr_mult: 1
    decay_mult: 1
  }
  param {
    lr_mult: 2
    decay_mult: 0
  }
  convolution_param {
    num_output: 256
    pad: 1
    kernel_size: 3
    group: 2
    weight_filler {
      type: "gaussian"
      std: 0.01
    }
    bias_filler {
      type: "constant"
      value: 0.1
    }
  }
}
layer {
  name: "relu5"
  type: "ReLU"
  bottom: "conv5"
  top: "conv5"
}
layer {
  name: "pool5"
  type: "Pooling"
  bottom: "conv5"
  top: "pool5"
  pooling_param {
    pool: MAX
    kernel_size: 3
    stride: 2
  }
}
layer {
  name: "fc6"
  type: "InnerProduct"
  bottom: "pool5"
  top: "fc6"
  param {
    lr_mult: 1
    decay_mult: 1
  }
  param {
    lr_mult: 2
    decay_mult: 0
  }
  inner_product_param {
    num_output: 4096
    weight_filler {
      type: "gaussian"
      std: 0.005
    }
    bias_filler {
      type: "constant"
      value: 0.1
    }
  }
}
layer {
  name: "relu6"
  type: "ReLU"
  bottom: "fc6"
  top: "fc6"
}
layer {
  name: "drop6"
  type: "Dropout"
  bottom: "fc6"
  top: "fc6"
  dropout_param {
    dropout_ratio: 0.5
  }
}
layer {
  name: "fc7"
  type: "InnerProduct"
  bottom: "fc6"
  top: "fc7"
  param {
    lr_mult: 1
    decay_mult: 1
  }
  param {
    lr_mult: 2
    decay_mult: 0
  }
  inner_product_param {
    num_output: 4096
    weight_filler {
      type: "gaussian"
      std: 0.005
    }
    bias_filler {
      type: "constant"
      value: 0.1
    }
  }
}
layer {
  name: "relu7"
  type: "ReLU"
  bottom: "fc7"
  top: "fc7"
}
layer {
  name: "drop7"
  type: "Dropout"
  bottom: "fc7"
  top: "fc7"
  dropout_param {
    dropout_ratio: 0.5
  }
}
layer {
  name: "fc8_plantvillage"
  type: "InnerProduct"
  bottom: "fc7"
  top: "fc8_plantvillage"
  param {
    lr_mult: 1
    decay_mult: 1
  }
  param {
    lr_mult: 2
    decay_mult: 0
  }
  inner_product_param {
    num_output: 38
    weight_filler {
      type: "gaussian"
      std: 0.01
    }
    bias_filler {
      type: "constant"
      value: 0
    }
  }
}
layer {
  name: "prob"
  type: "Softmax"
  bottom: "fc8_plantvillage"
  top: "prob"
  include {
    phase: TEST
  }
}
layer {
  name: "hdf5out"
  type: "HDF5Output"
  bottom: "prob"
  bottom: "label"
  include {
    phase: TEST
  }
  hdf5_output_param {
    file_name: "hdf5_dumps/iter_9425.h5"
  }
}
layer {
  name: "loss"
  type: "SoftmaxWithLoss"
  bottom: "fc8_plantvillage"
  bottom: "label"
  top: "loss"
}
layer {
  name: "accuracy"
  type: "Accuracy"
  bottom: "fc8_plantvillage"
  bottom: "label"
  top: "accuracy"
  include {
    phase: TEST
  }
}
I0403 14:55:31.051333  2166 layer_factory.hpp:77] Creating layer data
I0403 14:55:31.051987  2166 net.cpp:91] Creating Layer data
I0403 14:55:31.052018  2166 net.cpp:399] data -> data
I0403 14:55:31.052069  2166 net.cpp:399] data -> label
I0403 14:55:31.052109  2166 data_transformer.cpp:25] Loading mean file from: /home/mohanty/data/final_dataset/lmdb/color-60-40/mean.binaryproto
I0403 14:55:31.054884  2169 db_lmdb.cpp:38] Opened lmdb /home/mohanty/data/final_dataset/lmdb/color-60-40/test_db
I0403 14:55:31.066920  2166 data_layer.cpp:41] output data size: 100,3,227,227
I0403 14:55:31.190538  2166 net.cpp:141] Setting up data
I0403 14:55:31.190599  2166 net.cpp:148] Top shape: 100 3 227 227 (15458700)
I0403 14:55:31.190623  2166 net.cpp:148] Top shape: 100 (100)
I0403 14:55:31.190637  2166 net.cpp:156] Memory required for data: 61835200
I0403 14:55:31.190665  2166 layer_factory.hpp:77] Creating layer label_data_1_split
I0403 14:55:31.190690  2166 net.cpp:91] Creating Layer label_data_1_split
I0403 14:55:31.190708  2166 net.cpp:425] label_data_1_split <- label
I0403 14:55:31.190739  2166 net.cpp:399] label_data_1_split -> label_data_1_split_0
I0403 14:55:31.190767  2166 net.cpp:399] label_data_1_split -> label_data_1_split_1
I0403 14:55:31.190788  2166 net.cpp:399] label_data_1_split -> label_data_1_split_2
I0403 14:55:31.190851  2166 net.cpp:141] Setting up label_data_1_split
I0403 14:55:31.190874  2166 net.cpp:148] Top shape: 100 (100)
I0403 14:55:31.190891  2166 net.cpp:148] Top shape: 100 (100)
I0403 14:55:31.190907  2166 net.cpp:148] Top shape: 100 (100)
I0403 14:55:31.190922  2166 net.cpp:156] Memory required for data: 61836400
I0403 14:55:31.190937  2166 layer_factory.hpp:77] Creating layer conv1
I0403 14:55:31.190969  2166 net.cpp:91] Creating Layer conv1
I0403 14:55:31.190989  2166 net.cpp:425] conv1 <- data
I0403 14:55:31.191007  2166 net.cpp:399] conv1 -> conv1
I0403 14:55:31.335507  2166 net.cpp:141] Setting up conv1
I0403 14:55:31.335600  2166 net.cpp:148] Top shape: 100 96 55 55 (29040000)
I0403 14:55:31.335618  2166 net.cpp:156] Memory required for data: 177996400
I0403 14:55:31.335650  2166 layer_factory.hpp:77] Creating layer relu1
I0403 14:55:31.335680  2166 net.cpp:91] Creating Layer relu1
I0403 14:55:31.335700  2166 net.cpp:425] relu1 <- conv1
I0403 14:55:31.335719  2166 net.cpp:386] relu1 -> conv1 (in-place)
I0403 14:55:31.336035  2166 net.cpp:141] Setting up relu1
I0403 14:55:31.336064  2166 net.cpp:148] Top shape: 100 96 55 55 (29040000)
I0403 14:55:31.336081  2166 net.cpp:156] Memory required for data: 294156400
I0403 14:55:31.336128  2166 layer_factory.hpp:77] Creating layer norm1
I0403 14:55:31.336158  2166 net.cpp:91] Creating Layer norm1
I0403 14:55:31.336177  2166 net.cpp:425] norm1 <- conv1
I0403 14:55:31.336196  2166 net.cpp:399] norm1 -> norm1
I0403 14:55:31.336513  2166 net.cpp:141] Setting up norm1
I0403 14:55:31.336542  2166 net.cpp:148] Top shape: 100 96 55 55 (29040000)
I0403 14:55:31.336560  2166 net.cpp:156] Memory required for data: 410316400
I0403 14:55:31.336576  2166 layer_factory.hpp:77] Creating layer pool1
I0403 14:55:31.336601  2166 net.cpp:91] Creating Layer pool1
I0403 14:55:31.336618  2166 net.cpp:425] pool1 <- norm1
I0403 14:55:31.336637  2166 net.cpp:399] pool1 -> pool1
I0403 14:55:31.336705  2166 net.cpp:141] Setting up pool1
I0403 14:55:31.336730  2166 net.cpp:148] Top shape: 100 96 27 27 (6998400)
I0403 14:55:31.336745  2166 net.cpp:156] Memory required for data: 438310000
I0403 14:55:31.336761  2166 layer_factory.hpp:77] Creating layer conv2
I0403 14:55:31.336786  2166 net.cpp:91] Creating Layer conv2
I0403 14:55:31.336803  2166 net.cpp:425] conv2 <- pool1
I0403 14:55:31.336822  2166 net.cpp:399] conv2 -> conv2
I0403 14:55:31.352567  2166 net.cpp:141] Setting up conv2
I0403 14:55:31.352604  2166 net.cpp:148] Top shape: 100 256 27 27 (18662400)
I0403 14:55:31.352622  2166 net.cpp:156] Memory required for data: 512959600
I0403 14:55:31.352646  2166 layer_factory.hpp:77] Creating layer relu2
I0403 14:55:31.352668  2166 net.cpp:91] Creating Layer relu2
I0403 14:55:31.352685  2166 net.cpp:425] relu2 <- conv2
I0403 14:55:31.352705  2166 net.cpp:386] relu2 -> conv2 (in-place)
I0403 14:55:31.352979  2166 net.cpp:141] Setting up relu2
I0403 14:55:31.353008  2166 net.cpp:148] Top shape: 100 256 27 27 (18662400)
I0403 14:55:31.353024  2166 net.cpp:156] Memory required for data: 587609200
I0403 14:55:31.353039  2166 layer_factory.hpp:77] Creating layer norm2
I0403 14:55:31.353061  2166 net.cpp:91] Creating Layer norm2
I0403 14:55:31.353077  2166 net.cpp:425] norm2 <- conv2
I0403 14:55:31.353097  2166 net.cpp:399] norm2 -> norm2
I0403 14:55:31.353302  2166 net.cpp:141] Setting up norm2
I0403 14:55:31.353329  2166 net.cpp:148] Top shape: 100 256 27 27 (18662400)
I0403 14:55:31.353345  2166 net.cpp:156] Memory required for data: 662258800
I0403 14:55:31.353360  2166 layer_factory.hpp:77] Creating layer pool2
I0403 14:55:31.353379  2166 net.cpp:91] Creating Layer pool2
I0403 14:55:31.353394  2166 net.cpp:425] pool2 <- norm2
I0403 14:55:31.353413  2166 net.cpp:399] pool2 -> pool2
I0403 14:55:31.353466  2166 net.cpp:141] Setting up pool2
I0403 14:55:31.353488  2166 net.cpp:148] Top shape: 100 256 13 13 (4326400)
I0403 14:55:31.353502  2166 net.cpp:156] Memory required for data: 679564400
I0403 14:55:31.353518  2166 layer_factory.hpp:77] Creating layer conv3
I0403 14:55:31.353540  2166 net.cpp:91] Creating Layer conv3
I0403 14:55:31.353557  2166 net.cpp:425] conv3 <- pool2
I0403 14:55:31.353576  2166 net.cpp:399] conv3 -> conv3
I0403 14:55:31.398115  2166 net.cpp:141] Setting up conv3
I0403 14:55:31.398188  2166 net.cpp:148] Top shape: 100 384 13 13 (6489600)
I0403 14:55:31.398205  2166 net.cpp:156] Memory required for data: 705522800
I0403 14:55:31.398229  2166 layer_factory.hpp:77] Creating layer relu3
I0403 14:55:31.398258  2166 net.cpp:91] Creating Layer relu3
I0403 14:55:31.398277  2166 net.cpp:425] relu3 <- conv3
I0403 14:55:31.398296  2166 net.cpp:386] relu3 -> conv3 (in-place)
I0403 14:55:31.398566  2166 net.cpp:141] Setting up relu3
I0403 14:55:31.398592  2166 net.cpp:148] Top shape: 100 384 13 13 (6489600)
I0403 14:55:31.398607  2166 net.cpp:156] Memory required for data: 731481200
I0403 14:55:31.398622  2166 layer_factory.hpp:77] Creating layer conv4
I0403 14:55:31.398646  2166 net.cpp:91] Creating Layer conv4
I0403 14:55:31.398663  2166 net.cpp:425] conv4 <- conv3
I0403 14:55:31.398684  2166 net.cpp:399] conv4 -> conv4
I0403 14:55:31.429072  2166 net.cpp:141] Setting up conv4
I0403 14:55:31.429153  2166 net.cpp:148] Top shape: 100 384 13 13 (6489600)
I0403 14:55:31.429201  2166 net.cpp:156] Memory required for data: 757439600
I0403 14:55:31.429224  2166 layer_factory.hpp:77] Creating layer relu4
I0403 14:55:31.429250  2166 net.cpp:91] Creating Layer relu4
I0403 14:55:31.429270  2166 net.cpp:425] relu4 <- conv4
I0403 14:55:31.429291  2166 net.cpp:386] relu4 -> conv4 (in-place)
I0403 14:55:31.429620  2166 net.cpp:141] Setting up relu4
I0403 14:55:31.429647  2166 net.cpp:148] Top shape: 100 384 13 13 (6489600)
I0403 14:55:31.429663  2166 net.cpp:156] Memory required for data: 783398000
I0403 14:55:31.429678  2166 layer_factory.hpp:77] Creating layer conv5
I0403 14:55:31.429704  2166 net.cpp:91] Creating Layer conv5
I0403 14:55:31.429723  2166 net.cpp:425] conv5 <- conv4
I0403 14:55:31.429744  2166 net.cpp:399] conv5 -> conv5
I0403 14:55:31.450629  2166 net.cpp:141] Setting up conv5
I0403 14:55:31.450670  2166 net.cpp:148] Top shape: 100 256 13 13 (4326400)
I0403 14:55:31.450686  2166 net.cpp:156] Memory required for data: 800703600
I0403 14:55:31.450714  2166 layer_factory.hpp:77] Creating layer relu5
I0403 14:55:31.450736  2166 net.cpp:91] Creating Layer relu5
I0403 14:55:31.450752  2166 net.cpp:425] relu5 <- conv5
I0403 14:55:31.450770  2166 net.cpp:386] relu5 -> conv5 (in-place)
I0403 14:55:31.451040  2166 net.cpp:141] Setting up relu5
I0403 14:55:31.451067  2166 net.cpp:148] Top shape: 100 256 13 13 (4326400)
I0403 14:55:31.451082  2166 net.cpp:156] Memory required for data: 818009200
I0403 14:55:31.451098  2166 layer_factory.hpp:77] Creating layer pool5
I0403 14:55:31.451122  2166 net.cpp:91] Creating Layer pool5
I0403 14:55:31.451139  2166 net.cpp:425] pool5 <- conv5
I0403 14:55:31.451158  2166 net.cpp:399] pool5 -> pool5
I0403 14:55:31.451218  2166 net.cpp:141] Setting up pool5
I0403 14:55:31.451246  2166 net.cpp:148] Top shape: 100 256 6 6 (921600)
I0403 14:55:31.451262  2166 net.cpp:156] Memory required for data: 821695600
I0403 14:55:31.451277  2166 layer_factory.hpp:77] Creating layer fc6
I0403 14:55:31.451306  2166 net.cpp:91] Creating Layer fc6
I0403 14:55:31.451324  2166 net.cpp:425] fc6 <- pool5
I0403 14:55:31.451344  2166 net.cpp:399] fc6 -> fc6
I0403 14:55:33.003978  2166 net.cpp:141] Setting up fc6
I0403 14:55:33.004020  2166 net.cpp:148] Top shape: 100 4096 (409600)
I0403 14:55:33.004036  2166 net.cpp:156] Memory required for data: 823334000
I0403 14:55:33.004056  2166 layer_factory.hpp:77] Creating layer relu6
I0403 14:55:33.004078  2166 net.cpp:91] Creating Layer relu6
I0403 14:55:33.004093  2166 net.cpp:425] relu6 <- fc6
I0403 14:55:33.004114  2166 net.cpp:386] relu6 -> fc6 (in-place)
I0403 14:55:33.004326  2166 net.cpp:141] Setting up relu6
I0403 14:55:33.004350  2166 net.cpp:148] Top shape: 100 4096 (409600)
I0403 14:55:33.004364  2166 net.cpp:156] Memory required for data: 824972400
I0403 14:55:33.004379  2166 layer_factory.hpp:77] Creating layer drop6
I0403 14:55:33.004400  2166 net.cpp:91] Creating Layer drop6
I0403 14:55:33.004416  2166 net.cpp:425] drop6 <- fc6
I0403 14:55:33.004433  2166 net.cpp:386] drop6 -> fc6 (in-place)
I0403 14:55:33.004488  2166 net.cpp:141] Setting up drop6
I0403 14:55:33.004510  2166 net.cpp:148] Top shape: 100 4096 (409600)
I0403 14:55:33.004523  2166 net.cpp:156] Memory required for data: 826610800
I0403 14:55:33.004537  2166 layer_factory.hpp:77] Creating layer fc7
I0403 14:55:33.004556  2166 net.cpp:91] Creating Layer fc7
I0403 14:55:33.004571  2166 net.cpp:425] fc7 <- fc6
I0403 14:55:33.004593  2166 net.cpp:399] fc7 -> fc7
I0403 14:55:33.685662  2166 net.cpp:141] Setting up fc7
I0403 14:55:33.685703  2166 net.cpp:148] Top shape: 100 4096 (409600)
I0403 14:55:33.685719  2166 net.cpp:156] Memory required for data: 828249200
I0403 14:55:33.685739  2166 layer_factory.hpp:77] Creating layer relu7
I0403 14:55:33.685763  2166 net.cpp:91] Creating Layer relu7
I0403 14:55:33.685781  2166 net.cpp:425] relu7 <- fc7
I0403 14:55:33.685799  2166 net.cpp:386] relu7 -> fc7 (in-place)
I0403 14:55:33.686209  2166 net.cpp:141] Setting up relu7
I0403 14:55:33.686235  2166 net.cpp:148] Top shape: 100 4096 (409600)
I0403 14:55:33.686287  2166 net.cpp:156] Memory required for data: 829887600
I0403 14:55:33.686303  2166 layer_factory.hpp:77] Creating layer drop7
I0403 14:55:33.686324  2166 net.cpp:91] Creating Layer drop7
I0403 14:55:33.686341  2166 net.cpp:425] drop7 <- fc7
I0403 14:55:33.686357  2166 net.cpp:386] drop7 -> fc7 (in-place)
I0403 14:55:33.686401  2166 net.cpp:141] Setting up drop7
I0403 14:55:33.686422  2166 net.cpp:148] Top shape: 100 4096 (409600)
I0403 14:55:33.686437  2166 net.cpp:156] Memory required for data: 831526000
I0403 14:55:33.686451  2166 layer_factory.hpp:77] Creating layer fc8_plantvillage
I0403 14:55:33.686471  2166 net.cpp:91] Creating Layer fc8_plantvillage
I0403 14:55:33.686486  2166 net.cpp:425] fc8_plantvillage <- fc7
I0403 14:55:33.686509  2166 net.cpp:399] fc8_plantvillage -> fc8_plantvillage
I0403 14:55:33.693231  2166 net.cpp:141] Setting up fc8_plantvillage
I0403 14:55:33.693267  2166 net.cpp:148] Top shape: 100 38 (3800)
I0403 14:55:33.693284  2166 net.cpp:156] Memory required for data: 831541200
I0403 14:55:33.693302  2166 layer_factory.hpp:77] Creating layer fc8_plantvillage_fc8_plantvillage_0_split
I0403 14:55:33.693320  2166 net.cpp:91] Creating Layer fc8_plantvillage_fc8_plantvillage_0_split
I0403 14:55:33.693336  2166 net.cpp:425] fc8_plantvillage_fc8_plantvillage_0_split <- fc8_plantvillage
I0403 14:55:33.693352  2166 net.cpp:399] fc8_plantvillage_fc8_plantvillage_0_split -> fc8_plantvillage_fc8_plantvillage_0_split_0
I0403 14:55:33.693372  2166 net.cpp:399] fc8_plantvillage_fc8_plantvillage_0_split -> fc8_plantvillage_fc8_plantvillage_0_split_1
I0403 14:55:33.693392  2166 net.cpp:399] fc8_plantvillage_fc8_plantvillage_0_split -> fc8_plantvillage_fc8_plantvillage_0_split_2
I0403 14:55:33.693466  2166 net.cpp:141] Setting up fc8_plantvillage_fc8_plantvillage_0_split
I0403 14:55:33.693490  2166 net.cpp:148] Top shape: 100 38 (3800)
I0403 14:55:33.693506  2166 net.cpp:148] Top shape: 100 38 (3800)
I0403 14:55:33.693521  2166 net.cpp:148] Top shape: 100 38 (3800)
I0403 14:55:33.693534  2166 net.cpp:156] Memory required for data: 831586800
I0403 14:55:33.693549  2166 layer_factory.hpp:77] Creating layer prob
I0403 14:55:33.693567  2166 net.cpp:91] Creating Layer prob
I0403 14:55:33.693583  2166 net.cpp:425] prob <- fc8_plantvillage_fc8_plantvillage_0_split_0
I0403 14:55:33.693599  2166 net.cpp:399] prob -> prob
I0403 14:55:33.693821  2166 net.cpp:141] Setting up prob
I0403 14:55:33.693845  2166 net.cpp:148] Top shape: 100 38 (3800)
I0403 14:55:33.693861  2166 net.cpp:156] Memory required for data: 831602000
I0403 14:55:33.693874  2166 layer_factory.hpp:77] Creating layer hdf5out
I0403 14:55:33.693897  2166 net.cpp:91] Creating Layer hdf5out
I0403 14:55:33.693912  2166 net.cpp:425] hdf5out <- prob
I0403 14:55:33.693928  2166 net.cpp:425] hdf5out <- label_data_1_split_0
I0403 14:55:33.696326  2166 net.cpp:141] Setting up hdf5out
…
