…
I0403 14:53:59.555321  2118 net.cpp:313] The NetState phase (1) differed from the phase (0) specified by a rule in layer data
I0403 14:53:59.555632  2118 net.cpp:49] Initializing net from parameters: 
state {
  phase: TEST
}
layer {
  name: "data"
  type: "Data"
  top: "data"
  top: "label"
  include {
    phase: TEST
  }
  transform_param {
    crop_size: 227
    mean_file: "/home/mohanty/data/final_dataset/lmdb/color-60-40/mean.binaryproto"
  }
  data_param {
    source: "/home/mohanty/data/final_dataset/lmdb/color-60-40/test_db"
    batch_size: 100
    backend: LMDB
  }
}
layer {
  name: "conv1"
  type: "Convolution"
  bottom: "data"
  top: "conv1"
  param {
    lr_mult: 1
    decay_mult: 1
  }
  param {
    lr_mult: 2
    decay_mult: 0
  }
  convolution_param {
    num_output: 96
    kernel_size: 11
    stride: 4
    weight_filler {
      type: "gaussian"
      std: 0.01
    }
    bias_filler {
      type: "constant"
      value: 0
    }
  }
}
layer {
  name: "relu1"
  type: "ReLU"
  bottom: "conv1"
  top: "conv1"
}
layer {
  name: "norm1"
  type: "LRN"
  bottom: "conv1"
  top: "norm1"
  lrn_param {
    local_size: 5
    alpha: 0.0001
    beta: 0.75
  }
}
layer {
  name: "pool1"
  type: "Pooling"
  bottom: "norm1"
  top: "pool1"
  pooling_param {
    pool: MAX
    kernel_size: 3
    stride: 2
  }
}
layer {
  name: "conv2"
  type: "Convolution"
  bottom: "pool1"
  top: "conv2"
  param {
    lr_mult: 1
    decay_mult: 1
  }
  param {
    lr_mult: 2
    decay_mult: 0
  }
  convolution_param {
    num_output: 256
    pad: 2
    kernel_size: 5
    group: 2
    weight_filler {
      type: "gaussian"
      std: 0.01
    }
    bias_filler {
      type: "constant"
      value: 0.1
    }
  }
}
layer {
  name: "relu2"
  type: "ReLU"
  bottom: "conv2"
  top: "conv2"
}
layer {
  name: "norm2"
  type: "LRN"
  bottom: "conv2"
  top: "norm2"
  lrn_param {
    local_size: 5
    alpha: 0.0001
    beta: 0.75
  }
}
layer {
  name: "pool2"
  type: "Pooling"
  bottom: "norm2"
  top: "pool2"
  pooling_param {
    pool: MAX
    kernel_size: 3
    stride: 2
  }
}
layer {
  name: "conv3"
  type: "Convolution"
  bottom: "pool2"
  top: "conv3"
  param {
    lr_mult: 1
    decay_mult: 1
  }
  param {
    lr_mult: 2
    decay_mult: 0
  }
  convolution_param {
    num_output: 384
    pad: 1
    kernel_size: 3
    weight_filler {
      type: "gaussian"
      std: 0.01
    }
    bias_filler {
      type: "constant"
      value: 0
    }
  }
}
layer {
  name: "relu3"
  type: "ReLU"
  bottom: "conv3"
  top: "conv3"
}
layer {
  name: "conv4"
  type: "Convolution"
  bottom: "conv3"
  top: "conv4"
  param {
    lr_mult: 1
    decay_mult: 1
  }
  param {
    lr_mult: 2
    decay_mult: 0
  }
  convolution_param {
    num_output: 384
    pad: 1
    kernel_size: 3
    group: 2
    weight_filler {
      type: "gaussian"
      std: 0.01
    }
    bias_filler {
      type: "constant"
      value: 0.1
    }
  }
}
layer {
  name: "relu4"
  type: "ReLU"
  bottom: "conv4"
  top: "conv4"
}
layer {
  name: "conv5"
  type: "Convolution"
  bottom: "conv4"
  top: "conv5"
  param {
    lr_mult: 1
    decay_mult: 1
  }
  param {
    lr_mult: 2
    decay_mult: 0
  }
  convolution_param {
    num_output: 256
    pad: 1
    kernel_size: 3
    group: 2
    weight_filler {
      type: "gaussian"
      std: 0.01
    }
    bias_filler {
      type: "constant"
      value: 0.1
    }
  }
}
layer {
  name: "relu5"
  type: "ReLU"
  bottom: "conv5"
  top: "conv5"
}
layer {
  name: "pool5"
  type: "Pooling"
  bottom: "conv5"
  top: "pool5"
  pooling_param {
    pool: MAX
    kernel_size: 3
    stride: 2
  }
}
layer {
  name: "fc6"
  type: "InnerProduct"
  bottom: "pool5"
  top: "fc6"
  param {
    lr_mult: 1
    decay_mult: 1
  }
  param {
    lr_mult: 2
    decay_mult: 0
  }
  inner_product_param {
    num_output: 4096
    weight_filler {
      type: "gaussian"
      std: 0.005
    }
    bias_filler {
      type: "constant"
      value: 0.1
    }
  }
}
layer {
  name: "relu6"
  type: "ReLU"
  bottom: "fc6"
  top: "fc6"
}
layer {
  name: "drop6"
  type: "Dropout"
  bottom: "fc6"
  top: "fc6"
  dropout_param {
    dropout_ratio: 0.5
  }
}
layer {
  name: "fc7"
  type: "InnerProduct"
  bottom: "fc6"
  top: "fc7"
  param {
    lr_mult: 1
    decay_mult: 1
  }
  param {
    lr_mult: 2
    decay_mult: 0
  }
  inner_product_param {
    num_output: 4096
    weight_filler {
      type: "gaussian"
      std: 0.005
    }
    bias_filler {
      type: "constant"
      value: 0.1
    }
  }
}
layer {
  name: "relu7"
  type: "ReLU"
  bottom: "fc7"
  top: "fc7"
}
layer {
  name: "drop7"
  type: "Dropout"
  bottom: "fc7"
  top: "fc7"
  dropout_param {
    dropout_ratio: 0.5
  }
}
layer {
  name: "fc8_plantvillage"
  type: "InnerProduct"
  bottom: "fc7"
  top: "fc8_plantvillage"
  param {
    lr_mult: 1
    decay_mult: 1
  }
  param {
    lr_mult: 2
    decay_mult: 0
  }
  inner_product_param {
    num_output: 38
    weight_filler {
      type: "gaussian"
      std: 0.01
    }
    bias_filler {
      type: "constant"
      value: 0
    }
  }
}
layer {
  name: "prob"
  type: "Softmax"
  bottom: "fc8_plantvillage"
  top: "prob"
  include {
    phase: TEST
  }
}
layer {
  name: "hdf5out"
  type: "HDF5Output"
  bottom: "prob"
  bottom: "label"
  include {
    phase: TEST
  }
  hdf5_output_param {
    file_name: "hdf5_dumps/iter_8775.h5"
  }
}
layer {
  name: "loss"
  type: "SoftmaxWithLoss"
  bottom: "fc8_plantvillage"
  bottom: "label"
  top: "loss"
}
layer {
  name: "accuracy"
  type: "Accuracy"
  bottom: "fc8_plantvillage"
  bottom: "label"
  top: "accuracy"
  include {
    phase: TEST
  }
}
I0403 14:53:59.556183  2118 layer_factory.hpp:77] Creating layer data
I0403 14:53:59.556833  2118 net.cpp:91] Creating Layer data
I0403 14:53:59.556866  2118 net.cpp:399] data -> data
I0403 14:53:59.556918  2118 net.cpp:399] data -> label
I0403 14:53:59.556953  2118 data_transformer.cpp:25] Loading mean file from: /home/mohanty/data/final_dataset/lmdb/color-60-40/mean.binaryproto
I0403 14:53:59.560408  2121 db_lmdb.cpp:38] Opened lmdb /home/mohanty/data/final_dataset/lmdb/color-60-40/test_db
I0403 14:53:59.571434  2118 data_layer.cpp:41] output data size: 100,3,227,227
I0403 14:53:59.695166  2118 net.cpp:141] Setting up data
I0403 14:53:59.695281  2118 net.cpp:148] Top shape: 100 3 227 227 (15458700)
I0403 14:53:59.695304  2118 net.cpp:148] Top shape: 100 (100)
I0403 14:53:59.695320  2118 net.cpp:156] Memory required for data: 61835200
I0403 14:53:59.695348  2118 layer_factory.hpp:77] Creating layer label_data_1_split
I0403 14:53:59.695374  2118 net.cpp:91] Creating Layer label_data_1_split
I0403 14:53:59.695392  2118 net.cpp:425] label_data_1_split <- label
I0403 14:53:59.695425  2118 net.cpp:399] label_data_1_split -> label_data_1_split_0
I0403 14:53:59.695453  2118 net.cpp:399] label_data_1_split -> label_data_1_split_1
I0403 14:53:59.695474  2118 net.cpp:399] label_data_1_split -> label_data_1_split_2
I0403 14:53:59.695540  2118 net.cpp:141] Setting up label_data_1_split
I0403 14:53:59.695564  2118 net.cpp:148] Top shape: 100 (100)
I0403 14:53:59.695580  2118 net.cpp:148] Top shape: 100 (100)
I0403 14:53:59.695596  2118 net.cpp:148] Top shape: 100 (100)
I0403 14:53:59.695611  2118 net.cpp:156] Memory required for data: 61836400
I0403 14:53:59.695627  2118 layer_factory.hpp:77] Creating layer conv1
I0403 14:53:59.695659  2118 net.cpp:91] Creating Layer conv1
I0403 14:53:59.695678  2118 net.cpp:425] conv1 <- data
I0403 14:53:59.695698  2118 net.cpp:399] conv1 -> conv1
I0403 14:53:59.841022  2118 net.cpp:141] Setting up conv1
I0403 14:53:59.841099  2118 net.cpp:148] Top shape: 100 96 55 55 (29040000)
I0403 14:53:59.841117  2118 net.cpp:156] Memory required for data: 177996400
I0403 14:53:59.841147  2118 layer_factory.hpp:77] Creating layer relu1
I0403 14:53:59.841176  2118 net.cpp:91] Creating Layer relu1
I0403 14:53:59.841194  2118 net.cpp:425] relu1 <- conv1
I0403 14:53:59.841213  2118 net.cpp:386] relu1 -> conv1 (in-place)
I0403 14:53:59.841481  2118 net.cpp:141] Setting up relu1
I0403 14:53:59.841508  2118 net.cpp:148] Top shape: 100 96 55 55 (29040000)
I0403 14:53:59.841526  2118 net.cpp:156] Memory required for data: 294156400
I0403 14:53:59.841572  2118 layer_factory.hpp:77] Creating layer norm1
I0403 14:53:59.841599  2118 net.cpp:91] Creating Layer norm1
I0403 14:53:59.841617  2118 net.cpp:425] norm1 <- conv1
I0403 14:53:59.841636  2118 net.cpp:399] norm1 -> norm1
I0403 14:53:59.841967  2118 net.cpp:141] Setting up norm1
I0403 14:53:59.841995  2118 net.cpp:148] Top shape: 100 96 55 55 (29040000)
I0403 14:53:59.842011  2118 net.cpp:156] Memory required for data: 410316400
I0403 14:53:59.842026  2118 layer_factory.hpp:77] Creating layer pool1
I0403 14:53:59.842058  2118 net.cpp:91] Creating Layer pool1
I0403 14:53:59.842077  2118 net.cpp:425] pool1 <- norm1
I0403 14:53:59.842097  2118 net.cpp:399] pool1 -> pool1
I0403 14:53:59.842169  2118 net.cpp:141] Setting up pool1
I0403 14:53:59.842195  2118 net.cpp:148] Top shape: 100 96 27 27 (6998400)
I0403 14:53:59.842209  2118 net.cpp:156] Memory required for data: 438310000
I0403 14:53:59.842226  2118 layer_factory.hpp:77] Creating layer conv2
I0403 14:53:59.842278  2118 net.cpp:91] Creating Layer conv2
I0403 14:53:59.842300  2118 net.cpp:425] conv2 <- pool1
I0403 14:53:59.842411  2118 net.cpp:399] conv2 -> conv2
I0403 14:53:59.858201  2118 net.cpp:141] Setting up conv2
I0403 14:53:59.858310  2118 net.cpp:148] Top shape: 100 256 27 27 (18662400)
I0403 14:53:59.858333  2118 net.cpp:156] Memory required for data: 512959600
I0403 14:53:59.858358  2118 layer_factory.hpp:77] Creating layer relu2
I0403 14:53:59.858379  2118 net.cpp:91] Creating Layer relu2
I0403 14:53:59.858397  2118 net.cpp:425] relu2 <- conv2
I0403 14:53:59.858418  2118 net.cpp:386] relu2 -> conv2 (in-place)
I0403 14:53:59.858719  2118 net.cpp:141] Setting up relu2
I0403 14:53:59.858747  2118 net.cpp:148] Top shape: 100 256 27 27 (18662400)
I0403 14:53:59.858763  2118 net.cpp:156] Memory required for data: 587609200
I0403 14:53:59.858780  2118 layer_factory.hpp:77] Creating layer norm2
I0403 14:53:59.858804  2118 net.cpp:91] Creating Layer norm2
I0403 14:53:59.858824  2118 net.cpp:425] norm2 <- conv2
I0403 14:53:59.858842  2118 net.cpp:399] norm2 -> norm2
I0403 14:53:59.859051  2118 net.cpp:141] Setting up norm2
I0403 14:53:59.859077  2118 net.cpp:148] Top shape: 100 256 27 27 (18662400)
I0403 14:53:59.859092  2118 net.cpp:156] Memory required for data: 662258800
I0403 14:53:59.859108  2118 layer_factory.hpp:77] Creating layer pool2
I0403 14:53:59.859127  2118 net.cpp:91] Creating Layer pool2
I0403 14:53:59.859143  2118 net.cpp:425] pool2 <- norm2
I0403 14:53:59.859163  2118 net.cpp:399] pool2 -> pool2
I0403 14:53:59.859216  2118 net.cpp:141] Setting up pool2
I0403 14:53:59.859243  2118 net.cpp:148] Top shape: 100 256 13 13 (4326400)
I0403 14:53:59.859261  2118 net.cpp:156] Memory required for data: 679564400
I0403 14:53:59.859275  2118 layer_factory.hpp:77] Creating layer conv3
I0403 14:53:59.859303  2118 net.cpp:91] Creating Layer conv3
I0403 14:53:59.859321  2118 net.cpp:425] conv3 <- pool2
I0403 14:53:59.859340  2118 net.cpp:399] conv3 -> conv3
I0403 14:53:59.902478  2118 net.cpp:141] Setting up conv3
I0403 14:53:59.902567  2118 net.cpp:148] Top shape: 100 384 13 13 (6489600)
I0403 14:53:59.902585  2118 net.cpp:156] Memory required for data: 705522800
I0403 14:53:59.902611  2118 layer_factory.hpp:77] Creating layer relu3
I0403 14:53:59.902631  2118 net.cpp:91] Creating Layer relu3
I0403 14:53:59.902647  2118 net.cpp:425] relu3 <- conv3
I0403 14:53:59.902668  2118 net.cpp:386] relu3 -> conv3 (in-place)
I0403 14:53:59.902937  2118 net.cpp:141] Setting up relu3
I0403 14:53:59.902964  2118 net.cpp:148] Top shape: 100 384 13 13 (6489600)
I0403 14:53:59.902979  2118 net.cpp:156] Memory required for data: 731481200
I0403 14:53:59.902993  2118 layer_factory.hpp:77] Creating layer conv4
I0403 14:53:59.903020  2118 net.cpp:91] Creating Layer conv4
I0403 14:53:59.903038  2118 net.cpp:425] conv4 <- conv3
I0403 14:53:59.903059  2118 net.cpp:399] conv4 -> conv4
I0403 14:53:59.934048  2118 net.cpp:141] Setting up conv4
I0403 14:53:59.934103  2118 net.cpp:148] Top shape: 100 384 13 13 (6489600)
I0403 14:53:59.934149  2118 net.cpp:156] Memory required for data: 757439600
I0403 14:53:59.934171  2118 layer_factory.hpp:77] Creating layer relu4
I0403 14:53:59.934195  2118 net.cpp:91] Creating Layer relu4
I0403 14:53:59.934211  2118 net.cpp:425] relu4 <- conv4
I0403 14:53:59.934232  2118 net.cpp:386] relu4 -> conv4 (in-place)
I0403 14:53:59.934553  2118 net.cpp:141] Setting up relu4
I0403 14:53:59.934583  2118 net.cpp:148] Top shape: 100 384 13 13 (6489600)
I0403 14:53:59.934600  2118 net.cpp:156] Memory required for data: 783398000
I0403 14:53:59.934617  2118 layer_factory.hpp:77] Creating layer conv5
I0403 14:53:59.934643  2118 net.cpp:91] Creating Layer conv5
I0403 14:53:59.934660  2118 net.cpp:425] conv5 <- conv4
I0403 14:53:59.934679  2118 net.cpp:399] conv5 -> conv5
I0403 14:53:59.956439  2118 net.cpp:141] Setting up conv5
I0403 14:53:59.956501  2118 net.cpp:148] Top shape: 100 256 13 13 (4326400)
I0403 14:53:59.956518  2118 net.cpp:156] Memory required for data: 800703600
I0403 14:53:59.956543  2118 layer_factory.hpp:77] Creating layer relu5
I0403 14:53:59.956565  2118 net.cpp:91] Creating Layer relu5
I0403 14:53:59.956581  2118 net.cpp:425] relu5 <- conv5
I0403 14:53:59.956601  2118 net.cpp:386] relu5 -> conv5 (in-place)
I0403 14:53:59.956892  2118 net.cpp:141] Setting up relu5
I0403 14:53:59.956919  2118 net.cpp:148] Top shape: 100 256 13 13 (4326400)
I0403 14:53:59.956934  2118 net.cpp:156] Memory required for data: 818009200
I0403 14:53:59.956950  2118 layer_factory.hpp:77] Creating layer pool5
I0403 14:53:59.956977  2118 net.cpp:91] Creating Layer pool5
I0403 14:53:59.956995  2118 net.cpp:425] pool5 <- conv5
I0403 14:53:59.957015  2118 net.cpp:399] pool5 -> pool5
I0403 14:53:59.957079  2118 net.cpp:141] Setting up pool5
I0403 14:53:59.957103  2118 net.cpp:148] Top shape: 100 256 6 6 (921600)
I0403 14:53:59.957118  2118 net.cpp:156] Memory required for data: 821695600
I0403 14:53:59.957134  2118 layer_factory.hpp:77] Creating layer fc6
I0403 14:53:59.957192  2118 net.cpp:91] Creating Layer fc6
I0403 14:53:59.957213  2118 net.cpp:425] fc6 <- pool5
I0403 14:53:59.957234  2118 net.cpp:399] fc6 -> fc6
I0403 14:54:01.514915  2118 net.cpp:141] Setting up fc6
I0403 14:54:01.514958  2118 net.cpp:148] Top shape: 100 4096 (409600)
I0403 14:54:01.514974  2118 net.cpp:156] Memory required for data: 823334000
I0403 14:54:01.514996  2118 layer_factory.hpp:77] Creating layer relu6
I0403 14:54:01.515019  2118 net.cpp:91] Creating Layer relu6
I0403 14:54:01.515038  2118 net.cpp:425] relu6 <- fc6
I0403 14:54:01.515055  2118 net.cpp:386] relu6 -> fc6 (in-place)
I0403 14:54:01.515300  2118 net.cpp:141] Setting up relu6
I0403 14:54:01.515324  2118 net.cpp:148] Top shape: 100 4096 (409600)
I0403 14:54:01.515338  2118 net.cpp:156] Memory required for data: 824972400
I0403 14:54:01.515352  2118 layer_factory.hpp:77] Creating layer drop6
I0403 14:54:01.515372  2118 net.cpp:91] Creating Layer drop6
I0403 14:54:01.515386  2118 net.cpp:425] drop6 <- fc6
I0403 14:54:01.515409  2118 net.cpp:386] drop6 -> fc6 (in-place)
I0403 14:54:01.515460  2118 net.cpp:141] Setting up drop6
I0403 14:54:01.515486  2118 net.cpp:148] Top shape: 100 4096 (409600)
I0403 14:54:01.515501  2118 net.cpp:156] Memory required for data: 826610800
I0403 14:54:01.515522  2118 layer_factory.hpp:77] Creating layer fc7
I0403 14:54:01.515542  2118 net.cpp:91] Creating Layer fc7
I0403 14:54:01.515558  2118 net.cpp:425] fc7 <- fc6
I0403 14:54:01.515578  2118 net.cpp:399] fc7 -> fc7
I0403 14:54:02.192375  2118 net.cpp:141] Setting up fc7
I0403 14:54:02.192451  2118 net.cpp:148] Top shape: 100 4096 (409600)
I0403 14:54:02.192467  2118 net.cpp:156] Memory required for data: 828249200
I0403 14:54:02.192488  2118 layer_factory.hpp:77] Creating layer relu7
I0403 14:54:02.192512  2118 net.cpp:91] Creating Layer relu7
I0403 14:54:02.192529  2118 net.cpp:425] relu7 <- fc7
I0403 14:54:02.192551  2118 net.cpp:386] relu7 -> fc7 (in-place)
I0403 14:54:02.192958  2118 net.cpp:141] Setting up relu7
I0403 14:54:02.192983  2118 net.cpp:148] Top shape: 100 4096 (409600)
I0403 14:54:02.193027  2118 net.cpp:156] Memory required for data: 829887600
I0403 14:54:02.193042  2118 layer_factory.hpp:77] Creating layer drop7
I0403 14:54:02.193060  2118 net.cpp:91] Creating Layer drop7
I0403 14:54:02.193075  2118 net.cpp:425] drop7 <- fc7
I0403 14:54:02.193094  2118 net.cpp:386] drop7 -> fc7 (in-place)
I0403 14:54:02.193135  2118 net.cpp:141] Setting up drop7
I0403 14:54:02.193156  2118 net.cpp:148] Top shape: 100 4096 (409600)
I0403 14:54:02.193171  2118 net.cpp:156] Memory required for data: 831526000
I0403 14:54:02.193184  2118 layer_factory.hpp:77] Creating layer fc8_plantvillage
I0403 14:54:02.193205  2118 net.cpp:91] Creating Layer fc8_plantvillage
I0403 14:54:02.193220  2118 net.cpp:425] fc8_plantvillage <- fc7
I0403 14:54:02.193246  2118 net.cpp:399] fc8_plantvillage -> fc8_plantvillage
I0403 14:54:02.199801  2118 net.cpp:141] Setting up fc8_plantvillage
I0403 14:54:02.199829  2118 net.cpp:148] Top shape: 100 38 (3800)
I0403 14:54:02.199844  2118 net.cpp:156] Memory required for data: 831541200
I0403 14:54:02.199863  2118 layer_factory.hpp:77] Creating layer fc8_plantvillage_fc8_plantvillage_0_split
I0403 14:54:02.199882  2118 net.cpp:91] Creating Layer fc8_plantvillage_fc8_plantvillage_0_split
I0403 14:54:02.199897  2118 net.cpp:425] fc8_plantvillage_fc8_plantvillage_0_split <- fc8_plantvillage
I0403 14:54:02.199915  2118 net.cpp:399] fc8_plantvillage_fc8_plantvillage_0_split -> fc8_plantvillage_fc8_plantvillage_0_split_0
I0403 14:54:02.199937  2118 net.cpp:399] fc8_plantvillage_fc8_plantvillage_0_split -> fc8_plantvillage_fc8_plantvillage_0_split_1
I0403 14:54:02.199959  2118 net.cpp:399] fc8_plantvillage_fc8_plantvillage_0_split -> fc8_plantvillage_fc8_plantvillage_0_split_2
I0403 14:54:02.200033  2118 net.cpp:141] Setting up fc8_plantvillage_fc8_plantvillage_0_split
I0403 14:54:02.200057  2118 net.cpp:148] Top shape: 100 38 (3800)
I0403 14:54:02.200073  2118 net.cpp:148] Top shape: 100 38 (3800)
I0403 14:54:02.200086  2118 net.cpp:148] Top shape: 100 38 (3800)
I0403 14:54:02.200100  2118 net.cpp:156] Memory required for data: 831586800
I0403 14:54:02.200115  2118 layer_factory.hpp:77] Creating layer prob
I0403 14:54:02.200134  2118 net.cpp:91] Creating Layer prob
I0403 14:54:02.200148  2118 net.cpp:425] prob <- fc8_plantvillage_fc8_plantvillage_0_split_0
I0403 14:54:02.200167  2118 net.cpp:399] prob -> prob
I0403 14:54:02.200390  2118 net.cpp:141] Setting up prob
I0403 14:54:02.200417  2118 net.cpp:148] Top shape: 100 38 (3800)
I0403 14:54:02.200433  2118 net.cpp:156] Memory required for data: 831602000
I0403 14:54:02.200448  2118 layer_factory.hpp:77] Creating layer hdf5out
I0403 14:54:02.200465  2118 net.cpp:91] Creating Layer hdf5out
I0403 14:54:02.200480  2118 net.cpp:425] hdf5out <- prob
I0403 14:54:02.200495  2118 net.cpp:425] hdf5out <- label_data_1_split_0
I0403 14:54:02.202651  2118 net.cpp:141] Setting up hdf5out
…
