…
I0403 14:40:17.840041  1733 net.cpp:313] The NetState phase (1) differed from the phase (0) specified by a rule in layer data
I0403 14:40:17.840358  1733 net.cpp:49] Initializing net from parameters: 
state {
  phase: TEST
}
layer {
  name: "data"
  type: "Data"
  top: "data"
  top: "label"
  include {
    phase: TEST
  }
  transform_param {
    crop_size: 227
    mean_file: "/home/mohanty/data/final_dataset/lmdb/color-60-40/mean.binaryproto"
  }
  data_param {
    source: "/home/mohanty/data/final_dataset/lmdb/color-60-40/test_db"
    batch_size: 100
    backend: LMDB
  }
}
layer {
  name: "conv1"
  type: "Convolution"
  bottom: "data"
  top: "conv1"
  param {
    lr_mult: 1
    decay_mult: 1
  }
  param {
    lr_mult: 2
    decay_mult: 0
  }
  convolution_param {
    num_output: 96
    kernel_size: 11
    stride: 4
    weight_filler {
      type: "gaussian"
      std: 0.01
    }
    bias_filler {
      type: "constant"
      value: 0
    }
  }
}
layer {
  name: "relu1"
  type: "ReLU"
  bottom: "conv1"
  top: "conv1"
}
layer {
  name: "norm1"
  type: "LRN"
  bottom: "conv1"
  top: "norm1"
  lrn_param {
    local_size: 5
    alpha: 0.0001
    beta: 0.75
  }
}
layer {
  name: "pool1"
  type: "Pooling"
  bottom: "norm1"
  top: "pool1"
  pooling_param {
    pool: MAX
    kernel_size: 3
    stride: 2
  }
}
layer {
  name: "conv2"
  type: "Convolution"
  bottom: "pool1"
  top: "conv2"
  param {
    lr_mult: 1
    decay_mult: 1
  }
  param {
    lr_mult: 2
    decay_mult: 0
  }
  convolution_param {
    num_output: 256
    pad: 2
    kernel_size: 5
    group: 2
    weight_filler {
      type: "gaussian"
      std: 0.01
    }
    bias_filler {
      type: "constant"
      value: 0.1
    }
  }
}
layer {
  name: "relu2"
  type: "ReLU"
  bottom: "conv2"
  top: "conv2"
}
layer {
  name: "norm2"
  type: "LRN"
  bottom: "conv2"
  top: "norm2"
  lrn_param {
    local_size: 5
    alpha: 0.0001
    beta: 0.75
  }
}
layer {
  name: "pool2"
  type: "Pooling"
  bottom: "norm2"
  top: "pool2"
  pooling_param {
    pool: MAX
    kernel_size: 3
    stride: 2
  }
}
layer {
  name: "conv3"
  type: "Convolution"
  bottom: "pool2"
  top: "conv3"
  param {
    lr_mult: 1
    decay_mult: 1
  }
  param {
    lr_mult: 2
    decay_mult: 0
  }
  convolution_param {
    num_output: 384
    pad: 1
    kernel_size: 3
    weight_filler {
      type: "gaussian"
      std: 0.01
    }
    bias_filler {
      type: "constant"
      value: 0
    }
  }
}
layer {
  name: "relu3"
  type: "ReLU"
  bottom: "conv3"
  top: "conv3"
}
layer {
  name: "conv4"
  type: "Convolution"
  bottom: "conv3"
  top: "conv4"
  param {
    lr_mult: 1
    decay_mult: 1
  }
  param {
    lr_mult: 2
    decay_mult: 0
  }
  convolution_param {
    num_output: 384
    pad: 1
    kernel_size: 3
    group: 2
    weight_filler {
      type: "gaussian"
      std: 0.01
    }
    bias_filler {
      type: "constant"
      value: 0.1
    }
  }
}
layer {
  name: "relu4"
  type: "ReLU"
  bottom: "conv4"
  top: "conv4"
}
layer {
  name: "conv5"
  type: "Convolution"
  bottom: "conv4"
  top: "conv5"
  param {
    lr_mult: 1
    decay_mult: 1
  }
  param {
    lr_mult: 2
    decay_mult: 0
  }
  convolution_param {
    num_output: 256
    pad: 1
    kernel_size: 3
    group: 2
    weight_filler {
      type: "gaussian"
      std: 0.01
    }
    bias_filler {
      type: "constant"
      value: 0.1
    }
  }
}
layer {
  name: "relu5"
  type: "ReLU"
  bottom: "conv5"
  top: "conv5"
}
layer {
  name: "pool5"
  type: "Pooling"
  bottom: "conv5"
  top: "pool5"
  pooling_param {
    pool: MAX
    kernel_size: 3
    stride: 2
  }
}
layer {
  name: "fc6"
  type: "InnerProduct"
  bottom: "pool5"
  top: "fc6"
  param {
    lr_mult: 1
    decay_mult: 1
  }
  param {
    lr_mult: 2
    decay_mult: 0
  }
  inner_product_param {
    num_output: 4096
    weight_filler {
      type: "gaussian"
      std: 0.005
    }
    bias_filler {
      type: "constant"
      value: 0.1
    }
  }
}
layer {
  name: "relu6"
  type: "ReLU"
  bottom: "fc6"
  top: "fc6"
}
layer {
  name: "drop6"
  type: "Dropout"
  bottom: "fc6"
  top: "fc6"
  dropout_param {
    dropout_ratio: 0.5
  }
}
layer {
  name: "fc7"
  type: "InnerProduct"
  bottom: "fc6"
  top: "fc7"
  param {
    lr_mult: 1
    decay_mult: 1
  }
  param {
    lr_mult: 2
    decay_mult: 0
  }
  inner_product_param {
    num_output: 4096
    weight_filler {
      type: "gaussian"
      std: 0.005
    }
    bias_filler {
      type: "constant"
      value: 0.1
    }
  }
}
layer {
  name: "relu7"
  type: "ReLU"
  bottom: "fc7"
  top: "fc7"
}
layer {
  name: "drop7"
  type: "Dropout"
  bottom: "fc7"
  top: "fc7"
  dropout_param {
    dropout_ratio: 0.5
  }
}
layer {
  name: "fc8_plantvillage"
  type: "InnerProduct"
  bottom: "fc7"
  top: "fc8_plantvillage"
  param {
    lr_mult: 1
    decay_mult: 1
  }
  param {
    lr_mult: 2
    decay_mult: 0
  }
  inner_product_param {
    num_output: 38
    weight_filler {
      type: "gaussian"
      std: 0.01
    }
    bias_filler {
      type: "constant"
      value: 0
    }
  }
}
layer {
  name: "prob"
  type: "Softmax"
  bottom: "fc8_plantvillage"
  top: "prob"
  include {
    phase: TEST
  }
}
layer {
  name: "hdf5out"
  type: "HDF5Output"
  bottom: "prob"
  bottom: "label"
  include {
    phase: TEST
  }
  hdf5_output_param {
    file_name: "hdf5_dumps/iter_2925.h5"
  }
}
layer {
  name: "loss"
  type: "SoftmaxWithLoss"
  bottom: "fc8_plantvillage"
  bottom: "label"
  top: "loss"
}
layer {
  name: "accuracy"
  type: "Accuracy"
  bottom: "fc8_plantvillage"
  bottom: "label"
  top: "accuracy"
  include {
    phase: TEST
  }
}
I0403 14:40:17.840965  1733 layer_factory.hpp:77] Creating layer data
I0403 14:40:17.841647  1733 net.cpp:91] Creating Layer data
I0403 14:40:17.841678  1733 net.cpp:399] data -> data
I0403 14:40:17.841732  1733 net.cpp:399] data -> label
I0403 14:40:17.841770  1733 data_transformer.cpp:25] Loading mean file from: /home/mohanty/data/final_dataset/lmdb/color-60-40/mean.binaryproto
I0403 14:40:17.844703  1736 db_lmdb.cpp:38] Opened lmdb /home/mohanty/data/final_dataset/lmdb/color-60-40/test_db
I0403 14:40:17.856637  1733 data_layer.cpp:41] output data size: 100,3,227,227
I0403 14:40:17.978451  1733 net.cpp:141] Setting up data
I0403 14:40:17.978550  1733 net.cpp:148] Top shape: 100 3 227 227 (15458700)
I0403 14:40:17.978574  1733 net.cpp:148] Top shape: 100 (100)
I0403 14:40:17.978588  1733 net.cpp:156] Memory required for data: 61835200
I0403 14:40:17.978616  1733 layer_factory.hpp:77] Creating layer label_data_1_split
I0403 14:40:17.978642  1733 net.cpp:91] Creating Layer label_data_1_split
I0403 14:40:17.978660  1733 net.cpp:425] label_data_1_split <- label
I0403 14:40:17.978691  1733 net.cpp:399] label_data_1_split -> label_data_1_split_0
I0403 14:40:17.978719  1733 net.cpp:399] label_data_1_split -> label_data_1_split_1
I0403 14:40:17.978740  1733 net.cpp:399] label_data_1_split -> label_data_1_split_2
I0403 14:40:17.978806  1733 net.cpp:141] Setting up label_data_1_split
I0403 14:40:17.978831  1733 net.cpp:148] Top shape: 100 (100)
I0403 14:40:17.978847  1733 net.cpp:148] Top shape: 100 (100)
I0403 14:40:17.978863  1733 net.cpp:148] Top shape: 100 (100)
I0403 14:40:17.978878  1733 net.cpp:156] Memory required for data: 61836400
I0403 14:40:17.978893  1733 layer_factory.hpp:77] Creating layer conv1
I0403 14:40:17.978926  1733 net.cpp:91] Creating Layer conv1
I0403 14:40:17.978946  1733 net.cpp:425] conv1 <- data
I0403 14:40:17.978966  1733 net.cpp:399] conv1 -> conv1
I0403 14:40:18.124416  1733 net.cpp:141] Setting up conv1
I0403 14:40:18.124480  1733 net.cpp:148] Top shape: 100 96 55 55 (29040000)
I0403 14:40:18.124498  1733 net.cpp:156] Memory required for data: 177996400
I0403 14:40:18.124531  1733 layer_factory.hpp:77] Creating layer relu1
I0403 14:40:18.124559  1733 net.cpp:91] Creating Layer relu1
I0403 14:40:18.124578  1733 net.cpp:425] relu1 <- conv1
I0403 14:40:18.124599  1733 net.cpp:386] relu1 -> conv1 (in-place)
I0403 14:40:18.124886  1733 net.cpp:141] Setting up relu1
I0403 14:40:18.124915  1733 net.cpp:148] Top shape: 100 96 55 55 (29040000)
I0403 14:40:18.124933  1733 net.cpp:156] Memory required for data: 294156400
I0403 14:40:18.124980  1733 layer_factory.hpp:77] Creating layer norm1
I0403 14:40:18.125010  1733 net.cpp:91] Creating Layer norm1
I0403 14:40:18.125121  1733 net.cpp:425] norm1 <- conv1
I0403 14:40:18.125149  1733 net.cpp:399] norm1 -> norm1
I0403 14:40:18.125500  1733 net.cpp:141] Setting up norm1
I0403 14:40:18.125530  1733 net.cpp:148] Top shape: 100 96 55 55 (29040000)
I0403 14:40:18.125546  1733 net.cpp:156] Memory required for data: 410316400
I0403 14:40:18.125563  1733 layer_factory.hpp:77] Creating layer pool1
I0403 14:40:18.125589  1733 net.cpp:91] Creating Layer pool1
I0403 14:40:18.125608  1733 net.cpp:425] pool1 <- norm1
I0403 14:40:18.125627  1733 net.cpp:399] pool1 -> pool1
I0403 14:40:18.125700  1733 net.cpp:141] Setting up pool1
I0403 14:40:18.125726  1733 net.cpp:148] Top shape: 100 96 27 27 (6998400)
I0403 14:40:18.125743  1733 net.cpp:156] Memory required for data: 438310000
I0403 14:40:18.125759  1733 layer_factory.hpp:77] Creating layer conv2
I0403 14:40:18.125787  1733 net.cpp:91] Creating Layer conv2
I0403 14:40:18.125805  1733 net.cpp:425] conv2 <- pool1
I0403 14:40:18.125828  1733 net.cpp:399] conv2 -> conv2
I0403 14:40:18.141170  1733 net.cpp:141] Setting up conv2
I0403 14:40:18.141206  1733 net.cpp:148] Top shape: 100 256 27 27 (18662400)
I0403 14:40:18.141223  1733 net.cpp:156] Memory required for data: 512959600
I0403 14:40:18.141247  1733 layer_factory.hpp:77] Creating layer relu2
I0403 14:40:18.141268  1733 net.cpp:91] Creating Layer relu2
I0403 14:40:18.141290  1733 net.cpp:425] relu2 <- conv2
I0403 14:40:18.141309  1733 net.cpp:386] relu2 -> conv2 (in-place)
I0403 14:40:18.141590  1733 net.cpp:141] Setting up relu2
I0403 14:40:18.141621  1733 net.cpp:148] Top shape: 100 256 27 27 (18662400)
I0403 14:40:18.141639  1733 net.cpp:156] Memory required for data: 587609200
I0403 14:40:18.141655  1733 layer_factory.hpp:77] Creating layer norm2
I0403 14:40:18.141676  1733 net.cpp:91] Creating Layer norm2
I0403 14:40:18.141692  1733 net.cpp:425] norm2 <- conv2
I0403 14:40:18.141713  1733 net.cpp:399] norm2 -> norm2
I0403 14:40:18.141914  1733 net.cpp:141] Setting up norm2
I0403 14:40:18.141942  1733 net.cpp:148] Top shape: 100 256 27 27 (18662400)
I0403 14:40:18.141957  1733 net.cpp:156] Memory required for data: 662258800
I0403 14:40:18.141971  1733 layer_factory.hpp:77] Creating layer pool2
I0403 14:40:18.141993  1733 net.cpp:91] Creating Layer pool2
I0403 14:40:18.142009  1733 net.cpp:425] pool2 <- norm2
I0403 14:40:18.142029  1733 net.cpp:399] pool2 -> pool2
I0403 14:40:18.142084  1733 net.cpp:141] Setting up pool2
I0403 14:40:18.142108  1733 net.cpp:148] Top shape: 100 256 13 13 (4326400)
I0403 14:40:18.142123  1733 net.cpp:156] Memory required for data: 679564400
I0403 14:40:18.142138  1733 layer_factory.hpp:77] Creating layer conv3
I0403 14:40:18.142161  1733 net.cpp:91] Creating Layer conv3
I0403 14:40:18.142179  1733 net.cpp:425] conv3 <- pool2
I0403 14:40:18.142200  1733 net.cpp:399] conv3 -> conv3
I0403 14:40:18.186084  1733 net.cpp:141] Setting up conv3
I0403 14:40:18.186163  1733 net.cpp:148] Top shape: 100 384 13 13 (6489600)
I0403 14:40:18.186182  1733 net.cpp:156] Memory required for data: 705522800
I0403 14:40:18.186210  1733 layer_factory.hpp:77] Creating layer relu3
I0403 14:40:18.186234  1733 net.cpp:91] Creating Layer relu3
I0403 14:40:18.186254  1733 net.cpp:425] relu3 <- conv3
I0403 14:40:18.186276  1733 net.cpp:386] relu3 -> conv3 (in-place)
I0403 14:40:18.186566  1733 net.cpp:141] Setting up relu3
I0403 14:40:18.186594  1733 net.cpp:148] Top shape: 100 384 13 13 (6489600)
I0403 14:40:18.186610  1733 net.cpp:156] Memory required for data: 731481200
I0403 14:40:18.186627  1733 layer_factory.hpp:77] Creating layer conv4
I0403 14:40:18.186653  1733 net.cpp:91] Creating Layer conv4
I0403 14:40:18.186672  1733 net.cpp:425] conv4 <- conv3
I0403 14:40:18.186696  1733 net.cpp:399] conv4 -> conv4
I0403 14:40:18.218044  1733 net.cpp:141] Setting up conv4
I0403 14:40:18.218089  1733 net.cpp:148] Top shape: 100 384 13 13 (6489600)
I0403 14:40:18.218138  1733 net.cpp:156] Memory required for data: 757439600
I0403 14:40:18.218161  1733 layer_factory.hpp:77] Creating layer relu4
I0403 14:40:18.218186  1733 net.cpp:91] Creating Layer relu4
I0403 14:40:18.218204  1733 net.cpp:425] relu4 <- conv4
I0403 14:40:18.218225  1733 net.cpp:386] relu4 -> conv4 (in-place)
I0403 14:40:18.218554  1733 net.cpp:141] Setting up relu4
I0403 14:40:18.218581  1733 net.cpp:148] Top shape: 100 384 13 13 (6489600)
I0403 14:40:18.218597  1733 net.cpp:156] Memory required for data: 783398000
I0403 14:40:18.218613  1733 layer_factory.hpp:77] Creating layer conv5
I0403 14:40:18.218639  1733 net.cpp:91] Creating Layer conv5
I0403 14:40:18.218657  1733 net.cpp:425] conv5 <- conv4
I0403 14:40:18.218684  1733 net.cpp:399] conv5 -> conv5
I0403 14:40:18.239632  1733 net.cpp:141] Setting up conv5
I0403 14:40:18.239670  1733 net.cpp:148] Top shape: 100 256 13 13 (4326400)
I0403 14:40:18.239686  1733 net.cpp:156] Memory required for data: 800703600
I0403 14:40:18.239711  1733 layer_factory.hpp:77] Creating layer relu5
I0403 14:40:18.239732  1733 net.cpp:91] Creating Layer relu5
I0403 14:40:18.239749  1733 net.cpp:425] relu5 <- conv5
I0403 14:40:18.239768  1733 net.cpp:386] relu5 -> conv5 (in-place)
I0403 14:40:18.240053  1733 net.cpp:141] Setting up relu5
I0403 14:40:18.240080  1733 net.cpp:148] Top shape: 100 256 13 13 (4326400)
I0403 14:40:18.240097  1733 net.cpp:156] Memory required for data: 818009200
I0403 14:40:18.240113  1733 layer_factory.hpp:77] Creating layer pool5
I0403 14:40:18.240137  1733 net.cpp:91] Creating Layer pool5
I0403 14:40:18.240155  1733 net.cpp:425] pool5 <- conv5
I0403 14:40:18.240178  1733 net.cpp:399] pool5 -> pool5
I0403 14:40:18.240239  1733 net.cpp:141] Setting up pool5
I0403 14:40:18.240263  1733 net.cpp:148] Top shape: 100 256 6 6 (921600)
I0403 14:40:18.240284  1733 net.cpp:156] Memory required for data: 821695600
I0403 14:40:18.240300  1733 layer_factory.hpp:77] Creating layer fc6
I0403 14:40:18.240329  1733 net.cpp:91] Creating Layer fc6
I0403 14:40:18.240347  1733 net.cpp:425] fc6 <- pool5
I0403 14:40:18.240366  1733 net.cpp:399] fc6 -> fc6
I0403 14:40:19.793557  1733 net.cpp:141] Setting up fc6
I0403 14:40:19.793620  1733 net.cpp:148] Top shape: 100 4096 (409600)
I0403 14:40:19.793637  1733 net.cpp:156] Memory required for data: 823334000
I0403 14:40:19.793658  1733 layer_factory.hpp:77] Creating layer relu6
I0403 14:40:19.793680  1733 net.cpp:91] Creating Layer relu6
I0403 14:40:19.793697  1733 net.cpp:425] relu6 <- fc6
I0403 14:40:19.793720  1733 net.cpp:386] relu6 -> fc6 (in-place)
I0403 14:40:19.793941  1733 net.cpp:141] Setting up relu6
I0403 14:40:19.793967  1733 net.cpp:148] Top shape: 100 4096 (409600)
I0403 14:40:19.793982  1733 net.cpp:156] Memory required for data: 824972400
I0403 14:40:19.793995  1733 layer_factory.hpp:77] Creating layer drop6
I0403 14:40:19.794018  1733 net.cpp:91] Creating Layer drop6
I0403 14:40:19.794034  1733 net.cpp:425] drop6 <- fc6
I0403 14:40:19.794051  1733 net.cpp:386] drop6 -> fc6 (in-place)
I0403 14:40:19.794103  1733 net.cpp:141] Setting up drop6
I0403 14:40:19.794126  1733 net.cpp:148] Top shape: 100 4096 (409600)
I0403 14:40:19.794140  1733 net.cpp:156] Memory required for data: 826610800
I0403 14:40:19.794154  1733 layer_factory.hpp:77] Creating layer fc7
I0403 14:40:19.794174  1733 net.cpp:91] Creating Layer fc7
I0403 14:40:19.794190  1733 net.cpp:425] fc7 <- fc6
I0403 14:40:19.794210  1733 net.cpp:399] fc7 -> fc7
I0403 14:40:20.475308  1733 net.cpp:141] Setting up fc7
I0403 14:40:20.475356  1733 net.cpp:148] Top shape: 100 4096 (409600)
I0403 14:40:20.475373  1733 net.cpp:156] Memory required for data: 828249200
I0403 14:40:20.475394  1733 layer_factory.hpp:77] Creating layer relu7
I0403 14:40:20.475417  1733 net.cpp:91] Creating Layer relu7
I0403 14:40:20.475435  1733 net.cpp:425] relu7 <- fc7
I0403 14:40:20.475455  1733 net.cpp:386] relu7 -> fc7 (in-place)
I0403 14:40:20.475855  1733 net.cpp:141] Setting up relu7
I0403 14:40:20.475881  1733 net.cpp:148] Top shape: 100 4096 (409600)
I0403 14:40:20.475929  1733 net.cpp:156] Memory required for data: 829887600
I0403 14:40:20.475944  1733 layer_factory.hpp:77] Creating layer drop7
I0403 14:40:20.475965  1733 net.cpp:91] Creating Layer drop7
I0403 14:40:20.475982  1733 net.cpp:425] drop7 <- fc7
I0403 14:40:20.476001  1733 net.cpp:386] drop7 -> fc7 (in-place)
I0403 14:40:20.476044  1733 net.cpp:141] Setting up drop7
I0403 14:40:20.476068  1733 net.cpp:148] Top shape: 100 4096 (409600)
I0403 14:40:20.476081  1733 net.cpp:156] Memory required for data: 831526000
I0403 14:40:20.476096  1733 layer_factory.hpp:77] Creating layer fc8_plantvillage
I0403 14:40:20.476116  1733 net.cpp:91] Creating Layer fc8_plantvillage
I0403 14:40:20.476135  1733 net.cpp:425] fc8_plantvillage <- fc7
I0403 14:40:20.476155  1733 net.cpp:399] fc8_plantvillage -> fc8_plantvillage
I0403 14:40:20.482892  1733 net.cpp:141] Setting up fc8_plantvillage
I0403 14:40:20.482920  1733 net.cpp:148] Top shape: 100 38 (3800)
I0403 14:40:20.482936  1733 net.cpp:156] Memory required for data: 831541200
I0403 14:40:20.482954  1733 layer_factory.hpp:77] Creating layer fc8_plantvillage_fc8_plantvillage_0_split
I0403 14:40:20.482975  1733 net.cpp:91] Creating Layer fc8_plantvillage_fc8_plantvillage_0_split
I0403 14:40:20.482991  1733 net.cpp:425] fc8_plantvillage_fc8_plantvillage_0_split <- fc8_plantvillage
I0403 14:40:20.483009  1733 net.cpp:399] fc8_plantvillage_fc8_plantvillage_0_split -> fc8_plantvillage_fc8_plantvillage_0_split_0
I0403 14:40:20.483029  1733 net.cpp:399] fc8_plantvillage_fc8_plantvillage_0_split -> fc8_plantvillage_fc8_plantvillage_0_split_1
I0403 14:40:20.483052  1733 net.cpp:399] fc8_plantvillage_fc8_plantvillage_0_split -> fc8_plantvillage_fc8_plantvillage_0_split_2
I0403 14:40:20.483127  1733 net.cpp:141] Setting up fc8_plantvillage_fc8_plantvillage_0_split
I0403 14:40:20.483150  1733 net.cpp:148] Top shape: 100 38 (3800)
I0403 14:40:20.483167  1733 net.cpp:148] Top shape: 100 38 (3800)
I0403 14:40:20.483183  1733 net.cpp:148] Top shape: 100 38 (3800)
I0403 14:40:20.483197  1733 net.cpp:156] Memory required for data: 831586800
I0403 14:40:20.483212  1733 layer_factory.hpp:77] Creating layer prob
I0403 14:40:20.483233  1733 net.cpp:91] Creating Layer prob
I0403 14:40:20.483250  1733 net.cpp:425] prob <- fc8_plantvillage_fc8_plantvillage_0_split_0
I0403 14:40:20.483268  1733 net.cpp:399] prob -> prob
I0403 14:40:20.483501  1733 net.cpp:141] Setting up prob
I0403 14:40:20.483527  1733 net.cpp:148] Top shape: 100 38 (3800)
I0403 14:40:20.483542  1733 net.cpp:156] Memory required for data: 831602000
I0403 14:40:20.483557  1733 layer_factory.hpp:77] Creating layer hdf5out
I0403 14:40:20.483579  1733 net.cpp:91] Creating Layer hdf5out
I0403 14:40:20.483595  1733 net.cpp:425] hdf5out <- prob
I0403 14:40:20.483613  1733 net.cpp:425] hdf5out <- label_data_1_split_0
I0403 14:40:20.485860  1733 net.cpp:141] Setting up hdf5out
…
