…
I0403 14:56:16.860298  2180 net.cpp:313] The NetState phase (1) differed from the phase (0) specified by a rule in layer data
I0403 14:56:16.860651  2180 net.cpp:49] Initializing net from parameters: 
state {
  phase: TEST
}
layer {
  name: "data"
  type: "Data"
  top: "data"
  top: "label"
  include {
    phase: TEST
  }
  transform_param {
    crop_size: 227
    mean_file: "/home/mohanty/data/final_dataset/lmdb/color-60-40/mean.binaryproto"
  }
  data_param {
    source: "/home/mohanty/data/final_dataset/lmdb/color-60-40/test_db"
    batch_size: 100
    backend: LMDB
  }
}
layer {
  name: "conv1"
  type: "Convolution"
  bottom: "data"
  top: "conv1"
  param {
    lr_mult: 1
    decay_mult: 1
  }
  param {
    lr_mult: 2
    decay_mult: 0
  }
  convolution_param {
    num_output: 96
    kernel_size: 11
    stride: 4
    weight_filler {
      type: "gaussian"
      std: 0.01
    }
    bias_filler {
      type: "constant"
      value: 0
    }
  }
}
layer {
  name: "relu1"
  type: "ReLU"
  bottom: "conv1"
  top: "conv1"
}
layer {
  name: "norm1"
  type: "LRN"
  bottom: "conv1"
  top: "norm1"
  lrn_param {
    local_size: 5
    alpha: 0.0001
    beta: 0.75
  }
}
layer {
  name: "pool1"
  type: "Pooling"
  bottom: "norm1"
  top: "pool1"
  pooling_param {
    pool: MAX
    kernel_size: 3
    stride: 2
  }
}
layer {
  name: "conv2"
  type: "Convolution"
  bottom: "pool1"
  top: "conv2"
  param {
    lr_mult: 1
    decay_mult: 1
  }
  param {
    lr_mult: 2
    decay_mult: 0
  }
  convolution_param {
    num_output: 256
    pad: 2
    kernel_size: 5
    group: 2
    weight_filler {
      type: "gaussian"
      std: 0.01
    }
    bias_filler {
      type: "constant"
      value: 0.1
    }
  }
}
layer {
  name: "relu2"
  type: "ReLU"
  bottom: "conv2"
  top: "conv2"
}
layer {
  name: "norm2"
  type: "LRN"
  bottom: "conv2"
  top: "norm2"
  lrn_param {
    local_size: 5
    alpha: 0.0001
    beta: 0.75
  }
}
layer {
  name: "pool2"
  type: "Pooling"
  bottom: "norm2"
  top: "pool2"
  pooling_param {
    pool: MAX
    kernel_size: 3
    stride: 2
  }
}
layer {
  name: "conv3"
  type: "Convolution"
  bottom: "pool2"
  top: "conv3"
  param {
    lr_mult: 1
    decay_mult: 1
  }
  param {
    lr_mult: 2
    decay_mult: 0
  }
  convolution_param {
    num_output: 384
    pad: 1
    kernel_size: 3
    weight_filler {
      type: "gaussian"
      std: 0.01
    }
    bias_filler {
      type: "constant"
      value: 0
    }
  }
}
layer {
  name: "relu3"
  type: "ReLU"
  bottom: "conv3"
  top: "conv3"
}
layer {
  name: "conv4"
  type: "Convolution"
  bottom: "conv3"
  top: "conv4"
  param {
    lr_mult: 1
    decay_mult: 1
  }
  param {
    lr_mult: 2
    decay_mult: 0
  }
  convolution_param {
    num_output: 384
    pad: 1
    kernel_size: 3
    group: 2
    weight_filler {
      type: "gaussian"
      std: 0.01
    }
    bias_filler {
      type: "constant"
      value: 0.1
    }
  }
}
layer {
  name: "relu4"
  type: "ReLU"
  bottom: "conv4"
  top: "conv4"
}
layer {
  name: "conv5"
  type: "Convolution"
  bottom: "conv4"
  top: "conv5"
  param {
    lr_mult: 1
    decay_mult: 1
  }
  param {
    lr_mult: 2
    decay_mult: 0
  }
  convolution_param {
    num_output: 256
    pad: 1
    kernel_size: 3
    group: 2
    weight_filler {
      type: "gaussian"
      std: 0.01
    }
    bias_filler {
      type: "constant"
      value: 0.1
    }
  }
}
layer {
  name: "relu5"
  type: "ReLU"
  bottom: "conv5"
  top: "conv5"
}
layer {
  name: "pool5"
  type: "Pooling"
  bottom: "conv5"
  top: "pool5"
  pooling_param {
    pool: MAX
    kernel_size: 3
    stride: 2
  }
}
layer {
  name: "fc6"
  type: "InnerProduct"
  bottom: "pool5"
  top: "fc6"
  param {
    lr_mult: 1
    decay_mult: 1
  }
  param {
    lr_mult: 2
    decay_mult: 0
  }
  inner_product_param {
    num_output: 4096
    weight_filler {
      type: "gaussian"
      std: 0.005
    }
    bias_filler {
      type: "constant"
      value: 0.1
    }
  }
}
layer {
  name: "relu6"
  type: "ReLU"
  bottom: "fc6"
  top: "fc6"
}
layer {
  name: "drop6"
  type: "Dropout"
  bottom: "fc6"
  top: "fc6"
  dropout_param {
    dropout_ratio: 0.5
  }
}
layer {
  name: "fc7"
  type: "InnerProduct"
  bottom: "fc6"
  top: "fc7"
  param {
    lr_mult: 1
    decay_mult: 1
  }
  param {
    lr_mult: 2
    decay_mult: 0
  }
  inner_product_param {
    num_output: 4096
    weight_filler {
      type: "gaussian"
      std: 0.005
    }
    bias_filler {
      type: "constant"
      value: 0.1
    }
  }
}
layer {
  name: "relu7"
  type: "ReLU"
  bottom: "fc7"
  top: "fc7"
}
layer {
  name: "drop7"
  type: "Dropout"
  bottom: "fc7"
  top: "fc7"
  dropout_param {
    dropout_ratio: 0.5
  }
}
layer {
  name: "fc8_plantvillage"
  type: "InnerProduct"
  bottom: "fc7"
  top: "fc8_plantvillage"
  param {
    lr_mult: 1
    decay_mult: 1
  }
  param {
    lr_mult: 2
    decay_mult: 0
  }
  inner_product_param {
    num_output: 38
    weight_filler {
      type: "gaussian"
      std: 0.01
    }
    bias_filler {
      type: "constant"
      value: 0
    }
  }
}
layer {
  name: "prob"
  type: "Softmax"
  bottom: "fc8_plantvillage"
  top: "prob"
  include {
    phase: TEST
  }
}
layer {
  name: "hdf5out"
  type: "HDF5Output"
  bottom: "prob"
  bottom: "label"
  include {
    phase: TEST
  }
  hdf5_output_param {
    file_name: "hdf5_dumps/iter_9750.h5"
  }
}
layer {
  name: "loss"
  type: "SoftmaxWithLoss"
  bottom: "fc8_plantvillage"
  bottom: "label"
  top: "loss"
}
layer {
  name: "accuracy"
  type: "Accuracy"
  bottom: "fc8_plantvillage"
  bottom: "label"
  top: "accuracy"
  include {
    phase: TEST
  }
}
I0403 14:56:16.861246  2180 layer_factory.hpp:77] Creating layer data
I0403 14:56:16.861917  2180 net.cpp:91] Creating Layer data
I0403 14:56:16.861949  2180 net.cpp:399] data -> data
I0403 14:56:16.862001  2180 net.cpp:399] data -> label
I0403 14:56:16.862038  2180 data_transformer.cpp:25] Loading mean file from: /home/mohanty/data/final_dataset/lmdb/color-60-40/mean.binaryproto
I0403 14:56:16.876123  2183 db_lmdb.cpp:38] Opened lmdb /home/mohanty/data/final_dataset/lmdb/color-60-40/test_db
I0403 14:56:16.878206  2180 data_layer.cpp:41] output data size: 100,3,227,227
I0403 14:56:17.011430  2180 net.cpp:141] Setting up data
I0403 14:56:17.011489  2180 net.cpp:148] Top shape: 100 3 227 227 (15458700)
I0403 14:56:17.011512  2180 net.cpp:148] Top shape: 100 (100)
I0403 14:56:17.011528  2180 net.cpp:156] Memory required for data: 61835200
I0403 14:56:17.011555  2180 layer_factory.hpp:77] Creating layer label_data_1_split
I0403 14:56:17.011580  2180 net.cpp:91] Creating Layer label_data_1_split
I0403 14:56:17.011598  2180 net.cpp:425] label_data_1_split <- label
I0403 14:56:17.011629  2180 net.cpp:399] label_data_1_split -> label_data_1_split_0
I0403 14:56:17.011656  2180 net.cpp:399] label_data_1_split -> label_data_1_split_1
I0403 14:56:17.011677  2180 net.cpp:399] label_data_1_split -> label_data_1_split_2
I0403 14:56:17.011741  2180 net.cpp:141] Setting up label_data_1_split
I0403 14:56:17.011765  2180 net.cpp:148] Top shape: 100 (100)
I0403 14:56:17.011781  2180 net.cpp:148] Top shape: 100 (100)
I0403 14:56:17.011798  2180 net.cpp:148] Top shape: 100 (100)
I0403 14:56:17.011812  2180 net.cpp:156] Memory required for data: 61836400
I0403 14:56:17.011828  2180 layer_factory.hpp:77] Creating layer conv1
I0403 14:56:17.011860  2180 net.cpp:91] Creating Layer conv1
I0403 14:56:17.011878  2180 net.cpp:425] conv1 <- data
I0403 14:56:17.011898  2180 net.cpp:399] conv1 -> conv1
I0403 14:56:17.157616  2180 net.cpp:141] Setting up conv1
I0403 14:56:17.157704  2180 net.cpp:148] Top shape: 100 96 55 55 (29040000)
I0403 14:56:17.157722  2180 net.cpp:156] Memory required for data: 177996400
I0403 14:56:17.157755  2180 layer_factory.hpp:77] Creating layer relu1
I0403 14:56:17.157783  2180 net.cpp:91] Creating Layer relu1
I0403 14:56:17.157804  2180 net.cpp:425] relu1 <- conv1
I0403 14:56:17.157824  2180 net.cpp:386] relu1 -> conv1 (in-place)
I0403 14:56:17.158092  2180 net.cpp:141] Setting up relu1
I0403 14:56:17.158120  2180 net.cpp:148] Top shape: 100 96 55 55 (29040000)
I0403 14:56:17.158136  2180 net.cpp:156] Memory required for data: 294156400
I0403 14:56:17.158186  2180 layer_factory.hpp:77] Creating layer norm1
I0403 14:56:17.158217  2180 net.cpp:91] Creating Layer norm1
I0403 14:56:17.158237  2180 net.cpp:425] norm1 <- conv1
I0403 14:56:17.158255  2180 net.cpp:399] norm1 -> norm1
I0403 14:56:17.158586  2180 net.cpp:141] Setting up norm1
I0403 14:56:17.158614  2180 net.cpp:148] Top shape: 100 96 55 55 (29040000)
I0403 14:56:17.158630  2180 net.cpp:156] Memory required for data: 410316400
I0403 14:56:17.158646  2180 layer_factory.hpp:77] Creating layer pool1
I0403 14:56:17.158671  2180 net.cpp:91] Creating Layer pool1
I0403 14:56:17.158689  2180 net.cpp:425] pool1 <- norm1
I0403 14:56:17.158709  2180 net.cpp:399] pool1 -> pool1
I0403 14:56:17.158777  2180 net.cpp:141] Setting up pool1
I0403 14:56:17.158802  2180 net.cpp:148] Top shape: 100 96 27 27 (6998400)
I0403 14:56:17.158818  2180 net.cpp:156] Memory required for data: 438310000
I0403 14:56:17.158833  2180 layer_factory.hpp:77] Creating layer conv2
I0403 14:56:17.158857  2180 net.cpp:91] Creating Layer conv2
I0403 14:56:17.158874  2180 net.cpp:425] conv2 <- pool1
I0403 14:56:17.158893  2180 net.cpp:399] conv2 -> conv2
I0403 14:56:17.174703  2180 net.cpp:141] Setting up conv2
I0403 14:56:17.174751  2180 net.cpp:148] Top shape: 100 256 27 27 (18662400)
I0403 14:56:17.174769  2180 net.cpp:156] Memory required for data: 512959600
I0403 14:56:17.174793  2180 layer_factory.hpp:77] Creating layer relu2
I0403 14:56:17.174815  2180 net.cpp:91] Creating Layer relu2
I0403 14:56:17.174832  2180 net.cpp:425] relu2 <- conv2
I0403 14:56:17.174850  2180 net.cpp:386] relu2 -> conv2 (in-place)
I0403 14:56:17.175129  2180 net.cpp:141] Setting up relu2
I0403 14:56:17.175158  2180 net.cpp:148] Top shape: 100 256 27 27 (18662400)
I0403 14:56:17.175174  2180 net.cpp:156] Memory required for data: 587609200
I0403 14:56:17.175191  2180 layer_factory.hpp:77] Creating layer norm2
I0403 14:56:17.175215  2180 net.cpp:91] Creating Layer norm2
I0403 14:56:17.175231  2180 net.cpp:425] norm2 <- conv2
I0403 14:56:17.175251  2180 net.cpp:399] norm2 -> norm2
I0403 14:56:17.175448  2180 net.cpp:141] Setting up norm2
I0403 14:56:17.175475  2180 net.cpp:148] Top shape: 100 256 27 27 (18662400)
I0403 14:56:17.175490  2180 net.cpp:156] Memory required for data: 662258800
I0403 14:56:17.175505  2180 layer_factory.hpp:77] Creating layer pool2
I0403 14:56:17.175525  2180 net.cpp:91] Creating Layer pool2
I0403 14:56:17.175541  2180 net.cpp:425] pool2 <- norm2
I0403 14:56:17.175564  2180 net.cpp:399] pool2 -> pool2
I0403 14:56:17.175658  2180 net.cpp:141] Setting up pool2
I0403 14:56:17.175683  2180 net.cpp:148] Top shape: 100 256 13 13 (4326400)
I0403 14:56:17.175699  2180 net.cpp:156] Memory required for data: 679564400
I0403 14:56:17.175715  2180 layer_factory.hpp:77] Creating layer conv3
I0403 14:56:17.175739  2180 net.cpp:91] Creating Layer conv3
I0403 14:56:17.175755  2180 net.cpp:425] conv3 <- pool2
I0403 14:56:17.175775  2180 net.cpp:399] conv3 -> conv3
I0403 14:56:17.216174  2180 net.cpp:141] Setting up conv3
I0403 14:56:17.216246  2180 net.cpp:148] Top shape: 100 384 13 13 (6489600)
I0403 14:56:17.216274  2180 net.cpp:156] Memory required for data: 705522800
I0403 14:56:17.216301  2180 layer_factory.hpp:77] Creating layer relu3
I0403 14:56:17.216325  2180 net.cpp:91] Creating Layer relu3
I0403 14:56:17.216342  2180 net.cpp:425] relu3 <- conv3
I0403 14:56:17.216361  2180 net.cpp:386] relu3 -> conv3 (in-place)
I0403 14:56:17.216652  2180 net.cpp:141] Setting up relu3
I0403 14:56:17.216684  2180 net.cpp:148] Top shape: 100 384 13 13 (6489600)
I0403 14:56:17.216703  2180 net.cpp:156] Memory required for data: 731481200
I0403 14:56:17.216720  2180 layer_factory.hpp:77] Creating layer conv4
I0403 14:56:17.216748  2180 net.cpp:91] Creating Layer conv4
I0403 14:56:17.216768  2180 net.cpp:425] conv4 <- conv3
I0403 14:56:17.216789  2180 net.cpp:399] conv4 -> conv4
I0403 14:56:17.253963  2180 net.cpp:141] Setting up conv4
I0403 14:56:17.254004  2180 net.cpp:148] Top shape: 100 384 13 13 (6489600)
I0403 14:56:17.254053  2180 net.cpp:156] Memory required for data: 757439600
I0403 14:56:17.254114  2180 layer_factory.hpp:77] Creating layer relu4
I0403 14:56:17.254144  2180 net.cpp:91] Creating Layer relu4
I0403 14:56:17.254164  2180 net.cpp:425] relu4 <- conv4
I0403 14:56:17.254185  2180 net.cpp:386] relu4 -> conv4 (in-place)
I0403 14:56:17.254485  2180 net.cpp:141] Setting up relu4
I0403 14:56:17.254513  2180 net.cpp:148] Top shape: 100 384 13 13 (6489600)
I0403 14:56:17.254529  2180 net.cpp:156] Memory required for data: 783398000
I0403 14:56:17.254545  2180 layer_factory.hpp:77] Creating layer conv5
I0403 14:56:17.254572  2180 net.cpp:91] Creating Layer conv5
I0403 14:56:17.254590  2180 net.cpp:425] conv5 <- conv4
I0403 14:56:17.254611  2180 net.cpp:399] conv5 -> conv5
I0403 14:56:17.276286  2180 net.cpp:141] Setting up conv5
I0403 14:56:17.276337  2180 net.cpp:148] Top shape: 100 256 13 13 (4326400)
I0403 14:56:17.276355  2180 net.cpp:156] Memory required for data: 800703600
I0403 14:56:17.276379  2180 layer_factory.hpp:77] Creating layer relu5
I0403 14:56:17.276403  2180 net.cpp:91] Creating Layer relu5
I0403 14:56:17.276422  2180 net.cpp:425] relu5 <- conv5
I0403 14:56:17.276442  2180 net.cpp:386] relu5 -> conv5 (in-place)
I0403 14:56:17.276739  2180 net.cpp:141] Setting up relu5
I0403 14:56:17.276767  2180 net.cpp:148] Top shape: 100 256 13 13 (4326400)
I0403 14:56:17.276782  2180 net.cpp:156] Memory required for data: 818009200
I0403 14:56:17.276798  2180 layer_factory.hpp:77] Creating layer pool5
I0403 14:56:17.276823  2180 net.cpp:91] Creating Layer pool5
I0403 14:56:17.276840  2180 net.cpp:425] pool5 <- conv5
I0403 14:56:17.276861  2180 net.cpp:399] pool5 -> pool5
I0403 14:56:17.276924  2180 net.cpp:141] Setting up pool5
I0403 14:56:17.276947  2180 net.cpp:148] Top shape: 100 256 6 6 (921600)
I0403 14:56:17.276963  2180 net.cpp:156] Memory required for data: 821695600
I0403 14:56:17.276978  2180 layer_factory.hpp:77] Creating layer fc6
I0403 14:56:17.277009  2180 net.cpp:91] Creating Layer fc6
I0403 14:56:17.277027  2180 net.cpp:425] fc6 <- pool5
I0403 14:56:17.277048  2180 net.cpp:399] fc6 -> fc6
I0403 14:56:18.866612  2180 net.cpp:141] Setting up fc6
I0403 14:56:18.866653  2180 net.cpp:148] Top shape: 100 4096 (409600)
I0403 14:56:18.866669  2180 net.cpp:156] Memory required for data: 823334000
I0403 14:56:18.866689  2180 layer_factory.hpp:77] Creating layer relu6
I0403 14:56:18.866714  2180 net.cpp:91] Creating Layer relu6
I0403 14:56:18.866731  2180 net.cpp:425] relu6 <- fc6
I0403 14:56:18.866750  2180 net.cpp:386] relu6 -> fc6 (in-place)
I0403 14:56:18.866958  2180 net.cpp:141] Setting up relu6
I0403 14:56:18.866982  2180 net.cpp:148] Top shape: 100 4096 (409600)
I0403 14:56:18.866997  2180 net.cpp:156] Memory required for data: 824972400
I0403 14:56:18.867010  2180 layer_factory.hpp:77] Creating layer drop6
I0403 14:56:18.867032  2180 net.cpp:91] Creating Layer drop6
I0403 14:56:18.867048  2180 net.cpp:425] drop6 <- fc6
I0403 14:56:18.867064  2180 net.cpp:386] drop6 -> fc6 (in-place)
I0403 14:56:18.867115  2180 net.cpp:141] Setting up drop6
I0403 14:56:18.867137  2180 net.cpp:148] Top shape: 100 4096 (409600)
I0403 14:56:18.867151  2180 net.cpp:156] Memory required for data: 826610800
I0403 14:56:18.867166  2180 layer_factory.hpp:77] Creating layer fc7
I0403 14:56:18.867187  2180 net.cpp:91] Creating Layer fc7
I0403 14:56:18.867202  2180 net.cpp:425] fc7 <- fc6
I0403 14:56:18.867218  2180 net.cpp:399] fc7 -> fc7
I0403 14:56:19.549340  2180 net.cpp:141] Setting up fc7
I0403 14:56:19.549407  2180 net.cpp:148] Top shape: 100 4096 (409600)
I0403 14:56:19.549424  2180 net.cpp:156] Memory required for data: 828249200
I0403 14:56:19.549445  2180 layer_factory.hpp:77] Creating layer relu7
I0403 14:56:19.549468  2180 net.cpp:91] Creating Layer relu7
I0403 14:56:19.549485  2180 net.cpp:425] relu7 <- fc7
I0403 14:56:19.549505  2180 net.cpp:386] relu7 -> fc7 (in-place)
I0403 14:56:19.549929  2180 net.cpp:141] Setting up relu7
I0403 14:56:19.549957  2180 net.cpp:148] Top shape: 100 4096 (409600)
I0403 14:56:19.550021  2180 net.cpp:156] Memory required for data: 829887600
I0403 14:56:19.550039  2180 layer_factory.hpp:77] Creating layer drop7
I0403 14:56:19.550060  2180 net.cpp:91] Creating Layer drop7
I0403 14:56:19.550074  2180 net.cpp:425] drop7 <- fc7
I0403 14:56:19.550092  2180 net.cpp:386] drop7 -> fc7 (in-place)
I0403 14:56:19.550148  2180 net.cpp:141] Setting up drop7
I0403 14:56:19.550171  2180 net.cpp:148] Top shape: 100 4096 (409600)
I0403 14:56:19.550186  2180 net.cpp:156] Memory required for data: 831526000
I0403 14:56:19.550202  2180 layer_factory.hpp:77] Creating layer fc8_plantvillage
I0403 14:56:19.550230  2180 net.cpp:91] Creating Layer fc8_plantvillage
I0403 14:56:19.550247  2180 net.cpp:425] fc8_plantvillage <- fc7
I0403 14:56:19.550266  2180 net.cpp:399] fc8_plantvillage -> fc8_plantvillage
I0403 14:56:19.557309  2180 net.cpp:141] Setting up fc8_plantvillage
I0403 14:56:19.557340  2180 net.cpp:148] Top shape: 100 38 (3800)
I0403 14:56:19.557356  2180 net.cpp:156] Memory required for data: 831541200
I0403 14:56:19.557374  2180 layer_factory.hpp:77] Creating layer fc8_plantvillage_fc8_plantvillage_0_split
I0403 14:56:19.557395  2180 net.cpp:91] Creating Layer fc8_plantvillage_fc8_plantvillage_0_split
I0403 14:56:19.557413  2180 net.cpp:425] fc8_plantvillage_fc8_plantvillage_0_split <- fc8_plantvillage
I0403 14:56:19.557431  2180 net.cpp:399] fc8_plantvillage_fc8_plantvillage_0_split -> fc8_plantvillage_fc8_plantvillage_0_split_0
I0403 14:56:19.557456  2180 net.cpp:399] fc8_plantvillage_fc8_plantvillage_0_split -> fc8_plantvillage_fc8_plantvillage_0_split_1
I0403 14:56:19.557476  2180 net.cpp:399] fc8_plantvillage_fc8_plantvillage_0_split -> fc8_plantvillage_fc8_plantvillage_0_split_2
I0403 14:56:19.557556  2180 net.cpp:141] Setting up fc8_plantvillage_fc8_plantvillage_0_split
I0403 14:56:19.557579  2180 net.cpp:148] Top shape: 100 38 (3800)
I0403 14:56:19.557596  2180 net.cpp:148] Top shape: 100 38 (3800)
I0403 14:56:19.557611  2180 net.cpp:148] Top shape: 100 38 (3800)
I0403 14:56:19.557626  2180 net.cpp:156] Memory required for data: 831586800
I0403 14:56:19.557639  2180 layer_factory.hpp:77] Creating layer prob
I0403 14:56:19.557660  2180 net.cpp:91] Creating Layer prob
I0403 14:56:19.557677  2180 net.cpp:425] prob <- fc8_plantvillage_fc8_plantvillage_0_split_0
I0403 14:56:19.557695  2180 net.cpp:399] prob -> prob
I0403 14:56:19.557929  2180 net.cpp:141] Setting up prob
I0403 14:56:19.557955  2180 net.cpp:148] Top shape: 100 38 (3800)
I0403 14:56:19.557970  2180 net.cpp:156] Memory required for data: 831602000
I0403 14:56:19.557984  2180 layer_factory.hpp:77] Creating layer hdf5out
I0403 14:56:19.558007  2180 net.cpp:91] Creating Layer hdf5out
I0403 14:56:19.558022  2180 net.cpp:425] hdf5out <- prob
I0403 14:56:19.558039  2180 net.cpp:425] hdf5out <- label_data_1_split_0
I0403 14:56:19.560555  2180 net.cpp:141] Setting up hdf5out
…
