…
I0403 14:38:46.290225  1691 net.cpp:313] The NetState phase (1) differed from the phase (0) specified by a rule in layer data
I0403 14:38:46.290558  1691 net.cpp:49] Initializing net from parameters: 
state {
  phase: TEST
}
layer {
  name: "data"
  type: "Data"
  top: "data"
  top: "label"
  include {
    phase: TEST
  }
  transform_param {
    crop_size: 227
    mean_file: "/home/mohanty/data/final_dataset/lmdb/color-60-40/mean.binaryproto"
  }
  data_param {
    source: "/home/mohanty/data/final_dataset/lmdb/color-60-40/test_db"
    batch_size: 100
    backend: LMDB
  }
}
layer {
  name: "conv1"
  type: "Convolution"
  bottom: "data"
  top: "conv1"
  param {
    lr_mult: 1
    decay_mult: 1
  }
  param {
    lr_mult: 2
    decay_mult: 0
  }
  convolution_param {
    num_output: 96
    kernel_size: 11
    stride: 4
    weight_filler {
      type: "gaussian"
      std: 0.01
    }
    bias_filler {
      type: "constant"
      value: 0
    }
  }
}
layer {
  name: "relu1"
  type: "ReLU"
  bottom: "conv1"
  top: "conv1"
}
layer {
  name: "norm1"
  type: "LRN"
  bottom: "conv1"
  top: "norm1"
  lrn_param {
    local_size: 5
    alpha: 0.0001
    beta: 0.75
  }
}
layer {
  name: "pool1"
  type: "Pooling"
  bottom: "norm1"
  top: "pool1"
  pooling_param {
    pool: MAX
    kernel_size: 3
    stride: 2
  }
}
layer {
  name: "conv2"
  type: "Convolution"
  bottom: "pool1"
  top: "conv2"
  param {
    lr_mult: 1
    decay_mult: 1
  }
  param {
    lr_mult: 2
    decay_mult: 0
  }
  convolution_param {
    num_output: 256
    pad: 2
    kernel_size: 5
    group: 2
    weight_filler {
      type: "gaussian"
      std: 0.01
    }
    bias_filler {
      type: "constant"
      value: 0.1
    }
  }
}
layer {
  name: "relu2"
  type: "ReLU"
  bottom: "conv2"
  top: "conv2"
}
layer {
  name: "norm2"
  type: "LRN"
  bottom: "conv2"
  top: "norm2"
  lrn_param {
    local_size: 5
    alpha: 0.0001
    beta: 0.75
  }
}
layer {
  name: "pool2"
  type: "Pooling"
  bottom: "norm2"
  top: "pool2"
  pooling_param {
    pool: MAX
    kernel_size: 3
    stride: 2
  }
}
layer {
  name: "conv3"
  type: "Convolution"
  bottom: "pool2"
  top: "conv3"
  param {
    lr_mult: 1
    decay_mult: 1
  }
  param {
    lr_mult: 2
    decay_mult: 0
  }
  convolution_param {
    num_output: 384
    pad: 1
    kernel_size: 3
    weight_filler {
      type: "gaussian"
      std: 0.01
    }
    bias_filler {
      type: "constant"
      value: 0
    }
  }
}
layer {
  name: "relu3"
  type: "ReLU"
  bottom: "conv3"
  top: "conv3"
}
layer {
  name: "conv4"
  type: "Convolution"
  bottom: "conv3"
  top: "conv4"
  param {
    lr_mult: 1
    decay_mult: 1
  }
  param {
    lr_mult: 2
    decay_mult: 0
  }
  convolution_param {
    num_output: 384
    pad: 1
    kernel_size: 3
    group: 2
    weight_filler {
      type: "gaussian"
      std: 0.01
    }
    bias_filler {
      type: "constant"
      value: 0.1
    }
  }
}
layer {
  name: "relu4"
  type: "ReLU"
  bottom: "conv4"
  top: "conv4"
}
layer {
  name: "conv5"
  type: "Convolution"
  bottom: "conv4"
  top: "conv5"
  param {
    lr_mult: 1
    decay_mult: 1
  }
  param {
    lr_mult: 2
    decay_mult: 0
  }
  convolution_param {
    num_output: 256
    pad: 1
    kernel_size: 3
    group: 2
    weight_filler {
      type: "gaussian"
      std: 0.01
    }
    bias_filler {
      type: "constant"
      value: 0.1
    }
  }
}
layer {
  name: "relu5"
  type: "ReLU"
  bottom: "conv5"
  top: "conv5"
}
layer {
  name: "pool5"
  type: "Pooling"
  bottom: "conv5"
  top: "pool5"
  pooling_param {
    pool: MAX
    kernel_size: 3
    stride: 2
  }
}
layer {
  name: "fc6"
  type: "InnerProduct"
  bottom: "pool5"
  top: "fc6"
  param {
    lr_mult: 1
    decay_mult: 1
  }
  param {
    lr_mult: 2
    decay_mult: 0
  }
  inner_product_param {
    num_output: 4096
    weight_filler {
      type: "gaussian"
      std: 0.005
    }
    bias_filler {
      type: "constant"
      value: 0.1
    }
  }
}
layer {
  name: "relu6"
  type: "ReLU"
  bottom: "fc6"
  top: "fc6"
}
layer {
  name: "drop6"
  type: "Dropout"
  bottom: "fc6"
  top: "fc6"
  dropout_param {
    dropout_ratio: 0.5
  }
}
layer {
  name: "fc7"
  type: "InnerProduct"
  bottom: "fc6"
  top: "fc7"
  param {
    lr_mult: 1
    decay_mult: 1
  }
  param {
    lr_mult: 2
    decay_mult: 0
  }
  inner_product_param {
    num_output: 4096
    weight_filler {
      type: "gaussian"
      std: 0.005
    }
    bias_filler {
      type: "constant"
      value: 0.1
    }
  }
}
layer {
  name: "relu7"
  type: "ReLU"
  bottom: "fc7"
  top: "fc7"
}
layer {
  name: "drop7"
  type: "Dropout"
  bottom: "fc7"
  top: "fc7"
  dropout_param {
    dropout_ratio: 0.5
  }
}
layer {
  name: "fc8_plantvillage"
  type: "InnerProduct"
  bottom: "fc7"
  top: "fc8_plantvillage"
  param {
    lr_mult: 1
    decay_mult: 1
  }
  param {
    lr_mult: 2
    decay_mult: 0
  }
  inner_product_param {
    num_output: 38
    weight_filler {
      type: "gaussian"
      std: 0.01
    }
    bias_filler {
      type: "constant"
      value: 0
    }
  }
}
layer {
  name: "prob"
  type: "Softmax"
  bottom: "fc8_plantvillage"
  top: "prob"
  include {
    phase: TEST
  }
}
layer {
  name: "hdf5out"
  type: "HDF5Output"
  bottom: "prob"
  bottom: "label"
  include {
    phase: TEST
  }
  hdf5_output_param {
    file_name: "hdf5_dumps/iter_2275.h5"
  }
}
layer {
  name: "loss"
  type: "SoftmaxWithLoss"
  bottom: "fc8_plantvillage"
  bottom: "label"
  top: "loss"
}
layer {
  name: "accuracy"
  type: "Accuracy"
  bottom: "fc8_plantvillage"
  bottom: "label"
  top: "accuracy"
  include {
    phase: TEST
  }
}
I0403 14:38:46.291131  1691 layer_factory.hpp:77] Creating layer data
I0403 14:38:46.291790  1691 net.cpp:91] Creating Layer data
I0403 14:38:46.291826  1691 net.cpp:399] data -> data
I0403 14:38:46.291878  1691 net.cpp:399] data -> label
I0403 14:38:46.291915  1691 data_transformer.cpp:25] Loading mean file from: /home/mohanty/data/final_dataset/lmdb/color-60-40/mean.binaryproto
I0403 14:38:46.294957  1694 db_lmdb.cpp:38] Opened lmdb /home/mohanty/data/final_dataset/lmdb/color-60-40/test_db
I0403 14:38:46.306628  1691 data_layer.cpp:41] output data size: 100,3,227,227
I0403 14:38:46.430694  1691 net.cpp:141] Setting up data
I0403 14:38:46.430802  1691 net.cpp:148] Top shape: 100 3 227 227 (15458700)
I0403 14:38:46.430825  1691 net.cpp:148] Top shape: 100 (100)
I0403 14:38:46.430841  1691 net.cpp:156] Memory required for data: 61835200
I0403 14:38:46.430871  1691 layer_factory.hpp:77] Creating layer label_data_1_split
I0403 14:38:46.430896  1691 net.cpp:91] Creating Layer label_data_1_split
I0403 14:38:46.430915  1691 net.cpp:425] label_data_1_split <- label
I0403 14:38:46.430948  1691 net.cpp:399] label_data_1_split -> label_data_1_split_0
I0403 14:38:46.430975  1691 net.cpp:399] label_data_1_split -> label_data_1_split_1
I0403 14:38:46.430997  1691 net.cpp:399] label_data_1_split -> label_data_1_split_2
I0403 14:38:46.431063  1691 net.cpp:141] Setting up label_data_1_split
I0403 14:38:46.431087  1691 net.cpp:148] Top shape: 100 (100)
I0403 14:38:46.431105  1691 net.cpp:148] Top shape: 100 (100)
I0403 14:38:46.431123  1691 net.cpp:148] Top shape: 100 (100)
I0403 14:38:46.431138  1691 net.cpp:156] Memory required for data: 61836400
I0403 14:38:46.431152  1691 layer_factory.hpp:77] Creating layer conv1
I0403 14:38:46.431185  1691 net.cpp:91] Creating Layer conv1
I0403 14:38:46.431205  1691 net.cpp:425] conv1 <- data
I0403 14:38:46.431224  1691 net.cpp:399] conv1 -> conv1
I0403 14:38:46.575978  1691 net.cpp:141] Setting up conv1
I0403 14:38:46.576063  1691 net.cpp:148] Top shape: 100 96 55 55 (29040000)
I0403 14:38:46.576081  1691 net.cpp:156] Memory required for data: 177996400
I0403 14:38:46.576114  1691 layer_factory.hpp:77] Creating layer relu1
I0403 14:38:46.576143  1691 net.cpp:91] Creating Layer relu1
I0403 14:38:46.576162  1691 net.cpp:425] relu1 <- conv1
I0403 14:38:46.576181  1691 net.cpp:386] relu1 -> conv1 (in-place)
I0403 14:38:46.576472  1691 net.cpp:141] Setting up relu1
I0403 14:38:46.576503  1691 net.cpp:148] Top shape: 100 96 55 55 (29040000)
I0403 14:38:46.576519  1691 net.cpp:156] Memory required for data: 294156400
I0403 14:38:46.576581  1691 layer_factory.hpp:77] Creating layer norm1
I0403 14:38:46.576616  1691 net.cpp:91] Creating Layer norm1
I0403 14:38:46.576635  1691 net.cpp:425] norm1 <- conv1
I0403 14:38:46.576658  1691 net.cpp:399] norm1 -> norm1
I0403 14:38:46.576998  1691 net.cpp:141] Setting up norm1
I0403 14:38:46.577028  1691 net.cpp:148] Top shape: 100 96 55 55 (29040000)
I0403 14:38:46.577044  1691 net.cpp:156] Memory required for data: 410316400
I0403 14:38:46.577060  1691 layer_factory.hpp:77] Creating layer pool1
I0403 14:38:46.577085  1691 net.cpp:91] Creating Layer pool1
I0403 14:38:46.577102  1691 net.cpp:425] pool1 <- norm1
I0403 14:38:46.577124  1691 net.cpp:399] pool1 -> pool1
I0403 14:38:46.577198  1691 net.cpp:141] Setting up pool1
I0403 14:38:46.577225  1691 net.cpp:148] Top shape: 100 96 27 27 (6998400)
I0403 14:38:46.577241  1691 net.cpp:156] Memory required for data: 438310000
I0403 14:38:46.577257  1691 layer_factory.hpp:77] Creating layer conv2
I0403 14:38:46.577291  1691 net.cpp:91] Creating Layer conv2
I0403 14:38:46.577311  1691 net.cpp:425] conv2 <- pool1
I0403 14:38:46.577332  1691 net.cpp:399] conv2 -> conv2
I0403 14:38:46.592830  1691 net.cpp:141] Setting up conv2
I0403 14:38:46.592871  1691 net.cpp:148] Top shape: 100 256 27 27 (18662400)
I0403 14:38:46.592890  1691 net.cpp:156] Memory required for data: 512959600
I0403 14:38:46.592912  1691 layer_factory.hpp:77] Creating layer relu2
I0403 14:38:46.592932  1691 net.cpp:91] Creating Layer relu2
I0403 14:38:46.592948  1691 net.cpp:425] relu2 <- conv2
I0403 14:38:46.592970  1691 net.cpp:386] relu2 -> conv2 (in-place)
I0403 14:38:46.593269  1691 net.cpp:141] Setting up relu2
I0403 14:38:46.593302  1691 net.cpp:148] Top shape: 100 256 27 27 (18662400)
I0403 14:38:46.593318  1691 net.cpp:156] Memory required for data: 587609200
I0403 14:38:46.593334  1691 layer_factory.hpp:77] Creating layer norm2
I0403 14:38:46.593358  1691 net.cpp:91] Creating Layer norm2
I0403 14:38:46.593376  1691 net.cpp:425] norm2 <- conv2
I0403 14:38:46.593401  1691 net.cpp:399] norm2 -> norm2
I0403 14:38:46.593616  1691 net.cpp:141] Setting up norm2
I0403 14:38:46.593643  1691 net.cpp:148] Top shape: 100 256 27 27 (18662400)
I0403 14:38:46.593659  1691 net.cpp:156] Memory required for data: 662258800
I0403 14:38:46.593675  1691 layer_factory.hpp:77] Creating layer pool2
I0403 14:38:46.593694  1691 net.cpp:91] Creating Layer pool2
I0403 14:38:46.593711  1691 net.cpp:425] pool2 <- norm2
I0403 14:38:46.593732  1691 net.cpp:399] pool2 -> pool2
I0403 14:38:46.593788  1691 net.cpp:141] Setting up pool2
I0403 14:38:46.593813  1691 net.cpp:148] Top shape: 100 256 13 13 (4326400)
I0403 14:38:46.593829  1691 net.cpp:156] Memory required for data: 679564400
I0403 14:38:46.593845  1691 layer_factory.hpp:77] Creating layer conv3
I0403 14:38:46.593871  1691 net.cpp:91] Creating Layer conv3
I0403 14:38:46.593889  1691 net.cpp:425] conv3 <- pool2
I0403 14:38:46.593909  1691 net.cpp:399] conv3 -> conv3
I0403 14:38:46.639482  1691 net.cpp:141] Setting up conv3
I0403 14:38:46.639565  1691 net.cpp:148] Top shape: 100 384 13 13 (6489600)
I0403 14:38:46.639583  1691 net.cpp:156] Memory required for data: 705522800
I0403 14:38:46.639611  1691 layer_factory.hpp:77] Creating layer relu3
I0403 14:38:46.639634  1691 net.cpp:91] Creating Layer relu3
I0403 14:38:46.639657  1691 net.cpp:425] relu3 <- conv3
I0403 14:38:46.639677  1691 net.cpp:386] relu3 -> conv3 (in-place)
I0403 14:38:46.639974  1691 net.cpp:141] Setting up relu3
I0403 14:38:46.640002  1691 net.cpp:148] Top shape: 100 384 13 13 (6489600)
I0403 14:38:46.640018  1691 net.cpp:156] Memory required for data: 731481200
I0403 14:38:46.640034  1691 layer_factory.hpp:77] Creating layer conv4
I0403 14:38:46.640064  1691 net.cpp:91] Creating Layer conv4
I0403 14:38:46.640082  1691 net.cpp:425] conv4 <- conv3
I0403 14:38:46.640105  1691 net.cpp:399] conv4 -> conv4
I0403 14:38:46.670855  1691 net.cpp:141] Setting up conv4
I0403 14:38:46.670920  1691 net.cpp:148] Top shape: 100 384 13 13 (6489600)
I0403 14:38:46.670985  1691 net.cpp:156] Memory required for data: 757439600
I0403 14:38:46.671008  1691 layer_factory.hpp:77] Creating layer relu4
I0403 14:38:46.671031  1691 net.cpp:91] Creating Layer relu4
I0403 14:38:46.671051  1691 net.cpp:425] relu4 <- conv4
I0403 14:38:46.671072  1691 net.cpp:386] relu4 -> conv4 (in-place)
I0403 14:38:46.671366  1691 net.cpp:141] Setting up relu4
I0403 14:38:46.671403  1691 net.cpp:148] Top shape: 100 384 13 13 (6489600)
I0403 14:38:46.671422  1691 net.cpp:156] Memory required for data: 783398000
I0403 14:38:46.671438  1691 layer_factory.hpp:77] Creating layer conv5
I0403 14:38:46.671465  1691 net.cpp:91] Creating Layer conv5
I0403 14:38:46.671483  1691 net.cpp:425] conv5 <- conv4
I0403 14:38:46.671504  1691 net.cpp:399] conv5 -> conv5
I0403 14:38:46.692582  1691 net.cpp:141] Setting up conv5
I0403 14:38:46.692620  1691 net.cpp:148] Top shape: 100 256 13 13 (4326400)
I0403 14:38:46.692638  1691 net.cpp:156] Memory required for data: 800703600
I0403 14:38:46.692663  1691 layer_factory.hpp:77] Creating layer relu5
I0403 14:38:46.692685  1691 net.cpp:91] Creating Layer relu5
I0403 14:38:46.692704  1691 net.cpp:425] relu5 <- conv5
I0403 14:38:46.692729  1691 net.cpp:386] relu5 -> conv5 (in-place)
I0403 14:38:46.693018  1691 net.cpp:141] Setting up relu5
I0403 14:38:46.693048  1691 net.cpp:148] Top shape: 100 256 13 13 (4326400)
I0403 14:38:46.693065  1691 net.cpp:156] Memory required for data: 818009200
I0403 14:38:46.693083  1691 layer_factory.hpp:77] Creating layer pool5
I0403 14:38:46.693109  1691 net.cpp:91] Creating Layer pool5
I0403 14:38:46.693128  1691 net.cpp:425] pool5 <- conv5
I0403 14:38:46.693150  1691 net.cpp:399] pool5 -> pool5
I0403 14:38:46.693213  1691 net.cpp:141] Setting up pool5
I0403 14:38:46.693238  1691 net.cpp:148] Top shape: 100 256 6 6 (921600)
I0403 14:38:46.693254  1691 net.cpp:156] Memory required for data: 821695600
I0403 14:38:46.693274  1691 layer_factory.hpp:77] Creating layer fc6
I0403 14:38:46.693303  1691 net.cpp:91] Creating Layer fc6
I0403 14:38:46.693325  1691 net.cpp:425] fc6 <- pool5
I0403 14:38:46.693346  1691 net.cpp:399] fc6 -> fc6
I0403 14:38:48.317536  1691 net.cpp:141] Setting up fc6
I0403 14:38:48.317579  1691 net.cpp:148] Top shape: 100 4096 (409600)
I0403 14:38:48.317596  1691 net.cpp:156] Memory required for data: 823334000
I0403 14:38:48.317620  1691 layer_factory.hpp:77] Creating layer relu6
I0403 14:38:48.317646  1691 net.cpp:91] Creating Layer relu6
I0403 14:38:48.317663  1691 net.cpp:425] relu6 <- fc6
I0403 14:38:48.317683  1691 net.cpp:386] relu6 -> fc6 (in-place)
I0403 14:38:48.317901  1691 net.cpp:141] Setting up relu6
I0403 14:38:48.317929  1691 net.cpp:148] Top shape: 100 4096 (409600)
I0403 14:38:48.317945  1691 net.cpp:156] Memory required for data: 824972400
I0403 14:38:48.317960  1691 layer_factory.hpp:77] Creating layer drop6
I0403 14:38:48.317980  1691 net.cpp:91] Creating Layer drop6
I0403 14:38:48.317994  1691 net.cpp:425] drop6 <- fc6
I0403 14:38:48.318014  1691 net.cpp:386] drop6 -> fc6 (in-place)
I0403 14:38:48.318066  1691 net.cpp:141] Setting up drop6
I0403 14:38:48.318094  1691 net.cpp:148] Top shape: 100 4096 (409600)
I0403 14:38:48.318111  1691 net.cpp:156] Memory required for data: 826610800
I0403 14:38:48.318127  1691 layer_factory.hpp:77] Creating layer fc7
I0403 14:38:48.318148  1691 net.cpp:91] Creating Layer fc7
I0403 14:38:48.318164  1691 net.cpp:425] fc7 <- fc6
I0403 14:38:48.318184  1691 net.cpp:399] fc7 -> fc7
I0403 14:38:49.011301  1691 net.cpp:141] Setting up fc7
I0403 14:38:49.011344  1691 net.cpp:148] Top shape: 100 4096 (409600)
I0403 14:38:49.011363  1691 net.cpp:156] Memory required for data: 828249200
I0403 14:38:49.011384  1691 layer_factory.hpp:77] Creating layer relu7
I0403 14:38:49.011406  1691 net.cpp:91] Creating Layer relu7
I0403 14:38:49.011425  1691 net.cpp:425] relu7 <- fc7
I0403 14:38:49.011447  1691 net.cpp:386] relu7 -> fc7 (in-place)
I0403 14:38:49.011857  1691 net.cpp:141] Setting up relu7
I0403 14:38:49.011883  1691 net.cpp:148] Top shape: 100 4096 (409600)
I0403 14:38:49.011931  1691 net.cpp:156] Memory required for data: 829887600
I0403 14:38:49.011947  1691 layer_factory.hpp:77] Creating layer drop7
I0403 14:38:49.011967  1691 net.cpp:91] Creating Layer drop7
I0403 14:38:49.011982  1691 net.cpp:425] drop7 <- fc7
I0403 14:38:49.012002  1691 net.cpp:386] drop7 -> fc7 (in-place)
I0403 14:38:49.012047  1691 net.cpp:141] Setting up drop7
I0403 14:38:49.012071  1691 net.cpp:148] Top shape: 100 4096 (409600)
I0403 14:38:49.012086  1691 net.cpp:156] Memory required for data: 831526000
I0403 14:38:49.012100  1691 layer_factory.hpp:77] Creating layer fc8_plantvillage
I0403 14:38:49.012120  1691 net.cpp:91] Creating Layer fc8_plantvillage
I0403 14:38:49.012136  1691 net.cpp:425] fc8_plantvillage <- fc7
I0403 14:38:49.012156  1691 net.cpp:399] fc8_plantvillage -> fc8_plantvillage
I0403 14:38:49.019052  1691 net.cpp:141] Setting up fc8_plantvillage
I0403 14:38:49.019081  1691 net.cpp:148] Top shape: 100 38 (3800)
I0403 14:38:49.019098  1691 net.cpp:156] Memory required for data: 831541200
I0403 14:38:49.019117  1691 layer_factory.hpp:77] Creating layer fc8_plantvillage_fc8_plantvillage_0_split
I0403 14:38:49.019136  1691 net.cpp:91] Creating Layer fc8_plantvillage_fc8_plantvillage_0_split
I0403 14:38:49.019151  1691 net.cpp:425] fc8_plantvillage_fc8_plantvillage_0_split <- fc8_plantvillage
I0403 14:38:49.019178  1691 net.cpp:399] fc8_plantvillage_fc8_plantvillage_0_split -> fc8_plantvillage_fc8_plantvillage_0_split_0
I0403 14:38:49.019199  1691 net.cpp:399] fc8_plantvillage_fc8_plantvillage_0_split -> fc8_plantvillage_fc8_plantvillage_0_split_1
I0403 14:38:49.019220  1691 net.cpp:399] fc8_plantvillage_fc8_plantvillage_0_split -> fc8_plantvillage_fc8_plantvillage_0_split_2
I0403 14:38:49.019304  1691 net.cpp:141] Setting up fc8_plantvillage_fc8_plantvillage_0_split
I0403 14:38:49.019327  1691 net.cpp:148] Top shape: 100 38 (3800)
I0403 14:38:49.019345  1691 net.cpp:148] Top shape: 100 38 (3800)
I0403 14:38:49.019359  1691 net.cpp:148] Top shape: 100 38 (3800)
I0403 14:38:49.019373  1691 net.cpp:156] Memory required for data: 831586800
I0403 14:38:49.019388  1691 layer_factory.hpp:77] Creating layer prob
I0403 14:38:49.019407  1691 net.cpp:91] Creating Layer prob
I0403 14:38:49.019423  1691 net.cpp:425] prob <- fc8_plantvillage_fc8_plantvillage_0_split_0
I0403 14:38:49.019444  1691 net.cpp:399] prob -> prob
I0403 14:38:49.019682  1691 net.cpp:141] Setting up prob
I0403 14:38:49.019709  1691 net.cpp:148] Top shape: 100 38 (3800)
I0403 14:38:49.019724  1691 net.cpp:156] Memory required for data: 831602000
I0403 14:38:49.019739  1691 layer_factory.hpp:77] Creating layer hdf5out
I0403 14:38:49.019758  1691 net.cpp:91] Creating Layer hdf5out
I0403 14:38:49.019774  1691 net.cpp:425] hdf5out <- prob
I0403 14:38:49.019790  1691 net.cpp:425] hdf5out <- label_data_1_split_0
I0403 14:38:49.022140  1691 net.cpp:141] Setting up hdf5out
…
