…
I0403 14:49:25.270092  2016 net.cpp:313] The NetState phase (1) differed from the phase (0) specified by a rule in layer data
I0403 14:49:25.270403  2016 net.cpp:49] Initializing net from parameters: 
state {
  phase: TEST
}
layer {
  name: "data"
  type: "Data"
  top: "data"
  top: "label"
  include {
    phase: TEST
  }
  transform_param {
    crop_size: 227
    mean_file: "/home/mohanty/data/final_dataset/lmdb/color-60-40/mean.binaryproto"
  }
  data_param {
    source: "/home/mohanty/data/final_dataset/lmdb/color-60-40/test_db"
    batch_size: 100
    backend: LMDB
  }
}
layer {
  name: "conv1"
  type: "Convolution"
  bottom: "data"
  top: "conv1"
  param {
    lr_mult: 1
    decay_mult: 1
  }
  param {
    lr_mult: 2
    decay_mult: 0
  }
  convolution_param {
    num_output: 96
    kernel_size: 11
    stride: 4
    weight_filler {
      type: "gaussian"
      std: 0.01
    }
    bias_filler {
      type: "constant"
      value: 0
    }
  }
}
layer {
  name: "relu1"
  type: "ReLU"
  bottom: "conv1"
  top: "conv1"
}
layer {
  name: "norm1"
  type: "LRN"
  bottom: "conv1"
  top: "norm1"
  lrn_param {
    local_size: 5
    alpha: 0.0001
    beta: 0.75
  }
}
layer {
  name: "pool1"
  type: "Pooling"
  bottom: "norm1"
  top: "pool1"
  pooling_param {
    pool: MAX
    kernel_size: 3
    stride: 2
  }
}
layer {
  name: "conv2"
  type: "Convolution"
  bottom: "pool1"
  top: "conv2"
  param {
    lr_mult: 1
    decay_mult: 1
  }
  param {
    lr_mult: 2
    decay_mult: 0
  }
  convolution_param {
    num_output: 256
    pad: 2
    kernel_size: 5
    group: 2
    weight_filler {
      type: "gaussian"
      std: 0.01
    }
    bias_filler {
      type: "constant"
      value: 0.1
    }
  }
}
layer {
  name: "relu2"
  type: "ReLU"
  bottom: "conv2"
  top: "conv2"
}
layer {
  name: "norm2"
  type: "LRN"
  bottom: "conv2"
  top: "norm2"
  lrn_param {
    local_size: 5
    alpha: 0.0001
    beta: 0.75
  }
}
layer {
  name: "pool2"
  type: "Pooling"
  bottom: "norm2"
  top: "pool2"
  pooling_param {
    pool: MAX
    kernel_size: 3
    stride: 2
  }
}
layer {
  name: "conv3"
  type: "Convolution"
  bottom: "pool2"
  top: "conv3"
  param {
    lr_mult: 1
    decay_mult: 1
  }
  param {
    lr_mult: 2
    decay_mult: 0
  }
  convolution_param {
    num_output: 384
    pad: 1
    kernel_size: 3
    weight_filler {
      type: "gaussian"
      std: 0.01
    }
    bias_filler {
      type: "constant"
      value: 0
    }
  }
}
layer {
  name: "relu3"
  type: "ReLU"
  bottom: "conv3"
  top: "conv3"
}
layer {
  name: "conv4"
  type: "Convolution"
  bottom: "conv3"
  top: "conv4"
  param {
    lr_mult: 1
    decay_mult: 1
  }
  param {
    lr_mult: 2
    decay_mult: 0
  }
  convolution_param {
    num_output: 384
    pad: 1
    kernel_size: 3
    group: 2
    weight_filler {
      type: "gaussian"
      std: 0.01
    }
    bias_filler {
      type: "constant"
      value: 0.1
    }
  }
}
layer {
  name: "relu4"
  type: "ReLU"
  bottom: "conv4"
  top: "conv4"
}
layer {
  name: "conv5"
  type: "Convolution"
  bottom: "conv4"
  top: "conv5"
  param {
    lr_mult: 1
    decay_mult: 1
  }
  param {
    lr_mult: 2
    decay_mult: 0
  }
  convolution_param {
    num_output: 256
    pad: 1
    kernel_size: 3
    group: 2
    weight_filler {
      type: "gaussian"
      std: 0.01
    }
    bias_filler {
      type: "constant"
      value: 0.1
    }
  }
}
layer {
  name: "relu5"
  type: "ReLU"
  bottom: "conv5"
  top: "conv5"
}
layer {
  name: "pool5"
  type: "Pooling"
  bottom: "conv5"
  top: "pool5"
  pooling_param {
    pool: MAX
    kernel_size: 3
    stride: 2
  }
}
layer {
  name: "fc6"
  type: "InnerProduct"
  bottom: "pool5"
  top: "fc6"
  param {
    lr_mult: 1
    decay_mult: 1
  }
  param {
    lr_mult: 2
    decay_mult: 0
  }
  inner_product_param {
    num_output: 4096
    weight_filler {
      type: "gaussian"
      std: 0.005
    }
    bias_filler {
      type: "constant"
      value: 0.1
    }
  }
}
layer {
  name: "relu6"
  type: "ReLU"
  bottom: "fc6"
  top: "fc6"
}
layer {
  name: "drop6"
  type: "Dropout"
  bottom: "fc6"
  top: "fc6"
  dropout_param {
    dropout_ratio: 0.5
  }
}
layer {
  name: "fc7"
  type: "InnerProduct"
  bottom: "fc6"
  top: "fc7"
  param {
    lr_mult: 1
    decay_mult: 1
  }
  param {
    lr_mult: 2
    decay_mult: 0
  }
  inner_product_param {
    num_output: 4096
    weight_filler {
      type: "gaussian"
      std: 0.005
    }
    bias_filler {
      type: "constant"
      value: 0.1
    }
  }
}
layer {
  name: "relu7"
  type: "ReLU"
  bottom: "fc7"
  top: "fc7"
}
layer {
  name: "drop7"
  type: "Dropout"
  bottom: "fc7"
  top: "fc7"
  dropout_param {
    dropout_ratio: 0.5
  }
}
layer {
  name: "fc8_plantvillage"
  type: "InnerProduct"
  bottom: "fc7"
  top: "fc8_plantvillage"
  param {
    lr_mult: 1
    decay_mult: 1
  }
  param {
    lr_mult: 2
    decay_mult: 0
  }
  inner_product_param {
    num_output: 38
    weight_filler {
      type: "gaussian"
      std: 0.01
    }
    bias_filler {
      type: "constant"
      value: 0
    }
  }
}
layer {
  name: "prob"
  type: "Softmax"
  bottom: "fc8_plantvillage"
  top: "prob"
  include {
    phase: TEST
  }
}
layer {
  name: "hdf5out"
  type: "HDF5Output"
  bottom: "prob"
  bottom: "label"
  include {
    phase: TEST
  }
  hdf5_output_param {
    file_name: "hdf5_dumps/iter_6825.h5"
  }
}
layer {
  name: "loss"
  type: "SoftmaxWithLoss"
  bottom: "fc8_plantvillage"
  bottom: "label"
  top: "loss"
}
layer {
  name: "accuracy"
  type: "Accuracy"
  bottom: "fc8_plantvillage"
  bottom: "label"
  top: "accuracy"
  include {
    phase: TEST
  }
}
I0403 14:49:25.270943  2016 layer_factory.hpp:77] Creating layer data
I0403 14:49:25.271556  2016 net.cpp:91] Creating Layer data
I0403 14:49:25.271585  2016 net.cpp:399] data -> data
I0403 14:49:25.271636  2016 net.cpp:399] data -> label
I0403 14:49:25.271672  2016 data_transformer.cpp:25] Loading mean file from: /home/mohanty/data/final_dataset/lmdb/color-60-40/mean.binaryproto
I0403 14:49:25.275210  2019 db_lmdb.cpp:38] Opened lmdb /home/mohanty/data/final_dataset/lmdb/color-60-40/test_db
I0403 14:49:25.286026  2016 data_layer.cpp:41] output data size: 100,3,227,227
I0403 14:49:25.406538  2016 net.cpp:141] Setting up data
I0403 14:49:25.406599  2016 net.cpp:148] Top shape: 100 3 227 227 (15458700)
I0403 14:49:25.406621  2016 net.cpp:148] Top shape: 100 (100)
I0403 14:49:25.406637  2016 net.cpp:156] Memory required for data: 61835200
I0403 14:49:25.406666  2016 layer_factory.hpp:77] Creating layer label_data_1_split
I0403 14:49:25.406690  2016 net.cpp:91] Creating Layer label_data_1_split
I0403 14:49:25.406708  2016 net.cpp:425] label_data_1_split <- label
I0403 14:49:25.406739  2016 net.cpp:399] label_data_1_split -> label_data_1_split_0
I0403 14:49:25.406766  2016 net.cpp:399] label_data_1_split -> label_data_1_split_1
I0403 14:49:25.406788  2016 net.cpp:399] label_data_1_split -> label_data_1_split_2
I0403 14:49:25.406854  2016 net.cpp:141] Setting up label_data_1_split
I0403 14:49:25.406877  2016 net.cpp:148] Top shape: 100 (100)
I0403 14:49:25.406894  2016 net.cpp:148] Top shape: 100 (100)
I0403 14:49:25.406911  2016 net.cpp:148] Top shape: 100 (100)
I0403 14:49:25.406926  2016 net.cpp:156] Memory required for data: 61836400
I0403 14:49:25.406940  2016 layer_factory.hpp:77] Creating layer conv1
I0403 14:49:25.406973  2016 net.cpp:91] Creating Layer conv1
I0403 14:49:25.406992  2016 net.cpp:425] conv1 <- data
I0403 14:49:25.407012  2016 net.cpp:399] conv1 -> conv1
I0403 14:49:25.550654  2016 net.cpp:141] Setting up conv1
I0403 14:49:25.550742  2016 net.cpp:148] Top shape: 100 96 55 55 (29040000)
I0403 14:49:25.550760  2016 net.cpp:156] Memory required for data: 177996400
I0403 14:49:25.550791  2016 layer_factory.hpp:77] Creating layer relu1
I0403 14:49:25.550818  2016 net.cpp:91] Creating Layer relu1
I0403 14:49:25.550838  2016 net.cpp:425] relu1 <- conv1
I0403 14:49:25.550858  2016 net.cpp:386] relu1 -> conv1 (in-place)
I0403 14:49:25.551162  2016 net.cpp:141] Setting up relu1
I0403 14:49:25.551192  2016 net.cpp:148] Top shape: 100 96 55 55 (29040000)
I0403 14:49:25.551208  2016 net.cpp:156] Memory required for data: 294156400
I0403 14:49:25.551275  2016 layer_factory.hpp:77] Creating layer norm1
I0403 14:49:25.551313  2016 net.cpp:91] Creating Layer norm1
I0403 14:49:25.551331  2016 net.cpp:425] norm1 <- conv1
I0403 14:49:25.551352  2016 net.cpp:399] norm1 -> norm1
I0403 14:49:25.551679  2016 net.cpp:141] Setting up norm1
I0403 14:49:25.551708  2016 net.cpp:148] Top shape: 100 96 55 55 (29040000)
I0403 14:49:25.551725  2016 net.cpp:156] Memory required for data: 410316400
I0403 14:49:25.551741  2016 layer_factory.hpp:77] Creating layer pool1
I0403 14:49:25.551765  2016 net.cpp:91] Creating Layer pool1
I0403 14:49:25.551782  2016 net.cpp:425] pool1 <- norm1
I0403 14:49:25.551801  2016 net.cpp:399] pool1 -> pool1
I0403 14:49:25.551868  2016 net.cpp:141] Setting up pool1
I0403 14:49:25.551893  2016 net.cpp:148] Top shape: 100 96 27 27 (6998400)
I0403 14:49:25.551909  2016 net.cpp:156] Memory required for data: 438310000
I0403 14:49:25.551925  2016 layer_factory.hpp:77] Creating layer conv2
I0403 14:49:25.551949  2016 net.cpp:91] Creating Layer conv2
I0403 14:49:25.551966  2016 net.cpp:425] conv2 <- pool1
I0403 14:49:25.551985  2016 net.cpp:399] conv2 -> conv2
I0403 14:49:25.567713  2016 net.cpp:141] Setting up conv2
I0403 14:49:25.567746  2016 net.cpp:148] Top shape: 100 256 27 27 (18662400)
I0403 14:49:25.567764  2016 net.cpp:156] Memory required for data: 512959600
I0403 14:49:25.567790  2016 layer_factory.hpp:77] Creating layer relu2
I0403 14:49:25.567809  2016 net.cpp:91] Creating Layer relu2
I0403 14:49:25.567826  2016 net.cpp:425] relu2 <- conv2
I0403 14:49:25.567844  2016 net.cpp:386] relu2 -> conv2 (in-place)
I0403 14:49:25.568140  2016 net.cpp:141] Setting up relu2
I0403 14:49:25.568169  2016 net.cpp:148] Top shape: 100 256 27 27 (18662400)
I0403 14:49:25.568189  2016 net.cpp:156] Memory required for data: 587609200
I0403 14:49:25.568205  2016 layer_factory.hpp:77] Creating layer norm2
I0403 14:49:25.568227  2016 net.cpp:91] Creating Layer norm2
I0403 14:49:25.568248  2016 net.cpp:425] norm2 <- conv2
I0403 14:49:25.568269  2016 net.cpp:399] norm2 -> norm2
I0403 14:49:25.568480  2016 net.cpp:141] Setting up norm2
I0403 14:49:25.568506  2016 net.cpp:148] Top shape: 100 256 27 27 (18662400)
I0403 14:49:25.568522  2016 net.cpp:156] Memory required for data: 662258800
I0403 14:49:25.568538  2016 layer_factory.hpp:77] Creating layer pool2
I0403 14:49:25.568560  2016 net.cpp:91] Creating Layer pool2
I0403 14:49:25.568578  2016 net.cpp:425] pool2 <- norm2
I0403 14:49:25.568595  2016 net.cpp:399] pool2 -> pool2
I0403 14:49:25.568651  2016 net.cpp:141] Setting up pool2
I0403 14:49:25.568675  2016 net.cpp:148] Top shape: 100 256 13 13 (4326400)
I0403 14:49:25.568689  2016 net.cpp:156] Memory required for data: 679564400
I0403 14:49:25.568704  2016 layer_factory.hpp:77] Creating layer conv3
I0403 14:49:25.568728  2016 net.cpp:91] Creating Layer conv3
I0403 14:49:25.568747  2016 net.cpp:425] conv3 <- pool2
I0403 14:49:25.568768  2016 net.cpp:399] conv3 -> conv3
I0403 14:49:25.614734  2016 net.cpp:141] Setting up conv3
I0403 14:49:25.614820  2016 net.cpp:148] Top shape: 100 384 13 13 (6489600)
I0403 14:49:25.614836  2016 net.cpp:156] Memory required for data: 705522800
I0403 14:49:25.614864  2016 layer_factory.hpp:77] Creating layer relu3
I0403 14:49:25.614889  2016 net.cpp:91] Creating Layer relu3
I0403 14:49:25.614907  2016 net.cpp:425] relu3 <- conv3
I0403 14:49:25.614926  2016 net.cpp:386] relu3 -> conv3 (in-place)
I0403 14:49:25.615206  2016 net.cpp:141] Setting up relu3
I0403 14:49:25.615233  2016 net.cpp:148] Top shape: 100 384 13 13 (6489600)
I0403 14:49:25.615264  2016 net.cpp:156] Memory required for data: 731481200
I0403 14:49:25.615280  2016 layer_factory.hpp:77] Creating layer conv4
I0403 14:49:25.615309  2016 net.cpp:91] Creating Layer conv4
I0403 14:49:25.615326  2016 net.cpp:425] conv4 <- conv3
I0403 14:49:25.615345  2016 net.cpp:399] conv4 -> conv4
I0403 14:49:25.645778  2016 net.cpp:141] Setting up conv4
I0403 14:49:25.645830  2016 net.cpp:148] Top shape: 100 384 13 13 (6489600)
I0403 14:49:25.645877  2016 net.cpp:156] Memory required for data: 757439600
I0403 14:49:25.645898  2016 layer_factory.hpp:77] Creating layer relu4
I0403 14:49:25.645920  2016 net.cpp:91] Creating Layer relu4
I0403 14:49:25.645937  2016 net.cpp:425] relu4 <- conv4
I0403 14:49:25.645956  2016 net.cpp:386] relu4 -> conv4 (in-place)
I0403 14:49:25.646302  2016 net.cpp:141] Setting up relu4
I0403 14:49:25.646330  2016 net.cpp:148] Top shape: 100 384 13 13 (6489600)
I0403 14:49:25.646347  2016 net.cpp:156] Memory required for data: 783398000
I0403 14:49:25.646361  2016 layer_factory.hpp:77] Creating layer conv5
I0403 14:49:25.646386  2016 net.cpp:91] Creating Layer conv5
I0403 14:49:25.646404  2016 net.cpp:425] conv5 <- conv4
I0403 14:49:25.646426  2016 net.cpp:399] conv5 -> conv5
I0403 14:49:25.667780  2016 net.cpp:141] Setting up conv5
I0403 14:49:25.667820  2016 net.cpp:148] Top shape: 100 256 13 13 (4326400)
I0403 14:49:25.667837  2016 net.cpp:156] Memory required for data: 800703600
I0403 14:49:25.667865  2016 layer_factory.hpp:77] Creating layer relu5
I0403 14:49:25.667886  2016 net.cpp:91] Creating Layer relu5
I0403 14:49:25.667902  2016 net.cpp:425] relu5 <- conv5
I0403 14:49:25.667922  2016 net.cpp:386] relu5 -> conv5 (in-place)
I0403 14:49:25.668215  2016 net.cpp:141] Setting up relu5
I0403 14:49:25.668247  2016 net.cpp:148] Top shape: 100 256 13 13 (4326400)
I0403 14:49:25.668267  2016 net.cpp:156] Memory required for data: 818009200
I0403 14:49:25.668282  2016 layer_factory.hpp:77] Creating layer pool5
I0403 14:49:25.668308  2016 net.cpp:91] Creating Layer pool5
I0403 14:49:25.668323  2016 net.cpp:425] pool5 <- conv5
I0403 14:49:25.668346  2016 net.cpp:399] pool5 -> pool5
I0403 14:49:25.668411  2016 net.cpp:141] Setting up pool5
I0403 14:49:25.668437  2016 net.cpp:148] Top shape: 100 256 6 6 (921600)
I0403 14:49:25.668453  2016 net.cpp:156] Memory required for data: 821695600
I0403 14:49:25.668468  2016 layer_factory.hpp:77] Creating layer fc6
I0403 14:49:25.668498  2016 net.cpp:91] Creating Layer fc6
I0403 14:49:25.668516  2016 net.cpp:425] fc6 <- pool5
I0403 14:49:25.668540  2016 net.cpp:399] fc6 -> fc6
I0403 14:49:27.233678  2016 net.cpp:141] Setting up fc6
I0403 14:49:27.233757  2016 net.cpp:148] Top shape: 100 4096 (409600)
I0403 14:49:27.233772  2016 net.cpp:156] Memory required for data: 823334000
I0403 14:49:27.233794  2016 layer_factory.hpp:77] Creating layer relu6
I0403 14:49:27.233815  2016 net.cpp:91] Creating Layer relu6
I0403 14:49:27.233832  2016 net.cpp:425] relu6 <- fc6
I0403 14:49:27.233853  2016 net.cpp:386] relu6 -> fc6 (in-place)
I0403 14:49:27.234068  2016 net.cpp:141] Setting up relu6
I0403 14:49:27.234093  2016 net.cpp:148] Top shape: 100 4096 (409600)
I0403 14:49:27.234108  2016 net.cpp:156] Memory required for data: 824972400
I0403 14:49:27.234123  2016 layer_factory.hpp:77] Creating layer drop6
I0403 14:49:27.234143  2016 net.cpp:91] Creating Layer drop6
I0403 14:49:27.234159  2016 net.cpp:425] drop6 <- fc6
I0403 14:49:27.234176  2016 net.cpp:386] drop6 -> fc6 (in-place)
I0403 14:49:27.234230  2016 net.cpp:141] Setting up drop6
I0403 14:49:27.234256  2016 net.cpp:148] Top shape: 100 4096 (409600)
I0403 14:49:27.234271  2016 net.cpp:156] Memory required for data: 826610800
I0403 14:49:27.234285  2016 layer_factory.hpp:77] Creating layer fc7
I0403 14:49:27.234308  2016 net.cpp:91] Creating Layer fc7
I0403 14:49:27.234324  2016 net.cpp:425] fc7 <- fc6
I0403 14:49:27.234343  2016 net.cpp:399] fc7 -> fc7
I0403 14:49:27.930493  2016 net.cpp:141] Setting up fc7
I0403 14:49:27.930564  2016 net.cpp:148] Top shape: 100 4096 (409600)
I0403 14:49:27.930579  2016 net.cpp:156] Memory required for data: 828249200
I0403 14:49:27.930599  2016 layer_factory.hpp:77] Creating layer relu7
I0403 14:49:27.930622  2016 net.cpp:91] Creating Layer relu7
I0403 14:49:27.930639  2016 net.cpp:425] relu7 <- fc7
I0403 14:49:27.930658  2016 net.cpp:386] relu7 -> fc7 (in-place)
I0403 14:49:27.931061  2016 net.cpp:141] Setting up relu7
I0403 14:49:27.931087  2016 net.cpp:148] Top shape: 100 4096 (409600)
I0403 14:49:27.931131  2016 net.cpp:156] Memory required for data: 829887600
I0403 14:49:27.931146  2016 layer_factory.hpp:77] Creating layer drop7
I0403 14:49:27.931167  2016 net.cpp:91] Creating Layer drop7
I0403 14:49:27.931183  2016 net.cpp:425] drop7 <- fc7
I0403 14:49:27.931200  2016 net.cpp:386] drop7 -> fc7 (in-place)
I0403 14:49:27.931246  2016 net.cpp:141] Setting up drop7
I0403 14:49:27.931268  2016 net.cpp:148] Top shape: 100 4096 (409600)
I0403 14:49:27.931282  2016 net.cpp:156] Memory required for data: 831526000
I0403 14:49:27.931295  2016 layer_factory.hpp:77] Creating layer fc8_plantvillage
I0403 14:49:27.931314  2016 net.cpp:91] Creating Layer fc8_plantvillage
I0403 14:49:27.931329  2016 net.cpp:425] fc8_plantvillage <- fc7
I0403 14:49:27.931349  2016 net.cpp:399] fc8_plantvillage -> fc8_plantvillage
I0403 14:49:27.937865  2016 net.cpp:141] Setting up fc8_plantvillage
I0403 14:49:27.937896  2016 net.cpp:148] Top shape: 100 38 (3800)
I0403 14:49:27.937911  2016 net.cpp:156] Memory required for data: 831541200
I0403 14:49:27.937928  2016 layer_factory.hpp:77] Creating layer fc8_plantvillage_fc8_plantvillage_0_split
I0403 14:49:27.937947  2016 net.cpp:91] Creating Layer fc8_plantvillage_fc8_plantvillage_0_split
I0403 14:49:27.937961  2016 net.cpp:425] fc8_plantvillage_fc8_plantvillage_0_split <- fc8_plantvillage
I0403 14:49:27.937978  2016 net.cpp:399] fc8_plantvillage_fc8_plantvillage_0_split -> fc8_plantvillage_fc8_plantvillage_0_split_0
I0403 14:49:27.937996  2016 net.cpp:399] fc8_plantvillage_fc8_plantvillage_0_split -> fc8_plantvillage_fc8_plantvillage_0_split_1
I0403 14:49:27.938017  2016 net.cpp:399] fc8_plantvillage_fc8_plantvillage_0_split -> fc8_plantvillage_fc8_plantvillage_0_split_2
I0403 14:49:27.938092  2016 net.cpp:141] Setting up fc8_plantvillage_fc8_plantvillage_0_split
I0403 14:49:27.938114  2016 net.cpp:148] Top shape: 100 38 (3800)
I0403 14:49:27.938130  2016 net.cpp:148] Top shape: 100 38 (3800)
I0403 14:49:27.938144  2016 net.cpp:148] Top shape: 100 38 (3800)
I0403 14:49:27.938158  2016 net.cpp:156] Memory required for data: 831586800
I0403 14:49:27.938171  2016 layer_factory.hpp:77] Creating layer prob
I0403 14:49:27.938189  2016 net.cpp:91] Creating Layer prob
I0403 14:49:27.938204  2016 net.cpp:425] prob <- fc8_plantvillage_fc8_plantvillage_0_split_0
I0403 14:49:27.938220  2016 net.cpp:399] prob -> prob
I0403 14:49:27.938441  2016 net.cpp:141] Setting up prob
I0403 14:49:27.938464  2016 net.cpp:148] Top shape: 100 38 (3800)
I0403 14:49:27.938479  2016 net.cpp:156] Memory required for data: 831602000
I0403 14:49:27.938493  2016 layer_factory.hpp:77] Creating layer hdf5out
I0403 14:49:27.938514  2016 net.cpp:91] Creating Layer hdf5out
I0403 14:49:27.938530  2016 net.cpp:425] hdf5out <- prob
I0403 14:49:27.938545  2016 net.cpp:425] hdf5out <- label_data_1_split_0
I0403 14:49:27.940943  2016 net.cpp:141] Setting up hdf5out
…
