…
I0403 14:53:13.931627  2105 net.cpp:313] The NetState phase (1) differed from the phase (0) specified by a rule in layer data
I0403 14:53:13.931934  2105 net.cpp:49] Initializing net from parameters: 
state {
  phase: TEST
}
layer {
  name: "data"
  type: "Data"
  top: "data"
  top: "label"
  include {
    phase: TEST
  }
  transform_param {
    crop_size: 227
    mean_file: "/home/mohanty/data/final_dataset/lmdb/color-60-40/mean.binaryproto"
  }
  data_param {
    source: "/home/mohanty/data/final_dataset/lmdb/color-60-40/test_db"
    batch_size: 100
    backend: LMDB
  }
}
layer {
  name: "conv1"
  type: "Convolution"
  bottom: "data"
  top: "conv1"
  param {
    lr_mult: 1
    decay_mult: 1
  }
  param {
    lr_mult: 2
    decay_mult: 0
  }
  convolution_param {
    num_output: 96
    kernel_size: 11
    stride: 4
    weight_filler {
      type: "gaussian"
      std: 0.01
    }
    bias_filler {
      type: "constant"
      value: 0
    }
  }
}
layer {
  name: "relu1"
  type: "ReLU"
  bottom: "conv1"
  top: "conv1"
}
layer {
  name: "norm1"
  type: "LRN"
  bottom: "conv1"
  top: "norm1"
  lrn_param {
    local_size: 5
    alpha: 0.0001
    beta: 0.75
  }
}
layer {
  name: "pool1"
  type: "Pooling"
  bottom: "norm1"
  top: "pool1"
  pooling_param {
    pool: MAX
    kernel_size: 3
    stride: 2
  }
}
layer {
  name: "conv2"
  type: "Convolution"
  bottom: "pool1"
  top: "conv2"
  param {
    lr_mult: 1
    decay_mult: 1
  }
  param {
    lr_mult: 2
    decay_mult: 0
  }
  convolution_param {
    num_output: 256
    pad: 2
    kernel_size: 5
    group: 2
    weight_filler {
      type: "gaussian"
      std: 0.01
    }
    bias_filler {
      type: "constant"
      value: 0.1
    }
  }
}
layer {
  name: "relu2"
  type: "ReLU"
  bottom: "conv2"
  top: "conv2"
}
layer {
  name: "norm2"
  type: "LRN"
  bottom: "conv2"
  top: "norm2"
  lrn_param {
    local_size: 5
    alpha: 0.0001
    beta: 0.75
  }
}
layer {
  name: "pool2"
  type: "Pooling"
  bottom: "norm2"
  top: "pool2"
  pooling_param {
    pool: MAX
    kernel_size: 3
    stride: 2
  }
}
layer {
  name: "conv3"
  type: "Convolution"
  bottom: "pool2"
  top: "conv3"
  param {
    lr_mult: 1
    decay_mult: 1
  }
  param {
    lr_mult: 2
    decay_mult: 0
  }
  convolution_param {
    num_output: 384
    pad: 1
    kernel_size: 3
    weight_filler {
      type: "gaussian"
      std: 0.01
    }
    bias_filler {
      type: "constant"
      value: 0
    }
  }
}
layer {
  name: "relu3"
  type: "ReLU"
  bottom: "conv3"
  top: "conv3"
}
layer {
  name: "conv4"
  type: "Convolution"
  bottom: "conv3"
  top: "conv4"
  param {
    lr_mult: 1
    decay_mult: 1
  }
  param {
    lr_mult: 2
    decay_mult: 0
  }
  convolution_param {
    num_output: 384
    pad: 1
    kernel_size: 3
    group: 2
    weight_filler {
      type: "gaussian"
      std: 0.01
    }
    bias_filler {
      type: "constant"
      value: 0.1
    }
  }
}
layer {
  name: "relu4"
  type: "ReLU"
  bottom: "conv4"
  top: "conv4"
}
layer {
  name: "conv5"
  type: "Convolution"
  bottom: "conv4"
  top: "conv5"
  param {
    lr_mult: 1
    decay_mult: 1
  }
  param {
    lr_mult: 2
    decay_mult: 0
  }
  convolution_param {
    num_output: 256
    pad: 1
    kernel_size: 3
    group: 2
    weight_filler {
      type: "gaussian"
      std: 0.01
    }
    bias_filler {
      type: "constant"
      value: 0.1
    }
  }
}
layer {
  name: "relu5"
  type: "ReLU"
  bottom: "conv5"
  top: "conv5"
}
layer {
  name: "pool5"
  type: "Pooling"
  bottom: "conv5"
  top: "pool5"
  pooling_param {
    pool: MAX
    kernel_size: 3
    stride: 2
  }
}
layer {
  name: "fc6"
  type: "InnerProduct"
  bottom: "pool5"
  top: "fc6"
  param {
    lr_mult: 1
    decay_mult: 1
  }
  param {
    lr_mult: 2
    decay_mult: 0
  }
  inner_product_param {
    num_output: 4096
    weight_filler {
      type: "gaussian"
      std: 0.005
    }
    bias_filler {
      type: "constant"
      value: 0.1
    }
  }
}
layer {
  name: "relu6"
  type: "ReLU"
  bottom: "fc6"
  top: "fc6"
}
layer {
  name: "drop6"
  type: "Dropout"
  bottom: "fc6"
  top: "fc6"
  dropout_param {
    dropout_ratio: 0.5
  }
}
layer {
  name: "fc7"
  type: "InnerProduct"
  bottom: "fc6"
  top: "fc7"
  param {
    lr_mult: 1
    decay_mult: 1
  }
  param {
    lr_mult: 2
    decay_mult: 0
  }
  inner_product_param {
    num_output: 4096
    weight_filler {
      type: "gaussian"
      std: 0.005
    }
    bias_filler {
      type: "constant"
      value: 0.1
    }
  }
}
layer {
  name: "relu7"
  type: "ReLU"
  bottom: "fc7"
  top: "fc7"
}
layer {
  name: "drop7"
  type: "Dropout"
  bottom: "fc7"
  top: "fc7"
  dropout_param {
    dropout_ratio: 0.5
  }
}
layer {
  name: "fc8_plantvillage"
  type: "InnerProduct"
  bottom: "fc7"
  top: "fc8_plantvillage"
  param {
    lr_mult: 1
    decay_mult: 1
  }
  param {
    lr_mult: 2
    decay_mult: 0
  }
  inner_product_param {
    num_output: 38
    weight_filler {
      type: "gaussian"
      std: 0.01
    }
    bias_filler {
      type: "constant"
      value: 0
    }
  }
}
layer {
  name: "prob"
  type: "Softmax"
  bottom: "fc8_plantvillage"
  top: "prob"
  include {
    phase: TEST
  }
}
layer {
  name: "hdf5out"
  type: "HDF5Output"
  bottom: "prob"
  bottom: "label"
  include {
    phase: TEST
  }
  hdf5_output_param {
    file_name: "hdf5_dumps/iter_8450.h5"
  }
}
layer {
  name: "loss"
  type: "SoftmaxWithLoss"
  bottom: "fc8_plantvillage"
  bottom: "label"
  top: "loss"
}
layer {
  name: "accuracy"
  type: "Accuracy"
  bottom: "fc8_plantvillage"
  bottom: "label"
  top: "accuracy"
  include {
    phase: TEST
  }
}
I0403 14:53:13.932541  2105 layer_factory.hpp:77] Creating layer data
I0403 14:53:13.933197  2105 net.cpp:91] Creating Layer data
I0403 14:53:13.933233  2105 net.cpp:399] data -> data
I0403 14:53:13.933290  2105 net.cpp:399] data -> label
I0403 14:53:13.933326  2105 data_transformer.cpp:25] Loading mean file from: /home/mohanty/data/final_dataset/lmdb/color-60-40/mean.binaryproto
I0403 14:53:13.936609  2108 db_lmdb.cpp:38] Opened lmdb /home/mohanty/data/final_dataset/lmdb/color-60-40/test_db
I0403 14:53:13.947932  2105 data_layer.cpp:41] output data size: 100,3,227,227
I0403 14:53:14.068727  2105 net.cpp:141] Setting up data
I0403 14:53:14.068785  2105 net.cpp:148] Top shape: 100 3 227 227 (15458700)
I0403 14:53:14.068807  2105 net.cpp:148] Top shape: 100 (100)
I0403 14:53:14.068822  2105 net.cpp:156] Memory required for data: 61835200
I0403 14:53:14.068850  2105 layer_factory.hpp:77] Creating layer label_data_1_split
I0403 14:53:14.068874  2105 net.cpp:91] Creating Layer label_data_1_split
I0403 14:53:14.068892  2105 net.cpp:425] label_data_1_split <- label
I0403 14:53:14.068923  2105 net.cpp:399] label_data_1_split -> label_data_1_split_0
I0403 14:53:14.068950  2105 net.cpp:399] label_data_1_split -> label_data_1_split_1
I0403 14:53:14.068970  2105 net.cpp:399] label_data_1_split -> label_data_1_split_2
I0403 14:53:14.069032  2105 net.cpp:141] Setting up label_data_1_split
I0403 14:53:14.069056  2105 net.cpp:148] Top shape: 100 (100)
I0403 14:53:14.069072  2105 net.cpp:148] Top shape: 100 (100)
I0403 14:53:14.069088  2105 net.cpp:148] Top shape: 100 (100)
I0403 14:53:14.069103  2105 net.cpp:156] Memory required for data: 61836400
I0403 14:53:14.069118  2105 layer_factory.hpp:77] Creating layer conv1
I0403 14:53:14.069149  2105 net.cpp:91] Creating Layer conv1
I0403 14:53:14.069169  2105 net.cpp:425] conv1 <- data
I0403 14:53:14.069190  2105 net.cpp:399] conv1 -> conv1
I0403 14:53:14.215677  2105 net.cpp:141] Setting up conv1
I0403 14:53:14.215814  2105 net.cpp:148] Top shape: 100 96 55 55 (29040000)
I0403 14:53:14.215842  2105 net.cpp:156] Memory required for data: 177996400
I0403 14:53:14.215881  2105 layer_factory.hpp:77] Creating layer relu1
I0403 14:53:14.215917  2105 net.cpp:91] Creating Layer relu1
I0403 14:53:14.215941  2105 net.cpp:425] relu1 <- conv1
I0403 14:53:14.215970  2105 net.cpp:386] relu1 -> conv1 (in-place)
I0403 14:53:14.216266  2105 net.cpp:141] Setting up relu1
I0403 14:53:14.216295  2105 net.cpp:148] Top shape: 100 96 55 55 (29040000)
I0403 14:53:14.216312  2105 net.cpp:156] Memory required for data: 294156400
I0403 14:53:14.216361  2105 layer_factory.hpp:77] Creating layer norm1
I0403 14:53:14.216392  2105 net.cpp:91] Creating Layer norm1
I0403 14:53:14.216411  2105 net.cpp:425] norm1 <- conv1
I0403 14:53:14.216431  2105 net.cpp:399] norm1 -> norm1
I0403 14:53:14.216769  2105 net.cpp:141] Setting up norm1
I0403 14:53:14.216799  2105 net.cpp:148] Top shape: 100 96 55 55 (29040000)
I0403 14:53:14.216814  2105 net.cpp:156] Memory required for data: 410316400
I0403 14:53:14.216830  2105 layer_factory.hpp:77] Creating layer pool1
I0403 14:53:14.216856  2105 net.cpp:91] Creating Layer pool1
I0403 14:53:14.216876  2105 net.cpp:425] pool1 <- norm1
I0403 14:53:14.216893  2105 net.cpp:399] pool1 -> pool1
I0403 14:53:14.216969  2105 net.cpp:141] Setting up pool1
I0403 14:53:14.216994  2105 net.cpp:148] Top shape: 100 96 27 27 (6998400)
I0403 14:53:14.217010  2105 net.cpp:156] Memory required for data: 438310000
I0403 14:53:14.217025  2105 layer_factory.hpp:77] Creating layer conv2
I0403 14:53:14.217053  2105 net.cpp:91] Creating Layer conv2
I0403 14:53:14.217072  2105 net.cpp:425] conv2 <- pool1
I0403 14:53:14.217093  2105 net.cpp:399] conv2 -> conv2
I0403 14:53:14.232717  2105 net.cpp:141] Setting up conv2
I0403 14:53:14.232761  2105 net.cpp:148] Top shape: 100 256 27 27 (18662400)
I0403 14:53:14.232779  2105 net.cpp:156] Memory required for data: 512959600
I0403 14:53:14.232801  2105 layer_factory.hpp:77] Creating layer relu2
I0403 14:53:14.232825  2105 net.cpp:91] Creating Layer relu2
I0403 14:53:14.232843  2105 net.cpp:425] relu2 <- conv2
I0403 14:53:14.232861  2105 net.cpp:386] relu2 -> conv2 (in-place)
I0403 14:53:14.233144  2105 net.cpp:141] Setting up relu2
I0403 14:53:14.233175  2105 net.cpp:148] Top shape: 100 256 27 27 (18662400)
I0403 14:53:14.233191  2105 net.cpp:156] Memory required for data: 587609200
I0403 14:53:14.233207  2105 layer_factory.hpp:77] Creating layer norm2
I0403 14:53:14.233229  2105 net.cpp:91] Creating Layer norm2
I0403 14:53:14.233250  2105 net.cpp:425] norm2 <- conv2
I0403 14:53:14.233271  2105 net.cpp:399] norm2 -> norm2
I0403 14:53:14.233472  2105 net.cpp:141] Setting up norm2
I0403 14:53:14.233499  2105 net.cpp:148] Top shape: 100 256 27 27 (18662400)
I0403 14:53:14.233513  2105 net.cpp:156] Memory required for data: 662258800
I0403 14:53:14.233530  2105 layer_factory.hpp:77] Creating layer pool2
I0403 14:53:14.233551  2105 net.cpp:91] Creating Layer pool2
I0403 14:53:14.233566  2105 net.cpp:425] pool2 <- norm2
I0403 14:53:14.233584  2105 net.cpp:399] pool2 -> pool2
I0403 14:53:14.233638  2105 net.cpp:141] Setting up pool2
I0403 14:53:14.233661  2105 net.cpp:148] Top shape: 100 256 13 13 (4326400)
I0403 14:53:14.233676  2105 net.cpp:156] Memory required for data: 679564400
I0403 14:53:14.233691  2105 layer_factory.hpp:77] Creating layer conv3
I0403 14:53:14.233714  2105 net.cpp:91] Creating Layer conv3
I0403 14:53:14.233732  2105 net.cpp:425] conv3 <- pool2
I0403 14:53:14.233755  2105 net.cpp:399] conv3 -> conv3
I0403 14:53:14.275320  2105 net.cpp:141] Setting up conv3
I0403 14:53:14.275380  2105 net.cpp:148] Top shape: 100 384 13 13 (6489600)
I0403 14:53:14.275398  2105 net.cpp:156] Memory required for data: 705522800
I0403 14:53:14.275425  2105 layer_factory.hpp:77] Creating layer relu3
I0403 14:53:14.275447  2105 net.cpp:91] Creating Layer relu3
I0403 14:53:14.275465  2105 net.cpp:425] relu3 <- conv3
I0403 14:53:14.275483  2105 net.cpp:386] relu3 -> conv3 (in-place)
I0403 14:53:14.275774  2105 net.cpp:141] Setting up relu3
I0403 14:53:14.275802  2105 net.cpp:148] Top shape: 100 384 13 13 (6489600)
I0403 14:53:14.275821  2105 net.cpp:156] Memory required for data: 731481200
I0403 14:53:14.275837  2105 layer_factory.hpp:77] Creating layer conv4
I0403 14:53:14.275861  2105 net.cpp:91] Creating Layer conv4
I0403 14:53:14.275878  2105 net.cpp:425] conv4 <- conv3
I0403 14:53:14.275899  2105 net.cpp:399] conv4 -> conv4
I0403 14:53:14.307178  2105 net.cpp:141] Setting up conv4
I0403 14:53:14.307217  2105 net.cpp:148] Top shape: 100 384 13 13 (6489600)
I0403 14:53:14.307255  2105 net.cpp:156] Memory required for data: 757439600
I0403 14:53:14.307278  2105 layer_factory.hpp:77] Creating layer relu4
I0403 14:53:14.307306  2105 net.cpp:91] Creating Layer relu4
I0403 14:53:14.307324  2105 net.cpp:425] relu4 <- conv4
I0403 14:53:14.307344  2105 net.cpp:386] relu4 -> conv4 (in-place)
I0403 14:53:14.307626  2105 net.cpp:141] Setting up relu4
I0403 14:53:14.307652  2105 net.cpp:148] Top shape: 100 384 13 13 (6489600)
I0403 14:53:14.307668  2105 net.cpp:156] Memory required for data: 783398000
I0403 14:53:14.307683  2105 layer_factory.hpp:77] Creating layer conv5
I0403 14:53:14.307709  2105 net.cpp:91] Creating Layer conv5
I0403 14:53:14.307726  2105 net.cpp:425] conv5 <- conv4
I0403 14:53:14.307747  2105 net.cpp:399] conv5 -> conv5
I0403 14:53:14.328299  2105 net.cpp:141] Setting up conv5
I0403 14:53:14.328343  2105 net.cpp:148] Top shape: 100 256 13 13 (4326400)
I0403 14:53:14.328359  2105 net.cpp:156] Memory required for data: 800703600
I0403 14:53:14.328382  2105 layer_factory.hpp:77] Creating layer relu5
I0403 14:53:14.328408  2105 net.cpp:91] Creating Layer relu5
I0403 14:53:14.328425  2105 net.cpp:425] relu5 <- conv5
I0403 14:53:14.328443  2105 net.cpp:386] relu5 -> conv5 (in-place)
I0403 14:53:14.328716  2105 net.cpp:141] Setting up relu5
I0403 14:53:14.328742  2105 net.cpp:148] Top shape: 100 256 13 13 (4326400)
I0403 14:53:14.328758  2105 net.cpp:156] Memory required for data: 818009200
I0403 14:53:14.328773  2105 layer_factory.hpp:77] Creating layer pool5
I0403 14:53:14.328796  2105 net.cpp:91] Creating Layer pool5
I0403 14:53:14.328812  2105 net.cpp:425] pool5 <- conv5
I0403 14:53:14.328832  2105 net.cpp:399] pool5 -> pool5
I0403 14:53:14.328891  2105 net.cpp:141] Setting up pool5
I0403 14:53:14.328913  2105 net.cpp:148] Top shape: 100 256 6 6 (921600)
I0403 14:53:14.328927  2105 net.cpp:156] Memory required for data: 821695600
I0403 14:53:14.328943  2105 layer_factory.hpp:77] Creating layer fc6
I0403 14:53:14.328970  2105 net.cpp:91] Creating Layer fc6
I0403 14:53:14.328989  2105 net.cpp:425] fc6 <- pool5
I0403 14:53:14.329006  2105 net.cpp:399] fc6 -> fc6
I0403 14:53:15.874554  2105 net.cpp:141] Setting up fc6
I0403 14:53:15.874631  2105 net.cpp:148] Top shape: 100 4096 (409600)
I0403 14:53:15.874649  2105 net.cpp:156] Memory required for data: 823334000
I0403 14:53:15.874670  2105 layer_factory.hpp:77] Creating layer relu6
I0403 14:53:15.874691  2105 net.cpp:91] Creating Layer relu6
I0403 14:53:15.874708  2105 net.cpp:425] relu6 <- fc6
I0403 14:53:15.874730  2105 net.cpp:386] relu6 -> fc6 (in-place)
I0403 14:53:15.874949  2105 net.cpp:141] Setting up relu6
I0403 14:53:15.874974  2105 net.cpp:148] Top shape: 100 4096 (409600)
I0403 14:53:15.874989  2105 net.cpp:156] Memory required for data: 824972400
I0403 14:53:15.875004  2105 layer_factory.hpp:77] Creating layer drop6
I0403 14:53:15.875025  2105 net.cpp:91] Creating Layer drop6
I0403 14:53:15.875041  2105 net.cpp:425] drop6 <- fc6
I0403 14:53:15.875057  2105 net.cpp:386] drop6 -> fc6 (in-place)
I0403 14:53:15.875109  2105 net.cpp:141] Setting up drop6
I0403 14:53:15.875133  2105 net.cpp:148] Top shape: 100 4096 (409600)
I0403 14:53:15.875146  2105 net.cpp:156] Memory required for data: 826610800
I0403 14:53:15.875160  2105 layer_factory.hpp:77] Creating layer fc7
I0403 14:53:15.875180  2105 net.cpp:91] Creating Layer fc7
I0403 14:53:15.875195  2105 net.cpp:425] fc7 <- fc6
I0403 14:53:15.875214  2105 net.cpp:399] fc7 -> fc7
I0403 14:53:16.561324  2105 net.cpp:141] Setting up fc7
I0403 14:53:16.561381  2105 net.cpp:148] Top shape: 100 4096 (409600)
I0403 14:53:16.561398  2105 net.cpp:156] Memory required for data: 828249200
I0403 14:53:16.561419  2105 layer_factory.hpp:77] Creating layer relu7
I0403 14:53:16.561440  2105 net.cpp:91] Creating Layer relu7
I0403 14:53:16.561458  2105 net.cpp:425] relu7 <- fc7
I0403 14:53:16.561477  2105 net.cpp:386] relu7 -> fc7 (in-place)
I0403 14:53:16.561897  2105 net.cpp:141] Setting up relu7
I0403 14:53:16.561923  2105 net.cpp:148] Top shape: 100 4096 (409600)
I0403 14:53:16.561967  2105 net.cpp:156] Memory required for data: 829887600
I0403 14:53:16.561983  2105 layer_factory.hpp:77] Creating layer drop7
I0403 14:53:16.562005  2105 net.cpp:91] Creating Layer drop7
I0403 14:53:16.562021  2105 net.cpp:425] drop7 <- fc7
I0403 14:53:16.562037  2105 net.cpp:386] drop7 -> fc7 (in-place)
I0403 14:53:16.562083  2105 net.cpp:141] Setting up drop7
I0403 14:53:16.562105  2105 net.cpp:148] Top shape: 100 4096 (409600)
I0403 14:53:16.562119  2105 net.cpp:156] Memory required for data: 831526000
I0403 14:53:16.562134  2105 layer_factory.hpp:77] Creating layer fc8_plantvillage
I0403 14:53:16.562155  2105 net.cpp:91] Creating Layer fc8_plantvillage
I0403 14:53:16.562171  2105 net.cpp:425] fc8_plantvillage <- fc7
I0403 14:53:16.562189  2105 net.cpp:399] fc8_plantvillage -> fc8_plantvillage
I0403 14:53:16.569082  2105 net.cpp:141] Setting up fc8_plantvillage
I0403 14:53:16.569109  2105 net.cpp:148] Top shape: 100 38 (3800)
I0403 14:53:16.569125  2105 net.cpp:156] Memory required for data: 831541200
I0403 14:53:16.569144  2105 layer_factory.hpp:77] Creating layer fc8_plantvillage_fc8_plantvillage_0_split
I0403 14:53:16.569165  2105 net.cpp:91] Creating Layer fc8_plantvillage_fc8_plantvillage_0_split
I0403 14:53:16.569182  2105 net.cpp:425] fc8_plantvillage_fc8_plantvillage_0_split <- fc8_plantvillage
I0403 14:53:16.569200  2105 net.cpp:399] fc8_plantvillage_fc8_plantvillage_0_split -> fc8_plantvillage_fc8_plantvillage_0_split_0
I0403 14:53:16.569221  2105 net.cpp:399] fc8_plantvillage_fc8_plantvillage_0_split -> fc8_plantvillage_fc8_plantvillage_0_split_1
I0403 14:53:16.569250  2105 net.cpp:399] fc8_plantvillage_fc8_plantvillage_0_split -> fc8_plantvillage_fc8_plantvillage_0_split_2
I0403 14:53:16.569329  2105 net.cpp:141] Setting up fc8_plantvillage_fc8_plantvillage_0_split
I0403 14:53:16.569355  2105 net.cpp:148] Top shape: 100 38 (3800)
I0403 14:53:16.569370  2105 net.cpp:148] Top shape: 100 38 (3800)
I0403 14:53:16.569387  2105 net.cpp:148] Top shape: 100 38 (3800)
I0403 14:53:16.569401  2105 net.cpp:156] Memory required for data: 831586800
I0403 14:53:16.569416  2105 layer_factory.hpp:77] Creating layer prob
I0403 14:53:16.569437  2105 net.cpp:91] Creating Layer prob
I0403 14:53:16.569454  2105 net.cpp:425] prob <- fc8_plantvillage_fc8_plantvillage_0_split_0
I0403 14:53:16.569473  2105 net.cpp:399] prob -> prob
I0403 14:53:16.569705  2105 net.cpp:141] Setting up prob
I0403 14:53:16.569730  2105 net.cpp:148] Top shape: 100 38 (3800)
I0403 14:53:16.569746  2105 net.cpp:156] Memory required for data: 831602000
I0403 14:53:16.569761  2105 layer_factory.hpp:77] Creating layer hdf5out
I0403 14:53:16.569785  2105 net.cpp:91] Creating Layer hdf5out
I0403 14:53:16.569802  2105 net.cpp:425] hdf5out <- prob
I0403 14:53:16.569819  2105 net.cpp:425] hdf5out <- label_data_1_split_0
I0403 14:53:16.571998  2105 net.cpp:141] Setting up hdf5out
…
