…
I0403 14:44:51.400933  1897 net.cpp:313] The NetState phase (1) differed from the phase (0) specified by a rule in layer data
I0403 14:44:51.401231  1897 net.cpp:49] Initializing net from parameters: 
state {
  phase: TEST
}
layer {
  name: "data"
  type: "Data"
  top: "data"
  top: "label"
  include {
    phase: TEST
  }
  transform_param {
    crop_size: 227
    mean_file: "/home/mohanty/data/final_dataset/lmdb/color-60-40/mean.binaryproto"
  }
  data_param {
    source: "/home/mohanty/data/final_dataset/lmdb/color-60-40/test_db"
    batch_size: 100
    backend: LMDB
  }
}
layer {
  name: "conv1"
  type: "Convolution"
  bottom: "data"
  top: "conv1"
  param {
    lr_mult: 1
    decay_mult: 1
  }
  param {
    lr_mult: 2
    decay_mult: 0
  }
  convolution_param {
    num_output: 96
    kernel_size: 11
    stride: 4
    weight_filler {
      type: "gaussian"
      std: 0.01
    }
    bias_filler {
      type: "constant"
      value: 0
    }
  }
}
layer {
  name: "relu1"
  type: "ReLU"
  bottom: "conv1"
  top: "conv1"
}
layer {
  name: "norm1"
  type: "LRN"
  bottom: "conv1"
  top: "norm1"
  lrn_param {
    local_size: 5
    alpha: 0.0001
    beta: 0.75
  }
}
layer {
  name: "pool1"
  type: "Pooling"
  bottom: "norm1"
  top: "pool1"
  pooling_param {
    pool: MAX
    kernel_size: 3
    stride: 2
  }
}
layer {
  name: "conv2"
  type: "Convolution"
  bottom: "pool1"
  top: "conv2"
  param {
    lr_mult: 1
    decay_mult: 1
  }
  param {
    lr_mult: 2
    decay_mult: 0
  }
  convolution_param {
    num_output: 256
    pad: 2
    kernel_size: 5
    group: 2
    weight_filler {
      type: "gaussian"
      std: 0.01
    }
    bias_filler {
      type: "constant"
      value: 0.1
    }
  }
}
layer {
  name: "relu2"
  type: "ReLU"
  bottom: "conv2"
  top: "conv2"
}
layer {
  name: "norm2"
  type: "LRN"
  bottom: "conv2"
  top: "norm2"
  lrn_param {
    local_size: 5
    alpha: 0.0001
    beta: 0.75
  }
}
layer {
  name: "pool2"
  type: "Pooling"
  bottom: "norm2"
  top: "pool2"
  pooling_param {
    pool: MAX
    kernel_size: 3
    stride: 2
  }
}
layer {
  name: "conv3"
  type: "Convolution"
  bottom: "pool2"
  top: "conv3"
  param {
    lr_mult: 1
    decay_mult: 1
  }
  param {
    lr_mult: 2
    decay_mult: 0
  }
  convolution_param {
    num_output: 384
    pad: 1
    kernel_size: 3
    weight_filler {
      type: "gaussian"
      std: 0.01
    }
    bias_filler {
      type: "constant"
      value: 0
    }
  }
}
layer {
  name: "relu3"
  type: "ReLU"
  bottom: "conv3"
  top: "conv3"
}
layer {
  name: "conv4"
  type: "Convolution"
  bottom: "conv3"
  top: "conv4"
  param {
    lr_mult: 1
    decay_mult: 1
  }
  param {
    lr_mult: 2
    decay_mult: 0
  }
  convolution_param {
    num_output: 384
    pad: 1
    kernel_size: 3
    group: 2
    weight_filler {
      type: "gaussian"
      std: 0.01
    }
    bias_filler {
      type: "constant"
      value: 0.1
    }
  }
}
layer {
  name: "relu4"
  type: "ReLU"
  bottom: "conv4"
  top: "conv4"
}
layer {
  name: "conv5"
  type: "Convolution"
  bottom: "conv4"
  top: "conv5"
  param {
    lr_mult: 1
    decay_mult: 1
  }
  param {
    lr_mult: 2
    decay_mult: 0
  }
  convolution_param {
    num_output: 256
    pad: 1
    kernel_size: 3
    group: 2
    weight_filler {
      type: "gaussian"
      std: 0.01
    }
    bias_filler {
      type: "constant"
      value: 0.1
    }
  }
}
layer {
  name: "relu5"
  type: "ReLU"
  bottom: "conv5"
  top: "conv5"
}
layer {
  name: "pool5"
  type: "Pooling"
  bottom: "conv5"
  top: "pool5"
  pooling_param {
    pool: MAX
    kernel_size: 3
    stride: 2
  }
}
layer {
  name: "fc6"
  type: "InnerProduct"
  bottom: "pool5"
  top: "fc6"
  param {
    lr_mult: 1
    decay_mult: 1
  }
  param {
    lr_mult: 2
    decay_mult: 0
  }
  inner_product_param {
    num_output: 4096
    weight_filler {
      type: "gaussian"
      std: 0.005
    }
    bias_filler {
      type: "constant"
      value: 0.1
    }
  }
}
layer {
  name: "relu6"
  type: "ReLU"
  bottom: "fc6"
  top: "fc6"
}
layer {
  name: "drop6"
  type: "Dropout"
  bottom: "fc6"
  top: "fc6"
  dropout_param {
    dropout_ratio: 0.5
  }
}
layer {
  name: "fc7"
  type: "InnerProduct"
  bottom: "fc6"
  top: "fc7"
  param {
    lr_mult: 1
    decay_mult: 1
  }
  param {
    lr_mult: 2
    decay_mult: 0
  }
  inner_product_param {
    num_output: 4096
    weight_filler {
      type: "gaussian"
      std: 0.005
    }
    bias_filler {
      type: "constant"
      value: 0.1
    }
  }
}
layer {
  name: "relu7"
  type: "ReLU"
  bottom: "fc7"
  top: "fc7"
}
layer {
  name: "drop7"
  type: "Dropout"
  bottom: "fc7"
  top: "fc7"
  dropout_param {
    dropout_ratio: 0.5
  }
}
layer {
  name: "fc8_plantvillage"
  type: "InnerProduct"
  bottom: "fc7"
  top: "fc8_plantvillage"
  param {
    lr_mult: 1
    decay_mult: 1
  }
  param {
    lr_mult: 2
    decay_mult: 0
  }
  inner_product_param {
    num_output: 38
    weight_filler {
      type: "gaussian"
      std: 0.01
    }
    bias_filler {
      type: "constant"
      value: 0
    }
  }
}
layer {
  name: "prob"
  type: "Softmax"
  bottom: "fc8_plantvillage"
  top: "prob"
  include {
    phase: TEST
  }
}
layer {
  name: "hdf5out"
  type: "HDF5Output"
  bottom: "prob"
  bottom: "label"
  include {
    phase: TEST
  }
  hdf5_output_param {
    file_name: "hdf5_dumps/iter_4875.h5"
  }
}
layer {
  name: "loss"
  type: "SoftmaxWithLoss"
  bottom: "fc8_plantvillage"
  bottom: "label"
  top: "loss"
}
layer {
  name: "accuracy"
  type: "Accuracy"
  bottom: "fc8_plantvillage"
  bottom: "label"
  top: "accuracy"
  include {
    phase: TEST
  }
}
I0403 14:44:51.401839  1897 layer_factory.hpp:77] Creating layer data
I0403 14:44:51.402501  1897 net.cpp:91] Creating Layer data
I0403 14:44:51.402534  1897 net.cpp:399] data -> data
I0403 14:44:51.402585  1897 net.cpp:399] data -> label
I0403 14:44:51.402621  1897 data_transformer.cpp:25] Loading mean file from: /home/mohanty/data/final_dataset/lmdb/color-60-40/mean.binaryproto
I0403 14:44:51.406146  1900 db_lmdb.cpp:38] Opened lmdb /home/mohanty/data/final_dataset/lmdb/color-60-40/test_db
I0403 14:44:51.417253  1897 data_layer.cpp:41] output data size: 100,3,227,227
I0403 14:44:51.537739  1897 net.cpp:141] Setting up data
I0403 14:44:51.537844  1897 net.cpp:148] Top shape: 100 3 227 227 (15458700)
I0403 14:44:51.537868  1897 net.cpp:148] Top shape: 100 (100)
I0403 14:44:51.537883  1897 net.cpp:156] Memory required for data: 61835200
I0403 14:44:51.537910  1897 layer_factory.hpp:77] Creating layer label_data_1_split
I0403 14:44:51.537936  1897 net.cpp:91] Creating Layer label_data_1_split
I0403 14:44:51.537955  1897 net.cpp:425] label_data_1_split <- label
I0403 14:44:51.537986  1897 net.cpp:399] label_data_1_split -> label_data_1_split_0
I0403 14:44:51.538013  1897 net.cpp:399] label_data_1_split -> label_data_1_split_1
I0403 14:44:51.538034  1897 net.cpp:399] label_data_1_split -> label_data_1_split_2
I0403 14:44:51.538097  1897 net.cpp:141] Setting up label_data_1_split
I0403 14:44:51.538121  1897 net.cpp:148] Top shape: 100 (100)
I0403 14:44:51.538138  1897 net.cpp:148] Top shape: 100 (100)
I0403 14:44:51.538156  1897 net.cpp:148] Top shape: 100 (100)
I0403 14:44:51.538180  1897 net.cpp:156] Memory required for data: 61836400
I0403 14:44:51.538198  1897 layer_factory.hpp:77] Creating layer conv1
I0403 14:44:51.538230  1897 net.cpp:91] Creating Layer conv1
I0403 14:44:51.538249  1897 net.cpp:425] conv1 <- data
I0403 14:44:51.538269  1897 net.cpp:399] conv1 -> conv1
I0403 14:44:51.679425  1897 net.cpp:141] Setting up conv1
I0403 14:44:51.679502  1897 net.cpp:148] Top shape: 100 96 55 55 (29040000)
I0403 14:44:51.679519  1897 net.cpp:156] Memory required for data: 177996400
I0403 14:44:51.679553  1897 layer_factory.hpp:77] Creating layer relu1
I0403 14:44:51.679580  1897 net.cpp:91] Creating Layer relu1
I0403 14:44:51.679600  1897 net.cpp:425] relu1 <- conv1
I0403 14:44:51.679620  1897 net.cpp:386] relu1 -> conv1 (in-place)
I0403 14:44:51.679939  1897 net.cpp:141] Setting up relu1
I0403 14:44:51.679965  1897 net.cpp:148] Top shape: 100 96 55 55 (29040000)
I0403 14:44:51.679981  1897 net.cpp:156] Memory required for data: 294156400
I0403 14:44:51.680028  1897 layer_factory.hpp:77] Creating layer norm1
I0403 14:44:51.680058  1897 net.cpp:91] Creating Layer norm1
I0403 14:44:51.680075  1897 net.cpp:425] norm1 <- conv1
I0403 14:44:51.680094  1897 net.cpp:399] norm1 -> norm1
I0403 14:44:51.680397  1897 net.cpp:141] Setting up norm1
I0403 14:44:51.680425  1897 net.cpp:148] Top shape: 100 96 55 55 (29040000)
I0403 14:44:51.680443  1897 net.cpp:156] Memory required for data: 410316400
I0403 14:44:51.680457  1897 layer_factory.hpp:77] Creating layer pool1
I0403 14:44:51.680481  1897 net.cpp:91] Creating Layer pool1
I0403 14:44:51.680500  1897 net.cpp:425] pool1 <- norm1
I0403 14:44:51.680517  1897 net.cpp:399] pool1 -> pool1
I0403 14:44:51.680584  1897 net.cpp:141] Setting up pool1
I0403 14:44:51.680608  1897 net.cpp:148] Top shape: 100 96 27 27 (6998400)
I0403 14:44:51.680624  1897 net.cpp:156] Memory required for data: 438310000
I0403 14:44:51.680639  1897 layer_factory.hpp:77] Creating layer conv2
I0403 14:44:51.680663  1897 net.cpp:91] Creating Layer conv2
I0403 14:44:51.680681  1897 net.cpp:425] conv2 <- pool1
I0403 14:44:51.680701  1897 net.cpp:399] conv2 -> conv2
I0403 14:44:51.696063  1897 net.cpp:141] Setting up conv2
I0403 14:44:51.696108  1897 net.cpp:148] Top shape: 100 256 27 27 (18662400)
I0403 14:44:51.696127  1897 net.cpp:156] Memory required for data: 512959600
I0403 14:44:51.696151  1897 layer_factory.hpp:77] Creating layer relu2
I0403 14:44:51.696171  1897 net.cpp:91] Creating Layer relu2
I0403 14:44:51.696190  1897 net.cpp:425] relu2 <- conv2
I0403 14:44:51.696211  1897 net.cpp:386] relu2 -> conv2 (in-place)
I0403 14:44:51.696499  1897 net.cpp:141] Setting up relu2
I0403 14:44:51.696528  1897 net.cpp:148] Top shape: 100 256 27 27 (18662400)
I0403 14:44:51.696544  1897 net.cpp:156] Memory required for data: 587609200
I0403 14:44:51.696560  1897 layer_factory.hpp:77] Creating layer norm2
I0403 14:44:51.696585  1897 net.cpp:91] Creating Layer norm2
I0403 14:44:51.696604  1897 net.cpp:425] norm2 <- conv2
I0403 14:44:51.696622  1897 net.cpp:399] norm2 -> norm2
I0403 14:44:51.696857  1897 net.cpp:141] Setting up norm2
I0403 14:44:51.696887  1897 net.cpp:148] Top shape: 100 256 27 27 (18662400)
I0403 14:44:51.696904  1897 net.cpp:156] Memory required for data: 662258800
I0403 14:44:51.696920  1897 layer_factory.hpp:77] Creating layer pool2
I0403 14:44:51.696940  1897 net.cpp:91] Creating Layer pool2
I0403 14:44:51.696957  1897 net.cpp:425] pool2 <- norm2
I0403 14:44:51.696979  1897 net.cpp:399] pool2 -> pool2
I0403 14:44:51.697031  1897 net.cpp:141] Setting up pool2
I0403 14:44:51.697057  1897 net.cpp:148] Top shape: 100 256 13 13 (4326400)
I0403 14:44:51.697073  1897 net.cpp:156] Memory required for data: 679564400
I0403 14:44:51.697089  1897 layer_factory.hpp:77] Creating layer conv3
I0403 14:44:51.697113  1897 net.cpp:91] Creating Layer conv3
I0403 14:44:51.697129  1897 net.cpp:425] conv3 <- pool2
I0403 14:44:51.697151  1897 net.cpp:399] conv3 -> conv3
I0403 14:44:51.742455  1897 net.cpp:141] Setting up conv3
I0403 14:44:51.742501  1897 net.cpp:148] Top shape: 100 384 13 13 (6489600)
I0403 14:44:51.742517  1897 net.cpp:156] Memory required for data: 705522800
I0403 14:44:51.742543  1897 layer_factory.hpp:77] Creating layer relu3
I0403 14:44:51.742566  1897 net.cpp:91] Creating Layer relu3
I0403 14:44:51.742584  1897 net.cpp:425] relu3 <- conv3
I0403 14:44:51.742606  1897 net.cpp:386] relu3 -> conv3 (in-place)
I0403 14:44:51.742879  1897 net.cpp:141] Setting up relu3
I0403 14:44:51.742907  1897 net.cpp:148] Top shape: 100 384 13 13 (6489600)
I0403 14:44:51.742923  1897 net.cpp:156] Memory required for data: 731481200
I0403 14:44:51.742938  1897 layer_factory.hpp:77] Creating layer conv4
I0403 14:44:51.742964  1897 net.cpp:91] Creating Layer conv4
I0403 14:44:51.742982  1897 net.cpp:425] conv4 <- conv3
I0403 14:44:51.743005  1897 net.cpp:399] conv4 -> conv4
I0403 14:44:51.772707  1897 net.cpp:141] Setting up conv4
I0403 14:44:51.772753  1897 net.cpp:148] Top shape: 100 384 13 13 (6489600)
I0403 14:44:51.772797  1897 net.cpp:156] Memory required for data: 757439600
I0403 14:44:51.772819  1897 layer_factory.hpp:77] Creating layer relu4
I0403 14:44:51.772840  1897 net.cpp:91] Creating Layer relu4
I0403 14:44:51.772857  1897 net.cpp:425] relu4 <- conv4
I0403 14:44:51.772876  1897 net.cpp:386] relu4 -> conv4 (in-place)
I0403 14:44:51.773190  1897 net.cpp:141] Setting up relu4
I0403 14:44:51.773219  1897 net.cpp:148] Top shape: 100 384 13 13 (6489600)
I0403 14:44:51.773236  1897 net.cpp:156] Memory required for data: 783398000
I0403 14:44:51.773265  1897 layer_factory.hpp:77] Creating layer conv5
I0403 14:44:51.773298  1897 net.cpp:91] Creating Layer conv5
I0403 14:44:51.773318  1897 net.cpp:425] conv5 <- conv4
I0403 14:44:51.773339  1897 net.cpp:399] conv5 -> conv5
I0403 14:44:51.794353  1897 net.cpp:141] Setting up conv5
I0403 14:44:51.794404  1897 net.cpp:148] Top shape: 100 256 13 13 (4326400)
I0403 14:44:51.794422  1897 net.cpp:156] Memory required for data: 800703600
I0403 14:44:51.794448  1897 layer_factory.hpp:77] Creating layer relu5
I0403 14:44:51.794471  1897 net.cpp:91] Creating Layer relu5
I0403 14:44:51.794488  1897 net.cpp:425] relu5 <- conv5
I0403 14:44:51.794510  1897 net.cpp:386] relu5 -> conv5 (in-place)
I0403 14:44:51.794795  1897 net.cpp:141] Setting up relu5
I0403 14:44:51.794824  1897 net.cpp:148] Top shape: 100 256 13 13 (4326400)
I0403 14:44:51.794841  1897 net.cpp:156] Memory required for data: 818009200
I0403 14:44:51.794857  1897 layer_factory.hpp:77] Creating layer pool5
I0403 14:44:51.794883  1897 net.cpp:91] Creating Layer pool5
I0403 14:44:51.794901  1897 net.cpp:425] pool5 <- conv5
I0403 14:44:51.794921  1897 net.cpp:399] pool5 -> pool5
I0403 14:44:51.794983  1897 net.cpp:141] Setting up pool5
I0403 14:44:51.795008  1897 net.cpp:148] Top shape: 100 256 6 6 (921600)
I0403 14:44:51.795023  1897 net.cpp:156] Memory required for data: 821695600
I0403 14:44:51.795040  1897 layer_factory.hpp:77] Creating layer fc6
I0403 14:44:51.795070  1897 net.cpp:91] Creating Layer fc6
I0403 14:44:51.795089  1897 net.cpp:425] fc6 <- pool5
I0403 14:44:51.795110  1897 net.cpp:399] fc6 -> fc6
I0403 14:44:53.376883  1897 net.cpp:141] Setting up fc6
I0403 14:44:53.376929  1897 net.cpp:148] Top shape: 100 4096 (409600)
I0403 14:44:53.376946  1897 net.cpp:156] Memory required for data: 823334000
I0403 14:44:53.376968  1897 layer_factory.hpp:77] Creating layer relu6
I0403 14:44:53.376991  1897 net.cpp:91] Creating Layer relu6
I0403 14:44:53.377009  1897 net.cpp:425] relu6 <- fc6
I0403 14:44:53.377028  1897 net.cpp:386] relu6 -> fc6 (in-place)
I0403 14:44:53.377241  1897 net.cpp:141] Setting up relu6
I0403 14:44:53.377267  1897 net.cpp:148] Top shape: 100 4096 (409600)
I0403 14:44:53.377288  1897 net.cpp:156] Memory required for data: 824972400
I0403 14:44:53.377305  1897 layer_factory.hpp:77] Creating layer drop6
I0403 14:44:53.377323  1897 net.cpp:91] Creating Layer drop6
I0403 14:44:53.377341  1897 net.cpp:425] drop6 <- fc6
I0403 14:44:53.377362  1897 net.cpp:386] drop6 -> fc6 (in-place)
I0403 14:44:53.377413  1897 net.cpp:141] Setting up drop6
I0403 14:44:53.377435  1897 net.cpp:148] Top shape: 100 4096 (409600)
I0403 14:44:53.377450  1897 net.cpp:156] Memory required for data: 826610800
I0403 14:44:53.377465  1897 layer_factory.hpp:77] Creating layer fc7
I0403 14:44:53.377490  1897 net.cpp:91] Creating Layer fc7
I0403 14:44:53.377508  1897 net.cpp:425] fc7 <- fc6
I0403 14:44:53.377529  1897 net.cpp:399] fc7 -> fc7
I0403 14:44:54.066105  1897 net.cpp:141] Setting up fc7
I0403 14:44:54.066150  1897 net.cpp:148] Top shape: 100 4096 (409600)
I0403 14:44:54.066171  1897 net.cpp:156] Memory required for data: 828249200
I0403 14:44:54.066196  1897 layer_factory.hpp:77] Creating layer relu7
I0403 14:44:54.066220  1897 net.cpp:91] Creating Layer relu7
I0403 14:44:54.066238  1897 net.cpp:425] relu7 <- fc7
I0403 14:44:54.066261  1897 net.cpp:386] relu7 -> fc7 (in-place)
I0403 14:44:54.066691  1897 net.cpp:141] Setting up relu7
I0403 14:44:54.066720  1897 net.cpp:148] Top shape: 100 4096 (409600)
I0403 14:44:54.066767  1897 net.cpp:156] Memory required for data: 829887600
I0403 14:44:54.066786  1897 layer_factory.hpp:77] Creating layer drop7
I0403 14:44:54.066805  1897 net.cpp:91] Creating Layer drop7
I0403 14:44:54.066823  1897 net.cpp:425] drop7 <- fc7
I0403 14:44:54.066843  1897 net.cpp:386] drop7 -> fc7 (in-place)
I0403 14:44:54.066889  1897 net.cpp:141] Setting up drop7
I0403 14:44:54.066915  1897 net.cpp:148] Top shape: 100 4096 (409600)
I0403 14:44:54.066931  1897 net.cpp:156] Memory required for data: 831526000
I0403 14:44:54.066947  1897 layer_factory.hpp:77] Creating layer fc8_plantvillage
I0403 14:44:54.066968  1897 net.cpp:91] Creating Layer fc8_plantvillage
I0403 14:44:54.066984  1897 net.cpp:425] fc8_plantvillage <- fc7
I0403 14:44:54.067005  1897 net.cpp:399] fc8_plantvillage -> fc8_plantvillage
I0403 14:44:54.074005  1897 net.cpp:141] Setting up fc8_plantvillage
I0403 14:44:54.074034  1897 net.cpp:148] Top shape: 100 38 (3800)
I0403 14:44:54.074050  1897 net.cpp:156] Memory required for data: 831541200
I0403 14:44:54.074069  1897 layer_factory.hpp:77] Creating layer fc8_plantvillage_fc8_plantvillage_0_split
I0403 14:44:54.074090  1897 net.cpp:91] Creating Layer fc8_plantvillage_fc8_plantvillage_0_split
I0403 14:44:54.074105  1897 net.cpp:425] fc8_plantvillage_fc8_plantvillage_0_split <- fc8_plantvillage
I0403 14:44:54.074126  1897 net.cpp:399] fc8_plantvillage_fc8_plantvillage_0_split -> fc8_plantvillage_fc8_plantvillage_0_split_0
I0403 14:44:54.074148  1897 net.cpp:399] fc8_plantvillage_fc8_plantvillage_0_split -> fc8_plantvillage_fc8_plantvillage_0_split_1
I0403 14:44:54.074168  1897 net.cpp:399] fc8_plantvillage_fc8_plantvillage_0_split -> fc8_plantvillage_fc8_plantvillage_0_split_2
I0403 14:44:54.074245  1897 net.cpp:141] Setting up fc8_plantvillage_fc8_plantvillage_0_split
I0403 14:44:54.074278  1897 net.cpp:148] Top shape: 100 38 (3800)
I0403 14:44:54.074298  1897 net.cpp:148] Top shape: 100 38 (3800)
I0403 14:44:54.074316  1897 net.cpp:148] Top shape: 100 38 (3800)
I0403 14:44:54.074331  1897 net.cpp:156] Memory required for data: 831586800
I0403 14:44:54.074345  1897 layer_factory.hpp:77] Creating layer prob
I0403 14:44:54.074365  1897 net.cpp:91] Creating Layer prob
I0403 14:44:54.074381  1897 net.cpp:425] prob <- fc8_plantvillage_fc8_plantvillage_0_split_0
I0403 14:44:54.074399  1897 net.cpp:399] prob -> prob
I0403 14:44:54.074625  1897 net.cpp:141] Setting up prob
I0403 14:44:54.074651  1897 net.cpp:148] Top shape: 100 38 (3800)
I0403 14:44:54.074666  1897 net.cpp:156] Memory required for data: 831602000
I0403 14:44:54.074681  1897 layer_factory.hpp:77] Creating layer hdf5out
I0403 14:44:54.074700  1897 net.cpp:91] Creating Layer hdf5out
I0403 14:44:54.074717  1897 net.cpp:425] hdf5out <- prob
I0403 14:44:54.074734  1897 net.cpp:425] hdf5out <- label_data_1_split_0
I0403 14:44:54.077356  1897 net.cpp:141] Setting up hdf5out
…
