…
I0403 14:34:11.801908  1597 net.cpp:313] The NetState phase (1) differed from the phase (0) specified by a rule in layer data
I0403 14:34:11.802217  1597 net.cpp:49] Initializing net from parameters: 
state {
  phase: TEST
}
layer {
  name: "data"
  type: "Data"
  top: "data"
  top: "label"
  include {
    phase: TEST
  }
  transform_param {
    crop_size: 227
    mean_file: "/home/mohanty/data/final_dataset/lmdb/color-60-40/mean.binaryproto"
  }
  data_param {
    source: "/home/mohanty/data/final_dataset/lmdb/color-60-40/test_db"
    batch_size: 100
    backend: LMDB
  }
}
layer {
  name: "conv1"
  type: "Convolution"
  bottom: "data"
  top: "conv1"
  param {
    lr_mult: 1
    decay_mult: 1
  }
  param {
    lr_mult: 2
    decay_mult: 0
  }
  convolution_param {
    num_output: 96
    kernel_size: 11
    stride: 4
    weight_filler {
      type: "gaussian"
      std: 0.01
    }
    bias_filler {
      type: "constant"
      value: 0
    }
  }
}
layer {
  name: "relu1"
  type: "ReLU"
  bottom: "conv1"
  top: "conv1"
}
layer {
  name: "norm1"
  type: "LRN"
  bottom: "conv1"
  top: "norm1"
  lrn_param {
    local_size: 5
    alpha: 0.0001
    beta: 0.75
  }
}
layer {
  name: "pool1"
  type: "Pooling"
  bottom: "norm1"
  top: "pool1"
  pooling_param {
    pool: MAX
    kernel_size: 3
    stride: 2
  }
}
layer {
  name: "conv2"
  type: "Convolution"
  bottom: "pool1"
  top: "conv2"
  param {
    lr_mult: 1
    decay_mult: 1
  }
  param {
    lr_mult: 2
    decay_mult: 0
  }
  convolution_param {
    num_output: 256
    pad: 2
    kernel_size: 5
    group: 2
    weight_filler {
      type: "gaussian"
      std: 0.01
    }
    bias_filler {
      type: "constant"
      value: 0.1
    }
  }
}
layer {
  name: "relu2"
  type: "ReLU"
  bottom: "conv2"
  top: "conv2"
}
layer {
  name: "norm2"
  type: "LRN"
  bottom: "conv2"
  top: "norm2"
  lrn_param {
    local_size: 5
    alpha: 0.0001
    beta: 0.75
  }
}
layer {
  name: "pool2"
  type: "Pooling"
  bottom: "norm2"
  top: "pool2"
  pooling_param {
    pool: MAX
    kernel_size: 3
    stride: 2
  }
}
layer {
  name: "conv3"
  type: "Convolution"
  bottom: "pool2"
  top: "conv3"
  param {
    lr_mult: 1
    decay_mult: 1
  }
  param {
    lr_mult: 2
    decay_mult: 0
  }
  convolution_param {
    num_output: 384
    pad: 1
    kernel_size: 3
    weight_filler {
      type: "gaussian"
      std: 0.01
    }
    bias_filler {
      type: "constant"
      value: 0
    }
  }
}
layer {
  name: "relu3"
  type: "ReLU"
  bottom: "conv3"
  top: "conv3"
}
layer {
  name: "conv4"
  type: "Convolution"
  bottom: "conv3"
  top: "conv4"
  param {
    lr_mult: 1
    decay_mult: 1
  }
  param {
    lr_mult: 2
    decay_mult: 0
  }
  convolution_param {
    num_output: 384
    pad: 1
    kernel_size: 3
    group: 2
    weight_filler {
      type: "gaussian"
      std: 0.01
    }
    bias_filler {
      type: "constant"
      value: 0.1
    }
  }
}
layer {
  name: "relu4"
  type: "ReLU"
  bottom: "conv4"
  top: "conv4"
}
layer {
  name: "conv5"
  type: "Convolution"
  bottom: "conv4"
  top: "conv5"
  param {
    lr_mult: 1
    decay_mult: 1
  }
  param {
    lr_mult: 2
    decay_mult: 0
  }
  convolution_param {
    num_output: 256
    pad: 1
    kernel_size: 3
    group: 2
    weight_filler {
      type: "gaussian"
      std: 0.01
    }
    bias_filler {
      type: "constant"
      value: 0.1
    }
  }
}
layer {
  name: "relu5"
  type: "ReLU"
  bottom: "conv5"
  top: "conv5"
}
layer {
  name: "pool5"
  type: "Pooling"
  bottom: "conv5"
  top: "pool5"
  pooling_param {
    pool: MAX
    kernel_size: 3
    stride: 2
  }
}
layer {
  name: "fc6"
  type: "InnerProduct"
  bottom: "pool5"
  top: "fc6"
  param {
    lr_mult: 1
    decay_mult: 1
  }
  param {
    lr_mult: 2
    decay_mult: 0
  }
  inner_product_param {
    num_output: 4096
    weight_filler {
      type: "gaussian"
      std: 0.005
    }
    bias_filler {
      type: "constant"
      value: 0.1
    }
  }
}
layer {
  name: "relu6"
  type: "ReLU"
  bottom: "fc6"
  top: "fc6"
}
layer {
  name: "drop6"
  type: "Dropout"
  bottom: "fc6"
  top: "fc6"
  dropout_param {
    dropout_ratio: 0.5
  }
}
layer {
  name: "fc7"
  type: "InnerProduct"
  bottom: "fc6"
  top: "fc7"
  param {
    lr_mult: 1
    decay_mult: 1
  }
  param {
    lr_mult: 2
    decay_mult: 0
  }
  inner_product_param {
    num_output: 4096
    weight_filler {
      type: "gaussian"
      std: 0.005
    }
    bias_filler {
      type: "constant"
      value: 0.1
    }
  }
}
layer {
  name: "relu7"
  type: "ReLU"
  bottom: "fc7"
  top: "fc7"
}
layer {
  name: "drop7"
  type: "Dropout"
  bottom: "fc7"
  top: "fc7"
  dropout_param {
    dropout_ratio: 0.5
  }
}
layer {
  name: "fc8_plantvillage"
  type: "InnerProduct"
  bottom: "fc7"
  top: "fc8_plantvillage"
  param {
    lr_mult: 1
    decay_mult: 1
  }
  param {
    lr_mult: 2
    decay_mult: 0
  }
  inner_product_param {
    num_output: 38
    weight_filler {
      type: "gaussian"
      std: 0.01
    }
    bias_filler {
      type: "constant"
      value: 0
    }
  }
}
layer {
  name: "prob"
  type: "Softmax"
  bottom: "fc8_plantvillage"
  top: "prob"
  include {
    phase: TEST
  }
}
layer {
  name: "hdf5out"
  type: "HDF5Output"
  bottom: "prob"
  bottom: "label"
  include {
    phase: TEST
  }
  hdf5_output_param {
    file_name: "hdf5_dumps/iter_325.h5"
  }
}
layer {
  name: "loss"
  type: "SoftmaxWithLoss"
  bottom: "fc8_plantvillage"
  bottom: "label"
  top: "loss"
}
layer {
  name: "accuracy"
  type: "Accuracy"
  bottom: "fc8_plantvillage"
  bottom: "label"
  top: "accuracy"
  include {
    phase: TEST
  }
}
I0403 14:34:11.804925  1597 layer_factory.hpp:77] Creating layer data
I0403 14:34:11.805577  1597 net.cpp:91] Creating Layer data
I0403 14:34:11.805609  1597 net.cpp:399] data -> data
I0403 14:34:11.805660  1597 net.cpp:399] data -> label
I0403 14:34:11.805696  1597 data_transformer.cpp:25] Loading mean file from: /home/mohanty/data/final_dataset/lmdb/color-60-40/mean.binaryproto
I0403 14:34:11.887907  1602 db_lmdb.cpp:38] Opened lmdb /home/mohanty/data/final_dataset/lmdb/color-60-40/test_db
I0403 14:34:11.890418  1597 data_layer.cpp:41] output data size: 100,3,227,227
I0403 14:34:12.014904  1597 net.cpp:141] Setting up data
I0403 14:34:12.014966  1597 net.cpp:148] Top shape: 100 3 227 227 (15458700)
I0403 14:34:12.014991  1597 net.cpp:148] Top shape: 100 (100)
I0403 14:34:12.015008  1597 net.cpp:156] Memory required for data: 61835200
I0403 14:34:12.015036  1597 layer_factory.hpp:77] Creating layer label_data_1_split
I0403 14:34:12.015064  1597 net.cpp:91] Creating Layer label_data_1_split
I0403 14:34:12.015084  1597 net.cpp:425] label_data_1_split <- label
I0403 14:34:12.015115  1597 net.cpp:399] label_data_1_split -> label_data_1_split_0
I0403 14:34:12.015144  1597 net.cpp:399] label_data_1_split -> label_data_1_split_1
I0403 14:34:12.015167  1597 net.cpp:399] label_data_1_split -> label_data_1_split_2
I0403 14:34:12.015233  1597 net.cpp:141] Setting up label_data_1_split
I0403 14:34:12.015259  1597 net.cpp:148] Top shape: 100 (100)
I0403 14:34:12.015281  1597 net.cpp:148] Top shape: 100 (100)
I0403 14:34:12.015301  1597 net.cpp:148] Top shape: 100 (100)
I0403 14:34:12.015316  1597 net.cpp:156] Memory required for data: 61836400
I0403 14:34:12.015332  1597 layer_factory.hpp:77] Creating layer conv1
I0403 14:34:12.015367  1597 net.cpp:91] Creating Layer conv1
I0403 14:34:12.015388  1597 net.cpp:425] conv1 <- data
I0403 14:34:12.015408  1597 net.cpp:399] conv1 -> conv1
I0403 14:34:12.158723  1597 net.cpp:141] Setting up conv1
I0403 14:34:12.158812  1597 net.cpp:148] Top shape: 100 96 55 55 (29040000)
I0403 14:34:12.158829  1597 net.cpp:156] Memory required for data: 177996400
I0403 14:34:12.158861  1597 layer_factory.hpp:77] Creating layer relu1
I0403 14:34:12.158888  1597 net.cpp:91] Creating Layer relu1
I0403 14:34:12.158907  1597 net.cpp:425] relu1 <- conv1
I0403 14:34:12.158927  1597 net.cpp:386] relu1 -> conv1 (in-place)
I0403 14:34:12.159198  1597 net.cpp:141] Setting up relu1
I0403 14:34:12.159226  1597 net.cpp:148] Top shape: 100 96 55 55 (29040000)
I0403 14:34:12.159243  1597 net.cpp:156] Memory required for data: 294156400
I0403 14:34:12.159298  1597 layer_factory.hpp:77] Creating layer norm1
I0403 14:34:12.159328  1597 net.cpp:91] Creating Layer norm1
I0403 14:34:12.159348  1597 net.cpp:425] norm1 <- conv1
I0403 14:34:12.159366  1597 net.cpp:399] norm1 -> norm1
I0403 14:34:12.159689  1597 net.cpp:141] Setting up norm1
I0403 14:34:12.159718  1597 net.cpp:148] Top shape: 100 96 55 55 (29040000)
I0403 14:34:12.159734  1597 net.cpp:156] Memory required for data: 410316400
I0403 14:34:12.159750  1597 layer_factory.hpp:77] Creating layer pool1
I0403 14:34:12.159775  1597 net.cpp:91] Creating Layer pool1
I0403 14:34:12.159793  1597 net.cpp:425] pool1 <- norm1
I0403 14:34:12.159811  1597 net.cpp:399] pool1 -> pool1
I0403 14:34:12.159881  1597 net.cpp:141] Setting up pool1
I0403 14:34:12.159906  1597 net.cpp:148] Top shape: 100 96 27 27 (6998400)
I0403 14:34:12.159922  1597 net.cpp:156] Memory required for data: 438310000
I0403 14:34:12.159939  1597 layer_factory.hpp:77] Creating layer conv2
I0403 14:34:12.159963  1597 net.cpp:91] Creating Layer conv2
I0403 14:34:12.159981  1597 net.cpp:425] conv2 <- pool1
I0403 14:34:12.159999  1597 net.cpp:399] conv2 -> conv2
I0403 14:34:12.175554  1597 net.cpp:141] Setting up conv2
I0403 14:34:12.175612  1597 net.cpp:148] Top shape: 100 256 27 27 (18662400)
I0403 14:34:12.175629  1597 net.cpp:156] Memory required for data: 512959600
I0403 14:34:12.175657  1597 layer_factory.hpp:77] Creating layer relu2
I0403 14:34:12.175678  1597 net.cpp:91] Creating Layer relu2
I0403 14:34:12.175696  1597 net.cpp:425] relu2 <- conv2
I0403 14:34:12.175715  1597 net.cpp:386] relu2 -> conv2 (in-place)
I0403 14:34:12.176007  1597 net.cpp:141] Setting up relu2
I0403 14:34:12.176038  1597 net.cpp:148] Top shape: 100 256 27 27 (18662400)
I0403 14:34:12.176054  1597 net.cpp:156] Memory required for data: 587609200
I0403 14:34:12.176070  1597 layer_factory.hpp:77] Creating layer norm2
I0403 14:34:12.176093  1597 net.cpp:91] Creating Layer norm2
I0403 14:34:12.176110  1597 net.cpp:425] norm2 <- conv2
I0403 14:34:12.176132  1597 net.cpp:399] norm2 -> norm2
I0403 14:34:12.176345  1597 net.cpp:141] Setting up norm2
I0403 14:34:12.176373  1597 net.cpp:148] Top shape: 100 256 27 27 (18662400)
I0403 14:34:12.176388  1597 net.cpp:156] Memory required for data: 662258800
I0403 14:34:12.176404  1597 layer_factory.hpp:77] Creating layer pool2
I0403 14:34:12.176426  1597 net.cpp:91] Creating Layer pool2
I0403 14:34:12.176445  1597 net.cpp:425] pool2 <- norm2
I0403 14:34:12.176463  1597 net.cpp:399] pool2 -> pool2
I0403 14:34:12.176519  1597 net.cpp:141] Setting up pool2
I0403 14:34:12.176543  1597 net.cpp:148] Top shape: 100 256 13 13 (4326400)
I0403 14:34:12.176558  1597 net.cpp:156] Memory required for data: 679564400
I0403 14:34:12.176574  1597 layer_factory.hpp:77] Creating layer conv3
I0403 14:34:12.176601  1597 net.cpp:91] Creating Layer conv3
I0403 14:34:12.176620  1597 net.cpp:425] conv3 <- pool2
I0403 14:34:12.176642  1597 net.cpp:399] conv3 -> conv3
I0403 14:34:12.216048  1597 net.cpp:141] Setting up conv3
I0403 14:34:12.216119  1597 net.cpp:148] Top shape: 100 384 13 13 (6489600)
I0403 14:34:12.216135  1597 net.cpp:156] Memory required for data: 705522800
I0403 14:34:12.216162  1597 layer_factory.hpp:77] Creating layer relu3
I0403 14:34:12.216187  1597 net.cpp:91] Creating Layer relu3
I0403 14:34:12.216207  1597 net.cpp:425] relu3 <- conv3
I0403 14:34:12.216225  1597 net.cpp:386] relu3 -> conv3 (in-place)
I0403 14:34:12.216526  1597 net.cpp:141] Setting up relu3
I0403 14:34:12.216553  1597 net.cpp:148] Top shape: 100 384 13 13 (6489600)
I0403 14:34:12.216569  1597 net.cpp:156] Memory required for data: 731481200
I0403 14:34:12.216584  1597 layer_factory.hpp:77] Creating layer conv4
I0403 14:34:12.216610  1597 net.cpp:91] Creating Layer conv4
I0403 14:34:12.216629  1597 net.cpp:425] conv4 <- conv3
I0403 14:34:12.216650  1597 net.cpp:399] conv4 -> conv4
I0403 14:34:12.247037  1597 net.cpp:141] Setting up conv4
I0403 14:34:12.247098  1597 net.cpp:148] Top shape: 100 384 13 13 (6489600)
I0403 14:34:12.247146  1597 net.cpp:156] Memory required for data: 757439600
I0403 14:34:12.247169  1597 layer_factory.hpp:77] Creating layer relu4
I0403 14:34:12.247190  1597 net.cpp:91] Creating Layer relu4
I0403 14:34:12.247207  1597 net.cpp:425] relu4 <- conv4
I0403 14:34:12.247228  1597 net.cpp:386] relu4 -> conv4 (in-place)
I0403 14:34:12.247522  1597 net.cpp:141] Setting up relu4
I0403 14:34:12.247551  1597 net.cpp:148] Top shape: 100 384 13 13 (6489600)
I0403 14:34:12.247566  1597 net.cpp:156] Memory required for data: 783398000
I0403 14:34:12.247582  1597 layer_factory.hpp:77] Creating layer conv5
I0403 14:34:12.247607  1597 net.cpp:91] Creating Layer conv5
I0403 14:34:12.247627  1597 net.cpp:425] conv5 <- conv4
I0403 14:34:12.247648  1597 net.cpp:399] conv5 -> conv5
I0403 14:34:12.268810  1597 net.cpp:141] Setting up conv5
I0403 14:34:12.268868  1597 net.cpp:148] Top shape: 100 256 13 13 (4326400)
I0403 14:34:12.268885  1597 net.cpp:156] Memory required for data: 800703600
I0403 14:34:12.268914  1597 layer_factory.hpp:77] Creating layer relu5
I0403 14:34:12.268937  1597 net.cpp:91] Creating Layer relu5
I0403 14:34:12.268955  1597 net.cpp:425] relu5 <- conv5
I0403 14:34:12.268973  1597 net.cpp:386] relu5 -> conv5 (in-place)
I0403 14:34:12.269264  1597 net.cpp:141] Setting up relu5
I0403 14:34:12.269295  1597 net.cpp:148] Top shape: 100 256 13 13 (4326400)
I0403 14:34:12.269311  1597 net.cpp:156] Memory required for data: 818009200
I0403 14:34:12.269328  1597 layer_factory.hpp:77] Creating layer pool5
I0403 14:34:12.269353  1597 net.cpp:91] Creating Layer pool5
I0403 14:34:12.269373  1597 net.cpp:425] pool5 <- conv5
I0403 14:34:12.269394  1597 net.cpp:399] pool5 -> pool5
I0403 14:34:12.269465  1597 net.cpp:141] Setting up pool5
I0403 14:34:12.269490  1597 net.cpp:148] Top shape: 100 256 6 6 (921600)
I0403 14:34:12.269506  1597 net.cpp:156] Memory required for data: 821695600
I0403 14:34:12.269521  1597 layer_factory.hpp:77] Creating layer fc6
I0403 14:34:12.269552  1597 net.cpp:91] Creating Layer fc6
I0403 14:34:12.269570  1597 net.cpp:425] fc6 <- pool5
I0403 14:34:12.269593  1597 net.cpp:399] fc6 -> fc6
I0403 14:34:13.819177  1597 net.cpp:141] Setting up fc6
I0403 14:34:13.819233  1597 net.cpp:148] Top shape: 100 4096 (409600)
I0403 14:34:13.819248  1597 net.cpp:156] Memory required for data: 823334000
I0403 14:34:13.819268  1597 layer_factory.hpp:77] Creating layer relu6
I0403 14:34:13.819295  1597 net.cpp:91] Creating Layer relu6
I0403 14:34:13.819313  1597 net.cpp:425] relu6 <- fc6
I0403 14:34:13.819332  1597 net.cpp:386] relu6 -> fc6 (in-place)
I0403 14:34:13.819551  1597 net.cpp:141] Setting up relu6
I0403 14:34:13.819576  1597 net.cpp:148] Top shape: 100 4096 (409600)
I0403 14:34:13.819589  1597 net.cpp:156] Memory required for data: 824972400
I0403 14:34:13.819604  1597 layer_factory.hpp:77] Creating layer drop6
I0403 14:34:13.819624  1597 net.cpp:91] Creating Layer drop6
I0403 14:34:13.819640  1597 net.cpp:425] drop6 <- fc6
I0403 14:34:13.819658  1597 net.cpp:386] drop6 -> fc6 (in-place)
I0403 14:34:13.819708  1597 net.cpp:141] Setting up drop6
I0403 14:34:13.819730  1597 net.cpp:148] Top shape: 100 4096 (409600)
I0403 14:34:13.819744  1597 net.cpp:156] Memory required for data: 826610800
I0403 14:34:13.819759  1597 layer_factory.hpp:77] Creating layer fc7
I0403 14:34:13.819778  1597 net.cpp:91] Creating Layer fc7
I0403 14:34:13.819792  1597 net.cpp:425] fc7 <- fc6
I0403 14:34:13.819813  1597 net.cpp:399] fc7 -> fc7
I0403 14:34:14.507143  1597 net.cpp:141] Setting up fc7
I0403 14:34:14.507182  1597 net.cpp:148] Top shape: 100 4096 (409600)
I0403 14:34:14.507197  1597 net.cpp:156] Memory required for data: 828249200
I0403 14:34:14.507217  1597 layer_factory.hpp:77] Creating layer relu7
I0403 14:34:14.507241  1597 net.cpp:91] Creating Layer relu7
I0403 14:34:14.507261  1597 net.cpp:425] relu7 <- fc7
I0403 14:34:14.507285  1597 net.cpp:386] relu7 -> fc7 (in-place)
I0403 14:34:14.507678  1597 net.cpp:141] Setting up relu7
I0403 14:34:14.507702  1597 net.cpp:148] Top shape: 100 4096 (409600)
I0403 14:34:14.507733  1597 net.cpp:156] Memory required for data: 829887600
I0403 14:34:14.507750  1597 layer_factory.hpp:77] Creating layer drop7
I0403 14:34:14.507769  1597 net.cpp:91] Creating Layer drop7
I0403 14:34:14.507786  1597 net.cpp:425] drop7 <- fc7
I0403 14:34:14.507802  1597 net.cpp:386] drop7 -> fc7 (in-place)
I0403 14:34:14.507846  1597 net.cpp:141] Setting up drop7
I0403 14:34:14.507868  1597 net.cpp:148] Top shape: 100 4096 (409600)
I0403 14:34:14.507881  1597 net.cpp:156] Memory required for data: 831526000
I0403 14:34:14.507895  1597 layer_factory.hpp:77] Creating layer fc8_plantvillage
I0403 14:34:14.507915  1597 net.cpp:91] Creating Layer fc8_plantvillage
I0403 14:34:14.507928  1597 net.cpp:425] fc8_plantvillage <- fc7
I0403 14:34:14.507949  1597 net.cpp:399] fc8_plantvillage -> fc8_plantvillage
I0403 14:34:14.514539  1597 net.cpp:141] Setting up fc8_plantvillage
I0403 14:34:14.514569  1597 net.cpp:148] Top shape: 100 38 (3800)
I0403 14:34:14.514585  1597 net.cpp:156] Memory required for data: 831541200
I0403 14:34:14.514603  1597 layer_factory.hpp:77] Creating layer fc8_plantvillage_fc8_plantvillage_0_split
I0403 14:34:14.514621  1597 net.cpp:91] Creating Layer fc8_plantvillage_fc8_plantvillage_0_split
I0403 14:34:14.514636  1597 net.cpp:425] fc8_plantvillage_fc8_plantvillage_0_split <- fc8_plantvillage
I0403 14:34:14.514652  1597 net.cpp:399] fc8_plantvillage_fc8_plantvillage_0_split -> fc8_plantvillage_fc8_plantvillage_0_split_0
I0403 14:34:14.514672  1597 net.cpp:399] fc8_plantvillage_fc8_plantvillage_0_split -> fc8_plantvillage_fc8_plantvillage_0_split_1
I0403 14:34:14.514691  1597 net.cpp:399] fc8_plantvillage_fc8_plantvillage_0_split -> fc8_plantvillage_fc8_plantvillage_0_split_2
I0403 14:34:14.514765  1597 net.cpp:141] Setting up fc8_plantvillage_fc8_plantvillage_0_split
I0403 14:34:14.514788  1597 net.cpp:148] Top shape: 100 38 (3800)
I0403 14:34:14.514803  1597 net.cpp:148] Top shape: 100 38 (3800)
I0403 14:34:14.514818  1597 net.cpp:148] Top shape: 100 38 (3800)
I0403 14:34:14.514832  1597 net.cpp:156] Memory required for data: 831586800
I0403 14:34:14.514845  1597 layer_factory.hpp:77] Creating layer prob
I0403 14:34:14.514863  1597 net.cpp:91] Creating Layer prob
I0403 14:34:14.514878  1597 net.cpp:425] prob <- fc8_plantvillage_fc8_plantvillage_0_split_0
I0403 14:34:14.514894  1597 net.cpp:399] prob -> prob
I0403 14:34:14.515116  1597 net.cpp:141] Setting up prob
I0403 14:34:14.515141  1597 net.cpp:148] Top shape: 100 38 (3800)
I0403 14:34:14.515154  1597 net.cpp:156] Memory required for data: 831602000
I0403 14:34:14.515169  1597 layer_factory.hpp:77] Creating layer hdf5out
I0403 14:34:14.515192  1597 net.cpp:91] Creating Layer hdf5out
I0403 14:34:14.515207  1597 net.cpp:425] hdf5out <- prob
I0403 14:34:14.515223  1597 net.cpp:425] hdf5out <- label_data_1_split_0
I0403 14:34:14.527396  1597 net.cpp:141] Setting up hdf5out
…
