…
I0403 14:41:03.387423  1747 net.cpp:313] The NetState phase (1) differed from the phase (0) specified by a rule in layer data
I0403 14:41:03.387719  1747 net.cpp:49] Initializing net from parameters: 
state {
  phase: TEST
}
layer {
  name: "data"
  type: "Data"
  top: "data"
  top: "label"
  include {
    phase: TEST
  }
  transform_param {
    crop_size: 227
    mean_file: "/home/mohanty/data/final_dataset/lmdb/color-60-40/mean.binaryproto"
  }
  data_param {
    source: "/home/mohanty/data/final_dataset/lmdb/color-60-40/test_db"
    batch_size: 100
    backend: LMDB
  }
}
layer {
  name: "conv1"
  type: "Convolution"
  bottom: "data"
  top: "conv1"
  param {
    lr_mult: 1
    decay_mult: 1
  }
  param {
    lr_mult: 2
    decay_mult: 0
  }
  convolution_param {
    num_output: 96
    kernel_size: 11
    stride: 4
    weight_filler {
      type: "gaussian"
      std: 0.01
    }
    bias_filler {
      type: "constant"
      value: 0
    }
  }
}
layer {
  name: "relu1"
  type: "ReLU"
  bottom: "conv1"
  top: "conv1"
}
layer {
  name: "norm1"
  type: "LRN"
  bottom: "conv1"
  top: "norm1"
  lrn_param {
    local_size: 5
    alpha: 0.0001
    beta: 0.75
  }
}
layer {
  name: "pool1"
  type: "Pooling"
  bottom: "norm1"
  top: "pool1"
  pooling_param {
    pool: MAX
    kernel_size: 3
    stride: 2
  }
}
layer {
  name: "conv2"
  type: "Convolution"
  bottom: "pool1"
  top: "conv2"
  param {
    lr_mult: 1
    decay_mult: 1
  }
  param {
    lr_mult: 2
    decay_mult: 0
  }
  convolution_param {
    num_output: 256
    pad: 2
    kernel_size: 5
    group: 2
    weight_filler {
      type: "gaussian"
      std: 0.01
    }
    bias_filler {
      type: "constant"
      value: 0.1
    }
  }
}
layer {
  name: "relu2"
  type: "ReLU"
  bottom: "conv2"
  top: "conv2"
}
layer {
  name: "norm2"
  type: "LRN"
  bottom: "conv2"
  top: "norm2"
  lrn_param {
    local_size: 5
    alpha: 0.0001
    beta: 0.75
  }
}
layer {
  name: "pool2"
  type: "Pooling"
  bottom: "norm2"
  top: "pool2"
  pooling_param {
    pool: MAX
    kernel_size: 3
    stride: 2
  }
}
layer {
  name: "conv3"
  type: "Convolution"
  bottom: "pool2"
  top: "conv3"
  param {
    lr_mult: 1
    decay_mult: 1
  }
  param {
    lr_mult: 2
    decay_mult: 0
  }
  convolution_param {
    num_output: 384
    pad: 1
    kernel_size: 3
    weight_filler {
      type: "gaussian"
      std: 0.01
    }
    bias_filler {
      type: "constant"
      value: 0
    }
  }
}
layer {
  name: "relu3"
  type: "ReLU"
  bottom: "conv3"
  top: "conv3"
}
layer {
  name: "conv4"
  type: "Convolution"
  bottom: "conv3"
  top: "conv4"
  param {
    lr_mult: 1
    decay_mult: 1
  }
  param {
    lr_mult: 2
    decay_mult: 0
  }
  convolution_param {
    num_output: 384
    pad: 1
    kernel_size: 3
    group: 2
    weight_filler {
      type: "gaussian"
      std: 0.01
    }
    bias_filler {
      type: "constant"
      value: 0.1
    }
  }
}
layer {
  name: "relu4"
  type: "ReLU"
  bottom: "conv4"
  top: "conv4"
}
layer {
  name: "conv5"
  type: "Convolution"
  bottom: "conv4"
  top: "conv5"
  param {
    lr_mult: 1
    decay_mult: 1
  }
  param {
    lr_mult: 2
    decay_mult: 0
  }
  convolution_param {
    num_output: 256
    pad: 1
    kernel_size: 3
    group: 2
    weight_filler {
      type: "gaussian"
      std: 0.01
    }
    bias_filler {
      type: "constant"
      value: 0.1
    }
  }
}
layer {
  name: "relu5"
  type: "ReLU"
  bottom: "conv5"
  top: "conv5"
}
layer {
  name: "pool5"
  type: "Pooling"
  bottom: "conv5"
  top: "pool5"
  pooling_param {
    pool: MAX
    kernel_size: 3
    stride: 2
  }
}
layer {
  name: "fc6"
  type: "InnerProduct"
  bottom: "pool5"
  top: "fc6"
  param {
    lr_mult: 1
    decay_mult: 1
  }
  param {
    lr_mult: 2
    decay_mult: 0
  }
  inner_product_param {
    num_output: 4096
    weight_filler {
      type: "gaussian"
      std: 0.005
    }
    bias_filler {
      type: "constant"
      value: 0.1
    }
  }
}
layer {
  name: "relu6"
  type: "ReLU"
  bottom: "fc6"
  top: "fc6"
}
layer {
  name: "drop6"
  type: "Dropout"
  bottom: "fc6"
  top: "fc6"
  dropout_param {
    dropout_ratio: 0.5
  }
}
layer {
  name: "fc7"
  type: "InnerProduct"
  bottom: "fc6"
  top: "fc7"
  param {
    lr_mult: 1
    decay_mult: 1
  }
  param {
    lr_mult: 2
    decay_mult: 0
  }
  inner_product_param {
    num_output: 4096
    weight_filler {
      type: "gaussian"
      std: 0.005
    }
    bias_filler {
      type: "constant"
      value: 0.1
    }
  }
}
layer {
  name: "relu7"
  type: "ReLU"
  bottom: "fc7"
  top: "fc7"
}
layer {
  name: "drop7"
  type: "Dropout"
  bottom: "fc7"
  top: "fc7"
  dropout_param {
    dropout_ratio: 0.5
  }
}
layer {
  name: "fc8_plantvillage"
  type: "InnerProduct"
  bottom: "fc7"
  top: "fc8_plantvillage"
  param {
    lr_mult: 1
    decay_mult: 1
  }
  param {
    lr_mult: 2
    decay_mult: 0
  }
  inner_product_param {
    num_output: 38
    weight_filler {
      type: "gaussian"
      std: 0.01
    }
    bias_filler {
      type: "constant"
      value: 0
    }
  }
}
layer {
  name: "prob"
  type: "Softmax"
  bottom: "fc8_plantvillage"
  top: "prob"
  include {
    phase: TEST
  }
}
layer {
  name: "hdf5out"
  type: "HDF5Output"
  bottom: "prob"
  bottom: "label"
  include {
    phase: TEST
  }
  hdf5_output_param {
    file_name: "hdf5_dumps/iter_3250.h5"
  }
}
layer {
  name: "loss"
  type: "SoftmaxWithLoss"
  bottom: "fc8_plantvillage"
  bottom: "label"
  top: "loss"
}
layer {
  name: "accuracy"
  type: "Accuracy"
  bottom: "fc8_plantvillage"
  bottom: "label"
  top: "accuracy"
  include {
    phase: TEST
  }
}
I0403 14:41:03.388257  1747 layer_factory.hpp:77] Creating layer data
I0403 14:41:03.388883  1747 net.cpp:91] Creating Layer data
I0403 14:41:03.388912  1747 net.cpp:399] data -> data
I0403 14:41:03.388964  1747 net.cpp:399] data -> label
I0403 14:41:03.388999  1747 data_transformer.cpp:25] Loading mean file from: /home/mohanty/data/final_dataset/lmdb/color-60-40/mean.binaryproto
I0403 14:41:03.391768  1750 db_lmdb.cpp:38] Opened lmdb /home/mohanty/data/final_dataset/lmdb/color-60-40/test_db
I0403 14:41:03.403693  1747 data_layer.cpp:41] output data size: 100,3,227,227
I0403 14:41:03.525986  1747 net.cpp:141] Setting up data
I0403 14:41:03.526046  1747 net.cpp:148] Top shape: 100 3 227 227 (15458700)
I0403 14:41:03.526069  1747 net.cpp:148] Top shape: 100 (100)
I0403 14:41:03.526084  1747 net.cpp:156] Memory required for data: 61835200
I0403 14:41:03.526111  1747 layer_factory.hpp:77] Creating layer label_data_1_split
I0403 14:41:03.526136  1747 net.cpp:91] Creating Layer label_data_1_split
I0403 14:41:03.526154  1747 net.cpp:425] label_data_1_split <- label
I0403 14:41:03.526185  1747 net.cpp:399] label_data_1_split -> label_data_1_split_0
I0403 14:41:03.526213  1747 net.cpp:399] label_data_1_split -> label_data_1_split_1
I0403 14:41:03.526235  1747 net.cpp:399] label_data_1_split -> label_data_1_split_2
I0403 14:41:03.526304  1747 net.cpp:141] Setting up label_data_1_split
I0403 14:41:03.526327  1747 net.cpp:148] Top shape: 100 (100)
I0403 14:41:03.526345  1747 net.cpp:148] Top shape: 100 (100)
I0403 14:41:03.526362  1747 net.cpp:148] Top shape: 100 (100)
I0403 14:41:03.526377  1747 net.cpp:156] Memory required for data: 61836400
I0403 14:41:03.526392  1747 layer_factory.hpp:77] Creating layer conv1
I0403 14:41:03.526424  1747 net.cpp:91] Creating Layer conv1
I0403 14:41:03.526443  1747 net.cpp:425] conv1 <- data
I0403 14:41:03.526463  1747 net.cpp:399] conv1 -> conv1
I0403 14:41:03.667017  1747 net.cpp:141] Setting up conv1
I0403 14:41:03.667091  1747 net.cpp:148] Top shape: 100 96 55 55 (29040000)
I0403 14:41:03.667109  1747 net.cpp:156] Memory required for data: 177996400
I0403 14:41:03.667141  1747 layer_factory.hpp:77] Creating layer relu1
I0403 14:41:03.667170  1747 net.cpp:91] Creating Layer relu1
I0403 14:41:03.667188  1747 net.cpp:425] relu1 <- conv1
I0403 14:41:03.667207  1747 net.cpp:386] relu1 -> conv1 (in-place)
I0403 14:41:03.667490  1747 net.cpp:141] Setting up relu1
I0403 14:41:03.667526  1747 net.cpp:148] Top shape: 100 96 55 55 (29040000)
I0403 14:41:03.667542  1747 net.cpp:156] Memory required for data: 294156400
I0403 14:41:03.667590  1747 layer_factory.hpp:77] Creating layer norm1
I0403 14:41:03.667619  1747 net.cpp:91] Creating Layer norm1
I0403 14:41:03.667639  1747 net.cpp:425] norm1 <- conv1
I0403 14:41:03.667659  1747 net.cpp:399] norm1 -> norm1
I0403 14:41:03.668005  1747 net.cpp:141] Setting up norm1
I0403 14:41:03.668033  1747 net.cpp:148] Top shape: 100 96 55 55 (29040000)
I0403 14:41:03.668051  1747 net.cpp:156] Memory required for data: 410316400
I0403 14:41:03.668066  1747 layer_factory.hpp:77] Creating layer pool1
I0403 14:41:03.668089  1747 net.cpp:91] Creating Layer pool1
I0403 14:41:03.668107  1747 net.cpp:425] pool1 <- norm1
I0403 14:41:03.668128  1747 net.cpp:399] pool1 -> pool1
I0403 14:41:03.668198  1747 net.cpp:141] Setting up pool1
I0403 14:41:03.668226  1747 net.cpp:148] Top shape: 100 96 27 27 (6998400)
I0403 14:41:03.668241  1747 net.cpp:156] Memory required for data: 438310000
I0403 14:41:03.668256  1747 layer_factory.hpp:77] Creating layer conv2
I0403 14:41:03.668390  1747 net.cpp:91] Creating Layer conv2
I0403 14:41:03.668413  1747 net.cpp:425] conv2 <- pool1
I0403 14:41:03.668434  1747 net.cpp:399] conv2 -> conv2
I0403 14:41:03.684243  1747 net.cpp:141] Setting up conv2
I0403 14:41:03.684309  1747 net.cpp:148] Top shape: 100 256 27 27 (18662400)
I0403 14:41:03.684330  1747 net.cpp:156] Memory required for data: 512959600
I0403 14:41:03.684355  1747 layer_factory.hpp:77] Creating layer relu2
I0403 14:41:03.684379  1747 net.cpp:91] Creating Layer relu2
I0403 14:41:03.684396  1747 net.cpp:425] relu2 <- conv2
I0403 14:41:03.684418  1747 net.cpp:386] relu2 -> conv2 (in-place)
I0403 14:41:03.684761  1747 net.cpp:141] Setting up relu2
I0403 14:41:03.684789  1747 net.cpp:148] Top shape: 100 256 27 27 (18662400)
I0403 14:41:03.684805  1747 net.cpp:156] Memory required for data: 587609200
I0403 14:41:03.684823  1747 layer_factory.hpp:77] Creating layer norm2
I0403 14:41:03.684847  1747 net.cpp:91] Creating Layer norm2
I0403 14:41:03.684864  1747 net.cpp:425] norm2 <- conv2
I0403 14:41:03.684883  1747 net.cpp:399] norm2 -> norm2
I0403 14:41:03.685094  1747 net.cpp:141] Setting up norm2
I0403 14:41:03.685124  1747 net.cpp:148] Top shape: 100 256 27 27 (18662400)
I0403 14:41:03.685142  1747 net.cpp:156] Memory required for data: 662258800
I0403 14:41:03.685158  1747 layer_factory.hpp:77] Creating layer pool2
I0403 14:41:03.685178  1747 net.cpp:91] Creating Layer pool2
I0403 14:41:03.685194  1747 net.cpp:425] pool2 <- norm2
I0403 14:41:03.685214  1747 net.cpp:399] pool2 -> pool2
I0403 14:41:03.685269  1747 net.cpp:141] Setting up pool2
I0403 14:41:03.685302  1747 net.cpp:148] Top shape: 100 256 13 13 (4326400)
I0403 14:41:03.685319  1747 net.cpp:156] Memory required for data: 679564400
I0403 14:41:03.685335  1747 layer_factory.hpp:77] Creating layer conv3
I0403 14:41:03.685360  1747 net.cpp:91] Creating Layer conv3
I0403 14:41:03.685379  1747 net.cpp:425] conv3 <- pool2
I0403 14:41:03.685398  1747 net.cpp:399] conv3 -> conv3
I0403 14:41:03.728478  1747 net.cpp:141] Setting up conv3
I0403 14:41:03.728551  1747 net.cpp:148] Top shape: 100 384 13 13 (6489600)
I0403 14:41:03.728569  1747 net.cpp:156] Memory required for data: 705522800
I0403 14:41:03.728595  1747 layer_factory.hpp:77] Creating layer relu3
I0403 14:41:03.728617  1747 net.cpp:91] Creating Layer relu3
I0403 14:41:03.728636  1747 net.cpp:425] relu3 <- conv3
I0403 14:41:03.728657  1747 net.cpp:386] relu3 -> conv3 (in-place)
I0403 14:41:03.728934  1747 net.cpp:141] Setting up relu3
I0403 14:41:03.728960  1747 net.cpp:148] Top shape: 100 384 13 13 (6489600)
I0403 14:41:03.728976  1747 net.cpp:156] Memory required for data: 731481200
I0403 14:41:03.728991  1747 layer_factory.hpp:77] Creating layer conv4
I0403 14:41:03.729017  1747 net.cpp:91] Creating Layer conv4
I0403 14:41:03.729035  1747 net.cpp:425] conv4 <- conv3
I0403 14:41:03.729058  1747 net.cpp:399] conv4 -> conv4
I0403 14:41:03.759034  1747 net.cpp:141] Setting up conv4
I0403 14:41:03.759096  1747 net.cpp:148] Top shape: 100 384 13 13 (6489600)
I0403 14:41:03.759146  1747 net.cpp:156] Memory required for data: 757439600
I0403 14:41:03.759169  1747 layer_factory.hpp:77] Creating layer relu4
I0403 14:41:03.759191  1747 net.cpp:91] Creating Layer relu4
I0403 14:41:03.759208  1747 net.cpp:425] relu4 <- conv4
I0403 14:41:03.759227  1747 net.cpp:386] relu4 -> conv4 (in-place)
I0403 14:41:03.759552  1747 net.cpp:141] Setting up relu4
I0403 14:41:03.759582  1747 net.cpp:148] Top shape: 100 384 13 13 (6489600)
I0403 14:41:03.759598  1747 net.cpp:156] Memory required for data: 783398000
I0403 14:41:03.759615  1747 layer_factory.hpp:77] Creating layer conv5
I0403 14:41:03.759640  1747 net.cpp:91] Creating Layer conv5
I0403 14:41:03.759659  1747 net.cpp:425] conv5 <- conv4
I0403 14:41:03.759677  1747 net.cpp:399] conv5 -> conv5
I0403 14:41:03.780828  1747 net.cpp:141] Setting up conv5
I0403 14:41:03.780894  1747 net.cpp:148] Top shape: 100 256 13 13 (4326400)
I0403 14:41:03.780913  1747 net.cpp:156] Memory required for data: 800703600
I0403 14:41:03.780939  1747 layer_factory.hpp:77] Creating layer relu5
I0403 14:41:03.780961  1747 net.cpp:91] Creating Layer relu5
I0403 14:41:03.780977  1747 net.cpp:425] relu5 <- conv5
I0403 14:41:03.780998  1747 net.cpp:386] relu5 -> conv5 (in-place)
I0403 14:41:03.781291  1747 net.cpp:141] Setting up relu5
I0403 14:41:03.781318  1747 net.cpp:148] Top shape: 100 256 13 13 (4326400)
I0403 14:41:03.781334  1747 net.cpp:156] Memory required for data: 818009200
I0403 14:41:03.781350  1747 layer_factory.hpp:77] Creating layer pool5
I0403 14:41:03.781376  1747 net.cpp:91] Creating Layer pool5
I0403 14:41:03.781394  1747 net.cpp:425] pool5 <- conv5
I0403 14:41:03.781412  1747 net.cpp:399] pool5 -> pool5
I0403 14:41:03.781476  1747 net.cpp:141] Setting up pool5
I0403 14:41:03.781498  1747 net.cpp:148] Top shape: 100 256 6 6 (921600)
I0403 14:41:03.781514  1747 net.cpp:156] Memory required for data: 821695600
I0403 14:41:03.781530  1747 layer_factory.hpp:77] Creating layer fc6
I0403 14:41:03.781558  1747 net.cpp:91] Creating Layer fc6
I0403 14:41:03.781574  1747 net.cpp:425] fc6 <- pool5
I0403 14:41:03.781596  1747 net.cpp:399] fc6 -> fc6
I0403 14:41:05.366888  1747 net.cpp:141] Setting up fc6
I0403 14:41:05.366935  1747 net.cpp:148] Top shape: 100 4096 (409600)
I0403 14:41:05.366950  1747 net.cpp:156] Memory required for data: 823334000
I0403 14:41:05.366973  1747 layer_factory.hpp:77] Creating layer relu6
I0403 14:41:05.366996  1747 net.cpp:91] Creating Layer relu6
I0403 14:41:05.367013  1747 net.cpp:425] relu6 <- fc6
I0403 14:41:05.367033  1747 net.cpp:386] relu6 -> fc6 (in-place)
I0403 14:41:05.367257  1747 net.cpp:141] Setting up relu6
I0403 14:41:05.367290  1747 net.cpp:148] Top shape: 100 4096 (409600)
I0403 14:41:05.367305  1747 net.cpp:156] Memory required for data: 824972400
I0403 14:41:05.367321  1747 layer_factory.hpp:77] Creating layer drop6
I0403 14:41:05.367341  1747 net.cpp:91] Creating Layer drop6
I0403 14:41:05.367357  1747 net.cpp:425] drop6 <- fc6
I0403 14:41:05.367377  1747 net.cpp:386] drop6 -> fc6 (in-place)
I0403 14:41:05.367429  1747 net.cpp:141] Setting up drop6
I0403 14:41:05.367452  1747 net.cpp:148] Top shape: 100 4096 (409600)
I0403 14:41:05.367467  1747 net.cpp:156] Memory required for data: 826610800
I0403 14:41:05.367482  1747 layer_factory.hpp:77] Creating layer fc7
I0403 14:41:05.367506  1747 net.cpp:91] Creating Layer fc7
I0403 14:41:05.367522  1747 net.cpp:425] fc7 <- fc6
I0403 14:41:05.367544  1747 net.cpp:399] fc7 -> fc7
I0403 14:41:06.078387  1747 net.cpp:141] Setting up fc7
I0403 14:41:06.078428  1747 net.cpp:148] Top shape: 100 4096 (409600)
I0403 14:41:06.078444  1747 net.cpp:156] Memory required for data: 828249200
I0403 14:41:06.078465  1747 layer_factory.hpp:77] Creating layer relu7
I0403 14:41:06.078487  1747 net.cpp:91] Creating Layer relu7
I0403 14:41:06.078503  1747 net.cpp:425] relu7 <- fc7
I0403 14:41:06.078527  1747 net.cpp:386] relu7 -> fc7 (in-place)
I0403 14:41:06.078938  1747 net.cpp:141] Setting up relu7
I0403 14:41:06.078963  1747 net.cpp:148] Top shape: 100 4096 (409600)
I0403 14:41:06.079010  1747 net.cpp:156] Memory required for data: 829887600
I0403 14:41:06.079026  1747 layer_factory.hpp:77] Creating layer drop7
I0403 14:41:06.079044  1747 net.cpp:91] Creating Layer drop7
I0403 14:41:06.079061  1747 net.cpp:425] drop7 <- fc7
I0403 14:41:06.079079  1747 net.cpp:386] drop7 -> fc7 (in-place)
I0403 14:41:06.079121  1747 net.cpp:141] Setting up drop7
I0403 14:41:06.079146  1747 net.cpp:148] Top shape: 100 4096 (409600)
I0403 14:41:06.079161  1747 net.cpp:156] Memory required for data: 831526000
I0403 14:41:06.079176  1747 layer_factory.hpp:77] Creating layer fc8_plantvillage
I0403 14:41:06.079195  1747 net.cpp:91] Creating Layer fc8_plantvillage
I0403 14:41:06.079210  1747 net.cpp:425] fc8_plantvillage <- fc7
I0403 14:41:06.079231  1747 net.cpp:399] fc8_plantvillage -> fc8_plantvillage
I0403 14:41:06.085755  1747 net.cpp:141] Setting up fc8_plantvillage
I0403 14:41:06.085783  1747 net.cpp:148] Top shape: 100 38 (3800)
I0403 14:41:06.085798  1747 net.cpp:156] Memory required for data: 831541200
I0403 14:41:06.085816  1747 layer_factory.hpp:77] Creating layer fc8_plantvillage_fc8_plantvillage_0_split
I0403 14:41:06.085834  1747 net.cpp:91] Creating Layer fc8_plantvillage_fc8_plantvillage_0_split
I0403 14:41:06.085850  1747 net.cpp:425] fc8_plantvillage_fc8_plantvillage_0_split <- fc8_plantvillage
I0403 14:41:06.085870  1747 net.cpp:399] fc8_plantvillage_fc8_plantvillage_0_split -> fc8_plantvillage_fc8_plantvillage_0_split_0
I0403 14:41:06.085889  1747 net.cpp:399] fc8_plantvillage_fc8_plantvillage_0_split -> fc8_plantvillage_fc8_plantvillage_0_split_1
I0403 14:41:06.085909  1747 net.cpp:399] fc8_plantvillage_fc8_plantvillage_0_split -> fc8_plantvillage_fc8_plantvillage_0_split_2
I0403 14:41:06.085983  1747 net.cpp:141] Setting up fc8_plantvillage_fc8_plantvillage_0_split
I0403 14:41:06.086009  1747 net.cpp:148] Top shape: 100 38 (3800)
I0403 14:41:06.086025  1747 net.cpp:148] Top shape: 100 38 (3800)
I0403 14:41:06.086041  1747 net.cpp:148] Top shape: 100 38 (3800)
I0403 14:41:06.086055  1747 net.cpp:156] Memory required for data: 831586800
I0403 14:41:06.086069  1747 layer_factory.hpp:77] Creating layer prob
I0403 14:41:06.086087  1747 net.cpp:91] Creating Layer prob
I0403 14:41:06.086102  1747 net.cpp:425] prob <- fc8_plantvillage_fc8_plantvillage_0_split_0
I0403 14:41:06.086119  1747 net.cpp:399] prob -> prob
I0403 14:41:06.086349  1747 net.cpp:141] Setting up prob
I0403 14:41:06.086374  1747 net.cpp:148] Top shape: 100 38 (3800)
I0403 14:41:06.086390  1747 net.cpp:156] Memory required for data: 831602000
I0403 14:41:06.086403  1747 layer_factory.hpp:77] Creating layer hdf5out
I0403 14:41:06.086421  1747 net.cpp:91] Creating Layer hdf5out
I0403 14:41:06.086437  1747 net.cpp:425] hdf5out <- prob
I0403 14:41:06.086452  1747 net.cpp:425] hdf5out <- label_data_1_split_0
I0403 14:41:06.088908  1747 net.cpp:141] Setting up hdf5out
…
