…
I0403 14:52:28.179726  2089 net.cpp:313] The NetState phase (1) differed from the phase (0) specified by a rule in layer data
I0403 14:52:28.180022  2089 net.cpp:49] Initializing net from parameters: 
state {
  phase: TEST
}
layer {
  name: "data"
  type: "Data"
  top: "data"
  top: "label"
  include {
    phase: TEST
  }
  transform_param {
    crop_size: 227
    mean_file: "/home/mohanty/data/final_dataset/lmdb/color-60-40/mean.binaryproto"
  }
  data_param {
    source: "/home/mohanty/data/final_dataset/lmdb/color-60-40/test_db"
    batch_size: 100
    backend: LMDB
  }
}
layer {
  name: "conv1"
  type: "Convolution"
  bottom: "data"
  top: "conv1"
  param {
    lr_mult: 1
    decay_mult: 1
  }
  param {
    lr_mult: 2
    decay_mult: 0
  }
  convolution_param {
    num_output: 96
    kernel_size: 11
    stride: 4
    weight_filler {
      type: "gaussian"
      std: 0.01
    }
    bias_filler {
      type: "constant"
      value: 0
    }
  }
}
layer {
  name: "relu1"
  type: "ReLU"
  bottom: "conv1"
  top: "conv1"
}
layer {
  name: "norm1"
  type: "LRN"
  bottom: "conv1"
  top: "norm1"
  lrn_param {
    local_size: 5
    alpha: 0.0001
    beta: 0.75
  }
}
layer {
  name: "pool1"
  type: "Pooling"
  bottom: "norm1"
  top: "pool1"
  pooling_param {
    pool: MAX
    kernel_size: 3
    stride: 2
  }
}
layer {
  name: "conv2"
  type: "Convolution"
  bottom: "pool1"
  top: "conv2"
  param {
    lr_mult: 1
    decay_mult: 1
  }
  param {
    lr_mult: 2
    decay_mult: 0
  }
  convolution_param {
    num_output: 256
    pad: 2
    kernel_size: 5
    group: 2
    weight_filler {
      type: "gaussian"
      std: 0.01
    }
    bias_filler {
      type: "constant"
      value: 0.1
    }
  }
}
layer {
  name: "relu2"
  type: "ReLU"
  bottom: "conv2"
  top: "conv2"
}
layer {
  name: "norm2"
  type: "LRN"
  bottom: "conv2"
  top: "norm2"
  lrn_param {
    local_size: 5
    alpha: 0.0001
    beta: 0.75
  }
}
layer {
  name: "pool2"
  type: "Pooling"
  bottom: "norm2"
  top: "pool2"
  pooling_param {
    pool: MAX
    kernel_size: 3
    stride: 2
  }
}
layer {
  name: "conv3"
  type: "Convolution"
  bottom: "pool2"
  top: "conv3"
  param {
    lr_mult: 1
    decay_mult: 1
  }
  param {
    lr_mult: 2
    decay_mult: 0
  }
  convolution_param {
    num_output: 384
    pad: 1
    kernel_size: 3
    weight_filler {
      type: "gaussian"
      std: 0.01
    }
    bias_filler {
      type: "constant"
      value: 0
    }
  }
}
layer {
  name: "relu3"
  type: "ReLU"
  bottom: "conv3"
  top: "conv3"
}
layer {
  name: "conv4"
  type: "Convolution"
  bottom: "conv3"
  top: "conv4"
  param {
    lr_mult: 1
    decay_mult: 1
  }
  param {
    lr_mult: 2
    decay_mult: 0
  }
  convolution_param {
    num_output: 384
    pad: 1
    kernel_size: 3
    group: 2
    weight_filler {
      type: "gaussian"
      std: 0.01
    }
    bias_filler {
      type: "constant"
      value: 0.1
    }
  }
}
layer {
  name: "relu4"
  type: "ReLU"
  bottom: "conv4"
  top: "conv4"
}
layer {
  name: "conv5"
  type: "Convolution"
  bottom: "conv4"
  top: "conv5"
  param {
    lr_mult: 1
    decay_mult: 1
  }
  param {
    lr_mult: 2
    decay_mult: 0
  }
  convolution_param {
    num_output: 256
    pad: 1
    kernel_size: 3
    group: 2
    weight_filler {
      type: "gaussian"
      std: 0.01
    }
    bias_filler {
      type: "constant"
      value: 0.1
    }
  }
}
layer {
  name: "relu5"
  type: "ReLU"
  bottom: "conv5"
  top: "conv5"
}
layer {
  name: "pool5"
  type: "Pooling"
  bottom: "conv5"
  top: "pool5"
  pooling_param {
    pool: MAX
    kernel_size: 3
    stride: 2
  }
}
layer {
  name: "fc6"
  type: "InnerProduct"
  bottom: "pool5"
  top: "fc6"
  param {
    lr_mult: 1
    decay_mult: 1
  }
  param {
    lr_mult: 2
    decay_mult: 0
  }
  inner_product_param {
    num_output: 4096
    weight_filler {
      type: "gaussian"
      std: 0.005
    }
    bias_filler {
      type: "constant"
      value: 0.1
    }
  }
}
layer {
  name: "relu6"
  type: "ReLU"
  bottom: "fc6"
  top: "fc6"
}
layer {
  name: "drop6"
  type: "Dropout"
  bottom: "fc6"
  top: "fc6"
  dropout_param {
    dropout_ratio: 0.5
  }
}
layer {
  name: "fc7"
  type: "InnerProduct"
  bottom: "fc6"
  top: "fc7"
  param {
    lr_mult: 1
    decay_mult: 1
  }
  param {
    lr_mult: 2
    decay_mult: 0
  }
  inner_product_param {
    num_output: 4096
    weight_filler {
      type: "gaussian"
      std: 0.005
    }
    bias_filler {
      type: "constant"
      value: 0.1
    }
  }
}
layer {
  name: "relu7"
  type: "ReLU"
  bottom: "fc7"
  top: "fc7"
}
layer {
  name: "drop7"
  type: "Dropout"
  bottom: "fc7"
  top: "fc7"
  dropout_param {
    dropout_ratio: 0.5
  }
}
layer {
  name: "fc8_plantvillage"
  type: "InnerProduct"
  bottom: "fc7"
  top: "fc8_plantvillage"
  param {
    lr_mult: 1
    decay_mult: 1
  }
  param {
    lr_mult: 2
    decay_mult: 0
  }
  inner_product_param {
    num_output: 38
    weight_filler {
      type: "gaussian"
      std: 0.01
    }
    bias_filler {
      type: "constant"
      value: 0
    }
  }
}
layer {
  name: "prob"
  type: "Softmax"
  bottom: "fc8_plantvillage"
  top: "prob"
  include {
    phase: TEST
  }
}
layer {
  name: "hdf5out"
  type: "HDF5Output"
  bottom: "prob"
  bottom: "label"
  include {
    phase: TEST
  }
  hdf5_output_param {
    file_name: "hdf5_dumps/iter_8125.h5"
  }
}
layer {
  name: "loss"
  type: "SoftmaxWithLoss"
  bottom: "fc8_plantvillage"
  bottom: "label"
  top: "loss"
}
layer {
  name: "accuracy"
  type: "Accuracy"
  bottom: "fc8_plantvillage"
  bottom: "label"
  top: "accuracy"
  include {
    phase: TEST
  }
}
I0403 14:52:28.180611  2089 layer_factory.hpp:77] Creating layer data
I0403 14:52:28.181262  2089 net.cpp:91] Creating Layer data
I0403 14:52:28.181293  2089 net.cpp:399] data -> data
I0403 14:52:28.181347  2089 net.cpp:399] data -> label
I0403 14:52:28.181385  2089 data_transformer.cpp:25] Loading mean file from: /home/mohanty/data/final_dataset/lmdb/color-60-40/mean.binaryproto
I0403 14:52:28.184291  2094 db_lmdb.cpp:38] Opened lmdb /home/mohanty/data/final_dataset/lmdb/color-60-40/test_db
I0403 14:52:28.195933  2089 data_layer.cpp:41] output data size: 100,3,227,227
I0403 14:52:28.318246  2089 net.cpp:141] Setting up data
I0403 14:52:28.318305  2089 net.cpp:148] Top shape: 100 3 227 227 (15458700)
I0403 14:52:28.318327  2089 net.cpp:148] Top shape: 100 (100)
I0403 14:52:28.318342  2089 net.cpp:156] Memory required for data: 61835200
I0403 14:52:28.318368  2089 layer_factory.hpp:77] Creating layer label_data_1_split
I0403 14:52:28.318393  2089 net.cpp:91] Creating Layer label_data_1_split
I0403 14:52:28.318410  2089 net.cpp:425] label_data_1_split <- label
I0403 14:52:28.318440  2089 net.cpp:399] label_data_1_split -> label_data_1_split_0
I0403 14:52:28.318466  2089 net.cpp:399] label_data_1_split -> label_data_1_split_1
I0403 14:52:28.318486  2089 net.cpp:399] label_data_1_split -> label_data_1_split_2
I0403 14:52:28.318549  2089 net.cpp:141] Setting up label_data_1_split
I0403 14:52:28.318572  2089 net.cpp:148] Top shape: 100 (100)
I0403 14:52:28.318589  2089 net.cpp:148] Top shape: 100 (100)
I0403 14:52:28.318605  2089 net.cpp:148] Top shape: 100 (100)
I0403 14:52:28.318619  2089 net.cpp:156] Memory required for data: 61836400
I0403 14:52:28.318634  2089 layer_factory.hpp:77] Creating layer conv1
I0403 14:52:28.318665  2089 net.cpp:91] Creating Layer conv1
I0403 14:52:28.318683  2089 net.cpp:425] conv1 <- data
I0403 14:52:28.318702  2089 net.cpp:399] conv1 -> conv1
I0403 14:52:28.463956  2089 net.cpp:141] Setting up conv1
I0403 14:52:28.464046  2089 net.cpp:148] Top shape: 100 96 55 55 (29040000)
I0403 14:52:28.464064  2089 net.cpp:156] Memory required for data: 177996400
I0403 14:52:28.464098  2089 layer_factory.hpp:77] Creating layer relu1
I0403 14:52:28.464128  2089 net.cpp:91] Creating Layer relu1
I0403 14:52:28.464146  2089 net.cpp:425] relu1 <- conv1
I0403 14:52:28.464166  2089 net.cpp:386] relu1 -> conv1 (in-place)
I0403 14:52:28.464453  2089 net.cpp:141] Setting up relu1
I0403 14:52:28.464481  2089 net.cpp:148] Top shape: 100 96 55 55 (29040000)
I0403 14:52:28.464503  2089 net.cpp:156] Memory required for data: 294156400
I0403 14:52:28.464550  2089 layer_factory.hpp:77] Creating layer norm1
I0403 14:52:28.464577  2089 net.cpp:91] Creating Layer norm1
I0403 14:52:28.464596  2089 net.cpp:425] norm1 <- conv1
I0403 14:52:28.464618  2089 net.cpp:399] norm1 -> norm1
I0403 14:52:28.464961  2089 net.cpp:141] Setting up norm1
I0403 14:52:28.464989  2089 net.cpp:148] Top shape: 100 96 55 55 (29040000)
I0403 14:52:28.465006  2089 net.cpp:156] Memory required for data: 410316400
I0403 14:52:28.465021  2089 layer_factory.hpp:77] Creating layer pool1
I0403 14:52:28.465045  2089 net.cpp:91] Creating Layer pool1
I0403 14:52:28.465064  2089 net.cpp:425] pool1 <- norm1
I0403 14:52:28.465085  2089 net.cpp:399] pool1 -> pool1
I0403 14:52:28.465157  2089 net.cpp:141] Setting up pool1
I0403 14:52:28.465181  2089 net.cpp:148] Top shape: 100 96 27 27 (6998400)
I0403 14:52:28.465198  2089 net.cpp:156] Memory required for data: 438310000
I0403 14:52:28.465214  2089 layer_factory.hpp:77] Creating layer conv2
I0403 14:52:28.465243  2089 net.cpp:91] Creating Layer conv2
I0403 14:52:28.465261  2089 net.cpp:425] conv2 <- pool1
I0403 14:52:28.465286  2089 net.cpp:399] conv2 -> conv2
I0403 14:52:28.480783  2089 net.cpp:141] Setting up conv2
I0403 14:52:28.480825  2089 net.cpp:148] Top shape: 100 256 27 27 (18662400)
I0403 14:52:28.480844  2089 net.cpp:156] Memory required for data: 512959600
I0403 14:52:28.480867  2089 layer_factory.hpp:77] Creating layer relu2
I0403 14:52:28.480888  2089 net.cpp:91] Creating Layer relu2
I0403 14:52:28.480906  2089 net.cpp:425] relu2 <- conv2
I0403 14:52:28.480927  2089 net.cpp:386] relu2 -> conv2 (in-place)
I0403 14:52:28.481221  2089 net.cpp:141] Setting up relu2
I0403 14:52:28.481250  2089 net.cpp:148] Top shape: 100 256 27 27 (18662400)
I0403 14:52:28.481266  2089 net.cpp:156] Memory required for data: 587609200
I0403 14:52:28.481287  2089 layer_factory.hpp:77] Creating layer norm2
I0403 14:52:28.481312  2089 net.cpp:91] Creating Layer norm2
I0403 14:52:28.481330  2089 net.cpp:425] norm2 <- conv2
I0403 14:52:28.481350  2089 net.cpp:399] norm2 -> norm2
I0403 14:52:28.481554  2089 net.cpp:141] Setting up norm2
I0403 14:52:28.481582  2089 net.cpp:148] Top shape: 100 256 27 27 (18662400)
I0403 14:52:28.481600  2089 net.cpp:156] Memory required for data: 662258800
I0403 14:52:28.481614  2089 layer_factory.hpp:77] Creating layer pool2
I0403 14:52:28.481633  2089 net.cpp:91] Creating Layer pool2
I0403 14:52:28.481649  2089 net.cpp:425] pool2 <- norm2
I0403 14:52:28.481669  2089 net.cpp:399] pool2 -> pool2
I0403 14:52:28.481724  2089 net.cpp:141] Setting up pool2
I0403 14:52:28.481750  2089 net.cpp:148] Top shape: 100 256 13 13 (4326400)
I0403 14:52:28.481765  2089 net.cpp:156] Memory required for data: 679564400
I0403 14:52:28.481781  2089 layer_factory.hpp:77] Creating layer conv3
I0403 14:52:28.481804  2089 net.cpp:91] Creating Layer conv3
I0403 14:52:28.481827  2089 net.cpp:425] conv3 <- pool2
I0403 14:52:28.481853  2089 net.cpp:399] conv3 -> conv3
I0403 14:52:28.525178  2089 net.cpp:141] Setting up conv3
I0403 14:52:28.525245  2089 net.cpp:148] Top shape: 100 384 13 13 (6489600)
I0403 14:52:28.525262  2089 net.cpp:156] Memory required for data: 705522800
I0403 14:52:28.525291  2089 layer_factory.hpp:77] Creating layer relu3
I0403 14:52:28.525313  2089 net.cpp:91] Creating Layer relu3
I0403 14:52:28.525331  2089 net.cpp:425] relu3 <- conv3
I0403 14:52:28.525351  2089 net.cpp:386] relu3 -> conv3 (in-place)
I0403 14:52:28.525620  2089 net.cpp:141] Setting up relu3
I0403 14:52:28.525646  2089 net.cpp:148] Top shape: 100 384 13 13 (6489600)
I0403 14:52:28.525662  2089 net.cpp:156] Memory required for data: 731481200
I0403 14:52:28.525677  2089 layer_factory.hpp:77] Creating layer conv4
I0403 14:52:28.525701  2089 net.cpp:91] Creating Layer conv4
I0403 14:52:28.525719  2089 net.cpp:425] conv4 <- conv3
I0403 14:52:28.525741  2089 net.cpp:399] conv4 -> conv4
I0403 14:52:28.555392  2089 net.cpp:141] Setting up conv4
I0403 14:52:28.555466  2089 net.cpp:148] Top shape: 100 384 13 13 (6489600)
I0403 14:52:28.555516  2089 net.cpp:156] Memory required for data: 757439600
I0403 14:52:28.555537  2089 layer_factory.hpp:77] Creating layer relu4
I0403 14:52:28.555558  2089 net.cpp:91] Creating Layer relu4
I0403 14:52:28.555577  2089 net.cpp:425] relu4 <- conv4
I0403 14:52:28.555596  2089 net.cpp:386] relu4 -> conv4 (in-place)
I0403 14:52:28.555879  2089 net.cpp:141] Setting up relu4
I0403 14:52:28.555908  2089 net.cpp:148] Top shape: 100 384 13 13 (6489600)
I0403 14:52:28.555924  2089 net.cpp:156] Memory required for data: 783398000
I0403 14:52:28.555940  2089 layer_factory.hpp:77] Creating layer conv5
I0403 14:52:28.555979  2089 net.cpp:91] Creating Layer conv5
I0403 14:52:28.556000  2089 net.cpp:425] conv5 <- conv4
I0403 14:52:28.556021  2089 net.cpp:399] conv5 -> conv5
I0403 14:52:28.576620  2089 net.cpp:141] Setting up conv5
I0403 14:52:28.576663  2089 net.cpp:148] Top shape: 100 256 13 13 (4326400)
I0403 14:52:28.576681  2089 net.cpp:156] Memory required for data: 800703600
I0403 14:52:28.576706  2089 layer_factory.hpp:77] Creating layer relu5
I0403 14:52:28.576727  2089 net.cpp:91] Creating Layer relu5
I0403 14:52:28.576745  2089 net.cpp:425] relu5 <- conv5
I0403 14:52:28.576766  2089 net.cpp:386] relu5 -> conv5 (in-place)
I0403 14:52:28.577045  2089 net.cpp:141] Setting up relu5
I0403 14:52:28.577072  2089 net.cpp:148] Top shape: 100 256 13 13 (4326400)
I0403 14:52:28.577087  2089 net.cpp:156] Memory required for data: 818009200
I0403 14:52:28.577102  2089 layer_factory.hpp:77] Creating layer pool5
I0403 14:52:28.577126  2089 net.cpp:91] Creating Layer pool5
I0403 14:52:28.577142  2089 net.cpp:425] pool5 <- conv5
I0403 14:52:28.577160  2089 net.cpp:399] pool5 -> pool5
I0403 14:52:28.577221  2089 net.cpp:141] Setting up pool5
I0403 14:52:28.577244  2089 net.cpp:148] Top shape: 100 256 6 6 (921600)
I0403 14:52:28.577258  2089 net.cpp:156] Memory required for data: 821695600
I0403 14:52:28.577277  2089 layer_factory.hpp:77] Creating layer fc6
I0403 14:52:28.577306  2089 net.cpp:91] Creating Layer fc6
I0403 14:52:28.577323  2089 net.cpp:425] fc6 <- pool5
I0403 14:52:28.577344  2089 net.cpp:399] fc6 -> fc6
I0403 14:52:30.152456  2089 net.cpp:141] Setting up fc6
I0403 14:52:30.152510  2089 net.cpp:148] Top shape: 100 4096 (409600)
I0403 14:52:30.152528  2089 net.cpp:156] Memory required for data: 823334000
I0403 14:52:30.152549  2089 layer_factory.hpp:77] Creating layer relu6
I0403 14:52:30.152570  2089 net.cpp:91] Creating Layer relu6
I0403 14:52:30.152585  2089 net.cpp:425] relu6 <- fc6
I0403 14:52:30.152604  2089 net.cpp:386] relu6 -> fc6 (in-place)
I0403 14:52:30.152829  2089 net.cpp:141] Setting up relu6
I0403 14:52:30.152855  2089 net.cpp:148] Top shape: 100 4096 (409600)
I0403 14:52:30.152870  2089 net.cpp:156] Memory required for data: 824972400
I0403 14:52:30.152884  2089 layer_factory.hpp:77] Creating layer drop6
I0403 14:52:30.152902  2089 net.cpp:91] Creating Layer drop6
I0403 14:52:30.152917  2089 net.cpp:425] drop6 <- fc6
I0403 14:52:30.152935  2089 net.cpp:386] drop6 -> fc6 (in-place)
I0403 14:52:30.152984  2089 net.cpp:141] Setting up drop6
I0403 14:52:30.153005  2089 net.cpp:148] Top shape: 100 4096 (409600)
I0403 14:52:30.153019  2089 net.cpp:156] Memory required for data: 826610800
I0403 14:52:30.153033  2089 layer_factory.hpp:77] Creating layer fc7
I0403 14:52:30.153055  2089 net.cpp:91] Creating Layer fc7
I0403 14:52:30.153071  2089 net.cpp:425] fc7 <- fc6
I0403 14:52:30.153091  2089 net.cpp:399] fc7 -> fc7
I0403 14:52:30.840044  2089 net.cpp:141] Setting up fc7
I0403 14:52:30.840085  2089 net.cpp:148] Top shape: 100 4096 (409600)
I0403 14:52:30.840101  2089 net.cpp:156] Memory required for data: 828249200
I0403 14:52:30.840122  2089 layer_factory.hpp:77] Creating layer relu7
I0403 14:52:30.840144  2089 net.cpp:91] Creating Layer relu7
I0403 14:52:30.840160  2089 net.cpp:425] relu7 <- fc7
I0403 14:52:30.840179  2089 net.cpp:386] relu7 -> fc7 (in-place)
I0403 14:52:30.840592  2089 net.cpp:141] Setting up relu7
I0403 14:52:30.840618  2089 net.cpp:148] Top shape: 100 4096 (409600)
I0403 14:52:30.840662  2089 net.cpp:156] Memory required for data: 829887600
I0403 14:52:30.840678  2089 layer_factory.hpp:77] Creating layer drop7
I0403 14:52:30.840697  2089 net.cpp:91] Creating Layer drop7
I0403 14:52:30.840713  2089 net.cpp:425] drop7 <- fc7
I0403 14:52:30.840731  2089 net.cpp:386] drop7 -> fc7 (in-place)
I0403 14:52:30.840775  2089 net.cpp:141] Setting up drop7
I0403 14:52:30.840796  2089 net.cpp:148] Top shape: 100 4096 (409600)
I0403 14:52:30.840811  2089 net.cpp:156] Memory required for data: 831526000
I0403 14:52:30.840826  2089 layer_factory.hpp:77] Creating layer fc8_plantvillage
I0403 14:52:30.840848  2089 net.cpp:91] Creating Layer fc8_plantvillage
I0403 14:52:30.840865  2089 net.cpp:425] fc8_plantvillage <- fc7
I0403 14:52:30.840886  2089 net.cpp:399] fc8_plantvillage -> fc8_plantvillage
I0403 14:52:30.847676  2089 net.cpp:141] Setting up fc8_plantvillage
I0403 14:52:30.847704  2089 net.cpp:148] Top shape: 100 38 (3800)
I0403 14:52:30.847719  2089 net.cpp:156] Memory required for data: 831541200
I0403 14:52:30.847738  2089 layer_factory.hpp:77] Creating layer fc8_plantvillage_fc8_plantvillage_0_split
I0403 14:52:30.847755  2089 net.cpp:91] Creating Layer fc8_plantvillage_fc8_plantvillage_0_split
I0403 14:52:30.847771  2089 net.cpp:425] fc8_plantvillage_fc8_plantvillage_0_split <- fc8_plantvillage
I0403 14:52:30.847790  2089 net.cpp:399] fc8_plantvillage_fc8_plantvillage_0_split -> fc8_plantvillage_fc8_plantvillage_0_split_0
I0403 14:52:30.847812  2089 net.cpp:399] fc8_plantvillage_fc8_plantvillage_0_split -> fc8_plantvillage_fc8_plantvillage_0_split_1
I0403 14:52:30.847832  2089 net.cpp:399] fc8_plantvillage_fc8_plantvillage_0_split -> fc8_plantvillage_fc8_plantvillage_0_split_2
I0403 14:52:30.847908  2089 net.cpp:141] Setting up fc8_plantvillage_fc8_plantvillage_0_split
I0403 14:52:30.847934  2089 net.cpp:148] Top shape: 100 38 (3800)
I0403 14:52:30.847951  2089 net.cpp:148] Top shape: 100 38 (3800)
I0403 14:52:30.847967  2089 net.cpp:148] Top shape: 100 38 (3800)
I0403 14:52:30.847980  2089 net.cpp:156] Memory required for data: 831586800
I0403 14:52:30.847995  2089 layer_factory.hpp:77] Creating layer prob
I0403 14:52:30.848013  2089 net.cpp:91] Creating Layer prob
I0403 14:52:30.848028  2089 net.cpp:425] prob <- fc8_plantvillage_fc8_plantvillage_0_split_0
I0403 14:52:30.848045  2089 net.cpp:399] prob -> prob
I0403 14:52:30.848263  2089 net.cpp:141] Setting up prob
I0403 14:52:30.848296  2089 net.cpp:148] Top shape: 100 38 (3800)
I0403 14:52:30.848312  2089 net.cpp:156] Memory required for data: 831602000
I0403 14:52:30.848328  2089 layer_factory.hpp:77] Creating layer hdf5out
I0403 14:52:30.848347  2089 net.cpp:91] Creating Layer hdf5out
I0403 14:52:30.848362  2089 net.cpp:425] hdf5out <- prob
I0403 14:52:30.848378  2089 net.cpp:425] hdf5out <- label_data_1_split_0
I0403 14:52:30.850534  2089 net.cpp:141] Setting up hdf5out
…
