…
I0403 14:38:00.089054  1672 net.cpp:313] The NetState phase (1) differed from the phase (0) specified by a rule in layer data
I0403 14:38:00.089368  1672 net.cpp:49] Initializing net from parameters: 
state {
  phase: TEST
}
layer {
  name: "data"
  type: "Data"
  top: "data"
  top: "label"
  include {
    phase: TEST
  }
  transform_param {
    crop_size: 227
    mean_file: "/home/mohanty/data/final_dataset/lmdb/color-60-40/mean.binaryproto"
  }
  data_param {
    source: "/home/mohanty/data/final_dataset/lmdb/color-60-40/test_db"
    batch_size: 100
    backend: LMDB
  }
}
layer {
  name: "conv1"
  type: "Convolution"
  bottom: "data"
  top: "conv1"
  param {
    lr_mult: 1
    decay_mult: 1
  }
  param {
    lr_mult: 2
    decay_mult: 0
  }
  convolution_param {
    num_output: 96
    kernel_size: 11
    stride: 4
    weight_filler {
      type: "gaussian"
      std: 0.01
    }
    bias_filler {
      type: "constant"
      value: 0
    }
  }
}
layer {
  name: "relu1"
  type: "ReLU"
  bottom: "conv1"
  top: "conv1"
}
layer {
  name: "norm1"
  type: "LRN"
  bottom: "conv1"
  top: "norm1"
  lrn_param {
    local_size: 5
    alpha: 0.0001
    beta: 0.75
  }
}
layer {
  name: "pool1"
  type: "Pooling"
  bottom: "norm1"
  top: "pool1"
  pooling_param {
    pool: MAX
    kernel_size: 3
    stride: 2
  }
}
layer {
  name: "conv2"
  type: "Convolution"
  bottom: "pool1"
  top: "conv2"
  param {
    lr_mult: 1
    decay_mult: 1
  }
  param {
    lr_mult: 2
    decay_mult: 0
  }
  convolution_param {
    num_output: 256
    pad: 2
    kernel_size: 5
    group: 2
    weight_filler {
      type: "gaussian"
      std: 0.01
    }
    bias_filler {
      type: "constant"
      value: 0.1
    }
  }
}
layer {
  name: "relu2"
  type: "ReLU"
  bottom: "conv2"
  top: "conv2"
}
layer {
  name: "norm2"
  type: "LRN"
  bottom: "conv2"
  top: "norm2"
  lrn_param {
    local_size: 5
    alpha: 0.0001
    beta: 0.75
  }
}
layer {
  name: "pool2"
  type: "Pooling"
  bottom: "norm2"
  top: "pool2"
  pooling_param {
    pool: MAX
    kernel_size: 3
    stride: 2
  }
}
layer {
  name: "conv3"
  type: "Convolution"
  bottom: "pool2"
  top: "conv3"
  param {
    lr_mult: 1
    decay_mult: 1
  }
  param {
    lr_mult: 2
    decay_mult: 0
  }
  convolution_param {
    num_output: 384
    pad: 1
    kernel_size: 3
    weight_filler {
      type: "gaussian"
      std: 0.01
    }
    bias_filler {
      type: "constant"
      value: 0
    }
  }
}
layer {
  name: "relu3"
  type: "ReLU"
  bottom: "conv3"
  top: "conv3"
}
layer {
  name: "conv4"
  type: "Convolution"
  bottom: "conv3"
  top: "conv4"
  param {
    lr_mult: 1
    decay_mult: 1
  }
  param {
    lr_mult: 2
    decay_mult: 0
  }
  convolution_param {
    num_output: 384
    pad: 1
    kernel_size: 3
    group: 2
    weight_filler {
      type: "gaussian"
      std: 0.01
    }
    bias_filler {
      type: "constant"
      value: 0.1
    }
  }
}
layer {
  name: "relu4"
  type: "ReLU"
  bottom: "conv4"
  top: "conv4"
}
layer {
  name: "conv5"
  type: "Convolution"
  bottom: "conv4"
  top: "conv5"
  param {
    lr_mult: 1
    decay_mult: 1
  }
  param {
    lr_mult: 2
    decay_mult: 0
  }
  convolution_param {
    num_output: 256
    pad: 1
    kernel_size: 3
    group: 2
    weight_filler {
      type: "gaussian"
      std: 0.01
    }
    bias_filler {
      type: "constant"
      value: 0.1
    }
  }
}
layer {
  name: "relu5"
  type: "ReLU"
  bottom: "conv5"
  top: "conv5"
}
layer {
  name: "pool5"
  type: "Pooling"
  bottom: "conv5"
  top: "pool5"
  pooling_param {
    pool: MAX
    kernel_size: 3
    stride: 2
  }
}
layer {
  name: "fc6"
  type: "InnerProduct"
  bottom: "pool5"
  top: "fc6"
  param {
    lr_mult: 1
    decay_mult: 1
  }
  param {
    lr_mult: 2
    decay_mult: 0
  }
  inner_product_param {
    num_output: 4096
    weight_filler {
      type: "gaussian"
      std: 0.005
    }
    bias_filler {
      type: "constant"
      value: 0.1
    }
  }
}
layer {
  name: "relu6"
  type: "ReLU"
  bottom: "fc6"
  top: "fc6"
}
layer {
  name: "drop6"
  type: "Dropout"
  bottom: "fc6"
  top: "fc6"
  dropout_param {
    dropout_ratio: 0.5
  }
}
layer {
  name: "fc7"
  type: "InnerProduct"
  bottom: "fc6"
  top: "fc7"
  param {
    lr_mult: 1
    decay_mult: 1
  }
  param {
    lr_mult: 2
    decay_mult: 0
  }
  inner_product_param {
    num_output: 4096
    weight_filler {
      type: "gaussian"
      std: 0.005
    }
    bias_filler {
      type: "constant"
      value: 0.1
    }
  }
}
layer {
  name: "relu7"
  type: "ReLU"
  bottom: "fc7"
  top: "fc7"
}
layer {
  name: "drop7"
  type: "Dropout"
  bottom: "fc7"
  top: "fc7"
  dropout_param {
    dropout_ratio: 0.5
  }
}
layer {
  name: "fc8_plantvillage"
  type: "InnerProduct"
  bottom: "fc7"
  top: "fc8_plantvillage"
  param {
    lr_mult: 1
    decay_mult: 1
  }
  param {
    lr_mult: 2
    decay_mult: 0
  }
  inner_product_param {
    num_output: 38
    weight_filler {
      type: "gaussian"
      std: 0.01
    }
    bias_filler {
      type: "constant"
      value: 0
    }
  }
}
layer {
  name: "prob"
  type: "Softmax"
  bottom: "fc8_plantvillage"
  top: "prob"
  include {
    phase: TEST
  }
}
layer {
  name: "hdf5out"
  type: "HDF5Output"
  bottom: "prob"
  bottom: "label"
  include {
    phase: TEST
  }
  hdf5_output_param {
    file_name: "hdf5_dumps/iter_1950.h5"
  }
}
layer {
  name: "loss"
  type: "SoftmaxWithLoss"
  bottom: "fc8_plantvillage"
  bottom: "label"
  top: "loss"
}
layer {
  name: "accuracy"
  type: "Accuracy"
  bottom: "fc8_plantvillage"
  bottom: "label"
  top: "accuracy"
  include {
    phase: TEST
  }
}
I0403 14:38:00.089915  1672 layer_factory.hpp:77] Creating layer data
I0403 14:38:00.090544  1672 net.cpp:91] Creating Layer data
I0403 14:38:00.090575  1672 net.cpp:399] data -> data
I0403 14:38:00.090627  1672 net.cpp:399] data -> label
I0403 14:38:00.090662  1672 data_transformer.cpp:25] Loading mean file from: /home/mohanty/data/final_dataset/lmdb/color-60-40/mean.binaryproto
I0403 14:38:00.093515  1676 db_lmdb.cpp:38] Opened lmdb /home/mohanty/data/final_dataset/lmdb/color-60-40/test_db
I0403 14:38:00.105334  1672 data_layer.cpp:41] output data size: 100,3,227,227
I0403 14:38:00.226505  1672 net.cpp:141] Setting up data
I0403 14:38:00.226608  1672 net.cpp:148] Top shape: 100 3 227 227 (15458700)
I0403 14:38:00.226631  1672 net.cpp:148] Top shape: 100 (100)
I0403 14:38:00.226646  1672 net.cpp:156] Memory required for data: 61835200
I0403 14:38:00.226675  1672 layer_factory.hpp:77] Creating layer label_data_1_split
I0403 14:38:00.226701  1672 net.cpp:91] Creating Layer label_data_1_split
I0403 14:38:00.226718  1672 net.cpp:425] label_data_1_split <- label
I0403 14:38:00.226748  1672 net.cpp:399] label_data_1_split -> label_data_1_split_0
I0403 14:38:00.226775  1672 net.cpp:399] label_data_1_split -> label_data_1_split_1
I0403 14:38:00.226795  1672 net.cpp:399] label_data_1_split -> label_data_1_split_2
I0403 14:38:00.226860  1672 net.cpp:141] Setting up label_data_1_split
I0403 14:38:00.226882  1672 net.cpp:148] Top shape: 100 (100)
I0403 14:38:00.226898  1672 net.cpp:148] Top shape: 100 (100)
I0403 14:38:00.226914  1672 net.cpp:148] Top shape: 100 (100)
I0403 14:38:00.226928  1672 net.cpp:156] Memory required for data: 61836400
I0403 14:38:00.226943  1672 layer_factory.hpp:77] Creating layer conv1
I0403 14:38:00.226974  1672 net.cpp:91] Creating Layer conv1
I0403 14:38:00.226992  1672 net.cpp:425] conv1 <- data
I0403 14:38:00.227012  1672 net.cpp:399] conv1 -> conv1
I0403 14:38:00.372126  1672 net.cpp:141] Setting up conv1
I0403 14:38:00.372212  1672 net.cpp:148] Top shape: 100 96 55 55 (29040000)
I0403 14:38:00.372231  1672 net.cpp:156] Memory required for data: 177996400
I0403 14:38:00.372262  1672 layer_factory.hpp:77] Creating layer relu1
I0403 14:38:00.372303  1672 net.cpp:91] Creating Layer relu1
I0403 14:38:00.372323  1672 net.cpp:425] relu1 <- conv1
I0403 14:38:00.372344  1672 net.cpp:386] relu1 -> conv1 (in-place)
I0403 14:38:00.372608  1672 net.cpp:141] Setting up relu1
I0403 14:38:00.372637  1672 net.cpp:148] Top shape: 100 96 55 55 (29040000)
I0403 14:38:00.372653  1672 net.cpp:156] Memory required for data: 294156400
I0403 14:38:00.372704  1672 layer_factory.hpp:77] Creating layer norm1
I0403 14:38:00.372733  1672 net.cpp:91] Creating Layer norm1
I0403 14:38:00.372752  1672 net.cpp:425] norm1 <- conv1
I0403 14:38:00.372773  1672 net.cpp:399] norm1 -> norm1
I0403 14:38:00.373185  1672 net.cpp:141] Setting up norm1
I0403 14:38:00.373215  1672 net.cpp:148] Top shape: 100 96 55 55 (29040000)
I0403 14:38:00.373234  1672 net.cpp:156] Memory required for data: 410316400
I0403 14:38:00.373251  1672 layer_factory.hpp:77] Creating layer pool1
I0403 14:38:00.373281  1672 net.cpp:91] Creating Layer pool1
I0403 14:38:00.373299  1672 net.cpp:425] pool1 <- norm1
I0403 14:38:00.373317  1672 net.cpp:399] pool1 -> pool1
I0403 14:38:00.373386  1672 net.cpp:141] Setting up pool1
I0403 14:38:00.373411  1672 net.cpp:148] Top shape: 100 96 27 27 (6998400)
I0403 14:38:00.373427  1672 net.cpp:156] Memory required for data: 438310000
I0403 14:38:00.373443  1672 layer_factory.hpp:77] Creating layer conv2
I0403 14:38:00.373468  1672 net.cpp:91] Creating Layer conv2
I0403 14:38:00.373486  1672 net.cpp:425] conv2 <- pool1
I0403 14:38:00.373504  1672 net.cpp:399] conv2 -> conv2
I0403 14:38:00.389194  1672 net.cpp:141] Setting up conv2
I0403 14:38:00.389251  1672 net.cpp:148] Top shape: 100 256 27 27 (18662400)
I0403 14:38:00.389268  1672 net.cpp:156] Memory required for data: 512959600
I0403 14:38:00.389297  1672 layer_factory.hpp:77] Creating layer relu2
I0403 14:38:00.389319  1672 net.cpp:91] Creating Layer relu2
I0403 14:38:00.389336  1672 net.cpp:425] relu2 <- conv2
I0403 14:38:00.389354  1672 net.cpp:386] relu2 -> conv2 (in-place)
I0403 14:38:00.389629  1672 net.cpp:141] Setting up relu2
I0403 14:38:00.389657  1672 net.cpp:148] Top shape: 100 256 27 27 (18662400)
I0403 14:38:00.389673  1672 net.cpp:156] Memory required for data: 587609200
I0403 14:38:00.389689  1672 layer_factory.hpp:77] Creating layer norm2
I0403 14:38:00.389711  1672 net.cpp:91] Creating Layer norm2
I0403 14:38:00.389729  1672 net.cpp:425] norm2 <- conv2
I0403 14:38:00.389747  1672 net.cpp:399] norm2 -> norm2
I0403 14:38:00.389940  1672 net.cpp:141] Setting up norm2
I0403 14:38:00.389966  1672 net.cpp:148] Top shape: 100 256 27 27 (18662400)
I0403 14:38:00.389981  1672 net.cpp:156] Memory required for data: 662258800
I0403 14:38:00.389996  1672 layer_factory.hpp:77] Creating layer pool2
I0403 14:38:00.390014  1672 net.cpp:91] Creating Layer pool2
I0403 14:38:00.390032  1672 net.cpp:425] pool2 <- norm2
I0403 14:38:00.390049  1672 net.cpp:399] pool2 -> pool2
I0403 14:38:00.390102  1672 net.cpp:141] Setting up pool2
I0403 14:38:00.390125  1672 net.cpp:148] Top shape: 100 256 13 13 (4326400)
I0403 14:38:00.390141  1672 net.cpp:156] Memory required for data: 679564400
I0403 14:38:00.390156  1672 layer_factory.hpp:77] Creating layer conv3
I0403 14:38:00.390179  1672 net.cpp:91] Creating Layer conv3
I0403 14:38:00.390197  1672 net.cpp:425] conv3 <- pool2
I0403 14:38:00.390215  1672 net.cpp:399] conv3 -> conv3
I0403 14:38:00.433585  1672 net.cpp:141] Setting up conv3
I0403 14:38:00.433660  1672 net.cpp:148] Top shape: 100 384 13 13 (6489600)
I0403 14:38:00.433676  1672 net.cpp:156] Memory required for data: 705522800
I0403 14:38:00.433702  1672 layer_factory.hpp:77] Creating layer relu3
I0403 14:38:00.433724  1672 net.cpp:91] Creating Layer relu3
I0403 14:38:00.433740  1672 net.cpp:425] relu3 <- conv3
I0403 14:38:00.433763  1672 net.cpp:386] relu3 -> conv3 (in-place)
I0403 14:38:00.434046  1672 net.cpp:141] Setting up relu3
I0403 14:38:00.434072  1672 net.cpp:148] Top shape: 100 384 13 13 (6489600)
I0403 14:38:00.434088  1672 net.cpp:156] Memory required for data: 731481200
I0403 14:38:00.434103  1672 layer_factory.hpp:77] Creating layer conv4
I0403 14:38:00.434128  1672 net.cpp:91] Creating Layer conv4
I0403 14:38:00.434146  1672 net.cpp:425] conv4 <- conv3
I0403 14:38:00.434168  1672 net.cpp:399] conv4 -> conv4
I0403 14:38:00.464646  1672 net.cpp:141] Setting up conv4
I0403 14:38:00.464704  1672 net.cpp:148] Top shape: 100 384 13 13 (6489600)
I0403 14:38:00.464747  1672 net.cpp:156] Memory required for data: 757439600
I0403 14:38:00.464769  1672 layer_factory.hpp:77] Creating layer relu4
I0403 14:38:00.464792  1672 net.cpp:91] Creating Layer relu4
I0403 14:38:00.464809  1672 net.cpp:425] relu4 <- conv4
I0403 14:38:00.464828  1672 net.cpp:386] relu4 -> conv4 (in-place)
I0403 14:38:00.465128  1672 net.cpp:141] Setting up relu4
I0403 14:38:00.465159  1672 net.cpp:148] Top shape: 100 384 13 13 (6489600)
I0403 14:38:00.465175  1672 net.cpp:156] Memory required for data: 783398000
I0403 14:38:00.465191  1672 layer_factory.hpp:77] Creating layer conv5
I0403 14:38:00.465220  1672 net.cpp:91] Creating Layer conv5
I0403 14:38:00.465240  1672 net.cpp:425] conv5 <- conv4
I0403 14:38:00.465258  1672 net.cpp:399] conv5 -> conv5
I0403 14:38:00.486412  1672 net.cpp:141] Setting up conv5
I0403 14:38:00.486474  1672 net.cpp:148] Top shape: 100 256 13 13 (4326400)
I0403 14:38:00.486491  1672 net.cpp:156] Memory required for data: 800703600
I0403 14:38:00.486517  1672 layer_factory.hpp:77] Creating layer relu5
I0403 14:38:00.486538  1672 net.cpp:91] Creating Layer relu5
I0403 14:38:00.486557  1672 net.cpp:425] relu5 <- conv5
I0403 14:38:00.486578  1672 net.cpp:386] relu5 -> conv5 (in-place)
I0403 14:38:00.486865  1672 net.cpp:141] Setting up relu5
I0403 14:38:00.486892  1672 net.cpp:148] Top shape: 100 256 13 13 (4326400)
I0403 14:38:00.486908  1672 net.cpp:156] Memory required for data: 818009200
I0403 14:38:00.486923  1672 layer_factory.hpp:77] Creating layer pool5
I0403 14:38:00.486948  1672 net.cpp:91] Creating Layer pool5
I0403 14:38:00.486965  1672 net.cpp:425] pool5 <- conv5
I0403 14:38:00.486984  1672 net.cpp:399] pool5 -> pool5
I0403 14:38:00.487047  1672 net.cpp:141] Setting up pool5
I0403 14:38:00.487071  1672 net.cpp:148] Top shape: 100 256 6 6 (921600)
I0403 14:38:00.487087  1672 net.cpp:156] Memory required for data: 821695600
I0403 14:38:00.487102  1672 layer_factory.hpp:77] Creating layer fc6
I0403 14:38:00.487128  1672 net.cpp:91] Creating Layer fc6
I0403 14:38:00.487148  1672 net.cpp:425] fc6 <- pool5
I0403 14:38:00.487169  1672 net.cpp:399] fc6 -> fc6
I0403 14:38:02.034135  1672 net.cpp:141] Setting up fc6
I0403 14:38:02.034219  1672 net.cpp:148] Top shape: 100 4096 (409600)
I0403 14:38:02.034235  1672 net.cpp:156] Memory required for data: 823334000
I0403 14:38:02.034255  1672 layer_factory.hpp:77] Creating layer relu6
I0403 14:38:02.034281  1672 net.cpp:91] Creating Layer relu6
I0403 14:38:02.034299  1672 net.cpp:425] relu6 <- fc6
I0403 14:38:02.034317  1672 net.cpp:386] relu6 -> fc6 (in-place)
I0403 14:38:02.034528  1672 net.cpp:141] Setting up relu6
I0403 14:38:02.034551  1672 net.cpp:148] Top shape: 100 4096 (409600)
I0403 14:38:02.034565  1672 net.cpp:156] Memory required for data: 824972400
I0403 14:38:02.034579  1672 layer_factory.hpp:77] Creating layer drop6
I0403 14:38:02.034597  1672 net.cpp:91] Creating Layer drop6
I0403 14:38:02.034611  1672 net.cpp:425] drop6 <- fc6
I0403 14:38:02.034631  1672 net.cpp:386] drop6 -> fc6 (in-place)
I0403 14:38:02.034679  1672 net.cpp:141] Setting up drop6
I0403 14:38:02.034701  1672 net.cpp:148] Top shape: 100 4096 (409600)
I0403 14:38:02.034715  1672 net.cpp:156] Memory required for data: 826610800
I0403 14:38:02.034729  1672 layer_factory.hpp:77] Creating layer fc7
I0403 14:38:02.034754  1672 net.cpp:91] Creating Layer fc7
I0403 14:38:02.034770  1672 net.cpp:425] fc7 <- fc6
I0403 14:38:02.034790  1672 net.cpp:399] fc7 -> fc7
I0403 14:38:02.718835  1672 net.cpp:141] Setting up fc7
I0403 14:38:02.718907  1672 net.cpp:148] Top shape: 100 4096 (409600)
I0403 14:38:02.718924  1672 net.cpp:156] Memory required for data: 828249200
I0403 14:38:02.718943  1672 layer_factory.hpp:77] Creating layer relu7
I0403 14:38:02.718964  1672 net.cpp:91] Creating Layer relu7
I0403 14:38:02.718981  1672 net.cpp:425] relu7 <- fc7
I0403 14:38:02.719002  1672 net.cpp:386] relu7 -> fc7 (in-place)
I0403 14:38:02.719424  1672 net.cpp:141] Setting up relu7
I0403 14:38:02.719449  1672 net.cpp:148] Top shape: 100 4096 (409600)
I0403 14:38:02.719494  1672 net.cpp:156] Memory required for data: 829887600
I0403 14:38:02.719511  1672 layer_factory.hpp:77] Creating layer drop7
I0403 14:38:02.719528  1672 net.cpp:91] Creating Layer drop7
I0403 14:38:02.719543  1672 net.cpp:425] drop7 <- fc7
I0403 14:38:02.719563  1672 net.cpp:386] drop7 -> fc7 (in-place)
I0403 14:38:02.719604  1672 net.cpp:141] Setting up drop7
I0403 14:38:02.719629  1672 net.cpp:148] Top shape: 100 4096 (409600)
I0403 14:38:02.719643  1672 net.cpp:156] Memory required for data: 831526000
I0403 14:38:02.719657  1672 layer_factory.hpp:77] Creating layer fc8_plantvillage
I0403 14:38:02.719676  1672 net.cpp:91] Creating Layer fc8_plantvillage
I0403 14:38:02.719691  1672 net.cpp:425] fc8_plantvillage <- fc7
I0403 14:38:02.719714  1672 net.cpp:399] fc8_plantvillage -> fc8_plantvillage
I0403 14:38:02.726297  1672 net.cpp:141] Setting up fc8_plantvillage
I0403 14:38:02.726325  1672 net.cpp:148] Top shape: 100 38 (3800)
I0403 14:38:02.726339  1672 net.cpp:156] Memory required for data: 831541200
I0403 14:38:02.726357  1672 layer_factory.hpp:77] Creating layer fc8_plantvillage_fc8_plantvillage_0_split
I0403 14:38:02.726374  1672 net.cpp:91] Creating Layer fc8_plantvillage_fc8_plantvillage_0_split
I0403 14:38:02.726389  1672 net.cpp:425] fc8_plantvillage_fc8_plantvillage_0_split <- fc8_plantvillage
I0403 14:38:02.726408  1672 net.cpp:399] fc8_plantvillage_fc8_plantvillage_0_split -> fc8_plantvillage_fc8_plantvillage_0_split_0
I0403 14:38:02.726428  1672 net.cpp:399] fc8_plantvillage_fc8_plantvillage_0_split -> fc8_plantvillage_fc8_plantvillage_0_split_1
I0403 14:38:02.726449  1672 net.cpp:399] fc8_plantvillage_fc8_plantvillage_0_split -> fc8_plantvillage_fc8_plantvillage_0_split_2
I0403 14:38:02.726521  1672 net.cpp:141] Setting up fc8_plantvillage_fc8_plantvillage_0_split
I0403 14:38:02.726547  1672 net.cpp:148] Top shape: 100 38 (3800)
I0403 14:38:02.726562  1672 net.cpp:148] Top shape: 100 38 (3800)
I0403 14:38:02.726577  1672 net.cpp:148] Top shape: 100 38 (3800)
I0403 14:38:02.726590  1672 net.cpp:156] Memory required for data: 831586800
I0403 14:38:02.726604  1672 layer_factory.hpp:77] Creating layer prob
I0403 14:38:02.726622  1672 net.cpp:91] Creating Layer prob
I0403 14:38:02.726639  1672 net.cpp:425] prob <- fc8_plantvillage_fc8_plantvillage_0_split_0
I0403 14:38:02.726655  1672 net.cpp:399] prob -> prob
I0403 14:38:02.726871  1672 net.cpp:141] Setting up prob
I0403 14:38:02.726896  1672 net.cpp:148] Top shape: 100 38 (3800)
I0403 14:38:02.726910  1672 net.cpp:156] Memory required for data: 831602000
I0403 14:38:02.726924  1672 layer_factory.hpp:77] Creating layer hdf5out
I0403 14:38:02.726943  1672 net.cpp:91] Creating Layer hdf5out
I0403 14:38:02.726958  1672 net.cpp:425] hdf5out <- prob
I0403 14:38:02.726974  1672 net.cpp:425] hdf5out <- label_data_1_split_0
I0403 14:38:02.729215  1672 net.cpp:141] Setting up hdf5out
…
