…
I0403 14:50:11.130120  2041 net.cpp:313] The NetState phase (1) differed from the phase (0) specified by a rule in layer data
I0403 14:50:11.130451  2041 net.cpp:49] Initializing net from parameters: 
state {
  phase: TEST
}
layer {
  name: "data"
  type: "Data"
  top: "data"
  top: "label"
  include {
    phase: TEST
  }
  transform_param {
    crop_size: 227
    mean_file: "/home/mohanty/data/final_dataset/lmdb/color-60-40/mean.binaryproto"
  }
  data_param {
    source: "/home/mohanty/data/final_dataset/lmdb/color-60-40/test_db"
    batch_size: 100
    backend: LMDB
  }
}
layer {
  name: "conv1"
  type: "Convolution"
  bottom: "data"
  top: "conv1"
  param {
    lr_mult: 1
    decay_mult: 1
  }
  param {
    lr_mult: 2
    decay_mult: 0
  }
  convolution_param {
    num_output: 96
    kernel_size: 11
    stride: 4
    weight_filler {
      type: "gaussian"
      std: 0.01
    }
    bias_filler {
      type: "constant"
      value: 0
    }
  }
}
layer {
  name: "relu1"
  type: "ReLU"
  bottom: "conv1"
  top: "conv1"
}
layer {
  name: "norm1"
  type: "LRN"
  bottom: "conv1"
  top: "norm1"
  lrn_param {
    local_size: 5
    alpha: 0.0001
    beta: 0.75
  }
}
layer {
  name: "pool1"
  type: "Pooling"
  bottom: "norm1"
  top: "pool1"
  pooling_param {
    pool: MAX
    kernel_size: 3
    stride: 2
  }
}
layer {
  name: "conv2"
  type: "Convolution"
  bottom: "pool1"
  top: "conv2"
  param {
    lr_mult: 1
    decay_mult: 1
  }
  param {
    lr_mult: 2
    decay_mult: 0
  }
  convolution_param {
    num_output: 256
    pad: 2
    kernel_size: 5
    group: 2
    weight_filler {
      type: "gaussian"
      std: 0.01
    }
    bias_filler {
      type: "constant"
      value: 0.1
    }
  }
}
layer {
  name: "relu2"
  type: "ReLU"
  bottom: "conv2"
  top: "conv2"
}
layer {
  name: "norm2"
  type: "LRN"
  bottom: "conv2"
  top: "norm2"
  lrn_param {
    local_size: 5
    alpha: 0.0001
    beta: 0.75
  }
}
layer {
  name: "pool2"
  type: "Pooling"
  bottom: "norm2"
  top: "pool2"
  pooling_param {
    pool: MAX
    kernel_size: 3
    stride: 2
  }
}
layer {
  name: "conv3"
  type: "Convolution"
  bottom: "pool2"
  top: "conv3"
  param {
    lr_mult: 1
    decay_mult: 1
  }
  param {
    lr_mult: 2
    decay_mult: 0
  }
  convolution_param {
    num_output: 384
    pad: 1
    kernel_size: 3
    weight_filler {
      type: "gaussian"
      std: 0.01
    }
    bias_filler {
      type: "constant"
      value: 0
    }
  }
}
layer {
  name: "relu3"
  type: "ReLU"
  bottom: "conv3"
  top: "conv3"
}
layer {
  name: "conv4"
  type: "Convolution"
  bottom: "conv3"
  top: "conv4"
  param {
    lr_mult: 1
    decay_mult: 1
  }
  param {
    lr_mult: 2
    decay_mult: 0
  }
  convolution_param {
    num_output: 384
    pad: 1
    kernel_size: 3
    group: 2
    weight_filler {
      type: "gaussian"
      std: 0.01
    }
    bias_filler {
      type: "constant"
      value: 0.1
    }
  }
}
layer {
  name: "relu4"
  type: "ReLU"
  bottom: "conv4"
  top: "conv4"
}
layer {
  name: "conv5"
  type: "Convolution"
  bottom: "conv4"
  top: "conv5"
  param {
    lr_mult: 1
    decay_mult: 1
  }
  param {
    lr_mult: 2
    decay_mult: 0
  }
  convolution_param {
    num_output: 256
    pad: 1
    kernel_size: 3
    group: 2
    weight_filler {
      type: "gaussian"
      std: 0.01
    }
    bias_filler {
      type: "constant"
      value: 0.1
    }
  }
}
layer {
  name: "relu5"
  type: "ReLU"
  bottom: "conv5"
  top: "conv5"
}
layer {
  name: "pool5"
  type: "Pooling"
  bottom: "conv5"
  top: "pool5"
  pooling_param {
    pool: MAX
    kernel_size: 3
    stride: 2
  }
}
layer {
  name: "fc6"
  type: "InnerProduct"
  bottom: "pool5"
  top: "fc6"
  param {
    lr_mult: 1
    decay_mult: 1
  }
  param {
    lr_mult: 2
    decay_mult: 0
  }
  inner_product_param {
    num_output: 4096
    weight_filler {
      type: "gaussian"
      std: 0.005
    }
    bias_filler {
      type: "constant"
      value: 0.1
    }
  }
}
layer {
  name: "relu6"
  type: "ReLU"
  bottom: "fc6"
  top: "fc6"
}
layer {
  name: "drop6"
  type: "Dropout"
  bottom: "fc6"
  top: "fc6"
  dropout_param {
    dropout_ratio: 0.5
  }
}
layer {
  name: "fc7"
  type: "InnerProduct"
  bottom: "fc6"
  top: "fc7"
  param {
    lr_mult: 1
    decay_mult: 1
  }
  param {
    lr_mult: 2
    decay_mult: 0
  }
  inner_product_param {
    num_output: 4096
    weight_filler {
      type: "gaussian"
      std: 0.005
    }
    bias_filler {
      type: "constant"
      value: 0.1
    }
  }
}
layer {
  name: "relu7"
  type: "ReLU"
  bottom: "fc7"
  top: "fc7"
}
layer {
  name: "drop7"
  type: "Dropout"
  bottom: "fc7"
  top: "fc7"
  dropout_param {
    dropout_ratio: 0.5
  }
}
layer {
  name: "fc8_plantvillage"
  type: "InnerProduct"
  bottom: "fc7"
  top: "fc8_plantvillage"
  param {
    lr_mult: 1
    decay_mult: 1
  }
  param {
    lr_mult: 2
    decay_mult: 0
  }
  inner_product_param {
    num_output: 38
    weight_filler {
      type: "gaussian"
      std: 0.01
    }
    bias_filler {
      type: "constant"
      value: 0
    }
  }
}
layer {
  name: "prob"
  type: "Softmax"
  bottom: "fc8_plantvillage"
  top: "prob"
  include {
    phase: TEST
  }
}
layer {
  name: "hdf5out"
  type: "HDF5Output"
  bottom: "prob"
  bottom: "label"
  include {
    phase: TEST
  }
  hdf5_output_param {
    file_name: "hdf5_dumps/iter_7150.h5"
  }
}
layer {
  name: "loss"
  type: "SoftmaxWithLoss"
  bottom: "fc8_plantvillage"
  bottom: "label"
  top: "loss"
}
layer {
  name: "accuracy"
  type: "Accuracy"
  bottom: "fc8_plantvillage"
  bottom: "label"
  top: "accuracy"
  include {
    phase: TEST
  }
}
I0403 14:50:11.131029  2041 layer_factory.hpp:77] Creating layer data
I0403 14:50:11.131688  2041 net.cpp:91] Creating Layer data
I0403 14:50:11.131722  2041 net.cpp:399] data -> data
I0403 14:50:11.131773  2041 net.cpp:399] data -> label
I0403 14:50:11.131810  2041 data_transformer.cpp:25] Loading mean file from: /home/mohanty/data/final_dataset/lmdb/color-60-40/mean.binaryproto
I0403 14:50:11.134781  2044 db_lmdb.cpp:38] Opened lmdb /home/mohanty/data/final_dataset/lmdb/color-60-40/test_db
I0403 14:50:11.146605  2041 data_layer.cpp:41] output data size: 100,3,227,227
I0403 14:50:11.272485  2041 net.cpp:141] Setting up data
I0403 14:50:11.272547  2041 net.cpp:148] Top shape: 100 3 227 227 (15458700)
I0403 14:50:11.272572  2041 net.cpp:148] Top shape: 100 (100)
I0403 14:50:11.272588  2041 net.cpp:156] Memory required for data: 61835200
I0403 14:50:11.272616  2041 layer_factory.hpp:77] Creating layer label_data_1_split
I0403 14:50:11.272642  2041 net.cpp:91] Creating Layer label_data_1_split
I0403 14:50:11.272661  2041 net.cpp:425] label_data_1_split <- label
I0403 14:50:11.272694  2041 net.cpp:399] label_data_1_split -> label_data_1_split_0
I0403 14:50:11.272722  2041 net.cpp:399] label_data_1_split -> label_data_1_split_1
I0403 14:50:11.272742  2041 net.cpp:399] label_data_1_split -> label_data_1_split_2
I0403 14:50:11.272806  2041 net.cpp:141] Setting up label_data_1_split
I0403 14:50:11.272831  2041 net.cpp:148] Top shape: 100 (100)
I0403 14:50:11.272850  2041 net.cpp:148] Top shape: 100 (100)
I0403 14:50:11.272867  2041 net.cpp:148] Top shape: 100 (100)
I0403 14:50:11.272882  2041 net.cpp:156] Memory required for data: 61836400
I0403 14:50:11.272897  2041 layer_factory.hpp:77] Creating layer conv1
I0403 14:50:11.272930  2041 net.cpp:91] Creating Layer conv1
I0403 14:50:11.272949  2041 net.cpp:425] conv1 <- data
I0403 14:50:11.272969  2041 net.cpp:399] conv1 -> conv1
I0403 14:50:11.419739  2041 net.cpp:141] Setting up conv1
I0403 14:50:11.419829  2041 net.cpp:148] Top shape: 100 96 55 55 (29040000)
I0403 14:50:11.419847  2041 net.cpp:156] Memory required for data: 177996400
I0403 14:50:11.419879  2041 layer_factory.hpp:77] Creating layer relu1
I0403 14:50:11.419909  2041 net.cpp:91] Creating Layer relu1
I0403 14:50:11.419927  2041 net.cpp:425] relu1 <- conv1
I0403 14:50:11.419947  2041 net.cpp:386] relu1 -> conv1 (in-place)
I0403 14:50:11.420228  2041 net.cpp:141] Setting up relu1
I0403 14:50:11.420256  2041 net.cpp:148] Top shape: 100 96 55 55 (29040000)
I0403 14:50:11.420276  2041 net.cpp:156] Memory required for data: 294156400
I0403 14:50:11.420325  2041 layer_factory.hpp:77] Creating layer norm1
I0403 14:50:11.420356  2041 net.cpp:91] Creating Layer norm1
I0403 14:50:11.420374  2041 net.cpp:425] norm1 <- conv1
I0403 14:50:11.420392  2041 net.cpp:399] norm1 -> norm1
I0403 14:50:11.420719  2041 net.cpp:141] Setting up norm1
I0403 14:50:11.420747  2041 net.cpp:148] Top shape: 100 96 55 55 (29040000)
I0403 14:50:11.420764  2041 net.cpp:156] Memory required for data: 410316400
I0403 14:50:11.420780  2041 layer_factory.hpp:77] Creating layer pool1
I0403 14:50:11.420804  2041 net.cpp:91] Creating Layer pool1
I0403 14:50:11.420822  2041 net.cpp:425] pool1 <- norm1
I0403 14:50:11.420841  2041 net.cpp:399] pool1 -> pool1
I0403 14:50:11.420909  2041 net.cpp:141] Setting up pool1
I0403 14:50:11.420934  2041 net.cpp:148] Top shape: 100 96 27 27 (6998400)
I0403 14:50:11.420949  2041 net.cpp:156] Memory required for data: 438310000
I0403 14:50:11.420965  2041 layer_factory.hpp:77] Creating layer conv2
I0403 14:50:11.420991  2041 net.cpp:91] Creating Layer conv2
I0403 14:50:11.421008  2041 net.cpp:425] conv2 <- pool1
I0403 14:50:11.421027  2041 net.cpp:399] conv2 -> conv2
I0403 14:50:11.437384  2041 net.cpp:141] Setting up conv2
I0403 14:50:11.437418  2041 net.cpp:148] Top shape: 100 256 27 27 (18662400)
I0403 14:50:11.437436  2041 net.cpp:156] Memory required for data: 512959600
I0403 14:50:11.437459  2041 layer_factory.hpp:77] Creating layer relu2
I0403 14:50:11.437480  2041 net.cpp:91] Creating Layer relu2
I0403 14:50:11.437496  2041 net.cpp:425] relu2 <- conv2
I0403 14:50:11.437515  2041 net.cpp:386] relu2 -> conv2 (in-place)
I0403 14:50:11.437793  2041 net.cpp:141] Setting up relu2
I0403 14:50:11.437821  2041 net.cpp:148] Top shape: 100 256 27 27 (18662400)
I0403 14:50:11.437837  2041 net.cpp:156] Memory required for data: 587609200
I0403 14:50:11.437854  2041 layer_factory.hpp:77] Creating layer norm2
I0403 14:50:11.437875  2041 net.cpp:91] Creating Layer norm2
I0403 14:50:11.437892  2041 net.cpp:425] norm2 <- conv2
I0403 14:50:11.437911  2041 net.cpp:399] norm2 -> norm2
I0403 14:50:11.438099  2041 net.cpp:141] Setting up norm2
I0403 14:50:11.438127  2041 net.cpp:148] Top shape: 100 256 27 27 (18662400)
I0403 14:50:11.438143  2041 net.cpp:156] Memory required for data: 662258800
I0403 14:50:11.438158  2041 layer_factory.hpp:77] Creating layer pool2
I0403 14:50:11.438179  2041 net.cpp:91] Creating Layer pool2
I0403 14:50:11.438194  2041 net.cpp:425] pool2 <- norm2
I0403 14:50:11.438213  2041 net.cpp:399] pool2 -> pool2
I0403 14:50:11.438263  2041 net.cpp:141] Setting up pool2
I0403 14:50:11.438292  2041 net.cpp:148] Top shape: 100 256 13 13 (4326400)
I0403 14:50:11.438308  2041 net.cpp:156] Memory required for data: 679564400
I0403 14:50:11.438324  2041 layer_factory.hpp:77] Creating layer conv3
I0403 14:50:11.438346  2041 net.cpp:91] Creating Layer conv3
I0403 14:50:11.438364  2041 net.cpp:425] conv3 <- pool2
I0403 14:50:11.438382  2041 net.cpp:399] conv3 -> conv3
I0403 14:50:11.482441  2041 net.cpp:141] Setting up conv3
I0403 14:50:11.482532  2041 net.cpp:148] Top shape: 100 384 13 13 (6489600)
I0403 14:50:11.482549  2041 net.cpp:156] Memory required for data: 705522800
I0403 14:50:11.482579  2041 layer_factory.hpp:77] Creating layer relu3
I0403 14:50:11.482602  2041 net.cpp:91] Creating Layer relu3
I0403 14:50:11.482620  2041 net.cpp:425] relu3 <- conv3
I0403 14:50:11.482641  2041 net.cpp:386] relu3 -> conv3 (in-place)
I0403 14:50:11.482928  2041 net.cpp:141] Setting up relu3
I0403 14:50:11.482959  2041 net.cpp:148] Top shape: 100 384 13 13 (6489600)
I0403 14:50:11.482977  2041 net.cpp:156] Memory required for data: 731481200
I0403 14:50:11.482992  2041 layer_factory.hpp:77] Creating layer conv4
I0403 14:50:11.483019  2041 net.cpp:91] Creating Layer conv4
I0403 14:50:11.483036  2041 net.cpp:425] conv4 <- conv3
I0403 14:50:11.483059  2041 net.cpp:399] conv4 -> conv4
I0403 14:50:11.514900  2041 net.cpp:141] Setting up conv4
I0403 14:50:11.514951  2041 net.cpp:148] Top shape: 100 384 13 13 (6489600)
I0403 14:50:11.515004  2041 net.cpp:156] Memory required for data: 757439600
I0403 14:50:11.515027  2041 layer_factory.hpp:77] Creating layer relu4
I0403 14:50:11.515048  2041 net.cpp:91] Creating Layer relu4
I0403 14:50:11.515064  2041 net.cpp:425] relu4 <- conv4
I0403 14:50:11.515080  2041 net.cpp:386] relu4 -> conv4 (in-place)
I0403 14:50:11.515380  2041 net.cpp:141] Setting up relu4
I0403 14:50:11.515408  2041 net.cpp:148] Top shape: 100 384 13 13 (6489600)
I0403 14:50:11.515426  2041 net.cpp:156] Memory required for data: 783398000
I0403 14:50:11.515442  2041 layer_factory.hpp:77] Creating layer conv5
I0403 14:50:11.515465  2041 net.cpp:91] Creating Layer conv5
I0403 14:50:11.515481  2041 net.cpp:425] conv5 <- conv4
I0403 14:50:11.515502  2041 net.cpp:399] conv5 -> conv5
I0403 14:50:11.537140  2041 net.cpp:141] Setting up conv5
I0403 14:50:11.537189  2041 net.cpp:148] Top shape: 100 256 13 13 (4326400)
I0403 14:50:11.537206  2041 net.cpp:156] Memory required for data: 800703600
I0403 14:50:11.537237  2041 layer_factory.hpp:77] Creating layer relu5
I0403 14:50:11.537259  2041 net.cpp:91] Creating Layer relu5
I0403 14:50:11.537282  2041 net.cpp:425] relu5 <- conv5
I0403 14:50:11.537304  2041 net.cpp:386] relu5 -> conv5 (in-place)
I0403 14:50:11.537631  2041 net.cpp:141] Setting up relu5
I0403 14:50:11.537662  2041 net.cpp:148] Top shape: 100 256 13 13 (4326400)
I0403 14:50:11.537679  2041 net.cpp:156] Memory required for data: 818009200
I0403 14:50:11.537695  2041 layer_factory.hpp:77] Creating layer pool5
I0403 14:50:11.537719  2041 net.cpp:91] Creating Layer pool5
I0403 14:50:11.537736  2041 net.cpp:425] pool5 <- conv5
I0403 14:50:11.537760  2041 net.cpp:399] pool5 -> pool5
I0403 14:50:11.537820  2041 net.cpp:141] Setting up pool5
I0403 14:50:11.537848  2041 net.cpp:148] Top shape: 100 256 6 6 (921600)
I0403 14:50:11.537864  2041 net.cpp:156] Memory required for data: 821695600
I0403 14:50:11.537881  2041 layer_factory.hpp:77] Creating layer fc6
I0403 14:50:11.537909  2041 net.cpp:91] Creating Layer fc6
I0403 14:50:11.537927  2041 net.cpp:425] fc6 <- pool5
I0403 14:50:11.537950  2041 net.cpp:399] fc6 -> fc6
I0403 14:50:13.089310  2041 net.cpp:141] Setting up fc6
I0403 14:50:13.089386  2041 net.cpp:148] Top shape: 100 4096 (409600)
I0403 14:50:13.089403  2041 net.cpp:156] Memory required for data: 823334000
I0403 14:50:13.089423  2041 layer_factory.hpp:77] Creating layer relu6
I0403 14:50:13.089445  2041 net.cpp:91] Creating Layer relu6
I0403 14:50:13.089462  2041 net.cpp:425] relu6 <- fc6
I0403 14:50:13.089480  2041 net.cpp:386] relu6 -> fc6 (in-place)
I0403 14:50:13.089691  2041 net.cpp:141] Setting up relu6
I0403 14:50:13.089717  2041 net.cpp:148] Top shape: 100 4096 (409600)
I0403 14:50:13.089733  2041 net.cpp:156] Memory required for data: 824972400
I0403 14:50:13.089748  2041 layer_factory.hpp:77] Creating layer drop6
I0403 14:50:13.089766  2041 net.cpp:91] Creating Layer drop6
I0403 14:50:13.089781  2041 net.cpp:425] drop6 <- fc6
I0403 14:50:13.089802  2041 net.cpp:386] drop6 -> fc6 (in-place)
I0403 14:50:13.089851  2041 net.cpp:141] Setting up drop6
I0403 14:50:13.089874  2041 net.cpp:148] Top shape: 100 4096 (409600)
I0403 14:50:13.089887  2041 net.cpp:156] Memory required for data: 826610800
I0403 14:50:13.089902  2041 layer_factory.hpp:77] Creating layer fc7
I0403 14:50:13.089923  2041 net.cpp:91] Creating Layer fc7
I0403 14:50:13.089939  2041 net.cpp:425] fc7 <- fc6
I0403 14:50:13.089958  2041 net.cpp:399] fc7 -> fc7
I0403 14:50:13.769490  2041 net.cpp:141] Setting up fc7
I0403 14:50:13.769542  2041 net.cpp:148] Top shape: 100 4096 (409600)
I0403 14:50:13.769559  2041 net.cpp:156] Memory required for data: 828249200
I0403 14:50:13.769582  2041 layer_factory.hpp:77] Creating layer relu7
I0403 14:50:13.769603  2041 net.cpp:91] Creating Layer relu7
I0403 14:50:13.769620  2041 net.cpp:425] relu7 <- fc7
I0403 14:50:13.769639  2041 net.cpp:386] relu7 -> fc7 (in-place)
I0403 14:50:13.770051  2041 net.cpp:141] Setting up relu7
I0403 14:50:13.770081  2041 net.cpp:148] Top shape: 100 4096 (409600)
I0403 14:50:13.770130  2041 net.cpp:156] Memory required for data: 829887600
I0403 14:50:13.770148  2041 layer_factory.hpp:77] Creating layer drop7
I0403 14:50:13.770167  2041 net.cpp:91] Creating Layer drop7
I0403 14:50:13.770184  2041 net.cpp:425] drop7 <- fc7
I0403 14:50:13.770200  2041 net.cpp:386] drop7 -> fc7 (in-place)
I0403 14:50:13.770246  2041 net.cpp:141] Setting up drop7
I0403 14:50:13.770268  2041 net.cpp:148] Top shape: 100 4096 (409600)
I0403 14:50:13.770290  2041 net.cpp:156] Memory required for data: 831526000
I0403 14:50:13.770305  2041 layer_factory.hpp:77] Creating layer fc8_plantvillage
I0403 14:50:13.770330  2041 net.cpp:91] Creating Layer fc8_plantvillage
I0403 14:50:13.770349  2041 net.cpp:425] fc8_plantvillage <- fc7
I0403 14:50:13.770366  2041 net.cpp:399] fc8_plantvillage -> fc8_plantvillage
I0403 14:50:13.777097  2041 net.cpp:141] Setting up fc8_plantvillage
I0403 14:50:13.777127  2041 net.cpp:148] Top shape: 100 38 (3800)
I0403 14:50:13.777143  2041 net.cpp:156] Memory required for data: 831541200
I0403 14:50:13.777163  2041 layer_factory.hpp:77] Creating layer fc8_plantvillage_fc8_plantvillage_0_split
I0403 14:50:13.777181  2041 net.cpp:91] Creating Layer fc8_plantvillage_fc8_plantvillage_0_split
I0403 14:50:13.777197  2041 net.cpp:425] fc8_plantvillage_fc8_plantvillage_0_split <- fc8_plantvillage
I0403 14:50:13.777218  2041 net.cpp:399] fc8_plantvillage_fc8_plantvillage_0_split -> fc8_plantvillage_fc8_plantvillage_0_split_0
I0403 14:50:13.777240  2041 net.cpp:399] fc8_plantvillage_fc8_plantvillage_0_split -> fc8_plantvillage_fc8_plantvillage_0_split_1
I0403 14:50:13.777259  2041 net.cpp:399] fc8_plantvillage_fc8_plantvillage_0_split -> fc8_plantvillage_fc8_plantvillage_0_split_2
I0403 14:50:13.777343  2041 net.cpp:141] Setting up fc8_plantvillage_fc8_plantvillage_0_split
I0403 14:50:13.777366  2041 net.cpp:148] Top shape: 100 38 (3800)
I0403 14:50:13.777382  2041 net.cpp:148] Top shape: 100 38 (3800)
I0403 14:50:13.777398  2041 net.cpp:148] Top shape: 100 38 (3800)
I0403 14:50:13.777411  2041 net.cpp:156] Memory required for data: 831586800
I0403 14:50:13.777426  2041 layer_factory.hpp:77] Creating layer prob
I0403 14:50:13.777447  2041 net.cpp:91] Creating Layer prob
I0403 14:50:13.777463  2041 net.cpp:425] prob <- fc8_plantvillage_fc8_plantvillage_0_split_0
I0403 14:50:13.777482  2041 net.cpp:399] prob -> prob
I0403 14:50:13.777704  2041 net.cpp:141] Setting up prob
I0403 14:50:13.777734  2041 net.cpp:148] Top shape: 100 38 (3800)
I0403 14:50:13.777750  2041 net.cpp:156] Memory required for data: 831602000
I0403 14:50:13.777765  2041 layer_factory.hpp:77] Creating layer hdf5out
I0403 14:50:13.777783  2041 net.cpp:91] Creating Layer hdf5out
I0403 14:50:13.777799  2041 net.cpp:425] hdf5out <- prob
I0403 14:50:13.777814  2041 net.cpp:425] hdf5out <- label_data_1_split_0
I0403 14:50:13.779966  2041 net.cpp:141] Setting up hdf5out
…
