…
I0403 14:36:28.643815  1645 net.cpp:313] The NetState phase (1) differed from the phase (0) specified by a rule in layer data
I0403 14:36:28.644120  1645 net.cpp:49] Initializing net from parameters: 
state {
  phase: TEST
}
layer {
  name: "data"
  type: "Data"
  top: "data"
  top: "label"
  include {
    phase: TEST
  }
  transform_param {
    crop_size: 227
    mean_file: "/home/mohanty/data/final_dataset/lmdb/color-60-40/mean.binaryproto"
  }
  data_param {
    source: "/home/mohanty/data/final_dataset/lmdb/color-60-40/test_db"
    batch_size: 100
    backend: LMDB
  }
}
layer {
  name: "conv1"
  type: "Convolution"
  bottom: "data"
  top: "conv1"
  param {
    lr_mult: 1
    decay_mult: 1
  }
  param {
    lr_mult: 2
    decay_mult: 0
  }
  convolution_param {
    num_output: 96
    kernel_size: 11
    stride: 4
    weight_filler {
      type: "gaussian"
      std: 0.01
    }
    bias_filler {
      type: "constant"
      value: 0
    }
  }
}
layer {
  name: "relu1"
  type: "ReLU"
  bottom: "conv1"
  top: "conv1"
}
layer {
  name: "norm1"
  type: "LRN"
  bottom: "conv1"
  top: "norm1"
  lrn_param {
    local_size: 5
    alpha: 0.0001
    beta: 0.75
  }
}
layer {
  name: "pool1"
  type: "Pooling"
  bottom: "norm1"
  top: "pool1"
  pooling_param {
    pool: MAX
    kernel_size: 3
    stride: 2
  }
}
layer {
  name: "conv2"
  type: "Convolution"
  bottom: "pool1"
  top: "conv2"
  param {
    lr_mult: 1
    decay_mult: 1
  }
  param {
    lr_mult: 2
    decay_mult: 0
  }
  convolution_param {
    num_output: 256
    pad: 2
    kernel_size: 5
    group: 2
    weight_filler {
      type: "gaussian"
      std: 0.01
    }
    bias_filler {
      type: "constant"
      value: 0.1
    }
  }
}
layer {
  name: "relu2"
  type: "ReLU"
  bottom: "conv2"
  top: "conv2"
}
layer {
  name: "norm2"
  type: "LRN"
  bottom: "conv2"
  top: "norm2"
  lrn_param {
    local_size: 5
    alpha: 0.0001
    beta: 0.75
  }
}
layer {
  name: "pool2"
  type: "Pooling"
  bottom: "norm2"
  top: "pool2"
  pooling_param {
    pool: MAX
    kernel_size: 3
    stride: 2
  }
}
layer {
  name: "conv3"
  type: "Convolution"
  bottom: "pool2"
  top: "conv3"
  param {
    lr_mult: 1
    decay_mult: 1
  }
  param {
    lr_mult: 2
    decay_mult: 0
  }
  convolution_param {
    num_output: 384
    pad: 1
    kernel_size: 3
    weight_filler {
      type: "gaussian"
      std: 0.01
    }
    bias_filler {
      type: "constant"
      value: 0
    }
  }
}
layer {
  name: "relu3"
  type: "ReLU"
  bottom: "conv3"
  top: "conv3"
}
layer {
  name: "conv4"
  type: "Convolution"
  bottom: "conv3"
  top: "conv4"
  param {
    lr_mult: 1
    decay_mult: 1
  }
  param {
    lr_mult: 2
    decay_mult: 0
  }
  convolution_param {
    num_output: 384
    pad: 1
    kernel_size: 3
    group: 2
    weight_filler {
      type: "gaussian"
      std: 0.01
    }
    bias_filler {
      type: "constant"
      value: 0.1
    }
  }
}
layer {
  name: "relu4"
  type: "ReLU"
  bottom: "conv4"
  top: "conv4"
}
layer {
  name: "conv5"
  type: "Convolution"
  bottom: "conv4"
  top: "conv5"
  param {
    lr_mult: 1
    decay_mult: 1
  }
  param {
    lr_mult: 2
    decay_mult: 0
  }
  convolution_param {
    num_output: 256
    pad: 1
    kernel_size: 3
    group: 2
    weight_filler {
      type: "gaussian"
      std: 0.01
    }
    bias_filler {
      type: "constant"
      value: 0.1
    }
  }
}
layer {
  name: "relu5"
  type: "ReLU"
  bottom: "conv5"
  top: "conv5"
}
layer {
  name: "pool5"
  type: "Pooling"
  bottom: "conv5"
  top: "pool5"
  pooling_param {
    pool: MAX
    kernel_size: 3
    stride: 2
  }
}
layer {
  name: "fc6"
  type: "InnerProduct"
  bottom: "pool5"
  top: "fc6"
  param {
    lr_mult: 1
    decay_mult: 1
  }
  param {
    lr_mult: 2
    decay_mult: 0
  }
  inner_product_param {
    num_output: 4096
    weight_filler {
      type: "gaussian"
      std: 0.005
    }
    bias_filler {
      type: "constant"
      value: 0.1
    }
  }
}
layer {
  name: "relu6"
  type: "ReLU"
  bottom: "fc6"
  top: "fc6"
}
layer {
  name: "drop6"
  type: "Dropout"
  bottom: "fc6"
  top: "fc6"
  dropout_param {
    dropout_ratio: 0.5
  }
}
layer {
  name: "fc7"
  type: "InnerProduct"
  bottom: "fc6"
  top: "fc7"
  param {
    lr_mult: 1
    decay_mult: 1
  }
  param {
    lr_mult: 2
    decay_mult: 0
  }
  inner_product_param {
    num_output: 4096
    weight_filler {
      type: "gaussian"
      std: 0.005
    }
    bias_filler {
      type: "constant"
      value: 0.1
    }
  }
}
layer {
  name: "relu7"
  type: "ReLU"
  bottom: "fc7"
  top: "fc7"
}
layer {
  name: "drop7"
  type: "Dropout"
  bottom: "fc7"
  top: "fc7"
  dropout_param {
    dropout_ratio: 0.5
  }
}
layer {
  name: "fc8_plantvillage"
  type: "InnerProduct"
  bottom: "fc7"
  top: "fc8_plantvillage"
  param {
    lr_mult: 1
    decay_mult: 1
  }
  param {
    lr_mult: 2
    decay_mult: 0
  }
  inner_product_param {
    num_output: 38
    weight_filler {
      type: "gaussian"
      std: 0.01
    }
    bias_filler {
      type: "constant"
      value: 0
    }
  }
}
layer {
  name: "prob"
  type: "Softmax"
  bottom: "fc8_plantvillage"
  top: "prob"
  include {
    phase: TEST
  }
}
layer {
  name: "hdf5out"
  type: "HDF5Output"
  bottom: "prob"
  bottom: "label"
  include {
    phase: TEST
  }
  hdf5_output_param {
    file_name: "hdf5_dumps/iter_1300.h5"
  }
}
layer {
  name: "loss"
  type: "SoftmaxWithLoss"
  bottom: "fc8_plantvillage"
  bottom: "label"
  top: "loss"
}
layer {
  name: "accuracy"
  type: "Accuracy"
  bottom: "fc8_plantvillage"
  bottom: "label"
  top: "accuracy"
  include {
    phase: TEST
  }
}
I0403 14:36:28.644778  1645 layer_factory.hpp:77] Creating layer data
I0403 14:36:28.645429  1645 net.cpp:91] Creating Layer data
I0403 14:36:28.645463  1645 net.cpp:399] data -> data
I0403 14:36:28.645515  1645 net.cpp:399] data -> label
I0403 14:36:28.645553  1645 data_transformer.cpp:25] Loading mean file from: /home/mohanty/data/final_dataset/lmdb/color-60-40/mean.binaryproto
I0403 14:36:28.648500  1648 db_lmdb.cpp:38] Opened lmdb /home/mohanty/data/final_dataset/lmdb/color-60-40/test_db
I0403 14:36:28.660267  1645 data_layer.cpp:41] output data size: 100,3,227,227
I0403 14:36:28.780449  1645 net.cpp:141] Setting up data
I0403 14:36:28.780508  1645 net.cpp:148] Top shape: 100 3 227 227 (15458700)
I0403 14:36:28.780531  1645 net.cpp:148] Top shape: 100 (100)
I0403 14:36:28.780547  1645 net.cpp:156] Memory required for data: 61835200
I0403 14:36:28.780576  1645 layer_factory.hpp:77] Creating layer label_data_1_split
I0403 14:36:28.780601  1645 net.cpp:91] Creating Layer label_data_1_split
I0403 14:36:28.780619  1645 net.cpp:425] label_data_1_split <- label
I0403 14:36:28.780650  1645 net.cpp:399] label_data_1_split -> label_data_1_split_0
I0403 14:36:28.780678  1645 net.cpp:399] label_data_1_split -> label_data_1_split_1
I0403 14:36:28.780699  1645 net.cpp:399] label_data_1_split -> label_data_1_split_2
I0403 14:36:28.780761  1645 net.cpp:141] Setting up label_data_1_split
I0403 14:36:28.780784  1645 net.cpp:148] Top shape: 100 (100)
I0403 14:36:28.780802  1645 net.cpp:148] Top shape: 100 (100)
I0403 14:36:28.780819  1645 net.cpp:148] Top shape: 100 (100)
I0403 14:36:28.780834  1645 net.cpp:156] Memory required for data: 61836400
I0403 14:36:28.780850  1645 layer_factory.hpp:77] Creating layer conv1
I0403 14:36:28.780884  1645 net.cpp:91] Creating Layer conv1
I0403 14:36:28.780901  1645 net.cpp:425] conv1 <- data
I0403 14:36:28.780921  1645 net.cpp:399] conv1 -> conv1
I0403 14:36:28.926548  1645 net.cpp:141] Setting up conv1
I0403 14:36:28.926637  1645 net.cpp:148] Top shape: 100 96 55 55 (29040000)
I0403 14:36:28.926657  1645 net.cpp:156] Memory required for data: 177996400
I0403 14:36:28.926690  1645 layer_factory.hpp:77] Creating layer relu1
I0403 14:36:28.926720  1645 net.cpp:91] Creating Layer relu1
I0403 14:36:28.926740  1645 net.cpp:425] relu1 <- conv1
I0403 14:36:28.926760  1645 net.cpp:386] relu1 -> conv1 (in-place)
I0403 14:36:28.927026  1645 net.cpp:141] Setting up relu1
I0403 14:36:28.927054  1645 net.cpp:148] Top shape: 100 96 55 55 (29040000)
I0403 14:36:28.927072  1645 net.cpp:156] Memory required for data: 294156400
I0403 14:36:28.927120  1645 layer_factory.hpp:77] Creating layer norm1
I0403 14:36:28.927150  1645 net.cpp:91] Creating Layer norm1
I0403 14:36:28.927170  1645 net.cpp:425] norm1 <- conv1
I0403 14:36:28.927191  1645 net.cpp:399] norm1 -> norm1
I0403 14:36:28.927523  1645 net.cpp:141] Setting up norm1
I0403 14:36:28.927552  1645 net.cpp:148] Top shape: 100 96 55 55 (29040000)
I0403 14:36:28.927569  1645 net.cpp:156] Memory required for data: 410316400
I0403 14:36:28.927587  1645 layer_factory.hpp:77] Creating layer pool1
I0403 14:36:28.927611  1645 net.cpp:91] Creating Layer pool1
I0403 14:36:28.927630  1645 net.cpp:425] pool1 <- norm1
I0403 14:36:28.927649  1645 net.cpp:399] pool1 -> pool1
I0403 14:36:28.927722  1645 net.cpp:141] Setting up pool1
I0403 14:36:28.927747  1645 net.cpp:148] Top shape: 100 96 27 27 (6998400)
I0403 14:36:28.927764  1645 net.cpp:156] Memory required for data: 438310000
I0403 14:36:28.927780  1645 layer_factory.hpp:77] Creating layer conv2
I0403 14:36:28.927806  1645 net.cpp:91] Creating Layer conv2
I0403 14:36:28.927824  1645 net.cpp:425] conv2 <- pool1
I0403 14:36:28.927844  1645 net.cpp:399] conv2 -> conv2
I0403 14:36:28.943744  1645 net.cpp:141] Setting up conv2
I0403 14:36:28.943799  1645 net.cpp:148] Top shape: 100 256 27 27 (18662400)
I0403 14:36:28.943816  1645 net.cpp:156] Memory required for data: 512959600
I0403 14:36:28.943842  1645 layer_factory.hpp:77] Creating layer relu2
I0403 14:36:28.943867  1645 net.cpp:91] Creating Layer relu2
I0403 14:36:28.943886  1645 net.cpp:425] relu2 <- conv2
I0403 14:36:28.943905  1645 net.cpp:386] relu2 -> conv2 (in-place)
I0403 14:36:28.944242  1645 net.cpp:141] Setting up relu2
I0403 14:36:28.944272  1645 net.cpp:148] Top shape: 100 256 27 27 (18662400)
I0403 14:36:28.944288  1645 net.cpp:156] Memory required for data: 587609200
I0403 14:36:28.944305  1645 layer_factory.hpp:77] Creating layer norm2
I0403 14:36:28.944330  1645 net.cpp:91] Creating Layer norm2
I0403 14:36:28.944350  1645 net.cpp:425] norm2 <- conv2
I0403 14:36:28.944371  1645 net.cpp:399] norm2 -> norm2
I0403 14:36:28.944586  1645 net.cpp:141] Setting up norm2
I0403 14:36:28.944612  1645 net.cpp:148] Top shape: 100 256 27 27 (18662400)
I0403 14:36:28.944629  1645 net.cpp:156] Memory required for data: 662258800
I0403 14:36:28.944645  1645 layer_factory.hpp:77] Creating layer pool2
I0403 14:36:28.944665  1645 net.cpp:91] Creating Layer pool2
I0403 14:36:28.944681  1645 net.cpp:425] pool2 <- norm2
I0403 14:36:28.944703  1645 net.cpp:399] pool2 -> pool2
I0403 14:36:28.944759  1645 net.cpp:141] Setting up pool2
I0403 14:36:28.944784  1645 net.cpp:148] Top shape: 100 256 13 13 (4326400)
I0403 14:36:28.944802  1645 net.cpp:156] Memory required for data: 679564400
I0403 14:36:28.944818  1645 layer_factory.hpp:77] Creating layer conv3
I0403 14:36:28.944844  1645 net.cpp:91] Creating Layer conv3
I0403 14:36:28.944864  1645 net.cpp:425] conv3 <- pool2
I0403 14:36:28.944883  1645 net.cpp:399] conv3 -> conv3
I0403 14:36:28.989099  1645 net.cpp:141] Setting up conv3
I0403 14:36:28.989164  1645 net.cpp:148] Top shape: 100 384 13 13 (6489600)
I0403 14:36:28.989184  1645 net.cpp:156] Memory required for data: 705522800
I0403 14:36:28.989212  1645 layer_factory.hpp:77] Creating layer relu3
I0403 14:36:28.989238  1645 net.cpp:91] Creating Layer relu3
I0403 14:36:28.989265  1645 net.cpp:425] relu3 <- conv3
I0403 14:36:28.989286  1645 net.cpp:386] relu3 -> conv3 (in-place)
I0403 14:36:28.989573  1645 net.cpp:141] Setting up relu3
I0403 14:36:28.989600  1645 net.cpp:148] Top shape: 100 384 13 13 (6489600)
I0403 14:36:28.989617  1645 net.cpp:156] Memory required for data: 731481200
I0403 14:36:28.989634  1645 layer_factory.hpp:77] Creating layer conv4
I0403 14:36:28.989662  1645 net.cpp:91] Creating Layer conv4
I0403 14:36:28.989681  1645 net.cpp:425] conv4 <- conv3
I0403 14:36:28.989704  1645 net.cpp:399] conv4 -> conv4
I0403 14:36:29.021114  1645 net.cpp:141] Setting up conv4
I0403 14:36:29.021180  1645 net.cpp:148] Top shape: 100 384 13 13 (6489600)
I0403 14:36:29.021232  1645 net.cpp:156] Memory required for data: 757439600
I0403 14:36:29.021261  1645 layer_factory.hpp:77] Creating layer relu4
I0403 14:36:29.021286  1645 net.cpp:91] Creating Layer relu4
I0403 14:36:29.021304  1645 net.cpp:425] relu4 <- conv4
I0403 14:36:29.021327  1645 net.cpp:386] relu4 -> conv4 (in-place)
I0403 14:36:29.021651  1645 net.cpp:141] Setting up relu4
I0403 14:36:29.021679  1645 net.cpp:148] Top shape: 100 384 13 13 (6489600)
I0403 14:36:29.021697  1645 net.cpp:156] Memory required for data: 783398000
I0403 14:36:29.021713  1645 layer_factory.hpp:77] Creating layer conv5
I0403 14:36:29.021740  1645 net.cpp:91] Creating Layer conv5
I0403 14:36:29.021759  1645 net.cpp:425] conv5 <- conv4
I0403 14:36:29.021782  1645 net.cpp:399] conv5 -> conv5
I0403 14:36:29.043447  1645 net.cpp:141] Setting up conv5
I0403 14:36:29.043550  1645 net.cpp:148] Top shape: 100 256 13 13 (4326400)
I0403 14:36:29.043572  1645 net.cpp:156] Memory required for data: 800703600
I0403 14:36:29.043599  1645 layer_factory.hpp:77] Creating layer relu5
I0403 14:36:29.043624  1645 net.cpp:91] Creating Layer relu5
I0403 14:36:29.043642  1645 net.cpp:425] relu5 <- conv5
I0403 14:36:29.043665  1645 net.cpp:386] relu5 -> conv5 (in-place)
I0403 14:36:29.043958  1645 net.cpp:141] Setting up relu5
I0403 14:36:29.043987  1645 net.cpp:148] Top shape: 100 256 13 13 (4326400)
I0403 14:36:29.044003  1645 net.cpp:156] Memory required for data: 818009200
I0403 14:36:29.044020  1645 layer_factory.hpp:77] Creating layer pool5
I0403 14:36:29.044045  1645 net.cpp:91] Creating Layer pool5
I0403 14:36:29.044064  1645 net.cpp:425] pool5 <- conv5
I0403 14:36:29.044083  1645 net.cpp:399] pool5 -> pool5
I0403 14:36:29.044150  1645 net.cpp:141] Setting up pool5
I0403 14:36:29.044176  1645 net.cpp:148] Top shape: 100 256 6 6 (921600)
I0403 14:36:29.044193  1645 net.cpp:156] Memory required for data: 821695600
I0403 14:36:29.044209  1645 layer_factory.hpp:77] Creating layer fc6
I0403 14:36:29.044244  1645 net.cpp:91] Creating Layer fc6
I0403 14:36:29.044265  1645 net.cpp:425] fc6 <- pool5
I0403 14:36:29.044284  1645 net.cpp:399] fc6 -> fc6
I0403 14:36:30.619603  1645 net.cpp:141] Setting up fc6
I0403 14:36:30.619671  1645 net.cpp:148] Top shape: 100 4096 (409600)
I0403 14:36:30.619688  1645 net.cpp:156] Memory required for data: 823334000
I0403 14:36:30.619709  1645 layer_factory.hpp:77] Creating layer relu6
I0403 14:36:30.619732  1645 net.cpp:91] Creating Layer relu6
I0403 14:36:30.619750  1645 net.cpp:425] relu6 <- fc6
I0403 14:36:30.619772  1645 net.cpp:386] relu6 -> fc6 (in-place)
I0403 14:36:30.619987  1645 net.cpp:141] Setting up relu6
I0403 14:36:30.620012  1645 net.cpp:148] Top shape: 100 4096 (409600)
I0403 14:36:30.620028  1645 net.cpp:156] Memory required for data: 824972400
I0403 14:36:30.620043  1645 layer_factory.hpp:77] Creating layer drop6
I0403 14:36:30.620062  1645 net.cpp:91] Creating Layer drop6
I0403 14:36:30.620079  1645 net.cpp:425] drop6 <- fc6
I0403 14:36:30.620097  1645 net.cpp:386] drop6 -> fc6 (in-place)
I0403 14:36:30.620151  1645 net.cpp:141] Setting up drop6
I0403 14:36:30.620174  1645 net.cpp:148] Top shape: 100 4096 (409600)
I0403 14:36:30.620190  1645 net.cpp:156] Memory required for data: 826610800
I0403 14:36:30.620205  1645 layer_factory.hpp:77] Creating layer fc7
I0403 14:36:30.620225  1645 net.cpp:91] Creating Layer fc7
I0403 14:36:30.620246  1645 net.cpp:425] fc7 <- fc6
I0403 14:36:30.620271  1645 net.cpp:399] fc7 -> fc7
I0403 14:36:31.297943  1645 net.cpp:141] Setting up fc7
I0403 14:36:31.297984  1645 net.cpp:148] Top shape: 100 4096 (409600)
I0403 14:36:31.298001  1645 net.cpp:156] Memory required for data: 828249200
I0403 14:36:31.298020  1645 layer_factory.hpp:77] Creating layer relu7
I0403 14:36:31.298045  1645 net.cpp:91] Creating Layer relu7
I0403 14:36:31.298063  1645 net.cpp:425] relu7 <- fc7
I0403 14:36:31.298084  1645 net.cpp:386] relu7 -> fc7 (in-place)
I0403 14:36:31.298487  1645 net.cpp:141] Setting up relu7
I0403 14:36:31.298513  1645 net.cpp:148] Top shape: 100 4096 (409600)
I0403 14:36:31.298562  1645 net.cpp:156] Memory required for data: 829887600
I0403 14:36:31.298578  1645 layer_factory.hpp:77] Creating layer drop7
I0403 14:36:31.298596  1645 net.cpp:91] Creating Layer drop7
I0403 14:36:31.298646  1645 net.cpp:425] drop7 <- fc7
I0403 14:36:31.298665  1645 net.cpp:386] drop7 -> fc7 (in-place)
I0403 14:36:31.298708  1645 net.cpp:141] Setting up drop7
I0403 14:36:31.298732  1645 net.cpp:148] Top shape: 100 4096 (409600)
I0403 14:36:31.298748  1645 net.cpp:156] Memory required for data: 831526000
I0403 14:36:31.298764  1645 layer_factory.hpp:77] Creating layer fc8_plantvillage
I0403 14:36:31.298784  1645 net.cpp:91] Creating Layer fc8_plantvillage
I0403 14:36:31.298800  1645 net.cpp:425] fc8_plantvillage <- fc7
I0403 14:36:31.298822  1645 net.cpp:399] fc8_plantvillage -> fc8_plantvillage
I0403 14:36:31.305472  1645 net.cpp:141] Setting up fc8_plantvillage
I0403 14:36:31.305501  1645 net.cpp:148] Top shape: 100 38 (3800)
I0403 14:36:31.305517  1645 net.cpp:156] Memory required for data: 831541200
I0403 14:36:31.305536  1645 layer_factory.hpp:77] Creating layer fc8_plantvillage_fc8_plantvillage_0_split
I0403 14:36:31.305557  1645 net.cpp:91] Creating Layer fc8_plantvillage_fc8_plantvillage_0_split
I0403 14:36:31.305574  1645 net.cpp:425] fc8_plantvillage_fc8_plantvillage_0_split <- fc8_plantvillage
I0403 14:36:31.305593  1645 net.cpp:399] fc8_plantvillage_fc8_plantvillage_0_split -> fc8_plantvillage_fc8_plantvillage_0_split_0
I0403 14:36:31.305613  1645 net.cpp:399] fc8_plantvillage_fc8_plantvillage_0_split -> fc8_plantvillage_fc8_plantvillage_0_split_1
I0403 14:36:31.305632  1645 net.cpp:399] fc8_plantvillage_fc8_plantvillage_0_split -> fc8_plantvillage_fc8_plantvillage_0_split_2
I0403 14:36:31.305711  1645 net.cpp:141] Setting up fc8_plantvillage_fc8_plantvillage_0_split
I0403 14:36:31.305735  1645 net.cpp:148] Top shape: 100 38 (3800)
I0403 14:36:31.305752  1645 net.cpp:148] Top shape: 100 38 (3800)
I0403 14:36:31.305768  1645 net.cpp:148] Top shape: 100 38 (3800)
I0403 14:36:31.305783  1645 net.cpp:156] Memory required for data: 831586800
I0403 14:36:31.305799  1645 layer_factory.hpp:77] Creating layer prob
I0403 14:36:31.305816  1645 net.cpp:91] Creating Layer prob
I0403 14:36:31.305833  1645 net.cpp:425] prob <- fc8_plantvillage_fc8_plantvillage_0_split_0
I0403 14:36:31.305853  1645 net.cpp:399] prob -> prob
I0403 14:36:31.306079  1645 net.cpp:141] Setting up prob
I0403 14:36:31.306104  1645 net.cpp:148] Top shape: 100 38 (3800)
I0403 14:36:31.306120  1645 net.cpp:156] Memory required for data: 831602000
I0403 14:36:31.306136  1645 layer_factory.hpp:77] Creating layer hdf5out
I0403 14:36:31.306157  1645 net.cpp:91] Creating Layer hdf5out
I0403 14:36:31.306174  1645 net.cpp:425] hdf5out <- prob
I0403 14:36:31.306191  1645 net.cpp:425] hdf5out <- label_data_1_split_0
I0403 14:36:31.308487  1645 net.cpp:141] Setting up hdf5out
…
