…
I0403 14:45:37.002509  1911 net.cpp:313] The NetState phase (1) differed from the phase (0) specified by a rule in layer data
I0403 14:45:37.002807  1911 net.cpp:49] Initializing net from parameters: 
state {
  phase: TEST
}
layer {
  name: "data"
  type: "Data"
  top: "data"
  top: "label"
  include {
    phase: TEST
  }
  transform_param {
    crop_size: 227
    mean_file: "/home/mohanty/data/final_dataset/lmdb/color-60-40/mean.binaryproto"
  }
  data_param {
    source: "/home/mohanty/data/final_dataset/lmdb/color-60-40/test_db"
    batch_size: 100
    backend: LMDB
  }
}
layer {
  name: "conv1"
  type: "Convolution"
  bottom: "data"
  top: "conv1"
  param {
    lr_mult: 1
    decay_mult: 1
  }
  param {
    lr_mult: 2
    decay_mult: 0
  }
  convolution_param {
    num_output: 96
    kernel_size: 11
    stride: 4
    weight_filler {
      type: "gaussian"
      std: 0.01
    }
    bias_filler {
      type: "constant"
      value: 0
    }
  }
}
layer {
  name: "relu1"
  type: "ReLU"
  bottom: "conv1"
  top: "conv1"
}
layer {
  name: "norm1"
  type: "LRN"
  bottom: "conv1"
  top: "norm1"
  lrn_param {
    local_size: 5
    alpha: 0.0001
    beta: 0.75
  }
}
layer {
  name: "pool1"
  type: "Pooling"
  bottom: "norm1"
  top: "pool1"
  pooling_param {
    pool: MAX
    kernel_size: 3
    stride: 2
  }
}
layer {
  name: "conv2"
  type: "Convolution"
  bottom: "pool1"
  top: "conv2"
  param {
    lr_mult: 1
    decay_mult: 1
  }
  param {
    lr_mult: 2
    decay_mult: 0
  }
  convolution_param {
    num_output: 256
    pad: 2
    kernel_size: 5
    group: 2
    weight_filler {
      type: "gaussian"
      std: 0.01
    }
    bias_filler {
      type: "constant"
      value: 0.1
    }
  }
}
layer {
  name: "relu2"
  type: "ReLU"
  bottom: "conv2"
  top: "conv2"
}
layer {
  name: "norm2"
  type: "LRN"
  bottom: "conv2"
  top: "norm2"
  lrn_param {
    local_size: 5
    alpha: 0.0001
    beta: 0.75
  }
}
layer {
  name: "pool2"
  type: "Pooling"
  bottom: "norm2"
  top: "pool2"
  pooling_param {
    pool: MAX
    kernel_size: 3
    stride: 2
  }
}
layer {
  name: "conv3"
  type: "Convolution"
  bottom: "pool2"
  top: "conv3"
  param {
    lr_mult: 1
    decay_mult: 1
  }
  param {
    lr_mult: 2
    decay_mult: 0
  }
  convolution_param {
    num_output: 384
    pad: 1
    kernel_size: 3
    weight_filler {
      type: "gaussian"
      std: 0.01
    }
    bias_filler {
      type: "constant"
      value: 0
    }
  }
}
layer {
  name: "relu3"
  type: "ReLU"
  bottom: "conv3"
  top: "conv3"
}
layer {
  name: "conv4"
  type: "Convolution"
  bottom: "conv3"
  top: "conv4"
  param {
    lr_mult: 1
    decay_mult: 1
  }
  param {
    lr_mult: 2
    decay_mult: 0
  }
  convolution_param {
    num_output: 384
    pad: 1
    kernel_size: 3
    group: 2
    weight_filler {
      type: "gaussian"
      std: 0.01
    }
    bias_filler {
      type: "constant"
      value: 0.1
    }
  }
}
layer {
  name: "relu4"
  type: "ReLU"
  bottom: "conv4"
  top: "conv4"
}
layer {
  name: "conv5"
  type: "Convolution"
  bottom: "conv4"
  top: "conv5"
  param {
    lr_mult: 1
    decay_mult: 1
  }
  param {
    lr_mult: 2
    decay_mult: 0
  }
  convolution_param {
    num_output: 256
    pad: 1
    kernel_size: 3
    group: 2
    weight_filler {
      type: "gaussian"
      std: 0.01
    }
    bias_filler {
      type: "constant"
      value: 0.1
    }
  }
}
layer {
  name: "relu5"
  type: "ReLU"
  bottom: "conv5"
  top: "conv5"
}
layer {
  name: "pool5"
  type: "Pooling"
  bottom: "conv5"
  top: "pool5"
  pooling_param {
    pool: MAX
    kernel_size: 3
    stride: 2
  }
}
layer {
  name: "fc6"
  type: "InnerProduct"
  bottom: "pool5"
  top: "fc6"
  param {
    lr_mult: 1
    decay_mult: 1
  }
  param {
    lr_mult: 2
    decay_mult: 0
  }
  inner_product_param {
    num_output: 4096
    weight_filler {
      type: "gaussian"
      std: 0.005
    }
    bias_filler {
      type: "constant"
      value: 0.1
    }
  }
}
layer {
  name: "relu6"
  type: "ReLU"
  bottom: "fc6"
  top: "fc6"
}
layer {
  name: "drop6"
  type: "Dropout"
  bottom: "fc6"
  top: "fc6"
  dropout_param {
    dropout_ratio: 0.5
  }
}
layer {
  name: "fc7"
  type: "InnerProduct"
  bottom: "fc6"
  top: "fc7"
  param {
    lr_mult: 1
    decay_mult: 1
  }
  param {
    lr_mult: 2
    decay_mult: 0
  }
  inner_product_param {
    num_output: 4096
    weight_filler {
      type: "gaussian"
      std: 0.005
    }
    bias_filler {
      type: "constant"
      value: 0.1
    }
  }
}
layer {
  name: "relu7"
  type: "ReLU"
  bottom: "fc7"
  top: "fc7"
}
layer {
  name: "drop7"
  type: "Dropout"
  bottom: "fc7"
  top: "fc7"
  dropout_param {
    dropout_ratio: 0.5
  }
}
layer {
  name: "fc8_plantvillage"
  type: "InnerProduct"
  bottom: "fc7"
  top: "fc8_plantvillage"
  param {
    lr_mult: 1
    decay_mult: 1
  }
  param {
    lr_mult: 2
    decay_mult: 0
  }
  inner_product_param {
    num_output: 38
    weight_filler {
      type: "gaussian"
      std: 0.01
    }
    bias_filler {
      type: "constant"
      value: 0
    }
  }
}
layer {
  name: "prob"
  type: "Softmax"
  bottom: "fc8_plantvillage"
  top: "prob"
  include {
    phase: TEST
  }
}
layer {
  name: "hdf5out"
  type: "HDF5Output"
  bottom: "prob"
  bottom: "label"
  include {
    phase: TEST
  }
  hdf5_output_param {
    file_name: "hdf5_dumps/iter_5200.h5"
  }
}
layer {
  name: "loss"
  type: "SoftmaxWithLoss"
  bottom: "fc8_plantvillage"
  bottom: "label"
  top: "loss"
}
layer {
  name: "accuracy"
  type: "Accuracy"
  bottom: "fc8_plantvillage"
  bottom: "label"
  top: "accuracy"
  include {
    phase: TEST
  }
}
I0403 14:45:37.003373  1911 layer_factory.hpp:77] Creating layer data
I0403 14:45:37.004003  1911 net.cpp:91] Creating Layer data
I0403 14:45:37.004031  1911 net.cpp:399] data -> data
I0403 14:45:37.004112  1911 net.cpp:399] data -> label
I0403 14:45:37.004151  1911 data_transformer.cpp:25] Loading mean file from: /home/mohanty/data/final_dataset/lmdb/color-60-40/mean.binaryproto
I0403 14:45:37.006813  1914 db_lmdb.cpp:38] Opened lmdb /home/mohanty/data/final_dataset/lmdb/color-60-40/test_db
I0403 14:45:37.018944  1911 data_layer.cpp:41] output data size: 100,3,227,227
I0403 14:45:37.143224  1911 net.cpp:141] Setting up data
I0403 14:45:37.143334  1911 net.cpp:148] Top shape: 100 3 227 227 (15458700)
I0403 14:45:37.143358  1911 net.cpp:148] Top shape: 100 (100)
I0403 14:45:37.143374  1911 net.cpp:156] Memory required for data: 61835200
I0403 14:45:37.143402  1911 layer_factory.hpp:77] Creating layer label_data_1_split
I0403 14:45:37.143429  1911 net.cpp:91] Creating Layer label_data_1_split
I0403 14:45:37.143447  1911 net.cpp:425] label_data_1_split <- label
I0403 14:45:37.143479  1911 net.cpp:399] label_data_1_split -> label_data_1_split_0
I0403 14:45:37.143507  1911 net.cpp:399] label_data_1_split -> label_data_1_split_1
I0403 14:45:37.143528  1911 net.cpp:399] label_data_1_split -> label_data_1_split_2
I0403 14:45:37.143592  1911 net.cpp:141] Setting up label_data_1_split
I0403 14:45:37.143616  1911 net.cpp:148] Top shape: 100 (100)
I0403 14:45:37.143635  1911 net.cpp:148] Top shape: 100 (100)
I0403 14:45:37.143651  1911 net.cpp:148] Top shape: 100 (100)
I0403 14:45:37.143666  1911 net.cpp:156] Memory required for data: 61836400
I0403 14:45:37.143682  1911 layer_factory.hpp:77] Creating layer conv1
I0403 14:45:37.143715  1911 net.cpp:91] Creating Layer conv1
I0403 14:45:37.143734  1911 net.cpp:425] conv1 <- data
I0403 14:45:37.143755  1911 net.cpp:399] conv1 -> conv1
I0403 14:45:37.287660  1911 net.cpp:141] Setting up conv1
I0403 14:45:37.287747  1911 net.cpp:148] Top shape: 100 96 55 55 (29040000)
I0403 14:45:37.287765  1911 net.cpp:156] Memory required for data: 177996400
I0403 14:45:37.287794  1911 layer_factory.hpp:77] Creating layer relu1
I0403 14:45:37.287822  1911 net.cpp:91] Creating Layer relu1
I0403 14:45:37.287842  1911 net.cpp:425] relu1 <- conv1
I0403 14:45:37.287860  1911 net.cpp:386] relu1 -> conv1 (in-place)
I0403 14:45:37.288125  1911 net.cpp:141] Setting up relu1
I0403 14:45:37.288151  1911 net.cpp:148] Top shape: 100 96 55 55 (29040000)
I0403 14:45:37.288259  1911 net.cpp:156] Memory required for data: 294156400
I0403 14:45:37.288311  1911 layer_factory.hpp:77] Creating layer norm1
I0403 14:45:37.288343  1911 net.cpp:91] Creating Layer norm1
I0403 14:45:37.288362  1911 net.cpp:425] norm1 <- conv1
I0403 14:45:37.288383  1911 net.cpp:399] norm1 -> norm1
I0403 14:45:37.288702  1911 net.cpp:141] Setting up norm1
I0403 14:45:37.288730  1911 net.cpp:148] Top shape: 100 96 55 55 (29040000)
I0403 14:45:37.288748  1911 net.cpp:156] Memory required for data: 410316400
I0403 14:45:37.288763  1911 layer_factory.hpp:77] Creating layer pool1
I0403 14:45:37.288785  1911 net.cpp:91] Creating Layer pool1
I0403 14:45:37.288801  1911 net.cpp:425] pool1 <- norm1
I0403 14:45:37.288822  1911 net.cpp:399] pool1 -> pool1
I0403 14:45:37.288892  1911 net.cpp:141] Setting up pool1
I0403 14:45:37.288915  1911 net.cpp:148] Top shape: 100 96 27 27 (6998400)
I0403 14:45:37.288930  1911 net.cpp:156] Memory required for data: 438310000
I0403 14:45:37.288945  1911 layer_factory.hpp:77] Creating layer conv2
I0403 14:45:37.288972  1911 net.cpp:91] Creating Layer conv2
I0403 14:45:37.288990  1911 net.cpp:425] conv2 <- pool1
I0403 14:45:37.289011  1911 net.cpp:399] conv2 -> conv2
I0403 14:45:37.304772  1911 net.cpp:141] Setting up conv2
I0403 14:45:37.304833  1911 net.cpp:148] Top shape: 100 256 27 27 (18662400)
I0403 14:45:37.304852  1911 net.cpp:156] Memory required for data: 512959600
I0403 14:45:37.304877  1911 layer_factory.hpp:77] Creating layer relu2
I0403 14:45:37.304898  1911 net.cpp:91] Creating Layer relu2
I0403 14:45:37.304914  1911 net.cpp:425] relu2 <- conv2
I0403 14:45:37.304936  1911 net.cpp:386] relu2 -> conv2 (in-place)
I0403 14:45:37.305232  1911 net.cpp:141] Setting up relu2
I0403 14:45:37.305274  1911 net.cpp:148] Top shape: 100 256 27 27 (18662400)
I0403 14:45:37.305291  1911 net.cpp:156] Memory required for data: 587609200
I0403 14:45:37.305307  1911 layer_factory.hpp:77] Creating layer norm2
I0403 14:45:37.305332  1911 net.cpp:91] Creating Layer norm2
I0403 14:45:37.305351  1911 net.cpp:425] norm2 <- conv2
I0403 14:45:37.305371  1911 net.cpp:399] norm2 -> norm2
I0403 14:45:37.305579  1911 net.cpp:141] Setting up norm2
I0403 14:45:37.305609  1911 net.cpp:148] Top shape: 100 256 27 27 (18662400)
I0403 14:45:37.305626  1911 net.cpp:156] Memory required for data: 662258800
I0403 14:45:37.305644  1911 layer_factory.hpp:77] Creating layer pool2
I0403 14:45:37.305662  1911 net.cpp:91] Creating Layer pool2
I0403 14:45:37.305680  1911 net.cpp:425] pool2 <- norm2
I0403 14:45:37.305701  1911 net.cpp:399] pool2 -> pool2
I0403 14:45:37.305757  1911 net.cpp:141] Setting up pool2
I0403 14:45:37.305783  1911 net.cpp:148] Top shape: 100 256 13 13 (4326400)
I0403 14:45:37.305799  1911 net.cpp:156] Memory required for data: 679564400
I0403 14:45:37.305814  1911 layer_factory.hpp:77] Creating layer conv3
I0403 14:45:37.305840  1911 net.cpp:91] Creating Layer conv3
I0403 14:45:37.305862  1911 net.cpp:425] conv3 <- pool2
I0403 14:45:37.305882  1911 net.cpp:399] conv3 -> conv3
I0403 14:45:37.349941  1911 net.cpp:141] Setting up conv3
I0403 14:45:37.349993  1911 net.cpp:148] Top shape: 100 384 13 13 (6489600)
I0403 14:45:37.350013  1911 net.cpp:156] Memory required for data: 705522800
I0403 14:45:37.350039  1911 layer_factory.hpp:77] Creating layer relu3
I0403 14:45:37.350062  1911 net.cpp:91] Creating Layer relu3
I0403 14:45:37.350081  1911 net.cpp:425] relu3 <- conv3
I0403 14:45:37.350105  1911 net.cpp:386] relu3 -> conv3 (in-place)
I0403 14:45:37.350397  1911 net.cpp:141] Setting up relu3
I0403 14:45:37.350427  1911 net.cpp:148] Top shape: 100 384 13 13 (6489600)
I0403 14:45:37.350443  1911 net.cpp:156] Memory required for data: 731481200
I0403 14:45:37.350460  1911 layer_factory.hpp:77] Creating layer conv4
I0403 14:45:37.350487  1911 net.cpp:91] Creating Layer conv4
I0403 14:45:37.350505  1911 net.cpp:425] conv4 <- conv3
I0403 14:45:37.350525  1911 net.cpp:399] conv4 -> conv4
I0403 14:45:37.380731  1911 net.cpp:141] Setting up conv4
I0403 14:45:37.380779  1911 net.cpp:148] Top shape: 100 384 13 13 (6489600)
I0403 14:45:37.380828  1911 net.cpp:156] Memory required for data: 757439600
I0403 14:45:37.380851  1911 layer_factory.hpp:77] Creating layer relu4
I0403 14:45:37.380873  1911 net.cpp:91] Creating Layer relu4
I0403 14:45:37.380892  1911 net.cpp:425] relu4 <- conv4
I0403 14:45:37.380911  1911 net.cpp:386] relu4 -> conv4 (in-place)
I0403 14:45:37.381186  1911 net.cpp:141] Setting up relu4
I0403 14:45:37.381213  1911 net.cpp:148] Top shape: 100 384 13 13 (6489600)
I0403 14:45:37.381229  1911 net.cpp:156] Memory required for data: 783398000
I0403 14:45:37.381249  1911 layer_factory.hpp:77] Creating layer conv5
I0403 14:45:37.381289  1911 net.cpp:91] Creating Layer conv5
I0403 14:45:37.381307  1911 net.cpp:425] conv5 <- conv4
I0403 14:45:37.381327  1911 net.cpp:399] conv5 -> conv5
I0403 14:45:37.402477  1911 net.cpp:141] Setting up conv5
I0403 14:45:37.402542  1911 net.cpp:148] Top shape: 100 256 13 13 (4326400)
I0403 14:45:37.402562  1911 net.cpp:156] Memory required for data: 800703600
I0403 14:45:37.402588  1911 layer_factory.hpp:77] Creating layer relu5
I0403 14:45:37.402611  1911 net.cpp:91] Creating Layer relu5
I0403 14:45:37.402640  1911 net.cpp:425] relu5 <- conv5
I0403 14:45:37.402662  1911 net.cpp:386] relu5 -> conv5 (in-place)
I0403 14:45:37.402945  1911 net.cpp:141] Setting up relu5
I0403 14:45:37.402972  1911 net.cpp:148] Top shape: 100 256 13 13 (4326400)
I0403 14:45:37.403002  1911 net.cpp:156] Memory required for data: 818009200
I0403 14:45:37.403017  1911 layer_factory.hpp:77] Creating layer pool5
I0403 14:45:37.403040  1911 net.cpp:91] Creating Layer pool5
I0403 14:45:37.403058  1911 net.cpp:425] pool5 <- conv5
I0403 14:45:37.403081  1911 net.cpp:399] pool5 -> pool5
I0403 14:45:37.403146  1911 net.cpp:141] Setting up pool5
I0403 14:45:37.403170  1911 net.cpp:148] Top shape: 100 256 6 6 (921600)
I0403 14:45:37.403187  1911 net.cpp:156] Memory required for data: 821695600
I0403 14:45:37.403203  1911 layer_factory.hpp:77] Creating layer fc6
I0403 14:45:37.403234  1911 net.cpp:91] Creating Layer fc6
I0403 14:45:37.403261  1911 net.cpp:425] fc6 <- pool5
I0403 14:45:37.403285  1911 net.cpp:399] fc6 -> fc6
I0403 14:45:38.938165  1911 net.cpp:141] Setting up fc6
I0403 14:45:38.938258  1911 net.cpp:148] Top shape: 100 4096 (409600)
I0403 14:45:38.938277  1911 net.cpp:156] Memory required for data: 823334000
I0403 14:45:38.938298  1911 layer_factory.hpp:77] Creating layer relu6
I0403 14:45:38.938324  1911 net.cpp:91] Creating Layer relu6
I0403 14:45:38.938344  1911 net.cpp:425] relu6 <- fc6
I0403 14:45:38.938364  1911 net.cpp:386] relu6 -> fc6 (in-place)
I0403 14:45:38.938588  1911 net.cpp:141] Setting up relu6
I0403 14:45:38.938616  1911 net.cpp:148] Top shape: 100 4096 (409600)
I0403 14:45:38.938630  1911 net.cpp:156] Memory required for data: 824972400
I0403 14:45:38.938645  1911 layer_factory.hpp:77] Creating layer drop6
I0403 14:45:38.938664  1911 net.cpp:91] Creating Layer drop6
I0403 14:45:38.938680  1911 net.cpp:425] drop6 <- fc6
I0403 14:45:38.938697  1911 net.cpp:386] drop6 -> fc6 (in-place)
I0403 14:45:38.938765  1911 net.cpp:141] Setting up drop6
I0403 14:45:38.938787  1911 net.cpp:148] Top shape: 100 4096 (409600)
I0403 14:45:38.938802  1911 net.cpp:156] Memory required for data: 826610800
I0403 14:45:38.938817  1911 layer_factory.hpp:77] Creating layer fc7
I0403 14:45:38.938840  1911 net.cpp:91] Creating Layer fc7
I0403 14:45:38.938859  1911 net.cpp:425] fc7 <- fc6
I0403 14:45:38.938879  1911 net.cpp:399] fc7 -> fc7
I0403 14:45:39.617457  1911 net.cpp:141] Setting up fc7
I0403 14:45:39.617514  1911 net.cpp:148] Top shape: 100 4096 (409600)
I0403 14:45:39.617532  1911 net.cpp:156] Memory required for data: 828249200
I0403 14:45:39.617553  1911 layer_factory.hpp:77] Creating layer relu7
I0403 14:45:39.617575  1911 net.cpp:91] Creating Layer relu7
I0403 14:45:39.617594  1911 net.cpp:425] relu7 <- fc7
I0403 14:45:39.617615  1911 net.cpp:386] relu7 -> fc7 (in-place)
I0403 14:45:39.618032  1911 net.cpp:141] Setting up relu7
I0403 14:45:39.618060  1911 net.cpp:148] Top shape: 100 4096 (409600)
I0403 14:45:39.618101  1911 net.cpp:156] Memory required for data: 829887600
I0403 14:45:39.618118  1911 layer_factory.hpp:77] Creating layer drop7
I0403 14:45:39.618136  1911 net.cpp:91] Creating Layer drop7
I0403 14:45:39.618154  1911 net.cpp:425] drop7 <- fc7
I0403 14:45:39.618173  1911 net.cpp:386] drop7 -> fc7 (in-place)
I0403 14:45:39.618216  1911 net.cpp:141] Setting up drop7
I0403 14:45:39.618238  1911 net.cpp:148] Top shape: 100 4096 (409600)
I0403 14:45:39.618259  1911 net.cpp:156] Memory required for data: 831526000
I0403 14:45:39.618275  1911 layer_factory.hpp:77] Creating layer fc8_plantvillage
I0403 14:45:39.618297  1911 net.cpp:91] Creating Layer fc8_plantvillage
I0403 14:45:39.618316  1911 net.cpp:425] fc8_plantvillage <- fc7
I0403 14:45:39.618340  1911 net.cpp:399] fc8_plantvillage -> fc8_plantvillage
I0403 14:45:39.625258  1911 net.cpp:141] Setting up fc8_plantvillage
I0403 14:45:39.625288  1911 net.cpp:148] Top shape: 100 38 (3800)
I0403 14:45:39.625304  1911 net.cpp:156] Memory required for data: 831541200
I0403 14:45:39.625324  1911 layer_factory.hpp:77] Creating layer fc8_plantvillage_fc8_plantvillage_0_split
I0403 14:45:39.625344  1911 net.cpp:91] Creating Layer fc8_plantvillage_fc8_plantvillage_0_split
I0403 14:45:39.625360  1911 net.cpp:425] fc8_plantvillage_fc8_plantvillage_0_split <- fc8_plantvillage
I0403 14:45:39.625380  1911 net.cpp:399] fc8_plantvillage_fc8_plantvillage_0_split -> fc8_plantvillage_fc8_plantvillage_0_split_0
I0403 14:45:39.625402  1911 net.cpp:399] fc8_plantvillage_fc8_plantvillage_0_split -> fc8_plantvillage_fc8_plantvillage_0_split_1
I0403 14:45:39.625423  1911 net.cpp:399] fc8_plantvillage_fc8_plantvillage_0_split -> fc8_plantvillage_fc8_plantvillage_0_split_2
I0403 14:45:39.625507  1911 net.cpp:141] Setting up fc8_plantvillage_fc8_plantvillage_0_split
I0403 14:45:39.625532  1911 net.cpp:148] Top shape: 100 38 (3800)
I0403 14:45:39.625550  1911 net.cpp:148] Top shape: 100 38 (3800)
I0403 14:45:39.625566  1911 net.cpp:148] Top shape: 100 38 (3800)
I0403 14:45:39.625581  1911 net.cpp:156] Memory required for data: 831586800
I0403 14:45:39.625596  1911 layer_factory.hpp:77] Creating layer prob
I0403 14:45:39.625614  1911 net.cpp:91] Creating Layer prob
I0403 14:45:39.625632  1911 net.cpp:425] prob <- fc8_plantvillage_fc8_plantvillage_0_split_0
I0403 14:45:39.625653  1911 net.cpp:399] prob -> prob
I0403 14:45:39.625883  1911 net.cpp:141] Setting up prob
I0403 14:45:39.625912  1911 net.cpp:148] Top shape: 100 38 (3800)
I0403 14:45:39.625929  1911 net.cpp:156] Memory required for data: 831602000
I0403 14:45:39.625946  1911 layer_factory.hpp:77] Creating layer hdf5out
I0403 14:45:39.625964  1911 net.cpp:91] Creating Layer hdf5out
I0403 14:45:39.625982  1911 net.cpp:425] hdf5out <- prob
I0403 14:45:39.625998  1911 net.cpp:425] hdf5out <- label_data_1_split_0
I0403 14:45:39.628592  1911 net.cpp:141] Setting up hdf5out
…
