…
I0403 14:48:39.785589  1991 net.cpp:313] The NetState phase (1) differed from the phase (0) specified by a rule in layer data
I0403 14:48:39.785912  1991 net.cpp:49] Initializing net from parameters: 
state {
  phase: TEST
}
layer {
  name: "data"
  type: "Data"
  top: "data"
  top: "label"
  include {
    phase: TEST
  }
  transform_param {
    crop_size: 227
    mean_file: "/home/mohanty/data/final_dataset/lmdb/color-60-40/mean.binaryproto"
  }
  data_param {
    source: "/home/mohanty/data/final_dataset/lmdb/color-60-40/test_db"
    batch_size: 100
    backend: LMDB
  }
}
layer {
  name: "conv1"
  type: "Convolution"
  bottom: "data"
  top: "conv1"
  param {
    lr_mult: 1
    decay_mult: 1
  }
  param {
    lr_mult: 2
    decay_mult: 0
  }
  convolution_param {
    num_output: 96
    kernel_size: 11
    stride: 4
    weight_filler {
      type: "gaussian"
      std: 0.01
    }
    bias_filler {
      type: "constant"
      value: 0
    }
  }
}
layer {
  name: "relu1"
  type: "ReLU"
  bottom: "conv1"
  top: "conv1"
}
layer {
  name: "norm1"
  type: "LRN"
  bottom: "conv1"
  top: "norm1"
  lrn_param {
    local_size: 5
    alpha: 0.0001
    beta: 0.75
  }
}
layer {
  name: "pool1"
  type: "Pooling"
  bottom: "norm1"
  top: "pool1"
  pooling_param {
    pool: MAX
    kernel_size: 3
    stride: 2
  }
}
layer {
  name: "conv2"
  type: "Convolution"
  bottom: "pool1"
  top: "conv2"
  param {
    lr_mult: 1
    decay_mult: 1
  }
  param {
    lr_mult: 2
    decay_mult: 0
  }
  convolution_param {
    num_output: 256
    pad: 2
    kernel_size: 5
    group: 2
    weight_filler {
      type: "gaussian"
      std: 0.01
    }
    bias_filler {
      type: "constant"
      value: 0.1
    }
  }
}
layer {
  name: "relu2"
  type: "ReLU"
  bottom: "conv2"
  top: "conv2"
}
layer {
  name: "norm2"
  type: "LRN"
  bottom: "conv2"
  top: "norm2"
  lrn_param {
    local_size: 5
    alpha: 0.0001
    beta: 0.75
  }
}
layer {
  name: "pool2"
  type: "Pooling"
  bottom: "norm2"
  top: "pool2"
  pooling_param {
    pool: MAX
    kernel_size: 3
    stride: 2
  }
}
layer {
  name: "conv3"
  type: "Convolution"
  bottom: "pool2"
  top: "conv3"
  param {
    lr_mult: 1
    decay_mult: 1
  }
  param {
    lr_mult: 2
    decay_mult: 0
  }
  convolution_param {
    num_output: 384
    pad: 1
    kernel_size: 3
    weight_filler {
      type: "gaussian"
      std: 0.01
    }
    bias_filler {
      type: "constant"
      value: 0
    }
  }
}
layer {
  name: "relu3"
  type: "ReLU"
  bottom: "conv3"
  top: "conv3"
}
layer {
  name: "conv4"
  type: "Convolution"
  bottom: "conv3"
  top: "conv4"
  param {
    lr_mult: 1
    decay_mult: 1
  }
  param {
    lr_mult: 2
    decay_mult: 0
  }
  convolution_param {
    num_output: 384
    pad: 1
    kernel_size: 3
    group: 2
    weight_filler {
      type: "gaussian"
      std: 0.01
    }
    bias_filler {
      type: "constant"
      value: 0.1
    }
  }
}
layer {
  name: "relu4"
  type: "ReLU"
  bottom: "conv4"
  top: "conv4"
}
layer {
  name: "conv5"
  type: "Convolution"
  bottom: "conv4"
  top: "conv5"
  param {
    lr_mult: 1
    decay_mult: 1
  }
  param {
    lr_mult: 2
    decay_mult: 0
  }
  convolution_param {
    num_output: 256
    pad: 1
    kernel_size: 3
    group: 2
    weight_filler {
      type: "gaussian"
      std: 0.01
    }
    bias_filler {
      type: "constant"
      value: 0.1
    }
  }
}
layer {
  name: "relu5"
  type: "ReLU"
  bottom: "conv5"
  top: "conv5"
}
layer {
  name: "pool5"
  type: "Pooling"
  bottom: "conv5"
  top: "pool5"
  pooling_param {
    pool: MAX
    kernel_size: 3
    stride: 2
  }
}
layer {
  name: "fc6"
  type: "InnerProduct"
  bottom: "pool5"
  top: "fc6"
  param {
    lr_mult: 1
    decay_mult: 1
  }
  param {
    lr_mult: 2
    decay_mult: 0
  }
  inner_product_param {
    num_output: 4096
    weight_filler {
      type: "gaussian"
      std: 0.005
    }
    bias_filler {
      type: "constant"
      value: 0.1
    }
  }
}
layer {
  name: "relu6"
  type: "ReLU"
  bottom: "fc6"
  top: "fc6"
}
layer {
  name: "drop6"
  type: "Dropout"
  bottom: "fc6"
  top: "fc6"
  dropout_param {
    dropout_ratio: 0.5
  }
}
layer {
  name: "fc7"
  type: "InnerProduct"
  bottom: "fc6"
  top: "fc7"
  param {
    lr_mult: 1
    decay_mult: 1
  }
  param {
    lr_mult: 2
    decay_mult: 0
  }
  inner_product_param {
    num_output: 4096
    weight_filler {
      type: "gaussian"
      std: 0.005
    }
    bias_filler {
      type: "constant"
      value: 0.1
    }
  }
}
layer {
  name: "relu7"
  type: "ReLU"
  bottom: "fc7"
  top: "fc7"
}
layer {
  name: "drop7"
  type: "Dropout"
  bottom: "fc7"
  top: "fc7"
  dropout_param {
    dropout_ratio: 0.5
  }
}
layer {
  name: "fc8_plantvillage"
  type: "InnerProduct"
  bottom: "fc7"
  top: "fc8_plantvillage"
  param {
    lr_mult: 1
    decay_mult: 1
  }
  param {
    lr_mult: 2
    decay_mult: 0
  }
  inner_product_param {
    num_output: 38
    weight_filler {
      type: "gaussian"
      std: 0.01
    }
    bias_filler {
      type: "constant"
      value: 0
    }
  }
}
layer {
  name: "prob"
  type: "Softmax"
  bottom: "fc8_plantvillage"
  top: "prob"
  include {
    phase: TEST
  }
}
layer {
  name: "hdf5out"
  type: "HDF5Output"
  bottom: "prob"
  bottom: "label"
  include {
    phase: TEST
  }
  hdf5_output_param {
    file_name: "hdf5_dumps/iter_6500.h5"
  }
}
layer {
  name: "loss"
  type: "SoftmaxWithLoss"
  bottom: "fc8_plantvillage"
  bottom: "label"
  top: "loss"
}
layer {
  name: "accuracy"
  type: "Accuracy"
  bottom: "fc8_plantvillage"
  bottom: "label"
  top: "accuracy"
  include {
    phase: TEST
  }
}
I0403 14:48:39.786522  1991 layer_factory.hpp:77] Creating layer data
I0403 14:48:39.787190  1991 net.cpp:91] Creating Layer data
I0403 14:48:39.787233  1991 net.cpp:399] data -> data
I0403 14:48:39.787292  1991 net.cpp:399] data -> label
I0403 14:48:39.787328  1991 data_transformer.cpp:25] Loading mean file from: /home/mohanty/data/final_dataset/lmdb/color-60-40/mean.binaryproto
I0403 14:48:39.790026  1994 db_lmdb.cpp:38] Opened lmdb /home/mohanty/data/final_dataset/lmdb/color-60-40/test_db
I0403 14:48:39.802099  1991 data_layer.cpp:41] output data size: 100,3,227,227
I0403 14:48:39.925278  1991 net.cpp:141] Setting up data
I0403 14:48:39.925386  1991 net.cpp:148] Top shape: 100 3 227 227 (15458700)
I0403 14:48:39.925410  1991 net.cpp:148] Top shape: 100 (100)
I0403 14:48:39.925427  1991 net.cpp:156] Memory required for data: 61835200
I0403 14:48:39.925468  1991 layer_factory.hpp:77] Creating layer label_data_1_split
I0403 14:48:39.925494  1991 net.cpp:91] Creating Layer label_data_1_split
I0403 14:48:39.925513  1991 net.cpp:425] label_data_1_split <- label
I0403 14:48:39.925559  1991 net.cpp:399] label_data_1_split -> label_data_1_split_0
I0403 14:48:39.925586  1991 net.cpp:399] label_data_1_split -> label_data_1_split_1
I0403 14:48:39.925607  1991 net.cpp:399] label_data_1_split -> label_data_1_split_2
I0403 14:48:39.925673  1991 net.cpp:141] Setting up label_data_1_split
I0403 14:48:39.925696  1991 net.cpp:148] Top shape: 100 (100)
I0403 14:48:39.925714  1991 net.cpp:148] Top shape: 100 (100)
I0403 14:48:39.925729  1991 net.cpp:148] Top shape: 100 (100)
I0403 14:48:39.925745  1991 net.cpp:156] Memory required for data: 61836400
I0403 14:48:39.925760  1991 layer_factory.hpp:77] Creating layer conv1
I0403 14:48:39.925792  1991 net.cpp:91] Creating Layer conv1
I0403 14:48:39.925811  1991 net.cpp:425] conv1 <- data
I0403 14:48:39.925830  1991 net.cpp:399] conv1 -> conv1
I0403 14:48:40.068644  1991 net.cpp:141] Setting up conv1
I0403 14:48:40.068711  1991 net.cpp:148] Top shape: 100 96 55 55 (29040000)
I0403 14:48:40.068729  1991 net.cpp:156] Memory required for data: 177996400
I0403 14:48:40.068763  1991 layer_factory.hpp:77] Creating layer relu1
I0403 14:48:40.068790  1991 net.cpp:91] Creating Layer relu1
I0403 14:48:40.068809  1991 net.cpp:425] relu1 <- conv1
I0403 14:48:40.068827  1991 net.cpp:386] relu1 -> conv1 (in-place)
I0403 14:48:40.069095  1991 net.cpp:141] Setting up relu1
I0403 14:48:40.069121  1991 net.cpp:148] Top shape: 100 96 55 55 (29040000)
I0403 14:48:40.069136  1991 net.cpp:156] Memory required for data: 294156400
I0403 14:48:40.069182  1991 layer_factory.hpp:77] Creating layer norm1
I0403 14:48:40.069212  1991 net.cpp:91] Creating Layer norm1
I0403 14:48:40.069231  1991 net.cpp:425] norm1 <- conv1
I0403 14:48:40.069248  1991 net.cpp:399] norm1 -> norm1
I0403 14:48:40.069551  1991 net.cpp:141] Setting up norm1
I0403 14:48:40.069578  1991 net.cpp:148] Top shape: 100 96 55 55 (29040000)
I0403 14:48:40.069593  1991 net.cpp:156] Memory required for data: 410316400
I0403 14:48:40.069608  1991 layer_factory.hpp:77] Creating layer pool1
I0403 14:48:40.069633  1991 net.cpp:91] Creating Layer pool1
I0403 14:48:40.069648  1991 net.cpp:425] pool1 <- norm1
I0403 14:48:40.069667  1991 net.cpp:399] pool1 -> pool1
I0403 14:48:40.069730  1991 net.cpp:141] Setting up pool1
I0403 14:48:40.069753  1991 net.cpp:148] Top shape: 100 96 27 27 (6998400)
I0403 14:48:40.069768  1991 net.cpp:156] Memory required for data: 438310000
I0403 14:48:40.069782  1991 layer_factory.hpp:77] Creating layer conv2
I0403 14:48:40.069807  1991 net.cpp:91] Creating Layer conv2
I0403 14:48:40.069821  1991 net.cpp:425] conv2 <- pool1
I0403 14:48:40.069839  1991 net.cpp:399] conv2 -> conv2
I0403 14:48:40.084244  1991 net.cpp:141] Setting up conv2
I0403 14:48:40.084285  1991 net.cpp:148] Top shape: 100 256 27 27 (18662400)
I0403 14:48:40.084305  1991 net.cpp:156] Memory required for data: 512959600
I0403 14:48:40.084326  1991 layer_factory.hpp:77] Creating layer relu2
I0403 14:48:40.084345  1991 net.cpp:91] Creating Layer relu2
I0403 14:48:40.084362  1991 net.cpp:425] relu2 <- conv2
I0403 14:48:40.084380  1991 net.cpp:386] relu2 -> conv2 (in-place)
I0403 14:48:40.084640  1991 net.cpp:141] Setting up relu2
I0403 14:48:40.084667  1991 net.cpp:148] Top shape: 100 256 27 27 (18662400)
I0403 14:48:40.084682  1991 net.cpp:156] Memory required for data: 587609200
I0403 14:48:40.084697  1991 layer_factory.hpp:77] Creating layer norm2
I0403 14:48:40.084717  1991 net.cpp:91] Creating Layer norm2
I0403 14:48:40.084733  1991 net.cpp:425] norm2 <- conv2
I0403 14:48:40.084751  1991 net.cpp:399] norm2 -> norm2
I0403 14:48:40.084926  1991 net.cpp:141] Setting up norm2
I0403 14:48:40.084951  1991 net.cpp:148] Top shape: 100 256 27 27 (18662400)
I0403 14:48:40.084966  1991 net.cpp:156] Memory required for data: 662258800
I0403 14:48:40.084980  1991 layer_factory.hpp:77] Creating layer pool2
I0403 14:48:40.084998  1991 net.cpp:91] Creating Layer pool2
I0403 14:48:40.085014  1991 net.cpp:425] pool2 <- norm2
I0403 14:48:40.085031  1991 net.cpp:399] pool2 -> pool2
I0403 14:48:40.085078  1991 net.cpp:141] Setting up pool2
I0403 14:48:40.085100  1991 net.cpp:148] Top shape: 100 256 13 13 (4326400)
I0403 14:48:40.085114  1991 net.cpp:156] Memory required for data: 679564400
I0403 14:48:40.085129  1991 layer_factory.hpp:77] Creating layer conv3
I0403 14:48:40.085150  1991 net.cpp:91] Creating Layer conv3
I0403 14:48:40.085165  1991 net.cpp:425] conv3 <- pool2
I0403 14:48:40.085183  1991 net.cpp:399] conv3 -> conv3
I0403 14:48:40.122689  1991 net.cpp:141] Setting up conv3
I0403 14:48:40.122762  1991 net.cpp:148] Top shape: 100 384 13 13 (6489600)
I0403 14:48:40.122782  1991 net.cpp:156] Memory required for data: 705522800
I0403 14:48:40.122808  1991 layer_factory.hpp:77] Creating layer relu3
I0403 14:48:40.122833  1991 net.cpp:91] Creating Layer relu3
I0403 14:48:40.122851  1991 net.cpp:425] relu3 <- conv3
I0403 14:48:40.122871  1991 net.cpp:386] relu3 -> conv3 (in-place)
I0403 14:48:40.129003  1991 net.cpp:141] Setting up relu3
I0403 14:48:40.129045  1991 net.cpp:148] Top shape: 100 384 13 13 (6489600)
I0403 14:48:40.129063  1991 net.cpp:156] Memory required for data: 731481200
I0403 14:48:40.129081  1991 layer_factory.hpp:77] Creating layer conv4
I0403 14:48:40.129106  1991 net.cpp:91] Creating Layer conv4
I0403 14:48:40.129127  1991 net.cpp:425] conv4 <- conv3
I0403 14:48:40.129148  1991 net.cpp:399] conv4 -> conv4
I0403 14:48:40.158874  1991 net.cpp:141] Setting up conv4
I0403 14:48:40.158915  1991 net.cpp:148] Top shape: 100 384 13 13 (6489600)
I0403 14:48:40.158978  1991 net.cpp:156] Memory required for data: 757439600
I0403 14:48:40.159001  1991 layer_factory.hpp:77] Creating layer relu4
I0403 14:48:40.159026  1991 net.cpp:91] Creating Layer relu4
I0403 14:48:40.159045  1991 net.cpp:425] relu4 <- conv4
I0403 14:48:40.159065  1991 net.cpp:386] relu4 -> conv4 (in-place)
I0403 14:48:40.159351  1991 net.cpp:141] Setting up relu4
I0403 14:48:40.159379  1991 net.cpp:148] Top shape: 100 384 13 13 (6489600)
I0403 14:48:40.159394  1991 net.cpp:156] Memory required for data: 783398000
I0403 14:48:40.159410  1991 layer_factory.hpp:77] Creating layer conv5
I0403 14:48:40.159435  1991 net.cpp:91] Creating Layer conv5
I0403 14:48:40.159453  1991 net.cpp:425] conv5 <- conv4
I0403 14:48:40.159483  1991 net.cpp:399] conv5 -> conv5
I0403 14:48:40.179376  1991 net.cpp:141] Setting up conv5
I0403 14:48:40.179414  1991 net.cpp:148] Top shape: 100 256 13 13 (4326400)
I0403 14:48:40.179431  1991 net.cpp:156] Memory required for data: 800703600
I0403 14:48:40.179460  1991 layer_factory.hpp:77] Creating layer relu5
I0403 14:48:40.179479  1991 net.cpp:91] Creating Layer relu5
I0403 14:48:40.179496  1991 net.cpp:425] relu5 <- conv5
I0403 14:48:40.179512  1991 net.cpp:386] relu5 -> conv5 (in-place)
I0403 14:48:40.179791  1991 net.cpp:141] Setting up relu5
I0403 14:48:40.179817  1991 net.cpp:148] Top shape: 100 256 13 13 (4326400)
I0403 14:48:40.179833  1991 net.cpp:156] Memory required for data: 818009200
I0403 14:48:40.179848  1991 layer_factory.hpp:77] Creating layer pool5
I0403 14:48:40.179873  1991 net.cpp:91] Creating Layer pool5
I0403 14:48:40.179889  1991 net.cpp:425] pool5 <- conv5
I0403 14:48:40.179908  1991 net.cpp:399] pool5 -> pool5
I0403 14:48:40.179970  1991 net.cpp:141] Setting up pool5
I0403 14:48:40.179993  1991 net.cpp:148] Top shape: 100 256 6 6 (921600)
I0403 14:48:40.180008  1991 net.cpp:156] Memory required for data: 821695600
I0403 14:48:40.180023  1991 layer_factory.hpp:77] Creating layer fc6
I0403 14:48:40.180052  1991 net.cpp:91] Creating Layer fc6
I0403 14:48:40.180069  1991 net.cpp:425] fc6 <- pool5
I0403 14:48:40.180089  1991 net.cpp:399] fc6 -> fc6
I0403 14:48:41.738991  1991 net.cpp:141] Setting up fc6
I0403 14:48:41.739073  1991 net.cpp:148] Top shape: 100 4096 (409600)
I0403 14:48:41.739089  1991 net.cpp:156] Memory required for data: 823334000
I0403 14:48:41.739110  1991 layer_factory.hpp:77] Creating layer relu6
I0403 14:48:41.739131  1991 net.cpp:91] Creating Layer relu6
I0403 14:48:41.739150  1991 net.cpp:425] relu6 <- fc6
I0403 14:48:41.739172  1991 net.cpp:386] relu6 -> fc6 (in-place)
I0403 14:48:41.739394  1991 net.cpp:141] Setting up relu6
I0403 14:48:41.739419  1991 net.cpp:148] Top shape: 100 4096 (409600)
I0403 14:48:41.739446  1991 net.cpp:156] Memory required for data: 824972400
I0403 14:48:41.739461  1991 layer_factory.hpp:77] Creating layer drop6
I0403 14:48:41.739482  1991 net.cpp:91] Creating Layer drop6
I0403 14:48:41.739498  1991 net.cpp:425] drop6 <- fc6
I0403 14:48:41.739516  1991 net.cpp:386] drop6 -> fc6 (in-place)
I0403 14:48:41.739568  1991 net.cpp:141] Setting up drop6
I0403 14:48:41.739591  1991 net.cpp:148] Top shape: 100 4096 (409600)
I0403 14:48:41.739606  1991 net.cpp:156] Memory required for data: 826610800
I0403 14:48:41.739621  1991 layer_factory.hpp:77] Creating layer fc7
I0403 14:48:41.739641  1991 net.cpp:91] Creating Layer fc7
I0403 14:48:41.739660  1991 net.cpp:425] fc7 <- fc6
I0403 14:48:41.739678  1991 net.cpp:399] fc7 -> fc7
I0403 14:48:42.427259  1991 net.cpp:141] Setting up fc7
I0403 14:48:42.427311  1991 net.cpp:148] Top shape: 100 4096 (409600)
I0403 14:48:42.427328  1991 net.cpp:156] Memory required for data: 828249200
I0403 14:48:42.427350  1991 layer_factory.hpp:77] Creating layer relu7
I0403 14:48:42.427374  1991 net.cpp:91] Creating Layer relu7
I0403 14:48:42.427391  1991 net.cpp:425] relu7 <- fc7
I0403 14:48:42.427409  1991 net.cpp:386] relu7 -> fc7 (in-place)
I0403 14:48:42.427822  1991 net.cpp:141] Setting up relu7
I0403 14:48:42.427848  1991 net.cpp:148] Top shape: 100 4096 (409600)
I0403 14:48:42.427886  1991 net.cpp:156] Memory required for data: 829887600
I0403 14:48:42.427902  1991 layer_factory.hpp:77] Creating layer drop7
I0403 14:48:42.427923  1991 net.cpp:91] Creating Layer drop7
I0403 14:48:42.427940  1991 net.cpp:425] drop7 <- fc7
I0403 14:48:42.427958  1991 net.cpp:386] drop7 -> fc7 (in-place)
I0403 14:48:42.428000  1991 net.cpp:141] Setting up drop7
I0403 14:48:42.428023  1991 net.cpp:148] Top shape: 100 4096 (409600)
I0403 14:48:42.428037  1991 net.cpp:156] Memory required for data: 831526000
I0403 14:48:42.428051  1991 layer_factory.hpp:77] Creating layer fc8_plantvillage
I0403 14:48:42.428071  1991 net.cpp:91] Creating Layer fc8_plantvillage
I0403 14:48:42.428086  1991 net.cpp:425] fc8_plantvillage <- fc7
I0403 14:48:42.428104  1991 net.cpp:399] fc8_plantvillage -> fc8_plantvillage
I0403 14:48:42.434880  1991 net.cpp:141] Setting up fc8_plantvillage
I0403 14:48:42.434912  1991 net.cpp:148] Top shape: 100 38 (3800)
I0403 14:48:42.434929  1991 net.cpp:156] Memory required for data: 831541200
I0403 14:48:42.434948  1991 layer_factory.hpp:77] Creating layer fc8_plantvillage_fc8_plantvillage_0_split
I0403 14:48:42.434967  1991 net.cpp:91] Creating Layer fc8_plantvillage_fc8_plantvillage_0_split
I0403 14:48:42.434983  1991 net.cpp:425] fc8_plantvillage_fc8_plantvillage_0_split <- fc8_plantvillage
I0403 14:48:42.434998  1991 net.cpp:399] fc8_plantvillage_fc8_plantvillage_0_split -> fc8_plantvillage_fc8_plantvillage_0_split_0
I0403 14:48:42.435019  1991 net.cpp:399] fc8_plantvillage_fc8_plantvillage_0_split -> fc8_plantvillage_fc8_plantvillage_0_split_1
I0403 14:48:42.435039  1991 net.cpp:399] fc8_plantvillage_fc8_plantvillage_0_split -> fc8_plantvillage_fc8_plantvillage_0_split_2
I0403 14:48:42.435117  1991 net.cpp:141] Setting up fc8_plantvillage_fc8_plantvillage_0_split
I0403 14:48:42.435139  1991 net.cpp:148] Top shape: 100 38 (3800)
I0403 14:48:42.435155  1991 net.cpp:148] Top shape: 100 38 (3800)
I0403 14:48:42.435171  1991 net.cpp:148] Top shape: 100 38 (3800)
I0403 14:48:42.435184  1991 net.cpp:156] Memory required for data: 831586800
I0403 14:48:42.435199  1991 layer_factory.hpp:77] Creating layer prob
I0403 14:48:42.435217  1991 net.cpp:91] Creating Layer prob
I0403 14:48:42.435233  1991 net.cpp:425] prob <- fc8_plantvillage_fc8_plantvillage_0_split_0
I0403 14:48:42.435250  1991 net.cpp:399] prob -> prob
I0403 14:48:42.435482  1991 net.cpp:141] Setting up prob
I0403 14:48:42.435508  1991 net.cpp:148] Top shape: 100 38 (3800)
I0403 14:48:42.435523  1991 net.cpp:156] Memory required for data: 831602000
I0403 14:48:42.435537  1991 layer_factory.hpp:77] Creating layer hdf5out
I0403 14:48:42.435559  1991 net.cpp:91] Creating Layer hdf5out
I0403 14:48:42.435576  1991 net.cpp:425] hdf5out <- prob
I0403 14:48:42.435593  1991 net.cpp:425] hdf5out <- label_data_1_split_0
I0403 14:48:42.437747  1991 net.cpp:141] Setting up hdf5out
…
