…
I0403 14:46:22.737344  1943 net.cpp:313] The NetState phase (1) differed from the phase (0) specified by a rule in layer data
I0403 14:46:22.737639  1943 net.cpp:49] Initializing net from parameters: 
state {
  phase: TEST
}
layer {
  name: "data"
  type: "Data"
  top: "data"
  top: "label"
  include {
    phase: TEST
  }
  transform_param {
    crop_size: 227
    mean_file: "/home/mohanty/data/final_dataset/lmdb/color-60-40/mean.binaryproto"
  }
  data_param {
    source: "/home/mohanty/data/final_dataset/lmdb/color-60-40/test_db"
    batch_size: 100
    backend: LMDB
  }
}
layer {
  name: "conv1"
  type: "Convolution"
  bottom: "data"
  top: "conv1"
  param {
    lr_mult: 1
    decay_mult: 1
  }
  param {
    lr_mult: 2
    decay_mult: 0
  }
  convolution_param {
    num_output: 96
    kernel_size: 11
    stride: 4
    weight_filler {
      type: "gaussian"
      std: 0.01
    }
    bias_filler {
      type: "constant"
      value: 0
    }
  }
}
layer {
  name: "relu1"
  type: "ReLU"
  bottom: "conv1"
  top: "conv1"
}
layer {
  name: "norm1"
  type: "LRN"
  bottom: "conv1"
  top: "norm1"
  lrn_param {
    local_size: 5
    alpha: 0.0001
    beta: 0.75
  }
}
layer {
  name: "pool1"
  type: "Pooling"
  bottom: "norm1"
  top: "pool1"
  pooling_param {
    pool: MAX
    kernel_size: 3
    stride: 2
  }
}
layer {
  name: "conv2"
  type: "Convolution"
  bottom: "pool1"
  top: "conv2"
  param {
    lr_mult: 1
    decay_mult: 1
  }
  param {
    lr_mult: 2
    decay_mult: 0
  }
  convolution_param {
    num_output: 256
    pad: 2
    kernel_size: 5
    group: 2
    weight_filler {
      type: "gaussian"
      std: 0.01
    }
    bias_filler {
      type: "constant"
      value: 0.1
    }
  }
}
layer {
  name: "relu2"
  type: "ReLU"
  bottom: "conv2"
  top: "conv2"
}
layer {
  name: "norm2"
  type: "LRN"
  bottom: "conv2"
  top: "norm2"
  lrn_param {
    local_size: 5
    alpha: 0.0001
    beta: 0.75
  }
}
layer {
  name: "pool2"
  type: "Pooling"
  bottom: "norm2"
  top: "pool2"
  pooling_param {
    pool: MAX
    kernel_size: 3
    stride: 2
  }
}
layer {
  name: "conv3"
  type: "Convolution"
  bottom: "pool2"
  top: "conv3"
  param {
    lr_mult: 1
    decay_mult: 1
  }
  param {
    lr_mult: 2
    decay_mult: 0
  }
  convolution_param {
    num_output: 384
    pad: 1
    kernel_size: 3
    weight_filler {
      type: "gaussian"
      std: 0.01
    }
    bias_filler {
      type: "constant"
      value: 0
    }
  }
}
layer {
  name: "relu3"
  type: "ReLU"
  bottom: "conv3"
  top: "conv3"
}
layer {
  name: "conv4"
  type: "Convolution"
  bottom: "conv3"
  top: "conv4"
  param {
    lr_mult: 1
    decay_mult: 1
  }
  param {
    lr_mult: 2
    decay_mult: 0
  }
  convolution_param {
    num_output: 384
    pad: 1
    kernel_size: 3
    group: 2
    weight_filler {
      type: "gaussian"
      std: 0.01
    }
    bias_filler {
      type: "constant"
      value: 0.1
    }
  }
}
layer {
  name: "relu4"
  type: "ReLU"
  bottom: "conv4"
  top: "conv4"
}
layer {
  name: "conv5"
  type: "Convolution"
  bottom: "conv4"
  top: "conv5"
  param {
    lr_mult: 1
    decay_mult: 1
  }
  param {
    lr_mult: 2
    decay_mult: 0
  }
  convolution_param {
    num_output: 256
    pad: 1
    kernel_size: 3
    group: 2
    weight_filler {
      type: "gaussian"
      std: 0.01
    }
    bias_filler {
      type: "constant"
      value: 0.1
    }
  }
}
layer {
  name: "relu5"
  type: "ReLU"
  bottom: "conv5"
  top: "conv5"
}
layer {
  name: "pool5"
  type: "Pooling"
  bottom: "conv5"
  top: "pool5"
  pooling_param {
    pool: MAX
    kernel_size: 3
    stride: 2
  }
}
layer {
  name: "fc6"
  type: "InnerProduct"
  bottom: "pool5"
  top: "fc6"
  param {
    lr_mult: 1
    decay_mult: 1
  }
  param {
    lr_mult: 2
    decay_mult: 0
  }
  inner_product_param {
    num_output: 4096
    weight_filler {
      type: "gaussian"
      std: 0.005
    }
    bias_filler {
      type: "constant"
      value: 0.1
    }
  }
}
layer {
  name: "relu6"
  type: "ReLU"
  bottom: "fc6"
  top: "fc6"
}
layer {
  name: "drop6"
  type: "Dropout"
  bottom: "fc6"
  top: "fc6"
  dropout_param {
    dropout_ratio: 0.5
  }
}
layer {
  name: "fc7"
  type: "InnerProduct"
  bottom: "fc6"
  top: "fc7"
  param {
    lr_mult: 1
    decay_mult: 1
  }
  param {
    lr_mult: 2
    decay_mult: 0
  }
  inner_product_param {
    num_output: 4096
    weight_filler {
      type: "gaussian"
      std: 0.005
    }
    bias_filler {
      type: "constant"
      value: 0.1
    }
  }
}
layer {
  name: "relu7"
  type: "ReLU"
  bottom: "fc7"
  top: "fc7"
}
layer {
  name: "drop7"
  type: "Dropout"
  bottom: "fc7"
  top: "fc7"
  dropout_param {
    dropout_ratio: 0.5
  }
}
layer {
  name: "fc8_plantvillage"
  type: "InnerProduct"
  bottom: "fc7"
  top: "fc8_plantvillage"
  param {
    lr_mult: 1
    decay_mult: 1
  }
  param {
    lr_mult: 2
    decay_mult: 0
  }
  inner_product_param {
    num_output: 38
    weight_filler {
      type: "gaussian"
      std: 0.01
    }
    bias_filler {
      type: "constant"
      value: 0
    }
  }
}
layer {
  name: "prob"
  type: "Softmax"
  bottom: "fc8_plantvillage"
  top: "prob"
  include {
    phase: TEST
  }
}
layer {
  name: "hdf5out"
  type: "HDF5Output"
  bottom: "prob"
  bottom: "label"
  include {
    phase: TEST
  }
  hdf5_output_param {
    file_name: "hdf5_dumps/iter_5525.h5"
  }
}
layer {
  name: "loss"
  type: "SoftmaxWithLoss"
  bottom: "fc8_plantvillage"
  bottom: "label"
  top: "loss"
}
layer {
  name: "accuracy"
  type: "Accuracy"
  bottom: "fc8_plantvillage"
  bottom: "label"
  top: "accuracy"
  include {
    phase: TEST
  }
}
I0403 14:46:22.738191  1943 layer_factory.hpp:77] Creating layer data
I0403 14:46:22.738848  1943 net.cpp:91] Creating Layer data
I0403 14:46:22.738883  1943 net.cpp:399] data -> data
I0403 14:46:22.738934  1943 net.cpp:399] data -> label
I0403 14:46:22.738973  1943 data_transformer.cpp:25] Loading mean file from: /home/mohanty/data/final_dataset/lmdb/color-60-40/mean.binaryproto
I0403 14:46:22.741787  1947 db_lmdb.cpp:38] Opened lmdb /home/mohanty/data/final_dataset/lmdb/color-60-40/test_db
I0403 14:46:22.753656  1943 data_layer.cpp:41] output data size: 100,3,227,227
I0403 14:46:22.877599  1943 net.cpp:141] Setting up data
I0403 14:46:22.877698  1943 net.cpp:148] Top shape: 100 3 227 227 (15458700)
I0403 14:46:22.877720  1943 net.cpp:148] Top shape: 100 (100)
I0403 14:46:22.877737  1943 net.cpp:156] Memory required for data: 61835200
I0403 14:46:22.877763  1943 layer_factory.hpp:77] Creating layer label_data_1_split
I0403 14:46:22.877787  1943 net.cpp:91] Creating Layer label_data_1_split
I0403 14:46:22.877805  1943 net.cpp:425] label_data_1_split <- label
I0403 14:46:22.877835  1943 net.cpp:399] label_data_1_split -> label_data_1_split_0
I0403 14:46:22.877861  1943 net.cpp:399] label_data_1_split -> label_data_1_split_1
I0403 14:46:22.877881  1943 net.cpp:399] label_data_1_split -> label_data_1_split_2
I0403 14:46:22.877943  1943 net.cpp:141] Setting up label_data_1_split
I0403 14:46:22.877965  1943 net.cpp:148] Top shape: 100 (100)
I0403 14:46:22.877982  1943 net.cpp:148] Top shape: 100 (100)
I0403 14:46:22.877998  1943 net.cpp:148] Top shape: 100 (100)
I0403 14:46:22.878011  1943 net.cpp:156] Memory required for data: 61836400
I0403 14:46:22.878026  1943 layer_factory.hpp:77] Creating layer conv1
I0403 14:46:22.878057  1943 net.cpp:91] Creating Layer conv1
I0403 14:46:22.878074  1943 net.cpp:425] conv1 <- data
I0403 14:46:22.878093  1943 net.cpp:399] conv1 -> conv1
I0403 14:46:23.028718  1943 net.cpp:141] Setting up conv1
I0403 14:46:23.028805  1943 net.cpp:148] Top shape: 100 96 55 55 (29040000)
I0403 14:46:23.028823  1943 net.cpp:156] Memory required for data: 177996400
I0403 14:46:23.028857  1943 layer_factory.hpp:77] Creating layer relu1
I0403 14:46:23.028887  1943 net.cpp:91] Creating Layer relu1
I0403 14:46:23.028908  1943 net.cpp:425] relu1 <- conv1
I0403 14:46:23.028928  1943 net.cpp:386] relu1 -> conv1 (in-place)
I0403 14:46:23.029201  1943 net.cpp:141] Setting up relu1
I0403 14:46:23.029230  1943 net.cpp:148] Top shape: 100 96 55 55 (29040000)
I0403 14:46:23.029247  1943 net.cpp:156] Memory required for data: 294156400
I0403 14:46:23.029300  1943 layer_factory.hpp:77] Creating layer norm1
I0403 14:46:23.029331  1943 net.cpp:91] Creating Layer norm1
I0403 14:46:23.029352  1943 net.cpp:425] norm1 <- conv1
I0403 14:46:23.029371  1943 net.cpp:399] norm1 -> norm1
I0403 14:46:23.029692  1943 net.cpp:141] Setting up norm1
I0403 14:46:23.029721  1943 net.cpp:148] Top shape: 100 96 55 55 (29040000)
I0403 14:46:23.029738  1943 net.cpp:156] Memory required for data: 410316400
I0403 14:46:23.029755  1943 layer_factory.hpp:77] Creating layer pool1
I0403 14:46:23.029779  1943 net.cpp:91] Creating Layer pool1
I0403 14:46:23.029798  1943 net.cpp:425] pool1 <- norm1
I0403 14:46:23.029817  1943 net.cpp:399] pool1 -> pool1
I0403 14:46:23.029886  1943 net.cpp:141] Setting up pool1
I0403 14:46:23.029913  1943 net.cpp:148] Top shape: 100 96 27 27 (6998400)
I0403 14:46:23.029938  1943 net.cpp:156] Memory required for data: 438310000
I0403 14:46:23.029956  1943 layer_factory.hpp:77] Creating layer conv2
I0403 14:46:23.029983  1943 net.cpp:91] Creating Layer conv2
I0403 14:46:23.030000  1943 net.cpp:425] conv2 <- pool1
I0403 14:46:23.030019  1943 net.cpp:399] conv2 -> conv2
I0403 14:46:23.045842  1943 net.cpp:141] Setting up conv2
I0403 14:46:23.045914  1943 net.cpp:148] Top shape: 100 256 27 27 (18662400)
I0403 14:46:23.045939  1943 net.cpp:156] Memory required for data: 512959600
I0403 14:46:23.045965  1943 layer_factory.hpp:77] Creating layer relu2
I0403 14:46:23.045990  1943 net.cpp:91] Creating Layer relu2
I0403 14:46:23.046007  1943 net.cpp:425] relu2 <- conv2
I0403 14:46:23.046028  1943 net.cpp:386] relu2 -> conv2 (in-place)
I0403 14:46:23.046325  1943 net.cpp:141] Setting up relu2
I0403 14:46:23.046356  1943 net.cpp:148] Top shape: 100 256 27 27 (18662400)
I0403 14:46:23.046373  1943 net.cpp:156] Memory required for data: 587609200
I0403 14:46:23.046389  1943 layer_factory.hpp:77] Creating layer norm2
I0403 14:46:23.046414  1943 net.cpp:91] Creating Layer norm2
I0403 14:46:23.046433  1943 net.cpp:425] norm2 <- conv2
I0403 14:46:23.046455  1943 net.cpp:399] norm2 -> norm2
I0403 14:46:23.046665  1943 net.cpp:141] Setting up norm2
I0403 14:46:23.046697  1943 net.cpp:148] Top shape: 100 256 27 27 (18662400)
I0403 14:46:23.046715  1943 net.cpp:156] Memory required for data: 662258800
I0403 14:46:23.046730  1943 layer_factory.hpp:77] Creating layer pool2
I0403 14:46:23.046749  1943 net.cpp:91] Creating Layer pool2
I0403 14:46:23.046766  1943 net.cpp:425] pool2 <- norm2
I0403 14:46:23.046787  1943 net.cpp:399] pool2 -> pool2
I0403 14:46:23.046843  1943 net.cpp:141] Setting up pool2
I0403 14:46:23.046867  1943 net.cpp:148] Top shape: 100 256 13 13 (4326400)
I0403 14:46:23.046882  1943 net.cpp:156] Memory required for data: 679564400
I0403 14:46:23.046898  1943 layer_factory.hpp:77] Creating layer conv3
I0403 14:46:23.046923  1943 net.cpp:91] Creating Layer conv3
I0403 14:46:23.046941  1943 net.cpp:425] conv3 <- pool2
I0403 14:46:23.046963  1943 net.cpp:399] conv3 -> conv3
I0403 14:46:23.089639  1943 net.cpp:141] Setting up conv3
I0403 14:46:23.089687  1943 net.cpp:148] Top shape: 100 384 13 13 (6489600)
I0403 14:46:23.089705  1943 net.cpp:156] Memory required for data: 705522800
I0403 14:46:23.089731  1943 layer_factory.hpp:77] Creating layer relu3
I0403 14:46:23.089762  1943 net.cpp:91] Creating Layer relu3
I0403 14:46:23.089781  1943 net.cpp:425] relu3 <- conv3
I0403 14:46:23.089800  1943 net.cpp:386] relu3 -> conv3 (in-place)
I0403 14:46:23.090085  1943 net.cpp:141] Setting up relu3
I0403 14:46:23.090116  1943 net.cpp:148] Top shape: 100 384 13 13 (6489600)
I0403 14:46:23.090133  1943 net.cpp:156] Memory required for data: 731481200
I0403 14:46:23.090150  1943 layer_factory.hpp:77] Creating layer conv4
I0403 14:46:23.090176  1943 net.cpp:91] Creating Layer conv4
I0403 14:46:23.090195  1943 net.cpp:425] conv4 <- conv3
I0403 14:46:23.090220  1943 net.cpp:399] conv4 -> conv4
I0403 14:46:23.120973  1943 net.cpp:141] Setting up conv4
I0403 14:46:23.121052  1943 net.cpp:148] Top shape: 100 384 13 13 (6489600)
I0403 14:46:23.121103  1943 net.cpp:156] Memory required for data: 757439600
I0403 14:46:23.121126  1943 layer_factory.hpp:77] Creating layer relu4
I0403 14:46:23.121152  1943 net.cpp:91] Creating Layer relu4
I0403 14:46:23.121171  1943 net.cpp:425] relu4 <- conv4
I0403 14:46:23.121191  1943 net.cpp:386] relu4 -> conv4 (in-place)
I0403 14:46:23.121495  1943 net.cpp:141] Setting up relu4
I0403 14:46:23.121523  1943 net.cpp:148] Top shape: 100 384 13 13 (6489600)
I0403 14:46:23.121543  1943 net.cpp:156] Memory required for data: 783398000
I0403 14:46:23.121561  1943 layer_factory.hpp:77] Creating layer conv5
I0403 14:46:23.121584  1943 net.cpp:91] Creating Layer conv5
I0403 14:46:23.121603  1943 net.cpp:425] conv5 <- conv4
I0403 14:46:23.121640  1943 net.cpp:399] conv5 -> conv5
I0403 14:46:23.142772  1943 net.cpp:141] Setting up conv5
I0403 14:46:23.142812  1943 net.cpp:148] Top shape: 100 256 13 13 (4326400)
I0403 14:46:23.142828  1943 net.cpp:156] Memory required for data: 800703600
I0403 14:46:23.142856  1943 layer_factory.hpp:77] Creating layer relu5
I0403 14:46:23.142877  1943 net.cpp:91] Creating Layer relu5
I0403 14:46:23.142894  1943 net.cpp:425] relu5 <- conv5
I0403 14:46:23.142915  1943 net.cpp:386] relu5 -> conv5 (in-place)
I0403 14:46:23.143214  1943 net.cpp:141] Setting up relu5
I0403 14:46:23.143246  1943 net.cpp:148] Top shape: 100 256 13 13 (4326400)
I0403 14:46:23.143265  1943 net.cpp:156] Memory required for data: 818009200
I0403 14:46:23.143293  1943 layer_factory.hpp:77] Creating layer pool5
I0403 14:46:23.143318  1943 net.cpp:91] Creating Layer pool5
I0403 14:46:23.143337  1943 net.cpp:425] pool5 <- conv5
I0403 14:46:23.143358  1943 net.cpp:399] pool5 -> pool5
I0403 14:46:23.143421  1943 net.cpp:141] Setting up pool5
I0403 14:46:23.143450  1943 net.cpp:148] Top shape: 100 256 6 6 (921600)
I0403 14:46:23.143467  1943 net.cpp:156] Memory required for data: 821695600
I0403 14:46:23.143483  1943 layer_factory.hpp:77] Creating layer fc6
I0403 14:46:23.143510  1943 net.cpp:91] Creating Layer fc6
I0403 14:46:23.143528  1943 net.cpp:425] fc6 <- pool5
I0403 14:46:23.143550  1943 net.cpp:399] fc6 -> fc6
I0403 14:46:24.703747  1943 net.cpp:141] Setting up fc6
I0403 14:46:24.703790  1943 net.cpp:148] Top shape: 100 4096 (409600)
I0403 14:46:24.703807  1943 net.cpp:156] Memory required for data: 823334000
I0403 14:46:24.703829  1943 layer_factory.hpp:77] Creating layer relu6
I0403 14:46:24.703850  1943 net.cpp:91] Creating Layer relu6
I0403 14:46:24.703867  1943 net.cpp:425] relu6 <- fc6
I0403 14:46:24.703887  1943 net.cpp:386] relu6 -> fc6 (in-place)
I0403 14:46:24.704097  1943 net.cpp:141] Setting up relu6
I0403 14:46:24.704124  1943 net.cpp:148] Top shape: 100 4096 (409600)
I0403 14:46:24.704140  1943 net.cpp:156] Memory required for data: 824972400
I0403 14:46:24.704155  1943 layer_factory.hpp:77] Creating layer drop6
I0403 14:46:24.704174  1943 net.cpp:91] Creating Layer drop6
I0403 14:46:24.704190  1943 net.cpp:425] drop6 <- fc6
I0403 14:46:24.704210  1943 net.cpp:386] drop6 -> fc6 (in-place)
I0403 14:46:24.704260  1943 net.cpp:141] Setting up drop6
I0403 14:46:24.704288  1943 net.cpp:148] Top shape: 100 4096 (409600)
I0403 14:46:24.704304  1943 net.cpp:156] Memory required for data: 826610800
I0403 14:46:24.704319  1943 layer_factory.hpp:77] Creating layer fc7
I0403 14:46:24.704341  1943 net.cpp:91] Creating Layer fc7
I0403 14:46:24.704358  1943 net.cpp:425] fc7 <- fc6
I0403 14:46:24.704380  1943 net.cpp:399] fc7 -> fc7
I0403 14:46:25.381530  1943 net.cpp:141] Setting up fc7
I0403 14:46:25.381602  1943 net.cpp:148] Top shape: 100 4096 (409600)
I0403 14:46:25.381618  1943 net.cpp:156] Memory required for data: 828249200
I0403 14:46:25.381638  1943 layer_factory.hpp:77] Creating layer relu7
I0403 14:46:25.381659  1943 net.cpp:91] Creating Layer relu7
I0403 14:46:25.381675  1943 net.cpp:425] relu7 <- fc7
I0403 14:46:25.381695  1943 net.cpp:386] relu7 -> fc7 (in-place)
I0403 14:46:25.382092  1943 net.cpp:141] Setting up relu7
I0403 14:46:25.382122  1943 net.cpp:148] Top shape: 100 4096 (409600)
I0403 14:46:25.382169  1943 net.cpp:156] Memory required for data: 829887600
I0403 14:46:25.382184  1943 layer_factory.hpp:77] Creating layer drop7
I0403 14:46:25.382203  1943 net.cpp:91] Creating Layer drop7
I0403 14:46:25.382218  1943 net.cpp:425] drop7 <- fc7
I0403 14:46:25.382236  1943 net.cpp:386] drop7 -> fc7 (in-place)
I0403 14:46:25.382289  1943 net.cpp:141] Setting up drop7
I0403 14:46:25.382313  1943 net.cpp:148] Top shape: 100 4096 (409600)
I0403 14:46:25.382328  1943 net.cpp:156] Memory required for data: 831526000
I0403 14:46:25.382341  1943 layer_factory.hpp:77] Creating layer fc8_plantvillage
I0403 14:46:25.382364  1943 net.cpp:91] Creating Layer fc8_plantvillage
I0403 14:46:25.382380  1943 net.cpp:425] fc8_plantvillage <- fc7
I0403 14:46:25.382398  1943 net.cpp:399] fc8_plantvillage -> fc8_plantvillage
I0403 14:46:25.388911  1943 net.cpp:141] Setting up fc8_plantvillage
I0403 14:46:25.388937  1943 net.cpp:148] Top shape: 100 38 (3800)
I0403 14:46:25.388952  1943 net.cpp:156] Memory required for data: 831541200
I0403 14:46:25.388970  1943 layer_factory.hpp:77] Creating layer fc8_plantvillage_fc8_plantvillage_0_split
I0403 14:46:25.388989  1943 net.cpp:91] Creating Layer fc8_plantvillage_fc8_plantvillage_0_split
I0403 14:46:25.389003  1943 net.cpp:425] fc8_plantvillage_fc8_plantvillage_0_split <- fc8_plantvillage
I0403 14:46:25.389024  1943 net.cpp:399] fc8_plantvillage_fc8_plantvillage_0_split -> fc8_plantvillage_fc8_plantvillage_0_split_0
I0403 14:46:25.389045  1943 net.cpp:399] fc8_plantvillage_fc8_plantvillage_0_split -> fc8_plantvillage_fc8_plantvillage_0_split_1
I0403 14:46:25.389065  1943 net.cpp:399] fc8_plantvillage_fc8_plantvillage_0_split -> fc8_plantvillage_fc8_plantvillage_0_split_2
I0403 14:46:25.389139  1943 net.cpp:141] Setting up fc8_plantvillage_fc8_plantvillage_0_split
I0403 14:46:25.389163  1943 net.cpp:148] Top shape: 100 38 (3800)
I0403 14:46:25.389178  1943 net.cpp:148] Top shape: 100 38 (3800)
I0403 14:46:25.389194  1943 net.cpp:148] Top shape: 100 38 (3800)
I0403 14:46:25.389207  1943 net.cpp:156] Memory required for data: 831586800
I0403 14:46:25.389221  1943 layer_factory.hpp:77] Creating layer prob
I0403 14:46:25.389241  1943 net.cpp:91] Creating Layer prob
I0403 14:46:25.389258  1943 net.cpp:425] prob <- fc8_plantvillage_fc8_plantvillage_0_split_0
I0403 14:46:25.389297  1943 net.cpp:399] prob -> prob
I0403 14:46:25.389518  1943 net.cpp:141] Setting up prob
I0403 14:46:25.389547  1943 net.cpp:148] Top shape: 100 38 (3800)
I0403 14:46:25.389564  1943 net.cpp:156] Memory required for data: 831602000
I0403 14:46:25.389578  1943 layer_factory.hpp:77] Creating layer hdf5out
I0403 14:46:25.389597  1943 net.cpp:91] Creating Layer hdf5out
I0403 14:46:25.389613  1943 net.cpp:425] hdf5out <- prob
I0403 14:46:25.389636  1943 net.cpp:425] hdf5out <- label_data_1_split_0
I0403 14:46:25.391917  1943 net.cpp:141] Setting up hdf5out
…
