…
I0403 14:50:56.692986  2056 net.cpp:313] The NetState phase (1) differed from the phase (0) specified by a rule in layer data
I0403 14:50:56.693267  2056 net.cpp:49] Initializing net from parameters: 
state {
  phase: TEST
}
layer {
  name: "data"
  type: "Data"
  top: "data"
  top: "label"
  include {
    phase: TEST
  }
  transform_param {
    crop_size: 227
    mean_file: "/home/mohanty/data/final_dataset/lmdb/color-60-40/mean.binaryproto"
  }
  data_param {
    source: "/home/mohanty/data/final_dataset/lmdb/color-60-40/test_db"
    batch_size: 100
    backend: LMDB
  }
}
layer {
  name: "conv1"
  type: "Convolution"
  bottom: "data"
  top: "conv1"
  param {
    lr_mult: 1
    decay_mult: 1
  }
  param {
    lr_mult: 2
    decay_mult: 0
  }
  convolution_param {
    num_output: 96
    kernel_size: 11
    stride: 4
    weight_filler {
      type: "gaussian"
      std: 0.01
    }
    bias_filler {
      type: "constant"
      value: 0
    }
  }
}
layer {
  name: "relu1"
  type: "ReLU"
  bottom: "conv1"
  top: "conv1"
}
layer {
  name: "norm1"
  type: "LRN"
  bottom: "conv1"
  top: "norm1"
  lrn_param {
    local_size: 5
    alpha: 0.0001
    beta: 0.75
  }
}
layer {
  name: "pool1"
  type: "Pooling"
  bottom: "norm1"
  top: "pool1"
  pooling_param {
    pool: MAX
    kernel_size: 3
    stride: 2
  }
}
layer {
  name: "conv2"
  type: "Convolution"
  bottom: "pool1"
  top: "conv2"
  param {
    lr_mult: 1
    decay_mult: 1
  }
  param {
    lr_mult: 2
    decay_mult: 0
  }
  convolution_param {
    num_output: 256
    pad: 2
    kernel_size: 5
    group: 2
    weight_filler {
      type: "gaussian"
      std: 0.01
    }
    bias_filler {
      type: "constant"
      value: 0.1
    }
  }
}
layer {
  name: "relu2"
  type: "ReLU"
  bottom: "conv2"
  top: "conv2"
}
layer {
  name: "norm2"
  type: "LRN"
  bottom: "conv2"
  top: "norm2"
  lrn_param {
    local_size: 5
    alpha: 0.0001
    beta: 0.75
  }
}
layer {
  name: "pool2"
  type: "Pooling"
  bottom: "norm2"
  top: "pool2"
  pooling_param {
    pool: MAX
    kernel_size: 3
    stride: 2
  }
}
layer {
  name: "conv3"
  type: "Convolution"
  bottom: "pool2"
  top: "conv3"
  param {
    lr_mult: 1
    decay_mult: 1
  }
  param {
    lr_mult: 2
    decay_mult: 0
  }
  convolution_param {
    num_output: 384
    pad: 1
    kernel_size: 3
    weight_filler {
      type: "gaussian"
      std: 0.01
    }
    bias_filler {
      type: "constant"
      value: 0
    }
  }
}
layer {
  name: "relu3"
  type: "ReLU"
  bottom: "conv3"
  top: "conv3"
}
layer {
  name: "conv4"
  type: "Convolution"
  bottom: "conv3"
  top: "conv4"
  param {
    lr_mult: 1
    decay_mult: 1
  }
  param {
    lr_mult: 2
    decay_mult: 0
  }
  convolution_param {
    num_output: 384
    pad: 1
    kernel_size: 3
    group: 2
    weight_filler {
      type: "gaussian"
      std: 0.01
    }
    bias_filler {
      type: "constant"
      value: 0.1
    }
  }
}
layer {
  name: "relu4"
  type: "ReLU"
  bottom: "conv4"
  top: "conv4"
}
layer {
  name: "conv5"
  type: "Convolution"
  bottom: "conv4"
  top: "conv5"
  param {
    lr_mult: 1
    decay_mult: 1
  }
  param {
    lr_mult: 2
    decay_mult: 0
  }
  convolution_param {
    num_output: 256
    pad: 1
    kernel_size: 3
    group: 2
    weight_filler {
      type: "gaussian"
      std: 0.01
    }
    bias_filler {
      type: "constant"
      value: 0.1
    }
  }
}
layer {
  name: "relu5"
  type: "ReLU"
  bottom: "conv5"
  top: "conv5"
}
layer {
  name: "pool5"
  type: "Pooling"
  bottom: "conv5"
  top: "pool5"
  pooling_param {
    pool: MAX
    kernel_size: 3
    stride: 2
  }
}
layer {
  name: "fc6"
  type: "InnerProduct"
  bottom: "pool5"
  top: "fc6"
  param {
    lr_mult: 1
    decay_mult: 1
  }
  param {
    lr_mult: 2
    decay_mult: 0
  }
  inner_product_param {
    num_output: 4096
    weight_filler {
      type: "gaussian"
      std: 0.005
    }
    bias_filler {
      type: "constant"
      value: 0.1
    }
  }
}
layer {
  name: "relu6"
  type: "ReLU"
  bottom: "fc6"
  top: "fc6"
}
layer {
  name: "drop6"
  type: "Dropout"
  bottom: "fc6"
  top: "fc6"
  dropout_param {
    dropout_ratio: 0.5
  }
}
layer {
  name: "fc7"
  type: "InnerProduct"
  bottom: "fc6"
  top: "fc7"
  param {
    lr_mult: 1
    decay_mult: 1
  }
  param {
    lr_mult: 2
    decay_mult: 0
  }
  inner_product_param {
    num_output: 4096
    weight_filler {
      type: "gaussian"
      std: 0.005
    }
    bias_filler {
      type: "constant"
      value: 0.1
    }
  }
}
layer {
  name: "relu7"
  type: "ReLU"
  bottom: "fc7"
  top: "fc7"
}
layer {
  name: "drop7"
  type: "Dropout"
  bottom: "fc7"
  top: "fc7"
  dropout_param {
    dropout_ratio: 0.5
  }
}
layer {
  name: "fc8_plantvillage"
  type: "InnerProduct"
  bottom: "fc7"
  top: "fc8_plantvillage"
  param {
    lr_mult: 1
    decay_mult: 1
  }
  param {
    lr_mult: 2
    decay_mult: 0
  }
  inner_product_param {
    num_output: 38
    weight_filler {
      type: "gaussian"
      std: 0.01
    }
    bias_filler {
      type: "constant"
      value: 0
    }
  }
}
layer {
  name: "prob"
  type: "Softmax"
  bottom: "fc8_plantvillage"
  top: "prob"
  include {
    phase: TEST
  }
}
layer {
  name: "hdf5out"
  type: "HDF5Output"
  bottom: "prob"
  bottom: "label"
  include {
    phase: TEST
  }
  hdf5_output_param {
    file_name: "hdf5_dumps/iter_7475.h5"
  }
}
layer {
  name: "loss"
  type: "SoftmaxWithLoss"
  bottom: "fc8_plantvillage"
  bottom: "label"
  top: "loss"
}
layer {
  name: "accuracy"
  type: "Accuracy"
  bottom: "fc8_plantvillage"
  bottom: "label"
  top: "accuracy"
  include {
    phase: TEST
  }
}
I0403 14:50:56.693863  2056 layer_factory.hpp:77] Creating layer data
I0403 14:50:56.694510  2056 net.cpp:91] Creating Layer data
I0403 14:50:56.694541  2056 net.cpp:399] data -> data
I0403 14:50:56.694593  2056 net.cpp:399] data -> label
I0403 14:50:56.694631  2056 data_transformer.cpp:25] Loading mean file from: /home/mohanty/data/final_dataset/lmdb/color-60-40/mean.binaryproto
I0403 14:50:56.697482  2061 db_lmdb.cpp:38] Opened lmdb /home/mohanty/data/final_dataset/lmdb/color-60-40/test_db
I0403 14:50:56.708982  2056 data_layer.cpp:41] output data size: 100,3,227,227
I0403 14:50:56.829329  2056 net.cpp:141] Setting up data
I0403 14:50:56.829433  2056 net.cpp:148] Top shape: 100 3 227 227 (15458700)
I0403 14:50:56.829457  2056 net.cpp:148] Top shape: 100 (100)
I0403 14:50:56.829471  2056 net.cpp:156] Memory required for data: 61835200
I0403 14:50:56.829498  2056 layer_factory.hpp:77] Creating layer label_data_1_split
I0403 14:50:56.829522  2056 net.cpp:91] Creating Layer label_data_1_split
I0403 14:50:56.829540  2056 net.cpp:425] label_data_1_split <- label
I0403 14:50:56.829571  2056 net.cpp:399] label_data_1_split -> label_data_1_split_0
I0403 14:50:56.829596  2056 net.cpp:399] label_data_1_split -> label_data_1_split_1
I0403 14:50:56.829617  2056 net.cpp:399] label_data_1_split -> label_data_1_split_2
I0403 14:50:56.829680  2056 net.cpp:141] Setting up label_data_1_split
I0403 14:50:56.829702  2056 net.cpp:148] Top shape: 100 (100)
I0403 14:50:56.829720  2056 net.cpp:148] Top shape: 100 (100)
I0403 14:50:56.829735  2056 net.cpp:148] Top shape: 100 (100)
I0403 14:50:56.829749  2056 net.cpp:156] Memory required for data: 61836400
I0403 14:50:56.829763  2056 layer_factory.hpp:77] Creating layer conv1
I0403 14:50:56.829794  2056 net.cpp:91] Creating Layer conv1
I0403 14:50:56.829813  2056 net.cpp:425] conv1 <- data
I0403 14:50:56.829831  2056 net.cpp:399] conv1 -> conv1
I0403 14:50:56.973958  2056 net.cpp:141] Setting up conv1
I0403 14:50:56.974050  2056 net.cpp:148] Top shape: 100 96 55 55 (29040000)
I0403 14:50:56.974067  2056 net.cpp:156] Memory required for data: 177996400
I0403 14:50:56.974099  2056 layer_factory.hpp:77] Creating layer relu1
I0403 14:50:56.974128  2056 net.cpp:91] Creating Layer relu1
I0403 14:50:56.974148  2056 net.cpp:425] relu1 <- conv1
I0403 14:50:56.974167  2056 net.cpp:386] relu1 -> conv1 (in-place)
I0403 14:50:56.974442  2056 net.cpp:141] Setting up relu1
I0403 14:50:56.974470  2056 net.cpp:148] Top shape: 100 96 55 55 (29040000)
I0403 14:50:56.974486  2056 net.cpp:156] Memory required for data: 294156400
I0403 14:50:56.974536  2056 layer_factory.hpp:77] Creating layer norm1
I0403 14:50:56.974566  2056 net.cpp:91] Creating Layer norm1
I0403 14:50:56.974586  2056 net.cpp:425] norm1 <- conv1
I0403 14:50:56.974606  2056 net.cpp:399] norm1 -> norm1
I0403 14:50:56.974931  2056 net.cpp:141] Setting up norm1
I0403 14:50:56.974961  2056 net.cpp:148] Top shape: 100 96 55 55 (29040000)
I0403 14:50:56.974977  2056 net.cpp:156] Memory required for data: 410316400
I0403 14:50:56.974992  2056 layer_factory.hpp:77] Creating layer pool1
I0403 14:50:56.975016  2056 net.cpp:91] Creating Layer pool1
I0403 14:50:56.975035  2056 net.cpp:425] pool1 <- norm1
I0403 14:50:56.975054  2056 net.cpp:399] pool1 -> pool1
I0403 14:50:56.975123  2056 net.cpp:141] Setting up pool1
I0403 14:50:56.975148  2056 net.cpp:148] Top shape: 100 96 27 27 (6998400)
I0403 14:50:56.975163  2056 net.cpp:156] Memory required for data: 438310000
I0403 14:50:56.975179  2056 layer_factory.hpp:77] Creating layer conv2
I0403 14:50:56.975205  2056 net.cpp:91] Creating Layer conv2
I0403 14:50:56.975222  2056 net.cpp:425] conv2 <- pool1
I0403 14:50:56.975245  2056 net.cpp:399] conv2 -> conv2
I0403 14:50:56.990700  2056 net.cpp:141] Setting up conv2
I0403 14:50:56.990749  2056 net.cpp:148] Top shape: 100 256 27 27 (18662400)
I0403 14:50:56.990767  2056 net.cpp:156] Memory required for data: 512959600
I0403 14:50:56.990790  2056 layer_factory.hpp:77] Creating layer relu2
I0403 14:50:56.990810  2056 net.cpp:91] Creating Layer relu2
I0403 14:50:56.990828  2056 net.cpp:425] relu2 <- conv2
I0403 14:50:56.990845  2056 net.cpp:386] relu2 -> conv2 (in-place)
I0403 14:50:56.991127  2056 net.cpp:141] Setting up relu2
I0403 14:50:56.991153  2056 net.cpp:148] Top shape: 100 256 27 27 (18662400)
I0403 14:50:56.991169  2056 net.cpp:156] Memory required for data: 587609200
I0403 14:50:56.991188  2056 layer_factory.hpp:77] Creating layer norm2
I0403 14:50:56.991209  2056 net.cpp:91] Creating Layer norm2
I0403 14:50:56.991225  2056 net.cpp:425] norm2 <- conv2
I0403 14:50:56.991247  2056 net.cpp:399] norm2 -> norm2
I0403 14:50:56.991437  2056 net.cpp:141] Setting up norm2
I0403 14:50:56.991463  2056 net.cpp:148] Top shape: 100 256 27 27 (18662400)
I0403 14:50:56.991479  2056 net.cpp:156] Memory required for data: 662258800
I0403 14:50:56.991494  2056 layer_factory.hpp:77] Creating layer pool2
I0403 14:50:56.991525  2056 net.cpp:91] Creating Layer pool2
I0403 14:50:56.991542  2056 net.cpp:425] pool2 <- norm2
I0403 14:50:56.991560  2056 net.cpp:399] pool2 -> pool2
I0403 14:50:56.991613  2056 net.cpp:141] Setting up pool2
I0403 14:50:56.991638  2056 net.cpp:148] Top shape: 100 256 13 13 (4326400)
I0403 14:50:56.991654  2056 net.cpp:156] Memory required for data: 679564400
I0403 14:50:56.991669  2056 layer_factory.hpp:77] Creating layer conv3
I0403 14:50:56.991693  2056 net.cpp:91] Creating Layer conv3
I0403 14:50:56.991710  2056 net.cpp:425] conv3 <- pool2
I0403 14:50:56.991729  2056 net.cpp:399] conv3 -> conv3
I0403 14:50:57.030943  2056 net.cpp:141] Setting up conv3
I0403 14:50:57.031005  2056 net.cpp:148] Top shape: 100 384 13 13 (6489600)
I0403 14:50:57.031023  2056 net.cpp:156] Memory required for data: 705522800
I0403 14:50:57.031049  2056 layer_factory.hpp:77] Creating layer relu3
I0403 14:50:57.031071  2056 net.cpp:91] Creating Layer relu3
I0403 14:50:57.031088  2056 net.cpp:425] relu3 <- conv3
I0403 14:50:57.031107  2056 net.cpp:386] relu3 -> conv3 (in-place)
I0403 14:50:57.037392  2056 net.cpp:141] Setting up relu3
I0403 14:50:57.037425  2056 net.cpp:148] Top shape: 100 384 13 13 (6489600)
I0403 14:50:57.037443  2056 net.cpp:156] Memory required for data: 731481200
I0403 14:50:57.037459  2056 layer_factory.hpp:77] Creating layer conv4
I0403 14:50:57.037484  2056 net.cpp:91] Creating Layer conv4
I0403 14:50:57.037503  2056 net.cpp:425] conv4 <- conv3
I0403 14:50:57.037524  2056 net.cpp:399] conv4 -> conv4
I0403 14:50:57.068544  2056 net.cpp:141] Setting up conv4
I0403 14:50:57.068639  2056 net.cpp:148] Top shape: 100 384 13 13 (6489600)
I0403 14:50:57.068687  2056 net.cpp:156] Memory required for data: 757439600
I0403 14:50:57.068711  2056 layer_factory.hpp:77] Creating layer relu4
I0403 14:50:57.068737  2056 net.cpp:91] Creating Layer relu4
I0403 14:50:57.068755  2056 net.cpp:425] relu4 <- conv4
I0403 14:50:57.068774  2056 net.cpp:386] relu4 -> conv4 (in-place)
I0403 14:50:57.069079  2056 net.cpp:141] Setting up relu4
I0403 14:50:57.069108  2056 net.cpp:148] Top shape: 100 384 13 13 (6489600)
I0403 14:50:57.069123  2056 net.cpp:156] Memory required for data: 783398000
I0403 14:50:57.069139  2056 layer_factory.hpp:77] Creating layer conv5
I0403 14:50:57.069164  2056 net.cpp:91] Creating Layer conv5
I0403 14:50:57.069185  2056 net.cpp:425] conv5 <- conv4
I0403 14:50:57.069206  2056 net.cpp:399] conv5 -> conv5
I0403 14:50:57.090226  2056 net.cpp:141] Setting up conv5
I0403 14:50:57.090277  2056 net.cpp:148] Top shape: 100 256 13 13 (4326400)
I0403 14:50:57.090293  2056 net.cpp:156] Memory required for data: 800703600
I0403 14:50:57.090318  2056 layer_factory.hpp:77] Creating layer relu5
I0403 14:50:57.090340  2056 net.cpp:91] Creating Layer relu5
I0403 14:50:57.090358  2056 net.cpp:425] relu5 <- conv5
I0403 14:50:57.090378  2056 net.cpp:386] relu5 -> conv5 (in-place)
I0403 14:50:57.090652  2056 net.cpp:141] Setting up relu5
I0403 14:50:57.090683  2056 net.cpp:148] Top shape: 100 256 13 13 (4326400)
I0403 14:50:57.090699  2056 net.cpp:156] Memory required for data: 818009200
I0403 14:50:57.090714  2056 layer_factory.hpp:77] Creating layer pool5
I0403 14:50:57.090735  2056 net.cpp:91] Creating Layer pool5
I0403 14:50:57.090751  2056 net.cpp:425] pool5 <- conv5
I0403 14:50:57.090772  2056 net.cpp:399] pool5 -> pool5
I0403 14:50:57.090845  2056 net.cpp:141] Setting up pool5
I0403 14:50:57.090872  2056 net.cpp:148] Top shape: 100 256 6 6 (921600)
I0403 14:50:57.090888  2056 net.cpp:156] Memory required for data: 821695600
I0403 14:50:57.090903  2056 layer_factory.hpp:77] Creating layer fc6
I0403 14:50:57.090929  2056 net.cpp:91] Creating Layer fc6
I0403 14:50:57.090947  2056 net.cpp:425] fc6 <- pool5
I0403 14:50:57.090968  2056 net.cpp:399] fc6 -> fc6
I0403 14:50:58.655661  2056 net.cpp:141] Setting up fc6
I0403 14:50:58.655709  2056 net.cpp:148] Top shape: 100 4096 (409600)
I0403 14:50:58.655726  2056 net.cpp:156] Memory required for data: 823334000
I0403 14:50:58.655747  2056 layer_factory.hpp:77] Creating layer relu6
I0403 14:50:58.655768  2056 net.cpp:91] Creating Layer relu6
I0403 14:50:58.655786  2056 net.cpp:425] relu6 <- fc6
I0403 14:50:58.655804  2056 net.cpp:386] relu6 -> fc6 (in-place)
I0403 14:50:58.656023  2056 net.cpp:141] Setting up relu6
I0403 14:50:58.656049  2056 net.cpp:148] Top shape: 100 4096 (409600)
I0403 14:50:58.656065  2056 net.cpp:156] Memory required for data: 824972400
I0403 14:50:58.656080  2056 layer_factory.hpp:77] Creating layer drop6
I0403 14:50:58.656098  2056 net.cpp:91] Creating Layer drop6
I0403 14:50:58.656114  2056 net.cpp:425] drop6 <- fc6
I0403 14:50:58.656133  2056 net.cpp:386] drop6 -> fc6 (in-place)
I0403 14:50:58.656183  2056 net.cpp:141] Setting up drop6
I0403 14:50:58.656205  2056 net.cpp:148] Top shape: 100 4096 (409600)
I0403 14:50:58.656234  2056 net.cpp:156] Memory required for data: 826610800
I0403 14:50:58.656254  2056 layer_factory.hpp:77] Creating layer fc7
I0403 14:50:58.656280  2056 net.cpp:91] Creating Layer fc7
I0403 14:50:58.656298  2056 net.cpp:425] fc7 <- fc6
I0403 14:50:58.656318  2056 net.cpp:399] fc7 -> fc7
I0403 14:50:59.370745  2056 net.cpp:141] Setting up fc7
I0403 14:50:59.370798  2056 net.cpp:148] Top shape: 100 4096 (409600)
I0403 14:50:59.370815  2056 net.cpp:156] Memory required for data: 828249200
I0403 14:50:59.370838  2056 layer_factory.hpp:77] Creating layer relu7
I0403 14:50:59.370862  2056 net.cpp:91] Creating Layer relu7
I0403 14:50:59.370879  2056 net.cpp:425] relu7 <- fc7
I0403 14:50:59.370899  2056 net.cpp:386] relu7 -> fc7 (in-place)
I0403 14:50:59.371362  2056 net.cpp:141] Setting up relu7
I0403 14:50:59.371393  2056 net.cpp:148] Top shape: 100 4096 (409600)
I0403 14:50:59.371431  2056 net.cpp:156] Memory required for data: 829887600
I0403 14:50:59.371448  2056 layer_factory.hpp:77] Creating layer drop7
I0403 14:50:59.371469  2056 net.cpp:91] Creating Layer drop7
I0403 14:50:59.371485  2056 net.cpp:425] drop7 <- fc7
I0403 14:50:59.371503  2056 net.cpp:386] drop7 -> fc7 (in-place)
I0403 14:50:59.371551  2056 net.cpp:141] Setting up drop7
I0403 14:50:59.371577  2056 net.cpp:148] Top shape: 100 4096 (409600)
I0403 14:50:59.371592  2056 net.cpp:156] Memory required for data: 831526000
I0403 14:50:59.371606  2056 layer_factory.hpp:77] Creating layer fc8_plantvillage
I0403 14:50:59.371629  2056 net.cpp:91] Creating Layer fc8_plantvillage
I0403 14:50:59.371646  2056 net.cpp:425] fc8_plantvillage <- fc7
I0403 14:50:59.371666  2056 net.cpp:399] fc8_plantvillage -> fc8_plantvillage
I0403 14:50:59.378908  2056 net.cpp:141] Setting up fc8_plantvillage
I0403 14:50:59.378939  2056 net.cpp:148] Top shape: 100 38 (3800)
I0403 14:50:59.378955  2056 net.cpp:156] Memory required for data: 831541200
I0403 14:50:59.378975  2056 layer_factory.hpp:77] Creating layer fc8_plantvillage_fc8_plantvillage_0_split
I0403 14:50:59.378994  2056 net.cpp:91] Creating Layer fc8_plantvillage_fc8_plantvillage_0_split
I0403 14:50:59.379011  2056 net.cpp:425] fc8_plantvillage_fc8_plantvillage_0_split <- fc8_plantvillage
I0403 14:50:59.379034  2056 net.cpp:399] fc8_plantvillage_fc8_plantvillage_0_split -> fc8_plantvillage_fc8_plantvillage_0_split_0
I0403 14:50:59.379055  2056 net.cpp:399] fc8_plantvillage_fc8_plantvillage_0_split -> fc8_plantvillage_fc8_plantvillage_0_split_1
I0403 14:50:59.379077  2056 net.cpp:399] fc8_plantvillage_fc8_plantvillage_0_split -> fc8_plantvillage_fc8_plantvillage_0_split_2
I0403 14:50:59.379158  2056 net.cpp:141] Setting up fc8_plantvillage_fc8_plantvillage_0_split
I0403 14:50:59.379184  2056 net.cpp:148] Top shape: 100 38 (3800)
I0403 14:50:59.379200  2056 net.cpp:148] Top shape: 100 38 (3800)
I0403 14:50:59.379217  2056 net.cpp:148] Top shape: 100 38 (3800)
I0403 14:50:59.379232  2056 net.cpp:156] Memory required for data: 831586800
I0403 14:50:59.379253  2056 layer_factory.hpp:77] Creating layer prob
I0403 14:50:59.379276  2056 net.cpp:91] Creating Layer prob
I0403 14:50:59.379294  2056 net.cpp:425] prob <- fc8_plantvillage_fc8_plantvillage_0_split_0
I0403 14:50:59.379313  2056 net.cpp:399] prob -> prob
I0403 14:50:59.379556  2056 net.cpp:141] Setting up prob
I0403 14:50:59.379586  2056 net.cpp:148] Top shape: 100 38 (3800)
I0403 14:50:59.379603  2056 net.cpp:156] Memory required for data: 831602000
I0403 14:50:59.379618  2056 layer_factory.hpp:77] Creating layer hdf5out
I0403 14:50:59.379638  2056 net.cpp:91] Creating Layer hdf5out
I0403 14:50:59.379655  2056 net.cpp:425] hdf5out <- prob
I0403 14:50:59.379673  2056 net.cpp:425] hdf5out <- label_data_1_split_0
I0403 14:50:59.382354  2056 net.cpp:141] Setting up hdf5out
…
