…
I0403 14:44:05.717770  1872 net.cpp:313] The NetState phase (1) differed from the phase (0) specified by a rule in layer data
I0403 14:44:05.718065  1872 net.cpp:49] Initializing net from parameters: 
state {
  phase: TEST
}
layer {
  name: "data"
  type: "Data"
  top: "data"
  top: "label"
  include {
    phase: TEST
  }
  transform_param {
    crop_size: 227
    mean_file: "/home/mohanty/data/final_dataset/lmdb/color-60-40/mean.binaryproto"
  }
  data_param {
    source: "/home/mohanty/data/final_dataset/lmdb/color-60-40/test_db"
    batch_size: 100
    backend: LMDB
  }
}
layer {
  name: "conv1"
  type: "Convolution"
  bottom: "data"
  top: "conv1"
  param {
    lr_mult: 1
    decay_mult: 1
  }
  param {
    lr_mult: 2
    decay_mult: 0
  }
  convolution_param {
    num_output: 96
    kernel_size: 11
    stride: 4
    weight_filler {
      type: "gaussian"
      std: 0.01
    }
    bias_filler {
      type: "constant"
      value: 0
    }
  }
}
layer {
  name: "relu1"
  type: "ReLU"
  bottom: "conv1"
  top: "conv1"
}
layer {
  name: "norm1"
  type: "LRN"
  bottom: "conv1"
  top: "norm1"
  lrn_param {
    local_size: 5
    alpha: 0.0001
    beta: 0.75
  }
}
layer {
  name: "pool1"
  type: "Pooling"
  bottom: "norm1"
  top: "pool1"
  pooling_param {
    pool: MAX
    kernel_size: 3
    stride: 2
  }
}
layer {
  name: "conv2"
  type: "Convolution"
  bottom: "pool1"
  top: "conv2"
  param {
    lr_mult: 1
    decay_mult: 1
  }
  param {
    lr_mult: 2
    decay_mult: 0
  }
  convolution_param {
    num_output: 256
    pad: 2
    kernel_size: 5
    group: 2
    weight_filler {
      type: "gaussian"
      std: 0.01
    }
    bias_filler {
      type: "constant"
      value: 0.1
    }
  }
}
layer {
  name: "relu2"
  type: "ReLU"
  bottom: "conv2"
  top: "conv2"
}
layer {
  name: "norm2"
  type: "LRN"
  bottom: "conv2"
  top: "norm2"
  lrn_param {
    local_size: 5
    alpha: 0.0001
    beta: 0.75
  }
}
layer {
  name: "pool2"
  type: "Pooling"
  bottom: "norm2"
  top: "pool2"
  pooling_param {
    pool: MAX
    kernel_size: 3
    stride: 2
  }
}
layer {
  name: "conv3"
  type: "Convolution"
  bottom: "pool2"
  top: "conv3"
  param {
    lr_mult: 1
    decay_mult: 1
  }
  param {
    lr_mult: 2
    decay_mult: 0
  }
  convolution_param {
    num_output: 384
    pad: 1
    kernel_size: 3
    weight_filler {
      type: "gaussian"
      std: 0.01
    }
    bias_filler {
      type: "constant"
      value: 0
    }
  }
}
layer {
  name: "relu3"
  type: "ReLU"
  bottom: "conv3"
  top: "conv3"
}
layer {
  name: "conv4"
  type: "Convolution"
  bottom: "conv3"
  top: "conv4"
  param {
    lr_mult: 1
    decay_mult: 1
  }
  param {
    lr_mult: 2
    decay_mult: 0
  }
  convolution_param {
    num_output: 384
    pad: 1
    kernel_size: 3
    group: 2
    weight_filler {
      type: "gaussian"
      std: 0.01
    }
    bias_filler {
      type: "constant"
      value: 0.1
    }
  }
}
layer {
  name: "relu4"
  type: "ReLU"
  bottom: "conv4"
  top: "conv4"
}
layer {
  name: "conv5"
  type: "Convolution"
  bottom: "conv4"
  top: "conv5"
  param {
    lr_mult: 1
    decay_mult: 1
  }
  param {
    lr_mult: 2
    decay_mult: 0
  }
  convolution_param {
    num_output: 256
    pad: 1
    kernel_size: 3
    group: 2
    weight_filler {
      type: "gaussian"
      std: 0.01
    }
    bias_filler {
      type: "constant"
      value: 0.1
    }
  }
}
layer {
  name: "relu5"
  type: "ReLU"
  bottom: "conv5"
  top: "conv5"
}
layer {
  name: "pool5"
  type: "Pooling"
  bottom: "conv5"
  top: "pool5"
  pooling_param {
    pool: MAX
    kernel_size: 3
    stride: 2
  }
}
layer {
  name: "fc6"
  type: "InnerProduct"
  bottom: "pool5"
  top: "fc6"
  param {
    lr_mult: 1
    decay_mult: 1
  }
  param {
    lr_mult: 2
    decay_mult: 0
  }
  inner_product_param {
    num_output: 4096
    weight_filler {
      type: "gaussian"
      std: 0.005
    }
    bias_filler {
      type: "constant"
      value: 0.1
    }
  }
}
layer {
  name: "relu6"
  type: "ReLU"
  bottom: "fc6"
  top: "fc6"
}
layer {
  name: "drop6"
  type: "Dropout"
  bottom: "fc6"
  top: "fc6"
  dropout_param {
    dropout_ratio: 0.5
  }
}
layer {
  name: "fc7"
  type: "InnerProduct"
  bottom: "fc6"
  top: "fc7"
  param {
    lr_mult: 1
    decay_mult: 1
  }
  param {
    lr_mult: 2
    decay_mult: 0
  }
  inner_product_param {
    num_output: 4096
    weight_filler {
      type: "gaussian"
      std: 0.005
    }
    bias_filler {
      type: "constant"
      value: 0.1
    }
  }
}
layer {
  name: "relu7"
  type: "ReLU"
  bottom: "fc7"
  top: "fc7"
}
layer {
  name: "drop7"
  type: "Dropout"
  bottom: "fc7"
  top: "fc7"
  dropout_param {
    dropout_ratio: 0.5
  }
}
layer {
  name: "fc8_plantvillage"
  type: "InnerProduct"
  bottom: "fc7"
  top: "fc8_plantvillage"
  param {
    lr_mult: 1
    decay_mult: 1
  }
  param {
    lr_mult: 2
    decay_mult: 0
  }
  inner_product_param {
    num_output: 38
    weight_filler {
      type: "gaussian"
      std: 0.01
    }
    bias_filler {
      type: "constant"
      value: 0
    }
  }
}
layer {
  name: "prob"
  type: "Softmax"
  bottom: "fc8_plantvillage"
  top: "prob"
  include {
    phase: TEST
  }
}
layer {
  name: "hdf5out"
  type: "HDF5Output"
  bottom: "prob"
  bottom: "label"
  include {
    phase: TEST
  }
  hdf5_output_param {
    file_name: "hdf5_dumps/iter_4550.h5"
  }
}
layer {
  name: "loss"
  type: "SoftmaxWithLoss"
  bottom: "fc8_plantvillage"
  bottom: "label"
  top: "loss"
}
layer {
  name: "accuracy"
  type: "Accuracy"
  bottom: "fc8_plantvillage"
  bottom: "label"
  top: "accuracy"
  include {
    phase: TEST
  }
}
I0403 14:44:05.718623  1872 layer_factory.hpp:77] Creating layer data
I0403 14:44:05.719264  1872 net.cpp:91] Creating Layer data
I0403 14:44:05.719293  1872 net.cpp:399] data -> data
I0403 14:44:05.719348  1872 net.cpp:399] data -> label
I0403 14:44:05.719385  1872 data_transformer.cpp:25] Loading mean file from: /home/mohanty/data/final_dataset/lmdb/color-60-40/mean.binaryproto
I0403 14:44:05.721577  1876 db_lmdb.cpp:38] Opened lmdb /home/mohanty/data/final_dataset/lmdb/color-60-40/test_db
I0403 14:44:05.736711  1872 data_layer.cpp:41] output data size: 100,3,227,227
I0403 14:44:05.858878  1872 net.cpp:141] Setting up data
I0403 14:44:05.858980  1872 net.cpp:148] Top shape: 100 3 227 227 (15458700)
I0403 14:44:05.859002  1872 net.cpp:148] Top shape: 100 (100)
I0403 14:44:05.859017  1872 net.cpp:156] Memory required for data: 61835200
I0403 14:44:05.859043  1872 layer_factory.hpp:77] Creating layer label_data_1_split
I0403 14:44:05.859067  1872 net.cpp:91] Creating Layer label_data_1_split
I0403 14:44:05.859086  1872 net.cpp:425] label_data_1_split <- label
I0403 14:44:05.859117  1872 net.cpp:399] label_data_1_split -> label_data_1_split_0
I0403 14:44:05.859143  1872 net.cpp:399] label_data_1_split -> label_data_1_split_1
I0403 14:44:05.859163  1872 net.cpp:399] label_data_1_split -> label_data_1_split_2
I0403 14:44:05.859221  1872 net.cpp:141] Setting up label_data_1_split
I0403 14:44:05.859247  1872 net.cpp:148] Top shape: 100 (100)
I0403 14:44:05.859266  1872 net.cpp:148] Top shape: 100 (100)
I0403 14:44:05.859282  1872 net.cpp:148] Top shape: 100 (100)
I0403 14:44:05.859295  1872 net.cpp:156] Memory required for data: 61836400
I0403 14:44:05.859310  1872 layer_factory.hpp:77] Creating layer conv1
I0403 14:44:05.859341  1872 net.cpp:91] Creating Layer conv1
I0403 14:44:05.859359  1872 net.cpp:425] conv1 <- data
I0403 14:44:05.859377  1872 net.cpp:399] conv1 -> conv1
I0403 14:44:05.998670  1872 net.cpp:141] Setting up conv1
I0403 14:44:05.998761  1872 net.cpp:148] Top shape: 100 96 55 55 (29040000)
I0403 14:44:05.998780  1872 net.cpp:156] Memory required for data: 177996400
I0403 14:44:05.998812  1872 layer_factory.hpp:77] Creating layer relu1
I0403 14:44:05.998841  1872 net.cpp:91] Creating Layer relu1
I0403 14:44:05.998860  1872 net.cpp:425] relu1 <- conv1
I0403 14:44:05.998879  1872 net.cpp:386] relu1 -> conv1 (in-place)
I0403 14:44:05.999155  1872 net.cpp:141] Setting up relu1
I0403 14:44:05.999186  1872 net.cpp:148] Top shape: 100 96 55 55 (29040000)
I0403 14:44:05.999202  1872 net.cpp:156] Memory required for data: 294156400
I0403 14:44:05.999254  1872 layer_factory.hpp:77] Creating layer norm1
I0403 14:44:05.999285  1872 net.cpp:91] Creating Layer norm1
I0403 14:44:05.999305  1872 net.cpp:425] norm1 <- conv1
I0403 14:44:05.999323  1872 net.cpp:399] norm1 -> norm1
I0403 14:44:05.999650  1872 net.cpp:141] Setting up norm1
I0403 14:44:05.999680  1872 net.cpp:148] Top shape: 100 96 55 55 (29040000)
I0403 14:44:05.999696  1872 net.cpp:156] Memory required for data: 410316400
I0403 14:44:05.999711  1872 layer_factory.hpp:77] Creating layer pool1
I0403 14:44:05.999735  1872 net.cpp:91] Creating Layer pool1
I0403 14:44:05.999754  1872 net.cpp:425] pool1 <- norm1
I0403 14:44:05.999773  1872 net.cpp:399] pool1 -> pool1
I0403 14:44:05.999840  1872 net.cpp:141] Setting up pool1
I0403 14:44:05.999866  1872 net.cpp:148] Top shape: 100 96 27 27 (6998400)
I0403 14:44:05.999881  1872 net.cpp:156] Memory required for data: 438310000
I0403 14:44:05.999897  1872 layer_factory.hpp:77] Creating layer conv2
I0403 14:44:05.999922  1872 net.cpp:91] Creating Layer conv2
I0403 14:44:05.999939  1872 net.cpp:425] conv2 <- pool1
I0403 14:44:05.999958  1872 net.cpp:399] conv2 -> conv2
I0403 14:44:06.015338  1872 net.cpp:141] Setting up conv2
I0403 14:44:06.015388  1872 net.cpp:148] Top shape: 100 256 27 27 (18662400)
I0403 14:44:06.015404  1872 net.cpp:156] Memory required for data: 512959600
I0403 14:44:06.015430  1872 layer_factory.hpp:77] Creating layer relu2
I0403 14:44:06.015451  1872 net.cpp:91] Creating Layer relu2
I0403 14:44:06.015467  1872 net.cpp:425] relu2 <- conv2
I0403 14:44:06.015486  1872 net.cpp:386] relu2 -> conv2 (in-place)
I0403 14:44:06.015766  1872 net.cpp:141] Setting up relu2
I0403 14:44:06.015796  1872 net.cpp:148] Top shape: 100 256 27 27 (18662400)
I0403 14:44:06.015813  1872 net.cpp:156] Memory required for data: 587609200
I0403 14:44:06.015828  1872 layer_factory.hpp:77] Creating layer norm2
I0403 14:44:06.015849  1872 net.cpp:91] Creating Layer norm2
I0403 14:44:06.015866  1872 net.cpp:425] norm2 <- conv2
I0403 14:44:06.015885  1872 net.cpp:399] norm2 -> norm2
I0403 14:44:06.016086  1872 net.cpp:141] Setting up norm2
I0403 14:44:06.016113  1872 net.cpp:148] Top shape: 100 256 27 27 (18662400)
I0403 14:44:06.016127  1872 net.cpp:156] Memory required for data: 662258800
I0403 14:44:06.016144  1872 layer_factory.hpp:77] Creating layer pool2
I0403 14:44:06.016163  1872 net.cpp:91] Creating Layer pool2
I0403 14:44:06.016180  1872 net.cpp:425] pool2 <- norm2
I0403 14:44:06.016197  1872 net.cpp:399] pool2 -> pool2
I0403 14:44:06.016257  1872 net.cpp:141] Setting up pool2
I0403 14:44:06.016280  1872 net.cpp:148] Top shape: 100 256 13 13 (4326400)
I0403 14:44:06.016296  1872 net.cpp:156] Memory required for data: 679564400
I0403 14:44:06.016312  1872 layer_factory.hpp:77] Creating layer conv3
I0403 14:44:06.016336  1872 net.cpp:91] Creating Layer conv3
I0403 14:44:06.016355  1872 net.cpp:425] conv3 <- pool2
I0403 14:44:06.016377  1872 net.cpp:399] conv3 -> conv3
I0403 14:44:06.054811  1872 net.cpp:141] Setting up conv3
I0403 14:44:06.054859  1872 net.cpp:148] Top shape: 100 384 13 13 (6489600)
I0403 14:44:06.054877  1872 net.cpp:156] Memory required for data: 705522800
I0403 14:44:06.054899  1872 layer_factory.hpp:77] Creating layer relu3
I0403 14:44:06.054922  1872 net.cpp:91] Creating Layer relu3
I0403 14:44:06.054939  1872 net.cpp:425] relu3 <- conv3
I0403 14:44:06.054957  1872 net.cpp:386] relu3 -> conv3 (in-place)
I0403 14:44:06.055234  1872 net.cpp:141] Setting up relu3
I0403 14:44:06.055265  1872 net.cpp:148] Top shape: 100 384 13 13 (6489600)
I0403 14:44:06.055281  1872 net.cpp:156] Memory required for data: 731481200
I0403 14:44:06.055297  1872 layer_factory.hpp:77] Creating layer conv4
I0403 14:44:06.055323  1872 net.cpp:91] Creating Layer conv4
I0403 14:44:06.055341  1872 net.cpp:425] conv4 <- conv3
I0403 14:44:06.055361  1872 net.cpp:399] conv4 -> conv4
I0403 14:44:06.085963  1872 net.cpp:141] Setting up conv4
I0403 14:44:06.086030  1872 net.cpp:148] Top shape: 100 384 13 13 (6489600)
I0403 14:44:06.086078  1872 net.cpp:156] Memory required for data: 757439600
I0403 14:44:06.086102  1872 layer_factory.hpp:77] Creating layer relu4
I0403 14:44:06.086127  1872 net.cpp:91] Creating Layer relu4
I0403 14:44:06.086144  1872 net.cpp:425] relu4 <- conv4
I0403 14:44:06.086164  1872 net.cpp:386] relu4 -> conv4 (in-place)
I0403 14:44:06.086467  1872 net.cpp:141] Setting up relu4
I0403 14:44:06.086495  1872 net.cpp:148] Top shape: 100 384 13 13 (6489600)
I0403 14:44:06.086513  1872 net.cpp:156] Memory required for data: 783398000
I0403 14:44:06.086529  1872 layer_factory.hpp:77] Creating layer conv5
I0403 14:44:06.086555  1872 net.cpp:91] Creating Layer conv5
I0403 14:44:06.086575  1872 net.cpp:425] conv5 <- conv4
I0403 14:44:06.086596  1872 net.cpp:399] conv5 -> conv5
I0403 14:44:06.107636  1872 net.cpp:141] Setting up conv5
I0403 14:44:06.107692  1872 net.cpp:148] Top shape: 100 256 13 13 (4326400)
I0403 14:44:06.107709  1872 net.cpp:156] Memory required for data: 800703600
I0403 14:44:06.107736  1872 layer_factory.hpp:77] Creating layer relu5
I0403 14:44:06.107758  1872 net.cpp:91] Creating Layer relu5
I0403 14:44:06.107775  1872 net.cpp:425] relu5 <- conv5
I0403 14:44:06.107794  1872 net.cpp:386] relu5 -> conv5 (in-place)
I0403 14:44:06.108078  1872 net.cpp:141] Setting up relu5
I0403 14:44:06.108108  1872 net.cpp:148] Top shape: 100 256 13 13 (4326400)
I0403 14:44:06.108124  1872 net.cpp:156] Memory required for data: 818009200
I0403 14:44:06.108139  1872 layer_factory.hpp:77] Creating layer pool5
I0403 14:44:06.108161  1872 net.cpp:91] Creating Layer pool5
I0403 14:44:06.108177  1872 net.cpp:425] pool5 <- conv5
I0403 14:44:06.108201  1872 net.cpp:399] pool5 -> pool5
I0403 14:44:06.108270  1872 net.cpp:141] Setting up pool5
I0403 14:44:06.108294  1872 net.cpp:148] Top shape: 100 256 6 6 (921600)
I0403 14:44:06.108309  1872 net.cpp:156] Memory required for data: 821695600
I0403 14:44:06.108325  1872 layer_factory.hpp:77] Creating layer fc6
I0403 14:44:06.108352  1872 net.cpp:91] Creating Layer fc6
I0403 14:44:06.108371  1872 net.cpp:425] fc6 <- pool5
I0403 14:44:06.108392  1872 net.cpp:399] fc6 -> fc6
I0403 14:44:07.667248  1872 net.cpp:141] Setting up fc6
I0403 14:44:07.667325  1872 net.cpp:148] Top shape: 100 4096 (409600)
I0403 14:44:07.667341  1872 net.cpp:156] Memory required for data: 823334000
I0403 14:44:07.667362  1872 layer_factory.hpp:77] Creating layer relu6
I0403 14:44:07.667383  1872 net.cpp:91] Creating Layer relu6
I0403 14:44:07.667400  1872 net.cpp:425] relu6 <- fc6
I0403 14:44:07.667421  1872 net.cpp:386] relu6 -> fc6 (in-place)
I0403 14:44:07.667637  1872 net.cpp:141] Setting up relu6
I0403 14:44:07.667661  1872 net.cpp:148] Top shape: 100 4096 (409600)
I0403 14:44:07.667680  1872 net.cpp:156] Memory required for data: 824972400
I0403 14:44:07.667693  1872 layer_factory.hpp:77] Creating layer drop6
I0403 14:44:07.667712  1872 net.cpp:91] Creating Layer drop6
I0403 14:44:07.667727  1872 net.cpp:425] drop6 <- fc6
I0403 14:44:07.667743  1872 net.cpp:386] drop6 -> fc6 (in-place)
I0403 14:44:07.667794  1872 net.cpp:141] Setting up drop6
I0403 14:44:07.667816  1872 net.cpp:148] Top shape: 100 4096 (409600)
I0403 14:44:07.667830  1872 net.cpp:156] Memory required for data: 826610800
I0403 14:44:07.667845  1872 layer_factory.hpp:77] Creating layer fc7
I0403 14:44:07.667865  1872 net.cpp:91] Creating Layer fc7
I0403 14:44:07.667881  1872 net.cpp:425] fc7 <- fc6
I0403 14:44:07.667899  1872 net.cpp:399] fc7 -> fc7
I0403 14:44:08.362016  1872 net.cpp:141] Setting up fc7
I0403 14:44:08.362093  1872 net.cpp:148] Top shape: 100 4096 (409600)
I0403 14:44:08.362110  1872 net.cpp:156] Memory required for data: 828249200
I0403 14:44:08.362131  1872 layer_factory.hpp:77] Creating layer relu7
I0403 14:44:08.362156  1872 net.cpp:91] Creating Layer relu7
I0403 14:44:08.362174  1872 net.cpp:425] relu7 <- fc7
I0403 14:44:08.362195  1872 net.cpp:386] relu7 -> fc7 (in-place)
I0403 14:44:08.362617  1872 net.cpp:141] Setting up relu7
I0403 14:44:08.362643  1872 net.cpp:148] Top shape: 100 4096 (409600)
I0403 14:44:08.362689  1872 net.cpp:156] Memory required for data: 829887600
I0403 14:44:08.362704  1872 layer_factory.hpp:77] Creating layer drop7
I0403 14:44:08.362726  1872 net.cpp:91] Creating Layer drop7
I0403 14:44:08.362742  1872 net.cpp:425] drop7 <- fc7
I0403 14:44:08.362761  1872 net.cpp:386] drop7 -> fc7 (in-place)
I0403 14:44:08.362805  1872 net.cpp:141] Setting up drop7
I0403 14:44:08.362828  1872 net.cpp:148] Top shape: 100 4096 (409600)
I0403 14:44:08.362843  1872 net.cpp:156] Memory required for data: 831526000
I0403 14:44:08.362857  1872 layer_factory.hpp:77] Creating layer fc8_plantvillage
I0403 14:44:08.362876  1872 net.cpp:91] Creating Layer fc8_plantvillage
I0403 14:44:08.362891  1872 net.cpp:425] fc8_plantvillage <- fc7
I0403 14:44:08.362911  1872 net.cpp:399] fc8_plantvillage -> fc8_plantvillage
I0403 14:44:08.369634  1872 net.cpp:141] Setting up fc8_plantvillage
I0403 14:44:08.369664  1872 net.cpp:148] Top shape: 100 38 (3800)
I0403 14:44:08.369680  1872 net.cpp:156] Memory required for data: 831541200
I0403 14:44:08.369699  1872 layer_factory.hpp:77] Creating layer fc8_plantvillage_fc8_plantvillage_0_split
I0403 14:44:08.369716  1872 net.cpp:91] Creating Layer fc8_plantvillage_fc8_plantvillage_0_split
I0403 14:44:08.369731  1872 net.cpp:425] fc8_plantvillage_fc8_plantvillage_0_split <- fc8_plantvillage
I0403 14:44:08.369748  1872 net.cpp:399] fc8_plantvillage_fc8_plantvillage_0_split -> fc8_plantvillage_fc8_plantvillage_0_split_0
I0403 14:44:08.369768  1872 net.cpp:399] fc8_plantvillage_fc8_plantvillage_0_split -> fc8_plantvillage_fc8_plantvillage_0_split_1
I0403 14:44:08.369789  1872 net.cpp:399] fc8_plantvillage_fc8_plantvillage_0_split -> fc8_plantvillage_fc8_plantvillage_0_split_2
I0403 14:44:08.369863  1872 net.cpp:141] Setting up fc8_plantvillage_fc8_plantvillage_0_split
I0403 14:44:08.369886  1872 net.cpp:148] Top shape: 100 38 (3800)
I0403 14:44:08.369901  1872 net.cpp:148] Top shape: 100 38 (3800)
I0403 14:44:08.369917  1872 net.cpp:148] Top shape: 100 38 (3800)
I0403 14:44:08.369930  1872 net.cpp:156] Memory required for data: 831586800
I0403 14:44:08.369946  1872 layer_factory.hpp:77] Creating layer prob
I0403 14:44:08.369963  1872 net.cpp:91] Creating Layer prob
I0403 14:44:08.369978  1872 net.cpp:425] prob <- fc8_plantvillage_fc8_plantvillage_0_split_0
I0403 14:44:08.369997  1872 net.cpp:399] prob -> prob
I0403 14:44:08.370213  1872 net.cpp:141] Setting up prob
I0403 14:44:08.370236  1872 net.cpp:148] Top shape: 100 38 (3800)
I0403 14:44:08.370259  1872 net.cpp:156] Memory required for data: 831602000
I0403 14:44:08.370272  1872 layer_factory.hpp:77] Creating layer hdf5out
I0403 14:44:08.370295  1872 net.cpp:91] Creating Layer hdf5out
I0403 14:44:08.370311  1872 net.cpp:425] hdf5out <- prob
I0403 14:44:08.370326  1872 net.cpp:425] hdf5out <- label_data_1_split_0
I0403 14:44:08.372767  1872 net.cpp:141] Setting up hdf5out
…
