…
I0403 14:41:49.196463  1799 net.cpp:313] The NetState phase (1) differed from the phase (0) specified by a rule in layer data
I0403 14:41:49.196768  1799 net.cpp:49] Initializing net from parameters: 
state {
  phase: TEST
}
layer {
  name: "data"
  type: "Data"
  top: "data"
  top: "label"
  include {
    phase: TEST
  }
  transform_param {
    crop_size: 227
    mean_file: "/home/mohanty/data/final_dataset/lmdb/color-60-40/mean.binaryproto"
  }
  data_param {
    source: "/home/mohanty/data/final_dataset/lmdb/color-60-40/test_db"
    batch_size: 100
    backend: LMDB
  }
}
layer {
  name: "conv1"
  type: "Convolution"
  bottom: "data"
  top: "conv1"
  param {
    lr_mult: 1
    decay_mult: 1
  }
  param {
    lr_mult: 2
    decay_mult: 0
  }
  convolution_param {
    num_output: 96
    kernel_size: 11
    stride: 4
    weight_filler {
      type: "gaussian"
      std: 0.01
    }
    bias_filler {
      type: "constant"
      value: 0
    }
  }
}
layer {
  name: "relu1"
  type: "ReLU"
  bottom: "conv1"
  top: "conv1"
}
layer {
  name: "norm1"
  type: "LRN"
  bottom: "conv1"
  top: "norm1"
  lrn_param {
    local_size: 5
    alpha: 0.0001
    beta: 0.75
  }
}
layer {
  name: "pool1"
  type: "Pooling"
  bottom: "norm1"
  top: "pool1"
  pooling_param {
    pool: MAX
    kernel_size: 3
    stride: 2
  }
}
layer {
  name: "conv2"
  type: "Convolution"
  bottom: "pool1"
  top: "conv2"
  param {
    lr_mult: 1
    decay_mult: 1
  }
  param {
    lr_mult: 2
    decay_mult: 0
  }
  convolution_param {
    num_output: 256
    pad: 2
    kernel_size: 5
    group: 2
    weight_filler {
      type: "gaussian"
      std: 0.01
    }
    bias_filler {
      type: "constant"
      value: 0.1
    }
  }
}
layer {
  name: "relu2"
  type: "ReLU"
  bottom: "conv2"
  top: "conv2"
}
layer {
  name: "norm2"
  type: "LRN"
  bottom: "conv2"
  top: "norm2"
  lrn_param {
    local_size: 5
    alpha: 0.0001
    beta: 0.75
  }
}
layer {
  name: "pool2"
  type: "Pooling"
  bottom: "norm2"
  top: "pool2"
  pooling_param {
    pool: MAX
    kernel_size: 3
    stride: 2
  }
}
layer {
  name: "conv3"
  type: "Convolution"
  bottom: "pool2"
  top: "conv3"
  param {
    lr_mult: 1
    decay_mult: 1
  }
  param {
    lr_mult: 2
    decay_mult: 0
  }
  convolution_param {
    num_output: 384
    pad: 1
    kernel_size: 3
    weight_filler {
      type: "gaussian"
      std: 0.01
    }
    bias_filler {
      type: "constant"
      value: 0
    }
  }
}
layer {
  name: "relu3"
  type: "ReLU"
  bottom: "conv3"
  top: "conv3"
}
layer {
  name: "conv4"
  type: "Convolution"
  bottom: "conv3"
  top: "conv4"
  param {
    lr_mult: 1
    decay_mult: 1
  }
  param {
    lr_mult: 2
    decay_mult: 0
  }
  convolution_param {
    num_output: 384
    pad: 1
    kernel_size: 3
    group: 2
    weight_filler {
      type: "gaussian"
      std: 0.01
    }
    bias_filler {
      type: "constant"
      value: 0.1
    }
  }
}
layer {
  name: "relu4"
  type: "ReLU"
  bottom: "conv4"
  top: "conv4"
}
layer {
  name: "conv5"
  type: "Convolution"
  bottom: "conv4"
  top: "conv5"
  param {
    lr_mult: 1
    decay_mult: 1
  }
  param {
    lr_mult: 2
    decay_mult: 0
  }
  convolution_param {
    num_output: 256
    pad: 1
    kernel_size: 3
    group: 2
    weight_filler {
      type: "gaussian"
      std: 0.01
    }
    bias_filler {
      type: "constant"
      value: 0.1
    }
  }
}
layer {
  name: "relu5"
  type: "ReLU"
  bottom: "conv5"
  top: "conv5"
}
layer {
  name: "pool5"
  type: "Pooling"
  bottom: "conv5"
  top: "pool5"
  pooling_param {
    pool: MAX
    kernel_size: 3
    stride: 2
  }
}
layer {
  name: "fc6"
  type: "InnerProduct"
  bottom: "pool5"
  top: "fc6"
  param {
    lr_mult: 1
    decay_mult: 1
  }
  param {
    lr_mult: 2
    decay_mult: 0
  }
  inner_product_param {
    num_output: 4096
    weight_filler {
      type: "gaussian"
      std: 0.005
    }
    bias_filler {
      type: "constant"
      value: 0.1
    }
  }
}
layer {
  name: "relu6"
  type: "ReLU"
  bottom: "fc6"
  top: "fc6"
}
layer {
  name: "drop6"
  type: "Dropout"
  bottom: "fc6"
  top: "fc6"
  dropout_param {
    dropout_ratio: 0.5
  }
}
layer {
  name: "fc7"
  type: "InnerProduct"
  bottom: "fc6"
  top: "fc7"
  param {
    lr_mult: 1
    decay_mult: 1
  }
  param {
    lr_mult: 2
    decay_mult: 0
  }
  inner_product_param {
    num_output: 4096
    weight_filler {
      type: "gaussian"
      std: 0.005
    }
    bias_filler {
      type: "constant"
      value: 0.1
    }
  }
}
layer {
  name: "relu7"
  type: "ReLU"
  bottom: "fc7"
  top: "fc7"
}
layer {
  name: "drop7"
  type: "Dropout"
  bottom: "fc7"
  top: "fc7"
  dropout_param {
    dropout_ratio: 0.5
  }
}
layer {
  name: "fc8_plantvillage"
  type: "InnerProduct"
  bottom: "fc7"
  top: "fc8_plantvillage"
  param {
    lr_mult: 1
    decay_mult: 1
  }
  param {
    lr_mult: 2
    decay_mult: 0
  }
  inner_product_param {
    num_output: 38
    weight_filler {
      type: "gaussian"
      std: 0.01
    }
    bias_filler {
      type: "constant"
      value: 0
    }
  }
}
layer {
  name: "prob"
  type: "Softmax"
  bottom: "fc8_plantvillage"
  top: "prob"
  include {
    phase: TEST
  }
}
layer {
  name: "hdf5out"
  type: "HDF5Output"
  bottom: "prob"
  bottom: "label"
  include {
    phase: TEST
  }
  hdf5_output_param {
    file_name: "hdf5_dumps/iter_3575.h5"
  }
}
layer {
  name: "loss"
  type: "SoftmaxWithLoss"
  bottom: "fc8_plantvillage"
  bottom: "label"
  top: "loss"
}
layer {
  name: "accuracy"
  type: "Accuracy"
  bottom: "fc8_plantvillage"
  bottom: "label"
  top: "accuracy"
  include {
    phase: TEST
  }
}
I0403 14:41:49.197370  1799 layer_factory.hpp:77] Creating layer data
I0403 14:41:49.198015  1799 net.cpp:91] Creating Layer data
I0403 14:41:49.198048  1799 net.cpp:399] data -> data
I0403 14:41:49.198098  1799 net.cpp:399] data -> label
I0403 14:41:49.198135  1799 data_transformer.cpp:25] Loading mean file from: /home/mohanty/data/final_dataset/lmdb/color-60-40/mean.binaryproto
I0403 14:41:49.201112  1802 db_lmdb.cpp:38] Opened lmdb /home/mohanty/data/final_dataset/lmdb/color-60-40/test_db
I0403 14:41:49.212661  1799 data_layer.cpp:41] output data size: 100,3,227,227
I0403 14:41:49.334193  1799 net.cpp:141] Setting up data
I0403 14:41:49.334250  1799 net.cpp:148] Top shape: 100 3 227 227 (15458700)
I0403 14:41:49.334278  1799 net.cpp:148] Top shape: 100 (100)
I0403 14:41:49.334307  1799 net.cpp:156] Memory required for data: 61835200
I0403 14:41:49.334337  1799 layer_factory.hpp:77] Creating layer label_data_1_split
I0403 14:41:49.334363  1799 net.cpp:91] Creating Layer label_data_1_split
I0403 14:41:49.334381  1799 net.cpp:425] label_data_1_split <- label
I0403 14:41:49.334414  1799 net.cpp:399] label_data_1_split -> label_data_1_split_0
I0403 14:41:49.334441  1799 net.cpp:399] label_data_1_split -> label_data_1_split_1
I0403 14:41:49.334463  1799 net.cpp:399] label_data_1_split -> label_data_1_split_2
I0403 14:41:49.334528  1799 net.cpp:141] Setting up label_data_1_split
I0403 14:41:49.334553  1799 net.cpp:148] Top shape: 100 (100)
I0403 14:41:49.334583  1799 net.cpp:148] Top shape: 100 (100)
I0403 14:41:49.334600  1799 net.cpp:148] Top shape: 100 (100)
I0403 14:41:49.334614  1799 net.cpp:156] Memory required for data: 61836400
I0403 14:41:49.334630  1799 layer_factory.hpp:77] Creating layer conv1
I0403 14:41:49.334662  1799 net.cpp:91] Creating Layer conv1
I0403 14:41:49.334681  1799 net.cpp:425] conv1 <- data
I0403 14:41:49.334702  1799 net.cpp:399] conv1 -> conv1
I0403 14:41:49.476743  1799 net.cpp:141] Setting up conv1
I0403 14:41:49.476830  1799 net.cpp:148] Top shape: 100 96 55 55 (29040000)
I0403 14:41:49.476848  1799 net.cpp:156] Memory required for data: 177996400
I0403 14:41:49.476881  1799 layer_factory.hpp:77] Creating layer relu1
I0403 14:41:49.476909  1799 net.cpp:91] Creating Layer relu1
I0403 14:41:49.476929  1799 net.cpp:425] relu1 <- conv1
I0403 14:41:49.476949  1799 net.cpp:386] relu1 -> conv1 (in-place)
I0403 14:41:49.477210  1799 net.cpp:141] Setting up relu1
I0403 14:41:49.477251  1799 net.cpp:148] Top shape: 100 96 55 55 (29040000)
I0403 14:41:49.477267  1799 net.cpp:156] Memory required for data: 294156400
I0403 14:41:49.477324  1799 layer_factory.hpp:77] Creating layer norm1
I0403 14:41:49.477355  1799 net.cpp:91] Creating Layer norm1
I0403 14:41:49.477375  1799 net.cpp:425] norm1 <- conv1
I0403 14:41:49.477393  1799 net.cpp:399] norm1 -> norm1
I0403 14:41:49.477728  1799 net.cpp:141] Setting up norm1
I0403 14:41:49.477758  1799 net.cpp:148] Top shape: 100 96 55 55 (29040000)
I0403 14:41:49.477776  1799 net.cpp:156] Memory required for data: 410316400
I0403 14:41:49.477792  1799 layer_factory.hpp:77] Creating layer pool1
I0403 14:41:49.477816  1799 net.cpp:91] Creating Layer pool1
I0403 14:41:49.477833  1799 net.cpp:425] pool1 <- norm1
I0403 14:41:49.477852  1799 net.cpp:399] pool1 -> pool1
I0403 14:41:49.477924  1799 net.cpp:141] Setting up pool1
I0403 14:41:49.477949  1799 net.cpp:148] Top shape: 100 96 27 27 (6998400)
I0403 14:41:49.477965  1799 net.cpp:156] Memory required for data: 438310000
I0403 14:41:49.477982  1799 layer_factory.hpp:77] Creating layer conv2
I0403 14:41:49.478008  1799 net.cpp:91] Creating Layer conv2
I0403 14:41:49.478025  1799 net.cpp:425] conv2 <- pool1
I0403 14:41:49.478047  1799 net.cpp:399] conv2 -> conv2
I0403 14:41:49.493240  1799 net.cpp:141] Setting up conv2
I0403 14:41:49.493279  1799 net.cpp:148] Top shape: 100 256 27 27 (18662400)
I0403 14:41:49.493299  1799 net.cpp:156] Memory required for data: 512959600
I0403 14:41:49.493322  1799 layer_factory.hpp:77] Creating layer relu2
I0403 14:41:49.493348  1799 net.cpp:91] Creating Layer relu2
I0403 14:41:49.493367  1799 net.cpp:425] relu2 <- conv2
I0403 14:41:49.493386  1799 net.cpp:386] relu2 -> conv2 (in-place)
I0403 14:41:49.493669  1799 net.cpp:141] Setting up relu2
I0403 14:41:49.493700  1799 net.cpp:148] Top shape: 100 256 27 27 (18662400)
I0403 14:41:49.493716  1799 net.cpp:156] Memory required for data: 587609200
I0403 14:41:49.493732  1799 layer_factory.hpp:77] Creating layer norm2
I0403 14:41:49.493754  1799 net.cpp:91] Creating Layer norm2
I0403 14:41:49.493772  1799 net.cpp:425] norm2 <- conv2
I0403 14:41:49.493793  1799 net.cpp:399] norm2 -> norm2
I0403 14:41:49.494004  1799 net.cpp:141] Setting up norm2
I0403 14:41:49.494031  1799 net.cpp:148] Top shape: 100 256 27 27 (18662400)
I0403 14:41:49.494050  1799 net.cpp:156] Memory required for data: 662258800
I0403 14:41:49.494068  1799 layer_factory.hpp:77] Creating layer pool2
I0403 14:41:49.494091  1799 net.cpp:91] Creating Layer pool2
I0403 14:41:49.494107  1799 net.cpp:425] pool2 <- norm2
I0403 14:41:49.494127  1799 net.cpp:399] pool2 -> pool2
I0403 14:41:49.494181  1799 net.cpp:141] Setting up pool2
I0403 14:41:49.494205  1799 net.cpp:148] Top shape: 100 256 13 13 (4326400)
I0403 14:41:49.494232  1799 net.cpp:156] Memory required for data: 679564400
I0403 14:41:49.494248  1799 layer_factory.hpp:77] Creating layer conv3
I0403 14:41:49.494277  1799 net.cpp:91] Creating Layer conv3
I0403 14:41:49.494297  1799 net.cpp:425] conv3 <- pool2
I0403 14:41:49.494318  1799 net.cpp:399] conv3 -> conv3
I0403 14:41:49.532040  1799 net.cpp:141] Setting up conv3
I0403 14:41:49.532104  1799 net.cpp:148] Top shape: 100 384 13 13 (6489600)
I0403 14:41:49.532122  1799 net.cpp:156] Memory required for data: 705522800
I0403 14:41:49.532150  1799 layer_factory.hpp:77] Creating layer relu3
I0403 14:41:49.532171  1799 net.cpp:91] Creating Layer relu3
I0403 14:41:49.532189  1799 net.cpp:425] relu3 <- conv3
I0403 14:41:49.532207  1799 net.cpp:386] relu3 -> conv3 (in-place)
I0403 14:41:49.532513  1799 net.cpp:141] Setting up relu3
I0403 14:41:49.532544  1799 net.cpp:148] Top shape: 100 384 13 13 (6489600)
I0403 14:41:49.532562  1799 net.cpp:156] Memory required for data: 731481200
I0403 14:41:49.532579  1799 layer_factory.hpp:77] Creating layer conv4
I0403 14:41:49.532604  1799 net.cpp:91] Creating Layer conv4
I0403 14:41:49.532623  1799 net.cpp:425] conv4 <- conv3
I0403 14:41:49.532645  1799 net.cpp:399] conv4 -> conv4
I0403 14:41:49.568648  1799 net.cpp:141] Setting up conv4
I0403 14:41:49.568728  1799 net.cpp:148] Top shape: 100 384 13 13 (6489600)
I0403 14:41:49.568779  1799 net.cpp:156] Memory required for data: 757439600
I0403 14:41:49.568802  1799 layer_factory.hpp:77] Creating layer relu4
I0403 14:41:49.568827  1799 net.cpp:91] Creating Layer relu4
I0403 14:41:49.568846  1799 net.cpp:425] relu4 <- conv4
I0403 14:41:49.568866  1799 net.cpp:386] relu4 -> conv4 (in-place)
I0403 14:41:49.569147  1799 net.cpp:141] Setting up relu4
I0403 14:41:49.569175  1799 net.cpp:148] Top shape: 100 384 13 13 (6489600)
I0403 14:41:49.569192  1799 net.cpp:156] Memory required for data: 783398000
I0403 14:41:49.569208  1799 layer_factory.hpp:77] Creating layer conv5
I0403 14:41:49.569234  1799 net.cpp:91] Creating Layer conv5
I0403 14:41:49.569252  1799 net.cpp:425] conv5 <- conv4
I0403 14:41:49.569278  1799 net.cpp:399] conv5 -> conv5
I0403 14:41:49.589728  1799 net.cpp:141] Setting up conv5
I0403 14:41:49.589768  1799 net.cpp:148] Top shape: 100 256 13 13 (4326400)
I0403 14:41:49.589786  1799 net.cpp:156] Memory required for data: 800703600
I0403 14:41:49.589810  1799 layer_factory.hpp:77] Creating layer relu5
I0403 14:41:49.589834  1799 net.cpp:91] Creating Layer relu5
I0403 14:41:49.589854  1799 net.cpp:425] relu5 <- conv5
I0403 14:41:49.589874  1799 net.cpp:386] relu5 -> conv5 (in-place)
I0403 14:41:49.590154  1799 net.cpp:141] Setting up relu5
I0403 14:41:49.590184  1799 net.cpp:148] Top shape: 100 256 13 13 (4326400)
I0403 14:41:49.590200  1799 net.cpp:156] Memory required for data: 818009200
I0403 14:41:49.590215  1799 layer_factory.hpp:77] Creating layer pool5
I0403 14:41:49.590241  1799 net.cpp:91] Creating Layer pool5
I0403 14:41:49.590276  1799 net.cpp:425] pool5 <- conv5
I0403 14:41:49.590298  1799 net.cpp:399] pool5 -> pool5
I0403 14:41:49.590361  1799 net.cpp:141] Setting up pool5
I0403 14:41:49.590385  1799 net.cpp:148] Top shape: 100 256 6 6 (921600)
I0403 14:41:49.590400  1799 net.cpp:156] Memory required for data: 821695600
I0403 14:41:49.590415  1799 layer_factory.hpp:77] Creating layer fc6
I0403 14:41:49.590445  1799 net.cpp:91] Creating Layer fc6
I0403 14:41:49.590464  1799 net.cpp:425] fc6 <- pool5
I0403 14:41:49.590487  1799 net.cpp:399] fc6 -> fc6
I0403 14:41:51.143326  1799 net.cpp:141] Setting up fc6
I0403 14:41:51.143368  1799 net.cpp:148] Top shape: 100 4096 (409600)
I0403 14:41:51.143383  1799 net.cpp:156] Memory required for data: 823334000
I0403 14:41:51.143404  1799 layer_factory.hpp:77] Creating layer relu6
I0403 14:41:51.143426  1799 net.cpp:91] Creating Layer relu6
I0403 14:41:51.143446  1799 net.cpp:425] relu6 <- fc6
I0403 14:41:51.143477  1799 net.cpp:386] relu6 -> fc6 (in-place)
I0403 14:41:51.143689  1799 net.cpp:141] Setting up relu6
I0403 14:41:51.143714  1799 net.cpp:148] Top shape: 100 4096 (409600)
I0403 14:41:51.143729  1799 net.cpp:156] Memory required for data: 824972400
I0403 14:41:51.143744  1799 layer_factory.hpp:77] Creating layer drop6
I0403 14:41:51.143777  1799 net.cpp:91] Creating Layer drop6
I0403 14:41:51.143793  1799 net.cpp:425] drop6 <- fc6
I0403 14:41:51.143810  1799 net.cpp:386] drop6 -> fc6 (in-place)
I0403 14:41:51.143859  1799 net.cpp:141] Setting up drop6
I0403 14:41:51.143882  1799 net.cpp:148] Top shape: 100 4096 (409600)
I0403 14:41:51.143896  1799 net.cpp:156] Memory required for data: 826610800
I0403 14:41:51.143911  1799 layer_factory.hpp:77] Creating layer fc7
I0403 14:41:51.143931  1799 net.cpp:91] Creating Layer fc7
I0403 14:41:51.143946  1799 net.cpp:425] fc7 <- fc6
I0403 14:41:51.143967  1799 net.cpp:399] fc7 -> fc7
I0403 14:41:51.830960  1799 net.cpp:141] Setting up fc7
I0403 14:41:51.831001  1799 net.cpp:148] Top shape: 100 4096 (409600)
I0403 14:41:51.831017  1799 net.cpp:156] Memory required for data: 828249200
I0403 14:41:51.831038  1799 layer_factory.hpp:77] Creating layer relu7
I0403 14:41:51.831060  1799 net.cpp:91] Creating Layer relu7
I0403 14:41:51.831078  1799 net.cpp:425] relu7 <- fc7
I0403 14:41:51.831095  1799 net.cpp:386] relu7 -> fc7 (in-place)
I0403 14:41:51.831516  1799 net.cpp:141] Setting up relu7
I0403 14:41:51.831543  1799 net.cpp:148] Top shape: 100 4096 (409600)
I0403 14:41:51.831588  1799 net.cpp:156] Memory required for data: 829887600
I0403 14:41:51.831604  1799 layer_factory.hpp:77] Creating layer drop7
I0403 14:41:51.831626  1799 net.cpp:91] Creating Layer drop7
I0403 14:41:51.831643  1799 net.cpp:425] drop7 <- fc7
I0403 14:41:51.831661  1799 net.cpp:386] drop7 -> fc7 (in-place)
I0403 14:41:51.831706  1799 net.cpp:141] Setting up drop7
I0403 14:41:51.831727  1799 net.cpp:148] Top shape: 100 4096 (409600)
I0403 14:41:51.831743  1799 net.cpp:156] Memory required for data: 831526000
I0403 14:41:51.831769  1799 layer_factory.hpp:77] Creating layer fc8_plantvillage
I0403 14:41:51.831791  1799 net.cpp:91] Creating Layer fc8_plantvillage
I0403 14:41:51.831807  1799 net.cpp:425] fc8_plantvillage <- fc7
I0403 14:41:51.831826  1799 net.cpp:399] fc8_plantvillage -> fc8_plantvillage
I0403 14:41:51.838434  1799 net.cpp:141] Setting up fc8_plantvillage
I0403 14:41:51.838461  1799 net.cpp:148] Top shape: 100 38 (3800)
I0403 14:41:51.838490  1799 net.cpp:156] Memory required for data: 831541200
I0403 14:41:51.838507  1799 layer_factory.hpp:77] Creating layer fc8_plantvillage_fc8_plantvillage_0_split
I0403 14:41:51.838529  1799 net.cpp:91] Creating Layer fc8_plantvillage_fc8_plantvillage_0_split
I0403 14:41:51.838546  1799 net.cpp:425] fc8_plantvillage_fc8_plantvillage_0_split <- fc8_plantvillage
I0403 14:41:51.838563  1799 net.cpp:399] fc8_plantvillage_fc8_plantvillage_0_split -> fc8_plantvillage_fc8_plantvillage_0_split_0
I0403 14:41:51.838587  1799 net.cpp:399] fc8_plantvillage_fc8_plantvillage_0_split -> fc8_plantvillage_fc8_plantvillage_0_split_1
I0403 14:41:51.838608  1799 net.cpp:399] fc8_plantvillage_fc8_plantvillage_0_split -> fc8_plantvillage_fc8_plantvillage_0_split_2
I0403 14:41:51.838682  1799 net.cpp:141] Setting up fc8_plantvillage_fc8_plantvillage_0_split
I0403 14:41:51.838706  1799 net.cpp:148] Top shape: 100 38 (3800)
I0403 14:41:51.838722  1799 net.cpp:148] Top shape: 100 38 (3800)
I0403 14:41:51.838738  1799 net.cpp:148] Top shape: 100 38 (3800)
I0403 14:41:51.838765  1799 net.cpp:156] Memory required for data: 831586800
I0403 14:41:51.838779  1799 layer_factory.hpp:77] Creating layer prob
I0403 14:41:51.838801  1799 net.cpp:91] Creating Layer prob
I0403 14:41:51.838817  1799 net.cpp:425] prob <- fc8_plantvillage_fc8_plantvillage_0_split_0
I0403 14:41:51.838835  1799 net.cpp:399] prob -> prob
I0403 14:41:51.839051  1799 net.cpp:141] Setting up prob
I0403 14:41:51.839076  1799 net.cpp:148] Top shape: 100 38 (3800)
I0403 14:41:51.839090  1799 net.cpp:156] Memory required for data: 831602000
I0403 14:41:51.839105  1799 layer_factory.hpp:77] Creating layer hdf5out
I0403 14:41:51.839128  1799 net.cpp:91] Creating Layer hdf5out
I0403 14:41:51.839143  1799 net.cpp:425] hdf5out <- prob
I0403 14:41:51.839159  1799 net.cpp:425] hdf5out <- label_data_1_split_0
I0403 14:41:51.935238  1799 net.cpp:141] Setting up hdf5out
…
