…
I0403 14:42:34.531903  1839 net.cpp:313] The NetState phase (1) differed from the phase (0) specified by a rule in layer data
I0403 14:42:34.532203  1839 net.cpp:49] Initializing net from parameters: 
state {
  phase: TEST
}
layer {
  name: "data"
  type: "Data"
  top: "data"
  top: "label"
  include {
    phase: TEST
  }
  transform_param {
    crop_size: 227
    mean_file: "/home/mohanty/data/final_dataset/lmdb/color-60-40/mean.binaryproto"
  }
  data_param {
    source: "/home/mohanty/data/final_dataset/lmdb/color-60-40/test_db"
    batch_size: 100
    backend: LMDB
  }
}
layer {
  name: "conv1"
  type: "Convolution"
  bottom: "data"
  top: "conv1"
  param {
    lr_mult: 1
    decay_mult: 1
  }
  param {
    lr_mult: 2
    decay_mult: 0
  }
  convolution_param {
    num_output: 96
    kernel_size: 11
    stride: 4
    weight_filler {
      type: "gaussian"
      std: 0.01
    }
    bias_filler {
      type: "constant"
      value: 0
    }
  }
}
layer {
  name: "relu1"
  type: "ReLU"
  bottom: "conv1"
  top: "conv1"
}
layer {
  name: "norm1"
  type: "LRN"
  bottom: "conv1"
  top: "norm1"
  lrn_param {
    local_size: 5
    alpha: 0.0001
    beta: 0.75
  }
}
layer {
  name: "pool1"
  type: "Pooling"
  bottom: "norm1"
  top: "pool1"
  pooling_param {
    pool: MAX
    kernel_size: 3
    stride: 2
  }
}
layer {
  name: "conv2"
  type: "Convolution"
  bottom: "pool1"
  top: "conv2"
  param {
    lr_mult: 1
    decay_mult: 1
  }
  param {
    lr_mult: 2
    decay_mult: 0
  }
  convolution_param {
    num_output: 256
    pad: 2
    kernel_size: 5
    group: 2
    weight_filler {
      type: "gaussian"
      std: 0.01
    }
    bias_filler {
      type: "constant"
      value: 0.1
    }
  }
}
layer {
  name: "relu2"
  type: "ReLU"
  bottom: "conv2"
  top: "conv2"
}
layer {
  name: "norm2"
  type: "LRN"
  bottom: "conv2"
  top: "norm2"
  lrn_param {
    local_size: 5
    alpha: 0.0001
    beta: 0.75
  }
}
layer {
  name: "pool2"
  type: "Pooling"
  bottom: "norm2"
  top: "pool2"
  pooling_param {
    pool: MAX
    kernel_size: 3
    stride: 2
  }
}
layer {
  name: "conv3"
  type: "Convolution"
  bottom: "pool2"
  top: "conv3"
  param {
    lr_mult: 1
    decay_mult: 1
  }
  param {
    lr_mult: 2
    decay_mult: 0
  }
  convolution_param {
    num_output: 384
    pad: 1
    kernel_size: 3
    weight_filler {
      type: "gaussian"
      std: 0.01
    }
    bias_filler {
      type: "constant"
      value: 0
    }
  }
}
layer {
  name: "relu3"
  type: "ReLU"
  bottom: "conv3"
  top: "conv3"
}
layer {
  name: "conv4"
  type: "Convolution"
  bottom: "conv3"
  top: "conv4"
  param {
    lr_mult: 1
    decay_mult: 1
  }
  param {
    lr_mult: 2
    decay_mult: 0
  }
  convolution_param {
    num_output: 384
    pad: 1
    kernel_size: 3
    group: 2
    weight_filler {
      type: "gaussian"
      std: 0.01
    }
    bias_filler {
      type: "constant"
      value: 0.1
    }
  }
}
layer {
  name: "relu4"
  type: "ReLU"
  bottom: "conv4"
  top: "conv4"
}
layer {
  name: "conv5"
  type: "Convolution"
  bottom: "conv4"
  top: "conv5"
  param {
    lr_mult: 1
    decay_mult: 1
  }
  param {
    lr_mult: 2
    decay_mult: 0
  }
  convolution_param {
    num_output: 256
    pad: 1
    kernel_size: 3
    group: 2
    weight_filler {
      type: "gaussian"
      std: 0.01
    }
    bias_filler {
      type: "constant"
      value: 0.1
    }
  }
}
layer {
  name: "relu5"
  type: "ReLU"
  bottom: "conv5"
  top: "conv5"
}
layer {
  name: "pool5"
  type: "Pooling"
  bottom: "conv5"
  top: "pool5"
  pooling_param {
    pool: MAX
    kernel_size: 3
    stride: 2
  }
}
layer {
  name: "fc6"
  type: "InnerProduct"
  bottom: "pool5"
  top: "fc6"
  param {
    lr_mult: 1
    decay_mult: 1
  }
  param {
    lr_mult: 2
    decay_mult: 0
  }
  inner_product_param {
    num_output: 4096
    weight_filler {
      type: "gaussian"
      std: 0.005
    }
    bias_filler {
      type: "constant"
      value: 0.1
    }
  }
}
layer {
  name: "relu6"
  type: "ReLU"
  bottom: "fc6"
  top: "fc6"
}
layer {
  name: "drop6"
  type: "Dropout"
  bottom: "fc6"
  top: "fc6"
  dropout_param {
    dropout_ratio: 0.5
  }
}
layer {
  name: "fc7"
  type: "InnerProduct"
  bottom: "fc6"
  top: "fc7"
  param {
    lr_mult: 1
    decay_mult: 1
  }
  param {
    lr_mult: 2
    decay_mult: 0
  }
  inner_product_param {
    num_output: 4096
    weight_filler {
      type: "gaussian"
      std: 0.005
    }
    bias_filler {
      type: "constant"
      value: 0.1
    }
  }
}
layer {
  name: "relu7"
  type: "ReLU"
  bottom: "fc7"
  top: "fc7"
}
layer {
  name: "drop7"
  type: "Dropout"
  bottom: "fc7"
  top: "fc7"
  dropout_param {
    dropout_ratio: 0.5
  }
}
layer {
  name: "fc8_plantvillage"
  type: "InnerProduct"
  bottom: "fc7"
  top: "fc8_plantvillage"
  param {
    lr_mult: 1
    decay_mult: 1
  }
  param {
    lr_mult: 2
    decay_mult: 0
  }
  inner_product_param {
    num_output: 38
    weight_filler {
      type: "gaussian"
      std: 0.01
    }
    bias_filler {
      type: "constant"
      value: 0
    }
  }
}
layer {
  name: "prob"
  type: "Softmax"
  bottom: "fc8_plantvillage"
  top: "prob"
  include {
    phase: TEST
  }
}
layer {
  name: "hdf5out"
  type: "HDF5Output"
  bottom: "prob"
  bottom: "label"
  include {
    phase: TEST
  }
  hdf5_output_param {
    file_name: "hdf5_dumps/iter_3900.h5"
  }
}
layer {
  name: "loss"
  type: "SoftmaxWithLoss"
  bottom: "fc8_plantvillage"
  bottom: "label"
  top: "loss"
}
layer {
  name: "accuracy"
  type: "Accuracy"
  bottom: "fc8_plantvillage"
  bottom: "label"
  top: "accuracy"
  include {
    phase: TEST
  }
}
I0403 14:42:34.532845  1839 layer_factory.hpp:77] Creating layer data
I0403 14:42:34.533499  1839 net.cpp:91] Creating Layer data
I0403 14:42:34.533534  1839 net.cpp:399] data -> data
I0403 14:42:34.533583  1839 net.cpp:399] data -> label
I0403 14:42:34.533619  1839 data_transformer.cpp:25] Loading mean file from: /home/mohanty/data/final_dataset/lmdb/color-60-40/mean.binaryproto
I0403 14:42:34.540405  1842 db_lmdb.cpp:38] Opened lmdb /home/mohanty/data/final_dataset/lmdb/color-60-40/test_db
I0403 14:42:34.561130  1839 data_layer.cpp:41] output data size: 100,3,227,227
I0403 14:42:34.679718  1839 net.cpp:141] Setting up data
I0403 14:42:34.679818  1839 net.cpp:148] Top shape: 100 3 227 227 (15458700)
I0403 14:42:34.679841  1839 net.cpp:148] Top shape: 100 (100)
I0403 14:42:34.679857  1839 net.cpp:156] Memory required for data: 61835200
I0403 14:42:34.679884  1839 layer_factory.hpp:77] Creating layer label_data_1_split
I0403 14:42:34.679909  1839 net.cpp:91] Creating Layer label_data_1_split
I0403 14:42:34.679926  1839 net.cpp:425] label_data_1_split <- label
I0403 14:42:34.679958  1839 net.cpp:399] label_data_1_split -> label_data_1_split_0
I0403 14:42:34.679986  1839 net.cpp:399] label_data_1_split -> label_data_1_split_1
I0403 14:42:34.680006  1839 net.cpp:399] label_data_1_split -> label_data_1_split_2
I0403 14:42:34.680068  1839 net.cpp:141] Setting up label_data_1_split
I0403 14:42:34.680093  1839 net.cpp:148] Top shape: 100 (100)
I0403 14:42:34.680109  1839 net.cpp:148] Top shape: 100 (100)
I0403 14:42:34.680125  1839 net.cpp:148] Top shape: 100 (100)
I0403 14:42:34.680140  1839 net.cpp:156] Memory required for data: 61836400
I0403 14:42:34.680155  1839 layer_factory.hpp:77] Creating layer conv1
I0403 14:42:34.680187  1839 net.cpp:91] Creating Layer conv1
I0403 14:42:34.680205  1839 net.cpp:425] conv1 <- data
I0403 14:42:34.680225  1839 net.cpp:399] conv1 -> conv1
I0403 14:42:34.820647  1839 net.cpp:141] Setting up conv1
I0403 14:42:34.820693  1839 net.cpp:148] Top shape: 100 96 55 55 (29040000)
I0403 14:42:34.820713  1839 net.cpp:156] Memory required for data: 177996400
I0403 14:42:34.820760  1839 layer_factory.hpp:77] Creating layer relu1
I0403 14:42:34.820798  1839 net.cpp:91] Creating Layer relu1
I0403 14:42:34.820823  1839 net.cpp:425] relu1 <- conv1
I0403 14:42:34.820848  1839 net.cpp:386] relu1 -> conv1 (in-place)
I0403 14:42:34.821127  1839 net.cpp:141] Setting up relu1
I0403 14:42:34.821156  1839 net.cpp:148] Top shape: 100 96 55 55 (29040000)
I0403 14:42:34.821173  1839 net.cpp:156] Memory required for data: 294156400
I0403 14:42:34.821221  1839 layer_factory.hpp:77] Creating layer norm1
I0403 14:42:34.821255  1839 net.cpp:91] Creating Layer norm1
I0403 14:42:34.821275  1839 net.cpp:425] norm1 <- conv1
I0403 14:42:34.821295  1839 net.cpp:399] norm1 -> norm1
I0403 14:42:34.821619  1839 net.cpp:141] Setting up norm1
I0403 14:42:34.821647  1839 net.cpp:148] Top shape: 100 96 55 55 (29040000)
I0403 14:42:34.821665  1839 net.cpp:156] Memory required for data: 410316400
I0403 14:42:34.821681  1839 layer_factory.hpp:77] Creating layer pool1
I0403 14:42:34.821707  1839 net.cpp:91] Creating Layer pool1
I0403 14:42:34.821724  1839 net.cpp:425] pool1 <- norm1
I0403 14:42:34.821743  1839 net.cpp:399] pool1 -> pool1
I0403 14:42:34.821812  1839 net.cpp:141] Setting up pool1
I0403 14:42:34.821837  1839 net.cpp:148] Top shape: 100 96 27 27 (6998400)
I0403 14:42:34.821853  1839 net.cpp:156] Memory required for data: 438310000
I0403 14:42:34.821871  1839 layer_factory.hpp:77] Creating layer conv2
I0403 14:42:34.821897  1839 net.cpp:91] Creating Layer conv2
I0403 14:42:34.821913  1839 net.cpp:425] conv2 <- pool1
I0403 14:42:34.821933  1839 net.cpp:399] conv2 -> conv2
I0403 14:42:34.837335  1839 net.cpp:141] Setting up conv2
I0403 14:42:34.837389  1839 net.cpp:148] Top shape: 100 256 27 27 (18662400)
I0403 14:42:34.837406  1839 net.cpp:156] Memory required for data: 512959600
I0403 14:42:34.837430  1839 layer_factory.hpp:77] Creating layer relu2
I0403 14:42:34.837450  1839 net.cpp:91] Creating Layer relu2
I0403 14:42:34.837466  1839 net.cpp:425] relu2 <- conv2
I0403 14:42:34.837486  1839 net.cpp:386] relu2 -> conv2 (in-place)
I0403 14:42:34.837754  1839 net.cpp:141] Setting up relu2
I0403 14:42:34.837781  1839 net.cpp:148] Top shape: 100 256 27 27 (18662400)
I0403 14:42:34.837796  1839 net.cpp:156] Memory required for data: 587609200
I0403 14:42:34.837812  1839 layer_factory.hpp:77] Creating layer norm2
I0403 14:42:34.837834  1839 net.cpp:91] Creating Layer norm2
I0403 14:42:34.837852  1839 net.cpp:425] norm2 <- conv2
I0403 14:42:34.837869  1839 net.cpp:399] norm2 -> norm2
I0403 14:42:34.838063  1839 net.cpp:141] Setting up norm2
I0403 14:42:34.838088  1839 net.cpp:148] Top shape: 100 256 27 27 (18662400)
I0403 14:42:34.838104  1839 net.cpp:156] Memory required for data: 662258800
I0403 14:42:34.838119  1839 layer_factory.hpp:77] Creating layer pool2
I0403 14:42:34.838140  1839 net.cpp:91] Creating Layer pool2
I0403 14:42:34.838155  1839 net.cpp:425] pool2 <- norm2
I0403 14:42:34.838173  1839 net.cpp:399] pool2 -> pool2
I0403 14:42:34.838224  1839 net.cpp:141] Setting up pool2
I0403 14:42:34.838251  1839 net.cpp:148] Top shape: 100 256 13 13 (4326400)
I0403 14:42:34.838268  1839 net.cpp:156] Memory required for data: 679564400
I0403 14:42:34.838284  1839 layer_factory.hpp:77] Creating layer conv3
I0403 14:42:34.838306  1839 net.cpp:91] Creating Layer conv3
I0403 14:42:34.838323  1839 net.cpp:425] conv3 <- pool2
I0403 14:42:34.838343  1839 net.cpp:399] conv3 -> conv3
I0403 14:42:34.884202  1839 net.cpp:141] Setting up conv3
I0403 14:42:34.884300  1839 net.cpp:148] Top shape: 100 384 13 13 (6489600)
I0403 14:42:34.884320  1839 net.cpp:156] Memory required for data: 705522800
I0403 14:42:34.884347  1839 layer_factory.hpp:77] Creating layer relu3
I0403 14:42:34.884371  1839 net.cpp:91] Creating Layer relu3
I0403 14:42:34.884389  1839 net.cpp:425] relu3 <- conv3
I0403 14:42:34.884409  1839 net.cpp:386] relu3 -> conv3 (in-place)
I0403 14:42:34.884685  1839 net.cpp:141] Setting up relu3
I0403 14:42:34.884712  1839 net.cpp:148] Top shape: 100 384 13 13 (6489600)
I0403 14:42:34.884728  1839 net.cpp:156] Memory required for data: 731481200
I0403 14:42:34.884745  1839 layer_factory.hpp:77] Creating layer conv4
I0403 14:42:34.884770  1839 net.cpp:91] Creating Layer conv4
I0403 14:42:34.884788  1839 net.cpp:425] conv4 <- conv3
I0403 14:42:34.884809  1839 net.cpp:399] conv4 -> conv4
I0403 14:42:34.916410  1839 net.cpp:141] Setting up conv4
I0403 14:42:34.916448  1839 net.cpp:148] Top shape: 100 384 13 13 (6489600)
I0403 14:42:34.916496  1839 net.cpp:156] Memory required for data: 757439600
I0403 14:42:34.916518  1839 layer_factory.hpp:77] Creating layer relu4
I0403 14:42:34.916538  1839 net.cpp:91] Creating Layer relu4
I0403 14:42:34.916556  1839 net.cpp:425] relu4 <- conv4
I0403 14:42:34.916579  1839 net.cpp:386] relu4 -> conv4 (in-place)
I0403 14:42:34.916868  1839 net.cpp:141] Setting up relu4
I0403 14:42:34.916896  1839 net.cpp:148] Top shape: 100 384 13 13 (6489600)
I0403 14:42:34.916914  1839 net.cpp:156] Memory required for data: 783398000
I0403 14:42:34.916930  1839 layer_factory.hpp:77] Creating layer conv5
I0403 14:42:34.916960  1839 net.cpp:91] Creating Layer conv5
I0403 14:42:34.916988  1839 net.cpp:425] conv5 <- conv4
I0403 14:42:34.917016  1839 net.cpp:399] conv5 -> conv5
I0403 14:42:34.938915  1839 net.cpp:141] Setting up conv5
I0403 14:42:34.938983  1839 net.cpp:148] Top shape: 100 256 13 13 (4326400)
I0403 14:42:34.939002  1839 net.cpp:156] Memory required for data: 800703600
I0403 14:42:34.939028  1839 layer_factory.hpp:77] Creating layer relu5
I0403 14:42:34.939052  1839 net.cpp:91] Creating Layer relu5
I0403 14:42:34.939074  1839 net.cpp:425] relu5 <- conv5
I0403 14:42:34.939093  1839 net.cpp:386] relu5 -> conv5 (in-place)
I0403 14:42:34.939402  1839 net.cpp:141] Setting up relu5
I0403 14:42:34.939431  1839 net.cpp:148] Top shape: 100 256 13 13 (4326400)
I0403 14:42:34.939448  1839 net.cpp:156] Memory required for data: 818009200
I0403 14:42:34.939465  1839 layer_factory.hpp:77] Creating layer pool5
I0403 14:42:34.939491  1839 net.cpp:91] Creating Layer pool5
I0403 14:42:34.939509  1839 net.cpp:425] pool5 <- conv5
I0403 14:42:34.939528  1839 net.cpp:399] pool5 -> pool5
I0403 14:42:34.939592  1839 net.cpp:141] Setting up pool5
I0403 14:42:34.939617  1839 net.cpp:148] Top shape: 100 256 6 6 (921600)
I0403 14:42:34.939632  1839 net.cpp:156] Memory required for data: 821695600
I0403 14:42:34.939648  1839 layer_factory.hpp:77] Creating layer fc6
I0403 14:42:34.939677  1839 net.cpp:91] Creating Layer fc6
I0403 14:42:34.939695  1839 net.cpp:425] fc6 <- pool5
I0403 14:42:34.939718  1839 net.cpp:399] fc6 -> fc6
I0403 14:42:36.477681  1839 net.cpp:141] Setting up fc6
I0403 14:42:36.477756  1839 net.cpp:148] Top shape: 100 4096 (409600)
I0403 14:42:36.477771  1839 net.cpp:156] Memory required for data: 823334000
I0403 14:42:36.477792  1839 layer_factory.hpp:77] Creating layer relu6
I0403 14:42:36.477813  1839 net.cpp:91] Creating Layer relu6
I0403 14:42:36.477830  1839 net.cpp:425] relu6 <- fc6
I0403 14:42:36.477849  1839 net.cpp:386] relu6 -> fc6 (in-place)
I0403 14:42:36.478060  1839 net.cpp:141] Setting up relu6
I0403 14:42:36.478085  1839 net.cpp:148] Top shape: 100 4096 (409600)
I0403 14:42:36.478099  1839 net.cpp:156] Memory required for data: 824972400
I0403 14:42:36.478113  1839 layer_factory.hpp:77] Creating layer drop6
I0403 14:42:36.478132  1839 net.cpp:91] Creating Layer drop6
I0403 14:42:36.478145  1839 net.cpp:425] drop6 <- fc6
I0403 14:42:36.478164  1839 net.cpp:386] drop6 -> fc6 (in-place)
I0403 14:42:36.478214  1839 net.cpp:141] Setting up drop6
I0403 14:42:36.478238  1839 net.cpp:148] Top shape: 100 4096 (409600)
I0403 14:42:36.478260  1839 net.cpp:156] Memory required for data: 826610800
I0403 14:42:36.478274  1839 layer_factory.hpp:77] Creating layer fc7
I0403 14:42:36.478293  1839 net.cpp:91] Creating Layer fc7
I0403 14:42:36.478308  1839 net.cpp:425] fc7 <- fc6
I0403 14:42:36.478327  1839 net.cpp:399] fc7 -> fc7
I0403 14:42:37.159446  1839 net.cpp:141] Setting up fc7
I0403 14:42:37.159502  1839 net.cpp:148] Top shape: 100 4096 (409600)
I0403 14:42:37.159518  1839 net.cpp:156] Memory required for data: 828249200
I0403 14:42:37.159539  1839 layer_factory.hpp:77] Creating layer relu7
I0403 14:42:37.159561  1839 net.cpp:91] Creating Layer relu7
I0403 14:42:37.159579  1839 net.cpp:425] relu7 <- fc7
I0403 14:42:37.159600  1839 net.cpp:386] relu7 -> fc7 (in-place)
I0403 14:42:37.160015  1839 net.cpp:141] Setting up relu7
I0403 14:42:37.160042  1839 net.cpp:148] Top shape: 100 4096 (409600)
I0403 14:42:37.160080  1839 net.cpp:156] Memory required for data: 829887600
I0403 14:42:37.160096  1839 layer_factory.hpp:77] Creating layer drop7
I0403 14:42:37.160115  1839 net.cpp:91] Creating Layer drop7
I0403 14:42:37.160130  1839 net.cpp:425] drop7 <- fc7
I0403 14:42:37.160151  1839 net.cpp:386] drop7 -> fc7 (in-place)
I0403 14:42:37.160193  1839 net.cpp:141] Setting up drop7
I0403 14:42:37.160218  1839 net.cpp:148] Top shape: 100 4096 (409600)
I0403 14:42:37.160233  1839 net.cpp:156] Memory required for data: 831526000
I0403 14:42:37.160255  1839 layer_factory.hpp:77] Creating layer fc8_plantvillage
I0403 14:42:37.160276  1839 net.cpp:91] Creating Layer fc8_plantvillage
I0403 14:42:37.160292  1839 net.cpp:425] fc8_plantvillage <- fc7
I0403 14:42:37.160312  1839 net.cpp:399] fc8_plantvillage -> fc8_plantvillage
I0403 14:42:37.167059  1839 net.cpp:141] Setting up fc8_plantvillage
I0403 14:42:37.167088  1839 net.cpp:148] Top shape: 100 38 (3800)
I0403 14:42:37.167103  1839 net.cpp:156] Memory required for data: 831541200
I0403 14:42:37.167120  1839 layer_factory.hpp:77] Creating layer fc8_plantvillage_fc8_plantvillage_0_split
I0403 14:42:37.167141  1839 net.cpp:91] Creating Layer fc8_plantvillage_fc8_plantvillage_0_split
I0403 14:42:37.167157  1839 net.cpp:425] fc8_plantvillage_fc8_plantvillage_0_split <- fc8_plantvillage
I0403 14:42:37.167176  1839 net.cpp:399] fc8_plantvillage_fc8_plantvillage_0_split -> fc8_plantvillage_fc8_plantvillage_0_split_0
I0403 14:42:37.167194  1839 net.cpp:399] fc8_plantvillage_fc8_plantvillage_0_split -> fc8_plantvillage_fc8_plantvillage_0_split_1
I0403 14:42:37.167214  1839 net.cpp:399] fc8_plantvillage_fc8_plantvillage_0_split -> fc8_plantvillage_fc8_plantvillage_0_split_2
I0403 14:42:37.167297  1839 net.cpp:141] Setting up fc8_plantvillage_fc8_plantvillage_0_split
I0403 14:42:37.167321  1839 net.cpp:148] Top shape: 100 38 (3800)
I0403 14:42:37.167337  1839 net.cpp:148] Top shape: 100 38 (3800)
I0403 14:42:37.167353  1839 net.cpp:148] Top shape: 100 38 (3800)
I0403 14:42:37.167367  1839 net.cpp:156] Memory required for data: 831586800
I0403 14:42:37.167382  1839 layer_factory.hpp:77] Creating layer prob
I0403 14:42:37.167399  1839 net.cpp:91] Creating Layer prob
I0403 14:42:37.167415  1839 net.cpp:425] prob <- fc8_plantvillage_fc8_plantvillage_0_split_0
I0403 14:42:37.167433  1839 net.cpp:399] prob -> prob
I0403 14:42:37.167670  1839 net.cpp:141] Setting up prob
I0403 14:42:37.167695  1839 net.cpp:148] Top shape: 100 38 (3800)
I0403 14:42:37.167711  1839 net.cpp:156] Memory required for data: 831602000
I0403 14:42:37.167726  1839 layer_factory.hpp:77] Creating layer hdf5out
I0403 14:42:37.167745  1839 net.cpp:91] Creating Layer hdf5out
I0403 14:42:37.167773  1839 net.cpp:425] hdf5out <- prob
I0403 14:42:37.167788  1839 net.cpp:425] hdf5out <- label_data_1_split_0
I0403 14:42:37.170150  1839 net.cpp:141] Setting up hdf5out
…
