…
I0403 14:57:02.480751  2195 net.cpp:313] The NetState phase (1) differed from the phase (0) specified by a rule in layer data
I0403 14:57:02.481055  2195 net.cpp:49] Initializing net from parameters: 
state {
  phase: TEST
}
layer {
  name: "data"
  type: "Data"
  top: "data"
  top: "label"
  include {
    phase: TEST
  }
  transform_param {
    crop_size: 227
    mean_file: "/home/mohanty/data/final_dataset/lmdb/color-60-40/mean.binaryproto"
  }
  data_param {
    source: "/home/mohanty/data/final_dataset/lmdb/color-60-40/test_db"
    batch_size: 100
    backend: LMDB
  }
}
layer {
  name: "conv1"
  type: "Convolution"
  bottom: "data"
  top: "conv1"
  param {
    lr_mult: 1
    decay_mult: 1
  }
  param {
    lr_mult: 2
    decay_mult: 0
  }
  convolution_param {
    num_output: 96
    kernel_size: 11
    stride: 4
    weight_filler {
      type: "gaussian"
      std: 0.01
    }
    bias_filler {
      type: "constant"
      value: 0
    }
  }
}
layer {
  name: "relu1"
  type: "ReLU"
  bottom: "conv1"
  top: "conv1"
}
layer {
  name: "norm1"
  type: "LRN"
  bottom: "conv1"
  top: "norm1"
  lrn_param {
    local_size: 5
    alpha: 0.0001
    beta: 0.75
  }
}
layer {
  name: "pool1"
  type: "Pooling"
  bottom: "norm1"
  top: "pool1"
  pooling_param {
    pool: MAX
    kernel_size: 3
    stride: 2
  }
}
layer {
  name: "conv2"
  type: "Convolution"
  bottom: "pool1"
  top: "conv2"
  param {
    lr_mult: 1
    decay_mult: 1
  }
  param {
    lr_mult: 2
    decay_mult: 0
  }
  convolution_param {
    num_output: 256
    pad: 2
    kernel_size: 5
    group: 2
    weight_filler {
      type: "gaussian"
      std: 0.01
    }
    bias_filler {
      type: "constant"
      value: 0.1
    }
  }
}
layer {
  name: "relu2"
  type: "ReLU"
  bottom: "conv2"
  top: "conv2"
}
layer {
  name: "norm2"
  type: "LRN"
  bottom: "conv2"
  top: "norm2"
  lrn_param {
    local_size: 5
    alpha: 0.0001
    beta: 0.75
  }
}
layer {
  name: "pool2"
  type: "Pooling"
  bottom: "norm2"
  top: "pool2"
  pooling_param {
    pool: MAX
    kernel_size: 3
    stride: 2
  }
}
layer {
  name: "conv3"
  type: "Convolution"
  bottom: "pool2"
  top: "conv3"
  param {
    lr_mult: 1
    decay_mult: 1
  }
  param {
    lr_mult: 2
    decay_mult: 0
  }
  convolution_param {
    num_output: 384
    pad: 1
    kernel_size: 3
    weight_filler {
      type: "gaussian"
      std: 0.01
    }
    bias_filler {
      type: "constant"
      value: 0
    }
  }
}
layer {
  name: "relu3"
  type: "ReLU"
  bottom: "conv3"
  top: "conv3"
}
layer {
  name: "conv4"
  type: "Convolution"
  bottom: "conv3"
  top: "conv4"
  param {
    lr_mult: 1
    decay_mult: 1
  }
  param {
    lr_mult: 2
    decay_mult: 0
  }
  convolution_param {
    num_output: 384
    pad: 1
    kernel_size: 3
    group: 2
    weight_filler {
      type: "gaussian"
      std: 0.01
    }
    bias_filler {
      type: "constant"
      value: 0.1
    }
  }
}
layer {
  name: "relu4"
  type: "ReLU"
  bottom: "conv4"
  top: "conv4"
}
layer {
  name: "conv5"
  type: "Convolution"
  bottom: "conv4"
  top: "conv5"
  param {
    lr_mult: 1
    decay_mult: 1
  }
  param {
    lr_mult: 2
    decay_mult: 0
  }
  convolution_param {
    num_output: 256
    pad: 1
    kernel_size: 3
    group: 2
    weight_filler {
      type: "gaussian"
      std: 0.01
    }
    bias_filler {
      type: "constant"
      value: 0.1
    }
  }
}
layer {
  name: "relu5"
  type: "ReLU"
  bottom: "conv5"
  top: "conv5"
}
layer {
  name: "pool5"
  type: "Pooling"
  bottom: "conv5"
  top: "pool5"
  pooling_param {
    pool: MAX
    kernel_size: 3
    stride: 2
  }
}
layer {
  name: "fc6"
  type: "InnerProduct"
  bottom: "pool5"
  top: "fc6"
  param {
    lr_mult: 1
    decay_mult: 1
  }
  param {
    lr_mult: 2
    decay_mult: 0
  }
  inner_product_param {
    num_output: 4096
    weight_filler {
      type: "gaussian"
      std: 0.005
    }
    bias_filler {
      type: "constant"
      value: 0.1
    }
  }
}
layer {
  name: "relu6"
  type: "ReLU"
  bottom: "fc6"
  top: "fc6"
}
layer {
  name: "drop6"
  type: "Dropout"
  bottom: "fc6"
  top: "fc6"
  dropout_param {
    dropout_ratio: 0.5
  }
}
layer {
  name: "fc7"
  type: "InnerProduct"
  bottom: "fc6"
  top: "fc7"
  param {
    lr_mult: 1
    decay_mult: 1
  }
  param {
    lr_mult: 2
    decay_mult: 0
  }
  inner_product_param {
    num_output: 4096
    weight_filler {
      type: "gaussian"
      std: 0.005
    }
    bias_filler {
      type: "constant"
      value: 0.1
    }
  }
}
layer {
  name: "relu7"
  type: "ReLU"
  bottom: "fc7"
  top: "fc7"
}
layer {
  name: "drop7"
  type: "Dropout"
  bottom: "fc7"
  top: "fc7"
  dropout_param {
    dropout_ratio: 0.5
  }
}
layer {
  name: "fc8_plantvillage"
  type: "InnerProduct"
  bottom: "fc7"
  top: "fc8_plantvillage"
  param {
    lr_mult: 1
    decay_mult: 1
  }
  param {
    lr_mult: 2
    decay_mult: 0
  }
  inner_product_param {
    num_output: 38
    weight_filler {
      type: "gaussian"
      std: 0.01
    }
    bias_filler {
      type: "constant"
      value: 0
    }
  }
}
layer {
  name: "prob"
  type: "Softmax"
  bottom: "fc8_plantvillage"
  top: "prob"
  include {
    phase: TEST
  }
}
layer {
  name: "hdf5out"
  type: "HDF5Output"
  bottom: "prob"
  bottom: "label"
  include {
    phase: TEST
  }
  hdf5_output_param {
    file_name: "hdf5_dumps/iter_9756.h5"
  }
}
layer {
  name: "loss"
  type: "SoftmaxWithLoss"
  bottom: "fc8_plantvillage"
  bottom: "label"
  top: "loss"
}
layer {
  name: "accuracy"
  type: "Accuracy"
  bottom: "fc8_plantvillage"
  bottom: "label"
  top: "accuracy"
  include {
    phase: TEST
  }
}
I0403 14:57:02.481582  2195 layer_factory.hpp:77] Creating layer data
I0403 14:57:02.482210  2195 net.cpp:91] Creating Layer data
I0403 14:57:02.482254  2195 net.cpp:399] data -> data
I0403 14:57:02.482308  2195 net.cpp:399] data -> label
I0403 14:57:02.482344  2195 data_transformer.cpp:25] Loading mean file from: /home/mohanty/data/final_dataset/lmdb/color-60-40/mean.binaryproto
I0403 14:57:02.485365  2198 db_lmdb.cpp:38] Opened lmdb /home/mohanty/data/final_dataset/lmdb/color-60-40/test_db
I0403 14:57:02.497100  2195 data_layer.cpp:41] output data size: 100,3,227,227
I0403 14:57:02.618382  2195 net.cpp:141] Setting up data
I0403 14:57:02.618490  2195 net.cpp:148] Top shape: 100 3 227 227 (15458700)
I0403 14:57:02.618513  2195 net.cpp:148] Top shape: 100 (100)
I0403 14:57:02.618530  2195 net.cpp:156] Memory required for data: 61835200
I0403 14:57:02.618556  2195 layer_factory.hpp:77] Creating layer label_data_1_split
I0403 14:57:02.618582  2195 net.cpp:91] Creating Layer label_data_1_split
I0403 14:57:02.618599  2195 net.cpp:425] label_data_1_split <- label
I0403 14:57:02.618630  2195 net.cpp:399] label_data_1_split -> label_data_1_split_0
I0403 14:57:02.618657  2195 net.cpp:399] label_data_1_split -> label_data_1_split_1
I0403 14:57:02.618679  2195 net.cpp:399] label_data_1_split -> label_data_1_split_2
I0403 14:57:02.618741  2195 net.cpp:141] Setting up label_data_1_split
I0403 14:57:02.618764  2195 net.cpp:148] Top shape: 100 (100)
I0403 14:57:02.618782  2195 net.cpp:148] Top shape: 100 (100)
I0403 14:57:02.618798  2195 net.cpp:148] Top shape: 100 (100)
I0403 14:57:02.618811  2195 net.cpp:156] Memory required for data: 61836400
I0403 14:57:02.618826  2195 layer_factory.hpp:77] Creating layer conv1
I0403 14:57:02.618859  2195 net.cpp:91] Creating Layer conv1
I0403 14:57:02.618877  2195 net.cpp:425] conv1 <- data
I0403 14:57:02.618896  2195 net.cpp:399] conv1 -> conv1
I0403 14:57:02.761641  2195 net.cpp:141] Setting up conv1
I0403 14:57:02.761723  2195 net.cpp:148] Top shape: 100 96 55 55 (29040000)
I0403 14:57:02.761741  2195 net.cpp:156] Memory required for data: 177996400
I0403 14:57:02.761772  2195 layer_factory.hpp:77] Creating layer relu1
I0403 14:57:02.761839  2195 net.cpp:91] Creating Layer relu1
I0403 14:57:02.761862  2195 net.cpp:425] relu1 <- conv1
I0403 14:57:02.761880  2195 net.cpp:386] relu1 -> conv1 (in-place)
I0403 14:57:02.762135  2195 net.cpp:141] Setting up relu1
I0403 14:57:02.762161  2195 net.cpp:148] Top shape: 100 96 55 55 (29040000)
I0403 14:57:02.762176  2195 net.cpp:156] Memory required for data: 294156400
I0403 14:57:02.762224  2195 layer_factory.hpp:77] Creating layer norm1
I0403 14:57:02.762253  2195 net.cpp:91] Creating Layer norm1
I0403 14:57:02.762280  2195 net.cpp:425] norm1 <- conv1
I0403 14:57:02.762302  2195 net.cpp:399] norm1 -> norm1
I0403 14:57:02.762601  2195 net.cpp:141] Setting up norm1
I0403 14:57:02.762629  2195 net.cpp:148] Top shape: 100 96 55 55 (29040000)
I0403 14:57:02.762644  2195 net.cpp:156] Memory required for data: 410316400
I0403 14:57:02.762660  2195 layer_factory.hpp:77] Creating layer pool1
I0403 14:57:02.762681  2195 net.cpp:91] Creating Layer pool1
I0403 14:57:02.762699  2195 net.cpp:425] pool1 <- norm1
I0403 14:57:02.762717  2195 net.cpp:399] pool1 -> pool1
I0403 14:57:02.762780  2195 net.cpp:141] Setting up pool1
I0403 14:57:02.762804  2195 net.cpp:148] Top shape: 100 96 27 27 (6998400)
I0403 14:57:02.762819  2195 net.cpp:156] Memory required for data: 438310000
I0403 14:57:02.762832  2195 layer_factory.hpp:77] Creating layer conv2
I0403 14:57:02.762856  2195 net.cpp:91] Creating Layer conv2
I0403 14:57:02.762872  2195 net.cpp:425] conv2 <- pool1
I0403 14:57:02.762890  2195 net.cpp:399] conv2 -> conv2
I0403 14:57:02.777654  2195 net.cpp:141] Setting up conv2
I0403 14:57:02.777689  2195 net.cpp:148] Top shape: 100 256 27 27 (18662400)
I0403 14:57:02.777706  2195 net.cpp:156] Memory required for data: 512959600
I0403 14:57:02.777727  2195 layer_factory.hpp:77] Creating layer relu2
I0403 14:57:02.777746  2195 net.cpp:91] Creating Layer relu2
I0403 14:57:02.777762  2195 net.cpp:425] relu2 <- conv2
I0403 14:57:02.777778  2195 net.cpp:386] relu2 -> conv2 (in-place)
I0403 14:57:02.778038  2195 net.cpp:141] Setting up relu2
I0403 14:57:02.778064  2195 net.cpp:148] Top shape: 100 256 27 27 (18662400)
I0403 14:57:02.778079  2195 net.cpp:156] Memory required for data: 587609200
I0403 14:57:02.778095  2195 layer_factory.hpp:77] Creating layer norm2
I0403 14:57:02.778113  2195 net.cpp:91] Creating Layer norm2
I0403 14:57:02.778131  2195 net.cpp:425] norm2 <- conv2
I0403 14:57:02.778148  2195 net.cpp:399] norm2 -> norm2
I0403 14:57:02.778328  2195 net.cpp:141] Setting up norm2
I0403 14:57:02.778353  2195 net.cpp:148] Top shape: 100 256 27 27 (18662400)
I0403 14:57:02.778368  2195 net.cpp:156] Memory required for data: 662258800
I0403 14:57:02.778383  2195 layer_factory.hpp:77] Creating layer pool2
I0403 14:57:02.778400  2195 net.cpp:91] Creating Layer pool2
I0403 14:57:02.778415  2195 net.cpp:425] pool2 <- norm2
I0403 14:57:02.778434  2195 net.cpp:399] pool2 -> pool2
I0403 14:57:02.778481  2195 net.cpp:141] Setting up pool2
I0403 14:57:02.778503  2195 net.cpp:148] Top shape: 100 256 13 13 (4326400)
I0403 14:57:02.778517  2195 net.cpp:156] Memory required for data: 679564400
I0403 14:57:02.778532  2195 layer_factory.hpp:77] Creating layer conv3
I0403 14:57:02.778553  2195 net.cpp:91] Creating Layer conv3
I0403 14:57:02.778568  2195 net.cpp:425] conv3 <- pool2
I0403 14:57:02.778585  2195 net.cpp:399] conv3 -> conv3
I0403 14:57:02.822710  2195 net.cpp:141] Setting up conv3
I0403 14:57:02.822778  2195 net.cpp:148] Top shape: 100 384 13 13 (6489600)
I0403 14:57:02.822795  2195 net.cpp:156] Memory required for data: 705522800
I0403 14:57:02.822824  2195 layer_factory.hpp:77] Creating layer relu3
I0403 14:57:02.822846  2195 net.cpp:91] Creating Layer relu3
I0403 14:57:02.822862  2195 net.cpp:425] relu3 <- conv3
I0403 14:57:02.822881  2195 net.cpp:386] relu3 -> conv3 (in-place)
I0403 14:57:02.823160  2195 net.cpp:141] Setting up relu3
I0403 14:57:02.823187  2195 net.cpp:148] Top shape: 100 384 13 13 (6489600)
I0403 14:57:02.823202  2195 net.cpp:156] Memory required for data: 731481200
I0403 14:57:02.823218  2195 layer_factory.hpp:77] Creating layer conv4
I0403 14:57:02.823245  2195 net.cpp:91] Creating Layer conv4
I0403 14:57:02.823261  2195 net.cpp:425] conv4 <- conv3
I0403 14:57:02.823295  2195 net.cpp:399] conv4 -> conv4
I0403 14:57:02.853916  2195 net.cpp:141] Setting up conv4
I0403 14:57:02.853974  2195 net.cpp:148] Top shape: 100 384 13 13 (6489600)
I0403 14:57:02.854022  2195 net.cpp:156] Memory required for data: 757439600
I0403 14:57:02.854044  2195 layer_factory.hpp:77] Creating layer relu4
I0403 14:57:02.854069  2195 net.cpp:91] Creating Layer relu4
I0403 14:57:02.854089  2195 net.cpp:425] relu4 <- conv4
I0403 14:57:02.854107  2195 net.cpp:386] relu4 -> conv4 (in-place)
I0403 14:57:02.854393  2195 net.cpp:141] Setting up relu4
I0403 14:57:02.854420  2195 net.cpp:148] Top shape: 100 384 13 13 (6489600)
I0403 14:57:02.854436  2195 net.cpp:156] Memory required for data: 783398000
I0403 14:57:02.854451  2195 layer_factory.hpp:77] Creating layer conv5
I0403 14:57:02.854477  2195 net.cpp:91] Creating Layer conv5
I0403 14:57:02.854496  2195 net.cpp:425] conv5 <- conv4
I0403 14:57:02.854518  2195 net.cpp:399] conv5 -> conv5
I0403 14:57:02.875192  2195 net.cpp:141] Setting up conv5
I0403 14:57:02.875238  2195 net.cpp:148] Top shape: 100 256 13 13 (4326400)
I0403 14:57:02.875254  2195 net.cpp:156] Memory required for data: 800703600
I0403 14:57:02.875282  2195 layer_factory.hpp:77] Creating layer relu5
I0403 14:57:02.875306  2195 net.cpp:91] Creating Layer relu5
I0403 14:57:02.875324  2195 net.cpp:425] relu5 <- conv5
I0403 14:57:02.875340  2195 net.cpp:386] relu5 -> conv5 (in-place)
I0403 14:57:02.875620  2195 net.cpp:141] Setting up relu5
I0403 14:57:02.875646  2195 net.cpp:148] Top shape: 100 256 13 13 (4326400)
I0403 14:57:02.875661  2195 net.cpp:156] Memory required for data: 818009200
I0403 14:57:02.875676  2195 layer_factory.hpp:77] Creating layer pool5
I0403 14:57:02.875702  2195 net.cpp:91] Creating Layer pool5
I0403 14:57:02.875720  2195 net.cpp:425] pool5 <- conv5
I0403 14:57:02.875741  2195 net.cpp:399] pool5 -> pool5
I0403 14:57:02.875798  2195 net.cpp:141] Setting up pool5
I0403 14:57:02.875821  2195 net.cpp:148] Top shape: 100 256 6 6 (921600)
I0403 14:57:02.875836  2195 net.cpp:156] Memory required for data: 821695600
I0403 14:57:02.875850  2195 layer_factory.hpp:77] Creating layer fc6
I0403 14:57:02.875880  2195 net.cpp:91] Creating Layer fc6
I0403 14:57:02.875897  2195 net.cpp:425] fc6 <- pool5
I0403 14:57:02.875915  2195 net.cpp:399] fc6 -> fc6
I0403 14:57:04.434048  2195 net.cpp:141] Setting up fc6
I0403 14:57:04.434092  2195 net.cpp:148] Top shape: 100 4096 (409600)
I0403 14:57:04.434108  2195 net.cpp:156] Memory required for data: 823334000
I0403 14:57:04.434128  2195 layer_factory.hpp:77] Creating layer relu6
I0403 14:57:04.434150  2195 net.cpp:91] Creating Layer relu6
I0403 14:57:04.434167  2195 net.cpp:425] relu6 <- fc6
I0403 14:57:04.434188  2195 net.cpp:386] relu6 -> fc6 (in-place)
I0403 14:57:04.434411  2195 net.cpp:141] Setting up relu6
I0403 14:57:04.434448  2195 net.cpp:148] Top shape: 100 4096 (409600)
I0403 14:57:04.434463  2195 net.cpp:156] Memory required for data: 824972400
I0403 14:57:04.434478  2195 layer_factory.hpp:77] Creating layer drop6
I0403 14:57:04.434499  2195 net.cpp:91] Creating Layer drop6
I0403 14:57:04.434516  2195 net.cpp:425] drop6 <- fc6
I0403 14:57:04.434535  2195 net.cpp:386] drop6 -> fc6 (in-place)
I0403 14:57:04.434587  2195 net.cpp:141] Setting up drop6
I0403 14:57:04.434612  2195 net.cpp:148] Top shape: 100 4096 (409600)
I0403 14:57:04.434625  2195 net.cpp:156] Memory required for data: 826610800
I0403 14:57:04.434640  2195 layer_factory.hpp:77] Creating layer fc7
I0403 14:57:04.434661  2195 net.cpp:91] Creating Layer fc7
I0403 14:57:04.434676  2195 net.cpp:425] fc7 <- fc6
I0403 14:57:04.434700  2195 net.cpp:399] fc7 -> fc7
I0403 14:57:05.132823  2195 net.cpp:141] Setting up fc7
I0403 14:57:05.132866  2195 net.cpp:148] Top shape: 100 4096 (409600)
I0403 14:57:05.132882  2195 net.cpp:156] Memory required for data: 828249200
I0403 14:57:05.132905  2195 layer_factory.hpp:77] Creating layer relu7
I0403 14:57:05.132930  2195 net.cpp:91] Creating Layer relu7
I0403 14:57:05.132949  2195 net.cpp:425] relu7 <- fc7
I0403 14:57:05.132969  2195 net.cpp:386] relu7 -> fc7 (in-place)
I0403 14:57:05.133393  2195 net.cpp:141] Setting up relu7
I0403 14:57:05.133419  2195 net.cpp:148] Top shape: 100 4096 (409600)
I0403 14:57:05.133453  2195 net.cpp:156] Memory required for data: 829887600
I0403 14:57:05.133469  2195 layer_factory.hpp:77] Creating layer drop7
I0403 14:57:05.133491  2195 net.cpp:91] Creating Layer drop7
I0403 14:57:05.133508  2195 net.cpp:425] drop7 <- fc7
I0403 14:57:05.133525  2195 net.cpp:386] drop7 -> fc7 (in-place)
I0403 14:57:05.133571  2195 net.cpp:141] Setting up drop7
I0403 14:57:05.133594  2195 net.cpp:148] Top shape: 100 4096 (409600)
I0403 14:57:05.133608  2195 net.cpp:156] Memory required for data: 831526000
I0403 14:57:05.133623  2195 layer_factory.hpp:77] Creating layer fc8_plantvillage
I0403 14:57:05.133642  2195 net.cpp:91] Creating Layer fc8_plantvillage
I0403 14:57:05.133658  2195 net.cpp:425] fc8_plantvillage <- fc7
I0403 14:57:05.133678  2195 net.cpp:399] fc8_plantvillage -> fc8_plantvillage
I0403 14:57:05.140673  2195 net.cpp:141] Setting up fc8_plantvillage
I0403 14:57:05.140702  2195 net.cpp:148] Top shape: 100 38 (3800)
I0403 14:57:05.140718  2195 net.cpp:156] Memory required for data: 831541200
I0403 14:57:05.140736  2195 layer_factory.hpp:77] Creating layer fc8_plantvillage_fc8_plantvillage_0_split
I0403 14:57:05.140758  2195 net.cpp:91] Creating Layer fc8_plantvillage_fc8_plantvillage_0_split
I0403 14:57:05.140774  2195 net.cpp:425] fc8_plantvillage_fc8_plantvillage_0_split <- fc8_plantvillage
I0403 14:57:05.140794  2195 net.cpp:399] fc8_plantvillage_fc8_plantvillage_0_split -> fc8_plantvillage_fc8_plantvillage_0_split_0
I0403 14:57:05.140812  2195 net.cpp:399] fc8_plantvillage_fc8_plantvillage_0_split -> fc8_plantvillage_fc8_plantvillage_0_split_1
I0403 14:57:05.140836  2195 net.cpp:399] fc8_plantvillage_fc8_plantvillage_0_split -> fc8_plantvillage_fc8_plantvillage_0_split_2
I0403 14:57:05.140913  2195 net.cpp:141] Setting up fc8_plantvillage_fc8_plantvillage_0_split
I0403 14:57:05.140936  2195 net.cpp:148] Top shape: 100 38 (3800)
I0403 14:57:05.140954  2195 net.cpp:148] Top shape: 100 38 (3800)
I0403 14:57:05.140970  2195 net.cpp:148] Top shape: 100 38 (3800)
I0403 14:57:05.140985  2195 net.cpp:156] Memory required for data: 831586800
I0403 14:57:05.140998  2195 layer_factory.hpp:77] Creating layer prob
I0403 14:57:05.141017  2195 net.cpp:91] Creating Layer prob
I0403 14:57:05.141033  2195 net.cpp:425] prob <- fc8_plantvillage_fc8_plantvillage_0_split_0
I0403 14:57:05.141053  2195 net.cpp:399] prob -> prob
I0403 14:57:05.141289  2195 net.cpp:141] Setting up prob
I0403 14:57:05.141314  2195 net.cpp:148] Top shape: 100 38 (3800)
I0403 14:57:05.141330  2195 net.cpp:156] Memory required for data: 831602000
I0403 14:57:05.141345  2195 layer_factory.hpp:77] Creating layer hdf5out
I0403 14:57:05.141366  2195 net.cpp:91] Creating Layer hdf5out
I0403 14:57:05.141383  2195 net.cpp:425] hdf5out <- prob
I0403 14:57:05.141399  2195 net.cpp:425] hdf5out <- label_data_1_split_0
I0403 14:57:05.143707  2195 net.cpp:141] Setting up hdf5out
…
