…
I0403 14:37:14.454145  1658 net.cpp:313] The NetState phase (1) differed from the phase (0) specified by a rule in layer data
I0403 14:37:14.454465  1658 net.cpp:49] Initializing net from parameters: 
state {
  phase: TEST
}
layer {
  name: "data"
  type: "Data"
  top: "data"
  top: "label"
  include {
    phase: TEST
  }
  transform_param {
    crop_size: 227
    mean_file: "/home/mohanty/data/final_dataset/lmdb/color-60-40/mean.binaryproto"
  }
  data_param {
    source: "/home/mohanty/data/final_dataset/lmdb/color-60-40/test_db"
    batch_size: 100
    backend: LMDB
  }
}
layer {
  name: "conv1"
  type: "Convolution"
  bottom: "data"
  top: "conv1"
  param {
    lr_mult: 1
    decay_mult: 1
  }
  param {
    lr_mult: 2
    decay_mult: 0
  }
  convolution_param {
    num_output: 96
    kernel_size: 11
    stride: 4
    weight_filler {
      type: "gaussian"
      std: 0.01
    }
    bias_filler {
      type: "constant"
      value: 0
    }
  }
}
layer {
  name: "relu1"
  type: "ReLU"
  bottom: "conv1"
  top: "conv1"
}
layer {
  name: "norm1"
  type: "LRN"
  bottom: "conv1"
  top: "norm1"
  lrn_param {
    local_size: 5
    alpha: 0.0001
    beta: 0.75
  }
}
layer {
  name: "pool1"
  type: "Pooling"
  bottom: "norm1"
  top: "pool1"
  pooling_param {
    pool: MAX
    kernel_size: 3
    stride: 2
  }
}
layer {
  name: "conv2"
  type: "Convolution"
  bottom: "pool1"
  top: "conv2"
  param {
    lr_mult: 1
    decay_mult: 1
  }
  param {
    lr_mult: 2
    decay_mult: 0
  }
  convolution_param {
    num_output: 256
    pad: 2
    kernel_size: 5
    group: 2
    weight_filler {
      type: "gaussian"
      std: 0.01
    }
    bias_filler {
      type: "constant"
      value: 0.1
    }
  }
}
layer {
  name: "relu2"
  type: "ReLU"
  bottom: "conv2"
  top: "conv2"
}
layer {
  name: "norm2"
  type: "LRN"
  bottom: "conv2"
  top: "norm2"
  lrn_param {
    local_size: 5
    alpha: 0.0001
    beta: 0.75
  }
}
layer {
  name: "pool2"
  type: "Pooling"
  bottom: "norm2"
  top: "pool2"
  pooling_param {
    pool: MAX
    kernel_size: 3
    stride: 2
  }
}
layer {
  name: "conv3"
  type: "Convolution"
  bottom: "pool2"
  top: "conv3"
  param {
    lr_mult: 1
    decay_mult: 1
  }
  param {
    lr_mult: 2
    decay_mult: 0
  }
  convolution_param {
    num_output: 384
    pad: 1
    kernel_size: 3
    weight_filler {
      type: "gaussian"
      std: 0.01
    }
    bias_filler {
      type: "constant"
      value: 0
    }
  }
}
layer {
  name: "relu3"
  type: "ReLU"
  bottom: "conv3"
  top: "conv3"
}
layer {
  name: "conv4"
  type: "Convolution"
  bottom: "conv3"
  top: "conv4"
  param {
    lr_mult: 1
    decay_mult: 1
  }
  param {
    lr_mult: 2
    decay_mult: 0
  }
  convolution_param {
    num_output: 384
    pad: 1
    kernel_size: 3
    group: 2
    weight_filler {
      type: "gaussian"
      std: 0.01
    }
    bias_filler {
      type: "constant"
      value: 0.1
    }
  }
}
layer {
  name: "relu4"
  type: "ReLU"
  bottom: "conv4"
  top: "conv4"
}
layer {
  name: "conv5"
  type: "Convolution"
  bottom: "conv4"
  top: "conv5"
  param {
    lr_mult: 1
    decay_mult: 1
  }
  param {
    lr_mult: 2
    decay_mult: 0
  }
  convolution_param {
    num_output: 256
    pad: 1
    kernel_size: 3
    group: 2
    weight_filler {
      type: "gaussian"
      std: 0.01
    }
    bias_filler {
      type: "constant"
      value: 0.1
    }
  }
}
layer {
  name: "relu5"
  type: "ReLU"
  bottom: "conv5"
  top: "conv5"
}
layer {
  name: "pool5"
  type: "Pooling"
  bottom: "conv5"
  top: "pool5"
  pooling_param {
    pool: MAX
    kernel_size: 3
    stride: 2
  }
}
layer {
  name: "fc6"
  type: "InnerProduct"
  bottom: "pool5"
  top: "fc6"
  param {
    lr_mult: 1
    decay_mult: 1
  }
  param {
    lr_mult: 2
    decay_mult: 0
  }
  inner_product_param {
    num_output: 4096
    weight_filler {
      type: "gaussian"
      std: 0.005
    }
    bias_filler {
      type: "constant"
      value: 0.1
    }
  }
}
layer {
  name: "relu6"
  type: "ReLU"
  bottom: "fc6"
  top: "fc6"
}
layer {
  name: "drop6"
  type: "Dropout"
  bottom: "fc6"
  top: "fc6"
  dropout_param {
    dropout_ratio: 0.5
  }
}
layer {
  name: "fc7"
  type: "InnerProduct"
  bottom: "fc6"
  top: "fc7"
  param {
    lr_mult: 1
    decay_mult: 1
  }
  param {
    lr_mult: 2
    decay_mult: 0
  }
  inner_product_param {
    num_output: 4096
    weight_filler {
      type: "gaussian"
      std: 0.005
    }
    bias_filler {
      type: "constant"
      value: 0.1
    }
  }
}
layer {
  name: "relu7"
  type: "ReLU"
  bottom: "fc7"
  top: "fc7"
}
layer {
  name: "drop7"
  type: "Dropout"
  bottom: "fc7"
  top: "fc7"
  dropout_param {
    dropout_ratio: 0.5
  }
}
layer {
  name: "fc8_plantvillage"
  type: "InnerProduct"
  bottom: "fc7"
  top: "fc8_plantvillage"
  param {
    lr_mult: 1
    decay_mult: 1
  }
  param {
    lr_mult: 2
    decay_mult: 0
  }
  inner_product_param {
    num_output: 38
    weight_filler {
      type: "gaussian"
      std: 0.01
    }
    bias_filler {
      type: "constant"
      value: 0
    }
  }
}
layer {
  name: "prob"
  type: "Softmax"
  bottom: "fc8_plantvillage"
  top: "prob"
  include {
    phase: TEST
  }
}
layer {
  name: "hdf5out"
  type: "HDF5Output"
  bottom: "prob"
  bottom: "label"
  include {
    phase: TEST
  }
  hdf5_output_param {
    file_name: "hdf5_dumps/iter_1625.h5"
  }
}
layer {
  name: "loss"
  type: "SoftmaxWithLoss"
  bottom: "fc8_plantvillage"
  bottom: "label"
  top: "loss"
}
layer {
  name: "accuracy"
  type: "Accuracy"
  bottom: "fc8_plantvillage"
  bottom: "label"
  top: "accuracy"
  include {
    phase: TEST
  }
}
I0403 14:37:14.455068  1658 layer_factory.hpp:77] Creating layer data
I0403 14:37:14.455715  1658 net.cpp:91] Creating Layer data
I0403 14:37:14.455749  1658 net.cpp:399] data -> data
I0403 14:37:14.455799  1658 net.cpp:399] data -> label
I0403 14:37:14.455835  1658 data_transformer.cpp:25] Loading mean file from: /home/mohanty/data/final_dataset/lmdb/color-60-40/mean.binaryproto
I0403 14:37:14.458835  1663 db_lmdb.cpp:38] Opened lmdb /home/mohanty/data/final_dataset/lmdb/color-60-40/test_db
I0403 14:37:14.470561  1658 data_layer.cpp:41] output data size: 100,3,227,227
I0403 14:37:14.591729  1658 net.cpp:141] Setting up data
I0403 14:37:14.591789  1658 net.cpp:148] Top shape: 100 3 227 227 (15458700)
I0403 14:37:14.591811  1658 net.cpp:148] Top shape: 100 (100)
I0403 14:37:14.591828  1658 net.cpp:156] Memory required for data: 61835200
I0403 14:37:14.591856  1658 layer_factory.hpp:77] Creating layer label_data_1_split
I0403 14:37:14.591881  1658 net.cpp:91] Creating Layer label_data_1_split
I0403 14:37:14.591899  1658 net.cpp:425] label_data_1_split <- label
I0403 14:37:14.591931  1658 net.cpp:399] label_data_1_split -> label_data_1_split_0
I0403 14:37:14.591958  1658 net.cpp:399] label_data_1_split -> label_data_1_split_1
I0403 14:37:14.591979  1658 net.cpp:399] label_data_1_split -> label_data_1_split_2
I0403 14:37:14.592046  1658 net.cpp:141] Setting up label_data_1_split
I0403 14:37:14.592069  1658 net.cpp:148] Top shape: 100 (100)
I0403 14:37:14.592087  1658 net.cpp:148] Top shape: 100 (100)
I0403 14:37:14.592104  1658 net.cpp:148] Top shape: 100 (100)
I0403 14:37:14.592119  1658 net.cpp:156] Memory required for data: 61836400
I0403 14:37:14.592134  1658 layer_factory.hpp:77] Creating layer conv1
I0403 14:37:14.592167  1658 net.cpp:91] Creating Layer conv1
I0403 14:37:14.592185  1658 net.cpp:425] conv1 <- data
I0403 14:37:14.592206  1658 net.cpp:399] conv1 -> conv1
I0403 14:37:14.739848  1658 net.cpp:141] Setting up conv1
I0403 14:37:14.739934  1658 net.cpp:148] Top shape: 100 96 55 55 (29040000)
I0403 14:37:14.739951  1658 net.cpp:156] Memory required for data: 177996400
I0403 14:37:14.739982  1658 layer_factory.hpp:77] Creating layer relu1
I0403 14:37:14.740010  1658 net.cpp:91] Creating Layer relu1
I0403 14:37:14.740031  1658 net.cpp:425] relu1 <- conv1
I0403 14:37:14.740049  1658 net.cpp:386] relu1 -> conv1 (in-place)
I0403 14:37:14.740381  1658 net.cpp:141] Setting up relu1
I0403 14:37:14.740409  1658 net.cpp:148] Top shape: 100 96 55 55 (29040000)
I0403 14:37:14.740427  1658 net.cpp:156] Memory required for data: 294156400
I0403 14:37:14.740474  1658 layer_factory.hpp:77] Creating layer norm1
I0403 14:37:14.740504  1658 net.cpp:91] Creating Layer norm1
I0403 14:37:14.740521  1658 net.cpp:425] norm1 <- conv1
I0403 14:37:14.740540  1658 net.cpp:399] norm1 -> norm1
I0403 14:37:14.740851  1658 net.cpp:141] Setting up norm1
I0403 14:37:14.740880  1658 net.cpp:148] Top shape: 100 96 55 55 (29040000)
I0403 14:37:14.740895  1658 net.cpp:156] Memory required for data: 410316400
I0403 14:37:14.740911  1658 layer_factory.hpp:77] Creating layer pool1
I0403 14:37:14.740934  1658 net.cpp:91] Creating Layer pool1
I0403 14:37:14.740952  1658 net.cpp:425] pool1 <- norm1
I0403 14:37:14.740972  1658 net.cpp:399] pool1 -> pool1
I0403 14:37:14.741037  1658 net.cpp:141] Setting up pool1
I0403 14:37:14.741061  1658 net.cpp:148] Top shape: 100 96 27 27 (6998400)
I0403 14:37:14.741077  1658 net.cpp:156] Memory required for data: 438310000
I0403 14:37:14.741092  1658 layer_factory.hpp:77] Creating layer conv2
I0403 14:37:14.741117  1658 net.cpp:91] Creating Layer conv2
I0403 14:37:14.741134  1658 net.cpp:425] conv2 <- pool1
I0403 14:37:14.741153  1658 net.cpp:399] conv2 -> conv2
I0403 14:37:14.756326  1658 net.cpp:141] Setting up conv2
I0403 14:37:14.756362  1658 net.cpp:148] Top shape: 100 256 27 27 (18662400)
I0403 14:37:14.756379  1658 net.cpp:156] Memory required for data: 512959600
I0403 14:37:14.756402  1658 layer_factory.hpp:77] Creating layer relu2
I0403 14:37:14.756423  1658 net.cpp:91] Creating Layer relu2
I0403 14:37:14.756441  1658 net.cpp:425] relu2 <- conv2
I0403 14:37:14.756460  1658 net.cpp:386] relu2 -> conv2 (in-place)
I0403 14:37:14.756744  1658 net.cpp:141] Setting up relu2
I0403 14:37:14.756772  1658 net.cpp:148] Top shape: 100 256 27 27 (18662400)
I0403 14:37:14.756788  1658 net.cpp:156] Memory required for data: 587609200
I0403 14:37:14.756803  1658 layer_factory.hpp:77] Creating layer norm2
I0403 14:37:14.756825  1658 net.cpp:91] Creating Layer norm2
I0403 14:37:14.756842  1658 net.cpp:425] norm2 <- conv2
I0403 14:37:14.756862  1658 net.cpp:399] norm2 -> norm2
I0403 14:37:14.757067  1658 net.cpp:141] Setting up norm2
I0403 14:37:14.757092  1658 net.cpp:148] Top shape: 100 256 27 27 (18662400)
I0403 14:37:14.757108  1658 net.cpp:156] Memory required for data: 662258800
I0403 14:37:14.757123  1658 layer_factory.hpp:77] Creating layer pool2
I0403 14:37:14.757144  1658 net.cpp:91] Creating Layer pool2
I0403 14:37:14.757161  1658 net.cpp:425] pool2 <- norm2
I0403 14:37:14.757179  1658 net.cpp:399] pool2 -> pool2
I0403 14:37:14.757235  1658 net.cpp:141] Setting up pool2
I0403 14:37:14.757257  1658 net.cpp:148] Top shape: 100 256 13 13 (4326400)
I0403 14:37:14.757277  1658 net.cpp:156] Memory required for data: 679564400
I0403 14:37:14.757293  1658 layer_factory.hpp:77] Creating layer conv3
I0403 14:37:14.757318  1658 net.cpp:91] Creating Layer conv3
I0403 14:37:14.757333  1658 net.cpp:425] conv3 <- pool2
I0403 14:37:14.757354  1658 net.cpp:399] conv3 -> conv3
I0403 14:37:14.799393  1658 net.cpp:141] Setting up conv3
I0403 14:37:14.799469  1658 net.cpp:148] Top shape: 100 384 13 13 (6489600)
I0403 14:37:14.799496  1658 net.cpp:156] Memory required for data: 705522800
I0403 14:37:14.799526  1658 layer_factory.hpp:77] Creating layer relu3
I0403 14:37:14.799551  1658 net.cpp:91] Creating Layer relu3
I0403 14:37:14.799569  1658 net.cpp:425] relu3 <- conv3
I0403 14:37:14.799589  1658 net.cpp:386] relu3 -> conv3 (in-place)
I0403 14:37:14.799875  1658 net.cpp:141] Setting up relu3
I0403 14:37:14.799904  1658 net.cpp:148] Top shape: 100 384 13 13 (6489600)
I0403 14:37:14.799921  1658 net.cpp:156] Memory required for data: 731481200
I0403 14:37:14.799937  1658 layer_factory.hpp:77] Creating layer conv4
I0403 14:37:14.799963  1658 net.cpp:91] Creating Layer conv4
I0403 14:37:14.799981  1658 net.cpp:425] conv4 <- conv3
I0403 14:37:14.800004  1658 net.cpp:399] conv4 -> conv4
I0403 14:37:14.830898  1658 net.cpp:141] Setting up conv4
I0403 14:37:14.830963  1658 net.cpp:148] Top shape: 100 384 13 13 (6489600)
I0403 14:37:14.831001  1658 net.cpp:156] Memory required for data: 757439600
I0403 14:37:14.831022  1658 layer_factory.hpp:77] Creating layer relu4
I0403 14:37:14.831046  1658 net.cpp:91] Creating Layer relu4
I0403 14:37:14.831063  1658 net.cpp:425] relu4 <- conv4
I0403 14:37:14.831082  1658 net.cpp:386] relu4 -> conv4 (in-place)
I0403 14:37:14.831398  1658 net.cpp:141] Setting up relu4
I0403 14:37:14.831424  1658 net.cpp:148] Top shape: 100 384 13 13 (6489600)
I0403 14:37:14.831439  1658 net.cpp:156] Memory required for data: 783398000
I0403 14:37:14.831454  1658 layer_factory.hpp:77] Creating layer conv5
I0403 14:37:14.831480  1658 net.cpp:91] Creating Layer conv5
I0403 14:37:14.831497  1658 net.cpp:425] conv5 <- conv4
I0403 14:37:14.831518  1658 net.cpp:399] conv5 -> conv5
I0403 14:37:14.851943  1658 net.cpp:141] Setting up conv5
I0403 14:37:14.851979  1658 net.cpp:148] Top shape: 100 256 13 13 (4326400)
I0403 14:37:14.851995  1658 net.cpp:156] Memory required for data: 800703600
I0403 14:37:14.852020  1658 layer_factory.hpp:77] Creating layer relu5
I0403 14:37:14.852041  1658 net.cpp:91] Creating Layer relu5
I0403 14:37:14.852057  1658 net.cpp:425] relu5 <- conv5
I0403 14:37:14.852074  1658 net.cpp:386] relu5 -> conv5 (in-place)
I0403 14:37:14.852360  1658 net.cpp:141] Setting up relu5
I0403 14:37:14.852385  1658 net.cpp:148] Top shape: 100 256 13 13 (4326400)
I0403 14:37:14.852401  1658 net.cpp:156] Memory required for data: 818009200
I0403 14:37:14.852416  1658 layer_factory.hpp:77] Creating layer pool5
I0403 14:37:14.852439  1658 net.cpp:91] Creating Layer pool5
I0403 14:37:14.852457  1658 net.cpp:425] pool5 <- conv5
I0403 14:37:14.852489  1658 net.cpp:399] pool5 -> pool5
I0403 14:37:14.852551  1658 net.cpp:141] Setting up pool5
I0403 14:37:14.852576  1658 net.cpp:148] Top shape: 100 256 6 6 (921600)
I0403 14:37:14.852591  1658 net.cpp:156] Memory required for data: 821695600
I0403 14:37:14.852605  1658 layer_factory.hpp:77] Creating layer fc6
I0403 14:37:14.852634  1658 net.cpp:91] Creating Layer fc6
I0403 14:37:14.852653  1658 net.cpp:425] fc6 <- pool5
I0403 14:37:14.852671  1658 net.cpp:399] fc6 -> fc6
I0403 14:37:16.404616  1658 net.cpp:141] Setting up fc6
I0403 14:37:16.404682  1658 net.cpp:148] Top shape: 100 4096 (409600)
I0403 14:37:16.404698  1658 net.cpp:156] Memory required for data: 823334000
I0403 14:37:16.404719  1658 layer_factory.hpp:77] Creating layer relu6
I0403 14:37:16.404742  1658 net.cpp:91] Creating Layer relu6
I0403 14:37:16.404759  1658 net.cpp:425] relu6 <- fc6
I0403 14:37:16.404780  1658 net.cpp:386] relu6 -> fc6 (in-place)
I0403 14:37:16.404999  1658 net.cpp:141] Setting up relu6
I0403 14:37:16.405024  1658 net.cpp:148] Top shape: 100 4096 (409600)
I0403 14:37:16.405038  1658 net.cpp:156] Memory required for data: 824972400
I0403 14:37:16.405052  1658 layer_factory.hpp:77] Creating layer drop6
I0403 14:37:16.405073  1658 net.cpp:91] Creating Layer drop6
I0403 14:37:16.405089  1658 net.cpp:425] drop6 <- fc6
I0403 14:37:16.405107  1658 net.cpp:386] drop6 -> fc6 (in-place)
I0403 14:37:16.405161  1658 net.cpp:141] Setting up drop6
I0403 14:37:16.405184  1658 net.cpp:148] Top shape: 100 4096 (409600)
I0403 14:37:16.405199  1658 net.cpp:156] Memory required for data: 826610800
I0403 14:37:16.405213  1658 layer_factory.hpp:77] Creating layer fc7
I0403 14:37:16.405232  1658 net.cpp:91] Creating Layer fc7
I0403 14:37:16.405248  1658 net.cpp:425] fc7 <- fc6
I0403 14:37:16.405273  1658 net.cpp:399] fc7 -> fc7
I0403 14:37:17.100581  1658 net.cpp:141] Setting up fc7
I0403 14:37:17.100626  1658 net.cpp:148] Top shape: 100 4096 (409600)
I0403 14:37:17.100642  1658 net.cpp:156] Memory required for data: 828249200
I0403 14:37:17.100663  1658 layer_factory.hpp:77] Creating layer relu7
I0403 14:37:17.100685  1658 net.cpp:91] Creating Layer relu7
I0403 14:37:17.100703  1658 net.cpp:425] relu7 <- fc7
I0403 14:37:17.100723  1658 net.cpp:386] relu7 -> fc7 (in-place)
I0403 14:37:17.101133  1658 net.cpp:141] Setting up relu7
I0403 14:37:17.101160  1658 net.cpp:148] Top shape: 100 4096 (409600)
I0403 14:37:17.101192  1658 net.cpp:156] Memory required for data: 829887600
I0403 14:37:17.101207  1658 layer_factory.hpp:77] Creating layer drop7
I0403 14:37:17.101229  1658 net.cpp:91] Creating Layer drop7
I0403 14:37:17.101245  1658 net.cpp:425] drop7 <- fc7
I0403 14:37:17.101263  1658 net.cpp:386] drop7 -> fc7 (in-place)
I0403 14:37:17.101313  1658 net.cpp:141] Setting up drop7
I0403 14:37:17.101336  1658 net.cpp:148] Top shape: 100 4096 (409600)
I0403 14:37:17.101351  1658 net.cpp:156] Memory required for data: 831526000
I0403 14:37:17.101366  1658 layer_factory.hpp:77] Creating layer fc8_plantvillage
I0403 14:37:17.101385  1658 net.cpp:91] Creating Layer fc8_plantvillage
I0403 14:37:17.101402  1658 net.cpp:425] fc8_plantvillage <- fc7
I0403 14:37:17.101424  1658 net.cpp:399] fc8_plantvillage -> fc8_plantvillage
I0403 14:37:17.108202  1658 net.cpp:141] Setting up fc8_plantvillage
I0403 14:37:17.108230  1658 net.cpp:148] Top shape: 100 38 (3800)
I0403 14:37:17.108245  1658 net.cpp:156] Memory required for data: 831541200
I0403 14:37:17.108263  1658 layer_factory.hpp:77] Creating layer fc8_plantvillage_fc8_plantvillage_0_split
I0403 14:37:17.108289  1658 net.cpp:91] Creating Layer fc8_plantvillage_fc8_plantvillage_0_split
I0403 14:37:17.108306  1658 net.cpp:425] fc8_plantvillage_fc8_plantvillage_0_split <- fc8_plantvillage
I0403 14:37:17.108324  1658 net.cpp:399] fc8_plantvillage_fc8_plantvillage_0_split -> fc8_plantvillage_fc8_plantvillage_0_split_0
I0403 14:37:17.108345  1658 net.cpp:399] fc8_plantvillage_fc8_plantvillage_0_split -> fc8_plantvillage_fc8_plantvillage_0_split_1
I0403 14:37:17.108368  1658 net.cpp:399] fc8_plantvillage_fc8_plantvillage_0_split -> fc8_plantvillage_fc8_plantvillage_0_split_2
I0403 14:37:17.108445  1658 net.cpp:141] Setting up fc8_plantvillage_fc8_plantvillage_0_split
I0403 14:37:17.108469  1658 net.cpp:148] Top shape: 100 38 (3800)
I0403 14:37:17.108485  1658 net.cpp:148] Top shape: 100 38 (3800)
I0403 14:37:17.108501  1658 net.cpp:148] Top shape: 100 38 (3800)
I0403 14:37:17.108515  1658 net.cpp:156] Memory required for data: 831586800
I0403 14:37:17.108530  1658 layer_factory.hpp:77] Creating layer prob
I0403 14:37:17.108551  1658 net.cpp:91] Creating Layer prob
I0403 14:37:17.108568  1658 net.cpp:425] prob <- fc8_plantvillage_fc8_plantvillage_0_split_0
I0403 14:37:17.108587  1658 net.cpp:399] prob -> prob
I0403 14:37:17.108811  1658 net.cpp:141] Setting up prob
I0403 14:37:17.108836  1658 net.cpp:148] Top shape: 100 38 (3800)
I0403 14:37:17.108851  1658 net.cpp:156] Memory required for data: 831602000
I0403 14:37:17.108866  1658 layer_factory.hpp:77] Creating layer hdf5out
I0403 14:37:17.108887  1658 net.cpp:91] Creating Layer hdf5out
I0403 14:37:17.108903  1658 net.cpp:425] hdf5out <- prob
I0403 14:37:17.108919  1658 net.cpp:425] hdf5out <- label_data_1_split_0
I0403 14:37:17.111204  1658 net.cpp:141] Setting up hdf5out
…
