…
I0403 14:35:43.067126  1632 net.cpp:313] The NetState phase (1) differed from the phase (0) specified by a rule in layer data
I0403 14:35:43.067458  1632 net.cpp:49] Initializing net from parameters: 
state {
  phase: TEST
}
layer {
  name: "data"
  type: "Data"
  top: "data"
  top: "label"
  include {
    phase: TEST
  }
  transform_param {
    crop_size: 227
    mean_file: "/home/mohanty/data/final_dataset/lmdb/color-60-40/mean.binaryproto"
  }
  data_param {
    source: "/home/mohanty/data/final_dataset/lmdb/color-60-40/test_db"
    batch_size: 100
    backend: LMDB
  }
}
layer {
  name: "conv1"
  type: "Convolution"
  bottom: "data"
  top: "conv1"
  param {
    lr_mult: 1
    decay_mult: 1
  }
  param {
    lr_mult: 2
    decay_mult: 0
  }
  convolution_param {
    num_output: 96
    kernel_size: 11
    stride: 4
    weight_filler {
      type: "gaussian"
      std: 0.01
    }
    bias_filler {
      type: "constant"
      value: 0
    }
  }
}
layer {
  name: "relu1"
  type: "ReLU"
  bottom: "conv1"
  top: "conv1"
}
layer {
  name: "norm1"
  type: "LRN"
  bottom: "conv1"
  top: "norm1"
  lrn_param {
    local_size: 5
    alpha: 0.0001
    beta: 0.75
  }
}
layer {
  name: "pool1"
  type: "Pooling"
  bottom: "norm1"
  top: "pool1"
  pooling_param {
    pool: MAX
    kernel_size: 3
    stride: 2
  }
}
layer {
  name: "conv2"
  type: "Convolution"
  bottom: "pool1"
  top: "conv2"
  param {
    lr_mult: 1
    decay_mult: 1
  }
  param {
    lr_mult: 2
    decay_mult: 0
  }
  convolution_param {
    num_output: 256
    pad: 2
    kernel_size: 5
    group: 2
    weight_filler {
      type: "gaussian"
      std: 0.01
    }
    bias_filler {
      type: "constant"
      value: 0.1
    }
  }
}
layer {
  name: "relu2"
  type: "ReLU"
  bottom: "conv2"
  top: "conv2"
}
layer {
  name: "norm2"
  type: "LRN"
  bottom: "conv2"
  top: "norm2"
  lrn_param {
    local_size: 5
    alpha: 0.0001
    beta: 0.75
  }
}
layer {
  name: "pool2"
  type: "Pooling"
  bottom: "norm2"
  top: "pool2"
  pooling_param {
    pool: MAX
    kernel_size: 3
    stride: 2
  }
}
layer {
  name: "conv3"
  type: "Convolution"
  bottom: "pool2"
  top: "conv3"
  param {
    lr_mult: 1
    decay_mult: 1
  }
  param {
    lr_mult: 2
    decay_mult: 0
  }
  convolution_param {
    num_output: 384
    pad: 1
    kernel_size: 3
    weight_filler {
      type: "gaussian"
      std: 0.01
    }
    bias_filler {
      type: "constant"
      value: 0
    }
  }
}
layer {
  name: "relu3"
  type: "ReLU"
  bottom: "conv3"
  top: "conv3"
}
layer {
  name: "conv4"
  type: "Convolution"
  bottom: "conv3"
  top: "conv4"
  param {
    lr_mult: 1
    decay_mult: 1
  }
  param {
    lr_mult: 2
    decay_mult: 0
  }
  convolution_param {
    num_output: 384
    pad: 1
    kernel_size: 3
    group: 2
    weight_filler {
      type: "gaussian"
      std: 0.01
    }
    bias_filler {
      type: "constant"
      value: 0.1
    }
  }
}
layer {
  name: "relu4"
  type: "ReLU"
  bottom: "conv4"
  top: "conv4"
}
layer {
  name: "conv5"
  type: "Convolution"
  bottom: "conv4"
  top: "conv5"
  param {
    lr_mult: 1
    decay_mult: 1
  }
  param {
    lr_mult: 2
    decay_mult: 0
  }
  convolution_param {
    num_output: 256
    pad: 1
    kernel_size: 3
    group: 2
    weight_filler {
      type: "gaussian"
      std: 0.01
    }
    bias_filler {
      type: "constant"
      value: 0.1
    }
  }
}
layer {
  name: "relu5"
  type: "ReLU"
  bottom: "conv5"
  top: "conv5"
}
layer {
  name: "pool5"
  type: "Pooling"
  bottom: "conv5"
  top: "pool5"
  pooling_param {
    pool: MAX
    kernel_size: 3
    stride: 2
  }
}
layer {
  name: "fc6"
  type: "InnerProduct"
  bottom: "pool5"
  top: "fc6"
  param {
    lr_mult: 1
    decay_mult: 1
  }
  param {
    lr_mult: 2
    decay_mult: 0
  }
  inner_product_param {
    num_output: 4096
    weight_filler {
      type: "gaussian"
      std: 0.005
    }
    bias_filler {
      type: "constant"
      value: 0.1
    }
  }
}
layer {
  name: "relu6"
  type: "ReLU"
  bottom: "fc6"
  top: "fc6"
}
layer {
  name: "drop6"
  type: "Dropout"
  bottom: "fc6"
  top: "fc6"
  dropout_param {
    dropout_ratio: 0.5
  }
}
layer {
  name: "fc7"
  type: "InnerProduct"
  bottom: "fc6"
  top: "fc7"
  param {
    lr_mult: 1
    decay_mult: 1
  }
  param {
    lr_mult: 2
    decay_mult: 0
  }
  inner_product_param {
    num_output: 4096
    weight_filler {
      type: "gaussian"
      std: 0.005
    }
    bias_filler {
      type: "constant"
      value: 0.1
    }
  }
}
layer {
  name: "relu7"
  type: "ReLU"
  bottom: "fc7"
  top: "fc7"
}
layer {
  name: "drop7"
  type: "Dropout"
  bottom: "fc7"
  top: "fc7"
  dropout_param {
    dropout_ratio: 0.5
  }
}
layer {
  name: "fc8_plantvillage"
  type: "InnerProduct"
  bottom: "fc7"
  top: "fc8_plantvillage"
  param {
    lr_mult: 1
    decay_mult: 1
  }
  param {
    lr_mult: 2
    decay_mult: 0
  }
  inner_product_param {
    num_output: 38
    weight_filler {
      type: "gaussian"
      std: 0.01
    }
    bias_filler {
      type: "constant"
      value: 0
    }
  }
}
layer {
  name: "prob"
  type: "Softmax"
  bottom: "fc8_plantvillage"
  top: "prob"
  include {
    phase: TEST
  }
}
layer {
  name: "hdf5out"
  type: "HDF5Output"
  bottom: "prob"
  bottom: "label"
  include {
    phase: TEST
  }
  hdf5_output_param {
    file_name: "hdf5_dumps/iter_975.h5"
  }
}
layer {
  name: "loss"
  type: "SoftmaxWithLoss"
  bottom: "fc8_plantvillage"
  bottom: "label"
  top: "loss"
}
layer {
  name: "accuracy"
  type: "Accuracy"
  bottom: "fc8_plantvillage"
  bottom: "label"
  top: "accuracy"
  include {
    phase: TEST
  }
}
I0403 14:35:43.068011  1632 layer_factory.hpp:77] Creating layer data
I0403 14:35:43.068631  1632 net.cpp:91] Creating Layer data
I0403 14:35:43.068662  1632 net.cpp:399] data -> data
I0403 14:35:43.068713  1632 net.cpp:399] data -> label
I0403 14:35:43.068749  1632 data_transformer.cpp:25] Loading mean file from: /home/mohanty/data/final_dataset/lmdb/color-60-40/mean.binaryproto
I0403 14:35:43.080597  1636 db_lmdb.cpp:38] Opened lmdb /home/mohanty/data/final_dataset/lmdb/color-60-40/test_db
I0403 14:35:43.084859  1632 data_layer.cpp:41] output data size: 100,3,227,227
I0403 14:35:43.205386  1632 net.cpp:141] Setting up data
I0403 14:35:43.205445  1632 net.cpp:148] Top shape: 100 3 227 227 (15458700)
I0403 14:35:43.205466  1632 net.cpp:148] Top shape: 100 (100)
I0403 14:35:43.205482  1632 net.cpp:156] Memory required for data: 61835200
I0403 14:35:43.205507  1632 layer_factory.hpp:77] Creating layer label_data_1_split
I0403 14:35:43.205531  1632 net.cpp:91] Creating Layer label_data_1_split
I0403 14:35:43.205549  1632 net.cpp:425] label_data_1_split <- label
I0403 14:35:43.205580  1632 net.cpp:399] label_data_1_split -> label_data_1_split_0
I0403 14:35:43.205605  1632 net.cpp:399] label_data_1_split -> label_data_1_split_1
I0403 14:35:43.205626  1632 net.cpp:399] label_data_1_split -> label_data_1_split_2
I0403 14:35:43.205684  1632 net.cpp:141] Setting up label_data_1_split
I0403 14:35:43.205705  1632 net.cpp:148] Top shape: 100 (100)
I0403 14:35:43.205721  1632 net.cpp:148] Top shape: 100 (100)
I0403 14:35:43.205737  1632 net.cpp:148] Top shape: 100 (100)
I0403 14:35:43.205750  1632 net.cpp:156] Memory required for data: 61836400
I0403 14:35:43.205765  1632 layer_factory.hpp:77] Creating layer conv1
I0403 14:35:43.205795  1632 net.cpp:91] Creating Layer conv1
I0403 14:35:43.205811  1632 net.cpp:425] conv1 <- data
I0403 14:35:43.205829  1632 net.cpp:399] conv1 -> conv1
I0403 14:35:43.347659  1632 net.cpp:141] Setting up conv1
I0403 14:35:43.347749  1632 net.cpp:148] Top shape: 100 96 55 55 (29040000)
I0403 14:35:43.347766  1632 net.cpp:156] Memory required for data: 177996400
I0403 14:35:43.347798  1632 layer_factory.hpp:77] Creating layer relu1
I0403 14:35:43.347826  1632 net.cpp:91] Creating Layer relu1
I0403 14:35:43.347844  1632 net.cpp:425] relu1 <- conv1
I0403 14:35:43.347864  1632 net.cpp:386] relu1 -> conv1 (in-place)
I0403 14:35:43.348126  1632 net.cpp:141] Setting up relu1
I0403 14:35:43.348155  1632 net.cpp:148] Top shape: 100 96 55 55 (29040000)
I0403 14:35:43.348170  1632 net.cpp:156] Memory required for data: 294156400
I0403 14:35:43.348227  1632 layer_factory.hpp:77] Creating layer norm1
I0403 14:35:43.348256  1632 net.cpp:91] Creating Layer norm1
I0403 14:35:43.348278  1632 net.cpp:425] norm1 <- conv1
I0403 14:35:43.348299  1632 net.cpp:399] norm1 -> norm1
I0403 14:35:43.348613  1632 net.cpp:141] Setting up norm1
I0403 14:35:43.348641  1632 net.cpp:148] Top shape: 100 96 55 55 (29040000)
I0403 14:35:43.348657  1632 net.cpp:156] Memory required for data: 410316400
I0403 14:35:43.348672  1632 layer_factory.hpp:77] Creating layer pool1
I0403 14:35:43.348696  1632 net.cpp:91] Creating Layer pool1
I0403 14:35:43.348714  1632 net.cpp:425] pool1 <- norm1
I0403 14:35:43.348733  1632 net.cpp:399] pool1 -> pool1
I0403 14:35:43.348800  1632 net.cpp:141] Setting up pool1
I0403 14:35:43.348824  1632 net.cpp:148] Top shape: 100 96 27 27 (6998400)
I0403 14:35:43.348839  1632 net.cpp:156] Memory required for data: 438310000
I0403 14:35:43.348855  1632 layer_factory.hpp:77] Creating layer conv2
I0403 14:35:43.348881  1632 net.cpp:91] Creating Layer conv2
I0403 14:35:43.348897  1632 net.cpp:425] conv2 <- pool1
I0403 14:35:43.348917  1632 net.cpp:399] conv2 -> conv2
I0403 14:35:43.364267  1632 net.cpp:141] Setting up conv2
I0403 14:35:43.364307  1632 net.cpp:148] Top shape: 100 256 27 27 (18662400)
I0403 14:35:43.364325  1632 net.cpp:156] Memory required for data: 512959600
I0403 14:35:43.364351  1632 layer_factory.hpp:77] Creating layer relu2
I0403 14:35:43.364372  1632 net.cpp:91] Creating Layer relu2
I0403 14:35:43.364389  1632 net.cpp:425] relu2 <- conv2
I0403 14:35:43.364408  1632 net.cpp:386] relu2 -> conv2 (in-place)
I0403 14:35:43.364698  1632 net.cpp:141] Setting up relu2
I0403 14:35:43.364732  1632 net.cpp:148] Top shape: 100 256 27 27 (18662400)
I0403 14:35:43.364754  1632 net.cpp:156] Memory required for data: 587609200
I0403 14:35:43.364776  1632 layer_factory.hpp:77] Creating layer norm2
I0403 14:35:43.364805  1632 net.cpp:91] Creating Layer norm2
I0403 14:35:43.364827  1632 net.cpp:425] norm2 <- conv2
I0403 14:35:43.364855  1632 net.cpp:399] norm2 -> norm2
I0403 14:35:43.365056  1632 net.cpp:141] Setting up norm2
I0403 14:35:43.365082  1632 net.cpp:148] Top shape: 100 256 27 27 (18662400)
I0403 14:35:43.365097  1632 net.cpp:156] Memory required for data: 662258800
I0403 14:35:43.365114  1632 layer_factory.hpp:77] Creating layer pool2
I0403 14:35:43.365135  1632 net.cpp:91] Creating Layer pool2
I0403 14:35:43.365152  1632 net.cpp:425] pool2 <- norm2
I0403 14:35:43.365170  1632 net.cpp:399] pool2 -> pool2
I0403 14:35:43.365264  1632 net.cpp:141] Setting up pool2
I0403 14:35:43.365294  1632 net.cpp:148] Top shape: 100 256 13 13 (4326400)
I0403 14:35:43.365310  1632 net.cpp:156] Memory required for data: 679564400
I0403 14:35:43.365325  1632 layer_factory.hpp:77] Creating layer conv3
I0403 14:35:43.365350  1632 net.cpp:91] Creating Layer conv3
I0403 14:35:43.365368  1632 net.cpp:425] conv3 <- pool2
I0403 14:35:43.365389  1632 net.cpp:399] conv3 -> conv3
I0403 14:35:43.407888  1632 net.cpp:141] Setting up conv3
I0403 14:35:43.407963  1632 net.cpp:148] Top shape: 100 384 13 13 (6489600)
I0403 14:35:43.407980  1632 net.cpp:156] Memory required for data: 705522800
I0403 14:35:43.408004  1632 layer_factory.hpp:77] Creating layer relu3
I0403 14:35:43.408030  1632 net.cpp:91] Creating Layer relu3
I0403 14:35:43.408047  1632 net.cpp:425] relu3 <- conv3
I0403 14:35:43.408066  1632 net.cpp:386] relu3 -> conv3 (in-place)
I0403 14:35:43.408350  1632 net.cpp:141] Setting up relu3
I0403 14:35:43.408377  1632 net.cpp:148] Top shape: 100 384 13 13 (6489600)
I0403 14:35:43.408392  1632 net.cpp:156] Memory required for data: 731481200
I0403 14:35:43.408407  1632 layer_factory.hpp:77] Creating layer conv4
I0403 14:35:43.408434  1632 net.cpp:91] Creating Layer conv4
I0403 14:35:43.408452  1632 net.cpp:425] conv4 <- conv3
I0403 14:35:43.408488  1632 net.cpp:399] conv4 -> conv4
I0403 14:35:43.438769  1632 net.cpp:141] Setting up conv4
I0403 14:35:43.438843  1632 net.cpp:148] Top shape: 100 384 13 13 (6489600)
I0403 14:35:43.438891  1632 net.cpp:156] Memory required for data: 757439600
I0403 14:35:43.438913  1632 layer_factory.hpp:77] Creating layer relu4
I0403 14:35:43.438940  1632 net.cpp:91] Creating Layer relu4
I0403 14:35:43.438993  1632 net.cpp:425] relu4 <- conv4
I0403 14:35:43.439019  1632 net.cpp:386] relu4 -> conv4 (in-place)
I0403 14:35:43.439311  1632 net.cpp:141] Setting up relu4
I0403 14:35:43.439338  1632 net.cpp:148] Top shape: 100 384 13 13 (6489600)
I0403 14:35:43.439353  1632 net.cpp:156] Memory required for data: 783398000
I0403 14:35:43.439369  1632 layer_factory.hpp:77] Creating layer conv5
I0403 14:35:43.439395  1632 net.cpp:91] Creating Layer conv5
I0403 14:35:43.439414  1632 net.cpp:425] conv5 <- conv4
I0403 14:35:43.439435  1632 net.cpp:399] conv5 -> conv5
I0403 14:35:43.460463  1632 net.cpp:141] Setting up conv5
I0403 14:35:43.460502  1632 net.cpp:148] Top shape: 100 256 13 13 (4326400)
I0403 14:35:43.460520  1632 net.cpp:156] Memory required for data: 800703600
I0403 14:35:43.460548  1632 layer_factory.hpp:77] Creating layer relu5
I0403 14:35:43.460572  1632 net.cpp:91] Creating Layer relu5
I0403 14:35:43.460589  1632 net.cpp:425] relu5 <- conv5
I0403 14:35:43.460608  1632 net.cpp:386] relu5 -> conv5 (in-place)
I0403 14:35:43.460891  1632 net.cpp:141] Setting up relu5
I0403 14:35:43.460918  1632 net.cpp:148] Top shape: 100 256 13 13 (4326400)
I0403 14:35:43.460937  1632 net.cpp:156] Memory required for data: 818009200
I0403 14:35:43.460953  1632 layer_factory.hpp:77] Creating layer pool5
I0403 14:35:43.460976  1632 net.cpp:91] Creating Layer pool5
I0403 14:35:43.460994  1632 net.cpp:425] pool5 <- conv5
I0403 14:35:43.461012  1632 net.cpp:399] pool5 -> pool5
I0403 14:35:43.461079  1632 net.cpp:141] Setting up pool5
I0403 14:35:43.461102  1632 net.cpp:148] Top shape: 100 256 6 6 (921600)
I0403 14:35:43.461117  1632 net.cpp:156] Memory required for data: 821695600
I0403 14:35:43.461133  1632 layer_factory.hpp:77] Creating layer fc6
I0403 14:35:43.461163  1632 net.cpp:91] Creating Layer fc6
I0403 14:35:43.461194  1632 net.cpp:425] fc6 <- pool5
I0403 14:35:43.461215  1632 net.cpp:399] fc6 -> fc6
I0403 14:35:45.013949  1632 net.cpp:141] Setting up fc6
I0403 14:35:45.014015  1632 net.cpp:148] Top shape: 100 4096 (409600)
I0403 14:35:45.014031  1632 net.cpp:156] Memory required for data: 823334000
I0403 14:35:45.014052  1632 layer_factory.hpp:77] Creating layer relu6
I0403 14:35:45.014075  1632 net.cpp:91] Creating Layer relu6
I0403 14:35:45.014091  1632 net.cpp:425] relu6 <- fc6
I0403 14:35:45.014112  1632 net.cpp:386] relu6 -> fc6 (in-place)
I0403 14:35:45.014333  1632 net.cpp:141] Setting up relu6
I0403 14:35:45.014358  1632 net.cpp:148] Top shape: 100 4096 (409600)
I0403 14:35:45.014374  1632 net.cpp:156] Memory required for data: 824972400
I0403 14:35:45.014389  1632 layer_factory.hpp:77] Creating layer drop6
I0403 14:35:45.014410  1632 net.cpp:91] Creating Layer drop6
I0403 14:35:45.014425  1632 net.cpp:425] drop6 <- fc6
I0403 14:35:45.014442  1632 net.cpp:386] drop6 -> fc6 (in-place)
I0403 14:35:45.014494  1632 net.cpp:141] Setting up drop6
I0403 14:35:45.014516  1632 net.cpp:148] Top shape: 100 4096 (409600)
I0403 14:35:45.014531  1632 net.cpp:156] Memory required for data: 826610800
I0403 14:35:45.014545  1632 layer_factory.hpp:77] Creating layer fc7
I0403 14:35:45.014565  1632 net.cpp:91] Creating Layer fc7
I0403 14:35:45.014583  1632 net.cpp:425] fc7 <- fc6
I0403 14:35:45.014601  1632 net.cpp:399] fc7 -> fc7
I0403 14:35:45.691679  1632 net.cpp:141] Setting up fc7
I0403 14:35:45.691722  1632 net.cpp:148] Top shape: 100 4096 (409600)
I0403 14:35:45.691737  1632 net.cpp:156] Memory required for data: 828249200
I0403 14:35:45.691757  1632 layer_factory.hpp:77] Creating layer relu7
I0403 14:35:45.691781  1632 net.cpp:91] Creating Layer relu7
I0403 14:35:45.691798  1632 net.cpp:425] relu7 <- fc7
I0403 14:35:45.691817  1632 net.cpp:386] relu7 -> fc7 (in-place)
I0403 14:35:45.692229  1632 net.cpp:141] Setting up relu7
I0403 14:35:45.692255  1632 net.cpp:148] Top shape: 100 4096 (409600)
I0403 14:35:45.692298  1632 net.cpp:156] Memory required for data: 829887600
I0403 14:35:45.692314  1632 layer_factory.hpp:77] Creating layer drop7
I0403 14:35:45.692337  1632 net.cpp:91] Creating Layer drop7
I0403 14:35:45.692353  1632 net.cpp:425] drop7 <- fc7
I0403 14:35:45.692370  1632 net.cpp:386] drop7 -> fc7 (in-place)
I0403 14:35:45.692414  1632 net.cpp:141] Setting up drop7
I0403 14:35:45.692435  1632 net.cpp:148] Top shape: 100 4096 (409600)
I0403 14:35:45.692450  1632 net.cpp:156] Memory required for data: 831526000
I0403 14:35:45.692463  1632 layer_factory.hpp:77] Creating layer fc8_plantvillage
I0403 14:35:45.692482  1632 net.cpp:91] Creating Layer fc8_plantvillage
I0403 14:35:45.692497  1632 net.cpp:425] fc8_plantvillage <- fc7
I0403 14:35:45.692517  1632 net.cpp:399] fc8_plantvillage -> fc8_plantvillage
I0403 14:35:45.699014  1632 net.cpp:141] Setting up fc8_plantvillage
I0403 14:35:45.699044  1632 net.cpp:148] Top shape: 100 38 (3800)
I0403 14:35:45.699059  1632 net.cpp:156] Memory required for data: 831541200
I0403 14:35:45.699077  1632 layer_factory.hpp:77] Creating layer fc8_plantvillage_fc8_plantvillage_0_split
I0403 14:35:45.699095  1632 net.cpp:91] Creating Layer fc8_plantvillage_fc8_plantvillage_0_split
I0403 14:35:45.699110  1632 net.cpp:425] fc8_plantvillage_fc8_plantvillage_0_split <- fc8_plantvillage
I0403 14:35:45.699127  1632 net.cpp:399] fc8_plantvillage_fc8_plantvillage_0_split -> fc8_plantvillage_fc8_plantvillage_0_split_0
I0403 14:35:45.699146  1632 net.cpp:399] fc8_plantvillage_fc8_plantvillage_0_split -> fc8_plantvillage_fc8_plantvillage_0_split_1
I0403 14:35:45.699165  1632 net.cpp:399] fc8_plantvillage_fc8_plantvillage_0_split -> fc8_plantvillage_fc8_plantvillage_0_split_2
I0403 14:35:45.699240  1632 net.cpp:141] Setting up fc8_plantvillage_fc8_plantvillage_0_split
I0403 14:35:45.699264  1632 net.cpp:148] Top shape: 100 38 (3800)
I0403 14:35:45.699285  1632 net.cpp:148] Top shape: 100 38 (3800)
I0403 14:35:45.699300  1632 net.cpp:148] Top shape: 100 38 (3800)
I0403 14:35:45.699313  1632 net.cpp:156] Memory required for data: 831586800
I0403 14:35:45.699327  1632 layer_factory.hpp:77] Creating layer prob
I0403 14:35:45.699345  1632 net.cpp:91] Creating Layer prob
I0403 14:35:45.699360  1632 net.cpp:425] prob <- fc8_plantvillage_fc8_plantvillage_0_split_0
I0403 14:35:45.699378  1632 net.cpp:399] prob -> prob
I0403 14:35:45.699596  1632 net.cpp:141] Setting up prob
I0403 14:35:45.699621  1632 net.cpp:148] Top shape: 100 38 (3800)
I0403 14:35:45.699635  1632 net.cpp:156] Memory required for data: 831602000
I0403 14:35:45.699650  1632 layer_factory.hpp:77] Creating layer hdf5out
I0403 14:35:45.699672  1632 net.cpp:91] Creating Layer hdf5out
I0403 14:35:45.699689  1632 net.cpp:425] hdf5out <- prob
I0403 14:35:45.699704  1632 net.cpp:425] hdf5out <- label_data_1_split_0
I0403 14:35:45.702066  1632 net.cpp:141] Setting up hdf5out
…
