…
I0403 14:47:08.605525  1963 net.cpp:313] The NetState phase (1) differed from the phase (0) specified by a rule in layer data
I0403 14:47:08.605819  1963 net.cpp:49] Initializing net from parameters: 
state {
  phase: TEST
}
layer {
  name: "data"
  type: "Data"
  top: "data"
  top: "label"
  include {
    phase: TEST
  }
  transform_param {
    crop_size: 227
    mean_file: "/home/mohanty/data/final_dataset/lmdb/color-60-40/mean.binaryproto"
  }
  data_param {
    source: "/home/mohanty/data/final_dataset/lmdb/color-60-40/test_db"
    batch_size: 100
    backend: LMDB
  }
}
layer {
  name: "conv1"
  type: "Convolution"
  bottom: "data"
  top: "conv1"
  param {
    lr_mult: 1
    decay_mult: 1
  }
  param {
    lr_mult: 2
    decay_mult: 0
  }
  convolution_param {
    num_output: 96
    kernel_size: 11
    stride: 4
    weight_filler {
      type: "gaussian"
      std: 0.01
    }
    bias_filler {
      type: "constant"
      value: 0
    }
  }
}
layer {
  name: "relu1"
  type: "ReLU"
  bottom: "conv1"
  top: "conv1"
}
layer {
  name: "norm1"
  type: "LRN"
  bottom: "conv1"
  top: "norm1"
  lrn_param {
    local_size: 5
    alpha: 0.0001
    beta: 0.75
  }
}
layer {
  name: "pool1"
  type: "Pooling"
  bottom: "norm1"
  top: "pool1"
  pooling_param {
    pool: MAX
    kernel_size: 3
    stride: 2
  }
}
layer {
  name: "conv2"
  type: "Convolution"
  bottom: "pool1"
  top: "conv2"
  param {
    lr_mult: 1
    decay_mult: 1
  }
  param {
    lr_mult: 2
    decay_mult: 0
  }
  convolution_param {
    num_output: 256
    pad: 2
    kernel_size: 5
    group: 2
    weight_filler {
      type: "gaussian"
      std: 0.01
    }
    bias_filler {
      type: "constant"
      value: 0.1
    }
  }
}
layer {
  name: "relu2"
  type: "ReLU"
  bottom: "conv2"
  top: "conv2"
}
layer {
  name: "norm2"
  type: "LRN"
  bottom: "conv2"
  top: "norm2"
  lrn_param {
    local_size: 5
    alpha: 0.0001
    beta: 0.75
  }
}
layer {
  name: "pool2"
  type: "Pooling"
  bottom: "norm2"
  top: "pool2"
  pooling_param {
    pool: MAX
    kernel_size: 3
    stride: 2
  }
}
layer {
  name: "conv3"
  type: "Convolution"
  bottom: "pool2"
  top: "conv3"
  param {
    lr_mult: 1
    decay_mult: 1
  }
  param {
    lr_mult: 2
    decay_mult: 0
  }
  convolution_param {
    num_output: 384
    pad: 1
    kernel_size: 3
    weight_filler {
      type: "gaussian"
      std: 0.01
    }
    bias_filler {
      type: "constant"
      value: 0
    }
  }
}
layer {
  name: "relu3"
  type: "ReLU"
  bottom: "conv3"
  top: "conv3"
}
layer {
  name: "conv4"
  type: "Convolution"
  bottom: "conv3"
  top: "conv4"
  param {
    lr_mult: 1
    decay_mult: 1
  }
  param {
    lr_mult: 2
    decay_mult: 0
  }
  convolution_param {
    num_output: 384
    pad: 1
    kernel_size: 3
    group: 2
    weight_filler {
      type: "gaussian"
      std: 0.01
    }
    bias_filler {
      type: "constant"
      value: 0.1
    }
  }
}
layer {
  name: "relu4"
  type: "ReLU"
  bottom: "conv4"
  top: "conv4"
}
layer {
  name: "conv5"
  type: "Convolution"
  bottom: "conv4"
  top: "conv5"
  param {
    lr_mult: 1
    decay_mult: 1
  }
  param {
    lr_mult: 2
    decay_mult: 0
  }
  convolution_param {
    num_output: 256
    pad: 1
    kernel_size: 3
    group: 2
    weight_filler {
      type: "gaussian"
      std: 0.01
    }
    bias_filler {
      type: "constant"
      value: 0.1
    }
  }
}
layer {
  name: "relu5"
  type: "ReLU"
  bottom: "conv5"
  top: "conv5"
}
layer {
  name: "pool5"
  type: "Pooling"
  bottom: "conv5"
  top: "pool5"
  pooling_param {
    pool: MAX
    kernel_size: 3
    stride: 2
  }
}
layer {
  name: "fc6"
  type: "InnerProduct"
  bottom: "pool5"
  top: "fc6"
  param {
    lr_mult: 1
    decay_mult: 1
  }
  param {
    lr_mult: 2
    decay_mult: 0
  }
  inner_product_param {
    num_output: 4096
    weight_filler {
      type: "gaussian"
      std: 0.005
    }
    bias_filler {
      type: "constant"
      value: 0.1
    }
  }
}
layer {
  name: "relu6"
  type: "ReLU"
  bottom: "fc6"
  top: "fc6"
}
layer {
  name: "drop6"
  type: "Dropout"
  bottom: "fc6"
  top: "fc6"
  dropout_param {
    dropout_ratio: 0.5
  }
}
layer {
  name: "fc7"
  type: "InnerProduct"
  bottom: "fc6"
  top: "fc7"
  param {
    lr_mult: 1
    decay_mult: 1
  }
  param {
    lr_mult: 2
    decay_mult: 0
  }
  inner_product_param {
    num_output: 4096
    weight_filler {
      type: "gaussian"
      std: 0.005
    }
    bias_filler {
      type: "constant"
      value: 0.1
    }
  }
}
layer {
  name: "relu7"
  type: "ReLU"
  bottom: "fc7"
  top: "fc7"
}
layer {
  name: "drop7"
  type: "Dropout"
  bottom: "fc7"
  top: "fc7"
  dropout_param {
    dropout_ratio: 0.5
  }
}
layer {
  name: "fc8_plantvillage"
  type: "InnerProduct"
  bottom: "fc7"
  top: "fc8_plantvillage"
  param {
    lr_mult: 1
    decay_mult: 1
  }
  param {
    lr_mult: 2
    decay_mult: 0
  }
  inner_product_param {
    num_output: 38
    weight_filler {
      type: "gaussian"
      std: 0.01
    }
    bias_filler {
      type: "constant"
      value: 0
    }
  }
}
layer {
  name: "prob"
  type: "Softmax"
  bottom: "fc8_plantvillage"
  top: "prob"
  include {
    phase: TEST
  }
}
layer {
  name: "hdf5out"
  type: "HDF5Output"
  bottom: "prob"
  bottom: "label"
  include {
    phase: TEST
  }
  hdf5_output_param {
    file_name: "hdf5_dumps/iter_5850.h5"
  }
}
layer {
  name: "loss"
  type: "SoftmaxWithLoss"
  bottom: "fc8_plantvillage"
  bottom: "label"
  top: "loss"
}
layer {
  name: "accuracy"
  type: "Accuracy"
  bottom: "fc8_plantvillage"
  bottom: "label"
  top: "accuracy"
  include {
    phase: TEST
  }
}
I0403 14:47:08.606416  1963 layer_factory.hpp:77] Creating layer data
I0403 14:47:08.607064  1963 net.cpp:91] Creating Layer data
I0403 14:47:08.607097  1963 net.cpp:399] data -> data
I0403 14:47:08.607147  1963 net.cpp:399] data -> label
I0403 14:47:08.607185  1963 data_transformer.cpp:25] Loading mean file from: /home/mohanty/data/final_dataset/lmdb/color-60-40/mean.binaryproto
I0403 14:47:08.610136  1966 db_lmdb.cpp:38] Opened lmdb /home/mohanty/data/final_dataset/lmdb/color-60-40/test_db
I0403 14:47:08.621790  1963 data_layer.cpp:41] output data size: 100,3,227,227
I0403 14:47:08.744035  1963 net.cpp:141] Setting up data
I0403 14:47:08.744097  1963 net.cpp:148] Top shape: 100 3 227 227 (15458700)
I0403 14:47:08.744120  1963 net.cpp:148] Top shape: 100 (100)
I0403 14:47:08.744137  1963 net.cpp:156] Memory required for data: 61835200
I0403 14:47:08.744164  1963 layer_factory.hpp:77] Creating layer label_data_1_split
I0403 14:47:08.744190  1963 net.cpp:91] Creating Layer label_data_1_split
I0403 14:47:08.744209  1963 net.cpp:425] label_data_1_split <- label
I0403 14:47:08.744240  1963 net.cpp:399] label_data_1_split -> label_data_1_split_0
I0403 14:47:08.744267  1963 net.cpp:399] label_data_1_split -> label_data_1_split_1
I0403 14:47:08.744293  1963 net.cpp:399] label_data_1_split -> label_data_1_split_2
I0403 14:47:08.744359  1963 net.cpp:141] Setting up label_data_1_split
I0403 14:47:08.744385  1963 net.cpp:148] Top shape: 100 (100)
I0403 14:47:08.744402  1963 net.cpp:148] Top shape: 100 (100)
I0403 14:47:08.744418  1963 net.cpp:148] Top shape: 100 (100)
I0403 14:47:08.744434  1963 net.cpp:156] Memory required for data: 61836400
I0403 14:47:08.744451  1963 layer_factory.hpp:77] Creating layer conv1
I0403 14:47:08.744483  1963 net.cpp:91] Creating Layer conv1
I0403 14:47:08.744503  1963 net.cpp:425] conv1 <- data
I0403 14:47:08.744523  1963 net.cpp:399] conv1 -> conv1
I0403 14:47:08.889305  1963 net.cpp:141] Setting up conv1
I0403 14:47:08.889395  1963 net.cpp:148] Top shape: 100 96 55 55 (29040000)
I0403 14:47:08.889412  1963 net.cpp:156] Memory required for data: 177996400
I0403 14:47:08.889443  1963 layer_factory.hpp:77] Creating layer relu1
I0403 14:47:08.889472  1963 net.cpp:91] Creating Layer relu1
I0403 14:47:08.889488  1963 net.cpp:425] relu1 <- conv1
I0403 14:47:08.889518  1963 net.cpp:386] relu1 -> conv1 (in-place)
I0403 14:47:08.889786  1963 net.cpp:141] Setting up relu1
I0403 14:47:08.889812  1963 net.cpp:148] Top shape: 100 96 55 55 (29040000)
I0403 14:47:08.889828  1963 net.cpp:156] Memory required for data: 294156400
I0403 14:47:08.889874  1963 layer_factory.hpp:77] Creating layer norm1
I0403 14:47:08.889905  1963 net.cpp:91] Creating Layer norm1
I0403 14:47:08.889925  1963 net.cpp:425] norm1 <- conv1
I0403 14:47:08.889943  1963 net.cpp:399] norm1 -> norm1
I0403 14:47:08.890274  1963 net.cpp:141] Setting up norm1
I0403 14:47:08.890302  1963 net.cpp:148] Top shape: 100 96 55 55 (29040000)
I0403 14:47:08.890317  1963 net.cpp:156] Memory required for data: 410316400
I0403 14:47:08.890333  1963 layer_factory.hpp:77] Creating layer pool1
I0403 14:47:08.890358  1963 net.cpp:91] Creating Layer pool1
I0403 14:47:08.890377  1963 net.cpp:425] pool1 <- norm1
I0403 14:47:08.890394  1963 net.cpp:399] pool1 -> pool1
I0403 14:47:08.890466  1963 net.cpp:141] Setting up pool1
I0403 14:47:08.890491  1963 net.cpp:148] Top shape: 100 96 27 27 (6998400)
I0403 14:47:08.890506  1963 net.cpp:156] Memory required for data: 438310000
I0403 14:47:08.890522  1963 layer_factory.hpp:77] Creating layer conv2
I0403 14:47:08.890547  1963 net.cpp:91] Creating Layer conv2
I0403 14:47:08.890564  1963 net.cpp:425] conv2 <- pool1
I0403 14:47:08.890585  1963 net.cpp:399] conv2 -> conv2
I0403 14:47:08.905691  1963 net.cpp:141] Setting up conv2
I0403 14:47:08.905745  1963 net.cpp:148] Top shape: 100 256 27 27 (18662400)
I0403 14:47:08.905763  1963 net.cpp:156] Memory required for data: 512959600
I0403 14:47:08.905786  1963 layer_factory.hpp:77] Creating layer relu2
I0403 14:47:08.905810  1963 net.cpp:91] Creating Layer relu2
I0403 14:47:08.905827  1963 net.cpp:425] relu2 <- conv2
I0403 14:47:08.905845  1963 net.cpp:386] relu2 -> conv2 (in-place)
I0403 14:47:08.906131  1963 net.cpp:141] Setting up relu2
I0403 14:47:08.906159  1963 net.cpp:148] Top shape: 100 256 27 27 (18662400)
I0403 14:47:08.906174  1963 net.cpp:156] Memory required for data: 587609200
I0403 14:47:08.906190  1963 layer_factory.hpp:77] Creating layer norm2
I0403 14:47:08.906214  1963 net.cpp:91] Creating Layer norm2
I0403 14:47:08.906231  1963 net.cpp:425] norm2 <- conv2
I0403 14:47:08.906257  1963 net.cpp:399] norm2 -> norm2
I0403 14:47:08.906461  1963 net.cpp:141] Setting up norm2
I0403 14:47:08.906487  1963 net.cpp:148] Top shape: 100 256 27 27 (18662400)
I0403 14:47:08.906502  1963 net.cpp:156] Memory required for data: 662258800
I0403 14:47:08.906517  1963 layer_factory.hpp:77] Creating layer pool2
I0403 14:47:08.906538  1963 net.cpp:91] Creating Layer pool2
I0403 14:47:08.906554  1963 net.cpp:425] pool2 <- norm2
I0403 14:47:08.906572  1963 net.cpp:399] pool2 -> pool2
I0403 14:47:08.906625  1963 net.cpp:141] Setting up pool2
I0403 14:47:08.906649  1963 net.cpp:148] Top shape: 100 256 13 13 (4326400)
I0403 14:47:08.906664  1963 net.cpp:156] Memory required for data: 679564400
I0403 14:47:08.906678  1963 layer_factory.hpp:77] Creating layer conv3
I0403 14:47:08.906718  1963 net.cpp:91] Creating Layer conv3
I0403 14:47:08.906734  1963 net.cpp:425] conv3 <- pool2
I0403 14:47:08.906755  1963 net.cpp:399] conv3 -> conv3
I0403 14:47:08.948745  1963 net.cpp:141] Setting up conv3
I0403 14:47:08.948798  1963 net.cpp:148] Top shape: 100 384 13 13 (6489600)
I0403 14:47:08.948814  1963 net.cpp:156] Memory required for data: 705522800
I0403 14:47:08.948843  1963 layer_factory.hpp:77] Creating layer relu3
I0403 14:47:08.948865  1963 net.cpp:91] Creating Layer relu3
I0403 14:47:08.948882  1963 net.cpp:425] relu3 <- conv3
I0403 14:47:08.948900  1963 net.cpp:386] relu3 -> conv3 (in-place)
I0403 14:47:08.949169  1963 net.cpp:141] Setting up relu3
I0403 14:47:08.949198  1963 net.cpp:148] Top shape: 100 384 13 13 (6489600)
I0403 14:47:08.949213  1963 net.cpp:156] Memory required for data: 731481200
I0403 14:47:08.949226  1963 layer_factory.hpp:77] Creating layer conv4
I0403 14:47:08.949265  1963 net.cpp:91] Creating Layer conv4
I0403 14:47:08.949283  1963 net.cpp:425] conv4 <- conv3
I0403 14:47:08.949307  1963 net.cpp:399] conv4 -> conv4
I0403 14:47:08.978209  1963 net.cpp:141] Setting up conv4
I0403 14:47:08.978260  1963 net.cpp:148] Top shape: 100 384 13 13 (6489600)
I0403 14:47:08.978307  1963 net.cpp:156] Memory required for data: 757439600
I0403 14:47:08.978329  1963 layer_factory.hpp:77] Creating layer relu4
I0403 14:47:08.978355  1963 net.cpp:91] Creating Layer relu4
I0403 14:47:08.978373  1963 net.cpp:425] relu4 <- conv4
I0403 14:47:08.978390  1963 net.cpp:386] relu4 -> conv4 (in-place)
I0403 14:47:08.978669  1963 net.cpp:141] Setting up relu4
I0403 14:47:08.978696  1963 net.cpp:148] Top shape: 100 384 13 13 (6489600)
I0403 14:47:08.978711  1963 net.cpp:156] Memory required for data: 783398000
I0403 14:47:08.978727  1963 layer_factory.hpp:77] Creating layer conv5
I0403 14:47:08.978751  1963 net.cpp:91] Creating Layer conv5
I0403 14:47:08.978770  1963 net.cpp:425] conv5 <- conv4
I0403 14:47:08.978791  1963 net.cpp:399] conv5 -> conv5
I0403 14:47:08.999547  1963 net.cpp:141] Setting up conv5
I0403 14:47:08.999608  1963 net.cpp:148] Top shape: 100 256 13 13 (4326400)
I0403 14:47:08.999625  1963 net.cpp:156] Memory required for data: 800703600
I0403 14:47:08.999651  1963 layer_factory.hpp:77] Creating layer relu5
I0403 14:47:08.999680  1963 net.cpp:91] Creating Layer relu5
I0403 14:47:08.999698  1963 net.cpp:425] relu5 <- conv5
I0403 14:47:08.999717  1963 net.cpp:386] relu5 -> conv5 (in-place)
I0403 14:47:09.000005  1963 net.cpp:141] Setting up relu5
I0403 14:47:09.000032  1963 net.cpp:148] Top shape: 100 256 13 13 (4326400)
I0403 14:47:09.000048  1963 net.cpp:156] Memory required for data: 818009200
I0403 14:47:09.000066  1963 layer_factory.hpp:77] Creating layer pool5
I0403 14:47:09.000090  1963 net.cpp:91] Creating Layer pool5
I0403 14:47:09.000108  1963 net.cpp:425] pool5 <- conv5
I0403 14:47:09.000131  1963 net.cpp:399] pool5 -> pool5
I0403 14:47:09.000193  1963 net.cpp:141] Setting up pool5
I0403 14:47:09.000218  1963 net.cpp:148] Top shape: 100 256 6 6 (921600)
I0403 14:47:09.000234  1963 net.cpp:156] Memory required for data: 821695600
I0403 14:47:09.000255  1963 layer_factory.hpp:77] Creating layer fc6
I0403 14:47:09.000286  1963 net.cpp:91] Creating Layer fc6
I0403 14:47:09.000305  1963 net.cpp:425] fc6 <- pool5
I0403 14:47:09.000324  1963 net.cpp:399] fc6 -> fc6
I0403 14:47:10.548985  1963 net.cpp:141] Setting up fc6
I0403 14:47:10.549039  1963 net.cpp:148] Top shape: 100 4096 (409600)
I0403 14:47:10.549055  1963 net.cpp:156] Memory required for data: 823334000
I0403 14:47:10.549077  1963 layer_factory.hpp:77] Creating layer relu6
I0403 14:47:10.549098  1963 net.cpp:91] Creating Layer relu6
I0403 14:47:10.549113  1963 net.cpp:425] relu6 <- fc6
I0403 14:47:10.549134  1963 net.cpp:386] relu6 -> fc6 (in-place)
I0403 14:47:10.549351  1963 net.cpp:141] Setting up relu6
I0403 14:47:10.549376  1963 net.cpp:148] Top shape: 100 4096 (409600)
I0403 14:47:10.549391  1963 net.cpp:156] Memory required for data: 824972400
I0403 14:47:10.549404  1963 layer_factory.hpp:77] Creating layer drop6
I0403 14:47:10.549424  1963 net.cpp:91] Creating Layer drop6
I0403 14:47:10.549440  1963 net.cpp:425] drop6 <- fc6
I0403 14:47:10.549455  1963 net.cpp:386] drop6 -> fc6 (in-place)
I0403 14:47:10.549506  1963 net.cpp:141] Setting up drop6
I0403 14:47:10.549527  1963 net.cpp:148] Top shape: 100 4096 (409600)
I0403 14:47:10.549541  1963 net.cpp:156] Memory required for data: 826610800
I0403 14:47:10.549556  1963 layer_factory.hpp:77] Creating layer fc7
I0403 14:47:10.549574  1963 net.cpp:91] Creating Layer fc7
I0403 14:47:10.549588  1963 net.cpp:425] fc7 <- fc6
I0403 14:47:10.549607  1963 net.cpp:399] fc7 -> fc7
I0403 14:47:11.240566  1963 net.cpp:141] Setting up fc7
I0403 14:47:11.240620  1963 net.cpp:148] Top shape: 100 4096 (409600)
I0403 14:47:11.240635  1963 net.cpp:156] Memory required for data: 828249200
I0403 14:47:11.240656  1963 layer_factory.hpp:77] Creating layer relu7
I0403 14:47:11.240680  1963 net.cpp:91] Creating Layer relu7
I0403 14:47:11.240699  1963 net.cpp:425] relu7 <- fc7
I0403 14:47:11.240717  1963 net.cpp:386] relu7 -> fc7 (in-place)
I0403 14:47:11.241163  1963 net.cpp:141] Setting up relu7
I0403 14:47:11.241189  1963 net.cpp:148] Top shape: 100 4096 (409600)
I0403 14:47:11.241236  1963 net.cpp:156] Memory required for data: 829887600
I0403 14:47:11.241260  1963 layer_factory.hpp:77] Creating layer drop7
I0403 14:47:11.241282  1963 net.cpp:91] Creating Layer drop7
I0403 14:47:11.241298  1963 net.cpp:425] drop7 <- fc7
I0403 14:47:11.241315  1963 net.cpp:386] drop7 -> fc7 (in-place)
I0403 14:47:11.241367  1963 net.cpp:141] Setting up drop7
I0403 14:47:11.241394  1963 net.cpp:148] Top shape: 100 4096 (409600)
I0403 14:47:11.241407  1963 net.cpp:156] Memory required for data: 831526000
I0403 14:47:11.241422  1963 layer_factory.hpp:77] Creating layer fc8_plantvillage
I0403 14:47:11.241441  1963 net.cpp:91] Creating Layer fc8_plantvillage
I0403 14:47:11.241456  1963 net.cpp:425] fc8_plantvillage <- fc7
I0403 14:47:11.241477  1963 net.cpp:399] fc8_plantvillage -> fc8_plantvillage
I0403 14:47:11.248137  1963 net.cpp:141] Setting up fc8_plantvillage
I0403 14:47:11.248164  1963 net.cpp:148] Top shape: 100 38 (3800)
I0403 14:47:11.248179  1963 net.cpp:156] Memory required for data: 831541200
I0403 14:47:11.248198  1963 layer_factory.hpp:77] Creating layer fc8_plantvillage_fc8_plantvillage_0_split
I0403 14:47:11.248217  1963 net.cpp:91] Creating Layer fc8_plantvillage_fc8_plantvillage_0_split
I0403 14:47:11.248232  1963 net.cpp:425] fc8_plantvillage_fc8_plantvillage_0_split <- fc8_plantvillage
I0403 14:47:11.248255  1963 net.cpp:399] fc8_plantvillage_fc8_plantvillage_0_split -> fc8_plantvillage_fc8_plantvillage_0_split_0
I0403 14:47:11.248275  1963 net.cpp:399] fc8_plantvillage_fc8_plantvillage_0_split -> fc8_plantvillage_fc8_plantvillage_0_split_1
I0403 14:47:11.248294  1963 net.cpp:399] fc8_plantvillage_fc8_plantvillage_0_split -> fc8_plantvillage_fc8_plantvillage_0_split_2
I0403 14:47:11.248371  1963 net.cpp:141] Setting up fc8_plantvillage_fc8_plantvillage_0_split
I0403 14:47:11.248394  1963 net.cpp:148] Top shape: 100 38 (3800)
I0403 14:47:11.248409  1963 net.cpp:148] Top shape: 100 38 (3800)
I0403 14:47:11.248423  1963 net.cpp:148] Top shape: 100 38 (3800)
I0403 14:47:11.248436  1963 net.cpp:156] Memory required for data: 831586800
I0403 14:47:11.248450  1963 layer_factory.hpp:77] Creating layer prob
I0403 14:47:11.248468  1963 net.cpp:91] Creating Layer prob
I0403 14:47:11.248483  1963 net.cpp:425] prob <- fc8_plantvillage_fc8_plantvillage_0_split_0
I0403 14:47:11.248502  1963 net.cpp:399] prob -> prob
I0403 14:47:11.248720  1963 net.cpp:141] Setting up prob
I0403 14:47:11.248744  1963 net.cpp:148] Top shape: 100 38 (3800)
I0403 14:47:11.248759  1963 net.cpp:156] Memory required for data: 831602000
I0403 14:47:11.248772  1963 layer_factory.hpp:77] Creating layer hdf5out
I0403 14:47:11.248795  1963 net.cpp:91] Creating Layer hdf5out
I0403 14:47:11.248811  1963 net.cpp:425] hdf5out <- prob
I0403 14:47:11.248826  1963 net.cpp:425] hdf5out <- label_data_1_split_0
I0403 14:47:11.250965  1963 net.cpp:141] Setting up hdf5out
…
