…
I0403 14:34:57.453477  1612 net.cpp:313] The NetState phase (1) differed from the phase (0) specified by a rule in layer data
I0403 14:34:57.453779  1612 net.cpp:49] Initializing net from parameters: 
state {
  phase: TEST
}
layer {
  name: "data"
  type: "Data"
  top: "data"
  top: "label"
  include {
    phase: TEST
  }
  transform_param {
    crop_size: 227
    mean_file: "/home/mohanty/data/final_dataset/lmdb/color-60-40/mean.binaryproto"
  }
  data_param {
    source: "/home/mohanty/data/final_dataset/lmdb/color-60-40/test_db"
    batch_size: 100
    backend: LMDB
  }
}
layer {
  name: "conv1"
  type: "Convolution"
  bottom: "data"
  top: "conv1"
  param {
    lr_mult: 1
    decay_mult: 1
  }
  param {
    lr_mult: 2
    decay_mult: 0
  }
  convolution_param {
    num_output: 96
    kernel_size: 11
    stride: 4
    weight_filler {
      type: "gaussian"
      std: 0.01
    }
    bias_filler {
      type: "constant"
      value: 0
    }
  }
}
layer {
  name: "relu1"
  type: "ReLU"
  bottom: "conv1"
  top: "conv1"
}
layer {
  name: "norm1"
  type: "LRN"
  bottom: "conv1"
  top: "norm1"
  lrn_param {
    local_size: 5
    alpha: 0.0001
    beta: 0.75
  }
}
layer {
  name: "pool1"
  type: "Pooling"
  bottom: "norm1"
  top: "pool1"
  pooling_param {
    pool: MAX
    kernel_size: 3
    stride: 2
  }
}
layer {
  name: "conv2"
  type: "Convolution"
  bottom: "pool1"
  top: "conv2"
  param {
    lr_mult: 1
    decay_mult: 1
  }
  param {
    lr_mult: 2
    decay_mult: 0
  }
  convolution_param {
    num_output: 256
    pad: 2
    kernel_size: 5
    group: 2
    weight_filler {
      type: "gaussian"
      std: 0.01
    }
    bias_filler {
      type: "constant"
      value: 0.1
    }
  }
}
layer {
  name: "relu2"
  type: "ReLU"
  bottom: "conv2"
  top: "conv2"
}
layer {
  name: "norm2"
  type: "LRN"
  bottom: "conv2"
  top: "norm2"
  lrn_param {
    local_size: 5
    alpha: 0.0001
    beta: 0.75
  }
}
layer {
  name: "pool2"
  type: "Pooling"
  bottom: "norm2"
  top: "pool2"
  pooling_param {
    pool: MAX
    kernel_size: 3
    stride: 2
  }
}
layer {
  name: "conv3"
  type: "Convolution"
  bottom: "pool2"
  top: "conv3"
  param {
    lr_mult: 1
    decay_mult: 1
  }
  param {
    lr_mult: 2
    decay_mult: 0
  }
  convolution_param {
    num_output: 384
    pad: 1
    kernel_size: 3
    weight_filler {
      type: "gaussian"
      std: 0.01
    }
    bias_filler {
      type: "constant"
      value: 0
    }
  }
}
layer {
  name: "relu3"
  type: "ReLU"
  bottom: "conv3"
  top: "conv3"
}
layer {
  name: "conv4"
  type: "Convolution"
  bottom: "conv3"
  top: "conv4"
  param {
    lr_mult: 1
    decay_mult: 1
  }
  param {
    lr_mult: 2
    decay_mult: 0
  }
  convolution_param {
    num_output: 384
    pad: 1
    kernel_size: 3
    group: 2
    weight_filler {
      type: "gaussian"
      std: 0.01
    }
    bias_filler {
      type: "constant"
      value: 0.1
    }
  }
}
layer {
  name: "relu4"
  type: "ReLU"
  bottom: "conv4"
  top: "conv4"
}
layer {
  name: "conv5"
  type: "Convolution"
  bottom: "conv4"
  top: "conv5"
  param {
    lr_mult: 1
    decay_mult: 1
  }
  param {
    lr_mult: 2
    decay_mult: 0
  }
  convolution_param {
    num_output: 256
    pad: 1
    kernel_size: 3
    group: 2
    weight_filler {
      type: "gaussian"
      std: 0.01
    }
    bias_filler {
      type: "constant"
      value: 0.1
    }
  }
}
layer {
  name: "relu5"
  type: "ReLU"
  bottom: "conv5"
  top: "conv5"
}
layer {
  name: "pool5"
  type: "Pooling"
  bottom: "conv5"
  top: "pool5"
  pooling_param {
    pool: MAX
    kernel_size: 3
    stride: 2
  }
}
layer {
  name: "fc6"
  type: "InnerProduct"
  bottom: "pool5"
  top: "fc6"
  param {
    lr_mult: 1
    decay_mult: 1
  }
  param {
    lr_mult: 2
    decay_mult: 0
  }
  inner_product_param {
    num_output: 4096
    weight_filler {
      type: "gaussian"
      std: 0.005
    }
    bias_filler {
      type: "constant"
      value: 0.1
    }
  }
}
layer {
  name: "relu6"
  type: "ReLU"
  bottom: "fc6"
  top: "fc6"
}
layer {
  name: "drop6"
  type: "Dropout"
  bottom: "fc6"
  top: "fc6"
  dropout_param {
    dropout_ratio: 0.5
  }
}
layer {
  name: "fc7"
  type: "InnerProduct"
  bottom: "fc6"
  top: "fc7"
  param {
    lr_mult: 1
    decay_mult: 1
  }
  param {
    lr_mult: 2
    decay_mult: 0
  }
  inner_product_param {
    num_output: 4096
    weight_filler {
      type: "gaussian"
      std: 0.005
    }
    bias_filler {
      type: "constant"
      value: 0.1
    }
  }
}
layer {
  name: "relu7"
  type: "ReLU"
  bottom: "fc7"
  top: "fc7"
}
layer {
  name: "drop7"
  type: "Dropout"
  bottom: "fc7"
  top: "fc7"
  dropout_param {
    dropout_ratio: 0.5
  }
}
layer {
  name: "fc8_plantvillage"
  type: "InnerProduct"
  bottom: "fc7"
  top: "fc8_plantvillage"
  param {
    lr_mult: 1
    decay_mult: 1
  }
  param {
    lr_mult: 2
    decay_mult: 0
  }
  inner_product_param {
    num_output: 38
    weight_filler {
      type: "gaussian"
      std: 0.01
    }
    bias_filler {
      type: "constant"
      value: 0
    }
  }
}
layer {
  name: "prob"
  type: "Softmax"
  bottom: "fc8_plantvillage"
  top: "prob"
  include {
    phase: TEST
  }
}
layer {
  name: "hdf5out"
  type: "HDF5Output"
  bottom: "prob"
  bottom: "label"
  include {
    phase: TEST
  }
  hdf5_output_param {
    file_name: "hdf5_dumps/iter_650.h5"
  }
}
layer {
  name: "loss"
  type: "SoftmaxWithLoss"
  bottom: "fc8_plantvillage"
  bottom: "label"
  top: "loss"
}
layer {
  name: "accuracy"
  type: "Accuracy"
  bottom: "fc8_plantvillage"
  bottom: "label"
  top: "accuracy"
  include {
    phase: TEST
  }
}
I0403 14:34:57.454377  1612 layer_factory.hpp:77] Creating layer data
I0403 14:34:57.455021  1612 net.cpp:91] Creating Layer data
I0403 14:34:57.455051  1612 net.cpp:399] data -> data
I0403 14:34:57.455101  1612 net.cpp:399] data -> label
I0403 14:34:57.455137  1612 data_transformer.cpp:25] Loading mean file from: /home/mohanty/data/final_dataset/lmdb/color-60-40/mean.binaryproto
I0403 14:34:57.457947  1617 db_lmdb.cpp:38] Opened lmdb /home/mohanty/data/final_dataset/lmdb/color-60-40/test_db
I0403 14:34:57.469887  1612 data_layer.cpp:41] output data size: 100,3,227,227
I0403 14:34:57.590162  1612 net.cpp:141] Setting up data
I0403 14:34:57.590231  1612 net.cpp:148] Top shape: 100 3 227 227 (15458700)
I0403 14:34:57.590252  1612 net.cpp:148] Top shape: 100 (100)
I0403 14:34:57.590267  1612 net.cpp:156] Memory required for data: 61835200
I0403 14:34:57.590298  1612 layer_factory.hpp:77] Creating layer label_data_1_split
I0403 14:34:57.590323  1612 net.cpp:91] Creating Layer label_data_1_split
I0403 14:34:57.590340  1612 net.cpp:425] label_data_1_split <- label
I0403 14:34:57.590370  1612 net.cpp:399] label_data_1_split -> label_data_1_split_0
I0403 14:34:57.590395  1612 net.cpp:399] label_data_1_split -> label_data_1_split_1
I0403 14:34:57.590415  1612 net.cpp:399] label_data_1_split -> label_data_1_split_2
I0403 14:34:57.590477  1612 net.cpp:141] Setting up label_data_1_split
I0403 14:34:57.590500  1612 net.cpp:148] Top shape: 100 (100)
I0403 14:34:57.590517  1612 net.cpp:148] Top shape: 100 (100)
I0403 14:34:57.590533  1612 net.cpp:148] Top shape: 100 (100)
I0403 14:34:57.590546  1612 net.cpp:156] Memory required for data: 61836400
I0403 14:34:57.590561  1612 layer_factory.hpp:77] Creating layer conv1
I0403 14:34:57.590591  1612 net.cpp:91] Creating Layer conv1
I0403 14:34:57.590610  1612 net.cpp:425] conv1 <- data
I0403 14:34:57.590628  1612 net.cpp:399] conv1 -> conv1
I0403 14:34:57.734650  1612 net.cpp:141] Setting up conv1
I0403 14:34:57.734695  1612 net.cpp:148] Top shape: 100 96 55 55 (29040000)
I0403 14:34:57.734714  1612 net.cpp:156] Memory required for data: 177996400
I0403 14:34:57.734746  1612 layer_factory.hpp:77] Creating layer relu1
I0403 14:34:57.734774  1612 net.cpp:91] Creating Layer relu1
I0403 14:34:57.734793  1612 net.cpp:425] relu1 <- conv1
I0403 14:34:57.734813  1612 net.cpp:386] relu1 -> conv1 (in-place)
I0403 14:34:57.735091  1612 net.cpp:141] Setting up relu1
I0403 14:34:57.735121  1612 net.cpp:148] Top shape: 100 96 55 55 (29040000)
I0403 14:34:57.735143  1612 net.cpp:156] Memory required for data: 294156400
I0403 14:34:57.735191  1612 layer_factory.hpp:77] Creating layer norm1
I0403 14:34:57.735232  1612 net.cpp:91] Creating Layer norm1
I0403 14:34:57.735252  1612 net.cpp:425] norm1 <- conv1
I0403 14:34:57.735278  1612 net.cpp:399] norm1 -> norm1
I0403 14:34:57.735625  1612 net.cpp:141] Setting up norm1
I0403 14:34:57.735657  1612 net.cpp:148] Top shape: 100 96 55 55 (29040000)
I0403 14:34:57.735676  1612 net.cpp:156] Memory required for data: 410316400
I0403 14:34:57.735693  1612 layer_factory.hpp:77] Creating layer pool1
I0403 14:34:57.735718  1612 net.cpp:91] Creating Layer pool1
I0403 14:34:57.735735  1612 net.cpp:425] pool1 <- norm1
I0403 14:34:57.735757  1612 net.cpp:399] pool1 -> pool1
I0403 14:34:57.735831  1612 net.cpp:141] Setting up pool1
I0403 14:34:57.735858  1612 net.cpp:148] Top shape: 100 96 27 27 (6998400)
I0403 14:34:57.735874  1612 net.cpp:156] Memory required for data: 438310000
I0403 14:34:57.735890  1612 layer_factory.hpp:77] Creating layer conv2
I0403 14:34:57.735918  1612 net.cpp:91] Creating Layer conv2
I0403 14:34:57.735936  1612 net.cpp:425] conv2 <- pool1
I0403 14:34:57.735956  1612 net.cpp:399] conv2 -> conv2
I0403 14:34:57.751873  1612 net.cpp:141] Setting up conv2
I0403 14:34:57.751921  1612 net.cpp:148] Top shape: 100 256 27 27 (18662400)
I0403 14:34:57.751938  1612 net.cpp:156] Memory required for data: 512959600
I0403 14:34:57.751961  1612 layer_factory.hpp:77] Creating layer relu2
I0403 14:34:57.751981  1612 net.cpp:91] Creating Layer relu2
I0403 14:34:57.751997  1612 net.cpp:425] relu2 <- conv2
I0403 14:34:57.752018  1612 net.cpp:386] relu2 -> conv2 (in-place)
I0403 14:34:57.752362  1612 net.cpp:141] Setting up relu2
I0403 14:34:57.752390  1612 net.cpp:148] Top shape: 100 256 27 27 (18662400)
I0403 14:34:57.752405  1612 net.cpp:156] Memory required for data: 587609200
I0403 14:34:57.752421  1612 layer_factory.hpp:77] Creating layer norm2
I0403 14:34:57.752445  1612 net.cpp:91] Creating Layer norm2
I0403 14:34:57.752463  1612 net.cpp:425] norm2 <- conv2
I0403 14:34:57.752481  1612 net.cpp:399] norm2 -> norm2
I0403 14:34:57.752684  1612 net.cpp:141] Setting up norm2
I0403 14:34:57.752712  1612 net.cpp:148] Top shape: 100 256 27 27 (18662400)
I0403 14:34:57.752727  1612 net.cpp:156] Memory required for data: 662258800
I0403 14:34:57.752742  1612 layer_factory.hpp:77] Creating layer pool2
I0403 14:34:57.752760  1612 net.cpp:91] Creating Layer pool2
I0403 14:34:57.752776  1612 net.cpp:425] pool2 <- norm2
I0403 14:34:57.752796  1612 net.cpp:399] pool2 -> pool2
I0403 14:34:57.752849  1612 net.cpp:141] Setting up pool2
I0403 14:34:57.752873  1612 net.cpp:148] Top shape: 100 256 13 13 (4326400)
I0403 14:34:57.752887  1612 net.cpp:156] Memory required for data: 679564400
I0403 14:34:57.752902  1612 layer_factory.hpp:77] Creating layer conv3
I0403 14:34:57.752928  1612 net.cpp:91] Creating Layer conv3
I0403 14:34:57.752944  1612 net.cpp:425] conv3 <- pool2
I0403 14:34:57.752964  1612 net.cpp:399] conv3 -> conv3
I0403 14:34:57.796722  1612 net.cpp:141] Setting up conv3
I0403 14:34:57.796800  1612 net.cpp:148] Top shape: 100 384 13 13 (6489600)
I0403 14:34:57.796818  1612 net.cpp:156] Memory required for data: 705522800
I0403 14:34:57.796844  1612 layer_factory.hpp:77] Creating layer relu3
I0403 14:34:57.796865  1612 net.cpp:91] Creating Layer relu3
I0403 14:34:57.796882  1612 net.cpp:425] relu3 <- conv3
I0403 14:34:57.796903  1612 net.cpp:386] relu3 -> conv3 (in-place)
I0403 14:34:57.797186  1612 net.cpp:141] Setting up relu3
I0403 14:34:57.797214  1612 net.cpp:148] Top shape: 100 384 13 13 (6489600)
I0403 14:34:57.797230  1612 net.cpp:156] Memory required for data: 731481200
I0403 14:34:57.797246  1612 layer_factory.hpp:77] Creating layer conv4
I0403 14:34:57.797278  1612 net.cpp:91] Creating Layer conv4
I0403 14:34:57.797298  1612 net.cpp:425] conv4 <- conv3
I0403 14:34:57.797319  1612 net.cpp:399] conv4 -> conv4
I0403 14:34:57.827853  1612 net.cpp:141] Setting up conv4
I0403 14:34:57.827894  1612 net.cpp:148] Top shape: 100 384 13 13 (6489600)
I0403 14:34:57.827941  1612 net.cpp:156] Memory required for data: 757439600
I0403 14:34:57.827965  1612 layer_factory.hpp:77] Creating layer relu4
I0403 14:34:57.827987  1612 net.cpp:91] Creating Layer relu4
I0403 14:34:57.828006  1612 net.cpp:425] relu4 <- conv4
I0403 14:34:57.828027  1612 net.cpp:386] relu4 -> conv4 (in-place)
I0403 14:34:57.828315  1612 net.cpp:141] Setting up relu4
I0403 14:34:57.828346  1612 net.cpp:148] Top shape: 100 384 13 13 (6489600)
I0403 14:34:57.828364  1612 net.cpp:156] Memory required for data: 783398000
I0403 14:34:57.828380  1612 layer_factory.hpp:77] Creating layer conv5
I0403 14:34:57.828407  1612 net.cpp:91] Creating Layer conv5
I0403 14:34:57.828424  1612 net.cpp:425] conv5 <- conv4
I0403 14:34:57.828444  1612 net.cpp:399] conv5 -> conv5
I0403 14:34:57.848485  1612 net.cpp:141] Setting up conv5
I0403 14:34:57.848529  1612 net.cpp:148] Top shape: 100 256 13 13 (4326400)
I0403 14:34:57.848546  1612 net.cpp:156] Memory required for data: 800703600
I0403 14:34:57.848570  1612 layer_factory.hpp:77] Creating layer relu5
I0403 14:34:57.848589  1612 net.cpp:91] Creating Layer relu5
I0403 14:34:57.848605  1612 net.cpp:425] relu5 <- conv5
I0403 14:34:57.848626  1612 net.cpp:386] relu5 -> conv5 (in-place)
I0403 14:34:57.848899  1612 net.cpp:141] Setting up relu5
I0403 14:34:57.848927  1612 net.cpp:148] Top shape: 100 256 13 13 (4326400)
I0403 14:34:57.848942  1612 net.cpp:156] Memory required for data: 818009200
I0403 14:34:57.848956  1612 layer_factory.hpp:77] Creating layer pool5
I0403 14:34:57.848978  1612 net.cpp:91] Creating Layer pool5
I0403 14:34:57.848994  1612 net.cpp:425] pool5 <- conv5
I0403 14:34:57.849016  1612 net.cpp:399] pool5 -> pool5
I0403 14:34:57.849076  1612 net.cpp:141] Setting up pool5
I0403 14:34:57.849099  1612 net.cpp:148] Top shape: 100 256 6 6 (921600)
I0403 14:34:57.849114  1612 net.cpp:156] Memory required for data: 821695600
I0403 14:34:57.849129  1612 layer_factory.hpp:77] Creating layer fc6
I0403 14:34:57.849159  1612 net.cpp:91] Creating Layer fc6
I0403 14:34:57.849175  1612 net.cpp:425] fc6 <- pool5
I0403 14:34:57.849196  1612 net.cpp:399] fc6 -> fc6
I0403 14:34:59.417191  1612 net.cpp:141] Setting up fc6
I0403 14:34:59.417232  1612 net.cpp:148] Top shape: 100 4096 (409600)
I0403 14:34:59.417249  1612 net.cpp:156] Memory required for data: 823334000
I0403 14:34:59.417275  1612 layer_factory.hpp:77] Creating layer relu6
I0403 14:34:59.417301  1612 net.cpp:91] Creating Layer relu6
I0403 14:34:59.417320  1612 net.cpp:425] relu6 <- fc6
I0403 14:34:59.417340  1612 net.cpp:386] relu6 -> fc6 (in-place)
I0403 14:34:59.417554  1612 net.cpp:141] Setting up relu6
I0403 14:34:59.417579  1612 net.cpp:148] Top shape: 100 4096 (409600)
I0403 14:34:59.417594  1612 net.cpp:156] Memory required for data: 824972400
I0403 14:34:59.417609  1612 layer_factory.hpp:77] Creating layer drop6
I0403 14:34:59.417629  1612 net.cpp:91] Creating Layer drop6
I0403 14:34:59.417644  1612 net.cpp:425] drop6 <- fc6
I0403 14:34:59.417662  1612 net.cpp:386] drop6 -> fc6 (in-place)
I0403 14:34:59.417712  1612 net.cpp:141] Setting up drop6
I0403 14:34:59.417739  1612 net.cpp:148] Top shape: 100 4096 (409600)
I0403 14:34:59.417755  1612 net.cpp:156] Memory required for data: 826610800
I0403 14:34:59.417770  1612 layer_factory.hpp:77] Creating layer fc7
I0403 14:34:59.417789  1612 net.cpp:91] Creating Layer fc7
I0403 14:34:59.417805  1612 net.cpp:425] fc7 <- fc6
I0403 14:34:59.417825  1612 net.cpp:399] fc7 -> fc7
I0403 14:35:00.094579  1612 net.cpp:141] Setting up fc7
I0403 14:35:00.094637  1612 net.cpp:148] Top shape: 100 4096 (409600)
I0403 14:35:00.094653  1612 net.cpp:156] Memory required for data: 828249200
I0403 14:35:00.094674  1612 layer_factory.hpp:77] Creating layer relu7
I0403 14:35:00.094696  1612 net.cpp:91] Creating Layer relu7
I0403 14:35:00.094713  1612 net.cpp:425] relu7 <- fc7
I0403 14:35:00.094735  1612 net.cpp:386] relu7 -> fc7 (in-place)
I0403 14:35:00.095151  1612 net.cpp:141] Setting up relu7
I0403 14:35:00.095180  1612 net.cpp:148] Top shape: 100 4096 (409600)
I0403 14:35:00.095227  1612 net.cpp:156] Memory required for data: 829887600
I0403 14:35:00.095244  1612 layer_factory.hpp:77] Creating layer drop7
I0403 14:35:00.095263  1612 net.cpp:91] Creating Layer drop7
I0403 14:35:00.095285  1612 net.cpp:425] drop7 <- fc7
I0403 14:35:00.095306  1612 net.cpp:386] drop7 -> fc7 (in-place)
I0403 14:35:00.095351  1612 net.cpp:141] Setting up drop7
I0403 14:35:00.095374  1612 net.cpp:148] Top shape: 100 4096 (409600)
I0403 14:35:00.095388  1612 net.cpp:156] Memory required for data: 831526000
I0403 14:35:00.095403  1612 layer_factory.hpp:77] Creating layer fc8_plantvillage
I0403 14:35:00.095425  1612 net.cpp:91] Creating Layer fc8_plantvillage
I0403 14:35:00.095443  1612 net.cpp:425] fc8_plantvillage <- fc7
I0403 14:35:00.095463  1612 net.cpp:399] fc8_plantvillage -> fc8_plantvillage
I0403 14:35:00.102172  1612 net.cpp:141] Setting up fc8_plantvillage
I0403 14:35:00.102200  1612 net.cpp:148] Top shape: 100 38 (3800)
I0403 14:35:00.102216  1612 net.cpp:156] Memory required for data: 831541200
I0403 14:35:00.102234  1612 layer_factory.hpp:77] Creating layer fc8_plantvillage_fc8_plantvillage_0_split
I0403 14:35:00.102253  1612 net.cpp:91] Creating Layer fc8_plantvillage_fc8_plantvillage_0_split
I0403 14:35:00.102269  1612 net.cpp:425] fc8_plantvillage_fc8_plantvillage_0_split <- fc8_plantvillage
I0403 14:35:00.102303  1612 net.cpp:399] fc8_plantvillage_fc8_plantvillage_0_split -> fc8_plantvillage_fc8_plantvillage_0_split_0
I0403 14:35:00.102325  1612 net.cpp:399] fc8_plantvillage_fc8_plantvillage_0_split -> fc8_plantvillage_fc8_plantvillage_0_split_1
I0403 14:35:00.102346  1612 net.cpp:399] fc8_plantvillage_fc8_plantvillage_0_split -> fc8_plantvillage_fc8_plantvillage_0_split_2
I0403 14:35:00.102422  1612 net.cpp:141] Setting up fc8_plantvillage_fc8_plantvillage_0_split
I0403 14:35:00.102447  1612 net.cpp:148] Top shape: 100 38 (3800)
I0403 14:35:00.102463  1612 net.cpp:148] Top shape: 100 38 (3800)
I0403 14:35:00.102478  1612 net.cpp:148] Top shape: 100 38 (3800)
I0403 14:35:00.102493  1612 net.cpp:156] Memory required for data: 831586800
I0403 14:35:00.102506  1612 layer_factory.hpp:77] Creating layer prob
I0403 14:35:00.102525  1612 net.cpp:91] Creating Layer prob
I0403 14:35:00.102540  1612 net.cpp:425] prob <- fc8_plantvillage_fc8_plantvillage_0_split_0
I0403 14:35:00.102560  1612 net.cpp:399] prob -> prob
I0403 14:35:00.102783  1612 net.cpp:141] Setting up prob
I0403 14:35:00.102812  1612 net.cpp:148] Top shape: 100 38 (3800)
I0403 14:35:00.102828  1612 net.cpp:156] Memory required for data: 831602000
I0403 14:35:00.102843  1612 layer_factory.hpp:77] Creating layer hdf5out
I0403 14:35:00.102861  1612 net.cpp:91] Creating Layer hdf5out
I0403 14:35:00.102877  1612 net.cpp:425] hdf5out <- prob
I0403 14:35:00.102893  1612 net.cpp:425] hdf5out <- label_data_1_split_0
I0403 14:35:00.105340  1612 net.cpp:141] Setting up hdf5out
…
