…
I0403 14:54:45.132112  2148 net.cpp:313] The NetState phase (1) differed from the phase (0) specified by a rule in layer data
I0403 14:54:45.132423  2148 net.cpp:49] Initializing net from parameters: 
state {
  phase: TEST
}
layer {
  name: "data"
  type: "Data"
  top: "data"
  top: "label"
  include {
    phase: TEST
  }
  transform_param {
    crop_size: 227
    mean_file: "/home/mohanty/data/final_dataset/lmdb/color-60-40/mean.binaryproto"
  }
  data_param {
    source: "/home/mohanty/data/final_dataset/lmdb/color-60-40/test_db"
    batch_size: 100
    backend: LMDB
  }
}
layer {
  name: "conv1"
  type: "Convolution"
  bottom: "data"
  top: "conv1"
  param {
    lr_mult: 1
    decay_mult: 1
  }
  param {
    lr_mult: 2
    decay_mult: 0
  }
  convolution_param {
    num_output: 96
    kernel_size: 11
    stride: 4
    weight_filler {
      type: "gaussian"
      std: 0.01
    }
    bias_filler {
      type: "constant"
      value: 0
    }
  }
}
layer {
  name: "relu1"
  type: "ReLU"
  bottom: "conv1"
  top: "conv1"
}
layer {
  name: "norm1"
  type: "LRN"
  bottom: "conv1"
  top: "norm1"
  lrn_param {
    local_size: 5
    alpha: 0.0001
    beta: 0.75
  }
}
layer {
  name: "pool1"
  type: "Pooling"
  bottom: "norm1"
  top: "pool1"
  pooling_param {
    pool: MAX
    kernel_size: 3
    stride: 2
  }
}
layer {
  name: "conv2"
  type: "Convolution"
  bottom: "pool1"
  top: "conv2"
  param {
    lr_mult: 1
    decay_mult: 1
  }
  param {
    lr_mult: 2
    decay_mult: 0
  }
  convolution_param {
    num_output: 256
    pad: 2
    kernel_size: 5
    group: 2
    weight_filler {
      type: "gaussian"
      std: 0.01
    }
    bias_filler {
      type: "constant"
      value: 0.1
    }
  }
}
layer {
  name: "relu2"
  type: "ReLU"
  bottom: "conv2"
  top: "conv2"
}
layer {
  name: "norm2"
  type: "LRN"
  bottom: "conv2"
  top: "norm2"
  lrn_param {
    local_size: 5
    alpha: 0.0001
    beta: 0.75
  }
}
layer {
  name: "pool2"
  type: "Pooling"
  bottom: "norm2"
  top: "pool2"
  pooling_param {
    pool: MAX
    kernel_size: 3
    stride: 2
  }
}
layer {
  name: "conv3"
  type: "Convolution"
  bottom: "pool2"
  top: "conv3"
  param {
    lr_mult: 1
    decay_mult: 1
  }
  param {
    lr_mult: 2
    decay_mult: 0
  }
  convolution_param {
    num_output: 384
    pad: 1
    kernel_size: 3
    weight_filler {
      type: "gaussian"
      std: 0.01
    }
    bias_filler {
      type: "constant"
      value: 0
    }
  }
}
layer {
  name: "relu3"
  type: "ReLU"
  bottom: "conv3"
  top: "conv3"
}
layer {
  name: "conv4"
  type: "Convolution"
  bottom: "conv3"
  top: "conv4"
  param {
    lr_mult: 1
    decay_mult: 1
  }
  param {
    lr_mult: 2
    decay_mult: 0
  }
  convolution_param {
    num_output: 384
    pad: 1
    kernel_size: 3
    group: 2
    weight_filler {
      type: "gaussian"
      std: 0.01
    }
    bias_filler {
      type: "constant"
      value: 0.1
    }
  }
}
layer {
  name: "relu4"
  type: "ReLU"
  bottom: "conv4"
  top: "conv4"
}
layer {
  name: "conv5"
  type: "Convolution"
  bottom: "conv4"
  top: "conv5"
  param {
    lr_mult: 1
    decay_mult: 1
  }
  param {
    lr_mult: 2
    decay_mult: 0
  }
  convolution_param {
    num_output: 256
    pad: 1
    kernel_size: 3
    group: 2
    weight_filler {
      type: "gaussian"
      std: 0.01
    }
    bias_filler {
      type: "constant"
      value: 0.1
    }
  }
}
layer {
  name: "relu5"
  type: "ReLU"
  bottom: "conv5"
  top: "conv5"
}
layer {
  name: "pool5"
  type: "Pooling"
  bottom: "conv5"
  top: "pool5"
  pooling_param {
    pool: MAX
    kernel_size: 3
    stride: 2
  }
}
layer {
  name: "fc6"
  type: "InnerProduct"
  bottom: "pool5"
  top: "fc6"
  param {
    lr_mult: 1
    decay_mult: 1
  }
  param {
    lr_mult: 2
    decay_mult: 0
  }
  inner_product_param {
    num_output: 4096
    weight_filler {
      type: "gaussian"
      std: 0.005
    }
    bias_filler {
      type: "constant"
      value: 0.1
    }
  }
}
layer {
  name: "relu6"
  type: "ReLU"
  bottom: "fc6"
  top: "fc6"
}
layer {
  name: "drop6"
  type: "Dropout"
  bottom: "fc6"
  top: "fc6"
  dropout_param {
    dropout_ratio: 0.5
  }
}
layer {
  name: "fc7"
  type: "InnerProduct"
  bottom: "fc6"
  top: "fc7"
  param {
    lr_mult: 1
    decay_mult: 1
  }
  param {
    lr_mult: 2
    decay_mult: 0
  }
  inner_product_param {
    num_output: 4096
    weight_filler {
      type: "gaussian"
      std: 0.005
    }
    bias_filler {
      type: "constant"
      value: 0.1
    }
  }
}
layer {
  name: "relu7"
  type: "ReLU"
  bottom: "fc7"
  top: "fc7"
}
layer {
  name: "drop7"
  type: "Dropout"
  bottom: "fc7"
  top: "fc7"
  dropout_param {
    dropout_ratio: 0.5
  }
}
layer {
  name: "fc8_plantvillage"
  type: "InnerProduct"
  bottom: "fc7"
  top: "fc8_plantvillage"
  param {
    lr_mult: 1
    decay_mult: 1
  }
  param {
    lr_mult: 2
    decay_mult: 0
  }
  inner_product_param {
    num_output: 38
    weight_filler {
      type: "gaussian"
      std: 0.01
    }
    bias_filler {
      type: "constant"
      value: 0
    }
  }
}
layer {
  name: "prob"
  type: "Softmax"
  bottom: "fc8_plantvillage"
  top: "prob"
  include {
    phase: TEST
  }
}
layer {
  name: "hdf5out"
  type: "HDF5Output"
  bottom: "prob"
  bottom: "label"
  include {
    phase: TEST
  }
  hdf5_output_param {
    file_name: "hdf5_dumps/iter_9100.h5"
  }
}
layer {
  name: "loss"
  type: "SoftmaxWithLoss"
  bottom: "fc8_plantvillage"
  bottom: "label"
  top: "loss"
}
layer {
  name: "accuracy"
  type: "Accuracy"
  bottom: "fc8_plantvillage"
  bottom: "label"
  top: "accuracy"
  include {
    phase: TEST
  }
}
I0403 14:54:45.132966  2148 layer_factory.hpp:77] Creating layer data
I0403 14:54:45.133623  2148 net.cpp:91] Creating Layer data
I0403 14:54:45.133657  2148 net.cpp:399] data -> data
I0403 14:54:45.133710  2148 net.cpp:399] data -> label
I0403 14:54:45.133747  2148 data_transformer.cpp:25] Loading mean file from: /home/mohanty/data/final_dataset/lmdb/color-60-40/mean.binaryproto
I0403 14:54:45.136543  2152 db_lmdb.cpp:38] Opened lmdb /home/mohanty/data/final_dataset/lmdb/color-60-40/test_db
I0403 14:54:45.148458  2148 data_layer.cpp:41] output data size: 100,3,227,227
I0403 14:54:45.272531  2148 net.cpp:141] Setting up data
I0403 14:54:45.272649  2148 net.cpp:148] Top shape: 100 3 227 227 (15458700)
I0403 14:54:45.272672  2148 net.cpp:148] Top shape: 100 (100)
I0403 14:54:45.272688  2148 net.cpp:156] Memory required for data: 61835200
I0403 14:54:45.272717  2148 layer_factory.hpp:77] Creating layer label_data_1_split
I0403 14:54:45.272743  2148 net.cpp:91] Creating Layer label_data_1_split
I0403 14:54:45.272761  2148 net.cpp:425] label_data_1_split <- label
I0403 14:54:45.272794  2148 net.cpp:399] label_data_1_split -> label_data_1_split_0
I0403 14:54:45.272821  2148 net.cpp:399] label_data_1_split -> label_data_1_split_1
I0403 14:54:45.272842  2148 net.cpp:399] label_data_1_split -> label_data_1_split_2
I0403 14:54:45.272907  2148 net.cpp:141] Setting up label_data_1_split
I0403 14:54:45.272930  2148 net.cpp:148] Top shape: 100 (100)
I0403 14:54:45.272948  2148 net.cpp:148] Top shape: 100 (100)
I0403 14:54:45.272965  2148 net.cpp:148] Top shape: 100 (100)
I0403 14:54:45.272980  2148 net.cpp:156] Memory required for data: 61836400
I0403 14:54:45.272995  2148 layer_factory.hpp:77] Creating layer conv1
I0403 14:54:45.273028  2148 net.cpp:91] Creating Layer conv1
I0403 14:54:45.273047  2148 net.cpp:425] conv1 <- data
I0403 14:54:45.273068  2148 net.cpp:399] conv1 -> conv1
I0403 14:54:45.417834  2148 net.cpp:141] Setting up conv1
I0403 14:54:45.417901  2148 net.cpp:148] Top shape: 100 96 55 55 (29040000)
I0403 14:54:45.417918  2148 net.cpp:156] Memory required for data: 177996400
I0403 14:54:45.417949  2148 layer_factory.hpp:77] Creating layer relu1
I0403 14:54:45.417976  2148 net.cpp:91] Creating Layer relu1
I0403 14:54:45.417994  2148 net.cpp:425] relu1 <- conv1
I0403 14:54:45.418014  2148 net.cpp:386] relu1 -> conv1 (in-place)
I0403 14:54:45.418278  2148 net.cpp:141] Setting up relu1
I0403 14:54:45.418305  2148 net.cpp:148] Top shape: 100 96 55 55 (29040000)
I0403 14:54:45.418320  2148 net.cpp:156] Memory required for data: 294156400
I0403 14:54:45.418367  2148 layer_factory.hpp:77] Creating layer norm1
I0403 14:54:45.418395  2148 net.cpp:91] Creating Layer norm1
I0403 14:54:45.418413  2148 net.cpp:425] norm1 <- conv1
I0403 14:54:45.418432  2148 net.cpp:399] norm1 -> norm1
I0403 14:54:45.418745  2148 net.cpp:141] Setting up norm1
I0403 14:54:45.418772  2148 net.cpp:148] Top shape: 100 96 55 55 (29040000)
I0403 14:54:45.418788  2148 net.cpp:156] Memory required for data: 410316400
I0403 14:54:45.418803  2148 layer_factory.hpp:77] Creating layer pool1
I0403 14:54:45.418828  2148 net.cpp:91] Creating Layer pool1
I0403 14:54:45.418844  2148 net.cpp:425] pool1 <- norm1
I0403 14:54:45.418862  2148 net.cpp:399] pool1 -> pool1
I0403 14:54:45.418931  2148 net.cpp:141] Setting up pool1
I0403 14:54:45.418954  2148 net.cpp:148] Top shape: 100 96 27 27 (6998400)
I0403 14:54:45.418970  2148 net.cpp:156] Memory required for data: 438310000
I0403 14:54:45.418984  2148 layer_factory.hpp:77] Creating layer conv2
I0403 14:54:45.419010  2148 net.cpp:91] Creating Layer conv2
I0403 14:54:45.419026  2148 net.cpp:425] conv2 <- pool1
I0403 14:54:45.419045  2148 net.cpp:399] conv2 -> conv2
I0403 14:54:45.434418  2148 net.cpp:141] Setting up conv2
I0403 14:54:45.434453  2148 net.cpp:148] Top shape: 100 256 27 27 (18662400)
I0403 14:54:45.434470  2148 net.cpp:156] Memory required for data: 512959600
I0403 14:54:45.434496  2148 layer_factory.hpp:77] Creating layer relu2
I0403 14:54:45.434515  2148 net.cpp:91] Creating Layer relu2
I0403 14:54:45.434532  2148 net.cpp:425] relu2 <- conv2
I0403 14:54:45.434550  2148 net.cpp:386] relu2 -> conv2 (in-place)
I0403 14:54:45.434831  2148 net.cpp:141] Setting up relu2
I0403 14:54:45.434905  2148 net.cpp:148] Top shape: 100 256 27 27 (18662400)
I0403 14:54:45.434926  2148 net.cpp:156] Memory required for data: 587609200
I0403 14:54:45.434942  2148 layer_factory.hpp:77] Creating layer norm2
I0403 14:54:45.434962  2148 net.cpp:91] Creating Layer norm2
I0403 14:54:45.434978  2148 net.cpp:425] norm2 <- conv2
I0403 14:54:45.434999  2148 net.cpp:399] norm2 -> norm2
I0403 14:54:45.435205  2148 net.cpp:141] Setting up norm2
I0403 14:54:45.435231  2148 net.cpp:148] Top shape: 100 256 27 27 (18662400)
I0403 14:54:45.435246  2148 net.cpp:156] Memory required for data: 662258800
I0403 14:54:45.435261  2148 layer_factory.hpp:77] Creating layer pool2
I0403 14:54:45.435287  2148 net.cpp:91] Creating Layer pool2
I0403 14:54:45.435305  2148 net.cpp:425] pool2 <- norm2
I0403 14:54:45.435322  2148 net.cpp:399] pool2 -> pool2
I0403 14:54:45.435377  2148 net.cpp:141] Setting up pool2
I0403 14:54:45.435400  2148 net.cpp:148] Top shape: 100 256 13 13 (4326400)
I0403 14:54:45.435415  2148 net.cpp:156] Memory required for data: 679564400
I0403 14:54:45.435430  2148 layer_factory.hpp:77] Creating layer conv3
I0403 14:54:45.435452  2148 net.cpp:91] Creating Layer conv3
I0403 14:54:45.435470  2148 net.cpp:425] conv3 <- pool2
I0403 14:54:45.435490  2148 net.cpp:399] conv3 -> conv3
I0403 14:54:45.479096  2148 net.cpp:141] Setting up conv3
I0403 14:54:45.479181  2148 net.cpp:148] Top shape: 100 384 13 13 (6489600)
I0403 14:54:45.479197  2148 net.cpp:156] Memory required for data: 705522800
I0403 14:54:45.479234  2148 layer_factory.hpp:77] Creating layer relu3
I0403 14:54:45.479259  2148 net.cpp:91] Creating Layer relu3
I0403 14:54:45.479285  2148 net.cpp:425] relu3 <- conv3
I0403 14:54:45.479305  2148 net.cpp:386] relu3 -> conv3 (in-place)
I0403 14:54:45.479599  2148 net.cpp:141] Setting up relu3
I0403 14:54:45.479627  2148 net.cpp:148] Top shape: 100 384 13 13 (6489600)
I0403 14:54:45.479643  2148 net.cpp:156] Memory required for data: 731481200
I0403 14:54:45.479660  2148 layer_factory.hpp:77] Creating layer conv4
I0403 14:54:45.479687  2148 net.cpp:91] Creating Layer conv4
I0403 14:54:45.479707  2148 net.cpp:425] conv4 <- conv3
I0403 14:54:45.479729  2148 net.cpp:399] conv4 -> conv4
I0403 14:54:45.510862  2148 net.cpp:141] Setting up conv4
I0403 14:54:45.510923  2148 net.cpp:148] Top shape: 100 384 13 13 (6489600)
I0403 14:54:45.510968  2148 net.cpp:156] Memory required for data: 757439600
I0403 14:54:45.510990  2148 layer_factory.hpp:77] Creating layer relu4
I0403 14:54:45.511015  2148 net.cpp:91] Creating Layer relu4
I0403 14:54:45.511032  2148 net.cpp:425] relu4 <- conv4
I0403 14:54:45.511052  2148 net.cpp:386] relu4 -> conv4 (in-place)
I0403 14:54:45.511382  2148 net.cpp:141] Setting up relu4
I0403 14:54:45.511410  2148 net.cpp:148] Top shape: 100 384 13 13 (6489600)
I0403 14:54:45.511425  2148 net.cpp:156] Memory required for data: 783398000
I0403 14:54:45.511441  2148 layer_factory.hpp:77] Creating layer conv5
I0403 14:54:45.511466  2148 net.cpp:91] Creating Layer conv5
I0403 14:54:45.511483  2148 net.cpp:425] conv5 <- conv4
I0403 14:54:45.511504  2148 net.cpp:399] conv5 -> conv5
I0403 14:54:45.532534  2148 net.cpp:141] Setting up conv5
I0403 14:54:45.532570  2148 net.cpp:148] Top shape: 100 256 13 13 (4326400)
I0403 14:54:45.532588  2148 net.cpp:156] Memory required for data: 800703600
I0403 14:54:45.532613  2148 layer_factory.hpp:77] Creating layer relu5
I0403 14:54:45.532634  2148 net.cpp:91] Creating Layer relu5
I0403 14:54:45.532649  2148 net.cpp:425] relu5 <- conv5
I0403 14:54:45.532667  2148 net.cpp:386] relu5 -> conv5 (in-place)
I0403 14:54:45.532953  2148 net.cpp:141] Setting up relu5
I0403 14:54:45.532980  2148 net.cpp:148] Top shape: 100 256 13 13 (4326400)
I0403 14:54:45.532996  2148 net.cpp:156] Memory required for data: 818009200
I0403 14:54:45.533010  2148 layer_factory.hpp:77] Creating layer pool5
I0403 14:54:45.533035  2148 net.cpp:91] Creating Layer pool5
I0403 14:54:45.533052  2148 net.cpp:425] pool5 <- conv5
I0403 14:54:45.533071  2148 net.cpp:399] pool5 -> pool5
I0403 14:54:45.533133  2148 net.cpp:141] Setting up pool5
I0403 14:54:45.533156  2148 net.cpp:148] Top shape: 100 256 6 6 (921600)
I0403 14:54:45.533171  2148 net.cpp:156] Memory required for data: 821695600
I0403 14:54:45.533188  2148 layer_factory.hpp:77] Creating layer fc6
I0403 14:54:45.533217  2148 net.cpp:91] Creating Layer fc6
I0403 14:54:45.533236  2148 net.cpp:425] fc6 <- pool5
I0403 14:54:45.533257  2148 net.cpp:399] fc6 -> fc6
I0403 14:54:47.091074  2148 net.cpp:141] Setting up fc6
I0403 14:54:47.091116  2148 net.cpp:148] Top shape: 100 4096 (409600)
I0403 14:54:47.091131  2148 net.cpp:156] Memory required for data: 823334000
I0403 14:54:47.091164  2148 layer_factory.hpp:77] Creating layer relu6
I0403 14:54:47.091186  2148 net.cpp:91] Creating Layer relu6
I0403 14:54:47.091202  2148 net.cpp:425] relu6 <- fc6
I0403 14:54:47.091223  2148 net.cpp:386] relu6 -> fc6 (in-place)
I0403 14:54:47.091460  2148 net.cpp:141] Setting up relu6
I0403 14:54:47.091485  2148 net.cpp:148] Top shape: 100 4096 (409600)
I0403 14:54:47.091501  2148 net.cpp:156] Memory required for data: 824972400
I0403 14:54:47.091516  2148 layer_factory.hpp:77] Creating layer drop6
I0403 14:54:47.091536  2148 net.cpp:91] Creating Layer drop6
I0403 14:54:47.091552  2148 net.cpp:425] drop6 <- fc6
I0403 14:54:47.091583  2148 net.cpp:386] drop6 -> fc6 (in-place)
I0403 14:54:47.091634  2148 net.cpp:141] Setting up drop6
I0403 14:54:47.091655  2148 net.cpp:148] Top shape: 100 4096 (409600)
I0403 14:54:47.091670  2148 net.cpp:156] Memory required for data: 826610800
I0403 14:54:47.091683  2148 layer_factory.hpp:77] Creating layer fc7
I0403 14:54:47.091702  2148 net.cpp:91] Creating Layer fc7
I0403 14:54:47.091720  2148 net.cpp:425] fc7 <- fc6
I0403 14:54:47.091737  2148 net.cpp:399] fc7 -> fc7
I0403 14:54:47.785688  2148 net.cpp:141] Setting up fc7
I0403 14:54:47.785732  2148 net.cpp:148] Top shape: 100 4096 (409600)
I0403 14:54:47.785748  2148 net.cpp:156] Memory required for data: 828249200
I0403 14:54:47.785768  2148 layer_factory.hpp:77] Creating layer relu7
I0403 14:54:47.785794  2148 net.cpp:91] Creating Layer relu7
I0403 14:54:47.785812  2148 net.cpp:425] relu7 <- fc7
I0403 14:54:47.785831  2148 net.cpp:386] relu7 -> fc7 (in-place)
I0403 14:54:47.786247  2148 net.cpp:141] Setting up relu7
I0403 14:54:47.786278  2148 net.cpp:148] Top shape: 100 4096 (409600)
I0403 14:54:47.786324  2148 net.cpp:156] Memory required for data: 829887600
I0403 14:54:47.786340  2148 layer_factory.hpp:77] Creating layer drop7
I0403 14:54:47.786360  2148 net.cpp:91] Creating Layer drop7
I0403 14:54:47.786377  2148 net.cpp:425] drop7 <- fc7
I0403 14:54:47.786396  2148 net.cpp:386] drop7 -> fc7 (in-place)
I0403 14:54:47.786440  2148 net.cpp:141] Setting up drop7
I0403 14:54:47.786463  2148 net.cpp:148] Top shape: 100 4096 (409600)
I0403 14:54:47.786476  2148 net.cpp:156] Memory required for data: 831526000
I0403 14:54:47.786491  2148 layer_factory.hpp:77] Creating layer fc8_plantvillage
I0403 14:54:47.786510  2148 net.cpp:91] Creating Layer fc8_plantvillage
I0403 14:54:47.786525  2148 net.cpp:425] fc8_plantvillage <- fc7
I0403 14:54:47.786545  2148 net.cpp:399] fc8_plantvillage -> fc8_plantvillage
I0403 14:54:47.793259  2148 net.cpp:141] Setting up fc8_plantvillage
I0403 14:54:47.793293  2148 net.cpp:148] Top shape: 100 38 (3800)
I0403 14:54:47.793309  2148 net.cpp:156] Memory required for data: 831541200
I0403 14:54:47.793328  2148 layer_factory.hpp:77] Creating layer fc8_plantvillage_fc8_plantvillage_0_split
I0403 14:54:47.793346  2148 net.cpp:91] Creating Layer fc8_plantvillage_fc8_plantvillage_0_split
I0403 14:54:47.793361  2148 net.cpp:425] fc8_plantvillage_fc8_plantvillage_0_split <- fc8_plantvillage
I0403 14:54:47.793378  2148 net.cpp:399] fc8_plantvillage_fc8_plantvillage_0_split -> fc8_plantvillage_fc8_plantvillage_0_split_0
I0403 14:54:47.793397  2148 net.cpp:399] fc8_plantvillage_fc8_plantvillage_0_split -> fc8_plantvillage_fc8_plantvillage_0_split_1
I0403 14:54:47.793417  2148 net.cpp:399] fc8_plantvillage_fc8_plantvillage_0_split -> fc8_plantvillage_fc8_plantvillage_0_split_2
I0403 14:54:47.793494  2148 net.cpp:141] Setting up fc8_plantvillage_fc8_plantvillage_0_split
I0403 14:54:47.793517  2148 net.cpp:148] Top shape: 100 38 (3800)
I0403 14:54:47.793534  2148 net.cpp:148] Top shape: 100 38 (3800)
I0403 14:54:47.793548  2148 net.cpp:148] Top shape: 100 38 (3800)
I0403 14:54:47.793562  2148 net.cpp:156] Memory required for data: 831586800
I0403 14:54:47.793576  2148 layer_factory.hpp:77] Creating layer prob
I0403 14:54:47.793596  2148 net.cpp:91] Creating Layer prob
I0403 14:54:47.793611  2148 net.cpp:425] prob <- fc8_plantvillage_fc8_plantvillage_0_split_0
I0403 14:54:47.793627  2148 net.cpp:399] prob -> prob
I0403 14:54:47.793858  2148 net.cpp:141] Setting up prob
I0403 14:54:47.793882  2148 net.cpp:148] Top shape: 100 38 (3800)
I0403 14:54:47.793896  2148 net.cpp:156] Memory required for data: 831602000
I0403 14:54:47.793911  2148 layer_factory.hpp:77] Creating layer hdf5out
I0403 14:54:47.793933  2148 net.cpp:91] Creating Layer hdf5out
I0403 14:54:47.793949  2148 net.cpp:425] hdf5out <- prob
I0403 14:54:47.793965  2148 net.cpp:425] hdf5out <- label_data_1_split_0
I0403 14:54:47.796210  2148 net.cpp:141] Setting up hdf5out
…
