…
I0403 02:30:36.869066 19294 net.cpp:313] The NetState phase (0) differed from the phase (1) specified by a rule in layer accuracy
I0403 02:30:36.870930 19294 net.cpp:49] Initializing net from parameters: 
state {
  phase: TRAIN
}
layer {
  name: "data"
  type: "Data"
  top: "data"
  top: "label"
  include {
    phase: TRAIN
  }
  transform_param {
    mirror: true
    crop_size: 227
    mean_file: "/home/mohanty/data/final_dataset/lmdb/color-40-60/mean.binaryproto"
  }
  data_param {
    source: "/home/mohanty/data/final_dataset/lmdb/color-40-60/train_db"
    batch_size: 100
    backend: LMDB
  }
}
layer {
  name: "conv1"
  type: "Convolution"
  bottom: "data"
  top: "conv1"
  param {
    lr_mult: 1
    decay_mult: 1
  }
  param {
    lr_mult: 2
    decay_mult: 0
  }
  convolution_param {
    num_output: 96
    kernel_size: 11
    stride: 4
    weight_filler {
      type: "gaussian"
      std: 0.01
    }
    bias_filler {
      type: "constant"
      value: 0
    }
  }
}
layer {
  name: "relu1"
  type: "ReLU"
  bottom: "conv1"
  top: "conv1"
}
layer {
  name: "norm1"
  type: "LRN"
  bottom: "conv1"
  top: "norm1"
  lrn_param {
    local_size: 5
    alpha: 0.0001
    beta: 0.75
  }
}
layer {
  name: "pool1"
  type: "Pooling"
  bottom: "norm1"
  top: "pool1"
  pooling_param {
    pool: MAX
    kernel_size: 3
    stride: 2
  }
}
layer {
  name: "conv2"
  type: "Convolution"
  bottom: "pool1"
  top: "conv2"
  param {
    lr_mult: 1
    decay_mult: 1
  }
  param {
    lr_mult: 2
    decay_mult: 0
  }
  convolution_param {
    num_output: 256
    pad: 2
    kernel_size: 5
    group: 2
    weight_filler {
      type: "gaussian"
      std: 0.01
    }
    bias_filler {
      type: "constant"
      value: 0.1
    }
  }
}
layer {
  name: "relu2"
  type: "ReLU"
  bottom: "conv2"
  top: "conv2"
}
layer {
  name: "norm2"
  type: "LRN"
  bottom: "conv2"
  top: "norm2"
  lrn_param {
    local_size: 5
    alpha: 0.0001
    beta: 0.75
  }
}
layer {
  name: "pool2"
  type: "Pooling"
  bottom: "norm2"
  top: "pool2"
  pooling_param {
    pool: MAX
    kernel_size: 3
    stride: 2
  }
}
layer {
  name: "conv3"
  type: "Convolution"
  bottom: "pool2"
  top: "conv3"
  param {
    lr_mult: 1
    decay_mult: 1
  }
  param {
    lr_mult: 2
    decay_mult: 0
  }
  convolution_param {
    num_output: 384
    pad: 1
    kernel_size: 3
    weight_filler {
      type: "gaussian"
      std: 0.01
    }
    bias_filler {
      type: "constant"
      value: 0
    }
  }
}
layer {
  name: "relu3"
  type: "ReLU"
  bottom: "conv3"
  top: "conv3"
}
layer {
  name: "conv4"
  type: "Convolution"
  bottom: "conv3"
  top: "conv4"
  param {
    lr_mult: 1
    decay_mult: 1
  }
  param {
    lr_mult: 2
    decay_mult: 0
  }
  convolution_param {
    num_output: 384
    pad: 1
    kernel_size: 3
    group: 2
    weight_filler {
      type: "gaussian"
      std: 0.01
    }
    bias_filler {
      type: "constant"
      value: 0.1
    }
  }
}
layer {
  name: "relu4"
  type: "ReLU"
  bottom: "conv4"
  top: "conv4"
}
layer {
  name: "conv5"
  type: "Convolution"
  bottom: "conv4"
  top: "conv5"
  param {
    lr_mult: 1
    decay_mult: 1
  }
  param {
    lr_mult: 2
    decay_mult: 0
  }
  convolution_param {
    num_output: 256
    pad: 1
    kernel_size: 3
    group: 2
    weight_filler {
      type: "gaussian"
      std: 0.01
    }
    bias_filler {
      type: "constant"
      value: 0.1
    }
  }
}
layer {
  name: "relu5"
  type: "ReLU"
  bottom: "conv5"
  top: "conv5"
}
layer {
  name: "pool5"
  type: "Pooling"
  bottom: "conv5"
  top: "pool5"
  pooling_param {
    pool: MAX
    kernel_size: 3
    stride: 2
  }
}
layer {
  name: "fc6"
  type: "InnerProduct"
  bottom: "pool5"
  top: "fc6"
  param {
    lr_mult: 1
    decay_mult: 1
  }
  param {
    lr_mult: 2
    decay_mult: 0
  }
  inner_product_param {
    num_output: 4096
    weight_filler {
      type: "gaussian"
      std: 0.005
    }
    bias_filler {
      type: "constant"
      value: 0.1
    }
  }
}
layer {
  name: "relu6"
  type: "ReLU"
  bottom: "fc6"
  top: "fc6"
}
layer {
  name: "drop6"
  type: "Dropout"
  bottom: "fc6"
  top: "fc6"
  dropout_param {
    dropout_ratio: 0.5
  }
}
layer {
  name: "fc7"
  type: "InnerProduct"
  bottom: "fc6"
  top: "fc7"
  param {
    lr_mult: 1
    decay_mult: 1
  }
  param {
    lr_mult: 2
    decay_mult: 0
  }
  inner_product_param {
    num_output: 4096
    weight_filler {
      type: "gaussian"
      std: 0.005
    }
    bias_filler {
      type: "constant"
      value: 0.1
    }
  }
}
layer {
  name: "relu7"
  type: "ReLU"
  bottom: "fc7"
  top: "fc7"
}
layer {
  name: "drop7"
  type: "Dropout"
  bottom: "fc7"
  top: "fc7"
  dropout_param {
    dropout_ratio: 0.5
  }
}
layer {
  name: "fc8_plantvillage"
  type: "InnerProduct"
  bottom: "fc7"
  top: "fc8_plantvillage"
  param {
    lr_mult: 1
    decay_mult: 1
  }
  param {
    lr_mult: 2
    decay_mult: 0
  }
  inner_product_param {
    num_output: 38
    weight_filler {
      type: "gaussian"
      std: 0.01
    }
    bias_filler {
      type: "constant"
      value: 0
    }
  }
}
layer {
  name: "loss"
  type: "SoftmaxWithLoss"
  bottom: "fc8_plantvillage"
  bottom: "label"
  top: "loss"
}
I0403 02:30:36.873486 19294 layer_factory.hpp:77] Creating layer data
I0403 02:30:36.876122 19294 net.cpp:91] Creating Layer data
I0403 02:30:36.876343 19294 net.cpp:399] data -> data
I0403 02:30:36.876801 19294 net.cpp:399] data -> label
I0403 02:30:36.877068 19294 data_transformer.cpp:25] Loading mean file from: /home/mohanty/data/final_dataset/lmdb/color-40-60/mean.binaryproto
I0403 02:30:36.922344 19299 db_lmdb.cpp:38] Opened lmdb /home/mohanty/data/final_dataset/lmdb/color-40-60/train_db
I0403 02:30:36.960454 19294 data_layer.cpp:41] output data size: 100,3,227,227
I0403 02:30:37.099916 19294 net.cpp:141] Setting up data
I0403 02:30:37.100018 19294 net.cpp:148] Top shape: 100 3 227 227 (15458700)
I0403 02:30:37.100044 19294 net.cpp:148] Top shape: 100 (100)
I0403 02:30:37.100064 19294 net.cpp:156] Memory required for data: 61835200
I0403 02:30:37.100100 19294 layer_factory.hpp:77] Creating layer conv1
I0403 02:30:37.100152 19294 net.cpp:91] Creating Layer conv1
I0403 02:30:37.100180 19294 net.cpp:425] conv1 <- data
I0403 02:30:37.100236 19294 net.cpp:399] conv1 -> conv1
I0403 02:30:37.103482 19294 net.cpp:141] Setting up conv1
I0403 02:30:37.103518 19294 net.cpp:148] Top shape: 100 96 55 55 (29040000)
I0403 02:30:37.103540 19294 net.cpp:156] Memory required for data: 177995200
I0403 02:30:37.103582 19294 layer_factory.hpp:77] Creating layer relu1
I0403 02:30:37.103615 19294 net.cpp:91] Creating Layer relu1
I0403 02:30:37.103636 19294 net.cpp:425] relu1 <- conv1
I0403 02:30:37.103657 19294 net.cpp:386] relu1 -> conv1 (in-place)
I0403 02:30:37.103695 19294 net.cpp:141] Setting up relu1
I0403 02:30:37.103719 19294 net.cpp:148] Top shape: 100 96 55 55 (29040000)
I0403 02:30:37.103737 19294 net.cpp:156] Memory required for data: 294155200
I0403 02:30:37.103754 19294 layer_factory.hpp:77] Creating layer norm1
I0403 02:30:37.103780 19294 net.cpp:91] Creating Layer norm1
I0403 02:30:37.103837 19294 net.cpp:425] norm1 <- conv1
I0403 02:30:37.103862 19294 net.cpp:399] norm1 -> norm1
I0403 02:30:37.109557 19294 net.cpp:141] Setting up norm1
I0403 02:30:37.109601 19294 net.cpp:148] Top shape: 100 96 55 55 (29040000)
I0403 02:30:37.109621 19294 net.cpp:156] Memory required for data: 410315200
I0403 02:30:37.109639 19294 layer_factory.hpp:77] Creating layer pool1
I0403 02:30:37.109666 19294 net.cpp:91] Creating Layer pool1
I0403 02:30:37.109686 19294 net.cpp:425] pool1 <- norm1
I0403 02:30:37.109709 19294 net.cpp:399] pool1 -> pool1
I0403 02:30:37.109787 19294 net.cpp:141] Setting up pool1
I0403 02:30:37.109818 19294 net.cpp:148] Top shape: 100 96 27 27 (6998400)
I0403 02:30:37.109838 19294 net.cpp:156] Memory required for data: 438308800
I0403 02:30:37.109856 19294 layer_factory.hpp:77] Creating layer conv2
I0403 02:30:37.109884 19294 net.cpp:91] Creating Layer conv2
I0403 02:30:37.109905 19294 net.cpp:425] conv2 <- pool1
I0403 02:30:37.109930 19294 net.cpp:399] conv2 -> conv2
I0403 02:30:37.111732 19302 blocking_queue.cpp:50] Waiting for data
I0403 02:30:37.129539 19294 net.cpp:141] Setting up conv2
I0403 02:30:37.129577 19294 net.cpp:148] Top shape: 100 256 27 27 (18662400)
I0403 02:30:37.129597 19294 net.cpp:156] Memory required for data: 512958400
I0403 02:30:37.129626 19294 layer_factory.hpp:77] Creating layer relu2
I0403 02:30:37.129650 19294 net.cpp:91] Creating Layer relu2
I0403 02:30:37.129670 19294 net.cpp:425] relu2 <- conv2
I0403 02:30:37.129693 19294 net.cpp:386] relu2 -> conv2 (in-place)
I0403 02:30:37.129717 19294 net.cpp:141] Setting up relu2
I0403 02:30:37.129739 19294 net.cpp:148] Top shape: 100 256 27 27 (18662400)
I0403 02:30:37.129757 19294 net.cpp:156] Memory required for data: 587608000
I0403 02:30:37.129775 19294 layer_factory.hpp:77] Creating layer norm2
I0403 02:30:37.129796 19294 net.cpp:91] Creating Layer norm2
I0403 02:30:37.129815 19294 net.cpp:425] norm2 <- conv2
I0403 02:30:37.129838 19294 net.cpp:399] norm2 -> norm2
I0403 02:30:37.129897 19294 net.cpp:141] Setting up norm2
I0403 02:30:37.129925 19294 net.cpp:148] Top shape: 100 256 27 27 (18662400)
I0403 02:30:37.129945 19294 net.cpp:156] Memory required for data: 662257600
I0403 02:30:37.129962 19294 layer_factory.hpp:77] Creating layer pool2
I0403 02:30:37.129987 19294 net.cpp:91] Creating Layer pool2
I0403 02:30:37.130007 19294 net.cpp:425] pool2 <- norm2
I0403 02:30:37.130030 19294 net.cpp:399] pool2 -> pool2
I0403 02:30:37.130085 19294 net.cpp:141] Setting up pool2
I0403 02:30:37.130112 19294 net.cpp:148] Top shape: 100 256 13 13 (4326400)
I0403 02:30:37.130131 19294 net.cpp:156] Memory required for data: 679563200
I0403 02:30:37.130148 19294 layer_factory.hpp:77] Creating layer conv3
I0403 02:30:37.130175 19294 net.cpp:91] Creating Layer conv3
I0403 02:30:37.130198 19294 net.cpp:425] conv3 <- pool2
I0403 02:30:37.130228 19294 net.cpp:399] conv3 -> conv3
I0403 02:30:37.172860 19294 net.cpp:141] Setting up conv3
I0403 02:30:37.172899 19294 net.cpp:148] Top shape: 100 384 13 13 (6489600)
I0403 02:30:37.172920 19294 net.cpp:156] Memory required for data: 705521600
I0403 02:30:37.172948 19294 layer_factory.hpp:77] Creating layer relu3
I0403 02:30:37.172972 19294 net.cpp:91] Creating Layer relu3
I0403 02:30:37.172992 19294 net.cpp:425] relu3 <- conv3
I0403 02:30:37.173015 19294 net.cpp:386] relu3 -> conv3 (in-place)
I0403 02:30:37.173038 19294 net.cpp:141] Setting up relu3
I0403 02:30:37.173059 19294 net.cpp:148] Top shape: 100 384 13 13 (6489600)
I0403 02:30:37.173077 19294 net.cpp:156] Memory required for data: 731480000
I0403 02:30:37.173095 19294 layer_factory.hpp:77] Creating layer conv4
I0403 02:30:37.173122 19294 net.cpp:91] Creating Layer conv4
I0403 02:30:37.173143 19294 net.cpp:425] conv4 <- conv3
I0403 02:30:37.173167 19294 net.cpp:399] conv4 -> conv4
I0403 02:30:37.204604 19294 net.cpp:141] Setting up conv4
I0403 02:30:37.204645 19294 net.cpp:148] Top shape: 100 384 13 13 (6489600)
I0403 02:30:37.204665 19294 net.cpp:156] Memory required for data: 757438400
I0403 02:30:37.204689 19294 layer_factory.hpp:77] Creating layer relu4
I0403 02:30:37.204735 19294 net.cpp:91] Creating Layer relu4
I0403 02:30:37.204758 19294 net.cpp:425] relu4 <- conv4
I0403 02:30:37.204780 19294 net.cpp:386] relu4 -> conv4 (in-place)
I0403 02:30:37.204804 19294 net.cpp:141] Setting up relu4
I0403 02:30:37.204825 19294 net.cpp:148] Top shape: 100 384 13 13 (6489600)
I0403 02:30:37.204843 19294 net.cpp:156] Memory required for data: 783396800
I0403 02:30:37.204862 19294 layer_factory.hpp:77] Creating layer conv5
I0403 02:30:37.204890 19294 net.cpp:91] Creating Layer conv5
I0403 02:30:37.204910 19294 net.cpp:425] conv5 <- conv4
I0403 02:30:37.204933 19294 net.cpp:399] conv5 -> conv5
I0403 02:30:37.225991 19294 net.cpp:141] Setting up conv5
I0403 02:30:37.226032 19294 net.cpp:148] Top shape: 100 256 13 13 (4326400)
I0403 02:30:37.226052 19294 net.cpp:156] Memory required for data: 800702400
I0403 02:30:37.226079 19294 layer_factory.hpp:77] Creating layer relu5
I0403 02:30:37.226104 19294 net.cpp:91] Creating Layer relu5
I0403 02:30:37.226124 19294 net.cpp:425] relu5 <- conv5
I0403 02:30:37.226145 19294 net.cpp:386] relu5 -> conv5 (in-place)
I0403 02:30:37.226171 19294 net.cpp:141] Setting up relu5
I0403 02:30:37.226191 19294 net.cpp:148] Top shape: 100 256 13 13 (4326400)
I0403 02:30:37.226214 19294 net.cpp:156] Memory required for data: 818008000
I0403 02:30:37.226235 19294 layer_factory.hpp:77] Creating layer pool5
I0403 02:30:37.226258 19294 net.cpp:91] Creating Layer pool5
I0403 02:30:37.226277 19294 net.cpp:425] pool5 <- conv5
I0403 02:30:37.226303 19294 net.cpp:399] pool5 -> pool5
I0403 02:30:37.226362 19294 net.cpp:141] Setting up pool5
I0403 02:30:37.226389 19294 net.cpp:148] Top shape: 100 256 6 6 (921600)
I0403 02:30:37.226408 19294 net.cpp:156] Memory required for data: 821694400
I0403 02:30:37.226426 19294 layer_factory.hpp:77] Creating layer fc6
I0403 02:30:37.226462 19294 net.cpp:91] Creating Layer fc6
I0403 02:30:37.226485 19294 net.cpp:425] fc6 <- pool5
I0403 02:30:37.226510 19294 net.cpp:399] fc6 -> fc6
I0403 02:30:38.846765 19294 net.cpp:141] Setting up fc6
I0403 02:30:38.846853 19294 net.cpp:148] Top shape: 100 4096 (409600)
I0403 02:30:38.846870 19294 net.cpp:156] Memory required for data: 823332800
I0403 02:30:38.846894 19294 layer_factory.hpp:77] Creating layer relu6
I0403 02:30:38.846921 19294 net.cpp:91] Creating Layer relu6
I0403 02:30:38.846940 19294 net.cpp:425] relu6 <- fc6
I0403 02:30:38.846961 19294 net.cpp:386] relu6 -> fc6 (in-place)
I0403 02:30:38.846983 19294 net.cpp:141] Setting up relu6
I0403 02:30:38.847002 19294 net.cpp:148] Top shape: 100 4096 (409600)
I0403 02:30:38.847015 19294 net.cpp:156] Memory required for data: 824971200
I0403 02:30:38.847030 19294 layer_factory.hpp:77] Creating layer drop6
I0403 02:30:38.847056 19294 net.cpp:91] Creating Layer drop6
I0403 02:30:38.847074 19294 net.cpp:425] drop6 <- fc6
I0403 02:30:38.847090 19294 net.cpp:386] drop6 -> fc6 (in-place)
I0403 02:30:38.847137 19294 net.cpp:141] Setting up drop6
I0403 02:30:38.847162 19294 net.cpp:148] Top shape: 100 4096 (409600)
I0403 02:30:38.847177 19294 net.cpp:156] Memory required for data: 826609600
I0403 02:30:38.847193 19294 layer_factory.hpp:77] Creating layer fc7
I0403 02:30:38.847218 19294 net.cpp:91] Creating Layer fc7
I0403 02:30:38.847235 19294 net.cpp:425] fc7 <- fc6
I0403 02:30:38.847254 19294 net.cpp:399] fc7 -> fc7
I0403 02:30:39.471670 19294 net.cpp:141] Setting up fc7
I0403 02:30:39.471765 19294 net.cpp:148] Top shape: 100 4096 (409600)
I0403 02:30:39.471784 19294 net.cpp:156] Memory required for data: 828248000
I0403 02:30:39.471809 19294 layer_factory.hpp:77] Creating layer relu7
I0403 02:30:39.471837 19294 net.cpp:91] Creating Layer relu7
I0403 02:30:39.471854 19294 net.cpp:425] relu7 <- fc7
I0403 02:30:39.471875 19294 net.cpp:386] relu7 -> fc7 (in-place)
I0403 02:30:39.471899 19294 net.cpp:141] Setting up relu7
I0403 02:30:39.471917 19294 net.cpp:148] Top shape: 100 4096 (409600)
I0403 02:30:39.471935 19294 net.cpp:156] Memory required for data: 829886400
I0403 02:30:39.471951 19294 layer_factory.hpp:77] Creating layer drop7
I0403 02:30:39.472007 19294 net.cpp:91] Creating Layer drop7
I0403 02:30:39.472026 19294 net.cpp:425] drop7 <- fc7
I0403 02:30:39.472044 19294 net.cpp:386] drop7 -> fc7 (in-place)
I0403 02:30:39.472090 19294 net.cpp:141] Setting up drop7
I0403 02:30:39.472112 19294 net.cpp:148] Top shape: 100 4096 (409600)
I0403 02:30:39.472128 19294 net.cpp:156] Memory required for data: 831524800
I0403 02:30:39.472144 19294 layer_factory.hpp:77] Creating layer fc8_plantvillage
I0403 02:30:39.472167 19294 net.cpp:91] Creating Layer fc8_plantvillage
I0403 02:30:39.472184 19294 net.cpp:425] fc8_plantvillage <- fc7
I0403 02:30:39.472206 19294 net.cpp:399] fc8_plantvillage -> fc8_plantvillage
I0403 02:30:39.478941 19294 net.cpp:141] Setting up fc8_plantvillage
I0403 02:30:39.478974 19294 net.cpp:148] Top shape: 100 38 (3800)
I0403 02:30:39.478992 19294 net.cpp:156] Memory required for data: 831540000
I0403 02:30:39.479012 19294 layer_factory.hpp:77] Creating layer loss
I0403 02:30:39.479039 19294 net.cpp:91] Creating Layer loss
I0403 02:30:39.479058 19294 net.cpp:425] loss <- fc8_plantvillage
I0403 02:30:39.479075 19294 net.cpp:425] loss <- label
I0403 02:30:39.479099 19294 net.cpp:399] loss -> loss
I0403 02:30:39.479128 19294 layer_factory.hpp:77] Creating layer loss
…
I0403 02:30:39.480994 19294 net.cpp:313] The NetState phase (1) differed from the phase (0) specified by a rule in layer data
I0403 02:30:39.481745 19294 net.cpp:49] Initializing net from parameters: 
state {
  phase: TEST
}
layer {
  name: "data"
  type: "Data"
  top: "data"
  top: "label"
  include {
    phase: TEST
  }
  transform_param {
    crop_size: 227
    mean_file: "/home/mohanty/data/final_dataset/lmdb/color-40-60/mean.binaryproto"
  }
  data_param {
    source: "/home/mohanty/data/final_dataset/lmdb/color-40-60/test_db"
    batch_size: 100
    backend: LMDB
  }
}
layer {
  name: "conv1"
  type: "Convolution"
  bottom: "data"
  top: "conv1"
  param {
    lr_mult: 1
    decay_mult: 1
  }
  param {
    lr_mult: 2
    decay_mult: 0
  }
  convolution_param {
    num_output: 96
    kernel_size: 11
    stride: 4
    weight_filler {
      type: "gaussian"
      std: 0.01
    }
    bias_filler {
      type: "constant"
      value: 0
    }
  }
}
layer {
  name: "relu1"
  type: "ReLU"
  bottom: "conv1"
  top: "conv1"
}
layer {
  name: "norm1"
  type: "LRN"
  bottom: "conv1"
  top: "norm1"
  lrn_param {
    local_size: 5
    alpha: 0.0001
    beta: 0.75
  }
}
layer {
  name: "pool1"
  type: "Pooling"
  bottom: "norm1"
  top: "pool1"
  pooling_param {
    pool: MAX
    kernel_size: 3
    stride: 2
  }
}
layer {
  name: "conv2"
  type: "Convolution"
  bottom: "pool1"
  top: "conv2"
  param {
    lr_mult: 1
    decay_mult: 1
  }
  param {
    lr_mult: 2
    decay_mult: 0
  }
  convolution_param {
    num_output: 256
    pad: 2
    kernel_size: 5
    group: 2
    weight_filler {
      type: "gaussian"
      std: 0.01
    }
    bias_filler {
      type: "constant"
      value: 0.1
    }
  }
}
layer {
  name: "relu2"
  type: "ReLU"
  bottom: "conv2"
  top: "conv2"
}
layer {
  name: "norm2"
  type: "LRN"
  bottom: "conv2"
  top: "norm2"
  lrn_param {
    local_size: 5
    alpha: 0.0001
    beta: 0.75
  }
}
layer {
  name: "pool2"
  type: "Pooling"
  bottom: "norm2"
  top: "pool2"
  pooling_param {
    pool: MAX
    kernel_size: 3
    stride: 2
  }
}
layer {
  name: "conv3"
  type: "Convolution"
  bottom: "pool2"
  top: "conv3"
  param {
    lr_mult: 1
    decay_mult: 1
  }
  param {
    lr_mult: 2
    decay_mult: 0
  }
  convolution_param {
    num_output: 384
    pad: 1
    kernel_size: 3
    weight_filler {
      type: "gaussian"
      std: 0.01
    }
    bias_filler {
      type: "constant"
      value: 0
    }
  }
}
layer {
  name: "relu3"
  type: "ReLU"
  bottom: "conv3"
  top: "conv3"
}
layer {
  name: "conv4"
  type: "Convolution"
  bottom: "conv3"
  top: "conv4"
  param {
    lr_mult: 1
    decay_mult: 1
  }
  param {
    lr_mult: 2
    decay_mult: 0
  }
  convolution_param {
    num_output: 384
    pad: 1
    kernel_size: 3
    group: 2
    weight_filler {
      type: "gaussian"
      std: 0.01
    }
    bias_filler {
      type: "constant"
      value: 0.1
    }
  }
}
layer {
  name: "relu4"
  type: "ReLU"
  bottom: "conv4"
  top: "conv4"
}
layer {
  name: "conv5"
  type: "Convolution"
  bottom: "conv4"
  top: "conv5"
  param {
    lr_mult: 1
    decay_mult: 1
  }
  param {
    lr_mult: 2
    decay_mult: 0
  }
  convolution_param {
    num_output: 256
    pad: 1
    kernel_size: 3
    group: 2
    weight_filler {
      type: "gaussian"
      std: 0.01
    }
    bias_filler {
      type: "constant"
      value: 0.1
    }
  }
}
layer {
  name: "relu5"
  type: "ReLU"
  bottom: "conv5"
  top: "conv5"
}
layer {
  name: "pool5"
  type: "Pooling"
  bottom: "conv5"
  top: "pool5"
  pooling_param {
    pool: MAX
    kernel_size: 3
    stride: 2
  }
}
layer {
  name: "fc6"
  type: "InnerProduct"
  bottom: "pool5"
  top: "fc6"
  param {
    lr_mult: 1
    decay_mult: 1
  }
  param {
    lr_mult: 2
    decay_mult: 0
  }
  inner_product_param {
    num_output: 4096
    weight_filler {
      type: "gaussian"
      std: 0.005
    }
    bias_filler {
      type: "constant"
      value: 0.1
    }
  }
}
layer {
  name: "relu6"
  type: "ReLU"
  bottom: "fc6"
  top: "fc6"
}
layer {
  name: "drop6"
  type: "Dropout"
  bottom: "fc6"
  top: "fc6"
  dropout_param {
    dropout_ratio: 0.5
  }
}
layer {
  name: "fc7"
  type: "InnerProduct"
  bottom: "fc6"
  top: "fc7"
  param {
    lr_mult: 1
    decay_mult: 1
  }
  param {
    lr_mult: 2
    decay_mult: 0
  }
  inner_product_param {
    num_output: 4096
    weight_filler {
      type: "gaussian"
      std: 0.005
    }
    bias_filler {
      type: "constant"
      value: 0.1
    }
  }
}
layer {
  name: "relu7"
  type: "ReLU"
  bottom: "fc7"
  top: "fc7"
}
layer {
  name: "drop7"
  type: "Dropout"
  bottom: "fc7"
  top: "fc7"
  dropout_param {
    dropout_ratio: 0.5
  }
}
layer {
  name: "fc8_plantvillage"
  type: "InnerProduct"
  bottom: "fc7"
  top: "fc8_plantvillage"
  param {
    lr_mult: 1
    decay_mult: 1
  }
  param {
    lr_mult: 2
    decay_mult: 0
  }
  inner_product_param {
    num_output: 38
    weight_filler {
      type: "gaussian"
      std: 0.01
    }
    bias_filler {
      type: "constant"
      value: 0
    }
  }
}
layer {
  name: "loss"
  type: "SoftmaxWithLoss"
  bottom: "fc8_plantvillage"
  bottom: "label"
  top: "loss"
}
layer {
  name: "accuracy"
  type: "Accuracy"
  bottom: "fc8_plantvillage"
  bottom: "label"
  top: "accuracy"
  include {
    phase: TEST
  }
}
I0403 02:30:39.481936 19294 layer_factory.hpp:77] Creating layer data
I0403 02:30:39.482105 19294 net.cpp:91] Creating Layer data
I0403 02:30:39.482158 19294 net.cpp:399] data -> data
I0403 02:30:39.482190 19294 net.cpp:399] data -> label
I0403 02:30:39.482256 19294 data_transformer.cpp:25] Loading mean file from: /home/mohanty/data/final_dataset/lmdb/color-40-60/mean.binaryproto
I0403 02:30:39.506145 19307 db_lmdb.cpp:38] Opened lmdb /home/mohanty/data/final_dataset/lmdb/color-40-60/test_db
I0403 02:30:39.511157 19294 data_layer.cpp:41] output data size: 100,3,227,227
I0403 02:30:39.751711 19294 net.cpp:141] Setting up data
I0403 02:30:39.757207 19294 net.cpp:148] Top shape: 100 3 227 227 (15458700)
I0403 02:30:39.757238 19294 net.cpp:148] Top shape: 100 (100)
I0403 02:30:39.757254 19294 net.cpp:156] Memory required for data: 61835200
I0403 02:30:39.757273 19294 layer_factory.hpp:77] Creating layer label_data_1_split
I0403 02:30:39.757302 19294 net.cpp:91] Creating Layer label_data_1_split
I0403 02:30:39.757318 19294 net.cpp:425] label_data_1_split <- label
I0403 02:30:39.757340 19294 net.cpp:399] label_data_1_split -> label_data_1_split_0
I0403 02:30:39.757366 19294 net.cpp:399] label_data_1_split -> label_data_1_split_1
I0403 02:30:39.757434 19294 net.cpp:141] Setting up label_data_1_split
I0403 02:30:39.757458 19294 net.cpp:148] Top shape: 100 (100)
I0403 02:30:39.757475 19294 net.cpp:148] Top shape: 100 (100)
I0403 02:30:39.757489 19294 net.cpp:156] Memory required for data: 61836000
I0403 02:30:39.757504 19294 layer_factory.hpp:77] Creating layer conv1
I0403 02:30:39.757534 19294 net.cpp:91] Creating Layer conv1
I0403 02:30:39.757550 19294 net.cpp:425] conv1 <- data
I0403 02:30:39.757570 19294 net.cpp:399] conv1 -> conv1
I0403 02:30:39.759174 19294 net.cpp:141] Setting up conv1
I0403 02:30:39.759202 19294 net.cpp:148] Top shape: 100 96 55 55 (29040000)
I0403 02:30:39.759222 19294 net.cpp:156] Memory required for data: 177996000
I0403 02:30:39.759246 19294 layer_factory.hpp:77] Creating layer relu1
I0403 02:30:39.759268 19294 net.cpp:91] Creating Layer relu1
I0403 02:30:39.759284 19294 net.cpp:425] relu1 <- conv1
I0403 02:30:39.759301 19294 net.cpp:386] relu1 -> conv1 (in-place)
I0403 02:30:39.759320 19294 net.cpp:141] Setting up relu1
I0403 02:30:39.759338 19294 net.cpp:148] Top shape: 100 96 55 55 (29040000)
I0403 02:30:39.759353 19294 net.cpp:156] Memory required for data: 294156000
I0403 02:30:39.759368 19294 layer_factory.hpp:77] Creating layer norm1
I0403 02:30:39.759389 19294 net.cpp:91] Creating Layer norm1
I0403 02:30:39.759407 19294 net.cpp:425] norm1 <- conv1
I0403 02:30:39.759424 19294 net.cpp:399] norm1 -> norm1
I0403 02:30:39.759475 19294 net.cpp:141] Setting up norm1
I0403 02:30:39.759498 19294 net.cpp:148] Top shape: 100 96 55 55 (29040000)
I0403 02:30:39.759513 19294 net.cpp:156] Memory required for data: 410316000
I0403 02:30:39.759528 19294 layer_factory.hpp:77] Creating layer pool1
I0403 02:30:39.759547 19294 net.cpp:91] Creating Layer pool1
I0403 02:30:39.759563 19294 net.cpp:425] pool1 <- norm1
I0403 02:30:39.759582 19294 net.cpp:399] pool1 -> pool1
I0403 02:30:39.759631 19294 net.cpp:141] Setting up pool1
I0403 02:30:39.759654 19294 net.cpp:148] Top shape: 100 96 27 27 (6998400)
I0403 02:30:39.759668 19294 net.cpp:156] Memory required for data: 438309600
I0403 02:30:39.759716 19294 layer_factory.hpp:77] Creating layer conv2
I0403 02:30:39.759739 19294 net.cpp:91] Creating Layer conv2
I0403 02:30:39.759757 19294 net.cpp:425] conv2 <- pool1
I0403 02:30:39.759776 19294 net.cpp:399] conv2 -> conv2
I0403 02:30:39.773736 19294 net.cpp:141] Setting up conv2
I0403 02:30:39.808320 19294 net.cpp:148] Top shape: 100 256 27 27 (18662400)
I0403 02:30:39.808341 19294 net.cpp:156] Memory required for data: 512959200
I0403 02:30:39.808367 19294 layer_factory.hpp:77] Creating layer relu2
I0403 02:30:39.808389 19294 net.cpp:91] Creating Layer relu2
I0403 02:30:39.808406 19294 net.cpp:425] relu2 <- conv2
I0403 02:30:39.808425 19294 net.cpp:386] relu2 -> conv2 (in-place)
I0403 02:30:39.808447 19294 net.cpp:141] Setting up relu2
I0403 02:30:39.808466 19294 net.cpp:148] Top shape: 100 256 27 27 (18662400)
I0403 02:30:39.808490 19294 net.cpp:156] Memory required for data: 587608800
I0403 02:30:39.808504 19294 layer_factory.hpp:77] Creating layer norm2
I0403 02:30:39.808526 19294 net.cpp:91] Creating Layer norm2
I0403 02:30:39.808542 19294 net.cpp:425] norm2 <- conv2
I0403 02:30:39.808562 19294 net.cpp:399] norm2 -> norm2
I0403 02:30:39.808624 19294 net.cpp:141] Setting up norm2
I0403 02:30:39.808647 19294 net.cpp:148] Top shape: 100 256 27 27 (18662400)
I0403 02:30:39.808662 19294 net.cpp:156] Memory required for data: 662258400
I0403 02:30:39.808678 19294 layer_factory.hpp:77] Creating layer pool2
I0403 02:30:39.808697 19294 net.cpp:91] Creating Layer pool2
I0403 02:30:39.808713 19294 net.cpp:425] pool2 <- norm2
I0403 02:30:39.808732 19294 net.cpp:399] pool2 -> pool2
I0403 02:30:39.808792 19294 net.cpp:141] Setting up pool2
I0403 02:30:39.808815 19294 net.cpp:148] Top shape: 100 256 13 13 (4326400)
I0403 02:30:39.808830 19294 net.cpp:156] Memory required for data: 679564000
I0403 02:30:39.808845 19294 layer_factory.hpp:77] Creating layer conv3
I0403 02:30:39.808868 19294 net.cpp:91] Creating Layer conv3
I0403 02:30:39.808886 19294 net.cpp:425] conv3 <- pool2
I0403 02:30:39.808905 19294 net.cpp:399] conv3 -> conv3
I0403 02:30:39.861747 19294 net.cpp:141] Setting up conv3
I0403 02:30:39.861795 19294 net.cpp:148] Top shape: 100 384 13 13 (6489600)
I0403 02:30:39.861812 19294 net.cpp:156] Memory required for data: 705522400
I0403 02:30:39.861837 19294 layer_factory.hpp:77] Creating layer relu3
I0403 02:30:39.861879 19294 net.cpp:91] Creating Layer relu3
I0403 02:30:39.861912 19294 net.cpp:425] relu3 <- conv3
I0403 02:30:39.861960 19294 net.cpp:386] relu3 -> conv3 (in-place)
I0403 02:30:39.861984 19294 net.cpp:141] Setting up relu3
I0403 02:30:39.862001 19294 net.cpp:148] Top shape: 100 384 13 13 (6489600)
I0403 02:30:39.862016 19294 net.cpp:156] Memory required for data: 731480800
I0403 02:30:39.862030 19294 layer_factory.hpp:77] Creating layer conv4
I0403 02:30:39.862056 19294 net.cpp:91] Creating Layer conv4
I0403 02:30:39.862071 19294 net.cpp:425] conv4 <- conv3
I0403 02:30:39.862092 19294 net.cpp:399] conv4 -> conv4
I0403 02:30:39.901265 19294 net.cpp:141] Setting up conv4
I0403 02:30:39.901321 19294 net.cpp:148] Top shape: 100 384 13 13 (6489600)
I0403 02:30:39.901338 19294 net.cpp:156] Memory required for data: 757439200
I0403 02:30:39.901360 19294 layer_factory.hpp:77] Creating layer relu4
I0403 02:30:39.901382 19294 net.cpp:91] Creating Layer relu4
I0403 02:30:39.901401 19294 net.cpp:425] relu4 <- conv4
I0403 02:30:39.901429 19294 net.cpp:386] relu4 -> conv4 (in-place)
I0403 02:30:39.901453 19294 net.cpp:141] Setting up relu4
I0403 02:30:39.901470 19294 net.cpp:148] Top shape: 100 384 13 13 (6489600)
I0403 02:30:39.901485 19294 net.cpp:156] Memory required for data: 783397600
I0403 02:30:39.901500 19294 layer_factory.hpp:77] Creating layer conv5
I0403 02:30:39.901525 19294 net.cpp:91] Creating Layer conv5
I0403 02:30:39.901542 19294 net.cpp:425] conv5 <- conv4
I0403 02:30:39.901562 19294 net.cpp:399] conv5 -> conv5
I0403 02:30:39.920624 19294 net.cpp:141] Setting up conv5
I0403 02:30:39.920660 19294 net.cpp:148] Top shape: 100 256 13 13 (4326400)
I0403 02:30:39.920676 19294 net.cpp:156] Memory required for data: 800703200
I0403 02:30:39.920742 19294 layer_factory.hpp:77] Creating layer relu5
I0403 02:30:39.920763 19294 net.cpp:91] Creating Layer relu5
I0403 02:30:39.920779 19294 net.cpp:425] relu5 <- conv5
I0403 02:30:39.920799 19294 net.cpp:386] relu5 -> conv5 (in-place)
I0403 02:30:39.920821 19294 net.cpp:141] Setting up relu5
I0403 02:30:39.920840 19294 net.cpp:148] Top shape: 100 256 13 13 (4326400)
I0403 02:30:39.920855 19294 net.cpp:156] Memory required for data: 818008800
I0403 02:30:39.920868 19294 layer_factory.hpp:77] Creating layer pool5
I0403 02:30:39.920892 19294 net.cpp:91] Creating Layer pool5
I0403 02:30:39.920907 19294 net.cpp:425] pool5 <- conv5
I0403 02:30:39.920924 19294 net.cpp:399] pool5 -> pool5
I0403 02:30:39.920980 19294 net.cpp:141] Setting up pool5
I0403 02:30:39.921003 19294 net.cpp:148] Top shape: 100 256 6 6 (921600)
I0403 02:30:39.921018 19294 net.cpp:156] Memory required for data: 821695200
I0403 02:30:39.921035 19294 layer_factory.hpp:77] Creating layer fc6
I0403 02:30:39.921056 19294 net.cpp:91] Creating Layer fc6
I0403 02:30:39.921072 19294 net.cpp:425] fc6 <- pool5
I0403 02:30:39.921093 19294 net.cpp:399] fc6 -> fc6
I0403 02:30:41.337452 19294 net.cpp:141] Setting up fc6
I0403 02:30:41.337548 19294 net.cpp:148] Top shape: 100 4096 (409600)
I0403 02:30:41.337563 19294 net.cpp:156] Memory required for data: 823333600
I0403 02:30:41.337586 19294 layer_factory.hpp:77] Creating layer relu6
I0403 02:30:41.337612 19294 net.cpp:91] Creating Layer relu6
I0403 02:30:41.337631 19294 net.cpp:425] relu6 <- fc6
I0403 02:30:41.337651 19294 net.cpp:386] relu6 -> fc6 (in-place)
I0403 02:30:41.337672 19294 net.cpp:141] Setting up relu6
I0403 02:30:41.337688 19294 net.cpp:148] Top shape: 100 4096 (409600)
I0403 02:30:41.337702 19294 net.cpp:156] Memory required for data: 824972000
I0403 02:30:41.337716 19294 layer_factory.hpp:77] Creating layer drop6
I0403 02:30:41.337736 19294 net.cpp:91] Creating Layer drop6
I0403 02:30:41.337752 19294 net.cpp:425] drop6 <- fc6
I0403 02:30:41.337769 19294 net.cpp:386] drop6 -> fc6 (in-place)
I0403 02:30:41.337805 19294 net.cpp:141] Setting up drop6
I0403 02:30:41.337828 19294 net.cpp:148] Top shape: 100 4096 (409600)
I0403 02:30:41.337843 19294 net.cpp:156] Memory required for data: 826610400
I0403 02:30:41.337857 19294 layer_factory.hpp:77] Creating layer fc7
I0403 02:30:41.337877 19294 net.cpp:91] Creating Layer fc7
I0403 02:30:41.337893 19294 net.cpp:425] fc7 <- fc6
I0403 02:30:41.337910 19294 net.cpp:399] fc7 -> fc7
I0403 02:30:41.968686 19294 net.cpp:141] Setting up fc7
I0403 02:30:41.968789 19294 net.cpp:148] Top shape: 100 4096 (409600)
I0403 02:30:41.968807 19294 net.cpp:156] Memory required for data: 828248800
I0403 02:30:41.968833 19294 layer_factory.hpp:77] Creating layer relu7
I0403 02:30:41.968860 19294 net.cpp:91] Creating Layer relu7
I0403 02:30:41.968881 19294 net.cpp:425] relu7 <- fc7
I0403 02:30:41.968907 19294 net.cpp:386] relu7 -> fc7 (in-place)
I0403 02:30:41.968933 19294 net.cpp:141] Setting up relu7
I0403 02:30:41.968953 19294 net.cpp:148] Top shape: 100 4096 (409600)
I0403 02:30:41.968968 19294 net.cpp:156] Memory required for data: 829887200
I0403 02:30:41.968984 19294 layer_factory.hpp:77] Creating layer drop7
I0403 02:30:41.969008 19294 net.cpp:91] Creating Layer drop7
I0403 02:30:41.969027 19294 net.cpp:425] drop7 <- fc7
I0403 02:30:41.969045 19294 net.cpp:386] drop7 -> fc7 (in-place)
I0403 02:30:41.969092 19294 net.cpp:141] Setting up drop7
I0403 02:30:41.969116 19294 net.cpp:148] Top shape: 100 4096 (409600)
I0403 02:30:41.969131 19294 net.cpp:156] Memory required for data: 831525600
I0403 02:30:41.969147 19294 layer_factory.hpp:77] Creating layer fc8_plantvillage
I0403 02:30:41.969171 19294 net.cpp:91] Creating Layer fc8_plantvillage
I0403 02:30:41.969190 19294 net.cpp:425] fc8_plantvillage <- fc7
I0403 02:30:41.969218 19294 net.cpp:399] fc8_plantvillage -> fc8_plantvillage
I0403 02:30:41.976033 19294 net.cpp:141] Setting up fc8_plantvillage
I0403 02:30:41.976069 19294 net.cpp:148] Top shape: 100 38 (3800)
I0403 02:30:41.976088 19294 net.cpp:156] Memory required for data: 831540800
I0403 02:30:41.976140 19294 layer_factory.hpp:77] Creating layer fc8_plantvillage_fc8_plantvillage_0_split
I0403 02:30:41.976162 19294 net.cpp:91] Creating Layer fc8_plantvillage_fc8_plantvillage_0_split
I0403 02:30:41.976181 19294 net.cpp:425] fc8_plantvillage_fc8_plantvillage_0_split <- fc8_plantvillage
I0403 02:30:41.976199 19294 net.cpp:399] fc8_plantvillage_fc8_plantvillage_0_split -> fc8_plantvillage_fc8_plantvillage_0_split_0
I0403 02:30:41.976227 19294 net.cpp:399] fc8_plantvillage_fc8_plantvillage_0_split -> fc8_plantvillage_fc8_plantvillage_0_split_1
I0403 02:30:41.976284 19294 net.cpp:141] Setting up fc8_plantvillage_fc8_plantvillage_0_split
I0403 02:30:41.976308 19294 net.cpp:148] Top shape: 100 38 (3800)
I0403 02:30:41.976326 19294 net.cpp:148] Top shape: 100 38 (3800)
I0403 02:30:41.976343 19294 net.cpp:156] Memory required for data: 831571200
I0403 02:30:41.976358 19294 layer_factory.hpp:77] Creating layer loss
I0403 02:30:41.976382 19294 net.cpp:91] Creating Layer loss
I0403 02:30:41.976398 19294 net.cpp:425] loss <- fc8_plantvillage_fc8_plantvillage_0_split_0
I0403 02:30:41.976416 19294 net.cpp:425] loss <- label_data_1_split_0
I0403 02:30:41.976435 19294 net.cpp:399] loss -> loss
…
