…
I0403 04:43:12.566181  4599 net.cpp:313] The NetState phase (0) differed from the phase (1) specified by a rule in layer loss3/top-5
I0403 04:43:12.569797  4599 net.cpp:49] Initializing net from parameters: 
state {
  phase: TRAIN
}
layer {
  name: "data"
  type: "Data"
  top: "data"
  top: "label"
  include {
    phase: TRAIN
  }
  transform_param {
    mirror: true
    crop_size: 224
    mean_file: "/home/mohanty/data/final_dataset/lmdb/grayscale-50-50/mean.binaryproto"
  }
  data_param {
    source: "/home/mohanty/data/final_dataset/lmdb/grayscale-50-50/train_db"
    batch_size: 24
    backend: LMDB
  }
}
layer {
  name: "conv1/7x7_s2"
  type: "Convolution"
  bottom: "data"
  top: "conv1/7x7_s2"
  param {
    lr_mult: 1
    decay_mult: 1
  }
  param {
    lr_mult: 2
    decay_mult: 0
  }
  convolution_param {
    num_output: 64
    pad: 3
    kernel_size: 7
    stride: 2
    weight_filler {
      type: "xavier"
      std: 0.1
    }
    bias_filler {
      type: "constant"
      value: 0.2
    }
  }
}
layer {
  name: "conv1/relu_7x7"
  type: "ReLU"
  bottom: "conv1/7x7_s2"
  top: "conv1/7x7_s2"
}
layer {
  name: "pool1/3x3_s2"
  type: "Pooling"
  bottom: "conv1/7x7_s2"
  top: "pool1/3x3_s2"
  pooling_param {
    pool: MAX
    kernel_size: 3
    stride: 2
  }
}
layer {
  name: "pool1/norm1"
  type: "LRN"
  bottom: "pool1/3x3_s2"
  top: "pool1/norm1"
  lrn_param {
    local_size: 5
    alpha: 0.0001
    beta: 0.75
  }
}
layer {
  name: "conv2/3x3_reduce"
  type: "Convolution"
  bottom: "pool1/norm1"
  top: "conv2/3x3_reduce"
  param {
    lr_mult: 1
    decay_mult: 1
  }
  param {
    lr_mult: 2
    decay_mult: 0
  }
  convolution_param {
    num_output: 64
    kernel_size: 1
    weight_filler {
      type: "xavier"
      std: 0.1
    }
    bias_filler {
      type: "constant"
      value: 0.2
    }
  }
}
layer {
  name: "conv2/relu_3x3_reduce"
  type: "ReLU"
  bottom: "conv2/3x3_reduce"
  top: "conv2/3x3_reduce"
}
layer {
  name: "conv2/3x3"
  type: "Convolution"
  bottom: "conv2/3x3_reduce"
  top: "conv2/3x3"
  param {
    lr_mult: 1
    decay_mult: 1
  }
  param {
    lr_mult: 2
    decay_mult: 0
  }
  convolution_param {
    num_output: 192
    pad: 1
    kernel_size: 3
    weight_filler {
      type: "xavier"
      std: 0.03
    }
    bias_filler {
      type: "constant"
      value: 0.2
    }
  }
}
layer {
  name: "conv2/relu_3x3"
  type: "ReLU"
  bottom: "conv2/3x3"
  top: "conv2/3x3"
}
layer {
  name: "conv2/norm2"
  type: "LRN"
  bottom: "conv2/3x3"
  top: "conv2/norm2"
  lrn_param {
    local_size: 5
    alpha: 0.0001
    beta: 0.75
  }
}
layer {
  name: "pool2/3x3_s2"
  type: "Pooling"
  bottom: "conv2/norm2"
  top: "pool2/3x3_s2"
  pooling_param {
    pool: MAX
    kernel_size: 3
    stride: 2
  }
}
layer {
  name: "inception_3a/1x1"
  type: "Convolution"
  bottom: "pool2/3x3_s2"
  top: "inception_3a/1x1"
  param {
    lr_mult: 1
    decay_mult: 1
  }
  param {
    lr_mult: 2
    decay_mult: 0
  }
  convolution_param {
    num_output: 64
    kernel_size: 1
    weight_filler {
      type: "xavier"
      std: 0.03
    }
    bias_filler {
      type: "constant"
      value: 0.2
    }
  }
}
layer {
  name: "inception_3a/relu_1x1"
  type: "ReLU"
  bottom: "inception_3a/1x1"
  top: "inception_3a/1x1"
}
layer {
  name: "inception_3a/3x3_reduce"
  type: "Convolution"
  bottom: "pool2/3x3_s2"
  top: "inception_3a/3x3_reduce"
  param {
    lr_mult: 1
    decay_mult: 1
  }
  param {
    lr_mult: 2
    decay_mult: 0
  }
  convolution_param {
    num_output: 96
    kernel_size: 1
    weight_filler {
      type: "xavier"
      std: 0.09
    }
    bias_filler {
      type: "constant"
      value: 0.2
    }
  }
}
layer {
  name: "inception_3a/relu_3x3_reduce"
  type: "ReLU"
  bottom: "inception_3a/3x3_reduce"
  top: "inception_3a/3x3_reduce"
}
layer {
  name: "inception_3a/3x3"
  type: "Convolution"
  bottom: "inception_3a/3x3_reduce"
  top: "inception_3a/3x3"
  param {
    lr_mult: 1
    decay_mult: 1
  }
  param {
    lr_mult: 2
    decay_mult: 0
  }
  convolution_param {
    num_output: 128
    pad: 1
    kernel_size: 3
    weight_filler {
      type: "xavier"
      std: 0.03
    }
    bias_filler {
      type: "constant"
      value: 0.2
    }
  }
}
layer {
  name: "inception_3a/relu_3x3"
  type: "ReLU"
  bottom: "inception_3a/3x3"
  top: "inception_3a/3x3"
}
layer {
  name: "inception_3a/5x5_reduce"
  type: "Convolution"
  bottom: "pool2/3x3_s2"
  top: "inception_3a/5x5_reduce"
  param {
    lr_mult: 1
    decay_mult: 1
  }
  param {
    lr_mult: 2
    decay_mult: 0
  }
  convolution_param {
    num_output: 16
    kernel_size: 1
    weight_filler {
      type: "xavier"
      std: 0.2
    }
    bias_filler {
      type: "constant"
      value: 0.2
    }
  }
}
layer {
  name: "inception_3a/relu_5x5_reduce"
  type: "ReLU"
  bottom: "inception_3a/5x5_reduce"
  top: "inception_3a/5x5_reduce"
}
layer {
  name: "inception_3a/5x5"
  type: "Convolution"
  bottom: "inception_3a/5x5_reduce"
  top: "inception_3a/5x5"
  param {
    lr_mult: 1
    decay_mult: 1
  }
  param {
    lr_mult: 2
    decay_mult: 0
  }
  convolution_param {
    num_output: 32
    pad: 2
    kernel_size: 5
    weight_filler {
      type: "xavier"
      std: 0.03
    }
    bias_filler {
      type: "constant"
      value: 0.2
    }
  }
}
layer {
  name: "inception_3a/relu_5x5"
  type: "ReLU"
  bottom: "inception_3a/5x5"
  top: "inception_3a/5x5"
}
layer {
  name: "inception_3a/pool"
  type: "Pooling"
  bottom: "pool2/3x3_s2"
  top: "inception_3a/pool"
  pooling_param {
    pool: MAX
    kernel_size: 3
    stride: 1
    pad: 1
  }
}
layer {
  name: "inception_3a/pool_proj"
  type: "Convolution"
  bottom: "inception_3a/pool"
  top: "inception_3a/pool_proj"
  param {
    lr_mult: 1
    decay_mult: 1
  }
  param {
    lr_mult: 2
    decay_mult: 0
  }
  convolution_param {
    num_output: 32
    kernel_size: 1
    weight_filler {
      type: "xavier"
      std: 0.1
    }
    bias_filler {
      type: "constant"
      value: 0.2
    }
  }
}
layer {
  name: "inception_3a/relu_pool_proj"
  type: "ReLU"
  bottom: "inception_3a/pool_proj"
  top: "inception_3a/pool_proj"
}
layer {
  name: "inception_3a/output"
  type: "Concat"
  bottom: "inception_3a/1x1"
  bottom: "inception_3a/3x3"
  bottom: "inception_3a/5x5"
  bottom: "inception_3a/pool_proj"
  top: "inception_3a/output"
}
layer {
  name: "inception_3b/1x1"
  type: "Convolution"
  bottom: "inception_3a/output"
  top: "inception_3b/1x1"
  param {
    lr_mult: 1
    decay_mult: 1
  }
  param {
    lr_mult: 2
    decay_mult: 0
  }
  convolution_param {
    num_output: 128
    kernel_size: 1
    weight_filler {
      type: "xavier"
      std: 0.03
    }
    bias_filler {
      type: "constant"
      value: 0.2
    }
  }
}
layer {
  name: "inception_3b/relu_1x1"
  type: "ReLU"
  bottom: "inception_3b/1x1"
  top: "inception_3b/1x1"
}
layer {
  name: "inception_3b/3x3_reduce"
  type: "Convolution"
  bottom: "inception_3a/output"
  top: "inception_3b/3x3_reduce"
  param {
    lr_mult: 1
    decay_mult: 1
  }
  param {
    lr_mult: 2
    decay_mult: 0
  }
  convolution_param {
    num_output: 128
    kernel_size: 1
    weight_filler {
      type: "xavier"
      std: 0.09
    }
    bias_filler {
      type: "constant"
      value: 0.2
    }
  }
}
layer {
  name: "inception_3b/relu_3x3_reduce"
  type: "ReLU"
  bottom: "inception_3b/3x3_reduce"
  top: "inception_3b/3x3_reduce"
}
layer {
  name: "inception_3b/3x3"
  type: "Convolution"
  bottom: "inception_3b/3x3_reduce"
  top: "inception_3b/3x3"
  param {
    lr_mult: 1
    decay_mult: 1
  }
  param {
    lr_mult: 2
    decay_mult: 0
  }
  convolution_param {
    num_output: 192
    pad: 1
    kernel_size: 3
    weight_filler {
      type: "xavier"
      std: 0.03
    }
    bias_filler {
      type: "constant"
      value: 0.2
    }
  }
}
layer {
  name: "inception_3b/relu_3x3"
  type: "ReLU"
  bottom: "inception_3b/3x3"
  top: "inception_3b/3x3"
}
layer {
  name: "inception_3b/5x5_reduce"
  type: "Convolution"
  bottom: "inception_3a/output"
  top: "inception_3b/5x5_reduce"
  param {
    lr_mult: 1
    decay_mult: 1
  }
  param {
    lr_mult: 2
    decay_mult: 0
  }
  convolution_param {
    num_output: 32
    kernel_size: 1
    weight_filler {
      type: "xavier"
      std: 0.2
    }
    bias_filler {
      type: "constant"
      value: 0.2
    }
  }
}
layer {
  name: "inception_3b/relu_5x5_reduce"
  type: "ReLU"
  bottom: "inception_3b/5x5_reduce"
  top: "inception_3b/5x5_reduce"
}
layer {
  name: "inception_3b/5x5"
  type: "Convolution"
  bottom: "inception_3b/5x5_reduce"
  top: "inception_3b/5x5"
  param {
    lr_mult: 1
    decay_mult: 1
  }
  param {
    lr_mult: 2
    decay_mult: 0
  }
  convolution_param {
    num_output: 96
    pad: 2
    kernel_size: 5
    weight_filler {
      type: "xavier"
      std: 0.03
    }
    bias_filler {
      type: "constant"
      value: 0.2
    }
  }
}
layer {
  name: "inception_3b/relu_5x5"
  type: "ReLU"
  bottom: "inception_3b/5x5"
  top: "inception_3b/5x5"
}
layer {
  name: "inception_3b/pool"
  type: "Pooling"
  bottom: "inception_3a/output"
  top: "inception_3b/pool"
  pooling_param {
    pool: MAX
    kernel_size: 3
    stride: 1
    pad: 1
  }
}
layer {
  name: "inception_3b/pool_proj"
  type: "Convolution"
  bottom: "inception_3b/pool"
  top: "inception_3b/pool_proj"
  param {
    lr_mult: 1
    decay_mult: 1
  }
  param {
    lr_mult: 2
    decay_mult: 0
  }
  convolution_param {
    num_output: 64
    kernel_size: 1
    weight_filler {
      type: "xavier"
      std: 0.1
    }
    bias_filler {
      type: "constant"
      value: 0.2
    }
  }
}
layer {
  name: "inception_3b/relu_pool_proj"
  type: "ReLU"
  bottom: "inception_3b/pool_proj"
  top: "inception_3b/pool_proj"
}
layer {
  name: "inception_3b/output"
  type: "Concat"
  bottom: "inception_3b/1x1"
  bottom: "inception_3b/3x3"
  bottom: "inception_3b/5x5"
  bottom: "inception_3b/pool_proj"
  top: "inception_3b/output"
}
layer {
  name: "pool3/3x3_s2"
  type: "Pooling"
  bottom: "inception_3b/output"
  top: "pool3/3x3_s2"
  pooling_param {
    pool: MAX
    kernel_size: 3
    stride: 2
  }
}
layer {
  name: "inception_4a/1x1"
  type: "Convolution"
  bottom: "pool3/3x3_s2"
  top: "inception_4a/1x1"
  param {
    lr_mult: 1
    decay_mult: 1
  }
  param {
    lr_mult: 2
    decay_mult: 0
  }
  convolution_param {
    num_output: 192
    kernel_size: 1
    weight_filler {
      type: "xavier"
      std: 0.03
    }
    bias_filler {
      type: "constant"
      value: 0.2
    }
  }
}
layer {
  name: "inception_4a/relu_1x1"
  type: "ReLU"
  bottom: "inception_4a/1x1"
  top: "inception_4a/1x1"
}
layer {
  name: "inception_4a/3x3_reduce"
  type: "Convolution"
  bottom: "pool3/3x3_s2"
  top: "inception_4a/3x3_reduce"
  param {
    lr_mult: 1
    decay_mult: 1
  }
  param {
    lr_mult: 2
    decay_mult: 0
  }
  convolution_param {
    num_output: 96
    kernel_size: 1
    weight_filler {
      type: "xavier"
      std: 0.09
    }
    bias_filler {
      type: "constant"
      value: 0.2
    }
  }
}
layer {
  name: "inception_4a/relu_3x3_reduce"
  type: "ReLU"
  bottom: "inception_4a/3x3_reduce"
  top: "inception_4a/3x3_reduce"
}
layer {
  name: "inception_4a/3x3"
  type: "Convolution"
  bottom: "inception_4a/3x3_reduce"
  top: "inception_4a/3x3"
  param {
    lr_mult: 1
    decay_mult: 1
  }
  param {
    lr_mult: 2
    decay_mult: 0
  }
  convolution_param {
    num_output: 208
    pad: 1
    kernel_size: 3
    weight_filler {
      type: "xavier"
      std: 0.03
    }
    bias_filler {
      type: "constant"
      value: 0.2
    }
  }
}
layer {
  name: "inception_4a/relu_3x3"
  type: "ReLU"
  bottom: "inception_4a/3x3"
  top: "inception_4a/3x3"
}
layer {
  name: "inception_4a/5x5_reduce"
  type: "Convolution"
  bottom: "pool3/3x3_s2"
  top: "inception_4a/5x5_reduce"
  param {
    lr_mult: 1
    decay_mult: 1
  }
  param {
    lr_mult: 2
    decay_mult: 0
  }
  convolution_param {
    num_output: 16
    kernel_size: 1
    weight_filler {
      type: "xavier"
      std: 0.2
    }
    bias_filler {
      type: "constant"
      value: 0.2
    }
  }
}
layer {
  name: "inception_4a/relu_5x5_reduce"
  type: "ReLU"
  bottom: "inception_4a/5x5_reduce"
  top: "inception_4a/5x5_reduce"
}
layer {
  name: "inception_4a/5x5"
  type: "Convolution"
  bottom: "inception_4a/5x5_reduce"
  top: "inception_4a/5x5"
  param {
    lr_mult: 1
    decay_mult: 1
  }
  param {
    lr_mult: 2
    decay_mult: 0
  }
  convolution_param {
    num_output: 48
    pad: 2
    kernel_size: 5
    weight_filler {
      type: "xavier"
      std: 0.03
    }
    bias_filler {
      type: "constant"
      value: 0.2
    }
  }
}
layer {
  name: "inception_4a/relu_5x5"
  type: "ReLU"
  bottom: "inception_4a/5x5"
  top: "inception_4a/5x5"
}
layer {
  name: "inception_4a/pool"
  type: "Pooling"
  bottom: "pool3/3x3_s2"
  top: "inception_4a/pool"
  pooling_param {
    pool: MAX
    kernel_size: 3
    stride: 1
    pad: 1
  }
}
layer {
  name: "inception_4a/pool_proj"
  type: "Convolution"
  bottom: "inception_4a/pool"
  top: "inception_4a/pool_proj"
  param {
    lr_mult: 1
    decay_mult: 1
  }
  param {
    lr_mult: 2
    decay_mult: 0
  }
  convolution_param {
    num_output: 64
    kernel_size: 1
    weight_filler {
      type: "xavier"
      std: 0.1
    }
    bias_filler {
      type: "constant"
      value: 0.2
    }
  }
}
layer {
  name: "inception_4a/relu_pool_proj"
  type: "ReLU"
  bottom: "inception_4a/pool_proj"
  top: "inception_4a/pool_proj"
}
layer {
  name: "inception_4a/output"
  type: "Concat"
  bottom: "inception_4a/1x1"
  bottom: "inception_4a/3x3"
  bottom: "inception_4a/5x5"
  bottom: "inception_4a/pool_proj"
  top: "inception_4a/output"
}
layer {
  name: "loss1/ave_pool"
  type: "Pooling"
  bottom: "inception_4a/output"
  top: "loss1/ave_pool"
  pooling_param {
    pool: AVE
    kernel_size: 5
    stride: 3
  }
}
layer {
  name: "loss1/conv"
  type: "Convolution"
  bottom: "loss1/ave_pool"
  top: "loss1/conv"
  param {
    lr_mult: 1
    decay_mult: 1
  }
  param {
    lr_mult: 2
    decay_mult: 0
  }
  convolution_param {
    num_output: 128
    kernel_size: 1
    weight_filler {
      type: "xavier"
      std: 0.08
    }
    bias_filler {
      type: "constant"
      value: 0.2
    }
  }
}
layer {
  name: "loss1/relu_conv"
  type: "ReLU"
  bottom: "loss1/conv"
  top: "loss1/conv"
}
layer {
  name: "loss1/fc"
  type: "InnerProduct"
  bottom: "loss1/conv"
  top: "loss1/fc"
  param {
    lr_mult: 1
    decay_mult: 1
  }
  param {
    lr_mult: 2
    decay_mult: 0
  }
  inner_product_param {
    num_output: 1024
    weight_filler {
      type: "xavier"
      std: 0.02
    }
    bias_filler {
      type: "constant"
      value: 0.2
    }
  }
}
layer {
  name: "loss1/relu_fc"
  type: "ReLU"
  bottom: "loss1/fc"
  top: "loss1/fc"
}
layer {
  name: "loss1/drop_fc"
  type: "Dropout"
  bottom: "loss1/fc"
  top: "loss1/fc"
  dropout_param {
    dropout_ratio: 0.7
  }
}
layer {
  name: "loss1/classifier_plantvillage"
  type: "InnerProduct"
  bottom: "loss1/fc"
  top: "loss1/classifier_plantvillage"
  param {
    lr_mult: 1
    decay_mult: 1
  }
  param {
    lr_mult: 2
    decay_mult: 0
  }
  inner_product_param {
    num_output: 38
    weight_filler {
      type: "xavier"
      std: 0.0009765625
    }
    bias_filler {
      type: "constant"
      value: 0
    }
  }
}
layer {
  name: "inception_4b/1x1"
  type: "Convolution"
  bottom: "inception_4a/output"
  top: "inception_4b/1x1"
  param {
    lr_mult: 1
    decay_mult: 1
  }
  param {
    lr_mult: 2
    decay_mult: 0
  }
  convolution_param {
    num_output: 160
    kernel_size: 1
    weight_filler {
      type: "xavier"
      std: 0.03
    }
    bias_filler {
      type: "constant"
      value: 0.2
    }
  }
}
layer {
  name: "inception_4b/relu_1x1"
  type: "ReLU"
  bottom: "inception_4b/1x1"
  top: "inception_4b/1x1"
}
layer {
  name: "inception_4b/3x3_reduce"
  type: "Convolution"
  bottom: "inception_4a/output"
  top: "inception_4b/3x3_reduce"
  param {
    lr_mult: 1
    decay_mult: 1
  }
  param {
    lr_mult: 2
    decay_mult: 0
  }
  convolution_param {
    num_output: 112
    kernel_size: 1
    weight_filler {
      type: "xavier"
      std: 0.09
    }
    bias_filler {
      type: "constant"
      value: 0.2
    }
  }
}
layer {
  name: "inception_4b/relu_3x3_reduce"
  type: "ReLU"
  bottom: "inception_4b/3x3_reduce"
  top: "inception_4b/3x3_reduce"
}
layer {
  name: "inception_4b/3x3"
  type: "Convolution"
  bottom: "inception_4b/3x3_reduce"
  top: "inception_4b/3x3"
  param {
    lr_mult: 1
    decay_mult: 1
  }
  param {
    lr_mult: 2
    decay_mult: 0
  }
  convolution_param {
    num_output: 224
    pad: 1
    kernel_size: 3
    weight_filler {
      type: "xavier"
      std: 0.03
    }
    bias_filler {
      type: "constant"
      value: 0.2
    }
  }
}
layer {
  name: "inception_4b/relu_3x3"
  type: "ReLU"
  bottom: "inception_4b/3x3"
  top: "inception_4b/3x3"
}
layer {
  name: "inception_4b/5x5_reduce"
  type: "Convolution"
  bottom: "inception_4a/output"
  top: "inception_4b/5x5_reduce"
  param {
    lr_mult: 1
    decay_mult: 1
  }
  param {
    lr_mult: 2
    decay_mult: 0
  }
  convolution_param {
    num_output: 24
    kernel_size: 1
    weight_filler {
      type: "xavier"
      std: 0.2
    }
    bias_filler {
      type: "constant"
      value: 0.2
    }
  }
}
layer {
  name: "inception_4b/relu_5x5_reduce"
  type: "ReLU"
  bottom: "inception_4b/5x5_reduce"
  top: "inception_4b/5x5_reduce"
}
layer {
  name: "inception_4b/5x5"
  type: "Convolution"
  bottom: "inception_4b/5x5_reduce"
  top: "inception_4b/5x5"
  param {
    lr_mult: 1
    decay_mult: 1
  }
  param {
    lr_mult: 2
    decay_mult: 0
  }
  convolution_param {
    num_output: 64
    pad: 2
    kernel_size: 5
    weight_filler {
      type: "xavier"
      std: 0.03
    }
    bias_filler {
      type: "constant"
      value: 0.2
    }
  }
}
layer {
  name: "inception_4b/relu_5x5"
  type: "ReLU"
  bottom: "inception_4b/5x5"
  top: "inception_4b/5x5"
}
layer {
  name: "inception_4b/pool"
  type: "Pooling"
  bottom: "inception_4a/output"
  top: "inception_4b/pool"
  pooling_param {
    pool: MAX
    kernel_size: 3
    stride: 1
    pad: 1
  }
}
layer {
  name: "inception_4b/pool_proj"
  type: "Convolution"
  bottom: "inception_4b/pool"
  top: "inception_4b/pool_proj"
  param {
    lr_mult: 1
    decay_mult: 1
  }
  param {
    lr_mult: 2
    decay_mult: 0
  }
  convolution_param {
    num_output: 64
    kernel_size: 1
    weight_filler {
      type: "xavier"
      std: 0.1
    }
    bias_filler {
      type: "constant"
      value: 0.2
    }
  }
}
layer {
  name: "inception_4b/relu_pool_proj"
  type: "ReLU"
  bottom: "inception_4b/pool_proj"
  top: "inception_4b/pool_proj"
}
layer {
  name: "inception_4b/output"
  type: "Concat"
  bottom: "inception_4b/1x1"
  bottom: "inception_4b/3x3"
  bottom: "inception_4b/5x5"
  bottom: "inception_4b/pool_proj"
  top: "inception_4b/output"
}
layer {
  name: "inception_4c/1x1"
  type: "Convolution"
  bottom: "inception_4b/output"
  top: "inception_4c/1x1"
  param {
    lr_mult: 1
    decay_mult: 1
  }
  param {
    lr_mult: 2
    decay_mult: 0
  }
  convolution_param {
    num_output: 128
    kernel_size: 1
    weight_filler {
      type: "xavier"
      std: 0.03
    }
    bias_filler {
      type: "constant"
      value: 0.2
    }
  }
}
layer {
  name: "inception_4c/relu_1x1"
  type: "ReLU"
  bottom: "inception_4c/1x1"
  top: "inception_4c/1x1"
}
layer {
  name: "inception_4c/3x3_reduce"
  type: "Convolution"
  bottom: "inception_4b/output"
  top: "inception_4c/3x3_reduce"
  param {
    lr_mult: 1
    decay_mult: 1
  }
  param {
    lr_mult: 2
    decay_mult: 0
  }
  convolution_param {
    num_output: 128
    kernel_size: 1
    weight_filler {
      type: "xavier"
      std: 0.09
    }
    bias_filler {
      type: "constant"
      value: 0.2
    }
  }
}
layer {
  name: "inception_4c/relu_3x3_reduce"
  type: "ReLU"
  bottom: "inception_4c/3x3_reduce"
  top: "inception_4c/3x3_reduce"
}
layer {
  name: "inception_4c/3x3"
  type: "Convolution"
  bottom: "inception_4c/3x3_reduce"
  top: "inception_4c/3x3"
  param {
    lr_mult: 1
    decay_mult: 1
  }
  param {
    lr_mult: 2
    decay_mult: 0
  }
  convolution_param {
    num_output: 256
    pad: 1
    kernel_size: 3
    weight_filler {
      type: "xavier"
      std: 0.03
    }
    bias_filler {
      type: "constant"
      value: 0.2
    }
  }
}
layer {
  name: "inception_4c/relu_3x3"
  type: "ReLU"
  bottom: "inception_4c/3x3"
  top: "inception_4c/3x3"
}
layer {
  name: "inception_4c/5x5_reduce"
  type: "Convolution"
  bottom: "inception_4b/output"
  top: "inception_4c/5x5_reduce"
  param {
    lr_mult: 1
    decay_mult: 1
  }
  param {
    lr_mult: 2
    decay_mult: 0
  }
  convolution_param {
    num_output: 24
    kernel_size: 1
    weight_filler {
      type: "xavier"
      std: 0.2
    }
    bias_filler {
      type: "constant"
      value: 0.2
    }
  }
}
layer {
  name: "inception_4c/relu_5x5_reduce"
  type: "ReLU"
  bottom: "inception_4c/5x5_reduce"
  top: "inception_4c/5x5_reduce"
}
layer {
  name: "inception_4c/5x5"
  type: "Convolution"
  bottom: "inception_4c/5x5_reduce"
  top: "inception_4c/5x5"
  param {
    lr_mult: 1
    decay_mult: 1
  }
  param {
    lr_mult: 2
    decay_mult: 0
  }
  convolution_param {
    num_output: 64
    pad: 2
    kernel_size: 5
    weight_filler {
      type: "xavier"
      std: 0.03
    }
    bias_filler {
      type: "constant"
      value: 0.2
    }
  }
}
layer {
  name: "inception_4c/relu_5x5"
  type: "ReLU"
  bottom: "inception_4c/5x5"
  top: "inception_4c/5x5"
}
layer {
  name: "inception_4c/pool"
  type: "Pooling"
  bottom: "inception_4b/output"
  top: "inception_4c/pool"
  pooling_param {
    pool: MAX
    kernel_size: 3
    stride: 1
    pad: 1
  }
}
layer {
  name: "inception_4c/pool_proj"
  type: "Convolution"
  bottom: "inception_4c/pool"
  top: "inception_4c/pool_proj"
  param {
    lr_mult: 1
    decay_mult: 1
  }
  param {
    lr_mult: 2
    decay_mult: 0
  }
  convolution_param {
    num_output: 64
    kernel_size: 1
    weight_filler {
      type: "xavier"
      std: 0.1
    }
    bias_filler {
      type: "constant"
      value: 0.2
    }
  }
}
layer {
  name: "inception_4c/relu_pool_proj"
  type: "ReLU"
  bottom: "inception_4c/pool_proj"
  top: "inception_4c/pool_proj"
}
layer {
  name: "inception_4c/output"
  type: "Concat"
  bottom: "inception_4c/1x1"
  bottom: "inception_4c/3x3"
  bottom: "inception_4c/5x5"
  bottom: "inception_4c/pool_proj"
  top: "inception_4c/output"
}
layer {
  name: "inception_4d/1x1"
  type: "Convolution"
  bottom: "inception_4c/output"
  top: "inception_4d/1x1"
  param {
    lr_mult: 1
    decay_mult: 1
  }
  param {
    lr_mult: 2
    decay_mult: 0
  }
  convolution_param {
    num_output: 112
    kernel_size: 1
    weight_filler {
      type: "xavier"
      std: 0.03
    }
    bias_filler {
      type: "constant"
      value: 0.2
    }
  }
}
layer {
  name: "inception_4d/relu_1x1"
  type: "ReLU"
  bottom: "inception_4d/1x1"
  top: "inception_4d/1x1"
}
layer {
  name: "inception_4d/3x3_reduce"
  type: "Convolution"
  bottom: "inception_4c/output"
  top: "inception_4d/3x3_reduce"
  param {
    lr_mult: 1
    decay_mult: 1
  }
  param {
    lr_mult: 2
    decay_mult: 0
  }
  convolution_param {
    num_output: 144
    kernel_size: 1
    weight_filler {
      type: "xavier"
      std: 0.09
    }
    bias_filler {
      type: "constant"
      value: 0.2
    }
  }
}
layer {
  name: "inception_4d/relu_3x3_reduce"
  type: "ReLU"
  bottom: "inception_4d/3x3_reduce"
  top: "inception_4d/3x3_reduce"
}
layer {
  name: "inception_4d/3x3"
  type: "Convolution"
  bottom: "inception_4d/3x3_reduce"
  top: "inception_4d/3x3"
  param {
    lr_mult: 1
    decay_mult: 1
  }
  param {
    lr_mult: 2
    decay_mult: 0
  }
  convolution_param {
    num_output: 288
    pad: 1
    kernel_size: 3
    weight_filler {
      type: "xavier"
      std: 0.03
    }
    bias_filler {
      type: "constant"
      value: 0.2
    }
  }
}
layer {
  name: "inception_4d/relu_3x3"
  type: "ReLU"
  bottom: "inception_4d/3x3"
  top: "inception_4d/3x3"
}
layer {
  name: "inception_4d/5x5_reduce"
  type: "Convolution"
  bottom: "inception_4c/output"
  top: "inception_4d/5x5_reduce"
  param {
    lr_mult: 1
    decay_mult: 1
  }
  param {
    lr_mult: 2
    decay_mult: 0
  }
  convolution_param {
    num_output: 32
    kernel_size: 1
    weight_filler {
      type: "xavier"
      std: 0.2
    }
    bias_filler {
      type: "constant"
      value: 0.2
    }
  }
}
layer {
  name: "inception_4d/relu_5x5_reduce"
  type: "ReLU"
  bottom: "inception_4d/5x5_reduce"
  top: "inception_4d/5x5_reduce"
}
layer {
  name: "inception_4d/5x5"
  type: "Convolution"
  bottom: "inception_4d/5x5_reduce"
  top: "inception_4d/5x5"
  param {
    lr_mult: 1
    decay_mult: 1
  }
  param {
    lr_mult: 2
    decay_mult: 0
  }
  convolution_param {
    num_output: 64
    pad: 2
    kernel_size: 5
    weight_filler {
      type: "xavier"
      std: 0.03
    }
    bias_filler {
      type: "constant"
      value: 0.2
    }
  }
}
layer {
  name: "inception_4d/relu_5x5"
  type: "ReLU"
  bottom: "inception_4d/5x5"
  top: "inception_4d/5x5"
}
layer {
  name: "inception_4d/pool"
  type: "Pooling"
  bottom: "inception_4c/output"
  top: "inception_4d/pool"
  pooling_param {
    pool: MAX
    kernel_size: 3
    stride: 1
    pad: 1
  }
}
layer {
  name: "inception_4d/pool_proj"
  type: "Convolution"
  bottom: "inception_4d/pool"
  top: "inception_4d/pool_proj"
  param {
    lr_mult: 1
    decay_mult: 1
  }
  param {
    lr_mult: 2
    decay_mult: 0
  }
  convolution_param {
    num_output: 64
    kernel_size: 1
    weight_filler {
      type: "xavier"
      std: 0.1
    }
    bias_filler {
      type: "constant"
      value: 0.2
    }
  }
}
layer {
  name: "inception_4d/relu_pool_proj"
  type: "ReLU"
  bottom: "inception_4d/pool_proj"
  top: "inception_4d/pool_proj"
}
layer {
  name: "inception_4d/output"
  type: "Concat"
  bottom: "inception_4d/1x1"
  bottom: "inception_4d/3x3"
  bottom: "inception_4d/5x5"
  bottom: "inception_4d/pool_proj"
  top: "inception_4d/output"
}
layer {
  name: "loss2/ave_pool"
  type: "Pooling"
  bottom: "inception_4d/output"
  top: "loss2/ave_pool"
  pooling_param {
    pool: AVE
    kernel_size: 5
    stride: 3
  }
}
layer {
  name: "loss2/conv"
  type: "Convolution"
  bottom: "loss2/ave_pool"
  top: "loss2/conv"
  param {
    lr_mult: 1
    decay_mult: 1
  }
  param {
    lr_mult: 2
    decay_mult: 0
  }
  convolution_param {
    num_output: 128
    kernel_size: 1
    weight_filler {
      type: "xavier"
      std: 0.08
    }
    bias_filler {
      type: "constant"
      value: 0.2
    }
  }
}
layer {
  name: "loss2/relu_conv"
  type: "ReLU"
  bottom: "loss2/conv"
  top: "loss2/conv"
}
layer {
  name: "loss2/fc"
  type: "InnerProduct"
  bottom: "loss2/conv"
  top: "loss2/fc"
  param {
    lr_mult: 1
    decay_mult: 1
  }
  param {
    lr_mult: 2
    decay_mult: 0
  }
  inner_product_param {
    num_output: 1024
    weight_filler {
      type: "xavier"
      std: 0.02
    }
    bias_filler {
      type: "constant"
      value: 0.2
    }
  }
}
layer {
  name: "loss2/relu_fc"
  type: "ReLU"
  bottom: "loss2/fc"
  top: "loss2/fc"
}
layer {
  name: "loss2/drop_fc"
  type: "Dropout"
  bottom: "loss2/fc"
  top: "loss2/fc"
  dropout_param {
    dropout_ratio: 0.7
  }
}
layer {
  name: "loss2/classifier_plantvillage"
  type: "InnerProduct"
  bottom: "loss2/fc"
  top: "loss2/classifier_plantvillage"
  param {
    lr_mult: 1
    decay_mult: 1
  }
  param {
    lr_mult: 2
    decay_mult: 0
  }
  inner_product_param {
    num_output: 38
    weight_filler {
      type: "xavier"
      std: 0.0009765625
    }
    bias_filler {
      type: "constant"
      value: 0
    }
  }
}
layer {
  name: "inception_4e/1x1"
  type: "Convolution"
  bottom: "inception_4d/output"
  top: "inception_4e/1x1"
  param {
    lr_mult: 1
    decay_mult: 1
  }
  param {
    lr_mult: 2
    decay_mult: 0
  }
  convolution_param {
    num_output: 256
    kernel_size: 1
    weight_filler {
      type: "xavier"
      std: 0.03
    }
    bias_filler {
      type: "constant"
      value: 0.2
    }
  }
}
layer {
  name: "inception_4e/relu_1x1"
  type: "ReLU"
  bottom: "inception_4e/1x1"
  top: "inception_4e/1x1"
}
layer {
  name: "inception_4e/3x3_reduce"
  type: "Convolution"
  bottom: "inception_4d/output"
  top: "inception_4e/3x3_reduce"
  param {
    lr_mult: 1
    decay_mult: 1
  }
  param {
    lr_mult: 2
    decay_mult: 0
  }
  convolution_param {
    num_output: 160
    kernel_size: 1
    weight_filler {
      type: "xavier"
      std: 0.09
    }
    bias_filler {
      type: "constant"
      value: 0.2
    }
  }
}
layer {
  name: "inception_4e/relu_3x3_reduce"
  type: "ReLU"
  bottom: "inception_4e/3x3_reduce"
  top: "inception_4e/3x3_reduce"
}
layer {
  name: "inception_4e/3x3"
  type: "Convolution"
  bottom: "inception_4e/3x3_reduce"
  top: "inception_4e/3x3"
  param {
    lr_mult: 1
    decay_mult: 1
  }
  param {
    lr_mult: 2
    decay_mult: 0
  }
  convolution_param {
    num_output: 320
    pad: 1
    kernel_size: 3
    weight_filler {
      type: "xavier"
      std: 0.03
    }
    bias_filler {
      type: "constant"
      value: 0.2
    }
  }
}
layer {
  name: "inception_4e/relu_3x3"
  type: "ReLU"
  bottom: "inception_4e/3x3"
  top: "inception_4e/3x3"
}
layer {
  name: "inception_4e/5x5_reduce"
  type: "Convolution"
  bottom: "inception_4d/output"
  top: "inception_4e/5x5_reduce"
  param {
    lr_mult: 1
    decay_mult: 1
  }
  param {
    lr_mult: 2
    decay_mult: 0
  }
  convolution_param {
    num_output: 32
    kernel_size: 1
    weight_filler {
      type: "xavier"
      std: 0.2
    }
    bias_filler {
      type: "constant"
      value: 0.2
    }
  }
}
layer {
  name: "inception_4e/relu_5x5_reduce"
  type: "ReLU"
  bottom: "inception_4e/5x5_reduce"
  top: "inception_4e/5x5_reduce"
}
layer {
  name: "inception_4e/5x5"
  type: "Convolution"
  bottom: "inception_4e/5x5_reduce"
  top: "inception_4
I0403 04:43:12.602551  4599 layer_factory.hpp:77] Creating layer data
I0403 04:43:12.603739  4599 net.cpp:91] Creating Layer data
I0403 04:43:12.603804  4599 net.cpp:399] data -> data
I0403 04:43:12.603919  4599 net.cpp:399] data -> label
I0403 04:43:12.604003  4599 data_transformer.cpp:25] Loading mean file from: /home/mohanty/data/final_dataset/lmdb/grayscale-50-50/mean.binaryproto
I0403 04:43:12.709933  4604 db_lmdb.cpp:38] Opened lmdb /home/mohanty/data/final_dataset/lmdb/grayscale-50-50/train_db
I0403 04:43:12.736528  4599 data_layer.cpp:41] output data size: 24,3,224,224
I0403 04:43:12.782963  4599 net.cpp:141] Setting up data
I0403 04:43:12.783046  4599 net.cpp:148] Top shape: 24 3 224 224 (3612672)
I0403 04:43:12.783067  4599 net.cpp:148] Top shape: 24 (24)
I0403 04:43:12.783082  4599 net.cpp:156] Memory required for data: 14450784
I0403 04:43:12.783148  4599 layer_factory.hpp:77] Creating layer label_data_1_split
I0403 04:43:12.783177  4599 net.cpp:91] Creating Layer label_data_1_split
I0403 04:43:12.783197  4599 net.cpp:425] label_data_1_split <- label
I0403 04:43:12.783226  4599 net.cpp:399] label_data_1_split -> label_data_1_split_0
I0403 04:43:12.783252  4599 net.cpp:399] label_data_1_split -> label_data_1_split_1
I0403 04:43:12.783272  4599 net.cpp:399] label_data_1_split -> label_data_1_split_2
I0403 04:43:12.783335  4599 net.cpp:141] Setting up label_data_1_split
I0403 04:43:12.783359  4599 net.cpp:148] Top shape: 24 (24)
I0403 04:43:12.783375  4599 net.cpp:148] Top shape: 24 (24)
I0403 04:43:12.783391  4599 net.cpp:148] Top shape: 24 (24)
I0403 04:43:12.783404  4599 net.cpp:156] Memory required for data: 14451072
I0403 04:43:12.783418  4599 layer_factory.hpp:77] Creating layer conv1/7x7_s2
I0403 04:43:12.783452  4599 net.cpp:91] Creating Layer conv1/7x7_s2
I0403 04:43:12.783469  4599 net.cpp:425] conv1/7x7_s2 <- data
I0403 04:43:12.783489  4599 net.cpp:399] conv1/7x7_s2 -> conv1/7x7_s2
I0403 04:43:12.785091  4599 net.cpp:141] Setting up conv1/7x7_s2
I0403 04:43:12.785122  4599 net.cpp:148] Top shape: 24 64 112 112 (19267584)
I0403 04:43:12.785140  4599 net.cpp:156] Memory required for data: 91521408
I0403 04:43:12.785173  4599 layer_factory.hpp:77] Creating layer conv1/relu_7x7
I0403 04:43:12.785198  4599 net.cpp:91] Creating Layer conv1/relu_7x7
I0403 04:43:12.785215  4599 net.cpp:425] conv1/relu_7x7 <- conv1/7x7_s2
I0403 04:43:12.785233  4599 net.cpp:386] conv1/relu_7x7 -> conv1/7x7_s2 (in-place)
I0403 04:43:12.785254  4599 net.cpp:141] Setting up conv1/relu_7x7
I0403 04:43:12.785272  4599 net.cpp:148] Top shape: 24 64 112 112 (19267584)
I0403 04:43:12.785287  4599 net.cpp:156] Memory required for data: 168591744
I0403 04:43:12.785301  4599 layer_factory.hpp:77] Creating layer pool1/3x3_s2
I0403 04:43:12.785321  4599 net.cpp:91] Creating Layer pool1/3x3_s2
I0403 04:43:12.785338  4599 net.cpp:425] pool1/3x3_s2 <- conv1/7x7_s2
I0403 04:43:12.785356  4599 net.cpp:399] pool1/3x3_s2 -> pool1/3x3_s2
I0403 04:43:12.785415  4599 net.cpp:141] Setting up pool1/3x3_s2
I0403 04:43:12.785439  4599 net.cpp:148] Top shape: 24 64 56 56 (4816896)
I0403 04:43:12.785454  4599 net.cpp:156] Memory required for data: 187859328
I0403 04:43:12.785467  4599 layer_factory.hpp:77] Creating layer pool1/norm1
I0403 04:43:12.785487  4599 net.cpp:91] Creating Layer pool1/norm1
I0403 04:43:12.785503  4599 net.cpp:425] pool1/norm1 <- pool1/3x3_s2
I0403 04:43:12.785521  4599 net.cpp:399] pool1/norm1 -> pool1/norm1
I0403 04:43:12.785569  4599 net.cpp:141] Setting up pool1/norm1
I0403 04:43:12.785591  4599 net.cpp:148] Top shape: 24 64 56 56 (4816896)
I0403 04:43:12.785606  4599 net.cpp:156] Memory required for data: 207126912
I0403 04:43:12.785620  4599 layer_factory.hpp:77] Creating layer conv2/3x3_reduce
I0403 04:43:12.785642  4599 net.cpp:91] Creating Layer conv2/3x3_reduce
I0403 04:43:12.785658  4599 net.cpp:425] conv2/3x3_reduce <- pool1/norm1
I0403 04:43:12.785677  4599 net.cpp:399] conv2/3x3_reduce -> conv2/3x3_reduce
I0403 04:43:12.786401  4599 net.cpp:141] Setting up conv2/3x3_reduce
I0403 04:43:12.786428  4599 net.cpp:148] Top shape: 24 64 56 56 (4816896)
I0403 04:43:12.786444  4599 net.cpp:156] Memory required for data: 226394496
I0403 04:43:12.786465  4599 layer_factory.hpp:77] Creating layer conv2/relu_3x3_reduce
I0403 04:43:12.786484  4599 net.cpp:91] Creating Layer conv2/relu_3x3_reduce
I0403 04:43:12.786500  4599 net.cpp:425] conv2/relu_3x3_reduce <- conv2/3x3_reduce
I0403 04:43:12.786517  4599 net.cpp:386] conv2/relu_3x3_reduce -> conv2/3x3_reduce (in-place)
I0403 04:43:12.786535  4599 net.cpp:141] Setting up conv2/relu_3x3_reduce
I0403 04:43:12.786555  4599 net.cpp:148] Top shape: 24 64 56 56 (4816896)
I0403 04:43:12.786569  4599 net.cpp:156] Memory required for data: 245662080
I0403 04:43:12.786584  4599 layer_factory.hpp:77] Creating layer conv2/3x3
I0403 04:43:12.786607  4599 net.cpp:91] Creating Layer conv2/3x3
I0403 04:43:12.786623  4599 net.cpp:425] conv2/3x3 <- conv2/3x3_reduce
I0403 04:43:12.786659  4599 net.cpp:399] conv2/3x3 -> conv2/3x3
I0403 04:43:12.787936  4599 net.cpp:141] Setting up conv2/3x3
I0403 04:43:12.787963  4599 net.cpp:148] Top shape: 24 192 56 56 (14450688)
I0403 04:43:12.787979  4599 net.cpp:156] Memory required for data: 303464832
I0403 04:43:12.787999  4599 layer_factory.hpp:77] Creating layer conv2/relu_3x3
I0403 04:43:12.788019  4599 net.cpp:91] Creating Layer conv2/relu_3x3
I0403 04:43:12.788035  4599 net.cpp:425] conv2/relu_3x3 <- conv2/3x3
I0403 04:43:12.788053  4599 net.cpp:386] conv2/relu_3x3 -> conv2/3x3 (in-place)
I0403 04:43:12.788071  4599 net.cpp:141] Setting up conv2/relu_3x3
I0403 04:43:12.788089  4599 net.cpp:148] Top shape: 24 192 56 56 (14450688)
I0403 04:43:12.788103  4599 net.cpp:156] Memory required for data: 361267584
I0403 04:43:12.788117  4599 layer_factory.hpp:77] Creating layer conv2/norm2
I0403 04:43:12.788135  4599 net.cpp:91] Creating Layer conv2/norm2
I0403 04:43:12.788149  4599 net.cpp:425] conv2/norm2 <- conv2/3x3
I0403 04:43:12.788166  4599 net.cpp:399] conv2/norm2 -> conv2/norm2
I0403 04:43:12.788211  4599 net.cpp:141] Setting up conv2/norm2
I0403 04:43:12.788233  4599 net.cpp:148] Top shape: 24 192 56 56 (14450688)
I0403 04:43:12.788247  4599 net.cpp:156] Memory required for data: 419070336
I0403 04:43:12.788270  4599 layer_factory.hpp:77] Creating layer pool2/3x3_s2
I0403 04:43:12.788290  4599 net.cpp:91] Creating Layer pool2/3x3_s2
I0403 04:43:12.788305  4599 net.cpp:425] pool2/3x3_s2 <- conv2/norm2
I0403 04:43:12.788324  4599 net.cpp:399] pool2/3x3_s2 -> pool2/3x3_s2
I0403 04:43:12.788368  4599 net.cpp:141] Setting up pool2/3x3_s2
I0403 04:43:12.788393  4599 net.cpp:148] Top shape: 24 192 28 28 (3612672)
I0403 04:43:12.788408  4599 net.cpp:156] Memory required for data: 433521024
I0403 04:43:12.788421  4599 layer_factory.hpp:77] Creating layer pool2/3x3_s2_pool2/3x3_s2_0_split
I0403 04:43:12.788439  4599 net.cpp:91] Creating Layer pool2/3x3_s2_pool2/3x3_s2_0_split
I0403 04:43:12.788455  4599 net.cpp:425] pool2/3x3_s2_pool2/3x3_s2_0_split <- pool2/3x3_s2
I0403 04:43:12.788471  4599 net.cpp:399] pool2/3x3_s2_pool2/3x3_s2_0_split -> pool2/3x3_s2_pool2/3x3_s2_0_split_0
I0403 04:43:12.788491  4599 net.cpp:399] pool2/3x3_s2_pool2/3x3_s2_0_split -> pool2/3x3_s2_pool2/3x3_s2_0_split_1
I0403 04:43:12.788511  4599 net.cpp:399] pool2/3x3_s2_pool2/3x3_s2_0_split -> pool2/3x3_s2_pool2/3x3_s2_0_split_2
I0403 04:43:12.788532  4599 net.cpp:399] pool2/3x3_s2_pool2/3x3_s2_0_split -> pool2/3x3_s2_pool2/3x3_s2_0_split_3
I0403 04:43:12.788589  4599 net.cpp:141] Setting up pool2/3x3_s2_pool2/3x3_s2_0_split
I0403 04:43:12.788612  4599 net.cpp:148] Top shape: 24 192 28 28 (3612672)
I0403 04:43:12.788628  4599 net.cpp:148] Top shape: 24 192 28 28 (3612672)
I0403 04:43:12.788643  4599 net.cpp:148] Top shape: 24 192 28 28 (3612672)
I0403 04:43:12.788658  4599 net.cpp:148] Top shape: 24 192 28 28 (3612672)
I0403 04:43:12.788671  4599 net.cpp:156] Memory required for data: 491323776
I0403 04:43:12.788686  4599 layer_factory.hpp:77] Creating layer inception_3a/1x1
I0403 04:43:12.788707  4599 net.cpp:91] Creating Layer inception_3a/1x1
I0403 04:43:12.788723  4599 net.cpp:425] inception_3a/1x1 <- pool2/3x3_s2_pool2/3x3_s2_0_split_0
I0403 04:43:12.788743  4599 net.cpp:399] inception_3a/1x1 -> inception_3a/1x1
I0403 04:43:12.789535  4599 net.cpp:141] Setting up inception_3a/1x1
I0403 04:43:12.789561  4599 net.cpp:148] Top shape: 24 64 28 28 (1204224)
I0403 04:43:12.789577  4599 net.cpp:156] Memory required for data: 496140672
I0403 04:43:12.789595  4599 layer_factory.hpp:77] Creating layer inception_3a/relu_1x1
I0403 04:43:12.789614  4599 net.cpp:91] Creating Layer inception_3a/relu_1x1
I0403 04:43:12.789630  4599 net.cpp:425] inception_3a/relu_1x1 <- inception_3a/1x1
I0403 04:43:12.789649  4599 net.cpp:386] inception_3a/relu_1x1 -> inception_3a/1x1 (in-place)
I0403 04:43:12.789676  4599 net.cpp:141] Setting up inception_3a/relu_1x1
I0403 04:43:12.789693  4599 net.cpp:148] Top shape: 24 64 28 28 (1204224)
I0403 04:43:12.789707  4599 net.cpp:156] Memory required for data: 500957568
I0403 04:43:12.789737  4599 layer_factory.hpp:77] Creating layer inception_3a/3x3_reduce
I0403 04:43:12.789759  4599 net.cpp:91] Creating Layer inception_3a/3x3_reduce
I0403 04:43:12.789777  4599 net.cpp:425] inception_3a/3x3_reduce <- pool2/3x3_s2_pool2/3x3_s2_0_split_1
I0403 04:43:12.789800  4599 net.cpp:399] inception_3a/3x3_reduce -> inception_3a/3x3_reduce
I0403 04:43:12.792060  4599 net.cpp:141] Setting up inception_3a/3x3_reduce
I0403 04:43:12.792096  4599 net.cpp:148] Top shape: 24 96 28 28 (1806336)
I0403 04:43:12.792114  4599 net.cpp:156] Memory required for data: 508182912
I0403 04:43:12.792135  4599 layer_factory.hpp:77] Creating layer inception_3a/relu_3x3_reduce
I0403 04:43:12.792160  4599 net.cpp:91] Creating Layer inception_3a/relu_3x3_reduce
I0403 04:43:12.792176  4599 net.cpp:425] inception_3a/relu_3x3_reduce <- inception_3a/3x3_reduce
I0403 04:43:12.792196  4599 net.cpp:386] inception_3a/relu_3x3_reduce -> inception_3a/3x3_reduce (in-place)
I0403 04:43:12.792215  4599 net.cpp:141] Setting up inception_3a/relu_3x3_reduce
I0403 04:43:12.792235  4599 net.cpp:148] Top shape: 24 96 28 28 (1806336)
I0403 04:43:12.792254  4599 net.cpp:156] Memory required for data: 515408256
I0403 04:43:12.792268  4599 layer_factory.hpp:77] Creating layer inception_3a/3x3
I0403 04:43:12.792292  4599 net.cpp:91] Creating Layer inception_3a/3x3
I0403 04:43:12.792309  4599 net.cpp:425] inception_3a/3x3 <- inception_3a/3x3_reduce
I0403 04:43:12.792327  4599 net.cpp:399] inception_3a/3x3 -> inception_3a/3x3
I0403 04:43:12.793175  4599 net.cpp:141] Setting up inception_3a/3x3
I0403 04:43:12.793200  4599 net.cpp:148] Top shape: 24 128 28 28 (2408448)
I0403 04:43:12.793215  4599 net.cpp:156] Memory required for data: 525042048
I0403 04:43:12.793232  4599 layer_factory.hpp:77] Creating layer inception_3a/relu_3x3
I0403 04:43:12.793251  4599 net.cpp:91] Creating Layer inception_3a/relu_3x3
I0403 04:43:12.793267  4599 net.cpp:425] inception_3a/relu_3x3 <- inception_3a/3x3
I0403 04:43:12.793287  4599 net.cpp:386] inception_3a/relu_3x3 -> inception_3a/3x3 (in-place)
I0403 04:43:12.793308  4599 net.cpp:141] Setting up inception_3a/relu_3x3
I0403 04:43:12.793324  4599 net.cpp:148] Top shape: 24 128 28 28 (2408448)
I0403 04:43:12.793339  4599 net.cpp:156] Memory required for data: 534675840
I0403 04:43:12.793354  4599 layer_factory.hpp:77] Creating layer inception_3a/5x5_reduce
I0403 04:43:12.793375  4599 net.cpp:91] Creating Layer inception_3a/5x5_reduce
I0403 04:43:12.793392  4599 net.cpp:425] inception_3a/5x5_reduce <- pool2/3x3_s2_pool2/3x3_s2_0_split_2
I0403 04:43:12.793411  4599 net.cpp:399] inception_3a/5x5_reduce -> inception_3a/5x5_reduce
I0403 04:43:12.793622  4599 net.cpp:141] Setting up inception_3a/5x5_reduce
I0403 04:43:12.793647  4599 net.cpp:148] Top shape: 24 16 28 28 (301056)
I0403 04:43:12.793661  4599 net.cpp:156] Memory required for data: 535880064
I0403 04:43:12.793679  4599 layer_factory.hpp:77] Creating layer inception_3a/relu_5x5_reduce
I0403 04:43:12.793680  4605 blocking_queue.cpp:50] Waiting for data
I0403 04:43:12.793702  4599 net.cpp:91] Creating Layer inception_3a/relu_5x5_reduce
I0403 04:43:12.793740  4599 net.cpp:425] inception_3a/relu_5x5_reduce <- inception_3a/5x5_reduce
I0403 04:43:12.793766  4599 net.cpp:386] inception_3a/relu_5x5_reduce -> inception_3a/5x5_reduce (in-place)
I0403 04:43:12.793803  4599 net.cpp:141] Setting up inception_3a/relu_5x5_reduce
I0403 04:43:12.793825  4599 net.cpp:148] Top shape: 24 16 28 28 (301056)
I0403 04:43:12.793839  4599 net.cpp:156] Memory required for data: 537084288
I0403 04:43:12.793854  4599 layer_factory.hpp:77] Creating layer inception_3a/5x5
I0403 04:43:12.793879  4599 net.cpp:91] Creating Layer inception_3a/5x5
I0403 04:43:12.793896  4599 net.cpp:425] inception_3a/5x5 <- inception_3a/5x5_reduce
I0403 04:43:12.793915  4599 net.cpp:399] inception_3a/5x5 -> inception_3a/5x5
I0403 04:43:12.794201  4599 net.cpp:141] Setting up inception_3a/5x5
I0403 04:43:12.794227  4599 net.cpp:148] Top shape: 24 32 28 28 (602112)
I0403 04:43:12.794256  4599 net.cpp:156] Memory required for data: 539492736
I0403 04:43:12.794275  4599 layer_factory.hpp:77] Creating layer inception_3a/relu_5x5
I0403 04:43:12.794292  4599 net.cpp:91] Creating Layer inception_3a/relu_5x5
I0403 04:43:12.794307  4599 net.cpp:425] inception_3a/relu_5x5 <- inception_3a/5x5
I0403 04:43:12.794324  4599 net.cpp:386] inception_3a/relu_5x5 -> inception_3a/5x5 (in-place)
I0403 04:43:12.794342  4599 net.cpp:141] Setting up inception_3a/relu_5x5
I0403 04:43:12.794358  4599 net.cpp:148] Top shape: 24 32 28 28 (602112)
I0403 04:43:12.794371  4599 net.cpp:156] Memory required for data: 541901184
I0403 04:43:12.794385  4599 layer_factory.hpp:77] Creating layer inception_3a/pool
I0403 04:43:12.794402  4599 net.cpp:91] Creating Layer inception_3a/pool
I0403 04:43:12.794416  4599 net.cpp:425] inception_3a/pool <- pool2/3x3_s2_pool2/3x3_s2_0_split_3
I0403 04:43:12.794436  4599 net.cpp:399] inception_3a/pool -> inception_3a/pool
I0403 04:43:12.794482  4599 net.cpp:141] Setting up inception_3a/pool
I0403 04:43:12.794503  4599 net.cpp:148] Top shape: 24 192 28 28 (3612672)
I0403 04:43:12.794517  4599 net.cpp:156] Memory required for data: 556351872
I0403 04:43:12.794530  4599 layer_factory.hpp:77] Creating layer inception_3a/pool_proj
I0403 04:43:12.794555  4599 net.cpp:91] Creating Layer inception_3a/pool_proj
I0403 04:43:12.794571  4599 net.cpp:425] inception_3a/pool_proj <- inception_3a/pool
I0403 04:43:12.794590  4599 net.cpp:399] inception_3a/pool_proj -> inception_3a/pool_proj
I0403 04:43:12.794827  4599 net.cpp:141] Setting up inception_3a/pool_proj
I0403 04:43:12.794865  4599 net.cpp:148] Top shape: 24 32 28 28 (602112)
I0403 04:43:12.794880  4599 net.cpp:156] Memory required for data: 558760320
I0403 04:43:12.794906  4599 layer_factory.hpp:77] Creating layer inception_3a/relu_pool_proj
I0403 04:43:12.794929  4599 net.cpp:91] Creating Layer inception_3a/relu_pool_proj
I0403 04:43:12.794946  4599 net.cpp:425] inception_3a/relu_pool_proj <- inception_3a/pool_proj
I0403 04:43:12.794965  4599 net.cpp:386] inception_3a/relu_pool_proj -> inception_3a/pool_proj (in-place)
I0403 04:43:12.794983  4599 net.cpp:141] Setting up inception_3a/relu_pool_proj
I0403 04:43:12.795001  4599 net.cpp:148] Top shape: 24 32 28 28 (602112)
I0403 04:43:12.795016  4599 net.cpp:156] Memory required for data: 561168768
I0403 04:43:12.795030  4599 layer_factory.hpp:77] Creating layer inception_3a/output
I0403 04:43:12.795060  4599 net.cpp:91] Creating Layer inception_3a/output
I0403 04:43:12.795075  4599 net.cpp:425] inception_3a/output <- inception_3a/1x1
I0403 04:43:12.795090  4599 net.cpp:425] inception_3a/output <- inception_3a/3x3
I0403 04:43:12.795105  4599 net.cpp:425] inception_3a/output <- inception_3a/5x5
I0403 04:43:12.795120  4599 net.cpp:425] inception_3a/output <- inception_3a/pool_proj
I0403 04:43:12.795140  4599 net.cpp:399] inception_3a/output -> inception_3a/output
I0403 04:43:12.795315  4599 net.cpp:141] Setting up inception_3a/output
I0403 04:43:12.795343  4599 net.cpp:148] Top shape: 24 256 28 28 (4816896)
I0403 04:43:12.795361  4599 net.cpp:156] Memory required for data: 580436352
I0403 04:43:12.795377  4599 layer_factory.hpp:77] Creating layer inception_3a/output_inception_3a/output_0_split
I0403 04:43:12.795402  4599 net.cpp:91] Creating Layer inception_3a/output_inception_3a/output_0_split
I0403 04:43:12.795418  4599 net.cpp:425] inception_3a/output_inception_3a/output_0_split <- inception_3a/output
I0403 04:43:12.795438  4599 net.cpp:399] inception_3a/output_inception_3a/output_0_split -> inception_3a/output_inception_3a/output_0_split_0
I0403 04:43:12.795459  4599 net.cpp:399] inception_3a/output_inception_3a/output_0_split -> inception_3a/output_inception_3a/output_0_split_1
I0403 04:43:12.795481  4599 net.cpp:399] inception_3a/output_inception_3a/output_0_split -> inception_3a/output_inception_3a/output_0_split_2
I0403 04:43:12.795505  4599 net.cpp:399] inception_3a/output_inception_3a/output_0_split -> inception_3a/output_inception_3a/output_0_split_3
I0403 04:43:12.795569  4599 net.cpp:141] Setting up inception_3a/output_inception_3a/output_0_split
I0403 04:43:12.795603  4599 net.cpp:148] Top shape: 24 256 28 28 (4816896)
I0403 04:43:12.795619  4599 net.cpp:148] Top shape: 24 256 28 28 (4816896)
I0403 04:43:12.795634  4599 net.cpp:148] Top shape: 24 256 28 28 (4816896)
I0403 04:43:12.795650  4599 net.cpp:148] Top shape: 24 256 28 28 (4816896)
I0403 04:43:12.795663  4599 net.cpp:156] Memory required for data: 657506688
I0403 04:43:12.795677  4599 layer_factory.hpp:77] Creating layer inception_3b/1x1
I0403 04:43:12.795711  4599 net.cpp:91] Creating Layer inception_3b/1x1
I0403 04:43:12.795730  4599 net.cpp:425] inception_3b/1x1 <- inception_3a/output_inception_3a/output_0_split_0
I0403 04:43:12.795763  4599 net.cpp:399] inception_3b/1x1 -> inception_3b/1x1
I0403 04:43:12.796157  4599 net.cpp:141] Setting up inception_3b/1x1
I0403 04:43:12.796186  4599 net.cpp:148] Top shape: 24 128 28 28 (2408448)
I0403 04:43:12.796201  4599 net.cpp:156] Memory required for data: 667140480
I0403 04:43:12.796219  4599 layer_factory.hpp:77] Creating layer inception_3b/relu_1x1
I0403 04:43:12.796241  4599 net.cpp:91] Creating Layer inception_3b/relu_1x1
I0403 04:43:12.796257  4599 net.cpp:425] inception_3b/relu_1x1 <- inception_3b/1x1
I0403 04:43:12.796275  4599 net.cpp:386] inception_3b/relu_1x1 -> inception_3b/1x1 (in-place)
I0403 04:43:12.796298  4599 net.cpp:141] Setting up inception_3b/relu_1x1
I0403 04:43:12.796316  4599 net.cpp:148] Top shape: 24 128 28 28 (2408448)
I0403 04:43:12.796330  4599 net.cpp:156] Memory required for data: 676774272
I0403 04:43:12.796344  4599 layer_factory.hpp:77] Creating layer inception_3b/3x3_reduce
I0403 04:43:12.796368  4599 net.cpp:91] Creating Layer inception_3b/3x3_reduce
I0403 04:43:12.796386  4599 net.cpp:425] inception_3b/3x3_reduce <- inception_3a/output_inception_3a/output_0_split_1
I0403 04:43:12.796406  4599 net.cpp:399] inception_3b/3x3_reduce -> inception_3b/3x3_reduce
I0403 04:43:12.796782  4599 net.cpp:141] Setting up inception_3b/3x3_reduce
I0403 04:43:12.796816  4599 net.cpp:148] Top shape: 24 128 28 28 (2408448)
I0403 04:43:12.796831  4599 net.cpp:156] Memory required for data: 686408064
I0403 04:43:12.796852  4599 layer_factory.hpp:77] Creating layer inception_3b/relu_3x3_reduce
I0403 04:43:12.796875  4599 net.cpp:91] Creating Layer inception_3b/relu_3x3_reduce
I0403 04:43:12.796891  4599 net.cpp:425] inception_3b/relu_3x3_reduce <- inception_3b/3x3_reduce
I0403 04:43:12.796911  4599 net.cpp:386] inception_3b/relu_3x3_reduce -> inception_3b/3x3_reduce (in-place)
I0403 04:43:12.796933  4599 net.cpp:141] Setting up inception_3b/relu_3x3_reduce
I0403 04:43:12.796954  4599 net.cpp:148] Top shape: 24 128 28 28 (2408448)
I0403 04:43:12.796972  4599 net.cpp:156] Memory required for data: 696041856
I0403 04:43:12.796999  4599 layer_factory.hpp:77] Creating layer inception_3b/3x3
I0403 04:43:12.797026  4599 net.cpp:91] Creating Layer inception_3b/3x3
I0403 04:43:12.797057  4599 net.cpp:425] inception_3b/3x3 <- inception_3b/3x3_reduce
I0403 04:43:12.797080  4599 net.cpp:399] inception_3b/3x3 -> inception_3b/3x3
I0403 04:43:12.799170  4599 net.cpp:141] Setting up inception_3b/3x3
I0403 04:43:12.799204  4599 net.cpp:148] Top shape: 24 192 28 28 (3612672)
I0403 04:43:12.799226  4599 net.cpp:156] Memory required for data: 710492544
I0403 04:43:12.799273  4599 layer_factory.hpp:77] Creating layer inception_3b/relu_3x3
I0403 04:43:12.799296  4599 net.cpp:91] Creating Layer inception_3b/relu_3x3
I0403 04:43:12.799316  4599 net.cpp:425] inception_3b/relu_3x3 <- inception_3b/3x3
I0403 04:43:12.799335  4599 net.cpp:386] inception_3b/relu_3x3 -> inception_3b/3x3 (in-place)
I0403 04:43:12.799357  4599 net.cpp:141] Setting up inception_3b/relu_3x3
I0403 04:43:12.799381  4599 net.cpp:148] Top shape: 24 192 28 28 (3612672)
I0403 04:43:12.799402  4599 net.cpp:156] Memory required for data: 724943232
I0403 04:43:12.799425  4599 layer_factory.hpp:77] Creating layer inception_3b/5x5_reduce
I0403 04:43:12.799476  4599 net.cpp:91] Creating Layer inception_3b/5x5_reduce
I0403 04:43:12.799518  4599 net.cpp:425] inception_3b/5x5_reduce <- inception_3a/output_inception_3a/output_0_split_2
I0403 04:43:12.799576  4599 net.cpp:399] inception_3b/5x5_reduce -> inception_3b/5x5_reduce
I0403 04:43:12.799834  4599 net.cpp:141] Setting up inception_3b/5x5_reduce
I0403 04:43:12.799865  4599 net.cpp:148] Top shape: 24 32 28 28 (602112)
I0403 04:43:12.799881  4599 net.cpp:156] Memory required for data: 727351680
I0403 04:43:12.799901  4599 layer_factory.hpp:77] Creating layer inception_3b/relu_5x5_reduce
I0403 04:43:12.799928  4599 net.cpp:91] Creating Layer inception_3b/relu_5x5_reduce
I0403 04:43:12.799953  4599 net.cpp:425] inception_3b/relu_5x5_reduce <- inception_3b/5x5_reduce
I0403 04:43:12.799973  4599 net.cpp:386] inception_3b/relu_5x5_reduce -> inception_3b/5x5_reduce (in-place)
I0403 04:43:12.800026  4599 net.cpp:141] Setting up inception_3b/relu_5x5_reduce
I0403 04:43:12.800047  4599 net.cpp:148] Top shape: 24 32 28 28 (602112)
I0403 04:43:12.800062  4599 net.cpp:156] Memory required for data: 729760128
I0403 04:43:12.800078  4599 layer_factory.hpp:77] Creating layer inception_3b/5x5
I0403 04:43:12.800104  4599 net.cpp:91] Creating Layer inception_3b/5x5
I0403 04:43:12.800133  4599 net.cpp:425] inception_3b/5x5 <- inception_3b/5x5_reduce
I0403 04:43:12.800214  4599 net.cpp:399] inception_3b/5x5 -> inception_3b/5x5
I0403 04:43:12.801415  4599 net.cpp:141] Setting up inception_3b/5x5
I0403 04:43:12.801446  4599 net.cpp:148] Top shape: 24 96 28 28 (1806336)
I0403 04:43:12.801462  4599 net.cpp:156] Memory required for data: 736985472
I0403 04:43:12.801482  4599 layer_factory.hpp:77] Creating layer inception_3b/relu_5x5
I0403 04:43:12.801501  4599 net.cpp:91] Creating Layer inception_3b/relu_5x5
I0403 04:43:12.801518  4599 net.cpp:425] inception_3b/relu_5x5 <- inception_3b/5x5
I0403 04:43:12.801537  4599 net.cpp:386] inception_3b/relu_5x5 -> inception_3b/5x5 (in-place)
I0403 04:43:12.801558  4599 net.cpp:141] Setting up inception_3b/relu_5x5
I0403 04:43:12.801580  4599 net.cpp:148] Top shape: 24 96 28 28 (1806336)
I0403 04:43:12.801595  4599 net.cpp:156] Memory required for data: 744210816
I0403 04:43:12.801610  4599 layer_factory.hpp:77] Creating layer inception_3b/pool
I0403 04:43:12.801630  4599 net.cpp:91] Creating Layer inception_3b/pool
I0403 04:43:12.801646  4599 net.cpp:425] inception_3b/pool <- inception_3a/output_inception_3a/output_0_split_3
I0403 04:43:12.801666  4599 net.cpp:399] inception_3b/pool -> inception_3b/pool
I0403 04:43:12.801718  4599 net.cpp:141] Setting up inception_3b/pool
I0403 04:43:12.801743  4599 net.cpp:148] Top shape: 24 256 28 28 (4816896)
I0403 04:43:12.801758  4599 net.cpp:156] Memory required for data: 763478400
I0403 04:43:12.801774  4599 layer_factory.hpp:77] Creating layer inception_3b/pool_proj
I0403 04:43:12.801801  4599 net.cpp:91] Creating Layer inception_3b/pool_proj
I0403 04:43:12.801831  4599 net.cpp:425] inception_3b/pool_proj <- inception_3b/pool
I0403 04:43:12.801853  4599 net.cpp:399] inception_3b/pool_proj -> inception_3b/pool_proj
I0403 04:43:12.802150  4599 net.cpp:141] Setting up inception_3b/pool_proj
I0403 04:43:12.802175  4599 net.cpp:148] Top shape: 24 64 28 28 (1204224)
I0403 04:43:12.802191  4599 net.cpp:156] Memory required for data: 768295296
I0403 04:43:12.802209  4599 layer_factory.hpp:77] Creating layer inception_3b/relu_pool_proj
I0403 04:43:12.802232  4599 net.cpp:91] Creating Layer inception_3b/relu_pool_proj
I0403 04:43:12.802254  4599 net.cpp:425] inception_3b/relu_pool_proj <- inception_3b/pool_proj
I0403 04:43:12.802281  4599 net.cpp:386] inception_3b/relu_pool_proj -> inception_3b/pool_proj (in-place)
I0403 04:43:12.802301  4599 net.cpp:141] Setting up inception_3b/relu_pool_proj
I0403 04:43:12.802319  4599 net.cpp:148] Top shape: 24 64 28 28 (1204224)
I0403 04:43:12.802333  4599 net.cpp:156] Memory required for data: 773112192
I0403 04:43:12.802348  4599 layer_factory.hpp:77] Creating layer inception_3b/output
I0403 04:43:12.802367  4599 net.cpp:91] Creating Layer inception_3b/output
I0403 04:43:12.802386  4599 net.cpp:425] inception_3b/output <- inception_3b/1x1
I0403 04:43:12.802422  4599 net.cpp:425] inception_3b/output <- inception_3b/3x3
I0403 04:43:12.802439  4599 net.cpp:425] inception_3b/output <- inception_3b/5x5
I0403 04:43:12.802456  4599 net.cpp:425] inception_3b/output <- inception_3b/pool_proj
I0403 04:43:12.802475  4599 net.cpp:399] inception_3b/output -> inception_3b/output
I0403 04:43:12.802513  4599 net.cpp:141] Setting up inception_3b/output
I0403 04:43:12.802538  4599 net.cpp:148] Top shape: 24 480 28 28 (9031680)
I0403 04:43:12.802556  4599 net.cpp:156] Memory required for data: 809238912
I0403 04:43:12.802572  4599 layer_factory.hpp:77] Creating layer pool3/3x3_s2
I0403 04:43:12.802590  4599 net.cpp:91] Creating Layer pool3/3x3_s2
I0403 04:43:12.802608  4599 net.cpp:425] pool3/3x3_s2 <- inception_3b/output
I0403 04:43:12.802628  4599 net.cpp:399] pool3/3x3_s2 -> pool3/3x3_s2
I0403 04:43:12.802680  4599 net.cpp:141] Setting up pool3/3x3_s2
I0403 04:43:12.802703  4599 net.cpp:148] Top shape: 24 480 14 14 (2257920)
I0403 04:43:12.802718  4599 net.cpp:156] Memory required for data: 818270592
I0403 04:43:12.802734  4599 layer_factory.hpp:77] Creating layer pool3/3x3_s2_pool3/3x3_s2_0_split
I0403 04:43:12.802752  4599 net.cpp:91] Creating Layer pool3/3x3_s2_pool3/3x3_s2_0_split
I0403 04:43:12.802773  4599 net.cpp:425] pool3/3x3_s2_pool3/3x3_s2_0_split <- pool3/3x3_s2
I0403 04:43:12.802801  4599 net.cpp:399] pool3/3x3_s2_pool3/3x3_s2_0_split -> pool3/3x3_s2_pool3/3x3_s2_0_split_0
I0403 04:43:12.802825  4599 net.cpp:399] pool3/3x3_s2_pool3/3x3_s2_0_split -> pool3/3x3_s2_pool3/3x3_s2_0_split_1
I0403 04:43:12.802846  4599 net.cpp:399] pool3/3x3_s2_pool3/3x3_s2_0_split -> pool3/3x3_s2_pool3/3x3_s2_0_split_2
I0403 04:43:12.802873  4599 net.cpp:399] pool3/3x3_s2_pool3/3x3_s2_0_split -> pool3/3x3_s2_pool3/3x3_s2_0_split_3
I0403 04:43:12.802940  4599 net.cpp:141] Setting up pool3/3x3_s2_pool3/3x3_s2_0_split
I0403 04:43:12.802964  4599 net.cpp:148] Top shape: 24 480 14 14 (2257920)
I0403 04:43:12.802980  4599 net.cpp:148] Top shape: 24 480 14 14 (2257920)
I0403 04:43:12.802996  4599 net.cpp:148] Top shape: 24 480 14 14 (2257920)
I0403 04:43:12.803012  4599 net.cpp:148] Top shape: 24 480 14 14 (2257920)
I0403 04:43:12.803027  4599 net.cpp:156] Memory required for data: 854397312
I0403 04:43:12.803042  4599 layer_factory.hpp:77] Creating layer inception_4a/1x1
I0403 04:43:12.803069  4599 net.cpp:91] Creating Layer inception_4a/1x1
I0403 04:43:12.803088  4599 net.cpp:425] inception_4a/1x1 <- pool3/3x3_s2_pool3/3x3_s2_0_split_0
I0403 04:43:12.803108  4599 net.cpp:399] inception_4a/1x1 -> inception_4a/1x1
I0403 04:43:12.803829  4599 net.cpp:141] Setting up inception_4a/1x1
I0403 04:43:12.803854  4599 net.cpp:148] Top shape: 24 192 14 14 (903168)
I0403 04:43:12.803870  4599 net.cpp:156] Memory required for data: 858009984
I0403 04:43:12.803889  4599 layer_factory.hpp:77] Creating layer inception_4a/relu_1x1
I0403 04:43:12.803907  4599 net.cpp:91] Creating Layer inception_4a/relu_1x1
I0403 04:43:12.803925  4599 net.cpp:425] inception_4a/relu_1x1 <- inception_4a/1x1
I0403 04:43:12.803944  4599 net.cpp:386] inception_4a/relu_1x1 -> inception_4a/1x1 (in-place)
I0403 04:43:12.803966  4599 net.cpp:141] Setting up inception_4a/relu_1x1
I0403 04:43:12.803984  4599 net.cpp:148] Top shape: 24 192 14 14 (903168)
I0403 04:43:12.803999  4599 net.cpp:156] Memory required for data: 861622656
I0403 04:43:12.804014  4599 layer_factory.hpp:77] Creating layer inception_4a/3x3_reduce
I0403 04:43:12.804039  4599 net.cpp:91] Creating Layer inception_4a/3x3_reduce
I0403 04:43:12.804057  4599 net.cpp:425] inception_4a/3x3_reduce <- pool3/3x3_s2_pool3/3x3_s2_0_split_1
I0403 04:43:12.804076  4599 net.cpp:399] inception_4a/3x3_reduce -> inception_4a/3x3_reduce
I0403 04:43:12.804545  4599 net.cpp:141] Setting up inception_4a/3x3_reduce
I0403 04:43:12.804571  4599 net.cpp:148] Top shape: 24 96 14 14 (451584)
I0403 04:43:12.804586  4599 net.cpp:156] Memory required for data: 863428992
I0403 04:43:12.804611  4599 layer_factory.hpp:77] Creating layer inception_4a/relu_3x3_reduce
I0403 04:43:12.804646  4599 net.cpp:91] Creating Layer inception_4a/relu_3x3_reduce
I0403 04:43:12.804664  4599 net.cpp:425] inception_4a/relu_3x3_reduce <- inception_4a/3x3_reduce
I0403 04:43:12.804683  4599 net.cpp:386] inception_4a/relu_3x3_reduce -> inception_4a/3x3_reduce (in-place)
I0403 04:43:12.804704  4599 net.cpp:141] Setting up inception_4a/relu_3x3_reduce
I0403 04:43:12.804723  4599 net.cpp:148] Top shape: 24 96 14 14 (451584)
I0403 04:43:12.804738  4599 net.cpp:156] Memory required for data: 865235328
I0403 04:43:12.804752  4599 layer_factory.hpp:77] Creating layer inception_4a/3x3
I0403 04:43:12.804776  4599 net.cpp:91] Creating Layer inception_4a/3x3
I0403 04:43:12.804805  4599 net.cpp:425] inception_4a/3x3 <- inception_4a/3x3_reduce
I0403 04:43:12.804828  4599 net.cpp:399] inception_4a/3x3 -> inception_4a/3x3
I0403 04:43:12.806581  4599 net.cpp:141] Setting up inception_4a/3x3
I0403 04:43:12.806609  4599 net.cpp:148] Top shape: 24 208 14 14 (978432)
I0403 04:43:12.806625  4599 net.cpp:156] Memory required for data: 869149056
I0403 04:43:12.806644  4599 layer_factory.hpp:77] Creating layer inception_4a/relu_3x3
I0403 04:43:12.806663  4599 net.cpp:91] Creating Layer inception_4a/relu_3x3
I0403 04:43:12.806680  4599 net.cpp:425] inception_4a/relu_3x3 <- inception_4a/3x3
I0403 04:43:12.806701  4599 net.cpp:386] inception_4a/relu_3x3 -> inception_4a/3x3 (in-place)
I0403 04:43:12.806723  4599 net.cpp:141] Setting up inception_4a/relu_3x3
I0403 04:43:12.806741  4599 net.cpp:148] Top shape: 24 208 14 14 (978432)
I0403 04:43:12.806756  4599 net.cpp:156] Memory required for data: 873062784
I0403 04:43:12.806771  4599 layer_factory.hpp:77] Creating layer inception_4a/5x5_reduce
I0403 04:43:12.806799  4599 net.cpp:91] Creating Layer inception_4a/5x5_reduce
I0403 04:43:12.806818  4599 net.cpp:425] inception_4a/5x5_reduce <- pool3/3x3_s2_pool3/3x3_s2_0_split_2
I0403 04:43:12.806838  4599 net.cpp:399] inception_4a/5x5_reduce -> inception_4a/5x5_reduce
I0403 04:43:12.807088  4599 net.cpp:141] Setting up inception_4a/5x5_reduce
I0403 04:43:12.807113  4599 net.cpp:148] Top shape: 24 16 14 14 (75264)
I0403 04:43:12.807129  4599 net.cpp:156] Memory required for data: 873363840
I0403 04:43:12.807147  4599 layer_factory.hpp:77] Creating layer inception_4a/relu_5x5_reduce
I0403 04:43:12.807166  4599 net.cpp:91] Creating Layer inception_4a/relu_5x5_reduce
I0403 04:43:12.807183  4599 net.cpp:425] inception_4a/relu_5x5_reduce <- inception_4a/5x5_reduce
I0403 04:43:12.807204  4599 net.cpp:386] inception_4a/relu_5x5_reduce -> inception_4a/5x5_reduce (in-place)
I0403 04:43:12.807224  4599 net.cpp:141] Setting up inception_4a/relu_5x5_reduce
I0403 04:43:12.807242  4599 net.cpp:148] Top shape: 24 16 14 14 (75264)
I0403 04:43:12.807257  4599 net.cpp:156] Memory required for data: 873664896
I0403 04:43:12.807272  4599 layer_factory.hpp:77] Creating layer inception_4a/5x5
I0403 04:43:12.807296  4599 net.cpp:91] Creating Layer inception_4a/5x5
I0403 04:43:12.807315  4599 net.cpp:425] inception_4a/5x5 <- inception_4a/5x5_reduce
I0403 04:43:12.807334  4599 net.cpp:399] inception_4a/5x5 -> inception_4a/5x5
I0403 04:43:12.807652  4599 net.cpp:141] Setting up inception_4a/5x5
I0403 04:43:12.807677  4599 net.cpp:148] Top shape: 24 48 14 14 (225792)
I0403 04:43:12.807693  4599 net.cpp:156] Memory required for data: 874568064
I0403 04:43:12.807711  4599 layer_factory.hpp:77] Creating layer inception_4a/relu_5x5
I0403 04:43:12.807730  4599 net.cpp:91] Creating Layer inception_4a/relu_5x5
I0403 04:43:12.807746  4599 net.cpp:425] inception_4a/relu_5x5 <- inception_4a/5x5
I0403 04:43:12.807766  4599 net.cpp:386] inception_4a/relu_5x5 -> inception_4a/5x5 (in-place)
I0403 04:43:12.807787  4599 net.cpp:141] Setting up inception_4a/relu_5x5
I0403 04:43:12.807811  4599 net.cpp:148] Top shape: 24 48 14 14 (225792)
I0403 04:43:12.807826  4599 net.cpp:156] Memory required for data: 875471232
I0403 04:43:12.807842  4599 layer_factory.hpp:77] Creating layer inception_4a/pool
I0403 04:43:12.807859  4599 net.cpp:91] Creating Layer inception_4a/pool
I0403 04:43:12.807876  4599 net.cpp:425] inception_4a/pool <- pool3/3x3_s2_pool3/3x3_s2_0_split_3
I0403 04:43:12.807912  4599 net.cpp:399] inception_4a/pool -> inception_4a/pool
I0403 04:43:12.807965  4599 net.cpp:141] Setting up inception_4a/pool
I0403 04:43:12.807989  4599 net.cpp:148] Top shape: 24 480 14 14 (2257920)
I0403 04:43:12.808006  4599 net.cpp:156] Memory required for data: 884502912
I0403 04:43:12.808020  4599 layer_factory.hpp:77] Creating layer inception_4a/pool_proj
I0403 04:43:12.808044  4599 net.cpp:91] Creating Layer inception_4a/pool_proj
I0403 04:43:12.808063  4599 net.cpp:425] inception_4a/pool_proj <- inception_4a/pool
I0403 04:43:12.808084  4599 net.cpp:399] inception_4a/pool_proj -> inception_4a/pool_proj
I0403 04:43:12.808465  4599 net.cpp:141] Setting up inception_4a/pool_proj
I0403 04:43:12.808490  4599 net.cpp:148] Top shape: 24 64 14 14 (301056)
I0403 04:43:12.808506  4599 net.cpp:156] Memory required for data: 885707136
I0403 04:43:12.808524  4599 layer_factory.hpp:77] Creating layer inception_4a/relu_pool_proj
I0403 04:43:12.808543  4599 net.cpp:91] Creating Layer inception_4a/relu_pool_proj
I0403 04:43:12.808560  4599 net.cpp:425] inception_4a/relu_pool_proj <- inception_4a/pool_proj
I0403 04:43:12.808578  4599 net.cpp:386] inception_4a/relu_pool_proj -> inception_4a/pool_proj (in-place)
I0403 04:43:12.808598  4599 net.cpp:141] Setting up inception_4a/relu_pool_proj
I0403 04:43:12.808616  4599 net.cpp:148] Top shape: 24 64 14 14 (301056)
I0403 04:43:12.808630  4599 net.cpp:156] Memory required for data: 886911360
I0403 04:43:12.808645  4599 layer_factory.hpp:77] Creating layer inception_4a/output
I0403 04:43:12.808665  4599 net.cpp:91] Creating Layer inception_4a/output
I0403 04:43:12.808683  4599 net.cpp:425] inception_4a/output <- inception_4a/1x1
I0403 04:43:12.808701  4599 net.cpp:425] inception_4a/output <- inception_4a/3x3
I0403 04:43:12.808717  4599 net.cpp:425] inception_4a/output <- inception_4a/5x5
I0403 04:43:12.808732  4599 net.cpp:425] inception_4a/output <- inception_4a/pool_proj
I0403 04:43:12.808751  4599 net.cpp:399] inception_4a/output -> inception_4a/output
I0403 04:43:12.808809  4599 net.cpp:141] Setting up inception_4a/output
I0403 04:43:12.808831  4599 net.cpp:148] Top shape: 24 512 14 14 (2408448)
I0403 04:43:12.808846  4599 net.cpp:156] Memory required for data: 896545152
I0403 04:43:12.808861  4599 layer_factory.hpp:77] Creating layer inception_4a/output_inception_4a/output_0_split
I0403 04:43:12.808878  4599 net.cpp:91] Creating Layer inception_4a/output_inception_4a/output_0_split
I0403 04:43:12.808894  4599 net.cpp:425] inception_4a/output_inception_4a/output_0_split <- inception_4a/output
I0403 04:43:12.808914  4599 net.cpp:399] inception_4a/output_inception_4a/output_0_split -> inception_4a/output_inception_4a/output_0_split_0
I0403 04:43:12.808935  4599 net.cpp:399] inception_4a/output_inception_4a/output_0_split -> inception_4a/output_inception_4a/output_0_split_1
I0403 04:43:12.808956  4599 net.cpp:399] inception_4a/output_inception_4a/output_0_split -> inception_4a/output_inception_4a/output_0_split_2
I0403 04:43:12.808977  4599 net.cpp:399] inception_4a/output_inception_4a/output_0_split -> inception_4a/output_inception_4a/output_0_split_3
I0403 04:43:12.808997  4599 net.cpp:399] inception_4a/output_inception_4a/output_0_split -> inception_4a/output_inception_4a/output_0_split_4
I0403 04:43:12.809072  4599 net.cpp:141] Setting up inception_4a/output_inception_4a/output_0_split
I0403 04:43:12.809097  4599 net.cpp:148] Top shape: 24 512 14 14 (2408448)
I0403 04:43:12.809113  4599 net.cpp:148] Top shape: 24 512 14 14 (2408448)
I0403 04:43:12.809129  4599 net.cpp:148] Top shape: 24 512 14 14 (2408448)
I0403 04:43:12.809144  4599 net.cpp:148] Top shape: 24 512 14 14 (2408448)
I0403 04:43:12.809160  4599 net.cpp:148] Top shape: 24 512 14 14 (2408448)
I0403 04:43:12.809175  4599 net.cpp:156] Memory required for data: 944714112
I0403 04:43:12.809188  4599 layer_factory.hpp:77] Creating layer loss1/ave_pool
I0403 04:43:12.809206  4599 net.cpp:91] Creating Layer loss1/ave_pool
I0403 04:43:12.809236  4599 net.cpp:425] loss1/ave_pool <- inception_4a/output_inception_4a/output_0_split_0
I0403 04:43:12.809254  4599 net.cpp:399] loss1/ave_pool -> loss1/ave_pool
I0403 04:43:12.809293  4599 net.cpp:141] Setting up loss1/ave_pool
I0403 04:43:12.809316  4599 net.cpp:148] Top shape: 24 512 4 4 (196608)
I0403 04:43:12.809331  4599 net.cpp:156] Memory required for data: 945500544
I0403 04:43:12.809346  4599 layer_factory.hpp:77] Creating layer loss1/conv
I0403 04:43:12.809370  4599 net.cpp:91] Creating Layer loss1/conv
I0403 04:43:12.809387  4599 net.cpp:425] loss1/conv <- loss1/ave_pool
I0403 04:43:12.809408  4599 net.cpp:399] loss1/conv -> loss1/conv
I0403 04:43:12.809967  4599 net.cpp:141] Setting up loss1/conv
I0403 04:43:12.809993  4599 net.cpp:148] Top shape: 24 128 4 4 (49152)
I0403 04:43:12.810008  4599 net.cpp:156] Memory required for data: 945697152
I0403 04:43:12.810025  4599 layer_factory.hpp:77] Creating layer loss1/relu_conv
I0403 04:43:12.810044  4599 net.cpp:91] Creating Layer loss1/relu_conv
I0403 04:43:12.810060  4599 net.cpp:425] loss1/relu_conv <- loss1/conv
I0403 04:43:12.810077  4599 net.cpp:386] loss1/relu_conv -> loss1/conv (in-place)
I0403 04:43:12.810096  4599 net.cpp:141] Setting up loss1/relu_conv
I0403 04:43:12.810113  4599 net.cpp:148] Top shape: 24 128 4 4 (49152)
I0403 04:43:12.810127  4599 net.cpp:156] Memory required for data: 945893760
I0403 04:43:12.810142  4599 layer_factory.hpp:77] Creating layer loss1/fc
I0403 04:43:12.810166  4599 net.cpp:91] Creating Layer loss1/fc
I0403 04:43:12.810184  4599 net.cpp:425] loss1/fc <- loss1/conv
I0403 04:43:12.810204  4599 net.cpp:399] loss1/fc -> loss1/fc
I0403 04:43:12.825824  4599 net.cpp:141] Setting up loss1/fc
I0403 04:43:12.825862  4599 net.cpp:148] Top shape: 24 1024 (24576)
I0403 04:43:12.825878  4599 net.cpp:156] Memory required for data: 945992064
I0403 04:43:12.825898  4599 layer_factory.hpp:77] Creating layer loss1/relu_fc
I0403 04:43:12.825918  4599 net.cpp:91] Creating Layer loss1/relu_fc
I0403 04:43:12.825935  4599 net.cpp:425] loss1/relu_fc <- loss1/fc
I0403 04:43:12.825953  4599 net.cpp:386] loss1/relu_fc -> loss1/fc (in-place)
I0403 04:43:12.825973  4599 net.cpp:141] Setting up loss1/relu_fc
I0403 04:43:12.825990  4599 net.cpp:148] Top shape: 24 1024 (24576)
I0403 04:43:12.826005  4599 net.cpp:156] Memory required for data: 946090368
I0403 04:43:12.826020  4599 layer_factory.hpp:77] Creating layer loss1/drop_fc
I0403 04:43:12.826052  4599 net.cpp:91] Creating Layer loss1/drop_fc
I0403 04:43:12.826071  4599 net.cpp:425] loss1/drop_fc <- loss1/fc
I0403 04:43:12.826089  4599 net.cpp:386] loss1/drop_fc -> loss1/fc (in-place)
I0403 04:43:12.826134  4599 net.cpp:141] Setting up loss1/drop_fc
I0403 04:43:12.826158  4599 net.cpp:148] Top shape: 24 1024 (24576)
I0403 04:43:12.826172  4599 net.cpp:156] Memory required for data: 946188672
I0403 04:43:12.826189  4599 layer_factory.hpp:77] Creating layer loss1/classifier_plantvillage
I0403 04:43:12.826210  4599 net.cpp:91] Creating Layer loss1/classifier_plantvillage
I0403 04:43:12.826228  4599 net.cpp:425] loss1/classifier_plantvillage <- loss1/fc
I0403 04:43:12.826249  4599 net.cpp:399] loss1/classifier_plantvillage -> loss1/classifier_plantvillage
I0403 04:43:12.827087  4599 net.cpp:141] Setting up loss1/classifier_plantvillage
I0403 04:43:12.827114  4599 net.cpp:148] Top shape: 24 38 (912)
I0403 04:43:12.827131  4599 net.cpp:156] Memory required for data: 946192320
I0403 04:43:12.827149  4599 layer_factory.hpp:77] Creating layer inception_4b/1x1
I0403 04:43:12.827174  4599 net.cpp:91] Creating Layer inception_4b/1x1
I0403 04:43:12.827193  4599 net.cpp:425] inception_4b/1x1 <- inception_4a/output_inception_4a/output_0_split_1
I0403 04:43:12.827215  4599 net.cpp:399] inception_4b/1x1 -> inception_4b/1x1
I0403 04:43:12.827874  4599 net.cpp:141] Setting up inception_4b/1x1
I0403 04:43:12.827900  4599 net.cpp:148] Top shape: 24 160 14 14 (752640)
I0403 04:43:12.827915  4599 net.cpp:156] Memory required for data: 949202880
I0403 04:43:12.827934  4599 layer_factory.hpp:77] Creating layer inception_4b/relu_1x1
I0403 04:43:12.827971  4599 net.cpp:91] Creating Layer inception_4b/relu_1x1
I0403 04:43:12.827991  4599 net.cpp:425] inception_4b/relu_1x1 <- inception_4b/1x1
I0403 04:43:12.828008  4599 net.cpp:386] inception_4b/relu_1x1 -> inception_4b/1x1 (in-place)
I0403 04:43:12.828029  4599 net.cpp:141] Setting up inception_4b/relu_1x1
I0403 04:43:12.828047  4599 net.cpp:148] Top shape: 24 160 14 14 (752640)
I0403 04:43:12.828061  4599 net.cpp:156] Memory required for data: 952213440
I0403 04:43:12.828075  4599 layer_factory.hpp:77] Creating layer inception_4b/3x3_reduce
I0403 04:43:12.828099  4599 net.cpp:91] Creating Layer inception_4b/3x3_reduce
I0403 04:43:12.828117  4599 net.cpp:425] inception_4b/3x3_reduce <- inception_4a/output_inception_4a/output_0_split_2
I0403 04:43:12.828136  4599 net.cpp:399] inception_4b/3x3_reduce -> inception_4b/3x3_reduce
I0403 04:43:12.828651  4599 net.cpp:141] Setting up inception_4b/3x3_reduce
I0403 04:43:12.828680  4599 net.cpp:148] Top shape: 24 112 14 14 (526848)
I0403 04:43:12.828694  4599 net.cpp:156] Memory required for data: 954320832
I0403 04:43:12.828712  4599 layer_factory.hpp:77] Creating layer inception_4b/relu_3x3_reduce
I0403 04:43:12.828732  4599 net.cpp:91] Creating Layer inception_4b/relu_3x3_reduce
I0403 04:43:12.828747  4599 net.cpp:425] inception_4b/relu_3x3_reduce <- inception_4b/3x3_reduce
I0403 04:43:12.828765  4599 net.cpp:386] inception_4b/relu_3x3_reduce -> inception_4b/3x3_reduce (in-place)
I0403 04:43:12.828785  4599 net.cpp:141] Setting up inception_4b/relu_3x3_reduce
I0403 04:43:12.828807  4599 net.cpp:148] Top shape: 24 112 14 14 (526848)
I0403 04:43:12.828822  4599 net.cpp:156] Memory required for data: 956428224
I0403 04:43:12.828837  4599 layer_factory.hpp:77] Creating layer inception_4b/3x3
I0403 04:43:12.828861  4599 net.cpp:91] Creating Layer inception_4b/3x3
I0403 04:43:12.828879  4599 net.cpp:425] inception_4b/3x3 <- inception_4b/3x3_reduce
I0403 04:43:12.828902  4599 net.cpp:399] inception_4b/3x3 -> inception_4b/3x3
I0403 04:43:12.830864  4599 net.cpp:141] Setting up inception_4b/3x3
I0403 04:43:12.830894  4599 net.cpp:148] Top shape: 24 224 14 14 (1053696)
I0403 04:43:12.830910  4599 net.cpp:156] Memory required for data: 960643008
I0403 04:43:12.830929  4599 layer_factory.hpp:77] Creating layer inception_4b/relu_3x3
I0403 04:43:12.830950  4599 net.cpp:91] Creating Layer inception_4b/relu_3x3
I0403 04:43:12.830966  4599 net.cpp:425] inception_4b/relu_3x3 <- inception_4b/3x3
I0403 04:43:12.830983  4599 net.cpp:386] inception_4b/relu_3x3 -> inception_4b/3x3 (in-place)
I0403 04:43:12.831003  4599 net.cpp:141] Setting up inception_4b/relu_3x3
I0403 04:43:12.831020  4599 net.cpp:148] Top shape: 24 224 14 14 (1053696)
I0403 04:43:12.831034  4599 net.cpp:156] Memory required for data: 964857792
I0403 04:43:12.831049  4599 layer_factory.hpp:77] Creating layer inception_4b/5x5_reduce
I0403 04:43:12.831073  4599 net.cpp:91] Creating Layer inception_4b/5x5_reduce
I0403 04:43:12.831090  4599 net.cpp:425] inception_4b/5x5_reduce <- inception_4a/output_inception_4a/output_0_split_3
I0403 04:43:12.831110  4599 net.cpp:399] inception_4b/5x5_reduce -> inception_4b/5x5_reduce
I0403 04:43:12.831393  4599 net.cpp:141] Setting up inception_4b/5x5_reduce
I0403 04:43:12.831418  4599 net.cpp:148] Top shape: 24 24 14 14 (112896)
I0403 04:43:12.831434  4599 net.cpp:156] Memory required for data: 965309376
I0403 04:43:12.831452  4599 layer_factory.hpp:77] Creating layer inception_4b/relu_5x5_reduce
I0403 04:43:12.831473  4599 net.cpp:91] Creating Layer inception_4b/relu_5x5_reduce
I0403 04:43:12.831490  4599 net.cpp:425] inception_4b/relu_5x5_reduce <- inception_4b/5x5_reduce
I0403 04:43:12.831508  4599 net.cpp:386] inception_4b/relu_5x5_reduce -> inception_4b/5x5_reduce (in-place)
I0403 04:43:12.831528  4599 net.cpp:141] Setting up inception_4b/relu_5x5_reduce
I0403 04:43:12.831547  4599 net.cpp:148] Top shape: 24 24 14 14 (112896)
I0403 04:43:12.831562  4599 net.cpp:156] Memory required for data: 965760960
I0403 04:43:12.831578  4599 layer_factory.hpp:77] Creating layer inception_4b/5x5
I0403 04:43:12.831615  4599 net.cpp:91] Creating Layer inception_4b/5x5
I0403 04:43:12.831634  4599 net.cpp:425] inception_4b/5x5 <- inception_4b/5x5_reduce
I0403 04:43:12.831653  4599 net.cpp:399] inception_4b/5x5 -> inception_4b/5x5
I0403 04:43:12.832075  4599 net.cpp:141] Setting up inception_4b/5x5
I0403 04:43:12.832103  4599 net.cpp:148] Top shape: 24 64 14 14 (301056)
I0403 04:43:12.832119  4599 net.cpp:156] Memory required for data: 966965184
I0403 04:43:12.832139  4599 layer_factory.hpp:77] Creating layer inception_4b/relu_5x5
I0403 04:43:12.832156  4599 net.cpp:91] Creating Layer inception_4b/relu_5x5
I0403 04:43:12.832172  4599 net.cpp:425] inception_4b/relu_5x5 <- inception_4b/5x5
I0403 04:43:12.832190  4599 net.cpp:386] inception_4b/relu_5x5 -> inception_4b/5x5 (in-place)
I0403 04:43:12.832209  4599 net.cpp:141] Setting up inception_4b/relu_5x5
I0403 04:43:12.832226  4599 net.cpp:148] Top shape: 24 64 14 14 (301056)
I0403 04:43:12.832242  4599 net.cpp:156] Memory required for data: 968169408
I0403 04:43:12.832255  4599 layer_factory.hpp:77] Creating layer inception_4b/pool
I0403 04:43:12.832273  4599 net.cpp:91] Creating Layer inception_4b/pool
I0403 04:43:12.832288  4599 net.cpp:425] inception_4b/pool <- inception_4a/output_inception_4a/output_0_split_4
I0403 04:43:12.832309  4599 net.cpp:399] inception_4b/pool -> inception_4b/pool
I0403 04:43:12.832360  4599 net.cpp:141] Setting up inception_4b/pool
I0403 04:43:12.832384  4599 net.cpp:148] Top shape: 24 512 14 14 (2408448)
I0403 04:43:12.832399  4599 net.cpp:156] Memory required for data: 977803200
I0403 04:43:12.832414  4599 layer_factory.hpp:77] Creating layer inception_4b/pool_proj
I0403 04:43:12.832439  4599 net.cpp:91] Creating Layer inception_4b/pool_proj
I0403 04:43:12.832458  4599 net.cpp:425] inception_4b/pool_proj <- inception_4b/pool
I0403 04:43:12.832476  4599 net.cpp:399] inception_4b/pool_proj -> inception_4b/pool_proj
I0403 04:43:12.832875  4599 net.cpp:141] Setting up inception_4b/pool_proj
I0403 04:43:12.832901  4599 net.cpp:148] Top shape: 24 64 14 14 (301056)
I0403 04:43:12.832916  4599 net.cpp:156] Memory required for data: 979007424
I0403 04:43:12.832933  4599 layer_factory.hpp:77] Creating layer inception_4b/relu_pool_proj
I0403 04:43:12.832952  4599 net.cpp:91] Creating Layer inception_4b/relu_pool_proj
I0403 04:43:12.832969  4599 net.cpp:425] inception_4b/relu_pool_proj <- inception_4b/pool_proj
I0403 04:43:12.832988  4599 net.cpp:386] inception_4b/relu_pool_proj -> inception_4b/pool_proj (in-place)
I0403 04:43:12.833006  4599 net.cpp:141] Setting up inception_4b/relu_pool_proj
I0403 04:43:12.833024  4599 net.cpp:148] Top shape: 24 64 14 14 (301056)
I0403 04:43:12.833039  4599 net.cpp:156] Memory required for data: 980211648
I0403 04:43:12.833053  4599 layer_factory.hpp:77] Creating layer inception_4b/output
I0403 04:43:12.833073  4599 net.cpp:91] Creating Layer inception_4b/output
I0403 04:43:12.833089  4599 net.cpp:425] inception_4b/output <- inception_4b/1x1
I0403 04:43:12.833106  4599 net.cpp:425] inception_4b/output <- inception_4b/3x3
I0403 04:43:12.833123  4599 net.cpp:425] inception_4b/output <- inception_4b/5x5
I0403 04:43:12.833139  4599 net.cpp:425] inception_4b/output <- inception_4b/pool_proj
I0403 04:43:12.833156  4599 net.cpp:399] inception_4b/output -> inception_4b/output
I0403 04:43:12.833196  4599 net.cpp:141] Setting up inception_4b/output
I0403 04:43:12.833220  4599 net.cpp:148] Top shape: 24 512 14 14 (2408448)
I0403 04:43:12.833235  4599 net.cpp:156] Memory required for data: 989845440
I0403 04:43:12.833248  4599 layer_factory.hpp:77] Creating layer inception_4b/output_inception_4b/output_0_split
I0403 04:43:12.833266  4599 net.cpp:91] Creating Layer inception_4b/output_inception_4b/output_0_split
I0403 04:43:12.833283  4599 net.cpp:425] inception_4b/output_inception_4b/output_0_split <- inception_4b/output
I0403 04:43:12.833303  4599 net.cpp:399] inception_4b/output_inception_4b/output_0_split -> inception_4b/output_inception_4b/output_0_split_0
I0403 04:43:12.833325  4599 net.cpp:399] inception_4b/output_inception_4b/output_0_split -> inception_4b/output_inception_4b/output_0_split_1
I0403 04:43:12.833359  4599 net.cpp:399] inception_4b/output_inception_4b/output_0_split -> inception_4b/output_inception_4b/output_0_split_2
I0403 04:43:12.833381  4599 net.cpp:399] inception_4b/output_inception_4b/output_0_split -> inception_4b/output_inception_4b/output_0_split_3
I0403 04:43:12.833451  4599 net.cpp:141] Setting up inception_4b/output_inception_4b/output_0_split
I0403 04:43:12.833474  4599 net.cpp:148] Top shape: 24 512 14 14 (2408448)
I0403 04:43:12.833492  4599 net.cpp:148] Top shape: 24 512 14 14 (2408448)
I0403 04:43:12.833508  4599 net.cpp:148] Top shape: 24 512 14 14 (2408448)
I0403 04:43:12.833524  4599 net.cpp:148] Top shape: 24 512 14 14 (2408448)
I0403 04:43:12.833539  4599 net.cpp:156] Memory required for data: 1028380608
I0403 04:43:12.833555  4599 layer_factory.hpp:77] Creating layer inception_4c/1x1
I0403 04:43:12.833580  4599 net.cpp:91] Creating Layer inception_4c/1x1
I0403 04:43:12.833597  4599 net.cpp:425] inception_4c/1x1 <- inception_4b/output_inception_4b/output_0_split_0
I0403 04:43:12.833616  4599 net.cpp:399] inception_4c/1x1 -> inception_4c/1x1
I0403 04:43:12.834177  4599 net.cpp:141] Setting up inception_4c/1x1
I0403 04:43:12.834203  4599 net.cpp:148] Top shape: 24 128 14 14 (602112)
I0403 04:43:12.834218  4599 net.cpp:156] Memory required for data: 1030789056
I0403 04:43:12.834236  4599 layer_factory.hpp:77] Creating layer inception_4c/relu_1x1
I0403 04:43:12.834255  4599 net.cpp:91] Creating Layer inception_4c/relu_1x1
I0403 04:43:12.834271  4599 net.cpp:425] inception_4c/relu_1x1 <- inception_4c/1x1
I0403 04:43:12.834290  4599 net.cpp:386] inception_4c/relu_1x1 -> inception_4c/1x1 (in-place)
I0403 04:43:12.834312  4599 net.cpp:141] Setting up inception_4c/relu_1x1
I0403 04:43:12.834331  4599 net.cpp:148] Top shape: 24 128 14 14 (602112)
I0403 04:43:12.834344  4599 net.cpp:156] Memory required for data: 1033197504
I0403 04:43:12.834359  4599 layer_factory.hpp:77] Creating layer inception_4c/3x3_reduce
I0403 04:43:12.834380  4599 net.cpp:91] Creating Layer inception_4c/3x3_reduce
I0403 04:43:12.834398  4599 net.cpp:425] inception_4c/3x3_reduce <- inception_4b/output_inception_4b/output_0_split_1
I0403 04:43:12.834419  4599 net.cpp:399] inception_4c/3x3_reduce -> inception_4c/3x3_reduce
I0403 04:43:12.835510  4599 net.cpp:141] Setting up inception_4c/3x3_reduce
I0403 04:43:12.835538  4599 net.cpp:148] Top shape: 24 128 14 14 (602112)
I0403 04:43:12.835556  4599 net.cpp:156] Memory required for data: 1035605952
I0403 04:43:12.835574  4599 layer_factory.hpp:77] Creating layer inception_4c/relu_3x3_reduce
I0403 04:43:12.835597  4599 net.cpp:91] Creating Layer inception_4c/relu_3x3_reduce
I0403 04:43:12.835614  4599 net.cpp:425] inception_4c/relu_3x3_reduce <- inception_4c/3x3_reduce
I0403 04:43:12.835633  4599 net.cpp:386] inception_4c/relu_3x3_reduce -> inception_4c/3x3_reduce (in-place)
I0403 04:43:12.835654  4599 net.cpp:141] Setting up inception_4c/relu_3x3_reduce
I0403 04:43:12.835671  4599 net.cpp:148] Top shape: 24 128 14 14 (602112)
I0403 04:43:12.835686  4599 net.cpp:156] Memory required for data: 1038014400
I0403 04:43:12.835702  4599 layer_factory.hpp:77] Creating layer inception_4c/3x3
I0403 04:43:12.835726  4599 net.cpp:91] Creating Layer inception_4c/3x3
I0403 04:43:12.835744  4599 net.cpp:425] inception_4c/3x3 <- inception_4c/3x3_reduce
I0403 04:43:12.835765  4599 net.cpp:399] inception_4c/3x3 -> inception_4c/3x3
I0403 04:43:12.838140  4599 net.cpp:141] Setting up inception_4c/3x3
I0403 04:43:12.838167  4599 net.cpp:148] Top shape: 24 256 14 14 (1204224)
I0403 04:43:12.838183  4599 net.cpp:156] Memory required for data: 1042831296
I0403 04:43:12.838214  4599 layer_factory.hpp:77] Creating layer inception_4c/relu_3x3
I0403 04:43:12.838237  4599 net.cpp:91] Creating Layer inception_4c/relu_3x3
I0403 04:43:12.838254  4599 net.cpp:425] inception_4c/relu_3x3 <- inception_4c/3x3
I0403 04:43:12.838273  4599 net.cpp:386] inception_4c/relu_3x3 -> inception_4c/3x3 (in-place)
I0403 04:43:12.838306  4599 net.cpp:141] Setting up inception_4c/relu_3x3
I0403 04:43:12.838325  4599 net.cpp:148] Top shape: 24 256 14 14 (1204224)
I0403 04:43:12.838340  4599 net.cpp:156] Memory required for data: 1047648192
I0403 04:43:12.838356  4599 layer_factory.hpp:77] Creating layer inception_4c/5x5_reduce
I0403 04:43:12.838376  4599 net.cpp:91] Creating Layer inception_4c/5x5_reduce
I0403 04:43:12.838392  4599 net.cpp:425] inception_4c/5x5_reduce <- inception_4b/output_inception_4b/output_0_split_2
I0403 04:43:12.838414  4599 net.cpp:399] inception_4c/5x5_reduce -> inception_4c/5x5_reduce
I0403 04:43:12.838701  4599 net.cpp:141] Setting up inception_4c/5x5_reduce
I0403 04:43:12.838726  4599 net.cpp:148] Top shape: 24 24 14 14 (112896)
I0403 04:43:12.838742  4599 net.cpp:156] Memory required for data: 1048099776
I0403 04:43:12.838759  4599 layer_factory.hpp:77] Creating layer inception_4c/relu_5x5_reduce
I0403 04:43:12.838778  4599 net.cpp:91] Creating Layer inception_4c/relu_5x5_reduce
I0403 04:43:12.838798  4599 net.cpp:425] inception_4c/relu_5x5_reduce <- inception_4c/5x5_reduce
I0403 04:43:12.838817  4599 net.cpp:386] inception_4c/relu_5x5_reduce -> inception_4c/5x5_reduce (in-place)
I0403 04:43:12.838841  4599 net.cpp:141] Setting up inception_4c/relu_5x5_reduce
I0403 04:43:12.838860  4599 net.cpp:148] Top shape: 24 24 14 14 (112896)
I0403 04:43:12.838873  4599 net.cpp:156] Memory required for data: 1048551360
I0403 04:43:12.838888  4599 layer_factory.hpp:77] Creating layer inception_4c/5x5
I0403 04:43:12.838908  4599 net.cpp:91] Creating Layer inception_4c/5x5
I0403 04:43:12.838925  4599 net.cpp:425] inception_4c/5x5 <- inception_4c/5x5_reduce
I0403 04:43:12.838948  4599 net.cpp:399] inception_4c/5x5 -> inception_4c/5x5
I0403 04:43:12.839371  4599 net.cpp:141] Setting up inception_4c/5x5
I0403 04:43:12.839395  4599 net.cpp:148] Top shape: 24 64 14 14 (301056)
I0403 04:43:12.839411  4599 net.cpp:156] Memory required for data: 1049755584
I0403 04:43:12.839428  4599 layer_factory.hpp:77] Creating layer inception_4c/relu_5x5
I0403 04:43:12.839447  4599 net.cpp:91] Creating Layer inception_4c/relu_5x5
I0403 04:43:12.839463  4599 net.cpp:425] inception_4c/relu_5x5 <- inception_4c/5x5
I0403 04:43:12.839481  4599 net.cpp:386] inception_4c/relu_5x5 -> inception_4c/5x5 (in-place)
I0403 04:43:12.839500  4599 net.cpp:141] Setting up inception_4c/relu_5x5
I0403 04:43:12.839517  4599 net.cpp:148] Top shape: 24 64 14 14 (301056)
I0403 04:43:12.839532  4599 net.cpp:156] Memory required for data: 1050959808
I0403 04:43:12.839548  4599 layer_factory.hpp:77] Creating layer inception_4c/pool
I0403 04:43:12.839570  4599 net.cpp:91] Creating Layer inception_4c/pool
I0403 04:43:12.839586  4599 net.cpp:425] inception_4c/pool <- inception_4b/output_inception_4b/output_0_split_3
I0403 04:43:12.839604  4599 net.cpp:399] inception_4c/pool -> inception_4c/pool
I0403 04:43:12.839658  4599 net.cpp:141] Setting up inception_4c/pool
I0403 04:43:12.839680  4599 net.cpp:148] Top shape: 24 512 14 14 (2408448)
I0403 04:43:12.839695  4599 net.cpp:156] Memory required for data: 1060593600
I0403 04:43:12.839710  4599 layer_factory.hpp:77] Creating layer inception_4c/pool_proj
I0403 04:43:12.839733  4599 net.cpp:91] Creating Layer inception_4c/pool_proj
I0403 04:43:12.839751  4599 net.cpp:425] inception_4c/pool_proj <- inception_4c/pool
I0403 04:43:12.839772  4599 net.cpp:399] inception_4c/pool_proj -> inception_4c/pool_proj
I0403 04:43:12.840165  4599 net.cpp:141] Setting up inception_4c/pool_proj
I0403 04:43:12.840190  4599 net.cpp:148] Top shape: 24 64 14 14 (301056)
I0403 04:43:12.840205  4599 net.cpp:156] Memory required for data: 1061797824
I0403 04:43:12.840224  4599 layer_factory.hpp:77] Creating layer inception_4c/relu_pool_proj
I0403 04:43:12.840241  4599 net.cpp:91] Creating Layer inception_4c/relu_pool_proj
I0403 04:43:12.840258  4599 net.cpp:425] inception_4c/relu_pool_proj <- inception_4c/pool_proj
I0403 04:43:12.840276  4599 net.cpp:386] inception_4c/relu_pool_proj -> inception_4c/pool_proj (in-place)
I0403 04:43:12.840294  4599 net.cpp:141] Setting up inception_4c/relu_pool_proj
I0403 04:43:12.840325  4599 net.cpp:148] Top shape: 24 64 14 14 (301056)
I0403 04:43:12.840340  4599 net.cpp:156] Memory required for data: 1063002048
I0403 04:43:12.840355  4599 layer_factory.hpp:77] Creating layer inception_4c/output
I0403 04:43:12.840373  4599 net.cpp:91] Creating Layer inception_4c/output
I0403 04:43:12.840389  4599 net.cpp:425] inception_4c/output <- inception_4c/1x1
I0403 04:43:12.840405  4599 net.cpp:425] inception_4c/output <- inception_4c/3x3
I0403 04:43:12.840422  4599 net.cpp:425] inception_4c/output <- inception_4c/5x5
I0403 04:43:12.840438  4599 net.cpp:425] inception_4c/output <- inception_4c/pool_proj
I0403 04:43:12.840458  4599 net.cpp:399] inception_4c/output -> inception_4c/output
I0403 04:43:12.840497  4599 net.cpp:141] Setting up inception_4c/output
I0403 04:43:12.840523  4599 net.cpp:148] Top shape: 24 512 14 14 (2408448)
I0403 04:43:12.840538  4599 net.cpp:156] Memory required for data: 1072635840
I0403 04:43:12.840553  4599 layer_factory.hpp:77] Creating layer inception_4c/output_inception_4c/output_0_split
I0403 04:43:12.840572  4599 net.cpp:91] Creating Layer inception_4c/output_inception_4c/output_0_split
I0403 04:43:12.840589  4599 net.cpp:425] inception_4c/output_inception_4c/output_0_split <- inception_4c/output
I0403 04:43:12.840606  4599 net.cpp:399] inception_4c/output_inception_4c/output_0_split -> inception_4c/output_inception_4c/output_0_split_0
I0403 04:43:12.840627  4599 net.cpp:399] inception_4c/output_inception_4c/output_0_split -> inception_4c/output_inception_4c/output_0_split_1
I0403 04:43:12.840651  4599 net.cpp:399] inception_4c/output_inception_4c/output_0_split -> inception_4c/output_inception_4c/output_0_split_2
I0403 04:43:12.840672  4599 net.cpp:399] inception_4c/output_inception_4c/output_0_split -> inception_4c/output_inception_4c/output_0_split_3
I0403 04:43:12.840740  4599 net.cpp:141] Setting up inception_4c/output_inception_4c/output_0_split
I0403 04:43:12.840762  4599 net.cpp:148] Top shape: 24 512 14 14 (2408448)
I0403 04:43:12.840780  4599 net.cpp:148] Top shape: 24 512 14 14 (2408448)
I0403 04:43:12.840800  4599 net.cpp:148] Top shape: 24 512 14 14 (2408448)
I0403 04:43:12.840816  4599 net.cpp:148] Top shape: 24 512 14 14 (2408448)
I0403 04:43:12.840831  4599 net.cpp:156] Memory required for data: 1111171008
I0403 04:43:12.840844  4599 layer_factory.hpp:77] Creating layer inception_4d/1x1
I0403 04:43:12.840868  4599 net.cpp:91] Creating Layer inception_4d/1x1
I0403 04:43:12.840886  4599 net.cpp:425] inception_4d/1x1 <- inception_4c/output_inception_4c/output_0_split_0
I0403 04:43:12.840909  4599 net.cpp:399] inception_4d/1x1 -> inception_4d/1x1
I0403 04:43:12.841428  4599 net.cpp:141] Setting up inception_4d/1x1
I0403 04:43:12.841452  4599 net.cpp:148] Top shape: 24 112 14 14 (526848)
I0403 04:43:12.841469  4599 net.cpp:156] Memory required for data: 1113278400
I0403 04:43:12.841486  4599 layer_factory.hpp:77] Creating layer inception_4d/relu_1x1
I0403 04:43:12.841506  4599 net.cpp:91] Creating Layer inception_4d/relu_1x1
I0403 04:43:12.841522  4599 net.cpp:425] inception_4d/relu_1x1 <- inception_4d/1x1
I0403 04:43:12.841541  4599 net.cpp:386] inception_4d/relu_1x1 -> inception_4d/1x1 (in-place)
I0403 04:43:12.841559  4599 net.cpp:141] Setting up inception_4d/relu_1x1
I0403 04:43:12.841578  4599 net.cpp:148] Top shape: 24 112 14 14 (526848)
I0403 04:43:12.841591  4599 net.cpp:156] Memory required for data: 1115385792
I0403 04:43:12.841606  4599 layer_factory.hpp:77] Creating layer inception_4d/3x3_reduce
I0403 04:43:12.841629  4599 net.cpp:91] Creating Layer inception_4d/3x3_reduce
I0403 04:43:12.841646  4599 net.cpp:425] inception_4d/3x3_reduce <- inception_4c/output_inception_4c/output_0_split_1
I0403 04:43:12.841668  4599 net.cpp:399] inception_4d/3x3_reduce -> inception_4d/3x3_reduce
I0403 04:43:12.842299  4599 net.cpp:141] Setting up inception_4d/3x3_reduce
I0403 04:43:12.842324  4599 net.cpp:148] Top shape: 24 144 14 14 (677376)
I0403 04:43:12.842340  4599 net.cpp:156] Memory required for data: 1118095296
I0403 04:43:12.842371  4599 layer_factory.hpp:77] Creating layer inception_4d/relu_3x3_reduce
I0403 04:43:12.842391  4599 net.cpp:91] Creating Layer inception_4d/relu_3x3_reduce
I0403 04:43:12.842407  4599 net.cpp:425] inception_4d/relu_3x3_reduce <- inception_4d/3x3_reduce
I0403 04:43:12.842424  4599 net.cpp:386] inception_4d/relu_3x3_reduce -> inception_4d/3x3_reduce (in-place)
I0403 04:43:12.842444  4599 net.cpp:141] Setting up inception_4d/relu_3x3_reduce
I0403 04:43:12.842463  4599 net.cpp:148] Top shape: 24 144 14 14 (677376)
I0403 04:43:12.842478  4599 net.cpp:156] Memory required for data: 1120804800
I0403 04:43:12.842492  4599 layer_factory.hpp:77] Creating layer inception_4d/3x3
I0403 04:43:12.842514  4599 net.cpp:91] Creating Layer inception_4d/3x3
I0403 04:43:12.842532  4599 net.cpp:425] inception_4d/3x3 <- inception_4d/3x3_reduce
I0403 04:43:12.842555  4599 net.cpp:399] inception_4d/3x3 -> inception_4d/3x3
I0403 04:43:12.845641  4599 net.cpp:141] Setting up inception_4d/3x3
I0403 04:43:12.845670  4599 net.cpp:148] Top shape: 24 288 14 14 (1354752)
I0403 04:43:12.845685  4599 net.cpp:156] Memory required for data: 1126223808
I0403 04:43:12.845705  4599 layer_factory.hpp:77] Creating layer inception_4d/relu_3x3
I0403 04:43:12.845722  4599 net.cpp:91] Creating Layer inception_4d/relu_3x3
I0403 04:43:12.845739  4599 net.cpp:425] inception_4d/relu_3x3 <- inception_4d/3x3
I0403 04:43:12.845759  4599 net.cpp:386] inception_4d/relu_3x3 -> inception_4d/3x3 (in-place)
I0403 04:43:12.845780  4599 net.cpp:141] Setting up inception_4d/relu_3x3
I0403 04:43:12.845803  4599 net.cpp:148] Top shape: 24 288 14 14 (1354752)
I0403 04:43:12.845818  4599 net.cpp:156] Memory required for data: 1131642816
I0403 04:43:12.845834  4599 layer_factory.hpp:77] Creating layer inception_4d/5x5_reduce
I0403 04:43:12.845856  4599 net.cpp:91] Creating Layer inception_4d/5x5_reduce
I0403 04:43:12.845875  4599 net.cpp:425] inception_4d/5x5_reduce <- inception_4c/output_inception_4c/output_0_split_2
I0403 04:43:12.845895  4599 net.cpp:399] inception_4d/5x5_reduce -> inception_4d/5x5_reduce
I0403 04:43:12.846201  4599 net.cpp:141] Setting up inception_4d/5x5_reduce
I0403 04:43:12.846226  4599 net.cpp:148] Top shape: 24 32 14 14 (150528)
I0403 04:43:12.846242  4599 net.cpp:156] Memory required for data: 1132244928
I0403 04:43:12.846261  4599 layer_factory.hpp:77] Creating layer inception_4d/relu_5x5_reduce
I0403 04:43:12.846279  4599 net.cpp:91] Creating Layer inception_4d/relu_5x5_reduce
I0403 04:43:12.846297  4599 net.cpp:425] inception_4d/relu_5x5_reduce <- inception_4d/5x5_reduce
I0403 04:43:12.846318  4599 net.cpp:386] inception_4d/relu_5x5_reduce -> inception_4d/5x5_reduce (in-place)
I0403 04:43:12.846338  4599 net.cpp:141] Setting up inception_4d/relu_5x5_reduce
I0403 04:43:12.846355  4599 net.cpp:148] Top shape: 24 32 14 14 (150528)
I0403 04:43:12.846370  4599 net.cpp:156] Memory required for data: 1132847040
I0403 04:43:12.846385  4599 layer_factory.hpp:77] Creating layer inception_4d/5x5
I0403 04:43:12.846408  4599 net.cpp:91] Creating Layer inception_4d/5x5
I0403 04:43:12.846426  4599 net.cpp:425] inception_4d/5x5 <- inception_4d/5x5_reduce
I0403 04:43:12.846446  4599 net.cpp:399] inception_4d/5x5 -> inception_4d/5x5
I0403 04:43:12.846940  4599 net.cpp:141] Setting up inception_4d/5x5
I0403 04:43:12.846964  4599 net.cpp:148] Top shape: 24 64 14 14 (301056)
I0403 04:43:12.846979  4599 net.cpp:156] Memory required for data: 1134051264
I0403 04:43:12.846998  4599 layer_factory.hpp:77] Creating layer inception_4d/relu_5x5
I0403 04:43:12.847017  4599 net.cpp:91] Creating Layer inception_4d/relu_5x5
I0403 04:43:12.847034  4599 net.cpp:425] inception_4d/relu_5x5 <- inception_4d/5x5
I0403 04:43:12.847054  4599 net.cpp:386] inception_4d/relu_5x5 -> inception_4d/5x5 (in-place)
I0403 04:43:12.847074  4599 net.cpp:141] Setting up inception_4d/relu_5x5
I0403 04:43:12.847092  4599 net.cpp:148] Top shape: 24 64 14 14 (301056)
I0403 04:43:12.847107  4599 net.cpp:156] Memory required for data: 1135255488
I0403 04:43:12.847121  4599 layer_factory.hpp:77] Creating layer inception_4d/pool
I0403 04:43:12.847154  4599 net.cpp:91] Creating Layer inception_4d/pool
I0403 04:43:12.847172  4599 net.cpp:425] inception_4d/pool <- inception_4c/output_inception_4c/output_0_split_3
I0403 04:43:12.847190  4599 net.cpp:399] inception_4d/pool -> inception_4d/pool
I0403 04:43:12.847246  4599 net.cpp:141] Setting up inception_4d/pool
I0403 04:43:12.847270  4599 net.cpp:148] Top shape: 24 512 14 14 (2408448)
I0403 04:43:12.847285  4599 net.cpp:156] Memory required for data: 1144889280
I0403 04:43:12.847301  4599 layer_factory.hpp:77] Creating layer inception_4d/pool_proj
I0403 04:43:12.847323  4599 net.cpp:91] Creating Layer inception_4d/pool_proj
I0403 04:43:12.847342  4599 net.cpp:425] inception_4d/pool_proj <- inception_4d/pool
I0403 04:43:12.847362  4599 net.cpp:399] inception_4d/pool_proj -> inception_4d/pool_proj
I0403 04:43:12.848284  4599 net.cpp:141] Setting up inception_4d/pool_proj
I0403 04:43:12.848311  4599 net.cpp:148] Top shape: 24 64 14 14 (301056)
I0403 04:43:12.848326  4599 net.cpp:156] Memory required for data: 1146093504
I0403 04:43:12.848345  4599 layer_factory.hpp:77] Creating layer inception_4d/relu_pool_proj
I0403 04:43:12.848364  4599 net.cpp:91] Creating Layer inception_4d/relu_pool_proj
I0403 04:43:12.848381  4599 net.cpp:425] inception_4d/relu_pool_proj <- inception_4d/pool_proj
I0403 04:43:12.848399  4599 net.cpp:386] inception_4d/relu_pool_proj -> inception_4d/pool_proj (in-place)
I0403 04:43:12.848419  4599 net.cpp:141] Setting up inception_4d/relu_pool_proj
I0403 04:43:12.848438  4599 net.cpp:148] Top shape: 24 64 14 14 (301056)
I0403 04:43:12.848453  4599 net.cpp:156] Memory required for data: 1147297728
I0403 04:43:12.848467  4599 layer_factory.hpp:77] Creating layer inception_4d/output
I0403 04:43:12.848487  4599 net.cpp:91] Creating Layer inception_4d/output
I0403 04:43:12.848505  4599 net.cpp:425] inception_4d/output <- inception_4d/1x1
I0403 04:43:12.848520  4599 net.cpp:425] inception_4d/output <- inception_4d/3x3
I0403 04:43:12.848537  4599 net.cpp:425] inception_4d/output <- inception_4d/5x5
I0403 04:43:12.848554  4599 net.cpp:425] inception_4d/output <- inception_4d/pool_proj
I0403 04:43:12.848572  4599 net.cpp:399] inception_4d/output -> inception_4d/output
I0403 04:43:12.848611  4599 net.cpp:141] Setting up inception_4d/output
I0403 04:43:12.848634  4599 net.cpp:148] Top shape: 24 528 14 14 (2483712)
I0403 04:43:12.848649  4599 net.cpp:156] Memory required for data: 1157232576
I0403 04:43:12.848664  4599 layer_factory.hpp:77] Creating layer inception_4d/output_inception_4d/output_0_split
I0403 04:43:12.848683  4599 net.cpp:91] Creating Layer inception_4d/output_inception_4d/output_0_split
I0403 04:43:12.848701  4599 net.cpp:425] inception_4d/output_inception_4d/output_0_split <- inception_4d/output
I0403 04:43:12.848718  4599 net.cpp:399] inception_4d/output_inception_4d/output_0_split -> inception_4d/output_inception_4d/output_0_split_0
I0403 04:43:12.848742  4599 net.cpp:399] inception_4d/output_inception_4d/output_0_split -> inception_4d/output_inception_4d/output_0_split_1
I0403 04:43:12.848764  4599 net.cpp:399] inception_4d/output_inception_4d/output_0_split -> inception_4d/output_inception_4d/output_0_split_2
I0403 04:43:12.848786  4599 net.cpp:399] inception_4d/output_inception_4d/output_0_split -> inception_4d/output_inception_4d/output_0_split_3
I0403 04:43:12.848812  4599 net.cpp:399] inception_4d/output_inception_4d/output_0_split -> inception_4d/output_inception_4d/output_0_split_4
I0403 04:43:12.848891  4599 net.cpp:141] Setting up inception_4d/output_inception_4d/output_0_split
I0403 04:43:12.848917  4599 net.cpp:148] Top shape: 24 528 14 14 (2483712)
I0403 04:43:12.848933  4599 net.cpp:148] Top shape: 24 528 14 14 (2483712)
I0403 04:43:12.848949  4599 net.cpp:148] Top shape: 24 528 14 14 (2483712)
I0403 04:43:12.848964  4599 net.cpp:148] Top shape: 24 528 14 14 (2483712)
I0403 04:43:12.848979  4599 net.cpp:148] Top shape: 24 528 14 14 (2483712)
I0403 04:43:12.848994  4599 net.cpp:156] Memory required for data: 1206906816
I0403 04:43:12.849021  4599 layer_factory.hpp:77] Creating layer loss2/ave_pool
I0403 04:43:12.849041  4599 net.cpp:91] Creating Layer loss2/ave_pool
I0403 04:43:12.849057  4599 net.cpp:425] loss2/ave_pool <- inception_4d/output_inception_4d/output_0_split_0
I0403 04:43:12.849076  4599 net.cpp:399] loss2/ave_pool -> loss2/ave_pool
I0403 04:43:12.849117  4599 net.cpp:141] Setting up loss2/ave_pool
I0403 04:43:12.849140  4599 net.cpp:148] Top shape: 24 528 4 4 (202752)
I0403 04:43:12.849155  4599 net.cpp:156] Memory required for data: 1207717824
I0403 04:43:12.849169  4599 layer_factory.hpp:77] Creating layer loss2/conv
I0403 04:43:12.849194  4599 net.cpp:91] Creating Layer loss2/conv
I0403 04:43:12.849211  4599 net.cpp:425] loss2/conv <- loss2/ave_pool
I0403 04:43:12.849233  4599 net.cpp:399] loss2/conv -> loss2/conv
I0403 04:43:12.850322  4599 net.cpp:141] Setting up loss2/conv
I0403 04:43:12.850349  4599 net.cpp:148] Top shape: 24 128 4 4 (49152)
I0403 04:43:12.850365  4599 net.cpp:156] Memory required for data: 1207914432
I0403 04:43:12.850383  4599 layer_factory.hpp:77] Creating layer loss2/relu_conv
I0403 04:43:12.850406  4599 net.cpp:91] Creating Layer loss2/relu_conv
I0403 04:43:12.850425  4599 net.cpp:425] loss2/relu_conv <- loss2/conv
I0403 04:43:12.850443  4599 net.cpp:386] loss2/relu_conv -> loss2/conv (in-place)
I0403 04:43:12.850463  4599 net.cpp:141] Setting up loss2/relu_conv
I0403 04:43:12.850481  4599 net.cpp:148] Top shape: 24 128 4 4 (49152)
I0403 04:43:12.850495  4599 net.cpp:156] Memory required for data: 1208111040
I0403 04:43:12.850510  4599 layer_factory.hpp:77] Creating layer loss2/fc
I0403 04:43:12.850529  4599 net.cpp:91] Creating Layer loss2/fc
I0403 04:43:12.850546  4599 net.cpp:425] loss2/fc <- loss2/conv
I0403 04:43:12.850567  4599 net.cpp:399] loss2/fc -> loss2/fc
I0403 04:43:12.866080  4599 net.cpp:141] Setting up loss2/fc
I0403 04:43:12.866118  4599 net.cpp:148] Top shape: 24 1024 (24576)
I0403 04:43:12.866133  4599 net.cpp:156] Memory required for data: 1208209344
I0403 04:43:12.866153  4599 layer_factory.hpp:77] Creating layer loss2/relu_fc
I0403 04:43:12.866174  4599 net.cpp:91] Creating Layer loss2/relu_fc
I0403 04:43:12.866191  4599 net.cpp:425] loss2/relu_fc <- loss2/fc
I0403 04:43:12.866210  4599 net.cpp:386] loss2/relu_fc -> loss2/fc (in-place)
I0403 04:43:12.866230  4599 net.cpp:141] Setting up loss2/relu_fc
I0403 04:43:12.866246  4599 net.cpp:148] Top shape: 24 1024 (24576)
I0403 04:43:12.866261  4599 net.cpp:156] Memory required for data: 1208307648
I0403 04:43:12.866276  4599 layer_factory.hpp:77] Creating layer loss2/drop_fc
I0403 04:43:12.866297  4599 net.cpp:91] Creating Layer loss2/drop_fc
I0403 04:43:12.866313  4599 net.cpp:425] loss2/drop_fc <- loss2/fc
I0403 04:43:12.866329  4599 net.cpp:386] loss2/drop_fc -> loss2/fc (in-place)
I0403 04:43:12.866366  4599 net.cpp:141] Setting up loss2/drop_fc
I0403 04:43:12.866390  4599 net.cpp:148] Top shape: 24 1024 (24576)
I0403 04:43:12.866405  4599 net.cpp:156] Memory required for data: 1208405952
I0403 04:43:12.866420  4599 layer_factory.hpp:77] Creating layer loss2/classifier_plantvillage
I0403 04:43:12.866439  4599 net.cpp:91] Creating Layer loss2/classifier_plantvillage
I0403 04:43:12.866456  4599 net.cpp:425] loss2/classifier_plantvillage <- loss2/fc
I0403 04:43:12.866477  4599 net.cpp:399] loss2/classifier_plantvillage -> loss2/classifier_plantvillage
I0403 04:43:12.866794  4599 net.cpp:141] Setting up loss2/classifier_plantvillage
I0403 04:43:12.866821  4599 net.cpp:148] Top shape: 24 38 (912)
I0403 04:43:12.866837  4599 net.cpp:156] Memory required for data: 1208409600
I0403 04:43:12.866854  4599 layer_factory.hpp:77] Creating layer inception_4e/1x1
I0403 04:43:12.866876  4599 net.cpp:91] Creating Layer inception_4e/1x1
I0403 04:43:12.866894  4599 net.cpp:425] inception_4e/1x1 <- inception_4d/output_inception_4d/output_0_split_1
I0403 04:43:12.866914  4599 net.cpp:399] inception_4e/1x1 -> inception_4e/1x1
I0403 04:43:12.867837  4599 net.cpp:141] Setting up inception_4e/1x1
I0403 04:43:12.867862  4599 net.cpp:148] Top shape: 24 256 14 14 (1204224)
I0403 04:43:12.867892  4599 net.cpp:156] Memory required for data: 1213226496
I0403 04:43:12.867913  4599 layer_factory.hpp:77] Creating layer inception_4e/relu_1x1
I0403 04:43:12.867930  4599 net.cpp:91] Creating Layer inception_4e/relu_1x1
I0403 04:43:12.867946  4599 net.cpp:425] inception_4e/relu_1x1 <- inception_4e/1x1
I0403 04:43:12.867964  4599 net.cpp:386] inception_4e/relu_1x1 -> inception_4e/1x1 (in-place)
I0403 04:43:12.867983  4599 net.cpp:141] Setting up inception_4e/relu_1x1
I0403 04:43:12.868000  4599 net.cpp:148] Top shape: 24 256 14 14 (1204224)
I0403 04:43:12.868015  4599 net.cpp:156] Memory required for data: 1218043392
I0403 04:43:12.868028  4599 layer_factory.hpp:77] Creating layer inception_4e/3x3_reduce
I0403 04:43:12.868051  4599 net.cpp:91] Creating Layer inception_4e/3x3_reduce
I0403 04:43:12.868067  4599 net.cpp:425] inception_4e/3x3_reduce <- inception_4d/output_inception_4d/output_0_split_2
I0403 04:43:12.868088  4599 net.cpp:399] inception_4e/3x3_reduce -> inception_4e/3x3_reduce
I0403 04:43:12.869253  4599 net.cpp:141] Setting up inception_4e/3x3_reduce
I0403 04:43:12.869280  4599 net.cpp:148] Top shape: 24 160 14 14 (752640)
I0403 04:43:12.869297  4599 net.cpp:156] Memory required for data: 1221053952
I0403 04:43:12.869314  4599 layer_factory.hpp:77] Creating layer inception_4e/relu_3x3_reduce
I0403 04:43:12.869335  4599 net.cpp:91] Creating Layer inception_4e/relu_3x3_reduce
I0403 04:43:12.869352  4599 net.cpp:425] inception_4e/relu_3x3_reduce <- inception_4e/3x3_reduce
I0403 04:43:12.869370  4599 net.cpp:386] inception_4e/relu_3x3_reduce -> inception_4e/3x3_reduce (in-place)
I0403 04:43:12.869390  4599 net.cpp:141] Setting up inception_4e/relu_3x3_reduce
I0403 04:43:12.869407  4599 net.cpp:148] Top shape: 24 160 14 14 (752640)
I0403 04:43:12.869421  4599 net.cpp:156] Memory required for data: 1224064512
I0403 04:43:12.869436  4599 layer_factory.hpp:77] Creating layer inception_4e/3x3
I0403 04:43:12.869458  4599 net.cpp:91] Creating Layer inception_4e/3x3
I0403 04:43:12.869475  4599 net.cpp:425] inception_4e/3x3 <- inception_4e/3x3_reduce
I0403 04:43:12.869495  4599 net.cpp:399] inception_4e/3x3 -> inception_4e/3x3
I0403 04:43:12.873126  4599 net.cpp:141] Setting up inception_4e/3x3
I0403 04:43:12.873152  4599 net.cpp:148] Top shape: 24 320 14 14 (1505280)
I0403 04:43:12.873167  4599 net.cpp:156] Memory required for data: 1230085632
I0403 04:43:12.873184  4599 layer_factory.hpp:77] Creating layer inception_4e/relu_3x3
I0403 04:43:12.873203  4599 net.cpp:91] Creating Layer inception_4e/relu_3x3
I0403 04:43:12.873219  4599 net.cpp:425] inception_4e/relu_3x3 <- inception_4e/3x3
I0403 04:43:12.873239  4599 net.cpp:386] inception_4e/relu_3x3 -> inception_4e/3x3 (in-place)
I0403 04:43:12.873260  4599 net.cpp:141] Setting up inception_4e/relu_3x3
I0403 04:43:12.873277  4599 net.cpp:148] Top shape: 24 320 14 14 (1505280)
I0403 04:43:12.873291  4599 net.cpp:156] Memory required for data: 1236106752
I0403 04:43:12.873306  4599 layer_factory.hpp:77] Creating layer inception_4e/5x5_reduce
I0403 04:43:12.873325  4599 net.cpp:91] Creating Layer inception_4e/5x5_reduce
I0403 04:43:12.873342  4599 net.cpp:425] inception_4e/5x5_reduce <- inception_4d/output_inception_4d/output_0_split_3
I0403 04:43:12.873363  4599 net.cpp:399] inception_4e/5x5_reduce -> inception_4e/5x5_reduce
I0403 04:43:12.873667  4599 net.cpp:141] Setting up inception_4e/5x5_reduce
I0403 04:43:12.873690  4599 net.cpp:148] Top shape: 24 32 14 14 (150528)
I0403 04:43:12.873705  4599 net.cpp:156] Memory required for data: 1236708864
I0403 04:43:12.873723  4599 layer_factory.hpp:77] Creating layer inception_4e/relu_5x5_reduce
I0403 04:43:12.873740  4599 net.cpp:91] Creating Layer inception_4e/relu_5x5_reduce
I0403 04:43:12.873756  4599 net.cpp:425] inception_4e/relu_5x5_reduce <- inception_4e/5x5_reduce
I0403 04:43:12.873774  4599 net.cpp:386] inception_4e/relu_5x5_reduce -> inception_4e/5x5_reduce (in-place)
I0403 04:43:12.873796  4599 net.cpp:141] Setting up inception_4e/relu_5x5_reduce
I0403 04:43:12.873816  4599 net.cpp:148] Top shape: 24 32 14 14 (150528)
I0403 04:43:12.873843  4599 net.cpp:156] Memory required for data: 1237310976
I0403 04:43:12.873859  4599 layer_factory.hpp:77] Creating layer inception_4e/5x5
I0403 04:43:12.873883  4599 net.cpp:91] Creating Layer inception_4e/5x5
I0403 04:43:12.873900  4599 net.cpp:425] inception_4e/5x5 <- inception_4e/5x5_reduce
I0403 04:43:12.873922  4599 net.cpp:399] inception_4e/5x5 -> inception_4e/5x5
I0403 04:43:12.874670  4599 net.cpp:141] Setting up inception_4e/5x5
I0403 04:43:12.874693  4599 net.cpp:148] Top shape: 24 128 14 14 (602112)
I0403 04:43:12.874708  4599 net.cpp:156] Memory required for data: 1239719424
I0403 04:43:12.874725  4599 layer_factory.hpp:77] Creating layer inception_4e/relu_5x5
I0403 04:43:12.874745  4599 net.cpp:91] Creating Layer inception_4e/relu_5x5
I0403 04:43:12.874763  4599 net.cpp:425] inception_4e/relu_5x5 <- inception_4e/5x5
I0403 04:43:12.874779  4599 net.cpp:386] inception_4e/relu_5x5 -> inception_4e/5x5 (in-place)
I0403 04:43:12.874810  4599 net.cpp:141] Setting up inception_4e/relu_5x5
I0403 04:43:12.874830  4599 net.cpp:148] Top shape: 24 128 14 14 (602112)
I0403 04:43:12.874845  4599 net.cpp:156] Memory required for data: 1242127872
I0403 04:43:12.874860  4599 layer_factory.hpp:77] Creating layer inception_4e/pool
I0403 04:43:12.874894  4599 net.cpp:91] Creating Layer inception_4e/pool
I0403 04:43:12.874913  4599 net.cpp:425] inception_4e/pool <- inception_4d/output_inception_4d/output_0_split_4
I0403 04:43:12.874932  4599 net.cpp:399] inception_4e/pool -> inception_4e/pool
I0403 04:43:12.874984  4599 net.cpp:141] Setting up inception_4e/pool
I0403 04:43:12.875005  4599 net.cpp:148] Top shape: 24 528 14 14 (2483712)
I0403 04:43:12.875020  4599 net.cpp:156] Memory required for data: 1252062720
I0403 04:43:12.875035  4599 layer_factory.hpp:77] Creating layer inception_4e/pool_proj
I0403 04:43:12.875061  4599 net.cpp:91] Creating Layer inception_4e/pool_proj
I0403 04:43:12.875078  4599 net.cpp:425] inception_4e/pool_proj <- inception_4e/pool
I0403 04:43:12.875099  4599 net.cpp:399] inception_4e/pool_proj -> inception_4e/pool_proj
I0403 04:43:12.875659  4599 net.cpp:141] Setting up inception_4e/pool_proj
I0403 04:43:12.875684  4599 net.cpp:148] Top shape: 24 128 14 14 (602112)
I0403 04:43:12.875699  4599 net.cpp:156] Memory required for data: 1254471168
I0403 04:43:12.875716  4599 layer_factory.hpp:77] Creating layer inception_4e/relu_pool_proj
I0403 04:43:12.875733  4599 net.cpp:91] Creating Layer inception_4e/relu_pool_proj
I0403 04:43:12.875751  4599 net.cpp:425] inception_4e/relu_pool_proj <- inception_4e/pool_proj
I0403 04:43:12.875767  4599 net.cpp:386] inception_4e/relu_pool_proj -> inception_4e/pool_proj (in-place)
I0403 04:43:12.875787  4599 net.cpp:141] Setting up inception_4e/relu_pool_proj
I0403 04:43:12.875808  4599 net.cpp:148] Top shape: 24 128 14 14 (602112)
I0403 04:43:12.875823  4599 net.cpp:156] Memory required for data: 1256879616
I0403 04:43:12.875836  4599 layer_factory.hpp:77] Creating layer inception_4e/output
I0403 04:43:12.875854  4599 net.cpp:91] Creating Layer inception_4e/output
I0403 04:43:12.875869  4599 net.cpp:425] inception_4e/output <- inception_4e/1x1
I0403 04:43:12.875885  4599 net.cpp:425] inception_4e/output <- inception_4e/3x3
I0403 04:43:12.875901  4599 net.cpp:425] inception_4e/output <- inception_4e/5x5
I0403 04:43:12.875917  4599 net.cpp:425] inception_4e/output <- inception_4e/pool_proj
I0403 04:43:12.875937  4599 net.cpp:399] inception_4e/output -> inception_4e/output
I0403 04:43:12.875977  4599 net.cpp:141] Setting up inception_4e/output
I0403 04:43:12.876001  4599 net.cpp:148] Top shape: 24 832 14 14 (3913728)
I0403 04:43:12.876016  4599 net.cpp:156] Memory required for data: 1272534528
I0403 04:43:12.876031  4599 layer_factory.hpp:77] Creating layer pool4/3x3_s2
I0403 04:43:12.876049  4599 net.cpp:91] Creating Layer pool4/3x3_s2
I0403 04:43:12.876065  4599 net.cpp:425] pool4/3x3_s2 <- inception_4e/output
I0403 04:43:12.876083  4599 net.cpp:399] pool4/3x3_s2 -> pool4/3x3_s2
I0403 04:43:12.876134  4599 net.cpp:141] Setting up pool4/3x3_s2
I0403 04:43:12.876168  4599 net.cpp:148] Top shape: 24 832 7 7 (978432)
I0403 04:43:12.876183  4599 net.cpp:156] Memory required for data: 1276448256
I0403 04:43:12.876197  4599 layer_factory.hpp:77] Creating layer pool4/3x3_s2_pool4/3x3_s2_0_split
I0403 04:43:12.876215  4599 net.cpp:91] Creating Layer pool4/3x3_s2_pool4/3x3_s2_0_split
I0403 04:43:12.876231  4599 net.cpp:425] pool4/3x3_s2_pool4/3x3_s2_0_split <- pool4/3x3_s2
I0403 04:43:12.876251  4599 net.cpp:399] pool4/3x3_s2_pool4/3x3_s2_0_split -> pool4/3x3_s2_pool4/3x3_s2_0_split_0
I0403 04:43:12.876272  4599 net.cpp:399] pool4/3x3_s2_pool4/3x3_s2_0_split -> pool4/3x3_s2_pool4/3x3_s2_0_split_1
I0403 04:43:12.876292  4599 net.cpp:399] pool4/3x3_s2_pool4/3x3_s2_0_split -> pool4/3x3_s2_pool4/3x3_s2_0_split_2
I0403 04:43:12.876312  4599 net.cpp:399] pool4/3x3_s2_pool4/3x3_s2_0_split -> pool4/3x3_s2_pool4/3x3_s2_0_split_3
I0403 04:43:12.876380  4599 net.cpp:141] Setting up pool4/3x3_s2_pool4/3x3_s2_0_split
I0403 04:43:12.876404  4599 net.cpp:148] Top shape: 24 832 7 7 (978432)
I0403 04:43:12.876420  4599 net.cpp:148] Top shape: 24 832 7 7 (978432)
I0403 04:43:12.876435  4599 net.cpp:148] Top shape: 24 832 7 7 (978432)
I0403 04:43:12.876449  4599 net.cpp:148] Top shape: 24 832 7 7 (978432)
I0403 04:43:12.876463  4599 net.cpp:156] Memory required for data: 1292103168
I0403 04:43:12.876477  4599 layer_factory.hpp:77] Creating layer inception_5a/1x1
I0403 04:43:12.876500  4599 net.cpp:91] Creating Layer inception_5a/1x1
I0403 04:43:12.876518  4599 net.cpp:425] inception_5a/1x1 <- pool4/3x3_s2_pool4/3x3_s2_0_split_0
I0403 04:43:12.876538  4599 net.cpp:399] inception_5a/1x1 -> inception_5a/1x1
I0403 04:43:12.878381  4599 net.cpp:141] Setting up inception_5a/1x1
I0403 04:43:12.878407  4599 net.cpp:148] Top shape: 24 256 7 7 (301056)
I0403 04:43:12.878423  4599 net.cpp:156] Memory required for data: 1293307392
I0403 04:43:12.878443  4599 layer_factory.hpp:77] Creating layer inception_5a/relu_1x1
I0403 04:43:12.878460  4599 net.cpp:91] Creating Layer inception_5a/relu_1x1
I0403 04:43:12.878476  4599 net.cpp:425] inception_5a/relu_1x1 <- inception_5a/1x1
I0403 04:43:12.878494  4599 net.cpp:386] inception_5a/relu_1x1 -> inception_5a/1x1 (in-place)
I0403 04:43:12.878515  4599 net.cpp:141] Setting up inception_5a/relu_1x1
I0403 04:43:12.878533  4599 net.cpp:148] Top shape: 24 256 7 7 (301056)
I0403 04:43:12.878550  4599 net.cpp:156] Memory required for data: 1294511616
I0403 04:43:12.878563  4599 layer_factory.hpp:77] Creating layer inception_5a/3x3_reduce
I0403 04:43:12.878584  4599 net.cpp:91] Creating Layer inception_5a/3x3_reduce
I0403 04:43:12.878604  4599 net.cpp:425] inception_5a/3x3_reduce <- pool4/3x3_s2_pool4/3x3_s2_0_split_1
I0403 04:43:12.878624  4599 net.cpp:399] inception_5a/3x3_reduce -> inception_5a/3x3_reduce
I0403 04:43:12.880045  4599 net.cpp:141] Setting up inception_5a/3x3_reduce
I0403 04:43:12.880074  4599 net.cpp:148] Top shape: 24 160 7 7 (188160)
I0403 04:43:12.880087  4599 net.cpp:156] Memory required for data: 1295264256
I0403 04:43:12.880105  4599 layer_factory.hpp:77] Creating layer inception_5a/relu_3x3_reduce
I0403 04:43:12.880125  4599 net.cpp:91] Creating Layer inception_5a/relu_3x3_reduce
I0403 04:43:12.880141  4599 net.cpp:425] inception_5a/relu_3x3_reduce <- inception_5a/3x3_reduce
I0403 04:43:12.880157  4599 net.cpp:386] inception_5a/relu_3x3_reduce -> inception_5a/3x3_reduce (in-place)
I0403 04:43:12.880177  4599 net.cpp:141] Setting up inception_5a/relu_3x3_reduce
I0403 04:43:12.880194  4599 net.cpp:148] Top shape: 24 160 7 7 (188160)
I0403 04:43:12.880208  4599 net.cpp:156] Memory required for data: 1296016896
I0403 04:43:12.880223  4599 layer_factory.hpp:77] Creating layer inception_5a/3x3
I0403 04:43:12.880245  4599 net.cpp:91] Creating Layer inception_5a/3x3
I0403 04:43:12.880264  4599 net.cpp:425] inception_5a/3x3 <- inception_5a/3x3_reduce
I0403 04:43:12.880285  4599 net.cpp:399] inception_5a/3x3 -> inception_5a/3x3
I0403 04:43:12.883915  4599 net.cpp:141] Setting up inception_5a/3x3
I0403 04:43:12.883955  4599 net.cpp:148] Top shape: 24 320 7 7 (376320)
I0403 04:43:12.883970  4599 net.cpp:156] Memory required for data: 1297522176
I0403 04:43:12.883991  4599 layer_factory.hpp:77] Creating layer inception_5a/relu_3x3
I0403 04:43:12.884011  4599 net.cpp:91] Creating Layer inception_5a/relu_3x3
I0403 04:43:12.884027  4599 net.cpp:425] inception_5a/relu_3x3 <- inception_5a/3x3
I0403 04:43:12.884044  4599 net.cpp:386] inception_5a/relu_3x3 -> inception_5a/3x3 (in-place)
I0403 04:43:12.884063  4599 net.cpp:141] Setting up inception_5a/relu_3x3
I0403 04:43:12.884081  4599 net.cpp:148] Top shape: 24 320 7 7 (376320)
I0403 04:43:12.884095  4599 net.cpp:156] Memory required for data: 1299027456
I0403 04:43:12.884109  4599 layer_factory.hpp:77] Creating layer inception_5a/5x5_reduce
I0403 04:43:12.884133  4599 net.cpp:91] Creating Layer inception_5a/5x5_reduce
I0403 04:43:12.884151  4599 net.cpp:425] inception_5a/5x5_reduce <- pool4/3x3_s2_pool4/3x3_s2_0_split_2
I0403 04:43:12.884173  4599 net.cpp:399] inception_5a/5x5_reduce -> inception_5a/5x5_reduce
I0403 04:43:12.884542  4599 net.cpp:141] Setting up inception_5a/5x5_reduce
I0403 04:43:12.884567  4599 net.cpp:148] Top shape: 24 32 7 7 (37632)
I0403 04:43:12.884583  4599 net.cpp:156] Memory required for data: 1299177984
I0403 04:43:12.884600  4599 layer_factory.hpp:77] Creating layer inception_5a/relu_5x5_reduce
I0403 04:43:12.884618  4599 net.cpp:91] Creating Layer inception_5a/relu_5x5_reduce
I0403 04:43:12.884634  4599 net.cpp:425] inception_5a/relu_5x5_reduce <- inception_5a/5x5_reduce
I0403 04:43:12.884651  4599 net.cpp:386] inception_5a/relu_5x5_reduce -> inception_5a/5x5_reduce (in-place)
I0403 04:43:12.884671  4599 net.cpp:141] Setting up inception_5a/relu_5x5_reduce
I0403 04:43:12.884688  4599 net.cpp:148] Top shape: 24 32 7 7 (37632)
I0403 04:43:12.884702  4599 net.cpp:156] Memory required for data: 1299328512
I0403 04:43:12.884716  4599 layer_factory.hpp:77] Creating layer inception_5a/5x5
I0403 04:43:12.884739  4599 net.cpp:91] Creating Layer inception_5a/5x5
I0403 04:43:12.884757  4599 net.cpp:425] inception_5a/5x5 <- inception_5a/5x5_reduce
I0403 04:43:12.884779  4599 net.cpp:399] inception_5a/5x5 -> inception_5a/5x5
I0403 04:43:12.885577  4599 net.cpp:141] Setting up inception_5a/5x5
I0403 04:43:12.885603  4599 net.cpp:148] Top shape: 24 128 7 7 (150528)
I0403 04:43:12.885618  4599 net.cpp:156] Memory required for data: 1299930624
I0403 04:43:12.885637  4599 layer_factory.hpp:77] Creating layer inception_5a/relu_5x5
I0403 04:43:12.885655  4599 net.cpp:91] Creating Layer inception_5a/relu_5x5
I0403 04:43:12.885673  4599 net.cpp:425] inception_5a/relu_5x5 <- inception_5a/5x5
I0403 04:43:12.885690  4599 net.cpp:386] inception_5a/relu_5x5 -> inception_5a/5x5 (in-place)
I0403 04:43:12.885710  4599 net.cpp:141] Setting up inception_5a/relu_5x5
I0403 04:43:12.885726  4599 net.cpp:148] Top shape: 24 128 7 7 (150528)
I0403 04:43:12.885740  4599 net.cpp:156] Memory required for data: 1300532736
I0403 04:43:12.885756  4599 layer_factory.hpp:77] Creating layer inception_5a/pool
I0403 04:43:12.885776  4599 net.cpp:91] Creating Layer inception_5a/pool
I0403 04:43:12.885797  4599 net.cpp:425] inception_5a/pool <- pool4/3x3_s2_pool4/3x3_s2_0_split_3
I0403 04:43:12.885818  4599 net.cpp:399] inception_5a/pool -> inception_5a/pool
I0403 04:43:12.885870  4599 net.cpp:141] Setting up inception_5a/pool
I0403 04:43:12.885893  4599 net.cpp:148] Top shape: 24 832 7 7 (978432)
I0403 04:43:12.885910  4599 net.cpp:156] Memory required for data: 1304446464
I0403 04:43:12.885924  4599 layer_factory.hpp:77] Creating layer inception_5a/pool_proj
I0403 04:43:12.885949  4599 net.cpp:91] Creating Layer inception_5a/pool_proj
I0403 04:43:12.885968  4599 net.cpp:425] inception_5a/pool_proj <- inception_5a/pool
I0403 04:43:12.885987  4599 net.cpp:399] inception_5a/pool_proj -> inception_5a/pool_proj
I0403 04:43:12.887310  4599 net.cpp:141] Setting up inception_5a/pool_proj
I0403 04:43:12.887339  4599 net.cpp:148] Top shape: 24 128 7 7 (150528)
I0403 04:43:12.887356  4599 net.cpp:156] Memory required for data: 1305048576
I0403 04:43:12.887389  4599 layer_factory.hpp:77] Creating layer inception_5a/relu_pool_proj
I0403 04:43:12.887409  4599 net.cpp:91] Creating Layer inception_5a/relu_pool_proj
I0403 04:43:12.887426  4599 net.cpp:425] inception_5a/relu_pool_proj <- inception_5a/pool_proj
I0403 04:43:12.887444  4599 net.cpp:386] inception_5a/relu_pool_proj -> inception_5a/pool_proj (in-place)
I0403 04:43:12.887465  4599 net.cpp:141] Setting up inception_5a/relu_pool_proj
I0403 04:43:12.887482  4599 net.cpp:148] Top shape: 24 128 7 7 (150528)
I0403 04:43:12.887497  4599 net.cpp:156] Memory required for data: 1305650688
I0403 04:43:12.887511  4599 layer_factory.hpp:77] Creating layer inception_5a/output
I0403 04:43:12.887532  4599 net.cpp:91] Creating Layer inception_5a/output
I0403 04:43:12.887550  4599 net.cpp:425] inception_5a/output <- inception_5a/1x1
I0403 04:43:12.887567  4599 net.cpp:425] inception_5a/output <- inception_5a/3x3
I0403 04:43:12.887584  4599 net.cpp:425] inception_5a/output <- inception_5a/5x5
I0403 04:43:12.887600  4599 net.cpp:425] inception_5a/output <- inception_5a/pool_proj
I0403 04:43:12.887619  4599 net.cpp:399] inception_5a/output -> inception_5a/output
I0403 04:43:12.887660  4599 net.cpp:141] Setting up inception_5a/output
I0403 04:43:12.887682  4599 net.cpp:148] Top shape: 24 832 7 7 (978432)
I0403 04:43:12.887697  4599 net.cpp:156] Memory required for data: 1309564416
I0403 04:43:12.887712  4599 layer_factory.hpp:77] Creating layer inception_5a/output_inception_5a/output_0_split
I0403 04:43:12.887730  4599 net.cpp:91] Creating Layer inception_5a/output_inception_5a/output_0_split
I0403 04:43:12.887748  4599 net.cpp:425] inception_5a/output_inception_5a/output_0_split <- inception_5a/output
I0403 04:43:12.887768  4599 net.cpp:399] inception_5a/output_inception_5a/output_0_split -> inception_5a/output_inception_5a/output_0_split_0
I0403 04:43:12.887794  4599 net.cpp:399] inception_5a/output_inception_5a/output_0_split -> inception_5a/output_inception_5a/output_0_split_1
I0403 04:43:12.887817  4599 net.cpp:399] inception_5a/output_inception_5a/output_0_split -> inception_5a/output_inception_5a/output_0_split_2
I0403 04:43:12.887840  4599 net.cpp:399] inception_5a/output_inception_5a/output_0_split -> inception_5a/output_inception_5a/output_0_split_3
I0403 04:43:12.887910  4599 net.cpp:141] Setting up inception_5a/output_inception_5a/output_0_split
I0403 04:43:12.887936  4599 net.cpp:148] Top shape: 24 832 7 7 (978432)
I0403 04:43:12.887954  4599 net.cpp:148] Top shape: 24 832 7 7 (978432)
I0403 04:43:12.887970  4599 net.cpp:148] Top shape: 24 832 7 7 (978432)
I0403 04:43:12.887986  4599 net.cpp:148] Top shape: 24 832 7 7 (978432)
I0403 04:43:12.888000  4599 net.cpp:156] Memory required for data: 1325219328
I0403 04:43:12.888015  4599 layer_factory.hpp:77] Creating layer inception_5b/1x1
I0403 04:43:12.888039  4599 net.cpp:91] Creating Layer inception_5b/1x1
I0403 04:43:12.888057  4599 net.cpp:425] inception_5b/1x1 <- inception_5a/output_inception_5a/output_0_split_0
I0403 04:43:12.888077  4599 net.cpp:399] inception_5b/1x1 -> inception_5b/1x1
I0403 04:43:12.890637  4599 net.cpp:141] Setting up inception_5b/1x1
I0403 04:43:12.890666  4599 net.cpp:148] Top shape: 24 384 7 7 (451584)
I0403 04:43:12.890681  4599 net.cpp:156] Memory required for data: 1327025664
I0403 04:43:12.890700  4599 layer_factory.hpp:77] Creating layer inception_5b/relu_1x1
I0403 04:43:12.890719  4599 net.cpp:91] Creating Layer inception_5b/relu_1x1
I0403 04:43:12.890736  4599 net.cpp:425] inception_5b/relu_1x1 <- inception_5b/1x1
I0403 04:43:12.890753  4599 net.cpp:386] inception_5b/relu_1x1 -> inception_5b/1x1 (in-place)
I0403 04:43:12.890774  4599 net.cpp:141] Setting up inception_5b/relu_1x1
I0403 04:43:12.890794  4599 net.cpp:148] Top shape: 24 384 7 7 (451584)
I0403 04:43:12.890810  4599 net.cpp:156] Memory required for data: 1328832000
I0403 04:43:12.890825  4599 layer_factory.hpp:77] Creating layer inception_5b/3x3_reduce
I0403 04:43:12.890848  4599 net.cpp:91] Creating Layer inception_5b/3x3_reduce
I0403 04:43:12.890879  4599 net.cpp:425] inception_5b/3x3_reduce <- inception_5a/output_inception_5a/output_0_split_1
I0403 04:43:12.890903  4599 net.cpp:399] inception_5b/3x3_reduce -> inception_5b/3x3_reduce
I0403 04:43:12.892521  4599 net.cpp:141] Setting up inception_5b/3x3_reduce
I0403 04:43:12.892550  4599 net.cpp:148] Top shape: 24 192 7 7 (225792)
I0403 04:43:12.892565  4599 net.cpp:156] Memory required for data: 1329735168
I0403 04:43:12.892585  4599 layer_factory.hpp:77] Creating layer inception_5b/relu_3x3_reduce
I0403 04:43:12.892603  4599 net.cpp:91] Creating Layer inception_5b/relu_3x3_reduce
I0403 04:43:12.892621  4599 net.cpp:425] inception_5b/relu_3x3_reduce <- inception_5b/3x3_reduce
I0403 04:43:12.892638  4599 net.cpp:386] inception_5b/relu_3x3_reduce -> inception_5b/3x3_reduce (in-place)
I0403 04:43:12.892658  4599 net.cpp:141] Setting up inception_5b/relu_3x3_reduce
I0403 04:43:12.892676  4599 net.cpp:148] Top shape: 24 192 7 7 (225792)
I0403 04:43:12.892690  4599 net.cpp:156] Memory required for data: 1330638336
I0403 04:43:12.892705  4599 layer_factory.hpp:77] Creating layer inception_5b/3x3
I0403 04:43:12.892729  4599 net.cpp:91] Creating Layer inception_5b/3x3
I0403 04:43:12.892746  4599 net.cpp:425] inception_5b/3x3 <- inception_5b/3x3_reduce
I0403 04:43:12.892768  4599 net.cpp:399] inception_5b/3x3 -> inception_5b/3x3
I0403 04:43:12.898007  4599 net.cpp:141] Setting up inception_5b/3x3
I0403 04:43:12.898037  4599 net.cpp:148] Top shape: 24 384 7 7 (451584)
I0403 04:43:12.898053  4599 net.cpp:156] Memory required for data: 1332444672
I0403 04:43:12.898072  4599 layer_factory.hpp:77] Creating layer inception_5b/relu_3x3
I0403 04:43:12.898092  4599 net.cpp:91] Creating Layer inception_5b/relu_3x3
I0403 04:43:12.898108  4599 net.cpp:425] inception_5b/relu_3x3 <- inception_5b/3x3
I0403 04:43:12.898128  4599 net.cpp:386] inception_5b/relu_3x3 -> inception_5b/3x3 (in-place)
I0403 04:43:12.898147  4599 net.cpp:141] Setting up inception_5b/relu_3x3
I0403 04:43:12.898166  4599 net.cpp:148] Top shape: 24 384 7 7 (451584)
I0403 04:43:12.898180  4599 net.cpp:156] Memory required for data: 1334251008
I0403 04:43:12.898195  4599 layer_factory.hpp:77] Creating layer inception_5b/5x5_reduce
I0403 04:43:12.898218  4599 net.cpp:91] Creating Layer inception_5b/5x5_reduce
I0403 04:43:12.898236  4599 net.cpp:425] inception_5b/5x5_reduce <- inception_5a/output_inception_5a/output_0_split_2
I0403 04:43:12.898259  4599 net.cpp:399] inception_5b/5x5_reduce -> inception_5b/5x5_reduce
I0403 04:43:12.898715  4599 net.cpp:141] Setting up inception_5b/5x5_reduce
I0403 04:43:12.898741  4599 net.cpp:148] Top shape: 24 48 7 7 (56448)
I0403 04:43:12.898756  4599 net.cpp:156] Memory required for data: 1334476800
I0403 04:43:12.898773  4599 layer_factory.hpp:77] Creating layer inception_5b/relu_5x5_reduce
I0403 04:43:12.898797  4599 net.cpp:91] Creating Layer inception_5b/relu_5x5_reduce
I0403 04:43:12.898816  4599 net.cpp:425] inception_5b/relu_5x5_reduce <- inception_5b/5x5_reduce
I0403 04:43:12.898835  4599 net.cpp:386] inception_5b/relu_5x5_reduce -> inception_5b/5x5_reduce (in-place)
I0403 04:43:12.898855  4599 net.cpp:141] Setting up inception_5b/relu_5x5_reduce
I0403 04:43:12.898872  4599 net.cpp:148] Top shape: 24 48 7 7 (56448)
I0403 04:43:12.898887  4599 net.cpp:156] Memory required for data: 1334702592
I0403 04:43:12.898901  4599 layer_factory.hpp:77] Creating layer inception_5b/5x5
I0403 04:43:12.898926  4599 net.cpp:91] Creating Layer inception_5b/5x5
I0403 04:43:12.898943  4599 net.cpp:425] inception_5b/5x5 <- inception_5b/5x5_reduce
I0403 04:43:12.898962  4599 net.cpp:399] inception_5b/5x5 -> inception_5b/5x5
I0403 04:43:12.900038  4599 net.cpp:141] Setting up inception_5b/5x5
I0403 04:43:12.900066  4599 net.cpp:148] Top shape: 24 128 7 7 (150528)
I0403 04:43:12.900082  4599 net.cpp:156] Memory required for data: 1335304704
I0403 04:43:12.900100  4599 layer_factory.hpp:77] Creating layer inception_5b/relu_5x5
I0403 04:43:12.900120  4599 net.cpp:91] Creating Layer inception_5b/relu_5x5
I0403 04:43:12.900137  4599 net.cpp:425] inception_5b/relu_5x5 <- inception_5b/5x5
I0403 04:43:12.900173  4599 net.cpp:386] inception_5b/relu_5x5 -> inception_5b/5x5 (in-place)
I0403 04:43:12.900195  4599 net.cpp:141] Setting up inception_5b/relu_5x5
I0403 04:43:12.900213  4599 net.cpp:148] Top shape: 24 128 7 7 (150528)
I0403 04:43:12.900228  4599 net.cpp:156] Memory required for data: 1335906816
I0403 04:43:12.900243  4599 layer_factory.hpp:77] Creating layer inception_5b/pool
I0403 04:43:12.900261  4599 net.cpp:91] Creating Layer inception_5b/pool
I0403 04:43:12.900277  4599 net.cpp:425] inception_5b/pool <- inception_5a/output_inception_5a/output_0_split_3
I0403 04:43:12.900296  4599 net.cpp:399] inception_5b/pool -> inception_5b/pool
I0403 04:43:12.900352  4599 net.cpp:141] Setting up inception_5b/pool
I0403 04:43:12.900374  4599 net.cpp:148] Top shape: 24 832 7 7 (978432)
I0403 04:43:12.900390  4599 net.cpp:156] Memory required for data: 1339820544
I0403 04:43:12.900405  4599 layer_factory.hpp:77] Creating layer inception_5b/pool_proj
I0403 04:43:12.900429  4599 net.cpp:91] Creating Layer inception_5b/pool_proj
I0403 04:43:12.900446  4599 net.cpp:425] inception_5b/pool_proj <- inception_5b/pool
I0403 04:43:12.900468  4599 net.cpp:399] inception_5b/pool_proj -> inception_5b/pool_proj
I0403 04:43:12.901787  4599 net.cpp:141] Setting up inception_5b/pool_proj
I0403 04:43:12.901818  4599 net.cpp:148] Top shape: 24 128 7 7 (150528)
I0403 04:43:12.901835  4599 net.cpp:156] Memory required for data: 1340422656
I0403 04:43:12.901854  4599 layer_factory.hpp:77] Creating layer inception_5b/relu_pool_proj
I0403 04:43:12.901872  4599 net.cpp:91] Creating Layer inception_5b/relu_pool_proj
I0403 04:43:12.901893  4599 net.cpp:425] inception_5b/relu_pool_proj <- inception_5b/pool_proj
I0403 04:43:12.901912  4599 net.cpp:386] inception_5b/relu_pool_proj -> inception_5b/pool_proj (in-place)
I0403 04:43:12.901933  4599 net.cpp:141] Setting up inception_5b/relu_pool_proj
I0403 04:43:12.901952  4599 net.cpp:148] Top shape: 24 128 7 7 (150528)
I0403 04:43:12.901967  4599 net.cpp:156] Memory required for data: 1341024768
I0403 04:43:12.901981  4599 layer_factory.hpp:77] Creating layer inception_5b/output
I0403 04:43:12.901999  4599 net.cpp:91] Creating Layer inception_5b/output
I0403 04:43:12.902016  4599 net.cpp:425] inception_5b/output <- inception_5b/1x1
I0403 04:43:12.902034  4599 net.cpp:425] inception_5b/output <- inception_5b/3x3
I0403 04:43:12.902050  4599 net.cpp:425] inception_5b/output <- inception_5b/5x5
I0403 04:43:12.902065  4599 net.cpp:425] inception_5b/output <- inception_5b/pool_proj
I0403 04:43:12.902083  4599 net.cpp:399] inception_5b/output -> inception_5b/output
I0403 04:43:12.902124  4599 net.cpp:141] Setting up inception_5b/output
I0403 04:43:12.902148  4599 net.cpp:148] Top shape: 24 1024 7 7 (1204224)
I0403 04:43:12.902163  4599 net.cpp:156] Memory required for data: 1345841664
I0403 04:43:12.902179  4599 layer_factory.hpp:77] Creating layer pool5/7x7_s1
I0403 04:43:12.902199  4599 net.cpp:91] Creating Layer pool5/7x7_s1
I0403 04:43:12.902217  4599 net.cpp:425] pool5/7x7_s1 <- inception_5b/output
I0403 04:43:12.902247  4599 net.cpp:399] pool5/7x7_s1 -> pool5/7x7_s1
I0403 04:43:12.902287  4599 net.cpp:141] Setting up pool5/7x7_s1
I0403 04:43:12.902309  4599 net.cpp:148] Top shape: 24 1024 1 1 (24576)
I0403 04:43:12.902324  4599 net.cpp:156] Memory required for data: 1345939968
I0403 04:43:12.902339  4599 layer_factory.hpp:77] Creating layer pool5/drop_7x7_s1
I0403 04:43:12.902359  4599 net.cpp:91] Creating Layer pool5/drop_7x7_s1
I0403 04:43:12.902374  4599 net.cpp:425] pool5/drop_7x7_s1 <- pool5/7x7_s1
I0403 04:43:12.902393  4599 net.cpp:386] pool5/drop_7x7_s1 -> pool5/7x7_s1 (in-place)
I0403 04:43:12.902431  4599 net.cpp:141] Setting up pool5/drop_7x7_s1
I0403 04:43:12.902457  4599 net.cpp:148] Top shape: 24 1024 1 1 (24576)
I0403 04:43:12.902473  4599 net.cpp:156] Memory required for data: 1346038272
I0403 04:43:12.902488  4599 layer_factory.hpp:77] Creating layer loss3/classifier_plantvillage
I0403 04:43:12.902508  4599 net.cpp:91] Creating Layer loss3/classifier_plantvillage
I0403 04:43:12.902539  4599 net.cpp:425] loss3/classifier_plantvillage <- pool5/7x7_s1
I0403 04:43:12.902564  4599 net.cpp:399] loss3/classifier_plantvillage -> loss3/classifier_plantvillage
I0403 04:43:12.902899  4599 net.cpp:141] Setting up loss3/classifier_plantvillage
I0403 04:43:12.902925  4599 net.cpp:148] Top shape: 24 38 (912)
I0403 04:43:12.902941  4599 net.cpp:156] Memory required for data: 1346041920
I0403 04:43:12.902958  4599 layer_factory.hpp:77] Creating layer loss1/loss
I0403 04:43:12.902982  4599 net.cpp:91] Creating Layer loss1/loss
I0403 04:43:12.902999  4599 net.cpp:425] loss1/loss <- loss1/classifier_plantvillage
I0403 04:43:12.903017  4599 net.cpp:425] loss1/loss <- label_data_1_split_0
I0403 04:43:12.903033  4599 net.cpp:399] loss1/loss -> loss1/loss
…
I0403 04:43:12.912672  4599 net.cpp:313] The NetState phase (1) differed from the phase (0) specified by a rule in layer data
I0403 04:43:12.916533  4599 net.cpp:49] Initializing net from parameters: 
state {
  phase: TEST
}
layer {
  name: "data"
  type: "Data"
  top: "data"
  top: "label"
  include {
    phase: TEST
  }
  transform_param {
    mirror: false
    crop_size: 224
    mean_file: "/home/mohanty/data/final_dataset/lmdb/grayscale-50-50/mean.binaryproto"
  }
  data_param {
    source: "/home/mohanty/data/final_dataset/lmdb/grayscale-50-50/test_db"
    batch_size: 24
    backend: LMDB
  }
}
layer {
  name: "conv1/7x7_s2"
  type: "Convolution"
  bottom: "data"
  top: "conv1/7x7_s2"
  param {
    lr_mult: 1
    decay_mult: 1
  }
  param {
    lr_mult: 2
    decay_mult: 0
  }
  convolution_param {
    num_output: 64
    pad: 3
    kernel_size: 7
    stride: 2
    weight_filler {
      type: "xavier"
      std: 0.1
    }
    bias_filler {
      type: "constant"
      value: 0.2
    }
  }
}
layer {
  name: "conv1/relu_7x7"
  type: "ReLU"
  bottom: "conv1/7x7_s2"
  top: "conv1/7x7_s2"
}
layer {
  name: "pool1/3x3_s2"
  type: "Pooling"
  bottom: "conv1/7x7_s2"
  top: "pool1/3x3_s2"
  pooling_param {
    pool: MAX
    kernel_size: 3
    stride: 2
  }
}
layer {
  name: "pool1/norm1"
  type: "LRN"
  bottom: "pool1/3x3_s2"
  top: "pool1/norm1"
  lrn_param {
    local_size: 5
    alpha: 0.0001
    beta: 0.75
  }
}
layer {
  name: "conv2/3x3_reduce"
  type: "Convolution"
  bottom: "pool1/norm1"
  top: "conv2/3x3_reduce"
  param {
    lr_mult: 1
    decay_mult: 1
  }
  param {
    lr_mult: 2
    decay_mult: 0
  }
  convolution_param {
    num_output: 64
    kernel_size: 1
    weight_filler {
      type: "xavier"
      std: 0.1
    }
    bias_filler {
      type: "constant"
      value: 0.2
    }
  }
}
layer {
  name: "conv2/relu_3x3_reduce"
  type: "ReLU"
  bottom: "conv2/3x3_reduce"
  top: "conv2/3x3_reduce"
}
layer {
  name: "conv2/3x3"
  type: "Convolution"
  bottom: "conv2/3x3_reduce"
  top: "conv2/3x3"
  param {
    lr_mult: 1
    decay_mult: 1
  }
  param {
    lr_mult: 2
    decay_mult: 0
  }
  convolution_param {
    num_output: 192
    pad: 1
    kernel_size: 3
    weight_filler {
      type: "xavier"
      std: 0.03
    }
    bias_filler {
      type: "constant"
      value: 0.2
    }
  }
}
layer {
  name: "conv2/relu_3x3"
  type: "ReLU"
  bottom: "conv2/3x3"
  top: "conv2/3x3"
}
layer {
  name: "conv2/norm2"
  type: "LRN"
  bottom: "conv2/3x3"
  top: "conv2/norm2"
  lrn_param {
    local_size: 5
    alpha: 0.0001
    beta: 0.75
  }
}
layer {
  name: "pool2/3x3_s2"
  type: "Pooling"
  bottom: "conv2/norm2"
  top: "pool2/3x3_s2"
  pooling_param {
    pool: MAX
    kernel_size: 3
    stride: 2
  }
}
layer {
  name: "inception_3a/1x1"
  type: "Convolution"
  bottom: "pool2/3x3_s2"
  top: "inception_3a/1x1"
  param {
    lr_mult: 1
    decay_mult: 1
  }
  param {
    lr_mult: 2
    decay_mult: 0
  }
  convolution_param {
    num_output: 64
    kernel_size: 1
    weight_filler {
      type: "xavier"
      std: 0.03
    }
    bias_filler {
      type: "constant"
      value: 0.2
    }
  }
}
layer {
  name: "inception_3a/relu_1x1"
  type: "ReLU"
  bottom: "inception_3a/1x1"
  top: "inception_3a/1x1"
}
layer {
  name: "inception_3a/3x3_reduce"
  type: "Convolution"
  bottom: "pool2/3x3_s2"
  top: "inception_3a/3x3_reduce"
  param {
    lr_mult: 1
    decay_mult: 1
  }
  param {
    lr_mult: 2
    decay_mult: 0
  }
  convolution_param {
    num_output: 96
    kernel_size: 1
    weight_filler {
      type: "xavier"
      std: 0.09
    }
    bias_filler {
      type: "constant"
      value: 0.2
    }
  }
}
layer {
  name: "inception_3a/relu_3x3_reduce"
  type: "ReLU"
  bottom: "inception_3a/3x3_reduce"
  top: "inception_3a/3x3_reduce"
}
layer {
  name: "inception_3a/3x3"
  type: "Convolution"
  bottom: "inception_3a/3x3_reduce"
  top: "inception_3a/3x3"
  param {
    lr_mult: 1
    decay_mult: 1
  }
  param {
    lr_mult: 2
    decay_mult: 0
  }
  convolution_param {
    num_output: 128
    pad: 1
    kernel_size: 3
    weight_filler {
      type: "xavier"
      std: 0.03
    }
    bias_filler {
      type: "constant"
      value: 0.2
    }
  }
}
layer {
  name: "inception_3a/relu_3x3"
  type: "ReLU"
  bottom: "inception_3a/3x3"
  top: "inception_3a/3x3"
}
layer {
  name: "inception_3a/5x5_reduce"
  type: "Convolution"
  bottom: "pool2/3x3_s2"
  top: "inception_3a/5x5_reduce"
  param {
    lr_mult: 1
    decay_mult: 1
  }
  param {
    lr_mult: 2
    decay_mult: 0
  }
  convolution_param {
    num_output: 16
    kernel_size: 1
    weight_filler {
      type: "xavier"
      std: 0.2
    }
    bias_filler {
      type: "constant"
      value: 0.2
    }
  }
}
layer {
  name: "inception_3a/relu_5x5_reduce"
  type: "ReLU"
  bottom: "inception_3a/5x5_reduce"
  top: "inception_3a/5x5_reduce"
}
layer {
  name: "inception_3a/5x5"
  type: "Convolution"
  bottom: "inception_3a/5x5_reduce"
  top: "inception_3a/5x5"
  param {
    lr_mult: 1
    decay_mult: 1
  }
  param {
    lr_mult: 2
    decay_mult: 0
  }
  convolution_param {
    num_output: 32
    pad: 2
    kernel_size: 5
    weight_filler {
      type: "xavier"
      std: 0.03
    }
    bias_filler {
      type: "constant"
      value: 0.2
    }
  }
}
layer {
  name: "inception_3a/relu_5x5"
  type: "ReLU"
  bottom: "inception_3a/5x5"
  top: "inception_3a/5x5"
}
layer {
  name: "inception_3a/pool"
  type: "Pooling"
  bottom: "pool2/3x3_s2"
  top: "inception_3a/pool"
  pooling_param {
    pool: MAX
    kernel_size: 3
    stride: 1
    pad: 1
  }
}
layer {
  name: "inception_3a/pool_proj"
  type: "Convolution"
  bottom: "inception_3a/pool"
  top: "inception_3a/pool_proj"
  param {
    lr_mult: 1
    decay_mult: 1
  }
  param {
    lr_mult: 2
    decay_mult: 0
  }
  convolution_param {
    num_output: 32
    kernel_size: 1
    weight_filler {
      type: "xavier"
      std: 0.1
    }
    bias_filler {
      type: "constant"
      value: 0.2
    }
  }
}
layer {
  name: "inception_3a/relu_pool_proj"
  type: "ReLU"
  bottom: "inception_3a/pool_proj"
  top: "inception_3a/pool_proj"
}
layer {
  name: "inception_3a/output"
  type: "Concat"
  bottom: "inception_3a/1x1"
  bottom: "inception_3a/3x3"
  bottom: "inception_3a/5x5"
  bottom: "inception_3a/pool_proj"
  top: "inception_3a/output"
}
layer {
  name: "inception_3b/1x1"
  type: "Convolution"
  bottom: "inception_3a/output"
  top: "inception_3b/1x1"
  param {
    lr_mult: 1
    decay_mult: 1
  }
  param {
    lr_mult: 2
    decay_mult: 0
  }
  convolution_param {
    num_output: 128
    kernel_size: 1
    weight_filler {
      type: "xavier"
      std: 0.03
    }
    bias_filler {
      type: "constant"
      value: 0.2
    }
  }
}
layer {
  name: "inception_3b/relu_1x1"
  type: "ReLU"
  bottom: "inception_3b/1x1"
  top: "inception_3b/1x1"
}
layer {
  name: "inception_3b/3x3_reduce"
  type: "Convolution"
  bottom: "inception_3a/output"
  top: "inception_3b/3x3_reduce"
  param {
    lr_mult: 1
    decay_mult: 1
  }
  param {
    lr_mult: 2
    decay_mult: 0
  }
  convolution_param {
    num_output: 128
    kernel_size: 1
    weight_filler {
      type: "xavier"
      std: 0.09
    }
    bias_filler {
      type: "constant"
      value: 0.2
    }
  }
}
layer {
  name: "inception_3b/relu_3x3_reduce"
  type: "ReLU"
  bottom: "inception_3b/3x3_reduce"
  top: "inception_3b/3x3_reduce"
}
layer {
  name: "inception_3b/3x3"
  type: "Convolution"
  bottom: "inception_3b/3x3_reduce"
  top: "inception_3b/3x3"
  param {
    lr_mult: 1
    decay_mult: 1
  }
  param {
    lr_mult: 2
    decay_mult: 0
  }
  convolution_param {
    num_output: 192
    pad: 1
    kernel_size: 3
    weight_filler {
      type: "xavier"
      std: 0.03
    }
    bias_filler {
      type: "constant"
      value: 0.2
    }
  }
}
layer {
  name: "inception_3b/relu_3x3"
  type: "ReLU"
  bottom: "inception_3b/3x3"
  top: "inception_3b/3x3"
}
layer {
  name: "inception_3b/5x5_reduce"
  type: "Convolution"
  bottom: "inception_3a/output"
  top: "inception_3b/5x5_reduce"
  param {
    lr_mult: 1
    decay_mult: 1
  }
  param {
    lr_mult: 2
    decay_mult: 0
  }
  convolution_param {
    num_output: 32
    kernel_size: 1
    weight_filler {
      type: "xavier"
      std: 0.2
    }
    bias_filler {
      type: "constant"
      value: 0.2
    }
  }
}
layer {
  name: "inception_3b/relu_5x5_reduce"
  type: "ReLU"
  bottom: "inception_3b/5x5_reduce"
  top: "inception_3b/5x5_reduce"
}
layer {
  name: "inception_3b/5x5"
  type: "Convolution"
  bottom: "inception_3b/5x5_reduce"
  top: "inception_3b/5x5"
  param {
    lr_mult: 1
    decay_mult: 1
  }
  param {
    lr_mult: 2
    decay_mult: 0
  }
  convolution_param {
    num_output: 96
    pad: 2
    kernel_size: 5
    weight_filler {
      type: "xavier"
      std: 0.03
    }
    bias_filler {
      type: "constant"
      value: 0.2
    }
  }
}
layer {
  name: "inception_3b/relu_5x5"
  type: "ReLU"
  bottom: "inception_3b/5x5"
  top: "inception_3b/5x5"
}
layer {
  name: "inception_3b/pool"
  type: "Pooling"
  bottom: "inception_3a/output"
  top: "inception_3b/pool"
  pooling_param {
    pool: MAX
    kernel_size: 3
    stride: 1
    pad: 1
  }
}
layer {
  name: "inception_3b/pool_proj"
  type: "Convolution"
  bottom: "inception_3b/pool"
  top: "inception_3b/pool_proj"
  param {
    lr_mult: 1
    decay_mult: 1
  }
  param {
    lr_mult: 2
    decay_mult: 0
  }
  convolution_param {
    num_output: 64
    kernel_size: 1
    weight_filler {
      type: "xavier"
      std: 0.1
    }
    bias_filler {
      type: "constant"
      value: 0.2
    }
  }
}
layer {
  name: "inception_3b/relu_pool_proj"
  type: "ReLU"
  bottom: "inception_3b/pool_proj"
  top: "inception_3b/pool_proj"
}
layer {
  name: "inception_3b/output"
  type: "Concat"
  bottom: "inception_3b/1x1"
  bottom: "inception_3b/3x3"
  bottom: "inception_3b/5x5"
  bottom: "inception_3b/pool_proj"
  top: "inception_3b/output"
}
layer {
  name: "pool3/3x3_s2"
  type: "Pooling"
  bottom: "inception_3b/output"
  top: "pool3/3x3_s2"
  pooling_param {
    pool: MAX
    kernel_size: 3
    stride: 2
  }
}
layer {
  name: "inception_4a/1x1"
  type: "Convolution"
  bottom: "pool3/3x3_s2"
  top: "inception_4a/1x1"
  param {
    lr_mult: 1
    decay_mult: 1
  }
  param {
    lr_mult: 2
    decay_mult: 0
  }
  convolution_param {
    num_output: 192
    kernel_size: 1
    weight_filler {
      type: "xavier"
      std: 0.03
    }
    bias_filler {
      type: "constant"
      value: 0.2
    }
  }
}
layer {
  name: "inception_4a/relu_1x1"
  type: "ReLU"
  bottom: "inception_4a/1x1"
  top: "inception_4a/1x1"
}
layer {
  name: "inception_4a/3x3_reduce"
  type: "Convolution"
  bottom: "pool3/3x3_s2"
  top: "inception_4a/3x3_reduce"
  param {
    lr_mult: 1
    decay_mult: 1
  }
  param {
    lr_mult: 2
    decay_mult: 0
  }
  convolution_param {
    num_output: 96
    kernel_size: 1
    weight_filler {
      type: "xavier"
      std: 0.09
    }
    bias_filler {
      type: "constant"
      value: 0.2
    }
  }
}
layer {
  name: "inception_4a/relu_3x3_reduce"
  type: "ReLU"
  bottom: "inception_4a/3x3_reduce"
  top: "inception_4a/3x3_reduce"
}
layer {
  name: "inception_4a/3x3"
  type: "Convolution"
  bottom: "inception_4a/3x3_reduce"
  top: "inception_4a/3x3"
  param {
    lr_mult: 1
    decay_mult: 1
  }
  param {
    lr_mult: 2
    decay_mult: 0
  }
  convolution_param {
    num_output: 208
    pad: 1
    kernel_size: 3
    weight_filler {
      type: "xavier"
      std: 0.03
    }
    bias_filler {
      type: "constant"
      value: 0.2
    }
  }
}
layer {
  name: "inception_4a/relu_3x3"
  type: "ReLU"
  bottom: "inception_4a/3x3"
  top: "inception_4a/3x3"
}
layer {
  name: "inception_4a/5x5_reduce"
  type: "Convolution"
  bottom: "pool3/3x3_s2"
  top: "inception_4a/5x5_reduce"
  param {
    lr_mult: 1
    decay_mult: 1
  }
  param {
    lr_mult: 2
    decay_mult: 0
  }
  convolution_param {
    num_output: 16
    kernel_size: 1
    weight_filler {
      type: "xavier"
      std: 0.2
    }
    bias_filler {
      type: "constant"
      value: 0.2
    }
  }
}
layer {
  name: "inception_4a/relu_5x5_reduce"
  type: "ReLU"
  bottom: "inception_4a/5x5_reduce"
  top: "inception_4a/5x5_reduce"
}
layer {
  name: "inception_4a/5x5"
  type: "Convolution"
  bottom: "inception_4a/5x5_reduce"
  top: "inception_4a/5x5"
  param {
    lr_mult: 1
    decay_mult: 1
  }
  param {
    lr_mult: 2
    decay_mult: 0
  }
  convolution_param {
    num_output: 48
    pad: 2
    kernel_size: 5
    weight_filler {
      type: "xavier"
      std: 0.03
    }
    bias_filler {
      type: "constant"
      value: 0.2
    }
  }
}
layer {
  name: "inception_4a/relu_5x5"
  type: "ReLU"
  bottom: "inception_4a/5x5"
  top: "inception_4a/5x5"
}
layer {
  name: "inception_4a/pool"
  type: "Pooling"
  bottom: "pool3/3x3_s2"
  top: "inception_4a/pool"
  pooling_param {
    pool: MAX
    kernel_size: 3
    stride: 1
    pad: 1
  }
}
layer {
  name: "inception_4a/pool_proj"
  type: "Convolution"
  bottom: "inception_4a/pool"
  top: "inception_4a/pool_proj"
  param {
    lr_mult: 1
    decay_mult: 1
  }
  param {
    lr_mult: 2
    decay_mult: 0
  }
  convolution_param {
    num_output: 64
    kernel_size: 1
    weight_filler {
      type: "xavier"
      std: 0.1
    }
    bias_filler {
      type: "constant"
      value: 0.2
    }
  }
}
layer {
  name: "inception_4a/relu_pool_proj"
  type: "ReLU"
  bottom: "inception_4a/pool_proj"
  top: "inception_4a/pool_proj"
}
layer {
  name: "inception_4a/output"
  type: "Concat"
  bottom: "inception_4a/1x1"
  bottom: "inception_4a/3x3"
  bottom: "inception_4a/5x5"
  bottom: "inception_4a/pool_proj"
  top: "inception_4a/output"
}
layer {
  name: "loss1/ave_pool"
  type: "Pooling"
  bottom: "inception_4a/output"
  top: "loss1/ave_pool"
  pooling_param {
    pool: AVE
    kernel_size: 5
    stride: 3
  }
}
layer {
  name: "loss1/conv"
  type: "Convolution"
  bottom: "loss1/ave_pool"
  top: "loss1/conv"
  param {
    lr_mult: 1
    decay_mult: 1
  }
  param {
    lr_mult: 2
    decay_mult: 0
  }
  convolution_param {
    num_output: 128
    kernel_size: 1
    weight_filler {
      type: "xavier"
      std: 0.08
    }
    bias_filler {
      type: "constant"
      value: 0.2
    }
  }
}
layer {
  name: "loss1/relu_conv"
  type: "ReLU"
  bottom: "loss1/conv"
  top: "loss1/conv"
}
layer {
  name: "loss1/fc"
  type: "InnerProduct"
  bottom: "loss1/conv"
  top: "loss1/fc"
  param {
    lr_mult: 1
    decay_mult: 1
  }
  param {
    lr_mult: 2
    decay_mult: 0
  }
  inner_product_param {
    num_output: 1024
    weight_filler {
      type: "xavier"
      std: 0.02
    }
    bias_filler {
      type: "constant"
      value: 0.2
    }
  }
}
layer {
  name: "loss1/relu_fc"
  type: "ReLU"
  bottom: "loss1/fc"
  top: "loss1/fc"
}
layer {
  name: "loss1/drop_fc"
  type: "Dropout"
  bottom: "loss1/fc"
  top: "loss1/fc"
  dropout_param {
    dropout_ratio: 0.7
  }
}
layer {
  name: "loss1/classifier_plantvillage"
  type: "InnerProduct"
  bottom: "loss1/fc"
  top: "loss1/classifier_plantvillage"
  param {
    lr_mult: 1
    decay_mult: 1
  }
  param {
    lr_mult: 2
    decay_mult: 0
  }
  inner_product_param {
    num_output: 38
    weight_filler {
      type: "xavier"
      std: 0.0009765625
    }
    bias_filler {
      type: "constant"
      value: 0
    }
  }
}
layer {
  name: "inception_4b/1x1"
  type: "Convolution"
  bottom: "inception_4a/output"
  top: "inception_4b/1x1"
  param {
    lr_mult: 1
    decay_mult: 1
  }
  param {
    lr_mult: 2
    decay_mult: 0
  }
  convolution_param {
    num_output: 160
    kernel_size: 1
    weight_filler {
      type: "xavier"
      std: 0.03
    }
    bias_filler {
      type: "constant"
      value: 0.2
    }
  }
}
layer {
…
I0403 04:43:13.134014  4599 layer_factory.hpp:77] Creating layer inception_4c/pool
I0403 04:43:13.134034  4599 net.cpp:91] Creating Layer inception_4c/pool
I0403 04:43:13.134052  4599 net.cpp:425] inception_4c/pool <- inception_4b/output_inception_4b/output_0_split_3
I0403 04:43:13.134083  4599 net.cpp:399] inception_4c/pool -> inception_4c/pool
I0403 04:43:13.134141  4599 net.cpp:141] Setting up inception_4c/pool
I0403 04:43:13.134165  4599 net.cpp:148] Top shape: 24 512 14 14 (2408448)
I0403 04:43:13.134181  4599 net.cpp:156] Memory required for data: 1060605120
I0403 04:43:13.134196  4599 layer_factory.hpp:77] Creating layer inception_4c/pool_proj
I0403 04:43:13.134219  4599 net.cpp:91] Creating Layer inception_4c/pool_proj
I0403 04:43:13.134238  4599 net.cpp:425] inception_4c/pool_proj <- inception_4c/pool
I0403 04:43:13.134260  4599 net.cpp:399] inception_4c/pool_proj -> inception_4c/pool_proj
I0403 04:43:13.134677  4599 net.cpp:141] Setting up inception_4c/pool_proj
I0403 04:43:13.134702  4599 net.cpp:148] Top shape: 24 64 14 14 (301056)
I0403 04:43:13.134718  4599 net.cpp:156] Memory required for data: 1061809344
I0403 04:43:13.134737  4599 layer_factory.hpp:77] Creating layer inception_4c/relu_pool_proj
I0403 04:43:13.134759  4599 net.cpp:91] Creating Layer inception_4c/relu_pool_proj
I0403 04:43:13.134778  4599 net.cpp:425] inception_4c/relu_pool_proj <- inception_4c/pool_proj
I0403 04:43:13.134806  4599 net.cpp:386] inception_4c/relu_pool_proj -> inception_4c/pool_proj (in-place)
I0403 04:43:13.134829  4599 net.cpp:141] Setting up inception_4c/relu_pool_proj
I0403 04:43:13.134924  4599 net.cpp:148] Top shape: 24 64 14 14 (301056)
I0403 04:43:13.134943  4599 net.cpp:156] Memory required for data: 1063013568
I0403 04:43:13.134958  4599 layer_factory.hpp:77] Creating layer inception_4c/output
I0403 04:43:13.134976  4599 net.cpp:91] Creating Layer inception_4c/output
I0403 04:43:13.134997  4599 net.cpp:425] inception_4c/output <- inception_4c/1x1
I0403 04:43:13.135015  4599 net.cpp:425] inception_4c/output <- inception_4c/3x3
I0403 04:43:13.135030  4599 net.cpp:425] inception_4c/output <- inception_4c/5x5
I0403 04:43:13.135047  4599 net.cpp:425] inception_4c/output <- inception_4c/pool_proj
I0403 04:43:13.135066  4599 net.cpp:399] inception_4c/output -> inception_4c/output
I0403 04:43:13.135107  4599 net.cpp:141] Setting up inception_4c/output
I0403 04:43:13.135133  4599 net.cpp:148] Top shape: 24 512 14 14 (2408448)
I0403 04:43:13.135149  4599 net.cpp:156] Memory required for data: 1072647360
I0403 04:43:13.135164  4599 layer_factory.hpp:77] Creating layer inception_4c/output_inception_4c/output_0_split
I0403 04:43:13.135181  4599 net.cpp:91] Creating Layer inception_4c/output_inception_4c/output_0_split
I0403 04:43:13.135197  4599 net.cpp:425] inception_4c/output_inception_4c/output_0_split <- inception_4c/output
I0403 04:43:13.135215  4599 net.cpp:399] inception_4c/output_inception_4c/output_0_split -> inception_4c/output_inception_4c/output_0_split_0
I0403 04:43:13.135236  4599 net.cpp:399] inception_4c/output_inception_4c/output_0_split -> inception_4c/output_inception_4c/output_0_split_1
I0403 04:43:13.135260  4599 net.cpp:399] inception_4c/output_inception_4c/output_0_split -> inception_4c/output_inception_4c/output_0_split_2
I0403 04:43:13.135282  4599 net.cpp:399] inception_4c/output_inception_4c/output_0_split -> inception_4c/output_inception_4c/output_0_split_3
I0403 04:43:13.135372  4599 net.cpp:141] Setting up inception_4c/output_inception_4c/output_0_split
I0403 04:43:13.135396  4599 net.cpp:148] Top shape: 24 512 14 14 (2408448)
I0403 04:43:13.135412  4599 net.cpp:148] Top shape: 24 512 14 14 (2408448)
I0403 04:43:13.135428  4599 net.cpp:148] Top shape: 24 512 14 14 (2408448)
I0403 04:43:13.135444  4599 net.cpp:148] Top shape: 24 512 14 14 (2408448)
I0403 04:43:13.135458  4599 net.cpp:156] Memory required for data: 1111182528
I0403 04:43:13.135473  4599 layer_factory.hpp:77] Creating layer inception_4d/1x1
I0403 04:43:13.135496  4599 net.cpp:91] Creating Layer inception_4d/1x1
I0403 04:43:13.135515  4599 net.cpp:425] inception_4d/1x1 <- inception_4c/output_inception_4c/output_0_split_0
I0403 04:43:13.135537  4599 net.cpp:399] inception_4d/1x1 -> inception_4d/1x1
I0403 04:43:13.136097  4599 net.cpp:141] Setting up inception_4d/1x1
I0403 04:43:13.136123  4599 net.cpp:148] Top shape: 24 112 14 14 (526848)
I0403 04:43:13.136138  4599 net.cpp:156] Memory required for data: 1113289920
I0403 04:43:13.136157  4599 layer_factory.hpp:77] Creating layer inception_4d/relu_1x1
I0403 04:43:13.136175  4599 net.cpp:91] Creating Layer inception_4d/relu_1x1
I0403 04:43:13.136193  4599 net.cpp:425] inception_4d/relu_1x1 <- inception_4d/1x1
I0403 04:43:13.136210  4599 net.cpp:386] inception_4d/relu_1x1 -> inception_4d/1x1 (in-place)
I0403 04:43:13.136230  4599 net.cpp:141] Setting up inception_4d/relu_1x1
I0403 04:43:13.136248  4599 net.cpp:148] Top shape: 24 112 14 14 (526848)
I0403 04:43:13.136263  4599 net.cpp:156] Memory required for data: 1115397312
I0403 04:43:13.136277  4599 layer_factory.hpp:77] Creating layer inception_4d/3x3_reduce
I0403 04:43:13.136301  4599 net.cpp:91] Creating Layer inception_4d/3x3_reduce
I0403 04:43:13.136319  4599 net.cpp:425] inception_4d/3x3_reduce <- inception_4c/output_inception_4c/output_0_split_1
I0403 04:43:13.136469  4599 net.cpp:399] inception_4d/3x3_reduce -> inception_4d/3x3_reduce
I0403 04:43:13.137141  4599 net.cpp:141] Setting up inception_4d/3x3_reduce
I0403 04:43:13.137167  4599 net.cpp:148] Top shape: 24 144 14 14 (677376)
I0403 04:43:13.137182  4599 net.cpp:156] Memory required for data: 1118106816
I0403 04:43:13.137200  4599 layer_factory.hpp:77] Creating layer inception_4d/relu_3x3_reduce
I0403 04:43:13.137222  4599 net.cpp:91] Creating Layer inception_4d/relu_3x3_reduce
I0403 04:43:13.137239  4599 net.cpp:425] inception_4d/relu_3x3_reduce <- inception_4d/3x3_reduce
I0403 04:43:13.137258  4599 net.cpp:386] inception_4d/relu_3x3_reduce -> inception_4d/3x3_reduce (in-place)
I0403 04:43:13.137277  4599 net.cpp:141] Setting up inception_4d/relu_3x3_reduce
I0403 04:43:13.137295  4599 net.cpp:148] Top shape: 24 144 14 14 (677376)
I0403 04:43:13.137310  4599 net.cpp:156] Memory required for data: 1120816320
I0403 04:43:13.137323  4599 layer_factory.hpp:77] Creating layer inception_4d/3x3
I0403 04:43:13.137347  4599 net.cpp:91] Creating Layer inception_4d/3x3
I0403 04:43:13.137364  4599 net.cpp:425] inception_4d/3x3 <- inception_4d/3x3_reduce
I0403 04:43:13.137387  4599 net.cpp:399] inception_4d/3x3 -> inception_4d/3x3
I0403 04:43:13.141075  4599 net.cpp:141] Setting up inception_4d/3x3
I0403 04:43:13.141113  4599 net.cpp:148] Top shape: 24 288 14 14 (1354752)
I0403 04:43:13.141130  4599 net.cpp:156] Memory required for data: 1126235328
I0403 04:43:13.141150  4599 layer_factory.hpp:77] Creating layer inception_4d/relu_3x3
I0403 04:43:13.141170  4599 net.cpp:91] Creating Layer inception_4d/relu_3x3
I0403 04:43:13.141187  4599 net.cpp:425] inception_4d/relu_3x3 <- inception_4d/3x3
I0403 04:43:13.141209  4599 net.cpp:386] inception_4d/relu_3x3 -> inception_4d/3x3 (in-place)
I0403 04:43:13.141232  4599 net.cpp:141] Setting up inception_4d/relu_3x3
I0403 04:43:13.141249  4599 net.cpp:148] Top shape: 24 288 14 14 (1354752)
I0403 04:43:13.141264  4599 net.cpp:156] Memory required for data: 1131654336
I0403 04:43:13.141280  4599 layer_factory.hpp:77] Creating layer inception_4d/5x5_reduce
I0403 04:43:13.141321  4599 net.cpp:91] Creating Layer inception_4d/5x5_reduce
I0403 04:43:13.141341  4599 net.cpp:425] inception_4d/5x5_reduce <- inception_4c/output_inception_4c/output_0_split_2
I0403 04:43:13.141361  4599 net.cpp:399] inception_4d/5x5_reduce -> inception_4d/5x5_reduce
I0403 04:43:13.141706  4599 net.cpp:141] Setting up inception_4d/5x5_reduce
I0403 04:43:13.141734  4599 net.cpp:148] Top shape: 24 32 14 14 (150528)
I0403 04:43:13.141751  4599 net.cpp:156] Memory required for data: 1132256448
I0403 04:43:13.141768  4599 layer_factory.hpp:77] Creating layer inception_4d/relu_5x5_reduce
I0403 04:43:13.141788  4599 net.cpp:91] Creating Layer inception_4d/relu_5x5_reduce
I0403 04:43:13.141810  4599 net.cpp:425] inception_4d/relu_5x5_reduce <- inception_4d/5x5_reduce
I0403 04:43:13.141829  4599 net.cpp:386] inception_4d/relu_5x5_reduce -> inception_4d/5x5_reduce (in-place)
I0403 04:43:13.141849  4599 net.cpp:141] Setting up inception_4d/relu_5x5_reduce
I0403 04:43:13.141866  4599 net.cpp:148] Top shape: 24 32 14 14 (150528)
I0403 04:43:13.141881  4599 net.cpp:156] Memory required for data: 1132858560
I0403 04:43:13.141896  4599 layer_factory.hpp:77] Creating layer inception_4d/5x5
I0403 04:43:13.141921  4599 net.cpp:91] Creating Layer inception_4d/5x5
I0403 04:43:13.141938  4599 net.cpp:425] inception_4d/5x5 <- inception_4d/5x5_reduce
I0403 04:43:13.141957  4599 net.cpp:399] inception_4d/5x5 -> inception_4d/5x5
I0403 04:43:13.142490  4599 net.cpp:141] Setting up inception_4d/5x5
I0403 04:43:13.142518  4599 net.cpp:148] Top shape: 24 64 14 14 (301056)
I0403 04:43:13.142532  4599 net.cpp:156] Memory required for data: 1134062784
I0403 04:43:13.142551  4599 layer_factory.hpp:77] Creating layer inception_4d/relu_5x5
I0403 04:43:13.142570  4599 net.cpp:91] Creating Layer inception_4d/relu_5x5
I0403 04:43:13.142586  4599 net.cpp:425] inception_4d/relu_5x5 <- inception_4d/5x5
I0403 04:43:13.142606  4599 net.cpp:386] inception_4d/relu_5x5 -> inception_4d/5x5 (in-place)
I0403 04:43:13.142627  4599 net.cpp:141] Setting up inception_4d/relu_5x5
I0403 04:43:13.142645  4599 net.cpp:148] Top shape: 24 64 14 14 (301056)
I0403 04:43:13.142660  4599 net.cpp:156] Memory required for data: 1135267008
I0403 04:43:13.142675  4599 layer_factory.hpp:77] Creating layer inception_4d/pool
I0403 04:43:13.142693  4599 net.cpp:91] Creating Layer inception_4d/pool
I0403 04:43:13.142786  4599 net.cpp:425] inception_4d/pool <- inception_4c/output_inception_4c/output_0_split_3
I0403 04:43:13.142814  4599 net.cpp:399] inception_4d/pool -> inception_4d/pool
I0403 04:43:13.142873  4599 net.cpp:141] Setting up inception_4d/pool
I0403 04:43:13.142899  4599 net.cpp:148] Top shape: 24 512 14 14 (2408448)
I0403 04:43:13.142915  4599 net.cpp:156] Memory required for data: 1144900800
I0403 04:43:13.142928  4599 layer_factory.hpp:77] Creating layer inception_4d/pool_proj
I0403 04:43:13.142949  4599 net.cpp:91] Creating Layer inception_4d/pool_proj
I0403 04:43:13.142967  4599 net.cpp:425] inception_4d/pool_proj <- inception_4d/pool
I0403 04:43:13.142989  4599 net.cpp:399] inception_4d/pool_proj -> inception_4d/pool_proj
I0403 04:43:13.143409  4599 net.cpp:141] Setting up inception_4d/pool_proj
I0403 04:43:13.143434  4599 net.cpp:148] Top shape: 24 64 14 14 (301056)
I0403 04:43:13.143450  4599 net.cpp:156] Memory required for data: 1146105024
I0403 04:43:13.143467  4599 layer_factory.hpp:77] Creating layer inception_4d/relu_pool_proj
I0403 04:43:13.143486  4599 net.cpp:91] Creating Layer inception_4d/relu_pool_proj
I0403 04:43:13.143502  4599 net.cpp:425] inception_4d/relu_pool_proj <- inception_4d/pool_proj
I0403 04:43:13.143522  4599 net.cpp:386] inception_4d/relu_pool_proj -> inception_4d/pool_proj (in-place)
I0403 04:43:13.143544  4599 net.cpp:141] Setting up inception_4d/relu_pool_proj
I0403 04:43:13.143563  4599 net.cpp:148] Top shape: 24 64 14 14 (301056)
I0403 04:43:13.143578  4599 net.cpp:156] Memory required for data: 1147309248
I0403 04:43:13.143591  4599 layer_factory.hpp:77] Creating layer inception_4d/output
I0403 04:43:13.143625  4599 net.cpp:91] Creating Layer inception_4d/output
I0403 04:43:13.143642  4599 net.cpp:425] inception_4d/output <- inception_4d/1x1
I0403 04:43:13.143659  4599 net.cpp:425] inception_4d/output <- inception_4d/3x3
I0403 04:43:13.143676  4599 net.cpp:425] inception_4d/output <- inception_4d/5x5
I0403 04:43:13.143692  4599 net.cpp:425] inception_4d/output <- inception_4d/pool_proj
I0403 04:43:13.143709  4599 net.cpp:399] inception_4d/output -> inception_4d/output
I0403 04:43:13.143753  4599 net.cpp:141] Setting up inception_4d/output
I0403 04:43:13.143776  4599 net.cpp:148] Top shape: 24 528 14 14 (2483712)
I0403 04:43:13.143795  4599 net.cpp:156] Memory required for data: 1157244096
I0403 04:43:13.143811  4599 layer_factory.hpp:77] Creating layer inception_4d/output_inception_4d/output_0_split
I0403 04:43:13.143831  4599 net.cpp:91] Creating Layer inception_4d/output_inception_4d/output_0_split
I0403 04:43:13.143847  4599 net.cpp:425] inception_4d/output_inception_4d/output_0_split <- inception_4d/output
I0403 04:43:13.143870  4599 net.cpp:399] inception_4d/output_inception_4d/output_0_split -> inception_4d/output_inception_4d/output_0_split_0
I0403 04:43:13.143893  4599 net.cpp:399] inception_4d/output_inception_4d/output_0_split -> inception_4d/output_inception_4d/output_0_split_1
I0403 04:43:13.143914  4599 net.cpp:399] inception_4d/output_inception_4d/output_0_split -> inception_4d/output_inception_4d/output_0_split_2
I0403 04:43:13.143936  4599 net.cpp:399] inception_4d/output_inception_4d/output_0_split -> inception_4d/output_inception_4d/output_0_split_3
I0403 04:43:13.143955  4599 net.cpp:399] inception_4d/output_inception_4d/output_0_split -> inception_4d/output_inception_4d/output_0_split_4
I0403 04:43:13.144043  4599 net.cpp:141] Setting up inception_4d/output_inception_4d/output_0_split
I0403 04:43:13.144067  4599 net.cpp:148] Top shape: 24 528 14 14 (2483712)
I0403 04:43:13.144083  4599 net.cpp:148] Top shape: 24 528 14 14 (2483712)
I0403 04:43:13.144099  4599 net.cpp:148] Top shape: 24 528 14 14 (2483712)
I0403 04:43:13.144115  4599 net.cpp:148] Top shape: 24 528 14 14 (2483712)
I0403 04:43:13.144130  4599 net.cpp:148] Top shape: 24 528 14 14 (2483712)
I0403 04:43:13.144145  4599 net.cpp:156] Memory required for data: 1206918336
I0403 04:43:13.144160  4599 layer_factory.hpp:77] Creating layer loss2/ave_pool
I0403 04:43:13.144177  4599 net.cpp:91] Creating Layer loss2/ave_pool
I0403 04:43:13.144193  4599 net.cpp:425] loss2/ave_pool <- inception_4d/output_inception_4d/output_0_split_0
I0403 04:43:13.144214  4599 net.cpp:399] loss2/ave_pool -> loss2/ave_pool
I0403 04:43:13.144255  4599 net.cpp:141] Setting up loss2/ave_pool
I0403 04:43:13.144280  4599 net.cpp:148] Top shape: 24 528 4 4 (202752)
I0403 04:43:13.144296  4599 net.cpp:156] Memory required for data: 1207729344
I0403 04:43:13.144311  4599 layer_factory.hpp:77] Creating layer loss2/conv
I0403 04:43:13.144333  4599 net.cpp:91] Creating Layer loss2/conv
I0403 04:43:13.144351  4599 net.cpp:425] loss2/conv <- loss2/ave_pool
I0403 04:43:13.144373  4599 net.cpp:399] loss2/conv -> loss2/conv
I0403 04:43:13.145584  4599 net.cpp:141] Setting up loss2/conv
I0403 04:43:13.145614  4599 net.cpp:148] Top shape: 24 128 4 4 (49152)
I0403 04:43:13.145630  4599 net.cpp:156] Memory required for data: 1207925952
I0403 04:43:13.145649  4599 layer_factory.hpp:77] Creating layer loss2/relu_conv
I0403 04:43:13.145668  4599 net.cpp:91] Creating Layer loss2/relu_conv
I0403 04:43:13.145686  4599 net.cpp:425] loss2/relu_conv <- loss2/conv
I0403 04:43:13.145704  4599 net.cpp:386] loss2/relu_conv -> loss2/conv (in-place)
I0403 04:43:13.145725  4599 net.cpp:141] Setting up loss2/relu_conv
I0403 04:43:13.145743  4599 net.cpp:148] Top shape: 24 128 4 4 (49152)
I0403 04:43:13.145758  4599 net.cpp:156] Memory required for data: 1208122560
I0403 04:43:13.145773  4599 layer_factory.hpp:77] Creating layer loss2/fc
I0403 04:43:13.145805  4599 net.cpp:91] Creating Layer loss2/fc
I0403 04:43:13.145824  4599 net.cpp:425] loss2/fc <- loss2/conv
I0403 04:43:13.145843  4599 net.cpp:399] loss2/fc -> loss2/fc
I0403 04:43:13.162395  4599 net.cpp:141] Setting up loss2/fc
I0403 04:43:13.162446  4599 net.cpp:148] Top shape: 24 1024 (24576)
I0403 04:43:13.162463  4599 net.cpp:156] Memory required for data: 1208220864
I0403 04:43:13.162484  4599 layer_factory.hpp:77] Creating layer loss2/relu_fc
I0403 04:43:13.162509  4599 net.cpp:91] Creating Layer loss2/relu_fc
I0403 04:43:13.162529  4599 net.cpp:425] loss2/relu_fc <- loss2/fc
I0403 04:43:13.162549  4599 net.cpp:386] loss2/relu_fc -> loss2/fc (in-place)
I0403 04:43:13.162571  4599 net.cpp:141] Setting up loss2/relu_fc
I0403 04:43:13.162590  4599 net.cpp:148] Top shape: 24 1024 (24576)
I0403 04:43:13.162605  4599 net.cpp:156] Memory required for data: 1208319168
I0403 04:43:13.162619  4599 layer_factory.hpp:77] Creating layer loss2/drop_fc
I0403 04:43:13.162641  4599 net.cpp:91] Creating Layer loss2/drop_fc
I0403 04:43:13.162658  4599 net.cpp:425] loss2/drop_fc <- loss2/fc
I0403 04:43:13.162677  4599 net.cpp:386] loss2/drop_fc -> loss2/fc (in-place)
I0403 04:43:13.162720  4599 net.cpp:141] Setting up loss2/drop_fc
I0403 04:43:13.162745  4599 net.cpp:148] Top shape: 24 1024 (24576)
I0403 04:43:13.162761  4599 net.cpp:156] Memory required for data: 1208417472
I0403 04:43:13.162777  4599 layer_factory.hpp:77] Creating layer loss2/classifier_plantvillage
I0403 04:43:13.162802  4599 net.cpp:91] Creating Layer loss2/classifier_plantvillage
I0403 04:43:13.162820  4599 net.cpp:425] loss2/classifier_plantvillage <- loss2/fc
I0403 04:43:13.162842  4599 net.cpp:399] loss2/classifier_plantvillage -> loss2/classifier_plantvillage
I0403 04:43:13.163305  4599 net.cpp:141] Setting up loss2/classifier_plantvillage
I0403 04:43:13.163332  4599 net.cpp:148] Top shape: 24 38 (912)
I0403 04:43:13.163348  4599 net.cpp:156] Memory required for data: 1208421120
I0403 04:43:13.163367  4599 layer_factory.hpp:77] Creating layer loss2/classifier_plantvillage_loss2/classifier_plantvillage_0_split
I0403 04:43:13.163388  4599 net.cpp:91] Creating Layer loss2/classifier_plantvillage_loss2/classifier_plantvillage_0_split
I0403 04:43:13.163405  4599 net.cpp:425] loss2/classifier_plantvillage_loss2/classifier_plantvillage_0_split <- loss2/classifier_plantvillage
I0403 04:43:13.163424  4599 net.cpp:399] loss2/classifier_plantvillage_loss2/classifier_plantvillage_0_split -> loss2/classifier_plantvillage_loss2/classifier_plantvillage_0_split_0
I0403 04:43:13.163445  4599 net.cpp:399] loss2/classifier_plantvillage_loss2/classifier_plantvillage_0_split -> loss2/classifier_plantvillage_loss2/classifier_plantvillage_0_split_1
I0403 04:43:13.163467  4599 net.cpp:399] loss2/classifier_plantvillage_loss2/classifier_plantvillage_0_split -> loss2/classifier_plantvillage_loss2/classifier_plantvillage_0_split_2
I0403 04:43:13.163537  4599 net.cpp:141] Setting up loss2/classifier_plantvillage_loss2/classifier_plantvillage_0_split
I0403 04:43:13.163560  4599 net.cpp:148] Top shape: 24 38 (912)
I0403 04:43:13.163578  4599 net.cpp:148] Top shape: 24 38 (912)
I0403 04:43:13.163594  4599 net.cpp:148] Top shape: 24 38 (912)
I0403 04:43:13.163609  4599 net.cpp:156] Memory required for data: 1208432064
I0403 04:43:13.163622  4599 layer_factory.hpp:77] Creating layer inception_4e/1x1
I0403 04:43:13.163645  4599 net.cpp:91] Creating Layer inception_4e/1x1
I0403 04:43:13.163663  4599 net.cpp:425] inception_4e/1x1 <- inception_4d/output_inception_4d/output_0_split_1
I0403 04:43:13.163686  4599 net.cpp:399] inception_4e/1x1 -> inception_4e/1x1
I0403 04:43:13.164774  4599 net.cpp:141] Setting up inception_4e/1x1
I0403 04:43:13.164841  4599 net.cpp:148] Top shape: 24 256 14 14 (1204224)
I0403 04:43:13.164857  4599 net.cpp:156] Memory required for data: 1213248960
I0403 04:43:13.164876  4599 layer_factory.hpp:77] Creating layer inception_4e/relu_1x1
I0403 04:43:13.164896  4599 net.cpp:91] Creating Layer inception_4e/relu_1x1
I0403 04:43:13.164912  4599 net.cpp:425] inception_4e/relu_1x1 <- inception_4e/1x1
I0403 04:43:13.164932  4599 net.cpp:386] inception_4e/relu_1x1 -> inception_4e/1x1 (in-place)
I0403 04:43:13.164978  4599 net.cpp:141] Setting up inception_4e/relu_1x1
I0403 04:43:13.164996  4599 net.cpp:148] Top shape: 24 256 14 14 (1204224)
I0403 04:43:13.165010  4599 net.cpp:156] Memory required for data: 1218065856
I0403 04:43:13.165025  4599 layer_factory.hpp:77] Creating layer inception_4e/3x3_reduce
I0403 04:43:13.165050  4599 net.cpp:91] Creating Layer inception_4e/3x3_reduce
I0403 04:43:13.165067  4599 net.cpp:425] inception_4e/3x3_reduce <- inception_4d/output_inception_4d/output_0_split_2
I0403 04:43:13.165087  4599 net.cpp:399] inception_4e/3x3_reduce -> inception_4e/3x3_reduce
I0403 04:43:13.166353  4599 net.cpp:141] Setting up inception_4e/3x3_reduce
I0403 04:43:13.166458  4599 net.cpp:148] Top shape: 24 160 14 14 (752640)
I0403 04:43:13.166478  4599 net.cpp:156] Memory required for data: 1221076416
I0403 04:43:13.166497  4599 layer_factory.hpp:77] Creating layer inception_4e/relu_3x3_reduce
I0403 04:43:13.166517  4599 net.cpp:91] Creating Layer inception_4e/relu_3x3_reduce
I0403 04:43:13.166534  4599 net.cpp:425] inception_4e/relu_3x3_reduce <- inception_4e/3x3_reduce
I0403 04:43:13.166554  4599 net.cpp:386] inception_4e/relu_3x3_reduce -> inception_4e/3x3_reduce (in-place)
I0403 04:43:13.166575  4599 net.cpp:141] Setting up inception_4e/relu_3x3_reduce
I0403 04:43:13.166594  4599 net.cpp:148] Top shape: 24 160 14 14 (752640)
I0403 04:43:13.166606  4599 net.cpp:156] Memory required for data: 1224086976
I0403 04:43:13.166620  4599 layer_factory.hpp:77] Creating layer inception_4e/3x3
I0403 04:43:13.166641  4599 net.cpp:91] Creating Layer inception_4e/3x3
I0403 04:43:13.166657  4599 net.cpp:425] inception_4e/3x3 <- inception_4e/3x3_reduce
I0403 04:43:13.166679  4599 net.cpp:399] inception_4e/3x3 -> inception_4e/3x3
I0403 04:43:13.170574  4599 net.cpp:141] Setting up inception_4e/3x3
I0403 04:43:13.170603  4599 net.cpp:148] Top shape: 24 320 14 14 (1505280)
I0403 04:43:13.170617  4599 net.cpp:156] Memory required for data: 1230108096
I0403 04:43:13.170635  4599 layer_factory.hpp:77] Creating layer inception_4e/relu_3x3
I0403 04:43:13.170656  4599 net.cpp:91] Creating Layer inception_4e/relu_3x3
I0403 04:43:13.170675  4599 net.cpp:425] inception_4e/relu_3x3 <- inception_4e/3x3
I0403 04:43:13.170691  4599 net.cpp:386] inception_4e/relu_3x3 -> inception_4e/3x3 (in-place)
I0403 04:43:13.170711  4599 net.cpp:141] Setting up inception_4e/relu_3x3
I0403 04:43:13.170728  4599 net.cpp:148] Top shape: 24 320 14 14 (1505280)
I0403 04:43:13.170743  4599 net.cpp:156] Memory required for data: 1236129216
I0403 04:43:13.170758  4599 layer_factory.hpp:77] Creating layer inception_4e/5x5_reduce
I0403 04:43:13.170781  4599 net.cpp:91] Creating Layer inception_4e/5x5_reduce
I0403 04:43:13.170802  4599 net.cpp:425] inception_4e/5x5_reduce <- inception_4d/output_inception_4d/output_0_split_3
I0403 04:43:13.170825  4599 net.cpp:399] inception_4e/5x5_reduce -> inception_4e/5x5_reduce
I0403 04:43:13.171757  4599 net.cpp:141] Setting up inception_4e/5x5_reduce
I0403 04:43:13.171785  4599 net.cpp:148] Top shape: 24 32 14 14 (150528)
I0403 04:43:13.171805  4599 net.cpp:156] Memory required for data: 1236731328
I0403 04:43:13.171825  4599 layer_factory.hpp:77] Creating layer inception_4e/relu_5x5_reduce
I0403 04:43:13.171845  4599 net.cpp:91] Creating Layer inception_4e/relu_5x5_reduce
I0403 04:43:13.171864  4599 net.cpp:425] inception_4e/relu_5x5_reduce <- inception_4e/5x5_reduce
I0403 04:43:13.171883  4599 net.cpp:386] inception_4e/relu_5x5_reduce -> inception_4e/5x5_reduce (in-place)
I0403 04:43:13.171905  4599 net.cpp:141] Setting up inception_4e/relu_5x5_reduce
I0403 04:43:13.171923  4599 net.cpp:148] Top shape: 24 32 14 14 (150528)
I0403 04:43:13.171938  4599 net.cpp:156] Memory required for data: 1237333440
I0403 04:43:13.171954  4599 layer_factory.hpp:77] Creating layer inception_4e/5x5
I0403 04:43:13.172015  4599 net.cpp:91] Creating Layer inception_4e/5x5
I0403 04:43:13.172034  4599 net.cpp:425] inception_4e/5x5 <- inception_4e/5x5_reduce
I0403 04:43:13.172055  4599 net.cpp:399] inception_4e/5x5 -> inception_4e/5x5
I0403 04:43:13.172801  4599 net.cpp:141] Setting up inception_4e/5x5
I0403 04:43:13.172837  4599 net.cpp:148] Top shape: 24 128 14 14 (602112)
I0403 04:43:13.172852  4599 net.cpp:156] Memory required for data: 1239741888
I0403 04:43:13.172871  4599 layer_factory.hpp:77] Creating layer inception_4e/relu_5x5
I0403 04:43:13.172891  4599 net.cpp:91] Creating Layer inception_4e/relu_5x5
I0403 04:43:13.172909  4599 net.cpp:425] inception_4e/relu_5x5 <- inception_4e/5x5
I0403 04:43:13.172927  4599 net.cpp:386] inception_4e/relu_5x5 -> inception_4e/5x5 (in-place)
I0403 04:43:13.172946  4599 net.cpp:141] Setting up inception_4e/relu_5x5
I0403 04:43:13.172965  4599 net.cpp:148] Top shape: 24 128 14 14 (602112)
I0403 04:43:13.172978  4599 net.cpp:156] Memory required for data: 1242150336
I0403 04:43:13.172992  4599 layer_factory.hpp:77] Creating layer inception_4e/pool
I0403 04:43:13.173013  4599 net.cpp:91] Creating Layer inception_4e/pool
I0403 04:43:13.173032  4599 net.cpp:425] inception_4e/pool <- inception_4d/output_inception_4d/output_0_split_4
I0403 04:43:13.173049  4599 net.cpp:399] inception_4e/pool -> inception_4e/pool
I0403 04:43:13.173102  4599 net.cpp:141] Setting up inception_4e/pool
I0403 04:43:13.173126  4599 net.cpp:148] Top shape: 24 528 14 14 (2483712)
I0403 04:43:13.173142  4599 net.cpp:156] Memory required for data: 1252085184
I0403 04:43:13.173156  4599 layer_factory.hpp:77] Creating layer inception_4e/pool_proj
I0403 04:43:13.173177  4599 net.cpp:91] Creating Layer inception_4e/pool_proj
I0403 04:43:13.173194  4599 net.cpp:425] inception_4e/pool_proj <- inception_4e/pool
I0403 04:43:13.173216  4599 net.cpp:399] inception_4e/pool_proj -> inception_4e/pool_proj
I0403 04:43:13.173873  4599 net.cpp:141] Setting up inception_4e/pool_proj
I0403 04:43:13.173899  4599 net.cpp:148] Top shape: 24 128 14 14 (602112)
I0403 04:43:13.173914  4599 net.cpp:156] Memory required for data: 1254493632
I0403 04:43:13.173931  4599 layer_factory.hpp:77] Creating layer inception_4e/relu_pool_proj
I0403 04:43:13.173949  4599 net.cpp:91] Creating Layer inception_4e/relu_pool_proj
I0403 04:43:13.173966  4599 net.cpp:425] inception_4e/relu_pool_proj <- inception_4e/pool_proj
I0403 04:43:13.173985  4599 net.cpp:386] inception_4e/relu_pool_proj -> inception_4e/pool_proj (in-place)
I0403 04:43:13.174005  4599 net.cpp:141] Setting up inception_4e/relu_pool_proj
I0403 04:43:13.174021  4599 net.cpp:148] Top shape: 24 128 14 14 (602112)
I0403 04:43:13.174036  4599 net.cpp:156] Memory required for data: 1256902080
I0403 04:43:13.174051  4599 layer_factory.hpp:77] Creating layer inception_4e/output
I0403 04:43:13.174070  4599 net.cpp:91] Creating Layer inception_4e/output
I0403 04:43:13.174088  4599 net.cpp:425] inception_4e/output <- inception_4e/1x1
I0403 04:43:13.174103  4599 net.cpp:425] inception_4e/output <- inception_4e/3x3
I0403 04:43:13.174119  4599 net.cpp:425] inception_4e/output <- inception_4e/5x5
I0403 04:43:13.174135  4599 net.cpp:425] inception_4e/output <- inception_4e/pool_proj
I0403 04:43:13.174154  4599 net.cpp:399] inception_4e/output -> inception_4e/output
I0403 04:43:13.174193  4599 net.cpp:141] Setting up inception_4e/output
I0403 04:43:13.174216  4599 net.cpp:148] Top shape: 24 832 14 14 (3913728)
I0403 04:43:13.174232  4599 net.cpp:156] Memory required for data: 1272556992
I0403 04:43:13.174247  4599 layer_factory.hpp:77] Creating layer pool4/3x3_s2
I0403 04:43:13.174264  4599 net.cpp:91] Creating Layer pool4/3x3_s2
I0403 04:43:13.174280  4599 net.cpp:425] pool4/3x3_s2 <- inception_4e/output
I0403 04:43:13.174301  4599 net.cpp:399] pool4/3x3_s2 -> pool4/3x3_s2
I0403 04:43:13.174351  4599 net.cpp:141] Setting up pool4/3x3_s2
I0403 04:43:13.174373  4599 net.cpp:148] Top shape: 24 832 7 7 (978432)
I0403 04:43:13.174388  4599 net.cpp:156] Memory required for data: 1276470720
I0403 04:43:13.174403  4599 layer_factory.hpp:77] Creating layer pool4/3x3_s2_pool4/3x3_s2_0_split
I0403 04:43:13.174424  4599 net.cpp:91] Creating Layer pool4/3x3_s2_pool4/3x3_s2_0_split
I0403 04:43:13.174442  4599 net.cpp:425] pool4/3x3_s2_pool4/3x3_s2_0_split <- pool4/3x3_s2
I0403 04:43:13.174473  4599 net.cpp:399] pool4/3x3_s2_pool4/3x3_s2_0_split -> pool4/3x3_s2_pool4/3x3_s2_0_split_0
I0403 04:43:13.174494  4599 net.cpp:399] pool4/3x3_s2_pool4/3x3_s2_0_split -> pool4/3x3_s2_pool4/3x3_s2_0_split_1
I0403 04:43:13.174515  4599 net.cpp:399] pool4/3x3_s2_pool4/3x3_s2_0_split -> pool4/3x3_s2_pool4/3x3_s2_0_split_2
I0403 04:43:13.174540  4599 net.cpp:399] pool4/3x3_s2_pool4/3x3_s2_0_split -> pool4/3x3_s2_pool4/3x3_s2_0_split_3
I0403 04:43:13.174603  4599 net.cpp:141] Setting up pool4/3x3_s2_pool4/3x3_s2_0_split
I0403 04:43:13.174625  4599 net.cpp:148] Top shape: 24 832 7 7 (978432)
I0403 04:43:13.174641  4599 net.cpp:148] Top shape: 24 832 7 7 (978432)
I0403 04:43:13.174656  4599 net.cpp:148] Top shape: 24 832 7 7 (978432)
I0403 04:43:13.174672  4599 net.cpp:148] Top shape: 24 832 7 7 (978432)
I0403 04:43:13.174686  4599 net.cpp:156] Memory required for data: 1292125632
I0403 04:43:13.174701  4599 layer_factory.hpp:77] Creating layer inception_5a/1x1
I0403 04:43:13.174724  4599 net.cpp:91] Creating Layer inception_5a/1x1
I0403 04:43:13.174741  4599 net.cpp:425] inception_5a/1x1 <- pool4/3x3_s2_pool4/3x3_s2_0_split_0
I0403 04:43:13.174763  4599 net.cpp:399] inception_5a/1x1 -> inception_5a/1x1
I0403 04:43:13.176687  4599 net.cpp:141] Setting up inception_5a/1x1
I0403 04:43:13.176715  4599 net.cpp:148] Top shape: 24 256 7 7 (301056)
I0403 04:43:13.176731  4599 net.cpp:156] Memory required for data: 1293329856
I0403 04:43:13.176749  4599 layer_factory.hpp:77] Creating layer inception_5a/relu_1x1
I0403 04:43:13.176767  4599 net.cpp:91] Creating Layer inception_5a/relu_1x1
I0403 04:43:13.176784  4599 net.cpp:425] inception_5a/relu_1x1 <- inception_5a/1x1
I0403 04:43:13.176808  4599 net.cpp:386] inception_5a/relu_1x1 -> inception_5a/1x1 (in-place)
I0403 04:43:13.176829  4599 net.cpp:141] Setting up inception_5a/relu_1x1
I0403 04:43:13.176848  4599 net.cpp:148] Top shape: 24 256 7 7 (301056)
I0403 04:43:13.176973  4599 net.cpp:156] Memory required for data: 1294534080
I0403 04:43:13.176995  4599 layer_factory.hpp:77] Creating layer inception_5a/3x3_reduce
I0403 04:43:13.177024  4599 net.cpp:91] Creating Layer inception_5a/3x3_reduce
I0403 04:43:13.177044  4599 net.cpp:425] inception_5a/3x3_reduce <- pool4/3x3_s2_pool4/3x3_s2_0_split_1
I0403 04:43:13.177064  4599 net.cpp:399] inception_5a/3x3_reduce -> inception_5a/3x3_reduce
I0403 04:43:13.178522  4599 net.cpp:141] Setting up inception_5a/3x3_reduce
I0403 04:43:13.178550  4599 net.cpp:148] Top shape: 24 160 7 7 (188160)
I0403 04:43:13.178566  4599 net.cpp:156] Memory required for data: 1295286720
I0403 04:43:13.178585  4599 layer_factory.hpp:77] Creating layer inception_5a/relu_3x3_reduce
I0403 04:43:13.178696  4599 net.cpp:91] Creating Layer inception_5a/relu_3x3_reduce
I0403 04:43:13.178719  4599 net.cpp:425] inception_5a/relu_3x3_reduce <- inception_5a/3x3_reduce
I0403 04:43:13.178740  4599 net.cpp:386] inception_5a/relu_3x3_reduce -> inception_5a/3x3_reduce (in-place)
I0403 04:43:13.178764  4599 net.cpp:141] Setting up inception_5a/relu_3x3_reduce
I0403 04:43:13.178782  4599 net.cpp:148] Top shape: 24 160 7 7 (188160)
I0403 04:43:13.178802  4599 net.cpp:156] Memory required for data: 1296039360
I0403 04:43:13.178817  4599 layer_factory.hpp:77] Creating layer inception_5a/3x3
I0403 04:43:13.178840  4599 net.cpp:91] Creating Layer inception_5a/3x3
I0403 04:43:13.178858  4599 net.cpp:425] inception_5a/3x3 <- inception_5a/3x3_reduce
I0403 04:43:13.178876  4599 net.cpp:399] inception_5a/3x3 -> inception_5a/3x3
I0403 04:43:13.182889  4599 net.cpp:141] Setting up inception_5a/3x3
I0403 04:43:13.182917  4599 net.cpp:148] Top shape: 24 320 7 7 (376320)
I0403 04:43:13.182934  4599 net.cpp:156] Memory required for data: 1297544640
I0403 04:43:13.182952  4599 layer_factory.hpp:77] Creating layer inception_5a/relu_3x3
I0403 04:43:13.182974  4599 net.cpp:91] Creating Layer inception_5a/relu_3x3
I0403 04:43:13.182992  4599 net.cpp:425] inception_5a/relu_3x3 <- inception_5a/3x3
I0403 04:43:13.183012  4599 net.cpp:386] inception_5a/relu_3x3 -> inception_5a/3x3 (in-place)
I0403 04:43:13.183048  4599 net.cpp:141] Setting up inception_5a/relu_3x3
I0403 04:43:13.183068  4599 net.cpp:148] Top shape: 24 320 7 7 (376320)
I0403 04:43:13.183082  4599 net.cpp:156] Memory required for data: 1299049920
I0403 04:43:13.183097  4599 layer_factory.hpp:77] Creating layer inception_5a/5x5_reduce
I0403 04:43:13.183121  4599 net.cpp:91] Creating Layer inception_5a/5x5_reduce
I0403 04:43:13.183140  4599 net.cpp:425] inception_5a/5x5_reduce <- pool4/3x3_s2_pool4/3x3_s2_0_split_2
I0403 04:43:13.183159  4599 net.cpp:399] inception_5a/5x5_reduce -> inception_5a/5x5_reduce
I0403 04:43:13.183536  4599 net.cpp:141] Setting up inception_5a/5x5_reduce
I0403 04:43:13.183560  4599 net.cpp:148] Top shape: 24 32 7 7 (37632)
I0403 04:43:13.183576  4599 net.cpp:156] Memory required for data: 1299200448
I0403 04:43:13.183594  4599 layer_factory.hpp:77] Creating layer inception_5a/relu_5x5_reduce
I0403 04:43:13.183614  4599 net.cpp:91] Creating Layer inception_5a/relu_5x5_reduce
I0403 04:43:13.183630  4599 net.cpp:425] inception_5a/relu_5x5_reduce <- inception_5a/5x5_reduce
I0403 04:43:13.183651  4599 net.cpp:386] inception_5a/relu_5x5_reduce -> inception_5a/5x5_reduce (in-place)
I0403 04:43:13.183672  4599 net.cpp:141] Setting up inception_5a/relu_5x5_reduce
I0403 04:43:13.183691  4599 net.cpp:148] Top shape: 24 32 7 7 (37632)
I0403 04:43:13.183706  4599 net.cpp:156] Memory required for data: 1299350976
I0403 04:43:13.183722  4599 layer_factory.hpp:77] Creating layer inception_5a/5x5
I0403 04:43:13.183743  4599 net.cpp:91] Creating Layer inception_5a/5x5
I0403 04:43:13.183761  4599 net.cpp:425] inception_5a/5x5 <- inception_5a/5x5_reduce
I0403 04:43:13.183785  4599 net.cpp:399] inception_5a/5x5 -> inception_5a/5x5
I0403 04:43:13.184636  4599 net.cpp:141] Setting up inception_5a/5x5
I0403 04:43:13.184665  4599 net.cpp:148] Top shape: 24 128 7 7 (150528)
I0403 04:43:13.184681  4599 net.cpp:156] Memory required for data: 1299953088
I0403 04:43:13.184700  4599 layer_factory.hpp:77] Creating layer inception_5a/relu_5x5
I0403 04:43:13.184721  4599 net.cpp:91] Creating Layer inception_5a/relu_5x5
I0403 04:43:13.184739  4599 net.cpp:425] inception_5a/relu_5x5 <- inception_5a/5x5
I0403 04:43:13.184772  4599 net.cpp:386] inception_5a/relu_5x5 -> inception_5a/5x5 (in-place)
I0403 04:43:13.184803  4599 net.cpp:141] Setting up inception_5a/relu_5x5
I0403 04:43:13.184824  4599 net.cpp:148] Top shape: 24 128 7 7 (150528)
I0403 04:43:13.184840  4599 net.cpp:156] Memory required for data: 1300555200
I0403 04:43:13.184856  4599 layer_factory.hpp:77] Creating layer inception_5a/pool
I0403 04:43:13.184875  4599 net.cpp:91] Creating Layer inception_5a/pool
I0403 04:43:13.184892  4599 net.cpp:425] inception_5a/pool <- pool4/3x3_s2_pool4/3x3_s2_0_split_3
I0403 04:43:13.184916  4599 net.cpp:399] inception_5a/pool -> inception_5a/pool
I0403 04:43:13.184970  4599 net.cpp:141] Setting up inception_5a/pool
I0403 04:43:13.184995  4599 net.cpp:148] Top shape: 24 832 7 7 (978432)
I0403 04:43:13.185011  4599 net.cpp:156] Memory required for data: 1304468928
I0403 04:43:13.185026  4599 layer_factory.hpp:77] Creating layer inception_5a/pool_proj
I0403 04:43:13.185052  4599 net.cpp:91] Creating Layer inception_5a/pool_proj
I0403 04:43:13.185071  4599 net.cpp:425] inception_5a/pool_proj <- inception_5a/pool
I0403 04:43:13.185092  4599 net.cpp:399] inception_5a/pool_proj -> inception_5a/pool_proj
I0403 04:43:13.186439  4599 net.cpp:141] Setting up inception_5a/pool_proj
I0403 04:43:13.186467  4599 net.cpp:148] Top shape: 24 128 7 7 (150528)
I0403 04:43:13.186483  4599 net.cpp:156] Memory required for data: 1305071040
I0403 04:43:13.186502  4599 layer_factory.hpp:77] Creating layer inception_5a/relu_pool_proj
I0403 04:43:13.186522  4599 net.cpp:91] Creating Layer inception_5a/relu_pool_proj
I0403 04:43:13.186540  4599 net.cpp:425] inception_5a/relu_pool_proj <- inception_5a/pool_proj
I0403 04:43:13.186558  4599 net.cpp:386] inception_5a/relu_pool_proj -> inception_5a/pool_proj (in-place)
I0403 04:43:13.186578  4599 net.cpp:141] Setting up inception_5a/relu_pool_proj
I0403 04:43:13.186610  4599 net.cpp:148] Top shape: 24 128 7 7 (150528)
I0403 04:43:13.186626  4599 net.cpp:156] Memory required for data: 1305673152
I0403 04:43:13.186641  4599 layer_factory.hpp:77] Creating layer inception_5a/output
I0403 04:43:13.186662  4599 net.cpp:91] Creating Layer inception_5a/output
I0403 04:43:13.186679  4599 net.cpp:425] inception_5a/output <- inception_5a/1x1
I0403 04:43:13.186697  4599 net.cpp:425] inception_5a/output <- inception_5a/3x3
I0403 04:43:13.186713  4599 net.cpp:425] inception_5a/output <- inception_5a/5x5
I0403 04:43:13.186730  4599 net.cpp:425] inception_5a/output <- inception_5a/pool_proj
I0403 04:43:13.186748  4599 net.cpp:399] inception_5a/output -> inception_5a/output
I0403 04:43:13.186792  4599 net.cpp:141] Setting up inception_5a/output
I0403 04:43:13.186816  4599 net.cpp:148] Top shape: 24 832 7 7 (978432)
I0403 04:43:13.186831  4599 net.cpp:156] Memory required for data: 1309586880
I0403 04:43:13.186846  4599 layer_factory.hpp:77] Creating layer inception_5a/output_inception_5a/output_0_split
I0403 04:43:13.186866  4599 net.cpp:91] Creating Layer inception_5a/output_inception_5a/output_0_split
I0403 04:43:13.186882  4599 net.cpp:425] inception_5a/output_inception_5a/output_0_split <- inception_5a/output
I0403 04:43:13.186903  4599 net.cpp:399] inception_5a/output_inception_5a/output_0_split -> inception_5a/output_inception_5a/output_0_split_0
I0403 04:43:13.186925  4599 net.cpp:399] inception_5a/output_inception_5a/output_0_split -> inception_5a/output_inception_5a/output_0_split_1
I0403 04:43:13.186947  4599 net.cpp:399] inception_5a/output_inception_5a/output_0_split -> inception_5a/output_inception_5a/output_0_split_2
I0403 04:43:13.186969  4599 net.cpp:399] inception_5a/output_inception_5a/output_0_split -> inception_5a/output_inception_5a/output_0_split_3
I0403 04:43:13.187039  4599 net.cpp:141] Setting up inception_5a/output_inception_5a/output_0_split
I0403 04:43:13.187064  4599 net.cpp:148] Top shape: 24 832 7 7 (978432)
I0403 04:43:13.187082  4599 net.cpp:148] Top shape: 24 832 7 7 (978432)
I0403 04:43:13.187098  4599 net.cpp:148] Top shape: 24 832 7 7 (978432)
I0403 04:43:13.187114  4599 net.cpp:148] Top shape: 24 832 7 7 (978432)
I0403 04:43:13.187127  4599 net.cpp:156] Memory required for data: 1325241792
I0403 04:43:13.187142  4599 layer_factory.hpp:77] Creating layer inception_5b/1x1
I0403 04:43:13.187166  4599 net.cpp:91] Creating Layer inception_5b/1x1
I0403 04:43:13.187185  4599 net.cpp:425] inception_5b/1x1 <- inception_5a/output_inception_5a/output_0_split_0
I0403 04:43:13.187206  4599 net.cpp:399] inception_5b/1x1 -> inception_5b/1x1
I0403 04:43:13.189786  4599 net.cpp:141] Setting up inception_5b/1x1
I0403 04:43:13.189820  4599 net.cpp:148] Top shape: 24 384 7 7 (451584)
I0403 04:43:13.189836  4599 net.cpp:156] Memory required for data: 1327048128
I0403 04:43:13.189856  4599 layer_factory.hpp:77] Creating layer inception_5b/relu_1x1
I0403 04:43:13.189875  4599 net.cpp:91] Creating Layer inception_5b/relu_1x1
I0403 04:43:13.189893  4599 net.cpp:425] inception_5b/relu_1x1 <- inception_5b/1x1
I0403 04:43:13.189910  4599 net.cpp:386] inception_5b/relu_1x1 -> inception_5b/1x1 (in-place)
I0403 04:43:13.189932  4599 net.cpp:141] Setting up inception_5b/relu_1x1
I0403 04:43:13.189952  4599 net.cpp:148] Top shape: 24 384 7 7 (451584)
I0403 04:43:13.189967  4599 net.cpp:156] Memory required for data: 1328854464
I0403 04:43:13.189982  4599 layer_factory.hpp:77] Creating layer inception_5b/3x3_reduce
I0403 04:43:13.190003  4599 net.cpp:91] Creating Layer inception_5b/3x3_reduce
I0403 04:43:13.190024  4599 net.cpp:425] inception_5b/3x3_reduce <- inception_5a/output_inception_5a/output_0_split_1
I0403 04:43:13.190044  4599 net.cpp:399] inception_5b/3x3_reduce -> inception_5b/3x3_reduce
I0403 04:43:13.191665  4599 net.cpp:141] Setting up inception_5b/3x3_reduce
I0403 04:43:13.191694  4599 net.cpp:148] Top shape: 24 192 7 7 (225792)
I0403 04:43:13.191709  4599 net.cpp:156] Memory required for data: 1329757632
I0403 04:43:13.191727  4599 layer_factory.hpp:77] Creating layer inception_5b/relu_3x3_reduce
I0403 04:43:13.191761  4599 net.cpp:91] Creating Layer inception_5b/relu_3x3_reduce
I0403 04:43:13.191781  4599 net.cpp:425] inception_5b/relu_3x3_reduce <- inception_5b/3x3_reduce
I0403 04:43:13.191803  4599 net.cpp:386] inception_5b/relu_3x3_reduce -> inception_5b/3x3_reduce (in-place)
I0403 04:43:13.191825  4599 net.cpp:141] Setting up inception_5b/relu_3x3_reduce
I0403 04:43:13.191843  4599 net.cpp:148] Top shape: 24 192 7 7 (225792)
I0403 04:43:13.191857  4599 net.cpp:156] Memory required for data: 1330660800
I0403 04:43:13.191872  4599 layer_factory.hpp:77] Creating layer inception_5b/3x3
I0403 04:43:13.191897  4599 net.cpp:91] Creating Layer inception_5b/3x3
I0403 04:43:13.191915  4599 net.cpp:425] inception_5b/3x3 <- inception_5b/3x3_reduce
I0403 04:43:13.191937  4599 net.cpp:399] inception_5b/3x3 -> inception_5b/3x3
I0403 04:43:13.197242  4599 net.cpp:141] Setting up inception_5b/3x3
I0403 04:43:13.197274  4599 net.cpp:148] Top shape: 24 384 7 7 (451584)
I0403 04:43:13.197291  4599 net.cpp:156] Memory required for data: 1332467136
I0403 04:43:13.197310  4599 layer_factory.hpp:77] Creating layer inception_5b/relu_3x3
I0403 04:43:13.197329  4599 net.cpp:91] Creating Layer inception_5b/relu_3x3
I0403 04:43:13.197346  4599 net.cpp:425] inception_5b/relu_3x3 <- inception_5b/3x3
I0403 04:43:13.197365  4599 net.cpp:386] inception_5b/relu_3x3 -> inception_5b/3x3 (in-place)
I0403 04:43:13.197384  4599 net.cpp:141] Setting up inception_5b/relu_3x3
I0403 04:43:13.197403  4599 net.cpp:148] Top shape: 24 384 7 7 (451584)
I0403 04:43:13.197418  4599 net.cpp:156] Memory required for data: 1334273472
I0403 04:43:13.197433  4599 layer_factory.hpp:77] Creating layer inception_5b/5x5_reduce
I0403 04:43:13.197458  4599 net.cpp:91] Creating Layer inception_5b/5x5_reduce
I0403 04:43:13.197476  4599 net.cpp:425] inception_5b/5x5_reduce <- inception_5a/output_inception_5a/output_0_split_2
I0403 04:43:13.197499  4599 net.cpp:399] inception_5b/5x5_reduce -> inception_5b/5x5_reduce
I0403 04:43:13.198489  4599 net.cpp:141] Setting up inception_5b/5x5_reduce
I0403 04:43:13.198524  4599 net.cpp:148] Top shape: 24 48 7 7 (56448)
I0403 04:43:13.198544  4599 net.cpp:156] Memory required for data: 1334499264
I0403 04:43:13.198562  4599 layer_factory.hpp:77] Creating layer inception_5b/relu_5x5_reduce
I0403 04:43:13.198581  4599 net.cpp:91] Creating Layer inception_5b/relu_5x5_reduce
I0403 04:43:13.198598  4599 net.cpp:425] inception_5b/relu_5x5_reduce <- inception_5b/5x5_reduce
I0403 04:43:13.198616  4599 net.cpp:386] inception_5b/relu_5x5_reduce -> inception_5b/5x5_reduce (in-place)
I0403 04:43:13.198637  4599 net.cpp:141] Setting up inception_5b/relu_5x5_reduce
I0403 04:43:13.198654  4599 net.cpp:148] Top shape: 24 48 7 7 (56448)
I0403 04:43:13.198669  4599 net.cpp:156] Memory required for data: 1334725056
I0403 04:43:13.198683  4599 layer_factory.hpp:77] Creating layer inception_5b/5x5
I0403 04:43:13.198709  4599 net.cpp:91] Creating Layer inception_5b/5x5
I0403 04:43:13.198726  4599 net.cpp:425] inception_5b/5x5 <- inception_5b/5x5_reduce
I0403 04:43:13.198750  4599 net.cpp:399] inception_5b/5x5 -> inception_5b/5x5
I0403 04:43:13.199828  4599 net.cpp:141] Setting up inception_5b/5x5
I0403 04:43:13.199853  4599 net.cpp:148] Top shape: 24 128 7 7 (150528)
I0403 04:43:13.199869  4599 net.cpp:156] Memory required for data: 1335327168
I0403 04:43:13.199887  4599 layer_factory.hpp:77] Creating layer inception_5b/relu_5x5
I0403 04:43:13.199905  4599 net.cpp:91] Creating Layer inception_5b/relu_5x5
I0403 04:43:13.199923  4599 net.cpp:425] inception_5b/relu_5x5 <- inception_5b/5x5
I0403 04:43:13.199944  4599 net.cpp:386] inception_5b/relu_5x5 -> inception_5b/5x5 (in-place)
I0403 04:43:13.199964  4599 net.cpp:141] Setting up inception_5b/relu_5x5
I0403 04:43:13.199981  4599 net.cpp:148] Top shape: 24 128 7 7 (150528)
I0403 04:43:13.199996  4599 net.cpp:156] Memory required for data: 1335929280
I0403 04:43:13.200011  4599 layer_factory.hpp:77] Creating layer inception_5b/pool
I0403 04:43:13.200029  4599 net.cpp:91] Creating Layer inception_5b/pool
I0403 04:43:13.200062  4599 net.cpp:425] inception_5b/pool <- inception_5a/output_inception_5a/output_0_split_3
I0403 04:43:13.200088  4599 net.cpp:399] inception_5b/pool -> inception_5b/pool
I0403 04:43:13.200148  4599 net.cpp:141] Setting up inception_5b/pool
I0403 04:43:13.200176  4599 net.cpp:148] Top shape: 24 832 7 7 (978432)
I0403 04:43:13.200191  4599 net.cpp:156] Memory required for data: 1339843008
I0403 04:43:13.200206  4599 layer_factory.hpp:77] Creating layer inception_5b/pool_proj
I0403 04:43:13.200229  4599 net.cpp:91] Creating Layer inception_5b/pool_proj
I0403 04:43:13.200248  4599 net.cpp:425] inception_5b/pool_proj <- inception_5b/pool
I0403 04:43:13.200270  4599 net.cpp:399] inception_5b/pool_proj -> inception_5b/pool_proj
I0403 04:43:13.201582  4599 net.cpp:141] Setting up inception_5b/pool_proj
I0403 04:43:13.201609  4599 net.cpp:148] Top shape: 24 128 7 7 (150528)
I0403 04:43:13.201625  4599 net.cpp:156] Memory required for data: 1340445120
I0403 04:43:13.201644  4599 layer_factory.hpp:77] Creating layer inception_5b/relu_pool_proj
I0403 04:43:13.201665  4599 net.cpp:91] Creating Layer inception_5b/relu_pool_proj
I0403 04:43:13.201683  4599 net.cpp:425] inception_5b/relu_pool_proj <- inception_5b/pool_proj
I0403 04:43:13.201701  4599 net.cpp:386] inception_5b/relu_pool_proj -> inception_5b/pool_proj (in-place)
I0403 04:43:13.201721  4599 net.cpp:141] Setting up inception_5b/relu_pool_proj
I0403 04:43:13.201740  4599 net.cpp:148] Top shape: 24 128 7 7 (150528)
I0403 04:43:13.201755  4599 net.cpp:156] Memory required for data: 1341047232
I0403 04:43:13.201768  4599 layer_factory.hpp:77] Creating layer inception_5b/output
I0403 04:43:13.201786  4599 net.cpp:91] Creating Layer inception_5b/output
I0403 04:43:13.201808  4599 net.cpp:425] inception_5b/output <- inception_5b/1x1
I0403 04:43:13.201834  4599 net.cpp:425] inception_5b/output <- inception_5b/3x3
I0403 04:43:13.201856  4599 net.cpp:425] inception_5b/output <- inception_5b/5x5
I0403 04:43:13.201879  4599 net.cpp:425] inception_5b/output <- inception_5b/pool_proj
I0403 04:43:13.201901  4599 net.cpp:399] inception_5b/output -> inception_5b/output
I0403 04:43:13.201944  4599 net.cpp:141] Setting up inception_5b/output
I0403 04:43:13.201969  4599 net.cpp:148] Top shape: 24 1024 7 7 (1204224)
I0403 04:43:13.201985  4599 net.cpp:156] Memory required for data: 1345864128
I0403 04:43:13.202000  4599 layer_factory.hpp:77] Creating layer pool5/7x7_s1
I0403 04:43:13.202018  4599 net.cpp:91] Creating Layer pool5/7x7_s1
I0403 04:43:13.202034  4599 net.cpp:425] pool5/7x7_s1 <- inception_5b/output
I0403 04:43:13.202051  4599 net.cpp:399] pool5/7x7_s1 -> pool5/7x7_s1
I0403 04:43:13.202091  4599 net.cpp:141] Setting up pool5/7x7_s1
I0403 04:43:13.202113  4599 net.cpp:148] Top shape: 24 1024 1 1 (24576)
I0403 04:43:13.202128  4599 net.cpp:156] Memory required for data: 1345962432
I0403 04:43:13.202142  4599 layer_factory.hpp:77] Creating layer pool5/drop_7x7_s1
I0403 04:43:13.202160  4599 net.cpp:91] Creating Layer pool5/drop_7x7_s1
I0403 04:43:13.202177  4599 net.cpp:425] pool5/drop_7x7_s1 <- pool5/7x7_s1
I0403 04:43:13.202196  4599 net.cpp:386] pool5/drop_7x7_s1 -> pool5/7x7_s1 (in-place)
I0403 04:43:13.202235  4599 net.cpp:141] Setting up pool5/drop_7x7_s1
I0403 04:43:13.202256  4599 net.cpp:148] Top shape: 24 1024 1 1 (24576)
I0403 04:43:13.202271  4599 net.cpp:156] Memory required for data: 1346060736
I0403 04:43:13.202286  4599 layer_factory.hpp:77] Creating layer loss3/classifier_plantvillage
I0403 04:43:13.202306  4599 net.cpp:91] Creating Layer loss3/classifier_plantvillage
I0403 04:43:13.202322  4599 net.cpp:425] loss3/classifier_plantvillage <- pool5/7x7_s1
I0403 04:43:13.202342  4599 net.cpp:399] loss3/classifier_plantvillage -> loss3/classifier_plantvillage
I0403 04:43:13.202664  4599 net.cpp:141] Setting up loss3/classifier_plantvillage
I0403 04:43:13.202688  4599 net.cpp:148] Top shape: 24 38 (912)
I0403 04:43:13.202704  4599 net.cpp:156] Memory required for data: 1346064384
I0403 04:43:13.202723  4599 layer_factory.hpp:77] Creating layer loss3/classifier_plantvillage_loss3/classifier_plantvillage_0_split
I0403 04:43:13.202757  4599 net.cpp:91] Creating Layer loss3/classifier_plantvillage_loss3/classifier_plantvillage_0_split
I0403 04:43:13.202775  4599 net.cpp:425] loss3/classifier_plantvillage_loss3/classifier_plantvillage_0_split <- loss3/classifier_plantvillage
I0403 04:43:13.202796  4599 net.cpp:399] loss3/classifier_plantvillage_loss3/classifier_plantvillage_0_split -> loss3/classifier_plantvillage_loss3/classifier_plantvillage_0_split_0
I0403 04:43:13.202818  4599 net.cpp:399] loss3/classifier_plantvillage_loss3/classifier_plantvillage_0_split -> loss3/classifier_plantvillage_loss3/classifier_plantvillage_0_split_1
I0403 04:43:13.202839  4599 net.cpp:399] loss3/classifier_plantvillage_loss3/classifier_plantvillage_0_split -> loss3/classifier_plantvillage_loss3/classifier_plantvillage_0_split_2
I0403 04:43:13.202903  4599 net.cpp:141] Setting up loss3/classifier_plantvillage_loss3/classifier_plantvillage_0_split
I0403 04:43:13.202926  4599 net.cpp:148] Top shape: 24 38 (912)
I0403 04:43:13.202941  4599 net.cpp:148] Top shape: 24 38 (912)
I0403 04:43:13.202956  4599 net.cpp:148] Top shape: 24 38 (912)
I0403 04:43:13.202970  4599 net.cpp:156] Memory required for data: 1346075328
I0403 04:43:13.202985  4599 layer_factory.hpp:77] Creating layer loss1/loss
I0403 04:43:13.203002  4599 net.cpp:91] Creating Layer loss1/loss
I0403 04:43:13.203018  4599 net.cpp:425] loss1/loss <- loss1/classifier_plantvillage_loss1/classifier_plantvillage_0_split_0
I0403 04:43:13.203038  4599 net.cpp:425] loss1/loss <- label_data_1_split_0
…
