…
I0403 02:30:37.102658 23740 net.cpp:313] The NetState phase (0) differed from the phase (1) specified by a rule in layer accuracy
I0403 02:30:37.103497 23740 net.cpp:49] Initializing net from parameters: 
state {
  phase: TRAIN
}
layer {
  name: "data"
  type: "Data"
  top: "data"
  top: "label"
  include {
    phase: TRAIN
  }
  transform_param {
    mirror: true
    crop_size: 227
    mean_file: "/home/mohanty/data/final_dataset/lmdb/segmented-40-60/mean.binaryproto"
  }
  data_param {
    source: "/home/mohanty/data/final_dataset/lmdb/segmented-40-60/train_db"
    batch_size: 100
    backend: LMDB
  }
}
layer {
  name: "conv1"
  type: "Convolution"
  bottom: "data"
  top: "conv1"
  param {
    lr_mult: 1
    decay_mult: 1
  }
  param {
    lr_mult: 2
    decay_mult: 0
  }
  convolution_param {
    num_output: 96
    kernel_size: 11
    stride: 4
    weight_filler {
      type: "gaussian"
      std: 0.01
    }
    bias_filler {
      type: "constant"
      value: 0
    }
  }
}
layer {
  name: "relu1"
  type: "ReLU"
  bottom: "conv1"
  top: "conv1"
}
layer {
  name: "norm1"
  type: "LRN"
  bottom: "conv1"
  top: "norm1"
  lrn_param {
    local_size: 5
    alpha: 0.0001
    beta: 0.75
  }
}
layer {
  name: "pool1"
  type: "Pooling"
  bottom: "norm1"
  top: "pool1"
  pooling_param {
    pool: MAX
    kernel_size: 3
    stride: 2
  }
}
layer {
  name: "conv2"
  type: "Convolution"
  bottom: "pool1"
  top: "conv2"
  param {
    lr_mult: 1
    decay_mult: 1
  }
  param {
    lr_mult: 2
    decay_mult: 0
  }
  convolution_param {
    num_output: 256
    pad: 2
    kernel_size: 5
    group: 2
    weight_filler {
      type: "gaussian"
      std: 0.01
    }
    bias_filler {
      type: "constant"
      value: 0.1
    }
  }
}
layer {
  name: "relu2"
  type: "ReLU"
  bottom: "conv2"
  top: "conv2"
}
layer {
  name: "norm2"
  type: "LRN"
  bottom: "conv2"
  top: "norm2"
  lrn_param {
    local_size: 5
    alpha: 0.0001
    beta: 0.75
  }
}
layer {
  name: "pool2"
  type: "Pooling"
  bottom: "norm2"
  top: "pool2"
  pooling_param {
    pool: MAX
    kernel_size: 3
    stride: 2
  }
}
layer {
  name: "conv3"
  type: "Convolution"
  bottom: "pool2"
  top: "conv3"
  param {
    lr_mult: 1
    decay_mult: 1
  }
  param {
    lr_mult: 2
    decay_mult: 0
  }
  convolution_param {
    num_output: 384
    pad: 1
    kernel_size: 3
    weight_filler {
      type: "gaussian"
      std: 0.01
    }
    bias_filler {
      type: "constant"
      value: 0
    }
  }
}
layer {
  name: "relu3"
  type: "ReLU"
  bottom: "conv3"
  top: "conv3"
}
layer {
  name: "conv4"
  type: "Convolution"
  bottom: "conv3"
  top: "conv4"
  param {
    lr_mult: 1
    decay_mult: 1
  }
  param {
    lr_mult: 2
    decay_mult: 0
  }
  convolution_param {
    num_output: 384
    pad: 1
    kernel_size: 3
    group: 2
    weight_filler {
      type: "gaussian"
      std: 0.01
    }
    bias_filler {
      type: "constant"
      value: 0.1
    }
  }
}
layer {
  name: "relu4"
  type: "ReLU"
  bottom: "conv4"
  top: "conv4"
}
layer {
  name: "conv5"
  type: "Convolution"
  bottom: "conv4"
  top: "conv5"
  param {
    lr_mult: 1
    decay_mult: 1
  }
  param {
    lr_mult: 2
    decay_mult: 0
  }
  convolution_param {
    num_output: 256
    pad: 1
    kernel_size: 3
    group: 2
    weight_filler {
      type: "gaussian"
      std: 0.01
    }
    bias_filler {
      type: "constant"
      value: 0.1
    }
  }
}
layer {
  name: "relu5"
  type: "ReLU"
  bottom: "conv5"
  top: "conv5"
}
layer {
  name: "pool5"
  type: "Pooling"
  bottom: "conv5"
  top: "pool5"
  pooling_param {
    pool: MAX
    kernel_size: 3
    stride: 2
  }
}
layer {
  name: "fc6"
  type: "InnerProduct"
  bottom: "pool5"
  top: "fc6"
  param {
    lr_mult: 1
    decay_mult: 1
  }
  param {
    lr_mult: 2
    decay_mult: 0
  }
  inner_product_param {
    num_output: 4096
    weight_filler {
      type: "gaussian"
      std: 0.005
    }
    bias_filler {
      type: "constant"
      value: 0.1
    }
  }
}
layer {
  name: "relu6"
  type: "ReLU"
  bottom: "fc6"
  top: "fc6"
}
layer {
  name: "drop6"
  type: "Dropout"
  bottom: "fc6"
  top: "fc6"
  dropout_param {
    dropout_ratio: 0.5
  }
}
layer {
  name: "fc7"
  type: "InnerProduct"
  bottom: "fc6"
  top: "fc7"
  param {
    lr_mult: 1
    decay_mult: 1
  }
  param {
    lr_mult: 2
    decay_mult: 0
  }
  inner_product_param {
    num_output: 4096
    weight_filler {
      type: "gaussian"
      std: 0.005
    }
    bias_filler {
      type: "constant"
      value: 0.1
    }
  }
}
layer {
  name: "relu7"
  type: "ReLU"
  bottom: "fc7"
  top: "fc7"
}
layer {
  name: "drop7"
  type: "Dropout"
  bottom: "fc7"
  top: "fc7"
  dropout_param {
    dropout_ratio: 0.5
  }
}
layer {
  name: "fc8_plantvillage"
  type: "InnerProduct"
  bottom: "fc7"
  top: "fc8_plantvillage"
  param {
    lr_mult: 1
    decay_mult: 1
  }
  param {
    lr_mult: 2
    decay_mult: 0
  }
  inner_product_param {
    num_output: 38
    weight_filler {
      type: "gaussian"
      std: 0.01
    }
    bias_filler {
      type: "constant"
      value: 0
    }
  }
}
layer {
  name: "loss"
  type: "SoftmaxWithLoss"
  bottom: "fc8_plantvillage"
  bottom: "label"
  top: "loss"
}
I0403 02:30:37.105268 23740 layer_factory.hpp:77] Creating layer data
I0403 02:30:37.106173 23740 net.cpp:91] Creating Layer data
I0403 02:30:37.106283 23740 net.cpp:399] data -> data
I0403 02:30:37.106477 23740 net.cpp:399] data -> label
I0403 02:30:37.106549 23740 data_transformer.cpp:25] Loading mean file from: /home/mohanty/data/final_dataset/lmdb/segmented-40-60/mean.binaryproto
I0403 02:30:37.127329 23747 db_lmdb.cpp:38] Opened lmdb /home/mohanty/data/final_dataset/lmdb/segmented-40-60/train_db
I0403 02:30:37.144562 23740 data_layer.cpp:41] output data size: 100,3,227,227
I0403 02:30:37.285425 23740 net.cpp:141] Setting up data
I0403 02:30:37.285537 23740 net.cpp:148] Top shape: 100 3 227 227 (15458700)
I0403 02:30:37.285564 23740 net.cpp:148] Top shape: 100 (100)
I0403 02:30:37.285583 23740 net.cpp:156] Memory required for data: 61835200
I0403 02:30:37.285619 23740 layer_factory.hpp:77] Creating layer conv1
I0403 02:30:37.285675 23740 net.cpp:91] Creating Layer conv1
I0403 02:30:37.285701 23740 net.cpp:425] conv1 <- data
I0403 02:30:37.285739 23740 net.cpp:399] conv1 -> conv1
I0403 02:30:37.295151 23740 net.cpp:141] Setting up conv1
I0403 02:30:37.295195 23740 net.cpp:148] Top shape: 100 96 55 55 (29040000)
I0403 02:30:37.295217 23740 net.cpp:156] Memory required for data: 177995200
I0403 02:30:37.295260 23740 layer_factory.hpp:77] Creating layer relu1
I0403 02:30:37.295294 23740 net.cpp:91] Creating Layer relu1
I0403 02:30:37.295315 23740 net.cpp:425] relu1 <- conv1
I0403 02:30:37.295338 23740 net.cpp:386] relu1 -> conv1 (in-place)
I0403 02:30:37.295367 23740 net.cpp:141] Setting up relu1
I0403 02:30:37.295390 23740 net.cpp:148] Top shape: 100 96 55 55 (29040000)
I0403 02:30:37.295408 23740 net.cpp:156] Memory required for data: 294155200
I0403 02:30:37.295425 23740 layer_factory.hpp:77] Creating layer norm1
I0403 02:30:37.295449 23740 net.cpp:91] Creating Layer norm1
I0403 02:30:37.295503 23740 net.cpp:425] norm1 <- conv1
I0403 02:30:37.295527 23740 net.cpp:399] norm1 -> norm1
I0403 02:30:37.295598 23740 net.cpp:141] Setting up norm1
I0403 02:30:37.295624 23740 net.cpp:148] Top shape: 100 96 55 55 (29040000)
I0403 02:30:37.295642 23740 net.cpp:156] Memory required for data: 410315200
I0403 02:30:37.295660 23740 layer_factory.hpp:77] Creating layer pool1
I0403 02:30:37.295686 23740 net.cpp:91] Creating Layer pool1
I0403 02:30:37.295706 23740 net.cpp:425] pool1 <- norm1
I0403 02:30:37.295732 23740 net.cpp:399] pool1 -> pool1
I0403 02:30:37.295827 23740 net.cpp:141] Setting up pool1
I0403 02:30:37.295858 23740 net.cpp:148] Top shape: 100 96 27 27 (6998400)
I0403 02:30:37.295876 23740 net.cpp:156] Memory required for data: 438308800
I0403 02:30:37.295893 23740 layer_factory.hpp:77] Creating layer conv2
I0403 02:30:37.295919 23740 net.cpp:91] Creating Layer conv2
I0403 02:30:37.295943 23740 net.cpp:425] conv2 <- pool1
I0403 02:30:37.295971 23740 net.cpp:399] conv2 -> conv2
I0403 02:30:37.296453 23749 blocking_queue.cpp:50] Waiting for data
I0403 02:30:37.312144 23740 net.cpp:141] Setting up conv2
I0403 02:30:37.312182 23740 net.cpp:148] Top shape: 100 256 27 27 (18662400)
I0403 02:30:37.312202 23740 net.cpp:156] Memory required for data: 512958400
I0403 02:30:37.312228 23740 layer_factory.hpp:77] Creating layer relu2
I0403 02:30:37.312252 23740 net.cpp:91] Creating Layer relu2
I0403 02:30:37.312273 23740 net.cpp:425] relu2 <- conv2
I0403 02:30:37.312293 23740 net.cpp:386] relu2 -> conv2 (in-place)
I0403 02:30:37.312315 23740 net.cpp:141] Setting up relu2
I0403 02:30:37.312336 23740 net.cpp:148] Top shape: 100 256 27 27 (18662400)
I0403 02:30:37.312353 23740 net.cpp:156] Memory required for data: 587608000
I0403 02:30:37.312371 23740 layer_factory.hpp:77] Creating layer norm2
I0403 02:30:37.312392 23740 net.cpp:91] Creating Layer norm2
I0403 02:30:37.312412 23740 net.cpp:425] norm2 <- conv2
I0403 02:30:37.312433 23740 net.cpp:399] norm2 -> norm2
I0403 02:30:37.312490 23740 net.cpp:141] Setting up norm2
I0403 02:30:37.312520 23740 net.cpp:148] Top shape: 100 256 27 27 (18662400)
I0403 02:30:37.312536 23740 net.cpp:156] Memory required for data: 662257600
I0403 02:30:37.312554 23740 layer_factory.hpp:77] Creating layer pool2
I0403 02:30:37.312579 23740 net.cpp:91] Creating Layer pool2
I0403 02:30:37.312599 23740 net.cpp:425] pool2 <- norm2
I0403 02:30:37.312620 23740 net.cpp:399] pool2 -> pool2
I0403 02:30:37.312675 23740 net.cpp:141] Setting up pool2
I0403 02:30:37.312702 23740 net.cpp:148] Top shape: 100 256 13 13 (4326400)
I0403 02:30:37.312721 23740 net.cpp:156] Memory required for data: 679563200
I0403 02:30:37.312737 23740 layer_factory.hpp:77] Creating layer conv3
I0403 02:30:37.312763 23740 net.cpp:91] Creating Layer conv3
I0403 02:30:37.312783 23740 net.cpp:425] conv3 <- pool2
I0403 02:30:37.312808 23740 net.cpp:399] conv3 -> conv3
I0403 02:30:37.354611 23740 net.cpp:141] Setting up conv3
I0403 02:30:37.354653 23740 net.cpp:148] Top shape: 100 384 13 13 (6489600)
I0403 02:30:37.354672 23740 net.cpp:156] Memory required for data: 705521600
I0403 02:30:37.354698 23740 layer_factory.hpp:77] Creating layer relu3
I0403 02:30:37.354722 23740 net.cpp:91] Creating Layer relu3
I0403 02:30:37.354740 23740 net.cpp:425] relu3 <- conv3
I0403 02:30:37.354760 23740 net.cpp:386] relu3 -> conv3 (in-place)
I0403 02:30:37.354784 23740 net.cpp:141] Setting up relu3
I0403 02:30:37.354804 23740 net.cpp:148] Top shape: 100 384 13 13 (6489600)
I0403 02:30:37.354822 23740 net.cpp:156] Memory required for data: 731480000
I0403 02:30:37.354840 23740 layer_factory.hpp:77] Creating layer conv4
I0403 02:30:37.354866 23740 net.cpp:91] Creating Layer conv4
I0403 02:30:37.354887 23740 net.cpp:425] conv4 <- conv3
I0403 02:30:37.354910 23740 net.cpp:399] conv4 -> conv4
I0403 02:30:37.386414 23740 net.cpp:141] Setting up conv4
I0403 02:30:37.386451 23740 net.cpp:148] Top shape: 100 384 13 13 (6489600)
I0403 02:30:37.386471 23740 net.cpp:156] Memory required for data: 757438400
I0403 02:30:37.386513 23740 layer_factory.hpp:77] Creating layer relu4
I0403 02:30:37.386539 23740 net.cpp:91] Creating Layer relu4
I0403 02:30:37.386559 23740 net.cpp:425] relu4 <- conv4
I0403 02:30:37.386580 23740 net.cpp:386] relu4 -> conv4 (in-place)
I0403 02:30:37.386603 23740 net.cpp:141] Setting up relu4
I0403 02:30:37.386625 23740 net.cpp:148] Top shape: 100 384 13 13 (6489600)
I0403 02:30:37.386641 23740 net.cpp:156] Memory required for data: 783396800
I0403 02:30:37.386658 23740 layer_factory.hpp:77] Creating layer conv5
I0403 02:30:37.386685 23740 net.cpp:91] Creating Layer conv5
I0403 02:30:37.386704 23740 net.cpp:425] conv5 <- conv4
I0403 02:30:37.386728 23740 net.cpp:399] conv5 -> conv5
I0403 02:30:37.407871 23740 net.cpp:141] Setting up conv5
I0403 02:30:37.407912 23740 net.cpp:148] Top shape: 100 256 13 13 (4326400)
I0403 02:30:37.407930 23740 net.cpp:156] Memory required for data: 800702400
I0403 02:30:37.407961 23740 layer_factory.hpp:77] Creating layer relu5
I0403 02:30:37.407989 23740 net.cpp:91] Creating Layer relu5
I0403 02:30:37.408009 23740 net.cpp:425] relu5 <- conv5
I0403 02:30:37.408028 23740 net.cpp:386] relu5 -> conv5 (in-place)
I0403 02:30:37.408052 23740 net.cpp:141] Setting up relu5
I0403 02:30:37.408072 23740 net.cpp:148] Top shape: 100 256 13 13 (4326400)
I0403 02:30:37.408089 23740 net.cpp:156] Memory required for data: 818008000
I0403 02:30:37.408107 23740 layer_factory.hpp:77] Creating layer pool5
I0403 02:30:37.408128 23740 net.cpp:91] Creating Layer pool5
I0403 02:30:37.408145 23740 net.cpp:425] pool5 <- conv5
I0403 02:30:37.408169 23740 net.cpp:399] pool5 -> pool5
I0403 02:30:37.408227 23740 net.cpp:141] Setting up pool5
I0403 02:30:37.408255 23740 net.cpp:148] Top shape: 100 256 6 6 (921600)
I0403 02:30:37.408273 23740 net.cpp:156] Memory required for data: 821694400
I0403 02:30:37.408291 23740 layer_factory.hpp:77] Creating layer fc6
I0403 02:30:37.408344 23740 net.cpp:91] Creating Layer fc6
I0403 02:30:37.408367 23740 net.cpp:425] fc6 <- pool5
I0403 02:30:37.408390 23740 net.cpp:399] fc6 -> fc6
I0403 02:30:38.988340 23740 net.cpp:141] Setting up fc6
I0403 02:30:38.988421 23740 net.cpp:148] Top shape: 100 4096 (409600)
I0403 02:30:38.988437 23740 net.cpp:156] Memory required for data: 823332800
I0403 02:30:38.988458 23740 layer_factory.hpp:77] Creating layer relu6
I0403 02:30:38.988484 23740 net.cpp:91] Creating Layer relu6
I0403 02:30:38.988500 23740 net.cpp:425] relu6 <- fc6
I0403 02:30:38.988519 23740 net.cpp:386] relu6 -> fc6 (in-place)
I0403 02:30:38.988540 23740 net.cpp:141] Setting up relu6
I0403 02:30:38.988555 23740 net.cpp:148] Top shape: 100 4096 (409600)
I0403 02:30:38.988569 23740 net.cpp:156] Memory required for data: 824971200
I0403 02:30:38.988582 23740 layer_factory.hpp:77] Creating layer drop6
I0403 02:30:38.988605 23740 net.cpp:91] Creating Layer drop6
I0403 02:30:38.988621 23740 net.cpp:425] drop6 <- fc6
I0403 02:30:38.988636 23740 net.cpp:386] drop6 -> fc6 (in-place)
I0403 02:30:38.988680 23740 net.cpp:141] Setting up drop6
I0403 02:30:38.988706 23740 net.cpp:148] Top shape: 100 4096 (409600)
I0403 02:30:38.988721 23740 net.cpp:156] Memory required for data: 826609600
I0403 02:30:38.988735 23740 layer_factory.hpp:77] Creating layer fc7
I0403 02:30:38.988755 23740 net.cpp:91] Creating Layer fc7
I0403 02:30:38.988770 23740 net.cpp:425] fc7 <- fc6
I0403 02:30:38.988786 23740 net.cpp:399] fc7 -> fc7
I0403 02:30:39.602583 23740 net.cpp:141] Setting up fc7
I0403 02:30:39.602663 23740 net.cpp:148] Top shape: 100 4096 (409600)
I0403 02:30:39.602679 23740 net.cpp:156] Memory required for data: 828248000
I0403 02:30:39.602701 23740 layer_factory.hpp:77] Creating layer relu7
I0403 02:30:39.602725 23740 net.cpp:91] Creating Layer relu7
I0403 02:30:39.602742 23740 net.cpp:425] relu7 <- fc7
I0403 02:30:39.602762 23740 net.cpp:386] relu7 -> fc7 (in-place)
I0403 02:30:39.602783 23740 net.cpp:141] Setting up relu7
I0403 02:30:39.602800 23740 net.cpp:148] Top shape: 100 4096 (409600)
I0403 02:30:39.602814 23740 net.cpp:156] Memory required for data: 829886400
I0403 02:30:39.602829 23740 layer_factory.hpp:77] Creating layer drop7
I0403 02:30:39.602879 23740 net.cpp:91] Creating Layer drop7
I0403 02:30:39.602896 23740 net.cpp:425] drop7 <- fc7
I0403 02:30:39.602926 23740 net.cpp:386] drop7 -> fc7 (in-place)
I0403 02:30:39.602987 23740 net.cpp:141] Setting up drop7
I0403 02:30:39.603010 23740 net.cpp:148] Top shape: 100 4096 (409600)
I0403 02:30:39.603026 23740 net.cpp:156] Memory required for data: 831524800
I0403 02:30:39.603041 23740 layer_factory.hpp:77] Creating layer fc8_plantvillage
I0403 02:30:39.603062 23740 net.cpp:91] Creating Layer fc8_plantvillage
I0403 02:30:39.603078 23740 net.cpp:425] fc8_plantvillage <- fc7
I0403 02:30:39.603099 23740 net.cpp:399] fc8_plantvillage -> fc8_plantvillage
I0403 02:30:39.611394 23740 net.cpp:141] Setting up fc8_plantvillage
I0403 02:30:39.611479 23740 net.cpp:148] Top shape: 100 38 (3800)
I0403 02:30:39.611508 23740 net.cpp:156] Memory required for data: 831540000
I0403 02:30:39.611552 23740 layer_factory.hpp:77] Creating layer loss
I0403 02:30:39.611615 23740 net.cpp:91] Creating Layer loss
I0403 02:30:39.611660 23740 net.cpp:425] loss <- fc8_plantvillage
I0403 02:30:39.611677 23740 net.cpp:425] loss <- label
I0403 02:30:39.611726 23740 net.cpp:399] loss -> loss
I0403 02:30:39.611778 23740 layer_factory.hpp:77] Creating layer loss
…
I0403 02:30:39.614491 23740 net.cpp:313] The NetState phase (1) differed from the phase (0) specified by a rule in layer data
I0403 02:30:39.615211 23740 net.cpp:49] Initializing net from parameters: 
state {
  phase: TEST
}
layer {
  name: "data"
  type: "Data"
  top: "data"
  top: "label"
  include {
    phase: TEST
  }
  transform_param {
    crop_size: 227
    mean_file: "/home/mohanty/data/final_dataset/lmdb/segmented-40-60/mean.binaryproto"
  }
  data_param {
    source: "/home/mohanty/data/final_dataset/lmdb/segmented-40-60/test_db"
    batch_size: 100
    backend: LMDB
  }
}
layer {
  name: "conv1"
  type: "Convolution"
  bottom: "data"
  top: "conv1"
  param {
    lr_mult: 1
    decay_mult: 1
  }
  param {
    lr_mult: 2
    decay_mult: 0
  }
  convolution_param {
    num_output: 96
    kernel_size: 11
    stride: 4
    weight_filler {
      type: "gaussian"
      std: 0.01
    }
    bias_filler {
      type: "constant"
      value: 0
    }
  }
}
layer {
  name: "relu1"
  type: "ReLU"
  bottom: "conv1"
  top: "conv1"
}
layer {
  name: "norm1"
  type: "LRN"
  bottom: "conv1"
  top: "norm1"
  lrn_param {
    local_size: 5
    alpha: 0.0001
    beta: 0.75
  }
}
layer {
  name: "pool1"
  type: "Pooling"
  bottom: "norm1"
  top: "pool1"
  pooling_param {
    pool: MAX
    kernel_size: 3
    stride: 2
  }
}
layer {
  name: "conv2"
  type: "Convolution"
  bottom: "pool1"
  top: "conv2"
  param {
    lr_mult: 1
    decay_mult: 1
  }
  param {
    lr_mult: 2
    decay_mult: 0
  }
  convolution_param {
    num_output: 256
    pad: 2
    kernel_size: 5
    group: 2
    weight_filler {
      type: "gaussian"
      std: 0.01
    }
    bias_filler {
      type: "constant"
      value: 0.1
    }
  }
}
layer {
  name: "relu2"
  type: "ReLU"
  bottom: "conv2"
  top: "conv2"
}
layer {
  name: "norm2"
  type: "LRN"
  bottom: "conv2"
  top: "norm2"
  lrn_param {
    local_size: 5
    alpha: 0.0001
    beta: 0.75
  }
}
layer {
  name: "pool2"
  type: "Pooling"
  bottom: "norm2"
  top: "pool2"
  pooling_param {
    pool: MAX
    kernel_size: 3
    stride: 2
  }
}
layer {
  name: "conv3"
  type: "Convolution"
  bottom: "pool2"
  top: "conv3"
  param {
    lr_mult: 1
    decay_mult: 1
  }
  param {
    lr_mult: 2
    decay_mult: 0
  }
  convolution_param {
    num_output: 384
    pad: 1
    kernel_size: 3
    weight_filler {
      type: "gaussian"
      std: 0.01
    }
    bias_filler {
      type: "constant"
      value: 0
    }
  }
}
layer {
  name: "relu3"
  type: "ReLU"
  bottom: "conv3"
  top: "conv3"
}
layer {
  name: "conv4"
  type: "Convolution"
  bottom: "conv3"
  top: "conv4"
  param {
    lr_mult: 1
    decay_mult: 1
  }
  param {
    lr_mult: 2
    decay_mult: 0
  }
  convolution_param {
    num_output: 384
    pad: 1
    kernel_size: 3
    group: 2
    weight_filler {
      type: "gaussian"
      std: 0.01
    }
    bias_filler {
      type: "constant"
      value: 0.1
    }
  }
}
layer {
  name: "relu4"
  type: "ReLU"
  bottom: "conv4"
  top: "conv4"
}
layer {
  name: "conv5"
  type: "Convolution"
  bottom: "conv4"
  top: "conv5"
  param {
    lr_mult: 1
    decay_mult: 1
  }
  param {
    lr_mult: 2
    decay_mult: 0
  }
  convolution_param {
    num_output: 256
    pad: 1
    kernel_size: 3
    group: 2
    weight_filler {
      type: "gaussian"
      std: 0.01
    }
    bias_filler {
      type: "constant"
      value: 0.1
    }
  }
}
layer {
  name: "relu5"
  type: "ReLU"
  bottom: "conv5"
  top: "conv5"
}
layer {
  name: "pool5"
  type: "Pooling"
  bottom: "conv5"
  top: "pool5"
  pooling_param {
    pool: MAX
    kernel_size: 3
    stride: 2
  }
}
layer {
  name: "fc6"
  type: "InnerProduct"
  bottom: "pool5"
  top: "fc6"
  param {
    lr_mult: 1
    decay_mult: 1
  }
  param {
    lr_mult: 2
    decay_mult: 0
  }
  inner_product_param {
    num_output: 4096
    weight_filler {
      type: "gaussian"
      std: 0.005
    }
    bias_filler {
      type: "constant"
      value: 0.1
    }
  }
}
layer {
  name: "relu6"
  type: "ReLU"
  bottom: "fc6"
  top: "fc6"
}
layer {
  name: "drop6"
  type: "Dropout"
  bottom: "fc6"
  top: "fc6"
  dropout_param {
    dropout_ratio: 0.5
  }
}
layer {
  name: "fc7"
  type: "InnerProduct"
  bottom: "fc6"
  top: "fc7"
  param {
    lr_mult: 1
    decay_mult: 1
  }
  param {
    lr_mult: 2
    decay_mult: 0
  }
  inner_product_param {
    num_output: 4096
    weight_filler {
      type: "gaussian"
      std: 0.005
    }
    bias_filler {
      type: "constant"
      value: 0.1
    }
  }
}
layer {
  name: "relu7"
  type: "ReLU"
  bottom: "fc7"
  top: "fc7"
}
layer {
  name: "drop7"
  type: "Dropout"
  bottom: "fc7"
  top: "fc7"
  dropout_param {
    dropout_ratio: 0.5
  }
}
layer {
  name: "fc8_plantvillage"
  type: "InnerProduct"
  bottom: "fc7"
  top: "fc8_plantvillage"
  param {
    lr_mult: 1
    decay_mult: 1
  }
  param {
    lr_mult: 2
    decay_mult: 0
  }
  inner_product_param {
    num_output: 38
    weight_filler {
      type: "gaussian"
      std: 0.01
    }
    bias_filler {
      type: "constant"
      value: 0
    }
  }
}
layer {
  name: "loss"
  type: "SoftmaxWithLoss"
  bottom: "fc8_plantvillage"
  bottom: "label"
  top: "loss"
}
layer {
  name: "accuracy"
  type: "Accuracy"
  bottom: "fc8_plantvillage"
  bottom: "label"
  top: "accuracy"
  include {
    phase: TEST
  }
}
I0403 02:30:39.615406 23740 layer_factory.hpp:77] Creating layer data
I0403 02:30:39.615572 23740 net.cpp:91] Creating Layer data
I0403 02:30:39.615620 23740 net.cpp:399] data -> data
I0403 02:30:39.615646 23740 net.cpp:399] data -> label
I0403 02:30:39.615690 23740 data_transformer.cpp:25] Loading mean file from: /home/mohanty/data/final_dataset/lmdb/segmented-40-60/mean.binaryproto
I0403 02:30:39.625341 23753 db_lmdb.cpp:38] Opened lmdb /home/mohanty/data/final_dataset/lmdb/segmented-40-60/test_db
I0403 02:30:39.627796 23740 data_layer.cpp:41] output data size: 100,3,227,227
I0403 02:30:39.807796 23740 net.cpp:141] Setting up data
I0403 02:30:39.807873 23740 net.cpp:148] Top shape: 100 3 227 227 (15458700)
I0403 02:30:39.807920 23740 net.cpp:148] Top shape: 100 (100)
I0403 02:30:39.807936 23740 net.cpp:156] Memory required for data: 61835200
I0403 02:30:39.807953 23740 layer_factory.hpp:77] Creating layer label_data_1_split
I0403 02:30:39.807996 23740 net.cpp:91] Creating Layer label_data_1_split
I0403 02:30:39.808014 23740 net.cpp:425] label_data_1_split <- label
I0403 02:30:39.808035 23740 net.cpp:399] label_data_1_split -> label_data_1_split_0
I0403 02:30:39.808058 23740 net.cpp:399] label_data_1_split -> label_data_1_split_1
I0403 02:30:39.808125 23740 net.cpp:141] Setting up label_data_1_split
I0403 02:30:39.808150 23740 net.cpp:148] Top shape: 100 (100)
I0403 02:30:39.808166 23740 net.cpp:148] Top shape: 100 (100)
I0403 02:30:39.808179 23740 net.cpp:156] Memory required for data: 61836000
I0403 02:30:39.808194 23740 layer_factory.hpp:77] Creating layer conv1
I0403 02:30:39.808231 23740 net.cpp:91] Creating Layer conv1
I0403 02:30:39.808249 23740 net.cpp:425] conv1 <- data
I0403 02:30:39.808269 23740 net.cpp:399] conv1 -> conv1
I0403 02:30:39.809865 23740 net.cpp:141] Setting up conv1
I0403 02:30:39.809892 23740 net.cpp:148] Top shape: 100 96 55 55 (29040000)
I0403 02:30:39.809907 23740 net.cpp:156] Memory required for data: 177996000
I0403 02:30:39.809931 23740 layer_factory.hpp:77] Creating layer relu1
I0403 02:30:39.809952 23740 net.cpp:91] Creating Layer relu1
I0403 02:30:39.809973 23740 net.cpp:425] relu1 <- conv1
I0403 02:30:39.809990 23740 net.cpp:386] relu1 -> conv1 (in-place)
I0403 02:30:39.810011 23740 net.cpp:141] Setting up relu1
I0403 02:30:39.810029 23740 net.cpp:148] Top shape: 100 96 55 55 (29040000)
I0403 02:30:39.810042 23740 net.cpp:156] Memory required for data: 294156000
I0403 02:30:39.810065 23740 layer_factory.hpp:77] Creating layer norm1
I0403 02:30:39.810086 23740 net.cpp:91] Creating Layer norm1
I0403 02:30:39.810117 23740 net.cpp:425] norm1 <- conv1
I0403 02:30:39.810159 23740 net.cpp:399] norm1 -> norm1
I0403 02:30:39.810247 23740 net.cpp:141] Setting up norm1
I0403 02:30:39.810279 23740 net.cpp:148] Top shape: 100 96 55 55 (29040000)
I0403 02:30:39.810320 23740 net.cpp:156] Memory required for data: 410316000
I0403 02:30:39.810359 23740 layer_factory.hpp:77] Creating layer pool1
I0403 02:30:39.810400 23740 net.cpp:91] Creating Layer pool1
I0403 02:30:39.810416 23740 net.cpp:425] pool1 <- norm1
I0403 02:30:39.810456 23740 net.cpp:399] pool1 -> pool1
I0403 02:30:39.810530 23740 net.cpp:141] Setting up pool1
I0403 02:30:39.810564 23740 net.cpp:148] Top shape: 100 96 27 27 (6998400)
I0403 02:30:39.810602 23740 net.cpp:156] Memory required for data: 438309600
I0403 02:30:39.810648 23740 layer_factory.hpp:77] Creating layer conv2
I0403 02:30:39.810698 23740 net.cpp:91] Creating Layer conv2
I0403 02:30:39.810740 23740 net.cpp:425] conv2 <- pool1
I0403 02:30:39.810763 23740 net.cpp:399] conv2 -> conv2
I0403 02:30:39.832293 23740 net.cpp:141] Setting up conv2
I0403 02:30:39.853520 23740 net.cpp:148] Top shape: 100 256 27 27 (18662400)
I0403 02:30:39.853579 23740 net.cpp:156] Memory required for data: 512959200
I0403 02:30:39.853662 23740 layer_factory.hpp:77] Creating layer relu2
I0403 02:30:39.853756 23740 net.cpp:91] Creating Layer relu2
I0403 02:30:39.853822 23740 net.cpp:425] relu2 <- conv2
I0403 02:30:39.853893 23740 net.cpp:386] relu2 -> conv2 (in-place)
I0403 02:30:39.853991 23740 net.cpp:141] Setting up relu2
I0403 02:30:39.854059 23740 net.cpp:148] Top shape: 100 256 27 27 (18662400)
I0403 02:30:39.854140 23740 net.cpp:156] Memory required for data: 587608800
I0403 02:30:39.854210 23740 layer_factory.hpp:77] Creating layer norm2
I0403 02:30:39.854302 23740 net.cpp:91] Creating Layer norm2
I0403 02:30:39.854375 23740 net.cpp:425] norm2 <- conv2
I0403 02:30:39.854470 23740 net.cpp:399] norm2 -> norm2
I0403 02:30:39.854575 23740 net.cpp:141] Setting up norm2
I0403 02:30:39.854601 23740 net.cpp:148] Top shape: 100 256 27 27 (18662400)
I0403 02:30:39.854635 23740 net.cpp:156] Memory required for data: 662258400
I0403 02:30:39.854671 23740 layer_factory.hpp:77] Creating layer pool2
I0403 02:30:39.854708 23740 net.cpp:91] Creating Layer pool2
I0403 02:30:39.854725 23740 net.cpp:425] pool2 <- norm2
I0403 02:30:39.854771 23740 net.cpp:399] pool2 -> pool2
I0403 02:30:39.854820 23740 net.cpp:141] Setting up pool2
I0403 02:30:39.854869 23740 net.cpp:148] Top shape: 100 256 13 13 (4326400)
I0403 02:30:39.854884 23740 net.cpp:156] Memory required for data: 679564000
I0403 02:30:39.854899 23740 layer_factory.hpp:77] Creating layer conv3
I0403 02:30:39.854920 23740 net.cpp:91] Creating Layer conv3
I0403 02:30:39.854938 23740 net.cpp:425] conv3 <- pool2
I0403 02:30:39.854959 23740 net.cpp:399] conv3 -> conv3
I0403 02:30:39.893601 23740 net.cpp:141] Setting up conv3
I0403 02:30:39.893651 23740 net.cpp:148] Top shape: 100 384 13 13 (6489600)
I0403 02:30:39.893668 23740 net.cpp:156] Memory required for data: 705522400
I0403 02:30:39.893692 23740 layer_factory.hpp:77] Creating layer relu3
I0403 02:30:39.893717 23740 net.cpp:91] Creating Layer relu3
I0403 02:30:39.893733 23740 net.cpp:425] relu3 <- conv3
I0403 02:30:39.893805 23740 net.cpp:386] relu3 -> conv3 (in-place)
I0403 02:30:39.893831 23740 net.cpp:141] Setting up relu3
I0403 02:30:39.893847 23740 net.cpp:148] Top shape: 100 384 13 13 (6489600)
I0403 02:30:39.893862 23740 net.cpp:156] Memory required for data: 731480800
I0403 02:30:39.893877 23740 layer_factory.hpp:77] Creating layer conv4
I0403 02:30:39.893900 23740 net.cpp:91] Creating Layer conv4
I0403 02:30:39.893916 23740 net.cpp:425] conv4 <- conv3
I0403 02:30:39.893936 23740 net.cpp:399] conv4 -> conv4
I0403 02:30:39.921550 23740 net.cpp:141] Setting up conv4
I0403 02:30:39.921589 23740 net.cpp:148] Top shape: 100 384 13 13 (6489600)
I0403 02:30:39.921605 23740 net.cpp:156] Memory required for data: 757439200
I0403 02:30:39.921624 23740 layer_factory.hpp:77] Creating layer relu4
I0403 02:30:39.921644 23740 net.cpp:91] Creating Layer relu4
I0403 02:30:39.921661 23740 net.cpp:425] relu4 <- conv4
I0403 02:30:39.921679 23740 net.cpp:386] relu4 -> conv4 (in-place)
I0403 02:30:39.921700 23740 net.cpp:141] Setting up relu4
I0403 02:30:39.921716 23740 net.cpp:148] Top shape: 100 384 13 13 (6489600)
I0403 02:30:39.921731 23740 net.cpp:156] Memory required for data: 783397600
I0403 02:30:39.921746 23740 layer_factory.hpp:77] Creating layer conv5
I0403 02:30:39.921767 23740 net.cpp:91] Creating Layer conv5
I0403 02:30:39.921783 23740 net.cpp:425] conv5 <- conv4
I0403 02:30:39.921803 23740 net.cpp:399] conv5 -> conv5
I0403 02:30:39.940243 23740 net.cpp:141] Setting up conv5
I0403 02:30:39.940274 23740 net.cpp:148] Top shape: 100 256 13 13 (4326400)
I0403 02:30:39.940318 23740 net.cpp:156] Memory required for data: 800703200
I0403 02:30:39.940342 23740 layer_factory.hpp:77] Creating layer relu5
I0403 02:30:39.940362 23740 net.cpp:91] Creating Layer relu5
I0403 02:30:39.940379 23740 net.cpp:425] relu5 <- conv5
I0403 02:30:39.940397 23740 net.cpp:386] relu5 -> conv5 (in-place)
I0403 02:30:39.940417 23740 net.cpp:141] Setting up relu5
I0403 02:30:39.940434 23740 net.cpp:148] Top shape: 100 256 13 13 (4326400)
I0403 02:30:39.940448 23740 net.cpp:156] Memory required for data: 818008800
I0403 02:30:39.940462 23740 layer_factory.hpp:77] Creating layer pool5
I0403 02:30:39.940486 23740 net.cpp:91] Creating Layer pool5
I0403 02:30:39.940503 23740 net.cpp:425] pool5 <- conv5
I0403 02:30:39.940522 23740 net.cpp:399] pool5 -> pool5
I0403 02:30:39.940578 23740 net.cpp:141] Setting up pool5
I0403 02:30:39.940603 23740 net.cpp:148] Top shape: 100 256 6 6 (921600)
I0403 02:30:39.940618 23740 net.cpp:156] Memory required for data: 821695200
I0403 02:30:39.940632 23740 layer_factory.hpp:77] Creating layer fc6
I0403 02:30:39.940652 23740 net.cpp:91] Creating Layer fc6
I0403 02:30:39.940668 23740 net.cpp:425] fc6 <- pool5
I0403 02:30:39.940688 23740 net.cpp:399] fc6 -> fc6
I0403 02:30:41.372030 23740 net.cpp:141] Setting up fc6
I0403 02:30:41.372117 23740 net.cpp:148] Top shape: 100 4096 (409600)
I0403 02:30:41.372133 23740 net.cpp:156] Memory required for data: 823333600
I0403 02:30:41.372154 23740 layer_factory.hpp:77] Creating layer relu6
I0403 02:30:41.372180 23740 net.cpp:91] Creating Layer relu6
I0403 02:30:41.372198 23740 net.cpp:425] relu6 <- fc6
I0403 02:30:41.372218 23740 net.cpp:386] relu6 -> fc6 (in-place)
I0403 02:30:41.372239 23740 net.cpp:141] Setting up relu6
I0403 02:30:41.372256 23740 net.cpp:148] Top shape: 100 4096 (409600)
I0403 02:30:41.372268 23740 net.cpp:156] Memory required for data: 824972000
I0403 02:30:41.372282 23740 layer_factory.hpp:77] Creating layer drop6
I0403 02:30:41.372301 23740 net.cpp:91] Creating Layer drop6
I0403 02:30:41.372316 23740 net.cpp:425] drop6 <- fc6
I0403 02:30:41.372333 23740 net.cpp:386] drop6 -> fc6 (in-place)
I0403 02:30:41.372370 23740 net.cpp:141] Setting up drop6
I0403 02:30:41.372392 23740 net.cpp:148] Top shape: 100 4096 (409600)
I0403 02:30:41.372407 23740 net.cpp:156] Memory required for data: 826610400
I0403 02:30:41.372421 23740 layer_factory.hpp:77] Creating layer fc7
I0403 02:30:41.372440 23740 net.cpp:91] Creating Layer fc7
I0403 02:30:41.372454 23740 net.cpp:425] fc7 <- fc6
I0403 02:30:41.372473 23740 net.cpp:399] fc7 -> fc7
I0403 02:30:41.978278 23740 net.cpp:141] Setting up fc7
I0403 02:30:41.978360 23740 net.cpp:148] Top shape: 100 4096 (409600)
I0403 02:30:41.978377 23740 net.cpp:156] Memory required for data: 828248800
I0403 02:30:41.978400 23740 layer_factory.hpp:77] Creating layer relu7
I0403 02:30:41.978426 23740 net.cpp:91] Creating Layer relu7
I0403 02:30:41.978443 23740 net.cpp:425] relu7 <- fc7
I0403 02:30:41.978463 23740 net.cpp:386] relu7 -> fc7 (in-place)
I0403 02:30:41.978488 23740 net.cpp:141] Setting up relu7
I0403 02:30:41.978507 23740 net.cpp:148] Top shape: 100 4096 (409600)
I0403 02:30:41.978523 23740 net.cpp:156] Memory required for data: 829887200
I0403 02:30:41.978538 23740 layer_factory.hpp:77] Creating layer drop7
I0403 02:30:41.978557 23740 net.cpp:91] Creating Layer drop7
I0403 02:30:41.978574 23740 net.cpp:425] drop7 <- fc7
I0403 02:30:41.978590 23740 net.cpp:386] drop7 -> fc7 (in-place)
I0403 02:30:41.978636 23740 net.cpp:141] Setting up drop7
I0403 02:30:41.978658 23740 net.cpp:148] Top shape: 100 4096 (409600)
I0403 02:30:41.978673 23740 net.cpp:156] Memory required for data: 831525600
I0403 02:30:41.978688 23740 layer_factory.hpp:77] Creating layer fc8_plantvillage
I0403 02:30:41.978709 23740 net.cpp:91] Creating Layer fc8_plantvillage
I0403 02:30:41.978725 23740 net.cpp:425] fc8_plantvillage <- fc7
I0403 02:30:41.978749 23740 net.cpp:399] fc8_plantvillage -> fc8_plantvillage
I0403 02:30:41.985491 23740 net.cpp:141] Setting up fc8_plantvillage
I0403 02:30:41.985524 23740 net.cpp:148] Top shape: 100 38 (3800)
I0403 02:30:41.985564 23740 net.cpp:156] Memory required for data: 831540800
I0403 02:30:41.985584 23740 layer_factory.hpp:77] Creating layer fc8_plantvillage_fc8_plantvillage_0_split
I0403 02:30:41.985605 23740 net.cpp:91] Creating Layer fc8_plantvillage_fc8_plantvillage_0_split
I0403 02:30:41.985621 23740 net.cpp:425] fc8_plantvillage_fc8_plantvillage_0_split <- fc8_plantvillage
I0403 02:30:41.985640 23740 net.cpp:399] fc8_plantvillage_fc8_plantvillage_0_split -> fc8_plantvillage_fc8_plantvillage_0_split_0
I0403 02:30:41.985661 23740 net.cpp:399] fc8_plantvillage_fc8_plantvillage_0_split -> fc8_plantvillage_fc8_plantvillage_0_split_1
I0403 02:30:41.985716 23740 net.cpp:141] Setting up fc8_plantvillage_fc8_plantvillage_0_split
I0403 02:30:41.985741 23740 net.cpp:148] Top shape: 100 38 (3800)
I0403 02:30:41.985757 23740 net.cpp:148] Top shape: 100 38 (3800)
I0403 02:30:41.985771 23740 net.cpp:156] Memory required for data: 831571200
I0403 02:30:41.985786 23740 layer_factory.hpp:77] Creating layer loss
I0403 02:30:41.985807 23740 net.cpp:91] Creating Layer loss
I0403 02:30:41.985826 23740 net.cpp:425] loss <- fc8_plantvillage_fc8_plantvillage_0_split_0
I0403 02:30:41.985841 23740 net.cpp:425] loss <- label_data_1_split_0
I0403 02:30:41.985859 23740 net.cpp:399] loss -> loss
…
