…
I0403 16:16:30.106426 17574 net.cpp:313] The NetState phase (1) differed from the phase (0) specified by a rule in layer data
I0403 16:16:30.107517 17574 net.cpp:49] Initializing net from parameters: 
state {
  phase: TEST
}
layer {
  name: "data"
  type: "Data"
  top: "data"
  top: "label"
  include {
    phase: TEST
  }
  transform_param {
    mirror: false
    crop_size: 224
    mean_file: "/home/mohanty/data/final_dataset/lmdb/segmented-20-80/mean.binaryproto"
  }
  data_param {
    source: "/home/mohanty/data/final_dataset/lmdb/segmented-20-80/test_db"
    batch_size: 24
    backend: LMDB
  }
}
layer {
  name: "conv1/7x7_s2"
  type: "Convolution"
  bottom: "data"
  top: "conv1/7x7_s2"
  param {
    lr_mult: 1
    decay_mult: 1
  }
  param {
    lr_mult: 2
    decay_mult: 0
  }
  convolution_param {
    num_output: 64
    pad: 3
    kernel_size: 7
    stride: 2
    weight_filler {
      type: "xavier"
      std: 0.1
    }
    bias_filler {
      type: "constant"
      value: 0.2
    }
  }
}
layer {
  name: "conv1/relu_7x7"
  type: "ReLU"
  bottom: "conv1/7x7_s2"
  top: "conv1/7x7_s2"
}
layer {
  name: "pool1/3x3_s2"
  type: "Pooling"
  bottom: "conv1/7x7_s2"
  top: "pool1/3x3_s2"
  pooling_param {
    pool: MAX
    kernel_size: 3
    stride: 2
  }
}
layer {
  name: "pool1/norm1"
  type: "LRN"
  bottom: "pool1/3x3_s2"
  top: "pool1/norm1"
  lrn_param {
    local_size: 5
    alpha: 0.0001
    beta: 0.75
  }
}
layer {
  name: "conv2/3x3_reduce"
  type: "Convolution"
  bottom: "pool1/norm1"
  top: "conv2/3x3_reduce"
  param {
    lr_mult: 1
    decay_mult: 1
  }
  param {
    lr_mult: 2
    decay_mult: 0
  }
  convolution_param {
    num_output: 64
    kernel_size: 1
    weight_filler {
      type: "xavier"
      std: 0.1
    }
    bias_filler {
      type: "constant"
      value: 0.2
    }
  }
}
layer {
  name: "conv2/relu_3x3_reduce"
  type: "ReLU"
  bottom: "conv2/3x3_reduce"
  top: "conv2/3x3_reduce"
}
layer {
  name: "conv2/3x3"
  type: "Convolution"
  bottom: "conv2/3x3_reduce"
  top: "conv2/3x3"
  param {
    lr_mult: 1
    decay_mult: 1
  }
  param {
    lr_mult: 2
    decay_mult: 0
  }
  convolution_param {
    num_output: 192
    pad: 1
    kernel_size: 3
    weight_filler {
      type: "xavier"
      std: 0.03
    }
    bias_filler {
      type: "constant"
      value: 0.2
    }
  }
}
layer {
  name: "conv2/relu_3x3"
  type: "ReLU"
  bottom: "conv2/3x3"
  top: "conv2/3x3"
}
layer {
  name: "conv2/norm2"
  type: "LRN"
  bottom: "conv2/3x3"
  top: "conv2/norm2"
  lrn_param {
    local_size: 5
    alpha: 0.0001
    beta: 0.75
  }
}
layer {
  name: "pool2/3x3_s2"
  type: "Pooling"
  bottom: "conv2/norm2"
  top: "pool2/3x3_s2"
  pooling_param {
    pool: MAX
    kernel_size: 3
    stride: 2
  }
}
layer {
  name: "inception_3a/1x1"
  type: "Convolution"
  bottom: "pool2/3x3_s2"
  top: "inception_3a/1x1"
  param {
    lr_mult: 1
    decay_mult: 1
  }
  param {
    lr_mult: 2
    decay_mult: 0
  }
  convolution_param {
    num_output: 64
    kernel_size: 1
    weight_filler {
      type: "xavier"
      std: 0.03
    }
    bias_filler {
      type: "constant"
      value: 0.2
    }
  }
}
layer {
  name: "inception_3a/relu_1x1"
  type: "ReLU"
  bottom: "inception_3a/1x1"
  top: "inception_3a/1x1"
}
layer {
  name: "inception_3a/3x3_reduce"
  type: "Convolution"
  bottom: "pool2/3x3_s2"
  top: "inception_3a/3x3_reduce"
  param {
    lr_mult: 1
    decay_mult: 1
  }
  param {
    lr_mult: 2
    decay_mult: 0
  }
  convolution_param {
    num_output: 96
    kernel_size: 1
    weight_filler {
      type: "xavier"
      std: 0.09
    }
    bias_filler {
      type: "constant"
      value: 0.2
    }
  }
}
layer {
  name: "inception_3a/relu_3x3_reduce"
  type: "ReLU"
  bottom: "inception_3a/3x3_reduce"
  top: "inception_3a/3x3_reduce"
}
layer {
  name: "inception_3a/3x3"
  type: "Convolution"
  bottom: "inception_3a/3x3_reduce"
  top: "inception_3a/3x3"
  param {
    lr_mult: 1
    decay_mult: 1
  }
  param {
    lr_mult: 2
    decay_mult: 0
  }
  convolution_param {
    num_output: 128
    pad: 1
    kernel_size: 3
    weight_filler {
      type: "xavier"
      std: 0.03
    }
    bias_filler {
      type: "constant"
      value: 0.2
    }
  }
}
layer {
  name: "inception_3a/relu_3x3"
  type: "ReLU"
  bottom: "inception_3a/3x3"
  top: "inception_3a/3x3"
}
layer {
  name: "inception_3a/5x5_reduce"
  type: "Convolution"
  bottom: "pool2/3x3_s2"
  top: "inception_3a/5x5_reduce"
  param {
    lr_mult: 1
    decay_mult: 1
  }
  param {
    lr_mult: 2
    decay_mult: 0
  }
  convolution_param {
    num_output: 16
    kernel_size: 1
    weight_filler {
      type: "xavier"
      std: 0.2
    }
    bias_filler {
      type: "constant"
      value: 0.2
    }
  }
}
layer {
  name: "inception_3a/relu_5x5_reduce"
  type: "ReLU"
  bottom: "inception_3a/5x5_reduce"
  top: "inception_3a/5x5_reduce"
}
layer {
  name: "inception_3a/5x5"
  type: "Convolution"
  bottom: "inception_3a/5x5_reduce"
  top: "inception_3a/5x5"
  param {
    lr_mult: 1
    decay_mult: 1
  }
  param {
    lr_mult: 2
    decay_mult: 0
  }
  convolution_param {
    num_output: 32
    pad: 2
    kernel_size: 5
    weight_filler {
      type: "xavier"
      std: 0.03
    }
    bias_filler {
      type: "constant"
      value: 0.2
    }
  }
}
layer {
  name: "inception_3a/relu_5x5"
  type: "ReLU"
  bottom: "inception_3a/5x5"
  top: "inception_3a/5x5"
}
layer {
  name: "inception_3a/pool"
  type: "Pooling"
  bottom: "pool2/3x3_s2"
  top: "inception_3a/pool"
  pooling_param {
    pool: MAX
    kernel_size: 3
    stride: 1
    pad: 1
  }
}
layer {
  name: "inception_3a/pool_proj"
  type: "Convolution"
  bottom: "inception_3a/pool"
  top: "inception_3a/pool_proj"
  param {
    lr_mult: 1
    decay_mult: 1
  }
  param {
    lr_mult: 2
    decay_mult: 0
  }
  convolution_param {
    num_output: 32
    kernel_size: 1
    weight_filler {
      type: "xavier"
      std: 0.1
    }
    bias_filler {
      type: "constant"
      value: 0.2
    }
  }
}
layer {
  name: "inception_3a/relu_pool_proj"
  type: "ReLU"
  bottom: "inception_3a/pool_proj"
  top: "inception_3a/pool_proj"
}
layer {
  name: "inception_3a/output"
  type: "Concat"
  bottom: "inception_3a/1x1"
  bottom: "inception_3a/3x3"
  bottom: "inception_3a/5x5"
  bottom: "inception_3a/pool_proj"
  top: "inception_3a/output"
}
layer {
  name: "inception_3b/1x1"
  type: "Convolution"
  bottom: "inception_3a/output"
  top: "inception_3b/1x1"
  param {
    lr_mult: 1
    decay_mult: 1
  }
  param {
    lr_mult: 2
    decay_mult: 0
  }
  convolution_param {
    num_output: 128
    kernel_size: 1
    weight_filler {
      type: "xavier"
      std: 0.03
    }
    bias_filler {
      type: "constant"
      value: 0.2
    }
  }
}
layer {
  name: "inception_3b/relu_1x1"
  type: "ReLU"
  bottom: "inception_3b/1x1"
  top: "inception_3b/1x1"
}
layer {
  name: "inception_3b/3x3_reduce"
  type: "Convolution"
  bottom: "inception_3a/output"
  top: "inception_3b/3x3_reduce"
  param {
    lr_mult: 1
    decay_mult: 1
  }
  param {
    lr_mult: 2
    decay_mult: 0
  }
  convolution_param {
    num_output: 128
    kernel_size: 1
    weight_filler {
      type: "xavier"
      std: 0.09
    }
    bias_filler {
      type: "constant"
      value: 0.2
    }
  }
}
layer {
  name: "inception_3b/relu_3x3_reduce"
  type: "ReLU"
  bottom: "inception_3b/3x3_reduce"
  top: "inception_3b/3x3_reduce"
}
layer {
  name: "inception_3b/3x3"
  type: "Convolution"
  bottom: "inception_3b/3x3_reduce"
  top: "inception_3b/3x3"
  param {
    lr_mult: 1
    decay_mult: 1
  }
  param {
    lr_mult: 2
    decay_mult: 0
  }
  convolution_param {
    num_output: 192
    pad: 1
    kernel_size: 3
    weight_filler {
      type: "xavier"
      std: 0.03
    }
    bias_filler {
      type: "constant"
      value: 0.2
    }
  }
}
layer {
  name: "inception_3b/relu_3x3"
  type: "ReLU"
  bottom: "inception_3b/3x3"
  top: "inception_3b/3x3"
}
layer {
  name: "inception_3b/5x5_reduce"
  type: "Convolution"
  bottom: "inception_3a/output"
  top: "inception_3b/5x5_reduce"
  param {
    lr_mult: 1
    decay_mult: 1
  }
  param {
    lr_mult: 2
    decay_mult: 0
  }
  convolution_param {
    num_output: 32
    kernel_size: 1
    weight_filler {
      type: "xavier"
      std: 0.2
    }
    bias_filler {
      type: "constant"
      value: 0.2
    }
  }
}
layer {
  name: "inception_3b/relu_5x5_reduce"
  type: "ReLU"
  bottom: "inception_3b/5x5_reduce"
  top: "inception_3b/5x5_reduce"
}
layer {
  name: "inception_3b/5x5"
  type: "Convolution"
  bottom: "inception_3b/5x5_reduce"
  top: "inception_3b/5x5"
  param {
    lr_mult: 1
    decay_mult: 1
  }
  param {
    lr_mult: 2
    decay_mult: 0
  }
  convolution_param {
    num_output: 96
    pad: 2
    kernel_size: 5
    weight_filler {
      type: "xavier"
      std: 0.03
    }
    bias_filler {
      type: "constant"
      value: 0.2
    }
  }
}
layer {
  name: "inception_3b/relu_5x5"
  type: "ReLU"
  bottom: "inception_3b/5x5"
  top: "inception_3b/5x5"
}
layer {
  name: "inception_3b/pool"
  type: "Pooling"
  bottom: "inception_3a/output"
  top: "inception_3b/pool"
  pooling_param {
    pool: MAX
    kernel_size: 3
    stride: 1
    pad: 1
  }
}
layer {
  name: "inception_3b/pool_proj"
  type: "Convolution"
  bottom: "inception_3b/pool"
  top: "inception_3b/pool_proj"
  param {
    lr_mult: 1
    decay_mult: 1
  }
  param {
    lr_mult: 2
    decay_mult: 0
  }
  convolution_param {
    num_output: 64
    kernel_size: 1
    weight_filler {
      type: "xavier"
      std: 0.1
    }
    bias_filler {
      type: "constant"
      value: 0.2
    }
  }
}
layer {
  name: "inception_3b/relu_pool_proj"
  type: "ReLU"
  bottom: "inception_3b/pool_proj"
  top: "inception_3b/pool_proj"
}
layer {
  name: "inception_3b/output"
  type: "Concat"
  bottom: "inception_3b/1x1"
  bottom: "inception_3b/3x3"
  bottom: "inception_3b/5x5"
  bottom: "inception_3b/pool_proj"
  top: "inception_3b/output"
}
layer {
  name: "pool3/3x3_s2"
  type: "Pooling"
  bottom: "inception_3b/output"
  top: "pool3/3x3_s2"
  pooling_param {
    pool: MAX
    kernel_size: 3
    stride: 2
  }
}
layer {
  name: "inception_4a/1x1"
  type: "Convolution"
  bottom: "pool3/3x3_s2"
  top: "inception_4a/1x1"
  param {
    lr_mult: 1
    decay_mult: 1
  }
  param {
    lr_mult: 2
    decay_mult: 0
  }
  convolution_param {
    num_output: 192
    kernel_size: 1
    weight_filler {
      type: "xavier"
      std: 0.03
    }
    bias_filler {
      type: "constant"
      value: 0.2
    }
  }
}
layer {
  name: "inception_4a/relu_1x1"
  type: "ReLU"
  bottom: "inception_4a/1x1"
  top: "inception_4a/1x1"
}
layer {
  name: "inception_4a/3x3_reduce"
  type: "Convolution"
  bottom: "pool3/3x3_s2"
  top: "inception_4a/3x3_reduce"
  param {
    lr_mult: 1
    decay_mult: 1
  }
  param {
    lr_mult: 2
    decay_mult: 0
  }
  convolution_param {
    num_output: 96
    kernel_size: 1
    weight_filler {
      type: "xavier"
      std: 0.09
    }
    bias_filler {
      type: "constant"
      value: 0.2
    }
  }
}
layer {
  name: "inception_4a/relu_3x3_reduce"
  type: "ReLU"
  bottom: "inception_4a/3x3_reduce"
  top: "inception_4a/3x3_reduce"
}
layer {
  name: "inception_4a/3x3"
  type: "Convolution"
  bottom: "inception_4a/3x3_reduce"
  top: "inception_4a/3x3"
  param {
    lr_mult: 1
    decay_mult: 1
  }
  param {
    lr_mult: 2
    decay_mult: 0
  }
  convolution_param {
    num_output: 208
    pad: 1
    kernel_size: 3
    weight_filler {
      type: "xavier"
      std: 0.03
    }
    bias_filler {
      type: "constant"
      value: 0.2
    }
  }
}
layer {
  name: "inception_4a/relu_3x3"
  type: "ReLU"
  bottom: "inception_4a/3x3"
  top: "inception_4a/3x3"
}
layer {
  name: "inception_4a/5x5_reduce"
  type: "Convolution"
  bottom: "pool3/3x3_s2"
  top: "inception_4a/5x5_reduce"
  param {
    lr_mult: 1
    decay_mult: 1
  }
  param {
    lr_mult: 2
    decay_mult: 0
  }
  convolution_param {
    num_output: 16
    kernel_size: 1
    weight_filler {
      type: "xavier"
      std: 0.2
    }
    bias_filler {
      type: "constant"
      value: 0.2
    }
  }
}
layer {
  name: "inception_4a/relu_5x5_reduce"
  type: "ReLU"
  bottom: "inception_4a/5x5_reduce"
  top: "inception_4a/5x5_reduce"
}
layer {
  name: "inception_4a/5x5"
  type: "Convolution"
  bottom: "inception_4a/5x5_reduce"
  top: "inception_4a/5x5"
  param {
    lr_mult: 1
    decay_mult: 1
  }
  param {
    lr_mult: 2
    decay_mult: 0
  }
  convolution_param {
    num_output: 48
    pad: 2
    kernel_size: 5
    weight_filler {
      type: "xavier"
      std: 0.03
    }
    bias_filler {
      type: "constant"
      value: 0.2
    }
  }
}
layer {
  name: "inception_4a/relu_5x5"
  type: "ReLU"
  bottom: "inception_4a/5x5"
  top: "inception_4a/5x5"
}
layer {
  name: "inception_4a/pool"
  type: "Pooling"
  bottom: "pool3/3x3_s2"
  top: "inception_4a/pool"
  pooling_param {
    pool: MAX
    kernel_size: 3
    stride: 1
    pad: 1
  }
}
layer {
  name: "inception_4a/pool_proj"
  type: "Convolution"
  bottom: "inception_4a/pool"
  top: "inception_4a/pool_proj"
  param {
    lr_mult: 1
    decay_mult: 1
  }
  param {
    lr_mult: 2
    decay_mult: 0
  }
  convolution_param {
    num_output: 64
    kernel_size: 1
    weight_filler {
      type: "xavier"
      std: 0.1
    }
    bias_filler {
      type: "constant"
      value: 0.2
    }
  }
}
layer {
  name: "inception_4a/relu_pool_proj"
  type: "ReLU"
  bottom: "inception_4a/pool_proj"
  top: "inception_4a/pool_proj"
}
layer {
  name: "inception_4a/output"
  type: "Concat"
  bottom: "inception_4a/1x1"
  bottom: "inception_4a/3x3"
  bottom: "inception_4a/5x5"
  bottom: "inception_4a/pool_proj"
  top: "inception_4a/output"
}
layer {
  name: "loss1/ave_pool"
  type: "Pooling"
  bottom: "inception_4a/output"
  top: "loss1/ave_pool"
  pooling_param {
    pool: AVE
    kernel_size: 5
    stride: 3
  }
}
layer {
  name: "loss1/conv"
  type: "Convolution"
  bottom: "loss1/ave_pool"
  top: "loss1/conv"
  param {
    lr_mult: 1
    decay_mult: 1
  }
  param {
    lr_mult: 2
    decay_mult: 0
  }
  convolution_param {
    num_output: 128
    kernel_size: 1
    weight_filler {
      type: "xavier"
      std: 0.08
    }
    bias_filler {
      type: "constant"
      value: 0.2
    }
  }
}
layer {
  name: "loss1/relu_conv"
  type: "ReLU"
  bottom: "loss1/conv"
  top: "loss1/conv"
}
layer {
  name: "loss1/fc"
  type: "InnerProduct"
  bottom: "loss1/conv"
  top: "loss1/fc"
  param {
    lr_mult: 1
    decay_mult: 1
  }
  param {
    lr_mult: 2
    decay_mult: 0
  }
  inner_product_param {
    num_output: 1024
    weight_filler {
      type: "xavier"
      std: 0.02
    }
    bias_filler {
      type: "constant"
      value: 0.2
    }
  }
}
layer {
  name: "loss1/relu_fc"
  type: "ReLU"
  bottom: "loss1/fc"
  top: "loss1/fc"
}
layer {
  name: "loss1/drop_fc"
  type: "Dropout"
  bottom: "loss1/fc"
  top: "loss1/fc"
  dropout_param {
    dropout_ratio: 0.7
  }
}
layer {
  name: "loss1/classifier_plantvillage"
  type: "InnerProduct"
  bottom: "loss1/fc"
  top: "loss1/classifier_plantvillage"
  param {
    lr_mult: 1
    decay_mult: 1
  }
  param {
    lr_mult: 2
    decay_mult: 0
  }
  inner_product_param {
    num_output: 38
    weight_filler {
      type: "xavier"
      std: 0.0009765625
    }
    bias_filler {
      type: "constant"
      value: 0
    }
  }
}
layer {
  name: "inception_4b/1x1"
  type: "Convolution"
  bottom: "inception_4a/output"
  top: "inception_4b/1x1"
  param {
    lr_mult: 1
    decay_mult: 1
  }
  param {
    lr_mult: 2
    decay_mult: 0
  }
  convolution_param {
    num_output: 160
    kernel_size: 1
    weight_filler {
      type: "xavier"
      std: 0.03
    }
    bias_filler {
      type: "constant"
      value: 0.2
    }
  }
}
layer {
  name: "inception_4b/relu_1x1"
  type: "ReLU"
  bottom: "inception_4b/1x1"
  top: "inception_4b/1x1"
}
layer {
  name: "inception_4b/3x3_reduce"
  type: "Convolution"
  bottom: "inception_4a/output"
  top: "inception_4b/3x3_reduce"
  param {
    lr_mult: 1
    decay_mult: 1
  }
  param {
    lr_mult: 2
    decay_mult: 0
  }
  convolution_param {
    num_output: 112
    kernel_size: 1
    weight_filler {
      type: "xavier"
      std: 0.09
    }
    bias_filler {
      type: "constant"
      value: 0.2
    }
  }
}
layer {
  name: "inception_4b/relu_3x3_reduce"
  type: "ReLU"
  bottom: "inception_4b/3x3_reduce"
  top: "inception_4b/3x3_reduce"
}
layer {
  name: "inception_4b/3x3"
  type: "Convolution"
  bottom: "inception_4b/3x3_reduce"
  top: "inception_4b/3x3"
  param {
    lr_mult: 1
    decay_mult: 1
  }
  param {
    lr_mult: 2
    decay_mult: 0
  }
  convolution_param {
    num_output: 224
    pad: 1
    kernel_size: 3
    weight_filler {
      type: "xavier"
      std: 0.03
    }
    bias_filler {
      type: "constant"
      value: 0.2
    }
  }
}
layer {
  name: "inception_4b/relu_3x3"
  type: "ReLU"
  bottom: "inception_4b/3x3"
  top: "inception_4b/3x3"
}
layer {
  name: "inception_4b/5x5_reduce"
  type: "Convolution"
  bottom: "inception_4a/output"
  top: "inception_4b/5x5_reduce"
  param {
    lr_mult: 1
    decay_mult: 1
  }
  param {
    lr_mult: 2
    decay_mult: 0
  }
  convolution_param {
    num_output: 24
    kernel_size: 1
    weight_filler {
      type: "xavier"
      std: 0.2
    }
    bias_filler {
      type: "constant"
      value: 0.2
    }
  }
}
layer {
  name: "inception_4b/relu_5x5_reduce"
  type: "ReLU"
  bottom: "inception_4b/5x5_reduce"
  top: "inception_4b/5x5_reduce"
}
layer {
  name: "inception_4b/5x5"
  type: "Convolution"
  bottom: "inception_4b/5x5_reduce"
  top: "inception_4b/5x5"
  param {
    lr_mult: 1
    decay_mult: 1
  }
  param {
    lr_mult: 2
    decay_mult: 0
  }
  convolution_param {
    num_output: 64
    pad: 2
    kernel_size: 5
    weight_filler {
      type: "xavier"
      std: 0.03
    }
    bias_filler {
      type: "constant"
      value: 0.2
    }
  }
}
layer {
  name: "inception_4b/relu_5x5"
  type: "ReLU"
  bottom: "inception_4b/5x5"
  top: "inception_4b/5x5"
}
layer {
  name: "inception_4b/pool"
  type: "Pooling"
  bottom: "inception_4a/output"
  top: "inception_4b/pool"
  pooling_param {
    pool: MAX
    kernel_size: 3
    stride: 1
    pad: 1
  }
}
layer {
  name: "inception_4b/pool_proj"
  type: "Convolution"
  bottom: "inception_4b/pool"
  top: "inception_4b/pool_proj"
  param {
    lr_mult: 1
    decay_mult: 1
  }
  param {
    lr_mult: 2
    decay_mult: 0
  }
  convolution_param {
    num_output: 64
    kernel_size: 1
    weight_filler {
      type: "xavier"
      std: 0.1
    }
    bias_filler {
      type: "constant"
      value: 0.2
    }
  }
}
layer {
  name: "inception_4b/relu_pool_proj"
  type: "ReLU"
  bottom: "inception_4b/pool_proj"
  top: "inception_4b/pool_proj"
}
layer {
  name: "inception_4b/output"
  type: "Concat"
  bottom: "inception_4b/1x1"
  bottom: "inception_4b/3x3"
  bottom: "inception_4b/5x5"
  bottom: "inception_4b/pool_proj"
  top: "inception_4b/output"
}
layer {
  name: "inception_4c/1x1"
  type: "Convolution"
  bottom: "inception_4b/output"
  top: "inception_4c/1x1"
  param {
    lr_mult: 1
    decay_mult: 1
  }
  param {
    lr_mult: 2
    decay_mult: 0
  }
  convolution_param {
    num_output: 128
    kernel_size: 1
    weight_filler {
      type: "xavier"
      std: 0.03
    }
    bias_filler {
      type: "constant"
      value: 0.2
    }
  }
}
layer {
  name: "inception_4c/relu_1x1"
  type: "ReLU"
  bottom: "inception_4c/1x1"
  top: "inception_4c/1x1"
}
layer {
  name: "inception_4c/3x3_reduce"
  type: "Convolution"
  bottom: "inception_4b/output"
  top: "inception_4c/3x3_reduce"
  param {
    lr_mult: 1
    decay_mult: 1
  }
  param {
    lr_mult: 2
    decay_mult: 0
  }
  convolution_param {
    num_output: 128
    kernel_size: 1
    weight_filler {
      type: "xavier"
      std: 0.09
    }
    bias_filler {
      type: "constant"
      value: 0.2
    }
  }
}
layer {
  name: "inception_4c/relu_3x3_reduce"
  type: "ReLU"
  bottom: "inception_4c/3x3_reduce"
  top: "inception_4c/3x3_reduce"
}
layer {
  name: "inception_4c/3x3"
  type: "Convolution"
  bottom: "inception_4c/3x3_reduce"
  top: "inception_4c/3x3"
  param {
    lr_mult: 1
    decay_mult: 1
  }
  param {
    lr_mult: 2
    decay_mult: 0
  }
  convolution_param {
    num_output: 256
    pad: 1
    kernel_size: 3
    weight_filler {
      type: "xavier"
      std: 0.03
    }
    bias_filler {
      type: "constant"
      value: 0.2
    }
  }
}
layer {
  name: "inception_4c/relu_3x3"
  type: "ReLU"
  bottom: "inception_4c/3x3"
  top: "inception_4c/3x3"
}
layer {
  name: "inception_4c/5x5_reduce"
  type: "Convolution"
  bottom: "inception_4b/output"
  top: "inception_4c/5x5_reduce"
  param {
    lr_mult: 1
    decay_mult: 1
  }
  param {
    lr_mult: 2
    decay_mult: 0
  }
  convolution_param {
    num_output: 24
    kernel_size: 1
    weight_filler {
      type: "xavier"
      std: 0.2
    }
    bias_filler {
      type: "constant"
      value: 0.2
    }
  }
}
layer {
  name: "inception_4c/relu_5x5_reduce"
  type: "ReLU"
  bottom: "inception_4c/5x5_reduce"
  top: "inception_4c/5x5_reduce"
}
layer {
  name: "inception_4c/5x5"
  type: "Convolution"
  bottom: "inception_4c/5x5_reduce"
  top: "inception_4c/5x5"
  param {
    lr_mult: 1
    decay_mult: 1
  }
  param {
    lr_mult: 2
    decay_mult: 0
  }
  convolution_param {
    num_output: 64
    pad: 2
    kernel_size: 5
    weight_filler {
      type: "xavier"
      std: 0.03
    }
    bias_filler {
      type: "constant"
      value: 0.2
    }
  }
}
layer {
  name: "inception_4c/relu_5x5"
  type: "ReLU"
  bottom: "inception_4c/5x5"
  top: "inception_4c/5x5"
}
layer {
  name: "inception_4c/pool"
  type: "Pooling"
  bottom: "inception_4b/output"
  top: "inception_4c/pool"
  pooling_param {
    pool: MAX
    kernel_size: 3
    stride: 1
    pad: 1
  }
}
layer {
  name: "inception_4c/pool_proj"
  type: "Convolution"
  bottom: "inception_4c/pool"
  top: "inception_4c/pool_proj"
  param {
    lr_mult: 1
    decay_mult: 1
  }
  param {
    lr_mult: 2
    decay_mult: 0
  }
  convolution_param {
    num_output: 64
    kernel_size: 1
    weight_filler {
      type: "xavier"
      std: 0.1
    }
    bias_filler {
      type: "constant"
      value: 0.2
    }
  }
}
layer {
  name: "inception_4c/relu_pool_proj"
  type: "ReLU"
  bottom: "inception_4c/pool_proj"
  top: "inception_4c/pool_proj"
}
layer {
  name: "inception_4c/output"
  type: "Concat"
  bottom: "inception_4c/1x1"
  bottom: "inception_4c/3x3"
  bottom: "inception_4c/5x5"
  bottom: "inception_4c/pool_proj"
  top: "inception_4c/output"
}
layer {
  name: "inception_4d/1x1"
  type: "Convolution"
  bottom: "inception_4c/output"
  top: "inception_4d/1x1"
  param {
    lr_mult: 1
    decay_mult: 1
  }
  param {
    lr_mult: 2
    decay_mult: 0
  }
  convolution_param {
    num_output: 112
    kernel_size: 1
    weight_filler {
      type: "xavier"
      std: 0.03
    }
    bias_filler {
      type: "constant"
      value: 0.2
    }
  }
}
layer {
  name: "inception_4d/relu_1x1"
  type: "ReLU"
  bottom: "inception_4d/1x1"
  top: "inception_4d/1x1"
}
layer {
  name: "inception_4d/3x3_reduce"
  type: "Convolution"
  bottom: "inception_4c/output"
  top: "inception_4d/3x3_reduce"
  param {
    lr_mult: 1
    decay_mult: 1
  }
  param {
    lr_mult: 2
    decay_mult: 0
  }
  convolution_param {
    num_output: 144
    kernel_size: 1
    weight_filler {
      type: "xavier"
      std: 0.09
    }
    bias_filler {
      type: "constant"
      value: 0.2
    }
  }
}
layer {
  name: "inception_4d/relu_3x3_reduce"
  type: "ReLU"
  bottom: "inception_4d/3x3_reduce"
  top: "inception_4d/3x3_reduce"
}
layer {
  name: "inception_4d/3x3"
  type: "Convolution"
  bottom: "inception_4d/3x3_reduce"
  top: "inception_4d/3x3"
  param {
    lr_mult: 1
    decay_mult: 1
  }
  param {
    lr_mult: 2
    decay_mult: 0
  }
  convolution_param {
    num_output: 288
    pad: 1
    kernel_size: 3
    weight_filler {
      type: "xavier"
      std: 0.03
    }
    bias_filler {
      type: "constant"
      value: 0.2
    }
  }
}
layer {
  name: "inception_4d/relu_3x3"
  type: "ReLU"
  bottom: "inception_4d/3x3"
  top: "inception_4d/3x3"
}
layer {
  name: "inception_4d/5x5_reduce"
  type: "Convolution"
  bottom: "inception_4c/output"
  top: "inception_4d/5x5_reduce"
  param {
    lr_mult: 1
    decay_mult: 1
  }
  param {
    lr_mult: 2
    decay_mult: 0
  }
  convolution_param {
    num_output: 32
    kernel_size: 1
    weight_filler {
      type: "xavier"
      std: 0.2
    }
    bias_filler {
      type: "constant"
      value: 0.2
    }
  }
}
layer {
  name: "inception_4d/relu_5x5_reduce"
  type: "ReLU"
  bottom: "inception_4d/5x5_reduce"
  top: "inception_4d/5x5_reduce"
}
layer {
  name: "inception_4d/5x5"
  type: "Convolution"
  bottom: "inception_4d/5x5_reduce"
  top: "inception_4d/5x5"
  param {
    lr_mult: 1
    decay_mult: 1
  }
  param {
    lr_mult: 2
    decay_mult: 0
  }
  convolution_param {
    num_output: 64
    pad: 2
    kernel_size: 5
    weight_filler {
      type: "xavier"
      std: 0.03
    }
    bias_filler {
      type: "constant"
      value: 0.2
    }
  }
}
layer {
  name: "inception_4d/relu_5x5"
  type: "ReLU"
  bottom: "inception_4d/5x5"
  top: "inception_4d/5x5"
}
layer {
  name: "inception_4d/pool"
  type: "Pooling"
  bottom: "inception_4c/output"
  top: "inception_4d/pool"
  pooling_param {
    pool: MAX
    kernel_size: 3
    stride: 1
    pad: 1
  }
}
layer {
  name: "inception_4d/pool_proj"
  type: "Convolution"
  bottom: "inception_4d/pool"
  top: "inception_4d/pool_proj"
  param {
    lr_mult: 1
    decay_mult: 1
  }
  param {
    lr_mult: 2
    decay_mult: 0
  }
  convolution_param {
    num_output: 64
    kernel_size: 1
    weight_filler {
      type: "xavier"
      std: 0.1
    }
    bias_filler {
      type: "constant"
      value: 0.2
    }
  }
}
layer {
  name: "inception_4d/relu_pool_proj"
  type: "ReLU"
  bottom: "inception_4d/pool_proj"
  top: "inception_4d/pool_proj"
}
layer {
  name: "inception_4d/output"
  type: "Concat"
  bottom: "inception_4d/1x1"
  bottom: "inception_4d/3x3"
  bottom: "inception_4d/5x5"
  bottom: "inception_4d/pool_proj"
  top: "inception_4d/output"
}
layer {
  name: "loss2/ave_pool"
  type: "Pooling"
  bottom: "inception_4d/output"
  top: "loss2/ave_pool"
  pooling_param {
    pool: AVE
    kernel_size: 5
    stride: 3
  }
}
layer {
  name: "loss2/conv"
  type: "Convolution"
  bottom: "loss2/ave_pool"
  top: "loss2/conv"
  param {
    lr_mult: 1
    decay_mult: 1
  }
  param {
    lr_mult: 2
    decay_mult: 0
  }
  convolution_param {
    num_output: 128
    kernel_size: 1
    weight_filler {
      type: "xavier"
      std: 0.08
    }
    bias_filler {
      type: "constant"
      value: 0.2
    }
  }
}
layer {
  name: "loss2/relu_conv"
  type: "ReLU"
  bottom: "loss2/conv"
  top: "loss2/conv"
}
layer {
  name: "loss2/fc"
  type: "InnerProduct"
  bottom: "loss2/conv"
  top: "loss2/fc"
  param {
    lr_mult: 1
    decay_mult: 1
  }
  param {
    lr_mult: 2
    decay_mult: 0
  }
  inner_product_param {
    num_output: 1024
    weight_filler {
      type: "xavier"
      std: 0.02
    }
    bias_filler {
      type: "constant"
      value: 0.2
    }
  }
}
layer {
  name: "loss2/relu_fc"
  type: "ReLU"
  bottom: "loss2/fc"
  top: "loss2/fc"
}
layer {
  name: "loss2/drop_fc"
  type: "Dropout"
  bottom: "loss2/fc"
  top: "loss2/fc"
  dropout_param {
    dropout_ratio: 0.7
  }
}
layer {
  name: "loss2/classifier_plantvillage"
  type: "InnerProduct"
  bottom: "loss2/fc"
  top: "loss2/classifier_plantvillage"
  param {
    lr_mult: 1
    decay_mult: 1
  }
  param {
    lr_mult: 2
    decay_mult: 0
  }
  inner_product_param {
    num_output: 38
    weight_filler {
      type: "xavier"
      std: 0.0009765625
    }
    bias_filler {
      type: "constant"
      value: 0
    }
  }
}
layer {
  name: "inception_4e/1x1"
  type: "Convolution"
  bottom: "inception_4d/output"
  top: "inception_4e/1x1"
  param {
    lr_mult: 1
    decay_mult: 1
  }
  param {
    lr_mult: 2
    decay_mult: 0
  }
  convolution_param {
    num_output: 256
    kernel_size: 1
    weight_filler {
      type: "xavier"
      std: 0.03
    }
    bias_filler {
      type: "constant"
      value: 0.2
    }
  }
}
layer {
  name: "inception_4e/relu_1x1"
  type: "ReLU"
  bottom: "inception_4e/1x1"
  top: "inception_4e/1x1"
}
layer {
  name: "inception_4e/3x3_reduce"
  type: "Convolution"
  bottom: "inception_4d/output"
  top: "inception_4e/3x3_reduce"
  param {
    lr_mult: 1
    decay_mult: 1
  }
  param {
    lr_mult: 2
    decay_mult: 0
  }
  convolution_param {
    num_output: 160
    kernel_size: 1
    weight_filler {
      type: "xavier"
      std: 0.09
    }
    bias_filler {
      type: "constant"
      value: 0.2
    }
  }
}
layer {
  name: "inception_4e/relu_3x3_reduce"
  type: "ReLU"
  bottom: "inception_4e/3x3_reduce"
  top: "inception_4e/3x3_reduce"
}
layer {
  name: "inception_4e/3x3"
  type: "Convolution"
  bottom: "inception_4e/3x3_reduce"
  top: "inception_4e/3x3"
  param {
    lr_mult: 1
    decay_mult: 1
  }
  param {
    lr_mult: 2
    decay_mult: 0
  }
  convolution_param {
    num_output: 320
    pad: 1
    kernel_size: 3
    weight_filler {
      type: "xavier"
      std: 0.03
    }
    bias_filler {
      type: "constant"
      value: 0.2
    }
  }
}
layer {
  name: "inception_4e/relu_3x3"
  type: "ReLU"
  bottom: "inception_4e/3x3"
  top: "inception_4e/3x3"
}
layer {
  name: "inception_4e/5x5_reduce"
  type: "Convolution"
  bottom: "inception_4d/output"
  top: "inception_4e/5x5_reduce"
  param {
    lr_mult: 1
    decay_mult: 1
  }
  param {
    lr_mult: 2
    decay_mult: 0
  }
  convolution_param {
    num_output: 32
    kernel_size: 1
    weight_filler {
      type: "xavier"
      std: 0.2
    }
    bias_filler {
      type: "constant"
      value: 0.2
    }
  }
}
layer {
  name: "inception_4e/relu_5x5_reduce"
  type: "ReLU"
  bottom: "inception_4e/5x5_reduce"
  top: "inception_4e/5x5_reduce"
}
layer {
  name: "inception_4e/5x5"
  type: "Convolution"
  bottom: "inception_4e/5x5_reduce"
  top: "inception_4e/
I0403 16:16:30.108990 17574 layer_factory.hpp:77] Creating layer data
I0403 16:16:30.109575 17574 net.cpp:91] Creating Layer data
I0403 16:16:30.109604 17574 net.cpp:399] data -> data
I0403 16:16:30.109655 17574 net.cpp:399] data -> label
I0403 16:16:30.109694 17574 data_transformer.cpp:25] Loading mean file from: /home/mohanty/data/final_dataset/lmdb/segmented-20-80/mean.binaryproto
I0403 16:16:30.110786 17576 db_lmdb.cpp:38] Opened lmdb /home/mohanty/data/final_dataset/lmdb/segmented-20-80/test_db
I0403 16:16:30.122632 17574 data_layer.cpp:41] output data size: 24,3,224,224
I0403 16:16:30.150277 17574 net.cpp:141] Setting up data
I0403 16:16:30.150358 17574 net.cpp:148] Top shape: 24 3 224 224 (3612672)
I0403 16:16:30.150382 17574 net.cpp:148] Top shape: 24 (24)
I0403 16:16:30.150396 17574 net.cpp:156] Memory required for data: 14450784
I0403 16:16:30.150424 17574 layer_factory.hpp:77] Creating layer label_data_1_split
I0403 16:16:30.150449 17574 net.cpp:91] Creating Layer label_data_1_split
I0403 16:16:30.150466 17574 net.cpp:425] label_data_1_split <- label
I0403 16:16:30.150499 17574 net.cpp:399] label_data_1_split -> label_data_1_split_0
I0403 16:16:30.150527 17574 net.cpp:399] label_data_1_split -> label_data_1_split_1
I0403 16:16:30.150548 17574 net.cpp:399] label_data_1_split -> label_data_1_split_2
I0403 16:16:30.150573 17574 net.cpp:399] label_data_1_split -> label_data_1_split_3
I0403 16:16:30.150594 17574 net.cpp:399] label_data_1_split -> label_data_1_split_4
I0403 16:16:30.150614 17574 net.cpp:399] label_data_1_split -> label_data_1_split_5
I0403 16:16:30.150635 17574 net.cpp:399] label_data_1_split -> label_data_1_split_6
I0403 16:16:30.150655 17574 net.cpp:399] label_data_1_split -> label_data_1_split_7
I0403 16:16:30.150673 17574 net.cpp:399] label_data_1_split -> label_data_1_split_8
I0403 16:16:30.150693 17574 net.cpp:399] label_data_1_split -> label_data_1_split_9
I0403 16:16:30.150807 17574 net.cpp:141] Setting up label_data_1_split
I0403 16:16:30.150830 17574 net.cpp:148] Top shape: 24 (24)
I0403 16:16:30.150848 17574 net.cpp:148] Top shape: 24 (24)
I0403 16:16:30.150863 17574 net.cpp:148] Top shape: 24 (24)
I0403 16:16:30.150879 17574 net.cpp:148] Top shape: 24 (24)
I0403 16:16:30.150894 17574 net.cpp:148] Top shape: 24 (24)
I0403 16:16:30.150910 17574 net.cpp:148] Top shape: 24 (24)
I0403 16:16:30.150925 17574 net.cpp:148] Top shape: 24 (24)
I0403 16:16:30.150941 17574 net.cpp:148] Top shape: 24 (24)
I0403 16:16:30.150956 17574 net.cpp:148] Top shape: 24 (24)
I0403 16:16:30.150971 17574 net.cpp:148] Top shape: 24 (24)
I0403 16:16:30.151024 17574 net.cpp:156] Memory required for data: 14451744
I0403 16:16:30.151041 17574 layer_factory.hpp:77] Creating layer conv1/7x7_s2
I0403 16:16:30.151072 17574 net.cpp:91] Creating Layer conv1/7x7_s2
I0403 16:16:30.151090 17574 net.cpp:425] conv1/7x7_s2 <- data
I0403 16:16:30.151109 17574 net.cpp:399] conv1/7x7_s2 -> conv1/7x7_s2
I0403 16:16:30.289813 17574 net.cpp:141] Setting up conv1/7x7_s2
I0403 16:16:30.289891 17574 net.cpp:148] Top shape: 24 64 112 112 (19267584)
I0403 16:16:30.289907 17574 net.cpp:156] Memory required for data: 91522080
I0403 16:16:30.289944 17574 layer_factory.hpp:77] Creating layer conv1/relu_7x7
I0403 16:16:30.289969 17574 net.cpp:91] Creating Layer conv1/relu_7x7
I0403 16:16:30.289986 17574 net.cpp:425] conv1/relu_7x7 <- conv1/7x7_s2
I0403 16:16:30.290004 17574 net.cpp:386] conv1/relu_7x7 -> conv1/7x7_s2 (in-place)
I0403 16:16:30.290247 17574 net.cpp:141] Setting up conv1/relu_7x7
I0403 16:16:30.290274 17574 net.cpp:148] Top shape: 24 64 112 112 (19267584)
I0403 16:16:30.290288 17574 net.cpp:156] Memory required for data: 168592416
I0403 16:16:30.290302 17574 layer_factory.hpp:77] Creating layer pool1/3x3_s2
I0403 16:16:30.290325 17574 net.cpp:91] Creating Layer pool1/3x3_s2
I0403 16:16:30.290343 17574 net.cpp:425] pool1/3x3_s2 <- conv1/7x7_s2
I0403 16:16:30.290359 17574 net.cpp:399] pool1/3x3_s2 -> pool1/3x3_s2
I0403 16:16:30.290431 17574 net.cpp:141] Setting up pool1/3x3_s2
I0403 16:16:30.290453 17574 net.cpp:148] Top shape: 24 64 56 56 (4816896)
I0403 16:16:30.290467 17574 net.cpp:156] Memory required for data: 187860000
I0403 16:16:30.290482 17574 layer_factory.hpp:77] Creating layer pool1/norm1
I0403 16:16:30.290511 17574 net.cpp:91] Creating Layer pool1/norm1
I0403 16:16:30.290529 17574 net.cpp:425] pool1/norm1 <- pool1/3x3_s2
I0403 16:16:30.290544 17574 net.cpp:399] pool1/norm1 -> pool1/norm1
I0403 16:16:30.290817 17574 net.cpp:141] Setting up pool1/norm1
I0403 16:16:30.290843 17574 net.cpp:148] Top shape: 24 64 56 56 (4816896)
I0403 16:16:30.290858 17574 net.cpp:156] Memory required for data: 207127584
I0403 16:16:30.290874 17574 layer_factory.hpp:77] Creating layer conv2/3x3_reduce
I0403 16:16:30.290896 17574 net.cpp:91] Creating Layer conv2/3x3_reduce
I0403 16:16:30.290911 17574 net.cpp:425] conv2/3x3_reduce <- pool1/norm1
I0403 16:16:30.290930 17574 net.cpp:399] conv2/3x3_reduce -> conv2/3x3_reduce
I0403 16:16:30.292201 17574 net.cpp:141] Setting up conv2/3x3_reduce
I0403 16:16:30.292229 17574 net.cpp:148] Top shape: 24 64 56 56 (4816896)
I0403 16:16:30.292245 17574 net.cpp:156] Memory required for data: 226395168
I0403 16:16:30.292266 17574 layer_factory.hpp:77] Creating layer conv2/relu_3x3_reduce
I0403 16:16:30.292284 17574 net.cpp:91] Creating Layer conv2/relu_3x3_reduce
I0403 16:16:30.292299 17574 net.cpp:425] conv2/relu_3x3_reduce <- conv2/3x3_reduce
I0403 16:16:30.292314 17574 net.cpp:386] conv2/relu_3x3_reduce -> conv2/3x3_reduce (in-place)
I0403 16:16:30.292554 17574 net.cpp:141] Setting up conv2/relu_3x3_reduce
I0403 16:16:30.292583 17574 net.cpp:148] Top shape: 24 64 56 56 (4816896)
I0403 16:16:30.292599 17574 net.cpp:156] Memory required for data: 245662752
I0403 16:16:30.292613 17574 layer_factory.hpp:77] Creating layer conv2/3x3
I0403 16:16:30.292634 17574 net.cpp:91] Creating Layer conv2/3x3
I0403 16:16:30.292649 17574 net.cpp:425] conv2/3x3 <- conv2/3x3_reduce
I0403 16:16:30.292666 17574 net.cpp:399] conv2/3x3 -> conv2/3x3
I0403 16:16:30.294792 17574 net.cpp:141] Setting up conv2/3x3
I0403 16:16:30.294821 17574 net.cpp:148] Top shape: 24 192 56 56 (14450688)
I0403 16:16:30.294837 17574 net.cpp:156] Memory required for data: 303465504
I0403 16:16:30.294857 17574 layer_factory.hpp:77] Creating layer conv2/relu_3x3
I0403 16:16:30.294873 17574 net.cpp:91] Creating Layer conv2/relu_3x3
I0403 16:16:30.294888 17574 net.cpp:425] conv2/relu_3x3 <- conv2/3x3
I0403 16:16:30.294904 17574 net.cpp:386] conv2/relu_3x3 -> conv2/3x3 (in-place)
I0403 16:16:30.295055 17574 net.cpp:141] Setting up conv2/relu_3x3
I0403 16:16:30.295080 17574 net.cpp:148] Top shape: 24 192 56 56 (14450688)
I0403 16:16:30.295131 17574 net.cpp:156] Memory required for data: 361268256
I0403 16:16:30.295147 17574 layer_factory.hpp:77] Creating layer conv2/norm2
I0403 16:16:30.295164 17574 net.cpp:91] Creating Layer conv2/norm2
I0403 16:16:30.295179 17574 net.cpp:425] conv2/norm2 <- conv2/3x3
I0403 16:16:30.295197 17574 net.cpp:399] conv2/norm2 -> conv2/norm2
I0403 16:16:30.295474 17574 net.cpp:141] Setting up conv2/norm2
I0403 16:16:30.295500 17574 net.cpp:148] Top shape: 24 192 56 56 (14450688)
I0403 16:16:30.295513 17574 net.cpp:156] Memory required for data: 419071008
I0403 16:16:30.295528 17574 layer_factory.hpp:77] Creating layer pool2/3x3_s2
I0403 16:16:30.295544 17574 net.cpp:91] Creating Layer pool2/3x3_s2
I0403 16:16:30.295559 17574 net.cpp:425] pool2/3x3_s2 <- conv2/norm2
I0403 16:16:30.295591 17574 net.cpp:399] pool2/3x3_s2 -> pool2/3x3_s2
I0403 16:16:30.295639 17574 net.cpp:141] Setting up pool2/3x3_s2
I0403 16:16:30.295661 17574 net.cpp:148] Top shape: 24 192 28 28 (3612672)
I0403 16:16:30.295675 17574 net.cpp:156] Memory required for data: 433521696
I0403 16:16:30.295689 17574 layer_factory.hpp:77] Creating layer pool2/3x3_s2_pool2/3x3_s2_0_split
I0403 16:16:30.295706 17574 net.cpp:91] Creating Layer pool2/3x3_s2_pool2/3x3_s2_0_split
I0403 16:16:30.295720 17574 net.cpp:425] pool2/3x3_s2_pool2/3x3_s2_0_split <- pool2/3x3_s2
I0403 16:16:30.295737 17574 net.cpp:399] pool2/3x3_s2_pool2/3x3_s2_0_split -> pool2/3x3_s2_pool2/3x3_s2_0_split_0
I0403 16:16:30.295754 17574 net.cpp:399] pool2/3x3_s2_pool2/3x3_s2_0_split -> pool2/3x3_s2_pool2/3x3_s2_0_split_1
I0403 16:16:30.295773 17574 net.cpp:399] pool2/3x3_s2_pool2/3x3_s2_0_split -> pool2/3x3_s2_pool2/3x3_s2_0_split_2
I0403 16:16:30.295791 17574 net.cpp:399] pool2/3x3_s2_pool2/3x3_s2_0_split -> pool2/3x3_s2_pool2/3x3_s2_0_split_3
I0403 16:16:30.295851 17574 net.cpp:141] Setting up pool2/3x3_s2_pool2/3x3_s2_0_split
I0403 16:16:30.295873 17574 net.cpp:148] Top shape: 24 192 28 28 (3612672)
I0403 16:16:30.295888 17574 net.cpp:148] Top shape: 24 192 28 28 (3612672)
I0403 16:16:30.295903 17574 net.cpp:148] Top shape: 24 192 28 28 (3612672)
I0403 16:16:30.295918 17574 net.cpp:148] Top shape: 24 192 28 28 (3612672)
I0403 16:16:30.295931 17574 net.cpp:156] Memory required for data: 491324448
I0403 16:16:30.295945 17574 layer_factory.hpp:77] Creating layer inception_3a/1x1
I0403 16:16:30.295964 17574 net.cpp:91] Creating Layer inception_3a/1x1
I0403 16:16:30.295980 17574 net.cpp:425] inception_3a/1x1 <- pool2/3x3_s2_pool2/3x3_s2_0_split_0
I0403 16:16:30.295997 17574 net.cpp:399] inception_3a/1x1 -> inception_3a/1x1
I0403 16:16:30.297479 17574 net.cpp:141] Setting up inception_3a/1x1
I0403 16:16:30.297508 17574 net.cpp:148] Top shape: 24 64 28 28 (1204224)
I0403 16:16:30.297523 17574 net.cpp:156] Memory required for data: 496141344
I0403 16:16:30.297539 17574 layer_factory.hpp:77] Creating layer inception_3a/relu_1x1
I0403 16:16:30.297556 17574 net.cpp:91] Creating Layer inception_3a/relu_1x1
I0403 16:16:30.297574 17574 net.cpp:425] inception_3a/relu_1x1 <- inception_3a/1x1
I0403 16:16:30.297595 17574 net.cpp:386] inception_3a/relu_1x1 -> inception_3a/1x1 (in-place)
I0403 16:16:30.297765 17574 net.cpp:141] Setting up inception_3a/relu_1x1
I0403 16:16:30.297788 17574 net.cpp:148] Top shape: 24 64 28 28 (1204224)
I0403 16:16:30.297802 17574 net.cpp:156] Memory required for data: 500958240
I0403 16:16:30.297816 17574 layer_factory.hpp:77] Creating layer inception_3a/3x3_reduce
I0403 16:16:30.297837 17574 net.cpp:91] Creating Layer inception_3a/3x3_reduce
I0403 16:16:30.297853 17574 net.cpp:425] inception_3a/3x3_reduce <- pool2/3x3_s2_pool2/3x3_s2_0_split_1
I0403 16:16:30.297873 17574 net.cpp:399] inception_3a/3x3_reduce -> inception_3a/3x3_reduce
I0403 16:16:30.299511 17574 net.cpp:141] Setting up inception_3a/3x3_reduce
I0403 16:16:30.299538 17574 net.cpp:148] Top shape: 24 96 28 28 (1806336)
I0403 16:16:30.299553 17574 net.cpp:156] Memory required for data: 508183584
I0403 16:16:30.299577 17574 layer_factory.hpp:77] Creating layer inception_3a/relu_3x3_reduce
I0403 16:16:30.299615 17574 net.cpp:91] Creating Layer inception_3a/relu_3x3_reduce
I0403 16:16:30.299633 17574 net.cpp:425] inception_3a/relu_3x3_reduce <- inception_3a/3x3_reduce
I0403 16:16:30.299649 17574 net.cpp:386] inception_3a/relu_3x3_reduce -> inception_3a/3x3_reduce (in-place)
I0403 16:16:30.299821 17574 net.cpp:141] Setting up inception_3a/relu_3x3_reduce
I0403 16:16:30.299847 17574 net.cpp:148] Top shape: 24 96 28 28 (1806336)
I0403 16:16:30.299862 17574 net.cpp:156] Memory required for data: 515408928
I0403 16:16:30.299876 17574 layer_factory.hpp:77] Creating layer inception_3a/3x3
I0403 16:16:30.299898 17574 net.cpp:91] Creating Layer inception_3a/3x3
I0403 16:16:30.299916 17574 net.cpp:425] inception_3a/3x3 <- inception_3a/3x3_reduce
I0403 16:16:30.299934 17574 net.cpp:399] inception_3a/3x3 -> inception_3a/3x3
I0403 16:16:30.301511 17574 net.cpp:141] Setting up inception_3a/3x3
I0403 16:16:30.301537 17574 net.cpp:148] Top shape: 24 128 28 28 (2408448)
I0403 16:16:30.301553 17574 net.cpp:156] Memory required for data: 525042720
I0403 16:16:30.301573 17574 layer_factory.hpp:77] Creating layer inception_3a/relu_3x3
I0403 16:16:30.301594 17574 net.cpp:91] Creating Layer inception_3a/relu_3x3
I0403 16:16:30.301609 17574 net.cpp:425] inception_3a/relu_3x3 <- inception_3a/3x3
I0403 16:16:30.301627 17574 net.cpp:386] inception_3a/relu_3x3 -> inception_3a/3x3 (in-place)
I0403 16:16:30.301892 17574 net.cpp:141] Setting up inception_3a/relu_3x3
I0403 16:16:30.301918 17574 net.cpp:148] Top shape: 24 128 28 28 (2408448)
I0403 16:16:30.301931 17574 net.cpp:156] Memory required for data: 534676512
I0403 16:16:30.301944 17574 layer_factory.hpp:77] Creating layer inception_3a/5x5_reduce
I0403 16:16:30.301966 17574 net.cpp:91] Creating Layer inception_3a/5x5_reduce
I0403 16:16:30.301982 17574 net.cpp:425] inception_3a/5x5_reduce <- pool2/3x3_s2_pool2/3x3_s2_0_split_2
I0403 16:16:30.302003 17574 net.cpp:399] inception_3a/5x5_reduce -> inception_3a/5x5_reduce
I0403 16:16:30.302922 17574 net.cpp:141] Setting up inception_3a/5x5_reduce
I0403 16:16:30.302947 17574 net.cpp:148] Top shape: 24 16 28 28 (301056)
I0403 16:16:30.302963 17574 net.cpp:156] Memory required for data: 535880736
I0403 16:16:30.302980 17574 layer_factory.hpp:77] Creating layer inception_3a/relu_5x5_reduce
I0403 16:16:30.302999 17574 net.cpp:91] Creating Layer inception_3a/relu_5x5_reduce
I0403 16:16:30.303016 17574 net.cpp:425] inception_3a/relu_5x5_reduce <- inception_3a/5x5_reduce
I0403 16:16:30.303032 17574 net.cpp:386] inception_3a/relu_5x5_reduce -> inception_3a/5x5_reduce (in-place)
I0403 16:16:30.303310 17574 net.cpp:141] Setting up inception_3a/relu_5x5_reduce
I0403 16:16:30.303335 17574 net.cpp:148] Top shape: 24 16 28 28 (301056)
I0403 16:16:30.303349 17574 net.cpp:156] Memory required for data: 537084960
I0403 16:16:30.303364 17574 layer_factory.hpp:77] Creating layer inception_3a/5x5
I0403 16:16:30.303387 17574 net.cpp:91] Creating Layer inception_3a/5x5
I0403 16:16:30.303405 17574 net.cpp:425] inception_3a/5x5 <- inception_3a/5x5_reduce
I0403 16:16:30.303422 17574 net.cpp:399] inception_3a/5x5 -> inception_3a/5x5
I0403 16:16:30.304386 17574 net.cpp:141] Setting up inception_3a/5x5
I0403 16:16:30.304411 17574 net.cpp:148] Top shape: 24 32 28 28 (602112)
I0403 16:16:30.304426 17574 net.cpp:156] Memory required for data: 539493408
I0403 16:16:30.304443 17574 layer_factory.hpp:77] Creating layer inception_3a/relu_5x5
I0403 16:16:30.304461 17574 net.cpp:91] Creating Layer inception_3a/relu_5x5
I0403 16:16:30.304476 17574 net.cpp:425] inception_3a/relu_5x5 <- inception_3a/5x5
I0403 16:16:30.304494 17574 net.cpp:386] inception_3a/relu_5x5 -> inception_3a/5x5 (in-place)
I0403 16:16:30.304671 17574 net.cpp:141] Setting up inception_3a/relu_5x5
I0403 16:16:30.304695 17574 net.cpp:148] Top shape: 24 32 28 28 (602112)
I0403 16:16:30.304709 17574 net.cpp:156] Memory required for data: 541901856
I0403 16:16:30.304723 17574 layer_factory.hpp:77] Creating layer inception_3a/pool
I0403 16:16:30.304745 17574 net.cpp:91] Creating Layer inception_3a/pool
I0403 16:16:30.304775 17574 net.cpp:425] inception_3a/pool <- pool2/3x3_s2_pool2/3x3_s2_0_split_3
I0403 16:16:30.304793 17574 net.cpp:399] inception_3a/pool -> inception_3a/pool
I0403 16:16:30.304848 17574 net.cpp:141] Setting up inception_3a/pool
I0403 16:16:30.304872 17574 net.cpp:148] Top shape: 24 192 28 28 (3612672)
I0403 16:16:30.304885 17574 net.cpp:156] Memory required for data: 556352544
I0403 16:16:30.304899 17574 layer_factory.hpp:77] Creating layer inception_3a/pool_proj
I0403 16:16:30.304920 17574 net.cpp:91] Creating Layer inception_3a/pool_proj
I0403 16:16:30.304936 17574 net.cpp:425] inception_3a/pool_proj <- inception_3a/pool
I0403 16:16:30.304957 17574 net.cpp:399] inception_3a/pool_proj -> inception_3a/pool_proj
I0403 16:16:30.305879 17574 net.cpp:141] Setting up inception_3a/pool_proj
I0403 16:16:30.305908 17574 net.cpp:148] Top shape: 24 32 28 28 (602112)
I0403 16:16:30.305924 17574 net.cpp:156] Memory required for data: 558760992
I0403 16:16:30.305944 17574 layer_factory.hpp:77] Creating layer inception_3a/relu_pool_proj
I0403 16:16:30.305964 17574 net.cpp:91] Creating Layer inception_3a/relu_pool_proj
I0403 16:16:30.305980 17574 net.cpp:425] inception_3a/relu_pool_proj <- inception_3a/pool_proj
I0403 16:16:30.305996 17574 net.cpp:386] inception_3a/relu_pool_proj -> inception_3a/pool_proj (in-place)
I0403 16:16:30.306257 17574 net.cpp:141] Setting up inception_3a/relu_pool_proj
I0403 16:16:30.306282 17574 net.cpp:148] Top shape: 24 32 28 28 (602112)
I0403 16:16:30.306298 17574 net.cpp:156] Memory required for data: 561169440
I0403 16:16:30.306311 17574 layer_factory.hpp:77] Creating layer inception_3a/output
I0403 16:16:30.306329 17574 net.cpp:91] Creating Layer inception_3a/output
I0403 16:16:30.306342 17574 net.cpp:425] inception_3a/output <- inception_3a/1x1
I0403 16:16:30.306359 17574 net.cpp:425] inception_3a/output <- inception_3a/3x3
I0403 16:16:30.306373 17574 net.cpp:425] inception_3a/output <- inception_3a/5x5
I0403 16:16:30.306388 17574 net.cpp:425] inception_3a/output <- inception_3a/pool_proj
I0403 16:16:30.306406 17574 net.cpp:399] inception_3a/output -> inception_3a/output
I0403 16:16:30.306453 17574 net.cpp:141] Setting up inception_3a/output
I0403 16:16:30.306475 17574 net.cpp:148] Top shape: 24 256 28 28 (4816896)
I0403 16:16:30.306490 17574 net.cpp:156] Memory required for data: 580437024
I0403 16:16:30.306504 17574 layer_factory.hpp:77] Creating layer inception_3a/output_inception_3a/output_0_split
I0403 16:16:30.306520 17574 net.cpp:91] Creating Layer inception_3a/output_inception_3a/output_0_split
I0403 16:16:30.306535 17574 net.cpp:425] inception_3a/output_inception_3a/output_0_split <- inception_3a/output
I0403 16:16:30.306553 17574 net.cpp:399] inception_3a/output_inception_3a/output_0_split -> inception_3a/output_inception_3a/output_0_split_0
I0403 16:16:30.306576 17574 net.cpp:399] inception_3a/output_inception_3a/output_0_split -> inception_3a/output_inception_3a/output_0_split_1
I0403 16:16:30.306599 17574 net.cpp:399] inception_3a/output_inception_3a/output_0_split -> inception_3a/output_inception_3a/output_0_split_2
I0403 16:16:30.306619 17574 net.cpp:399] inception_3a/output_inception_3a/output_0_split -> inception_3a/output_inception_3a/output_0_split_3
I0403 16:16:30.306692 17574 net.cpp:141] Setting up inception_3a/output_inception_3a/output_0_split
I0403 16:16:30.306715 17574 net.cpp:148] Top shape: 24 256 28 28 (4816896)
I0403 16:16:30.306730 17574 net.cpp:148] Top shape: 24 256 28 28 (4816896)
I0403 16:16:30.306746 17574 net.cpp:148] Top shape: 24 256 28 28 (4816896)
I0403 16:16:30.306761 17574 net.cpp:148] Top shape: 24 256 28 28 (4816896)
I0403 16:16:30.306773 17574 net.cpp:156] Memory required for data: 657507360
I0403 16:16:30.306787 17574 layer_factory.hpp:77] Creating layer inception_3b/1x1
I0403 16:16:30.306809 17574 net.cpp:91] Creating Layer inception_3b/1x1
I0403 16:16:30.306826 17574 net.cpp:425] inception_3b/1x1 <- inception_3a/output_inception_3a/output_0_split_0
I0403 16:16:30.306845 17574 net.cpp:399] inception_3b/1x1 -> inception_3b/1x1
I0403 16:16:30.308002 17574 net.cpp:141] Setting up inception_3b/1x1
I0403 16:16:30.308043 17574 net.cpp:148] Top shape: 24 128 28 28 (2408448)
I0403 16:16:30.308060 17574 net.cpp:156] Memory required for data: 667141152
I0403 16:16:30.308079 17574 layer_factory.hpp:77] Creating layer inception_3b/relu_1x1
I0403 16:16:30.308096 17574 net.cpp:91] Creating Layer inception_3b/relu_1x1
I0403 16:16:30.308111 17574 net.cpp:425] inception_3b/relu_1x1 <- inception_3b/1x1
I0403 16:16:30.308131 17574 net.cpp:386] inception_3b/relu_1x1 -> inception_3b/1x1 (in-place)
I0403 16:16:30.308310 17574 net.cpp:141] Setting up inception_3b/relu_1x1
I0403 16:16:30.308333 17574 net.cpp:148] Top shape: 24 128 28 28 (2408448)
I0403 16:16:30.308347 17574 net.cpp:156] Memory required for data: 676774944
I0403 16:16:30.308362 17574 layer_factory.hpp:77] Creating layer inception_3b/3x3_reduce
I0403 16:16:30.308383 17574 net.cpp:91] Creating Layer inception_3b/3x3_reduce
I0403 16:16:30.308401 17574 net.cpp:425] inception_3b/3x3_reduce <- inception_3a/output_inception_3a/output_0_split_1
I0403 16:16:30.308423 17574 net.cpp:399] inception_3b/3x3_reduce -> inception_3b/3x3_reduce
I0403 16:16:30.309543 17574 net.cpp:141] Setting up inception_3b/3x3_reduce
I0403 16:16:30.309574 17574 net.cpp:148] Top shape: 24 128 28 28 (2408448)
I0403 16:16:30.309592 17574 net.cpp:156] Memory required for data: 686408736
I0403 16:16:30.309609 17574 layer_factory.hpp:77] Creating layer inception_3b/relu_3x3_reduce
I0403 16:16:30.309628 17574 net.cpp:91] Creating Layer inception_3b/relu_3x3_reduce
I0403 16:16:30.309643 17574 net.cpp:425] inception_3b/relu_3x3_reduce <- inception_3b/3x3_reduce
I0403 16:16:30.309664 17574 net.cpp:386] inception_3b/relu_3x3_reduce -> inception_3b/3x3_reduce (in-place)
I0403 16:16:30.309834 17574 net.cpp:141] Setting up inception_3b/relu_3x3_reduce
I0403 16:16:30.309859 17574 net.cpp:148] Top shape: 24 128 28 28 (2408448)
I0403 16:16:30.309873 17574 net.cpp:156] Memory required for data: 696042528
I0403 16:16:30.309887 17574 layer_factory.hpp:77] Creating layer inception_3b/3x3
I0403 16:16:30.309913 17574 net.cpp:91] Creating Layer inception_3b/3x3
I0403 16:16:30.309931 17574 net.cpp:425] inception_3b/3x3 <- inception_3b/3x3_reduce
I0403 16:16:30.309949 17574 net.cpp:399] inception_3b/3x3 -> inception_3b/3x3
I0403 16:16:30.312852 17574 net.cpp:141] Setting up inception_3b/3x3
I0403 16:16:30.312880 17574 net.cpp:148] Top shape: 24 192 28 28 (3612672)
I0403 16:16:30.312896 17574 net.cpp:156] Memory required for data: 710493216
I0403 16:16:30.312912 17574 layer_factory.hpp:77] Creating layer inception_3b/relu_3x3
I0403 16:16:30.312932 17574 net.cpp:91] Creating Layer inception_3b/relu_3x3
I0403 16:16:30.312949 17574 net.cpp:425] inception_3b/relu_3x3 <- inception_3b/3x3
I0403 16:16:30.312966 17574 net.cpp:386] inception_3b/relu_3x3 -> inception_3b/3x3 (in-place)
I0403 16:16:30.313241 17574 net.cpp:141] Setting up inception_3b/relu_3x3
I0403 16:16:30.313268 17574 net.cpp:148] Top shape: 24 192 28 28 (3612672)
I0403 16:16:30.313282 17574 net.cpp:156] Memory required for data: 724943904
I0403 16:16:30.313297 17574 layer_factory.hpp:77] Creating layer inception_3b/5x5_reduce
I0403 16:16:30.313320 17574 net.cpp:91] Creating Layer inception_3b/5x5_reduce
I0403 16:16:30.313338 17574 net.cpp:425] inception_3b/5x5_reduce <- inception_3a/output_inception_3a/output_0_split_2
I0403 16:16:30.313359 17574 net.cpp:399] inception_3b/5x5_reduce -> inception_3b/5x5_reduce
I0403 16:16:30.314343 17574 net.cpp:141] Setting up inception_3b/5x5_reduce
I0403 16:16:30.314371 17574 net.cpp:148] Top shape: 24 32 28 28 (602112)
I0403 16:16:30.314386 17574 net.cpp:156] Memory required for data: 727352352
I0403 16:16:30.314404 17574 layer_factory.hpp:77] Creating layer inception_3b/relu_5x5_reduce
I0403 16:16:30.314421 17574 net.cpp:91] Creating Layer inception_3b/relu_5x5_reduce
I0403 16:16:30.314436 17574 net.cpp:425] inception_3b/relu_5x5_reduce <- inception_3b/5x5_reduce
I0403 16:16:30.314456 17574 net.cpp:386] inception_3b/relu_5x5_reduce -> inception_3b/5x5_reduce (in-place)
I0403 16:16:30.314657 17574 net.cpp:141] Setting up inception_3b/relu_5x5_reduce
I0403 16:16:30.314683 17574 net.cpp:148] Top shape: 24 32 28 28 (602112)
I0403 16:16:30.314697 17574 net.cpp:156] Memory required for data: 729760800
I0403 16:16:30.314713 17574 layer_factory.hpp:77] Creating layer inception_3b/5x5
I0403 16:16:30.314734 17574 net.cpp:91] Creating Layer inception_3b/5x5
I0403 16:16:30.314751 17574 net.cpp:425] inception_3b/5x5 <- inception_3b/5x5_reduce
I0403 16:16:30.314772 17574 net.cpp:399] inception_3b/5x5 -> inception_3b/5x5
I0403 16:16:30.316723 17574 net.cpp:141] Setting up inception_3b/5x5
I0403 16:16:30.316752 17574 net.cpp:148] Top shape: 24 96 28 28 (1806336)
I0403 16:16:30.316768 17574 net.cpp:156] Memory required for data: 736986144
I0403 16:16:30.316787 17574 layer_factory.hpp:77] Creating layer inception_3b/relu_5x5
I0403 16:16:30.316803 17574 net.cpp:91] Creating Layer inception_3b/relu_5x5
I0403 16:16:30.316819 17574 net.cpp:425] inception_3b/relu_5x5 <- inception_3b/5x5
I0403 16:16:30.316838 17574 net.cpp:386] inception_3b/relu_5x5 -> inception_3b/5x5 (in-place)
I0403 16:16:30.317024 17574 net.cpp:141] Setting up inception_3b/relu_5x5
I0403 16:16:30.317050 17574 net.cpp:148] Top shape: 24 96 28 28 (1806336)
I0403 16:16:30.317065 17574 net.cpp:156] Memory required for data: 744211488
I0403 16:16:30.317080 17574 layer_factory.hpp:77] Creating layer inception_3b/pool
I0403 16:16:30.317096 17574 net.cpp:91] Creating Layer inception_3b/pool
I0403 16:16:30.317111 17574 net.cpp:425] inception_3b/pool <- inception_3a/output_inception_3a/output_0_split_3
I0403 16:16:30.317129 17574 net.cpp:399] inception_3b/pool -> inception_3b/pool
I0403 16:16:30.317188 17574 net.cpp:141] Setting up inception_3b/pool
I0403 16:16:30.317210 17574 net.cpp:148] Top shape: 24 256 28 28 (4816896)
I0403 16:16:30.317224 17574 net.cpp:156] Memory required for data: 763479072
I0403 16:16:30.317239 17574 layer_factory.hpp:77] Creating layer inception_3b/pool_proj
I0403 16:16:30.317260 17574 net.cpp:91] Creating Layer inception_3b/pool_proj
I0403 16:16:30.317276 17574 net.cpp:425] inception_3b/pool_proj <- inception_3b/pool
I0403 16:16:30.317296 17574 net.cpp:399] inception_3b/pool_proj -> inception_3b/pool_proj
I0403 16:16:30.318333 17574 net.cpp:141] Setting up inception_3b/pool_proj
I0403 16:16:30.318361 17574 net.cpp:148] Top shape: 24 64 28 28 (1204224)
I0403 16:16:30.318380 17574 net.cpp:156] Memory required for data: 768295968
I0403 16:16:30.318398 17574 layer_factory.hpp:77] Creating layer inception_3b/relu_pool_proj
I0403 16:16:30.318415 17574 net.cpp:91] Creating Layer inception_3b/relu_pool_proj
I0403 16:16:30.318430 17574 net.cpp:425] inception_3b/relu_pool_proj <- inception_3b/pool_proj
I0403 16:16:30.318447 17574 net.cpp:386] inception_3b/relu_pool_proj -> inception_3b/pool_proj (in-place)
I0403 16:16:30.318840 17574 net.cpp:141] Setting up inception_3b/relu_pool_proj
I0403 16:16:30.318866 17574 net.cpp:148] Top shape: 24 64 28 28 (1204224)
I0403 16:16:30.318881 17574 net.cpp:156] Memory required for data: 773112864
I0403 16:16:30.318894 17574 layer_factory.hpp:77] Creating layer inception_3b/output
I0403 16:16:30.318913 17574 net.cpp:91] Creating Layer inception_3b/output
I0403 16:16:30.318929 17574 net.cpp:425] inception_3b/output <- inception_3b/1x1
I0403 16:16:30.318946 17574 net.cpp:425] inception_3b/output <- inception_3b/3x3
I0403 16:16:30.318963 17574 net.cpp:425] inception_3b/output <- inception_3b/5x5
I0403 16:16:30.318979 17574 net.cpp:425] inception_3b/output <- inception_3b/pool_proj
I0403 16:16:30.318994 17574 net.cpp:399] inception_3b/output -> inception_3b/output
I0403 16:16:30.319038 17574 net.cpp:141] Setting up inception_3b/output
I0403 16:16:30.319061 17574 net.cpp:148] Top shape: 24 480 28 28 (9031680)
I0403 16:16:30.319077 17574 net.cpp:156] Memory required for data: 809239584
I0403 16:16:30.319090 17574 layer_factory.hpp:77] Creating layer pool3/3x3_s2
I0403 16:16:30.319108 17574 net.cpp:91] Creating Layer pool3/3x3_s2
I0403 16:16:30.319123 17574 net.cpp:425] pool3/3x3_s2 <- inception_3b/output
I0403 16:16:30.319159 17574 net.cpp:399] pool3/3x3_s2 -> pool3/3x3_s2
I0403 16:16:30.319216 17574 net.cpp:141] Setting up pool3/3x3_s2
I0403 16:16:30.319239 17574 net.cpp:148] Top shape: 24 480 14 14 (2257920)
I0403 16:16:30.319253 17574 net.cpp:156] Memory required for data: 818271264
I0403 16:16:30.319267 17574 layer_factory.hpp:77] Creating layer pool3/3x3_s2_pool3/3x3_s2_0_split
I0403 16:16:30.319285 17574 net.cpp:91] Creating Layer pool3/3x3_s2_pool3/3x3_s2_0_split
I0403 16:16:30.319301 17574 net.cpp:425] pool3/3x3_s2_pool3/3x3_s2_0_split <- pool3/3x3_s2
I0403 16:16:30.319320 17574 net.cpp:399] pool3/3x3_s2_pool3/3x3_s2_0_split -> pool3/3x3_s2_pool3/3x3_s2_0_split_0
I0403 16:16:30.319340 17574 net.cpp:399] pool3/3x3_s2_pool3/3x3_s2_0_split -> pool3/3x3_s2_pool3/3x3_s2_0_split_1
I0403 16:16:30.319360 17574 net.cpp:399] pool3/3x3_s2_pool3/3x3_s2_0_split -> pool3/3x3_s2_pool3/3x3_s2_0_split_2
I0403 16:16:30.319378 17574 net.cpp:399] pool3/3x3_s2_pool3/3x3_s2_0_split -> pool3/3x3_s2_pool3/3x3_s2_0_split_3
I0403 16:16:30.319453 17574 net.cpp:141] Setting up pool3/3x3_s2_pool3/3x3_s2_0_split
I0403 16:16:30.319475 17574 net.cpp:148] Top shape: 24 480 14 14 (2257920)
I0403 16:16:30.319490 17574 net.cpp:148] Top shape: 24 480 14 14 (2257920)
I0403 16:16:30.319505 17574 net.cpp:148] Top shape: 24 480 14 14 (2257920)
I0403 16:16:30.319521 17574 net.cpp:148] Top shape: 24 480 14 14 (2257920)
I0403 16:16:30.319535 17574 net.cpp:156] Memory required for data: 854397984
I0403 16:16:30.319548 17574 layer_factory.hpp:77] Creating layer inception_4a/1x1
I0403 16:16:30.319573 17574 net.cpp:91] Creating Layer inception_4a/1x1
I0403 16:16:30.319591 17574 net.cpp:425] inception_4a/1x1 <- pool3/3x3_s2_pool3/3x3_s2_0_split_0
I0403 16:16:30.319612 17574 net.cpp:399] inception_4a/1x1 -> inception_4a/1x1
I0403 16:16:30.321156 17574 net.cpp:141] Setting up inception_4a/1x1
I0403 16:16:30.321185 17574 net.cpp:148] Top shape: 24 192 14 14 (903168)
I0403 16:16:30.321202 17574 net.cpp:156] Memory required for data: 858010656
I0403 16:16:30.321219 17574 layer_factory.hpp:77] Creating layer inception_4a/relu_1x1
I0403 16:16:30.321236 17574 net.cpp:91] Creating Layer inception_4a/relu_1x1
I0403 16:16:30.321252 17574 net.cpp:425] inception_4a/relu_1x1 <- inception_4a/1x1
I0403 16:16:30.321270 17574 net.cpp:386] inception_4a/relu_1x1 -> inception_4a/1x1 (in-place)
I0403 16:16:30.321444 17574 net.cpp:141] Setting up inception_4a/relu_1x1
I0403 16:16:30.321470 17574 net.cpp:148] Top shape: 24 192 14 14 (903168)
I0403 16:16:30.321485 17574 net.cpp:156] Memory required for data: 861623328
I0403 16:16:30.321498 17574 layer_factory.hpp:77] Creating layer inception_4a/3x3_reduce
I0403 16:16:30.321519 17574 net.cpp:91] Creating Layer inception_4a/3x3_reduce
I0403 16:16:30.321537 17574 net.cpp:425] inception_4a/3x3_reduce <- pool3/3x3_s2_pool3/3x3_s2_0_split_1
I0403 16:16:30.321557 17574 net.cpp:399] inception_4a/3x3_reduce -> inception_4a/3x3_reduce
I0403 16:16:30.322813 17574 net.cpp:141] Setting up inception_4a/3x3_reduce
I0403 16:16:30.322839 17574 net.cpp:148] Top shape: 24 96 14 14 (451584)
I0403 16:16:30.322854 17574 net.cpp:156] Memory required for data: 863429664
I0403 16:16:30.322883 17574 layer_factory.hpp:77] Creating layer inception_4a/relu_3x3_reduce
I0403 16:16:30.322903 17574 net.cpp:91] Creating Layer inception_4a/relu_3x3_reduce
I0403 16:16:30.322921 17574 net.cpp:425] inception_4a/relu_3x3_reduce <- inception_4a/3x3_reduce
I0403 16:16:30.322937 17574 net.cpp:386] inception_4a/relu_3x3_reduce -> inception_4a/3x3_reduce (in-place)
I0403 16:16:30.323108 17574 net.cpp:141] Setting up inception_4a/relu_3x3_reduce
I0403 16:16:30.323135 17574 net.cpp:148] Top shape: 24 96 14 14 (451584)
I0403 16:16:30.323149 17574 net.cpp:156] Memory required for data: 865236000
I0403 16:16:30.323164 17574 layer_factory.hpp:77] Creating layer inception_4a/3x3
I0403 16:16:30.323186 17574 net.cpp:91] Creating Layer inception_4a/3x3
I0403 16:16:30.323204 17574 net.cpp:425] inception_4a/3x3 <- inception_4a/3x3_reduce
I0403 16:16:30.323221 17574 net.cpp:399] inception_4a/3x3 -> inception_4a/3x3
I0403 16:16:30.325922 17574 net.cpp:141] Setting up inception_4a/3x3
I0403 16:16:30.325952 17574 net.cpp:148] Top shape: 24 208 14 14 (978432)
I0403 16:16:30.325966 17574 net.cpp:156] Memory required for data: 869149728
I0403 16:16:30.325984 17574 layer_factory.hpp:77] Creating layer inception_4a/relu_3x3
I0403 16:16:30.326002 17574 net.cpp:91] Creating Layer inception_4a/relu_3x3
I0403 16:16:30.326019 17574 net.cpp:425] inception_4a/relu_3x3 <- inception_4a/3x3
I0403 16:16:30.326037 17574 net.cpp:386] inception_4a/relu_3x3 -> inception_4a/3x3 (in-place)
I0403 16:16:30.326333 17574 net.cpp:141] Setting up inception_4a/relu_3x3
I0403 16:16:30.326359 17574 net.cpp:148] Top shape: 24 208 14 14 (978432)
I0403 16:16:30.326372 17574 net.cpp:156] Memory required for data: 873063456
I0403 16:16:30.326386 17574 layer_factory.hpp:77] Creating layer inception_4a/5x5_reduce
I0403 16:16:30.326407 17574 net.cpp:91] Creating Layer inception_4a/5x5_reduce
I0403 16:16:30.326424 17574 net.cpp:425] inception_4a/5x5_reduce <- pool3/3x3_s2_pool3/3x3_s2_0_split_2
I0403 16:16:30.326445 17574 net.cpp:399] inception_4a/5x5_reduce -> inception_4a/5x5_reduce
I0403 16:16:30.327420 17574 net.cpp:141] Setting up inception_4a/5x5_reduce
I0403 16:16:30.327446 17574 net.cpp:148] Top shape: 24 16 14 14 (75264)
I0403 16:16:30.327461 17574 net.cpp:156] Memory required for data: 873364512
I0403 16:16:30.327477 17574 layer_factory.hpp:77] Creating layer inception_4a/relu_5x5_reduce
I0403 16:16:30.327494 17574 net.cpp:91] Creating Layer inception_4a/relu_5x5_reduce
I0403 16:16:30.327510 17574 net.cpp:425] inception_4a/relu_5x5_reduce <- inception_4a/5x5_reduce
I0403 16:16:30.327528 17574 net.cpp:386] inception_4a/relu_5x5_reduce -> inception_4a/5x5_reduce (in-place)
I0403 16:16:30.327703 17574 net.cpp:141] Setting up inception_4a/relu_5x5_reduce
I0403 16:16:30.327728 17574 net.cpp:148] Top shape: 24 16 14 14 (75264)
I0403 16:16:30.327742 17574 net.cpp:156] Memory required for data: 873665568
I0403 16:16:30.327756 17574 layer_factory.hpp:77] Creating layer inception_4a/5x5
I0403 16:16:30.327777 17574 net.cpp:91] Creating Layer inception_4a/5x5
I0403 16:16:30.327795 17574 net.cpp:425] inception_4a/5x5 <- inception_4a/5x5_reduce
I0403 16:16:30.327814 17574 net.cpp:399] inception_4a/5x5 -> inception_4a/5x5
I0403 16:16:30.328865 17574 net.cpp:141] Setting up inception_4a/5x5
I0403 16:16:30.328891 17574 net.cpp:148] Top shape: 24 48 14 14 (225792)
I0403 16:16:30.328905 17574 net.cpp:156] Memory required for data: 874568736
I0403 16:16:30.328923 17574 layer_factory.hpp:77] Creating layer inception_4a/relu_5x5
I0403 16:16:30.328943 17574 net.cpp:91] Creating Layer inception_4a/relu_5x5
I0403 16:16:30.328958 17574 net.cpp:425] inception_4a/relu_5x5 <- inception_4a/5x5
I0403 16:16:30.328975 17574 net.cpp:386] inception_4a/relu_5x5 -> inception_4a/5x5 (in-place)
I0403 16:16:30.329144 17574 net.cpp:141] Setting up inception_4a/relu_5x5
I0403 16:16:30.329170 17574 net.cpp:148] Top shape: 24 48 14 14 (225792)
I0403 16:16:30.329185 17574 net.cpp:156] Memory required for data: 875471904
I0403 16:16:30.329200 17574 layer_factory.hpp:77] Creating layer inception_4a/pool
I0403 16:16:30.329216 17574 net.cpp:91] Creating Layer inception_4a/pool
I0403 16:16:30.329231 17574 net.cpp:425] inception_4a/pool <- pool3/3x3_s2_pool3/3x3_s2_0_split_3
I0403 16:16:30.329249 17574 net.cpp:399] inception_4a/pool -> inception_4a/pool
I0403 16:16:30.329313 17574 net.cpp:141] Setting up inception_4a/pool
I0403 16:16:30.329335 17574 net.cpp:148] Top shape: 24 480 14 14 (2257920)
I0403 16:16:30.329350 17574 net.cpp:156] Memory required for data: 884503584
I0403 16:16:30.329363 17574 layer_factory.hpp:77] Creating layer inception_4a/pool_proj
I0403 16:16:30.329383 17574 net.cpp:91] Creating Layer inception_4a/pool_proj
I0403 16:16:30.329402 17574 net.cpp:425] inception_4a/pool_proj <- inception_4a/pool
I0403 16:16:30.329421 17574 net.cpp:399] inception_4a/pool_proj -> inception_4a/pool_proj
I0403 16:16:30.330533 17574 net.cpp:141] Setting up inception_4a/pool_proj
I0403 16:16:30.330559 17574 net.cpp:148] Top shape: 24 64 14 14 (301056)
I0403 16:16:30.330595 17574 net.cpp:156] Memory required for data: 885707808
I0403 16:16:30.330612 17574 layer_factory.hpp:77] Creating layer inception_4a/relu_pool_proj
I0403 16:16:30.330632 17574 net.cpp:91] Creating Layer inception_4a/relu_pool_proj
I0403 16:16:30.330648 17574 net.cpp:425] inception_4a/relu_pool_proj <- inception_4a/pool_proj
I0403 16:16:30.330665 17574 net.cpp:386] inception_4a/relu_pool_proj -> inception_4a/pool_proj (in-place)
I0403 16:16:30.330936 17574 net.cpp:141] Setting up inception_4a/relu_pool_proj
I0403 16:16:30.330960 17574 net.cpp:148] Top shape: 24 64 14 14 (301056)
I0403 16:16:30.330974 17574 net.cpp:156] Memory required for data: 886912032
I0403 16:16:30.330988 17574 layer_factory.hpp:77] Creating layer inception_4a/output
I0403 16:16:30.331007 17574 net.cpp:91] Creating Layer inception_4a/output
I0403 16:16:30.331022 17574 net.cpp:425] inception_4a/output <- inception_4a/1x1
I0403 16:16:30.331038 17574 net.cpp:425] inception_4a/output <- inception_4a/3x3
I0403 16:16:30.331053 17574 net.cpp:425] inception_4a/output <- inception_4a/5x5
I0403 16:16:30.331068 17574 net.cpp:425] inception_4a/output <- inception_4a/pool_proj
I0403 16:16:30.331084 17574 net.cpp:399] inception_4a/output -> inception_4a/output
I0403 16:16:30.331128 17574 net.cpp:141] Setting up inception_4a/output
I0403 16:16:30.331151 17574 net.cpp:148] Top shape: 24 512 14 14 (2408448)
I0403 16:16:30.331163 17574 net.cpp:156] Memory required for data: 896545824
I0403 16:16:30.331177 17574 layer_factory.hpp:77] Creating layer inception_4a/output_inception_4a/output_0_split
I0403 16:16:30.331193 17574 net.cpp:91] Creating Layer inception_4a/output_inception_4a/output_0_split
I0403 16:16:30.331208 17574 net.cpp:425] inception_4a/output_inception_4a/output_0_split <- inception_4a/output
I0403 16:16:30.331226 17574 net.cpp:399] inception_4a/output_inception_4a/output_0_split -> inception_4a/output_inception_4a/output_0_split_0
I0403 16:16:30.331246 17574 net.cpp:399] inception_4a/output_inception_4a/output_0_split -> inception_4a/output_inception_4a/output_0_split_1
I0403 16:16:30.331269 17574 net.cpp:399] inception_4a/output_inception_4a/output_0_split -> inception_4a/output_inception_4a/output_0_split_2
I0403 16:16:30.331290 17574 net.cpp:399] inception_4a/output_inception_4a/output_0_split -> inception_4a/output_inception_4a/output_0_split_3
I0403 16:16:30.331310 17574 net.cpp:399] inception_4a/output_inception_4a/output_0_split -> inception_4a/output_inception_4a/output_0_split_4
I0403 16:16:30.331398 17574 net.cpp:141] Setting up inception_4a/output_inception_4a/output_0_split
I0403 16:16:30.331419 17574 net.cpp:148] Top shape: 24 512 14 14 (2408448)
I0403 16:16:30.331434 17574 net.cpp:148] Top shape: 24 512 14 14 (2408448)
I0403 16:16:30.331449 17574 net.cpp:148] Top shape: 24 512 14 14 (2408448)
I0403 16:16:30.331464 17574 net.cpp:148] Top shape: 24 512 14 14 (2408448)
I0403 16:16:30.331477 17574 net.cpp:148] Top shape: 24 512 14 14 (2408448)
I0403 16:16:30.331490 17574 net.cpp:156] Memory required for data: 944714784
I0403 16:16:30.331503 17574 layer_factory.hpp:77] Creating layer loss1/ave_pool
I0403 16:16:30.331521 17574 net.cpp:91] Creating Layer loss1/ave_pool
I0403 16:16:30.331535 17574 net.cpp:425] loss1/ave_pool <- inception_4a/output_inception_4a/output_0_split_0
I0403 16:16:30.331555 17574 net.cpp:399] loss1/ave_pool -> loss1/ave_pool
I0403 16:16:30.331753 17574 net.cpp:141] Setting up loss1/ave_pool
I0403 16:16:30.331779 17574 net.cpp:148] Top shape: 24 512 4 4 (196608)
I0403 16:16:30.331792 17574 net.cpp:156] Memory required for data: 945501216
I0403 16:16:30.331805 17574 layer_factory.hpp:77] Creating layer loss1/conv
I0403 16:16:30.331828 17574 net.cpp:91] Creating Layer loss1/conv
I0403 16:16:30.331845 17574 net.cpp:425] loss1/conv <- loss1/ave_pool
I0403 16:16:30.331863 17574 net.cpp:399] loss1/conv -> loss1/conv
I0403 16:16:30.333209 17574 net.cpp:141] Setting up loss1/conv
I0403 16:16:30.333235 17574 net.cpp:148] Top shape: 24 128 4 4 (49152)
I0403 16:16:30.333266 17574 net.cpp:156] Memory required for data: 945697824
I0403 16:16:30.333284 17574 layer_factory.hpp:77] Creating layer loss1/relu_conv
I0403 16:16:30.333302 17574 net.cpp:91] Creating Layer loss1/relu_conv
I0403 16:16:30.333315 17574 net.cpp:425] loss1/relu_conv <- loss1/conv
I0403 16:16:30.333334 17574 net.cpp:386] loss1/relu_conv -> loss1/conv (in-place)
I0403 16:16:30.333607 17574 net.cpp:141] Setting up loss1/relu_conv
I0403 16:16:30.333632 17574 net.cpp:148] Top shape: 24 128 4 4 (49152)
I0403 16:16:30.333647 17574 net.cpp:156] Memory required for data: 945894432
I0403 16:16:30.333660 17574 layer_factory.hpp:77] Creating layer loss1/fc
I0403 16:16:30.333683 17574 net.cpp:91] Creating Layer loss1/fc
I0403 16:16:30.333699 17574 net.cpp:425] loss1/fc <- loss1/conv
I0403 16:16:30.333719 17574 net.cpp:399] loss1/fc -> loss1/fc
I0403 16:16:30.350968 17574 net.cpp:141] Setting up loss1/fc
I0403 16:16:30.351001 17574 net.cpp:148] Top shape: 24 1024 (24576)
I0403 16:16:30.351014 17574 net.cpp:156] Memory required for data: 945992736
I0403 16:16:30.351032 17574 layer_factory.hpp:77] Creating layer loss1/relu_fc
I0403 16:16:30.351048 17574 net.cpp:91] Creating Layer loss1/relu_fc
I0403 16:16:30.351063 17574 net.cpp:425] loss1/relu_fc <- loss1/fc
I0403 16:16:30.351080 17574 net.cpp:386] loss1/relu_fc -> loss1/fc (in-place)
I0403 16:16:30.351259 17574 net.cpp:141] Setting up loss1/relu_fc
I0403 16:16:30.351284 17574 net.cpp:148] Top shape: 24 1024 (24576)
I0403 16:16:30.351297 17574 net.cpp:156] Memory required for data: 946091040
I0403 16:16:30.351311 17574 layer_factory.hpp:77] Creating layer loss1/drop_fc
I0403 16:16:30.351336 17574 net.cpp:91] Creating Layer loss1/drop_fc
I0403 16:16:30.351352 17574 net.cpp:425] loss1/drop_fc <- loss1/fc
I0403 16:16:30.351372 17574 net.cpp:386] loss1/drop_fc -> loss1/fc (in-place)
I0403 16:16:30.351420 17574 net.cpp:141] Setting up loss1/drop_fc
I0403 16:16:30.351444 17574 net.cpp:148] Top shape: 24 1024 (24576)
I0403 16:16:30.351457 17574 net.cpp:156] Memory required for data: 946189344
I0403 16:16:30.351471 17574 layer_factory.hpp:77] Creating layer loss1/classifier_plantvillage
I0403 16:16:30.351492 17574 net.cpp:91] Creating Layer loss1/classifier_plantvillage
I0403 16:16:30.351510 17574 net.cpp:425] loss1/classifier_plantvillage <- loss1/fc
I0403 16:16:30.351526 17574 net.cpp:399] loss1/classifier_plantvillage -> loss1/classifier_plantvillage
I0403 16:16:30.352414 17574 net.cpp:141] Setting up loss1/classifier_plantvillage
I0403 16:16:30.352444 17574 net.cpp:148] Top shape: 24 38 (912)
I0403 16:16:30.352459 17574 net.cpp:156] Memory required for data: 946192992
I0403 16:16:30.352476 17574 layer_factory.hpp:77] Creating layer loss1/classifier_plantvillage_loss1/classifier_plantvillage_0_split
I0403 16:16:30.352493 17574 net.cpp:91] Creating Layer loss1/classifier_plantvillage_loss1/classifier_plantvillage_0_split
I0403 16:16:30.352507 17574 net.cpp:425] loss1/classifier_plantvillage_loss1/classifier_plantvillage_0_split <- loss1/classifier_plantvillage
I0403 16:16:30.352524 17574 net.cpp:399] loss1/classifier_plantvillage_loss1/classifier_plantvillage_0_split -> loss1/classifier_plantvillage_loss1/classifier_plantvillage_0_split_0
I0403 16:16:30.352546 17574 net.cpp:399] loss1/classifier_plantvillage_loss1/classifier_plantvillage_0_split -> loss1/classifier_plantvillage_loss1/classifier_plantvillage_0_split_1
I0403 16:16:30.352571 17574 net.cpp:399] loss1/classifier_plantvillage_loss1/classifier_plantvillage_0_split -> loss1/classifier_plantvillage_loss1/classifier_plantvillage_0_split_2
I0403 16:16:30.352635 17574 net.cpp:141] Setting up loss1/classifier_plantvillage_loss1/classifier_plantvillage_0_split
I0403 16:16:30.352658 17574 net.cpp:148] Top shape: 24 38 (912)
I0403 16:16:30.352672 17574 net.cpp:148] Top shape: 24 38 (912)
I0403 16:16:30.352687 17574 net.cpp:148] Top shape: 24 38 (912)
I0403 16:16:30.352700 17574 net.cpp:156] Memory required for data: 946203936
I0403 16:16:30.352715 17574 layer_factory.hpp:77] Creating layer inception_4b/1x1
I0403 16:16:30.352733 17574 net.cpp:91] Creating Layer inception_4b/1x1
I0403 16:16:30.352766 17574 net.cpp:425] inception_4b/1x1 <- inception_4a/output_inception_4a/output_0_split_1
I0403 16:16:30.352787 17574 net.cpp:399] inception_4b/1x1 -> inception_4b/1x1
I0403 16:16:30.354428 17574 net.cpp:141] Setting up inception_4b/1x1
I0403 16:16:30.354455 17574 net.cpp:148] Top shape: 24 160 14 14 (752640)
I0403 16:16:30.354471 17574 net.cpp:156] Memory required for data: 949214496
I0403 16:16:30.354490 17574 layer_factory.hpp:77] Creating layer inception_4b/relu_1x1
I0403 16:16:30.354506 17574 net.cpp:91] Creating Layer inception_4b/relu_1x1
I0403 16:16:30.354522 17574 net.cpp:425] inception_4b/relu_1x1 <- inception_4b/1x1
I0403 16:16:30.354542 17574 net.cpp:386] inception_4b/relu_1x1 -> inception_4b/1x1 (in-place)
I0403 16:16:30.354730 17574 net.cpp:141] Setting up inception_4b/relu_1x1
I0403 16:16:30.354755 17574 net.cpp:148] Top shape: 24 160 14 14 (752640)
I0403 16:16:30.354770 17574 net.cpp:156] Memory required for data: 952225056
I0403 16:16:30.354785 17574 layer_factory.hpp:77] Creating layer inception_4b/3x3_reduce
I0403 16:16:30.354806 17574 net.cpp:91] Creating Layer inception_4b/3x3_reduce
I0403 16:16:30.354825 17574 net.cpp:425] inception_4b/3x3_reduce <- inception_4a/output_inception_4a/output_0_split_2
I0403 16:16:30.354846 17574 net.cpp:399] inception_4b/3x3_reduce -> inception_4b/3x3_reduce
I0403 16:16:30.356199 17574 net.cpp:141] Setting up inception_4b/3x3_reduce
I0403 16:16:30.356225 17574 net.cpp:148] Top shape: 24 112 14 14 (526848)
I0403 16:16:30.356240 17574 net.cpp:156] Memory required for data: 954332448
I0403 16:16:30.356272 17574 layer_factory.hpp:77] Creating layer inception_4b/relu_3x3_reduce
I0403 16:16:30.356297 17574 net.cpp:91] Creating Layer inception_4b/relu_3x3_reduce
I0403 16:16:30.356314 17574 net.cpp:425] inception_4b/relu_3x3_reduce <- inception_4b/3x3_reduce
I0403 16:16:30.356333 17574 net.cpp:386] inception_4b/relu_3x3_reduce -> inception_4b/3x3_reduce (in-place)
I0403 16:16:30.356626 17574 net.cpp:141] Setting up inception_4b/relu_3x3_reduce
I0403 16:16:30.356653 17574 net.cpp:148] Top shape: 24 112 14 14 (526848)
I0403 16:16:30.356668 17574 net.cpp:156] Memory required for data: 956439840
I0403 16:16:30.356683 17574 layer_factory.hpp:77] Creating layer inception_4b/3x3
I0403 16:16:30.356705 17574 net.cpp:91] Creating Layer inception_4b/3x3
I0403 16:16:30.356724 17574 net.cpp:425] inception_4b/3x3 <- inception_4b/3x3_reduce
I0403 16:16:30.356745 17574 net.cpp:399] inception_4b/3x3 -> inception_4b/3x3
I0403 16:16:30.359812 17574 net.cpp:141] Setting up inception_4b/3x3
I0403 16:16:30.359843 17574 net.cpp:148] Top shape: 24 224 14 14 (1053696)
I0403 16:16:30.359859 17574 net.cpp:156] Memory required for data: 960654624
I0403 16:16:30.359877 17574 layer_factory.hpp:77] Creating layer inception_4b/relu_3x3
I0403 16:16:30.359895 17574 net.cpp:91] Creating Layer inception_4b/relu_3x3
I0403 16:16:30.359912 17574 net.cpp:425] inception_4b/relu_3x3 <- inception_4b/3x3
I0403 16:16:30.359930 17574 net.cpp:386] inception_4b/relu_3x3 -> inception_4b/3x3 (in-place)
I0403 16:16:30.360121 17574 net.cpp:141] Setting up inception_4b/relu_3x3
I0403 16:16:30.360146 17574 net.cpp:148] Top shape: 24 224 14 14 (1053696)
I0403 16:16:30.360162 17574 net.cpp:156] Memory required for data: 964869408
I0403 16:16:30.360177 17574 layer_factory.hpp:77] Creating layer inception_4b/5x5_reduce
I0403 16:16:30.360200 17574 net.cpp:91] Creating Layer inception_4b/5x5_reduce
I0403 16:16:30.360219 17574 net.cpp:425] inception_4b/5x5_reduce <- inception_4a/output_inception_4a/output_0_split_3
I0403 16:16:30.360240 17574 net.cpp:399] inception_4b/5x5_reduce -> inception_4b/5x5_reduce
I0403 16:16:30.361341 17574 net.cpp:141] Setting up inception_4b/5x5_reduce
I0403 16:16:30.361369 17574 net.cpp:148] Top shape: 24 24 14 14 (112896)
I0403 16:16:30.361384 17574 net.cpp:156] Memory required for data: 965320992
I0403 16:16:30.361402 17574 layer_factory.hpp:77] Creating layer inception_4b/relu_5x5_reduce
I0403 16:16:30.361423 17574 net.cpp:91] Creating Layer inception_4b/relu_5x5_reduce
I0403 16:16:30.361455 17574 net.cpp:425] inception_4b/relu_5x5_reduce <- inception_4b/5x5_reduce
I0403 16:16:30.361474 17574 net.cpp:386] inception_4b/relu_5x5_reduce -> inception_4b/5x5_reduce (in-place)
I0403 16:16:30.361685 17574 net.cpp:141] Setting up inception_4b/relu_5x5_reduce
I0403 16:16:30.361711 17574 net.cpp:148] Top shape: 24 24 14 14 (112896)
I0403 16:16:30.361727 17574 net.cpp:156] Memory required for data: 965772576
I0403 16:16:30.361742 17574 layer_factory.hpp:77] Creating layer inception_4b/5x5
I0403 16:16:30.361768 17574 net.cpp:91] Creating Layer inception_4b/5x5
I0403 16:16:30.361788 17574 net.cpp:425] inception_4b/5x5 <- inception_4b/5x5_reduce
I0403 16:16:30.361806 17574 net.cpp:399] inception_4b/5x5 -> inception_4b/5x5
I0403 16:16:30.363076 17574 net.cpp:141] Setting up inception_4b/5x5
I0403 16:16:30.363104 17574 net.cpp:148] Top shape: 24 64 14 14 (301056)
I0403 16:16:30.363121 17574 net.cpp:156] Memory required for data: 966976800
I0403 16:16:30.363138 17574 layer_factory.hpp:77] Creating layer inception_4b/relu_5x5
I0403 16:16:30.363155 17574 net.cpp:91] Creating Layer inception_4b/relu_5x5
I0403 16:16:30.363171 17574 net.cpp:425] inception_4b/relu_5x5 <- inception_4b/5x5
I0403 16:16:30.363191 17574 net.cpp:386] inception_4b/relu_5x5 -> inception_4b/5x5 (in-place)
I0403 16:16:30.363481 17574 net.cpp:141] Setting up inception_4b/relu_5x5
I0403 16:16:30.363507 17574 net.cpp:148] Top shape: 24 64 14 14 (301056)
I0403 16:16:30.363523 17574 net.cpp:156] Memory required for data: 968181024
I0403 16:16:30.363538 17574 layer_factory.hpp:77] Creating layer inception_4b/pool
I0403 16:16:30.363556 17574 net.cpp:91] Creating Layer inception_4b/pool
I0403 16:16:30.363576 17574 net.cpp:425] inception_4b/pool <- inception_4a/output_inception_4a/output_0_split_4
I0403 16:16:30.363601 17574 net.cpp:399] inception_4b/pool -> inception_4b/pool
I0403 16:16:30.363672 17574 net.cpp:141] Setting up inception_4b/pool
I0403 16:16:30.363695 17574 net.cpp:148] Top shape: 24 512 14 14 (2408448)
I0403 16:16:30.363710 17574 net.cpp:156] Memory required for data: 977814816
I0403 16:16:30.363725 17574 layer_factory.hpp:77] Creating layer inception_4b/pool_proj
I0403 16:16:30.363749 17574 net.cpp:91] Creating Layer inception_4b/pool_proj
I0403 16:16:30.363767 17574 net.cpp:425] inception_4b/pool_proj <- inception_4b/pool
I0403 16:16:30.363785 17574 net.cpp:399] inception_4b/pool_proj -> inception_4b/pool_proj
I0403 16:16:30.365023 17574 net.cpp:141] Setting up inception_4b/pool_proj
I0403 16:16:30.365051 17574 net.cpp:148] Top shape: 24 64 14 14 (301056)
I0403 16:16:30.365067 17574 net.cpp:156] Memory required for data: 979019040
I0403 16:16:30.365084 17574 layer_factory.hpp:77] Creating layer inception_4b/relu_pool_proj
I0403 16:16:30.365105 17574 net.cpp:91] Creating Layer inception_4b/relu_pool_proj
I0403 16:16:30.365123 17574 net.cpp:425] inception_4b/relu_pool_proj <- inception_4b/pool_proj
I0403 16:16:30.365141 17574 net.cpp:386] inception_4b/relu_pool_proj -> inception_4b/pool_proj (in-place)
I0403 16:16:30.365327 17574 net.cpp:141] Setting up inception_4b/relu_pool_proj
I0403 16:16:30.365353 17574 net.cpp:148] Top shape: 24 64 14 14 (301056)
I0403 16:16:30.365372 17574 net.cpp:156] Memory required for data: 980223264
I0403 16:16:30.365386 17574 layer_factory.hpp:77] Creating layer inception_4b/output
I0403 16:16:30.365403 17574 net.cpp:91] Creating Layer inception_4b/output
I0403 16:16:30.365419 17574 net.cpp:425] inception_4b/output <- inception_4b/1x1
I0403 16:16:30.365437 17574 net.cpp:425] inception_4b/output <- inception_4b/3x3
I0403 16:16:30.365453 17574 net.cpp:425] inception_4b/output <- inception_4b/5x5
I0403 16:16:30.365469 17574 net.cpp:425] inception_4b/output <- inception_4b/pool_proj
I0403 16:16:30.365486 17574 net.cpp:399] inception_4b/output -> inception_4b/output
I0403 16:16:30.365535 17574 net.cpp:141] Setting up inception_4b/output
I0403 16:16:30.365557 17574 net.cpp:148] Top shape: 24 512 14 14 (2408448)
I0403 16:16:30.365577 17574 net.cpp:156] Memory required for data: 989857056
I0403 16:16:30.365607 17574 layer_factory.hpp:77] Creating layer inception_4b/output_inception_4b/output_0_split
I0403 16:16:30.365625 17574 net.cpp:91] Creating Layer inception_4b/output_inception_4b/output_0_split
I0403 16:16:30.365640 17574 net.cpp:425] inception_4b/output_inception_4b/output_0_split <- inception_4b/output
I0403 16:16:30.365661 17574 net.cpp:399] inception_4b/output_inception_4b/output_0_split -> inception_4b/output_inception_4b/output_0_split_0
I0403 16:16:30.365682 17574 net.cpp:399] inception_4b/output_inception_4b/output_0_split -> inception_4b/output_inception_4b/output_0_split_1
I0403 16:16:30.365702 17574 net.cpp:399] inception_4b/output_inception_4b/output_0_split -> inception_4b/output_inception_4b/output_0_split_2
I0403 16:16:30.365723 17574 net.cpp:399] inception_4b/output_inception_4b/output_0_split -> inception_4b/output_inception_4b/output_0_split_3
I0403 16:16:30.365808 17574 net.cpp:141] Setting up inception_4b/output_inception_4b/output_0_split
I0403 16:16:30.365831 17574 net.cpp:148] Top shape: 24 512 14 14 (2408448)
I0403 16:16:30.365849 17574 net.cpp:148] Top shape: 24 512 14 14 (2408448)
I0403 16:16:30.365864 17574 net.cpp:148] Top shape: 24 512 14 14 (2408448)
I0403 16:16:30.365880 17574 net.cpp:148] Top shape: 24 512 14 14 (2408448)
I0403 16:16:30.365893 17574 net.cpp:156] Memory required for data: 1028392224
I0403 16:16:30.365908 17574 layer_factory.hpp:77] Creating layer inception_4c/1x1
I0403 16:16:30.365931 17574 net.cpp:91] Creating Layer inception_4c/1x1
I0403 16:16:30.365947 17574 net.cpp:425] inception_4c/1x1 <- inception_4b/output_inception_4b/output_0_split_0
I0403 16:16:30.365968 17574 net.cpp:399] inception_4c/1x1 -> inception_4c/1x1
I0403 16:16:30.367442 17574 net.cpp:141] Setting up inception_4c/1x1
I0403 16:16:30.367478 17574 net.cpp:148] Top shape: 24 128 14 14 (602112)
I0403 16:16:30.367494 17574 net.cpp:156] Memory required for data: 1030800672
I0403 16:16:30.367513 17574 layer_factory.hpp:77] Creating layer inception_4c/relu_1x1
I0403 16:16:30.367532 17574 net.cpp:91] Creating Layer inception_4c/relu_1x1
I0403 16:16:30.367547 17574 net.cpp:425] inception_4c/relu_1x1 <- inception_4c/1x1
I0403 16:16:30.367564 17574 net.cpp:386] inception_4c/relu_1x1 -> inception_4c/1x1 (in-place)
I0403 16:16:30.367765 17574 net.cpp:141] Setting up inception_4c/relu_1x1
I0403 16:16:30.367792 17574 net.cpp:148] Top shape: 24 128 14 14 (602112)
I0403 16:16:30.367807 17574 net.cpp:156] Memory required for data: 1033209120
I0403 16:16:30.367821 17574 layer_factory.hpp:77] Creating layer inception_4c/3x3_reduce
I0403 16:16:30.367843 17574 net.cpp:91] Creating Layer inception_4c/3x3_reduce
I0403 16:16:30.367861 17574 net.cpp:425] inception_4c/3x3_reduce <- inception_4b/output_inception_4b/output_0_split_1
I0403 16:16:30.367884 17574 net.cpp:399] inception_4c/3x3_reduce -> inception_4c/3x3_reduce
I0403 16:16:30.369829 17574 net.cpp:141] Setting up inception_4c/3x3_reduce
I0403 16:16:30.369858 17574 net.cpp:148] Top shape: 24 128 14 14 (602112)
I0403 16:16:30.369874 17574 net.cpp:156] Memory required for data: 1035617568
I0403 16:16:30.369890 17574 layer_factory.hpp:77] Creating layer inception_4c/relu_3x3_reduce
I0403 16:16:30.369909 17574 net.cpp:91] Creating Layer inception_4c/relu_3x3_reduce
I0403 16:16:30.369927 17574 net.cpp:425] inception_4c/relu_3x3_reduce <- inception_4c/3x3_reduce
I0403 16:16:30.369945 17574 net.cpp:386] inception_4c/relu_3x3_reduce -> inception_4c/3x3_reduce (in-place)
I0403 16:16:30.370230 17574 net.cpp:141] Setting up inception_4c/relu_3x3_reduce
I0403 16:16:30.370256 17574 net.cpp:148] Top shape: 24 128 14 14 (602112)
I0403 16:16:30.370270 17574 net.cpp:156] Memory required for data: 1038026016
I0403 16:16:30.370285 17574 layer_factory.hpp:77] Creating layer inception_4c/3x3
I0403 16:16:30.370306 17574 net.cpp:91] Creating Layer inception_4c/3x3
I0403 16:16:30.370323 17574 net.cpp:425] inception_4c/3x3 <- inception_4c/3x3_reduce
I0403 16:16:30.370345 17574 net.cpp:399] inception_4c/3x3 -> inception_4c/3x3
I0403 16:16:30.374001 17574 net.cpp:141] Setting up inception_4c/3x3
I0403 16:16:30.374040 17574 net.cpp:148] Top shape: 24 256 14 14 (1204224)
I0403 16:16:30.374056 17574 net.cpp:156] Memory required for data: 1042842912
I0403 16:16:30.374086 17574 layer_factory.hpp:77] Creating layer inception_4c/relu_3x3
I0403 16:16:30.374106 17574 net.cpp:91] Creating Layer inception_4c/relu_3x3
I0403 16:16:30.374121 17574 net.cpp:425] inception_4c/relu_3x3 <- inception_4c/3x3
I0403 16:16:30.374140 17574 net.cpp:386] inception_4c/relu_3x3 -> inception_4c/3x3 (in-place)
I0403 16:16:30.374315 17574 net.cpp:141] Setting up inception_4c/relu_3x3
I0403 16:16:30.374339 17574 net.cpp:148] Top shape: 24 256 14 14 (1204224)
I0403 16:16:30.374353 17574 net.cpp:156] Memory required for data: 1047659808
I0403 16:16:30.374367 17574 layer_factory.hpp:77] Creating layer inception_4c/5x5_reduce
I0403 16:16:30.374388 17574 net.cpp:91] Creating Layer inception_4c/5x5_reduce
I0403 16:16:30.374405 17574 net.cpp:425] inception_4c/5x5_reduce <- inception_4b/output_inception_4b/output_0_split_2
I0403 16:16:30.374425 17574 net.cpp:399] inception_4c/5x5_reduce -> inception_4c/5x5_reduce
I0403 16:16:30.375494 17574 net.cpp:141] Setting up inception_4c/5x5_reduce
I0403 16:16:30.375520 17574 net.cpp:148] Top shape: 24 24 14 14 (112896)
I0403 16:16:30.375535 17574 net.cpp:156] Memory required for data: 1048111392
I0403 16:16:30.375552 17574 layer_factory.hpp:77] Creating layer inception_4c/relu_5x5_reduce
I0403 16:16:30.375576 17574 net.cpp:91] Creating Layer inception_4c/relu_5x5_reduce
I0403 16:16:30.375592 17574 net.cpp:425] inception_4c/relu_5x5_reduce <- inception_4c/5x5_reduce
I0403 16:16:30.375609 17574 net.cpp:386] inception_4c/relu_5x5_reduce -> inception_4c/5x5_reduce (in-place)
I0403 16:16:30.375787 17574 net.cpp:141] Setting up inception_4c/relu_5x5_reduce
I0403 16:16:30.375811 17574 net.cpp:148] Top shape: 24 24 14 14 (112896)
I0403 16:16:30.375826 17574 net.cpp:156] Memory required for data: 1048562976
I0403 16:16:30.375839 17574 layer_factory.hpp:77] Creating layer inception_4c/5x5
I0403 16:16:30.375862 17574 net.cpp:91] Creating Layer inception_4c/5x5
I0403 16:16:30.375880 17574 net.cpp:425] inception_4c/5x5 <- inception_4c/5x5_reduce
I0403 16:16:30.375897 17574 net.cpp:399] inception_4c/5x5 -> inception_4c/5x5
I0403 16:16:30.377096 17574 net.cpp:141] Setting up inception_4c/5x5
I0403 16:16:30.377123 17574 net.cpp:148] Top shape: 24 64 14 14 (301056)
I0403 16:16:30.377138 17574 net.cpp:156] Memory required for data: 1049767200
I0403 16:16:30.377156 17574 layer_factory.hpp:77] Creating layer inception_4c/relu_5x5
I0403 16:16:30.377176 17574 net.cpp:91] Creating Layer inception_4c/relu_5x5
I0403 16:16:30.377192 17574 net.cpp:425] inception_4c/relu_5x5 <- inception_4c/5x5
I0403 16:16:30.377207 17574 net.cpp:386] inception_4c/relu_5x5 -> inception_4c/5x5 (in-place)
I0403 16:16:30.377486 17574 net.cpp:141] Setting up inception_4c/relu_5x5
I0403 16:16:30.377511 17574 net.cpp:148] Top shape: 24 64 14 14 (301056)
I0403 16:16:30.377528 17574 net.cpp:156] Memory required for data: 1050971424
I0403 16:16:30.377542 17574 layer_factory.hpp:77] Creating layer inception_4c/pool
I0403 16:16:30.377558 17574 net.cpp:91] Creating Layer inception_4c/pool
I0403 16:16:30.377578 17574 net.cpp:425] inception_4c/pool <- inception_4b/output_inception_4b/output_0_split_3
I0403 16:16:30.377598 17574 net.cpp:399] inception_4c/pool -> inception_4c/pool
I0403 16:16:30.377661 17574 net.cpp:141] Setting up inception_4c/pool
I0403 16:16:30.377683 17574 net.cpp:148] Top shape: 24 512 14 14 (2408448)
I0403 16:16:30.377698 17574 net.cpp:156] Memory required for data: 1060605216
I0403 16:16:30.377712 17574 layer_factory.hpp:77] Creating layer inception_4c/pool_proj
I0403 16:16:30.377732 17574 net.cpp:91] Creating Layer inception_4c/pool_proj
I0403 16:16:30.377749 17574 net.cpp:425] inception_4c/pool_proj <- inception_4c/pool
I0403 16:16:30.377769 17574 net.cpp:399] inception_4c/pool_proj -> inception_4c/pool_proj
I0403 16:16:30.378949 17574 net.cpp:141] Setting up inception_4c/pool_proj
I0403 16:16:30.378975 17574 net.cpp:148] Top shape: 24 64 14 14 (301056)
I0403 16:16:30.379004 17574 net.cpp:156] Memory required for data: 1061809440
I0403 16:16:30.379022 17574 layer_factory.hpp:77] Creating layer inception_4c/relu_pool_proj
I0403 16:16:30.379040 17574 net.cpp:91] Creating Layer inception_4c/relu_pool_proj
I0403 16:16:30.379055 17574 net.cpp:425] inception_4c/relu_pool_proj <- inception_4c/pool_proj
I0403 16:16:30.379078 17574 net.cpp:386] inception_4c/relu_pool_proj -> inception_4c/pool_proj (in-place)
I0403 16:16:30.379254 17574 net.cpp:141] Setting up inception_4c/relu_pool_proj
I0403 16:16:30.379278 17574 net.cpp:148] Top shape: 24 64 14 14 (301056)
I0403 16:16:30.379292 17574 net.cpp:156] Memory required for data: 1063013664
I0403 16:16:30.379307 17574 layer_factory.hpp:77] Creating layer inception_4c/output
I0403 16:16:30.379325 17574 net.cpp:91] Creating Layer inception_4c/output
I0403 16:16:30.379340 17574 net.cpp:425] inception_4c/output <- inception_4c/1x1
I0403 16:16:30.379356 17574 net.cpp:425] inception_4c/output <- inception_4c/3x3
I0403 16:16:30.379371 17574 net.cpp:425] inception_4c/output <- inception_4c/5x5
I0403 16:16:30.379386 17574 net.cpp:425] inception_4c/output <- inception_4c/pool_proj
I0403 16:16:30.379402 17574 net.cpp:399] inception_4c/output -> inception_4c/output
I0403 16:16:30.379448 17574 net.cpp:141] Setting up inception_4c/output
I0403 16:16:30.379470 17574 net.cpp:148] Top shape: 24 512 14 14 (2408448)
I0403 16:16:30.379484 17574 net.cpp:156] Memory required for data: 1072647456
I0403 16:16:30.379498 17574 layer_factory.hpp:77] Creating layer inception_4c/output_inception_4c/output_0_split
I0403 16:16:30.379513 17574 net.cpp:91] Creating Layer inception_4c/output_inception_4c/output_0_split
I0403 16:16:30.379528 17574 net.cpp:425] inception_4c/output_inception_4c/output_0_split <- inception_4c/output
I0403 16:16:30.379546 17574 net.cpp:399] inception_4c/output_inception_4c/output_0_split -> inception_4c/output_inception_4c/output_0_split_0
I0403 16:16:30.379566 17574 net.cpp:399] inception_4c/output_inception_4c/output_0_split -> inception_4c/output_inception_4c/output_0_split_1
I0403 16:16:30.379590 17574 net.cpp:399] inception_4c/output_inception_4c/output_0_split -> inception_4c/output_inception_4c/output_0_split_2
I0403 16:16:30.379611 17574 net.cpp:399] inception_4c/output_inception_4c/output_0_split -> inception_4c/output_inception_4c/output_0_split_3
I0403 16:16:30.379691 17574 net.cpp:141] Setting up inception_4c/output_inception_4c/output_0_split
I0403 16:16:30.379714 17574 net.cpp:148] Top shape: 24 512 14 14 (2408448)
I0403 16:16:30.379729 17574 net.cpp:148] Top shape: 24 512 14 14 (2408448)
I0403 16:16:30.379744 17574 net.cpp:148] Top shape: 24 512 14 14 (2408448)
I0403 16:16:30.379757 17574 net.cpp:148] Top shape: 24 512 14 14 (2408448)
I0403 16:16:30.379770 17574 net.cpp:156] Memory required for data: 1111182624
I0403 16:16:30.379783 17574 layer_factory.hpp:77] Creating layer inception_4d/1x1
I0403 16:16:30.379806 17574 net.cpp:91] Creating Layer inception_4d/1x1
I0403 16:16:30.379822 17574 net.cpp:425] inception_4d/1x1 <- inception_4c/output_inception_4c/output_0_split_0
I0403 16:16:30.379842 17574 net.cpp:399] inception_4d/1x1 -> inception_4d/1x1
I0403 16:16:30.381176 17574 net.cpp:141] Setting up inception_4d/1x1
I0403 16:16:30.381206 17574 net.cpp:148] Top shape: 24 112 14 14 (526848)
I0403 16:16:30.381222 17574 net.cpp:156] Memory required for data: 1113290016
I0403 16:16:30.381238 17574 layer_factory.hpp:77] Creating layer inception_4d/relu_1x1
I0403 16:16:30.381255 17574 net.cpp:91] Creating Layer inception_4d/relu_1x1
I0403 16:16:30.381270 17574 net.cpp:425] inception_4d/relu_1x1 <- inception_4d/1x1
I0403 16:16:30.381289 17574 net.cpp:386] inception_4d/relu_1x1 -> inception_4d/1x1 (in-place)
I0403 16:16:30.381469 17574 net.cpp:141] Setting up inception_4d/relu_1x1
I0403 16:16:30.381492 17574 net.cpp:148] Top shape: 24 112 14 14 (526848)
I0403 16:16:30.381506 17574 net.cpp:156] Memory required for data: 1115397408
I0403 16:16:30.381520 17574 layer_factory.hpp:77] Creating layer inception_4d/3x3_reduce
I0403 16:16:30.381554 17574 net.cpp:91] Creating Layer inception_4d/3x3_reduce
I0403 16:16:30.381577 17574 net.cpp:425] inception_4d/3x3_reduce <- inception_4c/output_inception_4c/output_0_split_1
I0403 16:16:30.381598 17574 net.cpp:399] inception_4d/3x3_reduce -> inception_4d/3x3_reduce
I0403 16:16:30.383059 17574 net.cpp:141] Setting up inception_4d/3x3_reduce
I0403 16:16:30.383085 17574 net.cpp:148] Top shape: 24 144 14 14 (677376)
I0403 16:16:30.383100 17574 net.cpp:156] Memory required for data: 1118106912
I0403 16:16:30.383116 17574 layer_factory.hpp:77] Creating layer inception_4d/relu_3x3_reduce
I0403 16:16:30.383136 17574 net.cpp:91] Creating Layer inception_4d/relu_3x3_reduce
I0403 16:16:30.383152 17574 net.cpp:425] inception_4d/relu_3x3_reduce <- inception_4d/3x3_reduce
I0403 16:16:30.383168 17574 net.cpp:386] inception_4d/relu_3x3_reduce -> inception_4d/3x3_reduce (in-place)
I0403 16:16:30.383450 17574 net.cpp:141] Setting up inception_4d/relu_3x3_reduce
I0403 16:16:30.383474 17574 net.cpp:148] Top shape: 24 144 14 14 (677376)
I0403 16:16:30.383488 17574 net.cpp:156] Memory required for data: 1120816416
I0403 16:16:30.383502 17574 layer_factory.hpp:77] Creating layer inception_4d/3x3
I0403 16:16:30.383525 17574 net.cpp:91] Creating Layer inception_4d/3x3
I0403 16:16:30.383541 17574 net.cpp:425] inception_4d/3x3 <- inception_4d/3x3_reduce
I0403 16:16:30.383559 17574 net.cpp:399] inception_4d/3x3 -> inception_4d/3x3
I0403 16:16:30.387713 17574 net.cpp:141] Setting up inception_4d/3x3
I0403 16:16:30.387743 17574 net.cpp:148] Top shape: 24 288 14 14 (1354752)
I0403 16:16:30.387759 17574 net.cpp:156] Memory required for data: 1126235424
I0403 16:16:30.387776 17574 layer_factory.hpp:77] Creating layer inception_4d/relu_3x3
I0403 16:16:30.387794 17574 net.cpp:91] Creating Layer inception_4d/relu_3x3
I0403 16:16:30.387809 17574 net.cpp:425] inception_4d/relu_3x3 <- inception_4d/3x3
I0403 16:16:30.387827 17574 net.cpp:386] inception_4d/relu_3x3 -> inception_4d/3x3 (in-place)
I0403 16:16:30.388003 17574 net.cpp:141] Setting up inception_4d/relu_3x3
I0403 16:16:30.388027 17574 net.cpp:148] Top shape: 24 288 14 14 (1354752)
I0403 16:16:30.388041 17574 net.cpp:156] Memory required for data: 1131654432
I0403 16:16:30.388056 17574 layer_factory.hpp:77] Creating layer inception_4d/5x5_reduce
I0403 16:16:30.388077 17574 net.cpp:91] Creating Layer inception_4d/5x5_reduce
I0403 16:16:30.388092 17574 net.cpp:425] inception_4d/5x5_reduce <- inception_4c/output_inception_4c/output_0_split_2
I0403 16:16:30.388113 17574 net.cpp:399] inception_4d/5x5_reduce -> inception_4d/5x5_reduce
I0403 16:16:30.389228 17574 net.cpp:141] Setting up inception_4d/5x5_reduce
I0403 16:16:30.389256 17574 net.cpp:148] Top shape: 24 32 14 14 (150528)
I0403 16:16:30.389269 17574 net.cpp:156] Memory required for data: 1132256544
I0403 16:16:30.389286 17574 layer_factory.hpp:77] Creating layer inception_4d/relu_5x5_reduce
I0403 16:16:30.389303 17574 net.cpp:91] Creating Layer inception_4d/relu_5x5_reduce
I0403 16:16:30.389318 17574 net.cpp:425] inception_4d/relu_5x5_reduce <- inception_4d/5x5_reduce
I0403 16:16:30.389338 17574 net.cpp:386] inception_4d/relu_5x5_reduce -> inception_4d/5x5_reduce (in-place)
I0403 16:16:30.389518 17574 net.cpp:141] Setting up inception_4d/relu_5x5_reduce
I0403 16:16:30.389542 17574 net.cpp:148] Top shape: 24 32 14 14 (150528)
I0403 16:16:30.389556 17574 net.cpp:156] Memory required for data: 1132858656
I0403 16:16:30.389575 17574 layer_factory.hpp:77] Creating layer inception_4d/5x5
I0403 16:16:30.389600 17574 net.cpp:91] Creating Layer inception_4d/5x5
I0403 16:16:30.389617 17574 net.cpp:425] inception_4d/5x5 <- inception_4d/5x5_reduce
I0403 16:16:30.389638 17574 net.cpp:399] inception_4d/5x5 -> inception_4d/5x5
I0403 16:16:30.391054 17574 net.cpp:141] Setting up inception_4d/5x5
I0403 16:16:30.391080 17574 net.cpp:148] Top shape: 24 64 14 14 (301056)
I0403 16:16:30.391096 17574 net.cpp:156] Memory required for data: 1134062880
I0403 16:16:30.391113 17574 layer_factory.hpp:77] Creating layer inception_4d/relu_5x5
I0403 16:16:30.391149 17574 net.cpp:91] Creating Layer inception_4d/relu_5x5
I0403 16:16:30.391165 17574 net.cpp:425] inception_4d/relu_5x5 <- inception_4d/5x5
I0403 16:16:30.391182 17574 net.cpp:386] inception_4d/relu_5x5 -> inception_4d/5x5 (in-place)
I0403 16:16:30.391472 17574 net.cpp:141] Setting up inception_4d/relu_5x5
I0403 16:16:30.391497 17574 net.cpp:148] Top shape: 24 64 14 14 (301056)
I0403 16:16:30.391511 17574 net.cpp:156] Memory required for data: 1135267104
I0403 16:16:30.391526 17574 layer_factory.hpp:77] Creating layer inception_4d/pool
I0403 16:16:30.391546 17574 net.cpp:91] Creating Layer inception_4d/pool
I0403 16:16:30.391562 17574 net.cpp:425] inception_4d/pool <- inception_4c/output_inception_4c/output_0_split_3
I0403 16:16:30.391585 17574 net.cpp:399] inception_4d/pool -> inception_4d/pool
I0403 16:16:30.391651 17574 net.cpp:141] Setting up inception_4d/pool
I0403 16:16:30.391674 17574 net.cpp:148] Top shape: 24 512 14 14 (2408448)
I0403 16:16:30.391688 17574 net.cpp:156] Memory required for data: 1144900896
I0403 16:16:30.391701 17574 layer_factory.hpp:77] Creating layer inception_4d/pool_proj
I0403 16:16:30.391722 17574 net.cpp:91] Creating Layer inception_4d/pool_proj
I0403 16:16:30.391739 17574 net.cpp:425] inception_4d/pool_proj <- inception_4d/pool
I0403 16:16:30.391759 17574 net.cpp:399] inception_4d/pool_proj -> inception_4d/pool_proj
I0403 16:16:30.393546 17574 net.cpp:141] Setting up inception_4d/pool_proj
I0403 16:16:30.393581 17574 net.cpp:148] Top shape: 24 64 14 14 (301056)
I0403 16:16:30.393599 17574 net.cpp:156] Memory required for data: 1146105120
I0403 16:16:30.393616 17574 layer_factory.hpp:77] Creating layer inception_4d/relu_pool_proj
I0403 16:16:30.393635 17574 net.cpp:91] Creating Layer inception_4d/relu_pool_proj
I0403 16:16:30.393651 17574 net.cpp:425] inception_4d/relu_pool_proj <- inception_4d/pool_proj
I0403 16:16:30.393673 17574 net.cpp:386] inception_4d/relu_pool_proj -> inception_4d/pool_proj (in-place)
I0403 16:16:30.393857 17574 net.cpp:141] Setting up inception_4d/relu_pool_proj
I0403 16:16:30.393882 17574 net.cpp:148] Top shape: 24 64 14 14 (301056)
I0403 16:16:30.393896 17574 net.cpp:156] Memory required for data: 1147309344
I0403 16:16:30.393910 17574 layer_factory.hpp:77] Creating layer inception_4d/output
I0403 16:16:30.393928 17574 net.cpp:91] Creating Layer inception_4d/output
I0403 16:16:30.393942 17574 net.cpp:425] inception_4d/output <- inception_4d/1x1
I0403 16:16:30.393959 17574 net.cpp:425] inception_4d/output <- inception_4d/3x3
I0403 16:16:30.393975 17574 net.cpp:425] inception_4d/output <- inception_4d/5x5
I0403 16:16:30.393990 17574 net.cpp:425] inception_4d/output <- inception_4d/pool_proj
I0403 16:16:30.394008 17574 net.cpp:399] inception_4d/output -> inception_4d/output
I0403 16:16:30.394058 17574 net.cpp:141] Setting up inception_4d/output
I0403 16:16:30.394081 17574 net.cpp:148] Top shape: 24 528 14 14 (2483712)
I0403 16:16:30.394096 17574 net.cpp:156] Memory required for data: 1157244192
I0403 16:16:30.394110 17574 layer_factory.hpp:77] Creating layer inception_4d/output_inception_4d/output_0_split
I0403 16:16:30.394126 17574 net.cpp:91] Creating Layer inception_4d/output_inception_4d/output_0_split
I0403 16:16:30.394142 17574 net.cpp:425] inception_4d/output_inception_4d/output_0_split <- inception_4d/output
I0403 16:16:30.394163 17574 net.cpp:399] inception_4d/output_inception_4d/output_0_split -> inception_4d/output_inception_4d/output_0_split_0
I0403 16:16:30.394184 17574 net.cpp:399] inception_4d/output_inception_4d/output_0_split -> inception_4d/output_inception_4d/output_0_split_1
I0403 16:16:30.394206 17574 net.cpp:399] inception_4d/output_inception_4d/output_0_split -> inception_4d/output_inception_4d/output_0_split_2
I0403 16:16:30.394225 17574 net.cpp:399] inception_4d/output_inception_4d/output_0_split -> inception_4d/output_inception_4d/output_0_split_3
I0403 16:16:30.394244 17574 net.cpp:399] inception_4d/output_inception_4d/output_0_split -> inception_4d/output_inception_4d/output_0_split_4
I0403 16:16:30.394346 17574 net.cpp:141] Setting up inception_4d/output_inception_4d/output_0_split
I0403 16:16:30.394383 17574 net.cpp:148] Top shape: 24 528 14 14 (2483712)
I0403 16:16:30.394400 17574 net.cpp:148] Top shape: 24 528 14 14 (2483712)
I0403 16:16:30.394417 17574 net.cpp:148] Top shape: 24 528 14 14 (2483712)
I0403 16:16:30.394431 17574 net.cpp:148] Top shape: 24 528 14 14 (2483712)
I0403 16:16:30.394446 17574 net.cpp:148] Top shape: 24 528 14 14 (2483712)
I0403 16:16:30.394459 17574 net.cpp:156] Memory required for data: 1206918432
I0403 16:16:30.394474 17574 layer_factory.hpp:77] Creating layer loss2/ave_pool
I0403 16:16:30.394490 17574 net.cpp:91] Creating Layer loss2/ave_pool
I0403 16:16:30.394506 17574 net.cpp:425] loss2/ave_pool <- inception_4d/output_inception_4d/output_0_split_0
I0403 16:16:30.394526 17574 net.cpp:399] loss2/ave_pool -> loss2/ave_pool
I0403 16:16:30.394847 17574 net.cpp:141] Setting up loss2/ave_pool
I0403 16:16:30.394876 17574 net.cpp:148] Top shape: 24 528 4 4 (202752)
I0403 16:16:30.394891 17574 net.cpp:156] Memory required for data: 1207729440
I0403 16:16:30.394906 17574 layer_factory.hpp:77] Creating layer loss2/conv
I0403 16:16:30.394927 17574 net.cpp:91] Creating Layer loss2/conv
I0403 16:16:30.394944 17574 net.cpp:425] loss2/conv <- loss2/ave_pool
I0403 16:16:30.394965 17574 net.cpp:399] loss2/conv -> loss2/conv
I0403 16:16:30.396862 17574 net.cpp:141] Setting up loss2/conv
I0403 16:16:30.396890 17574 net.cpp:148] Top shape: 24 128 4 4 (49152)
I0403 16:16:30.396905 17574 net.cpp:156] Memory required for data: 1207926048
I0403 16:16:30.396924 17574 layer_factory.hpp:77] Creating layer loss2/relu_conv
I0403 16:16:30.396944 17574 net.cpp:91] Creating Layer loss2/relu_conv
I0403 16:16:30.396960 17574 net.cpp:425] loss2/relu_conv <- loss2/conv
I0403 16:16:30.396977 17574 net.cpp:386] loss2/relu_conv -> loss2/conv (in-place)
I0403 16:16:30.397260 17574 net.cpp:141] Setting up loss2/relu_conv
I0403 16:16:30.397286 17574 net.cpp:148] Top shape: 24 128 4 4 (49152)
I0403 16:16:30.397301 17574 net.cpp:156] Memory required for data: 1208122656
I0403 16:16:30.397316 17574 layer_factory.hpp:77] Creating layer loss2/fc
I0403 16:16:30.397336 17574 net.cpp:91] Creating Layer loss2/fc
I0403 16:16:30.397353 17574 net.cpp:425] loss2/fc <- loss2/conv
I0403 16:16:30.397373 17574 net.cpp:399] loss2/fc -> loss2/fc
I0403 16:16:30.415016 17574 net.cpp:141] Setting up loss2/fc
I0403 16:16:30.415050 17574 net.cpp:148] Top shape: 24 1024 (24576)
I0403 16:16:30.415066 17574 net.cpp:156] Memory required for data: 1208220960
I0403 16:16:30.415082 17574 layer_factory.hpp:77] Creating layer loss2/relu_fc
I0403 16:16:30.415099 17574 net.cpp:91] Creating Layer loss2/relu_fc
I0403 16:16:30.415114 17574 net.cpp:425] loss2/relu_fc <- loss2/fc
I0403 16:16:30.415133 17574 net.cpp:386] loss2/relu_fc -> loss2/fc (in-place)
I0403 16:16:30.415426 17574 net.cpp:141] Setting up loss2/relu_fc
I0403 16:16:30.415451 17574 net.cpp:148] Top shape: 24 1024 (24576)
I0403 16:16:30.415464 17574 net.cpp:156] Memory required for data: 1208319264
I0403 16:16:30.415478 17574 layer_factory.hpp:77] Creating layer loss2/drop_fc
I0403 16:16:30.415495 17574 net.cpp:91] Creating Layer loss2/drop_fc
I0403 16:16:30.415511 17574 net.cpp:425] loss2/drop_fc <- loss2/fc
I0403 16:16:30.415530 17574 net.cpp:386] loss2/drop_fc -> loss2/fc (in-place)
I0403 16:16:30.415581 17574 net.cpp:141] Setting up loss2/drop_fc
I0403 16:16:30.415606 17574 net.cpp:148] Top shape: 24 1024 (24576)
I0403 16:16:30.415621 17574 net.cpp:156] Memory required for data: 1208417568
I0403 16:16:30.415634 17574 layer_factory.hpp:77] Creating layer loss2/classifier_plantvillage
I0403 16:16:30.415652 17574 net.cpp:91] Creating Layer loss2/classifier_plantvillage
I0403 16:16:30.415666 17574 net.cpp:425] loss2/classifier_plantvillage <- loss2/fc
I0403 16:16:30.415691 17574 net.cpp:399] loss2/classifier_plantvillage -> loss2/classifier_plantvillage
I0403 16:16:30.416082 17574 net.cpp:141] Setting up loss2/classifier_plantvillage
I0403 16:16:30.416106 17574 net.cpp:148] Top shape: 24 38 (912)
I0403 16:16:30.416136 17574 net.cpp:156] Memory required for data: 1208421216
I0403 16:16:30.416153 17574 layer_factory.hpp:77] Creating layer loss2/classifier_plantvillage_loss2/classifier_plantvillage_0_split
I0403 16:16:30.416173 17574 net.cpp:91] Creating Layer loss2/classifier_plantvillage_loss2/classifier_plantvillage_0_split
I0403 16:16:30.416190 17574 net.cpp:425] loss2/classifier_plantvillage_loss2/classifier_plantvillage_0_split <- loss2/classifier_plantvillage
I0403 16:16:30.416208 17574 net.cpp:399] loss2/classifier_plantvillage_loss2/classifier_plantvillage_0_split -> loss2/classifier_plantvillage_loss2/classifier_plantvillage_0_split_0
I0403 16:16:30.416226 17574 net.cpp:399] loss2/classifier_plantvillage_loss2/classifier_plantvillage_0_split -> loss2/classifier_plantvillage_loss2/classifier_plantvillage_0_split_1
I0403 16:16:30.416249 17574 net.cpp:399] loss2/classifier_plantvillage_loss2/classifier_plantvillage_0_split -> loss2/classifier_plantvillage_loss2/classifier_plantvillage_0_split_2
I0403 16:16:30.416324 17574 net.cpp:141] Setting up loss2/classifier_plantvillage_loss2/classifier_plantvillage_0_split
I0403 16:16:30.416347 17574 net.cpp:148] Top shape: 24 38 (912)
I0403 16:16:30.416363 17574 net.cpp:148] Top shape: 24 38 (912)
I0403 16:16:30.416378 17574 net.cpp:148] Top shape: 24 38 (912)
I0403 16:16:30.416391 17574 net.cpp:156] Memory required for data: 1208432160
I0403 16:16:30.416404 17574 layer_factory.hpp:77] Creating layer inception_4e/1x1
I0403 16:16:30.416425 17574 net.cpp:91] Creating Layer inception_4e/1x1
I0403 16:16:30.416442 17574 net.cpp:425] inception_4e/1x1 <- inception_4d/output_inception_4d/output_0_split_1
I0403 16:16:30.416460 17574 net.cpp:399] inception_4e/1x1 -> inception_4e/1x1
I0403 16:16:30.418226 17574 net.cpp:141] Setting up inception_4e/1x1
I0403 16:16:30.418253 17574 net.cpp:148] Top shape: 24 256 14 14 (1204224)
I0403 16:16:30.418268 17574 net.cpp:156] Memory required for data: 1213249056
I0403 16:16:30.418285 17574 layer_factory.hpp:77] Creating layer inception_4e/relu_1x1
I0403 16:16:30.418304 17574 net.cpp:91] Creating Layer inception_4e/relu_1x1
I0403 16:16:30.418321 17574 net.cpp:425] inception_4e/relu_1x1 <- inception_4e/1x1
I0403 16:16:30.418339 17574 net.cpp:386] inception_4e/relu_1x1 -> inception_4e/1x1 (in-place)
I0403 16:16:30.418639 17574 net.cpp:141] Setting up inception_4e/relu_1x1
I0403 16:16:30.418665 17574 net.cpp:148] Top shape: 24 256 14 14 (1204224)
I0403 16:16:30.418679 17574 net.cpp:156] Memory required for data: 1218065952
I0403 16:16:30.418694 17574 layer_factory.hpp:77] Creating layer inception_4e/3x3_reduce
I0403 16:16:30.418715 17574 net.cpp:91] Creating Layer inception_4e/3x3_reduce
I0403 16:16:30.418732 17574 net.cpp:425] inception_4e/3x3_reduce <- inception_4d/output_inception_4d/output_0_split_2
I0403 16:16:30.418753 17574 net.cpp:399] inception_4e/3x3_reduce -> inception_4e/3x3_reduce
I0403 16:16:30.420833 17574 net.cpp:141] Setting up inception_4e/3x3_reduce
I0403 16:16:30.420861 17574 net.cpp:148] Top shape: 24 160 14 14 (752640)
I0403 16:16:30.420876 17574 net.cpp:156] Memory required for data: 1221076512
I0403 16:16:30.420892 17574 layer_factory.hpp:77] Creating layer inception_4e/relu_3x3_reduce
I0403 16:16:30.420912 17574 net.cpp:91] Creating Layer inception_4e/relu_3x3_reduce
I0403 16:16:30.420928 17574 net.cpp:425] inception_4e/relu_3x3_reduce <- inception_4e/3x3_reduce
I0403 16:16:30.420944 17574 net.cpp:386] inception_4e/relu_3x3_reduce -> inception_4e/3x3_reduce (in-place)
I0403 16:16:30.421123 17574 net.cpp:141] Setting up inception_4e/relu_3x3_reduce
I0403 16:16:30.421149 17574 net.cpp:148] Top shape: 24 160 14 14 (752640)
I0403 16:16:30.421164 17574 net.cpp:156] Memory required for data: 1224087072
I0403 16:16:30.421177 17574 layer_factory.hpp:77] Creating layer inception_4e/3x3
I0403 16:16:30.421200 17574 net.cpp:91] Creating Layer inception_4e/3x3
I0403 16:16:30.421216 17574 net.cpp:425] inception_4e/3x3 <- inception_4e/3x3_reduce
I0403 16:16:30.421236 17574 net.cpp:399] inception_4e/3x3 -> inception_4e/3x3
I0403 16:16:30.426125 17574 net.cpp:141] Setting up inception_4e/3x3
I0403 16:16:30.426169 17574 net.cpp:148] Top shape: 24 320 14 14 (1505280)
I0403 16:16:30.426185 17574 net.cpp:156] Memory required for data: 1230108192
I0403 16:16:30.426203 17574 layer_factory.hpp:77] Creating layer inception_4e/relu_3x3
I0403 16:16:30.426219 17574 net.cpp:91] Creating Layer inception_4e/relu_3x3
I0403 16:16:30.426234 17574 net.cpp:425] inception_4e/relu_3x3 <- inception_4e/3x3
I0403 16:16:30.426250 17574 net.cpp:386] inception_4e/relu_3x3 -> inception_4e/3x3 (in-place)
I0403 16:16:30.426545 17574 net.cpp:141] Setting up inception_4e/relu_3x3
I0403 16:16:30.426576 17574 net.cpp:148] Top shape: 24 320 14 14 (1505280)
I0403 16:16:30.426592 17574 net.cpp:156] Memory required for data: 1236129312
I0403 16:16:30.426607 17574 layer_factory.hpp:77] Creating layer inception_4e/5x5_reduce
I0403 16:16:30.426630 17574 net.cpp:91] Creating Layer inception_4e/5x5_reduce
I0403 16:16:30.426647 17574 net.cpp:425] inception_4e/5x5_reduce <- inception_4d/output_inception_4d/output_0_split_3
I0403 16:16:30.426667 17574 net.cpp:399] inception_4e/5x5_reduce -> inception_4e/5x5_reduce
I0403 16:16:30.427705 17574 net.cpp:141] Setting up inception_4e/5x5_reduce
I0403 16:16:30.427731 17574 net.cpp:148] Top shape: 24 32 14 14 (150528)
I0403 16:16:30.427747 17574 net.cpp:156] Memory required for data: 1236731424
I0403 16:16:30.427765 17574 layer_factory.hpp:77] Creating layer inception_4e/relu_5x5_reduce
I0403 16:16:30.427784 17574 net.cpp:91] Creating Layer inception_4e/relu_5x5_reduce
I0403 16:16:30.427801 17574 net.cpp:425] inception_4e/relu_5x5_reduce <- inception_4e/5x5_reduce
I0403 16:16:30.427817 17574 net.cpp:386] inception_4e/relu_5x5_reduce -> inception_4e/5x5_reduce (in-place)
I0403 16:16:30.428104 17574 net.cpp:141] Setting up inception_4e/relu_5x5_reduce
I0403 16:16:30.428130 17574 net.cpp:148] Top shape: 24 32 14 14 (150528)
I0403 16:16:30.428144 17574 net.cpp:156] Memory required for data: 1237333536
I0403 16:16:30.428158 17574 layer_factory.hpp:77] Creating layer inception_4e/5x5
I0403 16:16:30.428194 17574 net.cpp:91] Creating Layer inception_4e/5x5
I0403 16:16:30.428212 17574 net.cpp:425] inception_4e/5x5 <- inception_4e/5x5_reduce
I0403 16:16:30.428231 17574 net.cpp:399] inception_4e/5x5 -> inception_4e/5x5
I0403 16:16:30.430024 17574 net.cpp:141] Setting up inception_4e/5x5
I0403 16:16:30.430052 17574 net.cpp:148] Top shape: 24 128 14 14 (602112)
I0403 16:16:30.430066 17574 net.cpp:156] Memory required for data: 1239741984
I0403 16:16:30.430084 17574 layer_factory.hpp:77] Creating layer inception_4e/relu_5x5
I0403 16:16:30.430101 17574 net.cpp:91] Creating Layer inception_4e/relu_5x5
I0403 16:16:30.430120 17574 net.cpp:425] inception_4e/relu_5x5 <- inception_4e/5x5
I0403 16:16:30.430137 17574 net.cpp:386] inception_4e/relu_5x5 -> inception_4e/5x5 (in-place)
I0403 16:16:30.430327 17574 net.cpp:141] Setting up inception_4e/relu_5x5
I0403 16:16:30.430351 17574 net.cpp:148] Top shape: 24 128 14 14 (602112)
I0403 16:16:30.430366 17574 net.cpp:156] Memory required for data: 1242150432
I0403 16:16:30.430379 17574 layer_factory.hpp:77] Creating layer inception_4e/pool
I0403 16:16:30.430399 17574 net.cpp:91] Creating Layer inception_4e/pool
I0403 16:16:30.430415 17574 net.cpp:425] inception_4e/pool <- inception_4d/output_inception_4d/output_0_split_4
I0403 16:16:30.430433 17574 net.cpp:399] inception_4e/pool -> inception_4e/pool
I0403 16:16:30.430501 17574 net.cpp:141] Setting up inception_4e/pool
I0403 16:16:30.430524 17574 net.cpp:148] Top shape: 24 528 14 14 (2483712)
I0403 16:16:30.430538 17574 net.cpp:156] Memory required for data: 1252085280
I0403 16:16:30.430552 17574 layer_factory.hpp:77] Creating layer inception_4e/pool_proj
I0403 16:16:30.430577 17574 net.cpp:91] Creating Layer inception_4e/pool_proj
I0403 16:16:30.430595 17574 net.cpp:425] inception_4e/pool_proj <- inception_4e/pool
I0403 16:16:30.430614 17574 net.cpp:399] inception_4e/pool_proj -> inception_4e/pool_proj
I0403 16:16:30.432080 17574 net.cpp:141] Setting up inception_4e/pool_proj
I0403 16:16:30.432121 17574 net.cpp:148] Top shape: 24 128 14 14 (602112)
I0403 16:16:30.432137 17574 net.cpp:156] Memory required for data: 1254493728
I0403 16:16:30.432154 17574 layer_factory.hpp:77] Creating layer inception_4e/relu_pool_proj
I0403 16:16:30.432173 17574 net.cpp:91] Creating Layer inception_4e/relu_pool_proj
I0403 16:16:30.432188 17574 net.cpp:425] inception_4e/relu_pool_proj <- inception_4e/pool_proj
I0403 16:16:30.432205 17574 net.cpp:386] inception_4e/relu_pool_proj -> inception_4e/pool_proj (in-place)
I0403 16:16:30.432492 17574 net.cpp:141] Setting up inception_4e/relu_pool_proj
I0403 16:16:30.432519 17574 net.cpp:148] Top shape: 24 128 14 14 (602112)
I0403 16:16:30.432535 17574 net.cpp:156] Memory required for data: 1256902176
I0403 16:16:30.432549 17574 layer_factory.hpp:77] Creating layer inception_4e/output
I0403 16:16:30.432565 17574 net.cpp:91] Creating Layer inception_4e/output
I0403 16:16:30.432586 17574 net.cpp:425] inception_4e/output <- inception_4e/1x1
I0403 16:16:30.432602 17574 net.cpp:425] inception_4e/output <- inception_4e/3x3
I0403 16:16:30.432618 17574 net.cpp:425] inception_4e/output <- inception_4e/5x5
I0403 16:16:30.432633 17574 net.cpp:425] inception_4e/output <- inception_4e/pool_proj
I0403 16:16:30.432652 17574 net.cpp:399] inception_4e/output -> inception_4e/output
I0403 16:16:30.432699 17574 net.cpp:141] Setting up inception_4e/output
I0403 16:16:30.432723 17574 net.cpp:148] Top shape: 24 832 14 14 (3913728)
I0403 16:16:30.432736 17574 net.cpp:156] Memory required for data: 1272557088
I0403 16:16:30.432749 17574 layer_factory.hpp:77] Creating layer pool4/3x3_s2
I0403 16:16:30.432768 17574 net.cpp:91] Creating Layer pool4/3x3_s2
I0403 16:16:30.432785 17574 net.cpp:425] pool4/3x3_s2 <- inception_4e/output
I0403 16:16:30.432802 17574 net.cpp:399] pool4/3x3_s2 -> pool4/3x3_s2
I0403 16:16:30.432869 17574 net.cpp:141] Setting up pool4/3x3_s2
I0403 16:16:30.432893 17574 net.cpp:148] Top shape: 24 832 7 7 (978432)
I0403 16:16:30.432906 17574 net.cpp:156] Memory required for data: 1276470816
I0403 16:16:30.432920 17574 layer_factory.hpp:77] Creating layer pool4/3x3_s2_pool4/3x3_s2_0_split
I0403 16:16:30.432939 17574 net.cpp:91] Creating Layer pool4/3x3_s2_pool4/3x3_s2_0_split
I0403 16:16:30.432955 17574 net.cpp:425] pool4/3x3_s2_pool4/3x3_s2_0_split <- pool4/3x3_s2
I0403 16:16:30.432971 17574 net.cpp:399] pool4/3x3_s2_pool4/3x3_s2_0_split -> pool4/3x3_s2_pool4/3x3_s2_0_split_0
I0403 16:16:30.432991 17574 net.cpp:399] pool4/3x3_s2_pool4/3x3_s2_0_split -> pool4/3x3_s2_pool4/3x3_s2_0_split_1
I0403 16:16:30.433009 17574 net.cpp:399] pool4/3x3_s2_pool4/3x3_s2_0_split -> pool4/3x3_s2_pool4/3x3_s2_0_split_2
I0403 16:16:30.433027 17574 net.cpp:399] pool4/3x3_s2_pool4/3x3_s2_0_split -> pool4/3x3_s2_pool4/3x3_s2_0_split_3
I0403 16:16:30.433120 17574 net.cpp:141] Setting up pool4/3x3_s2_pool4/3x3_s2_0_split
I0403 16:16:30.433142 17574 net.cpp:148] Top shape: 24 832 7 7 (978432)
I0403 16:16:30.433157 17574 net.cpp:148] Top shape: 24 832 7 7 (978432)
I0403 16:16:30.433171 17574 net.cpp:148] Top shape: 24 832 7 7 (978432)
I0403 16:16:30.433187 17574 net.cpp:148] Top shape: 24 832 7 7 (978432)
I0403 16:16:30.433199 17574 net.cpp:156] Memory required for data: 1292125728
I0403 16:16:30.433212 17574 layer_factory.hpp:77] Creating layer inception_5a/1x1
I0403 16:16:30.433233 17574 net.cpp:91] Creating Layer inception_5a/1x1
I0403 16:16:30.433250 17574 net.cpp:425] inception_5a/1x1 <- pool4/3x3_s2_pool4/3x3_s2_0_split_0
I0403 16:16:30.433272 17574 net.cpp:399] inception_5a/1x1 -> inception_5a/1x1
I0403 16:16:30.436076 17574 net.cpp:141] Setting up inception_5a/1x1
I0403 16:16:30.436105 17574 net.cpp:148] Top shape: 24 256 7 7 (301056)
I0403 16:16:30.436120 17574 net.cpp:156] Memory required for data: 1293329952
I0403 16:16:30.436136 17574 layer_factory.hpp:77] Creating layer inception_5a/relu_1x1
I0403 16:16:30.436156 17574 net.cpp:91] Creating Layer inception_5a/relu_1x1
I0403 16:16:30.436172 17574 net.cpp:425] inception_5a/relu_1x1 <- inception_5a/1x1
I0403 16:16:30.436189 17574 net.cpp:386] inception_5a/relu_1x1 -> inception_5a/1x1 (in-place)
I0403 16:16:30.436493 17574 net.cpp:141] Setting up inception_5a/relu_1x1
I0403 16:16:30.436519 17574 net.cpp:148] Top shape: 24 256 7 7 (301056)
I0403 16:16:30.436533 17574 net.cpp:156] Memory required for data: 1294534176
I0403 16:16:30.436547 17574 layer_factory.hpp:77] Creating layer inception_5a/3x3_reduce
I0403 16:16:30.436573 17574 net.cpp:91] Creating Layer inception_5a/3x3_reduce
I0403 16:16:30.436591 17574 net.cpp:425] inception_5a/3x3_reduce <- pool4/3x3_s2_pool4/3x3_s2_0_split_1
I0403 16:16:30.436612 17574 net.cpp:399] inception_5a/3x3_reduce -> inception_5a/3x3_reduce
I0403 16:16:30.439014 17574 net.cpp:141] Setting up inception_5a/3x3_reduce
I0403 16:16:30.439043 17574 net.cpp:148] Top shape: 24 160 7 7 (188160)
I0403 16:16:30.439060 17574 net.cpp:156] Memory required for data: 1295286816
I0403 16:16:30.439079 17574 layer_factory.hpp:77] Creating layer inception_5a/relu_3x3_reduce
I0403 16:16:30.439095 17574 net.cpp:91] Creating Layer inception_5a/relu_3x3_reduce
I0403 16:16:30.439110 17574 net.cpp:425] inception_5a/relu_3x3_reduce <- inception_5a/3x3_reduce
I0403 16:16:30.439128 17574 net.cpp:386] inception_5a/relu_3x3_reduce -> inception_5a/3x3_reduce (in-place)
I0403 16:16:30.439311 17574 net.cpp:141] Setting up inception_5a/relu_3x3_reduce
I0403 16:16:30.439335 17574 net.cpp:148] Top shape: 24 160 7 7 (188160)
I0403 16:16:30.439350 17574 net.cpp:156] Memory required for data: 1296039456
I0403 16:16:30.439364 17574 layer_factory.hpp:77] Creating layer inception_5a/3x3
I0403 16:16:30.439385 17574 net.cpp:91] Creating Layer inception_5a/3x3
I0403 16:16:30.439402 17574 net.cpp:425] inception_5a/3x3 <- inception_5a/3x3_reduce
I0403 16:16:30.439424 17574 net.cpp:399] inception_5a/3x3 -> inception_5a/3x3
I0403 16:16:30.444332 17574 net.cpp:141] Setting up inception_5a/3x3
I0403 16:16:30.444360 17574 net.cpp:148] Top shape: 24 320 7 7 (376320)
I0403 16:16:30.444375 17574 net.cpp:156] Memory required for data: 1297544736
I0403 16:16:30.444392 17574 layer_factory.hpp:77] Creating layer inception_5a/relu_3x3
I0403 16:16:30.444412 17574 net.cpp:91] Creating Layer inception_5a/relu_3x3
I0403 16:16:30.444428 17574 net.cpp:425] inception_5a/relu_3x3 <- inception_5a/3x3
I0403 16:16:30.444444 17574 net.cpp:386] inception_5a/relu_3x3 -> inception_5a/3x3 (in-place)
I0403 16:16:30.444741 17574 net.cpp:141] Setting up inception_5a/relu_3x3
I0403 16:16:30.444766 17574 net.cpp:148] Top shape: 24 320 7 7 (376320)
I0403 16:16:30.444782 17574 net.cpp:156] Memory required for data: 1299050016
I0403 16:16:30.444794 17574 layer_factory.hpp:77] Creating layer inception_5a/5x5_reduce
I0403 16:16:30.444816 17574 net.cpp:91] Creating Layer inception_5a/5x5_reduce
I0403 16:16:30.444833 17574 net.cpp:425] inception_5a/5x5_reduce <- pool4/3x3_s2_pool4/3x3_s2_0_split_2
I0403 16:16:30.444855 17574 net.cpp:399] inception_5a/5x5_reduce -> inception_5a/5x5_reduce
I0403 16:16:30.445984 17574 net.cpp:141] Setting up inception_5a/5x5_reduce
I0403 16:16:30.446012 17574 net.cpp:148] Top shape: 24 32 7 7 (37632)
I0403 16:16:30.446027 17574 net.cpp:156] Memory required for data: 1299200544
I0403 16:16:30.446044 17574 layer_factory.hpp:77] Creating layer inception_5a/relu_5x5_reduce
I0403 16:16:30.446063 17574 net.cpp:91] Creating Layer inception_5a/relu_5x5_reduce
I0403 16:16:30.446080 17574 net.cpp:425] inception_5a/relu_5x5_reduce <- inception_5a/5x5_reduce
I0403 16:16:30.446097 17574 net.cpp:386] inception_5a/relu_5x5_reduce -> inception_5a/5x5_reduce (in-place)
I0403 16:16:30.446389 17574 net.cpp:141] Setting up inception_5a/relu_5x5_reduce
I0403 16:16:30.446414 17574 net.cpp:148] Top shape: 24 32 7 7 (37632)
I0403 16:16:30.446429 17574 net.cpp:156] Memory required for data: 1299351072
I0403 16:16:30.446442 17574 layer_factory.hpp:77] Creating layer inception_5a/5x5
I0403 16:16:30.446463 17574 net.cpp:91] Creating Layer inception_5a/5x5
I0403 16:16:30.446480 17574 net.cpp:425] inception_5a/5x5 <- inception_5a/5x5_reduce
I0403 16:16:30.446501 17574 net.cpp:399] inception_5a/5x5 -> inception_5a/5x5
I0403 16:16:30.448195 17574 net.cpp:141] Setting up inception_5a/5x5
I0403 16:16:30.448233 17574 net.cpp:148] Top shape: 24 128 7 7 (150528)
I0403 16:16:30.448248 17574 net.cpp:156] Memory required for data: 1299953184
I0403 16:16:30.448267 17574 layer_factory.hpp:77] Creating layer inception_5a/relu_5x5
I0403 16:16:30.448287 17574 net.cpp:91] Creating Layer inception_5a/relu_5x5
I0403 16:16:30.448304 17574 net.cpp:425] inception_5a/relu_5x5 <- inception_5a/5x5
I0403 16:16:30.448320 17574 net.cpp:386] inception_5a/relu_5x5 -> inception_5a/5x5 (in-place)
I0403 16:16:30.448505 17574 net.cpp:141] Setting up inception_5a/relu_5x5
I0403 16:16:30.448529 17574 net.cpp:148] Top shape: 24 128 7 7 (150528)
I0403 16:16:30.448544 17574 net.cpp:156] Memory required for data: 1300555296
I0403 16:16:30.448557 17574 layer_factory.hpp:77] Creating layer inception_5a/pool
I0403 16:16:30.448580 17574 net.cpp:91] Creating Layer inception_5a/pool
I0403 16:16:30.448598 17574 net.cpp:425] inception_5a/pool <- pool4/3x3_s2_pool4/3x3_s2_0_split_3
I0403 16:16:30.448616 17574 net.cpp:399] inception_5a/pool -> inception_5a/pool
I0403 16:16:30.448684 17574 net.cpp:141] Setting up inception_5a/pool
I0403 16:16:30.448707 17574 net.cpp:148] Top shape: 24 832 7 7 (978432)
I0403 16:16:30.448721 17574 net.cpp:156] Memory required for data: 1304469024
I0403 16:16:30.448736 17574 layer_factory.hpp:77] Creating layer inception_5a/pool_proj
I0403 16:16:30.448757 17574 net.cpp:91] Creating Layer inception_5a/pool_proj
I0403 16:16:30.448775 17574 net.cpp:425] inception_5a/pool_proj <- inception_5a/pool
I0403 16:16:30.448794 17574 net.cpp:399] inception_5a/pool_proj -> inception_5a/pool_proj
I0403 16:16:30.451140 17574 net.cpp:141] Setting up inception_5a/pool_proj
I0403 16:16:30.451169 17574 net.cpp:148] Top shape: 24 128 7 7 (150528)
I0403 16:16:30.451185 17574 net.cpp:156] Memory required for data: 1305071136
I0403 16:16:30.451202 17574 layer_factory.hpp:77] Creating layer inception_5a/relu_pool_proj
I0403 16:16:30.451220 17574 net.cpp:91] Creating Layer inception_5a/relu_pool_proj
I0403 16:16:30.451236 17574 net.cpp:425] inception_5a/relu_pool_proj <- inception_5a/pool_proj
I0403 16:16:30.451256 17574 net.cpp:386] inception_5a/relu_pool_proj -> inception_5a/pool_proj (in-place)
I0403 16:16:30.451555 17574 net.cpp:141] Setting up inception_5a/relu_pool_proj
I0403 16:16:30.451586 17574 net.cpp:148] Top shape: 24 128 7 7 (150528)
I0403 16:16:30.451601 17574 net.cpp:156] Memory required for data: 1305673248
I0403 16:16:30.451616 17574 layer_factory.hpp:77] Creating layer inception_5a/output
I0403 16:16:30.451632 17574 net.cpp:91] Creating Layer inception_5a/output
I0403 16:16:30.451648 17574 net.cpp:425] inception_5a/output <- inception_5a/1x1
I0403 16:16:30.451664 17574 net.cpp:425] inception_5a/output <- inception_5a/3x3
I0403 16:16:30.451681 17574 net.cpp:425] inception_5a/output <- inception_5a/5x5
I0403 16:16:30.451697 17574 net.cpp:425] inception_5a/output <- inception_5a/pool_proj
I0403 16:16:30.451716 17574 net.cpp:399] inception_5a/output -> inception_5a/output
I0403 16:16:30.451766 17574 net.cpp:141] Setting up inception_5a/output
I0403 16:16:30.451792 17574 net.cpp:148] Top shape: 24 832 7 7 (978432)
I0403 16:16:30.451807 17574 net.cpp:156] Memory required for data: 1309586976
I0403 16:16:30.451822 17574 layer_factory.hpp:77] Creating layer inception_5a/output_inception_5a/output_0_split
I0403 16:16:30.451838 17574 net.cpp:91] Creating Layer inception_5a/output_inception_5a/output_0_split
I0403 16:16:30.451853 17574 net.cpp:425] inception_5a/output_inception_5a/output_0_split <- inception_5a/output
I0403 16:16:30.451870 17574 net.cpp:399] inception_5a/output_inception_5a/output_0_split -> inception_5a/output_inception_5a/output_0_split_0
I0403 16:16:30.451889 17574 net.cpp:399] inception_5a/output_inception_5a/output_0_split -> inception_5a/output_inception_5a/output_0_split_1
I0403 16:16:30.451911 17574 net.cpp:399] inception_5a/output_inception_5a/output_0_split -> inception_5a/output_inception_5a/output_0_split_2
I0403 16:16:30.451932 17574 net.cpp:399] inception_5a/output_inception_5a/output_0_split -> inception_5a/output_inception_5a/output_0_split_3
I0403 16:16:30.452045 17574 net.cpp:141] Setting up inception_5a/output_inception_5a/output_0_split
I0403 16:16:30.452069 17574 net.cpp:148] Top shape: 24 832 7 7 (978432)
I0403 16:16:30.452085 17574 net.cpp:148] Top shape: 24 832 7 7 (978432)
I0403 16:16:30.452100 17574 net.cpp:148] Top shape: 24 832 7 7 (978432)
I0403 16:16:30.452116 17574 net.cpp:148] Top shape: 24 832 7 7 (978432)
I0403 16:16:30.452131 17574 net.cpp:156] Memory required for data: 1325241888
I0403 16:16:30.452144 17574 layer_factory.hpp:77] Creating layer inception_5b/1x1
I0403 16:16:30.452165 17574 net.cpp:91] Creating Layer inception_5b/1x1
I0403 16:16:30.452183 17574 net.cpp:425] inception_5b/1x1 <- inception_5a/output_inception_5a/output_0_split_0
I0403 16:16:30.452204 17574 net.cpp:399] inception_5b/1x1 -> inception_5b/1x1
I0403 16:16:30.455991 17574 net.cpp:141] Setting up inception_5b/1x1
I0403 16:16:30.456022 17574 net.cpp:148] Top shape: 24 384 7 7 (451584)
I0403 16:16:30.456038 17574 net.cpp:156] Memory required for data: 1327048224
I0403 16:16:30.456058 17574 layer_factory.hpp:77] Creating layer inception_5b/relu_1x1
I0403 16:16:30.456075 17574 net.cpp:91] Creating Layer inception_5b/relu_1x1
I0403 16:16:30.456091 17574 net.cpp:425] inception_5b/relu_1x1 <- inception_5b/1x1
I0403 16:16:30.456111 17574 net.cpp:386] inception_5b/relu_1x1 -> inception_5b/1x1 (in-place)
I0403 16:16:30.456419 17574 net.cpp:141] Setting up inception_5b/relu_1x1
I0403 16:16:30.456447 17574 net.cpp:148] Top shape: 24 384 7 7 (451584)
I0403 16:16:30.456464 17574 net.cpp:156] Memory required for data: 1328854560
I0403 16:16:30.456478 17574 layer_factory.hpp:77] Creating layer inception_5b/3x3_reduce
I0403 16:16:30.456501 17574 net.cpp:91] Creating Layer inception_5b/3x3_reduce
I0403 16:16:30.456518 17574 net.cpp:425] inception_5b/3x3_reduce <- inception_5a/output_inception_5a/output_0_split_1
I0403 16:16:30.456537 17574 net.cpp:399] inception_5b/3x3_reduce -> inception_5b/3x3_reduce
I0403 16:16:30.459223 17574 net.cpp:141] Setting up inception_5b/3x3_reduce
I0403 16:16:30.459254 17574 net.cpp:148] Top shape: 24 192 7 7 (225792)
I0403 16:16:30.459270 17574 net.cpp:156] Memory required for data: 1329757728
I0403 16:16:30.459287 17574 layer_factory.hpp:77] Creating layer inception_5b/relu_3x3_reduce
I0403 16:16:30.459306 17574 net.cpp:91] Creating Layer inception_5b/relu_3x3_reduce
I0403 16:16:30.459321 17574 net.cpp:425] inception_5b/relu_3x3_reduce <- inception_5b/3x3_reduce
I0403 16:16:30.459342 17574 net.cpp:386] inception_5b/relu_3x3_reduce -> inception_5b/3x3_reduce (in-place)
I0403 16:16:30.459533 17574 net.cpp:141] Setting up inception_5b/relu_3x3_reduce
I0403 16:16:30.459558 17574 net.cpp:148] Top shape: 24 192 7 7 (225792)
I0403 16:16:30.459578 17574 net.cpp:156] Memory required for data: 1330660896
I0403 16:16:30.459594 17574 layer_factory.hpp:77] Creating layer inception_5b/3x3
I0403 16:16:30.459615 17574 net.cpp:91] Creating Layer inception_5b/3x3
I0403 16:16:30.459632 17574 net.cpp:425] inception_5b/3x3 <- inception_5b/3x3_reduce
I0403 16:16:30.459653 17574 net.cpp:399] inception_5b/3x3 -> inception_5b/3x3
I0403 16:16:30.466496 17574 net.cpp:141] Setting up inception_5b/3x3
I0403 16:16:30.466526 17574 net.cpp:148] Top shape: 24 384 7 7 (451584)
I0403 16:16:30.466542 17574 net.cpp:156] Memory required for data: 1332467232
I0403 16:16:30.466560 17574 layer_factory.hpp:77] Creating layer inception_5b/relu_3x3
I0403 16:16:30.466584 17574 net.cpp:91] Creating Layer inception_5b/relu_3x3
I0403 16:16:30.466603 17574 net.cpp:425] inception_5b/relu_3x3 <- inception_5b/3x3
I0403 16:16:30.466624 17574 net.cpp:386] inception_5b/relu_3x3 -> inception_5b/3x3 (in-place)
I0403 16:16:30.466951 17574 net.cpp:141] Setting up inception_5b/relu_3x3
I0403 16:16:30.466979 17574 net.cpp:148] Top shape: 24 384 7 7 (451584)
I0403 16:16:30.466994 17574 net.cpp:156] Memory required for data: 1334273568
I0403 16:16:30.467008 17574 layer_factory.hpp:77] Creating layer inception_5b/5x5_reduce
I0403 16:16:30.467046 17574 net.cpp:91] Creating Layer inception_5b/5x5_reduce
I0403 16:16:30.467067 17574 net.cpp:425] inception_5b/5x5_reduce <- inception_5a/output_inception_5a/output_0_split_2
I0403 16:16:30.467093 17574 net.cpp:399] inception_5b/5x5_reduce -> inception_5b/5x5_reduce
I0403 16:16:30.468402 17574 net.cpp:141] Setting up inception_5b/5x5_reduce
I0403 16:16:30.468431 17574 net.cpp:148] Top shape: 24 48 7 7 (56448)
I0403 16:16:30.468446 17574 net.cpp:156] Memory required for data: 1334499360
I0403 16:16:30.468464 17574 layer_factory.hpp:77] Creating layer inception_5b/relu_5x5_reduce
I0403 16:16:30.468482 17574 net.cpp:91] Creating Layer inception_5b/relu_5x5_reduce
I0403 16:16:30.468497 17574 net.cpp:425] inception_5b/relu_5x5_reduce <- inception_5b/5x5_reduce
I0403 16:16:30.468516 17574 net.cpp:386] inception_5b/relu_5x5_reduce -> inception_5b/5x5_reduce (in-place)
I0403 16:16:30.468897 17574 net.cpp:141] Setting up inception_5b/relu_5x5_reduce
I0403 16:16:30.468924 17574 net.cpp:148] Top shape: 24 48 7 7 (56448)
I0403 16:16:30.468937 17574 net.cpp:156] Memory required for data: 1334725152
I0403 16:16:30.468951 17574 layer_factory.hpp:77] Creating layer inception_5b/5x5
I0403 16:16:30.468971 17574 net.cpp:91] Creating Layer inception_5b/5x5
I0403 16:16:30.468986 17574 net.cpp:425] inception_5b/5x5 <- inception_5b/5x5_reduce
I0403 16:16:30.469003 17574 net.cpp:399] inception_5b/5x5 -> inception_5b/5x5
I0403 16:16:30.470942 17574 net.cpp:141] Setting up inception_5b/5x5
I0403 16:16:30.470968 17574 net.cpp:148] Top shape: 24 128 7 7 (150528)
I0403 16:16:30.470983 17574 net.cpp:156] Memory required for data: 1335327264
I0403 16:16:30.470999 17574 layer_factory.hpp:77] Creating layer inception_5b/relu_5x5
I0403 16:16:30.471019 17574 net.cpp:91] Creating Layer inception_5b/relu_5x5
I0403 16:16:30.471035 17574 net.cpp:425] inception_5b/relu_5x5 <- inception_5b/5x5
I0403 16:16:30.471050 17574 net.cpp:386] inception_5b/relu_5x5 -> inception_5b/5x5 (in-place)
I0403 16:16:30.471232 17574 net.cpp:141] Setting up inception_5b/relu_5x5
I0403 16:16:30.471256 17574 net.cpp:148] Top shape: 24 128 7 7 (150528)
I0403 16:16:30.471271 17574 net.cpp:156] Memory required for data: 1335929376
I0403 16:16:30.471284 17574 layer_factory.hpp:77] Creating layer inception_5b/pool
I0403 16:16:30.471303 17574 net.cpp:91] Creating Layer inception_5b/pool
I0403 16:16:30.471319 17574 net.cpp:425] inception_5b/pool <- inception_5a/output_inception_5a/output_0_split_3
I0403 16:16:30.471336 17574 net.cpp:399] inception_5b/pool -> inception_5b/pool
I0403 16:16:30.471405 17574 net.cpp:141] Setting up inception_5b/pool
I0403 16:16:30.471428 17574 net.cpp:148] Top shape: 24 832 7 7 (978432)
I0403 16:16:30.471441 17574 net.cpp:156] Memory required for data: 1339843104
I0403 16:16:30.471456 17574 layer_factory.hpp:77] Creating layer inception_5b/pool_proj
I0403 16:16:30.471475 17574 net.cpp:91] Creating Layer inception_5b/pool_proj
I0403 16:16:30.471493 17574 net.cpp:425] inception_5b/pool_proj <- inception_5b/pool
I0403 16:16:30.471513 17574 net.cpp:399] inception_5b/pool_proj -> inception_5b/pool_proj
I0403 16:16:30.473742 17574 net.cpp:141] Setting up inception_5b/pool_proj
I0403 16:16:30.473769 17574 net.cpp:148] Top shape: 24 128 7 7 (150528)
I0403 16:16:30.473784 17574 net.cpp:156] Memory required for data: 1340445216
I0403 16:16:30.473801 17574 layer_factory.hpp:77] Creating layer inception_5b/relu_pool_proj
I0403 16:16:30.473819 17574 net.cpp:91] Creating Layer inception_5b/relu_pool_proj
I0403 16:16:30.473834 17574 net.cpp:425] inception_5b/relu_pool_proj <- inception_5b/pool_proj
I0403 16:16:30.473853 17574 net.cpp:386] inception_5b/relu_pool_proj -> inception_5b/pool_proj (in-place)
I0403 16:16:30.474138 17574 net.cpp:141] Setting up inception_5b/relu_pool_proj
I0403 16:16:30.474162 17574 net.cpp:148] Top shape: 24 128 7 7 (150528)
I0403 16:16:30.474176 17574 net.cpp:156] Memory required for data: 1341047328
I0403 16:16:30.474189 17574 layer_factory.hpp:77] Creating layer inception_5b/output
I0403 16:16:30.474205 17574 net.cpp:91] Creating Layer inception_5b/output
I0403 16:16:30.474234 17574 net.cpp:425] inception_5b/output <- inception_5b/1x1
I0403 16:16:30.474251 17574 net.cpp:425] inception_5b/output <- inception_5b/3x3
I0403 16:16:30.474267 17574 net.cpp:425] inception_5b/output <- inception_5b/5x5
I0403 16:16:30.474282 17574 net.cpp:425] inception_5b/output <- inception_5b/pool_proj
I0403 16:16:30.474300 17574 net.cpp:399] inception_5b/output -> inception_5b/output
I0403 16:16:30.474349 17574 net.cpp:141] Setting up inception_5b/output
I0403 16:16:30.474373 17574 net.cpp:148] Top shape: 24 1024 7 7 (1204224)
I0403 16:16:30.474388 17574 net.cpp:156] Memory required for data: 1345864224
I0403 16:16:30.474402 17574 layer_factory.hpp:77] Creating layer pool5/7x7_s1
I0403 16:16:30.474418 17574 net.cpp:91] Creating Layer pool5/7x7_s1
I0403 16:16:30.474432 17574 net.cpp:425] pool5/7x7_s1 <- inception_5b/output
I0403 16:16:30.474452 17574 net.cpp:399] pool5/7x7_s1 -> pool5/7x7_s1
I0403 16:16:30.474666 17574 net.cpp:141] Setting up pool5/7x7_s1
I0403 16:16:30.474691 17574 net.cpp:148] Top shape: 24 1024 1 1 (24576)
I0403 16:16:30.474705 17574 net.cpp:156] Memory required for data: 1345962528
I0403 16:16:30.474720 17574 layer_factory.hpp:77] Creating layer pool5/drop_7x7_s1
I0403 16:16:30.474735 17574 net.cpp:91] Creating Layer pool5/drop_7x7_s1
I0403 16:16:30.474750 17574 net.cpp:425] pool5/drop_7x7_s1 <- pool5/7x7_s1
I0403 16:16:30.474768 17574 net.cpp:386] pool5/drop_7x7_s1 -> pool5/7x7_s1 (in-place)
I0403 16:16:30.474817 17574 net.cpp:141] Setting up pool5/drop_7x7_s1
I0403 16:16:30.474839 17574 net.cpp:148] Top shape: 24 1024 1 1 (24576)
I0403 16:16:30.474854 17574 net.cpp:156] Memory required for data: 1346060832
I0403 16:16:30.474867 17574 layer_factory.hpp:77] Creating layer loss3/classifier_plantvillage
I0403 16:16:30.474884 17574 net.cpp:91] Creating Layer loss3/classifier_plantvillage
I0403 16:16:30.474900 17574 net.cpp:425] loss3/classifier_plantvillage <- pool5/7x7_s1
I0403 16:16:30.474918 17574 net.cpp:399] loss3/classifier_plantvillage -> loss3/classifier_plantvillage
I0403 16:16:30.475318 17574 net.cpp:141] Setting up loss3/classifier_plantvillage
I0403 16:16:30.475344 17574 net.cpp:148] Top shape: 24 38 (912)
I0403 16:16:30.475359 17574 net.cpp:156] Memory required for data: 1346064480
I0403 16:16:30.475376 17574 layer_factory.hpp:77] Creating layer loss3/classifier_plantvillage_loss3/classifier_plantvillage_0_split
I0403 16:16:30.475394 17574 net.cpp:91] Creating Layer loss3/classifier_plantvillage_loss3/classifier_plantvillage_0_split
I0403 16:16:30.475409 17574 net.cpp:425] loss3/classifier_plantvillage_loss3/classifier_plantvillage_0_split <- loss3/classifier_plantvillage
I0403 16:16:30.475425 17574 net.cpp:399] loss3/classifier_plantvillage_loss3/classifier_plantvillage_0_split -> loss3/classifier_plantvillage_loss3/classifier_plantvillage_0_split_0
I0403 16:16:30.475443 17574 net.cpp:399] loss3/classifier_plantvillage_loss3/classifier_plantvillage_0_split -> loss3/classifier_plantvillage_loss3/classifier_plantvillage_0_split_1
I0403 16:16:30.475464 17574 net.cpp:399] loss3/classifier_plantvillage_loss3/classifier_plantvillage_0_split -> loss3/classifier_plantvillage_loss3/classifier_plantvillage_0_split_2
I0403 16:16:30.475486 17574 net.cpp:399] loss3/classifier_plantvillage_loss3/classifier_plantvillage_0_split -> loss3/classifier_plantvillage_loss3/classifier_plantvillage_0_split_3
I0403 16:16:30.475584 17574 net.cpp:141] Setting up loss3/classifier_plantvillage_loss3/classifier_plantvillage_0_split
I0403 16:16:30.475605 17574 net.cpp:148] Top shape: 24 38 (912)
I0403 16:16:30.475621 17574 net.cpp:148] Top shape: 24 38 (912)
I0403 16:16:30.475636 17574 net.cpp:148] Top shape: 24 38 (912)
I0403 16:16:30.475649 17574 net.cpp:148] Top shape: 24 38 (912)
I0403 16:16:30.475661 17574 net.cpp:156] Memory required for data: 1346079072
I0403 16:16:30.475674 17574 layer_factory.hpp:77] Creating layer loss1/loss
I0403 16:16:30.475697 17574 net.cpp:91] Creating Layer loss1/loss
I0403 16:16:30.475713 17574 net.cpp:425] loss1/loss <- loss1/classifier_plantvillage_loss1/classifier_plantvillage_0_split_0
I0403 16:16:30.475742 17574 net.cpp:425] loss1/loss <- label_data_1_split_0
…
