…
I0403 15:40:52.428628 15945 net.cpp:313] The NetState phase (1) differed from the phase (0) specified by a rule in layer data
I0403 15:40:52.429713 15945 net.cpp:49] Initializing net from parameters: 
state {
  phase: TEST
}
layer {
  name: "data"
  type: "Data"
  top: "data"
  top: "label"
  include {
    phase: TEST
  }
  transform_param {
    mirror: false
    crop_size: 224
    mean_file: "/home/mohanty/data/final_dataset/lmdb/segmented-20-80/mean.binaryproto"
  }
  data_param {
    source: "/home/mohanty/data/final_dataset/lmdb/segmented-20-80/test_db"
    batch_size: 24
    backend: LMDB
  }
}
layer {
  name: "conv1/7x7_s2"
  type: "Convolution"
  bottom: "data"
  top: "conv1/7x7_s2"
  param {
    lr_mult: 1
    decay_mult: 1
  }
  param {
    lr_mult: 2
    decay_mult: 0
  }
  convolution_param {
    num_output: 64
    pad: 3
    kernel_size: 7
    stride: 2
    weight_filler {
      type: "xavier"
      std: 0.1
    }
    bias_filler {
      type: "constant"
      value: 0.2
    }
  }
}
layer {
  name: "conv1/relu_7x7"
  type: "ReLU"
  bottom: "conv1/7x7_s2"
  top: "conv1/7x7_s2"
}
layer {
  name: "pool1/3x3_s2"
  type: "Pooling"
  bottom: "conv1/7x7_s2"
  top: "pool1/3x3_s2"
  pooling_param {
    pool: MAX
    kernel_size: 3
    stride: 2
  }
}
layer {
  name: "pool1/norm1"
  type: "LRN"
  bottom: "pool1/3x3_s2"
  top: "pool1/norm1"
  lrn_param {
    local_size: 5
    alpha: 0.0001
    beta: 0.75
  }
}
layer {
  name: "conv2/3x3_reduce"
  type: "Convolution"
  bottom: "pool1/norm1"
  top: "conv2/3x3_reduce"
  param {
    lr_mult: 1
    decay_mult: 1
  }
  param {
    lr_mult: 2
    decay_mult: 0
  }
  convolution_param {
    num_output: 64
    kernel_size: 1
    weight_filler {
      type: "xavier"
      std: 0.1
    }
    bias_filler {
      type: "constant"
      value: 0.2
    }
  }
}
layer {
  name: "conv2/relu_3x3_reduce"
  type: "ReLU"
  bottom: "conv2/3x3_reduce"
  top: "conv2/3x3_reduce"
}
layer {
  name: "conv2/3x3"
  type: "Convolution"
  bottom: "conv2/3x3_reduce"
  top: "conv2/3x3"
  param {
    lr_mult: 1
    decay_mult: 1
  }
  param {
    lr_mult: 2
    decay_mult: 0
  }
  convolution_param {
    num_output: 192
    pad: 1
    kernel_size: 3
    weight_filler {
      type: "xavier"
      std: 0.03
    }
    bias_filler {
      type: "constant"
      value: 0.2
    }
  }
}
layer {
  name: "conv2/relu_3x3"
  type: "ReLU"
  bottom: "conv2/3x3"
  top: "conv2/3x3"
}
layer {
  name: "conv2/norm2"
  type: "LRN"
  bottom: "conv2/3x3"
  top: "conv2/norm2"
  lrn_param {
    local_size: 5
    alpha: 0.0001
    beta: 0.75
  }
}
layer {
  name: "pool2/3x3_s2"
  type: "Pooling"
  bottom: "conv2/norm2"
  top: "pool2/3x3_s2"
  pooling_param {
    pool: MAX
    kernel_size: 3
    stride: 2
  }
}
layer {
  name: "inception_3a/1x1"
  type: "Convolution"
  bottom: "pool2/3x3_s2"
  top: "inception_3a/1x1"
  param {
    lr_mult: 1
    decay_mult: 1
  }
  param {
    lr_mult: 2
    decay_mult: 0
  }
  convolution_param {
    num_output: 64
    kernel_size: 1
    weight_filler {
      type: "xavier"
      std: 0.03
    }
    bias_filler {
      type: "constant"
      value: 0.2
    }
  }
}
layer {
  name: "inception_3a/relu_1x1"
  type: "ReLU"
  bottom: "inception_3a/1x1"
  top: "inception_3a/1x1"
}
layer {
  name: "inception_3a/3x3_reduce"
  type: "Convolution"
  bottom: "pool2/3x3_s2"
  top: "inception_3a/3x3_reduce"
  param {
    lr_mult: 1
    decay_mult: 1
  }
  param {
    lr_mult: 2
    decay_mult: 0
  }
  convolution_param {
    num_output: 96
    kernel_size: 1
    weight_filler {
      type: "xavier"
      std: 0.09
    }
    bias_filler {
      type: "constant"
      value: 0.2
    }
  }
}
layer {
  name: "inception_3a/relu_3x3_reduce"
  type: "ReLU"
  bottom: "inception_3a/3x3_reduce"
  top: "inception_3a/3x3_reduce"
}
layer {
  name: "inception_3a/3x3"
  type: "Convolution"
  bottom: "inception_3a/3x3_reduce"
  top: "inception_3a/3x3"
  param {
    lr_mult: 1
    decay_mult: 1
  }
  param {
    lr_mult: 2
    decay_mult: 0
  }
  convolution_param {
    num_output: 128
    pad: 1
    kernel_size: 3
    weight_filler {
      type: "xavier"
      std: 0.03
    }
    bias_filler {
      type: "constant"
      value: 0.2
    }
  }
}
layer {
  name: "inception_3a/relu_3x3"
  type: "ReLU"
  bottom: "inception_3a/3x3"
  top: "inception_3a/3x3"
}
layer {
  name: "inception_3a/5x5_reduce"
  type: "Convolution"
  bottom: "pool2/3x3_s2"
  top: "inception_3a/5x5_reduce"
  param {
    lr_mult: 1
    decay_mult: 1
  }
  param {
    lr_mult: 2
    decay_mult: 0
  }
  convolution_param {
    num_output: 16
    kernel_size: 1
    weight_filler {
      type: "xavier"
      std: 0.2
    }
    bias_filler {
      type: "constant"
      value: 0.2
    }
  }
}
layer {
  name: "inception_3a/relu_5x5_reduce"
  type: "ReLU"
  bottom: "inception_3a/5x5_reduce"
  top: "inception_3a/5x5_reduce"
}
layer {
  name: "inception_3a/5x5"
  type: "Convolution"
  bottom: "inception_3a/5x5_reduce"
  top: "inception_3a/5x5"
  param {
    lr_mult: 1
    decay_mult: 1
  }
  param {
    lr_mult: 2
    decay_mult: 0
  }
  convolution_param {
    num_output: 32
    pad: 2
    kernel_size: 5
    weight_filler {
      type: "xavier"
      std: 0.03
    }
    bias_filler {
      type: "constant"
      value: 0.2
    }
  }
}
layer {
  name: "inception_3a/relu_5x5"
  type: "ReLU"
  bottom: "inception_3a/5x5"
  top: "inception_3a/5x5"
}
layer {
  name: "inception_3a/pool"
  type: "Pooling"
  bottom: "pool2/3x3_s2"
  top: "inception_3a/pool"
  pooling_param {
    pool: MAX
    kernel_size: 3
    stride: 1
    pad: 1
  }
}
layer {
  name: "inception_3a/pool_proj"
  type: "Convolution"
  bottom: "inception_3a/pool"
  top: "inception_3a/pool_proj"
  param {
    lr_mult: 1
    decay_mult: 1
  }
  param {
    lr_mult: 2
    decay_mult: 0
  }
  convolution_param {
    num_output: 32
    kernel_size: 1
    weight_filler {
      type: "xavier"
      std: 0.1
    }
    bias_filler {
      type: "constant"
      value: 0.2
    }
  }
}
layer {
  name: "inception_3a/relu_pool_proj"
  type: "ReLU"
  bottom: "inception_3a/pool_proj"
  top: "inception_3a/pool_proj"
}
layer {
  name: "inception_3a/output"
  type: "Concat"
  bottom: "inception_3a/1x1"
  bottom: "inception_3a/3x3"
  bottom: "inception_3a/5x5"
  bottom: "inception_3a/pool_proj"
  top: "inception_3a/output"
}
layer {
  name: "inception_3b/1x1"
  type: "Convolution"
  bottom: "inception_3a/output"
  top: "inception_3b/1x1"
  param {
    lr_mult: 1
    decay_mult: 1
  }
  param {
    lr_mult: 2
    decay_mult: 0
  }
  convolution_param {
    num_output: 128
    kernel_size: 1
    weight_filler {
      type: "xavier"
      std: 0.03
    }
    bias_filler {
      type: "constant"
      value: 0.2
    }
  }
}
layer {
  name: "inception_3b/relu_1x1"
  type: "ReLU"
  bottom: "inception_3b/1x1"
  top: "inception_3b/1x1"
}
layer {
  name: "inception_3b/3x3_reduce"
  type: "Convolution"
  bottom: "inception_3a/output"
  top: "inception_3b/3x3_reduce"
  param {
    lr_mult: 1
    decay_mult: 1
  }
  param {
    lr_mult: 2
    decay_mult: 0
  }
  convolution_param {
    num_output: 128
    kernel_size: 1
    weight_filler {
      type: "xavier"
      std: 0.09
    }
    bias_filler {
      type: "constant"
      value: 0.2
    }
  }
}
layer {
  name: "inception_3b/relu_3x3_reduce"
  type: "ReLU"
  bottom: "inception_3b/3x3_reduce"
  top: "inception_3b/3x3_reduce"
}
layer {
  name: "inception_3b/3x3"
  type: "Convolution"
  bottom: "inception_3b/3x3_reduce"
  top: "inception_3b/3x3"
  param {
    lr_mult: 1
    decay_mult: 1
  }
  param {
    lr_mult: 2
    decay_mult: 0
  }
  convolution_param {
    num_output: 192
    pad: 1
    kernel_size: 3
    weight_filler {
      type: "xavier"
      std: 0.03
    }
    bias_filler {
      type: "constant"
      value: 0.2
    }
  }
}
layer {
  name: "inception_3b/relu_3x3"
  type: "ReLU"
  bottom: "inception_3b/3x3"
  top: "inception_3b/3x3"
}
layer {
  name: "inception_3b/5x5_reduce"
  type: "Convolution"
  bottom: "inception_3a/output"
  top: "inception_3b/5x5_reduce"
  param {
    lr_mult: 1
    decay_mult: 1
  }
  param {
    lr_mult: 2
    decay_mult: 0
  }
  convolution_param {
    num_output: 32
    kernel_size: 1
    weight_filler {
      type: "xavier"
      std: 0.2
    }
    bias_filler {
      type: "constant"
      value: 0.2
    }
  }
}
layer {
  name: "inception_3b/relu_5x5_reduce"
  type: "ReLU"
  bottom: "inception_3b/5x5_reduce"
  top: "inception_3b/5x5_reduce"
}
layer {
  name: "inception_3b/5x5"
  type: "Convolution"
  bottom: "inception_3b/5x5_reduce"
  top: "inception_3b/5x5"
  param {
    lr_mult: 1
    decay_mult: 1
  }
  param {
    lr_mult: 2
    decay_mult: 0
  }
  convolution_param {
    num_output: 96
    pad: 2
    kernel_size: 5
    weight_filler {
      type: "xavier"
      std: 0.03
    }
    bias_filler {
      type: "constant"
      value: 0.2
    }
  }
}
layer {
  name: "inception_3b/relu_5x5"
  type: "ReLU"
  bottom: "inception_3b/5x5"
  top: "inception_3b/5x5"
}
layer {
  name: "inception_3b/pool"
  type: "Pooling"
  bottom: "inception_3a/output"
  top: "inception_3b/pool"
  pooling_param {
    pool: MAX
    kernel_size: 3
    stride: 1
    pad: 1
  }
}
layer {
  name: "inception_3b/pool_proj"
  type: "Convolution"
  bottom: "inception_3b/pool"
  top: "inception_3b/pool_proj"
  param {
    lr_mult: 1
    decay_mult: 1
  }
  param {
    lr_mult: 2
    decay_mult: 0
  }
  convolution_param {
    num_output: 64
    kernel_size: 1
    weight_filler {
      type: "xavier"
      std: 0.1
    }
    bias_filler {
      type: "constant"
      value: 0.2
    }
  }
}
layer {
  name: "inception_3b/relu_pool_proj"
  type: "ReLU"
  bottom: "inception_3b/pool_proj"
  top: "inception_3b/pool_proj"
}
layer {
  name: "inception_3b/output"
  type: "Concat"
  bottom: "inception_3b/1x1"
  bottom: "inception_3b/3x3"
  bottom: "inception_3b/5x5"
  bottom: "inception_3b/pool_proj"
  top: "inception_3b/output"
}
layer {
  name: "pool3/3x3_s2"
  type: "Pooling"
  bottom: "inception_3b/output"
  top: "pool3/3x3_s2"
  pooling_param {
    pool: MAX
    kernel_size: 3
    stride: 2
  }
}
layer {
  name: "inception_4a/1x1"
  type: "Convolution"
  bottom: "pool3/3x3_s2"
  top: "inception_4a/1x1"
  param {
    lr_mult: 1
    decay_mult: 1
  }
  param {
    lr_mult: 2
    decay_mult: 0
  }
  convolution_param {
    num_output: 192
    kernel_size: 1
    weight_filler {
      type: "xavier"
      std: 0.03
    }
    bias_filler {
      type: "constant"
      value: 0.2
    }
  }
}
layer {
  name: "inception_4a/relu_1x1"
  type: "ReLU"
  bottom: "inception_4a/1x1"
  top: "inception_4a/1x1"
}
layer {
  name: "inception_4a/3x3_reduce"
  type: "Convolution"
  bottom: "pool3/3x3_s2"
  top: "inception_4a/3x3_reduce"
  param {
    lr_mult: 1
    decay_mult: 1
  }
  param {
    lr_mult: 2
    decay_mult: 0
  }
  convolution_param {
    num_output: 96
    kernel_size: 1
    weight_filler {
      type: "xavier"
      std: 0.09
    }
    bias_filler {
      type: "constant"
      value: 0.2
    }
  }
}
layer {
  name: "inception_4a/relu_3x3_reduce"
  type: "ReLU"
  bottom: "inception_4a/3x3_reduce"
  top: "inception_4a/3x3_reduce"
}
layer {
  name: "inception_4a/3x3"
  type: "Convolution"
  bottom: "inception_4a/3x3_reduce"
  top: "inception_4a/3x3"
  param {
    lr_mult: 1
    decay_mult: 1
  }
  param {
    lr_mult: 2
    decay_mult: 0
  }
  convolution_param {
    num_output: 208
    pad: 1
    kernel_size: 3
    weight_filler {
      type: "xavier"
      std: 0.03
    }
    bias_filler {
      type: "constant"
      value: 0.2
    }
  }
}
layer {
  name: "inception_4a/relu_3x3"
  type: "ReLU"
  bottom: "inception_4a/3x3"
  top: "inception_4a/3x3"
}
layer {
  name: "inception_4a/5x5_reduce"
  type: "Convolution"
  bottom: "pool3/3x3_s2"
  top: "inception_4a/5x5_reduce"
  param {
    lr_mult: 1
    decay_mult: 1
  }
  param {
    lr_mult: 2
    decay_mult: 0
  }
  convolution_param {
    num_output: 16
    kernel_size: 1
    weight_filler {
      type: "xavier"
      std: 0.2
    }
    bias_filler {
      type: "constant"
      value: 0.2
    }
  }
}
layer {
  name: "inception_4a/relu_5x5_reduce"
  type: "ReLU"
  bottom: "inception_4a/5x5_reduce"
  top: "inception_4a/5x5_reduce"
}
layer {
  name: "inception_4a/5x5"
  type: "Convolution"
  bottom: "inception_4a/5x5_reduce"
  top: "inception_4a/5x5"
  param {
    lr_mult: 1
    decay_mult: 1
  }
  param {
    lr_mult: 2
    decay_mult: 0
  }
  convolution_param {
    num_output: 48
    pad: 2
    kernel_size: 5
    weight_filler {
      type: "xavier"
      std: 0.03
    }
    bias_filler {
      type: "constant"
      value: 0.2
    }
  }
}
layer {
  name: "inception_4a/relu_5x5"
  type: "ReLU"
  bottom: "inception_4a/5x5"
  top: "inception_4a/5x5"
}
layer {
  name: "inception_4a/pool"
  type: "Pooling"
  bottom: "pool3/3x3_s2"
  top: "inception_4a/pool"
  pooling_param {
    pool: MAX
    kernel_size: 3
    stride: 1
    pad: 1
  }
}
layer {
  name: "inception_4a/pool_proj"
  type: "Convolution"
  bottom: "inception_4a/pool"
  top: "inception_4a/pool_proj"
  param {
    lr_mult: 1
    decay_mult: 1
  }
  param {
    lr_mult: 2
    decay_mult: 0
  }
  convolution_param {
    num_output: 64
    kernel_size: 1
    weight_filler {
      type: "xavier"
      std: 0.1
    }
    bias_filler {
      type: "constant"
      value: 0.2
    }
  }
}
layer {
  name: "inception_4a/relu_pool_proj"
  type: "ReLU"
  bottom: "inception_4a/pool_proj"
  top: "inception_4a/pool_proj"
}
layer {
  name: "inception_4a/output"
  type: "Concat"
  bottom: "inception_4a/1x1"
  bottom: "inception_4a/3x3"
  bottom: "inception_4a/5x5"
  bottom: "inception_4a/pool_proj"
  top: "inception_4a/output"
}
layer {
  name: "loss1/ave_pool"
  type: "Pooling"
  bottom: "inception_4a/output"
  top: "loss1/ave_pool"
  pooling_param {
    pool: AVE
    kernel_size: 5
    stride: 3
  }
}
layer {
  name: "loss1/conv"
  type: "Convolution"
  bottom: "loss1/ave_pool"
  top: "loss1/conv"
  param {
    lr_mult: 1
    decay_mult: 1
  }
  param {
    lr_mult: 2
    decay_mult: 0
  }
  convolution_param {
    num_output: 128
    kernel_size: 1
    weight_filler {
      type: "xavier"
      std: 0.08
    }
    bias_filler {
      type: "constant"
      value: 0.2
    }
  }
}
layer {
  name: "loss1/relu_conv"
  type: "ReLU"
  bottom: "loss1/conv"
  top: "loss1/conv"
}
layer {
  name: "loss1/fc"
  type: "InnerProduct"
  bottom: "loss1/conv"
  top: "loss1/fc"
  param {
    lr_mult: 1
    decay_mult: 1
  }
  param {
    lr_mult: 2
    decay_mult: 0
  }
  inner_product_param {
    num_output: 1024
    weight_filler {
      type: "xavier"
      std: 0.02
    }
    bias_filler {
      type: "constant"
      value: 0.2
    }
  }
}
layer {
  name: "loss1/relu_fc"
  type: "ReLU"
  bottom: "loss1/fc"
  top: "loss1/fc"
}
layer {
  name: "loss1/drop_fc"
  type: "Dropout"
  bottom: "loss1/fc"
  top: "loss1/fc"
  dropout_param {
    dropout_ratio: 0.7
  }
}
layer {
  name: "loss1/classifier_plantvillage"
  type: "InnerProduct"
  bottom: "loss1/fc"
  top: "loss1/classifier_plantvillage"
  param {
    lr_mult: 1
    decay_mult: 1
  }
  param {
    lr_mult: 2
    decay_mult: 0
  }
  inner_product_param {
    num_output: 38
    weight_filler {
      type: "xavier"
      std: 0.0009765625
    }
    bias_filler {
      type: "constant"
      value: 0
    }
  }
}
layer {
  name: "inception_4b/1x1"
  type: "Convolution"
  bottom: "inception_4a/output"
  top: "inception_4b/1x1"
  param {
    lr_mult: 1
    decay_mult: 1
  }
  param {
    lr_mult: 2
    decay_mult: 0
  }
  convolution_param {
    num_output: 160
    kernel_size: 1
    weight_filler {
      type: "xavier"
      std: 0.03
    }
    bias_filler {
      type: "constant"
      value: 0.2
    }
  }
}
layer {
  name: "inception_4b/relu_1x1"
  type: "ReLU"
  bottom: "inception_4b/1x1"
  top: "inception_4b/1x1"
}
layer {
  name: "inception_4b/3x3_reduce"
  type: "Convolution"
  bottom: "inception_4a/output"
  top: "inception_4b/3x3_reduce"
  param {
    lr_mult: 1
    decay_mult: 1
  }
  param {
    lr_mult: 2
    decay_mult: 0
  }
  convolution_param {
    num_output: 112
    kernel_size: 1
    weight_filler {
      type: "xavier"
      std: 0.09
    }
    bias_filler {
      type: "constant"
      value: 0.2
    }
  }
}
layer {
  name: "inception_4b/relu_3x3_reduce"
  type: "ReLU"
  bottom: "inception_4b/3x3_reduce"
  top: "inception_4b/3x3_reduce"
}
layer {
  name: "inception_4b/3x3"
  type: "Convolution"
  bottom: "inception_4b/3x3_reduce"
  top: "inception_4b/3x3"
  param {
    lr_mult: 1
    decay_mult: 1
  }
  param {
    lr_mult: 2
    decay_mult: 0
  }
  convolution_param {
    num_output: 224
    pad: 1
    kernel_size: 3
    weight_filler {
      type: "xavier"
      std: 0.03
    }
    bias_filler {
      type: "constant"
      value: 0.2
    }
  }
}
layer {
  name: "inception_4b/relu_3x3"
  type: "ReLU"
  bottom: "inception_4b/3x3"
  top: "inception_4b/3x3"
}
layer {
  name: "inception_4b/5x5_reduce"
  type: "Convolution"
  bottom: "inception_4a/output"
  top: "inception_4b/5x5_reduce"
  param {
    lr_mult: 1
    decay_mult: 1
  }
  param {
    lr_mult: 2
    decay_mult: 0
  }
  convolution_param {
    num_output: 24
    kernel_size: 1
    weight_filler {
      type: "xavier"
      std: 0.2
    }
    bias_filler {
      type: "constant"
      value: 0.2
    }
  }
}
layer {
  name: "inception_4b/relu_5x5_reduce"
  type: "ReLU"
  bottom: "inception_4b/5x5_reduce"
  top: "inception_4b/5x5_reduce"
}
layer {
  name: "inception_4b/5x5"
  type: "Convolution"
  bottom: "inception_4b/5x5_reduce"
  top: "inception_4b/5x5"
  param {
    lr_mult: 1
    decay_mult: 1
  }
  param {
    lr_mult: 2
    decay_mult: 0
  }
  convolution_param {
    num_output: 64
    pad: 2
    kernel_size: 5
    weight_filler {
      type: "xavier"
      std: 0.03
    }
    bias_filler {
      type: "constant"
      value: 0.2
    }
  }
}
layer {
  name: "inception_4b/relu_5x5"
  type: "ReLU"
  bottom: "inception_4b/5x5"
  top: "inception_4b/5x5"
}
layer {
  name: "inception_4b/pool"
  type: "Pooling"
  bottom: "inception_4a/output"
  top: "inception_4b/pool"
  pooling_param {
    pool: MAX
    kernel_size: 3
    stride: 1
    pad: 1
  }
}
layer {
  name: "inception_4b/pool_proj"
  type: "Convolution"
  bottom: "inception_4b/pool"
  top: "inception_4b/pool_proj"
  param {
    lr_mult: 1
    decay_mult: 1
  }
  param {
    lr_mult: 2
    decay_mult: 0
  }
  convolution_param {
    num_output: 64
    kernel_size: 1
    weight_filler {
      type: "xavier"
      std: 0.1
    }
    bias_filler {
      type: "constant"
      value: 0.2
    }
  }
}
layer {
  name: "inception_4b/relu_pool_proj"
  type: "ReLU"
  bottom: "inception_4b/pool_proj"
  top: "inception_4b/pool_proj"
}
layer {
  name: "inception_4b/output"
  type: "Concat"
  bottom: "inception_4b/1x1"
  bottom: "inception_4b/3x3"
  bottom: "inception_4b/5x5"
  bottom: "inception_4b/pool_proj"
  top: "inception_4b/output"
}
layer {
  name: "inception_4c/1x1"
  type: "Convolution"
  bottom: "inception_4b/output"
  top: "inception_4c/1x1"
  param {
    lr_mult: 1
    decay_mult: 1
  }
  param {
    lr_mult: 2
    decay_mult: 0
  }
  convolution_param {
    num_output: 128
    kernel_size: 1
    weight_filler {
      type: "xavier"
      std: 0.03
    }
    bias_filler {
      type: "constant"
      value: 0.2
    }
  }
}
layer {
  name: "inception_4c/relu_1x1"
  type: "ReLU"
  bottom: "inception_4c/1x1"
  top: "inception_4c/1x1"
}
layer {
  name: "inception_4c/3x3_reduce"
  type: "Convolution"
  bottom: "inception_4b/output"
  top: "inception_4c/3x3_reduce"
  param {
    lr_mult: 1
    decay_mult: 1
  }
  param {
    lr_mult: 2
    decay_mult: 0
  }
  convolution_param {
    num_output: 128
    kernel_size: 1
    weight_filler {
      type: "xavier"
      std: 0.09
    }
    bias_filler {
      type: "constant"
      value: 0.2
    }
  }
}
layer {
  name: "inception_4c/relu_3x3_reduce"
  type: "ReLU"
  bottom: "inception_4c/3x3_reduce"
  top: "inception_4c/3x3_reduce"
}
layer {
  name: "inception_4c/3x3"
  type: "Convolution"
  bottom: "inception_4c/3x3_reduce"
  top: "inception_4c/3x3"
  param {
    lr_mult: 1
    decay_mult: 1
  }
  param {
    lr_mult: 2
    decay_mult: 0
  }
  convolution_param {
    num_output: 256
    pad: 1
    kernel_size: 3
    weight_filler {
      type: "xavier"
      std: 0.03
    }
    bias_filler {
      type: "constant"
      value: 0.2
    }
  }
}
layer {
  name: "inception_4c/relu_3x3"
  type: "ReLU"
  bottom: "inception_4c/3x3"
  top: "inception_4c/3x3"
}
layer {
  name: "inception_4c/5x5_reduce"
  type: "Convolution"
  bottom: "inception_4b/output"
  top: "inception_4c/5x5_reduce"
  param {
    lr_mult: 1
    decay_mult: 1
  }
  param {
    lr_mult: 2
    decay_mult: 0
  }
  convolution_param {
    num_output: 24
    kernel_size: 1
    weight_filler {
      type: "xavier"
      std: 0.2
    }
    bias_filler {
      type: "constant"
      value: 0.2
    }
  }
}
layer {
  name: "inception_4c/relu_5x5_reduce"
  type: "ReLU"
  bottom: "inception_4c/5x5_reduce"
  top: "inception_4c/5x5_reduce"
}
layer {
  name: "inception_4c/5x5"
  type: "Convolution"
  bottom: "inception_4c/5x5_reduce"
  top: "inception_4c/5x5"
  param {
    lr_mult: 1
    decay_mult: 1
  }
  param {
    lr_mult: 2
    decay_mult: 0
  }
  convolution_param {
    num_output: 64
    pad: 2
    kernel_size: 5
    weight_filler {
      type: "xavier"
      std: 0.03
    }
    bias_filler {
      type: "constant"
      value: 0.2
    }
  }
}
layer {
  name: "inception_4c/relu_5x5"
  type: "ReLU"
  bottom: "inception_4c/5x5"
  top: "inception_4c/5x5"
}
layer {
  name: "inception_4c/pool"
  type: "Pooling"
  bottom: "inception_4b/output"
  top: "inception_4c/pool"
  pooling_param {
    pool: MAX
    kernel_size: 3
    stride: 1
    pad: 1
  }
}
layer {
  name: "inception_4c/pool_proj"
  type: "Convolution"
  bottom: "inception_4c/pool"
  top: "inception_4c/pool_proj"
  param {
    lr_mult: 1
    decay_mult: 1
  }
  param {
    lr_mult: 2
    decay_mult: 0
  }
  convolution_param {
    num_output: 64
    kernel_size: 1
    weight_filler {
      type: "xavier"
      std: 0.1
    }
    bias_filler {
      type: "constant"
      value: 0.2
    }
  }
}
layer {
  name: "inception_4c/relu_pool_proj"
  type: "ReLU"
  bottom: "inception_4c/pool_proj"
  top: "inception_4c/pool_proj"
}
layer {
  name: "inception_4c/output"
  type: "Concat"
  bottom: "inception_4c/1x1"
  bottom: "inception_4c/3x3"
  bottom: "inception_4c/5x5"
  bottom: "inception_4c/pool_proj"
  top: "inception_4c/output"
}
layer {
  name: "inception_4d/1x1"
  type: "Convolution"
  bottom: "inception_4c/output"
  top: "inception_4d/1x1"
  param {
    lr_mult: 1
    decay_mult: 1
  }
  param {
    lr_mult: 2
    decay_mult: 0
  }
  convolution_param {
    num_output: 112
    kernel_size: 1
    weight_filler {
      type: "xavier"
      std: 0.03
    }
    bias_filler {
      type: "constant"
      value: 0.2
    }
  }
}
layer {
  name: "inception_4d/relu_1x1"
  type: "ReLU"
  bottom: "inception_4d/1x1"
  top: "inception_4d/1x1"
}
layer {
  name: "inception_4d/3x3_reduce"
  type: "Convolution"
  bottom: "inception_4c/output"
  top: "inception_4d/3x3_reduce"
  param {
    lr_mult: 1
    decay_mult: 1
  }
  param {
    lr_mult: 2
    decay_mult: 0
  }
  convolution_param {
    num_output: 144
    kernel_size: 1
    weight_filler {
      type: "xavier"
      std: 0.09
    }
    bias_filler {
      type: "constant"
      value: 0.2
    }
  }
}
layer {
  name: "inception_4d/relu_3x3_reduce"
  type: "ReLU"
  bottom: "inception_4d/3x3_reduce"
  top: "inception_4d/3x3_reduce"
}
layer {
  name: "inception_4d/3x3"
  type: "Convolution"
  bottom: "inception_4d/3x3_reduce"
  top: "inception_4d/3x3"
  param {
    lr_mult: 1
    decay_mult: 1
  }
  param {
    lr_mult: 2
    decay_mult: 0
  }
  convolution_param {
    num_output: 288
    pad: 1
    kernel_size: 3
    weight_filler {
      type: "xavier"
      std: 0.03
    }
    bias_filler {
      type: "constant"
      value: 0.2
    }
  }
}
layer {
  name: "inception_4d/relu_3x3"
  type: "ReLU"
  bottom: "inception_4d/3x3"
  top: "inception_4d/3x3"
}
layer {
  name: "inception_4d/5x5_reduce"
  type: "Convolution"
  bottom: "inception_4c/output"
  top: "inception_4d/5x5_reduce"
  param {
    lr_mult: 1
    decay_mult: 1
  }
  param {
    lr_mult: 2
    decay_mult: 0
  }
  convolution_param {
    num_output: 32
    kernel_size: 1
    weight_filler {
      type: "xavier"
      std: 0.2
    }
    bias_filler {
      type: "constant"
      value: 0.2
    }
  }
}
layer {
  name: "inception_4d/relu_5x5_reduce"
  type: "ReLU"
  bottom: "inception_4d/5x5_reduce"
  top: "inception_4d/5x5_reduce"
}
layer {
  name: "inception_4d/5x5"
  type: "Convolution"
  bottom: "inception_4d/5x5_reduce"
  top: "inception_4d/5x5"
  param {
    lr_mult: 1
    decay_mult: 1
  }
  param {
    lr_mult: 2
    decay_mult: 0
  }
  convolution_param {
    num_output: 64
    pad: 2
    kernel_size: 5
    weight_filler {
      type: "xavier"
      std: 0.03
    }
    bias_filler {
      type: "constant"
      value: 0.2
    }
  }
}
layer {
  name: "inception_4d/relu_5x5"
  type: "ReLU"
  bottom: "inception_4d/5x5"
  top: "inception_4d/5x5"
}
layer {
  name: "inception_4d/pool"
  type: "Pooling"
  bottom: "inception_4c/output"
  top: "inception_4d/pool"
  pooling_param {
    pool: MAX
    kernel_size: 3
    stride: 1
    pad: 1
  }
}
layer {
  name: "inception_4d/pool_proj"
  type: "Convolution"
  bottom: "inception_4d/pool"
  top: "inception_4d/pool_proj"
  param {
    lr_mult: 1
    decay_mult: 1
  }
  param {
    lr_mult: 2
    decay_mult: 0
  }
  convolution_param {
    num_output: 64
    kernel_size: 1
    weight_filler {
      type: "xavier"
      std: 0.1
    }
    bias_filler {
      type: "constant"
      value: 0.2
    }
  }
}
layer {
  name: "inception_4d/relu_pool_proj"
  type: "ReLU"
  bottom: "inception_4d/pool_proj"
  top: "inception_4d/pool_proj"
}
layer {
  name: "inception_4d/output"
  type: "Concat"
  bottom: "inception_4d/1x1"
  bottom: "inception_4d/3x3"
  bottom: "inception_4d/5x5"
  bottom: "inception_4d/pool_proj"
  top: "inception_4d/output"
}
layer {
  name: "loss2/ave_pool"
  type: "Pooling"
  bottom: "inception_4d/output"
  top: "loss2/ave_pool"
  pooling_param {
    pool: AVE
    kernel_size: 5
    stride: 3
  }
}
layer {
  name: "loss2/conv"
  type: "Convolution"
  bottom: "loss2/ave_pool"
  top: "loss2/conv"
  param {
    lr_mult: 1
    decay_mult: 1
  }
  param {
    lr_mult: 2
    decay_mult: 0
  }
  convolution_param {
    num_output: 128
    kernel_size: 1
    weight_filler {
      type: "xavier"
      std: 0.08
    }
    bias_filler {
      type: "constant"
      value: 0.2
    }
  }
}
layer {
  name: "loss2/relu_conv"
  type: "ReLU"
  bottom: "loss2/conv"
  top: "loss2/conv"
}
layer {
  name: "loss2/fc"
  type: "InnerProduct"
  bottom: "loss2/conv"
  top: "loss2/fc"
  param {
    lr_mult: 1
    decay_mult: 1
  }
  param {
    lr_mult: 2
    decay_mult: 0
  }
  inner_product_param {
    num_output: 1024
    weight_filler {
      type: "xavier"
      std: 0.02
    }
    bias_filler {
      type: "constant"
      value: 0.2
    }
  }
}
layer {
  name: "loss2/relu_fc"
  type: "ReLU"
  bottom: "loss2/fc"
  top: "loss2/fc"
}
layer {
  name: "loss2/drop_fc"
  type: "Dropout"
  bottom: "loss2/fc"
  top: "loss2/fc"
  dropout_param {
    dropout_ratio: 0.7
  }
}
layer {
  name: "loss2/classifier_plantvillage"
  type: "InnerProduct"
  bottom: "loss2/fc"
  top: "loss2/classifier_plantvillage"
  param {
    lr_mult: 1
    decay_mult: 1
  }
  param {
    lr_mult: 2
    decay_mult: 0
  }
  inner_product_param {
    num_output: 38
    weight_filler {
      type: "xavier"
      std: 0.0009765625
    }
    bias_filler {
      type: "constant"
      value: 0
    }
  }
}
layer {
  name: "inception_4e/1x1"
  type: "Convolution"
  bottom: "inception_4d/output"
  top: "inception_4e/1x1"
  param {
    lr_mult: 1
    decay_mult: 1
  }
  param {
    lr_mult: 2
    decay_mult: 0
  }
  convolution_param {
    num_output: 256
    kernel_size: 1
    weight_filler {
      type: "xavier"
      std: 0.03
    }
    bias_filler {
      type: "constant"
      value: 0.2
    }
  }
}
layer {
  name: "inception_4e/relu_1x1"
  type: "ReLU"
  bottom: "inception_4e/1x1"
  top: "inception_4e/1x1"
}
layer {
  name: "inception_4e/3x3_reduce"
  type: "Convolution"
  bottom: "inception_4d/output"
  top: "inception_4e/3x3_reduce"
  param {
    lr_mult: 1
    decay_mult: 1
  }
  param {
    lr_mult: 2
    decay_mult: 0
  }
  convolution_param {
    num_output: 160
    kernel_size: 1
    weight_filler {
      type: "xavier"
      std: 0.09
    }
    bias_filler {
      type: "constant"
      value: 0.2
    }
  }
}
layer {
  name: "inception_4e/relu_3x3_reduce"
  type: "ReLU"
  bottom: "inception_4e/3x3_reduce"
  top: "inception_4e/3x3_reduce"
}
layer {
  name: "inception_4e/3x3"
  type: "Convolution"
  bottom: "inception_4e/3x3_reduce"
  top: "inception_4e/3x3"
  param {
    lr_mult: 1
    decay_mult: 1
  }
  param {
    lr_mult: 2
    decay_mult: 0
  }
  convolution_param {
    num_output: 320
    pad: 1
    kernel_size: 3
    weight_filler {
      type: "xavier"
      std: 0.03
    }
    bias_filler {
      type: "constant"
      value: 0.2
    }
  }
}
layer {
  name: "inception_4e/relu_3x3"
  type: "ReLU"
  bottom: "inception_4e/3x3"
  top: "inception_4e/3x3"
}
layer {
  name: "inception_4e/5x5_reduce"
  type: "Convolution"
  bottom: "inception_4d/output"
  top: "inception_4e/5x5_reduce"
  param {
    lr_mult: 1
    decay_mult: 1
  }
  param {
    lr_mult: 2
    decay_mult: 0
  }
  convolution_param {
    num_output: 32
    kernel_size: 1
    weight_filler {
      type: "xavier"
      std: 0.2
    }
    bias_filler {
      type: "constant"
      value: 0.2
    }
  }
}
layer {
  name: "inception_4e/relu_5x5_reduce"
  type: "ReLU"
  bottom: "inception_4e/5x5_reduce"
  top: "inception_4e/5x5_reduce"
}
layer {
  name: "inception_4e/5x5"
  type: "Convolution"
  bottom: "inception_4e/5x5_reduce"
  top: "inception_4e/
I0403 15:40:52.430960 15945 layer_factory.hpp:77] Creating layer data
I0403 15:40:52.431534 15945 net.cpp:91] Creating Layer data
I0403 15:40:52.431571 15945 net.cpp:399] data -> data
I0403 15:40:52.431620 15945 net.cpp:399] data -> label
I0403 15:40:52.431655 15945 data_transformer.cpp:25] Loading mean file from: /home/mohanty/data/final_dataset/lmdb/segmented-20-80/mean.binaryproto
I0403 15:40:52.486619 15948 db_lmdb.cpp:38] Opened lmdb /home/mohanty/data/final_dataset/lmdb/segmented-20-80/test_db
I0403 15:40:52.515197 15945 data_layer.cpp:41] output data size: 24,3,224,224
I0403 15:40:52.542861 15945 net.cpp:141] Setting up data
I0403 15:40:52.542919 15945 net.cpp:148] Top shape: 24 3 224 224 (3612672)
I0403 15:40:52.542943 15945 net.cpp:148] Top shape: 24 (24)
I0403 15:40:52.542958 15945 net.cpp:156] Memory required for data: 14450784
I0403 15:40:52.542985 15945 layer_factory.hpp:77] Creating layer label_data_1_split
I0403 15:40:52.543011 15945 net.cpp:91] Creating Layer label_data_1_split
I0403 15:40:52.543028 15945 net.cpp:425] label_data_1_split <- label
I0403 15:40:52.543061 15945 net.cpp:399] label_data_1_split -> label_data_1_split_0
I0403 15:40:52.543088 15945 net.cpp:399] label_data_1_split -> label_data_1_split_1
I0403 15:40:52.543109 15945 net.cpp:399] label_data_1_split -> label_data_1_split_2
I0403 15:40:52.543131 15945 net.cpp:399] label_data_1_split -> label_data_1_split_3
I0403 15:40:52.543150 15945 net.cpp:399] label_data_1_split -> label_data_1_split_4
I0403 15:40:52.543171 15945 net.cpp:399] label_data_1_split -> label_data_1_split_5
I0403 15:40:52.543190 15945 net.cpp:399] label_data_1_split -> label_data_1_split_6
I0403 15:40:52.543211 15945 net.cpp:399] label_data_1_split -> label_data_1_split_7
I0403 15:40:52.543231 15945 net.cpp:399] label_data_1_split -> label_data_1_split_8
I0403 15:40:52.543251 15945 net.cpp:399] label_data_1_split -> label_data_1_split_9
I0403 15:40:52.543370 15945 net.cpp:141] Setting up label_data_1_split
I0403 15:40:52.543395 15945 net.cpp:148] Top shape: 24 (24)
I0403 15:40:52.543412 15945 net.cpp:148] Top shape: 24 (24)
I0403 15:40:52.543427 15945 net.cpp:148] Top shape: 24 (24)
I0403 15:40:52.543442 15945 net.cpp:148] Top shape: 24 (24)
I0403 15:40:52.543458 15945 net.cpp:148] Top shape: 24 (24)
I0403 15:40:52.543473 15945 net.cpp:148] Top shape: 24 (24)
I0403 15:40:52.543488 15945 net.cpp:148] Top shape: 24 (24)
I0403 15:40:52.543504 15945 net.cpp:148] Top shape: 24 (24)
I0403 15:40:52.543519 15945 net.cpp:148] Top shape: 24 (24)
I0403 15:40:52.543534 15945 net.cpp:148] Top shape: 24 (24)
I0403 15:40:52.543568 15945 net.cpp:156] Memory required for data: 14451744
I0403 15:40:52.543586 15945 layer_factory.hpp:77] Creating layer conv1/7x7_s2
I0403 15:40:52.543622 15945 net.cpp:91] Creating Layer conv1/7x7_s2
I0403 15:40:52.543642 15945 net.cpp:425] conv1/7x7_s2 <- data
I0403 15:40:52.543661 15945 net.cpp:399] conv1/7x7_s2 -> conv1/7x7_s2
I0403 15:40:52.687188 15945 net.cpp:141] Setting up conv1/7x7_s2
I0403 15:40:52.687250 15945 net.cpp:148] Top shape: 24 64 112 112 (19267584)
I0403 15:40:52.687266 15945 net.cpp:156] Memory required for data: 91522080
I0403 15:40:52.687296 15945 layer_factory.hpp:77] Creating layer conv1/relu_7x7
I0403 15:40:52.687321 15945 net.cpp:91] Creating Layer conv1/relu_7x7
I0403 15:40:52.687340 15945 net.cpp:425] conv1/relu_7x7 <- conv1/7x7_s2
I0403 15:40:52.687357 15945 net.cpp:386] conv1/relu_7x7 -> conv1/7x7_s2 (in-place)
I0403 15:40:52.687630 15945 net.cpp:141] Setting up conv1/relu_7x7
I0403 15:40:52.687659 15945 net.cpp:148] Top shape: 24 64 112 112 (19267584)
I0403 15:40:52.687674 15945 net.cpp:156] Memory required for data: 168592416
I0403 15:40:52.687690 15945 layer_factory.hpp:77] Creating layer pool1/3x3_s2
I0403 15:40:52.687712 15945 net.cpp:91] Creating Layer pool1/3x3_s2
I0403 15:40:52.687729 15945 net.cpp:425] pool1/3x3_s2 <- conv1/7x7_s2
I0403 15:40:52.687752 15945 net.cpp:399] pool1/3x3_s2 -> pool1/3x3_s2
I0403 15:40:52.687826 15945 net.cpp:141] Setting up pool1/3x3_s2
I0403 15:40:52.687849 15945 net.cpp:148] Top shape: 24 64 56 56 (4816896)
I0403 15:40:52.687863 15945 net.cpp:156] Memory required for data: 187860000
I0403 15:40:52.687877 15945 layer_factory.hpp:77] Creating layer pool1/norm1
I0403 15:40:52.687903 15945 net.cpp:91] Creating Layer pool1/norm1
I0403 15:40:52.687921 15945 net.cpp:425] pool1/norm1 <- pool1/3x3_s2
I0403 15:40:52.687939 15945 net.cpp:399] pool1/norm1 -> pool1/norm1
I0403 15:40:52.688231 15945 net.cpp:141] Setting up pool1/norm1
I0403 15:40:52.688261 15945 net.cpp:148] Top shape: 24 64 56 56 (4816896)
I0403 15:40:52.688277 15945 net.cpp:156] Memory required for data: 207127584
I0403 15:40:52.688292 15945 layer_factory.hpp:77] Creating layer conv2/3x3_reduce
I0403 15:40:52.688318 15945 net.cpp:91] Creating Layer conv2/3x3_reduce
I0403 15:40:52.688335 15945 net.cpp:425] conv2/3x3_reduce <- pool1/norm1
I0403 15:40:52.688354 15945 net.cpp:399] conv2/3x3_reduce -> conv2/3x3_reduce
I0403 15:40:52.689736 15945 net.cpp:141] Setting up conv2/3x3_reduce
I0403 15:40:52.689766 15945 net.cpp:148] Top shape: 24 64 56 56 (4816896)
I0403 15:40:52.689781 15945 net.cpp:156] Memory required for data: 226395168
I0403 15:40:52.689802 15945 layer_factory.hpp:77] Creating layer conv2/relu_3x3_reduce
I0403 15:40:52.689823 15945 net.cpp:91] Creating Layer conv2/relu_3x3_reduce
I0403 15:40:52.689839 15945 net.cpp:425] conv2/relu_3x3_reduce <- conv2/3x3_reduce
I0403 15:40:52.689857 15945 net.cpp:386] conv2/relu_3x3_reduce -> conv2/3x3_reduce (in-place)
I0403 15:40:52.690121 15945 net.cpp:141] Setting up conv2/relu_3x3_reduce
I0403 15:40:52.690147 15945 net.cpp:148] Top shape: 24 64 56 56 (4816896)
I0403 15:40:52.690162 15945 net.cpp:156] Memory required for data: 245662752
I0403 15:40:52.690176 15945 layer_factory.hpp:77] Creating layer conv2/3x3
I0403 15:40:52.690198 15945 net.cpp:91] Creating Layer conv2/3x3
I0403 15:40:52.690219 15945 net.cpp:425] conv2/3x3 <- conv2/3x3_reduce
I0403 15:40:52.690238 15945 net.cpp:399] conv2/3x3 -> conv2/3x3
I0403 15:40:52.692529 15945 net.cpp:141] Setting up conv2/3x3
I0403 15:40:52.692559 15945 net.cpp:148] Top shape: 24 192 56 56 (14450688)
I0403 15:40:52.692575 15945 net.cpp:156] Memory required for data: 303465504
I0403 15:40:52.692595 15945 layer_factory.hpp:77] Creating layer conv2/relu_3x3
I0403 15:40:52.692621 15945 net.cpp:91] Creating Layer conv2/relu_3x3
I0403 15:40:52.692637 15945 net.cpp:425] conv2/relu_3x3 <- conv2/3x3
I0403 15:40:52.692654 15945 net.cpp:386] conv2/relu_3x3 -> conv2/3x3 (in-place)
I0403 15:40:52.692827 15945 net.cpp:141] Setting up conv2/relu_3x3
I0403 15:40:52.692854 15945 net.cpp:148] Top shape: 24 192 56 56 (14450688)
I0403 15:40:52.692900 15945 net.cpp:156] Memory required for data: 361268256
I0403 15:40:52.692916 15945 layer_factory.hpp:77] Creating layer conv2/norm2
I0403 15:40:52.692934 15945 net.cpp:91] Creating Layer conv2/norm2
I0403 15:40:52.692948 15945 net.cpp:425] conv2/norm2 <- conv2/3x3
I0403 15:40:52.692968 15945 net.cpp:399] conv2/norm2 -> conv2/norm2
I0403 15:40:52.693269 15945 net.cpp:141] Setting up conv2/norm2
I0403 15:40:52.693296 15945 net.cpp:148] Top shape: 24 192 56 56 (14450688)
I0403 15:40:52.693311 15945 net.cpp:156] Memory required for data: 419071008
I0403 15:40:52.693325 15945 layer_factory.hpp:77] Creating layer pool2/3x3_s2
I0403 15:40:52.693342 15945 net.cpp:91] Creating Layer pool2/3x3_s2
I0403 15:40:52.693357 15945 net.cpp:425] pool2/3x3_s2 <- conv2/norm2
I0403 15:40:52.693377 15945 net.cpp:399] pool2/3x3_s2 -> pool2/3x3_s2
I0403 15:40:52.693428 15945 net.cpp:141] Setting up pool2/3x3_s2
I0403 15:40:52.693450 15945 net.cpp:148] Top shape: 24 192 28 28 (3612672)
I0403 15:40:52.693464 15945 net.cpp:156] Memory required for data: 433521696
I0403 15:40:52.693478 15945 layer_factory.hpp:77] Creating layer pool2/3x3_s2_pool2/3x3_s2_0_split
I0403 15:40:52.693497 15945 net.cpp:91] Creating Layer pool2/3x3_s2_pool2/3x3_s2_0_split
I0403 15:40:52.693512 15945 net.cpp:425] pool2/3x3_s2_pool2/3x3_s2_0_split <- pool2/3x3_s2
I0403 15:40:52.693531 15945 net.cpp:399] pool2/3x3_s2_pool2/3x3_s2_0_split -> pool2/3x3_s2_pool2/3x3_s2_0_split_0
I0403 15:40:52.693550 15945 net.cpp:399] pool2/3x3_s2_pool2/3x3_s2_0_split -> pool2/3x3_s2_pool2/3x3_s2_0_split_1
I0403 15:40:52.693569 15945 net.cpp:399] pool2/3x3_s2_pool2/3x3_s2_0_split -> pool2/3x3_s2_pool2/3x3_s2_0_split_2
I0403 15:40:52.693588 15945 net.cpp:399] pool2/3x3_s2_pool2/3x3_s2_0_split -> pool2/3x3_s2_pool2/3x3_s2_0_split_3
I0403 15:40:52.693660 15945 net.cpp:141] Setting up pool2/3x3_s2_pool2/3x3_s2_0_split
I0403 15:40:52.693684 15945 net.cpp:148] Top shape: 24 192 28 28 (3612672)
I0403 15:40:52.693701 15945 net.cpp:148] Top shape: 24 192 28 28 (3612672)
I0403 15:40:52.693716 15945 net.cpp:148] Top shape: 24 192 28 28 (3612672)
I0403 15:40:52.693730 15945 net.cpp:148] Top shape: 24 192 28 28 (3612672)
I0403 15:40:52.693743 15945 net.cpp:156] Memory required for data: 491324448
I0403 15:40:52.693758 15945 layer_factory.hpp:77] Creating layer inception_3a/1x1
I0403 15:40:52.693776 15945 net.cpp:91] Creating Layer inception_3a/1x1
I0403 15:40:52.693792 15945 net.cpp:425] inception_3a/1x1 <- pool2/3x3_s2_pool2/3x3_s2_0_split_0
I0403 15:40:52.693814 15945 net.cpp:399] inception_3a/1x1 -> inception_3a/1x1
I0403 15:40:52.695353 15945 net.cpp:141] Setting up inception_3a/1x1
I0403 15:40:52.695384 15945 net.cpp:148] Top shape: 24 64 28 28 (1204224)
I0403 15:40:52.695399 15945 net.cpp:156] Memory required for data: 496141344
I0403 15:40:52.695417 15945 layer_factory.hpp:77] Creating layer inception_3a/relu_1x1
I0403 15:40:52.695437 15945 net.cpp:91] Creating Layer inception_3a/relu_1x1
I0403 15:40:52.695453 15945 net.cpp:425] inception_3a/relu_1x1 <- inception_3a/1x1
I0403 15:40:52.695471 15945 net.cpp:386] inception_3a/relu_1x1 -> inception_3a/1x1 (in-place)
I0403 15:40:52.695652 15945 net.cpp:141] Setting up inception_3a/relu_1x1
I0403 15:40:52.695677 15945 net.cpp:148] Top shape: 24 64 28 28 (1204224)
I0403 15:40:52.695690 15945 net.cpp:156] Memory required for data: 500958240
I0403 15:40:52.695704 15945 layer_factory.hpp:77] Creating layer inception_3a/3x3_reduce
I0403 15:40:52.695729 15945 net.cpp:91] Creating Layer inception_3a/3x3_reduce
I0403 15:40:52.695744 15945 net.cpp:425] inception_3a/3x3_reduce <- pool2/3x3_s2_pool2/3x3_s2_0_split_1
I0403 15:40:52.695762 15945 net.cpp:399] inception_3a/3x3_reduce -> inception_3a/3x3_reduce
I0403 15:40:52.697430 15945 net.cpp:141] Setting up inception_3a/3x3_reduce
I0403 15:40:52.697460 15945 net.cpp:148] Top shape: 24 96 28 28 (1806336)
I0403 15:40:52.697476 15945 net.cpp:156] Memory required for data: 508183584
I0403 15:40:52.697497 15945 layer_factory.hpp:77] Creating layer inception_3a/relu_3x3_reduce
I0403 15:40:52.697535 15945 net.cpp:91] Creating Layer inception_3a/relu_3x3_reduce
I0403 15:40:52.697551 15945 net.cpp:425] inception_3a/relu_3x3_reduce <- inception_3a/3x3_reduce
I0403 15:40:52.697571 15945 net.cpp:386] inception_3a/relu_3x3_reduce -> inception_3a/3x3_reduce (in-place)
I0403 15:40:52.697756 15945 net.cpp:141] Setting up inception_3a/relu_3x3_reduce
I0403 15:40:52.697780 15945 net.cpp:148] Top shape: 24 96 28 28 (1806336)
I0403 15:40:52.697794 15945 net.cpp:156] Memory required for data: 515408928
I0403 15:40:52.697808 15945 layer_factory.hpp:77] Creating layer inception_3a/3x3
I0403 15:40:52.697829 15945 net.cpp:91] Creating Layer inception_3a/3x3
I0403 15:40:52.697846 15945 net.cpp:425] inception_3a/3x3 <- inception_3a/3x3_reduce
I0403 15:40:52.697867 15945 net.cpp:399] inception_3a/3x3 -> inception_3a/3x3
I0403 15:40:52.699484 15945 net.cpp:141] Setting up inception_3a/3x3
I0403 15:40:52.699512 15945 net.cpp:148] Top shape: 24 128 28 28 (2408448)
I0403 15:40:52.699527 15945 net.cpp:156] Memory required for data: 525042720
I0403 15:40:52.699545 15945 layer_factory.hpp:77] Creating layer inception_3a/relu_3x3
I0403 15:40:52.699568 15945 net.cpp:91] Creating Layer inception_3a/relu_3x3
I0403 15:40:52.699584 15945 net.cpp:425] inception_3a/relu_3x3 <- inception_3a/3x3
I0403 15:40:52.699604 15945 net.cpp:386] inception_3a/relu_3x3 -> inception_3a/3x3 (in-place)
I0403 15:40:52.699875 15945 net.cpp:141] Setting up inception_3a/relu_3x3
I0403 15:40:52.699901 15945 net.cpp:148] Top shape: 24 128 28 28 (2408448)
I0403 15:40:52.699916 15945 net.cpp:156] Memory required for data: 534676512
I0403 15:40:52.699930 15945 layer_factory.hpp:77] Creating layer inception_3a/5x5_reduce
I0403 15:40:52.699952 15945 net.cpp:91] Creating Layer inception_3a/5x5_reduce
I0403 15:40:52.699968 15945 net.cpp:425] inception_3a/5x5_reduce <- pool2/3x3_s2_pool2/3x3_s2_0_split_2
I0403 15:40:52.699988 15945 net.cpp:399] inception_3a/5x5_reduce -> inception_3a/5x5_reduce
I0403 15:40:52.700925 15945 net.cpp:141] Setting up inception_3a/5x5_reduce
I0403 15:40:52.700954 15945 net.cpp:148] Top shape: 24 16 28 28 (301056)
I0403 15:40:52.700970 15945 net.cpp:156] Memory required for data: 535880736
I0403 15:40:52.700987 15945 layer_factory.hpp:77] Creating layer inception_3a/relu_5x5_reduce
I0403 15:40:52.701005 15945 net.cpp:91] Creating Layer inception_3a/relu_5x5_reduce
I0403 15:40:52.701020 15945 net.cpp:425] inception_3a/relu_5x5_reduce <- inception_3a/5x5_reduce
I0403 15:40:52.701037 15945 net.cpp:386] inception_3a/relu_5x5_reduce -> inception_3a/5x5_reduce (in-place)
I0403 15:40:52.701330 15945 net.cpp:141] Setting up inception_3a/relu_5x5_reduce
I0403 15:40:52.701355 15945 net.cpp:148] Top shape: 24 16 28 28 (301056)
I0403 15:40:52.701370 15945 net.cpp:156] Memory required for data: 537084960
I0403 15:40:52.701385 15945 layer_factory.hpp:77] Creating layer inception_3a/5x5
I0403 15:40:52.701406 15945 net.cpp:91] Creating Layer inception_3a/5x5
I0403 15:40:52.701422 15945 net.cpp:425] inception_3a/5x5 <- inception_3a/5x5_reduce
I0403 15:40:52.701442 15945 net.cpp:399] inception_3a/5x5 -> inception_3a/5x5
I0403 15:40:52.702430 15945 net.cpp:141] Setting up inception_3a/5x5
I0403 15:40:52.702455 15945 net.cpp:148] Top shape: 24 32 28 28 (602112)
I0403 15:40:52.702471 15945 net.cpp:156] Memory required for data: 539493408
I0403 15:40:52.702488 15945 layer_factory.hpp:77] Creating layer inception_3a/relu_5x5
I0403 15:40:52.702507 15945 net.cpp:91] Creating Layer inception_3a/relu_5x5
I0403 15:40:52.702523 15945 net.cpp:425] inception_3a/relu_5x5 <- inception_3a/5x5
I0403 15:40:52.702539 15945 net.cpp:386] inception_3a/relu_5x5 -> inception_3a/5x5 (in-place)
I0403 15:40:52.702723 15945 net.cpp:141] Setting up inception_3a/relu_5x5
I0403 15:40:52.702749 15945 net.cpp:148] Top shape: 24 32 28 28 (602112)
I0403 15:40:52.702764 15945 net.cpp:156] Memory required for data: 541901856
I0403 15:40:52.702780 15945 layer_factory.hpp:77] Creating layer inception_3a/pool
I0403 15:40:52.702795 15945 net.cpp:91] Creating Layer inception_3a/pool
I0403 15:40:52.702826 15945 net.cpp:425] inception_3a/pool <- pool2/3x3_s2_pool2/3x3_s2_0_split_3
I0403 15:40:52.702852 15945 net.cpp:399] inception_3a/pool -> inception_3a/pool
I0403 15:40:52.702908 15945 net.cpp:141] Setting up inception_3a/pool
I0403 15:40:52.702930 15945 net.cpp:148] Top shape: 24 192 28 28 (3612672)
I0403 15:40:52.702945 15945 net.cpp:156] Memory required for data: 556352544
I0403 15:40:52.702960 15945 layer_factory.hpp:77] Creating layer inception_3a/pool_proj
I0403 15:40:52.702981 15945 net.cpp:91] Creating Layer inception_3a/pool_proj
I0403 15:40:52.702997 15945 net.cpp:425] inception_3a/pool_proj <- inception_3a/pool
I0403 15:40:52.703019 15945 net.cpp:399] inception_3a/pool_proj -> inception_3a/pool_proj
I0403 15:40:52.703961 15945 net.cpp:141] Setting up inception_3a/pool_proj
I0403 15:40:52.703989 15945 net.cpp:148] Top shape: 24 32 28 28 (602112)
I0403 15:40:52.704004 15945 net.cpp:156] Memory required for data: 558760992
I0403 15:40:52.704026 15945 layer_factory.hpp:77] Creating layer inception_3a/relu_pool_proj
I0403 15:40:52.704046 15945 net.cpp:91] Creating Layer inception_3a/relu_pool_proj
I0403 15:40:52.704061 15945 net.cpp:425] inception_3a/relu_pool_proj <- inception_3a/pool_proj
I0403 15:40:52.704078 15945 net.cpp:386] inception_3a/relu_pool_proj -> inception_3a/pool_proj (in-place)
I0403 15:40:52.704345 15945 net.cpp:141] Setting up inception_3a/relu_pool_proj
I0403 15:40:52.704371 15945 net.cpp:148] Top shape: 24 32 28 28 (602112)
I0403 15:40:52.704385 15945 net.cpp:156] Memory required for data: 561169440
I0403 15:40:52.704399 15945 layer_factory.hpp:77] Creating layer inception_3a/output
I0403 15:40:52.704418 15945 net.cpp:91] Creating Layer inception_3a/output
I0403 15:40:52.704434 15945 net.cpp:425] inception_3a/output <- inception_3a/1x1
I0403 15:40:52.704450 15945 net.cpp:425] inception_3a/output <- inception_3a/3x3
I0403 15:40:52.704465 15945 net.cpp:425] inception_3a/output <- inception_3a/5x5
I0403 15:40:52.704480 15945 net.cpp:425] inception_3a/output <- inception_3a/pool_proj
I0403 15:40:52.704498 15945 net.cpp:399] inception_3a/output -> inception_3a/output
I0403 15:40:52.704543 15945 net.cpp:141] Setting up inception_3a/output
I0403 15:40:52.704566 15945 net.cpp:148] Top shape: 24 256 28 28 (4816896)
I0403 15:40:52.704582 15945 net.cpp:156] Memory required for data: 580437024
I0403 15:40:52.704596 15945 layer_factory.hpp:77] Creating layer inception_3a/output_inception_3a/output_0_split
I0403 15:40:52.704625 15945 net.cpp:91] Creating Layer inception_3a/output_inception_3a/output_0_split
I0403 15:40:52.704641 15945 net.cpp:425] inception_3a/output_inception_3a/output_0_split <- inception_3a/output
I0403 15:40:52.704660 15945 net.cpp:399] inception_3a/output_inception_3a/output_0_split -> inception_3a/output_inception_3a/output_0_split_0
I0403 15:40:52.704680 15945 net.cpp:399] inception_3a/output_inception_3a/output_0_split -> inception_3a/output_inception_3a/output_0_split_1
I0403 15:40:52.704704 15945 net.cpp:399] inception_3a/output_inception_3a/output_0_split -> inception_3a/output_inception_3a/output_0_split_2
I0403 15:40:52.704725 15945 net.cpp:399] inception_3a/output_inception_3a/output_0_split -> inception_3a/output_inception_3a/output_0_split_3
I0403 15:40:52.704799 15945 net.cpp:141] Setting up inception_3a/output_inception_3a/output_0_split
I0403 15:40:52.704821 15945 net.cpp:148] Top shape: 24 256 28 28 (4816896)
I0403 15:40:52.704838 15945 net.cpp:148] Top shape: 24 256 28 28 (4816896)
I0403 15:40:52.704852 15945 net.cpp:148] Top shape: 24 256 28 28 (4816896)
I0403 15:40:52.704866 15945 net.cpp:148] Top shape: 24 256 28 28 (4816896)
I0403 15:40:52.704879 15945 net.cpp:156] Memory required for data: 657507360
I0403 15:40:52.704893 15945 layer_factory.hpp:77] Creating layer inception_3b/1x1
I0403 15:40:52.704915 15945 net.cpp:91] Creating Layer inception_3b/1x1
I0403 15:40:52.704931 15945 net.cpp:425] inception_3b/1x1 <- inception_3a/output_inception_3a/output_0_split_0
I0403 15:40:52.704952 15945 net.cpp:399] inception_3b/1x1 -> inception_3b/1x1
I0403 15:40:52.706066 15945 net.cpp:141] Setting up inception_3b/1x1
I0403 15:40:52.706104 15945 net.cpp:148] Top shape: 24 128 28 28 (2408448)
I0403 15:40:52.706120 15945 net.cpp:156] Memory required for data: 667141152
I0403 15:40:52.706138 15945 layer_factory.hpp:77] Creating layer inception_3b/relu_1x1
I0403 15:40:52.706157 15945 net.cpp:91] Creating Layer inception_3b/relu_1x1
I0403 15:40:52.706174 15945 net.cpp:425] inception_3b/relu_1x1 <- inception_3b/1x1
I0403 15:40:52.706190 15945 net.cpp:386] inception_3b/relu_1x1 -> inception_3b/1x1 (in-place)
I0403 15:40:52.706363 15945 net.cpp:141] Setting up inception_3b/relu_1x1
I0403 15:40:52.706387 15945 net.cpp:148] Top shape: 24 128 28 28 (2408448)
I0403 15:40:52.706404 15945 net.cpp:156] Memory required for data: 676774944
I0403 15:40:52.706418 15945 layer_factory.hpp:77] Creating layer inception_3b/3x3_reduce
I0403 15:40:52.706437 15945 net.cpp:91] Creating Layer inception_3b/3x3_reduce
I0403 15:40:52.706454 15945 net.cpp:425] inception_3b/3x3_reduce <- inception_3a/output_inception_3a/output_0_split_1
I0403 15:40:52.706475 15945 net.cpp:399] inception_3b/3x3_reduce -> inception_3b/3x3_reduce
I0403 15:40:52.707590 15945 net.cpp:141] Setting up inception_3b/3x3_reduce
I0403 15:40:52.707622 15945 net.cpp:148] Top shape: 24 128 28 28 (2408448)
I0403 15:40:52.707638 15945 net.cpp:156] Memory required for data: 686408736
I0403 15:40:52.707654 15945 layer_factory.hpp:77] Creating layer inception_3b/relu_3x3_reduce
I0403 15:40:52.707676 15945 net.cpp:91] Creating Layer inception_3b/relu_3x3_reduce
I0403 15:40:52.707692 15945 net.cpp:425] inception_3b/relu_3x3_reduce <- inception_3b/3x3_reduce
I0403 15:40:52.707708 15945 net.cpp:386] inception_3b/relu_3x3_reduce -> inception_3b/3x3_reduce (in-place)
I0403 15:40:52.707876 15945 net.cpp:141] Setting up inception_3b/relu_3x3_reduce
I0403 15:40:52.707901 15945 net.cpp:148] Top shape: 24 128 28 28 (2408448)
I0403 15:40:52.707914 15945 net.cpp:156] Memory required for data: 696042528
I0403 15:40:52.707928 15945 layer_factory.hpp:77] Creating layer inception_3b/3x3
I0403 15:40:52.707953 15945 net.cpp:91] Creating Layer inception_3b/3x3
I0403 15:40:52.707972 15945 net.cpp:425] inception_3b/3x3 <- inception_3b/3x3_reduce
I0403 15:40:52.707989 15945 net.cpp:399] inception_3b/3x3 -> inception_3b/3x3
I0403 15:40:52.710983 15945 net.cpp:141] Setting up inception_3b/3x3
I0403 15:40:52.711012 15945 net.cpp:148] Top shape: 24 192 28 28 (3612672)
I0403 15:40:52.711029 15945 net.cpp:156] Memory required for data: 710493216
I0403 15:40:52.711047 15945 layer_factory.hpp:77] Creating layer inception_3b/relu_3x3
I0403 15:40:52.711068 15945 net.cpp:91] Creating Layer inception_3b/relu_3x3
I0403 15:40:52.711086 15945 net.cpp:425] inception_3b/relu_3x3 <- inception_3b/3x3
I0403 15:40:52.711102 15945 net.cpp:386] inception_3b/relu_3x3 -> inception_3b/3x3 (in-place)
I0403 15:40:52.711385 15945 net.cpp:141] Setting up inception_3b/relu_3x3
I0403 15:40:52.711412 15945 net.cpp:148] Top shape: 24 192 28 28 (3612672)
I0403 15:40:52.711427 15945 net.cpp:156] Memory required for data: 724943904
I0403 15:40:52.711442 15945 layer_factory.hpp:77] Creating layer inception_3b/5x5_reduce
I0403 15:40:52.711465 15945 net.cpp:91] Creating Layer inception_3b/5x5_reduce
I0403 15:40:52.711483 15945 net.cpp:425] inception_3b/5x5_reduce <- inception_3a/output_inception_3a/output_0_split_2
I0403 15:40:52.711505 15945 net.cpp:399] inception_3b/5x5_reduce -> inception_3b/5x5_reduce
I0403 15:40:52.712528 15945 net.cpp:141] Setting up inception_3b/5x5_reduce
I0403 15:40:52.712556 15945 net.cpp:148] Top shape: 24 32 28 28 (602112)
I0403 15:40:52.712573 15945 net.cpp:156] Memory required for data: 727352352
I0403 15:40:52.712590 15945 layer_factory.hpp:77] Creating layer inception_3b/relu_5x5_reduce
I0403 15:40:52.712615 15945 net.cpp:91] Creating Layer inception_3b/relu_5x5_reduce
I0403 15:40:52.712633 15945 net.cpp:425] inception_3b/relu_5x5_reduce <- inception_3b/5x5_reduce
I0403 15:40:52.712651 15945 net.cpp:386] inception_3b/relu_5x5_reduce -> inception_3b/5x5_reduce (in-place)
I0403 15:40:52.712849 15945 net.cpp:141] Setting up inception_3b/relu_5x5_reduce
I0403 15:40:52.712877 15945 net.cpp:148] Top shape: 24 32 28 28 (602112)
I0403 15:40:52.712893 15945 net.cpp:156] Memory required for data: 729760800
I0403 15:40:52.712908 15945 layer_factory.hpp:77] Creating layer inception_3b/5x5
I0403 15:40:52.712929 15945 net.cpp:91] Creating Layer inception_3b/5x5
I0403 15:40:52.712946 15945 net.cpp:425] inception_3b/5x5 <- inception_3b/5x5_reduce
I0403 15:40:52.712965 15945 net.cpp:399] inception_3b/5x5 -> inception_3b/5x5
I0403 15:40:52.714978 15945 net.cpp:141] Setting up inception_3b/5x5
I0403 15:40:52.715008 15945 net.cpp:148] Top shape: 24 96 28 28 (1806336)
I0403 15:40:52.715024 15945 net.cpp:156] Memory required for data: 736986144
I0403 15:40:52.715044 15945 layer_factory.hpp:77] Creating layer inception_3b/relu_5x5
I0403 15:40:52.715064 15945 net.cpp:91] Creating Layer inception_3b/relu_5x5
I0403 15:40:52.715080 15945 net.cpp:425] inception_3b/relu_5x5 <- inception_3b/5x5
I0403 15:40:52.715100 15945 net.cpp:386] inception_3b/relu_5x5 -> inception_3b/5x5 (in-place)
I0403 15:40:52.715291 15945 net.cpp:141] Setting up inception_3b/relu_5x5
I0403 15:40:52.715317 15945 net.cpp:148] Top shape: 24 96 28 28 (1806336)
I0403 15:40:52.715330 15945 net.cpp:156] Memory required for data: 744211488
I0403 15:40:52.715345 15945 layer_factory.hpp:77] Creating layer inception_3b/pool
I0403 15:40:52.715363 15945 net.cpp:91] Creating Layer inception_3b/pool
I0403 15:40:52.715378 15945 net.cpp:425] inception_3b/pool <- inception_3a/output_inception_3a/output_0_split_3
I0403 15:40:52.715396 15945 net.cpp:399] inception_3b/pool -> inception_3b/pool
I0403 15:40:52.715453 15945 net.cpp:141] Setting up inception_3b/pool
I0403 15:40:52.715476 15945 net.cpp:148] Top shape: 24 256 28 28 (4816896)
I0403 15:40:52.715492 15945 net.cpp:156] Memory required for data: 763479072
I0403 15:40:52.715505 15945 layer_factory.hpp:77] Creating layer inception_3b/pool_proj
I0403 15:40:52.715531 15945 net.cpp:91] Creating Layer inception_3b/pool_proj
I0403 15:40:52.715549 15945 net.cpp:425] inception_3b/pool_proj <- inception_3b/pool
I0403 15:40:52.715576 15945 net.cpp:399] inception_3b/pool_proj -> inception_3b/pool_proj
I0403 15:40:52.716671 15945 net.cpp:141] Setting up inception_3b/pool_proj
I0403 15:40:52.716703 15945 net.cpp:148] Top shape: 24 64 28 28 (1204224)
I0403 15:40:52.716720 15945 net.cpp:156] Memory required for data: 768295968
I0403 15:40:52.716739 15945 layer_factory.hpp:77] Creating layer inception_3b/relu_pool_proj
I0403 15:40:52.716758 15945 net.cpp:91] Creating Layer inception_3b/relu_pool_proj
I0403 15:40:52.716774 15945 net.cpp:425] inception_3b/relu_pool_proj <- inception_3b/pool_proj
I0403 15:40:52.716794 15945 net.cpp:386] inception_3b/relu_pool_proj -> inception_3b/pool_proj (in-place)
I0403 15:40:52.717223 15945 net.cpp:141] Setting up inception_3b/relu_pool_proj
I0403 15:40:52.717253 15945 net.cpp:148] Top shape: 24 64 28 28 (1204224)
I0403 15:40:52.717269 15945 net.cpp:156] Memory required for data: 773112864
I0403 15:40:52.717284 15945 layer_factory.hpp:77] Creating layer inception_3b/output
I0403 15:40:52.717303 15945 net.cpp:91] Creating Layer inception_3b/output
I0403 15:40:52.717319 15945 net.cpp:425] inception_3b/output <- inception_3b/1x1
I0403 15:40:52.717335 15945 net.cpp:425] inception_3b/output <- inception_3b/3x3
I0403 15:40:52.717352 15945 net.cpp:425] inception_3b/output <- inception_3b/5x5
I0403 15:40:52.717368 15945 net.cpp:425] inception_3b/output <- inception_3b/pool_proj
I0403 15:40:52.717386 15945 net.cpp:399] inception_3b/output -> inception_3b/output
I0403 15:40:52.717432 15945 net.cpp:141] Setting up inception_3b/output
I0403 15:40:52.717456 15945 net.cpp:148] Top shape: 24 480 28 28 (9031680)
I0403 15:40:52.717471 15945 net.cpp:156] Memory required for data: 809239584
I0403 15:40:52.717485 15945 layer_factory.hpp:77] Creating layer pool3/3x3_s2
I0403 15:40:52.717505 15945 net.cpp:91] Creating Layer pool3/3x3_s2
I0403 15:40:52.717522 15945 net.cpp:425] pool3/3x3_s2 <- inception_3b/output
I0403 15:40:52.717556 15945 net.cpp:399] pool3/3x3_s2 -> pool3/3x3_s2
I0403 15:40:52.717624 15945 net.cpp:141] Setting up pool3/3x3_s2
I0403 15:40:52.717648 15945 net.cpp:148] Top shape: 24 480 14 14 (2257920)
I0403 15:40:52.717664 15945 net.cpp:156] Memory required for data: 818271264
I0403 15:40:52.717679 15945 layer_factory.hpp:77] Creating layer pool3/3x3_s2_pool3/3x3_s2_0_split
I0403 15:40:52.717696 15945 net.cpp:91] Creating Layer pool3/3x3_s2_pool3/3x3_s2_0_split
I0403 15:40:52.717712 15945 net.cpp:425] pool3/3x3_s2_pool3/3x3_s2_0_split <- pool3/3x3_s2
I0403 15:40:52.717732 15945 net.cpp:399] pool3/3x3_s2_pool3/3x3_s2_0_split -> pool3/3x3_s2_pool3/3x3_s2_0_split_0
I0403 15:40:52.717753 15945 net.cpp:399] pool3/3x3_s2_pool3/3x3_s2_0_split -> pool3/3x3_s2_pool3/3x3_s2_0_split_1
I0403 15:40:52.717773 15945 net.cpp:399] pool3/3x3_s2_pool3/3x3_s2_0_split -> pool3/3x3_s2_pool3/3x3_s2_0_split_2
I0403 15:40:52.717793 15945 net.cpp:399] pool3/3x3_s2_pool3/3x3_s2_0_split -> pool3/3x3_s2_pool3/3x3_s2_0_split_3
I0403 15:40:52.717874 15945 net.cpp:141] Setting up pool3/3x3_s2_pool3/3x3_s2_0_split
I0403 15:40:52.717900 15945 net.cpp:148] Top shape: 24 480 14 14 (2257920)
I0403 15:40:52.717917 15945 net.cpp:148] Top shape: 24 480 14 14 (2257920)
I0403 15:40:52.717933 15945 net.cpp:148] Top shape: 24 480 14 14 (2257920)
I0403 15:40:52.717948 15945 net.cpp:148] Top shape: 24 480 14 14 (2257920)
I0403 15:40:52.717962 15945 net.cpp:156] Memory required for data: 854397984
I0403 15:40:52.717978 15945 layer_factory.hpp:77] Creating layer inception_4a/1x1
I0403 15:40:52.718000 15945 net.cpp:91] Creating Layer inception_4a/1x1
I0403 15:40:52.718017 15945 net.cpp:425] inception_4a/1x1 <- pool3/3x3_s2_pool3/3x3_s2_0_split_0
I0403 15:40:52.718037 15945 net.cpp:399] inception_4a/1x1 -> inception_4a/1x1
I0403 15:40:52.719692 15945 net.cpp:141] Setting up inception_4a/1x1
I0403 15:40:52.719724 15945 net.cpp:148] Top shape: 24 192 14 14 (903168)
I0403 15:40:52.719741 15945 net.cpp:156] Memory required for data: 858010656
I0403 15:40:52.719760 15945 layer_factory.hpp:77] Creating layer inception_4a/relu_1x1
I0403 15:40:52.719779 15945 net.cpp:91] Creating Layer inception_4a/relu_1x1
I0403 15:40:52.719795 15945 net.cpp:425] inception_4a/relu_1x1 <- inception_4a/1x1
I0403 15:40:52.719815 15945 net.cpp:386] inception_4a/relu_1x1 -> inception_4a/1x1 (in-place)
I0403 15:40:52.720001 15945 net.cpp:141] Setting up inception_4a/relu_1x1
I0403 15:40:52.720027 15945 net.cpp:148] Top shape: 24 192 14 14 (903168)
I0403 15:40:52.720042 15945 net.cpp:156] Memory required for data: 861623328
I0403 15:40:52.720057 15945 layer_factory.hpp:77] Creating layer inception_4a/3x3_reduce
I0403 15:40:52.720080 15945 net.cpp:91] Creating Layer inception_4a/3x3_reduce
I0403 15:40:52.720098 15945 net.cpp:425] inception_4a/3x3_reduce <- pool3/3x3_s2_pool3/3x3_s2_0_split_1
I0403 15:40:52.720120 15945 net.cpp:399] inception_4a/3x3_reduce -> inception_4a/3x3_reduce
I0403 15:40:52.721448 15945 net.cpp:141] Setting up inception_4a/3x3_reduce
I0403 15:40:52.721477 15945 net.cpp:148] Top shape: 24 96 14 14 (451584)
I0403 15:40:52.721493 15945 net.cpp:156] Memory required for data: 863429664
I0403 15:40:52.721519 15945 layer_factory.hpp:77] Creating layer inception_4a/relu_3x3_reduce
I0403 15:40:52.721539 15945 net.cpp:91] Creating Layer inception_4a/relu_3x3_reduce
I0403 15:40:52.721556 15945 net.cpp:425] inception_4a/relu_3x3_reduce <- inception_4a/3x3_reduce
I0403 15:40:52.721576 15945 net.cpp:386] inception_4a/relu_3x3_reduce -> inception_4a/3x3_reduce (in-place)
I0403 15:40:52.721765 15945 net.cpp:141] Setting up inception_4a/relu_3x3_reduce
I0403 15:40:52.721792 15945 net.cpp:148] Top shape: 24 96 14 14 (451584)
I0403 15:40:52.721807 15945 net.cpp:156] Memory required for data: 865236000
I0403 15:40:52.721822 15945 layer_factory.hpp:77] Creating layer inception_4a/3x3
I0403 15:40:52.721845 15945 net.cpp:91] Creating Layer inception_4a/3x3
I0403 15:40:52.721863 15945 net.cpp:425] inception_4a/3x3 <- inception_4a/3x3_reduce
I0403 15:40:52.721885 15945 net.cpp:399] inception_4a/3x3 -> inception_4a/3x3
I0403 15:40:52.724750 15945 net.cpp:141] Setting up inception_4a/3x3
I0403 15:40:52.724781 15945 net.cpp:148] Top shape: 24 208 14 14 (978432)
I0403 15:40:52.724797 15945 net.cpp:156] Memory required for data: 869149728
I0403 15:40:52.724817 15945 layer_factory.hpp:77] Creating layer inception_4a/relu_3x3
I0403 15:40:52.724840 15945 net.cpp:91] Creating Layer inception_4a/relu_3x3
I0403 15:40:52.724858 15945 net.cpp:425] inception_4a/relu_3x3 <- inception_4a/3x3
I0403 15:40:52.724875 15945 net.cpp:386] inception_4a/relu_3x3 -> inception_4a/3x3 (in-place)
I0403 15:40:52.725169 15945 net.cpp:141] Setting up inception_4a/relu_3x3
I0403 15:40:52.725196 15945 net.cpp:148] Top shape: 24 208 14 14 (978432)
I0403 15:40:52.725211 15945 net.cpp:156] Memory required for data: 873063456
I0403 15:40:52.725226 15945 layer_factory.hpp:77] Creating layer inception_4a/5x5_reduce
I0403 15:40:52.725250 15945 net.cpp:91] Creating Layer inception_4a/5x5_reduce
I0403 15:40:52.725268 15945 net.cpp:425] inception_4a/5x5_reduce <- pool3/3x3_s2_pool3/3x3_s2_0_split_2
I0403 15:40:52.725291 15945 net.cpp:399] inception_4a/5x5_reduce -> inception_4a/5x5_reduce
I0403 15:40:52.726372 15945 net.cpp:141] Setting up inception_4a/5x5_reduce
I0403 15:40:52.726402 15945 net.cpp:148] Top shape: 24 16 14 14 (75264)
I0403 15:40:52.726418 15945 net.cpp:156] Memory required for data: 873364512
I0403 15:40:52.726436 15945 layer_factory.hpp:77] Creating layer inception_4a/relu_5x5_reduce
I0403 15:40:52.726457 15945 net.cpp:91] Creating Layer inception_4a/relu_5x5_reduce
I0403 15:40:52.726475 15945 net.cpp:425] inception_4a/relu_5x5_reduce <- inception_4a/5x5_reduce
I0403 15:40:52.726492 15945 net.cpp:386] inception_4a/relu_5x5_reduce -> inception_4a/5x5_reduce (in-place)
I0403 15:40:52.726687 15945 net.cpp:141] Setting up inception_4a/relu_5x5_reduce
I0403 15:40:52.726716 15945 net.cpp:148] Top shape: 24 16 14 14 (75264)
I0403 15:40:52.726732 15945 net.cpp:156] Memory required for data: 873665568
I0403 15:40:52.726747 15945 layer_factory.hpp:77] Creating layer inception_4a/5x5
I0403 15:40:52.726770 15945 net.cpp:91] Creating Layer inception_4a/5x5
I0403 15:40:52.726788 15945 net.cpp:425] inception_4a/5x5 <- inception_4a/5x5_reduce
I0403 15:40:52.726809 15945 net.cpp:399] inception_4a/5x5 -> inception_4a/5x5
I0403 15:40:52.727944 15945 net.cpp:141] Setting up inception_4a/5x5
I0403 15:40:52.727975 15945 net.cpp:148] Top shape: 24 48 14 14 (225792)
I0403 15:40:52.727993 15945 net.cpp:156] Memory required for data: 874568736
I0403 15:40:52.728011 15945 layer_factory.hpp:77] Creating layer inception_4a/relu_5x5
I0403 15:40:52.728030 15945 net.cpp:91] Creating Layer inception_4a/relu_5x5
I0403 15:40:52.728046 15945 net.cpp:425] inception_4a/relu_5x5 <- inception_4a/5x5
I0403 15:40:52.728065 15945 net.cpp:386] inception_4a/relu_5x5 -> inception_4a/5x5 (in-place)
I0403 15:40:52.728265 15945 net.cpp:141] Setting up inception_4a/relu_5x5
I0403 15:40:52.728291 15945 net.cpp:148] Top shape: 24 48 14 14 (225792)
I0403 15:40:52.728307 15945 net.cpp:156] Memory required for data: 875471904
I0403 15:40:52.728322 15945 layer_factory.hpp:77] Creating layer inception_4a/pool
I0403 15:40:52.728339 15945 net.cpp:91] Creating Layer inception_4a/pool
I0403 15:40:52.728355 15945 net.cpp:425] inception_4a/pool <- pool3/3x3_s2_pool3/3x3_s2_0_split_3
I0403 15:40:52.728376 15945 net.cpp:399] inception_4a/pool -> inception_4a/pool
I0403 15:40:52.728451 15945 net.cpp:141] Setting up inception_4a/pool
I0403 15:40:52.728477 15945 net.cpp:148] Top shape: 24 480 14 14 (2257920)
I0403 15:40:52.728492 15945 net.cpp:156] Memory required for data: 884503584
I0403 15:40:52.728507 15945 layer_factory.hpp:77] Creating layer inception_4a/pool_proj
I0403 15:40:52.728528 15945 net.cpp:91] Creating Layer inception_4a/pool_proj
I0403 15:40:52.728545 15945 net.cpp:425] inception_4a/pool_proj <- inception_4a/pool
I0403 15:40:52.728564 15945 net.cpp:399] inception_4a/pool_proj -> inception_4a/pool_proj
I0403 15:40:52.729756 15945 net.cpp:141] Setting up inception_4a/pool_proj
I0403 15:40:52.729785 15945 net.cpp:148] Top shape: 24 64 14 14 (301056)
I0403 15:40:52.729817 15945 net.cpp:156] Memory required for data: 885707808
I0403 15:40:52.729836 15945 layer_factory.hpp:77] Creating layer inception_4a/relu_pool_proj
I0403 15:40:52.729854 15945 net.cpp:91] Creating Layer inception_4a/relu_pool_proj
I0403 15:40:52.729871 15945 net.cpp:425] inception_4a/relu_pool_proj <- inception_4a/pool_proj
I0403 15:40:52.729892 15945 net.cpp:386] inception_4a/relu_pool_proj -> inception_4a/pool_proj (in-place)
I0403 15:40:52.730180 15945 net.cpp:141] Setting up inception_4a/relu_pool_proj
I0403 15:40:52.730206 15945 net.cpp:148] Top shape: 24 64 14 14 (301056)
I0403 15:40:52.730221 15945 net.cpp:156] Memory required for data: 886912032
I0403 15:40:52.730235 15945 layer_factory.hpp:77] Creating layer inception_4a/output
I0403 15:40:52.730253 15945 net.cpp:91] Creating Layer inception_4a/output
I0403 15:40:52.730269 15945 net.cpp:425] inception_4a/output <- inception_4a/1x1
I0403 15:40:52.730285 15945 net.cpp:425] inception_4a/output <- inception_4a/3x3
I0403 15:40:52.730301 15945 net.cpp:425] inception_4a/output <- inception_4a/5x5
I0403 15:40:52.730317 15945 net.cpp:425] inception_4a/output <- inception_4a/pool_proj
I0403 15:40:52.730336 15945 net.cpp:399] inception_4a/output -> inception_4a/output
I0403 15:40:52.730383 15945 net.cpp:141] Setting up inception_4a/output
I0403 15:40:52.730409 15945 net.cpp:148] Top shape: 24 512 14 14 (2408448)
I0403 15:40:52.730424 15945 net.cpp:156] Memory required for data: 896545824
I0403 15:40:52.730439 15945 layer_factory.hpp:77] Creating layer inception_4a/output_inception_4a/output_0_split
I0403 15:40:52.730456 15945 net.cpp:91] Creating Layer inception_4a/output_inception_4a/output_0_split
I0403 15:40:52.730471 15945 net.cpp:425] inception_4a/output_inception_4a/output_0_split <- inception_4a/output
I0403 15:40:52.730489 15945 net.cpp:399] inception_4a/output_inception_4a/output_0_split -> inception_4a/output_inception_4a/output_0_split_0
I0403 15:40:52.730509 15945 net.cpp:399] inception_4a/output_inception_4a/output_0_split -> inception_4a/output_inception_4a/output_0_split_1
I0403 15:40:52.730532 15945 net.cpp:399] inception_4a/output_inception_4a/output_0_split -> inception_4a/output_inception_4a/output_0_split_2
I0403 15:40:52.730554 15945 net.cpp:399] inception_4a/output_inception_4a/output_0_split -> inception_4a/output_inception_4a/output_0_split_3
I0403 15:40:52.730573 15945 net.cpp:399] inception_4a/output_inception_4a/output_0_split -> inception_4a/output_inception_4a/output_0_split_4
I0403 15:40:52.730670 15945 net.cpp:141] Setting up inception_4a/output_inception_4a/output_0_split
I0403 15:40:52.730695 15945 net.cpp:148] Top shape: 24 512 14 14 (2408448)
I0403 15:40:52.730710 15945 net.cpp:148] Top shape: 24 512 14 14 (2408448)
I0403 15:40:52.730726 15945 net.cpp:148] Top shape: 24 512 14 14 (2408448)
I0403 15:40:52.730741 15945 net.cpp:148] Top shape: 24 512 14 14 (2408448)
I0403 15:40:52.730756 15945 net.cpp:148] Top shape: 24 512 14 14 (2408448)
I0403 15:40:52.730769 15945 net.cpp:156] Memory required for data: 944714784
I0403 15:40:52.730783 15945 layer_factory.hpp:77] Creating layer loss1/ave_pool
I0403 15:40:52.730803 15945 net.cpp:91] Creating Layer loss1/ave_pool
I0403 15:40:52.730819 15945 net.cpp:425] loss1/ave_pool <- inception_4a/output_inception_4a/output_0_split_0
I0403 15:40:52.730837 15945 net.cpp:399] loss1/ave_pool -> loss1/ave_pool
I0403 15:40:52.731053 15945 net.cpp:141] Setting up loss1/ave_pool
I0403 15:40:52.731079 15945 net.cpp:148] Top shape: 24 512 4 4 (196608)
I0403 15:40:52.731094 15945 net.cpp:156] Memory required for data: 945501216
I0403 15:40:52.731108 15945 layer_factory.hpp:77] Creating layer loss1/conv
I0403 15:40:52.731130 15945 net.cpp:91] Creating Layer loss1/conv
I0403 15:40:52.731148 15945 net.cpp:425] loss1/conv <- loss1/ave_pool
I0403 15:40:52.731168 15945 net.cpp:399] loss1/conv -> loss1/conv
I0403 15:40:52.732606 15945 net.cpp:141] Setting up loss1/conv
I0403 15:40:52.732635 15945 net.cpp:148] Top shape: 24 128 4 4 (49152)
I0403 15:40:52.732664 15945 net.cpp:156] Memory required for data: 945697824
I0403 15:40:52.732684 15945 layer_factory.hpp:77] Creating layer loss1/relu_conv
I0403 15:40:52.732705 15945 net.cpp:91] Creating Layer loss1/relu_conv
I0403 15:40:52.732722 15945 net.cpp:425] loss1/relu_conv <- loss1/conv
I0403 15:40:52.732738 15945 net.cpp:386] loss1/relu_conv -> loss1/conv (in-place)
I0403 15:40:52.733023 15945 net.cpp:141] Setting up loss1/relu_conv
I0403 15:40:52.733049 15945 net.cpp:148] Top shape: 24 128 4 4 (49152)
I0403 15:40:52.733065 15945 net.cpp:156] Memory required for data: 945894432
I0403 15:40:52.733080 15945 layer_factory.hpp:77] Creating layer loss1/fc
I0403 15:40:52.733106 15945 net.cpp:91] Creating Layer loss1/fc
I0403 15:40:52.733125 15945 net.cpp:425] loss1/fc <- loss1/conv
I0403 15:40:52.733144 15945 net.cpp:399] loss1/fc -> loss1/fc
I0403 15:40:52.751441 15945 net.cpp:141] Setting up loss1/fc
I0403 15:40:52.751492 15945 net.cpp:148] Top shape: 24 1024 (24576)
I0403 15:40:52.751507 15945 net.cpp:156] Memory required for data: 945992736
I0403 15:40:52.751526 15945 layer_factory.hpp:77] Creating layer loss1/relu_fc
I0403 15:40:52.751546 15945 net.cpp:91] Creating Layer loss1/relu_fc
I0403 15:40:52.751564 15945 net.cpp:425] loss1/relu_fc <- loss1/fc
I0403 15:40:52.751585 15945 net.cpp:386] loss1/relu_fc -> loss1/fc (in-place)
I0403 15:40:52.751806 15945 net.cpp:141] Setting up loss1/relu_fc
I0403 15:40:52.751830 15945 net.cpp:148] Top shape: 24 1024 (24576)
I0403 15:40:52.751845 15945 net.cpp:156] Memory required for data: 946091040
I0403 15:40:52.751860 15945 layer_factory.hpp:77] Creating layer loss1/drop_fc
I0403 15:40:52.751889 15945 net.cpp:91] Creating Layer loss1/drop_fc
I0403 15:40:52.751906 15945 net.cpp:425] loss1/drop_fc <- loss1/fc
I0403 15:40:52.751924 15945 net.cpp:386] loss1/drop_fc -> loss1/fc (in-place)
I0403 15:40:52.751976 15945 net.cpp:141] Setting up loss1/drop_fc
I0403 15:40:52.752004 15945 net.cpp:148] Top shape: 24 1024 (24576)
I0403 15:40:52.752019 15945 net.cpp:156] Memory required for data: 946189344
I0403 15:40:52.752034 15945 layer_factory.hpp:77] Creating layer loss1/classifier_plantvillage
I0403 15:40:52.752053 15945 net.cpp:91] Creating Layer loss1/classifier_plantvillage
I0403 15:40:52.752069 15945 net.cpp:425] loss1/classifier_plantvillage <- loss1/fc
I0403 15:40:52.752089 15945 net.cpp:399] loss1/classifier_plantvillage -> loss1/classifier_plantvillage
I0403 15:40:52.753051 15945 net.cpp:141] Setting up loss1/classifier_plantvillage
I0403 15:40:52.753079 15945 net.cpp:148] Top shape: 24 38 (912)
I0403 15:40:52.753094 15945 net.cpp:156] Memory required for data: 946192992
I0403 15:40:52.753113 15945 layer_factory.hpp:77] Creating layer loss1/classifier_plantvillage_loss1/classifier_plantvillage_0_split
I0403 15:40:52.753132 15945 net.cpp:91] Creating Layer loss1/classifier_plantvillage_loss1/classifier_plantvillage_0_split
I0403 15:40:52.753150 15945 net.cpp:425] loss1/classifier_plantvillage_loss1/classifier_plantvillage_0_split <- loss1/classifier_plantvillage
I0403 15:40:52.753168 15945 net.cpp:399] loss1/classifier_plantvillage_loss1/classifier_plantvillage_0_split -> loss1/classifier_plantvillage_loss1/classifier_plantvillage_0_split_0
I0403 15:40:52.753188 15945 net.cpp:399] loss1/classifier_plantvillage_loss1/classifier_plantvillage_0_split -> loss1/classifier_plantvillage_loss1/classifier_plantvillage_0_split_1
I0403 15:40:52.753208 15945 net.cpp:399] loss1/classifier_plantvillage_loss1/classifier_plantvillage_0_split -> loss1/classifier_plantvillage_loss1/classifier_plantvillage_0_split_2
I0403 15:40:52.753275 15945 net.cpp:141] Setting up loss1/classifier_plantvillage_loss1/classifier_plantvillage_0_split
I0403 15:40:52.753300 15945 net.cpp:148] Top shape: 24 38 (912)
I0403 15:40:52.753317 15945 net.cpp:148] Top shape: 24 38 (912)
I0403 15:40:52.753332 15945 net.cpp:148] Top shape: 24 38 (912)
I0403 15:40:52.753346 15945 net.cpp:156] Memory required for data: 946203936
I0403 15:40:52.753360 15945 layer_factory.hpp:77] Creating layer inception_4b/1x1
I0403 15:40:52.753381 15945 net.cpp:91] Creating Layer inception_4b/1x1
I0403 15:40:52.753422 15945 net.cpp:425] inception_4b/1x1 <- inception_4a/output_inception_4a/output_0_split_1
I0403 15:40:52.753443 15945 net.cpp:399] inception_4b/1x1 -> inception_4b/1x1
I0403 15:40:52.755170 15945 net.cpp:141] Setting up inception_4b/1x1
I0403 15:40:52.755199 15945 net.cpp:148] Top shape: 24 160 14 14 (752640)
I0403 15:40:52.755214 15945 net.cpp:156] Memory required for data: 949214496
I0403 15:40:52.755233 15945 layer_factory.hpp:77] Creating layer inception_4b/relu_1x1
I0403 15:40:52.755254 15945 net.cpp:91] Creating Layer inception_4b/relu_1x1
I0403 15:40:52.755270 15945 net.cpp:425] inception_4b/relu_1x1 <- inception_4b/1x1
I0403 15:40:52.755290 15945 net.cpp:386] inception_4b/relu_1x1 -> inception_4b/1x1 (in-place)
I0403 15:40:52.755475 15945 net.cpp:141] Setting up inception_4b/relu_1x1
I0403 15:40:52.755503 15945 net.cpp:148] Top shape: 24 160 14 14 (752640)
I0403 15:40:52.755518 15945 net.cpp:156] Memory required for data: 952225056
I0403 15:40:52.755533 15945 layer_factory.hpp:77] Creating layer inception_4b/3x3_reduce
I0403 15:40:52.755555 15945 net.cpp:91] Creating Layer inception_4b/3x3_reduce
I0403 15:40:52.755573 15945 net.cpp:425] inception_4b/3x3_reduce <- inception_4a/output_inception_4a/output_0_split_2
I0403 15:40:52.755591 15945 net.cpp:399] inception_4b/3x3_reduce -> inception_4b/3x3_reduce
I0403 15:40:52.757016 15945 net.cpp:141] Setting up inception_4b/3x3_reduce
I0403 15:40:52.757045 15945 net.cpp:148] Top shape: 24 112 14 14 (526848)
I0403 15:40:52.757061 15945 net.cpp:156] Memory required for data: 954332448
I0403 15:40:52.757081 15945 layer_factory.hpp:77] Creating layer inception_4b/relu_3x3_reduce
I0403 15:40:52.757103 15945 net.cpp:91] Creating Layer inception_4b/relu_3x3_reduce
I0403 15:40:52.757120 15945 net.cpp:425] inception_4b/relu_3x3_reduce <- inception_4b/3x3_reduce
I0403 15:40:52.757138 15945 net.cpp:386] inception_4b/relu_3x3_reduce -> inception_4b/3x3_reduce (in-place)
I0403 15:40:52.757442 15945 net.cpp:141] Setting up inception_4b/relu_3x3_reduce
I0403 15:40:52.757470 15945 net.cpp:148] Top shape: 24 112 14 14 (526848)
I0403 15:40:52.757485 15945 net.cpp:156] Memory required for data: 956439840
I0403 15:40:52.757499 15945 layer_factory.hpp:77] Creating layer inception_4b/3x3
I0403 15:40:52.757524 15945 net.cpp:91] Creating Layer inception_4b/3x3
I0403 15:40:52.757542 15945 net.cpp:425] inception_4b/3x3 <- inception_4b/3x3_reduce
I0403 15:40:52.757561 15945 net.cpp:399] inception_4b/3x3 -> inception_4b/3x3
I0403 15:40:52.760710 15945 net.cpp:141] Setting up inception_4b/3x3
I0403 15:40:52.760738 15945 net.cpp:148] Top shape: 24 224 14 14 (1053696)
I0403 15:40:52.760754 15945 net.cpp:156] Memory required for data: 960654624
I0403 15:40:52.760773 15945 layer_factory.hpp:77] Creating layer inception_4b/relu_3x3
I0403 15:40:52.760792 15945 net.cpp:91] Creating Layer inception_4b/relu_3x3
I0403 15:40:52.760807 15945 net.cpp:425] inception_4b/relu_3x3 <- inception_4b/3x3
I0403 15:40:52.760826 15945 net.cpp:386] inception_4b/relu_3x3 -> inception_4b/3x3 (in-place)
I0403 15:40:52.761009 15945 net.cpp:141] Setting up inception_4b/relu_3x3
I0403 15:40:52.761035 15945 net.cpp:148] Top shape: 24 224 14 14 (1053696)
I0403 15:40:52.761050 15945 net.cpp:156] Memory required for data: 964869408
I0403 15:40:52.761065 15945 layer_factory.hpp:77] Creating layer inception_4b/5x5_reduce
I0403 15:40:52.761086 15945 net.cpp:91] Creating Layer inception_4b/5x5_reduce
I0403 15:40:52.761104 15945 net.cpp:425] inception_4b/5x5_reduce <- inception_4a/output_inception_4a/output_0_split_3
I0403 15:40:52.761126 15945 net.cpp:399] inception_4b/5x5_reduce -> inception_4b/5x5_reduce
I0403 15:40:52.762229 15945 net.cpp:141] Setting up inception_4b/5x5_reduce
I0403 15:40:52.762258 15945 net.cpp:148] Top shape: 24 24 14 14 (112896)
I0403 15:40:52.762274 15945 net.cpp:156] Memory required for data: 965320992
I0403 15:40:52.762291 15945 layer_factory.hpp:77] Creating layer inception_4b/relu_5x5_reduce
I0403 15:40:52.762311 15945 net.cpp:91] Creating Layer inception_4b/relu_5x5_reduce
I0403 15:40:52.762343 15945 net.cpp:425] inception_4b/relu_5x5_reduce <- inception_4b/5x5_reduce
I0403 15:40:52.762362 15945 net.cpp:386] inception_4b/relu_5x5_reduce -> inception_4b/5x5_reduce (in-place)
I0403 15:40:52.762545 15945 net.cpp:141] Setting up inception_4b/relu_5x5_reduce
I0403 15:40:52.762573 15945 net.cpp:148] Top shape: 24 24 14 14 (112896)
I0403 15:40:52.762586 15945 net.cpp:156] Memory required for data: 965772576
I0403 15:40:52.762604 15945 layer_factory.hpp:77] Creating layer inception_4b/5x5
I0403 15:40:52.762629 15945 net.cpp:91] Creating Layer inception_4b/5x5
I0403 15:40:52.762646 15945 net.cpp:425] inception_4b/5x5 <- inception_4b/5x5_reduce
I0403 15:40:52.762667 15945 net.cpp:399] inception_4b/5x5 -> inception_4b/5x5
I0403 15:40:52.764003 15945 net.cpp:141] Setting up inception_4b/5x5
I0403 15:40:52.764031 15945 net.cpp:148] Top shape: 24 64 14 14 (301056)
I0403 15:40:52.764046 15945 net.cpp:156] Memory required for data: 966976800
I0403 15:40:52.764065 15945 layer_factory.hpp:77] Creating layer inception_4b/relu_5x5
I0403 15:40:52.764084 15945 net.cpp:91] Creating Layer inception_4b/relu_5x5
I0403 15:40:52.764101 15945 net.cpp:425] inception_4b/relu_5x5 <- inception_4b/5x5
I0403 15:40:52.764119 15945 net.cpp:386] inception_4b/relu_5x5 -> inception_4b/5x5 (in-place)
I0403 15:40:52.764417 15945 net.cpp:141] Setting up inception_4b/relu_5x5
I0403 15:40:52.764444 15945 net.cpp:148] Top shape: 24 64 14 14 (301056)
I0403 15:40:52.764459 15945 net.cpp:156] Memory required for data: 968181024
I0403 15:40:52.764473 15945 layer_factory.hpp:77] Creating layer inception_4b/pool
I0403 15:40:52.764494 15945 net.cpp:91] Creating Layer inception_4b/pool
I0403 15:40:52.764511 15945 net.cpp:425] inception_4b/pool <- inception_4a/output_inception_4a/output_0_split_4
I0403 15:40:52.764530 15945 net.cpp:399] inception_4b/pool -> inception_4b/pool
I0403 15:40:52.764607 15945 net.cpp:141] Setting up inception_4b/pool
I0403 15:40:52.764632 15945 net.cpp:148] Top shape: 24 512 14 14 (2408448)
I0403 15:40:52.764647 15945 net.cpp:156] Memory required for data: 977814816
I0403 15:40:52.764662 15945 layer_factory.hpp:77] Creating layer inception_4b/pool_proj
I0403 15:40:52.764685 15945 net.cpp:91] Creating Layer inception_4b/pool_proj
I0403 15:40:52.764703 15945 net.cpp:425] inception_4b/pool_proj <- inception_4b/pool
I0403 15:40:52.764724 15945 net.cpp:399] inception_4b/pool_proj -> inception_4b/pool_proj
I0403 15:40:52.765956 15945 net.cpp:141] Setting up inception_4b/pool_proj
I0403 15:40:52.765985 15945 net.cpp:148] Top shape: 24 64 14 14 (301056)
I0403 15:40:52.766000 15945 net.cpp:156] Memory required for data: 979019040
I0403 15:40:52.766017 15945 layer_factory.hpp:77] Creating layer inception_4b/relu_pool_proj
I0403 15:40:52.766039 15945 net.cpp:91] Creating Layer inception_4b/relu_pool_proj
I0403 15:40:52.766057 15945 net.cpp:425] inception_4b/relu_pool_proj <- inception_4b/pool_proj
I0403 15:40:52.766074 15945 net.cpp:386] inception_4b/relu_pool_proj -> inception_4b/pool_proj (in-place)
I0403 15:40:52.766259 15945 net.cpp:141] Setting up inception_4b/relu_pool_proj
I0403 15:40:52.766288 15945 net.cpp:148] Top shape: 24 64 14 14 (301056)
I0403 15:40:52.766302 15945 net.cpp:156] Memory required for data: 980223264
I0403 15:40:52.766317 15945 layer_factory.hpp:77] Creating layer inception_4b/output
I0403 15:40:52.766335 15945 net.cpp:91] Creating Layer inception_4b/output
I0403 15:40:52.766350 15945 net.cpp:425] inception_4b/output <- inception_4b/1x1
I0403 15:40:52.766366 15945 net.cpp:425] inception_4b/output <- inception_4b/3x3
I0403 15:40:52.766381 15945 net.cpp:425] inception_4b/output <- inception_4b/5x5
I0403 15:40:52.766397 15945 net.cpp:425] inception_4b/output <- inception_4b/pool_proj
I0403 15:40:52.766417 15945 net.cpp:399] inception_4b/output -> inception_4b/output
I0403 15:40:52.766463 15945 net.cpp:141] Setting up inception_4b/output
I0403 15:40:52.766486 15945 net.cpp:148] Top shape: 24 512 14 14 (2408448)
I0403 15:40:52.766500 15945 net.cpp:156] Memory required for data: 989857056
I0403 15:40:52.766530 15945 layer_factory.hpp:77] Creating layer inception_4b/output_inception_4b/output_0_split
I0403 15:40:52.766551 15945 net.cpp:91] Creating Layer inception_4b/output_inception_4b/output_0_split
I0403 15:40:52.766566 15945 net.cpp:425] inception_4b/output_inception_4b/output_0_split <- inception_4b/output
I0403 15:40:52.766584 15945 net.cpp:399] inception_4b/output_inception_4b/output_0_split -> inception_4b/output_inception_4b/output_0_split_0
I0403 15:40:52.766607 15945 net.cpp:399] inception_4b/output_inception_4b/output_0_split -> inception_4b/output_inception_4b/output_0_split_1
I0403 15:40:52.766631 15945 net.cpp:399] inception_4b/output_inception_4b/output_0_split -> inception_4b/output_inception_4b/output_0_split_2
I0403 15:40:52.766654 15945 net.cpp:399] inception_4b/output_inception_4b/output_0_split -> inception_4b/output_inception_4b/output_0_split_3
I0403 15:40:52.766737 15945 net.cpp:141] Setting up inception_4b/output_inception_4b/output_0_split
I0403 15:40:52.766762 15945 net.cpp:148] Top shape: 24 512 14 14 (2408448)
I0403 15:40:52.766777 15945 net.cpp:148] Top shape: 24 512 14 14 (2408448)
I0403 15:40:52.766793 15945 net.cpp:148] Top shape: 24 512 14 14 (2408448)
I0403 15:40:52.766808 15945 net.cpp:148] Top shape: 24 512 14 14 (2408448)
I0403 15:40:52.766821 15945 net.cpp:156] Memory required for data: 1028392224
I0403 15:40:52.766835 15945 layer_factory.hpp:77] Creating layer inception_4c/1x1
I0403 15:40:52.766857 15945 net.cpp:91] Creating Layer inception_4c/1x1
I0403 15:40:52.766875 15945 net.cpp:425] inception_4c/1x1 <- inception_4b/output_inception_4b/output_0_split_0
I0403 15:40:52.766896 15945 net.cpp:399] inception_4c/1x1 -> inception_4c/1x1
I0403 15:40:52.768385 15945 net.cpp:141] Setting up inception_4c/1x1
I0403 15:40:52.768419 15945 net.cpp:148] Top shape: 24 128 14 14 (602112)
I0403 15:40:52.768435 15945 net.cpp:156] Memory required for data: 1030800672
I0403 15:40:52.768455 15945 layer_factory.hpp:77] Creating layer inception_4c/relu_1x1
I0403 15:40:52.768473 15945 net.cpp:91] Creating Layer inception_4c/relu_1x1
I0403 15:40:52.768491 15945 net.cpp:425] inception_4c/relu_1x1 <- inception_4c/1x1
I0403 15:40:52.768509 15945 net.cpp:386] inception_4c/relu_1x1 -> inception_4c/1x1 (in-place)
I0403 15:40:52.768703 15945 net.cpp:141] Setting up inception_4c/relu_1x1
I0403 15:40:52.768730 15945 net.cpp:148] Top shape: 24 128 14 14 (602112)
I0403 15:40:52.768744 15945 net.cpp:156] Memory required for data: 1033209120
I0403 15:40:52.768760 15945 layer_factory.hpp:77] Creating layer inception_4c/3x3_reduce
I0403 15:40:52.768782 15945 net.cpp:91] Creating Layer inception_4c/3x3_reduce
I0403 15:40:52.768800 15945 net.cpp:425] inception_4c/3x3_reduce <- inception_4b/output_inception_4b/output_0_split_1
I0403 15:40:52.768823 15945 net.cpp:399] inception_4c/3x3_reduce -> inception_4c/3x3_reduce
I0403 15:40:52.770876 15945 net.cpp:141] Setting up inception_4c/3x3_reduce
I0403 15:40:52.770906 15945 net.cpp:148] Top shape: 24 128 14 14 (602112)
I0403 15:40:52.770922 15945 net.cpp:156] Memory required for data: 1035617568
I0403 15:40:52.770941 15945 layer_factory.hpp:77] Creating layer inception_4c/relu_3x3_reduce
I0403 15:40:52.770964 15945 net.cpp:91] Creating Layer inception_4c/relu_3x3_reduce
I0403 15:40:52.770982 15945 net.cpp:425] inception_4c/relu_3x3_reduce <- inception_4c/3x3_reduce
I0403 15:40:52.770999 15945 net.cpp:386] inception_4c/relu_3x3_reduce -> inception_4c/3x3_reduce (in-place)
I0403 15:40:52.771296 15945 net.cpp:141] Setting up inception_4c/relu_3x3_reduce
I0403 15:40:52.771322 15945 net.cpp:148] Top shape: 24 128 14 14 (602112)
I0403 15:40:52.771337 15945 net.cpp:156] Memory required for data: 1038026016
I0403 15:40:52.771353 15945 layer_factory.hpp:77] Creating layer inception_4c/3x3
I0403 15:40:52.771374 15945 net.cpp:91] Creating Layer inception_4c/3x3
I0403 15:40:52.771391 15945 net.cpp:425] inception_4c/3x3 <- inception_4c/3x3_reduce
I0403 15:40:52.771414 15945 net.cpp:399] inception_4c/3x3 -> inception_4c/3x3
I0403 15:40:52.775156 15945 net.cpp:141] Setting up inception_4c/3x3
I0403 15:40:52.775200 15945 net.cpp:148] Top shape: 24 256 14 14 (1204224)
I0403 15:40:52.775218 15945 net.cpp:156] Memory required for data: 1042842912
I0403 15:40:52.775250 15945 layer_factory.hpp:77] Creating layer inception_4c/relu_3x3
I0403 15:40:52.775274 15945 net.cpp:91] Creating Layer inception_4c/relu_3x3
I0403 15:40:52.775290 15945 net.cpp:425] inception_4c/relu_3x3 <- inception_4c/3x3
I0403 15:40:52.775307 15945 net.cpp:386] inception_4c/relu_3x3 -> inception_4c/3x3 (in-place)
I0403 15:40:52.775496 15945 net.cpp:141] Setting up inception_4c/relu_3x3
I0403 15:40:52.775521 15945 net.cpp:148] Top shape: 24 256 14 14 (1204224)
I0403 15:40:52.775537 15945 net.cpp:156] Memory required for data: 1047659808
I0403 15:40:52.775552 15945 layer_factory.hpp:77] Creating layer inception_4c/5x5_reduce
I0403 15:40:52.775589 15945 net.cpp:91] Creating Layer inception_4c/5x5_reduce
I0403 15:40:52.775612 15945 net.cpp:425] inception_4c/5x5_reduce <- inception_4b/output_inception_4b/output_0_split_2
I0403 15:40:52.775634 15945 net.cpp:399] inception_4c/5x5_reduce -> inception_4c/5x5_reduce
I0403 15:40:52.776772 15945 net.cpp:141] Setting up inception_4c/5x5_reduce
I0403 15:40:52.776799 15945 net.cpp:148] Top shape: 24 24 14 14 (112896)
I0403 15:40:52.776815 15945 net.cpp:156] Memory required for data: 1048111392
I0403 15:40:52.776834 15945 layer_factory.hpp:77] Creating layer inception_4c/relu_5x5_reduce
I0403 15:40:52.776854 15945 net.cpp:91] Creating Layer inception_4c/relu_5x5_reduce
I0403 15:40:52.776871 15945 net.cpp:425] inception_4c/relu_5x5_reduce <- inception_4c/5x5_reduce
I0403 15:40:52.776888 15945 net.cpp:386] inception_4c/relu_5x5_reduce -> inception_4c/5x5_reduce (in-place)
I0403 15:40:52.777081 15945 net.cpp:141] Setting up inception_4c/relu_5x5_reduce
I0403 15:40:52.777108 15945 net.cpp:148] Top shape: 24 24 14 14 (112896)
I0403 15:40:52.777123 15945 net.cpp:156] Memory required for data: 1048562976
I0403 15:40:52.777138 15945 layer_factory.hpp:77] Creating layer inception_4c/5x5
I0403 15:40:52.777160 15945 net.cpp:91] Creating Layer inception_4c/5x5
I0403 15:40:52.777179 15945 net.cpp:425] inception_4c/5x5 <- inception_4c/5x5_reduce
I0403 15:40:52.777197 15945 net.cpp:399] inception_4c/5x5 -> inception_4c/5x5
I0403 15:40:52.778467 15945 net.cpp:141] Setting up inception_4c/5x5
I0403 15:40:52.778497 15945 net.cpp:148] Top shape: 24 64 14 14 (301056)
I0403 15:40:52.778512 15945 net.cpp:156] Memory required for data: 1049767200
I0403 15:40:52.778530 15945 layer_factory.hpp:77] Creating layer inception_4c/relu_5x5
I0403 15:40:52.778548 15945 net.cpp:91] Creating Layer inception_4c/relu_5x5
I0403 15:40:52.778564 15945 net.cpp:425] inception_4c/relu_5x5 <- inception_4c/5x5
I0403 15:40:52.778584 15945 net.cpp:386] inception_4c/relu_5x5 -> inception_4c/5x5 (in-place)
I0403 15:40:52.778872 15945 net.cpp:141] Setting up inception_4c/relu_5x5
I0403 15:40:52.778903 15945 net.cpp:148] Top shape: 24 64 14 14 (301056)
I0403 15:40:52.778918 15945 net.cpp:156] Memory required for data: 1050971424
I0403 15:40:52.778934 15945 layer_factory.hpp:77] Creating layer inception_4c/pool
I0403 15:40:52.778950 15945 net.cpp:91] Creating Layer inception_4c/pool
I0403 15:40:52.778966 15945 net.cpp:425] inception_4c/pool <- inception_4b/output_inception_4b/output_0_split_3
I0403 15:40:52.778985 15945 net.cpp:399] inception_4c/pool -> inception_4c/pool
I0403 15:40:52.779050 15945 net.cpp:141] Setting up inception_4c/pool
I0403 15:40:52.779073 15945 net.cpp:148] Top shape: 24 512 14 14 (2408448)
I0403 15:40:52.779088 15945 net.cpp:156] Memory required for data: 1060605216
I0403 15:40:52.779101 15945 layer_factory.hpp:77] Creating layer inception_4c/pool_proj
I0403 15:40:52.779122 15945 net.cpp:91] Creating Layer inception_4c/pool_proj
I0403 15:40:52.779139 15945 net.cpp:425] inception_4c/pool_proj <- inception_4c/pool
I0403 15:40:52.779160 15945 net.cpp:399] inception_4c/pool_proj -> inception_4c/pool_proj
I0403 15:40:52.780375 15945 net.cpp:141] Setting up inception_4c/pool_proj
I0403 15:40:52.780401 15945 net.cpp:148] Top shape: 24 64 14 14 (301056)
I0403 15:40:52.780431 15945 net.cpp:156] Memory required for data: 1061809440
I0403 15:40:52.780450 15945 layer_factory.hpp:77] Creating layer inception_4c/relu_pool_proj
I0403 15:40:52.780472 15945 net.cpp:91] Creating Layer inception_4c/relu_pool_proj
I0403 15:40:52.780488 15945 net.cpp:425] inception_4c/relu_pool_proj <- inception_4c/pool_proj
I0403 15:40:52.780505 15945 net.cpp:386] inception_4c/relu_pool_proj -> inception_4c/pool_proj (in-place)
I0403 15:40:52.780692 15945 net.cpp:141] Setting up inception_4c/relu_pool_proj
I0403 15:40:52.780719 15945 net.cpp:148] Top shape: 24 64 14 14 (301056)
I0403 15:40:52.780735 15945 net.cpp:156] Memory required for data: 1063013664
I0403 15:40:52.780750 15945 layer_factory.hpp:77] Creating layer inception_4c/output
I0403 15:40:52.780766 15945 net.cpp:91] Creating Layer inception_4c/output
I0403 15:40:52.780781 15945 net.cpp:425] inception_4c/output <- inception_4c/1x1
I0403 15:40:52.780797 15945 net.cpp:425] inception_4c/output <- inception_4c/3x3
I0403 15:40:52.780812 15945 net.cpp:425] inception_4c/output <- inception_4c/5x5
I0403 15:40:52.780828 15945 net.cpp:425] inception_4c/output <- inception_4c/pool_proj
I0403 15:40:52.780846 15945 net.cpp:399] inception_4c/output -> inception_4c/output
I0403 15:40:52.780892 15945 net.cpp:141] Setting up inception_4c/output
I0403 15:40:52.780915 15945 net.cpp:148] Top shape: 24 512 14 14 (2408448)
I0403 15:40:52.780930 15945 net.cpp:156] Memory required for data: 1072647456
I0403 15:40:52.780942 15945 layer_factory.hpp:77] Creating layer inception_4c/output_inception_4c/output_0_split
I0403 15:40:52.780961 15945 net.cpp:91] Creating Layer inception_4c/output_inception_4c/output_0_split
I0403 15:40:52.780977 15945 net.cpp:425] inception_4c/output_inception_4c/output_0_split <- inception_4c/output
I0403 15:40:52.780993 15945 net.cpp:399] inception_4c/output_inception_4c/output_0_split -> inception_4c/output_inception_4c/output_0_split_0
I0403 15:40:52.781013 15945 net.cpp:399] inception_4c/output_inception_4c/output_0_split -> inception_4c/output_inception_4c/output_0_split_1
I0403 15:40:52.781033 15945 net.cpp:399] inception_4c/output_inception_4c/output_0_split -> inception_4c/output_inception_4c/output_0_split_2
I0403 15:40:52.781055 15945 net.cpp:399] inception_4c/output_inception_4c/output_0_split -> inception_4c/output_inception_4c/output_0_split_3
I0403 15:40:52.781141 15945 net.cpp:141] Setting up inception_4c/output_inception_4c/output_0_split
I0403 15:40:52.781164 15945 net.cpp:148] Top shape: 24 512 14 14 (2408448)
I0403 15:40:52.781179 15945 net.cpp:148] Top shape: 24 512 14 14 (2408448)
I0403 15:40:52.781194 15945 net.cpp:148] Top shape: 24 512 14 14 (2408448)
I0403 15:40:52.781209 15945 net.cpp:148] Top shape: 24 512 14 14 (2408448)
I0403 15:40:52.781222 15945 net.cpp:156] Memory required for data: 1111182624
I0403 15:40:52.781236 15945 layer_factory.hpp:77] Creating layer inception_4d/1x1
I0403 15:40:52.781257 15945 net.cpp:91] Creating Layer inception_4d/1x1
I0403 15:40:52.781275 15945 net.cpp:425] inception_4d/1x1 <- inception_4c/output_inception_4c/output_0_split_0
I0403 15:40:52.781294 15945 net.cpp:399] inception_4d/1x1 -> inception_4d/1x1
I0403 15:40:52.782680 15945 net.cpp:141] Setting up inception_4d/1x1
I0403 15:40:52.782707 15945 net.cpp:148] Top shape: 24 112 14 14 (526848)
I0403 15:40:52.782722 15945 net.cpp:156] Memory required for data: 1113290016
I0403 15:40:52.782740 15945 layer_factory.hpp:77] Creating layer inception_4d/relu_1x1
I0403 15:40:52.782759 15945 net.cpp:91] Creating Layer inception_4d/relu_1x1
I0403 15:40:52.782775 15945 net.cpp:425] inception_4d/relu_1x1 <- inception_4d/1x1
I0403 15:40:52.782793 15945 net.cpp:386] inception_4d/relu_1x1 -> inception_4d/1x1 (in-place)
I0403 15:40:52.782977 15945 net.cpp:141] Setting up inception_4d/relu_1x1
I0403 15:40:52.783001 15945 net.cpp:148] Top shape: 24 112 14 14 (526848)
I0403 15:40:52.783016 15945 net.cpp:156] Memory required for data: 1115397408
I0403 15:40:52.783030 15945 layer_factory.hpp:77] Creating layer inception_4d/3x3_reduce
I0403 15:40:52.783066 15945 net.cpp:91] Creating Layer inception_4d/3x3_reduce
I0403 15:40:52.783084 15945 net.cpp:425] inception_4d/3x3_reduce <- inception_4c/output_inception_4c/output_0_split_1
I0403 15:40:52.783105 15945 net.cpp:399] inception_4d/3x3_reduce -> inception_4d/3x3_reduce
I0403 15:40:52.784621 15945 net.cpp:141] Setting up inception_4d/3x3_reduce
I0403 15:40:52.784648 15945 net.cpp:148] Top shape: 24 144 14 14 (677376)
I0403 15:40:52.784663 15945 net.cpp:156] Memory required for data: 1118106912
I0403 15:40:52.784682 15945 layer_factory.hpp:77] Creating layer inception_4d/relu_3x3_reduce
I0403 15:40:52.784698 15945 net.cpp:91] Creating Layer inception_4d/relu_3x3_reduce
I0403 15:40:52.784714 15945 net.cpp:425] inception_4d/relu_3x3_reduce <- inception_4d/3x3_reduce
I0403 15:40:52.784734 15945 net.cpp:386] inception_4d/relu_3x3_reduce -> inception_4d/3x3_reduce (in-place)
I0403 15:40:52.785022 15945 net.cpp:141] Setting up inception_4d/relu_3x3_reduce
I0403 15:40:52.785046 15945 net.cpp:148] Top shape: 24 144 14 14 (677376)
I0403 15:40:52.785061 15945 net.cpp:156] Memory required for data: 1120816416
I0403 15:40:52.785075 15945 layer_factory.hpp:77] Creating layer inception_4d/3x3
I0403 15:40:52.785097 15945 net.cpp:91] Creating Layer inception_4d/3x3
I0403 15:40:52.785115 15945 net.cpp:425] inception_4d/3x3 <- inception_4d/3x3_reduce
I0403 15:40:52.785135 15945 net.cpp:399] inception_4d/3x3 -> inception_4d/3x3
I0403 15:40:52.789403 15945 net.cpp:141] Setting up inception_4d/3x3
I0403 15:40:52.789433 15945 net.cpp:148] Top shape: 24 288 14 14 (1354752)
I0403 15:40:52.789448 15945 net.cpp:156] Memory required for data: 1126235424
I0403 15:40:52.789464 15945 layer_factory.hpp:77] Creating layer inception_4d/relu_3x3
I0403 15:40:52.789484 15945 net.cpp:91] Creating Layer inception_4d/relu_3x3
I0403 15:40:52.789500 15945 net.cpp:425] inception_4d/relu_3x3 <- inception_4d/3x3
I0403 15:40:52.789517 15945 net.cpp:386] inception_4d/relu_3x3 -> inception_4d/3x3 (in-place)
I0403 15:40:52.789710 15945 net.cpp:141] Setting up inception_4d/relu_3x3
I0403 15:40:52.789734 15945 net.cpp:148] Top shape: 24 288 14 14 (1354752)
I0403 15:40:52.789752 15945 net.cpp:156] Memory required for data: 1131654432
I0403 15:40:52.789765 15945 layer_factory.hpp:77] Creating layer inception_4d/5x5_reduce
I0403 15:40:52.789783 15945 net.cpp:91] Creating Layer inception_4d/5x5_reduce
I0403 15:40:52.789799 15945 net.cpp:425] inception_4d/5x5_reduce <- inception_4c/output_inception_4c/output_0_split_2
I0403 15:40:52.789819 15945 net.cpp:399] inception_4d/5x5_reduce -> inception_4d/5x5_reduce
I0403 15:40:52.790947 15945 net.cpp:141] Setting up inception_4d/5x5_reduce
I0403 15:40:52.790973 15945 net.cpp:148] Top shape: 24 32 14 14 (150528)
I0403 15:40:52.790988 15945 net.cpp:156] Memory required for data: 1132256544
I0403 15:40:52.791005 15945 layer_factory.hpp:77] Creating layer inception_4d/relu_5x5_reduce
I0403 15:40:52.791028 15945 net.cpp:91] Creating Layer inception_4d/relu_5x5_reduce
I0403 15:40:52.791043 15945 net.cpp:425] inception_4d/relu_5x5_reduce <- inception_4d/5x5_reduce
I0403 15:40:52.791060 15945 net.cpp:386] inception_4d/relu_5x5_reduce -> inception_4d/5x5_reduce (in-place)
I0403 15:40:52.791242 15945 net.cpp:141] Setting up inception_4d/relu_5x5_reduce
I0403 15:40:52.791267 15945 net.cpp:148] Top shape: 24 32 14 14 (150528)
I0403 15:40:52.791281 15945 net.cpp:156] Memory required for data: 1132858656
I0403 15:40:52.791296 15945 layer_factory.hpp:77] Creating layer inception_4d/5x5
I0403 15:40:52.791317 15945 net.cpp:91] Creating Layer inception_4d/5x5
I0403 15:40:52.791334 15945 net.cpp:425] inception_4d/5x5 <- inception_4d/5x5_reduce
I0403 15:40:52.791352 15945 net.cpp:399] inception_4d/5x5 -> inception_4d/5x5
I0403 15:40:52.792788 15945 net.cpp:141] Setting up inception_4d/5x5
I0403 15:40:52.792815 15945 net.cpp:148] Top shape: 24 64 14 14 (301056)
I0403 15:40:52.792829 15945 net.cpp:156] Memory required for data: 1134062880
I0403 15:40:52.792848 15945 layer_factory.hpp:77] Creating layer inception_4d/relu_5x5
I0403 15:40:52.792882 15945 net.cpp:91] Creating Layer inception_4d/relu_5x5
I0403 15:40:52.792899 15945 net.cpp:425] inception_4d/relu_5x5 <- inception_4d/5x5
I0403 15:40:52.792915 15945 net.cpp:386] inception_4d/relu_5x5 -> inception_4d/5x5 (in-place)
I0403 15:40:52.793208 15945 net.cpp:141] Setting up inception_4d/relu_5x5
I0403 15:40:52.793233 15945 net.cpp:148] Top shape: 24 64 14 14 (301056)
I0403 15:40:52.793248 15945 net.cpp:156] Memory required for data: 1135267104
I0403 15:40:52.793264 15945 layer_factory.hpp:77] Creating layer inception_4d/pool
I0403 15:40:52.793282 15945 net.cpp:91] Creating Layer inception_4d/pool
I0403 15:40:52.793298 15945 net.cpp:425] inception_4d/pool <- inception_4c/output_inception_4c/output_0_split_3
I0403 15:40:52.793318 15945 net.cpp:399] inception_4d/pool -> inception_4d/pool
I0403 15:40:52.793382 15945 net.cpp:141] Setting up inception_4d/pool
I0403 15:40:52.793404 15945 net.cpp:148] Top shape: 24 512 14 14 (2408448)
I0403 15:40:52.793418 15945 net.cpp:156] Memory required for data: 1144900896
I0403 15:40:52.793431 15945 layer_factory.hpp:77] Creating layer inception_4d/pool_proj
I0403 15:40:52.793452 15945 net.cpp:91] Creating Layer inception_4d/pool_proj
I0403 15:40:52.793468 15945 net.cpp:425] inception_4d/pool_proj <- inception_4d/pool
I0403 15:40:52.793488 15945 net.cpp:399] inception_4d/pool_proj -> inception_4d/pool_proj
I0403 15:40:52.795223 15945 net.cpp:141] Setting up inception_4d/pool_proj
I0403 15:40:52.795253 15945 net.cpp:148] Top shape: 24 64 14 14 (301056)
I0403 15:40:52.795267 15945 net.cpp:156] Memory required for data: 1146105120
I0403 15:40:52.795284 15945 layer_factory.hpp:77] Creating layer inception_4d/relu_pool_proj
I0403 15:40:52.795305 15945 net.cpp:91] Creating Layer inception_4d/relu_pool_proj
I0403 15:40:52.795320 15945 net.cpp:425] inception_4d/relu_pool_proj <- inception_4d/pool_proj
I0403 15:40:52.795337 15945 net.cpp:386] inception_4d/relu_pool_proj -> inception_4d/pool_proj (in-place)
I0403 15:40:52.795517 15945 net.cpp:141] Setting up inception_4d/relu_pool_proj
I0403 15:40:52.795542 15945 net.cpp:148] Top shape: 24 64 14 14 (301056)
I0403 15:40:52.795558 15945 net.cpp:156] Memory required for data: 1147309344
I0403 15:40:52.795572 15945 layer_factory.hpp:77] Creating layer inception_4d/output
I0403 15:40:52.795588 15945 net.cpp:91] Creating Layer inception_4d/output
I0403 15:40:52.795606 15945 net.cpp:425] inception_4d/output <- inception_4d/1x1
I0403 15:40:52.795624 15945 net.cpp:425] inception_4d/output <- inception_4d/3x3
I0403 15:40:52.795639 15945 net.cpp:425] inception_4d/output <- inception_4d/5x5
I0403 15:40:52.795653 15945 net.cpp:425] inception_4d/output <- inception_4d/pool_proj
I0403 15:40:52.795670 15945 net.cpp:399] inception_4d/output -> inception_4d/output
I0403 15:40:52.795717 15945 net.cpp:141] Setting up inception_4d/output
I0403 15:40:52.795739 15945 net.cpp:148] Top shape: 24 528 14 14 (2483712)
I0403 15:40:52.795753 15945 net.cpp:156] Memory required for data: 1157244192
I0403 15:40:52.795766 15945 layer_factory.hpp:77] Creating layer inception_4d/output_inception_4d/output_0_split
I0403 15:40:52.795783 15945 net.cpp:91] Creating Layer inception_4d/output_inception_4d/output_0_split
I0403 15:40:52.795800 15945 net.cpp:425] inception_4d/output_inception_4d/output_0_split <- inception_4d/output
I0403 15:40:52.795817 15945 net.cpp:399] inception_4d/output_inception_4d/output_0_split -> inception_4d/output_inception_4d/output_0_split_0
I0403 15:40:52.795837 15945 net.cpp:399] inception_4d/output_inception_4d/output_0_split -> inception_4d/output_inception_4d/output_0_split_1
I0403 15:40:52.795856 15945 net.cpp:399] inception_4d/output_inception_4d/output_0_split -> inception_4d/output_inception_4d/output_0_split_2
I0403 15:40:52.795876 15945 net.cpp:399] inception_4d/output_inception_4d/output_0_split -> inception_4d/output_inception_4d/output_0_split_3
I0403 15:40:52.795895 15945 net.cpp:399] inception_4d/output_inception_4d/output_0_split -> inception_4d/output_inception_4d/output_0_split_4
I0403 15:40:52.795996 15945 net.cpp:141] Setting up inception_4d/output_inception_4d/output_0_split
I0403 15:40:52.796031 15945 net.cpp:148] Top shape: 24 528 14 14 (2483712)
I0403 15:40:52.796047 15945 net.cpp:148] Top shape: 24 528 14 14 (2483712)
I0403 15:40:52.796062 15945 net.cpp:148] Top shape: 24 528 14 14 (2483712)
I0403 15:40:52.796077 15945 net.cpp:148] Top shape: 24 528 14 14 (2483712)
I0403 15:40:52.796092 15945 net.cpp:148] Top shape: 24 528 14 14 (2483712)
I0403 15:40:52.796103 15945 net.cpp:156] Memory required for data: 1206918432
I0403 15:40:52.796118 15945 layer_factory.hpp:77] Creating layer loss2/ave_pool
I0403 15:40:52.796133 15945 net.cpp:91] Creating Layer loss2/ave_pool
I0403 15:40:52.796149 15945 net.cpp:425] loss2/ave_pool <- inception_4d/output_inception_4d/output_0_split_0
I0403 15:40:52.796169 15945 net.cpp:399] loss2/ave_pool -> loss2/ave_pool
I0403 15:40:52.796474 15945 net.cpp:141] Setting up loss2/ave_pool
I0403 15:40:52.796499 15945 net.cpp:148] Top shape: 24 528 4 4 (202752)
I0403 15:40:52.796514 15945 net.cpp:156] Memory required for data: 1207729440
I0403 15:40:52.796526 15945 layer_factory.hpp:77] Creating layer loss2/conv
I0403 15:40:52.796548 15945 net.cpp:91] Creating Layer loss2/conv
I0403 15:40:52.796564 15945 net.cpp:425] loss2/conv <- loss2/ave_pool
I0403 15:40:52.796588 15945 net.cpp:399] loss2/conv -> loss2/conv
I0403 15:40:52.798532 15945 net.cpp:141] Setting up loss2/conv
I0403 15:40:52.798574 15945 net.cpp:148] Top shape: 24 128 4 4 (49152)
I0403 15:40:52.798591 15945 net.cpp:156] Memory required for data: 1207926048
I0403 15:40:52.798614 15945 layer_factory.hpp:77] Creating layer loss2/relu_conv
I0403 15:40:52.798631 15945 net.cpp:91] Creating Layer loss2/relu_conv
I0403 15:40:52.798648 15945 net.cpp:425] loss2/relu_conv <- loss2/conv
I0403 15:40:52.798666 15945 net.cpp:386] loss2/relu_conv -> loss2/conv (in-place)
I0403 15:40:52.798951 15945 net.cpp:141] Setting up loss2/relu_conv
I0403 15:40:52.798979 15945 net.cpp:148] Top shape: 24 128 4 4 (49152)
I0403 15:40:52.798995 15945 net.cpp:156] Memory required for data: 1208122656
I0403 15:40:52.799010 15945 layer_factory.hpp:77] Creating layer loss2/fc
I0403 15:40:52.799028 15945 net.cpp:91] Creating Layer loss2/fc
I0403 15:40:52.799044 15945 net.cpp:425] loss2/fc <- loss2/conv
I0403 15:40:52.799064 15945 net.cpp:399] loss2/fc -> loss2/fc
I0403 15:40:52.817114 15945 net.cpp:141] Setting up loss2/fc
I0403 15:40:52.817152 15945 net.cpp:148] Top shape: 24 1024 (24576)
I0403 15:40:52.817167 15945 net.cpp:156] Memory required for data: 1208220960
I0403 15:40:52.817188 15945 layer_factory.hpp:77] Creating layer loss2/relu_fc
I0403 15:40:52.817209 15945 net.cpp:91] Creating Layer loss2/relu_fc
I0403 15:40:52.817225 15945 net.cpp:425] loss2/relu_fc <- loss2/fc
I0403 15:40:52.817244 15945 net.cpp:386] loss2/relu_fc -> loss2/fc (in-place)
I0403 15:40:52.817584 15945 net.cpp:141] Setting up loss2/relu_fc
I0403 15:40:52.817615 15945 net.cpp:148] Top shape: 24 1024 (24576)
I0403 15:40:52.817631 15945 net.cpp:156] Memory required for data: 1208319264
I0403 15:40:52.817646 15945 layer_factory.hpp:77] Creating layer loss2/drop_fc
I0403 15:40:52.817665 15945 net.cpp:91] Creating Layer loss2/drop_fc
I0403 15:40:52.817682 15945 net.cpp:425] loss2/drop_fc <- loss2/fc
I0403 15:40:52.817698 15945 net.cpp:386] loss2/drop_fc -> loss2/fc (in-place)
I0403 15:40:52.817751 15945 net.cpp:141] Setting up loss2/drop_fc
I0403 15:40:52.817775 15945 net.cpp:148] Top shape: 24 1024 (24576)
I0403 15:40:52.817787 15945 net.cpp:156] Memory required for data: 1208417568
I0403 15:40:52.817801 15945 layer_factory.hpp:77] Creating layer loss2/classifier_plantvillage
I0403 15:40:52.817819 15945 net.cpp:91] Creating Layer loss2/classifier_plantvillage
I0403 15:40:52.817834 15945 net.cpp:425] loss2/classifier_plantvillage <- loss2/fc
I0403 15:40:52.817855 15945 net.cpp:399] loss2/classifier_plantvillage -> loss2/classifier_plantvillage
I0403 15:40:52.818267 15945 net.cpp:141] Setting up loss2/classifier_plantvillage
I0403 15:40:52.818292 15945 net.cpp:148] Top shape: 24 38 (912)
I0403 15:40:52.818328 15945 net.cpp:156] Memory required for data: 1208421216
I0403 15:40:52.818347 15945 layer_factory.hpp:77] Creating layer loss2/classifier_plantvillage_loss2/classifier_plantvillage_0_split
I0403 15:40:52.818366 15945 net.cpp:91] Creating Layer loss2/classifier_plantvillage_loss2/classifier_plantvillage_0_split
I0403 15:40:52.818380 15945 net.cpp:425] loss2/classifier_plantvillage_loss2/classifier_plantvillage_0_split <- loss2/classifier_plantvillage
I0403 15:40:52.818397 15945 net.cpp:399] loss2/classifier_plantvillage_loss2/classifier_plantvillage_0_split -> loss2/classifier_plantvillage_loss2/classifier_plantvillage_0_split_0
I0403 15:40:52.818419 15945 net.cpp:399] loss2/classifier_plantvillage_loss2/classifier_plantvillage_0_split -> loss2/classifier_plantvillage_loss2/classifier_plantvillage_0_split_1
I0403 15:40:52.818440 15945 net.cpp:399] loss2/classifier_plantvillage_loss2/classifier_plantvillage_0_split -> loss2/classifier_plantvillage_loss2/classifier_plantvillage_0_split_2
I0403 15:40:52.818517 15945 net.cpp:141] Setting up loss2/classifier_plantvillage_loss2/classifier_plantvillage_0_split
I0403 15:40:52.818541 15945 net.cpp:148] Top shape: 24 38 (912)
I0403 15:40:52.818558 15945 net.cpp:148] Top shape: 24 38 (912)
I0403 15:40:52.818573 15945 net.cpp:148] Top shape: 24 38 (912)
I0403 15:40:52.818588 15945 net.cpp:156] Memory required for data: 1208432160
I0403 15:40:52.818604 15945 layer_factory.hpp:77] Creating layer inception_4e/1x1
I0403 15:40:52.818626 15945 net.cpp:91] Creating Layer inception_4e/1x1
I0403 15:40:52.818642 15945 net.cpp:425] inception_4e/1x1 <- inception_4d/output_inception_4d/output_0_split_1
I0403 15:40:52.818665 15945 net.cpp:399] inception_4e/1x1 -> inception_4e/1x1
I0403 15:40:52.820513 15945 net.cpp:141] Setting up inception_4e/1x1
I0403 15:40:52.820544 15945 net.cpp:148] Top shape: 24 256 14 14 (1204224)
I0403 15:40:52.820559 15945 net.cpp:156] Memory required for data: 1213249056
I0403 15:40:52.820577 15945 layer_factory.hpp:77] Creating layer inception_4e/relu_1x1
I0403 15:40:52.820595 15945 net.cpp:91] Creating Layer inception_4e/relu_1x1
I0403 15:40:52.820616 15945 net.cpp:425] inception_4e/relu_1x1 <- inception_4e/1x1
I0403 15:40:52.820636 15945 net.cpp:386] inception_4e/relu_1x1 -> inception_4e/1x1 (in-place)
I0403 15:40:52.820933 15945 net.cpp:141] Setting up inception_4e/relu_1x1
I0403 15:40:52.820961 15945 net.cpp:148] Top shape: 24 256 14 14 (1204224)
I0403 15:40:52.820976 15945 net.cpp:156] Memory required for data: 1218065952
I0403 15:40:52.820991 15945 layer_factory.hpp:77] Creating layer inception_4e/3x3_reduce
I0403 15:40:52.821012 15945 net.cpp:91] Creating Layer inception_4e/3x3_reduce
I0403 15:40:52.821029 15945 net.cpp:425] inception_4e/3x3_reduce <- inception_4d/output_inception_4d/output_0_split_2
I0403 15:40:52.821048 15945 net.cpp:399] inception_4e/3x3_reduce -> inception_4e/3x3_reduce
I0403 15:40:52.823204 15945 net.cpp:141] Setting up inception_4e/3x3_reduce
I0403 15:40:52.823235 15945 net.cpp:148] Top shape: 24 160 14 14 (752640)
I0403 15:40:52.823251 15945 net.cpp:156] Memory required for data: 1221076512
I0403 15:40:52.823271 15945 layer_factory.hpp:77] Creating layer inception_4e/relu_3x3_reduce
I0403 15:40:52.823288 15945 net.cpp:91] Creating Layer inception_4e/relu_3x3_reduce
I0403 15:40:52.823304 15945 net.cpp:425] inception_4e/relu_3x3_reduce <- inception_4e/3x3_reduce
I0403 15:40:52.823320 15945 net.cpp:386] inception_4e/relu_3x3_reduce -> inception_4e/3x3_reduce (in-place)
I0403 15:40:52.823506 15945 net.cpp:141] Setting up inception_4e/relu_3x3_reduce
I0403 15:40:52.823534 15945 net.cpp:148] Top shape: 24 160 14 14 (752640)
I0403 15:40:52.823549 15945 net.cpp:156] Memory required for data: 1224087072
I0403 15:40:52.823562 15945 layer_factory.hpp:77] Creating layer inception_4e/3x3
I0403 15:40:52.823583 15945 net.cpp:91] Creating Layer inception_4e/3x3
I0403 15:40:52.823603 15945 net.cpp:425] inception_4e/3x3 <- inception_4e/3x3_reduce
I0403 15:40:52.823623 15945 net.cpp:399] inception_4e/3x3 -> inception_4e/3x3
I0403 15:40:52.828656 15945 net.cpp:141] Setting up inception_4e/3x3
I0403 15:40:52.828701 15945 net.cpp:148] Top shape: 24 320 14 14 (1505280)
I0403 15:40:52.828717 15945 net.cpp:156] Memory required for data: 1230108192
I0403 15:40:52.828735 15945 layer_factory.hpp:77] Creating layer inception_4e/relu_3x3
I0403 15:40:52.828752 15945 net.cpp:91] Creating Layer inception_4e/relu_3x3
I0403 15:40:52.828768 15945 net.cpp:425] inception_4e/relu_3x3 <- inception_4e/3x3
I0403 15:40:52.828788 15945 net.cpp:386] inception_4e/relu_3x3 -> inception_4e/3x3 (in-place)
I0403 15:40:52.829088 15945 net.cpp:141] Setting up inception_4e/relu_3x3
I0403 15:40:52.829114 15945 net.cpp:148] Top shape: 24 320 14 14 (1505280)
I0403 15:40:52.829129 15945 net.cpp:156] Memory required for data: 1236129312
I0403 15:40:52.829144 15945 layer_factory.hpp:77] Creating layer inception_4e/5x5_reduce
I0403 15:40:52.829166 15945 net.cpp:91] Creating Layer inception_4e/5x5_reduce
I0403 15:40:52.829185 15945 net.cpp:425] inception_4e/5x5_reduce <- inception_4d/output_inception_4d/output_0_split_3
I0403 15:40:52.829205 15945 net.cpp:399] inception_4e/5x5_reduce -> inception_4e/5x5_reduce
I0403 15:40:52.830281 15945 net.cpp:141] Setting up inception_4e/5x5_reduce
I0403 15:40:52.830307 15945 net.cpp:148] Top shape: 24 32 14 14 (150528)
I0403 15:40:52.830323 15945 net.cpp:156] Memory required for data: 1236731424
I0403 15:40:52.830340 15945 layer_factory.hpp:77] Creating layer inception_4e/relu_5x5_reduce
I0403 15:40:52.830360 15945 net.cpp:91] Creating Layer inception_4e/relu_5x5_reduce
I0403 15:40:52.830376 15945 net.cpp:425] inception_4e/relu_5x5_reduce <- inception_4e/5x5_reduce
I0403 15:40:52.830394 15945 net.cpp:386] inception_4e/relu_5x5_reduce -> inception_4e/5x5_reduce (in-place)
I0403 15:40:52.830703 15945 net.cpp:141] Setting up inception_4e/relu_5x5_reduce
I0403 15:40:52.830729 15945 net.cpp:148] Top shape: 24 32 14 14 (150528)
I0403 15:40:52.830744 15945 net.cpp:156] Memory required for data: 1237333536
I0403 15:40:52.830759 15945 layer_factory.hpp:77] Creating layer inception_4e/5x5
I0403 15:40:52.830798 15945 net.cpp:91] Creating Layer inception_4e/5x5
I0403 15:40:52.830816 15945 net.cpp:425] inception_4e/5x5 <- inception_4e/5x5_reduce
I0403 15:40:52.830835 15945 net.cpp:399] inception_4e/5x5 -> inception_4e/5x5
I0403 15:40:52.832693 15945 net.cpp:141] Setting up inception_4e/5x5
I0403 15:40:52.832720 15945 net.cpp:148] Top shape: 24 128 14 14 (602112)
I0403 15:40:52.832736 15945 net.cpp:156] Memory required for data: 1239741984
I0403 15:40:52.832754 15945 layer_factory.hpp:77] Creating layer inception_4e/relu_5x5
I0403 15:40:52.832774 15945 net.cpp:91] Creating Layer inception_4e/relu_5x5
I0403 15:40:52.832790 15945 net.cpp:425] inception_4e/relu_5x5 <- inception_4e/5x5
I0403 15:40:52.832808 15945 net.cpp:386] inception_4e/relu_5x5 -> inception_4e/5x5 (in-place)
I0403 15:40:52.833005 15945 net.cpp:141] Setting up inception_4e/relu_5x5
I0403 15:40:52.833032 15945 net.cpp:148] Top shape: 24 128 14 14 (602112)
I0403 15:40:52.833048 15945 net.cpp:156] Memory required for data: 1242150432
I0403 15:40:52.833062 15945 layer_factory.hpp:77] Creating layer inception_4e/pool
I0403 15:40:52.833081 15945 net.cpp:91] Creating Layer inception_4e/pool
I0403 15:40:52.833096 15945 net.cpp:425] inception_4e/pool <- inception_4d/output_inception_4d/output_0_split_4
I0403 15:40:52.833113 15945 net.cpp:399] inception_4e/pool -> inception_4e/pool
I0403 15:40:52.833184 15945 net.cpp:141] Setting up inception_4e/pool
I0403 15:40:52.833207 15945 net.cpp:148] Top shape: 24 528 14 14 (2483712)
I0403 15:40:52.833225 15945 net.cpp:156] Memory required for data: 1252085280
I0403 15:40:52.833240 15945 layer_factory.hpp:77] Creating layer inception_4e/pool_proj
I0403 15:40:52.833261 15945 net.cpp:91] Creating Layer inception_4e/pool_proj
I0403 15:40:52.833278 15945 net.cpp:425] inception_4e/pool_proj <- inception_4e/pool
I0403 15:40:52.833299 15945 net.cpp:399] inception_4e/pool_proj -> inception_4e/pool_proj
I0403 15:40:52.834823 15945 net.cpp:141] Setting up inception_4e/pool_proj
I0403 15:40:52.834862 15945 net.cpp:148] Top shape: 24 128 14 14 (602112)
I0403 15:40:52.834877 15945 net.cpp:156] Memory required for data: 1254493728
I0403 15:40:52.834897 15945 layer_factory.hpp:77] Creating layer inception_4e/relu_pool_proj
I0403 15:40:52.834916 15945 net.cpp:91] Creating Layer inception_4e/relu_pool_proj
I0403 15:40:52.834933 15945 net.cpp:425] inception_4e/relu_pool_proj <- inception_4e/pool_proj
I0403 15:40:52.834949 15945 net.cpp:386] inception_4e/relu_pool_proj -> inception_4e/pool_proj (in-place)
I0403 15:40:52.835245 15945 net.cpp:141] Setting up inception_4e/relu_pool_proj
I0403 15:40:52.835273 15945 net.cpp:148] Top shape: 24 128 14 14 (602112)
I0403 15:40:52.835288 15945 net.cpp:156] Memory required for data: 1256902176
I0403 15:40:52.835301 15945 layer_factory.hpp:77] Creating layer inception_4e/output
I0403 15:40:52.835319 15945 net.cpp:91] Creating Layer inception_4e/output
I0403 15:40:52.835333 15945 net.cpp:425] inception_4e/output <- inception_4e/1x1
I0403 15:40:52.835350 15945 net.cpp:425] inception_4e/output <- inception_4e/3x3
I0403 15:40:52.835366 15945 net.cpp:425] inception_4e/output <- inception_4e/5x5
I0403 15:40:52.835381 15945 net.cpp:425] inception_4e/output <- inception_4e/pool_proj
I0403 15:40:52.835400 15945 net.cpp:399] inception_4e/output -> inception_4e/output
I0403 15:40:52.835451 15945 net.cpp:141] Setting up inception_4e/output
I0403 15:40:52.835474 15945 net.cpp:148] Top shape: 24 832 14 14 (3913728)
I0403 15:40:52.835489 15945 net.cpp:156] Memory required for data: 1272557088
I0403 15:40:52.835502 15945 layer_factory.hpp:77] Creating layer pool4/3x3_s2
I0403 15:40:52.835518 15945 net.cpp:91] Creating Layer pool4/3x3_s2
I0403 15:40:52.835533 15945 net.cpp:425] pool4/3x3_s2 <- inception_4e/output
I0403 15:40:52.835553 15945 net.cpp:399] pool4/3x3_s2 -> pool4/3x3_s2
I0403 15:40:52.835625 15945 net.cpp:141] Setting up pool4/3x3_s2
I0403 15:40:52.835649 15945 net.cpp:148] Top shape: 24 832 7 7 (978432)
I0403 15:40:52.835664 15945 net.cpp:156] Memory required for data: 1276470816
I0403 15:40:52.835677 15945 layer_factory.hpp:77] Creating layer pool4/3x3_s2_pool4/3x3_s2_0_split
I0403 15:40:52.835696 15945 net.cpp:91] Creating Layer pool4/3x3_s2_pool4/3x3_s2_0_split
I0403 15:40:52.835712 15945 net.cpp:425] pool4/3x3_s2_pool4/3x3_s2_0_split <- pool4/3x3_s2
I0403 15:40:52.835728 15945 net.cpp:399] pool4/3x3_s2_pool4/3x3_s2_0_split -> pool4/3x3_s2_pool4/3x3_s2_0_split_0
I0403 15:40:52.835750 15945 net.cpp:399] pool4/3x3_s2_pool4/3x3_s2_0_split -> pool4/3x3_s2_pool4/3x3_s2_0_split_1
I0403 15:40:52.835770 15945 net.cpp:399] pool4/3x3_s2_pool4/3x3_s2_0_split -> pool4/3x3_s2_pool4/3x3_s2_0_split_2
I0403 15:40:52.835790 15945 net.cpp:399] pool4/3x3_s2_pool4/3x3_s2_0_split -> pool4/3x3_s2_pool4/3x3_s2_0_split_3
I0403 15:40:52.835877 15945 net.cpp:141] Setting up pool4/3x3_s2_pool4/3x3_s2_0_split
I0403 15:40:52.835901 15945 net.cpp:148] Top shape: 24 832 7 7 (978432)
I0403 15:40:52.835916 15945 net.cpp:148] Top shape: 24 832 7 7 (978432)
I0403 15:40:52.835930 15945 net.cpp:148] Top shape: 24 832 7 7 (978432)
I0403 15:40:52.835944 15945 net.cpp:148] Top shape: 24 832 7 7 (978432)
I0403 15:40:52.835958 15945 net.cpp:156] Memory required for data: 1292125728
I0403 15:40:52.835971 15945 layer_factory.hpp:77] Creating layer inception_5a/1x1
I0403 15:40:52.835994 15945 net.cpp:91] Creating Layer inception_5a/1x1
I0403 15:40:52.836009 15945 net.cpp:425] inception_5a/1x1 <- pool4/3x3_s2_pool4/3x3_s2_0_split_0
I0403 15:40:52.836030 15945 net.cpp:399] inception_5a/1x1 -> inception_5a/1x1
I0403 15:40:52.838917 15945 net.cpp:141] Setting up inception_5a/1x1
I0403 15:40:52.838948 15945 net.cpp:148] Top shape: 24 256 7 7 (301056)
I0403 15:40:52.838963 15945 net.cpp:156] Memory required for data: 1293329952
I0403 15:40:52.838980 15945 layer_factory.hpp:77] Creating layer inception_5a/relu_1x1
I0403 15:40:52.839000 15945 net.cpp:91] Creating Layer inception_5a/relu_1x1
I0403 15:40:52.839016 15945 net.cpp:425] inception_5a/relu_1x1 <- inception_5a/1x1
I0403 15:40:52.839035 15945 net.cpp:386] inception_5a/relu_1x1 -> inception_5a/1x1 (in-place)
I0403 15:40:52.839349 15945 net.cpp:141] Setting up inception_5a/relu_1x1
I0403 15:40:52.839375 15945 net.cpp:148] Top shape: 24 256 7 7 (301056)
I0403 15:40:52.839390 15945 net.cpp:156] Memory required for data: 1294534176
I0403 15:40:52.839403 15945 layer_factory.hpp:77] Creating layer inception_5a/3x3_reduce
I0403 15:40:52.839426 15945 net.cpp:91] Creating Layer inception_5a/3x3_reduce
I0403 15:40:52.839443 15945 net.cpp:425] inception_5a/3x3_reduce <- pool4/3x3_s2_pool4/3x3_s2_0_split_1
I0403 15:40:52.839463 15945 net.cpp:399] inception_5a/3x3_reduce -> inception_5a/3x3_reduce
I0403 15:40:52.841953 15945 net.cpp:141] Setting up inception_5a/3x3_reduce
I0403 15:40:52.841981 15945 net.cpp:148] Top shape: 24 160 7 7 (188160)
I0403 15:40:52.841997 15945 net.cpp:156] Memory required for data: 1295286816
I0403 15:40:52.842015 15945 layer_factory.hpp:77] Creating layer inception_5a/relu_3x3_reduce
I0403 15:40:52.842032 15945 net.cpp:91] Creating Layer inception_5a/relu_3x3_reduce
I0403 15:40:52.842047 15945 net.cpp:425] inception_5a/relu_3x3_reduce <- inception_5a/3x3_reduce
I0403 15:40:52.842067 15945 net.cpp:386] inception_5a/relu_3x3_reduce -> inception_5a/3x3_reduce (in-place)
I0403 15:40:52.842255 15945 net.cpp:141] Setting up inception_5a/relu_3x3_reduce
I0403 15:40:52.842280 15945 net.cpp:148] Top shape: 24 160 7 7 (188160)
I0403 15:40:52.842294 15945 net.cpp:156] Memory required for data: 1296039456
I0403 15:40:52.842308 15945 layer_factory.hpp:77] Creating layer inception_5a/3x3
I0403 15:40:52.842329 15945 net.cpp:91] Creating Layer inception_5a/3x3
I0403 15:40:52.842346 15945 net.cpp:425] inception_5a/3x3 <- inception_5a/3x3_reduce
I0403 15:40:52.842368 15945 net.cpp:399] inception_5a/3x3 -> inception_5a/3x3
I0403 15:40:52.847434 15945 net.cpp:141] Setting up inception_5a/3x3
I0403 15:40:52.847463 15945 net.cpp:148] Top shape: 24 320 7 7 (376320)
I0403 15:40:52.847479 15945 net.cpp:156] Memory required for data: 1297544736
I0403 15:40:52.847496 15945 layer_factory.hpp:77] Creating layer inception_5a/relu_3x3
I0403 15:40:52.847517 15945 net.cpp:91] Creating Layer inception_5a/relu_3x3
I0403 15:40:52.847533 15945 net.cpp:425] inception_5a/relu_3x3 <- inception_5a/3x3
I0403 15:40:52.847550 15945 net.cpp:386] inception_5a/relu_3x3 -> inception_5a/3x3 (in-place)
I0403 15:40:52.847847 15945 net.cpp:141] Setting up inception_5a/relu_3x3
I0403 15:40:52.847872 15945 net.cpp:148] Top shape: 24 320 7 7 (376320)
I0403 15:40:52.847887 15945 net.cpp:156] Memory required for data: 1299050016
I0403 15:40:52.847901 15945 layer_factory.hpp:77] Creating layer inception_5a/5x5_reduce
I0403 15:40:52.847923 15945 net.cpp:91] Creating Layer inception_5a/5x5_reduce
I0403 15:40:52.847940 15945 net.cpp:425] inception_5a/5x5_reduce <- pool4/3x3_s2_pool4/3x3_s2_0_split_2
I0403 15:40:52.847961 15945 net.cpp:399] inception_5a/5x5_reduce -> inception_5a/5x5_reduce
I0403 15:40:52.849107 15945 net.cpp:141] Setting up inception_5a/5x5_reduce
I0403 15:40:52.849136 15945 net.cpp:148] Top shape: 24 32 7 7 (37632)
I0403 15:40:52.849153 15945 net.cpp:156] Memory required for data: 1299200544
I0403 15:40:52.849169 15945 layer_factory.hpp:77] Creating layer inception_5a/relu_5x5_reduce
I0403 15:40:52.849186 15945 net.cpp:91] Creating Layer inception_5a/relu_5x5_reduce
I0403 15:40:52.849202 15945 net.cpp:425] inception_5a/relu_5x5_reduce <- inception_5a/5x5_reduce
I0403 15:40:52.849218 15945 net.cpp:386] inception_5a/relu_5x5_reduce -> inception_5a/5x5_reduce (in-place)
I0403 15:40:52.849519 15945 net.cpp:141] Setting up inception_5a/relu_5x5_reduce
I0403 15:40:52.849545 15945 net.cpp:148] Top shape: 24 32 7 7 (37632)
I0403 15:40:52.849560 15945 net.cpp:156] Memory required for data: 1299351072
I0403 15:40:52.849575 15945 layer_factory.hpp:77] Creating layer inception_5a/5x5
I0403 15:40:52.849596 15945 net.cpp:91] Creating Layer inception_5a/5x5
I0403 15:40:52.849617 15945 net.cpp:425] inception_5a/5x5 <- inception_5a/5x5_reduce
I0403 15:40:52.849635 15945 net.cpp:399] inception_5a/5x5 -> inception_5a/5x5
I0403 15:40:52.851307 15945 net.cpp:141] Setting up inception_5a/5x5
I0403 15:40:52.851346 15945 net.cpp:148] Top shape: 24 128 7 7 (150528)
I0403 15:40:52.851361 15945 net.cpp:156] Memory required for data: 1299953184
I0403 15:40:52.851379 15945 layer_factory.hpp:77] Creating layer inception_5a/relu_5x5
I0403 15:40:52.851399 15945 net.cpp:91] Creating Layer inception_5a/relu_5x5
I0403 15:40:52.851415 15945 net.cpp:425] inception_5a/relu_5x5 <- inception_5a/5x5
I0403 15:40:52.851433 15945 net.cpp:386] inception_5a/relu_5x5 -> inception_5a/5x5 (in-place)
I0403 15:40:52.851620 15945 net.cpp:141] Setting up inception_5a/relu_5x5
I0403 15:40:52.851647 15945 net.cpp:148] Top shape: 24 128 7 7 (150528)
I0403 15:40:52.851661 15945 net.cpp:156] Memory required for data: 1300555296
I0403 15:40:52.851675 15945 layer_factory.hpp:77] Creating layer inception_5a/pool
I0403 15:40:52.851692 15945 net.cpp:91] Creating Layer inception_5a/pool
I0403 15:40:52.851707 15945 net.cpp:425] inception_5a/pool <- pool4/3x3_s2_pool4/3x3_s2_0_split_3
I0403 15:40:52.851729 15945 net.cpp:399] inception_5a/pool -> inception_5a/pool
I0403 15:40:52.851797 15945 net.cpp:141] Setting up inception_5a/pool
I0403 15:40:52.851820 15945 net.cpp:148] Top shape: 24 832 7 7 (978432)
I0403 15:40:52.851833 15945 net.cpp:156] Memory required for data: 1304469024
I0403 15:40:52.851846 15945 layer_factory.hpp:77] Creating layer inception_5a/pool_proj
I0403 15:40:52.851868 15945 net.cpp:91] Creating Layer inception_5a/pool_proj
I0403 15:40:52.851884 15945 net.cpp:425] inception_5a/pool_proj <- inception_5a/pool
I0403 15:40:52.851903 15945 net.cpp:399] inception_5a/pool_proj -> inception_5a/pool_proj
I0403 15:40:52.854259 15945 net.cpp:141] Setting up inception_5a/pool_proj
I0403 15:40:52.854288 15945 net.cpp:148] Top shape: 24 128 7 7 (150528)
I0403 15:40:52.854305 15945 net.cpp:156] Memory required for data: 1305071136
I0403 15:40:52.854322 15945 layer_factory.hpp:77] Creating layer inception_5a/relu_pool_proj
I0403 15:40:52.854342 15945 net.cpp:91] Creating Layer inception_5a/relu_pool_proj
I0403 15:40:52.854359 15945 net.cpp:425] inception_5a/relu_pool_proj <- inception_5a/pool_proj
I0403 15:40:52.854377 15945 net.cpp:386] inception_5a/relu_pool_proj -> inception_5a/pool_proj (in-place)
I0403 15:40:52.854686 15945 net.cpp:141] Setting up inception_5a/relu_pool_proj
I0403 15:40:52.854712 15945 net.cpp:148] Top shape: 24 128 7 7 (150528)
I0403 15:40:52.854727 15945 net.cpp:156] Memory required for data: 1305673248
I0403 15:40:52.854742 15945 layer_factory.hpp:77] Creating layer inception_5a/output
I0403 15:40:52.854758 15945 net.cpp:91] Creating Layer inception_5a/output
I0403 15:40:52.854776 15945 net.cpp:425] inception_5a/output <- inception_5a/1x1
I0403 15:40:52.854794 15945 net.cpp:425] inception_5a/output <- inception_5a/3x3
I0403 15:40:52.854809 15945 net.cpp:425] inception_5a/output <- inception_5a/5x5
I0403 15:40:52.854825 15945 net.cpp:425] inception_5a/output <- inception_5a/pool_proj
I0403 15:40:52.854841 15945 net.cpp:399] inception_5a/output -> inception_5a/output
I0403 15:40:52.854890 15945 net.cpp:141] Setting up inception_5a/output
I0403 15:40:52.854915 15945 net.cpp:148] Top shape: 24 832 7 7 (978432)
I0403 15:40:52.854930 15945 net.cpp:156] Memory required for data: 1309586976
I0403 15:40:52.854944 15945 layer_factory.hpp:77] Creating layer inception_5a/output_inception_5a/output_0_split
I0403 15:40:52.854961 15945 net.cpp:91] Creating Layer inception_5a/output_inception_5a/output_0_split
I0403 15:40:52.854976 15945 net.cpp:425] inception_5a/output_inception_5a/output_0_split <- inception_5a/output
I0403 15:40:52.854995 15945 net.cpp:399] inception_5a/output_inception_5a/output_0_split -> inception_5a/output_inception_5a/output_0_split_0
I0403 15:40:52.855015 15945 net.cpp:399] inception_5a/output_inception_5a/output_0_split -> inception_5a/output_inception_5a/output_0_split_1
I0403 15:40:52.855036 15945 net.cpp:399] inception_5a/output_inception_5a/output_0_split -> inception_5a/output_inception_5a/output_0_split_2
I0403 15:40:52.855056 15945 net.cpp:399] inception_5a/output_inception_5a/output_0_split -> inception_5a/output_inception_5a/output_0_split_3
I0403 15:40:52.855165 15945 net.cpp:141] Setting up inception_5a/output_inception_5a/output_0_split
I0403 15:40:52.855190 15945 net.cpp:148] Top shape: 24 832 7 7 (978432)
I0403 15:40:52.855207 15945 net.cpp:148] Top shape: 24 832 7 7 (978432)
I0403 15:40:52.855221 15945 net.cpp:148] Top shape: 24 832 7 7 (978432)
I0403 15:40:52.855237 15945 net.cpp:148] Top shape: 24 832 7 7 (978432)
I0403 15:40:52.855248 15945 net.cpp:156] Memory required for data: 1325241888
I0403 15:40:52.855264 15945 layer_factory.hpp:77] Creating layer inception_5b/1x1
I0403 15:40:52.855285 15945 net.cpp:91] Creating Layer inception_5b/1x1
I0403 15:40:52.855303 15945 net.cpp:425] inception_5b/1x1 <- inception_5a/output_inception_5a/output_0_split_0
I0403 15:40:52.855320 15945 net.cpp:399] inception_5b/1x1 -> inception_5b/1x1
I0403 15:40:52.859194 15945 net.cpp:141] Setting up inception_5b/1x1
I0403 15:40:52.859223 15945 net.cpp:148] Top shape: 24 384 7 7 (451584)
I0403 15:40:52.859239 15945 net.cpp:156] Memory required for data: 1327048224
I0403 15:40:52.859257 15945 layer_factory.hpp:77] Creating layer inception_5b/relu_1x1
I0403 15:40:52.859275 15945 net.cpp:91] Creating Layer inception_5b/relu_1x1
I0403 15:40:52.859290 15945 net.cpp:425] inception_5b/relu_1x1 <- inception_5b/1x1
I0403 15:40:52.859310 15945 net.cpp:386] inception_5b/relu_1x1 -> inception_5b/1x1 (in-place)
I0403 15:40:52.859624 15945 net.cpp:141] Setting up inception_5b/relu_1x1
I0403 15:40:52.859650 15945 net.cpp:148] Top shape: 24 384 7 7 (451584)
I0403 15:40:52.859665 15945 net.cpp:156] Memory required for data: 1328854560
I0403 15:40:52.859679 15945 layer_factory.hpp:77] Creating layer inception_5b/3x3_reduce
I0403 15:40:52.859701 15945 net.cpp:91] Creating Layer inception_5b/3x3_reduce
I0403 15:40:52.859719 15945 net.cpp:425] inception_5b/3x3_reduce <- inception_5a/output_inception_5a/output_0_split_1
I0403 15:40:52.859740 15945 net.cpp:399] inception_5b/3x3_reduce -> inception_5b/3x3_reduce
I0403 15:40:52.862462 15945 net.cpp:141] Setting up inception_5b/3x3_reduce
I0403 15:40:52.862490 15945 net.cpp:148] Top shape: 24 192 7 7 (225792)
I0403 15:40:52.862506 15945 net.cpp:156] Memory required for data: 1329757728
I0403 15:40:52.862524 15945 layer_factory.hpp:77] Creating layer inception_5b/relu_3x3_reduce
I0403 15:40:52.862545 15945 net.cpp:91] Creating Layer inception_5b/relu_3x3_reduce
I0403 15:40:52.862561 15945 net.cpp:425] inception_5b/relu_3x3_reduce <- inception_5b/3x3_reduce
I0403 15:40:52.862578 15945 net.cpp:386] inception_5b/relu_3x3_reduce -> inception_5b/3x3_reduce (in-place)
I0403 15:40:52.862772 15945 net.cpp:141] Setting up inception_5b/relu_3x3_reduce
I0403 15:40:52.862797 15945 net.cpp:148] Top shape: 24 192 7 7 (225792)
I0403 15:40:52.862812 15945 net.cpp:156] Memory required for data: 1330660896
I0403 15:40:52.862825 15945 layer_factory.hpp:77] Creating layer inception_5b/3x3
I0403 15:40:52.862848 15945 net.cpp:91] Creating Layer inception_5b/3x3
I0403 15:40:52.862865 15945 net.cpp:425] inception_5b/3x3 <- inception_5b/3x3_reduce
I0403 15:40:52.862884 15945 net.cpp:399] inception_5b/3x3 -> inception_5b/3x3
I0403 15:40:52.869635 15945 net.cpp:141] Setting up inception_5b/3x3
I0403 15:40:52.869664 15945 net.cpp:148] Top shape: 24 384 7 7 (451584)
I0403 15:40:52.869679 15945 net.cpp:156] Memory required for data: 1332467232
I0403 15:40:52.869698 15945 layer_factory.hpp:77] Creating layer inception_5b/relu_3x3
I0403 15:40:52.869717 15945 net.cpp:91] Creating Layer inception_5b/relu_3x3
I0403 15:40:52.869735 15945 net.cpp:425] inception_5b/relu_3x3 <- inception_5b/3x3
I0403 15:40:52.869752 15945 net.cpp:386] inception_5b/relu_3x3 -> inception_5b/3x3 (in-place)
I0403 15:40:52.870054 15945 net.cpp:141] Setting up inception_5b/relu_3x3
I0403 15:40:52.870079 15945 net.cpp:148] Top shape: 24 384 7 7 (451584)
I0403 15:40:52.870095 15945 net.cpp:156] Memory required for data: 1334273568
I0403 15:40:52.870108 15945 layer_factory.hpp:77] Creating layer inception_5b/5x5_reduce
I0403 15:40:52.870146 15945 net.cpp:91] Creating Layer inception_5b/5x5_reduce
I0403 15:40:52.870165 15945 net.cpp:425] inception_5b/5x5_reduce <- inception_5a/output_inception_5a/output_0_split_2
I0403 15:40:52.870187 15945 net.cpp:399] inception_5b/5x5_reduce -> inception_5b/5x5_reduce
I0403 15:40:52.871529 15945 net.cpp:141] Setting up inception_5b/5x5_reduce
I0403 15:40:52.871556 15945 net.cpp:148] Top shape: 24 48 7 7 (56448)
I0403 15:40:52.871572 15945 net.cpp:156] Memory required for data: 1334499360
I0403 15:40:52.871588 15945 layer_factory.hpp:77] Creating layer inception_5b/relu_5x5_reduce
I0403 15:40:52.871611 15945 net.cpp:91] Creating Layer inception_5b/relu_5x5_reduce
I0403 15:40:52.871628 15945 net.cpp:425] inception_5b/relu_5x5_reduce <- inception_5b/5x5_reduce
I0403 15:40:52.871645 15945 net.cpp:386] inception_5b/relu_5x5_reduce -> inception_5b/5x5_reduce (in-place)
I0403 15:40:52.872014 15945 net.cpp:141] Setting up inception_5b/relu_5x5_reduce
I0403 15:40:52.872040 15945 net.cpp:148] Top shape: 24 48 7 7 (56448)
I0403 15:40:52.872053 15945 net.cpp:156] Memory required for data: 1334725152
I0403 15:40:52.872067 15945 layer_factory.hpp:77] Creating layer inception_5b/5x5
I0403 15:40:52.872087 15945 net.cpp:91] Creating Layer inception_5b/5x5
I0403 15:40:52.872103 15945 net.cpp:425] inception_5b/5x5 <- inception_5b/5x5_reduce
I0403 15:40:52.872122 15945 net.cpp:399] inception_5b/5x5 -> inception_5b/5x5
I0403 15:40:52.874145 15945 net.cpp:141] Setting up inception_5b/5x5
I0403 15:40:52.874172 15945 net.cpp:148] Top shape: 24 128 7 7 (150528)
I0403 15:40:52.874186 15945 net.cpp:156] Memory required for data: 1335327264
I0403 15:40:52.874204 15945 layer_factory.hpp:77] Creating layer inception_5b/relu_5x5
I0403 15:40:52.874223 15945 net.cpp:91] Creating Layer inception_5b/relu_5x5
I0403 15:40:52.874239 15945 net.cpp:425] inception_5b/relu_5x5 <- inception_5b/5x5
I0403 15:40:52.874256 15945 net.cpp:386] inception_5b/relu_5x5 -> inception_5b/5x5 (in-place)
I0403 15:40:52.874446 15945 net.cpp:141] Setting up inception_5b/relu_5x5
I0403 15:40:52.874471 15945 net.cpp:148] Top shape: 24 128 7 7 (150528)
I0403 15:40:52.874486 15945 net.cpp:156] Memory required for data: 1335929376
I0403 15:40:52.874500 15945 layer_factory.hpp:77] Creating layer inception_5b/pool
I0403 15:40:52.874517 15945 net.cpp:91] Creating Layer inception_5b/pool
I0403 15:40:52.874533 15945 net.cpp:425] inception_5b/pool <- inception_5a/output_inception_5a/output_0_split_3
I0403 15:40:52.874553 15945 net.cpp:399] inception_5b/pool -> inception_5b/pool
I0403 15:40:52.874635 15945 net.cpp:141] Setting up inception_5b/pool
I0403 15:40:52.874660 15945 net.cpp:148] Top shape: 24 832 7 7 (978432)
I0403 15:40:52.874673 15945 net.cpp:156] Memory required for data: 1339843104
I0403 15:40:52.874686 15945 layer_factory.hpp:77] Creating layer inception_5b/pool_proj
I0403 15:40:52.874708 15945 net.cpp:91] Creating Layer inception_5b/pool_proj
I0403 15:40:52.874724 15945 net.cpp:425] inception_5b/pool_proj <- inception_5b/pool
I0403 15:40:52.874744 15945 net.cpp:399] inception_5b/pool_proj -> inception_5b/pool_proj
I0403 15:40:52.877014 15945 net.cpp:141] Setting up inception_5b/pool_proj
I0403 15:40:52.877043 15945 net.cpp:148] Top shape: 24 128 7 7 (150528)
I0403 15:40:52.877058 15945 net.cpp:156] Memory required for data: 1340445216
I0403 15:40:52.877076 15945 layer_factory.hpp:77] Creating layer inception_5b/relu_pool_proj
I0403 15:40:52.877095 15945 net.cpp:91] Creating Layer inception_5b/relu_pool_proj
I0403 15:40:52.877112 15945 net.cpp:425] inception_5b/relu_pool_proj <- inception_5b/pool_proj
I0403 15:40:52.877130 15945 net.cpp:386] inception_5b/relu_pool_proj -> inception_5b/pool_proj (in-place)
I0403 15:40:52.877424 15945 net.cpp:141] Setting up inception_5b/relu_pool_proj
I0403 15:40:52.877449 15945 net.cpp:148] Top shape: 24 128 7 7 (150528)
I0403 15:40:52.877463 15945 net.cpp:156] Memory required for data: 1341047328
I0403 15:40:52.877476 15945 layer_factory.hpp:77] Creating layer inception_5b/output
I0403 15:40:52.877493 15945 net.cpp:91] Creating Layer inception_5b/output
I0403 15:40:52.877523 15945 net.cpp:425] inception_5b/output <- inception_5b/1x1
I0403 15:40:52.877539 15945 net.cpp:425] inception_5b/output <- inception_5b/3x3
I0403 15:40:52.877554 15945 net.cpp:425] inception_5b/output <- inception_5b/5x5
I0403 15:40:52.877570 15945 net.cpp:425] inception_5b/output <- inception_5b/pool_proj
I0403 15:40:52.877589 15945 net.cpp:399] inception_5b/output -> inception_5b/output
I0403 15:40:52.877646 15945 net.cpp:141] Setting up inception_5b/output
I0403 15:40:52.877670 15945 net.cpp:148] Top shape: 24 1024 7 7 (1204224)
I0403 15:40:52.877682 15945 net.cpp:156] Memory required for data: 1345864224
I0403 15:40:52.877696 15945 layer_factory.hpp:77] Creating layer pool5/7x7_s1
I0403 15:40:52.877712 15945 net.cpp:91] Creating Layer pool5/7x7_s1
I0403 15:40:52.877727 15945 net.cpp:425] pool5/7x7_s1 <- inception_5b/output
I0403 15:40:52.877746 15945 net.cpp:399] pool5/7x7_s1 -> pool5/7x7_s1
I0403 15:40:52.877975 15945 net.cpp:141] Setting up pool5/7x7_s1
I0403 15:40:52.878000 15945 net.cpp:148] Top shape: 24 1024 1 1 (24576)
I0403 15:40:52.878015 15945 net.cpp:156] Memory required for data: 1345962528
I0403 15:40:52.878028 15945 layer_factory.hpp:77] Creating layer pool5/drop_7x7_s1
I0403 15:40:52.878048 15945 net.cpp:91] Creating Layer pool5/drop_7x7_s1
I0403 15:40:52.878065 15945 net.cpp:425] pool5/drop_7x7_s1 <- pool5/7x7_s1
I0403 15:40:52.878094 15945 net.cpp:386] pool5/drop_7x7_s1 -> pool5/7x7_s1 (in-place)
I0403 15:40:52.878144 15945 net.cpp:141] Setting up pool5/drop_7x7_s1
I0403 15:40:52.878166 15945 net.cpp:148] Top shape: 24 1024 1 1 (24576)
I0403 15:40:52.878180 15945 net.cpp:156] Memory required for data: 1346060832
I0403 15:40:52.878192 15945 layer_factory.hpp:77] Creating layer loss3/classifier_plantvillage
I0403 15:40:52.878211 15945 net.cpp:91] Creating Layer loss3/classifier_plantvillage
I0403 15:40:52.878226 15945 net.cpp:425] loss3/classifier_plantvillage <- pool5/7x7_s1
I0403 15:40:52.878245 15945 net.cpp:399] loss3/classifier_plantvillage -> loss3/classifier_plantvillage
I0403 15:40:52.878671 15945 net.cpp:141] Setting up loss3/classifier_plantvillage
I0403 15:40:52.878695 15945 net.cpp:148] Top shape: 24 38 (912)
I0403 15:40:52.878708 15945 net.cpp:156] Memory required for data: 1346064480
I0403 15:40:52.878726 15945 layer_factory.hpp:77] Creating layer loss3/classifier_plantvillage_loss3/classifier_plantvillage_0_split
I0403 15:40:52.878742 15945 net.cpp:91] Creating Layer loss3/classifier_plantvillage_loss3/classifier_plantvillage_0_split
I0403 15:40:52.878757 15945 net.cpp:425] loss3/classifier_plantvillage_loss3/classifier_plantvillage_0_split <- loss3/classifier_plantvillage
I0403 15:40:52.878778 15945 net.cpp:399] loss3/classifier_plantvillage_loss3/classifier_plantvillage_0_split -> loss3/classifier_plantvillage_loss3/classifier_plantvillage_0_split_0
I0403 15:40:52.878798 15945 net.cpp:399] loss3/classifier_plantvillage_loss3/classifier_plantvillage_0_split -> loss3/classifier_plantvillage_loss3/classifier_plantvillage_0_split_1
I0403 15:40:52.878818 15945 net.cpp:399] loss3/classifier_plantvillage_loss3/classifier_plantvillage_0_split -> loss3/classifier_plantvillage_loss3/classifier_plantvillage_0_split_2
I0403 15:40:52.878836 15945 net.cpp:399] loss3/classifier_plantvillage_loss3/classifier_plantvillage_0_split -> loss3/classifier_plantvillage_loss3/classifier_plantvillage_0_split_3
I0403 15:40:52.878934 15945 net.cpp:141] Setting up loss3/classifier_plantvillage_loss3/classifier_plantvillage_0_split
I0403 15:40:52.878957 15945 net.cpp:148] Top shape: 24 38 (912)
I0403 15:40:52.878971 15945 net.cpp:148] Top shape: 24 38 (912)
I0403 15:40:52.878985 15945 net.cpp:148] Top shape: 24 38 (912)
I0403 15:40:52.879000 15945 net.cpp:148] Top shape: 24 38 (912)
I0403 15:40:52.879014 15945 net.cpp:156] Memory required for data: 1346079072
I0403 15:40:52.879026 15945 layer_factory.hpp:77] Creating layer loss1/loss
I0403 15:40:52.879047 15945 net.cpp:91] Creating Layer loss1/loss
I0403 15:40:52.879063 15945 net.cpp:425] loss1/loss <- loss1/classifier_plantvillage_loss1/classifier_plantvillage_0_split_0
I0403 15:40:52.879092 15945 net.cpp:425] loss1/loss <- label_data_1_split_0
…
