…
I0403 16:38:27.645380 18784 net.cpp:313] The NetState phase (1) differed from the phase (0) specified by a rule in layer data
I0403 16:38:27.646498 18784 net.cpp:49] Initializing net from parameters: 
state {
  phase: TEST
}
layer {
  name: "data"
  type: "Data"
  top: "data"
  top: "label"
  include {
    phase: TEST
  }
  transform_param {
    mirror: false
    crop_size: 224
    mean_file: "/home/mohanty/data/final_dataset/lmdb/segmented-20-80/mean.binaryproto"
  }
  data_param {
    source: "/home/mohanty/data/final_dataset/lmdb/segmented-20-80/test_db"
    batch_size: 24
    backend: LMDB
  }
}
layer {
  name: "conv1/7x7_s2"
  type: "Convolution"
  bottom: "data"
  top: "conv1/7x7_s2"
  param {
    lr_mult: 1
    decay_mult: 1
  }
  param {
    lr_mult: 2
    decay_mult: 0
  }
  convolution_param {
    num_output: 64
    pad: 3
    kernel_size: 7
    stride: 2
    weight_filler {
      type: "xavier"
      std: 0.1
    }
    bias_filler {
      type: "constant"
      value: 0.2
    }
  }
}
layer {
  name: "conv1/relu_7x7"
  type: "ReLU"
  bottom: "conv1/7x7_s2"
  top: "conv1/7x7_s2"
}
layer {
  name: "pool1/3x3_s2"
  type: "Pooling"
  bottom: "conv1/7x7_s2"
  top: "pool1/3x3_s2"
  pooling_param {
    pool: MAX
    kernel_size: 3
    stride: 2
  }
}
layer {
  name: "pool1/norm1"
  type: "LRN"
  bottom: "pool1/3x3_s2"
  top: "pool1/norm1"
  lrn_param {
    local_size: 5
    alpha: 0.0001
    beta: 0.75
  }
}
layer {
  name: "conv2/3x3_reduce"
  type: "Convolution"
  bottom: "pool1/norm1"
  top: "conv2/3x3_reduce"
  param {
    lr_mult: 1
    decay_mult: 1
  }
  param {
    lr_mult: 2
    decay_mult: 0
  }
  convolution_param {
    num_output: 64
    kernel_size: 1
    weight_filler {
      type: "xavier"
      std: 0.1
    }
    bias_filler {
      type: "constant"
      value: 0.2
    }
  }
}
layer {
  name: "conv2/relu_3x3_reduce"
  type: "ReLU"
  bottom: "conv2/3x3_reduce"
  top: "conv2/3x3_reduce"
}
layer {
  name: "conv2/3x3"
  type: "Convolution"
  bottom: "conv2/3x3_reduce"
  top: "conv2/3x3"
  param {
    lr_mult: 1
    decay_mult: 1
  }
  param {
    lr_mult: 2
    decay_mult: 0
  }
  convolution_param {
    num_output: 192
    pad: 1
    kernel_size: 3
    weight_filler {
      type: "xavier"
      std: 0.03
    }
    bias_filler {
      type: "constant"
      value: 0.2
    }
  }
}
layer {
  name: "conv2/relu_3x3"
  type: "ReLU"
  bottom: "conv2/3x3"
  top: "conv2/3x3"
}
layer {
  name: "conv2/norm2"
  type: "LRN"
  bottom: "conv2/3x3"
  top: "conv2/norm2"
  lrn_param {
    local_size: 5
    alpha: 0.0001
    beta: 0.75
  }
}
layer {
  name: "pool2/3x3_s2"
  type: "Pooling"
  bottom: "conv2/norm2"
  top: "pool2/3x3_s2"
  pooling_param {
    pool: MAX
    kernel_size: 3
    stride: 2
  }
}
layer {
  name: "inception_3a/1x1"
  type: "Convolution"
  bottom: "pool2/3x3_s2"
  top: "inception_3a/1x1"
  param {
    lr_mult: 1
    decay_mult: 1
  }
  param {
    lr_mult: 2
    decay_mult: 0
  }
  convolution_param {
    num_output: 64
    kernel_size: 1
    weight_filler {
      type: "xavier"
      std: 0.03
    }
    bias_filler {
      type: "constant"
      value: 0.2
    }
  }
}
layer {
  name: "inception_3a/relu_1x1"
  type: "ReLU"
  bottom: "inception_3a/1x1"
  top: "inception_3a/1x1"
}
layer {
  name: "inception_3a/3x3_reduce"
  type: "Convolution"
  bottom: "pool2/3x3_s2"
  top: "inception_3a/3x3_reduce"
  param {
    lr_mult: 1
    decay_mult: 1
  }
  param {
    lr_mult: 2
    decay_mult: 0
  }
  convolution_param {
    num_output: 96
    kernel_size: 1
    weight_filler {
      type: "xavier"
      std: 0.09
    }
    bias_filler {
      type: "constant"
      value: 0.2
    }
  }
}
layer {
  name: "inception_3a/relu_3x3_reduce"
  type: "ReLU"
  bottom: "inception_3a/3x3_reduce"
  top: "inception_3a/3x3_reduce"
}
layer {
  name: "inception_3a/3x3"
  type: "Convolution"
  bottom: "inception_3a/3x3_reduce"
  top: "inception_3a/3x3"
  param {
    lr_mult: 1
    decay_mult: 1
  }
  param {
    lr_mult: 2
    decay_mult: 0
  }
  convolution_param {
    num_output: 128
    pad: 1
    kernel_size: 3
    weight_filler {
      type: "xavier"
      std: 0.03
    }
    bias_filler {
      type: "constant"
      value: 0.2
    }
  }
}
layer {
  name: "inception_3a/relu_3x3"
  type: "ReLU"
  bottom: "inception_3a/3x3"
  top: "inception_3a/3x3"
}
layer {
  name: "inception_3a/5x5_reduce"
  type: "Convolution"
  bottom: "pool2/3x3_s2"
  top: "inception_3a/5x5_reduce"
  param {
    lr_mult: 1
    decay_mult: 1
  }
  param {
    lr_mult: 2
    decay_mult: 0
  }
  convolution_param {
    num_output: 16
    kernel_size: 1
    weight_filler {
      type: "xavier"
      std: 0.2
    }
    bias_filler {
      type: "constant"
      value: 0.2
    }
  }
}
layer {
  name: "inception_3a/relu_5x5_reduce"
  type: "ReLU"
  bottom: "inception_3a/5x5_reduce"
  top: "inception_3a/5x5_reduce"
}
layer {
  name: "inception_3a/5x5"
  type: "Convolution"
  bottom: "inception_3a/5x5_reduce"
  top: "inception_3a/5x5"
  param {
    lr_mult: 1
    decay_mult: 1
  }
  param {
    lr_mult: 2
    decay_mult: 0
  }
  convolution_param {
    num_output: 32
    pad: 2
    kernel_size: 5
    weight_filler {
      type: "xavier"
      std: 0.03
    }
    bias_filler {
      type: "constant"
      value: 0.2
    }
  }
}
layer {
  name: "inception_3a/relu_5x5"
  type: "ReLU"
  bottom: "inception_3a/5x5"
  top: "inception_3a/5x5"
}
layer {
  name: "inception_3a/pool"
  type: "Pooling"
  bottom: "pool2/3x3_s2"
  top: "inception_3a/pool"
  pooling_param {
    pool: MAX
    kernel_size: 3
    stride: 1
    pad: 1
  }
}
layer {
  name: "inception_3a/pool_proj"
  type: "Convolution"
  bottom: "inception_3a/pool"
  top: "inception_3a/pool_proj"
  param {
    lr_mult: 1
    decay_mult: 1
  }
  param {
    lr_mult: 2
    decay_mult: 0
  }
  convolution_param {
    num_output: 32
    kernel_size: 1
    weight_filler {
      type: "xavier"
      std: 0.1
    }
    bias_filler {
      type: "constant"
      value: 0.2
    }
  }
}
layer {
  name: "inception_3a/relu_pool_proj"
  type: "ReLU"
  bottom: "inception_3a/pool_proj"
  top: "inception_3a/pool_proj"
}
layer {
  name: "inception_3a/output"
  type: "Concat"
  bottom: "inception_3a/1x1"
  bottom: "inception_3a/3x3"
  bottom: "inception_3a/5x5"
  bottom: "inception_3a/pool_proj"
  top: "inception_3a/output"
}
layer {
  name: "inception_3b/1x1"
  type: "Convolution"
  bottom: "inception_3a/output"
  top: "inception_3b/1x1"
  param {
    lr_mult: 1
    decay_mult: 1
  }
  param {
    lr_mult: 2
    decay_mult: 0
  }
  convolution_param {
    num_output: 128
    kernel_size: 1
    weight_filler {
      type: "xavier"
      std: 0.03
    }
    bias_filler {
      type: "constant"
      value: 0.2
    }
  }
}
layer {
  name: "inception_3b/relu_1x1"
  type: "ReLU"
  bottom: "inception_3b/1x1"
  top: "inception_3b/1x1"
}
layer {
  name: "inception_3b/3x3_reduce"
  type: "Convolution"
  bottom: "inception_3a/output"
  top: "inception_3b/3x3_reduce"
  param {
    lr_mult: 1
    decay_mult: 1
  }
  param {
    lr_mult: 2
    decay_mult: 0
  }
  convolution_param {
    num_output: 128
    kernel_size: 1
    weight_filler {
      type: "xavier"
      std: 0.09
    }
    bias_filler {
      type: "constant"
      value: 0.2
    }
  }
}
layer {
  name: "inception_3b/relu_3x3_reduce"
  type: "ReLU"
  bottom: "inception_3b/3x3_reduce"
  top: "inception_3b/3x3_reduce"
}
layer {
  name: "inception_3b/3x3"
  type: "Convolution"
  bottom: "inception_3b/3x3_reduce"
  top: "inception_3b/3x3"
  param {
    lr_mult: 1
    decay_mult: 1
  }
  param {
    lr_mult: 2
    decay_mult: 0
  }
  convolution_param {
    num_output: 192
    pad: 1
    kernel_size: 3
    weight_filler {
      type: "xavier"
      std: 0.03
    }
    bias_filler {
      type: "constant"
      value: 0.2
    }
  }
}
layer {
  name: "inception_3b/relu_3x3"
  type: "ReLU"
  bottom: "inception_3b/3x3"
  top: "inception_3b/3x3"
}
layer {
  name: "inception_3b/5x5_reduce"
  type: "Convolution"
  bottom: "inception_3a/output"
  top: "inception_3b/5x5_reduce"
  param {
    lr_mult: 1
    decay_mult: 1
  }
  param {
    lr_mult: 2
    decay_mult: 0
  }
  convolution_param {
    num_output: 32
    kernel_size: 1
    weight_filler {
      type: "xavier"
      std: 0.2
    }
    bias_filler {
      type: "constant"
      value: 0.2
    }
  }
}
layer {
  name: "inception_3b/relu_5x5_reduce"
  type: "ReLU"
  bottom: "inception_3b/5x5_reduce"
  top: "inception_3b/5x5_reduce"
}
layer {
  name: "inception_3b/5x5"
  type: "Convolution"
  bottom: "inception_3b/5x5_reduce"
  top: "inception_3b/5x5"
  param {
    lr_mult: 1
    decay_mult: 1
  }
  param {
    lr_mult: 2
    decay_mult: 0
  }
  convolution_param {
    num_output: 96
    pad: 2
    kernel_size: 5
    weight_filler {
      type: "xavier"
      std: 0.03
    }
    bias_filler {
      type: "constant"
      value: 0.2
    }
  }
}
layer {
  name: "inception_3b/relu_5x5"
  type: "ReLU"
  bottom: "inception_3b/5x5"
  top: "inception_3b/5x5"
}
layer {
  name: "inception_3b/pool"
  type: "Pooling"
  bottom: "inception_3a/output"
  top: "inception_3b/pool"
  pooling_param {
    pool: MAX
    kernel_size: 3
    stride: 1
    pad: 1
  }
}
layer {
  name: "inception_3b/pool_proj"
  type: "Convolution"
  bottom: "inception_3b/pool"
  top: "inception_3b/pool_proj"
  param {
    lr_mult: 1
    decay_mult: 1
  }
  param {
    lr_mult: 2
    decay_mult: 0
  }
  convolution_param {
    num_output: 64
    kernel_size: 1
    weight_filler {
      type: "xavier"
      std: 0.1
    }
    bias_filler {
      type: "constant"
      value: 0.2
    }
  }
}
layer {
  name: "inception_3b/relu_pool_proj"
  type: "ReLU"
  bottom: "inception_3b/pool_proj"
  top: "inception_3b/pool_proj"
}
layer {
  name: "inception_3b/output"
  type: "Concat"
  bottom: "inception_3b/1x1"
  bottom: "inception_3b/3x3"
  bottom: "inception_3b/5x5"
  bottom: "inception_3b/pool_proj"
  top: "inception_3b/output"
}
layer {
  name: "pool3/3x3_s2"
  type: "Pooling"
  bottom: "inception_3b/output"
  top: "pool3/3x3_s2"
  pooling_param {
    pool: MAX
    kernel_size: 3
    stride: 2
  }
}
layer {
  name: "inception_4a/1x1"
  type: "Convolution"
  bottom: "pool3/3x3_s2"
  top: "inception_4a/1x1"
  param {
    lr_mult: 1
    decay_mult: 1
  }
  param {
    lr_mult: 2
    decay_mult: 0
  }
  convolution_param {
    num_output: 192
    kernel_size: 1
    weight_filler {
      type: "xavier"
      std: 0.03
    }
    bias_filler {
      type: "constant"
      value: 0.2
    }
  }
}
layer {
  name: "inception_4a/relu_1x1"
  type: "ReLU"
  bottom: "inception_4a/1x1"
  top: "inception_4a/1x1"
}
layer {
  name: "inception_4a/3x3_reduce"
  type: "Convolution"
  bottom: "pool3/3x3_s2"
  top: "inception_4a/3x3_reduce"
  param {
    lr_mult: 1
    decay_mult: 1
  }
  param {
    lr_mult: 2
    decay_mult: 0
  }
  convolution_param {
    num_output: 96
    kernel_size: 1
    weight_filler {
      type: "xavier"
      std: 0.09
    }
    bias_filler {
      type: "constant"
      value: 0.2
    }
  }
}
layer {
  name: "inception_4a/relu_3x3_reduce"
  type: "ReLU"
  bottom: "inception_4a/3x3_reduce"
  top: "inception_4a/3x3_reduce"
}
layer {
  name: "inception_4a/3x3"
  type: "Convolution"
  bottom: "inception_4a/3x3_reduce"
  top: "inception_4a/3x3"
  param {
    lr_mult: 1
    decay_mult: 1
  }
  param {
    lr_mult: 2
    decay_mult: 0
  }
  convolution_param {
    num_output: 208
    pad: 1
    kernel_size: 3
    weight_filler {
      type: "xavier"
      std: 0.03
    }
    bias_filler {
      type: "constant"
      value: 0.2
    }
  }
}
layer {
  name: "inception_4a/relu_3x3"
  type: "ReLU"
  bottom: "inception_4a/3x3"
  top: "inception_4a/3x3"
}
layer {
  name: "inception_4a/5x5_reduce"
  type: "Convolution"
  bottom: "pool3/3x3_s2"
  top: "inception_4a/5x5_reduce"
  param {
    lr_mult: 1
    decay_mult: 1
  }
  param {
    lr_mult: 2
    decay_mult: 0
  }
  convolution_param {
    num_output: 16
    kernel_size: 1
    weight_filler {
      type: "xavier"
      std: 0.2
    }
    bias_filler {
      type: "constant"
      value: 0.2
    }
  }
}
layer {
  name: "inception_4a/relu_5x5_reduce"
  type: "ReLU"
  bottom: "inception_4a/5x5_reduce"
  top: "inception_4a/5x5_reduce"
}
layer {
  name: "inception_4a/5x5"
  type: "Convolution"
  bottom: "inception_4a/5x5_reduce"
  top: "inception_4a/5x5"
  param {
    lr_mult: 1
    decay_mult: 1
  }
  param {
    lr_mult: 2
    decay_mult: 0
  }
  convolution_param {
    num_output: 48
    pad: 2
    kernel_size: 5
    weight_filler {
      type: "xavier"
      std: 0.03
    }
    bias_filler {
      type: "constant"
      value: 0.2
    }
  }
}
layer {
  name: "inception_4a/relu_5x5"
  type: "ReLU"
  bottom: "inception_4a/5x5"
  top: "inception_4a/5x5"
}
layer {
  name: "inception_4a/pool"
  type: "Pooling"
  bottom: "pool3/3x3_s2"
  top: "inception_4a/pool"
  pooling_param {
    pool: MAX
    kernel_size: 3
    stride: 1
    pad: 1
  }
}
layer {
  name: "inception_4a/pool_proj"
  type: "Convolution"
  bottom: "inception_4a/pool"
  top: "inception_4a/pool_proj"
  param {
    lr_mult: 1
    decay_mult: 1
  }
  param {
    lr_mult: 2
    decay_mult: 0
  }
  convolution_param {
    num_output: 64
    kernel_size: 1
    weight_filler {
      type: "xavier"
      std: 0.1
    }
    bias_filler {
      type: "constant"
      value: 0.2
    }
  }
}
layer {
  name: "inception_4a/relu_pool_proj"
  type: "ReLU"
  bottom: "inception_4a/pool_proj"
  top: "inception_4a/pool_proj"
}
layer {
  name: "inception_4a/output"
  type: "Concat"
  bottom: "inception_4a/1x1"
  bottom: "inception_4a/3x3"
  bottom: "inception_4a/5x5"
  bottom: "inception_4a/pool_proj"
  top: "inception_4a/output"
}
layer {
  name: "loss1/ave_pool"
  type: "Pooling"
  bottom: "inception_4a/output"
  top: "loss1/ave_pool"
  pooling_param {
    pool: AVE
    kernel_size: 5
    stride: 3
  }
}
layer {
  name: "loss1/conv"
  type: "Convolution"
  bottom: "loss1/ave_pool"
  top: "loss1/conv"
  param {
    lr_mult: 1
    decay_mult: 1
  }
  param {
    lr_mult: 2
    decay_mult: 0
  }
  convolution_param {
    num_output: 128
    kernel_size: 1
    weight_filler {
      type: "xavier"
      std: 0.08
    }
    bias_filler {
      type: "constant"
      value: 0.2
    }
  }
}
layer {
  name: "loss1/relu_conv"
  type: "ReLU"
  bottom: "loss1/conv"
  top: "loss1/conv"
}
layer {
  name: "loss1/fc"
  type: "InnerProduct"
  bottom: "loss1/conv"
  top: "loss1/fc"
  param {
    lr_mult: 1
    decay_mult: 1
  }
  param {
    lr_mult: 2
    decay_mult: 0
  }
  inner_product_param {
    num_output: 1024
    weight_filler {
      type: "xavier"
      std: 0.02
    }
    bias_filler {
      type: "constant"
      value: 0.2
    }
  }
}
layer {
  name: "loss1/relu_fc"
  type: "ReLU"
  bottom: "loss1/fc"
  top: "loss1/fc"
}
layer {
  name: "loss1/drop_fc"
  type: "Dropout"
  bottom: "loss1/fc"
  top: "loss1/fc"
  dropout_param {
    dropout_ratio: 0.7
  }
}
layer {
  name: "loss1/classifier_plantvillage"
  type: "InnerProduct"
  bottom: "loss1/fc"
  top: "loss1/classifier_plantvillage"
  param {
    lr_mult: 1
    decay_mult: 1
  }
  param {
    lr_mult: 2
    decay_mult: 0
  }
  inner_product_param {
    num_output: 38
    weight_filler {
      type: "xavier"
      std: 0.0009765625
    }
    bias_filler {
      type: "constant"
      value: 0
    }
  }
}
layer {
  name: "inception_4b/1x1"
  type: "Convolution"
  bottom: "inception_4a/output"
  top: "inception_4b/1x1"
  param {
    lr_mult: 1
    decay_mult: 1
  }
  param {
    lr_mult: 2
    decay_mult: 0
  }
  convolution_param {
    num_output: 160
    kernel_size: 1
    weight_filler {
      type: "xavier"
      std: 0.03
    }
    bias_filler {
      type: "constant"
      value: 0.2
    }
  }
}
layer {
  name: "inception_4b/relu_1x1"
  type: "ReLU"
  bottom: "inception_4b/1x1"
  top: "inception_4b/1x1"
}
layer {
  name: "inception_4b/3x3_reduce"
  type: "Convolution"
  bottom: "inception_4a/output"
  top: "inception_4b/3x3_reduce"
  param {
    lr_mult: 1
    decay_mult: 1
  }
  param {
    lr_mult: 2
    decay_mult: 0
  }
  convolution_param {
    num_output: 112
    kernel_size: 1
    weight_filler {
      type: "xavier"
      std: 0.09
    }
    bias_filler {
      type: "constant"
      value: 0.2
    }
  }
}
layer {
  name: "inception_4b/relu_3x3_reduce"
  type: "ReLU"
  bottom: "inception_4b/3x3_reduce"
  top: "inception_4b/3x3_reduce"
}
layer {
  name: "inception_4b/3x3"
  type: "Convolution"
  bottom: "inception_4b/3x3_reduce"
  top: "inception_4b/3x3"
  param {
    lr_mult: 1
    decay_mult: 1
  }
  param {
    lr_mult: 2
    decay_mult: 0
  }
  convolution_param {
    num_output: 224
    pad: 1
    kernel_size: 3
    weight_filler {
      type: "xavier"
      std: 0.03
    }
    bias_filler {
      type: "constant"
      value: 0.2
    }
  }
}
layer {
  name: "inception_4b/relu_3x3"
  type: "ReLU"
  bottom: "inception_4b/3x3"
  top: "inception_4b/3x3"
}
layer {
  name: "inception_4b/5x5_reduce"
  type: "Convolution"
  bottom: "inception_4a/output"
  top: "inception_4b/5x5_reduce"
  param {
    lr_mult: 1
    decay_mult: 1
  }
  param {
    lr_mult: 2
    decay_mult: 0
  }
  convolution_param {
    num_output: 24
    kernel_size: 1
    weight_filler {
      type: "xavier"
      std: 0.2
    }
    bias_filler {
      type: "constant"
      value: 0.2
    }
  }
}
layer {
  name: "inception_4b/relu_5x5_reduce"
  type: "ReLU"
  bottom: "inception_4b/5x5_reduce"
  top: "inception_4b/5x5_reduce"
}
layer {
  name: "inception_4b/5x5"
  type: "Convolution"
  bottom: "inception_4b/5x5_reduce"
  top: "inception_4b/5x5"
  param {
    lr_mult: 1
    decay_mult: 1
  }
  param {
    lr_mult: 2
    decay_mult: 0
  }
  convolution_param {
    num_output: 64
    pad: 2
    kernel_size: 5
    weight_filler {
      type: "xavier"
      std: 0.03
    }
    bias_filler {
      type: "constant"
      value: 0.2
    }
  }
}
layer {
  name: "inception_4b/relu_5x5"
  type: "ReLU"
  bottom: "inception_4b/5x5"
  top: "inception_4b/5x5"
}
layer {
  name: "inception_4b/pool"
  type: "Pooling"
  bottom: "inception_4a/output"
  top: "inception_4b/pool"
  pooling_param {
    pool: MAX
    kernel_size: 3
    stride: 1
    pad: 1
  }
}
layer {
  name: "inception_4b/pool_proj"
  type: "Convolution"
  bottom: "inception_4b/pool"
  top: "inception_4b/pool_proj"
  param {
    lr_mult: 1
    decay_mult: 1
  }
  param {
    lr_mult: 2
    decay_mult: 0
  }
  convolution_param {
    num_output: 64
    kernel_size: 1
    weight_filler {
      type: "xavier"
      std: 0.1
    }
    bias_filler {
      type: "constant"
      value: 0.2
    }
  }
}
layer {
  name: "inception_4b/relu_pool_proj"
  type: "ReLU"
  bottom: "inception_4b/pool_proj"
  top: "inception_4b/pool_proj"
}
layer {
  name: "inception_4b/output"
  type: "Concat"
  bottom: "inception_4b/1x1"
  bottom: "inception_4b/3x3"
  bottom: "inception_4b/5x5"
  bottom: "inception_4b/pool_proj"
  top: "inception_4b/output"
}
layer {
  name: "inception_4c/1x1"
  type: "Convolution"
  bottom: "inception_4b/output"
  top: "inception_4c/1x1"
  param {
    lr_mult: 1
    decay_mult: 1
  }
  param {
    lr_mult: 2
    decay_mult: 0
  }
  convolution_param {
    num_output: 128
    kernel_size: 1
    weight_filler {
      type: "xavier"
      std: 0.03
    }
    bias_filler {
      type: "constant"
      value: 0.2
    }
  }
}
layer {
  name: "inception_4c/relu_1x1"
  type: "ReLU"
  bottom: "inception_4c/1x1"
  top: "inception_4c/1x1"
}
layer {
  name: "inception_4c/3x3_reduce"
  type: "Convolution"
  bottom: "inception_4b/output"
  top: "inception_4c/3x3_reduce"
  param {
    lr_mult: 1
    decay_mult: 1
  }
  param {
    lr_mult: 2
    decay_mult: 0
  }
  convolution_param {
    num_output: 128
    kernel_size: 1
    weight_filler {
      type: "xavier"
      std: 0.09
    }
    bias_filler {
      type: "constant"
      value: 0.2
    }
  }
}
layer {
  name: "inception_4c/relu_3x3_reduce"
  type: "ReLU"
  bottom: "inception_4c/3x3_reduce"
  top: "inception_4c/3x3_reduce"
}
layer {
  name: "inception_4c/3x3"
  type: "Convolution"
  bottom: "inception_4c/3x3_reduce"
  top: "inception_4c/3x3"
  param {
    lr_mult: 1
    decay_mult: 1
  }
  param {
    lr_mult: 2
    decay_mult: 0
  }
  convolution_param {
    num_output: 256
    pad: 1
    kernel_size: 3
    weight_filler {
      type: "xavier"
      std: 0.03
    }
    bias_filler {
      type: "constant"
      value: 0.2
    }
  }
}
layer {
  name: "inception_4c/relu_3x3"
  type: "ReLU"
  bottom: "inception_4c/3x3"
  top: "inception_4c/3x3"
}
layer {
  name: "inception_4c/5x5_reduce"
  type: "Convolution"
  bottom: "inception_4b/output"
  top: "inception_4c/5x5_reduce"
  param {
    lr_mult: 1
    decay_mult: 1
  }
  param {
    lr_mult: 2
    decay_mult: 0
  }
  convolution_param {
    num_output: 24
    kernel_size: 1
    weight_filler {
      type: "xavier"
      std: 0.2
    }
    bias_filler {
      type: "constant"
      value: 0.2
    }
  }
}
layer {
  name: "inception_4c/relu_5x5_reduce"
  type: "ReLU"
  bottom: "inception_4c/5x5_reduce"
  top: "inception_4c/5x5_reduce"
}
layer {
  name: "inception_4c/5x5"
  type: "Convolution"
  bottom: "inception_4c/5x5_reduce"
  top: "inception_4c/5x5"
  param {
    lr_mult: 1
    decay_mult: 1
  }
  param {
    lr_mult: 2
    decay_mult: 0
  }
  convolution_param {
    num_output: 64
    pad: 2
    kernel_size: 5
    weight_filler {
      type: "xavier"
      std: 0.03
    }
    bias_filler {
      type: "constant"
      value: 0.2
    }
  }
}
layer {
  name: "inception_4c/relu_5x5"
  type: "ReLU"
  bottom: "inception_4c/5x5"
  top: "inception_4c/5x5"
}
layer {
  name: "inception_4c/pool"
  type: "Pooling"
  bottom: "inception_4b/output"
  top: "inception_4c/pool"
  pooling_param {
    pool: MAX
    kernel_size: 3
    stride: 1
    pad: 1
  }
}
layer {
  name: "inception_4c/pool_proj"
  type: "Convolution"
  bottom: "inception_4c/pool"
  top: "inception_4c/pool_proj"
  param {
    lr_mult: 1
    decay_mult: 1
  }
  param {
    lr_mult: 2
    decay_mult: 0
  }
  convolution_param {
    num_output: 64
    kernel_size: 1
    weight_filler {
      type: "xavier"
      std: 0.1
    }
    bias_filler {
      type: "constant"
      value: 0.2
    }
  }
}
layer {
  name: "inception_4c/relu_pool_proj"
  type: "ReLU"
  bottom: "inception_4c/pool_proj"
  top: "inception_4c/pool_proj"
}
layer {
  name: "inception_4c/output"
  type: "Concat"
  bottom: "inception_4c/1x1"
  bottom: "inception_4c/3x3"
  bottom: "inception_4c/5x5"
  bottom: "inception_4c/pool_proj"
  top: "inception_4c/output"
}
layer {
  name: "inception_4d/1x1"
  type: "Convolution"
  bottom: "inception_4c/output"
  top: "inception_4d/1x1"
  param {
    lr_mult: 1
    decay_mult: 1
  }
  param {
    lr_mult: 2
    decay_mult: 0
  }
  convolution_param {
    num_output: 112
    kernel_size: 1
    weight_filler {
      type: "xavier"
      std: 0.03
    }
    bias_filler {
      type: "constant"
      value: 0.2
    }
  }
}
layer {
  name: "inception_4d/relu_1x1"
  type: "ReLU"
  bottom: "inception_4d/1x1"
  top: "inception_4d/1x1"
}
layer {
  name: "inception_4d/3x3_reduce"
  type: "Convolution"
  bottom: "inception_4c/output"
  top: "inception_4d/3x3_reduce"
  param {
    lr_mult: 1
    decay_mult: 1
  }
  param {
    lr_mult: 2
    decay_mult: 0
  }
  convolution_param {
    num_output: 144
    kernel_size: 1
    weight_filler {
      type: "xavier"
      std: 0.09
    }
    bias_filler {
      type: "constant"
      value: 0.2
    }
  }
}
layer {
  name: "inception_4d/relu_3x3_reduce"
  type: "ReLU"
  bottom: "inception_4d/3x3_reduce"
  top: "inception_4d/3x3_reduce"
}
layer {
  name: "inception_4d/3x3"
  type: "Convolution"
  bottom: "inception_4d/3x3_reduce"
  top: "inception_4d/3x3"
  param {
    lr_mult: 1
    decay_mult: 1
  }
  param {
    lr_mult: 2
    decay_mult: 0
  }
  convolution_param {
    num_output: 288
    pad: 1
    kernel_size: 3
    weight_filler {
      type: "xavier"
      std: 0.03
    }
    bias_filler {
      type: "constant"
      value: 0.2
    }
  }
}
layer {
  name: "inception_4d/relu_3x3"
  type: "ReLU"
  bottom: "inception_4d/3x3"
  top: "inception_4d/3x3"
}
layer {
  name: "inception_4d/5x5_reduce"
  type: "Convolution"
  bottom: "inception_4c/output"
  top: "inception_4d/5x5_reduce"
  param {
    lr_mult: 1
    decay_mult: 1
  }
  param {
    lr_mult: 2
    decay_mult: 0
  }
  convolution_param {
    num_output: 32
    kernel_size: 1
    weight_filler {
      type: "xavier"
      std: 0.2
    }
    bias_filler {
      type: "constant"
      value: 0.2
    }
  }
}
layer {
  name: "inception_4d/relu_5x5_reduce"
  type: "ReLU"
  bottom: "inception_4d/5x5_reduce"
  top: "inception_4d/5x5_reduce"
}
layer {
  name: "inception_4d/5x5"
  type: "Convolution"
  bottom: "inception_4d/5x5_reduce"
  top: "inception_4d/5x5"
  param {
    lr_mult: 1
    decay_mult: 1
  }
  param {
    lr_mult: 2
    decay_mult: 0
  }
  convolution_param {
    num_output: 64
    pad: 2
    kernel_size: 5
    weight_filler {
      type: "xavier"
      std: 0.03
    }
    bias_filler {
      type: "constant"
      value: 0.2
    }
  }
}
layer {
  name: "inception_4d/relu_5x5"
  type: "ReLU"
  bottom: "inception_4d/5x5"
  top: "inception_4d/5x5"
}
layer {
  name: "inception_4d/pool"
  type: "Pooling"
  bottom: "inception_4c/output"
  top: "inception_4d/pool"
  pooling_param {
    pool: MAX
    kernel_size: 3
    stride: 1
    pad: 1
  }
}
layer {
  name: "inception_4d/pool_proj"
  type: "Convolution"
  bottom: "inception_4d/pool"
  top: "inception_4d/pool_proj"
  param {
    lr_mult: 1
    decay_mult: 1
  }
  param {
    lr_mult: 2
    decay_mult: 0
  }
  convolution_param {
    num_output: 64
    kernel_size: 1
    weight_filler {
      type: "xavier"
      std: 0.1
    }
    bias_filler {
      type: "constant"
      value: 0.2
    }
  }
}
layer {
  name: "inception_4d/relu_pool_proj"
  type: "ReLU"
  bottom: "inception_4d/pool_proj"
  top: "inception_4d/pool_proj"
}
layer {
  name: "inception_4d/output"
  type: "Concat"
  bottom: "inception_4d/1x1"
  bottom: "inception_4d/3x3"
  bottom: "inception_4d/5x5"
  bottom: "inception_4d/pool_proj"
  top: "inception_4d/output"
}
layer {
  name: "loss2/ave_pool"
  type: "Pooling"
  bottom: "inception_4d/output"
  top: "loss2/ave_pool"
  pooling_param {
    pool: AVE
    kernel_size: 5
    stride: 3
  }
}
layer {
  name: "loss2/conv"
  type: "Convolution"
  bottom: "loss2/ave_pool"
  top: "loss2/conv"
  param {
    lr_mult: 1
    decay_mult: 1
  }
  param {
    lr_mult: 2
    decay_mult: 0
  }
  convolution_param {
    num_output: 128
    kernel_size: 1
    weight_filler {
      type: "xavier"
      std: 0.08
    }
    bias_filler {
      type: "constant"
      value: 0.2
    }
  }
}
layer {
  name: "loss2/relu_conv"
  type: "ReLU"
  bottom: "loss2/conv"
  top: "loss2/conv"
}
layer {
  name: "loss2/fc"
  type: "InnerProduct"
  bottom: "loss2/conv"
  top: "loss2/fc"
  param {
    lr_mult: 1
    decay_mult: 1
  }
  param {
    lr_mult: 2
    decay_mult: 0
  }
  inner_product_param {
    num_output: 1024
    weight_filler {
      type: "xavier"
      std: 0.02
    }
    bias_filler {
      type: "constant"
      value: 0.2
    }
  }
}
layer {
  name: "loss2/relu_fc"
  type: "ReLU"
  bottom: "loss2/fc"
  top: "loss2/fc"
}
layer {
  name: "loss2/drop_fc"
  type: "Dropout"
  bottom: "loss2/fc"
  top: "loss2/fc"
  dropout_param {
    dropout_ratio: 0.7
  }
}
layer {
  name: "loss2/classifier_plantvillage"
  type: "InnerProduct"
  bottom: "loss2/fc"
  top: "loss2/classifier_plantvillage"
  param {
    lr_mult: 1
    decay_mult: 1
  }
  param {
    lr_mult: 2
    decay_mult: 0
  }
  inner_product_param {
    num_output: 38
    weight_filler {
      type: "xavier"
      std: 0.0009765625
    }
    bias_filler {
      type: "constant"
      value: 0
    }
  }
}
layer {
  name: "inception_4e/1x1"
  type: "Convolution"
  bottom: "inception_4d/output"
  top: "inception_4e/1x1"
  param {
    lr_mult: 1
    decay_mult: 1
  }
  param {
    lr_mult: 2
    decay_mult: 0
  }
  convolution_param {
    num_output: 256
    kernel_size: 1
    weight_filler {
      type: "xavier"
      std: 0.03
    }
    bias_filler {
      type: "constant"
      value: 0.2
    }
  }
}
layer {
  name: "inception_4e/relu_1x1"
  type: "ReLU"
  bottom: "inception_4e/1x1"
  top: "inception_4e/1x1"
}
layer {
  name: "inception_4e/3x3_reduce"
  type: "Convolution"
  bottom: "inception_4d/output"
  top: "inception_4e/3x3_reduce"
  param {
    lr_mult: 1
    decay_mult: 1
  }
  param {
    lr_mult: 2
    decay_mult: 0
  }
  convolution_param {
    num_output: 160
    kernel_size: 1
    weight_filler {
      type: "xavier"
      std: 0.09
    }
    bias_filler {
      type: "constant"
      value: 0.2
    }
  }
}
layer {
  name: "inception_4e/relu_3x3_reduce"
  type: "ReLU"
  bottom: "inception_4e/3x3_reduce"
  top: "inception_4e/3x3_reduce"
}
layer {
  name: "inception_4e/3x3"
  type: "Convolution"
  bottom: "inception_4e/3x3_reduce"
  top: "inception_4e/3x3"
  param {
    lr_mult: 1
    decay_mult: 1
  }
  param {
    lr_mult: 2
    decay_mult: 0
  }
  convolution_param {
    num_output: 320
    pad: 1
    kernel_size: 3
    weight_filler {
      type: "xavier"
      std: 0.03
    }
    bias_filler {
      type: "constant"
      value: 0.2
    }
  }
}
layer {
  name: "inception_4e/relu_3x3"
  type: "ReLU"
  bottom: "inception_4e/3x3"
  top: "inception_4e/3x3"
}
layer {
  name: "inception_4e/5x5_reduce"
  type: "Convolution"
  bottom: "inception_4d/output"
  top: "inception_4e/5x5_reduce"
  param {
    lr_mult: 1
    decay_mult: 1
  }
  param {
    lr_mult: 2
    decay_mult: 0
  }
  convolution_param {
    num_output: 32
    kernel_size: 1
    weight_filler {
      type: "xavier"
      std: 0.2
    }
    bias_filler {
      type: "constant"
      value: 0.2
    }
  }
}
layer {
  name: "inception_4e/relu_5x5_reduce"
  type: "ReLU"
  bottom: "inception_4e/5x5_reduce"
  top: "inception_4e/5x5_reduce"
}
layer {
  name: "inception_4e/5x5"
  type: "Convolution"
  bottom: "inception_4e/5x5_reduce"
  top: "inception_4e/
I0403 16:38:27.648011 18784 layer_factory.hpp:77] Creating layer data
I0403 16:38:27.648603 18784 net.cpp:91] Creating Layer data
I0403 16:38:27.648633 18784 net.cpp:399] data -> data
I0403 16:38:27.648684 18784 net.cpp:399] data -> label
I0403 16:38:27.648720 18784 data_transformer.cpp:25] Loading mean file from: /home/mohanty/data/final_dataset/lmdb/segmented-20-80/mean.binaryproto
I0403 16:38:27.649931 18787 db_lmdb.cpp:38] Opened lmdb /home/mohanty/data/final_dataset/lmdb/segmented-20-80/test_db
I0403 16:38:27.661520 18784 data_layer.cpp:41] output data size: 24,3,224,224
I0403 16:38:27.688500 18784 net.cpp:141] Setting up data
I0403 16:38:27.688581 18784 net.cpp:148] Top shape: 24 3 224 224 (3612672)
I0403 16:38:27.688604 18784 net.cpp:148] Top shape: 24 (24)
I0403 16:38:27.688618 18784 net.cpp:156] Memory required for data: 14450784
I0403 16:38:27.688645 18784 layer_factory.hpp:77] Creating layer label_data_1_split
I0403 16:38:27.688671 18784 net.cpp:91] Creating Layer label_data_1_split
I0403 16:38:27.688688 18784 net.cpp:425] label_data_1_split <- label
I0403 16:38:27.688720 18784 net.cpp:399] label_data_1_split -> label_data_1_split_0
I0403 16:38:27.688747 18784 net.cpp:399] label_data_1_split -> label_data_1_split_1
I0403 16:38:27.688767 18784 net.cpp:399] label_data_1_split -> label_data_1_split_2
I0403 16:38:27.688788 18784 net.cpp:399] label_data_1_split -> label_data_1_split_3
I0403 16:38:27.688807 18784 net.cpp:399] label_data_1_split -> label_data_1_split_4
I0403 16:38:27.688825 18784 net.cpp:399] label_data_1_split -> label_data_1_split_5
I0403 16:38:27.688843 18784 net.cpp:399] label_data_1_split -> label_data_1_split_6
I0403 16:38:27.688863 18784 net.cpp:399] label_data_1_split -> label_data_1_split_7
I0403 16:38:27.688882 18784 net.cpp:399] label_data_1_split -> label_data_1_split_8
I0403 16:38:27.688901 18784 net.cpp:399] label_data_1_split -> label_data_1_split_9
I0403 16:38:27.689014 18784 net.cpp:141] Setting up label_data_1_split
I0403 16:38:27.689036 18784 net.cpp:148] Top shape: 24 (24)
I0403 16:38:27.689054 18784 net.cpp:148] Top shape: 24 (24)
I0403 16:38:27.689069 18784 net.cpp:148] Top shape: 24 (24)
I0403 16:38:27.689084 18784 net.cpp:148] Top shape: 24 (24)
I0403 16:38:27.689098 18784 net.cpp:148] Top shape: 24 (24)
I0403 16:38:27.689112 18784 net.cpp:148] Top shape: 24 (24)
I0403 16:38:27.689127 18784 net.cpp:148] Top shape: 24 (24)
I0403 16:38:27.689142 18784 net.cpp:148] Top shape: 24 (24)
I0403 16:38:27.689157 18784 net.cpp:148] Top shape: 24 (24)
I0403 16:38:27.689172 18784 net.cpp:148] Top shape: 24 (24)
I0403 16:38:27.689220 18784 net.cpp:156] Memory required for data: 14451744
I0403 16:38:27.689235 18784 layer_factory.hpp:77] Creating layer conv1/7x7_s2
I0403 16:38:27.689266 18784 net.cpp:91] Creating Layer conv1/7x7_s2
I0403 16:38:27.689283 18784 net.cpp:425] conv1/7x7_s2 <- data
I0403 16:38:27.689302 18784 net.cpp:399] conv1/7x7_s2 -> conv1/7x7_s2
I0403 16:38:27.827386 18784 net.cpp:141] Setting up conv1/7x7_s2
I0403 16:38:27.827463 18784 net.cpp:148] Top shape: 24 64 112 112 (19267584)
I0403 16:38:27.827481 18784 net.cpp:156] Memory required for data: 91522080
I0403 16:38:27.827510 18784 layer_factory.hpp:77] Creating layer conv1/relu_7x7
I0403 16:38:27.827535 18784 net.cpp:91] Creating Layer conv1/relu_7x7
I0403 16:38:27.827553 18784 net.cpp:425] conv1/relu_7x7 <- conv1/7x7_s2
I0403 16:38:27.827579 18784 net.cpp:386] conv1/relu_7x7 -> conv1/7x7_s2 (in-place)
I0403 16:38:27.827846 18784 net.cpp:141] Setting up conv1/relu_7x7
I0403 16:38:27.827872 18784 net.cpp:148] Top shape: 24 64 112 112 (19267584)
I0403 16:38:27.827886 18784 net.cpp:156] Memory required for data: 168592416
I0403 16:38:27.827900 18784 layer_factory.hpp:77] Creating layer pool1/3x3_s2
I0403 16:38:27.827924 18784 net.cpp:91] Creating Layer pool1/3x3_s2
I0403 16:38:27.827940 18784 net.cpp:425] pool1/3x3_s2 <- conv1/7x7_s2
I0403 16:38:27.827960 18784 net.cpp:399] pool1/3x3_s2 -> pool1/3x3_s2
I0403 16:38:27.828037 18784 net.cpp:141] Setting up pool1/3x3_s2
I0403 16:38:27.828061 18784 net.cpp:148] Top shape: 24 64 56 56 (4816896)
I0403 16:38:27.828075 18784 net.cpp:156] Memory required for data: 187860000
I0403 16:38:27.828089 18784 layer_factory.hpp:77] Creating layer pool1/norm1
I0403 16:38:27.828114 18784 net.cpp:91] Creating Layer pool1/norm1
I0403 16:38:27.828131 18784 net.cpp:425] pool1/norm1 <- pool1/3x3_s2
I0403 16:38:27.828150 18784 net.cpp:399] pool1/norm1 -> pool1/norm1
I0403 16:38:27.828441 18784 net.cpp:141] Setting up pool1/norm1
I0403 16:38:27.828467 18784 net.cpp:148] Top shape: 24 64 56 56 (4816896)
I0403 16:38:27.828482 18784 net.cpp:156] Memory required for data: 207127584
I0403 16:38:27.828496 18784 layer_factory.hpp:77] Creating layer conv2/3x3_reduce
I0403 16:38:27.828522 18784 net.cpp:91] Creating Layer conv2/3x3_reduce
I0403 16:38:27.828538 18784 net.cpp:425] conv2/3x3_reduce <- pool1/norm1
I0403 16:38:27.828558 18784 net.cpp:399] conv2/3x3_reduce -> conv2/3x3_reduce
I0403 16:38:27.829921 18784 net.cpp:141] Setting up conv2/3x3_reduce
I0403 16:38:27.829951 18784 net.cpp:148] Top shape: 24 64 56 56 (4816896)
I0403 16:38:27.829967 18784 net.cpp:156] Memory required for data: 226395168
I0403 16:38:27.829987 18784 layer_factory.hpp:77] Creating layer conv2/relu_3x3_reduce
I0403 16:38:27.830004 18784 net.cpp:91] Creating Layer conv2/relu_3x3_reduce
I0403 16:38:27.830019 18784 net.cpp:425] conv2/relu_3x3_reduce <- conv2/3x3_reduce
I0403 16:38:27.830035 18784 net.cpp:386] conv2/relu_3x3_reduce -> conv2/3x3_reduce (in-place)
I0403 16:38:27.830296 18784 net.cpp:141] Setting up conv2/relu_3x3_reduce
I0403 16:38:27.830323 18784 net.cpp:148] Top shape: 24 64 56 56 (4816896)
I0403 16:38:27.830338 18784 net.cpp:156] Memory required for data: 245662752
I0403 16:38:27.830353 18784 layer_factory.hpp:77] Creating layer conv2/3x3
I0403 16:38:27.830375 18784 net.cpp:91] Creating Layer conv2/3x3
I0403 16:38:27.830392 18784 net.cpp:425] conv2/3x3 <- conv2/3x3_reduce
I0403 16:38:27.830410 18784 net.cpp:399] conv2/3x3 -> conv2/3x3
I0403 16:38:27.832622 18784 net.cpp:141] Setting up conv2/3x3
I0403 16:38:27.832653 18784 net.cpp:148] Top shape: 24 192 56 56 (14450688)
I0403 16:38:27.832669 18784 net.cpp:156] Memory required for data: 303465504
I0403 16:38:27.832690 18784 layer_factory.hpp:77] Creating layer conv2/relu_3x3
I0403 16:38:27.832708 18784 net.cpp:91] Creating Layer conv2/relu_3x3
I0403 16:38:27.832723 18784 net.cpp:425] conv2/relu_3x3 <- conv2/3x3
I0403 16:38:27.832741 18784 net.cpp:386] conv2/relu_3x3 -> conv2/3x3 (in-place)
I0403 16:38:27.832909 18784 net.cpp:141] Setting up conv2/relu_3x3
I0403 16:38:27.832933 18784 net.cpp:148] Top shape: 24 192 56 56 (14450688)
I0403 16:38:27.832978 18784 net.cpp:156] Memory required for data: 361268256
I0403 16:38:27.832993 18784 layer_factory.hpp:77] Creating layer conv2/norm2
I0403 16:38:27.833014 18784 net.cpp:91] Creating Layer conv2/norm2
I0403 16:38:27.833031 18784 net.cpp:425] conv2/norm2 <- conv2/3x3
I0403 16:38:27.833047 18784 net.cpp:399] conv2/norm2 -> conv2/norm2
I0403 16:38:27.833338 18784 net.cpp:141] Setting up conv2/norm2
I0403 16:38:27.833362 18784 net.cpp:148] Top shape: 24 192 56 56 (14450688)
I0403 16:38:27.833377 18784 net.cpp:156] Memory required for data: 419071008
I0403 16:38:27.833391 18784 layer_factory.hpp:77] Creating layer pool2/3x3_s2
I0403 16:38:27.833411 18784 net.cpp:91] Creating Layer pool2/3x3_s2
I0403 16:38:27.833427 18784 net.cpp:425] pool2/3x3_s2 <- conv2/norm2
I0403 16:38:27.833444 18784 net.cpp:399] pool2/3x3_s2 -> pool2/3x3_s2
I0403 16:38:27.833498 18784 net.cpp:141] Setting up pool2/3x3_s2
I0403 16:38:27.833519 18784 net.cpp:148] Top shape: 24 192 28 28 (3612672)
I0403 16:38:27.833534 18784 net.cpp:156] Memory required for data: 433521696
I0403 16:38:27.833547 18784 layer_factory.hpp:77] Creating layer pool2/3x3_s2_pool2/3x3_s2_0_split
I0403 16:38:27.833564 18784 net.cpp:91] Creating Layer pool2/3x3_s2_pool2/3x3_s2_0_split
I0403 16:38:27.833585 18784 net.cpp:425] pool2/3x3_s2_pool2/3x3_s2_0_split <- pool2/3x3_s2
I0403 16:38:27.833603 18784 net.cpp:399] pool2/3x3_s2_pool2/3x3_s2_0_split -> pool2/3x3_s2_pool2/3x3_s2_0_split_0
I0403 16:38:27.833623 18784 net.cpp:399] pool2/3x3_s2_pool2/3x3_s2_0_split -> pool2/3x3_s2_pool2/3x3_s2_0_split_1
I0403 16:38:27.833642 18784 net.cpp:399] pool2/3x3_s2_pool2/3x3_s2_0_split -> pool2/3x3_s2_pool2/3x3_s2_0_split_2
I0403 16:38:27.833662 18784 net.cpp:399] pool2/3x3_s2_pool2/3x3_s2_0_split -> pool2/3x3_s2_pool2/3x3_s2_0_split_3
I0403 16:38:27.833730 18784 net.cpp:141] Setting up pool2/3x3_s2_pool2/3x3_s2_0_split
I0403 16:38:27.833755 18784 net.cpp:148] Top shape: 24 192 28 28 (3612672)
I0403 16:38:27.833771 18784 net.cpp:148] Top shape: 24 192 28 28 (3612672)
I0403 16:38:27.833786 18784 net.cpp:148] Top shape: 24 192 28 28 (3612672)
I0403 16:38:27.833801 18784 net.cpp:148] Top shape: 24 192 28 28 (3612672)
I0403 16:38:27.833814 18784 net.cpp:156] Memory required for data: 491324448
I0403 16:38:27.833828 18784 layer_factory.hpp:77] Creating layer inception_3a/1x1
I0403 16:38:27.833849 18784 net.cpp:91] Creating Layer inception_3a/1x1
I0403 16:38:27.833865 18784 net.cpp:425] inception_3a/1x1 <- pool2/3x3_s2_pool2/3x3_s2_0_split_0
I0403 16:38:27.833884 18784 net.cpp:399] inception_3a/1x1 -> inception_3a/1x1
I0403 16:38:27.835371 18784 net.cpp:141] Setting up inception_3a/1x1
I0403 16:38:27.835399 18784 net.cpp:148] Top shape: 24 64 28 28 (1204224)
I0403 16:38:27.835415 18784 net.cpp:156] Memory required for data: 496141344
I0403 16:38:27.835433 18784 layer_factory.hpp:77] Creating layer inception_3a/relu_1x1
I0403 16:38:27.835451 18784 net.cpp:91] Creating Layer inception_3a/relu_1x1
I0403 16:38:27.835469 18784 net.cpp:425] inception_3a/relu_1x1 <- inception_3a/1x1
I0403 16:38:27.835484 18784 net.cpp:386] inception_3a/relu_1x1 -> inception_3a/1x1 (in-place)
I0403 16:38:27.835659 18784 net.cpp:141] Setting up inception_3a/relu_1x1
I0403 16:38:27.835683 18784 net.cpp:148] Top shape: 24 64 28 28 (1204224)
I0403 16:38:27.835697 18784 net.cpp:156] Memory required for data: 500958240
I0403 16:38:27.835712 18784 layer_factory.hpp:77] Creating layer inception_3a/3x3_reduce
I0403 16:38:27.835733 18784 net.cpp:91] Creating Layer inception_3a/3x3_reduce
I0403 16:38:27.835749 18784 net.cpp:425] inception_3a/3x3_reduce <- pool2/3x3_s2_pool2/3x3_s2_0_split_1
I0403 16:38:27.835770 18784 net.cpp:399] inception_3a/3x3_reduce -> inception_3a/3x3_reduce
I0403 16:38:27.837393 18784 net.cpp:141] Setting up inception_3a/3x3_reduce
I0403 16:38:27.837424 18784 net.cpp:148] Top shape: 24 96 28 28 (1806336)
I0403 16:38:27.837440 18784 net.cpp:156] Memory required for data: 508183584
I0403 16:38:27.837460 18784 layer_factory.hpp:77] Creating layer inception_3a/relu_3x3_reduce
I0403 16:38:27.837493 18784 net.cpp:91] Creating Layer inception_3a/relu_3x3_reduce
I0403 16:38:27.837510 18784 net.cpp:425] inception_3a/relu_3x3_reduce <- inception_3a/3x3_reduce
I0403 16:38:27.837529 18784 net.cpp:386] inception_3a/relu_3x3_reduce -> inception_3a/3x3_reduce (in-place)
I0403 16:38:27.837707 18784 net.cpp:141] Setting up inception_3a/relu_3x3_reduce
I0403 16:38:27.837731 18784 net.cpp:148] Top shape: 24 96 28 28 (1806336)
I0403 16:38:27.837746 18784 net.cpp:156] Memory required for data: 515408928
I0403 16:38:27.837760 18784 layer_factory.hpp:77] Creating layer inception_3a/3x3
I0403 16:38:27.837781 18784 net.cpp:91] Creating Layer inception_3a/3x3
I0403 16:38:27.837798 18784 net.cpp:425] inception_3a/3x3 <- inception_3a/3x3_reduce
I0403 16:38:27.837818 18784 net.cpp:399] inception_3a/3x3 -> inception_3a/3x3
I0403 16:38:27.839400 18784 net.cpp:141] Setting up inception_3a/3x3
I0403 16:38:27.839431 18784 net.cpp:148] Top shape: 24 128 28 28 (2408448)
I0403 16:38:27.839447 18784 net.cpp:156] Memory required for data: 525042720
I0403 16:38:27.839464 18784 layer_factory.hpp:77] Creating layer inception_3a/relu_3x3
I0403 16:38:27.839483 18784 net.cpp:91] Creating Layer inception_3a/relu_3x3
I0403 16:38:27.839496 18784 net.cpp:425] inception_3a/relu_3x3 <- inception_3a/3x3
I0403 16:38:27.839519 18784 net.cpp:386] inception_3a/relu_3x3 -> inception_3a/3x3 (in-place)
I0403 16:38:27.839788 18784 net.cpp:141] Setting up inception_3a/relu_3x3
I0403 16:38:27.839815 18784 net.cpp:148] Top shape: 24 128 28 28 (2408448)
I0403 16:38:27.839830 18784 net.cpp:156] Memory required for data: 534676512
I0403 16:38:27.839844 18784 layer_factory.hpp:77] Creating layer inception_3a/5x5_reduce
I0403 16:38:27.839865 18784 net.cpp:91] Creating Layer inception_3a/5x5_reduce
I0403 16:38:27.839882 18784 net.cpp:425] inception_3a/5x5_reduce <- pool2/3x3_s2_pool2/3x3_s2_0_split_2
I0403 16:38:27.839900 18784 net.cpp:399] inception_3a/5x5_reduce -> inception_3a/5x5_reduce
I0403 16:38:27.840827 18784 net.cpp:141] Setting up inception_3a/5x5_reduce
I0403 16:38:27.840855 18784 net.cpp:148] Top shape: 24 16 28 28 (301056)
I0403 16:38:27.840873 18784 net.cpp:156] Memory required for data: 535880736
I0403 16:38:27.840889 18784 layer_factory.hpp:77] Creating layer inception_3a/relu_5x5_reduce
I0403 16:38:27.840908 18784 net.cpp:91] Creating Layer inception_3a/relu_5x5_reduce
I0403 16:38:27.840922 18784 net.cpp:425] inception_3a/relu_5x5_reduce <- inception_3a/5x5_reduce
I0403 16:38:27.840942 18784 net.cpp:386] inception_3a/relu_5x5_reduce -> inception_3a/5x5_reduce (in-place)
I0403 16:38:27.841226 18784 net.cpp:141] Setting up inception_3a/relu_5x5_reduce
I0403 16:38:27.841251 18784 net.cpp:148] Top shape: 24 16 28 28 (301056)
I0403 16:38:27.841266 18784 net.cpp:156] Memory required for data: 537084960
I0403 16:38:27.841281 18784 layer_factory.hpp:77] Creating layer inception_3a/5x5
I0403 16:38:27.841302 18784 net.cpp:91] Creating Layer inception_3a/5x5
I0403 16:38:27.841320 18784 net.cpp:425] inception_3a/5x5 <- inception_3a/5x5_reduce
I0403 16:38:27.841339 18784 net.cpp:399] inception_3a/5x5 -> inception_3a/5x5
I0403 16:38:27.842314 18784 net.cpp:141] Setting up inception_3a/5x5
I0403 16:38:27.842344 18784 net.cpp:148] Top shape: 24 32 28 28 (602112)
I0403 16:38:27.842360 18784 net.cpp:156] Memory required for data: 539493408
I0403 16:38:27.842377 18784 layer_factory.hpp:77] Creating layer inception_3a/relu_5x5
I0403 16:38:27.842394 18784 net.cpp:91] Creating Layer inception_3a/relu_5x5
I0403 16:38:27.842411 18784 net.cpp:425] inception_3a/relu_5x5 <- inception_3a/5x5
I0403 16:38:27.842429 18784 net.cpp:386] inception_3a/relu_5x5 -> inception_3a/5x5 (in-place)
I0403 16:38:27.842603 18784 net.cpp:141] Setting up inception_3a/relu_5x5
I0403 16:38:27.842628 18784 net.cpp:148] Top shape: 24 32 28 28 (602112)
I0403 16:38:27.842641 18784 net.cpp:156] Memory required for data: 541901856
I0403 16:38:27.842655 18784 layer_factory.hpp:77] Creating layer inception_3a/pool
I0403 16:38:27.842672 18784 net.cpp:91] Creating Layer inception_3a/pool
I0403 16:38:27.842701 18784 net.cpp:425] inception_3a/pool <- pool2/3x3_s2_pool2/3x3_s2_0_split_3
I0403 16:38:27.842722 18784 net.cpp:399] inception_3a/pool -> inception_3a/pool
I0403 16:38:27.842777 18784 net.cpp:141] Setting up inception_3a/pool
I0403 16:38:27.842799 18784 net.cpp:148] Top shape: 24 192 28 28 (3612672)
I0403 16:38:27.842813 18784 net.cpp:156] Memory required for data: 556352544
I0403 16:38:27.842828 18784 layer_factory.hpp:77] Creating layer inception_3a/pool_proj
I0403 16:38:27.842850 18784 net.cpp:91] Creating Layer inception_3a/pool_proj
I0403 16:38:27.842867 18784 net.cpp:425] inception_3a/pool_proj <- inception_3a/pool
I0403 16:38:27.842885 18784 net.cpp:399] inception_3a/pool_proj -> inception_3a/pool_proj
I0403 16:38:27.843807 18784 net.cpp:141] Setting up inception_3a/pool_proj
I0403 16:38:27.843834 18784 net.cpp:148] Top shape: 24 32 28 28 (602112)
I0403 16:38:27.843848 18784 net.cpp:156] Memory required for data: 558760992
I0403 16:38:27.843871 18784 layer_factory.hpp:77] Creating layer inception_3a/relu_pool_proj
I0403 16:38:27.843890 18784 net.cpp:91] Creating Layer inception_3a/relu_pool_proj
I0403 16:38:27.843905 18784 net.cpp:425] inception_3a/relu_pool_proj <- inception_3a/pool_proj
I0403 16:38:27.843924 18784 net.cpp:386] inception_3a/relu_pool_proj -> inception_3a/pool_proj (in-place)
I0403 16:38:27.844184 18784 net.cpp:141] Setting up inception_3a/relu_pool_proj
I0403 16:38:27.844213 18784 net.cpp:148] Top shape: 24 32 28 28 (602112)
I0403 16:38:27.844228 18784 net.cpp:156] Memory required for data: 561169440
I0403 16:38:27.844243 18784 layer_factory.hpp:77] Creating layer inception_3a/output
I0403 16:38:27.844259 18784 net.cpp:91] Creating Layer inception_3a/output
I0403 16:38:27.844274 18784 net.cpp:425] inception_3a/output <- inception_3a/1x1
I0403 16:38:27.844290 18784 net.cpp:425] inception_3a/output <- inception_3a/3x3
I0403 16:38:27.844306 18784 net.cpp:425] inception_3a/output <- inception_3a/5x5
I0403 16:38:27.844321 18784 net.cpp:425] inception_3a/output <- inception_3a/pool_proj
I0403 16:38:27.844341 18784 net.cpp:399] inception_3a/output -> inception_3a/output
I0403 16:38:27.844384 18784 net.cpp:141] Setting up inception_3a/output
I0403 16:38:27.844405 18784 net.cpp:148] Top shape: 24 256 28 28 (4816896)
I0403 16:38:27.844419 18784 net.cpp:156] Memory required for data: 580437024
I0403 16:38:27.844434 18784 layer_factory.hpp:77] Creating layer inception_3a/output_inception_3a/output_0_split
I0403 16:38:27.844454 18784 net.cpp:91] Creating Layer inception_3a/output_inception_3a/output_0_split
I0403 16:38:27.844470 18784 net.cpp:425] inception_3a/output_inception_3a/output_0_split <- inception_3a/output
I0403 16:38:27.844486 18784 net.cpp:399] inception_3a/output_inception_3a/output_0_split -> inception_3a/output_inception_3a/output_0_split_0
I0403 16:38:27.844506 18784 net.cpp:399] inception_3a/output_inception_3a/output_0_split -> inception_3a/output_inception_3a/output_0_split_1
I0403 16:38:27.844529 18784 net.cpp:399] inception_3a/output_inception_3a/output_0_split -> inception_3a/output_inception_3a/output_0_split_2
I0403 16:38:27.844550 18784 net.cpp:399] inception_3a/output_inception_3a/output_0_split -> inception_3a/output_inception_3a/output_0_split_3
I0403 16:38:27.844631 18784 net.cpp:141] Setting up inception_3a/output_inception_3a/output_0_split
I0403 16:38:27.844656 18784 net.cpp:148] Top shape: 24 256 28 28 (4816896)
I0403 16:38:27.844674 18784 net.cpp:148] Top shape: 24 256 28 28 (4816896)
I0403 16:38:27.844689 18784 net.cpp:148] Top shape: 24 256 28 28 (4816896)
I0403 16:38:27.844704 18784 net.cpp:148] Top shape: 24 256 28 28 (4816896)
I0403 16:38:27.844717 18784 net.cpp:156] Memory required for data: 657507360
I0403 16:38:27.844732 18784 layer_factory.hpp:77] Creating layer inception_3b/1x1
I0403 16:38:27.844755 18784 net.cpp:91] Creating Layer inception_3b/1x1
I0403 16:38:27.844772 18784 net.cpp:425] inception_3b/1x1 <- inception_3a/output_inception_3a/output_0_split_0
I0403 16:38:27.844790 18784 net.cpp:399] inception_3b/1x1 -> inception_3b/1x1
I0403 16:38:27.845876 18784 net.cpp:141] Setting up inception_3b/1x1
I0403 16:38:27.845916 18784 net.cpp:148] Top shape: 24 128 28 28 (2408448)
I0403 16:38:27.845930 18784 net.cpp:156] Memory required for data: 667141152
I0403 16:38:27.845948 18784 layer_factory.hpp:77] Creating layer inception_3b/relu_1x1
I0403 16:38:27.845968 18784 net.cpp:91] Creating Layer inception_3b/relu_1x1
I0403 16:38:27.845984 18784 net.cpp:425] inception_3b/relu_1x1 <- inception_3b/1x1
I0403 16:38:27.846000 18784 net.cpp:386] inception_3b/relu_1x1 -> inception_3b/1x1 (in-place)
I0403 16:38:27.846168 18784 net.cpp:141] Setting up inception_3b/relu_1x1
I0403 16:38:27.846194 18784 net.cpp:148] Top shape: 24 128 28 28 (2408448)
I0403 16:38:27.846209 18784 net.cpp:156] Memory required for data: 676774944
I0403 16:38:27.846222 18784 layer_factory.hpp:77] Creating layer inception_3b/3x3_reduce
I0403 16:38:27.846243 18784 net.cpp:91] Creating Layer inception_3b/3x3_reduce
I0403 16:38:27.846261 18784 net.cpp:425] inception_3b/3x3_reduce <- inception_3a/output_inception_3a/output_0_split_1
I0403 16:38:27.846281 18784 net.cpp:399] inception_3b/3x3_reduce -> inception_3b/3x3_reduce
I0403 16:38:27.847367 18784 net.cpp:141] Setting up inception_3b/3x3_reduce
I0403 16:38:27.847393 18784 net.cpp:148] Top shape: 24 128 28 28 (2408448)
I0403 16:38:27.847409 18784 net.cpp:156] Memory required for data: 686408736
I0403 16:38:27.847426 18784 layer_factory.hpp:77] Creating layer inception_3b/relu_3x3_reduce
I0403 16:38:27.847446 18784 net.cpp:91] Creating Layer inception_3b/relu_3x3_reduce
I0403 16:38:27.847462 18784 net.cpp:425] inception_3b/relu_3x3_reduce <- inception_3b/3x3_reduce
I0403 16:38:27.847479 18784 net.cpp:386] inception_3b/relu_3x3_reduce -> inception_3b/3x3_reduce (in-place)
I0403 16:38:27.847648 18784 net.cpp:141] Setting up inception_3b/relu_3x3_reduce
I0403 16:38:27.847676 18784 net.cpp:148] Top shape: 24 128 28 28 (2408448)
I0403 16:38:27.847689 18784 net.cpp:156] Memory required for data: 696042528
I0403 16:38:27.847704 18784 layer_factory.hpp:77] Creating layer inception_3b/3x3
I0403 16:38:27.847728 18784 net.cpp:91] Creating Layer inception_3b/3x3
I0403 16:38:27.847744 18784 net.cpp:425] inception_3b/3x3 <- inception_3b/3x3_reduce
I0403 16:38:27.847765 18784 net.cpp:399] inception_3b/3x3 -> inception_3b/3x3
I0403 16:38:27.850555 18784 net.cpp:141] Setting up inception_3b/3x3
I0403 16:38:27.850589 18784 net.cpp:148] Top shape: 24 192 28 28 (3612672)
I0403 16:38:27.850606 18784 net.cpp:156] Memory required for data: 710493216
I0403 16:38:27.850625 18784 layer_factory.hpp:77] Creating layer inception_3b/relu_3x3
I0403 16:38:27.850641 18784 net.cpp:91] Creating Layer inception_3b/relu_3x3
I0403 16:38:27.850656 18784 net.cpp:425] inception_3b/relu_3x3 <- inception_3b/3x3
I0403 16:38:27.850675 18784 net.cpp:386] inception_3b/relu_3x3 -> inception_3b/3x3 (in-place)
I0403 16:38:27.850937 18784 net.cpp:141] Setting up inception_3b/relu_3x3
I0403 16:38:27.850965 18784 net.cpp:148] Top shape: 24 192 28 28 (3612672)
I0403 16:38:27.850980 18784 net.cpp:156] Memory required for data: 724943904
I0403 16:38:27.850996 18784 layer_factory.hpp:77] Creating layer inception_3b/5x5_reduce
I0403 16:38:27.851017 18784 net.cpp:91] Creating Layer inception_3b/5x5_reduce
I0403 16:38:27.851035 18784 net.cpp:425] inception_3b/5x5_reduce <- inception_3a/output_inception_3a/output_0_split_2
I0403 16:38:27.851053 18784 net.cpp:399] inception_3b/5x5_reduce -> inception_3b/5x5_reduce
I0403 16:38:27.851996 18784 net.cpp:141] Setting up inception_3b/5x5_reduce
I0403 16:38:27.852025 18784 net.cpp:148] Top shape: 24 32 28 28 (602112)
I0403 16:38:27.852041 18784 net.cpp:156] Memory required for data: 727352352
I0403 16:38:27.852058 18784 layer_factory.hpp:77] Creating layer inception_3b/relu_5x5_reduce
I0403 16:38:27.852077 18784 net.cpp:91] Creating Layer inception_3b/relu_5x5_reduce
I0403 16:38:27.852092 18784 net.cpp:425] inception_3b/relu_5x5_reduce <- inception_3b/5x5_reduce
I0403 16:38:27.852110 18784 net.cpp:386] inception_3b/relu_5x5_reduce -> inception_3b/5x5_reduce (in-place)
I0403 16:38:27.852295 18784 net.cpp:141] Setting up inception_3b/relu_5x5_reduce
I0403 16:38:27.852319 18784 net.cpp:148] Top shape: 24 32 28 28 (602112)
I0403 16:38:27.852334 18784 net.cpp:156] Memory required for data: 729760800
I0403 16:38:27.852347 18784 layer_factory.hpp:77] Creating layer inception_3b/5x5
I0403 16:38:27.852370 18784 net.cpp:91] Creating Layer inception_3b/5x5
I0403 16:38:27.852387 18784 net.cpp:425] inception_3b/5x5 <- inception_3b/5x5_reduce
I0403 16:38:27.852407 18784 net.cpp:399] inception_3b/5x5 -> inception_3b/5x5
I0403 16:38:27.854357 18784 net.cpp:141] Setting up inception_3b/5x5
I0403 16:38:27.854387 18784 net.cpp:148] Top shape: 24 96 28 28 (1806336)
I0403 16:38:27.854401 18784 net.cpp:156] Memory required for data: 736986144
I0403 16:38:27.854419 18784 layer_factory.hpp:77] Creating layer inception_3b/relu_5x5
I0403 16:38:27.854439 18784 net.cpp:91] Creating Layer inception_3b/relu_5x5
I0403 16:38:27.854456 18784 net.cpp:425] inception_3b/relu_5x5 <- inception_3b/5x5
I0403 16:38:27.854473 18784 net.cpp:386] inception_3b/relu_5x5 -> inception_3b/5x5 (in-place)
I0403 16:38:27.854676 18784 net.cpp:141] Setting up inception_3b/relu_5x5
I0403 16:38:27.854701 18784 net.cpp:148] Top shape: 24 96 28 28 (1806336)
I0403 16:38:27.854714 18784 net.cpp:156] Memory required for data: 744211488
I0403 16:38:27.854729 18784 layer_factory.hpp:77] Creating layer inception_3b/pool
I0403 16:38:27.854746 18784 net.cpp:91] Creating Layer inception_3b/pool
I0403 16:38:27.854763 18784 net.cpp:425] inception_3b/pool <- inception_3a/output_inception_3a/output_0_split_3
I0403 16:38:27.854780 18784 net.cpp:399] inception_3b/pool -> inception_3b/pool
I0403 16:38:27.854835 18784 net.cpp:141] Setting up inception_3b/pool
I0403 16:38:27.854856 18784 net.cpp:148] Top shape: 24 256 28 28 (4816896)
I0403 16:38:27.854871 18784 net.cpp:156] Memory required for data: 763479072
I0403 16:38:27.854885 18784 layer_factory.hpp:77] Creating layer inception_3b/pool_proj
I0403 16:38:27.854907 18784 net.cpp:91] Creating Layer inception_3b/pool_proj
I0403 16:38:27.854925 18784 net.cpp:425] inception_3b/pool_proj <- inception_3b/pool
I0403 16:38:27.854943 18784 net.cpp:399] inception_3b/pool_proj -> inception_3b/pool_proj
I0403 16:38:27.855996 18784 net.cpp:141] Setting up inception_3b/pool_proj
I0403 16:38:27.856024 18784 net.cpp:148] Top shape: 24 64 28 28 (1204224)
I0403 16:38:27.856040 18784 net.cpp:156] Memory required for data: 768295968
I0403 16:38:27.856057 18784 layer_factory.hpp:77] Creating layer inception_3b/relu_pool_proj
I0403 16:38:27.856076 18784 net.cpp:91] Creating Layer inception_3b/relu_pool_proj
I0403 16:38:27.856091 18784 net.cpp:425] inception_3b/relu_pool_proj <- inception_3b/pool_proj
I0403 16:38:27.856111 18784 net.cpp:386] inception_3b/relu_pool_proj -> inception_3b/pool_proj (in-place)
I0403 16:38:27.856503 18784 net.cpp:141] Setting up inception_3b/relu_pool_proj
I0403 16:38:27.856528 18784 net.cpp:148] Top shape: 24 64 28 28 (1204224)
I0403 16:38:27.856544 18784 net.cpp:156] Memory required for data: 773112864
I0403 16:38:27.856559 18784 layer_factory.hpp:77] Creating layer inception_3b/output
I0403 16:38:27.856580 18784 net.cpp:91] Creating Layer inception_3b/output
I0403 16:38:27.856597 18784 net.cpp:425] inception_3b/output <- inception_3b/1x1
I0403 16:38:27.856614 18784 net.cpp:425] inception_3b/output <- inception_3b/3x3
I0403 16:38:27.856629 18784 net.cpp:425] inception_3b/output <- inception_3b/5x5
I0403 16:38:27.856647 18784 net.cpp:425] inception_3b/output <- inception_3b/pool_proj
I0403 16:38:27.856665 18784 net.cpp:399] inception_3b/output -> inception_3b/output
I0403 16:38:27.856709 18784 net.cpp:141] Setting up inception_3b/output
I0403 16:38:27.856730 18784 net.cpp:148] Top shape: 24 480 28 28 (9031680)
I0403 16:38:27.856745 18784 net.cpp:156] Memory required for data: 809239584
I0403 16:38:27.856760 18784 layer_factory.hpp:77] Creating layer pool3/3x3_s2
I0403 16:38:27.856778 18784 net.cpp:91] Creating Layer pool3/3x3_s2
I0403 16:38:27.856794 18784 net.cpp:425] pool3/3x3_s2 <- inception_3b/output
I0403 16:38:27.856829 18784 net.cpp:399] pool3/3x3_s2 -> pool3/3x3_s2
I0403 16:38:27.856886 18784 net.cpp:141] Setting up pool3/3x3_s2
I0403 16:38:27.856909 18784 net.cpp:148] Top shape: 24 480 14 14 (2257920)
I0403 16:38:27.856923 18784 net.cpp:156] Memory required for data: 818271264
I0403 16:38:27.856938 18784 layer_factory.hpp:77] Creating layer pool3/3x3_s2_pool3/3x3_s2_0_split
I0403 16:38:27.856957 18784 net.cpp:91] Creating Layer pool3/3x3_s2_pool3/3x3_s2_0_split
I0403 16:38:27.856973 18784 net.cpp:425] pool3/3x3_s2_pool3/3x3_s2_0_split <- pool3/3x3_s2
I0403 16:38:27.856989 18784 net.cpp:399] pool3/3x3_s2_pool3/3x3_s2_0_split -> pool3/3x3_s2_pool3/3x3_s2_0_split_0
I0403 16:38:27.857008 18784 net.cpp:399] pool3/3x3_s2_pool3/3x3_s2_0_split -> pool3/3x3_s2_pool3/3x3_s2_0_split_1
I0403 16:38:27.857028 18784 net.cpp:399] pool3/3x3_s2_pool3/3x3_s2_0_split -> pool3/3x3_s2_pool3/3x3_s2_0_split_2
I0403 16:38:27.857046 18784 net.cpp:399] pool3/3x3_s2_pool3/3x3_s2_0_split -> pool3/3x3_s2_pool3/3x3_s2_0_split_3
I0403 16:38:27.857122 18784 net.cpp:141] Setting up pool3/3x3_s2_pool3/3x3_s2_0_split
I0403 16:38:27.857144 18784 net.cpp:148] Top shape: 24 480 14 14 (2257920)
I0403 16:38:27.857161 18784 net.cpp:148] Top shape: 24 480 14 14 (2257920)
I0403 16:38:27.857177 18784 net.cpp:148] Top shape: 24 480 14 14 (2257920)
I0403 16:38:27.857192 18784 net.cpp:148] Top shape: 24 480 14 14 (2257920)
I0403 16:38:27.857204 18784 net.cpp:156] Memory required for data: 854397984
I0403 16:38:27.857218 18784 layer_factory.hpp:77] Creating layer inception_4a/1x1
I0403 16:38:27.857240 18784 net.cpp:91] Creating Layer inception_4a/1x1
I0403 16:38:27.857257 18784 net.cpp:425] inception_4a/1x1 <- pool3/3x3_s2_pool3/3x3_s2_0_split_0
I0403 16:38:27.857278 18784 net.cpp:399] inception_4a/1x1 -> inception_4a/1x1
I0403 16:38:27.858830 18784 net.cpp:141] Setting up inception_4a/1x1
I0403 16:38:27.858858 18784 net.cpp:148] Top shape: 24 192 14 14 (903168)
I0403 16:38:27.858873 18784 net.cpp:156] Memory required for data: 858010656
I0403 16:38:27.858891 18784 layer_factory.hpp:77] Creating layer inception_4a/relu_1x1
I0403 16:38:27.858911 18784 net.cpp:91] Creating Layer inception_4a/relu_1x1
I0403 16:38:27.858928 18784 net.cpp:425] inception_4a/relu_1x1 <- inception_4a/1x1
I0403 16:38:27.858945 18784 net.cpp:386] inception_4a/relu_1x1 -> inception_4a/1x1 (in-place)
I0403 16:38:27.859118 18784 net.cpp:141] Setting up inception_4a/relu_1x1
I0403 16:38:27.859148 18784 net.cpp:148] Top shape: 24 192 14 14 (903168)
I0403 16:38:27.859163 18784 net.cpp:156] Memory required for data: 861623328
I0403 16:38:27.859179 18784 layer_factory.hpp:77] Creating layer inception_4a/3x3_reduce
I0403 16:38:27.859197 18784 net.cpp:91] Creating Layer inception_4a/3x3_reduce
I0403 16:38:27.859213 18784 net.cpp:425] inception_4a/3x3_reduce <- pool3/3x3_s2_pool3/3x3_s2_0_split_1
I0403 16:38:27.859235 18784 net.cpp:399] inception_4a/3x3_reduce -> inception_4a/3x3_reduce
I0403 16:38:27.860486 18784 net.cpp:141] Setting up inception_4a/3x3_reduce
I0403 16:38:27.860512 18784 net.cpp:148] Top shape: 24 96 14 14 (451584)
I0403 16:38:27.860528 18784 net.cpp:156] Memory required for data: 863429664
I0403 16:38:27.860553 18784 layer_factory.hpp:77] Creating layer inception_4a/relu_3x3_reduce
I0403 16:38:27.860576 18784 net.cpp:91] Creating Layer inception_4a/relu_3x3_reduce
I0403 16:38:27.860594 18784 net.cpp:425] inception_4a/relu_3x3_reduce <- inception_4a/3x3_reduce
I0403 16:38:27.860613 18784 net.cpp:386] inception_4a/relu_3x3_reduce -> inception_4a/3x3_reduce (in-place)
I0403 16:38:27.860788 18784 net.cpp:141] Setting up inception_4a/relu_3x3_reduce
I0403 16:38:27.860813 18784 net.cpp:148] Top shape: 24 96 14 14 (451584)
I0403 16:38:27.860827 18784 net.cpp:156] Memory required for data: 865236000
I0403 16:38:27.860842 18784 layer_factory.hpp:77] Creating layer inception_4a/3x3
I0403 16:38:27.860863 18784 net.cpp:91] Creating Layer inception_4a/3x3
I0403 16:38:27.860880 18784 net.cpp:425] inception_4a/3x3 <- inception_4a/3x3_reduce
I0403 16:38:27.860901 18784 net.cpp:399] inception_4a/3x3 -> inception_4a/3x3
I0403 16:38:27.863612 18784 net.cpp:141] Setting up inception_4a/3x3
I0403 16:38:27.863641 18784 net.cpp:148] Top shape: 24 208 14 14 (978432)
I0403 16:38:27.863656 18784 net.cpp:156] Memory required for data: 869149728
I0403 16:38:27.863673 18784 layer_factory.hpp:77] Creating layer inception_4a/relu_3x3
I0403 16:38:27.863694 18784 net.cpp:91] Creating Layer inception_4a/relu_3x3
I0403 16:38:27.863711 18784 net.cpp:425] inception_4a/relu_3x3 <- inception_4a/3x3
I0403 16:38:27.863729 18784 net.cpp:386] inception_4a/relu_3x3 -> inception_4a/3x3 (in-place)
I0403 16:38:27.864003 18784 net.cpp:141] Setting up inception_4a/relu_3x3
I0403 16:38:27.864029 18784 net.cpp:148] Top shape: 24 208 14 14 (978432)
I0403 16:38:27.864044 18784 net.cpp:156] Memory required for data: 873063456
I0403 16:38:27.864058 18784 layer_factory.hpp:77] Creating layer inception_4a/5x5_reduce
I0403 16:38:27.864083 18784 net.cpp:91] Creating Layer inception_4a/5x5_reduce
I0403 16:38:27.864100 18784 net.cpp:425] inception_4a/5x5_reduce <- pool3/3x3_s2_pool3/3x3_s2_0_split_2
I0403 16:38:27.864120 18784 net.cpp:399] inception_4a/5x5_reduce -> inception_4a/5x5_reduce
I0403 16:38:27.865128 18784 net.cpp:141] Setting up inception_4a/5x5_reduce
I0403 16:38:27.865159 18784 net.cpp:148] Top shape: 24 16 14 14 (75264)
I0403 16:38:27.865175 18784 net.cpp:156] Memory required for data: 873364512
I0403 16:38:27.865192 18784 layer_factory.hpp:77] Creating layer inception_4a/relu_5x5_reduce
I0403 16:38:27.865211 18784 net.cpp:91] Creating Layer inception_4a/relu_5x5_reduce
I0403 16:38:27.865226 18784 net.cpp:425] inception_4a/relu_5x5_reduce <- inception_4a/5x5_reduce
I0403 16:38:27.865245 18784 net.cpp:386] inception_4a/relu_5x5_reduce -> inception_4a/5x5_reduce (in-place)
I0403 16:38:27.865425 18784 net.cpp:141] Setting up inception_4a/relu_5x5_reduce
I0403 16:38:27.865449 18784 net.cpp:148] Top shape: 24 16 14 14 (75264)
I0403 16:38:27.865463 18784 net.cpp:156] Memory required for data: 873665568
I0403 16:38:27.865478 18784 layer_factory.hpp:77] Creating layer inception_4a/5x5
I0403 16:38:27.865500 18784 net.cpp:91] Creating Layer inception_4a/5x5
I0403 16:38:27.865517 18784 net.cpp:425] inception_4a/5x5 <- inception_4a/5x5_reduce
I0403 16:38:27.865537 18784 net.cpp:399] inception_4a/5x5 -> inception_4a/5x5
I0403 16:38:27.866606 18784 net.cpp:141] Setting up inception_4a/5x5
I0403 16:38:27.866633 18784 net.cpp:148] Top shape: 24 48 14 14 (225792)
I0403 16:38:27.866648 18784 net.cpp:156] Memory required for data: 874568736
I0403 16:38:27.866667 18784 layer_factory.hpp:77] Creating layer inception_4a/relu_5x5
I0403 16:38:27.866683 18784 net.cpp:91] Creating Layer inception_4a/relu_5x5
I0403 16:38:27.866731 18784 net.cpp:425] inception_4a/relu_5x5 <- inception_4a/5x5
I0403 16:38:27.866750 18784 net.cpp:386] inception_4a/relu_5x5 -> inception_4a/5x5 (in-place)
I0403 16:38:27.866933 18784 net.cpp:141] Setting up inception_4a/relu_5x5
I0403 16:38:27.866960 18784 net.cpp:148] Top shape: 24 48 14 14 (225792)
I0403 16:38:27.866973 18784 net.cpp:156] Memory required for data: 875471904
I0403 16:38:27.867000 18784 layer_factory.hpp:77] Creating layer inception_4a/pool
I0403 16:38:27.867020 18784 net.cpp:91] Creating Layer inception_4a/pool
I0403 16:38:27.867036 18784 net.cpp:425] inception_4a/pool <- pool3/3x3_s2_pool3/3x3_s2_0_split_3
I0403 16:38:27.867053 18784 net.cpp:399] inception_4a/pool -> inception_4a/pool
I0403 16:38:27.867115 18784 net.cpp:141] Setting up inception_4a/pool
I0403 16:38:27.867137 18784 net.cpp:148] Top shape: 24 480 14 14 (2257920)
I0403 16:38:27.867151 18784 net.cpp:156] Memory required for data: 884503584
I0403 16:38:27.867166 18784 layer_factory.hpp:77] Creating layer inception_4a/pool_proj
I0403 16:38:27.867187 18784 net.cpp:91] Creating Layer inception_4a/pool_proj
I0403 16:38:27.867203 18784 net.cpp:425] inception_4a/pool_proj <- inception_4a/pool
I0403 16:38:27.867223 18784 net.cpp:399] inception_4a/pool_proj -> inception_4a/pool_proj
I0403 16:38:27.868367 18784 net.cpp:141] Setting up inception_4a/pool_proj
I0403 16:38:27.868396 18784 net.cpp:148] Top shape: 24 64 14 14 (301056)
I0403 16:38:27.868427 18784 net.cpp:156] Memory required for data: 885707808
I0403 16:38:27.868445 18784 layer_factory.hpp:77] Creating layer inception_4a/relu_pool_proj
I0403 16:38:27.868465 18784 net.cpp:91] Creating Layer inception_4a/relu_pool_proj
I0403 16:38:27.868482 18784 net.cpp:425] inception_4a/relu_pool_proj <- inception_4a/pool_proj
I0403 16:38:27.868499 18784 net.cpp:386] inception_4a/relu_pool_proj -> inception_4a/pool_proj (in-place)
I0403 16:38:27.868783 18784 net.cpp:141] Setting up inception_4a/relu_pool_proj
I0403 16:38:27.868810 18784 net.cpp:148] Top shape: 24 64 14 14 (301056)
I0403 16:38:27.868825 18784 net.cpp:156] Memory required for data: 886912032
I0403 16:38:27.868839 18784 layer_factory.hpp:77] Creating layer inception_4a/output
I0403 16:38:27.868856 18784 net.cpp:91] Creating Layer inception_4a/output
I0403 16:38:27.868872 18784 net.cpp:425] inception_4a/output <- inception_4a/1x1
I0403 16:38:27.868888 18784 net.cpp:425] inception_4a/output <- inception_4a/3x3
I0403 16:38:27.868908 18784 net.cpp:425] inception_4a/output <- inception_4a/5x5
I0403 16:38:27.868924 18784 net.cpp:425] inception_4a/output <- inception_4a/pool_proj
I0403 16:38:27.868940 18784 net.cpp:399] inception_4a/output -> inception_4a/output
I0403 16:38:27.868983 18784 net.cpp:141] Setting up inception_4a/output
I0403 16:38:27.869007 18784 net.cpp:148] Top shape: 24 512 14 14 (2408448)
I0403 16:38:27.869022 18784 net.cpp:156] Memory required for data: 896545824
I0403 16:38:27.869036 18784 layer_factory.hpp:77] Creating layer inception_4a/output_inception_4a/output_0_split
I0403 16:38:27.869053 18784 net.cpp:91] Creating Layer inception_4a/output_inception_4a/output_0_split
I0403 16:38:27.869068 18784 net.cpp:425] inception_4a/output_inception_4a/output_0_split <- inception_4a/output
I0403 16:38:27.869087 18784 net.cpp:399] inception_4a/output_inception_4a/output_0_split -> inception_4a/output_inception_4a/output_0_split_0
I0403 16:38:27.869108 18784 net.cpp:399] inception_4a/output_inception_4a/output_0_split -> inception_4a/output_inception_4a/output_0_split_1
I0403 16:38:27.869129 18784 net.cpp:399] inception_4a/output_inception_4a/output_0_split -> inception_4a/output_inception_4a/output_0_split_2
I0403 16:38:27.869150 18784 net.cpp:399] inception_4a/output_inception_4a/output_0_split -> inception_4a/output_inception_4a/output_0_split_3
I0403 16:38:27.869169 18784 net.cpp:399] inception_4a/output_inception_4a/output_0_split -> inception_4a/output_inception_4a/output_0_split_4
I0403 16:38:27.869258 18784 net.cpp:141] Setting up inception_4a/output_inception_4a/output_0_split
I0403 16:38:27.869282 18784 net.cpp:148] Top shape: 24 512 14 14 (2408448)
I0403 16:38:27.869299 18784 net.cpp:148] Top shape: 24 512 14 14 (2408448)
I0403 16:38:27.869316 18784 net.cpp:148] Top shape: 24 512 14 14 (2408448)
I0403 16:38:27.869331 18784 net.cpp:148] Top shape: 24 512 14 14 (2408448)
I0403 16:38:27.869348 18784 net.cpp:148] Top shape: 24 512 14 14 (2408448)
I0403 16:38:27.869360 18784 net.cpp:156] Memory required for data: 944714784
I0403 16:38:27.869374 18784 layer_factory.hpp:77] Creating layer loss1/ave_pool
I0403 16:38:27.869391 18784 net.cpp:91] Creating Layer loss1/ave_pool
I0403 16:38:27.869407 18784 net.cpp:425] loss1/ave_pool <- inception_4a/output_inception_4a/output_0_split_0
I0403 16:38:27.869427 18784 net.cpp:399] loss1/ave_pool -> loss1/ave_pool
I0403 16:38:27.869637 18784 net.cpp:141] Setting up loss1/ave_pool
I0403 16:38:27.869662 18784 net.cpp:148] Top shape: 24 512 4 4 (196608)
I0403 16:38:27.869675 18784 net.cpp:156] Memory required for data: 945501216
I0403 16:38:27.869690 18784 layer_factory.hpp:77] Creating layer loss1/conv
I0403 16:38:27.869711 18784 net.cpp:91] Creating Layer loss1/conv
I0403 16:38:27.869729 18784 net.cpp:425] loss1/conv <- loss1/ave_pool
I0403 16:38:27.869750 18784 net.cpp:399] loss1/conv -> loss1/conv
I0403 16:38:27.871143 18784 net.cpp:141] Setting up loss1/conv
I0403 16:38:27.871170 18784 net.cpp:148] Top shape: 24 128 4 4 (49152)
I0403 16:38:27.871201 18784 net.cpp:156] Memory required for data: 945697824
I0403 16:38:27.871219 18784 layer_factory.hpp:77] Creating layer loss1/relu_conv
I0403 16:38:27.871240 18784 net.cpp:91] Creating Layer loss1/relu_conv
I0403 16:38:27.871256 18784 net.cpp:425] loss1/relu_conv <- loss1/conv
I0403 16:38:27.871274 18784 net.cpp:386] loss1/relu_conv -> loss1/conv (in-place)
I0403 16:38:27.871559 18784 net.cpp:141] Setting up loss1/relu_conv
I0403 16:38:27.871589 18784 net.cpp:148] Top shape: 24 128 4 4 (49152)
I0403 16:38:27.871604 18784 net.cpp:156] Memory required for data: 945894432
I0403 16:38:27.871619 18784 layer_factory.hpp:77] Creating layer loss1/fc
I0403 16:38:27.871645 18784 net.cpp:91] Creating Layer loss1/fc
I0403 16:38:27.871662 18784 net.cpp:425] loss1/fc <- loss1/conv
I0403 16:38:27.871683 18784 net.cpp:399] loss1/fc -> loss1/fc
I0403 16:38:27.888970 18784 net.cpp:141] Setting up loss1/fc
I0403 16:38:27.889000 18784 net.cpp:148] Top shape: 24 1024 (24576)
I0403 16:38:27.889015 18784 net.cpp:156] Memory required for data: 945992736
I0403 16:38:27.889032 18784 layer_factory.hpp:77] Creating layer loss1/relu_fc
I0403 16:38:27.889050 18784 net.cpp:91] Creating Layer loss1/relu_fc
I0403 16:38:27.889067 18784 net.cpp:425] loss1/relu_fc <- loss1/fc
I0403 16:38:27.889086 18784 net.cpp:386] loss1/relu_fc -> loss1/fc (in-place)
I0403 16:38:27.889269 18784 net.cpp:141] Setting up loss1/relu_fc
I0403 16:38:27.889295 18784 net.cpp:148] Top shape: 24 1024 (24576)
I0403 16:38:27.889310 18784 net.cpp:156] Memory required for data: 946091040
I0403 16:38:27.889324 18784 layer_factory.hpp:77] Creating layer loss1/drop_fc
I0403 16:38:27.889350 18784 net.cpp:91] Creating Layer loss1/drop_fc
I0403 16:38:27.889366 18784 net.cpp:425] loss1/drop_fc <- loss1/fc
I0403 16:38:27.889384 18784 net.cpp:386] loss1/drop_fc -> loss1/fc (in-place)
I0403 16:38:27.889435 18784 net.cpp:141] Setting up loss1/drop_fc
I0403 16:38:27.889456 18784 net.cpp:148] Top shape: 24 1024 (24576)
I0403 16:38:27.889469 18784 net.cpp:156] Memory required for data: 946189344
I0403 16:38:27.889483 18784 layer_factory.hpp:77] Creating layer loss1/classifier_plantvillage
I0403 16:38:27.889500 18784 net.cpp:91] Creating Layer loss1/classifier_plantvillage
I0403 16:38:27.889515 18784 net.cpp:425] loss1/classifier_plantvillage <- loss1/fc
I0403 16:38:27.889535 18784 net.cpp:399] loss1/classifier_plantvillage -> loss1/classifier_plantvillage
I0403 16:38:27.890424 18784 net.cpp:141] Setting up loss1/classifier_plantvillage
I0403 16:38:27.890451 18784 net.cpp:148] Top shape: 24 38 (912)
I0403 16:38:27.890466 18784 net.cpp:156] Memory required for data: 946192992
I0403 16:38:27.890483 18784 layer_factory.hpp:77] Creating layer loss1/classifier_plantvillage_loss1/classifier_plantvillage_0_split
I0403 16:38:27.890503 18784 net.cpp:91] Creating Layer loss1/classifier_plantvillage_loss1/classifier_plantvillage_0_split
I0403 16:38:27.890519 18784 net.cpp:425] loss1/classifier_plantvillage_loss1/classifier_plantvillage_0_split <- loss1/classifier_plantvillage
I0403 16:38:27.890537 18784 net.cpp:399] loss1/classifier_plantvillage_loss1/classifier_plantvillage_0_split -> loss1/classifier_plantvillage_loss1/classifier_plantvillage_0_split_0
I0403 16:38:27.890557 18784 net.cpp:399] loss1/classifier_plantvillage_loss1/classifier_plantvillage_0_split -> loss1/classifier_plantvillage_loss1/classifier_plantvillage_0_split_1
I0403 16:38:27.890580 18784 net.cpp:399] loss1/classifier_plantvillage_loss1/classifier_plantvillage_0_split -> loss1/classifier_plantvillage_loss1/classifier_plantvillage_0_split_2
I0403 16:38:27.890646 18784 net.cpp:141] Setting up loss1/classifier_plantvillage_loss1/classifier_plantvillage_0_split
I0403 16:38:27.890668 18784 net.cpp:148] Top shape: 24 38 (912)
I0403 16:38:27.890684 18784 net.cpp:148] Top shape: 24 38 (912)
I0403 16:38:27.890699 18784 net.cpp:148] Top shape: 24 38 (912)
I0403 16:38:27.890712 18784 net.cpp:156] Memory required for data: 946203936
I0403 16:38:27.890727 18784 layer_factory.hpp:77] Creating layer inception_4b/1x1
I0403 16:38:27.890748 18784 net.cpp:91] Creating Layer inception_4b/1x1
I0403 16:38:27.890779 18784 net.cpp:425] inception_4b/1x1 <- inception_4a/output_inception_4a/output_0_split_1
I0403 16:38:27.890799 18784 net.cpp:399] inception_4b/1x1 -> inception_4b/1x1
I0403 16:38:27.892381 18784 net.cpp:141] Setting up inception_4b/1x1
I0403 16:38:27.892410 18784 net.cpp:148] Top shape: 24 160 14 14 (752640)
I0403 16:38:27.892431 18784 net.cpp:156] Memory required for data: 949214496
I0403 16:38:27.892448 18784 layer_factory.hpp:77] Creating layer inception_4b/relu_1x1
I0403 16:38:27.892468 18784 net.cpp:91] Creating Layer inception_4b/relu_1x1
I0403 16:38:27.892485 18784 net.cpp:425] inception_4b/relu_1x1 <- inception_4b/1x1
I0403 16:38:27.892501 18784 net.cpp:386] inception_4b/relu_1x1 -> inception_4b/1x1 (in-place)
I0403 16:38:27.892684 18784 net.cpp:141] Setting up inception_4b/relu_1x1
I0403 16:38:27.892709 18784 net.cpp:148] Top shape: 24 160 14 14 (752640)
I0403 16:38:27.892722 18784 net.cpp:156] Memory required for data: 952225056
I0403 16:38:27.892737 18784 layer_factory.hpp:77] Creating layer inception_4b/3x3_reduce
I0403 16:38:27.892760 18784 net.cpp:91] Creating Layer inception_4b/3x3_reduce
I0403 16:38:27.892778 18784 net.cpp:425] inception_4b/3x3_reduce <- inception_4a/output_inception_4a/output_0_split_2
I0403 16:38:27.892798 18784 net.cpp:399] inception_4b/3x3_reduce -> inception_4b/3x3_reduce
I0403 16:38:27.894109 18784 net.cpp:141] Setting up inception_4b/3x3_reduce
I0403 16:38:27.894134 18784 net.cpp:148] Top shape: 24 112 14 14 (526848)
I0403 16:38:27.894150 18784 net.cpp:156] Memory required for data: 954332448
I0403 16:38:27.894167 18784 layer_factory.hpp:77] Creating layer inception_4b/relu_3x3_reduce
I0403 16:38:27.894186 18784 net.cpp:91] Creating Layer inception_4b/relu_3x3_reduce
I0403 16:38:27.894201 18784 net.cpp:425] inception_4b/relu_3x3_reduce <- inception_4b/3x3_reduce
I0403 16:38:27.894220 18784 net.cpp:386] inception_4b/relu_3x3_reduce -> inception_4b/3x3_reduce (in-place)
I0403 16:38:27.894495 18784 net.cpp:141] Setting up inception_4b/relu_3x3_reduce
I0403 16:38:27.894520 18784 net.cpp:148] Top shape: 24 112 14 14 (526848)
I0403 16:38:27.894536 18784 net.cpp:156] Memory required for data: 956439840
I0403 16:38:27.894549 18784 layer_factory.hpp:77] Creating layer inception_4b/3x3
I0403 16:38:27.894580 18784 net.cpp:91] Creating Layer inception_4b/3x3
I0403 16:38:27.894600 18784 net.cpp:425] inception_4b/3x3 <- inception_4b/3x3_reduce
I0403 16:38:27.894621 18784 net.cpp:399] inception_4b/3x3 -> inception_4b/3x3
I0403 16:38:27.897521 18784 net.cpp:141] Setting up inception_4b/3x3
I0403 16:38:27.897549 18784 net.cpp:148] Top shape: 24 224 14 14 (1053696)
I0403 16:38:27.897564 18784 net.cpp:156] Memory required for data: 960654624
I0403 16:38:27.897588 18784 layer_factory.hpp:77] Creating layer inception_4b/relu_3x3
I0403 16:38:27.897609 18784 net.cpp:91] Creating Layer inception_4b/relu_3x3
I0403 16:38:27.897626 18784 net.cpp:425] inception_4b/relu_3x3 <- inception_4b/3x3
I0403 16:38:27.897642 18784 net.cpp:386] inception_4b/relu_3x3 -> inception_4b/3x3 (in-place)
I0403 16:38:27.897819 18784 net.cpp:141] Setting up inception_4b/relu_3x3
I0403 16:38:27.897845 18784 net.cpp:148] Top shape: 24 224 14 14 (1053696)
I0403 16:38:27.897861 18784 net.cpp:156] Memory required for data: 964869408
I0403 16:38:27.897874 18784 layer_factory.hpp:77] Creating layer inception_4b/5x5_reduce
I0403 16:38:27.897896 18784 net.cpp:91] Creating Layer inception_4b/5x5_reduce
I0403 16:38:27.897913 18784 net.cpp:425] inception_4b/5x5_reduce <- inception_4a/output_inception_4a/output_0_split_3
I0403 16:38:27.897932 18784 net.cpp:399] inception_4b/5x5_reduce -> inception_4b/5x5_reduce
I0403 16:38:27.899013 18784 net.cpp:141] Setting up inception_4b/5x5_reduce
I0403 16:38:27.899040 18784 net.cpp:148] Top shape: 24 24 14 14 (112896)
I0403 16:38:27.899056 18784 net.cpp:156] Memory required for data: 965320992
I0403 16:38:27.899075 18784 layer_factory.hpp:77] Creating layer inception_4b/relu_5x5_reduce
I0403 16:38:27.899092 18784 net.cpp:91] Creating Layer inception_4b/relu_5x5_reduce
I0403 16:38:27.899122 18784 net.cpp:425] inception_4b/relu_5x5_reduce <- inception_4b/5x5_reduce
I0403 16:38:27.899142 18784 net.cpp:386] inception_4b/relu_5x5_reduce -> inception_4b/5x5_reduce (in-place)
I0403 16:38:27.899322 18784 net.cpp:141] Setting up inception_4b/relu_5x5_reduce
I0403 16:38:27.899345 18784 net.cpp:148] Top shape: 24 24 14 14 (112896)
I0403 16:38:27.899360 18784 net.cpp:156] Memory required for data: 965772576
I0403 16:38:27.899374 18784 layer_factory.hpp:77] Creating layer inception_4b/5x5
I0403 16:38:27.899395 18784 net.cpp:91] Creating Layer inception_4b/5x5
I0403 16:38:27.899412 18784 net.cpp:425] inception_4b/5x5 <- inception_4b/5x5_reduce
I0403 16:38:27.899433 18784 net.cpp:399] inception_4b/5x5 -> inception_4b/5x5
I0403 16:38:27.900621 18784 net.cpp:141] Setting up inception_4b/5x5
I0403 16:38:27.900647 18784 net.cpp:148] Top shape: 24 64 14 14 (301056)
I0403 16:38:27.900663 18784 net.cpp:156] Memory required for data: 966976800
I0403 16:38:27.900681 18784 layer_factory.hpp:77] Creating layer inception_4b/relu_5x5
I0403 16:38:27.900701 18784 net.cpp:91] Creating Layer inception_4b/relu_5x5
I0403 16:38:27.900718 18784 net.cpp:425] inception_4b/relu_5x5 <- inception_4b/5x5
I0403 16:38:27.900734 18784 net.cpp:386] inception_4b/relu_5x5 -> inception_4b/5x5 (in-place)
I0403 16:38:27.901015 18784 net.cpp:141] Setting up inception_4b/relu_5x5
I0403 16:38:27.901041 18784 net.cpp:148] Top shape: 24 64 14 14 (301056)
I0403 16:38:27.901056 18784 net.cpp:156] Memory required for data: 968181024
I0403 16:38:27.901069 18784 layer_factory.hpp:77] Creating layer inception_4b/pool
I0403 16:38:27.901088 18784 net.cpp:91] Creating Layer inception_4b/pool
I0403 16:38:27.901105 18784 net.cpp:425] inception_4b/pool <- inception_4a/output_inception_4a/output_0_split_4
I0403 16:38:27.901124 18784 net.cpp:399] inception_4b/pool -> inception_4b/pool
I0403 16:38:27.901185 18784 net.cpp:141] Setting up inception_4b/pool
I0403 16:38:27.901208 18784 net.cpp:148] Top shape: 24 512 14 14 (2408448)
I0403 16:38:27.901222 18784 net.cpp:156] Memory required for data: 977814816
I0403 16:38:27.901237 18784 layer_factory.hpp:77] Creating layer inception_4b/pool_proj
I0403 16:38:27.901257 18784 net.cpp:91] Creating Layer inception_4b/pool_proj
I0403 16:38:27.901273 18784 net.cpp:425] inception_4b/pool_proj <- inception_4b/pool
I0403 16:38:27.901293 18784 net.cpp:399] inception_4b/pool_proj -> inception_4b/pool_proj
I0403 16:38:27.902503 18784 net.cpp:141] Setting up inception_4b/pool_proj
I0403 16:38:27.902534 18784 net.cpp:148] Top shape: 24 64 14 14 (301056)
I0403 16:38:27.902549 18784 net.cpp:156] Memory required for data: 979019040
I0403 16:38:27.902572 18784 layer_factory.hpp:77] Creating layer inception_4b/relu_pool_proj
I0403 16:38:27.902591 18784 net.cpp:91] Creating Layer inception_4b/relu_pool_proj
I0403 16:38:27.902607 18784 net.cpp:425] inception_4b/relu_pool_proj <- inception_4b/pool_proj
I0403 16:38:27.902626 18784 net.cpp:386] inception_4b/relu_pool_proj -> inception_4b/pool_proj (in-place)
I0403 16:38:27.902803 18784 net.cpp:141] Setting up inception_4b/relu_pool_proj
I0403 16:38:27.902827 18784 net.cpp:148] Top shape: 24 64 14 14 (301056)
I0403 16:38:27.902842 18784 net.cpp:156] Memory required for data: 980223264
I0403 16:38:27.902856 18784 layer_factory.hpp:77] Creating layer inception_4b/output
I0403 16:38:27.902873 18784 net.cpp:91] Creating Layer inception_4b/output
I0403 16:38:27.902889 18784 net.cpp:425] inception_4b/output <- inception_4b/1x1
I0403 16:38:27.902904 18784 net.cpp:425] inception_4b/output <- inception_4b/3x3
I0403 16:38:27.902920 18784 net.cpp:425] inception_4b/output <- inception_4b/5x5
I0403 16:38:27.902936 18784 net.cpp:425] inception_4b/output <- inception_4b/pool_proj
I0403 16:38:27.902956 18784 net.cpp:399] inception_4b/output -> inception_4b/output
I0403 16:38:27.903000 18784 net.cpp:141] Setting up inception_4b/output
I0403 16:38:27.903025 18784 net.cpp:148] Top shape: 24 512 14 14 (2408448)
I0403 16:38:27.903040 18784 net.cpp:156] Memory required for data: 989857056
I0403 16:38:27.903069 18784 layer_factory.hpp:77] Creating layer inception_4b/output_inception_4b/output_0_split
I0403 16:38:27.903087 18784 net.cpp:91] Creating Layer inception_4b/output_inception_4b/output_0_split
I0403 16:38:27.903103 18784 net.cpp:425] inception_4b/output_inception_4b/output_0_split <- inception_4b/output
I0403 16:38:27.903120 18784 net.cpp:399] inception_4b/output_inception_4b/output_0_split -> inception_4b/output_inception_4b/output_0_split_0
I0403 16:38:27.903143 18784 net.cpp:399] inception_4b/output_inception_4b/output_0_split -> inception_4b/output_inception_4b/output_0_split_1
I0403 16:38:27.903164 18784 net.cpp:399] inception_4b/output_inception_4b/output_0_split -> inception_4b/output_inception_4b/output_0_split_2
I0403 16:38:27.903184 18784 net.cpp:399] inception_4b/output_inception_4b/output_0_split -> inception_4b/output_inception_4b/output_0_split_3
I0403 16:38:27.903269 18784 net.cpp:141] Setting up inception_4b/output_inception_4b/output_0_split
I0403 16:38:27.903291 18784 net.cpp:148] Top shape: 24 512 14 14 (2408448)
I0403 16:38:27.903307 18784 net.cpp:148] Top shape: 24 512 14 14 (2408448)
I0403 16:38:27.903322 18784 net.cpp:148] Top shape: 24 512 14 14 (2408448)
I0403 16:38:27.903337 18784 net.cpp:148] Top shape: 24 512 14 14 (2408448)
I0403 16:38:27.903350 18784 net.cpp:156] Memory required for data: 1028392224
I0403 16:38:27.903365 18784 layer_factory.hpp:77] Creating layer inception_4c/1x1
I0403 16:38:27.903388 18784 net.cpp:91] Creating Layer inception_4c/1x1
I0403 16:38:27.903405 18784 net.cpp:425] inception_4c/1x1 <- inception_4b/output_inception_4b/output_0_split_0
I0403 16:38:27.903424 18784 net.cpp:399] inception_4c/1x1 -> inception_4c/1x1
I0403 16:38:27.904863 18784 net.cpp:141] Setting up inception_4c/1x1
I0403 16:38:27.904892 18784 net.cpp:148] Top shape: 24 128 14 14 (602112)
I0403 16:38:27.904907 18784 net.cpp:156] Memory required for data: 1030800672
I0403 16:38:27.904927 18784 layer_factory.hpp:77] Creating layer inception_4c/relu_1x1
I0403 16:38:27.904944 18784 net.cpp:91] Creating Layer inception_4c/relu_1x1
I0403 16:38:27.904960 18784 net.cpp:425] inception_4c/relu_1x1 <- inception_4c/1x1
I0403 16:38:27.904979 18784 net.cpp:386] inception_4c/relu_1x1 -> inception_4c/1x1 (in-place)
I0403 16:38:27.905159 18784 net.cpp:141] Setting up inception_4c/relu_1x1
I0403 16:38:27.905184 18784 net.cpp:148] Top shape: 24 128 14 14 (602112)
I0403 16:38:27.905199 18784 net.cpp:156] Memory required for data: 1033209120
I0403 16:38:27.905212 18784 layer_factory.hpp:77] Creating layer inception_4c/3x3_reduce
I0403 16:38:27.905235 18784 net.cpp:91] Creating Layer inception_4c/3x3_reduce
I0403 16:38:27.905251 18784 net.cpp:425] inception_4c/3x3_reduce <- inception_4b/output_inception_4b/output_0_split_1
I0403 16:38:27.905273 18784 net.cpp:399] inception_4c/3x3_reduce -> inception_4c/3x3_reduce
I0403 16:38:27.907207 18784 net.cpp:141] Setting up inception_4c/3x3_reduce
I0403 16:38:27.907238 18784 net.cpp:148] Top shape: 24 128 14 14 (602112)
I0403 16:38:27.907254 18784 net.cpp:156] Memory required for data: 1035617568
I0403 16:38:27.907274 18784 layer_factory.hpp:77] Creating layer inception_4c/relu_3x3_reduce
I0403 16:38:27.907292 18784 net.cpp:91] Creating Layer inception_4c/relu_3x3_reduce
I0403 16:38:27.907307 18784 net.cpp:425] inception_4c/relu_3x3_reduce <- inception_4c/3x3_reduce
I0403 16:38:27.907325 18784 net.cpp:386] inception_4c/relu_3x3_reduce -> inception_4c/3x3_reduce (in-place)
I0403 16:38:27.907618 18784 net.cpp:141] Setting up inception_4c/relu_3x3_reduce
I0403 16:38:27.907646 18784 net.cpp:148] Top shape: 24 128 14 14 (602112)
I0403 16:38:27.907661 18784 net.cpp:156] Memory required for data: 1038026016
I0403 16:38:27.907675 18784 layer_factory.hpp:77] Creating layer inception_4c/3x3
I0403 16:38:27.907696 18784 net.cpp:91] Creating Layer inception_4c/3x3
I0403 16:38:27.907712 18784 net.cpp:425] inception_4c/3x3 <- inception_4c/3x3_reduce
I0403 16:38:27.907734 18784 net.cpp:399] inception_4c/3x3 -> inception_4c/3x3
I0403 16:38:27.911331 18784 net.cpp:141] Setting up inception_4c/3x3
I0403 16:38:27.911375 18784 net.cpp:148] Top shape: 24 256 14 14 (1204224)
I0403 16:38:27.911392 18784 net.cpp:156] Memory required for data: 1042842912
I0403 16:38:27.911424 18784 layer_factory.hpp:77] Creating layer inception_4c/relu_3x3
I0403 16:38:27.911444 18784 net.cpp:91] Creating Layer inception_4c/relu_3x3
I0403 16:38:27.911461 18784 net.cpp:425] inception_4c/relu_3x3 <- inception_4c/3x3
I0403 16:38:27.911480 18784 net.cpp:386] inception_4c/relu_3x3 -> inception_4c/3x3 (in-place)
I0403 16:38:27.911669 18784 net.cpp:141] Setting up inception_4c/relu_3x3
I0403 16:38:27.911697 18784 net.cpp:148] Top shape: 24 256 14 14 (1204224)
I0403 16:38:27.911712 18784 net.cpp:156] Memory required for data: 1047659808
I0403 16:38:27.911727 18784 layer_factory.hpp:77] Creating layer inception_4c/5x5_reduce
I0403 16:38:27.911749 18784 net.cpp:91] Creating Layer inception_4c/5x5_reduce
I0403 16:38:27.911767 18784 net.cpp:425] inception_4c/5x5_reduce <- inception_4b/output_inception_4b/output_0_split_2
I0403 16:38:27.911787 18784 net.cpp:399] inception_4c/5x5_reduce -> inception_4c/5x5_reduce
I0403 16:38:27.912873 18784 net.cpp:141] Setting up inception_4c/5x5_reduce
I0403 16:38:27.912902 18784 net.cpp:148] Top shape: 24 24 14 14 (112896)
I0403 16:38:27.912919 18784 net.cpp:156] Memory required for data: 1048111392
I0403 16:38:27.912936 18784 layer_factory.hpp:77] Creating layer inception_4c/relu_5x5_reduce
I0403 16:38:27.912955 18784 net.cpp:91] Creating Layer inception_4c/relu_5x5_reduce
I0403 16:38:27.912971 18784 net.cpp:425] inception_4c/relu_5x5_reduce <- inception_4c/5x5_reduce
I0403 16:38:27.912987 18784 net.cpp:386] inception_4c/relu_5x5_reduce -> inception_4c/5x5_reduce (in-place)
I0403 16:38:27.913172 18784 net.cpp:141] Setting up inception_4c/relu_5x5_reduce
I0403 16:38:27.913197 18784 net.cpp:148] Top shape: 24 24 14 14 (112896)
I0403 16:38:27.913210 18784 net.cpp:156] Memory required for data: 1048562976
I0403 16:38:27.913225 18784 layer_factory.hpp:77] Creating layer inception_4c/5x5
I0403 16:38:27.913247 18784 net.cpp:91] Creating Layer inception_4c/5x5
I0403 16:38:27.913266 18784 net.cpp:425] inception_4c/5x5 <- inception_4c/5x5_reduce
I0403 16:38:27.913286 18784 net.cpp:399] inception_4c/5x5 -> inception_4c/5x5
I0403 16:38:27.914525 18784 net.cpp:141] Setting up inception_4c/5x5
I0403 16:38:27.914552 18784 net.cpp:148] Top shape: 24 64 14 14 (301056)
I0403 16:38:27.914577 18784 net.cpp:156] Memory required for data: 1049767200
I0403 16:38:27.914599 18784 layer_factory.hpp:77] Creating layer inception_4c/relu_5x5
I0403 16:38:27.914618 18784 net.cpp:91] Creating Layer inception_4c/relu_5x5
I0403 16:38:27.914634 18784 net.cpp:425] inception_4c/relu_5x5 <- inception_4c/5x5
I0403 16:38:27.914654 18784 net.cpp:386] inception_4c/relu_5x5 -> inception_4c/5x5 (in-place)
I0403 16:38:27.914949 18784 net.cpp:141] Setting up inception_4c/relu_5x5
I0403 16:38:27.914975 18784 net.cpp:148] Top shape: 24 64 14 14 (301056)
I0403 16:38:27.914989 18784 net.cpp:156] Memory required for data: 1050971424
I0403 16:38:27.915004 18784 layer_factory.hpp:77] Creating layer inception_4c/pool
I0403 16:38:27.915022 18784 net.cpp:91] Creating Layer inception_4c/pool
I0403 16:38:27.915038 18784 net.cpp:425] inception_4c/pool <- inception_4b/output_inception_4b/output_0_split_3
I0403 16:38:27.915058 18784 net.cpp:399] inception_4c/pool -> inception_4c/pool
I0403 16:38:27.915127 18784 net.cpp:141] Setting up inception_4c/pool
I0403 16:38:27.915151 18784 net.cpp:148] Top shape: 24 512 14 14 (2408448)
I0403 16:38:27.915165 18784 net.cpp:156] Memory required for data: 1060605216
I0403 16:38:27.915179 18784 layer_factory.hpp:77] Creating layer inception_4c/pool_proj
I0403 16:38:27.915202 18784 net.cpp:91] Creating Layer inception_4c/pool_proj
I0403 16:38:27.915220 18784 net.cpp:425] inception_4c/pool_proj <- inception_4c/pool
I0403 16:38:27.915238 18784 net.cpp:399] inception_4c/pool_proj -> inception_4c/pool_proj
I0403 16:38:27.916476 18784 net.cpp:141] Setting up inception_4c/pool_proj
I0403 16:38:27.916507 18784 net.cpp:148] Top shape: 24 64 14 14 (301056)
I0403 16:38:27.916537 18784 net.cpp:156] Memory required for data: 1061809440
I0403 16:38:27.916555 18784 layer_factory.hpp:77] Creating layer inception_4c/relu_pool_proj
I0403 16:38:27.916579 18784 net.cpp:91] Creating Layer inception_4c/relu_pool_proj
I0403 16:38:27.916595 18784 net.cpp:425] inception_4c/relu_pool_proj <- inception_4c/pool_proj
I0403 16:38:27.916615 18784 net.cpp:386] inception_4c/relu_pool_proj -> inception_4c/pool_proj (in-place)
I0403 16:38:27.916796 18784 net.cpp:141] Setting up inception_4c/relu_pool_proj
I0403 16:38:27.916821 18784 net.cpp:148] Top shape: 24 64 14 14 (301056)
I0403 16:38:27.916836 18784 net.cpp:156] Memory required for data: 1063013664
I0403 16:38:27.916849 18784 layer_factory.hpp:77] Creating layer inception_4c/output
I0403 16:38:27.916867 18784 net.cpp:91] Creating Layer inception_4c/output
I0403 16:38:27.916882 18784 net.cpp:425] inception_4c/output <- inception_4c/1x1
I0403 16:38:27.916898 18784 net.cpp:425] inception_4c/output <- inception_4c/3x3
I0403 16:38:27.916913 18784 net.cpp:425] inception_4c/output <- inception_4c/5x5
I0403 16:38:27.916929 18784 net.cpp:425] inception_4c/output <- inception_4c/pool_proj
I0403 16:38:27.916949 18784 net.cpp:399] inception_4c/output -> inception_4c/output
I0403 16:38:27.916996 18784 net.cpp:141] Setting up inception_4c/output
I0403 16:38:27.917021 18784 net.cpp:148] Top shape: 24 512 14 14 (2408448)
I0403 16:38:27.917037 18784 net.cpp:156] Memory required for data: 1072647456
I0403 16:38:27.917050 18784 layer_factory.hpp:77] Creating layer inception_4c/output_inception_4c/output_0_split
I0403 16:38:27.917068 18784 net.cpp:91] Creating Layer inception_4c/output_inception_4c/output_0_split
I0403 16:38:27.917083 18784 net.cpp:425] inception_4c/output_inception_4c/output_0_split <- inception_4c/output
I0403 16:38:27.917099 18784 net.cpp:399] inception_4c/output_inception_4c/output_0_split -> inception_4c/output_inception_4c/output_0_split_0
I0403 16:38:27.917120 18784 net.cpp:399] inception_4c/output_inception_4c/output_0_split -> inception_4c/output_inception_4c/output_0_split_1
I0403 16:38:27.917142 18784 net.cpp:399] inception_4c/output_inception_4c/output_0_split -> inception_4c/output_inception_4c/output_0_split_2
I0403 16:38:27.917163 18784 net.cpp:399] inception_4c/output_inception_4c/output_0_split -> inception_4c/output_inception_4c/output_0_split_3
I0403 16:38:27.917250 18784 net.cpp:141] Setting up inception_4c/output_inception_4c/output_0_split
I0403 16:38:27.917274 18784 net.cpp:148] Top shape: 24 512 14 14 (2408448)
I0403 16:38:27.917290 18784 net.cpp:148] Top shape: 24 512 14 14 (2408448)
I0403 16:38:27.917305 18784 net.cpp:148] Top shape: 24 512 14 14 (2408448)
I0403 16:38:27.917320 18784 net.cpp:148] Top shape: 24 512 14 14 (2408448)
I0403 16:38:27.917335 18784 net.cpp:156] Memory required for data: 1111182624
I0403 16:38:27.917348 18784 layer_factory.hpp:77] Creating layer inception_4d/1x1
I0403 16:38:27.917371 18784 net.cpp:91] Creating Layer inception_4d/1x1
I0403 16:38:27.917387 18784 net.cpp:425] inception_4d/1x1 <- inception_4c/output_inception_4c/output_0_split_0
I0403 16:38:27.917408 18784 net.cpp:399] inception_4d/1x1 -> inception_4d/1x1
I0403 16:38:27.918807 18784 net.cpp:141] Setting up inception_4d/1x1
I0403 16:38:27.918834 18784 net.cpp:148] Top shape: 24 112 14 14 (526848)
I0403 16:38:27.918850 18784 net.cpp:156] Memory required for data: 1113290016
I0403 16:38:27.918867 18784 layer_factory.hpp:77] Creating layer inception_4d/relu_1x1
I0403 16:38:27.918887 18784 net.cpp:91] Creating Layer inception_4d/relu_1x1
I0403 16:38:27.918905 18784 net.cpp:425] inception_4d/relu_1x1 <- inception_4d/1x1
I0403 16:38:27.918921 18784 net.cpp:386] inception_4d/relu_1x1 -> inception_4d/1x1 (in-place)
I0403 16:38:27.919106 18784 net.cpp:141] Setting up inception_4d/relu_1x1
I0403 16:38:27.919137 18784 net.cpp:148] Top shape: 24 112 14 14 (526848)
I0403 16:38:27.919152 18784 net.cpp:156] Memory required for data: 1115397408
I0403 16:38:27.919167 18784 layer_factory.hpp:77] Creating layer inception_4d/3x3_reduce
I0403 16:38:27.919203 18784 net.cpp:91] Creating Layer inception_4d/3x3_reduce
I0403 16:38:27.919231 18784 net.cpp:425] inception_4d/3x3_reduce <- inception_4c/output_inception_4c/output_0_split_1
I0403 16:38:27.919250 18784 net.cpp:399] inception_4d/3x3_reduce -> inception_4d/3x3_reduce
I0403 16:38:27.920742 18784 net.cpp:141] Setting up inception_4d/3x3_reduce
I0403 16:38:27.920768 18784 net.cpp:148] Top shape: 24 144 14 14 (677376)
I0403 16:38:27.920783 18784 net.cpp:156] Memory required for data: 1118106912
I0403 16:38:27.920800 18784 layer_factory.hpp:77] Creating layer inception_4d/relu_3x3_reduce
I0403 16:38:27.920819 18784 net.cpp:91] Creating Layer inception_4d/relu_3x3_reduce
I0403 16:38:27.920835 18784 net.cpp:425] inception_4d/relu_3x3_reduce <- inception_4d/3x3_reduce
I0403 16:38:27.920852 18784 net.cpp:386] inception_4d/relu_3x3_reduce -> inception_4d/3x3_reduce (in-place)
I0403 16:38:27.921131 18784 net.cpp:141] Setting up inception_4d/relu_3x3_reduce
I0403 16:38:27.921157 18784 net.cpp:148] Top shape: 24 144 14 14 (677376)
I0403 16:38:27.921171 18784 net.cpp:156] Memory required for data: 1120816416
I0403 16:38:27.921185 18784 layer_factory.hpp:77] Creating layer inception_4d/3x3
I0403 16:38:27.921207 18784 net.cpp:91] Creating Layer inception_4d/3x3
I0403 16:38:27.921224 18784 net.cpp:425] inception_4d/3x3 <- inception_4d/3x3_reduce
I0403 16:38:27.921244 18784 net.cpp:399] inception_4d/3x3 -> inception_4d/3x3
I0403 16:38:27.925393 18784 net.cpp:141] Setting up inception_4d/3x3
I0403 16:38:27.925422 18784 net.cpp:148] Top shape: 24 288 14 14 (1354752)
I0403 16:38:27.925437 18784 net.cpp:156] Memory required for data: 1126235424
I0403 16:38:27.925454 18784 layer_factory.hpp:77] Creating layer inception_4d/relu_3x3
I0403 16:38:27.925474 18784 net.cpp:91] Creating Layer inception_4d/relu_3x3
I0403 16:38:27.925492 18784 net.cpp:425] inception_4d/relu_3x3 <- inception_4d/3x3
I0403 16:38:27.925508 18784 net.cpp:386] inception_4d/relu_3x3 -> inception_4d/3x3 (in-place)
I0403 16:38:27.925690 18784 net.cpp:141] Setting up inception_4d/relu_3x3
I0403 16:38:27.925716 18784 net.cpp:148] Top shape: 24 288 14 14 (1354752)
I0403 16:38:27.925731 18784 net.cpp:156] Memory required for data: 1131654432
I0403 16:38:27.925746 18784 layer_factory.hpp:77] Creating layer inception_4d/5x5_reduce
I0403 16:38:27.925768 18784 net.cpp:91] Creating Layer inception_4d/5x5_reduce
I0403 16:38:27.925786 18784 net.cpp:425] inception_4d/5x5_reduce <- inception_4c/output_inception_4c/output_0_split_2
I0403 16:38:27.925803 18784 net.cpp:399] inception_4d/5x5_reduce -> inception_4d/5x5_reduce
I0403 16:38:27.926905 18784 net.cpp:141] Setting up inception_4d/5x5_reduce
I0403 16:38:27.926933 18784 net.cpp:148] Top shape: 24 32 14 14 (150528)
I0403 16:38:27.926947 18784 net.cpp:156] Memory required for data: 1132256544
I0403 16:38:27.926965 18784 layer_factory.hpp:77] Creating layer inception_4d/relu_5x5_reduce
I0403 16:38:27.926983 18784 net.cpp:91] Creating Layer inception_4d/relu_5x5_reduce
I0403 16:38:27.927000 18784 net.cpp:425] inception_4d/relu_5x5_reduce <- inception_4d/5x5_reduce
I0403 16:38:27.927016 18784 net.cpp:386] inception_4d/relu_5x5_reduce -> inception_4d/5x5_reduce (in-place)
I0403 16:38:27.927197 18784 net.cpp:141] Setting up inception_4d/relu_5x5_reduce
I0403 16:38:27.927224 18784 net.cpp:148] Top shape: 24 32 14 14 (150528)
I0403 16:38:27.927239 18784 net.cpp:156] Memory required for data: 1132858656
I0403 16:38:27.927253 18784 layer_factory.hpp:77] Creating layer inception_4d/5x5
I0403 16:38:27.927274 18784 net.cpp:91] Creating Layer inception_4d/5x5
I0403 16:38:27.927290 18784 net.cpp:425] inception_4d/5x5 <- inception_4d/5x5_reduce
I0403 16:38:27.927309 18784 net.cpp:399] inception_4d/5x5 -> inception_4d/5x5
I0403 16:38:27.928740 18784 net.cpp:141] Setting up inception_4d/5x5
I0403 16:38:27.928766 18784 net.cpp:148] Top shape: 24 64 14 14 (301056)
I0403 16:38:27.928781 18784 net.cpp:156] Memory required for data: 1134062880
I0403 16:38:27.928800 18784 layer_factory.hpp:77] Creating layer inception_4d/relu_5x5
I0403 16:38:27.928833 18784 net.cpp:91] Creating Layer inception_4d/relu_5x5
I0403 16:38:27.928849 18784 net.cpp:425] inception_4d/relu_5x5 <- inception_4d/5x5
I0403 16:38:27.928869 18784 net.cpp:386] inception_4d/relu_5x5 -> inception_4d/5x5 (in-place)
I0403 16:38:27.929158 18784 net.cpp:141] Setting up inception_4d/relu_5x5
I0403 16:38:27.929184 18784 net.cpp:148] Top shape: 24 64 14 14 (301056)
I0403 16:38:27.929198 18784 net.cpp:156] Memory required for data: 1135267104
I0403 16:38:27.929213 18784 layer_factory.hpp:77] Creating layer inception_4d/pool
I0403 16:38:27.929229 18784 net.cpp:91] Creating Layer inception_4d/pool
I0403 16:38:27.929245 18784 net.cpp:425] inception_4d/pool <- inception_4c/output_inception_4c/output_0_split_3
I0403 16:38:27.929266 18784 net.cpp:399] inception_4d/pool -> inception_4d/pool
I0403 16:38:27.929332 18784 net.cpp:141] Setting up inception_4d/pool
I0403 16:38:27.929357 18784 net.cpp:148] Top shape: 24 512 14 14 (2408448)
I0403 16:38:27.929370 18784 net.cpp:156] Memory required for data: 1144900896
I0403 16:38:27.929385 18784 layer_factory.hpp:77] Creating layer inception_4d/pool_proj
I0403 16:38:27.929407 18784 net.cpp:91] Creating Layer inception_4d/pool_proj
I0403 16:38:27.929425 18784 net.cpp:425] inception_4d/pool_proj <- inception_4d/pool
I0403 16:38:27.929443 18784 net.cpp:399] inception_4d/pool_proj -> inception_4d/pool_proj
I0403 16:38:27.931183 18784 net.cpp:141] Setting up inception_4d/pool_proj
I0403 16:38:27.931212 18784 net.cpp:148] Top shape: 24 64 14 14 (301056)
I0403 16:38:27.931227 18784 net.cpp:156] Memory required for data: 1146105120
I0403 16:38:27.931246 18784 layer_factory.hpp:77] Creating layer inception_4d/relu_pool_proj
I0403 16:38:27.931267 18784 net.cpp:91] Creating Layer inception_4d/relu_pool_proj
I0403 16:38:27.931283 18784 net.cpp:425] inception_4d/relu_pool_proj <- inception_4d/pool_proj
I0403 16:38:27.931300 18784 net.cpp:386] inception_4d/relu_pool_proj -> inception_4d/pool_proj (in-place)
I0403 16:38:27.931488 18784 net.cpp:141] Setting up inception_4d/relu_pool_proj
I0403 16:38:27.931514 18784 net.cpp:148] Top shape: 24 64 14 14 (301056)
I0403 16:38:27.931529 18784 net.cpp:156] Memory required for data: 1147309344
I0403 16:38:27.931543 18784 layer_factory.hpp:77] Creating layer inception_4d/output
I0403 16:38:27.931560 18784 net.cpp:91] Creating Layer inception_4d/output
I0403 16:38:27.931581 18784 net.cpp:425] inception_4d/output <- inception_4d/1x1
I0403 16:38:27.931598 18784 net.cpp:425] inception_4d/output <- inception_4d/3x3
I0403 16:38:27.931614 18784 net.cpp:425] inception_4d/output <- inception_4d/5x5
I0403 16:38:27.931629 18784 net.cpp:425] inception_4d/output <- inception_4d/pool_proj
I0403 16:38:27.931648 18784 net.cpp:399] inception_4d/output -> inception_4d/output
I0403 16:38:27.931694 18784 net.cpp:141] Setting up inception_4d/output
I0403 16:38:27.931716 18784 net.cpp:148] Top shape: 24 528 14 14 (2483712)
I0403 16:38:27.931731 18784 net.cpp:156] Memory required for data: 1157244192
I0403 16:38:27.931746 18784 layer_factory.hpp:77] Creating layer inception_4d/output_inception_4d/output_0_split
I0403 16:38:27.931764 18784 net.cpp:91] Creating Layer inception_4d/output_inception_4d/output_0_split
I0403 16:38:27.931782 18784 net.cpp:425] inception_4d/output_inception_4d/output_0_split <- inception_4d/output
I0403 16:38:27.931797 18784 net.cpp:399] inception_4d/output_inception_4d/output_0_split -> inception_4d/output_inception_4d/output_0_split_0
I0403 16:38:27.931818 18784 net.cpp:399] inception_4d/output_inception_4d/output_0_split -> inception_4d/output_inception_4d/output_0_split_1
I0403 16:38:27.931843 18784 net.cpp:399] inception_4d/output_inception_4d/output_0_split -> inception_4d/output_inception_4d/output_0_split_2
I0403 16:38:27.931862 18784 net.cpp:399] inception_4d/output_inception_4d/output_0_split -> inception_4d/output_inception_4d/output_0_split_3
I0403 16:38:27.931882 18784 net.cpp:399] inception_4d/output_inception_4d/output_0_split -> inception_4d/output_inception_4d/output_0_split_4
I0403 16:38:27.931980 18784 net.cpp:141] Setting up inception_4d/output_inception_4d/output_0_split
I0403 16:38:27.932014 18784 net.cpp:148] Top shape: 24 528 14 14 (2483712)
I0403 16:38:27.932030 18784 net.cpp:148] Top shape: 24 528 14 14 (2483712)
I0403 16:38:27.932056 18784 net.cpp:148] Top shape: 24 528 14 14 (2483712)
I0403 16:38:27.932071 18784 net.cpp:148] Top shape: 24 528 14 14 (2483712)
I0403 16:38:27.932086 18784 net.cpp:148] Top shape: 24 528 14 14 (2483712)
I0403 16:38:27.932099 18784 net.cpp:156] Memory required for data: 1206918432
I0403 16:38:27.932113 18784 layer_factory.hpp:77] Creating layer loss2/ave_pool
I0403 16:38:27.932132 18784 net.cpp:91] Creating Layer loss2/ave_pool
I0403 16:38:27.932148 18784 net.cpp:425] loss2/ave_pool <- inception_4d/output_inception_4d/output_0_split_0
I0403 16:38:27.932166 18784 net.cpp:399] loss2/ave_pool -> loss2/ave_pool
I0403 16:38:27.932775 18784 net.cpp:141] Setting up loss2/ave_pool
I0403 16:38:27.932801 18784 net.cpp:148] Top shape: 24 528 4 4 (202752)
I0403 16:38:27.932816 18784 net.cpp:156] Memory required for data: 1207729440
I0403 16:38:27.932831 18784 layer_factory.hpp:77] Creating layer loss2/conv
I0403 16:38:27.932852 18784 net.cpp:91] Creating Layer loss2/conv
I0403 16:38:27.932869 18784 net.cpp:425] loss2/conv <- loss2/ave_pool
I0403 16:38:27.932889 18784 net.cpp:399] loss2/conv -> loss2/conv
I0403 16:38:27.934758 18784 net.cpp:141] Setting up loss2/conv
I0403 16:38:27.934790 18784 net.cpp:148] Top shape: 24 128 4 4 (49152)
I0403 16:38:27.934806 18784 net.cpp:156] Memory required for data: 1207926048
I0403 16:38:27.934825 18784 layer_factory.hpp:77] Creating layer loss2/relu_conv
I0403 16:38:27.934844 18784 net.cpp:91] Creating Layer loss2/relu_conv
I0403 16:38:27.934859 18784 net.cpp:425] loss2/relu_conv <- loss2/conv
I0403 16:38:27.934877 18784 net.cpp:386] loss2/relu_conv -> loss2/conv (in-place)
I0403 16:38:27.935150 18784 net.cpp:141] Setting up loss2/relu_conv
I0403 16:38:27.935178 18784 net.cpp:148] Top shape: 24 128 4 4 (49152)
I0403 16:38:27.935194 18784 net.cpp:156] Memory required for data: 1208122656
I0403 16:38:27.935209 18784 layer_factory.hpp:77] Creating layer loss2/fc
I0403 16:38:27.935226 18784 net.cpp:91] Creating Layer loss2/fc
I0403 16:38:27.935242 18784 net.cpp:425] loss2/fc <- loss2/conv
I0403 16:38:27.935264 18784 net.cpp:399] loss2/fc -> loss2/fc
I0403 16:38:27.952903 18784 net.cpp:141] Setting up loss2/fc
I0403 16:38:27.952934 18784 net.cpp:148] Top shape: 24 1024 (24576)
I0403 16:38:27.952947 18784 net.cpp:156] Memory required for data: 1208220960
I0403 16:38:27.952975 18784 layer_factory.hpp:77] Creating layer loss2/relu_fc
I0403 16:38:27.952993 18784 net.cpp:91] Creating Layer loss2/relu_fc
I0403 16:38:27.953009 18784 net.cpp:425] loss2/relu_fc <- loss2/fc
I0403 16:38:27.953025 18784 net.cpp:386] loss2/relu_fc -> loss2/fc (in-place)
I0403 16:38:27.953310 18784 net.cpp:141] Setting up loss2/relu_fc
I0403 16:38:27.953336 18784 net.cpp:148] Top shape: 24 1024 (24576)
I0403 16:38:27.953351 18784 net.cpp:156] Memory required for data: 1208319264
I0403 16:38:27.953363 18784 layer_factory.hpp:77] Creating layer loss2/drop_fc
I0403 16:38:27.953382 18784 net.cpp:91] Creating Layer loss2/drop_fc
I0403 16:38:27.953399 18784 net.cpp:425] loss2/drop_fc <- loss2/fc
I0403 16:38:27.953415 18784 net.cpp:386] loss2/drop_fc -> loss2/fc (in-place)
I0403 16:38:27.953464 18784 net.cpp:141] Setting up loss2/drop_fc
I0403 16:38:27.953485 18784 net.cpp:148] Top shape: 24 1024 (24576)
I0403 16:38:27.953500 18784 net.cpp:156] Memory required for data: 1208417568
I0403 16:38:27.953512 18784 layer_factory.hpp:77] Creating layer loss2/classifier_plantvillage
I0403 16:38:27.953532 18784 net.cpp:91] Creating Layer loss2/classifier_plantvillage
I0403 16:38:27.953549 18784 net.cpp:425] loss2/classifier_plantvillage <- loss2/fc
I0403 16:38:27.953569 18784 net.cpp:399] loss2/classifier_plantvillage -> loss2/classifier_plantvillage
I0403 16:38:27.953953 18784 net.cpp:141] Setting up loss2/classifier_plantvillage
I0403 16:38:27.953975 18784 net.cpp:148] Top shape: 24 38 (912)
I0403 16:38:27.954005 18784 net.cpp:156] Memory required for data: 1208421216
I0403 16:38:27.954025 18784 layer_factory.hpp:77] Creating layer loss2/classifier_plantvillage_loss2/classifier_plantvillage_0_split
I0403 16:38:27.954041 18784 net.cpp:91] Creating Layer loss2/classifier_plantvillage_loss2/classifier_plantvillage_0_split
I0403 16:38:27.954056 18784 net.cpp:425] loss2/classifier_plantvillage_loss2/classifier_plantvillage_0_split <- loss2/classifier_plantvillage
I0403 16:38:27.954074 18784 net.cpp:399] loss2/classifier_plantvillage_loss2/classifier_plantvillage_0_split -> loss2/classifier_plantvillage_loss2/classifier_plantvillage_0_split_0
I0403 16:38:27.954095 18784 net.cpp:399] loss2/classifier_plantvillage_loss2/classifier_plantvillage_0_split -> loss2/classifier_plantvillage_loss2/classifier_plantvillage_0_split_1
I0403 16:38:27.954115 18784 net.cpp:399] loss2/classifier_plantvillage_loss2/classifier_plantvillage_0_split -> loss2/classifier_plantvillage_loss2/classifier_plantvillage_0_split_2
I0403 16:38:27.954187 18784 net.cpp:141] Setting up loss2/classifier_plantvillage_loss2/classifier_plantvillage_0_split
I0403 16:38:27.954210 18784 net.cpp:148] Top shape: 24 38 (912)
I0403 16:38:27.954226 18784 net.cpp:148] Top shape: 24 38 (912)
I0403 16:38:27.954241 18784 net.cpp:148] Top shape: 24 38 (912)
I0403 16:38:27.954254 18784 net.cpp:156] Memory required for data: 1208432160
I0403 16:38:27.954268 18784 layer_factory.hpp:77] Creating layer inception_4e/1x1
I0403 16:38:27.954287 18784 net.cpp:91] Creating Layer inception_4e/1x1
I0403 16:38:27.954303 18784 net.cpp:425] inception_4e/1x1 <- inception_4d/output_inception_4d/output_0_split_1
I0403 16:38:27.954319 18784 net.cpp:399] inception_4e/1x1 -> inception_4e/1x1
I0403 16:38:27.956045 18784 net.cpp:141] Setting up inception_4e/1x1
I0403 16:38:27.956073 18784 net.cpp:148] Top shape: 24 256 14 14 (1204224)
I0403 16:38:27.956087 18784 net.cpp:156] Memory required for data: 1213249056
I0403 16:38:27.956104 18784 layer_factory.hpp:77] Creating layer inception_4e/relu_1x1
I0403 16:38:27.956121 18784 net.cpp:91] Creating Layer inception_4e/relu_1x1
I0403 16:38:27.956136 18784 net.cpp:425] inception_4e/relu_1x1 <- inception_4e/1x1
I0403 16:38:27.956154 18784 net.cpp:386] inception_4e/relu_1x1 -> inception_4e/1x1 (in-place)
I0403 16:38:27.956435 18784 net.cpp:141] Setting up inception_4e/relu_1x1
I0403 16:38:27.956459 18784 net.cpp:148] Top shape: 24 256 14 14 (1204224)
I0403 16:38:27.956473 18784 net.cpp:156] Memory required for data: 1218065952
I0403 16:38:27.956486 18784 layer_factory.hpp:77] Creating layer inception_4e/3x3_reduce
I0403 16:38:27.956506 18784 net.cpp:91] Creating Layer inception_4e/3x3_reduce
I0403 16:38:27.956523 18784 net.cpp:425] inception_4e/3x3_reduce <- inception_4d/output_inception_4d/output_0_split_2
I0403 16:38:27.956544 18784 net.cpp:399] inception_4e/3x3_reduce -> inception_4e/3x3_reduce
I0403 16:38:27.958559 18784 net.cpp:141] Setting up inception_4e/3x3_reduce
I0403 16:38:27.958592 18784 net.cpp:148] Top shape: 24 160 14 14 (752640)
I0403 16:38:27.958607 18784 net.cpp:156] Memory required for data: 1221076512
I0403 16:38:27.958626 18784 layer_factory.hpp:77] Creating layer inception_4e/relu_3x3_reduce
I0403 16:38:27.958642 18784 net.cpp:91] Creating Layer inception_4e/relu_3x3_reduce
I0403 16:38:27.958657 18784 net.cpp:425] inception_4e/relu_3x3_reduce <- inception_4e/3x3_reduce
I0403 16:38:27.958676 18784 net.cpp:386] inception_4e/relu_3x3_reduce -> inception_4e/3x3_reduce (in-place)
I0403 16:38:27.958852 18784 net.cpp:141] Setting up inception_4e/relu_3x3_reduce
I0403 16:38:27.958875 18784 net.cpp:148] Top shape: 24 160 14 14 (752640)
I0403 16:38:27.958889 18784 net.cpp:156] Memory required for data: 1224087072
I0403 16:38:27.958904 18784 layer_factory.hpp:77] Creating layer inception_4e/3x3
I0403 16:38:27.958923 18784 net.cpp:91] Creating Layer inception_4e/3x3
I0403 16:38:27.958941 18784 net.cpp:425] inception_4e/3x3 <- inception_4e/3x3_reduce
I0403 16:38:27.958962 18784 net.cpp:399] inception_4e/3x3 -> inception_4e/3x3
I0403 16:38:27.963835 18784 net.cpp:141] Setting up inception_4e/3x3
I0403 16:38:27.963876 18784 net.cpp:148] Top shape: 24 320 14 14 (1505280)
I0403 16:38:27.963892 18784 net.cpp:156] Memory required for data: 1230108192
I0403 16:38:27.963910 18784 layer_factory.hpp:77] Creating layer inception_4e/relu_3x3
I0403 16:38:27.963943 18784 net.cpp:91] Creating Layer inception_4e/relu_3x3
I0403 16:38:27.963959 18784 net.cpp:425] inception_4e/relu_3x3 <- inception_4e/3x3
I0403 16:38:27.963976 18784 net.cpp:386] inception_4e/relu_3x3 -> inception_4e/3x3 (in-place)
I0403 16:38:27.964259 18784 net.cpp:141] Setting up inception_4e/relu_3x3
I0403 16:38:27.964283 18784 net.cpp:148] Top shape: 24 320 14 14 (1505280)
I0403 16:38:27.964298 18784 net.cpp:156] Memory required for data: 1236129312
I0403 16:38:27.964313 18784 layer_factory.hpp:77] Creating layer inception_4e/5x5_reduce
I0403 16:38:27.964334 18784 net.cpp:91] Creating Layer inception_4e/5x5_reduce
I0403 16:38:27.964354 18784 net.cpp:425] inception_4e/5x5_reduce <- inception_4d/output_inception_4d/output_0_split_3
I0403 16:38:27.964375 18784 net.cpp:399] inception_4e/5x5_reduce -> inception_4e/5x5_reduce
I0403 16:38:27.965427 18784 net.cpp:141] Setting up inception_4e/5x5_reduce
I0403 16:38:27.965453 18784 net.cpp:148] Top shape: 24 32 14 14 (150528)
I0403 16:38:27.965468 18784 net.cpp:156] Memory required for data: 1236731424
I0403 16:38:27.965486 18784 layer_factory.hpp:77] Creating layer inception_4e/relu_5x5_reduce
I0403 16:38:27.965502 18784 net.cpp:91] Creating Layer inception_4e/relu_5x5_reduce
I0403 16:38:27.965518 18784 net.cpp:425] inception_4e/relu_5x5_reduce <- inception_4e/5x5_reduce
I0403 16:38:27.965536 18784 net.cpp:386] inception_4e/relu_5x5_reduce -> inception_4e/5x5_reduce (in-place)
I0403 16:38:27.965837 18784 net.cpp:141] Setting up inception_4e/relu_5x5_reduce
I0403 16:38:27.965862 18784 net.cpp:148] Top shape: 24 32 14 14 (150528)
I0403 16:38:27.965876 18784 net.cpp:156] Memory required for data: 1237333536
I0403 16:38:27.965891 18784 layer_factory.hpp:77] Creating layer inception_4e/5x5
I0403 16:38:27.965944 18784 net.cpp:91] Creating Layer inception_4e/5x5
I0403 16:38:27.965961 18784 net.cpp:425] inception_4e/5x5 <- inception_4e/5x5_reduce
I0403 16:38:27.965981 18784 net.cpp:399] inception_4e/5x5 -> inception_4e/5x5
I0403 16:38:27.967770 18784 net.cpp:141] Setting up inception_4e/5x5
I0403 16:38:27.967800 18784 net.cpp:148] Top shape: 24 128 14 14 (602112)
I0403 16:38:27.967816 18784 net.cpp:156] Memory required for data: 1239741984
I0403 16:38:27.967835 18784 layer_factory.hpp:77] Creating layer inception_4e/relu_5x5
I0403 16:38:27.967852 18784 net.cpp:91] Creating Layer inception_4e/relu_5x5
I0403 16:38:27.967869 18784 net.cpp:425] inception_4e/relu_5x5 <- inception_4e/5x5
I0403 16:38:27.967885 18784 net.cpp:386] inception_4e/relu_5x5 -> inception_4e/5x5 (in-place)
I0403 16:38:27.968085 18784 net.cpp:141] Setting up inception_4e/relu_5x5
I0403 16:38:27.968111 18784 net.cpp:148] Top shape: 24 128 14 14 (602112)
I0403 16:38:27.968124 18784 net.cpp:156] Memory required for data: 1242150432
I0403 16:38:27.968139 18784 layer_factory.hpp:77] Creating layer inception_4e/pool
I0403 16:38:27.968155 18784 net.cpp:91] Creating Layer inception_4e/pool
I0403 16:38:27.968170 18784 net.cpp:425] inception_4e/pool <- inception_4d/output_inception_4d/output_0_split_4
I0403 16:38:27.968190 18784 net.cpp:399] inception_4e/pool -> inception_4e/pool
I0403 16:38:27.968257 18784 net.cpp:141] Setting up inception_4e/pool
I0403 16:38:27.968281 18784 net.cpp:148] Top shape: 24 528 14 14 (2483712)
I0403 16:38:27.968297 18784 net.cpp:156] Memory required for data: 1252085280
I0403 16:38:27.968310 18784 layer_factory.hpp:77] Creating layer inception_4e/pool_proj
I0403 16:38:27.968330 18784 net.cpp:91] Creating Layer inception_4e/pool_proj
I0403 16:38:27.968346 18784 net.cpp:425] inception_4e/pool_proj <- inception_4e/pool
I0403 16:38:27.968364 18784 net.cpp:399] inception_4e/pool_proj -> inception_4e/pool_proj
I0403 16:38:27.969841 18784 net.cpp:141] Setting up inception_4e/pool_proj
I0403 16:38:27.969878 18784 net.cpp:148] Top shape: 24 128 14 14 (602112)
I0403 16:38:27.969893 18784 net.cpp:156] Memory required for data: 1254493728
I0403 16:38:27.969912 18784 layer_factory.hpp:77] Creating layer inception_4e/relu_pool_proj
I0403 16:38:27.969944 18784 net.cpp:91] Creating Layer inception_4e/relu_pool_proj
I0403 16:38:27.969959 18784 net.cpp:425] inception_4e/relu_pool_proj <- inception_4e/pool_proj
I0403 16:38:27.969976 18784 net.cpp:386] inception_4e/relu_pool_proj -> inception_4e/pool_proj (in-place)
I0403 16:38:27.970253 18784 net.cpp:141] Setting up inception_4e/relu_pool_proj
I0403 16:38:27.970278 18784 net.cpp:148] Top shape: 24 128 14 14 (602112)
I0403 16:38:27.970291 18784 net.cpp:156] Memory required for data: 1256902176
I0403 16:38:27.970305 18784 layer_factory.hpp:77] Creating layer inception_4e/output
I0403 16:38:27.970327 18784 net.cpp:91] Creating Layer inception_4e/output
I0403 16:38:27.970343 18784 net.cpp:425] inception_4e/output <- inception_4e/1x1
I0403 16:38:27.970360 18784 net.cpp:425] inception_4e/output <- inception_4e/3x3
I0403 16:38:27.970374 18784 net.cpp:425] inception_4e/output <- inception_4e/5x5
I0403 16:38:27.970389 18784 net.cpp:425] inception_4e/output <- inception_4e/pool_proj
I0403 16:38:27.970405 18784 net.cpp:399] inception_4e/output -> inception_4e/output
I0403 16:38:27.970453 18784 net.cpp:141] Setting up inception_4e/output
I0403 16:38:27.970474 18784 net.cpp:148] Top shape: 24 832 14 14 (3913728)
I0403 16:38:27.970489 18784 net.cpp:156] Memory required for data: 1272557088
I0403 16:38:27.970502 18784 layer_factory.hpp:77] Creating layer pool4/3x3_s2
I0403 16:38:27.970518 18784 net.cpp:91] Creating Layer pool4/3x3_s2
I0403 16:38:27.970536 18784 net.cpp:425] pool4/3x3_s2 <- inception_4e/output
I0403 16:38:27.970552 18784 net.cpp:399] pool4/3x3_s2 -> pool4/3x3_s2
I0403 16:38:27.970620 18784 net.cpp:141] Setting up pool4/3x3_s2
I0403 16:38:27.970643 18784 net.cpp:148] Top shape: 24 832 7 7 (978432)
I0403 16:38:27.970659 18784 net.cpp:156] Memory required for data: 1276470816
I0403 16:38:27.970671 18784 layer_factory.hpp:77] Creating layer pool4/3x3_s2_pool4/3x3_s2_0_split
I0403 16:38:27.970686 18784 net.cpp:91] Creating Layer pool4/3x3_s2_pool4/3x3_s2_0_split
I0403 16:38:27.970701 18784 net.cpp:425] pool4/3x3_s2_pool4/3x3_s2_0_split <- pool4/3x3_s2
I0403 16:38:27.970721 18784 net.cpp:399] pool4/3x3_s2_pool4/3x3_s2_0_split -> pool4/3x3_s2_pool4/3x3_s2_0_split_0
I0403 16:38:27.970741 18784 net.cpp:399] pool4/3x3_s2_pool4/3x3_s2_0_split -> pool4/3x3_s2_pool4/3x3_s2_0_split_1
I0403 16:38:27.970759 18784 net.cpp:399] pool4/3x3_s2_pool4/3x3_s2_0_split -> pool4/3x3_s2_pool4/3x3_s2_0_split_2
I0403 16:38:27.970778 18784 net.cpp:399] pool4/3x3_s2_pool4/3x3_s2_0_split -> pool4/3x3_s2_pool4/3x3_s2_0_split_3
I0403 16:38:27.970865 18784 net.cpp:141] Setting up pool4/3x3_s2_pool4/3x3_s2_0_split
I0403 16:38:27.970886 18784 net.cpp:148] Top shape: 24 832 7 7 (978432)
I0403 16:38:27.970901 18784 net.cpp:148] Top shape: 24 832 7 7 (978432)
I0403 16:38:27.970916 18784 net.cpp:148] Top shape: 24 832 7 7 (978432)
I0403 16:38:27.970930 18784 net.cpp:148] Top shape: 24 832 7 7 (978432)
I0403 16:38:27.970943 18784 net.cpp:156] Memory required for data: 1292125728
I0403 16:38:27.970957 18784 layer_factory.hpp:77] Creating layer inception_5a/1x1
I0403 16:38:27.970978 18784 net.cpp:91] Creating Layer inception_5a/1x1
I0403 16:38:27.970996 18784 net.cpp:425] inception_5a/1x1 <- pool4/3x3_s2_pool4/3x3_s2_0_split_0
I0403 16:38:27.971014 18784 net.cpp:399] inception_5a/1x1 -> inception_5a/1x1
I0403 16:38:27.973729 18784 net.cpp:141] Setting up inception_5a/1x1
I0403 16:38:27.973758 18784 net.cpp:148] Top shape: 24 256 7 7 (301056)
I0403 16:38:27.973774 18784 net.cpp:156] Memory required for data: 1293329952
I0403 16:38:27.973791 18784 layer_factory.hpp:77] Creating layer inception_5a/relu_1x1
I0403 16:38:27.973809 18784 net.cpp:91] Creating Layer inception_5a/relu_1x1
I0403 16:38:27.973824 18784 net.cpp:425] inception_5a/relu_1x1 <- inception_5a/1x1
I0403 16:38:27.973844 18784 net.cpp:386] inception_5a/relu_1x1 -> inception_5a/1x1 (in-place)
I0403 16:38:27.974135 18784 net.cpp:141] Setting up inception_5a/relu_1x1
I0403 16:38:27.974162 18784 net.cpp:148] Top shape: 24 256 7 7 (301056)
I0403 16:38:27.974177 18784 net.cpp:156] Memory required for data: 1294534176
I0403 16:38:27.974191 18784 layer_factory.hpp:77] Creating layer inception_5a/3x3_reduce
I0403 16:38:27.974212 18784 net.cpp:91] Creating Layer inception_5a/3x3_reduce
I0403 16:38:27.974230 18784 net.cpp:425] inception_5a/3x3_reduce <- pool4/3x3_s2_pool4/3x3_s2_0_split_1
I0403 16:38:27.974248 18784 net.cpp:399] inception_5a/3x3_reduce -> inception_5a/3x3_reduce
I0403 16:38:27.976614 18784 net.cpp:141] Setting up inception_5a/3x3_reduce
I0403 16:38:27.976642 18784 net.cpp:148] Top shape: 24 160 7 7 (188160)
I0403 16:38:27.976657 18784 net.cpp:156] Memory required for data: 1295286816
I0403 16:38:27.976675 18784 layer_factory.hpp:77] Creating layer inception_5a/relu_3x3_reduce
I0403 16:38:27.976694 18784 net.cpp:91] Creating Layer inception_5a/relu_3x3_reduce
I0403 16:38:27.976711 18784 net.cpp:425] inception_5a/relu_3x3_reduce <- inception_5a/3x3_reduce
I0403 16:38:27.976727 18784 net.cpp:386] inception_5a/relu_3x3_reduce -> inception_5a/3x3_reduce (in-place)
I0403 16:38:27.976904 18784 net.cpp:141] Setting up inception_5a/relu_3x3_reduce
I0403 16:38:27.976929 18784 net.cpp:148] Top shape: 24 160 7 7 (188160)
I0403 16:38:27.976944 18784 net.cpp:156] Memory required for data: 1296039456
I0403 16:38:27.976958 18784 layer_factory.hpp:77] Creating layer inception_5a/3x3
I0403 16:38:27.976980 18784 net.cpp:91] Creating Layer inception_5a/3x3
I0403 16:38:27.976997 18784 net.cpp:425] inception_5a/3x3 <- inception_5a/3x3_reduce
I0403 16:38:27.977015 18784 net.cpp:399] inception_5a/3x3 -> inception_5a/3x3
I0403 16:38:27.981801 18784 net.cpp:141] Setting up inception_5a/3x3
I0403 16:38:27.981832 18784 net.cpp:148] Top shape: 24 320 7 7 (376320)
I0403 16:38:27.981848 18784 net.cpp:156] Memory required for data: 1297544736
I0403 16:38:27.981864 18784 layer_factory.hpp:77] Creating layer inception_5a/relu_3x3
I0403 16:38:27.981883 18784 net.cpp:91] Creating Layer inception_5a/relu_3x3
I0403 16:38:27.981899 18784 net.cpp:425] inception_5a/relu_3x3 <- inception_5a/3x3
I0403 16:38:27.981914 18784 net.cpp:386] inception_5a/relu_3x3 -> inception_5a/3x3 (in-place)
I0403 16:38:27.982193 18784 net.cpp:141] Setting up inception_5a/relu_3x3
I0403 16:38:27.982219 18784 net.cpp:148] Top shape: 24 320 7 7 (376320)
I0403 16:38:27.982234 18784 net.cpp:156] Memory required for data: 1299050016
I0403 16:38:27.982249 18784 layer_factory.hpp:77] Creating layer inception_5a/5x5_reduce
I0403 16:38:27.982271 18784 net.cpp:91] Creating Layer inception_5a/5x5_reduce
I0403 16:38:27.982288 18784 net.cpp:425] inception_5a/5x5_reduce <- pool4/3x3_s2_pool4/3x3_s2_0_split_2
I0403 16:38:27.982306 18784 net.cpp:399] inception_5a/5x5_reduce -> inception_5a/5x5_reduce
I0403 16:38:27.983417 18784 net.cpp:141] Setting up inception_5a/5x5_reduce
I0403 16:38:27.983445 18784 net.cpp:148] Top shape: 24 32 7 7 (37632)
I0403 16:38:27.983461 18784 net.cpp:156] Memory required for data: 1299200544
I0403 16:38:27.983479 18784 layer_factory.hpp:77] Creating layer inception_5a/relu_5x5_reduce
I0403 16:38:27.983494 18784 net.cpp:91] Creating Layer inception_5a/relu_5x5_reduce
I0403 16:38:27.983510 18784 net.cpp:425] inception_5a/relu_5x5_reduce <- inception_5a/5x5_reduce
I0403 16:38:27.983528 18784 net.cpp:386] inception_5a/relu_5x5_reduce -> inception_5a/5x5_reduce (in-place)
I0403 16:38:27.983815 18784 net.cpp:141] Setting up inception_5a/relu_5x5_reduce
I0403 16:38:27.983842 18784 net.cpp:148] Top shape: 24 32 7 7 (37632)
I0403 16:38:27.983857 18784 net.cpp:156] Memory required for data: 1299351072
I0403 16:38:27.983871 18784 layer_factory.hpp:77] Creating layer inception_5a/5x5
I0403 16:38:27.983892 18784 net.cpp:91] Creating Layer inception_5a/5x5
I0403 16:38:27.983909 18784 net.cpp:425] inception_5a/5x5 <- inception_5a/5x5_reduce
I0403 16:38:27.983929 18784 net.cpp:399] inception_5a/5x5 -> inception_5a/5x5
I0403 16:38:27.985561 18784 net.cpp:141] Setting up inception_5a/5x5
I0403 16:38:27.985605 18784 net.cpp:148] Top shape: 24 128 7 7 (150528)
I0403 16:38:27.985621 18784 net.cpp:156] Memory required for data: 1299953184
I0403 16:38:27.985638 18784 layer_factory.hpp:77] Creating layer inception_5a/relu_5x5
I0403 16:38:27.985656 18784 net.cpp:91] Creating Layer inception_5a/relu_5x5
I0403 16:38:27.985671 18784 net.cpp:425] inception_5a/relu_5x5 <- inception_5a/5x5
I0403 16:38:27.985687 18784 net.cpp:386] inception_5a/relu_5x5 -> inception_5a/5x5 (in-place)
I0403 16:38:27.985872 18784 net.cpp:141] Setting up inception_5a/relu_5x5
I0403 16:38:27.985895 18784 net.cpp:148] Top shape: 24 128 7 7 (150528)
I0403 16:38:27.985908 18784 net.cpp:156] Memory required for data: 1300555296
I0403 16:38:27.985923 18784 layer_factory.hpp:77] Creating layer inception_5a/pool
I0403 16:38:27.985939 18784 net.cpp:91] Creating Layer inception_5a/pool
I0403 16:38:27.985954 18784 net.cpp:425] inception_5a/pool <- pool4/3x3_s2_pool4/3x3_s2_0_split_3
I0403 16:38:27.985975 18784 net.cpp:399] inception_5a/pool -> inception_5a/pool
I0403 16:38:27.986040 18784 net.cpp:141] Setting up inception_5a/pool
I0403 16:38:27.986064 18784 net.cpp:148] Top shape: 24 832 7 7 (978432)
I0403 16:38:27.986079 18784 net.cpp:156] Memory required for data: 1304469024
I0403 16:38:27.986093 18784 layer_factory.hpp:77] Creating layer inception_5a/pool_proj
I0403 16:38:27.986114 18784 net.cpp:91] Creating Layer inception_5a/pool_proj
I0403 16:38:27.986130 18784 net.cpp:425] inception_5a/pool_proj <- inception_5a/pool
I0403 16:38:27.986148 18784 net.cpp:399] inception_5a/pool_proj -> inception_5a/pool_proj
I0403 16:38:27.988337 18784 net.cpp:141] Setting up inception_5a/pool_proj
I0403 16:38:27.988365 18784 net.cpp:148] Top shape: 24 128 7 7 (150528)
I0403 16:38:27.988380 18784 net.cpp:156] Memory required for data: 1305071136
I0403 16:38:27.988397 18784 layer_factory.hpp:77] Creating layer inception_5a/relu_pool_proj
I0403 16:38:27.988416 18784 net.cpp:91] Creating Layer inception_5a/relu_pool_proj
I0403 16:38:27.988433 18784 net.cpp:425] inception_5a/relu_pool_proj <- inception_5a/pool_proj
I0403 16:38:27.988450 18784 net.cpp:386] inception_5a/relu_pool_proj -> inception_5a/pool_proj (in-place)
I0403 16:38:27.988880 18784 net.cpp:141] Setting up inception_5a/relu_pool_proj
I0403 16:38:27.988906 18784 net.cpp:148] Top shape: 24 128 7 7 (150528)
I0403 16:38:27.988921 18784 net.cpp:156] Memory required for data: 1305673248
I0403 16:38:27.988935 18784 layer_factory.hpp:77] Creating layer inception_5a/output
I0403 16:38:27.988955 18784 net.cpp:91] Creating Layer inception_5a/output
I0403 16:38:27.988970 18784 net.cpp:425] inception_5a/output <- inception_5a/1x1
I0403 16:38:27.988986 18784 net.cpp:425] inception_5a/output <- inception_5a/3x3
I0403 16:38:27.989002 18784 net.cpp:425] inception_5a/output <- inception_5a/5x5
I0403 16:38:27.989017 18784 net.cpp:425] inception_5a/output <- inception_5a/pool_proj
I0403 16:38:27.989047 18784 net.cpp:399] inception_5a/output -> inception_5a/output
I0403 16:38:27.989094 18784 net.cpp:141] Setting up inception_5a/output
I0403 16:38:27.989117 18784 net.cpp:148] Top shape: 24 832 7 7 (978432)
I0403 16:38:27.989130 18784 net.cpp:156] Memory required for data: 1309586976
I0403 16:38:27.989143 18784 layer_factory.hpp:77] Creating layer inception_5a/output_inception_5a/output_0_split
I0403 16:38:27.989159 18784 net.cpp:91] Creating Layer inception_5a/output_inception_5a/output_0_split
I0403 16:38:27.989174 18784 net.cpp:425] inception_5a/output_inception_5a/output_0_split <- inception_5a/output
I0403 16:38:27.989192 18784 net.cpp:399] inception_5a/output_inception_5a/output_0_split -> inception_5a/output_inception_5a/output_0_split_0
I0403 16:38:27.989213 18784 net.cpp:399] inception_5a/output_inception_5a/output_0_split -> inception_5a/output_inception_5a/output_0_split_1
I0403 16:38:27.989233 18784 net.cpp:399] inception_5a/output_inception_5a/output_0_split -> inception_5a/output_inception_5a/output_0_split_2
I0403 16:38:27.989253 18784 net.cpp:399] inception_5a/output_inception_5a/output_0_split -> inception_5a/output_inception_5a/output_0_split_3
I0403 16:38:27.989359 18784 net.cpp:141] Setting up inception_5a/output_inception_5a/output_0_split
I0403 16:38:27.989384 18784 net.cpp:148] Top shape: 24 832 7 7 (978432)
I0403 16:38:27.989401 18784 net.cpp:148] Top shape: 24 832 7 7 (978432)
I0403 16:38:27.989415 18784 net.cpp:148] Top shape: 24 832 7 7 (978432)
I0403 16:38:27.989430 18784 net.cpp:148] Top shape: 24 832 7 7 (978432)
I0403 16:38:27.989444 18784 net.cpp:156] Memory required for data: 1325241888
I0403 16:38:27.989456 18784 layer_factory.hpp:77] Creating layer inception_5b/1x1
I0403 16:38:27.989478 18784 net.cpp:91] Creating Layer inception_5b/1x1
I0403 16:38:27.989495 18784 net.cpp:425] inception_5b/1x1 <- inception_5a/output_inception_5a/output_0_split_0
I0403 16:38:27.989513 18784 net.cpp:399] inception_5b/1x1 -> inception_5b/1x1
I0403 16:38:27.993113 18784 net.cpp:141] Setting up inception_5b/1x1
I0403 16:38:27.993141 18784 net.cpp:148] Top shape: 24 384 7 7 (451584)
I0403 16:38:27.993156 18784 net.cpp:156] Memory required for data: 1327048224
I0403 16:38:27.993173 18784 layer_factory.hpp:77] Creating layer inception_5b/relu_1x1
I0403 16:38:27.993193 18784 net.cpp:91] Creating Layer inception_5b/relu_1x1
I0403 16:38:27.993209 18784 net.cpp:425] inception_5b/relu_1x1 <- inception_5b/1x1
I0403 16:38:27.993227 18784 net.cpp:386] inception_5b/relu_1x1 -> inception_5b/1x1 (in-place)
I0403 16:38:27.993523 18784 net.cpp:141] Setting up inception_5b/relu_1x1
I0403 16:38:27.993548 18784 net.cpp:148] Top shape: 24 384 7 7 (451584)
I0403 16:38:27.993562 18784 net.cpp:156] Memory required for data: 1328854560
I0403 16:38:27.993580 18784 layer_factory.hpp:77] Creating layer inception_5b/3x3_reduce
I0403 16:38:27.993603 18784 net.cpp:91] Creating Layer inception_5b/3x3_reduce
I0403 16:38:27.993620 18784 net.cpp:425] inception_5b/3x3_reduce <- inception_5a/output_inception_5a/output_0_split_1
I0403 16:38:27.993640 18784 net.cpp:399] inception_5b/3x3_reduce -> inception_5b/3x3_reduce
I0403 16:38:27.996189 18784 net.cpp:141] Setting up inception_5b/3x3_reduce
I0403 16:38:27.996217 18784 net.cpp:148] Top shape: 24 192 7 7 (225792)
I0403 16:38:27.996232 18784 net.cpp:156] Memory required for data: 1329757728
I0403 16:38:27.996250 18784 layer_factory.hpp:77] Creating layer inception_5b/relu_3x3_reduce
I0403 16:38:27.996271 18784 net.cpp:91] Creating Layer inception_5b/relu_3x3_reduce
I0403 16:38:27.996287 18784 net.cpp:425] inception_5b/relu_3x3_reduce <- inception_5b/3x3_reduce
I0403 16:38:27.996304 18784 net.cpp:386] inception_5b/relu_3x3_reduce -> inception_5b/3x3_reduce (in-place)
I0403 16:38:27.996486 18784 net.cpp:141] Setting up inception_5b/relu_3x3_reduce
I0403 16:38:27.996511 18784 net.cpp:148] Top shape: 24 192 7 7 (225792)
I0403 16:38:27.996526 18784 net.cpp:156] Memory required for data: 1330660896
I0403 16:38:27.996541 18784 layer_factory.hpp:77] Creating layer inception_5b/3x3
I0403 16:38:27.996562 18784 net.cpp:91] Creating Layer inception_5b/3x3
I0403 16:38:27.996582 18784 net.cpp:425] inception_5b/3x3 <- inception_5b/3x3_reduce
I0403 16:38:27.996601 18784 net.cpp:399] inception_5b/3x3 -> inception_5b/3x3
I0403 16:38:28.003029 18784 net.cpp:141] Setting up inception_5b/3x3
I0403 16:38:28.003057 18784 net.cpp:148] Top shape: 24 384 7 7 (451584)
I0403 16:38:28.003072 18784 net.cpp:156] Memory required for data: 1332467232
I0403 16:38:28.003089 18784 layer_factory.hpp:77] Creating layer inception_5b/relu_3x3
I0403 16:38:28.003108 18784 net.cpp:91] Creating Layer inception_5b/relu_3x3
I0403 16:38:28.003125 18784 net.cpp:425] inception_5b/relu_3x3 <- inception_5b/3x3
I0403 16:38:28.003142 18784 net.cpp:386] inception_5b/relu_3x3 -> inception_5b/3x3 (in-place)
I0403 16:38:28.003428 18784 net.cpp:141] Setting up inception_5b/relu_3x3
I0403 16:38:28.003453 18784 net.cpp:148] Top shape: 24 384 7 7 (451584)
I0403 16:38:28.003468 18784 net.cpp:156] Memory required for data: 1334273568
I0403 16:38:28.003480 18784 layer_factory.hpp:77] Creating layer inception_5b/5x5_reduce
I0403 16:38:28.003520 18784 net.cpp:91] Creating Layer inception_5b/5x5_reduce
I0403 16:38:28.003538 18784 net.cpp:425] inception_5b/5x5_reduce <- inception_5a/output_inception_5a/output_0_split_2
I0403 16:38:28.003556 18784 net.cpp:399] inception_5b/5x5_reduce -> inception_5b/5x5_reduce
I0403 16:38:28.004840 18784 net.cpp:141] Setting up inception_5b/5x5_reduce
I0403 16:38:28.004868 18784 net.cpp:148] Top shape: 24 48 7 7 (56448)
I0403 16:38:28.004884 18784 net.cpp:156] Memory required for data: 1334499360
I0403 16:38:28.004900 18784 layer_factory.hpp:77] Creating layer inception_5b/relu_5x5_reduce
I0403 16:38:28.004922 18784 net.cpp:91] Creating Layer inception_5b/relu_5x5_reduce
I0403 16:38:28.004938 18784 net.cpp:425] inception_5b/relu_5x5_reduce <- inception_5b/5x5_reduce
I0403 16:38:28.004956 18784 net.cpp:386] inception_5b/relu_5x5_reduce -> inception_5b/5x5_reduce (in-place)
I0403 16:38:28.005324 18784 net.cpp:141] Setting up inception_5b/relu_5x5_reduce
I0403 16:38:28.005350 18784 net.cpp:148] Top shape: 24 48 7 7 (56448)
I0403 16:38:28.005365 18784 net.cpp:156] Memory required for data: 1334725152
I0403 16:38:28.005379 18784 layer_factory.hpp:77] Creating layer inception_5b/5x5
I0403 16:38:28.005398 18784 net.cpp:91] Creating Layer inception_5b/5x5
I0403 16:38:28.005415 18784 net.cpp:425] inception_5b/5x5 <- inception_5b/5x5_reduce
I0403 16:38:28.005434 18784 net.cpp:399] inception_5b/5x5 -> inception_5b/5x5
I0403 16:38:28.007443 18784 net.cpp:141] Setting up inception_5b/5x5
I0403 16:38:28.007472 18784 net.cpp:148] Top shape: 24 128 7 7 (150528)
I0403 16:38:28.007488 18784 net.cpp:156] Memory required for data: 1335327264
I0403 16:38:28.007506 18784 layer_factory.hpp:77] Creating layer inception_5b/relu_5x5
I0403 16:38:28.007524 18784 net.cpp:91] Creating Layer inception_5b/relu_5x5
I0403 16:38:28.007540 18784 net.cpp:425] inception_5b/relu_5x5 <- inception_5b/5x5
I0403 16:38:28.007560 18784 net.cpp:386] inception_5b/relu_5x5 -> inception_5b/5x5 (in-place)
I0403 16:38:28.007755 18784 net.cpp:141] Setting up inception_5b/relu_5x5
I0403 16:38:28.007778 18784 net.cpp:148] Top shape: 24 128 7 7 (150528)
I0403 16:38:28.007792 18784 net.cpp:156] Memory required for data: 1335929376
I0403 16:38:28.007807 18784 layer_factory.hpp:77] Creating layer inception_5b/pool
I0403 16:38:28.007824 18784 net.cpp:91] Creating Layer inception_5b/pool
I0403 16:38:28.007840 18784 net.cpp:425] inception_5b/pool <- inception_5a/output_inception_5a/output_0_split_3
I0403 16:38:28.007860 18784 net.cpp:399] inception_5b/pool -> inception_5b/pool
I0403 16:38:28.007931 18784 net.cpp:141] Setting up inception_5b/pool
I0403 16:38:28.007954 18784 net.cpp:148] Top shape: 24 832 7 7 (978432)
I0403 16:38:28.007968 18784 net.cpp:156] Memory required for data: 1339843104
I0403 16:38:28.007982 18784 layer_factory.hpp:77] Creating layer inception_5b/pool_proj
I0403 16:38:28.008005 18784 net.cpp:91] Creating Layer inception_5b/pool_proj
I0403 16:38:28.008021 18784 net.cpp:425] inception_5b/pool_proj <- inception_5b/pool
I0403 16:38:28.008039 18784 net.cpp:399] inception_5b/pool_proj -> inception_5b/pool_proj
I0403 16:38:28.010314 18784 net.cpp:141] Setting up inception_5b/pool_proj
I0403 16:38:28.010344 18784 net.cpp:148] Top shape: 24 128 7 7 (150528)
I0403 16:38:28.010360 18784 net.cpp:156] Memory required for data: 1340445216
I0403 16:38:28.010378 18784 layer_factory.hpp:77] Creating layer inception_5b/relu_pool_proj
I0403 16:38:28.010396 18784 net.cpp:91] Creating Layer inception_5b/relu_pool_proj
I0403 16:38:28.010412 18784 net.cpp:425] inception_5b/relu_pool_proj <- inception_5b/pool_proj
I0403 16:38:28.010429 18784 net.cpp:386] inception_5b/relu_pool_proj -> inception_5b/pool_proj (in-place)
I0403 16:38:28.010723 18784 net.cpp:141] Setting up inception_5b/relu_pool_proj
I0403 16:38:28.010751 18784 net.cpp:148] Top shape: 24 128 7 7 (150528)
I0403 16:38:28.010766 18784 net.cpp:156] Memory required for data: 1341047328
I0403 16:38:28.010782 18784 layer_factory.hpp:77] Creating layer inception_5b/output
I0403 16:38:28.010798 18784 net.cpp:91] Creating Layer inception_5b/output
I0403 16:38:28.010828 18784 net.cpp:425] inception_5b/output <- inception_5b/1x1
I0403 16:38:28.010845 18784 net.cpp:425] inception_5b/output <- inception_5b/3x3
I0403 16:38:28.010861 18784 net.cpp:425] inception_5b/output <- inception_5b/5x5
I0403 16:38:28.010877 18784 net.cpp:425] inception_5b/output <- inception_5b/pool_proj
I0403 16:38:28.010895 18784 net.cpp:399] inception_5b/output -> inception_5b/output
I0403 16:38:28.010946 18784 net.cpp:141] Setting up inception_5b/output
I0403 16:38:28.010969 18784 net.cpp:148] Top shape: 24 1024 7 7 (1204224)
I0403 16:38:28.010983 18784 net.cpp:156] Memory required for data: 1345864224
I0403 16:38:28.010998 18784 layer_factory.hpp:77] Creating layer pool5/7x7_s1
I0403 16:38:28.011018 18784 net.cpp:91] Creating Layer pool5/7x7_s1
I0403 16:38:28.011034 18784 net.cpp:425] pool5/7x7_s1 <- inception_5b/output
I0403 16:38:28.011050 18784 net.cpp:399] pool5/7x7_s1 -> pool5/7x7_s1
I0403 16:38:28.011261 18784 net.cpp:141] Setting up pool5/7x7_s1
I0403 16:38:28.011287 18784 net.cpp:148] Top shape: 24 1024 1 1 (24576)
I0403 16:38:28.011302 18784 net.cpp:156] Memory required for data: 1345962528
I0403 16:38:28.011317 18784 layer_factory.hpp:77] Creating layer pool5/drop_7x7_s1
I0403 16:38:28.011334 18784 net.cpp:91] Creating Layer pool5/drop_7x7_s1
I0403 16:38:28.011350 18784 net.cpp:425] pool5/drop_7x7_s1 <- pool5/7x7_s1
I0403 16:38:28.011368 18784 net.cpp:386] pool5/drop_7x7_s1 -> pool5/7x7_s1 (in-place)
I0403 16:38:28.011416 18784 net.cpp:141] Setting up pool5/drop_7x7_s1
I0403 16:38:28.011440 18784 net.cpp:148] Top shape: 24 1024 1 1 (24576)
I0403 16:38:28.011453 18784 net.cpp:156] Memory required for data: 1346060832
I0403 16:38:28.011467 18784 layer_factory.hpp:77] Creating layer loss3/classifier_plantvillage
I0403 16:38:28.011487 18784 net.cpp:91] Creating Layer loss3/classifier_plantvillage
I0403 16:38:28.011504 18784 net.cpp:425] loss3/classifier_plantvillage <- pool5/7x7_s1
I0403 16:38:28.011521 18784 net.cpp:399] loss3/classifier_plantvillage -> loss3/classifier_plantvillage
I0403 16:38:28.011941 18784 net.cpp:141] Setting up loss3/classifier_plantvillage
I0403 16:38:28.011965 18784 net.cpp:148] Top shape: 24 38 (912)
I0403 16:38:28.011979 18784 net.cpp:156] Memory required for data: 1346064480
I0403 16:38:28.011996 18784 layer_factory.hpp:77] Creating layer loss3/classifier_plantvillage_loss3/classifier_plantvillage_0_split
I0403 16:38:28.012014 18784 net.cpp:91] Creating Layer loss3/classifier_plantvillage_loss3/classifier_plantvillage_0_split
I0403 16:38:28.012029 18784 net.cpp:425] loss3/classifier_plantvillage_loss3/classifier_plantvillage_0_split <- loss3/classifier_plantvillage
I0403 16:38:28.012050 18784 net.cpp:399] loss3/classifier_plantvillage_loss3/classifier_plantvillage_0_split -> loss3/classifier_plantvillage_loss3/classifier_plantvillage_0_split_0
I0403 16:38:28.012070 18784 net.cpp:399] loss3/classifier_plantvillage_loss3/classifier_plantvillage_0_split -> loss3/classifier_plantvillage_loss3/classifier_plantvillage_0_split_1
I0403 16:38:28.012090 18784 net.cpp:399] loss3/classifier_plantvillage_loss3/classifier_plantvillage_0_split -> loss3/classifier_plantvillage_loss3/classifier_plantvillage_0_split_2
I0403 16:38:28.012110 18784 net.cpp:399] loss3/classifier_plantvillage_loss3/classifier_plantvillage_0_split -> loss3/classifier_plantvillage_loss3/classifier_plantvillage_0_split_3
I0403 16:38:28.012215 18784 net.cpp:141] Setting up loss3/classifier_plantvillage_loss3/classifier_plantvillage_0_split
I0403 16:38:28.012238 18784 net.cpp:148] Top shape: 24 38 (912)
I0403 16:38:28.012253 18784 net.cpp:148] Top shape: 24 38 (912)
I0403 16:38:28.012269 18784 net.cpp:148] Top shape: 24 38 (912)
I0403 16:38:28.012284 18784 net.cpp:148] Top shape: 24 38 (912)
I0403 16:38:28.012296 18784 net.cpp:156] Memory required for data: 1346079072
I0403 16:38:28.012310 18784 layer_factory.hpp:77] Creating layer loss1/loss
I0403 16:38:28.012331 18784 net.cpp:91] Creating Layer loss1/loss
I0403 16:38:28.012348 18784 net.cpp:425] loss1/loss <- loss1/classifier_plantvillage_loss1/classifier_plantvillage_0_split_0
I0403 16:38:28.012377 18784 net.cpp:425] loss1/loss <- label_data_1_split_0
…
