…
I0403 15:43:34.734216 15985 net.cpp:313] The NetState phase (1) differed from the phase (0) specified by a rule in layer data
I0403 15:43:34.735374 15985 net.cpp:49] Initializing net from parameters: 
state {
  phase: TEST
}
layer {
  name: "data"
  type: "Data"
  top: "data"
  top: "label"
  include {
    phase: TEST
  }
  transform_param {
    mirror: false
    crop_size: 224
    mean_file: "/home/mohanty/data/final_dataset/lmdb/segmented-20-80/mean.binaryproto"
  }
  data_param {
    source: "/home/mohanty/data/final_dataset/lmdb/segmented-20-80/test_db"
    batch_size: 24
    backend: LMDB
  }
}
layer {
  name: "conv1/7x7_s2"
  type: "Convolution"
  bottom: "data"
  top: "conv1/7x7_s2"
  param {
    lr_mult: 1
    decay_mult: 1
  }
  param {
    lr_mult: 2
    decay_mult: 0
  }
  convolution_param {
    num_output: 64
    pad: 3
    kernel_size: 7
    stride: 2
    weight_filler {
      type: "xavier"
      std: 0.1
    }
    bias_filler {
      type: "constant"
      value: 0.2
    }
  }
}
layer {
  name: "conv1/relu_7x7"
  type: "ReLU"
  bottom: "conv1/7x7_s2"
  top: "conv1/7x7_s2"
}
layer {
  name: "pool1/3x3_s2"
  type: "Pooling"
  bottom: "conv1/7x7_s2"
  top: "pool1/3x3_s2"
  pooling_param {
    pool: MAX
    kernel_size: 3
    stride: 2
  }
}
layer {
  name: "pool1/norm1"
  type: "LRN"
  bottom: "pool1/3x3_s2"
  top: "pool1/norm1"
  lrn_param {
    local_size: 5
    alpha: 0.0001
    beta: 0.75
  }
}
layer {
  name: "conv2/3x3_reduce"
  type: "Convolution"
  bottom: "pool1/norm1"
  top: "conv2/3x3_reduce"
  param {
    lr_mult: 1
    decay_mult: 1
  }
  param {
    lr_mult: 2
    decay_mult: 0
  }
  convolution_param {
    num_output: 64
    kernel_size: 1
    weight_filler {
      type: "xavier"
      std: 0.1
    }
    bias_filler {
      type: "constant"
      value: 0.2
    }
  }
}
layer {
  name: "conv2/relu_3x3_reduce"
  type: "ReLU"
  bottom: "conv2/3x3_reduce"
  top: "conv2/3x3_reduce"
}
layer {
  name: "conv2/3x3"
  type: "Convolution"
  bottom: "conv2/3x3_reduce"
  top: "conv2/3x3"
  param {
    lr_mult: 1
    decay_mult: 1
  }
  param {
    lr_mult: 2
    decay_mult: 0
  }
  convolution_param {
    num_output: 192
    pad: 1
    kernel_size: 3
    weight_filler {
      type: "xavier"
      std: 0.03
    }
    bias_filler {
      type: "constant"
      value: 0.2
    }
  }
}
layer {
  name: "conv2/relu_3x3"
  type: "ReLU"
  bottom: "conv2/3x3"
  top: "conv2/3x3"
}
layer {
  name: "conv2/norm2"
  type: "LRN"
  bottom: "conv2/3x3"
  top: "conv2/norm2"
  lrn_param {
    local_size: 5
    alpha: 0.0001
    beta: 0.75
  }
}
layer {
  name: "pool2/3x3_s2"
  type: "Pooling"
  bottom: "conv2/norm2"
  top: "pool2/3x3_s2"
  pooling_param {
    pool: MAX
    kernel_size: 3
    stride: 2
  }
}
layer {
  name: "inception_3a/1x1"
  type: "Convolution"
  bottom: "pool2/3x3_s2"
  top: "inception_3a/1x1"
  param {
    lr_mult: 1
    decay_mult: 1
  }
  param {
    lr_mult: 2
    decay_mult: 0
  }
  convolution_param {
    num_output: 64
    kernel_size: 1
    weight_filler {
      type: "xavier"
      std: 0.03
    }
    bias_filler {
      type: "constant"
      value: 0.2
    }
  }
}
layer {
  name: "inception_3a/relu_1x1"
  type: "ReLU"
  bottom: "inception_3a/1x1"
  top: "inception_3a/1x1"
}
layer {
  name: "inception_3a/3x3_reduce"
  type: "Convolution"
  bottom: "pool2/3x3_s2"
  top: "inception_3a/3x3_reduce"
  param {
    lr_mult: 1
    decay_mult: 1
  }
  param {
    lr_mult: 2
    decay_mult: 0
  }
  convolution_param {
    num_output: 96
    kernel_size: 1
    weight_filler {
      type: "xavier"
      std: 0.09
    }
    bias_filler {
      type: "constant"
      value: 0.2
    }
  }
}
layer {
  name: "inception_3a/relu_3x3_reduce"
  type: "ReLU"
  bottom: "inception_3a/3x3_reduce"
  top: "inception_3a/3x3_reduce"
}
layer {
  name: "inception_3a/3x3"
  type: "Convolution"
  bottom: "inception_3a/3x3_reduce"
  top: "inception_3a/3x3"
  param {
    lr_mult: 1
    decay_mult: 1
  }
  param {
    lr_mult: 2
    decay_mult: 0
  }
  convolution_param {
    num_output: 128
    pad: 1
    kernel_size: 3
    weight_filler {
      type: "xavier"
      std: 0.03
    }
    bias_filler {
      type: "constant"
      value: 0.2
    }
  }
}
layer {
  name: "inception_3a/relu_3x3"
  type: "ReLU"
  bottom: "inception_3a/3x3"
  top: "inception_3a/3x3"
}
layer {
  name: "inception_3a/5x5_reduce"
  type: "Convolution"
  bottom: "pool2/3x3_s2"
  top: "inception_3a/5x5_reduce"
  param {
    lr_mult: 1
    decay_mult: 1
  }
  param {
    lr_mult: 2
    decay_mult: 0
  }
  convolution_param {
    num_output: 16
    kernel_size: 1
    weight_filler {
      type: "xavier"
      std: 0.2
    }
    bias_filler {
      type: "constant"
      value: 0.2
    }
  }
}
layer {
  name: "inception_3a/relu_5x5_reduce"
  type: "ReLU"
  bottom: "inception_3a/5x5_reduce"
  top: "inception_3a/5x5_reduce"
}
layer {
  name: "inception_3a/5x5"
  type: "Convolution"
  bottom: "inception_3a/5x5_reduce"
  top: "inception_3a/5x5"
  param {
    lr_mult: 1
    decay_mult: 1
  }
  param {
    lr_mult: 2
    decay_mult: 0
  }
  convolution_param {
    num_output: 32
    pad: 2
    kernel_size: 5
    weight_filler {
      type: "xavier"
      std: 0.03
    }
    bias_filler {
      type: "constant"
      value: 0.2
    }
  }
}
layer {
  name: "inception_3a/relu_5x5"
  type: "ReLU"
  bottom: "inception_3a/5x5"
  top: "inception_3a/5x5"
}
layer {
  name: "inception_3a/pool"
  type: "Pooling"
  bottom: "pool2/3x3_s2"
  top: "inception_3a/pool"
  pooling_param {
    pool: MAX
    kernel_size: 3
    stride: 1
    pad: 1
  }
}
layer {
  name: "inception_3a/pool_proj"
  type: "Convolution"
  bottom: "inception_3a/pool"
  top: "inception_3a/pool_proj"
  param {
    lr_mult: 1
    decay_mult: 1
  }
  param {
    lr_mult: 2
    decay_mult: 0
  }
  convolution_param {
    num_output: 32
    kernel_size: 1
    weight_filler {
      type: "xavier"
      std: 0.1
    }
    bias_filler {
      type: "constant"
      value: 0.2
    }
  }
}
layer {
  name: "inception_3a/relu_pool_proj"
  type: "ReLU"
  bottom: "inception_3a/pool_proj"
  top: "inception_3a/pool_proj"
}
layer {
  name: "inception_3a/output"
  type: "Concat"
  bottom: "inception_3a/1x1"
  bottom: "inception_3a/3x3"
  bottom: "inception_3a/5x5"
  bottom: "inception_3a/pool_proj"
  top: "inception_3a/output"
}
layer {
  name: "inception_3b/1x1"
  type: "Convolution"
  bottom: "inception_3a/output"
  top: "inception_3b/1x1"
  param {
    lr_mult: 1
    decay_mult: 1
  }
  param {
    lr_mult: 2
    decay_mult: 0
  }
  convolution_param {
    num_output: 128
    kernel_size: 1
    weight_filler {
      type: "xavier"
      std: 0.03
    }
    bias_filler {
      type: "constant"
      value: 0.2
    }
  }
}
layer {
  name: "inception_3b/relu_1x1"
  type: "ReLU"
  bottom: "inception_3b/1x1"
  top: "inception_3b/1x1"
}
layer {
  name: "inception_3b/3x3_reduce"
  type: "Convolution"
  bottom: "inception_3a/output"
  top: "inception_3b/3x3_reduce"
  param {
    lr_mult: 1
    decay_mult: 1
  }
  param {
    lr_mult: 2
    decay_mult: 0
  }
  convolution_param {
    num_output: 128
    kernel_size: 1
    weight_filler {
      type: "xavier"
      std: 0.09
    }
    bias_filler {
      type: "constant"
      value: 0.2
    }
  }
}
layer {
  name: "inception_3b/relu_3x3_reduce"
  type: "ReLU"
  bottom: "inception_3b/3x3_reduce"
  top: "inception_3b/3x3_reduce"
}
layer {
  name: "inception_3b/3x3"
  type: "Convolution"
  bottom: "inception_3b/3x3_reduce"
  top: "inception_3b/3x3"
  param {
    lr_mult: 1
    decay_mult: 1
  }
  param {
    lr_mult: 2
    decay_mult: 0
  }
  convolution_param {
    num_output: 192
    pad: 1
    kernel_size: 3
    weight_filler {
      type: "xavier"
      std: 0.03
    }
    bias_filler {
      type: "constant"
      value: 0.2
    }
  }
}
layer {
  name: "inception_3b/relu_3x3"
  type: "ReLU"
  bottom: "inception_3b/3x3"
  top: "inception_3b/3x3"
}
layer {
  name: "inception_3b/5x5_reduce"
  type: "Convolution"
  bottom: "inception_3a/output"
  top: "inception_3b/5x5_reduce"
  param {
    lr_mult: 1
    decay_mult: 1
  }
  param {
    lr_mult: 2
    decay_mult: 0
  }
  convolution_param {
    num_output: 32
    kernel_size: 1
    weight_filler {
      type: "xavier"
      std: 0.2
    }
    bias_filler {
      type: "constant"
      value: 0.2
    }
  }
}
layer {
  name: "inception_3b/relu_5x5_reduce"
  type: "ReLU"
  bottom: "inception_3b/5x5_reduce"
  top: "inception_3b/5x5_reduce"
}
layer {
  name: "inception_3b/5x5"
  type: "Convolution"
  bottom: "inception_3b/5x5_reduce"
  top: "inception_3b/5x5"
  param {
    lr_mult: 1
    decay_mult: 1
  }
  param {
    lr_mult: 2
    decay_mult: 0
  }
  convolution_param {
    num_output: 96
    pad: 2
    kernel_size: 5
    weight_filler {
      type: "xavier"
      std: 0.03
    }
    bias_filler {
      type: "constant"
      value: 0.2
    }
  }
}
layer {
  name: "inception_3b/relu_5x5"
  type: "ReLU"
  bottom: "inception_3b/5x5"
  top: "inception_3b/5x5"
}
layer {
  name: "inception_3b/pool"
  type: "Pooling"
  bottom: "inception_3a/output"
  top: "inception_3b/pool"
  pooling_param {
    pool: MAX
    kernel_size: 3
    stride: 1
    pad: 1
  }
}
layer {
  name: "inception_3b/pool_proj"
  type: "Convolution"
  bottom: "inception_3b/pool"
  top: "inception_3b/pool_proj"
  param {
    lr_mult: 1
    decay_mult: 1
  }
  param {
    lr_mult: 2
    decay_mult: 0
  }
  convolution_param {
    num_output: 64
    kernel_size: 1
    weight_filler {
      type: "xavier"
      std: 0.1
    }
    bias_filler {
      type: "constant"
      value: 0.2
    }
  }
}
layer {
  name: "inception_3b/relu_pool_proj"
  type: "ReLU"
  bottom: "inception_3b/pool_proj"
  top: "inception_3b/pool_proj"
}
layer {
  name: "inception_3b/output"
  type: "Concat"
  bottom: "inception_3b/1x1"
  bottom: "inception_3b/3x3"
  bottom: "inception_3b/5x5"
  bottom: "inception_3b/pool_proj"
  top: "inception_3b/output"
}
layer {
  name: "pool3/3x3_s2"
  type: "Pooling"
  bottom: "inception_3b/output"
  top: "pool3/3x3_s2"
  pooling_param {
    pool: MAX
    kernel_size: 3
    stride: 2
  }
}
layer {
  name: "inception_4a/1x1"
  type: "Convolution"
  bottom: "pool3/3x3_s2"
  top: "inception_4a/1x1"
  param {
    lr_mult: 1
    decay_mult: 1
  }
  param {
    lr_mult: 2
    decay_mult: 0
  }
  convolution_param {
    num_output: 192
    kernel_size: 1
    weight_filler {
      type: "xavier"
      std: 0.03
    }
    bias_filler {
      type: "constant"
      value: 0.2
    }
  }
}
layer {
  name: "inception_4a/relu_1x1"
  type: "ReLU"
  bottom: "inception_4a/1x1"
  top: "inception_4a/1x1"
}
layer {
  name: "inception_4a/3x3_reduce"
  type: "Convolution"
  bottom: "pool3/3x3_s2"
  top: "inception_4a/3x3_reduce"
  param {
    lr_mult: 1
    decay_mult: 1
  }
  param {
    lr_mult: 2
    decay_mult: 0
  }
  convolution_param {
    num_output: 96
    kernel_size: 1
    weight_filler {
      type: "xavier"
      std: 0.09
    }
    bias_filler {
      type: "constant"
      value: 0.2
    }
  }
}
layer {
  name: "inception_4a/relu_3x3_reduce"
  type: "ReLU"
  bottom: "inception_4a/3x3_reduce"
  top: "inception_4a/3x3_reduce"
}
layer {
  name: "inception_4a/3x3"
  type: "Convolution"
  bottom: "inception_4a/3x3_reduce"
  top: "inception_4a/3x3"
  param {
    lr_mult: 1
    decay_mult: 1
  }
  param {
    lr_mult: 2
    decay_mult: 0
  }
  convolution_param {
    num_output: 208
    pad: 1
    kernel_size: 3
    weight_filler {
      type: "xavier"
      std: 0.03
    }
    bias_filler {
      type: "constant"
      value: 0.2
    }
  }
}
layer {
  name: "inception_4a/relu_3x3"
  type: "ReLU"
  bottom: "inception_4a/3x3"
  top: "inception_4a/3x3"
}
layer {
  name: "inception_4a/5x5_reduce"
  type: "Convolution"
  bottom: "pool3/3x3_s2"
  top: "inception_4a/5x5_reduce"
  param {
    lr_mult: 1
    decay_mult: 1
  }
  param {
    lr_mult: 2
    decay_mult: 0
  }
  convolution_param {
    num_output: 16
    kernel_size: 1
    weight_filler {
      type: "xavier"
      std: 0.2
    }
    bias_filler {
      type: "constant"
      value: 0.2
    }
  }
}
layer {
  name: "inception_4a/relu_5x5_reduce"
  type: "ReLU"
  bottom: "inception_4a/5x5_reduce"
  top: "inception_4a/5x5_reduce"
}
layer {
  name: "inception_4a/5x5"
  type: "Convolution"
  bottom: "inception_4a/5x5_reduce"
  top: "inception_4a/5x5"
  param {
    lr_mult: 1
    decay_mult: 1
  }
  param {
    lr_mult: 2
    decay_mult: 0
  }
  convolution_param {
    num_output: 48
    pad: 2
    kernel_size: 5
    weight_filler {
      type: "xavier"
      std: 0.03
    }
    bias_filler {
      type: "constant"
      value: 0.2
    }
  }
}
layer {
  name: "inception_4a/relu_5x5"
  type: "ReLU"
  bottom: "inception_4a/5x5"
  top: "inception_4a/5x5"
}
layer {
  name: "inception_4a/pool"
  type: "Pooling"
  bottom: "pool3/3x3_s2"
  top: "inception_4a/pool"
  pooling_param {
    pool: MAX
    kernel_size: 3
    stride: 1
    pad: 1
  }
}
layer {
  name: "inception_4a/pool_proj"
  type: "Convolution"
  bottom: "inception_4a/pool"
  top: "inception_4a/pool_proj"
  param {
    lr_mult: 1
    decay_mult: 1
  }
  param {
    lr_mult: 2
    decay_mult: 0
  }
  convolution_param {
    num_output: 64
    kernel_size: 1
    weight_filler {
      type: "xavier"
      std: 0.1
    }
    bias_filler {
      type: "constant"
      value: 0.2
    }
  }
}
layer {
  name: "inception_4a/relu_pool_proj"
  type: "ReLU"
  bottom: "inception_4a/pool_proj"
  top: "inception_4a/pool_proj"
}
layer {
  name: "inception_4a/output"
  type: "Concat"
  bottom: "inception_4a/1x1"
  bottom: "inception_4a/3x3"
  bottom: "inception_4a/5x5"
  bottom: "inception_4a/pool_proj"
  top: "inception_4a/output"
}
layer {
  name: "loss1/ave_pool"
  type: "Pooling"
  bottom: "inception_4a/output"
  top: "loss1/ave_pool"
  pooling_param {
    pool: AVE
    kernel_size: 5
    stride: 3
  }
}
layer {
  name: "loss1/conv"
  type: "Convolution"
  bottom: "loss1/ave_pool"
  top: "loss1/conv"
  param {
    lr_mult: 1
    decay_mult: 1
  }
  param {
    lr_mult: 2
    decay_mult: 0
  }
  convolution_param {
    num_output: 128
    kernel_size: 1
    weight_filler {
      type: "xavier"
      std: 0.08
    }
    bias_filler {
      type: "constant"
      value: 0.2
    }
  }
}
layer {
  name: "loss1/relu_conv"
  type: "ReLU"
  bottom: "loss1/conv"
  top: "loss1/conv"
}
layer {
  name: "loss1/fc"
  type: "InnerProduct"
  bottom: "loss1/conv"
  top: "loss1/fc"
  param {
    lr_mult: 1
    decay_mult: 1
  }
  param {
    lr_mult: 2
    decay_mult: 0
  }
  inner_product_param {
    num_output: 1024
    weight_filler {
      type: "xavier"
      std: 0.02
    }
    bias_filler {
      type: "constant"
      value: 0.2
    }
  }
}
layer {
  name: "loss1/relu_fc"
  type: "ReLU"
  bottom: "loss1/fc"
  top: "loss1/fc"
}
layer {
  name: "loss1/drop_fc"
  type: "Dropout"
  bottom: "loss1/fc"
  top: "loss1/fc"
  dropout_param {
    dropout_ratio: 0.7
  }
}
layer {
  name: "loss1/classifier_plantvillage"
  type: "InnerProduct"
  bottom: "loss1/fc"
  top: "loss1/classifier_plantvillage"
  param {
    lr_mult: 1
    decay_mult: 1
  }
  param {
    lr_mult: 2
    decay_mult: 0
  }
  inner_product_param {
    num_output: 38
    weight_filler {
      type: "xavier"
      std: 0.0009765625
    }
    bias_filler {
      type: "constant"
      value: 0
    }
  }
}
layer {
  name: "inception_4b/1x1"
  type: "Convolution"
  bottom: "inception_4a/output"
  top: "inception_4b/1x1"
  param {
    lr_mult: 1
    decay_mult: 1
  }
  param {
    lr_mult: 2
    decay_mult: 0
  }
  convolution_param {
    num_output: 160
    kernel_size: 1
    weight_filler {
      type: "xavier"
      std: 0.03
    }
    bias_filler {
      type: "constant"
      value: 0.2
    }
  }
}
layer {
  name: "inception_4b/relu_1x1"
  type: "ReLU"
  bottom: "inception_4b/1x1"
  top: "inception_4b/1x1"
}
layer {
  name: "inception_4b/3x3_reduce"
  type: "Convolution"
  bottom: "inception_4a/output"
  top: "inception_4b/3x3_reduce"
  param {
    lr_mult: 1
    decay_mult: 1
  }
  param {
    lr_mult: 2
    decay_mult: 0
  }
  convolution_param {
    num_output: 112
    kernel_size: 1
    weight_filler {
      type: "xavier"
      std: 0.09
    }
    bias_filler {
      type: "constant"
      value: 0.2
    }
  }
}
layer {
  name: "inception_4b/relu_3x3_reduce"
  type: "ReLU"
  bottom: "inception_4b/3x3_reduce"
  top: "inception_4b/3x3_reduce"
}
layer {
  name: "inception_4b/3x3"
  type: "Convolution"
  bottom: "inception_4b/3x3_reduce"
  top: "inception_4b/3x3"
  param {
    lr_mult: 1
    decay_mult: 1
  }
  param {
    lr_mult: 2
    decay_mult: 0
  }
  convolution_param {
    num_output: 224
    pad: 1
    kernel_size: 3
    weight_filler {
      type: "xavier"
      std: 0.03
    }
    bias_filler {
      type: "constant"
      value: 0.2
    }
  }
}
layer {
  name: "inception_4b/relu_3x3"
  type: "ReLU"
  bottom: "inception_4b/3x3"
  top: "inception_4b/3x3"
}
layer {
  name: "inception_4b/5x5_reduce"
  type: "Convolution"
  bottom: "inception_4a/output"
  top: "inception_4b/5x5_reduce"
  param {
    lr_mult: 1
    decay_mult: 1
  }
  param {
    lr_mult: 2
    decay_mult: 0
  }
  convolution_param {
    num_output: 24
    kernel_size: 1
    weight_filler {
      type: "xavier"
      std: 0.2
    }
    bias_filler {
      type: "constant"
      value: 0.2
    }
  }
}
layer {
  name: "inception_4b/relu_5x5_reduce"
  type: "ReLU"
  bottom: "inception_4b/5x5_reduce"
  top: "inception_4b/5x5_reduce"
}
layer {
  name: "inception_4b/5x5"
  type: "Convolution"
  bottom: "inception_4b/5x5_reduce"
  top: "inception_4b/5x5"
  param {
    lr_mult: 1
    decay_mult: 1
  }
  param {
    lr_mult: 2
    decay_mult: 0
  }
  convolution_param {
    num_output: 64
    pad: 2
    kernel_size: 5
    weight_filler {
      type: "xavier"
      std: 0.03
    }
    bias_filler {
      type: "constant"
      value: 0.2
    }
  }
}
layer {
  name: "inception_4b/relu_5x5"
  type: "ReLU"
  bottom: "inception_4b/5x5"
  top: "inception_4b/5x5"
}
layer {
  name: "inception_4b/pool"
  type: "Pooling"
  bottom: "inception_4a/output"
  top: "inception_4b/pool"
  pooling_param {
    pool: MAX
    kernel_size: 3
    stride: 1
    pad: 1
  }
}
layer {
  name: "inception_4b/pool_proj"
  type: "Convolution"
  bottom: "inception_4b/pool"
  top: "inception_4b/pool_proj"
  param {
    lr_mult: 1
    decay_mult: 1
  }
  param {
    lr_mult: 2
    decay_mult: 0
  }
  convolution_param {
    num_output: 64
    kernel_size: 1
    weight_filler {
      type: "xavier"
      std: 0.1
    }
    bias_filler {
      type: "constant"
      value: 0.2
    }
  }
}
layer {
  name: "inception_4b/relu_pool_proj"
  type: "ReLU"
  bottom: "inception_4b/pool_proj"
  top: "inception_4b/pool_proj"
}
layer {
  name: "inception_4b/output"
  type: "Concat"
  bottom: "inception_4b/1x1"
  bottom: "inception_4b/3x3"
  bottom: "inception_4b/5x5"
  bottom: "inception_4b/pool_proj"
  top: "inception_4b/output"
}
layer {
  name: "inception_4c/1x1"
  type: "Convolution"
  bottom: "inception_4b/output"
  top: "inception_4c/1x1"
  param {
    lr_mult: 1
    decay_mult: 1
  }
  param {
    lr_mult: 2
    decay_mult: 0
  }
  convolution_param {
    num_output: 128
    kernel_size: 1
    weight_filler {
      type: "xavier"
      std: 0.03
    }
    bias_filler {
      type: "constant"
      value: 0.2
    }
  }
}
layer {
  name: "inception_4c/relu_1x1"
  type: "ReLU"
  bottom: "inception_4c/1x1"
  top: "inception_4c/1x1"
}
layer {
  name: "inception_4c/3x3_reduce"
  type: "Convolution"
  bottom: "inception_4b/output"
  top: "inception_4c/3x3_reduce"
  param {
    lr_mult: 1
    decay_mult: 1
  }
  param {
    lr_mult: 2
    decay_mult: 0
  }
  convolution_param {
    num_output: 128
    kernel_size: 1
    weight_filler {
      type: "xavier"
      std: 0.09
    }
    bias_filler {
      type: "constant"
      value: 0.2
    }
  }
}
layer {
  name: "inception_4c/relu_3x3_reduce"
  type: "ReLU"
  bottom: "inception_4c/3x3_reduce"
  top: "inception_4c/3x3_reduce"
}
layer {
  name: "inception_4c/3x3"
  type: "Convolution"
  bottom: "inception_4c/3x3_reduce"
  top: "inception_4c/3x3"
  param {
    lr_mult: 1
    decay_mult: 1
  }
  param {
    lr_mult: 2
    decay_mult: 0
  }
  convolution_param {
    num_output: 256
    pad: 1
    kernel_size: 3
    weight_filler {
      type: "xavier"
      std: 0.03
    }
    bias_filler {
      type: "constant"
      value: 0.2
    }
  }
}
layer {
  name: "inception_4c/relu_3x3"
  type: "ReLU"
  bottom: "inception_4c/3x3"
  top: "inception_4c/3x3"
}
layer {
  name: "inception_4c/5x5_reduce"
  type: "Convolution"
  bottom: "inception_4b/output"
  top: "inception_4c/5x5_reduce"
  param {
    lr_mult: 1
    decay_mult: 1
  }
  param {
    lr_mult: 2
    decay_mult: 0
  }
  convolution_param {
    num_output: 24
    kernel_size: 1
    weight_filler {
      type: "xavier"
      std: 0.2
    }
    bias_filler {
      type: "constant"
      value: 0.2
    }
  }
}
layer {
  name: "inception_4c/relu_5x5_reduce"
  type: "ReLU"
  bottom: "inception_4c/5x5_reduce"
  top: "inception_4c/5x5_reduce"
}
layer {
  name: "inception_4c/5x5"
  type: "Convolution"
  bottom: "inception_4c/5x5_reduce"
  top: "inception_4c/5x5"
  param {
    lr_mult: 1
    decay_mult: 1
  }
  param {
    lr_mult: 2
    decay_mult: 0
  }
  convolution_param {
    num_output: 64
    pad: 2
    kernel_size: 5
    weight_filler {
      type: "xavier"
      std: 0.03
    }
    bias_filler {
      type: "constant"
      value: 0.2
    }
  }
}
layer {
  name: "inception_4c/relu_5x5"
  type: "ReLU"
  bottom: "inception_4c/5x5"
  top: "inception_4c/5x5"
}
layer {
  name: "inception_4c/pool"
  type: "Pooling"
  bottom: "inception_4b/output"
  top: "inception_4c/pool"
  pooling_param {
    pool: MAX
    kernel_size: 3
    stride: 1
    pad: 1
  }
}
layer {
  name: "inception_4c/pool_proj"
  type: "Convolution"
  bottom: "inception_4c/pool"
  top: "inception_4c/pool_proj"
  param {
    lr_mult: 1
    decay_mult: 1
  }
  param {
    lr_mult: 2
    decay_mult: 0
  }
  convolution_param {
    num_output: 64
    kernel_size: 1
    weight_filler {
      type: "xavier"
      std: 0.1
    }
    bias_filler {
      type: "constant"
      value: 0.2
    }
  }
}
layer {
  name: "inception_4c/relu_pool_proj"
  type: "ReLU"
  bottom: "inception_4c/pool_proj"
  top: "inception_4c/pool_proj"
}
layer {
  name: "inception_4c/output"
  type: "Concat"
  bottom: "inception_4c/1x1"
  bottom: "inception_4c/3x3"
  bottom: "inception_4c/5x5"
  bottom: "inception_4c/pool_proj"
  top: "inception_4c/output"
}
layer {
  name: "inception_4d/1x1"
  type: "Convolution"
  bottom: "inception_4c/output"
  top: "inception_4d/1x1"
  param {
    lr_mult: 1
    decay_mult: 1
  }
  param {
    lr_mult: 2
    decay_mult: 0
  }
  convolution_param {
    num_output: 112
    kernel_size: 1
    weight_filler {
      type: "xavier"
      std: 0.03
    }
    bias_filler {
      type: "constant"
      value: 0.2
    }
  }
}
layer {
  name: "inception_4d/relu_1x1"
  type: "ReLU"
  bottom: "inception_4d/1x1"
  top: "inception_4d/1x1"
}
layer {
  name: "inception_4d/3x3_reduce"
  type: "Convolution"
  bottom: "inception_4c/output"
  top: "inception_4d/3x3_reduce"
  param {
    lr_mult: 1
    decay_mult: 1
  }
  param {
    lr_mult: 2
    decay_mult: 0
  }
  convolution_param {
    num_output: 144
    kernel_size: 1
    weight_filler {
      type: "xavier"
      std: 0.09
    }
    bias_filler {
      type: "constant"
      value: 0.2
    }
  }
}
layer {
  name: "inception_4d/relu_3x3_reduce"
  type: "ReLU"
  bottom: "inception_4d/3x3_reduce"
  top: "inception_4d/3x3_reduce"
}
layer {
  name: "inception_4d/3x3"
  type: "Convolution"
  bottom: "inception_4d/3x3_reduce"
  top: "inception_4d/3x3"
  param {
    lr_mult: 1
    decay_mult: 1
  }
  param {
    lr_mult: 2
    decay_mult: 0
  }
  convolution_param {
    num_output: 288
    pad: 1
    kernel_size: 3
    weight_filler {
      type: "xavier"
      std: 0.03
    }
    bias_filler {
      type: "constant"
      value: 0.2
    }
  }
}
layer {
  name: "inception_4d/relu_3x3"
  type: "ReLU"
  bottom: "inception_4d/3x3"
  top: "inception_4d/3x3"
}
layer {
  name: "inception_4d/5x5_reduce"
  type: "Convolution"
  bottom: "inception_4c/output"
  top: "inception_4d/5x5_reduce"
  param {
    lr_mult: 1
    decay_mult: 1
  }
  param {
    lr_mult: 2
    decay_mult: 0
  }
  convolution_param {
    num_output: 32
    kernel_size: 1
    weight_filler {
      type: "xavier"
      std: 0.2
    }
    bias_filler {
      type: "constant"
      value: 0.2
    }
  }
}
layer {
  name: "inception_4d/relu_5x5_reduce"
  type: "ReLU"
  bottom: "inception_4d/5x5_reduce"
  top: "inception_4d/5x5_reduce"
}
layer {
  name: "inception_4d/5x5"
  type: "Convolution"
  bottom: "inception_4d/5x5_reduce"
  top: "inception_4d/5x5"
  param {
    lr_mult: 1
    decay_mult: 1
  }
  param {
    lr_mult: 2
    decay_mult: 0
  }
  convolution_param {
    num_output: 64
    pad: 2
    kernel_size: 5
    weight_filler {
      type: "xavier"
      std: 0.03
    }
    bias_filler {
      type: "constant"
      value: 0.2
    }
  }
}
layer {
  name: "inception_4d/relu_5x5"
  type: "ReLU"
  bottom: "inception_4d/5x5"
  top: "inception_4d/5x5"
}
layer {
  name: "inception_4d/pool"
  type: "Pooling"
  bottom: "inception_4c/output"
  top: "inception_4d/pool"
  pooling_param {
    pool: MAX
    kernel_size: 3
    stride: 1
    pad: 1
  }
}
layer {
  name: "inception_4d/pool_proj"
  type: "Convolution"
  bottom: "inception_4d/pool"
  top: "inception_4d/pool_proj"
  param {
    lr_mult: 1
    decay_mult: 1
  }
  param {
    lr_mult: 2
    decay_mult: 0
  }
  convolution_param {
    num_output: 64
    kernel_size: 1
    weight_filler {
      type: "xavier"
      std: 0.1
    }
    bias_filler {
      type: "constant"
      value: 0.2
    }
  }
}
layer {
  name: "inception_4d/relu_pool_proj"
  type: "ReLU"
  bottom: "inception_4d/pool_proj"
  top: "inception_4d/pool_proj"
}
layer {
  name: "inception_4d/output"
  type: "Concat"
  bottom: "inception_4d/1x1"
  bottom: "inception_4d/3x3"
  bottom: "inception_4d/5x5"
  bottom: "inception_4d/pool_proj"
  top: "inception_4d/output"
}
layer {
  name: "loss2/ave_pool"
  type: "Pooling"
  bottom: "inception_4d/output"
  top: "loss2/ave_pool"
  pooling_param {
    pool: AVE
    kernel_size: 5
    stride: 3
  }
}
layer {
  name: "loss2/conv"
  type: "Convolution"
  bottom: "loss2/ave_pool"
  top: "loss2/conv"
  param {
    lr_mult: 1
    decay_mult: 1
  }
  param {
    lr_mult: 2
    decay_mult: 0
  }
  convolution_param {
    num_output: 128
    kernel_size: 1
    weight_filler {
      type: "xavier"
      std: 0.08
    }
    bias_filler {
      type: "constant"
      value: 0.2
    }
  }
}
layer {
  name: "loss2/relu_conv"
  type: "ReLU"
  bottom: "loss2/conv"
  top: "loss2/conv"
}
layer {
  name: "loss2/fc"
  type: "InnerProduct"
  bottom: "loss2/conv"
  top: "loss2/fc"
  param {
    lr_mult: 1
    decay_mult: 1
  }
  param {
    lr_mult: 2
    decay_mult: 0
  }
  inner_product_param {
    num_output: 1024
    weight_filler {
      type: "xavier"
      std: 0.02
    }
    bias_filler {
      type: "constant"
      value: 0.2
    }
  }
}
layer {
  name: "loss2/relu_fc"
  type: "ReLU"
  bottom: "loss2/fc"
  top: "loss2/fc"
}
layer {
  name: "loss2/drop_fc"
  type: "Dropout"
  bottom: "loss2/fc"
  top: "loss2/fc"
  dropout_param {
    dropout_ratio: 0.7
  }
}
layer {
  name: "loss2/classifier_plantvillage"
  type: "InnerProduct"
  bottom: "loss2/fc"
  top: "loss2/classifier_plantvillage"
  param {
    lr_mult: 1
    decay_mult: 1
  }
  param {
    lr_mult: 2
    decay_mult: 0
  }
  inner_product_param {
    num_output: 38
    weight_filler {
      type: "xavier"
      std: 0.0009765625
    }
    bias_filler {
      type: "constant"
      value: 0
    }
  }
}
layer {
  name: "inception_4e/1x1"
  type: "Convolution"
  bottom: "inception_4d/output"
  top: "inception_4e/1x1"
  param {
    lr_mult: 1
    decay_mult: 1
  }
  param {
    lr_mult: 2
    decay_mult: 0
  }
  convolution_param {
    num_output: 256
    kernel_size: 1
    weight_filler {
      type: "xavier"
      std: 0.03
    }
    bias_filler {
      type: "constant"
      value: 0.2
    }
  }
}
layer {
  name: "inception_4e/relu_1x1"
  type: "ReLU"
  bottom: "inception_4e/1x1"
  top: "inception_4e/1x1"
}
layer {
  name: "inception_4e/3x3_reduce"
  type: "Convolution"
  bottom: "inception_4d/output"
  top: "inception_4e/3x3_reduce"
  param {
    lr_mult: 1
    decay_mult: 1
  }
  param {
    lr_mult: 2
    decay_mult: 0
  }
  convolution_param {
    num_output: 160
    kernel_size: 1
    weight_filler {
      type: "xavier"
      std: 0.09
    }
    bias_filler {
      type: "constant"
      value: 0.2
    }
  }
}
layer {
  name: "inception_4e/relu_3x3_reduce"
  type: "ReLU"
  bottom: "inception_4e/3x3_reduce"
  top: "inception_4e/3x3_reduce"
}
layer {
  name: "inception_4e/3x3"
  type: "Convolution"
  bottom: "inception_4e/3x3_reduce"
  top: "inception_4e/3x3"
  param {
    lr_mult: 1
    decay_mult: 1
  }
  param {
    lr_mult: 2
    decay_mult: 0
  }
  convolution_param {
    num_output: 320
    pad: 1
    kernel_size: 3
    weight_filler {
      type: "xavier"
      std: 0.03
    }
    bias_filler {
      type: "constant"
      value: 0.2
    }
  }
}
layer {
  name: "inception_4e/relu_3x3"
  type: "ReLU"
  bottom: "inception_4e/3x3"
  top: "inception_4e/3x3"
}
layer {
  name: "inception_4e/5x5_reduce"
  type: "Convolution"
  bottom: "inception_4d/output"
  top: "inception_4e/5x5_reduce"
  param {
    lr_mult: 1
    decay_mult: 1
  }
  param {
    lr_mult: 2
    decay_mult: 0
  }
  convolution_param {
    num_output: 32
    kernel_size: 1
    weight_filler {
      type: "xavier"
      std: 0.2
    }
    bias_filler {
      type: "constant"
      value: 0.2
    }
  }
}
layer {
  name: "inception_4e/relu_5x5_reduce"
  type: "ReLU"
  bottom: "inception_4e/5x5_reduce"
  top: "inception_4e/5x5_reduce"
}
layer {
  name: "inception_4e/5x5"
  type: "Convolution"
  bottom: "inception_4e/5x5_reduce"
  top: "inception_4e/
I0403 15:43:34.736578 15985 layer_factory.hpp:77] Creating layer data
I0403 15:43:34.737200 15985 net.cpp:91] Creating Layer data
I0403 15:43:34.737231 15985 net.cpp:399] data -> data
I0403 15:43:34.737280 15985 net.cpp:399] data -> label
I0403 15:43:34.737316 15985 data_transformer.cpp:25] Loading mean file from: /home/mohanty/data/final_dataset/lmdb/segmented-20-80/mean.binaryproto
I0403 15:43:34.743357 15989 db_lmdb.cpp:38] Opened lmdb /home/mohanty/data/final_dataset/lmdb/segmented-20-80/test_db
I0403 15:43:34.754497 15985 data_layer.cpp:41] output data size: 24,3,224,224
I0403 15:43:34.781795 15985 net.cpp:141] Setting up data
I0403 15:43:34.781882 15985 net.cpp:148] Top shape: 24 3 224 224 (3612672)
I0403 15:43:34.781904 15985 net.cpp:148] Top shape: 24 (24)
I0403 15:43:34.781920 15985 net.cpp:156] Memory required for data: 14450784
I0403 15:43:34.781949 15985 layer_factory.hpp:77] Creating layer label_data_1_split
I0403 15:43:34.781976 15985 net.cpp:91] Creating Layer label_data_1_split
I0403 15:43:34.781994 15985 net.cpp:425] label_data_1_split <- label
I0403 15:43:34.782027 15985 net.cpp:399] label_data_1_split -> label_data_1_split_0
I0403 15:43:34.782057 15985 net.cpp:399] label_data_1_split -> label_data_1_split_1
I0403 15:43:34.782078 15985 net.cpp:399] label_data_1_split -> label_data_1_split_2
I0403 15:43:34.782101 15985 net.cpp:399] label_data_1_split -> label_data_1_split_3
I0403 15:43:34.782121 15985 net.cpp:399] label_data_1_split -> label_data_1_split_4
I0403 15:43:34.782141 15985 net.cpp:399] label_data_1_split -> label_data_1_split_5
I0403 15:43:34.782161 15985 net.cpp:399] label_data_1_split -> label_data_1_split_6
I0403 15:43:34.782183 15985 net.cpp:399] label_data_1_split -> label_data_1_split_7
I0403 15:43:34.782202 15985 net.cpp:399] label_data_1_split -> label_data_1_split_8
I0403 15:43:34.782223 15985 net.cpp:399] label_data_1_split -> label_data_1_split_9
I0403 15:43:34.782343 15985 net.cpp:141] Setting up label_data_1_split
I0403 15:43:34.782367 15985 net.cpp:148] Top shape: 24 (24)
I0403 15:43:34.782384 15985 net.cpp:148] Top shape: 24 (24)
I0403 15:43:34.782402 15985 net.cpp:148] Top shape: 24 (24)
I0403 15:43:34.782418 15985 net.cpp:148] Top shape: 24 (24)
I0403 15:43:34.782434 15985 net.cpp:148] Top shape: 24 (24)
I0403 15:43:34.782449 15985 net.cpp:148] Top shape: 24 (24)
I0403 15:43:34.782465 15985 net.cpp:148] Top shape: 24 (24)
I0403 15:43:34.782481 15985 net.cpp:148] Top shape: 24 (24)
I0403 15:43:34.782497 15985 net.cpp:148] Top shape: 24 (24)
I0403 15:43:34.782513 15985 net.cpp:148] Top shape: 24 (24)
I0403 15:43:34.782563 15985 net.cpp:156] Memory required for data: 14451744
I0403 15:43:34.782580 15985 layer_factory.hpp:77] Creating layer conv1/7x7_s2
I0403 15:43:34.782618 15985 net.cpp:91] Creating Layer conv1/7x7_s2
I0403 15:43:34.782637 15985 net.cpp:425] conv1/7x7_s2 <- data
I0403 15:43:34.782657 15985 net.cpp:399] conv1/7x7_s2 -> conv1/7x7_s2
I0403 15:43:34.921298 15985 net.cpp:141] Setting up conv1/7x7_s2
I0403 15:43:34.921376 15985 net.cpp:148] Top shape: 24 64 112 112 (19267584)
I0403 15:43:34.921394 15985 net.cpp:156] Memory required for data: 91522080
I0403 15:43:34.921424 15985 layer_factory.hpp:77] Creating layer conv1/relu_7x7
I0403 15:43:34.921450 15985 net.cpp:91] Creating Layer conv1/relu_7x7
I0403 15:43:34.921468 15985 net.cpp:425] conv1/relu_7x7 <- conv1/7x7_s2
I0403 15:43:34.921490 15985 net.cpp:386] conv1/relu_7x7 -> conv1/7x7_s2 (in-place)
I0403 15:43:34.921774 15985 net.cpp:141] Setting up conv1/relu_7x7
I0403 15:43:34.921802 15985 net.cpp:148] Top shape: 24 64 112 112 (19267584)
I0403 15:43:34.921816 15985 net.cpp:156] Memory required for data: 168592416
I0403 15:43:34.921831 15985 layer_factory.hpp:77] Creating layer pool1/3x3_s2
I0403 15:43:34.921855 15985 net.cpp:91] Creating Layer pool1/3x3_s2
I0403 15:43:34.921875 15985 net.cpp:425] pool1/3x3_s2 <- conv1/7x7_s2
I0403 15:43:34.921893 15985 net.cpp:399] pool1/3x3_s2 -> pool1/3x3_s2
I0403 15:43:34.921972 15985 net.cpp:141] Setting up pool1/3x3_s2
I0403 15:43:34.921995 15985 net.cpp:148] Top shape: 24 64 56 56 (4816896)
I0403 15:43:34.922010 15985 net.cpp:156] Memory required for data: 187860000
I0403 15:43:34.922024 15985 layer_factory.hpp:77] Creating layer pool1/norm1
I0403 15:43:34.922049 15985 net.cpp:91] Creating Layer pool1/norm1
I0403 15:43:34.922065 15985 net.cpp:425] pool1/norm1 <- pool1/3x3_s2
I0403 15:43:34.922086 15985 net.cpp:399] pool1/norm1 -> pool1/norm1
I0403 15:43:34.922382 15985 net.cpp:141] Setting up pool1/norm1
I0403 15:43:34.922410 15985 net.cpp:148] Top shape: 24 64 56 56 (4816896)
I0403 15:43:34.922425 15985 net.cpp:156] Memory required for data: 207127584
I0403 15:43:34.922440 15985 layer_factory.hpp:77] Creating layer conv2/3x3_reduce
I0403 15:43:34.922466 15985 net.cpp:91] Creating Layer conv2/3x3_reduce
I0403 15:43:34.922482 15985 net.cpp:425] conv2/3x3_reduce <- pool1/norm1
I0403 15:43:34.922502 15985 net.cpp:399] conv2/3x3_reduce -> conv2/3x3_reduce
I0403 15:43:34.923882 15985 net.cpp:141] Setting up conv2/3x3_reduce
I0403 15:43:34.923912 15985 net.cpp:148] Top shape: 24 64 56 56 (4816896)
I0403 15:43:34.923926 15985 net.cpp:156] Memory required for data: 226395168
I0403 15:43:34.923951 15985 layer_factory.hpp:77] Creating layer conv2/relu_3x3_reduce
I0403 15:43:34.923971 15985 net.cpp:91] Creating Layer conv2/relu_3x3_reduce
I0403 15:43:34.923987 15985 net.cpp:425] conv2/relu_3x3_reduce <- conv2/3x3_reduce
I0403 15:43:34.924005 15985 net.cpp:386] conv2/relu_3x3_reduce -> conv2/3x3_reduce (in-place)
I0403 15:43:34.924269 15985 net.cpp:141] Setting up conv2/relu_3x3_reduce
I0403 15:43:34.924298 15985 net.cpp:148] Top shape: 24 64 56 56 (4816896)
I0403 15:43:34.924314 15985 net.cpp:156] Memory required for data: 245662752
I0403 15:43:34.924327 15985 layer_factory.hpp:77] Creating layer conv2/3x3
I0403 15:43:34.924350 15985 net.cpp:91] Creating Layer conv2/3x3
I0403 15:43:34.924370 15985 net.cpp:425] conv2/3x3 <- conv2/3x3_reduce
I0403 15:43:34.924387 15985 net.cpp:399] conv2/3x3 -> conv2/3x3
I0403 15:43:34.926653 15985 net.cpp:141] Setting up conv2/3x3
I0403 15:43:34.926686 15985 net.cpp:148] Top shape: 24 192 56 56 (14450688)
I0403 15:43:34.926702 15985 net.cpp:156] Memory required for data: 303465504
I0403 15:43:34.926724 15985 layer_factory.hpp:77] Creating layer conv2/relu_3x3
I0403 15:43:34.926743 15985 net.cpp:91] Creating Layer conv2/relu_3x3
I0403 15:43:34.926759 15985 net.cpp:425] conv2/relu_3x3 <- conv2/3x3
I0403 15:43:34.926777 15985 net.cpp:386] conv2/relu_3x3 -> conv2/3x3 (in-place)
I0403 15:43:34.926955 15985 net.cpp:141] Setting up conv2/relu_3x3
I0403 15:43:34.926980 15985 net.cpp:148] Top shape: 24 192 56 56 (14450688)
I0403 15:43:34.927028 15985 net.cpp:156] Memory required for data: 361268256
I0403 15:43:34.927044 15985 layer_factory.hpp:77] Creating layer conv2/norm2
I0403 15:43:34.927064 15985 net.cpp:91] Creating Layer conv2/norm2
I0403 15:43:34.927080 15985 net.cpp:425] conv2/norm2 <- conv2/3x3
I0403 15:43:34.927098 15985 net.cpp:399] conv2/norm2 -> conv2/norm2
I0403 15:43:34.927402 15985 net.cpp:141] Setting up conv2/norm2
I0403 15:43:34.927428 15985 net.cpp:148] Top shape: 24 192 56 56 (14450688)
I0403 15:43:34.927443 15985 net.cpp:156] Memory required for data: 419071008
I0403 15:43:34.927458 15985 layer_factory.hpp:77] Creating layer pool2/3x3_s2
I0403 15:43:34.927476 15985 net.cpp:91] Creating Layer pool2/3x3_s2
I0403 15:43:34.927492 15985 net.cpp:425] pool2/3x3_s2 <- conv2/norm2
I0403 15:43:34.927510 15985 net.cpp:399] pool2/3x3_s2 -> pool2/3x3_s2
I0403 15:43:34.927562 15985 net.cpp:141] Setting up pool2/3x3_s2
I0403 15:43:34.927584 15985 net.cpp:148] Top shape: 24 192 28 28 (3612672)
I0403 15:43:34.927603 15985 net.cpp:156] Memory required for data: 433521696
I0403 15:43:34.927619 15985 layer_factory.hpp:77] Creating layer pool2/3x3_s2_pool2/3x3_s2_0_split
I0403 15:43:34.927636 15985 net.cpp:91] Creating Layer pool2/3x3_s2_pool2/3x3_s2_0_split
I0403 15:43:34.927651 15985 net.cpp:425] pool2/3x3_s2_pool2/3x3_s2_0_split <- pool2/3x3_s2
I0403 15:43:34.927671 15985 net.cpp:399] pool2/3x3_s2_pool2/3x3_s2_0_split -> pool2/3x3_s2_pool2/3x3_s2_0_split_0
I0403 15:43:34.927691 15985 net.cpp:399] pool2/3x3_s2_pool2/3x3_s2_0_split -> pool2/3x3_s2_pool2/3x3_s2_0_split_1
I0403 15:43:34.927711 15985 net.cpp:399] pool2/3x3_s2_pool2/3x3_s2_0_split -> pool2/3x3_s2_pool2/3x3_s2_0_split_2
I0403 15:43:34.927729 15985 net.cpp:399] pool2/3x3_s2_pool2/3x3_s2_0_split -> pool2/3x3_s2_pool2/3x3_s2_0_split_3
I0403 15:43:34.927798 15985 net.cpp:141] Setting up pool2/3x3_s2_pool2/3x3_s2_0_split
I0403 15:43:34.927821 15985 net.cpp:148] Top shape: 24 192 28 28 (3612672)
I0403 15:43:34.927836 15985 net.cpp:148] Top shape: 24 192 28 28 (3612672)
I0403 15:43:34.927852 15985 net.cpp:148] Top shape: 24 192 28 28 (3612672)
I0403 15:43:34.927867 15985 net.cpp:148] Top shape: 24 192 28 28 (3612672)
I0403 15:43:34.927881 15985 net.cpp:156] Memory required for data: 491324448
I0403 15:43:34.927894 15985 layer_factory.hpp:77] Creating layer inception_3a/1x1
I0403 15:43:34.927916 15985 net.cpp:91] Creating Layer inception_3a/1x1
I0403 15:43:34.927932 15985 net.cpp:425] inception_3a/1x1 <- pool2/3x3_s2_pool2/3x3_s2_0_split_0
I0403 15:43:34.927953 15985 net.cpp:399] inception_3a/1x1 -> inception_3a/1x1
I0403 15:43:34.929469 15985 net.cpp:141] Setting up inception_3a/1x1
I0403 15:43:34.929500 15985 net.cpp:148] Top shape: 24 64 28 28 (1204224)
I0403 15:43:34.929517 15985 net.cpp:156] Memory required for data: 496141344
I0403 15:43:34.929536 15985 layer_factory.hpp:77] Creating layer inception_3a/relu_1x1
I0403 15:43:34.929553 15985 net.cpp:91] Creating Layer inception_3a/relu_1x1
I0403 15:43:34.929569 15985 net.cpp:425] inception_3a/relu_1x1 <- inception_3a/1x1
I0403 15:43:34.929585 15985 net.cpp:386] inception_3a/relu_1x1 -> inception_3a/1x1 (in-place)
I0403 15:43:34.929765 15985 net.cpp:141] Setting up inception_3a/relu_1x1
I0403 15:43:34.929790 15985 net.cpp:148] Top shape: 24 64 28 28 (1204224)
I0403 15:43:34.929805 15985 net.cpp:156] Memory required for data: 500958240
I0403 15:43:34.929819 15985 layer_factory.hpp:77] Creating layer inception_3a/3x3_reduce
I0403 15:43:34.929841 15985 net.cpp:91] Creating Layer inception_3a/3x3_reduce
I0403 15:43:34.929858 15985 net.cpp:425] inception_3a/3x3_reduce <- pool2/3x3_s2_pool2/3x3_s2_0_split_1
I0403 15:43:34.929878 15985 net.cpp:399] inception_3a/3x3_reduce -> inception_3a/3x3_reduce
I0403 15:43:34.931557 15985 net.cpp:141] Setting up inception_3a/3x3_reduce
I0403 15:43:34.931588 15985 net.cpp:148] Top shape: 24 96 28 28 (1806336)
I0403 15:43:34.931609 15985 net.cpp:156] Memory required for data: 508183584
I0403 15:43:34.931632 15985 layer_factory.hpp:77] Creating layer inception_3a/relu_3x3_reduce
I0403 15:43:34.931666 15985 net.cpp:91] Creating Layer inception_3a/relu_3x3_reduce
I0403 15:43:34.931684 15985 net.cpp:425] inception_3a/relu_3x3_reduce <- inception_3a/3x3_reduce
I0403 15:43:34.931704 15985 net.cpp:386] inception_3a/relu_3x3_reduce -> inception_3a/3x3_reduce (in-place)
I0403 15:43:34.931886 15985 net.cpp:141] Setting up inception_3a/relu_3x3_reduce
I0403 15:43:34.931911 15985 net.cpp:148] Top shape: 24 96 28 28 (1806336)
I0403 15:43:34.931926 15985 net.cpp:156] Memory required for data: 515408928
I0403 15:43:34.931941 15985 layer_factory.hpp:77] Creating layer inception_3a/3x3
I0403 15:43:34.931962 15985 net.cpp:91] Creating Layer inception_3a/3x3
I0403 15:43:34.931980 15985 net.cpp:425] inception_3a/3x3 <- inception_3a/3x3_reduce
I0403 15:43:34.931998 15985 net.cpp:399] inception_3a/3x3 -> inception_3a/3x3
I0403 15:43:34.933639 15985 net.cpp:141] Setting up inception_3a/3x3
I0403 15:43:34.933667 15985 net.cpp:148] Top shape: 24 128 28 28 (2408448)
I0403 15:43:34.933683 15985 net.cpp:156] Memory required for data: 525042720
I0403 15:43:34.933701 15985 layer_factory.hpp:77] Creating layer inception_3a/relu_3x3
I0403 15:43:34.933719 15985 net.cpp:91] Creating Layer inception_3a/relu_3x3
I0403 15:43:34.933734 15985 net.cpp:425] inception_3a/relu_3x3 <- inception_3a/3x3
I0403 15:43:34.933753 15985 net.cpp:386] inception_3a/relu_3x3 -> inception_3a/3x3 (in-place)
I0403 15:43:34.934031 15985 net.cpp:141] Setting up inception_3a/relu_3x3
I0403 15:43:34.934058 15985 net.cpp:148] Top shape: 24 128 28 28 (2408448)
I0403 15:43:34.934072 15985 net.cpp:156] Memory required for data: 534676512
I0403 15:43:34.934087 15985 layer_factory.hpp:77] Creating layer inception_3a/5x5_reduce
I0403 15:43:34.934109 15985 net.cpp:91] Creating Layer inception_3a/5x5_reduce
I0403 15:43:34.934126 15985 net.cpp:425] inception_3a/5x5_reduce <- pool2/3x3_s2_pool2/3x3_s2_0_split_2
I0403 15:43:34.934146 15985 net.cpp:399] inception_3a/5x5_reduce -> inception_3a/5x5_reduce
I0403 15:43:34.935102 15985 net.cpp:141] Setting up inception_3a/5x5_reduce
I0403 15:43:34.935130 15985 net.cpp:148] Top shape: 24 16 28 28 (301056)
I0403 15:43:34.935145 15985 net.cpp:156] Memory required for data: 535880736
I0403 15:43:34.935163 15985 layer_factory.hpp:77] Creating layer inception_3a/relu_5x5_reduce
I0403 15:43:34.935181 15985 net.cpp:91] Creating Layer inception_3a/relu_5x5_reduce
I0403 15:43:34.935196 15985 net.cpp:425] inception_3a/relu_5x5_reduce <- inception_3a/5x5_reduce
I0403 15:43:34.935215 15985 net.cpp:386] inception_3a/relu_5x5_reduce -> inception_3a/5x5_reduce (in-place)
I0403 15:43:34.935513 15985 net.cpp:141] Setting up inception_3a/relu_5x5_reduce
I0403 15:43:34.935539 15985 net.cpp:148] Top shape: 24 16 28 28 (301056)
I0403 15:43:34.935554 15985 net.cpp:156] Memory required for data: 537084960
I0403 15:43:34.935569 15985 layer_factory.hpp:77] Creating layer inception_3a/5x5
I0403 15:43:34.935591 15985 net.cpp:91] Creating Layer inception_3a/5x5
I0403 15:43:34.935613 15985 net.cpp:425] inception_3a/5x5 <- inception_3a/5x5_reduce
I0403 15:43:34.935636 15985 net.cpp:399] inception_3a/5x5 -> inception_3a/5x5
I0403 15:43:34.936636 15985 net.cpp:141] Setting up inception_3a/5x5
I0403 15:43:34.936667 15985 net.cpp:148] Top shape: 24 32 28 28 (602112)
I0403 15:43:34.936683 15985 net.cpp:156] Memory required for data: 539493408
I0403 15:43:34.936702 15985 layer_factory.hpp:77] Creating layer inception_3a/relu_5x5
I0403 15:43:34.936719 15985 net.cpp:91] Creating Layer inception_3a/relu_5x5
I0403 15:43:34.936735 15985 net.cpp:425] inception_3a/relu_5x5 <- inception_3a/5x5
I0403 15:43:34.936753 15985 net.cpp:386] inception_3a/relu_5x5 -> inception_3a/5x5 (in-place)
I0403 15:43:34.936926 15985 net.cpp:141] Setting up inception_3a/relu_5x5
I0403 15:43:34.936950 15985 net.cpp:148] Top shape: 24 32 28 28 (602112)
I0403 15:43:34.936964 15985 net.cpp:156] Memory required for data: 541901856
I0403 15:43:34.936978 15985 layer_factory.hpp:77] Creating layer inception_3a/pool
I0403 15:43:34.936996 15985 net.cpp:91] Creating Layer inception_3a/pool
I0403 15:43:34.937026 15985 net.cpp:425] inception_3a/pool <- pool2/3x3_s2_pool2/3x3_s2_0_split_3
I0403 15:43:34.937047 15985 net.cpp:399] inception_3a/pool -> inception_3a/pool
I0403 15:43:34.937119 15985 net.cpp:141] Setting up inception_3a/pool
I0403 15:43:34.937144 15985 net.cpp:148] Top shape: 24 192 28 28 (3612672)
I0403 15:43:34.937160 15985 net.cpp:156] Memory required for data: 556352544
I0403 15:43:34.937175 15985 layer_factory.hpp:77] Creating layer inception_3a/pool_proj
I0403 15:43:34.937197 15985 net.cpp:91] Creating Layer inception_3a/pool_proj
I0403 15:43:34.937214 15985 net.cpp:425] inception_3a/pool_proj <- inception_3a/pool
I0403 15:43:34.937233 15985 net.cpp:399] inception_3a/pool_proj -> inception_3a/pool_proj
I0403 15:43:34.938223 15985 net.cpp:141] Setting up inception_3a/pool_proj
I0403 15:43:34.938251 15985 net.cpp:148] Top shape: 24 32 28 28 (602112)
I0403 15:43:34.938269 15985 net.cpp:156] Memory required for data: 558760992
I0403 15:43:34.938293 15985 layer_factory.hpp:77] Creating layer inception_3a/relu_pool_proj
I0403 15:43:34.938314 15985 net.cpp:91] Creating Layer inception_3a/relu_pool_proj
I0403 15:43:34.938330 15985 net.cpp:425] inception_3a/relu_pool_proj <- inception_3a/pool_proj
I0403 15:43:34.938350 15985 net.cpp:386] inception_3a/relu_pool_proj -> inception_3a/pool_proj (in-place)
I0403 15:43:34.938632 15985 net.cpp:141] Setting up inception_3a/relu_pool_proj
I0403 15:43:34.938664 15985 net.cpp:148] Top shape: 24 32 28 28 (602112)
I0403 15:43:34.938679 15985 net.cpp:156] Memory required for data: 561169440
I0403 15:43:34.938694 15985 layer_factory.hpp:77] Creating layer inception_3a/output
I0403 15:43:34.938712 15985 net.cpp:91] Creating Layer inception_3a/output
I0403 15:43:34.938727 15985 net.cpp:425] inception_3a/output <- inception_3a/1x1
I0403 15:43:34.938743 15985 net.cpp:425] inception_3a/output <- inception_3a/3x3
I0403 15:43:34.938760 15985 net.cpp:425] inception_3a/output <- inception_3a/5x5
I0403 15:43:34.938776 15985 net.cpp:425] inception_3a/output <- inception_3a/pool_proj
I0403 15:43:34.938792 15985 net.cpp:399] inception_3a/output -> inception_3a/output
I0403 15:43:34.938841 15985 net.cpp:141] Setting up inception_3a/output
I0403 15:43:34.938864 15985 net.cpp:148] Top shape: 24 256 28 28 (4816896)
I0403 15:43:34.938879 15985 net.cpp:156] Memory required for data: 580437024
I0403 15:43:34.938894 15985 layer_factory.hpp:77] Creating layer inception_3a/output_inception_3a/output_0_split
I0403 15:43:34.938912 15985 net.cpp:91] Creating Layer inception_3a/output_inception_3a/output_0_split
I0403 15:43:34.938928 15985 net.cpp:425] inception_3a/output_inception_3a/output_0_split <- inception_3a/output
I0403 15:43:34.938946 15985 net.cpp:399] inception_3a/output_inception_3a/output_0_split -> inception_3a/output_inception_3a/output_0_split_0
I0403 15:43:34.938966 15985 net.cpp:399] inception_3a/output_inception_3a/output_0_split -> inception_3a/output_inception_3a/output_0_split_1
I0403 15:43:34.938989 15985 net.cpp:399] inception_3a/output_inception_3a/output_0_split -> inception_3a/output_inception_3a/output_0_split_2
I0403 15:43:34.939012 15985 net.cpp:399] inception_3a/output_inception_3a/output_0_split -> inception_3a/output_inception_3a/output_0_split_3
I0403 15:43:34.939090 15985 net.cpp:141] Setting up inception_3a/output_inception_3a/output_0_split
I0403 15:43:34.939112 15985 net.cpp:148] Top shape: 24 256 28 28 (4816896)
I0403 15:43:34.939129 15985 net.cpp:148] Top shape: 24 256 28 28 (4816896)
I0403 15:43:34.939146 15985 net.cpp:148] Top shape: 24 256 28 28 (4816896)
I0403 15:43:34.939160 15985 net.cpp:148] Top shape: 24 256 28 28 (4816896)
I0403 15:43:34.939177 15985 net.cpp:156] Memory required for data: 657507360
I0403 15:43:34.939191 15985 layer_factory.hpp:77] Creating layer inception_3b/1x1
I0403 15:43:34.939215 15985 net.cpp:91] Creating Layer inception_3b/1x1
I0403 15:43:34.939234 15985 net.cpp:425] inception_3b/1x1 <- inception_3a/output_inception_3a/output_0_split_0
I0403 15:43:34.939252 15985 net.cpp:399] inception_3b/1x1 -> inception_3b/1x1
I0403 15:43:34.940460 15985 net.cpp:141] Setting up inception_3b/1x1
I0403 15:43:34.940501 15985 net.cpp:148] Top shape: 24 128 28 28 (2408448)
I0403 15:43:34.940518 15985 net.cpp:156] Memory required for data: 667141152
I0403 15:43:34.940538 15985 layer_factory.hpp:77] Creating layer inception_3b/relu_1x1
I0403 15:43:34.940559 15985 net.cpp:91] Creating Layer inception_3b/relu_1x1
I0403 15:43:34.940578 15985 net.cpp:425] inception_3b/relu_1x1 <- inception_3b/1x1
I0403 15:43:34.940596 15985 net.cpp:386] inception_3b/relu_1x1 -> inception_3b/1x1 (in-place)
I0403 15:43:34.940793 15985 net.cpp:141] Setting up inception_3b/relu_1x1
I0403 15:43:34.940819 15985 net.cpp:148] Top shape: 24 128 28 28 (2408448)
I0403 15:43:34.940834 15985 net.cpp:156] Memory required for data: 676774944
I0403 15:43:34.940850 15985 layer_factory.hpp:77] Creating layer inception_3b/3x3_reduce
I0403 15:43:34.940872 15985 net.cpp:91] Creating Layer inception_3b/3x3_reduce
I0403 15:43:34.940891 15985 net.cpp:425] inception_3b/3x3_reduce <- inception_3a/output_inception_3a/output_0_split_1
I0403 15:43:34.940912 15985 net.cpp:399] inception_3b/3x3_reduce -> inception_3b/3x3_reduce
I0403 15:43:34.942111 15985 net.cpp:141] Setting up inception_3b/3x3_reduce
I0403 15:43:34.942139 15985 net.cpp:148] Top shape: 24 128 28 28 (2408448)
I0403 15:43:34.942160 15985 net.cpp:156] Memory required for data: 686408736
I0403 15:43:34.942180 15985 layer_factory.hpp:77] Creating layer inception_3b/relu_3x3_reduce
I0403 15:43:34.942199 15985 net.cpp:91] Creating Layer inception_3b/relu_3x3_reduce
I0403 15:43:34.942215 15985 net.cpp:425] inception_3b/relu_3x3_reduce <- inception_3b/3x3_reduce
I0403 15:43:34.942234 15985 net.cpp:386] inception_3b/relu_3x3_reduce -> inception_3b/3x3_reduce (in-place)
I0403 15:43:34.942420 15985 net.cpp:141] Setting up inception_3b/relu_3x3_reduce
I0403 15:43:34.942448 15985 net.cpp:148] Top shape: 24 128 28 28 (2408448)
I0403 15:43:34.942464 15985 net.cpp:156] Memory required for data: 696042528
I0403 15:43:34.942479 15985 layer_factory.hpp:77] Creating layer inception_3b/3x3
I0403 15:43:34.942504 15985 net.cpp:91] Creating Layer inception_3b/3x3
I0403 15:43:34.942523 15985 net.cpp:425] inception_3b/3x3 <- inception_3b/3x3_reduce
I0403 15:43:34.942548 15985 net.cpp:399] inception_3b/3x3 -> inception_3b/3x3
I0403 15:43:34.945624 15985 net.cpp:141] Setting up inception_3b/3x3
I0403 15:43:34.945657 15985 net.cpp:148] Top shape: 24 192 28 28 (3612672)
I0403 15:43:34.945673 15985 net.cpp:156] Memory required for data: 710493216
I0403 15:43:34.945693 15985 layer_factory.hpp:77] Creating layer inception_3b/relu_3x3
I0403 15:43:34.945711 15985 net.cpp:91] Creating Layer inception_3b/relu_3x3
I0403 15:43:34.945727 15985 net.cpp:425] inception_3b/relu_3x3 <- inception_3b/3x3
I0403 15:43:34.945749 15985 net.cpp:386] inception_3b/relu_3x3 -> inception_3b/3x3 (in-place)
I0403 15:43:34.946040 15985 net.cpp:141] Setting up inception_3b/relu_3x3
I0403 15:43:34.946070 15985 net.cpp:148] Top shape: 24 192 28 28 (3612672)
I0403 15:43:34.946085 15985 net.cpp:156] Memory required for data: 724943904
I0403 15:43:34.946100 15985 layer_factory.hpp:77] Creating layer inception_3b/5x5_reduce
I0403 15:43:34.946125 15985 net.cpp:91] Creating Layer inception_3b/5x5_reduce
I0403 15:43:34.946142 15985 net.cpp:425] inception_3b/5x5_reduce <- inception_3a/output_inception_3a/output_0_split_2
I0403 15:43:34.946166 15985 net.cpp:399] inception_3b/5x5_reduce -> inception_3b/5x5_reduce
I0403 15:43:34.947209 15985 net.cpp:141] Setting up inception_3b/5x5_reduce
I0403 15:43:34.947242 15985 net.cpp:148] Top shape: 24 32 28 28 (602112)
I0403 15:43:34.947260 15985 net.cpp:156] Memory required for data: 727352352
I0403 15:43:34.947280 15985 layer_factory.hpp:77] Creating layer inception_3b/relu_5x5_reduce
I0403 15:43:34.947299 15985 net.cpp:91] Creating Layer inception_3b/relu_5x5_reduce
I0403 15:43:34.947315 15985 net.cpp:425] inception_3b/relu_5x5_reduce <- inception_3b/5x5_reduce
I0403 15:43:34.947336 15985 net.cpp:386] inception_3b/relu_5x5_reduce -> inception_3b/5x5_reduce (in-place)
I0403 15:43:34.947542 15985 net.cpp:141] Setting up inception_3b/relu_5x5_reduce
I0403 15:43:34.947569 15985 net.cpp:148] Top shape: 24 32 28 28 (602112)
I0403 15:43:34.947584 15985 net.cpp:156] Memory required for data: 729760800
I0403 15:43:34.947603 15985 layer_factory.hpp:77] Creating layer inception_3b/5x5
I0403 15:43:34.947628 15985 net.cpp:91] Creating Layer inception_3b/5x5
I0403 15:43:34.947648 15985 net.cpp:425] inception_3b/5x5 <- inception_3b/5x5_reduce
I0403 15:43:34.947669 15985 net.cpp:399] inception_3b/5x5 -> inception_3b/5x5
I0403 15:43:34.949753 15985 net.cpp:141] Setting up inception_3b/5x5
I0403 15:43:34.949784 15985 net.cpp:148] Top shape: 24 96 28 28 (1806336)
I0403 15:43:34.949800 15985 net.cpp:156] Memory required for data: 736986144
I0403 15:43:34.949820 15985 layer_factory.hpp:77] Creating layer inception_3b/relu_5x5
I0403 15:43:34.949849 15985 net.cpp:91] Creating Layer inception_3b/relu_5x5
I0403 15:43:34.949867 15985 net.cpp:425] inception_3b/relu_5x5 <- inception_3b/5x5
I0403 15:43:34.949884 15985 net.cpp:386] inception_3b/relu_5x5 -> inception_3b/5x5 (in-place)
I0403 15:43:34.950090 15985 net.cpp:141] Setting up inception_3b/relu_5x5
I0403 15:43:34.950117 15985 net.cpp:148] Top shape: 24 96 28 28 (1806336)
I0403 15:43:34.950132 15985 net.cpp:156] Memory required for data: 744211488
I0403 15:43:34.950147 15985 layer_factory.hpp:77] Creating layer inception_3b/pool
I0403 15:43:34.950165 15985 net.cpp:91] Creating Layer inception_3b/pool
I0403 15:43:34.950182 15985 net.cpp:425] inception_3b/pool <- inception_3a/output_inception_3a/output_0_split_3
I0403 15:43:34.950201 15985 net.cpp:399] inception_3b/pool -> inception_3b/pool
I0403 15:43:34.950259 15985 net.cpp:141] Setting up inception_3b/pool
I0403 15:43:34.950284 15985 net.cpp:148] Top shape: 24 256 28 28 (4816896)
I0403 15:43:34.950299 15985 net.cpp:156] Memory required for data: 763479072
I0403 15:43:34.950314 15985 layer_factory.hpp:77] Creating layer inception_3b/pool_proj
I0403 15:43:34.950336 15985 net.cpp:91] Creating Layer inception_3b/pool_proj
I0403 15:43:34.950355 15985 net.cpp:425] inception_3b/pool_proj <- inception_3b/pool
I0403 15:43:34.950376 15985 net.cpp:399] inception_3b/pool_proj -> inception_3b/pool_proj
I0403 15:43:34.951489 15985 net.cpp:141] Setting up inception_3b/pool_proj
I0403 15:43:34.951519 15985 net.cpp:148] Top shape: 24 64 28 28 (1204224)
I0403 15:43:34.951535 15985 net.cpp:156] Memory required for data: 768295968
I0403 15:43:34.951555 15985 layer_factory.hpp:77] Creating layer inception_3b/relu_pool_proj
I0403 15:43:34.951575 15985 net.cpp:91] Creating Layer inception_3b/relu_pool_proj
I0403 15:43:34.951592 15985 net.cpp:425] inception_3b/relu_pool_proj <- inception_3b/pool_proj
I0403 15:43:34.951617 15985 net.cpp:386] inception_3b/relu_pool_proj -> inception_3b/pool_proj (in-place)
I0403 15:43:34.952033 15985 net.cpp:141] Setting up inception_3b/relu_pool_proj
I0403 15:43:34.952059 15985 net.cpp:148] Top shape: 24 64 28 28 (1204224)
I0403 15:43:34.952075 15985 net.cpp:156] Memory required for data: 773112864
I0403 15:43:34.952091 15985 layer_factory.hpp:77] Creating layer inception_3b/output
I0403 15:43:34.952110 15985 net.cpp:91] Creating Layer inception_3b/output
I0403 15:43:34.952126 15985 net.cpp:425] inception_3b/output <- inception_3b/1x1
I0403 15:43:34.952142 15985 net.cpp:425] inception_3b/output <- inception_3b/3x3
I0403 15:43:34.952159 15985 net.cpp:425] inception_3b/output <- inception_3b/5x5
I0403 15:43:34.952175 15985 net.cpp:425] inception_3b/output <- inception_3b/pool_proj
I0403 15:43:34.952194 15985 net.cpp:399] inception_3b/output -> inception_3b/output
I0403 15:43:34.952241 15985 net.cpp:141] Setting up inception_3b/output
I0403 15:43:34.952268 15985 net.cpp:148] Top shape: 24 480 28 28 (9031680)
I0403 15:43:34.952286 15985 net.cpp:156] Memory required for data: 809239584
I0403 15:43:34.952301 15985 layer_factory.hpp:77] Creating layer pool3/3x3_s2
I0403 15:43:34.952319 15985 net.cpp:91] Creating Layer pool3/3x3_s2
I0403 15:43:34.952335 15985 net.cpp:425] pool3/3x3_s2 <- inception_3b/output
I0403 15:43:34.952369 15985 net.cpp:399] pool3/3x3_s2 -> pool3/3x3_s2
I0403 15:43:34.952433 15985 net.cpp:141] Setting up pool3/3x3_s2
I0403 15:43:34.952457 15985 net.cpp:148] Top shape: 24 480 14 14 (2257920)
I0403 15:43:34.952472 15985 net.cpp:156] Memory required for data: 818271264
I0403 15:43:34.952488 15985 layer_factory.hpp:77] Creating layer pool3/3x3_s2_pool3/3x3_s2_0_split
I0403 15:43:34.952508 15985 net.cpp:91] Creating Layer pool3/3x3_s2_pool3/3x3_s2_0_split
I0403 15:43:34.952524 15985 net.cpp:425] pool3/3x3_s2_pool3/3x3_s2_0_split <- pool3/3x3_s2
I0403 15:43:34.952545 15985 net.cpp:399] pool3/3x3_s2_pool3/3x3_s2_0_split -> pool3/3x3_s2_pool3/3x3_s2_0_split_0
I0403 15:43:34.952566 15985 net.cpp:399] pool3/3x3_s2_pool3/3x3_s2_0_split -> pool3/3x3_s2_pool3/3x3_s2_0_split_1
I0403 15:43:34.952586 15985 net.cpp:399] pool3/3x3_s2_pool3/3x3_s2_0_split -> pool3/3x3_s2_pool3/3x3_s2_0_split_2
I0403 15:43:34.952613 15985 net.cpp:399] pool3/3x3_s2_pool3/3x3_s2_0_split -> pool3/3x3_s2_pool3/3x3_s2_0_split_3
I0403 15:43:34.952697 15985 net.cpp:141] Setting up pool3/3x3_s2_pool3/3x3_s2_0_split
I0403 15:43:34.952721 15985 net.cpp:148] Top shape: 24 480 14 14 (2257920)
I0403 15:43:34.952738 15985 net.cpp:148] Top shape: 24 480 14 14 (2257920)
I0403 15:43:34.952754 15985 net.cpp:148] Top shape: 24 480 14 14 (2257920)
I0403 15:43:34.952769 15985 net.cpp:148] Top shape: 24 480 14 14 (2257920)
I0403 15:43:34.952783 15985 net.cpp:156] Memory required for data: 854397984
I0403 15:43:34.952798 15985 layer_factory.hpp:77] Creating layer inception_4a/1x1
I0403 15:43:34.952821 15985 net.cpp:91] Creating Layer inception_4a/1x1
I0403 15:43:34.952839 15985 net.cpp:425] inception_4a/1x1 <- pool3/3x3_s2_pool3/3x3_s2_0_split_0
I0403 15:43:34.952863 15985 net.cpp:399] inception_4a/1x1 -> inception_4a/1x1
I0403 15:43:34.954516 15985 net.cpp:141] Setting up inception_4a/1x1
I0403 15:43:34.954545 15985 net.cpp:148] Top shape: 24 192 14 14 (903168)
I0403 15:43:34.954561 15985 net.cpp:156] Memory required for data: 858010656
I0403 15:43:34.954581 15985 layer_factory.hpp:77] Creating layer inception_4a/relu_1x1
I0403 15:43:34.954612 15985 net.cpp:91] Creating Layer inception_4a/relu_1x1
I0403 15:43:34.954633 15985 net.cpp:425] inception_4a/relu_1x1 <- inception_4a/1x1
I0403 15:43:34.954653 15985 net.cpp:386] inception_4a/relu_1x1 -> inception_4a/1x1 (in-place)
I0403 15:43:34.954844 15985 net.cpp:141] Setting up inception_4a/relu_1x1
I0403 15:43:34.954870 15985 net.cpp:148] Top shape: 24 192 14 14 (903168)
I0403 15:43:34.954885 15985 net.cpp:156] Memory required for data: 861623328
I0403 15:43:34.954900 15985 layer_factory.hpp:77] Creating layer inception_4a/3x3_reduce
I0403 15:43:34.954926 15985 net.cpp:91] Creating Layer inception_4a/3x3_reduce
I0403 15:43:34.954946 15985 net.cpp:425] inception_4a/3x3_reduce <- pool3/3x3_s2_pool3/3x3_s2_0_split_1
I0403 15:43:34.954964 15985 net.cpp:399] inception_4a/3x3_reduce -> inception_4a/3x3_reduce
I0403 15:43:34.956320 15985 net.cpp:141] Setting up inception_4a/3x3_reduce
I0403 15:43:34.956348 15985 net.cpp:148] Top shape: 24 96 14 14 (451584)
I0403 15:43:34.956364 15985 net.cpp:156] Memory required for data: 863429664
I0403 15:43:34.956392 15985 layer_factory.hpp:77] Creating layer inception_4a/relu_3x3_reduce
I0403 15:43:34.956413 15985 net.cpp:91] Creating Layer inception_4a/relu_3x3_reduce
I0403 15:43:34.956429 15985 net.cpp:425] inception_4a/relu_3x3_reduce <- inception_4a/3x3_reduce
I0403 15:43:34.956449 15985 net.cpp:386] inception_4a/relu_3x3_reduce -> inception_4a/3x3_reduce (in-place)
I0403 15:43:34.956641 15985 net.cpp:141] Setting up inception_4a/relu_3x3_reduce
I0403 15:43:34.956668 15985 net.cpp:148] Top shape: 24 96 14 14 (451584)
I0403 15:43:34.956684 15985 net.cpp:156] Memory required for data: 865236000
I0403 15:43:34.956699 15985 layer_factory.hpp:77] Creating layer inception_4a/3x3
I0403 15:43:34.956722 15985 net.cpp:91] Creating Layer inception_4a/3x3
I0403 15:43:34.956742 15985 net.cpp:425] inception_4a/3x3 <- inception_4a/3x3_reduce
I0403 15:43:34.956763 15985 net.cpp:399] inception_4a/3x3 -> inception_4a/3x3
I0403 15:43:34.959595 15985 net.cpp:141] Setting up inception_4a/3x3
I0403 15:43:34.959631 15985 net.cpp:148] Top shape: 24 208 14 14 (978432)
I0403 15:43:34.959648 15985 net.cpp:156] Memory required for data: 869149728
I0403 15:43:34.959667 15985 layer_factory.hpp:77] Creating layer inception_4a/relu_3x3
I0403 15:43:34.959686 15985 net.cpp:91] Creating Layer inception_4a/relu_3x3
I0403 15:43:34.959702 15985 net.cpp:425] inception_4a/relu_3x3 <- inception_4a/3x3
I0403 15:43:34.959719 15985 net.cpp:386] inception_4a/relu_3x3 -> inception_4a/3x3 (in-place)
I0403 15:43:34.960005 15985 net.cpp:141] Setting up inception_4a/relu_3x3
I0403 15:43:34.960038 15985 net.cpp:148] Top shape: 24 208 14 14 (978432)
I0403 15:43:34.960055 15985 net.cpp:156] Memory required for data: 873063456
I0403 15:43:34.960070 15985 layer_factory.hpp:77] Creating layer inception_4a/5x5_reduce
I0403 15:43:34.960090 15985 net.cpp:91] Creating Layer inception_4a/5x5_reduce
I0403 15:43:34.960108 15985 net.cpp:425] inception_4a/5x5_reduce <- pool3/3x3_s2_pool3/3x3_s2_0_split_2
I0403 15:43:34.960129 15985 net.cpp:399] inception_4a/5x5_reduce -> inception_4a/5x5_reduce
I0403 15:43:34.961185 15985 net.cpp:141] Setting up inception_4a/5x5_reduce
I0403 15:43:34.961216 15985 net.cpp:148] Top shape: 24 16 14 14 (75264)
I0403 15:43:34.961232 15985 net.cpp:156] Memory required for data: 873364512
I0403 15:43:34.961251 15985 layer_factory.hpp:77] Creating layer inception_4a/relu_5x5_reduce
I0403 15:43:34.961272 15985 net.cpp:91] Creating Layer inception_4a/relu_5x5_reduce
I0403 15:43:34.961287 15985 net.cpp:425] inception_4a/relu_5x5_reduce <- inception_4a/5x5_reduce
I0403 15:43:34.961304 15985 net.cpp:386] inception_4a/relu_5x5_reduce -> inception_4a/5x5_reduce (in-place)
I0403 15:43:34.961486 15985 net.cpp:141] Setting up inception_4a/relu_5x5_reduce
I0403 15:43:34.961511 15985 net.cpp:148] Top shape: 24 16 14 14 (75264)
I0403 15:43:34.961526 15985 net.cpp:156] Memory required for data: 873665568
I0403 15:43:34.961541 15985 layer_factory.hpp:77] Creating layer inception_4a/5x5
I0403 15:43:34.961563 15985 net.cpp:91] Creating Layer inception_4a/5x5
I0403 15:43:34.961581 15985 net.cpp:425] inception_4a/5x5 <- inception_4a/5x5_reduce
I0403 15:43:34.961609 15985 net.cpp:399] inception_4a/5x5 -> inception_4a/5x5
I0403 15:43:34.962723 15985 net.cpp:141] Setting up inception_4a/5x5
I0403 15:43:34.962750 15985 net.cpp:148] Top shape: 24 48 14 14 (225792)
I0403 15:43:34.962766 15985 net.cpp:156] Memory required for data: 874568736
I0403 15:43:34.962785 15985 layer_factory.hpp:77] Creating layer inception_4a/relu_5x5
I0403 15:43:34.962803 15985 net.cpp:91] Creating Layer inception_4a/relu_5x5
I0403 15:43:34.962820 15985 net.cpp:425] inception_4a/relu_5x5 <- inception_4a/5x5
I0403 15:43:34.962838 15985 net.cpp:386] inception_4a/relu_5x5 -> inception_4a/5x5 (in-place)
I0403 15:43:34.963019 15985 net.cpp:141] Setting up inception_4a/relu_5x5
I0403 15:43:34.963045 15985 net.cpp:148] Top shape: 24 48 14 14 (225792)
I0403 15:43:34.963060 15985 net.cpp:156] Memory required for data: 875471904
I0403 15:43:34.963074 15985 layer_factory.hpp:77] Creating layer inception_4a/pool
I0403 15:43:34.963094 15985 net.cpp:91] Creating Layer inception_4a/pool
I0403 15:43:34.963111 15985 net.cpp:425] inception_4a/pool <- pool3/3x3_s2_pool3/3x3_s2_0_split_3
I0403 15:43:34.963129 15985 net.cpp:399] inception_4a/pool -> inception_4a/pool
I0403 15:43:34.963193 15985 net.cpp:141] Setting up inception_4a/pool
I0403 15:43:34.963217 15985 net.cpp:148] Top shape: 24 480 14 14 (2257920)
I0403 15:43:34.963232 15985 net.cpp:156] Memory required for data: 884503584
I0403 15:43:34.963246 15985 layer_factory.hpp:77] Creating layer inception_4a/pool_proj
I0403 15:43:34.963271 15985 net.cpp:91] Creating Layer inception_4a/pool_proj
I0403 15:43:34.963289 15985 net.cpp:425] inception_4a/pool_proj <- inception_4a/pool
I0403 15:43:34.963310 15985 net.cpp:399] inception_4a/pool_proj -> inception_4a/pool_proj
I0403 15:43:34.964509 15985 net.cpp:141] Setting up inception_4a/pool_proj
I0403 15:43:34.964537 15985 net.cpp:148] Top shape: 24 64 14 14 (301056)
I0403 15:43:34.964568 15985 net.cpp:156] Memory required for data: 885707808
I0403 15:43:34.964588 15985 layer_factory.hpp:77] Creating layer inception_4a/relu_pool_proj
I0403 15:43:34.964622 15985 net.cpp:91] Creating Layer inception_4a/relu_pool_proj
I0403 15:43:34.964642 15985 net.cpp:425] inception_4a/relu_pool_proj <- inception_4a/pool_proj
I0403 15:43:34.964659 15985 net.cpp:386] inception_4a/relu_pool_proj -> inception_4a/pool_proj (in-place)
I0403 15:43:34.964946 15985 net.cpp:141] Setting up inception_4a/relu_pool_proj
I0403 15:43:34.964972 15985 net.cpp:148] Top shape: 24 64 14 14 (301056)
I0403 15:43:34.964987 15985 net.cpp:156] Memory required for data: 886912032
I0403 15:43:34.965003 15985 layer_factory.hpp:77] Creating layer inception_4a/output
I0403 15:43:34.965019 15985 net.cpp:91] Creating Layer inception_4a/output
I0403 15:43:34.965035 15985 net.cpp:425] inception_4a/output <- inception_4a/1x1
I0403 15:43:34.965052 15985 net.cpp:425] inception_4a/output <- inception_4a/3x3
I0403 15:43:34.965067 15985 net.cpp:425] inception_4a/output <- inception_4a/5x5
I0403 15:43:34.965083 15985 net.cpp:425] inception_4a/output <- inception_4a/pool_proj
I0403 15:43:34.965102 15985 net.cpp:399] inception_4a/output -> inception_4a/output
I0403 15:43:34.965152 15985 net.cpp:141] Setting up inception_4a/output
I0403 15:43:34.965174 15985 net.cpp:148] Top shape: 24 512 14 14 (2408448)
I0403 15:43:34.965189 15985 net.cpp:156] Memory required for data: 896545824
I0403 15:43:34.965204 15985 layer_factory.hpp:77] Creating layer inception_4a/output_inception_4a/output_0_split
I0403 15:43:34.965220 15985 net.cpp:91] Creating Layer inception_4a/output_inception_4a/output_0_split
I0403 15:43:34.965236 15985 net.cpp:425] inception_4a/output_inception_4a/output_0_split <- inception_4a/output
I0403 15:43:34.965258 15985 net.cpp:399] inception_4a/output_inception_4a/output_0_split -> inception_4a/output_inception_4a/output_0_split_0
I0403 15:43:34.965281 15985 net.cpp:399] inception_4a/output_inception_4a/output_0_split -> inception_4a/output_inception_4a/output_0_split_1
I0403 15:43:34.965301 15985 net.cpp:399] inception_4a/output_inception_4a/output_0_split -> inception_4a/output_inception_4a/output_0_split_2
I0403 15:43:34.965322 15985 net.cpp:399] inception_4a/output_inception_4a/output_0_split -> inception_4a/output_inception_4a/output_0_split_3
I0403 15:43:34.965342 15985 net.cpp:399] inception_4a/output_inception_4a/output_0_split -> inception_4a/output_inception_4a/output_0_split_4
I0403 15:43:34.965435 15985 net.cpp:141] Setting up inception_4a/output_inception_4a/output_0_split
I0403 15:43:34.965461 15985 net.cpp:148] Top shape: 24 512 14 14 (2408448)
I0403 15:43:34.965478 15985 net.cpp:148] Top shape: 24 512 14 14 (2408448)
I0403 15:43:34.965494 15985 net.cpp:148] Top shape: 24 512 14 14 (2408448)
I0403 15:43:34.965509 15985 net.cpp:148] Top shape: 24 512 14 14 (2408448)
I0403 15:43:34.965525 15985 net.cpp:148] Top shape: 24 512 14 14 (2408448)
I0403 15:43:34.965538 15985 net.cpp:156] Memory required for data: 944714784
I0403 15:43:34.965553 15985 layer_factory.hpp:77] Creating layer loss1/ave_pool
I0403 15:43:34.965570 15985 net.cpp:91] Creating Layer loss1/ave_pool
I0403 15:43:34.965586 15985 net.cpp:425] loss1/ave_pool <- inception_4a/output_inception_4a/output_0_split_0
I0403 15:43:34.965610 15985 net.cpp:399] loss1/ave_pool -> loss1/ave_pool
I0403 15:43:34.965824 15985 net.cpp:141] Setting up loss1/ave_pool
I0403 15:43:34.965850 15985 net.cpp:148] Top shape: 24 512 4 4 (196608)
I0403 15:43:34.965865 15985 net.cpp:156] Memory required for data: 945501216
I0403 15:43:34.965879 15985 layer_factory.hpp:77] Creating layer loss1/conv
I0403 15:43:34.965903 15985 net.cpp:91] Creating Layer loss1/conv
I0403 15:43:34.965920 15985 net.cpp:425] loss1/conv <- loss1/ave_pool
I0403 15:43:34.965941 15985 net.cpp:399] loss1/conv -> loss1/conv
I0403 15:43:34.967383 15985 net.cpp:141] Setting up loss1/conv
I0403 15:43:34.967416 15985 net.cpp:148] Top shape: 24 128 4 4 (49152)
I0403 15:43:34.967445 15985 net.cpp:156] Memory required for data: 945697824
I0403 15:43:34.967465 15985 layer_factory.hpp:77] Creating layer loss1/relu_conv
I0403 15:43:34.967483 15985 net.cpp:91] Creating Layer loss1/relu_conv
I0403 15:43:34.967499 15985 net.cpp:425] loss1/relu_conv <- loss1/conv
I0403 15:43:34.967516 15985 net.cpp:386] loss1/relu_conv -> loss1/conv (in-place)
I0403 15:43:34.967803 15985 net.cpp:141] Setting up loss1/relu_conv
I0403 15:43:34.967833 15985 net.cpp:148] Top shape: 24 128 4 4 (49152)
I0403 15:43:34.967850 15985 net.cpp:156] Memory required for data: 945894432
I0403 15:43:34.967866 15985 layer_factory.hpp:77] Creating layer loss1/fc
I0403 15:43:34.967890 15985 net.cpp:91] Creating Layer loss1/fc
I0403 15:43:34.967907 15985 net.cpp:425] loss1/fc <- loss1/conv
I0403 15:43:34.967929 15985 net.cpp:399] loss1/fc -> loss1/fc
I0403 15:43:34.986100 15985 net.cpp:141] Setting up loss1/fc
I0403 15:43:34.986136 15985 net.cpp:148] Top shape: 24 1024 (24576)
I0403 15:43:34.986152 15985 net.cpp:156] Memory required for data: 945992736
I0403 15:43:34.986171 15985 layer_factory.hpp:77] Creating layer loss1/relu_fc
I0403 15:43:34.986193 15985 net.cpp:91] Creating Layer loss1/relu_fc
I0403 15:43:34.986210 15985 net.cpp:425] loss1/relu_fc <- loss1/fc
I0403 15:43:34.986227 15985 net.cpp:386] loss1/relu_fc -> loss1/fc (in-place)
I0403 15:43:34.986431 15985 net.cpp:141] Setting up loss1/relu_fc
I0403 15:43:34.986459 15985 net.cpp:148] Top shape: 24 1024 (24576)
I0403 15:43:34.986474 15985 net.cpp:156] Memory required for data: 946091040
I0403 15:43:34.986488 15985 layer_factory.hpp:77] Creating layer loss1/drop_fc
I0403 15:43:34.986516 15985 net.cpp:91] Creating Layer loss1/drop_fc
I0403 15:43:34.986533 15985 net.cpp:425] loss1/drop_fc <- loss1/fc
I0403 15:43:34.986552 15985 net.cpp:386] loss1/drop_fc -> loss1/fc (in-place)
I0403 15:43:34.986608 15985 net.cpp:141] Setting up loss1/drop_fc
I0403 15:43:34.986630 15985 net.cpp:148] Top shape: 24 1024 (24576)
I0403 15:43:34.986644 15985 net.cpp:156] Memory required for data: 946189344
I0403 15:43:34.986660 15985 layer_factory.hpp:77] Creating layer loss1/classifier_plantvillage
I0403 15:43:34.986678 15985 net.cpp:91] Creating Layer loss1/classifier_plantvillage
I0403 15:43:34.986698 15985 net.cpp:425] loss1/classifier_plantvillage <- loss1/fc
I0403 15:43:34.986716 15985 net.cpp:399] loss1/classifier_plantvillage -> loss1/classifier_plantvillage
I0403 15:43:34.987658 15985 net.cpp:141] Setting up loss1/classifier_plantvillage
I0403 15:43:34.987689 15985 net.cpp:148] Top shape: 24 38 (912)
I0403 15:43:34.987706 15985 net.cpp:156] Memory required for data: 946192992
I0403 15:43:34.987725 15985 layer_factory.hpp:77] Creating layer loss1/classifier_plantvillage_loss1/classifier_plantvillage_0_split
I0403 15:43:34.987745 15985 net.cpp:91] Creating Layer loss1/classifier_plantvillage_loss1/classifier_plantvillage_0_split
I0403 15:43:34.987761 15985 net.cpp:425] loss1/classifier_plantvillage_loss1/classifier_plantvillage_0_split <- loss1/classifier_plantvillage
I0403 15:43:34.987778 15985 net.cpp:399] loss1/classifier_plantvillage_loss1/classifier_plantvillage_0_split -> loss1/classifier_plantvillage_loss1/classifier_plantvillage_0_split_0
I0403 15:43:34.987798 15985 net.cpp:399] loss1/classifier_plantvillage_loss1/classifier_plantvillage_0_split -> loss1/classifier_plantvillage_loss1/classifier_plantvillage_0_split_1
I0403 15:43:34.987819 15985 net.cpp:399] loss1/classifier_plantvillage_loss1/classifier_plantvillage_0_split -> loss1/classifier_plantvillage_loss1/classifier_plantvillage_0_split_2
I0403 15:43:34.987890 15985 net.cpp:141] Setting up loss1/classifier_plantvillage_loss1/classifier_plantvillage_0_split
I0403 15:43:34.987913 15985 net.cpp:148] Top shape: 24 38 (912)
I0403 15:43:34.987929 15985 net.cpp:148] Top shape: 24 38 (912)
I0403 15:43:34.987946 15985 net.cpp:148] Top shape: 24 38 (912)
I0403 15:43:34.987959 15985 net.cpp:156] Memory required for data: 946203936
I0403 15:43:34.987973 15985 layer_factory.hpp:77] Creating layer inception_4b/1x1
I0403 15:43:34.987994 15985 net.cpp:91] Creating Layer inception_4b/1x1
I0403 15:43:34.988032 15985 net.cpp:425] inception_4b/1x1 <- inception_4a/output_inception_4a/output_0_split_1
I0403 15:43:34.988055 15985 net.cpp:399] inception_4b/1x1 -> inception_4b/1x1
I0403 15:43:34.989764 15985 net.cpp:141] Setting up inception_4b/1x1
I0403 15:43:34.989799 15985 net.cpp:148] Top shape: 24 160 14 14 (752640)
I0403 15:43:34.989816 15985 net.cpp:156] Memory required for data: 949214496
I0403 15:43:34.989835 15985 layer_factory.hpp:77] Creating layer inception_4b/relu_1x1
I0403 15:43:34.989853 15985 net.cpp:91] Creating Layer inception_4b/relu_1x1
I0403 15:43:34.989869 15985 net.cpp:425] inception_4b/relu_1x1 <- inception_4b/1x1
I0403 15:43:34.989887 15985 net.cpp:386] inception_4b/relu_1x1 -> inception_4b/1x1 (in-place)
I0403 15:43:34.990072 15985 net.cpp:141] Setting up inception_4b/relu_1x1
I0403 15:43:34.990097 15985 net.cpp:148] Top shape: 24 160 14 14 (752640)
I0403 15:43:34.990111 15985 net.cpp:156] Memory required for data: 952225056
I0403 15:43:34.990126 15985 layer_factory.hpp:77] Creating layer inception_4b/3x3_reduce
I0403 15:43:34.990149 15985 net.cpp:91] Creating Layer inception_4b/3x3_reduce
I0403 15:43:34.990166 15985 net.cpp:425] inception_4b/3x3_reduce <- inception_4a/output_inception_4a/output_0_split_2
I0403 15:43:34.990187 15985 net.cpp:399] inception_4b/3x3_reduce -> inception_4b/3x3_reduce
I0403 15:43:34.991575 15985 net.cpp:141] Setting up inception_4b/3x3_reduce
I0403 15:43:34.991611 15985 net.cpp:148] Top shape: 24 112 14 14 (526848)
I0403 15:43:34.991629 15985 net.cpp:156] Memory required for data: 954332448
I0403 15:43:34.991648 15985 layer_factory.hpp:77] Creating layer inception_4b/relu_3x3_reduce
I0403 15:43:34.991667 15985 net.cpp:91] Creating Layer inception_4b/relu_3x3_reduce
I0403 15:43:34.991683 15985 net.cpp:425] inception_4b/relu_3x3_reduce <- inception_4b/3x3_reduce
I0403 15:43:34.991703 15985 net.cpp:386] inception_4b/relu_3x3_reduce -> inception_4b/3x3_reduce (in-place)
I0403 15:43:34.991996 15985 net.cpp:141] Setting up inception_4b/relu_3x3_reduce
I0403 15:43:34.992022 15985 net.cpp:148] Top shape: 24 112 14 14 (526848)
I0403 15:43:34.992038 15985 net.cpp:156] Memory required for data: 956439840
I0403 15:43:34.992053 15985 layer_factory.hpp:77] Creating layer inception_4b/3x3
I0403 15:43:34.992076 15985 net.cpp:91] Creating Layer inception_4b/3x3
I0403 15:43:34.992094 15985 net.cpp:425] inception_4b/3x3 <- inception_4b/3x3_reduce
I0403 15:43:34.992118 15985 net.cpp:399] inception_4b/3x3 -> inception_4b/3x3
I0403 15:43:34.995221 15985 net.cpp:141] Setting up inception_4b/3x3
I0403 15:43:34.995251 15985 net.cpp:148] Top shape: 24 224 14 14 (1053696)
I0403 15:43:34.995270 15985 net.cpp:156] Memory required for data: 960654624
I0403 15:43:34.995288 15985 layer_factory.hpp:77] Creating layer inception_4b/relu_3x3
I0403 15:43:34.995308 15985 net.cpp:91] Creating Layer inception_4b/relu_3x3
I0403 15:43:34.995326 15985 net.cpp:425] inception_4b/relu_3x3 <- inception_4b/3x3
I0403 15:43:34.995343 15985 net.cpp:386] inception_4b/relu_3x3 -> inception_4b/3x3 (in-place)
I0403 15:43:34.995530 15985 net.cpp:141] Setting up inception_4b/relu_3x3
I0403 15:43:34.995558 15985 net.cpp:148] Top shape: 24 224 14 14 (1053696)
I0403 15:43:34.995574 15985 net.cpp:156] Memory required for data: 964869408
I0403 15:43:34.995589 15985 layer_factory.hpp:77] Creating layer inception_4b/5x5_reduce
I0403 15:43:34.995615 15985 net.cpp:91] Creating Layer inception_4b/5x5_reduce
I0403 15:43:34.995635 15985 net.cpp:425] inception_4b/5x5_reduce <- inception_4a/output_inception_4a/output_0_split_3
I0403 15:43:34.995654 15985 net.cpp:399] inception_4b/5x5_reduce -> inception_4b/5x5_reduce
I0403 15:43:34.996764 15985 net.cpp:141] Setting up inception_4b/5x5_reduce
I0403 15:43:34.996795 15985 net.cpp:148] Top shape: 24 24 14 14 (112896)
I0403 15:43:34.996812 15985 net.cpp:156] Memory required for data: 965320992
I0403 15:43:34.996831 15985 layer_factory.hpp:77] Creating layer inception_4b/relu_5x5_reduce
I0403 15:43:34.996850 15985 net.cpp:91] Creating Layer inception_4b/relu_5x5_reduce
I0403 15:43:34.996881 15985 net.cpp:425] inception_4b/relu_5x5_reduce <- inception_4b/5x5_reduce
I0403 15:43:34.996902 15985 net.cpp:386] inception_4b/relu_5x5_reduce -> inception_4b/5x5_reduce (in-place)
I0403 15:43:34.997090 15985 net.cpp:141] Setting up inception_4b/relu_5x5_reduce
I0403 15:43:34.997117 15985 net.cpp:148] Top shape: 24 24 14 14 (112896)
I0403 15:43:34.997131 15985 net.cpp:156] Memory required for data: 965772576
I0403 15:43:34.997145 15985 layer_factory.hpp:77] Creating layer inception_4b/5x5
I0403 15:43:34.997169 15985 net.cpp:91] Creating Layer inception_4b/5x5
I0403 15:43:34.997186 15985 net.cpp:425] inception_4b/5x5 <- inception_4b/5x5_reduce
I0403 15:43:34.997210 15985 net.cpp:399] inception_4b/5x5 -> inception_4b/5x5
I0403 15:43:34.998466 15985 net.cpp:141] Setting up inception_4b/5x5
I0403 15:43:34.998495 15985 net.cpp:148] Top shape: 24 64 14 14 (301056)
I0403 15:43:34.998512 15985 net.cpp:156] Memory required for data: 966976800
I0403 15:43:34.998531 15985 layer_factory.hpp:77] Creating layer inception_4b/relu_5x5
I0403 15:43:34.998550 15985 net.cpp:91] Creating Layer inception_4b/relu_5x5
I0403 15:43:34.998566 15985 net.cpp:425] inception_4b/relu_5x5 <- inception_4b/5x5
I0403 15:43:34.998585 15985 net.cpp:386] inception_4b/relu_5x5 -> inception_4b/5x5 (in-place)
I0403 15:43:34.998879 15985 net.cpp:141] Setting up inception_4b/relu_5x5
I0403 15:43:34.998909 15985 net.cpp:148] Top shape: 24 64 14 14 (301056)
I0403 15:43:34.998925 15985 net.cpp:156] Memory required for data: 968181024
I0403 15:43:34.998940 15985 layer_factory.hpp:77] Creating layer inception_4b/pool
I0403 15:43:34.998960 15985 net.cpp:91] Creating Layer inception_4b/pool
I0403 15:43:34.998975 15985 net.cpp:425] inception_4b/pool <- inception_4a/output_inception_4a/output_0_split_4
I0403 15:43:34.998994 15985 net.cpp:399] inception_4b/pool -> inception_4b/pool
I0403 15:43:34.999063 15985 net.cpp:141] Setting up inception_4b/pool
I0403 15:43:34.999088 15985 net.cpp:148] Top shape: 24 512 14 14 (2408448)
I0403 15:43:34.999102 15985 net.cpp:156] Memory required for data: 977814816
I0403 15:43:34.999117 15985 layer_factory.hpp:77] Creating layer inception_4b/pool_proj
I0403 15:43:34.999140 15985 net.cpp:91] Creating Layer inception_4b/pool_proj
I0403 15:43:34.999157 15985 net.cpp:425] inception_4b/pool_proj <- inception_4b/pool
I0403 15:43:34.999178 15985 net.cpp:399] inception_4b/pool_proj -> inception_4b/pool_proj
I0403 15:43:35.000417 15985 net.cpp:141] Setting up inception_4b/pool_proj
I0403 15:43:35.000448 15985 net.cpp:148] Top shape: 24 64 14 14 (301056)
I0403 15:43:35.000466 15985 net.cpp:156] Memory required for data: 979019040
I0403 15:43:35.000485 15985 layer_factory.hpp:77] Creating layer inception_4b/relu_pool_proj
I0403 15:43:35.000504 15985 net.cpp:91] Creating Layer inception_4b/relu_pool_proj
I0403 15:43:35.000519 15985 net.cpp:425] inception_4b/relu_pool_proj <- inception_4b/pool_proj
I0403 15:43:35.000540 15985 net.cpp:386] inception_4b/relu_pool_proj -> inception_4b/pool_proj (in-place)
I0403 15:43:35.000742 15985 net.cpp:141] Setting up inception_4b/relu_pool_proj
I0403 15:43:35.000768 15985 net.cpp:148] Top shape: 24 64 14 14 (301056)
I0403 15:43:35.000783 15985 net.cpp:156] Memory required for data: 980223264
I0403 15:43:35.000798 15985 layer_factory.hpp:77] Creating layer inception_4b/output
I0403 15:43:35.000816 15985 net.cpp:91] Creating Layer inception_4b/output
I0403 15:43:35.000833 15985 net.cpp:425] inception_4b/output <- inception_4b/1x1
I0403 15:43:35.000849 15985 net.cpp:425] inception_4b/output <- inception_4b/3x3
I0403 15:43:35.000865 15985 net.cpp:425] inception_4b/output <- inception_4b/5x5
I0403 15:43:35.000881 15985 net.cpp:425] inception_4b/output <- inception_4b/pool_proj
I0403 15:43:35.000901 15985 net.cpp:399] inception_4b/output -> inception_4b/output
I0403 15:43:35.000948 15985 net.cpp:141] Setting up inception_4b/output
I0403 15:43:35.000975 15985 net.cpp:148] Top shape: 24 512 14 14 (2408448)
I0403 15:43:35.000990 15985 net.cpp:156] Memory required for data: 989857056
I0403 15:43:35.001024 15985 layer_factory.hpp:77] Creating layer inception_4b/output_inception_4b/output_0_split
I0403 15:43:35.001041 15985 net.cpp:91] Creating Layer inception_4b/output_inception_4b/output_0_split
I0403 15:43:35.001057 15985 net.cpp:425] inception_4b/output_inception_4b/output_0_split <- inception_4b/output
I0403 15:43:35.001078 15985 net.cpp:399] inception_4b/output_inception_4b/output_0_split -> inception_4b/output_inception_4b/output_0_split_0
I0403 15:43:35.001101 15985 net.cpp:399] inception_4b/output_inception_4b/output_0_split -> inception_4b/output_inception_4b/output_0_split_1
I0403 15:43:35.001121 15985 net.cpp:399] inception_4b/output_inception_4b/output_0_split -> inception_4b/output_inception_4b/output_0_split_2
I0403 15:43:35.001142 15985 net.cpp:399] inception_4b/output_inception_4b/output_0_split -> inception_4b/output_inception_4b/output_0_split_3
I0403 15:43:35.001226 15985 net.cpp:141] Setting up inception_4b/output_inception_4b/output_0_split
I0403 15:43:35.001253 15985 net.cpp:148] Top shape: 24 512 14 14 (2408448)
I0403 15:43:35.001273 15985 net.cpp:148] Top shape: 24 512 14 14 (2408448)
I0403 15:43:35.001289 15985 net.cpp:148] Top shape: 24 512 14 14 (2408448)
I0403 15:43:35.001304 15985 net.cpp:148] Top shape: 24 512 14 14 (2408448)
I0403 15:43:35.001318 15985 net.cpp:156] Memory required for data: 1028392224
I0403 15:43:35.001332 15985 layer_factory.hpp:77] Creating layer inception_4c/1x1
I0403 15:43:35.001353 15985 net.cpp:91] Creating Layer inception_4c/1x1
I0403 15:43:35.001369 15985 net.cpp:425] inception_4c/1x1 <- inception_4b/output_inception_4b/output_0_split_0
I0403 15:43:35.001389 15985 net.cpp:399] inception_4c/1x1 -> inception_4c/1x1
I0403 15:43:35.002866 15985 net.cpp:141] Setting up inception_4c/1x1
I0403 15:43:35.002894 15985 net.cpp:148] Top shape: 24 128 14 14 (602112)
I0403 15:43:35.002910 15985 net.cpp:156] Memory required for data: 1030800672
I0403 15:43:35.002929 15985 layer_factory.hpp:77] Creating layer inception_4c/relu_1x1
I0403 15:43:35.002950 15985 net.cpp:91] Creating Layer inception_4c/relu_1x1
I0403 15:43:35.002969 15985 net.cpp:425] inception_4c/relu_1x1 <- inception_4c/1x1
I0403 15:43:35.002986 15985 net.cpp:386] inception_4c/relu_1x1 -> inception_4c/1x1 (in-place)
I0403 15:43:35.003172 15985 net.cpp:141] Setting up inception_4c/relu_1x1
I0403 15:43:35.003198 15985 net.cpp:148] Top shape: 24 128 14 14 (602112)
I0403 15:43:35.003212 15985 net.cpp:156] Memory required for data: 1033209120
I0403 15:43:35.003227 15985 layer_factory.hpp:77] Creating layer inception_4c/3x3_reduce
I0403 15:43:35.003252 15985 net.cpp:91] Creating Layer inception_4c/3x3_reduce
I0403 15:43:35.003271 15985 net.cpp:425] inception_4c/3x3_reduce <- inception_4b/output_inception_4b/output_0_split_1
I0403 15:43:35.003291 15985 net.cpp:399] inception_4c/3x3_reduce -> inception_4c/3x3_reduce
I0403 15:43:35.005287 15985 net.cpp:141] Setting up inception_4c/3x3_reduce
I0403 15:43:35.005316 15985 net.cpp:148] Top shape: 24 128 14 14 (602112)
I0403 15:43:35.005333 15985 net.cpp:156] Memory required for data: 1035617568
I0403 15:43:35.005354 15985 layer_factory.hpp:77] Creating layer inception_4c/relu_3x3_reduce
I0403 15:43:35.005373 15985 net.cpp:91] Creating Layer inception_4c/relu_3x3_reduce
I0403 15:43:35.005389 15985 net.cpp:425] inception_4c/relu_3x3_reduce <- inception_4c/3x3_reduce
I0403 15:43:35.005408 15985 net.cpp:386] inception_4c/relu_3x3_reduce -> inception_4c/3x3_reduce (in-place)
I0403 15:43:35.005704 15985 net.cpp:141] Setting up inception_4c/relu_3x3_reduce
I0403 15:43:35.005733 15985 net.cpp:148] Top shape: 24 128 14 14 (602112)
I0403 15:43:35.005749 15985 net.cpp:156] Memory required for data: 1038026016
I0403 15:43:35.005765 15985 layer_factory.hpp:77] Creating layer inception_4c/3x3
I0403 15:43:35.005789 15985 net.cpp:91] Creating Layer inception_4c/3x3
I0403 15:43:35.005807 15985 net.cpp:425] inception_4c/3x3 <- inception_4c/3x3_reduce
I0403 15:43:35.005826 15985 net.cpp:399] inception_4c/3x3 -> inception_4c/3x3
I0403 15:43:35.009475 15985 net.cpp:141] Setting up inception_4c/3x3
I0403 15:43:35.009519 15985 net.cpp:148] Top shape: 24 256 14 14 (1204224)
I0403 15:43:35.009537 15985 net.cpp:156] Memory required for data: 1042842912
I0403 15:43:35.009572 15985 layer_factory.hpp:77] Creating layer inception_4c/relu_3x3
I0403 15:43:35.009593 15985 net.cpp:91] Creating Layer inception_4c/relu_3x3
I0403 15:43:35.009613 15985 net.cpp:425] inception_4c/relu_3x3 <- inception_4c/3x3
I0403 15:43:35.009634 15985 net.cpp:386] inception_4c/relu_3x3 -> inception_4c/3x3 (in-place)
I0403 15:43:35.009816 15985 net.cpp:141] Setting up inception_4c/relu_3x3
I0403 15:43:35.009843 15985 net.cpp:148] Top shape: 24 256 14 14 (1204224)
I0403 15:43:35.009858 15985 net.cpp:156] Memory required for data: 1047659808
I0403 15:43:35.009873 15985 layer_factory.hpp:77] Creating layer inception_4c/5x5_reduce
I0403 15:43:35.009896 15985 net.cpp:91] Creating Layer inception_4c/5x5_reduce
I0403 15:43:35.009913 15985 net.cpp:425] inception_4c/5x5_reduce <- inception_4b/output_inception_4b/output_0_split_2
I0403 15:43:35.009932 15985 net.cpp:399] inception_4c/5x5_reduce -> inception_4c/5x5_reduce
I0403 15:43:35.011016 15985 net.cpp:141] Setting up inception_4c/5x5_reduce
I0403 15:43:35.011046 15985 net.cpp:148] Top shape: 24 24 14 14 (112896)
I0403 15:43:35.011062 15985 net.cpp:156] Memory required for data: 1048111392
I0403 15:43:35.011081 15985 layer_factory.hpp:77] Creating layer inception_4c/relu_5x5_reduce
I0403 15:43:35.011098 15985 net.cpp:91] Creating Layer inception_4c/relu_5x5_reduce
I0403 15:43:35.011114 15985 net.cpp:425] inception_4c/relu_5x5_reduce <- inception_4c/5x5_reduce
I0403 15:43:35.011133 15985 net.cpp:386] inception_4c/relu_5x5_reduce -> inception_4c/5x5_reduce (in-place)
I0403 15:43:35.011317 15985 net.cpp:141] Setting up inception_4c/relu_5x5_reduce
I0403 15:43:35.011342 15985 net.cpp:148] Top shape: 24 24 14 14 (112896)
I0403 15:43:35.011355 15985 net.cpp:156] Memory required for data: 1048562976
I0403 15:43:35.011370 15985 layer_factory.hpp:77] Creating layer inception_4c/5x5
I0403 15:43:35.011391 15985 net.cpp:91] Creating Layer inception_4c/5x5
I0403 15:43:35.011409 15985 net.cpp:425] inception_4c/5x5 <- inception_4c/5x5_reduce
I0403 15:43:35.011430 15985 net.cpp:399] inception_4c/5x5 -> inception_4c/5x5
I0403 15:43:35.012667 15985 net.cpp:141] Setting up inception_4c/5x5
I0403 15:43:35.012694 15985 net.cpp:148] Top shape: 24 64 14 14 (301056)
I0403 15:43:35.012711 15985 net.cpp:156] Memory required for data: 1049767200
I0403 15:43:35.012728 15985 layer_factory.hpp:77] Creating layer inception_4c/relu_5x5
I0403 15:43:35.012748 15985 net.cpp:91] Creating Layer inception_4c/relu_5x5
I0403 15:43:35.012764 15985 net.cpp:425] inception_4c/relu_5x5 <- inception_4c/5x5
I0403 15:43:35.012781 15985 net.cpp:386] inception_4c/relu_5x5 -> inception_4c/5x5 (in-place)
I0403 15:43:35.013067 15985 net.cpp:141] Setting up inception_4c/relu_5x5
I0403 15:43:35.013093 15985 net.cpp:148] Top shape: 24 64 14 14 (301056)
I0403 15:43:35.013108 15985 net.cpp:156] Memory required for data: 1050971424
I0403 15:43:35.013123 15985 layer_factory.hpp:77] Creating layer inception_4c/pool
I0403 15:43:35.013140 15985 net.cpp:91] Creating Layer inception_4c/pool
I0403 15:43:35.013159 15985 net.cpp:425] inception_4c/pool <- inception_4b/output_inception_4b/output_0_split_3
I0403 15:43:35.013176 15985 net.cpp:399] inception_4c/pool -> inception_4c/pool
I0403 15:43:35.013242 15985 net.cpp:141] Setting up inception_4c/pool
I0403 15:43:35.013268 15985 net.cpp:148] Top shape: 24 512 14 14 (2408448)
I0403 15:43:35.013283 15985 net.cpp:156] Memory required for data: 1060605216
I0403 15:43:35.013298 15985 layer_factory.hpp:77] Creating layer inception_4c/pool_proj
I0403 15:43:35.013319 15985 net.cpp:91] Creating Layer inception_4c/pool_proj
I0403 15:43:35.013335 15985 net.cpp:425] inception_4c/pool_proj <- inception_4c/pool
I0403 15:43:35.013355 15985 net.cpp:399] inception_4c/pool_proj -> inception_4c/pool_proj
I0403 15:43:35.014564 15985 net.cpp:141] Setting up inception_4c/pool_proj
I0403 15:43:35.014595 15985 net.cpp:148] Top shape: 24 64 14 14 (301056)
I0403 15:43:35.014634 15985 net.cpp:156] Memory required for data: 1061809440
I0403 15:43:35.014654 15985 layer_factory.hpp:77] Creating layer inception_4c/relu_pool_proj
I0403 15:43:35.014672 15985 net.cpp:91] Creating Layer inception_4c/relu_pool_proj
I0403 15:43:35.014688 15985 net.cpp:425] inception_4c/relu_pool_proj <- inception_4c/pool_proj
I0403 15:43:35.014708 15985 net.cpp:386] inception_4c/relu_pool_proj -> inception_4c/pool_proj (in-place)
I0403 15:43:35.014889 15985 net.cpp:141] Setting up inception_4c/relu_pool_proj
I0403 15:43:35.014914 15985 net.cpp:148] Top shape: 24 64 14 14 (301056)
I0403 15:43:35.014930 15985 net.cpp:156] Memory required for data: 1063013664
I0403 15:43:35.014945 15985 layer_factory.hpp:77] Creating layer inception_4c/output
I0403 15:43:35.014961 15985 net.cpp:91] Creating Layer inception_4c/output
I0403 15:43:35.014976 15985 net.cpp:425] inception_4c/output <- inception_4c/1x1
I0403 15:43:35.014991 15985 net.cpp:425] inception_4c/output <- inception_4c/3x3
I0403 15:43:35.015007 15985 net.cpp:425] inception_4c/output <- inception_4c/5x5
I0403 15:43:35.015022 15985 net.cpp:425] inception_4c/output <- inception_4c/pool_proj
I0403 15:43:35.015041 15985 net.cpp:399] inception_4c/output -> inception_4c/output
I0403 15:43:35.015087 15985 net.cpp:141] Setting up inception_4c/output
I0403 15:43:35.015112 15985 net.cpp:148] Top shape: 24 512 14 14 (2408448)
I0403 15:43:35.015127 15985 net.cpp:156] Memory required for data: 1072647456
I0403 15:43:35.015142 15985 layer_factory.hpp:77] Creating layer inception_4c/output_inception_4c/output_0_split
I0403 15:43:35.015158 15985 net.cpp:91] Creating Layer inception_4c/output_inception_4c/output_0_split
I0403 15:43:35.015173 15985 net.cpp:425] inception_4c/output_inception_4c/output_0_split <- inception_4c/output
I0403 15:43:35.015192 15985 net.cpp:399] inception_4c/output_inception_4c/output_0_split -> inception_4c/output_inception_4c/output_0_split_0
I0403 15:43:35.015213 15985 net.cpp:399] inception_4c/output_inception_4c/output_0_split -> inception_4c/output_inception_4c/output_0_split_1
I0403 15:43:35.015233 15985 net.cpp:399] inception_4c/output_inception_4c/output_0_split -> inception_4c/output_inception_4c/output_0_split_2
I0403 15:43:35.015252 15985 net.cpp:399] inception_4c/output_inception_4c/output_0_split -> inception_4c/output_inception_4c/output_0_split_3
I0403 15:43:35.015339 15985 net.cpp:141] Setting up inception_4c/output_inception_4c/output_0_split
I0403 15:43:35.015362 15985 net.cpp:148] Top shape: 24 512 14 14 (2408448)
I0403 15:43:35.015378 15985 net.cpp:148] Top shape: 24 512 14 14 (2408448)
I0403 15:43:35.015393 15985 net.cpp:148] Top shape: 24 512 14 14 (2408448)
I0403 15:43:35.015408 15985 net.cpp:148] Top shape: 24 512 14 14 (2408448)
I0403 15:43:35.015421 15985 net.cpp:156] Memory required for data: 1111182624
I0403 15:43:35.015435 15985 layer_factory.hpp:77] Creating layer inception_4d/1x1
I0403 15:43:35.015457 15985 net.cpp:91] Creating Layer inception_4d/1x1
I0403 15:43:35.015475 15985 net.cpp:425] inception_4d/1x1 <- inception_4c/output_inception_4c/output_0_split_0
I0403 15:43:35.015494 15985 net.cpp:399] inception_4d/1x1 -> inception_4d/1x1
I0403 15:43:35.016876 15985 net.cpp:141] Setting up inception_4d/1x1
I0403 15:43:35.016904 15985 net.cpp:148] Top shape: 24 112 14 14 (526848)
I0403 15:43:35.016921 15985 net.cpp:156] Memory required for data: 1113290016
I0403 15:43:35.016938 15985 layer_factory.hpp:77] Creating layer inception_4d/relu_1x1
I0403 15:43:35.016958 15985 net.cpp:91] Creating Layer inception_4d/relu_1x1
I0403 15:43:35.016974 15985 net.cpp:425] inception_4d/relu_1x1 <- inception_4d/1x1
I0403 15:43:35.016991 15985 net.cpp:386] inception_4d/relu_1x1 -> inception_4d/1x1 (in-place)
I0403 15:43:35.017177 15985 net.cpp:141] Setting up inception_4d/relu_1x1
I0403 15:43:35.017204 15985 net.cpp:148] Top shape: 24 112 14 14 (526848)
I0403 15:43:35.017220 15985 net.cpp:156] Memory required for data: 1115397408
I0403 15:43:35.017235 15985 layer_factory.hpp:77] Creating layer inception_4d/3x3_reduce
I0403 15:43:35.017273 15985 net.cpp:91] Creating Layer inception_4d/3x3_reduce
I0403 15:43:35.017292 15985 net.cpp:425] inception_4d/3x3_reduce <- inception_4c/output_inception_4c/output_0_split_1
I0403 15:43:35.017310 15985 net.cpp:399] inception_4d/3x3_reduce -> inception_4d/3x3_reduce
I0403 15:43:35.018818 15985 net.cpp:141] Setting up inception_4d/3x3_reduce
I0403 15:43:35.018846 15985 net.cpp:148] Top shape: 24 144 14 14 (677376)
I0403 15:43:35.018862 15985 net.cpp:156] Memory required for data: 1118106912
I0403 15:43:35.018878 15985 layer_factory.hpp:77] Creating layer inception_4d/relu_3x3_reduce
I0403 15:43:35.018898 15985 net.cpp:91] Creating Layer inception_4d/relu_3x3_reduce
I0403 15:43:35.018915 15985 net.cpp:425] inception_4d/relu_3x3_reduce <- inception_4d/3x3_reduce
I0403 15:43:35.018932 15985 net.cpp:386] inception_4d/relu_3x3_reduce -> inception_4d/3x3_reduce (in-place)
I0403 15:43:35.019218 15985 net.cpp:141] Setting up inception_4d/relu_3x3_reduce
I0403 15:43:35.019244 15985 net.cpp:148] Top shape: 24 144 14 14 (677376)
I0403 15:43:35.019260 15985 net.cpp:156] Memory required for data: 1120816416
I0403 15:43:35.019274 15985 layer_factory.hpp:77] Creating layer inception_4d/3x3
I0403 15:43:35.019296 15985 net.cpp:91] Creating Layer inception_4d/3x3
I0403 15:43:35.019315 15985 net.cpp:425] inception_4d/3x3 <- inception_4d/3x3_reduce
I0403 15:43:35.019335 15985 net.cpp:399] inception_4d/3x3 -> inception_4d/3x3
I0403 15:43:35.023612 15985 net.cpp:141] Setting up inception_4d/3x3
I0403 15:43:35.023640 15985 net.cpp:148] Top shape: 24 288 14 14 (1354752)
I0403 15:43:35.023655 15985 net.cpp:156] Memory required for data: 1126235424
I0403 15:43:35.023674 15985 layer_factory.hpp:77] Creating layer inception_4d/relu_3x3
I0403 15:43:35.023694 15985 net.cpp:91] Creating Layer inception_4d/relu_3x3
I0403 15:43:35.023711 15985 net.cpp:425] inception_4d/relu_3x3 <- inception_4d/3x3
I0403 15:43:35.023728 15985 net.cpp:386] inception_4d/relu_3x3 -> inception_4d/3x3 (in-place)
I0403 15:43:35.023915 15985 net.cpp:141] Setting up inception_4d/relu_3x3
I0403 15:43:35.023939 15985 net.cpp:148] Top shape: 24 288 14 14 (1354752)
I0403 15:43:35.023953 15985 net.cpp:156] Memory required for data: 1131654432
I0403 15:43:35.023967 15985 layer_factory.hpp:77] Creating layer inception_4d/5x5_reduce
I0403 15:43:35.023991 15985 net.cpp:91] Creating Layer inception_4d/5x5_reduce
I0403 15:43:35.024009 15985 net.cpp:425] inception_4d/5x5_reduce <- inception_4c/output_inception_4c/output_0_split_2
I0403 15:43:35.024030 15985 net.cpp:399] inception_4d/5x5_reduce -> inception_4d/5x5_reduce
I0403 15:43:35.025192 15985 net.cpp:141] Setting up inception_4d/5x5_reduce
I0403 15:43:35.025219 15985 net.cpp:148] Top shape: 24 32 14 14 (150528)
I0403 15:43:35.025234 15985 net.cpp:156] Memory required for data: 1132256544
I0403 15:43:35.025252 15985 layer_factory.hpp:77] Creating layer inception_4d/relu_5x5_reduce
I0403 15:43:35.025274 15985 net.cpp:91] Creating Layer inception_4d/relu_5x5_reduce
I0403 15:43:35.025290 15985 net.cpp:425] inception_4d/relu_5x5_reduce <- inception_4d/5x5_reduce
I0403 15:43:35.025306 15985 net.cpp:386] inception_4d/relu_5x5_reduce -> inception_4d/5x5_reduce (in-place)
I0403 15:43:35.025495 15985 net.cpp:141] Setting up inception_4d/relu_5x5_reduce
I0403 15:43:35.025521 15985 net.cpp:148] Top shape: 24 32 14 14 (150528)
I0403 15:43:35.025537 15985 net.cpp:156] Memory required for data: 1132858656
I0403 15:43:35.025550 15985 layer_factory.hpp:77] Creating layer inception_4d/5x5
I0403 15:43:35.025573 15985 net.cpp:91] Creating Layer inception_4d/5x5
I0403 15:43:35.025590 15985 net.cpp:425] inception_4d/5x5 <- inception_4d/5x5_reduce
I0403 15:43:35.025614 15985 net.cpp:399] inception_4d/5x5 -> inception_4d/5x5
I0403 15:43:35.027128 15985 net.cpp:141] Setting up inception_4d/5x5
I0403 15:43:35.027159 15985 net.cpp:148] Top shape: 24 64 14 14 (301056)
I0403 15:43:35.027176 15985 net.cpp:156] Memory required for data: 1134062880
I0403 15:43:35.027196 15985 layer_factory.hpp:77] Creating layer inception_4d/relu_5x5
I0403 15:43:35.027230 15985 net.cpp:91] Creating Layer inception_4d/relu_5x5
I0403 15:43:35.027247 15985 net.cpp:425] inception_4d/relu_5x5 <- inception_4d/5x5
I0403 15:43:35.027269 15985 net.cpp:386] inception_4d/relu_5x5 -> inception_4d/5x5 (in-place)
I0403 15:43:35.027582 15985 net.cpp:141] Setting up inception_4d/relu_5x5
I0403 15:43:35.027627 15985 net.cpp:148] Top shape: 24 64 14 14 (301056)
I0403 15:43:35.027645 15985 net.cpp:156] Memory required for data: 1135267104
I0403 15:43:35.027664 15985 layer_factory.hpp:77] Creating layer inception_4d/pool
I0403 15:43:35.027683 15985 net.cpp:91] Creating Layer inception_4d/pool
I0403 15:43:35.027699 15985 net.cpp:425] inception_4d/pool <- inception_4c/output_inception_4c/output_0_split_3
I0403 15:43:35.027721 15985 net.cpp:399] inception_4d/pool -> inception_4d/pool
I0403 15:43:35.027794 15985 net.cpp:141] Setting up inception_4d/pool
I0403 15:43:35.027822 15985 net.cpp:148] Top shape: 24 512 14 14 (2408448)
I0403 15:43:35.027839 15985 net.cpp:156] Memory required for data: 1144900896
I0403 15:43:35.027854 15985 layer_factory.hpp:77] Creating layer inception_4d/pool_proj
I0403 15:43:35.027878 15985 net.cpp:91] Creating Layer inception_4d/pool_proj
I0403 15:43:35.027895 15985 net.cpp:425] inception_4d/pool_proj <- inception_4d/pool
I0403 15:43:35.027915 15985 net.cpp:399] inception_4d/pool_proj -> inception_4d/pool_proj
I0403 15:43:35.029785 15985 net.cpp:141] Setting up inception_4d/pool_proj
I0403 15:43:35.029815 15985 net.cpp:148] Top shape: 24 64 14 14 (301056)
I0403 15:43:35.029832 15985 net.cpp:156] Memory required for data: 1146105120
I0403 15:43:35.029850 15985 layer_factory.hpp:77] Creating layer inception_4d/relu_pool_proj
I0403 15:43:35.029872 15985 net.cpp:91] Creating Layer inception_4d/relu_pool_proj
I0403 15:43:35.029891 15985 net.cpp:425] inception_4d/relu_pool_proj <- inception_4d/pool_proj
I0403 15:43:35.029908 15985 net.cpp:386] inception_4d/relu_pool_proj -> inception_4d/pool_proj (in-place)
I0403 15:43:35.030109 15985 net.cpp:141] Setting up inception_4d/relu_pool_proj
I0403 15:43:35.030135 15985 net.cpp:148] Top shape: 24 64 14 14 (301056)
I0403 15:43:35.030150 15985 net.cpp:156] Memory required for data: 1147309344
I0403 15:43:35.030166 15985 layer_factory.hpp:77] Creating layer inception_4d/output
I0403 15:43:35.030184 15985 net.cpp:91] Creating Layer inception_4d/output
I0403 15:43:35.030200 15985 net.cpp:425] inception_4d/output <- inception_4d/1x1
I0403 15:43:35.030217 15985 net.cpp:425] inception_4d/output <- inception_4d/3x3
I0403 15:43:35.030235 15985 net.cpp:425] inception_4d/output <- inception_4d/5x5
I0403 15:43:35.030251 15985 net.cpp:425] inception_4d/output <- inception_4d/pool_proj
I0403 15:43:35.030272 15985 net.cpp:399] inception_4d/output -> inception_4d/output
I0403 15:43:35.030323 15985 net.cpp:141] Setting up inception_4d/output
I0403 15:43:35.030346 15985 net.cpp:148] Top shape: 24 528 14 14 (2483712)
I0403 15:43:35.030365 15985 net.cpp:156] Memory required for data: 1157244192
I0403 15:43:35.030381 15985 layer_factory.hpp:77] Creating layer inception_4d/output_inception_4d/output_0_split
I0403 15:43:35.030400 15985 net.cpp:91] Creating Layer inception_4d/output_inception_4d/output_0_split
I0403 15:43:35.030416 15985 net.cpp:425] inception_4d/output_inception_4d/output_0_split <- inception_4d/output
I0403 15:43:35.030434 15985 net.cpp:399] inception_4d/output_inception_4d/output_0_split -> inception_4d/output_inception_4d/output_0_split_0
I0403 15:43:35.030457 15985 net.cpp:399] inception_4d/output_inception_4d/output_0_split -> inception_4d/output_inception_4d/output_0_split_1
I0403 15:43:35.030480 15985 net.cpp:399] inception_4d/output_inception_4d/output_0_split -> inception_4d/output_inception_4d/output_0_split_2
I0403 15:43:35.030504 15985 net.cpp:399] inception_4d/output_inception_4d/output_0_split -> inception_4d/output_inception_4d/output_0_split_3
I0403 15:43:35.030525 15985 net.cpp:399] inception_4d/output_inception_4d/output_0_split -> inception_4d/output_inception_4d/output_0_split_4
I0403 15:43:35.030640 15985 net.cpp:141] Setting up inception_4d/output_inception_4d/output_0_split
I0403 15:43:35.030678 15985 net.cpp:148] Top shape: 24 528 14 14 (2483712)
I0403 15:43:35.030696 15985 net.cpp:148] Top shape: 24 528 14 14 (2483712)
I0403 15:43:35.030714 15985 net.cpp:148] Top shape: 24 528 14 14 (2483712)
I0403 15:43:35.030730 15985 net.cpp:148] Top shape: 24 528 14 14 (2483712)
I0403 15:43:35.030747 15985 net.cpp:148] Top shape: 24 528 14 14 (2483712)
I0403 15:43:35.030761 15985 net.cpp:156] Memory required for data: 1206918432
I0403 15:43:35.030776 15985 layer_factory.hpp:77] Creating layer loss2/ave_pool
I0403 15:43:35.030797 15985 net.cpp:91] Creating Layer loss2/ave_pool
I0403 15:43:35.030815 15985 net.cpp:425] loss2/ave_pool <- inception_4d/output_inception_4d/output_0_split_0
I0403 15:43:35.030838 15985 net.cpp:399] loss2/ave_pool -> loss2/ave_pool
I0403 15:43:35.031172 15985 net.cpp:141] Setting up loss2/ave_pool
I0403 15:43:35.031200 15985 net.cpp:148] Top shape: 24 528 4 4 (202752)
I0403 15:43:35.031216 15985 net.cpp:156] Memory required for data: 1207729440
I0403 15:43:35.031232 15985 layer_factory.hpp:77] Creating layer loss2/conv
I0403 15:43:35.031257 15985 net.cpp:91] Creating Layer loss2/conv
I0403 15:43:35.031276 15985 net.cpp:425] loss2/conv <- loss2/ave_pool
I0403 15:43:35.031296 15985 net.cpp:399] loss2/conv -> loss2/conv
I0403 15:43:35.033308 15985 net.cpp:141] Setting up loss2/conv
I0403 15:43:35.033339 15985 net.cpp:148] Top shape: 24 128 4 4 (49152)
I0403 15:43:35.033356 15985 net.cpp:156] Memory required for data: 1207926048
I0403 15:43:35.033375 15985 layer_factory.hpp:77] Creating layer loss2/relu_conv
I0403 15:43:35.033395 15985 net.cpp:91] Creating Layer loss2/relu_conv
I0403 15:43:35.033411 15985 net.cpp:425] loss2/relu_conv <- loss2/conv
I0403 15:43:35.033432 15985 net.cpp:386] loss2/relu_conv -> loss2/conv (in-place)
I0403 15:43:35.033742 15985 net.cpp:141] Setting up loss2/relu_conv
I0403 15:43:35.033769 15985 net.cpp:148] Top shape: 24 128 4 4 (49152)
I0403 15:43:35.033787 15985 net.cpp:156] Memory required for data: 1208122656
I0403 15:43:35.033802 15985 layer_factory.hpp:77] Creating layer loss2/fc
I0403 15:43:35.033821 15985 net.cpp:91] Creating Layer loss2/fc
I0403 15:43:35.033838 15985 net.cpp:425] loss2/fc <- loss2/conv
I0403 15:43:35.033860 15985 net.cpp:399] loss2/fc -> loss2/fc
I0403 15:43:35.052508 15985 net.cpp:141] Setting up loss2/fc
I0403 15:43:35.052563 15985 net.cpp:148] Top shape: 24 1024 (24576)
I0403 15:43:35.052579 15985 net.cpp:156] Memory required for data: 1208220960
I0403 15:43:35.052603 15985 layer_factory.hpp:77] Creating layer loss2/relu_fc
I0403 15:43:35.052625 15985 net.cpp:91] Creating Layer loss2/relu_fc
I0403 15:43:35.052644 15985 net.cpp:425] loss2/relu_fc <- loss2/fc
I0403 15:43:35.052662 15985 net.cpp:386] loss2/relu_fc -> loss2/fc (in-place)
I0403 15:43:35.053020 15985 net.cpp:141] Setting up loss2/relu_fc
I0403 15:43:35.053050 15985 net.cpp:148] Top shape: 24 1024 (24576)
I0403 15:43:35.053066 15985 net.cpp:156] Memory required for data: 1208319264
I0403 15:43:35.053081 15985 layer_factory.hpp:77] Creating layer loss2/drop_fc
I0403 15:43:35.053100 15985 net.cpp:91] Creating Layer loss2/drop_fc
I0403 15:43:35.053117 15985 net.cpp:425] loss2/drop_fc <- loss2/fc
I0403 15:43:35.053134 15985 net.cpp:386] loss2/drop_fc -> loss2/fc (in-place)
I0403 15:43:35.053186 15985 net.cpp:141] Setting up loss2/drop_fc
I0403 15:43:35.053210 15985 net.cpp:148] Top shape: 24 1024 (24576)
I0403 15:43:35.053225 15985 net.cpp:156] Memory required for data: 1208417568
I0403 15:43:35.053239 15985 layer_factory.hpp:77] Creating layer loss2/classifier_plantvillage
I0403 15:43:35.053261 15985 net.cpp:91] Creating Layer loss2/classifier_plantvillage
I0403 15:43:35.053278 15985 net.cpp:425] loss2/classifier_plantvillage <- loss2/fc
I0403 15:43:35.053297 15985 net.cpp:399] loss2/classifier_plantvillage -> loss2/classifier_plantvillage
I0403 15:43:35.053730 15985 net.cpp:141] Setting up loss2/classifier_plantvillage
I0403 15:43:35.053755 15985 net.cpp:148] Top shape: 24 38 (912)
I0403 15:43:35.053797 15985 net.cpp:156] Memory required for data: 1208421216
I0403 15:43:35.053817 15985 layer_factory.hpp:77] Creating layer loss2/classifier_plantvillage_loss2/classifier_plantvillage_0_split
I0403 15:43:35.053835 15985 net.cpp:91] Creating Layer loss2/classifier_plantvillage_loss2/classifier_plantvillage_0_split
I0403 15:43:35.053851 15985 net.cpp:425] loss2/classifier_plantvillage_loss2/classifier_plantvillage_0_split <- loss2/classifier_plantvillage
I0403 15:43:35.053871 15985 net.cpp:399] loss2/classifier_plantvillage_loss2/classifier_plantvillage_0_split -> loss2/classifier_plantvillage_loss2/classifier_plantvillage_0_split_0
I0403 15:43:35.053894 15985 net.cpp:399] loss2/classifier_plantvillage_loss2/classifier_plantvillage_0_split -> loss2/classifier_plantvillage_loss2/classifier_plantvillage_0_split_1
I0403 15:43:35.053915 15985 net.cpp:399] loss2/classifier_plantvillage_loss2/classifier_plantvillage_0_split -> loss2/classifier_plantvillage_loss2/classifier_plantvillage_0_split_2
I0403 15:43:35.053997 15985 net.cpp:141] Setting up loss2/classifier_plantvillage_loss2/classifier_plantvillage_0_split
I0403 15:43:35.054020 15985 net.cpp:148] Top shape: 24 38 (912)
I0403 15:43:35.054038 15985 net.cpp:148] Top shape: 24 38 (912)
I0403 15:43:35.054052 15985 net.cpp:148] Top shape: 24 38 (912)
I0403 15:43:35.054065 15985 net.cpp:156] Memory required for data: 1208432160
I0403 15:43:35.054080 15985 layer_factory.hpp:77] Creating layer inception_4e/1x1
I0403 15:43:35.054103 15985 net.cpp:91] Creating Layer inception_4e/1x1
I0403 15:43:35.054122 15985 net.cpp:425] inception_4e/1x1 <- inception_4d/output_inception_4d/output_0_split_1
I0403 15:43:35.054141 15985 net.cpp:399] inception_4e/1x1 -> inception_4e/1x1
I0403 15:43:35.056066 15985 net.cpp:141] Setting up inception_4e/1x1
I0403 15:43:35.056094 15985 net.cpp:148] Top shape: 24 256 14 14 (1204224)
I0403 15:43:35.056110 15985 net.cpp:156] Memory required for data: 1213249056
I0403 15:43:35.056128 15985 layer_factory.hpp:77] Creating layer inception_4e/relu_1x1
I0403 15:43:35.056149 15985 net.cpp:91] Creating Layer inception_4e/relu_1x1
I0403 15:43:35.056166 15985 net.cpp:425] inception_4e/relu_1x1 <- inception_4e/1x1
I0403 15:43:35.056185 15985 net.cpp:386] inception_4e/relu_1x1 -> inception_4e/1x1 (in-place)
I0403 15:43:35.056493 15985 net.cpp:141] Setting up inception_4e/relu_1x1
I0403 15:43:35.056519 15985 net.cpp:148] Top shape: 24 256 14 14 (1204224)
I0403 15:43:35.056535 15985 net.cpp:156] Memory required for data: 1218065952
I0403 15:43:35.056550 15985 layer_factory.hpp:77] Creating layer inception_4e/3x3_reduce
I0403 15:43:35.056572 15985 net.cpp:91] Creating Layer inception_4e/3x3_reduce
I0403 15:43:35.056591 15985 net.cpp:425] inception_4e/3x3_reduce <- inception_4d/output_inception_4d/output_0_split_2
I0403 15:43:35.056617 15985 net.cpp:399] inception_4e/3x3_reduce -> inception_4e/3x3_reduce
I0403 15:43:35.058830 15985 net.cpp:141] Setting up inception_4e/3x3_reduce
I0403 15:43:35.058859 15985 net.cpp:148] Top shape: 24 160 14 14 (752640)
I0403 15:43:35.058876 15985 net.cpp:156] Memory required for data: 1221076512
I0403 15:43:35.058894 15985 layer_factory.hpp:77] Creating layer inception_4e/relu_3x3_reduce
I0403 15:43:35.058912 15985 net.cpp:91] Creating Layer inception_4e/relu_3x3_reduce
I0403 15:43:35.058928 15985 net.cpp:425] inception_4e/relu_3x3_reduce <- inception_4e/3x3_reduce
I0403 15:43:35.058948 15985 net.cpp:386] inception_4e/relu_3x3_reduce -> inception_4e/3x3_reduce (in-place)
I0403 15:43:35.059142 15985 net.cpp:141] Setting up inception_4e/relu_3x3_reduce
I0403 15:43:35.059167 15985 net.cpp:148] Top shape: 24 160 14 14 (752640)
I0403 15:43:35.059182 15985 net.cpp:156] Memory required for data: 1224087072
I0403 15:43:35.059197 15985 layer_factory.hpp:77] Creating layer inception_4e/3x3
I0403 15:43:35.059221 15985 net.cpp:91] Creating Layer inception_4e/3x3
I0403 15:43:35.059238 15985 net.cpp:425] inception_4e/3x3 <- inception_4e/3x3_reduce
I0403 15:43:35.059259 15985 net.cpp:399] inception_4e/3x3 -> inception_4e/3x3
I0403 15:43:35.064440 15985 net.cpp:141] Setting up inception_4e/3x3
I0403 15:43:35.064482 15985 net.cpp:148] Top shape: 24 320 14 14 (1505280)
I0403 15:43:35.064499 15985 net.cpp:156] Memory required for data: 1230108192
I0403 15:43:35.064518 15985 layer_factory.hpp:77] Creating layer inception_4e/relu_3x3
I0403 15:43:35.064539 15985 net.cpp:91] Creating Layer inception_4e/relu_3x3
I0403 15:43:35.064558 15985 net.cpp:425] inception_4e/relu_3x3 <- inception_4e/3x3
I0403 15:43:35.064574 15985 net.cpp:386] inception_4e/relu_3x3 -> inception_4e/3x3 (in-place)
I0403 15:43:35.064896 15985 net.cpp:141] Setting up inception_4e/relu_3x3
I0403 15:43:35.064924 15985 net.cpp:148] Top shape: 24 320 14 14 (1505280)
I0403 15:43:35.064939 15985 net.cpp:156] Memory required for data: 1236129312
I0403 15:43:35.064955 15985 layer_factory.hpp:77] Creating layer inception_4e/5x5_reduce
I0403 15:43:35.064978 15985 net.cpp:91] Creating Layer inception_4e/5x5_reduce
I0403 15:43:35.064996 15985 net.cpp:425] inception_4e/5x5_reduce <- inception_4d/output_inception_4d/output_0_split_3
I0403 15:43:35.065019 15985 net.cpp:399] inception_4e/5x5_reduce -> inception_4e/5x5_reduce
I0403 15:43:35.066135 15985 net.cpp:141] Setting up inception_4e/5x5_reduce
I0403 15:43:35.066166 15985 net.cpp:148] Top shape: 24 32 14 14 (150528)
I0403 15:43:35.066184 15985 net.cpp:156] Memory required for data: 1236731424
I0403 15:43:35.066202 15985 layer_factory.hpp:77] Creating layer inception_4e/relu_5x5_reduce
I0403 15:43:35.066220 15985 net.cpp:91] Creating Layer inception_4e/relu_5x5_reduce
I0403 15:43:35.066236 15985 net.cpp:425] inception_4e/relu_5x5_reduce <- inception_4e/5x5_reduce
I0403 15:43:35.066256 15985 net.cpp:386] inception_4e/relu_5x5_reduce -> inception_4e/5x5_reduce (in-place)
I0403 15:43:35.066566 15985 net.cpp:141] Setting up inception_4e/relu_5x5_reduce
I0403 15:43:35.066596 15985 net.cpp:148] Top shape: 24 32 14 14 (150528)
I0403 15:43:35.066617 15985 net.cpp:156] Memory required for data: 1237333536
I0403 15:43:35.066632 15985 layer_factory.hpp:77] Creating layer inception_4e/5x5
I0403 15:43:35.066673 15985 net.cpp:91] Creating Layer inception_4e/5x5
I0403 15:43:35.066694 15985 net.cpp:425] inception_4e/5x5 <- inception_4e/5x5_reduce
I0403 15:43:35.066712 15985 net.cpp:399] inception_4e/5x5 -> inception_4e/5x5
I0403 15:43:35.068636 15985 net.cpp:141] Setting up inception_4e/5x5
I0403 15:43:35.068667 15985 net.cpp:148] Top shape: 24 128 14 14 (602112)
I0403 15:43:35.068687 15985 net.cpp:156] Memory required for data: 1239741984
I0403 15:43:35.068706 15985 layer_factory.hpp:77] Creating layer inception_4e/relu_5x5
I0403 15:43:35.068725 15985 net.cpp:91] Creating Layer inception_4e/relu_5x5
I0403 15:43:35.068740 15985 net.cpp:425] inception_4e/relu_5x5 <- inception_4e/5x5
I0403 15:43:35.068760 15985 net.cpp:386] inception_4e/relu_5x5 -> inception_4e/5x5 (in-place)
I0403 15:43:35.068965 15985 net.cpp:141] Setting up inception_4e/relu_5x5
I0403 15:43:35.068991 15985 net.cpp:148] Top shape: 24 128 14 14 (602112)
I0403 15:43:35.069006 15985 net.cpp:156] Memory required for data: 1242150432
I0403 15:43:35.069021 15985 layer_factory.hpp:77] Creating layer inception_4e/pool
I0403 15:43:35.069041 15985 net.cpp:91] Creating Layer inception_4e/pool
I0403 15:43:35.069056 15985 net.cpp:425] inception_4e/pool <- inception_4d/output_inception_4d/output_0_split_4
I0403 15:43:35.069077 15985 net.cpp:399] inception_4e/pool -> inception_4e/pool
I0403 15:43:35.069150 15985 net.cpp:141] Setting up inception_4e/pool
I0403 15:43:35.069175 15985 net.cpp:148] Top shape: 24 528 14 14 (2483712)
I0403 15:43:35.069188 15985 net.cpp:156] Memory required for data: 1252085280
I0403 15:43:35.069203 15985 layer_factory.hpp:77] Creating layer inception_4e/pool_proj
I0403 15:43:35.069227 15985 net.cpp:91] Creating Layer inception_4e/pool_proj
I0403 15:43:35.069244 15985 net.cpp:425] inception_4e/pool_proj <- inception_4e/pool
I0403 15:43:35.069267 15985 net.cpp:399] inception_4e/pool_proj -> inception_4e/pool_proj
I0403 15:43:35.070834 15985 net.cpp:141] Setting up inception_4e/pool_proj
I0403 15:43:35.070875 15985 net.cpp:148] Top shape: 24 128 14 14 (602112)
I0403 15:43:35.070893 15985 net.cpp:156] Memory required for data: 1254493728
I0403 15:43:35.070910 15985 layer_factory.hpp:77] Creating layer inception_4e/relu_pool_proj
I0403 15:43:35.070931 15985 net.cpp:91] Creating Layer inception_4e/relu_pool_proj
I0403 15:43:35.070950 15985 net.cpp:425] inception_4e/relu_pool_proj <- inception_4e/pool_proj
I0403 15:43:35.070966 15985 net.cpp:386] inception_4e/relu_pool_proj -> inception_4e/pool_proj (in-place)
I0403 15:43:35.071270 15985 net.cpp:141] Setting up inception_4e/relu_pool_proj
I0403 15:43:35.071296 15985 net.cpp:148] Top shape: 24 128 14 14 (602112)
I0403 15:43:35.071312 15985 net.cpp:156] Memory required for data: 1256902176
I0403 15:43:35.071327 15985 layer_factory.hpp:77] Creating layer inception_4e/output
I0403 15:43:35.071346 15985 net.cpp:91] Creating Layer inception_4e/output
I0403 15:43:35.071363 15985 net.cpp:425] inception_4e/output <- inception_4e/1x1
I0403 15:43:35.071380 15985 net.cpp:425] inception_4e/output <- inception_4e/3x3
I0403 15:43:35.071398 15985 net.cpp:425] inception_4e/output <- inception_4e/5x5
I0403 15:43:35.071413 15985 net.cpp:425] inception_4e/output <- inception_4e/pool_proj
I0403 15:43:35.071430 15985 net.cpp:399] inception_4e/output -> inception_4e/output
I0403 15:43:35.071482 15985 net.cpp:141] Setting up inception_4e/output
I0403 15:43:35.071507 15985 net.cpp:148] Top shape: 24 832 14 14 (3913728)
I0403 15:43:35.071522 15985 net.cpp:156] Memory required for data: 1272557088
I0403 15:43:35.071537 15985 layer_factory.hpp:77] Creating layer pool4/3x3_s2
I0403 15:43:35.071554 15985 net.cpp:91] Creating Layer pool4/3x3_s2
I0403 15:43:35.071569 15985 net.cpp:425] pool4/3x3_s2 <- inception_4e/output
I0403 15:43:35.071589 15985 net.cpp:399] pool4/3x3_s2 -> pool4/3x3_s2
I0403 15:43:35.071668 15985 net.cpp:141] Setting up pool4/3x3_s2
I0403 15:43:35.071693 15985 net.cpp:148] Top shape: 24 832 7 7 (978432)
I0403 15:43:35.071708 15985 net.cpp:156] Memory required for data: 1276470816
I0403 15:43:35.071722 15985 layer_factory.hpp:77] Creating layer pool4/3x3_s2_pool4/3x3_s2_0_split
I0403 15:43:35.071739 15985 net.cpp:91] Creating Layer pool4/3x3_s2_pool4/3x3_s2_0_split
I0403 15:43:35.071755 15985 net.cpp:425] pool4/3x3_s2_pool4/3x3_s2_0_split <- pool4/3x3_s2
I0403 15:43:35.071774 15985 net.cpp:399] pool4/3x3_s2_pool4/3x3_s2_0_split -> pool4/3x3_s2_pool4/3x3_s2_0_split_0
I0403 15:43:35.071796 15985 net.cpp:399] pool4/3x3_s2_pool4/3x3_s2_0_split -> pool4/3x3_s2_pool4/3x3_s2_0_split_1
I0403 15:43:35.071816 15985 net.cpp:399] pool4/3x3_s2_pool4/3x3_s2_0_split -> pool4/3x3_s2_pool4/3x3_s2_0_split_2
I0403 15:43:35.071837 15985 net.cpp:399] pool4/3x3_s2_pool4/3x3_s2_0_split -> pool4/3x3_s2_pool4/3x3_s2_0_split_3
I0403 15:43:35.071931 15985 net.cpp:141] Setting up pool4/3x3_s2_pool4/3x3_s2_0_split
I0403 15:43:35.071957 15985 net.cpp:148] Top shape: 24 832 7 7 (978432)
I0403 15:43:35.071975 15985 net.cpp:148] Top shape: 24 832 7 7 (978432)
I0403 15:43:35.071990 15985 net.cpp:148] Top shape: 24 832 7 7 (978432)
I0403 15:43:35.072006 15985 net.cpp:148] Top shape: 24 832 7 7 (978432)
I0403 15:43:35.072021 15985 net.cpp:156] Memory required for data: 1292125728
I0403 15:43:35.072036 15985 layer_factory.hpp:77] Creating layer inception_5a/1x1
I0403 15:43:35.072057 15985 net.cpp:91] Creating Layer inception_5a/1x1
I0403 15:43:35.072078 15985 net.cpp:425] inception_5a/1x1 <- pool4/3x3_s2_pool4/3x3_s2_0_split_0
I0403 15:43:35.072098 15985 net.cpp:399] inception_5a/1x1 -> inception_5a/1x1
I0403 15:43:35.074995 15985 net.cpp:141] Setting up inception_5a/1x1
I0403 15:43:35.075026 15985 net.cpp:148] Top shape: 24 256 7 7 (301056)
I0403 15:43:35.075042 15985 net.cpp:156] Memory required for data: 1293329952
I0403 15:43:35.075060 15985 layer_factory.hpp:77] Creating layer inception_5a/relu_1x1
I0403 15:43:35.075078 15985 net.cpp:91] Creating Layer inception_5a/relu_1x1
I0403 15:43:35.075093 15985 net.cpp:425] inception_5a/relu_1x1 <- inception_5a/1x1
I0403 15:43:35.075112 15985 net.cpp:386] inception_5a/relu_1x1 -> inception_5a/1x1 (in-place)
I0403 15:43:35.075426 15985 net.cpp:141] Setting up inception_5a/relu_1x1
I0403 15:43:35.075454 15985 net.cpp:148] Top shape: 24 256 7 7 (301056)
I0403 15:43:35.075470 15985 net.cpp:156] Memory required for data: 1294534176
I0403 15:43:35.075485 15985 layer_factory.hpp:77] Creating layer inception_5a/3x3_reduce
I0403 15:43:35.075506 15985 net.cpp:91] Creating Layer inception_5a/3x3_reduce
I0403 15:43:35.075525 15985 net.cpp:425] inception_5a/3x3_reduce <- pool4/3x3_s2_pool4/3x3_s2_0_split_1
I0403 15:43:35.075546 15985 net.cpp:399] inception_5a/3x3_reduce -> inception_5a/3x3_reduce
I0403 15:43:35.078013 15985 net.cpp:141] Setting up inception_5a/3x3_reduce
I0403 15:43:35.078042 15985 net.cpp:148] Top shape: 24 160 7 7 (188160)
I0403 15:43:35.078058 15985 net.cpp:156] Memory required for data: 1295286816
I0403 15:43:35.078076 15985 layer_factory.hpp:77] Creating layer inception_5a/relu_3x3_reduce
I0403 15:43:35.078096 15985 net.cpp:91] Creating Layer inception_5a/relu_3x3_reduce
I0403 15:43:35.078114 15985 net.cpp:425] inception_5a/relu_3x3_reduce <- inception_5a/3x3_reduce
I0403 15:43:35.078130 15985 net.cpp:386] inception_5a/relu_3x3_reduce -> inception_5a/3x3_reduce (in-place)
I0403 15:43:35.078320 15985 net.cpp:141] Setting up inception_5a/relu_3x3_reduce
I0403 15:43:35.078347 15985 net.cpp:148] Top shape: 24 160 7 7 (188160)
I0403 15:43:35.078362 15985 net.cpp:156] Memory required for data: 1296039456
I0403 15:43:35.078377 15985 layer_factory.hpp:77] Creating layer inception_5a/3x3
I0403 15:43:35.078399 15985 net.cpp:91] Creating Layer inception_5a/3x3
I0403 15:43:35.078418 15985 net.cpp:425] inception_5a/3x3 <- inception_5a/3x3_reduce
I0403 15:43:35.078435 15985 net.cpp:399] inception_5a/3x3 -> inception_5a/3x3
I0403 15:43:35.083508 15985 net.cpp:141] Setting up inception_5a/3x3
I0403 15:43:35.083540 15985 net.cpp:148] Top shape: 24 320 7 7 (376320)
I0403 15:43:35.083557 15985 net.cpp:156] Memory required for data: 1297544736
I0403 15:43:35.083576 15985 layer_factory.hpp:77] Creating layer inception_5a/relu_3x3
I0403 15:43:35.083595 15985 net.cpp:91] Creating Layer inception_5a/relu_3x3
I0403 15:43:35.083624 15985 net.cpp:425] inception_5a/relu_3x3 <- inception_5a/3x3
I0403 15:43:35.083645 15985 net.cpp:386] inception_5a/relu_3x3 -> inception_5a/3x3 (in-place)
I0403 15:43:35.083958 15985 net.cpp:141] Setting up inception_5a/relu_3x3
I0403 15:43:35.083987 15985 net.cpp:148] Top shape: 24 320 7 7 (376320)
I0403 15:43:35.084002 15985 net.cpp:156] Memory required for data: 1299050016
I0403 15:43:35.084017 15985 layer_factory.hpp:77] Creating layer inception_5a/5x5_reduce
I0403 15:43:35.084039 15985 net.cpp:91] Creating Layer inception_5a/5x5_reduce
I0403 15:43:35.084058 15985 net.cpp:425] inception_5a/5x5_reduce <- pool4/3x3_s2_pool4/3x3_s2_0_split_2
I0403 15:43:35.084075 15985 net.cpp:399] inception_5a/5x5_reduce -> inception_5a/5x5_reduce
I0403 15:43:35.085270 15985 net.cpp:141] Setting up inception_5a/5x5_reduce
I0403 15:43:35.085301 15985 net.cpp:148] Top shape: 24 32 7 7 (37632)
I0403 15:43:35.085317 15985 net.cpp:156] Memory required for data: 1299200544
I0403 15:43:35.085336 15985 layer_factory.hpp:77] Creating layer inception_5a/relu_5x5_reduce
I0403 15:43:35.085355 15985 net.cpp:91] Creating Layer inception_5a/relu_5x5_reduce
I0403 15:43:35.085371 15985 net.cpp:425] inception_5a/relu_5x5_reduce <- inception_5a/5x5_reduce
I0403 15:43:35.085391 15985 net.cpp:386] inception_5a/relu_5x5_reduce -> inception_5a/5x5_reduce (in-place)
I0403 15:43:35.085700 15985 net.cpp:141] Setting up inception_5a/relu_5x5_reduce
I0403 15:43:35.085726 15985 net.cpp:148] Top shape: 24 32 7 7 (37632)
I0403 15:43:35.085741 15985 net.cpp:156] Memory required for data: 1299351072
I0403 15:43:35.085754 15985 layer_factory.hpp:77] Creating layer inception_5a/5x5
I0403 15:43:35.085777 15985 net.cpp:91] Creating Layer inception_5a/5x5
I0403 15:43:35.085793 15985 net.cpp:425] inception_5a/5x5 <- inception_5a/5x5_reduce
I0403 15:43:35.085814 15985 net.cpp:399] inception_5a/5x5 -> inception_5a/5x5
I0403 15:43:35.087584 15985 net.cpp:141] Setting up inception_5a/5x5
I0403 15:43:35.087631 15985 net.cpp:148] Top shape: 24 128 7 7 (150528)
I0403 15:43:35.087649 15985 net.cpp:156] Memory required for data: 1299953184
I0403 15:43:35.087668 15985 layer_factory.hpp:77] Creating layer inception_5a/relu_5x5
I0403 15:43:35.087687 15985 net.cpp:91] Creating Layer inception_5a/relu_5x5
I0403 15:43:35.087702 15985 net.cpp:425] inception_5a/relu_5x5 <- inception_5a/5x5
I0403 15:43:35.087723 15985 net.cpp:386] inception_5a/relu_5x5 -> inception_5a/5x5 (in-place)
I0403 15:43:35.087923 15985 net.cpp:141] Setting up inception_5a/relu_5x5
I0403 15:43:35.087947 15985 net.cpp:148] Top shape: 24 128 7 7 (150528)
I0403 15:43:35.087962 15985 net.cpp:156] Memory required for data: 1300555296
I0403 15:43:35.087977 15985 layer_factory.hpp:77] Creating layer inception_5a/pool
I0403 15:43:35.087995 15985 net.cpp:91] Creating Layer inception_5a/pool
I0403 15:43:35.088011 15985 net.cpp:425] inception_5a/pool <- pool4/3x3_s2_pool4/3x3_s2_0_split_3
I0403 15:43:35.088032 15985 net.cpp:399] inception_5a/pool -> inception_5a/pool
I0403 15:43:35.088105 15985 net.cpp:141] Setting up inception_5a/pool
I0403 15:43:35.088129 15985 net.cpp:148] Top shape: 24 832 7 7 (978432)
I0403 15:43:35.088145 15985 net.cpp:156] Memory required for data: 1304469024
I0403 15:43:35.088160 15985 layer_factory.hpp:77] Creating layer inception_5a/pool_proj
I0403 15:43:35.088183 15985 net.cpp:91] Creating Layer inception_5a/pool_proj
I0403 15:43:35.088201 15985 net.cpp:425] inception_5a/pool_proj <- inception_5a/pool
I0403 15:43:35.088219 15985 net.cpp:399] inception_5a/pool_proj -> inception_5a/pool_proj
I0403 15:43:35.090587 15985 net.cpp:141] Setting up inception_5a/pool_proj
I0403 15:43:35.090623 15985 net.cpp:148] Top shape: 24 128 7 7 (150528)
I0403 15:43:35.090641 15985 net.cpp:156] Memory required for data: 1305071136
I0403 15:43:35.090661 15985 layer_factory.hpp:77] Creating layer inception_5a/relu_pool_proj
I0403 15:43:35.090678 15985 net.cpp:91] Creating Layer inception_5a/relu_pool_proj
I0403 15:43:35.090694 15985 net.cpp:425] inception_5a/relu_pool_proj <- inception_5a/pool_proj
I0403 15:43:35.090711 15985 net.cpp:386] inception_5a/relu_pool_proj -> inception_5a/pool_proj (in-place)
I0403 15:43:35.091019 15985 net.cpp:141] Setting up inception_5a/relu_pool_proj
I0403 15:43:35.091048 15985 net.cpp:148] Top shape: 24 128 7 7 (150528)
I0403 15:43:35.091065 15985 net.cpp:156] Memory required for data: 1305673248
I0403 15:43:35.091080 15985 layer_factory.hpp:77] Creating layer inception_5a/output
I0403 15:43:35.091099 15985 net.cpp:91] Creating Layer inception_5a/output
I0403 15:43:35.091114 15985 net.cpp:425] inception_5a/output <- inception_5a/1x1
I0403 15:43:35.091130 15985 net.cpp:425] inception_5a/output <- inception_5a/3x3
I0403 15:43:35.091147 15985 net.cpp:425] inception_5a/output <- inception_5a/5x5
I0403 15:43:35.091162 15985 net.cpp:425] inception_5a/output <- inception_5a/pool_proj
I0403 15:43:35.091179 15985 net.cpp:399] inception_5a/output -> inception_5a/output
I0403 15:43:35.091233 15985 net.cpp:141] Setting up inception_5a/output
I0403 15:43:35.091256 15985 net.cpp:148] Top shape: 24 832 7 7 (978432)
I0403 15:43:35.091270 15985 net.cpp:156] Memory required for data: 1309586976
I0403 15:43:35.091285 15985 layer_factory.hpp:77] Creating layer inception_5a/output_inception_5a/output_0_split
I0403 15:43:35.091302 15985 net.cpp:91] Creating Layer inception_5a/output_inception_5a/output_0_split
I0403 15:43:35.091321 15985 net.cpp:425] inception_5a/output_inception_5a/output_0_split <- inception_5a/output
I0403 15:43:35.091339 15985 net.cpp:399] inception_5a/output_inception_5a/output_0_split -> inception_5a/output_inception_5a/output_0_split_0
I0403 15:43:35.091359 15985 net.cpp:399] inception_5a/output_inception_5a/output_0_split -> inception_5a/output_inception_5a/output_0_split_1
I0403 15:43:35.091380 15985 net.cpp:399] inception_5a/output_inception_5a/output_0_split -> inception_5a/output_inception_5a/output_0_split_2
I0403 15:43:35.091401 15985 net.cpp:399] inception_5a/output_inception_5a/output_0_split -> inception_5a/output_inception_5a/output_0_split_3
I0403 15:43:35.091519 15985 net.cpp:141] Setting up inception_5a/output_inception_5a/output_0_split
I0403 15:43:35.091545 15985 net.cpp:148] Top shape: 24 832 7 7 (978432)
I0403 15:43:35.091562 15985 net.cpp:148] Top shape: 24 832 7 7 (978432)
I0403 15:43:35.091578 15985 net.cpp:148] Top shape: 24 832 7 7 (978432)
I0403 15:43:35.091593 15985 net.cpp:148] Top shape: 24 832 7 7 (978432)
I0403 15:43:35.091611 15985 net.cpp:156] Memory required for data: 1325241888
I0403 15:43:35.091627 15985 layer_factory.hpp:77] Creating layer inception_5b/1x1
I0403 15:43:35.091650 15985 net.cpp:91] Creating Layer inception_5b/1x1
I0403 15:43:35.091668 15985 net.cpp:425] inception_5b/1x1 <- inception_5a/output_inception_5a/output_0_split_0
I0403 15:43:35.091689 15985 net.cpp:399] inception_5b/1x1 -> inception_5b/1x1
I0403 15:43:35.095520 15985 net.cpp:141] Setting up inception_5b/1x1
I0403 15:43:35.095551 15985 net.cpp:148] Top shape: 24 384 7 7 (451584)
I0403 15:43:35.095566 15985 net.cpp:156] Memory required for data: 1327048224
I0403 15:43:35.095584 15985 layer_factory.hpp:77] Creating layer inception_5b/relu_1x1
I0403 15:43:35.095610 15985 net.cpp:91] Creating Layer inception_5b/relu_1x1
I0403 15:43:35.095629 15985 net.cpp:425] inception_5b/relu_1x1 <- inception_5b/1x1
I0403 15:43:35.095646 15985 net.cpp:386] inception_5b/relu_1x1 -> inception_5b/1x1 (in-place)
I0403 15:43:35.095954 15985 net.cpp:141] Setting up inception_5b/relu_1x1
I0403 15:43:35.095980 15985 net.cpp:148] Top shape: 24 384 7 7 (451584)
I0403 15:43:35.095995 15985 net.cpp:156] Memory required for data: 1328854560
I0403 15:43:35.096010 15985 layer_factory.hpp:77] Creating layer inception_5b/3x3_reduce
I0403 15:43:35.096031 15985 net.cpp:91] Creating Layer inception_5b/3x3_reduce
I0403 15:43:35.096050 15985 net.cpp:425] inception_5b/3x3_reduce <- inception_5a/output_inception_5a/output_0_split_1
I0403 15:43:35.096071 15985 net.cpp:399] inception_5b/3x3_reduce -> inception_5b/3x3_reduce
I0403 15:43:35.098767 15985 net.cpp:141] Setting up inception_5b/3x3_reduce
I0403 15:43:35.098795 15985 net.cpp:148] Top shape: 24 192 7 7 (225792)
I0403 15:43:35.098811 15985 net.cpp:156] Memory required for data: 1329757728
I0403 15:43:35.098829 15985 layer_factory.hpp:77] Creating layer inception_5b/relu_3x3_reduce
I0403 15:43:35.098850 15985 net.cpp:91] Creating Layer inception_5b/relu_3x3_reduce
I0403 15:43:35.098866 15985 net.cpp:425] inception_5b/relu_3x3_reduce <- inception_5b/3x3_reduce
I0403 15:43:35.098883 15985 net.cpp:386] inception_5b/relu_3x3_reduce -> inception_5b/3x3_reduce (in-place)
I0403 15:43:35.099076 15985 net.cpp:141] Setting up inception_5b/relu_3x3_reduce
I0403 15:43:35.099107 15985 net.cpp:148] Top shape: 24 192 7 7 (225792)
I0403 15:43:35.099122 15985 net.cpp:156] Memory required for data: 1330660896
I0403 15:43:35.099136 15985 layer_factory.hpp:77] Creating layer inception_5b/3x3
I0403 15:43:35.099158 15985 net.cpp:91] Creating Layer inception_5b/3x3
I0403 15:43:35.099174 15985 net.cpp:425] inception_5b/3x3 <- inception_5b/3x3_reduce
I0403 15:43:35.099194 15985 net.cpp:399] inception_5b/3x3 -> inception_5b/3x3
I0403 15:43:35.105967 15985 net.cpp:141] Setting up inception_5b/3x3
I0403 15:43:35.105996 15985 net.cpp:148] Top shape: 24 384 7 7 (451584)
I0403 15:43:35.106012 15985 net.cpp:156] Memory required for data: 1332467232
I0403 15:43:35.106030 15985 layer_factory.hpp:77] Creating layer inception_5b/relu_3x3
I0403 15:43:35.106047 15985 net.cpp:91] Creating Layer inception_5b/relu_3x3
I0403 15:43:35.106063 15985 net.cpp:425] inception_5b/relu_3x3 <- inception_5b/3x3
I0403 15:43:35.106079 15985 net.cpp:386] inception_5b/relu_3x3 -> inception_5b/3x3 (in-place)
I0403 15:43:35.106371 15985 net.cpp:141] Setting up inception_5b/relu_3x3
I0403 15:43:35.106400 15985 net.cpp:148] Top shape: 24 384 7 7 (451584)
I0403 15:43:35.106415 15985 net.cpp:156] Memory required for data: 1334273568
I0403 15:43:35.106429 15985 layer_factory.hpp:77] Creating layer inception_5b/5x5_reduce
I0403 15:43:35.106465 15985 net.cpp:91] Creating Layer inception_5b/5x5_reduce
I0403 15:43:35.106484 15985 net.cpp:425] inception_5b/5x5_reduce <- inception_5a/output_inception_5a/output_0_split_2
I0403 15:43:35.106503 15985 net.cpp:399] inception_5b/5x5_reduce -> inception_5b/5x5_reduce
I0403 15:43:35.107758 15985 net.cpp:141] Setting up inception_5b/5x5_reduce
I0403 15:43:35.107785 15985 net.cpp:148] Top shape: 24 48 7 7 (56448)
I0403 15:43:35.107800 15985 net.cpp:156] Memory required for data: 1334499360
I0403 15:43:35.107818 15985 layer_factory.hpp:77] Creating layer inception_5b/relu_5x5_reduce
I0403 15:43:35.107837 15985 net.cpp:91] Creating Layer inception_5b/relu_5x5_reduce
I0403 15:43:35.107853 15985 net.cpp:425] inception_5b/relu_5x5_reduce <- inception_5b/5x5_reduce
I0403 15:43:35.107870 15985 net.cpp:386] inception_5b/relu_5x5_reduce -> inception_5b/5x5_reduce (in-place)
I0403 15:43:35.108240 15985 net.cpp:141] Setting up inception_5b/relu_5x5_reduce
I0403 15:43:35.108265 15985 net.cpp:148] Top shape: 24 48 7 7 (56448)
I0403 15:43:35.108280 15985 net.cpp:156] Memory required for data: 1334725152
I0403 15:43:35.108294 15985 layer_factory.hpp:77] Creating layer inception_5b/5x5
I0403 15:43:35.108314 15985 net.cpp:91] Creating Layer inception_5b/5x5
I0403 15:43:35.108330 15985 net.cpp:425] inception_5b/5x5 <- inception_5b/5x5_reduce
I0403 15:43:35.108347 15985 net.cpp:399] inception_5b/5x5 -> inception_5b/5x5
I0403 15:43:35.110348 15985 net.cpp:141] Setting up inception_5b/5x5
I0403 15:43:35.110378 15985 net.cpp:148] Top shape: 24 128 7 7 (150528)
I0403 15:43:35.110394 15985 net.cpp:156] Memory required for data: 1335327264
I0403 15:43:35.110411 15985 layer_factory.hpp:77] Creating layer inception_5b/relu_5x5
I0403 15:43:35.110429 15985 net.cpp:91] Creating Layer inception_5b/relu_5x5
I0403 15:43:35.110443 15985 net.cpp:425] inception_5b/relu_5x5 <- inception_5b/5x5
I0403 15:43:35.110461 15985 net.cpp:386] inception_5b/relu_5x5 -> inception_5b/5x5 (in-place)
I0403 15:43:35.110657 15985 net.cpp:141] Setting up inception_5b/relu_5x5
I0403 15:43:35.110682 15985 net.cpp:148] Top shape: 24 128 7 7 (150528)
I0403 15:43:35.110697 15985 net.cpp:156] Memory required for data: 1335929376
I0403 15:43:35.110709 15985 layer_factory.hpp:77] Creating layer inception_5b/pool
I0403 15:43:35.110725 15985 net.cpp:91] Creating Layer inception_5b/pool
I0403 15:43:35.110744 15985 net.cpp:425] inception_5b/pool <- inception_5a/output_inception_5a/output_0_split_3
I0403 15:43:35.110761 15985 net.cpp:399] inception_5b/pool -> inception_5b/pool
I0403 15:43:35.110833 15985 net.cpp:141] Setting up inception_5b/pool
I0403 15:43:35.110857 15985 net.cpp:148] Top shape: 24 832 7 7 (978432)
I0403 15:43:35.110870 15985 net.cpp:156] Memory required for data: 1339843104
I0403 15:43:35.110883 15985 layer_factory.hpp:77] Creating layer inception_5b/pool_proj
I0403 15:43:35.110904 15985 net.cpp:91] Creating Layer inception_5b/pool_proj
I0403 15:43:35.110921 15985 net.cpp:425] inception_5b/pool_proj <- inception_5b/pool
I0403 15:43:35.110941 15985 net.cpp:399] inception_5b/pool_proj -> inception_5b/pool_proj
I0403 15:43:35.113204 15985 net.cpp:141] Setting up inception_5b/pool_proj
I0403 15:43:35.113232 15985 net.cpp:148] Top shape: 24 128 7 7 (150528)
I0403 15:43:35.113247 15985 net.cpp:156] Memory required for data: 1340445216
I0403 15:43:35.113267 15985 layer_factory.hpp:77] Creating layer inception_5b/relu_pool_proj
I0403 15:43:35.113286 15985 net.cpp:91] Creating Layer inception_5b/relu_pool_proj
I0403 15:43:35.113301 15985 net.cpp:425] inception_5b/relu_pool_proj <- inception_5b/pool_proj
I0403 15:43:35.113317 15985 net.cpp:386] inception_5b/relu_pool_proj -> inception_5b/pool_proj (in-place)
I0403 15:43:35.113618 15985 net.cpp:141] Setting up inception_5b/relu_pool_proj
I0403 15:43:35.113643 15985 net.cpp:148] Top shape: 24 128 7 7 (150528)
I0403 15:43:35.113658 15985 net.cpp:156] Memory required for data: 1341047328
I0403 15:43:35.113672 15985 layer_factory.hpp:77] Creating layer inception_5b/output
I0403 15:43:35.113692 15985 net.cpp:91] Creating Layer inception_5b/output
I0403 15:43:35.113720 15985 net.cpp:425] inception_5b/output <- inception_5b/1x1
I0403 15:43:35.113737 15985 net.cpp:425] inception_5b/output <- inception_5b/3x3
I0403 15:43:35.113754 15985 net.cpp:425] inception_5b/output <- inception_5b/5x5
I0403 15:43:35.113768 15985 net.cpp:425] inception_5b/output <- inception_5b/pool_proj
I0403 15:43:35.113785 15985 net.cpp:399] inception_5b/output -> inception_5b/output
I0403 15:43:35.113837 15985 net.cpp:141] Setting up inception_5b/output
I0403 15:43:35.113860 15985 net.cpp:148] Top shape: 24 1024 7 7 (1204224)
I0403 15:43:35.113874 15985 net.cpp:156] Memory required for data: 1345864224
I0403 15:43:35.113888 15985 layer_factory.hpp:77] Creating layer pool5/7x7_s1
I0403 15:43:35.113908 15985 net.cpp:91] Creating Layer pool5/7x7_s1
I0403 15:43:35.113924 15985 net.cpp:425] pool5/7x7_s1 <- inception_5b/output
I0403 15:43:35.113940 15985 net.cpp:399] pool5/7x7_s1 -> pool5/7x7_s1
I0403 15:43:35.114152 15985 net.cpp:141] Setting up pool5/7x7_s1
I0403 15:43:35.114179 15985 net.cpp:148] Top shape: 24 1024 1 1 (24576)
I0403 15:43:35.114194 15985 net.cpp:156] Memory required for data: 1345962528
I0403 15:43:35.114208 15985 layer_factory.hpp:77] Creating layer pool5/drop_7x7_s1
I0403 15:43:35.114225 15985 net.cpp:91] Creating Layer pool5/drop_7x7_s1
I0403 15:43:35.114241 15985 net.cpp:425] pool5/drop_7x7_s1 <- pool5/7x7_s1
I0403 15:43:35.114259 15985 net.cpp:386] pool5/drop_7x7_s1 -> pool5/7x7_s1 (in-place)
I0403 15:43:35.114307 15985 net.cpp:141] Setting up pool5/drop_7x7_s1
I0403 15:43:35.114329 15985 net.cpp:148] Top shape: 24 1024 1 1 (24576)
I0403 15:43:35.114343 15985 net.cpp:156] Memory required for data: 1346060832
I0403 15:43:35.114357 15985 layer_factory.hpp:77] Creating layer loss3/classifier_plantvillage
I0403 15:43:35.114380 15985 net.cpp:91] Creating Layer loss3/classifier_plantvillage
I0403 15:43:35.114398 15985 net.cpp:425] loss3/classifier_plantvillage <- pool5/7x7_s1
I0403 15:43:35.114418 15985 net.cpp:399] loss3/classifier_plantvillage -> loss3/classifier_plantvillage
I0403 15:43:35.114842 15985 net.cpp:141] Setting up loss3/classifier_plantvillage
I0403 15:43:35.114867 15985 net.cpp:148] Top shape: 24 38 (912)
I0403 15:43:35.114881 15985 net.cpp:156] Memory required for data: 1346064480
I0403 15:43:35.114898 15985 layer_factory.hpp:77] Creating layer loss3/classifier_plantvillage_loss3/classifier_plantvillage_0_split
I0403 15:43:35.114918 15985 net.cpp:91] Creating Layer loss3/classifier_plantvillage_loss3/classifier_plantvillage_0_split
I0403 15:43:35.114935 15985 net.cpp:425] loss3/classifier_plantvillage_loss3/classifier_plantvillage_0_split <- loss3/classifier_plantvillage
I0403 15:43:35.114953 15985 net.cpp:399] loss3/classifier_plantvillage_loss3/classifier_plantvillage_0_split -> loss3/classifier_plantvillage_loss3/classifier_plantvillage_0_split_0
I0403 15:43:35.114971 15985 net.cpp:399] loss3/classifier_plantvillage_loss3/classifier_plantvillage_0_split -> loss3/classifier_plantvillage_loss3/classifier_plantvillage_0_split_1
I0403 15:43:35.114991 15985 net.cpp:399] loss3/classifier_plantvillage_loss3/classifier_plantvillage_0_split -> loss3/classifier_plantvillage_loss3/classifier_plantvillage_0_split_2
I0403 15:43:35.115010 15985 net.cpp:399] loss3/classifier_plantvillage_loss3/classifier_plantvillage_0_split -> loss3/classifier_plantvillage_loss3/classifier_plantvillage_0_split_3
I0403 15:43:35.115108 15985 net.cpp:141] Setting up loss3/classifier_plantvillage_loss3/classifier_plantvillage_0_split
I0403 15:43:35.115130 15985 net.cpp:148] Top shape: 24 38 (912)
I0403 15:43:35.115146 15985 net.cpp:148] Top shape: 24 38 (912)
I0403 15:43:35.115160 15985 net.cpp:148] Top shape: 24 38 (912)
I0403 15:43:35.115175 15985 net.cpp:148] Top shape: 24 38 (912)
I0403 15:43:35.115187 15985 net.cpp:156] Memory required for data: 1346079072
I0403 15:43:35.115201 15985 layer_factory.hpp:77] Creating layer loss1/loss
I0403 15:43:35.115221 15985 net.cpp:91] Creating Layer loss1/loss
I0403 15:43:35.115238 15985 net.cpp:425] loss1/loss <- loss1/classifier_plantvillage_loss1/classifier_plantvillage_0_split_0
I0403 15:43:35.115267 15985 net.cpp:425] loss1/loss <- label_data_1_split_0
…
