…
I0403 15:57:18.845901 16549 net.cpp:313] The NetState phase (1) differed from the phase (0) specified by a rule in layer data
I0403 15:57:18.847102 16549 net.cpp:49] Initializing net from parameters: 
state {
  phase: TEST
}
layer {
  name: "data"
  type: "Data"
  top: "data"
  top: "label"
  include {
    phase: TEST
  }
  transform_param {
    mirror: false
    crop_size: 224
    mean_file: "/home/mohanty/data/final_dataset/lmdb/segmented-20-80/mean.binaryproto"
  }
  data_param {
    source: "/home/mohanty/data/final_dataset/lmdb/segmented-20-80/test_db"
    batch_size: 24
    backend: LMDB
  }
}
layer {
  name: "conv1/7x7_s2"
  type: "Convolution"
  bottom: "data"
  top: "conv1/7x7_s2"
  param {
    lr_mult: 1
    decay_mult: 1
  }
  param {
    lr_mult: 2
    decay_mult: 0
  }
  convolution_param {
    num_output: 64
    pad: 3
    kernel_size: 7
    stride: 2
    weight_filler {
      type: "xavier"
      std: 0.1
    }
    bias_filler {
      type: "constant"
      value: 0.2
    }
  }
}
layer {
  name: "conv1/relu_7x7"
  type: "ReLU"
  bottom: "conv1/7x7_s2"
  top: "conv1/7x7_s2"
}
layer {
  name: "pool1/3x3_s2"
  type: "Pooling"
  bottom: "conv1/7x7_s2"
  top: "pool1/3x3_s2"
  pooling_param {
    pool: MAX
    kernel_size: 3
    stride: 2
  }
}
layer {
  name: "pool1/norm1"
  type: "LRN"
  bottom: "pool1/3x3_s2"
  top: "pool1/norm1"
  lrn_param {
    local_size: 5
    alpha: 0.0001
    beta: 0.75
  }
}
layer {
  name: "conv2/3x3_reduce"
  type: "Convolution"
  bottom: "pool1/norm1"
  top: "conv2/3x3_reduce"
  param {
    lr_mult: 1
    decay_mult: 1
  }
  param {
    lr_mult: 2
    decay_mult: 0
  }
  convolution_param {
    num_output: 64
    kernel_size: 1
    weight_filler {
      type: "xavier"
      std: 0.1
    }
    bias_filler {
      type: "constant"
      value: 0.2
    }
  }
}
layer {
  name: "conv2/relu_3x3_reduce"
  type: "ReLU"
  bottom: "conv2/3x3_reduce"
  top: "conv2/3x3_reduce"
}
layer {
  name: "conv2/3x3"
  type: "Convolution"
  bottom: "conv2/3x3_reduce"
  top: "conv2/3x3"
  param {
    lr_mult: 1
    decay_mult: 1
  }
  param {
    lr_mult: 2
    decay_mult: 0
  }
  convolution_param {
    num_output: 192
    pad: 1
    kernel_size: 3
    weight_filler {
      type: "xavier"
      std: 0.03
    }
    bias_filler {
      type: "constant"
      value: 0.2
    }
  }
}
layer {
  name: "conv2/relu_3x3"
  type: "ReLU"
  bottom: "conv2/3x3"
  top: "conv2/3x3"
}
layer {
  name: "conv2/norm2"
  type: "LRN"
  bottom: "conv2/3x3"
  top: "conv2/norm2"
  lrn_param {
    local_size: 5
    alpha: 0.0001
    beta: 0.75
  }
}
layer {
  name: "pool2/3x3_s2"
  type: "Pooling"
  bottom: "conv2/norm2"
  top: "pool2/3x3_s2"
  pooling_param {
    pool: MAX
    kernel_size: 3
    stride: 2
  }
}
layer {
  name: "inception_3a/1x1"
  type: "Convolution"
  bottom: "pool2/3x3_s2"
  top: "inception_3a/1x1"
  param {
    lr_mult: 1
    decay_mult: 1
  }
  param {
    lr_mult: 2
    decay_mult: 0
  }
  convolution_param {
    num_output: 64
    kernel_size: 1
    weight_filler {
      type: "xavier"
      std: 0.03
    }
    bias_filler {
      type: "constant"
      value: 0.2
    }
  }
}
layer {
  name: "inception_3a/relu_1x1"
  type: "ReLU"
  bottom: "inception_3a/1x1"
  top: "inception_3a/1x1"
}
layer {
  name: "inception_3a/3x3_reduce"
  type: "Convolution"
  bottom: "pool2/3x3_s2"
  top: "inception_3a/3x3_reduce"
  param {
    lr_mult: 1
    decay_mult: 1
  }
  param {
    lr_mult: 2
    decay_mult: 0
  }
  convolution_param {
    num_output: 96
    kernel_size: 1
    weight_filler {
      type: "xavier"
      std: 0.09
    }
    bias_filler {
      type: "constant"
      value: 0.2
    }
  }
}
layer {
  name: "inception_3a/relu_3x3_reduce"
  type: "ReLU"
  bottom: "inception_3a/3x3_reduce"
  top: "inception_3a/3x3_reduce"
}
layer {
  name: "inception_3a/3x3"
  type: "Convolution"
  bottom: "inception_3a/3x3_reduce"
  top: "inception_3a/3x3"
  param {
    lr_mult: 1
    decay_mult: 1
  }
  param {
    lr_mult: 2
    decay_mult: 0
  }
  convolution_param {
    num_output: 128
    pad: 1
    kernel_size: 3
    weight_filler {
      type: "xavier"
      std: 0.03
    }
    bias_filler {
      type: "constant"
      value: 0.2
    }
  }
}
layer {
  name: "inception_3a/relu_3x3"
  type: "ReLU"
  bottom: "inception_3a/3x3"
  top: "inception_3a/3x3"
}
layer {
  name: "inception_3a/5x5_reduce"
  type: "Convolution"
  bottom: "pool2/3x3_s2"
  top: "inception_3a/5x5_reduce"
  param {
    lr_mult: 1
    decay_mult: 1
  }
  param {
    lr_mult: 2
    decay_mult: 0
  }
  convolution_param {
    num_output: 16
    kernel_size: 1
    weight_filler {
      type: "xavier"
      std: 0.2
    }
    bias_filler {
      type: "constant"
      value: 0.2
    }
  }
}
layer {
  name: "inception_3a/relu_5x5_reduce"
  type: "ReLU"
  bottom: "inception_3a/5x5_reduce"
  top: "inception_3a/5x5_reduce"
}
layer {
  name: "inception_3a/5x5"
  type: "Convolution"
  bottom: "inception_3a/5x5_reduce"
  top: "inception_3a/5x5"
  param {
    lr_mult: 1
    decay_mult: 1
  }
  param {
    lr_mult: 2
    decay_mult: 0
  }
  convolution_param {
    num_output: 32
    pad: 2
    kernel_size: 5
    weight_filler {
      type: "xavier"
      std: 0.03
    }
    bias_filler {
      type: "constant"
      value: 0.2
    }
  }
}
layer {
  name: "inception_3a/relu_5x5"
  type: "ReLU"
  bottom: "inception_3a/5x5"
  top: "inception_3a/5x5"
}
layer {
  name: "inception_3a/pool"
  type: "Pooling"
  bottom: "pool2/3x3_s2"
  top: "inception_3a/pool"
  pooling_param {
    pool: MAX
    kernel_size: 3
    stride: 1
    pad: 1
  }
}
layer {
  name: "inception_3a/pool_proj"
  type: "Convolution"
  bottom: "inception_3a/pool"
  top: "inception_3a/pool_proj"
  param {
    lr_mult: 1
    decay_mult: 1
  }
  param {
    lr_mult: 2
    decay_mult: 0
  }
  convolution_param {
    num_output: 32
    kernel_size: 1
    weight_filler {
      type: "xavier"
      std: 0.1
    }
    bias_filler {
      type: "constant"
      value: 0.2
    }
  }
}
layer {
  name: "inception_3a/relu_pool_proj"
  type: "ReLU"
  bottom: "inception_3a/pool_proj"
  top: "inception_3a/pool_proj"
}
layer {
  name: "inception_3a/output"
  type: "Concat"
  bottom: "inception_3a/1x1"
  bottom: "inception_3a/3x3"
  bottom: "inception_3a/5x5"
  bottom: "inception_3a/pool_proj"
  top: "inception_3a/output"
}
layer {
  name: "inception_3b/1x1"
  type: "Convolution"
  bottom: "inception_3a/output"
  top: "inception_3b/1x1"
  param {
    lr_mult: 1
    decay_mult: 1
  }
  param {
    lr_mult: 2
    decay_mult: 0
  }
  convolution_param {
    num_output: 128
    kernel_size: 1
    weight_filler {
      type: "xavier"
      std: 0.03
    }
    bias_filler {
      type: "constant"
      value: 0.2
    }
  }
}
layer {
  name: "inception_3b/relu_1x1"
  type: "ReLU"
  bottom: "inception_3b/1x1"
  top: "inception_3b/1x1"
}
layer {
  name: "inception_3b/3x3_reduce"
  type: "Convolution"
  bottom: "inception_3a/output"
  top: "inception_3b/3x3_reduce"
  param {
    lr_mult: 1
    decay_mult: 1
  }
  param {
    lr_mult: 2
    decay_mult: 0
  }
  convolution_param {
    num_output: 128
    kernel_size: 1
    weight_filler {
      type: "xavier"
      std: 0.09
    }
    bias_filler {
      type: "constant"
      value: 0.2
    }
  }
}
layer {
  name: "inception_3b/relu_3x3_reduce"
  type: "ReLU"
  bottom: "inception_3b/3x3_reduce"
  top: "inception_3b/3x3_reduce"
}
layer {
  name: "inception_3b/3x3"
  type: "Convolution"
  bottom: "inception_3b/3x3_reduce"
  top: "inception_3b/3x3"
  param {
    lr_mult: 1
    decay_mult: 1
  }
  param {
    lr_mult: 2
    decay_mult: 0
  }
  convolution_param {
    num_output: 192
    pad: 1
    kernel_size: 3
    weight_filler {
      type: "xavier"
      std: 0.03
    }
    bias_filler {
      type: "constant"
      value: 0.2
    }
  }
}
layer {
  name: "inception_3b/relu_3x3"
  type: "ReLU"
  bottom: "inception_3b/3x3"
  top: "inception_3b/3x3"
}
layer {
  name: "inception_3b/5x5_reduce"
  type: "Convolution"
  bottom: "inception_3a/output"
  top: "inception_3b/5x5_reduce"
  param {
    lr_mult: 1
    decay_mult: 1
  }
  param {
    lr_mult: 2
    decay_mult: 0
  }
  convolution_param {
    num_output: 32
    kernel_size: 1
    weight_filler {
      type: "xavier"
      std: 0.2
    }
    bias_filler {
      type: "constant"
      value: 0.2
    }
  }
}
layer {
  name: "inception_3b/relu_5x5_reduce"
  type: "ReLU"
  bottom: "inception_3b/5x5_reduce"
  top: "inception_3b/5x5_reduce"
}
layer {
  name: "inception_3b/5x5"
  type: "Convolution"
  bottom: "inception_3b/5x5_reduce"
  top: "inception_3b/5x5"
  param {
    lr_mult: 1
    decay_mult: 1
  }
  param {
    lr_mult: 2
    decay_mult: 0
  }
  convolution_param {
    num_output: 96
    pad: 2
    kernel_size: 5
    weight_filler {
      type: "xavier"
      std: 0.03
    }
    bias_filler {
      type: "constant"
      value: 0.2
    }
  }
}
layer {
  name: "inception_3b/relu_5x5"
  type: "ReLU"
  bottom: "inception_3b/5x5"
  top: "inception_3b/5x5"
}
layer {
  name: "inception_3b/pool"
  type: "Pooling"
  bottom: "inception_3a/output"
  top: "inception_3b/pool"
  pooling_param {
    pool: MAX
    kernel_size: 3
    stride: 1
    pad: 1
  }
}
layer {
  name: "inception_3b/pool_proj"
  type: "Convolution"
  bottom: "inception_3b/pool"
  top: "inception_3b/pool_proj"
  param {
    lr_mult: 1
    decay_mult: 1
  }
  param {
    lr_mult: 2
    decay_mult: 0
  }
  convolution_param {
    num_output: 64
    kernel_size: 1
    weight_filler {
      type: "xavier"
      std: 0.1
    }
    bias_filler {
      type: "constant"
      value: 0.2
    }
  }
}
layer {
  name: "inception_3b/relu_pool_proj"
  type: "ReLU"
  bottom: "inception_3b/pool_proj"
  top: "inception_3b/pool_proj"
}
layer {
  name: "inception_3b/output"
  type: "Concat"
  bottom: "inception_3b/1x1"
  bottom: "inception_3b/3x3"
  bottom: "inception_3b/5x5"
  bottom: "inception_3b/pool_proj"
  top: "inception_3b/output"
}
layer {
  name: "pool3/3x3_s2"
  type: "Pooling"
  bottom: "inception_3b/output"
  top: "pool3/3x3_s2"
  pooling_param {
    pool: MAX
    kernel_size: 3
    stride: 2
  }
}
layer {
  name: "inception_4a/1x1"
  type: "Convolution"
  bottom: "pool3/3x3_s2"
  top: "inception_4a/1x1"
  param {
    lr_mult: 1
    decay_mult: 1
  }
  param {
    lr_mult: 2
    decay_mult: 0
  }
  convolution_param {
    num_output: 192
    kernel_size: 1
    weight_filler {
      type: "xavier"
      std: 0.03
    }
    bias_filler {
      type: "constant"
      value: 0.2
    }
  }
}
layer {
  name: "inception_4a/relu_1x1"
  type: "ReLU"
  bottom: "inception_4a/1x1"
  top: "inception_4a/1x1"
}
layer {
  name: "inception_4a/3x3_reduce"
  type: "Convolution"
  bottom: "pool3/3x3_s2"
  top: "inception_4a/3x3_reduce"
  param {
    lr_mult: 1
    decay_mult: 1
  }
  param {
    lr_mult: 2
    decay_mult: 0
  }
  convolution_param {
    num_output: 96
    kernel_size: 1
    weight_filler {
      type: "xavier"
      std: 0.09
    }
    bias_filler {
      type: "constant"
      value: 0.2
    }
  }
}
layer {
  name: "inception_4a/relu_3x3_reduce"
  type: "ReLU"
  bottom: "inception_4a/3x3_reduce"
  top: "inception_4a/3x3_reduce"
}
layer {
  name: "inception_4a/3x3"
  type: "Convolution"
  bottom: "inception_4a/3x3_reduce"
  top: "inception_4a/3x3"
  param {
    lr_mult: 1
    decay_mult: 1
  }
  param {
    lr_mult: 2
    decay_mult: 0
  }
  convolution_param {
    num_output: 208
    pad: 1
    kernel_size: 3
    weight_filler {
      type: "xavier"
      std: 0.03
    }
    bias_filler {
      type: "constant"
      value: 0.2
    }
  }
}
layer {
  name: "inception_4a/relu_3x3"
  type: "ReLU"
  bottom: "inception_4a/3x3"
  top: "inception_4a/3x3"
}
layer {
  name: "inception_4a/5x5_reduce"
  type: "Convolution"
  bottom: "pool3/3x3_s2"
  top: "inception_4a/5x5_reduce"
  param {
    lr_mult: 1
    decay_mult: 1
  }
  param {
    lr_mult: 2
    decay_mult: 0
  }
  convolution_param {
    num_output: 16
    kernel_size: 1
    weight_filler {
      type: "xavier"
      std: 0.2
    }
    bias_filler {
      type: "constant"
      value: 0.2
    }
  }
}
layer {
  name: "inception_4a/relu_5x5_reduce"
  type: "ReLU"
  bottom: "inception_4a/5x5_reduce"
  top: "inception_4a/5x5_reduce"
}
layer {
  name: "inception_4a/5x5"
  type: "Convolution"
  bottom: "inception_4a/5x5_reduce"
  top: "inception_4a/5x5"
  param {
    lr_mult: 1
    decay_mult: 1
  }
  param {
    lr_mult: 2
    decay_mult: 0
  }
  convolution_param {
    num_output: 48
    pad: 2
    kernel_size: 5
    weight_filler {
      type: "xavier"
      std: 0.03
    }
    bias_filler {
      type: "constant"
      value: 0.2
    }
  }
}
layer {
  name: "inception_4a/relu_5x5"
  type: "ReLU"
  bottom: "inception_4a/5x5"
  top: "inception_4a/5x5"
}
layer {
  name: "inception_4a/pool"
  type: "Pooling"
  bottom: "pool3/3x3_s2"
  top: "inception_4a/pool"
  pooling_param {
    pool: MAX
    kernel_size: 3
    stride: 1
    pad: 1
  }
}
layer {
  name: "inception_4a/pool_proj"
  type: "Convolution"
  bottom: "inception_4a/pool"
  top: "inception_4a/pool_proj"
  param {
    lr_mult: 1
    decay_mult: 1
  }
  param {
    lr_mult: 2
    decay_mult: 0
  }
  convolution_param {
    num_output: 64
    kernel_size: 1
    weight_filler {
      type: "xavier"
      std: 0.1
    }
    bias_filler {
      type: "constant"
      value: 0.2
    }
  }
}
layer {
  name: "inception_4a/relu_pool_proj"
  type: "ReLU"
  bottom: "inception_4a/pool_proj"
  top: "inception_4a/pool_proj"
}
layer {
  name: "inception_4a/output"
  type: "Concat"
  bottom: "inception_4a/1x1"
  bottom: "inception_4a/3x3"
  bottom: "inception_4a/5x5"
  bottom: "inception_4a/pool_proj"
  top: "inception_4a/output"
}
layer {
  name: "loss1/ave_pool"
  type: "Pooling"
  bottom: "inception_4a/output"
  top: "loss1/ave_pool"
  pooling_param {
    pool: AVE
    kernel_size: 5
    stride: 3
  }
}
layer {
  name: "loss1/conv"
  type: "Convolution"
  bottom: "loss1/ave_pool"
  top: "loss1/conv"
  param {
    lr_mult: 1
    decay_mult: 1
  }
  param {
    lr_mult: 2
    decay_mult: 0
  }
  convolution_param {
    num_output: 128
    kernel_size: 1
    weight_filler {
      type: "xavier"
      std: 0.08
    }
    bias_filler {
      type: "constant"
      value: 0.2
    }
  }
}
layer {
  name: "loss1/relu_conv"
  type: "ReLU"
  bottom: "loss1/conv"
  top: "loss1/conv"
}
layer {
  name: "loss1/fc"
  type: "InnerProduct"
  bottom: "loss1/conv"
  top: "loss1/fc"
  param {
    lr_mult: 1
    decay_mult: 1
  }
  param {
    lr_mult: 2
    decay_mult: 0
  }
  inner_product_param {
    num_output: 1024
    weight_filler {
      type: "xavier"
      std: 0.02
    }
    bias_filler {
      type: "constant"
      value: 0.2
    }
  }
}
layer {
  name: "loss1/relu_fc"
  type: "ReLU"
  bottom: "loss1/fc"
  top: "loss1/fc"
}
layer {
  name: "loss1/drop_fc"
  type: "Dropout"
  bottom: "loss1/fc"
  top: "loss1/fc"
  dropout_param {
    dropout_ratio: 0.7
  }
}
layer {
  name: "loss1/classifier_plantvillage"
  type: "InnerProduct"
  bottom: "loss1/fc"
  top: "loss1/classifier_plantvillage"
  param {
    lr_mult: 1
    decay_mult: 1
  }
  param {
    lr_mult: 2
    decay_mult: 0
  }
  inner_product_param {
    num_output: 38
    weight_filler {
      type: "xavier"
      std: 0.0009765625
    }
    bias_filler {
      type: "constant"
      value: 0
    }
  }
}
layer {
  name: "inception_4b/1x1"
  type: "Convolution"
  bottom: "inception_4a/output"
  top: "inception_4b/1x1"
  param {
    lr_mult: 1
    decay_mult: 1
  }
  param {
    lr_mult: 2
    decay_mult: 0
  }
  convolution_param {
    num_output: 160
    kernel_size: 1
    weight_filler {
      type: "xavier"
      std: 0.03
    }
    bias_filler {
      type: "constant"
      value: 0.2
    }
  }
}
layer {
  name: "inception_4b/relu_1x1"
  type: "ReLU"
  bottom: "inception_4b/1x1"
  top: "inception_4b/1x1"
}
layer {
  name: "inception_4b/3x3_reduce"
  type: "Convolution"
  bottom: "inception_4a/output"
  top: "inception_4b/3x3_reduce"
  param {
    lr_mult: 1
    decay_mult: 1
  }
  param {
    lr_mult: 2
    decay_mult: 0
  }
  convolution_param {
    num_output: 112
    kernel_size: 1
    weight_filler {
      type: "xavier"
      std: 0.09
    }
    bias_filler {
      type: "constant"
      value: 0.2
    }
  }
}
layer {
  name: "inception_4b/relu_3x3_reduce"
  type: "ReLU"
  bottom: "inception_4b/3x3_reduce"
  top: "inception_4b/3x3_reduce"
}
layer {
  name: "inception_4b/3x3"
  type: "Convolution"
  bottom: "inception_4b/3x3_reduce"
  top: "inception_4b/3x3"
  param {
    lr_mult: 1
    decay_mult: 1
  }
  param {
    lr_mult: 2
    decay_mult: 0
  }
  convolution_param {
    num_output: 224
    pad: 1
    kernel_size: 3
    weight_filler {
      type: "xavier"
      std: 0.03
    }
    bias_filler {
      type: "constant"
      value: 0.2
    }
  }
}
layer {
  name: "inception_4b/relu_3x3"
  type: "ReLU"
  bottom: "inception_4b/3x3"
  top: "inception_4b/3x3"
}
layer {
  name: "inception_4b/5x5_reduce"
  type: "Convolution"
  bottom: "inception_4a/output"
  top: "inception_4b/5x5_reduce"
  param {
    lr_mult: 1
    decay_mult: 1
  }
  param {
    lr_mult: 2
    decay_mult: 0
  }
  convolution_param {
    num_output: 24
    kernel_size: 1
    weight_filler {
      type: "xavier"
      std: 0.2
    }
    bias_filler {
      type: "constant"
      value: 0.2
    }
  }
}
layer {
  name: "inception_4b/relu_5x5_reduce"
  type: "ReLU"
  bottom: "inception_4b/5x5_reduce"
  top: "inception_4b/5x5_reduce"
}
layer {
  name: "inception_4b/5x5"
  type: "Convolution"
  bottom: "inception_4b/5x5_reduce"
  top: "inception_4b/5x5"
  param {
    lr_mult: 1
    decay_mult: 1
  }
  param {
    lr_mult: 2
    decay_mult: 0
  }
  convolution_param {
    num_output: 64
    pad: 2
    kernel_size: 5
    weight_filler {
      type: "xavier"
      std: 0.03
    }
    bias_filler {
      type: "constant"
      value: 0.2
    }
  }
}
layer {
  name: "inception_4b/relu_5x5"
  type: "ReLU"
  bottom: "inception_4b/5x5"
  top: "inception_4b/5x5"
}
layer {
  name: "inception_4b/pool"
  type: "Pooling"
  bottom: "inception_4a/output"
  top: "inception_4b/pool"
  pooling_param {
    pool: MAX
    kernel_size: 3
    stride: 1
    pad: 1
  }
}
layer {
  name: "inception_4b/pool_proj"
  type: "Convolution"
  bottom: "inception_4b/pool"
  top: "inception_4b/pool_proj"
  param {
    lr_mult: 1
    decay_mult: 1
  }
  param {
    lr_mult: 2
    decay_mult: 0
  }
  convolution_param {
    num_output: 64
    kernel_size: 1
    weight_filler {
      type: "xavier"
      std: 0.1
    }
    bias_filler {
      type: "constant"
      value: 0.2
    }
  }
}
layer {
  name: "inception_4b/relu_pool_proj"
  type: "ReLU"
  bottom: "inception_4b/pool_proj"
  top: "inception_4b/pool_proj"
}
layer {
  name: "inception_4b/output"
  type: "Concat"
  bottom: "inception_4b/1x1"
  bottom: "inception_4b/3x3"
  bottom: "inception_4b/5x5"
  bottom: "inception_4b/pool_proj"
  top: "inception_4b/output"
}
layer {
  name: "inception_4c/1x1"
  type: "Convolution"
  bottom: "inception_4b/output"
  top: "inception_4c/1x1"
  param {
    lr_mult: 1
    decay_mult: 1
  }
  param {
    lr_mult: 2
    decay_mult: 0
  }
  convolution_param {
    num_output: 128
    kernel_size: 1
    weight_filler {
      type: "xavier"
      std: 0.03
    }
    bias_filler {
      type: "constant"
      value: 0.2
    }
  }
}
layer {
  name: "inception_4c/relu_1x1"
  type: "ReLU"
  bottom: "inception_4c/1x1"
  top: "inception_4c/1x1"
}
layer {
  name: "inception_4c/3x3_reduce"
  type: "Convolution"
  bottom: "inception_4b/output"
  top: "inception_4c/3x3_reduce"
  param {
    lr_mult: 1
    decay_mult: 1
  }
  param {
    lr_mult: 2
    decay_mult: 0
  }
  convolution_param {
    num_output: 128
    kernel_size: 1
    weight_filler {
      type: "xavier"
      std: 0.09
    }
    bias_filler {
      type: "constant"
      value: 0.2
    }
  }
}
layer {
  name: "inception_4c/relu_3x3_reduce"
  type: "ReLU"
  bottom: "inception_4c/3x3_reduce"
  top: "inception_4c/3x3_reduce"
}
layer {
  name: "inception_4c/3x3"
  type: "Convolution"
  bottom: "inception_4c/3x3_reduce"
  top: "inception_4c/3x3"
  param {
    lr_mult: 1
    decay_mult: 1
  }
  param {
    lr_mult: 2
    decay_mult: 0
  }
  convolution_param {
    num_output: 256
    pad: 1
    kernel_size: 3
    weight_filler {
      type: "xavier"
      std: 0.03
    }
    bias_filler {
      type: "constant"
      value: 0.2
    }
  }
}
layer {
  name: "inception_4c/relu_3x3"
  type: "ReLU"
  bottom: "inception_4c/3x3"
  top: "inception_4c/3x3"
}
layer {
  name: "inception_4c/5x5_reduce"
  type: "Convolution"
  bottom: "inception_4b/output"
  top: "inception_4c/5x5_reduce"
  param {
    lr_mult: 1
    decay_mult: 1
  }
  param {
    lr_mult: 2
    decay_mult: 0
  }
  convolution_param {
    num_output: 24
    kernel_size: 1
    weight_filler {
      type: "xavier"
      std: 0.2
    }
    bias_filler {
      type: "constant"
      value: 0.2
    }
  }
}
layer {
  name: "inception_4c/relu_5x5_reduce"
  type: "ReLU"
  bottom: "inception_4c/5x5_reduce"
  top: "inception_4c/5x5_reduce"
}
layer {
  name: "inception_4c/5x5"
  type: "Convolution"
  bottom: "inception_4c/5x5_reduce"
  top: "inception_4c/5x5"
  param {
    lr_mult: 1
    decay_mult: 1
  }
  param {
    lr_mult: 2
    decay_mult: 0
  }
  convolution_param {
    num_output: 64
    pad: 2
    kernel_size: 5
    weight_filler {
      type: "xavier"
      std: 0.03
    }
    bias_filler {
      type: "constant"
      value: 0.2
    }
  }
}
layer {
  name: "inception_4c/relu_5x5"
  type: "ReLU"
  bottom: "inception_4c/5x5"
  top: "inception_4c/5x5"
}
layer {
  name: "inception_4c/pool"
  type: "Pooling"
  bottom: "inception_4b/output"
  top: "inception_4c/pool"
  pooling_param {
    pool: MAX
    kernel_size: 3
    stride: 1
    pad: 1
  }
}
layer {
  name: "inception_4c/pool_proj"
  type: "Convolution"
  bottom: "inception_4c/pool"
  top: "inception_4c/pool_proj"
  param {
    lr_mult: 1
    decay_mult: 1
  }
  param {
    lr_mult: 2
    decay_mult: 0
  }
  convolution_param {
    num_output: 64
    kernel_size: 1
    weight_filler {
      type: "xavier"
      std: 0.1
    }
    bias_filler {
      type: "constant"
      value: 0.2
    }
  }
}
layer {
  name: "inception_4c/relu_pool_proj"
  type: "ReLU"
  bottom: "inception_4c/pool_proj"
  top: "inception_4c/pool_proj"
}
layer {
  name: "inception_4c/output"
  type: "Concat"
  bottom: "inception_4c/1x1"
  bottom: "inception_4c/3x3"
  bottom: "inception_4c/5x5"
  bottom: "inception_4c/pool_proj"
  top: "inception_4c/output"
}
layer {
  name: "inception_4d/1x1"
  type: "Convolution"
  bottom: "inception_4c/output"
  top: "inception_4d/1x1"
  param {
    lr_mult: 1
    decay_mult: 1
  }
  param {
    lr_mult: 2
    decay_mult: 0
  }
  convolution_param {
    num_output: 112
    kernel_size: 1
    weight_filler {
      type: "xavier"
      std: 0.03
    }
    bias_filler {
      type: "constant"
      value: 0.2
    }
  }
}
layer {
  name: "inception_4d/relu_1x1"
  type: "ReLU"
  bottom: "inception_4d/1x1"
  top: "inception_4d/1x1"
}
layer {
  name: "inception_4d/3x3_reduce"
  type: "Convolution"
  bottom: "inception_4c/output"
  top: "inception_4d/3x3_reduce"
  param {
    lr_mult: 1
    decay_mult: 1
  }
  param {
    lr_mult: 2
    decay_mult: 0
  }
  convolution_param {
    num_output: 144
    kernel_size: 1
    weight_filler {
      type: "xavier"
      std: 0.09
    }
    bias_filler {
      type: "constant"
      value: 0.2
    }
  }
}
layer {
  name: "inception_4d/relu_3x3_reduce"
  type: "ReLU"
  bottom: "inception_4d/3x3_reduce"
  top: "inception_4d/3x3_reduce"
}
layer {
  name: "inception_4d/3x3"
  type: "Convolution"
  bottom: "inception_4d/3x3_reduce"
  top: "inception_4d/3x3"
  param {
    lr_mult: 1
    decay_mult: 1
  }
  param {
    lr_mult: 2
    decay_mult: 0
  }
  convolution_param {
    num_output: 288
    pad: 1
    kernel_size: 3
    weight_filler {
      type: "xavier"
      std: 0.03
    }
    bias_filler {
      type: "constant"
      value: 0.2
    }
  }
}
layer {
  name: "inception_4d/relu_3x3"
  type: "ReLU"
  bottom: "inception_4d/3x3"
  top: "inception_4d/3x3"
}
layer {
  name: "inception_4d/5x5_reduce"
  type: "Convolution"
  bottom: "inception_4c/output"
  top: "inception_4d/5x5_reduce"
  param {
    lr_mult: 1
    decay_mult: 1
  }
  param {
    lr_mult: 2
    decay_mult: 0
  }
  convolution_param {
    num_output: 32
    kernel_size: 1
    weight_filler {
      type: "xavier"
      std: 0.2
    }
    bias_filler {
      type: "constant"
      value: 0.2
    }
  }
}
layer {
  name: "inception_4d/relu_5x5_reduce"
  type: "ReLU"
  bottom: "inception_4d/5x5_reduce"
  top: "inception_4d/5x5_reduce"
}
layer {
  name: "inception_4d/5x5"
  type: "Convolution"
  bottom: "inception_4d/5x5_reduce"
  top: "inception_4d/5x5"
  param {
    lr_mult: 1
    decay_mult: 1
  }
  param {
    lr_mult: 2
    decay_mult: 0
  }
  convolution_param {
    num_output: 64
    pad: 2
    kernel_size: 5
    weight_filler {
      type: "xavier"
      std: 0.03
    }
    bias_filler {
      type: "constant"
      value: 0.2
    }
  }
}
layer {
  name: "inception_4d/relu_5x5"
  type: "ReLU"
  bottom: "inception_4d/5x5"
  top: "inception_4d/5x5"
}
layer {
  name: "inception_4d/pool"
  type: "Pooling"
  bottom: "inception_4c/output"
  top: "inception_4d/pool"
  pooling_param {
    pool: MAX
    kernel_size: 3
    stride: 1
    pad: 1
  }
}
layer {
  name: "inception_4d/pool_proj"
  type: "Convolution"
  bottom: "inception_4d/pool"
  top: "inception_4d/pool_proj"
  param {
    lr_mult: 1
    decay_mult: 1
  }
  param {
    lr_mult: 2
    decay_mult: 0
  }
  convolution_param {
    num_output: 64
    kernel_size: 1
    weight_filler {
      type: "xavier"
      std: 0.1
    }
    bias_filler {
      type: "constant"
      value: 0.2
    }
  }
}
layer {
  name: "inception_4d/relu_pool_proj"
  type: "ReLU"
  bottom: "inception_4d/pool_proj"
  top: "inception_4d/pool_proj"
}
layer {
  name: "inception_4d/output"
  type: "Concat"
  bottom: "inception_4d/1x1"
  bottom: "inception_4d/3x3"
  bottom: "inception_4d/5x5"
  bottom: "inception_4d/pool_proj"
  top: "inception_4d/output"
}
layer {
  name: "loss2/ave_pool"
  type: "Pooling"
  bottom: "inception_4d/output"
  top: "loss2/ave_pool"
  pooling_param {
    pool: AVE
    kernel_size: 5
    stride: 3
  }
}
layer {
  name: "loss2/conv"
  type: "Convolution"
  bottom: "loss2/ave_pool"
  top: "loss2/conv"
  param {
    lr_mult: 1
    decay_mult: 1
  }
  param {
    lr_mult: 2
    decay_mult: 0
  }
  convolution_param {
    num_output: 128
    kernel_size: 1
    weight_filler {
      type: "xavier"
      std: 0.08
    }
    bias_filler {
      type: "constant"
      value: 0.2
    }
  }
}
layer {
  name: "loss2/relu_conv"
  type: "ReLU"
  bottom: "loss2/conv"
  top: "loss2/conv"
}
layer {
  name: "loss2/fc"
  type: "InnerProduct"
  bottom: "loss2/conv"
  top: "loss2/fc"
  param {
    lr_mult: 1
    decay_mult: 1
  }
  param {
    lr_mult: 2
    decay_mult: 0
  }
  inner_product_param {
    num_output: 1024
    weight_filler {
      type: "xavier"
      std: 0.02
    }
    bias_filler {
      type: "constant"
      value: 0.2
    }
  }
}
layer {
  name: "loss2/relu_fc"
  type: "ReLU"
  bottom: "loss2/fc"
  top: "loss2/fc"
}
layer {
  name: "loss2/drop_fc"
  type: "Dropout"
  bottom: "loss2/fc"
  top: "loss2/fc"
  dropout_param {
    dropout_ratio: 0.7
  }
}
layer {
  name: "loss2/classifier_plantvillage"
  type: "InnerProduct"
  bottom: "loss2/fc"
  top: "loss2/classifier_plantvillage"
  param {
    lr_mult: 1
    decay_mult: 1
  }
  param {
    lr_mult: 2
    decay_mult: 0
  }
  inner_product_param {
    num_output: 38
    weight_filler {
      type: "xavier"
      std: 0.0009765625
    }
    bias_filler {
      type: "constant"
      value: 0
    }
  }
}
layer {
  name: "inception_4e/1x1"
  type: "Convolution"
  bottom: "inception_4d/output"
  top: "inception_4e/1x1"
  param {
    lr_mult: 1
    decay_mult: 1
  }
  param {
    lr_mult: 2
    decay_mult: 0
  }
  convolution_param {
    num_output: 256
    kernel_size: 1
    weight_filler {
      type: "xavier"
      std: 0.03
    }
    bias_filler {
      type: "constant"
      value: 0.2
    }
  }
}
layer {
  name: "inception_4e/relu_1x1"
  type: "ReLU"
  bottom: "inception_4e/1x1"
  top: "inception_4e/1x1"
}
layer {
  name: "inception_4e/3x3_reduce"
  type: "Convolution"
  bottom: "inception_4d/output"
  top: "inception_4e/3x3_reduce"
  param {
    lr_mult: 1
    decay_mult: 1
  }
  param {
    lr_mult: 2
    decay_mult: 0
  }
  convolution_param {
    num_output: 160
    kernel_size: 1
    weight_filler {
      type: "xavier"
      std: 0.09
    }
    bias_filler {
      type: "constant"
      value: 0.2
    }
  }
}
layer {
  name: "inception_4e/relu_3x3_reduce"
  type: "ReLU"
  bottom: "inception_4e/3x3_reduce"
  top: "inception_4e/3x3_reduce"
}
layer {
  name: "inception_4e/3x3"
  type: "Convolution"
  bottom: "inception_4e/3x3_reduce"
  top: "inception_4e/3x3"
  param {
    lr_mult: 1
    decay_mult: 1
  }
  param {
    lr_mult: 2
    decay_mult: 0
  }
  convolution_param {
    num_output: 320
    pad: 1
    kernel_size: 3
    weight_filler {
      type: "xavier"
      std: 0.03
    }
    bias_filler {
      type: "constant"
      value: 0.2
    }
  }
}
layer {
  name: "inception_4e/relu_3x3"
  type: "ReLU"
  bottom: "inception_4e/3x3"
  top: "inception_4e/3x3"
}
layer {
  name: "inception_4e/5x5_reduce"
  type: "Convolution"
  bottom: "inception_4d/output"
  top: "inception_4e/5x5_reduce"
  param {
    lr_mult: 1
    decay_mult: 1
  }
  param {
    lr_mult: 2
    decay_mult: 0
  }
  convolution_param {
    num_output: 32
    kernel_size: 1
    weight_filler {
      type: "xavier"
      std: 0.2
    }
    bias_filler {
      type: "constant"
      value: 0.2
    }
  }
}
layer {
  name: "inception_4e/relu_5x5_reduce"
  type: "ReLU"
  bottom: "inception_4e/5x5_reduce"
  top: "inception_4e/5x5_reduce"
}
layer {
  name: "inception_4e/5x5"
  type: "Convolution"
  bottom: "inception_4e/5x5_reduce"
  top: "inception_4e/
I0403 15:57:18.848377 16549 layer_factory.hpp:77] Creating layer data
I0403 15:57:18.848997 16549 net.cpp:91] Creating Layer data
I0403 15:57:18.849030 16549 net.cpp:399] data -> data
I0403 15:57:18.849082 16549 net.cpp:399] data -> label
I0403 15:57:18.849120 16549 data_transformer.cpp:25] Loading mean file from: /home/mohanty/data/final_dataset/lmdb/segmented-20-80/mean.binaryproto
I0403 15:57:18.850235 16552 db_lmdb.cpp:38] Opened lmdb /home/mohanty/data/final_dataset/lmdb/segmented-20-80/test_db
I0403 15:57:18.862367 16549 data_layer.cpp:41] output data size: 24,3,224,224
I0403 15:57:18.890015 16549 net.cpp:141] Setting up data
I0403 15:57:18.890089 16549 net.cpp:148] Top shape: 24 3 224 224 (3612672)
I0403 15:57:18.890112 16549 net.cpp:148] Top shape: 24 (24)
I0403 15:57:18.890128 16549 net.cpp:156] Memory required for data: 14450784
I0403 15:57:18.890156 16549 layer_factory.hpp:77] Creating layer label_data_1_split
I0403 15:57:18.890182 16549 net.cpp:91] Creating Layer label_data_1_split
I0403 15:57:18.890208 16549 net.cpp:425] label_data_1_split <- label
I0403 15:57:18.890242 16549 net.cpp:399] label_data_1_split -> label_data_1_split_0
I0403 15:57:18.890271 16549 net.cpp:399] label_data_1_split -> label_data_1_split_1
I0403 15:57:18.890295 16549 net.cpp:399] label_data_1_split -> label_data_1_split_2
I0403 15:57:18.890316 16549 net.cpp:399] label_data_1_split -> label_data_1_split_3
I0403 15:57:18.890337 16549 net.cpp:399] label_data_1_split -> label_data_1_split_4
I0403 15:57:18.890358 16549 net.cpp:399] label_data_1_split -> label_data_1_split_5
I0403 15:57:18.890379 16549 net.cpp:399] label_data_1_split -> label_data_1_split_6
I0403 15:57:18.890400 16549 net.cpp:399] label_data_1_split -> label_data_1_split_7
I0403 15:57:18.890421 16549 net.cpp:399] label_data_1_split -> label_data_1_split_8
I0403 15:57:18.890444 16549 net.cpp:399] label_data_1_split -> label_data_1_split_9
I0403 15:57:18.890566 16549 net.cpp:141] Setting up label_data_1_split
I0403 15:57:18.890595 16549 net.cpp:148] Top shape: 24 (24)
I0403 15:57:18.890612 16549 net.cpp:148] Top shape: 24 (24)
I0403 15:57:18.890630 16549 net.cpp:148] Top shape: 24 (24)
I0403 15:57:18.890645 16549 net.cpp:148] Top shape: 24 (24)
I0403 15:57:18.890661 16549 net.cpp:148] Top shape: 24 (24)
I0403 15:57:18.890677 16549 net.cpp:148] Top shape: 24 (24)
I0403 15:57:18.890692 16549 net.cpp:148] Top shape: 24 (24)
I0403 15:57:18.890709 16549 net.cpp:148] Top shape: 24 (24)
I0403 15:57:18.890724 16549 net.cpp:148] Top shape: 24 (24)
I0403 15:57:18.890740 16549 net.cpp:148] Top shape: 24 (24)
I0403 15:57:18.890787 16549 net.cpp:156] Memory required for data: 14451744
I0403 15:57:18.890805 16549 layer_factory.hpp:77] Creating layer conv1/7x7_s2
I0403 15:57:18.890836 16549 net.cpp:91] Creating Layer conv1/7x7_s2
I0403 15:57:18.890856 16549 net.cpp:425] conv1/7x7_s2 <- data
I0403 15:57:18.890875 16549 net.cpp:399] conv1/7x7_s2 -> conv1/7x7_s2
I0403 15:57:19.036429 16549 net.cpp:141] Setting up conv1/7x7_s2
I0403 15:57:19.036484 16549 net.cpp:148] Top shape: 24 64 112 112 (19267584)
I0403 15:57:19.036501 16549 net.cpp:156] Memory required for data: 91522080
I0403 15:57:19.036532 16549 layer_factory.hpp:77] Creating layer conv1/relu_7x7
I0403 15:57:19.036558 16549 net.cpp:91] Creating Layer conv1/relu_7x7
I0403 15:57:19.036582 16549 net.cpp:425] conv1/relu_7x7 <- conv1/7x7_s2
I0403 15:57:19.036602 16549 net.cpp:386] conv1/relu_7x7 -> conv1/7x7_s2 (in-place)
I0403 15:57:19.036861 16549 net.cpp:141] Setting up conv1/relu_7x7
I0403 15:57:19.036895 16549 net.cpp:148] Top shape: 24 64 112 112 (19267584)
I0403 15:57:19.036911 16549 net.cpp:156] Memory required for data: 168592416
I0403 15:57:19.036926 16549 layer_factory.hpp:77] Creating layer pool1/3x3_s2
I0403 15:57:19.036950 16549 net.cpp:91] Creating Layer pool1/3x3_s2
I0403 15:57:19.036968 16549 net.cpp:425] pool1/3x3_s2 <- conv1/7x7_s2
I0403 15:57:19.036986 16549 net.cpp:399] pool1/3x3_s2 -> pool1/3x3_s2
I0403 15:57:19.037060 16549 net.cpp:141] Setting up pool1/3x3_s2
I0403 15:57:19.037083 16549 net.cpp:148] Top shape: 24 64 56 56 (4816896)
I0403 15:57:19.037098 16549 net.cpp:156] Memory required for data: 187860000
I0403 15:57:19.037112 16549 layer_factory.hpp:77] Creating layer pool1/norm1
I0403 15:57:19.037143 16549 net.cpp:91] Creating Layer pool1/norm1
I0403 15:57:19.037161 16549 net.cpp:425] pool1/norm1 <- pool1/3x3_s2
I0403 15:57:19.037178 16549 net.cpp:399] pool1/norm1 -> pool1/norm1
I0403 15:57:19.037472 16549 net.cpp:141] Setting up pool1/norm1
I0403 15:57:19.037498 16549 net.cpp:148] Top shape: 24 64 56 56 (4816896)
I0403 15:57:19.037514 16549 net.cpp:156] Memory required for data: 207127584
I0403 15:57:19.037529 16549 layer_factory.hpp:77] Creating layer conv2/3x3_reduce
I0403 15:57:19.037554 16549 net.cpp:91] Creating Layer conv2/3x3_reduce
I0403 15:57:19.037575 16549 net.cpp:425] conv2/3x3_reduce <- pool1/norm1
I0403 15:57:19.037595 16549 net.cpp:399] conv2/3x3_reduce -> conv2/3x3_reduce
I0403 15:57:19.038915 16549 net.cpp:141] Setting up conv2/3x3_reduce
I0403 15:57:19.038944 16549 net.cpp:148] Top shape: 24 64 56 56 (4816896)
I0403 15:57:19.038960 16549 net.cpp:156] Memory required for data: 226395168
I0403 15:57:19.038982 16549 layer_factory.hpp:77] Creating layer conv2/relu_3x3_reduce
I0403 15:57:19.039001 16549 net.cpp:91] Creating Layer conv2/relu_3x3_reduce
I0403 15:57:19.039016 16549 net.cpp:425] conv2/relu_3x3_reduce <- conv2/3x3_reduce
I0403 15:57:19.039033 16549 net.cpp:386] conv2/relu_3x3_reduce -> conv2/3x3_reduce (in-place)
I0403 15:57:19.039299 16549 net.cpp:141] Setting up conv2/relu_3x3_reduce
I0403 15:57:19.039325 16549 net.cpp:148] Top shape: 24 64 56 56 (4816896)
I0403 15:57:19.039341 16549 net.cpp:156] Memory required for data: 245662752
I0403 15:57:19.039356 16549 layer_factory.hpp:77] Creating layer conv2/3x3
I0403 15:57:19.039377 16549 net.cpp:91] Creating Layer conv2/3x3
I0403 15:57:19.039394 16549 net.cpp:425] conv2/3x3 <- conv2/3x3_reduce
I0403 15:57:19.039413 16549 net.cpp:399] conv2/3x3 -> conv2/3x3
I0403 15:57:19.041622 16549 net.cpp:141] Setting up conv2/3x3
I0403 15:57:19.041653 16549 net.cpp:148] Top shape: 24 192 56 56 (14450688)
I0403 15:57:19.041671 16549 net.cpp:156] Memory required for data: 303465504
I0403 15:57:19.041692 16549 layer_factory.hpp:77] Creating layer conv2/relu_3x3
I0403 15:57:19.041710 16549 net.cpp:91] Creating Layer conv2/relu_3x3
I0403 15:57:19.041726 16549 net.cpp:425] conv2/relu_3x3 <- conv2/3x3
I0403 15:57:19.041744 16549 net.cpp:386] conv2/relu_3x3 -> conv2/3x3 (in-place)
I0403 15:57:19.041905 16549 net.cpp:141] Setting up conv2/relu_3x3
I0403 15:57:19.041930 16549 net.cpp:148] Top shape: 24 192 56 56 (14450688)
I0403 15:57:19.041985 16549 net.cpp:156] Memory required for data: 361268256
I0403 15:57:19.042012 16549 layer_factory.hpp:77] Creating layer conv2/norm2
I0403 15:57:19.042032 16549 net.cpp:91] Creating Layer conv2/norm2
I0403 15:57:19.042048 16549 net.cpp:425] conv2/norm2 <- conv2/3x3
I0403 15:57:19.042067 16549 net.cpp:399] conv2/norm2 -> conv2/norm2
I0403 15:57:19.042366 16549 net.cpp:141] Setting up conv2/norm2
I0403 15:57:19.042392 16549 net.cpp:148] Top shape: 24 192 56 56 (14450688)
I0403 15:57:19.042408 16549 net.cpp:156] Memory required for data: 419071008
I0403 15:57:19.042423 16549 layer_factory.hpp:77] Creating layer pool2/3x3_s2
I0403 15:57:19.042441 16549 net.cpp:91] Creating Layer pool2/3x3_s2
I0403 15:57:19.042456 16549 net.cpp:425] pool2/3x3_s2 <- conv2/norm2
I0403 15:57:19.042474 16549 net.cpp:399] pool2/3x3_s2 -> pool2/3x3_s2
I0403 15:57:19.042522 16549 net.cpp:141] Setting up pool2/3x3_s2
I0403 15:57:19.042546 16549 net.cpp:148] Top shape: 24 192 28 28 (3612672)
I0403 15:57:19.042559 16549 net.cpp:156] Memory required for data: 433521696
I0403 15:57:19.042579 16549 layer_factory.hpp:77] Creating layer pool2/3x3_s2_pool2/3x3_s2_0_split
I0403 15:57:19.042599 16549 net.cpp:91] Creating Layer pool2/3x3_s2_pool2/3x3_s2_0_split
I0403 15:57:19.042614 16549 net.cpp:425] pool2/3x3_s2_pool2/3x3_s2_0_split <- pool2/3x3_s2
I0403 15:57:19.042631 16549 net.cpp:399] pool2/3x3_s2_pool2/3x3_s2_0_split -> pool2/3x3_s2_pool2/3x3_s2_0_split_0
I0403 15:57:19.042651 16549 net.cpp:399] pool2/3x3_s2_pool2/3x3_s2_0_split -> pool2/3x3_s2_pool2/3x3_s2_0_split_1
I0403 15:57:19.042671 16549 net.cpp:399] pool2/3x3_s2_pool2/3x3_s2_0_split -> pool2/3x3_s2_pool2/3x3_s2_0_split_2
I0403 15:57:19.042692 16549 net.cpp:399] pool2/3x3_s2_pool2/3x3_s2_0_split -> pool2/3x3_s2_pool2/3x3_s2_0_split_3
I0403 15:57:19.042755 16549 net.cpp:141] Setting up pool2/3x3_s2_pool2/3x3_s2_0_split
I0403 15:57:19.042776 16549 net.cpp:148] Top shape: 24 192 28 28 (3612672)
I0403 15:57:19.042793 16549 net.cpp:148] Top shape: 24 192 28 28 (3612672)
I0403 15:57:19.042809 16549 net.cpp:148] Top shape: 24 192 28 28 (3612672)
I0403 15:57:19.042824 16549 net.cpp:148] Top shape: 24 192 28 28 (3612672)
I0403 15:57:19.042837 16549 net.cpp:156] Memory required for data: 491324448
I0403 15:57:19.042851 16549 layer_factory.hpp:77] Creating layer inception_3a/1x1
I0403 15:57:19.042871 16549 net.cpp:91] Creating Layer inception_3a/1x1
I0403 15:57:19.042888 16549 net.cpp:425] inception_3a/1x1 <- pool2/3x3_s2_pool2/3x3_s2_0_split_0
I0403 15:57:19.042906 16549 net.cpp:399] inception_3a/1x1 -> inception_3a/1x1
I0403 15:57:19.044358 16549 net.cpp:141] Setting up inception_3a/1x1
I0403 15:57:19.044389 16549 net.cpp:148] Top shape: 24 64 28 28 (1204224)
I0403 15:57:19.044404 16549 net.cpp:156] Memory required for data: 496141344
I0403 15:57:19.044422 16549 layer_factory.hpp:77] Creating layer inception_3a/relu_1x1
I0403 15:57:19.044441 16549 net.cpp:91] Creating Layer inception_3a/relu_1x1
I0403 15:57:19.044456 16549 net.cpp:425] inception_3a/relu_1x1 <- inception_3a/1x1
I0403 15:57:19.044474 16549 net.cpp:386] inception_3a/relu_1x1 -> inception_3a/1x1 (in-place)
I0403 15:57:19.044663 16549 net.cpp:141] Setting up inception_3a/relu_1x1
I0403 15:57:19.044692 16549 net.cpp:148] Top shape: 24 64 28 28 (1204224)
I0403 15:57:19.044708 16549 net.cpp:156] Memory required for data: 500958240
I0403 15:57:19.044723 16549 layer_factory.hpp:77] Creating layer inception_3a/3x3_reduce
I0403 15:57:19.044744 16549 net.cpp:91] Creating Layer inception_3a/3x3_reduce
I0403 15:57:19.044761 16549 net.cpp:425] inception_3a/3x3_reduce <- pool2/3x3_s2_pool2/3x3_s2_0_split_1
I0403 15:57:19.044780 16549 net.cpp:399] inception_3a/3x3_reduce -> inception_3a/3x3_reduce
I0403 15:57:19.046532 16549 net.cpp:141] Setting up inception_3a/3x3_reduce
I0403 15:57:19.046563 16549 net.cpp:148] Top shape: 24 96 28 28 (1806336)
I0403 15:57:19.046586 16549 net.cpp:156] Memory required for data: 508183584
I0403 15:57:19.046612 16549 layer_factory.hpp:77] Creating layer inception_3a/relu_3x3_reduce
I0403 15:57:19.046648 16549 net.cpp:91] Creating Layer inception_3a/relu_3x3_reduce
I0403 15:57:19.046665 16549 net.cpp:425] inception_3a/relu_3x3_reduce <- inception_3a/3x3_reduce
I0403 15:57:19.046686 16549 net.cpp:386] inception_3a/relu_3x3_reduce -> inception_3a/3x3_reduce (in-place)
I0403 15:57:19.046874 16549 net.cpp:141] Setting up inception_3a/relu_3x3_reduce
I0403 15:57:19.046900 16549 net.cpp:148] Top shape: 24 96 28 28 (1806336)
I0403 15:57:19.046914 16549 net.cpp:156] Memory required for data: 515408928
I0403 15:57:19.046929 16549 layer_factory.hpp:77] Creating layer inception_3a/3x3
I0403 15:57:19.046952 16549 net.cpp:91] Creating Layer inception_3a/3x3
I0403 15:57:19.046970 16549 net.cpp:425] inception_3a/3x3 <- inception_3a/3x3_reduce
I0403 15:57:19.046993 16549 net.cpp:399] inception_3a/3x3 -> inception_3a/3x3
I0403 15:57:19.048688 16549 net.cpp:141] Setting up inception_3a/3x3
I0403 15:57:19.048720 16549 net.cpp:148] Top shape: 24 128 28 28 (2408448)
I0403 15:57:19.048738 16549 net.cpp:156] Memory required for data: 525042720
I0403 15:57:19.048755 16549 layer_factory.hpp:77] Creating layer inception_3a/relu_3x3
I0403 15:57:19.048774 16549 net.cpp:91] Creating Layer inception_3a/relu_3x3
I0403 15:57:19.048791 16549 net.cpp:425] inception_3a/relu_3x3 <- inception_3a/3x3
I0403 15:57:19.048811 16549 net.cpp:386] inception_3a/relu_3x3 -> inception_3a/3x3 (in-place)
I0403 15:57:19.049095 16549 net.cpp:141] Setting up inception_3a/relu_3x3
I0403 15:57:19.049125 16549 net.cpp:148] Top shape: 24 128 28 28 (2408448)
I0403 15:57:19.049142 16549 net.cpp:156] Memory required for data: 534676512
I0403 15:57:19.049157 16549 layer_factory.hpp:77] Creating layer inception_3a/5x5_reduce
I0403 15:57:19.049180 16549 net.cpp:91] Creating Layer inception_3a/5x5_reduce
I0403 15:57:19.049198 16549 net.cpp:425] inception_3a/5x5_reduce <- pool2/3x3_s2_pool2/3x3_s2_0_split_2
I0403 15:57:19.049218 16549 net.cpp:399] inception_3a/5x5_reduce -> inception_3a/5x5_reduce
I0403 15:57:19.050622 16549 net.cpp:141] Setting up inception_3a/5x5_reduce
I0403 15:57:19.050652 16549 net.cpp:148] Top shape: 24 16 28 28 (301056)
I0403 15:57:19.050669 16549 net.cpp:156] Memory required for data: 535880736
I0403 15:57:19.050688 16549 layer_factory.hpp:77] Creating layer inception_3a/relu_5x5_reduce
I0403 15:57:19.050706 16549 net.cpp:91] Creating Layer inception_3a/relu_5x5_reduce
I0403 15:57:19.050724 16549 net.cpp:425] inception_3a/relu_5x5_reduce <- inception_3a/5x5_reduce
I0403 15:57:19.050743 16549 net.cpp:386] inception_3a/relu_5x5_reduce -> inception_3a/5x5_reduce (in-place)
I0403 15:57:19.051050 16549 net.cpp:141] Setting up inception_3a/relu_5x5_reduce
I0403 15:57:19.051077 16549 net.cpp:148] Top shape: 24 16 28 28 (301056)
I0403 15:57:19.051093 16549 net.cpp:156] Memory required for data: 537084960
I0403 15:57:19.051108 16549 layer_factory.hpp:77] Creating layer inception_3a/5x5
I0403 15:57:19.051131 16549 net.cpp:91] Creating Layer inception_3a/5x5
I0403 15:57:19.051149 16549 net.cpp:425] inception_3a/5x5 <- inception_3a/5x5_reduce
I0403 15:57:19.051172 16549 net.cpp:399] inception_3a/5x5 -> inception_3a/5x5
I0403 15:57:19.052244 16549 net.cpp:141] Setting up inception_3a/5x5
I0403 15:57:19.052278 16549 net.cpp:148] Top shape: 24 32 28 28 (602112)
I0403 15:57:19.052294 16549 net.cpp:156] Memory required for data: 539493408
I0403 15:57:19.052314 16549 layer_factory.hpp:77] Creating layer inception_3a/relu_5x5
I0403 15:57:19.052331 16549 net.cpp:91] Creating Layer inception_3a/relu_5x5
I0403 15:57:19.052347 16549 net.cpp:425] inception_3a/relu_5x5 <- inception_3a/5x5
I0403 15:57:19.052366 16549 net.cpp:386] inception_3a/relu_5x5 -> inception_3a/5x5 (in-place)
I0403 15:57:19.052561 16549 net.cpp:141] Setting up inception_3a/relu_5x5
I0403 15:57:19.052590 16549 net.cpp:148] Top shape: 24 32 28 28 (602112)
I0403 15:57:19.052608 16549 net.cpp:156] Memory required for data: 541901856
I0403 15:57:19.052626 16549 layer_factory.hpp:77] Creating layer inception_3a/pool
I0403 15:57:19.052645 16549 net.cpp:91] Creating Layer inception_3a/pool
I0403 15:57:19.052677 16549 net.cpp:425] inception_3a/pool <- pool2/3x3_s2_pool2/3x3_s2_0_split_3
I0403 15:57:19.052700 16549 net.cpp:399] inception_3a/pool -> inception_3a/pool
I0403 15:57:19.052760 16549 net.cpp:141] Setting up inception_3a/pool
I0403 15:57:19.052788 16549 net.cpp:148] Top shape: 24 192 28 28 (3612672)
I0403 15:57:19.052803 16549 net.cpp:156] Memory required for data: 556352544
I0403 15:57:19.052819 16549 layer_factory.hpp:77] Creating layer inception_3a/pool_proj
I0403 15:57:19.052848 16549 net.cpp:91] Creating Layer inception_3a/pool_proj
I0403 15:57:19.052866 16549 net.cpp:425] inception_3a/pool_proj <- inception_3a/pool
I0403 15:57:19.052887 16549 net.cpp:399] inception_3a/pool_proj -> inception_3a/pool_proj
I0403 15:57:19.053906 16549 net.cpp:141] Setting up inception_3a/pool_proj
I0403 15:57:19.053936 16549 net.cpp:148] Top shape: 24 32 28 28 (602112)
I0403 15:57:19.053951 16549 net.cpp:156] Memory required for data: 558760992
I0403 15:57:19.053977 16549 layer_factory.hpp:77] Creating layer inception_3a/relu_pool_proj
I0403 15:57:19.053997 16549 net.cpp:91] Creating Layer inception_3a/relu_pool_proj
I0403 15:57:19.054013 16549 net.cpp:425] inception_3a/relu_pool_proj <- inception_3a/pool_proj
I0403 15:57:19.054033 16549 net.cpp:386] inception_3a/relu_pool_proj -> inception_3a/pool_proj (in-place)
I0403 15:57:19.054318 16549 net.cpp:141] Setting up inception_3a/relu_pool_proj
I0403 15:57:19.054347 16549 net.cpp:148] Top shape: 24 32 28 28 (602112)
I0403 15:57:19.054363 16549 net.cpp:156] Memory required for data: 561169440
I0403 15:57:19.054378 16549 layer_factory.hpp:77] Creating layer inception_3a/output
I0403 15:57:19.054396 16549 net.cpp:91] Creating Layer inception_3a/output
I0403 15:57:19.054412 16549 net.cpp:425] inception_3a/output <- inception_3a/1x1
I0403 15:57:19.054430 16549 net.cpp:425] inception_3a/output <- inception_3a/3x3
I0403 15:57:19.054445 16549 net.cpp:425] inception_3a/output <- inception_3a/5x5
I0403 15:57:19.054461 16549 net.cpp:425] inception_3a/output <- inception_3a/pool_proj
I0403 15:57:19.054479 16549 net.cpp:399] inception_3a/output -> inception_3a/output
I0403 15:57:19.054527 16549 net.cpp:141] Setting up inception_3a/output
I0403 15:57:19.054551 16549 net.cpp:148] Top shape: 24 256 28 28 (4816896)
I0403 15:57:19.054566 16549 net.cpp:156] Memory required for data: 580437024
I0403 15:57:19.054595 16549 layer_factory.hpp:77] Creating layer inception_3a/output_inception_3a/output_0_split
I0403 15:57:19.054616 16549 net.cpp:91] Creating Layer inception_3a/output_inception_3a/output_0_split
I0403 15:57:19.054632 16549 net.cpp:425] inception_3a/output_inception_3a/output_0_split <- inception_3a/output
I0403 15:57:19.054651 16549 net.cpp:399] inception_3a/output_inception_3a/output_0_split -> inception_3a/output_inception_3a/output_0_split_0
I0403 15:57:19.054672 16549 net.cpp:399] inception_3a/output_inception_3a/output_0_split -> inception_3a/output_inception_3a/output_0_split_1
I0403 15:57:19.054697 16549 net.cpp:399] inception_3a/output_inception_3a/output_0_split -> inception_3a/output_inception_3a/output_0_split_2
I0403 15:57:19.054718 16549 net.cpp:399] inception_3a/output_inception_3a/output_0_split -> inception_3a/output_inception_3a/output_0_split_3
I0403 15:57:19.054795 16549 net.cpp:141] Setting up inception_3a/output_inception_3a/output_0_split
I0403 15:57:19.054819 16549 net.cpp:148] Top shape: 24 256 28 28 (4816896)
I0403 15:57:19.054836 16549 net.cpp:148] Top shape: 24 256 28 28 (4816896)
I0403 15:57:19.054852 16549 net.cpp:148] Top shape: 24 256 28 28 (4816896)
I0403 15:57:19.054867 16549 net.cpp:148] Top shape: 24 256 28 28 (4816896)
I0403 15:57:19.054882 16549 net.cpp:156] Memory required for data: 657507360
I0403 15:57:19.054899 16549 layer_factory.hpp:77] Creating layer inception_3b/1x1
I0403 15:57:19.054934 16549 net.cpp:91] Creating Layer inception_3b/1x1
I0403 15:57:19.054960 16549 net.cpp:425] inception_3b/1x1 <- inception_3a/output_inception_3a/output_0_split_0
I0403 15:57:19.054980 16549 net.cpp:399] inception_3b/1x1 -> inception_3b/1x1
I0403 15:57:19.056148 16549 net.cpp:141] Setting up inception_3b/1x1
I0403 15:57:19.056187 16549 net.cpp:148] Top shape: 24 128 28 28 (2408448)
I0403 15:57:19.056205 16549 net.cpp:156] Memory required for data: 667141152
I0403 15:57:19.056223 16549 layer_factory.hpp:77] Creating layer inception_3b/relu_1x1
I0403 15:57:19.056244 16549 net.cpp:91] Creating Layer inception_3b/relu_1x1
I0403 15:57:19.056262 16549 net.cpp:425] inception_3b/relu_1x1 <- inception_3b/1x1
I0403 15:57:19.056280 16549 net.cpp:386] inception_3b/relu_1x1 -> inception_3b/1x1 (in-place)
I0403 15:57:19.056459 16549 net.cpp:141] Setting up inception_3b/relu_1x1
I0403 15:57:19.056488 16549 net.cpp:148] Top shape: 24 128 28 28 (2408448)
I0403 15:57:19.056504 16549 net.cpp:156] Memory required for data: 676774944
I0403 15:57:19.056519 16549 layer_factory.hpp:77] Creating layer inception_3b/3x3_reduce
I0403 15:57:19.056541 16549 net.cpp:91] Creating Layer inception_3b/3x3_reduce
I0403 15:57:19.056562 16549 net.cpp:425] inception_3b/3x3_reduce <- inception_3a/output_inception_3a/output_0_split_1
I0403 15:57:19.056591 16549 net.cpp:399] inception_3b/3x3_reduce -> inception_3b/3x3_reduce
I0403 15:57:19.057761 16549 net.cpp:141] Setting up inception_3b/3x3_reduce
I0403 15:57:19.057790 16549 net.cpp:148] Top shape: 24 128 28 28 (2408448)
I0403 15:57:19.057807 16549 net.cpp:156] Memory required for data: 686408736
I0403 15:57:19.057826 16549 layer_factory.hpp:77] Creating layer inception_3b/relu_3x3_reduce
I0403 15:57:19.057847 16549 net.cpp:91] Creating Layer inception_3b/relu_3x3_reduce
I0403 15:57:19.057863 16549 net.cpp:425] inception_3b/relu_3x3_reduce <- inception_3b/3x3_reduce
I0403 15:57:19.057881 16549 net.cpp:386] inception_3b/relu_3x3_reduce -> inception_3b/3x3_reduce (in-place)
I0403 15:57:19.058063 16549 net.cpp:141] Setting up inception_3b/relu_3x3_reduce
I0403 15:57:19.058090 16549 net.cpp:148] Top shape: 24 128 28 28 (2408448)
I0403 15:57:19.058106 16549 net.cpp:156] Memory required for data: 696042528
I0403 15:57:19.058120 16549 layer_factory.hpp:77] Creating layer inception_3b/3x3
I0403 15:57:19.058145 16549 net.cpp:91] Creating Layer inception_3b/3x3
I0403 15:57:19.058163 16549 net.cpp:425] inception_3b/3x3 <- inception_3b/3x3_reduce
I0403 15:57:19.058187 16549 net.cpp:399] inception_3b/3x3 -> inception_3b/3x3
I0403 15:57:19.061215 16549 net.cpp:141] Setting up inception_3b/3x3
I0403 15:57:19.061247 16549 net.cpp:148] Top shape: 24 192 28 28 (3612672)
I0403 15:57:19.061274 16549 net.cpp:156] Memory required for data: 710493216
I0403 15:57:19.061292 16549 layer_factory.hpp:77] Creating layer inception_3b/relu_3x3
I0403 15:57:19.061311 16549 net.cpp:91] Creating Layer inception_3b/relu_3x3
I0403 15:57:19.061326 16549 net.cpp:425] inception_3b/relu_3x3 <- inception_3b/3x3
I0403 15:57:19.061347 16549 net.cpp:386] inception_3b/relu_3x3 -> inception_3b/3x3 (in-place)
I0403 15:57:19.061635 16549 net.cpp:141] Setting up inception_3b/relu_3x3
I0403 15:57:19.061666 16549 net.cpp:148] Top shape: 24 192 28 28 (3612672)
I0403 15:57:19.061681 16549 net.cpp:156] Memory required for data: 724943904
I0403 15:57:19.061697 16549 layer_factory.hpp:77] Creating layer inception_3b/5x5_reduce
I0403 15:57:19.061719 16549 net.cpp:91] Creating Layer inception_3b/5x5_reduce
I0403 15:57:19.061738 16549 net.cpp:425] inception_3b/5x5_reduce <- inception_3a/output_inception_3a/output_0_split_2
I0403 15:57:19.061758 16549 net.cpp:399] inception_3b/5x5_reduce -> inception_3b/5x5_reduce
I0403 15:57:19.062788 16549 net.cpp:141] Setting up inception_3b/5x5_reduce
I0403 15:57:19.062819 16549 net.cpp:148] Top shape: 24 32 28 28 (602112)
I0403 15:57:19.062835 16549 net.cpp:156] Memory required for data: 727352352
I0403 15:57:19.062854 16549 layer_factory.hpp:77] Creating layer inception_3b/relu_5x5_reduce
I0403 15:57:19.062872 16549 net.cpp:91] Creating Layer inception_3b/relu_5x5_reduce
I0403 15:57:19.062887 16549 net.cpp:425] inception_3b/relu_5x5_reduce <- inception_3b/5x5_reduce
I0403 15:57:19.062913 16549 net.cpp:386] inception_3b/relu_5x5_reduce -> inception_3b/5x5_reduce (in-place)
I0403 15:57:19.063120 16549 net.cpp:141] Setting up inception_3b/relu_5x5_reduce
I0403 15:57:19.063146 16549 net.cpp:148] Top shape: 24 32 28 28 (602112)
I0403 15:57:19.063163 16549 net.cpp:156] Memory required for data: 729760800
I0403 15:57:19.063176 16549 layer_factory.hpp:77] Creating layer inception_3b/5x5
I0403 15:57:19.063199 16549 net.cpp:91] Creating Layer inception_3b/5x5
I0403 15:57:19.063217 16549 net.cpp:425] inception_3b/5x5 <- inception_3b/5x5_reduce
I0403 15:57:19.063238 16549 net.cpp:399] inception_3b/5x5 -> inception_3b/5x5
I0403 15:57:19.065287 16549 net.cpp:141] Setting up inception_3b/5x5
I0403 15:57:19.065317 16549 net.cpp:148] Top shape: 24 96 28 28 (1806336)
I0403 15:57:19.065335 16549 net.cpp:156] Memory required for data: 736986144
I0403 15:57:19.065352 16549 layer_factory.hpp:77] Creating layer inception_3b/relu_5x5
I0403 15:57:19.065372 16549 net.cpp:91] Creating Layer inception_3b/relu_5x5
I0403 15:57:19.065390 16549 net.cpp:425] inception_3b/relu_5x5 <- inception_3b/5x5
I0403 15:57:19.065408 16549 net.cpp:386] inception_3b/relu_5x5 -> inception_3b/5x5 (in-place)
I0403 15:57:19.065613 16549 net.cpp:141] Setting up inception_3b/relu_5x5
I0403 15:57:19.065639 16549 net.cpp:148] Top shape: 24 96 28 28 (1806336)
I0403 15:57:19.065654 16549 net.cpp:156] Memory required for data: 744211488
I0403 15:57:19.065668 16549 layer_factory.hpp:77] Creating layer inception_3b/pool
I0403 15:57:19.065686 16549 net.cpp:91] Creating Layer inception_3b/pool
I0403 15:57:19.065702 16549 net.cpp:425] inception_3b/pool <- inception_3a/output_inception_3a/output_0_split_3
I0403 15:57:19.065721 16549 net.cpp:399] inception_3b/pool -> inception_3b/pool
I0403 15:57:19.065778 16549 net.cpp:141] Setting up inception_3b/pool
I0403 15:57:19.065801 16549 net.cpp:148] Top shape: 24 256 28 28 (4816896)
I0403 15:57:19.065816 16549 net.cpp:156] Memory required for data: 763479072
I0403 15:57:19.065831 16549 layer_factory.hpp:77] Creating layer inception_3b/pool_proj
I0403 15:57:19.065855 16549 net.cpp:91] Creating Layer inception_3b/pool_proj
I0403 15:57:19.065874 16549 net.cpp:425] inception_3b/pool_proj <- inception_3b/pool
I0403 15:57:19.065896 16549 net.cpp:399] inception_3b/pool_proj -> inception_3b/pool_proj
I0403 15:57:19.067006 16549 net.cpp:141] Setting up inception_3b/pool_proj
I0403 15:57:19.067035 16549 net.cpp:148] Top shape: 24 64 28 28 (1204224)
I0403 15:57:19.067051 16549 net.cpp:156] Memory required for data: 768295968
I0403 15:57:19.067070 16549 layer_factory.hpp:77] Creating layer inception_3b/relu_pool_proj
I0403 15:57:19.067090 16549 net.cpp:91] Creating Layer inception_3b/relu_pool_proj
I0403 15:57:19.067108 16549 net.cpp:425] inception_3b/relu_pool_proj <- inception_3b/pool_proj
I0403 15:57:19.067126 16549 net.cpp:386] inception_3b/relu_pool_proj -> inception_3b/pool_proj (in-place)
I0403 15:57:19.067535 16549 net.cpp:141] Setting up inception_3b/relu_pool_proj
I0403 15:57:19.067562 16549 net.cpp:148] Top shape: 24 64 28 28 (1204224)
I0403 15:57:19.067582 16549 net.cpp:156] Memory required for data: 773112864
I0403 15:57:19.067598 16549 layer_factory.hpp:77] Creating layer inception_3b/output
I0403 15:57:19.067618 16549 net.cpp:91] Creating Layer inception_3b/output
I0403 15:57:19.067646 16549 net.cpp:425] inception_3b/output <- inception_3b/1x1
I0403 15:57:19.067667 16549 net.cpp:425] inception_3b/output <- inception_3b/3x3
I0403 15:57:19.067683 16549 net.cpp:425] inception_3b/output <- inception_3b/5x5
I0403 15:57:19.067699 16549 net.cpp:425] inception_3b/output <- inception_3b/pool_proj
I0403 15:57:19.067719 16549 net.cpp:399] inception_3b/output -> inception_3b/output
I0403 15:57:19.067764 16549 net.cpp:141] Setting up inception_3b/output
I0403 15:57:19.067790 16549 net.cpp:148] Top shape: 24 480 28 28 (9031680)
I0403 15:57:19.067806 16549 net.cpp:156] Memory required for data: 809239584
I0403 15:57:19.067821 16549 layer_factory.hpp:77] Creating layer pool3/3x3_s2
I0403 15:57:19.067839 16549 net.cpp:91] Creating Layer pool3/3x3_s2
I0403 15:57:19.067854 16549 net.cpp:425] pool3/3x3_s2 <- inception_3b/output
I0403 15:57:19.067889 16549 net.cpp:399] pool3/3x3_s2 -> pool3/3x3_s2
I0403 15:57:19.067950 16549 net.cpp:141] Setting up pool3/3x3_s2
I0403 15:57:19.067975 16549 net.cpp:148] Top shape: 24 480 14 14 (2257920)
I0403 15:57:19.067993 16549 net.cpp:156] Memory required for data: 818271264
I0403 15:57:19.068007 16549 layer_factory.hpp:77] Creating layer pool3/3x3_s2_pool3/3x3_s2_0_split
I0403 15:57:19.068024 16549 net.cpp:91] Creating Layer pool3/3x3_s2_pool3/3x3_s2_0_split
I0403 15:57:19.068039 16549 net.cpp:425] pool3/3x3_s2_pool3/3x3_s2_0_split <- pool3/3x3_s2
I0403 15:57:19.068059 16549 net.cpp:399] pool3/3x3_s2_pool3/3x3_s2_0_split -> pool3/3x3_s2_pool3/3x3_s2_0_split_0
I0403 15:57:19.068080 16549 net.cpp:399] pool3/3x3_s2_pool3/3x3_s2_0_split -> pool3/3x3_s2_pool3/3x3_s2_0_split_1
I0403 15:57:19.068101 16549 net.cpp:399] pool3/3x3_s2_pool3/3x3_s2_0_split -> pool3/3x3_s2_pool3/3x3_s2_0_split_2
I0403 15:57:19.068125 16549 net.cpp:399] pool3/3x3_s2_pool3/3x3_s2_0_split -> pool3/3x3_s2_pool3/3x3_s2_0_split_3
I0403 15:57:19.068204 16549 net.cpp:141] Setting up pool3/3x3_s2_pool3/3x3_s2_0_split
I0403 15:57:19.068228 16549 net.cpp:148] Top shape: 24 480 14 14 (2257920)
I0403 15:57:19.068244 16549 net.cpp:148] Top shape: 24 480 14 14 (2257920)
I0403 15:57:19.068262 16549 net.cpp:148] Top shape: 24 480 14 14 (2257920)
I0403 15:57:19.068279 16549 net.cpp:148] Top shape: 24 480 14 14 (2257920)
I0403 15:57:19.068291 16549 net.cpp:156] Memory required for data: 854397984
I0403 15:57:19.068306 16549 layer_factory.hpp:77] Creating layer inception_4a/1x1
I0403 15:57:19.068330 16549 net.cpp:91] Creating Layer inception_4a/1x1
I0403 15:57:19.068347 16549 net.cpp:425] inception_4a/1x1 <- pool3/3x3_s2_pool3/3x3_s2_0_split_0
I0403 15:57:19.068369 16549 net.cpp:399] inception_4a/1x1 -> inception_4a/1x1
I0403 15:57:19.069996 16549 net.cpp:141] Setting up inception_4a/1x1
I0403 15:57:19.070024 16549 net.cpp:148] Top shape: 24 192 14 14 (903168)
I0403 15:57:19.070041 16549 net.cpp:156] Memory required for data: 858010656
I0403 15:57:19.070060 16549 layer_factory.hpp:77] Creating layer inception_4a/relu_1x1
I0403 15:57:19.070081 16549 net.cpp:91] Creating Layer inception_4a/relu_1x1
I0403 15:57:19.070098 16549 net.cpp:425] inception_4a/relu_1x1 <- inception_4a/1x1
I0403 15:57:19.070116 16549 net.cpp:386] inception_4a/relu_1x1 -> inception_4a/1x1 (in-place)
I0403 15:57:19.070319 16549 net.cpp:141] Setting up inception_4a/relu_1x1
I0403 15:57:19.070346 16549 net.cpp:148] Top shape: 24 192 14 14 (903168)
I0403 15:57:19.070361 16549 net.cpp:156] Memory required for data: 861623328
I0403 15:57:19.070376 16549 layer_factory.hpp:77] Creating layer inception_4a/3x3_reduce
I0403 15:57:19.070402 16549 net.cpp:91] Creating Layer inception_4a/3x3_reduce
I0403 15:57:19.070421 16549 net.cpp:425] inception_4a/3x3_reduce <- pool3/3x3_s2_pool3/3x3_s2_0_split_1
I0403 15:57:19.070443 16549 net.cpp:399] inception_4a/3x3_reduce -> inception_4a/3x3_reduce
I0403 15:57:19.071795 16549 net.cpp:141] Setting up inception_4a/3x3_reduce
I0403 15:57:19.071823 16549 net.cpp:148] Top shape: 24 96 14 14 (451584)
I0403 15:57:19.071838 16549 net.cpp:156] Memory required for data: 863429664
I0403 15:57:19.071862 16549 layer_factory.hpp:77] Creating layer inception_4a/relu_3x3_reduce
I0403 15:57:19.071882 16549 net.cpp:91] Creating Layer inception_4a/relu_3x3_reduce
I0403 15:57:19.071899 16549 net.cpp:425] inception_4a/relu_3x3_reduce <- inception_4a/3x3_reduce
I0403 15:57:19.071919 16549 net.cpp:386] inception_4a/relu_3x3_reduce -> inception_4a/3x3_reduce (in-place)
I0403 15:57:19.072098 16549 net.cpp:141] Setting up inception_4a/relu_3x3_reduce
I0403 15:57:19.072123 16549 net.cpp:148] Top shape: 24 96 14 14 (451584)
I0403 15:57:19.072137 16549 net.cpp:156] Memory required for data: 865236000
I0403 15:57:19.072151 16549 layer_factory.hpp:77] Creating layer inception_4a/3x3
I0403 15:57:19.072173 16549 net.cpp:91] Creating Layer inception_4a/3x3
I0403 15:57:19.072192 16549 net.cpp:425] inception_4a/3x3 <- inception_4a/3x3_reduce
I0403 15:57:19.072213 16549 net.cpp:399] inception_4a/3x3 -> inception_4a/3x3
I0403 15:57:19.074914 16549 net.cpp:141] Setting up inception_4a/3x3
I0403 15:57:19.074944 16549 net.cpp:148] Top shape: 24 208 14 14 (978432)
I0403 15:57:19.074959 16549 net.cpp:156] Memory required for data: 869149728
I0403 15:57:19.074977 16549 layer_factory.hpp:77] Creating layer inception_4a/relu_3x3
I0403 15:57:19.074998 16549 net.cpp:91] Creating Layer inception_4a/relu_3x3
I0403 15:57:19.075014 16549 net.cpp:425] inception_4a/relu_3x3 <- inception_4a/3x3
I0403 15:57:19.075031 16549 net.cpp:386] inception_4a/relu_3x3 -> inception_4a/3x3 (in-place)
I0403 15:57:19.075315 16549 net.cpp:141] Setting up inception_4a/relu_3x3
I0403 15:57:19.075341 16549 net.cpp:148] Top shape: 24 208 14 14 (978432)
I0403 15:57:19.075357 16549 net.cpp:156] Memory required for data: 873063456
I0403 15:57:19.075371 16549 layer_factory.hpp:77] Creating layer inception_4a/5x5_reduce
I0403 15:57:19.075393 16549 net.cpp:91] Creating Layer inception_4a/5x5_reduce
I0403 15:57:19.075410 16549 net.cpp:425] inception_4a/5x5_reduce <- pool3/3x3_s2_pool3/3x3_s2_0_split_2
I0403 15:57:19.075433 16549 net.cpp:399] inception_4a/5x5_reduce -> inception_4a/5x5_reduce
I0403 15:57:19.076477 16549 net.cpp:141] Setting up inception_4a/5x5_reduce
I0403 15:57:19.076506 16549 net.cpp:148] Top shape: 24 16 14 14 (75264)
I0403 15:57:19.076522 16549 net.cpp:156] Memory required for data: 873364512
I0403 15:57:19.076540 16549 layer_factory.hpp:77] Creating layer inception_4a/relu_5x5_reduce
I0403 15:57:19.076558 16549 net.cpp:91] Creating Layer inception_4a/relu_5x5_reduce
I0403 15:57:19.076581 16549 net.cpp:425] inception_4a/relu_5x5_reduce <- inception_4a/5x5_reduce
I0403 15:57:19.076601 16549 net.cpp:386] inception_4a/relu_5x5_reduce -> inception_4a/5x5_reduce (in-place)
I0403 15:57:19.076787 16549 net.cpp:141] Setting up inception_4a/relu_5x5_reduce
I0403 15:57:19.076812 16549 net.cpp:148] Top shape: 24 16 14 14 (75264)
I0403 15:57:19.076828 16549 net.cpp:156] Memory required for data: 873665568
I0403 15:57:19.076843 16549 layer_factory.hpp:77] Creating layer inception_4a/5x5
I0403 15:57:19.076864 16549 net.cpp:91] Creating Layer inception_4a/5x5
I0403 15:57:19.076889 16549 net.cpp:425] inception_4a/5x5 <- inception_4a/5x5_reduce
I0403 15:57:19.076910 16549 net.cpp:399] inception_4a/5x5 -> inception_4a/5x5
I0403 15:57:19.078078 16549 net.cpp:141] Setting up inception_4a/5x5
I0403 15:57:19.078107 16549 net.cpp:148] Top shape: 24 48 14 14 (225792)
I0403 15:57:19.078124 16549 net.cpp:156] Memory required for data: 874568736
I0403 15:57:19.078140 16549 layer_factory.hpp:77] Creating layer inception_4a/relu_5x5
I0403 15:57:19.078160 16549 net.cpp:91] Creating Layer inception_4a/relu_5x5
I0403 15:57:19.078176 16549 net.cpp:425] inception_4a/relu_5x5 <- inception_4a/5x5
I0403 15:57:19.078196 16549 net.cpp:386] inception_4a/relu_5x5 -> inception_4a/5x5 (in-place)
I0403 15:57:19.078388 16549 net.cpp:141] Setting up inception_4a/relu_5x5
I0403 15:57:19.078418 16549 net.cpp:148] Top shape: 24 48 14 14 (225792)
I0403 15:57:19.078434 16549 net.cpp:156] Memory required for data: 875471904
I0403 15:57:19.078449 16549 layer_factory.hpp:77] Creating layer inception_4a/pool
I0403 15:57:19.078469 16549 net.cpp:91] Creating Layer inception_4a/pool
I0403 15:57:19.078486 16549 net.cpp:425] inception_4a/pool <- pool3/3x3_s2_pool3/3x3_s2_0_split_3
I0403 15:57:19.078505 16549 net.cpp:399] inception_4a/pool -> inception_4a/pool
I0403 15:57:19.078572 16549 net.cpp:141] Setting up inception_4a/pool
I0403 15:57:19.078601 16549 net.cpp:148] Top shape: 24 480 14 14 (2257920)
I0403 15:57:19.078618 16549 net.cpp:156] Memory required for data: 884503584
I0403 15:57:19.078632 16549 layer_factory.hpp:77] Creating layer inception_4a/pool_proj
I0403 15:57:19.078655 16549 net.cpp:91] Creating Layer inception_4a/pool_proj
I0403 15:57:19.078672 16549 net.cpp:425] inception_4a/pool_proj <- inception_4a/pool
I0403 15:57:19.078698 16549 net.cpp:399] inception_4a/pool_proj -> inception_4a/pool_proj
I0403 15:57:19.079941 16549 net.cpp:141] Setting up inception_4a/pool_proj
I0403 15:57:19.079970 16549 net.cpp:148] Top shape: 24 64 14 14 (301056)
I0403 15:57:19.080001 16549 net.cpp:156] Memory required for data: 885707808
I0403 15:57:19.080023 16549 layer_factory.hpp:77] Creating layer inception_4a/relu_pool_proj
I0403 15:57:19.080044 16549 net.cpp:91] Creating Layer inception_4a/relu_pool_proj
I0403 15:57:19.080062 16549 net.cpp:425] inception_4a/relu_pool_proj <- inception_4a/pool_proj
I0403 15:57:19.080080 16549 net.cpp:386] inception_4a/relu_pool_proj -> inception_4a/pool_proj (in-place)
I0403 15:57:19.080381 16549 net.cpp:141] Setting up inception_4a/relu_pool_proj
I0403 15:57:19.080410 16549 net.cpp:148] Top shape: 24 64 14 14 (301056)
I0403 15:57:19.080425 16549 net.cpp:156] Memory required for data: 886912032
I0403 15:57:19.080440 16549 layer_factory.hpp:77] Creating layer inception_4a/output
I0403 15:57:19.080457 16549 net.cpp:91] Creating Layer inception_4a/output
I0403 15:57:19.080472 16549 net.cpp:425] inception_4a/output <- inception_4a/1x1
I0403 15:57:19.080489 16549 net.cpp:425] inception_4a/output <- inception_4a/3x3
I0403 15:57:19.080505 16549 net.cpp:425] inception_4a/output <- inception_4a/5x5
I0403 15:57:19.080521 16549 net.cpp:425] inception_4a/output <- inception_4a/pool_proj
I0403 15:57:19.080549 16549 net.cpp:399] inception_4a/output -> inception_4a/output
I0403 15:57:19.080600 16549 net.cpp:141] Setting up inception_4a/output
I0403 15:57:19.080627 16549 net.cpp:148] Top shape: 24 512 14 14 (2408448)
I0403 15:57:19.080643 16549 net.cpp:156] Memory required for data: 896545824
I0403 15:57:19.080657 16549 layer_factory.hpp:77] Creating layer inception_4a/output_inception_4a/output_0_split
I0403 15:57:19.080675 16549 net.cpp:91] Creating Layer inception_4a/output_inception_4a/output_0_split
I0403 15:57:19.080692 16549 net.cpp:425] inception_4a/output_inception_4a/output_0_split <- inception_4a/output
I0403 15:57:19.080711 16549 net.cpp:399] inception_4a/output_inception_4a/output_0_split -> inception_4a/output_inception_4a/output_0_split_0
I0403 15:57:19.080734 16549 net.cpp:399] inception_4a/output_inception_4a/output_0_split -> inception_4a/output_inception_4a/output_0_split_1
I0403 15:57:19.080754 16549 net.cpp:399] inception_4a/output_inception_4a/output_0_split -> inception_4a/output_inception_4a/output_0_split_2
I0403 15:57:19.080775 16549 net.cpp:399] inception_4a/output_inception_4a/output_0_split -> inception_4a/output_inception_4a/output_0_split_3
I0403 15:57:19.080796 16549 net.cpp:399] inception_4a/output_inception_4a/output_0_split -> inception_4a/output_inception_4a/output_0_split_4
I0403 15:57:19.080893 16549 net.cpp:141] Setting up inception_4a/output_inception_4a/output_0_split
I0403 15:57:19.080919 16549 net.cpp:148] Top shape: 24 512 14 14 (2408448)
I0403 15:57:19.080943 16549 net.cpp:148] Top shape: 24 512 14 14 (2408448)
I0403 15:57:19.080960 16549 net.cpp:148] Top shape: 24 512 14 14 (2408448)
I0403 15:57:19.080979 16549 net.cpp:148] Top shape: 24 512 14 14 (2408448)
I0403 15:57:19.080996 16549 net.cpp:148] Top shape: 24 512 14 14 (2408448)
I0403 15:57:19.081009 16549 net.cpp:156] Memory required for data: 944714784
I0403 15:57:19.081024 16549 layer_factory.hpp:77] Creating layer loss1/ave_pool
I0403 15:57:19.081043 16549 net.cpp:91] Creating Layer loss1/ave_pool
I0403 15:57:19.081058 16549 net.cpp:425] loss1/ave_pool <- inception_4a/output_inception_4a/output_0_split_0
I0403 15:57:19.081076 16549 net.cpp:399] loss1/ave_pool -> loss1/ave_pool
I0403 15:57:19.081298 16549 net.cpp:141] Setting up loss1/ave_pool
I0403 15:57:19.081326 16549 net.cpp:148] Top shape: 24 512 4 4 (196608)
I0403 15:57:19.081341 16549 net.cpp:156] Memory required for data: 945501216
I0403 15:57:19.081356 16549 layer_factory.hpp:77] Creating layer loss1/conv
I0403 15:57:19.081378 16549 net.cpp:91] Creating Layer loss1/conv
I0403 15:57:19.081396 16549 net.cpp:425] loss1/conv <- loss1/ave_pool
I0403 15:57:19.081418 16549 net.cpp:399] loss1/conv -> loss1/conv
I0403 15:57:19.082900 16549 net.cpp:141] Setting up loss1/conv
I0403 15:57:19.082931 16549 net.cpp:148] Top shape: 24 128 4 4 (49152)
I0403 15:57:19.082962 16549 net.cpp:156] Memory required for data: 945697824
I0403 15:57:19.082983 16549 layer_factory.hpp:77] Creating layer loss1/relu_conv
I0403 15:57:19.083011 16549 net.cpp:91] Creating Layer loss1/relu_conv
I0403 15:57:19.083029 16549 net.cpp:425] loss1/relu_conv <- loss1/conv
I0403 15:57:19.083045 16549 net.cpp:386] loss1/relu_conv -> loss1/conv (in-place)
I0403 15:57:19.083348 16549 net.cpp:141] Setting up loss1/relu_conv
I0403 15:57:19.083377 16549 net.cpp:148] Top shape: 24 128 4 4 (49152)
I0403 15:57:19.083395 16549 net.cpp:156] Memory required for data: 945894432
I0403 15:57:19.083410 16549 layer_factory.hpp:77] Creating layer loss1/fc
I0403 15:57:19.083433 16549 net.cpp:91] Creating Layer loss1/fc
I0403 15:57:19.083452 16549 net.cpp:425] loss1/fc <- loss1/conv
I0403 15:57:19.083473 16549 net.cpp:399] loss1/fc -> loss1/fc
I0403 15:57:19.101933 16549 net.cpp:141] Setting up loss1/fc
I0403 15:57:19.101965 16549 net.cpp:148] Top shape: 24 1024 (24576)
I0403 15:57:19.101981 16549 net.cpp:156] Memory required for data: 945992736
I0403 15:57:19.102000 16549 layer_factory.hpp:77] Creating layer loss1/relu_fc
I0403 15:57:19.102020 16549 net.cpp:91] Creating Layer loss1/relu_fc
I0403 15:57:19.102037 16549 net.cpp:425] loss1/relu_fc <- loss1/fc
I0403 15:57:19.102056 16549 net.cpp:386] loss1/relu_fc -> loss1/fc (in-place)
I0403 15:57:19.102267 16549 net.cpp:141] Setting up loss1/relu_fc
I0403 15:57:19.102293 16549 net.cpp:148] Top shape: 24 1024 (24576)
I0403 15:57:19.102308 16549 net.cpp:156] Memory required for data: 946091040
I0403 15:57:19.102322 16549 layer_factory.hpp:77] Creating layer loss1/drop_fc
I0403 15:57:19.102349 16549 net.cpp:91] Creating Layer loss1/drop_fc
I0403 15:57:19.102366 16549 net.cpp:425] loss1/drop_fc <- loss1/fc
I0403 15:57:19.102385 16549 net.cpp:386] loss1/drop_fc -> loss1/fc (in-place)
I0403 15:57:19.102437 16549 net.cpp:141] Setting up loss1/drop_fc
I0403 15:57:19.102460 16549 net.cpp:148] Top shape: 24 1024 (24576)
I0403 15:57:19.102474 16549 net.cpp:156] Memory required for data: 946189344
I0403 15:57:19.102489 16549 layer_factory.hpp:77] Creating layer loss1/classifier_plantvillage
I0403 15:57:19.102507 16549 net.cpp:91] Creating Layer loss1/classifier_plantvillage
I0403 15:57:19.102524 16549 net.cpp:425] loss1/classifier_plantvillage <- loss1/fc
I0403 15:57:19.102545 16549 net.cpp:399] loss1/classifier_plantvillage -> loss1/classifier_plantvillage
I0403 15:57:19.103471 16549 net.cpp:141] Setting up loss1/classifier_plantvillage
I0403 15:57:19.103500 16549 net.cpp:148] Top shape: 24 38 (912)
I0403 15:57:19.103518 16549 net.cpp:156] Memory required for data: 946192992
I0403 15:57:19.103535 16549 layer_factory.hpp:77] Creating layer loss1/classifier_plantvillage_loss1/classifier_plantvillage_0_split
I0403 15:57:19.103552 16549 net.cpp:91] Creating Layer loss1/classifier_plantvillage_loss1/classifier_plantvillage_0_split
I0403 15:57:19.103571 16549 net.cpp:425] loss1/classifier_plantvillage_loss1/classifier_plantvillage_0_split <- loss1/classifier_plantvillage
I0403 15:57:19.103590 16549 net.cpp:399] loss1/classifier_plantvillage_loss1/classifier_plantvillage_0_split -> loss1/classifier_plantvillage_loss1/classifier_plantvillage_0_split_0
I0403 15:57:19.103615 16549 net.cpp:399] loss1/classifier_plantvillage_loss1/classifier_plantvillage_0_split -> loss1/classifier_plantvillage_loss1/classifier_plantvillage_0_split_1
I0403 15:57:19.103636 16549 net.cpp:399] loss1/classifier_plantvillage_loss1/classifier_plantvillage_0_split -> loss1/classifier_plantvillage_loss1/classifier_plantvillage_0_split_2
I0403 15:57:19.103709 16549 net.cpp:141] Setting up loss1/classifier_plantvillage_loss1/classifier_plantvillage_0_split
I0403 15:57:19.103732 16549 net.cpp:148] Top shape: 24 38 (912)
I0403 15:57:19.103749 16549 net.cpp:148] Top shape: 24 38 (912)
I0403 15:57:19.103763 16549 net.cpp:148] Top shape: 24 38 (912)
I0403 15:57:19.103776 16549 net.cpp:156] Memory required for data: 946203936
I0403 15:57:19.103790 16549 layer_factory.hpp:77] Creating layer inception_4b/1x1
I0403 15:57:19.103811 16549 net.cpp:91] Creating Layer inception_4b/1x1
I0403 15:57:19.103844 16549 net.cpp:425] inception_4b/1x1 <- inception_4a/output_inception_4a/output_0_split_1
I0403 15:57:19.103868 16549 net.cpp:399] inception_4b/1x1 -> inception_4b/1x1
I0403 15:57:19.105546 16549 net.cpp:141] Setting up inception_4b/1x1
I0403 15:57:19.105583 16549 net.cpp:148] Top shape: 24 160 14 14 (752640)
I0403 15:57:19.105612 16549 net.cpp:156] Memory required for data: 949214496
I0403 15:57:19.105630 16549 layer_factory.hpp:77] Creating layer inception_4b/relu_1x1
I0403 15:57:19.105649 16549 net.cpp:91] Creating Layer inception_4b/relu_1x1
I0403 15:57:19.105664 16549 net.cpp:425] inception_4b/relu_1x1 <- inception_4b/1x1
I0403 15:57:19.105682 16549 net.cpp:386] inception_4b/relu_1x1 -> inception_4b/1x1 (in-place)
I0403 15:57:19.105872 16549 net.cpp:141] Setting up inception_4b/relu_1x1
I0403 15:57:19.105900 16549 net.cpp:148] Top shape: 24 160 14 14 (752640)
I0403 15:57:19.105928 16549 net.cpp:156] Memory required for data: 952225056
I0403 15:57:19.105944 16549 layer_factory.hpp:77] Creating layer inception_4b/3x3_reduce
I0403 15:57:19.105968 16549 net.cpp:91] Creating Layer inception_4b/3x3_reduce
I0403 15:57:19.105986 16549 net.cpp:425] inception_4b/3x3_reduce <- inception_4a/output_inception_4a/output_0_split_2
I0403 15:57:19.106009 16549 net.cpp:399] inception_4b/3x3_reduce -> inception_4b/3x3_reduce
I0403 15:57:19.107375 16549 net.cpp:141] Setting up inception_4b/3x3_reduce
I0403 15:57:19.107406 16549 net.cpp:148] Top shape: 24 112 14 14 (526848)
I0403 15:57:19.107424 16549 net.cpp:156] Memory required for data: 954332448
I0403 15:57:19.107441 16549 layer_factory.hpp:77] Creating layer inception_4b/relu_3x3_reduce
I0403 15:57:19.107460 16549 net.cpp:91] Creating Layer inception_4b/relu_3x3_reduce
I0403 15:57:19.107475 16549 net.cpp:425] inception_4b/relu_3x3_reduce <- inception_4b/3x3_reduce
I0403 15:57:19.107496 16549 net.cpp:386] inception_4b/relu_3x3_reduce -> inception_4b/3x3_reduce (in-place)
I0403 15:57:19.107784 16549 net.cpp:141] Setting up inception_4b/relu_3x3_reduce
I0403 15:57:19.107812 16549 net.cpp:148] Top shape: 24 112 14 14 (526848)
I0403 15:57:19.107828 16549 net.cpp:156] Memory required for data: 956439840
I0403 15:57:19.107843 16549 layer_factory.hpp:77] Creating layer inception_4b/3x3
I0403 15:57:19.107866 16549 net.cpp:91] Creating Layer inception_4b/3x3
I0403 15:57:19.107882 16549 net.cpp:425] inception_4b/3x3 <- inception_4b/3x3_reduce
I0403 15:57:19.107903 16549 net.cpp:399] inception_4b/3x3 -> inception_4b/3x3
I0403 15:57:19.110937 16549 net.cpp:141] Setting up inception_4b/3x3
I0403 15:57:19.110966 16549 net.cpp:148] Top shape: 24 224 14 14 (1053696)
I0403 15:57:19.110981 16549 net.cpp:156] Memory required for data: 960654624
I0403 15:57:19.111001 16549 layer_factory.hpp:77] Creating layer inception_4b/relu_3x3
I0403 15:57:19.111021 16549 net.cpp:91] Creating Layer inception_4b/relu_3x3
I0403 15:57:19.111037 16549 net.cpp:425] inception_4b/relu_3x3 <- inception_4b/3x3
I0403 15:57:19.111055 16549 net.cpp:386] inception_4b/relu_3x3 -> inception_4b/3x3 (in-place)
I0403 15:57:19.111245 16549 net.cpp:141] Setting up inception_4b/relu_3x3
I0403 15:57:19.111270 16549 net.cpp:148] Top shape: 24 224 14 14 (1053696)
I0403 15:57:19.111284 16549 net.cpp:156] Memory required for data: 964869408
I0403 15:57:19.111299 16549 layer_factory.hpp:77] Creating layer inception_4b/5x5_reduce
I0403 15:57:19.111325 16549 net.cpp:91] Creating Layer inception_4b/5x5_reduce
I0403 15:57:19.111341 16549 net.cpp:425] inception_4b/5x5_reduce <- inception_4a/output_inception_4a/output_0_split_3
I0403 15:57:19.111361 16549 net.cpp:399] inception_4b/5x5_reduce -> inception_4b/5x5_reduce
I0403 15:57:19.112488 16549 net.cpp:141] Setting up inception_4b/5x5_reduce
I0403 15:57:19.112519 16549 net.cpp:148] Top shape: 24 24 14 14 (112896)
I0403 15:57:19.112535 16549 net.cpp:156] Memory required for data: 965320992
I0403 15:57:19.112553 16549 layer_factory.hpp:77] Creating layer inception_4b/relu_5x5_reduce
I0403 15:57:19.112576 16549 net.cpp:91] Creating Layer inception_4b/relu_5x5_reduce
I0403 15:57:19.112609 16549 net.cpp:425] inception_4b/relu_5x5_reduce <- inception_4b/5x5_reduce
I0403 15:57:19.112632 16549 net.cpp:386] inception_4b/relu_5x5_reduce -> inception_4b/5x5_reduce (in-place)
I0403 15:57:19.112821 16549 net.cpp:141] Setting up inception_4b/relu_5x5_reduce
I0403 15:57:19.112846 16549 net.cpp:148] Top shape: 24 24 14 14 (112896)
I0403 15:57:19.112860 16549 net.cpp:156] Memory required for data: 965772576
I0403 15:57:19.112875 16549 layer_factory.hpp:77] Creating layer inception_4b/5x5
I0403 15:57:19.112896 16549 net.cpp:91] Creating Layer inception_4b/5x5
I0403 15:57:19.112915 16549 net.cpp:425] inception_4b/5x5 <- inception_4b/5x5_reduce
I0403 15:57:19.112936 16549 net.cpp:399] inception_4b/5x5 -> inception_4b/5x5
I0403 15:57:19.114183 16549 net.cpp:141] Setting up inception_4b/5x5
I0403 15:57:19.114213 16549 net.cpp:148] Top shape: 24 64 14 14 (301056)
I0403 15:57:19.114229 16549 net.cpp:156] Memory required for data: 966976800
I0403 15:57:19.114248 16549 layer_factory.hpp:77] Creating layer inception_4b/relu_5x5
I0403 15:57:19.114265 16549 net.cpp:91] Creating Layer inception_4b/relu_5x5
I0403 15:57:19.114280 16549 net.cpp:425] inception_4b/relu_5x5 <- inception_4b/5x5
I0403 15:57:19.114300 16549 net.cpp:386] inception_4b/relu_5x5 -> inception_4b/5x5 (in-place)
I0403 15:57:19.114604 16549 net.cpp:141] Setting up inception_4b/relu_5x5
I0403 15:57:19.114634 16549 net.cpp:148] Top shape: 24 64 14 14 (301056)
I0403 15:57:19.114651 16549 net.cpp:156] Memory required for data: 968181024
I0403 15:57:19.114666 16549 layer_factory.hpp:77] Creating layer inception_4b/pool
I0403 15:57:19.114684 16549 net.cpp:91] Creating Layer inception_4b/pool
I0403 15:57:19.114701 16549 net.cpp:425] inception_4b/pool <- inception_4a/output_inception_4a/output_0_split_4
I0403 15:57:19.114718 16549 net.cpp:399] inception_4b/pool -> inception_4b/pool
I0403 15:57:19.114784 16549 net.cpp:141] Setting up inception_4b/pool
I0403 15:57:19.114807 16549 net.cpp:148] Top shape: 24 512 14 14 (2408448)
I0403 15:57:19.114822 16549 net.cpp:156] Memory required for data: 977814816
I0403 15:57:19.114836 16549 layer_factory.hpp:77] Creating layer inception_4b/pool_proj
I0403 15:57:19.114858 16549 net.cpp:91] Creating Layer inception_4b/pool_proj
I0403 15:57:19.114881 16549 net.cpp:425] inception_4b/pool_proj <- inception_4b/pool
I0403 15:57:19.114902 16549 net.cpp:399] inception_4b/pool_proj -> inception_4b/pool_proj
I0403 15:57:19.116139 16549 net.cpp:141] Setting up inception_4b/pool_proj
I0403 15:57:19.116170 16549 net.cpp:148] Top shape: 24 64 14 14 (301056)
I0403 15:57:19.116188 16549 net.cpp:156] Memory required for data: 979019040
I0403 15:57:19.116205 16549 layer_factory.hpp:77] Creating layer inception_4b/relu_pool_proj
I0403 15:57:19.116224 16549 net.cpp:91] Creating Layer inception_4b/relu_pool_proj
I0403 15:57:19.116240 16549 net.cpp:425] inception_4b/relu_pool_proj <- inception_4b/pool_proj
I0403 15:57:19.116256 16549 net.cpp:386] inception_4b/relu_pool_proj -> inception_4b/pool_proj (in-place)
I0403 15:57:19.116446 16549 net.cpp:141] Setting up inception_4b/relu_pool_proj
I0403 15:57:19.116471 16549 net.cpp:148] Top shape: 24 64 14 14 (301056)
I0403 15:57:19.116485 16549 net.cpp:156] Memory required for data: 980223264
I0403 15:57:19.116500 16549 layer_factory.hpp:77] Creating layer inception_4b/output
I0403 15:57:19.116518 16549 net.cpp:91] Creating Layer inception_4b/output
I0403 15:57:19.116533 16549 net.cpp:425] inception_4b/output <- inception_4b/1x1
I0403 15:57:19.116554 16549 net.cpp:425] inception_4b/output <- inception_4b/3x3
I0403 15:57:19.116577 16549 net.cpp:425] inception_4b/output <- inception_4b/5x5
I0403 15:57:19.116596 16549 net.cpp:425] inception_4b/output <- inception_4b/pool_proj
I0403 15:57:19.116617 16549 net.cpp:399] inception_4b/output -> inception_4b/output
I0403 15:57:19.116663 16549 net.cpp:141] Setting up inception_4b/output
I0403 15:57:19.116688 16549 net.cpp:148] Top shape: 24 512 14 14 (2408448)
I0403 15:57:19.116704 16549 net.cpp:156] Memory required for data: 989857056
I0403 15:57:19.116734 16549 layer_factory.hpp:77] Creating layer inception_4b/output_inception_4b/output_0_split
I0403 15:57:19.116750 16549 net.cpp:91] Creating Layer inception_4b/output_inception_4b/output_0_split
I0403 15:57:19.116766 16549 net.cpp:425] inception_4b/output_inception_4b/output_0_split <- inception_4b/output
I0403 15:57:19.116786 16549 net.cpp:399] inception_4b/output_inception_4b/output_0_split -> inception_4b/output_inception_4b/output_0_split_0
I0403 15:57:19.116808 16549 net.cpp:399] inception_4b/output_inception_4b/output_0_split -> inception_4b/output_inception_4b/output_0_split_1
I0403 15:57:19.116828 16549 net.cpp:399] inception_4b/output_inception_4b/output_0_split -> inception_4b/output_inception_4b/output_0_split_2
I0403 15:57:19.116848 16549 net.cpp:399] inception_4b/output_inception_4b/output_0_split -> inception_4b/output_inception_4b/output_0_split_3
I0403 15:57:19.116931 16549 net.cpp:141] Setting up inception_4b/output_inception_4b/output_0_split
I0403 15:57:19.116955 16549 net.cpp:148] Top shape: 24 512 14 14 (2408448)
I0403 15:57:19.116972 16549 net.cpp:148] Top shape: 24 512 14 14 (2408448)
I0403 15:57:19.116987 16549 net.cpp:148] Top shape: 24 512 14 14 (2408448)
I0403 15:57:19.117002 16549 net.cpp:148] Top shape: 24 512 14 14 (2408448)
I0403 15:57:19.117017 16549 net.cpp:156] Memory required for data: 1028392224
I0403 15:57:19.117030 16549 layer_factory.hpp:77] Creating layer inception_4c/1x1
I0403 15:57:19.117051 16549 net.cpp:91] Creating Layer inception_4c/1x1
I0403 15:57:19.117069 16549 net.cpp:425] inception_4c/1x1 <- inception_4b/output_inception_4b/output_0_split_0
I0403 15:57:19.117090 16549 net.cpp:399] inception_4c/1x1 -> inception_4c/1x1
I0403 15:57:19.118582 16549 net.cpp:141] Setting up inception_4c/1x1
I0403 15:57:19.118609 16549 net.cpp:148] Top shape: 24 128 14 14 (602112)
I0403 15:57:19.118625 16549 net.cpp:156] Memory required for data: 1030800672
I0403 15:57:19.118643 16549 layer_factory.hpp:77] Creating layer inception_4c/relu_1x1
I0403 15:57:19.118664 16549 net.cpp:91] Creating Layer inception_4c/relu_1x1
I0403 15:57:19.118680 16549 net.cpp:425] inception_4c/relu_1x1 <- inception_4c/1x1
I0403 15:57:19.118697 16549 net.cpp:386] inception_4c/relu_1x1 -> inception_4c/1x1 (in-place)
I0403 15:57:19.118887 16549 net.cpp:141] Setting up inception_4c/relu_1x1
I0403 15:57:19.118914 16549 net.cpp:148] Top shape: 24 128 14 14 (602112)
I0403 15:57:19.118929 16549 net.cpp:156] Memory required for data: 1033209120
I0403 15:57:19.118943 16549 layer_factory.hpp:77] Creating layer inception_4c/3x3_reduce
I0403 15:57:19.118965 16549 net.cpp:91] Creating Layer inception_4c/3x3_reduce
I0403 15:57:19.118984 16549 net.cpp:425] inception_4c/3x3_reduce <- inception_4b/output_inception_4b/output_0_split_1
I0403 15:57:19.119004 16549 net.cpp:399] inception_4c/3x3_reduce -> inception_4c/3x3_reduce
I0403 15:57:19.120973 16549 net.cpp:141] Setting up inception_4c/3x3_reduce
I0403 15:57:19.121002 16549 net.cpp:148] Top shape: 24 128 14 14 (602112)
I0403 15:57:19.121019 16549 net.cpp:156] Memory required for data: 1035617568
I0403 15:57:19.121037 16549 layer_factory.hpp:77] Creating layer inception_4c/relu_3x3_reduce
I0403 15:57:19.121057 16549 net.cpp:91] Creating Layer inception_4c/relu_3x3_reduce
I0403 15:57:19.121073 16549 net.cpp:425] inception_4c/relu_3x3_reduce <- inception_4c/3x3_reduce
I0403 15:57:19.121091 16549 net.cpp:386] inception_4c/relu_3x3_reduce -> inception_4c/3x3_reduce (in-place)
I0403 15:57:19.121387 16549 net.cpp:141] Setting up inception_4c/relu_3x3_reduce
I0403 15:57:19.121412 16549 net.cpp:148] Top shape: 24 128 14 14 (602112)
I0403 15:57:19.121433 16549 net.cpp:156] Memory required for data: 1038026016
I0403 15:57:19.121448 16549 layer_factory.hpp:77] Creating layer inception_4c/3x3
I0403 15:57:19.121474 16549 net.cpp:91] Creating Layer inception_4c/3x3
I0403 15:57:19.121491 16549 net.cpp:425] inception_4c/3x3 <- inception_4c/3x3_reduce
I0403 15:57:19.121510 16549 net.cpp:399] inception_4c/3x3 -> inception_4c/3x3
I0403 15:57:19.125350 16549 net.cpp:141] Setting up inception_4c/3x3
I0403 15:57:19.125396 16549 net.cpp:148] Top shape: 24 256 14 14 (1204224)
I0403 15:57:19.125413 16549 net.cpp:156] Memory required for data: 1042842912
I0403 15:57:19.125447 16549 layer_factory.hpp:77] Creating layer inception_4c/relu_3x3
I0403 15:57:19.125466 16549 net.cpp:91] Creating Layer inception_4c/relu_3x3
I0403 15:57:19.125483 16549 net.cpp:425] inception_4c/relu_3x3 <- inception_4c/3x3
I0403 15:57:19.125502 16549 net.cpp:386] inception_4c/relu_3x3 -> inception_4c/3x3 (in-place)
I0403 15:57:19.125717 16549 net.cpp:141] Setting up inception_4c/relu_3x3
I0403 15:57:19.125746 16549 net.cpp:148] Top shape: 24 256 14 14 (1204224)
I0403 15:57:19.125761 16549 net.cpp:156] Memory required for data: 1047659808
I0403 15:57:19.125777 16549 layer_factory.hpp:77] Creating layer inception_4c/5x5_reduce
I0403 15:57:19.125800 16549 net.cpp:91] Creating Layer inception_4c/5x5_reduce
I0403 15:57:19.125819 16549 net.cpp:425] inception_4c/5x5_reduce <- inception_4b/output_inception_4b/output_0_split_2
I0403 15:57:19.125839 16549 net.cpp:399] inception_4c/5x5_reduce -> inception_4c/5x5_reduce
I0403 15:57:19.127029 16549 net.cpp:141] Setting up inception_4c/5x5_reduce
I0403 15:57:19.127070 16549 net.cpp:148] Top shape: 24 24 14 14 (112896)
I0403 15:57:19.127090 16549 net.cpp:156] Memory required for data: 1048111392
I0403 15:57:19.127113 16549 layer_factory.hpp:77] Creating layer inception_4c/relu_5x5_reduce
I0403 15:57:19.127133 16549 net.cpp:91] Creating Layer inception_4c/relu_5x5_reduce
I0403 15:57:19.127158 16549 net.cpp:425] inception_4c/relu_5x5_reduce <- inception_4c/5x5_reduce
I0403 15:57:19.127178 16549 net.cpp:386] inception_4c/relu_5x5_reduce -> inception_4c/5x5_reduce (in-place)
I0403 15:57:19.127384 16549 net.cpp:141] Setting up inception_4c/relu_5x5_reduce
I0403 15:57:19.127410 16549 net.cpp:148] Top shape: 24 24 14 14 (112896)
I0403 15:57:19.127425 16549 net.cpp:156] Memory required for data: 1048562976
I0403 15:57:19.127449 16549 layer_factory.hpp:77] Creating layer inception_4c/5x5
I0403 15:57:19.127472 16549 net.cpp:91] Creating Layer inception_4c/5x5
I0403 15:57:19.127490 16549 net.cpp:425] inception_4c/5x5 <- inception_4c/5x5_reduce
I0403 15:57:19.127513 16549 net.cpp:399] inception_4c/5x5 -> inception_4c/5x5
I0403 15:57:19.128834 16549 net.cpp:141] Setting up inception_4c/5x5
I0403 15:57:19.128867 16549 net.cpp:148] Top shape: 24 64 14 14 (301056)
I0403 15:57:19.128883 16549 net.cpp:156] Memory required for data: 1049767200
I0403 15:57:19.128906 16549 layer_factory.hpp:77] Creating layer inception_4c/relu_5x5
I0403 15:57:19.128927 16549 net.cpp:91] Creating Layer inception_4c/relu_5x5
I0403 15:57:19.128945 16549 net.cpp:425] inception_4c/relu_5x5 <- inception_4c/5x5
I0403 15:57:19.128963 16549 net.cpp:386] inception_4c/relu_5x5 -> inception_4c/5x5 (in-place)
I0403 15:57:19.129273 16549 net.cpp:141] Setting up inception_4c/relu_5x5
I0403 15:57:19.129302 16549 net.cpp:148] Top shape: 24 64 14 14 (301056)
I0403 15:57:19.129317 16549 net.cpp:156] Memory required for data: 1050971424
I0403 15:57:19.129333 16549 layer_factory.hpp:77] Creating layer inception_4c/pool
I0403 15:57:19.129350 16549 net.cpp:91] Creating Layer inception_4c/pool
I0403 15:57:19.129367 16549 net.cpp:425] inception_4c/pool <- inception_4b/output_inception_4b/output_0_split_3
I0403 15:57:19.129391 16549 net.cpp:399] inception_4c/pool -> inception_4c/pool
I0403 15:57:19.129459 16549 net.cpp:141] Setting up inception_4c/pool
I0403 15:57:19.129487 16549 net.cpp:148] Top shape: 24 512 14 14 (2408448)
I0403 15:57:19.129503 16549 net.cpp:156] Memory required for data: 1060605216
I0403 15:57:19.129518 16549 layer_factory.hpp:77] Creating layer inception_4c/pool_proj
I0403 15:57:19.129539 16549 net.cpp:91] Creating Layer inception_4c/pool_proj
I0403 15:57:19.129557 16549 net.cpp:425] inception_4c/pool_proj <- inception_4c/pool
I0403 15:57:19.129581 16549 net.cpp:399] inception_4c/pool_proj -> inception_4c/pool_proj
I0403 15:57:19.130884 16549 net.cpp:141] Setting up inception_4c/pool_proj
I0403 15:57:19.130916 16549 net.cpp:148] Top shape: 24 64 14 14 (301056)
I0403 15:57:19.130946 16549 net.cpp:156] Memory required for data: 1061809440
I0403 15:57:19.130967 16549 layer_factory.hpp:77] Creating layer inception_4c/relu_pool_proj
I0403 15:57:19.130985 16549 net.cpp:91] Creating Layer inception_4c/relu_pool_proj
I0403 15:57:19.131001 16549 net.cpp:425] inception_4c/relu_pool_proj <- inception_4c/pool_proj
I0403 15:57:19.131019 16549 net.cpp:386] inception_4c/relu_pool_proj -> inception_4c/pool_proj (in-place)
I0403 15:57:19.131219 16549 net.cpp:141] Setting up inception_4c/relu_pool_proj
I0403 15:57:19.131245 16549 net.cpp:148] Top shape: 24 64 14 14 (301056)
I0403 15:57:19.131260 16549 net.cpp:156] Memory required for data: 1063013664
I0403 15:57:19.131275 16549 layer_factory.hpp:77] Creating layer inception_4c/output
I0403 15:57:19.131294 16549 net.cpp:91] Creating Layer inception_4c/output
I0403 15:57:19.131310 16549 net.cpp:425] inception_4c/output <- inception_4c/1x1
I0403 15:57:19.131326 16549 net.cpp:425] inception_4c/output <- inception_4c/3x3
I0403 15:57:19.131343 16549 net.cpp:425] inception_4c/output <- inception_4c/5x5
I0403 15:57:19.131359 16549 net.cpp:425] inception_4c/output <- inception_4c/pool_proj
I0403 15:57:19.131379 16549 net.cpp:399] inception_4c/output -> inception_4c/output
I0403 15:57:19.131428 16549 net.cpp:141] Setting up inception_4c/output
I0403 15:57:19.131453 16549 net.cpp:148] Top shape: 24 512 14 14 (2408448)
I0403 15:57:19.131469 16549 net.cpp:156] Memory required for data: 1072647456
I0403 15:57:19.131484 16549 layer_factory.hpp:77] Creating layer inception_4c/output_inception_4c/output_0_split
I0403 15:57:19.131500 16549 net.cpp:91] Creating Layer inception_4c/output_inception_4c/output_0_split
I0403 15:57:19.131515 16549 net.cpp:425] inception_4c/output_inception_4c/output_0_split <- inception_4c/output
I0403 15:57:19.131532 16549 net.cpp:399] inception_4c/output_inception_4c/output_0_split -> inception_4c/output_inception_4c/output_0_split_0
I0403 15:57:19.131556 16549 net.cpp:399] inception_4c/output_inception_4c/output_0_split -> inception_4c/output_inception_4c/output_0_split_1
I0403 15:57:19.131582 16549 net.cpp:399] inception_4c/output_inception_4c/output_0_split -> inception_4c/output_inception_4c/output_0_split_2
I0403 15:57:19.131604 16549 net.cpp:399] inception_4c/output_inception_4c/output_0_split -> inception_4c/output_inception_4c/output_0_split_3
I0403 15:57:19.131692 16549 net.cpp:141] Setting up inception_4c/output_inception_4c/output_0_split
I0403 15:57:19.131716 16549 net.cpp:148] Top shape: 24 512 14 14 (2408448)
I0403 15:57:19.131732 16549 net.cpp:148] Top shape: 24 512 14 14 (2408448)
I0403 15:57:19.131747 16549 net.cpp:148] Top shape: 24 512 14 14 (2408448)
I0403 15:57:19.131763 16549 net.cpp:148] Top shape: 24 512 14 14 (2408448)
I0403 15:57:19.131778 16549 net.cpp:156] Memory required for data: 1111182624
I0403 15:57:19.131791 16549 layer_factory.hpp:77] Creating layer inception_4d/1x1
I0403 15:57:19.131814 16549 net.cpp:91] Creating Layer inception_4d/1x1
I0403 15:57:19.131832 16549 net.cpp:425] inception_4d/1x1 <- inception_4c/output_inception_4c/output_0_split_0
I0403 15:57:19.131853 16549 net.cpp:399] inception_4d/1x1 -> inception_4d/1x1
I0403 15:57:19.133301 16549 net.cpp:141] Setting up inception_4d/1x1
I0403 15:57:19.133329 16549 net.cpp:148] Top shape: 24 112 14 14 (526848)
I0403 15:57:19.133345 16549 net.cpp:156] Memory required for data: 1113290016
I0403 15:57:19.133363 16549 layer_factory.hpp:77] Creating layer inception_4d/relu_1x1
I0403 15:57:19.133384 16549 net.cpp:91] Creating Layer inception_4d/relu_1x1
I0403 15:57:19.133402 16549 net.cpp:425] inception_4d/relu_1x1 <- inception_4d/1x1
I0403 15:57:19.133420 16549 net.cpp:386] inception_4d/relu_1x1 -> inception_4d/1x1 (in-place)
I0403 15:57:19.133626 16549 net.cpp:141] Setting up inception_4d/relu_1x1
I0403 15:57:19.133654 16549 net.cpp:148] Top shape: 24 112 14 14 (526848)
I0403 15:57:19.133671 16549 net.cpp:156] Memory required for data: 1115397408
I0403 15:57:19.133687 16549 layer_factory.hpp:77] Creating layer inception_4d/3x3_reduce
I0403 15:57:19.133723 16549 net.cpp:91] Creating Layer inception_4d/3x3_reduce
I0403 15:57:19.133744 16549 net.cpp:425] inception_4d/3x3_reduce <- inception_4c/output_inception_4c/output_0_split_1
I0403 15:57:19.133764 16549 net.cpp:399] inception_4d/3x3_reduce -> inception_4d/3x3_reduce
I0403 15:57:19.135365 16549 net.cpp:141] Setting up inception_4d/3x3_reduce
I0403 15:57:19.135392 16549 net.cpp:148] Top shape: 24 144 14 14 (677376)
I0403 15:57:19.135408 16549 net.cpp:156] Memory required for data: 1118106912
I0403 15:57:19.135427 16549 layer_factory.hpp:77] Creating layer inception_4d/relu_3x3_reduce
I0403 15:57:19.135447 16549 net.cpp:91] Creating Layer inception_4d/relu_3x3_reduce
I0403 15:57:19.135462 16549 net.cpp:425] inception_4d/relu_3x3_reduce <- inception_4d/3x3_reduce
I0403 15:57:19.135483 16549 net.cpp:386] inception_4d/relu_3x3_reduce -> inception_4d/3x3_reduce (in-place)
I0403 15:57:19.135792 16549 net.cpp:141] Setting up inception_4d/relu_3x3_reduce
I0403 15:57:19.135818 16549 net.cpp:148] Top shape: 24 144 14 14 (677376)
I0403 15:57:19.135834 16549 net.cpp:156] Memory required for data: 1120816416
I0403 15:57:19.135849 16549 layer_factory.hpp:77] Creating layer inception_4d/3x3
I0403 15:57:19.135872 16549 net.cpp:91] Creating Layer inception_4d/3x3
I0403 15:57:19.135891 16549 net.cpp:425] inception_4d/3x3 <- inception_4d/3x3_reduce
I0403 15:57:19.135913 16549 net.cpp:399] inception_4d/3x3 -> inception_4d/3x3
I0403 15:57:19.140394 16549 net.cpp:141] Setting up inception_4d/3x3
I0403 15:57:19.140425 16549 net.cpp:148] Top shape: 24 288 14 14 (1354752)
I0403 15:57:19.140441 16549 net.cpp:156] Memory required for data: 1126235424
I0403 15:57:19.140460 16549 layer_factory.hpp:77] Creating layer inception_4d/relu_3x3
I0403 15:57:19.140481 16549 net.cpp:91] Creating Layer inception_4d/relu_3x3
I0403 15:57:19.140498 16549 net.cpp:425] inception_4d/relu_3x3 <- inception_4d/3x3
I0403 15:57:19.140516 16549 net.cpp:386] inception_4d/relu_3x3 -> inception_4d/3x3 (in-place)
I0403 15:57:19.140727 16549 net.cpp:141] Setting up inception_4d/relu_3x3
I0403 15:57:19.140756 16549 net.cpp:148] Top shape: 24 288 14 14 (1354752)
I0403 15:57:19.140772 16549 net.cpp:156] Memory required for data: 1131654432
I0403 15:57:19.140787 16549 layer_factory.hpp:77] Creating layer inception_4d/5x5_reduce
I0403 15:57:19.140810 16549 net.cpp:91] Creating Layer inception_4d/5x5_reduce
I0403 15:57:19.140830 16549 net.cpp:425] inception_4d/5x5_reduce <- inception_4c/output_inception_4c/output_0_split_2
I0403 15:57:19.140849 16549 net.cpp:399] inception_4d/5x5_reduce -> inception_4d/5x5_reduce
I0403 15:57:19.142088 16549 net.cpp:141] Setting up inception_4d/5x5_reduce
I0403 15:57:19.142117 16549 net.cpp:148] Top shape: 24 32 14 14 (150528)
I0403 15:57:19.142133 16549 net.cpp:156] Memory required for data: 1132256544
I0403 15:57:19.142151 16549 layer_factory.hpp:77] Creating layer inception_4d/relu_5x5_reduce
I0403 15:57:19.142173 16549 net.cpp:91] Creating Layer inception_4d/relu_5x5_reduce
I0403 15:57:19.142190 16549 net.cpp:425] inception_4d/relu_5x5_reduce <- inception_4d/5x5_reduce
I0403 15:57:19.142209 16549 net.cpp:386] inception_4d/relu_5x5_reduce -> inception_4d/5x5_reduce (in-place)
I0403 15:57:19.142415 16549 net.cpp:141] Setting up inception_4d/relu_5x5_reduce
I0403 15:57:19.142441 16549 net.cpp:148] Top shape: 24 32 14 14 (150528)
I0403 15:57:19.142457 16549 net.cpp:156] Memory required for data: 1132858656
I0403 15:57:19.142473 16549 layer_factory.hpp:77] Creating layer inception_4d/5x5
I0403 15:57:19.142495 16549 net.cpp:91] Creating Layer inception_4d/5x5
I0403 15:57:19.142513 16549 net.cpp:425] inception_4d/5x5 <- inception_4d/5x5_reduce
I0403 15:57:19.142534 16549 net.cpp:399] inception_4d/5x5 -> inception_4d/5x5
I0403 15:57:19.144105 16549 net.cpp:141] Setting up inception_4d/5x5
I0403 15:57:19.144147 16549 net.cpp:148] Top shape: 24 64 14 14 (301056)
I0403 15:57:19.144165 16549 net.cpp:156] Memory required for data: 1134062880
I0403 15:57:19.144199 16549 layer_factory.hpp:77] Creating layer inception_4d/relu_5x5
I0403 15:57:19.144232 16549 net.cpp:91] Creating Layer inception_4d/relu_5x5
I0403 15:57:19.144250 16549 net.cpp:425] inception_4d/relu_5x5 <- inception_4d/5x5
I0403 15:57:19.144271 16549 net.cpp:386] inception_4d/relu_5x5 -> inception_4d/5x5 (in-place)
I0403 15:57:19.144631 16549 net.cpp:141] Setting up inception_4d/relu_5x5
I0403 15:57:19.144660 16549 net.cpp:148] Top shape: 24 64 14 14 (301056)
I0403 15:57:19.144676 16549 net.cpp:156] Memory required for data: 1135267104
I0403 15:57:19.144691 16549 layer_factory.hpp:77] Creating layer inception_4d/pool
I0403 15:57:19.144708 16549 net.cpp:91] Creating Layer inception_4d/pool
I0403 15:57:19.144724 16549 net.cpp:425] inception_4d/pool <- inception_4c/output_inception_4c/output_0_split_3
I0403 15:57:19.144753 16549 net.cpp:399] inception_4d/pool -> inception_4d/pool
I0403 15:57:19.144831 16549 net.cpp:141] Setting up inception_4d/pool
I0403 15:57:19.144856 16549 net.cpp:148] Top shape: 24 512 14 14 (2408448)
I0403 15:57:19.144872 16549 net.cpp:156] Memory required for data: 1144900896
I0403 15:57:19.144886 16549 layer_factory.hpp:77] Creating layer inception_4d/pool_proj
I0403 15:57:19.144904 16549 net.cpp:91] Creating Layer inception_4d/pool_proj
I0403 15:57:19.144922 16549 net.cpp:425] inception_4d/pool_proj <- inception_4d/pool
I0403 15:57:19.144942 16549 net.cpp:399] inception_4d/pool_proj -> inception_4d/pool_proj
I0403 15:57:19.146747 16549 net.cpp:141] Setting up inception_4d/pool_proj
I0403 15:57:19.146776 16549 net.cpp:148] Top shape: 24 64 14 14 (301056)
I0403 15:57:19.146792 16549 net.cpp:156] Memory required for data: 1146105120
I0403 15:57:19.146811 16549 layer_factory.hpp:77] Creating layer inception_4d/relu_pool_proj
I0403 15:57:19.146829 16549 net.cpp:91] Creating Layer inception_4d/relu_pool_proj
I0403 15:57:19.146847 16549 net.cpp:425] inception_4d/relu_pool_proj <- inception_4d/pool_proj
I0403 15:57:19.146863 16549 net.cpp:386] inception_4d/relu_pool_proj -> inception_4d/pool_proj (in-place)
I0403 15:57:19.147054 16549 net.cpp:141] Setting up inception_4d/relu_pool_proj
I0403 15:57:19.147081 16549 net.cpp:148] Top shape: 24 64 14 14 (301056)
I0403 15:57:19.147096 16549 net.cpp:156] Memory required for data: 1147309344
I0403 15:57:19.147111 16549 layer_factory.hpp:77] Creating layer inception_4d/output
I0403 15:57:19.147130 16549 net.cpp:91] Creating Layer inception_4d/output
I0403 15:57:19.147145 16549 net.cpp:425] inception_4d/output <- inception_4d/1x1
I0403 15:57:19.147161 16549 net.cpp:425] inception_4d/output <- inception_4d/3x3
I0403 15:57:19.147177 16549 net.cpp:425] inception_4d/output <- inception_4d/5x5
I0403 15:57:19.147192 16549 net.cpp:425] inception_4d/output <- inception_4d/pool_proj
I0403 15:57:19.147209 16549 net.cpp:399] inception_4d/output -> inception_4d/output
I0403 15:57:19.147256 16549 net.cpp:141] Setting up inception_4d/output
I0403 15:57:19.147279 16549 net.cpp:148] Top shape: 24 528 14 14 (2483712)
I0403 15:57:19.147294 16549 net.cpp:156] Memory required for data: 1157244192
I0403 15:57:19.147307 16549 layer_factory.hpp:77] Creating layer inception_4d/output_inception_4d/output_0_split
I0403 15:57:19.147326 16549 net.cpp:91] Creating Layer inception_4d/output_inception_4d/output_0_split
I0403 15:57:19.147342 16549 net.cpp:425] inception_4d/output_inception_4d/output_0_split <- inception_4d/output
I0403 15:57:19.147359 16549 net.cpp:399] inception_4d/output_inception_4d/output_0_split -> inception_4d/output_inception_4d/output_0_split_0
I0403 15:57:19.147378 16549 net.cpp:399] inception_4d/output_inception_4d/output_0_split -> inception_4d/output_inception_4d/output_0_split_1
I0403 15:57:19.147403 16549 net.cpp:399] inception_4d/output_inception_4d/output_0_split -> inception_4d/output_inception_4d/output_0_split_2
I0403 15:57:19.147424 16549 net.cpp:399] inception_4d/output_inception_4d/output_0_split -> inception_4d/output_inception_4d/output_0_split_3
I0403 15:57:19.147444 16549 net.cpp:399] inception_4d/output_inception_4d/output_0_split -> inception_4d/output_inception_4d/output_0_split_4
I0403 15:57:19.147546 16549 net.cpp:141] Setting up inception_4d/output_inception_4d/output_0_split
I0403 15:57:19.147589 16549 net.cpp:148] Top shape: 24 528 14 14 (2483712)
I0403 15:57:19.147606 16549 net.cpp:148] Top shape: 24 528 14 14 (2483712)
I0403 15:57:19.147621 16549 net.cpp:148] Top shape: 24 528 14 14 (2483712)
I0403 15:57:19.147635 16549 net.cpp:148] Top shape: 24 528 14 14 (2483712)
I0403 15:57:19.147650 16549 net.cpp:148] Top shape: 24 528 14 14 (2483712)
I0403 15:57:19.147663 16549 net.cpp:156] Memory required for data: 1206918432
I0403 15:57:19.147677 16549 layer_factory.hpp:77] Creating layer loss2/ave_pool
I0403 15:57:19.147706 16549 net.cpp:91] Creating Layer loss2/ave_pool
I0403 15:57:19.147722 16549 net.cpp:425] loss2/ave_pool <- inception_4d/output_inception_4d/output_0_split_0
I0403 15:57:19.147756 16549 net.cpp:399] loss2/ave_pool -> loss2/ave_pool
I0403 15:57:19.148088 16549 net.cpp:141] Setting up loss2/ave_pool
I0403 15:57:19.148114 16549 net.cpp:148] Top shape: 24 528 4 4 (202752)
I0403 15:57:19.148128 16549 net.cpp:156] Memory required for data: 1207729440
I0403 15:57:19.148143 16549 layer_factory.hpp:77] Creating layer loss2/conv
I0403 15:57:19.148164 16549 net.cpp:91] Creating Layer loss2/conv
I0403 15:57:19.148183 16549 net.cpp:425] loss2/conv <- loss2/ave_pool
I0403 15:57:19.148201 16549 net.cpp:399] loss2/conv -> loss2/conv
I0403 15:57:19.150180 16549 net.cpp:141] Setting up loss2/conv
I0403 15:57:19.150209 16549 net.cpp:148] Top shape: 24 128 4 4 (49152)
I0403 15:57:19.150225 16549 net.cpp:156] Memory required for data: 1207926048
I0403 15:57:19.150243 16549 layer_factory.hpp:77] Creating layer loss2/relu_conv
I0403 15:57:19.150260 16549 net.cpp:91] Creating Layer loss2/relu_conv
I0403 15:57:19.150276 16549 net.cpp:425] loss2/relu_conv <- loss2/conv
I0403 15:57:19.150296 16549 net.cpp:386] loss2/relu_conv -> loss2/conv (in-place)
I0403 15:57:19.150593 16549 net.cpp:141] Setting up loss2/relu_conv
I0403 15:57:19.150619 16549 net.cpp:148] Top shape: 24 128 4 4 (49152)
I0403 15:57:19.150635 16549 net.cpp:156] Memory required for data: 1208122656
I0403 15:57:19.150650 16549 layer_factory.hpp:77] Creating layer loss2/fc
I0403 15:57:19.150667 16549 net.cpp:91] Creating Layer loss2/fc
I0403 15:57:19.150683 16549 net.cpp:425] loss2/fc <- loss2/conv
I0403 15:57:19.150703 16549 net.cpp:399] loss2/fc -> loss2/fc
I0403 15:57:19.168366 16549 net.cpp:141] Setting up loss2/fc
I0403 15:57:19.168401 16549 net.cpp:148] Top shape: 24 1024 (24576)
I0403 15:57:19.168416 16549 net.cpp:156] Memory required for data: 1208220960
I0403 15:57:19.168436 16549 layer_factory.hpp:77] Creating layer loss2/relu_fc
I0403 15:57:19.168453 16549 net.cpp:91] Creating Layer loss2/relu_fc
I0403 15:57:19.168469 16549 net.cpp:425] loss2/relu_fc <- loss2/fc
I0403 15:57:19.168486 16549 net.cpp:386] loss2/relu_fc -> loss2/fc (in-place)
I0403 15:57:19.168802 16549 net.cpp:141] Setting up loss2/relu_fc
I0403 15:57:19.168829 16549 net.cpp:148] Top shape: 24 1024 (24576)
I0403 15:57:19.168846 16549 net.cpp:156] Memory required for data: 1208319264
I0403 15:57:19.168861 16549 layer_factory.hpp:77] Creating layer loss2/drop_fc
I0403 15:57:19.168879 16549 net.cpp:91] Creating Layer loss2/drop_fc
I0403 15:57:19.168896 16549 net.cpp:425] loss2/drop_fc <- loss2/fc
I0403 15:57:19.168913 16549 net.cpp:386] loss2/drop_fc -> loss2/fc (in-place)
I0403 15:57:19.168963 16549 net.cpp:141] Setting up loss2/drop_fc
I0403 15:57:19.168987 16549 net.cpp:148] Top shape: 24 1024 (24576)
I0403 15:57:19.169001 16549 net.cpp:156] Memory required for data: 1208417568
I0403 15:57:19.169015 16549 layer_factory.hpp:77] Creating layer loss2/classifier_plantvillage
I0403 15:57:19.169035 16549 net.cpp:91] Creating Layer loss2/classifier_plantvillage
I0403 15:57:19.169052 16549 net.cpp:425] loss2/classifier_plantvillage <- loss2/fc
I0403 15:57:19.169071 16549 net.cpp:399] loss2/classifier_plantvillage -> loss2/classifier_plantvillage
I0403 15:57:19.169483 16549 net.cpp:141] Setting up loss2/classifier_plantvillage
I0403 15:57:19.169509 16549 net.cpp:148] Top shape: 24 38 (912)
I0403 15:57:19.169544 16549 net.cpp:156] Memory required for data: 1208421216
I0403 15:57:19.169564 16549 layer_factory.hpp:77] Creating layer loss2/classifier_plantvillage_loss2/classifier_plantvillage_0_split
I0403 15:57:19.169611 16549 net.cpp:91] Creating Layer loss2/classifier_plantvillage_loss2/classifier_plantvillage_0_split
I0403 15:57:19.169628 16549 net.cpp:425] loss2/classifier_plantvillage_loss2/classifier_plantvillage_0_split <- loss2/classifier_plantvillage
I0403 15:57:19.169661 16549 net.cpp:399] loss2/classifier_plantvillage_loss2/classifier_plantvillage_0_split -> loss2/classifier_plantvillage_loss2/classifier_plantvillage_0_split_0
I0403 15:57:19.169683 16549 net.cpp:399] loss2/classifier_plantvillage_loss2/classifier_plantvillage_0_split -> loss2/classifier_plantvillage_loss2/classifier_plantvillage_0_split_1
I0403 15:57:19.169705 16549 net.cpp:399] loss2/classifier_plantvillage_loss2/classifier_plantvillage_0_split -> loss2/classifier_plantvillage_loss2/classifier_plantvillage_0_split_2
I0403 15:57:19.169787 16549 net.cpp:141] Setting up loss2/classifier_plantvillage_loss2/classifier_plantvillage_0_split
I0403 15:57:19.169814 16549 net.cpp:148] Top shape: 24 38 (912)
I0403 15:57:19.169831 16549 net.cpp:148] Top shape: 24 38 (912)
I0403 15:57:19.169847 16549 net.cpp:148] Top shape: 24 38 (912)
I0403 15:57:19.169862 16549 net.cpp:156] Memory required for data: 1208432160
I0403 15:57:19.169886 16549 layer_factory.hpp:77] Creating layer inception_4e/1x1
I0403 15:57:19.169909 16549 net.cpp:91] Creating Layer inception_4e/1x1
I0403 15:57:19.169929 16549 net.cpp:425] inception_4e/1x1 <- inception_4d/output_inception_4d/output_0_split_1
I0403 15:57:19.169960 16549 net.cpp:399] inception_4e/1x1 -> inception_4e/1x1
I0403 15:57:19.171893 16549 net.cpp:141] Setting up inception_4e/1x1
I0403 15:57:19.171922 16549 net.cpp:148] Top shape: 24 256 14 14 (1204224)
I0403 15:57:19.171938 16549 net.cpp:156] Memory required for data: 1213249056
I0403 15:57:19.171957 16549 layer_factory.hpp:77] Creating layer inception_4e/relu_1x1
I0403 15:57:19.171975 16549 net.cpp:91] Creating Layer inception_4e/relu_1x1
I0403 15:57:19.171991 16549 net.cpp:425] inception_4e/relu_1x1 <- inception_4e/1x1
I0403 15:57:19.172013 16549 net.cpp:386] inception_4e/relu_1x1 -> inception_4e/1x1 (in-place)
I0403 15:57:19.172330 16549 net.cpp:141] Setting up inception_4e/relu_1x1
I0403 15:57:19.172358 16549 net.cpp:148] Top shape: 24 256 14 14 (1204224)
I0403 15:57:19.172374 16549 net.cpp:156] Memory required for data: 1218065952
I0403 15:57:19.172389 16549 layer_factory.hpp:77] Creating layer inception_4e/3x3_reduce
I0403 15:57:19.172412 16549 net.cpp:91] Creating Layer inception_4e/3x3_reduce
I0403 15:57:19.172430 16549 net.cpp:425] inception_4e/3x3_reduce <- inception_4d/output_inception_4d/output_0_split_2
I0403 15:57:19.172452 16549 net.cpp:399] inception_4e/3x3_reduce -> inception_4e/3x3_reduce
I0403 15:57:19.174726 16549 net.cpp:141] Setting up inception_4e/3x3_reduce
I0403 15:57:19.174759 16549 net.cpp:148] Top shape: 24 160 14 14 (752640)
I0403 15:57:19.174777 16549 net.cpp:156] Memory required for data: 1221076512
I0403 15:57:19.174795 16549 layer_factory.hpp:77] Creating layer inception_4e/relu_3x3_reduce
I0403 15:57:19.174815 16549 net.cpp:91] Creating Layer inception_4e/relu_3x3_reduce
I0403 15:57:19.174832 16549 net.cpp:425] inception_4e/relu_3x3_reduce <- inception_4e/3x3_reduce
I0403 15:57:19.174854 16549 net.cpp:386] inception_4e/relu_3x3_reduce -> inception_4e/3x3_reduce (in-place)
I0403 15:57:19.175072 16549 net.cpp:141] Setting up inception_4e/relu_3x3_reduce
I0403 15:57:19.175098 16549 net.cpp:148] Top shape: 24 160 14 14 (752640)
I0403 15:57:19.175113 16549 net.cpp:156] Memory required for data: 1224087072
I0403 15:57:19.175128 16549 layer_factory.hpp:77] Creating layer inception_4e/3x3
I0403 15:57:19.175151 16549 net.cpp:91] Creating Layer inception_4e/3x3
I0403 15:57:19.175169 16549 net.cpp:425] inception_4e/3x3 <- inception_4e/3x3_reduce
I0403 15:57:19.175191 16549 net.cpp:399] inception_4e/3x3 -> inception_4e/3x3
I0403 15:57:19.180407 16549 net.cpp:141] Setting up inception_4e/3x3
I0403 15:57:19.180450 16549 net.cpp:148] Top shape: 24 320 14 14 (1505280)
I0403 15:57:19.180467 16549 net.cpp:156] Memory required for data: 1230108192
I0403 15:57:19.180487 16549 layer_factory.hpp:77] Creating layer inception_4e/relu_3x3
I0403 15:57:19.180508 16549 net.cpp:91] Creating Layer inception_4e/relu_3x3
I0403 15:57:19.180526 16549 net.cpp:425] inception_4e/relu_3x3 <- inception_4e/3x3
I0403 15:57:19.180544 16549 net.cpp:386] inception_4e/relu_3x3 -> inception_4e/3x3 (in-place)
I0403 15:57:19.180868 16549 net.cpp:141] Setting up inception_4e/relu_3x3
I0403 15:57:19.180896 16549 net.cpp:148] Top shape: 24 320 14 14 (1505280)
I0403 15:57:19.180912 16549 net.cpp:156] Memory required for data: 1236129312
I0403 15:57:19.180938 16549 layer_factory.hpp:77] Creating layer inception_4e/5x5_reduce
I0403 15:57:19.180960 16549 net.cpp:91] Creating Layer inception_4e/5x5_reduce
I0403 15:57:19.180979 16549 net.cpp:425] inception_4e/5x5_reduce <- inception_4d/output_inception_4d/output_0_split_3
I0403 15:57:19.181002 16549 net.cpp:399] inception_4e/5x5_reduce -> inception_4e/5x5_reduce
I0403 15:57:19.182168 16549 net.cpp:141] Setting up inception_4e/5x5_reduce
I0403 15:57:19.182199 16549 net.cpp:148] Top shape: 24 32 14 14 (150528)
I0403 15:57:19.182216 16549 net.cpp:156] Memory required for data: 1236731424
I0403 15:57:19.182235 16549 layer_factory.hpp:77] Creating layer inception_4e/relu_5x5_reduce
I0403 15:57:19.182253 16549 net.cpp:91] Creating Layer inception_4e/relu_5x5_reduce
I0403 15:57:19.182270 16549 net.cpp:425] inception_4e/relu_5x5_reduce <- inception_4e/5x5_reduce
I0403 15:57:19.182291 16549 net.cpp:386] inception_4e/relu_5x5_reduce -> inception_4e/5x5_reduce (in-place)
I0403 15:57:19.182606 16549 net.cpp:141] Setting up inception_4e/relu_5x5_reduce
I0403 15:57:19.182638 16549 net.cpp:148] Top shape: 24 32 14 14 (150528)
I0403 15:57:19.182656 16549 net.cpp:156] Memory required for data: 1237333536
I0403 15:57:19.182672 16549 layer_factory.hpp:77] Creating layer inception_4e/5x5
I0403 15:57:19.182713 16549 net.cpp:91] Creating Layer inception_4e/5x5
I0403 15:57:19.182734 16549 net.cpp:425] inception_4e/5x5 <- inception_4e/5x5_reduce
I0403 15:57:19.182754 16549 net.cpp:399] inception_4e/5x5 -> inception_4e/5x5
I0403 15:57:19.184743 16549 net.cpp:141] Setting up inception_4e/5x5
I0403 15:57:19.184772 16549 net.cpp:148] Top shape: 24 128 14 14 (602112)
I0403 15:57:19.184788 16549 net.cpp:156] Memory required for data: 1239741984
I0403 15:57:19.184808 16549 layer_factory.hpp:77] Creating layer inception_4e/relu_5x5
I0403 15:57:19.184829 16549 net.cpp:91] Creating Layer inception_4e/relu_5x5
I0403 15:57:19.184847 16549 net.cpp:425] inception_4e/relu_5x5 <- inception_4e/5x5
I0403 15:57:19.184865 16549 net.cpp:386] inception_4e/relu_5x5 -> inception_4e/5x5 (in-place)
I0403 15:57:19.185096 16549 net.cpp:141] Setting up inception_4e/relu_5x5
I0403 15:57:19.185120 16549 net.cpp:148] Top shape: 24 128 14 14 (602112)
I0403 15:57:19.185135 16549 net.cpp:156] Memory required for data: 1242150432
I0403 15:57:19.185158 16549 layer_factory.hpp:77] Creating layer inception_4e/pool
I0403 15:57:19.185176 16549 net.cpp:91] Creating Layer inception_4e/pool
I0403 15:57:19.185192 16549 net.cpp:425] inception_4e/pool <- inception_4d/output_inception_4d/output_0_split_4
I0403 15:57:19.185212 16549 net.cpp:399] inception_4e/pool -> inception_4e/pool
I0403 15:57:19.185286 16549 net.cpp:141] Setting up inception_4e/pool
I0403 15:57:19.185312 16549 net.cpp:148] Top shape: 24 528 14 14 (2483712)
I0403 15:57:19.185327 16549 net.cpp:156] Memory required for data: 1252085280
I0403 15:57:19.185340 16549 layer_factory.hpp:77] Creating layer inception_4e/pool_proj
I0403 15:57:19.185364 16549 net.cpp:91] Creating Layer inception_4e/pool_proj
I0403 15:57:19.185384 16549 net.cpp:425] inception_4e/pool_proj <- inception_4e/pool
I0403 15:57:19.185403 16549 net.cpp:399] inception_4e/pool_proj -> inception_4e/pool_proj
I0403 15:57:19.187021 16549 net.cpp:141] Setting up inception_4e/pool_proj
I0403 15:57:19.187063 16549 net.cpp:148] Top shape: 24 128 14 14 (602112)
I0403 15:57:19.187093 16549 net.cpp:156] Memory required for data: 1254493728
I0403 15:57:19.187111 16549 layer_factory.hpp:77] Creating layer inception_4e/relu_pool_proj
I0403 15:57:19.187141 16549 net.cpp:91] Creating Layer inception_4e/relu_pool_proj
I0403 15:57:19.187160 16549 net.cpp:425] inception_4e/relu_pool_proj <- inception_4e/pool_proj
I0403 15:57:19.187180 16549 net.cpp:386] inception_4e/relu_pool_proj -> inception_4e/pool_proj (in-place)
I0403 15:57:19.187501 16549 net.cpp:141] Setting up inception_4e/relu_pool_proj
I0403 15:57:19.187528 16549 net.cpp:148] Top shape: 24 128 14 14 (602112)
I0403 15:57:19.187546 16549 net.cpp:156] Memory required for data: 1256902176
I0403 15:57:19.187561 16549 layer_factory.hpp:77] Creating layer inception_4e/output
I0403 15:57:19.187587 16549 net.cpp:91] Creating Layer inception_4e/output
I0403 15:57:19.187605 16549 net.cpp:425] inception_4e/output <- inception_4e/1x1
I0403 15:57:19.187623 16549 net.cpp:425] inception_4e/output <- inception_4e/3x3
I0403 15:57:19.187640 16549 net.cpp:425] inception_4e/output <- inception_4e/5x5
I0403 15:57:19.187656 16549 net.cpp:425] inception_4e/output <- inception_4e/pool_proj
I0403 15:57:19.187674 16549 net.cpp:399] inception_4e/output -> inception_4e/output
I0403 15:57:19.187726 16549 net.cpp:141] Setting up inception_4e/output
I0403 15:57:19.187750 16549 net.cpp:148] Top shape: 24 832 14 14 (3913728)
I0403 15:57:19.187765 16549 net.cpp:156] Memory required for data: 1272557088
I0403 15:57:19.187779 16549 layer_factory.hpp:77] Creating layer pool4/3x3_s2
I0403 15:57:19.187798 16549 net.cpp:91] Creating Layer pool4/3x3_s2
I0403 15:57:19.187813 16549 net.cpp:425] pool4/3x3_s2 <- inception_4e/output
I0403 15:57:19.187834 16549 net.cpp:399] pool4/3x3_s2 -> pool4/3x3_s2
I0403 15:57:19.187911 16549 net.cpp:141] Setting up pool4/3x3_s2
I0403 15:57:19.187938 16549 net.cpp:148] Top shape: 24 832 7 7 (978432)
I0403 15:57:19.187954 16549 net.cpp:156] Memory required for data: 1276470816
I0403 15:57:19.187968 16549 layer_factory.hpp:77] Creating layer pool4/3x3_s2_pool4/3x3_s2_0_split
I0403 15:57:19.187989 16549 net.cpp:91] Creating Layer pool4/3x3_s2_pool4/3x3_s2_0_split
I0403 15:57:19.188006 16549 net.cpp:425] pool4/3x3_s2_pool4/3x3_s2_0_split <- pool4/3x3_s2
I0403 15:57:19.188027 16549 net.cpp:399] pool4/3x3_s2_pool4/3x3_s2_0_split -> pool4/3x3_s2_pool4/3x3_s2_0_split_0
I0403 15:57:19.188048 16549 net.cpp:399] pool4/3x3_s2_pool4/3x3_s2_0_split -> pool4/3x3_s2_pool4/3x3_s2_0_split_1
I0403 15:57:19.188069 16549 net.cpp:399] pool4/3x3_s2_pool4/3x3_s2_0_split -> pool4/3x3_s2_pool4/3x3_s2_0_split_2
I0403 15:57:19.188091 16549 net.cpp:399] pool4/3x3_s2_pool4/3x3_s2_0_split -> pool4/3x3_s2_pool4/3x3_s2_0_split_3
I0403 15:57:19.188184 16549 net.cpp:141] Setting up pool4/3x3_s2_pool4/3x3_s2_0_split
I0403 15:57:19.188210 16549 net.cpp:148] Top shape: 24 832 7 7 (978432)
I0403 15:57:19.188227 16549 net.cpp:148] Top shape: 24 832 7 7 (978432)
I0403 15:57:19.188243 16549 net.cpp:148] Top shape: 24 832 7 7 (978432)
I0403 15:57:19.188259 16549 net.cpp:148] Top shape: 24 832 7 7 (978432)
I0403 15:57:19.188274 16549 net.cpp:156] Memory required for data: 1292125728
I0403 15:57:19.188288 16549 layer_factory.hpp:77] Creating layer inception_5a/1x1
I0403 15:57:19.188308 16549 net.cpp:91] Creating Layer inception_5a/1x1
I0403 15:57:19.188325 16549 net.cpp:425] inception_5a/1x1 <- pool4/3x3_s2_pool4/3x3_s2_0_split_0
I0403 15:57:19.188349 16549 net.cpp:399] inception_5a/1x1 -> inception_5a/1x1
I0403 15:57:19.191370 16549 net.cpp:141] Setting up inception_5a/1x1
I0403 15:57:19.191402 16549 net.cpp:148] Top shape: 24 256 7 7 (301056)
I0403 15:57:19.191421 16549 net.cpp:156] Memory required for data: 1293329952
I0403 15:57:19.191439 16549 layer_factory.hpp:77] Creating layer inception_5a/relu_1x1
I0403 15:57:19.191457 16549 net.cpp:91] Creating Layer inception_5a/relu_1x1
I0403 15:57:19.191474 16549 net.cpp:425] inception_5a/relu_1x1 <- inception_5a/1x1
I0403 15:57:19.191493 16549 net.cpp:386] inception_5a/relu_1x1 -> inception_5a/1x1 (in-place)
I0403 15:57:19.191828 16549 net.cpp:141] Setting up inception_5a/relu_1x1
I0403 15:57:19.191859 16549 net.cpp:148] Top shape: 24 256 7 7 (301056)
I0403 15:57:19.191875 16549 net.cpp:156] Memory required for data: 1294534176
I0403 15:57:19.191891 16549 layer_factory.hpp:77] Creating layer inception_5a/3x3_reduce
I0403 15:57:19.191915 16549 net.cpp:91] Creating Layer inception_5a/3x3_reduce
I0403 15:57:19.191932 16549 net.cpp:425] inception_5a/3x3_reduce <- pool4/3x3_s2_pool4/3x3_s2_0_split_1
I0403 15:57:19.191953 16549 net.cpp:399] inception_5a/3x3_reduce -> inception_5a/3x3_reduce
I0403 15:57:19.194593 16549 net.cpp:141] Setting up inception_5a/3x3_reduce
I0403 15:57:19.194623 16549 net.cpp:148] Top shape: 24 160 7 7 (188160)
I0403 15:57:19.194638 16549 net.cpp:156] Memory required for data: 1295286816
I0403 15:57:19.194658 16549 layer_factory.hpp:77] Creating layer inception_5a/relu_3x3_reduce
I0403 15:57:19.194689 16549 net.cpp:91] Creating Layer inception_5a/relu_3x3_reduce
I0403 15:57:19.194707 16549 net.cpp:425] inception_5a/relu_3x3_reduce <- inception_5a/3x3_reduce
I0403 15:57:19.194725 16549 net.cpp:386] inception_5a/relu_3x3_reduce -> inception_5a/3x3_reduce (in-place)
I0403 15:57:19.194947 16549 net.cpp:141] Setting up inception_5a/relu_3x3_reduce
I0403 15:57:19.194975 16549 net.cpp:148] Top shape: 24 160 7 7 (188160)
I0403 15:57:19.195004 16549 net.cpp:156] Memory required for data: 1296039456
I0403 15:57:19.195019 16549 layer_factory.hpp:77] Creating layer inception_5a/3x3
I0403 15:57:19.195044 16549 net.cpp:91] Creating Layer inception_5a/3x3
I0403 15:57:19.195072 16549 net.cpp:425] inception_5a/3x3 <- inception_5a/3x3_reduce
I0403 15:57:19.195092 16549 net.cpp:399] inception_5a/3x3 -> inception_5a/3x3
I0403 15:57:19.200225 16549 net.cpp:141] Setting up inception_5a/3x3
I0403 15:57:19.200258 16549 net.cpp:148] Top shape: 24 320 7 7 (376320)
I0403 15:57:19.200274 16549 net.cpp:156] Memory required for data: 1297544736
I0403 15:57:19.200294 16549 layer_factory.hpp:77] Creating layer inception_5a/relu_3x3
I0403 15:57:19.200311 16549 net.cpp:91] Creating Layer inception_5a/relu_3x3
I0403 15:57:19.200327 16549 net.cpp:425] inception_5a/relu_3x3 <- inception_5a/3x3
I0403 15:57:19.200347 16549 net.cpp:386] inception_5a/relu_3x3 -> inception_5a/3x3 (in-place)
I0403 15:57:19.200657 16549 net.cpp:141] Setting up inception_5a/relu_3x3
I0403 15:57:19.200690 16549 net.cpp:148] Top shape: 24 320 7 7 (376320)
I0403 15:57:19.200706 16549 net.cpp:156] Memory required for data: 1299050016
I0403 15:57:19.200721 16549 layer_factory.hpp:77] Creating layer inception_5a/5x5_reduce
I0403 15:57:19.200744 16549 net.cpp:91] Creating Layer inception_5a/5x5_reduce
I0403 15:57:19.200762 16549 net.cpp:425] inception_5a/5x5_reduce <- pool4/3x3_s2_pool4/3x3_s2_0_split_2
I0403 15:57:19.200783 16549 net.cpp:399] inception_5a/5x5_reduce -> inception_5a/5x5_reduce
I0403 15:57:19.202003 16549 net.cpp:141] Setting up inception_5a/5x5_reduce
I0403 15:57:19.202033 16549 net.cpp:148] Top shape: 24 32 7 7 (37632)
I0403 15:57:19.202050 16549 net.cpp:156] Memory required for data: 1299200544
I0403 15:57:19.202069 16549 layer_factory.hpp:77] Creating layer inception_5a/relu_5x5_reduce
I0403 15:57:19.202086 16549 net.cpp:91] Creating Layer inception_5a/relu_5x5_reduce
I0403 15:57:19.202102 16549 net.cpp:425] inception_5a/relu_5x5_reduce <- inception_5a/5x5_reduce
I0403 15:57:19.202121 16549 net.cpp:386] inception_5a/relu_5x5_reduce -> inception_5a/5x5_reduce (in-place)
I0403 15:57:19.202442 16549 net.cpp:141] Setting up inception_5a/relu_5x5_reduce
I0403 15:57:19.202469 16549 net.cpp:148] Top shape: 24 32 7 7 (37632)
I0403 15:57:19.202483 16549 net.cpp:156] Memory required for data: 1299351072
I0403 15:57:19.202498 16549 layer_factory.hpp:77] Creating layer inception_5a/5x5
I0403 15:57:19.202520 16549 net.cpp:91] Creating Layer inception_5a/5x5
I0403 15:57:19.202548 16549 net.cpp:425] inception_5a/5x5 <- inception_5a/5x5_reduce
I0403 15:57:19.202574 16549 net.cpp:399] inception_5a/5x5 -> inception_5a/5x5
I0403 15:57:19.204340 16549 net.cpp:141] Setting up inception_5a/5x5
I0403 15:57:19.204380 16549 net.cpp:148] Top shape: 24 128 7 7 (150528)
I0403 15:57:19.204396 16549 net.cpp:156] Memory required for data: 1299953184
I0403 15:57:19.204416 16549 layer_factory.hpp:77] Creating layer inception_5a/relu_5x5
I0403 15:57:19.204435 16549 net.cpp:91] Creating Layer inception_5a/relu_5x5
I0403 15:57:19.204452 16549 net.cpp:425] inception_5a/relu_5x5 <- inception_5a/5x5
I0403 15:57:19.204469 16549 net.cpp:386] inception_5a/relu_5x5 -> inception_5a/5x5 (in-place)
I0403 15:57:19.204684 16549 net.cpp:141] Setting up inception_5a/relu_5x5
I0403 15:57:19.204710 16549 net.cpp:148] Top shape: 24 128 7 7 (150528)
I0403 15:57:19.204725 16549 net.cpp:156] Memory required for data: 1300555296
I0403 15:57:19.204738 16549 layer_factory.hpp:77] Creating layer inception_5a/pool
I0403 15:57:19.204756 16549 net.cpp:91] Creating Layer inception_5a/pool
I0403 15:57:19.204771 16549 net.cpp:425] inception_5a/pool <- pool4/3x3_s2_pool4/3x3_s2_0_split_3
I0403 15:57:19.204792 16549 net.cpp:399] inception_5a/pool -> inception_5a/pool
I0403 15:57:19.204864 16549 net.cpp:141] Setting up inception_5a/pool
I0403 15:57:19.204901 16549 net.cpp:148] Top shape: 24 832 7 7 (978432)
I0403 15:57:19.204917 16549 net.cpp:156] Memory required for data: 1304469024
I0403 15:57:19.204939 16549 layer_factory.hpp:77] Creating layer inception_5a/pool_proj
I0403 15:57:19.204963 16549 net.cpp:91] Creating Layer inception_5a/pool_proj
I0403 15:57:19.204982 16549 net.cpp:425] inception_5a/pool_proj <- inception_5a/pool
I0403 15:57:19.205000 16549 net.cpp:399] inception_5a/pool_proj -> inception_5a/pool_proj
I0403 15:57:19.207357 16549 net.cpp:141] Setting up inception_5a/pool_proj
I0403 15:57:19.207387 16549 net.cpp:148] Top shape: 24 128 7 7 (150528)
I0403 15:57:19.207403 16549 net.cpp:156] Memory required for data: 1305071136
I0403 15:57:19.207422 16549 layer_factory.hpp:77] Creating layer inception_5a/relu_pool_proj
I0403 15:57:19.207443 16549 net.cpp:91] Creating Layer inception_5a/relu_pool_proj
I0403 15:57:19.207459 16549 net.cpp:425] inception_5a/relu_pool_proj <- inception_5a/pool_proj
I0403 15:57:19.207478 16549 net.cpp:386] inception_5a/relu_pool_proj -> inception_5a/pool_proj (in-place)
I0403 15:57:19.207788 16549 net.cpp:141] Setting up inception_5a/relu_pool_proj
I0403 15:57:19.207814 16549 net.cpp:148] Top shape: 24 128 7 7 (150528)
I0403 15:57:19.207830 16549 net.cpp:156] Memory required for data: 1305673248
I0403 15:57:19.207844 16549 layer_factory.hpp:77] Creating layer inception_5a/output
I0403 15:57:19.207864 16549 net.cpp:91] Creating Layer inception_5a/output
I0403 15:57:19.207885 16549 net.cpp:425] inception_5a/output <- inception_5a/1x1
I0403 15:57:19.207902 16549 net.cpp:425] inception_5a/output <- inception_5a/3x3
I0403 15:57:19.207918 16549 net.cpp:425] inception_5a/output <- inception_5a/5x5
I0403 15:57:19.207933 16549 net.cpp:425] inception_5a/output <- inception_5a/pool_proj
I0403 15:57:19.207950 16549 net.cpp:399] inception_5a/output -> inception_5a/output
I0403 15:57:19.208003 16549 net.cpp:141] Setting up inception_5a/output
I0403 15:57:19.208026 16549 net.cpp:148] Top shape: 24 832 7 7 (978432)
I0403 15:57:19.208040 16549 net.cpp:156] Memory required for data: 1309586976
I0403 15:57:19.208055 16549 layer_factory.hpp:77] Creating layer inception_5a/output_inception_5a/output_0_split
I0403 15:57:19.208071 16549 net.cpp:91] Creating Layer inception_5a/output_inception_5a/output_0_split
I0403 15:57:19.208086 16549 net.cpp:425] inception_5a/output_inception_5a/output_0_split <- inception_5a/output
I0403 15:57:19.208106 16549 net.cpp:399] inception_5a/output_inception_5a/output_0_split -> inception_5a/output_inception_5a/output_0_split_0
I0403 15:57:19.208127 16549 net.cpp:399] inception_5a/output_inception_5a/output_0_split -> inception_5a/output_inception_5a/output_0_split_1
I0403 15:57:19.208148 16549 net.cpp:399] inception_5a/output_inception_5a/output_0_split -> inception_5a/output_inception_5a/output_0_split_2
I0403 15:57:19.208168 16549 net.cpp:399] inception_5a/output_inception_5a/output_0_split -> inception_5a/output_inception_5a/output_0_split_3
I0403 15:57:19.208281 16549 net.cpp:141] Setting up inception_5a/output_inception_5a/output_0_split
I0403 15:57:19.208305 16549 net.cpp:148] Top shape: 24 832 7 7 (978432)
I0403 15:57:19.208320 16549 net.cpp:148] Top shape: 24 832 7 7 (978432)
I0403 15:57:19.208335 16549 net.cpp:148] Top shape: 24 832 7 7 (978432)
I0403 15:57:19.208350 16549 net.cpp:148] Top shape: 24 832 7 7 (978432)
I0403 15:57:19.208364 16549 net.cpp:156] Memory required for data: 1325241888
I0403 15:57:19.208379 16549 layer_factory.hpp:77] Creating layer inception_5b/1x1
I0403 15:57:19.208400 16549 net.cpp:91] Creating Layer inception_5b/1x1
I0403 15:57:19.208418 16549 net.cpp:425] inception_5b/1x1 <- inception_5a/output_inception_5a/output_0_split_0
I0403 15:57:19.208441 16549 net.cpp:399] inception_5b/1x1 -> inception_5b/1x1
I0403 15:57:19.212395 16549 net.cpp:141] Setting up inception_5b/1x1
I0403 15:57:19.212426 16549 net.cpp:148] Top shape: 24 384 7 7 (451584)
I0403 15:57:19.212442 16549 net.cpp:156] Memory required for data: 1327048224
I0403 15:57:19.212461 16549 layer_factory.hpp:77] Creating layer inception_5b/relu_1x1
I0403 15:57:19.212482 16549 net.cpp:91] Creating Layer inception_5b/relu_1x1
I0403 15:57:19.212501 16549 net.cpp:425] inception_5b/relu_1x1 <- inception_5b/1x1
I0403 15:57:19.212518 16549 net.cpp:386] inception_5b/relu_1x1 -> inception_5b/1x1 (in-place)
I0403 15:57:19.212846 16549 net.cpp:141] Setting up inception_5b/relu_1x1
I0403 15:57:19.212872 16549 net.cpp:148] Top shape: 24 384 7 7 (451584)
I0403 15:57:19.212888 16549 net.cpp:156] Memory required for data: 1328854560
I0403 15:57:19.212904 16549 layer_factory.hpp:77] Creating layer inception_5b/3x3_reduce
I0403 15:57:19.212927 16549 net.cpp:91] Creating Layer inception_5b/3x3_reduce
I0403 15:57:19.212945 16549 net.cpp:425] inception_5b/3x3_reduce <- inception_5a/output_inception_5a/output_0_split_1
I0403 15:57:19.212970 16549 net.cpp:399] inception_5b/3x3_reduce -> inception_5b/3x3_reduce
I0403 15:57:19.215793 16549 net.cpp:141] Setting up inception_5b/3x3_reduce
I0403 15:57:19.215824 16549 net.cpp:148] Top shape: 24 192 7 7 (225792)
I0403 15:57:19.215842 16549 net.cpp:156] Memory required for data: 1329757728
I0403 15:57:19.215859 16549 layer_factory.hpp:77] Creating layer inception_5b/relu_3x3_reduce
I0403 15:57:19.215883 16549 net.cpp:91] Creating Layer inception_5b/relu_3x3_reduce
I0403 15:57:19.215900 16549 net.cpp:425] inception_5b/relu_3x3_reduce <- inception_5b/3x3_reduce
I0403 15:57:19.215919 16549 net.cpp:386] inception_5b/relu_3x3_reduce -> inception_5b/3x3_reduce (in-place)
I0403 15:57:19.216125 16549 net.cpp:141] Setting up inception_5b/relu_3x3_reduce
I0403 15:57:19.216153 16549 net.cpp:148] Top shape: 24 192 7 7 (225792)
I0403 15:57:19.216169 16549 net.cpp:156] Memory required for data: 1330660896
I0403 15:57:19.216183 16549 layer_factory.hpp:77] Creating layer inception_5b/3x3
I0403 15:57:19.216207 16549 net.cpp:91] Creating Layer inception_5b/3x3
I0403 15:57:19.216225 16549 net.cpp:425] inception_5b/3x3 <- inception_5b/3x3_reduce
I0403 15:57:19.216245 16549 net.cpp:399] inception_5b/3x3 -> inception_5b/3x3
I0403 15:57:19.223245 16549 net.cpp:141] Setting up inception_5b/3x3
I0403 15:57:19.223276 16549 net.cpp:148] Top shape: 24 384 7 7 (451584)
I0403 15:57:19.223292 16549 net.cpp:156] Memory required for data: 1332467232
I0403 15:57:19.223311 16549 layer_factory.hpp:77] Creating layer inception_5b/relu_3x3
I0403 15:57:19.223333 16549 net.cpp:91] Creating Layer inception_5b/relu_3x3
I0403 15:57:19.223351 16549 net.cpp:425] inception_5b/relu_3x3 <- inception_5b/3x3
I0403 15:57:19.223368 16549 net.cpp:386] inception_5b/relu_3x3 -> inception_5b/3x3 (in-place)
I0403 15:57:19.223690 16549 net.cpp:141] Setting up inception_5b/relu_3x3
I0403 15:57:19.223722 16549 net.cpp:148] Top shape: 24 384 7 7 (451584)
I0403 15:57:19.223737 16549 net.cpp:156] Memory required for data: 1334273568
I0403 15:57:19.223753 16549 layer_factory.hpp:77] Creating layer inception_5b/5x5_reduce
I0403 15:57:19.223793 16549 net.cpp:91] Creating Layer inception_5b/5x5_reduce
I0403 15:57:19.223814 16549 net.cpp:425] inception_5b/5x5_reduce <- inception_5a/output_inception_5a/output_0_split_2
I0403 15:57:19.223836 16549 net.cpp:399] inception_5b/5x5_reduce -> inception_5b/5x5_reduce
I0403 15:57:19.225195 16549 net.cpp:141] Setting up inception_5b/5x5_reduce
I0403 15:57:19.225234 16549 net.cpp:148] Top shape: 24 48 7 7 (56448)
I0403 15:57:19.225250 16549 net.cpp:156] Memory required for data: 1334499360
I0403 15:57:19.225270 16549 layer_factory.hpp:77] Creating layer inception_5b/relu_5x5_reduce
I0403 15:57:19.225291 16549 net.cpp:91] Creating Layer inception_5b/relu_5x5_reduce
I0403 15:57:19.225307 16549 net.cpp:425] inception_5b/relu_5x5_reduce <- inception_5b/5x5_reduce
I0403 15:57:19.225325 16549 net.cpp:386] inception_5b/relu_5x5_reduce -> inception_5b/5x5_reduce (in-place)
I0403 15:57:19.225733 16549 net.cpp:141] Setting up inception_5b/relu_5x5_reduce
I0403 15:57:19.225761 16549 net.cpp:148] Top shape: 24 48 7 7 (56448)
I0403 15:57:19.225777 16549 net.cpp:156] Memory required for data: 1334725152
I0403 15:57:19.225792 16549 layer_factory.hpp:77] Creating layer inception_5b/5x5
I0403 15:57:19.225813 16549 net.cpp:91] Creating Layer inception_5b/5x5
I0403 15:57:19.225831 16549 net.cpp:425] inception_5b/5x5 <- inception_5b/5x5_reduce
I0403 15:57:19.225852 16549 net.cpp:399] inception_5b/5x5 -> inception_5b/5x5
I0403 15:57:19.228013 16549 net.cpp:141] Setting up inception_5b/5x5
I0403 15:57:19.228046 16549 net.cpp:148] Top shape: 24 128 7 7 (150528)
I0403 15:57:19.228065 16549 net.cpp:156] Memory required for data: 1335327264
I0403 15:57:19.228083 16549 layer_factory.hpp:77] Creating layer inception_5b/relu_5x5
I0403 15:57:19.228101 16549 net.cpp:91] Creating Layer inception_5b/relu_5x5
I0403 15:57:19.228118 16549 net.cpp:425] inception_5b/relu_5x5 <- inception_5b/5x5
I0403 15:57:19.228137 16549 net.cpp:386] inception_5b/relu_5x5 -> inception_5b/5x5 (in-place)
I0403 15:57:19.228349 16549 net.cpp:141] Setting up inception_5b/relu_5x5
I0403 15:57:19.228374 16549 net.cpp:148] Top shape: 24 128 7 7 (150528)
I0403 15:57:19.228390 16549 net.cpp:156] Memory required for data: 1335929376
I0403 15:57:19.228405 16549 layer_factory.hpp:77] Creating layer inception_5b/pool
I0403 15:57:19.228423 16549 net.cpp:91] Creating Layer inception_5b/pool
I0403 15:57:19.228440 16549 net.cpp:425] inception_5b/pool <- inception_5a/output_inception_5a/output_0_split_3
I0403 15:57:19.228461 16549 net.cpp:399] inception_5b/pool -> inception_5b/pool
I0403 15:57:19.228536 16549 net.cpp:141] Setting up inception_5b/pool
I0403 15:57:19.228564 16549 net.cpp:148] Top shape: 24 832 7 7 (978432)
I0403 15:57:19.228585 16549 net.cpp:156] Memory required for data: 1339843104
I0403 15:57:19.228600 16549 layer_factory.hpp:77] Creating layer inception_5b/pool_proj
I0403 15:57:19.228622 16549 net.cpp:91] Creating Layer inception_5b/pool_proj
I0403 15:57:19.228641 16549 net.cpp:425] inception_5b/pool_proj <- inception_5b/pool
I0403 15:57:19.228662 16549 net.cpp:399] inception_5b/pool_proj -> inception_5b/pool_proj
I0403 15:57:19.231099 16549 net.cpp:141] Setting up inception_5b/pool_proj
I0403 15:57:19.231130 16549 net.cpp:148] Top shape: 24 128 7 7 (150528)
I0403 15:57:19.231147 16549 net.cpp:156] Memory required for data: 1340445216
I0403 15:57:19.231165 16549 layer_factory.hpp:77] Creating layer inception_5b/relu_pool_proj
I0403 15:57:19.231185 16549 net.cpp:91] Creating Layer inception_5b/relu_pool_proj
I0403 15:57:19.231204 16549 net.cpp:425] inception_5b/relu_pool_proj <- inception_5b/pool_proj
I0403 15:57:19.231221 16549 net.cpp:386] inception_5b/relu_pool_proj -> inception_5b/pool_proj (in-place)
I0403 15:57:19.231561 16549 net.cpp:141] Setting up inception_5b/relu_pool_proj
I0403 15:57:19.231595 16549 net.cpp:148] Top shape: 24 128 7 7 (150528)
I0403 15:57:19.231622 16549 net.cpp:156] Memory required for data: 1341047328
I0403 15:57:19.231637 16549 layer_factory.hpp:77] Creating layer inception_5b/output
I0403 15:57:19.231658 16549 net.cpp:91] Creating Layer inception_5b/output
I0403 15:57:19.231688 16549 net.cpp:425] inception_5b/output <- inception_5b/1x1
I0403 15:57:19.231708 16549 net.cpp:425] inception_5b/output <- inception_5b/3x3
I0403 15:57:19.231725 16549 net.cpp:425] inception_5b/output <- inception_5b/5x5
I0403 15:57:19.231741 16549 net.cpp:425] inception_5b/output <- inception_5b/pool_proj
I0403 15:57:19.231760 16549 net.cpp:399] inception_5b/output -> inception_5b/output
I0403 15:57:19.231815 16549 net.cpp:141] Setting up inception_5b/output
I0403 15:57:19.231840 16549 net.cpp:148] Top shape: 24 1024 7 7 (1204224)
I0403 15:57:19.231855 16549 net.cpp:156] Memory required for data: 1345864224
I0403 15:57:19.231870 16549 layer_factory.hpp:77] Creating layer pool5/7x7_s1
I0403 15:57:19.231889 16549 net.cpp:91] Creating Layer pool5/7x7_s1
I0403 15:57:19.231905 16549 net.cpp:425] pool5/7x7_s1 <- inception_5b/output
I0403 15:57:19.231925 16549 net.cpp:399] pool5/7x7_s1 -> pool5/7x7_s1
I0403 15:57:19.232164 16549 net.cpp:141] Setting up pool5/7x7_s1
I0403 15:57:19.232192 16549 net.cpp:148] Top shape: 24 1024 1 1 (24576)
I0403 15:57:19.232208 16549 net.cpp:156] Memory required for data: 1345962528
I0403 15:57:19.232223 16549 layer_factory.hpp:77] Creating layer pool5/drop_7x7_s1
I0403 15:57:19.232239 16549 net.cpp:91] Creating Layer pool5/drop_7x7_s1
I0403 15:57:19.232255 16549 net.cpp:425] pool5/drop_7x7_s1 <- pool5/7x7_s1
I0403 15:57:19.232272 16549 net.cpp:386] pool5/drop_7x7_s1 -> pool5/7x7_s1 (in-place)
I0403 15:57:19.232324 16549 net.cpp:141] Setting up pool5/drop_7x7_s1
I0403 15:57:19.232347 16549 net.cpp:148] Top shape: 24 1024 1 1 (24576)
I0403 15:57:19.232362 16549 net.cpp:156] Memory required for data: 1346060832
I0403 15:57:19.232381 16549 layer_factory.hpp:77] Creating layer loss3/classifier_plantvillage
I0403 15:57:19.232403 16549 net.cpp:91] Creating Layer loss3/classifier_plantvillage
I0403 15:57:19.232425 16549 net.cpp:425] loss3/classifier_plantvillage <- pool5/7x7_s1
I0403 15:57:19.232445 16549 net.cpp:399] loss3/classifier_plantvillage -> loss3/classifier_plantvillage
I0403 15:57:19.232892 16549 net.cpp:141] Setting up loss3/classifier_plantvillage
I0403 15:57:19.232918 16549 net.cpp:148] Top shape: 24 38 (912)
I0403 15:57:19.232931 16549 net.cpp:156] Memory required for data: 1346064480
I0403 15:57:19.232949 16549 layer_factory.hpp:77] Creating layer loss3/classifier_plantvillage_loss3/classifier_plantvillage_0_split
I0403 15:57:19.232967 16549 net.cpp:91] Creating Layer loss3/classifier_plantvillage_loss3/classifier_plantvillage_0_split
I0403 15:57:19.232983 16549 net.cpp:425] loss3/classifier_plantvillage_loss3/classifier_plantvillage_0_split <- loss3/classifier_plantvillage
I0403 15:57:19.233005 16549 net.cpp:399] loss3/classifier_plantvillage_loss3/classifier_plantvillage_0_split -> loss3/classifier_plantvillage_loss3/classifier_plantvillage_0_split_0
I0403 15:57:19.233026 16549 net.cpp:399] loss3/classifier_plantvillage_loss3/classifier_plantvillage_0_split -> loss3/classifier_plantvillage_loss3/classifier_plantvillage_0_split_1
I0403 15:57:19.233045 16549 net.cpp:399] loss3/classifier_plantvillage_loss3/classifier_plantvillage_0_split -> loss3/classifier_plantvillage_loss3/classifier_plantvillage_0_split_2
I0403 15:57:19.233067 16549 net.cpp:399] loss3/classifier_plantvillage_loss3/classifier_plantvillage_0_split -> loss3/classifier_plantvillage_loss3/classifier_plantvillage_0_split_3
I0403 15:57:19.233171 16549 net.cpp:141] Setting up loss3/classifier_plantvillage_loss3/classifier_plantvillage_0_split
I0403 15:57:19.233196 16549 net.cpp:148] Top shape: 24 38 (912)
I0403 15:57:19.233211 16549 net.cpp:148] Top shape: 24 38 (912)
I0403 15:57:19.233227 16549 net.cpp:148] Top shape: 24 38 (912)
I0403 15:57:19.233242 16549 net.cpp:148] Top shape: 24 38 (912)
I0403 15:57:19.233255 16549 net.cpp:156] Memory required for data: 1346079072
I0403 15:57:19.233270 16549 layer_factory.hpp:77] Creating layer loss1/loss
I0403 15:57:19.233291 16549 net.cpp:91] Creating Layer loss1/loss
I0403 15:57:19.233309 16549 net.cpp:425] loss1/loss <- loss1/classifier_plantvillage_loss1/classifier_plantvillage_0_split_0
I0403 15:57:19.233340 16549 net.cpp:425] loss1/loss <- label_data_1_split_0
…
