…
I0403 16:54:52.055572 19672 net.cpp:313] The NetState phase (1) differed from the phase (0) specified by a rule in layer data
I0403 16:54:52.057186 19672 net.cpp:49] Initializing net from parameters: 
state {
  phase: TEST
}
layer {
  name: "data"
  type: "Data"
  top: "data"
  top: "label"
  include {
    phase: TEST
  }
  transform_param {
    mirror: false
    crop_size: 224
    mean_file: "/home/mohanty/data/final_dataset/lmdb/segmented-20-80/mean.binaryproto"
  }
  data_param {
    source: "/home/mohanty/data/final_dataset/lmdb/segmented-20-80/test_db"
    batch_size: 24
    backend: LMDB
  }
}
layer {
  name: "conv1/7x7_s2"
  type: "Convolution"
  bottom: "data"
  top: "conv1/7x7_s2"
  param {
    lr_mult: 1
    decay_mult: 1
  }
  param {
    lr_mult: 2
    decay_mult: 0
  }
  convolution_param {
    num_output: 64
    pad: 3
    kernel_size: 7
    stride: 2
    weight_filler {
      type: "xavier"
      std: 0.1
    }
    bias_filler {
      type: "constant"
      value: 0.2
    }
  }
}
layer {
  name: "conv1/relu_7x7"
  type: "ReLU"
  bottom: "conv1/7x7_s2"
  top: "conv1/7x7_s2"
}
layer {
  name: "pool1/3x3_s2"
  type: "Pooling"
  bottom: "conv1/7x7_s2"
  top: "pool1/3x3_s2"
  pooling_param {
    pool: MAX
    kernel_size: 3
    stride: 2
  }
}
layer {
  name: "pool1/norm1"
  type: "LRN"
  bottom: "pool1/3x3_s2"
  top: "pool1/norm1"
  lrn_param {
    local_size: 5
    alpha: 0.0001
    beta: 0.75
  }
}
layer {
  name: "conv2/3x3_reduce"
  type: "Convolution"
  bottom: "pool1/norm1"
  top: "conv2/3x3_reduce"
  param {
    lr_mult: 1
    decay_mult: 1
  }
  param {
    lr_mult: 2
    decay_mult: 0
  }
  convolution_param {
    num_output: 64
    kernel_size: 1
    weight_filler {
      type: "xavier"
      std: 0.1
    }
    bias_filler {
      type: "constant"
      value: 0.2
    }
  }
}
layer {
  name: "conv2/relu_3x3_reduce"
  type: "ReLU"
  bottom: "conv2/3x3_reduce"
  top: "conv2/3x3_reduce"
}
layer {
  name: "conv2/3x3"
  type: "Convolution"
  bottom: "conv2/3x3_reduce"
  top: "conv2/3x3"
  param {
    lr_mult: 1
    decay_mult: 1
  }
  param {
    lr_mult: 2
    decay_mult: 0
  }
  convolution_param {
    num_output: 192
    pad: 1
    kernel_size: 3
    weight_filler {
      type: "xavier"
      std: 0.03
    }
    bias_filler {
      type: "constant"
      value: 0.2
    }
  }
}
layer {
  name: "conv2/relu_3x3"
  type: "ReLU"
  bottom: "conv2/3x3"
  top: "conv2/3x3"
}
layer {
  name: "conv2/norm2"
  type: "LRN"
  bottom: "conv2/3x3"
  top: "conv2/norm2"
  lrn_param {
    local_size: 5
    alpha: 0.0001
    beta: 0.75
  }
}
layer {
  name: "pool2/3x3_s2"
  type: "Pooling"
  bottom: "conv2/norm2"
  top: "pool2/3x3_s2"
  pooling_param {
    pool: MAX
    kernel_size: 3
    stride: 2
  }
}
layer {
  name: "inception_3a/1x1"
  type: "Convolution"
  bottom: "pool2/3x3_s2"
  top: "inception_3a/1x1"
  param {
    lr_mult: 1
    decay_mult: 1
  }
  param {
    lr_mult: 2
    decay_mult: 0
  }
  convolution_param {
    num_output: 64
    kernel_size: 1
    weight_filler {
      type: "xavier"
      std: 0.03
    }
    bias_filler {
      type: "constant"
      value: 0.2
    }
  }
}
layer {
  name: "inception_3a/relu_1x1"
  type: "ReLU"
  bottom: "inception_3a/1x1"
  top: "inception_3a/1x1"
}
layer {
  name: "inception_3a/3x3_reduce"
  type: "Convolution"
  bottom: "pool2/3x3_s2"
  top: "inception_3a/3x3_reduce"
  param {
    lr_mult: 1
    decay_mult: 1
  }
  param {
    lr_mult: 2
    decay_mult: 0
  }
  convolution_param {
    num_output: 96
    kernel_size: 1
    weight_filler {
      type: "xavier"
      std: 0.09
    }
    bias_filler {
      type: "constant"
      value: 0.2
    }
  }
}
layer {
  name: "inception_3a/relu_3x3_reduce"
  type: "ReLU"
  bottom: "inception_3a/3x3_reduce"
  top: "inception_3a/3x3_reduce"
}
layer {
  name: "inception_3a/3x3"
  type: "Convolution"
  bottom: "inception_3a/3x3_reduce"
  top: "inception_3a/3x3"
  param {
    lr_mult: 1
    decay_mult: 1
  }
  param {
    lr_mult: 2
    decay_mult: 0
  }
  convolution_param {
    num_output: 128
    pad: 1
    kernel_size: 3
    weight_filler {
      type: "xavier"
      std: 0.03
    }
    bias_filler {
      type: "constant"
      value: 0.2
    }
  }
}
layer {
  name: "inception_3a/relu_3x3"
  type: "ReLU"
  bottom: "inception_3a/3x3"
  top: "inception_3a/3x3"
}
layer {
  name: "inception_3a/5x5_reduce"
  type: "Convolution"
  bottom: "pool2/3x3_s2"
  top: "inception_3a/5x5_reduce"
  param {
    lr_mult: 1
    decay_mult: 1
  }
  param {
    lr_mult: 2
    decay_mult: 0
  }
  convolution_param {
    num_output: 16
    kernel_size: 1
    weight_filler {
      type: "xavier"
      std: 0.2
    }
    bias_filler {
      type: "constant"
      value: 0.2
    }
  }
}
layer {
  name: "inception_3a/relu_5x5_reduce"
  type: "ReLU"
  bottom: "inception_3a/5x5_reduce"
  top: "inception_3a/5x5_reduce"
}
layer {
  name: "inception_3a/5x5"
  type: "Convolution"
  bottom: "inception_3a/5x5_reduce"
  top: "inception_3a/5x5"
  param {
    lr_mult: 1
    decay_mult: 1
  }
  param {
    lr_mult: 2
    decay_mult: 0
  }
  convolution_param {
    num_output: 32
    pad: 2
    kernel_size: 5
    weight_filler {
      type: "xavier"
      std: 0.03
    }
    bias_filler {
      type: "constant"
      value: 0.2
    }
  }
}
layer {
  name: "inception_3a/relu_5x5"
  type: "ReLU"
  bottom: "inception_3a/5x5"
  top: "inception_3a/5x5"
}
layer {
  name: "inception_3a/pool"
  type: "Pooling"
  bottom: "pool2/3x3_s2"
  top: "inception_3a/pool"
  pooling_param {
    pool: MAX
    kernel_size: 3
    stride: 1
    pad: 1
  }
}
layer {
  name: "inception_3a/pool_proj"
  type: "Convolution"
  bottom: "inception_3a/pool"
  top: "inception_3a/pool_proj"
  param {
    lr_mult: 1
    decay_mult: 1
  }
  param {
    lr_mult: 2
    decay_mult: 0
  }
  convolution_param {
    num_output: 32
    kernel_size: 1
    weight_filler {
      type: "xavier"
      std: 0.1
    }
    bias_filler {
      type: "constant"
      value: 0.2
    }
  }
}
layer {
  name: "inception_3a/relu_pool_proj"
  type: "ReLU"
  bottom: "inception_3a/pool_proj"
  top: "inception_3a/pool_proj"
}
layer {
  name: "inception_3a/output"
  type: "Concat"
  bottom: "inception_3a/1x1"
  bottom: "inception_3a/3x3"
  bottom: "inception_3a/5x5"
  bottom: "inception_3a/pool_proj"
  top: "inception_3a/output"
}
layer {
  name: "inception_3b/1x1"
  type: "Convolution"
  bottom: "inception_3a/output"
  top: "inception_3b/1x1"
  param {
    lr_mult: 1
    decay_mult: 1
  }
  param {
    lr_mult: 2
    decay_mult: 0
  }
  convolution_param {
    num_output: 128
    kernel_size: 1
    weight_filler {
      type: "xavier"
      std: 0.03
    }
    bias_filler {
      type: "constant"
      value: 0.2
    }
  }
}
layer {
  name: "inception_3b/relu_1x1"
  type: "ReLU"
  bottom: "inception_3b/1x1"
  top: "inception_3b/1x1"
}
layer {
  name: "inception_3b/3x3_reduce"
  type: "Convolution"
  bottom: "inception_3a/output"
  top: "inception_3b/3x3_reduce"
  param {
    lr_mult: 1
    decay_mult: 1
  }
  param {
    lr_mult: 2
    decay_mult: 0
  }
  convolution_param {
    num_output: 128
    kernel_size: 1
    weight_filler {
      type: "xavier"
      std: 0.09
    }
    bias_filler {
      type: "constant"
      value: 0.2
    }
  }
}
layer {
  name: "inception_3b/relu_3x3_reduce"
  type: "ReLU"
  bottom: "inception_3b/3x3_reduce"
  top: "inception_3b/3x3_reduce"
}
layer {
  name: "inception_3b/3x3"
  type: "Convolution"
  bottom: "inception_3b/3x3_reduce"
  top: "inception_3b/3x3"
  param {
    lr_mult: 1
    decay_mult: 1
  }
  param {
    lr_mult: 2
    decay_mult: 0
  }
  convolution_param {
    num_output: 192
    pad: 1
    kernel_size: 3
    weight_filler {
      type: "xavier"
      std: 0.03
    }
    bias_filler {
      type: "constant"
      value: 0.2
    }
  }
}
layer {
  name: "inception_3b/relu_3x3"
  type: "ReLU"
  bottom: "inception_3b/3x3"
  top: "inception_3b/3x3"
}
layer {
  name: "inception_3b/5x5_reduce"
  type: "Convolution"
  bottom: "inception_3a/output"
  top: "inception_3b/5x5_reduce"
  param {
    lr_mult: 1
    decay_mult: 1
  }
  param {
    lr_mult: 2
    decay_mult: 0
  }
  convolution_param {
    num_output: 32
    kernel_size: 1
    weight_filler {
      type: "xavier"
      std: 0.2
    }
    bias_filler {
      type: "constant"
      value: 0.2
    }
  }
}
layer {
  name: "inception_3b/relu_5x5_reduce"
  type: "ReLU"
  bottom: "inception_3b/5x5_reduce"
  top: "inception_3b/5x5_reduce"
}
layer {
  name: "inception_3b/5x5"
  type: "Convolution"
  bottom: "inception_3b/5x5_reduce"
  top: "inception_3b/5x5"
  param {
    lr_mult: 1
    decay_mult: 1
  }
  param {
    lr_mult: 2
    decay_mult: 0
  }
  convolution_param {
    num_output: 96
    pad: 2
    kernel_size: 5
    weight_filler {
      type: "xavier"
      std: 0.03
    }
    bias_filler {
      type: "constant"
      value: 0.2
    }
  }
}
layer {
  name: "inception_3b/relu_5x5"
  type: "ReLU"
  bottom: "inception_3b/5x5"
  top: "inception_3b/5x5"
}
layer {
  name: "inception_3b/pool"
  type: "Pooling"
  bottom: "inception_3a/output"
  top: "inception_3b/pool"
  pooling_param {
    pool: MAX
    kernel_size: 3
    stride: 1
    pad: 1
  }
}
layer {
  name: "inception_3b/pool_proj"
  type: "Convolution"
  bottom: "inception_3b/pool"
  top: "inception_3b/pool_proj"
  param {
    lr_mult: 1
    decay_mult: 1
  }
  param {
    lr_mult: 2
    decay_mult: 0
  }
  convolution_param {
    num_output: 64
    kernel_size: 1
    weight_filler {
      type: "xavier"
      std: 0.1
    }
    bias_filler {
      type: "constant"
      value: 0.2
    }
  }
}
layer {
  name: "inception_3b/relu_pool_proj"
  type: "ReLU"
  bottom: "inception_3b/pool_proj"
  top: "inception_3b/pool_proj"
}
layer {
  name: "inception_3b/output"
  type: "Concat"
  bottom: "inception_3b/1x1"
  bottom: "inception_3b/3x3"
  bottom: "inception_3b/5x5"
  bottom: "inception_3b/pool_proj"
  top: "inception_3b/output"
}
layer {
  name: "pool3/3x3_s2"
  type: "Pooling"
  bottom: "inception_3b/output"
  top: "pool3/3x3_s2"
  pooling_param {
    pool: MAX
    kernel_size: 3
    stride: 2
  }
}
layer {
  name: "inception_4a/1x1"
  type: "Convolution"
  bottom: "pool3/3x3_s2"
  top: "inception_4a/1x1"
  param {
    lr_mult: 1
    decay_mult: 1
  }
  param {
    lr_mult: 2
    decay_mult: 0
  }
  convolution_param {
    num_output: 192
    kernel_size: 1
    weight_filler {
      type: "xavier"
      std: 0.03
    }
    bias_filler {
      type: "constant"
      value: 0.2
    }
  }
}
layer {
  name: "inception_4a/relu_1x1"
  type: "ReLU"
  bottom: "inception_4a/1x1"
  top: "inception_4a/1x1"
}
layer {
  name: "inception_4a/3x3_reduce"
  type: "Convolution"
  bottom: "pool3/3x3_s2"
  top: "inception_4a/3x3_reduce"
  param {
    lr_mult: 1
    decay_mult: 1
  }
  param {
    lr_mult: 2
    decay_mult: 0
  }
  convolution_param {
    num_output: 96
    kernel_size: 1
    weight_filler {
      type: "xavier"
      std: 0.09
    }
    bias_filler {
      type: "constant"
      value: 0.2
    }
  }
}
layer {
  name: "inception_4a/relu_3x3_reduce"
  type: "ReLU"
  bottom: "inception_4a/3x3_reduce"
  top: "inception_4a/3x3_reduce"
}
layer {
  name: "inception_4a/3x3"
  type: "Convolution"
  bottom: "inception_4a/3x3_reduce"
  top: "inception_4a/3x3"
  param {
    lr_mult: 1
    decay_mult: 1
  }
  param {
    lr_mult: 2
    decay_mult: 0
  }
  convolution_param {
    num_output: 208
    pad: 1
    kernel_size: 3
    weight_filler {
      type: "xavier"
      std: 0.03
    }
    bias_filler {
      type: "constant"
      value: 0.2
    }
  }
}
layer {
  name: "inception_4a/relu_3x3"
  type: "ReLU"
  bottom: "inception_4a/3x3"
  top: "inception_4a/3x3"
}
layer {
  name: "inception_4a/5x5_reduce"
  type: "Convolution"
  bottom: "pool3/3x3_s2"
  top: "inception_4a/5x5_reduce"
  param {
    lr_mult: 1
    decay_mult: 1
  }
  param {
    lr_mult: 2
    decay_mult: 0
  }
  convolution_param {
    num_output: 16
    kernel_size: 1
    weight_filler {
      type: "xavier"
      std: 0.2
    }
    bias_filler {
      type: "constant"
      value: 0.2
    }
  }
}
layer {
  name: "inception_4a/relu_5x5_reduce"
  type: "ReLU"
  bottom: "inception_4a/5x5_reduce"
  top: "inception_4a/5x5_reduce"
}
layer {
  name: "inception_4a/5x5"
  type: "Convolution"
  bottom: "inception_4a/5x5_reduce"
  top: "inception_4a/5x5"
  param {
    lr_mult: 1
    decay_mult: 1
  }
  param {
    lr_mult: 2
    decay_mult: 0
  }
  convolution_param {
    num_output: 48
    pad: 2
    kernel_size: 5
    weight_filler {
      type: "xavier"
      std: 0.03
    }
    bias_filler {
      type: "constant"
      value: 0.2
    }
  }
}
layer {
  name: "inception_4a/relu_5x5"
  type: "ReLU"
  bottom: "inception_4a/5x5"
  top: "inception_4a/5x5"
}
layer {
  name: "inception_4a/pool"
  type: "Pooling"
  bottom: "pool3/3x3_s2"
  top: "inception_4a/pool"
  pooling_param {
    pool: MAX
    kernel_size: 3
    stride: 1
    pad: 1
  }
}
layer {
  name: "inception_4a/pool_proj"
  type: "Convolution"
  bottom: "inception_4a/pool"
  top: "inception_4a/pool_proj"
  param {
    lr_mult: 1
    decay_mult: 1
  }
  param {
    lr_mult: 2
    decay_mult: 0
  }
  convolution_param {
    num_output: 64
    kernel_size: 1
    weight_filler {
      type: "xavier"
      std: 0.1
    }
    bias_filler {
      type: "constant"
      value: 0.2
    }
  }
}
layer {
  name: "inception_4a/relu_pool_proj"
  type: "ReLU"
  bottom: "inception_4a/pool_proj"
  top: "inception_4a/pool_proj"
}
layer {
  name: "inception_4a/output"
  type: "Concat"
  bottom: "inception_4a/1x1"
  bottom: "inception_4a/3x3"
  bottom: "inception_4a/5x5"
  bottom: "inception_4a/pool_proj"
  top: "inception_4a/output"
}
layer {
  name: "loss1/ave_pool"
  type: "Pooling"
  bottom: "inception_4a/output"
  top: "loss1/ave_pool"
  pooling_param {
    pool: AVE
    kernel_size: 5
    stride: 3
  }
}
layer {
  name: "loss1/conv"
  type: "Convolution"
  bottom: "loss1/ave_pool"
  top: "loss1/conv"
  param {
    lr_mult: 1
    decay_mult: 1
  }
  param {
    lr_mult: 2
    decay_mult: 0
  }
  convolution_param {
    num_output: 128
    kernel_size: 1
    weight_filler {
      type: "xavier"
      std: 0.08
    }
    bias_filler {
      type: "constant"
      value: 0.2
    }
  }
}
layer {
  name: "loss1/relu_conv"
  type: "ReLU"
  bottom: "loss1/conv"
  top: "loss1/conv"
}
layer {
  name: "loss1/fc"
  type: "InnerProduct"
  bottom: "loss1/conv"
  top: "loss1/fc"
  param {
    lr_mult: 1
    decay_mult: 1
  }
  param {
    lr_mult: 2
    decay_mult: 0
  }
  inner_product_param {
    num_output: 1024
    weight_filler {
      type: "xavier"
      std: 0.02
    }
    bias_filler {
      type: "constant"
      value: 0.2
    }
  }
}
layer {
  name: "loss1/relu_fc"
  type: "ReLU"
  bottom: "loss1/fc"
  top: "loss1/fc"
}
layer {
  name: "loss1/drop_fc"
  type: "Dropout"
  bottom: "loss1/fc"
  top: "loss1/fc"
  dropout_param {
    dropout_ratio: 0.7
  }
}
layer {
  name: "loss1/classifier_plantvillage"
  type: "InnerProduct"
  bottom: "loss1/fc"
  top: "loss1/classifier_plantvillage"
  param {
    lr_mult: 1
    decay_mult: 1
  }
  param {
    lr_mult: 2
    decay_mult: 0
  }
  inner_product_param {
    num_output: 38
    weight_filler {
      type: "xavier"
      std: 0.0009765625
    }
    bias_filler {
      type: "constant"
      value: 0
    }
  }
}
layer {
  name: "inception_4b/1x1"
  type: "Convolution"
  bottom: "inception_4a/output"
  top: "inception_4b/1x1"
  param {
    lr_mult: 1
    decay_mult: 1
  }
  param {
    lr_mult: 2
    decay_mult: 0
  }
  convolution_param {
    num_output: 160
    kernel_size: 1
    weight_filler {
      type: "xavier"
      std: 0.03
    }
    bias_filler {
      type: "constant"
      value: 0.2
    }
  }
}
layer {
  name: "inception_4b/relu_1x1"
  type: "ReLU"
  bottom: "inception_4b/1x1"
  top: "inception_4b/1x1"
}
layer {
  name: "inception_4b/3x3_reduce"
  type: "Convolution"
  bottom: "inception_4a/output"
  top: "inception_4b/3x3_reduce"
  param {
    lr_mult: 1
    decay_mult: 1
  }
  param {
    lr_mult: 2
    decay_mult: 0
  }
  convolution_param {
    num_output: 112
    kernel_size: 1
    weight_filler {
      type: "xavier"
      std: 0.09
    }
    bias_filler {
      type: "constant"
      value: 0.2
    }
  }
}
layer {
  name: "inception_4b/relu_3x3_reduce"
  type: "ReLU"
  bottom: "inception_4b/3x3_reduce"
  top: "inception_4b/3x3_reduce"
}
layer {
  name: "inception_4b/3x3"
  type: "Convolution"
  bottom: "inception_4b/3x3_reduce"
  top: "inception_4b/3x3"
  param {
    lr_mult: 1
    decay_mult: 1
  }
  param {
    lr_mult: 2
    decay_mult: 0
  }
  convolution_param {
    num_output: 224
    pad: 1
    kernel_size: 3
    weight_filler {
      type: "xavier"
      std: 0.03
    }
    bias_filler {
      type: "constant"
      value: 0.2
    }
  }
}
layer {
  name: "inception_4b/relu_3x3"
  type: "ReLU"
  bottom: "inception_4b/3x3"
  top: "inception_4b/3x3"
}
layer {
  name: "inception_4b/5x5_reduce"
  type: "Convolution"
  bottom: "inception_4a/output"
  top: "inception_4b/5x5_reduce"
  param {
    lr_mult: 1
    decay_mult: 1
  }
  param {
    lr_mult: 2
    decay_mult: 0
  }
  convolution_param {
    num_output: 24
    kernel_size: 1
    weight_filler {
      type: "xavier"
      std: 0.2
    }
    bias_filler {
      type: "constant"
      value: 0.2
    }
  }
}
layer {
  name: "inception_4b/relu_5x5_reduce"
  type: "ReLU"
  bottom: "inception_4b/5x5_reduce"
  top: "inception_4b/5x5_reduce"
}
layer {
  name: "inception_4b/5x5"
  type: "Convolution"
  bottom: "inception_4b/5x5_reduce"
  top: "inception_4b/5x5"
  param {
    lr_mult: 1
    decay_mult: 1
  }
  param {
    lr_mult: 2
    decay_mult: 0
  }
  convolution_param {
    num_output: 64
    pad: 2
    kernel_size: 5
    weight_filler {
      type: "xavier"
      std: 0.03
    }
    bias_filler {
      type: "constant"
      value: 0.2
    }
  }
}
layer {
  name: "inception_4b/relu_5x5"
  type: "ReLU"
  bottom: "inception_4b/5x5"
  top: "inception_4b/5x5"
}
layer {
  name: "inception_4b/pool"
  type: "Pooling"
  bottom: "inception_4a/output"
  top: "inception_4b/pool"
  pooling_param {
    pool: MAX
    kernel_size: 3
    stride: 1
    pad: 1
  }
}
layer {
  name: "inception_4b/pool_proj"
  type: "Convolution"
  bottom: "inception_4b/pool"
  top: "inception_4b/pool_proj"
  param {
    lr_mult: 1
    decay_mult: 1
  }
  param {
    lr_mult: 2
    decay_mult: 0
  }
  convolution_param {
    num_output: 64
    kernel_size: 1
    weight_filler {
      type: "xavier"
      std: 0.1
    }
    bias_filler {
      type: "constant"
      value: 0.2
    }
  }
}
layer {
  name: "inception_4b/relu_pool_proj"
  type: "ReLU"
  bottom: "inception_4b/pool_proj"
  top: "inception_4b/pool_proj"
}
layer {
  name: "inception_4b/output"
  type: "Concat"
  bottom: "inception_4b/1x1"
  bottom: "inception_4b/3x3"
  bottom: "inception_4b/5x5"
  bottom: "inception_4b/pool_proj"
  top: "inception_4b/output"
}
layer {
  name: "inception_4c/1x1"
  type: "Convolution"
  bottom: "inception_4b/output"
  top: "inception_4c/1x1"
  param {
    lr_mult: 1
    decay_mult: 1
  }
  param {
    lr_mult: 2
    decay_mult: 0
  }
  convolution_param {
    num_output: 128
    kernel_size: 1
    weight_filler {
      type: "xavier"
      std: 0.03
    }
    bias_filler {
      type: "constant"
      value: 0.2
    }
  }
}
layer {
  name: "inception_4c/relu_1x1"
  type: "ReLU"
  bottom: "inception_4c/1x1"
  top: "inception_4c/1x1"
}
layer {
  name: "inception_4c/3x3_reduce"
  type: "Convolution"
  bottom: "inception_4b/output"
  top: "inception_4c/3x3_reduce"
  param {
    lr_mult: 1
    decay_mult: 1
  }
  param {
    lr_mult: 2
    decay_mult: 0
  }
  convolution_param {
    num_output: 128
    kernel_size: 1
    weight_filler {
      type: "xavier"
      std: 0.09
    }
    bias_filler {
      type: "constant"
      value: 0.2
    }
  }
}
layer {
  name: "inception_4c/relu_3x3_reduce"
  type: "ReLU"
  bottom: "inception_4c/3x3_reduce"
  top: "inception_4c/3x3_reduce"
}
layer {
  name: "inception_4c/3x3"
  type: "Convolution"
  bottom: "inception_4c/3x3_reduce"
  top: "inception_4c/3x3"
  param {
    lr_mult: 1
    decay_mult: 1
  }
  param {
    lr_mult: 2
    decay_mult: 0
  }
  convolution_param {
    num_output: 256
    pad: 1
    kernel_size: 3
    weight_filler {
      type: "xavier"
      std: 0.03
    }
    bias_filler {
      type: "constant"
      value: 0.2
    }
  }
}
layer {
  name: "inception_4c/relu_3x3"
  type: "ReLU"
  bottom: "inception_4c/3x3"
  top: "inception_4c/3x3"
}
layer {
  name: "inception_4c/5x5_reduce"
  type: "Convolution"
  bottom: "inception_4b/output"
  top: "inception_4c/5x5_reduce"
  param {
    lr_mult: 1
    decay_mult: 1
  }
  param {
    lr_mult: 2
    decay_mult: 0
  }
  convolution_param {
    num_output: 24
    kernel_size: 1
    weight_filler {
      type: "xavier"
      std: 0.2
    }
    bias_filler {
      type: "constant"
      value: 0.2
    }
  }
}
layer {
  name: "inception_4c/relu_5x5_reduce"
  type: "ReLU"
  bottom: "inception_4c/5x5_reduce"
  top: "inception_4c/5x5_reduce"
}
layer {
  name: "inception_4c/5x5"
  type: "Convolution"
  bottom: "inception_4c/5x5_reduce"
  top: "inception_4c/5x5"
  param {
    lr_mult: 1
    decay_mult: 1
  }
  param {
    lr_mult: 2
    decay_mult: 0
  }
  convolution_param {
    num_output: 64
    pad: 2
    kernel_size: 5
    weight_filler {
      type: "xavier"
      std: 0.03
    }
    bias_filler {
      type: "constant"
      value: 0.2
    }
  }
}
layer {
  name: "inception_4c/relu_5x5"
  type: "ReLU"
  bottom: "inception_4c/5x5"
  top: "inception_4c/5x5"
}
layer {
  name: "inception_4c/pool"
  type: "Pooling"
  bottom: "inception_4b/output"
  top: "inception_4c/pool"
  pooling_param {
    pool: MAX
    kernel_size: 3
    stride: 1
    pad: 1
  }
}
layer {
  name: "inception_4c/pool_proj"
  type: "Convolution"
  bottom: "inception_4c/pool"
  top: "inception_4c/pool_proj"
  param {
    lr_mult: 1
    decay_mult: 1
  }
  param {
    lr_mult: 2
    decay_mult: 0
  }
  convolution_param {
    num_output: 64
    kernel_size: 1
    weight_filler {
      type: "xavier"
      std: 0.1
    }
    bias_filler {
      type: "constant"
      value: 0.2
    }
  }
}
layer {
  name: "inception_4c/relu_pool_proj"
  type: "ReLU"
  bottom: "inception_4c/pool_proj"
  top: "inception_4c/pool_proj"
}
layer {
  name: "inception_4c/output"
  type: "Concat"
  bottom: "inception_4c/1x1"
  bottom: "inception_4c/3x3"
  bottom: "inception_4c/5x5"
  bottom: "inception_4c/pool_proj"
  top: "inception_4c/output"
}
layer {
  name: "inception_4d/1x1"
  type: "Convolution"
  bottom: "inception_4c/output"
  top: "inception_4d/1x1"
  param {
    lr_mult: 1
    decay_mult: 1
  }
  param {
    lr_mult: 2
    decay_mult: 0
  }
  convolution_param {
    num_output: 112
    kernel_size: 1
    weight_filler {
      type: "xavier"
      std: 0.03
    }
    bias_filler {
      type: "constant"
      value: 0.2
    }
  }
}
layer {
  name: "inception_4d/relu_1x1"
  type: "ReLU"
  bottom: "inception_4d/1x1"
  top: "inception_4d/1x1"
}
layer {
  name: "inception_4d/3x3_reduce"
  type: "Convolution"
  bottom: "inception_4c/output"
  top: "inception_4d/3x3_reduce"
  param {
    lr_mult: 1
    decay_mult: 1
  }
  param {
    lr_mult: 2
    decay_mult: 0
  }
  convolution_param {
    num_output: 144
    kernel_size: 1
    weight_filler {
      type: "xavier"
      std: 0.09
    }
    bias_filler {
      type: "constant"
      value: 0.2
    }
  }
}
layer {
  name: "inception_4d/relu_3x3_reduce"
  type: "ReLU"
  bottom: "inception_4d/3x3_reduce"
  top: "inception_4d/3x3_reduce"
}
layer {
  name: "inception_4d/3x3"
  type: "Convolution"
  bottom: "inception_4d/3x3_reduce"
  top: "inception_4d/3x3"
  param {
    lr_mult: 1
    decay_mult: 1
  }
  param {
    lr_mult: 2
    decay_mult: 0
  }
  convolution_param {
    num_output: 288
    pad: 1
    kernel_size: 3
    weight_filler {
      type: "xavier"
      std: 0.03
    }
    bias_filler {
      type: "constant"
      value: 0.2
    }
  }
}
layer {
  name: "inception_4d/relu_3x3"
  type: "ReLU"
  bottom: "inception_4d/3x3"
  top: "inception_4d/3x3"
}
layer {
  name: "inception_4d/5x5_reduce"
  type: "Convolution"
  bottom: "inception_4c/output"
  top: "inception_4d/5x5_reduce"
  param {
    lr_mult: 1
    decay_mult: 1
  }
  param {
    lr_mult: 2
    decay_mult: 0
  }
  convolution_param {
    num_output: 32
    kernel_size: 1
    weight_filler {
      type: "xavier"
      std: 0.2
    }
    bias_filler {
      type: "constant"
      value: 0.2
    }
  }
}
layer {
  name: "inception_4d/relu_5x5_reduce"
  type: "ReLU"
  bottom: "inception_4d/5x5_reduce"
  top: "inception_4d/5x5_reduce"
}
layer {
  name: "inception_4d/5x5"
  type: "Convolution"
  bottom: "inception_4d/5x5_reduce"
  top: "inception_4d/5x5"
  param {
    lr_mult: 1
    decay_mult: 1
  }
  param {
    lr_mult: 2
    decay_mult: 0
  }
  convolution_param {
    num_output: 64
    pad: 2
    kernel_size: 5
    weight_filler {
      type: "xavier"
      std: 0.03
    }
    bias_filler {
      type: "constant"
      value: 0.2
    }
  }
}
layer {
  name: "inception_4d/relu_5x5"
  type: "ReLU"
  bottom: "inception_4d/5x5"
  top: "inception_4d/5x5"
}
layer {
  name: "inception_4d/pool"
  type: "Pooling"
  bottom: "inception_4c/output"
  top: "inception_4d/pool"
  pooling_param {
    pool: MAX
    kernel_size: 3
    stride: 1
    pad: 1
  }
}
layer {
  name: "inception_4d/pool_proj"
  type: "Convolution"
  bottom: "inception_4d/pool"
  top: "inception_4d/pool_proj"
  param {
    lr_mult: 1
    decay_mult: 1
  }
  param {
    lr_mult: 2
    decay_mult: 0
  }
  convolution_param {
    num_output: 64
    kernel_size: 1
    weight_filler {
      type: "xavier"
      std: 0.1
    }
    bias_filler {
      type: "constant"
      value: 0.2
    }
  }
}
layer {
  name: "inception_4d/relu_pool_proj"
  type: "ReLU"
  bottom: "inception_4d/pool_proj"
  top: "inception_4d/pool_proj"
}
layer {
  name: "inception_4d/output"
  type: "Concat"
  bottom: "inception_4d/1x1"
  bottom: "inception_4d/3x3"
  bottom: "inception_4d/5x5"
  bottom: "inception_4d/pool_proj"
  top: "inception_4d/output"
}
layer {
  name: "loss2/ave_pool"
  type: "Pooling"
  bottom: "inception_4d/output"
  top: "loss2/ave_pool"
  pooling_param {
    pool: AVE
    kernel_size: 5
    stride: 3
  }
}
layer {
  name: "loss2/conv"
  type: "Convolution"
  bottom: "loss2/ave_pool"
  top: "loss2/conv"
  param {
    lr_mult: 1
    decay_mult: 1
  }
  param {
    lr_mult: 2
    decay_mult: 0
  }
  convolution_param {
    num_output: 128
    kernel_size: 1
    weight_filler {
      type: "xavier"
      std: 0.08
    }
    bias_filler {
      type: "constant"
      value: 0.2
    }
  }
}
layer {
  name: "loss2/relu_conv"
  type: "ReLU"
  bottom: "loss2/conv"
  top: "loss2/conv"
}
layer {
  name: "loss2/fc"
  type: "InnerProduct"
  bottom: "loss2/conv"
  top: "loss2/fc"
  param {
    lr_mult: 1
    decay_mult: 1
  }
  param {
    lr_mult: 2
    decay_mult: 0
  }
  inner_product_param {
    num_output: 1024
    weight_filler {
      type: "xavier"
      std: 0.02
    }
    bias_filler {
      type: "constant"
      value: 0.2
    }
  }
}
layer {
  name: "loss2/relu_fc"
  type: "ReLU"
  bottom: "loss2/fc"
  top: "loss2/fc"
}
layer {
  name: "loss2/drop_fc"
  type: "Dropout"
  bottom: "loss2/fc"
  top: "loss2/fc"
  dropout_param {
    dropout_ratio: 0.7
  }
}
layer {
  name: "loss2/classifier_plantvillage"
  type: "InnerProduct"
  bottom: "loss2/fc"
  top: "loss2/classifier_plantvillage"
  param {
    lr_mult: 1
    decay_mult: 1
  }
  param {
    lr_mult: 2
    decay_mult: 0
  }
  inner_product_param {
    num_output: 38
    weight_filler {
      type: "xavier"
      std: 0.0009765625
    }
    bias_filler {
      type: "constant"
      value: 0
    }
  }
}
layer {
  name: "inception_4e/1x1"
  type: "Convolution"
  bottom: "inception_4d/output"
  top: "inception_4e/1x1"
  param {
    lr_mult: 1
    decay_mult: 1
  }
  param {
    lr_mult: 2
    decay_mult: 0
  }
  convolution_param {
    num_output: 256
    kernel_size: 1
    weight_filler {
      type: "xavier"
      std: 0.03
    }
    bias_filler {
      type: "constant"
      value: 0.2
    }
  }
}
layer {
  name: "inception_4e/relu_1x1"
  type: "ReLU"
  bottom: "inception_4e/1x1"
  top: "inception_4e/1x1"
}
layer {
  name: "inception_4e/3x3_reduce"
  type: "Convolution"
  bottom: "inception_4d/output"
  top: "inception_4e/3x3_reduce"
  param {
    lr_mult: 1
    decay_mult: 1
  }
  param {
    lr_mult: 2
    decay_mult: 0
  }
  convolution_param {
    num_output: 160
    kernel_size: 1
    weight_filler {
      type: "xavier"
      std: 0.09
    }
    bias_filler {
      type: "constant"
      value: 0.2
    }
  }
}
layer {
  name: "inception_4e/relu_3x3_reduce"
  type: "ReLU"
  bottom: "inception_4e/3x3_reduce"
  top: "inception_4e/3x3_reduce"
}
layer {
  name: "inception_4e/3x3"
  type: "Convolution"
  bottom: "inception_4e/3x3_reduce"
  top: "inception_4e/3x3"
  param {
    lr_mult: 1
    decay_mult: 1
  }
  param {
    lr_mult: 2
    decay_mult: 0
  }
  convolution_param {
    num_output: 320
    pad: 1
    kernel_size: 3
    weight_filler {
      type: "xavier"
      std: 0.03
    }
    bias_filler {
      type: "constant"
      value: 0.2
    }
  }
}
layer {
  name: "inception_4e/relu_3x3"
  type: "ReLU"
  bottom: "inception_4e/3x3"
  top: "inception_4e/3x3"
}
layer {
  name: "inception_4e/5x5_reduce"
  type: "Convolution"
  bottom: "inception_4d/output"
  top: "inception_4e/5x5_reduce"
  param {
    lr_mult: 1
    decay_mult: 1
  }
  param {
    lr_mult: 2
    decay_mult: 0
  }
  convolution_param {
    num_output: 32
    kernel_size: 1
    weight_filler {
      type: "xavier"
      std: 0.2
    }
    bias_filler {
      type: "constant"
      value: 0.2
    }
  }
}
layer {
  name: "inception_4e/relu_5x5_reduce"
  type: "ReLU"
  bottom: "inception_4e/5x5_reduce"
  top: "inception_4e/5x5_reduce"
}
layer {
  name: "inception_4e/5x5"
  type: "Convolution"
  bottom: "inception_4e/5x5_reduce"
  top: "inception_4e/
I0403 16:54:52.058696 19672 layer_factory.hpp:77] Creating layer data
I0403 16:54:52.059413 19672 net.cpp:91] Creating Layer data
I0403 16:54:52.059453 19672 net.cpp:399] data -> data
I0403 16:54:52.059512 19672 net.cpp:399] data -> label
I0403 16:54:52.059556 19672 data_transformer.cpp:25] Loading mean file from: /home/mohanty/data/final_dataset/lmdb/segmented-20-80/mean.binaryproto
I0403 16:54:52.061008 19674 db_lmdb.cpp:38] Opened lmdb /home/mohanty/data/final_dataset/lmdb/segmented-20-80/test_db
I0403 16:54:52.075085 19672 data_layer.cpp:41] output data size: 24,3,224,224
I0403 16:54:52.107198 19672 net.cpp:141] Setting up data
I0403 16:54:52.107297 19672 net.cpp:148] Top shape: 24 3 224 224 (3612672)
I0403 16:54:52.107326 19672 net.cpp:148] Top shape: 24 (24)
I0403 16:54:52.107344 19672 net.cpp:156] Memory required for data: 14450784
I0403 16:54:52.107377 19672 layer_factory.hpp:77] Creating layer label_data_1_split
I0403 16:54:52.107409 19672 net.cpp:91] Creating Layer label_data_1_split
I0403 16:54:52.107431 19672 net.cpp:425] label_data_1_split <- label
I0403 16:54:52.107471 19672 net.cpp:399] label_data_1_split -> label_data_1_split_0
I0403 16:54:52.107506 19672 net.cpp:399] label_data_1_split -> label_data_1_split_1
I0403 16:54:52.107533 19672 net.cpp:399] label_data_1_split -> label_data_1_split_2
I0403 16:54:52.107559 19672 net.cpp:399] label_data_1_split -> label_data_1_split_3
I0403 16:54:52.107591 19672 net.cpp:399] label_data_1_split -> label_data_1_split_4
I0403 16:54:52.107619 19672 net.cpp:399] label_data_1_split -> label_data_1_split_5
I0403 16:54:52.107643 19672 net.cpp:399] label_data_1_split -> label_data_1_split_6
I0403 16:54:52.107668 19672 net.cpp:399] label_data_1_split -> label_data_1_split_7
I0403 16:54:52.107693 19672 net.cpp:399] label_data_1_split -> label_data_1_split_8
I0403 16:54:52.107718 19672 net.cpp:399] label_data_1_split -> label_data_1_split_9
I0403 16:54:52.107863 19672 net.cpp:141] Setting up label_data_1_split
I0403 16:54:52.107892 19672 net.cpp:148] Top shape: 24 (24)
I0403 16:54:52.107914 19672 net.cpp:148] Top shape: 24 (24)
I0403 16:54:52.107934 19672 net.cpp:148] Top shape: 24 (24)
I0403 16:54:52.107954 19672 net.cpp:148] Top shape: 24 (24)
I0403 16:54:52.107972 19672 net.cpp:148] Top shape: 24 (24)
I0403 16:54:52.107990 19672 net.cpp:148] Top shape: 24 (24)
I0403 16:54:52.108008 19672 net.cpp:148] Top shape: 24 (24)
I0403 16:54:52.108028 19672 net.cpp:148] Top shape: 24 (24)
I0403 16:54:52.108047 19672 net.cpp:148] Top shape: 24 (24)
I0403 16:54:52.108067 19672 net.cpp:148] Top shape: 24 (24)
I0403 16:54:52.108121 19672 net.cpp:156] Memory required for data: 14451744
I0403 16:54:52.108140 19672 layer_factory.hpp:77] Creating layer conv1/7x7_s2
I0403 16:54:52.108178 19672 net.cpp:91] Creating Layer conv1/7x7_s2
I0403 16:54:52.108201 19672 net.cpp:425] conv1/7x7_s2 <- data
I0403 16:54:52.108223 19672 net.cpp:399] conv1/7x7_s2 -> conv1/7x7_s2
I0403 16:54:52.274775 19672 net.cpp:141] Setting up conv1/7x7_s2
I0403 16:54:52.274862 19672 net.cpp:148] Top shape: 24 64 112 112 (19267584)
I0403 16:54:52.274883 19672 net.cpp:156] Memory required for data: 91522080
I0403 16:54:52.274919 19672 layer_factory.hpp:77] Creating layer conv1/relu_7x7
I0403 16:54:52.274950 19672 net.cpp:91] Creating Layer conv1/relu_7x7
I0403 16:54:52.274972 19672 net.cpp:425] conv1/relu_7x7 <- conv1/7x7_s2
I0403 16:54:52.274996 19672 net.cpp:386] conv1/relu_7x7 -> conv1/7x7_s2 (in-place)
I0403 16:54:52.275303 19672 net.cpp:141] Setting up conv1/relu_7x7
I0403 16:54:52.275336 19672 net.cpp:148] Top shape: 24 64 112 112 (19267584)
I0403 16:54:52.275353 19672 net.cpp:156] Memory required for data: 168592416
I0403 16:54:52.275372 19672 layer_factory.hpp:77] Creating layer pool1/3x3_s2
I0403 16:54:52.275401 19672 net.cpp:91] Creating Layer pool1/3x3_s2
I0403 16:54:52.275424 19672 net.cpp:425] pool1/3x3_s2 <- conv1/7x7_s2
I0403 16:54:52.275445 19672 net.cpp:399] pool1/3x3_s2 -> pool1/3x3_s2
I0403 16:54:52.275535 19672 net.cpp:141] Setting up pool1/3x3_s2
I0403 16:54:52.275565 19672 net.cpp:148] Top shape: 24 64 56 56 (4816896)
I0403 16:54:52.275589 19672 net.cpp:156] Memory required for data: 187860000
I0403 16:54:52.275607 19672 layer_factory.hpp:77] Creating layer pool1/norm1
I0403 16:54:52.275636 19672 net.cpp:91] Creating Layer pool1/norm1
I0403 16:54:52.275656 19672 net.cpp:425] pool1/norm1 <- pool1/3x3_s2
I0403 16:54:52.275677 19672 net.cpp:399] pool1/norm1 -> pool1/norm1
I0403 16:54:52.276020 19672 net.cpp:141] Setting up pool1/norm1
I0403 16:54:52.276052 19672 net.cpp:148] Top shape: 24 64 56 56 (4816896)
I0403 16:54:52.276072 19672 net.cpp:156] Memory required for data: 207127584
I0403 16:54:52.276088 19672 layer_factory.hpp:77] Creating layer conv2/3x3_reduce
I0403 16:54:52.276118 19672 net.cpp:91] Creating Layer conv2/3x3_reduce
I0403 16:54:52.276139 19672 net.cpp:425] conv2/3x3_reduce <- pool1/norm1
I0403 16:54:52.276160 19672 net.cpp:399] conv2/3x3_reduce -> conv2/3x3_reduce
I0403 16:54:52.277822 19672 net.cpp:141] Setting up conv2/3x3_reduce
I0403 16:54:52.277858 19672 net.cpp:148] Top shape: 24 64 56 56 (4816896)
I0403 16:54:52.277878 19672 net.cpp:156] Memory required for data: 226395168
I0403 16:54:52.277901 19672 layer_factory.hpp:77] Creating layer conv2/relu_3x3_reduce
I0403 16:54:52.277928 19672 net.cpp:91] Creating Layer conv2/relu_3x3_reduce
I0403 16:54:52.277947 19672 net.cpp:425] conv2/relu_3x3_reduce <- conv2/3x3_reduce
I0403 16:54:52.277968 19672 net.cpp:386] conv2/relu_3x3_reduce -> conv2/3x3_reduce (in-place)
I0403 16:54:52.278293 19672 net.cpp:141] Setting up conv2/relu_3x3_reduce
I0403 16:54:52.278326 19672 net.cpp:148] Top shape: 24 64 56 56 (4816896)
I0403 16:54:52.278343 19672 net.cpp:156] Memory required for data: 245662752
I0403 16:54:52.278360 19672 layer_factory.hpp:77] Creating layer conv2/3x3
I0403 16:54:52.278391 19672 net.cpp:91] Creating Layer conv2/3x3
I0403 16:54:52.278414 19672 net.cpp:425] conv2/3x3 <- conv2/3x3_reduce
I0403 16:54:52.278439 19672 net.cpp:399] conv2/3x3 -> conv2/3x3
I0403 16:54:52.281227 19672 net.cpp:141] Setting up conv2/3x3
I0403 16:54:52.281263 19672 net.cpp:148] Top shape: 24 192 56 56 (14450688)
I0403 16:54:52.281285 19672 net.cpp:156] Memory required for data: 303465504
I0403 16:54:52.281311 19672 layer_factory.hpp:77] Creating layer conv2/relu_3x3
I0403 16:54:52.281335 19672 net.cpp:91] Creating Layer conv2/relu_3x3
I0403 16:54:52.281357 19672 net.cpp:425] conv2/relu_3x3 <- conv2/3x3
I0403 16:54:52.281378 19672 net.cpp:386] conv2/relu_3x3 -> conv2/3x3 (in-place)
I0403 16:54:52.281597 19672 net.cpp:141] Setting up conv2/relu_3x3
I0403 16:54:52.281632 19672 net.cpp:148] Top shape: 24 192 56 56 (14450688)
I0403 16:54:52.281694 19672 net.cpp:156] Memory required for data: 361268256
I0403 16:54:52.281713 19672 layer_factory.hpp:77] Creating layer conv2/norm2
I0403 16:54:52.281735 19672 net.cpp:91] Creating Layer conv2/norm2
I0403 16:54:52.281755 19672 net.cpp:425] conv2/norm2 <- conv2/3x3
I0403 16:54:52.281780 19672 net.cpp:399] conv2/norm2 -> conv2/norm2
I0403 16:54:52.282160 19672 net.cpp:141] Setting up conv2/norm2
I0403 16:54:52.282192 19672 net.cpp:148] Top shape: 24 192 56 56 (14450688)
I0403 16:54:52.282212 19672 net.cpp:156] Memory required for data: 419071008
I0403 16:54:52.282229 19672 layer_factory.hpp:77] Creating layer pool2/3x3_s2
I0403 16:54:52.282250 19672 net.cpp:91] Creating Layer pool2/3x3_s2
I0403 16:54:52.282270 19672 net.cpp:425] pool2/3x3_s2 <- conv2/norm2
I0403 16:54:52.282294 19672 net.cpp:399] pool2/3x3_s2 -> pool2/3x3_s2
I0403 16:54:52.282361 19672 net.cpp:141] Setting up pool2/3x3_s2
I0403 16:54:52.282390 19672 net.cpp:148] Top shape: 24 192 28 28 (3612672)
I0403 16:54:52.282410 19672 net.cpp:156] Memory required for data: 433521696
I0403 16:54:52.282428 19672 layer_factory.hpp:77] Creating layer pool2/3x3_s2_pool2/3x3_s2_0_split
I0403 16:54:52.282449 19672 net.cpp:91] Creating Layer pool2/3x3_s2_pool2/3x3_s2_0_split
I0403 16:54:52.282467 19672 net.cpp:425] pool2/3x3_s2_pool2/3x3_s2_0_split <- pool2/3x3_s2
I0403 16:54:52.282488 19672 net.cpp:399] pool2/3x3_s2_pool2/3x3_s2_0_split -> pool2/3x3_s2_pool2/3x3_s2_0_split_0
I0403 16:54:52.282513 19672 net.cpp:399] pool2/3x3_s2_pool2/3x3_s2_0_split -> pool2/3x3_s2_pool2/3x3_s2_0_split_1
I0403 16:54:52.282538 19672 net.cpp:399] pool2/3x3_s2_pool2/3x3_s2_0_split -> pool2/3x3_s2_pool2/3x3_s2_0_split_2
I0403 16:54:52.282562 19672 net.cpp:399] pool2/3x3_s2_pool2/3x3_s2_0_split -> pool2/3x3_s2_pool2/3x3_s2_0_split_3
I0403 16:54:52.282661 19672 net.cpp:141] Setting up pool2/3x3_s2_pool2/3x3_s2_0_split
I0403 16:54:52.282690 19672 net.cpp:148] Top shape: 24 192 28 28 (3612672)
I0403 16:54:52.282709 19672 net.cpp:148] Top shape: 24 192 28 28 (3612672)
I0403 16:54:52.282728 19672 net.cpp:148] Top shape: 24 192 28 28 (3612672)
I0403 16:54:52.282747 19672 net.cpp:148] Top shape: 24 192 28 28 (3612672)
I0403 16:54:52.282763 19672 net.cpp:156] Memory required for data: 491324448
I0403 16:54:52.282779 19672 layer_factory.hpp:77] Creating layer inception_3a/1x1
I0403 16:54:52.282807 19672 net.cpp:91] Creating Layer inception_3a/1x1
I0403 16:54:52.282829 19672 net.cpp:425] inception_3a/1x1 <- pool2/3x3_s2_pool2/3x3_s2_0_split_0
I0403 16:54:52.282853 19672 net.cpp:399] inception_3a/1x1 -> inception_3a/1x1
I0403 16:54:52.284726 19672 net.cpp:141] Setting up inception_3a/1x1
I0403 16:54:52.284764 19672 net.cpp:148] Top shape: 24 64 28 28 (1204224)
I0403 16:54:52.284782 19672 net.cpp:156] Memory required for data: 496141344
I0403 16:54:52.284806 19672 layer_factory.hpp:77] Creating layer inception_3a/relu_1x1
I0403 16:54:52.284828 19672 net.cpp:91] Creating Layer inception_3a/relu_1x1
I0403 16:54:52.284847 19672 net.cpp:425] inception_3a/relu_1x1 <- inception_3a/1x1
I0403 16:54:52.284871 19672 net.cpp:386] inception_3a/relu_1x1 -> inception_3a/1x1 (in-place)
I0403 16:54:52.285085 19672 net.cpp:141] Setting up inception_3a/relu_1x1
I0403 16:54:52.285115 19672 net.cpp:148] Top shape: 24 64 28 28 (1204224)
I0403 16:54:52.285133 19672 net.cpp:156] Memory required for data: 500958240
I0403 16:54:52.285151 19672 layer_factory.hpp:77] Creating layer inception_3a/3x3_reduce
I0403 16:54:52.285179 19672 net.cpp:91] Creating Layer inception_3a/3x3_reduce
I0403 16:54:52.285200 19672 net.cpp:425] inception_3a/3x3_reduce <- pool2/3x3_s2_pool2/3x3_s2_0_split_1
I0403 16:54:52.285226 19672 net.cpp:399] inception_3a/3x3_reduce -> inception_3a/3x3_reduce
I0403 16:54:52.287274 19672 net.cpp:141] Setting up inception_3a/3x3_reduce
I0403 16:54:52.287310 19672 net.cpp:148] Top shape: 24 96 28 28 (1806336)
I0403 16:54:52.287330 19672 net.cpp:156] Memory required for data: 508183584
I0403 16:54:52.287355 19672 layer_factory.hpp:77] Creating layer inception_3a/relu_3x3_reduce
I0403 16:54:52.287401 19672 net.cpp:91] Creating Layer inception_3a/relu_3x3_reduce
I0403 16:54:52.287425 19672 net.cpp:425] inception_3a/relu_3x3_reduce <- inception_3a/3x3_reduce
I0403 16:54:52.287446 19672 net.cpp:386] inception_3a/relu_3x3_reduce -> inception_3a/3x3_reduce (in-place)
I0403 16:54:52.287680 19672 net.cpp:141] Setting up inception_3a/relu_3x3_reduce
I0403 16:54:52.287710 19672 net.cpp:148] Top shape: 24 96 28 28 (1806336)
I0403 16:54:52.287729 19672 net.cpp:156] Memory required for data: 515408928
I0403 16:54:52.287746 19672 layer_factory.hpp:77] Creating layer inception_3a/3x3
I0403 16:54:52.287775 19672 net.cpp:91] Creating Layer inception_3a/3x3
I0403 16:54:52.287796 19672 net.cpp:425] inception_3a/3x3 <- inception_3a/3x3_reduce
I0403 16:54:52.287822 19672 net.cpp:399] inception_3a/3x3 -> inception_3a/3x3
I0403 16:54:52.289839 19672 net.cpp:141] Setting up inception_3a/3x3
I0403 16:54:52.289873 19672 net.cpp:148] Top shape: 24 128 28 28 (2408448)
I0403 16:54:52.289892 19672 net.cpp:156] Memory required for data: 525042720
I0403 16:54:52.289916 19672 layer_factory.hpp:77] Creating layer inception_3a/relu_3x3
I0403 16:54:52.289940 19672 net.cpp:91] Creating Layer inception_3a/relu_3x3
I0403 16:54:52.289960 19672 net.cpp:425] inception_3a/relu_3x3 <- inception_3a/3x3
I0403 16:54:52.289981 19672 net.cpp:386] inception_3a/relu_3x3 -> inception_3a/3x3 (in-place)
I0403 16:54:52.290308 19672 net.cpp:141] Setting up inception_3a/relu_3x3
I0403 16:54:52.290341 19672 net.cpp:148] Top shape: 24 128 28 28 (2408448)
I0403 16:54:52.290360 19672 net.cpp:156] Memory required for data: 534676512
I0403 16:54:52.290377 19672 layer_factory.hpp:77] Creating layer inception_3a/5x5_reduce
I0403 16:54:52.290405 19672 net.cpp:91] Creating Layer inception_3a/5x5_reduce
I0403 16:54:52.290426 19672 net.cpp:425] inception_3a/5x5_reduce <- pool2/3x3_s2_pool2/3x3_s2_0_split_2
I0403 16:54:52.290452 19672 net.cpp:399] inception_3a/5x5_reduce -> inception_3a/5x5_reduce
I0403 16:54:52.291635 19672 net.cpp:141] Setting up inception_3a/5x5_reduce
I0403 16:54:52.291669 19672 net.cpp:148] Top shape: 24 16 28 28 (301056)
I0403 16:54:52.291689 19672 net.cpp:156] Memory required for data: 535880736
I0403 16:54:52.291712 19672 layer_factory.hpp:77] Creating layer inception_3a/relu_5x5_reduce
I0403 16:54:52.291736 19672 net.cpp:91] Creating Layer inception_3a/relu_5x5_reduce
I0403 16:54:52.291757 19672 net.cpp:425] inception_3a/relu_5x5_reduce <- inception_3a/5x5_reduce
I0403 16:54:52.291779 19672 net.cpp:386] inception_3a/relu_5x5_reduce -> inception_3a/5x5_reduce (in-place)
I0403 16:54:52.292126 19672 net.cpp:141] Setting up inception_3a/relu_5x5_reduce
I0403 16:54:52.292161 19672 net.cpp:148] Top shape: 24 16 28 28 (301056)
I0403 16:54:52.292181 19672 net.cpp:156] Memory required for data: 537084960
I0403 16:54:52.292201 19672 layer_factory.hpp:77] Creating layer inception_3a/5x5
I0403 16:54:52.292227 19672 net.cpp:91] Creating Layer inception_3a/5x5
I0403 16:54:52.292248 19672 net.cpp:425] inception_3a/5x5 <- inception_3a/5x5_reduce
I0403 16:54:52.292273 19672 net.cpp:399] inception_3a/5x5 -> inception_3a/5x5
I0403 16:54:52.293508 19672 net.cpp:141] Setting up inception_3a/5x5
I0403 16:54:52.293541 19672 net.cpp:148] Top shape: 24 32 28 28 (602112)
I0403 16:54:52.293561 19672 net.cpp:156] Memory required for data: 539493408
I0403 16:54:52.293596 19672 layer_factory.hpp:77] Creating layer inception_3a/relu_5x5
I0403 16:54:52.293622 19672 net.cpp:91] Creating Layer inception_3a/relu_5x5
I0403 16:54:52.293643 19672 net.cpp:425] inception_3a/relu_5x5 <- inception_3a/5x5
I0403 16:54:52.293664 19672 net.cpp:386] inception_3a/relu_5x5 -> inception_3a/5x5 (in-place)
I0403 16:54:52.293877 19672 net.cpp:141] Setting up inception_3a/relu_5x5
I0403 16:54:52.293910 19672 net.cpp:148] Top shape: 24 32 28 28 (602112)
I0403 16:54:52.293929 19672 net.cpp:156] Memory required for data: 541901856
I0403 16:54:52.293947 19672 layer_factory.hpp:77] Creating layer inception_3a/pool
I0403 16:54:52.293969 19672 net.cpp:91] Creating Layer inception_3a/pool
I0403 16:54:52.294005 19672 net.cpp:425] inception_3a/pool <- pool2/3x3_s2_pool2/3x3_s2_0_split_3
I0403 16:54:52.294030 19672 net.cpp:399] inception_3a/pool -> inception_3a/pool
I0403 16:54:52.294102 19672 net.cpp:141] Setting up inception_3a/pool
I0403 16:54:52.294131 19672 net.cpp:148] Top shape: 24 192 28 28 (3612672)
I0403 16:54:52.294148 19672 net.cpp:156] Memory required for data: 556352544
I0403 16:54:52.294167 19672 layer_factory.hpp:77] Creating layer inception_3a/pool_proj
I0403 16:54:52.294198 19672 net.cpp:91] Creating Layer inception_3a/pool_proj
I0403 16:54:52.294219 19672 net.cpp:425] inception_3a/pool_proj <- inception_3a/pool
I0403 16:54:52.294246 19672 net.cpp:399] inception_3a/pool_proj -> inception_3a/pool_proj
I0403 16:54:52.295445 19672 net.cpp:141] Setting up inception_3a/pool_proj
I0403 16:54:52.295480 19672 net.cpp:148] Top shape: 24 32 28 28 (602112)
I0403 16:54:52.295500 19672 net.cpp:156] Memory required for data: 558760992
I0403 16:54:52.295526 19672 layer_factory.hpp:77] Creating layer inception_3a/relu_pool_proj
I0403 16:54:52.295552 19672 net.cpp:91] Creating Layer inception_3a/relu_pool_proj
I0403 16:54:52.295578 19672 net.cpp:425] inception_3a/relu_pool_proj <- inception_3a/pool_proj
I0403 16:54:52.295601 19672 net.cpp:386] inception_3a/relu_pool_proj -> inception_3a/pool_proj (in-place)
I0403 16:54:52.295938 19672 net.cpp:141] Setting up inception_3a/relu_pool_proj
I0403 16:54:52.295971 19672 net.cpp:148] Top shape: 24 32 28 28 (602112)
I0403 16:54:52.295989 19672 net.cpp:156] Memory required for data: 561169440
I0403 16:54:52.296006 19672 layer_factory.hpp:77] Creating layer inception_3a/output
I0403 16:54:52.296030 19672 net.cpp:91] Creating Layer inception_3a/output
I0403 16:54:52.296047 19672 net.cpp:425] inception_3a/output <- inception_3a/1x1
I0403 16:54:52.296072 19672 net.cpp:425] inception_3a/output <- inception_3a/3x3
I0403 16:54:52.296094 19672 net.cpp:425] inception_3a/output <- inception_3a/5x5
I0403 16:54:52.296113 19672 net.cpp:425] inception_3a/output <- inception_3a/pool_proj
I0403 16:54:52.296134 19672 net.cpp:399] inception_3a/output -> inception_3a/output
I0403 16:54:52.296193 19672 net.cpp:141] Setting up inception_3a/output
I0403 16:54:52.296221 19672 net.cpp:148] Top shape: 24 256 28 28 (4816896)
I0403 16:54:52.296241 19672 net.cpp:156] Memory required for data: 580437024
I0403 16:54:52.296257 19672 layer_factory.hpp:77] Creating layer inception_3a/output_inception_3a/output_0_split
I0403 16:54:52.296277 19672 net.cpp:91] Creating Layer inception_3a/output_inception_3a/output_0_split
I0403 16:54:52.296296 19672 net.cpp:425] inception_3a/output_inception_3a/output_0_split <- inception_3a/output
I0403 16:54:52.296319 19672 net.cpp:399] inception_3a/output_inception_3a/output_0_split -> inception_3a/output_inception_3a/output_0_split_0
I0403 16:54:52.296345 19672 net.cpp:399] inception_3a/output_inception_3a/output_0_split -> inception_3a/output_inception_3a/output_0_split_1
I0403 16:54:52.296373 19672 net.cpp:399] inception_3a/output_inception_3a/output_0_split -> inception_3a/output_inception_3a/output_0_split_2
I0403 16:54:52.296403 19672 net.cpp:399] inception_3a/output_inception_3a/output_0_split -> inception_3a/output_inception_3a/output_0_split_3
I0403 16:54:52.296497 19672 net.cpp:141] Setting up inception_3a/output_inception_3a/output_0_split
I0403 16:54:52.296525 19672 net.cpp:148] Top shape: 24 256 28 28 (4816896)
I0403 16:54:52.296545 19672 net.cpp:148] Top shape: 24 256 28 28 (4816896)
I0403 16:54:52.296563 19672 net.cpp:148] Top shape: 24 256 28 28 (4816896)
I0403 16:54:52.296589 19672 net.cpp:148] Top shape: 24 256 28 28 (4816896)
I0403 16:54:52.296607 19672 net.cpp:156] Memory required for data: 657507360
I0403 16:54:52.296625 19672 layer_factory.hpp:77] Creating layer inception_3b/1x1
I0403 16:54:52.296653 19672 net.cpp:91] Creating Layer inception_3b/1x1
I0403 16:54:52.296674 19672 net.cpp:425] inception_3b/1x1 <- inception_3a/output_inception_3a/output_0_split_0
I0403 16:54:52.296700 19672 net.cpp:399] inception_3b/1x1 -> inception_3b/1x1
I0403 16:54:52.298102 19672 net.cpp:141] Setting up inception_3b/1x1
I0403 16:54:52.298151 19672 net.cpp:148] Top shape: 24 128 28 28 (2408448)
I0403 16:54:52.298172 19672 net.cpp:156] Memory required for data: 667141152
I0403 16:54:52.298195 19672 layer_factory.hpp:77] Creating layer inception_3b/relu_1x1
I0403 16:54:52.298218 19672 net.cpp:91] Creating Layer inception_3b/relu_1x1
I0403 16:54:52.298243 19672 net.cpp:425] inception_3b/relu_1x1 <- inception_3b/1x1
I0403 16:54:52.298265 19672 net.cpp:386] inception_3b/relu_1x1 -> inception_3b/1x1 (in-place)
I0403 16:54:52.298481 19672 net.cpp:141] Setting up inception_3b/relu_1x1
I0403 16:54:52.298511 19672 net.cpp:148] Top shape: 24 128 28 28 (2408448)
I0403 16:54:52.298528 19672 net.cpp:156] Memory required for data: 676774944
I0403 16:54:52.298547 19672 layer_factory.hpp:77] Creating layer inception_3b/3x3_reduce
I0403 16:54:52.298579 19672 net.cpp:91] Creating Layer inception_3b/3x3_reduce
I0403 16:54:52.298604 19672 net.cpp:425] inception_3b/3x3_reduce <- inception_3a/output_inception_3a/output_0_split_1
I0403 16:54:52.298630 19672 net.cpp:399] inception_3b/3x3_reduce -> inception_3b/3x3_reduce
I0403 16:54:52.300045 19672 net.cpp:141] Setting up inception_3b/3x3_reduce
I0403 16:54:52.300081 19672 net.cpp:148] Top shape: 24 128 28 28 (2408448)
I0403 16:54:52.300099 19672 net.cpp:156] Memory required for data: 686408736
I0403 16:54:52.300122 19672 layer_factory.hpp:77] Creating layer inception_3b/relu_3x3_reduce
I0403 16:54:52.300144 19672 net.cpp:91] Creating Layer inception_3b/relu_3x3_reduce
I0403 16:54:52.300164 19672 net.cpp:425] inception_3b/relu_3x3_reduce <- inception_3b/3x3_reduce
I0403 16:54:52.300187 19672 net.cpp:386] inception_3b/relu_3x3_reduce -> inception_3b/3x3_reduce (in-place)
I0403 16:54:52.300401 19672 net.cpp:141] Setting up inception_3b/relu_3x3_reduce
I0403 16:54:52.300431 19672 net.cpp:148] Top shape: 24 128 28 28 (2408448)
I0403 16:54:52.300449 19672 net.cpp:156] Memory required for data: 696042528
I0403 16:54:52.300467 19672 layer_factory.hpp:77] Creating layer inception_3b/3x3
I0403 16:54:52.300499 19672 net.cpp:91] Creating Layer inception_3b/3x3
I0403 16:54:52.300521 19672 net.cpp:425] inception_3b/3x3 <- inception_3b/3x3_reduce
I0403 16:54:52.300544 19672 net.cpp:399] inception_3b/3x3 -> inception_3b/3x3
I0403 16:54:52.304088 19672 net.cpp:141] Setting up inception_3b/3x3
I0403 16:54:52.304124 19672 net.cpp:148] Top shape: 24 192 28 28 (3612672)
I0403 16:54:52.304143 19672 net.cpp:156] Memory required for data: 710493216
I0403 16:54:52.304167 19672 layer_factory.hpp:77] Creating layer inception_3b/relu_3x3
I0403 16:54:52.304191 19672 net.cpp:91] Creating Layer inception_3b/relu_3x3
I0403 16:54:52.304211 19672 net.cpp:425] inception_3b/relu_3x3 <- inception_3b/3x3
I0403 16:54:52.304232 19672 net.cpp:386] inception_3b/relu_3x3 -> inception_3b/3x3 (in-place)
I0403 16:54:52.304579 19672 net.cpp:141] Setting up inception_3b/relu_3x3
I0403 16:54:52.304612 19672 net.cpp:148] Top shape: 24 192 28 28 (3612672)
I0403 16:54:52.304631 19672 net.cpp:156] Memory required for data: 724943904
I0403 16:54:52.304649 19672 layer_factory.hpp:77] Creating layer inception_3b/5x5_reduce
I0403 16:54:52.304677 19672 net.cpp:91] Creating Layer inception_3b/5x5_reduce
I0403 16:54:52.304699 19672 net.cpp:425] inception_3b/5x5_reduce <- inception_3a/output_inception_3a/output_0_split_2
I0403 16:54:52.304725 19672 net.cpp:399] inception_3b/5x5_reduce -> inception_3b/5x5_reduce
I0403 16:54:52.305950 19672 net.cpp:141] Setting up inception_3b/5x5_reduce
I0403 16:54:52.305984 19672 net.cpp:148] Top shape: 24 32 28 28 (602112)
I0403 16:54:52.306004 19672 net.cpp:156] Memory required for data: 727352352
I0403 16:54:52.306026 19672 layer_factory.hpp:77] Creating layer inception_3b/relu_5x5_reduce
I0403 16:54:52.306051 19672 net.cpp:91] Creating Layer inception_3b/relu_5x5_reduce
I0403 16:54:52.306071 19672 net.cpp:425] inception_3b/relu_5x5_reduce <- inception_3b/5x5_reduce
I0403 16:54:52.306092 19672 net.cpp:386] inception_3b/relu_5x5_reduce -> inception_3b/5x5_reduce (in-place)
I0403 16:54:52.306325 19672 net.cpp:141] Setting up inception_3b/relu_5x5_reduce
I0403 16:54:52.306360 19672 net.cpp:148] Top shape: 24 32 28 28 (602112)
I0403 16:54:52.306380 19672 net.cpp:156] Memory required for data: 729760800
I0403 16:54:52.306397 19672 layer_factory.hpp:77] Creating layer inception_3b/5x5
I0403 16:54:52.306424 19672 net.cpp:91] Creating Layer inception_3b/5x5
I0403 16:54:52.306445 19672 net.cpp:425] inception_3b/5x5 <- inception_3b/5x5_reduce
I0403 16:54:52.306468 19672 net.cpp:399] inception_3b/5x5 -> inception_3b/5x5
I0403 16:54:52.308873 19672 net.cpp:141] Setting up inception_3b/5x5
I0403 16:54:52.308909 19672 net.cpp:148] Top shape: 24 96 28 28 (1806336)
I0403 16:54:52.308929 19672 net.cpp:156] Memory required for data: 736986144
I0403 16:54:52.308950 19672 layer_factory.hpp:77] Creating layer inception_3b/relu_5x5
I0403 16:54:52.308972 19672 net.cpp:91] Creating Layer inception_3b/relu_5x5
I0403 16:54:52.308991 19672 net.cpp:425] inception_3b/relu_5x5 <- inception_3b/5x5
I0403 16:54:52.309015 19672 net.cpp:386] inception_3b/relu_5x5 -> inception_3b/5x5 (in-place)
I0403 16:54:52.309254 19672 net.cpp:141] Setting up inception_3b/relu_5x5
I0403 16:54:52.309285 19672 net.cpp:148] Top shape: 24 96 28 28 (1806336)
I0403 16:54:52.309303 19672 net.cpp:156] Memory required for data: 744211488
I0403 16:54:52.309320 19672 layer_factory.hpp:77] Creating layer inception_3b/pool
I0403 16:54:52.309341 19672 net.cpp:91] Creating Layer inception_3b/pool
I0403 16:54:52.309360 19672 net.cpp:425] inception_3b/pool <- inception_3a/output_inception_3a/output_0_split_3
I0403 16:54:52.309382 19672 net.cpp:399] inception_3b/pool -> inception_3b/pool
I0403 16:54:52.309451 19672 net.cpp:141] Setting up inception_3b/pool
I0403 16:54:52.309479 19672 net.cpp:148] Top shape: 24 256 28 28 (4816896)
I0403 16:54:52.309497 19672 net.cpp:156] Memory required for data: 763479072
I0403 16:54:52.309514 19672 layer_factory.hpp:77] Creating layer inception_3b/pool_proj
I0403 16:54:52.309540 19672 net.cpp:91] Creating Layer inception_3b/pool_proj
I0403 16:54:52.309561 19672 net.cpp:425] inception_3b/pool_proj <- inception_3b/pool
I0403 16:54:52.309592 19672 net.cpp:399] inception_3b/pool_proj -> inception_3b/pool_proj
I0403 16:54:52.310891 19672 net.cpp:141] Setting up inception_3b/pool_proj
I0403 16:54:52.310927 19672 net.cpp:148] Top shape: 24 64 28 28 (1204224)
I0403 16:54:52.310947 19672 net.cpp:156] Memory required for data: 768295968
I0403 16:54:52.310969 19672 layer_factory.hpp:77] Creating layer inception_3b/relu_pool_proj
I0403 16:54:52.310992 19672 net.cpp:91] Creating Layer inception_3b/relu_pool_proj
I0403 16:54:52.311010 19672 net.cpp:425] inception_3b/relu_pool_proj <- inception_3b/pool_proj
I0403 16:54:52.311031 19672 net.cpp:386] inception_3b/relu_pool_proj -> inception_3b/pool_proj (in-place)
I0403 16:54:52.311511 19672 net.cpp:141] Setting up inception_3b/relu_pool_proj
I0403 16:54:52.311544 19672 net.cpp:148] Top shape: 24 64 28 28 (1204224)
I0403 16:54:52.311563 19672 net.cpp:156] Memory required for data: 773112864
I0403 16:54:52.311586 19672 layer_factory.hpp:77] Creating layer inception_3b/output
I0403 16:54:52.311611 19672 net.cpp:91] Creating Layer inception_3b/output
I0403 16:54:52.311631 19672 net.cpp:425] inception_3b/output <- inception_3b/1x1
I0403 16:54:52.311651 19672 net.cpp:425] inception_3b/output <- inception_3b/3x3
I0403 16:54:52.311671 19672 net.cpp:425] inception_3b/output <- inception_3b/5x5
I0403 16:54:52.311691 19672 net.cpp:425] inception_3b/output <- inception_3b/pool_proj
I0403 16:54:52.311712 19672 net.cpp:399] inception_3b/output -> inception_3b/output
I0403 16:54:52.311767 19672 net.cpp:141] Setting up inception_3b/output
I0403 16:54:52.311795 19672 net.cpp:148] Top shape: 24 480 28 28 (9031680)
I0403 16:54:52.311812 19672 net.cpp:156] Memory required for data: 809239584
I0403 16:54:52.311830 19672 layer_factory.hpp:77] Creating layer pool3/3x3_s2
I0403 16:54:52.311851 19672 net.cpp:91] Creating Layer pool3/3x3_s2
I0403 16:54:52.311869 19672 net.cpp:425] pool3/3x3_s2 <- inception_3b/output
I0403 16:54:52.311913 19672 net.cpp:399] pool3/3x3_s2 -> pool3/3x3_s2
I0403 16:54:52.311985 19672 net.cpp:141] Setting up pool3/3x3_s2
I0403 16:54:52.312014 19672 net.cpp:148] Top shape: 24 480 14 14 (2257920)
I0403 16:54:52.312033 19672 net.cpp:156] Memory required for data: 818271264
I0403 16:54:52.312049 19672 layer_factory.hpp:77] Creating layer pool3/3x3_s2_pool3/3x3_s2_0_split
I0403 16:54:52.312073 19672 net.cpp:91] Creating Layer pool3/3x3_s2_pool3/3x3_s2_0_split
I0403 16:54:52.312093 19672 net.cpp:425] pool3/3x3_s2_pool3/3x3_s2_0_split <- pool3/3x3_s2
I0403 16:54:52.312115 19672 net.cpp:399] pool3/3x3_s2_pool3/3x3_s2_0_split -> pool3/3x3_s2_pool3/3x3_s2_0_split_0
I0403 16:54:52.312139 19672 net.cpp:399] pool3/3x3_s2_pool3/3x3_s2_0_split -> pool3/3x3_s2_pool3/3x3_s2_0_split_1
I0403 16:54:52.312163 19672 net.cpp:399] pool3/3x3_s2_pool3/3x3_s2_0_split -> pool3/3x3_s2_pool3/3x3_s2_0_split_2
I0403 16:54:52.312186 19672 net.cpp:399] pool3/3x3_s2_pool3/3x3_s2_0_split -> pool3/3x3_s2_pool3/3x3_s2_0_split_3
I0403 16:54:52.312280 19672 net.cpp:141] Setting up pool3/3x3_s2_pool3/3x3_s2_0_split
I0403 16:54:52.312310 19672 net.cpp:148] Top shape: 24 480 14 14 (2257920)
I0403 16:54:52.312330 19672 net.cpp:148] Top shape: 24 480 14 14 (2257920)
I0403 16:54:52.312350 19672 net.cpp:148] Top shape: 24 480 14 14 (2257920)
I0403 16:54:52.312368 19672 net.cpp:148] Top shape: 24 480 14 14 (2257920)
I0403 16:54:52.312386 19672 net.cpp:156] Memory required for data: 854397984
I0403 16:54:52.312402 19672 layer_factory.hpp:77] Creating layer inception_4a/1x1
I0403 16:54:52.312428 19672 net.cpp:91] Creating Layer inception_4a/1x1
I0403 16:54:52.312449 19672 net.cpp:425] inception_4a/1x1 <- pool3/3x3_s2_pool3/3x3_s2_0_split_0
I0403 16:54:52.312472 19672 net.cpp:399] inception_4a/1x1 -> inception_4a/1x1
I0403 16:54:52.314406 19672 net.cpp:141] Setting up inception_4a/1x1
I0403 16:54:52.314445 19672 net.cpp:148] Top shape: 24 192 14 14 (903168)
I0403 16:54:52.314463 19672 net.cpp:156] Memory required for data: 858010656
I0403 16:54:52.314486 19672 layer_factory.hpp:77] Creating layer inception_4a/relu_1x1
I0403 16:54:52.314507 19672 net.cpp:91] Creating Layer inception_4a/relu_1x1
I0403 16:54:52.314525 19672 net.cpp:425] inception_4a/relu_1x1 <- inception_4a/1x1
I0403 16:54:52.314548 19672 net.cpp:386] inception_4a/relu_1x1 -> inception_4a/1x1 (in-place)
I0403 16:54:52.314779 19672 net.cpp:141] Setting up inception_4a/relu_1x1
I0403 16:54:52.314810 19672 net.cpp:148] Top shape: 24 192 14 14 (903168)
I0403 16:54:52.314828 19672 net.cpp:156] Memory required for data: 861623328
I0403 16:54:52.314846 19672 layer_factory.hpp:77] Creating layer inception_4a/3x3_reduce
I0403 16:54:52.314873 19672 net.cpp:91] Creating Layer inception_4a/3x3_reduce
I0403 16:54:52.314895 19672 net.cpp:425] inception_4a/3x3_reduce <- pool3/3x3_s2_pool3/3x3_s2_0_split_1
I0403 16:54:52.314921 19672 net.cpp:399] inception_4a/3x3_reduce -> inception_4a/3x3_reduce
I0403 16:54:52.316474 19672 net.cpp:141] Setting up inception_4a/3x3_reduce
I0403 16:54:52.316511 19672 net.cpp:148] Top shape: 24 96 14 14 (451584)
I0403 16:54:52.316531 19672 net.cpp:156] Memory required for data: 863429664
I0403 16:54:52.316561 19672 layer_factory.hpp:77] Creating layer inception_4a/relu_3x3_reduce
I0403 16:54:52.316591 19672 net.cpp:91] Creating Layer inception_4a/relu_3x3_reduce
I0403 16:54:52.316612 19672 net.cpp:425] inception_4a/relu_3x3_reduce <- inception_4a/3x3_reduce
I0403 16:54:52.316633 19672 net.cpp:386] inception_4a/relu_3x3_reduce -> inception_4a/3x3_reduce (in-place)
I0403 16:54:52.316855 19672 net.cpp:141] Setting up inception_4a/relu_3x3_reduce
I0403 16:54:52.316886 19672 net.cpp:148] Top shape: 24 96 14 14 (451584)
I0403 16:54:52.316905 19672 net.cpp:156] Memory required for data: 865236000
I0403 16:54:52.316922 19672 layer_factory.hpp:77] Creating layer inception_4a/3x3
I0403 16:54:52.316949 19672 net.cpp:91] Creating Layer inception_4a/3x3
I0403 16:54:52.316970 19672 net.cpp:425] inception_4a/3x3 <- inception_4a/3x3_reduce
I0403 16:54:52.316995 19672 net.cpp:399] inception_4a/3x3 -> inception_4a/3x3
I0403 16:54:52.320252 19672 net.cpp:141] Setting up inception_4a/3x3
I0403 16:54:52.320289 19672 net.cpp:148] Top shape: 24 208 14 14 (978432)
I0403 16:54:52.320308 19672 net.cpp:156] Memory required for data: 869149728
I0403 16:54:52.320329 19672 layer_factory.hpp:77] Creating layer inception_4a/relu_3x3
I0403 16:54:52.320353 19672 net.cpp:91] Creating Layer inception_4a/relu_3x3
I0403 16:54:52.320371 19672 net.cpp:425] inception_4a/relu_3x3 <- inception_4a/3x3
I0403 16:54:52.320395 19672 net.cpp:386] inception_4a/relu_3x3 -> inception_4a/3x3 (in-place)
I0403 16:54:52.320734 19672 net.cpp:141] Setting up inception_4a/relu_3x3
I0403 16:54:52.320766 19672 net.cpp:148] Top shape: 24 208 14 14 (978432)
I0403 16:54:52.320786 19672 net.cpp:156] Memory required for data: 873063456
I0403 16:54:52.320804 19672 layer_factory.hpp:77] Creating layer inception_4a/5x5_reduce
I0403 16:54:52.320832 19672 net.cpp:91] Creating Layer inception_4a/5x5_reduce
I0403 16:54:52.320854 19672 net.cpp:425] inception_4a/5x5_reduce <- pool3/3x3_s2_pool3/3x3_s2_0_split_2
I0403 16:54:52.320880 19672 net.cpp:399] inception_4a/5x5_reduce -> inception_4a/5x5_reduce
I0403 16:54:52.322137 19672 net.cpp:141] Setting up inception_4a/5x5_reduce
I0403 16:54:52.322171 19672 net.cpp:148] Top shape: 24 16 14 14 (75264)
I0403 16:54:52.322191 19672 net.cpp:156] Memory required for data: 873364512
I0403 16:54:52.322213 19672 layer_factory.hpp:77] Creating layer inception_4a/relu_5x5_reduce
I0403 16:54:52.322239 19672 net.cpp:91] Creating Layer inception_4a/relu_5x5_reduce
I0403 16:54:52.322259 19672 net.cpp:425] inception_4a/relu_5x5_reduce <- inception_4a/5x5_reduce
I0403 16:54:52.322281 19672 net.cpp:386] inception_4a/relu_5x5_reduce -> inception_4a/5x5_reduce (in-place)
I0403 16:54:52.322496 19672 net.cpp:141] Setting up inception_4a/relu_5x5_reduce
I0403 16:54:52.322531 19672 net.cpp:148] Top shape: 24 16 14 14 (75264)
I0403 16:54:52.322551 19672 net.cpp:156] Memory required for data: 873665568
I0403 16:54:52.322574 19672 layer_factory.hpp:77] Creating layer inception_4a/5x5
I0403 16:54:52.322600 19672 net.cpp:91] Creating Layer inception_4a/5x5
I0403 16:54:52.322619 19672 net.cpp:425] inception_4a/5x5 <- inception_4a/5x5_reduce
I0403 16:54:52.322644 19672 net.cpp:399] inception_4a/5x5 -> inception_4a/5x5
I0403 16:54:52.323964 19672 net.cpp:141] Setting up inception_4a/5x5
I0403 16:54:52.323998 19672 net.cpp:148] Top shape: 24 48 14 14 (225792)
I0403 16:54:52.324018 19672 net.cpp:156] Memory required for data: 874568736
I0403 16:54:52.324039 19672 layer_factory.hpp:77] Creating layer inception_4a/relu_5x5
I0403 16:54:52.324064 19672 net.cpp:91] Creating Layer inception_4a/relu_5x5
I0403 16:54:52.324084 19672 net.cpp:425] inception_4a/relu_5x5 <- inception_4a/5x5
I0403 16:54:52.324105 19672 net.cpp:386] inception_4a/relu_5x5 -> inception_4a/5x5 (in-place)
I0403 16:54:52.324326 19672 net.cpp:141] Setting up inception_4a/relu_5x5
I0403 16:54:52.324355 19672 net.cpp:148] Top shape: 24 48 14 14 (225792)
I0403 16:54:52.324374 19672 net.cpp:156] Memory required for data: 875471904
I0403 16:54:52.324391 19672 layer_factory.hpp:77] Creating layer inception_4a/pool
I0403 16:54:52.324412 19672 net.cpp:91] Creating Layer inception_4a/pool
I0403 16:54:52.324431 19672 net.cpp:425] inception_4a/pool <- pool3/3x3_s2_pool3/3x3_s2_0_split_3
I0403 16:54:52.324455 19672 net.cpp:399] inception_4a/pool -> inception_4a/pool
I0403 16:54:52.324532 19672 net.cpp:141] Setting up inception_4a/pool
I0403 16:54:52.324561 19672 net.cpp:148] Top shape: 24 480 14 14 (2257920)
I0403 16:54:52.324594 19672 net.cpp:156] Memory required for data: 884503584
I0403 16:54:52.324615 19672 layer_factory.hpp:77] Creating layer inception_4a/pool_proj
I0403 16:54:52.324645 19672 net.cpp:91] Creating Layer inception_4a/pool_proj
I0403 16:54:52.324666 19672 net.cpp:425] inception_4a/pool_proj <- inception_4a/pool
I0403 16:54:52.324688 19672 net.cpp:399] inception_4a/pool_proj -> inception_4a/pool_proj
I0403 16:54:52.326104 19672 net.cpp:141] Setting up inception_4a/pool_proj
I0403 16:54:52.326143 19672 net.cpp:148] Top shape: 24 64 14 14 (301056)
I0403 16:54:52.326181 19672 net.cpp:156] Memory required for data: 885707808
I0403 16:54:52.326205 19672 layer_factory.hpp:77] Creating layer inception_4a/relu_pool_proj
I0403 16:54:52.326227 19672 net.cpp:91] Creating Layer inception_4a/relu_pool_proj
I0403 16:54:52.326247 19672 net.cpp:425] inception_4a/relu_pool_proj <- inception_4a/pool_proj
I0403 16:54:52.326273 19672 net.cpp:386] inception_4a/relu_pool_proj -> inception_4a/pool_proj (in-place)
I0403 16:54:52.326622 19672 net.cpp:141] Setting up inception_4a/relu_pool_proj
I0403 16:54:52.326656 19672 net.cpp:148] Top shape: 24 64 14 14 (301056)
I0403 16:54:52.326676 19672 net.cpp:156] Memory required for data: 886912032
I0403 16:54:52.326695 19672 layer_factory.hpp:77] Creating layer inception_4a/output
I0403 16:54:52.326715 19672 net.cpp:91] Creating Layer inception_4a/output
I0403 16:54:52.326735 19672 net.cpp:425] inception_4a/output <- inception_4a/1x1
I0403 16:54:52.326755 19672 net.cpp:425] inception_4a/output <- inception_4a/3x3
I0403 16:54:52.326774 19672 net.cpp:425] inception_4a/output <- inception_4a/5x5
I0403 16:54:52.326793 19672 net.cpp:425] inception_4a/output <- inception_4a/pool_proj
I0403 16:54:52.326817 19672 net.cpp:399] inception_4a/output -> inception_4a/output
I0403 16:54:52.326871 19672 net.cpp:141] Setting up inception_4a/output
I0403 16:54:52.326900 19672 net.cpp:148] Top shape: 24 512 14 14 (2408448)
I0403 16:54:52.326917 19672 net.cpp:156] Memory required for data: 896545824
I0403 16:54:52.326936 19672 layer_factory.hpp:77] Creating layer inception_4a/output_inception_4a/output_0_split
I0403 16:54:52.326958 19672 net.cpp:91] Creating Layer inception_4a/output_inception_4a/output_0_split
I0403 16:54:52.326977 19672 net.cpp:425] inception_4a/output_inception_4a/output_0_split <- inception_4a/output
I0403 16:54:52.326999 19672 net.cpp:399] inception_4a/output_inception_4a/output_0_split -> inception_4a/output_inception_4a/output_0_split_0
I0403 16:54:52.327023 19672 net.cpp:399] inception_4a/output_inception_4a/output_0_split -> inception_4a/output_inception_4a/output_0_split_1
I0403 16:54:52.327052 19672 net.cpp:399] inception_4a/output_inception_4a/output_0_split -> inception_4a/output_inception_4a/output_0_split_2
I0403 16:54:52.327078 19672 net.cpp:399] inception_4a/output_inception_4a/output_0_split -> inception_4a/output_inception_4a/output_0_split_3
I0403 16:54:52.327102 19672 net.cpp:399] inception_4a/output_inception_4a/output_0_split -> inception_4a/output_inception_4a/output_0_split_4
I0403 16:54:52.327214 19672 net.cpp:141] Setting up inception_4a/output_inception_4a/output_0_split
I0403 16:54:52.327244 19672 net.cpp:148] Top shape: 24 512 14 14 (2408448)
I0403 16:54:52.327265 19672 net.cpp:148] Top shape: 24 512 14 14 (2408448)
I0403 16:54:52.327285 19672 net.cpp:148] Top shape: 24 512 14 14 (2408448)
I0403 16:54:52.327302 19672 net.cpp:148] Top shape: 24 512 14 14 (2408448)
I0403 16:54:52.327319 19672 net.cpp:148] Top shape: 24 512 14 14 (2408448)
I0403 16:54:52.327337 19672 net.cpp:156] Memory required for data: 944714784
I0403 16:54:52.327354 19672 layer_factory.hpp:77] Creating layer loss1/ave_pool
I0403 16:54:52.327378 19672 net.cpp:91] Creating Layer loss1/ave_pool
I0403 16:54:52.327397 19672 net.cpp:425] loss1/ave_pool <- inception_4a/output_inception_4a/output_0_split_0
I0403 16:54:52.327419 19672 net.cpp:399] loss1/ave_pool -> loss1/ave_pool
I0403 16:54:52.327671 19672 net.cpp:141] Setting up loss1/ave_pool
I0403 16:54:52.327704 19672 net.cpp:148] Top shape: 24 512 4 4 (196608)
I0403 16:54:52.327723 19672 net.cpp:156] Memory required for data: 945501216
I0403 16:54:52.327742 19672 layer_factory.hpp:77] Creating layer loss1/conv
I0403 16:54:52.327769 19672 net.cpp:91] Creating Layer loss1/conv
I0403 16:54:52.327790 19672 net.cpp:425] loss1/conv <- loss1/ave_pool
I0403 16:54:52.327813 19672 net.cpp:399] loss1/conv -> loss1/conv
I0403 16:54:52.329530 19672 net.cpp:141] Setting up loss1/conv
I0403 16:54:52.329565 19672 net.cpp:148] Top shape: 24 128 4 4 (49152)
I0403 16:54:52.329615 19672 net.cpp:156] Memory required for data: 945697824
I0403 16:54:52.329640 19672 layer_factory.hpp:77] Creating layer loss1/relu_conv
I0403 16:54:52.329663 19672 net.cpp:91] Creating Layer loss1/relu_conv
I0403 16:54:52.329682 19672 net.cpp:425] loss1/relu_conv <- loss1/conv
I0403 16:54:52.329710 19672 net.cpp:386] loss1/relu_conv -> loss1/conv (in-place)
I0403 16:54:52.330055 19672 net.cpp:141] Setting up loss1/relu_conv
I0403 16:54:52.330087 19672 net.cpp:148] Top shape: 24 128 4 4 (49152)
I0403 16:54:52.330106 19672 net.cpp:156] Memory required for data: 945894432
I0403 16:54:52.330124 19672 layer_factory.hpp:77] Creating layer loss1/fc
I0403 16:54:52.330152 19672 net.cpp:91] Creating Layer loss1/fc
I0403 16:54:52.330173 19672 net.cpp:425] loss1/fc <- loss1/conv
I0403 16:54:52.330199 19672 net.cpp:399] loss1/fc -> loss1/fc
I0403 16:54:52.352159 19672 net.cpp:141] Setting up loss1/fc
I0403 16:54:52.352200 19672 net.cpp:148] Top shape: 24 1024 (24576)
I0403 16:54:52.352221 19672 net.cpp:156] Memory required for data: 945992736
I0403 16:54:52.352246 19672 layer_factory.hpp:77] Creating layer loss1/relu_fc
I0403 16:54:52.352269 19672 net.cpp:91] Creating Layer loss1/relu_fc
I0403 16:54:52.352288 19672 net.cpp:425] loss1/relu_fc <- loss1/fc
I0403 16:54:52.352309 19672 net.cpp:386] loss1/relu_fc -> loss1/fc (in-place)
I0403 16:54:52.352535 19672 net.cpp:141] Setting up loss1/relu_fc
I0403 16:54:52.352566 19672 net.cpp:148] Top shape: 24 1024 (24576)
I0403 16:54:52.352589 19672 net.cpp:156] Memory required for data: 946091040
I0403 16:54:52.352607 19672 layer_factory.hpp:77] Creating layer loss1/drop_fc
I0403 16:54:52.352638 19672 net.cpp:91] Creating Layer loss1/drop_fc
I0403 16:54:52.352660 19672 net.cpp:425] loss1/drop_fc <- loss1/fc
I0403 16:54:52.352684 19672 net.cpp:386] loss1/drop_fc -> loss1/fc (in-place)
I0403 16:54:52.352746 19672 net.cpp:141] Setting up loss1/drop_fc
I0403 16:54:52.352774 19672 net.cpp:148] Top shape: 24 1024 (24576)
I0403 16:54:52.352798 19672 net.cpp:156] Memory required for data: 946189344
I0403 16:54:52.352816 19672 layer_factory.hpp:77] Creating layer loss1/classifier_plantvillage
I0403 16:54:52.352838 19672 net.cpp:91] Creating Layer loss1/classifier_plantvillage
I0403 16:54:52.352857 19672 net.cpp:425] loss1/classifier_plantvillage <- loss1/fc
I0403 16:54:52.352880 19672 net.cpp:399] loss1/classifier_plantvillage -> loss1/classifier_plantvillage
I0403 16:54:52.353992 19672 net.cpp:141] Setting up loss1/classifier_plantvillage
I0403 16:54:52.354027 19672 net.cpp:148] Top shape: 24 38 (912)
I0403 16:54:52.354045 19672 net.cpp:156] Memory required for data: 946192992
I0403 16:54:52.354068 19672 layer_factory.hpp:77] Creating layer loss1/classifier_plantvillage_loss1/classifier_plantvillage_0_split
I0403 16:54:52.354089 19672 net.cpp:91] Creating Layer loss1/classifier_plantvillage_loss1/classifier_plantvillage_0_split
I0403 16:54:52.354107 19672 net.cpp:425] loss1/classifier_plantvillage_loss1/classifier_plantvillage_0_split <- loss1/classifier_plantvillage
I0403 16:54:52.354132 19672 net.cpp:399] loss1/classifier_plantvillage_loss1/classifier_plantvillage_0_split -> loss1/classifier_plantvillage_loss1/classifier_plantvillage_0_split_0
I0403 16:54:52.354157 19672 net.cpp:399] loss1/classifier_plantvillage_loss1/classifier_plantvillage_0_split -> loss1/classifier_plantvillage_loss1/classifier_plantvillage_0_split_1
I0403 16:54:52.354183 19672 net.cpp:399] loss1/classifier_plantvillage_loss1/classifier_plantvillage_0_split -> loss1/classifier_plantvillage_loss1/classifier_plantvillage_0_split_2
I0403 16:54:52.354265 19672 net.cpp:141] Setting up loss1/classifier_plantvillage_loss1/classifier_plantvillage_0_split
I0403 16:54:52.354293 19672 net.cpp:148] Top shape: 24 38 (912)
I0403 16:54:52.354313 19672 net.cpp:148] Top shape: 24 38 (912)
I0403 16:54:52.354332 19672 net.cpp:148] Top shape: 24 38 (912)
I0403 16:54:52.354349 19672 net.cpp:156] Memory required for data: 946203936
I0403 16:54:52.354367 19672 layer_factory.hpp:77] Creating layer inception_4b/1x1
I0403 16:54:52.354393 19672 net.cpp:91] Creating Layer inception_4b/1x1
I0403 16:54:52.354434 19672 net.cpp:425] inception_4b/1x1 <- inception_4a/output_inception_4a/output_0_split_1
I0403 16:54:52.354460 19672 net.cpp:399] inception_4b/1x1 -> inception_4b/1x1
I0403 16:54:52.356458 19672 net.cpp:141] Setting up inception_4b/1x1
I0403 16:54:52.356494 19672 net.cpp:148] Top shape: 24 160 14 14 (752640)
I0403 16:54:52.356513 19672 net.cpp:156] Memory required for data: 949214496
I0403 16:54:52.356535 19672 layer_factory.hpp:77] Creating layer inception_4b/relu_1x1
I0403 16:54:52.356559 19672 net.cpp:91] Creating Layer inception_4b/relu_1x1
I0403 16:54:52.356586 19672 net.cpp:425] inception_4b/relu_1x1 <- inception_4b/1x1
I0403 16:54:52.356609 19672 net.cpp:386] inception_4b/relu_1x1 -> inception_4b/1x1 (in-place)
I0403 16:54:52.356829 19672 net.cpp:141] Setting up inception_4b/relu_1x1
I0403 16:54:52.356860 19672 net.cpp:148] Top shape: 24 160 14 14 (752640)
I0403 16:54:52.356883 19672 net.cpp:156] Memory required for data: 952225056
I0403 16:54:52.356899 19672 layer_factory.hpp:77] Creating layer inception_4b/3x3_reduce
I0403 16:54:52.356925 19672 net.cpp:91] Creating Layer inception_4b/3x3_reduce
I0403 16:54:52.356945 19672 net.cpp:425] inception_4b/3x3_reduce <- inception_4a/output_inception_4a/output_0_split_2
I0403 16:54:52.356972 19672 net.cpp:399] inception_4b/3x3_reduce -> inception_4b/3x3_reduce
I0403 16:54:52.358640 19672 net.cpp:141] Setting up inception_4b/3x3_reduce
I0403 16:54:52.358675 19672 net.cpp:148] Top shape: 24 112 14 14 (526848)
I0403 16:54:52.358693 19672 net.cpp:156] Memory required for data: 954332448
I0403 16:54:52.358716 19672 layer_factory.hpp:77] Creating layer inception_4b/relu_3x3_reduce
I0403 16:54:52.358741 19672 net.cpp:91] Creating Layer inception_4b/relu_3x3_reduce
I0403 16:54:52.358762 19672 net.cpp:425] inception_4b/relu_3x3_reduce <- inception_4b/3x3_reduce
I0403 16:54:52.358784 19672 net.cpp:386] inception_4b/relu_3x3_reduce -> inception_4b/3x3_reduce (in-place)
I0403 16:54:52.359133 19672 net.cpp:141] Setting up inception_4b/relu_3x3_reduce
I0403 16:54:52.359165 19672 net.cpp:148] Top shape: 24 112 14 14 (526848)
I0403 16:54:52.359184 19672 net.cpp:156] Memory required for data: 956439840
I0403 16:54:52.359202 19672 layer_factory.hpp:77] Creating layer inception_4b/3x3
I0403 16:54:52.359230 19672 net.cpp:91] Creating Layer inception_4b/3x3
I0403 16:54:52.359251 19672 net.cpp:425] inception_4b/3x3 <- inception_4b/3x3_reduce
I0403 16:54:52.359278 19672 net.cpp:399] inception_4b/3x3 -> inception_4b/3x3
I0403 16:54:52.362913 19672 net.cpp:141] Setting up inception_4b/3x3
I0403 16:54:52.362949 19672 net.cpp:148] Top shape: 24 224 14 14 (1053696)
I0403 16:54:52.362968 19672 net.cpp:156] Memory required for data: 960654624
I0403 16:54:52.362992 19672 layer_factory.hpp:77] Creating layer inception_4b/relu_3x3
I0403 16:54:52.363013 19672 net.cpp:91] Creating Layer inception_4b/relu_3x3
I0403 16:54:52.363032 19672 net.cpp:425] inception_4b/relu_3x3 <- inception_4b/3x3
I0403 16:54:52.363056 19672 net.cpp:386] inception_4b/relu_3x3 -> inception_4b/3x3 (in-place)
I0403 16:54:52.363278 19672 net.cpp:141] Setting up inception_4b/relu_3x3
I0403 16:54:52.363308 19672 net.cpp:148] Top shape: 24 224 14 14 (1053696)
I0403 16:54:52.363327 19672 net.cpp:156] Memory required for data: 964869408
I0403 16:54:52.363344 19672 layer_factory.hpp:77] Creating layer inception_4b/5x5_reduce
I0403 16:54:52.363373 19672 net.cpp:91] Creating Layer inception_4b/5x5_reduce
I0403 16:54:52.363394 19672 net.cpp:425] inception_4b/5x5_reduce <- inception_4a/output_inception_4a/output_0_split_3
I0403 16:54:52.363420 19672 net.cpp:399] inception_4b/5x5_reduce -> inception_4b/5x5_reduce
I0403 16:54:52.364768 19672 net.cpp:141] Setting up inception_4b/5x5_reduce
I0403 16:54:52.364802 19672 net.cpp:148] Top shape: 24 24 14 14 (112896)
I0403 16:54:52.364821 19672 net.cpp:156] Memory required for data: 965320992
I0403 16:54:52.364843 19672 layer_factory.hpp:77] Creating layer inception_4b/relu_5x5_reduce
I0403 16:54:52.364869 19672 net.cpp:91] Creating Layer inception_4b/relu_5x5_reduce
I0403 16:54:52.364907 19672 net.cpp:425] inception_4b/relu_5x5_reduce <- inception_4b/5x5_reduce
I0403 16:54:52.364930 19672 net.cpp:386] inception_4b/relu_5x5_reduce -> inception_4b/5x5_reduce (in-place)
I0403 16:54:52.365156 19672 net.cpp:141] Setting up inception_4b/relu_5x5_reduce
I0403 16:54:52.365188 19672 net.cpp:148] Top shape: 24 24 14 14 (112896)
I0403 16:54:52.365208 19672 net.cpp:156] Memory required for data: 965772576
I0403 16:54:52.365226 19672 layer_factory.hpp:77] Creating layer inception_4b/5x5
I0403 16:54:52.365253 19672 net.cpp:91] Creating Layer inception_4b/5x5
I0403 16:54:52.365275 19672 net.cpp:425] inception_4b/5x5 <- inception_4b/5x5_reduce
I0403 16:54:52.365298 19672 net.cpp:399] inception_4b/5x5 -> inception_4b/5x5
I0403 16:54:52.366806 19672 net.cpp:141] Setting up inception_4b/5x5
I0403 16:54:52.366842 19672 net.cpp:148] Top shape: 24 64 14 14 (301056)
I0403 16:54:52.366860 19672 net.cpp:156] Memory required for data: 966976800
I0403 16:54:52.366883 19672 layer_factory.hpp:77] Creating layer inception_4b/relu_5x5
I0403 16:54:52.366907 19672 net.cpp:91] Creating Layer inception_4b/relu_5x5
I0403 16:54:52.366930 19672 net.cpp:425] inception_4b/relu_5x5 <- inception_4b/5x5
I0403 16:54:52.366950 19672 net.cpp:386] inception_4b/relu_5x5 -> inception_4b/5x5 (in-place)
I0403 16:54:52.367292 19672 net.cpp:141] Setting up inception_4b/relu_5x5
I0403 16:54:52.367324 19672 net.cpp:148] Top shape: 24 64 14 14 (301056)
I0403 16:54:52.367343 19672 net.cpp:156] Memory required for data: 968181024
I0403 16:54:52.367360 19672 layer_factory.hpp:77] Creating layer inception_4b/pool
I0403 16:54:52.367382 19672 net.cpp:91] Creating Layer inception_4b/pool
I0403 16:54:52.367400 19672 net.cpp:425] inception_4b/pool <- inception_4a/output_inception_4a/output_0_split_4
I0403 16:54:52.367425 19672 net.cpp:399] inception_4b/pool -> inception_4b/pool
I0403 16:54:52.367504 19672 net.cpp:141] Setting up inception_4b/pool
I0403 16:54:52.367533 19672 net.cpp:148] Top shape: 24 512 14 14 (2408448)
I0403 16:54:52.367552 19672 net.cpp:156] Memory required for data: 977814816
I0403 16:54:52.367573 19672 layer_factory.hpp:77] Creating layer inception_4b/pool_proj
I0403 16:54:52.367604 19672 net.cpp:91] Creating Layer inception_4b/pool_proj
I0403 16:54:52.367627 19672 net.cpp:425] inception_4b/pool_proj <- inception_4b/pool
I0403 16:54:52.367650 19672 net.cpp:399] inception_4b/pool_proj -> inception_4b/pool_proj
I0403 16:54:52.369135 19672 net.cpp:141] Setting up inception_4b/pool_proj
I0403 16:54:52.369169 19672 net.cpp:148] Top shape: 24 64 14 14 (301056)
I0403 16:54:52.369187 19672 net.cpp:156] Memory required for data: 979019040
I0403 16:54:52.369210 19672 layer_factory.hpp:77] Creating layer inception_4b/relu_pool_proj
I0403 16:54:52.369235 19672 net.cpp:91] Creating Layer inception_4b/relu_pool_proj
I0403 16:54:52.369256 19672 net.cpp:425] inception_4b/relu_pool_proj <- inception_4b/pool_proj
I0403 16:54:52.369277 19672 net.cpp:386] inception_4b/relu_pool_proj -> inception_4b/pool_proj (in-place)
I0403 16:54:52.369508 19672 net.cpp:141] Setting up inception_4b/relu_pool_proj
I0403 16:54:52.369540 19672 net.cpp:148] Top shape: 24 64 14 14 (301056)
I0403 16:54:52.369560 19672 net.cpp:156] Memory required for data: 980223264
I0403 16:54:52.369593 19672 layer_factory.hpp:77] Creating layer inception_4b/output
I0403 16:54:52.369616 19672 net.cpp:91] Creating Layer inception_4b/output
I0403 16:54:52.369634 19672 net.cpp:425] inception_4b/output <- inception_4b/1x1
I0403 16:54:52.369654 19672 net.cpp:425] inception_4b/output <- inception_4b/3x3
I0403 16:54:52.369673 19672 net.cpp:425] inception_4b/output <- inception_4b/5x5
I0403 16:54:52.369693 19672 net.cpp:425] inception_4b/output <- inception_4b/pool_proj
I0403 16:54:52.369714 19672 net.cpp:399] inception_4b/output -> inception_4b/output
I0403 16:54:52.369771 19672 net.cpp:141] Setting up inception_4b/output
I0403 16:54:52.369801 19672 net.cpp:148] Top shape: 24 512 14 14 (2408448)
I0403 16:54:52.369819 19672 net.cpp:156] Memory required for data: 989857056
I0403 16:54:52.369855 19672 layer_factory.hpp:77] Creating layer inception_4b/output_inception_4b/output_0_split
I0403 16:54:52.369880 19672 net.cpp:91] Creating Layer inception_4b/output_inception_4b/output_0_split
I0403 16:54:52.369900 19672 net.cpp:425] inception_4b/output_inception_4b/output_0_split <- inception_4b/output
I0403 16:54:52.369921 19672 net.cpp:399] inception_4b/output_inception_4b/output_0_split -> inception_4b/output_inception_4b/output_0_split_0
I0403 16:54:52.369946 19672 net.cpp:399] inception_4b/output_inception_4b/output_0_split -> inception_4b/output_inception_4b/output_0_split_1
I0403 16:54:52.369972 19672 net.cpp:399] inception_4b/output_inception_4b/output_0_split -> inception_4b/output_inception_4b/output_0_split_2
I0403 16:54:52.369997 19672 net.cpp:399] inception_4b/output_inception_4b/output_0_split -> inception_4b/output_inception_4b/output_0_split_3
I0403 16:54:52.370100 19672 net.cpp:141] Setting up inception_4b/output_inception_4b/output_0_split
I0403 16:54:52.370129 19672 net.cpp:148] Top shape: 24 512 14 14 (2408448)
I0403 16:54:52.370148 19672 net.cpp:148] Top shape: 24 512 14 14 (2408448)
I0403 16:54:52.370167 19672 net.cpp:148] Top shape: 24 512 14 14 (2408448)
I0403 16:54:52.370187 19672 net.cpp:148] Top shape: 24 512 14 14 (2408448)
I0403 16:54:52.370203 19672 net.cpp:156] Memory required for data: 1028392224
I0403 16:54:52.370221 19672 layer_factory.hpp:77] Creating layer inception_4c/1x1
I0403 16:54:52.370249 19672 net.cpp:91] Creating Layer inception_4c/1x1
I0403 16:54:52.370272 19672 net.cpp:425] inception_4c/1x1 <- inception_4b/output_inception_4b/output_0_split_0
I0403 16:54:52.370298 19672 net.cpp:399] inception_4c/1x1 -> inception_4c/1x1
I0403 16:54:52.372061 19672 net.cpp:141] Setting up inception_4c/1x1
I0403 16:54:52.372099 19672 net.cpp:148] Top shape: 24 128 14 14 (602112)
I0403 16:54:52.372120 19672 net.cpp:156] Memory required for data: 1030800672
I0403 16:54:52.372143 19672 layer_factory.hpp:77] Creating layer inception_4c/relu_1x1
I0403 16:54:52.372164 19672 net.cpp:91] Creating Layer inception_4c/relu_1x1
I0403 16:54:52.372184 19672 net.cpp:425] inception_4c/relu_1x1 <- inception_4c/1x1
I0403 16:54:52.372205 19672 net.cpp:386] inception_4c/relu_1x1 -> inception_4c/1x1 (in-place)
I0403 16:54:52.372434 19672 net.cpp:141] Setting up inception_4c/relu_1x1
I0403 16:54:52.372464 19672 net.cpp:148] Top shape: 24 128 14 14 (602112)
I0403 16:54:52.372483 19672 net.cpp:156] Memory required for data: 1033209120
I0403 16:54:52.372499 19672 layer_factory.hpp:77] Creating layer inception_4c/3x3_reduce
I0403 16:54:52.372526 19672 net.cpp:91] Creating Layer inception_4c/3x3_reduce
I0403 16:54:52.372547 19672 net.cpp:425] inception_4c/3x3_reduce <- inception_4b/output_inception_4b/output_0_split_1
I0403 16:54:52.372578 19672 net.cpp:399] inception_4c/3x3_reduce -> inception_4c/3x3_reduce
I0403 16:54:52.374969 19672 net.cpp:141] Setting up inception_4c/3x3_reduce
I0403 16:54:52.375005 19672 net.cpp:148] Top shape: 24 128 14 14 (602112)
I0403 16:54:52.375025 19672 net.cpp:156] Memory required for data: 1035617568
I0403 16:54:52.375047 19672 layer_factory.hpp:77] Creating layer inception_4c/relu_3x3_reduce
I0403 16:54:52.375072 19672 net.cpp:91] Creating Layer inception_4c/relu_3x3_reduce
I0403 16:54:52.375093 19672 net.cpp:425] inception_4c/relu_3x3_reduce <- inception_4c/3x3_reduce
I0403 16:54:52.375115 19672 net.cpp:386] inception_4c/relu_3x3_reduce -> inception_4c/3x3_reduce (in-place)
I0403 16:54:52.375463 19672 net.cpp:141] Setting up inception_4c/relu_3x3_reduce
I0403 16:54:52.375496 19672 net.cpp:148] Top shape: 24 128 14 14 (602112)
I0403 16:54:52.375514 19672 net.cpp:156] Memory required for data: 1038026016
I0403 16:54:52.375532 19672 layer_factory.hpp:77] Creating layer inception_4c/3x3
I0403 16:54:52.375560 19672 net.cpp:91] Creating Layer inception_4c/3x3
I0403 16:54:52.375587 19672 net.cpp:425] inception_4c/3x3 <- inception_4c/3x3_reduce
I0403 16:54:52.375615 19672 net.cpp:399] inception_4c/3x3 -> inception_4c/3x3
I0403 16:54:52.380022 19672 net.cpp:141] Setting up inception_4c/3x3
I0403 16:54:52.380071 19672 net.cpp:148] Top shape: 24 256 14 14 (1204224)
I0403 16:54:52.380092 19672 net.cpp:156] Memory required for data: 1042842912
I0403 16:54:52.380131 19672 layer_factory.hpp:77] Creating layer inception_4c/relu_3x3
I0403 16:54:52.380161 19672 net.cpp:91] Creating Layer inception_4c/relu_3x3
I0403 16:54:52.380182 19672 net.cpp:425] inception_4c/relu_3x3 <- inception_4c/3x3
I0403 16:54:52.380203 19672 net.cpp:386] inception_4c/relu_3x3 -> inception_4c/3x3 (in-place)
I0403 16:54:52.380425 19672 net.cpp:141] Setting up inception_4c/relu_3x3
I0403 16:54:52.380456 19672 net.cpp:148] Top shape: 24 256 14 14 (1204224)
I0403 16:54:52.380475 19672 net.cpp:156] Memory required for data: 1047659808
I0403 16:54:52.380493 19672 layer_factory.hpp:77] Creating layer inception_4c/5x5_reduce
I0403 16:54:52.380520 19672 net.cpp:91] Creating Layer inception_4c/5x5_reduce
I0403 16:54:52.380542 19672 net.cpp:425] inception_4c/5x5_reduce <- inception_4b/output_inception_4b/output_0_split_2
I0403 16:54:52.380571 19672 net.cpp:399] inception_4c/5x5_reduce -> inception_4c/5x5_reduce
I0403 16:54:52.381913 19672 net.cpp:141] Setting up inception_4c/5x5_reduce
I0403 16:54:52.381947 19672 net.cpp:148] Top shape: 24 24 14 14 (112896)
I0403 16:54:52.381966 19672 net.cpp:156] Memory required for data: 1048111392
I0403 16:54:52.381989 19672 layer_factory.hpp:77] Creating layer inception_4c/relu_5x5_reduce
I0403 16:54:52.382014 19672 net.cpp:91] Creating Layer inception_4c/relu_5x5_reduce
I0403 16:54:52.382035 19672 net.cpp:425] inception_4c/relu_5x5_reduce <- inception_4c/5x5_reduce
I0403 16:54:52.382056 19672 net.cpp:386] inception_4c/relu_5x5_reduce -> inception_4c/5x5_reduce (in-place)
I0403 16:54:52.382288 19672 net.cpp:141] Setting up inception_4c/relu_5x5_reduce
I0403 16:54:52.382319 19672 net.cpp:148] Top shape: 24 24 14 14 (112896)
I0403 16:54:52.382338 19672 net.cpp:156] Memory required for data: 1048562976
I0403 16:54:52.382354 19672 layer_factory.hpp:77] Creating layer inception_4c/5x5
I0403 16:54:52.382383 19672 net.cpp:91] Creating Layer inception_4c/5x5
I0403 16:54:52.382405 19672 net.cpp:425] inception_4c/5x5 <- inception_4c/5x5_reduce
I0403 16:54:52.382428 19672 net.cpp:399] inception_4c/5x5 -> inception_4c/5x5
I0403 16:54:52.383958 19672 net.cpp:141] Setting up inception_4c/5x5
I0403 16:54:52.383996 19672 net.cpp:148] Top shape: 24 64 14 14 (301056)
I0403 16:54:52.384016 19672 net.cpp:156] Memory required for data: 1049767200
I0403 16:54:52.384037 19672 layer_factory.hpp:77] Creating layer inception_4c/relu_5x5
I0403 16:54:52.384058 19672 net.cpp:91] Creating Layer inception_4c/relu_5x5
I0403 16:54:52.384078 19672 net.cpp:425] inception_4c/relu_5x5 <- inception_4c/5x5
I0403 16:54:52.384099 19672 net.cpp:386] inception_4c/relu_5x5 -> inception_4c/5x5 (in-place)
I0403 16:54:52.384449 19672 net.cpp:141] Setting up inception_4c/relu_5x5
I0403 16:54:52.384484 19672 net.cpp:148] Top shape: 24 64 14 14 (301056)
I0403 16:54:52.384503 19672 net.cpp:156] Memory required for data: 1050971424
I0403 16:54:52.384521 19672 layer_factory.hpp:77] Creating layer inception_4c/pool
I0403 16:54:52.384542 19672 net.cpp:91] Creating Layer inception_4c/pool
I0403 16:54:52.384562 19672 net.cpp:425] inception_4c/pool <- inception_4b/output_inception_4b/output_0_split_3
I0403 16:54:52.384599 19672 net.cpp:399] inception_4c/pool -> inception_4c/pool
I0403 16:54:52.384685 19672 net.cpp:141] Setting up inception_4c/pool
I0403 16:54:52.384714 19672 net.cpp:148] Top shape: 24 512 14 14 (2408448)
I0403 16:54:52.384732 19672 net.cpp:156] Memory required for data: 1060605216
I0403 16:54:52.384749 19672 layer_factory.hpp:77] Creating layer inception_4c/pool_proj
I0403 16:54:52.384778 19672 net.cpp:91] Creating Layer inception_4c/pool_proj
I0403 16:54:52.384798 19672 net.cpp:425] inception_4c/pool_proj <- inception_4c/pool
I0403 16:54:52.384822 19672 net.cpp:399] inception_4c/pool_proj -> inception_4c/pool_proj
I0403 16:54:52.386335 19672 net.cpp:141] Setting up inception_4c/pool_proj
I0403 16:54:52.386370 19672 net.cpp:148] Top shape: 24 64 14 14 (301056)
I0403 16:54:52.386406 19672 net.cpp:156] Memory required for data: 1061809440
I0403 16:54:52.386430 19672 layer_factory.hpp:77] Creating layer inception_4c/relu_pool_proj
I0403 16:54:52.386456 19672 net.cpp:91] Creating Layer inception_4c/relu_pool_proj
I0403 16:54:52.386478 19672 net.cpp:425] inception_4c/relu_pool_proj <- inception_4c/pool_proj
I0403 16:54:52.386499 19672 net.cpp:386] inception_4c/relu_pool_proj -> inception_4c/pool_proj (in-place)
I0403 16:54:52.386735 19672 net.cpp:141] Setting up inception_4c/relu_pool_proj
I0403 16:54:52.386770 19672 net.cpp:148] Top shape: 24 64 14 14 (301056)
I0403 16:54:52.386790 19672 net.cpp:156] Memory required for data: 1063013664
I0403 16:54:52.386807 19672 layer_factory.hpp:77] Creating layer inception_4c/output
I0403 16:54:52.386829 19672 net.cpp:91] Creating Layer inception_4c/output
I0403 16:54:52.386848 19672 net.cpp:425] inception_4c/output <- inception_4c/1x1
I0403 16:54:52.386868 19672 net.cpp:425] inception_4c/output <- inception_4c/3x3
I0403 16:54:52.386888 19672 net.cpp:425] inception_4c/output <- inception_4c/5x5
I0403 16:54:52.386906 19672 net.cpp:425] inception_4c/output <- inception_4c/pool_proj
I0403 16:54:52.386927 19672 net.cpp:399] inception_4c/output -> inception_4c/output
I0403 16:54:52.386986 19672 net.cpp:141] Setting up inception_4c/output
I0403 16:54:52.387014 19672 net.cpp:148] Top shape: 24 512 14 14 (2408448)
I0403 16:54:52.387032 19672 net.cpp:156] Memory required for data: 1072647456
I0403 16:54:52.387049 19672 layer_factory.hpp:77] Creating layer inception_4c/output_inception_4c/output_0_split
I0403 16:54:52.387070 19672 net.cpp:91] Creating Layer inception_4c/output_inception_4c/output_0_split
I0403 16:54:52.387092 19672 net.cpp:425] inception_4c/output_inception_4c/output_0_split <- inception_4c/output
I0403 16:54:52.387114 19672 net.cpp:399] inception_4c/output_inception_4c/output_0_split -> inception_4c/output_inception_4c/output_0_split_0
I0403 16:54:52.387137 19672 net.cpp:399] inception_4c/output_inception_4c/output_0_split -> inception_4c/output_inception_4c/output_0_split_1
I0403 16:54:52.387162 19672 net.cpp:399] inception_4c/output_inception_4c/output_0_split -> inception_4c/output_inception_4c/output_0_split_2
I0403 16:54:52.387187 19672 net.cpp:399] inception_4c/output_inception_4c/output_0_split -> inception_4c/output_inception_4c/output_0_split_3
I0403 16:54:52.387292 19672 net.cpp:141] Setting up inception_4c/output_inception_4c/output_0_split
I0403 16:54:52.387320 19672 net.cpp:148] Top shape: 24 512 14 14 (2408448)
I0403 16:54:52.387339 19672 net.cpp:148] Top shape: 24 512 14 14 (2408448)
I0403 16:54:52.387358 19672 net.cpp:148] Top shape: 24 512 14 14 (2408448)
I0403 16:54:52.387375 19672 net.cpp:148] Top shape: 24 512 14 14 (2408448)
I0403 16:54:52.387392 19672 net.cpp:156] Memory required for data: 1111182624
I0403 16:54:52.387409 19672 layer_factory.hpp:77] Creating layer inception_4d/1x1
I0403 16:54:52.387437 19672 net.cpp:91] Creating Layer inception_4d/1x1
I0403 16:54:52.387459 19672 net.cpp:425] inception_4d/1x1 <- inception_4c/output_inception_4c/output_0_split_0
I0403 16:54:52.387485 19672 net.cpp:399] inception_4d/1x1 -> inception_4d/1x1
I0403 16:54:52.389214 19672 net.cpp:141] Setting up inception_4d/1x1
I0403 16:54:52.389247 19672 net.cpp:148] Top shape: 24 112 14 14 (526848)
I0403 16:54:52.389268 19672 net.cpp:156] Memory required for data: 1113290016
I0403 16:54:52.389291 19672 layer_factory.hpp:77] Creating layer inception_4d/relu_1x1
I0403 16:54:52.389314 19672 net.cpp:91] Creating Layer inception_4d/relu_1x1
I0403 16:54:52.389333 19672 net.cpp:425] inception_4d/relu_1x1 <- inception_4d/1x1
I0403 16:54:52.389358 19672 net.cpp:386] inception_4d/relu_1x1 -> inception_4d/1x1 (in-place)
I0403 16:54:52.389588 19672 net.cpp:141] Setting up inception_4d/relu_1x1
I0403 16:54:52.389619 19672 net.cpp:148] Top shape: 24 112 14 14 (526848)
I0403 16:54:52.389637 19672 net.cpp:156] Memory required for data: 1115397408
I0403 16:54:52.389655 19672 layer_factory.hpp:77] Creating layer inception_4d/3x3_reduce
I0403 16:54:52.389700 19672 net.cpp:91] Creating Layer inception_4d/3x3_reduce
I0403 16:54:52.389724 19672 net.cpp:425] inception_4d/3x3_reduce <- inception_4c/output_inception_4c/output_0_split_1
I0403 16:54:52.389750 19672 net.cpp:399] inception_4d/3x3_reduce -> inception_4d/3x3_reduce
I0403 16:54:52.391621 19672 net.cpp:141] Setting up inception_4d/3x3_reduce
I0403 16:54:52.391660 19672 net.cpp:148] Top shape: 24 144 14 14 (677376)
I0403 16:54:52.391683 19672 net.cpp:156] Memory required for data: 1118106912
I0403 16:54:52.391706 19672 layer_factory.hpp:77] Creating layer inception_4d/relu_3x3_reduce
I0403 16:54:52.391729 19672 net.cpp:91] Creating Layer inception_4d/relu_3x3_reduce
I0403 16:54:52.391748 19672 net.cpp:425] inception_4d/relu_3x3_reduce <- inception_4d/3x3_reduce
I0403 16:54:52.391774 19672 net.cpp:386] inception_4d/relu_3x3_reduce -> inception_4d/3x3_reduce (in-place)
I0403 16:54:52.392128 19672 net.cpp:141] Setting up inception_4d/relu_3x3_reduce
I0403 16:54:52.392163 19672 net.cpp:148] Top shape: 24 144 14 14 (677376)
I0403 16:54:52.392184 19672 net.cpp:156] Memory required for data: 1120816416
I0403 16:54:52.392201 19672 layer_factory.hpp:77] Creating layer inception_4d/3x3
I0403 16:54:52.392227 19672 net.cpp:91] Creating Layer inception_4d/3x3
I0403 16:54:52.392249 19672 net.cpp:425] inception_4d/3x3 <- inception_4d/3x3_reduce
I0403 16:54:52.392274 19672 net.cpp:399] inception_4d/3x3 -> inception_4d/3x3
I0403 16:54:52.397557 19672 net.cpp:141] Setting up inception_4d/3x3
I0403 16:54:52.397599 19672 net.cpp:148] Top shape: 24 288 14 14 (1354752)
I0403 16:54:52.397619 19672 net.cpp:156] Memory required for data: 1126235424
I0403 16:54:52.397641 19672 layer_factory.hpp:77] Creating layer inception_4d/relu_3x3
I0403 16:54:52.397662 19672 net.cpp:91] Creating Layer inception_4d/relu_3x3
I0403 16:54:52.397706 19672 net.cpp:425] inception_4d/relu_3x3 <- inception_4d/3x3
I0403 16:54:52.397728 19672 net.cpp:386] inception_4d/relu_3x3 -> inception_4d/3x3 (in-place)
I0403 16:54:52.397958 19672 net.cpp:141] Setting up inception_4d/relu_3x3
I0403 16:54:52.397989 19672 net.cpp:148] Top shape: 24 288 14 14 (1354752)
I0403 16:54:52.398006 19672 net.cpp:156] Memory required for data: 1131654432
I0403 16:54:52.398023 19672 layer_factory.hpp:77] Creating layer inception_4d/5x5_reduce
I0403 16:54:52.398051 19672 net.cpp:91] Creating Layer inception_4d/5x5_reduce
I0403 16:54:52.398072 19672 net.cpp:425] inception_4d/5x5_reduce <- inception_4c/output_inception_4c/output_0_split_2
I0403 16:54:52.398097 19672 net.cpp:399] inception_4d/5x5_reduce -> inception_4d/5x5_reduce
I0403 16:54:52.399512 19672 net.cpp:141] Setting up inception_4d/5x5_reduce
I0403 16:54:52.399545 19672 net.cpp:148] Top shape: 24 32 14 14 (150528)
I0403 16:54:52.399564 19672 net.cpp:156] Memory required for data: 1132256544
I0403 16:54:52.399592 19672 layer_factory.hpp:77] Creating layer inception_4d/relu_5x5_reduce
I0403 16:54:52.399615 19672 net.cpp:91] Creating Layer inception_4d/relu_5x5_reduce
I0403 16:54:52.399634 19672 net.cpp:425] inception_4d/relu_5x5_reduce <- inception_4d/5x5_reduce
I0403 16:54:52.399657 19672 net.cpp:386] inception_4d/relu_5x5_reduce -> inception_4d/5x5_reduce (in-place)
I0403 16:54:52.399890 19672 net.cpp:141] Setting up inception_4d/relu_5x5_reduce
I0403 16:54:52.399921 19672 net.cpp:148] Top shape: 24 32 14 14 (150528)
I0403 16:54:52.399940 19672 net.cpp:156] Memory required for data: 1132858656
I0403 16:54:52.399956 19672 layer_factory.hpp:77] Creating layer inception_4d/5x5
I0403 16:54:52.399983 19672 net.cpp:91] Creating Layer inception_4d/5x5
I0403 16:54:52.400004 19672 net.cpp:425] inception_4d/5x5 <- inception_4d/5x5_reduce
I0403 16:54:52.400032 19672 net.cpp:399] inception_4d/5x5 -> inception_4d/5x5
I0403 16:54:52.401844 19672 net.cpp:141] Setting up inception_4d/5x5
I0403 16:54:52.401876 19672 net.cpp:148] Top shape: 24 64 14 14 (301056)
I0403 16:54:52.401895 19672 net.cpp:156] Memory required for data: 1134062880
I0403 16:54:52.401919 19672 layer_factory.hpp:77] Creating layer inception_4d/relu_5x5
I0403 16:54:52.401963 19672 net.cpp:91] Creating Layer inception_4d/relu_5x5
I0403 16:54:52.401985 19672 net.cpp:425] inception_4d/relu_5x5 <- inception_4d/5x5
I0403 16:54:52.402007 19672 net.cpp:386] inception_4d/relu_5x5 -> inception_4d/5x5 (in-place)
I0403 16:54:52.402379 19672 net.cpp:141] Setting up inception_4d/relu_5x5
I0403 16:54:52.402412 19672 net.cpp:148] Top shape: 24 64 14 14 (301056)
I0403 16:54:52.402431 19672 net.cpp:156] Memory required for data: 1135267104
I0403 16:54:52.402449 19672 layer_factory.hpp:77] Creating layer inception_4d/pool
I0403 16:54:52.402473 19672 net.cpp:91] Creating Layer inception_4d/pool
I0403 16:54:52.402494 19672 net.cpp:425] inception_4d/pool <- inception_4c/output_inception_4c/output_0_split_3
I0403 16:54:52.402516 19672 net.cpp:399] inception_4d/pool -> inception_4d/pool
I0403 16:54:52.402606 19672 net.cpp:141] Setting up inception_4d/pool
I0403 16:54:52.402636 19672 net.cpp:148] Top shape: 24 512 14 14 (2408448)
I0403 16:54:52.402653 19672 net.cpp:156] Memory required for data: 1144900896
I0403 16:54:52.402672 19672 layer_factory.hpp:77] Creating layer inception_4d/pool_proj
I0403 16:54:52.402698 19672 net.cpp:91] Creating Layer inception_4d/pool_proj
I0403 16:54:52.402720 19672 net.cpp:425] inception_4d/pool_proj <- inception_4d/pool
I0403 16:54:52.402745 19672 net.cpp:399] inception_4d/pool_proj -> inception_4d/pool_proj
I0403 16:54:52.404930 19672 net.cpp:141] Setting up inception_4d/pool_proj
I0403 16:54:52.404968 19672 net.cpp:148] Top shape: 24 64 14 14 (301056)
I0403 16:54:52.404989 19672 net.cpp:156] Memory required for data: 1146105120
I0403 16:54:52.405011 19672 layer_factory.hpp:77] Creating layer inception_4d/relu_pool_proj
I0403 16:54:52.405033 19672 net.cpp:91] Creating Layer inception_4d/relu_pool_proj
I0403 16:54:52.405057 19672 net.cpp:425] inception_4d/relu_pool_proj <- inception_4d/pool_proj
I0403 16:54:52.405079 19672 net.cpp:386] inception_4d/relu_pool_proj -> inception_4d/pool_proj (in-place)
I0403 16:54:52.405313 19672 net.cpp:141] Setting up inception_4d/relu_pool_proj
I0403 16:54:52.405344 19672 net.cpp:148] Top shape: 24 64 14 14 (301056)
I0403 16:54:52.405360 19672 net.cpp:156] Memory required for data: 1147309344
I0403 16:54:52.405378 19672 layer_factory.hpp:77] Creating layer inception_4d/output
I0403 16:54:52.405402 19672 net.cpp:91] Creating Layer inception_4d/output
I0403 16:54:52.405423 19672 net.cpp:425] inception_4d/output <- inception_4d/1x1
I0403 16:54:52.405443 19672 net.cpp:425] inception_4d/output <- inception_4d/3x3
I0403 16:54:52.405463 19672 net.cpp:425] inception_4d/output <- inception_4d/5x5
I0403 16:54:52.405484 19672 net.cpp:425] inception_4d/output <- inception_4d/pool_proj
I0403 16:54:52.405505 19672 net.cpp:399] inception_4d/output -> inception_4d/output
I0403 16:54:52.405566 19672 net.cpp:141] Setting up inception_4d/output
I0403 16:54:52.405601 19672 net.cpp:148] Top shape: 24 528 14 14 (2483712)
I0403 16:54:52.405617 19672 net.cpp:156] Memory required for data: 1157244192
I0403 16:54:52.405635 19672 layer_factory.hpp:77] Creating layer inception_4d/output_inception_4d/output_0_split
I0403 16:54:52.405658 19672 net.cpp:91] Creating Layer inception_4d/output_inception_4d/output_0_split
I0403 16:54:52.405676 19672 net.cpp:425] inception_4d/output_inception_4d/output_0_split <- inception_4d/output
I0403 16:54:52.405699 19672 net.cpp:399] inception_4d/output_inception_4d/output_0_split -> inception_4d/output_inception_4d/output_0_split_0
I0403 16:54:52.405725 19672 net.cpp:399] inception_4d/output_inception_4d/output_0_split -> inception_4d/output_inception_4d/output_0_split_1
I0403 16:54:52.405750 19672 net.cpp:399] inception_4d/output_inception_4d/output_0_split -> inception_4d/output_inception_4d/output_0_split_2
I0403 16:54:52.405776 19672 net.cpp:399] inception_4d/output_inception_4d/output_0_split -> inception_4d/output_inception_4d/output_0_split_3
I0403 16:54:52.405800 19672 net.cpp:399] inception_4d/output_inception_4d/output_0_split -> inception_4d/output_inception_4d/output_0_split_4
I0403 16:54:52.405931 19672 net.cpp:141] Setting up inception_4d/output_inception_4d/output_0_split
I0403 16:54:52.405975 19672 net.cpp:148] Top shape: 24 528 14 14 (2483712)
I0403 16:54:52.405997 19672 net.cpp:148] Top shape: 24 528 14 14 (2483712)
I0403 16:54:52.406014 19672 net.cpp:148] Top shape: 24 528 14 14 (2483712)
I0403 16:54:52.406033 19672 net.cpp:148] Top shape: 24 528 14 14 (2483712)
I0403 16:54:52.406052 19672 net.cpp:148] Top shape: 24 528 14 14 (2483712)
I0403 16:54:52.406069 19672 net.cpp:156] Memory required for data: 1206918432
I0403 16:54:52.406086 19672 layer_factory.hpp:77] Creating layer loss2/ave_pool
I0403 16:54:52.406108 19672 net.cpp:91] Creating Layer loss2/ave_pool
I0403 16:54:52.406126 19672 net.cpp:425] loss2/ave_pool <- inception_4d/output_inception_4d/output_0_split_0
I0403 16:54:52.406152 19672 net.cpp:399] loss2/ave_pool -> loss2/ave_pool
I0403 16:54:52.406534 19672 net.cpp:141] Setting up loss2/ave_pool
I0403 16:54:52.406566 19672 net.cpp:148] Top shape: 24 528 4 4 (202752)
I0403 16:54:52.406591 19672 net.cpp:156] Memory required for data: 1207729440
I0403 16:54:52.406610 19672 layer_factory.hpp:77] Creating layer loss2/conv
I0403 16:54:52.406636 19672 net.cpp:91] Creating Layer loss2/conv
I0403 16:54:52.406659 19672 net.cpp:425] loss2/conv <- loss2/ave_pool
I0403 16:54:52.406684 19672 net.cpp:399] loss2/conv -> loss2/conv
I0403 16:54:52.409026 19672 net.cpp:141] Setting up loss2/conv
I0403 16:54:52.409061 19672 net.cpp:148] Top shape: 24 128 4 4 (49152)
I0403 16:54:52.409082 19672 net.cpp:156] Memory required for data: 1207926048
I0403 16:54:52.409104 19672 layer_factory.hpp:77] Creating layer loss2/relu_conv
I0403 16:54:52.409129 19672 net.cpp:91] Creating Layer loss2/relu_conv
I0403 16:54:52.409150 19672 net.cpp:425] loss2/relu_conv <- loss2/conv
I0403 16:54:52.409171 19672 net.cpp:386] loss2/relu_conv -> loss2/conv (in-place)
I0403 16:54:52.409518 19672 net.cpp:141] Setting up loss2/relu_conv
I0403 16:54:52.409550 19672 net.cpp:148] Top shape: 24 128 4 4 (49152)
I0403 16:54:52.409574 19672 net.cpp:156] Memory required for data: 1208122656
I0403 16:54:52.409592 19672 layer_factory.hpp:77] Creating layer loss2/fc
I0403 16:54:52.409618 19672 net.cpp:91] Creating Layer loss2/fc
I0403 16:54:52.409639 19672 net.cpp:425] loss2/fc <- loss2/conv
I0403 16:54:52.409664 19672 net.cpp:399] loss2/fc -> loss2/fc
I0403 16:54:52.431560 19672 net.cpp:141] Setting up loss2/fc
I0403 16:54:52.431605 19672 net.cpp:148] Top shape: 24 1024 (24576)
I0403 16:54:52.431627 19672 net.cpp:156] Memory required for data: 1208220960
I0403 16:54:52.431650 19672 layer_factory.hpp:77] Creating layer loss2/relu_fc
I0403 16:54:52.431674 19672 net.cpp:91] Creating Layer loss2/relu_fc
I0403 16:54:52.431694 19672 net.cpp:425] loss2/relu_fc <- loss2/fc
I0403 16:54:52.431718 19672 net.cpp:386] loss2/relu_fc -> loss2/fc (in-place)
I0403 16:54:52.432080 19672 net.cpp:141] Setting up loss2/relu_fc
I0403 16:54:52.432112 19672 net.cpp:148] Top shape: 24 1024 (24576)
I0403 16:54:52.432132 19672 net.cpp:156] Memory required for data: 1208319264
I0403 16:54:52.432149 19672 layer_factory.hpp:77] Creating layer loss2/drop_fc
I0403 16:54:52.432170 19672 net.cpp:91] Creating Layer loss2/drop_fc
I0403 16:54:52.432190 19672 net.cpp:425] loss2/drop_fc <- loss2/fc
I0403 16:54:52.432215 19672 net.cpp:386] loss2/drop_fc -> loss2/fc (in-place)
I0403 16:54:52.432276 19672 net.cpp:141] Setting up loss2/drop_fc
I0403 16:54:52.432307 19672 net.cpp:148] Top shape: 24 1024 (24576)
I0403 16:54:52.432324 19672 net.cpp:156] Memory required for data: 1208417568
I0403 16:54:52.432343 19672 layer_factory.hpp:77] Creating layer loss2/classifier_plantvillage
I0403 16:54:52.432363 19672 net.cpp:91] Creating Layer loss2/classifier_plantvillage
I0403 16:54:52.432384 19672 net.cpp:425] loss2/classifier_plantvillage <- loss2/fc
I0403 16:54:52.432410 19672 net.cpp:399] loss2/classifier_plantvillage -> loss2/classifier_plantvillage
I0403 16:54:52.432919 19672 net.cpp:141] Setting up loss2/classifier_plantvillage
I0403 16:54:52.432950 19672 net.cpp:148] Top shape: 24 38 (912)
I0403 16:54:52.432988 19672 net.cpp:156] Memory required for data: 1208421216
I0403 16:54:52.433012 19672 layer_factory.hpp:77] Creating layer loss2/classifier_plantvillage_loss2/classifier_plantvillage_0_split
I0403 16:54:52.433037 19672 net.cpp:91] Creating Layer loss2/classifier_plantvillage_loss2/classifier_plantvillage_0_split
I0403 16:54:52.433058 19672 net.cpp:425] loss2/classifier_plantvillage_loss2/classifier_plantvillage_0_split <- loss2/classifier_plantvillage
I0403 16:54:52.433079 19672 net.cpp:399] loss2/classifier_plantvillage_loss2/classifier_plantvillage_0_split -> loss2/classifier_plantvillage_loss2/classifier_plantvillage_0_split_0
I0403 16:54:52.433107 19672 net.cpp:399] loss2/classifier_plantvillage_loss2/classifier_plantvillage_0_split -> loss2/classifier_plantvillage_loss2/classifier_plantvillage_0_split_1
I0403 16:54:52.433132 19672 net.cpp:399] loss2/classifier_plantvillage_loss2/classifier_plantvillage_0_split -> loss2/classifier_plantvillage_loss2/classifier_plantvillage_0_split_2
I0403 16:54:52.433229 19672 net.cpp:141] Setting up loss2/classifier_plantvillage_loss2/classifier_plantvillage_0_split
I0403 16:54:52.433257 19672 net.cpp:148] Top shape: 24 38 (912)
I0403 16:54:52.433277 19672 net.cpp:148] Top shape: 24 38 (912)
I0403 16:54:52.433295 19672 net.cpp:148] Top shape: 24 38 (912)
I0403 16:54:52.433315 19672 net.cpp:156] Memory required for data: 1208432160
I0403 16:54:52.433332 19672 layer_factory.hpp:77] Creating layer inception_4e/1x1
I0403 16:54:52.433359 19672 net.cpp:91] Creating Layer inception_4e/1x1
I0403 16:54:52.433380 19672 net.cpp:425] inception_4e/1x1 <- inception_4d/output_inception_4d/output_0_split_1
I0403 16:54:52.433404 19672 net.cpp:399] inception_4e/1x1 -> inception_4e/1x1
I0403 16:54:52.435673 19672 net.cpp:141] Setting up inception_4e/1x1
I0403 16:54:52.435710 19672 net.cpp:148] Top shape: 24 256 14 14 (1204224)
I0403 16:54:52.435730 19672 net.cpp:156] Memory required for data: 1213249056
I0403 16:54:52.435753 19672 layer_factory.hpp:77] Creating layer inception_4e/relu_1x1
I0403 16:54:52.435775 19672 net.cpp:91] Creating Layer inception_4e/relu_1x1
I0403 16:54:52.435793 19672 net.cpp:425] inception_4e/relu_1x1 <- inception_4e/1x1
I0403 16:54:52.435816 19672 net.cpp:386] inception_4e/relu_1x1 -> inception_4e/1x1 (in-place)
I0403 16:54:52.436172 19672 net.cpp:141] Setting up inception_4e/relu_1x1
I0403 16:54:52.436206 19672 net.cpp:148] Top shape: 24 256 14 14 (1204224)
I0403 16:54:52.436226 19672 net.cpp:156] Memory required for data: 1218065952
I0403 16:54:52.436244 19672 layer_factory.hpp:77] Creating layer inception_4e/3x3_reduce
I0403 16:54:52.436271 19672 net.cpp:91] Creating Layer inception_4e/3x3_reduce
I0403 16:54:52.436292 19672 net.cpp:425] inception_4e/3x3_reduce <- inception_4d/output_inception_4d/output_0_split_2
I0403 16:54:52.436318 19672 net.cpp:399] inception_4e/3x3_reduce -> inception_4e/3x3_reduce
I0403 16:54:52.438921 19672 net.cpp:141] Setting up inception_4e/3x3_reduce
I0403 16:54:52.438957 19672 net.cpp:148] Top shape: 24 160 14 14 (752640)
I0403 16:54:52.438977 19672 net.cpp:156] Memory required for data: 1221076512
I0403 16:54:52.439000 19672 layer_factory.hpp:77] Creating layer inception_4e/relu_3x3_reduce
I0403 16:54:52.439024 19672 net.cpp:91] Creating Layer inception_4e/relu_3x3_reduce
I0403 16:54:52.439045 19672 net.cpp:425] inception_4e/relu_3x3_reduce <- inception_4e/3x3_reduce
I0403 16:54:52.439066 19672 net.cpp:386] inception_4e/relu_3x3_reduce -> inception_4e/3x3_reduce (in-place)
I0403 16:54:52.439299 19672 net.cpp:141] Setting up inception_4e/relu_3x3_reduce
I0403 16:54:52.439333 19672 net.cpp:148] Top shape: 24 160 14 14 (752640)
I0403 16:54:52.439353 19672 net.cpp:156] Memory required for data: 1224087072
I0403 16:54:52.439371 19672 layer_factory.hpp:77] Creating layer inception_4e/3x3
I0403 16:54:52.439399 19672 net.cpp:91] Creating Layer inception_4e/3x3
I0403 16:54:52.439420 19672 net.cpp:425] inception_4e/3x3 <- inception_4e/3x3_reduce
I0403 16:54:52.439443 19672 net.cpp:399] inception_4e/3x3 -> inception_4e/3x3
I0403 16:54:52.445663 19672 net.cpp:141] Setting up inception_4e/3x3
I0403 16:54:52.445716 19672 net.cpp:148] Top shape: 24 320 14 14 (1505280)
I0403 16:54:52.445739 19672 net.cpp:156] Memory required for data: 1230108192
I0403 16:54:52.445761 19672 layer_factory.hpp:77] Creating layer inception_4e/relu_3x3
I0403 16:54:52.445785 19672 net.cpp:91] Creating Layer inception_4e/relu_3x3
I0403 16:54:52.445804 19672 net.cpp:425] inception_4e/relu_3x3 <- inception_4e/3x3
I0403 16:54:52.445825 19672 net.cpp:386] inception_4e/relu_3x3 -> inception_4e/3x3 (in-place)
I0403 16:54:52.446198 19672 net.cpp:141] Setting up inception_4e/relu_3x3
I0403 16:54:52.446230 19672 net.cpp:148] Top shape: 24 320 14 14 (1505280)
I0403 16:54:52.446249 19672 net.cpp:156] Memory required for data: 1236129312
I0403 16:54:52.446269 19672 layer_factory.hpp:77] Creating layer inception_4e/5x5_reduce
I0403 16:54:52.446297 19672 net.cpp:91] Creating Layer inception_4e/5x5_reduce
I0403 16:54:52.446321 19672 net.cpp:425] inception_4e/5x5_reduce <- inception_4d/output_inception_4d/output_0_split_3
I0403 16:54:52.446347 19672 net.cpp:399] inception_4e/5x5_reduce -> inception_4e/5x5_reduce
I0403 16:54:52.447687 19672 net.cpp:141] Setting up inception_4e/5x5_reduce
I0403 16:54:52.447721 19672 net.cpp:148] Top shape: 24 32 14 14 (150528)
I0403 16:54:52.447741 19672 net.cpp:156] Memory required for data: 1236731424
I0403 16:54:52.447763 19672 layer_factory.hpp:77] Creating layer inception_4e/relu_5x5_reduce
I0403 16:54:52.447787 19672 net.cpp:91] Creating Layer inception_4e/relu_5x5_reduce
I0403 16:54:52.447808 19672 net.cpp:425] inception_4e/relu_5x5_reduce <- inception_4e/5x5_reduce
I0403 16:54:52.447829 19672 net.cpp:386] inception_4e/relu_5x5_reduce -> inception_4e/5x5_reduce (in-place)
I0403 16:54:52.448200 19672 net.cpp:141] Setting up inception_4e/relu_5x5_reduce
I0403 16:54:52.448232 19672 net.cpp:148] Top shape: 24 32 14 14 (150528)
I0403 16:54:52.448251 19672 net.cpp:156] Memory required for data: 1237333536
I0403 16:54:52.448271 19672 layer_factory.hpp:77] Creating layer inception_4e/5x5
I0403 16:54:52.448318 19672 net.cpp:91] Creating Layer inception_4e/5x5
I0403 16:54:52.448341 19672 net.cpp:425] inception_4e/5x5 <- inception_4e/5x5_reduce
I0403 16:54:52.448366 19672 net.cpp:399] inception_4e/5x5 -> inception_4e/5x5
I0403 16:54:52.450664 19672 net.cpp:141] Setting up inception_4e/5x5
I0403 16:54:52.450698 19672 net.cpp:148] Top shape: 24 128 14 14 (602112)
I0403 16:54:52.450716 19672 net.cpp:156] Memory required for data: 1239741984
I0403 16:54:52.450738 19672 layer_factory.hpp:77] Creating layer inception_4e/relu_5x5
I0403 16:54:52.450763 19672 net.cpp:91] Creating Layer inception_4e/relu_5x5
I0403 16:54:52.450783 19672 net.cpp:425] inception_4e/relu_5x5 <- inception_4e/5x5
I0403 16:54:52.450805 19672 net.cpp:386] inception_4e/relu_5x5 -> inception_4e/5x5 (in-place)
I0403 16:54:52.451052 19672 net.cpp:141] Setting up inception_4e/relu_5x5
I0403 16:54:52.451083 19672 net.cpp:148] Top shape: 24 128 14 14 (602112)
I0403 16:54:52.451100 19672 net.cpp:156] Memory required for data: 1242150432
I0403 16:54:52.451118 19672 layer_factory.hpp:77] Creating layer inception_4e/pool
I0403 16:54:52.451143 19672 net.cpp:91] Creating Layer inception_4e/pool
I0403 16:54:52.451162 19672 net.cpp:425] inception_4e/pool <- inception_4d/output_inception_4d/output_0_split_4
I0403 16:54:52.451184 19672 net.cpp:399] inception_4e/pool -> inception_4e/pool
I0403 16:54:52.451270 19672 net.cpp:141] Setting up inception_4e/pool
I0403 16:54:52.451298 19672 net.cpp:148] Top shape: 24 528 14 14 (2483712)
I0403 16:54:52.451316 19672 net.cpp:156] Memory required for data: 1252085280
I0403 16:54:52.451333 19672 layer_factory.hpp:77] Creating layer inception_4e/pool_proj
I0403 16:54:52.451359 19672 net.cpp:91] Creating Layer inception_4e/pool_proj
I0403 16:54:52.451380 19672 net.cpp:425] inception_4e/pool_proj <- inception_4e/pool
I0403 16:54:52.451406 19672 net.cpp:399] inception_4e/pool_proj -> inception_4e/pool_proj
I0403 16:54:52.453266 19672 net.cpp:141] Setting up inception_4e/pool_proj
I0403 16:54:52.453315 19672 net.cpp:148] Top shape: 24 128 14 14 (602112)
I0403 16:54:52.453335 19672 net.cpp:156] Memory required for data: 1254493728
I0403 16:54:52.453357 19672 layer_factory.hpp:77] Creating layer inception_4e/relu_pool_proj
I0403 16:54:52.453382 19672 net.cpp:91] Creating Layer inception_4e/relu_pool_proj
I0403 16:54:52.453402 19672 net.cpp:425] inception_4e/relu_pool_proj <- inception_4e/pool_proj
I0403 16:54:52.453423 19672 net.cpp:386] inception_4e/relu_pool_proj -> inception_4e/pool_proj (in-place)
I0403 16:54:52.453778 19672 net.cpp:141] Setting up inception_4e/relu_pool_proj
I0403 16:54:52.453810 19672 net.cpp:148] Top shape: 24 128 14 14 (602112)
I0403 16:54:52.453829 19672 net.cpp:156] Memory required for data: 1256902176
I0403 16:54:52.453846 19672 layer_factory.hpp:77] Creating layer inception_4e/output
I0403 16:54:52.453866 19672 net.cpp:91] Creating Layer inception_4e/output
I0403 16:54:52.453884 19672 net.cpp:425] inception_4e/output <- inception_4e/1x1
I0403 16:54:52.453904 19672 net.cpp:425] inception_4e/output <- inception_4e/3x3
I0403 16:54:52.453923 19672 net.cpp:425] inception_4e/output <- inception_4e/5x5
I0403 16:54:52.453941 19672 net.cpp:425] inception_4e/output <- inception_4e/pool_proj
I0403 16:54:52.453964 19672 net.cpp:399] inception_4e/output -> inception_4e/output
I0403 16:54:52.454025 19672 net.cpp:141] Setting up inception_4e/output
I0403 16:54:52.454057 19672 net.cpp:148] Top shape: 24 832 14 14 (3913728)
I0403 16:54:52.454076 19672 net.cpp:156] Memory required for data: 1272557088
I0403 16:54:52.454093 19672 layer_factory.hpp:77] Creating layer pool4/3x3_s2
I0403 16:54:52.454114 19672 net.cpp:91] Creating Layer pool4/3x3_s2
I0403 16:54:52.454133 19672 net.cpp:425] pool4/3x3_s2 <- inception_4e/output
I0403 16:54:52.454157 19672 net.cpp:399] pool4/3x3_s2 -> pool4/3x3_s2
I0403 16:54:52.454237 19672 net.cpp:141] Setting up pool4/3x3_s2
I0403 16:54:52.454267 19672 net.cpp:148] Top shape: 24 832 7 7 (978432)
I0403 16:54:52.454284 19672 net.cpp:156] Memory required for data: 1276470816
I0403 16:54:52.454310 19672 layer_factory.hpp:77] Creating layer pool4/3x3_s2_pool4/3x3_s2_0_split
I0403 16:54:52.454332 19672 net.cpp:91] Creating Layer pool4/3x3_s2_pool4/3x3_s2_0_split
I0403 16:54:52.454352 19672 net.cpp:425] pool4/3x3_s2_pool4/3x3_s2_0_split <- pool4/3x3_s2
I0403 16:54:52.454372 19672 net.cpp:399] pool4/3x3_s2_pool4/3x3_s2_0_split -> pool4/3x3_s2_pool4/3x3_s2_0_split_0
I0403 16:54:52.454396 19672 net.cpp:399] pool4/3x3_s2_pool4/3x3_s2_0_split -> pool4/3x3_s2_pool4/3x3_s2_0_split_1
I0403 16:54:52.454421 19672 net.cpp:399] pool4/3x3_s2_pool4/3x3_s2_0_split -> pool4/3x3_s2_pool4/3x3_s2_0_split_2
I0403 16:54:52.454444 19672 net.cpp:399] pool4/3x3_s2_pool4/3x3_s2_0_split -> pool4/3x3_s2_pool4/3x3_s2_0_split_3
I0403 16:54:52.454558 19672 net.cpp:141] Setting up pool4/3x3_s2_pool4/3x3_s2_0_split
I0403 16:54:52.454607 19672 net.cpp:148] Top shape: 24 832 7 7 (978432)
I0403 16:54:52.454629 19672 net.cpp:148] Top shape: 24 832 7 7 (978432)
I0403 16:54:52.454648 19672 net.cpp:148] Top shape: 24 832 7 7 (978432)
I0403 16:54:52.454665 19672 net.cpp:148] Top shape: 24 832 7 7 (978432)
I0403 16:54:52.454681 19672 net.cpp:156] Memory required for data: 1292125728
I0403 16:54:52.454699 19672 layer_factory.hpp:77] Creating layer inception_5a/1x1
I0403 16:54:52.454725 19672 net.cpp:91] Creating Layer inception_5a/1x1
I0403 16:54:52.454746 19672 net.cpp:425] inception_5a/1x1 <- pool4/3x3_s2_pool4/3x3_s2_0_split_0
I0403 16:54:52.454776 19672 net.cpp:399] inception_5a/1x1 -> inception_5a/1x1
I0403 16:54:52.458278 19672 net.cpp:141] Setting up inception_5a/1x1
I0403 16:54:52.458314 19672 net.cpp:148] Top shape: 24 256 7 7 (301056)
I0403 16:54:52.458333 19672 net.cpp:156] Memory required for data: 1293329952
I0403 16:54:52.458356 19672 layer_factory.hpp:77] Creating layer inception_5a/relu_1x1
I0403 16:54:52.458380 19672 net.cpp:91] Creating Layer inception_5a/relu_1x1
I0403 16:54:52.458401 19672 net.cpp:425] inception_5a/relu_1x1 <- inception_5a/1x1
I0403 16:54:52.458422 19672 net.cpp:386] inception_5a/relu_1x1 -> inception_5a/1x1 (in-place)
I0403 16:54:52.458806 19672 net.cpp:141] Setting up inception_5a/relu_1x1
I0403 16:54:52.458837 19672 net.cpp:148] Top shape: 24 256 7 7 (301056)
I0403 16:54:52.458856 19672 net.cpp:156] Memory required for data: 1294534176
I0403 16:54:52.458873 19672 layer_factory.hpp:77] Creating layer inception_5a/3x3_reduce
I0403 16:54:52.458900 19672 net.cpp:91] Creating Layer inception_5a/3x3_reduce
I0403 16:54:52.458922 19672 net.cpp:425] inception_5a/3x3_reduce <- pool4/3x3_s2_pool4/3x3_s2_0_split_1
I0403 16:54:52.458947 19672 net.cpp:399] inception_5a/3x3_reduce -> inception_5a/3x3_reduce
I0403 16:54:52.461964 19672 net.cpp:141] Setting up inception_5a/3x3_reduce
I0403 16:54:52.462002 19672 net.cpp:148] Top shape: 24 160 7 7 (188160)
I0403 16:54:52.462023 19672 net.cpp:156] Memory required for data: 1295286816
I0403 16:54:52.462045 19672 layer_factory.hpp:77] Creating layer inception_5a/relu_3x3_reduce
I0403 16:54:52.462067 19672 net.cpp:91] Creating Layer inception_5a/relu_3x3_reduce
I0403 16:54:52.462086 19672 net.cpp:425] inception_5a/relu_3x3_reduce <- inception_5a/3x3_reduce
I0403 16:54:52.462110 19672 net.cpp:386] inception_5a/relu_3x3_reduce -> inception_5a/3x3_reduce (in-place)
I0403 16:54:52.462340 19672 net.cpp:141] Setting up inception_5a/relu_3x3_reduce
I0403 16:54:52.462370 19672 net.cpp:148] Top shape: 24 160 7 7 (188160)
I0403 16:54:52.462388 19672 net.cpp:156] Memory required for data: 1296039456
I0403 16:54:52.462405 19672 layer_factory.hpp:77] Creating layer inception_5a/3x3
I0403 16:54:52.462432 19672 net.cpp:91] Creating Layer inception_5a/3x3
I0403 16:54:52.462452 19672 net.cpp:425] inception_5a/3x3 <- inception_5a/3x3_reduce
I0403 16:54:52.462479 19672 net.cpp:399] inception_5a/3x3 -> inception_5a/3x3
I0403 16:54:52.468737 19672 net.cpp:141] Setting up inception_5a/3x3
I0403 16:54:52.468775 19672 net.cpp:148] Top shape: 24 320 7 7 (376320)
I0403 16:54:52.468793 19672 net.cpp:156] Memory required for data: 1297544736
I0403 16:54:52.468814 19672 layer_factory.hpp:77] Creating layer inception_5a/relu_3x3
I0403 16:54:52.468843 19672 net.cpp:91] Creating Layer inception_5a/relu_3x3
I0403 16:54:52.468864 19672 net.cpp:425] inception_5a/relu_3x3 <- inception_5a/3x3
I0403 16:54:52.468885 19672 net.cpp:386] inception_5a/relu_3x3 -> inception_5a/3x3 (in-place)
I0403 16:54:52.469243 19672 net.cpp:141] Setting up inception_5a/relu_3x3
I0403 16:54:52.469276 19672 net.cpp:148] Top shape: 24 320 7 7 (376320)
I0403 16:54:52.469295 19672 net.cpp:156] Memory required for data: 1299050016
I0403 16:54:52.469311 19672 layer_factory.hpp:77] Creating layer inception_5a/5x5_reduce
I0403 16:54:52.469339 19672 net.cpp:91] Creating Layer inception_5a/5x5_reduce
I0403 16:54:52.469360 19672 net.cpp:425] inception_5a/5x5_reduce <- pool4/3x3_s2_pool4/3x3_s2_0_split_2
I0403 16:54:52.469386 19672 net.cpp:399] inception_5a/5x5_reduce -> inception_5a/5x5_reduce
I0403 16:54:52.470849 19672 net.cpp:141] Setting up inception_5a/5x5_reduce
I0403 16:54:52.470883 19672 net.cpp:148] Top shape: 24 32 7 7 (37632)
I0403 16:54:52.470902 19672 net.cpp:156] Memory required for data: 1299200544
I0403 16:54:52.470924 19672 layer_factory.hpp:77] Creating layer inception_5a/relu_5x5_reduce
I0403 16:54:52.470948 19672 net.cpp:91] Creating Layer inception_5a/relu_5x5_reduce
I0403 16:54:52.470968 19672 net.cpp:425] inception_5a/relu_5x5_reduce <- inception_5a/5x5_reduce
I0403 16:54:52.470988 19672 net.cpp:386] inception_5a/relu_5x5_reduce -> inception_5a/5x5_reduce (in-place)
I0403 16:54:52.471352 19672 net.cpp:141] Setting up inception_5a/relu_5x5_reduce
I0403 16:54:52.471384 19672 net.cpp:148] Top shape: 24 32 7 7 (37632)
I0403 16:54:52.471401 19672 net.cpp:156] Memory required for data: 1299351072
I0403 16:54:52.471420 19672 layer_factory.hpp:77] Creating layer inception_5a/5x5
I0403 16:54:52.471447 19672 net.cpp:91] Creating Layer inception_5a/5x5
I0403 16:54:52.471468 19672 net.cpp:425] inception_5a/5x5 <- inception_5a/5x5_reduce
I0403 16:54:52.471490 19672 net.cpp:399] inception_5a/5x5 -> inception_5a/5x5
I0403 16:54:52.473634 19672 net.cpp:141] Setting up inception_5a/5x5
I0403 16:54:52.473682 19672 net.cpp:148] Top shape: 24 128 7 7 (150528)
I0403 16:54:52.473701 19672 net.cpp:156] Memory required for data: 1299953184
I0403 16:54:52.473724 19672 layer_factory.hpp:77] Creating layer inception_5a/relu_5x5
I0403 16:54:52.473748 19672 net.cpp:91] Creating Layer inception_5a/relu_5x5
I0403 16:54:52.473768 19672 net.cpp:425] inception_5a/relu_5x5 <- inception_5a/5x5
I0403 16:54:52.473798 19672 net.cpp:386] inception_5a/relu_5x5 -> inception_5a/5x5 (in-place)
I0403 16:54:52.474038 19672 net.cpp:141] Setting up inception_5a/relu_5x5
I0403 16:54:52.474069 19672 net.cpp:148] Top shape: 24 128 7 7 (150528)
I0403 16:54:52.474086 19672 net.cpp:156] Memory required for data: 1300555296
I0403 16:54:52.474104 19672 layer_factory.hpp:77] Creating layer inception_5a/pool
I0403 16:54:52.474128 19672 net.cpp:91] Creating Layer inception_5a/pool
I0403 16:54:52.474148 19672 net.cpp:425] inception_5a/pool <- pool4/3x3_s2_pool4/3x3_s2_0_split_3
I0403 16:54:52.474169 19672 net.cpp:399] inception_5a/pool -> inception_5a/pool
I0403 16:54:52.474256 19672 net.cpp:141] Setting up inception_5a/pool
I0403 16:54:52.474284 19672 net.cpp:148] Top shape: 24 832 7 7 (978432)
I0403 16:54:52.474301 19672 net.cpp:156] Memory required for data: 1304469024
I0403 16:54:52.474318 19672 layer_factory.hpp:77] Creating layer inception_5a/pool_proj
I0403 16:54:52.474345 19672 net.cpp:91] Creating Layer inception_5a/pool_proj
I0403 16:54:52.474366 19672 net.cpp:425] inception_5a/pool_proj <- inception_5a/pool
I0403 16:54:52.474391 19672 net.cpp:399] inception_5a/pool_proj -> inception_5a/pool_proj
I0403 16:54:52.477216 19672 net.cpp:141] Setting up inception_5a/pool_proj
I0403 16:54:52.477252 19672 net.cpp:148] Top shape: 24 128 7 7 (150528)
I0403 16:54:52.477272 19672 net.cpp:156] Memory required for data: 1305071136
I0403 16:54:52.477293 19672 layer_factory.hpp:77] Creating layer inception_5a/relu_pool_proj
I0403 16:54:52.477314 19672 net.cpp:91] Creating Layer inception_5a/relu_pool_proj
I0403 16:54:52.477332 19672 net.cpp:425] inception_5a/relu_pool_proj <- inception_5a/pool_proj
I0403 16:54:52.477356 19672 net.cpp:386] inception_5a/relu_pool_proj -> inception_5a/pool_proj (in-place)
I0403 16:54:52.477725 19672 net.cpp:141] Setting up inception_5a/relu_pool_proj
I0403 16:54:52.477757 19672 net.cpp:148] Top shape: 24 128 7 7 (150528)
I0403 16:54:52.477774 19672 net.cpp:156] Memory required for data: 1305673248
I0403 16:54:52.477792 19672 layer_factory.hpp:77] Creating layer inception_5a/output
I0403 16:54:52.477813 19672 net.cpp:91] Creating Layer inception_5a/output
I0403 16:54:52.477831 19672 net.cpp:425] inception_5a/output <- inception_5a/1x1
I0403 16:54:52.477851 19672 net.cpp:425] inception_5a/output <- inception_5a/3x3
I0403 16:54:52.477870 19672 net.cpp:425] inception_5a/output <- inception_5a/5x5
I0403 16:54:52.477890 19672 net.cpp:425] inception_5a/output <- inception_5a/pool_proj
I0403 16:54:52.477912 19672 net.cpp:399] inception_5a/output -> inception_5a/output
I0403 16:54:52.477972 19672 net.cpp:141] Setting up inception_5a/output
I0403 16:54:52.478003 19672 net.cpp:148] Top shape: 24 832 7 7 (978432)
I0403 16:54:52.478021 19672 net.cpp:156] Memory required for data: 1309586976
I0403 16:54:52.478039 19672 layer_factory.hpp:77] Creating layer inception_5a/output_inception_5a/output_0_split
I0403 16:54:52.478060 19672 net.cpp:91] Creating Layer inception_5a/output_inception_5a/output_0_split
I0403 16:54:52.478078 19672 net.cpp:425] inception_5a/output_inception_5a/output_0_split <- inception_5a/output
I0403 16:54:52.478099 19672 net.cpp:399] inception_5a/output_inception_5a/output_0_split -> inception_5a/output_inception_5a/output_0_split_0
I0403 16:54:52.478127 19672 net.cpp:399] inception_5a/output_inception_5a/output_0_split -> inception_5a/output_inception_5a/output_0_split_1
I0403 16:54:52.478152 19672 net.cpp:399] inception_5a/output_inception_5a/output_0_split -> inception_5a/output_inception_5a/output_0_split_2
I0403 16:54:52.478178 19672 net.cpp:399] inception_5a/output_inception_5a/output_0_split -> inception_5a/output_inception_5a/output_0_split_3
I0403 16:54:52.478315 19672 net.cpp:141] Setting up inception_5a/output_inception_5a/output_0_split
I0403 16:54:52.478344 19672 net.cpp:148] Top shape: 24 832 7 7 (978432)
I0403 16:54:52.478363 19672 net.cpp:148] Top shape: 24 832 7 7 (978432)
I0403 16:54:52.478381 19672 net.cpp:148] Top shape: 24 832 7 7 (978432)
I0403 16:54:52.478400 19672 net.cpp:148] Top shape: 24 832 7 7 (978432)
I0403 16:54:52.478416 19672 net.cpp:156] Memory required for data: 1325241888
I0403 16:54:52.478433 19672 layer_factory.hpp:77] Creating layer inception_5b/1x1
I0403 16:54:52.478458 19672 net.cpp:91] Creating Layer inception_5b/1x1
I0403 16:54:52.478482 19672 net.cpp:425] inception_5b/1x1 <- inception_5a/output_inception_5a/output_0_split_0
I0403 16:54:52.478504 19672 net.cpp:399] inception_5b/1x1 -> inception_5b/1x1
I0403 16:54:52.483141 19672 net.cpp:141] Setting up inception_5b/1x1
I0403 16:54:52.483181 19672 net.cpp:148] Top shape: 24 384 7 7 (451584)
I0403 16:54:52.483201 19672 net.cpp:156] Memory required for data: 1327048224
I0403 16:54:52.483223 19672 layer_factory.hpp:77] Creating layer inception_5b/relu_1x1
I0403 16:54:52.483245 19672 net.cpp:91] Creating Layer inception_5b/relu_1x1
I0403 16:54:52.483264 19672 net.cpp:425] inception_5b/relu_1x1 <- inception_5b/1x1
I0403 16:54:52.483289 19672 net.cpp:386] inception_5b/relu_1x1 -> inception_5b/1x1 (in-place)
I0403 16:54:52.483667 19672 net.cpp:141] Setting up inception_5b/relu_1x1
I0403 16:54:52.483701 19672 net.cpp:148] Top shape: 24 384 7 7 (451584)
I0403 16:54:52.483721 19672 net.cpp:156] Memory required for data: 1328854560
I0403 16:54:52.483738 19672 layer_factory.hpp:77] Creating layer inception_5b/3x3_reduce
I0403 16:54:52.483765 19672 net.cpp:91] Creating Layer inception_5b/3x3_reduce
I0403 16:54:52.483788 19672 net.cpp:425] inception_5b/3x3_reduce <- inception_5a/output_inception_5a/output_0_split_1
I0403 16:54:52.483810 19672 net.cpp:399] inception_5b/3x3_reduce -> inception_5b/3x3_reduce
I0403 16:54:52.487110 19672 net.cpp:141] Setting up inception_5b/3x3_reduce
I0403 16:54:52.487146 19672 net.cpp:148] Top shape: 24 192 7 7 (225792)
I0403 16:54:52.487166 19672 net.cpp:156] Memory required for data: 1329757728
I0403 16:54:52.487187 19672 layer_factory.hpp:77] Creating layer inception_5b/relu_3x3_reduce
I0403 16:54:52.487210 19672 net.cpp:91] Creating Layer inception_5b/relu_3x3_reduce
I0403 16:54:52.487228 19672 net.cpp:425] inception_5b/relu_3x3_reduce <- inception_5b/3x3_reduce
I0403 16:54:52.487252 19672 net.cpp:386] inception_5b/relu_3x3_reduce -> inception_5b/3x3_reduce (in-place)
I0403 16:54:52.487488 19672 net.cpp:141] Setting up inception_5b/relu_3x3_reduce
I0403 16:54:52.487517 19672 net.cpp:148] Top shape: 24 192 7 7 (225792)
I0403 16:54:52.487534 19672 net.cpp:156] Memory required for data: 1330660896
I0403 16:54:52.487551 19672 layer_factory.hpp:77] Creating layer inception_5b/3x3
I0403 16:54:52.487582 19672 net.cpp:91] Creating Layer inception_5b/3x3
I0403 16:54:52.487606 19672 net.cpp:425] inception_5b/3x3 <- inception_5b/3x3_reduce
I0403 16:54:52.487630 19672 net.cpp:399] inception_5b/3x3 -> inception_5b/3x3
I0403 16:54:52.495990 19672 net.cpp:141] Setting up inception_5b/3x3
I0403 16:54:52.496024 19672 net.cpp:148] Top shape: 24 384 7 7 (451584)
I0403 16:54:52.496043 19672 net.cpp:156] Memory required for data: 1332467232
I0403 16:54:52.496065 19672 layer_factory.hpp:77] Creating layer inception_5b/relu_3x3
I0403 16:54:52.496088 19672 net.cpp:91] Creating Layer inception_5b/relu_3x3
I0403 16:54:52.496106 19672 net.cpp:425] inception_5b/relu_3x3 <- inception_5b/3x3
I0403 16:54:52.496129 19672 net.cpp:386] inception_5b/relu_3x3 -> inception_5b/3x3 (in-place)
I0403 16:54:52.496500 19672 net.cpp:141] Setting up inception_5b/relu_3x3
I0403 16:54:52.496532 19672 net.cpp:148] Top shape: 24 384 7 7 (451584)
I0403 16:54:52.496551 19672 net.cpp:156] Memory required for data: 1334273568
I0403 16:54:52.496572 19672 layer_factory.hpp:77] Creating layer inception_5b/5x5_reduce
I0403 16:54:52.496619 19672 net.cpp:91] Creating Layer inception_5b/5x5_reduce
I0403 16:54:52.496642 19672 net.cpp:425] inception_5b/5x5_reduce <- inception_5a/output_inception_5a/output_0_split_2
I0403 16:54:52.496670 19672 net.cpp:399] inception_5b/5x5_reduce -> inception_5b/5x5_reduce
I0403 16:54:52.498252 19672 net.cpp:141] Setting up inception_5b/5x5_reduce
I0403 16:54:52.498286 19672 net.cpp:148] Top shape: 24 48 7 7 (56448)
I0403 16:54:52.498306 19672 net.cpp:156] Memory required for data: 1334499360
I0403 16:54:52.498327 19672 layer_factory.hpp:77] Creating layer inception_5b/relu_5x5_reduce
I0403 16:54:52.498353 19672 net.cpp:91] Creating Layer inception_5b/relu_5x5_reduce
I0403 16:54:52.498373 19672 net.cpp:425] inception_5b/relu_5x5_reduce <- inception_5b/5x5_reduce
I0403 16:54:52.498394 19672 net.cpp:386] inception_5b/relu_5x5_reduce -> inception_5b/5x5_reduce (in-place)
I0403 16:54:52.498853 19672 net.cpp:141] Setting up inception_5b/relu_5x5_reduce
I0403 16:54:52.498885 19672 net.cpp:148] Top shape: 24 48 7 7 (56448)
I0403 16:54:52.498904 19672 net.cpp:156] Memory required for data: 1334725152
I0403 16:54:52.498922 19672 layer_factory.hpp:77] Creating layer inception_5b/5x5
I0403 16:54:52.498946 19672 net.cpp:91] Creating Layer inception_5b/5x5
I0403 16:54:52.498966 19672 net.cpp:425] inception_5b/5x5 <- inception_5b/5x5_reduce
I0403 16:54:52.498989 19672 net.cpp:399] inception_5b/5x5 -> inception_5b/5x5
I0403 16:54:52.501524 19672 net.cpp:141] Setting up inception_5b/5x5
I0403 16:54:52.501557 19672 net.cpp:148] Top shape: 24 128 7 7 (150528)
I0403 16:54:52.501582 19672 net.cpp:156] Memory required for data: 1335327264
I0403 16:54:52.501605 19672 layer_factory.hpp:77] Creating layer inception_5b/relu_5x5
I0403 16:54:52.501629 19672 net.cpp:91] Creating Layer inception_5b/relu_5x5
I0403 16:54:52.501651 19672 net.cpp:425] inception_5b/relu_5x5 <- inception_5b/5x5
I0403 16:54:52.501672 19672 net.cpp:386] inception_5b/relu_5x5 -> inception_5b/5x5 (in-place)
I0403 16:54:52.501916 19672 net.cpp:141] Setting up inception_5b/relu_5x5
I0403 16:54:52.501950 19672 net.cpp:148] Top shape: 24 128 7 7 (150528)
I0403 16:54:52.501967 19672 net.cpp:156] Memory required for data: 1335929376
I0403 16:54:52.501984 19672 layer_factory.hpp:77] Creating layer inception_5b/pool
I0403 16:54:52.502007 19672 net.cpp:91] Creating Layer inception_5b/pool
I0403 16:54:52.502025 19672 net.cpp:425] inception_5b/pool <- inception_5a/output_inception_5a/output_0_split_3
I0403 16:54:52.502048 19672 net.cpp:399] inception_5b/pool -> inception_5b/pool
I0403 16:54:52.502137 19672 net.cpp:141] Setting up inception_5b/pool
I0403 16:54:52.502166 19672 net.cpp:148] Top shape: 24 832 7 7 (978432)
I0403 16:54:52.502184 19672 net.cpp:156] Memory required for data: 1339843104
I0403 16:54:52.502200 19672 layer_factory.hpp:77] Creating layer inception_5b/pool_proj
I0403 16:54:52.502228 19672 net.cpp:91] Creating Layer inception_5b/pool_proj
I0403 16:54:52.502249 19672 net.cpp:425] inception_5b/pool_proj <- inception_5b/pool
I0403 16:54:52.502274 19672 net.cpp:399] inception_5b/pool_proj -> inception_5b/pool_proj
I0403 16:54:52.505142 19672 net.cpp:141] Setting up inception_5b/pool_proj
I0403 16:54:52.505178 19672 net.cpp:148] Top shape: 24 128 7 7 (150528)
I0403 16:54:52.505198 19672 net.cpp:156] Memory required for data: 1340445216
I0403 16:54:52.505219 19672 layer_factory.hpp:77] Creating layer inception_5b/relu_pool_proj
I0403 16:54:52.505244 19672 net.cpp:91] Creating Layer inception_5b/relu_pool_proj
I0403 16:54:52.505265 19672 net.cpp:425] inception_5b/relu_pool_proj <- inception_5b/pool_proj
I0403 16:54:52.505285 19672 net.cpp:386] inception_5b/relu_pool_proj -> inception_5b/pool_proj (in-place)
I0403 16:54:52.505657 19672 net.cpp:141] Setting up inception_5b/relu_pool_proj
I0403 16:54:52.505688 19672 net.cpp:148] Top shape: 24 128 7 7 (150528)
I0403 16:54:52.505707 19672 net.cpp:156] Memory required for data: 1341047328
I0403 16:54:52.505724 19672 layer_factory.hpp:77] Creating layer inception_5b/output
I0403 16:54:52.505745 19672 net.cpp:91] Creating Layer inception_5b/output
I0403 16:54:52.505782 19672 net.cpp:425] inception_5b/output <- inception_5b/1x1
I0403 16:54:52.505803 19672 net.cpp:425] inception_5b/output <- inception_5b/3x3
I0403 16:54:52.505823 19672 net.cpp:425] inception_5b/output <- inception_5b/5x5
I0403 16:54:52.505842 19672 net.cpp:425] inception_5b/output <- inception_5b/pool_proj
I0403 16:54:52.505866 19672 net.cpp:399] inception_5b/output -> inception_5b/output
I0403 16:54:52.505929 19672 net.cpp:141] Setting up inception_5b/output
I0403 16:54:52.505960 19672 net.cpp:148] Top shape: 24 1024 7 7 (1204224)
I0403 16:54:52.505980 19672 net.cpp:156] Memory required for data: 1345864224
I0403 16:54:52.505996 19672 layer_factory.hpp:77] Creating layer pool5/7x7_s1
I0403 16:54:52.506017 19672 net.cpp:91] Creating Layer pool5/7x7_s1
I0403 16:54:52.506036 19672 net.cpp:425] pool5/7x7_s1 <- inception_5b/output
I0403 16:54:52.506062 19672 net.cpp:399] pool5/7x7_s1 -> pool5/7x7_s1
I0403 16:54:52.506326 19672 net.cpp:141] Setting up pool5/7x7_s1
I0403 16:54:52.506357 19672 net.cpp:148] Top shape: 24 1024 1 1 (24576)
I0403 16:54:52.506376 19672 net.cpp:156] Memory required for data: 1345962528
I0403 16:54:52.506392 19672 layer_factory.hpp:77] Creating layer pool5/drop_7x7_s1
I0403 16:54:52.506415 19672 net.cpp:91] Creating Layer pool5/drop_7x7_s1
I0403 16:54:52.506435 19672 net.cpp:425] pool5/drop_7x7_s1 <- pool5/7x7_s1
I0403 16:54:52.506456 19672 net.cpp:386] pool5/drop_7x7_s1 -> pool5/7x7_s1 (in-place)
I0403 16:54:52.506515 19672 net.cpp:141] Setting up pool5/drop_7x7_s1
I0403 16:54:52.506546 19672 net.cpp:148] Top shape: 24 1024 1 1 (24576)
I0403 16:54:52.506564 19672 net.cpp:156] Memory required for data: 1346060832
I0403 16:54:52.506588 19672 layer_factory.hpp:77] Creating layer loss3/classifier_plantvillage
I0403 16:54:52.506611 19672 net.cpp:91] Creating Layer loss3/classifier_plantvillage
I0403 16:54:52.506630 19672 net.cpp:425] loss3/classifier_plantvillage <- pool5/7x7_s1
I0403 16:54:52.506655 19672 net.cpp:399] loss3/classifier_plantvillage -> loss3/classifier_plantvillage
I0403 16:54:52.507181 19672 net.cpp:141] Setting up loss3/classifier_plantvillage
I0403 16:54:52.507211 19672 net.cpp:148] Top shape: 24 38 (912)
I0403 16:54:52.507228 19672 net.cpp:156] Memory required for data: 1346064480
I0403 16:54:52.507249 19672 layer_factory.hpp:77] Creating layer loss3/classifier_plantvillage_loss3/classifier_plantvillage_0_split
I0403 16:54:52.507271 19672 net.cpp:91] Creating Layer loss3/classifier_plantvillage_loss3/classifier_plantvillage_0_split
I0403 16:54:52.507289 19672 net.cpp:425] loss3/classifier_plantvillage_loss3/classifier_plantvillage_0_split <- loss3/classifier_plantvillage
I0403 16:54:52.507310 19672 net.cpp:399] loss3/classifier_plantvillage_loss3/classifier_plantvillage_0_split -> loss3/classifier_plantvillage_loss3/classifier_plantvillage_0_split_0
I0403 16:54:52.507339 19672 net.cpp:399] loss3/classifier_plantvillage_loss3/classifier_plantvillage_0_split -> loss3/classifier_plantvillage_loss3/classifier_plantvillage_0_split_1
I0403 16:54:52.507365 19672 net.cpp:399] loss3/classifier_plantvillage_loss3/classifier_plantvillage_0_split -> loss3/classifier_plantvillage_loss3/classifier_plantvillage_0_split_2
I0403 16:54:52.507390 19672 net.cpp:399] loss3/classifier_plantvillage_loss3/classifier_plantvillage_0_split -> loss3/classifier_plantvillage_loss3/classifier_plantvillage_0_split_3
I0403 16:54:52.507518 19672 net.cpp:141] Setting up loss3/classifier_plantvillage_loss3/classifier_plantvillage_0_split
I0403 16:54:52.507545 19672 net.cpp:148] Top shape: 24 38 (912)
I0403 16:54:52.507565 19672 net.cpp:148] Top shape: 24 38 (912)
I0403 16:54:52.507588 19672 net.cpp:148] Top shape: 24 38 (912)
I0403 16:54:52.507607 19672 net.cpp:148] Top shape: 24 38 (912)
I0403 16:54:52.507623 19672 net.cpp:156] Memory required for data: 1346079072
I0403 16:54:52.507640 19672 layer_factory.hpp:77] Creating layer loss1/loss
I0403 16:54:52.507668 19672 net.cpp:91] Creating Layer loss1/loss
I0403 16:54:52.507688 19672 net.cpp:425] loss1/loss <- loss1/classifier_plantvillage_loss1/classifier_plantvillage_0_split_0
I0403 16:54:52.507725 19672 net.cpp:425] loss1/loss <- label_data_1_split_0
…
