…
I0403 16:52:07.686962 19533 net.cpp:313] The NetState phase (1) differed from the phase (0) specified by a rule in layer data
I0403 16:52:07.688359 19533 net.cpp:49] Initializing net from parameters: 
state {
  phase: TEST
}
layer {
  name: "data"
  type: "Data"
  top: "data"
  top: "label"
  include {
    phase: TEST
  }
  transform_param {
    mirror: false
    crop_size: 224
    mean_file: "/home/mohanty/data/final_dataset/lmdb/segmented-20-80/mean.binaryproto"
  }
  data_param {
    source: "/home/mohanty/data/final_dataset/lmdb/segmented-20-80/test_db"
    batch_size: 24
    backend: LMDB
  }
}
layer {
  name: "conv1/7x7_s2"
  type: "Convolution"
  bottom: "data"
  top: "conv1/7x7_s2"
  param {
    lr_mult: 1
    decay_mult: 1
  }
  param {
    lr_mult: 2
    decay_mult: 0
  }
  convolution_param {
    num_output: 64
    pad: 3
    kernel_size: 7
    stride: 2
    weight_filler {
      type: "xavier"
      std: 0.1
    }
    bias_filler {
      type: "constant"
      value: 0.2
    }
  }
}
layer {
  name: "conv1/relu_7x7"
  type: "ReLU"
  bottom: "conv1/7x7_s2"
  top: "conv1/7x7_s2"
}
layer {
  name: "pool1/3x3_s2"
  type: "Pooling"
  bottom: "conv1/7x7_s2"
  top: "pool1/3x3_s2"
  pooling_param {
    pool: MAX
    kernel_size: 3
    stride: 2
  }
}
layer {
  name: "pool1/norm1"
  type: "LRN"
  bottom: "pool1/3x3_s2"
  top: "pool1/norm1"
  lrn_param {
    local_size: 5
    alpha: 0.0001
    beta: 0.75
  }
}
layer {
  name: "conv2/3x3_reduce"
  type: "Convolution"
  bottom: "pool1/norm1"
  top: "conv2/3x3_reduce"
  param {
    lr_mult: 1
    decay_mult: 1
  }
  param {
    lr_mult: 2
    decay_mult: 0
  }
  convolution_param {
    num_output: 64
    kernel_size: 1
    weight_filler {
      type: "xavier"
      std: 0.1
    }
    bias_filler {
      type: "constant"
      value: 0.2
    }
  }
}
layer {
  name: "conv2/relu_3x3_reduce"
  type: "ReLU"
  bottom: "conv2/3x3_reduce"
  top: "conv2/3x3_reduce"
}
layer {
  name: "conv2/3x3"
  type: "Convolution"
  bottom: "conv2/3x3_reduce"
  top: "conv2/3x3"
  param {
    lr_mult: 1
    decay_mult: 1
  }
  param {
    lr_mult: 2
    decay_mult: 0
  }
  convolution_param {
    num_output: 192
    pad: 1
    kernel_size: 3
    weight_filler {
      type: "xavier"
      std: 0.03
    }
    bias_filler {
      type: "constant"
      value: 0.2
    }
  }
}
layer {
  name: "conv2/relu_3x3"
  type: "ReLU"
  bottom: "conv2/3x3"
  top: "conv2/3x3"
}
layer {
  name: "conv2/norm2"
  type: "LRN"
  bottom: "conv2/3x3"
  top: "conv2/norm2"
  lrn_param {
    local_size: 5
    alpha: 0.0001
    beta: 0.75
  }
}
layer {
  name: "pool2/3x3_s2"
  type: "Pooling"
  bottom: "conv2/norm2"
  top: "pool2/3x3_s2"
  pooling_param {
    pool: MAX
    kernel_size: 3
    stride: 2
  }
}
layer {
  name: "inception_3a/1x1"
  type: "Convolution"
  bottom: "pool2/3x3_s2"
  top: "inception_3a/1x1"
  param {
    lr_mult: 1
    decay_mult: 1
  }
  param {
    lr_mult: 2
    decay_mult: 0
  }
  convolution_param {
    num_output: 64
    kernel_size: 1
    weight_filler {
      type: "xavier"
      std: 0.03
    }
    bias_filler {
      type: "constant"
      value: 0.2
    }
  }
}
layer {
  name: "inception_3a/relu_1x1"
  type: "ReLU"
  bottom: "inception_3a/1x1"
  top: "inception_3a/1x1"
}
layer {
  name: "inception_3a/3x3_reduce"
  type: "Convolution"
  bottom: "pool2/3x3_s2"
  top: "inception_3a/3x3_reduce"
  param {
    lr_mult: 1
    decay_mult: 1
  }
  param {
    lr_mult: 2
    decay_mult: 0
  }
  convolution_param {
    num_output: 96
    kernel_size: 1
    weight_filler {
      type: "xavier"
      std: 0.09
    }
    bias_filler {
      type: "constant"
      value: 0.2
    }
  }
}
layer {
  name: "inception_3a/relu_3x3_reduce"
  type: "ReLU"
  bottom: "inception_3a/3x3_reduce"
  top: "inception_3a/3x3_reduce"
}
layer {
  name: "inception_3a/3x3"
  type: "Convolution"
  bottom: "inception_3a/3x3_reduce"
  top: "inception_3a/3x3"
  param {
    lr_mult: 1
    decay_mult: 1
  }
  param {
    lr_mult: 2
    decay_mult: 0
  }
  convolution_param {
    num_output: 128
    pad: 1
    kernel_size: 3
    weight_filler {
      type: "xavier"
      std: 0.03
    }
    bias_filler {
      type: "constant"
      value: 0.2
    }
  }
}
layer {
  name: "inception_3a/relu_3x3"
  type: "ReLU"
  bottom: "inception_3a/3x3"
  top: "inception_3a/3x3"
}
layer {
  name: "inception_3a/5x5_reduce"
  type: "Convolution"
  bottom: "pool2/3x3_s2"
  top: "inception_3a/5x5_reduce"
  param {
    lr_mult: 1
    decay_mult: 1
  }
  param {
    lr_mult: 2
    decay_mult: 0
  }
  convolution_param {
    num_output: 16
    kernel_size: 1
    weight_filler {
      type: "xavier"
      std: 0.2
    }
    bias_filler {
      type: "constant"
      value: 0.2
    }
  }
}
layer {
  name: "inception_3a/relu_5x5_reduce"
  type: "ReLU"
  bottom: "inception_3a/5x5_reduce"
  top: "inception_3a/5x5_reduce"
}
layer {
  name: "inception_3a/5x5"
  type: "Convolution"
  bottom: "inception_3a/5x5_reduce"
  top: "inception_3a/5x5"
  param {
    lr_mult: 1
    decay_mult: 1
  }
  param {
    lr_mult: 2
    decay_mult: 0
  }
  convolution_param {
    num_output: 32
    pad: 2
    kernel_size: 5
    weight_filler {
      type: "xavier"
      std: 0.03
    }
    bias_filler {
      type: "constant"
      value: 0.2
    }
  }
}
layer {
  name: "inception_3a/relu_5x5"
  type: "ReLU"
  bottom: "inception_3a/5x5"
  top: "inception_3a/5x5"
}
layer {
  name: "inception_3a/pool"
  type: "Pooling"
  bottom: "pool2/3x3_s2"
  top: "inception_3a/pool"
  pooling_param {
    pool: MAX
    kernel_size: 3
    stride: 1
    pad: 1
  }
}
layer {
  name: "inception_3a/pool_proj"
  type: "Convolution"
  bottom: "inception_3a/pool"
  top: "inception_3a/pool_proj"
  param {
    lr_mult: 1
    decay_mult: 1
  }
  param {
    lr_mult: 2
    decay_mult: 0
  }
  convolution_param {
    num_output: 32
    kernel_size: 1
    weight_filler {
      type: "xavier"
      std: 0.1
    }
    bias_filler {
      type: "constant"
      value: 0.2
    }
  }
}
layer {
  name: "inception_3a/relu_pool_proj"
  type: "ReLU"
  bottom: "inception_3a/pool_proj"
  top: "inception_3a/pool_proj"
}
layer {
  name: "inception_3a/output"
  type: "Concat"
  bottom: "inception_3a/1x1"
  bottom: "inception_3a/3x3"
  bottom: "inception_3a/5x5"
  bottom: "inception_3a/pool_proj"
  top: "inception_3a/output"
}
layer {
  name: "inception_3b/1x1"
  type: "Convolution"
  bottom: "inception_3a/output"
  top: "inception_3b/1x1"
  param {
    lr_mult: 1
    decay_mult: 1
  }
  param {
    lr_mult: 2
    decay_mult: 0
  }
  convolution_param {
    num_output: 128
    kernel_size: 1
    weight_filler {
      type: "xavier"
      std: 0.03
    }
    bias_filler {
      type: "constant"
      value: 0.2
    }
  }
}
layer {
  name: "inception_3b/relu_1x1"
  type: "ReLU"
  bottom: "inception_3b/1x1"
  top: "inception_3b/1x1"
}
layer {
  name: "inception_3b/3x3_reduce"
  type: "Convolution"
  bottom: "inception_3a/output"
  top: "inception_3b/3x3_reduce"
  param {
    lr_mult: 1
    decay_mult: 1
  }
  param {
    lr_mult: 2
    decay_mult: 0
  }
  convolution_param {
    num_output: 128
    kernel_size: 1
    weight_filler {
      type: "xavier"
      std: 0.09
    }
    bias_filler {
      type: "constant"
      value: 0.2
    }
  }
}
layer {
  name: "inception_3b/relu_3x3_reduce"
  type: "ReLU"
  bottom: "inception_3b/3x3_reduce"
  top: "inception_3b/3x3_reduce"
}
layer {
  name: "inception_3b/3x3"
  type: "Convolution"
  bottom: "inception_3b/3x3_reduce"
  top: "inception_3b/3x3"
  param {
    lr_mult: 1
    decay_mult: 1
  }
  param {
    lr_mult: 2
    decay_mult: 0
  }
  convolution_param {
    num_output: 192
    pad: 1
    kernel_size: 3
    weight_filler {
      type: "xavier"
      std: 0.03
    }
    bias_filler {
      type: "constant"
      value: 0.2
    }
  }
}
layer {
  name: "inception_3b/relu_3x3"
  type: "ReLU"
  bottom: "inception_3b/3x3"
  top: "inception_3b/3x3"
}
layer {
  name: "inception_3b/5x5_reduce"
  type: "Convolution"
  bottom: "inception_3a/output"
  top: "inception_3b/5x5_reduce"
  param {
    lr_mult: 1
    decay_mult: 1
  }
  param {
    lr_mult: 2
    decay_mult: 0
  }
  convolution_param {
    num_output: 32
    kernel_size: 1
    weight_filler {
      type: "xavier"
      std: 0.2
    }
    bias_filler {
      type: "constant"
      value: 0.2
    }
  }
}
layer {
  name: "inception_3b/relu_5x5_reduce"
  type: "ReLU"
  bottom: "inception_3b/5x5_reduce"
  top: "inception_3b/5x5_reduce"
}
layer {
  name: "inception_3b/5x5"
  type: "Convolution"
  bottom: "inception_3b/5x5_reduce"
  top: "inception_3b/5x5"
  param {
    lr_mult: 1
    decay_mult: 1
  }
  param {
    lr_mult: 2
    decay_mult: 0
  }
  convolution_param {
    num_output: 96
    pad: 2
    kernel_size: 5
    weight_filler {
      type: "xavier"
      std: 0.03
    }
    bias_filler {
      type: "constant"
      value: 0.2
    }
  }
}
layer {
  name: "inception_3b/relu_5x5"
  type: "ReLU"
  bottom: "inception_3b/5x5"
  top: "inception_3b/5x5"
}
layer {
  name: "inception_3b/pool"
  type: "Pooling"
  bottom: "inception_3a/output"
  top: "inception_3b/pool"
  pooling_param {
    pool: MAX
    kernel_size: 3
    stride: 1
    pad: 1
  }
}
layer {
  name: "inception_3b/pool_proj"
  type: "Convolution"
  bottom: "inception_3b/pool"
  top: "inception_3b/pool_proj"
  param {
    lr_mult: 1
    decay_mult: 1
  }
  param {
    lr_mult: 2
    decay_mult: 0
  }
  convolution_param {
    num_output: 64
    kernel_size: 1
    weight_filler {
      type: "xavier"
      std: 0.1
    }
    bias_filler {
      type: "constant"
      value: 0.2
    }
  }
}
layer {
  name: "inception_3b/relu_pool_proj"
  type: "ReLU"
  bottom: "inception_3b/pool_proj"
  top: "inception_3b/pool_proj"
}
layer {
  name: "inception_3b/output"
  type: "Concat"
  bottom: "inception_3b/1x1"
  bottom: "inception_3b/3x3"
  bottom: "inception_3b/5x5"
  bottom: "inception_3b/pool_proj"
  top: "inception_3b/output"
}
layer {
  name: "pool3/3x3_s2"
  type: "Pooling"
  bottom: "inception_3b/output"
  top: "pool3/3x3_s2"
  pooling_param {
    pool: MAX
    kernel_size: 3
    stride: 2
  }
}
layer {
  name: "inception_4a/1x1"
  type: "Convolution"
  bottom: "pool3/3x3_s2"
  top: "inception_4a/1x1"
  param {
    lr_mult: 1
    decay_mult: 1
  }
  param {
    lr_mult: 2
    decay_mult: 0
  }
  convolution_param {
    num_output: 192
    kernel_size: 1
    weight_filler {
      type: "xavier"
      std: 0.03
    }
    bias_filler {
      type: "constant"
      value: 0.2
    }
  }
}
layer {
  name: "inception_4a/relu_1x1"
  type: "ReLU"
  bottom: "inception_4a/1x1"
  top: "inception_4a/1x1"
}
layer {
  name: "inception_4a/3x3_reduce"
  type: "Convolution"
  bottom: "pool3/3x3_s2"
  top: "inception_4a/3x3_reduce"
  param {
    lr_mult: 1
    decay_mult: 1
  }
  param {
    lr_mult: 2
    decay_mult: 0
  }
  convolution_param {
    num_output: 96
    kernel_size: 1
    weight_filler {
      type: "xavier"
      std: 0.09
    }
    bias_filler {
      type: "constant"
      value: 0.2
    }
  }
}
layer {
  name: "inception_4a/relu_3x3_reduce"
  type: "ReLU"
  bottom: "inception_4a/3x3_reduce"
  top: "inception_4a/3x3_reduce"
}
layer {
  name: "inception_4a/3x3"
  type: "Convolution"
  bottom: "inception_4a/3x3_reduce"
  top: "inception_4a/3x3"
  param {
    lr_mult: 1
    decay_mult: 1
  }
  param {
    lr_mult: 2
    decay_mult: 0
  }
  convolution_param {
    num_output: 208
    pad: 1
    kernel_size: 3
    weight_filler {
      type: "xavier"
      std: 0.03
    }
    bias_filler {
      type: "constant"
      value: 0.2
    }
  }
}
layer {
  name: "inception_4a/relu_3x3"
  type: "ReLU"
  bottom: "inception_4a/3x3"
  top: "inception_4a/3x3"
}
layer {
  name: "inception_4a/5x5_reduce"
  type: "Convolution"
  bottom: "pool3/3x3_s2"
  top: "inception_4a/5x5_reduce"
  param {
    lr_mult: 1
    decay_mult: 1
  }
  param {
    lr_mult: 2
    decay_mult: 0
  }
  convolution_param {
    num_output: 16
    kernel_size: 1
    weight_filler {
      type: "xavier"
      std: 0.2
    }
    bias_filler {
      type: "constant"
      value: 0.2
    }
  }
}
layer {
  name: "inception_4a/relu_5x5_reduce"
  type: "ReLU"
  bottom: "inception_4a/5x5_reduce"
  top: "inception_4a/5x5_reduce"
}
layer {
  name: "inception_4a/5x5"
  type: "Convolution"
  bottom: "inception_4a/5x5_reduce"
  top: "inception_4a/5x5"
  param {
    lr_mult: 1
    decay_mult: 1
  }
  param {
    lr_mult: 2
    decay_mult: 0
  }
  convolution_param {
    num_output: 48
    pad: 2
    kernel_size: 5
    weight_filler {
      type: "xavier"
      std: 0.03
    }
    bias_filler {
      type: "constant"
      value: 0.2
    }
  }
}
layer {
  name: "inception_4a/relu_5x5"
  type: "ReLU"
  bottom: "inception_4a/5x5"
  top: "inception_4a/5x5"
}
layer {
  name: "inception_4a/pool"
  type: "Pooling"
  bottom: "pool3/3x3_s2"
  top: "inception_4a/pool"
  pooling_param {
    pool: MAX
    kernel_size: 3
    stride: 1
    pad: 1
  }
}
layer {
  name: "inception_4a/pool_proj"
  type: "Convolution"
  bottom: "inception_4a/pool"
  top: "inception_4a/pool_proj"
  param {
    lr_mult: 1
    decay_mult: 1
  }
  param {
    lr_mult: 2
    decay_mult: 0
  }
  convolution_param {
    num_output: 64
    kernel_size: 1
    weight_filler {
      type: "xavier"
      std: 0.1
    }
    bias_filler {
      type: "constant"
      value: 0.2
    }
  }
}
layer {
  name: "inception_4a/relu_pool_proj"
  type: "ReLU"
  bottom: "inception_4a/pool_proj"
  top: "inception_4a/pool_proj"
}
layer {
  name: "inception_4a/output"
  type: "Concat"
  bottom: "inception_4a/1x1"
  bottom: "inception_4a/3x3"
  bottom: "inception_4a/5x5"
  bottom: "inception_4a/pool_proj"
  top: "inception_4a/output"
}
layer {
  name: "loss1/ave_pool"
  type: "Pooling"
  bottom: "inception_4a/output"
  top: "loss1/ave_pool"
  pooling_param {
    pool: AVE
    kernel_size: 5
    stride: 3
  }
}
layer {
  name: "loss1/conv"
  type: "Convolution"
  bottom: "loss1/ave_pool"
  top: "loss1/conv"
  param {
    lr_mult: 1
    decay_mult: 1
  }
  param {
    lr_mult: 2
    decay_mult: 0
  }
  convolution_param {
    num_output: 128
    kernel_size: 1
    weight_filler {
      type: "xavier"
      std: 0.08
    }
    bias_filler {
      type: "constant"
      value: 0.2
    }
  }
}
layer {
  name: "loss1/relu_conv"
  type: "ReLU"
  bottom: "loss1/conv"
  top: "loss1/conv"
}
layer {
  name: "loss1/fc"
  type: "InnerProduct"
  bottom: "loss1/conv"
  top: "loss1/fc"
  param {
    lr_mult: 1
    decay_mult: 1
  }
  param {
    lr_mult: 2
    decay_mult: 0
  }
  inner_product_param {
    num_output: 1024
    weight_filler {
      type: "xavier"
      std: 0.02
    }
    bias_filler {
      type: "constant"
      value: 0.2
    }
  }
}
layer {
  name: "loss1/relu_fc"
  type: "ReLU"
  bottom: "loss1/fc"
  top: "loss1/fc"
}
layer {
  name: "loss1/drop_fc"
  type: "Dropout"
  bottom: "loss1/fc"
  top: "loss1/fc"
  dropout_param {
    dropout_ratio: 0.7
  }
}
layer {
  name: "loss1/classifier_plantvillage"
  type: "InnerProduct"
  bottom: "loss1/fc"
  top: "loss1/classifier_plantvillage"
  param {
    lr_mult: 1
    decay_mult: 1
  }
  param {
    lr_mult: 2
    decay_mult: 0
  }
  inner_product_param {
    num_output: 38
    weight_filler {
      type: "xavier"
      std: 0.0009765625
    }
    bias_filler {
      type: "constant"
      value: 0
    }
  }
}
layer {
  name: "inception_4b/1x1"
  type: "Convolution"
  bottom: "inception_4a/output"
  top: "inception_4b/1x1"
  param {
    lr_mult: 1
    decay_mult: 1
  }
  param {
    lr_mult: 2
    decay_mult: 0
  }
  convolution_param {
    num_output: 160
    kernel_size: 1
    weight_filler {
      type: "xavier"
      std: 0.03
    }
    bias_filler {
      type: "constant"
      value: 0.2
    }
  }
}
layer {
  name: "inception_4b/relu_1x1"
  type: "ReLU"
  bottom: "inception_4b/1x1"
  top: "inception_4b/1x1"
}
layer {
  name: "inception_4b/3x3_reduce"
  type: "Convolution"
  bottom: "inception_4a/output"
  top: "inception_4b/3x3_reduce"
  param {
    lr_mult: 1
    decay_mult: 1
  }
  param {
    lr_mult: 2
    decay_mult: 0
  }
  convolution_param {
    num_output: 112
    kernel_size: 1
    weight_filler {
      type: "xavier"
      std: 0.09
    }
    bias_filler {
      type: "constant"
      value: 0.2
    }
  }
}
layer {
  name: "inception_4b/relu_3x3_reduce"
  type: "ReLU"
  bottom: "inception_4b/3x3_reduce"
  top: "inception_4b/3x3_reduce"
}
layer {
  name: "inception_4b/3x3"
  type: "Convolution"
  bottom: "inception_4b/3x3_reduce"
  top: "inception_4b/3x3"
  param {
    lr_mult: 1
    decay_mult: 1
  }
  param {
    lr_mult: 2
    decay_mult: 0
  }
  convolution_param {
    num_output: 224
    pad: 1
    kernel_size: 3
    weight_filler {
      type: "xavier"
      std: 0.03
    }
    bias_filler {
      type: "constant"
      value: 0.2
    }
  }
}
layer {
  name: "inception_4b/relu_3x3"
  type: "ReLU"
  bottom: "inception_4b/3x3"
  top: "inception_4b/3x3"
}
layer {
  name: "inception_4b/5x5_reduce"
  type: "Convolution"
  bottom: "inception_4a/output"
  top: "inception_4b/5x5_reduce"
  param {
    lr_mult: 1
    decay_mult: 1
  }
  param {
    lr_mult: 2
    decay_mult: 0
  }
  convolution_param {
    num_output: 24
    kernel_size: 1
    weight_filler {
      type: "xavier"
      std: 0.2
    }
    bias_filler {
      type: "constant"
      value: 0.2
    }
  }
}
layer {
  name: "inception_4b/relu_5x5_reduce"
  type: "ReLU"
  bottom: "inception_4b/5x5_reduce"
  top: "inception_4b/5x5_reduce"
}
layer {
  name: "inception_4b/5x5"
  type: "Convolution"
  bottom: "inception_4b/5x5_reduce"
  top: "inception_4b/5x5"
  param {
    lr_mult: 1
    decay_mult: 1
  }
  param {
    lr_mult: 2
    decay_mult: 0
  }
  convolution_param {
    num_output: 64
    pad: 2
    kernel_size: 5
    weight_filler {
      type: "xavier"
      std: 0.03
    }
    bias_filler {
      type: "constant"
      value: 0.2
    }
  }
}
layer {
  name: "inception_4b/relu_5x5"
  type: "ReLU"
  bottom: "inception_4b/5x5"
  top: "inception_4b/5x5"
}
layer {
  name: "inception_4b/pool"
  type: "Pooling"
  bottom: "inception_4a/output"
  top: "inception_4b/pool"
  pooling_param {
    pool: MAX
    kernel_size: 3
    stride: 1
    pad: 1
  }
}
layer {
  name: "inception_4b/pool_proj"
  type: "Convolution"
  bottom: "inception_4b/pool"
  top: "inception_4b/pool_proj"
  param {
    lr_mult: 1
    decay_mult: 1
  }
  param {
    lr_mult: 2
    decay_mult: 0
  }
  convolution_param {
    num_output: 64
    kernel_size: 1
    weight_filler {
      type: "xavier"
      std: 0.1
    }
    bias_filler {
      type: "constant"
      value: 0.2
    }
  }
}
layer {
  name: "inception_4b/relu_pool_proj"
  type: "ReLU"
  bottom: "inception_4b/pool_proj"
  top: "inception_4b/pool_proj"
}
layer {
  name: "inception_4b/output"
  type: "Concat"
  bottom: "inception_4b/1x1"
  bottom: "inception_4b/3x3"
  bottom: "inception_4b/5x5"
  bottom: "inception_4b/pool_proj"
  top: "inception_4b/output"
}
layer {
  name: "inception_4c/1x1"
  type: "Convolution"
  bottom: "inception_4b/output"
  top: "inception_4c/1x1"
  param {
    lr_mult: 1
    decay_mult: 1
  }
  param {
    lr_mult: 2
    decay_mult: 0
  }
  convolution_param {
    num_output: 128
    kernel_size: 1
    weight_filler {
      type: "xavier"
      std: 0.03
    }
    bias_filler {
      type: "constant"
      value: 0.2
    }
  }
}
layer {
  name: "inception_4c/relu_1x1"
  type: "ReLU"
  bottom: "inception_4c/1x1"
  top: "inception_4c/1x1"
}
layer {
  name: "inception_4c/3x3_reduce"
  type: "Convolution"
  bottom: "inception_4b/output"
  top: "inception_4c/3x3_reduce"
  param {
    lr_mult: 1
    decay_mult: 1
  }
  param {
    lr_mult: 2
    decay_mult: 0
  }
  convolution_param {
    num_output: 128
    kernel_size: 1
    weight_filler {
      type: "xavier"
      std: 0.09
    }
    bias_filler {
      type: "constant"
      value: 0.2
    }
  }
}
layer {
  name: "inception_4c/relu_3x3_reduce"
  type: "ReLU"
  bottom: "inception_4c/3x3_reduce"
  top: "inception_4c/3x3_reduce"
}
layer {
  name: "inception_4c/3x3"
  type: "Convolution"
  bottom: "inception_4c/3x3_reduce"
  top: "inception_4c/3x3"
  param {
    lr_mult: 1
    decay_mult: 1
  }
  param {
    lr_mult: 2
    decay_mult: 0
  }
  convolution_param {
    num_output: 256
    pad: 1
    kernel_size: 3
    weight_filler {
      type: "xavier"
      std: 0.03
    }
    bias_filler {
      type: "constant"
      value: 0.2
    }
  }
}
layer {
  name: "inception_4c/relu_3x3"
  type: "ReLU"
  bottom: "inception_4c/3x3"
  top: "inception_4c/3x3"
}
layer {
  name: "inception_4c/5x5_reduce"
  type: "Convolution"
  bottom: "inception_4b/output"
  top: "inception_4c/5x5_reduce"
  param {
    lr_mult: 1
    decay_mult: 1
  }
  param {
    lr_mult: 2
    decay_mult: 0
  }
  convolution_param {
    num_output: 24
    kernel_size: 1
    weight_filler {
      type: "xavier"
      std: 0.2
    }
    bias_filler {
      type: "constant"
      value: 0.2
    }
  }
}
layer {
  name: "inception_4c/relu_5x5_reduce"
  type: "ReLU"
  bottom: "inception_4c/5x5_reduce"
  top: "inception_4c/5x5_reduce"
}
layer {
  name: "inception_4c/5x5"
  type: "Convolution"
  bottom: "inception_4c/5x5_reduce"
  top: "inception_4c/5x5"
  param {
    lr_mult: 1
    decay_mult: 1
  }
  param {
    lr_mult: 2
    decay_mult: 0
  }
  convolution_param {
    num_output: 64
    pad: 2
    kernel_size: 5
    weight_filler {
      type: "xavier"
      std: 0.03
    }
    bias_filler {
      type: "constant"
      value: 0.2
    }
  }
}
layer {
  name: "inception_4c/relu_5x5"
  type: "ReLU"
  bottom: "inception_4c/5x5"
  top: "inception_4c/5x5"
}
layer {
  name: "inception_4c/pool"
  type: "Pooling"
  bottom: "inception_4b/output"
  top: "inception_4c/pool"
  pooling_param {
    pool: MAX
    kernel_size: 3
    stride: 1
    pad: 1
  }
}
layer {
  name: "inception_4c/pool_proj"
  type: "Convolution"
  bottom: "inception_4c/pool"
  top: "inception_4c/pool_proj"
  param {
    lr_mult: 1
    decay_mult: 1
  }
  param {
    lr_mult: 2
    decay_mult: 0
  }
  convolution_param {
    num_output: 64
    kernel_size: 1
    weight_filler {
      type: "xavier"
      std: 0.1
    }
    bias_filler {
      type: "constant"
      value: 0.2
    }
  }
}
layer {
  name: "inception_4c/relu_pool_proj"
  type: "ReLU"
  bottom: "inception_4c/pool_proj"
  top: "inception_4c/pool_proj"
}
layer {
  name: "inception_4c/output"
  type: "Concat"
  bottom: "inception_4c/1x1"
  bottom: "inception_4c/3x3"
  bottom: "inception_4c/5x5"
  bottom: "inception_4c/pool_proj"
  top: "inception_4c/output"
}
layer {
  name: "inception_4d/1x1"
  type: "Convolution"
  bottom: "inception_4c/output"
  top: "inception_4d/1x1"
  param {
    lr_mult: 1
    decay_mult: 1
  }
  param {
    lr_mult: 2
    decay_mult: 0
  }
  convolution_param {
    num_output: 112
    kernel_size: 1
    weight_filler {
      type: "xavier"
      std: 0.03
    }
    bias_filler {
      type: "constant"
      value: 0.2
    }
  }
}
layer {
  name: "inception_4d/relu_1x1"
  type: "ReLU"
  bottom: "inception_4d/1x1"
  top: "inception_4d/1x1"
}
layer {
  name: "inception_4d/3x3_reduce"
  type: "Convolution"
  bottom: "inception_4c/output"
  top: "inception_4d/3x3_reduce"
  param {
    lr_mult: 1
    decay_mult: 1
  }
  param {
    lr_mult: 2
    decay_mult: 0
  }
  convolution_param {
    num_output: 144
    kernel_size: 1
    weight_filler {
      type: "xavier"
      std: 0.09
    }
    bias_filler {
      type: "constant"
      value: 0.2
    }
  }
}
layer {
  name: "inception_4d/relu_3x3_reduce"
  type: "ReLU"
  bottom: "inception_4d/3x3_reduce"
  top: "inception_4d/3x3_reduce"
}
layer {
  name: "inception_4d/3x3"
  type: "Convolution"
  bottom: "inception_4d/3x3_reduce"
  top: "inception_4d/3x3"
  param {
    lr_mult: 1
    decay_mult: 1
  }
  param {
    lr_mult: 2
    decay_mult: 0
  }
  convolution_param {
    num_output: 288
    pad: 1
    kernel_size: 3
    weight_filler {
      type: "xavier"
      std: 0.03
    }
    bias_filler {
      type: "constant"
      value: 0.2
    }
  }
}
layer {
  name: "inception_4d/relu_3x3"
  type: "ReLU"
  bottom: "inception_4d/3x3"
  top: "inception_4d/3x3"
}
layer {
  name: "inception_4d/5x5_reduce"
  type: "Convolution"
  bottom: "inception_4c/output"
  top: "inception_4d/5x5_reduce"
  param {
    lr_mult: 1
    decay_mult: 1
  }
  param {
    lr_mult: 2
    decay_mult: 0
  }
  convolution_param {
    num_output: 32
    kernel_size: 1
    weight_filler {
      type: "xavier"
      std: 0.2
    }
    bias_filler {
      type: "constant"
      value: 0.2
    }
  }
}
layer {
  name: "inception_4d/relu_5x5_reduce"
  type: "ReLU"
  bottom: "inception_4d/5x5_reduce"
  top: "inception_4d/5x5_reduce"
}
layer {
  name: "inception_4d/5x5"
  type: "Convolution"
  bottom: "inception_4d/5x5_reduce"
  top: "inception_4d/5x5"
  param {
    lr_mult: 1
    decay_mult: 1
  }
  param {
    lr_mult: 2
    decay_mult: 0
  }
  convolution_param {
    num_output: 64
    pad: 2
    kernel_size: 5
    weight_filler {
      type: "xavier"
      std: 0.03
    }
    bias_filler {
      type: "constant"
      value: 0.2
    }
  }
}
layer {
  name: "inception_4d/relu_5x5"
  type: "ReLU"
  bottom: "inception_4d/5x5"
  top: "inception_4d/5x5"
}
layer {
  name: "inception_4d/pool"
  type: "Pooling"
  bottom: "inception_4c/output"
  top: "inception_4d/pool"
  pooling_param {
    pool: MAX
    kernel_size: 3
    stride: 1
    pad: 1
  }
}
layer {
  name: "inception_4d/pool_proj"
  type: "Convolution"
  bottom: "inception_4d/pool"
  top: "inception_4d/pool_proj"
  param {
    lr_mult: 1
    decay_mult: 1
  }
  param {
    lr_mult: 2
    decay_mult: 0
  }
  convolution_param {
    num_output: 64
    kernel_size: 1
    weight_filler {
      type: "xavier"
      std: 0.1
    }
    bias_filler {
      type: "constant"
      value: 0.2
    }
  }
}
layer {
  name: "inception_4d/relu_pool_proj"
  type: "ReLU"
  bottom: "inception_4d/pool_proj"
  top: "inception_4d/pool_proj"
}
layer {
  name: "inception_4d/output"
  type: "Concat"
  bottom: "inception_4d/1x1"
  bottom: "inception_4d/3x3"
  bottom: "inception_4d/5x5"
  bottom: "inception_4d/pool_proj"
  top: "inception_4d/output"
}
layer {
  name: "loss2/ave_pool"
  type: "Pooling"
  bottom: "inception_4d/output"
  top: "loss2/ave_pool"
  pooling_param {
    pool: AVE
    kernel_size: 5
    stride: 3
  }
}
layer {
  name: "loss2/conv"
  type: "Convolution"
  bottom: "loss2/ave_pool"
  top: "loss2/conv"
  param {
    lr_mult: 1
    decay_mult: 1
  }
  param {
    lr_mult: 2
    decay_mult: 0
  }
  convolution_param {
    num_output: 128
    kernel_size: 1
    weight_filler {
      type: "xavier"
      std: 0.08
    }
    bias_filler {
      type: "constant"
      value: 0.2
    }
  }
}
layer {
  name: "loss2/relu_conv"
  type: "ReLU"
  bottom: "loss2/conv"
  top: "loss2/conv"
}
layer {
  name: "loss2/fc"
  type: "InnerProduct"
  bottom: "loss2/conv"
  top: "loss2/fc"
  param {
    lr_mult: 1
    decay_mult: 1
  }
  param {
    lr_mult: 2
    decay_mult: 0
  }
  inner_product_param {
    num_output: 1024
    weight_filler {
      type: "xavier"
      std: 0.02
    }
    bias_filler {
      type: "constant"
      value: 0.2
    }
  }
}
layer {
  name: "loss2/relu_fc"
  type: "ReLU"
  bottom: "loss2/fc"
  top: "loss2/fc"
}
layer {
  name: "loss2/drop_fc"
  type: "Dropout"
  bottom: "loss2/fc"
  top: "loss2/fc"
  dropout_param {
    dropout_ratio: 0.7
  }
}
layer {
  name: "loss2/classifier_plantvillage"
  type: "InnerProduct"
  bottom: "loss2/fc"
  top: "loss2/classifier_plantvillage"
  param {
    lr_mult: 1
    decay_mult: 1
  }
  param {
    lr_mult: 2
    decay_mult: 0
  }
  inner_product_param {
    num_output: 38
    weight_filler {
      type: "xavier"
      std: 0.0009765625
    }
    bias_filler {
      type: "constant"
      value: 0
    }
  }
}
layer {
  name: "inception_4e/1x1"
  type: "Convolution"
  bottom: "inception_4d/output"
  top: "inception_4e/1x1"
  param {
    lr_mult: 1
    decay_mult: 1
  }
  param {
    lr_mult: 2
    decay_mult: 0
  }
  convolution_param {
    num_output: 256
    kernel_size: 1
    weight_filler {
      type: "xavier"
      std: 0.03
    }
    bias_filler {
      type: "constant"
      value: 0.2
    }
  }
}
layer {
  name: "inception_4e/relu_1x1"
  type: "ReLU"
  bottom: "inception_4e/1x1"
  top: "inception_4e/1x1"
}
layer {
  name: "inception_4e/3x3_reduce"
  type: "Convolution"
  bottom: "inception_4d/output"
  top: "inception_4e/3x3_reduce"
  param {
    lr_mult: 1
    decay_mult: 1
  }
  param {
    lr_mult: 2
    decay_mult: 0
  }
  convolution_param {
    num_output: 160
    kernel_size: 1
    weight_filler {
      type: "xavier"
      std: 0.09
    }
    bias_filler {
      type: "constant"
      value: 0.2
    }
  }
}
layer {
  name: "inception_4e/relu_3x3_reduce"
  type: "ReLU"
  bottom: "inception_4e/3x3_reduce"
  top: "inception_4e/3x3_reduce"
}
layer {
  name: "inception_4e/3x3"
  type: "Convolution"
  bottom: "inception_4e/3x3_reduce"
  top: "inception_4e/3x3"
  param {
    lr_mult: 1
    decay_mult: 1
  }
  param {
    lr_mult: 2
    decay_mult: 0
  }
  convolution_param {
    num_output: 320
    pad: 1
    kernel_size: 3
    weight_filler {
      type: "xavier"
      std: 0.03
    }
    bias_filler {
      type: "constant"
      value: 0.2
    }
  }
}
layer {
  name: "inception_4e/relu_3x3"
  type: "ReLU"
  bottom: "inception_4e/3x3"
  top: "inception_4e/3x3"
}
layer {
  name: "inception_4e/5x5_reduce"
  type: "Convolution"
  bottom: "inception_4d/output"
  top: "inception_4e/5x5_reduce"
  param {
    lr_mult: 1
    decay_mult: 1
  }
  param {
    lr_mult: 2
    decay_mult: 0
  }
  convolution_param {
    num_output: 32
    kernel_size: 1
    weight_filler {
      type: "xavier"
      std: 0.2
    }
    bias_filler {
      type: "constant"
      value: 0.2
    }
  }
}
layer {
  name: "inception_4e/relu_5x5_reduce"
  type: "ReLU"
  bottom: "inception_4e/5x5_reduce"
  top: "inception_4e/5x5_reduce"
}
layer {
  name: "inception_4e/5x5"
  type: "Convolution"
  bottom: "inception_4e/5x5_reduce"
  top: "inception_4e/
I0403 16:52:07.690021 19533 layer_factory.hpp:77] Creating layer data
I0403 16:52:07.690750 19533 net.cpp:91] Creating Layer data
I0403 16:52:07.690788 19533 net.cpp:399] data -> data
I0403 16:52:07.690850 19533 net.cpp:399] data -> label
I0403 16:52:07.690893 19533 data_transformer.cpp:25] Loading mean file from: /home/mohanty/data/final_dataset/lmdb/segmented-20-80/mean.binaryproto
I0403 16:52:07.692319 19536 db_lmdb.cpp:38] Opened lmdb /home/mohanty/data/final_dataset/lmdb/segmented-20-80/test_db
I0403 16:52:07.706563 19533 data_layer.cpp:41] output data size: 24,3,224,224
I0403 16:52:07.739119 19533 net.cpp:141] Setting up data
I0403 16:52:07.739212 19533 net.cpp:148] Top shape: 24 3 224 224 (3612672)
I0403 16:52:07.739238 19533 net.cpp:148] Top shape: 24 (24)
I0403 16:52:07.739258 19533 net.cpp:156] Memory required for data: 14450784
I0403 16:52:07.739290 19533 layer_factory.hpp:77] Creating layer label_data_1_split
I0403 16:52:07.739321 19533 net.cpp:91] Creating Layer label_data_1_split
I0403 16:52:07.739343 19533 net.cpp:425] label_data_1_split <- label
I0403 16:52:07.739382 19533 net.cpp:399] label_data_1_split -> label_data_1_split_0
I0403 16:52:07.739414 19533 net.cpp:399] label_data_1_split -> label_data_1_split_1
I0403 16:52:07.739439 19533 net.cpp:399] label_data_1_split -> label_data_1_split_2
I0403 16:52:07.739464 19533 net.cpp:399] label_data_1_split -> label_data_1_split_3
I0403 16:52:07.739487 19533 net.cpp:399] label_data_1_split -> label_data_1_split_4
I0403 16:52:07.739512 19533 net.cpp:399] label_data_1_split -> label_data_1_split_5
I0403 16:52:07.739537 19533 net.cpp:399] label_data_1_split -> label_data_1_split_6
I0403 16:52:07.739562 19533 net.cpp:399] label_data_1_split -> label_data_1_split_7
I0403 16:52:07.739585 19533 net.cpp:399] label_data_1_split -> label_data_1_split_8
I0403 16:52:07.739617 19533 net.cpp:399] label_data_1_split -> label_data_1_split_9
I0403 16:52:07.739760 19533 net.cpp:141] Setting up label_data_1_split
I0403 16:52:07.739790 19533 net.cpp:148] Top shape: 24 (24)
I0403 16:52:07.739812 19533 net.cpp:148] Top shape: 24 (24)
I0403 16:52:07.739831 19533 net.cpp:148] Top shape: 24 (24)
I0403 16:52:07.739850 19533 net.cpp:148] Top shape: 24 (24)
I0403 16:52:07.739868 19533 net.cpp:148] Top shape: 24 (24)
I0403 16:52:07.739887 19533 net.cpp:148] Top shape: 24 (24)
I0403 16:52:07.739907 19533 net.cpp:148] Top shape: 24 (24)
I0403 16:52:07.739925 19533 net.cpp:148] Top shape: 24 (24)
I0403 16:52:07.739944 19533 net.cpp:148] Top shape: 24 (24)
I0403 16:52:07.739964 19533 net.cpp:148] Top shape: 24 (24)
I0403 16:52:07.740020 19533 net.cpp:156] Memory required for data: 14451744
I0403 16:52:07.740039 19533 layer_factory.hpp:77] Creating layer conv1/7x7_s2
I0403 16:52:07.740078 19533 net.cpp:91] Creating Layer conv1/7x7_s2
I0403 16:52:07.740102 19533 net.cpp:425] conv1/7x7_s2 <- data
I0403 16:52:07.740124 19533 net.cpp:399] conv1/7x7_s2 -> conv1/7x7_s2
I0403 16:52:07.905987 19533 net.cpp:141] Setting up conv1/7x7_s2
I0403 16:52:07.906075 19533 net.cpp:148] Top shape: 24 64 112 112 (19267584)
I0403 16:52:07.906095 19533 net.cpp:156] Memory required for data: 91522080
I0403 16:52:07.906131 19533 layer_factory.hpp:77] Creating layer conv1/relu_7x7
I0403 16:52:07.906164 19533 net.cpp:91] Creating Layer conv1/relu_7x7
I0403 16:52:07.906186 19533 net.cpp:425] conv1/relu_7x7 <- conv1/7x7_s2
I0403 16:52:07.906209 19533 net.cpp:386] conv1/relu_7x7 -> conv1/7x7_s2 (in-place)
I0403 16:52:07.906517 19533 net.cpp:141] Setting up conv1/relu_7x7
I0403 16:52:07.906550 19533 net.cpp:148] Top shape: 24 64 112 112 (19267584)
I0403 16:52:07.906569 19533 net.cpp:156] Memory required for data: 168592416
I0403 16:52:07.906587 19533 layer_factory.hpp:77] Creating layer pool1/3x3_s2
I0403 16:52:07.906623 19533 net.cpp:91] Creating Layer pool1/3x3_s2
I0403 16:52:07.906646 19533 net.cpp:425] pool1/3x3_s2 <- conv1/7x7_s2
I0403 16:52:07.906669 19533 net.cpp:399] pool1/3x3_s2 -> pool1/3x3_s2
I0403 16:52:07.906757 19533 net.cpp:141] Setting up pool1/3x3_s2
I0403 16:52:07.906787 19533 net.cpp:148] Top shape: 24 64 56 56 (4816896)
I0403 16:52:07.906806 19533 net.cpp:156] Memory required for data: 187860000
I0403 16:52:07.906824 19533 layer_factory.hpp:77] Creating layer pool1/norm1
I0403 16:52:07.906854 19533 net.cpp:91] Creating Layer pool1/norm1
I0403 16:52:07.906875 19533 net.cpp:425] pool1/norm1 <- pool1/3x3_s2
I0403 16:52:07.906898 19533 net.cpp:399] pool1/norm1 -> pool1/norm1
I0403 16:52:07.907238 19533 net.cpp:141] Setting up pool1/norm1
I0403 16:52:07.907274 19533 net.cpp:148] Top shape: 24 64 56 56 (4816896)
I0403 16:52:07.907294 19533 net.cpp:156] Memory required for data: 207127584
I0403 16:52:07.907311 19533 layer_factory.hpp:77] Creating layer conv2/3x3_reduce
I0403 16:52:07.907341 19533 net.cpp:91] Creating Layer conv2/3x3_reduce
I0403 16:52:07.907361 19533 net.cpp:425] conv2/3x3_reduce <- pool1/norm1
I0403 16:52:07.907382 19533 net.cpp:399] conv2/3x3_reduce -> conv2/3x3_reduce
I0403 16:52:07.908973 19533 net.cpp:141] Setting up conv2/3x3_reduce
I0403 16:52:07.909009 19533 net.cpp:148] Top shape: 24 64 56 56 (4816896)
I0403 16:52:07.909030 19533 net.cpp:156] Memory required for data: 226395168
I0403 16:52:07.909056 19533 layer_factory.hpp:77] Creating layer conv2/relu_3x3_reduce
I0403 16:52:07.909078 19533 net.cpp:91] Creating Layer conv2/relu_3x3_reduce
I0403 16:52:07.909097 19533 net.cpp:425] conv2/relu_3x3_reduce <- conv2/3x3_reduce
I0403 16:52:07.909118 19533 net.cpp:386] conv2/relu_3x3_reduce -> conv2/3x3_reduce (in-place)
I0403 16:52:07.909440 19533 net.cpp:141] Setting up conv2/relu_3x3_reduce
I0403 16:52:07.909473 19533 net.cpp:148] Top shape: 24 64 56 56 (4816896)
I0403 16:52:07.909492 19533 net.cpp:156] Memory required for data: 245662752
I0403 16:52:07.909510 19533 layer_factory.hpp:77] Creating layer conv2/3x3
I0403 16:52:07.909541 19533 net.cpp:91] Creating Layer conv2/3x3
I0403 16:52:07.909564 19533 net.cpp:425] conv2/3x3 <- conv2/3x3_reduce
I0403 16:52:07.909587 19533 net.cpp:399] conv2/3x3 -> conv2/3x3
I0403 16:52:07.912364 19533 net.cpp:141] Setting up conv2/3x3
I0403 16:52:07.912400 19533 net.cpp:148] Top shape: 24 192 56 56 (14450688)
I0403 16:52:07.912421 19533 net.cpp:156] Memory required for data: 303465504
I0403 16:52:07.912447 19533 layer_factory.hpp:77] Creating layer conv2/relu_3x3
I0403 16:52:07.912473 19533 net.cpp:91] Creating Layer conv2/relu_3x3
I0403 16:52:07.912493 19533 net.cpp:425] conv2/relu_3x3 <- conv2/3x3
I0403 16:52:07.912523 19533 net.cpp:386] conv2/relu_3x3 -> conv2/3x3 (in-place)
I0403 16:52:07.912749 19533 net.cpp:141] Setting up conv2/relu_3x3
I0403 16:52:07.912781 19533 net.cpp:148] Top shape: 24 192 56 56 (14450688)
I0403 16:52:07.912847 19533 net.cpp:156] Memory required for data: 361268256
I0403 16:52:07.912868 19533 layer_factory.hpp:77] Creating layer conv2/norm2
I0403 16:52:07.912889 19533 net.cpp:91] Creating Layer conv2/norm2
I0403 16:52:07.912909 19533 net.cpp:425] conv2/norm2 <- conv2/3x3
I0403 16:52:07.912933 19533 net.cpp:399] conv2/norm2 -> conv2/norm2
I0403 16:52:07.913300 19533 net.cpp:141] Setting up conv2/norm2
I0403 16:52:07.913333 19533 net.cpp:148] Top shape: 24 192 56 56 (14450688)
I0403 16:52:07.913353 19533 net.cpp:156] Memory required for data: 419071008
I0403 16:52:07.913372 19533 layer_factory.hpp:77] Creating layer pool2/3x3_s2
I0403 16:52:07.913393 19533 net.cpp:91] Creating Layer pool2/3x3_s2
I0403 16:52:07.913413 19533 net.cpp:425] pool2/3x3_s2 <- conv2/norm2
I0403 16:52:07.913436 19533 net.cpp:399] pool2/3x3_s2 -> pool2/3x3_s2
I0403 16:52:07.913504 19533 net.cpp:141] Setting up pool2/3x3_s2
I0403 16:52:07.913532 19533 net.cpp:148] Top shape: 24 192 28 28 (3612672)
I0403 16:52:07.913552 19533 net.cpp:156] Memory required for data: 433521696
I0403 16:52:07.913570 19533 layer_factory.hpp:77] Creating layer pool2/3x3_s2_pool2/3x3_s2_0_split
I0403 16:52:07.913591 19533 net.cpp:91] Creating Layer pool2/3x3_s2_pool2/3x3_s2_0_split
I0403 16:52:07.913616 19533 net.cpp:425] pool2/3x3_s2_pool2/3x3_s2_0_split <- pool2/3x3_s2
I0403 16:52:07.913642 19533 net.cpp:399] pool2/3x3_s2_pool2/3x3_s2_0_split -> pool2/3x3_s2_pool2/3x3_s2_0_split_0
I0403 16:52:07.913667 19533 net.cpp:399] pool2/3x3_s2_pool2/3x3_s2_0_split -> pool2/3x3_s2_pool2/3x3_s2_0_split_1
I0403 16:52:07.913692 19533 net.cpp:399] pool2/3x3_s2_pool2/3x3_s2_0_split -> pool2/3x3_s2_pool2/3x3_s2_0_split_2
I0403 16:52:07.913715 19533 net.cpp:399] pool2/3x3_s2_pool2/3x3_s2_0_split -> pool2/3x3_s2_pool2/3x3_s2_0_split_3
I0403 16:52:07.913801 19533 net.cpp:141] Setting up pool2/3x3_s2_pool2/3x3_s2_0_split
I0403 16:52:07.913832 19533 net.cpp:148] Top shape: 24 192 28 28 (3612672)
I0403 16:52:07.913856 19533 net.cpp:148] Top shape: 24 192 28 28 (3612672)
I0403 16:52:07.913874 19533 net.cpp:148] Top shape: 24 192 28 28 (3612672)
I0403 16:52:07.913892 19533 net.cpp:148] Top shape: 24 192 28 28 (3612672)
I0403 16:52:07.913909 19533 net.cpp:156] Memory required for data: 491324448
I0403 16:52:07.913928 19533 layer_factory.hpp:77] Creating layer inception_3a/1x1
I0403 16:52:07.913954 19533 net.cpp:91] Creating Layer inception_3a/1x1
I0403 16:52:07.913977 19533 net.cpp:425] inception_3a/1x1 <- pool2/3x3_s2_pool2/3x3_s2_0_split_0
I0403 16:52:07.914000 19533 net.cpp:399] inception_3a/1x1 -> inception_3a/1x1
I0403 16:52:07.915859 19533 net.cpp:141] Setting up inception_3a/1x1
I0403 16:52:07.915904 19533 net.cpp:148] Top shape: 24 64 28 28 (1204224)
I0403 16:52:07.915925 19533 net.cpp:156] Memory required for data: 496141344
I0403 16:52:07.915946 19533 layer_factory.hpp:77] Creating layer inception_3a/relu_1x1
I0403 16:52:07.915972 19533 net.cpp:91] Creating Layer inception_3a/relu_1x1
I0403 16:52:07.915993 19533 net.cpp:425] inception_3a/relu_1x1 <- inception_3a/1x1
I0403 16:52:07.916016 19533 net.cpp:386] inception_3a/relu_1x1 -> inception_3a/1x1 (in-place)
I0403 16:52:07.916227 19533 net.cpp:141] Setting up inception_3a/relu_1x1
I0403 16:52:07.916262 19533 net.cpp:148] Top shape: 24 64 28 28 (1204224)
I0403 16:52:07.916283 19533 net.cpp:156] Memory required for data: 500958240
I0403 16:52:07.916301 19533 layer_factory.hpp:77] Creating layer inception_3a/3x3_reduce
I0403 16:52:07.916329 19533 net.cpp:91] Creating Layer inception_3a/3x3_reduce
I0403 16:52:07.916350 19533 net.cpp:425] inception_3a/3x3_reduce <- pool2/3x3_s2_pool2/3x3_s2_0_split_1
I0403 16:52:07.916373 19533 net.cpp:399] inception_3a/3x3_reduce -> inception_3a/3x3_reduce
I0403 16:52:07.918395 19533 net.cpp:141] Setting up inception_3a/3x3_reduce
I0403 16:52:07.918431 19533 net.cpp:148] Top shape: 24 96 28 28 (1806336)
I0403 16:52:07.918449 19533 net.cpp:156] Memory required for data: 508183584
I0403 16:52:07.918474 19533 layer_factory.hpp:77] Creating layer inception_3a/relu_3x3_reduce
I0403 16:52:07.918520 19533 net.cpp:91] Creating Layer inception_3a/relu_3x3_reduce
I0403 16:52:07.918543 19533 net.cpp:425] inception_3a/relu_3x3_reduce <- inception_3a/3x3_reduce
I0403 16:52:07.918567 19533 net.cpp:386] inception_3a/relu_3x3_reduce -> inception_3a/3x3_reduce (in-place)
I0403 16:52:07.918799 19533 net.cpp:141] Setting up inception_3a/relu_3x3_reduce
I0403 16:52:07.918830 19533 net.cpp:148] Top shape: 24 96 28 28 (1806336)
I0403 16:52:07.918849 19533 net.cpp:156] Memory required for data: 515408928
I0403 16:52:07.918867 19533 layer_factory.hpp:77] Creating layer inception_3a/3x3
I0403 16:52:07.918895 19533 net.cpp:91] Creating Layer inception_3a/3x3
I0403 16:52:07.918916 19533 net.cpp:425] inception_3a/3x3 <- inception_3a/3x3_reduce
I0403 16:52:07.918942 19533 net.cpp:399] inception_3a/3x3 -> inception_3a/3x3
I0403 16:52:07.920936 19533 net.cpp:141] Setting up inception_3a/3x3
I0403 16:52:07.920975 19533 net.cpp:148] Top shape: 24 128 28 28 (2408448)
I0403 16:52:07.920996 19533 net.cpp:156] Memory required for data: 525042720
I0403 16:52:07.921020 19533 layer_factory.hpp:77] Creating layer inception_3a/relu_3x3
I0403 16:52:07.921041 19533 net.cpp:91] Creating Layer inception_3a/relu_3x3
I0403 16:52:07.921061 19533 net.cpp:425] inception_3a/relu_3x3 <- inception_3a/3x3
I0403 16:52:07.921082 19533 net.cpp:386] inception_3a/relu_3x3 -> inception_3a/3x3 (in-place)
I0403 16:52:07.921408 19533 net.cpp:141] Setting up inception_3a/relu_3x3
I0403 16:52:07.921445 19533 net.cpp:148] Top shape: 24 128 28 28 (2408448)
I0403 16:52:07.921464 19533 net.cpp:156] Memory required for data: 534676512
I0403 16:52:07.921483 19533 layer_factory.hpp:77] Creating layer inception_3a/5x5_reduce
I0403 16:52:07.921511 19533 net.cpp:91] Creating Layer inception_3a/5x5_reduce
I0403 16:52:07.921535 19533 net.cpp:425] inception_3a/5x5_reduce <- pool2/3x3_s2_pool2/3x3_s2_0_split_2
I0403 16:52:07.921558 19533 net.cpp:399] inception_3a/5x5_reduce -> inception_3a/5x5_reduce
I0403 16:52:07.922726 19533 net.cpp:141] Setting up inception_3a/5x5_reduce
I0403 16:52:07.922762 19533 net.cpp:148] Top shape: 24 16 28 28 (301056)
I0403 16:52:07.922782 19533 net.cpp:156] Memory required for data: 535880736
I0403 16:52:07.922806 19533 layer_factory.hpp:77] Creating layer inception_3a/relu_5x5_reduce
I0403 16:52:07.922833 19533 net.cpp:91] Creating Layer inception_3a/relu_5x5_reduce
I0403 16:52:07.922854 19533 net.cpp:425] inception_3a/relu_5x5_reduce <- inception_3a/5x5_reduce
I0403 16:52:07.922879 19533 net.cpp:386] inception_3a/relu_5x5_reduce -> inception_3a/5x5_reduce (in-place)
I0403 16:52:07.923239 19533 net.cpp:141] Setting up inception_3a/relu_5x5_reduce
I0403 16:52:07.923274 19533 net.cpp:148] Top shape: 24 16 28 28 (301056)
I0403 16:52:07.923291 19533 net.cpp:156] Memory required for data: 537084960
I0403 16:52:07.923310 19533 layer_factory.hpp:77] Creating layer inception_3a/5x5
I0403 16:52:07.923337 19533 net.cpp:91] Creating Layer inception_3a/5x5
I0403 16:52:07.923358 19533 net.cpp:425] inception_3a/5x5 <- inception_3a/5x5_reduce
I0403 16:52:07.923384 19533 net.cpp:399] inception_3a/5x5 -> inception_3a/5x5
I0403 16:52:07.924628 19533 net.cpp:141] Setting up inception_3a/5x5
I0403 16:52:07.924662 19533 net.cpp:148] Top shape: 24 32 28 28 (602112)
I0403 16:52:07.924682 19533 net.cpp:156] Memory required for data: 539493408
I0403 16:52:07.924705 19533 layer_factory.hpp:77] Creating layer inception_3a/relu_5x5
I0403 16:52:07.924731 19533 net.cpp:91] Creating Layer inception_3a/relu_5x5
I0403 16:52:07.924751 19533 net.cpp:425] inception_3a/relu_5x5 <- inception_3a/5x5
I0403 16:52:07.924770 19533 net.cpp:386] inception_3a/relu_5x5 -> inception_3a/5x5 (in-place)
I0403 16:52:07.924980 19533 net.cpp:141] Setting up inception_3a/relu_5x5
I0403 16:52:07.925014 19533 net.cpp:148] Top shape: 24 32 28 28 (602112)
I0403 16:52:07.925034 19533 net.cpp:156] Memory required for data: 541901856
I0403 16:52:07.925051 19533 layer_factory.hpp:77] Creating layer inception_3a/pool
I0403 16:52:07.925073 19533 net.cpp:91] Creating Layer inception_3a/pool
I0403 16:52:07.925110 19533 net.cpp:425] inception_3a/pool <- pool2/3x3_s2_pool2/3x3_s2_0_split_3
I0403 16:52:07.925137 19533 net.cpp:399] inception_3a/pool -> inception_3a/pool
I0403 16:52:07.925206 19533 net.cpp:141] Setting up inception_3a/pool
I0403 16:52:07.925240 19533 net.cpp:148] Top shape: 24 192 28 28 (3612672)
I0403 16:52:07.925258 19533 net.cpp:156] Memory required for data: 556352544
I0403 16:52:07.925276 19533 layer_factory.hpp:77] Creating layer inception_3a/pool_proj
I0403 16:52:07.925300 19533 net.cpp:91] Creating Layer inception_3a/pool_proj
I0403 16:52:07.925320 19533 net.cpp:425] inception_3a/pool_proj <- inception_3a/pool
I0403 16:52:07.925348 19533 net.cpp:399] inception_3a/pool_proj -> inception_3a/pool_proj
I0403 16:52:07.926523 19533 net.cpp:141] Setting up inception_3a/pool_proj
I0403 16:52:07.926558 19533 net.cpp:148] Top shape: 24 32 28 28 (602112)
I0403 16:52:07.926578 19533 net.cpp:156] Memory required for data: 558760992
I0403 16:52:07.926612 19533 layer_factory.hpp:77] Creating layer inception_3a/relu_pool_proj
I0403 16:52:07.926638 19533 net.cpp:91] Creating Layer inception_3a/relu_pool_proj
I0403 16:52:07.926658 19533 net.cpp:425] inception_3a/relu_pool_proj <- inception_3a/pool_proj
I0403 16:52:07.926682 19533 net.cpp:386] inception_3a/relu_pool_proj -> inception_3a/pool_proj (in-place)
I0403 16:52:07.927021 19533 net.cpp:141] Setting up inception_3a/relu_pool_proj
I0403 16:52:07.927058 19533 net.cpp:148] Top shape: 24 32 28 28 (602112)
I0403 16:52:07.927078 19533 net.cpp:156] Memory required for data: 561169440
I0403 16:52:07.927096 19533 layer_factory.hpp:77] Creating layer inception_3a/output
I0403 16:52:07.927119 19533 net.cpp:91] Creating Layer inception_3a/output
I0403 16:52:07.927139 19533 net.cpp:425] inception_3a/output <- inception_3a/1x1
I0403 16:52:07.927158 19533 net.cpp:425] inception_3a/output <- inception_3a/3x3
I0403 16:52:07.927177 19533 net.cpp:425] inception_3a/output <- inception_3a/5x5
I0403 16:52:07.927196 19533 net.cpp:425] inception_3a/output <- inception_3a/pool_proj
I0403 16:52:07.927217 19533 net.cpp:399] inception_3a/output -> inception_3a/output
I0403 16:52:07.927276 19533 net.cpp:141] Setting up inception_3a/output
I0403 16:52:07.927305 19533 net.cpp:148] Top shape: 24 256 28 28 (4816896)
I0403 16:52:07.927325 19533 net.cpp:156] Memory required for data: 580437024
I0403 16:52:07.927342 19533 layer_factory.hpp:77] Creating layer inception_3a/output_inception_3a/output_0_split
I0403 16:52:07.927366 19533 net.cpp:91] Creating Layer inception_3a/output_inception_3a/output_0_split
I0403 16:52:07.927386 19533 net.cpp:425] inception_3a/output_inception_3a/output_0_split <- inception_3a/output
I0403 16:52:07.927407 19533 net.cpp:399] inception_3a/output_inception_3a/output_0_split -> inception_3a/output_inception_3a/output_0_split_0
I0403 16:52:07.927431 19533 net.cpp:399] inception_3a/output_inception_3a/output_0_split -> inception_3a/output_inception_3a/output_0_split_1
I0403 16:52:07.927461 19533 net.cpp:399] inception_3a/output_inception_3a/output_0_split -> inception_3a/output_inception_3a/output_0_split_2
I0403 16:52:07.927489 19533 net.cpp:399] inception_3a/output_inception_3a/output_0_split -> inception_3a/output_inception_3a/output_0_split_3
I0403 16:52:07.927578 19533 net.cpp:141] Setting up inception_3a/output_inception_3a/output_0_split
I0403 16:52:07.927611 19533 net.cpp:148] Top shape: 24 256 28 28 (4816896)
I0403 16:52:07.927634 19533 net.cpp:148] Top shape: 24 256 28 28 (4816896)
I0403 16:52:07.927654 19533 net.cpp:148] Top shape: 24 256 28 28 (4816896)
I0403 16:52:07.927672 19533 net.cpp:148] Top shape: 24 256 28 28 (4816896)
I0403 16:52:07.927690 19533 net.cpp:156] Memory required for data: 657507360
I0403 16:52:07.927707 19533 layer_factory.hpp:77] Creating layer inception_3b/1x1
I0403 16:52:07.927734 19533 net.cpp:91] Creating Layer inception_3b/1x1
I0403 16:52:07.927757 19533 net.cpp:425] inception_3b/1x1 <- inception_3a/output_inception_3a/output_0_split_0
I0403 16:52:07.927781 19533 net.cpp:399] inception_3b/1x1 -> inception_3b/1x1
I0403 16:52:07.929159 19533 net.cpp:141] Setting up inception_3b/1x1
I0403 16:52:07.929208 19533 net.cpp:148] Top shape: 24 128 28 28 (2408448)
I0403 16:52:07.929229 19533 net.cpp:156] Memory required for data: 667141152
I0403 16:52:07.929250 19533 layer_factory.hpp:77] Creating layer inception_3b/relu_1x1
I0403 16:52:07.929281 19533 net.cpp:91] Creating Layer inception_3b/relu_1x1
I0403 16:52:07.929301 19533 net.cpp:425] inception_3b/relu_1x1 <- inception_3b/1x1
I0403 16:52:07.929323 19533 net.cpp:386] inception_3b/relu_1x1 -> inception_3b/1x1 (in-place)
I0403 16:52:07.929538 19533 net.cpp:141] Setting up inception_3b/relu_1x1
I0403 16:52:07.929582 19533 net.cpp:148] Top shape: 24 128 28 28 (2408448)
I0403 16:52:07.929606 19533 net.cpp:156] Memory required for data: 676774944
I0403 16:52:07.929626 19533 layer_factory.hpp:77] Creating layer inception_3b/3x3_reduce
I0403 16:52:07.929653 19533 net.cpp:91] Creating Layer inception_3b/3x3_reduce
I0403 16:52:07.929677 19533 net.cpp:425] inception_3b/3x3_reduce <- inception_3a/output_inception_3a/output_0_split_1
I0403 16:52:07.929699 19533 net.cpp:399] inception_3b/3x3_reduce -> inception_3b/3x3_reduce
I0403 16:52:07.931087 19533 net.cpp:141] Setting up inception_3b/3x3_reduce
I0403 16:52:07.931123 19533 net.cpp:148] Top shape: 24 128 28 28 (2408448)
I0403 16:52:07.931149 19533 net.cpp:156] Memory required for data: 686408736
I0403 16:52:07.931170 19533 layer_factory.hpp:77] Creating layer inception_3b/relu_3x3_reduce
I0403 16:52:07.931196 19533 net.cpp:91] Creating Layer inception_3b/relu_3x3_reduce
I0403 16:52:07.931217 19533 net.cpp:425] inception_3b/relu_3x3_reduce <- inception_3b/3x3_reduce
I0403 16:52:07.931239 19533 net.cpp:386] inception_3b/relu_3x3_reduce -> inception_3b/3x3_reduce (in-place)
I0403 16:52:07.931453 19533 net.cpp:141] Setting up inception_3b/relu_3x3_reduce
I0403 16:52:07.931488 19533 net.cpp:148] Top shape: 24 128 28 28 (2408448)
I0403 16:52:07.931506 19533 net.cpp:156] Memory required for data: 696042528
I0403 16:52:07.931525 19533 layer_factory.hpp:77] Creating layer inception_3b/3x3
I0403 16:52:07.931555 19533 net.cpp:91] Creating Layer inception_3b/3x3
I0403 16:52:07.931577 19533 net.cpp:425] inception_3b/3x3 <- inception_3b/3x3_reduce
I0403 16:52:07.931610 19533 net.cpp:399] inception_3b/3x3 -> inception_3b/3x3
I0403 16:52:07.935148 19533 net.cpp:141] Setting up inception_3b/3x3
I0403 16:52:07.935186 19533 net.cpp:148] Top shape: 24 192 28 28 (3612672)
I0403 16:52:07.935209 19533 net.cpp:156] Memory required for data: 710493216
I0403 16:52:07.935233 19533 layer_factory.hpp:77] Creating layer inception_3b/relu_3x3
I0403 16:52:07.935256 19533 net.cpp:91] Creating Layer inception_3b/relu_3x3
I0403 16:52:07.935276 19533 net.cpp:425] inception_3b/relu_3x3 <- inception_3b/3x3
I0403 16:52:07.935297 19533 net.cpp:386] inception_3b/relu_3x3 -> inception_3b/3x3 (in-place)
I0403 16:52:07.935642 19533 net.cpp:141] Setting up inception_3b/relu_3x3
I0403 16:52:07.935678 19533 net.cpp:148] Top shape: 24 192 28 28 (3612672)
I0403 16:52:07.935696 19533 net.cpp:156] Memory required for data: 724943904
I0403 16:52:07.935715 19533 layer_factory.hpp:77] Creating layer inception_3b/5x5_reduce
I0403 16:52:07.935742 19533 net.cpp:91] Creating Layer inception_3b/5x5_reduce
I0403 16:52:07.935765 19533 net.cpp:425] inception_3b/5x5_reduce <- inception_3a/output_inception_3a/output_0_split_2
I0403 16:52:07.935787 19533 net.cpp:399] inception_3b/5x5_reduce -> inception_3b/5x5_reduce
I0403 16:52:07.936995 19533 net.cpp:141] Setting up inception_3b/5x5_reduce
I0403 16:52:07.937032 19533 net.cpp:148] Top shape: 24 32 28 28 (602112)
I0403 16:52:07.937053 19533 net.cpp:156] Memory required for data: 727352352
I0403 16:52:07.937077 19533 layer_factory.hpp:77] Creating layer inception_3b/relu_5x5_reduce
I0403 16:52:07.937099 19533 net.cpp:91] Creating Layer inception_3b/relu_5x5_reduce
I0403 16:52:07.937119 19533 net.cpp:425] inception_3b/relu_5x5_reduce <- inception_3b/5x5_reduce
I0403 16:52:07.937140 19533 net.cpp:386] inception_3b/relu_5x5_reduce -> inception_3b/5x5_reduce (in-place)
I0403 16:52:07.937374 19533 net.cpp:141] Setting up inception_3b/relu_5x5_reduce
I0403 16:52:07.937407 19533 net.cpp:148] Top shape: 24 32 28 28 (602112)
I0403 16:52:07.937427 19533 net.cpp:156] Memory required for data: 729760800
I0403 16:52:07.937445 19533 layer_factory.hpp:77] Creating layer inception_3b/5x5
I0403 16:52:07.937472 19533 net.cpp:91] Creating Layer inception_3b/5x5
I0403 16:52:07.937495 19533 net.cpp:425] inception_3b/5x5 <- inception_3b/5x5_reduce
I0403 16:52:07.937518 19533 net.cpp:399] inception_3b/5x5 -> inception_3b/5x5
I0403 16:52:07.939903 19533 net.cpp:141] Setting up inception_3b/5x5
I0403 16:52:07.939939 19533 net.cpp:148] Top shape: 24 96 28 28 (1806336)
I0403 16:52:07.939959 19533 net.cpp:156] Memory required for data: 736986144
I0403 16:52:07.939980 19533 layer_factory.hpp:77] Creating layer inception_3b/relu_5x5
I0403 16:52:07.940006 19533 net.cpp:91] Creating Layer inception_3b/relu_5x5
I0403 16:52:07.940026 19533 net.cpp:425] inception_3b/relu_5x5 <- inception_3b/5x5
I0403 16:52:07.940047 19533 net.cpp:386] inception_3b/relu_5x5 -> inception_3b/5x5 (in-place)
I0403 16:52:07.940289 19533 net.cpp:141] Setting up inception_3b/relu_5x5
I0403 16:52:07.940321 19533 net.cpp:148] Top shape: 24 96 28 28 (1806336)
I0403 16:52:07.940340 19533 net.cpp:156] Memory required for data: 744211488
I0403 16:52:07.940358 19533 layer_factory.hpp:77] Creating layer inception_3b/pool
I0403 16:52:07.940381 19533 net.cpp:91] Creating Layer inception_3b/pool
I0403 16:52:07.940400 19533 net.cpp:425] inception_3b/pool <- inception_3a/output_inception_3a/output_0_split_3
I0403 16:52:07.940423 19533 net.cpp:399] inception_3b/pool -> inception_3b/pool
I0403 16:52:07.940491 19533 net.cpp:141] Setting up inception_3b/pool
I0403 16:52:07.940521 19533 net.cpp:148] Top shape: 24 256 28 28 (4816896)
I0403 16:52:07.940539 19533 net.cpp:156] Memory required for data: 763479072
I0403 16:52:07.940557 19533 layer_factory.hpp:77] Creating layer inception_3b/pool_proj
I0403 16:52:07.940584 19533 net.cpp:91] Creating Layer inception_3b/pool_proj
I0403 16:52:07.940613 19533 net.cpp:425] inception_3b/pool_proj <- inception_3b/pool
I0403 16:52:07.940640 19533 net.cpp:399] inception_3b/pool_proj -> inception_3b/pool_proj
I0403 16:52:07.941936 19533 net.cpp:141] Setting up inception_3b/pool_proj
I0403 16:52:07.941970 19533 net.cpp:148] Top shape: 24 64 28 28 (1204224)
I0403 16:52:07.941988 19533 net.cpp:156] Memory required for data: 768295968
I0403 16:52:07.942011 19533 layer_factory.hpp:77] Creating layer inception_3b/relu_pool_proj
I0403 16:52:07.942034 19533 net.cpp:91] Creating Layer inception_3b/relu_pool_proj
I0403 16:52:07.942054 19533 net.cpp:425] inception_3b/relu_pool_proj <- inception_3b/pool_proj
I0403 16:52:07.942077 19533 net.cpp:386] inception_3b/relu_pool_proj -> inception_3b/pool_proj (in-place)
I0403 16:52:07.942543 19533 net.cpp:141] Setting up inception_3b/relu_pool_proj
I0403 16:52:07.942576 19533 net.cpp:148] Top shape: 24 64 28 28 (1204224)
I0403 16:52:07.942595 19533 net.cpp:156] Memory required for data: 773112864
I0403 16:52:07.942620 19533 layer_factory.hpp:77] Creating layer inception_3b/output
I0403 16:52:07.942642 19533 net.cpp:91] Creating Layer inception_3b/output
I0403 16:52:07.942662 19533 net.cpp:425] inception_3b/output <- inception_3b/1x1
I0403 16:52:07.942683 19533 net.cpp:425] inception_3b/output <- inception_3b/3x3
I0403 16:52:07.942703 19533 net.cpp:425] inception_3b/output <- inception_3b/5x5
I0403 16:52:07.942723 19533 net.cpp:425] inception_3b/output <- inception_3b/pool_proj
I0403 16:52:07.942744 19533 net.cpp:399] inception_3b/output -> inception_3b/output
I0403 16:52:07.942798 19533 net.cpp:141] Setting up inception_3b/output
I0403 16:52:07.942826 19533 net.cpp:148] Top shape: 24 480 28 28 (9031680)
I0403 16:52:07.942845 19533 net.cpp:156] Memory required for data: 809239584
I0403 16:52:07.942863 19533 layer_factory.hpp:77] Creating layer pool3/3x3_s2
I0403 16:52:07.942888 19533 net.cpp:91] Creating Layer pool3/3x3_s2
I0403 16:52:07.942909 19533 net.cpp:425] pool3/3x3_s2 <- inception_3b/output
I0403 16:52:07.942947 19533 net.cpp:399] pool3/3x3_s2 -> pool3/3x3_s2
I0403 16:52:07.943022 19533 net.cpp:141] Setting up pool3/3x3_s2
I0403 16:52:07.943049 19533 net.cpp:148] Top shape: 24 480 14 14 (2257920)
I0403 16:52:07.943068 19533 net.cpp:156] Memory required for data: 818271264
I0403 16:52:07.943084 19533 layer_factory.hpp:77] Creating layer pool3/3x3_s2_pool3/3x3_s2_0_split
I0403 16:52:07.943104 19533 net.cpp:91] Creating Layer pool3/3x3_s2_pool3/3x3_s2_0_split
I0403 16:52:07.943123 19533 net.cpp:425] pool3/3x3_s2_pool3/3x3_s2_0_split <- pool3/3x3_s2
I0403 16:52:07.943148 19533 net.cpp:399] pool3/3x3_s2_pool3/3x3_s2_0_split -> pool3/3x3_s2_pool3/3x3_s2_0_split_0
I0403 16:52:07.943174 19533 net.cpp:399] pool3/3x3_s2_pool3/3x3_s2_0_split -> pool3/3x3_s2_pool3/3x3_s2_0_split_1
I0403 16:52:07.943199 19533 net.cpp:399] pool3/3x3_s2_pool3/3x3_s2_0_split -> pool3/3x3_s2_pool3/3x3_s2_0_split_2
I0403 16:52:07.943223 19533 net.cpp:399] pool3/3x3_s2_pool3/3x3_s2_0_split -> pool3/3x3_s2_pool3/3x3_s2_0_split_3
I0403 16:52:07.943320 19533 net.cpp:141] Setting up pool3/3x3_s2_pool3/3x3_s2_0_split
I0403 16:52:07.943352 19533 net.cpp:148] Top shape: 24 480 14 14 (2257920)
I0403 16:52:07.943373 19533 net.cpp:148] Top shape: 24 480 14 14 (2257920)
I0403 16:52:07.943393 19533 net.cpp:148] Top shape: 24 480 14 14 (2257920)
I0403 16:52:07.943413 19533 net.cpp:148] Top shape: 24 480 14 14 (2257920)
I0403 16:52:07.943429 19533 net.cpp:156] Memory required for data: 854397984
I0403 16:52:07.943446 19533 layer_factory.hpp:77] Creating layer inception_4a/1x1
I0403 16:52:07.943473 19533 net.cpp:91] Creating Layer inception_4a/1x1
I0403 16:52:07.943495 19533 net.cpp:425] inception_4a/1x1 <- pool3/3x3_s2_pool3/3x3_s2_0_split_0
I0403 16:52:07.943521 19533 net.cpp:399] inception_4a/1x1 -> inception_4a/1x1
I0403 16:52:07.945442 19533 net.cpp:141] Setting up inception_4a/1x1
I0403 16:52:07.945477 19533 net.cpp:148] Top shape: 24 192 14 14 (903168)
I0403 16:52:07.945497 19533 net.cpp:156] Memory required for data: 858010656
I0403 16:52:07.945519 19533 layer_factory.hpp:77] Creating layer inception_4a/relu_1x1
I0403 16:52:07.945544 19533 net.cpp:91] Creating Layer inception_4a/relu_1x1
I0403 16:52:07.945565 19533 net.cpp:425] inception_4a/relu_1x1 <- inception_4a/1x1
I0403 16:52:07.945586 19533 net.cpp:386] inception_4a/relu_1x1 -> inception_4a/1x1 (in-place)
I0403 16:52:07.945804 19533 net.cpp:141] Setting up inception_4a/relu_1x1
I0403 16:52:07.945837 19533 net.cpp:148] Top shape: 24 192 14 14 (903168)
I0403 16:52:07.945855 19533 net.cpp:156] Memory required for data: 861623328
I0403 16:52:07.945873 19533 layer_factory.hpp:77] Creating layer inception_4a/3x3_reduce
I0403 16:52:07.945900 19533 net.cpp:91] Creating Layer inception_4a/3x3_reduce
I0403 16:52:07.945924 19533 net.cpp:425] inception_4a/3x3_reduce <- pool3/3x3_s2_pool3/3x3_s2_0_split_1
I0403 16:52:07.945950 19533 net.cpp:399] inception_4a/3x3_reduce -> inception_4a/3x3_reduce
I0403 16:52:07.947480 19533 net.cpp:141] Setting up inception_4a/3x3_reduce
I0403 16:52:07.947515 19533 net.cpp:148] Top shape: 24 96 14 14 (451584)
I0403 16:52:07.947533 19533 net.cpp:156] Memory required for data: 863429664
I0403 16:52:07.947563 19533 layer_factory.hpp:77] Creating layer inception_4a/relu_3x3_reduce
I0403 16:52:07.947589 19533 net.cpp:91] Creating Layer inception_4a/relu_3x3_reduce
I0403 16:52:07.947615 19533 net.cpp:425] inception_4a/relu_3x3_reduce <- inception_4a/3x3_reduce
I0403 16:52:07.947641 19533 net.cpp:386] inception_4a/relu_3x3_reduce -> inception_4a/3x3_reduce (in-place)
I0403 16:52:07.947854 19533 net.cpp:141] Setting up inception_4a/relu_3x3_reduce
I0403 16:52:07.947887 19533 net.cpp:148] Top shape: 24 96 14 14 (451584)
I0403 16:52:07.947906 19533 net.cpp:156] Memory required for data: 865236000
I0403 16:52:07.947923 19533 layer_factory.hpp:77] Creating layer inception_4a/3x3
I0403 16:52:07.947950 19533 net.cpp:91] Creating Layer inception_4a/3x3
I0403 16:52:07.947973 19533 net.cpp:425] inception_4a/3x3 <- inception_4a/3x3_reduce
I0403 16:52:07.947999 19533 net.cpp:399] inception_4a/3x3 -> inception_4a/3x3
I0403 16:52:07.951262 19533 net.cpp:141] Setting up inception_4a/3x3
I0403 16:52:07.951297 19533 net.cpp:148] Top shape: 24 208 14 14 (978432)
I0403 16:52:07.951316 19533 net.cpp:156] Memory required for data: 869149728
I0403 16:52:07.951339 19533 layer_factory.hpp:77] Creating layer inception_4a/relu_3x3
I0403 16:52:07.951364 19533 net.cpp:91] Creating Layer inception_4a/relu_3x3
I0403 16:52:07.951385 19533 net.cpp:425] inception_4a/relu_3x3 <- inception_4a/3x3
I0403 16:52:07.951406 19533 net.cpp:386] inception_4a/relu_3x3 -> inception_4a/3x3 (in-place)
I0403 16:52:07.951750 19533 net.cpp:141] Setting up inception_4a/relu_3x3
I0403 16:52:07.951783 19533 net.cpp:148] Top shape: 24 208 14 14 (978432)
I0403 16:52:07.951802 19533 net.cpp:156] Memory required for data: 873063456
I0403 16:52:07.951822 19533 layer_factory.hpp:77] Creating layer inception_4a/5x5_reduce
I0403 16:52:07.951848 19533 net.cpp:91] Creating Layer inception_4a/5x5_reduce
I0403 16:52:07.951870 19533 net.cpp:425] inception_4a/5x5_reduce <- pool3/3x3_s2_pool3/3x3_s2_0_split_2
I0403 16:52:07.951896 19533 net.cpp:399] inception_4a/5x5_reduce -> inception_4a/5x5_reduce
I0403 16:52:07.953131 19533 net.cpp:141] Setting up inception_4a/5x5_reduce
I0403 16:52:07.953166 19533 net.cpp:148] Top shape: 24 16 14 14 (75264)
I0403 16:52:07.953186 19533 net.cpp:156] Memory required for data: 873364512
I0403 16:52:07.953208 19533 layer_factory.hpp:77] Creating layer inception_4a/relu_5x5_reduce
I0403 16:52:07.953234 19533 net.cpp:91] Creating Layer inception_4a/relu_5x5_reduce
I0403 16:52:07.953254 19533 net.cpp:425] inception_4a/relu_5x5_reduce <- inception_4a/5x5_reduce
I0403 16:52:07.953276 19533 net.cpp:386] inception_4a/relu_5x5_reduce -> inception_4a/5x5_reduce (in-place)
I0403 16:52:07.953497 19533 net.cpp:141] Setting up inception_4a/relu_5x5_reduce
I0403 16:52:07.953531 19533 net.cpp:148] Top shape: 24 16 14 14 (75264)
I0403 16:52:07.953552 19533 net.cpp:156] Memory required for data: 873665568
I0403 16:52:07.953570 19533 layer_factory.hpp:77] Creating layer inception_4a/5x5
I0403 16:52:07.953598 19533 net.cpp:91] Creating Layer inception_4a/5x5
I0403 16:52:07.953625 19533 net.cpp:425] inception_4a/5x5 <- inception_4a/5x5_reduce
I0403 16:52:07.953649 19533 net.cpp:399] inception_4a/5x5 -> inception_4a/5x5
I0403 16:52:07.954982 19533 net.cpp:141] Setting up inception_4a/5x5
I0403 16:52:07.955015 19533 net.cpp:148] Top shape: 24 48 14 14 (225792)
I0403 16:52:07.955035 19533 net.cpp:156] Memory required for data: 874568736
I0403 16:52:07.955057 19533 layer_factory.hpp:77] Creating layer inception_4a/relu_5x5
I0403 16:52:07.955080 19533 net.cpp:91] Creating Layer inception_4a/relu_5x5
I0403 16:52:07.955099 19533 net.cpp:425] inception_4a/relu_5x5 <- inception_4a/5x5
I0403 16:52:07.955123 19533 net.cpp:386] inception_4a/relu_5x5 -> inception_4a/5x5 (in-place)
I0403 16:52:07.955339 19533 net.cpp:141] Setting up inception_4a/relu_5x5
I0403 16:52:07.955370 19533 net.cpp:148] Top shape: 24 48 14 14 (225792)
I0403 16:52:07.955389 19533 net.cpp:156] Memory required for data: 875471904
I0403 16:52:07.955407 19533 layer_factory.hpp:77] Creating layer inception_4a/pool
I0403 16:52:07.955432 19533 net.cpp:91] Creating Layer inception_4a/pool
I0403 16:52:07.955453 19533 net.cpp:425] inception_4a/pool <- pool3/3x3_s2_pool3/3x3_s2_0_split_3
I0403 16:52:07.955476 19533 net.cpp:399] inception_4a/pool -> inception_4a/pool
I0403 16:52:07.955550 19533 net.cpp:141] Setting up inception_4a/pool
I0403 16:52:07.955580 19533 net.cpp:148] Top shape: 24 480 14 14 (2257920)
I0403 16:52:07.955603 19533 net.cpp:156] Memory required for data: 884503584
I0403 16:52:07.955623 19533 layer_factory.hpp:77] Creating layer inception_4a/pool_proj
I0403 16:52:07.955651 19533 net.cpp:91] Creating Layer inception_4a/pool_proj
I0403 16:52:07.955672 19533 net.cpp:425] inception_4a/pool_proj <- inception_4a/pool
I0403 16:52:07.955698 19533 net.cpp:399] inception_4a/pool_proj -> inception_4a/pool_proj
I0403 16:52:07.957121 19533 net.cpp:141] Setting up inception_4a/pool_proj
I0403 16:52:07.957157 19533 net.cpp:148] Top shape: 24 64 14 14 (301056)
I0403 16:52:07.957195 19533 net.cpp:156] Memory required for data: 885707808
I0403 16:52:07.957218 19533 layer_factory.hpp:77] Creating layer inception_4a/relu_pool_proj
I0403 16:52:07.957242 19533 net.cpp:91] Creating Layer inception_4a/relu_pool_proj
I0403 16:52:07.957264 19533 net.cpp:425] inception_4a/relu_pool_proj <- inception_4a/pool_proj
I0403 16:52:07.957289 19533 net.cpp:386] inception_4a/relu_pool_proj -> inception_4a/pool_proj (in-place)
I0403 16:52:07.957643 19533 net.cpp:141] Setting up inception_4a/relu_pool_proj
I0403 16:52:07.957676 19533 net.cpp:148] Top shape: 24 64 14 14 (301056)
I0403 16:52:07.957696 19533 net.cpp:156] Memory required for data: 886912032
I0403 16:52:07.957715 19533 layer_factory.hpp:77] Creating layer inception_4a/output
I0403 16:52:07.957736 19533 net.cpp:91] Creating Layer inception_4a/output
I0403 16:52:07.957756 19533 net.cpp:425] inception_4a/output <- inception_4a/1x1
I0403 16:52:07.957777 19533 net.cpp:425] inception_4a/output <- inception_4a/3x3
I0403 16:52:07.957798 19533 net.cpp:425] inception_4a/output <- inception_4a/5x5
I0403 16:52:07.957818 19533 net.cpp:425] inception_4a/output <- inception_4a/pool_proj
I0403 16:52:07.957841 19533 net.cpp:399] inception_4a/output -> inception_4a/output
I0403 16:52:07.957897 19533 net.cpp:141] Setting up inception_4a/output
I0403 16:52:07.957929 19533 net.cpp:148] Top shape: 24 512 14 14 (2408448)
I0403 16:52:07.957948 19533 net.cpp:156] Memory required for data: 896545824
I0403 16:52:07.957967 19533 layer_factory.hpp:77] Creating layer inception_4a/output_inception_4a/output_0_split
I0403 16:52:07.957989 19533 net.cpp:91] Creating Layer inception_4a/output_inception_4a/output_0_split
I0403 16:52:07.958009 19533 net.cpp:425] inception_4a/output_inception_4a/output_0_split <- inception_4a/output
I0403 16:52:07.958030 19533 net.cpp:399] inception_4a/output_inception_4a/output_0_split -> inception_4a/output_inception_4a/output_0_split_0
I0403 16:52:07.958058 19533 net.cpp:399] inception_4a/output_inception_4a/output_0_split -> inception_4a/output_inception_4a/output_0_split_1
I0403 16:52:07.958086 19533 net.cpp:399] inception_4a/output_inception_4a/output_0_split -> inception_4a/output_inception_4a/output_0_split_2
I0403 16:52:07.958111 19533 net.cpp:399] inception_4a/output_inception_4a/output_0_split -> inception_4a/output_inception_4a/output_0_split_3
I0403 16:52:07.958135 19533 net.cpp:399] inception_4a/output_inception_4a/output_0_split -> inception_4a/output_inception_4a/output_0_split_4
I0403 16:52:07.958248 19533 net.cpp:141] Setting up inception_4a/output_inception_4a/output_0_split
I0403 16:52:07.958277 19533 net.cpp:148] Top shape: 24 512 14 14 (2408448)
I0403 16:52:07.958307 19533 net.cpp:148] Top shape: 24 512 14 14 (2408448)
I0403 16:52:07.958328 19533 net.cpp:148] Top shape: 24 512 14 14 (2408448)
I0403 16:52:07.958348 19533 net.cpp:148] Top shape: 24 512 14 14 (2408448)
I0403 16:52:07.958366 19533 net.cpp:148] Top shape: 24 512 14 14 (2408448)
I0403 16:52:07.958384 19533 net.cpp:156] Memory required for data: 944714784
I0403 16:52:07.958401 19533 layer_factory.hpp:77] Creating layer loss1/ave_pool
I0403 16:52:07.958423 19533 net.cpp:91] Creating Layer loss1/ave_pool
I0403 16:52:07.958443 19533 net.cpp:425] loss1/ave_pool <- inception_4a/output_inception_4a/output_0_split_0
I0403 16:52:07.958464 19533 net.cpp:399] loss1/ave_pool -> loss1/ave_pool
I0403 16:52:07.958721 19533 net.cpp:141] Setting up loss1/ave_pool
I0403 16:52:07.958755 19533 net.cpp:148] Top shape: 24 512 4 4 (196608)
I0403 16:52:07.958772 19533 net.cpp:156] Memory required for data: 945501216
I0403 16:52:07.958791 19533 layer_factory.hpp:77] Creating layer loss1/conv
I0403 16:52:07.958818 19533 net.cpp:91] Creating Layer loss1/conv
I0403 16:52:07.958842 19533 net.cpp:425] loss1/conv <- loss1/ave_pool
I0403 16:52:07.958868 19533 net.cpp:399] loss1/conv -> loss1/conv
I0403 16:52:07.960574 19533 net.cpp:141] Setting up loss1/conv
I0403 16:52:07.960614 19533 net.cpp:148] Top shape: 24 128 4 4 (49152)
I0403 16:52:07.960652 19533 net.cpp:156] Memory required for data: 945697824
I0403 16:52:07.960677 19533 layer_factory.hpp:77] Creating layer loss1/relu_conv
I0403 16:52:07.960705 19533 net.cpp:91] Creating Layer loss1/relu_conv
I0403 16:52:07.960726 19533 net.cpp:425] loss1/relu_conv <- loss1/conv
I0403 16:52:07.960747 19533 net.cpp:386] loss1/relu_conv -> loss1/conv (in-place)
I0403 16:52:07.961084 19533 net.cpp:141] Setting up loss1/relu_conv
I0403 16:52:07.961117 19533 net.cpp:148] Top shape: 24 128 4 4 (49152)
I0403 16:52:07.961138 19533 net.cpp:156] Memory required for data: 945894432
I0403 16:52:07.961155 19533 layer_factory.hpp:77] Creating layer loss1/fc
I0403 16:52:07.961191 19533 net.cpp:91] Creating Layer loss1/fc
I0403 16:52:07.961215 19533 net.cpp:425] loss1/fc <- loss1/conv
I0403 16:52:07.961237 19533 net.cpp:399] loss1/fc -> loss1/fc
I0403 16:52:07.983219 19533 net.cpp:141] Setting up loss1/fc
I0403 16:52:07.983259 19533 net.cpp:148] Top shape: 24 1024 (24576)
I0403 16:52:07.983280 19533 net.cpp:156] Memory required for data: 945992736
I0403 16:52:07.983304 19533 layer_factory.hpp:77] Creating layer loss1/relu_fc
I0403 16:52:07.983326 19533 net.cpp:91] Creating Layer loss1/relu_fc
I0403 16:52:07.983345 19533 net.cpp:425] loss1/relu_fc <- loss1/fc
I0403 16:52:07.983371 19533 net.cpp:386] loss1/relu_fc -> loss1/fc (in-place)
I0403 16:52:07.983608 19533 net.cpp:141] Setting up loss1/relu_fc
I0403 16:52:07.983639 19533 net.cpp:148] Top shape: 24 1024 (24576)
I0403 16:52:07.983659 19533 net.cpp:156] Memory required for data: 946091040
I0403 16:52:07.983680 19533 layer_factory.hpp:77] Creating layer loss1/drop_fc
I0403 16:52:07.983712 19533 net.cpp:91] Creating Layer loss1/drop_fc
I0403 16:52:07.983734 19533 net.cpp:425] loss1/drop_fc <- loss1/fc
I0403 16:52:07.983757 19533 net.cpp:386] loss1/drop_fc -> loss1/fc (in-place)
I0403 16:52:07.983817 19533 net.cpp:141] Setting up loss1/drop_fc
I0403 16:52:07.983850 19533 net.cpp:148] Top shape: 24 1024 (24576)
I0403 16:52:07.983871 19533 net.cpp:156] Memory required for data: 946189344
I0403 16:52:07.983891 19533 layer_factory.hpp:77] Creating layer loss1/classifier_plantvillage
I0403 16:52:07.983913 19533 net.cpp:91] Creating Layer loss1/classifier_plantvillage
I0403 16:52:07.983934 19533 net.cpp:425] loss1/classifier_plantvillage <- loss1/fc
I0403 16:52:07.983959 19533 net.cpp:399] loss1/classifier_plantvillage -> loss1/classifier_plantvillage
I0403 16:52:07.985080 19533 net.cpp:141] Setting up loss1/classifier_plantvillage
I0403 16:52:07.985115 19533 net.cpp:148] Top shape: 24 38 (912)
I0403 16:52:07.985133 19533 net.cpp:156] Memory required for data: 946192992
I0403 16:52:07.985157 19533 layer_factory.hpp:77] Creating layer loss1/classifier_plantvillage_loss1/classifier_plantvillage_0_split
I0403 16:52:07.985185 19533 net.cpp:91] Creating Layer loss1/classifier_plantvillage_loss1/classifier_plantvillage_0_split
I0403 16:52:07.985206 19533 net.cpp:425] loss1/classifier_plantvillage_loss1/classifier_plantvillage_0_split <- loss1/classifier_plantvillage
I0403 16:52:07.985229 19533 net.cpp:399] loss1/classifier_plantvillage_loss1/classifier_plantvillage_0_split -> loss1/classifier_plantvillage_loss1/classifier_plantvillage_0_split_0
I0403 16:52:07.985254 19533 net.cpp:399] loss1/classifier_plantvillage_loss1/classifier_plantvillage_0_split -> loss1/classifier_plantvillage_loss1/classifier_plantvillage_0_split_1
I0403 16:52:07.985280 19533 net.cpp:399] loss1/classifier_plantvillage_loss1/classifier_plantvillage_0_split -> loss1/classifier_plantvillage_loss1/classifier_plantvillage_0_split_2
I0403 16:52:07.985360 19533 net.cpp:141] Setting up loss1/classifier_plantvillage_loss1/classifier_plantvillage_0_split
I0403 16:52:07.985391 19533 net.cpp:148] Top shape: 24 38 (912)
I0403 16:52:07.985412 19533 net.cpp:148] Top shape: 24 38 (912)
I0403 16:52:07.985432 19533 net.cpp:148] Top shape: 24 38 (912)
I0403 16:52:07.985450 19533 net.cpp:156] Memory required for data: 946203936
I0403 16:52:07.985468 19533 layer_factory.hpp:77] Creating layer inception_4b/1x1
I0403 16:52:07.985493 19533 net.cpp:91] Creating Layer inception_4b/1x1
I0403 16:52:07.985534 19533 net.cpp:425] inception_4b/1x1 <- inception_4a/output_inception_4a/output_0_split_1
I0403 16:52:07.985563 19533 net.cpp:399] inception_4b/1x1 -> inception_4b/1x1
I0403 16:52:07.987563 19533 net.cpp:141] Setting up inception_4b/1x1
I0403 16:52:07.987602 19533 net.cpp:148] Top shape: 24 160 14 14 (752640)
I0403 16:52:07.987625 19533 net.cpp:156] Memory required for data: 949214496
I0403 16:52:07.987648 19533 layer_factory.hpp:77] Creating layer inception_4b/relu_1x1
I0403 16:52:07.987674 19533 net.cpp:91] Creating Layer inception_4b/relu_1x1
I0403 16:52:07.987695 19533 net.cpp:425] inception_4b/relu_1x1 <- inception_4b/1x1
I0403 16:52:07.987717 19533 net.cpp:386] inception_4b/relu_1x1 -> inception_4b/1x1 (in-place)
I0403 16:52:07.987937 19533 net.cpp:141] Setting up inception_4b/relu_1x1
I0403 16:52:07.987972 19533 net.cpp:148] Top shape: 24 160 14 14 (752640)
I0403 16:52:07.987993 19533 net.cpp:156] Memory required for data: 952225056
I0403 16:52:07.988010 19533 layer_factory.hpp:77] Creating layer inception_4b/3x3_reduce
I0403 16:52:07.988037 19533 net.cpp:91] Creating Layer inception_4b/3x3_reduce
I0403 16:52:07.988059 19533 net.cpp:425] inception_4b/3x3_reduce <- inception_4a/output_inception_4a/output_0_split_2
I0403 16:52:07.988083 19533 net.cpp:399] inception_4b/3x3_reduce -> inception_4b/3x3_reduce
I0403 16:52:07.989732 19533 net.cpp:141] Setting up inception_4b/3x3_reduce
I0403 16:52:07.989770 19533 net.cpp:148] Top shape: 24 112 14 14 (526848)
I0403 16:52:07.989791 19533 net.cpp:156] Memory required for data: 954332448
I0403 16:52:07.989814 19533 layer_factory.hpp:77] Creating layer inception_4b/relu_3x3_reduce
I0403 16:52:07.989837 19533 net.cpp:91] Creating Layer inception_4b/relu_3x3_reduce
I0403 16:52:07.989857 19533 net.cpp:425] inception_4b/relu_3x3_reduce <- inception_4b/3x3_reduce
I0403 16:52:07.989881 19533 net.cpp:386] inception_4b/relu_3x3_reduce -> inception_4b/3x3_reduce (in-place)
I0403 16:52:07.990216 19533 net.cpp:141] Setting up inception_4b/relu_3x3_reduce
I0403 16:52:07.990252 19533 net.cpp:148] Top shape: 24 112 14 14 (526848)
I0403 16:52:07.990272 19533 net.cpp:156] Memory required for data: 956439840
I0403 16:52:07.990290 19533 layer_factory.hpp:77] Creating layer inception_4b/3x3
I0403 16:52:07.990317 19533 net.cpp:91] Creating Layer inception_4b/3x3
I0403 16:52:07.990341 19533 net.cpp:425] inception_4b/3x3 <- inception_4b/3x3_reduce
I0403 16:52:07.990365 19533 net.cpp:399] inception_4b/3x3 -> inception_4b/3x3
I0403 16:52:07.994019 19533 net.cpp:141] Setting up inception_4b/3x3
I0403 16:52:07.994055 19533 net.cpp:148] Top shape: 24 224 14 14 (1053696)
I0403 16:52:07.994074 19533 net.cpp:156] Memory required for data: 960654624
I0403 16:52:07.994097 19533 layer_factory.hpp:77] Creating layer inception_4b/relu_3x3
I0403 16:52:07.994122 19533 net.cpp:91] Creating Layer inception_4b/relu_3x3
I0403 16:52:07.994144 19533 net.cpp:425] inception_4b/relu_3x3 <- inception_4b/3x3
I0403 16:52:07.994166 19533 net.cpp:386] inception_4b/relu_3x3 -> inception_4b/3x3 (in-place)
I0403 16:52:07.994386 19533 net.cpp:141] Setting up inception_4b/relu_3x3
I0403 16:52:07.994417 19533 net.cpp:148] Top shape: 24 224 14 14 (1053696)
I0403 16:52:07.994438 19533 net.cpp:156] Memory required for data: 964869408
I0403 16:52:07.994457 19533 layer_factory.hpp:77] Creating layer inception_4b/5x5_reduce
I0403 16:52:07.994488 19533 net.cpp:91] Creating Layer inception_4b/5x5_reduce
I0403 16:52:07.994509 19533 net.cpp:425] inception_4b/5x5_reduce <- inception_4a/output_inception_4a/output_0_split_3
I0403 16:52:07.994534 19533 net.cpp:399] inception_4b/5x5_reduce -> inception_4b/5x5_reduce
I0403 16:52:07.995877 19533 net.cpp:141] Setting up inception_4b/5x5_reduce
I0403 16:52:07.995913 19533 net.cpp:148] Top shape: 24 24 14 14 (112896)
I0403 16:52:07.995931 19533 net.cpp:156] Memory required for data: 965320992
I0403 16:52:07.995959 19533 layer_factory.hpp:77] Creating layer inception_4b/relu_5x5_reduce
I0403 16:52:07.995985 19533 net.cpp:91] Creating Layer inception_4b/relu_5x5_reduce
I0403 16:52:07.996021 19533 net.cpp:425] inception_4b/relu_5x5_reduce <- inception_4b/5x5_reduce
I0403 16:52:07.996045 19533 net.cpp:386] inception_4b/relu_5x5_reduce -> inception_4b/5x5_reduce (in-place)
I0403 16:52:07.996273 19533 net.cpp:141] Setting up inception_4b/relu_5x5_reduce
I0403 16:52:07.996306 19533 net.cpp:148] Top shape: 24 24 14 14 (112896)
I0403 16:52:07.996326 19533 net.cpp:156] Memory required for data: 965772576
I0403 16:52:07.996345 19533 layer_factory.hpp:77] Creating layer inception_4b/5x5
I0403 16:52:07.996373 19533 net.cpp:91] Creating Layer inception_4b/5x5
I0403 16:52:07.996395 19533 net.cpp:425] inception_4b/5x5 <- inception_4b/5x5_reduce
I0403 16:52:07.996422 19533 net.cpp:399] inception_4b/5x5 -> inception_4b/5x5
I0403 16:52:07.997920 19533 net.cpp:141] Setting up inception_4b/5x5
I0403 16:52:07.997953 19533 net.cpp:148] Top shape: 24 64 14 14 (301056)
I0403 16:52:07.997973 19533 net.cpp:156] Memory required for data: 966976800
I0403 16:52:07.997997 19533 layer_factory.hpp:77] Creating layer inception_4b/relu_5x5
I0403 16:52:07.998020 19533 net.cpp:91] Creating Layer inception_4b/relu_5x5
I0403 16:52:07.998042 19533 net.cpp:425] inception_4b/relu_5x5 <- inception_4b/5x5
I0403 16:52:07.998064 19533 net.cpp:386] inception_4b/relu_5x5 -> inception_4b/5x5 (in-place)
I0403 16:52:07.998406 19533 net.cpp:141] Setting up inception_4b/relu_5x5
I0403 16:52:07.998440 19533 net.cpp:148] Top shape: 24 64 14 14 (301056)
I0403 16:52:07.998459 19533 net.cpp:156] Memory required for data: 968181024
I0403 16:52:07.998478 19533 layer_factory.hpp:77] Creating layer inception_4b/pool
I0403 16:52:07.998502 19533 net.cpp:91] Creating Layer inception_4b/pool
I0403 16:52:07.998524 19533 net.cpp:425] inception_4b/pool <- inception_4a/output_inception_4a/output_0_split_4
I0403 16:52:07.998546 19533 net.cpp:399] inception_4b/pool -> inception_4b/pool
I0403 16:52:07.998634 19533 net.cpp:141] Setting up inception_4b/pool
I0403 16:52:07.998664 19533 net.cpp:148] Top shape: 24 512 14 14 (2408448)
I0403 16:52:07.998684 19533 net.cpp:156] Memory required for data: 977814816
I0403 16:52:07.998703 19533 layer_factory.hpp:77] Creating layer inception_4b/pool_proj
I0403 16:52:07.998729 19533 net.cpp:91] Creating Layer inception_4b/pool_proj
I0403 16:52:07.998752 19533 net.cpp:425] inception_4b/pool_proj <- inception_4b/pool
I0403 16:52:07.998778 19533 net.cpp:399] inception_4b/pool_proj -> inception_4b/pool_proj
I0403 16:52:08.000250 19533 net.cpp:141] Setting up inception_4b/pool_proj
I0403 16:52:08.000289 19533 net.cpp:148] Top shape: 24 64 14 14 (301056)
I0403 16:52:08.000310 19533 net.cpp:156] Memory required for data: 979019040
I0403 16:52:08.000334 19533 layer_factory.hpp:77] Creating layer inception_4b/relu_pool_proj
I0403 16:52:08.000357 19533 net.cpp:91] Creating Layer inception_4b/relu_pool_proj
I0403 16:52:08.000377 19533 net.cpp:425] inception_4b/relu_pool_proj <- inception_4b/pool_proj
I0403 16:52:08.000397 19533 net.cpp:386] inception_4b/relu_pool_proj -> inception_4b/pool_proj (in-place)
I0403 16:52:08.000630 19533 net.cpp:141] Setting up inception_4b/relu_pool_proj
I0403 16:52:08.000663 19533 net.cpp:148] Top shape: 24 64 14 14 (301056)
I0403 16:52:08.000681 19533 net.cpp:156] Memory required for data: 980223264
I0403 16:52:08.000699 19533 layer_factory.hpp:77] Creating layer inception_4b/output
I0403 16:52:08.000720 19533 net.cpp:91] Creating Layer inception_4b/output
I0403 16:52:08.000741 19533 net.cpp:425] inception_4b/output <- inception_4b/1x1
I0403 16:52:08.000762 19533 net.cpp:425] inception_4b/output <- inception_4b/3x3
I0403 16:52:08.000782 19533 net.cpp:425] inception_4b/output <- inception_4b/5x5
I0403 16:52:08.000802 19533 net.cpp:425] inception_4b/output <- inception_4b/pool_proj
I0403 16:52:08.000824 19533 net.cpp:399] inception_4b/output -> inception_4b/output
I0403 16:52:08.000881 19533 net.cpp:141] Setting up inception_4b/output
I0403 16:52:08.000910 19533 net.cpp:148] Top shape: 24 512 14 14 (2408448)
I0403 16:52:08.000929 19533 net.cpp:156] Memory required for data: 989857056
I0403 16:52:08.000965 19533 layer_factory.hpp:77] Creating layer inception_4b/output_inception_4b/output_0_split
I0403 16:52:08.000990 19533 net.cpp:91] Creating Layer inception_4b/output_inception_4b/output_0_split
I0403 16:52:08.001011 19533 net.cpp:425] inception_4b/output_inception_4b/output_0_split <- inception_4b/output
I0403 16:52:08.001032 19533 net.cpp:399] inception_4b/output_inception_4b/output_0_split -> inception_4b/output_inception_4b/output_0_split_0
I0403 16:52:08.001060 19533 net.cpp:399] inception_4b/output_inception_4b/output_0_split -> inception_4b/output_inception_4b/output_0_split_1
I0403 16:52:08.001087 19533 net.cpp:399] inception_4b/output_inception_4b/output_0_split -> inception_4b/output_inception_4b/output_0_split_2
I0403 16:52:08.001112 19533 net.cpp:399] inception_4b/output_inception_4b/output_0_split -> inception_4b/output_inception_4b/output_0_split_3
I0403 16:52:08.001215 19533 net.cpp:141] Setting up inception_4b/output_inception_4b/output_0_split
I0403 16:52:08.001245 19533 net.cpp:148] Top shape: 24 512 14 14 (2408448)
I0403 16:52:08.001266 19533 net.cpp:148] Top shape: 24 512 14 14 (2408448)
I0403 16:52:08.001286 19533 net.cpp:148] Top shape: 24 512 14 14 (2408448)
I0403 16:52:08.001305 19533 net.cpp:148] Top shape: 24 512 14 14 (2408448)
I0403 16:52:08.001322 19533 net.cpp:156] Memory required for data: 1028392224
I0403 16:52:08.001339 19533 layer_factory.hpp:77] Creating layer inception_4c/1x1
I0403 16:52:08.001368 19533 net.cpp:91] Creating Layer inception_4c/1x1
I0403 16:52:08.001389 19533 net.cpp:425] inception_4c/1x1 <- inception_4b/output_inception_4b/output_0_split_0
I0403 16:52:08.001415 19533 net.cpp:399] inception_4c/1x1 -> inception_4c/1x1
I0403 16:52:08.003180 19533 net.cpp:141] Setting up inception_4c/1x1
I0403 16:52:08.003216 19533 net.cpp:148] Top shape: 24 128 14 14 (602112)
I0403 16:52:08.003235 19533 net.cpp:156] Memory required for data: 1030800672
I0403 16:52:08.003258 19533 layer_factory.hpp:77] Creating layer inception_4c/relu_1x1
I0403 16:52:08.003280 19533 net.cpp:91] Creating Layer inception_4c/relu_1x1
I0403 16:52:08.003301 19533 net.cpp:425] inception_4c/relu_1x1 <- inception_4c/1x1
I0403 16:52:08.003325 19533 net.cpp:386] inception_4c/relu_1x1 -> inception_4c/1x1 (in-place)
I0403 16:52:08.003545 19533 net.cpp:141] Setting up inception_4c/relu_1x1
I0403 16:52:08.003578 19533 net.cpp:148] Top shape: 24 128 14 14 (602112)
I0403 16:52:08.003597 19533 net.cpp:156] Memory required for data: 1033209120
I0403 16:52:08.003623 19533 layer_factory.hpp:77] Creating layer inception_4c/3x3_reduce
I0403 16:52:08.003651 19533 net.cpp:91] Creating Layer inception_4c/3x3_reduce
I0403 16:52:08.003674 19533 net.cpp:425] inception_4c/3x3_reduce <- inception_4b/output_inception_4b/output_0_split_1
I0403 16:52:08.003700 19533 net.cpp:399] inception_4c/3x3_reduce -> inception_4c/3x3_reduce
I0403 16:52:08.006070 19533 net.cpp:141] Setting up inception_4c/3x3_reduce
I0403 16:52:08.006106 19533 net.cpp:148] Top shape: 24 128 14 14 (602112)
I0403 16:52:08.006126 19533 net.cpp:156] Memory required for data: 1035617568
I0403 16:52:08.006150 19533 layer_factory.hpp:77] Creating layer inception_4c/relu_3x3_reduce
I0403 16:52:08.006175 19533 net.cpp:91] Creating Layer inception_4c/relu_3x3_reduce
I0403 16:52:08.006197 19533 net.cpp:425] inception_4c/relu_3x3_reduce <- inception_4c/3x3_reduce
I0403 16:52:08.006219 19533 net.cpp:386] inception_4c/relu_3x3_reduce -> inception_4c/3x3_reduce (in-place)
I0403 16:52:08.006564 19533 net.cpp:141] Setting up inception_4c/relu_3x3_reduce
I0403 16:52:08.006597 19533 net.cpp:148] Top shape: 24 128 14 14 (602112)
I0403 16:52:08.006623 19533 net.cpp:156] Memory required for data: 1038026016
I0403 16:52:08.006644 19533 layer_factory.hpp:77] Creating layer inception_4c/3x3
I0403 16:52:08.006672 19533 net.cpp:91] Creating Layer inception_4c/3x3
I0403 16:52:08.006698 19533 net.cpp:425] inception_4c/3x3 <- inception_4c/3x3_reduce
I0403 16:52:08.006723 19533 net.cpp:399] inception_4c/3x3 -> inception_4c/3x3
I0403 16:52:08.011111 19533 net.cpp:141] Setting up inception_4c/3x3
I0403 16:52:08.011167 19533 net.cpp:148] Top shape: 24 256 14 14 (1204224)
I0403 16:52:08.011188 19533 net.cpp:156] Memory required for data: 1042842912
I0403 16:52:08.011229 19533 layer_factory.hpp:77] Creating layer inception_4c/relu_3x3
I0403 16:52:08.011255 19533 net.cpp:91] Creating Layer inception_4c/relu_3x3
I0403 16:52:08.011276 19533 net.cpp:425] inception_4c/relu_3x3 <- inception_4c/3x3
I0403 16:52:08.011297 19533 net.cpp:386] inception_4c/relu_3x3 -> inception_4c/3x3 (in-place)
I0403 16:52:08.011519 19533 net.cpp:141] Setting up inception_4c/relu_3x3
I0403 16:52:08.011554 19533 net.cpp:148] Top shape: 24 256 14 14 (1204224)
I0403 16:52:08.011574 19533 net.cpp:156] Memory required for data: 1047659808
I0403 16:52:08.011593 19533 layer_factory.hpp:77] Creating layer inception_4c/5x5_reduce
I0403 16:52:08.011629 19533 net.cpp:91] Creating Layer inception_4c/5x5_reduce
I0403 16:52:08.011654 19533 net.cpp:425] inception_4c/5x5_reduce <- inception_4b/output_inception_4b/output_0_split_2
I0403 16:52:08.011678 19533 net.cpp:399] inception_4c/5x5_reduce -> inception_4c/5x5_reduce
I0403 16:52:08.013003 19533 net.cpp:141] Setting up inception_4c/5x5_reduce
I0403 16:52:08.013039 19533 net.cpp:148] Top shape: 24 24 14 14 (112896)
I0403 16:52:08.013059 19533 net.cpp:156] Memory required for data: 1048111392
I0403 16:52:08.013082 19533 layer_factory.hpp:77] Creating layer inception_4c/relu_5x5_reduce
I0403 16:52:08.013108 19533 net.cpp:91] Creating Layer inception_4c/relu_5x5_reduce
I0403 16:52:08.013128 19533 net.cpp:425] inception_4c/relu_5x5_reduce <- inception_4c/5x5_reduce
I0403 16:52:08.013150 19533 net.cpp:386] inception_4c/relu_5x5_reduce -> inception_4c/5x5_reduce (in-place)
I0403 16:52:08.013371 19533 net.cpp:141] Setting up inception_4c/relu_5x5_reduce
I0403 16:52:08.013404 19533 net.cpp:148] Top shape: 24 24 14 14 (112896)
I0403 16:52:08.013424 19533 net.cpp:156] Memory required for data: 1048562976
I0403 16:52:08.013443 19533 layer_factory.hpp:77] Creating layer inception_4c/5x5
I0403 16:52:08.013469 19533 net.cpp:91] Creating Layer inception_4c/5x5
I0403 16:52:08.013491 19533 net.cpp:425] inception_4c/5x5 <- inception_4c/5x5_reduce
I0403 16:52:08.013517 19533 net.cpp:399] inception_4c/5x5 -> inception_4c/5x5
I0403 16:52:08.015056 19533 net.cpp:141] Setting up inception_4c/5x5
I0403 16:52:08.015094 19533 net.cpp:148] Top shape: 24 64 14 14 (301056)
I0403 16:52:08.015115 19533 net.cpp:156] Memory required for data: 1049767200
I0403 16:52:08.015137 19533 layer_factory.hpp:77] Creating layer inception_4c/relu_5x5
I0403 16:52:08.015161 19533 net.cpp:91] Creating Layer inception_4c/relu_5x5
I0403 16:52:08.015179 19533 net.cpp:425] inception_4c/relu_5x5 <- inception_4c/5x5
I0403 16:52:08.015204 19533 net.cpp:386] inception_4c/relu_5x5 -> inception_4c/5x5 (in-place)
I0403 16:52:08.015558 19533 net.cpp:141] Setting up inception_4c/relu_5x5
I0403 16:52:08.015593 19533 net.cpp:148] Top shape: 24 64 14 14 (301056)
I0403 16:52:08.015620 19533 net.cpp:156] Memory required for data: 1050971424
I0403 16:52:08.015640 19533 layer_factory.hpp:77] Creating layer inception_4c/pool
I0403 16:52:08.015661 19533 net.cpp:91] Creating Layer inception_4c/pool
I0403 16:52:08.015682 19533 net.cpp:425] inception_4c/pool <- inception_4b/output_inception_4b/output_0_split_3
I0403 16:52:08.015707 19533 net.cpp:399] inception_4c/pool -> inception_4c/pool
I0403 16:52:08.015786 19533 net.cpp:141] Setting up inception_4c/pool
I0403 16:52:08.015820 19533 net.cpp:148] Top shape: 24 512 14 14 (2408448)
I0403 16:52:08.015839 19533 net.cpp:156] Memory required for data: 1060605216
I0403 16:52:08.015857 19533 layer_factory.hpp:77] Creating layer inception_4c/pool_proj
I0403 16:52:08.015884 19533 net.cpp:91] Creating Layer inception_4c/pool_proj
I0403 16:52:08.015907 19533 net.cpp:425] inception_4c/pool_proj <- inception_4c/pool
I0403 16:52:08.015929 19533 net.cpp:399] inception_4c/pool_proj -> inception_4c/pool_proj
I0403 16:52:08.017423 19533 net.cpp:141] Setting up inception_4c/pool_proj
I0403 16:52:08.017462 19533 net.cpp:148] Top shape: 24 64 14 14 (301056)
I0403 16:52:08.017498 19533 net.cpp:156] Memory required for data: 1061809440
I0403 16:52:08.017523 19533 layer_factory.hpp:77] Creating layer inception_4c/relu_pool_proj
I0403 16:52:08.017545 19533 net.cpp:91] Creating Layer inception_4c/relu_pool_proj
I0403 16:52:08.017565 19533 net.cpp:425] inception_4c/relu_pool_proj <- inception_4c/pool_proj
I0403 16:52:08.017586 19533 net.cpp:386] inception_4c/relu_pool_proj -> inception_4c/pool_proj (in-place)
I0403 16:52:08.017814 19533 net.cpp:141] Setting up inception_4c/relu_pool_proj
I0403 16:52:08.017848 19533 net.cpp:148] Top shape: 24 64 14 14 (301056)
I0403 16:52:08.017879 19533 net.cpp:156] Memory required for data: 1063013664
I0403 16:52:08.017899 19533 layer_factory.hpp:77] Creating layer inception_4c/output
I0403 16:52:08.017921 19533 net.cpp:91] Creating Layer inception_4c/output
I0403 16:52:08.017940 19533 net.cpp:425] inception_4c/output <- inception_4c/1x1
I0403 16:52:08.017961 19533 net.cpp:425] inception_4c/output <- inception_4c/3x3
I0403 16:52:08.017981 19533 net.cpp:425] inception_4c/output <- inception_4c/5x5
I0403 16:52:08.017999 19533 net.cpp:425] inception_4c/output <- inception_4c/pool_proj
I0403 16:52:08.018023 19533 net.cpp:399] inception_4c/output -> inception_4c/output
I0403 16:52:08.018080 19533 net.cpp:141] Setting up inception_4c/output
I0403 16:52:08.018110 19533 net.cpp:148] Top shape: 24 512 14 14 (2408448)
I0403 16:52:08.018128 19533 net.cpp:156] Memory required for data: 1072647456
I0403 16:52:08.018146 19533 layer_factory.hpp:77] Creating layer inception_4c/output_inception_4c/output_0_split
I0403 16:52:08.018170 19533 net.cpp:91] Creating Layer inception_4c/output_inception_4c/output_0_split
I0403 16:52:08.018190 19533 net.cpp:425] inception_4c/output_inception_4c/output_0_split <- inception_4c/output
I0403 16:52:08.018211 19533 net.cpp:399] inception_4c/output_inception_4c/output_0_split -> inception_4c/output_inception_4c/output_0_split_0
I0403 16:52:08.018236 19533 net.cpp:399] inception_4c/output_inception_4c/output_0_split -> inception_4c/output_inception_4c/output_0_split_1
I0403 16:52:08.018267 19533 net.cpp:399] inception_4c/output_inception_4c/output_0_split -> inception_4c/output_inception_4c/output_0_split_2
I0403 16:52:08.018291 19533 net.cpp:399] inception_4c/output_inception_4c/output_0_split -> inception_4c/output_inception_4c/output_0_split_3
I0403 16:52:08.018404 19533 net.cpp:141] Setting up inception_4c/output_inception_4c/output_0_split
I0403 16:52:08.018434 19533 net.cpp:148] Top shape: 24 512 14 14 (2408448)
I0403 16:52:08.018455 19533 net.cpp:148] Top shape: 24 512 14 14 (2408448)
I0403 16:52:08.018473 19533 net.cpp:148] Top shape: 24 512 14 14 (2408448)
I0403 16:52:08.018491 19533 net.cpp:148] Top shape: 24 512 14 14 (2408448)
I0403 16:52:08.018508 19533 net.cpp:156] Memory required for data: 1111182624
I0403 16:52:08.018525 19533 layer_factory.hpp:77] Creating layer inception_4d/1x1
I0403 16:52:08.018553 19533 net.cpp:91] Creating Layer inception_4d/1x1
I0403 16:52:08.018574 19533 net.cpp:425] inception_4d/1x1 <- inception_4c/output_inception_4c/output_0_split_0
I0403 16:52:08.018604 19533 net.cpp:399] inception_4d/1x1 -> inception_4d/1x1
I0403 16:52:08.020294 19533 net.cpp:141] Setting up inception_4d/1x1
I0403 16:52:08.020329 19533 net.cpp:148] Top shape: 24 112 14 14 (526848)
I0403 16:52:08.020349 19533 net.cpp:156] Memory required for data: 1113290016
I0403 16:52:08.020371 19533 layer_factory.hpp:77] Creating layer inception_4d/relu_1x1
I0403 16:52:08.020396 19533 net.cpp:91] Creating Layer inception_4d/relu_1x1
I0403 16:52:08.020418 19533 net.cpp:425] inception_4d/relu_1x1 <- inception_4d/1x1
I0403 16:52:08.020440 19533 net.cpp:386] inception_4d/relu_1x1 -> inception_4d/1x1 (in-place)
I0403 16:52:08.020673 19533 net.cpp:141] Setting up inception_4d/relu_1x1
I0403 16:52:08.020706 19533 net.cpp:148] Top shape: 24 112 14 14 (526848)
I0403 16:52:08.020725 19533 net.cpp:156] Memory required for data: 1115397408
I0403 16:52:08.020743 19533 layer_factory.hpp:77] Creating layer inception_4d/3x3_reduce
I0403 16:52:08.020790 19533 net.cpp:91] Creating Layer inception_4d/3x3_reduce
I0403 16:52:08.020814 19533 net.cpp:425] inception_4d/3x3_reduce <- inception_4c/output_inception_4c/output_0_split_1
I0403 16:52:08.020838 19533 net.cpp:399] inception_4d/3x3_reduce -> inception_4d/3x3_reduce
I0403 16:52:08.022687 19533 net.cpp:141] Setting up inception_4d/3x3_reduce
I0403 16:52:08.022722 19533 net.cpp:148] Top shape: 24 144 14 14 (677376)
I0403 16:52:08.022742 19533 net.cpp:156] Memory required for data: 1118106912
I0403 16:52:08.022764 19533 layer_factory.hpp:77] Creating layer inception_4d/relu_3x3_reduce
I0403 16:52:08.022786 19533 net.cpp:91] Creating Layer inception_4d/relu_3x3_reduce
I0403 16:52:08.022806 19533 net.cpp:425] inception_4d/relu_3x3_reduce <- inception_4d/3x3_reduce
I0403 16:52:08.022831 19533 net.cpp:386] inception_4d/relu_3x3_reduce -> inception_4d/3x3_reduce (in-place)
I0403 16:52:08.023180 19533 net.cpp:141] Setting up inception_4d/relu_3x3_reduce
I0403 16:52:08.023212 19533 net.cpp:148] Top shape: 24 144 14 14 (677376)
I0403 16:52:08.023232 19533 net.cpp:156] Memory required for data: 1120816416
I0403 16:52:08.023252 19533 layer_factory.hpp:77] Creating layer inception_4d/3x3
I0403 16:52:08.023279 19533 net.cpp:91] Creating Layer inception_4d/3x3
I0403 16:52:08.023303 19533 net.cpp:425] inception_4d/3x3 <- inception_4d/3x3_reduce
I0403 16:52:08.023329 19533 net.cpp:399] inception_4d/3x3 -> inception_4d/3x3
I0403 16:52:08.028605 19533 net.cpp:141] Setting up inception_4d/3x3
I0403 16:52:08.028643 19533 net.cpp:148] Top shape: 24 288 14 14 (1354752)
I0403 16:52:08.028664 19533 net.cpp:156] Memory required for data: 1126235424
I0403 16:52:08.028688 19533 layer_factory.hpp:77] Creating layer inception_4d/relu_3x3
I0403 16:52:08.028713 19533 net.cpp:91] Creating Layer inception_4d/relu_3x3
I0403 16:52:08.028734 19533 net.cpp:425] inception_4d/relu_3x3 <- inception_4d/3x3
I0403 16:52:08.028756 19533 net.cpp:386] inception_4d/relu_3x3 -> inception_4d/3x3 (in-place)
I0403 16:52:08.028985 19533 net.cpp:141] Setting up inception_4d/relu_3x3
I0403 16:52:08.029019 19533 net.cpp:148] Top shape: 24 288 14 14 (1354752)
I0403 16:52:08.029039 19533 net.cpp:156] Memory required for data: 1131654432
I0403 16:52:08.029058 19533 layer_factory.hpp:77] Creating layer inception_4d/5x5_reduce
I0403 16:52:08.029084 19533 net.cpp:91] Creating Layer inception_4d/5x5_reduce
I0403 16:52:08.029108 19533 net.cpp:425] inception_4d/5x5_reduce <- inception_4c/output_inception_4c/output_0_split_2
I0403 16:52:08.029130 19533 net.cpp:399] inception_4d/5x5_reduce -> inception_4d/5x5_reduce
I0403 16:52:08.030555 19533 net.cpp:141] Setting up inception_4d/5x5_reduce
I0403 16:52:08.030589 19533 net.cpp:148] Top shape: 24 32 14 14 (150528)
I0403 16:52:08.030616 19533 net.cpp:156] Memory required for data: 1132256544
I0403 16:52:08.030640 19533 layer_factory.hpp:77] Creating layer inception_4d/relu_5x5_reduce
I0403 16:52:08.030666 19533 net.cpp:91] Creating Layer inception_4d/relu_5x5_reduce
I0403 16:52:08.030688 19533 net.cpp:425] inception_4d/relu_5x5_reduce <- inception_4d/5x5_reduce
I0403 16:52:08.030709 19533 net.cpp:386] inception_4d/relu_5x5_reduce -> inception_4d/5x5_reduce (in-place)
I0403 16:52:08.030941 19533 net.cpp:141] Setting up inception_4d/relu_5x5_reduce
I0403 16:52:08.030972 19533 net.cpp:148] Top shape: 24 32 14 14 (150528)
I0403 16:52:08.030992 19533 net.cpp:156] Memory required for data: 1132858656
I0403 16:52:08.031009 19533 layer_factory.hpp:77] Creating layer inception_4d/5x5
I0403 16:52:08.031038 19533 net.cpp:91] Creating Layer inception_4d/5x5
I0403 16:52:08.031061 19533 net.cpp:425] inception_4d/5x5 <- inception_4d/5x5_reduce
I0403 16:52:08.031085 19533 net.cpp:399] inception_4d/5x5 -> inception_4d/5x5
I0403 16:52:08.032896 19533 net.cpp:141] Setting up inception_4d/5x5
I0403 16:52:08.032933 19533 net.cpp:148] Top shape: 24 64 14 14 (301056)
I0403 16:52:08.032955 19533 net.cpp:156] Memory required for data: 1134062880
I0403 16:52:08.032979 19533 layer_factory.hpp:77] Creating layer inception_4d/relu_5x5
I0403 16:52:08.033020 19533 net.cpp:91] Creating Layer inception_4d/relu_5x5
I0403 16:52:08.033042 19533 net.cpp:425] inception_4d/relu_5x5 <- inception_4d/5x5
I0403 16:52:08.033067 19533 net.cpp:386] inception_4d/relu_5x5 -> inception_4d/5x5 (in-place)
I0403 16:52:08.033445 19533 net.cpp:141] Setting up inception_4d/relu_5x5
I0403 16:52:08.033481 19533 net.cpp:148] Top shape: 24 64 14 14 (301056)
I0403 16:52:08.033502 19533 net.cpp:156] Memory required for data: 1135267104
I0403 16:52:08.033521 19533 layer_factory.hpp:77] Creating layer inception_4d/pool
I0403 16:52:08.033543 19533 net.cpp:91] Creating Layer inception_4d/pool
I0403 16:52:08.033563 19533 net.cpp:425] inception_4d/pool <- inception_4c/output_inception_4c/output_0_split_3
I0403 16:52:08.033588 19533 net.cpp:399] inception_4d/pool -> inception_4d/pool
I0403 16:52:08.033676 19533 net.cpp:141] Setting up inception_4d/pool
I0403 16:52:08.033706 19533 net.cpp:148] Top shape: 24 512 14 14 (2408448)
I0403 16:52:08.033725 19533 net.cpp:156] Memory required for data: 1144900896
I0403 16:52:08.033742 19533 layer_factory.hpp:77] Creating layer inception_4d/pool_proj
I0403 16:52:08.033771 19533 net.cpp:91] Creating Layer inception_4d/pool_proj
I0403 16:52:08.033792 19533 net.cpp:425] inception_4d/pool_proj <- inception_4d/pool
I0403 16:52:08.033818 19533 net.cpp:399] inception_4d/pool_proj -> inception_4d/pool_proj
I0403 16:52:08.035984 19533 net.cpp:141] Setting up inception_4d/pool_proj
I0403 16:52:08.036020 19533 net.cpp:148] Top shape: 24 64 14 14 (301056)
I0403 16:52:08.036041 19533 net.cpp:156] Memory required for data: 1146105120
I0403 16:52:08.036063 19533 layer_factory.hpp:77] Creating layer inception_4d/relu_pool_proj
I0403 16:52:08.036088 19533 net.cpp:91] Creating Layer inception_4d/relu_pool_proj
I0403 16:52:08.036110 19533 net.cpp:425] inception_4d/relu_pool_proj <- inception_4d/pool_proj
I0403 16:52:08.036131 19533 net.cpp:386] inception_4d/relu_pool_proj -> inception_4d/pool_proj (in-place)
I0403 16:52:08.036358 19533 net.cpp:141] Setting up inception_4d/relu_pool_proj
I0403 16:52:08.036394 19533 net.cpp:148] Top shape: 24 64 14 14 (301056)
I0403 16:52:08.036414 19533 net.cpp:156] Memory required for data: 1147309344
I0403 16:52:08.036432 19533 layer_factory.hpp:77] Creating layer inception_4d/output
I0403 16:52:08.036454 19533 net.cpp:91] Creating Layer inception_4d/output
I0403 16:52:08.036473 19533 net.cpp:425] inception_4d/output <- inception_4d/1x1
I0403 16:52:08.036494 19533 net.cpp:425] inception_4d/output <- inception_4d/3x3
I0403 16:52:08.036514 19533 net.cpp:425] inception_4d/output <- inception_4d/5x5
I0403 16:52:08.036535 19533 net.cpp:425] inception_4d/output <- inception_4d/pool_proj
I0403 16:52:08.036556 19533 net.cpp:399] inception_4d/output -> inception_4d/output
I0403 16:52:08.036622 19533 net.cpp:141] Setting up inception_4d/output
I0403 16:52:08.036650 19533 net.cpp:148] Top shape: 24 528 14 14 (2483712)
I0403 16:52:08.036669 19533 net.cpp:156] Memory required for data: 1157244192
I0403 16:52:08.036686 19533 layer_factory.hpp:77] Creating layer inception_4d/output_inception_4d/output_0_split
I0403 16:52:08.036710 19533 net.cpp:91] Creating Layer inception_4d/output_inception_4d/output_0_split
I0403 16:52:08.036733 19533 net.cpp:425] inception_4d/output_inception_4d/output_0_split <- inception_4d/output
I0403 16:52:08.036756 19533 net.cpp:399] inception_4d/output_inception_4d/output_0_split -> inception_4d/output_inception_4d/output_0_split_0
I0403 16:52:08.036782 19533 net.cpp:399] inception_4d/output_inception_4d/output_0_split -> inception_4d/output_inception_4d/output_0_split_1
I0403 16:52:08.036808 19533 net.cpp:399] inception_4d/output_inception_4d/output_0_split -> inception_4d/output_inception_4d/output_0_split_2
I0403 16:52:08.036836 19533 net.cpp:399] inception_4d/output_inception_4d/output_0_split -> inception_4d/output_inception_4d/output_0_split_3
I0403 16:52:08.036861 19533 net.cpp:399] inception_4d/output_inception_4d/output_0_split -> inception_4d/output_inception_4d/output_0_split_4
I0403 16:52:08.036993 19533 net.cpp:141] Setting up inception_4d/output_inception_4d/output_0_split
I0403 16:52:08.037036 19533 net.cpp:148] Top shape: 24 528 14 14 (2483712)
I0403 16:52:08.037060 19533 net.cpp:148] Top shape: 24 528 14 14 (2483712)
I0403 16:52:08.037078 19533 net.cpp:148] Top shape: 24 528 14 14 (2483712)
I0403 16:52:08.037097 19533 net.cpp:148] Top shape: 24 528 14 14 (2483712)
I0403 16:52:08.037117 19533 net.cpp:148] Top shape: 24 528 14 14 (2483712)
I0403 16:52:08.037135 19533 net.cpp:156] Memory required for data: 1206918432
I0403 16:52:08.037153 19533 layer_factory.hpp:77] Creating layer loss2/ave_pool
I0403 16:52:08.037179 19533 net.cpp:91] Creating Layer loss2/ave_pool
I0403 16:52:08.037200 19533 net.cpp:425] loss2/ave_pool <- inception_4d/output_inception_4d/output_0_split_0
I0403 16:52:08.037223 19533 net.cpp:399] loss2/ave_pool -> loss2/ave_pool
I0403 16:52:08.037613 19533 net.cpp:141] Setting up loss2/ave_pool
I0403 16:52:08.037647 19533 net.cpp:148] Top shape: 24 528 4 4 (202752)
I0403 16:52:08.037665 19533 net.cpp:156] Memory required for data: 1207729440
I0403 16:52:08.037683 19533 layer_factory.hpp:77] Creating layer loss2/conv
I0403 16:52:08.037710 19533 net.cpp:91] Creating Layer loss2/conv
I0403 16:52:08.037732 19533 net.cpp:425] loss2/conv <- loss2/ave_pool
I0403 16:52:08.037758 19533 net.cpp:399] loss2/conv -> loss2/conv
I0403 16:52:08.040076 19533 net.cpp:141] Setting up loss2/conv
I0403 16:52:08.040117 19533 net.cpp:148] Top shape: 24 128 4 4 (49152)
I0403 16:52:08.040138 19533 net.cpp:156] Memory required for data: 1207926048
I0403 16:52:08.040160 19533 layer_factory.hpp:77] Creating layer loss2/relu_conv
I0403 16:52:08.040182 19533 net.cpp:91] Creating Layer loss2/relu_conv
I0403 16:52:08.040202 19533 net.cpp:425] loss2/relu_conv <- loss2/conv
I0403 16:52:08.040226 19533 net.cpp:386] loss2/relu_conv -> loss2/conv (in-place)
I0403 16:52:08.040580 19533 net.cpp:141] Setting up loss2/relu_conv
I0403 16:52:08.040621 19533 net.cpp:148] Top shape: 24 128 4 4 (49152)
I0403 16:52:08.040643 19533 net.cpp:156] Memory required for data: 1208122656
I0403 16:52:08.040663 19533 layer_factory.hpp:77] Creating layer loss2/fc
I0403 16:52:08.040685 19533 net.cpp:91] Creating Layer loss2/fc
I0403 16:52:08.040706 19533 net.cpp:425] loss2/fc <- loss2/conv
I0403 16:52:08.040731 19533 net.cpp:399] loss2/fc -> loss2/fc
I0403 16:52:08.062675 19533 net.cpp:141] Setting up loss2/fc
I0403 16:52:08.062718 19533 net.cpp:148] Top shape: 24 1024 (24576)
I0403 16:52:08.062739 19533 net.cpp:156] Memory required for data: 1208220960
I0403 16:52:08.062762 19533 layer_factory.hpp:77] Creating layer loss2/relu_fc
I0403 16:52:08.062785 19533 net.cpp:91] Creating Layer loss2/relu_fc
I0403 16:52:08.062805 19533 net.cpp:425] loss2/relu_fc <- loss2/fc
I0403 16:52:08.062827 19533 net.cpp:386] loss2/relu_fc -> loss2/fc (in-place)
I0403 16:52:08.063196 19533 net.cpp:141] Setting up loss2/relu_fc
I0403 16:52:08.063230 19533 net.cpp:148] Top shape: 24 1024 (24576)
I0403 16:52:08.063248 19533 net.cpp:156] Memory required for data: 1208319264
I0403 16:52:08.063267 19533 layer_factory.hpp:77] Creating layer loss2/drop_fc
I0403 16:52:08.063293 19533 net.cpp:91] Creating Layer loss2/drop_fc
I0403 16:52:08.063315 19533 net.cpp:425] loss2/drop_fc <- loss2/fc
I0403 16:52:08.063338 19533 net.cpp:386] loss2/drop_fc -> loss2/fc (in-place)
I0403 16:52:08.063402 19533 net.cpp:141] Setting up loss2/drop_fc
I0403 16:52:08.063431 19533 net.cpp:148] Top shape: 24 1024 (24576)
I0403 16:52:08.063449 19533 net.cpp:156] Memory required for data: 1208417568
I0403 16:52:08.063467 19533 layer_factory.hpp:77] Creating layer loss2/classifier_plantvillage
I0403 16:52:08.063493 19533 net.cpp:91] Creating Layer loss2/classifier_plantvillage
I0403 16:52:08.063514 19533 net.cpp:425] loss2/classifier_plantvillage <- loss2/fc
I0403 16:52:08.063537 19533 net.cpp:399] loss2/classifier_plantvillage -> loss2/classifier_plantvillage
I0403 16:52:08.064040 19533 net.cpp:141] Setting up loss2/classifier_plantvillage
I0403 16:52:08.064072 19533 net.cpp:148] Top shape: 24 38 (912)
I0403 16:52:08.064111 19533 net.cpp:156] Memory required for data: 1208421216
I0403 16:52:08.064136 19533 layer_factory.hpp:77] Creating layer loss2/classifier_plantvillage_loss2/classifier_plantvillage_0_split
I0403 16:52:08.064157 19533 net.cpp:91] Creating Layer loss2/classifier_plantvillage_loss2/classifier_plantvillage_0_split
I0403 16:52:08.064177 19533 net.cpp:425] loss2/classifier_plantvillage_loss2/classifier_plantvillage_0_split <- loss2/classifier_plantvillage
I0403 16:52:08.064201 19533 net.cpp:399] loss2/classifier_plantvillage_loss2/classifier_plantvillage_0_split -> loss2/classifier_plantvillage_loss2/classifier_plantvillage_0_split_0
I0403 16:52:08.064227 19533 net.cpp:399] loss2/classifier_plantvillage_loss2/classifier_plantvillage_0_split -> loss2/classifier_plantvillage_loss2/classifier_plantvillage_0_split_1
I0403 16:52:08.064254 19533 net.cpp:399] loss2/classifier_plantvillage_loss2/classifier_plantvillage_0_split -> loss2/classifier_plantvillage_loss2/classifier_plantvillage_0_split_2
I0403 16:52:08.064348 19533 net.cpp:141] Setting up loss2/classifier_plantvillage_loss2/classifier_plantvillage_0_split
I0403 16:52:08.064380 19533 net.cpp:148] Top shape: 24 38 (912)
I0403 16:52:08.064402 19533 net.cpp:148] Top shape: 24 38 (912)
I0403 16:52:08.064421 19533 net.cpp:148] Top shape: 24 38 (912)
I0403 16:52:08.064438 19533 net.cpp:156] Memory required for data: 1208432160
I0403 16:52:08.064456 19533 layer_factory.hpp:77] Creating layer inception_4e/1x1
I0403 16:52:08.064483 19533 net.cpp:91] Creating Layer inception_4e/1x1
I0403 16:52:08.064505 19533 net.cpp:425] inception_4e/1x1 <- inception_4d/output_inception_4d/output_0_split_1
I0403 16:52:08.064529 19533 net.cpp:399] inception_4e/1x1 -> inception_4e/1x1
I0403 16:52:08.066783 19533 net.cpp:141] Setting up inception_4e/1x1
I0403 16:52:08.066820 19533 net.cpp:148] Top shape: 24 256 14 14 (1204224)
I0403 16:52:08.066843 19533 net.cpp:156] Memory required for data: 1213249056
I0403 16:52:08.066865 19533 layer_factory.hpp:77] Creating layer inception_4e/relu_1x1
I0403 16:52:08.066889 19533 net.cpp:91] Creating Layer inception_4e/relu_1x1
I0403 16:52:08.066910 19533 net.cpp:425] inception_4e/relu_1x1 <- inception_4e/1x1
I0403 16:52:08.066933 19533 net.cpp:386] inception_4e/relu_1x1 -> inception_4e/1x1 (in-place)
I0403 16:52:08.067297 19533 net.cpp:141] Setting up inception_4e/relu_1x1
I0403 16:52:08.067333 19533 net.cpp:148] Top shape: 24 256 14 14 (1204224)
I0403 16:52:08.067353 19533 net.cpp:156] Memory required for data: 1218065952
I0403 16:52:08.067373 19533 layer_factory.hpp:77] Creating layer inception_4e/3x3_reduce
I0403 16:52:08.067400 19533 net.cpp:91] Creating Layer inception_4e/3x3_reduce
I0403 16:52:08.067423 19533 net.cpp:425] inception_4e/3x3_reduce <- inception_4d/output_inception_4d/output_0_split_2
I0403 16:52:08.067447 19533 net.cpp:399] inception_4e/3x3_reduce -> inception_4e/3x3_reduce
I0403 16:52:08.070044 19533 net.cpp:141] Setting up inception_4e/3x3_reduce
I0403 16:52:08.070083 19533 net.cpp:148] Top shape: 24 160 14 14 (752640)
I0403 16:52:08.070104 19533 net.cpp:156] Memory required for data: 1221076512
I0403 16:52:08.070127 19533 layer_factory.hpp:77] Creating layer inception_4e/relu_3x3_reduce
I0403 16:52:08.070149 19533 net.cpp:91] Creating Layer inception_4e/relu_3x3_reduce
I0403 16:52:08.070169 19533 net.cpp:425] inception_4e/relu_3x3_reduce <- inception_4e/3x3_reduce
I0403 16:52:08.070190 19533 net.cpp:386] inception_4e/relu_3x3_reduce -> inception_4e/3x3_reduce (in-place)
I0403 16:52:08.070425 19533 net.cpp:141] Setting up inception_4e/relu_3x3_reduce
I0403 16:52:08.070456 19533 net.cpp:148] Top shape: 24 160 14 14 (752640)
I0403 16:52:08.070475 19533 net.cpp:156] Memory required for data: 1224087072
I0403 16:52:08.070493 19533 layer_factory.hpp:77] Creating layer inception_4e/3x3
I0403 16:52:08.070520 19533 net.cpp:91] Creating Layer inception_4e/3x3
I0403 16:52:08.070544 19533 net.cpp:425] inception_4e/3x3 <- inception_4e/3x3_reduce
I0403 16:52:08.070570 19533 net.cpp:399] inception_4e/3x3 -> inception_4e/3x3
I0403 16:52:08.076805 19533 net.cpp:141] Setting up inception_4e/3x3
I0403 16:52:08.076856 19533 net.cpp:148] Top shape: 24 320 14 14 (1505280)
I0403 16:52:08.076877 19533 net.cpp:156] Memory required for data: 1230108192
I0403 16:52:08.076900 19533 layer_factory.hpp:77] Creating layer inception_4e/relu_3x3
I0403 16:52:08.076926 19533 net.cpp:91] Creating Layer inception_4e/relu_3x3
I0403 16:52:08.076947 19533 net.cpp:425] inception_4e/relu_3x3 <- inception_4e/3x3
I0403 16:52:08.076969 19533 net.cpp:386] inception_4e/relu_3x3 -> inception_4e/3x3 (in-place)
I0403 16:52:08.077338 19533 net.cpp:141] Setting up inception_4e/relu_3x3
I0403 16:52:08.077371 19533 net.cpp:148] Top shape: 24 320 14 14 (1505280)
I0403 16:52:08.077390 19533 net.cpp:156] Memory required for data: 1236129312
I0403 16:52:08.077409 19533 layer_factory.hpp:77] Creating layer inception_4e/5x5_reduce
I0403 16:52:08.077437 19533 net.cpp:91] Creating Layer inception_4e/5x5_reduce
I0403 16:52:08.077460 19533 net.cpp:425] inception_4e/5x5_reduce <- inception_4d/output_inception_4d/output_0_split_3
I0403 16:52:08.077486 19533 net.cpp:399] inception_4e/5x5_reduce -> inception_4e/5x5_reduce
I0403 16:52:08.078836 19533 net.cpp:141] Setting up inception_4e/5x5_reduce
I0403 16:52:08.078874 19533 net.cpp:148] Top shape: 24 32 14 14 (150528)
I0403 16:52:08.078896 19533 net.cpp:156] Memory required for data: 1236731424
I0403 16:52:08.078918 19533 layer_factory.hpp:77] Creating layer inception_4e/relu_5x5_reduce
I0403 16:52:08.078940 19533 net.cpp:91] Creating Layer inception_4e/relu_5x5_reduce
I0403 16:52:08.078961 19533 net.cpp:425] inception_4e/relu_5x5_reduce <- inception_4e/5x5_reduce
I0403 16:52:08.078985 19533 net.cpp:386] inception_4e/relu_5x5_reduce -> inception_4e/5x5_reduce (in-place)
I0403 16:52:08.079349 19533 net.cpp:141] Setting up inception_4e/relu_5x5_reduce
I0403 16:52:08.079385 19533 net.cpp:148] Top shape: 24 32 14 14 (150528)
I0403 16:52:08.079406 19533 net.cpp:156] Memory required for data: 1237333536
I0403 16:52:08.079424 19533 layer_factory.hpp:77] Creating layer inception_4e/5x5
I0403 16:52:08.079473 19533 net.cpp:91] Creating Layer inception_4e/5x5
I0403 16:52:08.079498 19533 net.cpp:425] inception_4e/5x5 <- inception_4e/5x5_reduce
I0403 16:52:08.079521 19533 net.cpp:399] inception_4e/5x5 -> inception_4e/5x5
I0403 16:52:08.081785 19533 net.cpp:141] Setting up inception_4e/5x5
I0403 16:52:08.081820 19533 net.cpp:148] Top shape: 24 128 14 14 (602112)
I0403 16:52:08.081840 19533 net.cpp:156] Memory required for data: 1239741984
I0403 16:52:08.081861 19533 layer_factory.hpp:77] Creating layer inception_4e/relu_5x5
I0403 16:52:08.081887 19533 net.cpp:91] Creating Layer inception_4e/relu_5x5
I0403 16:52:08.081909 19533 net.cpp:425] inception_4e/relu_5x5 <- inception_4e/5x5
I0403 16:52:08.081931 19533 net.cpp:386] inception_4e/relu_5x5 -> inception_4e/5x5 (in-place)
I0403 16:52:08.082173 19533 net.cpp:141] Setting up inception_4e/relu_5x5
I0403 16:52:08.082207 19533 net.cpp:148] Top shape: 24 128 14 14 (602112)
I0403 16:52:08.082226 19533 net.cpp:156] Memory required for data: 1242150432
I0403 16:52:08.082243 19533 layer_factory.hpp:77] Creating layer inception_4e/pool
I0403 16:52:08.082268 19533 net.cpp:91] Creating Layer inception_4e/pool
I0403 16:52:08.082288 19533 net.cpp:425] inception_4e/pool <- inception_4d/output_inception_4d/output_0_split_4
I0403 16:52:08.082314 19533 net.cpp:399] inception_4e/pool -> inception_4e/pool
I0403 16:52:08.082401 19533 net.cpp:141] Setting up inception_4e/pool
I0403 16:52:08.082430 19533 net.cpp:148] Top shape: 24 528 14 14 (2483712)
I0403 16:52:08.082449 19533 net.cpp:156] Memory required for data: 1252085280
I0403 16:52:08.082469 19533 layer_factory.hpp:77] Creating layer inception_4e/pool_proj
I0403 16:52:08.082502 19533 net.cpp:91] Creating Layer inception_4e/pool_proj
I0403 16:52:08.082523 19533 net.cpp:425] inception_4e/pool_proj <- inception_4e/pool
I0403 16:52:08.082546 19533 net.cpp:399] inception_4e/pool_proj -> inception_4e/pool_proj
I0403 16:52:08.084398 19533 net.cpp:141] Setting up inception_4e/pool_proj
I0403 16:52:08.084446 19533 net.cpp:148] Top shape: 24 128 14 14 (602112)
I0403 16:52:08.084466 19533 net.cpp:156] Memory required for data: 1254493728
I0403 16:52:08.084489 19533 layer_factory.hpp:77] Creating layer inception_4e/relu_pool_proj
I0403 16:52:08.084514 19533 net.cpp:91] Creating Layer inception_4e/relu_pool_proj
I0403 16:52:08.084535 19533 net.cpp:425] inception_4e/relu_pool_proj <- inception_4e/pool_proj
I0403 16:52:08.084558 19533 net.cpp:386] inception_4e/relu_pool_proj -> inception_4e/pool_proj (in-place)
I0403 16:52:08.084926 19533 net.cpp:141] Setting up inception_4e/relu_pool_proj
I0403 16:52:08.084960 19533 net.cpp:148] Top shape: 24 128 14 14 (602112)
I0403 16:52:08.084980 19533 net.cpp:156] Memory required for data: 1256902176
I0403 16:52:08.084997 19533 layer_factory.hpp:77] Creating layer inception_4e/output
I0403 16:52:08.085022 19533 net.cpp:91] Creating Layer inception_4e/output
I0403 16:52:08.085043 19533 net.cpp:425] inception_4e/output <- inception_4e/1x1
I0403 16:52:08.085063 19533 net.cpp:425] inception_4e/output <- inception_4e/3x3
I0403 16:52:08.085083 19533 net.cpp:425] inception_4e/output <- inception_4e/5x5
I0403 16:52:08.085103 19533 net.cpp:425] inception_4e/output <- inception_4e/pool_proj
I0403 16:52:08.085124 19533 net.cpp:399] inception_4e/output -> inception_4e/output
I0403 16:52:08.085187 19533 net.cpp:141] Setting up inception_4e/output
I0403 16:52:08.085216 19533 net.cpp:148] Top shape: 24 832 14 14 (3913728)
I0403 16:52:08.085234 19533 net.cpp:156] Memory required for data: 1272557088
I0403 16:52:08.085253 19533 layer_factory.hpp:77] Creating layer pool4/3x3_s2
I0403 16:52:08.085274 19533 net.cpp:91] Creating Layer pool4/3x3_s2
I0403 16:52:08.085294 19533 net.cpp:425] pool4/3x3_s2 <- inception_4e/output
I0403 16:52:08.085319 19533 net.cpp:399] pool4/3x3_s2 -> pool4/3x3_s2
I0403 16:52:08.085402 19533 net.cpp:141] Setting up pool4/3x3_s2
I0403 16:52:08.085429 19533 net.cpp:148] Top shape: 24 832 7 7 (978432)
I0403 16:52:08.085448 19533 net.cpp:156] Memory required for data: 1276470816
I0403 16:52:08.085466 19533 layer_factory.hpp:77] Creating layer pool4/3x3_s2_pool4/3x3_s2_0_split
I0403 16:52:08.085491 19533 net.cpp:91] Creating Layer pool4/3x3_s2_pool4/3x3_s2_0_split
I0403 16:52:08.085512 19533 net.cpp:425] pool4/3x3_s2_pool4/3x3_s2_0_split <- pool4/3x3_s2
I0403 16:52:08.085539 19533 net.cpp:399] pool4/3x3_s2_pool4/3x3_s2_0_split -> pool4/3x3_s2_pool4/3x3_s2_0_split_0
I0403 16:52:08.085566 19533 net.cpp:399] pool4/3x3_s2_pool4/3x3_s2_0_split -> pool4/3x3_s2_pool4/3x3_s2_0_split_1
I0403 16:52:08.085590 19533 net.cpp:399] pool4/3x3_s2_pool4/3x3_s2_0_split -> pool4/3x3_s2_pool4/3x3_s2_0_split_2
I0403 16:52:08.085623 19533 net.cpp:399] pool4/3x3_s2_pool4/3x3_s2_0_split -> pool4/3x3_s2_pool4/3x3_s2_0_split_3
I0403 16:52:08.085733 19533 net.cpp:141] Setting up pool4/3x3_s2_pool4/3x3_s2_0_split
I0403 16:52:08.085762 19533 net.cpp:148] Top shape: 24 832 7 7 (978432)
I0403 16:52:08.085783 19533 net.cpp:148] Top shape: 24 832 7 7 (978432)
I0403 16:52:08.085803 19533 net.cpp:148] Top shape: 24 832 7 7 (978432)
I0403 16:52:08.085821 19533 net.cpp:148] Top shape: 24 832 7 7 (978432)
I0403 16:52:08.085837 19533 net.cpp:156] Memory required for data: 1292125728
I0403 16:52:08.085856 19533 layer_factory.hpp:77] Creating layer inception_5a/1x1
I0403 16:52:08.085885 19533 net.cpp:91] Creating Layer inception_5a/1x1
I0403 16:52:08.085907 19533 net.cpp:425] inception_5a/1x1 <- pool4/3x3_s2_pool4/3x3_s2_0_split_0
I0403 16:52:08.085932 19533 net.cpp:399] inception_5a/1x1 -> inception_5a/1x1
I0403 16:52:08.089442 19533 net.cpp:141] Setting up inception_5a/1x1
I0403 16:52:08.089481 19533 net.cpp:148] Top shape: 24 256 7 7 (301056)
I0403 16:52:08.089501 19533 net.cpp:156] Memory required for data: 1293329952
I0403 16:52:08.089524 19533 layer_factory.hpp:77] Creating layer inception_5a/relu_1x1
I0403 16:52:08.089546 19533 net.cpp:91] Creating Layer inception_5a/relu_1x1
I0403 16:52:08.089566 19533 net.cpp:425] inception_5a/relu_1x1 <- inception_5a/1x1
I0403 16:52:08.089588 19533 net.cpp:386] inception_5a/relu_1x1 -> inception_5a/1x1 (in-place)
I0403 16:52:08.089979 19533 net.cpp:141] Setting up inception_5a/relu_1x1
I0403 16:52:08.090016 19533 net.cpp:148] Top shape: 24 256 7 7 (301056)
I0403 16:52:08.090036 19533 net.cpp:156] Memory required for data: 1294534176
I0403 16:52:08.090055 19533 layer_factory.hpp:77] Creating layer inception_5a/3x3_reduce
I0403 16:52:08.090083 19533 net.cpp:91] Creating Layer inception_5a/3x3_reduce
I0403 16:52:08.090106 19533 net.cpp:425] inception_5a/3x3_reduce <- pool4/3x3_s2_pool4/3x3_s2_0_split_1
I0403 16:52:08.090131 19533 net.cpp:399] inception_5a/3x3_reduce -> inception_5a/3x3_reduce
I0403 16:52:08.093174 19533 net.cpp:141] Setting up inception_5a/3x3_reduce
I0403 16:52:08.093212 19533 net.cpp:148] Top shape: 24 160 7 7 (188160)
I0403 16:52:08.093232 19533 net.cpp:156] Memory required for data: 1295286816
I0403 16:52:08.093255 19533 layer_factory.hpp:77] Creating layer inception_5a/relu_3x3_reduce
I0403 16:52:08.093281 19533 net.cpp:91] Creating Layer inception_5a/relu_3x3_reduce
I0403 16:52:08.093302 19533 net.cpp:425] inception_5a/relu_3x3_reduce <- inception_5a/3x3_reduce
I0403 16:52:08.093323 19533 net.cpp:386] inception_5a/relu_3x3_reduce -> inception_5a/3x3_reduce (in-place)
I0403 16:52:08.093559 19533 net.cpp:141] Setting up inception_5a/relu_3x3_reduce
I0403 16:52:08.093595 19533 net.cpp:148] Top shape: 24 160 7 7 (188160)
I0403 16:52:08.093621 19533 net.cpp:156] Memory required for data: 1296039456
I0403 16:52:08.093641 19533 layer_factory.hpp:77] Creating layer inception_5a/3x3
I0403 16:52:08.093665 19533 net.cpp:91] Creating Layer inception_5a/3x3
I0403 16:52:08.093686 19533 net.cpp:425] inception_5a/3x3 <- inception_5a/3x3_reduce
I0403 16:52:08.093713 19533 net.cpp:399] inception_5a/3x3 -> inception_5a/3x3
I0403 16:52:08.099983 19533 net.cpp:141] Setting up inception_5a/3x3
I0403 16:52:08.100020 19533 net.cpp:148] Top shape: 24 320 7 7 (376320)
I0403 16:52:08.100041 19533 net.cpp:156] Memory required for data: 1297544736
I0403 16:52:08.100064 19533 layer_factory.hpp:77] Creating layer inception_5a/relu_3x3
I0403 16:52:08.100090 19533 net.cpp:91] Creating Layer inception_5a/relu_3x3
I0403 16:52:08.100111 19533 net.cpp:425] inception_5a/relu_3x3 <- inception_5a/3x3
I0403 16:52:08.100132 19533 net.cpp:386] inception_5a/relu_3x3 -> inception_5a/3x3 (in-place)
I0403 16:52:08.100497 19533 net.cpp:141] Setting up inception_5a/relu_3x3
I0403 16:52:08.100529 19533 net.cpp:148] Top shape: 24 320 7 7 (376320)
I0403 16:52:08.100549 19533 net.cpp:156] Memory required for data: 1299050016
I0403 16:52:08.100567 19533 layer_factory.hpp:77] Creating layer inception_5a/5x5_reduce
I0403 16:52:08.100602 19533 net.cpp:91] Creating Layer inception_5a/5x5_reduce
I0403 16:52:08.100627 19533 net.cpp:425] inception_5a/5x5_reduce <- pool4/3x3_s2_pool4/3x3_s2_0_split_2
I0403 16:52:08.100653 19533 net.cpp:399] inception_5a/5x5_reduce -> inception_5a/5x5_reduce
I0403 16:52:08.102103 19533 net.cpp:141] Setting up inception_5a/5x5_reduce
I0403 16:52:08.102141 19533 net.cpp:148] Top shape: 24 32 7 7 (37632)
I0403 16:52:08.102162 19533 net.cpp:156] Memory required for data: 1299200544
I0403 16:52:08.102185 19533 layer_factory.hpp:77] Creating layer inception_5a/relu_5x5_reduce
I0403 16:52:08.102208 19533 net.cpp:91] Creating Layer inception_5a/relu_5x5_reduce
I0403 16:52:08.102229 19533 net.cpp:425] inception_5a/relu_5x5_reduce <- inception_5a/5x5_reduce
I0403 16:52:08.102252 19533 net.cpp:386] inception_5a/relu_5x5_reduce -> inception_5a/5x5_reduce (in-place)
I0403 16:52:08.102623 19533 net.cpp:141] Setting up inception_5a/relu_5x5_reduce
I0403 16:52:08.102659 19533 net.cpp:148] Top shape: 24 32 7 7 (37632)
I0403 16:52:08.102679 19533 net.cpp:156] Memory required for data: 1299351072
I0403 16:52:08.102697 19533 layer_factory.hpp:77] Creating layer inception_5a/5x5
I0403 16:52:08.102726 19533 net.cpp:91] Creating Layer inception_5a/5x5
I0403 16:52:08.102749 19533 net.cpp:425] inception_5a/5x5 <- inception_5a/5x5_reduce
I0403 16:52:08.102777 19533 net.cpp:399] inception_5a/5x5 -> inception_5a/5x5
I0403 16:52:08.104914 19533 net.cpp:141] Setting up inception_5a/5x5
I0403 16:52:08.104962 19533 net.cpp:148] Top shape: 24 128 7 7 (150528)
I0403 16:52:08.104984 19533 net.cpp:156] Memory required for data: 1299953184
I0403 16:52:08.105006 19533 layer_factory.hpp:77] Creating layer inception_5a/relu_5x5
I0403 16:52:08.105031 19533 net.cpp:91] Creating Layer inception_5a/relu_5x5
I0403 16:52:08.105052 19533 net.cpp:425] inception_5a/relu_5x5 <- inception_5a/5x5
I0403 16:52:08.105075 19533 net.cpp:386] inception_5a/relu_5x5 -> inception_5a/5x5 (in-place)
I0403 16:52:08.105316 19533 net.cpp:141] Setting up inception_5a/relu_5x5
I0403 16:52:08.105348 19533 net.cpp:148] Top shape: 24 128 7 7 (150528)
I0403 16:52:08.105366 19533 net.cpp:156] Memory required for data: 1300555296
I0403 16:52:08.105384 19533 layer_factory.hpp:77] Creating layer inception_5a/pool
I0403 16:52:08.105407 19533 net.cpp:91] Creating Layer inception_5a/pool
I0403 16:52:08.105427 19533 net.cpp:425] inception_5a/pool <- pool4/3x3_s2_pool4/3x3_s2_0_split_3
I0403 16:52:08.105455 19533 net.cpp:399] inception_5a/pool -> inception_5a/pool
I0403 16:52:08.105543 19533 net.cpp:141] Setting up inception_5a/pool
I0403 16:52:08.105574 19533 net.cpp:148] Top shape: 24 832 7 7 (978432)
I0403 16:52:08.105592 19533 net.cpp:156] Memory required for data: 1304469024
I0403 16:52:08.105618 19533 layer_factory.hpp:77] Creating layer inception_5a/pool_proj
I0403 16:52:08.105648 19533 net.cpp:91] Creating Layer inception_5a/pool_proj
I0403 16:52:08.105670 19533 net.cpp:425] inception_5a/pool_proj <- inception_5a/pool
I0403 16:52:08.105695 19533 net.cpp:399] inception_5a/pool_proj -> inception_5a/pool_proj
I0403 16:52:08.108526 19533 net.cpp:141] Setting up inception_5a/pool_proj
I0403 16:52:08.108563 19533 net.cpp:148] Top shape: 24 128 7 7 (150528)
I0403 16:52:08.108583 19533 net.cpp:156] Memory required for data: 1305071136
I0403 16:52:08.108610 19533 layer_factory.hpp:77] Creating layer inception_5a/relu_pool_proj
I0403 16:52:08.108639 19533 net.cpp:91] Creating Layer inception_5a/relu_pool_proj
I0403 16:52:08.108659 19533 net.cpp:425] inception_5a/relu_pool_proj <- inception_5a/pool_proj
I0403 16:52:08.108680 19533 net.cpp:386] inception_5a/relu_pool_proj -> inception_5a/pool_proj (in-place)
I0403 16:52:08.109048 19533 net.cpp:141] Setting up inception_5a/relu_pool_proj
I0403 16:52:08.109081 19533 net.cpp:148] Top shape: 24 128 7 7 (150528)
I0403 16:52:08.109102 19533 net.cpp:156] Memory required for data: 1305673248
I0403 16:52:08.109119 19533 layer_factory.hpp:77] Creating layer inception_5a/output
I0403 16:52:08.109143 19533 net.cpp:91] Creating Layer inception_5a/output
I0403 16:52:08.109164 19533 net.cpp:425] inception_5a/output <- inception_5a/1x1
I0403 16:52:08.109185 19533 net.cpp:425] inception_5a/output <- inception_5a/3x3
I0403 16:52:08.109205 19533 net.cpp:425] inception_5a/output <- inception_5a/5x5
I0403 16:52:08.109225 19533 net.cpp:425] inception_5a/output <- inception_5a/pool_proj
I0403 16:52:08.109246 19533 net.cpp:399] inception_5a/output -> inception_5a/output
I0403 16:52:08.109313 19533 net.cpp:141] Setting up inception_5a/output
I0403 16:52:08.109343 19533 net.cpp:148] Top shape: 24 832 7 7 (978432)
I0403 16:52:08.109360 19533 net.cpp:156] Memory required for data: 1309586976
I0403 16:52:08.109380 19533 layer_factory.hpp:77] Creating layer inception_5a/output_inception_5a/output_0_split
I0403 16:52:08.109400 19533 net.cpp:91] Creating Layer inception_5a/output_inception_5a/output_0_split
I0403 16:52:08.109418 19533 net.cpp:425] inception_5a/output_inception_5a/output_0_split <- inception_5a/output
I0403 16:52:08.109443 19533 net.cpp:399] inception_5a/output_inception_5a/output_0_split -> inception_5a/output_inception_5a/output_0_split_0
I0403 16:52:08.109469 19533 net.cpp:399] inception_5a/output_inception_5a/output_0_split -> inception_5a/output_inception_5a/output_0_split_1
I0403 16:52:08.109494 19533 net.cpp:399] inception_5a/output_inception_5a/output_0_split -> inception_5a/output_inception_5a/output_0_split_2
I0403 16:52:08.109520 19533 net.cpp:399] inception_5a/output_inception_5a/output_0_split -> inception_5a/output_inception_5a/output_0_split_3
I0403 16:52:08.109666 19533 net.cpp:141] Setting up inception_5a/output_inception_5a/output_0_split
I0403 16:52:08.109700 19533 net.cpp:148] Top shape: 24 832 7 7 (978432)
I0403 16:52:08.109722 19533 net.cpp:148] Top shape: 24 832 7 7 (978432)
I0403 16:52:08.109742 19533 net.cpp:148] Top shape: 24 832 7 7 (978432)
I0403 16:52:08.109762 19533 net.cpp:148] Top shape: 24 832 7 7 (978432)
I0403 16:52:08.109779 19533 net.cpp:156] Memory required for data: 1325241888
I0403 16:52:08.109798 19533 layer_factory.hpp:77] Creating layer inception_5b/1x1
I0403 16:52:08.109827 19533 net.cpp:91] Creating Layer inception_5b/1x1
I0403 16:52:08.109848 19533 net.cpp:425] inception_5b/1x1 <- inception_5a/output_inception_5a/output_0_split_0
I0403 16:52:08.109870 19533 net.cpp:399] inception_5b/1x1 -> inception_5b/1x1
I0403 16:52:08.114516 19533 net.cpp:141] Setting up inception_5b/1x1
I0403 16:52:08.114552 19533 net.cpp:148] Top shape: 24 384 7 7 (451584)
I0403 16:52:08.114573 19533 net.cpp:156] Memory required for data: 1327048224
I0403 16:52:08.114595 19533 layer_factory.hpp:77] Creating layer inception_5b/relu_1x1
I0403 16:52:08.114636 19533 net.cpp:91] Creating Layer inception_5b/relu_1x1
I0403 16:52:08.114658 19533 net.cpp:425] inception_5b/relu_1x1 <- inception_5b/1x1
I0403 16:52:08.114681 19533 net.cpp:386] inception_5b/relu_1x1 -> inception_5b/1x1 (in-place)
I0403 16:52:08.115061 19533 net.cpp:141] Setting up inception_5b/relu_1x1
I0403 16:52:08.115093 19533 net.cpp:148] Top shape: 24 384 7 7 (451584)
I0403 16:52:08.115113 19533 net.cpp:156] Memory required for data: 1328854560
I0403 16:52:08.115130 19533 layer_factory.hpp:77] Creating layer inception_5b/3x3_reduce
I0403 16:52:08.115159 19533 net.cpp:91] Creating Layer inception_5b/3x3_reduce
I0403 16:52:08.115181 19533 net.cpp:425] inception_5b/3x3_reduce <- inception_5a/output_inception_5a/output_0_split_1
I0403 16:52:08.115209 19533 net.cpp:399] inception_5b/3x3_reduce -> inception_5b/3x3_reduce
I0403 16:52:08.118525 19533 net.cpp:141] Setting up inception_5b/3x3_reduce
I0403 16:52:08.118561 19533 net.cpp:148] Top shape: 24 192 7 7 (225792)
I0403 16:52:08.118580 19533 net.cpp:156] Memory required for data: 1329757728
I0403 16:52:08.118608 19533 layer_factory.hpp:77] Creating layer inception_5b/relu_3x3_reduce
I0403 16:52:08.118635 19533 net.cpp:91] Creating Layer inception_5b/relu_3x3_reduce
I0403 16:52:08.118657 19533 net.cpp:425] inception_5b/relu_3x3_reduce <- inception_5b/3x3_reduce
I0403 16:52:08.118680 19533 net.cpp:386] inception_5b/relu_3x3_reduce -> inception_5b/3x3_reduce (in-place)
I0403 16:52:08.118923 19533 net.cpp:141] Setting up inception_5b/relu_3x3_reduce
I0403 16:52:08.118957 19533 net.cpp:148] Top shape: 24 192 7 7 (225792)
I0403 16:52:08.118978 19533 net.cpp:156] Memory required for data: 1330660896
I0403 16:52:08.118996 19533 layer_factory.hpp:77] Creating layer inception_5b/3x3
I0403 16:52:08.119024 19533 net.cpp:91] Creating Layer inception_5b/3x3
I0403 16:52:08.119046 19533 net.cpp:425] inception_5b/3x3 <- inception_5b/3x3_reduce
I0403 16:52:08.119071 19533 net.cpp:399] inception_5b/3x3 -> inception_5b/3x3
I0403 16:52:08.127460 19533 net.cpp:141] Setting up inception_5b/3x3
I0403 16:52:08.127496 19533 net.cpp:148] Top shape: 24 384 7 7 (451584)
I0403 16:52:08.127516 19533 net.cpp:156] Memory required for data: 1332467232
I0403 16:52:08.127539 19533 layer_factory.hpp:77] Creating layer inception_5b/relu_3x3
I0403 16:52:08.127564 19533 net.cpp:91] Creating Layer inception_5b/relu_3x3
I0403 16:52:08.127585 19533 net.cpp:425] inception_5b/relu_3x3 <- inception_5b/3x3
I0403 16:52:08.127614 19533 net.cpp:386] inception_5b/relu_3x3 -> inception_5b/3x3 (in-place)
I0403 16:52:08.127982 19533 net.cpp:141] Setting up inception_5b/relu_3x3
I0403 16:52:08.128015 19533 net.cpp:148] Top shape: 24 384 7 7 (451584)
I0403 16:52:08.128034 19533 net.cpp:156] Memory required for data: 1334273568
I0403 16:52:08.128053 19533 layer_factory.hpp:77] Creating layer inception_5b/5x5_reduce
I0403 16:52:08.128101 19533 net.cpp:91] Creating Layer inception_5b/5x5_reduce
I0403 16:52:08.128125 19533 net.cpp:425] inception_5b/5x5_reduce <- inception_5a/output_inception_5a/output_0_split_2
I0403 16:52:08.128152 19533 net.cpp:399] inception_5b/5x5_reduce -> inception_5b/5x5_reduce
I0403 16:52:08.129740 19533 net.cpp:141] Setting up inception_5b/5x5_reduce
I0403 16:52:08.129776 19533 net.cpp:148] Top shape: 24 48 7 7 (56448)
I0403 16:52:08.129796 19533 net.cpp:156] Memory required for data: 1334499360
I0403 16:52:08.129818 19533 layer_factory.hpp:77] Creating layer inception_5b/relu_5x5_reduce
I0403 16:52:08.129843 19533 net.cpp:91] Creating Layer inception_5b/relu_5x5_reduce
I0403 16:52:08.129865 19533 net.cpp:425] inception_5b/relu_5x5_reduce <- inception_5b/5x5_reduce
I0403 16:52:08.129887 19533 net.cpp:386] inception_5b/relu_5x5_reduce -> inception_5b/5x5_reduce (in-place)
I0403 16:52:08.130347 19533 net.cpp:141] Setting up inception_5b/relu_5x5_reduce
I0403 16:52:08.130379 19533 net.cpp:148] Top shape: 24 48 7 7 (56448)
I0403 16:52:08.130398 19533 net.cpp:156] Memory required for data: 1334725152
I0403 16:52:08.130417 19533 layer_factory.hpp:77] Creating layer inception_5b/5x5
I0403 16:52:08.130442 19533 net.cpp:91] Creating Layer inception_5b/5x5
I0403 16:52:08.130465 19533 net.cpp:425] inception_5b/5x5 <- inception_5b/5x5_reduce
I0403 16:52:08.130488 19533 net.cpp:399] inception_5b/5x5 -> inception_5b/5x5
I0403 16:52:08.133038 19533 net.cpp:141] Setting up inception_5b/5x5
I0403 16:52:08.133074 19533 net.cpp:148] Top shape: 24 128 7 7 (150528)
I0403 16:52:08.133095 19533 net.cpp:156] Memory required for data: 1335327264
I0403 16:52:08.133117 19533 layer_factory.hpp:77] Creating layer inception_5b/relu_5x5
I0403 16:52:08.133141 19533 net.cpp:91] Creating Layer inception_5b/relu_5x5
I0403 16:52:08.133159 19533 net.cpp:425] inception_5b/relu_5x5 <- inception_5b/5x5
I0403 16:52:08.133182 19533 net.cpp:386] inception_5b/relu_5x5 -> inception_5b/5x5 (in-place)
I0403 16:52:08.133424 19533 net.cpp:141] Setting up inception_5b/relu_5x5
I0403 16:52:08.133458 19533 net.cpp:148] Top shape: 24 128 7 7 (150528)
I0403 16:52:08.133478 19533 net.cpp:156] Memory required for data: 1335929376
I0403 16:52:08.133496 19533 layer_factory.hpp:77] Creating layer inception_5b/pool
I0403 16:52:08.133518 19533 net.cpp:91] Creating Layer inception_5b/pool
I0403 16:52:08.133538 19533 net.cpp:425] inception_5b/pool <- inception_5a/output_inception_5a/output_0_split_3
I0403 16:52:08.133569 19533 net.cpp:399] inception_5b/pool -> inception_5b/pool
I0403 16:52:08.133663 19533 net.cpp:141] Setting up inception_5b/pool
I0403 16:52:08.133697 19533 net.cpp:148] Top shape: 24 832 7 7 (978432)
I0403 16:52:08.133718 19533 net.cpp:156] Memory required for data: 1339843104
I0403 16:52:08.133734 19533 layer_factory.hpp:77] Creating layer inception_5b/pool_proj
I0403 16:52:08.133761 19533 net.cpp:91] Creating Layer inception_5b/pool_proj
I0403 16:52:08.133785 19533 net.cpp:425] inception_5b/pool_proj <- inception_5b/pool
I0403 16:52:08.133808 19533 net.cpp:399] inception_5b/pool_proj -> inception_5b/pool_proj
I0403 16:52:08.136680 19533 net.cpp:141] Setting up inception_5b/pool_proj
I0403 16:52:08.136716 19533 net.cpp:148] Top shape: 24 128 7 7 (150528)
I0403 16:52:08.136736 19533 net.cpp:156] Memory required for data: 1340445216
I0403 16:52:08.136759 19533 layer_factory.hpp:77] Creating layer inception_5b/relu_pool_proj
I0403 16:52:08.136785 19533 net.cpp:91] Creating Layer inception_5b/relu_pool_proj
I0403 16:52:08.136806 19533 net.cpp:425] inception_5b/relu_pool_proj <- inception_5b/pool_proj
I0403 16:52:08.136828 19533 net.cpp:386] inception_5b/relu_pool_proj -> inception_5b/pool_proj (in-place)
I0403 16:52:08.137199 19533 net.cpp:141] Setting up inception_5b/relu_pool_proj
I0403 16:52:08.137233 19533 net.cpp:148] Top shape: 24 128 7 7 (150528)
I0403 16:52:08.137250 19533 net.cpp:156] Memory required for data: 1341047328
I0403 16:52:08.137269 19533 layer_factory.hpp:77] Creating layer inception_5b/output
I0403 16:52:08.137293 19533 net.cpp:91] Creating Layer inception_5b/output
I0403 16:52:08.137331 19533 net.cpp:425] inception_5b/output <- inception_5b/1x1
I0403 16:52:08.137353 19533 net.cpp:425] inception_5b/output <- inception_5b/3x3
I0403 16:52:08.137373 19533 net.cpp:425] inception_5b/output <- inception_5b/5x5
I0403 16:52:08.137393 19533 net.cpp:425] inception_5b/output <- inception_5b/pool_proj
I0403 16:52:08.137413 19533 net.cpp:399] inception_5b/output -> inception_5b/output
I0403 16:52:08.137480 19533 net.cpp:141] Setting up inception_5b/output
I0403 16:52:08.137509 19533 net.cpp:148] Top shape: 24 1024 7 7 (1204224)
I0403 16:52:08.137527 19533 net.cpp:156] Memory required for data: 1345864224
I0403 16:52:08.137547 19533 layer_factory.hpp:77] Creating layer pool5/7x7_s1
I0403 16:52:08.137568 19533 net.cpp:91] Creating Layer pool5/7x7_s1
I0403 16:52:08.137589 19533 net.cpp:425] pool5/7x7_s1 <- inception_5b/output
I0403 16:52:08.137621 19533 net.cpp:399] pool5/7x7_s1 -> pool5/7x7_s1
I0403 16:52:08.137903 19533 net.cpp:141] Setting up pool5/7x7_s1
I0403 16:52:08.137935 19533 net.cpp:148] Top shape: 24 1024 1 1 (24576)
I0403 16:52:08.137953 19533 net.cpp:156] Memory required for data: 1345962528
I0403 16:52:08.137970 19533 layer_factory.hpp:77] Creating layer pool5/drop_7x7_s1
I0403 16:52:08.137995 19533 net.cpp:91] Creating Layer pool5/drop_7x7_s1
I0403 16:52:08.138016 19533 net.cpp:425] pool5/drop_7x7_s1 <- pool5/7x7_s1
I0403 16:52:08.138038 19533 net.cpp:386] pool5/drop_7x7_s1 -> pool5/7x7_s1 (in-place)
I0403 16:52:08.138103 19533 net.cpp:141] Setting up pool5/drop_7x7_s1
I0403 16:52:08.138133 19533 net.cpp:148] Top shape: 24 1024 1 1 (24576)
I0403 16:52:08.138150 19533 net.cpp:156] Memory required for data: 1346060832
I0403 16:52:08.138170 19533 layer_factory.hpp:77] Creating layer loss3/classifier_plantvillage
I0403 16:52:08.138195 19533 net.cpp:91] Creating Layer loss3/classifier_plantvillage
I0403 16:52:08.138216 19533 net.cpp:425] loss3/classifier_plantvillage <- pool5/7x7_s1
I0403 16:52:08.138239 19533 net.cpp:399] loss3/classifier_plantvillage -> loss3/classifier_plantvillage
I0403 16:52:08.138774 19533 net.cpp:141] Setting up loss3/classifier_plantvillage
I0403 16:52:08.138806 19533 net.cpp:148] Top shape: 24 38 (912)
I0403 16:52:08.138825 19533 net.cpp:156] Memory required for data: 1346064480
I0403 16:52:08.138847 19533 layer_factory.hpp:77] Creating layer loss3/classifier_plantvillage_loss3/classifier_plantvillage_0_split
I0403 16:52:08.138870 19533 net.cpp:91] Creating Layer loss3/classifier_plantvillage_loss3/classifier_plantvillage_0_split
I0403 16:52:08.138890 19533 net.cpp:425] loss3/classifier_plantvillage_loss3/classifier_plantvillage_0_split <- loss3/classifier_plantvillage
I0403 16:52:08.138916 19533 net.cpp:399] loss3/classifier_plantvillage_loss3/classifier_plantvillage_0_split -> loss3/classifier_plantvillage_loss3/classifier_plantvillage_0_split_0
I0403 16:52:08.138942 19533 net.cpp:399] loss3/classifier_plantvillage_loss3/classifier_plantvillage_0_split -> loss3/classifier_plantvillage_loss3/classifier_plantvillage_0_split_1
I0403 16:52:08.138967 19533 net.cpp:399] loss3/classifier_plantvillage_loss3/classifier_plantvillage_0_split -> loss3/classifier_plantvillage_loss3/classifier_plantvillage_0_split_2
I0403 16:52:08.138993 19533 net.cpp:399] loss3/classifier_plantvillage_loss3/classifier_plantvillage_0_split -> loss3/classifier_plantvillage_loss3/classifier_plantvillage_0_split_3
I0403 16:52:08.139118 19533 net.cpp:141] Setting up loss3/classifier_plantvillage_loss3/classifier_plantvillage_0_split
I0403 16:52:08.139147 19533 net.cpp:148] Top shape: 24 38 (912)
I0403 16:52:08.139168 19533 net.cpp:148] Top shape: 24 38 (912)
I0403 16:52:08.139186 19533 net.cpp:148] Top shape: 24 38 (912)
I0403 16:52:08.139205 19533 net.cpp:148] Top shape: 24 38 (912)
I0403 16:52:08.139222 19533 net.cpp:156] Memory required for data: 1346079072
I0403 16:52:08.139240 19533 layer_factory.hpp:77] Creating layer loss1/loss
I0403 16:52:08.139269 19533 net.cpp:91] Creating Layer loss1/loss
I0403 16:52:08.139292 19533 net.cpp:425] loss1/loss <- loss1/classifier_plantvillage_loss1/classifier_plantvillage_0_split_0
I0403 16:52:08.139330 19533 net.cpp:425] loss1/loss <- label_data_1_split_0
…
