…
I0403 16:41:12.253962 18942 net.cpp:313] The NetState phase (1) differed from the phase (0) specified by a rule in layer data
I0403 16:41:12.255463 18942 net.cpp:49] Initializing net from parameters: 
state {
  phase: TEST
}
layer {
  name: "data"
  type: "Data"
  top: "data"
  top: "label"
  include {
    phase: TEST
  }
  transform_param {
    mirror: false
    crop_size: 224
    mean_file: "/home/mohanty/data/final_dataset/lmdb/segmented-20-80/mean.binaryproto"
  }
  data_param {
    source: "/home/mohanty/data/final_dataset/lmdb/segmented-20-80/test_db"
    batch_size: 24
    backend: LMDB
  }
}
layer {
  name: "conv1/7x7_s2"
  type: "Convolution"
  bottom: "data"
  top: "conv1/7x7_s2"
  param {
    lr_mult: 1
    decay_mult: 1
  }
  param {
    lr_mult: 2
    decay_mult: 0
  }
  convolution_param {
    num_output: 64
    pad: 3
    kernel_size: 7
    stride: 2
    weight_filler {
      type: "xavier"
      std: 0.1
    }
    bias_filler {
      type: "constant"
      value: 0.2
    }
  }
}
layer {
  name: "conv1/relu_7x7"
  type: "ReLU"
  bottom: "conv1/7x7_s2"
  top: "conv1/7x7_s2"
}
layer {
  name: "pool1/3x3_s2"
  type: "Pooling"
  bottom: "conv1/7x7_s2"
  top: "pool1/3x3_s2"
  pooling_param {
    pool: MAX
    kernel_size: 3
    stride: 2
  }
}
layer {
  name: "pool1/norm1"
  type: "LRN"
  bottom: "pool1/3x3_s2"
  top: "pool1/norm1"
  lrn_param {
    local_size: 5
    alpha: 0.0001
    beta: 0.75
  }
}
layer {
  name: "conv2/3x3_reduce"
  type: "Convolution"
  bottom: "pool1/norm1"
  top: "conv2/3x3_reduce"
  param {
    lr_mult: 1
    decay_mult: 1
  }
  param {
    lr_mult: 2
    decay_mult: 0
  }
  convolution_param {
    num_output: 64
    kernel_size: 1
    weight_filler {
      type: "xavier"
      std: 0.1
    }
    bias_filler {
      type: "constant"
      value: 0.2
    }
  }
}
layer {
  name: "conv2/relu_3x3_reduce"
  type: "ReLU"
  bottom: "conv2/3x3_reduce"
  top: "conv2/3x3_reduce"
}
layer {
  name: "conv2/3x3"
  type: "Convolution"
  bottom: "conv2/3x3_reduce"
  top: "conv2/3x3"
  param {
    lr_mult: 1
    decay_mult: 1
  }
  param {
    lr_mult: 2
    decay_mult: 0
  }
  convolution_param {
    num_output: 192
    pad: 1
    kernel_size: 3
    weight_filler {
      type: "xavier"
      std: 0.03
    }
    bias_filler {
      type: "constant"
      value: 0.2
    }
  }
}
layer {
  name: "conv2/relu_3x3"
  type: "ReLU"
  bottom: "conv2/3x3"
  top: "conv2/3x3"
}
layer {
  name: "conv2/norm2"
  type: "LRN"
  bottom: "conv2/3x3"
  top: "conv2/norm2"
  lrn_param {
    local_size: 5
    alpha: 0.0001
    beta: 0.75
  }
}
layer {
  name: "pool2/3x3_s2"
  type: "Pooling"
  bottom: "conv2/norm2"
  top: "pool2/3x3_s2"
  pooling_param {
    pool: MAX
    kernel_size: 3
    stride: 2
  }
}
layer {
  name: "inception_3a/1x1"
  type: "Convolution"
  bottom: "pool2/3x3_s2"
  top: "inception_3a/1x1"
  param {
    lr_mult: 1
    decay_mult: 1
  }
  param {
    lr_mult: 2
    decay_mult: 0
  }
  convolution_param {
    num_output: 64
    kernel_size: 1
    weight_filler {
      type: "xavier"
      std: 0.03
    }
    bias_filler {
      type: "constant"
      value: 0.2
    }
  }
}
layer {
  name: "inception_3a/relu_1x1"
  type: "ReLU"
  bottom: "inception_3a/1x1"
  top: "inception_3a/1x1"
}
layer {
  name: "inception_3a/3x3_reduce"
  type: "Convolution"
  bottom: "pool2/3x3_s2"
  top: "inception_3a/3x3_reduce"
  param {
    lr_mult: 1
    decay_mult: 1
  }
  param {
    lr_mult: 2
    decay_mult: 0
  }
  convolution_param {
    num_output: 96
    kernel_size: 1
    weight_filler {
      type: "xavier"
      std: 0.09
    }
    bias_filler {
      type: "constant"
      value: 0.2
    }
  }
}
layer {
  name: "inception_3a/relu_3x3_reduce"
  type: "ReLU"
  bottom: "inception_3a/3x3_reduce"
  top: "inception_3a/3x3_reduce"
}
layer {
  name: "inception_3a/3x3"
  type: "Convolution"
  bottom: "inception_3a/3x3_reduce"
  top: "inception_3a/3x3"
  param {
    lr_mult: 1
    decay_mult: 1
  }
  param {
    lr_mult: 2
    decay_mult: 0
  }
  convolution_param {
    num_output: 128
    pad: 1
    kernel_size: 3
    weight_filler {
      type: "xavier"
      std: 0.03
    }
    bias_filler {
      type: "constant"
      value: 0.2
    }
  }
}
layer {
  name: "inception_3a/relu_3x3"
  type: "ReLU"
  bottom: "inception_3a/3x3"
  top: "inception_3a/3x3"
}
layer {
  name: "inception_3a/5x5_reduce"
  type: "Convolution"
  bottom: "pool2/3x3_s2"
  top: "inception_3a/5x5_reduce"
  param {
    lr_mult: 1
    decay_mult: 1
  }
  param {
    lr_mult: 2
    decay_mult: 0
  }
  convolution_param {
    num_output: 16
    kernel_size: 1
    weight_filler {
      type: "xavier"
      std: 0.2
    }
    bias_filler {
      type: "constant"
      value: 0.2
    }
  }
}
layer {
  name: "inception_3a/relu_5x5_reduce"
  type: "ReLU"
  bottom: "inception_3a/5x5_reduce"
  top: "inception_3a/5x5_reduce"
}
layer {
  name: "inception_3a/5x5"
  type: "Convolution"
  bottom: "inception_3a/5x5_reduce"
  top: "inception_3a/5x5"
  param {
    lr_mult: 1
    decay_mult: 1
  }
  param {
    lr_mult: 2
    decay_mult: 0
  }
  convolution_param {
    num_output: 32
    pad: 2
    kernel_size: 5
    weight_filler {
      type: "xavier"
      std: 0.03
    }
    bias_filler {
      type: "constant"
      value: 0.2
    }
  }
}
layer {
  name: "inception_3a/relu_5x5"
  type: "ReLU"
  bottom: "inception_3a/5x5"
  top: "inception_3a/5x5"
}
layer {
  name: "inception_3a/pool"
  type: "Pooling"
  bottom: "pool2/3x3_s2"
  top: "inception_3a/pool"
  pooling_param {
    pool: MAX
    kernel_size: 3
    stride: 1
    pad: 1
  }
}
layer {
  name: "inception_3a/pool_proj"
  type: "Convolution"
  bottom: "inception_3a/pool"
  top: "inception_3a/pool_proj"
  param {
    lr_mult: 1
    decay_mult: 1
  }
  param {
    lr_mult: 2
    decay_mult: 0
  }
  convolution_param {
    num_output: 32
    kernel_size: 1
    weight_filler {
      type: "xavier"
      std: 0.1
    }
    bias_filler {
      type: "constant"
      value: 0.2
    }
  }
}
layer {
  name: "inception_3a/relu_pool_proj"
  type: "ReLU"
  bottom: "inception_3a/pool_proj"
  top: "inception_3a/pool_proj"
}
layer {
  name: "inception_3a/output"
  type: "Concat"
  bottom: "inception_3a/1x1"
  bottom: "inception_3a/3x3"
  bottom: "inception_3a/5x5"
  bottom: "inception_3a/pool_proj"
  top: "inception_3a/output"
}
layer {
  name: "inception_3b/1x1"
  type: "Convolution"
  bottom: "inception_3a/output"
  top: "inception_3b/1x1"
  param {
    lr_mult: 1
    decay_mult: 1
  }
  param {
    lr_mult: 2
    decay_mult: 0
  }
  convolution_param {
    num_output: 128
    kernel_size: 1
    weight_filler {
      type: "xavier"
      std: 0.03
    }
    bias_filler {
      type: "constant"
      value: 0.2
    }
  }
}
layer {
  name: "inception_3b/relu_1x1"
  type: "ReLU"
  bottom: "inception_3b/1x1"
  top: "inception_3b/1x1"
}
layer {
  name: "inception_3b/3x3_reduce"
  type: "Convolution"
  bottom: "inception_3a/output"
  top: "inception_3b/3x3_reduce"
  param {
    lr_mult: 1
    decay_mult: 1
  }
  param {
    lr_mult: 2
    decay_mult: 0
  }
  convolution_param {
    num_output: 128
    kernel_size: 1
    weight_filler {
      type: "xavier"
      std: 0.09
    }
    bias_filler {
      type: "constant"
      value: 0.2
    }
  }
}
layer {
  name: "inception_3b/relu_3x3_reduce"
  type: "ReLU"
  bottom: "inception_3b/3x3_reduce"
  top: "inception_3b/3x3_reduce"
}
layer {
  name: "inception_3b/3x3"
  type: "Convolution"
  bottom: "inception_3b/3x3_reduce"
  top: "inception_3b/3x3"
  param {
    lr_mult: 1
    decay_mult: 1
  }
  param {
    lr_mult: 2
    decay_mult: 0
  }
  convolution_param {
    num_output: 192
    pad: 1
    kernel_size: 3
    weight_filler {
      type: "xavier"
      std: 0.03
    }
    bias_filler {
      type: "constant"
      value: 0.2
    }
  }
}
layer {
  name: "inception_3b/relu_3x3"
  type: "ReLU"
  bottom: "inception_3b/3x3"
  top: "inception_3b/3x3"
}
layer {
  name: "inception_3b/5x5_reduce"
  type: "Convolution"
  bottom: "inception_3a/output"
  top: "inception_3b/5x5_reduce"
  param {
    lr_mult: 1
    decay_mult: 1
  }
  param {
    lr_mult: 2
    decay_mult: 0
  }
  convolution_param {
    num_output: 32
    kernel_size: 1
    weight_filler {
      type: "xavier"
      std: 0.2
    }
    bias_filler {
      type: "constant"
      value: 0.2
    }
  }
}
layer {
  name: "inception_3b/relu_5x5_reduce"
  type: "ReLU"
  bottom: "inception_3b/5x5_reduce"
  top: "inception_3b/5x5_reduce"
}
layer {
  name: "inception_3b/5x5"
  type: "Convolution"
  bottom: "inception_3b/5x5_reduce"
  top: "inception_3b/5x5"
  param {
    lr_mult: 1
    decay_mult: 1
  }
  param {
    lr_mult: 2
    decay_mult: 0
  }
  convolution_param {
    num_output: 96
    pad: 2
    kernel_size: 5
    weight_filler {
      type: "xavier"
      std: 0.03
    }
    bias_filler {
      type: "constant"
      value: 0.2
    }
  }
}
layer {
  name: "inception_3b/relu_5x5"
  type: "ReLU"
  bottom: "inception_3b/5x5"
  top: "inception_3b/5x5"
}
layer {
  name: "inception_3b/pool"
  type: "Pooling"
  bottom: "inception_3a/output"
  top: "inception_3b/pool"
  pooling_param {
    pool: MAX
    kernel_size: 3
    stride: 1
    pad: 1
  }
}
layer {
  name: "inception_3b/pool_proj"
  type: "Convolution"
  bottom: "inception_3b/pool"
  top: "inception_3b/pool_proj"
  param {
    lr_mult: 1
    decay_mult: 1
  }
  param {
    lr_mult: 2
    decay_mult: 0
  }
  convolution_param {
    num_output: 64
    kernel_size: 1
    weight_filler {
      type: "xavier"
      std: 0.1
    }
    bias_filler {
      type: "constant"
      value: 0.2
    }
  }
}
layer {
  name: "inception_3b/relu_pool_proj"
  type: "ReLU"
  bottom: "inception_3b/pool_proj"
  top: "inception_3b/pool_proj"
}
layer {
  name: "inception_3b/output"
  type: "Concat"
  bottom: "inception_3b/1x1"
  bottom: "inception_3b/3x3"
  bottom: "inception_3b/5x5"
  bottom: "inception_3b/pool_proj"
  top: "inception_3b/output"
}
layer {
  name: "pool3/3x3_s2"
  type: "Pooling"
  bottom: "inception_3b/output"
  top: "pool3/3x3_s2"
  pooling_param {
    pool: MAX
    kernel_size: 3
    stride: 2
  }
}
layer {
  name: "inception_4a/1x1"
  type: "Convolution"
  bottom: "pool3/3x3_s2"
  top: "inception_4a/1x1"
  param {
    lr_mult: 1
    decay_mult: 1
  }
  param {
    lr_mult: 2
    decay_mult: 0
  }
  convolution_param {
    num_output: 192
    kernel_size: 1
    weight_filler {
      type: "xavier"
      std: 0.03
    }
    bias_filler {
      type: "constant"
      value: 0.2
    }
  }
}
layer {
  name: "inception_4a/relu_1x1"
  type: "ReLU"
  bottom: "inception_4a/1x1"
  top: "inception_4a/1x1"
}
layer {
  name: "inception_4a/3x3_reduce"
  type: "Convolution"
  bottom: "pool3/3x3_s2"
  top: "inception_4a/3x3_reduce"
  param {
    lr_mult: 1
    decay_mult: 1
  }
  param {
    lr_mult: 2
    decay_mult: 0
  }
  convolution_param {
    num_output: 96
    kernel_size: 1
    weight_filler {
      type: "xavier"
      std: 0.09
    }
    bias_filler {
      type: "constant"
      value: 0.2
    }
  }
}
layer {
  name: "inception_4a/relu_3x3_reduce"
  type: "ReLU"
  bottom: "inception_4a/3x3_reduce"
  top: "inception_4a/3x3_reduce"
}
layer {
  name: "inception_4a/3x3"
  type: "Convolution"
  bottom: "inception_4a/3x3_reduce"
  top: "inception_4a/3x3"
  param {
    lr_mult: 1
    decay_mult: 1
  }
  param {
    lr_mult: 2
    decay_mult: 0
  }
  convolution_param {
    num_output: 208
    pad: 1
    kernel_size: 3
    weight_filler {
      type: "xavier"
      std: 0.03
    }
    bias_filler {
      type: "constant"
      value: 0.2
    }
  }
}
layer {
  name: "inception_4a/relu_3x3"
  type: "ReLU"
  bottom: "inception_4a/3x3"
  top: "inception_4a/3x3"
}
layer {
  name: "inception_4a/5x5_reduce"
  type: "Convolution"
  bottom: "pool3/3x3_s2"
  top: "inception_4a/5x5_reduce"
  param {
    lr_mult: 1
    decay_mult: 1
  }
  param {
    lr_mult: 2
    decay_mult: 0
  }
  convolution_param {
    num_output: 16
    kernel_size: 1
    weight_filler {
      type: "xavier"
      std: 0.2
    }
    bias_filler {
      type: "constant"
      value: 0.2
    }
  }
}
layer {
  name: "inception_4a/relu_5x5_reduce"
  type: "ReLU"
  bottom: "inception_4a/5x5_reduce"
  top: "inception_4a/5x5_reduce"
}
layer {
  name: "inception_4a/5x5"
  type: "Convolution"
  bottom: "inception_4a/5x5_reduce"
  top: "inception_4a/5x5"
  param {
    lr_mult: 1
    decay_mult: 1
  }
  param {
    lr_mult: 2
    decay_mult: 0
  }
  convolution_param {
    num_output: 48
    pad: 2
    kernel_size: 5
    weight_filler {
      type: "xavier"
      std: 0.03
    }
    bias_filler {
      type: "constant"
      value: 0.2
    }
  }
}
layer {
  name: "inception_4a/relu_5x5"
  type: "ReLU"
  bottom: "inception_4a/5x5"
  top: "inception_4a/5x5"
}
layer {
  name: "inception_4a/pool"
  type: "Pooling"
  bottom: "pool3/3x3_s2"
  top: "inception_4a/pool"
  pooling_param {
    pool: MAX
    kernel_size: 3
    stride: 1
    pad: 1
  }
}
layer {
  name: "inception_4a/pool_proj"
  type: "Convolution"
  bottom: "inception_4a/pool"
  top: "inception_4a/pool_proj"
  param {
    lr_mult: 1
    decay_mult: 1
  }
  param {
    lr_mult: 2
    decay_mult: 0
  }
  convolution_param {
    num_output: 64
    kernel_size: 1
    weight_filler {
      type: "xavier"
      std: 0.1
    }
    bias_filler {
      type: "constant"
      value: 0.2
    }
  }
}
layer {
  name: "inception_4a/relu_pool_proj"
  type: "ReLU"
  bottom: "inception_4a/pool_proj"
  top: "inception_4a/pool_proj"
}
layer {
  name: "inception_4a/output"
  type: "Concat"
  bottom: "inception_4a/1x1"
  bottom: "inception_4a/3x3"
  bottom: "inception_4a/5x5"
  bottom: "inception_4a/pool_proj"
  top: "inception_4a/output"
}
layer {
  name: "loss1/ave_pool"
  type: "Pooling"
  bottom: "inception_4a/output"
  top: "loss1/ave_pool"
  pooling_param {
    pool: AVE
    kernel_size: 5
    stride: 3
  }
}
layer {
  name: "loss1/conv"
  type: "Convolution"
  bottom: "loss1/ave_pool"
  top: "loss1/conv"
  param {
    lr_mult: 1
    decay_mult: 1
  }
  param {
    lr_mult: 2
    decay_mult: 0
  }
  convolution_param {
    num_output: 128
    kernel_size: 1
    weight_filler {
      type: "xavier"
      std: 0.08
    }
    bias_filler {
      type: "constant"
      value: 0.2
    }
  }
}
layer {
  name: "loss1/relu_conv"
  type: "ReLU"
  bottom: "loss1/conv"
  top: "loss1/conv"
}
layer {
  name: "loss1/fc"
  type: "InnerProduct"
  bottom: "loss1/conv"
  top: "loss1/fc"
  param {
    lr_mult: 1
    decay_mult: 1
  }
  param {
    lr_mult: 2
    decay_mult: 0
  }
  inner_product_param {
    num_output: 1024
    weight_filler {
      type: "xavier"
      std: 0.02
    }
    bias_filler {
      type: "constant"
      value: 0.2
    }
  }
}
layer {
  name: "loss1/relu_fc"
  type: "ReLU"
  bottom: "loss1/fc"
  top: "loss1/fc"
}
layer {
  name: "loss1/drop_fc"
  type: "Dropout"
  bottom: "loss1/fc"
  top: "loss1/fc"
  dropout_param {
    dropout_ratio: 0.7
  }
}
layer {
  name: "loss1/classifier_plantvillage"
  type: "InnerProduct"
  bottom: "loss1/fc"
  top: "loss1/classifier_plantvillage"
  param {
    lr_mult: 1
    decay_mult: 1
  }
  param {
    lr_mult: 2
    decay_mult: 0
  }
  inner_product_param {
    num_output: 38
    weight_filler {
      type: "xavier"
      std: 0.0009765625
    }
    bias_filler {
      type: "constant"
      value: 0
    }
  }
}
layer {
  name: "inception_4b/1x1"
  type: "Convolution"
  bottom: "inception_4a/output"
  top: "inception_4b/1x1"
  param {
    lr_mult: 1
    decay_mult: 1
  }
  param {
    lr_mult: 2
    decay_mult: 0
  }
  convolution_param {
    num_output: 160
    kernel_size: 1
    weight_filler {
      type: "xavier"
      std: 0.03
    }
    bias_filler {
      type: "constant"
      value: 0.2
    }
  }
}
layer {
  name: "inception_4b/relu_1x1"
  type: "ReLU"
  bottom: "inception_4b/1x1"
  top: "inception_4b/1x1"
}
layer {
  name: "inception_4b/3x3_reduce"
  type: "Convolution"
  bottom: "inception_4a/output"
  top: "inception_4b/3x3_reduce"
  param {
    lr_mult: 1
    decay_mult: 1
  }
  param {
    lr_mult: 2
    decay_mult: 0
  }
  convolution_param {
    num_output: 112
    kernel_size: 1
    weight_filler {
      type: "xavier"
      std: 0.09
    }
    bias_filler {
      type: "constant"
      value: 0.2
    }
  }
}
layer {
  name: "inception_4b/relu_3x3_reduce"
  type: "ReLU"
  bottom: "inception_4b/3x3_reduce"
  top: "inception_4b/3x3_reduce"
}
layer {
  name: "inception_4b/3x3"
  type: "Convolution"
  bottom: "inception_4b/3x3_reduce"
  top: "inception_4b/3x3"
  param {
    lr_mult: 1
    decay_mult: 1
  }
  param {
    lr_mult: 2
    decay_mult: 0
  }
  convolution_param {
    num_output: 224
    pad: 1
    kernel_size: 3
    weight_filler {
      type: "xavier"
      std: 0.03
    }
    bias_filler {
      type: "constant"
      value: 0.2
    }
  }
}
layer {
  name: "inception_4b/relu_3x3"
  type: "ReLU"
  bottom: "inception_4b/3x3"
  top: "inception_4b/3x3"
}
layer {
  name: "inception_4b/5x5_reduce"
  type: "Convolution"
  bottom: "inception_4a/output"
  top: "inception_4b/5x5_reduce"
  param {
    lr_mult: 1
    decay_mult: 1
  }
  param {
    lr_mult: 2
    decay_mult: 0
  }
  convolution_param {
    num_output: 24
    kernel_size: 1
    weight_filler {
      type: "xavier"
      std: 0.2
    }
    bias_filler {
      type: "constant"
      value: 0.2
    }
  }
}
layer {
  name: "inception_4b/relu_5x5_reduce"
  type: "ReLU"
  bottom: "inception_4b/5x5_reduce"
  top: "inception_4b/5x5_reduce"
}
layer {
  name: "inception_4b/5x5"
  type: "Convolution"
  bottom: "inception_4b/5x5_reduce"
  top: "inception_4b/5x5"
  param {
    lr_mult: 1
    decay_mult: 1
  }
  param {
    lr_mult: 2
    decay_mult: 0
  }
  convolution_param {
    num_output: 64
    pad: 2
    kernel_size: 5
    weight_filler {
      type: "xavier"
      std: 0.03
    }
    bias_filler {
      type: "constant"
      value: 0.2
    }
  }
}
layer {
  name: "inception_4b/relu_5x5"
  type: "ReLU"
  bottom: "inception_4b/5x5"
  top: "inception_4b/5x5"
}
layer {
  name: "inception_4b/pool"
  type: "Pooling"
  bottom: "inception_4a/output"
  top: "inception_4b/pool"
  pooling_param {
    pool: MAX
    kernel_size: 3
    stride: 1
    pad: 1
  }
}
layer {
  name: "inception_4b/pool_proj"
  type: "Convolution"
  bottom: "inception_4b/pool"
  top: "inception_4b/pool_proj"
  param {
    lr_mult: 1
    decay_mult: 1
  }
  param {
    lr_mult: 2
    decay_mult: 0
  }
  convolution_param {
    num_output: 64
    kernel_size: 1
    weight_filler {
      type: "xavier"
      std: 0.1
    }
    bias_filler {
      type: "constant"
      value: 0.2
    }
  }
}
layer {
  name: "inception_4b/relu_pool_proj"
  type: "ReLU"
  bottom: "inception_4b/pool_proj"
  top: "inception_4b/pool_proj"
}
layer {
  name: "inception_4b/output"
  type: "Concat"
  bottom: "inception_4b/1x1"
  bottom: "inception_4b/3x3"
  bottom: "inception_4b/5x5"
  bottom: "inception_4b/pool_proj"
  top: "inception_4b/output"
}
layer {
  name: "inception_4c/1x1"
  type: "Convolution"
  bottom: "inception_4b/output"
  top: "inception_4c/1x1"
  param {
    lr_mult: 1
    decay_mult: 1
  }
  param {
    lr_mult: 2
    decay_mult: 0
  }
  convolution_param {
    num_output: 128
    kernel_size: 1
    weight_filler {
      type: "xavier"
      std: 0.03
    }
    bias_filler {
      type: "constant"
      value: 0.2
    }
  }
}
layer {
  name: "inception_4c/relu_1x1"
  type: "ReLU"
  bottom: "inception_4c/1x1"
  top: "inception_4c/1x1"
}
layer {
  name: "inception_4c/3x3_reduce"
  type: "Convolution"
  bottom: "inception_4b/output"
  top: "inception_4c/3x3_reduce"
  param {
    lr_mult: 1
    decay_mult: 1
  }
  param {
    lr_mult: 2
    decay_mult: 0
  }
  convolution_param {
    num_output: 128
    kernel_size: 1
    weight_filler {
      type: "xavier"
      std: 0.09
    }
    bias_filler {
      type: "constant"
      value: 0.2
    }
  }
}
layer {
  name: "inception_4c/relu_3x3_reduce"
  type: "ReLU"
  bottom: "inception_4c/3x3_reduce"
  top: "inception_4c/3x3_reduce"
}
layer {
  name: "inception_4c/3x3"
  type: "Convolution"
  bottom: "inception_4c/3x3_reduce"
  top: "inception_4c/3x3"
  param {
    lr_mult: 1
    decay_mult: 1
  }
  param {
    lr_mult: 2
    decay_mult: 0
  }
  convolution_param {
    num_output: 256
    pad: 1
    kernel_size: 3
    weight_filler {
      type: "xavier"
      std: 0.03
    }
    bias_filler {
      type: "constant"
      value: 0.2
    }
  }
}
layer {
  name: "inception_4c/relu_3x3"
  type: "ReLU"
  bottom: "inception_4c/3x3"
  top: "inception_4c/3x3"
}
layer {
  name: "inception_4c/5x5_reduce"
  type: "Convolution"
  bottom: "inception_4b/output"
  top: "inception_4c/5x5_reduce"
  param {
    lr_mult: 1
    decay_mult: 1
  }
  param {
    lr_mult: 2
    decay_mult: 0
  }
  convolution_param {
    num_output: 24
    kernel_size: 1
    weight_filler {
      type: "xavier"
      std: 0.2
    }
    bias_filler {
      type: "constant"
      value: 0.2
    }
  }
}
layer {
  name: "inception_4c/relu_5x5_reduce"
  type: "ReLU"
  bottom: "inception_4c/5x5_reduce"
  top: "inception_4c/5x5_reduce"
}
layer {
  name: "inception_4c/5x5"
  type: "Convolution"
  bottom: "inception_4c/5x5_reduce"
  top: "inception_4c/5x5"
  param {
    lr_mult: 1
    decay_mult: 1
  }
  param {
    lr_mult: 2
    decay_mult: 0
  }
  convolution_param {
    num_output: 64
    pad: 2
    kernel_size: 5
    weight_filler {
      type: "xavier"
      std: 0.03
    }
    bias_filler {
      type: "constant"
      value: 0.2
    }
  }
}
layer {
  name: "inception_4c/relu_5x5"
  type: "ReLU"
  bottom: "inception_4c/5x5"
  top: "inception_4c/5x5"
}
layer {
  name: "inception_4c/pool"
  type: "Pooling"
  bottom: "inception_4b/output"
  top: "inception_4c/pool"
  pooling_param {
    pool: MAX
    kernel_size: 3
    stride: 1
    pad: 1
  }
}
layer {
  name: "inception_4c/pool_proj"
  type: "Convolution"
  bottom: "inception_4c/pool"
  top: "inception_4c/pool_proj"
  param {
    lr_mult: 1
    decay_mult: 1
  }
  param {
    lr_mult: 2
    decay_mult: 0
  }
  convolution_param {
    num_output: 64
    kernel_size: 1
    weight_filler {
      type: "xavier"
      std: 0.1
    }
    bias_filler {
      type: "constant"
      value: 0.2
    }
  }
}
layer {
  name: "inception_4c/relu_pool_proj"
  type: "ReLU"
  bottom: "inception_4c/pool_proj"
  top: "inception_4c/pool_proj"
}
layer {
  name: "inception_4c/output"
  type: "Concat"
  bottom: "inception_4c/1x1"
  bottom: "inception_4c/3x3"
  bottom: "inception_4c/5x5"
  bottom: "inception_4c/pool_proj"
  top: "inception_4c/output"
}
layer {
  name: "inception_4d/1x1"
  type: "Convolution"
  bottom: "inception_4c/output"
  top: "inception_4d/1x1"
  param {
    lr_mult: 1
    decay_mult: 1
  }
  param {
    lr_mult: 2
    decay_mult: 0
  }
  convolution_param {
    num_output: 112
    kernel_size: 1
    weight_filler {
      type: "xavier"
      std: 0.03
    }
    bias_filler {
      type: "constant"
      value: 0.2
    }
  }
}
layer {
  name: "inception_4d/relu_1x1"
  type: "ReLU"
  bottom: "inception_4d/1x1"
  top: "inception_4d/1x1"
}
layer {
  name: "inception_4d/3x3_reduce"
  type: "Convolution"
  bottom: "inception_4c/output"
  top: "inception_4d/3x3_reduce"
  param {
    lr_mult: 1
    decay_mult: 1
  }
  param {
    lr_mult: 2
    decay_mult: 0
  }
  convolution_param {
    num_output: 144
    kernel_size: 1
    weight_filler {
      type: "xavier"
      std: 0.09
    }
    bias_filler {
      type: "constant"
      value: 0.2
    }
  }
}
layer {
  name: "inception_4d/relu_3x3_reduce"
  type: "ReLU"
  bottom: "inception_4d/3x3_reduce"
  top: "inception_4d/3x3_reduce"
}
layer {
  name: "inception_4d/3x3"
  type: "Convolution"
  bottom: "inception_4d/3x3_reduce"
  top: "inception_4d/3x3"
  param {
    lr_mult: 1
    decay_mult: 1
  }
  param {
    lr_mult: 2
    decay_mult: 0
  }
  convolution_param {
    num_output: 288
    pad: 1
    kernel_size: 3
    weight_filler {
      type: "xavier"
      std: 0.03
    }
    bias_filler {
      type: "constant"
      value: 0.2
    }
  }
}
layer {
  name: "inception_4d/relu_3x3"
  type: "ReLU"
  bottom: "inception_4d/3x3"
  top: "inception_4d/3x3"
}
layer {
  name: "inception_4d/5x5_reduce"
  type: "Convolution"
  bottom: "inception_4c/output"
  top: "inception_4d/5x5_reduce"
  param {
    lr_mult: 1
    decay_mult: 1
  }
  param {
    lr_mult: 2
    decay_mult: 0
  }
  convolution_param {
    num_output: 32
    kernel_size: 1
    weight_filler {
      type: "xavier"
      std: 0.2
    }
    bias_filler {
      type: "constant"
      value: 0.2
    }
  }
}
layer {
  name: "inception_4d/relu_5x5_reduce"
  type: "ReLU"
  bottom: "inception_4d/5x5_reduce"
  top: "inception_4d/5x5_reduce"
}
layer {
  name: "inception_4d/5x5"
  type: "Convolution"
  bottom: "inception_4d/5x5_reduce"
  top: "inception_4d/5x5"
  param {
    lr_mult: 1
    decay_mult: 1
  }
  param {
    lr_mult: 2
    decay_mult: 0
  }
  convolution_param {
    num_output: 64
    pad: 2
    kernel_size: 5
    weight_filler {
      type: "xavier"
      std: 0.03
    }
    bias_filler {
      type: "constant"
      value: 0.2
    }
  }
}
layer {
  name: "inception_4d/relu_5x5"
  type: "ReLU"
  bottom: "inception_4d/5x5"
  top: "inception_4d/5x5"
}
layer {
  name: "inception_4d/pool"
  type: "Pooling"
  bottom: "inception_4c/output"
  top: "inception_4d/pool"
  pooling_param {
    pool: MAX
    kernel_size: 3
    stride: 1
    pad: 1
  }
}
layer {
  name: "inception_4d/pool_proj"
  type: "Convolution"
  bottom: "inception_4d/pool"
  top: "inception_4d/pool_proj"
  param {
    lr_mult: 1
    decay_mult: 1
  }
  param {
    lr_mult: 2
    decay_mult: 0
  }
  convolution_param {
    num_output: 64
    kernel_size: 1
    weight_filler {
      type: "xavier"
      std: 0.1
    }
    bias_filler {
      type: "constant"
      value: 0.2
    }
  }
}
layer {
  name: "inception_4d/relu_pool_proj"
  type: "ReLU"
  bottom: "inception_4d/pool_proj"
  top: "inception_4d/pool_proj"
}
layer {
  name: "inception_4d/output"
  type: "Concat"
  bottom: "inception_4d/1x1"
  bottom: "inception_4d/3x3"
  bottom: "inception_4d/5x5"
  bottom: "inception_4d/pool_proj"
  top: "inception_4d/output"
}
layer {
  name: "loss2/ave_pool"
  type: "Pooling"
  bottom: "inception_4d/output"
  top: "loss2/ave_pool"
  pooling_param {
    pool: AVE
    kernel_size: 5
    stride: 3
  }
}
layer {
  name: "loss2/conv"
  type: "Convolution"
  bottom: "loss2/ave_pool"
  top: "loss2/conv"
  param {
    lr_mult: 1
    decay_mult: 1
  }
  param {
    lr_mult: 2
    decay_mult: 0
  }
  convolution_param {
    num_output: 128
    kernel_size: 1
    weight_filler {
      type: "xavier"
      std: 0.08
    }
    bias_filler {
      type: "constant"
      value: 0.2
    }
  }
}
layer {
  name: "loss2/relu_conv"
  type: "ReLU"
  bottom: "loss2/conv"
  top: "loss2/conv"
}
layer {
  name: "loss2/fc"
  type: "InnerProduct"
  bottom: "loss2/conv"
  top: "loss2/fc"
  param {
    lr_mult: 1
    decay_mult: 1
  }
  param {
    lr_mult: 2
    decay_mult: 0
  }
  inner_product_param {
    num_output: 1024
    weight_filler {
      type: "xavier"
      std: 0.02
    }
    bias_filler {
      type: "constant"
      value: 0.2
    }
  }
}
layer {
  name: "loss2/relu_fc"
  type: "ReLU"
  bottom: "loss2/fc"
  top: "loss2/fc"
}
layer {
  name: "loss2/drop_fc"
  type: "Dropout"
  bottom: "loss2/fc"
  top: "loss2/fc"
  dropout_param {
    dropout_ratio: 0.7
  }
}
layer {
  name: "loss2/classifier_plantvillage"
  type: "InnerProduct"
  bottom: "loss2/fc"
  top: "loss2/classifier_plantvillage"
  param {
    lr_mult: 1
    decay_mult: 1
  }
  param {
    lr_mult: 2
    decay_mult: 0
  }
  inner_product_param {
    num_output: 38
    weight_filler {
      type: "xavier"
      std: 0.0009765625
    }
    bias_filler {
      type: "constant"
      value: 0
    }
  }
}
layer {
  name: "inception_4e/1x1"
  type: "Convolution"
  bottom: "inception_4d/output"
  top: "inception_4e/1x1"
  param {
    lr_mult: 1
    decay_mult: 1
  }
  param {
    lr_mult: 2
    decay_mult: 0
  }
  convolution_param {
    num_output: 256
    kernel_size: 1
    weight_filler {
      type: "xavier"
      std: 0.03
    }
    bias_filler {
      type: "constant"
      value: 0.2
    }
  }
}
layer {
  name: "inception_4e/relu_1x1"
  type: "ReLU"
  bottom: "inception_4e/1x1"
  top: "inception_4e/1x1"
}
layer {
  name: "inception_4e/3x3_reduce"
  type: "Convolution"
  bottom: "inception_4d/output"
  top: "inception_4e/3x3_reduce"
  param {
    lr_mult: 1
    decay_mult: 1
  }
  param {
    lr_mult: 2
    decay_mult: 0
  }
  convolution_param {
    num_output: 160
    kernel_size: 1
    weight_filler {
      type: "xavier"
      std: 0.09
    }
    bias_filler {
      type: "constant"
      value: 0.2
    }
  }
}
layer {
  name: "inception_4e/relu_3x3_reduce"
  type: "ReLU"
  bottom: "inception_4e/3x3_reduce"
  top: "inception_4e/3x3_reduce"
}
layer {
  name: "inception_4e/3x3"
  type: "Convolution"
  bottom: "inception_4e/3x3_reduce"
  top: "inception_4e/3x3"
  param {
    lr_mult: 1
    decay_mult: 1
  }
  param {
    lr_mult: 2
    decay_mult: 0
  }
  convolution_param {
    num_output: 320
    pad: 1
    kernel_size: 3
    weight_filler {
      type: "xavier"
      std: 0.03
    }
    bias_filler {
      type: "constant"
      value: 0.2
    }
  }
}
layer {
  name: "inception_4e/relu_3x3"
  type: "ReLU"
  bottom: "inception_4e/3x3"
  top: "inception_4e/3x3"
}
layer {
  name: "inception_4e/5x5_reduce"
  type: "Convolution"
  bottom: "inception_4d/output"
  top: "inception_4e/5x5_reduce"
  param {
    lr_mult: 1
    decay_mult: 1
  }
  param {
    lr_mult: 2
    decay_mult: 0
  }
  convolution_param {
    num_output: 32
    kernel_size: 1
    weight_filler {
      type: "xavier"
      std: 0.2
    }
    bias_filler {
      type: "constant"
      value: 0.2
    }
  }
}
layer {
  name: "inception_4e/relu_5x5_reduce"
  type: "ReLU"
  bottom: "inception_4e/5x5_reduce"
  top: "inception_4e/5x5_reduce"
}
layer {
  name: "inception_4e/5x5"
  type: "Convolution"
  bottom: "inception_4e/5x5_reduce"
  top: "inception_4e/
I0403 16:41:12.256968 18942 layer_factory.hpp:77] Creating layer data
I0403 16:41:12.257555 18942 net.cpp:91] Creating Layer data
I0403 16:41:12.257591 18942 net.cpp:399] data -> data
I0403 16:41:12.257642 18942 net.cpp:399] data -> label
I0403 16:41:12.257676 18942 data_transformer.cpp:25] Loading mean file from: /home/mohanty/data/final_dataset/lmdb/segmented-20-80/mean.binaryproto
I0403 16:41:12.258772 18945 db_lmdb.cpp:38] Opened lmdb /home/mohanty/data/final_dataset/lmdb/segmented-20-80/test_db
I0403 16:41:12.270261 18942 data_layer.cpp:41] output data size: 24,3,224,224
I0403 16:41:12.297122 18942 net.cpp:141] Setting up data
I0403 16:41:12.297200 18942 net.cpp:148] Top shape: 24 3 224 224 (3612672)
I0403 16:41:12.297224 18942 net.cpp:148] Top shape: 24 (24)
I0403 16:41:12.297240 18942 net.cpp:156] Memory required for data: 14450784
I0403 16:41:12.297268 18942 layer_factory.hpp:77] Creating layer label_data_1_split
I0403 16:41:12.297297 18942 net.cpp:91] Creating Layer label_data_1_split
I0403 16:41:12.297315 18942 net.cpp:425] label_data_1_split <- label
I0403 16:41:12.297348 18942 net.cpp:399] label_data_1_split -> label_data_1_split_0
I0403 16:41:12.297375 18942 net.cpp:399] label_data_1_split -> label_data_1_split_1
I0403 16:41:12.297399 18942 net.cpp:399] label_data_1_split -> label_data_1_split_2
I0403 16:41:12.297420 18942 net.cpp:399] label_data_1_split -> label_data_1_split_3
I0403 16:41:12.297441 18942 net.cpp:399] label_data_1_split -> label_data_1_split_4
I0403 16:41:12.297461 18942 net.cpp:399] label_data_1_split -> label_data_1_split_5
I0403 16:41:12.297480 18942 net.cpp:399] label_data_1_split -> label_data_1_split_6
I0403 16:41:12.297500 18942 net.cpp:399] label_data_1_split -> label_data_1_split_7
I0403 16:41:12.297521 18942 net.cpp:399] label_data_1_split -> label_data_1_split_8
I0403 16:41:12.297543 18942 net.cpp:399] label_data_1_split -> label_data_1_split_9
I0403 16:41:12.297662 18942 net.cpp:141] Setting up label_data_1_split
I0403 16:41:12.297685 18942 net.cpp:148] Top shape: 24 (24)
I0403 16:41:12.297701 18942 net.cpp:148] Top shape: 24 (24)
I0403 16:41:12.297718 18942 net.cpp:148] Top shape: 24 (24)
I0403 16:41:12.297734 18942 net.cpp:148] Top shape: 24 (24)
I0403 16:41:12.297749 18942 net.cpp:148] Top shape: 24 (24)
I0403 16:41:12.297762 18942 net.cpp:148] Top shape: 24 (24)
I0403 16:41:12.297777 18942 net.cpp:148] Top shape: 24 (24)
I0403 16:41:12.297792 18942 net.cpp:148] Top shape: 24 (24)
I0403 16:41:12.297807 18942 net.cpp:148] Top shape: 24 (24)
I0403 16:41:12.297822 18942 net.cpp:148] Top shape: 24 (24)
I0403 16:41:12.297874 18942 net.cpp:156] Memory required for data: 14451744
I0403 16:41:12.297890 18942 layer_factory.hpp:77] Creating layer conv1/7x7_s2
I0403 16:41:12.297921 18942 net.cpp:91] Creating Layer conv1/7x7_s2
I0403 16:41:12.297940 18942 net.cpp:425] conv1/7x7_s2 <- data
I0403 16:41:12.297958 18942 net.cpp:399] conv1/7x7_s2 -> conv1/7x7_s2
I0403 16:41:12.433380 18942 net.cpp:141] Setting up conv1/7x7_s2
I0403 16:41:12.433464 18942 net.cpp:148] Top shape: 24 64 112 112 (19267584)
I0403 16:41:12.433480 18942 net.cpp:156] Memory required for data: 91522080
I0403 16:41:12.433508 18942 layer_factory.hpp:77] Creating layer conv1/relu_7x7
I0403 16:41:12.433533 18942 net.cpp:91] Creating Layer conv1/relu_7x7
I0403 16:41:12.433550 18942 net.cpp:425] conv1/relu_7x7 <- conv1/7x7_s2
I0403 16:41:12.433573 18942 net.cpp:386] conv1/relu_7x7 -> conv1/7x7_s2 (in-place)
I0403 16:41:12.433812 18942 net.cpp:141] Setting up conv1/relu_7x7
I0403 16:41:12.433838 18942 net.cpp:148] Top shape: 24 64 112 112 (19267584)
I0403 16:41:12.433852 18942 net.cpp:156] Memory required for data: 168592416
I0403 16:41:12.433866 18942 layer_factory.hpp:77] Creating layer pool1/3x3_s2
I0403 16:41:12.433888 18942 net.cpp:91] Creating Layer pool1/3x3_s2
I0403 16:41:12.433905 18942 net.cpp:425] pool1/3x3_s2 <- conv1/7x7_s2
I0403 16:41:12.433923 18942 net.cpp:399] pool1/3x3_s2 -> pool1/3x3_s2
I0403 16:41:12.433992 18942 net.cpp:141] Setting up pool1/3x3_s2
I0403 16:41:12.434015 18942 net.cpp:148] Top shape: 24 64 56 56 (4816896)
I0403 16:41:12.434028 18942 net.cpp:156] Memory required for data: 187860000
I0403 16:41:12.434041 18942 layer_factory.hpp:77] Creating layer pool1/norm1
I0403 16:41:12.434063 18942 net.cpp:91] Creating Layer pool1/norm1
I0403 16:41:12.434078 18942 net.cpp:425] pool1/norm1 <- pool1/3x3_s2
I0403 16:41:12.434095 18942 net.cpp:399] pool1/norm1 -> pool1/norm1
I0403 16:41:12.434358 18942 net.cpp:141] Setting up pool1/norm1
I0403 16:41:12.434383 18942 net.cpp:148] Top shape: 24 64 56 56 (4816896)
I0403 16:41:12.434397 18942 net.cpp:156] Memory required for data: 207127584
I0403 16:41:12.434412 18942 layer_factory.hpp:77] Creating layer conv2/3x3_reduce
I0403 16:41:12.434433 18942 net.cpp:91] Creating Layer conv2/3x3_reduce
I0403 16:41:12.434449 18942 net.cpp:425] conv2/3x3_reduce <- pool1/norm1
I0403 16:41:12.434466 18942 net.cpp:399] conv2/3x3_reduce -> conv2/3x3_reduce
I0403 16:41:12.435773 18942 net.cpp:141] Setting up conv2/3x3_reduce
I0403 16:41:12.435801 18942 net.cpp:148] Top shape: 24 64 56 56 (4816896)
I0403 16:41:12.435816 18942 net.cpp:156] Memory required for data: 226395168
I0403 16:41:12.435835 18942 layer_factory.hpp:77] Creating layer conv2/relu_3x3_reduce
I0403 16:41:12.435854 18942 net.cpp:91] Creating Layer conv2/relu_3x3_reduce
I0403 16:41:12.435869 18942 net.cpp:425] conv2/relu_3x3_reduce <- conv2/3x3_reduce
I0403 16:41:12.435885 18942 net.cpp:386] conv2/relu_3x3_reduce -> conv2/3x3_reduce (in-place)
I0403 16:41:12.436139 18942 net.cpp:141] Setting up conv2/relu_3x3_reduce
I0403 16:41:12.436164 18942 net.cpp:148] Top shape: 24 64 56 56 (4816896)
I0403 16:41:12.436178 18942 net.cpp:156] Memory required for data: 245662752
I0403 16:41:12.436192 18942 layer_factory.hpp:77] Creating layer conv2/3x3
I0403 16:41:12.436213 18942 net.cpp:91] Creating Layer conv2/3x3
I0403 16:41:12.436230 18942 net.cpp:425] conv2/3x3 <- conv2/3x3_reduce
I0403 16:41:12.436250 18942 net.cpp:399] conv2/3x3 -> conv2/3x3
I0403 16:41:12.438400 18942 net.cpp:141] Setting up conv2/3x3
I0403 16:41:12.438428 18942 net.cpp:148] Top shape: 24 192 56 56 (14450688)
I0403 16:41:12.438443 18942 net.cpp:156] Memory required for data: 303465504
I0403 16:41:12.438462 18942 layer_factory.hpp:77] Creating layer conv2/relu_3x3
I0403 16:41:12.438482 18942 net.cpp:91] Creating Layer conv2/relu_3x3
I0403 16:41:12.438498 18942 net.cpp:425] conv2/relu_3x3 <- conv2/3x3
I0403 16:41:12.438513 18942 net.cpp:386] conv2/relu_3x3 -> conv2/3x3 (in-place)
I0403 16:41:12.438679 18942 net.cpp:141] Setting up conv2/relu_3x3
I0403 16:41:12.438705 18942 net.cpp:148] Top shape: 24 192 56 56 (14450688)
I0403 16:41:12.438757 18942 net.cpp:156] Memory required for data: 361268256
I0403 16:41:12.438772 18942 layer_factory.hpp:77] Creating layer conv2/norm2
I0403 16:41:12.438788 18942 net.cpp:91] Creating Layer conv2/norm2
I0403 16:41:12.438802 18942 net.cpp:425] conv2/norm2 <- conv2/3x3
I0403 16:41:12.438822 18942 net.cpp:399] conv2/norm2 -> conv2/norm2
I0403 16:41:12.439108 18942 net.cpp:141] Setting up conv2/norm2
I0403 16:41:12.439134 18942 net.cpp:148] Top shape: 24 192 56 56 (14450688)
I0403 16:41:12.439148 18942 net.cpp:156] Memory required for data: 419071008
I0403 16:41:12.439162 18942 layer_factory.hpp:77] Creating layer pool2/3x3_s2
I0403 16:41:12.439178 18942 net.cpp:91] Creating Layer pool2/3x3_s2
I0403 16:41:12.439193 18942 net.cpp:425] pool2/3x3_s2 <- conv2/norm2
I0403 16:41:12.439211 18942 net.cpp:399] pool2/3x3_s2 -> pool2/3x3_s2
I0403 16:41:12.439260 18942 net.cpp:141] Setting up pool2/3x3_s2
I0403 16:41:12.439281 18942 net.cpp:148] Top shape: 24 192 28 28 (3612672)
I0403 16:41:12.439297 18942 net.cpp:156] Memory required for data: 433521696
I0403 16:41:12.439311 18942 layer_factory.hpp:77] Creating layer pool2/3x3_s2_pool2/3x3_s2_0_split
I0403 16:41:12.439327 18942 net.cpp:91] Creating Layer pool2/3x3_s2_pool2/3x3_s2_0_split
I0403 16:41:12.439342 18942 net.cpp:425] pool2/3x3_s2_pool2/3x3_s2_0_split <- pool2/3x3_s2
I0403 16:41:12.439360 18942 net.cpp:399] pool2/3x3_s2_pool2/3x3_s2_0_split -> pool2/3x3_s2_pool2/3x3_s2_0_split_0
I0403 16:41:12.439379 18942 net.cpp:399] pool2/3x3_s2_pool2/3x3_s2_0_split -> pool2/3x3_s2_pool2/3x3_s2_0_split_1
I0403 16:41:12.439398 18942 net.cpp:399] pool2/3x3_s2_pool2/3x3_s2_0_split -> pool2/3x3_s2_pool2/3x3_s2_0_split_2
I0403 16:41:12.439415 18942 net.cpp:399] pool2/3x3_s2_pool2/3x3_s2_0_split -> pool2/3x3_s2_pool2/3x3_s2_0_split_3
I0403 16:41:12.439479 18942 net.cpp:141] Setting up pool2/3x3_s2_pool2/3x3_s2_0_split
I0403 16:41:12.439502 18942 net.cpp:148] Top shape: 24 192 28 28 (3612672)
I0403 16:41:12.439519 18942 net.cpp:148] Top shape: 24 192 28 28 (3612672)
I0403 16:41:12.439533 18942 net.cpp:148] Top shape: 24 192 28 28 (3612672)
I0403 16:41:12.439548 18942 net.cpp:148] Top shape: 24 192 28 28 (3612672)
I0403 16:41:12.439559 18942 net.cpp:156] Memory required for data: 491324448
I0403 16:41:12.439577 18942 layer_factory.hpp:77] Creating layer inception_3a/1x1
I0403 16:41:12.439597 18942 net.cpp:91] Creating Layer inception_3a/1x1
I0403 16:41:12.439612 18942 net.cpp:425] inception_3a/1x1 <- pool2/3x3_s2_pool2/3x3_s2_0_split_0
I0403 16:41:12.439632 18942 net.cpp:399] inception_3a/1x1 -> inception_3a/1x1
I0403 16:41:12.441071 18942 net.cpp:141] Setting up inception_3a/1x1
I0403 16:41:12.441099 18942 net.cpp:148] Top shape: 24 64 28 28 (1204224)
I0403 16:41:12.441114 18942 net.cpp:156] Memory required for data: 496141344
I0403 16:41:12.441131 18942 layer_factory.hpp:77] Creating layer inception_3a/relu_1x1
I0403 16:41:12.441150 18942 net.cpp:91] Creating Layer inception_3a/relu_1x1
I0403 16:41:12.441166 18942 net.cpp:425] inception_3a/relu_1x1 <- inception_3a/1x1
I0403 16:41:12.441182 18942 net.cpp:386] inception_3a/relu_1x1 -> inception_3a/1x1 (in-place)
I0403 16:41:12.441349 18942 net.cpp:141] Setting up inception_3a/relu_1x1
I0403 16:41:12.441371 18942 net.cpp:148] Top shape: 24 64 28 28 (1204224)
I0403 16:41:12.441385 18942 net.cpp:156] Memory required for data: 500958240
I0403 16:41:12.441400 18942 layer_factory.hpp:77] Creating layer inception_3a/3x3_reduce
I0403 16:41:12.441421 18942 net.cpp:91] Creating Layer inception_3a/3x3_reduce
I0403 16:41:12.441437 18942 net.cpp:425] inception_3a/3x3_reduce <- pool2/3x3_s2_pool2/3x3_s2_0_split_1
I0403 16:41:12.441454 18942 net.cpp:399] inception_3a/3x3_reduce -> inception_3a/3x3_reduce
I0403 16:41:12.443065 18942 net.cpp:141] Setting up inception_3a/3x3_reduce
I0403 16:41:12.443092 18942 net.cpp:148] Top shape: 24 96 28 28 (1806336)
I0403 16:41:12.443107 18942 net.cpp:156] Memory required for data: 508183584
I0403 16:41:12.443127 18942 layer_factory.hpp:77] Creating layer inception_3a/relu_3x3_reduce
I0403 16:41:12.443162 18942 net.cpp:91] Creating Layer inception_3a/relu_3x3_reduce
I0403 16:41:12.443179 18942 net.cpp:425] inception_3a/relu_3x3_reduce <- inception_3a/3x3_reduce
I0403 16:41:12.443195 18942 net.cpp:386] inception_3a/relu_3x3_reduce -> inception_3a/3x3_reduce (in-place)
I0403 16:41:12.443364 18942 net.cpp:141] Setting up inception_3a/relu_3x3_reduce
I0403 16:41:12.443387 18942 net.cpp:148] Top shape: 24 96 28 28 (1806336)
I0403 16:41:12.443402 18942 net.cpp:156] Memory required for data: 515408928
I0403 16:41:12.443414 18942 layer_factory.hpp:77] Creating layer inception_3a/3x3
I0403 16:41:12.443435 18942 net.cpp:91] Creating Layer inception_3a/3x3
I0403 16:41:12.443451 18942 net.cpp:425] inception_3a/3x3 <- inception_3a/3x3_reduce
I0403 16:41:12.443471 18942 net.cpp:399] inception_3a/3x3 -> inception_3a/3x3
I0403 16:41:12.445020 18942 net.cpp:141] Setting up inception_3a/3x3
I0403 16:41:12.445047 18942 net.cpp:148] Top shape: 24 128 28 28 (2408448)
I0403 16:41:12.445061 18942 net.cpp:156] Memory required for data: 525042720
I0403 16:41:12.445080 18942 layer_factory.hpp:77] Creating layer inception_3a/relu_3x3
I0403 16:41:12.445097 18942 net.cpp:91] Creating Layer inception_3a/relu_3x3
I0403 16:41:12.445112 18942 net.cpp:425] inception_3a/relu_3x3 <- inception_3a/3x3
I0403 16:41:12.445128 18942 net.cpp:386] inception_3a/relu_3x3 -> inception_3a/3x3 (in-place)
I0403 16:41:12.445394 18942 net.cpp:141] Setting up inception_3a/relu_3x3
I0403 16:41:12.445418 18942 net.cpp:148] Top shape: 24 128 28 28 (2408448)
I0403 16:41:12.445432 18942 net.cpp:156] Memory required for data: 534676512
I0403 16:41:12.445446 18942 layer_factory.hpp:77] Creating layer inception_3a/5x5_reduce
I0403 16:41:12.445467 18942 net.cpp:91] Creating Layer inception_3a/5x5_reduce
I0403 16:41:12.445484 18942 net.cpp:425] inception_3a/5x5_reduce <- pool2/3x3_s2_pool2/3x3_s2_0_split_2
I0403 16:41:12.445503 18942 net.cpp:399] inception_3a/5x5_reduce -> inception_3a/5x5_reduce
I0403 16:41:12.446399 18942 net.cpp:141] Setting up inception_3a/5x5_reduce
I0403 16:41:12.446429 18942 net.cpp:148] Top shape: 24 16 28 28 (301056)
I0403 16:41:12.446444 18942 net.cpp:156] Memory required for data: 535880736
I0403 16:41:12.446460 18942 layer_factory.hpp:77] Creating layer inception_3a/relu_5x5_reduce
I0403 16:41:12.446476 18942 net.cpp:91] Creating Layer inception_3a/relu_5x5_reduce
I0403 16:41:12.446491 18942 net.cpp:425] inception_3a/relu_5x5_reduce <- inception_3a/5x5_reduce
I0403 16:41:12.446507 18942 net.cpp:386] inception_3a/relu_5x5_reduce -> inception_3a/5x5_reduce (in-place)
I0403 16:41:12.446784 18942 net.cpp:141] Setting up inception_3a/relu_5x5_reduce
I0403 16:41:12.446810 18942 net.cpp:148] Top shape: 24 16 28 28 (301056)
I0403 16:41:12.446825 18942 net.cpp:156] Memory required for data: 537084960
I0403 16:41:12.446838 18942 layer_factory.hpp:77] Creating layer inception_3a/5x5
I0403 16:41:12.446858 18942 net.cpp:91] Creating Layer inception_3a/5x5
I0403 16:41:12.446876 18942 net.cpp:425] inception_3a/5x5 <- inception_3a/5x5_reduce
I0403 16:41:12.446892 18942 net.cpp:399] inception_3a/5x5 -> inception_3a/5x5
I0403 16:41:12.447836 18942 net.cpp:141] Setting up inception_3a/5x5
I0403 16:41:12.447862 18942 net.cpp:148] Top shape: 24 32 28 28 (602112)
I0403 16:41:12.447877 18942 net.cpp:156] Memory required for data: 539493408
I0403 16:41:12.447893 18942 layer_factory.hpp:77] Creating layer inception_3a/relu_5x5
I0403 16:41:12.447911 18942 net.cpp:91] Creating Layer inception_3a/relu_5x5
I0403 16:41:12.447926 18942 net.cpp:425] inception_3a/relu_5x5 <- inception_3a/5x5
I0403 16:41:12.447942 18942 net.cpp:386] inception_3a/relu_5x5 -> inception_3a/5x5 (in-place)
I0403 16:41:12.448107 18942 net.cpp:141] Setting up inception_3a/relu_5x5
I0403 16:41:12.448129 18942 net.cpp:148] Top shape: 24 32 28 28 (602112)
I0403 16:41:12.448143 18942 net.cpp:156] Memory required for data: 541901856
I0403 16:41:12.448158 18942 layer_factory.hpp:77] Creating layer inception_3a/pool
I0403 16:41:12.448175 18942 net.cpp:91] Creating Layer inception_3a/pool
I0403 16:41:12.448204 18942 net.cpp:425] inception_3a/pool <- pool2/3x3_s2_pool2/3x3_s2_0_split_3
I0403 16:41:12.448223 18942 net.cpp:399] inception_3a/pool -> inception_3a/pool
I0403 16:41:12.448277 18942 net.cpp:141] Setting up inception_3a/pool
I0403 16:41:12.448300 18942 net.cpp:148] Top shape: 24 192 28 28 (3612672)
I0403 16:41:12.448313 18942 net.cpp:156] Memory required for data: 556352544
I0403 16:41:12.448326 18942 layer_factory.hpp:77] Creating layer inception_3a/pool_proj
I0403 16:41:12.448348 18942 net.cpp:91] Creating Layer inception_3a/pool_proj
I0403 16:41:12.448364 18942 net.cpp:425] inception_3a/pool_proj <- inception_3a/pool
I0403 16:41:12.448385 18942 net.cpp:399] inception_3a/pool_proj -> inception_3a/pool_proj
I0403 16:41:12.449281 18942 net.cpp:141] Setting up inception_3a/pool_proj
I0403 16:41:12.449308 18942 net.cpp:148] Top shape: 24 32 28 28 (602112)
I0403 16:41:12.449323 18942 net.cpp:156] Memory required for data: 558760992
I0403 16:41:12.449344 18942 layer_factory.hpp:77] Creating layer inception_3a/relu_pool_proj
I0403 16:41:12.449362 18942 net.cpp:91] Creating Layer inception_3a/relu_pool_proj
I0403 16:41:12.449378 18942 net.cpp:425] inception_3a/relu_pool_proj <- inception_3a/pool_proj
I0403 16:41:12.449393 18942 net.cpp:386] inception_3a/relu_pool_proj -> inception_3a/pool_proj (in-place)
I0403 16:41:12.449651 18942 net.cpp:141] Setting up inception_3a/relu_pool_proj
I0403 16:41:12.449676 18942 net.cpp:148] Top shape: 24 32 28 28 (602112)
I0403 16:41:12.449688 18942 net.cpp:156] Memory required for data: 561169440
I0403 16:41:12.449702 18942 layer_factory.hpp:77] Creating layer inception_3a/output
I0403 16:41:12.449720 18942 net.cpp:91] Creating Layer inception_3a/output
I0403 16:41:12.449735 18942 net.cpp:425] inception_3a/output <- inception_3a/1x1
I0403 16:41:12.449750 18942 net.cpp:425] inception_3a/output <- inception_3a/3x3
I0403 16:41:12.449765 18942 net.cpp:425] inception_3a/output <- inception_3a/5x5
I0403 16:41:12.449780 18942 net.cpp:425] inception_3a/output <- inception_3a/pool_proj
I0403 16:41:12.449795 18942 net.cpp:399] inception_3a/output -> inception_3a/output
I0403 16:41:12.449841 18942 net.cpp:141] Setting up inception_3a/output
I0403 16:41:12.449862 18942 net.cpp:148] Top shape: 24 256 28 28 (4816896)
I0403 16:41:12.449877 18942 net.cpp:156] Memory required for data: 580437024
I0403 16:41:12.449889 18942 layer_factory.hpp:77] Creating layer inception_3a/output_inception_3a/output_0_split
I0403 16:41:12.449904 18942 net.cpp:91] Creating Layer inception_3a/output_inception_3a/output_0_split
I0403 16:41:12.449918 18942 net.cpp:425] inception_3a/output_inception_3a/output_0_split <- inception_3a/output
I0403 16:41:12.449936 18942 net.cpp:399] inception_3a/output_inception_3a/output_0_split -> inception_3a/output_inception_3a/output_0_split_0
I0403 16:41:12.449955 18942 net.cpp:399] inception_3a/output_inception_3a/output_0_split -> inception_3a/output_inception_3a/output_0_split_1
I0403 16:41:12.449976 18942 net.cpp:399] inception_3a/output_inception_3a/output_0_split -> inception_3a/output_inception_3a/output_0_split_2
I0403 16:41:12.449998 18942 net.cpp:399] inception_3a/output_inception_3a/output_0_split -> inception_3a/output_inception_3a/output_0_split_3
I0403 16:41:12.450068 18942 net.cpp:141] Setting up inception_3a/output_inception_3a/output_0_split
I0403 16:41:12.450089 18942 net.cpp:148] Top shape: 24 256 28 28 (4816896)
I0403 16:41:12.450105 18942 net.cpp:148] Top shape: 24 256 28 28 (4816896)
I0403 16:41:12.450119 18942 net.cpp:148] Top shape: 24 256 28 28 (4816896)
I0403 16:41:12.450134 18942 net.cpp:148] Top shape: 24 256 28 28 (4816896)
I0403 16:41:12.450146 18942 net.cpp:156] Memory required for data: 657507360
I0403 16:41:12.450160 18942 layer_factory.hpp:77] Creating layer inception_3b/1x1
I0403 16:41:12.450183 18942 net.cpp:91] Creating Layer inception_3b/1x1
I0403 16:41:12.450199 18942 net.cpp:425] inception_3b/1x1 <- inception_3a/output_inception_3a/output_0_split_0
I0403 16:41:12.450219 18942 net.cpp:399] inception_3b/1x1 -> inception_3b/1x1
I0403 16:41:12.451304 18942 net.cpp:141] Setting up inception_3b/1x1
I0403 16:41:12.451341 18942 net.cpp:148] Top shape: 24 128 28 28 (2408448)
I0403 16:41:12.451357 18942 net.cpp:156] Memory required for data: 667141152
I0403 16:41:12.451373 18942 layer_factory.hpp:77] Creating layer inception_3b/relu_1x1
I0403 16:41:12.451390 18942 net.cpp:91] Creating Layer inception_3b/relu_1x1
I0403 16:41:12.451405 18942 net.cpp:425] inception_3b/relu_1x1 <- inception_3b/1x1
I0403 16:41:12.451421 18942 net.cpp:386] inception_3b/relu_1x1 -> inception_3b/1x1 (in-place)
I0403 16:41:12.451586 18942 net.cpp:141] Setting up inception_3b/relu_1x1
I0403 16:41:12.451611 18942 net.cpp:148] Top shape: 24 128 28 28 (2408448)
I0403 16:41:12.451624 18942 net.cpp:156] Memory required for data: 676774944
I0403 16:41:12.451638 18942 layer_factory.hpp:77] Creating layer inception_3b/3x3_reduce
I0403 16:41:12.451658 18942 net.cpp:91] Creating Layer inception_3b/3x3_reduce
I0403 16:41:12.451675 18942 net.cpp:425] inception_3b/3x3_reduce <- inception_3a/output_inception_3a/output_0_split_1
I0403 16:41:12.451695 18942 net.cpp:399] inception_3b/3x3_reduce -> inception_3b/3x3_reduce
I0403 16:41:12.452746 18942 net.cpp:141] Setting up inception_3b/3x3_reduce
I0403 16:41:12.452772 18942 net.cpp:148] Top shape: 24 128 28 28 (2408448)
I0403 16:41:12.452786 18942 net.cpp:156] Memory required for data: 686408736
I0403 16:41:12.452803 18942 layer_factory.hpp:77] Creating layer inception_3b/relu_3x3_reduce
I0403 16:41:12.452821 18942 net.cpp:91] Creating Layer inception_3b/relu_3x3_reduce
I0403 16:41:12.452837 18942 net.cpp:425] inception_3b/relu_3x3_reduce <- inception_3b/3x3_reduce
I0403 16:41:12.452853 18942 net.cpp:386] inception_3b/relu_3x3_reduce -> inception_3b/3x3_reduce (in-place)
I0403 16:41:12.453009 18942 net.cpp:141] Setting up inception_3b/relu_3x3_reduce
I0403 16:41:12.453033 18942 net.cpp:148] Top shape: 24 128 28 28 (2408448)
I0403 16:41:12.453047 18942 net.cpp:156] Memory required for data: 696042528
I0403 16:41:12.453060 18942 layer_factory.hpp:77] Creating layer inception_3b/3x3
I0403 16:41:12.453084 18942 net.cpp:91] Creating Layer inception_3b/3x3
I0403 16:41:12.453100 18942 net.cpp:425] inception_3b/3x3 <- inception_3b/3x3_reduce
I0403 16:41:12.453119 18942 net.cpp:399] inception_3b/3x3 -> inception_3b/3x3
I0403 16:41:12.455853 18942 net.cpp:141] Setting up inception_3b/3x3
I0403 16:41:12.455880 18942 net.cpp:148] Top shape: 24 192 28 28 (3612672)
I0403 16:41:12.455895 18942 net.cpp:156] Memory required for data: 710493216
I0403 16:41:12.455912 18942 layer_factory.hpp:77] Creating layer inception_3b/relu_3x3
I0403 16:41:12.455930 18942 net.cpp:91] Creating Layer inception_3b/relu_3x3
I0403 16:41:12.455945 18942 net.cpp:425] inception_3b/relu_3x3 <- inception_3b/3x3
I0403 16:41:12.455961 18942 net.cpp:386] inception_3b/relu_3x3 -> inception_3b/3x3 (in-place)
I0403 16:41:12.456218 18942 net.cpp:141] Setting up inception_3b/relu_3x3
I0403 16:41:12.456241 18942 net.cpp:148] Top shape: 24 192 28 28 (3612672)
I0403 16:41:12.456256 18942 net.cpp:156] Memory required for data: 724943904
I0403 16:41:12.456270 18942 layer_factory.hpp:77] Creating layer inception_3b/5x5_reduce
I0403 16:41:12.456291 18942 net.cpp:91] Creating Layer inception_3b/5x5_reduce
I0403 16:41:12.456307 18942 net.cpp:425] inception_3b/5x5_reduce <- inception_3a/output_inception_3a/output_0_split_2
I0403 16:41:12.456328 18942 net.cpp:399] inception_3b/5x5_reduce -> inception_3b/5x5_reduce
I0403 16:41:12.457260 18942 net.cpp:141] Setting up inception_3b/5x5_reduce
I0403 16:41:12.457288 18942 net.cpp:148] Top shape: 24 32 28 28 (602112)
I0403 16:41:12.457301 18942 net.cpp:156] Memory required for data: 727352352
I0403 16:41:12.457319 18942 layer_factory.hpp:77] Creating layer inception_3b/relu_5x5_reduce
I0403 16:41:12.457337 18942 net.cpp:91] Creating Layer inception_3b/relu_5x5_reduce
I0403 16:41:12.457353 18942 net.cpp:425] inception_3b/relu_5x5_reduce <- inception_3b/5x5_reduce
I0403 16:41:12.457370 18942 net.cpp:386] inception_3b/relu_5x5_reduce -> inception_3b/5x5_reduce (in-place)
I0403 16:41:12.457548 18942 net.cpp:141] Setting up inception_3b/relu_5x5_reduce
I0403 16:41:12.457578 18942 net.cpp:148] Top shape: 24 32 28 28 (602112)
I0403 16:41:12.457594 18942 net.cpp:156] Memory required for data: 729760800
I0403 16:41:12.457607 18942 layer_factory.hpp:77] Creating layer inception_3b/5x5
I0403 16:41:12.457628 18942 net.cpp:91] Creating Layer inception_3b/5x5
I0403 16:41:12.457644 18942 net.cpp:425] inception_3b/5x5 <- inception_3b/5x5_reduce
I0403 16:41:12.457662 18942 net.cpp:399] inception_3b/5x5 -> inception_3b/5x5
I0403 16:41:12.459518 18942 net.cpp:141] Setting up inception_3b/5x5
I0403 16:41:12.459545 18942 net.cpp:148] Top shape: 24 96 28 28 (1806336)
I0403 16:41:12.459560 18942 net.cpp:156] Memory required for data: 736986144
I0403 16:41:12.459580 18942 layer_factory.hpp:77] Creating layer inception_3b/relu_5x5
I0403 16:41:12.459600 18942 net.cpp:91] Creating Layer inception_3b/relu_5x5
I0403 16:41:12.459616 18942 net.cpp:425] inception_3b/relu_5x5 <- inception_3b/5x5
I0403 16:41:12.459632 18942 net.cpp:386] inception_3b/relu_5x5 -> inception_3b/5x5 (in-place)
I0403 16:41:12.459806 18942 net.cpp:141] Setting up inception_3b/relu_5x5
I0403 16:41:12.459830 18942 net.cpp:148] Top shape: 24 96 28 28 (1806336)
I0403 16:41:12.459843 18942 net.cpp:156] Memory required for data: 744211488
I0403 16:41:12.459856 18942 layer_factory.hpp:77] Creating layer inception_3b/pool
I0403 16:41:12.459872 18942 net.cpp:91] Creating Layer inception_3b/pool
I0403 16:41:12.459887 18942 net.cpp:425] inception_3b/pool <- inception_3a/output_inception_3a/output_0_split_3
I0403 16:41:12.459903 18942 net.cpp:399] inception_3b/pool -> inception_3b/pool
I0403 16:41:12.459957 18942 net.cpp:141] Setting up inception_3b/pool
I0403 16:41:12.459980 18942 net.cpp:148] Top shape: 24 256 28 28 (4816896)
I0403 16:41:12.459993 18942 net.cpp:156] Memory required for data: 763479072
I0403 16:41:12.460006 18942 layer_factory.hpp:77] Creating layer inception_3b/pool_proj
I0403 16:41:12.460026 18942 net.cpp:91] Creating Layer inception_3b/pool_proj
I0403 16:41:12.460042 18942 net.cpp:425] inception_3b/pool_proj <- inception_3b/pool
I0403 16:41:12.460065 18942 net.cpp:399] inception_3b/pool_proj -> inception_3b/pool_proj
I0403 16:41:12.461061 18942 net.cpp:141] Setting up inception_3b/pool_proj
I0403 16:41:12.461089 18942 net.cpp:148] Top shape: 24 64 28 28 (1204224)
I0403 16:41:12.461104 18942 net.cpp:156] Memory required for data: 768295968
I0403 16:41:12.461122 18942 layer_factory.hpp:77] Creating layer inception_3b/relu_pool_proj
I0403 16:41:12.461138 18942 net.cpp:91] Creating Layer inception_3b/relu_pool_proj
I0403 16:41:12.461153 18942 net.cpp:425] inception_3b/relu_pool_proj <- inception_3b/pool_proj
I0403 16:41:12.461171 18942 net.cpp:386] inception_3b/relu_pool_proj -> inception_3b/pool_proj (in-place)
I0403 16:41:12.461536 18942 net.cpp:141] Setting up inception_3b/relu_pool_proj
I0403 16:41:12.461562 18942 net.cpp:148] Top shape: 24 64 28 28 (1204224)
I0403 16:41:12.461582 18942 net.cpp:156] Memory required for data: 773112864
I0403 16:41:12.461597 18942 layer_factory.hpp:77] Creating layer inception_3b/output
I0403 16:41:12.461613 18942 net.cpp:91] Creating Layer inception_3b/output
I0403 16:41:12.461627 18942 net.cpp:425] inception_3b/output <- inception_3b/1x1
I0403 16:41:12.461642 18942 net.cpp:425] inception_3b/output <- inception_3b/3x3
I0403 16:41:12.461658 18942 net.cpp:425] inception_3b/output <- inception_3b/5x5
I0403 16:41:12.461673 18942 net.cpp:425] inception_3b/output <- inception_3b/pool_proj
I0403 16:41:12.461688 18942 net.cpp:399] inception_3b/output -> inception_3b/output
I0403 16:41:12.461730 18942 net.cpp:141] Setting up inception_3b/output
I0403 16:41:12.461751 18942 net.cpp:148] Top shape: 24 480 28 28 (9031680)
I0403 16:41:12.461765 18942 net.cpp:156] Memory required for data: 809239584
I0403 16:41:12.461777 18942 layer_factory.hpp:77] Creating layer pool3/3x3_s2
I0403 16:41:12.461796 18942 net.cpp:91] Creating Layer pool3/3x3_s2
I0403 16:41:12.461812 18942 net.cpp:425] pool3/3x3_s2 <- inception_3b/output
I0403 16:41:12.461843 18942 net.cpp:399] pool3/3x3_s2 -> pool3/3x3_s2
I0403 16:41:12.461897 18942 net.cpp:141] Setting up pool3/3x3_s2
I0403 16:41:12.461920 18942 net.cpp:148] Top shape: 24 480 14 14 (2257920)
I0403 16:41:12.461932 18942 net.cpp:156] Memory required for data: 818271264
I0403 16:41:12.461946 18942 layer_factory.hpp:77] Creating layer pool3/3x3_s2_pool3/3x3_s2_0_split
I0403 16:41:12.461961 18942 net.cpp:91] Creating Layer pool3/3x3_s2_pool3/3x3_s2_0_split
I0403 16:41:12.461976 18942 net.cpp:425] pool3/3x3_s2_pool3/3x3_s2_0_split <- pool3/3x3_s2
I0403 16:41:12.461993 18942 net.cpp:399] pool3/3x3_s2_pool3/3x3_s2_0_split -> pool3/3x3_s2_pool3/3x3_s2_0_split_0
I0403 16:41:12.462013 18942 net.cpp:399] pool3/3x3_s2_pool3/3x3_s2_0_split -> pool3/3x3_s2_pool3/3x3_s2_0_split_1
I0403 16:41:12.462030 18942 net.cpp:399] pool3/3x3_s2_pool3/3x3_s2_0_split -> pool3/3x3_s2_pool3/3x3_s2_0_split_2
I0403 16:41:12.462047 18942 net.cpp:399] pool3/3x3_s2_pool3/3x3_s2_0_split -> pool3/3x3_s2_pool3/3x3_s2_0_split_3
I0403 16:41:12.462119 18942 net.cpp:141] Setting up pool3/3x3_s2_pool3/3x3_s2_0_split
I0403 16:41:12.462143 18942 net.cpp:148] Top shape: 24 480 14 14 (2257920)
I0403 16:41:12.462158 18942 net.cpp:148] Top shape: 24 480 14 14 (2257920)
I0403 16:41:12.462173 18942 net.cpp:148] Top shape: 24 480 14 14 (2257920)
I0403 16:41:12.462188 18942 net.cpp:148] Top shape: 24 480 14 14 (2257920)
I0403 16:41:12.462200 18942 net.cpp:156] Memory required for data: 854397984
I0403 16:41:12.462213 18942 layer_factory.hpp:77] Creating layer inception_4a/1x1
I0403 16:41:12.462234 18942 net.cpp:91] Creating Layer inception_4a/1x1
I0403 16:41:12.462249 18942 net.cpp:425] inception_4a/1x1 <- pool3/3x3_s2_pool3/3x3_s2_0_split_0
I0403 16:41:12.462266 18942 net.cpp:399] inception_4a/1x1 -> inception_4a/1x1
I0403 16:41:12.463729 18942 net.cpp:141] Setting up inception_4a/1x1
I0403 16:41:12.463758 18942 net.cpp:148] Top shape: 24 192 14 14 (903168)
I0403 16:41:12.463773 18942 net.cpp:156] Memory required for data: 858010656
I0403 16:41:12.463790 18942 layer_factory.hpp:77] Creating layer inception_4a/relu_1x1
I0403 16:41:12.463807 18942 net.cpp:91] Creating Layer inception_4a/relu_1x1
I0403 16:41:12.463822 18942 net.cpp:425] inception_4a/relu_1x1 <- inception_4a/1x1
I0403 16:41:12.463840 18942 net.cpp:386] inception_4a/relu_1x1 -> inception_4a/1x1 (in-place)
I0403 16:41:12.464004 18942 net.cpp:141] Setting up inception_4a/relu_1x1
I0403 16:41:12.464028 18942 net.cpp:148] Top shape: 24 192 14 14 (903168)
I0403 16:41:12.464041 18942 net.cpp:156] Memory required for data: 861623328
I0403 16:41:12.464056 18942 layer_factory.hpp:77] Creating layer inception_4a/3x3_reduce
I0403 16:41:12.464076 18942 net.cpp:91] Creating Layer inception_4a/3x3_reduce
I0403 16:41:12.464092 18942 net.cpp:425] inception_4a/3x3_reduce <- pool3/3x3_s2_pool3/3x3_s2_0_split_1
I0403 16:41:12.464112 18942 net.cpp:399] inception_4a/3x3_reduce -> inception_4a/3x3_reduce
I0403 16:41:12.465292 18942 net.cpp:141] Setting up inception_4a/3x3_reduce
I0403 16:41:12.465318 18942 net.cpp:148] Top shape: 24 96 14 14 (451584)
I0403 16:41:12.465333 18942 net.cpp:156] Memory required for data: 863429664
I0403 16:41:12.465354 18942 layer_factory.hpp:77] Creating layer inception_4a/relu_3x3_reduce
I0403 16:41:12.465374 18942 net.cpp:91] Creating Layer inception_4a/relu_3x3_reduce
I0403 16:41:12.465390 18942 net.cpp:425] inception_4a/relu_3x3_reduce <- inception_4a/3x3_reduce
I0403 16:41:12.465406 18942 net.cpp:386] inception_4a/relu_3x3_reduce -> inception_4a/3x3_reduce (in-place)
I0403 16:41:12.465572 18942 net.cpp:141] Setting up inception_4a/relu_3x3_reduce
I0403 16:41:12.465596 18942 net.cpp:148] Top shape: 24 96 14 14 (451584)
I0403 16:41:12.465610 18942 net.cpp:156] Memory required for data: 865236000
I0403 16:41:12.465623 18942 layer_factory.hpp:77] Creating layer inception_4a/3x3
I0403 16:41:12.465644 18942 net.cpp:91] Creating Layer inception_4a/3x3
I0403 16:41:12.465662 18942 net.cpp:425] inception_4a/3x3 <- inception_4a/3x3_reduce
I0403 16:41:12.465682 18942 net.cpp:399] inception_4a/3x3 -> inception_4a/3x3
I0403 16:41:12.468178 18942 net.cpp:141] Setting up inception_4a/3x3
I0403 16:41:12.468204 18942 net.cpp:148] Top shape: 24 208 14 14 (978432)
I0403 16:41:12.468219 18942 net.cpp:156] Memory required for data: 869149728
I0403 16:41:12.468236 18942 layer_factory.hpp:77] Creating layer inception_4a/relu_3x3
I0403 16:41:12.468257 18942 net.cpp:91] Creating Layer inception_4a/relu_3x3
I0403 16:41:12.468273 18942 net.cpp:425] inception_4a/relu_3x3 <- inception_4a/3x3
I0403 16:41:12.468291 18942 net.cpp:386] inception_4a/relu_3x3 -> inception_4a/3x3 (in-place)
I0403 16:41:12.468564 18942 net.cpp:141] Setting up inception_4a/relu_3x3
I0403 16:41:12.468592 18942 net.cpp:148] Top shape: 24 208 14 14 (978432)
I0403 16:41:12.468607 18942 net.cpp:156] Memory required for data: 873063456
I0403 16:41:12.468621 18942 layer_factory.hpp:77] Creating layer inception_4a/5x5_reduce
I0403 16:41:12.468643 18942 net.cpp:91] Creating Layer inception_4a/5x5_reduce
I0403 16:41:12.468660 18942 net.cpp:425] inception_4a/5x5_reduce <- pool3/3x3_s2_pool3/3x3_s2_0_split_2
I0403 16:41:12.468682 18942 net.cpp:399] inception_4a/5x5_reduce -> inception_4a/5x5_reduce
I0403 16:41:12.469645 18942 net.cpp:141] Setting up inception_4a/5x5_reduce
I0403 16:41:12.469671 18942 net.cpp:148] Top shape: 24 16 14 14 (75264)
I0403 16:41:12.469686 18942 net.cpp:156] Memory required for data: 873364512
I0403 16:41:12.469702 18942 layer_factory.hpp:77] Creating layer inception_4a/relu_5x5_reduce
I0403 16:41:12.469722 18942 net.cpp:91] Creating Layer inception_4a/relu_5x5_reduce
I0403 16:41:12.469737 18942 net.cpp:425] inception_4a/relu_5x5_reduce <- inception_4a/5x5_reduce
I0403 16:41:12.469753 18942 net.cpp:386] inception_4a/relu_5x5_reduce -> inception_4a/5x5_reduce (in-place)
I0403 16:41:12.469919 18942 net.cpp:141] Setting up inception_4a/relu_5x5_reduce
I0403 16:41:12.469944 18942 net.cpp:148] Top shape: 24 16 14 14 (75264)
I0403 16:41:12.469957 18942 net.cpp:156] Memory required for data: 873665568
I0403 16:41:12.469970 18942 layer_factory.hpp:77] Creating layer inception_4a/5x5
I0403 16:41:12.469992 18942 net.cpp:91] Creating Layer inception_4a/5x5
I0403 16:41:12.470008 18942 net.cpp:425] inception_4a/5x5 <- inception_4a/5x5_reduce
I0403 16:41:12.470026 18942 net.cpp:399] inception_4a/5x5 -> inception_4a/5x5
I0403 16:41:12.471032 18942 net.cpp:141] Setting up inception_4a/5x5
I0403 16:41:12.471060 18942 net.cpp:148] Top shape: 24 48 14 14 (225792)
I0403 16:41:12.471076 18942 net.cpp:156] Memory required for data: 874568736
I0403 16:41:12.471093 18942 layer_factory.hpp:77] Creating layer inception_4a/relu_5x5
I0403 16:41:12.471110 18942 net.cpp:91] Creating Layer inception_4a/relu_5x5
I0403 16:41:12.471124 18942 net.cpp:425] inception_4a/relu_5x5 <- inception_4a/5x5
I0403 16:41:12.471140 18942 net.cpp:386] inception_4a/relu_5x5 -> inception_4a/5x5 (in-place)
I0403 16:41:12.471308 18942 net.cpp:141] Setting up inception_4a/relu_5x5
I0403 16:41:12.471333 18942 net.cpp:148] Top shape: 24 48 14 14 (225792)
I0403 16:41:12.471346 18942 net.cpp:156] Memory required for data: 875471904
I0403 16:41:12.471359 18942 layer_factory.hpp:77] Creating layer inception_4a/pool
I0403 16:41:12.471375 18942 net.cpp:91] Creating Layer inception_4a/pool
I0403 16:41:12.471390 18942 net.cpp:425] inception_4a/pool <- pool3/3x3_s2_pool3/3x3_s2_0_split_3
I0403 16:41:12.471408 18942 net.cpp:399] inception_4a/pool -> inception_4a/pool
I0403 16:41:12.471464 18942 net.cpp:141] Setting up inception_4a/pool
I0403 16:41:12.471488 18942 net.cpp:148] Top shape: 24 480 14 14 (2257920)
I0403 16:41:12.471503 18942 net.cpp:156] Memory required for data: 884503584
I0403 16:41:12.471516 18942 layer_factory.hpp:77] Creating layer inception_4a/pool_proj
I0403 16:41:12.471536 18942 net.cpp:91] Creating Layer inception_4a/pool_proj
I0403 16:41:12.471554 18942 net.cpp:425] inception_4a/pool_proj <- inception_4a/pool
I0403 16:41:12.471575 18942 net.cpp:399] inception_4a/pool_proj -> inception_4a/pool_proj
I0403 16:41:12.472663 18942 net.cpp:141] Setting up inception_4a/pool_proj
I0403 16:41:12.472692 18942 net.cpp:148] Top shape: 24 64 14 14 (301056)
I0403 16:41:12.472723 18942 net.cpp:156] Memory required for data: 885707808
I0403 16:41:12.472740 18942 layer_factory.hpp:77] Creating layer inception_4a/relu_pool_proj
I0403 16:41:12.472757 18942 net.cpp:91] Creating Layer inception_4a/relu_pool_proj
I0403 16:41:12.472772 18942 net.cpp:425] inception_4a/relu_pool_proj <- inception_4a/pool_proj
I0403 16:41:12.472790 18942 net.cpp:386] inception_4a/relu_pool_proj -> inception_4a/pool_proj (in-place)
I0403 16:41:12.473057 18942 net.cpp:141] Setting up inception_4a/relu_pool_proj
I0403 16:41:12.473083 18942 net.cpp:148] Top shape: 24 64 14 14 (301056)
I0403 16:41:12.473096 18942 net.cpp:156] Memory required for data: 886912032
I0403 16:41:12.473110 18942 layer_factory.hpp:77] Creating layer inception_4a/output
I0403 16:41:12.473126 18942 net.cpp:91] Creating Layer inception_4a/output
I0403 16:41:12.473140 18942 net.cpp:425] inception_4a/output <- inception_4a/1x1
I0403 16:41:12.473156 18942 net.cpp:425] inception_4a/output <- inception_4a/3x3
I0403 16:41:12.473171 18942 net.cpp:425] inception_4a/output <- inception_4a/5x5
I0403 16:41:12.473186 18942 net.cpp:425] inception_4a/output <- inception_4a/pool_proj
I0403 16:41:12.473202 18942 net.cpp:399] inception_4a/output -> inception_4a/output
I0403 16:41:12.473244 18942 net.cpp:141] Setting up inception_4a/output
I0403 16:41:12.473266 18942 net.cpp:148] Top shape: 24 512 14 14 (2408448)
I0403 16:41:12.473280 18942 net.cpp:156] Memory required for data: 896545824
I0403 16:41:12.473294 18942 layer_factory.hpp:77] Creating layer inception_4a/output_inception_4a/output_0_split
I0403 16:41:12.473314 18942 net.cpp:91] Creating Layer inception_4a/output_inception_4a/output_0_split
I0403 16:41:12.473328 18942 net.cpp:425] inception_4a/output_inception_4a/output_0_split <- inception_4a/output
I0403 16:41:12.473345 18942 net.cpp:399] inception_4a/output_inception_4a/output_0_split -> inception_4a/output_inception_4a/output_0_split_0
I0403 16:41:12.473363 18942 net.cpp:399] inception_4a/output_inception_4a/output_0_split -> inception_4a/output_inception_4a/output_0_split_1
I0403 16:41:12.473384 18942 net.cpp:399] inception_4a/output_inception_4a/output_0_split -> inception_4a/output_inception_4a/output_0_split_2
I0403 16:41:12.473404 18942 net.cpp:399] inception_4a/output_inception_4a/output_0_split -> inception_4a/output_inception_4a/output_0_split_3
I0403 16:41:12.473423 18942 net.cpp:399] inception_4a/output_inception_4a/output_0_split -> inception_4a/output_inception_4a/output_0_split_4
I0403 16:41:12.473510 18942 net.cpp:141] Setting up inception_4a/output_inception_4a/output_0_split
I0403 16:41:12.473532 18942 net.cpp:148] Top shape: 24 512 14 14 (2408448)
I0403 16:41:12.473547 18942 net.cpp:148] Top shape: 24 512 14 14 (2408448)
I0403 16:41:12.473562 18942 net.cpp:148] Top shape: 24 512 14 14 (2408448)
I0403 16:41:12.473580 18942 net.cpp:148] Top shape: 24 512 14 14 (2408448)
I0403 16:41:12.473597 18942 net.cpp:148] Top shape: 24 512 14 14 (2408448)
I0403 16:41:12.473608 18942 net.cpp:156] Memory required for data: 944714784
I0403 16:41:12.473623 18942 layer_factory.hpp:77] Creating layer loss1/ave_pool
I0403 16:41:12.473641 18942 net.cpp:91] Creating Layer loss1/ave_pool
I0403 16:41:12.473656 18942 net.cpp:425] loss1/ave_pool <- inception_4a/output_inception_4a/output_0_split_0
I0403 16:41:12.473673 18942 net.cpp:399] loss1/ave_pool -> loss1/ave_pool
I0403 16:41:12.473865 18942 net.cpp:141] Setting up loss1/ave_pool
I0403 16:41:12.473888 18942 net.cpp:148] Top shape: 24 512 4 4 (196608)
I0403 16:41:12.473902 18942 net.cpp:156] Memory required for data: 945501216
I0403 16:41:12.473917 18942 layer_factory.hpp:77] Creating layer loss1/conv
I0403 16:41:12.473937 18942 net.cpp:91] Creating Layer loss1/conv
I0403 16:41:12.473954 18942 net.cpp:425] loss1/conv <- loss1/ave_pool
I0403 16:41:12.473974 18942 net.cpp:399] loss1/conv -> loss1/conv
I0403 16:41:12.475289 18942 net.cpp:141] Setting up loss1/conv
I0403 16:41:12.475316 18942 net.cpp:148] Top shape: 24 128 4 4 (49152)
I0403 16:41:12.475344 18942 net.cpp:156] Memory required for data: 945697824
I0403 16:41:12.475363 18942 layer_factory.hpp:77] Creating layer loss1/relu_conv
I0403 16:41:12.475383 18942 net.cpp:91] Creating Layer loss1/relu_conv
I0403 16:41:12.475397 18942 net.cpp:425] loss1/relu_conv <- loss1/conv
I0403 16:41:12.475414 18942 net.cpp:386] loss1/relu_conv -> loss1/conv (in-place)
I0403 16:41:12.475680 18942 net.cpp:141] Setting up loss1/relu_conv
I0403 16:41:12.475705 18942 net.cpp:148] Top shape: 24 128 4 4 (49152)
I0403 16:41:12.475719 18942 net.cpp:156] Memory required for data: 945894432
I0403 16:41:12.475733 18942 layer_factory.hpp:77] Creating layer loss1/fc
I0403 16:41:12.475757 18942 net.cpp:91] Creating Layer loss1/fc
I0403 16:41:12.475775 18942 net.cpp:425] loss1/fc <- loss1/conv
I0403 16:41:12.475791 18942 net.cpp:399] loss1/fc -> loss1/fc
I0403 16:41:12.492550 18942 net.cpp:141] Setting up loss1/fc
I0403 16:41:12.492583 18942 net.cpp:148] Top shape: 24 1024 (24576)
I0403 16:41:12.492600 18942 net.cpp:156] Memory required for data: 945992736
I0403 16:41:12.492619 18942 layer_factory.hpp:77] Creating layer loss1/relu_fc
I0403 16:41:12.492636 18942 net.cpp:91] Creating Layer loss1/relu_fc
I0403 16:41:12.492652 18942 net.cpp:425] loss1/relu_fc <- loss1/fc
I0403 16:41:12.492671 18942 net.cpp:386] loss1/relu_fc -> loss1/fc (in-place)
I0403 16:41:12.492847 18942 net.cpp:141] Setting up loss1/relu_fc
I0403 16:41:12.492871 18942 net.cpp:148] Top shape: 24 1024 (24576)
I0403 16:41:12.492885 18942 net.cpp:156] Memory required for data: 946091040
I0403 16:41:12.492898 18942 layer_factory.hpp:77] Creating layer loss1/drop_fc
I0403 16:41:12.492924 18942 net.cpp:91] Creating Layer loss1/drop_fc
I0403 16:41:12.492941 18942 net.cpp:425] loss1/drop_fc <- loss1/fc
I0403 16:41:12.492959 18942 net.cpp:386] loss1/drop_fc -> loss1/fc (in-place)
I0403 16:41:12.493005 18942 net.cpp:141] Setting up loss1/drop_fc
I0403 16:41:12.493026 18942 net.cpp:148] Top shape: 24 1024 (24576)
I0403 16:41:12.493041 18942 net.cpp:156] Memory required for data: 946189344
I0403 16:41:12.493053 18942 layer_factory.hpp:77] Creating layer loss1/classifier_plantvillage
I0403 16:41:12.493073 18942 net.cpp:91] Creating Layer loss1/classifier_plantvillage
I0403 16:41:12.493088 18942 net.cpp:425] loss1/classifier_plantvillage <- loss1/fc
I0403 16:41:12.493108 18942 net.cpp:399] loss1/classifier_plantvillage -> loss1/classifier_plantvillage
I0403 16:41:12.493974 18942 net.cpp:141] Setting up loss1/classifier_plantvillage
I0403 16:41:12.494000 18942 net.cpp:148] Top shape: 24 38 (912)
I0403 16:41:12.494015 18942 net.cpp:156] Memory required for data: 946192992
I0403 16:41:12.494031 18942 layer_factory.hpp:77] Creating layer loss1/classifier_plantvillage_loss1/classifier_plantvillage_0_split
I0403 16:41:12.494048 18942 net.cpp:91] Creating Layer loss1/classifier_plantvillage_loss1/classifier_plantvillage_0_split
I0403 16:41:12.494065 18942 net.cpp:425] loss1/classifier_plantvillage_loss1/classifier_plantvillage_0_split <- loss1/classifier_plantvillage
I0403 16:41:12.494083 18942 net.cpp:399] loss1/classifier_plantvillage_loss1/classifier_plantvillage_0_split -> loss1/classifier_plantvillage_loss1/classifier_plantvillage_0_split_0
I0403 16:41:12.494102 18942 net.cpp:399] loss1/classifier_plantvillage_loss1/classifier_plantvillage_0_split -> loss1/classifier_plantvillage_loss1/classifier_plantvillage_0_split_1
I0403 16:41:12.494122 18942 net.cpp:399] loss1/classifier_plantvillage_loss1/classifier_plantvillage_0_split -> loss1/classifier_plantvillage_loss1/classifier_plantvillage_0_split_2
I0403 16:41:12.494182 18942 net.cpp:141] Setting up loss1/classifier_plantvillage_loss1/classifier_plantvillage_0_split
I0403 16:41:12.494206 18942 net.cpp:148] Top shape: 24 38 (912)
I0403 16:41:12.494222 18942 net.cpp:148] Top shape: 24 38 (912)
I0403 16:41:12.494237 18942 net.cpp:148] Top shape: 24 38 (912)
I0403 16:41:12.494251 18942 net.cpp:156] Memory required for data: 946203936
I0403 16:41:12.494263 18942 layer_factory.hpp:77] Creating layer inception_4b/1x1
I0403 16:41:12.494282 18942 net.cpp:91] Creating Layer inception_4b/1x1
I0403 16:41:12.494314 18942 net.cpp:425] inception_4b/1x1 <- inception_4a/output_inception_4a/output_0_split_1
I0403 16:41:12.494334 18942 net.cpp:399] inception_4b/1x1 -> inception_4b/1x1
I0403 16:41:12.495903 18942 net.cpp:141] Setting up inception_4b/1x1
I0403 16:41:12.495931 18942 net.cpp:148] Top shape: 24 160 14 14 (752640)
I0403 16:41:12.495946 18942 net.cpp:156] Memory required for data: 949214496
I0403 16:41:12.495965 18942 layer_factory.hpp:77] Creating layer inception_4b/relu_1x1
I0403 16:41:12.495983 18942 net.cpp:91] Creating Layer inception_4b/relu_1x1
I0403 16:41:12.495998 18942 net.cpp:425] inception_4b/relu_1x1 <- inception_4b/1x1
I0403 16:41:12.496016 18942 net.cpp:386] inception_4b/relu_1x1 -> inception_4b/1x1 (in-place)
I0403 16:41:12.496186 18942 net.cpp:141] Setting up inception_4b/relu_1x1
I0403 16:41:12.496209 18942 net.cpp:148] Top shape: 24 160 14 14 (752640)
I0403 16:41:12.496223 18942 net.cpp:156] Memory required for data: 952225056
I0403 16:41:12.496237 18942 layer_factory.hpp:77] Creating layer inception_4b/3x3_reduce
I0403 16:41:12.496258 18942 net.cpp:91] Creating Layer inception_4b/3x3_reduce
I0403 16:41:12.496276 18942 net.cpp:425] inception_4b/3x3_reduce <- inception_4a/output_inception_4a/output_0_split_2
I0403 16:41:12.496294 18942 net.cpp:399] inception_4b/3x3_reduce -> inception_4b/3x3_reduce
I0403 16:41:12.497550 18942 net.cpp:141] Setting up inception_4b/3x3_reduce
I0403 16:41:12.497580 18942 net.cpp:148] Top shape: 24 112 14 14 (526848)
I0403 16:41:12.497596 18942 net.cpp:156] Memory required for data: 954332448
I0403 16:41:12.497611 18942 layer_factory.hpp:77] Creating layer inception_4b/relu_3x3_reduce
I0403 16:41:12.497632 18942 net.cpp:91] Creating Layer inception_4b/relu_3x3_reduce
I0403 16:41:12.497649 18942 net.cpp:425] inception_4b/relu_3x3_reduce <- inception_4b/3x3_reduce
I0403 16:41:12.497666 18942 net.cpp:386] inception_4b/relu_3x3_reduce -> inception_4b/3x3_reduce (in-place)
I0403 16:41:12.497931 18942 net.cpp:141] Setting up inception_4b/relu_3x3_reduce
I0403 16:41:12.497956 18942 net.cpp:148] Top shape: 24 112 14 14 (526848)
I0403 16:41:12.497969 18942 net.cpp:156] Memory required for data: 956439840
I0403 16:41:12.497983 18942 layer_factory.hpp:77] Creating layer inception_4b/3x3
I0403 16:41:12.498005 18942 net.cpp:91] Creating Layer inception_4b/3x3
I0403 16:41:12.498021 18942 net.cpp:425] inception_4b/3x3 <- inception_4b/3x3_reduce
I0403 16:41:12.498039 18942 net.cpp:399] inception_4b/3x3 -> inception_4b/3x3
I0403 16:41:12.500847 18942 net.cpp:141] Setting up inception_4b/3x3
I0403 16:41:12.500877 18942 net.cpp:148] Top shape: 24 224 14 14 (1053696)
I0403 16:41:12.500892 18942 net.cpp:156] Memory required for data: 960654624
I0403 16:41:12.500910 18942 layer_factory.hpp:77] Creating layer inception_4b/relu_3x3
I0403 16:41:12.500926 18942 net.cpp:91] Creating Layer inception_4b/relu_3x3
I0403 16:41:12.500941 18942 net.cpp:425] inception_4b/relu_3x3 <- inception_4b/3x3
I0403 16:41:12.500963 18942 net.cpp:386] inception_4b/relu_3x3 -> inception_4b/3x3 (in-place)
I0403 16:41:12.501133 18942 net.cpp:141] Setting up inception_4b/relu_3x3
I0403 16:41:12.501157 18942 net.cpp:148] Top shape: 24 224 14 14 (1053696)
I0403 16:41:12.501171 18942 net.cpp:156] Memory required for data: 964869408
I0403 16:41:12.501185 18942 layer_factory.hpp:77] Creating layer inception_4b/5x5_reduce
I0403 16:41:12.501205 18942 net.cpp:91] Creating Layer inception_4b/5x5_reduce
I0403 16:41:12.501224 18942 net.cpp:425] inception_4b/5x5_reduce <- inception_4a/output_inception_4a/output_0_split_3
I0403 16:41:12.501245 18942 net.cpp:399] inception_4b/5x5_reduce -> inception_4b/5x5_reduce
I0403 16:41:12.502264 18942 net.cpp:141] Setting up inception_4b/5x5_reduce
I0403 16:41:12.502291 18942 net.cpp:148] Top shape: 24 24 14 14 (112896)
I0403 16:41:12.502306 18942 net.cpp:156] Memory required for data: 965320992
I0403 16:41:12.502323 18942 layer_factory.hpp:77] Creating layer inception_4b/relu_5x5_reduce
I0403 16:41:12.502341 18942 net.cpp:91] Creating Layer inception_4b/relu_5x5_reduce
I0403 16:41:12.502369 18942 net.cpp:425] inception_4b/relu_5x5_reduce <- inception_4b/5x5_reduce
I0403 16:41:12.502388 18942 net.cpp:386] inception_4b/relu_5x5_reduce -> inception_4b/5x5_reduce (in-place)
I0403 16:41:12.502555 18942 net.cpp:141] Setting up inception_4b/relu_5x5_reduce
I0403 16:41:12.502585 18942 net.cpp:148] Top shape: 24 24 14 14 (112896)
I0403 16:41:12.502601 18942 net.cpp:156] Memory required for data: 965772576
I0403 16:41:12.502614 18942 layer_factory.hpp:77] Creating layer inception_4b/5x5
I0403 16:41:12.502635 18942 net.cpp:91] Creating Layer inception_4b/5x5
I0403 16:41:12.502651 18942 net.cpp:425] inception_4b/5x5 <- inception_4b/5x5_reduce
I0403 16:41:12.502668 18942 net.cpp:399] inception_4b/5x5 -> inception_4b/5x5
I0403 16:41:12.503813 18942 net.cpp:141] Setting up inception_4b/5x5
I0403 16:41:12.503839 18942 net.cpp:148] Top shape: 24 64 14 14 (301056)
I0403 16:41:12.503855 18942 net.cpp:156] Memory required for data: 966976800
I0403 16:41:12.503871 18942 layer_factory.hpp:77] Creating layer inception_4b/relu_5x5
I0403 16:41:12.503890 18942 net.cpp:91] Creating Layer inception_4b/relu_5x5
I0403 16:41:12.503906 18942 net.cpp:425] inception_4b/relu_5x5 <- inception_4b/5x5
I0403 16:41:12.503921 18942 net.cpp:386] inception_4b/relu_5x5 -> inception_4b/5x5 (in-place)
I0403 16:41:12.504199 18942 net.cpp:141] Setting up inception_4b/relu_5x5
I0403 16:41:12.504223 18942 net.cpp:148] Top shape: 24 64 14 14 (301056)
I0403 16:41:12.504237 18942 net.cpp:156] Memory required for data: 968181024
I0403 16:41:12.504251 18942 layer_factory.hpp:77] Creating layer inception_4b/pool
I0403 16:41:12.504271 18942 net.cpp:91] Creating Layer inception_4b/pool
I0403 16:41:12.504287 18942 net.cpp:425] inception_4b/pool <- inception_4a/output_inception_4a/output_0_split_4
I0403 16:41:12.504304 18942 net.cpp:399] inception_4b/pool -> inception_4b/pool
I0403 16:41:12.504364 18942 net.cpp:141] Setting up inception_4b/pool
I0403 16:41:12.504386 18942 net.cpp:148] Top shape: 24 512 14 14 (2408448)
I0403 16:41:12.504400 18942 net.cpp:156] Memory required for data: 977814816
I0403 16:41:12.504412 18942 layer_factory.hpp:77] Creating layer inception_4b/pool_proj
I0403 16:41:12.504433 18942 net.cpp:91] Creating Layer inception_4b/pool_proj
I0403 16:41:12.504451 18942 net.cpp:425] inception_4b/pool_proj <- inception_4b/pool
I0403 16:41:12.504470 18942 net.cpp:399] inception_4b/pool_proj -> inception_4b/pool_proj
I0403 16:41:12.505614 18942 net.cpp:141] Setting up inception_4b/pool_proj
I0403 16:41:12.505641 18942 net.cpp:148] Top shape: 24 64 14 14 (301056)
I0403 16:41:12.505656 18942 net.cpp:156] Memory required for data: 979019040
I0403 16:41:12.505672 18942 layer_factory.hpp:77] Creating layer inception_4b/relu_pool_proj
I0403 16:41:12.505692 18942 net.cpp:91] Creating Layer inception_4b/relu_pool_proj
I0403 16:41:12.505709 18942 net.cpp:425] inception_4b/relu_pool_proj <- inception_4b/pool_proj
I0403 16:41:12.505725 18942 net.cpp:386] inception_4b/relu_pool_proj -> inception_4b/pool_proj (in-place)
I0403 16:41:12.505893 18942 net.cpp:141] Setting up inception_4b/relu_pool_proj
I0403 16:41:12.505919 18942 net.cpp:148] Top shape: 24 64 14 14 (301056)
I0403 16:41:12.505934 18942 net.cpp:156] Memory required for data: 980223264
I0403 16:41:12.505947 18942 layer_factory.hpp:77] Creating layer inception_4b/output
I0403 16:41:12.505964 18942 net.cpp:91] Creating Layer inception_4b/output
I0403 16:41:12.505977 18942 net.cpp:425] inception_4b/output <- inception_4b/1x1
I0403 16:41:12.505993 18942 net.cpp:425] inception_4b/output <- inception_4b/3x3
I0403 16:41:12.506008 18942 net.cpp:425] inception_4b/output <- inception_4b/5x5
I0403 16:41:12.506023 18942 net.cpp:425] inception_4b/output <- inception_4b/pool_proj
I0403 16:41:12.506042 18942 net.cpp:399] inception_4b/output -> inception_4b/output
I0403 16:41:12.506084 18942 net.cpp:141] Setting up inception_4b/output
I0403 16:41:12.506105 18942 net.cpp:148] Top shape: 24 512 14 14 (2408448)
I0403 16:41:12.506119 18942 net.cpp:156] Memory required for data: 989857056
I0403 16:41:12.506145 18942 layer_factory.hpp:77] Creating layer inception_4b/output_inception_4b/output_0_split
I0403 16:41:12.506165 18942 net.cpp:91] Creating Layer inception_4b/output_inception_4b/output_0_split
I0403 16:41:12.506181 18942 net.cpp:425] inception_4b/output_inception_4b/output_0_split <- inception_4b/output
I0403 16:41:12.506196 18942 net.cpp:399] inception_4b/output_inception_4b/output_0_split -> inception_4b/output_inception_4b/output_0_split_0
I0403 16:41:12.506216 18942 net.cpp:399] inception_4b/output_inception_4b/output_0_split -> inception_4b/output_inception_4b/output_0_split_1
I0403 16:41:12.506234 18942 net.cpp:399] inception_4b/output_inception_4b/output_0_split -> inception_4b/output_inception_4b/output_0_split_2
I0403 16:41:12.506256 18942 net.cpp:399] inception_4b/output_inception_4b/output_0_split -> inception_4b/output_inception_4b/output_0_split_3
I0403 16:41:12.506335 18942 net.cpp:141] Setting up inception_4b/output_inception_4b/output_0_split
I0403 16:41:12.506357 18942 net.cpp:148] Top shape: 24 512 14 14 (2408448)
I0403 16:41:12.506373 18942 net.cpp:148] Top shape: 24 512 14 14 (2408448)
I0403 16:41:12.506387 18942 net.cpp:148] Top shape: 24 512 14 14 (2408448)
I0403 16:41:12.506402 18942 net.cpp:148] Top shape: 24 512 14 14 (2408448)
I0403 16:41:12.506414 18942 net.cpp:156] Memory required for data: 1028392224
I0403 16:41:12.506428 18942 layer_factory.hpp:77] Creating layer inception_4c/1x1
I0403 16:41:12.506448 18942 net.cpp:91] Creating Layer inception_4c/1x1
I0403 16:41:12.506464 18942 net.cpp:425] inception_4c/1x1 <- inception_4b/output_inception_4b/output_0_split_0
I0403 16:41:12.506484 18942 net.cpp:399] inception_4c/1x1 -> inception_4c/1x1
I0403 16:41:12.507828 18942 net.cpp:141] Setting up inception_4c/1x1
I0403 16:41:12.507858 18942 net.cpp:148] Top shape: 24 128 14 14 (602112)
I0403 16:41:12.507874 18942 net.cpp:156] Memory required for data: 1030800672
I0403 16:41:12.507891 18942 layer_factory.hpp:77] Creating layer inception_4c/relu_1x1
I0403 16:41:12.507908 18942 net.cpp:91] Creating Layer inception_4c/relu_1x1
I0403 16:41:12.507922 18942 net.cpp:425] inception_4c/relu_1x1 <- inception_4c/1x1
I0403 16:41:12.507941 18942 net.cpp:386] inception_4c/relu_1x1 -> inception_4c/1x1 (in-place)
I0403 16:41:12.508107 18942 net.cpp:141] Setting up inception_4c/relu_1x1
I0403 16:41:12.508131 18942 net.cpp:148] Top shape: 24 128 14 14 (602112)
I0403 16:41:12.508144 18942 net.cpp:156] Memory required for data: 1033209120
I0403 16:41:12.508157 18942 layer_factory.hpp:77] Creating layer inception_4c/3x3_reduce
I0403 16:41:12.508178 18942 net.cpp:91] Creating Layer inception_4c/3x3_reduce
I0403 16:41:12.508194 18942 net.cpp:425] inception_4c/3x3_reduce <- inception_4b/output_inception_4b/output_0_split_1
I0403 16:41:12.508214 18942 net.cpp:399] inception_4c/3x3_reduce -> inception_4c/3x3_reduce
I0403 16:41:12.510087 18942 net.cpp:141] Setting up inception_4c/3x3_reduce
I0403 16:41:12.510114 18942 net.cpp:148] Top shape: 24 128 14 14 (602112)
I0403 16:41:12.510129 18942 net.cpp:156] Memory required for data: 1035617568
I0403 16:41:12.510146 18942 layer_factory.hpp:77] Creating layer inception_4c/relu_3x3_reduce
I0403 16:41:12.510165 18942 net.cpp:91] Creating Layer inception_4c/relu_3x3_reduce
I0403 16:41:12.510181 18942 net.cpp:425] inception_4c/relu_3x3_reduce <- inception_4c/3x3_reduce
I0403 16:41:12.510197 18942 net.cpp:386] inception_4c/relu_3x3_reduce -> inception_4c/3x3_reduce (in-place)
I0403 16:41:12.510471 18942 net.cpp:141] Setting up inception_4c/relu_3x3_reduce
I0403 16:41:12.510496 18942 net.cpp:148] Top shape: 24 128 14 14 (602112)
I0403 16:41:12.510511 18942 net.cpp:156] Memory required for data: 1038026016
I0403 16:41:12.510524 18942 layer_factory.hpp:77] Creating layer inception_4c/3x3
I0403 16:41:12.510545 18942 net.cpp:91] Creating Layer inception_4c/3x3
I0403 16:41:12.510561 18942 net.cpp:425] inception_4c/3x3 <- inception_4c/3x3_reduce
I0403 16:41:12.510587 18942 net.cpp:399] inception_4c/3x3 -> inception_4c/3x3
I0403 16:41:12.514235 18942 net.cpp:141] Setting up inception_4c/3x3
I0403 16:41:12.514274 18942 net.cpp:148] Top shape: 24 256 14 14 (1204224)
I0403 16:41:12.514289 18942 net.cpp:156] Memory required for data: 1042842912
I0403 16:41:12.514319 18942 layer_factory.hpp:77] Creating layer inception_4c/relu_3x3
I0403 16:41:12.514340 18942 net.cpp:91] Creating Layer inception_4c/relu_3x3
I0403 16:41:12.514358 18942 net.cpp:425] inception_4c/relu_3x3 <- inception_4c/3x3
I0403 16:41:12.514374 18942 net.cpp:386] inception_4c/relu_3x3 -> inception_4c/3x3 (in-place)
I0403 16:41:12.514559 18942 net.cpp:141] Setting up inception_4c/relu_3x3
I0403 16:41:12.514593 18942 net.cpp:148] Top shape: 24 256 14 14 (1204224)
I0403 16:41:12.514610 18942 net.cpp:156] Memory required for data: 1047659808
I0403 16:41:12.514624 18942 layer_factory.hpp:77] Creating layer inception_4c/5x5_reduce
I0403 16:41:12.514644 18942 net.cpp:91] Creating Layer inception_4c/5x5_reduce
I0403 16:41:12.514665 18942 net.cpp:425] inception_4c/5x5_reduce <- inception_4b/output_inception_4b/output_0_split_2
I0403 16:41:12.514683 18942 net.cpp:399] inception_4c/5x5_reduce -> inception_4c/5x5_reduce
I0403 16:41:12.515739 18942 net.cpp:141] Setting up inception_4c/5x5_reduce
I0403 16:41:12.515766 18942 net.cpp:148] Top shape: 24 24 14 14 (112896)
I0403 16:41:12.515782 18942 net.cpp:156] Memory required for data: 1048111392
I0403 16:41:12.515799 18942 layer_factory.hpp:77] Creating layer inception_4c/relu_5x5_reduce
I0403 16:41:12.515830 18942 net.cpp:91] Creating Layer inception_4c/relu_5x5_reduce
I0403 16:41:12.515846 18942 net.cpp:425] inception_4c/relu_5x5_reduce <- inception_4c/5x5_reduce
I0403 16:41:12.515862 18942 net.cpp:386] inception_4c/relu_5x5_reduce -> inception_4c/5x5_reduce (in-place)
I0403 16:41:12.516036 18942 net.cpp:141] Setting up inception_4c/relu_5x5_reduce
I0403 16:41:12.516060 18942 net.cpp:148] Top shape: 24 24 14 14 (112896)
I0403 16:41:12.516075 18942 net.cpp:156] Memory required for data: 1048562976
I0403 16:41:12.516089 18942 layer_factory.hpp:77] Creating layer inception_4c/5x5
I0403 16:41:12.516109 18942 net.cpp:91] Creating Layer inception_4c/5x5
I0403 16:41:12.516125 18942 net.cpp:425] inception_4c/5x5 <- inception_4c/5x5_reduce
I0403 16:41:12.516144 18942 net.cpp:399] inception_4c/5x5 -> inception_4c/5x5
I0403 16:41:12.517359 18942 net.cpp:141] Setting up inception_4c/5x5
I0403 16:41:12.517387 18942 net.cpp:148] Top shape: 24 64 14 14 (301056)
I0403 16:41:12.517403 18942 net.cpp:156] Memory required for data: 1049767200
I0403 16:41:12.517421 18942 layer_factory.hpp:77] Creating layer inception_4c/relu_5x5
I0403 16:41:12.517438 18942 net.cpp:91] Creating Layer inception_4c/relu_5x5
I0403 16:41:12.517453 18942 net.cpp:425] inception_4c/relu_5x5 <- inception_4c/5x5
I0403 16:41:12.517472 18942 net.cpp:386] inception_4c/relu_5x5 -> inception_4c/5x5 (in-place)
I0403 16:41:12.517783 18942 net.cpp:141] Setting up inception_4c/relu_5x5
I0403 16:41:12.517812 18942 net.cpp:148] Top shape: 24 64 14 14 (301056)
I0403 16:41:12.517827 18942 net.cpp:156] Memory required for data: 1050971424
I0403 16:41:12.517840 18942 layer_factory.hpp:77] Creating layer inception_4c/pool
I0403 16:41:12.517858 18942 net.cpp:91] Creating Layer inception_4c/pool
I0403 16:41:12.517884 18942 net.cpp:425] inception_4c/pool <- inception_4b/output_inception_4b/output_0_split_3
I0403 16:41:12.517907 18942 net.cpp:399] inception_4c/pool -> inception_4c/pool
I0403 16:41:12.517969 18942 net.cpp:141] Setting up inception_4c/pool
I0403 16:41:12.517992 18942 net.cpp:148] Top shape: 24 512 14 14 (2408448)
I0403 16:41:12.518004 18942 net.cpp:156] Memory required for data: 1060605216
I0403 16:41:12.518018 18942 layer_factory.hpp:77] Creating layer inception_4c/pool_proj
I0403 16:41:12.518038 18942 net.cpp:91] Creating Layer inception_4c/pool_proj
I0403 16:41:12.518054 18942 net.cpp:425] inception_4c/pool_proj <- inception_4c/pool
I0403 16:41:12.518074 18942 net.cpp:399] inception_4c/pool_proj -> inception_4c/pool_proj
I0403 16:41:12.519261 18942 net.cpp:141] Setting up inception_4c/pool_proj
I0403 16:41:12.519289 18942 net.cpp:148] Top shape: 24 64 14 14 (301056)
I0403 16:41:12.519315 18942 net.cpp:156] Memory required for data: 1061809440
I0403 16:41:12.519335 18942 layer_factory.hpp:77] Creating layer inception_4c/relu_pool_proj
I0403 16:41:12.519354 18942 net.cpp:91] Creating Layer inception_4c/relu_pool_proj
I0403 16:41:12.519369 18942 net.cpp:425] inception_4c/relu_pool_proj <- inception_4c/pool_proj
I0403 16:41:12.519386 18942 net.cpp:386] inception_4c/relu_pool_proj -> inception_4c/pool_proj (in-place)
I0403 16:41:12.519574 18942 net.cpp:141] Setting up inception_4c/relu_pool_proj
I0403 16:41:12.519600 18942 net.cpp:148] Top shape: 24 64 14 14 (301056)
I0403 16:41:12.519616 18942 net.cpp:156] Memory required for data: 1063013664
I0403 16:41:12.519630 18942 layer_factory.hpp:77] Creating layer inception_4c/output
I0403 16:41:12.519647 18942 net.cpp:91] Creating Layer inception_4c/output
I0403 16:41:12.519661 18942 net.cpp:425] inception_4c/output <- inception_4c/1x1
I0403 16:41:12.519677 18942 net.cpp:425] inception_4c/output <- inception_4c/3x3
I0403 16:41:12.519692 18942 net.cpp:425] inception_4c/output <- inception_4c/5x5
I0403 16:41:12.519708 18942 net.cpp:425] inception_4c/output <- inception_4c/pool_proj
I0403 16:41:12.519724 18942 net.cpp:399] inception_4c/output -> inception_4c/output
I0403 16:41:12.519773 18942 net.cpp:141] Setting up inception_4c/output
I0403 16:41:12.519794 18942 net.cpp:148] Top shape: 24 512 14 14 (2408448)
I0403 16:41:12.519820 18942 net.cpp:156] Memory required for data: 1072647456
I0403 16:41:12.519834 18942 layer_factory.hpp:77] Creating layer inception_4c/output_inception_4c/output_0_split
I0403 16:41:12.519850 18942 net.cpp:91] Creating Layer inception_4c/output_inception_4c/output_0_split
I0403 16:41:12.519863 18942 net.cpp:425] inception_4c/output_inception_4c/output_0_split <- inception_4c/output
I0403 16:41:12.519882 18942 net.cpp:399] inception_4c/output_inception_4c/output_0_split -> inception_4c/output_inception_4c/output_0_split_0
I0403 16:41:12.519901 18942 net.cpp:399] inception_4c/output_inception_4c/output_0_split -> inception_4c/output_inception_4c/output_0_split_1
I0403 16:41:12.519920 18942 net.cpp:399] inception_4c/output_inception_4c/output_0_split -> inception_4c/output_inception_4c/output_0_split_2
I0403 16:41:12.519942 18942 net.cpp:399] inception_4c/output_inception_4c/output_0_split -> inception_4c/output_inception_4c/output_0_split_3
I0403 16:41:12.520022 18942 net.cpp:141] Setting up inception_4c/output_inception_4c/output_0_split
I0403 16:41:12.520045 18942 net.cpp:148] Top shape: 24 512 14 14 (2408448)
I0403 16:41:12.520061 18942 net.cpp:148] Top shape: 24 512 14 14 (2408448)
I0403 16:41:12.520074 18942 net.cpp:148] Top shape: 24 512 14 14 (2408448)
I0403 16:41:12.520088 18942 net.cpp:148] Top shape: 24 512 14 14 (2408448)
I0403 16:41:12.520102 18942 net.cpp:156] Memory required for data: 1111182624
I0403 16:41:12.520114 18942 layer_factory.hpp:77] Creating layer inception_4d/1x1
I0403 16:41:12.520134 18942 net.cpp:91] Creating Layer inception_4d/1x1
I0403 16:41:12.520150 18942 net.cpp:425] inception_4d/1x1 <- inception_4c/output_inception_4c/output_0_split_0
I0403 16:41:12.520170 18942 net.cpp:399] inception_4d/1x1 -> inception_4d/1x1
I0403 16:41:12.521481 18942 net.cpp:141] Setting up inception_4d/1x1
I0403 16:41:12.521507 18942 net.cpp:148] Top shape: 24 112 14 14 (526848)
I0403 16:41:12.521522 18942 net.cpp:156] Memory required for data: 1113290016
I0403 16:41:12.521538 18942 layer_factory.hpp:77] Creating layer inception_4d/relu_1x1
I0403 16:41:12.521555 18942 net.cpp:91] Creating Layer inception_4d/relu_1x1
I0403 16:41:12.521576 18942 net.cpp:425] inception_4d/relu_1x1 <- inception_4d/1x1
I0403 16:41:12.521595 18942 net.cpp:386] inception_4d/relu_1x1 -> inception_4d/1x1 (in-place)
I0403 16:41:12.521770 18942 net.cpp:141] Setting up inception_4d/relu_1x1
I0403 16:41:12.521792 18942 net.cpp:148] Top shape: 24 112 14 14 (526848)
I0403 16:41:12.521806 18942 net.cpp:156] Memory required for data: 1115397408
I0403 16:41:12.521821 18942 layer_factory.hpp:77] Creating layer inception_4d/3x3_reduce
I0403 16:41:12.521853 18942 net.cpp:91] Creating Layer inception_4d/3x3_reduce
I0403 16:41:12.521872 18942 net.cpp:425] inception_4d/3x3_reduce <- inception_4c/output_inception_4c/output_0_split_1
I0403 16:41:12.521891 18942 net.cpp:399] inception_4d/3x3_reduce -> inception_4d/3x3_reduce
I0403 16:41:12.523341 18942 net.cpp:141] Setting up inception_4d/3x3_reduce
I0403 16:41:12.523370 18942 net.cpp:148] Top shape: 24 144 14 14 (677376)
I0403 16:41:12.523386 18942 net.cpp:156] Memory required for data: 1118106912
I0403 16:41:12.523402 18942 layer_factory.hpp:77] Creating layer inception_4d/relu_3x3_reduce
I0403 16:41:12.523418 18942 net.cpp:91] Creating Layer inception_4d/relu_3x3_reduce
I0403 16:41:12.523433 18942 net.cpp:425] inception_4d/relu_3x3_reduce <- inception_4d/3x3_reduce
I0403 16:41:12.523452 18942 net.cpp:386] inception_4d/relu_3x3_reduce -> inception_4d/3x3_reduce (in-place)
I0403 16:41:12.523730 18942 net.cpp:141] Setting up inception_4d/relu_3x3_reduce
I0403 16:41:12.523756 18942 net.cpp:148] Top shape: 24 144 14 14 (677376)
I0403 16:41:12.523772 18942 net.cpp:156] Memory required for data: 1120816416
I0403 16:41:12.523784 18942 layer_factory.hpp:77] Creating layer inception_4d/3x3
I0403 16:41:12.523805 18942 net.cpp:91] Creating Layer inception_4d/3x3
I0403 16:41:12.523821 18942 net.cpp:425] inception_4d/3x3 <- inception_4d/3x3_reduce
I0403 16:41:12.523841 18942 net.cpp:399] inception_4d/3x3 -> inception_4d/3x3
I0403 16:41:12.527889 18942 net.cpp:141] Setting up inception_4d/3x3
I0403 16:41:12.527916 18942 net.cpp:148] Top shape: 24 288 14 14 (1354752)
I0403 16:41:12.527931 18942 net.cpp:156] Memory required for data: 1126235424
I0403 16:41:12.527947 18942 layer_factory.hpp:77] Creating layer inception_4d/relu_3x3
I0403 16:41:12.527964 18942 net.cpp:91] Creating Layer inception_4d/relu_3x3
I0403 16:41:12.527978 18942 net.cpp:425] inception_4d/relu_3x3 <- inception_4d/3x3
I0403 16:41:12.527997 18942 net.cpp:386] inception_4d/relu_3x3 -> inception_4d/3x3 (in-place)
I0403 16:41:12.528168 18942 net.cpp:141] Setting up inception_4d/relu_3x3
I0403 16:41:12.528192 18942 net.cpp:148] Top shape: 24 288 14 14 (1354752)
I0403 16:41:12.528205 18942 net.cpp:156] Memory required for data: 1131654432
I0403 16:41:12.528218 18942 layer_factory.hpp:77] Creating layer inception_4d/5x5_reduce
I0403 16:41:12.528239 18942 net.cpp:91] Creating Layer inception_4d/5x5_reduce
I0403 16:41:12.528255 18942 net.cpp:425] inception_4d/5x5_reduce <- inception_4c/output_inception_4c/output_0_split_2
I0403 16:41:12.528275 18942 net.cpp:399] inception_4d/5x5_reduce -> inception_4d/5x5_reduce
I0403 16:41:12.529358 18942 net.cpp:141] Setting up inception_4d/5x5_reduce
I0403 16:41:12.529386 18942 net.cpp:148] Top shape: 24 32 14 14 (150528)
I0403 16:41:12.529399 18942 net.cpp:156] Memory required for data: 1132256544
I0403 16:41:12.529417 18942 layer_factory.hpp:77] Creating layer inception_4d/relu_5x5_reduce
I0403 16:41:12.529434 18942 net.cpp:91] Creating Layer inception_4d/relu_5x5_reduce
I0403 16:41:12.529450 18942 net.cpp:425] inception_4d/relu_5x5_reduce <- inception_4d/5x5_reduce
I0403 16:41:12.529467 18942 net.cpp:386] inception_4d/relu_5x5_reduce -> inception_4d/5x5_reduce (in-place)
I0403 16:41:12.529649 18942 net.cpp:141] Setting up inception_4d/relu_5x5_reduce
I0403 16:41:12.529671 18942 net.cpp:148] Top shape: 24 32 14 14 (150528)
I0403 16:41:12.529685 18942 net.cpp:156] Memory required for data: 1132858656
I0403 16:41:12.529698 18942 layer_factory.hpp:77] Creating layer inception_4d/5x5
I0403 16:41:12.529718 18942 net.cpp:91] Creating Layer inception_4d/5x5
I0403 16:41:12.529736 18942 net.cpp:425] inception_4d/5x5 <- inception_4d/5x5_reduce
I0403 16:41:12.529755 18942 net.cpp:399] inception_4d/5x5 -> inception_4d/5x5
I0403 16:41:12.531137 18942 net.cpp:141] Setting up inception_4d/5x5
I0403 16:41:12.531164 18942 net.cpp:148] Top shape: 24 64 14 14 (301056)
I0403 16:41:12.531179 18942 net.cpp:156] Memory required for data: 1134062880
I0403 16:41:12.531198 18942 layer_factory.hpp:77] Creating layer inception_4d/relu_5x5
I0403 16:41:12.531230 18942 net.cpp:91] Creating Layer inception_4d/relu_5x5
I0403 16:41:12.531247 18942 net.cpp:425] inception_4d/relu_5x5 <- inception_4d/5x5
I0403 16:41:12.531265 18942 net.cpp:386] inception_4d/relu_5x5 -> inception_4d/5x5 (in-place)
I0403 16:41:12.531548 18942 net.cpp:141] Setting up inception_4d/relu_5x5
I0403 16:41:12.531577 18942 net.cpp:148] Top shape: 24 64 14 14 (301056)
I0403 16:41:12.531594 18942 net.cpp:156] Memory required for data: 1135267104
I0403 16:41:12.531606 18942 layer_factory.hpp:77] Creating layer inception_4d/pool
I0403 16:41:12.531625 18942 net.cpp:91] Creating Layer inception_4d/pool
I0403 16:41:12.531641 18942 net.cpp:425] inception_4d/pool <- inception_4c/output_inception_4c/output_0_split_3
I0403 16:41:12.531658 18942 net.cpp:399] inception_4d/pool -> inception_4d/pool
I0403 16:41:12.531723 18942 net.cpp:141] Setting up inception_4d/pool
I0403 16:41:12.531744 18942 net.cpp:148] Top shape: 24 512 14 14 (2408448)
I0403 16:41:12.531757 18942 net.cpp:156] Memory required for data: 1144900896
I0403 16:41:12.531771 18942 layer_factory.hpp:77] Creating layer inception_4d/pool_proj
I0403 16:41:12.531792 18942 net.cpp:91] Creating Layer inception_4d/pool_proj
I0403 16:41:12.531808 18942 net.cpp:425] inception_4d/pool_proj <- inception_4d/pool
I0403 16:41:12.531828 18942 net.cpp:399] inception_4d/pool_proj -> inception_4d/pool_proj
I0403 16:41:12.533565 18942 net.cpp:141] Setting up inception_4d/pool_proj
I0403 16:41:12.533596 18942 net.cpp:148] Top shape: 24 64 14 14 (301056)
I0403 16:41:12.533612 18942 net.cpp:156] Memory required for data: 1146105120
I0403 16:41:12.533629 18942 layer_factory.hpp:77] Creating layer inception_4d/relu_pool_proj
I0403 16:41:12.533645 18942 net.cpp:91] Creating Layer inception_4d/relu_pool_proj
I0403 16:41:12.533660 18942 net.cpp:425] inception_4d/relu_pool_proj <- inception_4d/pool_proj
I0403 16:41:12.533679 18942 net.cpp:386] inception_4d/relu_pool_proj -> inception_4d/pool_proj (in-place)
I0403 16:41:12.533854 18942 net.cpp:141] Setting up inception_4d/relu_pool_proj
I0403 16:41:12.533877 18942 net.cpp:148] Top shape: 24 64 14 14 (301056)
I0403 16:41:12.533891 18942 net.cpp:156] Memory required for data: 1147309344
I0403 16:41:12.533905 18942 layer_factory.hpp:77] Creating layer inception_4d/output
I0403 16:41:12.533923 18942 net.cpp:91] Creating Layer inception_4d/output
I0403 16:41:12.533938 18942 net.cpp:425] inception_4d/output <- inception_4d/1x1
I0403 16:41:12.533954 18942 net.cpp:425] inception_4d/output <- inception_4d/3x3
I0403 16:41:12.533969 18942 net.cpp:425] inception_4d/output <- inception_4d/5x5
I0403 16:41:12.533985 18942 net.cpp:425] inception_4d/output <- inception_4d/pool_proj
I0403 16:41:12.534001 18942 net.cpp:399] inception_4d/output -> inception_4d/output
I0403 16:41:12.534049 18942 net.cpp:141] Setting up inception_4d/output
I0403 16:41:12.534070 18942 net.cpp:148] Top shape: 24 528 14 14 (2483712)
I0403 16:41:12.534083 18942 net.cpp:156] Memory required for data: 1157244192
I0403 16:41:12.534097 18942 layer_factory.hpp:77] Creating layer inception_4d/output_inception_4d/output_0_split
I0403 16:41:12.534113 18942 net.cpp:91] Creating Layer inception_4d/output_inception_4d/output_0_split
I0403 16:41:12.534127 18942 net.cpp:425] inception_4d/output_inception_4d/output_0_split <- inception_4d/output
I0403 16:41:12.534145 18942 net.cpp:399] inception_4d/output_inception_4d/output_0_split -> inception_4d/output_inception_4d/output_0_split_0
I0403 16:41:12.534167 18942 net.cpp:399] inception_4d/output_inception_4d/output_0_split -> inception_4d/output_inception_4d/output_0_split_1
I0403 16:41:12.534185 18942 net.cpp:399] inception_4d/output_inception_4d/output_0_split -> inception_4d/output_inception_4d/output_0_split_2
I0403 16:41:12.534205 18942 net.cpp:399] inception_4d/output_inception_4d/output_0_split -> inception_4d/output_inception_4d/output_0_split_3
I0403 16:41:12.534224 18942 net.cpp:399] inception_4d/output_inception_4d/output_0_split -> inception_4d/output_inception_4d/output_0_split_4
I0403 16:41:12.534325 18942 net.cpp:141] Setting up inception_4d/output_inception_4d/output_0_split
I0403 16:41:12.534359 18942 net.cpp:148] Top shape: 24 528 14 14 (2483712)
I0403 16:41:12.534375 18942 net.cpp:148] Top shape: 24 528 14 14 (2483712)
I0403 16:41:12.534389 18942 net.cpp:148] Top shape: 24 528 14 14 (2483712)
I0403 16:41:12.534404 18942 net.cpp:148] Top shape: 24 528 14 14 (2483712)
I0403 16:41:12.534418 18942 net.cpp:148] Top shape: 24 528 14 14 (2483712)
I0403 16:41:12.534431 18942 net.cpp:156] Memory required for data: 1206918432
I0403 16:41:12.534445 18942 layer_factory.hpp:77] Creating layer loss2/ave_pool
I0403 16:41:12.534461 18942 net.cpp:91] Creating Layer loss2/ave_pool
I0403 16:41:12.534476 18942 net.cpp:425] loss2/ave_pool <- inception_4d/output_inception_4d/output_0_split_0
I0403 16:41:12.534495 18942 net.cpp:399] loss2/ave_pool -> loss2/ave_pool
I0403 16:41:12.534806 18942 net.cpp:141] Setting up loss2/ave_pool
I0403 16:41:12.534831 18942 net.cpp:148] Top shape: 24 528 4 4 (202752)
I0403 16:41:12.534844 18942 net.cpp:156] Memory required for data: 1207729440
I0403 16:41:12.534858 18942 layer_factory.hpp:77] Creating layer loss2/conv
I0403 16:41:12.534879 18942 net.cpp:91] Creating Layer loss2/conv
I0403 16:41:12.534896 18942 net.cpp:425] loss2/conv <- loss2/ave_pool
I0403 16:41:12.534916 18942 net.cpp:399] loss2/conv -> loss2/conv
I0403 16:41:12.536727 18942 net.cpp:141] Setting up loss2/conv
I0403 16:41:12.536757 18942 net.cpp:148] Top shape: 24 128 4 4 (49152)
I0403 16:41:12.536773 18942 net.cpp:156] Memory required for data: 1207926048
I0403 16:41:12.536790 18942 layer_factory.hpp:77] Creating layer loss2/relu_conv
I0403 16:41:12.536808 18942 net.cpp:91] Creating Layer loss2/relu_conv
I0403 16:41:12.536823 18942 net.cpp:425] loss2/relu_conv <- loss2/conv
I0403 16:41:12.536839 18942 net.cpp:386] loss2/relu_conv -> loss2/conv (in-place)
I0403 16:41:12.537109 18942 net.cpp:141] Setting up loss2/relu_conv
I0403 16:41:12.537137 18942 net.cpp:148] Top shape: 24 128 4 4 (49152)
I0403 16:41:12.537152 18942 net.cpp:156] Memory required for data: 1208122656
I0403 16:41:12.537164 18942 layer_factory.hpp:77] Creating layer loss2/fc
I0403 16:41:12.537183 18942 net.cpp:91] Creating Layer loss2/fc
I0403 16:41:12.537196 18942 net.cpp:425] loss2/fc <- loss2/conv
I0403 16:41:12.537217 18942 net.cpp:399] loss2/fc -> loss2/fc
I0403 16:41:12.554018 18942 net.cpp:141] Setting up loss2/fc
I0403 16:41:12.554047 18942 net.cpp:148] Top shape: 24 1024 (24576)
I0403 16:41:12.554061 18942 net.cpp:156] Memory required for data: 1208220960
I0403 16:41:12.554078 18942 layer_factory.hpp:77] Creating layer loss2/relu_fc
I0403 16:41:12.554097 18942 net.cpp:91] Creating Layer loss2/relu_fc
I0403 16:41:12.554113 18942 net.cpp:425] loss2/relu_fc <- loss2/fc
I0403 16:41:12.554129 18942 net.cpp:386] loss2/relu_fc -> loss2/fc (in-place)
I0403 16:41:12.554414 18942 net.cpp:141] Setting up loss2/relu_fc
I0403 16:41:12.554438 18942 net.cpp:148] Top shape: 24 1024 (24576)
I0403 16:41:12.554452 18942 net.cpp:156] Memory required for data: 1208319264
I0403 16:41:12.554466 18942 layer_factory.hpp:77] Creating layer loss2/drop_fc
I0403 16:41:12.554483 18942 net.cpp:91] Creating Layer loss2/drop_fc
I0403 16:41:12.554499 18942 net.cpp:425] loss2/drop_fc <- loss2/fc
I0403 16:41:12.554515 18942 net.cpp:386] loss2/drop_fc -> loss2/fc (in-place)
I0403 16:41:12.554560 18942 net.cpp:141] Setting up loss2/drop_fc
I0403 16:41:12.554594 18942 net.cpp:148] Top shape: 24 1024 (24576)
I0403 16:41:12.554610 18942 net.cpp:156] Memory required for data: 1208417568
I0403 16:41:12.554623 18942 layer_factory.hpp:77] Creating layer loss2/classifier_plantvillage
I0403 16:41:12.554641 18942 net.cpp:91] Creating Layer loss2/classifier_plantvillage
I0403 16:41:12.554656 18942 net.cpp:425] loss2/classifier_plantvillage <- loss2/fc
I0403 16:41:12.554674 18942 net.cpp:399] loss2/classifier_plantvillage -> loss2/classifier_plantvillage
I0403 16:41:12.555053 18942 net.cpp:141] Setting up loss2/classifier_plantvillage
I0403 16:41:12.555076 18942 net.cpp:148] Top shape: 24 38 (912)
I0403 16:41:12.555104 18942 net.cpp:156] Memory required for data: 1208421216
I0403 16:41:12.555122 18942 layer_factory.hpp:77] Creating layer loss2/classifier_plantvillage_loss2/classifier_plantvillage_0_split
I0403 16:41:12.555140 18942 net.cpp:91] Creating Layer loss2/classifier_plantvillage_loss2/classifier_plantvillage_0_split
I0403 16:41:12.555153 18942 net.cpp:425] loss2/classifier_plantvillage_loss2/classifier_plantvillage_0_split <- loss2/classifier_plantvillage
I0403 16:41:12.555171 18942 net.cpp:399] loss2/classifier_plantvillage_loss2/classifier_plantvillage_0_split -> loss2/classifier_plantvillage_loss2/classifier_plantvillage_0_split_0
I0403 16:41:12.555191 18942 net.cpp:399] loss2/classifier_plantvillage_loss2/classifier_plantvillage_0_split -> loss2/classifier_plantvillage_loss2/classifier_plantvillage_0_split_1
I0403 16:41:12.555212 18942 net.cpp:399] loss2/classifier_plantvillage_loss2/classifier_plantvillage_0_split -> loss2/classifier_plantvillage_loss2/classifier_plantvillage_0_split_2
I0403 16:41:12.555284 18942 net.cpp:141] Setting up loss2/classifier_plantvillage_loss2/classifier_plantvillage_0_split
I0403 16:41:12.555306 18942 net.cpp:148] Top shape: 24 38 (912)
I0403 16:41:12.555321 18942 net.cpp:148] Top shape: 24 38 (912)
I0403 16:41:12.555335 18942 net.cpp:148] Top shape: 24 38 (912)
I0403 16:41:12.555348 18942 net.cpp:156] Memory required for data: 1208432160
I0403 16:41:12.555361 18942 layer_factory.hpp:77] Creating layer inception_4e/1x1
I0403 16:41:12.555382 18942 net.cpp:91] Creating Layer inception_4e/1x1
I0403 16:41:12.555397 18942 net.cpp:425] inception_4e/1x1 <- inception_4d/output_inception_4d/output_0_split_1
I0403 16:41:12.555418 18942 net.cpp:399] inception_4e/1x1 -> inception_4e/1x1
I0403 16:41:12.557131 18942 net.cpp:141] Setting up inception_4e/1x1
I0403 16:41:12.557158 18942 net.cpp:148] Top shape: 24 256 14 14 (1204224)
I0403 16:41:12.557174 18942 net.cpp:156] Memory required for data: 1213249056
I0403 16:41:12.557191 18942 layer_factory.hpp:77] Creating layer inception_4e/relu_1x1
I0403 16:41:12.557207 18942 net.cpp:91] Creating Layer inception_4e/relu_1x1
I0403 16:41:12.557222 18942 net.cpp:425] inception_4e/relu_1x1 <- inception_4e/1x1
I0403 16:41:12.557240 18942 net.cpp:386] inception_4e/relu_1x1 -> inception_4e/1x1 (in-place)
I0403 16:41:12.557518 18942 net.cpp:141] Setting up inception_4e/relu_1x1
I0403 16:41:12.557544 18942 net.cpp:148] Top shape: 24 256 14 14 (1204224)
I0403 16:41:12.557559 18942 net.cpp:156] Memory required for data: 1218065952
I0403 16:41:12.557579 18942 layer_factory.hpp:77] Creating layer inception_4e/3x3_reduce
I0403 16:41:12.557600 18942 net.cpp:91] Creating Layer inception_4e/3x3_reduce
I0403 16:41:12.557616 18942 net.cpp:425] inception_4e/3x3_reduce <- inception_4d/output_inception_4d/output_0_split_2
I0403 16:41:12.557634 18942 net.cpp:399] inception_4e/3x3_reduce -> inception_4e/3x3_reduce
I0403 16:41:12.559650 18942 net.cpp:141] Setting up inception_4e/3x3_reduce
I0403 16:41:12.559679 18942 net.cpp:148] Top shape: 24 160 14 14 (752640)
I0403 16:41:12.559694 18942 net.cpp:156] Memory required for data: 1221076512
I0403 16:41:12.559710 18942 layer_factory.hpp:77] Creating layer inception_4e/relu_3x3_reduce
I0403 16:41:12.559728 18942 net.cpp:91] Creating Layer inception_4e/relu_3x3_reduce
I0403 16:41:12.559743 18942 net.cpp:425] inception_4e/relu_3x3_reduce <- inception_4e/3x3_reduce
I0403 16:41:12.559759 18942 net.cpp:386] inception_4e/relu_3x3_reduce -> inception_4e/3x3_reduce (in-place)
I0403 16:41:12.559934 18942 net.cpp:141] Setting up inception_4e/relu_3x3_reduce
I0403 16:41:12.559959 18942 net.cpp:148] Top shape: 24 160 14 14 (752640)
I0403 16:41:12.559974 18942 net.cpp:156] Memory required for data: 1224087072
I0403 16:41:12.559988 18942 layer_factory.hpp:77] Creating layer inception_4e/3x3
I0403 16:41:12.560009 18942 net.cpp:91] Creating Layer inception_4e/3x3
I0403 16:41:12.560024 18942 net.cpp:425] inception_4e/3x3 <- inception_4e/3x3_reduce
I0403 16:41:12.560042 18942 net.cpp:399] inception_4e/3x3 -> inception_4e/3x3
I0403 16:41:12.564802 18942 net.cpp:141] Setting up inception_4e/3x3
I0403 16:41:12.564846 18942 net.cpp:148] Top shape: 24 320 14 14 (1505280)
I0403 16:41:12.564862 18942 net.cpp:156] Memory required for data: 1230108192
I0403 16:41:12.564880 18942 layer_factory.hpp:77] Creating layer inception_4e/relu_3x3
I0403 16:41:12.564896 18942 net.cpp:91] Creating Layer inception_4e/relu_3x3
I0403 16:41:12.564913 18942 net.cpp:425] inception_4e/relu_3x3 <- inception_4e/3x3
I0403 16:41:12.564932 18942 net.cpp:386] inception_4e/relu_3x3 -> inception_4e/3x3 (in-place)
I0403 16:41:12.565217 18942 net.cpp:141] Setting up inception_4e/relu_3x3
I0403 16:41:12.565242 18942 net.cpp:148] Top shape: 24 320 14 14 (1505280)
I0403 16:41:12.565255 18942 net.cpp:156] Memory required for data: 1236129312
I0403 16:41:12.565269 18942 layer_factory.hpp:77] Creating layer inception_4e/5x5_reduce
I0403 16:41:12.565291 18942 net.cpp:91] Creating Layer inception_4e/5x5_reduce
I0403 16:41:12.565307 18942 net.cpp:425] inception_4e/5x5_reduce <- inception_4d/output_inception_4d/output_0_split_3
I0403 16:41:12.565328 18942 net.cpp:399] inception_4e/5x5_reduce -> inception_4e/5x5_reduce
I0403 16:41:12.566344 18942 net.cpp:141] Setting up inception_4e/5x5_reduce
I0403 16:41:12.566370 18942 net.cpp:148] Top shape: 24 32 14 14 (150528)
I0403 16:41:12.566385 18942 net.cpp:156] Memory required for data: 1236731424
I0403 16:41:12.566401 18942 layer_factory.hpp:77] Creating layer inception_4e/relu_5x5_reduce
I0403 16:41:12.566421 18942 net.cpp:91] Creating Layer inception_4e/relu_5x5_reduce
I0403 16:41:12.566437 18942 net.cpp:425] inception_4e/relu_5x5_reduce <- inception_4e/5x5_reduce
I0403 16:41:12.566453 18942 net.cpp:386] inception_4e/relu_5x5_reduce -> inception_4e/5x5_reduce (in-place)
I0403 16:41:12.566745 18942 net.cpp:141] Setting up inception_4e/relu_5x5_reduce
I0403 16:41:12.566769 18942 net.cpp:148] Top shape: 24 32 14 14 (150528)
I0403 16:41:12.566783 18942 net.cpp:156] Memory required for data: 1237333536
I0403 16:41:12.566797 18942 layer_factory.hpp:77] Creating layer inception_4e/5x5
I0403 16:41:12.566835 18942 net.cpp:91] Creating Layer inception_4e/5x5
I0403 16:41:12.566854 18942 net.cpp:425] inception_4e/5x5 <- inception_4e/5x5_reduce
I0403 16:41:12.566871 18942 net.cpp:399] inception_4e/5x5 -> inception_4e/5x5
I0403 16:41:12.568619 18942 net.cpp:141] Setting up inception_4e/5x5
I0403 16:41:12.568645 18942 net.cpp:148] Top shape: 24 128 14 14 (602112)
I0403 16:41:12.568660 18942 net.cpp:156] Memory required for data: 1239741984
I0403 16:41:12.568677 18942 layer_factory.hpp:77] Creating layer inception_4e/relu_5x5
I0403 16:41:12.568696 18942 net.cpp:91] Creating Layer inception_4e/relu_5x5
I0403 16:41:12.568711 18942 net.cpp:425] inception_4e/relu_5x5 <- inception_4e/5x5
I0403 16:41:12.568727 18942 net.cpp:386] inception_4e/relu_5x5 -> inception_4e/5x5 (in-place)
I0403 16:41:12.568910 18942 net.cpp:141] Setting up inception_4e/relu_5x5
I0403 16:41:12.568935 18942 net.cpp:148] Top shape: 24 128 14 14 (602112)
I0403 16:41:12.568950 18942 net.cpp:156] Memory required for data: 1242150432
I0403 16:41:12.568964 18942 layer_factory.hpp:77] Creating layer inception_4e/pool
I0403 16:41:12.568980 18942 net.cpp:91] Creating Layer inception_4e/pool
I0403 16:41:12.568994 18942 net.cpp:425] inception_4e/pool <- inception_4d/output_inception_4d/output_0_split_4
I0403 16:41:12.569011 18942 net.cpp:399] inception_4e/pool -> inception_4e/pool
I0403 16:41:12.569077 18942 net.cpp:141] Setting up inception_4e/pool
I0403 16:41:12.569099 18942 net.cpp:148] Top shape: 24 528 14 14 (2483712)
I0403 16:41:12.569113 18942 net.cpp:156] Memory required for data: 1252085280
I0403 16:41:12.569126 18942 layer_factory.hpp:77] Creating layer inception_4e/pool_proj
I0403 16:41:12.569147 18942 net.cpp:91] Creating Layer inception_4e/pool_proj
I0403 16:41:12.569164 18942 net.cpp:425] inception_4e/pool_proj <- inception_4e/pool
I0403 16:41:12.569183 18942 net.cpp:399] inception_4e/pool_proj -> inception_4e/pool_proj
I0403 16:41:12.570605 18942 net.cpp:141] Setting up inception_4e/pool_proj
I0403 16:41:12.570641 18942 net.cpp:148] Top shape: 24 128 14 14 (602112)
I0403 16:41:12.570657 18942 net.cpp:156] Memory required for data: 1254493728
I0403 16:41:12.570673 18942 layer_factory.hpp:77] Creating layer inception_4e/relu_pool_proj
I0403 16:41:12.570693 18942 net.cpp:91] Creating Layer inception_4e/relu_pool_proj
I0403 16:41:12.570708 18942 net.cpp:425] inception_4e/relu_pool_proj <- inception_4e/pool_proj
I0403 16:41:12.570724 18942 net.cpp:386] inception_4e/relu_pool_proj -> inception_4e/pool_proj (in-place)
I0403 16:41:12.571002 18942 net.cpp:141] Setting up inception_4e/relu_pool_proj
I0403 16:41:12.571025 18942 net.cpp:148] Top shape: 24 128 14 14 (602112)
I0403 16:41:12.571039 18942 net.cpp:156] Memory required for data: 1256902176
I0403 16:41:12.571053 18942 layer_factory.hpp:77] Creating layer inception_4e/output
I0403 16:41:12.571069 18942 net.cpp:91] Creating Layer inception_4e/output
I0403 16:41:12.571082 18942 net.cpp:425] inception_4e/output <- inception_4e/1x1
I0403 16:41:12.571099 18942 net.cpp:425] inception_4e/output <- inception_4e/3x3
I0403 16:41:12.571113 18942 net.cpp:425] inception_4e/output <- inception_4e/5x5
I0403 16:41:12.571127 18942 net.cpp:425] inception_4e/output <- inception_4e/pool_proj
I0403 16:41:12.571146 18942 net.cpp:399] inception_4e/output -> inception_4e/output
I0403 16:41:12.571192 18942 net.cpp:141] Setting up inception_4e/output
I0403 16:41:12.571216 18942 net.cpp:148] Top shape: 24 832 14 14 (3913728)
I0403 16:41:12.571229 18942 net.cpp:156] Memory required for data: 1272557088
I0403 16:41:12.571244 18942 layer_factory.hpp:77] Creating layer pool4/3x3_s2
I0403 16:41:12.571259 18942 net.cpp:91] Creating Layer pool4/3x3_s2
I0403 16:41:12.571274 18942 net.cpp:425] pool4/3x3_s2 <- inception_4e/output
I0403 16:41:12.571292 18942 net.cpp:399] pool4/3x3_s2 -> pool4/3x3_s2
I0403 16:41:12.571357 18942 net.cpp:141] Setting up pool4/3x3_s2
I0403 16:41:12.571378 18942 net.cpp:148] Top shape: 24 832 7 7 (978432)
I0403 16:41:12.571393 18942 net.cpp:156] Memory required for data: 1276470816
I0403 16:41:12.571405 18942 layer_factory.hpp:77] Creating layer pool4/3x3_s2_pool4/3x3_s2_0_split
I0403 16:41:12.571422 18942 net.cpp:91] Creating Layer pool4/3x3_s2_pool4/3x3_s2_0_split
I0403 16:41:12.571437 18942 net.cpp:425] pool4/3x3_s2_pool4/3x3_s2_0_split <- pool4/3x3_s2
I0403 16:41:12.571455 18942 net.cpp:399] pool4/3x3_s2_pool4/3x3_s2_0_split -> pool4/3x3_s2_pool4/3x3_s2_0_split_0
I0403 16:41:12.571472 18942 net.cpp:399] pool4/3x3_s2_pool4/3x3_s2_0_split -> pool4/3x3_s2_pool4/3x3_s2_0_split_1
I0403 16:41:12.571493 18942 net.cpp:399] pool4/3x3_s2_pool4/3x3_s2_0_split -> pool4/3x3_s2_pool4/3x3_s2_0_split_2
I0403 16:41:12.571513 18942 net.cpp:399] pool4/3x3_s2_pool4/3x3_s2_0_split -> pool4/3x3_s2_pool4/3x3_s2_0_split_3
I0403 16:41:12.571604 18942 net.cpp:141] Setting up pool4/3x3_s2_pool4/3x3_s2_0_split
I0403 16:41:12.571624 18942 net.cpp:148] Top shape: 24 832 7 7 (978432)
I0403 16:41:12.571640 18942 net.cpp:148] Top shape: 24 832 7 7 (978432)
I0403 16:41:12.571655 18942 net.cpp:148] Top shape: 24 832 7 7 (978432)
I0403 16:41:12.571668 18942 net.cpp:148] Top shape: 24 832 7 7 (978432)
I0403 16:41:12.571681 18942 net.cpp:156] Memory required for data: 1292125728
I0403 16:41:12.571694 18942 layer_factory.hpp:77] Creating layer inception_5a/1x1
I0403 16:41:12.571715 18942 net.cpp:91] Creating Layer inception_5a/1x1
I0403 16:41:12.571732 18942 net.cpp:425] inception_5a/1x1 <- pool4/3x3_s2_pool4/3x3_s2_0_split_0
I0403 16:41:12.571750 18942 net.cpp:399] inception_5a/1x1 -> inception_5a/1x1
I0403 16:41:12.574456 18942 net.cpp:141] Setting up inception_5a/1x1
I0403 16:41:12.574483 18942 net.cpp:148] Top shape: 24 256 7 7 (301056)
I0403 16:41:12.574498 18942 net.cpp:156] Memory required for data: 1293329952
I0403 16:41:12.574515 18942 layer_factory.hpp:77] Creating layer inception_5a/relu_1x1
I0403 16:41:12.574534 18942 net.cpp:91] Creating Layer inception_5a/relu_1x1
I0403 16:41:12.574549 18942 net.cpp:425] inception_5a/relu_1x1 <- inception_5a/1x1
I0403 16:41:12.574565 18942 net.cpp:386] inception_5a/relu_1x1 -> inception_5a/1x1 (in-place)
I0403 16:41:12.574869 18942 net.cpp:141] Setting up inception_5a/relu_1x1
I0403 16:41:12.574894 18942 net.cpp:148] Top shape: 24 256 7 7 (301056)
I0403 16:41:12.574908 18942 net.cpp:156] Memory required for data: 1294534176
I0403 16:41:12.574923 18942 layer_factory.hpp:77] Creating layer inception_5a/3x3_reduce
I0403 16:41:12.574942 18942 net.cpp:91] Creating Layer inception_5a/3x3_reduce
I0403 16:41:12.574959 18942 net.cpp:425] inception_5a/3x3_reduce <- pool4/3x3_s2_pool4/3x3_s2_0_split_1
I0403 16:41:12.574978 18942 net.cpp:399] inception_5a/3x3_reduce -> inception_5a/3x3_reduce
I0403 16:41:12.577328 18942 net.cpp:141] Setting up inception_5a/3x3_reduce
I0403 16:41:12.577356 18942 net.cpp:148] Top shape: 24 160 7 7 (188160)
I0403 16:41:12.577373 18942 net.cpp:156] Memory required for data: 1295286816
I0403 16:41:12.577389 18942 layer_factory.hpp:77] Creating layer inception_5a/relu_3x3_reduce
I0403 16:41:12.577404 18942 net.cpp:91] Creating Layer inception_5a/relu_3x3_reduce
I0403 16:41:12.577419 18942 net.cpp:425] inception_5a/relu_3x3_reduce <- inception_5a/3x3_reduce
I0403 16:41:12.577437 18942 net.cpp:386] inception_5a/relu_3x3_reduce -> inception_5a/3x3_reduce (in-place)
I0403 16:41:12.577618 18942 net.cpp:141] Setting up inception_5a/relu_3x3_reduce
I0403 16:41:12.577641 18942 net.cpp:148] Top shape: 24 160 7 7 (188160)
I0403 16:41:12.577656 18942 net.cpp:156] Memory required for data: 1296039456
I0403 16:41:12.577669 18942 layer_factory.hpp:77] Creating layer inception_5a/3x3
I0403 16:41:12.577690 18942 net.cpp:91] Creating Layer inception_5a/3x3
I0403 16:41:12.577707 18942 net.cpp:425] inception_5a/3x3 <- inception_5a/3x3_reduce
I0403 16:41:12.577728 18942 net.cpp:399] inception_5a/3x3 -> inception_5a/3x3
I0403 16:41:12.582510 18942 net.cpp:141] Setting up inception_5a/3x3
I0403 16:41:12.582538 18942 net.cpp:148] Top shape: 24 320 7 7 (376320)
I0403 16:41:12.582553 18942 net.cpp:156] Memory required for data: 1297544736
I0403 16:41:12.582574 18942 layer_factory.hpp:77] Creating layer inception_5a/relu_3x3
I0403 16:41:12.582595 18942 net.cpp:91] Creating Layer inception_5a/relu_3x3
I0403 16:41:12.582612 18942 net.cpp:425] inception_5a/relu_3x3 <- inception_5a/3x3
I0403 16:41:12.582628 18942 net.cpp:386] inception_5a/relu_3x3 -> inception_5a/3x3 (in-place)
I0403 16:41:12.582904 18942 net.cpp:141] Setting up inception_5a/relu_3x3
I0403 16:41:12.582929 18942 net.cpp:148] Top shape: 24 320 7 7 (376320)
I0403 16:41:12.582943 18942 net.cpp:156] Memory required for data: 1299050016
I0403 16:41:12.582957 18942 layer_factory.hpp:77] Creating layer inception_5a/5x5_reduce
I0403 16:41:12.582978 18942 net.cpp:91] Creating Layer inception_5a/5x5_reduce
I0403 16:41:12.582994 18942 net.cpp:425] inception_5a/5x5_reduce <- pool4/3x3_s2_pool4/3x3_s2_0_split_2
I0403 16:41:12.583015 18942 net.cpp:399] inception_5a/5x5_reduce -> inception_5a/5x5_reduce
I0403 16:41:12.584120 18942 net.cpp:141] Setting up inception_5a/5x5_reduce
I0403 16:41:12.584149 18942 net.cpp:148] Top shape: 24 32 7 7 (37632)
I0403 16:41:12.584166 18942 net.cpp:156] Memory required for data: 1299200544
I0403 16:41:12.584182 18942 layer_factory.hpp:77] Creating layer inception_5a/relu_5x5_reduce
I0403 16:41:12.584198 18942 net.cpp:91] Creating Layer inception_5a/relu_5x5_reduce
I0403 16:41:12.584213 18942 net.cpp:425] inception_5a/relu_5x5_reduce <- inception_5a/5x5_reduce
I0403 16:41:12.584229 18942 net.cpp:386] inception_5a/relu_5x5_reduce -> inception_5a/5x5_reduce (in-place)
I0403 16:41:12.584517 18942 net.cpp:141] Setting up inception_5a/relu_5x5_reduce
I0403 16:41:12.584542 18942 net.cpp:148] Top shape: 24 32 7 7 (37632)
I0403 16:41:12.584558 18942 net.cpp:156] Memory required for data: 1299351072
I0403 16:41:12.584583 18942 layer_factory.hpp:77] Creating layer inception_5a/5x5
I0403 16:41:12.584606 18942 net.cpp:91] Creating Layer inception_5a/5x5
I0403 16:41:12.584624 18942 net.cpp:425] inception_5a/5x5 <- inception_5a/5x5_reduce
I0403 16:41:12.584641 18942 net.cpp:399] inception_5a/5x5 -> inception_5a/5x5
I0403 16:41:12.586266 18942 net.cpp:141] Setting up inception_5a/5x5
I0403 16:41:12.586303 18942 net.cpp:148] Top shape: 24 128 7 7 (150528)
I0403 16:41:12.586318 18942 net.cpp:156] Memory required for data: 1299953184
I0403 16:41:12.586335 18942 layer_factory.hpp:77] Creating layer inception_5a/relu_5x5
I0403 16:41:12.586354 18942 net.cpp:91] Creating Layer inception_5a/relu_5x5
I0403 16:41:12.586369 18942 net.cpp:425] inception_5a/relu_5x5 <- inception_5a/5x5
I0403 16:41:12.586385 18942 net.cpp:386] inception_5a/relu_5x5 -> inception_5a/5x5 (in-place)
I0403 16:41:12.586563 18942 net.cpp:141] Setting up inception_5a/relu_5x5
I0403 16:41:12.586593 18942 net.cpp:148] Top shape: 24 128 7 7 (150528)
I0403 16:41:12.586608 18942 net.cpp:156] Memory required for data: 1300555296
I0403 16:41:12.586621 18942 layer_factory.hpp:77] Creating layer inception_5a/pool
I0403 16:41:12.586637 18942 net.cpp:91] Creating Layer inception_5a/pool
I0403 16:41:12.586652 18942 net.cpp:425] inception_5a/pool <- pool4/3x3_s2_pool4/3x3_s2_0_split_3
I0403 16:41:12.586669 18942 net.cpp:399] inception_5a/pool -> inception_5a/pool
I0403 16:41:12.586737 18942 net.cpp:141] Setting up inception_5a/pool
I0403 16:41:12.586761 18942 net.cpp:148] Top shape: 24 832 7 7 (978432)
I0403 16:41:12.586774 18942 net.cpp:156] Memory required for data: 1304469024
I0403 16:41:12.586787 18942 layer_factory.hpp:77] Creating layer inception_5a/pool_proj
I0403 16:41:12.586807 18942 net.cpp:91] Creating Layer inception_5a/pool_proj
I0403 16:41:12.586824 18942 net.cpp:425] inception_5a/pool_proj <- inception_5a/pool
I0403 16:41:12.586844 18942 net.cpp:399] inception_5a/pool_proj -> inception_5a/pool_proj
I0403 16:41:12.589071 18942 net.cpp:141] Setting up inception_5a/pool_proj
I0403 16:41:12.589099 18942 net.cpp:148] Top shape: 24 128 7 7 (150528)
I0403 16:41:12.589115 18942 net.cpp:156] Memory required for data: 1305071136
I0403 16:41:12.589133 18942 layer_factory.hpp:77] Creating layer inception_5a/relu_pool_proj
I0403 16:41:12.589153 18942 net.cpp:91] Creating Layer inception_5a/relu_pool_proj
I0403 16:41:12.589169 18942 net.cpp:425] inception_5a/relu_pool_proj <- inception_5a/pool_proj
I0403 16:41:12.589185 18942 net.cpp:386] inception_5a/relu_pool_proj -> inception_5a/pool_proj (in-place)
I0403 16:41:12.589469 18942 net.cpp:141] Setting up inception_5a/relu_pool_proj
I0403 16:41:12.589495 18942 net.cpp:148] Top shape: 24 128 7 7 (150528)
I0403 16:41:12.589510 18942 net.cpp:156] Memory required for data: 1305673248
I0403 16:41:12.589524 18942 layer_factory.hpp:77] Creating layer inception_5a/output
I0403 16:41:12.589553 18942 net.cpp:91] Creating Layer inception_5a/output
I0403 16:41:12.589572 18942 net.cpp:425] inception_5a/output <- inception_5a/1x1
I0403 16:41:12.589589 18942 net.cpp:425] inception_5a/output <- inception_5a/3x3
I0403 16:41:12.589607 18942 net.cpp:425] inception_5a/output <- inception_5a/5x5
I0403 16:41:12.589622 18942 net.cpp:425] inception_5a/output <- inception_5a/pool_proj
I0403 16:41:12.589638 18942 net.cpp:399] inception_5a/output -> inception_5a/output
I0403 16:41:12.589684 18942 net.cpp:141] Setting up inception_5a/output
I0403 16:41:12.589709 18942 net.cpp:148] Top shape: 24 832 7 7 (978432)
I0403 16:41:12.589725 18942 net.cpp:156] Memory required for data: 1309586976
I0403 16:41:12.589738 18942 layer_factory.hpp:77] Creating layer inception_5a/output_inception_5a/output_0_split
I0403 16:41:12.589754 18942 net.cpp:91] Creating Layer inception_5a/output_inception_5a/output_0_split
I0403 16:41:12.589768 18942 net.cpp:425] inception_5a/output_inception_5a/output_0_split <- inception_5a/output
I0403 16:41:12.589787 18942 net.cpp:399] inception_5a/output_inception_5a/output_0_split -> inception_5a/output_inception_5a/output_0_split_0
I0403 16:41:12.589807 18942 net.cpp:399] inception_5a/output_inception_5a/output_0_split -> inception_5a/output_inception_5a/output_0_split_1
I0403 16:41:12.589828 18942 net.cpp:399] inception_5a/output_inception_5a/output_0_split -> inception_5a/output_inception_5a/output_0_split_2
I0403 16:41:12.589846 18942 net.cpp:399] inception_5a/output_inception_5a/output_0_split -> inception_5a/output_inception_5a/output_0_split_3
I0403 16:41:12.589949 18942 net.cpp:141] Setting up inception_5a/output_inception_5a/output_0_split
I0403 16:41:12.589973 18942 net.cpp:148] Top shape: 24 832 7 7 (978432)
I0403 16:41:12.589990 18942 net.cpp:148] Top shape: 24 832 7 7 (978432)
I0403 16:41:12.590004 18942 net.cpp:148] Top shape: 24 832 7 7 (978432)
I0403 16:41:12.590019 18942 net.cpp:148] Top shape: 24 832 7 7 (978432)
I0403 16:41:12.590034 18942 net.cpp:156] Memory required for data: 1325241888
I0403 16:41:12.590046 18942 layer_factory.hpp:77] Creating layer inception_5b/1x1
I0403 16:41:12.590065 18942 net.cpp:91] Creating Layer inception_5b/1x1
I0403 16:41:12.590080 18942 net.cpp:425] inception_5b/1x1 <- inception_5a/output_inception_5a/output_0_split_0
I0403 16:41:12.590101 18942 net.cpp:399] inception_5b/1x1 -> inception_5b/1x1
I0403 16:41:12.593693 18942 net.cpp:141] Setting up inception_5b/1x1
I0403 16:41:12.593721 18942 net.cpp:148] Top shape: 24 384 7 7 (451584)
I0403 16:41:12.593736 18942 net.cpp:156] Memory required for data: 1327048224
I0403 16:41:12.593754 18942 layer_factory.hpp:77] Creating layer inception_5b/relu_1x1
I0403 16:41:12.593770 18942 net.cpp:91] Creating Layer inception_5b/relu_1x1
I0403 16:41:12.593785 18942 net.cpp:425] inception_5b/relu_1x1 <- inception_5b/1x1
I0403 16:41:12.593803 18942 net.cpp:386] inception_5b/relu_1x1 -> inception_5b/1x1 (in-place)
I0403 16:41:12.594096 18942 net.cpp:141] Setting up inception_5b/relu_1x1
I0403 16:41:12.594121 18942 net.cpp:148] Top shape: 24 384 7 7 (451584)
I0403 16:41:12.594136 18942 net.cpp:156] Memory required for data: 1328854560
I0403 16:41:12.594151 18942 layer_factory.hpp:77] Creating layer inception_5b/3x3_reduce
I0403 16:41:12.594171 18942 net.cpp:91] Creating Layer inception_5b/3x3_reduce
I0403 16:41:12.594187 18942 net.cpp:425] inception_5b/3x3_reduce <- inception_5a/output_inception_5a/output_0_split_1
I0403 16:41:12.594209 18942 net.cpp:399] inception_5b/3x3_reduce -> inception_5b/3x3_reduce
I0403 16:41:12.596768 18942 net.cpp:141] Setting up inception_5b/3x3_reduce
I0403 16:41:12.596807 18942 net.cpp:148] Top shape: 24 192 7 7 (225792)
I0403 16:41:12.596822 18942 net.cpp:156] Memory required for data: 1329757728
I0403 16:41:12.596839 18942 layer_factory.hpp:77] Creating layer inception_5b/relu_3x3_reduce
I0403 16:41:12.596859 18942 net.cpp:91] Creating Layer inception_5b/relu_3x3_reduce
I0403 16:41:12.596875 18942 net.cpp:425] inception_5b/relu_3x3_reduce <- inception_5b/3x3_reduce
I0403 16:41:12.596891 18942 net.cpp:386] inception_5b/relu_3x3_reduce -> inception_5b/3x3_reduce (in-place)
I0403 16:41:12.597069 18942 net.cpp:141] Setting up inception_5b/relu_3x3_reduce
I0403 16:41:12.597092 18942 net.cpp:148] Top shape: 24 192 7 7 (225792)
I0403 16:41:12.597106 18942 net.cpp:156] Memory required for data: 1330660896
I0403 16:41:12.597121 18942 layer_factory.hpp:77] Creating layer inception_5b/3x3
I0403 16:41:12.597141 18942 net.cpp:91] Creating Layer inception_5b/3x3
I0403 16:41:12.597157 18942 net.cpp:425] inception_5b/3x3 <- inception_5b/3x3_reduce
I0403 16:41:12.597179 18942 net.cpp:399] inception_5b/3x3 -> inception_5b/3x3
I0403 16:41:12.603574 18942 net.cpp:141] Setting up inception_5b/3x3
I0403 16:41:12.603601 18942 net.cpp:148] Top shape: 24 384 7 7 (451584)
I0403 16:41:12.603615 18942 net.cpp:156] Memory required for data: 1332467232
I0403 16:41:12.603633 18942 layer_factory.hpp:77] Creating layer inception_5b/relu_3x3
I0403 16:41:12.603652 18942 net.cpp:91] Creating Layer inception_5b/relu_3x3
I0403 16:41:12.603669 18942 net.cpp:425] inception_5b/relu_3x3 <- inception_5b/3x3
I0403 16:41:12.603687 18942 net.cpp:386] inception_5b/relu_3x3 -> inception_5b/3x3 (in-place)
I0403 16:41:12.603968 18942 net.cpp:141] Setting up inception_5b/relu_3x3
I0403 16:41:12.603993 18942 net.cpp:148] Top shape: 24 384 7 7 (451584)
I0403 16:41:12.604008 18942 net.cpp:156] Memory required for data: 1334273568
I0403 16:41:12.604022 18942 layer_factory.hpp:77] Creating layer inception_5b/5x5_reduce
I0403 16:41:12.604058 18942 net.cpp:91] Creating Layer inception_5b/5x5_reduce
I0403 16:41:12.604075 18942 net.cpp:425] inception_5b/5x5_reduce <- inception_5a/output_inception_5a/output_0_split_2
I0403 16:41:12.604096 18942 net.cpp:399] inception_5b/5x5_reduce -> inception_5b/5x5_reduce
I0403 16:41:12.605326 18942 net.cpp:141] Setting up inception_5b/5x5_reduce
I0403 16:41:12.605353 18942 net.cpp:148] Top shape: 24 48 7 7 (56448)
I0403 16:41:12.605377 18942 net.cpp:156] Memory required for data: 1334499360
I0403 16:41:12.605396 18942 layer_factory.hpp:77] Creating layer inception_5b/relu_5x5_reduce
I0403 16:41:12.605414 18942 net.cpp:91] Creating Layer inception_5b/relu_5x5_reduce
I0403 16:41:12.605430 18942 net.cpp:425] inception_5b/relu_5x5_reduce <- inception_5b/5x5_reduce
I0403 16:41:12.605448 18942 net.cpp:386] inception_5b/relu_5x5_reduce -> inception_5b/5x5_reduce (in-place)
I0403 16:41:12.605823 18942 net.cpp:141] Setting up inception_5b/relu_5x5_reduce
I0403 16:41:12.605849 18942 net.cpp:148] Top shape: 24 48 7 7 (56448)
I0403 16:41:12.605864 18942 net.cpp:156] Memory required for data: 1334725152
I0403 16:41:12.605876 18942 layer_factory.hpp:77] Creating layer inception_5b/5x5
I0403 16:41:12.605895 18942 net.cpp:91] Creating Layer inception_5b/5x5
I0403 16:41:12.605911 18942 net.cpp:425] inception_5b/5x5 <- inception_5b/5x5_reduce
I0403 16:41:12.605929 18942 net.cpp:399] inception_5b/5x5 -> inception_5b/5x5
I0403 16:41:12.607869 18942 net.cpp:141] Setting up inception_5b/5x5
I0403 16:41:12.607897 18942 net.cpp:148] Top shape: 24 128 7 7 (150528)
I0403 16:41:12.607911 18942 net.cpp:156] Memory required for data: 1335327264
I0403 16:41:12.607928 18942 layer_factory.hpp:77] Creating layer inception_5b/relu_5x5
I0403 16:41:12.607947 18942 net.cpp:91] Creating Layer inception_5b/relu_5x5
I0403 16:41:12.607964 18942 net.cpp:425] inception_5b/relu_5x5 <- inception_5b/5x5
I0403 16:41:12.607980 18942 net.cpp:386] inception_5b/relu_5x5 -> inception_5b/5x5 (in-place)
I0403 16:41:12.608162 18942 net.cpp:141] Setting up inception_5b/relu_5x5
I0403 16:41:12.608187 18942 net.cpp:148] Top shape: 24 128 7 7 (150528)
I0403 16:41:12.608202 18942 net.cpp:156] Memory required for data: 1335929376
I0403 16:41:12.608217 18942 layer_factory.hpp:77] Creating layer inception_5b/pool
I0403 16:41:12.608232 18942 net.cpp:91] Creating Layer inception_5b/pool
I0403 16:41:12.608248 18942 net.cpp:425] inception_5b/pool <- inception_5a/output_inception_5a/output_0_split_3
I0403 16:41:12.608269 18942 net.cpp:399] inception_5b/pool -> inception_5b/pool
I0403 16:41:12.608337 18942 net.cpp:141] Setting up inception_5b/pool
I0403 16:41:12.608361 18942 net.cpp:148] Top shape: 24 832 7 7 (978432)
I0403 16:41:12.608373 18942 net.cpp:156] Memory required for data: 1339843104
I0403 16:41:12.608387 18942 layer_factory.hpp:77] Creating layer inception_5b/pool_proj
I0403 16:41:12.608407 18942 net.cpp:91] Creating Layer inception_5b/pool_proj
I0403 16:41:12.608424 18942 net.cpp:425] inception_5b/pool_proj <- inception_5b/pool
I0403 16:41:12.608443 18942 net.cpp:399] inception_5b/pool_proj -> inception_5b/pool_proj
I0403 16:41:12.610662 18942 net.cpp:141] Setting up inception_5b/pool_proj
I0403 16:41:12.610689 18942 net.cpp:148] Top shape: 24 128 7 7 (150528)
I0403 16:41:12.610704 18942 net.cpp:156] Memory required for data: 1340445216
I0403 16:41:12.610721 18942 layer_factory.hpp:77] Creating layer inception_5b/relu_pool_proj
I0403 16:41:12.610740 18942 net.cpp:91] Creating Layer inception_5b/relu_pool_proj
I0403 16:41:12.610756 18942 net.cpp:425] inception_5b/relu_pool_proj <- inception_5b/pool_proj
I0403 16:41:12.610772 18942 net.cpp:386] inception_5b/relu_pool_proj -> inception_5b/pool_proj (in-place)
I0403 16:41:12.611060 18942 net.cpp:141] Setting up inception_5b/relu_pool_proj
I0403 16:41:12.611085 18942 net.cpp:148] Top shape: 24 128 7 7 (150528)
I0403 16:41:12.611099 18942 net.cpp:156] Memory required for data: 1341047328
I0403 16:41:12.611112 18942 layer_factory.hpp:77] Creating layer inception_5b/output
I0403 16:41:12.611129 18942 net.cpp:91] Creating Layer inception_5b/output
I0403 16:41:12.611156 18942 net.cpp:425] inception_5b/output <- inception_5b/1x1
I0403 16:41:12.611173 18942 net.cpp:425] inception_5b/output <- inception_5b/3x3
I0403 16:41:12.611189 18942 net.cpp:425] inception_5b/output <- inception_5b/5x5
I0403 16:41:12.611204 18942 net.cpp:425] inception_5b/output <- inception_5b/pool_proj
I0403 16:41:12.611222 18942 net.cpp:399] inception_5b/output -> inception_5b/output
I0403 16:41:12.611274 18942 net.cpp:141] Setting up inception_5b/output
I0403 16:41:12.611295 18942 net.cpp:148] Top shape: 24 1024 7 7 (1204224)
I0403 16:41:12.611310 18942 net.cpp:156] Memory required for data: 1345864224
I0403 16:41:12.611322 18942 layer_factory.hpp:77] Creating layer pool5/7x7_s1
I0403 16:41:12.611338 18942 net.cpp:91] Creating Layer pool5/7x7_s1
I0403 16:41:12.611353 18942 net.cpp:425] pool5/7x7_s1 <- inception_5b/output
I0403 16:41:12.611372 18942 net.cpp:399] pool5/7x7_s1 -> pool5/7x7_s1
I0403 16:41:12.611579 18942 net.cpp:141] Setting up pool5/7x7_s1
I0403 16:41:12.611603 18942 net.cpp:148] Top shape: 24 1024 1 1 (24576)
I0403 16:41:12.611616 18942 net.cpp:156] Memory required for data: 1345962528
I0403 16:41:12.611630 18942 layer_factory.hpp:77] Creating layer pool5/drop_7x7_s1
I0403 16:41:12.611647 18942 net.cpp:91] Creating Layer pool5/drop_7x7_s1
I0403 16:41:12.611663 18942 net.cpp:425] pool5/drop_7x7_s1 <- pool5/7x7_s1
I0403 16:41:12.611680 18942 net.cpp:386] pool5/drop_7x7_s1 -> pool5/7x7_s1 (in-place)
I0403 16:41:12.611729 18942 net.cpp:141] Setting up pool5/drop_7x7_s1
I0403 16:41:12.611752 18942 net.cpp:148] Top shape: 24 1024 1 1 (24576)
I0403 16:41:12.611764 18942 net.cpp:156] Memory required for data: 1346060832
I0403 16:41:12.611778 18942 layer_factory.hpp:77] Creating layer loss3/classifier_plantvillage
I0403 16:41:12.611795 18942 net.cpp:91] Creating Layer loss3/classifier_plantvillage
I0403 16:41:12.611810 18942 net.cpp:425] loss3/classifier_plantvillage <- pool5/7x7_s1
I0403 16:41:12.611829 18942 net.cpp:399] loss3/classifier_plantvillage -> loss3/classifier_plantvillage
I0403 16:41:12.612233 18942 net.cpp:141] Setting up loss3/classifier_plantvillage
I0403 16:41:12.612267 18942 net.cpp:148] Top shape: 24 38 (912)
I0403 16:41:12.612280 18942 net.cpp:156] Memory required for data: 1346064480
I0403 16:41:12.612298 18942 layer_factory.hpp:77] Creating layer loss3/classifier_plantvillage_loss3/classifier_plantvillage_0_split
I0403 16:41:12.612313 18942 net.cpp:91] Creating Layer loss3/classifier_plantvillage_loss3/classifier_plantvillage_0_split
I0403 16:41:12.612329 18942 net.cpp:425] loss3/classifier_plantvillage_loss3/classifier_plantvillage_0_split <- loss3/classifier_plantvillage
I0403 16:41:12.612346 18942 net.cpp:399] loss3/classifier_plantvillage_loss3/classifier_plantvillage_0_split -> loss3/classifier_plantvillage_loss3/classifier_plantvillage_0_split_0
I0403 16:41:12.612365 18942 net.cpp:399] loss3/classifier_plantvillage_loss3/classifier_plantvillage_0_split -> loss3/classifier_plantvillage_loss3/classifier_plantvillage_0_split_1
I0403 16:41:12.612385 18942 net.cpp:399] loss3/classifier_plantvillage_loss3/classifier_plantvillage_0_split -> loss3/classifier_plantvillage_loss3/classifier_plantvillage_0_split_2
I0403 16:41:12.612403 18942 net.cpp:399] loss3/classifier_plantvillage_loss3/classifier_plantvillage_0_split -> loss3/classifier_plantvillage_loss3/classifier_plantvillage_0_split_3
I0403 16:41:12.612500 18942 net.cpp:141] Setting up loss3/classifier_plantvillage_loss3/classifier_plantvillage_0_split
I0403 16:41:12.612522 18942 net.cpp:148] Top shape: 24 38 (912)
I0403 16:41:12.612537 18942 net.cpp:148] Top shape: 24 38 (912)
I0403 16:41:12.612551 18942 net.cpp:148] Top shape: 24 38 (912)
I0403 16:41:12.612571 18942 net.cpp:148] Top shape: 24 38 (912)
I0403 16:41:12.612584 18942 net.cpp:156] Memory required for data: 1346079072
I0403 16:41:12.612598 18942 layer_factory.hpp:77] Creating layer loss1/loss
I0403 16:41:12.612618 18942 net.cpp:91] Creating Layer loss1/loss
I0403 16:41:12.612633 18942 net.cpp:425] loss1/loss <- loss1/classifier_plantvillage_loss1/classifier_plantvillage_0_split_0
I0403 16:41:12.612663 18942 net.cpp:425] loss1/loss <- label_data_1_split_0
…
