…
I0403 15:51:49.577586 16134 net.cpp:313] The NetState phase (1) differed from the phase (0) specified by a rule in layer data
I0403 15:51:49.578703 16134 net.cpp:49] Initializing net from parameters: 
state {
  phase: TEST
}
layer {
  name: "data"
  type: "Data"
  top: "data"
  top: "label"
  include {
    phase: TEST
  }
  transform_param {
    mirror: false
    crop_size: 224
    mean_file: "/home/mohanty/data/final_dataset/lmdb/segmented-20-80/mean.binaryproto"
  }
  data_param {
    source: "/home/mohanty/data/final_dataset/lmdb/segmented-20-80/test_db"
    batch_size: 24
    backend: LMDB
  }
}
layer {
  name: "conv1/7x7_s2"
  type: "Convolution"
  bottom: "data"
  top: "conv1/7x7_s2"
  param {
    lr_mult: 1
    decay_mult: 1
  }
  param {
    lr_mult: 2
    decay_mult: 0
  }
  convolution_param {
    num_output: 64
    pad: 3
    kernel_size: 7
    stride: 2
    weight_filler {
      type: "xavier"
      std: 0.1
    }
    bias_filler {
      type: "constant"
      value: 0.2
    }
  }
}
layer {
  name: "conv1/relu_7x7"
  type: "ReLU"
  bottom: "conv1/7x7_s2"
  top: "conv1/7x7_s2"
}
layer {
  name: "pool1/3x3_s2"
  type: "Pooling"
  bottom: "conv1/7x7_s2"
  top: "pool1/3x3_s2"
  pooling_param {
    pool: MAX
    kernel_size: 3
    stride: 2
  }
}
layer {
  name: "pool1/norm1"
  type: "LRN"
  bottom: "pool1/3x3_s2"
  top: "pool1/norm1"
  lrn_param {
    local_size: 5
    alpha: 0.0001
    beta: 0.75
  }
}
layer {
  name: "conv2/3x3_reduce"
  type: "Convolution"
  bottom: "pool1/norm1"
  top: "conv2/3x3_reduce"
  param {
    lr_mult: 1
    decay_mult: 1
  }
  param {
    lr_mult: 2
    decay_mult: 0
  }
  convolution_param {
    num_output: 64
    kernel_size: 1
    weight_filler {
      type: "xavier"
      std: 0.1
    }
    bias_filler {
      type: "constant"
      value: 0.2
    }
  }
}
layer {
  name: "conv2/relu_3x3_reduce"
  type: "ReLU"
  bottom: "conv2/3x3_reduce"
  top: "conv2/3x3_reduce"
}
layer {
  name: "conv2/3x3"
  type: "Convolution"
  bottom: "conv2/3x3_reduce"
  top: "conv2/3x3"
  param {
    lr_mult: 1
    decay_mult: 1
  }
  param {
    lr_mult: 2
    decay_mult: 0
  }
  convolution_param {
    num_output: 192
    pad: 1
    kernel_size: 3
    weight_filler {
      type: "xavier"
      std: 0.03
    }
    bias_filler {
      type: "constant"
      value: 0.2
    }
  }
}
layer {
  name: "conv2/relu_3x3"
  type: "ReLU"
  bottom: "conv2/3x3"
  top: "conv2/3x3"
}
layer {
  name: "conv2/norm2"
  type: "LRN"
  bottom: "conv2/3x3"
  top: "conv2/norm2"
  lrn_param {
    local_size: 5
    alpha: 0.0001
    beta: 0.75
  }
}
layer {
  name: "pool2/3x3_s2"
  type: "Pooling"
  bottom: "conv2/norm2"
  top: "pool2/3x3_s2"
  pooling_param {
    pool: MAX
    kernel_size: 3
    stride: 2
  }
}
layer {
  name: "inception_3a/1x1"
  type: "Convolution"
  bottom: "pool2/3x3_s2"
  top: "inception_3a/1x1"
  param {
    lr_mult: 1
    decay_mult: 1
  }
  param {
    lr_mult: 2
    decay_mult: 0
  }
  convolution_param {
    num_output: 64
    kernel_size: 1
    weight_filler {
      type: "xavier"
      std: 0.03
    }
    bias_filler {
      type: "constant"
      value: 0.2
    }
  }
}
layer {
  name: "inception_3a/relu_1x1"
  type: "ReLU"
  bottom: "inception_3a/1x1"
  top: "inception_3a/1x1"
}
layer {
  name: "inception_3a/3x3_reduce"
  type: "Convolution"
  bottom: "pool2/3x3_s2"
  top: "inception_3a/3x3_reduce"
  param {
    lr_mult: 1
    decay_mult: 1
  }
  param {
    lr_mult: 2
    decay_mult: 0
  }
  convolution_param {
    num_output: 96
    kernel_size: 1
    weight_filler {
      type: "xavier"
      std: 0.09
    }
    bias_filler {
      type: "constant"
      value: 0.2
    }
  }
}
layer {
  name: "inception_3a/relu_3x3_reduce"
  type: "ReLU"
  bottom: "inception_3a/3x3_reduce"
  top: "inception_3a/3x3_reduce"
}
layer {
  name: "inception_3a/3x3"
  type: "Convolution"
  bottom: "inception_3a/3x3_reduce"
  top: "inception_3a/3x3"
  param {
    lr_mult: 1
    decay_mult: 1
  }
  param {
    lr_mult: 2
    decay_mult: 0
  }
  convolution_param {
    num_output: 128
    pad: 1
    kernel_size: 3
    weight_filler {
      type: "xavier"
      std: 0.03
    }
    bias_filler {
      type: "constant"
      value: 0.2
    }
  }
}
layer {
  name: "inception_3a/relu_3x3"
  type: "ReLU"
  bottom: "inception_3a/3x3"
  top: "inception_3a/3x3"
}
layer {
  name: "inception_3a/5x5_reduce"
  type: "Convolution"
  bottom: "pool2/3x3_s2"
  top: "inception_3a/5x5_reduce"
  param {
    lr_mult: 1
    decay_mult: 1
  }
  param {
    lr_mult: 2
    decay_mult: 0
  }
  convolution_param {
    num_output: 16
    kernel_size: 1
    weight_filler {
      type: "xavier"
      std: 0.2
    }
    bias_filler {
      type: "constant"
      value: 0.2
    }
  }
}
layer {
  name: "inception_3a/relu_5x5_reduce"
  type: "ReLU"
  bottom: "inception_3a/5x5_reduce"
  top: "inception_3a/5x5_reduce"
}
layer {
  name: "inception_3a/5x5"
  type: "Convolution"
  bottom: "inception_3a/5x5_reduce"
  top: "inception_3a/5x5"
  param {
    lr_mult: 1
    decay_mult: 1
  }
  param {
    lr_mult: 2
    decay_mult: 0
  }
  convolution_param {
    num_output: 32
    pad: 2
    kernel_size: 5
    weight_filler {
      type: "xavier"
      std: 0.03
    }
    bias_filler {
      type: "constant"
      value: 0.2
    }
  }
}
layer {
  name: "inception_3a/relu_5x5"
  type: "ReLU"
  bottom: "inception_3a/5x5"
  top: "inception_3a/5x5"
}
layer {
  name: "inception_3a/pool"
  type: "Pooling"
  bottom: "pool2/3x3_s2"
  top: "inception_3a/pool"
  pooling_param {
    pool: MAX
    kernel_size: 3
    stride: 1
    pad: 1
  }
}
layer {
  name: "inception_3a/pool_proj"
  type: "Convolution"
  bottom: "inception_3a/pool"
  top: "inception_3a/pool_proj"
  param {
    lr_mult: 1
    decay_mult: 1
  }
  param {
    lr_mult: 2
    decay_mult: 0
  }
  convolution_param {
    num_output: 32
    kernel_size: 1
    weight_filler {
      type: "xavier"
      std: 0.1
    }
    bias_filler {
      type: "constant"
      value: 0.2
    }
  }
}
layer {
  name: "inception_3a/relu_pool_proj"
  type: "ReLU"
  bottom: "inception_3a/pool_proj"
  top: "inception_3a/pool_proj"
}
layer {
  name: "inception_3a/output"
  type: "Concat"
  bottom: "inception_3a/1x1"
  bottom: "inception_3a/3x3"
  bottom: "inception_3a/5x5"
  bottom: "inception_3a/pool_proj"
  top: "inception_3a/output"
}
layer {
  name: "inception_3b/1x1"
  type: "Convolution"
  bottom: "inception_3a/output"
  top: "inception_3b/1x1"
  param {
    lr_mult: 1
    decay_mult: 1
  }
  param {
    lr_mult: 2
    decay_mult: 0
  }
  convolution_param {
    num_output: 128
    kernel_size: 1
    weight_filler {
      type: "xavier"
      std: 0.03
    }
    bias_filler {
      type: "constant"
      value: 0.2
    }
  }
}
layer {
  name: "inception_3b/relu_1x1"
  type: "ReLU"
  bottom: "inception_3b/1x1"
  top: "inception_3b/1x1"
}
layer {
  name: "inception_3b/3x3_reduce"
  type: "Convolution"
  bottom: "inception_3a/output"
  top: "inception_3b/3x3_reduce"
  param {
    lr_mult: 1
    decay_mult: 1
  }
  param {
    lr_mult: 2
    decay_mult: 0
  }
  convolution_param {
    num_output: 128
    kernel_size: 1
    weight_filler {
      type: "xavier"
      std: 0.09
    }
    bias_filler {
      type: "constant"
      value: 0.2
    }
  }
}
layer {
  name: "inception_3b/relu_3x3_reduce"
  type: "ReLU"
  bottom: "inception_3b/3x3_reduce"
  top: "inception_3b/3x3_reduce"
}
layer {
  name: "inception_3b/3x3"
  type: "Convolution"
  bottom: "inception_3b/3x3_reduce"
  top: "inception_3b/3x3"
  param {
    lr_mult: 1
    decay_mult: 1
  }
  param {
    lr_mult: 2
    decay_mult: 0
  }
  convolution_param {
    num_output: 192
    pad: 1
    kernel_size: 3
    weight_filler {
      type: "xavier"
      std: 0.03
    }
    bias_filler {
      type: "constant"
      value: 0.2
    }
  }
}
layer {
  name: "inception_3b/relu_3x3"
  type: "ReLU"
  bottom: "inception_3b/3x3"
  top: "inception_3b/3x3"
}
layer {
  name: "inception_3b/5x5_reduce"
  type: "Convolution"
  bottom: "inception_3a/output"
  top: "inception_3b/5x5_reduce"
  param {
    lr_mult: 1
    decay_mult: 1
  }
  param {
    lr_mult: 2
    decay_mult: 0
  }
  convolution_param {
    num_output: 32
    kernel_size: 1
    weight_filler {
      type: "xavier"
      std: 0.2
    }
    bias_filler {
      type: "constant"
      value: 0.2
    }
  }
}
layer {
  name: "inception_3b/relu_5x5_reduce"
  type: "ReLU"
  bottom: "inception_3b/5x5_reduce"
  top: "inception_3b/5x5_reduce"
}
layer {
  name: "inception_3b/5x5"
  type: "Convolution"
  bottom: "inception_3b/5x5_reduce"
  top: "inception_3b/5x5"
  param {
    lr_mult: 1
    decay_mult: 1
  }
  param {
    lr_mult: 2
    decay_mult: 0
  }
  convolution_param {
    num_output: 96
    pad: 2
    kernel_size: 5
    weight_filler {
      type: "xavier"
      std: 0.03
    }
    bias_filler {
      type: "constant"
      value: 0.2
    }
  }
}
layer {
  name: "inception_3b/relu_5x5"
  type: "ReLU"
  bottom: "inception_3b/5x5"
  top: "inception_3b/5x5"
}
layer {
  name: "inception_3b/pool"
  type: "Pooling"
  bottom: "inception_3a/output"
  top: "inception_3b/pool"
  pooling_param {
    pool: MAX
    kernel_size: 3
    stride: 1
    pad: 1
  }
}
layer {
  name: "inception_3b/pool_proj"
  type: "Convolution"
  bottom: "inception_3b/pool"
  top: "inception_3b/pool_proj"
  param {
    lr_mult: 1
    decay_mult: 1
  }
  param {
    lr_mult: 2
    decay_mult: 0
  }
  convolution_param {
    num_output: 64
    kernel_size: 1
    weight_filler {
      type: "xavier"
      std: 0.1
    }
    bias_filler {
      type: "constant"
      value: 0.2
    }
  }
}
layer {
  name: "inception_3b/relu_pool_proj"
  type: "ReLU"
  bottom: "inception_3b/pool_proj"
  top: "inception_3b/pool_proj"
}
layer {
  name: "inception_3b/output"
  type: "Concat"
  bottom: "inception_3b/1x1"
  bottom: "inception_3b/3x3"
  bottom: "inception_3b/5x5"
  bottom: "inception_3b/pool_proj"
  top: "inception_3b/output"
}
layer {
  name: "pool3/3x3_s2"
  type: "Pooling"
  bottom: "inception_3b/output"
  top: "pool3/3x3_s2"
  pooling_param {
    pool: MAX
    kernel_size: 3
    stride: 2
  }
}
layer {
  name: "inception_4a/1x1"
  type: "Convolution"
  bottom: "pool3/3x3_s2"
  top: "inception_4a/1x1"
  param {
    lr_mult: 1
    decay_mult: 1
  }
  param {
    lr_mult: 2
    decay_mult: 0
  }
  convolution_param {
    num_output: 192
    kernel_size: 1
    weight_filler {
      type: "xavier"
      std: 0.03
    }
    bias_filler {
      type: "constant"
      value: 0.2
    }
  }
}
layer {
  name: "inception_4a/relu_1x1"
  type: "ReLU"
  bottom: "inception_4a/1x1"
  top: "inception_4a/1x1"
}
layer {
  name: "inception_4a/3x3_reduce"
  type: "Convolution"
  bottom: "pool3/3x3_s2"
  top: "inception_4a/3x3_reduce"
  param {
    lr_mult: 1
    decay_mult: 1
  }
  param {
    lr_mult: 2
    decay_mult: 0
  }
  convolution_param {
    num_output: 96
    kernel_size: 1
    weight_filler {
      type: "xavier"
      std: 0.09
    }
    bias_filler {
      type: "constant"
      value: 0.2
    }
  }
}
layer {
  name: "inception_4a/relu_3x3_reduce"
  type: "ReLU"
  bottom: "inception_4a/3x3_reduce"
  top: "inception_4a/3x3_reduce"
}
layer {
  name: "inception_4a/3x3"
  type: "Convolution"
  bottom: "inception_4a/3x3_reduce"
  top: "inception_4a/3x3"
  param {
    lr_mult: 1
    decay_mult: 1
  }
  param {
    lr_mult: 2
    decay_mult: 0
  }
  convolution_param {
    num_output: 208
    pad: 1
    kernel_size: 3
    weight_filler {
      type: "xavier"
      std: 0.03
    }
    bias_filler {
      type: "constant"
      value: 0.2
    }
  }
}
layer {
  name: "inception_4a/relu_3x3"
  type: "ReLU"
  bottom: "inception_4a/3x3"
  top: "inception_4a/3x3"
}
layer {
  name: "inception_4a/5x5_reduce"
  type: "Convolution"
  bottom: "pool3/3x3_s2"
  top: "inception_4a/5x5_reduce"
  param {
    lr_mult: 1
    decay_mult: 1
  }
  param {
    lr_mult: 2
    decay_mult: 0
  }
  convolution_param {
    num_output: 16
    kernel_size: 1
    weight_filler {
      type: "xavier"
      std: 0.2
    }
    bias_filler {
      type: "constant"
      value: 0.2
    }
  }
}
layer {
  name: "inception_4a/relu_5x5_reduce"
  type: "ReLU"
  bottom: "inception_4a/5x5_reduce"
  top: "inception_4a/5x5_reduce"
}
layer {
  name: "inception_4a/5x5"
  type: "Convolution"
  bottom: "inception_4a/5x5_reduce"
  top: "inception_4a/5x5"
  param {
    lr_mult: 1
    decay_mult: 1
  }
  param {
    lr_mult: 2
    decay_mult: 0
  }
  convolution_param {
    num_output: 48
    pad: 2
    kernel_size: 5
    weight_filler {
      type: "xavier"
      std: 0.03
    }
    bias_filler {
      type: "constant"
      value: 0.2
    }
  }
}
layer {
  name: "inception_4a/relu_5x5"
  type: "ReLU"
  bottom: "inception_4a/5x5"
  top: "inception_4a/5x5"
}
layer {
  name: "inception_4a/pool"
  type: "Pooling"
  bottom: "pool3/3x3_s2"
  top: "inception_4a/pool"
  pooling_param {
    pool: MAX
    kernel_size: 3
    stride: 1
    pad: 1
  }
}
layer {
  name: "inception_4a/pool_proj"
  type: "Convolution"
  bottom: "inception_4a/pool"
  top: "inception_4a/pool_proj"
  param {
    lr_mult: 1
    decay_mult: 1
  }
  param {
    lr_mult: 2
    decay_mult: 0
  }
  convolution_param {
    num_output: 64
    kernel_size: 1
    weight_filler {
      type: "xavier"
      std: 0.1
    }
    bias_filler {
      type: "constant"
      value: 0.2
    }
  }
}
layer {
  name: "inception_4a/relu_pool_proj"
  type: "ReLU"
  bottom: "inception_4a/pool_proj"
  top: "inception_4a/pool_proj"
}
layer {
  name: "inception_4a/output"
  type: "Concat"
  bottom: "inception_4a/1x1"
  bottom: "inception_4a/3x3"
  bottom: "inception_4a/5x5"
  bottom: "inception_4a/pool_proj"
  top: "inception_4a/output"
}
layer {
  name: "loss1/ave_pool"
  type: "Pooling"
  bottom: "inception_4a/output"
  top: "loss1/ave_pool"
  pooling_param {
    pool: AVE
    kernel_size: 5
    stride: 3
  }
}
layer {
  name: "loss1/conv"
  type: "Convolution"
  bottom: "loss1/ave_pool"
  top: "loss1/conv"
  param {
    lr_mult: 1
    decay_mult: 1
  }
  param {
    lr_mult: 2
    decay_mult: 0
  }
  convolution_param {
    num_output: 128
    kernel_size: 1
    weight_filler {
      type: "xavier"
      std: 0.08
    }
    bias_filler {
      type: "constant"
      value: 0.2
    }
  }
}
layer {
  name: "loss1/relu_conv"
  type: "ReLU"
  bottom: "loss1/conv"
  top: "loss1/conv"
}
layer {
  name: "loss1/fc"
  type: "InnerProduct"
  bottom: "loss1/conv"
  top: "loss1/fc"
  param {
    lr_mult: 1
    decay_mult: 1
  }
  param {
    lr_mult: 2
    decay_mult: 0
  }
  inner_product_param {
    num_output: 1024
    weight_filler {
      type: "xavier"
      std: 0.02
    }
    bias_filler {
      type: "constant"
      value: 0.2
    }
  }
}
layer {
  name: "loss1/relu_fc"
  type: "ReLU"
  bottom: "loss1/fc"
  top: "loss1/fc"
}
layer {
  name: "loss1/drop_fc"
  type: "Dropout"
  bottom: "loss1/fc"
  top: "loss1/fc"
  dropout_param {
    dropout_ratio: 0.7
  }
}
layer {
  name: "loss1/classifier_plantvillage"
  type: "InnerProduct"
  bottom: "loss1/fc"
  top: "loss1/classifier_plantvillage"
  param {
    lr_mult: 1
    decay_mult: 1
  }
  param {
    lr_mult: 2
    decay_mult: 0
  }
  inner_product_param {
    num_output: 38
    weight_filler {
      type: "xavier"
      std: 0.0009765625
    }
    bias_filler {
      type: "constant"
      value: 0
    }
  }
}
layer {
  name: "inception_4b/1x1"
  type: "Convolution"
  bottom: "inception_4a/output"
  top: "inception_4b/1x1"
  param {
    lr_mult: 1
    decay_mult: 1
  }
  param {
    lr_mult: 2
    decay_mult: 0
  }
  convolution_param {
    num_output: 160
    kernel_size: 1
    weight_filler {
      type: "xavier"
      std: 0.03
    }
    bias_filler {
      type: "constant"
      value: 0.2
    }
  }
}
layer {
  name: "inception_4b/relu_1x1"
  type: "ReLU"
  bottom: "inception_4b/1x1"
  top: "inception_4b/1x1"
}
layer {
  name: "inception_4b/3x3_reduce"
  type: "Convolution"
  bottom: "inception_4a/output"
  top: "inception_4b/3x3_reduce"
  param {
    lr_mult: 1
    decay_mult: 1
  }
  param {
    lr_mult: 2
    decay_mult: 0
  }
  convolution_param {
    num_output: 112
    kernel_size: 1
    weight_filler {
      type: "xavier"
      std: 0.09
    }
    bias_filler {
      type: "constant"
      value: 0.2
    }
  }
}
layer {
  name: "inception_4b/relu_3x3_reduce"
  type: "ReLU"
  bottom: "inception_4b/3x3_reduce"
  top: "inception_4b/3x3_reduce"
}
layer {
  name: "inception_4b/3x3"
  type: "Convolution"
  bottom: "inception_4b/3x3_reduce"
  top: "inception_4b/3x3"
  param {
    lr_mult: 1
    decay_mult: 1
  }
  param {
    lr_mult: 2
    decay_mult: 0
  }
  convolution_param {
    num_output: 224
    pad: 1
    kernel_size: 3
    weight_filler {
      type: "xavier"
      std: 0.03
    }
    bias_filler {
      type: "constant"
      value: 0.2
    }
  }
}
layer {
  name: "inception_4b/relu_3x3"
  type: "ReLU"
  bottom: "inception_4b/3x3"
  top: "inception_4b/3x3"
}
layer {
  name: "inception_4b/5x5_reduce"
  type: "Convolution"
  bottom: "inception_4a/output"
  top: "inception_4b/5x5_reduce"
  param {
    lr_mult: 1
    decay_mult: 1
  }
  param {
    lr_mult: 2
    decay_mult: 0
  }
  convolution_param {
    num_output: 24
    kernel_size: 1
    weight_filler {
      type: "xavier"
      std: 0.2
    }
    bias_filler {
      type: "constant"
      value: 0.2
    }
  }
}
layer {
  name: "inception_4b/relu_5x5_reduce"
  type: "ReLU"
  bottom: "inception_4b/5x5_reduce"
  top: "inception_4b/5x5_reduce"
}
layer {
  name: "inception_4b/5x5"
  type: "Convolution"
  bottom: "inception_4b/5x5_reduce"
  top: "inception_4b/5x5"
  param {
    lr_mult: 1
    decay_mult: 1
  }
  param {
    lr_mult: 2
    decay_mult: 0
  }
  convolution_param {
    num_output: 64
    pad: 2
    kernel_size: 5
    weight_filler {
      type: "xavier"
      std: 0.03
    }
    bias_filler {
      type: "constant"
      value: 0.2
    }
  }
}
layer {
  name: "inception_4b/relu_5x5"
  type: "ReLU"
  bottom: "inception_4b/5x5"
  top: "inception_4b/5x5"
}
layer {
  name: "inception_4b/pool"
  type: "Pooling"
  bottom: "inception_4a/output"
  top: "inception_4b/pool"
  pooling_param {
    pool: MAX
    kernel_size: 3
    stride: 1
    pad: 1
  }
}
layer {
  name: "inception_4b/pool_proj"
  type: "Convolution"
  bottom: "inception_4b/pool"
  top: "inception_4b/pool_proj"
  param {
    lr_mult: 1
    decay_mult: 1
  }
  param {
    lr_mult: 2
    decay_mult: 0
  }
  convolution_param {
    num_output: 64
    kernel_size: 1
    weight_filler {
      type: "xavier"
      std: 0.1
    }
    bias_filler {
      type: "constant"
      value: 0.2
    }
  }
}
layer {
  name: "inception_4b/relu_pool_proj"
  type: "ReLU"
  bottom: "inception_4b/pool_proj"
  top: "inception_4b/pool_proj"
}
layer {
  name: "inception_4b/output"
  type: "Concat"
  bottom: "inception_4b/1x1"
  bottom: "inception_4b/3x3"
  bottom: "inception_4b/5x5"
  bottom: "inception_4b/pool_proj"
  top: "inception_4b/output"
}
layer {
  name: "inception_4c/1x1"
  type: "Convolution"
  bottom: "inception_4b/output"
  top: "inception_4c/1x1"
  param {
    lr_mult: 1
    decay_mult: 1
  }
  param {
    lr_mult: 2
    decay_mult: 0
  }
  convolution_param {
    num_output: 128
    kernel_size: 1
    weight_filler {
      type: "xavier"
      std: 0.03
    }
    bias_filler {
      type: "constant"
      value: 0.2
    }
  }
}
layer {
  name: "inception_4c/relu_1x1"
  type: "ReLU"
  bottom: "inception_4c/1x1"
  top: "inception_4c/1x1"
}
layer {
  name: "inception_4c/3x3_reduce"
  type: "Convolution"
  bottom: "inception_4b/output"
  top: "inception_4c/3x3_reduce"
  param {
    lr_mult: 1
    decay_mult: 1
  }
  param {
    lr_mult: 2
    decay_mult: 0
  }
  convolution_param {
    num_output: 128
    kernel_size: 1
    weight_filler {
      type: "xavier"
      std: 0.09
    }
    bias_filler {
      type: "constant"
      value: 0.2
    }
  }
}
layer {
  name: "inception_4c/relu_3x3_reduce"
  type: "ReLU"
  bottom: "inception_4c/3x3_reduce"
  top: "inception_4c/3x3_reduce"
}
layer {
  name: "inception_4c/3x3"
  type: "Convolution"
  bottom: "inception_4c/3x3_reduce"
  top: "inception_4c/3x3"
  param {
    lr_mult: 1
    decay_mult: 1
  }
  param {
    lr_mult: 2
    decay_mult: 0
  }
  convolution_param {
    num_output: 256
    pad: 1
    kernel_size: 3
    weight_filler {
      type: "xavier"
      std: 0.03
    }
    bias_filler {
      type: "constant"
      value: 0.2
    }
  }
}
layer {
  name: "inception_4c/relu_3x3"
  type: "ReLU"
  bottom: "inception_4c/3x3"
  top: "inception_4c/3x3"
}
layer {
  name: "inception_4c/5x5_reduce"
  type: "Convolution"
  bottom: "inception_4b/output"
  top: "inception_4c/5x5_reduce"
  param {
    lr_mult: 1
    decay_mult: 1
  }
  param {
    lr_mult: 2
    decay_mult: 0
  }
  convolution_param {
    num_output: 24
    kernel_size: 1
    weight_filler {
      type: "xavier"
      std: 0.2
    }
    bias_filler {
      type: "constant"
      value: 0.2
    }
  }
}
layer {
  name: "inception_4c/relu_5x5_reduce"
  type: "ReLU"
  bottom: "inception_4c/5x5_reduce"
  top: "inception_4c/5x5_reduce"
}
layer {
  name: "inception_4c/5x5"
  type: "Convolution"
  bottom: "inception_4c/5x5_reduce"
  top: "inception_4c/5x5"
  param {
    lr_mult: 1
    decay_mult: 1
  }
  param {
    lr_mult: 2
    decay_mult: 0
  }
  convolution_param {
    num_output: 64
    pad: 2
    kernel_size: 5
    weight_filler {
      type: "xavier"
      std: 0.03
    }
    bias_filler {
      type: "constant"
      value: 0.2
    }
  }
}
layer {
  name: "inception_4c/relu_5x5"
  type: "ReLU"
  bottom: "inception_4c/5x5"
  top: "inception_4c/5x5"
}
layer {
  name: "inception_4c/pool"
  type: "Pooling"
  bottom: "inception_4b/output"
  top: "inception_4c/pool"
  pooling_param {
    pool: MAX
    kernel_size: 3
    stride: 1
    pad: 1
  }
}
layer {
  name: "inception_4c/pool_proj"
  type: "Convolution"
  bottom: "inception_4c/pool"
  top: "inception_4c/pool_proj"
  param {
    lr_mult: 1
    decay_mult: 1
  }
  param {
    lr_mult: 2
    decay_mult: 0
  }
  convolution_param {
    num_output: 64
    kernel_size: 1
    weight_filler {
      type: "xavier"
      std: 0.1
    }
    bias_filler {
      type: "constant"
      value: 0.2
    }
  }
}
layer {
  name: "inception_4c/relu_pool_proj"
  type: "ReLU"
  bottom: "inception_4c/pool_proj"
  top: "inception_4c/pool_proj"
}
layer {
  name: "inception_4c/output"
  type: "Concat"
  bottom: "inception_4c/1x1"
  bottom: "inception_4c/3x3"
  bottom: "inception_4c/5x5"
  bottom: "inception_4c/pool_proj"
  top: "inception_4c/output"
}
layer {
  name: "inception_4d/1x1"
  type: "Convolution"
  bottom: "inception_4c/output"
  top: "inception_4d/1x1"
  param {
    lr_mult: 1
    decay_mult: 1
  }
  param {
    lr_mult: 2
    decay_mult: 0
  }
  convolution_param {
    num_output: 112
    kernel_size: 1
    weight_filler {
      type: "xavier"
      std: 0.03
    }
    bias_filler {
      type: "constant"
      value: 0.2
    }
  }
}
layer {
  name: "inception_4d/relu_1x1"
  type: "ReLU"
  bottom: "inception_4d/1x1"
  top: "inception_4d/1x1"
}
layer {
  name: "inception_4d/3x3_reduce"
  type: "Convolution"
  bottom: "inception_4c/output"
  top: "inception_4d/3x3_reduce"
  param {
    lr_mult: 1
    decay_mult: 1
  }
  param {
    lr_mult: 2
    decay_mult: 0
  }
  convolution_param {
    num_output: 144
    kernel_size: 1
    weight_filler {
      type: "xavier"
      std: 0.09
    }
    bias_filler {
      type: "constant"
      value: 0.2
    }
  }
}
layer {
  name: "inception_4d/relu_3x3_reduce"
  type: "ReLU"
  bottom: "inception_4d/3x3_reduce"
  top: "inception_4d/3x3_reduce"
}
layer {
  name: "inception_4d/3x3"
  type: "Convolution"
  bottom: "inception_4d/3x3_reduce"
  top: "inception_4d/3x3"
  param {
    lr_mult: 1
    decay_mult: 1
  }
  param {
    lr_mult: 2
    decay_mult: 0
  }
  convolution_param {
    num_output: 288
    pad: 1
    kernel_size: 3
    weight_filler {
      type: "xavier"
      std: 0.03
    }
    bias_filler {
      type: "constant"
      value: 0.2
    }
  }
}
layer {
  name: "inception_4d/relu_3x3"
  type: "ReLU"
  bottom: "inception_4d/3x3"
  top: "inception_4d/3x3"
}
layer {
  name: "inception_4d/5x5_reduce"
  type: "Convolution"
  bottom: "inception_4c/output"
  top: "inception_4d/5x5_reduce"
  param {
    lr_mult: 1
    decay_mult: 1
  }
  param {
    lr_mult: 2
    decay_mult: 0
  }
  convolution_param {
    num_output: 32
    kernel_size: 1
    weight_filler {
      type: "xavier"
      std: 0.2
    }
    bias_filler {
      type: "constant"
      value: 0.2
    }
  }
}
layer {
  name: "inception_4d/relu_5x5_reduce"
  type: "ReLU"
  bottom: "inception_4d/5x5_reduce"
  top: "inception_4d/5x5_reduce"
}
layer {
  name: "inception_4d/5x5"
  type: "Convolution"
  bottom: "inception_4d/5x5_reduce"
  top: "inception_4d/5x5"
  param {
    lr_mult: 1
    decay_mult: 1
  }
  param {
    lr_mult: 2
    decay_mult: 0
  }
  convolution_param {
    num_output: 64
    pad: 2
    kernel_size: 5
    weight_filler {
      type: "xavier"
      std: 0.03
    }
    bias_filler {
      type: "constant"
      value: 0.2
    }
  }
}
layer {
  name: "inception_4d/relu_5x5"
  type: "ReLU"
  bottom: "inception_4d/5x5"
  top: "inception_4d/5x5"
}
layer {
  name: "inception_4d/pool"
  type: "Pooling"
  bottom: "inception_4c/output"
  top: "inception_4d/pool"
  pooling_param {
    pool: MAX
    kernel_size: 3
    stride: 1
    pad: 1
  }
}
layer {
  name: "inception_4d/pool_proj"
  type: "Convolution"
  bottom: "inception_4d/pool"
  top: "inception_4d/pool_proj"
  param {
    lr_mult: 1
    decay_mult: 1
  }
  param {
    lr_mult: 2
    decay_mult: 0
  }
  convolution_param {
    num_output: 64
    kernel_size: 1
    weight_filler {
      type: "xavier"
      std: 0.1
    }
    bias_filler {
      type: "constant"
      value: 0.2
    }
  }
}
layer {
  name: "inception_4d/relu_pool_proj"
  type: "ReLU"
  bottom: "inception_4d/pool_proj"
  top: "inception_4d/pool_proj"
}
layer {
  name: "inception_4d/output"
  type: "Concat"
  bottom: "inception_4d/1x1"
  bottom: "inception_4d/3x3"
  bottom: "inception_4d/5x5"
  bottom: "inception_4d/pool_proj"
  top: "inception_4d/output"
}
layer {
  name: "loss2/ave_pool"
  type: "Pooling"
  bottom: "inception_4d/output"
  top: "loss2/ave_pool"
  pooling_param {
    pool: AVE
    kernel_size: 5
    stride: 3
  }
}
layer {
  name: "loss2/conv"
  type: "Convolution"
  bottom: "loss2/ave_pool"
  top: "loss2/conv"
  param {
    lr_mult: 1
    decay_mult: 1
  }
  param {
    lr_mult: 2
    decay_mult: 0
  }
  convolution_param {
    num_output: 128
    kernel_size: 1
    weight_filler {
      type: "xavier"
      std: 0.08
    }
    bias_filler {
      type: "constant"
      value: 0.2
    }
  }
}
layer {
  name: "loss2/relu_conv"
  type: "ReLU"
  bottom: "loss2/conv"
  top: "loss2/conv"
}
layer {
  name: "loss2/fc"
  type: "InnerProduct"
  bottom: "loss2/conv"
  top: "loss2/fc"
  param {
    lr_mult: 1
    decay_mult: 1
  }
  param {
    lr_mult: 2
    decay_mult: 0
  }
  inner_product_param {
    num_output: 1024
    weight_filler {
      type: "xavier"
      std: 0.02
    }
    bias_filler {
      type: "constant"
      value: 0.2
    }
  }
}
layer {
  name: "loss2/relu_fc"
  type: "ReLU"
  bottom: "loss2/fc"
  top: "loss2/fc"
}
layer {
  name: "loss2/drop_fc"
  type: "Dropout"
  bottom: "loss2/fc"
  top: "loss2/fc"
  dropout_param {
    dropout_ratio: 0.7
  }
}
layer {
  name: "loss2/classifier_plantvillage"
  type: "InnerProduct"
  bottom: "loss2/fc"
  top: "loss2/classifier_plantvillage"
  param {
    lr_mult: 1
    decay_mult: 1
  }
  param {
    lr_mult: 2
    decay_mult: 0
  }
  inner_product_param {
    num_output: 38
    weight_filler {
      type: "xavier"
      std: 0.0009765625
    }
    bias_filler {
      type: "constant"
      value: 0
    }
  }
}
layer {
  name: "inception_4e/1x1"
  type: "Convolution"
  bottom: "inception_4d/output"
  top: "inception_4e/1x1"
  param {
    lr_mult: 1
    decay_mult: 1
  }
  param {
    lr_mult: 2
    decay_mult: 0
  }
  convolution_param {
    num_output: 256
    kernel_size: 1
    weight_filler {
      type: "xavier"
      std: 0.03
    }
    bias_filler {
      type: "constant"
      value: 0.2
    }
  }
}
layer {
  name: "inception_4e/relu_1x1"
  type: "ReLU"
  bottom: "inception_4e/1x1"
  top: "inception_4e/1x1"
}
layer {
  name: "inception_4e/3x3_reduce"
  type: "Convolution"
  bottom: "inception_4d/output"
  top: "inception_4e/3x3_reduce"
  param {
    lr_mult: 1
    decay_mult: 1
  }
  param {
    lr_mult: 2
    decay_mult: 0
  }
  convolution_param {
    num_output: 160
    kernel_size: 1
    weight_filler {
      type: "xavier"
      std: 0.09
    }
    bias_filler {
      type: "constant"
      value: 0.2
    }
  }
}
layer {
  name: "inception_4e/relu_3x3_reduce"
  type: "ReLU"
  bottom: "inception_4e/3x3_reduce"
  top: "inception_4e/3x3_reduce"
}
layer {
  name: "inception_4e/3x3"
  type: "Convolution"
  bottom: "inception_4e/3x3_reduce"
  top: "inception_4e/3x3"
  param {
    lr_mult: 1
    decay_mult: 1
  }
  param {
    lr_mult: 2
    decay_mult: 0
  }
  convolution_param {
    num_output: 320
    pad: 1
    kernel_size: 3
    weight_filler {
      type: "xavier"
      std: 0.03
    }
    bias_filler {
      type: "constant"
      value: 0.2
    }
  }
}
layer {
  name: "inception_4e/relu_3x3"
  type: "ReLU"
  bottom: "inception_4e/3x3"
  top: "inception_4e/3x3"
}
layer {
  name: "inception_4e/5x5_reduce"
  type: "Convolution"
  bottom: "inception_4d/output"
  top: "inception_4e/5x5_reduce"
  param {
    lr_mult: 1
    decay_mult: 1
  }
  param {
    lr_mult: 2
    decay_mult: 0
  }
  convolution_param {
    num_output: 32
    kernel_size: 1
    weight_filler {
      type: "xavier"
      std: 0.2
    }
    bias_filler {
      type: "constant"
      value: 0.2
    }
  }
}
layer {
  name: "inception_4e/relu_5x5_reduce"
  type: "ReLU"
  bottom: "inception_4e/5x5_reduce"
  top: "inception_4e/5x5_reduce"
}
layer {
  name: "inception_4e/5x5"
  type: "Convolution"
  bottom: "inception_4e/5x5_reduce"
  top: "inception_4e/
I0403 15:51:49.580010 16134 layer_factory.hpp:77] Creating layer data
I0403 15:51:49.580597 16134 net.cpp:91] Creating Layer data
I0403 15:51:49.580627 16134 net.cpp:399] data -> data
I0403 15:51:49.580677 16134 net.cpp:399] data -> label
I0403 15:51:49.580713 16134 data_transformer.cpp:25] Loading mean file from: /home/mohanty/data/final_dataset/lmdb/segmented-20-80/mean.binaryproto
I0403 15:51:49.581955 16137 db_lmdb.cpp:38] Opened lmdb /home/mohanty/data/final_dataset/lmdb/segmented-20-80/test_db
I0403 15:51:49.593596 16134 data_layer.cpp:41] output data size: 24,3,224,224
I0403 15:51:49.620263 16134 net.cpp:141] Setting up data
I0403 15:51:49.620328 16134 net.cpp:148] Top shape: 24 3 224 224 (3612672)
I0403 15:51:49.620352 16134 net.cpp:148] Top shape: 24 (24)
I0403 15:51:49.620365 16134 net.cpp:156] Memory required for data: 14450784
I0403 15:51:49.620391 16134 layer_factory.hpp:77] Creating layer label_data_1_split
I0403 15:51:49.620417 16134 net.cpp:91] Creating Layer label_data_1_split
I0403 15:51:49.620434 16134 net.cpp:425] label_data_1_split <- label
I0403 15:51:49.620466 16134 net.cpp:399] label_data_1_split -> label_data_1_split_0
I0403 15:51:49.620494 16134 net.cpp:399] label_data_1_split -> label_data_1_split_1
I0403 15:51:49.620514 16134 net.cpp:399] label_data_1_split -> label_data_1_split_2
I0403 15:51:49.620534 16134 net.cpp:399] label_data_1_split -> label_data_1_split_3
I0403 15:51:49.620553 16134 net.cpp:399] label_data_1_split -> label_data_1_split_4
I0403 15:51:49.620578 16134 net.cpp:399] label_data_1_split -> label_data_1_split_5
I0403 15:51:49.620599 16134 net.cpp:399] label_data_1_split -> label_data_1_split_6
I0403 15:51:49.620618 16134 net.cpp:399] label_data_1_split -> label_data_1_split_7
I0403 15:51:49.620636 16134 net.cpp:399] label_data_1_split -> label_data_1_split_8
I0403 15:51:49.620656 16134 net.cpp:399] label_data_1_split -> label_data_1_split_9
I0403 15:51:49.620769 16134 net.cpp:141] Setting up label_data_1_split
I0403 15:51:49.620791 16134 net.cpp:148] Top shape: 24 (24)
I0403 15:51:49.620808 16134 net.cpp:148] Top shape: 24 (24)
I0403 15:51:49.620825 16134 net.cpp:148] Top shape: 24 (24)
I0403 15:51:49.620838 16134 net.cpp:148] Top shape: 24 (24)
I0403 15:51:49.620853 16134 net.cpp:148] Top shape: 24 (24)
I0403 15:51:49.620867 16134 net.cpp:148] Top shape: 24 (24)
I0403 15:51:49.620882 16134 net.cpp:148] Top shape: 24 (24)
I0403 15:51:49.620898 16134 net.cpp:148] Top shape: 24 (24)
I0403 15:51:49.620913 16134 net.cpp:148] Top shape: 24 (24)
I0403 15:51:49.620928 16134 net.cpp:148] Top shape: 24 (24)
I0403 15:51:49.620975 16134 net.cpp:156] Memory required for data: 14451744
I0403 15:51:49.620991 16134 layer_factory.hpp:77] Creating layer conv1/7x7_s2
I0403 15:51:49.621022 16134 net.cpp:91] Creating Layer conv1/7x7_s2
I0403 15:51:49.621040 16134 net.cpp:425] conv1/7x7_s2 <- data
I0403 15:51:49.621060 16134 net.cpp:399] conv1/7x7_s2 -> conv1/7x7_s2
I0403 15:51:49.761203 16134 net.cpp:141] Setting up conv1/7x7_s2
I0403 15:51:49.761279 16134 net.cpp:148] Top shape: 24 64 112 112 (19267584)
I0403 15:51:49.761296 16134 net.cpp:156] Memory required for data: 91522080
I0403 15:51:49.761325 16134 layer_factory.hpp:77] Creating layer conv1/relu_7x7
I0403 15:51:49.761351 16134 net.cpp:91] Creating Layer conv1/relu_7x7
I0403 15:51:49.761368 16134 net.cpp:425] conv1/relu_7x7 <- conv1/7x7_s2
I0403 15:51:49.761386 16134 net.cpp:386] conv1/relu_7x7 -> conv1/7x7_s2 (in-place)
I0403 15:51:49.761636 16134 net.cpp:141] Setting up conv1/relu_7x7
I0403 15:51:49.761662 16134 net.cpp:148] Top shape: 24 64 112 112 (19267584)
I0403 15:51:49.761677 16134 net.cpp:156] Memory required for data: 168592416
I0403 15:51:49.761692 16134 layer_factory.hpp:77] Creating layer pool1/3x3_s2
I0403 15:51:49.761714 16134 net.cpp:91] Creating Layer pool1/3x3_s2
I0403 15:51:49.761730 16134 net.cpp:425] pool1/3x3_s2 <- conv1/7x7_s2
I0403 15:51:49.761747 16134 net.cpp:399] pool1/3x3_s2 -> pool1/3x3_s2
I0403 15:51:49.761817 16134 net.cpp:141] Setting up pool1/3x3_s2
I0403 15:51:49.761840 16134 net.cpp:148] Top shape: 24 64 56 56 (4816896)
I0403 15:51:49.761854 16134 net.cpp:156] Memory required for data: 187860000
I0403 15:51:49.761869 16134 layer_factory.hpp:77] Creating layer pool1/norm1
I0403 15:51:49.761891 16134 net.cpp:91] Creating Layer pool1/norm1
I0403 15:51:49.761907 16134 net.cpp:425] pool1/norm1 <- pool1/3x3_s2
I0403 15:51:49.761924 16134 net.cpp:399] pool1/norm1 -> pool1/norm1
I0403 15:51:49.762195 16134 net.cpp:141] Setting up pool1/norm1
I0403 15:51:49.762222 16134 net.cpp:148] Top shape: 24 64 56 56 (4816896)
I0403 15:51:49.762235 16134 net.cpp:156] Memory required for data: 207127584
I0403 15:51:49.762250 16134 layer_factory.hpp:77] Creating layer conv2/3x3_reduce
I0403 15:51:49.762276 16134 net.cpp:91] Creating Layer conv2/3x3_reduce
I0403 15:51:49.762292 16134 net.cpp:425] conv2/3x3_reduce <- pool1/norm1
I0403 15:51:49.762310 16134 net.cpp:399] conv2/3x3_reduce -> conv2/3x3_reduce
I0403 15:51:49.763617 16134 net.cpp:141] Setting up conv2/3x3_reduce
I0403 15:51:49.763645 16134 net.cpp:148] Top shape: 24 64 56 56 (4816896)
I0403 15:51:49.763661 16134 net.cpp:156] Memory required for data: 226395168
I0403 15:51:49.763681 16134 layer_factory.hpp:77] Creating layer conv2/relu_3x3_reduce
I0403 15:51:49.763700 16134 net.cpp:91] Creating Layer conv2/relu_3x3_reduce
I0403 15:51:49.763715 16134 net.cpp:425] conv2/relu_3x3_reduce <- conv2/3x3_reduce
I0403 15:51:49.763731 16134 net.cpp:386] conv2/relu_3x3_reduce -> conv2/3x3_reduce (in-place)
I0403 15:51:49.763983 16134 net.cpp:141] Setting up conv2/relu_3x3_reduce
I0403 15:51:49.764009 16134 net.cpp:148] Top shape: 24 64 56 56 (4816896)
I0403 15:51:49.764024 16134 net.cpp:156] Memory required for data: 245662752
I0403 15:51:49.764039 16134 layer_factory.hpp:77] Creating layer conv2/3x3
I0403 15:51:49.764060 16134 net.cpp:91] Creating Layer conv2/3x3
I0403 15:51:49.764075 16134 net.cpp:425] conv2/3x3 <- conv2/3x3_reduce
I0403 15:51:49.764093 16134 net.cpp:399] conv2/3x3 -> conv2/3x3
I0403 15:51:49.766315 16134 net.cpp:141] Setting up conv2/3x3
I0403 15:51:49.766345 16134 net.cpp:148] Top shape: 24 192 56 56 (14450688)
I0403 15:51:49.766361 16134 net.cpp:156] Memory required for data: 303465504
I0403 15:51:49.766382 16134 layer_factory.hpp:77] Creating layer conv2/relu_3x3
I0403 15:51:49.766399 16134 net.cpp:91] Creating Layer conv2/relu_3x3
I0403 15:51:49.766415 16134 net.cpp:425] conv2/relu_3x3 <- conv2/3x3
I0403 15:51:49.766432 16134 net.cpp:386] conv2/relu_3x3 -> conv2/3x3 (in-place)
I0403 15:51:49.766597 16134 net.cpp:141] Setting up conv2/relu_3x3
I0403 15:51:49.766621 16134 net.cpp:148] Top shape: 24 192 56 56 (14450688)
I0403 15:51:49.766670 16134 net.cpp:156] Memory required for data: 361268256
I0403 15:51:49.766685 16134 layer_factory.hpp:77] Creating layer conv2/norm2
I0403 15:51:49.766703 16134 net.cpp:91] Creating Layer conv2/norm2
I0403 15:51:49.766718 16134 net.cpp:425] conv2/norm2 <- conv2/3x3
I0403 15:51:49.766736 16134 net.cpp:399] conv2/norm2 -> conv2/norm2
I0403 15:51:49.767027 16134 net.cpp:141] Setting up conv2/norm2
I0403 15:51:49.767055 16134 net.cpp:148] Top shape: 24 192 56 56 (14450688)
I0403 15:51:49.767069 16134 net.cpp:156] Memory required for data: 419071008
I0403 15:51:49.767083 16134 layer_factory.hpp:77] Creating layer pool2/3x3_s2
I0403 15:51:49.767101 16134 net.cpp:91] Creating Layer pool2/3x3_s2
I0403 15:51:49.767114 16134 net.cpp:425] pool2/3x3_s2 <- conv2/norm2
I0403 15:51:49.767132 16134 net.cpp:399] pool2/3x3_s2 -> pool2/3x3_s2
I0403 15:51:49.767179 16134 net.cpp:141] Setting up pool2/3x3_s2
I0403 15:51:49.767201 16134 net.cpp:148] Top shape: 24 192 28 28 (3612672)
I0403 15:51:49.767215 16134 net.cpp:156] Memory required for data: 433521696
I0403 15:51:49.767230 16134 layer_factory.hpp:77] Creating layer pool2/3x3_s2_pool2/3x3_s2_0_split
I0403 15:51:49.767246 16134 net.cpp:91] Creating Layer pool2/3x3_s2_pool2/3x3_s2_0_split
I0403 15:51:49.767262 16134 net.cpp:425] pool2/3x3_s2_pool2/3x3_s2_0_split <- pool2/3x3_s2
I0403 15:51:49.767278 16134 net.cpp:399] pool2/3x3_s2_pool2/3x3_s2_0_split -> pool2/3x3_s2_pool2/3x3_s2_0_split_0
I0403 15:51:49.767297 16134 net.cpp:399] pool2/3x3_s2_pool2/3x3_s2_0_split -> pool2/3x3_s2_pool2/3x3_s2_0_split_1
I0403 15:51:49.767316 16134 net.cpp:399] pool2/3x3_s2_pool2/3x3_s2_0_split -> pool2/3x3_s2_pool2/3x3_s2_0_split_2
I0403 15:51:49.767335 16134 net.cpp:399] pool2/3x3_s2_pool2/3x3_s2_0_split -> pool2/3x3_s2_pool2/3x3_s2_0_split_3
I0403 15:51:49.767397 16134 net.cpp:141] Setting up pool2/3x3_s2_pool2/3x3_s2_0_split
I0403 15:51:49.767419 16134 net.cpp:148] Top shape: 24 192 28 28 (3612672)
I0403 15:51:49.767436 16134 net.cpp:148] Top shape: 24 192 28 28 (3612672)
I0403 15:51:49.767449 16134 net.cpp:148] Top shape: 24 192 28 28 (3612672)
I0403 15:51:49.767464 16134 net.cpp:148] Top shape: 24 192 28 28 (3612672)
I0403 15:51:49.767478 16134 net.cpp:156] Memory required for data: 491324448
I0403 15:51:49.767491 16134 layer_factory.hpp:77] Creating layer inception_3a/1x1
I0403 15:51:49.767511 16134 net.cpp:91] Creating Layer inception_3a/1x1
I0403 15:51:49.767527 16134 net.cpp:425] inception_3a/1x1 <- pool2/3x3_s2_pool2/3x3_s2_0_split_0
I0403 15:51:49.767545 16134 net.cpp:399] inception_3a/1x1 -> inception_3a/1x1
I0403 15:51:49.769068 16134 net.cpp:141] Setting up inception_3a/1x1
I0403 15:51:49.769098 16134 net.cpp:148] Top shape: 24 64 28 28 (1204224)
I0403 15:51:49.769114 16134 net.cpp:156] Memory required for data: 496141344
I0403 15:51:49.769131 16134 layer_factory.hpp:77] Creating layer inception_3a/relu_1x1
I0403 15:51:49.769151 16134 net.cpp:91] Creating Layer inception_3a/relu_1x1
I0403 15:51:49.769167 16134 net.cpp:425] inception_3a/relu_1x1 <- inception_3a/1x1
I0403 15:51:49.769184 16134 net.cpp:386] inception_3a/relu_1x1 -> inception_3a/1x1 (in-place)
I0403 15:51:49.769356 16134 net.cpp:141] Setting up inception_3a/relu_1x1
I0403 15:51:49.769381 16134 net.cpp:148] Top shape: 24 64 28 28 (1204224)
I0403 15:51:49.769394 16134 net.cpp:156] Memory required for data: 500958240
I0403 15:51:49.769407 16134 layer_factory.hpp:77] Creating layer inception_3a/3x3_reduce
I0403 15:51:49.769430 16134 net.cpp:91] Creating Layer inception_3a/3x3_reduce
I0403 15:51:49.769448 16134 net.cpp:425] inception_3a/3x3_reduce <- pool2/3x3_s2_pool2/3x3_s2_0_split_1
I0403 15:51:49.769465 16134 net.cpp:399] inception_3a/3x3_reduce -> inception_3a/3x3_reduce
I0403 15:51:49.771142 16134 net.cpp:141] Setting up inception_3a/3x3_reduce
I0403 15:51:49.771173 16134 net.cpp:148] Top shape: 24 96 28 28 (1806336)
I0403 15:51:49.771188 16134 net.cpp:156] Memory required for data: 508183584
I0403 15:51:49.771209 16134 layer_factory.hpp:77] Creating layer inception_3a/relu_3x3_reduce
I0403 15:51:49.771245 16134 net.cpp:91] Creating Layer inception_3a/relu_3x3_reduce
I0403 15:51:49.771265 16134 net.cpp:425] inception_3a/relu_3x3_reduce <- inception_3a/3x3_reduce
I0403 15:51:49.771283 16134 net.cpp:386] inception_3a/relu_3x3_reduce -> inception_3a/3x3_reduce (in-place)
I0403 15:51:49.771462 16134 net.cpp:141] Setting up inception_3a/relu_3x3_reduce
I0403 15:51:49.771487 16134 net.cpp:148] Top shape: 24 96 28 28 (1806336)
I0403 15:51:49.771502 16134 net.cpp:156] Memory required for data: 515408928
I0403 15:51:49.771514 16134 layer_factory.hpp:77] Creating layer inception_3a/3x3
I0403 15:51:49.771535 16134 net.cpp:91] Creating Layer inception_3a/3x3
I0403 15:51:49.771553 16134 net.cpp:425] inception_3a/3x3 <- inception_3a/3x3_reduce
I0403 15:51:49.771577 16134 net.cpp:399] inception_3a/3x3 -> inception_3a/3x3
I0403 15:51:49.773207 16134 net.cpp:141] Setting up inception_3a/3x3
I0403 15:51:49.773236 16134 net.cpp:148] Top shape: 24 128 28 28 (2408448)
I0403 15:51:49.773250 16134 net.cpp:156] Memory required for data: 525042720
I0403 15:51:49.773270 16134 layer_factory.hpp:77] Creating layer inception_3a/relu_3x3
I0403 15:51:49.773291 16134 net.cpp:91] Creating Layer inception_3a/relu_3x3
I0403 15:51:49.773306 16134 net.cpp:425] inception_3a/relu_3x3 <- inception_3a/3x3
I0403 15:51:49.773324 16134 net.cpp:386] inception_3a/relu_3x3 -> inception_3a/3x3 (in-place)
I0403 15:51:49.773598 16134 net.cpp:141] Setting up inception_3a/relu_3x3
I0403 15:51:49.773624 16134 net.cpp:148] Top shape: 24 128 28 28 (2408448)
I0403 15:51:49.773639 16134 net.cpp:156] Memory required for data: 534676512
I0403 15:51:49.773653 16134 layer_factory.hpp:77] Creating layer inception_3a/5x5_reduce
I0403 15:51:49.773674 16134 net.cpp:91] Creating Layer inception_3a/5x5_reduce
I0403 15:51:49.773692 16134 net.cpp:425] inception_3a/5x5_reduce <- pool2/3x3_s2_pool2/3x3_s2_0_split_2
I0403 15:51:49.773712 16134 net.cpp:399] inception_3a/5x5_reduce -> inception_3a/5x5_reduce
I0403 15:51:49.774672 16134 net.cpp:141] Setting up inception_3a/5x5_reduce
I0403 15:51:49.774703 16134 net.cpp:148] Top shape: 24 16 28 28 (301056)
I0403 15:51:49.774718 16134 net.cpp:156] Memory required for data: 535880736
I0403 15:51:49.774736 16134 layer_factory.hpp:77] Creating layer inception_3a/relu_5x5_reduce
I0403 15:51:49.774755 16134 net.cpp:91] Creating Layer inception_3a/relu_5x5_reduce
I0403 15:51:49.774770 16134 net.cpp:425] inception_3a/relu_5x5_reduce <- inception_3a/5x5_reduce
I0403 15:51:49.774786 16134 net.cpp:386] inception_3a/relu_5x5_reduce -> inception_3a/5x5_reduce (in-place)
I0403 15:51:49.775081 16134 net.cpp:141] Setting up inception_3a/relu_5x5_reduce
I0403 15:51:49.775109 16134 net.cpp:148] Top shape: 24 16 28 28 (301056)
I0403 15:51:49.775123 16134 net.cpp:156] Memory required for data: 537084960
I0403 15:51:49.775137 16134 layer_factory.hpp:77] Creating layer inception_3a/5x5
I0403 15:51:49.775159 16134 net.cpp:91] Creating Layer inception_3a/5x5
I0403 15:51:49.775177 16134 net.cpp:425] inception_3a/5x5 <- inception_3a/5x5_reduce
I0403 15:51:49.775197 16134 net.cpp:399] inception_3a/5x5 -> inception_3a/5x5
I0403 15:51:49.776197 16134 net.cpp:141] Setting up inception_3a/5x5
I0403 15:51:49.776224 16134 net.cpp:148] Top shape: 24 32 28 28 (602112)
I0403 15:51:49.776239 16134 net.cpp:156] Memory required for data: 539493408
I0403 15:51:49.776257 16134 layer_factory.hpp:77] Creating layer inception_3a/relu_5x5
I0403 15:51:49.776278 16134 net.cpp:91] Creating Layer inception_3a/relu_5x5
I0403 15:51:49.776294 16134 net.cpp:425] inception_3a/relu_5x5 <- inception_3a/5x5
I0403 15:51:49.776310 16134 net.cpp:386] inception_3a/relu_5x5 -> inception_3a/5x5 (in-place)
I0403 15:51:49.776484 16134 net.cpp:141] Setting up inception_3a/relu_5x5
I0403 15:51:49.776510 16134 net.cpp:148] Top shape: 24 32 28 28 (602112)
I0403 15:51:49.776525 16134 net.cpp:156] Memory required for data: 541901856
I0403 15:51:49.776540 16134 layer_factory.hpp:77] Creating layer inception_3a/pool
I0403 15:51:49.776556 16134 net.cpp:91] Creating Layer inception_3a/pool
I0403 15:51:49.776589 16134 net.cpp:425] inception_3a/pool <- pool2/3x3_s2_pool2/3x3_s2_0_split_3
I0403 15:51:49.776612 16134 net.cpp:399] inception_3a/pool -> inception_3a/pool
I0403 15:51:49.776669 16134 net.cpp:141] Setting up inception_3a/pool
I0403 15:51:49.776690 16134 net.cpp:148] Top shape: 24 192 28 28 (3612672)
I0403 15:51:49.776705 16134 net.cpp:156] Memory required for data: 556352544
I0403 15:51:49.776718 16134 layer_factory.hpp:77] Creating layer inception_3a/pool_proj
I0403 15:51:49.776741 16134 net.cpp:91] Creating Layer inception_3a/pool_proj
I0403 15:51:49.776757 16134 net.cpp:425] inception_3a/pool_proj <- inception_3a/pool
I0403 15:51:49.776778 16134 net.cpp:399] inception_3a/pool_proj -> inception_3a/pool_proj
I0403 15:51:49.777740 16134 net.cpp:141] Setting up inception_3a/pool_proj
I0403 15:51:49.777767 16134 net.cpp:148] Top shape: 24 32 28 28 (602112)
I0403 15:51:49.777782 16134 net.cpp:156] Memory required for data: 558760992
I0403 15:51:49.777806 16134 layer_factory.hpp:77] Creating layer inception_3a/relu_pool_proj
I0403 15:51:49.777825 16134 net.cpp:91] Creating Layer inception_3a/relu_pool_proj
I0403 15:51:49.777840 16134 net.cpp:425] inception_3a/relu_pool_proj <- inception_3a/pool_proj
I0403 15:51:49.777856 16134 net.cpp:386] inception_3a/relu_pool_proj -> inception_3a/pool_proj (in-place)
I0403 15:51:49.778126 16134 net.cpp:141] Setting up inception_3a/relu_pool_proj
I0403 15:51:49.778152 16134 net.cpp:148] Top shape: 24 32 28 28 (602112)
I0403 15:51:49.778167 16134 net.cpp:156] Memory required for data: 561169440
I0403 15:51:49.778182 16134 layer_factory.hpp:77] Creating layer inception_3a/output
I0403 15:51:49.778200 16134 net.cpp:91] Creating Layer inception_3a/output
I0403 15:51:49.778215 16134 net.cpp:425] inception_3a/output <- inception_3a/1x1
I0403 15:51:49.778231 16134 net.cpp:425] inception_3a/output <- inception_3a/3x3
I0403 15:51:49.778246 16134 net.cpp:425] inception_3a/output <- inception_3a/5x5
I0403 15:51:49.778261 16134 net.cpp:425] inception_3a/output <- inception_3a/pool_proj
I0403 15:51:49.778277 16134 net.cpp:399] inception_3a/output -> inception_3a/output
I0403 15:51:49.778323 16134 net.cpp:141] Setting up inception_3a/output
I0403 15:51:49.778347 16134 net.cpp:148] Top shape: 24 256 28 28 (4816896)
I0403 15:51:49.778360 16134 net.cpp:156] Memory required for data: 580437024
I0403 15:51:49.778374 16134 layer_factory.hpp:77] Creating layer inception_3a/output_inception_3a/output_0_split
I0403 15:51:49.778390 16134 net.cpp:91] Creating Layer inception_3a/output_inception_3a/output_0_split
I0403 15:51:49.778405 16134 net.cpp:425] inception_3a/output_inception_3a/output_0_split <- inception_3a/output
I0403 15:51:49.778424 16134 net.cpp:399] inception_3a/output_inception_3a/output_0_split -> inception_3a/output_inception_3a/output_0_split_0
I0403 15:51:49.778444 16134 net.cpp:399] inception_3a/output_inception_3a/output_0_split -> inception_3a/output_inception_3a/output_0_split_1
I0403 15:51:49.778465 16134 net.cpp:399] inception_3a/output_inception_3a/output_0_split -> inception_3a/output_inception_3a/output_0_split_2
I0403 15:51:49.778488 16134 net.cpp:399] inception_3a/output_inception_3a/output_0_split -> inception_3a/output_inception_3a/output_0_split_3
I0403 15:51:49.778565 16134 net.cpp:141] Setting up inception_3a/output_inception_3a/output_0_split
I0403 15:51:49.778594 16134 net.cpp:148] Top shape: 24 256 28 28 (4816896)
I0403 15:51:49.778609 16134 net.cpp:148] Top shape: 24 256 28 28 (4816896)
I0403 15:51:49.778623 16134 net.cpp:148] Top shape: 24 256 28 28 (4816896)
I0403 15:51:49.778637 16134 net.cpp:148] Top shape: 24 256 28 28 (4816896)
I0403 15:51:49.778651 16134 net.cpp:156] Memory required for data: 657507360
I0403 15:51:49.778664 16134 layer_factory.hpp:77] Creating layer inception_3b/1x1
I0403 15:51:49.778687 16134 net.cpp:91] Creating Layer inception_3b/1x1
I0403 15:51:49.778703 16134 net.cpp:425] inception_3b/1x1 <- inception_3a/output_inception_3a/output_0_split_0
I0403 15:51:49.778723 16134 net.cpp:399] inception_3b/1x1 -> inception_3b/1x1
I0403 15:51:49.779862 16134 net.cpp:141] Setting up inception_3b/1x1
I0403 15:51:49.779901 16134 net.cpp:148] Top shape: 24 128 28 28 (2408448)
I0403 15:51:49.779917 16134 net.cpp:156] Memory required for data: 667141152
I0403 15:51:49.779934 16134 layer_factory.hpp:77] Creating layer inception_3b/relu_1x1
I0403 15:51:49.779954 16134 net.cpp:91] Creating Layer inception_3b/relu_1x1
I0403 15:51:49.779970 16134 net.cpp:425] inception_3b/relu_1x1 <- inception_3b/1x1
I0403 15:51:49.779986 16134 net.cpp:386] inception_3b/relu_1x1 -> inception_3b/1x1 (in-place)
I0403 15:51:49.780159 16134 net.cpp:141] Setting up inception_3b/relu_1x1
I0403 15:51:49.780184 16134 net.cpp:148] Top shape: 24 128 28 28 (2408448)
I0403 15:51:49.780199 16134 net.cpp:156] Memory required for data: 676774944
I0403 15:51:49.780212 16134 layer_factory.hpp:77] Creating layer inception_3b/3x3_reduce
I0403 15:51:49.780233 16134 net.cpp:91] Creating Layer inception_3b/3x3_reduce
I0403 15:51:49.780251 16134 net.cpp:425] inception_3b/3x3_reduce <- inception_3a/output_inception_3a/output_0_split_1
I0403 15:51:49.780272 16134 net.cpp:399] inception_3b/3x3_reduce -> inception_3b/3x3_reduce
I0403 15:51:49.781409 16134 net.cpp:141] Setting up inception_3b/3x3_reduce
I0403 15:51:49.781435 16134 net.cpp:148] Top shape: 24 128 28 28 (2408448)
I0403 15:51:49.781450 16134 net.cpp:156] Memory required for data: 686408736
I0403 15:51:49.781467 16134 layer_factory.hpp:77] Creating layer inception_3b/relu_3x3_reduce
I0403 15:51:49.781487 16134 net.cpp:91] Creating Layer inception_3b/relu_3x3_reduce
I0403 15:51:49.781503 16134 net.cpp:425] inception_3b/relu_3x3_reduce <- inception_3b/3x3_reduce
I0403 15:51:49.781520 16134 net.cpp:386] inception_3b/relu_3x3_reduce -> inception_3b/3x3_reduce (in-place)
I0403 15:51:49.781694 16134 net.cpp:141] Setting up inception_3b/relu_3x3_reduce
I0403 15:51:49.781718 16134 net.cpp:148] Top shape: 24 128 28 28 (2408448)
I0403 15:51:49.781733 16134 net.cpp:156] Memory required for data: 696042528
I0403 15:51:49.781747 16134 layer_factory.hpp:77] Creating layer inception_3b/3x3
I0403 15:51:49.781771 16134 net.cpp:91] Creating Layer inception_3b/3x3
I0403 15:51:49.781788 16134 net.cpp:425] inception_3b/3x3 <- inception_3b/3x3_reduce
I0403 15:51:49.781806 16134 net.cpp:399] inception_3b/3x3 -> inception_3b/3x3
I0403 15:51:49.784651 16134 net.cpp:141] Setting up inception_3b/3x3
I0403 15:51:49.784679 16134 net.cpp:148] Top shape: 24 192 28 28 (3612672)
I0403 15:51:49.784695 16134 net.cpp:156] Memory required for data: 710493216
I0403 15:51:49.784713 16134 layer_factory.hpp:77] Creating layer inception_3b/relu_3x3
I0403 15:51:49.784731 16134 net.cpp:91] Creating Layer inception_3b/relu_3x3
I0403 15:51:49.784747 16134 net.cpp:425] inception_3b/relu_3x3 <- inception_3b/3x3
I0403 15:51:49.784764 16134 net.cpp:386] inception_3b/relu_3x3 -> inception_3b/3x3 (in-place)
I0403 15:51:49.785028 16134 net.cpp:141] Setting up inception_3b/relu_3x3
I0403 15:51:49.785054 16134 net.cpp:148] Top shape: 24 192 28 28 (3612672)
I0403 15:51:49.785069 16134 net.cpp:156] Memory required for data: 724943904
I0403 15:51:49.785082 16134 layer_factory.hpp:77] Creating layer inception_3b/5x5_reduce
I0403 15:51:49.785104 16134 net.cpp:91] Creating Layer inception_3b/5x5_reduce
I0403 15:51:49.785120 16134 net.cpp:425] inception_3b/5x5_reduce <- inception_3a/output_inception_3a/output_0_split_2
I0403 15:51:49.785141 16134 net.cpp:399] inception_3b/5x5_reduce -> inception_3b/5x5_reduce
I0403 15:51:49.786136 16134 net.cpp:141] Setting up inception_3b/5x5_reduce
I0403 15:51:49.786165 16134 net.cpp:148] Top shape: 24 32 28 28 (602112)
I0403 15:51:49.786180 16134 net.cpp:156] Memory required for data: 727352352
I0403 15:51:49.786197 16134 layer_factory.hpp:77] Creating layer inception_3b/relu_5x5_reduce
I0403 15:51:49.786217 16134 net.cpp:91] Creating Layer inception_3b/relu_5x5_reduce
I0403 15:51:49.786234 16134 net.cpp:425] inception_3b/relu_5x5_reduce <- inception_3b/5x5_reduce
I0403 15:51:49.786250 16134 net.cpp:386] inception_3b/relu_5x5_reduce -> inception_3b/5x5_reduce (in-place)
I0403 15:51:49.786442 16134 net.cpp:141] Setting up inception_3b/relu_5x5_reduce
I0403 15:51:49.786469 16134 net.cpp:148] Top shape: 24 32 28 28 (602112)
I0403 15:51:49.786484 16134 net.cpp:156] Memory required for data: 729760800
I0403 15:51:49.786499 16134 layer_factory.hpp:77] Creating layer inception_3b/5x5
I0403 15:51:49.786521 16134 net.cpp:91] Creating Layer inception_3b/5x5
I0403 15:51:49.786538 16134 net.cpp:425] inception_3b/5x5 <- inception_3b/5x5_reduce
I0403 15:51:49.786557 16134 net.cpp:399] inception_3b/5x5 -> inception_3b/5x5
I0403 15:51:49.788511 16134 net.cpp:141] Setting up inception_3b/5x5
I0403 15:51:49.788539 16134 net.cpp:148] Top shape: 24 96 28 28 (1806336)
I0403 15:51:49.788554 16134 net.cpp:156] Memory required for data: 736986144
I0403 15:51:49.788576 16134 layer_factory.hpp:77] Creating layer inception_3b/relu_5x5
I0403 15:51:49.788599 16134 net.cpp:91] Creating Layer inception_3b/relu_5x5
I0403 15:51:49.788614 16134 net.cpp:425] inception_3b/relu_5x5 <- inception_3b/5x5
I0403 15:51:49.788631 16134 net.cpp:386] inception_3b/relu_5x5 -> inception_3b/5x5 (in-place)
I0403 15:51:49.788821 16134 net.cpp:141] Setting up inception_3b/relu_5x5
I0403 15:51:49.788846 16134 net.cpp:148] Top shape: 24 96 28 28 (1806336)
I0403 15:51:49.788861 16134 net.cpp:156] Memory required for data: 744211488
I0403 15:51:49.788874 16134 layer_factory.hpp:77] Creating layer inception_3b/pool
I0403 15:51:49.788892 16134 net.cpp:91] Creating Layer inception_3b/pool
I0403 15:51:49.788907 16134 net.cpp:425] inception_3b/pool <- inception_3a/output_inception_3a/output_0_split_3
I0403 15:51:49.788924 16134 net.cpp:399] inception_3b/pool -> inception_3b/pool
I0403 15:51:49.788978 16134 net.cpp:141] Setting up inception_3b/pool
I0403 15:51:49.789001 16134 net.cpp:148] Top shape: 24 256 28 28 (4816896)
I0403 15:51:49.789016 16134 net.cpp:156] Memory required for data: 763479072
I0403 15:51:49.789028 16134 layer_factory.hpp:77] Creating layer inception_3b/pool_proj
I0403 15:51:49.789050 16134 net.cpp:91] Creating Layer inception_3b/pool_proj
I0403 15:51:49.789067 16134 net.cpp:425] inception_3b/pool_proj <- inception_3b/pool
I0403 15:51:49.789088 16134 net.cpp:399] inception_3b/pool_proj -> inception_3b/pool_proj
I0403 15:51:49.790123 16134 net.cpp:141] Setting up inception_3b/pool_proj
I0403 15:51:49.790153 16134 net.cpp:148] Top shape: 24 64 28 28 (1204224)
I0403 15:51:49.790169 16134 net.cpp:156] Memory required for data: 768295968
I0403 15:51:49.790186 16134 layer_factory.hpp:77] Creating layer inception_3b/relu_pool_proj
I0403 15:51:49.790204 16134 net.cpp:91] Creating Layer inception_3b/relu_pool_proj
I0403 15:51:49.790220 16134 net.cpp:425] inception_3b/relu_pool_proj <- inception_3b/pool_proj
I0403 15:51:49.790237 16134 net.cpp:386] inception_3b/relu_pool_proj -> inception_3b/pool_proj (in-place)
I0403 15:51:49.790632 16134 net.cpp:141] Setting up inception_3b/relu_pool_proj
I0403 15:51:49.790660 16134 net.cpp:148] Top shape: 24 64 28 28 (1204224)
I0403 15:51:49.790676 16134 net.cpp:156] Memory required for data: 773112864
I0403 15:51:49.790690 16134 layer_factory.hpp:77] Creating layer inception_3b/output
I0403 15:51:49.790707 16134 net.cpp:91] Creating Layer inception_3b/output
I0403 15:51:49.790722 16134 net.cpp:425] inception_3b/output <- inception_3b/1x1
I0403 15:51:49.790738 16134 net.cpp:425] inception_3b/output <- inception_3b/3x3
I0403 15:51:49.790755 16134 net.cpp:425] inception_3b/output <- inception_3b/5x5
I0403 15:51:49.790769 16134 net.cpp:425] inception_3b/output <- inception_3b/pool_proj
I0403 15:51:49.790784 16134 net.cpp:399] inception_3b/output -> inception_3b/output
I0403 15:51:49.790828 16134 net.cpp:141] Setting up inception_3b/output
I0403 15:51:49.790851 16134 net.cpp:148] Top shape: 24 480 28 28 (9031680)
I0403 15:51:49.790865 16134 net.cpp:156] Memory required for data: 809239584
I0403 15:51:49.790879 16134 layer_factory.hpp:77] Creating layer pool3/3x3_s2
I0403 15:51:49.790897 16134 net.cpp:91] Creating Layer pool3/3x3_s2
I0403 15:51:49.790913 16134 net.cpp:425] pool3/3x3_s2 <- inception_3b/output
I0403 15:51:49.790948 16134 net.cpp:399] pool3/3x3_s2 -> pool3/3x3_s2
I0403 15:51:49.791008 16134 net.cpp:141] Setting up pool3/3x3_s2
I0403 15:51:49.791031 16134 net.cpp:148] Top shape: 24 480 14 14 (2257920)
I0403 15:51:49.791044 16134 net.cpp:156] Memory required for data: 818271264
I0403 15:51:49.791059 16134 layer_factory.hpp:77] Creating layer pool3/3x3_s2_pool3/3x3_s2_0_split
I0403 15:51:49.791074 16134 net.cpp:91] Creating Layer pool3/3x3_s2_pool3/3x3_s2_0_split
I0403 15:51:49.791090 16134 net.cpp:425] pool3/3x3_s2_pool3/3x3_s2_0_split <- pool3/3x3_s2
I0403 15:51:49.791107 16134 net.cpp:399] pool3/3x3_s2_pool3/3x3_s2_0_split -> pool3/3x3_s2_pool3/3x3_s2_0_split_0
I0403 15:51:49.791127 16134 net.cpp:399] pool3/3x3_s2_pool3/3x3_s2_0_split -> pool3/3x3_s2_pool3/3x3_s2_0_split_1
I0403 15:51:49.791147 16134 net.cpp:399] pool3/3x3_s2_pool3/3x3_s2_0_split -> pool3/3x3_s2_pool3/3x3_s2_0_split_2
I0403 15:51:49.791165 16134 net.cpp:399] pool3/3x3_s2_pool3/3x3_s2_0_split -> pool3/3x3_s2_pool3/3x3_s2_0_split_3
I0403 15:51:49.791242 16134 net.cpp:141] Setting up pool3/3x3_s2_pool3/3x3_s2_0_split
I0403 15:51:49.791270 16134 net.cpp:148] Top shape: 24 480 14 14 (2257920)
I0403 15:51:49.791285 16134 net.cpp:148] Top shape: 24 480 14 14 (2257920)
I0403 15:51:49.791301 16134 net.cpp:148] Top shape: 24 480 14 14 (2257920)
I0403 15:51:49.791316 16134 net.cpp:148] Top shape: 24 480 14 14 (2257920)
I0403 15:51:49.791328 16134 net.cpp:156] Memory required for data: 854397984
I0403 15:51:49.791342 16134 layer_factory.hpp:77] Creating layer inception_4a/1x1
I0403 15:51:49.791365 16134 net.cpp:91] Creating Layer inception_4a/1x1
I0403 15:51:49.791383 16134 net.cpp:425] inception_4a/1x1 <- pool3/3x3_s2_pool3/3x3_s2_0_split_0
I0403 15:51:49.791400 16134 net.cpp:399] inception_4a/1x1 -> inception_4a/1x1
I0403 15:51:49.792980 16134 net.cpp:141] Setting up inception_4a/1x1
I0403 15:51:49.793011 16134 net.cpp:148] Top shape: 24 192 14 14 (903168)
I0403 15:51:49.793028 16134 net.cpp:156] Memory required for data: 858010656
I0403 15:51:49.793046 16134 layer_factory.hpp:77] Creating layer inception_4a/relu_1x1
I0403 15:51:49.793063 16134 net.cpp:91] Creating Layer inception_4a/relu_1x1
I0403 15:51:49.793081 16134 net.cpp:425] inception_4a/relu_1x1 <- inception_4a/1x1
I0403 15:51:49.793099 16134 net.cpp:386] inception_4a/relu_1x1 -> inception_4a/1x1 (in-place)
I0403 15:51:49.793280 16134 net.cpp:141] Setting up inception_4a/relu_1x1
I0403 15:51:49.793305 16134 net.cpp:148] Top shape: 24 192 14 14 (903168)
I0403 15:51:49.793319 16134 net.cpp:156] Memory required for data: 861623328
I0403 15:51:49.793334 16134 layer_factory.hpp:77] Creating layer inception_4a/3x3_reduce
I0403 15:51:49.793356 16134 net.cpp:91] Creating Layer inception_4a/3x3_reduce
I0403 15:51:49.793375 16134 net.cpp:425] inception_4a/3x3_reduce <- pool3/3x3_s2_pool3/3x3_s2_0_split_1
I0403 15:51:49.793395 16134 net.cpp:399] inception_4a/3x3_reduce -> inception_4a/3x3_reduce
I0403 15:51:49.794718 16134 net.cpp:141] Setting up inception_4a/3x3_reduce
I0403 15:51:49.794747 16134 net.cpp:148] Top shape: 24 96 14 14 (451584)
I0403 15:51:49.794764 16134 net.cpp:156] Memory required for data: 863429664
I0403 15:51:49.794786 16134 layer_factory.hpp:77] Creating layer inception_4a/relu_3x3_reduce
I0403 15:51:49.794807 16134 net.cpp:91] Creating Layer inception_4a/relu_3x3_reduce
I0403 15:51:49.794824 16134 net.cpp:425] inception_4a/relu_3x3_reduce <- inception_4a/3x3_reduce
I0403 15:51:49.794844 16134 net.cpp:386] inception_4a/relu_3x3_reduce -> inception_4a/3x3_reduce (in-place)
I0403 15:51:49.795027 16134 net.cpp:141] Setting up inception_4a/relu_3x3_reduce
I0403 15:51:49.795053 16134 net.cpp:148] Top shape: 24 96 14 14 (451584)
I0403 15:51:49.795066 16134 net.cpp:156] Memory required for data: 865236000
I0403 15:51:49.795080 16134 layer_factory.hpp:77] Creating layer inception_4a/3x3
I0403 15:51:49.795102 16134 net.cpp:91] Creating Layer inception_4a/3x3
I0403 15:51:49.795119 16134 net.cpp:425] inception_4a/3x3 <- inception_4a/3x3_reduce
I0403 15:51:49.795140 16134 net.cpp:399] inception_4a/3x3 -> inception_4a/3x3
I0403 15:51:49.797890 16134 net.cpp:141] Setting up inception_4a/3x3
I0403 15:51:49.797920 16134 net.cpp:148] Top shape: 24 208 14 14 (978432)
I0403 15:51:49.797936 16134 net.cpp:156] Memory required for data: 869149728
I0403 15:51:49.797955 16134 layer_factory.hpp:77] Creating layer inception_4a/relu_3x3
I0403 15:51:49.797974 16134 net.cpp:91] Creating Layer inception_4a/relu_3x3
I0403 15:51:49.797991 16134 net.cpp:425] inception_4a/relu_3x3 <- inception_4a/3x3
I0403 15:51:49.798008 16134 net.cpp:386] inception_4a/relu_3x3 -> inception_4a/3x3 (in-place)
I0403 15:51:49.798292 16134 net.cpp:141] Setting up inception_4a/relu_3x3
I0403 15:51:49.798318 16134 net.cpp:148] Top shape: 24 208 14 14 (978432)
I0403 15:51:49.798334 16134 net.cpp:156] Memory required for data: 873063456
I0403 15:51:49.798348 16134 layer_factory.hpp:77] Creating layer inception_4a/5x5_reduce
I0403 15:51:49.798372 16134 net.cpp:91] Creating Layer inception_4a/5x5_reduce
I0403 15:51:49.798388 16134 net.cpp:425] inception_4a/5x5_reduce <- pool3/3x3_s2_pool3/3x3_s2_0_split_2
I0403 15:51:49.798410 16134 net.cpp:399] inception_4a/5x5_reduce -> inception_4a/5x5_reduce
I0403 15:51:49.799458 16134 net.cpp:141] Setting up inception_4a/5x5_reduce
I0403 15:51:49.799485 16134 net.cpp:148] Top shape: 24 16 14 14 (75264)
I0403 15:51:49.799501 16134 net.cpp:156] Memory required for data: 873364512
I0403 15:51:49.799520 16134 layer_factory.hpp:77] Creating layer inception_4a/relu_5x5_reduce
I0403 15:51:49.799540 16134 net.cpp:91] Creating Layer inception_4a/relu_5x5_reduce
I0403 15:51:49.799557 16134 net.cpp:425] inception_4a/relu_5x5_reduce <- inception_4a/5x5_reduce
I0403 15:51:49.799581 16134 net.cpp:386] inception_4a/relu_5x5_reduce -> inception_4a/5x5_reduce (in-place)
I0403 15:51:49.799765 16134 net.cpp:141] Setting up inception_4a/relu_5x5_reduce
I0403 15:51:49.799793 16134 net.cpp:148] Top shape: 24 16 14 14 (75264)
I0403 15:51:49.799808 16134 net.cpp:156] Memory required for data: 873665568
I0403 15:51:49.799823 16134 layer_factory.hpp:77] Creating layer inception_4a/5x5
I0403 15:51:49.799845 16134 net.cpp:91] Creating Layer inception_4a/5x5
I0403 15:51:49.799862 16134 net.cpp:425] inception_4a/5x5 <- inception_4a/5x5_reduce
I0403 15:51:49.799881 16134 net.cpp:399] inception_4a/5x5 -> inception_4a/5x5
I0403 15:51:49.800997 16134 net.cpp:141] Setting up inception_4a/5x5
I0403 15:51:49.801028 16134 net.cpp:148] Top shape: 24 48 14 14 (225792)
I0403 15:51:49.801044 16134 net.cpp:156] Memory required for data: 874568736
I0403 15:51:49.801062 16134 layer_factory.hpp:77] Creating layer inception_4a/relu_5x5
I0403 15:51:49.801080 16134 net.cpp:91] Creating Layer inception_4a/relu_5x5
I0403 15:51:49.801096 16134 net.cpp:425] inception_4a/relu_5x5 <- inception_4a/5x5
I0403 15:51:49.801113 16134 net.cpp:386] inception_4a/relu_5x5 -> inception_4a/5x5 (in-place)
I0403 15:51:49.801298 16134 net.cpp:141] Setting up inception_4a/relu_5x5
I0403 15:51:49.801323 16134 net.cpp:148] Top shape: 24 48 14 14 (225792)
I0403 15:51:49.801338 16134 net.cpp:156] Memory required for data: 875471904
I0403 15:51:49.801353 16134 layer_factory.hpp:77] Creating layer inception_4a/pool
I0403 15:51:49.801370 16134 net.cpp:91] Creating Layer inception_4a/pool
I0403 15:51:49.801386 16134 net.cpp:425] inception_4a/pool <- pool3/3x3_s2_pool3/3x3_s2_0_split_3
I0403 15:51:49.801406 16134 net.cpp:399] inception_4a/pool -> inception_4a/pool
I0403 15:51:49.801468 16134 net.cpp:141] Setting up inception_4a/pool
I0403 15:51:49.801494 16134 net.cpp:148] Top shape: 24 480 14 14 (2257920)
I0403 15:51:49.801511 16134 net.cpp:156] Memory required for data: 884503584
I0403 15:51:49.801525 16134 layer_factory.hpp:77] Creating layer inception_4a/pool_proj
I0403 15:51:49.801547 16134 net.cpp:91] Creating Layer inception_4a/pool_proj
I0403 15:51:49.801563 16134 net.cpp:425] inception_4a/pool_proj <- inception_4a/pool
I0403 15:51:49.801587 16134 net.cpp:399] inception_4a/pool_proj -> inception_4a/pool_proj
I0403 15:51:49.802788 16134 net.cpp:141] Setting up inception_4a/pool_proj
I0403 15:51:49.802817 16134 net.cpp:148] Top shape: 24 64 14 14 (301056)
I0403 15:51:49.802847 16134 net.cpp:156] Memory required for data: 885707808
I0403 15:51:49.802867 16134 layer_factory.hpp:77] Creating layer inception_4a/relu_pool_proj
I0403 15:51:49.802886 16134 net.cpp:91] Creating Layer inception_4a/relu_pool_proj
I0403 15:51:49.802902 16134 net.cpp:425] inception_4a/relu_pool_proj <- inception_4a/pool_proj
I0403 15:51:49.802922 16134 net.cpp:386] inception_4a/relu_pool_proj -> inception_4a/pool_proj (in-place)
I0403 15:51:49.803213 16134 net.cpp:141] Setting up inception_4a/relu_pool_proj
I0403 15:51:49.803241 16134 net.cpp:148] Top shape: 24 64 14 14 (301056)
I0403 15:51:49.803256 16134 net.cpp:156] Memory required for data: 886912032
I0403 15:51:49.803270 16134 layer_factory.hpp:77] Creating layer inception_4a/output
I0403 15:51:49.803287 16134 net.cpp:91] Creating Layer inception_4a/output
I0403 15:51:49.803303 16134 net.cpp:425] inception_4a/output <- inception_4a/1x1
I0403 15:51:49.803318 16134 net.cpp:425] inception_4a/output <- inception_4a/3x3
I0403 15:51:49.803334 16134 net.cpp:425] inception_4a/output <- inception_4a/5x5
I0403 15:51:49.803350 16134 net.cpp:425] inception_4a/output <- inception_4a/pool_proj
I0403 15:51:49.803369 16134 net.cpp:399] inception_4a/output -> inception_4a/output
I0403 15:51:49.803416 16134 net.cpp:141] Setting up inception_4a/output
I0403 15:51:49.803438 16134 net.cpp:148] Top shape: 24 512 14 14 (2408448)
I0403 15:51:49.803457 16134 net.cpp:156] Memory required for data: 896545824
I0403 15:51:49.803470 16134 layer_factory.hpp:77] Creating layer inception_4a/output_inception_4a/output_0_split
I0403 15:51:49.803488 16134 net.cpp:91] Creating Layer inception_4a/output_inception_4a/output_0_split
I0403 15:51:49.803503 16134 net.cpp:425] inception_4a/output_inception_4a/output_0_split <- inception_4a/output
I0403 15:51:49.803519 16134 net.cpp:399] inception_4a/output_inception_4a/output_0_split -> inception_4a/output_inception_4a/output_0_split_0
I0403 15:51:49.803539 16134 net.cpp:399] inception_4a/output_inception_4a/output_0_split -> inception_4a/output_inception_4a/output_0_split_1
I0403 15:51:49.803562 16134 net.cpp:399] inception_4a/output_inception_4a/output_0_split -> inception_4a/output_inception_4a/output_0_split_2
I0403 15:51:49.803589 16134 net.cpp:399] inception_4a/output_inception_4a/output_0_split -> inception_4a/output_inception_4a/output_0_split_3
I0403 15:51:49.803611 16134 net.cpp:399] inception_4a/output_inception_4a/output_0_split -> inception_4a/output_inception_4a/output_0_split_4
I0403 15:51:49.803707 16134 net.cpp:141] Setting up inception_4a/output_inception_4a/output_0_split
I0403 15:51:49.803731 16134 net.cpp:148] Top shape: 24 512 14 14 (2408448)
I0403 15:51:49.803747 16134 net.cpp:148] Top shape: 24 512 14 14 (2408448)
I0403 15:51:49.803762 16134 net.cpp:148] Top shape: 24 512 14 14 (2408448)
I0403 15:51:49.803777 16134 net.cpp:148] Top shape: 24 512 14 14 (2408448)
I0403 15:51:49.803792 16134 net.cpp:148] Top shape: 24 512 14 14 (2408448)
I0403 15:51:49.803805 16134 net.cpp:156] Memory required for data: 944714784
I0403 15:51:49.803819 16134 layer_factory.hpp:77] Creating layer loss1/ave_pool
I0403 15:51:49.803841 16134 net.cpp:91] Creating Layer loss1/ave_pool
I0403 15:51:49.803858 16134 net.cpp:425] loss1/ave_pool <- inception_4a/output_inception_4a/output_0_split_0
I0403 15:51:49.803875 16134 net.cpp:399] loss1/ave_pool -> loss1/ave_pool
I0403 15:51:49.804086 16134 net.cpp:141] Setting up loss1/ave_pool
I0403 15:51:49.804112 16134 net.cpp:148] Top shape: 24 512 4 4 (196608)
I0403 15:51:49.804127 16134 net.cpp:156] Memory required for data: 945501216
I0403 15:51:49.804142 16134 layer_factory.hpp:77] Creating layer loss1/conv
I0403 15:51:49.804164 16134 net.cpp:91] Creating Layer loss1/conv
I0403 15:51:49.804183 16134 net.cpp:425] loss1/conv <- loss1/ave_pool
I0403 15:51:49.804203 16134 net.cpp:399] loss1/conv -> loss1/conv
I0403 15:51:49.805660 16134 net.cpp:141] Setting up loss1/conv
I0403 15:51:49.805690 16134 net.cpp:148] Top shape: 24 128 4 4 (49152)
I0403 15:51:49.805719 16134 net.cpp:156] Memory required for data: 945697824
I0403 15:51:49.805739 16134 layer_factory.hpp:77] Creating layer loss1/relu_conv
I0403 15:51:49.805760 16134 net.cpp:91] Creating Layer loss1/relu_conv
I0403 15:51:49.805778 16134 net.cpp:425] loss1/relu_conv <- loss1/conv
I0403 15:51:49.805795 16134 net.cpp:386] loss1/relu_conv -> loss1/conv (in-place)
I0403 15:51:49.806082 16134 net.cpp:141] Setting up loss1/relu_conv
I0403 15:51:49.806109 16134 net.cpp:148] Top shape: 24 128 4 4 (49152)
I0403 15:51:49.806124 16134 net.cpp:156] Memory required for data: 945894432
I0403 15:51:49.806139 16134 layer_factory.hpp:77] Creating layer loss1/fc
I0403 15:51:49.806165 16134 net.cpp:91] Creating Layer loss1/fc
I0403 15:51:49.806183 16134 net.cpp:425] loss1/fc <- loss1/conv
I0403 15:51:49.806201 16134 net.cpp:399] loss1/fc -> loss1/fc
I0403 15:51:49.824138 16134 net.cpp:141] Setting up loss1/fc
I0403 15:51:49.824187 16134 net.cpp:148] Top shape: 24 1024 (24576)
I0403 15:51:49.824203 16134 net.cpp:156] Memory required for data: 945992736
I0403 15:51:49.824223 16134 layer_factory.hpp:77] Creating layer loss1/relu_fc
I0403 15:51:49.824242 16134 net.cpp:91] Creating Layer loss1/relu_fc
I0403 15:51:49.824259 16134 net.cpp:425] loss1/relu_fc <- loss1/fc
I0403 15:51:49.824278 16134 net.cpp:386] loss1/relu_fc -> loss1/fc (in-place)
I0403 15:51:49.824492 16134 net.cpp:141] Setting up loss1/relu_fc
I0403 15:51:49.824517 16134 net.cpp:148] Top shape: 24 1024 (24576)
I0403 15:51:49.824532 16134 net.cpp:156] Memory required for data: 946091040
I0403 15:51:49.824545 16134 layer_factory.hpp:77] Creating layer loss1/drop_fc
I0403 15:51:49.824585 16134 net.cpp:91] Creating Layer loss1/drop_fc
I0403 15:51:49.824604 16134 net.cpp:425] loss1/drop_fc <- loss1/fc
I0403 15:51:49.824622 16134 net.cpp:386] loss1/drop_fc -> loss1/fc (in-place)
I0403 15:51:49.824673 16134 net.cpp:141] Setting up loss1/drop_fc
I0403 15:51:49.824699 16134 net.cpp:148] Top shape: 24 1024 (24576)
I0403 15:51:49.824714 16134 net.cpp:156] Memory required for data: 946189344
I0403 15:51:49.824729 16134 layer_factory.hpp:77] Creating layer loss1/classifier_plantvillage
I0403 15:51:49.824748 16134 net.cpp:91] Creating Layer loss1/classifier_plantvillage
I0403 15:51:49.824764 16134 net.cpp:425] loss1/classifier_plantvillage <- loss1/fc
I0403 15:51:49.824784 16134 net.cpp:399] loss1/classifier_plantvillage -> loss1/classifier_plantvillage
I0403 15:51:49.825728 16134 net.cpp:141] Setting up loss1/classifier_plantvillage
I0403 15:51:49.825757 16134 net.cpp:148] Top shape: 24 38 (912)
I0403 15:51:49.825772 16134 net.cpp:156] Memory required for data: 946192992
I0403 15:51:49.825788 16134 layer_factory.hpp:77] Creating layer loss1/classifier_plantvillage_loss1/classifier_plantvillage_0_split
I0403 15:51:49.825806 16134 net.cpp:91] Creating Layer loss1/classifier_plantvillage_loss1/classifier_plantvillage_0_split
I0403 15:51:49.825822 16134 net.cpp:425] loss1/classifier_plantvillage_loss1/classifier_plantvillage_0_split <- loss1/classifier_plantvillage
I0403 15:51:49.825842 16134 net.cpp:399] loss1/classifier_plantvillage_loss1/classifier_plantvillage_0_split -> loss1/classifier_plantvillage_loss1/classifier_plantvillage_0_split_0
I0403 15:51:49.825862 16134 net.cpp:399] loss1/classifier_plantvillage_loss1/classifier_plantvillage_0_split -> loss1/classifier_plantvillage_loss1/classifier_plantvillage_0_split_1
I0403 15:51:49.825881 16134 net.cpp:399] loss1/classifier_plantvillage_loss1/classifier_plantvillage_0_split -> loss1/classifier_plantvillage_loss1/classifier_plantvillage_0_split_2
I0403 15:51:49.825947 16134 net.cpp:141] Setting up loss1/classifier_plantvillage_loss1/classifier_plantvillage_0_split
I0403 15:51:49.825971 16134 net.cpp:148] Top shape: 24 38 (912)
I0403 15:51:49.825987 16134 net.cpp:148] Top shape: 24 38 (912)
I0403 15:51:49.826002 16134 net.cpp:148] Top shape: 24 38 (912)
I0403 15:51:49.826015 16134 net.cpp:156] Memory required for data: 946203936
I0403 15:51:49.826028 16134 layer_factory.hpp:77] Creating layer inception_4b/1x1
I0403 15:51:49.826048 16134 net.cpp:91] Creating Layer inception_4b/1x1
I0403 15:51:49.826088 16134 net.cpp:425] inception_4b/1x1 <- inception_4a/output_inception_4a/output_0_split_1
I0403 15:51:49.826108 16134 net.cpp:399] inception_4b/1x1 -> inception_4b/1x1
I0403 15:51:49.827795 16134 net.cpp:141] Setting up inception_4b/1x1
I0403 15:51:49.827826 16134 net.cpp:148] Top shape: 24 160 14 14 (752640)
I0403 15:51:49.827841 16134 net.cpp:156] Memory required for data: 949214496
I0403 15:51:49.827858 16134 layer_factory.hpp:77] Creating layer inception_4b/relu_1x1
I0403 15:51:49.827878 16134 net.cpp:91] Creating Layer inception_4b/relu_1x1
I0403 15:51:49.827894 16134 net.cpp:425] inception_4b/relu_1x1 <- inception_4b/1x1
I0403 15:51:49.827911 16134 net.cpp:386] inception_4b/relu_1x1 -> inception_4b/1x1 (in-place)
I0403 15:51:49.828096 16134 net.cpp:141] Setting up inception_4b/relu_1x1
I0403 15:51:49.828124 16134 net.cpp:148] Top shape: 24 160 14 14 (752640)
I0403 15:51:49.828140 16134 net.cpp:156] Memory required for data: 952225056
I0403 15:51:49.828153 16134 layer_factory.hpp:77] Creating layer inception_4b/3x3_reduce
I0403 15:51:49.828174 16134 net.cpp:91] Creating Layer inception_4b/3x3_reduce
I0403 15:51:49.828191 16134 net.cpp:425] inception_4b/3x3_reduce <- inception_4a/output_inception_4a/output_0_split_2
I0403 15:51:49.828209 16134 net.cpp:399] inception_4b/3x3_reduce -> inception_4b/3x3_reduce
I0403 15:51:49.829545 16134 net.cpp:141] Setting up inception_4b/3x3_reduce
I0403 15:51:49.829576 16134 net.cpp:148] Top shape: 24 112 14 14 (526848)
I0403 15:51:49.829592 16134 net.cpp:156] Memory required for data: 954332448
I0403 15:51:49.829609 16134 layer_factory.hpp:77] Creating layer inception_4b/relu_3x3_reduce
I0403 15:51:49.829630 16134 net.cpp:91] Creating Layer inception_4b/relu_3x3_reduce
I0403 15:51:49.829646 16134 net.cpp:425] inception_4b/relu_3x3_reduce <- inception_4b/3x3_reduce
I0403 15:51:49.829663 16134 net.cpp:386] inception_4b/relu_3x3_reduce -> inception_4b/3x3_reduce (in-place)
I0403 15:51:49.829936 16134 net.cpp:141] Setting up inception_4b/relu_3x3_reduce
I0403 15:51:49.829962 16134 net.cpp:148] Top shape: 24 112 14 14 (526848)
I0403 15:51:49.829974 16134 net.cpp:156] Memory required for data: 956439840
I0403 15:51:49.829988 16134 layer_factory.hpp:77] Creating layer inception_4b/3x3
I0403 15:51:49.830010 16134 net.cpp:91] Creating Layer inception_4b/3x3
I0403 15:51:49.830029 16134 net.cpp:425] inception_4b/3x3 <- inception_4b/3x3_reduce
I0403 15:51:49.830045 16134 net.cpp:399] inception_4b/3x3 -> inception_4b/3x3
I0403 15:51:49.832978 16134 net.cpp:141] Setting up inception_4b/3x3
I0403 15:51:49.833005 16134 net.cpp:148] Top shape: 24 224 14 14 (1053696)
I0403 15:51:49.833020 16134 net.cpp:156] Memory required for data: 960654624
I0403 15:51:49.833036 16134 layer_factory.hpp:77] Creating layer inception_4b/relu_3x3
I0403 15:51:49.833055 16134 net.cpp:91] Creating Layer inception_4b/relu_3x3
I0403 15:51:49.833070 16134 net.cpp:425] inception_4b/relu_3x3 <- inception_4b/3x3
I0403 15:51:49.833087 16134 net.cpp:386] inception_4b/relu_3x3 -> inception_4b/3x3 (in-place)
I0403 15:51:49.833262 16134 net.cpp:141] Setting up inception_4b/relu_3x3
I0403 15:51:49.833287 16134 net.cpp:148] Top shape: 24 224 14 14 (1053696)
I0403 15:51:49.833300 16134 net.cpp:156] Memory required for data: 964869408
I0403 15:51:49.833314 16134 layer_factory.hpp:77] Creating layer inception_4b/5x5_reduce
I0403 15:51:49.833334 16134 net.cpp:91] Creating Layer inception_4b/5x5_reduce
I0403 15:51:49.833351 16134 net.cpp:425] inception_4b/5x5_reduce <- inception_4a/output_inception_4a/output_0_split_3
I0403 15:51:49.833372 16134 net.cpp:399] inception_4b/5x5_reduce -> inception_4b/5x5_reduce
I0403 15:51:49.834429 16134 net.cpp:141] Setting up inception_4b/5x5_reduce
I0403 15:51:49.834455 16134 net.cpp:148] Top shape: 24 24 14 14 (112896)
I0403 15:51:49.834470 16134 net.cpp:156] Memory required for data: 965320992
I0403 15:51:49.834487 16134 layer_factory.hpp:77] Creating layer inception_4b/relu_5x5_reduce
I0403 15:51:49.834506 16134 net.cpp:91] Creating Layer inception_4b/relu_5x5_reduce
I0403 15:51:49.834537 16134 net.cpp:425] inception_4b/relu_5x5_reduce <- inception_4b/5x5_reduce
I0403 15:51:49.834555 16134 net.cpp:386] inception_4b/relu_5x5_reduce -> inception_4b/5x5_reduce (in-place)
I0403 15:51:49.834743 16134 net.cpp:141] Setting up inception_4b/relu_5x5_reduce
I0403 15:51:49.834769 16134 net.cpp:148] Top shape: 24 24 14 14 (112896)
I0403 15:51:49.834785 16134 net.cpp:156] Memory required for data: 965772576
I0403 15:51:49.834800 16134 layer_factory.hpp:77] Creating layer inception_4b/5x5
I0403 15:51:49.834820 16134 net.cpp:91] Creating Layer inception_4b/5x5
I0403 15:51:49.834837 16134 net.cpp:425] inception_4b/5x5 <- inception_4b/5x5_reduce
I0403 15:51:49.834857 16134 net.cpp:399] inception_4b/5x5 -> inception_4b/5x5
I0403 15:51:49.836042 16134 net.cpp:141] Setting up inception_4b/5x5
I0403 15:51:49.836069 16134 net.cpp:148] Top shape: 24 64 14 14 (301056)
I0403 15:51:49.836084 16134 net.cpp:156] Memory required for data: 966976800
I0403 15:51:49.836102 16134 layer_factory.hpp:77] Creating layer inception_4b/relu_5x5
I0403 15:51:49.836120 16134 net.cpp:91] Creating Layer inception_4b/relu_5x5
I0403 15:51:49.836136 16134 net.cpp:425] inception_4b/relu_5x5 <- inception_4b/5x5
I0403 15:51:49.836153 16134 net.cpp:386] inception_4b/relu_5x5 -> inception_4b/5x5 (in-place)
I0403 15:51:49.836431 16134 net.cpp:141] Setting up inception_4b/relu_5x5
I0403 15:51:49.836455 16134 net.cpp:148] Top shape: 24 64 14 14 (301056)
I0403 15:51:49.836469 16134 net.cpp:156] Memory required for data: 968181024
I0403 15:51:49.836484 16134 layer_factory.hpp:77] Creating layer inception_4b/pool
I0403 15:51:49.836503 16134 net.cpp:91] Creating Layer inception_4b/pool
I0403 15:51:49.836519 16134 net.cpp:425] inception_4b/pool <- inception_4a/output_inception_4a/output_0_split_4
I0403 15:51:49.836536 16134 net.cpp:399] inception_4b/pool -> inception_4b/pool
I0403 15:51:49.836606 16134 net.cpp:141] Setting up inception_4b/pool
I0403 15:51:49.836629 16134 net.cpp:148] Top shape: 24 512 14 14 (2408448)
I0403 15:51:49.836643 16134 net.cpp:156] Memory required for data: 977814816
I0403 15:51:49.836658 16134 layer_factory.hpp:77] Creating layer inception_4b/pool_proj
I0403 15:51:49.836678 16134 net.cpp:91] Creating Layer inception_4b/pool_proj
I0403 15:51:49.836695 16134 net.cpp:425] inception_4b/pool_proj <- inception_4b/pool
I0403 15:51:49.836715 16134 net.cpp:399] inception_4b/pool_proj -> inception_4b/pool_proj
I0403 15:51:49.837923 16134 net.cpp:141] Setting up inception_4b/pool_proj
I0403 15:51:49.837950 16134 net.cpp:148] Top shape: 24 64 14 14 (301056)
I0403 15:51:49.837965 16134 net.cpp:156] Memory required for data: 979019040
I0403 15:51:49.837982 16134 layer_factory.hpp:77] Creating layer inception_4b/relu_pool_proj
I0403 15:51:49.838003 16134 net.cpp:91] Creating Layer inception_4b/relu_pool_proj
I0403 15:51:49.838019 16134 net.cpp:425] inception_4b/relu_pool_proj <- inception_4b/pool_proj
I0403 15:51:49.838037 16134 net.cpp:386] inception_4b/relu_pool_proj -> inception_4b/pool_proj (in-place)
I0403 15:51:49.838218 16134 net.cpp:141] Setting up inception_4b/relu_pool_proj
I0403 15:51:49.838245 16134 net.cpp:148] Top shape: 24 64 14 14 (301056)
I0403 15:51:49.838261 16134 net.cpp:156] Memory required for data: 980223264
I0403 15:51:49.838275 16134 layer_factory.hpp:77] Creating layer inception_4b/output
I0403 15:51:49.838292 16134 net.cpp:91] Creating Layer inception_4b/output
I0403 15:51:49.838306 16134 net.cpp:425] inception_4b/output <- inception_4b/1x1
I0403 15:51:49.838321 16134 net.cpp:425] inception_4b/output <- inception_4b/3x3
I0403 15:51:49.838337 16134 net.cpp:425] inception_4b/output <- inception_4b/5x5
I0403 15:51:49.838352 16134 net.cpp:425] inception_4b/output <- inception_4b/pool_proj
I0403 15:51:49.838371 16134 net.cpp:399] inception_4b/output -> inception_4b/output
I0403 15:51:49.838416 16134 net.cpp:141] Setting up inception_4b/output
I0403 15:51:49.838439 16134 net.cpp:148] Top shape: 24 512 14 14 (2408448)
I0403 15:51:49.838454 16134 net.cpp:156] Memory required for data: 989857056
I0403 15:51:49.838482 16134 layer_factory.hpp:77] Creating layer inception_4b/output_inception_4b/output_0_split
I0403 15:51:49.838502 16134 net.cpp:91] Creating Layer inception_4b/output_inception_4b/output_0_split
I0403 15:51:49.838518 16134 net.cpp:425] inception_4b/output_inception_4b/output_0_split <- inception_4b/output
I0403 15:51:49.838536 16134 net.cpp:399] inception_4b/output_inception_4b/output_0_split -> inception_4b/output_inception_4b/output_0_split_0
I0403 15:51:49.838556 16134 net.cpp:399] inception_4b/output_inception_4b/output_0_split -> inception_4b/output_inception_4b/output_0_split_1
I0403 15:51:49.838580 16134 net.cpp:399] inception_4b/output_inception_4b/output_0_split -> inception_4b/output_inception_4b/output_0_split_2
I0403 15:51:49.838605 16134 net.cpp:399] inception_4b/output_inception_4b/output_0_split -> inception_4b/output_inception_4b/output_0_split_3
I0403 15:51:49.838702 16134 net.cpp:141] Setting up inception_4b/output_inception_4b/output_0_split
I0403 15:51:49.838726 16134 net.cpp:148] Top shape: 24 512 14 14 (2408448)
I0403 15:51:49.838740 16134 net.cpp:148] Top shape: 24 512 14 14 (2408448)
I0403 15:51:49.838754 16134 net.cpp:148] Top shape: 24 512 14 14 (2408448)
I0403 15:51:49.838768 16134 net.cpp:148] Top shape: 24 512 14 14 (2408448)
I0403 15:51:49.838781 16134 net.cpp:156] Memory required for data: 1028392224
I0403 15:51:49.838794 16134 layer_factory.hpp:77] Creating layer inception_4c/1x1
I0403 15:51:49.838815 16134 net.cpp:91] Creating Layer inception_4c/1x1
I0403 15:51:49.838831 16134 net.cpp:425] inception_4c/1x1 <- inception_4b/output_inception_4b/output_0_split_0
I0403 15:51:49.838851 16134 net.cpp:399] inception_4c/1x1 -> inception_4c/1x1
I0403 15:51:49.840242 16134 net.cpp:141] Setting up inception_4c/1x1
I0403 15:51:49.840275 16134 net.cpp:148] Top shape: 24 128 14 14 (602112)
I0403 15:51:49.840289 16134 net.cpp:156] Memory required for data: 1030800672
I0403 15:51:49.840307 16134 layer_factory.hpp:77] Creating layer inception_4c/relu_1x1
I0403 15:51:49.840325 16134 net.cpp:91] Creating Layer inception_4c/relu_1x1
I0403 15:51:49.840342 16134 net.cpp:425] inception_4c/relu_1x1 <- inception_4c/1x1
I0403 15:51:49.840359 16134 net.cpp:386] inception_4c/relu_1x1 -> inception_4c/1x1 (in-place)
I0403 15:51:49.840533 16134 net.cpp:141] Setting up inception_4c/relu_1x1
I0403 15:51:49.840558 16134 net.cpp:148] Top shape: 24 128 14 14 (602112)
I0403 15:51:49.840575 16134 net.cpp:156] Memory required for data: 1033209120
I0403 15:51:49.840590 16134 layer_factory.hpp:77] Creating layer inception_4c/3x3_reduce
I0403 15:51:49.840611 16134 net.cpp:91] Creating Layer inception_4c/3x3_reduce
I0403 15:51:49.840628 16134 net.cpp:425] inception_4c/3x3_reduce <- inception_4b/output_inception_4b/output_0_split_1
I0403 15:51:49.840648 16134 net.cpp:399] inception_4c/3x3_reduce -> inception_4c/3x3_reduce
I0403 15:51:49.842599 16134 net.cpp:141] Setting up inception_4c/3x3_reduce
I0403 15:51:49.842628 16134 net.cpp:148] Top shape: 24 128 14 14 (602112)
I0403 15:51:49.842643 16134 net.cpp:156] Memory required for data: 1035617568
I0403 15:51:49.842661 16134 layer_factory.hpp:77] Creating layer inception_4c/relu_3x3_reduce
I0403 15:51:49.842680 16134 net.cpp:91] Creating Layer inception_4c/relu_3x3_reduce
I0403 15:51:49.842697 16134 net.cpp:425] inception_4c/relu_3x3_reduce <- inception_4c/3x3_reduce
I0403 15:51:49.842713 16134 net.cpp:386] inception_4c/relu_3x3_reduce -> inception_4c/3x3_reduce (in-place)
I0403 15:51:49.842999 16134 net.cpp:141] Setting up inception_4c/relu_3x3_reduce
I0403 15:51:49.843025 16134 net.cpp:148] Top shape: 24 128 14 14 (602112)
I0403 15:51:49.843040 16134 net.cpp:156] Memory required for data: 1038026016
I0403 15:51:49.843053 16134 layer_factory.hpp:77] Creating layer inception_4c/3x3
I0403 15:51:49.843075 16134 net.cpp:91] Creating Layer inception_4c/3x3
I0403 15:51:49.843092 16134 net.cpp:425] inception_4c/3x3 <- inception_4c/3x3_reduce
I0403 15:51:49.843113 16134 net.cpp:399] inception_4c/3x3 -> inception_4c/3x3
I0403 15:51:49.846725 16134 net.cpp:141] Setting up inception_4c/3x3
I0403 15:51:49.846766 16134 net.cpp:148] Top shape: 24 256 14 14 (1204224)
I0403 15:51:49.846782 16134 net.cpp:156] Memory required for data: 1042842912
I0403 15:51:49.846813 16134 layer_factory.hpp:77] Creating layer inception_4c/relu_3x3
I0403 15:51:49.846835 16134 net.cpp:91] Creating Layer inception_4c/relu_3x3
I0403 15:51:49.846853 16134 net.cpp:425] inception_4c/relu_3x3 <- inception_4c/3x3
I0403 15:51:49.846869 16134 net.cpp:386] inception_4c/relu_3x3 -> inception_4c/3x3 (in-place)
I0403 15:51:49.847055 16134 net.cpp:141] Setting up inception_4c/relu_3x3
I0403 15:51:49.847080 16134 net.cpp:148] Top shape: 24 256 14 14 (1204224)
I0403 15:51:49.847095 16134 net.cpp:156] Memory required for data: 1047659808
I0403 15:51:49.847108 16134 layer_factory.hpp:77] Creating layer inception_4c/5x5_reduce
I0403 15:51:49.847131 16134 net.cpp:91] Creating Layer inception_4c/5x5_reduce
I0403 15:51:49.847149 16134 net.cpp:425] inception_4c/5x5_reduce <- inception_4b/output_inception_4b/output_0_split_2
I0403 15:51:49.847167 16134 net.cpp:399] inception_4c/5x5_reduce -> inception_4c/5x5_reduce
I0403 15:51:49.848259 16134 net.cpp:141] Setting up inception_4c/5x5_reduce
I0403 15:51:49.848287 16134 net.cpp:148] Top shape: 24 24 14 14 (112896)
I0403 15:51:49.848302 16134 net.cpp:156] Memory required for data: 1048111392
I0403 15:51:49.848320 16134 layer_factory.hpp:77] Creating layer inception_4c/relu_5x5_reduce
I0403 15:51:49.848340 16134 net.cpp:91] Creating Layer inception_4c/relu_5x5_reduce
I0403 15:51:49.848356 16134 net.cpp:425] inception_4c/relu_5x5_reduce <- inception_4c/5x5_reduce
I0403 15:51:49.848372 16134 net.cpp:386] inception_4c/relu_5x5_reduce -> inception_4c/5x5_reduce (in-place)
I0403 15:51:49.848556 16134 net.cpp:141] Setting up inception_4c/relu_5x5_reduce
I0403 15:51:49.848587 16134 net.cpp:148] Top shape: 24 24 14 14 (112896)
I0403 15:51:49.848603 16134 net.cpp:156] Memory required for data: 1048562976
I0403 15:51:49.848618 16134 layer_factory.hpp:77] Creating layer inception_4c/5x5
I0403 15:51:49.848639 16134 net.cpp:91] Creating Layer inception_4c/5x5
I0403 15:51:49.848655 16134 net.cpp:425] inception_4c/5x5 <- inception_4c/5x5_reduce
I0403 15:51:49.848673 16134 net.cpp:399] inception_4c/5x5 -> inception_4c/5x5
I0403 15:51:49.849917 16134 net.cpp:141] Setting up inception_4c/5x5
I0403 15:51:49.849947 16134 net.cpp:148] Top shape: 24 64 14 14 (301056)
I0403 15:51:49.849963 16134 net.cpp:156] Memory required for data: 1049767200
I0403 15:51:49.849982 16134 layer_factory.hpp:77] Creating layer inception_4c/relu_5x5
I0403 15:51:49.849998 16134 net.cpp:91] Creating Layer inception_4c/relu_5x5
I0403 15:51:49.850014 16134 net.cpp:425] inception_4c/relu_5x5 <- inception_4c/5x5
I0403 15:51:49.850033 16134 net.cpp:386] inception_4c/relu_5x5 -> inception_4c/5x5 (in-place)
I0403 15:51:49.850320 16134 net.cpp:141] Setting up inception_4c/relu_5x5
I0403 15:51:49.850349 16134 net.cpp:148] Top shape: 24 64 14 14 (301056)
I0403 15:51:49.850364 16134 net.cpp:156] Memory required for data: 1050971424
I0403 15:51:49.850379 16134 layer_factory.hpp:77] Creating layer inception_4c/pool
I0403 15:51:49.850396 16134 net.cpp:91] Creating Layer inception_4c/pool
I0403 15:51:49.850412 16134 net.cpp:425] inception_4c/pool <- inception_4b/output_inception_4b/output_0_split_3
I0403 15:51:49.850432 16134 net.cpp:399] inception_4c/pool -> inception_4c/pool
I0403 15:51:49.850499 16134 net.cpp:141] Setting up inception_4c/pool
I0403 15:51:49.850525 16134 net.cpp:148] Top shape: 24 512 14 14 (2408448)
I0403 15:51:49.850541 16134 net.cpp:156] Memory required for data: 1060605216
I0403 15:51:49.850554 16134 layer_factory.hpp:77] Creating layer inception_4c/pool_proj
I0403 15:51:49.850580 16134 net.cpp:91] Creating Layer inception_4c/pool_proj
I0403 15:51:49.850599 16134 net.cpp:425] inception_4c/pool_proj <- inception_4c/pool
I0403 15:51:49.850620 16134 net.cpp:399] inception_4c/pool_proj -> inception_4c/pool_proj
I0403 15:51:49.851842 16134 net.cpp:141] Setting up inception_4c/pool_proj
I0403 15:51:49.851871 16134 net.cpp:148] Top shape: 24 64 14 14 (301056)
I0403 15:51:49.851899 16134 net.cpp:156] Memory required for data: 1061809440
I0403 15:51:49.851918 16134 layer_factory.hpp:77] Creating layer inception_4c/relu_pool_proj
I0403 15:51:49.851939 16134 net.cpp:91] Creating Layer inception_4c/relu_pool_proj
I0403 15:51:49.851956 16134 net.cpp:425] inception_4c/relu_pool_proj <- inception_4c/pool_proj
I0403 15:51:49.851972 16134 net.cpp:386] inception_4c/relu_pool_proj -> inception_4c/pool_proj (in-place)
I0403 15:51:49.852159 16134 net.cpp:141] Setting up inception_4c/relu_pool_proj
I0403 15:51:49.852185 16134 net.cpp:148] Top shape: 24 64 14 14 (301056)
I0403 15:51:49.852200 16134 net.cpp:156] Memory required for data: 1063013664
I0403 15:51:49.852213 16134 layer_factory.hpp:77] Creating layer inception_4c/output
I0403 15:51:49.852231 16134 net.cpp:91] Creating Layer inception_4c/output
I0403 15:51:49.852246 16134 net.cpp:425] inception_4c/output <- inception_4c/1x1
I0403 15:51:49.852262 16134 net.cpp:425] inception_4c/output <- inception_4c/3x3
I0403 15:51:49.852278 16134 net.cpp:425] inception_4c/output <- inception_4c/5x5
I0403 15:51:49.852293 16134 net.cpp:425] inception_4c/output <- inception_4c/pool_proj
I0403 15:51:49.852311 16134 net.cpp:399] inception_4c/output -> inception_4c/output
I0403 15:51:49.852357 16134 net.cpp:141] Setting up inception_4c/output
I0403 15:51:49.852380 16134 net.cpp:148] Top shape: 24 512 14 14 (2408448)
I0403 15:51:49.852393 16134 net.cpp:156] Memory required for data: 1072647456
I0403 15:51:49.852407 16134 layer_factory.hpp:77] Creating layer inception_4c/output_inception_4c/output_0_split
I0403 15:51:49.852426 16134 net.cpp:91] Creating Layer inception_4c/output_inception_4c/output_0_split
I0403 15:51:49.852442 16134 net.cpp:425] inception_4c/output_inception_4c/output_0_split <- inception_4c/output
I0403 15:51:49.852458 16134 net.cpp:399] inception_4c/output_inception_4c/output_0_split -> inception_4c/output_inception_4c/output_0_split_0
I0403 15:51:49.852478 16134 net.cpp:399] inception_4c/output_inception_4c/output_0_split -> inception_4c/output_inception_4c/output_0_split_1
I0403 15:51:49.852497 16134 net.cpp:399] inception_4c/output_inception_4c/output_0_split -> inception_4c/output_inception_4c/output_0_split_2
I0403 15:51:49.852520 16134 net.cpp:399] inception_4c/output_inception_4c/output_0_split -> inception_4c/output_inception_4c/output_0_split_3
I0403 15:51:49.852612 16134 net.cpp:141] Setting up inception_4c/output_inception_4c/output_0_split
I0403 15:51:49.852635 16134 net.cpp:148] Top shape: 24 512 14 14 (2408448)
I0403 15:51:49.852650 16134 net.cpp:148] Top shape: 24 512 14 14 (2408448)
I0403 15:51:49.852665 16134 net.cpp:148] Top shape: 24 512 14 14 (2408448)
I0403 15:51:49.852680 16134 net.cpp:148] Top shape: 24 512 14 14 (2408448)
I0403 15:51:49.852694 16134 net.cpp:156] Memory required for data: 1111182624
I0403 15:51:49.852707 16134 layer_factory.hpp:77] Creating layer inception_4d/1x1
I0403 15:51:49.852728 16134 net.cpp:91] Creating Layer inception_4d/1x1
I0403 15:51:49.852746 16134 net.cpp:425] inception_4d/1x1 <- inception_4c/output_inception_4c/output_0_split_0
I0403 15:51:49.852766 16134 net.cpp:399] inception_4d/1x1 -> inception_4d/1x1
I0403 15:51:49.854152 16134 net.cpp:141] Setting up inception_4d/1x1
I0403 15:51:49.854181 16134 net.cpp:148] Top shape: 24 112 14 14 (526848)
I0403 15:51:49.854195 16134 net.cpp:156] Memory required for data: 1113290016
I0403 15:51:49.854212 16134 layer_factory.hpp:77] Creating layer inception_4d/relu_1x1
I0403 15:51:49.854233 16134 net.cpp:91] Creating Layer inception_4d/relu_1x1
I0403 15:51:49.854248 16134 net.cpp:425] inception_4d/relu_1x1 <- inception_4d/1x1
I0403 15:51:49.854266 16134 net.cpp:386] inception_4d/relu_1x1 -> inception_4d/1x1 (in-place)
I0403 15:51:49.854452 16134 net.cpp:141] Setting up inception_4d/relu_1x1
I0403 15:51:49.854476 16134 net.cpp:148] Top shape: 24 112 14 14 (526848)
I0403 15:51:49.854490 16134 net.cpp:156] Memory required for data: 1115397408
I0403 15:51:49.854504 16134 layer_factory.hpp:77] Creating layer inception_4d/3x3_reduce
I0403 15:51:49.854539 16134 net.cpp:91] Creating Layer inception_4d/3x3_reduce
I0403 15:51:49.854557 16134 net.cpp:425] inception_4d/3x3_reduce <- inception_4c/output_inception_4c/output_0_split_1
I0403 15:51:49.854590 16134 net.cpp:399] inception_4d/3x3_reduce -> inception_4d/3x3_reduce
I0403 15:51:49.856118 16134 net.cpp:141] Setting up inception_4d/3x3_reduce
I0403 15:51:49.856148 16134 net.cpp:148] Top shape: 24 144 14 14 (677376)
I0403 15:51:49.856163 16134 net.cpp:156] Memory required for data: 1118106912
I0403 15:51:49.856180 16134 layer_factory.hpp:77] Creating layer inception_4d/relu_3x3_reduce
I0403 15:51:49.856197 16134 net.cpp:91] Creating Layer inception_4d/relu_3x3_reduce
I0403 15:51:49.856212 16134 net.cpp:425] inception_4d/relu_3x3_reduce <- inception_4d/3x3_reduce
I0403 15:51:49.856231 16134 net.cpp:386] inception_4d/relu_3x3_reduce -> inception_4d/3x3_reduce (in-place)
I0403 15:51:49.856533 16134 net.cpp:141] Setting up inception_4d/relu_3x3_reduce
I0403 15:51:49.856559 16134 net.cpp:148] Top shape: 24 144 14 14 (677376)
I0403 15:51:49.856577 16134 net.cpp:156] Memory required for data: 1120816416
I0403 15:51:49.856593 16134 layer_factory.hpp:77] Creating layer inception_4d/3x3
I0403 15:51:49.856616 16134 net.cpp:91] Creating Layer inception_4d/3x3
I0403 15:51:49.856632 16134 net.cpp:425] inception_4d/3x3 <- inception_4d/3x3_reduce
I0403 15:51:49.856652 16134 net.cpp:399] inception_4d/3x3 -> inception_4d/3x3
I0403 15:51:49.860899 16134 net.cpp:141] Setting up inception_4d/3x3
I0403 15:51:49.860927 16134 net.cpp:148] Top shape: 24 288 14 14 (1354752)
I0403 15:51:49.860942 16134 net.cpp:156] Memory required for data: 1126235424
I0403 15:51:49.860960 16134 layer_factory.hpp:77] Creating layer inception_4d/relu_3x3
I0403 15:51:49.860978 16134 net.cpp:91] Creating Layer inception_4d/relu_3x3
I0403 15:51:49.860994 16134 net.cpp:425] inception_4d/relu_3x3 <- inception_4d/3x3
I0403 15:51:49.861011 16134 net.cpp:386] inception_4d/relu_3x3 -> inception_4d/3x3 (in-place)
I0403 15:51:49.861189 16134 net.cpp:141] Setting up inception_4d/relu_3x3
I0403 15:51:49.861213 16134 net.cpp:148] Top shape: 24 288 14 14 (1354752)
I0403 15:51:49.861227 16134 net.cpp:156] Memory required for data: 1131654432
I0403 15:51:49.861253 16134 layer_factory.hpp:77] Creating layer inception_4d/5x5_reduce
I0403 15:51:49.861275 16134 net.cpp:91] Creating Layer inception_4d/5x5_reduce
I0403 15:51:49.861292 16134 net.cpp:425] inception_4d/5x5_reduce <- inception_4c/output_inception_4c/output_0_split_2
I0403 15:51:49.861312 16134 net.cpp:399] inception_4d/5x5_reduce -> inception_4d/5x5_reduce
I0403 15:51:49.862459 16134 net.cpp:141] Setting up inception_4d/5x5_reduce
I0403 15:51:49.862488 16134 net.cpp:148] Top shape: 24 32 14 14 (150528)
I0403 15:51:49.862501 16134 net.cpp:156] Memory required for data: 1132256544
I0403 15:51:49.862519 16134 layer_factory.hpp:77] Creating layer inception_4d/relu_5x5_reduce
I0403 15:51:49.862537 16134 net.cpp:91] Creating Layer inception_4d/relu_5x5_reduce
I0403 15:51:49.862553 16134 net.cpp:425] inception_4d/relu_5x5_reduce <- inception_4d/5x5_reduce
I0403 15:51:49.862573 16134 net.cpp:386] inception_4d/relu_5x5_reduce -> inception_4d/5x5_reduce (in-place)
I0403 15:51:49.862758 16134 net.cpp:141] Setting up inception_4d/relu_5x5_reduce
I0403 15:51:49.862782 16134 net.cpp:148] Top shape: 24 32 14 14 (150528)
I0403 15:51:49.862795 16134 net.cpp:156] Memory required for data: 1132858656
I0403 15:51:49.862809 16134 layer_factory.hpp:77] Creating layer inception_4d/5x5
I0403 15:51:49.862831 16134 net.cpp:91] Creating Layer inception_4d/5x5
I0403 15:51:49.862848 16134 net.cpp:425] inception_4d/5x5 <- inception_4d/5x5_reduce
I0403 15:51:49.862866 16134 net.cpp:399] inception_4d/5x5 -> inception_4d/5x5
I0403 15:51:49.864300 16134 net.cpp:141] Setting up inception_4d/5x5
I0403 15:51:49.864326 16134 net.cpp:148] Top shape: 24 64 14 14 (301056)
I0403 15:51:49.864341 16134 net.cpp:156] Memory required for data: 1134062880
I0403 15:51:49.864359 16134 layer_factory.hpp:77] Creating layer inception_4d/relu_5x5
I0403 15:51:49.864392 16134 net.cpp:91] Creating Layer inception_4d/relu_5x5
I0403 15:51:49.864409 16134 net.cpp:425] inception_4d/relu_5x5 <- inception_4d/5x5
I0403 15:51:49.864426 16134 net.cpp:386] inception_4d/relu_5x5 -> inception_4d/5x5 (in-place)
I0403 15:51:49.864727 16134 net.cpp:141] Setting up inception_4d/relu_5x5
I0403 15:51:49.864753 16134 net.cpp:148] Top shape: 24 64 14 14 (301056)
I0403 15:51:49.864768 16134 net.cpp:156] Memory required for data: 1135267104
I0403 15:51:49.864781 16134 layer_factory.hpp:77] Creating layer inception_4d/pool
I0403 15:51:49.864799 16134 net.cpp:91] Creating Layer inception_4d/pool
I0403 15:51:49.864815 16134 net.cpp:425] inception_4d/pool <- inception_4c/output_inception_4c/output_0_split_3
I0403 15:51:49.864832 16134 net.cpp:399] inception_4d/pool -> inception_4d/pool
I0403 15:51:49.864899 16134 net.cpp:141] Setting up inception_4d/pool
I0403 15:51:49.864923 16134 net.cpp:148] Top shape: 24 512 14 14 (2408448)
I0403 15:51:49.864936 16134 net.cpp:156] Memory required for data: 1144900896
I0403 15:51:49.864949 16134 layer_factory.hpp:77] Creating layer inception_4d/pool_proj
I0403 15:51:49.864970 16134 net.cpp:91] Creating Layer inception_4d/pool_proj
I0403 15:51:49.864987 16134 net.cpp:425] inception_4d/pool_proj <- inception_4d/pool
I0403 15:51:49.865006 16134 net.cpp:399] inception_4d/pool_proj -> inception_4d/pool_proj
I0403 15:51:49.866734 16134 net.cpp:141] Setting up inception_4d/pool_proj
I0403 15:51:49.866763 16134 net.cpp:148] Top shape: 24 64 14 14 (301056)
I0403 15:51:49.866778 16134 net.cpp:156] Memory required for data: 1146105120
I0403 15:51:49.866796 16134 layer_factory.hpp:77] Creating layer inception_4d/relu_pool_proj
I0403 15:51:49.866814 16134 net.cpp:91] Creating Layer inception_4d/relu_pool_proj
I0403 15:51:49.866830 16134 net.cpp:425] inception_4d/relu_pool_proj <- inception_4d/pool_proj
I0403 15:51:49.866847 16134 net.cpp:386] inception_4d/relu_pool_proj -> inception_4d/pool_proj (in-place)
I0403 15:51:49.867027 16134 net.cpp:141] Setting up inception_4d/relu_pool_proj
I0403 15:51:49.867050 16134 net.cpp:148] Top shape: 24 64 14 14 (301056)
I0403 15:51:49.867068 16134 net.cpp:156] Memory required for data: 1147309344
I0403 15:51:49.867080 16134 layer_factory.hpp:77] Creating layer inception_4d/output
I0403 15:51:49.867096 16134 net.cpp:91] Creating Layer inception_4d/output
I0403 15:51:49.867111 16134 net.cpp:425] inception_4d/output <- inception_4d/1x1
I0403 15:51:49.867126 16134 net.cpp:425] inception_4d/output <- inception_4d/3x3
I0403 15:51:49.867141 16134 net.cpp:425] inception_4d/output <- inception_4d/5x5
I0403 15:51:49.867156 16134 net.cpp:425] inception_4d/output <- inception_4d/pool_proj
I0403 15:51:49.867172 16134 net.cpp:399] inception_4d/output -> inception_4d/output
I0403 15:51:49.867219 16134 net.cpp:141] Setting up inception_4d/output
I0403 15:51:49.867243 16134 net.cpp:148] Top shape: 24 528 14 14 (2483712)
I0403 15:51:49.867255 16134 net.cpp:156] Memory required for data: 1157244192
I0403 15:51:49.867269 16134 layer_factory.hpp:77] Creating layer inception_4d/output_inception_4d/output_0_split
I0403 15:51:49.867285 16134 net.cpp:91] Creating Layer inception_4d/output_inception_4d/output_0_split
I0403 15:51:49.867300 16134 net.cpp:425] inception_4d/output_inception_4d/output_0_split <- inception_4d/output
I0403 15:51:49.867319 16134 net.cpp:399] inception_4d/output_inception_4d/output_0_split -> inception_4d/output_inception_4d/output_0_split_0
I0403 15:51:49.867339 16134 net.cpp:399] inception_4d/output_inception_4d/output_0_split -> inception_4d/output_inception_4d/output_0_split_1
I0403 15:51:49.867358 16134 net.cpp:399] inception_4d/output_inception_4d/output_0_split -> inception_4d/output_inception_4d/output_0_split_2
I0403 15:51:49.867378 16134 net.cpp:399] inception_4d/output_inception_4d/output_0_split -> inception_4d/output_inception_4d/output_0_split_3
I0403 15:51:49.867396 16134 net.cpp:399] inception_4d/output_inception_4d/output_0_split -> inception_4d/output_inception_4d/output_0_split_4
I0403 15:51:49.867499 16134 net.cpp:141] Setting up inception_4d/output_inception_4d/output_0_split
I0403 15:51:49.867533 16134 net.cpp:148] Top shape: 24 528 14 14 (2483712)
I0403 15:51:49.867549 16134 net.cpp:148] Top shape: 24 528 14 14 (2483712)
I0403 15:51:49.867563 16134 net.cpp:148] Top shape: 24 528 14 14 (2483712)
I0403 15:51:49.867583 16134 net.cpp:148] Top shape: 24 528 14 14 (2483712)
I0403 15:51:49.867597 16134 net.cpp:148] Top shape: 24 528 14 14 (2483712)
I0403 15:51:49.867610 16134 net.cpp:156] Memory required for data: 1206918432
I0403 15:51:49.867624 16134 layer_factory.hpp:77] Creating layer loss2/ave_pool
I0403 15:51:49.867640 16134 net.cpp:91] Creating Layer loss2/ave_pool
I0403 15:51:49.867655 16134 net.cpp:425] loss2/ave_pool <- inception_4d/output_inception_4d/output_0_split_0
I0403 15:51:49.867673 16134 net.cpp:399] loss2/ave_pool -> loss2/ave_pool
I0403 15:51:49.867979 16134 net.cpp:141] Setting up loss2/ave_pool
I0403 15:51:49.868005 16134 net.cpp:148] Top shape: 24 528 4 4 (202752)
I0403 15:51:49.868018 16134 net.cpp:156] Memory required for data: 1207729440
I0403 15:51:49.868031 16134 layer_factory.hpp:77] Creating layer loss2/conv
I0403 15:51:49.868052 16134 net.cpp:91] Creating Layer loss2/conv
I0403 15:51:49.868069 16134 net.cpp:425] loss2/conv <- loss2/ave_pool
I0403 15:51:49.868088 16134 net.cpp:399] loss2/conv -> loss2/conv
I0403 15:51:49.869948 16134 net.cpp:141] Setting up loss2/conv
I0403 15:51:49.869978 16134 net.cpp:148] Top shape: 24 128 4 4 (49152)
I0403 15:51:49.869994 16134 net.cpp:156] Memory required for data: 1207926048
I0403 15:51:49.870012 16134 layer_factory.hpp:77] Creating layer loss2/relu_conv
I0403 15:51:49.870029 16134 net.cpp:91] Creating Layer loss2/relu_conv
I0403 15:51:49.870044 16134 net.cpp:425] loss2/relu_conv <- loss2/conv
I0403 15:51:49.870060 16134 net.cpp:386] loss2/relu_conv -> loss2/conv (in-place)
I0403 15:51:49.870345 16134 net.cpp:141] Setting up loss2/relu_conv
I0403 15:51:49.870373 16134 net.cpp:148] Top shape: 24 128 4 4 (49152)
I0403 15:51:49.870388 16134 net.cpp:156] Memory required for data: 1208122656
I0403 15:51:49.870403 16134 layer_factory.hpp:77] Creating layer loss2/fc
I0403 15:51:49.870420 16134 net.cpp:91] Creating Layer loss2/fc
I0403 15:51:49.870434 16134 net.cpp:425] loss2/fc <- loss2/conv
I0403 15:51:49.870455 16134 net.cpp:399] loss2/fc -> loss2/fc
I0403 15:51:49.888121 16134 net.cpp:141] Setting up loss2/fc
I0403 15:51:49.888159 16134 net.cpp:148] Top shape: 24 1024 (24576)
I0403 15:51:49.888173 16134 net.cpp:156] Memory required for data: 1208220960
I0403 15:51:49.888192 16134 layer_factory.hpp:77] Creating layer loss2/relu_fc
I0403 15:51:49.888216 16134 net.cpp:91] Creating Layer loss2/relu_fc
I0403 15:51:49.888233 16134 net.cpp:425] loss2/relu_fc <- loss2/fc
I0403 15:51:49.888252 16134 net.cpp:386] loss2/relu_fc -> loss2/fc (in-place)
I0403 15:51:49.888696 16134 net.cpp:141] Setting up loss2/relu_fc
I0403 15:51:49.888722 16134 net.cpp:148] Top shape: 24 1024 (24576)
I0403 15:51:49.888737 16134 net.cpp:156] Memory required for data: 1208319264
I0403 15:51:49.888751 16134 layer_factory.hpp:77] Creating layer loss2/drop_fc
I0403 15:51:49.888772 16134 net.cpp:91] Creating Layer loss2/drop_fc
I0403 15:51:49.888787 16134 net.cpp:425] loss2/drop_fc <- loss2/fc
I0403 15:51:49.888804 16134 net.cpp:386] loss2/drop_fc -> loss2/fc (in-place)
I0403 15:51:49.888854 16134 net.cpp:141] Setting up loss2/drop_fc
I0403 15:51:49.888878 16134 net.cpp:148] Top shape: 24 1024 (24576)
I0403 15:51:49.888893 16134 net.cpp:156] Memory required for data: 1208417568
I0403 15:51:49.888907 16134 layer_factory.hpp:77] Creating layer loss2/classifier_plantvillage
I0403 15:51:49.888926 16134 net.cpp:91] Creating Layer loss2/classifier_plantvillage
I0403 15:51:49.888941 16134 net.cpp:425] loss2/classifier_plantvillage <- loss2/fc
I0403 15:51:49.888959 16134 net.cpp:399] loss2/classifier_plantvillage -> loss2/classifier_plantvillage
I0403 15:51:49.889374 16134 net.cpp:141] Setting up loss2/classifier_plantvillage
I0403 15:51:49.889399 16134 net.cpp:148] Top shape: 24 38 (912)
I0403 15:51:49.889437 16134 net.cpp:156] Memory required for data: 1208421216
I0403 15:51:49.889456 16134 layer_factory.hpp:77] Creating layer loss2/classifier_plantvillage_loss2/classifier_plantvillage_0_split
I0403 15:51:49.889473 16134 net.cpp:91] Creating Layer loss2/classifier_plantvillage_loss2/classifier_plantvillage_0_split
I0403 15:51:49.889489 16134 net.cpp:425] loss2/classifier_plantvillage_loss2/classifier_plantvillage_0_split <- loss2/classifier_plantvillage
I0403 15:51:49.889506 16134 net.cpp:399] loss2/classifier_plantvillage_loss2/classifier_plantvillage_0_split -> loss2/classifier_plantvillage_loss2/classifier_plantvillage_0_split_0
I0403 15:51:49.889528 16134 net.cpp:399] loss2/classifier_plantvillage_loss2/classifier_plantvillage_0_split -> loss2/classifier_plantvillage_loss2/classifier_plantvillage_0_split_1
I0403 15:51:49.889550 16134 net.cpp:399] loss2/classifier_plantvillage_loss2/classifier_plantvillage_0_split -> loss2/classifier_plantvillage_loss2/classifier_plantvillage_0_split_2
I0403 15:51:49.889632 16134 net.cpp:141] Setting up loss2/classifier_plantvillage_loss2/classifier_plantvillage_0_split
I0403 15:51:49.889657 16134 net.cpp:148] Top shape: 24 38 (912)
I0403 15:51:49.889674 16134 net.cpp:148] Top shape: 24 38 (912)
I0403 15:51:49.889690 16134 net.cpp:148] Top shape: 24 38 (912)
I0403 15:51:49.889703 16134 net.cpp:156] Memory required for data: 1208432160
I0403 15:51:49.889717 16134 layer_factory.hpp:77] Creating layer inception_4e/1x1
I0403 15:51:49.889737 16134 net.cpp:91] Creating Layer inception_4e/1x1
I0403 15:51:49.889755 16134 net.cpp:425] inception_4e/1x1 <- inception_4d/output_inception_4d/output_0_split_1
I0403 15:51:49.889775 16134 net.cpp:399] inception_4e/1x1 -> inception_4e/1x1
I0403 15:51:49.891644 16134 net.cpp:141] Setting up inception_4e/1x1
I0403 15:51:49.891674 16134 net.cpp:148] Top shape: 24 256 14 14 (1204224)
I0403 15:51:49.891690 16134 net.cpp:156] Memory required for data: 1213249056
I0403 15:51:49.891710 16134 layer_factory.hpp:77] Creating layer inception_4e/relu_1x1
I0403 15:51:49.891727 16134 net.cpp:91] Creating Layer inception_4e/relu_1x1
I0403 15:51:49.891742 16134 net.cpp:425] inception_4e/relu_1x1 <- inception_4e/1x1
I0403 15:51:49.891760 16134 net.cpp:386] inception_4e/relu_1x1 -> inception_4e/1x1 (in-place)
I0403 15:51:49.892060 16134 net.cpp:141] Setting up inception_4e/relu_1x1
I0403 15:51:49.892088 16134 net.cpp:148] Top shape: 24 256 14 14 (1204224)
I0403 15:51:49.892104 16134 net.cpp:156] Memory required for data: 1218065952
I0403 15:51:49.892119 16134 layer_factory.hpp:77] Creating layer inception_4e/3x3_reduce
I0403 15:51:49.892140 16134 net.cpp:91] Creating Layer inception_4e/3x3_reduce
I0403 15:51:49.892158 16134 net.cpp:425] inception_4e/3x3_reduce <- inception_4d/output_inception_4d/output_0_split_2
I0403 15:51:49.892177 16134 net.cpp:399] inception_4e/3x3_reduce -> inception_4e/3x3_reduce
I0403 15:51:49.894412 16134 net.cpp:141] Setting up inception_4e/3x3_reduce
I0403 15:51:49.894441 16134 net.cpp:148] Top shape: 24 160 14 14 (752640)
I0403 15:51:49.894460 16134 net.cpp:156] Memory required for data: 1221076512
I0403 15:51:49.894479 16134 layer_factory.hpp:77] Creating layer inception_4e/relu_3x3_reduce
I0403 15:51:49.894497 16134 net.cpp:91] Creating Layer inception_4e/relu_3x3_reduce
I0403 15:51:49.894513 16134 net.cpp:425] inception_4e/relu_3x3_reduce <- inception_4e/3x3_reduce
I0403 15:51:49.894531 16134 net.cpp:386] inception_4e/relu_3x3_reduce -> inception_4e/3x3_reduce (in-place)
I0403 15:51:49.894737 16134 net.cpp:141] Setting up inception_4e/relu_3x3_reduce
I0403 15:51:49.894765 16134 net.cpp:148] Top shape: 24 160 14 14 (752640)
I0403 15:51:49.894781 16134 net.cpp:156] Memory required for data: 1224087072
I0403 15:51:49.894796 16134 layer_factory.hpp:77] Creating layer inception_4e/3x3
I0403 15:51:49.894819 16134 net.cpp:91] Creating Layer inception_4e/3x3
I0403 15:51:49.894835 16134 net.cpp:425] inception_4e/3x3 <- inception_4e/3x3_reduce
I0403 15:51:49.894853 16134 net.cpp:399] inception_4e/3x3 -> inception_4e/3x3
I0403 15:51:49.900099 16134 net.cpp:141] Setting up inception_4e/3x3
I0403 15:51:49.900146 16134 net.cpp:148] Top shape: 24 320 14 14 (1505280)
I0403 15:51:49.900164 16134 net.cpp:156] Memory required for data: 1230108192
I0403 15:51:49.900182 16134 layer_factory.hpp:77] Creating layer inception_4e/relu_3x3
I0403 15:51:49.900200 16134 net.cpp:91] Creating Layer inception_4e/relu_3x3
I0403 15:51:49.900216 16134 net.cpp:425] inception_4e/relu_3x3 <- inception_4e/3x3
I0403 15:51:49.900236 16134 net.cpp:386] inception_4e/relu_3x3 -> inception_4e/3x3 (in-place)
I0403 15:51:49.900548 16134 net.cpp:141] Setting up inception_4e/relu_3x3
I0403 15:51:49.900579 16134 net.cpp:148] Top shape: 24 320 14 14 (1505280)
I0403 15:51:49.900596 16134 net.cpp:156] Memory required for data: 1236129312
I0403 15:51:49.900610 16134 layer_factory.hpp:77] Creating layer inception_4e/5x5_reduce
I0403 15:51:49.900635 16134 net.cpp:91] Creating Layer inception_4e/5x5_reduce
I0403 15:51:49.900652 16134 net.cpp:425] inception_4e/5x5_reduce <- inception_4d/output_inception_4d/output_0_split_3
I0403 15:51:49.900674 16134 net.cpp:399] inception_4e/5x5_reduce -> inception_4e/5x5_reduce
I0403 15:51:49.901798 16134 net.cpp:141] Setting up inception_4e/5x5_reduce
I0403 15:51:49.901828 16134 net.cpp:148] Top shape: 24 32 14 14 (150528)
I0403 15:51:49.901844 16134 net.cpp:156] Memory required for data: 1236731424
I0403 15:51:49.901861 16134 layer_factory.hpp:77] Creating layer inception_4e/relu_5x5_reduce
I0403 15:51:49.901882 16134 net.cpp:91] Creating Layer inception_4e/relu_5x5_reduce
I0403 15:51:49.901900 16134 net.cpp:425] inception_4e/relu_5x5_reduce <- inception_4e/5x5_reduce
I0403 15:51:49.901916 16134 net.cpp:386] inception_4e/relu_5x5_reduce -> inception_4e/5x5_reduce (in-place)
I0403 15:51:49.902230 16134 net.cpp:141] Setting up inception_4e/relu_5x5_reduce
I0403 15:51:49.902257 16134 net.cpp:148] Top shape: 24 32 14 14 (150528)
I0403 15:51:49.902271 16134 net.cpp:156] Memory required for data: 1237333536
I0403 15:51:49.902287 16134 layer_factory.hpp:77] Creating layer inception_4e/5x5
I0403 15:51:49.902328 16134 net.cpp:91] Creating Layer inception_4e/5x5
I0403 15:51:49.902348 16134 net.cpp:425] inception_4e/5x5 <- inception_4e/5x5_reduce
I0403 15:51:49.902369 16134 net.cpp:399] inception_4e/5x5 -> inception_4e/5x5
I0403 15:51:49.904296 16134 net.cpp:141] Setting up inception_4e/5x5
I0403 15:51:49.904325 16134 net.cpp:148] Top shape: 24 128 14 14 (602112)
I0403 15:51:49.904348 16134 net.cpp:156] Memory required for data: 1239741984
I0403 15:51:49.904367 16134 layer_factory.hpp:77] Creating layer inception_4e/relu_5x5
I0403 15:51:49.904388 16134 net.cpp:91] Creating Layer inception_4e/relu_5x5
I0403 15:51:49.904405 16134 net.cpp:425] inception_4e/relu_5x5 <- inception_4e/5x5
I0403 15:51:49.904422 16134 net.cpp:386] inception_4e/relu_5x5 -> inception_4e/5x5 (in-place)
I0403 15:51:49.904639 16134 net.cpp:141] Setting up inception_4e/relu_5x5
I0403 15:51:49.904667 16134 net.cpp:148] Top shape: 24 128 14 14 (602112)
I0403 15:51:49.904683 16134 net.cpp:156] Memory required for data: 1242150432
I0403 15:51:49.904698 16134 layer_factory.hpp:77] Creating layer inception_4e/pool
I0403 15:51:49.904716 16134 net.cpp:91] Creating Layer inception_4e/pool
I0403 15:51:49.904732 16134 net.cpp:425] inception_4e/pool <- inception_4d/output_inception_4d/output_0_split_4
I0403 15:51:49.904750 16134 net.cpp:399] inception_4e/pool -> inception_4e/pool
I0403 15:51:49.904826 16134 net.cpp:141] Setting up inception_4e/pool
I0403 15:51:49.904851 16134 net.cpp:148] Top shape: 24 528 14 14 (2483712)
I0403 15:51:49.904865 16134 net.cpp:156] Memory required for data: 1252085280
I0403 15:51:49.904880 16134 layer_factory.hpp:77] Creating layer inception_4e/pool_proj
I0403 15:51:49.904901 16134 net.cpp:91] Creating Layer inception_4e/pool_proj
I0403 15:51:49.904919 16134 net.cpp:425] inception_4e/pool_proj <- inception_4e/pool
I0403 15:51:49.904939 16134 net.cpp:399] inception_4e/pool_proj -> inception_4e/pool_proj
I0403 15:51:49.906499 16134 net.cpp:141] Setting up inception_4e/pool_proj
I0403 15:51:49.906539 16134 net.cpp:148] Top shape: 24 128 14 14 (602112)
I0403 15:51:49.906555 16134 net.cpp:156] Memory required for data: 1254493728
I0403 15:51:49.906577 16134 layer_factory.hpp:77] Creating layer inception_4e/relu_pool_proj
I0403 15:51:49.906604 16134 net.cpp:91] Creating Layer inception_4e/relu_pool_proj
I0403 15:51:49.906620 16134 net.cpp:425] inception_4e/relu_pool_proj <- inception_4e/pool_proj
I0403 15:51:49.906637 16134 net.cpp:386] inception_4e/relu_pool_proj -> inception_4e/pool_proj (in-place)
I0403 15:51:49.906940 16134 net.cpp:141] Setting up inception_4e/relu_pool_proj
I0403 15:51:49.906966 16134 net.cpp:148] Top shape: 24 128 14 14 (602112)
I0403 15:51:49.906981 16134 net.cpp:156] Memory required for data: 1256902176
I0403 15:51:49.906996 16134 layer_factory.hpp:77] Creating layer inception_4e/output
I0403 15:51:49.907013 16134 net.cpp:91] Creating Layer inception_4e/output
I0403 15:51:49.907028 16134 net.cpp:425] inception_4e/output <- inception_4e/1x1
I0403 15:51:49.907044 16134 net.cpp:425] inception_4e/output <- inception_4e/3x3
I0403 15:51:49.907060 16134 net.cpp:425] inception_4e/output <- inception_4e/5x5
I0403 15:51:49.907076 16134 net.cpp:425] inception_4e/output <- inception_4e/pool_proj
I0403 15:51:49.907095 16134 net.cpp:399] inception_4e/output -> inception_4e/output
I0403 15:51:49.907150 16134 net.cpp:141] Setting up inception_4e/output
I0403 15:51:49.907174 16134 net.cpp:148] Top shape: 24 832 14 14 (3913728)
I0403 15:51:49.907189 16134 net.cpp:156] Memory required for data: 1272557088
I0403 15:51:49.907203 16134 layer_factory.hpp:77] Creating layer pool4/3x3_s2
I0403 15:51:49.907220 16134 net.cpp:91] Creating Layer pool4/3x3_s2
I0403 15:51:49.907235 16134 net.cpp:425] pool4/3x3_s2 <- inception_4e/output
I0403 15:51:49.907256 16134 net.cpp:399] pool4/3x3_s2 -> pool4/3x3_s2
I0403 15:51:49.907327 16134 net.cpp:141] Setting up pool4/3x3_s2
I0403 15:51:49.907351 16134 net.cpp:148] Top shape: 24 832 7 7 (978432)
I0403 15:51:49.907366 16134 net.cpp:156] Memory required for data: 1276470816
I0403 15:51:49.907379 16134 layer_factory.hpp:77] Creating layer pool4/3x3_s2_pool4/3x3_s2_0_split
I0403 15:51:49.907398 16134 net.cpp:91] Creating Layer pool4/3x3_s2_pool4/3x3_s2_0_split
I0403 15:51:49.907415 16134 net.cpp:425] pool4/3x3_s2_pool4/3x3_s2_0_split <- pool4/3x3_s2
I0403 15:51:49.907433 16134 net.cpp:399] pool4/3x3_s2_pool4/3x3_s2_0_split -> pool4/3x3_s2_pool4/3x3_s2_0_split_0
I0403 15:51:49.907452 16134 net.cpp:399] pool4/3x3_s2_pool4/3x3_s2_0_split -> pool4/3x3_s2_pool4/3x3_s2_0_split_1
I0403 15:51:49.907476 16134 net.cpp:399] pool4/3x3_s2_pool4/3x3_s2_0_split -> pool4/3x3_s2_pool4/3x3_s2_0_split_2
I0403 15:51:49.907496 16134 net.cpp:399] pool4/3x3_s2_pool4/3x3_s2_0_split -> pool4/3x3_s2_pool4/3x3_s2_0_split_3
I0403 15:51:49.907595 16134 net.cpp:141] Setting up pool4/3x3_s2_pool4/3x3_s2_0_split
I0403 15:51:49.907619 16134 net.cpp:148] Top shape: 24 832 7 7 (978432)
I0403 15:51:49.907635 16134 net.cpp:148] Top shape: 24 832 7 7 (978432)
I0403 15:51:49.907650 16134 net.cpp:148] Top shape: 24 832 7 7 (978432)
I0403 15:51:49.907665 16134 net.cpp:148] Top shape: 24 832 7 7 (978432)
I0403 15:51:49.907678 16134 net.cpp:156] Memory required for data: 1292125728
I0403 15:51:49.907693 16134 layer_factory.hpp:77] Creating layer inception_5a/1x1
I0403 15:51:49.907716 16134 net.cpp:91] Creating Layer inception_5a/1x1
I0403 15:51:49.907732 16134 net.cpp:425] inception_5a/1x1 <- pool4/3x3_s2_pool4/3x3_s2_0_split_0
I0403 15:51:49.907753 16134 net.cpp:399] inception_5a/1x1 -> inception_5a/1x1
I0403 15:51:49.910722 16134 net.cpp:141] Setting up inception_5a/1x1
I0403 15:51:49.910751 16134 net.cpp:148] Top shape: 24 256 7 7 (301056)
I0403 15:51:49.910768 16134 net.cpp:156] Memory required for data: 1293329952
I0403 15:51:49.910785 16134 layer_factory.hpp:77] Creating layer inception_5a/relu_1x1
I0403 15:51:49.910806 16134 net.cpp:91] Creating Layer inception_5a/relu_1x1
I0403 15:51:49.910835 16134 net.cpp:425] inception_5a/relu_1x1 <- inception_5a/1x1
I0403 15:51:49.910852 16134 net.cpp:386] inception_5a/relu_1x1 -> inception_5a/1x1 (in-place)
I0403 15:51:49.911167 16134 net.cpp:141] Setting up inception_5a/relu_1x1
I0403 15:51:49.911193 16134 net.cpp:148] Top shape: 24 256 7 7 (301056)
I0403 15:51:49.911207 16134 net.cpp:156] Memory required for data: 1294534176
I0403 15:51:49.911221 16134 layer_factory.hpp:77] Creating layer inception_5a/3x3_reduce
I0403 15:51:49.911245 16134 net.cpp:91] Creating Layer inception_5a/3x3_reduce
I0403 15:51:49.911263 16134 net.cpp:425] inception_5a/3x3_reduce <- pool4/3x3_s2_pool4/3x3_s2_0_split_1
I0403 15:51:49.911283 16134 net.cpp:399] inception_5a/3x3_reduce -> inception_5a/3x3_reduce
I0403 15:51:49.913800 16134 net.cpp:141] Setting up inception_5a/3x3_reduce
I0403 15:51:49.913830 16134 net.cpp:148] Top shape: 24 160 7 7 (188160)
I0403 15:51:49.913846 16134 net.cpp:156] Memory required for data: 1295286816
I0403 15:51:49.913863 16134 layer_factory.hpp:77] Creating layer inception_5a/relu_3x3_reduce
I0403 15:51:49.913880 16134 net.cpp:91] Creating Layer inception_5a/relu_3x3_reduce
I0403 15:51:49.913897 16134 net.cpp:425] inception_5a/relu_3x3_reduce <- inception_5a/3x3_reduce
I0403 15:51:49.913915 16134 net.cpp:386] inception_5a/relu_3x3_reduce -> inception_5a/3x3_reduce (in-place)
I0403 15:51:49.914103 16134 net.cpp:141] Setting up inception_5a/relu_3x3_reduce
I0403 15:51:49.914129 16134 net.cpp:148] Top shape: 24 160 7 7 (188160)
I0403 15:51:49.914142 16134 net.cpp:156] Memory required for data: 1296039456
I0403 15:51:49.914156 16134 layer_factory.hpp:77] Creating layer inception_5a/3x3
I0403 15:51:49.914178 16134 net.cpp:91] Creating Layer inception_5a/3x3
I0403 15:51:49.914196 16134 net.cpp:425] inception_5a/3x3 <- inception_5a/3x3_reduce
I0403 15:51:49.914216 16134 net.cpp:399] inception_5a/3x3 -> inception_5a/3x3
I0403 15:51:49.919253 16134 net.cpp:141] Setting up inception_5a/3x3
I0403 15:51:49.919283 16134 net.cpp:148] Top shape: 24 320 7 7 (376320)
I0403 15:51:49.919299 16134 net.cpp:156] Memory required for data: 1297544736
I0403 15:51:49.919317 16134 layer_factory.hpp:77] Creating layer inception_5a/relu_3x3
I0403 15:51:49.919337 16134 net.cpp:91] Creating Layer inception_5a/relu_3x3
I0403 15:51:49.919353 16134 net.cpp:425] inception_5a/relu_3x3 <- inception_5a/3x3
I0403 15:51:49.919369 16134 net.cpp:386] inception_5a/relu_3x3 -> inception_5a/3x3 (in-place)
I0403 15:51:49.919661 16134 net.cpp:141] Setting up inception_5a/relu_3x3
I0403 15:51:49.919687 16134 net.cpp:148] Top shape: 24 320 7 7 (376320)
I0403 15:51:49.919700 16134 net.cpp:156] Memory required for data: 1299050016
I0403 15:51:49.919714 16134 layer_factory.hpp:77] Creating layer inception_5a/5x5_reduce
I0403 15:51:49.919735 16134 net.cpp:91] Creating Layer inception_5a/5x5_reduce
I0403 15:51:49.919751 16134 net.cpp:425] inception_5a/5x5_reduce <- pool4/3x3_s2_pool4/3x3_s2_0_split_2
I0403 15:51:49.919772 16134 net.cpp:399] inception_5a/5x5_reduce -> inception_5a/5x5_reduce
I0403 15:51:49.920917 16134 net.cpp:141] Setting up inception_5a/5x5_reduce
I0403 15:51:49.920948 16134 net.cpp:148] Top shape: 24 32 7 7 (37632)
I0403 15:51:49.920963 16134 net.cpp:156] Memory required for data: 1299200544
I0403 15:51:49.920980 16134 layer_factory.hpp:77] Creating layer inception_5a/relu_5x5_reduce
I0403 15:51:49.920996 16134 net.cpp:91] Creating Layer inception_5a/relu_5x5_reduce
I0403 15:51:49.921012 16134 net.cpp:425] inception_5a/relu_5x5_reduce <- inception_5a/5x5_reduce
I0403 15:51:49.921027 16134 net.cpp:386] inception_5a/relu_5x5_reduce -> inception_5a/5x5_reduce (in-place)
I0403 15:51:49.921326 16134 net.cpp:141] Setting up inception_5a/relu_5x5_reduce
I0403 15:51:49.921355 16134 net.cpp:148] Top shape: 24 32 7 7 (37632)
I0403 15:51:49.921370 16134 net.cpp:156] Memory required for data: 1299351072
I0403 15:51:49.921383 16134 layer_factory.hpp:77] Creating layer inception_5a/5x5
I0403 15:51:49.921404 16134 net.cpp:91] Creating Layer inception_5a/5x5
I0403 15:51:49.921422 16134 net.cpp:425] inception_5a/5x5 <- inception_5a/5x5_reduce
I0403 15:51:49.921439 16134 net.cpp:399] inception_5a/5x5 -> inception_5a/5x5
I0403 15:51:49.923126 16134 net.cpp:141] Setting up inception_5a/5x5
I0403 15:51:49.923164 16134 net.cpp:148] Top shape: 24 128 7 7 (150528)
I0403 15:51:49.923179 16134 net.cpp:156] Memory required for data: 1299953184
I0403 15:51:49.923197 16134 layer_factory.hpp:77] Creating layer inception_5a/relu_5x5
I0403 15:51:49.923215 16134 net.cpp:91] Creating Layer inception_5a/relu_5x5
I0403 15:51:49.923233 16134 net.cpp:425] inception_5a/relu_5x5 <- inception_5a/5x5
I0403 15:51:49.923249 16134 net.cpp:386] inception_5a/relu_5x5 -> inception_5a/5x5 (in-place)
I0403 15:51:49.923436 16134 net.cpp:141] Setting up inception_5a/relu_5x5
I0403 15:51:49.923461 16134 net.cpp:148] Top shape: 24 128 7 7 (150528)
I0403 15:51:49.923476 16134 net.cpp:156] Memory required for data: 1300555296
I0403 15:51:49.923491 16134 layer_factory.hpp:77] Creating layer inception_5a/pool
I0403 15:51:49.923506 16134 net.cpp:91] Creating Layer inception_5a/pool
I0403 15:51:49.923521 16134 net.cpp:425] inception_5a/pool <- pool4/3x3_s2_pool4/3x3_s2_0_split_3
I0403 15:51:49.923538 16134 net.cpp:399] inception_5a/pool -> inception_5a/pool
I0403 15:51:49.923612 16134 net.cpp:141] Setting up inception_5a/pool
I0403 15:51:49.923636 16134 net.cpp:148] Top shape: 24 832 7 7 (978432)
I0403 15:51:49.923650 16134 net.cpp:156] Memory required for data: 1304469024
I0403 15:51:49.923663 16134 layer_factory.hpp:77] Creating layer inception_5a/pool_proj
I0403 15:51:49.923683 16134 net.cpp:91] Creating Layer inception_5a/pool_proj
I0403 15:51:49.923701 16134 net.cpp:425] inception_5a/pool_proj <- inception_5a/pool
I0403 15:51:49.923720 16134 net.cpp:399] inception_5a/pool_proj -> inception_5a/pool_proj
I0403 15:51:49.926017 16134 net.cpp:141] Setting up inception_5a/pool_proj
I0403 15:51:49.926046 16134 net.cpp:148] Top shape: 24 128 7 7 (150528)
I0403 15:51:49.926061 16134 net.cpp:156] Memory required for data: 1305071136
I0403 15:51:49.926079 16134 layer_factory.hpp:77] Creating layer inception_5a/relu_pool_proj
I0403 15:51:49.926100 16134 net.cpp:91] Creating Layer inception_5a/relu_pool_proj
I0403 15:51:49.926115 16134 net.cpp:425] inception_5a/relu_pool_proj <- inception_5a/pool_proj
I0403 15:51:49.926132 16134 net.cpp:386] inception_5a/relu_pool_proj -> inception_5a/pool_proj (in-place)
I0403 15:51:49.926430 16134 net.cpp:141] Setting up inception_5a/relu_pool_proj
I0403 15:51:49.926456 16134 net.cpp:148] Top shape: 24 128 7 7 (150528)
I0403 15:51:49.926471 16134 net.cpp:156] Memory required for data: 1305673248
I0403 15:51:49.926486 16134 layer_factory.hpp:77] Creating layer inception_5a/output
I0403 15:51:49.926502 16134 net.cpp:91] Creating Layer inception_5a/output
I0403 15:51:49.926520 16134 net.cpp:425] inception_5a/output <- inception_5a/1x1
I0403 15:51:49.926537 16134 net.cpp:425] inception_5a/output <- inception_5a/3x3
I0403 15:51:49.926563 16134 net.cpp:425] inception_5a/output <- inception_5a/5x5
I0403 15:51:49.926583 16134 net.cpp:425] inception_5a/output <- inception_5a/pool_proj
I0403 15:51:49.926600 16134 net.cpp:399] inception_5a/output -> inception_5a/output
I0403 15:51:49.926647 16134 net.cpp:141] Setting up inception_5a/output
I0403 15:51:49.926671 16134 net.cpp:148] Top shape: 24 832 7 7 (978432)
I0403 15:51:49.926687 16134 net.cpp:156] Memory required for data: 1309586976
I0403 15:51:49.926700 16134 layer_factory.hpp:77] Creating layer inception_5a/output_inception_5a/output_0_split
I0403 15:51:49.926717 16134 net.cpp:91] Creating Layer inception_5a/output_inception_5a/output_0_split
I0403 15:51:49.926731 16134 net.cpp:425] inception_5a/output_inception_5a/output_0_split <- inception_5a/output
I0403 15:51:49.926749 16134 net.cpp:399] inception_5a/output_inception_5a/output_0_split -> inception_5a/output_inception_5a/output_0_split_0
I0403 15:51:49.926769 16134 net.cpp:399] inception_5a/output_inception_5a/output_0_split -> inception_5a/output_inception_5a/output_0_split_1
I0403 15:51:49.926789 16134 net.cpp:399] inception_5a/output_inception_5a/output_0_split -> inception_5a/output_inception_5a/output_0_split_2
I0403 15:51:49.926808 16134 net.cpp:399] inception_5a/output_inception_5a/output_0_split -> inception_5a/output_inception_5a/output_0_split_3
I0403 15:51:49.926918 16134 net.cpp:141] Setting up inception_5a/output_inception_5a/output_0_split
I0403 15:51:49.926944 16134 net.cpp:148] Top shape: 24 832 7 7 (978432)
I0403 15:51:49.926959 16134 net.cpp:148] Top shape: 24 832 7 7 (978432)
I0403 15:51:49.926973 16134 net.cpp:148] Top shape: 24 832 7 7 (978432)
I0403 15:51:49.926988 16134 net.cpp:148] Top shape: 24 832 7 7 (978432)
I0403 15:51:49.927000 16134 net.cpp:156] Memory required for data: 1325241888
I0403 15:51:49.927014 16134 layer_factory.hpp:77] Creating layer inception_5b/1x1
I0403 15:51:49.927034 16134 net.cpp:91] Creating Layer inception_5b/1x1
I0403 15:51:49.927052 16134 net.cpp:425] inception_5b/1x1 <- inception_5a/output_inception_5a/output_0_split_0
I0403 15:51:49.927069 16134 net.cpp:399] inception_5b/1x1 -> inception_5b/1x1
I0403 15:51:49.932410 16134 net.cpp:141] Setting up inception_5b/1x1
I0403 15:51:49.932440 16134 net.cpp:148] Top shape: 24 384 7 7 (451584)
I0403 15:51:49.932456 16134 net.cpp:156] Memory required for data: 1327048224
I0403 15:51:49.932473 16134 layer_factory.hpp:77] Creating layer inception_5b/relu_1x1
I0403 15:51:49.932492 16134 net.cpp:91] Creating Layer inception_5b/relu_1x1
I0403 15:51:49.932507 16134 net.cpp:425] inception_5b/relu_1x1 <- inception_5b/1x1
I0403 15:51:49.932538 16134 net.cpp:386] inception_5b/relu_1x1 -> inception_5b/1x1 (in-place)
I0403 15:51:49.932848 16134 net.cpp:141] Setting up inception_5b/relu_1x1
I0403 15:51:49.932873 16134 net.cpp:148] Top shape: 24 384 7 7 (451584)
I0403 15:51:49.932888 16134 net.cpp:156] Memory required for data: 1328854560
I0403 15:51:49.932903 16134 layer_factory.hpp:77] Creating layer inception_5b/3x3_reduce
I0403 15:51:49.932924 16134 net.cpp:91] Creating Layer inception_5b/3x3_reduce
I0403 15:51:49.932940 16134 net.cpp:425] inception_5b/3x3_reduce <- inception_5a/output_inception_5a/output_0_split_1
I0403 15:51:49.932961 16134 net.cpp:399] inception_5b/3x3_reduce -> inception_5b/3x3_reduce
I0403 15:51:49.935627 16134 net.cpp:141] Setting up inception_5b/3x3_reduce
I0403 15:51:49.935655 16134 net.cpp:148] Top shape: 24 192 7 7 (225792)
I0403 15:51:49.935672 16134 net.cpp:156] Memory required for data: 1329757728
I0403 15:51:49.935688 16134 layer_factory.hpp:77] Creating layer inception_5b/relu_3x3_reduce
I0403 15:51:49.935708 16134 net.cpp:91] Creating Layer inception_5b/relu_3x3_reduce
I0403 15:51:49.935724 16134 net.cpp:425] inception_5b/relu_3x3_reduce <- inception_5b/3x3_reduce
I0403 15:51:49.935739 16134 net.cpp:386] inception_5b/relu_3x3_reduce -> inception_5b/3x3_reduce (in-place)
I0403 15:51:49.935925 16134 net.cpp:141] Setting up inception_5b/relu_3x3_reduce
I0403 15:51:49.935950 16134 net.cpp:148] Top shape: 24 192 7 7 (225792)
I0403 15:51:49.935963 16134 net.cpp:156] Memory required for data: 1330660896
I0403 15:51:49.935976 16134 layer_factory.hpp:77] Creating layer inception_5b/3x3
I0403 15:51:49.936000 16134 net.cpp:91] Creating Layer inception_5b/3x3
I0403 15:51:49.936017 16134 net.cpp:425] inception_5b/3x3 <- inception_5b/3x3_reduce
I0403 15:51:49.936035 16134 net.cpp:399] inception_5b/3x3 -> inception_5b/3x3
I0403 15:51:49.942595 16134 net.cpp:141] Setting up inception_5b/3x3
I0403 15:51:49.942623 16134 net.cpp:148] Top shape: 24 384 7 7 (451584)
I0403 15:51:49.942639 16134 net.cpp:156] Memory required for data: 1332467232
I0403 15:51:49.942656 16134 layer_factory.hpp:77] Creating layer inception_5b/relu_3x3
I0403 15:51:49.942677 16134 net.cpp:91] Creating Layer inception_5b/relu_3x3
I0403 15:51:49.942692 16134 net.cpp:425] inception_5b/relu_3x3 <- inception_5b/3x3
I0403 15:51:49.942708 16134 net.cpp:386] inception_5b/relu_3x3 -> inception_5b/3x3 (in-place)
I0403 15:51:49.943003 16134 net.cpp:141] Setting up inception_5b/relu_3x3
I0403 15:51:49.943028 16134 net.cpp:148] Top shape: 24 384 7 7 (451584)
I0403 15:51:49.943042 16134 net.cpp:156] Memory required for data: 1334273568
I0403 15:51:49.943056 16134 layer_factory.hpp:77] Creating layer inception_5b/5x5_reduce
I0403 15:51:49.943092 16134 net.cpp:91] Creating Layer inception_5b/5x5_reduce
I0403 15:51:49.943110 16134 net.cpp:425] inception_5b/5x5_reduce <- inception_5a/output_inception_5a/output_0_split_2
I0403 15:51:49.943131 16134 net.cpp:399] inception_5b/5x5_reduce -> inception_5b/5x5_reduce
I0403 15:51:49.944386 16134 net.cpp:141] Setting up inception_5b/5x5_reduce
I0403 15:51:49.944413 16134 net.cpp:148] Top shape: 24 48 7 7 (56448)
I0403 15:51:49.944428 16134 net.cpp:156] Memory required for data: 1334499360
I0403 15:51:49.944445 16134 layer_factory.hpp:77] Creating layer inception_5b/relu_5x5_reduce
I0403 15:51:49.944464 16134 net.cpp:91] Creating Layer inception_5b/relu_5x5_reduce
I0403 15:51:49.944481 16134 net.cpp:425] inception_5b/relu_5x5_reduce <- inception_5b/5x5_reduce
I0403 15:51:49.944499 16134 net.cpp:386] inception_5b/relu_5x5_reduce -> inception_5b/5x5_reduce (in-place)
I0403 15:51:49.944876 16134 net.cpp:141] Setting up inception_5b/relu_5x5_reduce
I0403 15:51:49.944902 16134 net.cpp:148] Top shape: 24 48 7 7 (56448)
I0403 15:51:49.944916 16134 net.cpp:156] Memory required for data: 1334725152
I0403 15:51:49.944929 16134 layer_factory.hpp:77] Creating layer inception_5b/5x5
I0403 15:51:49.944948 16134 net.cpp:91] Creating Layer inception_5b/5x5
I0403 15:51:49.944964 16134 net.cpp:425] inception_5b/5x5 <- inception_5b/5x5_reduce
I0403 15:51:49.944983 16134 net.cpp:399] inception_5b/5x5 -> inception_5b/5x5
I0403 15:51:49.947012 16134 net.cpp:141] Setting up inception_5b/5x5
I0403 15:51:49.947038 16134 net.cpp:148] Top shape: 24 128 7 7 (150528)
I0403 15:51:49.947052 16134 net.cpp:156] Memory required for data: 1335327264
I0403 15:51:49.947070 16134 layer_factory.hpp:77] Creating layer inception_5b/relu_5x5
I0403 15:51:49.947089 16134 net.cpp:91] Creating Layer inception_5b/relu_5x5
I0403 15:51:49.947106 16134 net.cpp:425] inception_5b/relu_5x5 <- inception_5b/5x5
I0403 15:51:49.947123 16134 net.cpp:386] inception_5b/relu_5x5 -> inception_5b/5x5 (in-place)
I0403 15:51:49.947314 16134 net.cpp:141] Setting up inception_5b/relu_5x5
I0403 15:51:49.947341 16134 net.cpp:148] Top shape: 24 128 7 7 (150528)
I0403 15:51:49.947356 16134 net.cpp:156] Memory required for data: 1335929376
I0403 15:51:49.947370 16134 layer_factory.hpp:77] Creating layer inception_5b/pool
I0403 15:51:49.947387 16134 net.cpp:91] Creating Layer inception_5b/pool
I0403 15:51:49.947403 16134 net.cpp:425] inception_5b/pool <- inception_5a/output_inception_5a/output_0_split_3
I0403 15:51:49.947422 16134 net.cpp:399] inception_5b/pool -> inception_5b/pool
I0403 15:51:49.947494 16134 net.cpp:141] Setting up inception_5b/pool
I0403 15:51:49.947517 16134 net.cpp:148] Top shape: 24 832 7 7 (978432)
I0403 15:51:49.947530 16134 net.cpp:156] Memory required for data: 1339843104
I0403 15:51:49.947545 16134 layer_factory.hpp:77] Creating layer inception_5b/pool_proj
I0403 15:51:49.947566 16134 net.cpp:91] Creating Layer inception_5b/pool_proj
I0403 15:51:49.947587 16134 net.cpp:425] inception_5b/pool_proj <- inception_5b/pool
I0403 15:51:49.947607 16134 net.cpp:399] inception_5b/pool_proj -> inception_5b/pool_proj
I0403 15:51:49.949935 16134 net.cpp:141] Setting up inception_5b/pool_proj
I0403 15:51:49.949965 16134 net.cpp:148] Top shape: 24 128 7 7 (150528)
I0403 15:51:49.949980 16134 net.cpp:156] Memory required for data: 1340445216
I0403 15:51:49.949998 16134 layer_factory.hpp:77] Creating layer inception_5b/relu_pool_proj
I0403 15:51:49.950017 16134 net.cpp:91] Creating Layer inception_5b/relu_pool_proj
I0403 15:51:49.950033 16134 net.cpp:425] inception_5b/relu_pool_proj <- inception_5b/pool_proj
I0403 15:51:49.950050 16134 net.cpp:386] inception_5b/relu_pool_proj -> inception_5b/pool_proj (in-place)
I0403 15:51:49.950351 16134 net.cpp:141] Setting up inception_5b/relu_pool_proj
I0403 15:51:49.950377 16134 net.cpp:148] Top shape: 24 128 7 7 (150528)
I0403 15:51:49.950392 16134 net.cpp:156] Memory required for data: 1341047328
I0403 15:51:49.950407 16134 layer_factory.hpp:77] Creating layer inception_5b/output
I0403 15:51:49.950423 16134 net.cpp:91] Creating Layer inception_5b/output
I0403 15:51:49.950453 16134 net.cpp:425] inception_5b/output <- inception_5b/1x1
I0403 15:51:49.950470 16134 net.cpp:425] inception_5b/output <- inception_5b/3x3
I0403 15:51:49.950485 16134 net.cpp:425] inception_5b/output <- inception_5b/5x5
I0403 15:51:49.950501 16134 net.cpp:425] inception_5b/output <- inception_5b/pool_proj
I0403 15:51:49.950520 16134 net.cpp:399] inception_5b/output -> inception_5b/output
I0403 15:51:49.950578 16134 net.cpp:141] Setting up inception_5b/output
I0403 15:51:49.950601 16134 net.cpp:148] Top shape: 24 1024 7 7 (1204224)
I0403 15:51:49.950616 16134 net.cpp:156] Memory required for data: 1345864224
I0403 15:51:49.950630 16134 layer_factory.hpp:77] Creating layer pool5/7x7_s1
I0403 15:51:49.950647 16134 net.cpp:91] Creating Layer pool5/7x7_s1
I0403 15:51:49.950662 16134 net.cpp:425] pool5/7x7_s1 <- inception_5b/output
I0403 15:51:49.950681 16134 net.cpp:399] pool5/7x7_s1 -> pool5/7x7_s1
I0403 15:51:49.950901 16134 net.cpp:141] Setting up pool5/7x7_s1
I0403 15:51:49.950927 16134 net.cpp:148] Top shape: 24 1024 1 1 (24576)
I0403 15:51:49.950942 16134 net.cpp:156] Memory required for data: 1345962528
I0403 15:51:49.950955 16134 layer_factory.hpp:77] Creating layer pool5/drop_7x7_s1
I0403 15:51:49.950974 16134 net.cpp:91] Creating Layer pool5/drop_7x7_s1
I0403 15:51:49.950991 16134 net.cpp:425] pool5/drop_7x7_s1 <- pool5/7x7_s1
I0403 15:51:49.951007 16134 net.cpp:386] pool5/drop_7x7_s1 -> pool5/7x7_s1 (in-place)
I0403 15:51:49.951059 16134 net.cpp:141] Setting up pool5/drop_7x7_s1
I0403 15:51:49.951082 16134 net.cpp:148] Top shape: 24 1024 1 1 (24576)
I0403 15:51:49.951097 16134 net.cpp:156] Memory required for data: 1346060832
I0403 15:51:49.951109 16134 layer_factory.hpp:77] Creating layer loss3/classifier_plantvillage
I0403 15:51:49.951128 16134 net.cpp:91] Creating Layer loss3/classifier_plantvillage
I0403 15:51:49.951143 16134 net.cpp:425] loss3/classifier_plantvillage <- pool5/7x7_s1
I0403 15:51:49.951164 16134 net.cpp:399] loss3/classifier_plantvillage -> loss3/classifier_plantvillage
I0403 15:51:49.951606 16134 net.cpp:141] Setting up loss3/classifier_plantvillage
I0403 15:51:49.951630 16134 net.cpp:148] Top shape: 24 38 (912)
I0403 15:51:49.951644 16134 net.cpp:156] Memory required for data: 1346064480
I0403 15:51:49.951663 16134 layer_factory.hpp:77] Creating layer loss3/classifier_plantvillage_loss3/classifier_plantvillage_0_split
I0403 15:51:49.951679 16134 net.cpp:91] Creating Layer loss3/classifier_plantvillage_loss3/classifier_plantvillage_0_split
I0403 15:51:49.951694 16134 net.cpp:425] loss3/classifier_plantvillage_loss3/classifier_plantvillage_0_split <- loss3/classifier_plantvillage
I0403 15:51:49.951714 16134 net.cpp:399] loss3/classifier_plantvillage_loss3/classifier_plantvillage_0_split -> loss3/classifier_plantvillage_loss3/classifier_plantvillage_0_split_0
I0403 15:51:49.951735 16134 net.cpp:399] loss3/classifier_plantvillage_loss3/classifier_plantvillage_0_split -> loss3/classifier_plantvillage_loss3/classifier_plantvillage_0_split_1
I0403 15:51:49.951755 16134 net.cpp:399] loss3/classifier_plantvillage_loss3/classifier_plantvillage_0_split -> loss3/classifier_plantvillage_loss3/classifier_plantvillage_0_split_2
I0403 15:51:49.951774 16134 net.cpp:399] loss3/classifier_plantvillage_loss3/classifier_plantvillage_0_split -> loss3/classifier_plantvillage_loss3/classifier_plantvillage_0_split_3
I0403 15:51:49.951876 16134 net.cpp:141] Setting up loss3/classifier_plantvillage_loss3/classifier_plantvillage_0_split
I0403 15:51:49.951900 16134 net.cpp:148] Top shape: 24 38 (912)
I0403 15:51:49.951915 16134 net.cpp:148] Top shape: 24 38 (912)
I0403 15:51:49.951930 16134 net.cpp:148] Top shape: 24 38 (912)
I0403 15:51:49.951943 16134 net.cpp:148] Top shape: 24 38 (912)
I0403 15:51:49.951956 16134 net.cpp:156] Memory required for data: 1346079072
I0403 15:51:49.951969 16134 layer_factory.hpp:77] Creating layer loss1/loss
I0403 15:51:49.951989 16134 net.cpp:91] Creating Layer loss1/loss
I0403 15:51:49.952006 16134 net.cpp:425] loss1/loss <- loss1/classifier_plantvillage_loss1/classifier_plantvillage_0_split_0
I0403 15:51:49.952038 16134 net.cpp:425] loss1/loss <- label_data_1_split_0
…
