…
I0403 16:11:01.336083 17282 net.cpp:313] The NetState phase (1) differed from the phase (0) specified by a rule in layer data
I0403 16:11:01.337491 17282 net.cpp:49] Initializing net from parameters: 
state {
  phase: TEST
}
layer {
  name: "data"
  type: "Data"
  top: "data"
  top: "label"
  include {
    phase: TEST
  }
  transform_param {
    mirror: false
    crop_size: 224
    mean_file: "/home/mohanty/data/final_dataset/lmdb/segmented-20-80/mean.binaryproto"
  }
  data_param {
    source: "/home/mohanty/data/final_dataset/lmdb/segmented-20-80/test_db"
    batch_size: 24
    backend: LMDB
  }
}
layer {
  name: "conv1/7x7_s2"
  type: "Convolution"
  bottom: "data"
  top: "conv1/7x7_s2"
  param {
    lr_mult: 1
    decay_mult: 1
  }
  param {
    lr_mult: 2
    decay_mult: 0
  }
  convolution_param {
    num_output: 64
    pad: 3
    kernel_size: 7
    stride: 2
    weight_filler {
      type: "xavier"
      std: 0.1
    }
    bias_filler {
      type: "constant"
      value: 0.2
    }
  }
}
layer {
  name: "conv1/relu_7x7"
  type: "ReLU"
  bottom: "conv1/7x7_s2"
  top: "conv1/7x7_s2"
}
layer {
  name: "pool1/3x3_s2"
  type: "Pooling"
  bottom: "conv1/7x7_s2"
  top: "pool1/3x3_s2"
  pooling_param {
    pool: MAX
    kernel_size: 3
    stride: 2
  }
}
layer {
  name: "pool1/norm1"
  type: "LRN"
  bottom: "pool1/3x3_s2"
  top: "pool1/norm1"
  lrn_param {
    local_size: 5
    alpha: 0.0001
    beta: 0.75
  }
}
layer {
  name: "conv2/3x3_reduce"
  type: "Convolution"
  bottom: "pool1/norm1"
  top: "conv2/3x3_reduce"
  param {
    lr_mult: 1
    decay_mult: 1
  }
  param {
    lr_mult: 2
    decay_mult: 0
  }
  convolution_param {
    num_output: 64
    kernel_size: 1
    weight_filler {
      type: "xavier"
      std: 0.1
    }
    bias_filler {
      type: "constant"
      value: 0.2
    }
  }
}
layer {
  name: "conv2/relu_3x3_reduce"
  type: "ReLU"
  bottom: "conv2/3x3_reduce"
  top: "conv2/3x3_reduce"
}
layer {
  name: "conv2/3x3"
  type: "Convolution"
  bottom: "conv2/3x3_reduce"
  top: "conv2/3x3"
  param {
    lr_mult: 1
    decay_mult: 1
  }
  param {
    lr_mult: 2
    decay_mult: 0
  }
  convolution_param {
    num_output: 192
    pad: 1
    kernel_size: 3
    weight_filler {
      type: "xavier"
      std: 0.03
    }
    bias_filler {
      type: "constant"
      value: 0.2
    }
  }
}
layer {
  name: "conv2/relu_3x3"
  type: "ReLU"
  bottom: "conv2/3x3"
  top: "conv2/3x3"
}
layer {
  name: "conv2/norm2"
  type: "LRN"
  bottom: "conv2/3x3"
  top: "conv2/norm2"
  lrn_param {
    local_size: 5
    alpha: 0.0001
    beta: 0.75
  }
}
layer {
  name: "pool2/3x3_s2"
  type: "Pooling"
  bottom: "conv2/norm2"
  top: "pool2/3x3_s2"
  pooling_param {
    pool: MAX
    kernel_size: 3
    stride: 2
  }
}
layer {
  name: "inception_3a/1x1"
  type: "Convolution"
  bottom: "pool2/3x3_s2"
  top: "inception_3a/1x1"
  param {
    lr_mult: 1
    decay_mult: 1
  }
  param {
    lr_mult: 2
    decay_mult: 0
  }
  convolution_param {
    num_output: 64
    kernel_size: 1
    weight_filler {
      type: "xavier"
      std: 0.03
    }
    bias_filler {
      type: "constant"
      value: 0.2
    }
  }
}
layer {
  name: "inception_3a/relu_1x1"
  type: "ReLU"
  bottom: "inception_3a/1x1"
  top: "inception_3a/1x1"
}
layer {
  name: "inception_3a/3x3_reduce"
  type: "Convolution"
  bottom: "pool2/3x3_s2"
  top: "inception_3a/3x3_reduce"
  param {
    lr_mult: 1
    decay_mult: 1
  }
  param {
    lr_mult: 2
    decay_mult: 0
  }
  convolution_param {
    num_output: 96
    kernel_size: 1
    weight_filler {
      type: "xavier"
      std: 0.09
    }
    bias_filler {
      type: "constant"
      value: 0.2
    }
  }
}
layer {
  name: "inception_3a/relu_3x3_reduce"
  type: "ReLU"
  bottom: "inception_3a/3x3_reduce"
  top: "inception_3a/3x3_reduce"
}
layer {
  name: "inception_3a/3x3"
  type: "Convolution"
  bottom: "inception_3a/3x3_reduce"
  top: "inception_3a/3x3"
  param {
    lr_mult: 1
    decay_mult: 1
  }
  param {
    lr_mult: 2
    decay_mult: 0
  }
  convolution_param {
    num_output: 128
    pad: 1
    kernel_size: 3
    weight_filler {
      type: "xavier"
      std: 0.03
    }
    bias_filler {
      type: "constant"
      value: 0.2
    }
  }
}
layer {
  name: "inception_3a/relu_3x3"
  type: "ReLU"
  bottom: "inception_3a/3x3"
  top: "inception_3a/3x3"
}
layer {
  name: "inception_3a/5x5_reduce"
  type: "Convolution"
  bottom: "pool2/3x3_s2"
  top: "inception_3a/5x5_reduce"
  param {
    lr_mult: 1
    decay_mult: 1
  }
  param {
    lr_mult: 2
    decay_mult: 0
  }
  convolution_param {
    num_output: 16
    kernel_size: 1
    weight_filler {
      type: "xavier"
      std: 0.2
    }
    bias_filler {
      type: "constant"
      value: 0.2
    }
  }
}
layer {
  name: "inception_3a/relu_5x5_reduce"
  type: "ReLU"
  bottom: "inception_3a/5x5_reduce"
  top: "inception_3a/5x5_reduce"
}
layer {
  name: "inception_3a/5x5"
  type: "Convolution"
  bottom: "inception_3a/5x5_reduce"
  top: "inception_3a/5x5"
  param {
    lr_mult: 1
    decay_mult: 1
  }
  param {
    lr_mult: 2
    decay_mult: 0
  }
  convolution_param {
    num_output: 32
    pad: 2
    kernel_size: 5
    weight_filler {
      type: "xavier"
      std: 0.03
    }
    bias_filler {
      type: "constant"
      value: 0.2
    }
  }
}
layer {
  name: "inception_3a/relu_5x5"
  type: "ReLU"
  bottom: "inception_3a/5x5"
  top: "inception_3a/5x5"
}
layer {
  name: "inception_3a/pool"
  type: "Pooling"
  bottom: "pool2/3x3_s2"
  top: "inception_3a/pool"
  pooling_param {
    pool: MAX
    kernel_size: 3
    stride: 1
    pad: 1
  }
}
layer {
  name: "inception_3a/pool_proj"
  type: "Convolution"
  bottom: "inception_3a/pool"
  top: "inception_3a/pool_proj"
  param {
    lr_mult: 1
    decay_mult: 1
  }
  param {
    lr_mult: 2
    decay_mult: 0
  }
  convolution_param {
    num_output: 32
    kernel_size: 1
    weight_filler {
      type: "xavier"
      std: 0.1
    }
    bias_filler {
      type: "constant"
      value: 0.2
    }
  }
}
layer {
  name: "inception_3a/relu_pool_proj"
  type: "ReLU"
  bottom: "inception_3a/pool_proj"
  top: "inception_3a/pool_proj"
}
layer {
  name: "inception_3a/output"
  type: "Concat"
  bottom: "inception_3a/1x1"
  bottom: "inception_3a/3x3"
  bottom: "inception_3a/5x5"
  bottom: "inception_3a/pool_proj"
  top: "inception_3a/output"
}
layer {
  name: "inception_3b/1x1"
  type: "Convolution"
  bottom: "inception_3a/output"
  top: "inception_3b/1x1"
  param {
    lr_mult: 1
    decay_mult: 1
  }
  param {
    lr_mult: 2
    decay_mult: 0
  }
  convolution_param {
    num_output: 128
    kernel_size: 1
    weight_filler {
      type: "xavier"
      std: 0.03
    }
    bias_filler {
      type: "constant"
      value: 0.2
    }
  }
}
layer {
  name: "inception_3b/relu_1x1"
  type: "ReLU"
  bottom: "inception_3b/1x1"
  top: "inception_3b/1x1"
}
layer {
  name: "inception_3b/3x3_reduce"
  type: "Convolution"
  bottom: "inception_3a/output"
  top: "inception_3b/3x3_reduce"
  param {
    lr_mult: 1
    decay_mult: 1
  }
  param {
    lr_mult: 2
    decay_mult: 0
  }
  convolution_param {
    num_output: 128
    kernel_size: 1
    weight_filler {
      type: "xavier"
      std: 0.09
    }
    bias_filler {
      type: "constant"
      value: 0.2
    }
  }
}
layer {
  name: "inception_3b/relu_3x3_reduce"
  type: "ReLU"
  bottom: "inception_3b/3x3_reduce"
  top: "inception_3b/3x3_reduce"
}
layer {
  name: "inception_3b/3x3"
  type: "Convolution"
  bottom: "inception_3b/3x3_reduce"
  top: "inception_3b/3x3"
  param {
    lr_mult: 1
    decay_mult: 1
  }
  param {
    lr_mult: 2
    decay_mult: 0
  }
  convolution_param {
    num_output: 192
    pad: 1
    kernel_size: 3
    weight_filler {
      type: "xavier"
      std: 0.03
    }
    bias_filler {
      type: "constant"
      value: 0.2
    }
  }
}
layer {
  name: "inception_3b/relu_3x3"
  type: "ReLU"
  bottom: "inception_3b/3x3"
  top: "inception_3b/3x3"
}
layer {
  name: "inception_3b/5x5_reduce"
  type: "Convolution"
  bottom: "inception_3a/output"
  top: "inception_3b/5x5_reduce"
  param {
    lr_mult: 1
    decay_mult: 1
  }
  param {
    lr_mult: 2
    decay_mult: 0
  }
  convolution_param {
    num_output: 32
    kernel_size: 1
    weight_filler {
      type: "xavier"
      std: 0.2
    }
    bias_filler {
      type: "constant"
      value: 0.2
    }
  }
}
layer {
  name: "inception_3b/relu_5x5_reduce"
  type: "ReLU"
  bottom: "inception_3b/5x5_reduce"
  top: "inception_3b/5x5_reduce"
}
layer {
  name: "inception_3b/5x5"
  type: "Convolution"
  bottom: "inception_3b/5x5_reduce"
  top: "inception_3b/5x5"
  param {
    lr_mult: 1
    decay_mult: 1
  }
  param {
    lr_mult: 2
    decay_mult: 0
  }
  convolution_param {
    num_output: 96
    pad: 2
    kernel_size: 5
    weight_filler {
      type: "xavier"
      std: 0.03
    }
    bias_filler {
      type: "constant"
      value: 0.2
    }
  }
}
layer {
  name: "inception_3b/relu_5x5"
  type: "ReLU"
  bottom: "inception_3b/5x5"
  top: "inception_3b/5x5"
}
layer {
  name: "inception_3b/pool"
  type: "Pooling"
  bottom: "inception_3a/output"
  top: "inception_3b/pool"
  pooling_param {
    pool: MAX
    kernel_size: 3
    stride: 1
    pad: 1
  }
}
layer {
  name: "inception_3b/pool_proj"
  type: "Convolution"
  bottom: "inception_3b/pool"
  top: "inception_3b/pool_proj"
  param {
    lr_mult: 1
    decay_mult: 1
  }
  param {
    lr_mult: 2
    decay_mult: 0
  }
  convolution_param {
    num_output: 64
    kernel_size: 1
    weight_filler {
      type: "xavier"
      std: 0.1
    }
    bias_filler {
      type: "constant"
      value: 0.2
    }
  }
}
layer {
  name: "inception_3b/relu_pool_proj"
  type: "ReLU"
  bottom: "inception_3b/pool_proj"
  top: "inception_3b/pool_proj"
}
layer {
  name: "inception_3b/output"
  type: "Concat"
  bottom: "inception_3b/1x1"
  bottom: "inception_3b/3x3"
  bottom: "inception_3b/5x5"
  bottom: "inception_3b/pool_proj"
  top: "inception_3b/output"
}
layer {
  name: "pool3/3x3_s2"
  type: "Pooling"
  bottom: "inception_3b/output"
  top: "pool3/3x3_s2"
  pooling_param {
    pool: MAX
    kernel_size: 3
    stride: 2
  }
}
layer {
  name: "inception_4a/1x1"
  type: "Convolution"
  bottom: "pool3/3x3_s2"
  top: "inception_4a/1x1"
  param {
    lr_mult: 1
    decay_mult: 1
  }
  param {
    lr_mult: 2
    decay_mult: 0
  }
  convolution_param {
    num_output: 192
    kernel_size: 1
    weight_filler {
      type: "xavier"
      std: 0.03
    }
    bias_filler {
      type: "constant"
      value: 0.2
    }
  }
}
layer {
  name: "inception_4a/relu_1x1"
  type: "ReLU"
  bottom: "inception_4a/1x1"
  top: "inception_4a/1x1"
}
layer {
  name: "inception_4a/3x3_reduce"
  type: "Convolution"
  bottom: "pool3/3x3_s2"
  top: "inception_4a/3x3_reduce"
  param {
    lr_mult: 1
    decay_mult: 1
  }
  param {
    lr_mult: 2
    decay_mult: 0
  }
  convolution_param {
    num_output: 96
    kernel_size: 1
    weight_filler {
      type: "xavier"
      std: 0.09
    }
    bias_filler {
      type: "constant"
      value: 0.2
    }
  }
}
layer {
  name: "inception_4a/relu_3x3_reduce"
  type: "ReLU"
  bottom: "inception_4a/3x3_reduce"
  top: "inception_4a/3x3_reduce"
}
layer {
  name: "inception_4a/3x3"
  type: "Convolution"
  bottom: "inception_4a/3x3_reduce"
  top: "inception_4a/3x3"
  param {
    lr_mult: 1
    decay_mult: 1
  }
  param {
    lr_mult: 2
    decay_mult: 0
  }
  convolution_param {
    num_output: 208
    pad: 1
    kernel_size: 3
    weight_filler {
      type: "xavier"
      std: 0.03
    }
    bias_filler {
      type: "constant"
      value: 0.2
    }
  }
}
layer {
  name: "inception_4a/relu_3x3"
  type: "ReLU"
  bottom: "inception_4a/3x3"
  top: "inception_4a/3x3"
}
layer {
  name: "inception_4a/5x5_reduce"
  type: "Convolution"
  bottom: "pool3/3x3_s2"
  top: "inception_4a/5x5_reduce"
  param {
    lr_mult: 1
    decay_mult: 1
  }
  param {
    lr_mult: 2
    decay_mult: 0
  }
  convolution_param {
    num_output: 16
    kernel_size: 1
    weight_filler {
      type: "xavier"
      std: 0.2
    }
    bias_filler {
      type: "constant"
      value: 0.2
    }
  }
}
layer {
  name: "inception_4a/relu_5x5_reduce"
  type: "ReLU"
  bottom: "inception_4a/5x5_reduce"
  top: "inception_4a/5x5_reduce"
}
layer {
  name: "inception_4a/5x5"
  type: "Convolution"
  bottom: "inception_4a/5x5_reduce"
  top: "inception_4a/5x5"
  param {
    lr_mult: 1
    decay_mult: 1
  }
  param {
    lr_mult: 2
    decay_mult: 0
  }
  convolution_param {
    num_output: 48
    pad: 2
    kernel_size: 5
    weight_filler {
      type: "xavier"
      std: 0.03
    }
    bias_filler {
      type: "constant"
      value: 0.2
    }
  }
}
layer {
  name: "inception_4a/relu_5x5"
  type: "ReLU"
  bottom: "inception_4a/5x5"
  top: "inception_4a/5x5"
}
layer {
  name: "inception_4a/pool"
  type: "Pooling"
  bottom: "pool3/3x3_s2"
  top: "inception_4a/pool"
  pooling_param {
    pool: MAX
    kernel_size: 3
    stride: 1
    pad: 1
  }
}
layer {
  name: "inception_4a/pool_proj"
  type: "Convolution"
  bottom: "inception_4a/pool"
  top: "inception_4a/pool_proj"
  param {
    lr_mult: 1
    decay_mult: 1
  }
  param {
    lr_mult: 2
    decay_mult: 0
  }
  convolution_param {
    num_output: 64
    kernel_size: 1
    weight_filler {
      type: "xavier"
      std: 0.1
    }
    bias_filler {
      type: "constant"
      value: 0.2
    }
  }
}
layer {
  name: "inception_4a/relu_pool_proj"
  type: "ReLU"
  bottom: "inception_4a/pool_proj"
  top: "inception_4a/pool_proj"
}
layer {
  name: "inception_4a/output"
  type: "Concat"
  bottom: "inception_4a/1x1"
  bottom: "inception_4a/3x3"
  bottom: "inception_4a/5x5"
  bottom: "inception_4a/pool_proj"
  top: "inception_4a/output"
}
layer {
  name: "loss1/ave_pool"
  type: "Pooling"
  bottom: "inception_4a/output"
  top: "loss1/ave_pool"
  pooling_param {
    pool: AVE
    kernel_size: 5
    stride: 3
  }
}
layer {
  name: "loss1/conv"
  type: "Convolution"
  bottom: "loss1/ave_pool"
  top: "loss1/conv"
  param {
    lr_mult: 1
    decay_mult: 1
  }
  param {
    lr_mult: 2
    decay_mult: 0
  }
  convolution_param {
    num_output: 128
    kernel_size: 1
    weight_filler {
      type: "xavier"
      std: 0.08
    }
    bias_filler {
      type: "constant"
      value: 0.2
    }
  }
}
layer {
  name: "loss1/relu_conv"
  type: "ReLU"
  bottom: "loss1/conv"
  top: "loss1/conv"
}
layer {
  name: "loss1/fc"
  type: "InnerProduct"
  bottom: "loss1/conv"
  top: "loss1/fc"
  param {
    lr_mult: 1
    decay_mult: 1
  }
  param {
    lr_mult: 2
    decay_mult: 0
  }
  inner_product_param {
    num_output: 1024
    weight_filler {
      type: "xavier"
      std: 0.02
    }
    bias_filler {
      type: "constant"
      value: 0.2
    }
  }
}
layer {
  name: "loss1/relu_fc"
  type: "ReLU"
  bottom: "loss1/fc"
  top: "loss1/fc"
}
layer {
  name: "loss1/drop_fc"
  type: "Dropout"
  bottom: "loss1/fc"
  top: "loss1/fc"
  dropout_param {
    dropout_ratio: 0.7
  }
}
layer {
  name: "loss1/classifier_plantvillage"
  type: "InnerProduct"
  bottom: "loss1/fc"
  top: "loss1/classifier_plantvillage"
  param {
    lr_mult: 1
    decay_mult: 1
  }
  param {
    lr_mult: 2
    decay_mult: 0
  }
  inner_product_param {
    num_output: 38
    weight_filler {
      type: "xavier"
      std: 0.0009765625
    }
    bias_filler {
      type: "constant"
      value: 0
    }
  }
}
layer {
  name: "inception_4b/1x1"
  type: "Convolution"
  bottom: "inception_4a/output"
  top: "inception_4b/1x1"
  param {
    lr_mult: 1
    decay_mult: 1
  }
  param {
    lr_mult: 2
    decay_mult: 0
  }
  convolution_param {
    num_output: 160
    kernel_size: 1
    weight_filler {
      type: "xavier"
      std: 0.03
    }
    bias_filler {
      type: "constant"
      value: 0.2
    }
  }
}
layer {
  name: "inception_4b/relu_1x1"
  type: "ReLU"
  bottom: "inception_4b/1x1"
  top: "inception_4b/1x1"
}
layer {
  name: "inception_4b/3x3_reduce"
  type: "Convolution"
  bottom: "inception_4a/output"
  top: "inception_4b/3x3_reduce"
  param {
    lr_mult: 1
    decay_mult: 1
  }
  param {
    lr_mult: 2
    decay_mult: 0
  }
  convolution_param {
    num_output: 112
    kernel_size: 1
    weight_filler {
      type: "xavier"
      std: 0.09
    }
    bias_filler {
      type: "constant"
      value: 0.2
    }
  }
}
layer {
  name: "inception_4b/relu_3x3_reduce"
  type: "ReLU"
  bottom: "inception_4b/3x3_reduce"
  top: "inception_4b/3x3_reduce"
}
layer {
  name: "inception_4b/3x3"
  type: "Convolution"
  bottom: "inception_4b/3x3_reduce"
  top: "inception_4b/3x3"
  param {
    lr_mult: 1
    decay_mult: 1
  }
  param {
    lr_mult: 2
    decay_mult: 0
  }
  convolution_param {
    num_output: 224
    pad: 1
    kernel_size: 3
    weight_filler {
      type: "xavier"
      std: 0.03
    }
    bias_filler {
      type: "constant"
      value: 0.2
    }
  }
}
layer {
  name: "inception_4b/relu_3x3"
  type: "ReLU"
  bottom: "inception_4b/3x3"
  top: "inception_4b/3x3"
}
layer {
  name: "inception_4b/5x5_reduce"
  type: "Convolution"
  bottom: "inception_4a/output"
  top: "inception_4b/5x5_reduce"
  param {
    lr_mult: 1
    decay_mult: 1
  }
  param {
    lr_mult: 2
    decay_mult: 0
  }
  convolution_param {
    num_output: 24
    kernel_size: 1
    weight_filler {
      type: "xavier"
      std: 0.2
    }
    bias_filler {
      type: "constant"
      value: 0.2
    }
  }
}
layer {
  name: "inception_4b/relu_5x5_reduce"
  type: "ReLU"
  bottom: "inception_4b/5x5_reduce"
  top: "inception_4b/5x5_reduce"
}
layer {
  name: "inception_4b/5x5"
  type: "Convolution"
  bottom: "inception_4b/5x5_reduce"
  top: "inception_4b/5x5"
  param {
    lr_mult: 1
    decay_mult: 1
  }
  param {
    lr_mult: 2
    decay_mult: 0
  }
  convolution_param {
    num_output: 64
    pad: 2
    kernel_size: 5
    weight_filler {
      type: "xavier"
      std: 0.03
    }
    bias_filler {
      type: "constant"
      value: 0.2
    }
  }
}
layer {
  name: "inception_4b/relu_5x5"
  type: "ReLU"
  bottom: "inception_4b/5x5"
  top: "inception_4b/5x5"
}
layer {
  name: "inception_4b/pool"
  type: "Pooling"
  bottom: "inception_4a/output"
  top: "inception_4b/pool"
  pooling_param {
    pool: MAX
    kernel_size: 3
    stride: 1
    pad: 1
  }
}
layer {
  name: "inception_4b/pool_proj"
  type: "Convolution"
  bottom: "inception_4b/pool"
  top: "inception_4b/pool_proj"
  param {
    lr_mult: 1
    decay_mult: 1
  }
  param {
    lr_mult: 2
    decay_mult: 0
  }
  convolution_param {
    num_output: 64
    kernel_size: 1
    weight_filler {
      type: "xavier"
      std: 0.1
    }
    bias_filler {
      type: "constant"
      value: 0.2
    }
  }
}
layer {
  name: "inception_4b/relu_pool_proj"
  type: "ReLU"
  bottom: "inception_4b/pool_proj"
  top: "inception_4b/pool_proj"
}
layer {
  name: "inception_4b/output"
  type: "Concat"
  bottom: "inception_4b/1x1"
  bottom: "inception_4b/3x3"
  bottom: "inception_4b/5x5"
  bottom: "inception_4b/pool_proj"
  top: "inception_4b/output"
}
layer {
  name: "inception_4c/1x1"
  type: "Convolution"
  bottom: "inception_4b/output"
  top: "inception_4c/1x1"
  param {
    lr_mult: 1
    decay_mult: 1
  }
  param {
    lr_mult: 2
    decay_mult: 0
  }
  convolution_param {
    num_output: 128
    kernel_size: 1
    weight_filler {
      type: "xavier"
      std: 0.03
    }
    bias_filler {
      type: "constant"
      value: 0.2
    }
  }
}
layer {
  name: "inception_4c/relu_1x1"
  type: "ReLU"
  bottom: "inception_4c/1x1"
  top: "inception_4c/1x1"
}
layer {
  name: "inception_4c/3x3_reduce"
  type: "Convolution"
  bottom: "inception_4b/output"
  top: "inception_4c/3x3_reduce"
  param {
    lr_mult: 1
    decay_mult: 1
  }
  param {
    lr_mult: 2
    decay_mult: 0
  }
  convolution_param {
    num_output: 128
    kernel_size: 1
    weight_filler {
      type: "xavier"
      std: 0.09
    }
    bias_filler {
      type: "constant"
      value: 0.2
    }
  }
}
layer {
  name: "inception_4c/relu_3x3_reduce"
  type: "ReLU"
  bottom: "inception_4c/3x3_reduce"
  top: "inception_4c/3x3_reduce"
}
layer {
  name: "inception_4c/3x3"
  type: "Convolution"
  bottom: "inception_4c/3x3_reduce"
  top: "inception_4c/3x3"
  param {
    lr_mult: 1
    decay_mult: 1
  }
  param {
    lr_mult: 2
    decay_mult: 0
  }
  convolution_param {
    num_output: 256
    pad: 1
    kernel_size: 3
    weight_filler {
      type: "xavier"
      std: 0.03
    }
    bias_filler {
      type: "constant"
      value: 0.2
    }
  }
}
layer {
  name: "inception_4c/relu_3x3"
  type: "ReLU"
  bottom: "inception_4c/3x3"
  top: "inception_4c/3x3"
}
layer {
  name: "inception_4c/5x5_reduce"
  type: "Convolution"
  bottom: "inception_4b/output"
  top: "inception_4c/5x5_reduce"
  param {
    lr_mult: 1
    decay_mult: 1
  }
  param {
    lr_mult: 2
    decay_mult: 0
  }
  convolution_param {
    num_output: 24
    kernel_size: 1
    weight_filler {
      type: "xavier"
      std: 0.2
    }
    bias_filler {
      type: "constant"
      value: 0.2
    }
  }
}
layer {
  name: "inception_4c/relu_5x5_reduce"
  type: "ReLU"
  bottom: "inception_4c/5x5_reduce"
  top: "inception_4c/5x5_reduce"
}
layer {
  name: "inception_4c/5x5"
  type: "Convolution"
  bottom: "inception_4c/5x5_reduce"
  top: "inception_4c/5x5"
  param {
    lr_mult: 1
    decay_mult: 1
  }
  param {
    lr_mult: 2
    decay_mult: 0
  }
  convolution_param {
    num_output: 64
    pad: 2
    kernel_size: 5
    weight_filler {
      type: "xavier"
      std: 0.03
    }
    bias_filler {
      type: "constant"
      value: 0.2
    }
  }
}
layer {
  name: "inception_4c/relu_5x5"
  type: "ReLU"
  bottom: "inception_4c/5x5"
  top: "inception_4c/5x5"
}
layer {
  name: "inception_4c/pool"
  type: "Pooling"
  bottom: "inception_4b/output"
  top: "inception_4c/pool"
  pooling_param {
    pool: MAX
    kernel_size: 3
    stride: 1
    pad: 1
  }
}
layer {
  name: "inception_4c/pool_proj"
  type: "Convolution"
  bottom: "inception_4c/pool"
  top: "inception_4c/pool_proj"
  param {
    lr_mult: 1
    decay_mult: 1
  }
  param {
    lr_mult: 2
    decay_mult: 0
  }
  convolution_param {
    num_output: 64
    kernel_size: 1
    weight_filler {
      type: "xavier"
      std: 0.1
    }
    bias_filler {
      type: "constant"
      value: 0.2
    }
  }
}
layer {
  name: "inception_4c/relu_pool_proj"
  type: "ReLU"
  bottom: "inception_4c/pool_proj"
  top: "inception_4c/pool_proj"
}
layer {
  name: "inception_4c/output"
  type: "Concat"
  bottom: "inception_4c/1x1"
  bottom: "inception_4c/3x3"
  bottom: "inception_4c/5x5"
  bottom: "inception_4c/pool_proj"
  top: "inception_4c/output"
}
layer {
  name: "inception_4d/1x1"
  type: "Convolution"
  bottom: "inception_4c/output"
  top: "inception_4d/1x1"
  param {
    lr_mult: 1
    decay_mult: 1
  }
  param {
    lr_mult: 2
    decay_mult: 0
  }
  convolution_param {
    num_output: 112
    kernel_size: 1
    weight_filler {
      type: "xavier"
      std: 0.03
    }
    bias_filler {
      type: "constant"
      value: 0.2
    }
  }
}
layer {
  name: "inception_4d/relu_1x1"
  type: "ReLU"
  bottom: "inception_4d/1x1"
  top: "inception_4d/1x1"
}
layer {
  name: "inception_4d/3x3_reduce"
  type: "Convolution"
  bottom: "inception_4c/output"
  top: "inception_4d/3x3_reduce"
  param {
    lr_mult: 1
    decay_mult: 1
  }
  param {
    lr_mult: 2
    decay_mult: 0
  }
  convolution_param {
    num_output: 144
    kernel_size: 1
    weight_filler {
      type: "xavier"
      std: 0.09
    }
    bias_filler {
      type: "constant"
      value: 0.2
    }
  }
}
layer {
  name: "inception_4d/relu_3x3_reduce"
  type: "ReLU"
  bottom: "inception_4d/3x3_reduce"
  top: "inception_4d/3x3_reduce"
}
layer {
  name: "inception_4d/3x3"
  type: "Convolution"
  bottom: "inception_4d/3x3_reduce"
  top: "inception_4d/3x3"
  param {
    lr_mult: 1
    decay_mult: 1
  }
  param {
    lr_mult: 2
    decay_mult: 0
  }
  convolution_param {
    num_output: 288
    pad: 1
    kernel_size: 3
    weight_filler {
      type: "xavier"
      std: 0.03
    }
    bias_filler {
      type: "constant"
      value: 0.2
    }
  }
}
layer {
  name: "inception_4d/relu_3x3"
  type: "ReLU"
  bottom: "inception_4d/3x3"
  top: "inception_4d/3x3"
}
layer {
  name: "inception_4d/5x5_reduce"
  type: "Convolution"
  bottom: "inception_4c/output"
  top: "inception_4d/5x5_reduce"
  param {
    lr_mult: 1
    decay_mult: 1
  }
  param {
    lr_mult: 2
    decay_mult: 0
  }
  convolution_param {
    num_output: 32
    kernel_size: 1
    weight_filler {
      type: "xavier"
      std: 0.2
    }
    bias_filler {
      type: "constant"
      value: 0.2
    }
  }
}
layer {
  name: "inception_4d/relu_5x5_reduce"
  type: "ReLU"
  bottom: "inception_4d/5x5_reduce"
  top: "inception_4d/5x5_reduce"
}
layer {
  name: "inception_4d/5x5"
  type: "Convolution"
  bottom: "inception_4d/5x5_reduce"
  top: "inception_4d/5x5"
  param {
    lr_mult: 1
    decay_mult: 1
  }
  param {
    lr_mult: 2
    decay_mult: 0
  }
  convolution_param {
    num_output: 64
    pad: 2
    kernel_size: 5
    weight_filler {
      type: "xavier"
      std: 0.03
    }
    bias_filler {
      type: "constant"
      value: 0.2
    }
  }
}
layer {
  name: "inception_4d/relu_5x5"
  type: "ReLU"
  bottom: "inception_4d/5x5"
  top: "inception_4d/5x5"
}
layer {
  name: "inception_4d/pool"
  type: "Pooling"
  bottom: "inception_4c/output"
  top: "inception_4d/pool"
  pooling_param {
    pool: MAX
    kernel_size: 3
    stride: 1
    pad: 1
  }
}
layer {
  name: "inception_4d/pool_proj"
  type: "Convolution"
  bottom: "inception_4d/pool"
  top: "inception_4d/pool_proj"
  param {
    lr_mult: 1
    decay_mult: 1
  }
  param {
    lr_mult: 2
    decay_mult: 0
  }
  convolution_param {
    num_output: 64
    kernel_size: 1
    weight_filler {
      type: "xavier"
      std: 0.1
    }
    bias_filler {
      type: "constant"
      value: 0.2
    }
  }
}
layer {
  name: "inception_4d/relu_pool_proj"
  type: "ReLU"
  bottom: "inception_4d/pool_proj"
  top: "inception_4d/pool_proj"
}
layer {
  name: "inception_4d/output"
  type: "Concat"
  bottom: "inception_4d/1x1"
  bottom: "inception_4d/3x3"
  bottom: "inception_4d/5x5"
  bottom: "inception_4d/pool_proj"
  top: "inception_4d/output"
}
layer {
  name: "loss2/ave_pool"
  type: "Pooling"
  bottom: "inception_4d/output"
  top: "loss2/ave_pool"
  pooling_param {
    pool: AVE
    kernel_size: 5
    stride: 3
  }
}
layer {
  name: "loss2/conv"
  type: "Convolution"
  bottom: "loss2/ave_pool"
  top: "loss2/conv"
  param {
    lr_mult: 1
    decay_mult: 1
  }
  param {
    lr_mult: 2
    decay_mult: 0
  }
  convolution_param {
    num_output: 128
    kernel_size: 1
    weight_filler {
      type: "xavier"
      std: 0.08
    }
    bias_filler {
      type: "constant"
      value: 0.2
    }
  }
}
layer {
  name: "loss2/relu_conv"
  type: "ReLU"
  bottom: "loss2/conv"
  top: "loss2/conv"
}
layer {
  name: "loss2/fc"
  type: "InnerProduct"
  bottom: "loss2/conv"
  top: "loss2/fc"
  param {
    lr_mult: 1
    decay_mult: 1
  }
  param {
    lr_mult: 2
    decay_mult: 0
  }
  inner_product_param {
    num_output: 1024
    weight_filler {
      type: "xavier"
      std: 0.02
    }
    bias_filler {
      type: "constant"
      value: 0.2
    }
  }
}
layer {
  name: "loss2/relu_fc"
  type: "ReLU"
  bottom: "loss2/fc"
  top: "loss2/fc"
}
layer {
  name: "loss2/drop_fc"
  type: "Dropout"
  bottom: "loss2/fc"
  top: "loss2/fc"
  dropout_param {
    dropout_ratio: 0.7
  }
}
layer {
  name: "loss2/classifier_plantvillage"
  type: "InnerProduct"
  bottom: "loss2/fc"
  top: "loss2/classifier_plantvillage"
  param {
    lr_mult: 1
    decay_mult: 1
  }
  param {
    lr_mult: 2
    decay_mult: 0
  }
  inner_product_param {
    num_output: 38
    weight_filler {
      type: "xavier"
      std: 0.0009765625
    }
    bias_filler {
      type: "constant"
      value: 0
    }
  }
}
layer {
  name: "inception_4e/1x1"
  type: "Convolution"
  bottom: "inception_4d/output"
  top: "inception_4e/1x1"
  param {
    lr_mult: 1
    decay_mult: 1
  }
  param {
    lr_mult: 2
    decay_mult: 0
  }
  convolution_param {
    num_output: 256
    kernel_size: 1
    weight_filler {
      type: "xavier"
      std: 0.03
    }
    bias_filler {
      type: "constant"
      value: 0.2
    }
  }
}
layer {
  name: "inception_4e/relu_1x1"
  type: "ReLU"
  bottom: "inception_4e/1x1"
  top: "inception_4e/1x1"
}
layer {
  name: "inception_4e/3x3_reduce"
  type: "Convolution"
  bottom: "inception_4d/output"
  top: "inception_4e/3x3_reduce"
  param {
    lr_mult: 1
    decay_mult: 1
  }
  param {
    lr_mult: 2
    decay_mult: 0
  }
  convolution_param {
    num_output: 160
    kernel_size: 1
    weight_filler {
      type: "xavier"
      std: 0.09
    }
    bias_filler {
      type: "constant"
      value: 0.2
    }
  }
}
layer {
  name: "inception_4e/relu_3x3_reduce"
  type: "ReLU"
  bottom: "inception_4e/3x3_reduce"
  top: "inception_4e/3x3_reduce"
}
layer {
  name: "inception_4e/3x3"
  type: "Convolution"
  bottom: "inception_4e/3x3_reduce"
  top: "inception_4e/3x3"
  param {
    lr_mult: 1
    decay_mult: 1
  }
  param {
    lr_mult: 2
    decay_mult: 0
  }
  convolution_param {
    num_output: 320
    pad: 1
    kernel_size: 3
    weight_filler {
      type: "xavier"
      std: 0.03
    }
    bias_filler {
      type: "constant"
      value: 0.2
    }
  }
}
layer {
  name: "inception_4e/relu_3x3"
  type: "ReLU"
  bottom: "inception_4e/3x3"
  top: "inception_4e/3x3"
}
layer {
  name: "inception_4e/5x5_reduce"
  type: "Convolution"
  bottom: "inception_4d/output"
  top: "inception_4e/5x5_reduce"
  param {
    lr_mult: 1
    decay_mult: 1
  }
  param {
    lr_mult: 2
    decay_mult: 0
  }
  convolution_param {
    num_output: 32
    kernel_size: 1
    weight_filler {
      type: "xavier"
      std: 0.2
    }
    bias_filler {
      type: "constant"
      value: 0.2
    }
  }
}
layer {
  name: "inception_4e/relu_5x5_reduce"
  type: "ReLU"
  bottom: "inception_4e/5x5_reduce"
  top: "inception_4e/5x5_reduce"
}
layer {
  name: "inception_4e/5x5"
  type: "Convolution"
  bottom: "inception_4e/5x5_reduce"
  top: "inception_4e/
I0403 16:11:01.338968 17282 layer_factory.hpp:77] Creating layer data
I0403 16:11:01.339710 17282 net.cpp:91] Creating Layer data
I0403 16:11:01.339747 17282 net.cpp:399] data -> data
I0403 16:11:01.339807 17282 net.cpp:399] data -> label
I0403 16:11:01.339854 17282 data_transformer.cpp:25] Loading mean file from: /home/mohanty/data/final_dataset/lmdb/segmented-20-80/mean.binaryproto
I0403 16:11:01.341284 17286 db_lmdb.cpp:38] Opened lmdb /home/mohanty/data/final_dataset/lmdb/segmented-20-80/test_db
I0403 16:11:01.359617 17282 data_layer.cpp:41] output data size: 24,3,224,224
I0403 16:11:01.392616 17282 net.cpp:141] Setting up data
I0403 16:11:01.392712 17282 net.cpp:148] Top shape: 24 3 224 224 (3612672)
I0403 16:11:01.392740 17282 net.cpp:148] Top shape: 24 (24)
I0403 16:11:01.392760 17282 net.cpp:156] Memory required for data: 14450784
I0403 16:11:01.392796 17282 layer_factory.hpp:77] Creating layer label_data_1_split
I0403 16:11:01.392828 17282 net.cpp:91] Creating Layer label_data_1_split
I0403 16:11:01.392850 17282 net.cpp:425] label_data_1_split <- label
I0403 16:11:01.392889 17282 net.cpp:399] label_data_1_split -> label_data_1_split_0
I0403 16:11:01.392922 17282 net.cpp:399] label_data_1_split -> label_data_1_split_1
I0403 16:11:01.392946 17282 net.cpp:399] label_data_1_split -> label_data_1_split_2
I0403 16:11:01.392972 17282 net.cpp:399] label_data_1_split -> label_data_1_split_3
I0403 16:11:01.392995 17282 net.cpp:399] label_data_1_split -> label_data_1_split_4
I0403 16:11:01.393019 17282 net.cpp:399] label_data_1_split -> label_data_1_split_5
I0403 16:11:01.393043 17282 net.cpp:399] label_data_1_split -> label_data_1_split_6
I0403 16:11:01.393067 17282 net.cpp:399] label_data_1_split -> label_data_1_split_7
I0403 16:11:01.393090 17282 net.cpp:399] label_data_1_split -> label_data_1_split_8
I0403 16:11:01.393115 17282 net.cpp:399] label_data_1_split -> label_data_1_split_9
I0403 16:11:01.393255 17282 net.cpp:141] Setting up label_data_1_split
I0403 16:11:01.393285 17282 net.cpp:148] Top shape: 24 (24)
I0403 16:11:01.393306 17282 net.cpp:148] Top shape: 24 (24)
I0403 16:11:01.393324 17282 net.cpp:148] Top shape: 24 (24)
I0403 16:11:01.393343 17282 net.cpp:148] Top shape: 24 (24)
I0403 16:11:01.393362 17282 net.cpp:148] Top shape: 24 (24)
I0403 16:11:01.393381 17282 net.cpp:148] Top shape: 24 (24)
I0403 16:11:01.393400 17282 net.cpp:148] Top shape: 24 (24)
I0403 16:11:01.393419 17282 net.cpp:148] Top shape: 24 (24)
I0403 16:11:01.393435 17282 net.cpp:148] Top shape: 24 (24)
I0403 16:11:01.393453 17282 net.cpp:148] Top shape: 24 (24)
I0403 16:11:01.393502 17282 net.cpp:156] Memory required for data: 14451744
I0403 16:11:01.393522 17282 layer_factory.hpp:77] Creating layer conv1/7x7_s2
I0403 16:11:01.393561 17282 net.cpp:91] Creating Layer conv1/7x7_s2
I0403 16:11:01.393584 17282 net.cpp:425] conv1/7x7_s2 <- data
I0403 16:11:01.393612 17282 net.cpp:399] conv1/7x7_s2 -> conv1/7x7_s2
I0403 16:11:01.562073 17282 net.cpp:141] Setting up conv1/7x7_s2
I0403 16:11:01.562161 17282 net.cpp:148] Top shape: 24 64 112 112 (19267584)
I0403 16:11:01.562182 17282 net.cpp:156] Memory required for data: 91522080
I0403 16:11:01.562217 17282 layer_factory.hpp:77] Creating layer conv1/relu_7x7
I0403 16:11:01.562250 17282 net.cpp:91] Creating Layer conv1/relu_7x7
I0403 16:11:01.562273 17282 net.cpp:425] conv1/relu_7x7 <- conv1/7x7_s2
I0403 16:11:01.562302 17282 net.cpp:386] conv1/relu_7x7 -> conv1/7x7_s2 (in-place)
I0403 16:11:01.562623 17282 net.cpp:141] Setting up conv1/relu_7x7
I0403 16:11:01.562656 17282 net.cpp:148] Top shape: 24 64 112 112 (19267584)
I0403 16:11:01.562676 17282 net.cpp:156] Memory required for data: 168592416
I0403 16:11:01.562693 17282 layer_factory.hpp:77] Creating layer pool1/3x3_s2
I0403 16:11:01.562722 17282 net.cpp:91] Creating Layer pool1/3x3_s2
I0403 16:11:01.562743 17282 net.cpp:425] pool1/3x3_s2 <- conv1/7x7_s2
I0403 16:11:01.562772 17282 net.cpp:399] pool1/3x3_s2 -> pool1/3x3_s2
I0403 16:11:01.562862 17282 net.cpp:141] Setting up pool1/3x3_s2
I0403 16:11:01.562896 17282 net.cpp:148] Top shape: 24 64 56 56 (4816896)
I0403 16:11:01.562913 17282 net.cpp:156] Memory required for data: 187860000
I0403 16:11:01.562930 17282 layer_factory.hpp:77] Creating layer pool1/norm1
I0403 16:11:01.562959 17282 net.cpp:91] Creating Layer pool1/norm1
I0403 16:11:01.562980 17282 net.cpp:425] pool1/norm1 <- pool1/3x3_s2
I0403 16:11:01.563004 17282 net.cpp:399] pool1/norm1 -> pool1/norm1
I0403 16:11:01.563364 17282 net.cpp:141] Setting up pool1/norm1
I0403 16:11:01.563397 17282 net.cpp:148] Top shape: 24 64 56 56 (4816896)
I0403 16:11:01.563416 17282 net.cpp:156] Memory required for data: 207127584
I0403 16:11:01.563433 17282 layer_factory.hpp:77] Creating layer conv2/3x3_reduce
I0403 16:11:01.563467 17282 net.cpp:91] Creating Layer conv2/3x3_reduce
I0403 16:11:01.563489 17282 net.cpp:425] conv2/3x3_reduce <- pool1/norm1
I0403 16:11:01.563521 17282 net.cpp:399] conv2/3x3_reduce -> conv2/3x3_reduce
I0403 16:11:01.565220 17282 net.cpp:141] Setting up conv2/3x3_reduce
I0403 16:11:01.565256 17282 net.cpp:148] Top shape: 24 64 56 56 (4816896)
I0403 16:11:01.565276 17282 net.cpp:156] Memory required for data: 226395168
I0403 16:11:01.565310 17282 layer_factory.hpp:77] Creating layer conv2/relu_3x3_reduce
I0403 16:11:01.565340 17282 net.cpp:91] Creating Layer conv2/relu_3x3_reduce
I0403 16:11:01.565361 17282 net.cpp:425] conv2/relu_3x3_reduce <- conv2/3x3_reduce
I0403 16:11:01.565382 17282 net.cpp:386] conv2/relu_3x3_reduce -> conv2/3x3_reduce (in-place)
I0403 16:11:01.565707 17282 net.cpp:141] Setting up conv2/relu_3x3_reduce
I0403 16:11:01.565739 17282 net.cpp:148] Top shape: 24 64 56 56 (4816896)
I0403 16:11:01.565758 17282 net.cpp:156] Memory required for data: 245662752
I0403 16:11:01.565775 17282 layer_factory.hpp:77] Creating layer conv2/3x3
I0403 16:11:01.565805 17282 net.cpp:91] Creating Layer conv2/3x3
I0403 16:11:01.565827 17282 net.cpp:425] conv2/3x3 <- conv2/3x3_reduce
I0403 16:11:01.565850 17282 net.cpp:399] conv2/3x3 -> conv2/3x3
I0403 16:11:01.568608 17282 net.cpp:141] Setting up conv2/3x3
I0403 16:11:01.568648 17282 net.cpp:148] Top shape: 24 192 56 56 (14450688)
I0403 16:11:01.568668 17282 net.cpp:156] Memory required for data: 303465504
I0403 16:11:01.568696 17282 layer_factory.hpp:77] Creating layer conv2/relu_3x3
I0403 16:11:01.568718 17282 net.cpp:91] Creating Layer conv2/relu_3x3
I0403 16:11:01.568737 17282 net.cpp:425] conv2/relu_3x3 <- conv2/3x3
I0403 16:11:01.568760 17282 net.cpp:386] conv2/relu_3x3 -> conv2/3x3 (in-place)
I0403 16:11:01.568976 17282 net.cpp:141] Setting up conv2/relu_3x3
I0403 16:11:01.569007 17282 net.cpp:148] Top shape: 24 192 56 56 (14450688)
I0403 16:11:01.569061 17282 net.cpp:156] Memory required for data: 361268256
I0403 16:11:01.569080 17282 layer_factory.hpp:77] Creating layer conv2/norm2
I0403 16:11:01.569105 17282 net.cpp:91] Creating Layer conv2/norm2
I0403 16:11:01.569125 17282 net.cpp:425] conv2/norm2 <- conv2/3x3
I0403 16:11:01.569147 17282 net.cpp:399] conv2/norm2 -> conv2/norm2
I0403 16:11:01.569511 17282 net.cpp:141] Setting up conv2/norm2
I0403 16:11:01.569543 17282 net.cpp:148] Top shape: 24 192 56 56 (14450688)
I0403 16:11:01.569562 17282 net.cpp:156] Memory required for data: 419071008
I0403 16:11:01.569579 17282 layer_factory.hpp:77] Creating layer pool2/3x3_s2
I0403 16:11:01.569612 17282 net.cpp:91] Creating Layer pool2/3x3_s2
I0403 16:11:01.569634 17282 net.cpp:425] pool2/3x3_s2 <- conv2/norm2
I0403 16:11:01.569656 17282 net.cpp:399] pool2/3x3_s2 -> pool2/3x3_s2
I0403 16:11:01.569721 17282 net.cpp:141] Setting up pool2/3x3_s2
I0403 16:11:01.569752 17282 net.cpp:148] Top shape: 24 192 28 28 (3612672)
I0403 16:11:01.569769 17282 net.cpp:156] Memory required for data: 433521696
I0403 16:11:01.569787 17282 layer_factory.hpp:77] Creating layer pool2/3x3_s2_pool2/3x3_s2_0_split
I0403 16:11:01.569808 17282 net.cpp:91] Creating Layer pool2/3x3_s2_pool2/3x3_s2_0_split
I0403 16:11:01.569826 17282 net.cpp:425] pool2/3x3_s2_pool2/3x3_s2_0_split <- pool2/3x3_s2
I0403 16:11:01.569849 17282 net.cpp:399] pool2/3x3_s2_pool2/3x3_s2_0_split -> pool2/3x3_s2_pool2/3x3_s2_0_split_0
I0403 16:11:01.569874 17282 net.cpp:399] pool2/3x3_s2_pool2/3x3_s2_0_split -> pool2/3x3_s2_pool2/3x3_s2_0_split_1
I0403 16:11:01.569897 17282 net.cpp:399] pool2/3x3_s2_pool2/3x3_s2_0_split -> pool2/3x3_s2_pool2/3x3_s2_0_split_2
I0403 16:11:01.569921 17282 net.cpp:399] pool2/3x3_s2_pool2/3x3_s2_0_split -> pool2/3x3_s2_pool2/3x3_s2_0_split_3
I0403 16:11:01.570008 17282 net.cpp:141] Setting up pool2/3x3_s2_pool2/3x3_s2_0_split
I0403 16:11:01.570034 17282 net.cpp:148] Top shape: 24 192 28 28 (3612672)
I0403 16:11:01.570055 17282 net.cpp:148] Top shape: 24 192 28 28 (3612672)
I0403 16:11:01.570073 17282 net.cpp:148] Top shape: 24 192 28 28 (3612672)
I0403 16:11:01.570091 17282 net.cpp:148] Top shape: 24 192 28 28 (3612672)
I0403 16:11:01.570107 17282 net.cpp:156] Memory required for data: 491324448
I0403 16:11:01.570124 17282 layer_factory.hpp:77] Creating layer inception_3a/1x1
I0403 16:11:01.570152 17282 net.cpp:91] Creating Layer inception_3a/1x1
I0403 16:11:01.570173 17282 net.cpp:425] inception_3a/1x1 <- pool2/3x3_s2_pool2/3x3_s2_0_split_0
I0403 16:11:01.570199 17282 net.cpp:399] inception_3a/1x1 -> inception_3a/1x1
I0403 16:11:01.572048 17282 net.cpp:141] Setting up inception_3a/1x1
I0403 16:11:01.572088 17282 net.cpp:148] Top shape: 24 64 28 28 (1204224)
I0403 16:11:01.572108 17282 net.cpp:156] Memory required for data: 496141344
I0403 16:11:01.572129 17282 layer_factory.hpp:77] Creating layer inception_3a/relu_1x1
I0403 16:11:01.572152 17282 net.cpp:91] Creating Layer inception_3a/relu_1x1
I0403 16:11:01.572172 17282 net.cpp:425] inception_3a/relu_1x1 <- inception_3a/1x1
I0403 16:11:01.572193 17282 net.cpp:386] inception_3a/relu_1x1 -> inception_3a/1x1 (in-place)
I0403 16:11:01.572420 17282 net.cpp:141] Setting up inception_3a/relu_1x1
I0403 16:11:01.572454 17282 net.cpp:148] Top shape: 24 64 28 28 (1204224)
I0403 16:11:01.572473 17282 net.cpp:156] Memory required for data: 500958240
I0403 16:11:01.572490 17282 layer_factory.hpp:77] Creating layer inception_3a/3x3_reduce
I0403 16:11:01.572517 17282 net.cpp:91] Creating Layer inception_3a/3x3_reduce
I0403 16:11:01.572537 17282 net.cpp:425] inception_3a/3x3_reduce <- pool2/3x3_s2_pool2/3x3_s2_0_split_1
I0403 16:11:01.572563 17282 net.cpp:399] inception_3a/3x3_reduce -> inception_3a/3x3_reduce
I0403 16:11:01.574594 17282 net.cpp:141] Setting up inception_3a/3x3_reduce
I0403 16:11:01.574641 17282 net.cpp:148] Top shape: 24 96 28 28 (1806336)
I0403 16:11:01.574661 17282 net.cpp:156] Memory required for data: 508183584
I0403 16:11:01.574689 17282 layer_factory.hpp:77] Creating layer inception_3a/relu_3x3_reduce
I0403 16:11:01.574733 17282 net.cpp:91] Creating Layer inception_3a/relu_3x3_reduce
I0403 16:11:01.574755 17282 net.cpp:425] inception_3a/relu_3x3_reduce <- inception_3a/3x3_reduce
I0403 16:11:01.574779 17282 net.cpp:386] inception_3a/relu_3x3_reduce -> inception_3a/3x3_reduce (in-place)
I0403 16:11:01.575001 17282 net.cpp:141] Setting up inception_3a/relu_3x3_reduce
I0403 16:11:01.575032 17282 net.cpp:148] Top shape: 24 96 28 28 (1806336)
I0403 16:11:01.575050 17282 net.cpp:156] Memory required for data: 515408928
I0403 16:11:01.575068 17282 layer_factory.hpp:77] Creating layer inception_3a/3x3
I0403 16:11:01.575096 17282 net.cpp:91] Creating Layer inception_3a/3x3
I0403 16:11:01.575117 17282 net.cpp:425] inception_3a/3x3 <- inception_3a/3x3_reduce
I0403 16:11:01.575142 17282 net.cpp:399] inception_3a/3x3 -> inception_3a/3x3
I0403 16:11:01.577141 17282 net.cpp:141] Setting up inception_3a/3x3
I0403 16:11:01.577178 17282 net.cpp:148] Top shape: 24 128 28 28 (2408448)
I0403 16:11:01.577198 17282 net.cpp:156] Memory required for data: 525042720
I0403 16:11:01.577220 17282 layer_factory.hpp:77] Creating layer inception_3a/relu_3x3
I0403 16:11:01.577241 17282 net.cpp:91] Creating Layer inception_3a/relu_3x3
I0403 16:11:01.577260 17282 net.cpp:425] inception_3a/relu_3x3 <- inception_3a/3x3
I0403 16:11:01.577283 17282 net.cpp:386] inception_3a/relu_3x3 -> inception_3a/3x3 (in-place)
I0403 16:11:01.577618 17282 net.cpp:141] Setting up inception_3a/relu_3x3
I0403 16:11:01.577653 17282 net.cpp:148] Top shape: 24 128 28 28 (2408448)
I0403 16:11:01.577672 17282 net.cpp:156] Memory required for data: 534676512
I0403 16:11:01.577690 17282 layer_factory.hpp:77] Creating layer inception_3a/5x5_reduce
I0403 16:11:01.577718 17282 net.cpp:91] Creating Layer inception_3a/5x5_reduce
I0403 16:11:01.577739 17282 net.cpp:425] inception_3a/5x5_reduce <- pool2/3x3_s2_pool2/3x3_s2_0_split_2
I0403 16:11:01.577765 17282 net.cpp:399] inception_3a/5x5_reduce -> inception_3a/5x5_reduce
I0403 16:11:01.578932 17282 net.cpp:141] Setting up inception_3a/5x5_reduce
I0403 16:11:01.578966 17282 net.cpp:148] Top shape: 24 16 28 28 (301056)
I0403 16:11:01.578985 17282 net.cpp:156] Memory required for data: 535880736
I0403 16:11:01.579007 17282 layer_factory.hpp:77] Creating layer inception_3a/relu_5x5_reduce
I0403 16:11:01.579030 17282 net.cpp:91] Creating Layer inception_3a/relu_5x5_reduce
I0403 16:11:01.579048 17282 net.cpp:425] inception_3a/relu_5x5_reduce <- inception_3a/5x5_reduce
I0403 16:11:01.579072 17282 net.cpp:386] inception_3a/relu_5x5_reduce -> inception_3a/5x5_reduce (in-place)
I0403 16:11:01.579426 17282 net.cpp:141] Setting up inception_3a/relu_5x5_reduce
I0403 16:11:01.579457 17282 net.cpp:148] Top shape: 24 16 28 28 (301056)
I0403 16:11:01.579476 17282 net.cpp:156] Memory required for data: 537084960
I0403 16:11:01.579494 17282 layer_factory.hpp:77] Creating layer inception_3a/5x5
I0403 16:11:01.579521 17282 net.cpp:91] Creating Layer inception_3a/5x5
I0403 16:11:01.579542 17282 net.cpp:425] inception_3a/5x5 <- inception_3a/5x5_reduce
I0403 16:11:01.579568 17282 net.cpp:399] inception_3a/5x5 -> inception_3a/5x5
I0403 16:11:01.580790 17282 net.cpp:141] Setting up inception_3a/5x5
I0403 16:11:01.580827 17282 net.cpp:148] Top shape: 24 32 28 28 (602112)
I0403 16:11:01.580848 17282 net.cpp:156] Memory required for data: 539493408
I0403 16:11:01.580870 17282 layer_factory.hpp:77] Creating layer inception_3a/relu_5x5
I0403 16:11:01.580893 17282 net.cpp:91] Creating Layer inception_3a/relu_5x5
I0403 16:11:01.580911 17282 net.cpp:425] inception_3a/relu_5x5 <- inception_3a/5x5
I0403 16:11:01.580931 17282 net.cpp:386] inception_3a/relu_5x5 -> inception_3a/5x5 (in-place)
I0403 16:11:01.581142 17282 net.cpp:141] Setting up inception_3a/relu_5x5
I0403 16:11:01.581173 17282 net.cpp:148] Top shape: 24 32 28 28 (602112)
I0403 16:11:01.581192 17282 net.cpp:156] Memory required for data: 541901856
I0403 16:11:01.581208 17282 layer_factory.hpp:77] Creating layer inception_3a/pool
I0403 16:11:01.581229 17282 net.cpp:91] Creating Layer inception_3a/pool
I0403 16:11:01.581266 17282 net.cpp:425] inception_3a/pool <- pool2/3x3_s2_pool2/3x3_s2_0_split_3
I0403 16:11:01.581292 17282 net.cpp:399] inception_3a/pool -> inception_3a/pool
I0403 16:11:01.581362 17282 net.cpp:141] Setting up inception_3a/pool
I0403 16:11:01.581394 17282 net.cpp:148] Top shape: 24 192 28 28 (3612672)
I0403 16:11:01.581413 17282 net.cpp:156] Memory required for data: 556352544
I0403 16:11:01.581430 17282 layer_factory.hpp:77] Creating layer inception_3a/pool_proj
I0403 16:11:01.581457 17282 net.cpp:91] Creating Layer inception_3a/pool_proj
I0403 16:11:01.581477 17282 net.cpp:425] inception_3a/pool_proj <- inception_3a/pool
I0403 16:11:01.581501 17282 net.cpp:399] inception_3a/pool_proj -> inception_3a/pool_proj
I0403 16:11:01.582665 17282 net.cpp:141] Setting up inception_3a/pool_proj
I0403 16:11:01.582700 17282 net.cpp:148] Top shape: 24 32 28 28 (602112)
I0403 16:11:01.582718 17282 net.cpp:156] Memory required for data: 558760992
I0403 16:11:01.582747 17282 layer_factory.hpp:77] Creating layer inception_3a/relu_pool_proj
I0403 16:11:01.582772 17282 net.cpp:91] Creating Layer inception_3a/relu_pool_proj
I0403 16:11:01.582792 17282 net.cpp:425] inception_3a/relu_pool_proj <- inception_3a/pool_proj
I0403 16:11:01.582814 17282 net.cpp:386] inception_3a/relu_pool_proj -> inception_3a/pool_proj (in-place)
I0403 16:11:01.583138 17282 net.cpp:141] Setting up inception_3a/relu_pool_proj
I0403 16:11:01.583179 17282 net.cpp:148] Top shape: 24 32 28 28 (602112)
I0403 16:11:01.583199 17282 net.cpp:156] Memory required for data: 561169440
I0403 16:11:01.583217 17282 layer_factory.hpp:77] Creating layer inception_3a/output
I0403 16:11:01.583240 17282 net.cpp:91] Creating Layer inception_3a/output
I0403 16:11:01.583258 17282 net.cpp:425] inception_3a/output <- inception_3a/1x1
I0403 16:11:01.583278 17282 net.cpp:425] inception_3a/output <- inception_3a/3x3
I0403 16:11:01.583297 17282 net.cpp:425] inception_3a/output <- inception_3a/5x5
I0403 16:11:01.583317 17282 net.cpp:425] inception_3a/output <- inception_3a/pool_proj
I0403 16:11:01.583336 17282 net.cpp:399] inception_3a/output -> inception_3a/output
I0403 16:11:01.583395 17282 net.cpp:141] Setting up inception_3a/output
I0403 16:11:01.583423 17282 net.cpp:148] Top shape: 24 256 28 28 (4816896)
I0403 16:11:01.583441 17282 net.cpp:156] Memory required for data: 580437024
I0403 16:11:01.583459 17282 layer_factory.hpp:77] Creating layer inception_3a/output_inception_3a/output_0_split
I0403 16:11:01.583482 17282 net.cpp:91] Creating Layer inception_3a/output_inception_3a/output_0_split
I0403 16:11:01.583501 17282 net.cpp:425] inception_3a/output_inception_3a/output_0_split <- inception_3a/output
I0403 16:11:01.583523 17282 net.cpp:399] inception_3a/output_inception_3a/output_0_split -> inception_3a/output_inception_3a/output_0_split_0
I0403 16:11:01.583546 17282 net.cpp:399] inception_3a/output_inception_3a/output_0_split -> inception_3a/output_inception_3a/output_0_split_1
I0403 16:11:01.583576 17282 net.cpp:399] inception_3a/output_inception_3a/output_0_split -> inception_3a/output_inception_3a/output_0_split_2
I0403 16:11:01.583608 17282 net.cpp:399] inception_3a/output_inception_3a/output_0_split -> inception_3a/output_inception_3a/output_0_split_3
I0403 16:11:01.583703 17282 net.cpp:141] Setting up inception_3a/output_inception_3a/output_0_split
I0403 16:11:01.583730 17282 net.cpp:148] Top shape: 24 256 28 28 (4816896)
I0403 16:11:01.583750 17282 net.cpp:148] Top shape: 24 256 28 28 (4816896)
I0403 16:11:01.583770 17282 net.cpp:148] Top shape: 24 256 28 28 (4816896)
I0403 16:11:01.583787 17282 net.cpp:148] Top shape: 24 256 28 28 (4816896)
I0403 16:11:01.583804 17282 net.cpp:156] Memory required for data: 657507360
I0403 16:11:01.583822 17282 layer_factory.hpp:77] Creating layer inception_3b/1x1
I0403 16:11:01.583850 17282 net.cpp:91] Creating Layer inception_3b/1x1
I0403 16:11:01.583870 17282 net.cpp:425] inception_3b/1x1 <- inception_3a/output_inception_3a/output_0_split_0
I0403 16:11:01.583894 17282 net.cpp:399] inception_3b/1x1 -> inception_3b/1x1
I0403 16:11:01.585271 17282 net.cpp:141] Setting up inception_3b/1x1
I0403 16:11:01.585319 17282 net.cpp:148] Top shape: 24 128 28 28 (2408448)
I0403 16:11:01.585340 17282 net.cpp:156] Memory required for data: 667141152
I0403 16:11:01.585362 17282 layer_factory.hpp:77] Creating layer inception_3b/relu_1x1
I0403 16:11:01.585387 17282 net.cpp:91] Creating Layer inception_3b/relu_1x1
I0403 16:11:01.585407 17282 net.cpp:425] inception_3b/relu_1x1 <- inception_3b/1x1
I0403 16:11:01.585428 17282 net.cpp:386] inception_3b/relu_1x1 -> inception_3b/1x1 (in-place)
I0403 16:11:01.585643 17282 net.cpp:141] Setting up inception_3b/relu_1x1
I0403 16:11:01.585676 17282 net.cpp:148] Top shape: 24 128 28 28 (2408448)
I0403 16:11:01.585693 17282 net.cpp:156] Memory required for data: 676774944
I0403 16:11:01.585711 17282 layer_factory.hpp:77] Creating layer inception_3b/3x3_reduce
I0403 16:11:01.585738 17282 net.cpp:91] Creating Layer inception_3b/3x3_reduce
I0403 16:11:01.585762 17282 net.cpp:425] inception_3b/3x3_reduce <- inception_3a/output_inception_3a/output_0_split_1
I0403 16:11:01.585788 17282 net.cpp:399] inception_3b/3x3_reduce -> inception_3b/3x3_reduce
I0403 16:11:01.587153 17282 net.cpp:141] Setting up inception_3b/3x3_reduce
I0403 16:11:01.587188 17282 net.cpp:148] Top shape: 24 128 28 28 (2408448)
I0403 16:11:01.587206 17282 net.cpp:156] Memory required for data: 686408736
I0403 16:11:01.587229 17282 layer_factory.hpp:77] Creating layer inception_3b/relu_3x3_reduce
I0403 16:11:01.587256 17282 net.cpp:91] Creating Layer inception_3b/relu_3x3_reduce
I0403 16:11:01.587276 17282 net.cpp:425] inception_3b/relu_3x3_reduce <- inception_3b/3x3_reduce
I0403 16:11:01.587298 17282 net.cpp:386] inception_3b/relu_3x3_reduce -> inception_3b/3x3_reduce (in-place)
I0403 16:11:01.587510 17282 net.cpp:141] Setting up inception_3b/relu_3x3_reduce
I0403 16:11:01.587544 17282 net.cpp:148] Top shape: 24 128 28 28 (2408448)
I0403 16:11:01.587564 17282 net.cpp:156] Memory required for data: 696042528
I0403 16:11:01.587582 17282 layer_factory.hpp:77] Creating layer inception_3b/3x3
I0403 16:11:01.587617 17282 net.cpp:91] Creating Layer inception_3b/3x3
I0403 16:11:01.587641 17282 net.cpp:425] inception_3b/3x3 <- inception_3b/3x3_reduce
I0403 16:11:01.587666 17282 net.cpp:399] inception_3b/3x3 -> inception_3b/3x3
I0403 16:11:01.591193 17282 net.cpp:141] Setting up inception_3b/3x3
I0403 16:11:01.591230 17282 net.cpp:148] Top shape: 24 192 28 28 (3612672)
I0403 16:11:01.591250 17282 net.cpp:156] Memory required for data: 710493216
I0403 16:11:01.591274 17282 layer_factory.hpp:77] Creating layer inception_3b/relu_3x3
I0403 16:11:01.591296 17282 net.cpp:91] Creating Layer inception_3b/relu_3x3
I0403 16:11:01.591315 17282 net.cpp:425] inception_3b/relu_3x3 <- inception_3b/3x3
I0403 16:11:01.591338 17282 net.cpp:386] inception_3b/relu_3x3 -> inception_3b/3x3 (in-place)
I0403 16:11:01.591678 17282 net.cpp:141] Setting up inception_3b/relu_3x3
I0403 16:11:01.591712 17282 net.cpp:148] Top shape: 24 192 28 28 (3612672)
I0403 16:11:01.591732 17282 net.cpp:156] Memory required for data: 724943904
I0403 16:11:01.591752 17282 layer_factory.hpp:77] Creating layer inception_3b/5x5_reduce
I0403 16:11:01.591778 17282 net.cpp:91] Creating Layer inception_3b/5x5_reduce
I0403 16:11:01.591799 17282 net.cpp:425] inception_3b/5x5_reduce <- inception_3a/output_inception_3a/output_0_split_2
I0403 16:11:01.591826 17282 net.cpp:399] inception_3b/5x5_reduce -> inception_3b/5x5_reduce
I0403 16:11:01.593031 17282 net.cpp:141] Setting up inception_3b/5x5_reduce
I0403 16:11:01.593067 17282 net.cpp:148] Top shape: 24 32 28 28 (602112)
I0403 16:11:01.593087 17282 net.cpp:156] Memory required for data: 727352352
I0403 16:11:01.593111 17282 layer_factory.hpp:77] Creating layer inception_3b/relu_5x5_reduce
I0403 16:11:01.593132 17282 net.cpp:91] Creating Layer inception_3b/relu_5x5_reduce
I0403 16:11:01.593152 17282 net.cpp:425] inception_3b/relu_5x5_reduce <- inception_3b/5x5_reduce
I0403 16:11:01.593173 17282 net.cpp:386] inception_3b/relu_5x5_reduce -> inception_3b/5x5_reduce (in-place)
I0403 16:11:01.593411 17282 net.cpp:141] Setting up inception_3b/relu_5x5_reduce
I0403 16:11:01.593443 17282 net.cpp:148] Top shape: 24 32 28 28 (602112)
I0403 16:11:01.593462 17282 net.cpp:156] Memory required for data: 729760800
I0403 16:11:01.593479 17282 layer_factory.hpp:77] Creating layer inception_3b/5x5
I0403 16:11:01.593507 17282 net.cpp:91] Creating Layer inception_3b/5x5
I0403 16:11:01.593526 17282 net.cpp:425] inception_3b/5x5 <- inception_3b/5x5_reduce
I0403 16:11:01.593552 17282 net.cpp:399] inception_3b/5x5 -> inception_3b/5x5
I0403 16:11:01.595934 17282 net.cpp:141] Setting up inception_3b/5x5
I0403 16:11:01.595970 17282 net.cpp:148] Top shape: 24 96 28 28 (1806336)
I0403 16:11:01.595988 17282 net.cpp:156] Memory required for data: 736986144
I0403 16:11:01.596010 17282 layer_factory.hpp:77] Creating layer inception_3b/relu_5x5
I0403 16:11:01.596035 17282 net.cpp:91] Creating Layer inception_3b/relu_5x5
I0403 16:11:01.596057 17282 net.cpp:425] inception_3b/relu_5x5 <- inception_3b/5x5
I0403 16:11:01.596078 17282 net.cpp:386] inception_3b/relu_5x5 -> inception_3b/5x5 (in-place)
I0403 16:11:01.596315 17282 net.cpp:141] Setting up inception_3b/relu_5x5
I0403 16:11:01.596346 17282 net.cpp:148] Top shape: 24 96 28 28 (1806336)
I0403 16:11:01.596364 17282 net.cpp:156] Memory required for data: 744211488
I0403 16:11:01.596381 17282 layer_factory.hpp:77] Creating layer inception_3b/pool
I0403 16:11:01.596402 17282 net.cpp:91] Creating Layer inception_3b/pool
I0403 16:11:01.596422 17282 net.cpp:425] inception_3b/pool <- inception_3a/output_inception_3a/output_0_split_3
I0403 16:11:01.596444 17282 net.cpp:399] inception_3b/pool -> inception_3b/pool
I0403 16:11:01.596511 17282 net.cpp:141] Setting up inception_3b/pool
I0403 16:11:01.596540 17282 net.cpp:148] Top shape: 24 256 28 28 (4816896)
I0403 16:11:01.596560 17282 net.cpp:156] Memory required for data: 763479072
I0403 16:11:01.596576 17282 layer_factory.hpp:77] Creating layer inception_3b/pool_proj
I0403 16:11:01.596607 17282 net.cpp:91] Creating Layer inception_3b/pool_proj
I0403 16:11:01.596631 17282 net.cpp:425] inception_3b/pool_proj <- inception_3b/pool
I0403 16:11:01.596657 17282 net.cpp:399] inception_3b/pool_proj -> inception_3b/pool_proj
I0403 16:11:01.597923 17282 net.cpp:141] Setting up inception_3b/pool_proj
I0403 16:11:01.597957 17282 net.cpp:148] Top shape: 24 64 28 28 (1204224)
I0403 16:11:01.597976 17282 net.cpp:156] Memory required for data: 768295968
I0403 16:11:01.597998 17282 layer_factory.hpp:77] Creating layer inception_3b/relu_pool_proj
I0403 16:11:01.598022 17282 net.cpp:91] Creating Layer inception_3b/relu_pool_proj
I0403 16:11:01.598044 17282 net.cpp:425] inception_3b/relu_pool_proj <- inception_3b/pool_proj
I0403 16:11:01.598065 17282 net.cpp:386] inception_3b/relu_pool_proj -> inception_3b/pool_proj (in-place)
I0403 16:11:01.598521 17282 net.cpp:141] Setting up inception_3b/relu_pool_proj
I0403 16:11:01.598552 17282 net.cpp:148] Top shape: 24 64 28 28 (1204224)
I0403 16:11:01.598572 17282 net.cpp:156] Memory required for data: 773112864
I0403 16:11:01.598589 17282 layer_factory.hpp:77] Creating layer inception_3b/output
I0403 16:11:01.598616 17282 net.cpp:91] Creating Layer inception_3b/output
I0403 16:11:01.598636 17282 net.cpp:425] inception_3b/output <- inception_3b/1x1
I0403 16:11:01.598657 17282 net.cpp:425] inception_3b/output <- inception_3b/3x3
I0403 16:11:01.598677 17282 net.cpp:425] inception_3b/output <- inception_3b/5x5
I0403 16:11:01.598696 17282 net.cpp:425] inception_3b/output <- inception_3b/pool_proj
I0403 16:11:01.598719 17282 net.cpp:399] inception_3b/output -> inception_3b/output
I0403 16:11:01.598773 17282 net.cpp:141] Setting up inception_3b/output
I0403 16:11:01.598803 17282 net.cpp:148] Top shape: 24 480 28 28 (9031680)
I0403 16:11:01.598822 17282 net.cpp:156] Memory required for data: 809239584
I0403 16:11:01.598840 17282 layer_factory.hpp:77] Creating layer pool3/3x3_s2
I0403 16:11:01.598861 17282 net.cpp:91] Creating Layer pool3/3x3_s2
I0403 16:11:01.598880 17282 net.cpp:425] pool3/3x3_s2 <- inception_3b/output
I0403 16:11:01.598919 17282 net.cpp:399] pool3/3x3_s2 -> pool3/3x3_s2
I0403 16:11:01.598994 17282 net.cpp:141] Setting up pool3/3x3_s2
I0403 16:11:01.599022 17282 net.cpp:148] Top shape: 24 480 14 14 (2257920)
I0403 16:11:01.599040 17282 net.cpp:156] Memory required for data: 818271264
I0403 16:11:01.599057 17282 layer_factory.hpp:77] Creating layer pool3/3x3_s2_pool3/3x3_s2_0_split
I0403 16:11:01.599077 17282 net.cpp:91] Creating Layer pool3/3x3_s2_pool3/3x3_s2_0_split
I0403 16:11:01.599097 17282 net.cpp:425] pool3/3x3_s2_pool3/3x3_s2_0_split <- pool3/3x3_s2
I0403 16:11:01.599119 17282 net.cpp:399] pool3/3x3_s2_pool3/3x3_s2_0_split -> pool3/3x3_s2_pool3/3x3_s2_0_split_0
I0403 16:11:01.599143 17282 net.cpp:399] pool3/3x3_s2_pool3/3x3_s2_0_split -> pool3/3x3_s2_pool3/3x3_s2_0_split_1
I0403 16:11:01.599166 17282 net.cpp:399] pool3/3x3_s2_pool3/3x3_s2_0_split -> pool3/3x3_s2_pool3/3x3_s2_0_split_2
I0403 16:11:01.599191 17282 net.cpp:399] pool3/3x3_s2_pool3/3x3_s2_0_split -> pool3/3x3_s2_pool3/3x3_s2_0_split_3
I0403 16:11:01.599285 17282 net.cpp:141] Setting up pool3/3x3_s2_pool3/3x3_s2_0_split
I0403 16:11:01.599313 17282 net.cpp:148] Top shape: 24 480 14 14 (2257920)
I0403 16:11:01.599334 17282 net.cpp:148] Top shape: 24 480 14 14 (2257920)
I0403 16:11:01.599352 17282 net.cpp:148] Top shape: 24 480 14 14 (2257920)
I0403 16:11:01.599371 17282 net.cpp:148] Top shape: 24 480 14 14 (2257920)
I0403 16:11:01.599387 17282 net.cpp:156] Memory required for data: 854397984
I0403 16:11:01.599405 17282 layer_factory.hpp:77] Creating layer inception_4a/1x1
I0403 16:11:01.599432 17282 net.cpp:91] Creating Layer inception_4a/1x1
I0403 16:11:01.599453 17282 net.cpp:425] inception_4a/1x1 <- pool3/3x3_s2_pool3/3x3_s2_0_split_0
I0403 16:11:01.599483 17282 net.cpp:399] inception_4a/1x1 -> inception_4a/1x1
I0403 16:11:01.601377 17282 net.cpp:141] Setting up inception_4a/1x1
I0403 16:11:01.601411 17282 net.cpp:148] Top shape: 24 192 14 14 (903168)
I0403 16:11:01.601430 17282 net.cpp:156] Memory required for data: 858010656
I0403 16:11:01.601451 17282 layer_factory.hpp:77] Creating layer inception_4a/relu_1x1
I0403 16:11:01.601476 17282 net.cpp:91] Creating Layer inception_4a/relu_1x1
I0403 16:11:01.601496 17282 net.cpp:425] inception_4a/relu_1x1 <- inception_4a/1x1
I0403 16:11:01.601517 17282 net.cpp:386] inception_4a/relu_1x1 -> inception_4a/1x1 (in-place)
I0403 16:11:01.601743 17282 net.cpp:141] Setting up inception_4a/relu_1x1
I0403 16:11:01.601774 17282 net.cpp:148] Top shape: 24 192 14 14 (903168)
I0403 16:11:01.601793 17282 net.cpp:156] Memory required for data: 861623328
I0403 16:11:01.601810 17282 layer_factory.hpp:77] Creating layer inception_4a/3x3_reduce
I0403 16:11:01.601841 17282 net.cpp:91] Creating Layer inception_4a/3x3_reduce
I0403 16:11:01.601862 17282 net.cpp:425] inception_4a/3x3_reduce <- pool3/3x3_s2_pool3/3x3_s2_0_split_1
I0403 16:11:01.601886 17282 net.cpp:399] inception_4a/3x3_reduce -> inception_4a/3x3_reduce
I0403 16:11:01.603417 17282 net.cpp:141] Setting up inception_4a/3x3_reduce
I0403 16:11:01.603451 17282 net.cpp:148] Top shape: 24 96 14 14 (451584)
I0403 16:11:01.603469 17282 net.cpp:156] Memory required for data: 863429664
I0403 16:11:01.603499 17282 layer_factory.hpp:77] Creating layer inception_4a/relu_3x3_reduce
I0403 16:11:01.603525 17282 net.cpp:91] Creating Layer inception_4a/relu_3x3_reduce
I0403 16:11:01.603545 17282 net.cpp:425] inception_4a/relu_3x3_reduce <- inception_4a/3x3_reduce
I0403 16:11:01.603569 17282 net.cpp:386] inception_4a/relu_3x3_reduce -> inception_4a/3x3_reduce (in-place)
I0403 16:11:01.603790 17282 net.cpp:141] Setting up inception_4a/relu_3x3_reduce
I0403 16:11:01.603821 17282 net.cpp:148] Top shape: 24 96 14 14 (451584)
I0403 16:11:01.603839 17282 net.cpp:156] Memory required for data: 865236000
I0403 16:11:01.603857 17282 layer_factory.hpp:77] Creating layer inception_4a/3x3
I0403 16:11:01.603884 17282 net.cpp:91] Creating Layer inception_4a/3x3
I0403 16:11:01.603905 17282 net.cpp:425] inception_4a/3x3 <- inception_4a/3x3_reduce
I0403 16:11:01.603931 17282 net.cpp:399] inception_4a/3x3 -> inception_4a/3x3
I0403 16:11:01.607203 17282 net.cpp:141] Setting up inception_4a/3x3
I0403 16:11:01.607239 17282 net.cpp:148] Top shape: 24 208 14 14 (978432)
I0403 16:11:01.607261 17282 net.cpp:156] Memory required for data: 869149728
I0403 16:11:01.607285 17282 layer_factory.hpp:77] Creating layer inception_4a/relu_3x3
I0403 16:11:01.607306 17282 net.cpp:91] Creating Layer inception_4a/relu_3x3
I0403 16:11:01.607326 17282 net.cpp:425] inception_4a/relu_3x3 <- inception_4a/3x3
I0403 16:11:01.607347 17282 net.cpp:386] inception_4a/relu_3x3 -> inception_4a/3x3 (in-place)
I0403 16:11:01.607694 17282 net.cpp:141] Setting up inception_4a/relu_3x3
I0403 16:11:01.607727 17282 net.cpp:148] Top shape: 24 208 14 14 (978432)
I0403 16:11:01.607748 17282 net.cpp:156] Memory required for data: 873063456
I0403 16:11:01.607766 17282 layer_factory.hpp:77] Creating layer inception_4a/5x5_reduce
I0403 16:11:01.607792 17282 net.cpp:91] Creating Layer inception_4a/5x5_reduce
I0403 16:11:01.607812 17282 net.cpp:425] inception_4a/5x5_reduce <- pool3/3x3_s2_pool3/3x3_s2_0_split_2
I0403 16:11:01.607837 17282 net.cpp:399] inception_4a/5x5_reduce -> inception_4a/5x5_reduce
I0403 16:11:01.609082 17282 net.cpp:141] Setting up inception_4a/5x5_reduce
I0403 16:11:01.609120 17282 net.cpp:148] Top shape: 24 16 14 14 (75264)
I0403 16:11:01.609140 17282 net.cpp:156] Memory required for data: 873364512
I0403 16:11:01.609163 17282 layer_factory.hpp:77] Creating layer inception_4a/relu_5x5_reduce
I0403 16:11:01.609184 17282 net.cpp:91] Creating Layer inception_4a/relu_5x5_reduce
I0403 16:11:01.609205 17282 net.cpp:425] inception_4a/relu_5x5_reduce <- inception_4a/5x5_reduce
I0403 16:11:01.609225 17282 net.cpp:386] inception_4a/relu_5x5_reduce -> inception_4a/5x5_reduce (in-place)
I0403 16:11:01.609444 17282 net.cpp:141] Setting up inception_4a/relu_5x5_reduce
I0403 16:11:01.609475 17282 net.cpp:148] Top shape: 24 16 14 14 (75264)
I0403 16:11:01.609494 17282 net.cpp:156] Memory required for data: 873665568
I0403 16:11:01.609511 17282 layer_factory.hpp:77] Creating layer inception_4a/5x5
I0403 16:11:01.609539 17282 net.cpp:91] Creating Layer inception_4a/5x5
I0403 16:11:01.609560 17282 net.cpp:425] inception_4a/5x5 <- inception_4a/5x5_reduce
I0403 16:11:01.609589 17282 net.cpp:399] inception_4a/5x5 -> inception_4a/5x5
I0403 16:11:01.610911 17282 net.cpp:141] Setting up inception_4a/5x5
I0403 16:11:01.610945 17282 net.cpp:148] Top shape: 24 48 14 14 (225792)
I0403 16:11:01.610965 17282 net.cpp:156] Memory required for data: 874568736
I0403 16:11:01.610987 17282 layer_factory.hpp:77] Creating layer inception_4a/relu_5x5
I0403 16:11:01.611009 17282 net.cpp:91] Creating Layer inception_4a/relu_5x5
I0403 16:11:01.611029 17282 net.cpp:425] inception_4a/relu_5x5 <- inception_4a/5x5
I0403 16:11:01.611052 17282 net.cpp:386] inception_4a/relu_5x5 -> inception_4a/5x5 (in-place)
I0403 16:11:01.611274 17282 net.cpp:141] Setting up inception_4a/relu_5x5
I0403 16:11:01.611305 17282 net.cpp:148] Top shape: 24 48 14 14 (225792)
I0403 16:11:01.611322 17282 net.cpp:156] Memory required for data: 875471904
I0403 16:11:01.611340 17282 layer_factory.hpp:77] Creating layer inception_4a/pool
I0403 16:11:01.611364 17282 net.cpp:91] Creating Layer inception_4a/pool
I0403 16:11:01.611385 17282 net.cpp:425] inception_4a/pool <- pool3/3x3_s2_pool3/3x3_s2_0_split_3
I0403 16:11:01.611407 17282 net.cpp:399] inception_4a/pool -> inception_4a/pool
I0403 16:11:01.611482 17282 net.cpp:141] Setting up inception_4a/pool
I0403 16:11:01.611511 17282 net.cpp:148] Top shape: 24 480 14 14 (2257920)
I0403 16:11:01.611529 17282 net.cpp:156] Memory required for data: 884503584
I0403 16:11:01.611546 17282 layer_factory.hpp:77] Creating layer inception_4a/pool_proj
I0403 16:11:01.611572 17282 net.cpp:91] Creating Layer inception_4a/pool_proj
I0403 16:11:01.611593 17282 net.cpp:425] inception_4a/pool_proj <- inception_4a/pool
I0403 16:11:01.611626 17282 net.cpp:399] inception_4a/pool_proj -> inception_4a/pool_proj
I0403 16:11:01.613035 17282 net.cpp:141] Setting up inception_4a/pool_proj
I0403 16:11:01.613070 17282 net.cpp:148] Top shape: 24 64 14 14 (301056)
I0403 16:11:01.613107 17282 net.cpp:156] Memory required for data: 885707808
I0403 16:11:01.613131 17282 layer_factory.hpp:77] Creating layer inception_4a/relu_pool_proj
I0403 16:11:01.613157 17282 net.cpp:91] Creating Layer inception_4a/relu_pool_proj
I0403 16:11:01.613179 17282 net.cpp:425] inception_4a/relu_pool_proj <- inception_4a/pool_proj
I0403 16:11:01.613200 17282 net.cpp:386] inception_4a/relu_pool_proj -> inception_4a/pool_proj (in-place)
I0403 16:11:01.613539 17282 net.cpp:141] Setting up inception_4a/relu_pool_proj
I0403 16:11:01.613571 17282 net.cpp:148] Top shape: 24 64 14 14 (301056)
I0403 16:11:01.613590 17282 net.cpp:156] Memory required for data: 886912032
I0403 16:11:01.613615 17282 layer_factory.hpp:77] Creating layer inception_4a/output
I0403 16:11:01.613636 17282 net.cpp:91] Creating Layer inception_4a/output
I0403 16:11:01.613653 17282 net.cpp:425] inception_4a/output <- inception_4a/1x1
I0403 16:11:01.613673 17282 net.cpp:425] inception_4a/output <- inception_4a/3x3
I0403 16:11:01.613693 17282 net.cpp:425] inception_4a/output <- inception_4a/5x5
I0403 16:11:01.613713 17282 net.cpp:425] inception_4a/output <- inception_4a/pool_proj
I0403 16:11:01.613735 17282 net.cpp:399] inception_4a/output -> inception_4a/output
I0403 16:11:01.613793 17282 net.cpp:141] Setting up inception_4a/output
I0403 16:11:01.613822 17282 net.cpp:148] Top shape: 24 512 14 14 (2408448)
I0403 16:11:01.613840 17282 net.cpp:156] Memory required for data: 896545824
I0403 16:11:01.613857 17282 layer_factory.hpp:77] Creating layer inception_4a/output_inception_4a/output_0_split
I0403 16:11:01.613878 17282 net.cpp:91] Creating Layer inception_4a/output_inception_4a/output_0_split
I0403 16:11:01.613896 17282 net.cpp:425] inception_4a/output_inception_4a/output_0_split <- inception_4a/output
I0403 16:11:01.613925 17282 net.cpp:399] inception_4a/output_inception_4a/output_0_split -> inception_4a/output_inception_4a/output_0_split_0
I0403 16:11:01.613950 17282 net.cpp:399] inception_4a/output_inception_4a/output_0_split -> inception_4a/output_inception_4a/output_0_split_1
I0403 16:11:01.613976 17282 net.cpp:399] inception_4a/output_inception_4a/output_0_split -> inception_4a/output_inception_4a/output_0_split_2
I0403 16:11:01.614001 17282 net.cpp:399] inception_4a/output_inception_4a/output_0_split -> inception_4a/output_inception_4a/output_0_split_3
I0403 16:11:01.614024 17282 net.cpp:399] inception_4a/output_inception_4a/output_0_split -> inception_4a/output_inception_4a/output_0_split_4
I0403 16:11:01.614135 17282 net.cpp:141] Setting up inception_4a/output_inception_4a/output_0_split
I0403 16:11:01.614166 17282 net.cpp:148] Top shape: 24 512 14 14 (2408448)
I0403 16:11:01.614187 17282 net.cpp:148] Top shape: 24 512 14 14 (2408448)
I0403 16:11:01.614207 17282 net.cpp:148] Top shape: 24 512 14 14 (2408448)
I0403 16:11:01.614225 17282 net.cpp:148] Top shape: 24 512 14 14 (2408448)
I0403 16:11:01.614243 17282 net.cpp:148] Top shape: 24 512 14 14 (2408448)
I0403 16:11:01.614260 17282 net.cpp:156] Memory required for data: 944714784
I0403 16:11:01.614279 17282 layer_factory.hpp:77] Creating layer loss1/ave_pool
I0403 16:11:01.614301 17282 net.cpp:91] Creating Layer loss1/ave_pool
I0403 16:11:01.614322 17282 net.cpp:425] loss1/ave_pool <- inception_4a/output_inception_4a/output_0_split_0
I0403 16:11:01.614346 17282 net.cpp:399] loss1/ave_pool -> loss1/ave_pool
I0403 16:11:01.614594 17282 net.cpp:141] Setting up loss1/ave_pool
I0403 16:11:01.614639 17282 net.cpp:148] Top shape: 24 512 4 4 (196608)
I0403 16:11:01.614657 17282 net.cpp:156] Memory required for data: 945501216
I0403 16:11:01.614676 17282 layer_factory.hpp:77] Creating layer loss1/conv
I0403 16:11:01.614704 17282 net.cpp:91] Creating Layer loss1/conv
I0403 16:11:01.614725 17282 net.cpp:425] loss1/conv <- loss1/ave_pool
I0403 16:11:01.614751 17282 net.cpp:399] loss1/conv -> loss1/conv
I0403 16:11:01.616454 17282 net.cpp:141] Setting up loss1/conv
I0403 16:11:01.616492 17282 net.cpp:148] Top shape: 24 128 4 4 (49152)
I0403 16:11:01.616528 17282 net.cpp:156] Memory required for data: 945697824
I0403 16:11:01.616552 17282 layer_factory.hpp:77] Creating layer loss1/relu_conv
I0403 16:11:01.616575 17282 net.cpp:91] Creating Layer loss1/relu_conv
I0403 16:11:01.616595 17282 net.cpp:425] loss1/relu_conv <- loss1/conv
I0403 16:11:01.616621 17282 net.cpp:386] loss1/relu_conv -> loss1/conv (in-place)
I0403 16:11:01.616961 17282 net.cpp:141] Setting up loss1/relu_conv
I0403 16:11:01.616997 17282 net.cpp:148] Top shape: 24 128 4 4 (49152)
I0403 16:11:01.617017 17282 net.cpp:156] Memory required for data: 945894432
I0403 16:11:01.617034 17282 layer_factory.hpp:77] Creating layer loss1/fc
I0403 16:11:01.617063 17282 net.cpp:91] Creating Layer loss1/fc
I0403 16:11:01.617084 17282 net.cpp:425] loss1/fc <- loss1/conv
I0403 16:11:01.617110 17282 net.cpp:399] loss1/fc -> loss1/fc
I0403 16:11:01.639060 17282 net.cpp:141] Setting up loss1/fc
I0403 16:11:01.639099 17282 net.cpp:148] Top shape: 24 1024 (24576)
I0403 16:11:01.639119 17282 net.cpp:156] Memory required for data: 945992736
I0403 16:11:01.639142 17282 layer_factory.hpp:77] Creating layer loss1/relu_fc
I0403 16:11:01.639168 17282 net.cpp:91] Creating Layer loss1/relu_fc
I0403 16:11:01.639188 17282 net.cpp:425] loss1/relu_fc <- loss1/fc
I0403 16:11:01.639209 17282 net.cpp:386] loss1/relu_fc -> loss1/fc (in-place)
I0403 16:11:01.639437 17282 net.cpp:141] Setting up loss1/relu_fc
I0403 16:11:01.639468 17282 net.cpp:148] Top shape: 24 1024 (24576)
I0403 16:11:01.639487 17282 net.cpp:156] Memory required for data: 946091040
I0403 16:11:01.639504 17282 layer_factory.hpp:77] Creating layer loss1/drop_fc
I0403 16:11:01.639536 17282 net.cpp:91] Creating Layer loss1/drop_fc
I0403 16:11:01.639559 17282 net.cpp:425] loss1/drop_fc <- loss1/fc
I0403 16:11:01.639580 17282 net.cpp:386] loss1/drop_fc -> loss1/fc (in-place)
I0403 16:11:01.639649 17282 net.cpp:141] Setting up loss1/drop_fc
I0403 16:11:01.639678 17282 net.cpp:148] Top shape: 24 1024 (24576)
I0403 16:11:01.639695 17282 net.cpp:156] Memory required for data: 946189344
I0403 16:11:01.639714 17282 layer_factory.hpp:77] Creating layer loss1/classifier_plantvillage
I0403 16:11:01.639735 17282 net.cpp:91] Creating Layer loss1/classifier_plantvillage
I0403 16:11:01.639755 17282 net.cpp:425] loss1/classifier_plantvillage <- loss1/fc
I0403 16:11:01.639781 17282 net.cpp:399] loss1/classifier_plantvillage -> loss1/classifier_plantvillage
I0403 16:11:01.640887 17282 net.cpp:141] Setting up loss1/classifier_plantvillage
I0403 16:11:01.640923 17282 net.cpp:148] Top shape: 24 38 (912)
I0403 16:11:01.640944 17282 net.cpp:156] Memory required for data: 946192992
I0403 16:11:01.640965 17282 layer_factory.hpp:77] Creating layer loss1/classifier_plantvillage_loss1/classifier_plantvillage_0_split
I0403 16:11:01.640986 17282 net.cpp:91] Creating Layer loss1/classifier_plantvillage_loss1/classifier_plantvillage_0_split
I0403 16:11:01.641006 17282 net.cpp:425] loss1/classifier_plantvillage_loss1/classifier_plantvillage_0_split <- loss1/classifier_plantvillage
I0403 16:11:01.641027 17282 net.cpp:399] loss1/classifier_plantvillage_loss1/classifier_plantvillage_0_split -> loss1/classifier_plantvillage_loss1/classifier_plantvillage_0_split_0
I0403 16:11:01.641052 17282 net.cpp:399] loss1/classifier_plantvillage_loss1/classifier_plantvillage_0_split -> loss1/classifier_plantvillage_loss1/classifier_plantvillage_0_split_1
I0403 16:11:01.641075 17282 net.cpp:399] loss1/classifier_plantvillage_loss1/classifier_plantvillage_0_split -> loss1/classifier_plantvillage_loss1/classifier_plantvillage_0_split_2
I0403 16:11:01.641156 17282 net.cpp:141] Setting up loss1/classifier_plantvillage_loss1/classifier_plantvillage_0_split
I0403 16:11:01.641185 17282 net.cpp:148] Top shape: 24 38 (912)
I0403 16:11:01.641204 17282 net.cpp:148] Top shape: 24 38 (912)
I0403 16:11:01.641224 17282 net.cpp:148] Top shape: 24 38 (912)
I0403 16:11:01.641242 17282 net.cpp:156] Memory required for data: 946203936
I0403 16:11:01.641259 17282 layer_factory.hpp:77] Creating layer inception_4b/1x1
I0403 16:11:01.641283 17282 net.cpp:91] Creating Layer inception_4b/1x1
I0403 16:11:01.641324 17282 net.cpp:425] inception_4b/1x1 <- inception_4a/output_inception_4a/output_0_split_1
I0403 16:11:01.641351 17282 net.cpp:399] inception_4b/1x1 -> inception_4b/1x1
I0403 16:11:01.643335 17282 net.cpp:141] Setting up inception_4b/1x1
I0403 16:11:01.643378 17282 net.cpp:148] Top shape: 24 160 14 14 (752640)
I0403 16:11:01.643399 17282 net.cpp:156] Memory required for data: 949214496
I0403 16:11:01.643422 17282 layer_factory.hpp:77] Creating layer inception_4b/relu_1x1
I0403 16:11:01.643445 17282 net.cpp:91] Creating Layer inception_4b/relu_1x1
I0403 16:11:01.643465 17282 net.cpp:425] inception_4b/relu_1x1 <- inception_4b/1x1
I0403 16:11:01.643486 17282 net.cpp:386] inception_4b/relu_1x1 -> inception_4b/1x1 (in-place)
I0403 16:11:01.643713 17282 net.cpp:141] Setting up inception_4b/relu_1x1
I0403 16:11:01.643745 17282 net.cpp:148] Top shape: 24 160 14 14 (752640)
I0403 16:11:01.643764 17282 net.cpp:156] Memory required for data: 952225056
I0403 16:11:01.643780 17282 layer_factory.hpp:77] Creating layer inception_4b/3x3_reduce
I0403 16:11:01.643807 17282 net.cpp:91] Creating Layer inception_4b/3x3_reduce
I0403 16:11:01.643829 17282 net.cpp:425] inception_4b/3x3_reduce <- inception_4a/output_inception_4a/output_0_split_2
I0403 16:11:01.643858 17282 net.cpp:399] inception_4b/3x3_reduce -> inception_4b/3x3_reduce
I0403 16:11:01.645509 17282 net.cpp:141] Setting up inception_4b/3x3_reduce
I0403 16:11:01.645546 17282 net.cpp:148] Top shape: 24 112 14 14 (526848)
I0403 16:11:01.645567 17282 net.cpp:156] Memory required for data: 954332448
I0403 16:11:01.645591 17282 layer_factory.hpp:77] Creating layer inception_4b/relu_3x3_reduce
I0403 16:11:01.645618 17282 net.cpp:91] Creating Layer inception_4b/relu_3x3_reduce
I0403 16:11:01.645639 17282 net.cpp:425] inception_4b/relu_3x3_reduce <- inception_4b/3x3_reduce
I0403 16:11:01.645664 17282 net.cpp:386] inception_4b/relu_3x3_reduce -> inception_4b/3x3_reduce (in-place)
I0403 16:11:01.646000 17282 net.cpp:141] Setting up inception_4b/relu_3x3_reduce
I0403 16:11:01.646036 17282 net.cpp:148] Top shape: 24 112 14 14 (526848)
I0403 16:11:01.646057 17282 net.cpp:156] Memory required for data: 956439840
I0403 16:11:01.646075 17282 layer_factory.hpp:77] Creating layer inception_4b/3x3
I0403 16:11:01.646102 17282 net.cpp:91] Creating Layer inception_4b/3x3
I0403 16:11:01.646123 17282 net.cpp:425] inception_4b/3x3 <- inception_4b/3x3_reduce
I0403 16:11:01.646150 17282 net.cpp:399] inception_4b/3x3 -> inception_4b/3x3
I0403 16:11:01.649792 17282 net.cpp:141] Setting up inception_4b/3x3
I0403 16:11:01.649828 17282 net.cpp:148] Top shape: 24 224 14 14 (1053696)
I0403 16:11:01.649847 17282 net.cpp:156] Memory required for data: 960654624
I0403 16:11:01.649869 17282 layer_factory.hpp:77] Creating layer inception_4b/relu_3x3
I0403 16:11:01.649895 17282 net.cpp:91] Creating Layer inception_4b/relu_3x3
I0403 16:11:01.649917 17282 net.cpp:425] inception_4b/relu_3x3 <- inception_4b/3x3
I0403 16:11:01.649938 17282 net.cpp:386] inception_4b/relu_3x3 -> inception_4b/3x3 (in-place)
I0403 16:11:01.650162 17282 net.cpp:141] Setting up inception_4b/relu_3x3
I0403 16:11:01.650193 17282 net.cpp:148] Top shape: 24 224 14 14 (1053696)
I0403 16:11:01.650213 17282 net.cpp:156] Memory required for data: 964869408
I0403 16:11:01.650230 17282 layer_factory.hpp:77] Creating layer inception_4b/5x5_reduce
I0403 16:11:01.650259 17282 net.cpp:91] Creating Layer inception_4b/5x5_reduce
I0403 16:11:01.650280 17282 net.cpp:425] inception_4b/5x5_reduce <- inception_4a/output_inception_4a/output_0_split_3
I0403 16:11:01.650305 17282 net.cpp:399] inception_4b/5x5_reduce -> inception_4b/5x5_reduce
I0403 16:11:01.651629 17282 net.cpp:141] Setting up inception_4b/5x5_reduce
I0403 16:11:01.651666 17282 net.cpp:148] Top shape: 24 24 14 14 (112896)
I0403 16:11:01.651686 17282 net.cpp:156] Memory required for data: 965320992
I0403 16:11:01.651710 17282 layer_factory.hpp:77] Creating layer inception_4b/relu_5x5_reduce
I0403 16:11:01.651732 17282 net.cpp:91] Creating Layer inception_4b/relu_5x5_reduce
I0403 16:11:01.651770 17282 net.cpp:425] inception_4b/relu_5x5_reduce <- inception_4b/5x5_reduce
I0403 16:11:01.651796 17282 net.cpp:386] inception_4b/relu_5x5_reduce -> inception_4b/5x5_reduce (in-place)
I0403 16:11:01.652021 17282 net.cpp:141] Setting up inception_4b/relu_5x5_reduce
I0403 16:11:01.652052 17282 net.cpp:148] Top shape: 24 24 14 14 (112896)
I0403 16:11:01.652070 17282 net.cpp:156] Memory required for data: 965772576
I0403 16:11:01.652089 17282 layer_factory.hpp:77] Creating layer inception_4b/5x5
I0403 16:11:01.652117 17282 net.cpp:91] Creating Layer inception_4b/5x5
I0403 16:11:01.652138 17282 net.cpp:425] inception_4b/5x5 <- inception_4b/5x5_reduce
I0403 16:11:01.652168 17282 net.cpp:399] inception_4b/5x5 -> inception_4b/5x5
I0403 16:11:01.653679 17282 net.cpp:141] Setting up inception_4b/5x5
I0403 16:11:01.653715 17282 net.cpp:148] Top shape: 24 64 14 14 (301056)
I0403 16:11:01.653736 17282 net.cpp:156] Memory required for data: 966976800
I0403 16:11:01.653759 17282 layer_factory.hpp:77] Creating layer inception_4b/relu_5x5
I0403 16:11:01.653780 17282 net.cpp:91] Creating Layer inception_4b/relu_5x5
I0403 16:11:01.653800 17282 net.cpp:425] inception_4b/relu_5x5 <- inception_4b/5x5
I0403 16:11:01.653820 17282 net.cpp:386] inception_4b/relu_5x5 -> inception_4b/5x5 (in-place)
I0403 16:11:01.654170 17282 net.cpp:141] Setting up inception_4b/relu_5x5
I0403 16:11:01.654204 17282 net.cpp:148] Top shape: 24 64 14 14 (301056)
I0403 16:11:01.654225 17282 net.cpp:156] Memory required for data: 968181024
I0403 16:11:01.654243 17282 layer_factory.hpp:77] Creating layer inception_4b/pool
I0403 16:11:01.654265 17282 net.cpp:91] Creating Layer inception_4b/pool
I0403 16:11:01.654285 17282 net.cpp:425] inception_4b/pool <- inception_4a/output_inception_4a/output_0_split_4
I0403 16:11:01.654307 17282 net.cpp:399] inception_4b/pool -> inception_4b/pool
I0403 16:11:01.654387 17282 net.cpp:141] Setting up inception_4b/pool
I0403 16:11:01.654417 17282 net.cpp:148] Top shape: 24 512 14 14 (2408448)
I0403 16:11:01.654433 17282 net.cpp:156] Memory required for data: 977814816
I0403 16:11:01.654451 17282 layer_factory.hpp:77] Creating layer inception_4b/pool_proj
I0403 16:11:01.654477 17282 net.cpp:91] Creating Layer inception_4b/pool_proj
I0403 16:11:01.654500 17282 net.cpp:425] inception_4b/pool_proj <- inception_4b/pool
I0403 16:11:01.654526 17282 net.cpp:399] inception_4b/pool_proj -> inception_4b/pool_proj
I0403 16:11:01.656011 17282 net.cpp:141] Setting up inception_4b/pool_proj
I0403 16:11:01.656049 17282 net.cpp:148] Top shape: 24 64 14 14 (301056)
I0403 16:11:01.656069 17282 net.cpp:156] Memory required for data: 979019040
I0403 16:11:01.656090 17282 layer_factory.hpp:77] Creating layer inception_4b/relu_pool_proj
I0403 16:11:01.656112 17282 net.cpp:91] Creating Layer inception_4b/relu_pool_proj
I0403 16:11:01.656133 17282 net.cpp:425] inception_4b/relu_pool_proj <- inception_4b/pool_proj
I0403 16:11:01.656159 17282 net.cpp:386] inception_4b/relu_pool_proj -> inception_4b/pool_proj (in-place)
I0403 16:11:01.656381 17282 net.cpp:141] Setting up inception_4b/relu_pool_proj
I0403 16:11:01.656414 17282 net.cpp:148] Top shape: 24 64 14 14 (301056)
I0403 16:11:01.656431 17282 net.cpp:156] Memory required for data: 980223264
I0403 16:11:01.656448 17282 layer_factory.hpp:77] Creating layer inception_4b/output
I0403 16:11:01.656469 17282 net.cpp:91] Creating Layer inception_4b/output
I0403 16:11:01.656488 17282 net.cpp:425] inception_4b/output <- inception_4b/1x1
I0403 16:11:01.656509 17282 net.cpp:425] inception_4b/output <- inception_4b/3x3
I0403 16:11:01.656528 17282 net.cpp:425] inception_4b/output <- inception_4b/5x5
I0403 16:11:01.656548 17282 net.cpp:425] inception_4b/output <- inception_4b/pool_proj
I0403 16:11:01.656571 17282 net.cpp:399] inception_4b/output -> inception_4b/output
I0403 16:11:01.656630 17282 net.cpp:141] Setting up inception_4b/output
I0403 16:11:01.656663 17282 net.cpp:148] Top shape: 24 512 14 14 (2408448)
I0403 16:11:01.656682 17282 net.cpp:156] Memory required for data: 989857056
I0403 16:11:01.656721 17282 layer_factory.hpp:77] Creating layer inception_4b/output_inception_4b/output_0_split
I0403 16:11:01.656744 17282 net.cpp:91] Creating Layer inception_4b/output_inception_4b/output_0_split
I0403 16:11:01.656762 17282 net.cpp:425] inception_4b/output_inception_4b/output_0_split <- inception_4b/output
I0403 16:11:01.656786 17282 net.cpp:399] inception_4b/output_inception_4b/output_0_split -> inception_4b/output_inception_4b/output_0_split_0
I0403 16:11:01.656813 17282 net.cpp:399] inception_4b/output_inception_4b/output_0_split -> inception_4b/output_inception_4b/output_0_split_1
I0403 16:11:01.656837 17282 net.cpp:399] inception_4b/output_inception_4b/output_0_split -> inception_4b/output_inception_4b/output_0_split_2
I0403 16:11:01.656862 17282 net.cpp:399] inception_4b/output_inception_4b/output_0_split -> inception_4b/output_inception_4b/output_0_split_3
I0403 16:11:01.656960 17282 net.cpp:141] Setting up inception_4b/output_inception_4b/output_0_split
I0403 16:11:01.656988 17282 net.cpp:148] Top shape: 24 512 14 14 (2408448)
I0403 16:11:01.657008 17282 net.cpp:148] Top shape: 24 512 14 14 (2408448)
I0403 16:11:01.657027 17282 net.cpp:148] Top shape: 24 512 14 14 (2408448)
I0403 16:11:01.657047 17282 net.cpp:148] Top shape: 24 512 14 14 (2408448)
I0403 16:11:01.657063 17282 net.cpp:156] Memory required for data: 1028392224
I0403 16:11:01.657080 17282 layer_factory.hpp:77] Creating layer inception_4c/1x1
I0403 16:11:01.657109 17282 net.cpp:91] Creating Layer inception_4c/1x1
I0403 16:11:01.657130 17282 net.cpp:425] inception_4c/1x1 <- inception_4b/output_inception_4b/output_0_split_0
I0403 16:11:01.657156 17282 net.cpp:399] inception_4c/1x1 -> inception_4c/1x1
I0403 16:11:01.658916 17282 net.cpp:141] Setting up inception_4c/1x1
I0403 16:11:01.658952 17282 net.cpp:148] Top shape: 24 128 14 14 (602112)
I0403 16:11:01.658972 17282 net.cpp:156] Memory required for data: 1030800672
I0403 16:11:01.658994 17282 layer_factory.hpp:77] Creating layer inception_4c/relu_1x1
I0403 16:11:01.659020 17282 net.cpp:91] Creating Layer inception_4c/relu_1x1
I0403 16:11:01.659042 17282 net.cpp:425] inception_4c/relu_1x1 <- inception_4c/1x1
I0403 16:11:01.659063 17282 net.cpp:386] inception_4c/relu_1x1 -> inception_4c/1x1 (in-place)
I0403 16:11:01.659283 17282 net.cpp:141] Setting up inception_4c/relu_1x1
I0403 16:11:01.659313 17282 net.cpp:148] Top shape: 24 128 14 14 (602112)
I0403 16:11:01.659332 17282 net.cpp:156] Memory required for data: 1033209120
I0403 16:11:01.659350 17282 layer_factory.hpp:77] Creating layer inception_4c/3x3_reduce
I0403 16:11:01.659379 17282 net.cpp:91] Creating Layer inception_4c/3x3_reduce
I0403 16:11:01.659400 17282 net.cpp:425] inception_4c/3x3_reduce <- inception_4b/output_inception_4b/output_0_split_1
I0403 16:11:01.659425 17282 net.cpp:399] inception_4c/3x3_reduce -> inception_4c/3x3_reduce
I0403 16:11:01.661792 17282 net.cpp:141] Setting up inception_4c/3x3_reduce
I0403 16:11:01.661830 17282 net.cpp:148] Top shape: 24 128 14 14 (602112)
I0403 16:11:01.661849 17282 net.cpp:156] Memory required for data: 1035617568
I0403 16:11:01.661872 17282 layer_factory.hpp:77] Creating layer inception_4c/relu_3x3_reduce
I0403 16:11:01.661897 17282 net.cpp:91] Creating Layer inception_4c/relu_3x3_reduce
I0403 16:11:01.661918 17282 net.cpp:425] inception_4c/relu_3x3_reduce <- inception_4c/3x3_reduce
I0403 16:11:01.661941 17282 net.cpp:386] inception_4c/relu_3x3_reduce -> inception_4c/3x3_reduce (in-place)
I0403 16:11:01.662284 17282 net.cpp:141] Setting up inception_4c/relu_3x3_reduce
I0403 16:11:01.662318 17282 net.cpp:148] Top shape: 24 128 14 14 (602112)
I0403 16:11:01.662336 17282 net.cpp:156] Memory required for data: 1038026016
I0403 16:11:01.662354 17282 layer_factory.hpp:77] Creating layer inception_4c/3x3
I0403 16:11:01.662385 17282 net.cpp:91] Creating Layer inception_4c/3x3
I0403 16:11:01.662407 17282 net.cpp:425] inception_4c/3x3 <- inception_4c/3x3_reduce
I0403 16:11:01.662430 17282 net.cpp:399] inception_4c/3x3 -> inception_4c/3x3
I0403 16:11:01.666831 17282 net.cpp:141] Setting up inception_4c/3x3
I0403 16:11:01.666885 17282 net.cpp:148] Top shape: 24 256 14 14 (1204224)
I0403 16:11:01.666908 17282 net.cpp:156] Memory required for data: 1042842912
I0403 16:11:01.666950 17282 layer_factory.hpp:77] Creating layer inception_4c/relu_3x3
I0403 16:11:01.666976 17282 net.cpp:91] Creating Layer inception_4c/relu_3x3
I0403 16:11:01.666996 17282 net.cpp:425] inception_4c/relu_3x3 <- inception_4c/3x3
I0403 16:11:01.667016 17282 net.cpp:386] inception_4c/relu_3x3 -> inception_4c/3x3 (in-place)
I0403 16:11:01.667238 17282 net.cpp:141] Setting up inception_4c/relu_3x3
I0403 16:11:01.667273 17282 net.cpp:148] Top shape: 24 256 14 14 (1204224)
I0403 16:11:01.667292 17282 net.cpp:156] Memory required for data: 1047659808
I0403 16:11:01.667310 17282 layer_factory.hpp:77] Creating layer inception_4c/5x5_reduce
I0403 16:11:01.667340 17282 net.cpp:91] Creating Layer inception_4c/5x5_reduce
I0403 16:11:01.667361 17282 net.cpp:425] inception_4c/5x5_reduce <- inception_4b/output_inception_4b/output_0_split_2
I0403 16:11:01.667384 17282 net.cpp:399] inception_4c/5x5_reduce -> inception_4c/5x5_reduce
I0403 16:11:01.668735 17282 net.cpp:141] Setting up inception_4c/5x5_reduce
I0403 16:11:01.668771 17282 net.cpp:148] Top shape: 24 24 14 14 (112896)
I0403 16:11:01.668792 17282 net.cpp:156] Memory required for data: 1048111392
I0403 16:11:01.668815 17282 layer_factory.hpp:77] Creating layer inception_4c/relu_5x5_reduce
I0403 16:11:01.668838 17282 net.cpp:91] Creating Layer inception_4c/relu_5x5_reduce
I0403 16:11:01.668858 17282 net.cpp:425] inception_4c/relu_5x5_reduce <- inception_4c/5x5_reduce
I0403 16:11:01.668881 17282 net.cpp:386] inception_4c/relu_5x5_reduce -> inception_4c/5x5_reduce (in-place)
I0403 16:11:01.669111 17282 net.cpp:141] Setting up inception_4c/relu_5x5_reduce
I0403 16:11:01.669142 17282 net.cpp:148] Top shape: 24 24 14 14 (112896)
I0403 16:11:01.669158 17282 net.cpp:156] Memory required for data: 1048562976
I0403 16:11:01.669176 17282 layer_factory.hpp:77] Creating layer inception_4c/5x5
I0403 16:11:01.669203 17282 net.cpp:91] Creating Layer inception_4c/5x5
I0403 16:11:01.669225 17282 net.cpp:425] inception_4c/5x5 <- inception_4c/5x5_reduce
I0403 16:11:01.669252 17282 net.cpp:399] inception_4c/5x5 -> inception_4c/5x5
I0403 16:11:01.670799 17282 net.cpp:141] Setting up inception_4c/5x5
I0403 16:11:01.670832 17282 net.cpp:148] Top shape: 24 64 14 14 (301056)
I0403 16:11:01.670851 17282 net.cpp:156] Memory required for data: 1049767200
I0403 16:11:01.670873 17282 layer_factory.hpp:77] Creating layer inception_4c/relu_5x5
I0403 16:11:01.670897 17282 net.cpp:91] Creating Layer inception_4c/relu_5x5
I0403 16:11:01.670918 17282 net.cpp:425] inception_4c/relu_5x5 <- inception_4c/5x5
I0403 16:11:01.670940 17282 net.cpp:386] inception_4c/relu_5x5 -> inception_4c/5x5 (in-place)
I0403 16:11:01.671293 17282 net.cpp:141] Setting up inception_4c/relu_5x5
I0403 16:11:01.671326 17282 net.cpp:148] Top shape: 24 64 14 14 (301056)
I0403 16:11:01.671345 17282 net.cpp:156] Memory required for data: 1050971424
I0403 16:11:01.671362 17282 layer_factory.hpp:77] Creating layer inception_4c/pool
I0403 16:11:01.671385 17282 net.cpp:91] Creating Layer inception_4c/pool
I0403 16:11:01.671404 17282 net.cpp:425] inception_4c/pool <- inception_4b/output_inception_4b/output_0_split_3
I0403 16:11:01.671429 17282 net.cpp:399] inception_4c/pool -> inception_4c/pool
I0403 16:11:01.671510 17282 net.cpp:141] Setting up inception_4c/pool
I0403 16:11:01.671541 17282 net.cpp:148] Top shape: 24 512 14 14 (2408448)
I0403 16:11:01.671560 17282 net.cpp:156] Memory required for data: 1060605216
I0403 16:11:01.671576 17282 layer_factory.hpp:77] Creating layer inception_4c/pool_proj
I0403 16:11:01.671670 17282 net.cpp:91] Creating Layer inception_4c/pool_proj
I0403 16:11:01.671699 17282 net.cpp:425] inception_4c/pool_proj <- inception_4c/pool
I0403 16:11:01.671722 17282 net.cpp:399] inception_4c/pool_proj -> inception_4c/pool_proj
I0403 16:11:01.673216 17282 net.cpp:141] Setting up inception_4c/pool_proj
I0403 16:11:01.673254 17282 net.cpp:148] Top shape: 24 64 14 14 (301056)
I0403 16:11:01.673293 17282 net.cpp:156] Memory required for data: 1061809440
I0403 16:11:01.673317 17282 layer_factory.hpp:77] Creating layer inception_4c/relu_pool_proj
I0403 16:11:01.673338 17282 net.cpp:91] Creating Layer inception_4c/relu_pool_proj
I0403 16:11:01.673358 17282 net.cpp:425] inception_4c/relu_pool_proj <- inception_4c/pool_proj
I0403 16:11:01.673378 17282 net.cpp:386] inception_4c/relu_pool_proj -> inception_4c/pool_proj (in-place)
I0403 16:11:01.673609 17282 net.cpp:141] Setting up inception_4c/relu_pool_proj
I0403 16:11:01.673640 17282 net.cpp:148] Top shape: 24 64 14 14 (301056)
I0403 16:11:01.673658 17282 net.cpp:156] Memory required for data: 1063013664
I0403 16:11:01.673676 17282 layer_factory.hpp:77] Creating layer inception_4c/output
I0403 16:11:01.673696 17282 net.cpp:91] Creating Layer inception_4c/output
I0403 16:11:01.673714 17282 net.cpp:425] inception_4c/output <- inception_4c/1x1
I0403 16:11:01.673734 17282 net.cpp:425] inception_4c/output <- inception_4c/3x3
I0403 16:11:01.673753 17282 net.cpp:425] inception_4c/output <- inception_4c/5x5
I0403 16:11:01.673773 17282 net.cpp:425] inception_4c/output <- inception_4c/pool_proj
I0403 16:11:01.673795 17282 net.cpp:399] inception_4c/output -> inception_4c/output
I0403 16:11:01.673853 17282 net.cpp:141] Setting up inception_4c/output
I0403 16:11:01.673884 17282 net.cpp:148] Top shape: 24 512 14 14 (2408448)
I0403 16:11:01.673902 17282 net.cpp:156] Memory required for data: 1072647456
I0403 16:11:01.673919 17282 layer_factory.hpp:77] Creating layer inception_4c/output_inception_4c/output_0_split
I0403 16:11:01.673940 17282 net.cpp:91] Creating Layer inception_4c/output_inception_4c/output_0_split
I0403 16:11:01.673959 17282 net.cpp:425] inception_4c/output_inception_4c/output_0_split <- inception_4c/output
I0403 16:11:01.673980 17282 net.cpp:399] inception_4c/output_inception_4c/output_0_split -> inception_4c/output_inception_4c/output_0_split_0
I0403 16:11:01.674008 17282 net.cpp:399] inception_4c/output_inception_4c/output_0_split -> inception_4c/output_inception_4c/output_0_split_1
I0403 16:11:01.674033 17282 net.cpp:399] inception_4c/output_inception_4c/output_0_split -> inception_4c/output_inception_4c/output_0_split_2
I0403 16:11:01.674057 17282 net.cpp:399] inception_4c/output_inception_4c/output_0_split -> inception_4c/output_inception_4c/output_0_split_3
I0403 16:11:01.674161 17282 net.cpp:141] Setting up inception_4c/output_inception_4c/output_0_split
I0403 16:11:01.674190 17282 net.cpp:148] Top shape: 24 512 14 14 (2408448)
I0403 16:11:01.674209 17282 net.cpp:148] Top shape: 24 512 14 14 (2408448)
I0403 16:11:01.674227 17282 net.cpp:148] Top shape: 24 512 14 14 (2408448)
I0403 16:11:01.674252 17282 net.cpp:148] Top shape: 24 512 14 14 (2408448)
I0403 16:11:01.674269 17282 net.cpp:156] Memory required for data: 1111182624
I0403 16:11:01.674286 17282 layer_factory.hpp:77] Creating layer inception_4d/1x1
I0403 16:11:01.674314 17282 net.cpp:91] Creating Layer inception_4d/1x1
I0403 16:11:01.674335 17282 net.cpp:425] inception_4d/1x1 <- inception_4c/output_inception_4c/output_0_split_0
I0403 16:11:01.674360 17282 net.cpp:399] inception_4d/1x1 -> inception_4d/1x1
I0403 16:11:01.676064 17282 net.cpp:141] Setting up inception_4d/1x1
I0403 16:11:01.676098 17282 net.cpp:148] Top shape: 24 112 14 14 (526848)
I0403 16:11:01.676118 17282 net.cpp:156] Memory required for data: 1113290016
I0403 16:11:01.676141 17282 layer_factory.hpp:77] Creating layer inception_4d/relu_1x1
I0403 16:11:01.676165 17282 net.cpp:91] Creating Layer inception_4d/relu_1x1
I0403 16:11:01.676187 17282 net.cpp:425] inception_4d/relu_1x1 <- inception_4d/1x1
I0403 16:11:01.676208 17282 net.cpp:386] inception_4d/relu_1x1 -> inception_4d/1x1 (in-place)
I0403 16:11:01.676439 17282 net.cpp:141] Setting up inception_4d/relu_1x1
I0403 16:11:01.676471 17282 net.cpp:148] Top shape: 24 112 14 14 (526848)
I0403 16:11:01.676491 17282 net.cpp:156] Memory required for data: 1115397408
I0403 16:11:01.676508 17282 layer_factory.hpp:77] Creating layer inception_4d/3x3_reduce
I0403 16:11:01.676553 17282 net.cpp:91] Creating Layer inception_4d/3x3_reduce
I0403 16:11:01.676575 17282 net.cpp:425] inception_4d/3x3_reduce <- inception_4c/output_inception_4c/output_0_split_1
I0403 16:11:01.676602 17282 net.cpp:399] inception_4d/3x3_reduce -> inception_4d/3x3_reduce
I0403 16:11:01.678448 17282 net.cpp:141] Setting up inception_4d/3x3_reduce
I0403 16:11:01.678483 17282 net.cpp:148] Top shape: 24 144 14 14 (677376)
I0403 16:11:01.678501 17282 net.cpp:156] Memory required for data: 1118106912
I0403 16:11:01.678524 17282 layer_factory.hpp:77] Creating layer inception_4d/relu_3x3_reduce
I0403 16:11:01.678546 17282 net.cpp:91] Creating Layer inception_4d/relu_3x3_reduce
I0403 16:11:01.678566 17282 net.cpp:425] inception_4d/relu_3x3_reduce <- inception_4d/3x3_reduce
I0403 16:11:01.678591 17282 net.cpp:386] inception_4d/relu_3x3_reduce -> inception_4d/3x3_reduce (in-place)
I0403 16:11:01.678946 17282 net.cpp:141] Setting up inception_4d/relu_3x3_reduce
I0403 16:11:01.678980 17282 net.cpp:148] Top shape: 24 144 14 14 (677376)
I0403 16:11:01.678999 17282 net.cpp:156] Memory required for data: 1120816416
I0403 16:11:01.679018 17282 layer_factory.hpp:77] Creating layer inception_4d/3x3
I0403 16:11:01.679044 17282 net.cpp:91] Creating Layer inception_4d/3x3
I0403 16:11:01.679066 17282 net.cpp:425] inception_4d/3x3 <- inception_4d/3x3_reduce
I0403 16:11:01.679091 17282 net.cpp:399] inception_4d/3x3 -> inception_4d/3x3
I0403 16:11:01.684366 17282 net.cpp:141] Setting up inception_4d/3x3
I0403 16:11:01.684402 17282 net.cpp:148] Top shape: 24 288 14 14 (1354752)
I0403 16:11:01.684422 17282 net.cpp:156] Memory required for data: 1126235424
I0403 16:11:01.684444 17282 layer_factory.hpp:77] Creating layer inception_4d/relu_3x3
I0403 16:11:01.684468 17282 net.cpp:91] Creating Layer inception_4d/relu_3x3
I0403 16:11:01.684490 17282 net.cpp:425] inception_4d/relu_3x3 <- inception_4d/3x3
I0403 16:11:01.684512 17282 net.cpp:386] inception_4d/relu_3x3 -> inception_4d/3x3 (in-place)
I0403 16:11:01.684751 17282 net.cpp:141] Setting up inception_4d/relu_3x3
I0403 16:11:01.684784 17282 net.cpp:148] Top shape: 24 288 14 14 (1354752)
I0403 16:11:01.684803 17282 net.cpp:156] Memory required for data: 1131654432
I0403 16:11:01.684821 17282 layer_factory.hpp:77] Creating layer inception_4d/5x5_reduce
I0403 16:11:01.684854 17282 net.cpp:91] Creating Layer inception_4d/5x5_reduce
I0403 16:11:01.684875 17282 net.cpp:425] inception_4d/5x5_reduce <- inception_4c/output_inception_4c/output_0_split_2
I0403 16:11:01.684901 17282 net.cpp:399] inception_4d/5x5_reduce -> inception_4d/5x5_reduce
I0403 16:11:01.686316 17282 net.cpp:141] Setting up inception_4d/5x5_reduce
I0403 16:11:01.686352 17282 net.cpp:148] Top shape: 24 32 14 14 (150528)
I0403 16:11:01.686370 17282 net.cpp:156] Memory required for data: 1132256544
I0403 16:11:01.686393 17282 layer_factory.hpp:77] Creating layer inception_4d/relu_5x5_reduce
I0403 16:11:01.686416 17282 net.cpp:91] Creating Layer inception_4d/relu_5x5_reduce
I0403 16:11:01.686437 17282 net.cpp:425] inception_4d/relu_5x5_reduce <- inception_4d/5x5_reduce
I0403 16:11:01.686460 17282 net.cpp:386] inception_4d/relu_5x5_reduce -> inception_4d/5x5_reduce (in-place)
I0403 16:11:01.686697 17282 net.cpp:141] Setting up inception_4d/relu_5x5_reduce
I0403 16:11:01.686729 17282 net.cpp:148] Top shape: 24 32 14 14 (150528)
I0403 16:11:01.686749 17282 net.cpp:156] Memory required for data: 1132858656
I0403 16:11:01.686767 17282 layer_factory.hpp:77] Creating layer inception_4d/5x5
I0403 16:11:01.686794 17282 net.cpp:91] Creating Layer inception_4d/5x5
I0403 16:11:01.686816 17282 net.cpp:425] inception_4d/5x5 <- inception_4d/5x5_reduce
I0403 16:11:01.686841 17282 net.cpp:399] inception_4d/5x5 -> inception_4d/5x5
I0403 16:11:01.688637 17282 net.cpp:141] Setting up inception_4d/5x5
I0403 16:11:01.688673 17282 net.cpp:148] Top shape: 24 64 14 14 (301056)
I0403 16:11:01.688693 17282 net.cpp:156] Memory required for data: 1134062880
I0403 16:11:01.688716 17282 layer_factory.hpp:77] Creating layer inception_4d/relu_5x5
I0403 16:11:01.688755 17282 net.cpp:91] Creating Layer inception_4d/relu_5x5
I0403 16:11:01.688777 17282 net.cpp:425] inception_4d/relu_5x5 <- inception_4d/5x5
I0403 16:11:01.688802 17282 net.cpp:386] inception_4d/relu_5x5 -> inception_4d/5x5 (in-place)
I0403 16:11:01.689165 17282 net.cpp:141] Setting up inception_4d/relu_5x5
I0403 16:11:01.689200 17282 net.cpp:148] Top shape: 24 64 14 14 (301056)
I0403 16:11:01.689220 17282 net.cpp:156] Memory required for data: 1135267104
I0403 16:11:01.689239 17282 layer_factory.hpp:77] Creating layer inception_4d/pool
I0403 16:11:01.689260 17282 net.cpp:91] Creating Layer inception_4d/pool
I0403 16:11:01.689280 17282 net.cpp:425] inception_4d/pool <- inception_4c/output_inception_4c/output_0_split_3
I0403 16:11:01.689307 17282 net.cpp:399] inception_4d/pool -> inception_4d/pool
I0403 16:11:01.689393 17282 net.cpp:141] Setting up inception_4d/pool
I0403 16:11:01.689426 17282 net.cpp:148] Top shape: 24 512 14 14 (2408448)
I0403 16:11:01.689445 17282 net.cpp:156] Memory required for data: 1144900896
I0403 16:11:01.689462 17282 layer_factory.hpp:77] Creating layer inception_4d/pool_proj
I0403 16:11:01.689489 17282 net.cpp:91] Creating Layer inception_4d/pool_proj
I0403 16:11:01.689512 17282 net.cpp:425] inception_4d/pool_proj <- inception_4d/pool
I0403 16:11:01.689534 17282 net.cpp:399] inception_4d/pool_proj -> inception_4d/pool_proj
I0403 16:11:01.691700 17282 net.cpp:141] Setting up inception_4d/pool_proj
I0403 16:11:01.691735 17282 net.cpp:148] Top shape: 24 64 14 14 (301056)
I0403 16:11:01.691756 17282 net.cpp:156] Memory required for data: 1146105120
I0403 16:11:01.691777 17282 layer_factory.hpp:77] Creating layer inception_4d/relu_pool_proj
I0403 16:11:01.691804 17282 net.cpp:91] Creating Layer inception_4d/relu_pool_proj
I0403 16:11:01.691825 17282 net.cpp:425] inception_4d/relu_pool_proj <- inception_4d/pool_proj
I0403 16:11:01.691848 17282 net.cpp:386] inception_4d/relu_pool_proj -> inception_4d/pool_proj (in-place)
I0403 16:11:01.692070 17282 net.cpp:141] Setting up inception_4d/relu_pool_proj
I0403 16:11:01.692104 17282 net.cpp:148] Top shape: 24 64 14 14 (301056)
I0403 16:11:01.692122 17282 net.cpp:156] Memory required for data: 1147309344
I0403 16:11:01.692140 17282 layer_factory.hpp:77] Creating layer inception_4d/output
I0403 16:11:01.692160 17282 net.cpp:91] Creating Layer inception_4d/output
I0403 16:11:01.692179 17282 net.cpp:425] inception_4d/output <- inception_4d/1x1
I0403 16:11:01.692199 17282 net.cpp:425] inception_4d/output <- inception_4d/3x3
I0403 16:11:01.692219 17282 net.cpp:425] inception_4d/output <- inception_4d/5x5
I0403 16:11:01.692239 17282 net.cpp:425] inception_4d/output <- inception_4d/pool_proj
I0403 16:11:01.692260 17282 net.cpp:399] inception_4d/output -> inception_4d/output
I0403 16:11:01.692318 17282 net.cpp:141] Setting up inception_4d/output
I0403 16:11:01.692348 17282 net.cpp:148] Top shape: 24 528 14 14 (2483712)
I0403 16:11:01.692365 17282 net.cpp:156] Memory required for data: 1157244192
I0403 16:11:01.692384 17282 layer_factory.hpp:77] Creating layer inception_4d/output_inception_4d/output_0_split
I0403 16:11:01.692407 17282 net.cpp:91] Creating Layer inception_4d/output_inception_4d/output_0_split
I0403 16:11:01.692427 17282 net.cpp:425] inception_4d/output_inception_4d/output_0_split <- inception_4d/output
I0403 16:11:01.692450 17282 net.cpp:399] inception_4d/output_inception_4d/output_0_split -> inception_4d/output_inception_4d/output_0_split_0
I0403 16:11:01.692473 17282 net.cpp:399] inception_4d/output_inception_4d/output_0_split -> inception_4d/output_inception_4d/output_0_split_1
I0403 16:11:01.692499 17282 net.cpp:399] inception_4d/output_inception_4d/output_0_split -> inception_4d/output_inception_4d/output_0_split_2
I0403 16:11:01.692526 17282 net.cpp:399] inception_4d/output_inception_4d/output_0_split -> inception_4d/output_inception_4d/output_0_split_3
I0403 16:11:01.692551 17282 net.cpp:399] inception_4d/output_inception_4d/output_0_split -> inception_4d/output_inception_4d/output_0_split_4
I0403 16:11:01.692687 17282 net.cpp:141] Setting up inception_4d/output_inception_4d/output_0_split
I0403 16:11:01.692731 17282 net.cpp:148] Top shape: 24 528 14 14 (2483712)
I0403 16:11:01.692754 17282 net.cpp:148] Top shape: 24 528 14 14 (2483712)
I0403 16:11:01.692772 17282 net.cpp:148] Top shape: 24 528 14 14 (2483712)
I0403 16:11:01.692791 17282 net.cpp:148] Top shape: 24 528 14 14 (2483712)
I0403 16:11:01.692809 17282 net.cpp:148] Top shape: 24 528 14 14 (2483712)
I0403 16:11:01.692826 17282 net.cpp:156] Memory required for data: 1206918432
I0403 16:11:01.692844 17282 layer_factory.hpp:77] Creating layer loss2/ave_pool
I0403 16:11:01.692869 17282 net.cpp:91] Creating Layer loss2/ave_pool
I0403 16:11:01.692890 17282 net.cpp:425] loss2/ave_pool <- inception_4d/output_inception_4d/output_0_split_0
I0403 16:11:01.692914 17282 net.cpp:399] loss2/ave_pool -> loss2/ave_pool
I0403 16:11:01.693295 17282 net.cpp:141] Setting up loss2/ave_pool
I0403 16:11:01.693327 17282 net.cpp:148] Top shape: 24 528 4 4 (202752)
I0403 16:11:01.693346 17282 net.cpp:156] Memory required for data: 1207729440
I0403 16:11:01.693364 17282 layer_factory.hpp:77] Creating layer loss2/conv
I0403 16:11:01.693393 17282 net.cpp:91] Creating Layer loss2/conv
I0403 16:11:01.693415 17282 net.cpp:425] loss2/conv <- loss2/ave_pool
I0403 16:11:01.693439 17282 net.cpp:399] loss2/conv -> loss2/conv
I0403 16:11:01.695768 17282 net.cpp:141] Setting up loss2/conv
I0403 16:11:01.695804 17282 net.cpp:148] Top shape: 24 128 4 4 (49152)
I0403 16:11:01.695824 17282 net.cpp:156] Memory required for data: 1207926048
I0403 16:11:01.695847 17282 layer_factory.hpp:77] Creating layer loss2/relu_conv
I0403 16:11:01.695869 17282 net.cpp:91] Creating Layer loss2/relu_conv
I0403 16:11:01.695888 17282 net.cpp:425] loss2/relu_conv <- loss2/conv
I0403 16:11:01.695914 17282 net.cpp:386] loss2/relu_conv -> loss2/conv (in-place)
I0403 16:11:01.696257 17282 net.cpp:141] Setting up loss2/relu_conv
I0403 16:11:01.696290 17282 net.cpp:148] Top shape: 24 128 4 4 (49152)
I0403 16:11:01.696310 17282 net.cpp:156] Memory required for data: 1208122656
I0403 16:11:01.696327 17282 layer_factory.hpp:77] Creating layer loss2/fc
I0403 16:11:01.696351 17282 net.cpp:91] Creating Layer loss2/fc
I0403 16:11:01.696369 17282 net.cpp:425] loss2/fc <- loss2/conv
I0403 16:11:01.696394 17282 net.cpp:399] loss2/fc -> loss2/fc
I0403 16:11:01.718380 17282 net.cpp:141] Setting up loss2/fc
I0403 16:11:01.718423 17282 net.cpp:148] Top shape: 24 1024 (24576)
I0403 16:11:01.718443 17282 net.cpp:156] Memory required for data: 1208220960
I0403 16:11:01.718466 17282 layer_factory.hpp:77] Creating layer loss2/relu_fc
I0403 16:11:01.718487 17282 net.cpp:91] Creating Layer loss2/relu_fc
I0403 16:11:01.718508 17282 net.cpp:425] loss2/relu_fc <- loss2/fc
I0403 16:11:01.718529 17282 net.cpp:386] loss2/relu_fc -> loss2/fc (in-place)
I0403 16:11:01.718894 17282 net.cpp:141] Setting up loss2/relu_fc
I0403 16:11:01.718930 17282 net.cpp:148] Top shape: 24 1024 (24576)
I0403 16:11:01.718950 17282 net.cpp:156] Memory required for data: 1208319264
I0403 16:11:01.718968 17282 layer_factory.hpp:77] Creating layer loss2/drop_fc
I0403 16:11:01.718991 17282 net.cpp:91] Creating Layer loss2/drop_fc
I0403 16:11:01.719010 17282 net.cpp:425] loss2/drop_fc <- loss2/fc
I0403 16:11:01.719032 17282 net.cpp:386] loss2/drop_fc -> loss2/fc (in-place)
I0403 16:11:01.719094 17282 net.cpp:141] Setting up loss2/drop_fc
I0403 16:11:01.719122 17282 net.cpp:148] Top shape: 24 1024 (24576)
I0403 16:11:01.719140 17282 net.cpp:156] Memory required for data: 1208417568
I0403 16:11:01.719158 17282 layer_factory.hpp:77] Creating layer loss2/classifier_plantvillage
I0403 16:11:01.719183 17282 net.cpp:91] Creating Layer loss2/classifier_plantvillage
I0403 16:11:01.719203 17282 net.cpp:425] loss2/classifier_plantvillage <- loss2/fc
I0403 16:11:01.719225 17282 net.cpp:399] loss2/classifier_plantvillage -> loss2/classifier_plantvillage
I0403 16:11:01.719729 17282 net.cpp:141] Setting up loss2/classifier_plantvillage
I0403 16:11:01.719763 17282 net.cpp:148] Top shape: 24 38 (912)
I0403 16:11:01.719801 17282 net.cpp:156] Memory required for data: 1208421216
I0403 16:11:01.719825 17282 layer_factory.hpp:77] Creating layer loss2/classifier_plantvillage_loss2/classifier_plantvillage_0_split
I0403 16:11:01.719848 17282 net.cpp:91] Creating Layer loss2/classifier_plantvillage_loss2/classifier_plantvillage_0_split
I0403 16:11:01.719868 17282 net.cpp:425] loss2/classifier_plantvillage_loss2/classifier_plantvillage_0_split <- loss2/classifier_plantvillage
I0403 16:11:01.719892 17282 net.cpp:399] loss2/classifier_plantvillage_loss2/classifier_plantvillage_0_split -> loss2/classifier_plantvillage_loss2/classifier_plantvillage_0_split_0
I0403 16:11:01.719918 17282 net.cpp:399] loss2/classifier_plantvillage_loss2/classifier_plantvillage_0_split -> loss2/classifier_plantvillage_loss2/classifier_plantvillage_0_split_1
I0403 16:11:01.719943 17282 net.cpp:399] loss2/classifier_plantvillage_loss2/classifier_plantvillage_0_split -> loss2/classifier_plantvillage_loss2/classifier_plantvillage_0_split_2
I0403 16:11:01.720038 17282 net.cpp:141] Setting up loss2/classifier_plantvillage_loss2/classifier_plantvillage_0_split
I0403 16:11:01.720069 17282 net.cpp:148] Top shape: 24 38 (912)
I0403 16:11:01.720089 17282 net.cpp:148] Top shape: 24 38 (912)
I0403 16:11:01.720108 17282 net.cpp:148] Top shape: 24 38 (912)
I0403 16:11:01.720124 17282 net.cpp:156] Memory required for data: 1208432160
I0403 16:11:01.720141 17282 layer_factory.hpp:77] Creating layer inception_4e/1x1
I0403 16:11:01.720168 17282 net.cpp:91] Creating Layer inception_4e/1x1
I0403 16:11:01.720191 17282 net.cpp:425] inception_4e/1x1 <- inception_4d/output_inception_4d/output_0_split_1
I0403 16:11:01.720213 17282 net.cpp:399] inception_4e/1x1 -> inception_4e/1x1
I0403 16:11:01.722456 17282 net.cpp:141] Setting up inception_4e/1x1
I0403 16:11:01.722491 17282 net.cpp:148] Top shape: 24 256 14 14 (1204224)
I0403 16:11:01.722511 17282 net.cpp:156] Memory required for data: 1213249056
I0403 16:11:01.722532 17282 layer_factory.hpp:77] Creating layer inception_4e/relu_1x1
I0403 16:11:01.722554 17282 net.cpp:91] Creating Layer inception_4e/relu_1x1
I0403 16:11:01.722578 17282 net.cpp:425] inception_4e/relu_1x1 <- inception_4e/1x1
I0403 16:11:01.722604 17282 net.cpp:386] inception_4e/relu_1x1 -> inception_4e/1x1 (in-place)
I0403 16:11:01.722965 17282 net.cpp:141] Setting up inception_4e/relu_1x1
I0403 16:11:01.722997 17282 net.cpp:148] Top shape: 24 256 14 14 (1204224)
I0403 16:11:01.723016 17282 net.cpp:156] Memory required for data: 1218065952
I0403 16:11:01.723034 17282 layer_factory.hpp:77] Creating layer inception_4e/3x3_reduce
I0403 16:11:01.723063 17282 net.cpp:91] Creating Layer inception_4e/3x3_reduce
I0403 16:11:01.723085 17282 net.cpp:425] inception_4e/3x3_reduce <- inception_4d/output_inception_4d/output_0_split_2
I0403 16:11:01.723111 17282 net.cpp:399] inception_4e/3x3_reduce -> inception_4e/3x3_reduce
I0403 16:11:01.725699 17282 net.cpp:141] Setting up inception_4e/3x3_reduce
I0403 16:11:01.725736 17282 net.cpp:148] Top shape: 24 160 14 14 (752640)
I0403 16:11:01.725756 17282 net.cpp:156] Memory required for data: 1221076512
I0403 16:11:01.725780 17282 layer_factory.hpp:77] Creating layer inception_4e/relu_3x3_reduce
I0403 16:11:01.725801 17282 net.cpp:91] Creating Layer inception_4e/relu_3x3_reduce
I0403 16:11:01.725821 17282 net.cpp:425] inception_4e/relu_3x3_reduce <- inception_4e/3x3_reduce
I0403 16:11:01.725846 17282 net.cpp:386] inception_4e/relu_3x3_reduce -> inception_4e/3x3_reduce (in-place)
I0403 16:11:01.726073 17282 net.cpp:141] Setting up inception_4e/relu_3x3_reduce
I0403 16:11:01.726104 17282 net.cpp:148] Top shape: 24 160 14 14 (752640)
I0403 16:11:01.726124 17282 net.cpp:156] Memory required for data: 1224087072
I0403 16:11:01.726140 17282 layer_factory.hpp:77] Creating layer inception_4e/3x3
I0403 16:11:01.726167 17282 net.cpp:91] Creating Layer inception_4e/3x3
I0403 16:11:01.726188 17282 net.cpp:425] inception_4e/3x3 <- inception_4e/3x3_reduce
I0403 16:11:01.726214 17282 net.cpp:399] inception_4e/3x3 -> inception_4e/3x3
I0403 16:11:01.732403 17282 net.cpp:141] Setting up inception_4e/3x3
I0403 16:11:01.732453 17282 net.cpp:148] Top shape: 24 320 14 14 (1505280)
I0403 16:11:01.732472 17282 net.cpp:156] Memory required for data: 1230108192
I0403 16:11:01.732496 17282 layer_factory.hpp:77] Creating layer inception_4e/relu_3x3
I0403 16:11:01.732520 17282 net.cpp:91] Creating Layer inception_4e/relu_3x3
I0403 16:11:01.732542 17282 net.cpp:425] inception_4e/relu_3x3 <- inception_4e/3x3
I0403 16:11:01.732563 17282 net.cpp:386] inception_4e/relu_3x3 -> inception_4e/3x3 (in-place)
I0403 16:11:01.732928 17282 net.cpp:141] Setting up inception_4e/relu_3x3
I0403 16:11:01.732961 17282 net.cpp:148] Top shape: 24 320 14 14 (1505280)
I0403 16:11:01.732980 17282 net.cpp:156] Memory required for data: 1236129312
I0403 16:11:01.732997 17282 layer_factory.hpp:77] Creating layer inception_4e/5x5_reduce
I0403 16:11:01.733024 17282 net.cpp:91] Creating Layer inception_4e/5x5_reduce
I0403 16:11:01.733045 17282 net.cpp:425] inception_4e/5x5_reduce <- inception_4d/output_inception_4d/output_0_split_3
I0403 16:11:01.733073 17282 net.cpp:399] inception_4e/5x5_reduce -> inception_4e/5x5_reduce
I0403 16:11:01.734380 17282 net.cpp:141] Setting up inception_4e/5x5_reduce
I0403 16:11:01.734417 17282 net.cpp:148] Top shape: 24 32 14 14 (150528)
I0403 16:11:01.734436 17282 net.cpp:156] Memory required for data: 1236731424
I0403 16:11:01.734458 17282 layer_factory.hpp:77] Creating layer inception_4e/relu_5x5_reduce
I0403 16:11:01.734480 17282 net.cpp:91] Creating Layer inception_4e/relu_5x5_reduce
I0403 16:11:01.734501 17282 net.cpp:425] inception_4e/relu_5x5_reduce <- inception_4e/5x5_reduce
I0403 16:11:01.734525 17282 net.cpp:386] inception_4e/relu_5x5_reduce -> inception_4e/5x5_reduce (in-place)
I0403 16:11:01.734907 17282 net.cpp:141] Setting up inception_4e/relu_5x5_reduce
I0403 16:11:01.734943 17282 net.cpp:148] Top shape: 24 32 14 14 (150528)
I0403 16:11:01.734963 17282 net.cpp:156] Memory required for data: 1237333536
I0403 16:11:01.734982 17282 layer_factory.hpp:77] Creating layer inception_4e/5x5
I0403 16:11:01.735028 17282 net.cpp:91] Creating Layer inception_4e/5x5
I0403 16:11:01.735052 17282 net.cpp:425] inception_4e/5x5 <- inception_4e/5x5_reduce
I0403 16:11:01.735076 17282 net.cpp:399] inception_4e/5x5 -> inception_4e/5x5
I0403 16:11:01.737318 17282 net.cpp:141] Setting up inception_4e/5x5
I0403 16:11:01.737354 17282 net.cpp:148] Top shape: 24 128 14 14 (602112)
I0403 16:11:01.737372 17282 net.cpp:156] Memory required for data: 1239741984
I0403 16:11:01.737396 17282 layer_factory.hpp:77] Creating layer inception_4e/relu_5x5
I0403 16:11:01.737421 17282 net.cpp:91] Creating Layer inception_4e/relu_5x5
I0403 16:11:01.737443 17282 net.cpp:425] inception_4e/relu_5x5 <- inception_4e/5x5
I0403 16:11:01.737464 17282 net.cpp:386] inception_4e/relu_5x5 -> inception_4e/5x5 (in-place)
I0403 16:11:01.737715 17282 net.cpp:141] Setting up inception_4e/relu_5x5
I0403 16:11:01.737746 17282 net.cpp:148] Top shape: 24 128 14 14 (602112)
I0403 16:11:01.737764 17282 net.cpp:156] Memory required for data: 1242150432
I0403 16:11:01.737782 17282 layer_factory.hpp:77] Creating layer inception_4e/pool
I0403 16:11:01.737804 17282 net.cpp:91] Creating Layer inception_4e/pool
I0403 16:11:01.737824 17282 net.cpp:425] inception_4e/pool <- inception_4d/output_inception_4d/output_0_split_4
I0403 16:11:01.737848 17282 net.cpp:399] inception_4e/pool -> inception_4e/pool
I0403 16:11:01.737936 17282 net.cpp:141] Setting up inception_4e/pool
I0403 16:11:01.737965 17282 net.cpp:148] Top shape: 24 528 14 14 (2483712)
I0403 16:11:01.737983 17282 net.cpp:156] Memory required for data: 1252085280
I0403 16:11:01.738001 17282 layer_factory.hpp:77] Creating layer inception_4e/pool_proj
I0403 16:11:01.738029 17282 net.cpp:91] Creating Layer inception_4e/pool_proj
I0403 16:11:01.738051 17282 net.cpp:425] inception_4e/pool_proj <- inception_4e/pool
I0403 16:11:01.738073 17282 net.cpp:399] inception_4e/pool_proj -> inception_4e/pool_proj
I0403 16:11:01.739914 17282 net.cpp:141] Setting up inception_4e/pool_proj
I0403 16:11:01.739964 17282 net.cpp:148] Top shape: 24 128 14 14 (602112)
I0403 16:11:01.739985 17282 net.cpp:156] Memory required for data: 1254493728
I0403 16:11:01.740008 17282 layer_factory.hpp:77] Creating layer inception_4e/relu_pool_proj
I0403 16:11:01.740033 17282 net.cpp:91] Creating Layer inception_4e/relu_pool_proj
I0403 16:11:01.740054 17282 net.cpp:425] inception_4e/relu_pool_proj <- inception_4e/pool_proj
I0403 16:11:01.740075 17282 net.cpp:386] inception_4e/relu_pool_proj -> inception_4e/pool_proj (in-place)
I0403 16:11:01.740432 17282 net.cpp:141] Setting up inception_4e/relu_pool_proj
I0403 16:11:01.740464 17282 net.cpp:148] Top shape: 24 128 14 14 (602112)
I0403 16:11:01.740483 17282 net.cpp:156] Memory required for data: 1256902176
I0403 16:11:01.740502 17282 layer_factory.hpp:77] Creating layer inception_4e/output
I0403 16:11:01.740526 17282 net.cpp:91] Creating Layer inception_4e/output
I0403 16:11:01.740546 17282 net.cpp:425] inception_4e/output <- inception_4e/1x1
I0403 16:11:01.740566 17282 net.cpp:425] inception_4e/output <- inception_4e/3x3
I0403 16:11:01.740586 17282 net.cpp:425] inception_4e/output <- inception_4e/5x5
I0403 16:11:01.740615 17282 net.cpp:425] inception_4e/output <- inception_4e/pool_proj
I0403 16:11:01.740638 17282 net.cpp:399] inception_4e/output -> inception_4e/output
I0403 16:11:01.740702 17282 net.cpp:141] Setting up inception_4e/output
I0403 16:11:01.740731 17282 net.cpp:148] Top shape: 24 832 14 14 (3913728)
I0403 16:11:01.740748 17282 net.cpp:156] Memory required for data: 1272557088
I0403 16:11:01.740767 17282 layer_factory.hpp:77] Creating layer pool4/3x3_s2
I0403 16:11:01.740787 17282 net.cpp:91] Creating Layer pool4/3x3_s2
I0403 16:11:01.740806 17282 net.cpp:425] pool4/3x3_s2 <- inception_4e/output
I0403 16:11:01.740833 17282 net.cpp:399] pool4/3x3_s2 -> pool4/3x3_s2
I0403 16:11:01.740916 17282 net.cpp:141] Setting up pool4/3x3_s2
I0403 16:11:01.740945 17282 net.cpp:148] Top shape: 24 832 7 7 (978432)
I0403 16:11:01.740963 17282 net.cpp:156] Memory required for data: 1276470816
I0403 16:11:01.740980 17282 layer_factory.hpp:77] Creating layer pool4/3x3_s2_pool4/3x3_s2_0_split
I0403 16:11:01.741006 17282 net.cpp:91] Creating Layer pool4/3x3_s2_pool4/3x3_s2_0_split
I0403 16:11:01.741026 17282 net.cpp:425] pool4/3x3_s2_pool4/3x3_s2_0_split <- pool4/3x3_s2
I0403 16:11:01.741052 17282 net.cpp:399] pool4/3x3_s2_pool4/3x3_s2_0_split -> pool4/3x3_s2_pool4/3x3_s2_0_split_0
I0403 16:11:01.741078 17282 net.cpp:399] pool4/3x3_s2_pool4/3x3_s2_0_split -> pool4/3x3_s2_pool4/3x3_s2_0_split_1
I0403 16:11:01.741102 17282 net.cpp:399] pool4/3x3_s2_pool4/3x3_s2_0_split -> pool4/3x3_s2_pool4/3x3_s2_0_split_2
I0403 16:11:01.741127 17282 net.cpp:399] pool4/3x3_s2_pool4/3x3_s2_0_split -> pool4/3x3_s2_pool4/3x3_s2_0_split_3
I0403 16:11:01.741237 17282 net.cpp:141] Setting up pool4/3x3_s2_pool4/3x3_s2_0_split
I0403 16:11:01.741268 17282 net.cpp:148] Top shape: 24 832 7 7 (978432)
I0403 16:11:01.741288 17282 net.cpp:148] Top shape: 24 832 7 7 (978432)
I0403 16:11:01.741307 17282 net.cpp:148] Top shape: 24 832 7 7 (978432)
I0403 16:11:01.741324 17282 net.cpp:148] Top shape: 24 832 7 7 (978432)
I0403 16:11:01.741341 17282 net.cpp:156] Memory required for data: 1292125728
I0403 16:11:01.741360 17282 layer_factory.hpp:77] Creating layer inception_5a/1x1
I0403 16:11:01.741387 17282 net.cpp:91] Creating Layer inception_5a/1x1
I0403 16:11:01.741410 17282 net.cpp:425] inception_5a/1x1 <- pool4/3x3_s2_pool4/3x3_s2_0_split_0
I0403 16:11:01.741435 17282 net.cpp:399] inception_5a/1x1 -> inception_5a/1x1
I0403 16:11:01.744946 17282 net.cpp:141] Setting up inception_5a/1x1
I0403 16:11:01.744985 17282 net.cpp:148] Top shape: 24 256 7 7 (301056)
I0403 16:11:01.745007 17282 net.cpp:156] Memory required for data: 1293329952
I0403 16:11:01.745030 17282 layer_factory.hpp:77] Creating layer inception_5a/relu_1x1
I0403 16:11:01.745051 17282 net.cpp:91] Creating Layer inception_5a/relu_1x1
I0403 16:11:01.745070 17282 net.cpp:425] inception_5a/relu_1x1 <- inception_5a/1x1
I0403 16:11:01.745091 17282 net.cpp:386] inception_5a/relu_1x1 -> inception_5a/1x1 (in-place)
I0403 16:11:01.745481 17282 net.cpp:141] Setting up inception_5a/relu_1x1
I0403 16:11:01.745517 17282 net.cpp:148] Top shape: 24 256 7 7 (301056)
I0403 16:11:01.745538 17282 net.cpp:156] Memory required for data: 1294534176
I0403 16:11:01.745556 17282 layer_factory.hpp:77] Creating layer inception_5a/3x3_reduce
I0403 16:11:01.745584 17282 net.cpp:91] Creating Layer inception_5a/3x3_reduce
I0403 16:11:01.745611 17282 net.cpp:425] inception_5a/3x3_reduce <- pool4/3x3_s2_pool4/3x3_s2_0_split_1
I0403 16:11:01.745637 17282 net.cpp:399] inception_5a/3x3_reduce -> inception_5a/3x3_reduce
I0403 16:11:01.748666 17282 net.cpp:141] Setting up inception_5a/3x3_reduce
I0403 16:11:01.748702 17282 net.cpp:148] Top shape: 24 160 7 7 (188160)
I0403 16:11:01.748723 17282 net.cpp:156] Memory required for data: 1295286816
I0403 16:11:01.748745 17282 layer_factory.hpp:77] Creating layer inception_5a/relu_3x3_reduce
I0403 16:11:01.748770 17282 net.cpp:91] Creating Layer inception_5a/relu_3x3_reduce
I0403 16:11:01.748790 17282 net.cpp:425] inception_5a/relu_3x3_reduce <- inception_5a/3x3_reduce
I0403 16:11:01.748812 17282 net.cpp:386] inception_5a/relu_3x3_reduce -> inception_5a/3x3_reduce (in-place)
I0403 16:11:01.749039 17282 net.cpp:141] Setting up inception_5a/relu_3x3_reduce
I0403 16:11:01.749073 17282 net.cpp:148] Top shape: 24 160 7 7 (188160)
I0403 16:11:01.749092 17282 net.cpp:156] Memory required for data: 1296039456
I0403 16:11:01.749110 17282 layer_factory.hpp:77] Creating layer inception_5a/3x3
I0403 16:11:01.749137 17282 net.cpp:91] Creating Layer inception_5a/3x3
I0403 16:11:01.749160 17282 net.cpp:425] inception_5a/3x3 <- inception_5a/3x3_reduce
I0403 16:11:01.749183 17282 net.cpp:399] inception_5a/3x3 -> inception_5a/3x3
I0403 16:11:01.755424 17282 net.cpp:141] Setting up inception_5a/3x3
I0403 16:11:01.755465 17282 net.cpp:148] Top shape: 24 320 7 7 (376320)
I0403 16:11:01.755484 17282 net.cpp:156] Memory required for data: 1297544736
I0403 16:11:01.755507 17282 layer_factory.hpp:77] Creating layer inception_5a/relu_3x3
I0403 16:11:01.755530 17282 net.cpp:91] Creating Layer inception_5a/relu_3x3
I0403 16:11:01.755551 17282 net.cpp:425] inception_5a/relu_3x3 <- inception_5a/3x3
I0403 16:11:01.755576 17282 net.cpp:386] inception_5a/relu_3x3 -> inception_5a/3x3 (in-place)
I0403 16:11:01.755934 17282 net.cpp:141] Setting up inception_5a/relu_3x3
I0403 16:11:01.755970 17282 net.cpp:148] Top shape: 24 320 7 7 (376320)
I0403 16:11:01.755990 17282 net.cpp:156] Memory required for data: 1299050016
I0403 16:11:01.756007 17282 layer_factory.hpp:77] Creating layer inception_5a/5x5_reduce
I0403 16:11:01.756036 17282 net.cpp:91] Creating Layer inception_5a/5x5_reduce
I0403 16:11:01.756059 17282 net.cpp:425] inception_5a/5x5_reduce <- pool4/3x3_s2_pool4/3x3_s2_0_split_2
I0403 16:11:01.756083 17282 net.cpp:399] inception_5a/5x5_reduce -> inception_5a/5x5_reduce
I0403 16:11:01.757529 17282 net.cpp:141] Setting up inception_5a/5x5_reduce
I0403 16:11:01.757566 17282 net.cpp:148] Top shape: 24 32 7 7 (37632)
I0403 16:11:01.757586 17282 net.cpp:156] Memory required for data: 1299200544
I0403 16:11:01.757613 17282 layer_factory.hpp:77] Creating layer inception_5a/relu_5x5_reduce
I0403 16:11:01.757637 17282 net.cpp:91] Creating Layer inception_5a/relu_5x5_reduce
I0403 16:11:01.757658 17282 net.cpp:425] inception_5a/relu_5x5_reduce <- inception_5a/5x5_reduce
I0403 16:11:01.757683 17282 net.cpp:386] inception_5a/relu_5x5_reduce -> inception_5a/5x5_reduce (in-place)
I0403 16:11:01.758054 17282 net.cpp:141] Setting up inception_5a/relu_5x5_reduce
I0403 16:11:01.758086 17282 net.cpp:148] Top shape: 24 32 7 7 (37632)
I0403 16:11:01.758105 17282 net.cpp:156] Memory required for data: 1299351072
I0403 16:11:01.758123 17282 layer_factory.hpp:77] Creating layer inception_5a/5x5
I0403 16:11:01.758149 17282 net.cpp:91] Creating Layer inception_5a/5x5
I0403 16:11:01.758172 17282 net.cpp:425] inception_5a/5x5 <- inception_5a/5x5_reduce
I0403 16:11:01.758198 17282 net.cpp:399] inception_5a/5x5 -> inception_5a/5x5
I0403 16:11:01.760329 17282 net.cpp:141] Setting up inception_5a/5x5
I0403 16:11:01.760380 17282 net.cpp:148] Top shape: 24 128 7 7 (150528)
I0403 16:11:01.760402 17282 net.cpp:156] Memory required for data: 1299953184
I0403 16:11:01.760426 17282 layer_factory.hpp:77] Creating layer inception_5a/relu_5x5
I0403 16:11:01.760448 17282 net.cpp:91] Creating Layer inception_5a/relu_5x5
I0403 16:11:01.760468 17282 net.cpp:425] inception_5a/relu_5x5 <- inception_5a/5x5
I0403 16:11:01.760493 17282 net.cpp:386] inception_5a/relu_5x5 -> inception_5a/5x5 (in-place)
I0403 16:11:01.760736 17282 net.cpp:141] Setting up inception_5a/relu_5x5
I0403 16:11:01.760767 17282 net.cpp:148] Top shape: 24 128 7 7 (150528)
I0403 16:11:01.760787 17282 net.cpp:156] Memory required for data: 1300555296
I0403 16:11:01.760804 17282 layer_factory.hpp:77] Creating layer inception_5a/pool
I0403 16:11:01.760828 17282 net.cpp:91] Creating Layer inception_5a/pool
I0403 16:11:01.760848 17282 net.cpp:425] inception_5a/pool <- pool4/3x3_s2_pool4/3x3_s2_0_split_3
I0403 16:11:01.760871 17282 net.cpp:399] inception_5a/pool -> inception_5a/pool
I0403 16:11:01.760958 17282 net.cpp:141] Setting up inception_5a/pool
I0403 16:11:01.760987 17282 net.cpp:148] Top shape: 24 832 7 7 (978432)
I0403 16:11:01.761006 17282 net.cpp:156] Memory required for data: 1304469024
I0403 16:11:01.761024 17282 layer_factory.hpp:77] Creating layer inception_5a/pool_proj
I0403 16:11:01.761052 17282 net.cpp:91] Creating Layer inception_5a/pool_proj
I0403 16:11:01.761075 17282 net.cpp:425] inception_5a/pool_proj <- inception_5a/pool
I0403 16:11:01.761098 17282 net.cpp:399] inception_5a/pool_proj -> inception_5a/pool_proj
I0403 16:11:01.763911 17282 net.cpp:141] Setting up inception_5a/pool_proj
I0403 16:11:01.763948 17282 net.cpp:148] Top shape: 24 128 7 7 (150528)
I0403 16:11:01.763972 17282 net.cpp:156] Memory required for data: 1305071136
I0403 16:11:01.763995 17282 layer_factory.hpp:77] Creating layer inception_5a/relu_pool_proj
I0403 16:11:01.764016 17282 net.cpp:91] Creating Layer inception_5a/relu_pool_proj
I0403 16:11:01.764037 17282 net.cpp:425] inception_5a/relu_pool_proj <- inception_5a/pool_proj
I0403 16:11:01.764060 17282 net.cpp:386] inception_5a/relu_pool_proj -> inception_5a/pool_proj (in-place)
I0403 16:11:01.764420 17282 net.cpp:141] Setting up inception_5a/relu_pool_proj
I0403 16:11:01.764453 17282 net.cpp:148] Top shape: 24 128 7 7 (150528)
I0403 16:11:01.764475 17282 net.cpp:156] Memory required for data: 1305673248
I0403 16:11:01.764493 17282 layer_factory.hpp:77] Creating layer inception_5a/output
I0403 16:11:01.764514 17282 net.cpp:91] Creating Layer inception_5a/output
I0403 16:11:01.764534 17282 net.cpp:425] inception_5a/output <- inception_5a/1x1
I0403 16:11:01.764555 17282 net.cpp:425] inception_5a/output <- inception_5a/3x3
I0403 16:11:01.764575 17282 net.cpp:425] inception_5a/output <- inception_5a/5x5
I0403 16:11:01.764595 17282 net.cpp:425] inception_5a/output <- inception_5a/pool_proj
I0403 16:11:01.764631 17282 net.cpp:399] inception_5a/output -> inception_5a/output
I0403 16:11:01.764698 17282 net.cpp:141] Setting up inception_5a/output
I0403 16:11:01.764727 17282 net.cpp:148] Top shape: 24 832 7 7 (978432)
I0403 16:11:01.764746 17282 net.cpp:156] Memory required for data: 1309586976
I0403 16:11:01.764765 17282 layer_factory.hpp:77] Creating layer inception_5a/output_inception_5a/output_0_split
I0403 16:11:01.764786 17282 net.cpp:91] Creating Layer inception_5a/output_inception_5a/output_0_split
I0403 16:11:01.764804 17282 net.cpp:425] inception_5a/output_inception_5a/output_0_split <- inception_5a/output
I0403 16:11:01.764829 17282 net.cpp:399] inception_5a/output_inception_5a/output_0_split -> inception_5a/output_inception_5a/output_0_split_0
I0403 16:11:01.764855 17282 net.cpp:399] inception_5a/output_inception_5a/output_0_split -> inception_5a/output_inception_5a/output_0_split_1
I0403 16:11:01.764880 17282 net.cpp:399] inception_5a/output_inception_5a/output_0_split -> inception_5a/output_inception_5a/output_0_split_2
I0403 16:11:01.764906 17282 net.cpp:399] inception_5a/output_inception_5a/output_0_split -> inception_5a/output_inception_5a/output_0_split_3
I0403 16:11:01.765046 17282 net.cpp:141] Setting up inception_5a/output_inception_5a/output_0_split
I0403 16:11:01.765076 17282 net.cpp:148] Top shape: 24 832 7 7 (978432)
I0403 16:11:01.765095 17282 net.cpp:148] Top shape: 24 832 7 7 (978432)
I0403 16:11:01.765115 17282 net.cpp:148] Top shape: 24 832 7 7 (978432)
I0403 16:11:01.765133 17282 net.cpp:148] Top shape: 24 832 7 7 (978432)
I0403 16:11:01.765151 17282 net.cpp:156] Memory required for data: 1325241888
I0403 16:11:01.765167 17282 layer_factory.hpp:77] Creating layer inception_5b/1x1
I0403 16:11:01.765194 17282 net.cpp:91] Creating Layer inception_5b/1x1
I0403 16:11:01.765216 17282 net.cpp:425] inception_5b/1x1 <- inception_5a/output_inception_5a/output_0_split_0
I0403 16:11:01.765242 17282 net.cpp:399] inception_5b/1x1 -> inception_5b/1x1
I0403 16:11:01.769875 17282 net.cpp:141] Setting up inception_5b/1x1
I0403 16:11:01.769912 17282 net.cpp:148] Top shape: 24 384 7 7 (451584)
I0403 16:11:01.769932 17282 net.cpp:156] Memory required for data: 1327048224
I0403 16:11:01.769954 17282 layer_factory.hpp:77] Creating layer inception_5b/relu_1x1
I0403 16:11:01.769982 17282 net.cpp:91] Creating Layer inception_5b/relu_1x1
I0403 16:11:01.770005 17282 net.cpp:425] inception_5b/relu_1x1 <- inception_5b/1x1
I0403 16:11:01.770027 17282 net.cpp:386] inception_5b/relu_1x1 -> inception_5b/1x1 (in-place)
I0403 16:11:01.770397 17282 net.cpp:141] Setting up inception_5b/relu_1x1
I0403 16:11:01.770431 17282 net.cpp:148] Top shape: 24 384 7 7 (451584)
I0403 16:11:01.770449 17282 net.cpp:156] Memory required for data: 1328854560
I0403 16:11:01.770467 17282 layer_factory.hpp:77] Creating layer inception_5b/3x3_reduce
I0403 16:11:01.770494 17282 net.cpp:91] Creating Layer inception_5b/3x3_reduce
I0403 16:11:01.770516 17282 net.cpp:425] inception_5b/3x3_reduce <- inception_5a/output_inception_5a/output_0_split_1
I0403 16:11:01.770545 17282 net.cpp:399] inception_5b/3x3_reduce -> inception_5b/3x3_reduce
I0403 16:11:01.773828 17282 net.cpp:141] Setting up inception_5b/3x3_reduce
I0403 16:11:01.773864 17282 net.cpp:148] Top shape: 24 192 7 7 (225792)
I0403 16:11:01.773883 17282 net.cpp:156] Memory required for data: 1329757728
I0403 16:11:01.773906 17282 layer_factory.hpp:77] Creating layer inception_5b/relu_3x3_reduce
I0403 16:11:01.773931 17282 net.cpp:91] Creating Layer inception_5b/relu_3x3_reduce
I0403 16:11:01.773952 17282 net.cpp:425] inception_5b/relu_3x3_reduce <- inception_5b/3x3_reduce
I0403 16:11:01.773974 17282 net.cpp:386] inception_5b/relu_3x3_reduce -> inception_5b/3x3_reduce (in-place)
I0403 16:11:01.774209 17282 net.cpp:141] Setting up inception_5b/relu_3x3_reduce
I0403 16:11:01.774247 17282 net.cpp:148] Top shape: 24 192 7 7 (225792)
I0403 16:11:01.774266 17282 net.cpp:156] Memory required for data: 1330660896
I0403 16:11:01.774286 17282 layer_factory.hpp:77] Creating layer inception_5b/3x3
I0403 16:11:01.774312 17282 net.cpp:91] Creating Layer inception_5b/3x3
I0403 16:11:01.774333 17282 net.cpp:425] inception_5b/3x3 <- inception_5b/3x3_reduce
I0403 16:11:01.774356 17282 net.cpp:399] inception_5b/3x3 -> inception_5b/3x3
I0403 16:11:01.782721 17282 net.cpp:141] Setting up inception_5b/3x3
I0403 16:11:01.782757 17282 net.cpp:148] Top shape: 24 384 7 7 (451584)
I0403 16:11:01.782778 17282 net.cpp:156] Memory required for data: 1332467232
I0403 16:11:01.782801 17282 layer_factory.hpp:77] Creating layer inception_5b/relu_3x3
I0403 16:11:01.782824 17282 net.cpp:91] Creating Layer inception_5b/relu_3x3
I0403 16:11:01.782845 17282 net.cpp:425] inception_5b/relu_3x3 <- inception_5b/3x3
I0403 16:11:01.782866 17282 net.cpp:386] inception_5b/relu_3x3 -> inception_5b/3x3 (in-place)
I0403 16:11:01.783231 17282 net.cpp:141] Setting up inception_5b/relu_3x3
I0403 16:11:01.783262 17282 net.cpp:148] Top shape: 24 384 7 7 (451584)
I0403 16:11:01.783284 17282 net.cpp:156] Memory required for data: 1334273568
I0403 16:11:01.783303 17282 layer_factory.hpp:77] Creating layer inception_5b/5x5_reduce
I0403 16:11:01.783346 17282 net.cpp:91] Creating Layer inception_5b/5x5_reduce
I0403 16:11:01.783370 17282 net.cpp:425] inception_5b/5x5_reduce <- inception_5a/output_inception_5a/output_0_split_2
I0403 16:11:01.783396 17282 net.cpp:399] inception_5b/5x5_reduce -> inception_5b/5x5_reduce
I0403 16:11:01.784986 17282 net.cpp:141] Setting up inception_5b/5x5_reduce
I0403 16:11:01.785019 17282 net.cpp:148] Top shape: 24 48 7 7 (56448)
I0403 16:11:01.785039 17282 net.cpp:156] Memory required for data: 1334499360
I0403 16:11:01.785063 17282 layer_factory.hpp:77] Creating layer inception_5b/relu_5x5_reduce
I0403 16:11:01.785087 17282 net.cpp:91] Creating Layer inception_5b/relu_5x5_reduce
I0403 16:11:01.785109 17282 net.cpp:425] inception_5b/relu_5x5_reduce <- inception_5b/5x5_reduce
I0403 16:11:01.785130 17282 net.cpp:386] inception_5b/relu_5x5_reduce -> inception_5b/5x5_reduce (in-place)
I0403 16:11:01.785583 17282 net.cpp:141] Setting up inception_5b/relu_5x5_reduce
I0403 16:11:01.785621 17282 net.cpp:148] Top shape: 24 48 7 7 (56448)
I0403 16:11:01.785641 17282 net.cpp:156] Memory required for data: 1334725152
I0403 16:11:01.785660 17282 layer_factory.hpp:77] Creating layer inception_5b/5x5
I0403 16:11:01.785686 17282 net.cpp:91] Creating Layer inception_5b/5x5
I0403 16:11:01.785706 17282 net.cpp:425] inception_5b/5x5 <- inception_5b/5x5_reduce
I0403 16:11:01.785729 17282 net.cpp:399] inception_5b/5x5 -> inception_5b/5x5
I0403 16:11:01.788264 17282 net.cpp:141] Setting up inception_5b/5x5
I0403 16:11:01.788303 17282 net.cpp:148] Top shape: 24 128 7 7 (150528)
I0403 16:11:01.788323 17282 net.cpp:156] Memory required for data: 1335327264
I0403 16:11:01.788347 17282 layer_factory.hpp:77] Creating layer inception_5b/relu_5x5
I0403 16:11:01.788367 17282 net.cpp:91] Creating Layer inception_5b/relu_5x5
I0403 16:11:01.788388 17282 net.cpp:425] inception_5b/relu_5x5 <- inception_5b/5x5
I0403 16:11:01.788410 17282 net.cpp:386] inception_5b/relu_5x5 -> inception_5b/5x5 (in-place)
I0403 16:11:01.788660 17282 net.cpp:141] Setting up inception_5b/relu_5x5
I0403 16:11:01.788691 17282 net.cpp:148] Top shape: 24 128 7 7 (150528)
I0403 16:11:01.788710 17282 net.cpp:156] Memory required for data: 1335929376
I0403 16:11:01.788728 17282 layer_factory.hpp:77] Creating layer inception_5b/pool
I0403 16:11:01.788749 17282 net.cpp:91] Creating Layer inception_5b/pool
I0403 16:11:01.788769 17282 net.cpp:425] inception_5b/pool <- inception_5a/output_inception_5a/output_0_split_3
I0403 16:11:01.788795 17282 net.cpp:399] inception_5b/pool -> inception_5b/pool
I0403 16:11:01.788885 17282 net.cpp:141] Setting up inception_5b/pool
I0403 16:11:01.788916 17282 net.cpp:148] Top shape: 24 832 7 7 (978432)
I0403 16:11:01.788934 17282 net.cpp:156] Memory required for data: 1339843104
I0403 16:11:01.788951 17282 layer_factory.hpp:77] Creating layer inception_5b/pool_proj
I0403 16:11:01.788978 17282 net.cpp:91] Creating Layer inception_5b/pool_proj
I0403 16:11:01.789000 17282 net.cpp:425] inception_5b/pool_proj <- inception_5b/pool
I0403 16:11:01.789023 17282 net.cpp:399] inception_5b/pool_proj -> inception_5b/pool_proj
I0403 16:11:01.791872 17282 net.cpp:141] Setting up inception_5b/pool_proj
I0403 16:11:01.791908 17282 net.cpp:148] Top shape: 24 128 7 7 (150528)
I0403 16:11:01.791929 17282 net.cpp:156] Memory required for data: 1340445216
I0403 16:11:01.791950 17282 layer_factory.hpp:77] Creating layer inception_5b/relu_pool_proj
I0403 16:11:01.791975 17282 net.cpp:91] Creating Layer inception_5b/relu_pool_proj
I0403 16:11:01.791997 17282 net.cpp:425] inception_5b/relu_pool_proj <- inception_5b/pool_proj
I0403 16:11:01.792018 17282 net.cpp:386] inception_5b/relu_pool_proj -> inception_5b/pool_proj (in-place)
I0403 16:11:01.792382 17282 net.cpp:141] Setting up inception_5b/relu_pool_proj
I0403 16:11:01.792415 17282 net.cpp:148] Top shape: 24 128 7 7 (150528)
I0403 16:11:01.792434 17282 net.cpp:156] Memory required for data: 1341047328
I0403 16:11:01.792453 17282 layer_factory.hpp:77] Creating layer inception_5b/output
I0403 16:11:01.792477 17282 net.cpp:91] Creating Layer inception_5b/output
I0403 16:11:01.792515 17282 net.cpp:425] inception_5b/output <- inception_5b/1x1
I0403 16:11:01.792537 17282 net.cpp:425] inception_5b/output <- inception_5b/3x3
I0403 16:11:01.792557 17282 net.cpp:425] inception_5b/output <- inception_5b/5x5
I0403 16:11:01.792577 17282 net.cpp:425] inception_5b/output <- inception_5b/pool_proj
I0403 16:11:01.792603 17282 net.cpp:399] inception_5b/output -> inception_5b/output
I0403 16:11:01.792671 17282 net.cpp:141] Setting up inception_5b/output
I0403 16:11:01.792701 17282 net.cpp:148] Top shape: 24 1024 7 7 (1204224)
I0403 16:11:01.792719 17282 net.cpp:156] Memory required for data: 1345864224
I0403 16:11:01.792737 17282 layer_factory.hpp:77] Creating layer pool5/7x7_s1
I0403 16:11:01.792757 17282 net.cpp:91] Creating Layer pool5/7x7_s1
I0403 16:11:01.792776 17282 net.cpp:425] pool5/7x7_s1 <- inception_5b/output
I0403 16:11:01.792801 17282 net.cpp:399] pool5/7x7_s1 -> pool5/7x7_s1
I0403 16:11:01.793069 17282 net.cpp:141] Setting up pool5/7x7_s1
I0403 16:11:01.793104 17282 net.cpp:148] Top shape: 24 1024 1 1 (24576)
I0403 16:11:01.793124 17282 net.cpp:156] Memory required for data: 1345962528
I0403 16:11:01.793143 17282 layer_factory.hpp:77] Creating layer pool5/drop_7x7_s1
I0403 16:11:01.793164 17282 net.cpp:91] Creating Layer pool5/drop_7x7_s1
I0403 16:11:01.793184 17282 net.cpp:425] pool5/drop_7x7_s1 <- pool5/7x7_s1
I0403 16:11:01.793207 17282 net.cpp:386] pool5/drop_7x7_s1 -> pool5/7x7_s1 (in-place)
I0403 16:11:01.793269 17282 net.cpp:141] Setting up pool5/drop_7x7_s1
I0403 16:11:01.793300 17282 net.cpp:148] Top shape: 24 1024 1 1 (24576)
I0403 16:11:01.793318 17282 net.cpp:156] Memory required for data: 1346060832
I0403 16:11:01.793335 17282 layer_factory.hpp:77] Creating layer loss3/classifier_plantvillage
I0403 16:11:01.793366 17282 net.cpp:91] Creating Layer loss3/classifier_plantvillage
I0403 16:11:01.793388 17282 net.cpp:425] loss3/classifier_plantvillage <- pool5/7x7_s1
I0403 16:11:01.793414 17282 net.cpp:399] loss3/classifier_plantvillage -> loss3/classifier_plantvillage
I0403 16:11:01.793947 17282 net.cpp:141] Setting up loss3/classifier_plantvillage
I0403 16:11:01.793978 17282 net.cpp:148] Top shape: 24 38 (912)
I0403 16:11:01.793998 17282 net.cpp:156] Memory required for data: 1346064480
I0403 16:11:01.794018 17282 layer_factory.hpp:77] Creating layer loss3/classifier_plantvillage_loss3/classifier_plantvillage_0_split
I0403 16:11:01.794041 17282 net.cpp:91] Creating Layer loss3/classifier_plantvillage_loss3/classifier_plantvillage_0_split
I0403 16:11:01.794067 17282 net.cpp:425] loss3/classifier_plantvillage_loss3/classifier_plantvillage_0_split <- loss3/classifier_plantvillage
I0403 16:11:01.794088 17282 net.cpp:399] loss3/classifier_plantvillage_loss3/classifier_plantvillage_0_split -> loss3/classifier_plantvillage_loss3/classifier_plantvillage_0_split_0
I0403 16:11:01.794113 17282 net.cpp:399] loss3/classifier_plantvillage_loss3/classifier_plantvillage_0_split -> loss3/classifier_plantvillage_loss3/classifier_plantvillage_0_split_1
I0403 16:11:01.794137 17282 net.cpp:399] loss3/classifier_plantvillage_loss3/classifier_plantvillage_0_split -> loss3/classifier_plantvillage_loss3/classifier_plantvillage_0_split_2
I0403 16:11:01.794162 17282 net.cpp:399] loss3/classifier_plantvillage_loss3/classifier_plantvillage_0_split -> loss3/classifier_plantvillage_loss3/classifier_plantvillage_0_split_3
I0403 16:11:01.794286 17282 net.cpp:141] Setting up loss3/classifier_plantvillage_loss3/classifier_plantvillage_0_split
I0403 16:11:01.794315 17282 net.cpp:148] Top shape: 24 38 (912)
I0403 16:11:01.794334 17282 net.cpp:148] Top shape: 24 38 (912)
I0403 16:11:01.794353 17282 net.cpp:148] Top shape: 24 38 (912)
I0403 16:11:01.794371 17282 net.cpp:148] Top shape: 24 38 (912)
I0403 16:11:01.794389 17282 net.cpp:156] Memory required for data: 1346079072
I0403 16:11:01.794405 17282 layer_factory.hpp:77] Creating layer loss1/loss
I0403 16:11:01.794430 17282 net.cpp:91] Creating Layer loss1/loss
I0403 16:11:01.794452 17282 net.cpp:425] loss1/loss <- loss1/classifier_plantvillage_loss1/classifier_plantvillage_0_split_0
I0403 16:11:01.794491 17282 net.cpp:425] loss1/loss <- label_data_1_split_0
…
