…
I0403 16:30:14.415621 18353 net.cpp:313] The NetState phase (1) differed from the phase (0) specified by a rule in layer data
I0403 16:30:14.416760 18353 net.cpp:49] Initializing net from parameters: 
state {
  phase: TEST
}
layer {
  name: "data"
  type: "Data"
  top: "data"
  top: "label"
  include {
    phase: TEST
  }
  transform_param {
    mirror: false
    crop_size: 224
    mean_file: "/home/mohanty/data/final_dataset/lmdb/segmented-20-80/mean.binaryproto"
  }
  data_param {
    source: "/home/mohanty/data/final_dataset/lmdb/segmented-20-80/test_db"
    batch_size: 24
    backend: LMDB
  }
}
layer {
  name: "conv1/7x7_s2"
  type: "Convolution"
  bottom: "data"
  top: "conv1/7x7_s2"
  param {
    lr_mult: 1
    decay_mult: 1
  }
  param {
    lr_mult: 2
    decay_mult: 0
  }
  convolution_param {
    num_output: 64
    pad: 3
    kernel_size: 7
    stride: 2
    weight_filler {
      type: "xavier"
      std: 0.1
    }
    bias_filler {
      type: "constant"
      value: 0.2
    }
  }
}
layer {
  name: "conv1/relu_7x7"
  type: "ReLU"
  bottom: "conv1/7x7_s2"
  top: "conv1/7x7_s2"
}
layer {
  name: "pool1/3x3_s2"
  type: "Pooling"
  bottom: "conv1/7x7_s2"
  top: "pool1/3x3_s2"
  pooling_param {
    pool: MAX
    kernel_size: 3
    stride: 2
  }
}
layer {
  name: "pool1/norm1"
  type: "LRN"
  bottom: "pool1/3x3_s2"
  top: "pool1/norm1"
  lrn_param {
    local_size: 5
    alpha: 0.0001
    beta: 0.75
  }
}
layer {
  name: "conv2/3x3_reduce"
  type: "Convolution"
  bottom: "pool1/norm1"
  top: "conv2/3x3_reduce"
  param {
    lr_mult: 1
    decay_mult: 1
  }
  param {
    lr_mult: 2
    decay_mult: 0
  }
  convolution_param {
    num_output: 64
    kernel_size: 1
    weight_filler {
      type: "xavier"
      std: 0.1
    }
    bias_filler {
      type: "constant"
      value: 0.2
    }
  }
}
layer {
  name: "conv2/relu_3x3_reduce"
  type: "ReLU"
  bottom: "conv2/3x3_reduce"
  top: "conv2/3x3_reduce"
}
layer {
  name: "conv2/3x3"
  type: "Convolution"
  bottom: "conv2/3x3_reduce"
  top: "conv2/3x3"
  param {
    lr_mult: 1
    decay_mult: 1
  }
  param {
    lr_mult: 2
    decay_mult: 0
  }
  convolution_param {
    num_output: 192
    pad: 1
    kernel_size: 3
    weight_filler {
      type: "xavier"
      std: 0.03
    }
    bias_filler {
      type: "constant"
      value: 0.2
    }
  }
}
layer {
  name: "conv2/relu_3x3"
  type: "ReLU"
  bottom: "conv2/3x3"
  top: "conv2/3x3"
}
layer {
  name: "conv2/norm2"
  type: "LRN"
  bottom: "conv2/3x3"
  top: "conv2/norm2"
  lrn_param {
    local_size: 5
    alpha: 0.0001
    beta: 0.75
  }
}
layer {
  name: "pool2/3x3_s2"
  type: "Pooling"
  bottom: "conv2/norm2"
  top: "pool2/3x3_s2"
  pooling_param {
    pool: MAX
    kernel_size: 3
    stride: 2
  }
}
layer {
  name: "inception_3a/1x1"
  type: "Convolution"
  bottom: "pool2/3x3_s2"
  top: "inception_3a/1x1"
  param {
    lr_mult: 1
    decay_mult: 1
  }
  param {
    lr_mult: 2
    decay_mult: 0
  }
  convolution_param {
    num_output: 64
    kernel_size: 1
    weight_filler {
      type: "xavier"
      std: 0.03
    }
    bias_filler {
      type: "constant"
      value: 0.2
    }
  }
}
layer {
  name: "inception_3a/relu_1x1"
  type: "ReLU"
  bottom: "inception_3a/1x1"
  top: "inception_3a/1x1"
}
layer {
  name: "inception_3a/3x3_reduce"
  type: "Convolution"
  bottom: "pool2/3x3_s2"
  top: "inception_3a/3x3_reduce"
  param {
    lr_mult: 1
    decay_mult: 1
  }
  param {
    lr_mult: 2
    decay_mult: 0
  }
  convolution_param {
    num_output: 96
    kernel_size: 1
    weight_filler {
      type: "xavier"
      std: 0.09
    }
    bias_filler {
      type: "constant"
      value: 0.2
    }
  }
}
layer {
  name: "inception_3a/relu_3x3_reduce"
  type: "ReLU"
  bottom: "inception_3a/3x3_reduce"
  top: "inception_3a/3x3_reduce"
}
layer {
  name: "inception_3a/3x3"
  type: "Convolution"
  bottom: "inception_3a/3x3_reduce"
  top: "inception_3a/3x3"
  param {
    lr_mult: 1
    decay_mult: 1
  }
  param {
    lr_mult: 2
    decay_mult: 0
  }
  convolution_param {
    num_output: 128
    pad: 1
    kernel_size: 3
    weight_filler {
      type: "xavier"
      std: 0.03
    }
    bias_filler {
      type: "constant"
      value: 0.2
    }
  }
}
layer {
  name: "inception_3a/relu_3x3"
  type: "ReLU"
  bottom: "inception_3a/3x3"
  top: "inception_3a/3x3"
}
layer {
  name: "inception_3a/5x5_reduce"
  type: "Convolution"
  bottom: "pool2/3x3_s2"
  top: "inception_3a/5x5_reduce"
  param {
    lr_mult: 1
    decay_mult: 1
  }
  param {
    lr_mult: 2
    decay_mult: 0
  }
  convolution_param {
    num_output: 16
    kernel_size: 1
    weight_filler {
      type: "xavier"
      std: 0.2
    }
    bias_filler {
      type: "constant"
      value: 0.2
    }
  }
}
layer {
  name: "inception_3a/relu_5x5_reduce"
  type: "ReLU"
  bottom: "inception_3a/5x5_reduce"
  top: "inception_3a/5x5_reduce"
}
layer {
  name: "inception_3a/5x5"
  type: "Convolution"
  bottom: "inception_3a/5x5_reduce"
  top: "inception_3a/5x5"
  param {
    lr_mult: 1
    decay_mult: 1
  }
  param {
    lr_mult: 2
    decay_mult: 0
  }
  convolution_param {
    num_output: 32
    pad: 2
    kernel_size: 5
    weight_filler {
      type: "xavier"
      std: 0.03
    }
    bias_filler {
      type: "constant"
      value: 0.2
    }
  }
}
layer {
  name: "inception_3a/relu_5x5"
  type: "ReLU"
  bottom: "inception_3a/5x5"
  top: "inception_3a/5x5"
}
layer {
  name: "inception_3a/pool"
  type: "Pooling"
  bottom: "pool2/3x3_s2"
  top: "inception_3a/pool"
  pooling_param {
    pool: MAX
    kernel_size: 3
    stride: 1
    pad: 1
  }
}
layer {
  name: "inception_3a/pool_proj"
  type: "Convolution"
  bottom: "inception_3a/pool"
  top: "inception_3a/pool_proj"
  param {
    lr_mult: 1
    decay_mult: 1
  }
  param {
    lr_mult: 2
    decay_mult: 0
  }
  convolution_param {
    num_output: 32
    kernel_size: 1
    weight_filler {
      type: "xavier"
      std: 0.1
    }
    bias_filler {
      type: "constant"
      value: 0.2
    }
  }
}
layer {
  name: "inception_3a/relu_pool_proj"
  type: "ReLU"
  bottom: "inception_3a/pool_proj"
  top: "inception_3a/pool_proj"
}
layer {
  name: "inception_3a/output"
  type: "Concat"
  bottom: "inception_3a/1x1"
  bottom: "inception_3a/3x3"
  bottom: "inception_3a/5x5"
  bottom: "inception_3a/pool_proj"
  top: "inception_3a/output"
}
layer {
  name: "inception_3b/1x1"
  type: "Convolution"
  bottom: "inception_3a/output"
  top: "inception_3b/1x1"
  param {
    lr_mult: 1
    decay_mult: 1
  }
  param {
    lr_mult: 2
    decay_mult: 0
  }
  convolution_param {
    num_output: 128
    kernel_size: 1
    weight_filler {
      type: "xavier"
      std: 0.03
    }
    bias_filler {
      type: "constant"
      value: 0.2
    }
  }
}
layer {
  name: "inception_3b/relu_1x1"
  type: "ReLU"
  bottom: "inception_3b/1x1"
  top: "inception_3b/1x1"
}
layer {
  name: "inception_3b/3x3_reduce"
  type: "Convolution"
  bottom: "inception_3a/output"
  top: "inception_3b/3x3_reduce"
  param {
    lr_mult: 1
    decay_mult: 1
  }
  param {
    lr_mult: 2
    decay_mult: 0
  }
  convolution_param {
    num_output: 128
    kernel_size: 1
    weight_filler {
      type: "xavier"
      std: 0.09
    }
    bias_filler {
      type: "constant"
      value: 0.2
    }
  }
}
layer {
  name: "inception_3b/relu_3x3_reduce"
  type: "ReLU"
  bottom: "inception_3b/3x3_reduce"
  top: "inception_3b/3x3_reduce"
}
layer {
  name: "inception_3b/3x3"
  type: "Convolution"
  bottom: "inception_3b/3x3_reduce"
  top: "inception_3b/3x3"
  param {
    lr_mult: 1
    decay_mult: 1
  }
  param {
    lr_mult: 2
    decay_mult: 0
  }
  convolution_param {
    num_output: 192
    pad: 1
    kernel_size: 3
    weight_filler {
      type: "xavier"
      std: 0.03
    }
    bias_filler {
      type: "constant"
      value: 0.2
    }
  }
}
layer {
  name: "inception_3b/relu_3x3"
  type: "ReLU"
  bottom: "inception_3b/3x3"
  top: "inception_3b/3x3"
}
layer {
  name: "inception_3b/5x5_reduce"
  type: "Convolution"
  bottom: "inception_3a/output"
  top: "inception_3b/5x5_reduce"
  param {
    lr_mult: 1
    decay_mult: 1
  }
  param {
    lr_mult: 2
    decay_mult: 0
  }
  convolution_param {
    num_output: 32
    kernel_size: 1
    weight_filler {
      type: "xavier"
      std: 0.2
    }
    bias_filler {
      type: "constant"
      value: 0.2
    }
  }
}
layer {
  name: "inception_3b/relu_5x5_reduce"
  type: "ReLU"
  bottom: "inception_3b/5x5_reduce"
  top: "inception_3b/5x5_reduce"
}
layer {
  name: "inception_3b/5x5"
  type: "Convolution"
  bottom: "inception_3b/5x5_reduce"
  top: "inception_3b/5x5"
  param {
    lr_mult: 1
    decay_mult: 1
  }
  param {
    lr_mult: 2
    decay_mult: 0
  }
  convolution_param {
    num_output: 96
    pad: 2
    kernel_size: 5
    weight_filler {
      type: "xavier"
      std: 0.03
    }
    bias_filler {
      type: "constant"
      value: 0.2
    }
  }
}
layer {
  name: "inception_3b/relu_5x5"
  type: "ReLU"
  bottom: "inception_3b/5x5"
  top: "inception_3b/5x5"
}
layer {
  name: "inception_3b/pool"
  type: "Pooling"
  bottom: "inception_3a/output"
  top: "inception_3b/pool"
  pooling_param {
    pool: MAX
    kernel_size: 3
    stride: 1
    pad: 1
  }
}
layer {
  name: "inception_3b/pool_proj"
  type: "Convolution"
  bottom: "inception_3b/pool"
  top: "inception_3b/pool_proj"
  param {
    lr_mult: 1
    decay_mult: 1
  }
  param {
    lr_mult: 2
    decay_mult: 0
  }
  convolution_param {
    num_output: 64
    kernel_size: 1
    weight_filler {
      type: "xavier"
      std: 0.1
    }
    bias_filler {
      type: "constant"
      value: 0.2
    }
  }
}
layer {
  name: "inception_3b/relu_pool_proj"
  type: "ReLU"
  bottom: "inception_3b/pool_proj"
  top: "inception_3b/pool_proj"
}
layer {
  name: "inception_3b/output"
  type: "Concat"
  bottom: "inception_3b/1x1"
  bottom: "inception_3b/3x3"
  bottom: "inception_3b/5x5"
  bottom: "inception_3b/pool_proj"
  top: "inception_3b/output"
}
layer {
  name: "pool3/3x3_s2"
  type: "Pooling"
  bottom: "inception_3b/output"
  top: "pool3/3x3_s2"
  pooling_param {
    pool: MAX
    kernel_size: 3
    stride: 2
  }
}
layer {
  name: "inception_4a/1x1"
  type: "Convolution"
  bottom: "pool3/3x3_s2"
  top: "inception_4a/1x1"
  param {
    lr_mult: 1
    decay_mult: 1
  }
  param {
    lr_mult: 2
    decay_mult: 0
  }
  convolution_param {
    num_output: 192
    kernel_size: 1
    weight_filler {
      type: "xavier"
      std: 0.03
    }
    bias_filler {
      type: "constant"
      value: 0.2
    }
  }
}
layer {
  name: "inception_4a/relu_1x1"
  type: "ReLU"
  bottom: "inception_4a/1x1"
  top: "inception_4a/1x1"
}
layer {
  name: "inception_4a/3x3_reduce"
  type: "Convolution"
  bottom: "pool3/3x3_s2"
  top: "inception_4a/3x3_reduce"
  param {
    lr_mult: 1
    decay_mult: 1
  }
  param {
    lr_mult: 2
    decay_mult: 0
  }
  convolution_param {
    num_output: 96
    kernel_size: 1
    weight_filler {
      type: "xavier"
      std: 0.09
    }
    bias_filler {
      type: "constant"
      value: 0.2
    }
  }
}
layer {
  name: "inception_4a/relu_3x3_reduce"
  type: "ReLU"
  bottom: "inception_4a/3x3_reduce"
  top: "inception_4a/3x3_reduce"
}
layer {
  name: "inception_4a/3x3"
  type: "Convolution"
  bottom: "inception_4a/3x3_reduce"
  top: "inception_4a/3x3"
  param {
    lr_mult: 1
    decay_mult: 1
  }
  param {
    lr_mult: 2
    decay_mult: 0
  }
  convolution_param {
    num_output: 208
    pad: 1
    kernel_size: 3
    weight_filler {
      type: "xavier"
      std: 0.03
    }
    bias_filler {
      type: "constant"
      value: 0.2
    }
  }
}
layer {
  name: "inception_4a/relu_3x3"
  type: "ReLU"
  bottom: "inception_4a/3x3"
  top: "inception_4a/3x3"
}
layer {
  name: "inception_4a/5x5_reduce"
  type: "Convolution"
  bottom: "pool3/3x3_s2"
  top: "inception_4a/5x5_reduce"
  param {
    lr_mult: 1
    decay_mult: 1
  }
  param {
    lr_mult: 2
    decay_mult: 0
  }
  convolution_param {
    num_output: 16
    kernel_size: 1
    weight_filler {
      type: "xavier"
      std: 0.2
    }
    bias_filler {
      type: "constant"
      value: 0.2
    }
  }
}
layer {
  name: "inception_4a/relu_5x5_reduce"
  type: "ReLU"
  bottom: "inception_4a/5x5_reduce"
  top: "inception_4a/5x5_reduce"
}
layer {
  name: "inception_4a/5x5"
  type: "Convolution"
  bottom: "inception_4a/5x5_reduce"
  top: "inception_4a/5x5"
  param {
    lr_mult: 1
    decay_mult: 1
  }
  param {
    lr_mult: 2
    decay_mult: 0
  }
  convolution_param {
    num_output: 48
    pad: 2
    kernel_size: 5
    weight_filler {
      type: "xavier"
      std: 0.03
    }
    bias_filler {
      type: "constant"
      value: 0.2
    }
  }
}
layer {
  name: "inception_4a/relu_5x5"
  type: "ReLU"
  bottom: "inception_4a/5x5"
  top: "inception_4a/5x5"
}
layer {
  name: "inception_4a/pool"
  type: "Pooling"
  bottom: "pool3/3x3_s2"
  top: "inception_4a/pool"
  pooling_param {
    pool: MAX
    kernel_size: 3
    stride: 1
    pad: 1
  }
}
layer {
  name: "inception_4a/pool_proj"
  type: "Convolution"
  bottom: "inception_4a/pool"
  top: "inception_4a/pool_proj"
  param {
    lr_mult: 1
    decay_mult: 1
  }
  param {
    lr_mult: 2
    decay_mult: 0
  }
  convolution_param {
    num_output: 64
    kernel_size: 1
    weight_filler {
      type: "xavier"
      std: 0.1
    }
    bias_filler {
      type: "constant"
      value: 0.2
    }
  }
}
layer {
  name: "inception_4a/relu_pool_proj"
  type: "ReLU"
  bottom: "inception_4a/pool_proj"
  top: "inception_4a/pool_proj"
}
layer {
  name: "inception_4a/output"
  type: "Concat"
  bottom: "inception_4a/1x1"
  bottom: "inception_4a/3x3"
  bottom: "inception_4a/5x5"
  bottom: "inception_4a/pool_proj"
  top: "inception_4a/output"
}
layer {
  name: "loss1/ave_pool"
  type: "Pooling"
  bottom: "inception_4a/output"
  top: "loss1/ave_pool"
  pooling_param {
    pool: AVE
    kernel_size: 5
    stride: 3
  }
}
layer {
  name: "loss1/conv"
  type: "Convolution"
  bottom: "loss1/ave_pool"
  top: "loss1/conv"
  param {
    lr_mult: 1
    decay_mult: 1
  }
  param {
    lr_mult: 2
    decay_mult: 0
  }
  convolution_param {
    num_output: 128
    kernel_size: 1
    weight_filler {
      type: "xavier"
      std: 0.08
    }
    bias_filler {
      type: "constant"
      value: 0.2
    }
  }
}
layer {
  name: "loss1/relu_conv"
  type: "ReLU"
  bottom: "loss1/conv"
  top: "loss1/conv"
}
layer {
  name: "loss1/fc"
  type: "InnerProduct"
  bottom: "loss1/conv"
  top: "loss1/fc"
  param {
    lr_mult: 1
    decay_mult: 1
  }
  param {
    lr_mult: 2
    decay_mult: 0
  }
  inner_product_param {
    num_output: 1024
    weight_filler {
      type: "xavier"
      std: 0.02
    }
    bias_filler {
      type: "constant"
      value: 0.2
    }
  }
}
layer {
  name: "loss1/relu_fc"
  type: "ReLU"
  bottom: "loss1/fc"
  top: "loss1/fc"
}
layer {
  name: "loss1/drop_fc"
  type: "Dropout"
  bottom: "loss1/fc"
  top: "loss1/fc"
  dropout_param {
    dropout_ratio: 0.7
  }
}
layer {
  name: "loss1/classifier_plantvillage"
  type: "InnerProduct"
  bottom: "loss1/fc"
  top: "loss1/classifier_plantvillage"
  param {
    lr_mult: 1
    decay_mult: 1
  }
  param {
    lr_mult: 2
    decay_mult: 0
  }
  inner_product_param {
    num_output: 38
    weight_filler {
      type: "xavier"
      std: 0.0009765625
    }
    bias_filler {
      type: "constant"
      value: 0
    }
  }
}
layer {
  name: "inception_4b/1x1"
  type: "Convolution"
  bottom: "inception_4a/output"
  top: "inception_4b/1x1"
  param {
    lr_mult: 1
    decay_mult: 1
  }
  param {
    lr_mult: 2
    decay_mult: 0
  }
  convolution_param {
    num_output: 160
    kernel_size: 1
    weight_filler {
      type: "xavier"
      std: 0.03
    }
    bias_filler {
      type: "constant"
      value: 0.2
    }
  }
}
layer {
  name: "inception_4b/relu_1x1"
  type: "ReLU"
  bottom: "inception_4b/1x1"
  top: "inception_4b/1x1"
}
layer {
  name: "inception_4b/3x3_reduce"
  type: "Convolution"
  bottom: "inception_4a/output"
  top: "inception_4b/3x3_reduce"
  param {
    lr_mult: 1
    decay_mult: 1
  }
  param {
    lr_mult: 2
    decay_mult: 0
  }
  convolution_param {
    num_output: 112
    kernel_size: 1
    weight_filler {
      type: "xavier"
      std: 0.09
    }
    bias_filler {
      type: "constant"
      value: 0.2
    }
  }
}
layer {
  name: "inception_4b/relu_3x3_reduce"
  type: "ReLU"
  bottom: "inception_4b/3x3_reduce"
  top: "inception_4b/3x3_reduce"
}
layer {
  name: "inception_4b/3x3"
  type: "Convolution"
  bottom: "inception_4b/3x3_reduce"
  top: "inception_4b/3x3"
  param {
    lr_mult: 1
    decay_mult: 1
  }
  param {
    lr_mult: 2
    decay_mult: 0
  }
  convolution_param {
    num_output: 224
    pad: 1
    kernel_size: 3
    weight_filler {
      type: "xavier"
      std: 0.03
    }
    bias_filler {
      type: "constant"
      value: 0.2
    }
  }
}
layer {
  name: "inception_4b/relu_3x3"
  type: "ReLU"
  bottom: "inception_4b/3x3"
  top: "inception_4b/3x3"
}
layer {
  name: "inception_4b/5x5_reduce"
  type: "Convolution"
  bottom: "inception_4a/output"
  top: "inception_4b/5x5_reduce"
  param {
    lr_mult: 1
    decay_mult: 1
  }
  param {
    lr_mult: 2
    decay_mult: 0
  }
  convolution_param {
    num_output: 24
    kernel_size: 1
    weight_filler {
      type: "xavier"
      std: 0.2
    }
    bias_filler {
      type: "constant"
      value: 0.2
    }
  }
}
layer {
  name: "inception_4b/relu_5x5_reduce"
  type: "ReLU"
  bottom: "inception_4b/5x5_reduce"
  top: "inception_4b/5x5_reduce"
}
layer {
  name: "inception_4b/5x5"
  type: "Convolution"
  bottom: "inception_4b/5x5_reduce"
  top: "inception_4b/5x5"
  param {
    lr_mult: 1
    decay_mult: 1
  }
  param {
    lr_mult: 2
    decay_mult: 0
  }
  convolution_param {
    num_output: 64
    pad: 2
    kernel_size: 5
    weight_filler {
      type: "xavier"
      std: 0.03
    }
    bias_filler {
      type: "constant"
      value: 0.2
    }
  }
}
layer {
  name: "inception_4b/relu_5x5"
  type: "ReLU"
  bottom: "inception_4b/5x5"
  top: "inception_4b/5x5"
}
layer {
  name: "inception_4b/pool"
  type: "Pooling"
  bottom: "inception_4a/output"
  top: "inception_4b/pool"
  pooling_param {
    pool: MAX
    kernel_size: 3
    stride: 1
    pad: 1
  }
}
layer {
  name: "inception_4b/pool_proj"
  type: "Convolution"
  bottom: "inception_4b/pool"
  top: "inception_4b/pool_proj"
  param {
    lr_mult: 1
    decay_mult: 1
  }
  param {
    lr_mult: 2
    decay_mult: 0
  }
  convolution_param {
    num_output: 64
    kernel_size: 1
    weight_filler {
      type: "xavier"
      std: 0.1
    }
    bias_filler {
      type: "constant"
      value: 0.2
    }
  }
}
layer {
  name: "inception_4b/relu_pool_proj"
  type: "ReLU"
  bottom: "inception_4b/pool_proj"
  top: "inception_4b/pool_proj"
}
layer {
  name: "inception_4b/output"
  type: "Concat"
  bottom: "inception_4b/1x1"
  bottom: "inception_4b/3x3"
  bottom: "inception_4b/5x5"
  bottom: "inception_4b/pool_proj"
  top: "inception_4b/output"
}
layer {
  name: "inception_4c/1x1"
  type: "Convolution"
  bottom: "inception_4b/output"
  top: "inception_4c/1x1"
  param {
    lr_mult: 1
    decay_mult: 1
  }
  param {
    lr_mult: 2
    decay_mult: 0
  }
  convolution_param {
    num_output: 128
    kernel_size: 1
    weight_filler {
      type: "xavier"
      std: 0.03
    }
    bias_filler {
      type: "constant"
      value: 0.2
    }
  }
}
layer {
  name: "inception_4c/relu_1x1"
  type: "ReLU"
  bottom: "inception_4c/1x1"
  top: "inception_4c/1x1"
}
layer {
  name: "inception_4c/3x3_reduce"
  type: "Convolution"
  bottom: "inception_4b/output"
  top: "inception_4c/3x3_reduce"
  param {
    lr_mult: 1
    decay_mult: 1
  }
  param {
    lr_mult: 2
    decay_mult: 0
  }
  convolution_param {
    num_output: 128
    kernel_size: 1
    weight_filler {
      type: "xavier"
      std: 0.09
    }
    bias_filler {
      type: "constant"
      value: 0.2
    }
  }
}
layer {
  name: "inception_4c/relu_3x3_reduce"
  type: "ReLU"
  bottom: "inception_4c/3x3_reduce"
  top: "inception_4c/3x3_reduce"
}
layer {
  name: "inception_4c/3x3"
  type: "Convolution"
  bottom: "inception_4c/3x3_reduce"
  top: "inception_4c/3x3"
  param {
    lr_mult: 1
    decay_mult: 1
  }
  param {
    lr_mult: 2
    decay_mult: 0
  }
  convolution_param {
    num_output: 256
    pad: 1
    kernel_size: 3
    weight_filler {
      type: "xavier"
      std: 0.03
    }
    bias_filler {
      type: "constant"
      value: 0.2
    }
  }
}
layer {
  name: "inception_4c/relu_3x3"
  type: "ReLU"
  bottom: "inception_4c/3x3"
  top: "inception_4c/3x3"
}
layer {
  name: "inception_4c/5x5_reduce"
  type: "Convolution"
  bottom: "inception_4b/output"
  top: "inception_4c/5x5_reduce"
  param {
    lr_mult: 1
    decay_mult: 1
  }
  param {
    lr_mult: 2
    decay_mult: 0
  }
  convolution_param {
    num_output: 24
    kernel_size: 1
    weight_filler {
      type: "xavier"
      std: 0.2
    }
    bias_filler {
      type: "constant"
      value: 0.2
    }
  }
}
layer {
  name: "inception_4c/relu_5x5_reduce"
  type: "ReLU"
  bottom: "inception_4c/5x5_reduce"
  top: "inception_4c/5x5_reduce"
}
layer {
  name: "inception_4c/5x5"
  type: "Convolution"
  bottom: "inception_4c/5x5_reduce"
  top: "inception_4c/5x5"
  param {
    lr_mult: 1
    decay_mult: 1
  }
  param {
    lr_mult: 2
    decay_mult: 0
  }
  convolution_param {
    num_output: 64
    pad: 2
    kernel_size: 5
    weight_filler {
      type: "xavier"
      std: 0.03
    }
    bias_filler {
      type: "constant"
      value: 0.2
    }
  }
}
layer {
  name: "inception_4c/relu_5x5"
  type: "ReLU"
  bottom: "inception_4c/5x5"
  top: "inception_4c/5x5"
}
layer {
  name: "inception_4c/pool"
  type: "Pooling"
  bottom: "inception_4b/output"
  top: "inception_4c/pool"
  pooling_param {
    pool: MAX
    kernel_size: 3
    stride: 1
    pad: 1
  }
}
layer {
  name: "inception_4c/pool_proj"
  type: "Convolution"
  bottom: "inception_4c/pool"
  top: "inception_4c/pool_proj"
  param {
    lr_mult: 1
    decay_mult: 1
  }
  param {
    lr_mult: 2
    decay_mult: 0
  }
  convolution_param {
    num_output: 64
    kernel_size: 1
    weight_filler {
      type: "xavier"
      std: 0.1
    }
    bias_filler {
      type: "constant"
      value: 0.2
    }
  }
}
layer {
  name: "inception_4c/relu_pool_proj"
  type: "ReLU"
  bottom: "inception_4c/pool_proj"
  top: "inception_4c/pool_proj"
}
layer {
  name: "inception_4c/output"
  type: "Concat"
  bottom: "inception_4c/1x1"
  bottom: "inception_4c/3x3"
  bottom: "inception_4c/5x5"
  bottom: "inception_4c/pool_proj"
  top: "inception_4c/output"
}
layer {
  name: "inception_4d/1x1"
  type: "Convolution"
  bottom: "inception_4c/output"
  top: "inception_4d/1x1"
  param {
    lr_mult: 1
    decay_mult: 1
  }
  param {
    lr_mult: 2
    decay_mult: 0
  }
  convolution_param {
    num_output: 112
    kernel_size: 1
    weight_filler {
      type: "xavier"
      std: 0.03
    }
    bias_filler {
      type: "constant"
      value: 0.2
    }
  }
}
layer {
  name: "inception_4d/relu_1x1"
  type: "ReLU"
  bottom: "inception_4d/1x1"
  top: "inception_4d/1x1"
}
layer {
  name: "inception_4d/3x3_reduce"
  type: "Convolution"
  bottom: "inception_4c/output"
  top: "inception_4d/3x3_reduce"
  param {
    lr_mult: 1
    decay_mult: 1
  }
  param {
    lr_mult: 2
    decay_mult: 0
  }
  convolution_param {
    num_output: 144
    kernel_size: 1
    weight_filler {
      type: "xavier"
      std: 0.09
    }
    bias_filler {
      type: "constant"
      value: 0.2
    }
  }
}
layer {
  name: "inception_4d/relu_3x3_reduce"
  type: "ReLU"
  bottom: "inception_4d/3x3_reduce"
  top: "inception_4d/3x3_reduce"
}
layer {
  name: "inception_4d/3x3"
  type: "Convolution"
  bottom: "inception_4d/3x3_reduce"
  top: "inception_4d/3x3"
  param {
    lr_mult: 1
    decay_mult: 1
  }
  param {
    lr_mult: 2
    decay_mult: 0
  }
  convolution_param {
    num_output: 288
    pad: 1
    kernel_size: 3
    weight_filler {
      type: "xavier"
      std: 0.03
    }
    bias_filler {
      type: "constant"
      value: 0.2
    }
  }
}
layer {
  name: "inception_4d/relu_3x3"
  type: "ReLU"
  bottom: "inception_4d/3x3"
  top: "inception_4d/3x3"
}
layer {
  name: "inception_4d/5x5_reduce"
  type: "Convolution"
  bottom: "inception_4c/output"
  top: "inception_4d/5x5_reduce"
  param {
    lr_mult: 1
    decay_mult: 1
  }
  param {
    lr_mult: 2
    decay_mult: 0
  }
  convolution_param {
    num_output: 32
    kernel_size: 1
    weight_filler {
      type: "xavier"
      std: 0.2
    }
    bias_filler {
      type: "constant"
      value: 0.2
    }
  }
}
layer {
  name: "inception_4d/relu_5x5_reduce"
  type: "ReLU"
  bottom: "inception_4d/5x5_reduce"
  top: "inception_4d/5x5_reduce"
}
layer {
  name: "inception_4d/5x5"
  type: "Convolution"
  bottom: "inception_4d/5x5_reduce"
  top: "inception_4d/5x5"
  param {
    lr_mult: 1
    decay_mult: 1
  }
  param {
    lr_mult: 2
    decay_mult: 0
  }
  convolution_param {
    num_output: 64
    pad: 2
    kernel_size: 5
    weight_filler {
      type: "xavier"
      std: 0.03
    }
    bias_filler {
      type: "constant"
      value: 0.2
    }
  }
}
layer {
  name: "inception_4d/relu_5x5"
  type: "ReLU"
  bottom: "inception_4d/5x5"
  top: "inception_4d/5x5"
}
layer {
  name: "inception_4d/pool"
  type: "Pooling"
  bottom: "inception_4c/output"
  top: "inception_4d/pool"
  pooling_param {
    pool: MAX
    kernel_size: 3
    stride: 1
    pad: 1
  }
}
layer {
  name: "inception_4d/pool_proj"
  type: "Convolution"
  bottom: "inception_4d/pool"
  top: "inception_4d/pool_proj"
  param {
    lr_mult: 1
    decay_mult: 1
  }
  param {
    lr_mult: 2
    decay_mult: 0
  }
  convolution_param {
    num_output: 64
    kernel_size: 1
    weight_filler {
      type: "xavier"
      std: 0.1
    }
    bias_filler {
      type: "constant"
      value: 0.2
    }
  }
}
layer {
  name: "inception_4d/relu_pool_proj"
  type: "ReLU"
  bottom: "inception_4d/pool_proj"
  top: "inception_4d/pool_proj"
}
layer {
  name: "inception_4d/output"
  type: "Concat"
  bottom: "inception_4d/1x1"
  bottom: "inception_4d/3x3"
  bottom: "inception_4d/5x5"
  bottom: "inception_4d/pool_proj"
  top: "inception_4d/output"
}
layer {
  name: "loss2/ave_pool"
  type: "Pooling"
  bottom: "inception_4d/output"
  top: "loss2/ave_pool"
  pooling_param {
    pool: AVE
    kernel_size: 5
    stride: 3
  }
}
layer {
  name: "loss2/conv"
  type: "Convolution"
  bottom: "loss2/ave_pool"
  top: "loss2/conv"
  param {
    lr_mult: 1
    decay_mult: 1
  }
  param {
    lr_mult: 2
    decay_mult: 0
  }
  convolution_param {
    num_output: 128
    kernel_size: 1
    weight_filler {
      type: "xavier"
      std: 0.08
    }
    bias_filler {
      type: "constant"
      value: 0.2
    }
  }
}
layer {
  name: "loss2/relu_conv"
  type: "ReLU"
  bottom: "loss2/conv"
  top: "loss2/conv"
}
layer {
  name: "loss2/fc"
  type: "InnerProduct"
  bottom: "loss2/conv"
  top: "loss2/fc"
  param {
    lr_mult: 1
    decay_mult: 1
  }
  param {
    lr_mult: 2
    decay_mult: 0
  }
  inner_product_param {
    num_output: 1024
    weight_filler {
      type: "xavier"
      std: 0.02
    }
    bias_filler {
      type: "constant"
      value: 0.2
    }
  }
}
layer {
  name: "loss2/relu_fc"
  type: "ReLU"
  bottom: "loss2/fc"
  top: "loss2/fc"
}
layer {
  name: "loss2/drop_fc"
  type: "Dropout"
  bottom: "loss2/fc"
  top: "loss2/fc"
  dropout_param {
    dropout_ratio: 0.7
  }
}
layer {
  name: "loss2/classifier_plantvillage"
  type: "InnerProduct"
  bottom: "loss2/fc"
  top: "loss2/classifier_plantvillage"
  param {
    lr_mult: 1
    decay_mult: 1
  }
  param {
    lr_mult: 2
    decay_mult: 0
  }
  inner_product_param {
    num_output: 38
    weight_filler {
      type: "xavier"
      std: 0.0009765625
    }
    bias_filler {
      type: "constant"
      value: 0
    }
  }
}
layer {
  name: "inception_4e/1x1"
  type: "Convolution"
  bottom: "inception_4d/output"
  top: "inception_4e/1x1"
  param {
    lr_mult: 1
    decay_mult: 1
  }
  param {
    lr_mult: 2
    decay_mult: 0
  }
  convolution_param {
    num_output: 256
    kernel_size: 1
    weight_filler {
      type: "xavier"
      std: 0.03
    }
    bias_filler {
      type: "constant"
      value: 0.2
    }
  }
}
layer {
  name: "inception_4e/relu_1x1"
  type: "ReLU"
  bottom: "inception_4e/1x1"
  top: "inception_4e/1x1"
}
layer {
  name: "inception_4e/3x3_reduce"
  type: "Convolution"
  bottom: "inception_4d/output"
  top: "inception_4e/3x3_reduce"
  param {
    lr_mult: 1
    decay_mult: 1
  }
  param {
    lr_mult: 2
    decay_mult: 0
  }
  convolution_param {
    num_output: 160
    kernel_size: 1
    weight_filler {
      type: "xavier"
      std: 0.09
    }
    bias_filler {
      type: "constant"
      value: 0.2
    }
  }
}
layer {
  name: "inception_4e/relu_3x3_reduce"
  type: "ReLU"
  bottom: "inception_4e/3x3_reduce"
  top: "inception_4e/3x3_reduce"
}
layer {
  name: "inception_4e/3x3"
  type: "Convolution"
  bottom: "inception_4e/3x3_reduce"
  top: "inception_4e/3x3"
  param {
    lr_mult: 1
    decay_mult: 1
  }
  param {
    lr_mult: 2
    decay_mult: 0
  }
  convolution_param {
    num_output: 320
    pad: 1
    kernel_size: 3
    weight_filler {
      type: "xavier"
      std: 0.03
    }
    bias_filler {
      type: "constant"
      value: 0.2
    }
  }
}
layer {
  name: "inception_4e/relu_3x3"
  type: "ReLU"
  bottom: "inception_4e/3x3"
  top: "inception_4e/3x3"
}
layer {
  name: "inception_4e/5x5_reduce"
  type: "Convolution"
  bottom: "inception_4d/output"
  top: "inception_4e/5x5_reduce"
  param {
    lr_mult: 1
    decay_mult: 1
  }
  param {
    lr_mult: 2
    decay_mult: 0
  }
  convolution_param {
    num_output: 32
    kernel_size: 1
    weight_filler {
      type: "xavier"
      std: 0.2
    }
    bias_filler {
      type: "constant"
      value: 0.2
    }
  }
}
layer {
  name: "inception_4e/relu_5x5_reduce"
  type: "ReLU"
  bottom: "inception_4e/5x5_reduce"
  top: "inception_4e/5x5_reduce"
}
layer {
  name: "inception_4e/5x5"
  type: "Convolution"
  bottom: "inception_4e/5x5_reduce"
  top: "inception_4e/
I0403 16:30:14.418001 18353 layer_factory.hpp:77] Creating layer data
I0403 16:30:14.418588 18353 net.cpp:91] Creating Layer data
I0403 16:30:14.418622 18353 net.cpp:399] data -> data
I0403 16:30:14.418670 18353 net.cpp:399] data -> label
I0403 16:30:14.418707 18353 data_transformer.cpp:25] Loading mean file from: /home/mohanty/data/final_dataset/lmdb/segmented-20-80/mean.binaryproto
I0403 16:30:14.419838 18356 db_lmdb.cpp:38] Opened lmdb /home/mohanty/data/final_dataset/lmdb/segmented-20-80/test_db
I0403 16:30:14.431152 18353 data_layer.cpp:41] output data size: 24,3,224,224
I0403 16:30:14.457674 18353 net.cpp:141] Setting up data
I0403 16:30:14.457752 18353 net.cpp:148] Top shape: 24 3 224 224 (3612672)
I0403 16:30:14.457775 18353 net.cpp:148] Top shape: 24 (24)
I0403 16:30:14.457789 18353 net.cpp:156] Memory required for data: 14450784
I0403 16:30:14.457816 18353 layer_factory.hpp:77] Creating layer label_data_1_split
I0403 16:30:14.457841 18353 net.cpp:91] Creating Layer label_data_1_split
I0403 16:30:14.457859 18353 net.cpp:425] label_data_1_split <- label
I0403 16:30:14.457891 18353 net.cpp:399] label_data_1_split -> label_data_1_split_0
I0403 16:30:14.457918 18353 net.cpp:399] label_data_1_split -> label_data_1_split_1
I0403 16:30:14.457938 18353 net.cpp:399] label_data_1_split -> label_data_1_split_2
I0403 16:30:14.457957 18353 net.cpp:399] label_data_1_split -> label_data_1_split_3
I0403 16:30:14.457975 18353 net.cpp:399] label_data_1_split -> label_data_1_split_4
I0403 16:30:14.457993 18353 net.cpp:399] label_data_1_split -> label_data_1_split_5
I0403 16:30:14.458012 18353 net.cpp:399] label_data_1_split -> label_data_1_split_6
I0403 16:30:14.458030 18353 net.cpp:399] label_data_1_split -> label_data_1_split_7
I0403 16:30:14.458048 18353 net.cpp:399] label_data_1_split -> label_data_1_split_8
I0403 16:30:14.458067 18353 net.cpp:399] label_data_1_split -> label_data_1_split_9
I0403 16:30:14.458176 18353 net.cpp:141] Setting up label_data_1_split
I0403 16:30:14.458199 18353 net.cpp:148] Top shape: 24 (24)
I0403 16:30:14.458214 18353 net.cpp:148] Top shape: 24 (24)
I0403 16:30:14.458228 18353 net.cpp:148] Top shape: 24 (24)
I0403 16:30:14.458242 18353 net.cpp:148] Top shape: 24 (24)
I0403 16:30:14.458256 18353 net.cpp:148] Top shape: 24 (24)
I0403 16:30:14.458271 18353 net.cpp:148] Top shape: 24 (24)
I0403 16:30:14.458286 18353 net.cpp:148] Top shape: 24 (24)
I0403 16:30:14.458299 18353 net.cpp:148] Top shape: 24 (24)
I0403 16:30:14.458314 18353 net.cpp:148] Top shape: 24 (24)
I0403 16:30:14.458329 18353 net.cpp:148] Top shape: 24 (24)
I0403 16:30:14.458380 18353 net.cpp:156] Memory required for data: 14451744
I0403 16:30:14.458395 18353 layer_factory.hpp:77] Creating layer conv1/7x7_s2
I0403 16:30:14.458423 18353 net.cpp:91] Creating Layer conv1/7x7_s2
I0403 16:30:14.458441 18353 net.cpp:425] conv1/7x7_s2 <- data
I0403 16:30:14.458459 18353 net.cpp:399] conv1/7x7_s2 -> conv1/7x7_s2
I0403 16:30:14.596868 18353 net.cpp:141] Setting up conv1/7x7_s2
I0403 16:30:14.596946 18353 net.cpp:148] Top shape: 24 64 112 112 (19267584)
I0403 16:30:14.596962 18353 net.cpp:156] Memory required for data: 91522080
I0403 16:30:14.596992 18353 layer_factory.hpp:77] Creating layer conv1/relu_7x7
I0403 16:30:14.597018 18353 net.cpp:91] Creating Layer conv1/relu_7x7
I0403 16:30:14.597035 18353 net.cpp:425] conv1/relu_7x7 <- conv1/7x7_s2
I0403 16:30:14.597053 18353 net.cpp:386] conv1/relu_7x7 -> conv1/7x7_s2 (in-place)
I0403 16:30:14.597300 18353 net.cpp:141] Setting up conv1/relu_7x7
I0403 16:30:14.597326 18353 net.cpp:148] Top shape: 24 64 112 112 (19267584)
I0403 16:30:14.597339 18353 net.cpp:156] Memory required for data: 168592416
I0403 16:30:14.597354 18353 layer_factory.hpp:77] Creating layer pool1/3x3_s2
I0403 16:30:14.597378 18353 net.cpp:91] Creating Layer pool1/3x3_s2
I0403 16:30:14.597394 18353 net.cpp:425] pool1/3x3_s2 <- conv1/7x7_s2
I0403 16:30:14.597411 18353 net.cpp:399] pool1/3x3_s2 -> pool1/3x3_s2
I0403 16:30:14.597481 18353 net.cpp:141] Setting up pool1/3x3_s2
I0403 16:30:14.597503 18353 net.cpp:148] Top shape: 24 64 56 56 (4816896)
I0403 16:30:14.597517 18353 net.cpp:156] Memory required for data: 187860000
I0403 16:30:14.597532 18353 layer_factory.hpp:77] Creating layer pool1/norm1
I0403 16:30:14.597554 18353 net.cpp:91] Creating Layer pool1/norm1
I0403 16:30:14.597573 18353 net.cpp:425] pool1/norm1 <- pool1/3x3_s2
I0403 16:30:14.597589 18353 net.cpp:399] pool1/norm1 -> pool1/norm1
I0403 16:30:14.597862 18353 net.cpp:141] Setting up pool1/norm1
I0403 16:30:14.597888 18353 net.cpp:148] Top shape: 24 64 56 56 (4816896)
I0403 16:30:14.597903 18353 net.cpp:156] Memory required for data: 207127584
I0403 16:30:14.597918 18353 layer_factory.hpp:77] Creating layer conv2/3x3_reduce
I0403 16:30:14.597940 18353 net.cpp:91] Creating Layer conv2/3x3_reduce
I0403 16:30:14.597955 18353 net.cpp:425] conv2/3x3_reduce <- pool1/norm1
I0403 16:30:14.597972 18353 net.cpp:399] conv2/3x3_reduce -> conv2/3x3_reduce
I0403 16:30:14.599282 18353 net.cpp:141] Setting up conv2/3x3_reduce
I0403 16:30:14.599323 18353 net.cpp:148] Top shape: 24 64 56 56 (4816896)
I0403 16:30:14.599339 18353 net.cpp:156] Memory required for data: 226395168
I0403 16:30:14.599359 18353 layer_factory.hpp:77] Creating layer conv2/relu_3x3_reduce
I0403 16:30:14.599377 18353 net.cpp:91] Creating Layer conv2/relu_3x3_reduce
I0403 16:30:14.599392 18353 net.cpp:425] conv2/relu_3x3_reduce <- conv2/3x3_reduce
I0403 16:30:14.599408 18353 net.cpp:386] conv2/relu_3x3_reduce -> conv2/3x3_reduce (in-place)
I0403 16:30:14.599660 18353 net.cpp:141] Setting up conv2/relu_3x3_reduce
I0403 16:30:14.599686 18353 net.cpp:148] Top shape: 24 64 56 56 (4816896)
I0403 16:30:14.599701 18353 net.cpp:156] Memory required for data: 245662752
I0403 16:30:14.599715 18353 layer_factory.hpp:77] Creating layer conv2/3x3
I0403 16:30:14.599737 18353 net.cpp:91] Creating Layer conv2/3x3
I0403 16:30:14.599753 18353 net.cpp:425] conv2/3x3 <- conv2/3x3_reduce
I0403 16:30:14.599771 18353 net.cpp:399] conv2/3x3 -> conv2/3x3
I0403 16:30:14.601928 18353 net.cpp:141] Setting up conv2/3x3
I0403 16:30:14.601958 18353 net.cpp:148] Top shape: 24 192 56 56 (14450688)
I0403 16:30:14.601972 18353 net.cpp:156] Memory required for data: 303465504
I0403 16:30:14.601992 18353 layer_factory.hpp:77] Creating layer conv2/relu_3x3
I0403 16:30:14.602010 18353 net.cpp:91] Creating Layer conv2/relu_3x3
I0403 16:30:14.602025 18353 net.cpp:425] conv2/relu_3x3 <- conv2/3x3
I0403 16:30:14.602042 18353 net.cpp:386] conv2/relu_3x3 -> conv2/3x3 (in-place)
I0403 16:30:14.602195 18353 net.cpp:141] Setting up conv2/relu_3x3
I0403 16:30:14.602218 18353 net.cpp:148] Top shape: 24 192 56 56 (14450688)
I0403 16:30:14.602257 18353 net.cpp:156] Memory required for data: 361268256
I0403 16:30:14.602272 18353 layer_factory.hpp:77] Creating layer conv2/norm2
I0403 16:30:14.602289 18353 net.cpp:91] Creating Layer conv2/norm2
I0403 16:30:14.602304 18353 net.cpp:425] conv2/norm2 <- conv2/3x3
I0403 16:30:14.602321 18353 net.cpp:399] conv2/norm2 -> conv2/norm2
I0403 16:30:14.602591 18353 net.cpp:141] Setting up conv2/norm2
I0403 16:30:14.602620 18353 net.cpp:148] Top shape: 24 192 56 56 (14450688)
I0403 16:30:14.602635 18353 net.cpp:156] Memory required for data: 419071008
I0403 16:30:14.602649 18353 layer_factory.hpp:77] Creating layer pool2/3x3_s2
I0403 16:30:14.602668 18353 net.cpp:91] Creating Layer pool2/3x3_s2
I0403 16:30:14.602681 18353 net.cpp:425] pool2/3x3_s2 <- conv2/norm2
I0403 16:30:14.602697 18353 net.cpp:399] pool2/3x3_s2 -> pool2/3x3_s2
I0403 16:30:14.602743 18353 net.cpp:141] Setting up pool2/3x3_s2
I0403 16:30:14.602766 18353 net.cpp:148] Top shape: 24 192 28 28 (3612672)
I0403 16:30:14.602778 18353 net.cpp:156] Memory required for data: 433521696
I0403 16:30:14.602792 18353 layer_factory.hpp:77] Creating layer pool2/3x3_s2_pool2/3x3_s2_0_split
I0403 16:30:14.602808 18353 net.cpp:91] Creating Layer pool2/3x3_s2_pool2/3x3_s2_0_split
I0403 16:30:14.602823 18353 net.cpp:425] pool2/3x3_s2_pool2/3x3_s2_0_split <- pool2/3x3_s2
I0403 16:30:14.602838 18353 net.cpp:399] pool2/3x3_s2_pool2/3x3_s2_0_split -> pool2/3x3_s2_pool2/3x3_s2_0_split_0
I0403 16:30:14.602856 18353 net.cpp:399] pool2/3x3_s2_pool2/3x3_s2_0_split -> pool2/3x3_s2_pool2/3x3_s2_0_split_1
I0403 16:30:14.602874 18353 net.cpp:399] pool2/3x3_s2_pool2/3x3_s2_0_split -> pool2/3x3_s2_pool2/3x3_s2_0_split_2
I0403 16:30:14.602893 18353 net.cpp:399] pool2/3x3_s2_pool2/3x3_s2_0_split -> pool2/3x3_s2_pool2/3x3_s2_0_split_3
I0403 16:30:14.602953 18353 net.cpp:141] Setting up pool2/3x3_s2_pool2/3x3_s2_0_split
I0403 16:30:14.602974 18353 net.cpp:148] Top shape: 24 192 28 28 (3612672)
I0403 16:30:14.602989 18353 net.cpp:148] Top shape: 24 192 28 28 (3612672)
I0403 16:30:14.603003 18353 net.cpp:148] Top shape: 24 192 28 28 (3612672)
I0403 16:30:14.603018 18353 net.cpp:148] Top shape: 24 192 28 28 (3612672)
I0403 16:30:14.603030 18353 net.cpp:156] Memory required for data: 491324448
I0403 16:30:14.603044 18353 layer_factory.hpp:77] Creating layer inception_3a/1x1
I0403 16:30:14.603063 18353 net.cpp:91] Creating Layer inception_3a/1x1
I0403 16:30:14.603078 18353 net.cpp:425] inception_3a/1x1 <- pool2/3x3_s2_pool2/3x3_s2_0_split_0
I0403 16:30:14.603096 18353 net.cpp:399] inception_3a/1x1 -> inception_3a/1x1
I0403 16:30:14.604521 18353 net.cpp:141] Setting up inception_3a/1x1
I0403 16:30:14.604552 18353 net.cpp:148] Top shape: 24 64 28 28 (1204224)
I0403 16:30:14.604569 18353 net.cpp:156] Memory required for data: 496141344
I0403 16:30:14.604588 18353 layer_factory.hpp:77] Creating layer inception_3a/relu_1x1
I0403 16:30:14.604614 18353 net.cpp:91] Creating Layer inception_3a/relu_1x1
I0403 16:30:14.604632 18353 net.cpp:425] inception_3a/relu_1x1 <- inception_3a/1x1
I0403 16:30:14.604648 18353 net.cpp:386] inception_3a/relu_1x1 -> inception_3a/1x1 (in-place)
I0403 16:30:14.604816 18353 net.cpp:141] Setting up inception_3a/relu_1x1
I0403 16:30:14.604843 18353 net.cpp:148] Top shape: 24 64 28 28 (1204224)
I0403 16:30:14.604857 18353 net.cpp:156] Memory required for data: 500958240
I0403 16:30:14.604871 18353 layer_factory.hpp:77] Creating layer inception_3a/3x3_reduce
I0403 16:30:14.604892 18353 net.cpp:91] Creating Layer inception_3a/3x3_reduce
I0403 16:30:14.604909 18353 net.cpp:425] inception_3a/3x3_reduce <- pool2/3x3_s2_pool2/3x3_s2_0_split_1
I0403 16:30:14.604928 18353 net.cpp:399] inception_3a/3x3_reduce -> inception_3a/3x3_reduce
I0403 16:30:14.606557 18353 net.cpp:141] Setting up inception_3a/3x3_reduce
I0403 16:30:14.606585 18353 net.cpp:148] Top shape: 24 96 28 28 (1806336)
I0403 16:30:14.606616 18353 net.cpp:156] Memory required for data: 508183584
I0403 16:30:14.606642 18353 layer_factory.hpp:77] Creating layer inception_3a/relu_3x3_reduce
I0403 16:30:14.606678 18353 net.cpp:91] Creating Layer inception_3a/relu_3x3_reduce
I0403 16:30:14.606693 18353 net.cpp:425] inception_3a/relu_3x3_reduce <- inception_3a/3x3_reduce
I0403 16:30:14.606714 18353 net.cpp:386] inception_3a/relu_3x3_reduce -> inception_3a/3x3_reduce (in-place)
I0403 16:30:14.606889 18353 net.cpp:141] Setting up inception_3a/relu_3x3_reduce
I0403 16:30:14.606926 18353 net.cpp:148] Top shape: 24 96 28 28 (1806336)
I0403 16:30:14.606940 18353 net.cpp:156] Memory required for data: 515408928
I0403 16:30:14.606953 18353 layer_factory.hpp:77] Creating layer inception_3a/3x3
I0403 16:30:14.606974 18353 net.cpp:91] Creating Layer inception_3a/3x3
I0403 16:30:14.606992 18353 net.cpp:425] inception_3a/3x3 <- inception_3a/3x3_reduce
I0403 16:30:14.607010 18353 net.cpp:399] inception_3a/3x3 -> inception_3a/3x3
I0403 16:30:14.608587 18353 net.cpp:141] Setting up inception_3a/3x3
I0403 16:30:14.608620 18353 net.cpp:148] Top shape: 24 128 28 28 (2408448)
I0403 16:30:14.608638 18353 net.cpp:156] Memory required for data: 525042720
I0403 16:30:14.608654 18353 layer_factory.hpp:77] Creating layer inception_3a/relu_3x3
I0403 16:30:14.608671 18353 net.cpp:91] Creating Layer inception_3a/relu_3x3
I0403 16:30:14.608686 18353 net.cpp:425] inception_3a/relu_3x3 <- inception_3a/3x3
I0403 16:30:14.608705 18353 net.cpp:386] inception_3a/relu_3x3 -> inception_3a/3x3 (in-place)
I0403 16:30:14.608963 18353 net.cpp:141] Setting up inception_3a/relu_3x3
I0403 16:30:14.608990 18353 net.cpp:148] Top shape: 24 128 28 28 (2408448)
I0403 16:30:14.609004 18353 net.cpp:156] Memory required for data: 534676512
I0403 16:30:14.609017 18353 layer_factory.hpp:77] Creating layer inception_3a/5x5_reduce
I0403 16:30:14.609038 18353 net.cpp:91] Creating Layer inception_3a/5x5_reduce
I0403 16:30:14.609055 18353 net.cpp:425] inception_3a/5x5_reduce <- pool2/3x3_s2_pool2/3x3_s2_0_split_2
I0403 16:30:14.609076 18353 net.cpp:399] inception_3a/5x5_reduce -> inception_3a/5x5_reduce
I0403 16:30:14.609997 18353 net.cpp:141] Setting up inception_3a/5x5_reduce
I0403 16:30:14.610024 18353 net.cpp:148] Top shape: 24 16 28 28 (301056)
I0403 16:30:14.610039 18353 net.cpp:156] Memory required for data: 535880736
I0403 16:30:14.610056 18353 layer_factory.hpp:77] Creating layer inception_3a/relu_5x5_reduce
I0403 16:30:14.610074 18353 net.cpp:91] Creating Layer inception_3a/relu_5x5_reduce
I0403 16:30:14.610088 18353 net.cpp:425] inception_3a/relu_5x5_reduce <- inception_3a/5x5_reduce
I0403 16:30:14.610106 18353 net.cpp:386] inception_3a/relu_5x5_reduce -> inception_3a/5x5_reduce (in-place)
I0403 16:30:14.610386 18353 net.cpp:141] Setting up inception_3a/relu_5x5_reduce
I0403 16:30:14.610411 18353 net.cpp:148] Top shape: 24 16 28 28 (301056)
I0403 16:30:14.610425 18353 net.cpp:156] Memory required for data: 537084960
I0403 16:30:14.610438 18353 layer_factory.hpp:77] Creating layer inception_3a/5x5
I0403 16:30:14.610460 18353 net.cpp:91] Creating Layer inception_3a/5x5
I0403 16:30:14.610476 18353 net.cpp:425] inception_3a/5x5 <- inception_3a/5x5_reduce
I0403 16:30:14.610496 18353 net.cpp:399] inception_3a/5x5 -> inception_3a/5x5
I0403 16:30:14.611456 18353 net.cpp:141] Setting up inception_3a/5x5
I0403 16:30:14.611486 18353 net.cpp:148] Top shape: 24 32 28 28 (602112)
I0403 16:30:14.611502 18353 net.cpp:156] Memory required for data: 539493408
I0403 16:30:14.611520 18353 layer_factory.hpp:77] Creating layer inception_3a/relu_5x5
I0403 16:30:14.611536 18353 net.cpp:91] Creating Layer inception_3a/relu_5x5
I0403 16:30:14.611552 18353 net.cpp:425] inception_3a/relu_5x5 <- inception_3a/5x5
I0403 16:30:14.611567 18353 net.cpp:386] inception_3a/relu_5x5 -> inception_3a/5x5 (in-place)
I0403 16:30:14.611737 18353 net.cpp:141] Setting up inception_3a/relu_5x5
I0403 16:30:14.611760 18353 net.cpp:148] Top shape: 24 32 28 28 (602112)
I0403 16:30:14.611774 18353 net.cpp:156] Memory required for data: 541901856
I0403 16:30:14.611788 18353 layer_factory.hpp:77] Creating layer inception_3a/pool
I0403 16:30:14.611804 18353 net.cpp:91] Creating Layer inception_3a/pool
I0403 16:30:14.611835 18353 net.cpp:425] inception_3a/pool <- pool2/3x3_s2_pool2/3x3_s2_0_split_3
I0403 16:30:14.611853 18353 net.cpp:399] inception_3a/pool -> inception_3a/pool
I0403 16:30:14.611908 18353 net.cpp:141] Setting up inception_3a/pool
I0403 16:30:14.611932 18353 net.cpp:148] Top shape: 24 192 28 28 (3612672)
I0403 16:30:14.611948 18353 net.cpp:156] Memory required for data: 556352544
I0403 16:30:14.611960 18353 layer_factory.hpp:77] Creating layer inception_3a/pool_proj
I0403 16:30:14.611981 18353 net.cpp:91] Creating Layer inception_3a/pool_proj
I0403 16:30:14.611999 18353 net.cpp:425] inception_3a/pool_proj <- inception_3a/pool
I0403 16:30:14.612015 18353 net.cpp:399] inception_3a/pool_proj -> inception_3a/pool_proj
I0403 16:30:14.612934 18353 net.cpp:141] Setting up inception_3a/pool_proj
I0403 16:30:14.612962 18353 net.cpp:148] Top shape: 24 32 28 28 (602112)
I0403 16:30:14.612975 18353 net.cpp:156] Memory required for data: 558760992
I0403 16:30:14.612998 18353 layer_factory.hpp:77] Creating layer inception_3a/relu_pool_proj
I0403 16:30:14.613018 18353 net.cpp:91] Creating Layer inception_3a/relu_pool_proj
I0403 16:30:14.613032 18353 net.cpp:425] inception_3a/relu_pool_proj <- inception_3a/pool_proj
I0403 16:30:14.613050 18353 net.cpp:386] inception_3a/relu_pool_proj -> inception_3a/pool_proj (in-place)
I0403 16:30:14.613312 18353 net.cpp:141] Setting up inception_3a/relu_pool_proj
I0403 16:30:14.613339 18353 net.cpp:148] Top shape: 24 32 28 28 (602112)
I0403 16:30:14.613353 18353 net.cpp:156] Memory required for data: 561169440
I0403 16:30:14.613368 18353 layer_factory.hpp:77] Creating layer inception_3a/output
I0403 16:30:14.613384 18353 net.cpp:91] Creating Layer inception_3a/output
I0403 16:30:14.613399 18353 net.cpp:425] inception_3a/output <- inception_3a/1x1
I0403 16:30:14.613414 18353 net.cpp:425] inception_3a/output <- inception_3a/3x3
I0403 16:30:14.613427 18353 net.cpp:425] inception_3a/output <- inception_3a/5x5
I0403 16:30:14.613442 18353 net.cpp:425] inception_3a/output <- inception_3a/pool_proj
I0403 16:30:14.613458 18353 net.cpp:399] inception_3a/output -> inception_3a/output
I0403 16:30:14.613504 18353 net.cpp:141] Setting up inception_3a/output
I0403 16:30:14.613526 18353 net.cpp:148] Top shape: 24 256 28 28 (4816896)
I0403 16:30:14.613540 18353 net.cpp:156] Memory required for data: 580437024
I0403 16:30:14.613554 18353 layer_factory.hpp:77] Creating layer inception_3a/output_inception_3a/output_0_split
I0403 16:30:14.613571 18353 net.cpp:91] Creating Layer inception_3a/output_inception_3a/output_0_split
I0403 16:30:14.613586 18353 net.cpp:425] inception_3a/output_inception_3a/output_0_split <- inception_3a/output
I0403 16:30:14.613607 18353 net.cpp:399] inception_3a/output_inception_3a/output_0_split -> inception_3a/output_inception_3a/output_0_split_0
I0403 16:30:14.613628 18353 net.cpp:399] inception_3a/output_inception_3a/output_0_split -> inception_3a/output_inception_3a/output_0_split_1
I0403 16:30:14.613651 18353 net.cpp:399] inception_3a/output_inception_3a/output_0_split -> inception_3a/output_inception_3a/output_0_split_2
I0403 16:30:14.613672 18353 net.cpp:399] inception_3a/output_inception_3a/output_0_split -> inception_3a/output_inception_3a/output_0_split_3
I0403 16:30:14.613742 18353 net.cpp:141] Setting up inception_3a/output_inception_3a/output_0_split
I0403 16:30:14.613765 18353 net.cpp:148] Top shape: 24 256 28 28 (4816896)
I0403 16:30:14.613780 18353 net.cpp:148] Top shape: 24 256 28 28 (4816896)
I0403 16:30:14.613793 18353 net.cpp:148] Top shape: 24 256 28 28 (4816896)
I0403 16:30:14.613807 18353 net.cpp:148] Top shape: 24 256 28 28 (4816896)
I0403 16:30:14.613819 18353 net.cpp:156] Memory required for data: 657507360
I0403 16:30:14.613832 18353 layer_factory.hpp:77] Creating layer inception_3b/1x1
I0403 16:30:14.613855 18353 net.cpp:91] Creating Layer inception_3b/1x1
I0403 16:30:14.613872 18353 net.cpp:425] inception_3b/1x1 <- inception_3a/output_inception_3a/output_0_split_0
I0403 16:30:14.613888 18353 net.cpp:399] inception_3b/1x1 -> inception_3b/1x1
I0403 16:30:14.615021 18353 net.cpp:141] Setting up inception_3b/1x1
I0403 16:30:14.615061 18353 net.cpp:148] Top shape: 24 128 28 28 (2408448)
I0403 16:30:14.615077 18353 net.cpp:156] Memory required for data: 667141152
I0403 16:30:14.615093 18353 layer_factory.hpp:77] Creating layer inception_3b/relu_1x1
I0403 16:30:14.615113 18353 net.cpp:91] Creating Layer inception_3b/relu_1x1
I0403 16:30:14.615128 18353 net.cpp:425] inception_3b/relu_1x1 <- inception_3b/1x1
I0403 16:30:14.615144 18353 net.cpp:386] inception_3b/relu_1x1 -> inception_3b/1x1 (in-place)
I0403 16:30:14.615313 18353 net.cpp:141] Setting up inception_3b/relu_1x1
I0403 16:30:14.615339 18353 net.cpp:148] Top shape: 24 128 28 28 (2408448)
I0403 16:30:14.615352 18353 net.cpp:156] Memory required for data: 676774944
I0403 16:30:14.615365 18353 layer_factory.hpp:77] Creating layer inception_3b/3x3_reduce
I0403 16:30:14.615387 18353 net.cpp:91] Creating Layer inception_3b/3x3_reduce
I0403 16:30:14.615403 18353 net.cpp:425] inception_3b/3x3_reduce <- inception_3a/output_inception_3a/output_0_split_1
I0403 16:30:14.615427 18353 net.cpp:399] inception_3b/3x3_reduce -> inception_3b/3x3_reduce
I0403 16:30:14.616513 18353 net.cpp:141] Setting up inception_3b/3x3_reduce
I0403 16:30:14.616539 18353 net.cpp:148] Top shape: 24 128 28 28 (2408448)
I0403 16:30:14.616554 18353 net.cpp:156] Memory required for data: 686408736
I0403 16:30:14.616571 18353 layer_factory.hpp:77] Creating layer inception_3b/relu_3x3_reduce
I0403 16:30:14.616593 18353 net.cpp:91] Creating Layer inception_3b/relu_3x3_reduce
I0403 16:30:14.616613 18353 net.cpp:425] inception_3b/relu_3x3_reduce <- inception_3b/3x3_reduce
I0403 16:30:14.616631 18353 net.cpp:386] inception_3b/relu_3x3_reduce -> inception_3b/3x3_reduce (in-place)
I0403 16:30:14.616794 18353 net.cpp:141] Setting up inception_3b/relu_3x3_reduce
I0403 16:30:14.616821 18353 net.cpp:148] Top shape: 24 128 28 28 (2408448)
I0403 16:30:14.616834 18353 net.cpp:156] Memory required for data: 696042528
I0403 16:30:14.616848 18353 layer_factory.hpp:77] Creating layer inception_3b/3x3
I0403 16:30:14.616871 18353 net.cpp:91] Creating Layer inception_3b/3x3
I0403 16:30:14.616888 18353 net.cpp:425] inception_3b/3x3 <- inception_3b/3x3_reduce
I0403 16:30:14.616909 18353 net.cpp:399] inception_3b/3x3 -> inception_3b/3x3
I0403 16:30:14.619716 18353 net.cpp:141] Setting up inception_3b/3x3
I0403 16:30:14.619747 18353 net.cpp:148] Top shape: 24 192 28 28 (3612672)
I0403 16:30:14.619763 18353 net.cpp:156] Memory required for data: 710493216
I0403 16:30:14.619781 18353 layer_factory.hpp:77] Creating layer inception_3b/relu_3x3
I0403 16:30:14.619799 18353 net.cpp:91] Creating Layer inception_3b/relu_3x3
I0403 16:30:14.619814 18353 net.cpp:425] inception_3b/relu_3x3 <- inception_3b/3x3
I0403 16:30:14.619833 18353 net.cpp:386] inception_3b/relu_3x3 -> inception_3b/3x3 (in-place)
I0403 16:30:14.620115 18353 net.cpp:141] Setting up inception_3b/relu_3x3
I0403 16:30:14.620142 18353 net.cpp:148] Top shape: 24 192 28 28 (3612672)
I0403 16:30:14.620157 18353 net.cpp:156] Memory required for data: 724943904
I0403 16:30:14.620172 18353 layer_factory.hpp:77] Creating layer inception_3b/5x5_reduce
I0403 16:30:14.620193 18353 net.cpp:91] Creating Layer inception_3b/5x5_reduce
I0403 16:30:14.620210 18353 net.cpp:425] inception_3b/5x5_reduce <- inception_3a/output_inception_3a/output_0_split_2
I0403 16:30:14.620231 18353 net.cpp:399] inception_3b/5x5_reduce -> inception_3b/5x5_reduce
I0403 16:30:14.621214 18353 net.cpp:141] Setting up inception_3b/5x5_reduce
I0403 16:30:14.621244 18353 net.cpp:148] Top shape: 24 32 28 28 (602112)
I0403 16:30:14.621261 18353 net.cpp:156] Memory required for data: 727352352
I0403 16:30:14.621279 18353 layer_factory.hpp:77] Creating layer inception_3b/relu_5x5_reduce
I0403 16:30:14.621295 18353 net.cpp:91] Creating Layer inception_3b/relu_5x5_reduce
I0403 16:30:14.621310 18353 net.cpp:425] inception_3b/relu_5x5_reduce <- inception_3b/5x5_reduce
I0403 16:30:14.621327 18353 net.cpp:386] inception_3b/relu_5x5_reduce -> inception_3b/5x5_reduce (in-place)
I0403 16:30:14.621512 18353 net.cpp:141] Setting up inception_3b/relu_5x5_reduce
I0403 16:30:14.621536 18353 net.cpp:148] Top shape: 24 32 28 28 (602112)
I0403 16:30:14.621551 18353 net.cpp:156] Memory required for data: 729760800
I0403 16:30:14.621563 18353 layer_factory.hpp:77] Creating layer inception_3b/5x5
I0403 16:30:14.621584 18353 net.cpp:91] Creating Layer inception_3b/5x5
I0403 16:30:14.621604 18353 net.cpp:425] inception_3b/5x5 <- inception_3b/5x5_reduce
I0403 16:30:14.621626 18353 net.cpp:399] inception_3b/5x5 -> inception_3b/5x5
I0403 16:30:14.623553 18353 net.cpp:141] Setting up inception_3b/5x5
I0403 16:30:14.623580 18353 net.cpp:148] Top shape: 24 96 28 28 (1806336)
I0403 16:30:14.623595 18353 net.cpp:156] Memory required for data: 736986144
I0403 16:30:14.623618 18353 layer_factory.hpp:77] Creating layer inception_3b/relu_5x5
I0403 16:30:14.623637 18353 net.cpp:91] Creating Layer inception_3b/relu_5x5
I0403 16:30:14.623653 18353 net.cpp:425] inception_3b/relu_5x5 <- inception_3b/5x5
I0403 16:30:14.623669 18353 net.cpp:386] inception_3b/relu_5x5 -> inception_3b/5x5 (in-place)
I0403 16:30:14.623852 18353 net.cpp:141] Setting up inception_3b/relu_5x5
I0403 16:30:14.623877 18353 net.cpp:148] Top shape: 24 96 28 28 (1806336)
I0403 16:30:14.623890 18353 net.cpp:156] Memory required for data: 744211488
I0403 16:30:14.623904 18353 layer_factory.hpp:77] Creating layer inception_3b/pool
I0403 16:30:14.623921 18353 net.cpp:91] Creating Layer inception_3b/pool
I0403 16:30:14.623936 18353 net.cpp:425] inception_3b/pool <- inception_3a/output_inception_3a/output_0_split_3
I0403 16:30:14.623952 18353 net.cpp:399] inception_3b/pool -> inception_3b/pool
I0403 16:30:14.624004 18353 net.cpp:141] Setting up inception_3b/pool
I0403 16:30:14.624027 18353 net.cpp:148] Top shape: 24 256 28 28 (4816896)
I0403 16:30:14.624040 18353 net.cpp:156] Memory required for data: 763479072
I0403 16:30:14.624053 18353 layer_factory.hpp:77] Creating layer inception_3b/pool_proj
I0403 16:30:14.624074 18353 net.cpp:91] Creating Layer inception_3b/pool_proj
I0403 16:30:14.624091 18353 net.cpp:425] inception_3b/pool_proj <- inception_3b/pool
I0403 16:30:14.624110 18353 net.cpp:399] inception_3b/pool_proj -> inception_3b/pool_proj
I0403 16:30:14.625133 18353 net.cpp:141] Setting up inception_3b/pool_proj
I0403 16:30:14.625160 18353 net.cpp:148] Top shape: 24 64 28 28 (1204224)
I0403 16:30:14.625175 18353 net.cpp:156] Memory required for data: 768295968
I0403 16:30:14.625192 18353 layer_factory.hpp:77] Creating layer inception_3b/relu_pool_proj
I0403 16:30:14.625212 18353 net.cpp:91] Creating Layer inception_3b/relu_pool_proj
I0403 16:30:14.625228 18353 net.cpp:425] inception_3b/relu_pool_proj <- inception_3b/pool_proj
I0403 16:30:14.625244 18353 net.cpp:386] inception_3b/relu_pool_proj -> inception_3b/pool_proj (in-place)
I0403 16:30:14.625622 18353 net.cpp:141] Setting up inception_3b/relu_pool_proj
I0403 16:30:14.625648 18353 net.cpp:148] Top shape: 24 64 28 28 (1204224)
I0403 16:30:14.625663 18353 net.cpp:156] Memory required for data: 773112864
I0403 16:30:14.625677 18353 layer_factory.hpp:77] Creating layer inception_3b/output
I0403 16:30:14.625694 18353 net.cpp:91] Creating Layer inception_3b/output
I0403 16:30:14.625708 18353 net.cpp:425] inception_3b/output <- inception_3b/1x1
I0403 16:30:14.625723 18353 net.cpp:425] inception_3b/output <- inception_3b/3x3
I0403 16:30:14.625740 18353 net.cpp:425] inception_3b/output <- inception_3b/5x5
I0403 16:30:14.625754 18353 net.cpp:425] inception_3b/output <- inception_3b/pool_proj
I0403 16:30:14.625776 18353 net.cpp:399] inception_3b/output -> inception_3b/output
I0403 16:30:14.625818 18353 net.cpp:141] Setting up inception_3b/output
I0403 16:30:14.625841 18353 net.cpp:148] Top shape: 24 480 28 28 (9031680)
I0403 16:30:14.625856 18353 net.cpp:156] Memory required for data: 809239584
I0403 16:30:14.625869 18353 layer_factory.hpp:77] Creating layer pool3/3x3_s2
I0403 16:30:14.625885 18353 net.cpp:91] Creating Layer pool3/3x3_s2
I0403 16:30:14.625900 18353 net.cpp:425] pool3/3x3_s2 <- inception_3b/output
I0403 16:30:14.625932 18353 net.cpp:399] pool3/3x3_s2 -> pool3/3x3_s2
I0403 16:30:14.625989 18353 net.cpp:141] Setting up pool3/3x3_s2
I0403 16:30:14.626011 18353 net.cpp:148] Top shape: 24 480 14 14 (2257920)
I0403 16:30:14.626025 18353 net.cpp:156] Memory required for data: 818271264
I0403 16:30:14.626039 18353 layer_factory.hpp:77] Creating layer pool3/3x3_s2_pool3/3x3_s2_0_split
I0403 16:30:14.626055 18353 net.cpp:91] Creating Layer pool3/3x3_s2_pool3/3x3_s2_0_split
I0403 16:30:14.626068 18353 net.cpp:425] pool3/3x3_s2_pool3/3x3_s2_0_split <- pool3/3x3_s2
I0403 16:30:14.626085 18353 net.cpp:399] pool3/3x3_s2_pool3/3x3_s2_0_split -> pool3/3x3_s2_pool3/3x3_s2_0_split_0
I0403 16:30:14.626106 18353 net.cpp:399] pool3/3x3_s2_pool3/3x3_s2_0_split -> pool3/3x3_s2_pool3/3x3_s2_0_split_1
I0403 16:30:14.626123 18353 net.cpp:399] pool3/3x3_s2_pool3/3x3_s2_0_split -> pool3/3x3_s2_pool3/3x3_s2_0_split_2
I0403 16:30:14.626143 18353 net.cpp:399] pool3/3x3_s2_pool3/3x3_s2_0_split -> pool3/3x3_s2_pool3/3x3_s2_0_split_3
I0403 16:30:14.626216 18353 net.cpp:141] Setting up pool3/3x3_s2_pool3/3x3_s2_0_split
I0403 16:30:14.626238 18353 net.cpp:148] Top shape: 24 480 14 14 (2257920)
I0403 16:30:14.626253 18353 net.cpp:148] Top shape: 24 480 14 14 (2257920)
I0403 16:30:14.626268 18353 net.cpp:148] Top shape: 24 480 14 14 (2257920)
I0403 16:30:14.626282 18353 net.cpp:148] Top shape: 24 480 14 14 (2257920)
I0403 16:30:14.626296 18353 net.cpp:156] Memory required for data: 854397984
I0403 16:30:14.626309 18353 layer_factory.hpp:77] Creating layer inception_4a/1x1
I0403 16:30:14.626330 18353 net.cpp:91] Creating Layer inception_4a/1x1
I0403 16:30:14.626346 18353 net.cpp:425] inception_4a/1x1 <- pool3/3x3_s2_pool3/3x3_s2_0_split_0
I0403 16:30:14.626366 18353 net.cpp:399] inception_4a/1x1 -> inception_4a/1x1
I0403 16:30:14.627912 18353 net.cpp:141] Setting up inception_4a/1x1
I0403 16:30:14.627938 18353 net.cpp:148] Top shape: 24 192 14 14 (903168)
I0403 16:30:14.627954 18353 net.cpp:156] Memory required for data: 858010656
I0403 16:30:14.627971 18353 layer_factory.hpp:77] Creating layer inception_4a/relu_1x1
I0403 16:30:14.627990 18353 net.cpp:91] Creating Layer inception_4a/relu_1x1
I0403 16:30:14.628006 18353 net.cpp:425] inception_4a/relu_1x1 <- inception_4a/1x1
I0403 16:30:14.628022 18353 net.cpp:386] inception_4a/relu_1x1 -> inception_4a/1x1 (in-place)
I0403 16:30:14.628191 18353 net.cpp:141] Setting up inception_4a/relu_1x1
I0403 16:30:14.628216 18353 net.cpp:148] Top shape: 24 192 14 14 (903168)
I0403 16:30:14.628229 18353 net.cpp:156] Memory required for data: 861623328
I0403 16:30:14.628243 18353 layer_factory.hpp:77] Creating layer inception_4a/3x3_reduce
I0403 16:30:14.628268 18353 net.cpp:91] Creating Layer inception_4a/3x3_reduce
I0403 16:30:14.628283 18353 net.cpp:425] inception_4a/3x3_reduce <- pool3/3x3_s2_pool3/3x3_s2_0_split_1
I0403 16:30:14.628301 18353 net.cpp:399] inception_4a/3x3_reduce -> inception_4a/3x3_reduce
I0403 16:30:14.629523 18353 net.cpp:141] Setting up inception_4a/3x3_reduce
I0403 16:30:14.629549 18353 net.cpp:148] Top shape: 24 96 14 14 (451584)
I0403 16:30:14.629565 18353 net.cpp:156] Memory required for data: 863429664
I0403 16:30:14.629587 18353 layer_factory.hpp:77] Creating layer inception_4a/relu_3x3_reduce
I0403 16:30:14.629611 18353 net.cpp:91] Creating Layer inception_4a/relu_3x3_reduce
I0403 16:30:14.629628 18353 net.cpp:425] inception_4a/relu_3x3_reduce <- inception_4a/3x3_reduce
I0403 16:30:14.629647 18353 net.cpp:386] inception_4a/relu_3x3_reduce -> inception_4a/3x3_reduce (in-place)
I0403 16:30:14.629818 18353 net.cpp:141] Setting up inception_4a/relu_3x3_reduce
I0403 16:30:14.629842 18353 net.cpp:148] Top shape: 24 96 14 14 (451584)
I0403 16:30:14.629855 18353 net.cpp:156] Memory required for data: 865236000
I0403 16:30:14.629868 18353 layer_factory.hpp:77] Creating layer inception_4a/3x3
I0403 16:30:14.629889 18353 net.cpp:91] Creating Layer inception_4a/3x3
I0403 16:30:14.629907 18353 net.cpp:425] inception_4a/3x3 <- inception_4a/3x3_reduce
I0403 16:30:14.629925 18353 net.cpp:399] inception_4a/3x3 -> inception_4a/3x3
I0403 16:30:14.632553 18353 net.cpp:141] Setting up inception_4a/3x3
I0403 16:30:14.632581 18353 net.cpp:148] Top shape: 24 208 14 14 (978432)
I0403 16:30:14.632603 18353 net.cpp:156] Memory required for data: 869149728
I0403 16:30:14.632623 18353 layer_factory.hpp:77] Creating layer inception_4a/relu_3x3
I0403 16:30:14.632640 18353 net.cpp:91] Creating Layer inception_4a/relu_3x3
I0403 16:30:14.632655 18353 net.cpp:425] inception_4a/relu_3x3 <- inception_4a/3x3
I0403 16:30:14.632671 18353 net.cpp:386] inception_4a/relu_3x3 -> inception_4a/3x3 (in-place)
I0403 16:30:14.632939 18353 net.cpp:141] Setting up inception_4a/relu_3x3
I0403 16:30:14.632964 18353 net.cpp:148] Top shape: 24 208 14 14 (978432)
I0403 16:30:14.632982 18353 net.cpp:156] Memory required for data: 873063456
I0403 16:30:14.632995 18353 layer_factory.hpp:77] Creating layer inception_4a/5x5_reduce
I0403 16:30:14.633015 18353 net.cpp:91] Creating Layer inception_4a/5x5_reduce
I0403 16:30:14.633031 18353 net.cpp:425] inception_4a/5x5_reduce <- pool3/3x3_s2_pool3/3x3_s2_0_split_2
I0403 16:30:14.633051 18353 net.cpp:399] inception_4a/5x5_reduce -> inception_4a/5x5_reduce
I0403 16:30:14.634032 18353 net.cpp:141] Setting up inception_4a/5x5_reduce
I0403 16:30:14.634063 18353 net.cpp:148] Top shape: 24 16 14 14 (75264)
I0403 16:30:14.634080 18353 net.cpp:156] Memory required for data: 873364512
I0403 16:30:14.634099 18353 layer_factory.hpp:77] Creating layer inception_4a/relu_5x5_reduce
I0403 16:30:14.634115 18353 net.cpp:91] Creating Layer inception_4a/relu_5x5_reduce
I0403 16:30:14.634130 18353 net.cpp:425] inception_4a/relu_5x5_reduce <- inception_4a/5x5_reduce
I0403 16:30:14.634147 18353 net.cpp:386] inception_4a/relu_5x5_reduce -> inception_4a/5x5_reduce (in-place)
I0403 16:30:14.634322 18353 net.cpp:141] Setting up inception_4a/relu_5x5_reduce
I0403 16:30:14.634346 18353 net.cpp:148] Top shape: 24 16 14 14 (75264)
I0403 16:30:14.634359 18353 net.cpp:156] Memory required for data: 873665568
I0403 16:30:14.634373 18353 layer_factory.hpp:77] Creating layer inception_4a/5x5
I0403 16:30:14.634394 18353 net.cpp:91] Creating Layer inception_4a/5x5
I0403 16:30:14.634410 18353 net.cpp:425] inception_4a/5x5 <- inception_4a/5x5_reduce
I0403 16:30:14.634430 18353 net.cpp:399] inception_4a/5x5 -> inception_4a/5x5
I0403 16:30:14.635488 18353 net.cpp:141] Setting up inception_4a/5x5
I0403 16:30:14.635514 18353 net.cpp:148] Top shape: 24 48 14 14 (225792)
I0403 16:30:14.635529 18353 net.cpp:156] Memory required for data: 874568736
I0403 16:30:14.635546 18353 layer_factory.hpp:77] Creating layer inception_4a/relu_5x5
I0403 16:30:14.635563 18353 net.cpp:91] Creating Layer inception_4a/relu_5x5
I0403 16:30:14.635578 18353 net.cpp:425] inception_4a/relu_5x5 <- inception_4a/5x5
I0403 16:30:14.635597 18353 net.cpp:386] inception_4a/relu_5x5 -> inception_4a/5x5 (in-place)
I0403 16:30:14.635773 18353 net.cpp:141] Setting up inception_4a/relu_5x5
I0403 16:30:14.635797 18353 net.cpp:148] Top shape: 24 48 14 14 (225792)
I0403 16:30:14.635812 18353 net.cpp:156] Memory required for data: 875471904
I0403 16:30:14.635825 18353 layer_factory.hpp:77] Creating layer inception_4a/pool
I0403 16:30:14.635844 18353 net.cpp:91] Creating Layer inception_4a/pool
I0403 16:30:14.635859 18353 net.cpp:425] inception_4a/pool <- pool3/3x3_s2_pool3/3x3_s2_0_split_3
I0403 16:30:14.635877 18353 net.cpp:399] inception_4a/pool -> inception_4a/pool
I0403 16:30:14.635936 18353 net.cpp:141] Setting up inception_4a/pool
I0403 16:30:14.635958 18353 net.cpp:148] Top shape: 24 480 14 14 (2257920)
I0403 16:30:14.635972 18353 net.cpp:156] Memory required for data: 884503584
I0403 16:30:14.635987 18353 layer_factory.hpp:77] Creating layer inception_4a/pool_proj
I0403 16:30:14.636008 18353 net.cpp:91] Creating Layer inception_4a/pool_proj
I0403 16:30:14.636024 18353 net.cpp:425] inception_4a/pool_proj <- inception_4a/pool
I0403 16:30:14.636044 18353 net.cpp:399] inception_4a/pool_proj -> inception_4a/pool_proj
I0403 16:30:14.637168 18353 net.cpp:141] Setting up inception_4a/pool_proj
I0403 16:30:14.637195 18353 net.cpp:148] Top shape: 24 64 14 14 (301056)
I0403 16:30:14.637224 18353 net.cpp:156] Memory required for data: 885707808
I0403 16:30:14.637243 18353 layer_factory.hpp:77] Creating layer inception_4a/relu_pool_proj
I0403 16:30:14.637266 18353 net.cpp:91] Creating Layer inception_4a/relu_pool_proj
I0403 16:30:14.637284 18353 net.cpp:425] inception_4a/relu_pool_proj <- inception_4a/pool_proj
I0403 16:30:14.637301 18353 net.cpp:386] inception_4a/relu_pool_proj -> inception_4a/pool_proj (in-place)
I0403 16:30:14.637575 18353 net.cpp:141] Setting up inception_4a/relu_pool_proj
I0403 16:30:14.637604 18353 net.cpp:148] Top shape: 24 64 14 14 (301056)
I0403 16:30:14.637619 18353 net.cpp:156] Memory required for data: 886912032
I0403 16:30:14.637634 18353 layer_factory.hpp:77] Creating layer inception_4a/output
I0403 16:30:14.637650 18353 net.cpp:91] Creating Layer inception_4a/output
I0403 16:30:14.637663 18353 net.cpp:425] inception_4a/output <- inception_4a/1x1
I0403 16:30:14.637679 18353 net.cpp:425] inception_4a/output <- inception_4a/3x3
I0403 16:30:14.637694 18353 net.cpp:425] inception_4a/output <- inception_4a/5x5
I0403 16:30:14.637708 18353 net.cpp:425] inception_4a/output <- inception_4a/pool_proj
I0403 16:30:14.637727 18353 net.cpp:399] inception_4a/output -> inception_4a/output
I0403 16:30:14.637771 18353 net.cpp:141] Setting up inception_4a/output
I0403 16:30:14.637794 18353 net.cpp:148] Top shape: 24 512 14 14 (2408448)
I0403 16:30:14.637807 18353 net.cpp:156] Memory required for data: 896545824
I0403 16:30:14.637820 18353 layer_factory.hpp:77] Creating layer inception_4a/output_inception_4a/output_0_split
I0403 16:30:14.637837 18353 net.cpp:91] Creating Layer inception_4a/output_inception_4a/output_0_split
I0403 16:30:14.637851 18353 net.cpp:425] inception_4a/output_inception_4a/output_0_split <- inception_4a/output
I0403 16:30:14.637874 18353 net.cpp:399] inception_4a/output_inception_4a/output_0_split -> inception_4a/output_inception_4a/output_0_split_0
I0403 16:30:14.637894 18353 net.cpp:399] inception_4a/output_inception_4a/output_0_split -> inception_4a/output_inception_4a/output_0_split_1
I0403 16:30:14.637915 18353 net.cpp:399] inception_4a/output_inception_4a/output_0_split -> inception_4a/output_inception_4a/output_0_split_2
I0403 16:30:14.637934 18353 net.cpp:399] inception_4a/output_inception_4a/output_0_split -> inception_4a/output_inception_4a/output_0_split_3
I0403 16:30:14.637953 18353 net.cpp:399] inception_4a/output_inception_4a/output_0_split -> inception_4a/output_inception_4a/output_0_split_4
I0403 16:30:14.638039 18353 net.cpp:141] Setting up inception_4a/output_inception_4a/output_0_split
I0403 16:30:14.638064 18353 net.cpp:148] Top shape: 24 512 14 14 (2408448)
I0403 16:30:14.638080 18353 net.cpp:148] Top shape: 24 512 14 14 (2408448)
I0403 16:30:14.638095 18353 net.cpp:148] Top shape: 24 512 14 14 (2408448)
I0403 16:30:14.638109 18353 net.cpp:148] Top shape: 24 512 14 14 (2408448)
I0403 16:30:14.638124 18353 net.cpp:148] Top shape: 24 512 14 14 (2408448)
I0403 16:30:14.638137 18353 net.cpp:156] Memory required for data: 944714784
I0403 16:30:14.638150 18353 layer_factory.hpp:77] Creating layer loss1/ave_pool
I0403 16:30:14.638175 18353 net.cpp:91] Creating Layer loss1/ave_pool
I0403 16:30:14.638190 18353 net.cpp:425] loss1/ave_pool <- inception_4a/output_inception_4a/output_0_split_0
I0403 16:30:14.638208 18353 net.cpp:399] loss1/ave_pool -> loss1/ave_pool
I0403 16:30:14.638407 18353 net.cpp:141] Setting up loss1/ave_pool
I0403 16:30:14.638432 18353 net.cpp:148] Top shape: 24 512 4 4 (196608)
I0403 16:30:14.638445 18353 net.cpp:156] Memory required for data: 945501216
I0403 16:30:14.638459 18353 layer_factory.hpp:77] Creating layer loss1/conv
I0403 16:30:14.638479 18353 net.cpp:91] Creating Layer loss1/conv
I0403 16:30:14.638496 18353 net.cpp:425] loss1/conv <- loss1/ave_pool
I0403 16:30:14.638515 18353 net.cpp:399] loss1/conv -> loss1/conv
I0403 16:30:14.639905 18353 net.cpp:141] Setting up loss1/conv
I0403 16:30:14.639935 18353 net.cpp:148] Top shape: 24 128 4 4 (49152)
I0403 16:30:14.639963 18353 net.cpp:156] Memory required for data: 945697824
I0403 16:30:14.639982 18353 layer_factory.hpp:77] Creating layer loss1/relu_conv
I0403 16:30:14.639999 18353 net.cpp:91] Creating Layer loss1/relu_conv
I0403 16:30:14.640014 18353 net.cpp:425] loss1/relu_conv <- loss1/conv
I0403 16:30:14.640032 18353 net.cpp:386] loss1/relu_conv -> loss1/conv (in-place)
I0403 16:30:14.640306 18353 net.cpp:141] Setting up loss1/relu_conv
I0403 16:30:14.640333 18353 net.cpp:148] Top shape: 24 128 4 4 (49152)
I0403 16:30:14.640349 18353 net.cpp:156] Memory required for data: 945894432
I0403 16:30:14.640363 18353 layer_factory.hpp:77] Creating layer loss1/fc
I0403 16:30:14.640385 18353 net.cpp:91] Creating Layer loss1/fc
I0403 16:30:14.640403 18353 net.cpp:425] loss1/fc <- loss1/conv
I0403 16:30:14.640422 18353 net.cpp:399] loss1/fc -> loss1/fc
I0403 16:30:14.657850 18353 net.cpp:141] Setting up loss1/fc
I0403 16:30:14.657882 18353 net.cpp:148] Top shape: 24 1024 (24576)
I0403 16:30:14.657897 18353 net.cpp:156] Memory required for data: 945992736
I0403 16:30:14.657914 18353 layer_factory.hpp:77] Creating layer loss1/relu_fc
I0403 16:30:14.657934 18353 net.cpp:91] Creating Layer loss1/relu_fc
I0403 16:30:14.657950 18353 net.cpp:425] loss1/relu_fc <- loss1/fc
I0403 16:30:14.657968 18353 net.cpp:386] loss1/relu_fc -> loss1/fc (in-place)
I0403 16:30:14.658149 18353 net.cpp:141] Setting up loss1/relu_fc
I0403 16:30:14.658174 18353 net.cpp:148] Top shape: 24 1024 (24576)
I0403 16:30:14.658187 18353 net.cpp:156] Memory required for data: 946091040
I0403 16:30:14.658201 18353 layer_factory.hpp:77] Creating layer loss1/drop_fc
I0403 16:30:14.658226 18353 net.cpp:91] Creating Layer loss1/drop_fc
I0403 16:30:14.658243 18353 net.cpp:425] loss1/drop_fc <- loss1/fc
I0403 16:30:14.658259 18353 net.cpp:386] loss1/drop_fc -> loss1/fc (in-place)
I0403 16:30:14.658309 18353 net.cpp:141] Setting up loss1/drop_fc
I0403 16:30:14.658331 18353 net.cpp:148] Top shape: 24 1024 (24576)
I0403 16:30:14.658345 18353 net.cpp:156] Memory required for data: 946189344
I0403 16:30:14.658360 18353 layer_factory.hpp:77] Creating layer loss1/classifier_plantvillage
I0403 16:30:14.658377 18353 net.cpp:91] Creating Layer loss1/classifier_plantvillage
I0403 16:30:14.658391 18353 net.cpp:425] loss1/classifier_plantvillage <- loss1/fc
I0403 16:30:14.658411 18353 net.cpp:399] loss1/classifier_plantvillage -> loss1/classifier_plantvillage
I0403 16:30:14.660090 18353 net.cpp:141] Setting up loss1/classifier_plantvillage
I0403 16:30:14.660120 18353 net.cpp:148] Top shape: 24 38 (912)
I0403 16:30:14.660135 18353 net.cpp:156] Memory required for data: 946192992
I0403 16:30:14.660151 18353 layer_factory.hpp:77] Creating layer loss1/classifier_plantvillage_loss1/classifier_plantvillage_0_split
I0403 16:30:14.660169 18353 net.cpp:91] Creating Layer loss1/classifier_plantvillage_loss1/classifier_plantvillage_0_split
I0403 16:30:14.660183 18353 net.cpp:425] loss1/classifier_plantvillage_loss1/classifier_plantvillage_0_split <- loss1/classifier_plantvillage
I0403 16:30:14.660199 18353 net.cpp:399] loss1/classifier_plantvillage_loss1/classifier_plantvillage_0_split -> loss1/classifier_plantvillage_loss1/classifier_plantvillage_0_split_0
I0403 16:30:14.660218 18353 net.cpp:399] loss1/classifier_plantvillage_loss1/classifier_plantvillage_0_split -> loss1/classifier_plantvillage_loss1/classifier_plantvillage_0_split_1
I0403 16:30:14.660238 18353 net.cpp:399] loss1/classifier_plantvillage_loss1/classifier_plantvillage_0_split -> loss1/classifier_plantvillage_loss1/classifier_plantvillage_0_split_2
I0403 16:30:14.660302 18353 net.cpp:141] Setting up loss1/classifier_plantvillage_loss1/classifier_plantvillage_0_split
I0403 16:30:14.660325 18353 net.cpp:148] Top shape: 24 38 (912)
I0403 16:30:14.660339 18353 net.cpp:148] Top shape: 24 38 (912)
I0403 16:30:14.660353 18353 net.cpp:148] Top shape: 24 38 (912)
I0403 16:30:14.660367 18353 net.cpp:156] Memory required for data: 946203936
I0403 16:30:14.660380 18353 layer_factory.hpp:77] Creating layer inception_4b/1x1
I0403 16:30:14.660398 18353 net.cpp:91] Creating Layer inception_4b/1x1
I0403 16:30:14.660429 18353 net.cpp:425] inception_4b/1x1 <- inception_4a/output_inception_4a/output_0_split_1
I0403 16:30:14.660450 18353 net.cpp:399] inception_4b/1x1 -> inception_4b/1x1
I0403 16:30:14.662052 18353 net.cpp:141] Setting up inception_4b/1x1
I0403 16:30:14.662082 18353 net.cpp:148] Top shape: 24 160 14 14 (752640)
I0403 16:30:14.662099 18353 net.cpp:156] Memory required for data: 949214496
I0403 16:30:14.662117 18353 layer_factory.hpp:77] Creating layer inception_4b/relu_1x1
I0403 16:30:14.662133 18353 net.cpp:91] Creating Layer inception_4b/relu_1x1
I0403 16:30:14.662148 18353 net.cpp:425] inception_4b/relu_1x1 <- inception_4b/1x1
I0403 16:30:14.662165 18353 net.cpp:386] inception_4b/relu_1x1 -> inception_4b/1x1 (in-place)
I0403 16:30:14.662343 18353 net.cpp:141] Setting up inception_4b/relu_1x1
I0403 16:30:14.662367 18353 net.cpp:148] Top shape: 24 160 14 14 (752640)
I0403 16:30:14.662382 18353 net.cpp:156] Memory required for data: 952225056
I0403 16:30:14.662396 18353 layer_factory.hpp:77] Creating layer inception_4b/3x3_reduce
I0403 16:30:14.662431 18353 net.cpp:91] Creating Layer inception_4b/3x3_reduce
I0403 16:30:14.662447 18353 net.cpp:425] inception_4b/3x3_reduce <- inception_4a/output_inception_4a/output_0_split_2
I0403 16:30:14.662468 18353 net.cpp:399] inception_4b/3x3_reduce -> inception_4b/3x3_reduce
I0403 16:30:14.663805 18353 net.cpp:141] Setting up inception_4b/3x3_reduce
I0403 16:30:14.663836 18353 net.cpp:148] Top shape: 24 112 14 14 (526848)
I0403 16:30:14.663852 18353 net.cpp:156] Memory required for data: 954332448
I0403 16:30:14.663871 18353 layer_factory.hpp:77] Creating layer inception_4b/relu_3x3_reduce
I0403 16:30:14.663888 18353 net.cpp:91] Creating Layer inception_4b/relu_3x3_reduce
I0403 16:30:14.663903 18353 net.cpp:425] inception_4b/relu_3x3_reduce <- inception_4b/3x3_reduce
I0403 16:30:14.663921 18353 net.cpp:386] inception_4b/relu_3x3_reduce -> inception_4b/3x3_reduce (in-place)
I0403 16:30:14.664197 18353 net.cpp:141] Setting up inception_4b/relu_3x3_reduce
I0403 16:30:14.664225 18353 net.cpp:148] Top shape: 24 112 14 14 (526848)
I0403 16:30:14.664240 18353 net.cpp:156] Memory required for data: 956439840
I0403 16:30:14.664255 18353 layer_factory.hpp:77] Creating layer inception_4b/3x3
I0403 16:30:14.664278 18353 net.cpp:91] Creating Layer inception_4b/3x3
I0403 16:30:14.664294 18353 net.cpp:425] inception_4b/3x3 <- inception_4b/3x3_reduce
I0403 16:30:14.664331 18353 net.cpp:399] inception_4b/3x3 -> inception_4b/3x3
I0403 16:30:14.667316 18353 net.cpp:141] Setting up inception_4b/3x3
I0403 16:30:14.667343 18353 net.cpp:148] Top shape: 24 224 14 14 (1053696)
I0403 16:30:14.667358 18353 net.cpp:156] Memory required for data: 960654624
I0403 16:30:14.667376 18353 layer_factory.hpp:77] Creating layer inception_4b/relu_3x3
I0403 16:30:14.667395 18353 net.cpp:91] Creating Layer inception_4b/relu_3x3
I0403 16:30:14.667410 18353 net.cpp:425] inception_4b/relu_3x3 <- inception_4b/3x3
I0403 16:30:14.667426 18353 net.cpp:386] inception_4b/relu_3x3 -> inception_4b/3x3 (in-place)
I0403 16:30:14.667608 18353 net.cpp:141] Setting up inception_4b/relu_3x3
I0403 16:30:14.667635 18353 net.cpp:148] Top shape: 24 224 14 14 (1053696)
I0403 16:30:14.667650 18353 net.cpp:156] Memory required for data: 964869408
I0403 16:30:14.667664 18353 layer_factory.hpp:77] Creating layer inception_4b/5x5_reduce
I0403 16:30:14.667685 18353 net.cpp:91] Creating Layer inception_4b/5x5_reduce
I0403 16:30:14.667701 18353 net.cpp:425] inception_4b/5x5_reduce <- inception_4a/output_inception_4a/output_0_split_3
I0403 16:30:14.667718 18353 net.cpp:399] inception_4b/5x5_reduce -> inception_4b/5x5_reduce
I0403 16:30:14.668834 18353 net.cpp:141] Setting up inception_4b/5x5_reduce
I0403 16:30:14.668867 18353 net.cpp:148] Top shape: 24 24 14 14 (112896)
I0403 16:30:14.668882 18353 net.cpp:156] Memory required for data: 965320992
I0403 16:30:14.668900 18353 layer_factory.hpp:77] Creating layer inception_4b/relu_5x5_reduce
I0403 16:30:14.668917 18353 net.cpp:91] Creating Layer inception_4b/relu_5x5_reduce
I0403 16:30:14.668947 18353 net.cpp:425] inception_4b/relu_5x5_reduce <- inception_4b/5x5_reduce
I0403 16:30:14.668968 18353 net.cpp:386] inception_4b/relu_5x5_reduce -> inception_4b/5x5_reduce (in-place)
I0403 16:30:14.669143 18353 net.cpp:141] Setting up inception_4b/relu_5x5_reduce
I0403 16:30:14.669167 18353 net.cpp:148] Top shape: 24 24 14 14 (112896)
I0403 16:30:14.669181 18353 net.cpp:156] Memory required for data: 965772576
I0403 16:30:14.669195 18353 layer_factory.hpp:77] Creating layer inception_4b/5x5
I0403 16:30:14.669216 18353 net.cpp:91] Creating Layer inception_4b/5x5
I0403 16:30:14.669234 18353 net.cpp:425] inception_4b/5x5 <- inception_4b/5x5_reduce
I0403 16:30:14.669253 18353 net.cpp:399] inception_4b/5x5 -> inception_4b/5x5
I0403 16:30:14.670436 18353 net.cpp:141] Setting up inception_4b/5x5
I0403 16:30:14.670465 18353 net.cpp:148] Top shape: 24 64 14 14 (301056)
I0403 16:30:14.670481 18353 net.cpp:156] Memory required for data: 966976800
I0403 16:30:14.670498 18353 layer_factory.hpp:77] Creating layer inception_4b/relu_5x5
I0403 16:30:14.670516 18353 net.cpp:91] Creating Layer inception_4b/relu_5x5
I0403 16:30:14.670531 18353 net.cpp:425] inception_4b/relu_5x5 <- inception_4b/5x5
I0403 16:30:14.670547 18353 net.cpp:386] inception_4b/relu_5x5 -> inception_4b/5x5 (in-place)
I0403 16:30:14.670826 18353 net.cpp:141] Setting up inception_4b/relu_5x5
I0403 16:30:14.670855 18353 net.cpp:148] Top shape: 24 64 14 14 (301056)
I0403 16:30:14.670869 18353 net.cpp:156] Memory required for data: 968181024
I0403 16:30:14.670883 18353 layer_factory.hpp:77] Creating layer inception_4b/pool
I0403 16:30:14.670900 18353 net.cpp:91] Creating Layer inception_4b/pool
I0403 16:30:14.670915 18353 net.cpp:425] inception_4b/pool <- inception_4a/output_inception_4a/output_0_split_4
I0403 16:30:14.670933 18353 net.cpp:399] inception_4b/pool -> inception_4b/pool
I0403 16:30:14.670996 18353 net.cpp:141] Setting up inception_4b/pool
I0403 16:30:14.671018 18353 net.cpp:148] Top shape: 24 512 14 14 (2408448)
I0403 16:30:14.671033 18353 net.cpp:156] Memory required for data: 977814816
I0403 16:30:14.671046 18353 layer_factory.hpp:77] Creating layer inception_4b/pool_proj
I0403 16:30:14.671067 18353 net.cpp:91] Creating Layer inception_4b/pool_proj
I0403 16:30:14.671084 18353 net.cpp:425] inception_4b/pool_proj <- inception_4b/pool
I0403 16:30:14.671103 18353 net.cpp:399] inception_4b/pool_proj -> inception_4b/pool_proj
I0403 16:30:14.672279 18353 net.cpp:141] Setting up inception_4b/pool_proj
I0403 16:30:14.672307 18353 net.cpp:148] Top shape: 24 64 14 14 (301056)
I0403 16:30:14.672323 18353 net.cpp:156] Memory required for data: 979019040
I0403 16:30:14.672343 18353 layer_factory.hpp:77] Creating layer inception_4b/relu_pool_proj
I0403 16:30:14.672359 18353 net.cpp:91] Creating Layer inception_4b/relu_pool_proj
I0403 16:30:14.672374 18353 net.cpp:425] inception_4b/relu_pool_proj <- inception_4b/pool_proj
I0403 16:30:14.672396 18353 net.cpp:386] inception_4b/relu_pool_proj -> inception_4b/pool_proj (in-place)
I0403 16:30:14.672572 18353 net.cpp:141] Setting up inception_4b/relu_pool_proj
I0403 16:30:14.672596 18353 net.cpp:148] Top shape: 24 64 14 14 (301056)
I0403 16:30:14.672617 18353 net.cpp:156] Memory required for data: 980223264
I0403 16:30:14.672632 18353 layer_factory.hpp:77] Creating layer inception_4b/output
I0403 16:30:14.672648 18353 net.cpp:91] Creating Layer inception_4b/output
I0403 16:30:14.672663 18353 net.cpp:425] inception_4b/output <- inception_4b/1x1
I0403 16:30:14.672678 18353 net.cpp:425] inception_4b/output <- inception_4b/3x3
I0403 16:30:14.672694 18353 net.cpp:425] inception_4b/output <- inception_4b/5x5
I0403 16:30:14.672709 18353 net.cpp:425] inception_4b/output <- inception_4b/pool_proj
I0403 16:30:14.672727 18353 net.cpp:399] inception_4b/output -> inception_4b/output
I0403 16:30:14.672771 18353 net.cpp:141] Setting up inception_4b/output
I0403 16:30:14.672796 18353 net.cpp:148] Top shape: 24 512 14 14 (2408448)
I0403 16:30:14.672811 18353 net.cpp:156] Memory required for data: 989857056
I0403 16:30:14.672838 18353 layer_factory.hpp:77] Creating layer inception_4b/output_inception_4b/output_0_split
I0403 16:30:14.672857 18353 net.cpp:91] Creating Layer inception_4b/output_inception_4b/output_0_split
I0403 16:30:14.672870 18353 net.cpp:425] inception_4b/output_inception_4b/output_0_split <- inception_4b/output
I0403 16:30:14.672889 18353 net.cpp:399] inception_4b/output_inception_4b/output_0_split -> inception_4b/output_inception_4b/output_0_split_0
I0403 16:30:14.672909 18353 net.cpp:399] inception_4b/output_inception_4b/output_0_split -> inception_4b/output_inception_4b/output_0_split_1
I0403 16:30:14.672930 18353 net.cpp:399] inception_4b/output_inception_4b/output_0_split -> inception_4b/output_inception_4b/output_0_split_2
I0403 16:30:14.672948 18353 net.cpp:399] inception_4b/output_inception_4b/output_0_split -> inception_4b/output_inception_4b/output_0_split_3
I0403 16:30:14.673027 18353 net.cpp:141] Setting up inception_4b/output_inception_4b/output_0_split
I0403 16:30:14.673049 18353 net.cpp:148] Top shape: 24 512 14 14 (2408448)
I0403 16:30:14.673069 18353 net.cpp:148] Top shape: 24 512 14 14 (2408448)
I0403 16:30:14.673084 18353 net.cpp:148] Top shape: 24 512 14 14 (2408448)
I0403 16:30:14.673099 18353 net.cpp:148] Top shape: 24 512 14 14 (2408448)
I0403 16:30:14.673111 18353 net.cpp:156] Memory required for data: 1028392224
I0403 16:30:14.673125 18353 layer_factory.hpp:77] Creating layer inception_4c/1x1
I0403 16:30:14.673143 18353 net.cpp:91] Creating Layer inception_4c/1x1
I0403 16:30:14.673159 18353 net.cpp:425] inception_4c/1x1 <- inception_4b/output_inception_4b/output_0_split_0
I0403 16:30:14.673178 18353 net.cpp:399] inception_4c/1x1 -> inception_4c/1x1
I0403 16:30:14.674687 18353 net.cpp:141] Setting up inception_4c/1x1
I0403 16:30:14.674715 18353 net.cpp:148] Top shape: 24 128 14 14 (602112)
I0403 16:30:14.674729 18353 net.cpp:156] Memory required for data: 1030800672
I0403 16:30:14.674747 18353 layer_factory.hpp:77] Creating layer inception_4c/relu_1x1
I0403 16:30:14.674768 18353 net.cpp:91] Creating Layer inception_4c/relu_1x1
I0403 16:30:14.674783 18353 net.cpp:425] inception_4c/relu_1x1 <- inception_4c/1x1
I0403 16:30:14.674800 18353 net.cpp:386] inception_4c/relu_1x1 -> inception_4c/1x1 (in-place)
I0403 16:30:14.674978 18353 net.cpp:141] Setting up inception_4c/relu_1x1
I0403 16:30:14.675001 18353 net.cpp:148] Top shape: 24 128 14 14 (602112)
I0403 16:30:14.675015 18353 net.cpp:156] Memory required for data: 1033209120
I0403 16:30:14.675029 18353 layer_factory.hpp:77] Creating layer inception_4c/3x3_reduce
I0403 16:30:14.675051 18353 net.cpp:91] Creating Layer inception_4c/3x3_reduce
I0403 16:30:14.675068 18353 net.cpp:425] inception_4c/3x3_reduce <- inception_4b/output_inception_4b/output_0_split_1
I0403 16:30:14.675086 18353 net.cpp:399] inception_4c/3x3_reduce -> inception_4c/3x3_reduce
I0403 16:30:14.676996 18353 net.cpp:141] Setting up inception_4c/3x3_reduce
I0403 16:30:14.677023 18353 net.cpp:148] Top shape: 24 128 14 14 (602112)
I0403 16:30:14.677039 18353 net.cpp:156] Memory required for data: 1035617568
I0403 16:30:14.677057 18353 layer_factory.hpp:77] Creating layer inception_4c/relu_3x3_reduce
I0403 16:30:14.677076 18353 net.cpp:91] Creating Layer inception_4c/relu_3x3_reduce
I0403 16:30:14.677093 18353 net.cpp:425] inception_4c/relu_3x3_reduce <- inception_4c/3x3_reduce
I0403 16:30:14.677109 18353 net.cpp:386] inception_4c/relu_3x3_reduce -> inception_4c/3x3_reduce (in-place)
I0403 16:30:14.677407 18353 net.cpp:141] Setting up inception_4c/relu_3x3_reduce
I0403 16:30:14.677433 18353 net.cpp:148] Top shape: 24 128 14 14 (602112)
I0403 16:30:14.677448 18353 net.cpp:156] Memory required for data: 1038026016
I0403 16:30:14.677461 18353 layer_factory.hpp:77] Creating layer inception_4c/3x3
I0403 16:30:14.677485 18353 net.cpp:91] Creating Layer inception_4c/3x3
I0403 16:30:14.677503 18353 net.cpp:425] inception_4c/3x3 <- inception_4c/3x3_reduce
I0403 16:30:14.677521 18353 net.cpp:399] inception_4c/3x3 -> inception_4c/3x3
I0403 16:30:14.681030 18353 net.cpp:141] Setting up inception_4c/3x3
I0403 16:30:14.681071 18353 net.cpp:148] Top shape: 24 256 14 14 (1204224)
I0403 16:30:14.681087 18353 net.cpp:156] Memory required for data: 1042842912
I0403 16:30:14.681116 18353 layer_factory.hpp:77] Creating layer inception_4c/relu_3x3
I0403 16:30:14.681136 18353 net.cpp:91] Creating Layer inception_4c/relu_3x3
I0403 16:30:14.681151 18353 net.cpp:425] inception_4c/relu_3x3 <- inception_4c/3x3
I0403 16:30:14.681169 18353 net.cpp:386] inception_4c/relu_3x3 -> inception_4c/3x3 (in-place)
I0403 16:30:14.681340 18353 net.cpp:141] Setting up inception_4c/relu_3x3
I0403 16:30:14.681366 18353 net.cpp:148] Top shape: 24 256 14 14 (1204224)
I0403 16:30:14.681380 18353 net.cpp:156] Memory required for data: 1047659808
I0403 16:30:14.681394 18353 layer_factory.hpp:77] Creating layer inception_4c/5x5_reduce
I0403 16:30:14.681416 18353 net.cpp:91] Creating Layer inception_4c/5x5_reduce
I0403 16:30:14.681432 18353 net.cpp:425] inception_4c/5x5_reduce <- inception_4b/output_inception_4b/output_0_split_2
I0403 16:30:14.681450 18353 net.cpp:399] inception_4c/5x5_reduce -> inception_4c/5x5_reduce
I0403 16:30:14.682484 18353 net.cpp:141] Setting up inception_4c/5x5_reduce
I0403 16:30:14.682513 18353 net.cpp:148] Top shape: 24 24 14 14 (112896)
I0403 16:30:14.682528 18353 net.cpp:156] Memory required for data: 1048111392
I0403 16:30:14.682545 18353 layer_factory.hpp:77] Creating layer inception_4c/relu_5x5_reduce
I0403 16:30:14.682562 18353 net.cpp:91] Creating Layer inception_4c/relu_5x5_reduce
I0403 16:30:14.682577 18353 net.cpp:425] inception_4c/relu_5x5_reduce <- inception_4c/5x5_reduce
I0403 16:30:14.682595 18353 net.cpp:386] inception_4c/relu_5x5_reduce -> inception_4c/5x5_reduce (in-place)
I0403 16:30:14.682777 18353 net.cpp:141] Setting up inception_4c/relu_5x5_reduce
I0403 16:30:14.682801 18353 net.cpp:148] Top shape: 24 24 14 14 (112896)
I0403 16:30:14.682816 18353 net.cpp:156] Memory required for data: 1048562976
I0403 16:30:14.682829 18353 layer_factory.hpp:77] Creating layer inception_4c/5x5
I0403 16:30:14.682849 18353 net.cpp:91] Creating Layer inception_4c/5x5
I0403 16:30:14.682865 18353 net.cpp:425] inception_4c/5x5 <- inception_4c/5x5_reduce
I0403 16:30:14.682885 18353 net.cpp:399] inception_4c/5x5 -> inception_4c/5x5
I0403 16:30:14.684054 18353 net.cpp:141] Setting up inception_4c/5x5
I0403 16:30:14.684080 18353 net.cpp:148] Top shape: 24 64 14 14 (301056)
I0403 16:30:14.684094 18353 net.cpp:156] Memory required for data: 1049767200
I0403 16:30:14.684111 18353 layer_factory.hpp:77] Creating layer inception_4c/relu_5x5
I0403 16:30:14.684130 18353 net.cpp:91] Creating Layer inception_4c/relu_5x5
I0403 16:30:14.684145 18353 net.cpp:425] inception_4c/relu_5x5 <- inception_4c/5x5
I0403 16:30:14.684161 18353 net.cpp:386] inception_4c/relu_5x5 -> inception_4c/5x5 (in-place)
I0403 16:30:14.684464 18353 net.cpp:141] Setting up inception_4c/relu_5x5
I0403 16:30:14.684490 18353 net.cpp:148] Top shape: 24 64 14 14 (301056)
I0403 16:30:14.684505 18353 net.cpp:156] Memory required for data: 1050971424
I0403 16:30:14.684520 18353 layer_factory.hpp:77] Creating layer inception_4c/pool
I0403 16:30:14.684536 18353 net.cpp:91] Creating Layer inception_4c/pool
I0403 16:30:14.684563 18353 net.cpp:425] inception_4c/pool <- inception_4b/output_inception_4b/output_0_split_3
I0403 16:30:14.684584 18353 net.cpp:399] inception_4c/pool -> inception_4c/pool
I0403 16:30:14.684669 18353 net.cpp:141] Setting up inception_4c/pool
I0403 16:30:14.684691 18353 net.cpp:148] Top shape: 24 512 14 14 (2408448)
I0403 16:30:14.684705 18353 net.cpp:156] Memory required for data: 1060605216
I0403 16:30:14.684717 18353 layer_factory.hpp:77] Creating layer inception_4c/pool_proj
I0403 16:30:14.684738 18353 net.cpp:91] Creating Layer inception_4c/pool_proj
I0403 16:30:14.684754 18353 net.cpp:425] inception_4c/pool_proj <- inception_4c/pool
I0403 16:30:14.684773 18353 net.cpp:399] inception_4c/pool_proj -> inception_4c/pool_proj
I0403 16:30:14.685921 18353 net.cpp:141] Setting up inception_4c/pool_proj
I0403 16:30:14.685950 18353 net.cpp:148] Top shape: 24 64 14 14 (301056)
I0403 16:30:14.685979 18353 net.cpp:156] Memory required for data: 1061809440
I0403 16:30:14.685997 18353 layer_factory.hpp:77] Creating layer inception_4c/relu_pool_proj
I0403 16:30:14.686014 18353 net.cpp:91] Creating Layer inception_4c/relu_pool_proj
I0403 16:30:14.686028 18353 net.cpp:425] inception_4c/relu_pool_proj <- inception_4c/pool_proj
I0403 16:30:14.686044 18353 net.cpp:386] inception_4c/relu_pool_proj -> inception_4c/pool_proj (in-place)
I0403 16:30:14.686221 18353 net.cpp:141] Setting up inception_4c/relu_pool_proj
I0403 16:30:14.686244 18353 net.cpp:148] Top shape: 24 64 14 14 (301056)
I0403 16:30:14.686259 18353 net.cpp:156] Memory required for data: 1063013664
I0403 16:30:14.686272 18353 layer_factory.hpp:77] Creating layer inception_4c/output
I0403 16:30:14.686288 18353 net.cpp:91] Creating Layer inception_4c/output
I0403 16:30:14.686302 18353 net.cpp:425] inception_4c/output <- inception_4c/1x1
I0403 16:30:14.686318 18353 net.cpp:425] inception_4c/output <- inception_4c/3x3
I0403 16:30:14.686333 18353 net.cpp:425] inception_4c/output <- inception_4c/5x5
I0403 16:30:14.686347 18353 net.cpp:425] inception_4c/output <- inception_4c/pool_proj
I0403 16:30:14.686364 18353 net.cpp:399] inception_4c/output -> inception_4c/output
I0403 16:30:14.686408 18353 net.cpp:141] Setting up inception_4c/output
I0403 16:30:14.686432 18353 net.cpp:148] Top shape: 24 512 14 14 (2408448)
I0403 16:30:14.686446 18353 net.cpp:156] Memory required for data: 1072647456
I0403 16:30:14.686460 18353 layer_factory.hpp:77] Creating layer inception_4c/output_inception_4c/output_0_split
I0403 16:30:14.686475 18353 net.cpp:91] Creating Layer inception_4c/output_inception_4c/output_0_split
I0403 16:30:14.686488 18353 net.cpp:425] inception_4c/output_inception_4c/output_0_split <- inception_4c/output
I0403 16:30:14.686506 18353 net.cpp:399] inception_4c/output_inception_4c/output_0_split -> inception_4c/output_inception_4c/output_0_split_0
I0403 16:30:14.686525 18353 net.cpp:399] inception_4c/output_inception_4c/output_0_split -> inception_4c/output_inception_4c/output_0_split_1
I0403 16:30:14.686544 18353 net.cpp:399] inception_4c/output_inception_4c/output_0_split -> inception_4c/output_inception_4c/output_0_split_2
I0403 16:30:14.686563 18353 net.cpp:399] inception_4c/output_inception_4c/output_0_split -> inception_4c/output_inception_4c/output_0_split_3
I0403 16:30:14.686647 18353 net.cpp:141] Setting up inception_4c/output_inception_4c/output_0_split
I0403 16:30:14.686669 18353 net.cpp:148] Top shape: 24 512 14 14 (2408448)
I0403 16:30:14.686683 18353 net.cpp:148] Top shape: 24 512 14 14 (2408448)
I0403 16:30:14.686697 18353 net.cpp:148] Top shape: 24 512 14 14 (2408448)
I0403 16:30:14.686712 18353 net.cpp:148] Top shape: 24 512 14 14 (2408448)
I0403 16:30:14.686724 18353 net.cpp:156] Memory required for data: 1111182624
I0403 16:30:14.686738 18353 layer_factory.hpp:77] Creating layer inception_4d/1x1
I0403 16:30:14.686758 18353 net.cpp:91] Creating Layer inception_4d/1x1
I0403 16:30:14.686774 18353 net.cpp:425] inception_4d/1x1 <- inception_4c/output_inception_4c/output_0_split_0
I0403 16:30:14.686791 18353 net.cpp:399] inception_4d/1x1 -> inception_4d/1x1
I0403 16:30:14.688092 18353 net.cpp:141] Setting up inception_4d/1x1
I0403 16:30:14.688118 18353 net.cpp:148] Top shape: 24 112 14 14 (526848)
I0403 16:30:14.688133 18353 net.cpp:156] Memory required for data: 1113290016
I0403 16:30:14.688149 18353 layer_factory.hpp:77] Creating layer inception_4d/relu_1x1
I0403 16:30:14.688169 18353 net.cpp:91] Creating Layer inception_4d/relu_1x1
I0403 16:30:14.688184 18353 net.cpp:425] inception_4d/relu_1x1 <- inception_4d/1x1
I0403 16:30:14.688199 18353 net.cpp:386] inception_4d/relu_1x1 -> inception_4d/1x1 (in-place)
I0403 16:30:14.688372 18353 net.cpp:141] Setting up inception_4d/relu_1x1
I0403 16:30:14.688397 18353 net.cpp:148] Top shape: 24 112 14 14 (526848)
I0403 16:30:14.688411 18353 net.cpp:156] Memory required for data: 1115397408
I0403 16:30:14.688426 18353 layer_factory.hpp:77] Creating layer inception_4d/3x3_reduce
I0403 16:30:14.688459 18353 net.cpp:91] Creating Layer inception_4d/3x3_reduce
I0403 16:30:14.688477 18353 net.cpp:425] inception_4d/3x3_reduce <- inception_4c/output_inception_4c/output_0_split_1
I0403 16:30:14.688494 18353 net.cpp:399] inception_4d/3x3_reduce -> inception_4d/3x3_reduce
I0403 16:30:14.689940 18353 net.cpp:141] Setting up inception_4d/3x3_reduce
I0403 16:30:14.689966 18353 net.cpp:148] Top shape: 24 144 14 14 (677376)
I0403 16:30:14.689981 18353 net.cpp:156] Memory required for data: 1118106912
I0403 16:30:14.689998 18353 layer_factory.hpp:77] Creating layer inception_4d/relu_3x3_reduce
I0403 16:30:14.690016 18353 net.cpp:91] Creating Layer inception_4d/relu_3x3_reduce
I0403 16:30:14.690033 18353 net.cpp:425] inception_4d/relu_3x3_reduce <- inception_4d/3x3_reduce
I0403 16:30:14.690049 18353 net.cpp:386] inception_4d/relu_3x3_reduce -> inception_4d/3x3_reduce (in-place)
I0403 16:30:14.690330 18353 net.cpp:141] Setting up inception_4d/relu_3x3_reduce
I0403 16:30:14.690353 18353 net.cpp:148] Top shape: 24 144 14 14 (677376)
I0403 16:30:14.690367 18353 net.cpp:156] Memory required for data: 1120816416
I0403 16:30:14.690381 18353 layer_factory.hpp:77] Creating layer inception_4d/3x3
I0403 16:30:14.690402 18353 net.cpp:91] Creating Layer inception_4d/3x3
I0403 16:30:14.690418 18353 net.cpp:425] inception_4d/3x3 <- inception_4d/3x3_reduce
I0403 16:30:14.690438 18353 net.cpp:399] inception_4d/3x3 -> inception_4d/3x3
I0403 16:30:14.694530 18353 net.cpp:141] Setting up inception_4d/3x3
I0403 16:30:14.694557 18353 net.cpp:148] Top shape: 24 288 14 14 (1354752)
I0403 16:30:14.694571 18353 net.cpp:156] Memory required for data: 1126235424
I0403 16:30:14.694588 18353 layer_factory.hpp:77] Creating layer inception_4d/relu_3x3
I0403 16:30:14.694619 18353 net.cpp:91] Creating Layer inception_4d/relu_3x3
I0403 16:30:14.694638 18353 net.cpp:425] inception_4d/relu_3x3 <- inception_4d/3x3
I0403 16:30:14.694653 18353 net.cpp:386] inception_4d/relu_3x3 -> inception_4d/3x3 (in-place)
I0403 16:30:14.694826 18353 net.cpp:141] Setting up inception_4d/relu_3x3
I0403 16:30:14.694851 18353 net.cpp:148] Top shape: 24 288 14 14 (1354752)
I0403 16:30:14.694865 18353 net.cpp:156] Memory required for data: 1131654432
I0403 16:30:14.694878 18353 layer_factory.hpp:77] Creating layer inception_4d/5x5_reduce
I0403 16:30:14.694898 18353 net.cpp:91] Creating Layer inception_4d/5x5_reduce
I0403 16:30:14.694914 18353 net.cpp:425] inception_4d/5x5_reduce <- inception_4c/output_inception_4c/output_0_split_2
I0403 16:30:14.694934 18353 net.cpp:399] inception_4d/5x5_reduce -> inception_4d/5x5_reduce
I0403 16:30:14.696022 18353 net.cpp:141] Setting up inception_4d/5x5_reduce
I0403 16:30:14.696048 18353 net.cpp:148] Top shape: 24 32 14 14 (150528)
I0403 16:30:14.696063 18353 net.cpp:156] Memory required for data: 1132256544
I0403 16:30:14.696080 18353 layer_factory.hpp:77] Creating layer inception_4d/relu_5x5_reduce
I0403 16:30:14.696099 18353 net.cpp:91] Creating Layer inception_4d/relu_5x5_reduce
I0403 16:30:14.696113 18353 net.cpp:425] inception_4d/relu_5x5_reduce <- inception_4d/5x5_reduce
I0403 16:30:14.696128 18353 net.cpp:386] inception_4d/relu_5x5_reduce -> inception_4d/5x5_reduce (in-place)
I0403 16:30:14.696305 18353 net.cpp:141] Setting up inception_4d/relu_5x5_reduce
I0403 16:30:14.696331 18353 net.cpp:148] Top shape: 24 32 14 14 (150528)
I0403 16:30:14.696346 18353 net.cpp:156] Memory required for data: 1132858656
I0403 16:30:14.696359 18353 layer_factory.hpp:77] Creating layer inception_4d/5x5
I0403 16:30:14.696379 18353 net.cpp:91] Creating Layer inception_4d/5x5
I0403 16:30:14.696396 18353 net.cpp:425] inception_4d/5x5 <- inception_4d/5x5_reduce
I0403 16:30:14.696413 18353 net.cpp:399] inception_4d/5x5 -> inception_4d/5x5
I0403 16:30:14.697801 18353 net.cpp:141] Setting up inception_4d/5x5
I0403 16:30:14.697829 18353 net.cpp:148] Top shape: 24 64 14 14 (301056)
I0403 16:30:14.697844 18353 net.cpp:156] Memory required for data: 1134062880
I0403 16:30:14.697862 18353 layer_factory.hpp:77] Creating layer inception_4d/relu_5x5
I0403 16:30:14.697896 18353 net.cpp:91] Creating Layer inception_4d/relu_5x5
I0403 16:30:14.697912 18353 net.cpp:425] inception_4d/relu_5x5 <- inception_4d/5x5
I0403 16:30:14.697931 18353 net.cpp:386] inception_4d/relu_5x5 -> inception_4d/5x5 (in-place)
I0403 16:30:14.698215 18353 net.cpp:141] Setting up inception_4d/relu_5x5
I0403 16:30:14.698240 18353 net.cpp:148] Top shape: 24 64 14 14 (301056)
I0403 16:30:14.698256 18353 net.cpp:156] Memory required for data: 1135267104
I0403 16:30:14.698269 18353 layer_factory.hpp:77] Creating layer inception_4d/pool
I0403 16:30:14.698285 18353 net.cpp:91] Creating Layer inception_4d/pool
I0403 16:30:14.698299 18353 net.cpp:425] inception_4d/pool <- inception_4c/output_inception_4c/output_0_split_3
I0403 16:30:14.698318 18353 net.cpp:399] inception_4d/pool -> inception_4d/pool
I0403 16:30:14.698381 18353 net.cpp:141] Setting up inception_4d/pool
I0403 16:30:14.698405 18353 net.cpp:148] Top shape: 24 512 14 14 (2408448)
I0403 16:30:14.698420 18353 net.cpp:156] Memory required for data: 1144900896
I0403 16:30:14.698433 18353 layer_factory.hpp:77] Creating layer inception_4d/pool_proj
I0403 16:30:14.698453 18353 net.cpp:91] Creating Layer inception_4d/pool_proj
I0403 16:30:14.698469 18353 net.cpp:425] inception_4d/pool_proj <- inception_4d/pool
I0403 16:30:14.698487 18353 net.cpp:399] inception_4d/pool_proj -> inception_4d/pool_proj
I0403 16:30:14.700173 18353 net.cpp:141] Setting up inception_4d/pool_proj
I0403 16:30:14.700201 18353 net.cpp:148] Top shape: 24 64 14 14 (301056)
I0403 16:30:14.700217 18353 net.cpp:156] Memory required for data: 1146105120
I0403 16:30:14.700232 18353 layer_factory.hpp:77] Creating layer inception_4d/relu_pool_proj
I0403 16:30:14.700251 18353 net.cpp:91] Creating Layer inception_4d/relu_pool_proj
I0403 16:30:14.700268 18353 net.cpp:425] inception_4d/relu_pool_proj <- inception_4d/pool_proj
I0403 16:30:14.700284 18353 net.cpp:386] inception_4d/relu_pool_proj -> inception_4d/pool_proj (in-place)
I0403 16:30:14.700462 18353 net.cpp:141] Setting up inception_4d/relu_pool_proj
I0403 16:30:14.700485 18353 net.cpp:148] Top shape: 24 64 14 14 (301056)
I0403 16:30:14.700500 18353 net.cpp:156] Memory required for data: 1147309344
I0403 16:30:14.700512 18353 layer_factory.hpp:77] Creating layer inception_4d/output
I0403 16:30:14.700528 18353 net.cpp:91] Creating Layer inception_4d/output
I0403 16:30:14.700543 18353 net.cpp:425] inception_4d/output <- inception_4d/1x1
I0403 16:30:14.700558 18353 net.cpp:425] inception_4d/output <- inception_4d/3x3
I0403 16:30:14.700572 18353 net.cpp:425] inception_4d/output <- inception_4d/5x5
I0403 16:30:14.700587 18353 net.cpp:425] inception_4d/output <- inception_4d/pool_proj
I0403 16:30:14.700608 18353 net.cpp:399] inception_4d/output -> inception_4d/output
I0403 16:30:14.700656 18353 net.cpp:141] Setting up inception_4d/output
I0403 16:30:14.700678 18353 net.cpp:148] Top shape: 24 528 14 14 (2483712)
I0403 16:30:14.700691 18353 net.cpp:156] Memory required for data: 1157244192
I0403 16:30:14.700705 18353 layer_factory.hpp:77] Creating layer inception_4d/output_inception_4d/output_0_split
I0403 16:30:14.700722 18353 net.cpp:91] Creating Layer inception_4d/output_inception_4d/output_0_split
I0403 16:30:14.700738 18353 net.cpp:425] inception_4d/output_inception_4d/output_0_split <- inception_4d/output
I0403 16:30:14.700754 18353 net.cpp:399] inception_4d/output_inception_4d/output_0_split -> inception_4d/output_inception_4d/output_0_split_0
I0403 16:30:14.700773 18353 net.cpp:399] inception_4d/output_inception_4d/output_0_split -> inception_4d/output_inception_4d/output_0_split_1
I0403 16:30:14.700795 18353 net.cpp:399] inception_4d/output_inception_4d/output_0_split -> inception_4d/output_inception_4d/output_0_split_2
I0403 16:30:14.700815 18353 net.cpp:399] inception_4d/output_inception_4d/output_0_split -> inception_4d/output_inception_4d/output_0_split_3
I0403 16:30:14.700834 18353 net.cpp:399] inception_4d/output_inception_4d/output_0_split -> inception_4d/output_inception_4d/output_0_split_4
I0403 16:30:14.700929 18353 net.cpp:141] Setting up inception_4d/output_inception_4d/output_0_split
I0403 16:30:14.700963 18353 net.cpp:148] Top shape: 24 528 14 14 (2483712)
I0403 16:30:14.700978 18353 net.cpp:148] Top shape: 24 528 14 14 (2483712)
I0403 16:30:14.700992 18353 net.cpp:148] Top shape: 24 528 14 14 (2483712)
I0403 16:30:14.701006 18353 net.cpp:148] Top shape: 24 528 14 14 (2483712)
I0403 16:30:14.701020 18353 net.cpp:148] Top shape: 24 528 14 14 (2483712)
I0403 16:30:14.701032 18353 net.cpp:156] Memory required for data: 1206918432
I0403 16:30:14.701046 18353 layer_factory.hpp:77] Creating layer loss2/ave_pool
I0403 16:30:14.701064 18353 net.cpp:91] Creating Layer loss2/ave_pool
I0403 16:30:14.701081 18353 net.cpp:425] loss2/ave_pool <- inception_4d/output_inception_4d/output_0_split_0
I0403 16:30:14.701098 18353 net.cpp:399] loss2/ave_pool -> loss2/ave_pool
I0403 16:30:14.701392 18353 net.cpp:141] Setting up loss2/ave_pool
I0403 16:30:14.701417 18353 net.cpp:148] Top shape: 24 528 4 4 (202752)
I0403 16:30:14.701431 18353 net.cpp:156] Memory required for data: 1207729440
I0403 16:30:14.701445 18353 layer_factory.hpp:77] Creating layer loss2/conv
I0403 16:30:14.701467 18353 net.cpp:91] Creating Layer loss2/conv
I0403 16:30:14.701483 18353 net.cpp:425] loss2/conv <- loss2/ave_pool
I0403 16:30:14.701501 18353 net.cpp:399] loss2/conv -> loss2/conv
I0403 16:30:14.703305 18353 net.cpp:141] Setting up loss2/conv
I0403 16:30:14.703331 18353 net.cpp:148] Top shape: 24 128 4 4 (49152)
I0403 16:30:14.703346 18353 net.cpp:156] Memory required for data: 1207926048
I0403 16:30:14.703363 18353 layer_factory.hpp:77] Creating layer loss2/relu_conv
I0403 16:30:14.703380 18353 net.cpp:91] Creating Layer loss2/relu_conv
I0403 16:30:14.703395 18353 net.cpp:425] loss2/relu_conv <- loss2/conv
I0403 16:30:14.703413 18353 net.cpp:386] loss2/relu_conv -> loss2/conv (in-place)
I0403 16:30:14.703694 18353 net.cpp:141] Setting up loss2/relu_conv
I0403 16:30:14.703719 18353 net.cpp:148] Top shape: 24 128 4 4 (49152)
I0403 16:30:14.703733 18353 net.cpp:156] Memory required for data: 1208122656
I0403 16:30:14.703747 18353 layer_factory.hpp:77] Creating layer loss2/fc
I0403 16:30:14.703764 18353 net.cpp:91] Creating Layer loss2/fc
I0403 16:30:14.703779 18353 net.cpp:425] loss2/fc <- loss2/conv
I0403 16:30:14.703799 18353 net.cpp:399] loss2/fc -> loss2/fc
I0403 16:30:14.720666 18353 net.cpp:141] Setting up loss2/fc
I0403 16:30:14.720727 18353 net.cpp:148] Top shape: 24 1024 (24576)
I0403 16:30:14.720742 18353 net.cpp:156] Memory required for data: 1208220960
I0403 16:30:14.720760 18353 layer_factory.hpp:77] Creating layer loss2/relu_fc
I0403 16:30:14.720777 18353 net.cpp:91] Creating Layer loss2/relu_fc
I0403 16:30:14.720793 18353 net.cpp:425] loss2/relu_fc <- loss2/fc
I0403 16:30:14.720809 18353 net.cpp:386] loss2/relu_fc -> loss2/fc (in-place)
I0403 16:30:14.721112 18353 net.cpp:141] Setting up loss2/relu_fc
I0403 16:30:14.721138 18353 net.cpp:148] Top shape: 24 1024 (24576)
I0403 16:30:14.721153 18353 net.cpp:156] Memory required for data: 1208319264
I0403 16:30:14.721166 18353 layer_factory.hpp:77] Creating layer loss2/drop_fc
I0403 16:30:14.721182 18353 net.cpp:91] Creating Layer loss2/drop_fc
I0403 16:30:14.721197 18353 net.cpp:425] loss2/drop_fc <- loss2/fc
I0403 16:30:14.721213 18353 net.cpp:386] loss2/drop_fc -> loss2/fc (in-place)
I0403 16:30:14.721261 18353 net.cpp:141] Setting up loss2/drop_fc
I0403 16:30:14.721282 18353 net.cpp:148] Top shape: 24 1024 (24576)
I0403 16:30:14.721295 18353 net.cpp:156] Memory required for data: 1208417568
I0403 16:30:14.721308 18353 layer_factory.hpp:77] Creating layer loss2/classifier_plantvillage
I0403 16:30:14.721328 18353 net.cpp:91] Creating Layer loss2/classifier_plantvillage
I0403 16:30:14.721343 18353 net.cpp:425] loss2/classifier_plantvillage <- loss2/fc
I0403 16:30:14.721360 18353 net.cpp:399] loss2/classifier_plantvillage -> loss2/classifier_plantvillage
I0403 16:30:14.721745 18353 net.cpp:141] Setting up loss2/classifier_plantvillage
I0403 16:30:14.721767 18353 net.cpp:148] Top shape: 24 38 (912)
I0403 16:30:14.721797 18353 net.cpp:156] Memory required for data: 1208421216
I0403 16:30:14.721815 18353 layer_factory.hpp:77] Creating layer loss2/classifier_plantvillage_loss2/classifier_plantvillage_0_split
I0403 16:30:14.721832 18353 net.cpp:91] Creating Layer loss2/classifier_plantvillage_loss2/classifier_plantvillage_0_split
I0403 16:30:14.721846 18353 net.cpp:425] loss2/classifier_plantvillage_loss2/classifier_plantvillage_0_split <- loss2/classifier_plantvillage
I0403 16:30:14.721865 18353 net.cpp:399] loss2/classifier_plantvillage_loss2/classifier_plantvillage_0_split -> loss2/classifier_plantvillage_loss2/classifier_plantvillage_0_split_0
I0403 16:30:14.721884 18353 net.cpp:399] loss2/classifier_plantvillage_loss2/classifier_plantvillage_0_split -> loss2/classifier_plantvillage_loss2/classifier_plantvillage_0_split_1
I0403 16:30:14.721904 18353 net.cpp:399] loss2/classifier_plantvillage_loss2/classifier_plantvillage_0_split -> loss2/classifier_plantvillage_loss2/classifier_plantvillage_0_split_2
I0403 16:30:14.721979 18353 net.cpp:141] Setting up loss2/classifier_plantvillage_loss2/classifier_plantvillage_0_split
I0403 16:30:14.722002 18353 net.cpp:148] Top shape: 24 38 (912)
I0403 16:30:14.722017 18353 net.cpp:148] Top shape: 24 38 (912)
I0403 16:30:14.722030 18353 net.cpp:148] Top shape: 24 38 (912)
I0403 16:30:14.722044 18353 net.cpp:156] Memory required for data: 1208432160
I0403 16:30:14.722057 18353 layer_factory.hpp:77] Creating layer inception_4e/1x1
I0403 16:30:14.722077 18353 net.cpp:91] Creating Layer inception_4e/1x1
I0403 16:30:14.722095 18353 net.cpp:425] inception_4e/1x1 <- inception_4d/output_inception_4d/output_0_split_1
I0403 16:30:14.722111 18353 net.cpp:399] inception_4e/1x1 -> inception_4e/1x1
I0403 16:30:14.723870 18353 net.cpp:141] Setting up inception_4e/1x1
I0403 16:30:14.723896 18353 net.cpp:148] Top shape: 24 256 14 14 (1204224)
I0403 16:30:14.723912 18353 net.cpp:156] Memory required for data: 1213249056
I0403 16:30:14.723928 18353 layer_factory.hpp:77] Creating layer inception_4e/relu_1x1
I0403 16:30:14.723948 18353 net.cpp:91] Creating Layer inception_4e/relu_1x1
I0403 16:30:14.723963 18353 net.cpp:425] inception_4e/relu_1x1 <- inception_4e/1x1
I0403 16:30:14.723979 18353 net.cpp:386] inception_4e/relu_1x1 -> inception_4e/1x1 (in-place)
I0403 16:30:14.724259 18353 net.cpp:141] Setting up inception_4e/relu_1x1
I0403 16:30:14.724284 18353 net.cpp:148] Top shape: 24 256 14 14 (1204224)
I0403 16:30:14.724298 18353 net.cpp:156] Memory required for data: 1218065952
I0403 16:30:14.724313 18353 layer_factory.hpp:77] Creating layer inception_4e/3x3_reduce
I0403 16:30:14.724333 18353 net.cpp:91] Creating Layer inception_4e/3x3_reduce
I0403 16:30:14.724349 18353 net.cpp:425] inception_4e/3x3_reduce <- inception_4d/output_inception_4d/output_0_split_2
I0403 16:30:14.724369 18353 net.cpp:399] inception_4e/3x3_reduce -> inception_4e/3x3_reduce
I0403 16:30:14.726402 18353 net.cpp:141] Setting up inception_4e/3x3_reduce
I0403 16:30:14.726430 18353 net.cpp:148] Top shape: 24 160 14 14 (752640)
I0403 16:30:14.726445 18353 net.cpp:156] Memory required for data: 1221076512
I0403 16:30:14.726462 18353 layer_factory.hpp:77] Creating layer inception_4e/relu_3x3_reduce
I0403 16:30:14.726478 18353 net.cpp:91] Creating Layer inception_4e/relu_3x3_reduce
I0403 16:30:14.726493 18353 net.cpp:425] inception_4e/relu_3x3_reduce <- inception_4e/3x3_reduce
I0403 16:30:14.726511 18353 net.cpp:386] inception_4e/relu_3x3_reduce -> inception_4e/3x3_reduce (in-place)
I0403 16:30:14.726696 18353 net.cpp:141] Setting up inception_4e/relu_3x3_reduce
I0403 16:30:14.726719 18353 net.cpp:148] Top shape: 24 160 14 14 (752640)
I0403 16:30:14.726733 18353 net.cpp:156] Memory required for data: 1224087072
I0403 16:30:14.726747 18353 layer_factory.hpp:77] Creating layer inception_4e/3x3
I0403 16:30:14.726768 18353 net.cpp:91] Creating Layer inception_4e/3x3
I0403 16:30:14.726783 18353 net.cpp:425] inception_4e/3x3 <- inception_4e/3x3_reduce
I0403 16:30:14.726802 18353 net.cpp:399] inception_4e/3x3 -> inception_4e/3x3
I0403 16:30:14.731550 18353 net.cpp:141] Setting up inception_4e/3x3
I0403 16:30:14.731590 18353 net.cpp:148] Top shape: 24 320 14 14 (1505280)
I0403 16:30:14.731612 18353 net.cpp:156] Memory required for data: 1230108192
I0403 16:30:14.731631 18353 layer_factory.hpp:77] Creating layer inception_4e/relu_3x3
I0403 16:30:14.731649 18353 net.cpp:91] Creating Layer inception_4e/relu_3x3
I0403 16:30:14.731665 18353 net.cpp:425] inception_4e/relu_3x3 <- inception_4e/3x3
I0403 16:30:14.731681 18353 net.cpp:386] inception_4e/relu_3x3 -> inception_4e/3x3 (in-place)
I0403 16:30:14.731971 18353 net.cpp:141] Setting up inception_4e/relu_3x3
I0403 16:30:14.731995 18353 net.cpp:148] Top shape: 24 320 14 14 (1505280)
I0403 16:30:14.732009 18353 net.cpp:156] Memory required for data: 1236129312
I0403 16:30:14.732023 18353 layer_factory.hpp:77] Creating layer inception_4e/5x5_reduce
I0403 16:30:14.732044 18353 net.cpp:91] Creating Layer inception_4e/5x5_reduce
I0403 16:30:14.732061 18353 net.cpp:425] inception_4e/5x5_reduce <- inception_4d/output_inception_4d/output_0_split_3
I0403 16:30:14.732081 18353 net.cpp:399] inception_4e/5x5_reduce -> inception_4e/5x5_reduce
I0403 16:30:14.733095 18353 net.cpp:141] Setting up inception_4e/5x5_reduce
I0403 16:30:14.733124 18353 net.cpp:148] Top shape: 24 32 14 14 (150528)
I0403 16:30:14.733139 18353 net.cpp:156] Memory required for data: 1236731424
I0403 16:30:14.733155 18353 layer_factory.hpp:77] Creating layer inception_4e/relu_5x5_reduce
I0403 16:30:14.733172 18353 net.cpp:91] Creating Layer inception_4e/relu_5x5_reduce
I0403 16:30:14.733186 18353 net.cpp:425] inception_4e/relu_5x5_reduce <- inception_4e/5x5_reduce
I0403 16:30:14.733204 18353 net.cpp:386] inception_4e/relu_5x5_reduce -> inception_4e/5x5_reduce (in-place)
I0403 16:30:14.733485 18353 net.cpp:141] Setting up inception_4e/relu_5x5_reduce
I0403 16:30:14.733511 18353 net.cpp:148] Top shape: 24 32 14 14 (150528)
I0403 16:30:14.733526 18353 net.cpp:156] Memory required for data: 1237333536
I0403 16:30:14.733541 18353 layer_factory.hpp:77] Creating layer inception_4e/5x5
I0403 16:30:14.733577 18353 net.cpp:91] Creating Layer inception_4e/5x5
I0403 16:30:14.733594 18353 net.cpp:425] inception_4e/5x5 <- inception_4e/5x5_reduce
I0403 16:30:14.733620 18353 net.cpp:399] inception_4e/5x5 -> inception_4e/5x5
I0403 16:30:14.735396 18353 net.cpp:141] Setting up inception_4e/5x5
I0403 16:30:14.735424 18353 net.cpp:148] Top shape: 24 128 14 14 (602112)
I0403 16:30:14.735440 18353 net.cpp:156] Memory required for data: 1239741984
I0403 16:30:14.735458 18353 layer_factory.hpp:77] Creating layer inception_4e/relu_5x5
I0403 16:30:14.735476 18353 net.cpp:91] Creating Layer inception_4e/relu_5x5
I0403 16:30:14.735491 18353 net.cpp:425] inception_4e/relu_5x5 <- inception_4e/5x5
I0403 16:30:14.735508 18353 net.cpp:386] inception_4e/relu_5x5 -> inception_4e/5x5 (in-place)
I0403 16:30:14.735702 18353 net.cpp:141] Setting up inception_4e/relu_5x5
I0403 16:30:14.735725 18353 net.cpp:148] Top shape: 24 128 14 14 (602112)
I0403 16:30:14.735739 18353 net.cpp:156] Memory required for data: 1242150432
I0403 16:30:14.735752 18353 layer_factory.hpp:77] Creating layer inception_4e/pool
I0403 16:30:14.735767 18353 net.cpp:91] Creating Layer inception_4e/pool
I0403 16:30:14.735782 18353 net.cpp:425] inception_4e/pool <- inception_4d/output_inception_4d/output_0_split_4
I0403 16:30:14.735801 18353 net.cpp:399] inception_4e/pool -> inception_4e/pool
I0403 16:30:14.735868 18353 net.cpp:141] Setting up inception_4e/pool
I0403 16:30:14.735890 18353 net.cpp:148] Top shape: 24 528 14 14 (2483712)
I0403 16:30:14.735903 18353 net.cpp:156] Memory required for data: 1252085280
I0403 16:30:14.735916 18353 layer_factory.hpp:77] Creating layer inception_4e/pool_proj
I0403 16:30:14.735937 18353 net.cpp:91] Creating Layer inception_4e/pool_proj
I0403 16:30:14.735954 18353 net.cpp:425] inception_4e/pool_proj <- inception_4e/pool
I0403 16:30:14.735971 18353 net.cpp:399] inception_4e/pool_proj -> inception_4e/pool_proj
I0403 16:30:14.737399 18353 net.cpp:141] Setting up inception_4e/pool_proj
I0403 16:30:14.737437 18353 net.cpp:148] Top shape: 24 128 14 14 (602112)
I0403 16:30:14.737450 18353 net.cpp:156] Memory required for data: 1254493728
I0403 16:30:14.737468 18353 layer_factory.hpp:77] Creating layer inception_4e/relu_pool_proj
I0403 16:30:14.737486 18353 net.cpp:91] Creating Layer inception_4e/relu_pool_proj
I0403 16:30:14.737503 18353 net.cpp:425] inception_4e/relu_pool_proj <- inception_4e/pool_proj
I0403 16:30:14.737519 18353 net.cpp:386] inception_4e/relu_pool_proj -> inception_4e/pool_proj (in-place)
I0403 16:30:14.737807 18353 net.cpp:141] Setting up inception_4e/relu_pool_proj
I0403 16:30:14.737830 18353 net.cpp:148] Top shape: 24 128 14 14 (602112)
I0403 16:30:14.737844 18353 net.cpp:156] Memory required for data: 1256902176
I0403 16:30:14.737859 18353 layer_factory.hpp:77] Creating layer inception_4e/output
I0403 16:30:14.737876 18353 net.cpp:91] Creating Layer inception_4e/output
I0403 16:30:14.737890 18353 net.cpp:425] inception_4e/output <- inception_4e/1x1
I0403 16:30:14.737906 18353 net.cpp:425] inception_4e/output <- inception_4e/3x3
I0403 16:30:14.737921 18353 net.cpp:425] inception_4e/output <- inception_4e/5x5
I0403 16:30:14.737936 18353 net.cpp:425] inception_4e/output <- inception_4e/pool_proj
I0403 16:30:14.737951 18353 net.cpp:399] inception_4e/output -> inception_4e/output
I0403 16:30:14.737999 18353 net.cpp:141] Setting up inception_4e/output
I0403 16:30:14.738021 18353 net.cpp:148] Top shape: 24 832 14 14 (3913728)
I0403 16:30:14.738034 18353 net.cpp:156] Memory required for data: 1272557088
I0403 16:30:14.738049 18353 layer_factory.hpp:77] Creating layer pool4/3x3_s2
I0403 16:30:14.738064 18353 net.cpp:91] Creating Layer pool4/3x3_s2
I0403 16:30:14.738077 18353 net.cpp:425] pool4/3x3_s2 <- inception_4e/output
I0403 16:30:14.738096 18353 net.cpp:399] pool4/3x3_s2 -> pool4/3x3_s2
I0403 16:30:14.738159 18353 net.cpp:141] Setting up pool4/3x3_s2
I0403 16:30:14.738181 18353 net.cpp:148] Top shape: 24 832 7 7 (978432)
I0403 16:30:14.738194 18353 net.cpp:156] Memory required for data: 1276470816
I0403 16:30:14.738207 18353 layer_factory.hpp:77] Creating layer pool4/3x3_s2_pool4/3x3_s2_0_split
I0403 16:30:14.738224 18353 net.cpp:91] Creating Layer pool4/3x3_s2_pool4/3x3_s2_0_split
I0403 16:30:14.738240 18353 net.cpp:425] pool4/3x3_s2_pool4/3x3_s2_0_split <- pool4/3x3_s2
I0403 16:30:14.738258 18353 net.cpp:399] pool4/3x3_s2_pool4/3x3_s2_0_split -> pool4/3x3_s2_pool4/3x3_s2_0_split_0
I0403 16:30:14.738277 18353 net.cpp:399] pool4/3x3_s2_pool4/3x3_s2_0_split -> pool4/3x3_s2_pool4/3x3_s2_0_split_1
I0403 16:30:14.738296 18353 net.cpp:399] pool4/3x3_s2_pool4/3x3_s2_0_split -> pool4/3x3_s2_pool4/3x3_s2_0_split_2
I0403 16:30:14.738313 18353 net.cpp:399] pool4/3x3_s2_pool4/3x3_s2_0_split -> pool4/3x3_s2_pool4/3x3_s2_0_split_3
I0403 16:30:14.738396 18353 net.cpp:141] Setting up pool4/3x3_s2_pool4/3x3_s2_0_split
I0403 16:30:14.738420 18353 net.cpp:148] Top shape: 24 832 7 7 (978432)
I0403 16:30:14.738435 18353 net.cpp:148] Top shape: 24 832 7 7 (978432)
I0403 16:30:14.738450 18353 net.cpp:148] Top shape: 24 832 7 7 (978432)
I0403 16:30:14.738463 18353 net.cpp:148] Top shape: 24 832 7 7 (978432)
I0403 16:30:14.738476 18353 net.cpp:156] Memory required for data: 1292125728
I0403 16:30:14.738488 18353 layer_factory.hpp:77] Creating layer inception_5a/1x1
I0403 16:30:14.738508 18353 net.cpp:91] Creating Layer inception_5a/1x1
I0403 16:30:14.738524 18353 net.cpp:425] inception_5a/1x1 <- pool4/3x3_s2_pool4/3x3_s2_0_split_0
I0403 16:30:14.738543 18353 net.cpp:399] inception_5a/1x1 -> inception_5a/1x1
I0403 16:30:14.741297 18353 net.cpp:141] Setting up inception_5a/1x1
I0403 16:30:14.741327 18353 net.cpp:148] Top shape: 24 256 7 7 (301056)
I0403 16:30:14.741343 18353 net.cpp:156] Memory required for data: 1293329952
I0403 16:30:14.741359 18353 layer_factory.hpp:77] Creating layer inception_5a/relu_1x1
I0403 16:30:14.741376 18353 net.cpp:91] Creating Layer inception_5a/relu_1x1
I0403 16:30:14.741391 18353 net.cpp:425] inception_5a/relu_1x1 <- inception_5a/1x1
I0403 16:30:14.741410 18353 net.cpp:386] inception_5a/relu_1x1 -> inception_5a/1x1 (in-place)
I0403 16:30:14.741708 18353 net.cpp:141] Setting up inception_5a/relu_1x1
I0403 16:30:14.741734 18353 net.cpp:148] Top shape: 24 256 7 7 (301056)
I0403 16:30:14.741750 18353 net.cpp:156] Memory required for data: 1294534176
I0403 16:30:14.741762 18353 layer_factory.hpp:77] Creating layer inception_5a/3x3_reduce
I0403 16:30:14.741783 18353 net.cpp:91] Creating Layer inception_5a/3x3_reduce
I0403 16:30:14.741799 18353 net.cpp:425] inception_5a/3x3_reduce <- pool4/3x3_s2_pool4/3x3_s2_0_split_1
I0403 16:30:14.741817 18353 net.cpp:399] inception_5a/3x3_reduce -> inception_5a/3x3_reduce
I0403 16:30:14.744158 18353 net.cpp:141] Setting up inception_5a/3x3_reduce
I0403 16:30:14.744189 18353 net.cpp:148] Top shape: 24 160 7 7 (188160)
I0403 16:30:14.744204 18353 net.cpp:156] Memory required for data: 1295286816
I0403 16:30:14.744220 18353 layer_factory.hpp:77] Creating layer inception_5a/relu_3x3_reduce
I0403 16:30:14.744240 18353 net.cpp:91] Creating Layer inception_5a/relu_3x3_reduce
I0403 16:30:14.744254 18353 net.cpp:425] inception_5a/relu_3x3_reduce <- inception_5a/3x3_reduce
I0403 16:30:14.744271 18353 net.cpp:386] inception_5a/relu_3x3_reduce -> inception_5a/3x3_reduce (in-place)
I0403 16:30:14.744449 18353 net.cpp:141] Setting up inception_5a/relu_3x3_reduce
I0403 16:30:14.744475 18353 net.cpp:148] Top shape: 24 160 7 7 (188160)
I0403 16:30:14.744489 18353 net.cpp:156] Memory required for data: 1296039456
I0403 16:30:14.744503 18353 layer_factory.hpp:77] Creating layer inception_5a/3x3
I0403 16:30:14.744524 18353 net.cpp:91] Creating Layer inception_5a/3x3
I0403 16:30:14.744540 18353 net.cpp:425] inception_5a/3x3 <- inception_5a/3x3_reduce
I0403 16:30:14.744559 18353 net.cpp:399] inception_5a/3x3 -> inception_5a/3x3
I0403 16:30:14.749404 18353 net.cpp:141] Setting up inception_5a/3x3
I0403 16:30:14.749435 18353 net.cpp:148] Top shape: 24 320 7 7 (376320)
I0403 16:30:14.749452 18353 net.cpp:156] Memory required for data: 1297544736
I0403 16:30:14.749470 18353 layer_factory.hpp:77] Creating layer inception_5a/relu_3x3
I0403 16:30:14.749487 18353 net.cpp:91] Creating Layer inception_5a/relu_3x3
I0403 16:30:14.749502 18353 net.cpp:425] inception_5a/relu_3x3 <- inception_5a/3x3
I0403 16:30:14.749521 18353 net.cpp:386] inception_5a/relu_3x3 -> inception_5a/3x3 (in-place)
I0403 16:30:14.749825 18353 net.cpp:141] Setting up inception_5a/relu_3x3
I0403 16:30:14.749851 18353 net.cpp:148] Top shape: 24 320 7 7 (376320)
I0403 16:30:14.749866 18353 net.cpp:156] Memory required for data: 1299050016
I0403 16:30:14.749881 18353 layer_factory.hpp:77] Creating layer inception_5a/5x5_reduce
I0403 16:30:14.749902 18353 net.cpp:91] Creating Layer inception_5a/5x5_reduce
I0403 16:30:14.749918 18353 net.cpp:425] inception_5a/5x5_reduce <- pool4/3x3_s2_pool4/3x3_s2_0_split_2
I0403 16:30:14.749936 18353 net.cpp:399] inception_5a/5x5_reduce -> inception_5a/5x5_reduce
I0403 16:30:14.751049 18353 net.cpp:141] Setting up inception_5a/5x5_reduce
I0403 16:30:14.751080 18353 net.cpp:148] Top shape: 24 32 7 7 (37632)
I0403 16:30:14.751094 18353 net.cpp:156] Memory required for data: 1299200544
I0403 16:30:14.751111 18353 layer_factory.hpp:77] Creating layer inception_5a/relu_5x5_reduce
I0403 16:30:14.751127 18353 net.cpp:91] Creating Layer inception_5a/relu_5x5_reduce
I0403 16:30:14.751142 18353 net.cpp:425] inception_5a/relu_5x5_reduce <- inception_5a/5x5_reduce
I0403 16:30:14.751160 18353 net.cpp:386] inception_5a/relu_5x5_reduce -> inception_5a/5x5_reduce (in-place)
I0403 16:30:14.751446 18353 net.cpp:141] Setting up inception_5a/relu_5x5_reduce
I0403 16:30:14.751469 18353 net.cpp:148] Top shape: 24 32 7 7 (37632)
I0403 16:30:14.751483 18353 net.cpp:156] Memory required for data: 1299351072
I0403 16:30:14.751497 18353 layer_factory.hpp:77] Creating layer inception_5a/5x5
I0403 16:30:14.751518 18353 net.cpp:91] Creating Layer inception_5a/5x5
I0403 16:30:14.751534 18353 net.cpp:425] inception_5a/5x5 <- inception_5a/5x5_reduce
I0403 16:30:14.751554 18353 net.cpp:399] inception_5a/5x5 -> inception_5a/5x5
I0403 16:30:14.753193 18353 net.cpp:141] Setting up inception_5a/5x5
I0403 16:30:14.753232 18353 net.cpp:148] Top shape: 24 128 7 7 (150528)
I0403 16:30:14.753248 18353 net.cpp:156] Memory required for data: 1299953184
I0403 16:30:14.753265 18353 layer_factory.hpp:77] Creating layer inception_5a/relu_5x5
I0403 16:30:14.753281 18353 net.cpp:91] Creating Layer inception_5a/relu_5x5
I0403 16:30:14.753298 18353 net.cpp:425] inception_5a/relu_5x5 <- inception_5a/5x5
I0403 16:30:14.753315 18353 net.cpp:386] inception_5a/relu_5x5 -> inception_5a/5x5 (in-place)
I0403 16:30:14.753497 18353 net.cpp:141] Setting up inception_5a/relu_5x5
I0403 16:30:14.753520 18353 net.cpp:148] Top shape: 24 128 7 7 (150528)
I0403 16:30:14.753533 18353 net.cpp:156] Memory required for data: 1300555296
I0403 16:30:14.753546 18353 layer_factory.hpp:77] Creating layer inception_5a/pool
I0403 16:30:14.753562 18353 net.cpp:91] Creating Layer inception_5a/pool
I0403 16:30:14.753578 18353 net.cpp:425] inception_5a/pool <- pool4/3x3_s2_pool4/3x3_s2_0_split_3
I0403 16:30:14.753597 18353 net.cpp:399] inception_5a/pool -> inception_5a/pool
I0403 16:30:14.753670 18353 net.cpp:141] Setting up inception_5a/pool
I0403 16:30:14.753692 18353 net.cpp:148] Top shape: 24 832 7 7 (978432)
I0403 16:30:14.753706 18353 net.cpp:156] Memory required for data: 1304469024
I0403 16:30:14.753720 18353 layer_factory.hpp:77] Creating layer inception_5a/pool_proj
I0403 16:30:14.753741 18353 net.cpp:91] Creating Layer inception_5a/pool_proj
I0403 16:30:14.753758 18353 net.cpp:425] inception_5a/pool_proj <- inception_5a/pool
I0403 16:30:14.753775 18353 net.cpp:399] inception_5a/pool_proj -> inception_5a/pool_proj
I0403 16:30:14.755957 18353 net.cpp:141] Setting up inception_5a/pool_proj
I0403 16:30:14.755988 18353 net.cpp:148] Top shape: 24 128 7 7 (150528)
I0403 16:30:14.756005 18353 net.cpp:156] Memory required for data: 1305071136
I0403 16:30:14.756021 18353 layer_factory.hpp:77] Creating layer inception_5a/relu_pool_proj
I0403 16:30:14.756037 18353 net.cpp:91] Creating Layer inception_5a/relu_pool_proj
I0403 16:30:14.756052 18353 net.cpp:425] inception_5a/relu_pool_proj <- inception_5a/pool_proj
I0403 16:30:14.756067 18353 net.cpp:386] inception_5a/relu_pool_proj -> inception_5a/pool_proj (in-place)
I0403 16:30:14.756348 18353 net.cpp:141] Setting up inception_5a/relu_pool_proj
I0403 16:30:14.756376 18353 net.cpp:148] Top shape: 24 128 7 7 (150528)
I0403 16:30:14.756391 18353 net.cpp:156] Memory required for data: 1305673248
I0403 16:30:14.756404 18353 layer_factory.hpp:77] Creating layer inception_5a/output
I0403 16:30:14.756420 18353 net.cpp:91] Creating Layer inception_5a/output
I0403 16:30:14.756434 18353 net.cpp:425] inception_5a/output <- inception_5a/1x1
I0403 16:30:14.756449 18353 net.cpp:425] inception_5a/output <- inception_5a/3x3
I0403 16:30:14.756464 18353 net.cpp:425] inception_5a/output <- inception_5a/5x5
I0403 16:30:14.756479 18353 net.cpp:425] inception_5a/output <- inception_5a/pool_proj
I0403 16:30:14.756494 18353 net.cpp:399] inception_5a/output -> inception_5a/output
I0403 16:30:14.756542 18353 net.cpp:141] Setting up inception_5a/output
I0403 16:30:14.756564 18353 net.cpp:148] Top shape: 24 832 7 7 (978432)
I0403 16:30:14.756577 18353 net.cpp:156] Memory required for data: 1309586976
I0403 16:30:14.756590 18353 layer_factory.hpp:77] Creating layer inception_5a/output_inception_5a/output_0_split
I0403 16:30:14.756613 18353 net.cpp:91] Creating Layer inception_5a/output_inception_5a/output_0_split
I0403 16:30:14.756628 18353 net.cpp:425] inception_5a/output_inception_5a/output_0_split <- inception_5a/output
I0403 16:30:14.756649 18353 net.cpp:399] inception_5a/output_inception_5a/output_0_split -> inception_5a/output_inception_5a/output_0_split_0
I0403 16:30:14.756669 18353 net.cpp:399] inception_5a/output_inception_5a/output_0_split -> inception_5a/output_inception_5a/output_0_split_1
I0403 16:30:14.756688 18353 net.cpp:399] inception_5a/output_inception_5a/output_0_split -> inception_5a/output_inception_5a/output_0_split_2
I0403 16:30:14.756707 18353 net.cpp:399] inception_5a/output_inception_5a/output_0_split -> inception_5a/output_inception_5a/output_0_split_3
I0403 16:30:14.756811 18353 net.cpp:141] Setting up inception_5a/output_inception_5a/output_0_split
I0403 16:30:14.756834 18353 net.cpp:148] Top shape: 24 832 7 7 (978432)
I0403 16:30:14.756850 18353 net.cpp:148] Top shape: 24 832 7 7 (978432)
I0403 16:30:14.756862 18353 net.cpp:148] Top shape: 24 832 7 7 (978432)
I0403 16:30:14.756876 18353 net.cpp:148] Top shape: 24 832 7 7 (978432)
I0403 16:30:14.756888 18353 net.cpp:156] Memory required for data: 1325241888
I0403 16:30:14.756901 18353 layer_factory.hpp:77] Creating layer inception_5b/1x1
I0403 16:30:14.756922 18353 net.cpp:91] Creating Layer inception_5b/1x1
I0403 16:30:14.756937 18353 net.cpp:425] inception_5b/1x1 <- inception_5a/output_inception_5a/output_0_split_0
I0403 16:30:14.756956 18353 net.cpp:399] inception_5b/1x1 -> inception_5b/1x1
I0403 16:30:14.760561 18353 net.cpp:141] Setting up inception_5b/1x1
I0403 16:30:14.760589 18353 net.cpp:148] Top shape: 24 384 7 7 (451584)
I0403 16:30:14.760610 18353 net.cpp:156] Memory required for data: 1327048224
I0403 16:30:14.760628 18353 layer_factory.hpp:77] Creating layer inception_5b/relu_1x1
I0403 16:30:14.760648 18353 net.cpp:91] Creating Layer inception_5b/relu_1x1
I0403 16:30:14.760663 18353 net.cpp:425] inception_5b/relu_1x1 <- inception_5b/1x1
I0403 16:30:14.760679 18353 net.cpp:386] inception_5b/relu_1x1 -> inception_5b/1x1 (in-place)
I0403 16:30:14.760965 18353 net.cpp:141] Setting up inception_5b/relu_1x1
I0403 16:30:14.760990 18353 net.cpp:148] Top shape: 24 384 7 7 (451584)
I0403 16:30:14.761004 18353 net.cpp:156] Memory required for data: 1328854560
I0403 16:30:14.761018 18353 layer_factory.hpp:77] Creating layer inception_5b/3x3_reduce
I0403 16:30:14.761039 18353 net.cpp:91] Creating Layer inception_5b/3x3_reduce
I0403 16:30:14.761055 18353 net.cpp:425] inception_5b/3x3_reduce <- inception_5a/output_inception_5a/output_0_split_1
I0403 16:30:14.761076 18353 net.cpp:399] inception_5b/3x3_reduce -> inception_5b/3x3_reduce
I0403 16:30:14.763615 18353 net.cpp:141] Setting up inception_5b/3x3_reduce
I0403 16:30:14.763643 18353 net.cpp:148] Top shape: 24 192 7 7 (225792)
I0403 16:30:14.763659 18353 net.cpp:156] Memory required for data: 1329757728
I0403 16:30:14.763675 18353 layer_factory.hpp:77] Creating layer inception_5b/relu_3x3_reduce
I0403 16:30:14.763695 18353 net.cpp:91] Creating Layer inception_5b/relu_3x3_reduce
I0403 16:30:14.763710 18353 net.cpp:425] inception_5b/relu_3x3_reduce <- inception_5b/3x3_reduce
I0403 16:30:14.763726 18353 net.cpp:386] inception_5b/relu_3x3_reduce -> inception_5b/3x3_reduce (in-place)
I0403 16:30:14.763906 18353 net.cpp:141] Setting up inception_5b/relu_3x3_reduce
I0403 16:30:14.763931 18353 net.cpp:148] Top shape: 24 192 7 7 (225792)
I0403 16:30:14.763945 18353 net.cpp:156] Memory required for data: 1330660896
I0403 16:30:14.763959 18353 layer_factory.hpp:77] Creating layer inception_5b/3x3
I0403 16:30:14.763979 18353 net.cpp:91] Creating Layer inception_5b/3x3
I0403 16:30:14.763996 18353 net.cpp:425] inception_5b/3x3 <- inception_5b/3x3_reduce
I0403 16:30:14.764014 18353 net.cpp:399] inception_5b/3x3 -> inception_5b/3x3
I0403 16:30:14.770443 18353 net.cpp:141] Setting up inception_5b/3x3
I0403 16:30:14.770474 18353 net.cpp:148] Top shape: 24 384 7 7 (451584)
I0403 16:30:14.770490 18353 net.cpp:156] Memory required for data: 1332467232
I0403 16:30:14.770508 18353 layer_factory.hpp:77] Creating layer inception_5b/relu_3x3
I0403 16:30:14.770524 18353 net.cpp:91] Creating Layer inception_5b/relu_3x3
I0403 16:30:14.770540 18353 net.cpp:425] inception_5b/relu_3x3 <- inception_5b/3x3
I0403 16:30:14.770557 18353 net.cpp:386] inception_5b/relu_3x3 -> inception_5b/3x3 (in-place)
I0403 16:30:14.770855 18353 net.cpp:141] Setting up inception_5b/relu_3x3
I0403 16:30:14.770881 18353 net.cpp:148] Top shape: 24 384 7 7 (451584)
I0403 16:30:14.770896 18353 net.cpp:156] Memory required for data: 1334273568
I0403 16:30:14.770910 18353 layer_factory.hpp:77] Creating layer inception_5b/5x5_reduce
I0403 16:30:14.770946 18353 net.cpp:91] Creating Layer inception_5b/5x5_reduce
I0403 16:30:14.770962 18353 net.cpp:425] inception_5b/5x5_reduce <- inception_5a/output_inception_5a/output_0_split_2
I0403 16:30:14.770982 18353 net.cpp:399] inception_5b/5x5_reduce -> inception_5b/5x5_reduce
I0403 16:30:14.772207 18353 net.cpp:141] Setting up inception_5b/5x5_reduce
I0403 16:30:14.772234 18353 net.cpp:148] Top shape: 24 48 7 7 (56448)
I0403 16:30:14.772249 18353 net.cpp:156] Memory required for data: 1334499360
I0403 16:30:14.772266 18353 layer_factory.hpp:77] Creating layer inception_5b/relu_5x5_reduce
I0403 16:30:14.772285 18353 net.cpp:91] Creating Layer inception_5b/relu_5x5_reduce
I0403 16:30:14.772302 18353 net.cpp:425] inception_5b/relu_5x5_reduce <- inception_5b/5x5_reduce
I0403 16:30:14.772320 18353 net.cpp:386] inception_5b/relu_5x5_reduce -> inception_5b/5x5_reduce (in-place)
I0403 16:30:14.772699 18353 net.cpp:141] Setting up inception_5b/relu_5x5_reduce
I0403 16:30:14.772724 18353 net.cpp:148] Top shape: 24 48 7 7 (56448)
I0403 16:30:14.772738 18353 net.cpp:156] Memory required for data: 1334725152
I0403 16:30:14.772753 18353 layer_factory.hpp:77] Creating layer inception_5b/5x5
I0403 16:30:14.772771 18353 net.cpp:91] Creating Layer inception_5b/5x5
I0403 16:30:14.772788 18353 net.cpp:425] inception_5b/5x5 <- inception_5b/5x5_reduce
I0403 16:30:14.772804 18353 net.cpp:399] inception_5b/5x5 -> inception_5b/5x5
I0403 16:30:14.774746 18353 net.cpp:141] Setting up inception_5b/5x5
I0403 16:30:14.774775 18353 net.cpp:148] Top shape: 24 128 7 7 (150528)
I0403 16:30:14.774791 18353 net.cpp:156] Memory required for data: 1335327264
I0403 16:30:14.774808 18353 layer_factory.hpp:77] Creating layer inception_5b/relu_5x5
I0403 16:30:14.774826 18353 net.cpp:91] Creating Layer inception_5b/relu_5x5
I0403 16:30:14.774839 18353 net.cpp:425] inception_5b/relu_5x5 <- inception_5b/5x5
I0403 16:30:14.774857 18353 net.cpp:386] inception_5b/relu_5x5 -> inception_5b/5x5 (in-place)
I0403 16:30:14.775045 18353 net.cpp:141] Setting up inception_5b/relu_5x5
I0403 16:30:14.775068 18353 net.cpp:148] Top shape: 24 128 7 7 (150528)
I0403 16:30:14.775084 18353 net.cpp:156] Memory required for data: 1335929376
I0403 16:30:14.775097 18353 layer_factory.hpp:77] Creating layer inception_5b/pool
I0403 16:30:14.775113 18353 net.cpp:91] Creating Layer inception_5b/pool
I0403 16:30:14.775128 18353 net.cpp:425] inception_5b/pool <- inception_5a/output_inception_5a/output_0_split_3
I0403 16:30:14.775148 18353 net.cpp:399] inception_5b/pool -> inception_5b/pool
I0403 16:30:14.775218 18353 net.cpp:141] Setting up inception_5b/pool
I0403 16:30:14.775239 18353 net.cpp:148] Top shape: 24 832 7 7 (978432)
I0403 16:30:14.775252 18353 net.cpp:156] Memory required for data: 1339843104
I0403 16:30:14.775266 18353 layer_factory.hpp:77] Creating layer inception_5b/pool_proj
I0403 16:30:14.775286 18353 net.cpp:91] Creating Layer inception_5b/pool_proj
I0403 16:30:14.775302 18353 net.cpp:425] inception_5b/pool_proj <- inception_5b/pool
I0403 16:30:14.775322 18353 net.cpp:399] inception_5b/pool_proj -> inception_5b/pool_proj
I0403 16:30:14.777602 18353 net.cpp:141] Setting up inception_5b/pool_proj
I0403 16:30:14.777631 18353 net.cpp:148] Top shape: 24 128 7 7 (150528)
I0403 16:30:14.777645 18353 net.cpp:156] Memory required for data: 1340445216
I0403 16:30:14.777663 18353 layer_factory.hpp:77] Creating layer inception_5b/relu_pool_proj
I0403 16:30:14.777683 18353 net.cpp:91] Creating Layer inception_5b/relu_pool_proj
I0403 16:30:14.777698 18353 net.cpp:425] inception_5b/relu_pool_proj <- inception_5b/pool_proj
I0403 16:30:14.777714 18353 net.cpp:386] inception_5b/relu_pool_proj -> inception_5b/pool_proj (in-place)
I0403 16:30:14.777997 18353 net.cpp:141] Setting up inception_5b/relu_pool_proj
I0403 16:30:14.778022 18353 net.cpp:148] Top shape: 24 128 7 7 (150528)
I0403 16:30:14.778035 18353 net.cpp:156] Memory required for data: 1341047328
I0403 16:30:14.778049 18353 layer_factory.hpp:77] Creating layer inception_5b/output
I0403 16:30:14.778066 18353 net.cpp:91] Creating Layer inception_5b/output
I0403 16:30:14.778095 18353 net.cpp:425] inception_5b/output <- inception_5b/1x1
I0403 16:30:14.778112 18353 net.cpp:425] inception_5b/output <- inception_5b/3x3
I0403 16:30:14.778127 18353 net.cpp:425] inception_5b/output <- inception_5b/5x5
I0403 16:30:14.778143 18353 net.cpp:425] inception_5b/output <- inception_5b/pool_proj
I0403 16:30:14.778158 18353 net.cpp:399] inception_5b/output -> inception_5b/output
I0403 16:30:14.778211 18353 net.cpp:141] Setting up inception_5b/output
I0403 16:30:14.778234 18353 net.cpp:148] Top shape: 24 1024 7 7 (1204224)
I0403 16:30:14.778247 18353 net.cpp:156] Memory required for data: 1345864224
I0403 16:30:14.778260 18353 layer_factory.hpp:77] Creating layer pool5/7x7_s1
I0403 16:30:14.778280 18353 net.cpp:91] Creating Layer pool5/7x7_s1
I0403 16:30:14.778295 18353 net.cpp:425] pool5/7x7_s1 <- inception_5b/output
I0403 16:30:14.778311 18353 net.cpp:399] pool5/7x7_s1 -> pool5/7x7_s1
I0403 16:30:14.778512 18353 net.cpp:141] Setting up pool5/7x7_s1
I0403 16:30:14.778538 18353 net.cpp:148] Top shape: 24 1024 1 1 (24576)
I0403 16:30:14.778553 18353 net.cpp:156] Memory required for data: 1345962528
I0403 16:30:14.778566 18353 layer_factory.hpp:77] Creating layer pool5/drop_7x7_s1
I0403 16:30:14.778583 18353 net.cpp:91] Creating Layer pool5/drop_7x7_s1
I0403 16:30:14.778597 18353 net.cpp:425] pool5/drop_7x7_s1 <- pool5/7x7_s1
I0403 16:30:14.778622 18353 net.cpp:386] pool5/drop_7x7_s1 -> pool5/7x7_s1 (in-place)
I0403 16:30:14.778671 18353 net.cpp:141] Setting up pool5/drop_7x7_s1
I0403 16:30:14.778692 18353 net.cpp:148] Top shape: 24 1024 1 1 (24576)
I0403 16:30:14.778705 18353 net.cpp:156] Memory required for data: 1346060832
I0403 16:30:14.778719 18353 layer_factory.hpp:77] Creating layer loss3/classifier_plantvillage
I0403 16:30:14.778738 18353 net.cpp:91] Creating Layer loss3/classifier_plantvillage
I0403 16:30:14.778754 18353 net.cpp:425] loss3/classifier_plantvillage <- pool5/7x7_s1
I0403 16:30:14.778774 18353 net.cpp:399] loss3/classifier_plantvillage -> loss3/classifier_plantvillage
I0403 16:30:14.779188 18353 net.cpp:141] Setting up loss3/classifier_plantvillage
I0403 16:30:14.779211 18353 net.cpp:148] Top shape: 24 38 (912)
I0403 16:30:14.779225 18353 net.cpp:156] Memory required for data: 1346064480
I0403 16:30:14.779242 18353 layer_factory.hpp:77] Creating layer loss3/classifier_plantvillage_loss3/classifier_plantvillage_0_split
I0403 16:30:14.779259 18353 net.cpp:91] Creating Layer loss3/classifier_plantvillage_loss3/classifier_plantvillage_0_split
I0403 16:30:14.779279 18353 net.cpp:425] loss3/classifier_plantvillage_loss3/classifier_plantvillage_0_split <- loss3/classifier_plantvillage
I0403 16:30:14.779295 18353 net.cpp:399] loss3/classifier_plantvillage_loss3/classifier_plantvillage_0_split -> loss3/classifier_plantvillage_loss3/classifier_plantvillage_0_split_0
I0403 16:30:14.779314 18353 net.cpp:399] loss3/classifier_plantvillage_loss3/classifier_plantvillage_0_split -> loss3/classifier_plantvillage_loss3/classifier_plantvillage_0_split_1
I0403 16:30:14.779335 18353 net.cpp:399] loss3/classifier_plantvillage_loss3/classifier_plantvillage_0_split -> loss3/classifier_plantvillage_loss3/classifier_plantvillage_0_split_2
I0403 16:30:14.779355 18353 net.cpp:399] loss3/classifier_plantvillage_loss3/classifier_plantvillage_0_split -> loss3/classifier_plantvillage_loss3/classifier_plantvillage_0_split_3
I0403 16:30:14.779461 18353 net.cpp:141] Setting up loss3/classifier_plantvillage_loss3/classifier_plantvillage_0_split
I0403 16:30:14.779484 18353 net.cpp:148] Top shape: 24 38 (912)
I0403 16:30:14.779497 18353 net.cpp:148] Top shape: 24 38 (912)
I0403 16:30:14.779511 18353 net.cpp:148] Top shape: 24 38 (912)
I0403 16:30:14.779525 18353 net.cpp:148] Top shape: 24 38 (912)
I0403 16:30:14.779538 18353 net.cpp:156] Memory required for data: 1346079072
I0403 16:30:14.779551 18353 layer_factory.hpp:77] Creating layer loss1/loss
I0403 16:30:14.779572 18353 net.cpp:91] Creating Layer loss1/loss
I0403 16:30:14.779587 18353 net.cpp:425] loss1/loss <- loss1/classifier_plantvillage_loss1/classifier_plantvillage_0_split_0
I0403 16:30:14.779623 18353 net.cpp:425] loss1/loss <- label_data_1_split_0
…
