…
I0403 16:13:46.045261 17425 net.cpp:313] The NetState phase (1) differed from the phase (0) specified by a rule in layer data
I0403 16:13:46.046705 17425 net.cpp:49] Initializing net from parameters: 
state {
  phase: TEST
}
layer {
  name: "data"
  type: "Data"
  top: "data"
  top: "label"
  include {
    phase: TEST
  }
  transform_param {
    mirror: false
    crop_size: 224
    mean_file: "/home/mohanty/data/final_dataset/lmdb/segmented-20-80/mean.binaryproto"
  }
  data_param {
    source: "/home/mohanty/data/final_dataset/lmdb/segmented-20-80/test_db"
    batch_size: 24
    backend: LMDB
  }
}
layer {
  name: "conv1/7x7_s2"
  type: "Convolution"
  bottom: "data"
  top: "conv1/7x7_s2"
  param {
    lr_mult: 1
    decay_mult: 1
  }
  param {
    lr_mult: 2
    decay_mult: 0
  }
  convolution_param {
    num_output: 64
    pad: 3
    kernel_size: 7
    stride: 2
    weight_filler {
      type: "xavier"
      std: 0.1
    }
    bias_filler {
      type: "constant"
      value: 0.2
    }
  }
}
layer {
  name: "conv1/relu_7x7"
  type: "ReLU"
  bottom: "conv1/7x7_s2"
  top: "conv1/7x7_s2"
}
layer {
  name: "pool1/3x3_s2"
  type: "Pooling"
  bottom: "conv1/7x7_s2"
  top: "pool1/3x3_s2"
  pooling_param {
    pool: MAX
    kernel_size: 3
    stride: 2
  }
}
layer {
  name: "pool1/norm1"
  type: "LRN"
  bottom: "pool1/3x3_s2"
  top: "pool1/norm1"
  lrn_param {
    local_size: 5
    alpha: 0.0001
    beta: 0.75
  }
}
layer {
  name: "conv2/3x3_reduce"
  type: "Convolution"
  bottom: "pool1/norm1"
  top: "conv2/3x3_reduce"
  param {
    lr_mult: 1
    decay_mult: 1
  }
  param {
    lr_mult: 2
    decay_mult: 0
  }
  convolution_param {
    num_output: 64
    kernel_size: 1
    weight_filler {
      type: "xavier"
      std: 0.1
    }
    bias_filler {
      type: "constant"
      value: 0.2
    }
  }
}
layer {
  name: "conv2/relu_3x3_reduce"
  type: "ReLU"
  bottom: "conv2/3x3_reduce"
  top: "conv2/3x3_reduce"
}
layer {
  name: "conv2/3x3"
  type: "Convolution"
  bottom: "conv2/3x3_reduce"
  top: "conv2/3x3"
  param {
    lr_mult: 1
    decay_mult: 1
  }
  param {
    lr_mult: 2
    decay_mult: 0
  }
  convolution_param {
    num_output: 192
    pad: 1
    kernel_size: 3
    weight_filler {
      type: "xavier"
      std: 0.03
    }
    bias_filler {
      type: "constant"
      value: 0.2
    }
  }
}
layer {
  name: "conv2/relu_3x3"
  type: "ReLU"
  bottom: "conv2/3x3"
  top: "conv2/3x3"
}
layer {
  name: "conv2/norm2"
  type: "LRN"
  bottom: "conv2/3x3"
  top: "conv2/norm2"
  lrn_param {
    local_size: 5
    alpha: 0.0001
    beta: 0.75
  }
}
layer {
  name: "pool2/3x3_s2"
  type: "Pooling"
  bottom: "conv2/norm2"
  top: "pool2/3x3_s2"
  pooling_param {
    pool: MAX
    kernel_size: 3
    stride: 2
  }
}
layer {
  name: "inception_3a/1x1"
  type: "Convolution"
  bottom: "pool2/3x3_s2"
  top: "inception_3a/1x1"
  param {
    lr_mult: 1
    decay_mult: 1
  }
  param {
    lr_mult: 2
    decay_mult: 0
  }
  convolution_param {
    num_output: 64
    kernel_size: 1
    weight_filler {
      type: "xavier"
      std: 0.03
    }
    bias_filler {
      type: "constant"
      value: 0.2
    }
  }
}
layer {
  name: "inception_3a/relu_1x1"
  type: "ReLU"
  bottom: "inception_3a/1x1"
  top: "inception_3a/1x1"
}
layer {
  name: "inception_3a/3x3_reduce"
  type: "Convolution"
  bottom: "pool2/3x3_s2"
  top: "inception_3a/3x3_reduce"
  param {
    lr_mult: 1
    decay_mult: 1
  }
  param {
    lr_mult: 2
    decay_mult: 0
  }
  convolution_param {
    num_output: 96
    kernel_size: 1
    weight_filler {
      type: "xavier"
      std: 0.09
    }
    bias_filler {
      type: "constant"
      value: 0.2
    }
  }
}
layer {
  name: "inception_3a/relu_3x3_reduce"
  type: "ReLU"
  bottom: "inception_3a/3x3_reduce"
  top: "inception_3a/3x3_reduce"
}
layer {
  name: "inception_3a/3x3"
  type: "Convolution"
  bottom: "inception_3a/3x3_reduce"
  top: "inception_3a/3x3"
  param {
    lr_mult: 1
    decay_mult: 1
  }
  param {
    lr_mult: 2
    decay_mult: 0
  }
  convolution_param {
    num_output: 128
    pad: 1
    kernel_size: 3
    weight_filler {
      type: "xavier"
      std: 0.03
    }
    bias_filler {
      type: "constant"
      value: 0.2
    }
  }
}
layer {
  name: "inception_3a/relu_3x3"
  type: "ReLU"
  bottom: "inception_3a/3x3"
  top: "inception_3a/3x3"
}
layer {
  name: "inception_3a/5x5_reduce"
  type: "Convolution"
  bottom: "pool2/3x3_s2"
  top: "inception_3a/5x5_reduce"
  param {
    lr_mult: 1
    decay_mult: 1
  }
  param {
    lr_mult: 2
    decay_mult: 0
  }
  convolution_param {
    num_output: 16
    kernel_size: 1
    weight_filler {
      type: "xavier"
      std: 0.2
    }
    bias_filler {
      type: "constant"
      value: 0.2
    }
  }
}
layer {
  name: "inception_3a/relu_5x5_reduce"
  type: "ReLU"
  bottom: "inception_3a/5x5_reduce"
  top: "inception_3a/5x5_reduce"
}
layer {
  name: "inception_3a/5x5"
  type: "Convolution"
  bottom: "inception_3a/5x5_reduce"
  top: "inception_3a/5x5"
  param {
    lr_mult: 1
    decay_mult: 1
  }
  param {
    lr_mult: 2
    decay_mult: 0
  }
  convolution_param {
    num_output: 32
    pad: 2
    kernel_size: 5
    weight_filler {
      type: "xavier"
      std: 0.03
    }
    bias_filler {
      type: "constant"
      value: 0.2
    }
  }
}
layer {
  name: "inception_3a/relu_5x5"
  type: "ReLU"
  bottom: "inception_3a/5x5"
  top: "inception_3a/5x5"
}
layer {
  name: "inception_3a/pool"
  type: "Pooling"
  bottom: "pool2/3x3_s2"
  top: "inception_3a/pool"
  pooling_param {
    pool: MAX
    kernel_size: 3
    stride: 1
    pad: 1
  }
}
layer {
  name: "inception_3a/pool_proj"
  type: "Convolution"
  bottom: "inception_3a/pool"
  top: "inception_3a/pool_proj"
  param {
    lr_mult: 1
    decay_mult: 1
  }
  param {
    lr_mult: 2
    decay_mult: 0
  }
  convolution_param {
    num_output: 32
    kernel_size: 1
    weight_filler {
      type: "xavier"
      std: 0.1
    }
    bias_filler {
      type: "constant"
      value: 0.2
    }
  }
}
layer {
  name: "inception_3a/relu_pool_proj"
  type: "ReLU"
  bottom: "inception_3a/pool_proj"
  top: "inception_3a/pool_proj"
}
layer {
  name: "inception_3a/output"
  type: "Concat"
  bottom: "inception_3a/1x1"
  bottom: "inception_3a/3x3"
  bottom: "inception_3a/5x5"
  bottom: "inception_3a/pool_proj"
  top: "inception_3a/output"
}
layer {
  name: "inception_3b/1x1"
  type: "Convolution"
  bottom: "inception_3a/output"
  top: "inception_3b/1x1"
  param {
    lr_mult: 1
    decay_mult: 1
  }
  param {
    lr_mult: 2
    decay_mult: 0
  }
  convolution_param {
    num_output: 128
    kernel_size: 1
    weight_filler {
      type: "xavier"
      std: 0.03
    }
    bias_filler {
      type: "constant"
      value: 0.2
    }
  }
}
layer {
  name: "inception_3b/relu_1x1"
  type: "ReLU"
  bottom: "inception_3b/1x1"
  top: "inception_3b/1x1"
}
layer {
  name: "inception_3b/3x3_reduce"
  type: "Convolution"
  bottom: "inception_3a/output"
  top: "inception_3b/3x3_reduce"
  param {
    lr_mult: 1
    decay_mult: 1
  }
  param {
    lr_mult: 2
    decay_mult: 0
  }
  convolution_param {
    num_output: 128
    kernel_size: 1
    weight_filler {
      type: "xavier"
      std: 0.09
    }
    bias_filler {
      type: "constant"
      value: 0.2
    }
  }
}
layer {
  name: "inception_3b/relu_3x3_reduce"
  type: "ReLU"
  bottom: "inception_3b/3x3_reduce"
  top: "inception_3b/3x3_reduce"
}
layer {
  name: "inception_3b/3x3"
  type: "Convolution"
  bottom: "inception_3b/3x3_reduce"
  top: "inception_3b/3x3"
  param {
    lr_mult: 1
    decay_mult: 1
  }
  param {
    lr_mult: 2
    decay_mult: 0
  }
  convolution_param {
    num_output: 192
    pad: 1
    kernel_size: 3
    weight_filler {
      type: "xavier"
      std: 0.03
    }
    bias_filler {
      type: "constant"
      value: 0.2
    }
  }
}
layer {
  name: "inception_3b/relu_3x3"
  type: "ReLU"
  bottom: "inception_3b/3x3"
  top: "inception_3b/3x3"
}
layer {
  name: "inception_3b/5x5_reduce"
  type: "Convolution"
  bottom: "inception_3a/output"
  top: "inception_3b/5x5_reduce"
  param {
    lr_mult: 1
    decay_mult: 1
  }
  param {
    lr_mult: 2
    decay_mult: 0
  }
  convolution_param {
    num_output: 32
    kernel_size: 1
    weight_filler {
      type: "xavier"
      std: 0.2
    }
    bias_filler {
      type: "constant"
      value: 0.2
    }
  }
}
layer {
  name: "inception_3b/relu_5x5_reduce"
  type: "ReLU"
  bottom: "inception_3b/5x5_reduce"
  top: "inception_3b/5x5_reduce"
}
layer {
  name: "inception_3b/5x5"
  type: "Convolution"
  bottom: "inception_3b/5x5_reduce"
  top: "inception_3b/5x5"
  param {
    lr_mult: 1
    decay_mult: 1
  }
  param {
    lr_mult: 2
    decay_mult: 0
  }
  convolution_param {
    num_output: 96
    pad: 2
    kernel_size: 5
    weight_filler {
      type: "xavier"
      std: 0.03
    }
    bias_filler {
      type: "constant"
      value: 0.2
    }
  }
}
layer {
  name: "inception_3b/relu_5x5"
  type: "ReLU"
  bottom: "inception_3b/5x5"
  top: "inception_3b/5x5"
}
layer {
  name: "inception_3b/pool"
  type: "Pooling"
  bottom: "inception_3a/output"
  top: "inception_3b/pool"
  pooling_param {
    pool: MAX
    kernel_size: 3
    stride: 1
    pad: 1
  }
}
layer {
  name: "inception_3b/pool_proj"
  type: "Convolution"
  bottom: "inception_3b/pool"
  top: "inception_3b/pool_proj"
  param {
    lr_mult: 1
    decay_mult: 1
  }
  param {
    lr_mult: 2
    decay_mult: 0
  }
  convolution_param {
    num_output: 64
    kernel_size: 1
    weight_filler {
      type: "xavier"
      std: 0.1
    }
    bias_filler {
      type: "constant"
      value: 0.2
    }
  }
}
layer {
  name: "inception_3b/relu_pool_proj"
  type: "ReLU"
  bottom: "inception_3b/pool_proj"
  top: "inception_3b/pool_proj"
}
layer {
  name: "inception_3b/output"
  type: "Concat"
  bottom: "inception_3b/1x1"
  bottom: "inception_3b/3x3"
  bottom: "inception_3b/5x5"
  bottom: "inception_3b/pool_proj"
  top: "inception_3b/output"
}
layer {
  name: "pool3/3x3_s2"
  type: "Pooling"
  bottom: "inception_3b/output"
  top: "pool3/3x3_s2"
  pooling_param {
    pool: MAX
    kernel_size: 3
    stride: 2
  }
}
layer {
  name: "inception_4a/1x1"
  type: "Convolution"
  bottom: "pool3/3x3_s2"
  top: "inception_4a/1x1"
  param {
    lr_mult: 1
    decay_mult: 1
  }
  param {
    lr_mult: 2
    decay_mult: 0
  }
  convolution_param {
    num_output: 192
    kernel_size: 1
    weight_filler {
      type: "xavier"
      std: 0.03
    }
    bias_filler {
      type: "constant"
      value: 0.2
    }
  }
}
layer {
  name: "inception_4a/relu_1x1"
  type: "ReLU"
  bottom: "inception_4a/1x1"
  top: "inception_4a/1x1"
}
layer {
  name: "inception_4a/3x3_reduce"
  type: "Convolution"
  bottom: "pool3/3x3_s2"
  top: "inception_4a/3x3_reduce"
  param {
    lr_mult: 1
    decay_mult: 1
  }
  param {
    lr_mult: 2
    decay_mult: 0
  }
  convolution_param {
    num_output: 96
    kernel_size: 1
    weight_filler {
      type: "xavier"
      std: 0.09
    }
    bias_filler {
      type: "constant"
      value: 0.2
    }
  }
}
layer {
  name: "inception_4a/relu_3x3_reduce"
  type: "ReLU"
  bottom: "inception_4a/3x3_reduce"
  top: "inception_4a/3x3_reduce"
}
layer {
  name: "inception_4a/3x3"
  type: "Convolution"
  bottom: "inception_4a/3x3_reduce"
  top: "inception_4a/3x3"
  param {
    lr_mult: 1
    decay_mult: 1
  }
  param {
    lr_mult: 2
    decay_mult: 0
  }
  convolution_param {
    num_output: 208
    pad: 1
    kernel_size: 3
    weight_filler {
      type: "xavier"
      std: 0.03
    }
    bias_filler {
      type: "constant"
      value: 0.2
    }
  }
}
layer {
  name: "inception_4a/relu_3x3"
  type: "ReLU"
  bottom: "inception_4a/3x3"
  top: "inception_4a/3x3"
}
layer {
  name: "inception_4a/5x5_reduce"
  type: "Convolution"
  bottom: "pool3/3x3_s2"
  top: "inception_4a/5x5_reduce"
  param {
    lr_mult: 1
    decay_mult: 1
  }
  param {
    lr_mult: 2
    decay_mult: 0
  }
  convolution_param {
    num_output: 16
    kernel_size: 1
    weight_filler {
      type: "xavier"
      std: 0.2
    }
    bias_filler {
      type: "constant"
      value: 0.2
    }
  }
}
layer {
  name: "inception_4a/relu_5x5_reduce"
  type: "ReLU"
  bottom: "inception_4a/5x5_reduce"
  top: "inception_4a/5x5_reduce"
}
layer {
  name: "inception_4a/5x5"
  type: "Convolution"
  bottom: "inception_4a/5x5_reduce"
  top: "inception_4a/5x5"
  param {
    lr_mult: 1
    decay_mult: 1
  }
  param {
    lr_mult: 2
    decay_mult: 0
  }
  convolution_param {
    num_output: 48
    pad: 2
    kernel_size: 5
    weight_filler {
      type: "xavier"
      std: 0.03
    }
    bias_filler {
      type: "constant"
      value: 0.2
    }
  }
}
layer {
  name: "inception_4a/relu_5x5"
  type: "ReLU"
  bottom: "inception_4a/5x5"
  top: "inception_4a/5x5"
}
layer {
  name: "inception_4a/pool"
  type: "Pooling"
  bottom: "pool3/3x3_s2"
  top: "inception_4a/pool"
  pooling_param {
    pool: MAX
    kernel_size: 3
    stride: 1
    pad: 1
  }
}
layer {
  name: "inception_4a/pool_proj"
  type: "Convolution"
  bottom: "inception_4a/pool"
  top: "inception_4a/pool_proj"
  param {
    lr_mult: 1
    decay_mult: 1
  }
  param {
    lr_mult: 2
    decay_mult: 0
  }
  convolution_param {
    num_output: 64
    kernel_size: 1
    weight_filler {
      type: "xavier"
      std: 0.1
    }
    bias_filler {
      type: "constant"
      value: 0.2
    }
  }
}
layer {
  name: "inception_4a/relu_pool_proj"
  type: "ReLU"
  bottom: "inception_4a/pool_proj"
  top: "inception_4a/pool_proj"
}
layer {
  name: "inception_4a/output"
  type: "Concat"
  bottom: "inception_4a/1x1"
  bottom: "inception_4a/3x3"
  bottom: "inception_4a/5x5"
  bottom: "inception_4a/pool_proj"
  top: "inception_4a/output"
}
layer {
  name: "loss1/ave_pool"
  type: "Pooling"
  bottom: "inception_4a/output"
  top: "loss1/ave_pool"
  pooling_param {
    pool: AVE
    kernel_size: 5
    stride: 3
  }
}
layer {
  name: "loss1/conv"
  type: "Convolution"
  bottom: "loss1/ave_pool"
  top: "loss1/conv"
  param {
    lr_mult: 1
    decay_mult: 1
  }
  param {
    lr_mult: 2
    decay_mult: 0
  }
  convolution_param {
    num_output: 128
    kernel_size: 1
    weight_filler {
      type: "xavier"
      std: 0.08
    }
    bias_filler {
      type: "constant"
      value: 0.2
    }
  }
}
layer {
  name: "loss1/relu_conv"
  type: "ReLU"
  bottom: "loss1/conv"
  top: "loss1/conv"
}
layer {
  name: "loss1/fc"
  type: "InnerProduct"
  bottom: "loss1/conv"
  top: "loss1/fc"
  param {
    lr_mult: 1
    decay_mult: 1
  }
  param {
    lr_mult: 2
    decay_mult: 0
  }
  inner_product_param {
    num_output: 1024
    weight_filler {
      type: "xavier"
      std: 0.02
    }
    bias_filler {
      type: "constant"
      value: 0.2
    }
  }
}
layer {
  name: "loss1/relu_fc"
  type: "ReLU"
  bottom: "loss1/fc"
  top: "loss1/fc"
}
layer {
  name: "loss1/drop_fc"
  type: "Dropout"
  bottom: "loss1/fc"
  top: "loss1/fc"
  dropout_param {
    dropout_ratio: 0.7
  }
}
layer {
  name: "loss1/classifier_plantvillage"
  type: "InnerProduct"
  bottom: "loss1/fc"
  top: "loss1/classifier_plantvillage"
  param {
    lr_mult: 1
    decay_mult: 1
  }
  param {
    lr_mult: 2
    decay_mult: 0
  }
  inner_product_param {
    num_output: 38
    weight_filler {
      type: "xavier"
      std: 0.0009765625
    }
    bias_filler {
      type: "constant"
      value: 0
    }
  }
}
layer {
  name: "inception_4b/1x1"
  type: "Convolution"
  bottom: "inception_4a/output"
  top: "inception_4b/1x1"
  param {
    lr_mult: 1
    decay_mult: 1
  }
  param {
    lr_mult: 2
    decay_mult: 0
  }
  convolution_param {
    num_output: 160
    kernel_size: 1
    weight_filler {
      type: "xavier"
      std: 0.03
    }
    bias_filler {
      type: "constant"
      value: 0.2
    }
  }
}
layer {
  name: "inception_4b/relu_1x1"
  type: "ReLU"
  bottom: "inception_4b/1x1"
  top: "inception_4b/1x1"
}
layer {
  name: "inception_4b/3x3_reduce"
  type: "Convolution"
  bottom: "inception_4a/output"
  top: "inception_4b/3x3_reduce"
  param {
    lr_mult: 1
    decay_mult: 1
  }
  param {
    lr_mult: 2
    decay_mult: 0
  }
  convolution_param {
    num_output: 112
    kernel_size: 1
    weight_filler {
      type: "xavier"
      std: 0.09
    }
    bias_filler {
      type: "constant"
      value: 0.2
    }
  }
}
layer {
  name: "inception_4b/relu_3x3_reduce"
  type: "ReLU"
  bottom: "inception_4b/3x3_reduce"
  top: "inception_4b/3x3_reduce"
}
layer {
  name: "inception_4b/3x3"
  type: "Convolution"
  bottom: "inception_4b/3x3_reduce"
  top: "inception_4b/3x3"
  param {
    lr_mult: 1
    decay_mult: 1
  }
  param {
    lr_mult: 2
    decay_mult: 0
  }
  convolution_param {
    num_output: 224
    pad: 1
    kernel_size: 3
    weight_filler {
      type: "xavier"
      std: 0.03
    }
    bias_filler {
      type: "constant"
      value: 0.2
    }
  }
}
layer {
  name: "inception_4b/relu_3x3"
  type: "ReLU"
  bottom: "inception_4b/3x3"
  top: "inception_4b/3x3"
}
layer {
  name: "inception_4b/5x5_reduce"
  type: "Convolution"
  bottom: "inception_4a/output"
  top: "inception_4b/5x5_reduce"
  param {
    lr_mult: 1
    decay_mult: 1
  }
  param {
    lr_mult: 2
    decay_mult: 0
  }
  convolution_param {
    num_output: 24
    kernel_size: 1
    weight_filler {
      type: "xavier"
      std: 0.2
    }
    bias_filler {
      type: "constant"
      value: 0.2
    }
  }
}
layer {
  name: "inception_4b/relu_5x5_reduce"
  type: "ReLU"
  bottom: "inception_4b/5x5_reduce"
  top: "inception_4b/5x5_reduce"
}
layer {
  name: "inception_4b/5x5"
  type: "Convolution"
  bottom: "inception_4b/5x5_reduce"
  top: "inception_4b/5x5"
  param {
    lr_mult: 1
    decay_mult: 1
  }
  param {
    lr_mult: 2
    decay_mult: 0
  }
  convolution_param {
    num_output: 64
    pad: 2
    kernel_size: 5
    weight_filler {
      type: "xavier"
      std: 0.03
    }
    bias_filler {
      type: "constant"
      value: 0.2
    }
  }
}
layer {
  name: "inception_4b/relu_5x5"
  type: "ReLU"
  bottom: "inception_4b/5x5"
  top: "inception_4b/5x5"
}
layer {
  name: "inception_4b/pool"
  type: "Pooling"
  bottom: "inception_4a/output"
  top: "inception_4b/pool"
  pooling_param {
    pool: MAX
    kernel_size: 3
    stride: 1
    pad: 1
  }
}
layer {
  name: "inception_4b/pool_proj"
  type: "Convolution"
  bottom: "inception_4b/pool"
  top: "inception_4b/pool_proj"
  param {
    lr_mult: 1
    decay_mult: 1
  }
  param {
    lr_mult: 2
    decay_mult: 0
  }
  convolution_param {
    num_output: 64
    kernel_size: 1
    weight_filler {
      type: "xavier"
      std: 0.1
    }
    bias_filler {
      type: "constant"
      value: 0.2
    }
  }
}
layer {
  name: "inception_4b/relu_pool_proj"
  type: "ReLU"
  bottom: "inception_4b/pool_proj"
  top: "inception_4b/pool_proj"
}
layer {
  name: "inception_4b/output"
  type: "Concat"
  bottom: "inception_4b/1x1"
  bottom: "inception_4b/3x3"
  bottom: "inception_4b/5x5"
  bottom: "inception_4b/pool_proj"
  top: "inception_4b/output"
}
layer {
  name: "inception_4c/1x1"
  type: "Convolution"
  bottom: "inception_4b/output"
  top: "inception_4c/1x1"
  param {
    lr_mult: 1
    decay_mult: 1
  }
  param {
    lr_mult: 2
    decay_mult: 0
  }
  convolution_param {
    num_output: 128
    kernel_size: 1
    weight_filler {
      type: "xavier"
      std: 0.03
    }
    bias_filler {
      type: "constant"
      value: 0.2
    }
  }
}
layer {
  name: "inception_4c/relu_1x1"
  type: "ReLU"
  bottom: "inception_4c/1x1"
  top: "inception_4c/1x1"
}
layer {
  name: "inception_4c/3x3_reduce"
  type: "Convolution"
  bottom: "inception_4b/output"
  top: "inception_4c/3x3_reduce"
  param {
    lr_mult: 1
    decay_mult: 1
  }
  param {
    lr_mult: 2
    decay_mult: 0
  }
  convolution_param {
    num_output: 128
    kernel_size: 1
    weight_filler {
      type: "xavier"
      std: 0.09
    }
    bias_filler {
      type: "constant"
      value: 0.2
    }
  }
}
layer {
  name: "inception_4c/relu_3x3_reduce"
  type: "ReLU"
  bottom: "inception_4c/3x3_reduce"
  top: "inception_4c/3x3_reduce"
}
layer {
  name: "inception_4c/3x3"
  type: "Convolution"
  bottom: "inception_4c/3x3_reduce"
  top: "inception_4c/3x3"
  param {
    lr_mult: 1
    decay_mult: 1
  }
  param {
    lr_mult: 2
    decay_mult: 0
  }
  convolution_param {
    num_output: 256
    pad: 1
    kernel_size: 3
    weight_filler {
      type: "xavier"
      std: 0.03
    }
    bias_filler {
      type: "constant"
      value: 0.2
    }
  }
}
layer {
  name: "inception_4c/relu_3x3"
  type: "ReLU"
  bottom: "inception_4c/3x3"
  top: "inception_4c/3x3"
}
layer {
  name: "inception_4c/5x5_reduce"
  type: "Convolution"
  bottom: "inception_4b/output"
  top: "inception_4c/5x5_reduce"
  param {
    lr_mult: 1
    decay_mult: 1
  }
  param {
    lr_mult: 2
    decay_mult: 0
  }
  convolution_param {
    num_output: 24
    kernel_size: 1
    weight_filler {
      type: "xavier"
      std: 0.2
    }
    bias_filler {
      type: "constant"
      value: 0.2
    }
  }
}
layer {
  name: "inception_4c/relu_5x5_reduce"
  type: "ReLU"
  bottom: "inception_4c/5x5_reduce"
  top: "inception_4c/5x5_reduce"
}
layer {
  name: "inception_4c/5x5"
  type: "Convolution"
  bottom: "inception_4c/5x5_reduce"
  top: "inception_4c/5x5"
  param {
    lr_mult: 1
    decay_mult: 1
  }
  param {
    lr_mult: 2
    decay_mult: 0
  }
  convolution_param {
    num_output: 64
    pad: 2
    kernel_size: 5
    weight_filler {
      type: "xavier"
      std: 0.03
    }
    bias_filler {
      type: "constant"
      value: 0.2
    }
  }
}
layer {
  name: "inception_4c/relu_5x5"
  type: "ReLU"
  bottom: "inception_4c/5x5"
  top: "inception_4c/5x5"
}
layer {
  name: "inception_4c/pool"
  type: "Pooling"
  bottom: "inception_4b/output"
  top: "inception_4c/pool"
  pooling_param {
    pool: MAX
    kernel_size: 3
    stride: 1
    pad: 1
  }
}
layer {
  name: "inception_4c/pool_proj"
  type: "Convolution"
  bottom: "inception_4c/pool"
  top: "inception_4c/pool_proj"
  param {
    lr_mult: 1
    decay_mult: 1
  }
  param {
    lr_mult: 2
    decay_mult: 0
  }
  convolution_param {
    num_output: 64
    kernel_size: 1
    weight_filler {
      type: "xavier"
      std: 0.1
    }
    bias_filler {
      type: "constant"
      value: 0.2
    }
  }
}
layer {
  name: "inception_4c/relu_pool_proj"
  type: "ReLU"
  bottom: "inception_4c/pool_proj"
  top: "inception_4c/pool_proj"
}
layer {
  name: "inception_4c/output"
  type: "Concat"
  bottom: "inception_4c/1x1"
  bottom: "inception_4c/3x3"
  bottom: "inception_4c/5x5"
  bottom: "inception_4c/pool_proj"
  top: "inception_4c/output"
}
layer {
  name: "inception_4d/1x1"
  type: "Convolution"
  bottom: "inception_4c/output"
  top: "inception_4d/1x1"
  param {
    lr_mult: 1
    decay_mult: 1
  }
  param {
    lr_mult: 2
    decay_mult: 0
  }
  convolution_param {
    num_output: 112
    kernel_size: 1
    weight_filler {
      type: "xavier"
      std: 0.03
    }
    bias_filler {
      type: "constant"
      value: 0.2
    }
  }
}
layer {
  name: "inception_4d/relu_1x1"
  type: "ReLU"
  bottom: "inception_4d/1x1"
  top: "inception_4d/1x1"
}
layer {
  name: "inception_4d/3x3_reduce"
  type: "Convolution"
  bottom: "inception_4c/output"
  top: "inception_4d/3x3_reduce"
  param {
    lr_mult: 1
    decay_mult: 1
  }
  param {
    lr_mult: 2
    decay_mult: 0
  }
  convolution_param {
    num_output: 144
    kernel_size: 1
    weight_filler {
      type: "xavier"
      std: 0.09
    }
    bias_filler {
      type: "constant"
      value: 0.2
    }
  }
}
layer {
  name: "inception_4d/relu_3x3_reduce"
  type: "ReLU"
  bottom: "inception_4d/3x3_reduce"
  top: "inception_4d/3x3_reduce"
}
layer {
  name: "inception_4d/3x3"
  type: "Convolution"
  bottom: "inception_4d/3x3_reduce"
  top: "inception_4d/3x3"
  param {
    lr_mult: 1
    decay_mult: 1
  }
  param {
    lr_mult: 2
    decay_mult: 0
  }
  convolution_param {
    num_output: 288
    pad: 1
    kernel_size: 3
    weight_filler {
      type: "xavier"
      std: 0.03
    }
    bias_filler {
      type: "constant"
      value: 0.2
    }
  }
}
layer {
  name: "inception_4d/relu_3x3"
  type: "ReLU"
  bottom: "inception_4d/3x3"
  top: "inception_4d/3x3"
}
layer {
  name: "inception_4d/5x5_reduce"
  type: "Convolution"
  bottom: "inception_4c/output"
  top: "inception_4d/5x5_reduce"
  param {
    lr_mult: 1
    decay_mult: 1
  }
  param {
    lr_mult: 2
    decay_mult: 0
  }
  convolution_param {
    num_output: 32
    kernel_size: 1
    weight_filler {
      type: "xavier"
      std: 0.2
    }
    bias_filler {
      type: "constant"
      value: 0.2
    }
  }
}
layer {
  name: "inception_4d/relu_5x5_reduce"
  type: "ReLU"
  bottom: "inception_4d/5x5_reduce"
  top: "inception_4d/5x5_reduce"
}
layer {
  name: "inception_4d/5x5"
  type: "Convolution"
  bottom: "inception_4d/5x5_reduce"
  top: "inception_4d/5x5"
  param {
    lr_mult: 1
    decay_mult: 1
  }
  param {
    lr_mult: 2
    decay_mult: 0
  }
  convolution_param {
    num_output: 64
    pad: 2
    kernel_size: 5
    weight_filler {
      type: "xavier"
      std: 0.03
    }
    bias_filler {
      type: "constant"
      value: 0.2
    }
  }
}
layer {
  name: "inception_4d/relu_5x5"
  type: "ReLU"
  bottom: "inception_4d/5x5"
  top: "inception_4d/5x5"
}
layer {
  name: "inception_4d/pool"
  type: "Pooling"
  bottom: "inception_4c/output"
  top: "inception_4d/pool"
  pooling_param {
    pool: MAX
    kernel_size: 3
    stride: 1
    pad: 1
  }
}
layer {
  name: "inception_4d/pool_proj"
  type: "Convolution"
  bottom: "inception_4d/pool"
  top: "inception_4d/pool_proj"
  param {
    lr_mult: 1
    decay_mult: 1
  }
  param {
    lr_mult: 2
    decay_mult: 0
  }
  convolution_param {
    num_output: 64
    kernel_size: 1
    weight_filler {
      type: "xavier"
      std: 0.1
    }
    bias_filler {
      type: "constant"
      value: 0.2
    }
  }
}
layer {
  name: "inception_4d/relu_pool_proj"
  type: "ReLU"
  bottom: "inception_4d/pool_proj"
  top: "inception_4d/pool_proj"
}
layer {
  name: "inception_4d/output"
  type: "Concat"
  bottom: "inception_4d/1x1"
  bottom: "inception_4d/3x3"
  bottom: "inception_4d/5x5"
  bottom: "inception_4d/pool_proj"
  top: "inception_4d/output"
}
layer {
  name: "loss2/ave_pool"
  type: "Pooling"
  bottom: "inception_4d/output"
  top: "loss2/ave_pool"
  pooling_param {
    pool: AVE
    kernel_size: 5
    stride: 3
  }
}
layer {
  name: "loss2/conv"
  type: "Convolution"
  bottom: "loss2/ave_pool"
  top: "loss2/conv"
  param {
    lr_mult: 1
    decay_mult: 1
  }
  param {
    lr_mult: 2
    decay_mult: 0
  }
  convolution_param {
    num_output: 128
    kernel_size: 1
    weight_filler {
      type: "xavier"
      std: 0.08
    }
    bias_filler {
      type: "constant"
      value: 0.2
    }
  }
}
layer {
  name: "loss2/relu_conv"
  type: "ReLU"
  bottom: "loss2/conv"
  top: "loss2/conv"
}
layer {
  name: "loss2/fc"
  type: "InnerProduct"
  bottom: "loss2/conv"
  top: "loss2/fc"
  param {
    lr_mult: 1
    decay_mult: 1
  }
  param {
    lr_mult: 2
    decay_mult: 0
  }
  inner_product_param {
    num_output: 1024
    weight_filler {
      type: "xavier"
      std: 0.02
    }
    bias_filler {
      type: "constant"
      value: 0.2
    }
  }
}
layer {
  name: "loss2/relu_fc"
  type: "ReLU"
  bottom: "loss2/fc"
  top: "loss2/fc"
}
layer {
  name: "loss2/drop_fc"
  type: "Dropout"
  bottom: "loss2/fc"
  top: "loss2/fc"
  dropout_param {
    dropout_ratio: 0.7
  }
}
layer {
  name: "loss2/classifier_plantvillage"
  type: "InnerProduct"
  bottom: "loss2/fc"
  top: "loss2/classifier_plantvillage"
  param {
    lr_mult: 1
    decay_mult: 1
  }
  param {
    lr_mult: 2
    decay_mult: 0
  }
  inner_product_param {
    num_output: 38
    weight_filler {
      type: "xavier"
      std: 0.0009765625
    }
    bias_filler {
      type: "constant"
      value: 0
    }
  }
}
layer {
  name: "inception_4e/1x1"
  type: "Convolution"
  bottom: "inception_4d/output"
  top: "inception_4e/1x1"
  param {
    lr_mult: 1
    decay_mult: 1
  }
  param {
    lr_mult: 2
    decay_mult: 0
  }
  convolution_param {
    num_output: 256
    kernel_size: 1
    weight_filler {
      type: "xavier"
      std: 0.03
    }
    bias_filler {
      type: "constant"
      value: 0.2
    }
  }
}
layer {
  name: "inception_4e/relu_1x1"
  type: "ReLU"
  bottom: "inception_4e/1x1"
  top: "inception_4e/1x1"
}
layer {
  name: "inception_4e/3x3_reduce"
  type: "Convolution"
  bottom: "inception_4d/output"
  top: "inception_4e/3x3_reduce"
  param {
    lr_mult: 1
    decay_mult: 1
  }
  param {
    lr_mult: 2
    decay_mult: 0
  }
  convolution_param {
    num_output: 160
    kernel_size: 1
    weight_filler {
      type: "xavier"
      std: 0.09
    }
    bias_filler {
      type: "constant"
      value: 0.2
    }
  }
}
layer {
  name: "inception_4e/relu_3x3_reduce"
  type: "ReLU"
  bottom: "inception_4e/3x3_reduce"
  top: "inception_4e/3x3_reduce"
}
layer {
  name: "inception_4e/3x3"
  type: "Convolution"
  bottom: "inception_4e/3x3_reduce"
  top: "inception_4e/3x3"
  param {
    lr_mult: 1
    decay_mult: 1
  }
  param {
    lr_mult: 2
    decay_mult: 0
  }
  convolution_param {
    num_output: 320
    pad: 1
    kernel_size: 3
    weight_filler {
      type: "xavier"
      std: 0.03
    }
    bias_filler {
      type: "constant"
      value: 0.2
    }
  }
}
layer {
  name: "inception_4e/relu_3x3"
  type: "ReLU"
  bottom: "inception_4e/3x3"
  top: "inception_4e/3x3"
}
layer {
  name: "inception_4e/5x5_reduce"
  type: "Convolution"
  bottom: "inception_4d/output"
  top: "inception_4e/5x5_reduce"
  param {
    lr_mult: 1
    decay_mult: 1
  }
  param {
    lr_mult: 2
    decay_mult: 0
  }
  convolution_param {
    num_output: 32
    kernel_size: 1
    weight_filler {
      type: "xavier"
      std: 0.2
    }
    bias_filler {
      type: "constant"
      value: 0.2
    }
  }
}
layer {
  name: "inception_4e/relu_5x5_reduce"
  type: "ReLU"
  bottom: "inception_4e/5x5_reduce"
  top: "inception_4e/5x5_reduce"
}
layer {
  name: "inception_4e/5x5"
  type: "Convolution"
  bottom: "inception_4e/5x5_reduce"
  top: "inception_4e/
I0403 16:13:46.048419 17425 layer_factory.hpp:77] Creating layer data
I0403 16:13:46.049142 17425 net.cpp:91] Creating Layer data
I0403 16:13:46.049180 17425 net.cpp:399] data -> data
I0403 16:13:46.049239 17425 net.cpp:399] data -> label
I0403 16:13:46.049283 17425 data_transformer.cpp:25] Loading mean file from: /home/mohanty/data/final_dataset/lmdb/segmented-20-80/mean.binaryproto
I0403 16:13:46.050631 17430 db_lmdb.cpp:38] Opened lmdb /home/mohanty/data/final_dataset/lmdb/segmented-20-80/test_db
I0403 16:13:46.064878 17425 data_layer.cpp:41] output data size: 24,3,224,224
I0403 16:13:46.097304 17425 net.cpp:141] Setting up data
I0403 16:13:46.097396 17425 net.cpp:148] Top shape: 24 3 224 224 (3612672)
I0403 16:13:46.097425 17425 net.cpp:148] Top shape: 24 (24)
I0403 16:13:46.097443 17425 net.cpp:156] Memory required for data: 14450784
I0403 16:13:46.097476 17425 layer_factory.hpp:77] Creating layer label_data_1_split
I0403 16:13:46.097506 17425 net.cpp:91] Creating Layer label_data_1_split
I0403 16:13:46.097529 17425 net.cpp:425] label_data_1_split <- label
I0403 16:13:46.097574 17425 net.cpp:399] label_data_1_split -> label_data_1_split_0
I0403 16:13:46.097612 17425 net.cpp:399] label_data_1_split -> label_data_1_split_1
I0403 16:13:46.097640 17425 net.cpp:399] label_data_1_split -> label_data_1_split_2
I0403 16:13:46.097664 17425 net.cpp:399] label_data_1_split -> label_data_1_split_3
I0403 16:13:46.097688 17425 net.cpp:399] label_data_1_split -> label_data_1_split_4
I0403 16:13:46.097713 17425 net.cpp:399] label_data_1_split -> label_data_1_split_5
I0403 16:13:46.097736 17425 net.cpp:399] label_data_1_split -> label_data_1_split_6
I0403 16:13:46.097762 17425 net.cpp:399] label_data_1_split -> label_data_1_split_7
I0403 16:13:46.097786 17425 net.cpp:399] label_data_1_split -> label_data_1_split_8
I0403 16:13:46.097811 17425 net.cpp:399] label_data_1_split -> label_data_1_split_9
I0403 16:13:46.097946 17425 net.cpp:141] Setting up label_data_1_split
I0403 16:13:46.097975 17425 net.cpp:148] Top shape: 24 (24)
I0403 16:13:46.097996 17425 net.cpp:148] Top shape: 24 (24)
I0403 16:13:46.098014 17425 net.cpp:148] Top shape: 24 (24)
I0403 16:13:46.098033 17425 net.cpp:148] Top shape: 24 (24)
I0403 16:13:46.098052 17425 net.cpp:148] Top shape: 24 (24)
I0403 16:13:46.098069 17425 net.cpp:148] Top shape: 24 (24)
I0403 16:13:46.098088 17425 net.cpp:148] Top shape: 24 (24)
I0403 16:13:46.098106 17425 net.cpp:148] Top shape: 24 (24)
I0403 16:13:46.098125 17425 net.cpp:148] Top shape: 24 (24)
I0403 16:13:46.098145 17425 net.cpp:148] Top shape: 24 (24)
I0403 16:13:46.098206 17425 net.cpp:156] Memory required for data: 14451744
I0403 16:13:46.098225 17425 layer_factory.hpp:77] Creating layer conv1/7x7_s2
I0403 16:13:46.098263 17425 net.cpp:91] Creating Layer conv1/7x7_s2
I0403 16:13:46.098284 17425 net.cpp:425] conv1/7x7_s2 <- data
I0403 16:13:46.098307 17425 net.cpp:399] conv1/7x7_s2 -> conv1/7x7_s2
I0403 16:13:46.263288 17425 net.cpp:141] Setting up conv1/7x7_s2
I0403 16:13:46.263380 17425 net.cpp:148] Top shape: 24 64 112 112 (19267584)
I0403 16:13:46.263401 17425 net.cpp:156] Memory required for data: 91522080
I0403 16:13:46.263437 17425 layer_factory.hpp:77] Creating layer conv1/relu_7x7
I0403 16:13:46.263469 17425 net.cpp:91] Creating Layer conv1/relu_7x7
I0403 16:13:46.263490 17425 net.cpp:425] conv1/relu_7x7 <- conv1/7x7_s2
I0403 16:13:46.263517 17425 net.cpp:386] conv1/relu_7x7 -> conv1/7x7_s2 (in-place)
I0403 16:13:46.263854 17425 net.cpp:141] Setting up conv1/relu_7x7
I0403 16:13:46.263887 17425 net.cpp:148] Top shape: 24 64 112 112 (19267584)
I0403 16:13:46.263906 17425 net.cpp:156] Memory required for data: 168592416
I0403 16:13:46.263923 17425 layer_factory.hpp:77] Creating layer pool1/3x3_s2
I0403 16:13:46.263953 17425 net.cpp:91] Creating Layer pool1/3x3_s2
I0403 16:13:46.263974 17425 net.cpp:425] pool1/3x3_s2 <- conv1/7x7_s2
I0403 16:13:46.264000 17425 net.cpp:399] pool1/3x3_s2 -> pool1/3x3_s2
I0403 16:13:46.264093 17425 net.cpp:141] Setting up pool1/3x3_s2
I0403 16:13:46.264122 17425 net.cpp:148] Top shape: 24 64 56 56 (4816896)
I0403 16:13:46.264140 17425 net.cpp:156] Memory required for data: 187860000
I0403 16:13:46.264158 17425 layer_factory.hpp:77] Creating layer pool1/norm1
I0403 16:13:46.264189 17425 net.cpp:91] Creating Layer pool1/norm1
I0403 16:13:46.264210 17425 net.cpp:425] pool1/norm1 <- pool1/3x3_s2
I0403 16:13:46.264233 17425 net.cpp:399] pool1/norm1 -> pool1/norm1
I0403 16:13:46.264621 17425 net.cpp:141] Setting up pool1/norm1
I0403 16:13:46.264653 17425 net.cpp:148] Top shape: 24 64 56 56 (4816896)
I0403 16:13:46.264670 17425 net.cpp:156] Memory required for data: 207127584
I0403 16:13:46.264689 17425 layer_factory.hpp:77] Creating layer conv2/3x3_reduce
I0403 16:13:46.264722 17425 net.cpp:91] Creating Layer conv2/3x3_reduce
I0403 16:13:46.264744 17425 net.cpp:425] conv2/3x3_reduce <- pool1/norm1
I0403 16:13:46.264770 17425 net.cpp:399] conv2/3x3_reduce -> conv2/3x3_reduce
I0403 16:13:46.266461 17425 net.cpp:141] Setting up conv2/3x3_reduce
I0403 16:13:46.266496 17425 net.cpp:148] Top shape: 24 64 56 56 (4816896)
I0403 16:13:46.266520 17425 net.cpp:156] Memory required for data: 226395168
I0403 16:13:46.266544 17425 layer_factory.hpp:77] Creating layer conv2/relu_3x3_reduce
I0403 16:13:46.266571 17425 net.cpp:91] Creating Layer conv2/relu_3x3_reduce
I0403 16:13:46.266593 17425 net.cpp:425] conv2/relu_3x3_reduce <- conv2/3x3_reduce
I0403 16:13:46.266615 17425 net.cpp:386] conv2/relu_3x3_reduce -> conv2/3x3_reduce (in-place)
I0403 16:13:46.266935 17425 net.cpp:141] Setting up conv2/relu_3x3_reduce
I0403 16:13:46.266970 17425 net.cpp:148] Top shape: 24 64 56 56 (4816896)
I0403 16:13:46.266989 17425 net.cpp:156] Memory required for data: 245662752
I0403 16:13:46.267007 17425 layer_factory.hpp:77] Creating layer conv2/3x3
I0403 16:13:46.267036 17425 net.cpp:91] Creating Layer conv2/3x3
I0403 16:13:46.267057 17425 net.cpp:425] conv2/3x3 <- conv2/3x3_reduce
I0403 16:13:46.267081 17425 net.cpp:399] conv2/3x3 -> conv2/3x3
I0403 16:13:46.269841 17425 net.cpp:141] Setting up conv2/3x3
I0403 16:13:46.269881 17425 net.cpp:148] Top shape: 24 192 56 56 (14450688)
I0403 16:13:46.269901 17425 net.cpp:156] Memory required for data: 303465504
I0403 16:13:46.269927 17425 layer_factory.hpp:77] Creating layer conv2/relu_3x3
I0403 16:13:46.269950 17425 net.cpp:91] Creating Layer conv2/relu_3x3
I0403 16:13:46.269969 17425 net.cpp:425] conv2/relu_3x3 <- conv2/3x3
I0403 16:13:46.269989 17425 net.cpp:386] conv2/relu_3x3 -> conv2/3x3 (in-place)
I0403 16:13:46.270203 17425 net.cpp:141] Setting up conv2/relu_3x3
I0403 16:13:46.270233 17425 net.cpp:148] Top shape: 24 192 56 56 (14450688)
I0403 16:13:46.270294 17425 net.cpp:156] Memory required for data: 361268256
I0403 16:13:46.270314 17425 layer_factory.hpp:77] Creating layer conv2/norm2
I0403 16:13:46.270339 17425 net.cpp:91] Creating Layer conv2/norm2
I0403 16:13:46.270360 17425 net.cpp:425] conv2/norm2 <- conv2/3x3
I0403 16:13:46.270382 17425 net.cpp:399] conv2/norm2 -> conv2/norm2
I0403 16:13:46.270750 17425 net.cpp:141] Setting up conv2/norm2
I0403 16:13:46.270782 17425 net.cpp:148] Top shape: 24 192 56 56 (14450688)
I0403 16:13:46.270802 17425 net.cpp:156] Memory required for data: 419071008
I0403 16:13:46.270819 17425 layer_factory.hpp:77] Creating layer pool2/3x3_s2
I0403 16:13:46.270844 17425 net.cpp:91] Creating Layer pool2/3x3_s2
I0403 16:13:46.270864 17425 net.cpp:425] pool2/3x3_s2 <- conv2/norm2
I0403 16:13:46.270885 17425 net.cpp:399] pool2/3x3_s2 -> pool2/3x3_s2
I0403 16:13:46.270951 17425 net.cpp:141] Setting up pool2/3x3_s2
I0403 16:13:46.270978 17425 net.cpp:148] Top shape: 24 192 28 28 (3612672)
I0403 16:13:46.270995 17425 net.cpp:156] Memory required for data: 433521696
I0403 16:13:46.271013 17425 layer_factory.hpp:77] Creating layer pool2/3x3_s2_pool2/3x3_s2_0_split
I0403 16:13:46.271035 17425 net.cpp:91] Creating Layer pool2/3x3_s2_pool2/3x3_s2_0_split
I0403 16:13:46.271054 17425 net.cpp:425] pool2/3x3_s2_pool2/3x3_s2_0_split <- pool2/3x3_s2
I0403 16:13:46.271080 17425 net.cpp:399] pool2/3x3_s2_pool2/3x3_s2_0_split -> pool2/3x3_s2_pool2/3x3_s2_0_split_0
I0403 16:13:46.271106 17425 net.cpp:399] pool2/3x3_s2_pool2/3x3_s2_0_split -> pool2/3x3_s2_pool2/3x3_s2_0_split_1
I0403 16:13:46.271129 17425 net.cpp:399] pool2/3x3_s2_pool2/3x3_s2_0_split -> pool2/3x3_s2_pool2/3x3_s2_0_split_2
I0403 16:13:46.271153 17425 net.cpp:399] pool2/3x3_s2_pool2/3x3_s2_0_split -> pool2/3x3_s2_pool2/3x3_s2_0_split_3
I0403 16:13:46.271240 17425 net.cpp:141] Setting up pool2/3x3_s2_pool2/3x3_s2_0_split
I0403 16:13:46.271270 17425 net.cpp:148] Top shape: 24 192 28 28 (3612672)
I0403 16:13:46.271291 17425 net.cpp:148] Top shape: 24 192 28 28 (3612672)
I0403 16:13:46.271309 17425 net.cpp:148] Top shape: 24 192 28 28 (3612672)
I0403 16:13:46.271328 17425 net.cpp:148] Top shape: 24 192 28 28 (3612672)
I0403 16:13:46.271344 17425 net.cpp:156] Memory required for data: 491324448
I0403 16:13:46.271363 17425 layer_factory.hpp:77] Creating layer inception_3a/1x1
I0403 16:13:46.271390 17425 net.cpp:91] Creating Layer inception_3a/1x1
I0403 16:13:46.271411 17425 net.cpp:425] inception_3a/1x1 <- pool2/3x3_s2_pool2/3x3_s2_0_split_0
I0403 16:13:46.271435 17425 net.cpp:399] inception_3a/1x1 -> inception_3a/1x1
I0403 16:13:46.273263 17425 net.cpp:141] Setting up inception_3a/1x1
I0403 16:13:46.273299 17425 net.cpp:148] Top shape: 24 64 28 28 (1204224)
I0403 16:13:46.273319 17425 net.cpp:156] Memory required for data: 496141344
I0403 16:13:46.273341 17425 layer_factory.hpp:77] Creating layer inception_3a/relu_1x1
I0403 16:13:46.273367 17425 net.cpp:91] Creating Layer inception_3a/relu_1x1
I0403 16:13:46.273386 17425 net.cpp:425] inception_3a/relu_1x1 <- inception_3a/1x1
I0403 16:13:46.273407 17425 net.cpp:386] inception_3a/relu_1x1 -> inception_3a/1x1 (in-place)
I0403 16:13:46.273623 17425 net.cpp:141] Setting up inception_3a/relu_1x1
I0403 16:13:46.273654 17425 net.cpp:148] Top shape: 24 64 28 28 (1204224)
I0403 16:13:46.273672 17425 net.cpp:156] Memory required for data: 500958240
I0403 16:13:46.273689 17425 layer_factory.hpp:77] Creating layer inception_3a/3x3_reduce
I0403 16:13:46.273716 17425 net.cpp:91] Creating Layer inception_3a/3x3_reduce
I0403 16:13:46.273738 17425 net.cpp:425] inception_3a/3x3_reduce <- pool2/3x3_s2_pool2/3x3_s2_0_split_1
I0403 16:13:46.273764 17425 net.cpp:399] inception_3a/3x3_reduce -> inception_3a/3x3_reduce
I0403 16:13:46.275786 17425 net.cpp:141] Setting up inception_3a/3x3_reduce
I0403 16:13:46.275825 17425 net.cpp:148] Top shape: 24 96 28 28 (1806336)
I0403 16:13:46.275846 17425 net.cpp:156] Memory required for data: 508183584
I0403 16:13:46.275871 17425 layer_factory.hpp:77] Creating layer inception_3a/relu_3x3_reduce
I0403 16:13:46.275915 17425 net.cpp:91] Creating Layer inception_3a/relu_3x3_reduce
I0403 16:13:46.275935 17425 net.cpp:425] inception_3a/relu_3x3_reduce <- inception_3a/3x3_reduce
I0403 16:13:46.275959 17425 net.cpp:386] inception_3a/relu_3x3_reduce -> inception_3a/3x3_reduce (in-place)
I0403 16:13:46.276177 17425 net.cpp:141] Setting up inception_3a/relu_3x3_reduce
I0403 16:13:46.276209 17425 net.cpp:148] Top shape: 24 96 28 28 (1806336)
I0403 16:13:46.276226 17425 net.cpp:156] Memory required for data: 515408928
I0403 16:13:46.276244 17425 layer_factory.hpp:77] Creating layer inception_3a/3x3
I0403 16:13:46.276273 17425 net.cpp:91] Creating Layer inception_3a/3x3
I0403 16:13:46.276293 17425 net.cpp:425] inception_3a/3x3 <- inception_3a/3x3_reduce
I0403 16:13:46.276319 17425 net.cpp:399] inception_3a/3x3 -> inception_3a/3x3
I0403 16:13:46.278321 17425 net.cpp:141] Setting up inception_3a/3x3
I0403 16:13:46.278358 17425 net.cpp:148] Top shape: 24 128 28 28 (2408448)
I0403 16:13:46.278378 17425 net.cpp:156] Memory required for data: 525042720
I0403 16:13:46.278400 17425 layer_factory.hpp:77] Creating layer inception_3a/relu_3x3
I0403 16:13:46.278421 17425 net.cpp:91] Creating Layer inception_3a/relu_3x3
I0403 16:13:46.278440 17425 net.cpp:425] inception_3a/relu_3x3 <- inception_3a/3x3
I0403 16:13:46.278463 17425 net.cpp:386] inception_3a/relu_3x3 -> inception_3a/3x3 (in-place)
I0403 16:13:46.278802 17425 net.cpp:141] Setting up inception_3a/relu_3x3
I0403 16:13:46.278836 17425 net.cpp:148] Top shape: 24 128 28 28 (2408448)
I0403 16:13:46.278856 17425 net.cpp:156] Memory required for data: 534676512
I0403 16:13:46.278873 17425 layer_factory.hpp:77] Creating layer inception_3a/5x5_reduce
I0403 16:13:46.278900 17425 net.cpp:91] Creating Layer inception_3a/5x5_reduce
I0403 16:13:46.278921 17425 net.cpp:425] inception_3a/5x5_reduce <- pool2/3x3_s2_pool2/3x3_s2_0_split_2
I0403 16:13:46.278944 17425 net.cpp:399] inception_3a/5x5_reduce -> inception_3a/5x5_reduce
I0403 16:13:46.280095 17425 net.cpp:141] Setting up inception_3a/5x5_reduce
I0403 16:13:46.280133 17425 net.cpp:148] Top shape: 24 16 28 28 (301056)
I0403 16:13:46.280151 17425 net.cpp:156] Memory required for data: 535880736
I0403 16:13:46.280174 17425 layer_factory.hpp:77] Creating layer inception_3a/relu_5x5_reduce
I0403 16:13:46.280195 17425 net.cpp:91] Creating Layer inception_3a/relu_5x5_reduce
I0403 16:13:46.280213 17425 net.cpp:425] inception_3a/relu_5x5_reduce <- inception_3a/5x5_reduce
I0403 16:13:46.280237 17425 net.cpp:386] inception_3a/relu_5x5_reduce -> inception_3a/5x5_reduce (in-place)
I0403 16:13:46.280580 17425 net.cpp:141] Setting up inception_3a/relu_5x5_reduce
I0403 16:13:46.280612 17425 net.cpp:148] Top shape: 24 16 28 28 (301056)
I0403 16:13:46.280630 17425 net.cpp:156] Memory required for data: 537084960
I0403 16:13:46.280648 17425 layer_factory.hpp:77] Creating layer inception_3a/5x5
I0403 16:13:46.280674 17425 net.cpp:91] Creating Layer inception_3a/5x5
I0403 16:13:46.280696 17425 net.cpp:425] inception_3a/5x5 <- inception_3a/5x5_reduce
I0403 16:13:46.280721 17425 net.cpp:399] inception_3a/5x5 -> inception_3a/5x5
I0403 16:13:46.281934 17425 net.cpp:141] Setting up inception_3a/5x5
I0403 16:13:46.281968 17425 net.cpp:148] Top shape: 24 32 28 28 (602112)
I0403 16:13:46.281987 17425 net.cpp:156] Memory required for data: 539493408
I0403 16:13:46.282008 17425 layer_factory.hpp:77] Creating layer inception_3a/relu_5x5
I0403 16:13:46.282033 17425 net.cpp:91] Creating Layer inception_3a/relu_5x5
I0403 16:13:46.282053 17425 net.cpp:425] inception_3a/relu_5x5 <- inception_3a/5x5
I0403 16:13:46.282074 17425 net.cpp:386] inception_3a/relu_5x5 -> inception_3a/5x5 (in-place)
I0403 16:13:46.282286 17425 net.cpp:141] Setting up inception_3a/relu_5x5
I0403 16:13:46.282316 17425 net.cpp:148] Top shape: 24 32 28 28 (602112)
I0403 16:13:46.282335 17425 net.cpp:156] Memory required for data: 541901856
I0403 16:13:46.282352 17425 layer_factory.hpp:77] Creating layer inception_3a/pool
I0403 16:13:46.282373 17425 net.cpp:91] Creating Layer inception_3a/pool
I0403 16:13:46.282414 17425 net.cpp:425] inception_3a/pool <- pool2/3x3_s2_pool2/3x3_s2_0_split_3
I0403 16:13:46.282441 17425 net.cpp:399] inception_3a/pool -> inception_3a/pool
I0403 16:13:46.282511 17425 net.cpp:141] Setting up inception_3a/pool
I0403 16:13:46.282541 17425 net.cpp:148] Top shape: 24 192 28 28 (3612672)
I0403 16:13:46.282557 17425 net.cpp:156] Memory required for data: 556352544
I0403 16:13:46.282582 17425 layer_factory.hpp:77] Creating layer inception_3a/pool_proj
I0403 16:13:46.282613 17425 net.cpp:91] Creating Layer inception_3a/pool_proj
I0403 16:13:46.282635 17425 net.cpp:425] inception_3a/pool_proj <- inception_3a/pool
I0403 16:13:46.282660 17425 net.cpp:399] inception_3a/pool_proj -> inception_3a/pool_proj
I0403 16:13:46.283818 17425 net.cpp:141] Setting up inception_3a/pool_proj
I0403 16:13:46.283852 17425 net.cpp:148] Top shape: 24 32 28 28 (602112)
I0403 16:13:46.283871 17425 net.cpp:156] Memory required for data: 558760992
I0403 16:13:46.283900 17425 layer_factory.hpp:77] Creating layer inception_3a/relu_pool_proj
I0403 16:13:46.283924 17425 net.cpp:91] Creating Layer inception_3a/relu_pool_proj
I0403 16:13:46.283943 17425 net.cpp:425] inception_3a/relu_pool_proj <- inception_3a/pool_proj
I0403 16:13:46.283967 17425 net.cpp:386] inception_3a/relu_pool_proj -> inception_3a/pool_proj (in-place)
I0403 16:13:46.284291 17425 net.cpp:141] Setting up inception_3a/relu_pool_proj
I0403 16:13:46.284327 17425 net.cpp:148] Top shape: 24 32 28 28 (602112)
I0403 16:13:46.284348 17425 net.cpp:156] Memory required for data: 561169440
I0403 16:13:46.284366 17425 layer_factory.hpp:77] Creating layer inception_3a/output
I0403 16:13:46.284389 17425 net.cpp:91] Creating Layer inception_3a/output
I0403 16:13:46.284407 17425 net.cpp:425] inception_3a/output <- inception_3a/1x1
I0403 16:13:46.284426 17425 net.cpp:425] inception_3a/output <- inception_3a/3x3
I0403 16:13:46.284446 17425 net.cpp:425] inception_3a/output <- inception_3a/5x5
I0403 16:13:46.284463 17425 net.cpp:425] inception_3a/output <- inception_3a/pool_proj
I0403 16:13:46.284484 17425 net.cpp:399] inception_3a/output -> inception_3a/output
I0403 16:13:46.284543 17425 net.cpp:141] Setting up inception_3a/output
I0403 16:13:46.284582 17425 net.cpp:148] Top shape: 24 256 28 28 (4816896)
I0403 16:13:46.284605 17425 net.cpp:156] Memory required for data: 580437024
I0403 16:13:46.284621 17425 layer_factory.hpp:77] Creating layer inception_3a/output_inception_3a/output_0_split
I0403 16:13:46.284646 17425 net.cpp:91] Creating Layer inception_3a/output_inception_3a/output_0_split
I0403 16:13:46.284665 17425 net.cpp:425] inception_3a/output_inception_3a/output_0_split <- inception_3a/output
I0403 16:13:46.284687 17425 net.cpp:399] inception_3a/output_inception_3a/output_0_split -> inception_3a/output_inception_3a/output_0_split_0
I0403 16:13:46.284713 17425 net.cpp:399] inception_3a/output_inception_3a/output_0_split -> inception_3a/output_inception_3a/output_0_split_1
I0403 16:13:46.284742 17425 net.cpp:399] inception_3a/output_inception_3a/output_0_split -> inception_3a/output_inception_3a/output_0_split_2
I0403 16:13:46.284767 17425 net.cpp:399] inception_3a/output_inception_3a/output_0_split -> inception_3a/output_inception_3a/output_0_split_3
I0403 16:13:46.284857 17425 net.cpp:141] Setting up inception_3a/output_inception_3a/output_0_split
I0403 16:13:46.284884 17425 net.cpp:148] Top shape: 24 256 28 28 (4816896)
I0403 16:13:46.284909 17425 net.cpp:148] Top shape: 24 256 28 28 (4816896)
I0403 16:13:46.284929 17425 net.cpp:148] Top shape: 24 256 28 28 (4816896)
I0403 16:13:46.284945 17425 net.cpp:148] Top shape: 24 256 28 28 (4816896)
I0403 16:13:46.284962 17425 net.cpp:156] Memory required for data: 657507360
I0403 16:13:46.284979 17425 layer_factory.hpp:77] Creating layer inception_3b/1x1
I0403 16:13:46.285003 17425 net.cpp:91] Creating Layer inception_3b/1x1
I0403 16:13:46.285023 17425 net.cpp:425] inception_3b/1x1 <- inception_3a/output_inception_3a/output_0_split_0
I0403 16:13:46.285048 17425 net.cpp:399] inception_3b/1x1 -> inception_3b/1x1
I0403 16:13:46.286412 17425 net.cpp:141] Setting up inception_3b/1x1
I0403 16:13:46.286460 17425 net.cpp:148] Top shape: 24 128 28 28 (2408448)
I0403 16:13:46.286480 17425 net.cpp:156] Memory required for data: 667141152
I0403 16:13:46.286501 17425 layer_factory.hpp:77] Creating layer inception_3b/relu_1x1
I0403 16:13:46.286526 17425 net.cpp:91] Creating Layer inception_3b/relu_1x1
I0403 16:13:46.286546 17425 net.cpp:425] inception_3b/relu_1x1 <- inception_3b/1x1
I0403 16:13:46.286571 17425 net.cpp:386] inception_3b/relu_1x1 -> inception_3b/1x1 (in-place)
I0403 16:13:46.286790 17425 net.cpp:141] Setting up inception_3b/relu_1x1
I0403 16:13:46.286823 17425 net.cpp:148] Top shape: 24 128 28 28 (2408448)
I0403 16:13:46.286840 17425 net.cpp:156] Memory required for data: 676774944
I0403 16:13:46.286859 17425 layer_factory.hpp:77] Creating layer inception_3b/3x3_reduce
I0403 16:13:46.286886 17425 net.cpp:91] Creating Layer inception_3b/3x3_reduce
I0403 16:13:46.286908 17425 net.cpp:425] inception_3b/3x3_reduce <- inception_3a/output_inception_3a/output_0_split_1
I0403 16:13:46.286931 17425 net.cpp:399] inception_3b/3x3_reduce -> inception_3b/3x3_reduce
I0403 16:13:46.288293 17425 net.cpp:141] Setting up inception_3b/3x3_reduce
I0403 16:13:46.288328 17425 net.cpp:148] Top shape: 24 128 28 28 (2408448)
I0403 16:13:46.288348 17425 net.cpp:156] Memory required for data: 686408736
I0403 16:13:46.288370 17425 layer_factory.hpp:77] Creating layer inception_3b/relu_3x3_reduce
I0403 16:13:46.288398 17425 net.cpp:91] Creating Layer inception_3b/relu_3x3_reduce
I0403 16:13:46.288417 17425 net.cpp:425] inception_3b/relu_3x3_reduce <- inception_3b/3x3_reduce
I0403 16:13:46.288439 17425 net.cpp:386] inception_3b/relu_3x3_reduce -> inception_3b/3x3_reduce (in-place)
I0403 16:13:46.288652 17425 net.cpp:141] Setting up inception_3b/relu_3x3_reduce
I0403 16:13:46.288684 17425 net.cpp:148] Top shape: 24 128 28 28 (2408448)
I0403 16:13:46.288704 17425 net.cpp:156] Memory required for data: 696042528
I0403 16:13:46.288722 17425 layer_factory.hpp:77] Creating layer inception_3b/3x3
I0403 16:13:46.288751 17425 net.cpp:91] Creating Layer inception_3b/3x3
I0403 16:13:46.288774 17425 net.cpp:425] inception_3b/3x3 <- inception_3b/3x3_reduce
I0403 16:13:46.288800 17425 net.cpp:399] inception_3b/3x3 -> inception_3b/3x3
I0403 16:13:46.292318 17425 net.cpp:141] Setting up inception_3b/3x3
I0403 16:13:46.292356 17425 net.cpp:148] Top shape: 24 192 28 28 (3612672)
I0403 16:13:46.292376 17425 net.cpp:156] Memory required for data: 710493216
I0403 16:13:46.292398 17425 layer_factory.hpp:77] Creating layer inception_3b/relu_3x3
I0403 16:13:46.292420 17425 net.cpp:91] Creating Layer inception_3b/relu_3x3
I0403 16:13:46.292439 17425 net.cpp:425] inception_3b/relu_3x3 <- inception_3b/3x3
I0403 16:13:46.292464 17425 net.cpp:386] inception_3b/relu_3x3 -> inception_3b/3x3 (in-place)
I0403 16:13:46.292804 17425 net.cpp:141] Setting up inception_3b/relu_3x3
I0403 16:13:46.292839 17425 net.cpp:148] Top shape: 24 192 28 28 (3612672)
I0403 16:13:46.292858 17425 net.cpp:156] Memory required for data: 724943904
I0403 16:13:46.292876 17425 layer_factory.hpp:77] Creating layer inception_3b/5x5_reduce
I0403 16:13:46.292904 17425 net.cpp:91] Creating Layer inception_3b/5x5_reduce
I0403 16:13:46.292925 17425 net.cpp:425] inception_3b/5x5_reduce <- inception_3a/output_inception_3a/output_0_split_2
I0403 16:13:46.292949 17425 net.cpp:399] inception_3b/5x5_reduce -> inception_3b/5x5_reduce
I0403 16:13:46.294144 17425 net.cpp:141] Setting up inception_3b/5x5_reduce
I0403 16:13:46.294181 17425 net.cpp:148] Top shape: 24 32 28 28 (602112)
I0403 16:13:46.294203 17425 net.cpp:156] Memory required for data: 727352352
I0403 16:13:46.294224 17425 layer_factory.hpp:77] Creating layer inception_3b/relu_5x5_reduce
I0403 16:13:46.294245 17425 net.cpp:91] Creating Layer inception_3b/relu_5x5_reduce
I0403 16:13:46.294266 17425 net.cpp:425] inception_3b/relu_5x5_reduce <- inception_3b/5x5_reduce
I0403 16:13:46.294289 17425 net.cpp:386] inception_3b/relu_5x5_reduce -> inception_3b/5x5_reduce (in-place)
I0403 16:13:46.294518 17425 net.cpp:141] Setting up inception_3b/relu_5x5_reduce
I0403 16:13:46.294549 17425 net.cpp:148] Top shape: 24 32 28 28 (602112)
I0403 16:13:46.294579 17425 net.cpp:156] Memory required for data: 729760800
I0403 16:13:46.294600 17425 layer_factory.hpp:77] Creating layer inception_3b/5x5
I0403 16:13:46.294627 17425 net.cpp:91] Creating Layer inception_3b/5x5
I0403 16:13:46.294649 17425 net.cpp:425] inception_3b/5x5 <- inception_3b/5x5_reduce
I0403 16:13:46.294675 17425 net.cpp:399] inception_3b/5x5 -> inception_3b/5x5
I0403 16:13:46.297056 17425 net.cpp:141] Setting up inception_3b/5x5
I0403 16:13:46.297092 17425 net.cpp:148] Top shape: 24 96 28 28 (1806336)
I0403 16:13:46.297112 17425 net.cpp:156] Memory required for data: 736986144
I0403 16:13:46.297134 17425 layer_factory.hpp:77] Creating layer inception_3b/relu_5x5
I0403 16:13:46.297158 17425 net.cpp:91] Creating Layer inception_3b/relu_5x5
I0403 16:13:46.297178 17425 net.cpp:425] inception_3b/relu_5x5 <- inception_3b/5x5
I0403 16:13:46.297200 17425 net.cpp:386] inception_3b/relu_5x5 -> inception_3b/5x5 (in-place)
I0403 16:13:46.297431 17425 net.cpp:141] Setting up inception_3b/relu_5x5
I0403 16:13:46.297462 17425 net.cpp:148] Top shape: 24 96 28 28 (1806336)
I0403 16:13:46.297480 17425 net.cpp:156] Memory required for data: 744211488
I0403 16:13:46.297497 17425 layer_factory.hpp:77] Creating layer inception_3b/pool
I0403 16:13:46.297519 17425 net.cpp:91] Creating Layer inception_3b/pool
I0403 16:13:46.297538 17425 net.cpp:425] inception_3b/pool <- inception_3a/output_inception_3a/output_0_split_3
I0403 16:13:46.297560 17425 net.cpp:399] inception_3b/pool -> inception_3b/pool
I0403 16:13:46.297634 17425 net.cpp:141] Setting up inception_3b/pool
I0403 16:13:46.297663 17425 net.cpp:148] Top shape: 24 256 28 28 (4816896)
I0403 16:13:46.297682 17425 net.cpp:156] Memory required for data: 763479072
I0403 16:13:46.297699 17425 layer_factory.hpp:77] Creating layer inception_3b/pool_proj
I0403 16:13:46.297726 17425 net.cpp:91] Creating Layer inception_3b/pool_proj
I0403 16:13:46.297749 17425 net.cpp:425] inception_3b/pool_proj <- inception_3b/pool
I0403 16:13:46.297773 17425 net.cpp:399] inception_3b/pool_proj -> inception_3b/pool_proj
I0403 16:13:46.299038 17425 net.cpp:141] Setting up inception_3b/pool_proj
I0403 16:13:46.299072 17425 net.cpp:148] Top shape: 24 64 28 28 (1204224)
I0403 16:13:46.299091 17425 net.cpp:156] Memory required for data: 768295968
I0403 16:13:46.299113 17425 layer_factory.hpp:77] Creating layer inception_3b/relu_pool_proj
I0403 16:13:46.299134 17425 net.cpp:91] Creating Layer inception_3b/relu_pool_proj
I0403 16:13:46.299154 17425 net.cpp:425] inception_3b/relu_pool_proj <- inception_3b/pool_proj
I0403 16:13:46.299176 17425 net.cpp:386] inception_3b/relu_pool_proj -> inception_3b/pool_proj (in-place)
I0403 16:13:46.299643 17425 net.cpp:141] Setting up inception_3b/relu_pool_proj
I0403 16:13:46.299679 17425 net.cpp:148] Top shape: 24 64 28 28 (1204224)
I0403 16:13:46.299700 17425 net.cpp:156] Memory required for data: 773112864
I0403 16:13:46.299717 17425 layer_factory.hpp:77] Creating layer inception_3b/output
I0403 16:13:46.299739 17425 net.cpp:91] Creating Layer inception_3b/output
I0403 16:13:46.299757 17425 net.cpp:425] inception_3b/output <- inception_3b/1x1
I0403 16:13:46.299777 17425 net.cpp:425] inception_3b/output <- inception_3b/3x3
I0403 16:13:46.299798 17425 net.cpp:425] inception_3b/output <- inception_3b/5x5
I0403 16:13:46.299816 17425 net.cpp:425] inception_3b/output <- inception_3b/pool_proj
I0403 16:13:46.299840 17425 net.cpp:399] inception_3b/output -> inception_3b/output
I0403 16:13:46.299893 17425 net.cpp:141] Setting up inception_3b/output
I0403 16:13:46.299921 17425 net.cpp:148] Top shape: 24 480 28 28 (9031680)
I0403 16:13:46.299937 17425 net.cpp:156] Memory required for data: 809239584
I0403 16:13:46.299954 17425 layer_factory.hpp:77] Creating layer pool3/3x3_s2
I0403 16:13:46.299978 17425 net.cpp:91] Creating Layer pool3/3x3_s2
I0403 16:13:46.299998 17425 net.cpp:425] pool3/3x3_s2 <- inception_3b/output
I0403 16:13:46.300040 17425 net.cpp:399] pool3/3x3_s2 -> pool3/3x3_s2
I0403 16:13:46.300112 17425 net.cpp:141] Setting up pool3/3x3_s2
I0403 16:13:46.300140 17425 net.cpp:148] Top shape: 24 480 14 14 (2257920)
I0403 16:13:46.300156 17425 net.cpp:156] Memory required for data: 818271264
I0403 16:13:46.300174 17425 layer_factory.hpp:77] Creating layer pool3/3x3_s2_pool3/3x3_s2_0_split
I0403 16:13:46.300199 17425 net.cpp:91] Creating Layer pool3/3x3_s2_pool3/3x3_s2_0_split
I0403 16:13:46.300216 17425 net.cpp:425] pool3/3x3_s2_pool3/3x3_s2_0_split <- pool3/3x3_s2
I0403 16:13:46.300238 17425 net.cpp:399] pool3/3x3_s2_pool3/3x3_s2_0_split -> pool3/3x3_s2_pool3/3x3_s2_0_split_0
I0403 16:13:46.300262 17425 net.cpp:399] pool3/3x3_s2_pool3/3x3_s2_0_split -> pool3/3x3_s2_pool3/3x3_s2_0_split_1
I0403 16:13:46.300287 17425 net.cpp:399] pool3/3x3_s2_pool3/3x3_s2_0_split -> pool3/3x3_s2_pool3/3x3_s2_0_split_2
I0403 16:13:46.300309 17425 net.cpp:399] pool3/3x3_s2_pool3/3x3_s2_0_split -> pool3/3x3_s2_pool3/3x3_s2_0_split_3
I0403 16:13:46.300402 17425 net.cpp:141] Setting up pool3/3x3_s2_pool3/3x3_s2_0_split
I0403 16:13:46.300431 17425 net.cpp:148] Top shape: 24 480 14 14 (2257920)
I0403 16:13:46.300449 17425 net.cpp:148] Top shape: 24 480 14 14 (2257920)
I0403 16:13:46.300467 17425 net.cpp:148] Top shape: 24 480 14 14 (2257920)
I0403 16:13:46.300487 17425 net.cpp:148] Top shape: 24 480 14 14 (2257920)
I0403 16:13:46.300503 17425 net.cpp:156] Memory required for data: 854397984
I0403 16:13:46.300521 17425 layer_factory.hpp:77] Creating layer inception_4a/1x1
I0403 16:13:46.300547 17425 net.cpp:91] Creating Layer inception_4a/1x1
I0403 16:13:46.300572 17425 net.cpp:425] inception_4a/1x1 <- pool3/3x3_s2_pool3/3x3_s2_0_split_0
I0403 16:13:46.300601 17425 net.cpp:399] inception_4a/1x1 -> inception_4a/1x1
I0403 16:13:46.302500 17425 net.cpp:141] Setting up inception_4a/1x1
I0403 16:13:46.302534 17425 net.cpp:148] Top shape: 24 192 14 14 (903168)
I0403 16:13:46.302553 17425 net.cpp:156] Memory required for data: 858010656
I0403 16:13:46.302582 17425 layer_factory.hpp:77] Creating layer inception_4a/relu_1x1
I0403 16:13:46.302606 17425 net.cpp:91] Creating Layer inception_4a/relu_1x1
I0403 16:13:46.302626 17425 net.cpp:425] inception_4a/relu_1x1 <- inception_4a/1x1
I0403 16:13:46.302647 17425 net.cpp:386] inception_4a/relu_1x1 -> inception_4a/1x1 (in-place)
I0403 16:13:46.302860 17425 net.cpp:141] Setting up inception_4a/relu_1x1
I0403 16:13:46.302891 17425 net.cpp:148] Top shape: 24 192 14 14 (903168)
I0403 16:13:46.302911 17425 net.cpp:156] Memory required for data: 861623328
I0403 16:13:46.302930 17425 layer_factory.hpp:77] Creating layer inception_4a/3x3_reduce
I0403 16:13:46.302955 17425 net.cpp:91] Creating Layer inception_4a/3x3_reduce
I0403 16:13:46.302975 17425 net.cpp:425] inception_4a/3x3_reduce <- pool3/3x3_s2_pool3/3x3_s2_0_split_1
I0403 16:13:46.303000 17425 net.cpp:399] inception_4a/3x3_reduce -> inception_4a/3x3_reduce
I0403 16:13:46.304533 17425 net.cpp:141] Setting up inception_4a/3x3_reduce
I0403 16:13:46.304565 17425 net.cpp:148] Top shape: 24 96 14 14 (451584)
I0403 16:13:46.304600 17425 net.cpp:156] Memory required for data: 863429664
I0403 16:13:46.304636 17425 layer_factory.hpp:77] Creating layer inception_4a/relu_3x3_reduce
I0403 16:13:46.304661 17425 net.cpp:91] Creating Layer inception_4a/relu_3x3_reduce
I0403 16:13:46.304680 17425 net.cpp:425] inception_4a/relu_3x3_reduce <- inception_4a/3x3_reduce
I0403 16:13:46.304704 17425 net.cpp:386] inception_4a/relu_3x3_reduce -> inception_4a/3x3_reduce (in-place)
I0403 16:13:46.304915 17425 net.cpp:141] Setting up inception_4a/relu_3x3_reduce
I0403 16:13:46.304945 17425 net.cpp:148] Top shape: 24 96 14 14 (451584)
I0403 16:13:46.304963 17425 net.cpp:156] Memory required for data: 865236000
I0403 16:13:46.304982 17425 layer_factory.hpp:77] Creating layer inception_4a/3x3
I0403 16:13:46.305008 17425 net.cpp:91] Creating Layer inception_4a/3x3
I0403 16:13:46.305029 17425 net.cpp:425] inception_4a/3x3 <- inception_4a/3x3_reduce
I0403 16:13:46.305054 17425 net.cpp:399] inception_4a/3x3 -> inception_4a/3x3
I0403 16:13:46.308295 17425 net.cpp:141] Setting up inception_4a/3x3
I0403 16:13:46.308331 17425 net.cpp:148] Top shape: 24 208 14 14 (978432)
I0403 16:13:46.308349 17425 net.cpp:156] Memory required for data: 869149728
I0403 16:13:46.308372 17425 layer_factory.hpp:77] Creating layer inception_4a/relu_3x3
I0403 16:13:46.308396 17425 net.cpp:91] Creating Layer inception_4a/relu_3x3
I0403 16:13:46.308416 17425 net.cpp:425] inception_4a/relu_3x3 <- inception_4a/3x3
I0403 16:13:46.308439 17425 net.cpp:386] inception_4a/relu_3x3 -> inception_4a/3x3 (in-place)
I0403 16:13:46.308784 17425 net.cpp:141] Setting up inception_4a/relu_3x3
I0403 16:13:46.308815 17425 net.cpp:148] Top shape: 24 208 14 14 (978432)
I0403 16:13:46.308835 17425 net.cpp:156] Memory required for data: 873063456
I0403 16:13:46.308851 17425 layer_factory.hpp:77] Creating layer inception_4a/5x5_reduce
I0403 16:13:46.308878 17425 net.cpp:91] Creating Layer inception_4a/5x5_reduce
I0403 16:13:46.308902 17425 net.cpp:425] inception_4a/5x5_reduce <- pool3/3x3_s2_pool3/3x3_s2_0_split_2
I0403 16:13:46.308928 17425 net.cpp:399] inception_4a/5x5_reduce -> inception_4a/5x5_reduce
I0403 16:13:46.310164 17425 net.cpp:141] Setting up inception_4a/5x5_reduce
I0403 16:13:46.310197 17425 net.cpp:148] Top shape: 24 16 14 14 (75264)
I0403 16:13:46.310217 17425 net.cpp:156] Memory required for data: 873364512
I0403 16:13:46.310238 17425 layer_factory.hpp:77] Creating layer inception_4a/relu_5x5_reduce
I0403 16:13:46.310263 17425 net.cpp:91] Creating Layer inception_4a/relu_5x5_reduce
I0403 16:13:46.310283 17425 net.cpp:425] inception_4a/relu_5x5_reduce <- inception_4a/5x5_reduce
I0403 16:13:46.310313 17425 net.cpp:386] inception_4a/relu_5x5_reduce -> inception_4a/5x5_reduce (in-place)
I0403 16:13:46.310528 17425 net.cpp:141] Setting up inception_4a/relu_5x5_reduce
I0403 16:13:46.310559 17425 net.cpp:148] Top shape: 24 16 14 14 (75264)
I0403 16:13:46.310582 17425 net.cpp:156] Memory required for data: 873665568
I0403 16:13:46.310608 17425 layer_factory.hpp:77] Creating layer inception_4a/5x5
I0403 16:13:46.310636 17425 net.cpp:91] Creating Layer inception_4a/5x5
I0403 16:13:46.310655 17425 net.cpp:425] inception_4a/5x5 <- inception_4a/5x5_reduce
I0403 16:13:46.310681 17425 net.cpp:399] inception_4a/5x5 -> inception_4a/5x5
I0403 16:13:46.311990 17425 net.cpp:141] Setting up inception_4a/5x5
I0403 16:13:46.312026 17425 net.cpp:148] Top shape: 24 48 14 14 (225792)
I0403 16:13:46.312044 17425 net.cpp:156] Memory required for data: 874568736
I0403 16:13:46.312067 17425 layer_factory.hpp:77] Creating layer inception_4a/relu_5x5
I0403 16:13:46.312088 17425 net.cpp:91] Creating Layer inception_4a/relu_5x5
I0403 16:13:46.312108 17425 net.cpp:425] inception_4a/relu_5x5 <- inception_4a/5x5
I0403 16:13:46.312132 17425 net.cpp:386] inception_4a/relu_5x5 -> inception_4a/5x5 (in-place)
I0403 16:13:46.312348 17425 net.cpp:141] Setting up inception_4a/relu_5x5
I0403 16:13:46.312378 17425 net.cpp:148] Top shape: 24 48 14 14 (225792)
I0403 16:13:46.312396 17425 net.cpp:156] Memory required for data: 875471904
I0403 16:13:46.312413 17425 layer_factory.hpp:77] Creating layer inception_4a/pool
I0403 16:13:46.312438 17425 net.cpp:91] Creating Layer inception_4a/pool
I0403 16:13:46.312458 17425 net.cpp:425] inception_4a/pool <- pool3/3x3_s2_pool3/3x3_s2_0_split_3
I0403 16:13:46.312479 17425 net.cpp:399] inception_4a/pool -> inception_4a/pool
I0403 16:13:46.312558 17425 net.cpp:141] Setting up inception_4a/pool
I0403 16:13:46.312592 17425 net.cpp:148] Top shape: 24 480 14 14 (2257920)
I0403 16:13:46.312610 17425 net.cpp:156] Memory required for data: 884503584
I0403 16:13:46.312628 17425 layer_factory.hpp:77] Creating layer inception_4a/pool_proj
I0403 16:13:46.312655 17425 net.cpp:91] Creating Layer inception_4a/pool_proj
I0403 16:13:46.312676 17425 net.cpp:425] inception_4a/pool_proj <- inception_4a/pool
I0403 16:13:46.312702 17425 net.cpp:399] inception_4a/pool_proj -> inception_4a/pool_proj
I0403 16:13:46.314100 17425 net.cpp:141] Setting up inception_4a/pool_proj
I0403 16:13:46.314134 17425 net.cpp:148] Top shape: 24 64 14 14 (301056)
I0403 16:13:46.314172 17425 net.cpp:156] Memory required for data: 885707808
I0403 16:13:46.314196 17425 layer_factory.hpp:77] Creating layer inception_4a/relu_pool_proj
I0403 16:13:46.314221 17425 net.cpp:91] Creating Layer inception_4a/relu_pool_proj
I0403 16:13:46.314241 17425 net.cpp:425] inception_4a/relu_pool_proj <- inception_4a/pool_proj
I0403 16:13:46.314263 17425 net.cpp:386] inception_4a/relu_pool_proj -> inception_4a/pool_proj (in-place)
I0403 16:13:46.314610 17425 net.cpp:141] Setting up inception_4a/relu_pool_proj
I0403 16:13:46.314642 17425 net.cpp:148] Top shape: 24 64 14 14 (301056)
I0403 16:13:46.314661 17425 net.cpp:156] Memory required for data: 886912032
I0403 16:13:46.314680 17425 layer_factory.hpp:77] Creating layer inception_4a/output
I0403 16:13:46.314702 17425 net.cpp:91] Creating Layer inception_4a/output
I0403 16:13:46.314720 17425 net.cpp:425] inception_4a/output <- inception_4a/1x1
I0403 16:13:46.314739 17425 net.cpp:425] inception_4a/output <- inception_4a/3x3
I0403 16:13:46.314759 17425 net.cpp:425] inception_4a/output <- inception_4a/5x5
I0403 16:13:46.314779 17425 net.cpp:425] inception_4a/output <- inception_4a/pool_proj
I0403 16:13:46.314800 17425 net.cpp:399] inception_4a/output -> inception_4a/output
I0403 16:13:46.314856 17425 net.cpp:141] Setting up inception_4a/output
I0403 16:13:46.314887 17425 net.cpp:148] Top shape: 24 512 14 14 (2408448)
I0403 16:13:46.314905 17425 net.cpp:156] Memory required for data: 896545824
I0403 16:13:46.314923 17425 layer_factory.hpp:77] Creating layer inception_4a/output_inception_4a/output_0_split
I0403 16:13:46.314944 17425 net.cpp:91] Creating Layer inception_4a/output_inception_4a/output_0_split
I0403 16:13:46.314963 17425 net.cpp:425] inception_4a/output_inception_4a/output_0_split <- inception_4a/output
I0403 16:13:46.314986 17425 net.cpp:399] inception_4a/output_inception_4a/output_0_split -> inception_4a/output_inception_4a/output_0_split_0
I0403 16:13:46.315012 17425 net.cpp:399] inception_4a/output_inception_4a/output_0_split -> inception_4a/output_inception_4a/output_0_split_1
I0403 16:13:46.315037 17425 net.cpp:399] inception_4a/output_inception_4a/output_0_split -> inception_4a/output_inception_4a/output_0_split_2
I0403 16:13:46.315062 17425 net.cpp:399] inception_4a/output_inception_4a/output_0_split -> inception_4a/output_inception_4a/output_0_split_3
I0403 16:13:46.315086 17425 net.cpp:399] inception_4a/output_inception_4a/output_0_split -> inception_4a/output_inception_4a/output_0_split_4
I0403 16:13:46.315197 17425 net.cpp:141] Setting up inception_4a/output_inception_4a/output_0_split
I0403 16:13:46.315225 17425 net.cpp:148] Top shape: 24 512 14 14 (2408448)
I0403 16:13:46.315248 17425 net.cpp:148] Top shape: 24 512 14 14 (2408448)
I0403 16:13:46.315269 17425 net.cpp:148] Top shape: 24 512 14 14 (2408448)
I0403 16:13:46.315287 17425 net.cpp:148] Top shape: 24 512 14 14 (2408448)
I0403 16:13:46.315305 17425 net.cpp:148] Top shape: 24 512 14 14 (2408448)
I0403 16:13:46.315322 17425 net.cpp:156] Memory required for data: 944714784
I0403 16:13:46.315340 17425 layer_factory.hpp:77] Creating layer loss1/ave_pool
I0403 16:13:46.315361 17425 net.cpp:91] Creating Layer loss1/ave_pool
I0403 16:13:46.315378 17425 net.cpp:425] loss1/ave_pool <- inception_4a/output_inception_4a/output_0_split_0
I0403 16:13:46.315402 17425 net.cpp:399] loss1/ave_pool -> loss1/ave_pool
I0403 16:13:46.315654 17425 net.cpp:141] Setting up loss1/ave_pool
I0403 16:13:46.315685 17425 net.cpp:148] Top shape: 24 512 4 4 (196608)
I0403 16:13:46.315702 17425 net.cpp:156] Memory required for data: 945501216
I0403 16:13:46.315721 17425 layer_factory.hpp:77] Creating layer loss1/conv
I0403 16:13:46.315747 17425 net.cpp:91] Creating Layer loss1/conv
I0403 16:13:46.315767 17425 net.cpp:425] loss1/conv <- loss1/ave_pool
I0403 16:13:46.315793 17425 net.cpp:399] loss1/conv -> loss1/conv
I0403 16:13:46.317487 17425 net.cpp:141] Setting up loss1/conv
I0403 16:13:46.317520 17425 net.cpp:148] Top shape: 24 128 4 4 (49152)
I0403 16:13:46.317558 17425 net.cpp:156] Memory required for data: 945697824
I0403 16:13:46.317587 17425 layer_factory.hpp:77] Creating layer loss1/relu_conv
I0403 16:13:46.317613 17425 net.cpp:91] Creating Layer loss1/relu_conv
I0403 16:13:46.317634 17425 net.cpp:425] loss1/relu_conv <- loss1/conv
I0403 16:13:46.317656 17425 net.cpp:386] loss1/relu_conv -> loss1/conv (in-place)
I0403 16:13:46.317989 17425 net.cpp:141] Setting up loss1/relu_conv
I0403 16:13:46.318022 17425 net.cpp:148] Top shape: 24 128 4 4 (49152)
I0403 16:13:46.318042 17425 net.cpp:156] Memory required for data: 945894432
I0403 16:13:46.318059 17425 layer_factory.hpp:77] Creating layer loss1/fc
I0403 16:13:46.318090 17425 net.cpp:91] Creating Layer loss1/fc
I0403 16:13:46.318112 17425 net.cpp:425] loss1/fc <- loss1/conv
I0403 16:13:46.318137 17425 net.cpp:399] loss1/fc -> loss1/fc
I0403 16:13:46.340075 17425 net.cpp:141] Setting up loss1/fc
I0403 16:13:46.340113 17425 net.cpp:148] Top shape: 24 1024 (24576)
I0403 16:13:46.340132 17425 net.cpp:156] Memory required for data: 945992736
I0403 16:13:46.340154 17425 layer_factory.hpp:77] Creating layer loss1/relu_fc
I0403 16:13:46.340178 17425 net.cpp:91] Creating Layer loss1/relu_fc
I0403 16:13:46.340198 17425 net.cpp:425] loss1/relu_fc <- loss1/fc
I0403 16:13:46.340221 17425 net.cpp:386] loss1/relu_fc -> loss1/fc (in-place)
I0403 16:13:46.340442 17425 net.cpp:141] Setting up loss1/relu_fc
I0403 16:13:46.340476 17425 net.cpp:148] Top shape: 24 1024 (24576)
I0403 16:13:46.340494 17425 net.cpp:156] Memory required for data: 946091040
I0403 16:13:46.340512 17425 layer_factory.hpp:77] Creating layer loss1/drop_fc
I0403 16:13:46.340543 17425 net.cpp:91] Creating Layer loss1/drop_fc
I0403 16:13:46.340564 17425 net.cpp:425] loss1/drop_fc <- loss1/fc
I0403 16:13:46.340590 17425 net.cpp:386] loss1/drop_fc -> loss1/fc (in-place)
I0403 16:13:46.340656 17425 net.cpp:141] Setting up loss1/drop_fc
I0403 16:13:46.340684 17425 net.cpp:148] Top shape: 24 1024 (24576)
I0403 16:13:46.340703 17425 net.cpp:156] Memory required for data: 946189344
I0403 16:13:46.340720 17425 layer_factory.hpp:77] Creating layer loss1/classifier_plantvillage
I0403 16:13:46.340744 17425 net.cpp:91] Creating Layer loss1/classifier_plantvillage
I0403 16:13:46.340761 17425 net.cpp:425] loss1/classifier_plantvillage <- loss1/fc
I0403 16:13:46.340787 17425 net.cpp:399] loss1/classifier_plantvillage -> loss1/classifier_plantvillage
I0403 16:13:46.341900 17425 net.cpp:141] Setting up loss1/classifier_plantvillage
I0403 16:13:46.341933 17425 net.cpp:148] Top shape: 24 38 (912)
I0403 16:13:46.341953 17425 net.cpp:156] Memory required for data: 946192992
I0403 16:13:46.341974 17425 layer_factory.hpp:77] Creating layer loss1/classifier_plantvillage_loss1/classifier_plantvillage_0_split
I0403 16:13:46.342000 17425 net.cpp:91] Creating Layer loss1/classifier_plantvillage_loss1/classifier_plantvillage_0_split
I0403 16:13:46.342020 17425 net.cpp:425] loss1/classifier_plantvillage_loss1/classifier_plantvillage_0_split <- loss1/classifier_plantvillage
I0403 16:13:46.342041 17425 net.cpp:399] loss1/classifier_plantvillage_loss1/classifier_plantvillage_0_split -> loss1/classifier_plantvillage_loss1/classifier_plantvillage_0_split_0
I0403 16:13:46.342066 17425 net.cpp:399] loss1/classifier_plantvillage_loss1/classifier_plantvillage_0_split -> loss1/classifier_plantvillage_loss1/classifier_plantvillage_0_split_1
I0403 16:13:46.342090 17425 net.cpp:399] loss1/classifier_plantvillage_loss1/classifier_plantvillage_0_split -> loss1/classifier_plantvillage_loss1/classifier_plantvillage_0_split_2
I0403 16:13:46.342173 17425 net.cpp:141] Setting up loss1/classifier_plantvillage_loss1/classifier_plantvillage_0_split
I0403 16:13:46.342202 17425 net.cpp:148] Top shape: 24 38 (912)
I0403 16:13:46.342221 17425 net.cpp:148] Top shape: 24 38 (912)
I0403 16:13:46.342241 17425 net.cpp:148] Top shape: 24 38 (912)
I0403 16:13:46.342257 17425 net.cpp:156] Memory required for data: 946203936
I0403 16:13:46.342274 17425 layer_factory.hpp:77] Creating layer inception_4b/1x1
I0403 16:13:46.342300 17425 net.cpp:91] Creating Layer inception_4b/1x1
I0403 16:13:46.342340 17425 net.cpp:425] inception_4b/1x1 <- inception_4a/output_inception_4a/output_0_split_1
I0403 16:13:46.342365 17425 net.cpp:399] inception_4b/1x1 -> inception_4b/1x1
I0403 16:13:46.344334 17425 net.cpp:141] Setting up inception_4b/1x1
I0403 16:13:46.344369 17425 net.cpp:148] Top shape: 24 160 14 14 (752640)
I0403 16:13:46.344388 17425 net.cpp:156] Memory required for data: 949214496
I0403 16:13:46.344409 17425 layer_factory.hpp:77] Creating layer inception_4b/relu_1x1
I0403 16:13:46.344434 17425 net.cpp:91] Creating Layer inception_4b/relu_1x1
I0403 16:13:46.344456 17425 net.cpp:425] inception_4b/relu_1x1 <- inception_4b/1x1
I0403 16:13:46.344477 17425 net.cpp:386] inception_4b/relu_1x1 -> inception_4b/1x1 (in-place)
I0403 16:13:46.344708 17425 net.cpp:141] Setting up inception_4b/relu_1x1
I0403 16:13:46.344740 17425 net.cpp:148] Top shape: 24 160 14 14 (752640)
I0403 16:13:46.344758 17425 net.cpp:156] Memory required for data: 952225056
I0403 16:13:46.344775 17425 layer_factory.hpp:77] Creating layer inception_4b/3x3_reduce
I0403 16:13:46.344805 17425 net.cpp:91] Creating Layer inception_4b/3x3_reduce
I0403 16:13:46.344826 17425 net.cpp:425] inception_4b/3x3_reduce <- inception_4a/output_inception_4a/output_0_split_2
I0403 16:13:46.344852 17425 net.cpp:399] inception_4b/3x3_reduce -> inception_4b/3x3_reduce
I0403 16:13:46.346487 17425 net.cpp:141] Setting up inception_4b/3x3_reduce
I0403 16:13:46.346519 17425 net.cpp:148] Top shape: 24 112 14 14 (526848)
I0403 16:13:46.346539 17425 net.cpp:156] Memory required for data: 954332448
I0403 16:13:46.346560 17425 layer_factory.hpp:77] Creating layer inception_4b/relu_3x3_reduce
I0403 16:13:46.346588 17425 net.cpp:91] Creating Layer inception_4b/relu_3x3_reduce
I0403 16:13:46.346609 17425 net.cpp:425] inception_4b/relu_3x3_reduce <- inception_4b/3x3_reduce
I0403 16:13:46.346637 17425 net.cpp:386] inception_4b/relu_3x3_reduce -> inception_4b/3x3_reduce (in-place)
I0403 16:13:46.346979 17425 net.cpp:141] Setting up inception_4b/relu_3x3_reduce
I0403 16:13:46.347012 17425 net.cpp:148] Top shape: 24 112 14 14 (526848)
I0403 16:13:46.347029 17425 net.cpp:156] Memory required for data: 956439840
I0403 16:13:46.347048 17425 layer_factory.hpp:77] Creating layer inception_4b/3x3
I0403 16:13:46.347076 17425 net.cpp:91] Creating Layer inception_4b/3x3
I0403 16:13:46.347098 17425 net.cpp:425] inception_4b/3x3 <- inception_4b/3x3_reduce
I0403 16:13:46.347123 17425 net.cpp:399] inception_4b/3x3 -> inception_4b/3x3
I0403 16:13:46.350744 17425 net.cpp:141] Setting up inception_4b/3x3
I0403 16:13:46.350780 17425 net.cpp:148] Top shape: 24 224 14 14 (1053696)
I0403 16:13:46.350798 17425 net.cpp:156] Memory required for data: 960654624
I0403 16:13:46.350828 17425 layer_factory.hpp:77] Creating layer inception_4b/relu_3x3
I0403 16:13:46.350852 17425 net.cpp:91] Creating Layer inception_4b/relu_3x3
I0403 16:13:46.350872 17425 net.cpp:425] inception_4b/relu_3x3 <- inception_4b/3x3
I0403 16:13:46.350893 17425 net.cpp:386] inception_4b/relu_3x3 -> inception_4b/3x3 (in-place)
I0403 16:13:46.351114 17425 net.cpp:141] Setting up inception_4b/relu_3x3
I0403 16:13:46.351151 17425 net.cpp:148] Top shape: 24 224 14 14 (1053696)
I0403 16:13:46.351169 17425 net.cpp:156] Memory required for data: 964869408
I0403 16:13:46.351187 17425 layer_factory.hpp:77] Creating layer inception_4b/5x5_reduce
I0403 16:13:46.351212 17425 net.cpp:91] Creating Layer inception_4b/5x5_reduce
I0403 16:13:46.351233 17425 net.cpp:425] inception_4b/5x5_reduce <- inception_4a/output_inception_4a/output_0_split_3
I0403 16:13:46.351258 17425 net.cpp:399] inception_4b/5x5_reduce -> inception_4b/5x5_reduce
I0403 16:13:46.352579 17425 net.cpp:141] Setting up inception_4b/5x5_reduce
I0403 16:13:46.352617 17425 net.cpp:148] Top shape: 24 24 14 14 (112896)
I0403 16:13:46.352638 17425 net.cpp:156] Memory required for data: 965320992
I0403 16:13:46.352660 17425 layer_factory.hpp:77] Creating layer inception_4b/relu_5x5_reduce
I0403 16:13:46.352682 17425 net.cpp:91] Creating Layer inception_4b/relu_5x5_reduce
I0403 16:13:46.352720 17425 net.cpp:425] inception_4b/relu_5x5_reduce <- inception_4b/5x5_reduce
I0403 16:13:46.352742 17425 net.cpp:386] inception_4b/relu_5x5_reduce -> inception_4b/5x5_reduce (in-place)
I0403 16:13:46.352970 17425 net.cpp:141] Setting up inception_4b/relu_5x5_reduce
I0403 16:13:46.353000 17425 net.cpp:148] Top shape: 24 24 14 14 (112896)
I0403 16:13:46.353018 17425 net.cpp:156] Memory required for data: 965772576
I0403 16:13:46.353034 17425 layer_factory.hpp:77] Creating layer inception_4b/5x5
I0403 16:13:46.353061 17425 net.cpp:91] Creating Layer inception_4b/5x5
I0403 16:13:46.353082 17425 net.cpp:425] inception_4b/5x5 <- inception_4b/5x5_reduce
I0403 16:13:46.353107 17425 net.cpp:399] inception_4b/5x5 -> inception_4b/5x5
I0403 16:13:46.354624 17425 net.cpp:141] Setting up inception_4b/5x5
I0403 16:13:46.354660 17425 net.cpp:148] Top shape: 24 64 14 14 (301056)
I0403 16:13:46.354678 17425 net.cpp:156] Memory required for data: 966976800
I0403 16:13:46.354699 17425 layer_factory.hpp:77] Creating layer inception_4b/relu_5x5
I0403 16:13:46.354723 17425 net.cpp:91] Creating Layer inception_4b/relu_5x5
I0403 16:13:46.354743 17425 net.cpp:425] inception_4b/relu_5x5 <- inception_4b/5x5
I0403 16:13:46.354764 17425 net.cpp:386] inception_4b/relu_5x5 -> inception_4b/5x5 (in-place)
I0403 16:13:46.355113 17425 net.cpp:141] Setting up inception_4b/relu_5x5
I0403 16:13:46.355144 17425 net.cpp:148] Top shape: 24 64 14 14 (301056)
I0403 16:13:46.355162 17425 net.cpp:156] Memory required for data: 968181024
I0403 16:13:46.355181 17425 layer_factory.hpp:77] Creating layer inception_4b/pool
I0403 16:13:46.355206 17425 net.cpp:91] Creating Layer inception_4b/pool
I0403 16:13:46.355226 17425 net.cpp:425] inception_4b/pool <- inception_4a/output_inception_4a/output_0_split_4
I0403 16:13:46.355247 17425 net.cpp:399] inception_4b/pool -> inception_4b/pool
I0403 16:13:46.355332 17425 net.cpp:141] Setting up inception_4b/pool
I0403 16:13:46.355361 17425 net.cpp:148] Top shape: 24 512 14 14 (2408448)
I0403 16:13:46.355379 17425 net.cpp:156] Memory required for data: 977814816
I0403 16:13:46.355396 17425 layer_factory.hpp:77] Creating layer inception_4b/pool_proj
I0403 16:13:46.355424 17425 net.cpp:91] Creating Layer inception_4b/pool_proj
I0403 16:13:46.355444 17425 net.cpp:425] inception_4b/pool_proj <- inception_4b/pool
I0403 16:13:46.355469 17425 net.cpp:399] inception_4b/pool_proj -> inception_4b/pool_proj
I0403 16:13:46.356945 17425 net.cpp:141] Setting up inception_4b/pool_proj
I0403 16:13:46.356982 17425 net.cpp:148] Top shape: 24 64 14 14 (301056)
I0403 16:13:46.357002 17425 net.cpp:156] Memory required for data: 979019040
I0403 16:13:46.357024 17425 layer_factory.hpp:77] Creating layer inception_4b/relu_pool_proj
I0403 16:13:46.357048 17425 net.cpp:91] Creating Layer inception_4b/relu_pool_proj
I0403 16:13:46.357066 17425 net.cpp:425] inception_4b/relu_pool_proj <- inception_4b/pool_proj
I0403 16:13:46.357089 17425 net.cpp:386] inception_4b/relu_pool_proj -> inception_4b/pool_proj (in-place)
I0403 16:13:46.357308 17425 net.cpp:141] Setting up inception_4b/relu_pool_proj
I0403 16:13:46.357339 17425 net.cpp:148] Top shape: 24 64 14 14 (301056)
I0403 16:13:46.357357 17425 net.cpp:156] Memory required for data: 980223264
I0403 16:13:46.357374 17425 layer_factory.hpp:77] Creating layer inception_4b/output
I0403 16:13:46.357395 17425 net.cpp:91] Creating Layer inception_4b/output
I0403 16:13:46.357414 17425 net.cpp:425] inception_4b/output <- inception_4b/1x1
I0403 16:13:46.357432 17425 net.cpp:425] inception_4b/output <- inception_4b/3x3
I0403 16:13:46.357451 17425 net.cpp:425] inception_4b/output <- inception_4b/5x5
I0403 16:13:46.357470 17425 net.cpp:425] inception_4b/output <- inception_4b/pool_proj
I0403 16:13:46.357494 17425 net.cpp:399] inception_4b/output -> inception_4b/output
I0403 16:13:46.357550 17425 net.cpp:141] Setting up inception_4b/output
I0403 16:13:46.357588 17425 net.cpp:148] Top shape: 24 512 14 14 (2408448)
I0403 16:13:46.357607 17425 net.cpp:156] Memory required for data: 989857056
I0403 16:13:46.357643 17425 layer_factory.hpp:77] Creating layer inception_4b/output_inception_4b/output_0_split
I0403 16:13:46.357666 17425 net.cpp:91] Creating Layer inception_4b/output_inception_4b/output_0_split
I0403 16:13:46.357684 17425 net.cpp:425] inception_4b/output_inception_4b/output_0_split <- inception_4b/output
I0403 16:13:46.357704 17425 net.cpp:399] inception_4b/output_inception_4b/output_0_split -> inception_4b/output_inception_4b/output_0_split_0
I0403 16:13:46.357733 17425 net.cpp:399] inception_4b/output_inception_4b/output_0_split -> inception_4b/output_inception_4b/output_0_split_1
I0403 16:13:46.357758 17425 net.cpp:399] inception_4b/output_inception_4b/output_0_split -> inception_4b/output_inception_4b/output_0_split_2
I0403 16:13:46.357782 17425 net.cpp:399] inception_4b/output_inception_4b/output_0_split -> inception_4b/output_inception_4b/output_0_split_3
I0403 16:13:46.357887 17425 net.cpp:141] Setting up inception_4b/output_inception_4b/output_0_split
I0403 16:13:46.357914 17425 net.cpp:148] Top shape: 24 512 14 14 (2408448)
I0403 16:13:46.357933 17425 net.cpp:148] Top shape: 24 512 14 14 (2408448)
I0403 16:13:46.357952 17425 net.cpp:148] Top shape: 24 512 14 14 (2408448)
I0403 16:13:46.357970 17425 net.cpp:148] Top shape: 24 512 14 14 (2408448)
I0403 16:13:46.357986 17425 net.cpp:156] Memory required for data: 1028392224
I0403 16:13:46.358003 17425 layer_factory.hpp:77] Creating layer inception_4c/1x1
I0403 16:13:46.358029 17425 net.cpp:91] Creating Layer inception_4c/1x1
I0403 16:13:46.358052 17425 net.cpp:425] inception_4c/1x1 <- inception_4b/output_inception_4b/output_0_split_0
I0403 16:13:46.358078 17425 net.cpp:399] inception_4c/1x1 -> inception_4c/1x1
I0403 16:13:46.359822 17425 net.cpp:141] Setting up inception_4c/1x1
I0403 16:13:46.359856 17425 net.cpp:148] Top shape: 24 128 14 14 (602112)
I0403 16:13:46.359875 17425 net.cpp:156] Memory required for data: 1030800672
I0403 16:13:46.359897 17425 layer_factory.hpp:77] Creating layer inception_4c/relu_1x1
I0403 16:13:46.359918 17425 net.cpp:91] Creating Layer inception_4c/relu_1x1
I0403 16:13:46.359937 17425 net.cpp:425] inception_4c/relu_1x1 <- inception_4c/1x1
I0403 16:13:46.359966 17425 net.cpp:386] inception_4c/relu_1x1 -> inception_4c/1x1 (in-place)
I0403 16:13:46.360184 17425 net.cpp:141] Setting up inception_4c/relu_1x1
I0403 16:13:46.360214 17425 net.cpp:148] Top shape: 24 128 14 14 (602112)
I0403 16:13:46.360231 17425 net.cpp:156] Memory required for data: 1033209120
I0403 16:13:46.360249 17425 layer_factory.hpp:77] Creating layer inception_4c/3x3_reduce
I0403 16:13:46.360278 17425 net.cpp:91] Creating Layer inception_4c/3x3_reduce
I0403 16:13:46.360301 17425 net.cpp:425] inception_4c/3x3_reduce <- inception_4b/output_inception_4b/output_0_split_1
I0403 16:13:46.360326 17425 net.cpp:399] inception_4c/3x3_reduce -> inception_4c/3x3_reduce
I0403 16:13:46.362684 17425 net.cpp:141] Setting up inception_4c/3x3_reduce
I0403 16:13:46.362718 17425 net.cpp:148] Top shape: 24 128 14 14 (602112)
I0403 16:13:46.362741 17425 net.cpp:156] Memory required for data: 1035617568
I0403 16:13:46.362764 17425 layer_factory.hpp:77] Creating layer inception_4c/relu_3x3_reduce
I0403 16:13:46.362787 17425 net.cpp:91] Creating Layer inception_4c/relu_3x3_reduce
I0403 16:13:46.362804 17425 net.cpp:425] inception_4c/relu_3x3_reduce <- inception_4c/3x3_reduce
I0403 16:13:46.362825 17425 net.cpp:386] inception_4c/relu_3x3_reduce -> inception_4c/3x3_reduce (in-place)
I0403 16:13:46.363168 17425 net.cpp:141] Setting up inception_4c/relu_3x3_reduce
I0403 16:13:46.363201 17425 net.cpp:148] Top shape: 24 128 14 14 (602112)
I0403 16:13:46.363229 17425 net.cpp:156] Memory required for data: 1038026016
I0403 16:13:46.363246 17425 layer_factory.hpp:77] Creating layer inception_4c/3x3
I0403 16:13:46.363272 17425 net.cpp:91] Creating Layer inception_4c/3x3
I0403 16:13:46.363292 17425 net.cpp:425] inception_4c/3x3 <- inception_4c/3x3_reduce
I0403 16:13:46.363319 17425 net.cpp:399] inception_4c/3x3 -> inception_4c/3x3
I0403 16:13:46.367717 17425 net.cpp:141] Setting up inception_4c/3x3
I0403 16:13:46.367766 17425 net.cpp:148] Top shape: 24 256 14 14 (1204224)
I0403 16:13:46.367786 17425 net.cpp:156] Memory required for data: 1042842912
I0403 16:13:46.367826 17425 layer_factory.hpp:77] Creating layer inception_4c/relu_3x3
I0403 16:13:46.367851 17425 net.cpp:91] Creating Layer inception_4c/relu_3x3
I0403 16:13:46.367871 17425 net.cpp:425] inception_4c/relu_3x3 <- inception_4c/3x3
I0403 16:13:46.367892 17425 net.cpp:386] inception_4c/relu_3x3 -> inception_4c/3x3 (in-place)
I0403 16:13:46.368110 17425 net.cpp:141] Setting up inception_4c/relu_3x3
I0403 16:13:46.368144 17425 net.cpp:148] Top shape: 24 256 14 14 (1204224)
I0403 16:13:46.368163 17425 net.cpp:156] Memory required for data: 1047659808
I0403 16:13:46.368180 17425 layer_factory.hpp:77] Creating layer inception_4c/5x5_reduce
I0403 16:13:46.368207 17425 net.cpp:91] Creating Layer inception_4c/5x5_reduce
I0403 16:13:46.368229 17425 net.cpp:425] inception_4c/5x5_reduce <- inception_4b/output_inception_4b/output_0_split_2
I0403 16:13:46.368253 17425 net.cpp:399] inception_4c/5x5_reduce -> inception_4c/5x5_reduce
I0403 16:13:46.369585 17425 net.cpp:141] Setting up inception_4c/5x5_reduce
I0403 16:13:46.369622 17425 net.cpp:148] Top shape: 24 24 14 14 (112896)
I0403 16:13:46.369642 17425 net.cpp:156] Memory required for data: 1048111392
I0403 16:13:46.369664 17425 layer_factory.hpp:77] Creating layer inception_4c/relu_5x5_reduce
I0403 16:13:46.369686 17425 net.cpp:91] Creating Layer inception_4c/relu_5x5_reduce
I0403 16:13:46.369705 17425 net.cpp:425] inception_4c/relu_5x5_reduce <- inception_4c/5x5_reduce
I0403 16:13:46.369725 17425 net.cpp:386] inception_4c/relu_5x5_reduce -> inception_4c/5x5_reduce (in-place)
I0403 16:13:46.369957 17425 net.cpp:141] Setting up inception_4c/relu_5x5_reduce
I0403 16:13:46.369987 17425 net.cpp:148] Top shape: 24 24 14 14 (112896)
I0403 16:13:46.370004 17425 net.cpp:156] Memory required for data: 1048562976
I0403 16:13:46.370023 17425 layer_factory.hpp:77] Creating layer inception_4c/5x5
I0403 16:13:46.370049 17425 net.cpp:91] Creating Layer inception_4c/5x5
I0403 16:13:46.370070 17425 net.cpp:425] inception_4c/5x5 <- inception_4c/5x5_reduce
I0403 16:13:46.370101 17425 net.cpp:399] inception_4c/5x5 -> inception_4c/5x5
I0403 16:13:46.371631 17425 net.cpp:141] Setting up inception_4c/5x5
I0403 16:13:46.371665 17425 net.cpp:148] Top shape: 24 64 14 14 (301056)
I0403 16:13:46.371683 17425 net.cpp:156] Memory required for data: 1049767200
I0403 16:13:46.371706 17425 layer_factory.hpp:77] Creating layer inception_4c/relu_5x5
I0403 16:13:46.371728 17425 net.cpp:91] Creating Layer inception_4c/relu_5x5
I0403 16:13:46.371747 17425 net.cpp:425] inception_4c/relu_5x5 <- inception_4c/5x5
I0403 16:13:46.371770 17425 net.cpp:386] inception_4c/relu_5x5 -> inception_4c/5x5 (in-place)
I0403 16:13:46.372123 17425 net.cpp:141] Setting up inception_4c/relu_5x5
I0403 16:13:46.372154 17425 net.cpp:148] Top shape: 24 64 14 14 (301056)
I0403 16:13:46.372172 17425 net.cpp:156] Memory required for data: 1050971424
I0403 16:13:46.372190 17425 layer_factory.hpp:77] Creating layer inception_4c/pool
I0403 16:13:46.372212 17425 net.cpp:91] Creating Layer inception_4c/pool
I0403 16:13:46.372231 17425 net.cpp:425] inception_4c/pool <- inception_4b/output_inception_4b/output_0_split_3
I0403 16:13:46.372256 17425 net.cpp:399] inception_4c/pool -> inception_4c/pool
I0403 16:13:46.372337 17425 net.cpp:141] Setting up inception_4c/pool
I0403 16:13:46.372366 17425 net.cpp:148] Top shape: 24 512 14 14 (2408448)
I0403 16:13:46.372385 17425 net.cpp:156] Memory required for data: 1060605216
I0403 16:13:46.372401 17425 layer_factory.hpp:77] Creating layer inception_4c/pool_proj
I0403 16:13:46.372429 17425 net.cpp:91] Creating Layer inception_4c/pool_proj
I0403 16:13:46.372452 17425 net.cpp:425] inception_4c/pool_proj <- inception_4c/pool
I0403 16:13:46.372474 17425 net.cpp:399] inception_4c/pool_proj -> inception_4c/pool_proj
I0403 16:13:46.373965 17425 net.cpp:141] Setting up inception_4c/pool_proj
I0403 16:13:46.374001 17425 net.cpp:148] Top shape: 24 64 14 14 (301056)
I0403 16:13:46.374037 17425 net.cpp:156] Memory required for data: 1061809440
I0403 16:13:46.374064 17425 layer_factory.hpp:77] Creating layer inception_4c/relu_pool_proj
I0403 16:13:46.374088 17425 net.cpp:91] Creating Layer inception_4c/relu_pool_proj
I0403 16:13:46.374107 17425 net.cpp:425] inception_4c/relu_pool_proj <- inception_4c/pool_proj
I0403 16:13:46.374128 17425 net.cpp:386] inception_4c/relu_pool_proj -> inception_4c/pool_proj (in-place)
I0403 16:13:46.374359 17425 net.cpp:141] Setting up inception_4c/relu_pool_proj
I0403 16:13:46.374390 17425 net.cpp:148] Top shape: 24 64 14 14 (301056)
I0403 16:13:46.374408 17425 net.cpp:156] Memory required for data: 1063013664
I0403 16:13:46.374425 17425 layer_factory.hpp:77] Creating layer inception_4c/output
I0403 16:13:46.374446 17425 net.cpp:91] Creating Layer inception_4c/output
I0403 16:13:46.374464 17425 net.cpp:425] inception_4c/output <- inception_4c/1x1
I0403 16:13:46.374485 17425 net.cpp:425] inception_4c/output <- inception_4c/3x3
I0403 16:13:46.374505 17425 net.cpp:425] inception_4c/output <- inception_4c/5x5
I0403 16:13:46.374522 17425 net.cpp:425] inception_4c/output <- inception_4c/pool_proj
I0403 16:13:46.374547 17425 net.cpp:399] inception_4c/output -> inception_4c/output
I0403 16:13:46.374614 17425 net.cpp:141] Setting up inception_4c/output
I0403 16:13:46.374646 17425 net.cpp:148] Top shape: 24 512 14 14 (2408448)
I0403 16:13:46.374665 17425 net.cpp:156] Memory required for data: 1072647456
I0403 16:13:46.374682 17425 layer_factory.hpp:77] Creating layer inception_4c/output_inception_4c/output_0_split
I0403 16:13:46.374704 17425 net.cpp:91] Creating Layer inception_4c/output_inception_4c/output_0_split
I0403 16:13:46.374722 17425 net.cpp:425] inception_4c/output_inception_4c/output_0_split <- inception_4c/output
I0403 16:13:46.374742 17425 net.cpp:399] inception_4c/output_inception_4c/output_0_split -> inception_4c/output_inception_4c/output_0_split_0
I0403 16:13:46.374768 17425 net.cpp:399] inception_4c/output_inception_4c/output_0_split -> inception_4c/output_inception_4c/output_0_split_1
I0403 16:13:46.374794 17425 net.cpp:399] inception_4c/output_inception_4c/output_0_split -> inception_4c/output_inception_4c/output_0_split_2
I0403 16:13:46.374822 17425 net.cpp:399] inception_4c/output_inception_4c/output_0_split -> inception_4c/output_inception_4c/output_0_split_3
I0403 16:13:46.374929 17425 net.cpp:141] Setting up inception_4c/output_inception_4c/output_0_split
I0403 16:13:46.374958 17425 net.cpp:148] Top shape: 24 512 14 14 (2408448)
I0403 16:13:46.374977 17425 net.cpp:148] Top shape: 24 512 14 14 (2408448)
I0403 16:13:46.374995 17425 net.cpp:148] Top shape: 24 512 14 14 (2408448)
I0403 16:13:46.375013 17425 net.cpp:148] Top shape: 24 512 14 14 (2408448)
I0403 16:13:46.375030 17425 net.cpp:156] Memory required for data: 1111182624
I0403 16:13:46.375047 17425 layer_factory.hpp:77] Creating layer inception_4d/1x1
I0403 16:13:46.375073 17425 net.cpp:91] Creating Layer inception_4d/1x1
I0403 16:13:46.375093 17425 net.cpp:425] inception_4d/1x1 <- inception_4c/output_inception_4c/output_0_split_0
I0403 16:13:46.375118 17425 net.cpp:399] inception_4d/1x1 -> inception_4d/1x1
I0403 16:13:46.376804 17425 net.cpp:141] Setting up inception_4d/1x1
I0403 16:13:46.376839 17425 net.cpp:148] Top shape: 24 112 14 14 (526848)
I0403 16:13:46.376858 17425 net.cpp:156] Memory required for data: 1113290016
I0403 16:13:46.376880 17425 layer_factory.hpp:77] Creating layer inception_4d/relu_1x1
I0403 16:13:46.376904 17425 net.cpp:91] Creating Layer inception_4d/relu_1x1
I0403 16:13:46.376924 17425 net.cpp:425] inception_4d/relu_1x1 <- inception_4d/1x1
I0403 16:13:46.376945 17425 net.cpp:386] inception_4d/relu_1x1 -> inception_4d/1x1 (in-place)
I0403 16:13:46.377166 17425 net.cpp:141] Setting up inception_4d/relu_1x1
I0403 16:13:46.377200 17425 net.cpp:148] Top shape: 24 112 14 14 (526848)
I0403 16:13:46.377219 17425 net.cpp:156] Memory required for data: 1115397408
I0403 16:13:46.377238 17425 layer_factory.hpp:77] Creating layer inception_4d/3x3_reduce
I0403 16:13:46.377282 17425 net.cpp:91] Creating Layer inception_4d/3x3_reduce
I0403 16:13:46.377306 17425 net.cpp:425] inception_4d/3x3_reduce <- inception_4c/output_inception_4c/output_0_split_1
I0403 16:13:46.377329 17425 net.cpp:399] inception_4d/3x3_reduce -> inception_4d/3x3_reduce
I0403 16:13:46.379189 17425 net.cpp:141] Setting up inception_4d/3x3_reduce
I0403 16:13:46.379222 17425 net.cpp:148] Top shape: 24 144 14 14 (677376)
I0403 16:13:46.379241 17425 net.cpp:156] Memory required for data: 1118106912
I0403 16:13:46.379263 17425 layer_factory.hpp:77] Creating layer inception_4d/relu_3x3_reduce
I0403 16:13:46.379288 17425 net.cpp:91] Creating Layer inception_4d/relu_3x3_reduce
I0403 16:13:46.379308 17425 net.cpp:425] inception_4d/relu_3x3_reduce <- inception_4d/3x3_reduce
I0403 16:13:46.379329 17425 net.cpp:386] inception_4d/relu_3x3_reduce -> inception_4d/3x3_reduce (in-place)
I0403 16:13:46.379683 17425 net.cpp:141] Setting up inception_4d/relu_3x3_reduce
I0403 16:13:46.379716 17425 net.cpp:148] Top shape: 24 144 14 14 (677376)
I0403 16:13:46.379734 17425 net.cpp:156] Memory required for data: 1120816416
I0403 16:13:46.379752 17425 layer_factory.hpp:77] Creating layer inception_4d/3x3
I0403 16:13:46.379779 17425 net.cpp:91] Creating Layer inception_4d/3x3
I0403 16:13:46.379801 17425 net.cpp:425] inception_4d/3x3 <- inception_4d/3x3_reduce
I0403 16:13:46.379825 17425 net.cpp:399] inception_4d/3x3 -> inception_4d/3x3
I0403 16:13:46.385113 17425 net.cpp:141] Setting up inception_4d/3x3
I0403 16:13:46.385149 17425 net.cpp:148] Top shape: 24 288 14 14 (1354752)
I0403 16:13:46.385169 17425 net.cpp:156] Memory required for data: 1126235424
I0403 16:13:46.385190 17425 layer_factory.hpp:77] Creating layer inception_4d/relu_3x3
I0403 16:13:46.385215 17425 net.cpp:91] Creating Layer inception_4d/relu_3x3
I0403 16:13:46.385236 17425 net.cpp:425] inception_4d/relu_3x3 <- inception_4d/3x3
I0403 16:13:46.385257 17425 net.cpp:386] inception_4d/relu_3x3 -> inception_4d/3x3 (in-place)
I0403 16:13:46.385481 17425 net.cpp:141] Setting up inception_4d/relu_3x3
I0403 16:13:46.385514 17425 net.cpp:148] Top shape: 24 288 14 14 (1354752)
I0403 16:13:46.385534 17425 net.cpp:156] Memory required for data: 1131654432
I0403 16:13:46.385550 17425 layer_factory.hpp:77] Creating layer inception_4d/5x5_reduce
I0403 16:13:46.385582 17425 net.cpp:91] Creating Layer inception_4d/5x5_reduce
I0403 16:13:46.385606 17425 net.cpp:425] inception_4d/5x5_reduce <- inception_4c/output_inception_4c/output_0_split_2
I0403 16:13:46.385628 17425 net.cpp:399] inception_4d/5x5_reduce -> inception_4d/5x5_reduce
I0403 16:13:46.387039 17425 net.cpp:141] Setting up inception_4d/5x5_reduce
I0403 16:13:46.387074 17425 net.cpp:148] Top shape: 24 32 14 14 (150528)
I0403 16:13:46.387094 17425 net.cpp:156] Memory required for data: 1132256544
I0403 16:13:46.387115 17425 layer_factory.hpp:77] Creating layer inception_4d/relu_5x5_reduce
I0403 16:13:46.387140 17425 net.cpp:91] Creating Layer inception_4d/relu_5x5_reduce
I0403 16:13:46.387159 17425 net.cpp:425] inception_4d/relu_5x5_reduce <- inception_4d/5x5_reduce
I0403 16:13:46.387181 17425 net.cpp:386] inception_4d/relu_5x5_reduce -> inception_4d/5x5_reduce (in-place)
I0403 16:13:46.387408 17425 net.cpp:141] Setting up inception_4d/relu_5x5_reduce
I0403 16:13:46.387442 17425 net.cpp:148] Top shape: 24 32 14 14 (150528)
I0403 16:13:46.387461 17425 net.cpp:156] Memory required for data: 1132858656
I0403 16:13:46.387480 17425 layer_factory.hpp:77] Creating layer inception_4d/5x5
I0403 16:13:46.387509 17425 net.cpp:91] Creating Layer inception_4d/5x5
I0403 16:13:46.387531 17425 net.cpp:425] inception_4d/5x5 <- inception_4d/5x5_reduce
I0403 16:13:46.387554 17425 net.cpp:399] inception_4d/5x5 -> inception_4d/5x5
I0403 16:13:46.389348 17425 net.cpp:141] Setting up inception_4d/5x5
I0403 16:13:46.389385 17425 net.cpp:148] Top shape: 24 64 14 14 (301056)
I0403 16:13:46.389405 17425 net.cpp:156] Memory required for data: 1134062880
I0403 16:13:46.389427 17425 layer_factory.hpp:77] Creating layer inception_4d/relu_5x5
I0403 16:13:46.389468 17425 net.cpp:91] Creating Layer inception_4d/relu_5x5
I0403 16:13:46.389489 17425 net.cpp:425] inception_4d/relu_5x5 <- inception_4d/5x5
I0403 16:13:46.389513 17425 net.cpp:386] inception_4d/relu_5x5 -> inception_4d/5x5 (in-place)
I0403 16:13:46.389881 17425 net.cpp:141] Setting up inception_4d/relu_5x5
I0403 16:13:46.389915 17425 net.cpp:148] Top shape: 24 64 14 14 (301056)
I0403 16:13:46.389935 17425 net.cpp:156] Memory required for data: 1135267104
I0403 16:13:46.389952 17425 layer_factory.hpp:77] Creating layer inception_4d/pool
I0403 16:13:46.389973 17425 net.cpp:91] Creating Layer inception_4d/pool
I0403 16:13:46.389992 17425 net.cpp:425] inception_4d/pool <- inception_4c/output_inception_4c/output_0_split_3
I0403 16:13:46.390017 17425 net.cpp:399] inception_4d/pool -> inception_4d/pool
I0403 16:13:46.390099 17425 net.cpp:141] Setting up inception_4d/pool
I0403 16:13:46.390127 17425 net.cpp:148] Top shape: 24 512 14 14 (2408448)
I0403 16:13:46.390146 17425 net.cpp:156] Memory required for data: 1144900896
I0403 16:13:46.390163 17425 layer_factory.hpp:77] Creating layer inception_4d/pool_proj
I0403 16:13:46.390192 17425 net.cpp:91] Creating Layer inception_4d/pool_proj
I0403 16:13:46.390213 17425 net.cpp:425] inception_4d/pool_proj <- inception_4d/pool
I0403 16:13:46.390234 17425 net.cpp:399] inception_4d/pool_proj -> inception_4d/pool_proj
I0403 16:13:46.392395 17425 net.cpp:141] Setting up inception_4d/pool_proj
I0403 16:13:46.392431 17425 net.cpp:148] Top shape: 24 64 14 14 (301056)
I0403 16:13:46.392452 17425 net.cpp:156] Memory required for data: 1146105120
I0403 16:13:46.392474 17425 layer_factory.hpp:77] Creating layer inception_4d/relu_pool_proj
I0403 16:13:46.392498 17425 net.cpp:91] Creating Layer inception_4d/relu_pool_proj
I0403 16:13:46.392519 17425 net.cpp:425] inception_4d/relu_pool_proj <- inception_4d/pool_proj
I0403 16:13:46.392540 17425 net.cpp:386] inception_4d/relu_pool_proj -> inception_4d/pool_proj (in-place)
I0403 16:13:46.392778 17425 net.cpp:141] Setting up inception_4d/relu_pool_proj
I0403 16:13:46.392812 17425 net.cpp:148] Top shape: 24 64 14 14 (301056)
I0403 16:13:46.392832 17425 net.cpp:156] Memory required for data: 1147309344
I0403 16:13:46.392848 17425 layer_factory.hpp:77] Creating layer inception_4d/output
I0403 16:13:46.392868 17425 net.cpp:91] Creating Layer inception_4d/output
I0403 16:13:46.392887 17425 net.cpp:425] inception_4d/output <- inception_4d/1x1
I0403 16:13:46.392907 17425 net.cpp:425] inception_4d/output <- inception_4d/3x3
I0403 16:13:46.392927 17425 net.cpp:425] inception_4d/output <- inception_4d/5x5
I0403 16:13:46.392947 17425 net.cpp:425] inception_4d/output <- inception_4d/pool_proj
I0403 16:13:46.392969 17425 net.cpp:399] inception_4d/output -> inception_4d/output
I0403 16:13:46.393029 17425 net.cpp:141] Setting up inception_4d/output
I0403 16:13:46.393057 17425 net.cpp:148] Top shape: 24 528 14 14 (2483712)
I0403 16:13:46.393075 17425 net.cpp:156] Memory required for data: 1157244192
I0403 16:13:46.393092 17425 layer_factory.hpp:77] Creating layer inception_4d/output_inception_4d/output_0_split
I0403 16:13:46.393116 17425 net.cpp:91] Creating Layer inception_4d/output_inception_4d/output_0_split
I0403 16:13:46.393136 17425 net.cpp:425] inception_4d/output_inception_4d/output_0_split <- inception_4d/output
I0403 16:13:46.393158 17425 net.cpp:399] inception_4d/output_inception_4d/output_0_split -> inception_4d/output_inception_4d/output_0_split_0
I0403 16:13:46.393182 17425 net.cpp:399] inception_4d/output_inception_4d/output_0_split -> inception_4d/output_inception_4d/output_0_split_1
I0403 16:13:46.393214 17425 net.cpp:399] inception_4d/output_inception_4d/output_0_split -> inception_4d/output_inception_4d/output_0_split_2
I0403 16:13:46.393241 17425 net.cpp:399] inception_4d/output_inception_4d/output_0_split -> inception_4d/output_inception_4d/output_0_split_3
I0403 16:13:46.393266 17425 net.cpp:399] inception_4d/output_inception_4d/output_0_split -> inception_4d/output_inception_4d/output_0_split_4
I0403 16:13:46.393391 17425 net.cpp:141] Setting up inception_4d/output_inception_4d/output_0_split
I0403 16:13:46.393435 17425 net.cpp:148] Top shape: 24 528 14 14 (2483712)
I0403 16:13:46.393455 17425 net.cpp:148] Top shape: 24 528 14 14 (2483712)
I0403 16:13:46.393474 17425 net.cpp:148] Top shape: 24 528 14 14 (2483712)
I0403 16:13:46.393493 17425 net.cpp:148] Top shape: 24 528 14 14 (2483712)
I0403 16:13:46.393512 17425 net.cpp:148] Top shape: 24 528 14 14 (2483712)
I0403 16:13:46.393528 17425 net.cpp:156] Memory required for data: 1206918432
I0403 16:13:46.393545 17425 layer_factory.hpp:77] Creating layer loss2/ave_pool
I0403 16:13:46.393566 17425 net.cpp:91] Creating Layer loss2/ave_pool
I0403 16:13:46.393597 17425 net.cpp:425] loss2/ave_pool <- inception_4d/output_inception_4d/output_0_split_0
I0403 16:13:46.393625 17425 net.cpp:399] loss2/ave_pool -> loss2/ave_pool
I0403 16:13:46.394001 17425 net.cpp:141] Setting up loss2/ave_pool
I0403 16:13:46.394033 17425 net.cpp:148] Top shape: 24 528 4 4 (202752)
I0403 16:13:46.394052 17425 net.cpp:156] Memory required for data: 1207729440
I0403 16:13:46.394069 17425 layer_factory.hpp:77] Creating layer loss2/conv
I0403 16:13:46.394096 17425 net.cpp:91] Creating Layer loss2/conv
I0403 16:13:46.394117 17425 net.cpp:425] loss2/conv <- loss2/ave_pool
I0403 16:13:46.394142 17425 net.cpp:399] loss2/conv -> loss2/conv
I0403 16:13:46.396486 17425 net.cpp:141] Setting up loss2/conv
I0403 16:13:46.396524 17425 net.cpp:148] Top shape: 24 128 4 4 (49152)
I0403 16:13:46.396545 17425 net.cpp:156] Memory required for data: 1207926048
I0403 16:13:46.396571 17425 layer_factory.hpp:77] Creating layer loss2/relu_conv
I0403 16:13:46.396596 17425 net.cpp:91] Creating Layer loss2/relu_conv
I0403 16:13:46.396616 17425 net.cpp:425] loss2/relu_conv <- loss2/conv
I0403 16:13:46.396641 17425 net.cpp:386] loss2/relu_conv -> loss2/conv (in-place)
I0403 16:13:46.396983 17425 net.cpp:141] Setting up loss2/relu_conv
I0403 16:13:46.397019 17425 net.cpp:148] Top shape: 24 128 4 4 (49152)
I0403 16:13:46.397038 17425 net.cpp:156] Memory required for data: 1208122656
I0403 16:13:46.397058 17425 layer_factory.hpp:77] Creating layer loss2/fc
I0403 16:13:46.397080 17425 net.cpp:91] Creating Layer loss2/fc
I0403 16:13:46.397099 17425 net.cpp:425] loss2/fc <- loss2/conv
I0403 16:13:46.397126 17425 net.cpp:399] loss2/fc -> loss2/fc
I0403 16:13:46.419086 17425 net.cpp:141] Setting up loss2/fc
I0403 16:13:46.419126 17425 net.cpp:148] Top shape: 24 1024 (24576)
I0403 16:13:46.419145 17425 net.cpp:156] Memory required for data: 1208220960
I0403 16:13:46.419167 17425 layer_factory.hpp:77] Creating layer loss2/relu_fc
I0403 16:13:46.419191 17425 net.cpp:91] Creating Layer loss2/relu_fc
I0403 16:13:46.419212 17425 net.cpp:425] loss2/relu_fc <- loss2/fc
I0403 16:13:46.419234 17425 net.cpp:386] loss2/relu_fc -> loss2/fc (in-place)
I0403 16:13:46.419603 17425 net.cpp:141] Setting up loss2/relu_fc
I0403 16:13:46.419636 17425 net.cpp:148] Top shape: 24 1024 (24576)
I0403 16:13:46.419654 17425 net.cpp:156] Memory required for data: 1208319264
I0403 16:13:46.419673 17425 layer_factory.hpp:77] Creating layer loss2/drop_fc
I0403 16:13:46.419698 17425 net.cpp:91] Creating Layer loss2/drop_fc
I0403 16:13:46.419719 17425 net.cpp:425] loss2/drop_fc <- loss2/fc
I0403 16:13:46.419740 17425 net.cpp:386] loss2/drop_fc -> loss2/fc (in-place)
I0403 16:13:46.419802 17425 net.cpp:141] Setting up loss2/drop_fc
I0403 16:13:46.419831 17425 net.cpp:148] Top shape: 24 1024 (24576)
I0403 16:13:46.419848 17425 net.cpp:156] Memory required for data: 1208417568
I0403 16:13:46.419865 17425 layer_factory.hpp:77] Creating layer loss2/classifier_plantvillage
I0403 16:13:46.419891 17425 net.cpp:91] Creating Layer loss2/classifier_plantvillage
I0403 16:13:46.419914 17425 net.cpp:425] loss2/classifier_plantvillage <- loss2/fc
I0403 16:13:46.419935 17425 net.cpp:399] loss2/classifier_plantvillage -> loss2/classifier_plantvillage
I0403 16:13:46.420438 17425 net.cpp:141] Setting up loss2/classifier_plantvillage
I0403 16:13:46.420467 17425 net.cpp:148] Top shape: 24 38 (912)
I0403 16:13:46.420503 17425 net.cpp:156] Memory required for data: 1208421216
I0403 16:13:46.420526 17425 layer_factory.hpp:77] Creating layer loss2/classifier_plantvillage_loss2/classifier_plantvillage_0_split
I0403 16:13:46.420548 17425 net.cpp:91] Creating Layer loss2/classifier_plantvillage_loss2/classifier_plantvillage_0_split
I0403 16:13:46.420572 17425 net.cpp:425] loss2/classifier_plantvillage_loss2/classifier_plantvillage_0_split <- loss2/classifier_plantvillage
I0403 16:13:46.420598 17425 net.cpp:399] loss2/classifier_plantvillage_loss2/classifier_plantvillage_0_split -> loss2/classifier_plantvillage_loss2/classifier_plantvillage_0_split_0
I0403 16:13:46.420625 17425 net.cpp:399] loss2/classifier_plantvillage_loss2/classifier_plantvillage_0_split -> loss2/classifier_plantvillage_loss2/classifier_plantvillage_0_split_1
I0403 16:13:46.420652 17425 net.cpp:399] loss2/classifier_plantvillage_loss2/classifier_plantvillage_0_split -> loss2/classifier_plantvillage_loss2/classifier_plantvillage_0_split_2
I0403 16:13:46.420747 17425 net.cpp:141] Setting up loss2/classifier_plantvillage_loss2/classifier_plantvillage_0_split
I0403 16:13:46.420778 17425 net.cpp:148] Top shape: 24 38 (912)
I0403 16:13:46.420797 17425 net.cpp:148] Top shape: 24 38 (912)
I0403 16:13:46.420816 17425 net.cpp:148] Top shape: 24 38 (912)
I0403 16:13:46.420832 17425 net.cpp:156] Memory required for data: 1208432160
I0403 16:13:46.420850 17425 layer_factory.hpp:77] Creating layer inception_4e/1x1
I0403 16:13:46.420874 17425 net.cpp:91] Creating Layer inception_4e/1x1
I0403 16:13:46.420894 17425 net.cpp:425] inception_4e/1x1 <- inception_4d/output_inception_4d/output_0_split_1
I0403 16:13:46.420917 17425 net.cpp:399] inception_4e/1x1 -> inception_4e/1x1
I0403 16:13:46.423169 17425 net.cpp:141] Setting up inception_4e/1x1
I0403 16:13:46.423204 17425 net.cpp:148] Top shape: 24 256 14 14 (1204224)
I0403 16:13:46.423223 17425 net.cpp:156] Memory required for data: 1213249056
I0403 16:13:46.423244 17425 layer_factory.hpp:77] Creating layer inception_4e/relu_1x1
I0403 16:13:46.423265 17425 net.cpp:91] Creating Layer inception_4e/relu_1x1
I0403 16:13:46.423285 17425 net.cpp:425] inception_4e/relu_1x1 <- inception_4e/1x1
I0403 16:13:46.423308 17425 net.cpp:386] inception_4e/relu_1x1 -> inception_4e/1x1 (in-place)
I0403 16:13:46.423674 17425 net.cpp:141] Setting up inception_4e/relu_1x1
I0403 16:13:46.423707 17425 net.cpp:148] Top shape: 24 256 14 14 (1204224)
I0403 16:13:46.423724 17425 net.cpp:156] Memory required for data: 1218065952
I0403 16:13:46.423743 17425 layer_factory.hpp:77] Creating layer inception_4e/3x3_reduce
I0403 16:13:46.423768 17425 net.cpp:91] Creating Layer inception_4e/3x3_reduce
I0403 16:13:46.423789 17425 net.cpp:425] inception_4e/3x3_reduce <- inception_4d/output_inception_4d/output_0_split_2
I0403 16:13:46.423815 17425 net.cpp:399] inception_4e/3x3_reduce -> inception_4e/3x3_reduce
I0403 16:13:46.426417 17425 net.cpp:141] Setting up inception_4e/3x3_reduce
I0403 16:13:46.426460 17425 net.cpp:148] Top shape: 24 160 14 14 (752640)
I0403 16:13:46.426481 17425 net.cpp:156] Memory required for data: 1221076512
I0403 16:13:46.426503 17425 layer_factory.hpp:77] Creating layer inception_4e/relu_3x3_reduce
I0403 16:13:46.426525 17425 net.cpp:91] Creating Layer inception_4e/relu_3x3_reduce
I0403 16:13:46.426544 17425 net.cpp:425] inception_4e/relu_3x3_reduce <- inception_4e/3x3_reduce
I0403 16:13:46.426573 17425 net.cpp:386] inception_4e/relu_3x3_reduce -> inception_4e/3x3_reduce (in-place)
I0403 16:13:46.426806 17425 net.cpp:141] Setting up inception_4e/relu_3x3_reduce
I0403 16:13:46.426837 17425 net.cpp:148] Top shape: 24 160 14 14 (752640)
I0403 16:13:46.426854 17425 net.cpp:156] Memory required for data: 1224087072
I0403 16:13:46.426882 17425 layer_factory.hpp:77] Creating layer inception_4e/3x3
I0403 16:13:46.426909 17425 net.cpp:91] Creating Layer inception_4e/3x3
I0403 16:13:46.426933 17425 net.cpp:425] inception_4e/3x3 <- inception_4e/3x3_reduce
I0403 16:13:46.426960 17425 net.cpp:399] inception_4e/3x3 -> inception_4e/3x3
I0403 16:13:46.433156 17425 net.cpp:141] Setting up inception_4e/3x3
I0403 16:13:46.433210 17425 net.cpp:148] Top shape: 24 320 14 14 (1505280)
I0403 16:13:46.433230 17425 net.cpp:156] Memory required for data: 1230108192
I0403 16:13:46.433253 17425 layer_factory.hpp:77] Creating layer inception_4e/relu_3x3
I0403 16:13:46.433274 17425 net.cpp:91] Creating Layer inception_4e/relu_3x3
I0403 16:13:46.433296 17425 net.cpp:425] inception_4e/relu_3x3 <- inception_4e/3x3
I0403 16:13:46.433320 17425 net.cpp:386] inception_4e/relu_3x3 -> inception_4e/3x3 (in-place)
I0403 16:13:46.433688 17425 net.cpp:141] Setting up inception_4e/relu_3x3
I0403 16:13:46.433719 17425 net.cpp:148] Top shape: 24 320 14 14 (1505280)
I0403 16:13:46.433738 17425 net.cpp:156] Memory required for data: 1236129312
I0403 16:13:46.433755 17425 layer_factory.hpp:77] Creating layer inception_4e/5x5_reduce
I0403 16:13:46.433785 17425 net.cpp:91] Creating Layer inception_4e/5x5_reduce
I0403 16:13:46.433807 17425 net.cpp:425] inception_4e/5x5_reduce <- inception_4d/output_inception_4d/output_0_split_3
I0403 16:13:46.433836 17425 net.cpp:399] inception_4e/5x5_reduce -> inception_4e/5x5_reduce
I0403 16:13:46.435173 17425 net.cpp:141] Setting up inception_4e/5x5_reduce
I0403 16:13:46.435209 17425 net.cpp:148] Top shape: 24 32 14 14 (150528)
I0403 16:13:46.435228 17425 net.cpp:156] Memory required for data: 1236731424
I0403 16:13:46.435250 17425 layer_factory.hpp:77] Creating layer inception_4e/relu_5x5_reduce
I0403 16:13:46.435272 17425 net.cpp:91] Creating Layer inception_4e/relu_5x5_reduce
I0403 16:13:46.435292 17425 net.cpp:425] inception_4e/relu_5x5_reduce <- inception_4e/5x5_reduce
I0403 16:13:46.435317 17425 net.cpp:386] inception_4e/relu_5x5_reduce -> inception_4e/5x5_reduce (in-place)
I0403 16:13:46.435681 17425 net.cpp:141] Setting up inception_4e/relu_5x5_reduce
I0403 16:13:46.435715 17425 net.cpp:148] Top shape: 24 32 14 14 (150528)
I0403 16:13:46.435734 17425 net.cpp:156] Memory required for data: 1237333536
I0403 16:13:46.435751 17425 layer_factory.hpp:77] Creating layer inception_4e/5x5
I0403 16:13:46.435797 17425 net.cpp:91] Creating Layer inception_4e/5x5
I0403 16:13:46.435822 17425 net.cpp:425] inception_4e/5x5 <- inception_4e/5x5_reduce
I0403 16:13:46.435847 17425 net.cpp:399] inception_4e/5x5 -> inception_4e/5x5
I0403 16:13:46.438098 17425 net.cpp:141] Setting up inception_4e/5x5
I0403 16:13:46.438135 17425 net.cpp:148] Top shape: 24 128 14 14 (602112)
I0403 16:13:46.438158 17425 net.cpp:156] Memory required for data: 1239741984
I0403 16:13:46.438180 17425 layer_factory.hpp:77] Creating layer inception_4e/relu_5x5
I0403 16:13:46.438202 17425 net.cpp:91] Creating Layer inception_4e/relu_5x5
I0403 16:13:46.438222 17425 net.cpp:425] inception_4e/relu_5x5 <- inception_4e/5x5
I0403 16:13:46.438242 17425 net.cpp:386] inception_4e/relu_5x5 -> inception_4e/5x5 (in-place)
I0403 16:13:46.438491 17425 net.cpp:141] Setting up inception_4e/relu_5x5
I0403 16:13:46.438524 17425 net.cpp:148] Top shape: 24 128 14 14 (602112)
I0403 16:13:46.438542 17425 net.cpp:156] Memory required for data: 1242150432
I0403 16:13:46.438560 17425 layer_factory.hpp:77] Creating layer inception_4e/pool
I0403 16:13:46.438596 17425 net.cpp:91] Creating Layer inception_4e/pool
I0403 16:13:46.438617 17425 net.cpp:425] inception_4e/pool <- inception_4d/output_inception_4d/output_0_split_4
I0403 16:13:46.438642 17425 net.cpp:399] inception_4e/pool -> inception_4e/pool
I0403 16:13:46.438729 17425 net.cpp:141] Setting up inception_4e/pool
I0403 16:13:46.438760 17425 net.cpp:148] Top shape: 24 528 14 14 (2483712)
I0403 16:13:46.438779 17425 net.cpp:156] Memory required for data: 1252085280
I0403 16:13:46.438796 17425 layer_factory.hpp:77] Creating layer inception_4e/pool_proj
I0403 16:13:46.438823 17425 net.cpp:91] Creating Layer inception_4e/pool_proj
I0403 16:13:46.438843 17425 net.cpp:425] inception_4e/pool_proj <- inception_4e/pool
I0403 16:13:46.438866 17425 net.cpp:399] inception_4e/pool_proj -> inception_4e/pool_proj
I0403 16:13:46.440718 17425 net.cpp:141] Setting up inception_4e/pool_proj
I0403 16:13:46.440768 17425 net.cpp:148] Top shape: 24 128 14 14 (602112)
I0403 16:13:46.440788 17425 net.cpp:156] Memory required for data: 1254493728
I0403 16:13:46.440809 17425 layer_factory.hpp:77] Creating layer inception_4e/relu_pool_proj
I0403 16:13:46.440834 17425 net.cpp:91] Creating Layer inception_4e/relu_pool_proj
I0403 16:13:46.440856 17425 net.cpp:425] inception_4e/relu_pool_proj <- inception_4e/pool_proj
I0403 16:13:46.440877 17425 net.cpp:386] inception_4e/relu_pool_proj -> inception_4e/pool_proj (in-place)
I0403 16:13:46.441241 17425 net.cpp:141] Setting up inception_4e/relu_pool_proj
I0403 16:13:46.441273 17425 net.cpp:148] Top shape: 24 128 14 14 (602112)
I0403 16:13:46.441293 17425 net.cpp:156] Memory required for data: 1256902176
I0403 16:13:46.441309 17425 layer_factory.hpp:77] Creating layer inception_4e/output
I0403 16:13:46.441334 17425 net.cpp:91] Creating Layer inception_4e/output
I0403 16:13:46.441354 17425 net.cpp:425] inception_4e/output <- inception_4e/1x1
I0403 16:13:46.441375 17425 net.cpp:425] inception_4e/output <- inception_4e/3x3
I0403 16:13:46.441395 17425 net.cpp:425] inception_4e/output <- inception_4e/5x5
I0403 16:13:46.441412 17425 net.cpp:425] inception_4e/output <- inception_4e/pool_proj
I0403 16:13:46.441432 17425 net.cpp:399] inception_4e/output -> inception_4e/output
I0403 16:13:46.441494 17425 net.cpp:141] Setting up inception_4e/output
I0403 16:13:46.441524 17425 net.cpp:148] Top shape: 24 832 14 14 (3913728)
I0403 16:13:46.441542 17425 net.cpp:156] Memory required for data: 1272557088
I0403 16:13:46.441560 17425 layer_factory.hpp:77] Creating layer pool4/3x3_s2
I0403 16:13:46.441586 17425 net.cpp:91] Creating Layer pool4/3x3_s2
I0403 16:13:46.441606 17425 net.cpp:425] pool4/3x3_s2 <- inception_4e/output
I0403 16:13:46.441630 17425 net.cpp:399] pool4/3x3_s2 -> pool4/3x3_s2
I0403 16:13:46.441711 17425 net.cpp:141] Setting up pool4/3x3_s2
I0403 16:13:46.441745 17425 net.cpp:148] Top shape: 24 832 7 7 (978432)
I0403 16:13:46.441762 17425 net.cpp:156] Memory required for data: 1276470816
I0403 16:13:46.441781 17425 layer_factory.hpp:77] Creating layer pool4/3x3_s2_pool4/3x3_s2_0_split
I0403 16:13:46.441800 17425 net.cpp:91] Creating Layer pool4/3x3_s2_pool4/3x3_s2_0_split
I0403 16:13:46.441818 17425 net.cpp:425] pool4/3x3_s2_pool4/3x3_s2_0_split <- pool4/3x3_s2
I0403 16:13:46.441839 17425 net.cpp:399] pool4/3x3_s2_pool4/3x3_s2_0_split -> pool4/3x3_s2_pool4/3x3_s2_0_split_0
I0403 16:13:46.441866 17425 net.cpp:399] pool4/3x3_s2_pool4/3x3_s2_0_split -> pool4/3x3_s2_pool4/3x3_s2_0_split_1
I0403 16:13:46.441893 17425 net.cpp:399] pool4/3x3_s2_pool4/3x3_s2_0_split -> pool4/3x3_s2_pool4/3x3_s2_0_split_2
I0403 16:13:46.441918 17425 net.cpp:399] pool4/3x3_s2_pool4/3x3_s2_0_split -> pool4/3x3_s2_pool4/3x3_s2_0_split_3
I0403 16:13:46.442036 17425 net.cpp:141] Setting up pool4/3x3_s2_pool4/3x3_s2_0_split
I0403 16:13:46.442065 17425 net.cpp:148] Top shape: 24 832 7 7 (978432)
I0403 16:13:46.442085 17425 net.cpp:148] Top shape: 24 832 7 7 (978432)
I0403 16:13:46.442103 17425 net.cpp:148] Top shape: 24 832 7 7 (978432)
I0403 16:13:46.442122 17425 net.cpp:148] Top shape: 24 832 7 7 (978432)
I0403 16:13:46.442138 17425 net.cpp:156] Memory required for data: 1292125728
I0403 16:13:46.442157 17425 layer_factory.hpp:77] Creating layer inception_5a/1x1
I0403 16:13:46.442184 17425 net.cpp:91] Creating Layer inception_5a/1x1
I0403 16:13:46.442206 17425 net.cpp:425] inception_5a/1x1 <- pool4/3x3_s2_pool4/3x3_s2_0_split_0
I0403 16:13:46.442229 17425 net.cpp:399] inception_5a/1x1 -> inception_5a/1x1
I0403 16:13:46.445770 17425 net.cpp:141] Setting up inception_5a/1x1
I0403 16:13:46.445809 17425 net.cpp:148] Top shape: 24 256 7 7 (301056)
I0403 16:13:46.445832 17425 net.cpp:156] Memory required for data: 1293329952
I0403 16:13:46.445853 17425 layer_factory.hpp:77] Creating layer inception_5a/relu_1x1
I0403 16:13:46.445875 17425 net.cpp:91] Creating Layer inception_5a/relu_1x1
I0403 16:13:46.445895 17425 net.cpp:425] inception_5a/relu_1x1 <- inception_5a/1x1
I0403 16:13:46.445919 17425 net.cpp:386] inception_5a/relu_1x1 -> inception_5a/1x1 (in-place)
I0403 16:13:46.446302 17425 net.cpp:141] Setting up inception_5a/relu_1x1
I0403 16:13:46.446338 17425 net.cpp:148] Top shape: 24 256 7 7 (301056)
I0403 16:13:46.446358 17425 net.cpp:156] Memory required for data: 1294534176
I0403 16:13:46.446375 17425 layer_factory.hpp:77] Creating layer inception_5a/3x3_reduce
I0403 16:13:46.446403 17425 net.cpp:91] Creating Layer inception_5a/3x3_reduce
I0403 16:13:46.446424 17425 net.cpp:425] inception_5a/3x3_reduce <- pool4/3x3_s2_pool4/3x3_s2_0_split_1
I0403 16:13:46.446449 17425 net.cpp:399] inception_5a/3x3_reduce -> inception_5a/3x3_reduce
I0403 16:13:46.449470 17425 net.cpp:141] Setting up inception_5a/3x3_reduce
I0403 16:13:46.449506 17425 net.cpp:148] Top shape: 24 160 7 7 (188160)
I0403 16:13:46.449523 17425 net.cpp:156] Memory required for data: 1295286816
I0403 16:13:46.449547 17425 layer_factory.hpp:77] Creating layer inception_5a/relu_3x3_reduce
I0403 16:13:46.449575 17425 net.cpp:91] Creating Layer inception_5a/relu_3x3_reduce
I0403 16:13:46.449597 17425 net.cpp:425] inception_5a/relu_3x3_reduce <- inception_5a/3x3_reduce
I0403 16:13:46.449618 17425 net.cpp:386] inception_5a/relu_3x3_reduce -> inception_5a/3x3_reduce (in-place)
I0403 16:13:46.449849 17425 net.cpp:141] Setting up inception_5a/relu_3x3_reduce
I0403 16:13:46.449879 17425 net.cpp:148] Top shape: 24 160 7 7 (188160)
I0403 16:13:46.449898 17425 net.cpp:156] Memory required for data: 1296039456
I0403 16:13:46.449915 17425 layer_factory.hpp:77] Creating layer inception_5a/3x3
I0403 16:13:46.449945 17425 net.cpp:91] Creating Layer inception_5a/3x3
I0403 16:13:46.449967 17425 net.cpp:425] inception_5a/3x3 <- inception_5a/3x3_reduce
I0403 16:13:46.449990 17425 net.cpp:399] inception_5a/3x3 -> inception_5a/3x3
I0403 16:13:46.456290 17425 net.cpp:141] Setting up inception_5a/3x3
I0403 16:13:46.456329 17425 net.cpp:148] Top shape: 24 320 7 7 (376320)
I0403 16:13:46.456351 17425 net.cpp:156] Memory required for data: 1297544736
I0403 16:13:46.456373 17425 layer_factory.hpp:77] Creating layer inception_5a/relu_3x3
I0403 16:13:46.456395 17425 net.cpp:91] Creating Layer inception_5a/relu_3x3
I0403 16:13:46.456414 17425 net.cpp:425] inception_5a/relu_3x3 <- inception_5a/3x3
I0403 16:13:46.456435 17425 net.cpp:386] inception_5a/relu_3x3 -> inception_5a/3x3 (in-place)
I0403 16:13:46.456799 17425 net.cpp:141] Setting up inception_5a/relu_3x3
I0403 16:13:46.456835 17425 net.cpp:148] Top shape: 24 320 7 7 (376320)
I0403 16:13:46.456853 17425 net.cpp:156] Memory required for data: 1299050016
I0403 16:13:46.456872 17425 layer_factory.hpp:77] Creating layer inception_5a/5x5_reduce
I0403 16:13:46.456900 17425 net.cpp:91] Creating Layer inception_5a/5x5_reduce
I0403 16:13:46.456923 17425 net.cpp:425] inception_5a/5x5_reduce <- pool4/3x3_s2_pool4/3x3_s2_0_split_2
I0403 16:13:46.456946 17425 net.cpp:399] inception_5a/5x5_reduce -> inception_5a/5x5_reduce
I0403 16:13:46.458384 17425 net.cpp:141] Setting up inception_5a/5x5_reduce
I0403 16:13:46.458422 17425 net.cpp:148] Top shape: 24 32 7 7 (37632)
I0403 16:13:46.458443 17425 net.cpp:156] Memory required for data: 1299200544
I0403 16:13:46.458466 17425 layer_factory.hpp:77] Creating layer inception_5a/relu_5x5_reduce
I0403 16:13:46.458487 17425 net.cpp:91] Creating Layer inception_5a/relu_5x5_reduce
I0403 16:13:46.458506 17425 net.cpp:425] inception_5a/relu_5x5_reduce <- inception_5a/5x5_reduce
I0403 16:13:46.458529 17425 net.cpp:386] inception_5a/relu_5x5_reduce -> inception_5a/5x5_reduce (in-place)
I0403 16:13:46.458902 17425 net.cpp:141] Setting up inception_5a/relu_5x5_reduce
I0403 16:13:46.458938 17425 net.cpp:148] Top shape: 24 32 7 7 (37632)
I0403 16:13:46.458958 17425 net.cpp:156] Memory required for data: 1299351072
I0403 16:13:46.458976 17425 layer_factory.hpp:77] Creating layer inception_5a/5x5
I0403 16:13:46.459002 17425 net.cpp:91] Creating Layer inception_5a/5x5
I0403 16:13:46.459024 17425 net.cpp:425] inception_5a/5x5 <- inception_5a/5x5_reduce
I0403 16:13:46.459048 17425 net.cpp:399] inception_5a/5x5 -> inception_5a/5x5
I0403 16:13:46.461181 17425 net.cpp:141] Setting up inception_5a/5x5
I0403 16:13:46.461232 17425 net.cpp:148] Top shape: 24 128 7 7 (150528)
I0403 16:13:46.461253 17425 net.cpp:156] Memory required for data: 1299953184
I0403 16:13:46.461277 17425 layer_factory.hpp:77] Creating layer inception_5a/relu_5x5
I0403 16:13:46.461299 17425 net.cpp:91] Creating Layer inception_5a/relu_5x5
I0403 16:13:46.461318 17425 net.cpp:425] inception_5a/relu_5x5 <- inception_5a/5x5
I0403 16:13:46.461339 17425 net.cpp:386] inception_5a/relu_5x5 -> inception_5a/5x5 (in-place)
I0403 16:13:46.461585 17425 net.cpp:141] Setting up inception_5a/relu_5x5
I0403 16:13:46.461616 17425 net.cpp:148] Top shape: 24 128 7 7 (150528)
I0403 16:13:46.461633 17425 net.cpp:156] Memory required for data: 1300555296
I0403 16:13:46.461650 17425 layer_factory.hpp:77] Creating layer inception_5a/pool
I0403 16:13:46.461671 17425 net.cpp:91] Creating Layer inception_5a/pool
I0403 16:13:46.461691 17425 net.cpp:425] inception_5a/pool <- pool4/3x3_s2_pool4/3x3_s2_0_split_3
I0403 16:13:46.461715 17425 net.cpp:399] inception_5a/pool -> inception_5a/pool
I0403 16:13:46.461803 17425 net.cpp:141] Setting up inception_5a/pool
I0403 16:13:46.461835 17425 net.cpp:148] Top shape: 24 832 7 7 (978432)
I0403 16:13:46.461853 17425 net.cpp:156] Memory required for data: 1304469024
I0403 16:13:46.461871 17425 layer_factory.hpp:77] Creating layer inception_5a/pool_proj
I0403 16:13:46.461897 17425 net.cpp:91] Creating Layer inception_5a/pool_proj
I0403 16:13:46.461920 17425 net.cpp:425] inception_5a/pool_proj <- inception_5a/pool
I0403 16:13:46.461942 17425 net.cpp:399] inception_5a/pool_proj -> inception_5a/pool_proj
I0403 16:13:46.464788 17425 net.cpp:141] Setting up inception_5a/pool_proj
I0403 16:13:46.464824 17425 net.cpp:148] Top shape: 24 128 7 7 (150528)
I0403 16:13:46.464845 17425 net.cpp:156] Memory required for data: 1305071136
I0403 16:13:46.464866 17425 layer_factory.hpp:77] Creating layer inception_5a/relu_pool_proj
I0403 16:13:46.464892 17425 net.cpp:91] Creating Layer inception_5a/relu_pool_proj
I0403 16:13:46.464915 17425 net.cpp:425] inception_5a/relu_pool_proj <- inception_5a/pool_proj
I0403 16:13:46.464936 17425 net.cpp:386] inception_5a/relu_pool_proj -> inception_5a/pool_proj (in-place)
I0403 16:13:46.465297 17425 net.cpp:141] Setting up inception_5a/relu_pool_proj
I0403 16:13:46.465329 17425 net.cpp:148] Top shape: 24 128 7 7 (150528)
I0403 16:13:46.465348 17425 net.cpp:156] Memory required for data: 1305673248
I0403 16:13:46.465365 17425 layer_factory.hpp:77] Creating layer inception_5a/output
I0403 16:13:46.465389 17425 net.cpp:91] Creating Layer inception_5a/output
I0403 16:13:46.465409 17425 net.cpp:425] inception_5a/output <- inception_5a/1x1
I0403 16:13:46.465430 17425 net.cpp:425] inception_5a/output <- inception_5a/3x3
I0403 16:13:46.465450 17425 net.cpp:425] inception_5a/output <- inception_5a/5x5
I0403 16:13:46.465468 17425 net.cpp:425] inception_5a/output <- inception_5a/pool_proj
I0403 16:13:46.465488 17425 net.cpp:399] inception_5a/output -> inception_5a/output
I0403 16:13:46.465553 17425 net.cpp:141] Setting up inception_5a/output
I0403 16:13:46.465589 17425 net.cpp:148] Top shape: 24 832 7 7 (978432)
I0403 16:13:46.465607 17425 net.cpp:156] Memory required for data: 1309586976
I0403 16:13:46.465626 17425 layer_factory.hpp:77] Creating layer inception_5a/output_inception_5a/output_0_split
I0403 16:13:46.465646 17425 net.cpp:91] Creating Layer inception_5a/output_inception_5a/output_0_split
I0403 16:13:46.465663 17425 net.cpp:425] inception_5a/output_inception_5a/output_0_split <- inception_5a/output
I0403 16:13:46.465687 17425 net.cpp:399] inception_5a/output_inception_5a/output_0_split -> inception_5a/output_inception_5a/output_0_split_0
I0403 16:13:46.465713 17425 net.cpp:399] inception_5a/output_inception_5a/output_0_split -> inception_5a/output_inception_5a/output_0_split_1
I0403 16:13:46.465739 17425 net.cpp:399] inception_5a/output_inception_5a/output_0_split -> inception_5a/output_inception_5a/output_0_split_2
I0403 16:13:46.465764 17425 net.cpp:399] inception_5a/output_inception_5a/output_0_split -> inception_5a/output_inception_5a/output_0_split_3
I0403 16:13:46.465905 17425 net.cpp:141] Setting up inception_5a/output_inception_5a/output_0_split
I0403 16:13:46.465939 17425 net.cpp:148] Top shape: 24 832 7 7 (978432)
I0403 16:13:46.465960 17425 net.cpp:148] Top shape: 24 832 7 7 (978432)
I0403 16:13:46.465978 17425 net.cpp:148] Top shape: 24 832 7 7 (978432)
I0403 16:13:46.465997 17425 net.cpp:148] Top shape: 24 832 7 7 (978432)
I0403 16:13:46.466014 17425 net.cpp:156] Memory required for data: 1325241888
I0403 16:13:46.466032 17425 layer_factory.hpp:77] Creating layer inception_5b/1x1
I0403 16:13:46.466056 17425 net.cpp:91] Creating Layer inception_5b/1x1
I0403 16:13:46.466078 17425 net.cpp:425] inception_5b/1x1 <- inception_5a/output_inception_5a/output_0_split_0
I0403 16:13:46.466101 17425 net.cpp:399] inception_5b/1x1 -> inception_5b/1x1
I0403 16:13:46.470768 17425 net.cpp:141] Setting up inception_5b/1x1
I0403 16:13:46.470805 17425 net.cpp:148] Top shape: 24 384 7 7 (451584)
I0403 16:13:46.470825 17425 net.cpp:156] Memory required for data: 1327048224
I0403 16:13:46.470847 17425 layer_factory.hpp:77] Creating layer inception_5b/relu_1x1
I0403 16:13:46.470872 17425 net.cpp:91] Creating Layer inception_5b/relu_1x1
I0403 16:13:46.470892 17425 net.cpp:425] inception_5b/relu_1x1 <- inception_5b/1x1
I0403 16:13:46.470913 17425 net.cpp:386] inception_5b/relu_1x1 -> inception_5b/1x1 (in-place)
I0403 16:13:46.471284 17425 net.cpp:141] Setting up inception_5b/relu_1x1
I0403 16:13:46.471318 17425 net.cpp:148] Top shape: 24 384 7 7 (451584)
I0403 16:13:46.471335 17425 net.cpp:156] Memory required for data: 1328854560
I0403 16:13:46.471354 17425 layer_factory.hpp:77] Creating layer inception_5b/3x3_reduce
I0403 16:13:46.471381 17425 net.cpp:91] Creating Layer inception_5b/3x3_reduce
I0403 16:13:46.471403 17425 net.cpp:425] inception_5b/3x3_reduce <- inception_5a/output_inception_5a/output_0_split_1
I0403 16:13:46.471429 17425 net.cpp:399] inception_5b/3x3_reduce -> inception_5b/3x3_reduce
I0403 16:13:46.474773 17425 net.cpp:141] Setting up inception_5b/3x3_reduce
I0403 16:13:46.474810 17425 net.cpp:148] Top shape: 24 192 7 7 (225792)
I0403 16:13:46.474829 17425 net.cpp:156] Memory required for data: 1329757728
I0403 16:13:46.474851 17425 layer_factory.hpp:77] Creating layer inception_5b/relu_3x3_reduce
I0403 16:13:46.474875 17425 net.cpp:91] Creating Layer inception_5b/relu_3x3_reduce
I0403 16:13:46.474895 17425 net.cpp:425] inception_5b/relu_3x3_reduce <- inception_5b/3x3_reduce
I0403 16:13:46.474916 17425 net.cpp:386] inception_5b/relu_3x3_reduce -> inception_5b/3x3_reduce (in-place)
I0403 16:13:46.475152 17425 net.cpp:141] Setting up inception_5b/relu_3x3_reduce
I0403 16:13:46.475183 17425 net.cpp:148] Top shape: 24 192 7 7 (225792)
I0403 16:13:46.475203 17425 net.cpp:156] Memory required for data: 1330660896
I0403 16:13:46.475221 17425 layer_factory.hpp:77] Creating layer inception_5b/3x3
I0403 16:13:46.475249 17425 net.cpp:91] Creating Layer inception_5b/3x3
I0403 16:13:46.475281 17425 net.cpp:425] inception_5b/3x3 <- inception_5b/3x3_reduce
I0403 16:13:46.475304 17425 net.cpp:399] inception_5b/3x3 -> inception_5b/3x3
I0403 16:13:46.483654 17425 net.cpp:141] Setting up inception_5b/3x3
I0403 16:13:46.483688 17425 net.cpp:148] Top shape: 24 384 7 7 (451584)
I0403 16:13:46.483708 17425 net.cpp:156] Memory required for data: 1332467232
I0403 16:13:46.483731 17425 layer_factory.hpp:77] Creating layer inception_5b/relu_3x3
I0403 16:13:46.483754 17425 net.cpp:91] Creating Layer inception_5b/relu_3x3
I0403 16:13:46.483774 17425 net.cpp:425] inception_5b/relu_3x3 <- inception_5b/3x3
I0403 16:13:46.483796 17425 net.cpp:386] inception_5b/relu_3x3 -> inception_5b/3x3 (in-place)
I0403 16:13:46.484159 17425 net.cpp:141] Setting up inception_5b/relu_3x3
I0403 16:13:46.484192 17425 net.cpp:148] Top shape: 24 384 7 7 (451584)
I0403 16:13:46.484210 17425 net.cpp:156] Memory required for data: 1334273568
I0403 16:13:46.484230 17425 layer_factory.hpp:77] Creating layer inception_5b/5x5_reduce
I0403 16:13:46.484277 17425 net.cpp:91] Creating Layer inception_5b/5x5_reduce
I0403 16:13:46.484304 17425 net.cpp:425] inception_5b/5x5_reduce <- inception_5a/output_inception_5a/output_0_split_2
I0403 16:13:46.484328 17425 net.cpp:399] inception_5b/5x5_reduce -> inception_5b/5x5_reduce
I0403 16:13:46.485929 17425 net.cpp:141] Setting up inception_5b/5x5_reduce
I0403 16:13:46.485963 17425 net.cpp:148] Top shape: 24 48 7 7 (56448)
I0403 16:13:46.485983 17425 net.cpp:156] Memory required for data: 1334499360
I0403 16:13:46.486004 17425 layer_factory.hpp:77] Creating layer inception_5b/relu_5x5_reduce
I0403 16:13:46.486028 17425 net.cpp:91] Creating Layer inception_5b/relu_5x5_reduce
I0403 16:13:46.486049 17425 net.cpp:425] inception_5b/relu_5x5_reduce <- inception_5b/5x5_reduce
I0403 16:13:46.486070 17425 net.cpp:386] inception_5b/relu_5x5_reduce -> inception_5b/5x5_reduce (in-place)
I0403 16:13:46.486532 17425 net.cpp:141] Setting up inception_5b/relu_5x5_reduce
I0403 16:13:46.486565 17425 net.cpp:148] Top shape: 24 48 7 7 (56448)
I0403 16:13:46.486590 17425 net.cpp:156] Memory required for data: 1334725152
I0403 16:13:46.486608 17425 layer_factory.hpp:77] Creating layer inception_5b/5x5
I0403 16:13:46.486634 17425 net.cpp:91] Creating Layer inception_5b/5x5
I0403 16:13:46.486654 17425 net.cpp:425] inception_5b/5x5 <- inception_5b/5x5_reduce
I0403 16:13:46.486677 17425 net.cpp:399] inception_5b/5x5 -> inception_5b/5x5
I0403 16:13:46.489215 17425 net.cpp:141] Setting up inception_5b/5x5
I0403 16:13:46.489264 17425 net.cpp:148] Top shape: 24 128 7 7 (150528)
I0403 16:13:46.489284 17425 net.cpp:156] Memory required for data: 1335327264
I0403 16:13:46.489313 17425 layer_factory.hpp:77] Creating layer inception_5b/relu_5x5
I0403 16:13:46.489334 17425 net.cpp:91] Creating Layer inception_5b/relu_5x5
I0403 16:13:46.489354 17425 net.cpp:425] inception_5b/relu_5x5 <- inception_5b/5x5
I0403 16:13:46.489378 17425 net.cpp:386] inception_5b/relu_5x5 -> inception_5b/5x5 (in-place)
I0403 16:13:46.489627 17425 net.cpp:141] Setting up inception_5b/relu_5x5
I0403 16:13:46.489657 17425 net.cpp:148] Top shape: 24 128 7 7 (150528)
I0403 16:13:46.489676 17425 net.cpp:156] Memory required for data: 1335929376
I0403 16:13:46.489694 17425 layer_factory.hpp:77] Creating layer inception_5b/pool
I0403 16:13:46.489717 17425 net.cpp:91] Creating Layer inception_5b/pool
I0403 16:13:46.489737 17425 net.cpp:425] inception_5b/pool <- inception_5a/output_inception_5a/output_0_split_3
I0403 16:13:46.489763 17425 net.cpp:399] inception_5b/pool -> inception_5b/pool
I0403 16:13:46.489853 17425 net.cpp:141] Setting up inception_5b/pool
I0403 16:13:46.489883 17425 net.cpp:148] Top shape: 24 832 7 7 (978432)
I0403 16:13:46.489900 17425 net.cpp:156] Memory required for data: 1339843104
I0403 16:13:46.489918 17425 layer_factory.hpp:77] Creating layer inception_5b/pool_proj
I0403 16:13:46.489948 17425 net.cpp:91] Creating Layer inception_5b/pool_proj
I0403 16:13:46.489969 17425 net.cpp:425] inception_5b/pool_proj <- inception_5b/pool
I0403 16:13:46.489991 17425 net.cpp:399] inception_5b/pool_proj -> inception_5b/pool_proj
I0403 16:13:46.492846 17425 net.cpp:141] Setting up inception_5b/pool_proj
I0403 16:13:46.492882 17425 net.cpp:148] Top shape: 24 128 7 7 (150528)
I0403 16:13:46.492904 17425 net.cpp:156] Memory required for data: 1340445216
I0403 16:13:46.492926 17425 layer_factory.hpp:77] Creating layer inception_5b/relu_pool_proj
I0403 16:13:46.492949 17425 net.cpp:91] Creating Layer inception_5b/relu_pool_proj
I0403 16:13:46.492969 17425 net.cpp:425] inception_5b/relu_pool_proj <- inception_5b/pool_proj
I0403 16:13:46.492990 17425 net.cpp:386] inception_5b/relu_pool_proj -> inception_5b/pool_proj (in-place)
I0403 16:13:46.493366 17425 net.cpp:141] Setting up inception_5b/relu_pool_proj
I0403 16:13:46.493398 17425 net.cpp:148] Top shape: 24 128 7 7 (150528)
I0403 16:13:46.493422 17425 net.cpp:156] Memory required for data: 1341047328
I0403 16:13:46.493439 17425 layer_factory.hpp:77] Creating layer inception_5b/output
I0403 16:13:46.493460 17425 net.cpp:91] Creating Layer inception_5b/output
I0403 16:13:46.493497 17425 net.cpp:425] inception_5b/output <- inception_5b/1x1
I0403 16:13:46.493520 17425 net.cpp:425] inception_5b/output <- inception_5b/3x3
I0403 16:13:46.493541 17425 net.cpp:425] inception_5b/output <- inception_5b/5x5
I0403 16:13:46.493559 17425 net.cpp:425] inception_5b/output <- inception_5b/pool_proj
I0403 16:13:46.493587 17425 net.cpp:399] inception_5b/output -> inception_5b/output
I0403 16:13:46.493654 17425 net.cpp:141] Setting up inception_5b/output
I0403 16:13:46.493685 17425 net.cpp:148] Top shape: 24 1024 7 7 (1204224)
I0403 16:13:46.493701 17425 net.cpp:156] Memory required for data: 1345864224
I0403 16:13:46.493719 17425 layer_factory.hpp:77] Creating layer pool5/7x7_s1
I0403 16:13:46.493743 17425 net.cpp:91] Creating Layer pool5/7x7_s1
I0403 16:13:46.493763 17425 net.cpp:425] pool5/7x7_s1 <- inception_5b/output
I0403 16:13:46.493787 17425 net.cpp:399] pool5/7x7_s1 -> pool5/7x7_s1
I0403 16:13:46.494053 17425 net.cpp:141] Setting up pool5/7x7_s1
I0403 16:13:46.494087 17425 net.cpp:148] Top shape: 24 1024 1 1 (24576)
I0403 16:13:46.494107 17425 net.cpp:156] Memory required for data: 1345962528
I0403 16:13:46.494124 17425 layer_factory.hpp:77] Creating layer pool5/drop_7x7_s1
I0403 16:13:46.494145 17425 net.cpp:91] Creating Layer pool5/drop_7x7_s1
I0403 16:13:46.494163 17425 net.cpp:425] pool5/drop_7x7_s1 <- pool5/7x7_s1
I0403 16:13:46.494184 17425 net.cpp:386] pool5/drop_7x7_s1 -> pool5/7x7_s1 (in-place)
I0403 16:13:46.494246 17425 net.cpp:141] Setting up pool5/drop_7x7_s1
I0403 16:13:46.494287 17425 net.cpp:148] Top shape: 24 1024 1 1 (24576)
I0403 16:13:46.494304 17425 net.cpp:156] Memory required for data: 1346060832
I0403 16:13:46.494323 17425 layer_factory.hpp:77] Creating layer loss3/classifier_plantvillage
I0403 16:13:46.494349 17425 net.cpp:91] Creating Layer loss3/classifier_plantvillage
I0403 16:13:46.494369 17425 net.cpp:425] loss3/classifier_plantvillage <- pool5/7x7_s1
I0403 16:13:46.494391 17425 net.cpp:399] loss3/classifier_plantvillage -> loss3/classifier_plantvillage
I0403 16:13:46.494930 17425 net.cpp:141] Setting up loss3/classifier_plantvillage
I0403 16:13:46.494959 17425 net.cpp:148] Top shape: 24 38 (912)
I0403 16:13:46.494977 17425 net.cpp:156] Memory required for data: 1346064480
I0403 16:13:46.494999 17425 layer_factory.hpp:77] Creating layer loss3/classifier_plantvillage_loss3/classifier_plantvillage_0_split
I0403 16:13:46.495020 17425 net.cpp:91] Creating Layer loss3/classifier_plantvillage_loss3/classifier_plantvillage_0_split
I0403 16:13:46.495039 17425 net.cpp:425] loss3/classifier_plantvillage_loss3/classifier_plantvillage_0_split <- loss3/classifier_plantvillage
I0403 16:13:46.495064 17425 net.cpp:399] loss3/classifier_plantvillage_loss3/classifier_plantvillage_0_split -> loss3/classifier_plantvillage_loss3/classifier_plantvillage_0_split_0
I0403 16:13:46.495090 17425 net.cpp:399] loss3/classifier_plantvillage_loss3/classifier_plantvillage_0_split -> loss3/classifier_plantvillage_loss3/classifier_plantvillage_0_split_1
I0403 16:13:46.495116 17425 net.cpp:399] loss3/classifier_plantvillage_loss3/classifier_plantvillage_0_split -> loss3/classifier_plantvillage_loss3/classifier_plantvillage_0_split_2
I0403 16:13:46.495142 17425 net.cpp:399] loss3/classifier_plantvillage_loss3/classifier_plantvillage_0_split -> loss3/classifier_plantvillage_loss3/classifier_plantvillage_0_split_3
I0403 16:13:46.495276 17425 net.cpp:141] Setting up loss3/classifier_plantvillage_loss3/classifier_plantvillage_0_split
I0403 16:13:46.495308 17425 net.cpp:148] Top shape: 24 38 (912)
I0403 16:13:46.495329 17425 net.cpp:148] Top shape: 24 38 (912)
I0403 16:13:46.495348 17425 net.cpp:148] Top shape: 24 38 (912)
I0403 16:13:46.495367 17425 net.cpp:148] Top shape: 24 38 (912)
I0403 16:13:46.495384 17425 net.cpp:156] Memory required for data: 1346079072
I0403 16:13:46.495401 17425 layer_factory.hpp:77] Creating layer loss1/loss
I0403 16:13:46.495427 17425 net.cpp:91] Creating Layer loss1/loss
I0403 16:13:46.495448 17425 net.cpp:425] loss1/loss <- loss1/classifier_plantvillage_loss1/classifier_plantvillage_0_split_0
I0403 16:13:46.495486 17425 net.cpp:425] loss1/loss <- label_data_1_split_0
…
