…
I0403 16:57:36.615219 19824 net.cpp:313] The NetState phase (1) differed from the phase (0) specified by a rule in layer data
I0403 16:57:36.616310 19824 net.cpp:49] Initializing net from parameters: 
state {
  phase: TEST
}
layer {
  name: "data"
  type: "Data"
  top: "data"
  top: "label"
  include {
    phase: TEST
  }
  transform_param {
    mirror: false
    crop_size: 224
    mean_file: "/home/mohanty/data/final_dataset/lmdb/segmented-20-80/mean.binaryproto"
  }
  data_param {
    source: "/home/mohanty/data/final_dataset/lmdb/segmented-20-80/test_db"
    batch_size: 24
    backend: LMDB
  }
}
layer {
  name: "conv1/7x7_s2"
  type: "Convolution"
  bottom: "data"
  top: "conv1/7x7_s2"
  param {
    lr_mult: 1
    decay_mult: 1
  }
  param {
    lr_mult: 2
    decay_mult: 0
  }
  convolution_param {
    num_output: 64
    pad: 3
    kernel_size: 7
    stride: 2
    weight_filler {
      type: "xavier"
      std: 0.1
    }
    bias_filler {
      type: "constant"
      value: 0.2
    }
  }
}
layer {
  name: "conv1/relu_7x7"
  type: "ReLU"
  bottom: "conv1/7x7_s2"
  top: "conv1/7x7_s2"
}
layer {
  name: "pool1/3x3_s2"
  type: "Pooling"
  bottom: "conv1/7x7_s2"
  top: "pool1/3x3_s2"
  pooling_param {
    pool: MAX
    kernel_size: 3
    stride: 2
  }
}
layer {
  name: "pool1/norm1"
  type: "LRN"
  bottom: "pool1/3x3_s2"
  top: "pool1/norm1"
  lrn_param {
    local_size: 5
    alpha: 0.0001
    beta: 0.75
  }
}
layer {
  name: "conv2/3x3_reduce"
  type: "Convolution"
  bottom: "pool1/norm1"
  top: "conv2/3x3_reduce"
  param {
    lr_mult: 1
    decay_mult: 1
  }
  param {
    lr_mult: 2
    decay_mult: 0
  }
  convolution_param {
    num_output: 64
    kernel_size: 1
    weight_filler {
      type: "xavier"
      std: 0.1
    }
    bias_filler {
      type: "constant"
      value: 0.2
    }
  }
}
layer {
  name: "conv2/relu_3x3_reduce"
  type: "ReLU"
  bottom: "conv2/3x3_reduce"
  top: "conv2/3x3_reduce"
}
layer {
  name: "conv2/3x3"
  type: "Convolution"
  bottom: "conv2/3x3_reduce"
  top: "conv2/3x3"
  param {
    lr_mult: 1
    decay_mult: 1
  }
  param {
    lr_mult: 2
    decay_mult: 0
  }
  convolution_param {
    num_output: 192
    pad: 1
    kernel_size: 3
    weight_filler {
      type: "xavier"
      std: 0.03
    }
    bias_filler {
      type: "constant"
      value: 0.2
    }
  }
}
layer {
  name: "conv2/relu_3x3"
  type: "ReLU"
  bottom: "conv2/3x3"
  top: "conv2/3x3"
}
layer {
  name: "conv2/norm2"
  type: "LRN"
  bottom: "conv2/3x3"
  top: "conv2/norm2"
  lrn_param {
    local_size: 5
    alpha: 0.0001
    beta: 0.75
  }
}
layer {
  name: "pool2/3x3_s2"
  type: "Pooling"
  bottom: "conv2/norm2"
  top: "pool2/3x3_s2"
  pooling_param {
    pool: MAX
    kernel_size: 3
    stride: 2
  }
}
layer {
  name: "inception_3a/1x1"
  type: "Convolution"
  bottom: "pool2/3x3_s2"
  top: "inception_3a/1x1"
  param {
    lr_mult: 1
    decay_mult: 1
  }
  param {
    lr_mult: 2
    decay_mult: 0
  }
  convolution_param {
    num_output: 64
    kernel_size: 1
    weight_filler {
      type: "xavier"
      std: 0.03
    }
    bias_filler {
      type: "constant"
      value: 0.2
    }
  }
}
layer {
  name: "inception_3a/relu_1x1"
  type: "ReLU"
  bottom: "inception_3a/1x1"
  top: "inception_3a/1x1"
}
layer {
  name: "inception_3a/3x3_reduce"
  type: "Convolution"
  bottom: "pool2/3x3_s2"
  top: "inception_3a/3x3_reduce"
  param {
    lr_mult: 1
    decay_mult: 1
  }
  param {
    lr_mult: 2
    decay_mult: 0
  }
  convolution_param {
    num_output: 96
    kernel_size: 1
    weight_filler {
      type: "xavier"
      std: 0.09
    }
    bias_filler {
      type: "constant"
      value: 0.2
    }
  }
}
layer {
  name: "inception_3a/relu_3x3_reduce"
  type: "ReLU"
  bottom: "inception_3a/3x3_reduce"
  top: "inception_3a/3x3_reduce"
}
layer {
  name: "inception_3a/3x3"
  type: "Convolution"
  bottom: "inception_3a/3x3_reduce"
  top: "inception_3a/3x3"
  param {
    lr_mult: 1
    decay_mult: 1
  }
  param {
    lr_mult: 2
    decay_mult: 0
  }
  convolution_param {
    num_output: 128
    pad: 1
    kernel_size: 3
    weight_filler {
      type: "xavier"
      std: 0.03
    }
    bias_filler {
      type: "constant"
      value: 0.2
    }
  }
}
layer {
  name: "inception_3a/relu_3x3"
  type: "ReLU"
  bottom: "inception_3a/3x3"
  top: "inception_3a/3x3"
}
layer {
  name: "inception_3a/5x5_reduce"
  type: "Convolution"
  bottom: "pool2/3x3_s2"
  top: "inception_3a/5x5_reduce"
  param {
    lr_mult: 1
    decay_mult: 1
  }
  param {
    lr_mult: 2
    decay_mult: 0
  }
  convolution_param {
    num_output: 16
    kernel_size: 1
    weight_filler {
      type: "xavier"
      std: 0.2
    }
    bias_filler {
      type: "constant"
      value: 0.2
    }
  }
}
layer {
  name: "inception_3a/relu_5x5_reduce"
  type: "ReLU"
  bottom: "inception_3a/5x5_reduce"
  top: "inception_3a/5x5_reduce"
}
layer {
  name: "inception_3a/5x5"
  type: "Convolution"
  bottom: "inception_3a/5x5_reduce"
  top: "inception_3a/5x5"
  param {
    lr_mult: 1
    decay_mult: 1
  }
  param {
    lr_mult: 2
    decay_mult: 0
  }
  convolution_param {
    num_output: 32
    pad: 2
    kernel_size: 5
    weight_filler {
      type: "xavier"
      std: 0.03
    }
    bias_filler {
      type: "constant"
      value: 0.2
    }
  }
}
layer {
  name: "inception_3a/relu_5x5"
  type: "ReLU"
  bottom: "inception_3a/5x5"
  top: "inception_3a/5x5"
}
layer {
  name: "inception_3a/pool"
  type: "Pooling"
  bottom: "pool2/3x3_s2"
  top: "inception_3a/pool"
  pooling_param {
    pool: MAX
    kernel_size: 3
    stride: 1
    pad: 1
  }
}
layer {
  name: "inception_3a/pool_proj"
  type: "Convolution"
  bottom: "inception_3a/pool"
  top: "inception_3a/pool_proj"
  param {
    lr_mult: 1
    decay_mult: 1
  }
  param {
    lr_mult: 2
    decay_mult: 0
  }
  convolution_param {
    num_output: 32
    kernel_size: 1
    weight_filler {
      type: "xavier"
      std: 0.1
    }
    bias_filler {
      type: "constant"
      value: 0.2
    }
  }
}
layer {
  name: "inception_3a/relu_pool_proj"
  type: "ReLU"
  bottom: "inception_3a/pool_proj"
  top: "inception_3a/pool_proj"
}
layer {
  name: "inception_3a/output"
  type: "Concat"
  bottom: "inception_3a/1x1"
  bottom: "inception_3a/3x3"
  bottom: "inception_3a/5x5"
  bottom: "inception_3a/pool_proj"
  top: "inception_3a/output"
}
layer {
  name: "inception_3b/1x1"
  type: "Convolution"
  bottom: "inception_3a/output"
  top: "inception_3b/1x1"
  param {
    lr_mult: 1
    decay_mult: 1
  }
  param {
    lr_mult: 2
    decay_mult: 0
  }
  convolution_param {
    num_output: 128
    kernel_size: 1
    weight_filler {
      type: "xavier"
      std: 0.03
    }
    bias_filler {
      type: "constant"
      value: 0.2
    }
  }
}
layer {
  name: "inception_3b/relu_1x1"
  type: "ReLU"
  bottom: "inception_3b/1x1"
  top: "inception_3b/1x1"
}
layer {
  name: "inception_3b/3x3_reduce"
  type: "Convolution"
  bottom: "inception_3a/output"
  top: "inception_3b/3x3_reduce"
  param {
    lr_mult: 1
    decay_mult: 1
  }
  param {
    lr_mult: 2
    decay_mult: 0
  }
  convolution_param {
    num_output: 128
    kernel_size: 1
    weight_filler {
      type: "xavier"
      std: 0.09
    }
    bias_filler {
      type: "constant"
      value: 0.2
    }
  }
}
layer {
  name: "inception_3b/relu_3x3_reduce"
  type: "ReLU"
  bottom: "inception_3b/3x3_reduce"
  top: "inception_3b/3x3_reduce"
}
layer {
  name: "inception_3b/3x3"
  type: "Convolution"
  bottom: "inception_3b/3x3_reduce"
  top: "inception_3b/3x3"
  param {
    lr_mult: 1
    decay_mult: 1
  }
  param {
    lr_mult: 2
    decay_mult: 0
  }
  convolution_param {
    num_output: 192
    pad: 1
    kernel_size: 3
    weight_filler {
      type: "xavier"
      std: 0.03
    }
    bias_filler {
      type: "constant"
      value: 0.2
    }
  }
}
layer {
  name: "inception_3b/relu_3x3"
  type: "ReLU"
  bottom: "inception_3b/3x3"
  top: "inception_3b/3x3"
}
layer {
  name: "inception_3b/5x5_reduce"
  type: "Convolution"
  bottom: "inception_3a/output"
  top: "inception_3b/5x5_reduce"
  param {
    lr_mult: 1
    decay_mult: 1
  }
  param {
    lr_mult: 2
    decay_mult: 0
  }
  convolution_param {
    num_output: 32
    kernel_size: 1
    weight_filler {
      type: "xavier"
      std: 0.2
    }
    bias_filler {
      type: "constant"
      value: 0.2
    }
  }
}
layer {
  name: "inception_3b/relu_5x5_reduce"
  type: "ReLU"
  bottom: "inception_3b/5x5_reduce"
  top: "inception_3b/5x5_reduce"
}
layer {
  name: "inception_3b/5x5"
  type: "Convolution"
  bottom: "inception_3b/5x5_reduce"
  top: "inception_3b/5x5"
  param {
    lr_mult: 1
    decay_mult: 1
  }
  param {
    lr_mult: 2
    decay_mult: 0
  }
  convolution_param {
    num_output: 96
    pad: 2
    kernel_size: 5
    weight_filler {
      type: "xavier"
      std: 0.03
    }
    bias_filler {
      type: "constant"
      value: 0.2
    }
  }
}
layer {
  name: "inception_3b/relu_5x5"
  type: "ReLU"
  bottom: "inception_3b/5x5"
  top: "inception_3b/5x5"
}
layer {
  name: "inception_3b/pool"
  type: "Pooling"
  bottom: "inception_3a/output"
  top: "inception_3b/pool"
  pooling_param {
    pool: MAX
    kernel_size: 3
    stride: 1
    pad: 1
  }
}
layer {
  name: "inception_3b/pool_proj"
  type: "Convolution"
  bottom: "inception_3b/pool"
  top: "inception_3b/pool_proj"
  param {
    lr_mult: 1
    decay_mult: 1
  }
  param {
    lr_mult: 2
    decay_mult: 0
  }
  convolution_param {
    num_output: 64
    kernel_size: 1
    weight_filler {
      type: "xavier"
      std: 0.1
    }
    bias_filler {
      type: "constant"
      value: 0.2
    }
  }
}
layer {
  name: "inception_3b/relu_pool_proj"
  type: "ReLU"
  bottom: "inception_3b/pool_proj"
  top: "inception_3b/pool_proj"
}
layer {
  name: "inception_3b/output"
  type: "Concat"
  bottom: "inception_3b/1x1"
  bottom: "inception_3b/3x3"
  bottom: "inception_3b/5x5"
  bottom: "inception_3b/pool_proj"
  top: "inception_3b/output"
}
layer {
  name: "pool3/3x3_s2"
  type: "Pooling"
  bottom: "inception_3b/output"
  top: "pool3/3x3_s2"
  pooling_param {
    pool: MAX
    kernel_size: 3
    stride: 2
  }
}
layer {
  name: "inception_4a/1x1"
  type: "Convolution"
  bottom: "pool3/3x3_s2"
  top: "inception_4a/1x1"
  param {
    lr_mult: 1
    decay_mult: 1
  }
  param {
    lr_mult: 2
    decay_mult: 0
  }
  convolution_param {
    num_output: 192
    kernel_size: 1
    weight_filler {
      type: "xavier"
      std: 0.03
    }
    bias_filler {
      type: "constant"
      value: 0.2
    }
  }
}
layer {
  name: "inception_4a/relu_1x1"
  type: "ReLU"
  bottom: "inception_4a/1x1"
  top: "inception_4a/1x1"
}
layer {
  name: "inception_4a/3x3_reduce"
  type: "Convolution"
  bottom: "pool3/3x3_s2"
  top: "inception_4a/3x3_reduce"
  param {
    lr_mult: 1
    decay_mult: 1
  }
  param {
    lr_mult: 2
    decay_mult: 0
  }
  convolution_param {
    num_output: 96
    kernel_size: 1
    weight_filler {
      type: "xavier"
      std: 0.09
    }
    bias_filler {
      type: "constant"
      value: 0.2
    }
  }
}
layer {
  name: "inception_4a/relu_3x3_reduce"
  type: "ReLU"
  bottom: "inception_4a/3x3_reduce"
  top: "inception_4a/3x3_reduce"
}
layer {
  name: "inception_4a/3x3"
  type: "Convolution"
  bottom: "inception_4a/3x3_reduce"
  top: "inception_4a/3x3"
  param {
    lr_mult: 1
    decay_mult: 1
  }
  param {
    lr_mult: 2
    decay_mult: 0
  }
  convolution_param {
    num_output: 208
    pad: 1
    kernel_size: 3
    weight_filler {
      type: "xavier"
      std: 0.03
    }
    bias_filler {
      type: "constant"
      value: 0.2
    }
  }
}
layer {
  name: "inception_4a/relu_3x3"
  type: "ReLU"
  bottom: "inception_4a/3x3"
  top: "inception_4a/3x3"
}
layer {
  name: "inception_4a/5x5_reduce"
  type: "Convolution"
  bottom: "pool3/3x3_s2"
  top: "inception_4a/5x5_reduce"
  param {
    lr_mult: 1
    decay_mult: 1
  }
  param {
    lr_mult: 2
    decay_mult: 0
  }
  convolution_param {
    num_output: 16
    kernel_size: 1
    weight_filler {
      type: "xavier"
      std: 0.2
    }
    bias_filler {
      type: "constant"
      value: 0.2
    }
  }
}
layer {
  name: "inception_4a/relu_5x5_reduce"
  type: "ReLU"
  bottom: "inception_4a/5x5_reduce"
  top: "inception_4a/5x5_reduce"
}
layer {
  name: "inception_4a/5x5"
  type: "Convolution"
  bottom: "inception_4a/5x5_reduce"
  top: "inception_4a/5x5"
  param {
    lr_mult: 1
    decay_mult: 1
  }
  param {
    lr_mult: 2
    decay_mult: 0
  }
  convolution_param {
    num_output: 48
    pad: 2
    kernel_size: 5
    weight_filler {
      type: "xavier"
      std: 0.03
    }
    bias_filler {
      type: "constant"
      value: 0.2
    }
  }
}
layer {
  name: "inception_4a/relu_5x5"
  type: "ReLU"
  bottom: "inception_4a/5x5"
  top: "inception_4a/5x5"
}
layer {
  name: "inception_4a/pool"
  type: "Pooling"
  bottom: "pool3/3x3_s2"
  top: "inception_4a/pool"
  pooling_param {
    pool: MAX
    kernel_size: 3
    stride: 1
    pad: 1
  }
}
layer {
  name: "inception_4a/pool_proj"
  type: "Convolution"
  bottom: "inception_4a/pool"
  top: "inception_4a/pool_proj"
  param {
    lr_mult: 1
    decay_mult: 1
  }
  param {
    lr_mult: 2
    decay_mult: 0
  }
  convolution_param {
    num_output: 64
    kernel_size: 1
    weight_filler {
      type: "xavier"
      std: 0.1
    }
    bias_filler {
      type: "constant"
      value: 0.2
    }
  }
}
layer {
  name: "inception_4a/relu_pool_proj"
  type: "ReLU"
  bottom: "inception_4a/pool_proj"
  top: "inception_4a/pool_proj"
}
layer {
  name: "inception_4a/output"
  type: "Concat"
  bottom: "inception_4a/1x1"
  bottom: "inception_4a/3x3"
  bottom: "inception_4a/5x5"
  bottom: "inception_4a/pool_proj"
  top: "inception_4a/output"
}
layer {
  name: "loss1/ave_pool"
  type: "Pooling"
  bottom: "inception_4a/output"
  top: "loss1/ave_pool"
  pooling_param {
    pool: AVE
    kernel_size: 5
    stride: 3
  }
}
layer {
  name: "loss1/conv"
  type: "Convolution"
  bottom: "loss1/ave_pool"
  top: "loss1/conv"
  param {
    lr_mult: 1
    decay_mult: 1
  }
  param {
    lr_mult: 2
    decay_mult: 0
  }
  convolution_param {
    num_output: 128
    kernel_size: 1
    weight_filler {
      type: "xavier"
      std: 0.08
    }
    bias_filler {
      type: "constant"
      value: 0.2
    }
  }
}
layer {
  name: "loss1/relu_conv"
  type: "ReLU"
  bottom: "loss1/conv"
  top: "loss1/conv"
}
layer {
  name: "loss1/fc"
  type: "InnerProduct"
  bottom: "loss1/conv"
  top: "loss1/fc"
  param {
    lr_mult: 1
    decay_mult: 1
  }
  param {
    lr_mult: 2
    decay_mult: 0
  }
  inner_product_param {
    num_output: 1024
    weight_filler {
      type: "xavier"
      std: 0.02
    }
    bias_filler {
      type: "constant"
      value: 0.2
    }
  }
}
layer {
  name: "loss1/relu_fc"
  type: "ReLU"
  bottom: "loss1/fc"
  top: "loss1/fc"
}
layer {
  name: "loss1/drop_fc"
  type: "Dropout"
  bottom: "loss1/fc"
  top: "loss1/fc"
  dropout_param {
    dropout_ratio: 0.7
  }
}
layer {
  name: "loss1/classifier_plantvillage"
  type: "InnerProduct"
  bottom: "loss1/fc"
  top: "loss1/classifier_plantvillage"
  param {
    lr_mult: 1
    decay_mult: 1
  }
  param {
    lr_mult: 2
    decay_mult: 0
  }
  inner_product_param {
    num_output: 38
    weight_filler {
      type: "xavier"
      std: 0.0009765625
    }
    bias_filler {
      type: "constant"
      value: 0
    }
  }
}
layer {
  name: "inception_4b/1x1"
  type: "Convolution"
  bottom: "inception_4a/output"
  top: "inception_4b/1x1"
  param {
    lr_mult: 1
    decay_mult: 1
  }
  param {
    lr_mult: 2
    decay_mult: 0
  }
  convolution_param {
    num_output: 160
    kernel_size: 1
    weight_filler {
      type: "xavier"
      std: 0.03
    }
    bias_filler {
      type: "constant"
      value: 0.2
    }
  }
}
layer {
  name: "inception_4b/relu_1x1"
  type: "ReLU"
  bottom: "inception_4b/1x1"
  top: "inception_4b/1x1"
}
layer {
  name: "inception_4b/3x3_reduce"
  type: "Convolution"
  bottom: "inception_4a/output"
  top: "inception_4b/3x3_reduce"
  param {
    lr_mult: 1
    decay_mult: 1
  }
  param {
    lr_mult: 2
    decay_mult: 0
  }
  convolution_param {
    num_output: 112
    kernel_size: 1
    weight_filler {
      type: "xavier"
      std: 0.09
    }
    bias_filler {
      type: "constant"
      value: 0.2
    }
  }
}
layer {
  name: "inception_4b/relu_3x3_reduce"
  type: "ReLU"
  bottom: "inception_4b/3x3_reduce"
  top: "inception_4b/3x3_reduce"
}
layer {
  name: "inception_4b/3x3"
  type: "Convolution"
  bottom: "inception_4b/3x3_reduce"
  top: "inception_4b/3x3"
  param {
    lr_mult: 1
    decay_mult: 1
  }
  param {
    lr_mult: 2
    decay_mult: 0
  }
  convolution_param {
    num_output: 224
    pad: 1
    kernel_size: 3
    weight_filler {
      type: "xavier"
      std: 0.03
    }
    bias_filler {
      type: "constant"
      value: 0.2
    }
  }
}
layer {
  name: "inception_4b/relu_3x3"
  type: "ReLU"
  bottom: "inception_4b/3x3"
  top: "inception_4b/3x3"
}
layer {
  name: "inception_4b/5x5_reduce"
  type: "Convolution"
  bottom: "inception_4a/output"
  top: "inception_4b/5x5_reduce"
  param {
    lr_mult: 1
    decay_mult: 1
  }
  param {
    lr_mult: 2
    decay_mult: 0
  }
  convolution_param {
    num_output: 24
    kernel_size: 1
    weight_filler {
      type: "xavier"
      std: 0.2
    }
    bias_filler {
      type: "constant"
      value: 0.2
    }
  }
}
layer {
  name: "inception_4b/relu_5x5_reduce"
  type: "ReLU"
  bottom: "inception_4b/5x5_reduce"
  top: "inception_4b/5x5_reduce"
}
layer {
  name: "inception_4b/5x5"
  type: "Convolution"
  bottom: "inception_4b/5x5_reduce"
  top: "inception_4b/5x5"
  param {
    lr_mult: 1
    decay_mult: 1
  }
  param {
    lr_mult: 2
    decay_mult: 0
  }
  convolution_param {
    num_output: 64
    pad: 2
    kernel_size: 5
    weight_filler {
      type: "xavier"
      std: 0.03
    }
    bias_filler {
      type: "constant"
      value: 0.2
    }
  }
}
layer {
  name: "inception_4b/relu_5x5"
  type: "ReLU"
  bottom: "inception_4b/5x5"
  top: "inception_4b/5x5"
}
layer {
  name: "inception_4b/pool"
  type: "Pooling"
  bottom: "inception_4a/output"
  top: "inception_4b/pool"
  pooling_param {
    pool: MAX
    kernel_size: 3
    stride: 1
    pad: 1
  }
}
layer {
  name: "inception_4b/pool_proj"
  type: "Convolution"
  bottom: "inception_4b/pool"
  top: "inception_4b/pool_proj"
  param {
    lr_mult: 1
    decay_mult: 1
  }
  param {
    lr_mult: 2
    decay_mult: 0
  }
  convolution_param {
    num_output: 64
    kernel_size: 1
    weight_filler {
      type: "xavier"
      std: 0.1
    }
    bias_filler {
      type: "constant"
      value: 0.2
    }
  }
}
layer {
  name: "inception_4b/relu_pool_proj"
  type: "ReLU"
  bottom: "inception_4b/pool_proj"
  top: "inception_4b/pool_proj"
}
layer {
  name: "inception_4b/output"
  type: "Concat"
  bottom: "inception_4b/1x1"
  bottom: "inception_4b/3x3"
  bottom: "inception_4b/5x5"
  bottom: "inception_4b/pool_proj"
  top: "inception_4b/output"
}
layer {
  name: "inception_4c/1x1"
  type: "Convolution"
  bottom: "inception_4b/output"
  top: "inception_4c/1x1"
  param {
    lr_mult: 1
    decay_mult: 1
  }
  param {
    lr_mult: 2
    decay_mult: 0
  }
  convolution_param {
    num_output: 128
    kernel_size: 1
    weight_filler {
      type: "xavier"
      std: 0.03
    }
    bias_filler {
      type: "constant"
      value: 0.2
    }
  }
}
layer {
  name: "inception_4c/relu_1x1"
  type: "ReLU"
  bottom: "inception_4c/1x1"
  top: "inception_4c/1x1"
}
layer {
  name: "inception_4c/3x3_reduce"
  type: "Convolution"
  bottom: "inception_4b/output"
  top: "inception_4c/3x3_reduce"
  param {
    lr_mult: 1
    decay_mult: 1
  }
  param {
    lr_mult: 2
    decay_mult: 0
  }
  convolution_param {
    num_output: 128
    kernel_size: 1
    weight_filler {
      type: "xavier"
      std: 0.09
    }
    bias_filler {
      type: "constant"
      value: 0.2
    }
  }
}
layer {
  name: "inception_4c/relu_3x3_reduce"
  type: "ReLU"
  bottom: "inception_4c/3x3_reduce"
  top: "inception_4c/3x3_reduce"
}
layer {
  name: "inception_4c/3x3"
  type: "Convolution"
  bottom: "inception_4c/3x3_reduce"
  top: "inception_4c/3x3"
  param {
    lr_mult: 1
    decay_mult: 1
  }
  param {
    lr_mult: 2
    decay_mult: 0
  }
  convolution_param {
    num_output: 256
    pad: 1
    kernel_size: 3
    weight_filler {
      type: "xavier"
      std: 0.03
    }
    bias_filler {
      type: "constant"
      value: 0.2
    }
  }
}
layer {
  name: "inception_4c/relu_3x3"
  type: "ReLU"
  bottom: "inception_4c/3x3"
  top: "inception_4c/3x3"
}
layer {
  name: "inception_4c/5x5_reduce"
  type: "Convolution"
  bottom: "inception_4b/output"
  top: "inception_4c/5x5_reduce"
  param {
    lr_mult: 1
    decay_mult: 1
  }
  param {
    lr_mult: 2
    decay_mult: 0
  }
  convolution_param {
    num_output: 24
    kernel_size: 1
    weight_filler {
      type: "xavier"
      std: 0.2
    }
    bias_filler {
      type: "constant"
      value: 0.2
    }
  }
}
layer {
  name: "inception_4c/relu_5x5_reduce"
  type: "ReLU"
  bottom: "inception_4c/5x5_reduce"
  top: "inception_4c/5x5_reduce"
}
layer {
  name: "inception_4c/5x5"
  type: "Convolution"
  bottom: "inception_4c/5x5_reduce"
  top: "inception_4c/5x5"
  param {
    lr_mult: 1
    decay_mult: 1
  }
  param {
    lr_mult: 2
    decay_mult: 0
  }
  convolution_param {
    num_output: 64
    pad: 2
    kernel_size: 5
    weight_filler {
      type: "xavier"
      std: 0.03
    }
    bias_filler {
      type: "constant"
      value: 0.2
    }
  }
}
layer {
  name: "inception_4c/relu_5x5"
  type: "ReLU"
  bottom: "inception_4c/5x5"
  top: "inception_4c/5x5"
}
layer {
  name: "inception_4c/pool"
  type: "Pooling"
  bottom: "inception_4b/output"
  top: "inception_4c/pool"
  pooling_param {
    pool: MAX
    kernel_size: 3
    stride: 1
    pad: 1
  }
}
layer {
  name: "inception_4c/pool_proj"
  type: "Convolution"
  bottom: "inception_4c/pool"
  top: "inception_4c/pool_proj"
  param {
    lr_mult: 1
    decay_mult: 1
  }
  param {
    lr_mult: 2
    decay_mult: 0
  }
  convolution_param {
    num_output: 64
    kernel_size: 1
    weight_filler {
      type: "xavier"
      std: 0.1
    }
    bias_filler {
      type: "constant"
      value: 0.2
    }
  }
}
layer {
  name: "inception_4c/relu_pool_proj"
  type: "ReLU"
  bottom: "inception_4c/pool_proj"
  top: "inception_4c/pool_proj"
}
layer {
  name: "inception_4c/output"
  type: "Concat"
  bottom: "inception_4c/1x1"
  bottom: "inception_4c/3x3"
  bottom: "inception_4c/5x5"
  bottom: "inception_4c/pool_proj"
  top: "inception_4c/output"
}
layer {
  name: "inception_4d/1x1"
  type: "Convolution"
  bottom: "inception_4c/output"
  top: "inception_4d/1x1"
  param {
    lr_mult: 1
    decay_mult: 1
  }
  param {
    lr_mult: 2
    decay_mult: 0
  }
  convolution_param {
    num_output: 112
    kernel_size: 1
    weight_filler {
      type: "xavier"
      std: 0.03
    }
    bias_filler {
      type: "constant"
      value: 0.2
    }
  }
}
layer {
  name: "inception_4d/relu_1x1"
  type: "ReLU"
  bottom: "inception_4d/1x1"
  top: "inception_4d/1x1"
}
layer {
  name: "inception_4d/3x3_reduce"
  type: "Convolution"
  bottom: "inception_4c/output"
  top: "inception_4d/3x3_reduce"
  param {
    lr_mult: 1
    decay_mult: 1
  }
  param {
    lr_mult: 2
    decay_mult: 0
  }
  convolution_param {
    num_output: 144
    kernel_size: 1
    weight_filler {
      type: "xavier"
      std: 0.09
    }
    bias_filler {
      type: "constant"
      value: 0.2
    }
  }
}
layer {
  name: "inception_4d/relu_3x3_reduce"
  type: "ReLU"
  bottom: "inception_4d/3x3_reduce"
  top: "inception_4d/3x3_reduce"
}
layer {
  name: "inception_4d/3x3"
  type: "Convolution"
  bottom: "inception_4d/3x3_reduce"
  top: "inception_4d/3x3"
  param {
    lr_mult: 1
    decay_mult: 1
  }
  param {
    lr_mult: 2
    decay_mult: 0
  }
  convolution_param {
    num_output: 288
    pad: 1
    kernel_size: 3
    weight_filler {
      type: "xavier"
      std: 0.03
    }
    bias_filler {
      type: "constant"
      value: 0.2
    }
  }
}
layer {
  name: "inception_4d/relu_3x3"
  type: "ReLU"
  bottom: "inception_4d/3x3"
  top: "inception_4d/3x3"
}
layer {
  name: "inception_4d/5x5_reduce"
  type: "Convolution"
  bottom: "inception_4c/output"
  top: "inception_4d/5x5_reduce"
  param {
    lr_mult: 1
    decay_mult: 1
  }
  param {
    lr_mult: 2
    decay_mult: 0
  }
  convolution_param {
    num_output: 32
    kernel_size: 1
    weight_filler {
      type: "xavier"
      std: 0.2
    }
    bias_filler {
      type: "constant"
      value: 0.2
    }
  }
}
layer {
  name: "inception_4d/relu_5x5_reduce"
  type: "ReLU"
  bottom: "inception_4d/5x5_reduce"
  top: "inception_4d/5x5_reduce"
}
layer {
  name: "inception_4d/5x5"
  type: "Convolution"
  bottom: "inception_4d/5x5_reduce"
  top: "inception_4d/5x5"
  param {
    lr_mult: 1
    decay_mult: 1
  }
  param {
    lr_mult: 2
    decay_mult: 0
  }
  convolution_param {
    num_output: 64
    pad: 2
    kernel_size: 5
    weight_filler {
      type: "xavier"
      std: 0.03
    }
    bias_filler {
      type: "constant"
      value: 0.2
    }
  }
}
layer {
  name: "inception_4d/relu_5x5"
  type: "ReLU"
  bottom: "inception_4d/5x5"
  top: "inception_4d/5x5"
}
layer {
  name: "inception_4d/pool"
  type: "Pooling"
  bottom: "inception_4c/output"
  top: "inception_4d/pool"
  pooling_param {
    pool: MAX
    kernel_size: 3
    stride: 1
    pad: 1
  }
}
layer {
  name: "inception_4d/pool_proj"
  type: "Convolution"
  bottom: "inception_4d/pool"
  top: "inception_4d/pool_proj"
  param {
    lr_mult: 1
    decay_mult: 1
  }
  param {
    lr_mult: 2
    decay_mult: 0
  }
  convolution_param {
    num_output: 64
    kernel_size: 1
    weight_filler {
      type: "xavier"
      std: 0.1
    }
    bias_filler {
      type: "constant"
      value: 0.2
    }
  }
}
layer {
  name: "inception_4d/relu_pool_proj"
  type: "ReLU"
  bottom: "inception_4d/pool_proj"
  top: "inception_4d/pool_proj"
}
layer {
  name: "inception_4d/output"
  type: "Concat"
  bottom: "inception_4d/1x1"
  bottom: "inception_4d/3x3"
  bottom: "inception_4d/5x5"
  bottom: "inception_4d/pool_proj"
  top: "inception_4d/output"
}
layer {
  name: "loss2/ave_pool"
  type: "Pooling"
  bottom: "inception_4d/output"
  top: "loss2/ave_pool"
  pooling_param {
    pool: AVE
    kernel_size: 5
    stride: 3
  }
}
layer {
  name: "loss2/conv"
  type: "Convolution"
  bottom: "loss2/ave_pool"
  top: "loss2/conv"
  param {
    lr_mult: 1
    decay_mult: 1
  }
  param {
    lr_mult: 2
    decay_mult: 0
  }
  convolution_param {
    num_output: 128
    kernel_size: 1
    weight_filler {
      type: "xavier"
      std: 0.08
    }
    bias_filler {
      type: "constant"
      value: 0.2
    }
  }
}
layer {
  name: "loss2/relu_conv"
  type: "ReLU"
  bottom: "loss2/conv"
  top: "loss2/conv"
}
layer {
  name: "loss2/fc"
  type: "InnerProduct"
  bottom: "loss2/conv"
  top: "loss2/fc"
  param {
    lr_mult: 1
    decay_mult: 1
  }
  param {
    lr_mult: 2
    decay_mult: 0
  }
  inner_product_param {
    num_output: 1024
    weight_filler {
      type: "xavier"
      std: 0.02
    }
    bias_filler {
      type: "constant"
      value: 0.2
    }
  }
}
layer {
  name: "loss2/relu_fc"
  type: "ReLU"
  bottom: "loss2/fc"
  top: "loss2/fc"
}
layer {
  name: "loss2/drop_fc"
  type: "Dropout"
  bottom: "loss2/fc"
  top: "loss2/fc"
  dropout_param {
    dropout_ratio: 0.7
  }
}
layer {
  name: "loss2/classifier_plantvillage"
  type: "InnerProduct"
  bottom: "loss2/fc"
  top: "loss2/classifier_plantvillage"
  param {
    lr_mult: 1
    decay_mult: 1
  }
  param {
    lr_mult: 2
    decay_mult: 0
  }
  inner_product_param {
    num_output: 38
    weight_filler {
      type: "xavier"
      std: 0.0009765625
    }
    bias_filler {
      type: "constant"
      value: 0
    }
  }
}
layer {
  name: "inception_4e/1x1"
  type: "Convolution"
  bottom: "inception_4d/output"
  top: "inception_4e/1x1"
  param {
    lr_mult: 1
    decay_mult: 1
  }
  param {
    lr_mult: 2
    decay_mult: 0
  }
  convolution_param {
    num_output: 256
    kernel_size: 1
    weight_filler {
      type: "xavier"
      std: 0.03
    }
    bias_filler {
      type: "constant"
      value: 0.2
    }
  }
}
layer {
  name: "inception_4e/relu_1x1"
  type: "ReLU"
  bottom: "inception_4e/1x1"
  top: "inception_4e/1x1"
}
layer {
  name: "inception_4e/3x3_reduce"
  type: "Convolution"
  bottom: "inception_4d/output"
  top: "inception_4e/3x3_reduce"
  param {
    lr_mult: 1
    decay_mult: 1
  }
  param {
    lr_mult: 2
    decay_mult: 0
  }
  convolution_param {
    num_output: 160
    kernel_size: 1
    weight_filler {
      type: "xavier"
      std: 0.09
    }
    bias_filler {
      type: "constant"
      value: 0.2
    }
  }
}
layer {
  name: "inception_4e/relu_3x3_reduce"
  type: "ReLU"
  bottom: "inception_4e/3x3_reduce"
  top: "inception_4e/3x3_reduce"
}
layer {
  name: "inception_4e/3x3"
  type: "Convolution"
  bottom: "inception_4e/3x3_reduce"
  top: "inception_4e/3x3"
  param {
    lr_mult: 1
    decay_mult: 1
  }
  param {
    lr_mult: 2
    decay_mult: 0
  }
  convolution_param {
    num_output: 320
    pad: 1
    kernel_size: 3
    weight_filler {
      type: "xavier"
      std: 0.03
    }
    bias_filler {
      type: "constant"
      value: 0.2
    }
  }
}
layer {
  name: "inception_4e/relu_3x3"
  type: "ReLU"
  bottom: "inception_4e/3x3"
  top: "inception_4e/3x3"
}
layer {
  name: "inception_4e/5x5_reduce"
  type: "Convolution"
  bottom: "inception_4d/output"
  top: "inception_4e/5x5_reduce"
  param {
    lr_mult: 1
    decay_mult: 1
  }
  param {
    lr_mult: 2
    decay_mult: 0
  }
  convolution_param {
    num_output: 32
    kernel_size: 1
    weight_filler {
      type: "xavier"
      std: 0.2
    }
    bias_filler {
      type: "constant"
      value: 0.2
    }
  }
}
layer {
  name: "inception_4e/relu_5x5_reduce"
  type: "ReLU"
  bottom: "inception_4e/5x5_reduce"
  top: "inception_4e/5x5_reduce"
}
layer {
  name: "inception_4e/5x5"
  type: "Convolution"
  bottom: "inception_4e/5x5_reduce"
  top: "inception_4e/
I0403 16:57:36.617642 19824 layer_factory.hpp:77] Creating layer data
I0403 16:57:36.618232 19824 net.cpp:91] Creating Layer data
I0403 16:57:36.618264 19824 net.cpp:399] data -> data
I0403 16:57:36.618314 19824 net.cpp:399] data -> label
I0403 16:57:36.618350 19824 data_transformer.cpp:25] Loading mean file from: /home/mohanty/data/final_dataset/lmdb/segmented-20-80/mean.binaryproto
I0403 16:57:36.619590 19826 db_lmdb.cpp:38] Opened lmdb /home/mohanty/data/final_dataset/lmdb/segmented-20-80/test_db
I0403 16:57:36.631356 19824 data_layer.cpp:41] output data size: 24,3,224,224
I0403 16:57:36.658924 19824 net.cpp:141] Setting up data
I0403 16:57:36.659003 19824 net.cpp:148] Top shape: 24 3 224 224 (3612672)
I0403 16:57:36.659024 19824 net.cpp:148] Top shape: 24 (24)
I0403 16:57:36.659039 19824 net.cpp:156] Memory required for data: 14450784
I0403 16:57:36.659065 19824 layer_factory.hpp:77] Creating layer label_data_1_split
I0403 16:57:36.659090 19824 net.cpp:91] Creating Layer label_data_1_split
I0403 16:57:36.659106 19824 net.cpp:425] label_data_1_split <- label
I0403 16:57:36.659138 19824 net.cpp:399] label_data_1_split -> label_data_1_split_0
I0403 16:57:36.659164 19824 net.cpp:399] label_data_1_split -> label_data_1_split_1
I0403 16:57:36.659184 19824 net.cpp:399] label_data_1_split -> label_data_1_split_2
I0403 16:57:36.659204 19824 net.cpp:399] label_data_1_split -> label_data_1_split_3
I0403 16:57:36.659224 19824 net.cpp:399] label_data_1_split -> label_data_1_split_4
I0403 16:57:36.659241 19824 net.cpp:399] label_data_1_split -> label_data_1_split_5
I0403 16:57:36.659260 19824 net.cpp:399] label_data_1_split -> label_data_1_split_6
I0403 16:57:36.659291 19824 net.cpp:399] label_data_1_split -> label_data_1_split_7
I0403 16:57:36.659310 19824 net.cpp:399] label_data_1_split -> label_data_1_split_8
I0403 16:57:36.659330 19824 net.cpp:399] label_data_1_split -> label_data_1_split_9
I0403 16:57:36.659447 19824 net.cpp:141] Setting up label_data_1_split
I0403 16:57:36.659471 19824 net.cpp:148] Top shape: 24 (24)
I0403 16:57:36.659487 19824 net.cpp:148] Top shape: 24 (24)
I0403 16:57:36.659500 19824 net.cpp:148] Top shape: 24 (24)
I0403 16:57:36.659515 19824 net.cpp:148] Top shape: 24 (24)
I0403 16:57:36.659530 19824 net.cpp:148] Top shape: 24 (24)
I0403 16:57:36.659546 19824 net.cpp:148] Top shape: 24 (24)
I0403 16:57:36.659561 19824 net.cpp:148] Top shape: 24 (24)
I0403 16:57:36.659575 19824 net.cpp:148] Top shape: 24 (24)
I0403 16:57:36.659590 19824 net.cpp:148] Top shape: 24 (24)
I0403 16:57:36.659611 19824 net.cpp:148] Top shape: 24 (24)
I0403 16:57:36.659664 19824 net.cpp:156] Memory required for data: 14451744
I0403 16:57:36.659680 19824 layer_factory.hpp:77] Creating layer conv1/7x7_s2
I0403 16:57:36.659711 19824 net.cpp:91] Creating Layer conv1/7x7_s2
I0403 16:57:36.659729 19824 net.cpp:425] conv1/7x7_s2 <- data
I0403 16:57:36.659747 19824 net.cpp:399] conv1/7x7_s2 -> conv1/7x7_s2
I0403 16:57:36.796444 19824 net.cpp:141] Setting up conv1/7x7_s2
I0403 16:57:36.796519 19824 net.cpp:148] Top shape: 24 64 112 112 (19267584)
I0403 16:57:36.796535 19824 net.cpp:156] Memory required for data: 91522080
I0403 16:57:36.796564 19824 layer_factory.hpp:77] Creating layer conv1/relu_7x7
I0403 16:57:36.796589 19824 net.cpp:91] Creating Layer conv1/relu_7x7
I0403 16:57:36.796612 19824 net.cpp:425] conv1/relu_7x7 <- conv1/7x7_s2
I0403 16:57:36.796630 19824 net.cpp:386] conv1/relu_7x7 -> conv1/7x7_s2 (in-place)
I0403 16:57:36.796872 19824 net.cpp:141] Setting up conv1/relu_7x7
I0403 16:57:36.796898 19824 net.cpp:148] Top shape: 24 64 112 112 (19267584)
I0403 16:57:36.796912 19824 net.cpp:156] Memory required for data: 168592416
I0403 16:57:36.796926 19824 layer_factory.hpp:77] Creating layer pool1/3x3_s2
I0403 16:57:36.796950 19824 net.cpp:91] Creating Layer pool1/3x3_s2
I0403 16:57:36.796967 19824 net.cpp:425] pool1/3x3_s2 <- conv1/7x7_s2
I0403 16:57:36.796983 19824 net.cpp:399] pool1/3x3_s2 -> pool1/3x3_s2
I0403 16:57:36.797054 19824 net.cpp:141] Setting up pool1/3x3_s2
I0403 16:57:36.797076 19824 net.cpp:148] Top shape: 24 64 56 56 (4816896)
I0403 16:57:36.797089 19824 net.cpp:156] Memory required for data: 187860000
I0403 16:57:36.797103 19824 layer_factory.hpp:77] Creating layer pool1/norm1
I0403 16:57:36.797125 19824 net.cpp:91] Creating Layer pool1/norm1
I0403 16:57:36.797142 19824 net.cpp:425] pool1/norm1 <- pool1/3x3_s2
I0403 16:57:36.797158 19824 net.cpp:399] pool1/norm1 -> pool1/norm1
I0403 16:57:36.797430 19824 net.cpp:141] Setting up pool1/norm1
I0403 16:57:36.797454 19824 net.cpp:148] Top shape: 24 64 56 56 (4816896)
I0403 16:57:36.797468 19824 net.cpp:156] Memory required for data: 207127584
I0403 16:57:36.797482 19824 layer_factory.hpp:77] Creating layer conv2/3x3_reduce
I0403 16:57:36.797507 19824 net.cpp:91] Creating Layer conv2/3x3_reduce
I0403 16:57:36.797521 19824 net.cpp:425] conv2/3x3_reduce <- pool1/norm1
I0403 16:57:36.797538 19824 net.cpp:399] conv2/3x3_reduce -> conv2/3x3_reduce
I0403 16:57:36.798817 19824 net.cpp:141] Setting up conv2/3x3_reduce
I0403 16:57:36.798846 19824 net.cpp:148] Top shape: 24 64 56 56 (4816896)
I0403 16:57:36.798861 19824 net.cpp:156] Memory required for data: 226395168
I0403 16:57:36.798880 19824 layer_factory.hpp:77] Creating layer conv2/relu_3x3_reduce
I0403 16:57:36.798897 19824 net.cpp:91] Creating Layer conv2/relu_3x3_reduce
I0403 16:57:36.798913 19824 net.cpp:425] conv2/relu_3x3_reduce <- conv2/3x3_reduce
I0403 16:57:36.798928 19824 net.cpp:386] conv2/relu_3x3_reduce -> conv2/3x3_reduce (in-place)
I0403 16:57:36.799187 19824 net.cpp:141] Setting up conv2/relu_3x3_reduce
I0403 16:57:36.799212 19824 net.cpp:148] Top shape: 24 64 56 56 (4816896)
I0403 16:57:36.799226 19824 net.cpp:156] Memory required for data: 245662752
I0403 16:57:36.799240 19824 layer_factory.hpp:77] Creating layer conv2/3x3
I0403 16:57:36.799263 19824 net.cpp:91] Creating Layer conv2/3x3
I0403 16:57:36.799280 19824 net.cpp:425] conv2/3x3 <- conv2/3x3_reduce
I0403 16:57:36.799304 19824 net.cpp:399] conv2/3x3 -> conv2/3x3
I0403 16:57:36.801530 19824 net.cpp:141] Setting up conv2/3x3
I0403 16:57:36.801560 19824 net.cpp:148] Top shape: 24 192 56 56 (14450688)
I0403 16:57:36.801583 19824 net.cpp:156] Memory required for data: 303465504
I0403 16:57:36.801605 19824 layer_factory.hpp:77] Creating layer conv2/relu_3x3
I0403 16:57:36.801626 19824 net.cpp:91] Creating Layer conv2/relu_3x3
I0403 16:57:36.801642 19824 net.cpp:425] conv2/relu_3x3 <- conv2/3x3
I0403 16:57:36.801672 19824 net.cpp:386] conv2/relu_3x3 -> conv2/3x3 (in-place)
I0403 16:57:36.801843 19824 net.cpp:141] Setting up conv2/relu_3x3
I0403 16:57:36.801867 19824 net.cpp:148] Top shape: 24 192 56 56 (14450688)
I0403 16:57:36.801906 19824 net.cpp:156] Memory required for data: 361268256
I0403 16:57:36.801923 19824 layer_factory.hpp:77] Creating layer conv2/norm2
I0403 16:57:36.801954 19824 net.cpp:91] Creating Layer conv2/norm2
I0403 16:57:36.801970 19824 net.cpp:425] conv2/norm2 <- conv2/3x3
I0403 16:57:36.801988 19824 net.cpp:399] conv2/norm2 -> conv2/norm2
I0403 16:57:36.802283 19824 net.cpp:141] Setting up conv2/norm2
I0403 16:57:36.802310 19824 net.cpp:148] Top shape: 24 192 56 56 (14450688)
I0403 16:57:36.802325 19824 net.cpp:156] Memory required for data: 419071008
I0403 16:57:36.802351 19824 layer_factory.hpp:77] Creating layer pool2/3x3_s2
I0403 16:57:36.802368 19824 net.cpp:91] Creating Layer pool2/3x3_s2
I0403 16:57:36.802382 19824 net.cpp:425] pool2/3x3_s2 <- conv2/norm2
I0403 16:57:36.802399 19824 net.cpp:399] pool2/3x3_s2 -> pool2/3x3_s2
I0403 16:57:36.802448 19824 net.cpp:141] Setting up pool2/3x3_s2
I0403 16:57:36.802471 19824 net.cpp:148] Top shape: 24 192 28 28 (3612672)
I0403 16:57:36.802485 19824 net.cpp:156] Memory required for data: 433521696
I0403 16:57:36.802498 19824 layer_factory.hpp:77] Creating layer pool2/3x3_s2_pool2/3x3_s2_0_split
I0403 16:57:36.802515 19824 net.cpp:91] Creating Layer pool2/3x3_s2_pool2/3x3_s2_0_split
I0403 16:57:36.802528 19824 net.cpp:425] pool2/3x3_s2_pool2/3x3_s2_0_split <- pool2/3x3_s2
I0403 16:57:36.802543 19824 net.cpp:399] pool2/3x3_s2_pool2/3x3_s2_0_split -> pool2/3x3_s2_pool2/3x3_s2_0_split_0
I0403 16:57:36.802561 19824 net.cpp:399] pool2/3x3_s2_pool2/3x3_s2_0_split -> pool2/3x3_s2_pool2/3x3_s2_0_split_1
I0403 16:57:36.802582 19824 net.cpp:399] pool2/3x3_s2_pool2/3x3_s2_0_split -> pool2/3x3_s2_pool2/3x3_s2_0_split_2
I0403 16:57:36.802605 19824 net.cpp:399] pool2/3x3_s2_pool2/3x3_s2_0_split -> pool2/3x3_s2_pool2/3x3_s2_0_split_3
I0403 16:57:36.802675 19824 net.cpp:141] Setting up pool2/3x3_s2_pool2/3x3_s2_0_split
I0403 16:57:36.802695 19824 net.cpp:148] Top shape: 24 192 28 28 (3612672)
I0403 16:57:36.802711 19824 net.cpp:148] Top shape: 24 192 28 28 (3612672)
I0403 16:57:36.802723 19824 net.cpp:148] Top shape: 24 192 28 28 (3612672)
I0403 16:57:36.802737 19824 net.cpp:148] Top shape: 24 192 28 28 (3612672)
I0403 16:57:36.802749 19824 net.cpp:156] Memory required for data: 491324448
I0403 16:57:36.802762 19824 layer_factory.hpp:77] Creating layer inception_3a/1x1
I0403 16:57:36.802783 19824 net.cpp:91] Creating Layer inception_3a/1x1
I0403 16:57:36.802798 19824 net.cpp:425] inception_3a/1x1 <- pool2/3x3_s2_pool2/3x3_s2_0_split_0
I0403 16:57:36.802817 19824 net.cpp:399] inception_3a/1x1 -> inception_3a/1x1
I0403 16:57:36.804271 19824 net.cpp:141] Setting up inception_3a/1x1
I0403 16:57:36.804301 19824 net.cpp:148] Top shape: 24 64 28 28 (1204224)
I0403 16:57:36.804316 19824 net.cpp:156] Memory required for data: 496141344
I0403 16:57:36.804332 19824 layer_factory.hpp:77] Creating layer inception_3a/relu_1x1
I0403 16:57:36.804348 19824 net.cpp:91] Creating Layer inception_3a/relu_1x1
I0403 16:57:36.804363 19824 net.cpp:425] inception_3a/relu_1x1 <- inception_3a/1x1
I0403 16:57:36.804379 19824 net.cpp:386] inception_3a/relu_1x1 -> inception_3a/1x1 (in-place)
I0403 16:57:36.804543 19824 net.cpp:141] Setting up inception_3a/relu_1x1
I0403 16:57:36.804566 19824 net.cpp:148] Top shape: 24 64 28 28 (1204224)
I0403 16:57:36.804580 19824 net.cpp:156] Memory required for data: 500958240
I0403 16:57:36.804594 19824 layer_factory.hpp:77] Creating layer inception_3a/3x3_reduce
I0403 16:57:36.804626 19824 net.cpp:91] Creating Layer inception_3a/3x3_reduce
I0403 16:57:36.804644 19824 net.cpp:425] inception_3a/3x3_reduce <- pool2/3x3_s2_pool2/3x3_s2_0_split_1
I0403 16:57:36.804663 19824 net.cpp:399] inception_3a/3x3_reduce -> inception_3a/3x3_reduce
I0403 16:57:36.806288 19824 net.cpp:141] Setting up inception_3a/3x3_reduce
I0403 16:57:36.806316 19824 net.cpp:148] Top shape: 24 96 28 28 (1806336)
I0403 16:57:36.806331 19824 net.cpp:156] Memory required for data: 508183584
I0403 16:57:36.806351 19824 layer_factory.hpp:77] Creating layer inception_3a/relu_3x3_reduce
I0403 16:57:36.806386 19824 net.cpp:91] Creating Layer inception_3a/relu_3x3_reduce
I0403 16:57:36.806402 19824 net.cpp:425] inception_3a/relu_3x3_reduce <- inception_3a/3x3_reduce
I0403 16:57:36.806418 19824 net.cpp:386] inception_3a/relu_3x3_reduce -> inception_3a/3x3_reduce (in-place)
I0403 16:57:36.806583 19824 net.cpp:141] Setting up inception_3a/relu_3x3_reduce
I0403 16:57:36.806613 19824 net.cpp:148] Top shape: 24 96 28 28 (1806336)
I0403 16:57:36.806628 19824 net.cpp:156] Memory required for data: 515408928
I0403 16:57:36.806643 19824 layer_factory.hpp:77] Creating layer inception_3a/3x3
I0403 16:57:36.806663 19824 net.cpp:91] Creating Layer inception_3a/3x3
I0403 16:57:36.806680 19824 net.cpp:425] inception_3a/3x3 <- inception_3a/3x3_reduce
I0403 16:57:36.806697 19824 net.cpp:399] inception_3a/3x3 -> inception_3a/3x3
I0403 16:57:36.808238 19824 net.cpp:141] Setting up inception_3a/3x3
I0403 16:57:36.808264 19824 net.cpp:148] Top shape: 24 128 28 28 (2408448)
I0403 16:57:36.808279 19824 net.cpp:156] Memory required for data: 525042720
I0403 16:57:36.808295 19824 layer_factory.hpp:77] Creating layer inception_3a/relu_3x3
I0403 16:57:36.808313 19824 net.cpp:91] Creating Layer inception_3a/relu_3x3
I0403 16:57:36.808329 19824 net.cpp:425] inception_3a/relu_3x3 <- inception_3a/3x3
I0403 16:57:36.808346 19824 net.cpp:386] inception_3a/relu_3x3 -> inception_3a/3x3 (in-place)
I0403 16:57:36.808604 19824 net.cpp:141] Setting up inception_3a/relu_3x3
I0403 16:57:36.808629 19824 net.cpp:148] Top shape: 24 128 28 28 (2408448)
I0403 16:57:36.808642 19824 net.cpp:156] Memory required for data: 534676512
I0403 16:57:36.808655 19824 layer_factory.hpp:77] Creating layer inception_3a/5x5_reduce
I0403 16:57:36.808676 19824 net.cpp:91] Creating Layer inception_3a/5x5_reduce
I0403 16:57:36.808691 19824 net.cpp:425] inception_3a/5x5_reduce <- pool2/3x3_s2_pool2/3x3_s2_0_split_2
I0403 16:57:36.808712 19824 net.cpp:399] inception_3a/5x5_reduce -> inception_3a/5x5_reduce
I0403 16:57:36.809607 19824 net.cpp:141] Setting up inception_3a/5x5_reduce
I0403 16:57:36.809633 19824 net.cpp:148] Top shape: 24 16 28 28 (301056)
I0403 16:57:36.809646 19824 net.cpp:156] Memory required for data: 535880736
I0403 16:57:36.809664 19824 layer_factory.hpp:77] Creating layer inception_3a/relu_5x5_reduce
I0403 16:57:36.809681 19824 net.cpp:91] Creating Layer inception_3a/relu_5x5_reduce
I0403 16:57:36.809697 19824 net.cpp:425] inception_3a/relu_5x5_reduce <- inception_3a/5x5_reduce
I0403 16:57:36.809713 19824 net.cpp:386] inception_3a/relu_5x5_reduce -> inception_3a/5x5_reduce (in-place)
I0403 16:57:36.809985 19824 net.cpp:141] Setting up inception_3a/relu_5x5_reduce
I0403 16:57:36.810010 19824 net.cpp:148] Top shape: 24 16 28 28 (301056)
I0403 16:57:36.810024 19824 net.cpp:156] Memory required for data: 537084960
I0403 16:57:36.810036 19824 layer_factory.hpp:77] Creating layer inception_3a/5x5
I0403 16:57:36.810058 19824 net.cpp:91] Creating Layer inception_3a/5x5
I0403 16:57:36.810075 19824 net.cpp:425] inception_3a/5x5 <- inception_3a/5x5_reduce
I0403 16:57:36.810091 19824 net.cpp:399] inception_3a/5x5 -> inception_3a/5x5
I0403 16:57:36.811035 19824 net.cpp:141] Setting up inception_3a/5x5
I0403 16:57:36.811061 19824 net.cpp:148] Top shape: 24 32 28 28 (602112)
I0403 16:57:36.811075 19824 net.cpp:156] Memory required for data: 539493408
I0403 16:57:36.811091 19824 layer_factory.hpp:77] Creating layer inception_3a/relu_5x5
I0403 16:57:36.811108 19824 net.cpp:91] Creating Layer inception_3a/relu_5x5
I0403 16:57:36.811122 19824 net.cpp:425] inception_3a/relu_5x5 <- inception_3a/5x5
I0403 16:57:36.811141 19824 net.cpp:386] inception_3a/relu_5x5 -> inception_3a/5x5 (in-place)
I0403 16:57:36.811302 19824 net.cpp:141] Setting up inception_3a/relu_5x5
I0403 16:57:36.811324 19824 net.cpp:148] Top shape: 24 32 28 28 (602112)
I0403 16:57:36.811337 19824 net.cpp:156] Memory required for data: 541901856
I0403 16:57:36.811350 19824 layer_factory.hpp:77] Creating layer inception_3a/pool
I0403 16:57:36.811368 19824 net.cpp:91] Creating Layer inception_3a/pool
I0403 16:57:36.811396 19824 net.cpp:425] inception_3a/pool <- pool2/3x3_s2_pool2/3x3_s2_0_split_3
I0403 16:57:36.811414 19824 net.cpp:399] inception_3a/pool -> inception_3a/pool
I0403 16:57:36.811468 19824 net.cpp:141] Setting up inception_3a/pool
I0403 16:57:36.811491 19824 net.cpp:148] Top shape: 24 192 28 28 (3612672)
I0403 16:57:36.811502 19824 net.cpp:156] Memory required for data: 556352544
I0403 16:57:36.811517 19824 layer_factory.hpp:77] Creating layer inception_3a/pool_proj
I0403 16:57:36.811537 19824 net.cpp:91] Creating Layer inception_3a/pool_proj
I0403 16:57:36.811552 19824 net.cpp:425] inception_3a/pool_proj <- inception_3a/pool
I0403 16:57:36.811571 19824 net.cpp:399] inception_3a/pool_proj -> inception_3a/pool_proj
I0403 16:57:36.812471 19824 net.cpp:141] Setting up inception_3a/pool_proj
I0403 16:57:36.812500 19824 net.cpp:148] Top shape: 24 32 28 28 (602112)
I0403 16:57:36.812513 19824 net.cpp:156] Memory required for data: 558760992
I0403 16:57:36.812533 19824 layer_factory.hpp:77] Creating layer inception_3a/relu_pool_proj
I0403 16:57:36.812552 19824 net.cpp:91] Creating Layer inception_3a/relu_pool_proj
I0403 16:57:36.812567 19824 net.cpp:425] inception_3a/relu_pool_proj <- inception_3a/pool_proj
I0403 16:57:36.812583 19824 net.cpp:386] inception_3a/relu_pool_proj -> inception_3a/pool_proj (in-place)
I0403 16:57:36.812842 19824 net.cpp:141] Setting up inception_3a/relu_pool_proj
I0403 16:57:36.812866 19824 net.cpp:148] Top shape: 24 32 28 28 (602112)
I0403 16:57:36.812880 19824 net.cpp:156] Memory required for data: 561169440
I0403 16:57:36.812893 19824 layer_factory.hpp:77] Creating layer inception_3a/output
I0403 16:57:36.812909 19824 net.cpp:91] Creating Layer inception_3a/output
I0403 16:57:36.812923 19824 net.cpp:425] inception_3a/output <- inception_3a/1x1
I0403 16:57:36.812938 19824 net.cpp:425] inception_3a/output <- inception_3a/3x3
I0403 16:57:36.812953 19824 net.cpp:425] inception_3a/output <- inception_3a/5x5
I0403 16:57:36.812968 19824 net.cpp:425] inception_3a/output <- inception_3a/pool_proj
I0403 16:57:36.812985 19824 net.cpp:399] inception_3a/output -> inception_3a/output
I0403 16:57:36.813030 19824 net.cpp:141] Setting up inception_3a/output
I0403 16:57:36.813051 19824 net.cpp:148] Top shape: 24 256 28 28 (4816896)
I0403 16:57:36.813065 19824 net.cpp:156] Memory required for data: 580437024
I0403 16:57:36.813077 19824 layer_factory.hpp:77] Creating layer inception_3a/output_inception_3a/output_0_split
I0403 16:57:36.813092 19824 net.cpp:91] Creating Layer inception_3a/output_inception_3a/output_0_split
I0403 16:57:36.813107 19824 net.cpp:425] inception_3a/output_inception_3a/output_0_split <- inception_3a/output
I0403 16:57:36.813124 19824 net.cpp:399] inception_3a/output_inception_3a/output_0_split -> inception_3a/output_inception_3a/output_0_split_0
I0403 16:57:36.813143 19824 net.cpp:399] inception_3a/output_inception_3a/output_0_split -> inception_3a/output_inception_3a/output_0_split_1
I0403 16:57:36.813163 19824 net.cpp:399] inception_3a/output_inception_3a/output_0_split -> inception_3a/output_inception_3a/output_0_split_2
I0403 16:57:36.813181 19824 net.cpp:399] inception_3a/output_inception_3a/output_0_split -> inception_3a/output_inception_3a/output_0_split_3
I0403 16:57:36.813257 19824 net.cpp:141] Setting up inception_3a/output_inception_3a/output_0_split
I0403 16:57:36.813279 19824 net.cpp:148] Top shape: 24 256 28 28 (4816896)
I0403 16:57:36.813295 19824 net.cpp:148] Top shape: 24 256 28 28 (4816896)
I0403 16:57:36.813309 19824 net.cpp:148] Top shape: 24 256 28 28 (4816896)
I0403 16:57:36.813323 19824 net.cpp:148] Top shape: 24 256 28 28 (4816896)
I0403 16:57:36.813334 19824 net.cpp:156] Memory required for data: 657507360
I0403 16:57:36.813347 19824 layer_factory.hpp:77] Creating layer inception_3b/1x1
I0403 16:57:36.813369 19824 net.cpp:91] Creating Layer inception_3b/1x1
I0403 16:57:36.813385 19824 net.cpp:425] inception_3b/1x1 <- inception_3a/output_inception_3a/output_0_split_0
I0403 16:57:36.813403 19824 net.cpp:399] inception_3b/1x1 -> inception_3b/1x1
I0403 16:57:36.814457 19824 net.cpp:141] Setting up inception_3b/1x1
I0403 16:57:36.814496 19824 net.cpp:148] Top shape: 24 128 28 28 (2408448)
I0403 16:57:36.814512 19824 net.cpp:156] Memory required for data: 667141152
I0403 16:57:36.814529 19824 layer_factory.hpp:77] Creating layer inception_3b/relu_1x1
I0403 16:57:36.814546 19824 net.cpp:91] Creating Layer inception_3b/relu_1x1
I0403 16:57:36.814560 19824 net.cpp:425] inception_3b/relu_1x1 <- inception_3b/1x1
I0403 16:57:36.814579 19824 net.cpp:386] inception_3b/relu_1x1 -> inception_3b/1x1 (in-place)
I0403 16:57:36.814749 19824 net.cpp:141] Setting up inception_3b/relu_1x1
I0403 16:57:36.814774 19824 net.cpp:148] Top shape: 24 128 28 28 (2408448)
I0403 16:57:36.814786 19824 net.cpp:156] Memory required for data: 676774944
I0403 16:57:36.814800 19824 layer_factory.hpp:77] Creating layer inception_3b/3x3_reduce
I0403 16:57:36.814821 19824 net.cpp:91] Creating Layer inception_3b/3x3_reduce
I0403 16:57:36.814836 19824 net.cpp:425] inception_3b/3x3_reduce <- inception_3a/output_inception_3a/output_0_split_1
I0403 16:57:36.814857 19824 net.cpp:399] inception_3b/3x3_reduce -> inception_3b/3x3_reduce
I0403 16:57:36.815919 19824 net.cpp:141] Setting up inception_3b/3x3_reduce
I0403 16:57:36.815945 19824 net.cpp:148] Top shape: 24 128 28 28 (2408448)
I0403 16:57:36.815960 19824 net.cpp:156] Memory required for data: 686408736
I0403 16:57:36.815976 19824 layer_factory.hpp:77] Creating layer inception_3b/relu_3x3_reduce
I0403 16:57:36.815994 19824 net.cpp:91] Creating Layer inception_3b/relu_3x3_reduce
I0403 16:57:36.816007 19824 net.cpp:425] inception_3b/relu_3x3_reduce <- inception_3b/3x3_reduce
I0403 16:57:36.816025 19824 net.cpp:386] inception_3b/relu_3x3_reduce -> inception_3b/3x3_reduce (in-place)
I0403 16:57:36.816185 19824 net.cpp:141] Setting up inception_3b/relu_3x3_reduce
I0403 16:57:36.816210 19824 net.cpp:148] Top shape: 24 128 28 28 (2408448)
I0403 16:57:36.816222 19824 net.cpp:156] Memory required for data: 696042528
I0403 16:57:36.816236 19824 layer_factory.hpp:77] Creating layer inception_3b/3x3
I0403 16:57:36.816261 19824 net.cpp:91] Creating Layer inception_3b/3x3
I0403 16:57:36.816277 19824 net.cpp:425] inception_3b/3x3 <- inception_3b/3x3_reduce
I0403 16:57:36.816295 19824 net.cpp:399] inception_3b/3x3 -> inception_3b/3x3
I0403 16:57:36.819037 19824 net.cpp:141] Setting up inception_3b/3x3
I0403 16:57:36.819064 19824 net.cpp:148] Top shape: 24 192 28 28 (3612672)
I0403 16:57:36.819080 19824 net.cpp:156] Memory required for data: 710493216
I0403 16:57:36.819097 19824 layer_factory.hpp:77] Creating layer inception_3b/relu_3x3
I0403 16:57:36.819116 19824 net.cpp:91] Creating Layer inception_3b/relu_3x3
I0403 16:57:36.819131 19824 net.cpp:425] inception_3b/relu_3x3 <- inception_3b/3x3
I0403 16:57:36.819147 19824 net.cpp:386] inception_3b/relu_3x3 -> inception_3b/3x3 (in-place)
I0403 16:57:36.819409 19824 net.cpp:141] Setting up inception_3b/relu_3x3
I0403 16:57:36.819433 19824 net.cpp:148] Top shape: 24 192 28 28 (3612672)
I0403 16:57:36.819447 19824 net.cpp:156] Memory required for data: 724943904
I0403 16:57:36.819460 19824 layer_factory.hpp:77] Creating layer inception_3b/5x5_reduce
I0403 16:57:36.819481 19824 net.cpp:91] Creating Layer inception_3b/5x5_reduce
I0403 16:57:36.819497 19824 net.cpp:425] inception_3b/5x5_reduce <- inception_3a/output_inception_3a/output_0_split_2
I0403 16:57:36.819517 19824 net.cpp:399] inception_3b/5x5_reduce -> inception_3b/5x5_reduce
I0403 16:57:36.820441 19824 net.cpp:141] Setting up inception_3b/5x5_reduce
I0403 16:57:36.820466 19824 net.cpp:148] Top shape: 24 32 28 28 (602112)
I0403 16:57:36.820480 19824 net.cpp:156] Memory required for data: 727352352
I0403 16:57:36.820497 19824 layer_factory.hpp:77] Creating layer inception_3b/relu_5x5_reduce
I0403 16:57:36.820513 19824 net.cpp:91] Creating Layer inception_3b/relu_5x5_reduce
I0403 16:57:36.820528 19824 net.cpp:425] inception_3b/relu_5x5_reduce <- inception_3b/5x5_reduce
I0403 16:57:36.820545 19824 net.cpp:386] inception_3b/relu_5x5_reduce -> inception_3b/5x5_reduce (in-place)
I0403 16:57:36.820731 19824 net.cpp:141] Setting up inception_3b/relu_5x5_reduce
I0403 16:57:36.820755 19824 net.cpp:148] Top shape: 24 32 28 28 (602112)
I0403 16:57:36.820768 19824 net.cpp:156] Memory required for data: 729760800
I0403 16:57:36.820781 19824 layer_factory.hpp:77] Creating layer inception_3b/5x5
I0403 16:57:36.820802 19824 net.cpp:91] Creating Layer inception_3b/5x5
I0403 16:57:36.820817 19824 net.cpp:425] inception_3b/5x5 <- inception_3b/5x5_reduce
I0403 16:57:36.820837 19824 net.cpp:399] inception_3b/5x5 -> inception_3b/5x5
I0403 16:57:36.822723 19824 net.cpp:141] Setting up inception_3b/5x5
I0403 16:57:36.822751 19824 net.cpp:148] Top shape: 24 96 28 28 (1806336)
I0403 16:57:36.822765 19824 net.cpp:156] Memory required for data: 736986144
I0403 16:57:36.822782 19824 layer_factory.hpp:77] Creating layer inception_3b/relu_5x5
I0403 16:57:36.822798 19824 net.cpp:91] Creating Layer inception_3b/relu_5x5
I0403 16:57:36.822813 19824 net.cpp:425] inception_3b/relu_5x5 <- inception_3b/5x5
I0403 16:57:36.822830 19824 net.cpp:386] inception_3b/relu_5x5 -> inception_3b/5x5 (in-place)
I0403 16:57:36.823011 19824 net.cpp:141] Setting up inception_3b/relu_5x5
I0403 16:57:36.823034 19824 net.cpp:148] Top shape: 24 96 28 28 (1806336)
I0403 16:57:36.823047 19824 net.cpp:156] Memory required for data: 744211488
I0403 16:57:36.823060 19824 layer_factory.hpp:77] Creating layer inception_3b/pool
I0403 16:57:36.823076 19824 net.cpp:91] Creating Layer inception_3b/pool
I0403 16:57:36.823091 19824 net.cpp:425] inception_3b/pool <- inception_3a/output_inception_3a/output_0_split_3
I0403 16:57:36.823107 19824 net.cpp:399] inception_3b/pool -> inception_3b/pool
I0403 16:57:36.823163 19824 net.cpp:141] Setting up inception_3b/pool
I0403 16:57:36.823184 19824 net.cpp:148] Top shape: 24 256 28 28 (4816896)
I0403 16:57:36.823197 19824 net.cpp:156] Memory required for data: 763479072
I0403 16:57:36.823210 19824 layer_factory.hpp:77] Creating layer inception_3b/pool_proj
I0403 16:57:36.823230 19824 net.cpp:91] Creating Layer inception_3b/pool_proj
I0403 16:57:36.823246 19824 net.cpp:425] inception_3b/pool_proj <- inception_3b/pool
I0403 16:57:36.823264 19824 net.cpp:399] inception_3b/pool_proj -> inception_3b/pool_proj
I0403 16:57:36.824252 19824 net.cpp:141] Setting up inception_3b/pool_proj
I0403 16:57:36.824280 19824 net.cpp:148] Top shape: 24 64 28 28 (1204224)
I0403 16:57:36.824296 19824 net.cpp:156] Memory required for data: 768295968
I0403 16:57:36.824313 19824 layer_factory.hpp:77] Creating layer inception_3b/relu_pool_proj
I0403 16:57:36.824329 19824 net.cpp:91] Creating Layer inception_3b/relu_pool_proj
I0403 16:57:36.824343 19824 net.cpp:425] inception_3b/relu_pool_proj <- inception_3b/pool_proj
I0403 16:57:36.824358 19824 net.cpp:386] inception_3b/relu_pool_proj -> inception_3b/pool_proj (in-place)
I0403 16:57:36.824741 19824 net.cpp:141] Setting up inception_3b/relu_pool_proj
I0403 16:57:36.824766 19824 net.cpp:148] Top shape: 24 64 28 28 (1204224)
I0403 16:57:36.824780 19824 net.cpp:156] Memory required for data: 773112864
I0403 16:57:36.824795 19824 layer_factory.hpp:77] Creating layer inception_3b/output
I0403 16:57:36.824811 19824 net.cpp:91] Creating Layer inception_3b/output
I0403 16:57:36.824826 19824 net.cpp:425] inception_3b/output <- inception_3b/1x1
I0403 16:57:36.824843 19824 net.cpp:425] inception_3b/output <- inception_3b/3x3
I0403 16:57:36.824859 19824 net.cpp:425] inception_3b/output <- inception_3b/5x5
I0403 16:57:36.824874 19824 net.cpp:425] inception_3b/output <- inception_3b/pool_proj
I0403 16:57:36.824890 19824 net.cpp:399] inception_3b/output -> inception_3b/output
I0403 16:57:36.824933 19824 net.cpp:141] Setting up inception_3b/output
I0403 16:57:36.824954 19824 net.cpp:148] Top shape: 24 480 28 28 (9031680)
I0403 16:57:36.824966 19824 net.cpp:156] Memory required for data: 809239584
I0403 16:57:36.824980 19824 layer_factory.hpp:77] Creating layer pool3/3x3_s2
I0403 16:57:36.824996 19824 net.cpp:91] Creating Layer pool3/3x3_s2
I0403 16:57:36.825011 19824 net.cpp:425] pool3/3x3_s2 <- inception_3b/output
I0403 16:57:36.825042 19824 net.cpp:399] pool3/3x3_s2 -> pool3/3x3_s2
I0403 16:57:36.825098 19824 net.cpp:141] Setting up pool3/3x3_s2
I0403 16:57:36.825119 19824 net.cpp:148] Top shape: 24 480 14 14 (2257920)
I0403 16:57:36.825134 19824 net.cpp:156] Memory required for data: 818271264
I0403 16:57:36.825146 19824 layer_factory.hpp:77] Creating layer pool3/3x3_s2_pool3/3x3_s2_0_split
I0403 16:57:36.825165 19824 net.cpp:91] Creating Layer pool3/3x3_s2_pool3/3x3_s2_0_split
I0403 16:57:36.825179 19824 net.cpp:425] pool3/3x3_s2_pool3/3x3_s2_0_split <- pool3/3x3_s2
I0403 16:57:36.825196 19824 net.cpp:399] pool3/3x3_s2_pool3/3x3_s2_0_split -> pool3/3x3_s2_pool3/3x3_s2_0_split_0
I0403 16:57:36.825215 19824 net.cpp:399] pool3/3x3_s2_pool3/3x3_s2_0_split -> pool3/3x3_s2_pool3/3x3_s2_0_split_1
I0403 16:57:36.825233 19824 net.cpp:399] pool3/3x3_s2_pool3/3x3_s2_0_split -> pool3/3x3_s2_pool3/3x3_s2_0_split_2
I0403 16:57:36.825251 19824 net.cpp:399] pool3/3x3_s2_pool3/3x3_s2_0_split -> pool3/3x3_s2_pool3/3x3_s2_0_split_3
I0403 16:57:36.825320 19824 net.cpp:141] Setting up pool3/3x3_s2_pool3/3x3_s2_0_split
I0403 16:57:36.825341 19824 net.cpp:148] Top shape: 24 480 14 14 (2257920)
I0403 16:57:36.825358 19824 net.cpp:148] Top shape: 24 480 14 14 (2257920)
I0403 16:57:36.825372 19824 net.cpp:148] Top shape: 24 480 14 14 (2257920)
I0403 16:57:36.825386 19824 net.cpp:148] Top shape: 24 480 14 14 (2257920)
I0403 16:57:36.825397 19824 net.cpp:156] Memory required for data: 854397984
I0403 16:57:36.825410 19824 layer_factory.hpp:77] Creating layer inception_4a/1x1
I0403 16:57:36.825428 19824 net.cpp:91] Creating Layer inception_4a/1x1
I0403 16:57:36.825443 19824 net.cpp:425] inception_4a/1x1 <- pool3/3x3_s2_pool3/3x3_s2_0_split_0
I0403 16:57:36.825462 19824 net.cpp:399] inception_4a/1x1 -> inception_4a/1x1
I0403 16:57:36.827023 19824 net.cpp:141] Setting up inception_4a/1x1
I0403 16:57:36.827052 19824 net.cpp:148] Top shape: 24 192 14 14 (903168)
I0403 16:57:36.827069 19824 net.cpp:156] Memory required for data: 858010656
I0403 16:57:36.827085 19824 layer_factory.hpp:77] Creating layer inception_4a/relu_1x1
I0403 16:57:36.827102 19824 net.cpp:91] Creating Layer inception_4a/relu_1x1
I0403 16:57:36.827117 19824 net.cpp:425] inception_4a/relu_1x1 <- inception_4a/1x1
I0403 16:57:36.827133 19824 net.cpp:386] inception_4a/relu_1x1 -> inception_4a/1x1 (in-place)
I0403 16:57:36.827308 19824 net.cpp:141] Setting up inception_4a/relu_1x1
I0403 16:57:36.827332 19824 net.cpp:148] Top shape: 24 192 14 14 (903168)
I0403 16:57:36.827345 19824 net.cpp:156] Memory required for data: 861623328
I0403 16:57:36.827359 19824 layer_factory.hpp:77] Creating layer inception_4a/3x3_reduce
I0403 16:57:36.827380 19824 net.cpp:91] Creating Layer inception_4a/3x3_reduce
I0403 16:57:36.827396 19824 net.cpp:425] inception_4a/3x3_reduce <- pool3/3x3_s2_pool3/3x3_s2_0_split_1
I0403 16:57:36.827416 19824 net.cpp:399] inception_4a/3x3_reduce -> inception_4a/3x3_reduce
I0403 16:57:36.828650 19824 net.cpp:141] Setting up inception_4a/3x3_reduce
I0403 16:57:36.828677 19824 net.cpp:148] Top shape: 24 96 14 14 (451584)
I0403 16:57:36.828692 19824 net.cpp:156] Memory required for data: 863429664
I0403 16:57:36.828717 19824 layer_factory.hpp:77] Creating layer inception_4a/relu_3x3_reduce
I0403 16:57:36.828737 19824 net.cpp:91] Creating Layer inception_4a/relu_3x3_reduce
I0403 16:57:36.828752 19824 net.cpp:425] inception_4a/relu_3x3_reduce <- inception_4a/3x3_reduce
I0403 16:57:36.828768 19824 net.cpp:386] inception_4a/relu_3x3_reduce -> inception_4a/3x3_reduce (in-place)
I0403 16:57:36.828940 19824 net.cpp:141] Setting up inception_4a/relu_3x3_reduce
I0403 16:57:36.828965 19824 net.cpp:148] Top shape: 24 96 14 14 (451584)
I0403 16:57:36.828979 19824 net.cpp:156] Memory required for data: 865236000
I0403 16:57:36.828994 19824 layer_factory.hpp:77] Creating layer inception_4a/3x3
I0403 16:57:36.829015 19824 net.cpp:91] Creating Layer inception_4a/3x3
I0403 16:57:36.829030 19824 net.cpp:425] inception_4a/3x3 <- inception_4a/3x3_reduce
I0403 16:57:36.829048 19824 net.cpp:399] inception_4a/3x3 -> inception_4a/3x3
I0403 16:57:36.831651 19824 net.cpp:141] Setting up inception_4a/3x3
I0403 16:57:36.831678 19824 net.cpp:148] Top shape: 24 208 14 14 (978432)
I0403 16:57:36.831693 19824 net.cpp:156] Memory required for data: 869149728
I0403 16:57:36.831710 19824 layer_factory.hpp:77] Creating layer inception_4a/relu_3x3
I0403 16:57:36.831727 19824 net.cpp:91] Creating Layer inception_4a/relu_3x3
I0403 16:57:36.831743 19824 net.cpp:425] inception_4a/relu_3x3 <- inception_4a/3x3
I0403 16:57:36.831760 19824 net.cpp:386] inception_4a/relu_3x3 -> inception_4a/3x3 (in-place)
I0403 16:57:36.832029 19824 net.cpp:141] Setting up inception_4a/relu_3x3
I0403 16:57:36.832056 19824 net.cpp:148] Top shape: 24 208 14 14 (978432)
I0403 16:57:36.832069 19824 net.cpp:156] Memory required for data: 873063456
I0403 16:57:36.832082 19824 layer_factory.hpp:77] Creating layer inception_4a/5x5_reduce
I0403 16:57:36.832103 19824 net.cpp:91] Creating Layer inception_4a/5x5_reduce
I0403 16:57:36.832119 19824 net.cpp:425] inception_4a/5x5_reduce <- pool3/3x3_s2_pool3/3x3_s2_0_split_2
I0403 16:57:36.832141 19824 net.cpp:399] inception_4a/5x5_reduce -> inception_4a/5x5_reduce
I0403 16:57:36.833132 19824 net.cpp:141] Setting up inception_4a/5x5_reduce
I0403 16:57:36.833158 19824 net.cpp:148] Top shape: 24 16 14 14 (75264)
I0403 16:57:36.833173 19824 net.cpp:156] Memory required for data: 873364512
I0403 16:57:36.833190 19824 layer_factory.hpp:77] Creating layer inception_4a/relu_5x5_reduce
I0403 16:57:36.833207 19824 net.cpp:91] Creating Layer inception_4a/relu_5x5_reduce
I0403 16:57:36.833222 19824 net.cpp:425] inception_4a/relu_5x5_reduce <- inception_4a/5x5_reduce
I0403 16:57:36.833240 19824 net.cpp:386] inception_4a/relu_5x5_reduce -> inception_4a/5x5_reduce (in-place)
I0403 16:57:36.833413 19824 net.cpp:141] Setting up inception_4a/relu_5x5_reduce
I0403 16:57:36.833436 19824 net.cpp:148] Top shape: 24 16 14 14 (75264)
I0403 16:57:36.833451 19824 net.cpp:156] Memory required for data: 873665568
I0403 16:57:36.833464 19824 layer_factory.hpp:77] Creating layer inception_4a/5x5
I0403 16:57:36.833485 19824 net.cpp:91] Creating Layer inception_4a/5x5
I0403 16:57:36.833501 19824 net.cpp:425] inception_4a/5x5 <- inception_4a/5x5_reduce
I0403 16:57:36.833521 19824 net.cpp:399] inception_4a/5x5 -> inception_4a/5x5
I0403 16:57:36.834578 19824 net.cpp:141] Setting up inception_4a/5x5
I0403 16:57:36.834614 19824 net.cpp:148] Top shape: 24 48 14 14 (225792)
I0403 16:57:36.834632 19824 net.cpp:156] Memory required for data: 874568736
I0403 16:57:36.834650 19824 layer_factory.hpp:77] Creating layer inception_4a/relu_5x5
I0403 16:57:36.834669 19824 net.cpp:91] Creating Layer inception_4a/relu_5x5
I0403 16:57:36.834686 19824 net.cpp:425] inception_4a/relu_5x5 <- inception_4a/5x5
I0403 16:57:36.834702 19824 net.cpp:386] inception_4a/relu_5x5 -> inception_4a/5x5 (in-place)
I0403 16:57:36.834877 19824 net.cpp:141] Setting up inception_4a/relu_5x5
I0403 16:57:36.834903 19824 net.cpp:148] Top shape: 24 48 14 14 (225792)
I0403 16:57:36.834918 19824 net.cpp:156] Memory required for data: 875471904
I0403 16:57:36.834931 19824 layer_factory.hpp:77] Creating layer inception_4a/pool
I0403 16:57:36.834949 19824 net.cpp:91] Creating Layer inception_4a/pool
I0403 16:57:36.834964 19824 net.cpp:425] inception_4a/pool <- pool3/3x3_s2_pool3/3x3_s2_0_split_3
I0403 16:57:36.834981 19824 net.cpp:399] inception_4a/pool -> inception_4a/pool
I0403 16:57:36.835041 19824 net.cpp:141] Setting up inception_4a/pool
I0403 16:57:36.835063 19824 net.cpp:148] Top shape: 24 480 14 14 (2257920)
I0403 16:57:36.835077 19824 net.cpp:156] Memory required for data: 884503584
I0403 16:57:36.835090 19824 layer_factory.hpp:77] Creating layer inception_4a/pool_proj
I0403 16:57:36.835111 19824 net.cpp:91] Creating Layer inception_4a/pool_proj
I0403 16:57:36.835129 19824 net.cpp:425] inception_4a/pool_proj <- inception_4a/pool
I0403 16:57:36.835146 19824 net.cpp:399] inception_4a/pool_proj -> inception_4a/pool_proj
I0403 16:57:36.836278 19824 net.cpp:141] Setting up inception_4a/pool_proj
I0403 16:57:36.836308 19824 net.cpp:148] Top shape: 24 64 14 14 (301056)
I0403 16:57:36.836336 19824 net.cpp:156] Memory required for data: 885707808
I0403 16:57:36.836354 19824 layer_factory.hpp:77] Creating layer inception_4a/relu_pool_proj
I0403 16:57:36.836375 19824 net.cpp:91] Creating Layer inception_4a/relu_pool_proj
I0403 16:57:36.836391 19824 net.cpp:425] inception_4a/relu_pool_proj <- inception_4a/pool_proj
I0403 16:57:36.836407 19824 net.cpp:386] inception_4a/relu_pool_proj -> inception_4a/pool_proj (in-place)
I0403 16:57:36.836690 19824 net.cpp:141] Setting up inception_4a/relu_pool_proj
I0403 16:57:36.836715 19824 net.cpp:148] Top shape: 24 64 14 14 (301056)
I0403 16:57:36.836730 19824 net.cpp:156] Memory required for data: 886912032
I0403 16:57:36.836743 19824 layer_factory.hpp:77] Creating layer inception_4a/output
I0403 16:57:36.836762 19824 net.cpp:91] Creating Layer inception_4a/output
I0403 16:57:36.836777 19824 net.cpp:425] inception_4a/output <- inception_4a/1x1
I0403 16:57:36.836792 19824 net.cpp:425] inception_4a/output <- inception_4a/3x3
I0403 16:57:36.836807 19824 net.cpp:425] inception_4a/output <- inception_4a/5x5
I0403 16:57:36.836822 19824 net.cpp:425] inception_4a/output <- inception_4a/pool_proj
I0403 16:57:36.836838 19824 net.cpp:399] inception_4a/output -> inception_4a/output
I0403 16:57:36.836881 19824 net.cpp:141] Setting up inception_4a/output
I0403 16:57:36.836904 19824 net.cpp:148] Top shape: 24 512 14 14 (2408448)
I0403 16:57:36.836916 19824 net.cpp:156] Memory required for data: 896545824
I0403 16:57:36.836930 19824 layer_factory.hpp:77] Creating layer inception_4a/output_inception_4a/output_0_split
I0403 16:57:36.836946 19824 net.cpp:91] Creating Layer inception_4a/output_inception_4a/output_0_split
I0403 16:57:36.836959 19824 net.cpp:425] inception_4a/output_inception_4a/output_0_split <- inception_4a/output
I0403 16:57:36.836977 19824 net.cpp:399] inception_4a/output_inception_4a/output_0_split -> inception_4a/output_inception_4a/output_0_split_0
I0403 16:57:36.836997 19824 net.cpp:399] inception_4a/output_inception_4a/output_0_split -> inception_4a/output_inception_4a/output_0_split_1
I0403 16:57:36.837018 19824 net.cpp:399] inception_4a/output_inception_4a/output_0_split -> inception_4a/output_inception_4a/output_0_split_2
I0403 16:57:36.837039 19824 net.cpp:399] inception_4a/output_inception_4a/output_0_split -> inception_4a/output_inception_4a/output_0_split_3
I0403 16:57:36.837059 19824 net.cpp:399] inception_4a/output_inception_4a/output_0_split -> inception_4a/output_inception_4a/output_0_split_4
I0403 16:57:36.837146 19824 net.cpp:141] Setting up inception_4a/output_inception_4a/output_0_split
I0403 16:57:36.837168 19824 net.cpp:148] Top shape: 24 512 14 14 (2408448)
I0403 16:57:36.837183 19824 net.cpp:148] Top shape: 24 512 14 14 (2408448)
I0403 16:57:36.837198 19824 net.cpp:148] Top shape: 24 512 14 14 (2408448)
I0403 16:57:36.837211 19824 net.cpp:148] Top shape: 24 512 14 14 (2408448)
I0403 16:57:36.837226 19824 net.cpp:148] Top shape: 24 512 14 14 (2408448)
I0403 16:57:36.837239 19824 net.cpp:156] Memory required for data: 944714784
I0403 16:57:36.837252 19824 layer_factory.hpp:77] Creating layer loss1/ave_pool
I0403 16:57:36.837268 19824 net.cpp:91] Creating Layer loss1/ave_pool
I0403 16:57:36.837282 19824 net.cpp:425] loss1/ave_pool <- inception_4a/output_inception_4a/output_0_split_0
I0403 16:57:36.837306 19824 net.cpp:399] loss1/ave_pool -> loss1/ave_pool
I0403 16:57:36.837505 19824 net.cpp:141] Setting up loss1/ave_pool
I0403 16:57:36.837532 19824 net.cpp:148] Top shape: 24 512 4 4 (196608)
I0403 16:57:36.837546 19824 net.cpp:156] Memory required for data: 945501216
I0403 16:57:36.837559 19824 layer_factory.hpp:77] Creating layer loss1/conv
I0403 16:57:36.837580 19824 net.cpp:91] Creating Layer loss1/conv
I0403 16:57:36.837596 19824 net.cpp:425] loss1/conv <- loss1/ave_pool
I0403 16:57:36.837618 19824 net.cpp:399] loss1/conv -> loss1/conv
I0403 16:57:36.838976 19824 net.cpp:141] Setting up loss1/conv
I0403 16:57:36.839004 19824 net.cpp:148] Top shape: 24 128 4 4 (49152)
I0403 16:57:36.839030 19824 net.cpp:156] Memory required for data: 945697824
I0403 16:57:36.839049 19824 layer_factory.hpp:77] Creating layer loss1/relu_conv
I0403 16:57:36.839066 19824 net.cpp:91] Creating Layer loss1/relu_conv
I0403 16:57:36.839082 19824 net.cpp:425] loss1/relu_conv <- loss1/conv
I0403 16:57:36.839099 19824 net.cpp:386] loss1/relu_conv -> loss1/conv (in-place)
I0403 16:57:36.839375 19824 net.cpp:141] Setting up loss1/relu_conv
I0403 16:57:36.839401 19824 net.cpp:148] Top shape: 24 128 4 4 (49152)
I0403 16:57:36.839414 19824 net.cpp:156] Memory required for data: 945894432
I0403 16:57:36.839427 19824 layer_factory.hpp:77] Creating layer loss1/fc
I0403 16:57:36.839450 19824 net.cpp:91] Creating Layer loss1/fc
I0403 16:57:36.839467 19824 net.cpp:425] loss1/fc <- loss1/conv
I0403 16:57:36.839486 19824 net.cpp:399] loss1/fc -> loss1/fc
I0403 16:57:36.856447 19824 net.cpp:141] Setting up loss1/fc
I0403 16:57:36.856478 19824 net.cpp:148] Top shape: 24 1024 (24576)
I0403 16:57:36.856492 19824 net.cpp:156] Memory required for data: 945992736
I0403 16:57:36.856509 19824 layer_factory.hpp:77] Creating layer loss1/relu_fc
I0403 16:57:36.856525 19824 net.cpp:91] Creating Layer loss1/relu_fc
I0403 16:57:36.856540 19824 net.cpp:425] loss1/relu_fc <- loss1/fc
I0403 16:57:36.856555 19824 net.cpp:386] loss1/relu_fc -> loss1/fc (in-place)
I0403 16:57:36.856740 19824 net.cpp:141] Setting up loss1/relu_fc
I0403 16:57:36.856763 19824 net.cpp:148] Top shape: 24 1024 (24576)
I0403 16:57:36.856776 19824 net.cpp:156] Memory required for data: 946091040
I0403 16:57:36.856791 19824 layer_factory.hpp:77] Creating layer loss1/drop_fc
I0403 16:57:36.856814 19824 net.cpp:91] Creating Layer loss1/drop_fc
I0403 16:57:36.856830 19824 net.cpp:425] loss1/drop_fc <- loss1/fc
I0403 16:57:36.856848 19824 net.cpp:386] loss1/drop_fc -> loss1/fc (in-place)
I0403 16:57:36.856897 19824 net.cpp:141] Setting up loss1/drop_fc
I0403 16:57:36.856919 19824 net.cpp:148] Top shape: 24 1024 (24576)
I0403 16:57:36.856931 19824 net.cpp:156] Memory required for data: 946189344
I0403 16:57:36.856945 19824 layer_factory.hpp:77] Creating layer loss1/classifier_plantvillage
I0403 16:57:36.856964 19824 net.cpp:91] Creating Layer loss1/classifier_plantvillage
I0403 16:57:36.856981 19824 net.cpp:425] loss1/classifier_plantvillage <- loss1/fc
I0403 16:57:36.856997 19824 net.cpp:399] loss1/classifier_plantvillage -> loss1/classifier_plantvillage
I0403 16:57:36.857866 19824 net.cpp:141] Setting up loss1/classifier_plantvillage
I0403 16:57:36.857892 19824 net.cpp:148] Top shape: 24 38 (912)
I0403 16:57:36.857906 19824 net.cpp:156] Memory required for data: 946192992
I0403 16:57:36.857923 19824 layer_factory.hpp:77] Creating layer loss1/classifier_plantvillage_loss1/classifier_plantvillage_0_split
I0403 16:57:36.857939 19824 net.cpp:91] Creating Layer loss1/classifier_plantvillage_loss1/classifier_plantvillage_0_split
I0403 16:57:36.857952 19824 net.cpp:425] loss1/classifier_plantvillage_loss1/classifier_plantvillage_0_split <- loss1/classifier_plantvillage
I0403 16:57:36.857969 19824 net.cpp:399] loss1/classifier_plantvillage_loss1/classifier_plantvillage_0_split -> loss1/classifier_plantvillage_loss1/classifier_plantvillage_0_split_0
I0403 16:57:36.857988 19824 net.cpp:399] loss1/classifier_plantvillage_loss1/classifier_plantvillage_0_split -> loss1/classifier_plantvillage_loss1/classifier_plantvillage_0_split_1
I0403 16:57:36.858008 19824 net.cpp:399] loss1/classifier_plantvillage_loss1/classifier_plantvillage_0_split -> loss1/classifier_plantvillage_loss1/classifier_plantvillage_0_split_2
I0403 16:57:36.858070 19824 net.cpp:141] Setting up loss1/classifier_plantvillage_loss1/classifier_plantvillage_0_split
I0403 16:57:36.858091 19824 net.cpp:148] Top shape: 24 38 (912)
I0403 16:57:36.858106 19824 net.cpp:148] Top shape: 24 38 (912)
I0403 16:57:36.858120 19824 net.cpp:148] Top shape: 24 38 (912)
I0403 16:57:36.858132 19824 net.cpp:156] Memory required for data: 946203936
I0403 16:57:36.858146 19824 layer_factory.hpp:77] Creating layer inception_4b/1x1
I0403 16:57:36.858163 19824 net.cpp:91] Creating Layer inception_4b/1x1
I0403 16:57:36.858193 19824 net.cpp:425] inception_4b/1x1 <- inception_4a/output_inception_4a/output_0_split_1
I0403 16:57:36.858214 19824 net.cpp:399] inception_4b/1x1 -> inception_4b/1x1
I0403 16:57:36.859765 19824 net.cpp:141] Setting up inception_4b/1x1
I0403 16:57:36.859791 19824 net.cpp:148] Top shape: 24 160 14 14 (752640)
I0403 16:57:36.859805 19824 net.cpp:156] Memory required for data: 949214496
I0403 16:57:36.859822 19824 layer_factory.hpp:77] Creating layer inception_4b/relu_1x1
I0403 16:57:36.859838 19824 net.cpp:91] Creating Layer inception_4b/relu_1x1
I0403 16:57:36.859853 19824 net.cpp:425] inception_4b/relu_1x1 <- inception_4b/1x1
I0403 16:57:36.859871 19824 net.cpp:386] inception_4b/relu_1x1 -> inception_4b/1x1 (in-place)
I0403 16:57:36.860041 19824 net.cpp:141] Setting up inception_4b/relu_1x1
I0403 16:57:36.860065 19824 net.cpp:148] Top shape: 24 160 14 14 (752640)
I0403 16:57:36.860079 19824 net.cpp:156] Memory required for data: 952225056
I0403 16:57:36.860092 19824 layer_factory.hpp:77] Creating layer inception_4b/3x3_reduce
I0403 16:57:36.860112 19824 net.cpp:91] Creating Layer inception_4b/3x3_reduce
I0403 16:57:36.860128 19824 net.cpp:425] inception_4b/3x3_reduce <- inception_4a/output_inception_4a/output_0_split_2
I0403 16:57:36.860149 19824 net.cpp:399] inception_4b/3x3_reduce -> inception_4b/3x3_reduce
I0403 16:57:36.861436 19824 net.cpp:141] Setting up inception_4b/3x3_reduce
I0403 16:57:36.861464 19824 net.cpp:148] Top shape: 24 112 14 14 (526848)
I0403 16:57:36.861477 19824 net.cpp:156] Memory required for data: 954332448
I0403 16:57:36.861495 19824 layer_factory.hpp:77] Creating layer inception_4b/relu_3x3_reduce
I0403 16:57:36.861515 19824 net.cpp:91] Creating Layer inception_4b/relu_3x3_reduce
I0403 16:57:36.861531 19824 net.cpp:425] inception_4b/relu_3x3_reduce <- inception_4b/3x3_reduce
I0403 16:57:36.861546 19824 net.cpp:386] inception_4b/relu_3x3_reduce -> inception_4b/3x3_reduce (in-place)
I0403 16:57:36.861830 19824 net.cpp:141] Setting up inception_4b/relu_3x3_reduce
I0403 16:57:36.861855 19824 net.cpp:148] Top shape: 24 112 14 14 (526848)
I0403 16:57:36.861870 19824 net.cpp:156] Memory required for data: 956439840
I0403 16:57:36.861883 19824 layer_factory.hpp:77] Creating layer inception_4b/3x3
I0403 16:57:36.861903 19824 net.cpp:91] Creating Layer inception_4b/3x3
I0403 16:57:36.861918 19824 net.cpp:425] inception_4b/3x3 <- inception_4b/3x3_reduce
I0403 16:57:36.861937 19824 net.cpp:399] inception_4b/3x3 -> inception_4b/3x3
I0403 16:57:36.864775 19824 net.cpp:141] Setting up inception_4b/3x3
I0403 16:57:36.864805 19824 net.cpp:148] Top shape: 24 224 14 14 (1053696)
I0403 16:57:36.864820 19824 net.cpp:156] Memory required for data: 960654624
I0403 16:57:36.864837 19824 layer_factory.hpp:77] Creating layer inception_4b/relu_3x3
I0403 16:57:36.864855 19824 net.cpp:91] Creating Layer inception_4b/relu_3x3
I0403 16:57:36.864868 19824 net.cpp:425] inception_4b/relu_3x3 <- inception_4b/3x3
I0403 16:57:36.864884 19824 net.cpp:386] inception_4b/relu_3x3 -> inception_4b/3x3 (in-place)
I0403 16:57:36.865056 19824 net.cpp:141] Setting up inception_4b/relu_3x3
I0403 16:57:36.865079 19824 net.cpp:148] Top shape: 24 224 14 14 (1053696)
I0403 16:57:36.865092 19824 net.cpp:156] Memory required for data: 964869408
I0403 16:57:36.865105 19824 layer_factory.hpp:77] Creating layer inception_4b/5x5_reduce
I0403 16:57:36.865126 19824 net.cpp:91] Creating Layer inception_4b/5x5_reduce
I0403 16:57:36.865141 19824 net.cpp:425] inception_4b/5x5_reduce <- inception_4a/output_inception_4a/output_0_split_3
I0403 16:57:36.865161 19824 net.cpp:399] inception_4b/5x5_reduce -> inception_4b/5x5_reduce
I0403 16:57:36.866197 19824 net.cpp:141] Setting up inception_4b/5x5_reduce
I0403 16:57:36.866224 19824 net.cpp:148] Top shape: 24 24 14 14 (112896)
I0403 16:57:36.866237 19824 net.cpp:156] Memory required for data: 965320992
I0403 16:57:36.866253 19824 layer_factory.hpp:77] Creating layer inception_4b/relu_5x5_reduce
I0403 16:57:36.866271 19824 net.cpp:91] Creating Layer inception_4b/relu_5x5_reduce
I0403 16:57:36.866302 19824 net.cpp:425] inception_4b/relu_5x5_reduce <- inception_4b/5x5_reduce
I0403 16:57:36.866319 19824 net.cpp:386] inception_4b/relu_5x5_reduce -> inception_4b/5x5_reduce (in-place)
I0403 16:57:36.866492 19824 net.cpp:141] Setting up inception_4b/relu_5x5_reduce
I0403 16:57:36.866515 19824 net.cpp:148] Top shape: 24 24 14 14 (112896)
I0403 16:57:36.866528 19824 net.cpp:156] Memory required for data: 965772576
I0403 16:57:36.866541 19824 layer_factory.hpp:77] Creating layer inception_4b/5x5
I0403 16:57:36.866564 19824 net.cpp:91] Creating Layer inception_4b/5x5
I0403 16:57:36.866580 19824 net.cpp:425] inception_4b/5x5 <- inception_4b/5x5_reduce
I0403 16:57:36.866596 19824 net.cpp:399] inception_4b/5x5 -> inception_4b/5x5
I0403 16:57:36.867769 19824 net.cpp:141] Setting up inception_4b/5x5
I0403 16:57:36.867795 19824 net.cpp:148] Top shape: 24 64 14 14 (301056)
I0403 16:57:36.867810 19824 net.cpp:156] Memory required for data: 966976800
I0403 16:57:36.867826 19824 layer_factory.hpp:77] Creating layer inception_4b/relu_5x5
I0403 16:57:36.867842 19824 net.cpp:91] Creating Layer inception_4b/relu_5x5
I0403 16:57:36.867856 19824 net.cpp:425] inception_4b/relu_5x5 <- inception_4b/5x5
I0403 16:57:36.867874 19824 net.cpp:386] inception_4b/relu_5x5 -> inception_4b/5x5 (in-place)
I0403 16:57:36.868146 19824 net.cpp:141] Setting up inception_4b/relu_5x5
I0403 16:57:36.868170 19824 net.cpp:148] Top shape: 24 64 14 14 (301056)
I0403 16:57:36.868183 19824 net.cpp:156] Memory required for data: 968181024
I0403 16:57:36.868196 19824 layer_factory.hpp:77] Creating layer inception_4b/pool
I0403 16:57:36.868212 19824 net.cpp:91] Creating Layer inception_4b/pool
I0403 16:57:36.868227 19824 net.cpp:425] inception_4b/pool <- inception_4a/output_inception_4a/output_0_split_4
I0403 16:57:36.868245 19824 net.cpp:399] inception_4b/pool -> inception_4b/pool
I0403 16:57:36.868306 19824 net.cpp:141] Setting up inception_4b/pool
I0403 16:57:36.868329 19824 net.cpp:148] Top shape: 24 512 14 14 (2408448)
I0403 16:57:36.868341 19824 net.cpp:156] Memory required for data: 977814816
I0403 16:57:36.868355 19824 layer_factory.hpp:77] Creating layer inception_4b/pool_proj
I0403 16:57:36.868376 19824 net.cpp:91] Creating Layer inception_4b/pool_proj
I0403 16:57:36.868391 19824 net.cpp:425] inception_4b/pool_proj <- inception_4b/pool
I0403 16:57:36.868408 19824 net.cpp:399] inception_4b/pool_proj -> inception_4b/pool_proj
I0403 16:57:36.869537 19824 net.cpp:141] Setting up inception_4b/pool_proj
I0403 16:57:36.869563 19824 net.cpp:148] Top shape: 24 64 14 14 (301056)
I0403 16:57:36.869577 19824 net.cpp:156] Memory required for data: 979019040
I0403 16:57:36.869595 19824 layer_factory.hpp:77] Creating layer inception_4b/relu_pool_proj
I0403 16:57:36.869617 19824 net.cpp:91] Creating Layer inception_4b/relu_pool_proj
I0403 16:57:36.869633 19824 net.cpp:425] inception_4b/relu_pool_proj <- inception_4b/pool_proj
I0403 16:57:36.869649 19824 net.cpp:386] inception_4b/relu_pool_proj -> inception_4b/pool_proj (in-place)
I0403 16:57:36.869815 19824 net.cpp:141] Setting up inception_4b/relu_pool_proj
I0403 16:57:36.869839 19824 net.cpp:148] Top shape: 24 64 14 14 (301056)
I0403 16:57:36.869855 19824 net.cpp:156] Memory required for data: 980223264
I0403 16:57:36.869868 19824 layer_factory.hpp:77] Creating layer inception_4b/output
I0403 16:57:36.869884 19824 net.cpp:91] Creating Layer inception_4b/output
I0403 16:57:36.869899 19824 net.cpp:425] inception_4b/output <- inception_4b/1x1
I0403 16:57:36.869925 19824 net.cpp:425] inception_4b/output <- inception_4b/3x3
I0403 16:57:36.869940 19824 net.cpp:425] inception_4b/output <- inception_4b/5x5
I0403 16:57:36.869954 19824 net.cpp:425] inception_4b/output <- inception_4b/pool_proj
I0403 16:57:36.869971 19824 net.cpp:399] inception_4b/output -> inception_4b/output
I0403 16:57:36.870015 19824 net.cpp:141] Setting up inception_4b/output
I0403 16:57:36.870038 19824 net.cpp:148] Top shape: 24 512 14 14 (2408448)
I0403 16:57:36.870051 19824 net.cpp:156] Memory required for data: 989857056
I0403 16:57:36.870080 19824 layer_factory.hpp:77] Creating layer inception_4b/output_inception_4b/output_0_split
I0403 16:57:36.870098 19824 net.cpp:91] Creating Layer inception_4b/output_inception_4b/output_0_split
I0403 16:57:36.870112 19824 net.cpp:425] inception_4b/output_inception_4b/output_0_split <- inception_4b/output
I0403 16:57:36.870132 19824 net.cpp:399] inception_4b/output_inception_4b/output_0_split -> inception_4b/output_inception_4b/output_0_split_0
I0403 16:57:36.870152 19824 net.cpp:399] inception_4b/output_inception_4b/output_0_split -> inception_4b/output_inception_4b/output_0_split_1
I0403 16:57:36.870172 19824 net.cpp:399] inception_4b/output_inception_4b/output_0_split -> inception_4b/output_inception_4b/output_0_split_2
I0403 16:57:36.870192 19824 net.cpp:399] inception_4b/output_inception_4b/output_0_split -> inception_4b/output_inception_4b/output_0_split_3
I0403 16:57:36.870282 19824 net.cpp:141] Setting up inception_4b/output_inception_4b/output_0_split
I0403 16:57:36.870306 19824 net.cpp:148] Top shape: 24 512 14 14 (2408448)
I0403 16:57:36.870321 19824 net.cpp:148] Top shape: 24 512 14 14 (2408448)
I0403 16:57:36.870333 19824 net.cpp:148] Top shape: 24 512 14 14 (2408448)
I0403 16:57:36.870347 19824 net.cpp:148] Top shape: 24 512 14 14 (2408448)
I0403 16:57:36.870358 19824 net.cpp:156] Memory required for data: 1028392224
I0403 16:57:36.870373 19824 layer_factory.hpp:77] Creating layer inception_4c/1x1
I0403 16:57:36.870393 19824 net.cpp:91] Creating Layer inception_4c/1x1
I0403 16:57:36.870407 19824 net.cpp:425] inception_4c/1x1 <- inception_4b/output_inception_4b/output_0_split_0
I0403 16:57:36.870430 19824 net.cpp:399] inception_4c/1x1 -> inception_4c/1x1
I0403 16:57:36.871865 19824 net.cpp:141] Setting up inception_4c/1x1
I0403 16:57:36.871894 19824 net.cpp:148] Top shape: 24 128 14 14 (602112)
I0403 16:57:36.871911 19824 net.cpp:156] Memory required for data: 1030800672
I0403 16:57:36.871928 19824 layer_factory.hpp:77] Creating layer inception_4c/relu_1x1
I0403 16:57:36.871945 19824 net.cpp:91] Creating Layer inception_4c/relu_1x1
I0403 16:57:36.871959 19824 net.cpp:425] inception_4c/relu_1x1 <- inception_4c/1x1
I0403 16:57:36.871975 19824 net.cpp:386] inception_4c/relu_1x1 -> inception_4c/1x1 (in-place)
I0403 16:57:36.872153 19824 net.cpp:141] Setting up inception_4c/relu_1x1
I0403 16:57:36.872179 19824 net.cpp:148] Top shape: 24 128 14 14 (602112)
I0403 16:57:36.872192 19824 net.cpp:156] Memory required for data: 1033209120
I0403 16:57:36.872206 19824 layer_factory.hpp:77] Creating layer inception_4c/3x3_reduce
I0403 16:57:36.872227 19824 net.cpp:91] Creating Layer inception_4c/3x3_reduce
I0403 16:57:36.872243 19824 net.cpp:425] inception_4c/3x3_reduce <- inception_4b/output_inception_4b/output_0_split_1
I0403 16:57:36.872262 19824 net.cpp:399] inception_4c/3x3_reduce -> inception_4c/3x3_reduce
I0403 16:57:36.874157 19824 net.cpp:141] Setting up inception_4c/3x3_reduce
I0403 16:57:36.874186 19824 net.cpp:148] Top shape: 24 128 14 14 (602112)
I0403 16:57:36.874200 19824 net.cpp:156] Memory required for data: 1035617568
I0403 16:57:36.874217 19824 layer_factory.hpp:77] Creating layer inception_4c/relu_3x3_reduce
I0403 16:57:36.874234 19824 net.cpp:91] Creating Layer inception_4c/relu_3x3_reduce
I0403 16:57:36.874248 19824 net.cpp:425] inception_4c/relu_3x3_reduce <- inception_4c/3x3_reduce
I0403 16:57:36.874267 19824 net.cpp:386] inception_4c/relu_3x3_reduce -> inception_4c/3x3_reduce (in-place)
I0403 16:57:36.874543 19824 net.cpp:141] Setting up inception_4c/relu_3x3_reduce
I0403 16:57:36.874568 19824 net.cpp:148] Top shape: 24 128 14 14 (602112)
I0403 16:57:36.874583 19824 net.cpp:156] Memory required for data: 1038026016
I0403 16:57:36.874596 19824 layer_factory.hpp:77] Creating layer inception_4c/3x3
I0403 16:57:36.874630 19824 net.cpp:91] Creating Layer inception_4c/3x3
I0403 16:57:36.874647 19824 net.cpp:425] inception_4c/3x3 <- inception_4c/3x3_reduce
I0403 16:57:36.874668 19824 net.cpp:399] inception_4c/3x3 -> inception_4c/3x3
I0403 16:57:36.878168 19824 net.cpp:141] Setting up inception_4c/3x3
I0403 16:57:36.878207 19824 net.cpp:148] Top shape: 24 256 14 14 (1204224)
I0403 16:57:36.878222 19824 net.cpp:156] Memory required for data: 1042842912
I0403 16:57:36.878252 19824 layer_factory.hpp:77] Creating layer inception_4c/relu_3x3
I0403 16:57:36.878271 19824 net.cpp:91] Creating Layer inception_4c/relu_3x3
I0403 16:57:36.878288 19824 net.cpp:425] inception_4c/relu_3x3 <- inception_4c/3x3
I0403 16:57:36.878305 19824 net.cpp:386] inception_4c/relu_3x3 -> inception_4c/3x3 (in-place)
I0403 16:57:36.878485 19824 net.cpp:141] Setting up inception_4c/relu_3x3
I0403 16:57:36.878509 19824 net.cpp:148] Top shape: 24 256 14 14 (1204224)
I0403 16:57:36.878522 19824 net.cpp:156] Memory required for data: 1047659808
I0403 16:57:36.878536 19824 layer_factory.hpp:77] Creating layer inception_4c/5x5_reduce
I0403 16:57:36.878556 19824 net.cpp:91] Creating Layer inception_4c/5x5_reduce
I0403 16:57:36.878573 19824 net.cpp:425] inception_4c/5x5_reduce <- inception_4b/output_inception_4b/output_0_split_2
I0403 16:57:36.878592 19824 net.cpp:399] inception_4c/5x5_reduce -> inception_4c/5x5_reduce
I0403 16:57:36.879672 19824 net.cpp:141] Setting up inception_4c/5x5_reduce
I0403 16:57:36.879698 19824 net.cpp:148] Top shape: 24 24 14 14 (112896)
I0403 16:57:36.879712 19824 net.cpp:156] Memory required for data: 1048111392
I0403 16:57:36.879729 19824 layer_factory.hpp:77] Creating layer inception_4c/relu_5x5_reduce
I0403 16:57:36.879748 19824 net.cpp:91] Creating Layer inception_4c/relu_5x5_reduce
I0403 16:57:36.879763 19824 net.cpp:425] inception_4c/relu_5x5_reduce <- inception_4c/5x5_reduce
I0403 16:57:36.879779 19824 net.cpp:386] inception_4c/relu_5x5_reduce -> inception_4c/5x5_reduce (in-place)
I0403 16:57:36.879957 19824 net.cpp:141] Setting up inception_4c/relu_5x5_reduce
I0403 16:57:36.879981 19824 net.cpp:148] Top shape: 24 24 14 14 (112896)
I0403 16:57:36.879993 19824 net.cpp:156] Memory required for data: 1048562976
I0403 16:57:36.880007 19824 layer_factory.hpp:77] Creating layer inception_4c/5x5
I0403 16:57:36.880029 19824 net.cpp:91] Creating Layer inception_4c/5x5
I0403 16:57:36.880045 19824 net.cpp:425] inception_4c/5x5 <- inception_4c/5x5_reduce
I0403 16:57:36.880062 19824 net.cpp:399] inception_4c/5x5 -> inception_4c/5x5
I0403 16:57:36.881270 19824 net.cpp:141] Setting up inception_4c/5x5
I0403 16:57:36.881299 19824 net.cpp:148] Top shape: 24 64 14 14 (301056)
I0403 16:57:36.881314 19824 net.cpp:156] Memory required for data: 1049767200
I0403 16:57:36.881331 19824 layer_factory.hpp:77] Creating layer inception_4c/relu_5x5
I0403 16:57:36.881351 19824 net.cpp:91] Creating Layer inception_4c/relu_5x5
I0403 16:57:36.881366 19824 net.cpp:425] inception_4c/relu_5x5 <- inception_4c/5x5
I0403 16:57:36.881381 19824 net.cpp:386] inception_4c/relu_5x5 -> inception_4c/5x5 (in-place)
I0403 16:57:36.881671 19824 net.cpp:141] Setting up inception_4c/relu_5x5
I0403 16:57:36.881696 19824 net.cpp:148] Top shape: 24 64 14 14 (301056)
I0403 16:57:36.881711 19824 net.cpp:156] Memory required for data: 1050971424
I0403 16:57:36.881726 19824 layer_factory.hpp:77] Creating layer inception_4c/pool
I0403 16:57:36.881744 19824 net.cpp:91] Creating Layer inception_4c/pool
I0403 16:57:36.881762 19824 net.cpp:425] inception_4c/pool <- inception_4b/output_inception_4b/output_0_split_3
I0403 16:57:36.881778 19824 net.cpp:399] inception_4c/pool -> inception_4c/pool
I0403 16:57:36.881841 19824 net.cpp:141] Setting up inception_4c/pool
I0403 16:57:36.881865 19824 net.cpp:148] Top shape: 24 512 14 14 (2408448)
I0403 16:57:36.881878 19824 net.cpp:156] Memory required for data: 1060605216
I0403 16:57:36.881892 19824 layer_factory.hpp:77] Creating layer inception_4c/pool_proj
I0403 16:57:36.881912 19824 net.cpp:91] Creating Layer inception_4c/pool_proj
I0403 16:57:36.881928 19824 net.cpp:425] inception_4c/pool_proj <- inception_4c/pool
I0403 16:57:36.881948 19824 net.cpp:399] inception_4c/pool_proj -> inception_4c/pool_proj
I0403 16:57:36.883141 19824 net.cpp:141] Setting up inception_4c/pool_proj
I0403 16:57:36.883167 19824 net.cpp:148] Top shape: 24 64 14 14 (301056)
I0403 16:57:36.883195 19824 net.cpp:156] Memory required for data: 1061809440
I0403 16:57:36.883214 19824 layer_factory.hpp:77] Creating layer inception_4c/relu_pool_proj
I0403 16:57:36.883231 19824 net.cpp:91] Creating Layer inception_4c/relu_pool_proj
I0403 16:57:36.883246 19824 net.cpp:425] inception_4c/relu_pool_proj <- inception_4c/pool_proj
I0403 16:57:36.883272 19824 net.cpp:386] inception_4c/relu_pool_proj -> inception_4c/pool_proj (in-place)
I0403 16:57:36.883453 19824 net.cpp:141] Setting up inception_4c/relu_pool_proj
I0403 16:57:36.883476 19824 net.cpp:148] Top shape: 24 64 14 14 (301056)
I0403 16:57:36.883491 19824 net.cpp:156] Memory required for data: 1063013664
I0403 16:57:36.883503 19824 layer_factory.hpp:77] Creating layer inception_4c/output
I0403 16:57:36.883522 19824 net.cpp:91] Creating Layer inception_4c/output
I0403 16:57:36.883536 19824 net.cpp:425] inception_4c/output <- inception_4c/1x1
I0403 16:57:36.883553 19824 net.cpp:425] inception_4c/output <- inception_4c/3x3
I0403 16:57:36.883575 19824 net.cpp:425] inception_4c/output <- inception_4c/5x5
I0403 16:57:36.883589 19824 net.cpp:425] inception_4c/output <- inception_4c/pool_proj
I0403 16:57:36.883610 19824 net.cpp:399] inception_4c/output -> inception_4c/output
I0403 16:57:36.883656 19824 net.cpp:141] Setting up inception_4c/output
I0403 16:57:36.883679 19824 net.cpp:148] Top shape: 24 512 14 14 (2408448)
I0403 16:57:36.883697 19824 net.cpp:156] Memory required for data: 1072647456
I0403 16:57:36.883711 19824 layer_factory.hpp:77] Creating layer inception_4c/output_inception_4c/output_0_split
I0403 16:57:36.883728 19824 net.cpp:91] Creating Layer inception_4c/output_inception_4c/output_0_split
I0403 16:57:36.883741 19824 net.cpp:425] inception_4c/output_inception_4c/output_0_split <- inception_4c/output
I0403 16:57:36.883766 19824 net.cpp:399] inception_4c/output_inception_4c/output_0_split -> inception_4c/output_inception_4c/output_0_split_0
I0403 16:57:36.883786 19824 net.cpp:399] inception_4c/output_inception_4c/output_0_split -> inception_4c/output_inception_4c/output_0_split_1
I0403 16:57:36.883805 19824 net.cpp:399] inception_4c/output_inception_4c/output_0_split -> inception_4c/output_inception_4c/output_0_split_2
I0403 16:57:36.883823 19824 net.cpp:399] inception_4c/output_inception_4c/output_0_split -> inception_4c/output_inception_4c/output_0_split_3
I0403 16:57:36.883905 19824 net.cpp:141] Setting up inception_4c/output_inception_4c/output_0_split
I0403 16:57:36.883927 19824 net.cpp:148] Top shape: 24 512 14 14 (2408448)
I0403 16:57:36.883944 19824 net.cpp:148] Top shape: 24 512 14 14 (2408448)
I0403 16:57:36.883957 19824 net.cpp:148] Top shape: 24 512 14 14 (2408448)
I0403 16:57:36.883971 19824 net.cpp:148] Top shape: 24 512 14 14 (2408448)
I0403 16:57:36.883983 19824 net.cpp:156] Memory required for data: 1111182624
I0403 16:57:36.883996 19824 layer_factory.hpp:77] Creating layer inception_4d/1x1
I0403 16:57:36.884018 19824 net.cpp:91] Creating Layer inception_4d/1x1
I0403 16:57:36.884035 19824 net.cpp:425] inception_4d/1x1 <- inception_4c/output_inception_4c/output_0_split_0
I0403 16:57:36.884054 19824 net.cpp:399] inception_4d/1x1 -> inception_4d/1x1
I0403 16:57:36.885397 19824 net.cpp:141] Setting up inception_4d/1x1
I0403 16:57:36.885427 19824 net.cpp:148] Top shape: 24 112 14 14 (526848)
I0403 16:57:36.885443 19824 net.cpp:156] Memory required for data: 1113290016
I0403 16:57:36.885462 19824 layer_factory.hpp:77] Creating layer inception_4d/relu_1x1
I0403 16:57:36.885478 19824 net.cpp:91] Creating Layer inception_4d/relu_1x1
I0403 16:57:36.885493 19824 net.cpp:425] inception_4d/relu_1x1 <- inception_4d/1x1
I0403 16:57:36.885510 19824 net.cpp:386] inception_4d/relu_1x1 -> inception_4d/1x1 (in-place)
I0403 16:57:36.885699 19824 net.cpp:141] Setting up inception_4d/relu_1x1
I0403 16:57:36.885722 19824 net.cpp:148] Top shape: 24 112 14 14 (526848)
I0403 16:57:36.885737 19824 net.cpp:156] Memory required for data: 1115397408
I0403 16:57:36.885751 19824 layer_factory.hpp:77] Creating layer inception_4d/3x3_reduce
I0403 16:57:36.885785 19824 net.cpp:91] Creating Layer inception_4d/3x3_reduce
I0403 16:57:36.885802 19824 net.cpp:425] inception_4d/3x3_reduce <- inception_4c/output_inception_4c/output_0_split_1
I0403 16:57:36.885823 19824 net.cpp:399] inception_4d/3x3_reduce -> inception_4d/3x3_reduce
I0403 16:57:36.887291 19824 net.cpp:141] Setting up inception_4d/3x3_reduce
I0403 16:57:36.887318 19824 net.cpp:148] Top shape: 24 144 14 14 (677376)
I0403 16:57:36.887332 19824 net.cpp:156] Memory required for data: 1118106912
I0403 16:57:36.887349 19824 layer_factory.hpp:77] Creating layer inception_4d/relu_3x3_reduce
I0403 16:57:36.887369 19824 net.cpp:91] Creating Layer inception_4d/relu_3x3_reduce
I0403 16:57:36.887384 19824 net.cpp:425] inception_4d/relu_3x3_reduce <- inception_4d/3x3_reduce
I0403 16:57:36.887401 19824 net.cpp:386] inception_4d/relu_3x3_reduce -> inception_4d/3x3_reduce (in-place)
I0403 16:57:36.887697 19824 net.cpp:141] Setting up inception_4d/relu_3x3_reduce
I0403 16:57:36.887723 19824 net.cpp:148] Top shape: 24 144 14 14 (677376)
I0403 16:57:36.887738 19824 net.cpp:156] Memory required for data: 1120816416
I0403 16:57:36.887753 19824 layer_factory.hpp:77] Creating layer inception_4d/3x3
I0403 16:57:36.887775 19824 net.cpp:91] Creating Layer inception_4d/3x3
I0403 16:57:36.887794 19824 net.cpp:425] inception_4d/3x3 <- inception_4d/3x3_reduce
I0403 16:57:36.887811 19824 net.cpp:399] inception_4d/3x3 -> inception_4d/3x3
I0403 16:57:36.891907 19824 net.cpp:141] Setting up inception_4d/3x3
I0403 16:57:36.891937 19824 net.cpp:148] Top shape: 24 288 14 14 (1354752)
I0403 16:57:36.891953 19824 net.cpp:156] Memory required for data: 1126235424
I0403 16:57:36.891970 19824 layer_factory.hpp:77] Creating layer inception_4d/relu_3x3
I0403 16:57:36.891988 19824 net.cpp:91] Creating Layer inception_4d/relu_3x3
I0403 16:57:36.892001 19824 net.cpp:425] inception_4d/relu_3x3 <- inception_4d/3x3
I0403 16:57:36.892020 19824 net.cpp:386] inception_4d/relu_3x3 -> inception_4d/3x3 (in-place)
I0403 16:57:36.892192 19824 net.cpp:141] Setting up inception_4d/relu_3x3
I0403 16:57:36.892215 19824 net.cpp:148] Top shape: 24 288 14 14 (1354752)
I0403 16:57:36.892230 19824 net.cpp:156] Memory required for data: 1131654432
I0403 16:57:36.892242 19824 layer_factory.hpp:77] Creating layer inception_4d/5x5_reduce
I0403 16:57:36.892262 19824 net.cpp:91] Creating Layer inception_4d/5x5_reduce
I0403 16:57:36.892278 19824 net.cpp:425] inception_4d/5x5_reduce <- inception_4c/output_inception_4c/output_0_split_2
I0403 16:57:36.892299 19824 net.cpp:399] inception_4d/5x5_reduce -> inception_4d/5x5_reduce
I0403 16:57:36.893396 19824 net.cpp:141] Setting up inception_4d/5x5_reduce
I0403 16:57:36.893422 19824 net.cpp:148] Top shape: 24 32 14 14 (150528)
I0403 16:57:36.893436 19824 net.cpp:156] Memory required for data: 1132256544
I0403 16:57:36.893453 19824 layer_factory.hpp:77] Creating layer inception_4d/relu_5x5_reduce
I0403 16:57:36.893481 19824 net.cpp:91] Creating Layer inception_4d/relu_5x5_reduce
I0403 16:57:36.893494 19824 net.cpp:425] inception_4d/relu_5x5_reduce <- inception_4d/5x5_reduce
I0403 16:57:36.893512 19824 net.cpp:386] inception_4d/relu_5x5_reduce -> inception_4d/5x5_reduce (in-place)
I0403 16:57:36.893693 19824 net.cpp:141] Setting up inception_4d/relu_5x5_reduce
I0403 16:57:36.893717 19824 net.cpp:148] Top shape: 24 32 14 14 (150528)
I0403 16:57:36.893729 19824 net.cpp:156] Memory required for data: 1132858656
I0403 16:57:36.893743 19824 layer_factory.hpp:77] Creating layer inception_4d/5x5
I0403 16:57:36.893771 19824 net.cpp:91] Creating Layer inception_4d/5x5
I0403 16:57:36.893787 19824 net.cpp:425] inception_4d/5x5 <- inception_4d/5x5_reduce
I0403 16:57:36.893807 19824 net.cpp:399] inception_4d/5x5 -> inception_4d/5x5
I0403 16:57:36.895220 19824 net.cpp:141] Setting up inception_4d/5x5
I0403 16:57:36.895246 19824 net.cpp:148] Top shape: 24 64 14 14 (301056)
I0403 16:57:36.895261 19824 net.cpp:156] Memory required for data: 1134062880
I0403 16:57:36.895277 19824 layer_factory.hpp:77] Creating layer inception_4d/relu_5x5
I0403 16:57:36.895310 19824 net.cpp:91] Creating Layer inception_4d/relu_5x5
I0403 16:57:36.895328 19824 net.cpp:425] inception_4d/relu_5x5 <- inception_4d/5x5
I0403 16:57:36.895345 19824 net.cpp:386] inception_4d/relu_5x5 -> inception_4d/5x5 (in-place)
I0403 16:57:36.895642 19824 net.cpp:141] Setting up inception_4d/relu_5x5
I0403 16:57:36.895666 19824 net.cpp:148] Top shape: 24 64 14 14 (301056)
I0403 16:57:36.895680 19824 net.cpp:156] Memory required for data: 1135267104
I0403 16:57:36.895694 19824 layer_factory.hpp:77] Creating layer inception_4d/pool
I0403 16:57:36.895711 19824 net.cpp:91] Creating Layer inception_4d/pool
I0403 16:57:36.895727 19824 net.cpp:425] inception_4d/pool <- inception_4c/output_inception_4c/output_0_split_3
I0403 16:57:36.895743 19824 net.cpp:399] inception_4d/pool -> inception_4d/pool
I0403 16:57:36.895807 19824 net.cpp:141] Setting up inception_4d/pool
I0403 16:57:36.895829 19824 net.cpp:148] Top shape: 24 512 14 14 (2408448)
I0403 16:57:36.895843 19824 net.cpp:156] Memory required for data: 1144900896
I0403 16:57:36.895855 19824 layer_factory.hpp:77] Creating layer inception_4d/pool_proj
I0403 16:57:36.895875 19824 net.cpp:91] Creating Layer inception_4d/pool_proj
I0403 16:57:36.895891 19824 net.cpp:425] inception_4d/pool_proj <- inception_4d/pool
I0403 16:57:36.895910 19824 net.cpp:399] inception_4d/pool_proj -> inception_4d/pool_proj
I0403 16:57:36.897625 19824 net.cpp:141] Setting up inception_4d/pool_proj
I0403 16:57:36.897655 19824 net.cpp:148] Top shape: 24 64 14 14 (301056)
I0403 16:57:36.897670 19824 net.cpp:156] Memory required for data: 1146105120
I0403 16:57:36.897687 19824 layer_factory.hpp:77] Creating layer inception_4d/relu_pool_proj
I0403 16:57:36.897703 19824 net.cpp:91] Creating Layer inception_4d/relu_pool_proj
I0403 16:57:36.897718 19824 net.cpp:425] inception_4d/relu_pool_proj <- inception_4d/pool_proj
I0403 16:57:36.897737 19824 net.cpp:386] inception_4d/relu_pool_proj -> inception_4d/pool_proj (in-place)
I0403 16:57:36.897912 19824 net.cpp:141] Setting up inception_4d/relu_pool_proj
I0403 16:57:36.897935 19824 net.cpp:148] Top shape: 24 64 14 14 (301056)
I0403 16:57:36.897948 19824 net.cpp:156] Memory required for data: 1147309344
I0403 16:57:36.897961 19824 layer_factory.hpp:77] Creating layer inception_4d/output
I0403 16:57:36.897977 19824 net.cpp:91] Creating Layer inception_4d/output
I0403 16:57:36.897991 19824 net.cpp:425] inception_4d/output <- inception_4d/1x1
I0403 16:57:36.898006 19824 net.cpp:425] inception_4d/output <- inception_4d/3x3
I0403 16:57:36.898020 19824 net.cpp:425] inception_4d/output <- inception_4d/5x5
I0403 16:57:36.898036 19824 net.cpp:425] inception_4d/output <- inception_4d/pool_proj
I0403 16:57:36.898053 19824 net.cpp:399] inception_4d/output -> inception_4d/output
I0403 16:57:36.898108 19824 net.cpp:141] Setting up inception_4d/output
I0403 16:57:36.898129 19824 net.cpp:148] Top shape: 24 528 14 14 (2483712)
I0403 16:57:36.898144 19824 net.cpp:156] Memory required for data: 1157244192
I0403 16:57:36.898157 19824 layer_factory.hpp:77] Creating layer inception_4d/output_inception_4d/output_0_split
I0403 16:57:36.898172 19824 net.cpp:91] Creating Layer inception_4d/output_inception_4d/output_0_split
I0403 16:57:36.898186 19824 net.cpp:425] inception_4d/output_inception_4d/output_0_split <- inception_4d/output
I0403 16:57:36.898205 19824 net.cpp:399] inception_4d/output_inception_4d/output_0_split -> inception_4d/output_inception_4d/output_0_split_0
I0403 16:57:36.898226 19824 net.cpp:399] inception_4d/output_inception_4d/output_0_split -> inception_4d/output_inception_4d/output_0_split_1
I0403 16:57:36.898246 19824 net.cpp:399] inception_4d/output_inception_4d/output_0_split -> inception_4d/output_inception_4d/output_0_split_2
I0403 16:57:36.898263 19824 net.cpp:399] inception_4d/output_inception_4d/output_0_split -> inception_4d/output_inception_4d/output_0_split_3
I0403 16:57:36.898282 19824 net.cpp:399] inception_4d/output_inception_4d/output_0_split -> inception_4d/output_inception_4d/output_0_split_4
I0403 16:57:36.898377 19824 net.cpp:141] Setting up inception_4d/output_inception_4d/output_0_split
I0403 16:57:36.898413 19824 net.cpp:148] Top shape: 24 528 14 14 (2483712)
I0403 16:57:36.898429 19824 net.cpp:148] Top shape: 24 528 14 14 (2483712)
I0403 16:57:36.898444 19824 net.cpp:148] Top shape: 24 528 14 14 (2483712)
I0403 16:57:36.898458 19824 net.cpp:148] Top shape: 24 528 14 14 (2483712)
I0403 16:57:36.898473 19824 net.cpp:148] Top shape: 24 528 14 14 (2483712)
I0403 16:57:36.898484 19824 net.cpp:156] Memory required for data: 1206918432
I0403 16:57:36.898497 19824 layer_factory.hpp:77] Creating layer loss2/ave_pool
I0403 16:57:36.898514 19824 net.cpp:91] Creating Layer loss2/ave_pool
I0403 16:57:36.898527 19824 net.cpp:425] loss2/ave_pool <- inception_4d/output_inception_4d/output_0_split_0
I0403 16:57:36.898546 19824 net.cpp:399] loss2/ave_pool -> loss2/ave_pool
I0403 16:57:36.898849 19824 net.cpp:141] Setting up loss2/ave_pool
I0403 16:57:36.898877 19824 net.cpp:148] Top shape: 24 528 4 4 (202752)
I0403 16:57:36.898893 19824 net.cpp:156] Memory required for data: 1207729440
I0403 16:57:36.898907 19824 layer_factory.hpp:77] Creating layer loss2/conv
I0403 16:57:36.898927 19824 net.cpp:91] Creating Layer loss2/conv
I0403 16:57:36.898943 19824 net.cpp:425] loss2/conv <- loss2/ave_pool
I0403 16:57:36.898962 19824 net.cpp:399] loss2/conv -> loss2/conv
I0403 16:57:36.900785 19824 net.cpp:141] Setting up loss2/conv
I0403 16:57:36.900812 19824 net.cpp:148] Top shape: 24 128 4 4 (49152)
I0403 16:57:36.900826 19824 net.cpp:156] Memory required for data: 1207926048
I0403 16:57:36.900843 19824 layer_factory.hpp:77] Creating layer loss2/relu_conv
I0403 16:57:36.900861 19824 net.cpp:91] Creating Layer loss2/relu_conv
I0403 16:57:36.900877 19824 net.cpp:425] loss2/relu_conv <- loss2/conv
I0403 16:57:36.900892 19824 net.cpp:386] loss2/relu_conv -> loss2/conv (in-place)
I0403 16:57:36.901165 19824 net.cpp:141] Setting up loss2/relu_conv
I0403 16:57:36.901190 19824 net.cpp:148] Top shape: 24 128 4 4 (49152)
I0403 16:57:36.901203 19824 net.cpp:156] Memory required for data: 1208122656
I0403 16:57:36.901217 19824 layer_factory.hpp:77] Creating layer loss2/fc
I0403 16:57:36.901237 19824 net.cpp:91] Creating Layer loss2/fc
I0403 16:57:36.901252 19824 net.cpp:425] loss2/fc <- loss2/conv
I0403 16:57:36.901271 19824 net.cpp:399] loss2/fc -> loss2/fc
I0403 16:57:36.918134 19824 net.cpp:141] Setting up loss2/fc
I0403 16:57:36.918165 19824 net.cpp:148] Top shape: 24 1024 (24576)
I0403 16:57:36.918180 19824 net.cpp:156] Memory required for data: 1208220960
I0403 16:57:36.918197 19824 layer_factory.hpp:77] Creating layer loss2/relu_fc
I0403 16:57:36.918213 19824 net.cpp:91] Creating Layer loss2/relu_fc
I0403 16:57:36.918228 19824 net.cpp:425] loss2/relu_fc <- loss2/fc
I0403 16:57:36.918249 19824 net.cpp:386] loss2/relu_fc -> loss2/fc (in-place)
I0403 16:57:36.918531 19824 net.cpp:141] Setting up loss2/relu_fc
I0403 16:57:36.918556 19824 net.cpp:148] Top shape: 24 1024 (24576)
I0403 16:57:36.918570 19824 net.cpp:156] Memory required for data: 1208319264
I0403 16:57:36.918583 19824 layer_factory.hpp:77] Creating layer loss2/drop_fc
I0403 16:57:36.918602 19824 net.cpp:91] Creating Layer loss2/drop_fc
I0403 16:57:36.918619 19824 net.cpp:425] loss2/drop_fc <- loss2/fc
I0403 16:57:36.918637 19824 net.cpp:386] loss2/drop_fc -> loss2/fc (in-place)
I0403 16:57:36.918683 19824 net.cpp:141] Setting up loss2/drop_fc
I0403 16:57:36.918705 19824 net.cpp:148] Top shape: 24 1024 (24576)
I0403 16:57:36.918720 19824 net.cpp:156] Memory required for data: 1208417568
I0403 16:57:36.918733 19824 layer_factory.hpp:77] Creating layer loss2/classifier_plantvillage
I0403 16:57:36.918750 19824 net.cpp:91] Creating Layer loss2/classifier_plantvillage
I0403 16:57:36.918764 19824 net.cpp:425] loss2/classifier_plantvillage <- loss2/fc
I0403 16:57:36.918784 19824 net.cpp:399] loss2/classifier_plantvillage -> loss2/classifier_plantvillage
I0403 16:57:36.919164 19824 net.cpp:141] Setting up loss2/classifier_plantvillage
I0403 16:57:36.919188 19824 net.cpp:148] Top shape: 24 38 (912)
I0403 16:57:36.919217 19824 net.cpp:156] Memory required for data: 1208421216
I0403 16:57:36.919235 19824 layer_factory.hpp:77] Creating layer loss2/classifier_plantvillage_loss2/classifier_plantvillage_0_split
I0403 16:57:36.919253 19824 net.cpp:91] Creating Layer loss2/classifier_plantvillage_loss2/classifier_plantvillage_0_split
I0403 16:57:36.919270 19824 net.cpp:425] loss2/classifier_plantvillage_loss2/classifier_plantvillage_0_split <- loss2/classifier_plantvillage
I0403 16:57:36.919286 19824 net.cpp:399] loss2/classifier_plantvillage_loss2/classifier_plantvillage_0_split -> loss2/classifier_plantvillage_loss2/classifier_plantvillage_0_split_0
I0403 16:57:36.919306 19824 net.cpp:399] loss2/classifier_plantvillage_loss2/classifier_plantvillage_0_split -> loss2/classifier_plantvillage_loss2/classifier_plantvillage_0_split_1
I0403 16:57:36.919328 19824 net.cpp:399] loss2/classifier_plantvillage_loss2/classifier_plantvillage_0_split -> loss2/classifier_plantvillage_loss2/classifier_plantvillage_0_split_2
I0403 16:57:36.919400 19824 net.cpp:141] Setting up loss2/classifier_plantvillage_loss2/classifier_plantvillage_0_split
I0403 16:57:36.919421 19824 net.cpp:148] Top shape: 24 38 (912)
I0403 16:57:36.919436 19824 net.cpp:148] Top shape: 24 38 (912)
I0403 16:57:36.919450 19824 net.cpp:148] Top shape: 24 38 (912)
I0403 16:57:36.919462 19824 net.cpp:156] Memory required for data: 1208432160
I0403 16:57:36.919476 19824 layer_factory.hpp:77] Creating layer inception_4e/1x1
I0403 16:57:36.919497 19824 net.cpp:91] Creating Layer inception_4e/1x1
I0403 16:57:36.919513 19824 net.cpp:425] inception_4e/1x1 <- inception_4d/output_inception_4d/output_0_split_1
I0403 16:57:36.919530 19824 net.cpp:399] inception_4e/1x1 -> inception_4e/1x1
I0403 16:57:36.921313 19824 net.cpp:141] Setting up inception_4e/1x1
I0403 16:57:36.921339 19824 net.cpp:148] Top shape: 24 256 14 14 (1204224)
I0403 16:57:36.921355 19824 net.cpp:156] Memory required for data: 1213249056
I0403 16:57:36.921371 19824 layer_factory.hpp:77] Creating layer inception_4e/relu_1x1
I0403 16:57:36.921391 19824 net.cpp:91] Creating Layer inception_4e/relu_1x1
I0403 16:57:36.921407 19824 net.cpp:425] inception_4e/relu_1x1 <- inception_4e/1x1
I0403 16:57:36.921423 19824 net.cpp:386] inception_4e/relu_1x1 -> inception_4e/1x1 (in-place)
I0403 16:57:36.921717 19824 net.cpp:141] Setting up inception_4e/relu_1x1
I0403 16:57:36.921742 19824 net.cpp:148] Top shape: 24 256 14 14 (1204224)
I0403 16:57:36.921756 19824 net.cpp:156] Memory required for data: 1218065952
I0403 16:57:36.921771 19824 layer_factory.hpp:77] Creating layer inception_4e/3x3_reduce
I0403 16:57:36.921792 19824 net.cpp:91] Creating Layer inception_4e/3x3_reduce
I0403 16:57:36.921808 19824 net.cpp:425] inception_4e/3x3_reduce <- inception_4d/output_inception_4d/output_0_split_2
I0403 16:57:36.921828 19824 net.cpp:399] inception_4e/3x3_reduce -> inception_4e/3x3_reduce
I0403 16:57:36.923933 19824 net.cpp:141] Setting up inception_4e/3x3_reduce
I0403 16:57:36.923964 19824 net.cpp:148] Top shape: 24 160 14 14 (752640)
I0403 16:57:36.923977 19824 net.cpp:156] Memory required for data: 1221076512
I0403 16:57:36.923995 19824 layer_factory.hpp:77] Creating layer inception_4e/relu_3x3_reduce
I0403 16:57:36.924013 19824 net.cpp:91] Creating Layer inception_4e/relu_3x3_reduce
I0403 16:57:36.924029 19824 net.cpp:425] inception_4e/relu_3x3_reduce <- inception_4e/3x3_reduce
I0403 16:57:36.924046 19824 net.cpp:386] inception_4e/relu_3x3_reduce -> inception_4e/3x3_reduce (in-place)
I0403 16:57:36.924232 19824 net.cpp:141] Setting up inception_4e/relu_3x3_reduce
I0403 16:57:36.924257 19824 net.cpp:148] Top shape: 24 160 14 14 (752640)
I0403 16:57:36.924271 19824 net.cpp:156] Memory required for data: 1224087072
I0403 16:57:36.924285 19824 layer_factory.hpp:77] Creating layer inception_4e/3x3
I0403 16:57:36.924304 19824 net.cpp:91] Creating Layer inception_4e/3x3
I0403 16:57:36.924319 19824 net.cpp:425] inception_4e/3x3 <- inception_4e/3x3_reduce
I0403 16:57:36.924338 19824 net.cpp:399] inception_4e/3x3 -> inception_4e/3x3
I0403 16:57:36.929250 19824 net.cpp:141] Setting up inception_4e/3x3
I0403 16:57:36.929293 19824 net.cpp:148] Top shape: 24 320 14 14 (1505280)
I0403 16:57:36.929309 19824 net.cpp:156] Memory required for data: 1230108192
I0403 16:57:36.929327 19824 layer_factory.hpp:77] Creating layer inception_4e/relu_3x3
I0403 16:57:36.929345 19824 net.cpp:91] Creating Layer inception_4e/relu_3x3
I0403 16:57:36.929370 19824 net.cpp:425] inception_4e/relu_3x3 <- inception_4e/3x3
I0403 16:57:36.929388 19824 net.cpp:386] inception_4e/relu_3x3 -> inception_4e/3x3 (in-place)
I0403 16:57:36.929685 19824 net.cpp:141] Setting up inception_4e/relu_3x3
I0403 16:57:36.929713 19824 net.cpp:148] Top shape: 24 320 14 14 (1505280)
I0403 16:57:36.929726 19824 net.cpp:156] Memory required for data: 1236129312
I0403 16:57:36.929740 19824 layer_factory.hpp:77] Creating layer inception_4e/5x5_reduce
I0403 16:57:36.929764 19824 net.cpp:91] Creating Layer inception_4e/5x5_reduce
I0403 16:57:36.929780 19824 net.cpp:425] inception_4e/5x5_reduce <- inception_4d/output_inception_4d/output_0_split_3
I0403 16:57:36.929800 19824 net.cpp:399] inception_4e/5x5_reduce -> inception_4e/5x5_reduce
I0403 16:57:36.930856 19824 net.cpp:141] Setting up inception_4e/5x5_reduce
I0403 16:57:36.930883 19824 net.cpp:148] Top shape: 24 32 14 14 (150528)
I0403 16:57:36.930897 19824 net.cpp:156] Memory required for data: 1236731424
I0403 16:57:36.930914 19824 layer_factory.hpp:77] Creating layer inception_4e/relu_5x5_reduce
I0403 16:57:36.930933 19824 net.cpp:91] Creating Layer inception_4e/relu_5x5_reduce
I0403 16:57:36.930949 19824 net.cpp:425] inception_4e/relu_5x5_reduce <- inception_4e/5x5_reduce
I0403 16:57:36.930965 19824 net.cpp:386] inception_4e/relu_5x5_reduce -> inception_4e/5x5_reduce (in-place)
I0403 16:57:36.931259 19824 net.cpp:141] Setting up inception_4e/relu_5x5_reduce
I0403 16:57:36.931284 19824 net.cpp:148] Top shape: 24 32 14 14 (150528)
I0403 16:57:36.931299 19824 net.cpp:156] Memory required for data: 1237333536
I0403 16:57:36.931313 19824 layer_factory.hpp:77] Creating layer inception_4e/5x5
I0403 16:57:36.931349 19824 net.cpp:91] Creating Layer inception_4e/5x5
I0403 16:57:36.931368 19824 net.cpp:425] inception_4e/5x5 <- inception_4e/5x5_reduce
I0403 16:57:36.931386 19824 net.cpp:399] inception_4e/5x5 -> inception_4e/5x5
I0403 16:57:36.933195 19824 net.cpp:141] Setting up inception_4e/5x5
I0403 16:57:36.933223 19824 net.cpp:148] Top shape: 24 128 14 14 (602112)
I0403 16:57:36.933238 19824 net.cpp:156] Memory required for data: 1239741984
I0403 16:57:36.933254 19824 layer_factory.hpp:77] Creating layer inception_4e/relu_5x5
I0403 16:57:36.933271 19824 net.cpp:91] Creating Layer inception_4e/relu_5x5
I0403 16:57:36.933291 19824 net.cpp:425] inception_4e/relu_5x5 <- inception_4e/5x5
I0403 16:57:36.933307 19824 net.cpp:386] inception_4e/relu_5x5 -> inception_4e/5x5 (in-place)
I0403 16:57:36.933501 19824 net.cpp:141] Setting up inception_4e/relu_5x5
I0403 16:57:36.933524 19824 net.cpp:148] Top shape: 24 128 14 14 (602112)
I0403 16:57:36.933538 19824 net.cpp:156] Memory required for data: 1242150432
I0403 16:57:36.933552 19824 layer_factory.hpp:77] Creating layer inception_4e/pool
I0403 16:57:36.933570 19824 net.cpp:91] Creating Layer inception_4e/pool
I0403 16:57:36.933588 19824 net.cpp:425] inception_4e/pool <- inception_4d/output_inception_4d/output_0_split_4
I0403 16:57:36.933607 19824 net.cpp:399] inception_4e/pool -> inception_4e/pool
I0403 16:57:36.933679 19824 net.cpp:141] Setting up inception_4e/pool
I0403 16:57:36.933702 19824 net.cpp:148] Top shape: 24 528 14 14 (2483712)
I0403 16:57:36.933717 19824 net.cpp:156] Memory required for data: 1252085280
I0403 16:57:36.933729 19824 layer_factory.hpp:77] Creating layer inception_4e/pool_proj
I0403 16:57:36.933750 19824 net.cpp:91] Creating Layer inception_4e/pool_proj
I0403 16:57:36.933768 19824 net.cpp:425] inception_4e/pool_proj <- inception_4e/pool
I0403 16:57:36.933787 19824 net.cpp:399] inception_4e/pool_proj -> inception_4e/pool_proj
I0403 16:57:36.935256 19824 net.cpp:141] Setting up inception_4e/pool_proj
I0403 16:57:36.935298 19824 net.cpp:148] Top shape: 24 128 14 14 (602112)
I0403 16:57:36.935314 19824 net.cpp:156] Memory required for data: 1254493728
I0403 16:57:36.935333 19824 layer_factory.hpp:77] Creating layer inception_4e/relu_pool_proj
I0403 16:57:36.935349 19824 net.cpp:91] Creating Layer inception_4e/relu_pool_proj
I0403 16:57:36.935364 19824 net.cpp:425] inception_4e/relu_pool_proj <- inception_4e/pool_proj
I0403 16:57:36.935384 19824 net.cpp:386] inception_4e/relu_pool_proj -> inception_4e/pool_proj (in-place)
I0403 16:57:36.935678 19824 net.cpp:141] Setting up inception_4e/relu_pool_proj
I0403 16:57:36.935704 19824 net.cpp:148] Top shape: 24 128 14 14 (602112)
I0403 16:57:36.935720 19824 net.cpp:156] Memory required for data: 1256902176
I0403 16:57:36.935734 19824 layer_factory.hpp:77] Creating layer inception_4e/output
I0403 16:57:36.935750 19824 net.cpp:91] Creating Layer inception_4e/output
I0403 16:57:36.935765 19824 net.cpp:425] inception_4e/output <- inception_4e/1x1
I0403 16:57:36.935781 19824 net.cpp:425] inception_4e/output <- inception_4e/3x3
I0403 16:57:36.935796 19824 net.cpp:425] inception_4e/output <- inception_4e/5x5
I0403 16:57:36.935809 19824 net.cpp:425] inception_4e/output <- inception_4e/pool_proj
I0403 16:57:36.935828 19824 net.cpp:399] inception_4e/output -> inception_4e/output
I0403 16:57:36.935876 19824 net.cpp:141] Setting up inception_4e/output
I0403 16:57:36.935899 19824 net.cpp:148] Top shape: 24 832 14 14 (3913728)
I0403 16:57:36.935914 19824 net.cpp:156] Memory required for data: 1272557088
I0403 16:57:36.935926 19824 layer_factory.hpp:77] Creating layer pool4/3x3_s2
I0403 16:57:36.935945 19824 net.cpp:91] Creating Layer pool4/3x3_s2
I0403 16:57:36.935961 19824 net.cpp:425] pool4/3x3_s2 <- inception_4e/output
I0403 16:57:36.935978 19824 net.cpp:399] pool4/3x3_s2 -> pool4/3x3_s2
I0403 16:57:36.936044 19824 net.cpp:141] Setting up pool4/3x3_s2
I0403 16:57:36.936066 19824 net.cpp:148] Top shape: 24 832 7 7 (978432)
I0403 16:57:36.936080 19824 net.cpp:156] Memory required for data: 1276470816
I0403 16:57:36.936094 19824 layer_factory.hpp:77] Creating layer pool4/3x3_s2_pool4/3x3_s2_0_split
I0403 16:57:36.936111 19824 net.cpp:91] Creating Layer pool4/3x3_s2_pool4/3x3_s2_0_split
I0403 16:57:36.936126 19824 net.cpp:425] pool4/3x3_s2_pool4/3x3_s2_0_split <- pool4/3x3_s2
I0403 16:57:36.936142 19824 net.cpp:399] pool4/3x3_s2_pool4/3x3_s2_0_split -> pool4/3x3_s2_pool4/3x3_s2_0_split_0
I0403 16:57:36.936161 19824 net.cpp:399] pool4/3x3_s2_pool4/3x3_s2_0_split -> pool4/3x3_s2_pool4/3x3_s2_0_split_1
I0403 16:57:36.936180 19824 net.cpp:399] pool4/3x3_s2_pool4/3x3_s2_0_split -> pool4/3x3_s2_pool4/3x3_s2_0_split_2
I0403 16:57:36.936198 19824 net.cpp:399] pool4/3x3_s2_pool4/3x3_s2_0_split -> pool4/3x3_s2_pool4/3x3_s2_0_split_3
I0403 16:57:36.936295 19824 net.cpp:141] Setting up pool4/3x3_s2_pool4/3x3_s2_0_split
I0403 16:57:36.936317 19824 net.cpp:148] Top shape: 24 832 7 7 (978432)
I0403 16:57:36.936332 19824 net.cpp:148] Top shape: 24 832 7 7 (978432)
I0403 16:57:36.936347 19824 net.cpp:148] Top shape: 24 832 7 7 (978432)
I0403 16:57:36.936362 19824 net.cpp:148] Top shape: 24 832 7 7 (978432)
I0403 16:57:36.936374 19824 net.cpp:156] Memory required for data: 1292125728
I0403 16:57:36.936388 19824 layer_factory.hpp:77] Creating layer inception_5a/1x1
I0403 16:57:36.936408 19824 net.cpp:91] Creating Layer inception_5a/1x1
I0403 16:57:36.936424 19824 net.cpp:425] inception_5a/1x1 <- pool4/3x3_s2_pool4/3x3_s2_0_split_0
I0403 16:57:36.936444 19824 net.cpp:399] inception_5a/1x1 -> inception_5a/1x1
I0403 16:57:36.939270 19824 net.cpp:141] Setting up inception_5a/1x1
I0403 16:57:36.939296 19824 net.cpp:148] Top shape: 24 256 7 7 (301056)
I0403 16:57:36.939311 19824 net.cpp:156] Memory required for data: 1293329952
I0403 16:57:36.939327 19824 layer_factory.hpp:77] Creating layer inception_5a/relu_1x1
I0403 16:57:36.939347 19824 net.cpp:91] Creating Layer inception_5a/relu_1x1
I0403 16:57:36.939362 19824 net.cpp:425] inception_5a/relu_1x1 <- inception_5a/1x1
I0403 16:57:36.939378 19824 net.cpp:386] inception_5a/relu_1x1 -> inception_5a/1x1 (in-place)
I0403 16:57:36.939687 19824 net.cpp:141] Setting up inception_5a/relu_1x1
I0403 16:57:36.939712 19824 net.cpp:148] Top shape: 24 256 7 7 (301056)
I0403 16:57:36.939725 19824 net.cpp:156] Memory required for data: 1294534176
I0403 16:57:36.939738 19824 layer_factory.hpp:77] Creating layer inception_5a/3x3_reduce
I0403 16:57:36.939762 19824 net.cpp:91] Creating Layer inception_5a/3x3_reduce
I0403 16:57:36.939779 19824 net.cpp:425] inception_5a/3x3_reduce <- pool4/3x3_s2_pool4/3x3_s2_0_split_1
I0403 16:57:36.939800 19824 net.cpp:399] inception_5a/3x3_reduce -> inception_5a/3x3_reduce
I0403 16:57:36.942172 19824 net.cpp:141] Setting up inception_5a/3x3_reduce
I0403 16:57:36.942199 19824 net.cpp:148] Top shape: 24 160 7 7 (188160)
I0403 16:57:36.942215 19824 net.cpp:156] Memory required for data: 1295286816
I0403 16:57:36.942232 19824 layer_factory.hpp:77] Creating layer inception_5a/relu_3x3_reduce
I0403 16:57:36.942248 19824 net.cpp:91] Creating Layer inception_5a/relu_3x3_reduce
I0403 16:57:36.942265 19824 net.cpp:425] inception_5a/relu_3x3_reduce <- inception_5a/3x3_reduce
I0403 16:57:36.942282 19824 net.cpp:386] inception_5a/relu_3x3_reduce -> inception_5a/3x3_reduce (in-place)
I0403 16:57:36.942461 19824 net.cpp:141] Setting up inception_5a/relu_3x3_reduce
I0403 16:57:36.942486 19824 net.cpp:148] Top shape: 24 160 7 7 (188160)
I0403 16:57:36.942498 19824 net.cpp:156] Memory required for data: 1296039456
I0403 16:57:36.942512 19824 layer_factory.hpp:77] Creating layer inception_5a/3x3
I0403 16:57:36.942531 19824 net.cpp:91] Creating Layer inception_5a/3x3
I0403 16:57:36.942548 19824 net.cpp:425] inception_5a/3x3 <- inception_5a/3x3_reduce
I0403 16:57:36.942567 19824 net.cpp:399] inception_5a/3x3 -> inception_5a/3x3
I0403 16:57:36.947393 19824 net.cpp:141] Setting up inception_5a/3x3
I0403 16:57:36.947420 19824 net.cpp:148] Top shape: 24 320 7 7 (376320)
I0403 16:57:36.947435 19824 net.cpp:156] Memory required for data: 1297544736
I0403 16:57:36.947451 19824 layer_factory.hpp:77] Creating layer inception_5a/relu_3x3
I0403 16:57:36.947470 19824 net.cpp:91] Creating Layer inception_5a/relu_3x3
I0403 16:57:36.947485 19824 net.cpp:425] inception_5a/relu_3x3 <- inception_5a/3x3
I0403 16:57:36.947501 19824 net.cpp:386] inception_5a/relu_3x3 -> inception_5a/3x3 (in-place)
I0403 16:57:36.947785 19824 net.cpp:141] Setting up inception_5a/relu_3x3
I0403 16:57:36.947810 19824 net.cpp:148] Top shape: 24 320 7 7 (376320)
I0403 16:57:36.947824 19824 net.cpp:156] Memory required for data: 1299050016
I0403 16:57:36.947837 19824 layer_factory.hpp:77] Creating layer inception_5a/5x5_reduce
I0403 16:57:36.947859 19824 net.cpp:91] Creating Layer inception_5a/5x5_reduce
I0403 16:57:36.947875 19824 net.cpp:425] inception_5a/5x5_reduce <- pool4/3x3_s2_pool4/3x3_s2_0_split_2
I0403 16:57:36.947895 19824 net.cpp:399] inception_5a/5x5_reduce -> inception_5a/5x5_reduce
I0403 16:57:36.953279 19824 net.cpp:141] Setting up inception_5a/5x5_reduce
I0403 16:57:36.953312 19824 net.cpp:148] Top shape: 24 32 7 7 (37632)
I0403 16:57:36.953328 19824 net.cpp:156] Memory required for data: 1299200544
I0403 16:57:36.953346 19824 layer_factory.hpp:77] Creating layer inception_5a/relu_5x5_reduce
I0403 16:57:36.953366 19824 net.cpp:91] Creating Layer inception_5a/relu_5x5_reduce
I0403 16:57:36.953382 19824 net.cpp:425] inception_5a/relu_5x5_reduce <- inception_5a/5x5_reduce
I0403 16:57:36.953397 19824 net.cpp:386] inception_5a/relu_5x5_reduce -> inception_5a/5x5_reduce (in-place)
I0403 16:57:36.953697 19824 net.cpp:141] Setting up inception_5a/relu_5x5_reduce
I0403 16:57:36.953722 19824 net.cpp:148] Top shape: 24 32 7 7 (37632)
I0403 16:57:36.953737 19824 net.cpp:156] Memory required for data: 1299351072
I0403 16:57:36.953750 19824 layer_factory.hpp:77] Creating layer inception_5a/5x5
I0403 16:57:36.953770 19824 net.cpp:91] Creating Layer inception_5a/5x5
I0403 16:57:36.953788 19824 net.cpp:425] inception_5a/5x5 <- inception_5a/5x5_reduce
I0403 16:57:36.953809 19824 net.cpp:399] inception_5a/5x5 -> inception_5a/5x5
I0403 16:57:36.955914 19824 net.cpp:141] Setting up inception_5a/5x5
I0403 16:57:36.955974 19824 net.cpp:148] Top shape: 24 128 7 7 (150528)
I0403 16:57:36.955997 19824 net.cpp:156] Memory required for data: 1299953184
I0403 16:57:36.956023 19824 layer_factory.hpp:77] Creating layer inception_5a/relu_5x5
I0403 16:57:36.956051 19824 net.cpp:91] Creating Layer inception_5a/relu_5x5
I0403 16:57:36.956075 19824 net.cpp:425] inception_5a/relu_5x5 <- inception_5a/5x5
I0403 16:57:36.956099 19824 net.cpp:386] inception_5a/relu_5x5 -> inception_5a/5x5 (in-place)
I0403 16:57:36.956382 19824 net.cpp:141] Setting up inception_5a/relu_5x5
I0403 16:57:36.956418 19824 net.cpp:148] Top shape: 24 128 7 7 (150528)
I0403 16:57:36.956439 19824 net.cpp:156] Memory required for data: 1300555296
I0403 16:57:36.956459 19824 layer_factory.hpp:77] Creating layer inception_5a/pool
I0403 16:57:36.956485 19824 net.cpp:91] Creating Layer inception_5a/pool
I0403 16:57:36.956518 19824 net.cpp:425] inception_5a/pool <- pool4/3x3_s2_pool4/3x3_s2_0_split_3
I0403 16:57:36.956544 19824 net.cpp:399] inception_5a/pool -> inception_5a/pool
I0403 16:57:36.956656 19824 net.cpp:141] Setting up inception_5a/pool
I0403 16:57:36.956691 19824 net.cpp:148] Top shape: 24 832 7 7 (978432)
I0403 16:57:36.956710 19824 net.cpp:156] Memory required for data: 1304469024
I0403 16:57:36.956730 19824 layer_factory.hpp:77] Creating layer inception_5a/pool_proj
I0403 16:57:36.956761 19824 net.cpp:91] Creating Layer inception_5a/pool_proj
I0403 16:57:36.956786 19824 net.cpp:425] inception_5a/pool_proj <- inception_5a/pool
I0403 16:57:36.956815 19824 net.cpp:399] inception_5a/pool_proj -> inception_5a/pool_proj
I0403 16:57:36.960100 19824 net.cpp:141] Setting up inception_5a/pool_proj
I0403 16:57:36.960144 19824 net.cpp:148] Top shape: 24 128 7 7 (150528)
I0403 16:57:36.960166 19824 net.cpp:156] Memory required for data: 1305071136
I0403 16:57:36.960191 19824 layer_factory.hpp:77] Creating layer inception_5a/relu_pool_proj
I0403 16:57:36.960216 19824 net.cpp:91] Creating Layer inception_5a/relu_pool_proj
I0403 16:57:36.960239 19824 net.cpp:425] inception_5a/relu_pool_proj <- inception_5a/pool_proj
I0403 16:57:36.960266 19824 net.cpp:386] inception_5a/relu_pool_proj -> inception_5a/pool_proj (in-place)
I0403 16:57:36.960691 19824 net.cpp:141] Setting up inception_5a/relu_pool_proj
I0403 16:57:36.960731 19824 net.cpp:148] Top shape: 24 128 7 7 (150528)
I0403 16:57:36.960752 19824 net.cpp:156] Memory required for data: 1305673248
I0403 16:57:36.960772 19824 layer_factory.hpp:77] Creating layer inception_5a/output
I0403 16:57:36.960795 19824 net.cpp:91] Creating Layer inception_5a/output
I0403 16:57:36.960818 19824 net.cpp:425] inception_5a/output <- inception_5a/1x1
I0403 16:57:36.960840 19824 net.cpp:425] inception_5a/output <- inception_5a/3x3
I0403 16:57:36.960862 19824 net.cpp:425] inception_5a/output <- inception_5a/5x5
I0403 16:57:36.960885 19824 net.cpp:425] inception_5a/output <- inception_5a/pool_proj
I0403 16:57:36.960911 19824 net.cpp:399] inception_5a/output -> inception_5a/output
I0403 16:57:36.960984 19824 net.cpp:141] Setting up inception_5a/output
I0403 16:57:36.961021 19824 net.cpp:148] Top shape: 24 832 7 7 (978432)
I0403 16:57:36.961043 19824 net.cpp:156] Memory required for data: 1309586976
I0403 16:57:36.961063 19824 layer_factory.hpp:77] Creating layer inception_5a/output_inception_5a/output_0_split
I0403 16:57:36.961087 19824 net.cpp:91] Creating Layer inception_5a/output_inception_5a/output_0_split
I0403 16:57:36.961108 19824 net.cpp:425] inception_5a/output_inception_5a/output_0_split <- inception_5a/output
I0403 16:57:36.961133 19824 net.cpp:399] inception_5a/output_inception_5a/output_0_split -> inception_5a/output_inception_5a/output_0_split_0
I0403 16:57:36.961161 19824 net.cpp:399] inception_5a/output_inception_5a/output_0_split -> inception_5a/output_inception_5a/output_0_split_1
I0403 16:57:36.961194 19824 net.cpp:399] inception_5a/output_inception_5a/output_0_split -> inception_5a/output_inception_5a/output_0_split_2
I0403 16:57:36.961225 19824 net.cpp:399] inception_5a/output_inception_5a/output_0_split -> inception_5a/output_inception_5a/output_0_split_3
I0403 16:57:36.961400 19824 net.cpp:141] Setting up inception_5a/output_inception_5a/output_0_split
I0403 16:57:36.961433 19824 net.cpp:148] Top shape: 24 832 7 7 (978432)
I0403 16:57:36.961457 19824 net.cpp:148] Top shape: 24 832 7 7 (978432)
I0403 16:57:36.961477 19824 net.cpp:148] Top shape: 24 832 7 7 (978432)
I0403 16:57:36.961498 19824 net.cpp:148] Top shape: 24 832 7 7 (978432)
I0403 16:57:36.961518 19824 net.cpp:156] Memory required for data: 1325241888
I0403 16:57:36.961545 19824 layer_factory.hpp:77] Creating layer inception_5b/1x1
I0403 16:57:36.961576 19824 net.cpp:91] Creating Layer inception_5b/1x1
I0403 16:57:36.961607 19824 net.cpp:425] inception_5b/1x1 <- inception_5a/output_inception_5a/output_0_split_0
I0403 16:57:36.961639 19824 net.cpp:399] inception_5b/1x1 -> inception_5b/1x1
I0403 16:57:36.966321 19824 net.cpp:141] Setting up inception_5b/1x1
I0403 16:57:36.966352 19824 net.cpp:148] Top shape: 24 384 7 7 (451584)
I0403 16:57:36.966368 19824 net.cpp:156] Memory required for data: 1327048224
I0403 16:57:36.966394 19824 layer_factory.hpp:77] Creating layer inception_5b/relu_1x1
I0403 16:57:36.966411 19824 net.cpp:91] Creating Layer inception_5b/relu_1x1
I0403 16:57:36.966426 19824 net.cpp:425] inception_5b/relu_1x1 <- inception_5b/1x1
I0403 16:57:36.966445 19824 net.cpp:386] inception_5b/relu_1x1 -> inception_5b/1x1 (in-place)
I0403 16:57:36.966760 19824 net.cpp:141] Setting up inception_5b/relu_1x1
I0403 16:57:36.966786 19824 net.cpp:148] Top shape: 24 384 7 7 (451584)
I0403 16:57:36.966801 19824 net.cpp:156] Memory required for data: 1328854560
I0403 16:57:36.966815 19824 layer_factory.hpp:77] Creating layer inception_5b/3x3_reduce
I0403 16:57:36.966836 19824 net.cpp:91] Creating Layer inception_5b/3x3_reduce
I0403 16:57:36.966852 19824 net.cpp:425] inception_5b/3x3_reduce <- inception_5a/output_inception_5a/output_0_split_1
I0403 16:57:36.966871 19824 net.cpp:399] inception_5b/3x3_reduce -> inception_5b/3x3_reduce
I0403 16:57:36.969435 19824 net.cpp:141] Setting up inception_5b/3x3_reduce
I0403 16:57:36.969465 19824 net.cpp:148] Top shape: 24 192 7 7 (225792)
I0403 16:57:36.969480 19824 net.cpp:156] Memory required for data: 1329757728
I0403 16:57:36.969498 19824 layer_factory.hpp:77] Creating layer inception_5b/relu_3x3_reduce
I0403 16:57:36.969514 19824 net.cpp:91] Creating Layer inception_5b/relu_3x3_reduce
I0403 16:57:36.969529 19824 net.cpp:425] inception_5b/relu_3x3_reduce <- inception_5b/3x3_reduce
I0403 16:57:36.969547 19824 net.cpp:386] inception_5b/relu_3x3_reduce -> inception_5b/3x3_reduce (in-place)
I0403 16:57:36.969733 19824 net.cpp:141] Setting up inception_5b/relu_3x3_reduce
I0403 16:57:36.969758 19824 net.cpp:148] Top shape: 24 192 7 7 (225792)
I0403 16:57:36.969770 19824 net.cpp:156] Memory required for data: 1330660896
I0403 16:57:36.969784 19824 layer_factory.hpp:77] Creating layer inception_5b/3x3
I0403 16:57:36.969805 19824 net.cpp:91] Creating Layer inception_5b/3x3
I0403 16:57:36.969820 19824 net.cpp:425] inception_5b/3x3 <- inception_5b/3x3_reduce
I0403 16:57:36.969840 19824 net.cpp:399] inception_5b/3x3 -> inception_5b/3x3
I0403 16:57:36.976330 19824 net.cpp:141] Setting up inception_5b/3x3
I0403 16:57:36.976358 19824 net.cpp:148] Top shape: 24 384 7 7 (451584)
I0403 16:57:36.976373 19824 net.cpp:156] Memory required for data: 1332467232
I0403 16:57:36.976390 19824 layer_factory.hpp:77] Creating layer inception_5b/relu_3x3
I0403 16:57:36.976408 19824 net.cpp:91] Creating Layer inception_5b/relu_3x3
I0403 16:57:36.976421 19824 net.cpp:425] inception_5b/relu_3x3 <- inception_5b/3x3
I0403 16:57:36.976439 19824 net.cpp:386] inception_5b/relu_3x3 -> inception_5b/3x3 (in-place)
I0403 16:57:36.976737 19824 net.cpp:141] Setting up inception_5b/relu_3x3
I0403 16:57:36.976763 19824 net.cpp:148] Top shape: 24 384 7 7 (451584)
I0403 16:57:36.976776 19824 net.cpp:156] Memory required for data: 1334273568
I0403 16:57:36.976790 19824 layer_factory.hpp:77] Creating layer inception_5b/5x5_reduce
I0403 16:57:36.976826 19824 net.cpp:91] Creating Layer inception_5b/5x5_reduce
I0403 16:57:36.976845 19824 net.cpp:425] inception_5b/5x5_reduce <- inception_5a/output_inception_5a/output_0_split_2
I0403 16:57:36.976866 19824 net.cpp:399] inception_5b/5x5_reduce -> inception_5b/5x5_reduce
I0403 16:57:36.978080 19824 net.cpp:141] Setting up inception_5b/5x5_reduce
I0403 16:57:36.978107 19824 net.cpp:148] Top shape: 24 48 7 7 (56448)
I0403 16:57:36.978123 19824 net.cpp:156] Memory required for data: 1334499360
I0403 16:57:36.978139 19824 layer_factory.hpp:77] Creating layer inception_5b/relu_5x5_reduce
I0403 16:57:36.978157 19824 net.cpp:91] Creating Layer inception_5b/relu_5x5_reduce
I0403 16:57:36.978171 19824 net.cpp:425] inception_5b/relu_5x5_reduce <- inception_5b/5x5_reduce
I0403 16:57:36.978189 19824 net.cpp:386] inception_5b/relu_5x5_reduce -> inception_5b/5x5_reduce (in-place)
I0403 16:57:36.978548 19824 net.cpp:141] Setting up inception_5b/relu_5x5_reduce
I0403 16:57:36.978571 19824 net.cpp:148] Top shape: 24 48 7 7 (56448)
I0403 16:57:36.978585 19824 net.cpp:156] Memory required for data: 1334725152
I0403 16:57:36.978602 19824 layer_factory.hpp:77] Creating layer inception_5b/5x5
I0403 16:57:36.978622 19824 net.cpp:91] Creating Layer inception_5b/5x5
I0403 16:57:36.978638 19824 net.cpp:425] inception_5b/5x5 <- inception_5b/5x5_reduce
I0403 16:57:36.978655 19824 net.cpp:399] inception_5b/5x5 -> inception_5b/5x5
I0403 16:57:36.980610 19824 net.cpp:141] Setting up inception_5b/5x5
I0403 16:57:36.980638 19824 net.cpp:148] Top shape: 24 128 7 7 (150528)
I0403 16:57:36.980651 19824 net.cpp:156] Memory required for data: 1335327264
I0403 16:57:36.980669 19824 layer_factory.hpp:77] Creating layer inception_5b/relu_5x5
I0403 16:57:36.980696 19824 net.cpp:91] Creating Layer inception_5b/relu_5x5
I0403 16:57:36.980712 19824 net.cpp:425] inception_5b/relu_5x5 <- inception_5b/5x5
I0403 16:57:36.980728 19824 net.cpp:386] inception_5b/relu_5x5 -> inception_5b/5x5 (in-place)
I0403 16:57:36.980912 19824 net.cpp:141] Setting up inception_5b/relu_5x5
I0403 16:57:36.980936 19824 net.cpp:148] Top shape: 24 128 7 7 (150528)
I0403 16:57:36.980948 19824 net.cpp:156] Memory required for data: 1335929376
I0403 16:57:36.980962 19824 layer_factory.hpp:77] Creating layer inception_5b/pool
I0403 16:57:36.980990 19824 net.cpp:91] Creating Layer inception_5b/pool
I0403 16:57:36.981006 19824 net.cpp:425] inception_5b/pool <- inception_5a/output_inception_5a/output_0_split_3
I0403 16:57:36.981022 19824 net.cpp:399] inception_5b/pool -> inception_5b/pool
I0403 16:57:36.981091 19824 net.cpp:141] Setting up inception_5b/pool
I0403 16:57:36.981113 19824 net.cpp:148] Top shape: 24 832 7 7 (978432)
I0403 16:57:36.981127 19824 net.cpp:156] Memory required for data: 1339843104
I0403 16:57:36.981139 19824 layer_factory.hpp:77] Creating layer inception_5b/pool_proj
I0403 16:57:36.981160 19824 net.cpp:91] Creating Layer inception_5b/pool_proj
I0403 16:57:36.981176 19824 net.cpp:425] inception_5b/pool_proj <- inception_5b/pool
I0403 16:57:36.981195 19824 net.cpp:399] inception_5b/pool_proj -> inception_5b/pool_proj
I0403 16:57:36.983502 19824 net.cpp:141] Setting up inception_5b/pool_proj
I0403 16:57:36.983531 19824 net.cpp:148] Top shape: 24 128 7 7 (150528)
I0403 16:57:36.983546 19824 net.cpp:156] Memory required for data: 1340445216
I0403 16:57:36.983563 19824 layer_factory.hpp:77] Creating layer inception_5b/relu_pool_proj
I0403 16:57:36.983580 19824 net.cpp:91] Creating Layer inception_5b/relu_pool_proj
I0403 16:57:36.983595 19824 net.cpp:425] inception_5b/relu_pool_proj <- inception_5b/pool_proj
I0403 16:57:36.983623 19824 net.cpp:386] inception_5b/relu_pool_proj -> inception_5b/pool_proj (in-place)
I0403 16:57:36.983916 19824 net.cpp:141] Setting up inception_5b/relu_pool_proj
I0403 16:57:36.983942 19824 net.cpp:148] Top shape: 24 128 7 7 (150528)
I0403 16:57:36.983955 19824 net.cpp:156] Memory required for data: 1341047328
I0403 16:57:36.983969 19824 layer_factory.hpp:77] Creating layer inception_5b/output
I0403 16:57:36.983985 19824 net.cpp:91] Creating Layer inception_5b/output
I0403 16:57:36.984015 19824 net.cpp:425] inception_5b/output <- inception_5b/1x1
I0403 16:57:36.984032 19824 net.cpp:425] inception_5b/output <- inception_5b/3x3
I0403 16:57:36.984047 19824 net.cpp:425] inception_5b/output <- inception_5b/5x5
I0403 16:57:36.984062 19824 net.cpp:425] inception_5b/output <- inception_5b/pool_proj
I0403 16:57:36.984081 19824 net.cpp:399] inception_5b/output -> inception_5b/output
I0403 16:57:36.984132 19824 net.cpp:141] Setting up inception_5b/output
I0403 16:57:36.984156 19824 net.cpp:148] Top shape: 24 1024 7 7 (1204224)
I0403 16:57:36.984171 19824 net.cpp:156] Memory required for data: 1345864224
I0403 16:57:36.984184 19824 layer_factory.hpp:77] Creating layer pool5/7x7_s1
I0403 16:57:36.984201 19824 net.cpp:91] Creating Layer pool5/7x7_s1
I0403 16:57:36.984216 19824 net.cpp:425] pool5/7x7_s1 <- inception_5b/output
I0403 16:57:36.984236 19824 net.cpp:399] pool5/7x7_s1 -> pool5/7x7_s1
I0403 16:57:36.984448 19824 net.cpp:141] Setting up pool5/7x7_s1
I0403 16:57:36.984472 19824 net.cpp:148] Top shape: 24 1024 1 1 (24576)
I0403 16:57:36.984486 19824 net.cpp:156] Memory required for data: 1345962528
I0403 16:57:36.984500 19824 layer_factory.hpp:77] Creating layer pool5/drop_7x7_s1
I0403 16:57:36.984516 19824 net.cpp:91] Creating Layer pool5/drop_7x7_s1
I0403 16:57:36.984531 19824 net.cpp:425] pool5/drop_7x7_s1 <- pool5/7x7_s1
I0403 16:57:36.984549 19824 net.cpp:386] pool5/drop_7x7_s1 -> pool5/7x7_s1 (in-place)
I0403 16:57:36.984607 19824 net.cpp:141] Setting up pool5/drop_7x7_s1
I0403 16:57:36.984633 19824 net.cpp:148] Top shape: 24 1024 1 1 (24576)
I0403 16:57:36.984647 19824 net.cpp:156] Memory required for data: 1346060832
I0403 16:57:36.984661 19824 layer_factory.hpp:77] Creating layer loss3/classifier_plantvillage
I0403 16:57:36.984679 19824 net.cpp:91] Creating Layer loss3/classifier_plantvillage
I0403 16:57:36.984694 19824 net.cpp:425] loss3/classifier_plantvillage <- pool5/7x7_s1
I0403 16:57:36.984714 19824 net.cpp:399] loss3/classifier_plantvillage -> loss3/classifier_plantvillage
I0403 16:57:36.985128 19824 net.cpp:141] Setting up loss3/classifier_plantvillage
I0403 16:57:36.985157 19824 net.cpp:148] Top shape: 24 38 (912)
I0403 16:57:36.985173 19824 net.cpp:156] Memory required for data: 1346064480
I0403 16:57:36.985190 19824 layer_factory.hpp:77] Creating layer loss3/classifier_plantvillage_loss3/classifier_plantvillage_0_split
I0403 16:57:36.985208 19824 net.cpp:91] Creating Layer loss3/classifier_plantvillage_loss3/classifier_plantvillage_0_split
I0403 16:57:36.985222 19824 net.cpp:425] loss3/classifier_plantvillage_loss3/classifier_plantvillage_0_split <- loss3/classifier_plantvillage
I0403 16:57:36.985239 19824 net.cpp:399] loss3/classifier_plantvillage_loss3/classifier_plantvillage_0_split -> loss3/classifier_plantvillage_loss3/classifier_plantvillage_0_split_0
I0403 16:57:36.985258 19824 net.cpp:399] loss3/classifier_plantvillage_loss3/classifier_plantvillage_0_split -> loss3/classifier_plantvillage_loss3/classifier_plantvillage_0_split_1
I0403 16:57:36.985280 19824 net.cpp:399] loss3/classifier_plantvillage_loss3/classifier_plantvillage_0_split -> loss3/classifier_plantvillage_loss3/classifier_plantvillage_0_split_2
I0403 16:57:36.985302 19824 net.cpp:399] loss3/classifier_plantvillage_loss3/classifier_plantvillage_0_split -> loss3/classifier_plantvillage_loss3/classifier_plantvillage_0_split_3
I0403 16:57:36.985402 19824 net.cpp:141] Setting up loss3/classifier_plantvillage_loss3/classifier_plantvillage_0_split
I0403 16:57:36.985424 19824 net.cpp:148] Top shape: 24 38 (912)
I0403 16:57:36.985438 19824 net.cpp:148] Top shape: 24 38 (912)
I0403 16:57:36.985452 19824 net.cpp:148] Top shape: 24 38 (912)
I0403 16:57:36.985466 19824 net.cpp:148] Top shape: 24 38 (912)
I0403 16:57:36.985479 19824 net.cpp:156] Memory required for data: 1346079072
I0403 16:57:36.985493 19824 layer_factory.hpp:77] Creating layer loss1/loss
I0403 16:57:36.985515 19824 net.cpp:91] Creating Layer loss1/loss
I0403 16:57:36.985532 19824 net.cpp:425] loss1/loss <- loss1/classifier_plantvillage_loss1/classifier_plantvillage_0_split_0
I0403 16:57:36.985561 19824 net.cpp:425] loss1/loss <- label_data_1_split_0
…
