…
I0403 15:49:04.608259 16076 net.cpp:313] The NetState phase (1) differed from the phase (0) specified by a rule in layer data
I0403 15:49:04.609398 16076 net.cpp:49] Initializing net from parameters: 
state {
  phase: TEST
}
layer {
  name: "data"
  type: "Data"
  top: "data"
  top: "label"
  include {
    phase: TEST
  }
  transform_param {
    mirror: false
    crop_size: 224
    mean_file: "/home/mohanty/data/final_dataset/lmdb/segmented-20-80/mean.binaryproto"
  }
  data_param {
    source: "/home/mohanty/data/final_dataset/lmdb/segmented-20-80/test_db"
    batch_size: 24
    backend: LMDB
  }
}
layer {
  name: "conv1/7x7_s2"
  type: "Convolution"
  bottom: "data"
  top: "conv1/7x7_s2"
  param {
    lr_mult: 1
    decay_mult: 1
  }
  param {
    lr_mult: 2
    decay_mult: 0
  }
  convolution_param {
    num_output: 64
    pad: 3
    kernel_size: 7
    stride: 2
    weight_filler {
      type: "xavier"
      std: 0.1
    }
    bias_filler {
      type: "constant"
      value: 0.2
    }
  }
}
layer {
  name: "conv1/relu_7x7"
  type: "ReLU"
  bottom: "conv1/7x7_s2"
  top: "conv1/7x7_s2"
}
layer {
  name: "pool1/3x3_s2"
  type: "Pooling"
  bottom: "conv1/7x7_s2"
  top: "pool1/3x3_s2"
  pooling_param {
    pool: MAX
    kernel_size: 3
    stride: 2
  }
}
layer {
  name: "pool1/norm1"
  type: "LRN"
  bottom: "pool1/3x3_s2"
  top: "pool1/norm1"
  lrn_param {
    local_size: 5
    alpha: 0.0001
    beta: 0.75
  }
}
layer {
  name: "conv2/3x3_reduce"
  type: "Convolution"
  bottom: "pool1/norm1"
  top: "conv2/3x3_reduce"
  param {
    lr_mult: 1
    decay_mult: 1
  }
  param {
    lr_mult: 2
    decay_mult: 0
  }
  convolution_param {
    num_output: 64
    kernel_size: 1
    weight_filler {
      type: "xavier"
      std: 0.1
    }
    bias_filler {
      type: "constant"
      value: 0.2
    }
  }
}
layer {
  name: "conv2/relu_3x3_reduce"
  type: "ReLU"
  bottom: "conv2/3x3_reduce"
  top: "conv2/3x3_reduce"
}
layer {
  name: "conv2/3x3"
  type: "Convolution"
  bottom: "conv2/3x3_reduce"
  top: "conv2/3x3"
  param {
    lr_mult: 1
    decay_mult: 1
  }
  param {
    lr_mult: 2
    decay_mult: 0
  }
  convolution_param {
    num_output: 192
    pad: 1
    kernel_size: 3
    weight_filler {
      type: "xavier"
      std: 0.03
    }
    bias_filler {
      type: "constant"
      value: 0.2
    }
  }
}
layer {
  name: "conv2/relu_3x3"
  type: "ReLU"
  bottom: "conv2/3x3"
  top: "conv2/3x3"
}
layer {
  name: "conv2/norm2"
  type: "LRN"
  bottom: "conv2/3x3"
  top: "conv2/norm2"
  lrn_param {
    local_size: 5
    alpha: 0.0001
    beta: 0.75
  }
}
layer {
  name: "pool2/3x3_s2"
  type: "Pooling"
  bottom: "conv2/norm2"
  top: "pool2/3x3_s2"
  pooling_param {
    pool: MAX
    kernel_size: 3
    stride: 2
  }
}
layer {
  name: "inception_3a/1x1"
  type: "Convolution"
  bottom: "pool2/3x3_s2"
  top: "inception_3a/1x1"
  param {
    lr_mult: 1
    decay_mult: 1
  }
  param {
    lr_mult: 2
    decay_mult: 0
  }
  convolution_param {
    num_output: 64
    kernel_size: 1
    weight_filler {
      type: "xavier"
      std: 0.03
    }
    bias_filler {
      type: "constant"
      value: 0.2
    }
  }
}
layer {
  name: "inception_3a/relu_1x1"
  type: "ReLU"
  bottom: "inception_3a/1x1"
  top: "inception_3a/1x1"
}
layer {
  name: "inception_3a/3x3_reduce"
  type: "Convolution"
  bottom: "pool2/3x3_s2"
  top: "inception_3a/3x3_reduce"
  param {
    lr_mult: 1
    decay_mult: 1
  }
  param {
    lr_mult: 2
    decay_mult: 0
  }
  convolution_param {
    num_output: 96
    kernel_size: 1
    weight_filler {
      type: "xavier"
      std: 0.09
    }
    bias_filler {
      type: "constant"
      value: 0.2
    }
  }
}
layer {
  name: "inception_3a/relu_3x3_reduce"
  type: "ReLU"
  bottom: "inception_3a/3x3_reduce"
  top: "inception_3a/3x3_reduce"
}
layer {
  name: "inception_3a/3x3"
  type: "Convolution"
  bottom: "inception_3a/3x3_reduce"
  top: "inception_3a/3x3"
  param {
    lr_mult: 1
    decay_mult: 1
  }
  param {
    lr_mult: 2
    decay_mult: 0
  }
  convolution_param {
    num_output: 128
    pad: 1
    kernel_size: 3
    weight_filler {
      type: "xavier"
      std: 0.03
    }
    bias_filler {
      type: "constant"
      value: 0.2
    }
  }
}
layer {
  name: "inception_3a/relu_3x3"
  type: "ReLU"
  bottom: "inception_3a/3x3"
  top: "inception_3a/3x3"
}
layer {
  name: "inception_3a/5x5_reduce"
  type: "Convolution"
  bottom: "pool2/3x3_s2"
  top: "inception_3a/5x5_reduce"
  param {
    lr_mult: 1
    decay_mult: 1
  }
  param {
    lr_mult: 2
    decay_mult: 0
  }
  convolution_param {
    num_output: 16
    kernel_size: 1
    weight_filler {
      type: "xavier"
      std: 0.2
    }
    bias_filler {
      type: "constant"
      value: 0.2
    }
  }
}
layer {
  name: "inception_3a/relu_5x5_reduce"
  type: "ReLU"
  bottom: "inception_3a/5x5_reduce"
  top: "inception_3a/5x5_reduce"
}
layer {
  name: "inception_3a/5x5"
  type: "Convolution"
  bottom: "inception_3a/5x5_reduce"
  top: "inception_3a/5x5"
  param {
    lr_mult: 1
    decay_mult: 1
  }
  param {
    lr_mult: 2
    decay_mult: 0
  }
  convolution_param {
    num_output: 32
    pad: 2
    kernel_size: 5
    weight_filler {
      type: "xavier"
      std: 0.03
    }
    bias_filler {
      type: "constant"
      value: 0.2
    }
  }
}
layer {
  name: "inception_3a/relu_5x5"
  type: "ReLU"
  bottom: "inception_3a/5x5"
  top: "inception_3a/5x5"
}
layer {
  name: "inception_3a/pool"
  type: "Pooling"
  bottom: "pool2/3x3_s2"
  top: "inception_3a/pool"
  pooling_param {
    pool: MAX
    kernel_size: 3
    stride: 1
    pad: 1
  }
}
layer {
  name: "inception_3a/pool_proj"
  type: "Convolution"
  bottom: "inception_3a/pool"
  top: "inception_3a/pool_proj"
  param {
    lr_mult: 1
    decay_mult: 1
  }
  param {
    lr_mult: 2
    decay_mult: 0
  }
  convolution_param {
    num_output: 32
    kernel_size: 1
    weight_filler {
      type: "xavier"
      std: 0.1
    }
    bias_filler {
      type: "constant"
      value: 0.2
    }
  }
}
layer {
  name: "inception_3a/relu_pool_proj"
  type: "ReLU"
  bottom: "inception_3a/pool_proj"
  top: "inception_3a/pool_proj"
}
layer {
  name: "inception_3a/output"
  type: "Concat"
  bottom: "inception_3a/1x1"
  bottom: "inception_3a/3x3"
  bottom: "inception_3a/5x5"
  bottom: "inception_3a/pool_proj"
  top: "inception_3a/output"
}
layer {
  name: "inception_3b/1x1"
  type: "Convolution"
  bottom: "inception_3a/output"
  top: "inception_3b/1x1"
  param {
    lr_mult: 1
    decay_mult: 1
  }
  param {
    lr_mult: 2
    decay_mult: 0
  }
  convolution_param {
    num_output: 128
    kernel_size: 1
    weight_filler {
      type: "xavier"
      std: 0.03
    }
    bias_filler {
      type: "constant"
      value: 0.2
    }
  }
}
layer {
  name: "inception_3b/relu_1x1"
  type: "ReLU"
  bottom: "inception_3b/1x1"
  top: "inception_3b/1x1"
}
layer {
  name: "inception_3b/3x3_reduce"
  type: "Convolution"
  bottom: "inception_3a/output"
  top: "inception_3b/3x3_reduce"
  param {
    lr_mult: 1
    decay_mult: 1
  }
  param {
    lr_mult: 2
    decay_mult: 0
  }
  convolution_param {
    num_output: 128
    kernel_size: 1
    weight_filler {
      type: "xavier"
      std: 0.09
    }
    bias_filler {
      type: "constant"
      value: 0.2
    }
  }
}
layer {
  name: "inception_3b/relu_3x3_reduce"
  type: "ReLU"
  bottom: "inception_3b/3x3_reduce"
  top: "inception_3b/3x3_reduce"
}
layer {
  name: "inception_3b/3x3"
  type: "Convolution"
  bottom: "inception_3b/3x3_reduce"
  top: "inception_3b/3x3"
  param {
    lr_mult: 1
    decay_mult: 1
  }
  param {
    lr_mult: 2
    decay_mult: 0
  }
  convolution_param {
    num_output: 192
    pad: 1
    kernel_size: 3
    weight_filler {
      type: "xavier"
      std: 0.03
    }
    bias_filler {
      type: "constant"
      value: 0.2
    }
  }
}
layer {
  name: "inception_3b/relu_3x3"
  type: "ReLU"
  bottom: "inception_3b/3x3"
  top: "inception_3b/3x3"
}
layer {
  name: "inception_3b/5x5_reduce"
  type: "Convolution"
  bottom: "inception_3a/output"
  top: "inception_3b/5x5_reduce"
  param {
    lr_mult: 1
    decay_mult: 1
  }
  param {
    lr_mult: 2
    decay_mult: 0
  }
  convolution_param {
    num_output: 32
    kernel_size: 1
    weight_filler {
      type: "xavier"
      std: 0.2
    }
    bias_filler {
      type: "constant"
      value: 0.2
    }
  }
}
layer {
  name: "inception_3b/relu_5x5_reduce"
  type: "ReLU"
  bottom: "inception_3b/5x5_reduce"
  top: "inception_3b/5x5_reduce"
}
layer {
  name: "inception_3b/5x5"
  type: "Convolution"
  bottom: "inception_3b/5x5_reduce"
  top: "inception_3b/5x5"
  param {
    lr_mult: 1
    decay_mult: 1
  }
  param {
    lr_mult: 2
    decay_mult: 0
  }
  convolution_param {
    num_output: 96
    pad: 2
    kernel_size: 5
    weight_filler {
      type: "xavier"
      std: 0.03
    }
    bias_filler {
      type: "constant"
      value: 0.2
    }
  }
}
layer {
  name: "inception_3b/relu_5x5"
  type: "ReLU"
  bottom: "inception_3b/5x5"
  top: "inception_3b/5x5"
}
layer {
  name: "inception_3b/pool"
  type: "Pooling"
  bottom: "inception_3a/output"
  top: "inception_3b/pool"
  pooling_param {
    pool: MAX
    kernel_size: 3
    stride: 1
    pad: 1
  }
}
layer {
  name: "inception_3b/pool_proj"
  type: "Convolution"
  bottom: "inception_3b/pool"
  top: "inception_3b/pool_proj"
  param {
    lr_mult: 1
    decay_mult: 1
  }
  param {
    lr_mult: 2
    decay_mult: 0
  }
  convolution_param {
    num_output: 64
    kernel_size: 1
    weight_filler {
      type: "xavier"
      std: 0.1
    }
    bias_filler {
      type: "constant"
      value: 0.2
    }
  }
}
layer {
  name: "inception_3b/relu_pool_proj"
  type: "ReLU"
  bottom: "inception_3b/pool_proj"
  top: "inception_3b/pool_proj"
}
layer {
  name: "inception_3b/output"
  type: "Concat"
  bottom: "inception_3b/1x1"
  bottom: "inception_3b/3x3"
  bottom: "inception_3b/5x5"
  bottom: "inception_3b/pool_proj"
  top: "inception_3b/output"
}
layer {
  name: "pool3/3x3_s2"
  type: "Pooling"
  bottom: "inception_3b/output"
  top: "pool3/3x3_s2"
  pooling_param {
    pool: MAX
    kernel_size: 3
    stride: 2
  }
}
layer {
  name: "inception_4a/1x1"
  type: "Convolution"
  bottom: "pool3/3x3_s2"
  top: "inception_4a/1x1"
  param {
    lr_mult: 1
    decay_mult: 1
  }
  param {
    lr_mult: 2
    decay_mult: 0
  }
  convolution_param {
    num_output: 192
    kernel_size: 1
    weight_filler {
      type: "xavier"
      std: 0.03
    }
    bias_filler {
      type: "constant"
      value: 0.2
    }
  }
}
layer {
  name: "inception_4a/relu_1x1"
  type: "ReLU"
  bottom: "inception_4a/1x1"
  top: "inception_4a/1x1"
}
layer {
  name: "inception_4a/3x3_reduce"
  type: "Convolution"
  bottom: "pool3/3x3_s2"
  top: "inception_4a/3x3_reduce"
  param {
    lr_mult: 1
    decay_mult: 1
  }
  param {
    lr_mult: 2
    decay_mult: 0
  }
  convolution_param {
    num_output: 96
    kernel_size: 1
    weight_filler {
      type: "xavier"
      std: 0.09
    }
    bias_filler {
      type: "constant"
      value: 0.2
    }
  }
}
layer {
  name: "inception_4a/relu_3x3_reduce"
  type: "ReLU"
  bottom: "inception_4a/3x3_reduce"
  top: "inception_4a/3x3_reduce"
}
layer {
  name: "inception_4a/3x3"
  type: "Convolution"
  bottom: "inception_4a/3x3_reduce"
  top: "inception_4a/3x3"
  param {
    lr_mult: 1
    decay_mult: 1
  }
  param {
    lr_mult: 2
    decay_mult: 0
  }
  convolution_param {
    num_output: 208
    pad: 1
    kernel_size: 3
    weight_filler {
      type: "xavier"
      std: 0.03
    }
    bias_filler {
      type: "constant"
      value: 0.2
    }
  }
}
layer {
  name: "inception_4a/relu_3x3"
  type: "ReLU"
  bottom: "inception_4a/3x3"
  top: "inception_4a/3x3"
}
layer {
  name: "inception_4a/5x5_reduce"
  type: "Convolution"
  bottom: "pool3/3x3_s2"
  top: "inception_4a/5x5_reduce"
  param {
    lr_mult: 1
    decay_mult: 1
  }
  param {
    lr_mult: 2
    decay_mult: 0
  }
  convolution_param {
    num_output: 16
    kernel_size: 1
    weight_filler {
      type: "xavier"
      std: 0.2
    }
    bias_filler {
      type: "constant"
      value: 0.2
    }
  }
}
layer {
  name: "inception_4a/relu_5x5_reduce"
  type: "ReLU"
  bottom: "inception_4a/5x5_reduce"
  top: "inception_4a/5x5_reduce"
}
layer {
  name: "inception_4a/5x5"
  type: "Convolution"
  bottom: "inception_4a/5x5_reduce"
  top: "inception_4a/5x5"
  param {
    lr_mult: 1
    decay_mult: 1
  }
  param {
    lr_mult: 2
    decay_mult: 0
  }
  convolution_param {
    num_output: 48
    pad: 2
    kernel_size: 5
    weight_filler {
      type: "xavier"
      std: 0.03
    }
    bias_filler {
      type: "constant"
      value: 0.2
    }
  }
}
layer {
  name: "inception_4a/relu_5x5"
  type: "ReLU"
  bottom: "inception_4a/5x5"
  top: "inception_4a/5x5"
}
layer {
  name: "inception_4a/pool"
  type: "Pooling"
  bottom: "pool3/3x3_s2"
  top: "inception_4a/pool"
  pooling_param {
    pool: MAX
    kernel_size: 3
    stride: 1
    pad: 1
  }
}
layer {
  name: "inception_4a/pool_proj"
  type: "Convolution"
  bottom: "inception_4a/pool"
  top: "inception_4a/pool_proj"
  param {
    lr_mult: 1
    decay_mult: 1
  }
  param {
    lr_mult: 2
    decay_mult: 0
  }
  convolution_param {
    num_output: 64
    kernel_size: 1
    weight_filler {
      type: "xavier"
      std: 0.1
    }
    bias_filler {
      type: "constant"
      value: 0.2
    }
  }
}
layer {
  name: "inception_4a/relu_pool_proj"
  type: "ReLU"
  bottom: "inception_4a/pool_proj"
  top: "inception_4a/pool_proj"
}
layer {
  name: "inception_4a/output"
  type: "Concat"
  bottom: "inception_4a/1x1"
  bottom: "inception_4a/3x3"
  bottom: "inception_4a/5x5"
  bottom: "inception_4a/pool_proj"
  top: "inception_4a/output"
}
layer {
  name: "loss1/ave_pool"
  type: "Pooling"
  bottom: "inception_4a/output"
  top: "loss1/ave_pool"
  pooling_param {
    pool: AVE
    kernel_size: 5
    stride: 3
  }
}
layer {
  name: "loss1/conv"
  type: "Convolution"
  bottom: "loss1/ave_pool"
  top: "loss1/conv"
  param {
    lr_mult: 1
    decay_mult: 1
  }
  param {
    lr_mult: 2
    decay_mult: 0
  }
  convolution_param {
    num_output: 128
    kernel_size: 1
    weight_filler {
      type: "xavier"
      std: 0.08
    }
    bias_filler {
      type: "constant"
      value: 0.2
    }
  }
}
layer {
  name: "loss1/relu_conv"
  type: "ReLU"
  bottom: "loss1/conv"
  top: "loss1/conv"
}
layer {
  name: "loss1/fc"
  type: "InnerProduct"
  bottom: "loss1/conv"
  top: "loss1/fc"
  param {
    lr_mult: 1
    decay_mult: 1
  }
  param {
    lr_mult: 2
    decay_mult: 0
  }
  inner_product_param {
    num_output: 1024
    weight_filler {
      type: "xavier"
      std: 0.02
    }
    bias_filler {
      type: "constant"
      value: 0.2
    }
  }
}
layer {
  name: "loss1/relu_fc"
  type: "ReLU"
  bottom: "loss1/fc"
  top: "loss1/fc"
}
layer {
  name: "loss1/drop_fc"
  type: "Dropout"
  bottom: "loss1/fc"
  top: "loss1/fc"
  dropout_param {
    dropout_ratio: 0.7
  }
}
layer {
  name: "loss1/classifier_plantvillage"
  type: "InnerProduct"
  bottom: "loss1/fc"
  top: "loss1/classifier_plantvillage"
  param {
    lr_mult: 1
    decay_mult: 1
  }
  param {
    lr_mult: 2
    decay_mult: 0
  }
  inner_product_param {
    num_output: 38
    weight_filler {
      type: "xavier"
      std: 0.0009765625
    }
    bias_filler {
      type: "constant"
      value: 0
    }
  }
}
layer {
  name: "inception_4b/1x1"
  type: "Convolution"
  bottom: "inception_4a/output"
  top: "inception_4b/1x1"
  param {
    lr_mult: 1
    decay_mult: 1
  }
  param {
    lr_mult: 2
    decay_mult: 0
  }
  convolution_param {
    num_output: 160
    kernel_size: 1
    weight_filler {
      type: "xavier"
      std: 0.03
    }
    bias_filler {
      type: "constant"
      value: 0.2
    }
  }
}
layer {
  name: "inception_4b/relu_1x1"
  type: "ReLU"
  bottom: "inception_4b/1x1"
  top: "inception_4b/1x1"
}
layer {
  name: "inception_4b/3x3_reduce"
  type: "Convolution"
  bottom: "inception_4a/output"
  top: "inception_4b/3x3_reduce"
  param {
    lr_mult: 1
    decay_mult: 1
  }
  param {
    lr_mult: 2
    decay_mult: 0
  }
  convolution_param {
    num_output: 112
    kernel_size: 1
    weight_filler {
      type: "xavier"
      std: 0.09
    }
    bias_filler {
      type: "constant"
      value: 0.2
    }
  }
}
layer {
  name: "inception_4b/relu_3x3_reduce"
  type: "ReLU"
  bottom: "inception_4b/3x3_reduce"
  top: "inception_4b/3x3_reduce"
}
layer {
  name: "inception_4b/3x3"
  type: "Convolution"
  bottom: "inception_4b/3x3_reduce"
  top: "inception_4b/3x3"
  param {
    lr_mult: 1
    decay_mult: 1
  }
  param {
    lr_mult: 2
    decay_mult: 0
  }
  convolution_param {
    num_output: 224
    pad: 1
    kernel_size: 3
    weight_filler {
      type: "xavier"
      std: 0.03
    }
    bias_filler {
      type: "constant"
      value: 0.2
    }
  }
}
layer {
  name: "inception_4b/relu_3x3"
  type: "ReLU"
  bottom: "inception_4b/3x3"
  top: "inception_4b/3x3"
}
layer {
  name: "inception_4b/5x5_reduce"
  type: "Convolution"
  bottom: "inception_4a/output"
  top: "inception_4b/5x5_reduce"
  param {
    lr_mult: 1
    decay_mult: 1
  }
  param {
    lr_mult: 2
    decay_mult: 0
  }
  convolution_param {
    num_output: 24
    kernel_size: 1
    weight_filler {
      type: "xavier"
      std: 0.2
    }
    bias_filler {
      type: "constant"
      value: 0.2
    }
  }
}
layer {
  name: "inception_4b/relu_5x5_reduce"
  type: "ReLU"
  bottom: "inception_4b/5x5_reduce"
  top: "inception_4b/5x5_reduce"
}
layer {
  name: "inception_4b/5x5"
  type: "Convolution"
  bottom: "inception_4b/5x5_reduce"
  top: "inception_4b/5x5"
  param {
    lr_mult: 1
    decay_mult: 1
  }
  param {
    lr_mult: 2
    decay_mult: 0
  }
  convolution_param {
    num_output: 64
    pad: 2
    kernel_size: 5
    weight_filler {
      type: "xavier"
      std: 0.03
    }
    bias_filler {
      type: "constant"
      value: 0.2
    }
  }
}
layer {
  name: "inception_4b/relu_5x5"
  type: "ReLU"
  bottom: "inception_4b/5x5"
  top: "inception_4b/5x5"
}
layer {
  name: "inception_4b/pool"
  type: "Pooling"
  bottom: "inception_4a/output"
  top: "inception_4b/pool"
  pooling_param {
    pool: MAX
    kernel_size: 3
    stride: 1
    pad: 1
  }
}
layer {
  name: "inception_4b/pool_proj"
  type: "Convolution"
  bottom: "inception_4b/pool"
  top: "inception_4b/pool_proj"
  param {
    lr_mult: 1
    decay_mult: 1
  }
  param {
    lr_mult: 2
    decay_mult: 0
  }
  convolution_param {
    num_output: 64
    kernel_size: 1
    weight_filler {
      type: "xavier"
      std: 0.1
    }
    bias_filler {
      type: "constant"
      value: 0.2
    }
  }
}
layer {
  name: "inception_4b/relu_pool_proj"
  type: "ReLU"
  bottom: "inception_4b/pool_proj"
  top: "inception_4b/pool_proj"
}
layer {
  name: "inception_4b/output"
  type: "Concat"
  bottom: "inception_4b/1x1"
  bottom: "inception_4b/3x3"
  bottom: "inception_4b/5x5"
  bottom: "inception_4b/pool_proj"
  top: "inception_4b/output"
}
layer {
  name: "inception_4c/1x1"
  type: "Convolution"
  bottom: "inception_4b/output"
  top: "inception_4c/1x1"
  param {
    lr_mult: 1
    decay_mult: 1
  }
  param {
    lr_mult: 2
    decay_mult: 0
  }
  convolution_param {
    num_output: 128
    kernel_size: 1
    weight_filler {
      type: "xavier"
      std: 0.03
    }
    bias_filler {
      type: "constant"
      value: 0.2
    }
  }
}
layer {
  name: "inception_4c/relu_1x1"
  type: "ReLU"
  bottom: "inception_4c/1x1"
  top: "inception_4c/1x1"
}
layer {
  name: "inception_4c/3x3_reduce"
  type: "Convolution"
  bottom: "inception_4b/output"
  top: "inception_4c/3x3_reduce"
  param {
    lr_mult: 1
    decay_mult: 1
  }
  param {
    lr_mult: 2
    decay_mult: 0
  }
  convolution_param {
    num_output: 128
    kernel_size: 1
    weight_filler {
      type: "xavier"
      std: 0.09
    }
    bias_filler {
      type: "constant"
      value: 0.2
    }
  }
}
layer {
  name: "inception_4c/relu_3x3_reduce"
  type: "ReLU"
  bottom: "inception_4c/3x3_reduce"
  top: "inception_4c/3x3_reduce"
}
layer {
  name: "inception_4c/3x3"
  type: "Convolution"
  bottom: "inception_4c/3x3_reduce"
  top: "inception_4c/3x3"
  param {
    lr_mult: 1
    decay_mult: 1
  }
  param {
    lr_mult: 2
    decay_mult: 0
  }
  convolution_param {
    num_output: 256
    pad: 1
    kernel_size: 3
    weight_filler {
      type: "xavier"
      std: 0.03
    }
    bias_filler {
      type: "constant"
      value: 0.2
    }
  }
}
layer {
  name: "inception_4c/relu_3x3"
  type: "ReLU"
  bottom: "inception_4c/3x3"
  top: "inception_4c/3x3"
}
layer {
  name: "inception_4c/5x5_reduce"
  type: "Convolution"
  bottom: "inception_4b/output"
  top: "inception_4c/5x5_reduce"
  param {
    lr_mult: 1
    decay_mult: 1
  }
  param {
    lr_mult: 2
    decay_mult: 0
  }
  convolution_param {
    num_output: 24
    kernel_size: 1
    weight_filler {
      type: "xavier"
      std: 0.2
    }
    bias_filler {
      type: "constant"
      value: 0.2
    }
  }
}
layer {
  name: "inception_4c/relu_5x5_reduce"
  type: "ReLU"
  bottom: "inception_4c/5x5_reduce"
  top: "inception_4c/5x5_reduce"
}
layer {
  name: "inception_4c/5x5"
  type: "Convolution"
  bottom: "inception_4c/5x5_reduce"
  top: "inception_4c/5x5"
  param {
    lr_mult: 1
    decay_mult: 1
  }
  param {
    lr_mult: 2
    decay_mult: 0
  }
  convolution_param {
    num_output: 64
    pad: 2
    kernel_size: 5
    weight_filler {
      type: "xavier"
      std: 0.03
    }
    bias_filler {
      type: "constant"
      value: 0.2
    }
  }
}
layer {
  name: "inception_4c/relu_5x5"
  type: "ReLU"
  bottom: "inception_4c/5x5"
  top: "inception_4c/5x5"
}
layer {
  name: "inception_4c/pool"
  type: "Pooling"
  bottom: "inception_4b/output"
  top: "inception_4c/pool"
  pooling_param {
    pool: MAX
    kernel_size: 3
    stride: 1
    pad: 1
  }
}
layer {
  name: "inception_4c/pool_proj"
  type: "Convolution"
  bottom: "inception_4c/pool"
  top: "inception_4c/pool_proj"
  param {
    lr_mult: 1
    decay_mult: 1
  }
  param {
    lr_mult: 2
    decay_mult: 0
  }
  convolution_param {
    num_output: 64
    kernel_size: 1
    weight_filler {
      type: "xavier"
      std: 0.1
    }
    bias_filler {
      type: "constant"
      value: 0.2
    }
  }
}
layer {
  name: "inception_4c/relu_pool_proj"
  type: "ReLU"
  bottom: "inception_4c/pool_proj"
  top: "inception_4c/pool_proj"
}
layer {
  name: "inception_4c/output"
  type: "Concat"
  bottom: "inception_4c/1x1"
  bottom: "inception_4c/3x3"
  bottom: "inception_4c/5x5"
  bottom: "inception_4c/pool_proj"
  top: "inception_4c/output"
}
layer {
  name: "inception_4d/1x1"
  type: "Convolution"
  bottom: "inception_4c/output"
  top: "inception_4d/1x1"
  param {
    lr_mult: 1
    decay_mult: 1
  }
  param {
    lr_mult: 2
    decay_mult: 0
  }
  convolution_param {
    num_output: 112
    kernel_size: 1
    weight_filler {
      type: "xavier"
      std: 0.03
    }
    bias_filler {
      type: "constant"
      value: 0.2
    }
  }
}
layer {
  name: "inception_4d/relu_1x1"
  type: "ReLU"
  bottom: "inception_4d/1x1"
  top: "inception_4d/1x1"
}
layer {
  name: "inception_4d/3x3_reduce"
  type: "Convolution"
  bottom: "inception_4c/output"
  top: "inception_4d/3x3_reduce"
  param {
    lr_mult: 1
    decay_mult: 1
  }
  param {
    lr_mult: 2
    decay_mult: 0
  }
  convolution_param {
    num_output: 144
    kernel_size: 1
    weight_filler {
      type: "xavier"
      std: 0.09
    }
    bias_filler {
      type: "constant"
      value: 0.2
    }
  }
}
layer {
  name: "inception_4d/relu_3x3_reduce"
  type: "ReLU"
  bottom: "inception_4d/3x3_reduce"
  top: "inception_4d/3x3_reduce"
}
layer {
  name: "inception_4d/3x3"
  type: "Convolution"
  bottom: "inception_4d/3x3_reduce"
  top: "inception_4d/3x3"
  param {
    lr_mult: 1
    decay_mult: 1
  }
  param {
    lr_mult: 2
    decay_mult: 0
  }
  convolution_param {
    num_output: 288
    pad: 1
    kernel_size: 3
    weight_filler {
      type: "xavier"
      std: 0.03
    }
    bias_filler {
      type: "constant"
      value: 0.2
    }
  }
}
layer {
  name: "inception_4d/relu_3x3"
  type: "ReLU"
  bottom: "inception_4d/3x3"
  top: "inception_4d/3x3"
}
layer {
  name: "inception_4d/5x5_reduce"
  type: "Convolution"
  bottom: "inception_4c/output"
  top: "inception_4d/5x5_reduce"
  param {
    lr_mult: 1
    decay_mult: 1
  }
  param {
    lr_mult: 2
    decay_mult: 0
  }
  convolution_param {
    num_output: 32
    kernel_size: 1
    weight_filler {
      type: "xavier"
      std: 0.2
    }
    bias_filler {
      type: "constant"
      value: 0.2
    }
  }
}
layer {
  name: "inception_4d/relu_5x5_reduce"
  type: "ReLU"
  bottom: "inception_4d/5x5_reduce"
  top: "inception_4d/5x5_reduce"
}
layer {
  name: "inception_4d/5x5"
  type: "Convolution"
  bottom: "inception_4d/5x5_reduce"
  top: "inception_4d/5x5"
  param {
    lr_mult: 1
    decay_mult: 1
  }
  param {
    lr_mult: 2
    decay_mult: 0
  }
  convolution_param {
    num_output: 64
    pad: 2
    kernel_size: 5
    weight_filler {
      type: "xavier"
      std: 0.03
    }
    bias_filler {
      type: "constant"
      value: 0.2
    }
  }
}
layer {
  name: "inception_4d/relu_5x5"
  type: "ReLU"
  bottom: "inception_4d/5x5"
  top: "inception_4d/5x5"
}
layer {
  name: "inception_4d/pool"
  type: "Pooling"
  bottom: "inception_4c/output"
  top: "inception_4d/pool"
  pooling_param {
    pool: MAX
    kernel_size: 3
    stride: 1
    pad: 1
  }
}
layer {
  name: "inception_4d/pool_proj"
  type: "Convolution"
  bottom: "inception_4d/pool"
  top: "inception_4d/pool_proj"
  param {
    lr_mult: 1
    decay_mult: 1
  }
  param {
    lr_mult: 2
    decay_mult: 0
  }
  convolution_param {
    num_output: 64
    kernel_size: 1
    weight_filler {
      type: "xavier"
      std: 0.1
    }
    bias_filler {
      type: "constant"
      value: 0.2
    }
  }
}
layer {
  name: "inception_4d/relu_pool_proj"
  type: "ReLU"
  bottom: "inception_4d/pool_proj"
  top: "inception_4d/pool_proj"
}
layer {
  name: "inception_4d/output"
  type: "Concat"
  bottom: "inception_4d/1x1"
  bottom: "inception_4d/3x3"
  bottom: "inception_4d/5x5"
  bottom: "inception_4d/pool_proj"
  top: "inception_4d/output"
}
layer {
  name: "loss2/ave_pool"
  type: "Pooling"
  bottom: "inception_4d/output"
  top: "loss2/ave_pool"
  pooling_param {
    pool: AVE
    kernel_size: 5
    stride: 3
  }
}
layer {
  name: "loss2/conv"
  type: "Convolution"
  bottom: "loss2/ave_pool"
  top: "loss2/conv"
  param {
    lr_mult: 1
    decay_mult: 1
  }
  param {
    lr_mult: 2
    decay_mult: 0
  }
  convolution_param {
    num_output: 128
    kernel_size: 1
    weight_filler {
      type: "xavier"
      std: 0.08
    }
    bias_filler {
      type: "constant"
      value: 0.2
    }
  }
}
layer {
  name: "loss2/relu_conv"
  type: "ReLU"
  bottom: "loss2/conv"
  top: "loss2/conv"
}
layer {
  name: "loss2/fc"
  type: "InnerProduct"
  bottom: "loss2/conv"
  top: "loss2/fc"
  param {
    lr_mult: 1
    decay_mult: 1
  }
  param {
    lr_mult: 2
    decay_mult: 0
  }
  inner_product_param {
    num_output: 1024
    weight_filler {
      type: "xavier"
      std: 0.02
    }
    bias_filler {
      type: "constant"
      value: 0.2
    }
  }
}
layer {
  name: "loss2/relu_fc"
  type: "ReLU"
  bottom: "loss2/fc"
  top: "loss2/fc"
}
layer {
  name: "loss2/drop_fc"
  type: "Dropout"
  bottom: "loss2/fc"
  top: "loss2/fc"
  dropout_param {
    dropout_ratio: 0.7
  }
}
layer {
  name: "loss2/classifier_plantvillage"
  type: "InnerProduct"
  bottom: "loss2/fc"
  top: "loss2/classifier_plantvillage"
  param {
    lr_mult: 1
    decay_mult: 1
  }
  param {
    lr_mult: 2
    decay_mult: 0
  }
  inner_product_param {
    num_output: 38
    weight_filler {
      type: "xavier"
      std: 0.0009765625
    }
    bias_filler {
      type: "constant"
      value: 0
    }
  }
}
layer {
  name: "inception_4e/1x1"
  type: "Convolution"
  bottom: "inception_4d/output"
  top: "inception_4e/1x1"
  param {
    lr_mult: 1
    decay_mult: 1
  }
  param {
    lr_mult: 2
    decay_mult: 0
  }
  convolution_param {
    num_output: 256
    kernel_size: 1
    weight_filler {
      type: "xavier"
      std: 0.03
    }
    bias_filler {
      type: "constant"
      value: 0.2
    }
  }
}
layer {
  name: "inception_4e/relu_1x1"
  type: "ReLU"
  bottom: "inception_4e/1x1"
  top: "inception_4e/1x1"
}
layer {
  name: "inception_4e/3x3_reduce"
  type: "Convolution"
  bottom: "inception_4d/output"
  top: "inception_4e/3x3_reduce"
  param {
    lr_mult: 1
    decay_mult: 1
  }
  param {
    lr_mult: 2
    decay_mult: 0
  }
  convolution_param {
    num_output: 160
    kernel_size: 1
    weight_filler {
      type: "xavier"
      std: 0.09
    }
    bias_filler {
      type: "constant"
      value: 0.2
    }
  }
}
layer {
  name: "inception_4e/relu_3x3_reduce"
  type: "ReLU"
  bottom: "inception_4e/3x3_reduce"
  top: "inception_4e/3x3_reduce"
}
layer {
  name: "inception_4e/3x3"
  type: "Convolution"
  bottom: "inception_4e/3x3_reduce"
  top: "inception_4e/3x3"
  param {
    lr_mult: 1
    decay_mult: 1
  }
  param {
    lr_mult: 2
    decay_mult: 0
  }
  convolution_param {
    num_output: 320
    pad: 1
    kernel_size: 3
    weight_filler {
      type: "xavier"
      std: 0.03
    }
    bias_filler {
      type: "constant"
      value: 0.2
    }
  }
}
layer {
  name: "inception_4e/relu_3x3"
  type: "ReLU"
  bottom: "inception_4e/3x3"
  top: "inception_4e/3x3"
}
layer {
  name: "inception_4e/5x5_reduce"
  type: "Convolution"
  bottom: "inception_4d/output"
  top: "inception_4e/5x5_reduce"
  param {
    lr_mult: 1
    decay_mult: 1
  }
  param {
    lr_mult: 2
    decay_mult: 0
  }
  convolution_param {
    num_output: 32
    kernel_size: 1
    weight_filler {
      type: "xavier"
      std: 0.2
    }
    bias_filler {
      type: "constant"
      value: 0.2
    }
  }
}
layer {
  name: "inception_4e/relu_5x5_reduce"
  type: "ReLU"
  bottom: "inception_4e/5x5_reduce"
  top: "inception_4e/5x5_reduce"
}
layer {
  name: "inception_4e/5x5"
  type: "Convolution"
  bottom: "inception_4e/5x5_reduce"
  top: "inception_4e/
I0403 15:49:04.610782 16076 layer_factory.hpp:77] Creating layer data
I0403 15:49:04.611399 16076 net.cpp:91] Creating Layer data
I0403 15:49:04.611431 16076 net.cpp:399] data -> data
I0403 15:49:04.611486 16076 net.cpp:399] data -> label
I0403 15:49:04.611526 16076 data_transformer.cpp:25] Loading mean file from: /home/mohanty/data/final_dataset/lmdb/segmented-20-80/mean.binaryproto
I0403 15:49:04.612720 16080 db_lmdb.cpp:38] Opened lmdb /home/mohanty/data/final_dataset/lmdb/segmented-20-80/test_db
I0403 15:49:04.624748 16076 data_layer.cpp:41] output data size: 24,3,224,224
I0403 15:49:04.652039 16076 net.cpp:141] Setting up data
I0403 15:49:04.652132 16076 net.cpp:148] Top shape: 24 3 224 224 (3612672)
I0403 15:49:04.652156 16076 net.cpp:148] Top shape: 24 (24)
I0403 15:49:04.652174 16076 net.cpp:156] Memory required for data: 14450784
I0403 15:49:04.652204 16076 layer_factory.hpp:77] Creating layer label_data_1_split
I0403 15:49:04.652231 16076 net.cpp:91] Creating Layer label_data_1_split
I0403 15:49:04.652261 16076 net.cpp:425] label_data_1_split <- label
I0403 15:49:04.652297 16076 net.cpp:399] label_data_1_split -> label_data_1_split_0
I0403 15:49:04.652328 16076 net.cpp:399] label_data_1_split -> label_data_1_split_1
I0403 15:49:04.652350 16076 net.cpp:399] label_data_1_split -> label_data_1_split_2
I0403 15:49:04.652372 16076 net.cpp:399] label_data_1_split -> label_data_1_split_3
I0403 15:49:04.652393 16076 net.cpp:399] label_data_1_split -> label_data_1_split_4
I0403 15:49:04.652415 16076 net.cpp:399] label_data_1_split -> label_data_1_split_5
I0403 15:49:04.652436 16076 net.cpp:399] label_data_1_split -> label_data_1_split_6
I0403 15:49:04.652458 16076 net.cpp:399] label_data_1_split -> label_data_1_split_7
I0403 15:49:04.652479 16076 net.cpp:399] label_data_1_split -> label_data_1_split_8
I0403 15:49:04.652500 16076 net.cpp:399] label_data_1_split -> label_data_1_split_9
I0403 15:49:04.652627 16076 net.cpp:141] Setting up label_data_1_split
I0403 15:49:04.652653 16076 net.cpp:148] Top shape: 24 (24)
I0403 15:49:04.652672 16076 net.cpp:148] Top shape: 24 (24)
I0403 15:49:04.652689 16076 net.cpp:148] Top shape: 24 (24)
I0403 15:49:04.652706 16076 net.cpp:148] Top shape: 24 (24)
I0403 15:49:04.652722 16076 net.cpp:148] Top shape: 24 (24)
I0403 15:49:04.652740 16076 net.cpp:148] Top shape: 24 (24)
I0403 15:49:04.652755 16076 net.cpp:148] Top shape: 24 (24)
I0403 15:49:04.652771 16076 net.cpp:148] Top shape: 24 (24)
I0403 15:49:04.652787 16076 net.cpp:148] Top shape: 24 (24)
I0403 15:49:04.652803 16076 net.cpp:148] Top shape: 24 (24)
I0403 15:49:04.652853 16076 net.cpp:156] Memory required for data: 14451744
I0403 15:49:04.652871 16076 layer_factory.hpp:77] Creating layer conv1/7x7_s2
I0403 15:49:04.652905 16076 net.cpp:91] Creating Layer conv1/7x7_s2
I0403 15:49:04.652925 16076 net.cpp:425] conv1/7x7_s2 <- data
I0403 15:49:04.652945 16076 net.cpp:399] conv1/7x7_s2 -> conv1/7x7_s2
I0403 15:49:04.794003 16076 net.cpp:141] Setting up conv1/7x7_s2
I0403 15:49:04.794075 16076 net.cpp:148] Top shape: 24 64 112 112 (19267584)
I0403 15:49:04.794093 16076 net.cpp:156] Memory required for data: 91522080
I0403 15:49:04.794123 16076 layer_factory.hpp:77] Creating layer conv1/relu_7x7
I0403 15:49:04.794149 16076 net.cpp:91] Creating Layer conv1/relu_7x7
I0403 15:49:04.794167 16076 net.cpp:425] conv1/relu_7x7 <- conv1/7x7_s2
I0403 15:49:04.794185 16076 net.cpp:386] conv1/relu_7x7 -> conv1/7x7_s2 (in-place)
I0403 15:49:04.794446 16076 net.cpp:141] Setting up conv1/relu_7x7
I0403 15:49:04.794474 16076 net.cpp:148] Top shape: 24 64 112 112 (19267584)
I0403 15:49:04.794489 16076 net.cpp:156] Memory required for data: 168592416
I0403 15:49:04.794504 16076 layer_factory.hpp:77] Creating layer pool1/3x3_s2
I0403 15:49:04.794540 16076 net.cpp:91] Creating Layer pool1/3x3_s2
I0403 15:49:04.794558 16076 net.cpp:425] pool1/3x3_s2 <- conv1/7x7_s2
I0403 15:49:04.794575 16076 net.cpp:399] pool1/3x3_s2 -> pool1/3x3_s2
I0403 15:49:04.794661 16076 net.cpp:141] Setting up pool1/3x3_s2
I0403 15:49:04.794687 16076 net.cpp:148] Top shape: 24 64 56 56 (4816896)
I0403 15:49:04.794702 16076 net.cpp:156] Memory required for data: 187860000
I0403 15:49:04.794715 16076 layer_factory.hpp:77] Creating layer pool1/norm1
I0403 15:49:04.794739 16076 net.cpp:91] Creating Layer pool1/norm1
I0403 15:49:04.794757 16076 net.cpp:425] pool1/norm1 <- pool1/3x3_s2
I0403 15:49:04.794775 16076 net.cpp:399] pool1/norm1 -> pool1/norm1
I0403 15:49:04.795090 16076 net.cpp:141] Setting up pool1/norm1
I0403 15:49:04.795119 16076 net.cpp:148] Top shape: 24 64 56 56 (4816896)
I0403 15:49:04.795133 16076 net.cpp:156] Memory required for data: 207127584
I0403 15:49:04.795148 16076 layer_factory.hpp:77] Creating layer conv2/3x3_reduce
I0403 15:49:04.795174 16076 net.cpp:91] Creating Layer conv2/3x3_reduce
I0403 15:49:04.795193 16076 net.cpp:425] conv2/3x3_reduce <- pool1/norm1
I0403 15:49:04.795214 16076 net.cpp:399] conv2/3x3_reduce -> conv2/3x3_reduce
I0403 15:49:04.796622 16076 net.cpp:141] Setting up conv2/3x3_reduce
I0403 15:49:04.796653 16076 net.cpp:148] Top shape: 24 64 56 56 (4816896)
I0403 15:49:04.796669 16076 net.cpp:156] Memory required for data: 226395168
I0403 15:49:04.796690 16076 layer_factory.hpp:77] Creating layer conv2/relu_3x3_reduce
I0403 15:49:04.796713 16076 net.cpp:91] Creating Layer conv2/relu_3x3_reduce
I0403 15:49:04.796732 16076 net.cpp:425] conv2/relu_3x3_reduce <- conv2/3x3_reduce
I0403 15:49:04.796751 16076 net.cpp:386] conv2/relu_3x3_reduce -> conv2/3x3_reduce (in-place)
I0403 15:49:04.797019 16076 net.cpp:141] Setting up conv2/relu_3x3_reduce
I0403 15:49:04.797046 16076 net.cpp:148] Top shape: 24 64 56 56 (4816896)
I0403 15:49:04.797062 16076 net.cpp:156] Memory required for data: 245662752
I0403 15:49:04.797078 16076 layer_factory.hpp:77] Creating layer conv2/3x3
I0403 15:49:04.797104 16076 net.cpp:91] Creating Layer conv2/3x3
I0403 15:49:04.797122 16076 net.cpp:425] conv2/3x3 <- conv2/3x3_reduce
I0403 15:49:04.797142 16076 net.cpp:399] conv2/3x3 -> conv2/3x3
I0403 15:49:04.799465 16076 net.cpp:141] Setting up conv2/3x3
I0403 15:49:04.799496 16076 net.cpp:148] Top shape: 24 192 56 56 (14450688)
I0403 15:49:04.799515 16076 net.cpp:156] Memory required for data: 303465504
I0403 15:49:04.799536 16076 layer_factory.hpp:77] Creating layer conv2/relu_3x3
I0403 15:49:04.799557 16076 net.cpp:91] Creating Layer conv2/relu_3x3
I0403 15:49:04.799574 16076 net.cpp:425] conv2/relu_3x3 <- conv2/3x3
I0403 15:49:04.799592 16076 net.cpp:386] conv2/relu_3x3 -> conv2/3x3 (in-place)
I0403 15:49:04.799772 16076 net.cpp:141] Setting up conv2/relu_3x3
I0403 15:49:04.799798 16076 net.cpp:148] Top shape: 24 192 56 56 (14450688)
I0403 15:49:04.799847 16076 net.cpp:156] Memory required for data: 361268256
I0403 15:49:04.799862 16076 layer_factory.hpp:77] Creating layer conv2/norm2
I0403 15:49:04.799882 16076 net.cpp:91] Creating Layer conv2/norm2
I0403 15:49:04.799899 16076 net.cpp:425] conv2/norm2 <- conv2/3x3
I0403 15:49:04.799917 16076 net.cpp:399] conv2/norm2 -> conv2/norm2
I0403 15:49:04.800222 16076 net.cpp:141] Setting up conv2/norm2
I0403 15:49:04.800249 16076 net.cpp:148] Top shape: 24 192 56 56 (14450688)
I0403 15:49:04.800266 16076 net.cpp:156] Memory required for data: 419071008
I0403 15:49:04.800279 16076 layer_factory.hpp:77] Creating layer pool2/3x3_s2
I0403 15:49:04.800302 16076 net.cpp:91] Creating Layer pool2/3x3_s2
I0403 15:49:04.800319 16076 net.cpp:425] pool2/3x3_s2 <- conv2/norm2
I0403 15:49:04.800338 16076 net.cpp:399] pool2/3x3_s2 -> pool2/3x3_s2
I0403 15:49:04.800392 16076 net.cpp:141] Setting up pool2/3x3_s2
I0403 15:49:04.800415 16076 net.cpp:148] Top shape: 24 192 28 28 (3612672)
I0403 15:49:04.800429 16076 net.cpp:156] Memory required for data: 433521696
I0403 15:49:04.800443 16076 layer_factory.hpp:77] Creating layer pool2/3x3_s2_pool2/3x3_s2_0_split
I0403 15:49:04.800460 16076 net.cpp:91] Creating Layer pool2/3x3_s2_pool2/3x3_s2_0_split
I0403 15:49:04.800475 16076 net.cpp:425] pool2/3x3_s2_pool2/3x3_s2_0_split <- pool2/3x3_s2
I0403 15:49:04.800495 16076 net.cpp:399] pool2/3x3_s2_pool2/3x3_s2_0_split -> pool2/3x3_s2_pool2/3x3_s2_0_split_0
I0403 15:49:04.800516 16076 net.cpp:399] pool2/3x3_s2_pool2/3x3_s2_0_split -> pool2/3x3_s2_pool2/3x3_s2_0_split_1
I0403 15:49:04.800536 16076 net.cpp:399] pool2/3x3_s2_pool2/3x3_s2_0_split -> pool2/3x3_s2_pool2/3x3_s2_0_split_2
I0403 15:49:04.800555 16076 net.cpp:399] pool2/3x3_s2_pool2/3x3_s2_0_split -> pool2/3x3_s2_pool2/3x3_s2_0_split_3
I0403 15:49:04.800633 16076 net.cpp:141] Setting up pool2/3x3_s2_pool2/3x3_s2_0_split
I0403 15:49:04.800659 16076 net.cpp:148] Top shape: 24 192 28 28 (3612672)
I0403 15:49:04.800676 16076 net.cpp:148] Top shape: 24 192 28 28 (3612672)
I0403 15:49:04.800693 16076 net.cpp:148] Top shape: 24 192 28 28 (3612672)
I0403 15:49:04.800709 16076 net.cpp:148] Top shape: 24 192 28 28 (3612672)
I0403 15:49:04.800722 16076 net.cpp:156] Memory required for data: 491324448
I0403 15:49:04.800736 16076 layer_factory.hpp:77] Creating layer inception_3a/1x1
I0403 15:49:04.800758 16076 net.cpp:91] Creating Layer inception_3a/1x1
I0403 15:49:04.800776 16076 net.cpp:425] inception_3a/1x1 <- pool2/3x3_s2_pool2/3x3_s2_0_split_0
I0403 15:49:04.800794 16076 net.cpp:399] inception_3a/1x1 -> inception_3a/1x1
I0403 15:49:04.802352 16076 net.cpp:141] Setting up inception_3a/1x1
I0403 15:49:04.802383 16076 net.cpp:148] Top shape: 24 64 28 28 (1204224)
I0403 15:49:04.802402 16076 net.cpp:156] Memory required for data: 496141344
I0403 15:49:04.802420 16076 layer_factory.hpp:77] Creating layer inception_3a/relu_1x1
I0403 15:49:04.802443 16076 net.cpp:91] Creating Layer inception_3a/relu_1x1
I0403 15:49:04.802460 16076 net.cpp:425] inception_3a/relu_1x1 <- inception_3a/1x1
I0403 15:49:04.802479 16076 net.cpp:386] inception_3a/relu_1x1 -> inception_3a/1x1 (in-place)
I0403 15:49:04.802666 16076 net.cpp:141] Setting up inception_3a/relu_1x1
I0403 15:49:04.802695 16076 net.cpp:148] Top shape: 24 64 28 28 (1204224)
I0403 15:49:04.802712 16076 net.cpp:156] Memory required for data: 500958240
I0403 15:49:04.802728 16076 layer_factory.hpp:77] Creating layer inception_3a/3x3_reduce
I0403 15:49:04.802750 16076 net.cpp:91] Creating Layer inception_3a/3x3_reduce
I0403 15:49:04.802768 16076 net.cpp:425] inception_3a/3x3_reduce <- pool2/3x3_s2_pool2/3x3_s2_0_split_1
I0403 15:49:04.802788 16076 net.cpp:399] inception_3a/3x3_reduce -> inception_3a/3x3_reduce
I0403 15:49:04.804522 16076 net.cpp:141] Setting up inception_3a/3x3_reduce
I0403 15:49:04.804553 16076 net.cpp:148] Top shape: 24 96 28 28 (1806336)
I0403 15:49:04.804570 16076 net.cpp:156] Memory required for data: 508183584
I0403 15:49:04.804591 16076 layer_factory.hpp:77] Creating layer inception_3a/relu_3x3_reduce
I0403 15:49:04.804642 16076 net.cpp:91] Creating Layer inception_3a/relu_3x3_reduce
I0403 15:49:04.804663 16076 net.cpp:425] inception_3a/relu_3x3_reduce <- inception_3a/3x3_reduce
I0403 15:49:04.804684 16076 net.cpp:386] inception_3a/relu_3x3_reduce -> inception_3a/3x3_reduce (in-place)
I0403 15:49:04.804869 16076 net.cpp:141] Setting up inception_3a/relu_3x3_reduce
I0403 15:49:04.804896 16076 net.cpp:148] Top shape: 24 96 28 28 (1806336)
I0403 15:49:04.804910 16076 net.cpp:156] Memory required for data: 515408928
I0403 15:49:04.804924 16076 layer_factory.hpp:77] Creating layer inception_3a/3x3
I0403 15:49:04.804947 16076 net.cpp:91] Creating Layer inception_3a/3x3
I0403 15:49:04.804965 16076 net.cpp:425] inception_3a/3x3 <- inception_3a/3x3_reduce
I0403 15:49:04.804986 16076 net.cpp:399] inception_3a/3x3 -> inception_3a/3x3
I0403 15:49:04.806675 16076 net.cpp:141] Setting up inception_3a/3x3
I0403 15:49:04.806707 16076 net.cpp:148] Top shape: 24 128 28 28 (2408448)
I0403 15:49:04.806725 16076 net.cpp:156] Memory required for data: 525042720
I0403 15:49:04.806745 16076 layer_factory.hpp:77] Creating layer inception_3a/relu_3x3
I0403 15:49:04.806764 16076 net.cpp:91] Creating Layer inception_3a/relu_3x3
I0403 15:49:04.806782 16076 net.cpp:425] inception_3a/relu_3x3 <- inception_3a/3x3
I0403 15:49:04.806798 16076 net.cpp:386] inception_3a/relu_3x3 -> inception_3a/3x3 (in-place)
I0403 15:49:04.807075 16076 net.cpp:141] Setting up inception_3a/relu_3x3
I0403 15:49:04.807106 16076 net.cpp:148] Top shape: 24 128 28 28 (2408448)
I0403 15:49:04.807123 16076 net.cpp:156] Memory required for data: 534676512
I0403 15:49:04.807138 16076 layer_factory.hpp:77] Creating layer inception_3a/5x5_reduce
I0403 15:49:04.807162 16076 net.cpp:91] Creating Layer inception_3a/5x5_reduce
I0403 15:49:04.807179 16076 net.cpp:425] inception_3a/5x5_reduce <- pool2/3x3_s2_pool2/3x3_s2_0_split_2
I0403 15:49:04.807199 16076 net.cpp:399] inception_3a/5x5_reduce -> inception_3a/5x5_reduce
I0403 15:49:04.808173 16076 net.cpp:141] Setting up inception_3a/5x5_reduce
I0403 15:49:04.808205 16076 net.cpp:148] Top shape: 24 16 28 28 (301056)
I0403 15:49:04.808223 16076 net.cpp:156] Memory required for data: 535880736
I0403 15:49:04.808243 16076 layer_factory.hpp:77] Creating layer inception_3a/relu_5x5_reduce
I0403 15:49:04.808261 16076 net.cpp:91] Creating Layer inception_3a/relu_5x5_reduce
I0403 15:49:04.808279 16076 net.cpp:425] inception_3a/relu_5x5_reduce <- inception_3a/5x5_reduce
I0403 15:49:04.808300 16076 net.cpp:386] inception_3a/relu_5x5_reduce -> inception_3a/5x5_reduce (in-place)
I0403 15:49:04.808604 16076 net.cpp:141] Setting up inception_3a/relu_5x5_reduce
I0403 15:49:04.808632 16076 net.cpp:148] Top shape: 24 16 28 28 (301056)
I0403 15:49:04.808648 16076 net.cpp:156] Memory required for data: 537084960
I0403 15:49:04.808665 16076 layer_factory.hpp:77] Creating layer inception_3a/5x5
I0403 15:49:04.808687 16076 net.cpp:91] Creating Layer inception_3a/5x5
I0403 15:49:04.808706 16076 net.cpp:425] inception_3a/5x5 <- inception_3a/5x5_reduce
I0403 15:49:04.808727 16076 net.cpp:399] inception_3a/5x5 -> inception_3a/5x5
I0403 15:49:04.809756 16076 net.cpp:141] Setting up inception_3a/5x5
I0403 15:49:04.809787 16076 net.cpp:148] Top shape: 24 32 28 28 (602112)
I0403 15:49:04.809805 16076 net.cpp:156] Memory required for data: 539493408
I0403 15:49:04.809824 16076 layer_factory.hpp:77] Creating layer inception_3a/relu_5x5
I0403 15:49:04.809844 16076 net.cpp:91] Creating Layer inception_3a/relu_5x5
I0403 15:49:04.809861 16076 net.cpp:425] inception_3a/relu_5x5 <- inception_3a/5x5
I0403 15:49:04.809880 16076 net.cpp:386] inception_3a/relu_5x5 -> inception_3a/5x5 (in-place)
I0403 15:49:04.810055 16076 net.cpp:141] Setting up inception_3a/relu_5x5
I0403 15:49:04.810083 16076 net.cpp:148] Top shape: 24 32 28 28 (602112)
I0403 15:49:04.810101 16076 net.cpp:156] Memory required for data: 541901856
I0403 15:49:04.810116 16076 layer_factory.hpp:77] Creating layer inception_3a/pool
I0403 15:49:04.810133 16076 net.cpp:91] Creating Layer inception_3a/pool
I0403 15:49:04.810164 16076 net.cpp:425] inception_3a/pool <- pool2/3x3_s2_pool2/3x3_s2_0_split_3
I0403 15:49:04.810187 16076 net.cpp:399] inception_3a/pool -> inception_3a/pool
I0403 15:49:04.810261 16076 net.cpp:141] Setting up inception_3a/pool
I0403 15:49:04.810291 16076 net.cpp:148] Top shape: 24 192 28 28 (3612672)
I0403 15:49:04.810307 16076 net.cpp:156] Memory required for data: 556352544
I0403 15:49:04.810322 16076 layer_factory.hpp:77] Creating layer inception_3a/pool_proj
I0403 15:49:04.810343 16076 net.cpp:91] Creating Layer inception_3a/pool_proj
I0403 15:49:04.810359 16076 net.cpp:425] inception_3a/pool_proj <- inception_3a/pool
I0403 15:49:04.810382 16076 net.cpp:399] inception_3a/pool_proj -> inception_3a/pool_proj
I0403 15:49:04.811377 16076 net.cpp:141] Setting up inception_3a/pool_proj
I0403 15:49:04.811406 16076 net.cpp:148] Top shape: 24 32 28 28 (602112)
I0403 15:49:04.811424 16076 net.cpp:156] Memory required for data: 558760992
I0403 15:49:04.811447 16076 layer_factory.hpp:77] Creating layer inception_3a/relu_pool_proj
I0403 15:49:04.811468 16076 net.cpp:91] Creating Layer inception_3a/relu_pool_proj
I0403 15:49:04.811486 16076 net.cpp:425] inception_3a/relu_pool_proj <- inception_3a/pool_proj
I0403 15:49:04.811506 16076 net.cpp:386] inception_3a/relu_pool_proj -> inception_3a/pool_proj (in-place)
I0403 15:49:04.811786 16076 net.cpp:141] Setting up inception_3a/relu_pool_proj
I0403 15:49:04.811815 16076 net.cpp:148] Top shape: 24 32 28 28 (602112)
I0403 15:49:04.811832 16076 net.cpp:156] Memory required for data: 561169440
I0403 15:49:04.811846 16076 layer_factory.hpp:77] Creating layer inception_3a/output
I0403 15:49:04.811863 16076 net.cpp:91] Creating Layer inception_3a/output
I0403 15:49:04.811879 16076 net.cpp:425] inception_3a/output <- inception_3a/1x1
I0403 15:49:04.811895 16076 net.cpp:425] inception_3a/output <- inception_3a/3x3
I0403 15:49:04.811910 16076 net.cpp:425] inception_3a/output <- inception_3a/5x5
I0403 15:49:04.811925 16076 net.cpp:425] inception_3a/output <- inception_3a/pool_proj
I0403 15:49:04.811942 16076 net.cpp:399] inception_3a/output -> inception_3a/output
I0403 15:49:04.811990 16076 net.cpp:141] Setting up inception_3a/output
I0403 15:49:04.812013 16076 net.cpp:148] Top shape: 24 256 28 28 (4816896)
I0403 15:49:04.812028 16076 net.cpp:156] Memory required for data: 580437024
I0403 15:49:04.812042 16076 layer_factory.hpp:77] Creating layer inception_3a/output_inception_3a/output_0_split
I0403 15:49:04.812060 16076 net.cpp:91] Creating Layer inception_3a/output_inception_3a/output_0_split
I0403 15:49:04.812077 16076 net.cpp:425] inception_3a/output_inception_3a/output_0_split <- inception_3a/output
I0403 15:49:04.812094 16076 net.cpp:399] inception_3a/output_inception_3a/output_0_split -> inception_3a/output_inception_3a/output_0_split_0
I0403 15:49:04.812114 16076 net.cpp:399] inception_3a/output_inception_3a/output_0_split -> inception_3a/output_inception_3a/output_0_split_1
I0403 15:49:04.812139 16076 net.cpp:399] inception_3a/output_inception_3a/output_0_split -> inception_3a/output_inception_3a/output_0_split_2
I0403 15:49:04.812160 16076 net.cpp:399] inception_3a/output_inception_3a/output_0_split -> inception_3a/output_inception_3a/output_0_split_3
I0403 15:49:04.812235 16076 net.cpp:141] Setting up inception_3a/output_inception_3a/output_0_split
I0403 15:49:04.812258 16076 net.cpp:148] Top shape: 24 256 28 28 (4816896)
I0403 15:49:04.812274 16076 net.cpp:148] Top shape: 24 256 28 28 (4816896)
I0403 15:49:04.812290 16076 net.cpp:148] Top shape: 24 256 28 28 (4816896)
I0403 15:49:04.812307 16076 net.cpp:148] Top shape: 24 256 28 28 (4816896)
I0403 15:49:04.812321 16076 net.cpp:156] Memory required for data: 657507360
I0403 15:49:04.812335 16076 layer_factory.hpp:77] Creating layer inception_3b/1x1
I0403 15:49:04.812358 16076 net.cpp:91] Creating Layer inception_3b/1x1
I0403 15:49:04.812376 16076 net.cpp:425] inception_3b/1x1 <- inception_3a/output_inception_3a/output_0_split_0
I0403 15:49:04.812394 16076 net.cpp:399] inception_3b/1x1 -> inception_3b/1x1
I0403 15:49:04.813560 16076 net.cpp:141] Setting up inception_3b/1x1
I0403 15:49:04.813604 16076 net.cpp:148] Top shape: 24 128 28 28 (2408448)
I0403 15:49:04.813623 16076 net.cpp:156] Memory required for data: 667141152
I0403 15:49:04.813642 16076 layer_factory.hpp:77] Creating layer inception_3b/relu_1x1
I0403 15:49:04.813663 16076 net.cpp:91] Creating Layer inception_3b/relu_1x1
I0403 15:49:04.813681 16076 net.cpp:425] inception_3b/relu_1x1 <- inception_3b/1x1
I0403 15:49:04.813699 16076 net.cpp:386] inception_3b/relu_1x1 -> inception_3b/1x1 (in-place)
I0403 15:49:04.813875 16076 net.cpp:141] Setting up inception_3b/relu_1x1
I0403 15:49:04.813904 16076 net.cpp:148] Top shape: 24 128 28 28 (2408448)
I0403 15:49:04.813921 16076 net.cpp:156] Memory required for data: 676774944
I0403 15:49:04.813936 16076 layer_factory.hpp:77] Creating layer inception_3b/3x3_reduce
I0403 15:49:04.813959 16076 net.cpp:91] Creating Layer inception_3b/3x3_reduce
I0403 15:49:04.813977 16076 net.cpp:425] inception_3b/3x3_reduce <- inception_3a/output_inception_3a/output_0_split_1
I0403 15:49:04.813997 16076 net.cpp:399] inception_3b/3x3_reduce -> inception_3b/3x3_reduce
I0403 15:49:04.815155 16076 net.cpp:141] Setting up inception_3b/3x3_reduce
I0403 15:49:04.815186 16076 net.cpp:148] Top shape: 24 128 28 28 (2408448)
I0403 15:49:04.815202 16076 net.cpp:156] Memory required for data: 686408736
I0403 15:49:04.815222 16076 layer_factory.hpp:77] Creating layer inception_3b/relu_3x3_reduce
I0403 15:49:04.815243 16076 net.cpp:91] Creating Layer inception_3b/relu_3x3_reduce
I0403 15:49:04.815260 16076 net.cpp:425] inception_3b/relu_3x3_reduce <- inception_3b/3x3_reduce
I0403 15:49:04.815279 16076 net.cpp:386] inception_3b/relu_3x3_reduce -> inception_3b/3x3_reduce (in-place)
I0403 15:49:04.815454 16076 net.cpp:141] Setting up inception_3b/relu_3x3_reduce
I0403 15:49:04.815482 16076 net.cpp:148] Top shape: 24 128 28 28 (2408448)
I0403 15:49:04.815500 16076 net.cpp:156] Memory required for data: 696042528
I0403 15:49:04.815516 16076 layer_factory.hpp:77] Creating layer inception_3b/3x3
I0403 15:49:04.815541 16076 net.cpp:91] Creating Layer inception_3b/3x3
I0403 15:49:04.815562 16076 net.cpp:425] inception_3b/3x3 <- inception_3b/3x3_reduce
I0403 15:49:04.815583 16076 net.cpp:399] inception_3b/3x3 -> inception_3b/3x3
I0403 15:49:04.818547 16076 net.cpp:141] Setting up inception_3b/3x3
I0403 15:49:04.818581 16076 net.cpp:148] Top shape: 24 192 28 28 (3612672)
I0403 15:49:04.818603 16076 net.cpp:156] Memory required for data: 710493216
I0403 15:49:04.818624 16076 layer_factory.hpp:77] Creating layer inception_3b/relu_3x3
I0403 15:49:04.818644 16076 net.cpp:91] Creating Layer inception_3b/relu_3x3
I0403 15:49:04.818660 16076 net.cpp:425] inception_3b/relu_3x3 <- inception_3b/3x3
I0403 15:49:04.818678 16076 net.cpp:386] inception_3b/relu_3x3 -> inception_3b/3x3 (in-place)
I0403 15:49:04.818966 16076 net.cpp:141] Setting up inception_3b/relu_3x3
I0403 15:49:04.818996 16076 net.cpp:148] Top shape: 24 192 28 28 (3612672)
I0403 15:49:04.819013 16076 net.cpp:156] Memory required for data: 724943904
I0403 15:49:04.819031 16076 layer_factory.hpp:77] Creating layer inception_3b/5x5_reduce
I0403 15:49:04.819053 16076 net.cpp:91] Creating Layer inception_3b/5x5_reduce
I0403 15:49:04.819072 16076 net.cpp:425] inception_3b/5x5_reduce <- inception_3a/output_inception_3a/output_0_split_2
I0403 15:49:04.819092 16076 net.cpp:399] inception_3b/5x5_reduce -> inception_3b/5x5_reduce
I0403 15:49:04.820096 16076 net.cpp:141] Setting up inception_3b/5x5_reduce
I0403 15:49:04.820128 16076 net.cpp:148] Top shape: 24 32 28 28 (602112)
I0403 15:49:04.820147 16076 net.cpp:156] Memory required for data: 727352352
I0403 15:49:04.820166 16076 layer_factory.hpp:77] Creating layer inception_3b/relu_5x5_reduce
I0403 15:49:04.820185 16076 net.cpp:91] Creating Layer inception_3b/relu_5x5_reduce
I0403 15:49:04.820202 16076 net.cpp:425] inception_3b/relu_5x5_reduce <- inception_3b/5x5_reduce
I0403 15:49:04.820219 16076 net.cpp:386] inception_3b/relu_5x5_reduce -> inception_3b/5x5_reduce (in-place)
I0403 15:49:04.820413 16076 net.cpp:141] Setting up inception_3b/relu_5x5_reduce
I0403 15:49:04.820442 16076 net.cpp:148] Top shape: 24 32 28 28 (602112)
I0403 15:49:04.820458 16076 net.cpp:156] Memory required for data: 729760800
I0403 15:49:04.820473 16076 layer_factory.hpp:77] Creating layer inception_3b/5x5
I0403 15:49:04.820497 16076 net.cpp:91] Creating Layer inception_3b/5x5
I0403 15:49:04.820515 16076 net.cpp:425] inception_3b/5x5 <- inception_3b/5x5_reduce
I0403 15:49:04.820538 16076 net.cpp:399] inception_3b/5x5 -> inception_3b/5x5
I0403 15:49:04.822541 16076 net.cpp:141] Setting up inception_3b/5x5
I0403 15:49:04.822571 16076 net.cpp:148] Top shape: 24 96 28 28 (1806336)
I0403 15:49:04.822587 16076 net.cpp:156] Memory required for data: 736986144
I0403 15:49:04.822610 16076 layer_factory.hpp:77] Creating layer inception_3b/relu_5x5
I0403 15:49:04.822633 16076 net.cpp:91] Creating Layer inception_3b/relu_5x5
I0403 15:49:04.822650 16076 net.cpp:425] inception_3b/relu_5x5 <- inception_3b/5x5
I0403 15:49:04.822667 16076 net.cpp:386] inception_3b/relu_5x5 -> inception_3b/5x5 (in-place)
I0403 15:49:04.822855 16076 net.cpp:141] Setting up inception_3b/relu_5x5
I0403 15:49:04.822880 16076 net.cpp:148] Top shape: 24 96 28 28 (1806336)
I0403 15:49:04.822895 16076 net.cpp:156] Memory required for data: 744211488
I0403 15:49:04.822908 16076 layer_factory.hpp:77] Creating layer inception_3b/pool
I0403 15:49:04.822926 16076 net.cpp:91] Creating Layer inception_3b/pool
I0403 15:49:04.822942 16076 net.cpp:425] inception_3b/pool <- inception_3a/output_inception_3a/output_0_split_3
I0403 15:49:04.822958 16076 net.cpp:399] inception_3b/pool -> inception_3b/pool
I0403 15:49:04.823012 16076 net.cpp:141] Setting up inception_3b/pool
I0403 15:49:04.823035 16076 net.cpp:148] Top shape: 24 256 28 28 (4816896)
I0403 15:49:04.823050 16076 net.cpp:156] Memory required for data: 763479072
I0403 15:49:04.823063 16076 layer_factory.hpp:77] Creating layer inception_3b/pool_proj
I0403 15:49:04.823084 16076 net.cpp:91] Creating Layer inception_3b/pool_proj
I0403 15:49:04.823101 16076 net.cpp:425] inception_3b/pool_proj <- inception_3b/pool
I0403 15:49:04.823122 16076 net.cpp:399] inception_3b/pool_proj -> inception_3b/pool_proj
I0403 15:49:04.824159 16076 net.cpp:141] Setting up inception_3b/pool_proj
I0403 15:49:04.824187 16076 net.cpp:148] Top shape: 24 64 28 28 (1204224)
I0403 15:49:04.824203 16076 net.cpp:156] Memory required for data: 768295968
I0403 15:49:04.824223 16076 layer_factory.hpp:77] Creating layer inception_3b/relu_pool_proj
I0403 15:49:04.824240 16076 net.cpp:91] Creating Layer inception_3b/relu_pool_proj
I0403 15:49:04.824256 16076 net.cpp:425] inception_3b/relu_pool_proj <- inception_3b/pool_proj
I0403 15:49:04.824275 16076 net.cpp:386] inception_3b/relu_pool_proj -> inception_3b/pool_proj (in-place)
I0403 15:49:04.824677 16076 net.cpp:141] Setting up inception_3b/relu_pool_proj
I0403 15:49:04.824705 16076 net.cpp:148] Top shape: 24 64 28 28 (1204224)
I0403 15:49:04.824722 16076 net.cpp:156] Memory required for data: 773112864
I0403 15:49:04.824735 16076 layer_factory.hpp:77] Creating layer inception_3b/output
I0403 15:49:04.824753 16076 net.cpp:91] Creating Layer inception_3b/output
I0403 15:49:04.824767 16076 net.cpp:425] inception_3b/output <- inception_3b/1x1
I0403 15:49:04.824784 16076 net.cpp:425] inception_3b/output <- inception_3b/3x3
I0403 15:49:04.824800 16076 net.cpp:425] inception_3b/output <- inception_3b/5x5
I0403 15:49:04.824815 16076 net.cpp:425] inception_3b/output <- inception_3b/pool_proj
I0403 15:49:04.824834 16076 net.cpp:399] inception_3b/output -> inception_3b/output
I0403 15:49:04.824878 16076 net.cpp:141] Setting up inception_3b/output
I0403 15:49:04.824900 16076 net.cpp:148] Top shape: 24 480 28 28 (9031680)
I0403 15:49:04.824918 16076 net.cpp:156] Memory required for data: 809239584
I0403 15:49:04.824933 16076 layer_factory.hpp:77] Creating layer pool3/3x3_s2
I0403 15:49:04.824949 16076 net.cpp:91] Creating Layer pool3/3x3_s2
I0403 15:49:04.824965 16076 net.cpp:425] pool3/3x3_s2 <- inception_3b/output
I0403 15:49:04.824997 16076 net.cpp:399] pool3/3x3_s2 -> pool3/3x3_s2
I0403 15:49:04.825057 16076 net.cpp:141] Setting up pool3/3x3_s2
I0403 15:49:04.825079 16076 net.cpp:148] Top shape: 24 480 14 14 (2257920)
I0403 15:49:04.825094 16076 net.cpp:156] Memory required for data: 818271264
I0403 15:49:04.825108 16076 layer_factory.hpp:77] Creating layer pool3/3x3_s2_pool3/3x3_s2_0_split
I0403 15:49:04.825124 16076 net.cpp:91] Creating Layer pool3/3x3_s2_pool3/3x3_s2_0_split
I0403 15:49:04.825139 16076 net.cpp:425] pool3/3x3_s2_pool3/3x3_s2_0_split <- pool3/3x3_s2
I0403 15:49:04.825156 16076 net.cpp:399] pool3/3x3_s2_pool3/3x3_s2_0_split -> pool3/3x3_s2_pool3/3x3_s2_0_split_0
I0403 15:49:04.825176 16076 net.cpp:399] pool3/3x3_s2_pool3/3x3_s2_0_split -> pool3/3x3_s2_pool3/3x3_s2_0_split_1
I0403 15:49:04.825196 16076 net.cpp:399] pool3/3x3_s2_pool3/3x3_s2_0_split -> pool3/3x3_s2_pool3/3x3_s2_0_split_2
I0403 15:49:04.825215 16076 net.cpp:399] pool3/3x3_s2_pool3/3x3_s2_0_split -> pool3/3x3_s2_pool3/3x3_s2_0_split_3
I0403 15:49:04.825292 16076 net.cpp:141] Setting up pool3/3x3_s2_pool3/3x3_s2_0_split
I0403 15:49:04.825315 16076 net.cpp:148] Top shape: 24 480 14 14 (2257920)
I0403 15:49:04.825330 16076 net.cpp:148] Top shape: 24 480 14 14 (2257920)
I0403 15:49:04.825345 16076 net.cpp:148] Top shape: 24 480 14 14 (2257920)
I0403 15:49:04.825361 16076 net.cpp:148] Top shape: 24 480 14 14 (2257920)
I0403 15:49:04.825374 16076 net.cpp:156] Memory required for data: 854397984
I0403 15:49:04.825388 16076 layer_factory.hpp:77] Creating layer inception_4a/1x1
I0403 15:49:04.825410 16076 net.cpp:91] Creating Layer inception_4a/1x1
I0403 15:49:04.825428 16076 net.cpp:425] inception_4a/1x1 <- pool3/3x3_s2_pool3/3x3_s2_0_split_0
I0403 15:49:04.825448 16076 net.cpp:399] inception_4a/1x1 -> inception_4a/1x1
I0403 15:49:04.827018 16076 net.cpp:141] Setting up inception_4a/1x1
I0403 15:49:04.827047 16076 net.cpp:148] Top shape: 24 192 14 14 (903168)
I0403 15:49:04.827064 16076 net.cpp:156] Memory required for data: 858010656
I0403 15:49:04.827081 16076 layer_factory.hpp:77] Creating layer inception_4a/relu_1x1
I0403 15:49:04.827101 16076 net.cpp:91] Creating Layer inception_4a/relu_1x1
I0403 15:49:04.827118 16076 net.cpp:425] inception_4a/relu_1x1 <- inception_4a/1x1
I0403 15:49:04.827136 16076 net.cpp:386] inception_4a/relu_1x1 -> inception_4a/1x1 (in-place)
I0403 15:49:04.827308 16076 net.cpp:141] Setting up inception_4a/relu_1x1
I0403 15:49:04.827334 16076 net.cpp:148] Top shape: 24 192 14 14 (903168)
I0403 15:49:04.827348 16076 net.cpp:156] Memory required for data: 861623328
I0403 15:49:04.827363 16076 layer_factory.hpp:77] Creating layer inception_4a/3x3_reduce
I0403 15:49:04.827384 16076 net.cpp:91] Creating Layer inception_4a/3x3_reduce
I0403 15:49:04.827404 16076 net.cpp:425] inception_4a/3x3_reduce <- pool3/3x3_s2_pool3/3x3_s2_0_split_1
I0403 15:49:04.827422 16076 net.cpp:399] inception_4a/3x3_reduce -> inception_4a/3x3_reduce
I0403 15:49:04.828685 16076 net.cpp:141] Setting up inception_4a/3x3_reduce
I0403 15:49:04.828713 16076 net.cpp:148] Top shape: 24 96 14 14 (451584)
I0403 15:49:04.828729 16076 net.cpp:156] Memory required for data: 863429664
I0403 15:49:04.828755 16076 layer_factory.hpp:77] Creating layer inception_4a/relu_3x3_reduce
I0403 15:49:04.828776 16076 net.cpp:91] Creating Layer inception_4a/relu_3x3_reduce
I0403 15:49:04.828794 16076 net.cpp:425] inception_4a/relu_3x3_reduce <- inception_4a/3x3_reduce
I0403 15:49:04.828814 16076 net.cpp:386] inception_4a/relu_3x3_reduce -> inception_4a/3x3_reduce (in-place)
I0403 15:49:04.828992 16076 net.cpp:141] Setting up inception_4a/relu_3x3_reduce
I0403 15:49:04.829017 16076 net.cpp:148] Top shape: 24 96 14 14 (451584)
I0403 15:49:04.829032 16076 net.cpp:156] Memory required for data: 865236000
I0403 15:49:04.829047 16076 layer_factory.hpp:77] Creating layer inception_4a/3x3
I0403 15:49:04.829069 16076 net.cpp:91] Creating Layer inception_4a/3x3
I0403 15:49:04.829087 16076 net.cpp:425] inception_4a/3x3 <- inception_4a/3x3_reduce
I0403 15:49:04.829108 16076 net.cpp:399] inception_4a/3x3 -> inception_4a/3x3
I0403 15:49:04.831823 16076 net.cpp:141] Setting up inception_4a/3x3
I0403 15:49:04.831852 16076 net.cpp:148] Top shape: 24 208 14 14 (978432)
I0403 15:49:04.831868 16076 net.cpp:156] Memory required for data: 869149728
I0403 15:49:04.831887 16076 layer_factory.hpp:77] Creating layer inception_4a/relu_3x3
I0403 15:49:04.831907 16076 net.cpp:91] Creating Layer inception_4a/relu_3x3
I0403 15:49:04.831924 16076 net.cpp:425] inception_4a/relu_3x3 <- inception_4a/3x3
I0403 15:49:04.831941 16076 net.cpp:386] inception_4a/relu_3x3 -> inception_4a/3x3 (in-place)
I0403 15:49:04.832231 16076 net.cpp:141] Setting up inception_4a/relu_3x3
I0403 15:49:04.832257 16076 net.cpp:148] Top shape: 24 208 14 14 (978432)
I0403 15:49:04.832272 16076 net.cpp:156] Memory required for data: 873063456
I0403 15:49:04.832285 16076 layer_factory.hpp:77] Creating layer inception_4a/5x5_reduce
I0403 15:49:04.832307 16076 net.cpp:91] Creating Layer inception_4a/5x5_reduce
I0403 15:49:04.832324 16076 net.cpp:425] inception_4a/5x5_reduce <- pool3/3x3_s2_pool3/3x3_s2_0_split_2
I0403 15:49:04.832345 16076 net.cpp:399] inception_4a/5x5_reduce -> inception_4a/5x5_reduce
I0403 15:49:04.833364 16076 net.cpp:141] Setting up inception_4a/5x5_reduce
I0403 15:49:04.833394 16076 net.cpp:148] Top shape: 24 16 14 14 (75264)
I0403 15:49:04.833413 16076 net.cpp:156] Memory required for data: 873364512
I0403 15:49:04.833432 16076 layer_factory.hpp:77] Creating layer inception_4a/relu_5x5_reduce
I0403 15:49:04.833451 16076 net.cpp:91] Creating Layer inception_4a/relu_5x5_reduce
I0403 15:49:04.833468 16076 net.cpp:425] inception_4a/relu_5x5_reduce <- inception_4a/5x5_reduce
I0403 15:49:04.833485 16076 net.cpp:386] inception_4a/relu_5x5_reduce -> inception_4a/5x5_reduce (in-place)
I0403 15:49:04.833676 16076 net.cpp:141] Setting up inception_4a/relu_5x5_reduce
I0403 15:49:04.833704 16076 net.cpp:148] Top shape: 24 16 14 14 (75264)
I0403 15:49:04.833719 16076 net.cpp:156] Memory required for data: 873665568
I0403 15:49:04.833734 16076 layer_factory.hpp:77] Creating layer inception_4a/5x5
I0403 15:49:04.833755 16076 net.cpp:91] Creating Layer inception_4a/5x5
I0403 15:49:04.833771 16076 net.cpp:425] inception_4a/5x5 <- inception_4a/5x5_reduce
I0403 15:49:04.833789 16076 net.cpp:399] inception_4a/5x5 -> inception_4a/5x5
I0403 15:49:04.834893 16076 net.cpp:141] Setting up inception_4a/5x5
I0403 15:49:04.834923 16076 net.cpp:148] Top shape: 24 48 14 14 (225792)
I0403 15:49:04.834939 16076 net.cpp:156] Memory required for data: 874568736
I0403 15:49:04.834956 16076 layer_factory.hpp:77] Creating layer inception_4a/relu_5x5
I0403 15:49:04.834975 16076 net.cpp:91] Creating Layer inception_4a/relu_5x5
I0403 15:49:04.834990 16076 net.cpp:425] inception_4a/relu_5x5 <- inception_4a/5x5
I0403 15:49:04.835011 16076 net.cpp:386] inception_4a/relu_5x5 -> inception_4a/5x5 (in-place)
I0403 15:49:04.835191 16076 net.cpp:141] Setting up inception_4a/relu_5x5
I0403 15:49:04.835217 16076 net.cpp:148] Top shape: 24 48 14 14 (225792)
I0403 15:49:04.835232 16076 net.cpp:156] Memory required for data: 875471904
I0403 15:49:04.835247 16076 layer_factory.hpp:77] Creating layer inception_4a/pool
I0403 15:49:04.835268 16076 net.cpp:91] Creating Layer inception_4a/pool
I0403 15:49:04.835283 16076 net.cpp:425] inception_4a/pool <- pool3/3x3_s2_pool3/3x3_s2_0_split_3
I0403 15:49:04.835300 16076 net.cpp:399] inception_4a/pool -> inception_4a/pool
I0403 15:49:04.835361 16076 net.cpp:141] Setting up inception_4a/pool
I0403 15:49:04.835386 16076 net.cpp:148] Top shape: 24 480 14 14 (2257920)
I0403 15:49:04.835399 16076 net.cpp:156] Memory required for data: 884503584
I0403 15:49:04.835413 16076 layer_factory.hpp:77] Creating layer inception_4a/pool_proj
I0403 15:49:04.835434 16076 net.cpp:91] Creating Layer inception_4a/pool_proj
I0403 15:49:04.835451 16076 net.cpp:425] inception_4a/pool_proj <- inception_4a/pool
I0403 15:49:04.835472 16076 net.cpp:399] inception_4a/pool_proj -> inception_4a/pool_proj
I0403 15:49:04.836647 16076 net.cpp:141] Setting up inception_4a/pool_proj
I0403 15:49:04.836675 16076 net.cpp:148] Top shape: 24 64 14 14 (301056)
I0403 15:49:04.836709 16076 net.cpp:156] Memory required for data: 885707808
I0403 15:49:04.836727 16076 layer_factory.hpp:77] Creating layer inception_4a/relu_pool_proj
I0403 15:49:04.836746 16076 net.cpp:91] Creating Layer inception_4a/relu_pool_proj
I0403 15:49:04.836763 16076 net.cpp:425] inception_4a/relu_pool_proj <- inception_4a/pool_proj
I0403 15:49:04.836784 16076 net.cpp:386] inception_4a/relu_pool_proj -> inception_4a/pool_proj (in-place)
I0403 15:49:04.837069 16076 net.cpp:141] Setting up inception_4a/relu_pool_proj
I0403 15:49:04.837095 16076 net.cpp:148] Top shape: 24 64 14 14 (301056)
I0403 15:49:04.837110 16076 net.cpp:156] Memory required for data: 886912032
I0403 15:49:04.837122 16076 layer_factory.hpp:77] Creating layer inception_4a/output
I0403 15:49:04.837139 16076 net.cpp:91] Creating Layer inception_4a/output
I0403 15:49:04.837154 16076 net.cpp:425] inception_4a/output <- inception_4a/1x1
I0403 15:49:04.837172 16076 net.cpp:425] inception_4a/output <- inception_4a/3x3
I0403 15:49:04.837187 16076 net.cpp:425] inception_4a/output <- inception_4a/5x5
I0403 15:49:04.837201 16076 net.cpp:425] inception_4a/output <- inception_4a/pool_proj
I0403 15:49:04.837220 16076 net.cpp:399] inception_4a/output -> inception_4a/output
I0403 15:49:04.837272 16076 net.cpp:141] Setting up inception_4a/output
I0403 15:49:04.837297 16076 net.cpp:148] Top shape: 24 512 14 14 (2408448)
I0403 15:49:04.837312 16076 net.cpp:156] Memory required for data: 896545824
I0403 15:49:04.837327 16076 layer_factory.hpp:77] Creating layer inception_4a/output_inception_4a/output_0_split
I0403 15:49:04.837343 16076 net.cpp:91] Creating Layer inception_4a/output_inception_4a/output_0_split
I0403 15:49:04.837357 16076 net.cpp:425] inception_4a/output_inception_4a/output_0_split <- inception_4a/output
I0403 15:49:04.837378 16076 net.cpp:399] inception_4a/output_inception_4a/output_0_split -> inception_4a/output_inception_4a/output_0_split_0
I0403 15:49:04.837399 16076 net.cpp:399] inception_4a/output_inception_4a/output_0_split -> inception_4a/output_inception_4a/output_0_split_1
I0403 15:49:04.837419 16076 net.cpp:399] inception_4a/output_inception_4a/output_0_split -> inception_4a/output_inception_4a/output_0_split_2
I0403 15:49:04.837440 16076 net.cpp:399] inception_4a/output_inception_4a/output_0_split -> inception_4a/output_inception_4a/output_0_split_3
I0403 15:49:04.837458 16076 net.cpp:399] inception_4a/output_inception_4a/output_0_split -> inception_4a/output_inception_4a/output_0_split_4
I0403 15:49:04.837549 16076 net.cpp:141] Setting up inception_4a/output_inception_4a/output_0_split
I0403 15:49:04.837579 16076 net.cpp:148] Top shape: 24 512 14 14 (2408448)
I0403 15:49:04.837596 16076 net.cpp:148] Top shape: 24 512 14 14 (2408448)
I0403 15:49:04.837616 16076 net.cpp:148] Top shape: 24 512 14 14 (2408448)
I0403 15:49:04.837631 16076 net.cpp:148] Top shape: 24 512 14 14 (2408448)
I0403 15:49:04.837646 16076 net.cpp:148] Top shape: 24 512 14 14 (2408448)
I0403 15:49:04.837659 16076 net.cpp:156] Memory required for data: 944714784
I0403 15:49:04.837672 16076 layer_factory.hpp:77] Creating layer loss1/ave_pool
I0403 15:49:04.837689 16076 net.cpp:91] Creating Layer loss1/ave_pool
I0403 15:49:04.837704 16076 net.cpp:425] loss1/ave_pool <- inception_4a/output_inception_4a/output_0_split_0
I0403 15:49:04.837721 16076 net.cpp:399] loss1/ave_pool -> loss1/ave_pool
I0403 15:49:04.837929 16076 net.cpp:141] Setting up loss1/ave_pool
I0403 15:49:04.837954 16076 net.cpp:148] Top shape: 24 512 4 4 (196608)
I0403 15:49:04.837967 16076 net.cpp:156] Memory required for data: 945501216
I0403 15:49:04.837980 16076 layer_factory.hpp:77] Creating layer loss1/conv
I0403 15:49:04.838002 16076 net.cpp:91] Creating Layer loss1/conv
I0403 15:49:04.838019 16076 net.cpp:425] loss1/conv <- loss1/ave_pool
I0403 15:49:04.838040 16076 net.cpp:399] loss1/conv -> loss1/conv
I0403 15:49:04.839488 16076 net.cpp:141] Setting up loss1/conv
I0403 15:49:04.839517 16076 net.cpp:148] Top shape: 24 128 4 4 (49152)
I0403 15:49:04.839548 16076 net.cpp:156] Memory required for data: 945697824
I0403 15:49:04.839568 16076 layer_factory.hpp:77] Creating layer loss1/relu_conv
I0403 15:49:04.839591 16076 net.cpp:91] Creating Layer loss1/relu_conv
I0403 15:49:04.839615 16076 net.cpp:425] loss1/relu_conv <- loss1/conv
I0403 15:49:04.839633 16076 net.cpp:386] loss1/relu_conv -> loss1/conv (in-place)
I0403 15:49:04.839923 16076 net.cpp:141] Setting up loss1/relu_conv
I0403 15:49:04.839949 16076 net.cpp:148] Top shape: 24 128 4 4 (49152)
I0403 15:49:04.839963 16076 net.cpp:156] Memory required for data: 945894432
I0403 15:49:04.839977 16076 layer_factory.hpp:77] Creating layer loss1/fc
I0403 15:49:04.840003 16076 net.cpp:91] Creating Layer loss1/fc
I0403 15:49:04.840020 16076 net.cpp:425] loss1/fc <- loss1/conv
I0403 15:49:04.840039 16076 net.cpp:399] loss1/fc -> loss1/fc
I0403 15:49:04.857739 16076 net.cpp:141] Setting up loss1/fc
I0403 15:49:04.857774 16076 net.cpp:148] Top shape: 24 1024 (24576)
I0403 15:49:04.857790 16076 net.cpp:156] Memory required for data: 945992736
I0403 15:49:04.857810 16076 layer_factory.hpp:77] Creating layer loss1/relu_fc
I0403 15:49:04.857827 16076 net.cpp:91] Creating Layer loss1/relu_fc
I0403 15:49:04.857844 16076 net.cpp:425] loss1/relu_fc <- loss1/fc
I0403 15:49:04.857864 16076 net.cpp:386] loss1/relu_fc -> loss1/fc (in-place)
I0403 15:49:04.858052 16076 net.cpp:141] Setting up loss1/relu_fc
I0403 15:49:04.858078 16076 net.cpp:148] Top shape: 24 1024 (24576)
I0403 15:49:04.858091 16076 net.cpp:156] Memory required for data: 946091040
I0403 15:49:04.858105 16076 layer_factory.hpp:77] Creating layer loss1/drop_fc
I0403 15:49:04.858134 16076 net.cpp:91] Creating Layer loss1/drop_fc
I0403 15:49:04.858150 16076 net.cpp:425] loss1/drop_fc <- loss1/fc
I0403 15:49:04.858167 16076 net.cpp:386] loss1/drop_fc -> loss1/fc (in-place)
I0403 15:49:04.858217 16076 net.cpp:141] Setting up loss1/drop_fc
I0403 15:49:04.858242 16076 net.cpp:148] Top shape: 24 1024 (24576)
I0403 15:49:04.858258 16076 net.cpp:156] Memory required for data: 946189344
I0403 15:49:04.858281 16076 layer_factory.hpp:77] Creating layer loss1/classifier_plantvillage
I0403 15:49:04.858299 16076 net.cpp:91] Creating Layer loss1/classifier_plantvillage
I0403 15:49:04.858315 16076 net.cpp:425] loss1/classifier_plantvillage <- loss1/fc
I0403 15:49:04.858335 16076 net.cpp:399] loss1/classifier_plantvillage -> loss1/classifier_plantvillage
I0403 15:49:04.859249 16076 net.cpp:141] Setting up loss1/classifier_plantvillage
I0403 15:49:04.859277 16076 net.cpp:148] Top shape: 24 38 (912)
I0403 15:49:04.859292 16076 net.cpp:156] Memory required for data: 946192992
I0403 15:49:04.859310 16076 layer_factory.hpp:77] Creating layer loss1/classifier_plantvillage_loss1/classifier_plantvillage_0_split
I0403 15:49:04.859330 16076 net.cpp:91] Creating Layer loss1/classifier_plantvillage_loss1/classifier_plantvillage_0_split
I0403 15:49:04.859346 16076 net.cpp:425] loss1/classifier_plantvillage_loss1/classifier_plantvillage_0_split <- loss1/classifier_plantvillage
I0403 15:49:04.859364 16076 net.cpp:399] loss1/classifier_plantvillage_loss1/classifier_plantvillage_0_split -> loss1/classifier_plantvillage_loss1/classifier_plantvillage_0_split_0
I0403 15:49:04.859383 16076 net.cpp:399] loss1/classifier_plantvillage_loss1/classifier_plantvillage_0_split -> loss1/classifier_plantvillage_loss1/classifier_plantvillage_0_split_1
I0403 15:49:04.859402 16076 net.cpp:399] loss1/classifier_plantvillage_loss1/classifier_plantvillage_0_split -> loss1/classifier_plantvillage_loss1/classifier_plantvillage_0_split_2
I0403 15:49:04.859470 16076 net.cpp:141] Setting up loss1/classifier_plantvillage_loss1/classifier_plantvillage_0_split
I0403 15:49:04.859493 16076 net.cpp:148] Top shape: 24 38 (912)
I0403 15:49:04.859508 16076 net.cpp:148] Top shape: 24 38 (912)
I0403 15:49:04.859522 16076 net.cpp:148] Top shape: 24 38 (912)
I0403 15:49:04.859535 16076 net.cpp:156] Memory required for data: 946203936
I0403 15:49:04.859549 16076 layer_factory.hpp:77] Creating layer inception_4b/1x1
I0403 15:49:04.859568 16076 net.cpp:91] Creating Layer inception_4b/1x1
I0403 15:49:04.859606 16076 net.cpp:425] inception_4b/1x1 <- inception_4a/output_inception_4a/output_0_split_1
I0403 15:49:04.859629 16076 net.cpp:399] inception_4b/1x1 -> inception_4b/1x1
I0403 15:49:04.861296 16076 net.cpp:141] Setting up inception_4b/1x1
I0403 15:49:04.861326 16076 net.cpp:148] Top shape: 24 160 14 14 (752640)
I0403 15:49:04.861342 16076 net.cpp:156] Memory required for data: 949214496
I0403 15:49:04.861362 16076 layer_factory.hpp:77] Creating layer inception_4b/relu_1x1
I0403 15:49:04.861384 16076 net.cpp:91] Creating Layer inception_4b/relu_1x1
I0403 15:49:04.861402 16076 net.cpp:425] inception_4b/relu_1x1 <- inception_4b/1x1
I0403 15:49:04.861418 16076 net.cpp:386] inception_4b/relu_1x1 -> inception_4b/1x1 (in-place)
I0403 15:49:04.861619 16076 net.cpp:141] Setting up inception_4b/relu_1x1
I0403 15:49:04.861646 16076 net.cpp:148] Top shape: 24 160 14 14 (752640)
I0403 15:49:04.861661 16076 net.cpp:156] Memory required for data: 952225056
I0403 15:49:04.861676 16076 layer_factory.hpp:77] Creating layer inception_4b/3x3_reduce
I0403 15:49:04.861697 16076 net.cpp:91] Creating Layer inception_4b/3x3_reduce
I0403 15:49:04.861716 16076 net.cpp:425] inception_4b/3x3_reduce <- inception_4a/output_inception_4a/output_0_split_2
I0403 15:49:04.861733 16076 net.cpp:399] inception_4b/3x3_reduce -> inception_4b/3x3_reduce
I0403 15:49:04.863133 16076 net.cpp:141] Setting up inception_4b/3x3_reduce
I0403 15:49:04.863163 16076 net.cpp:148] Top shape: 24 112 14 14 (526848)
I0403 15:49:04.863179 16076 net.cpp:156] Memory required for data: 954332448
I0403 15:49:04.863198 16076 layer_factory.hpp:77] Creating layer inception_4b/relu_3x3_reduce
I0403 15:49:04.863215 16076 net.cpp:91] Creating Layer inception_4b/relu_3x3_reduce
I0403 15:49:04.863231 16076 net.cpp:425] inception_4b/relu_3x3_reduce <- inception_4b/3x3_reduce
I0403 15:49:04.863250 16076 net.cpp:386] inception_4b/relu_3x3_reduce -> inception_4b/3x3_reduce (in-place)
I0403 15:49:04.863540 16076 net.cpp:141] Setting up inception_4b/relu_3x3_reduce
I0403 15:49:04.863569 16076 net.cpp:148] Top shape: 24 112 14 14 (526848)
I0403 15:49:04.863584 16076 net.cpp:156] Memory required for data: 956439840
I0403 15:49:04.863597 16076 layer_factory.hpp:77] Creating layer inception_4b/3x3
I0403 15:49:04.863625 16076 net.cpp:91] Creating Layer inception_4b/3x3
I0403 15:49:04.863642 16076 net.cpp:425] inception_4b/3x3 <- inception_4b/3x3_reduce
I0403 15:49:04.863661 16076 net.cpp:399] inception_4b/3x3 -> inception_4b/3x3
I0403 15:49:04.866669 16076 net.cpp:141] Setting up inception_4b/3x3
I0403 15:49:04.866699 16076 net.cpp:148] Top shape: 24 224 14 14 (1053696)
I0403 15:49:04.866714 16076 net.cpp:156] Memory required for data: 960654624
I0403 15:49:04.866731 16076 layer_factory.hpp:77] Creating layer inception_4b/relu_3x3
I0403 15:49:04.866753 16076 net.cpp:91] Creating Layer inception_4b/relu_3x3
I0403 15:49:04.866770 16076 net.cpp:425] inception_4b/relu_3x3 <- inception_4b/3x3
I0403 15:49:04.866786 16076 net.cpp:386] inception_4b/relu_3x3 -> inception_4b/3x3 (in-place)
I0403 15:49:04.866973 16076 net.cpp:141] Setting up inception_4b/relu_3x3
I0403 15:49:04.866998 16076 net.cpp:148] Top shape: 24 224 14 14 (1053696)
I0403 15:49:04.867012 16076 net.cpp:156] Memory required for data: 964869408
I0403 15:49:04.867027 16076 layer_factory.hpp:77] Creating layer inception_4b/5x5_reduce
I0403 15:49:04.867050 16076 net.cpp:91] Creating Layer inception_4b/5x5_reduce
I0403 15:49:04.867072 16076 net.cpp:425] inception_4b/5x5_reduce <- inception_4a/output_inception_4a/output_0_split_3
I0403 15:49:04.867097 16076 net.cpp:399] inception_4b/5x5_reduce -> inception_4b/5x5_reduce
I0403 15:49:04.868219 16076 net.cpp:141] Setting up inception_4b/5x5_reduce
I0403 15:49:04.868248 16076 net.cpp:148] Top shape: 24 24 14 14 (112896)
I0403 15:49:04.868265 16076 net.cpp:156] Memory required for data: 965320992
I0403 15:49:04.868285 16076 layer_factory.hpp:77] Creating layer inception_4b/relu_5x5_reduce
I0403 15:49:04.868314 16076 net.cpp:91] Creating Layer inception_4b/relu_5x5_reduce
I0403 15:49:04.868346 16076 net.cpp:425] inception_4b/relu_5x5_reduce <- inception_4b/5x5_reduce
I0403 15:49:04.868365 16076 net.cpp:386] inception_4b/relu_5x5_reduce -> inception_4b/5x5_reduce (in-place)
I0403 15:49:04.868556 16076 net.cpp:141] Setting up inception_4b/relu_5x5_reduce
I0403 15:49:04.868580 16076 net.cpp:148] Top shape: 24 24 14 14 (112896)
I0403 15:49:04.868607 16076 net.cpp:156] Memory required for data: 965772576
I0403 15:49:04.868623 16076 layer_factory.hpp:77] Creating layer inception_4b/5x5
I0403 15:49:04.868646 16076 net.cpp:91] Creating Layer inception_4b/5x5
I0403 15:49:04.868664 16076 net.cpp:425] inception_4b/5x5 <- inception_4b/5x5_reduce
I0403 15:49:04.868686 16076 net.cpp:399] inception_4b/5x5 -> inception_4b/5x5
I0403 15:49:04.869946 16076 net.cpp:141] Setting up inception_4b/5x5
I0403 15:49:04.869976 16076 net.cpp:148] Top shape: 24 64 14 14 (301056)
I0403 15:49:04.869993 16076 net.cpp:156] Memory required for data: 966976800
I0403 15:49:04.870013 16076 layer_factory.hpp:77] Creating layer inception_4b/relu_5x5
I0403 15:49:04.870034 16076 net.cpp:91] Creating Layer inception_4b/relu_5x5
I0403 15:49:04.870051 16076 net.cpp:425] inception_4b/relu_5x5 <- inception_4b/5x5
I0403 15:49:04.870069 16076 net.cpp:386] inception_4b/relu_5x5 -> inception_4b/5x5 (in-place)
I0403 15:49:04.870362 16076 net.cpp:141] Setting up inception_4b/relu_5x5
I0403 15:49:04.870389 16076 net.cpp:148] Top shape: 24 64 14 14 (301056)
I0403 15:49:04.870405 16076 net.cpp:156] Memory required for data: 968181024
I0403 15:49:04.870421 16076 layer_factory.hpp:77] Creating layer inception_4b/pool
I0403 15:49:04.870441 16076 net.cpp:91] Creating Layer inception_4b/pool
I0403 15:49:04.870460 16076 net.cpp:425] inception_4b/pool <- inception_4a/output_inception_4a/output_0_split_4
I0403 15:49:04.870478 16076 net.cpp:399] inception_4b/pool -> inception_4b/pool
I0403 15:49:04.870545 16076 net.cpp:141] Setting up inception_4b/pool
I0403 15:49:04.870569 16076 net.cpp:148] Top shape: 24 512 14 14 (2408448)
I0403 15:49:04.870584 16076 net.cpp:156] Memory required for data: 977814816
I0403 15:49:04.870601 16076 layer_factory.hpp:77] Creating layer inception_4b/pool_proj
I0403 15:49:04.870626 16076 net.cpp:91] Creating Layer inception_4b/pool_proj
I0403 15:49:04.870645 16076 net.cpp:425] inception_4b/pool_proj <- inception_4b/pool
I0403 15:49:04.870664 16076 net.cpp:399] inception_4b/pool_proj -> inception_4b/pool_proj
I0403 15:49:04.871902 16076 net.cpp:141] Setting up inception_4b/pool_proj
I0403 15:49:04.871935 16076 net.cpp:148] Top shape: 24 64 14 14 (301056)
I0403 15:49:04.871953 16076 net.cpp:156] Memory required for data: 979019040
I0403 15:49:04.871973 16076 layer_factory.hpp:77] Creating layer inception_4b/relu_pool_proj
I0403 15:49:04.871991 16076 net.cpp:91] Creating Layer inception_4b/relu_pool_proj
I0403 15:49:04.872007 16076 net.cpp:425] inception_4b/relu_pool_proj <- inception_4b/pool_proj
I0403 15:49:04.872025 16076 net.cpp:386] inception_4b/relu_pool_proj -> inception_4b/pool_proj (in-place)
I0403 15:49:04.872215 16076 net.cpp:141] Setting up inception_4b/relu_pool_proj
I0403 15:49:04.872241 16076 net.cpp:148] Top shape: 24 64 14 14 (301056)
I0403 15:49:04.872257 16076 net.cpp:156] Memory required for data: 980223264
I0403 15:49:04.872272 16076 layer_factory.hpp:77] Creating layer inception_4b/output
I0403 15:49:04.872290 16076 net.cpp:91] Creating Layer inception_4b/output
I0403 15:49:04.872308 16076 net.cpp:425] inception_4b/output <- inception_4b/1x1
I0403 15:49:04.872328 16076 net.cpp:425] inception_4b/output <- inception_4b/3x3
I0403 15:49:04.872344 16076 net.cpp:425] inception_4b/output <- inception_4b/5x5
I0403 15:49:04.872359 16076 net.cpp:425] inception_4b/output <- inception_4b/pool_proj
I0403 15:49:04.872380 16076 net.cpp:399] inception_4b/output -> inception_4b/output
I0403 15:49:04.872428 16076 net.cpp:141] Setting up inception_4b/output
I0403 15:49:04.872452 16076 net.cpp:148] Top shape: 24 512 14 14 (2408448)
I0403 15:49:04.872468 16076 net.cpp:156] Memory required for data: 989857056
I0403 15:49:04.872499 16076 layer_factory.hpp:77] Creating layer inception_4b/output_inception_4b/output_0_split
I0403 15:49:04.872520 16076 net.cpp:91] Creating Layer inception_4b/output_inception_4b/output_0_split
I0403 15:49:04.872539 16076 net.cpp:425] inception_4b/output_inception_4b/output_0_split <- inception_4b/output
I0403 15:49:04.872556 16076 net.cpp:399] inception_4b/output_inception_4b/output_0_split -> inception_4b/output_inception_4b/output_0_split_0
I0403 15:49:04.872581 16076 net.cpp:399] inception_4b/output_inception_4b/output_0_split -> inception_4b/output_inception_4b/output_0_split_1
I0403 15:49:04.872607 16076 net.cpp:399] inception_4b/output_inception_4b/output_0_split -> inception_4b/output_inception_4b/output_0_split_2
I0403 15:49:04.872629 16076 net.cpp:399] inception_4b/output_inception_4b/output_0_split -> inception_4b/output_inception_4b/output_0_split_3
I0403 15:49:04.872715 16076 net.cpp:141] Setting up inception_4b/output_inception_4b/output_0_split
I0403 15:49:04.872740 16076 net.cpp:148] Top shape: 24 512 14 14 (2408448)
I0403 15:49:04.872756 16076 net.cpp:148] Top shape: 24 512 14 14 (2408448)
I0403 15:49:04.872771 16076 net.cpp:148] Top shape: 24 512 14 14 (2408448)
I0403 15:49:04.872786 16076 net.cpp:148] Top shape: 24 512 14 14 (2408448)
I0403 15:49:04.872799 16076 net.cpp:156] Memory required for data: 1028392224
I0403 15:49:04.872813 16076 layer_factory.hpp:77] Creating layer inception_4c/1x1
I0403 15:49:04.872838 16076 net.cpp:91] Creating Layer inception_4c/1x1
I0403 15:49:04.872854 16076 net.cpp:425] inception_4c/1x1 <- inception_4b/output_inception_4b/output_0_split_0
I0403 15:49:04.872876 16076 net.cpp:399] inception_4c/1x1 -> inception_4c/1x1
I0403 15:49:04.874348 16076 net.cpp:141] Setting up inception_4c/1x1
I0403 15:49:04.874377 16076 net.cpp:148] Top shape: 24 128 14 14 (602112)
I0403 15:49:04.874394 16076 net.cpp:156] Memory required for data: 1030800672
I0403 15:49:04.874413 16076 layer_factory.hpp:77] Creating layer inception_4c/relu_1x1
I0403 15:49:04.874433 16076 net.cpp:91] Creating Layer inception_4c/relu_1x1
I0403 15:49:04.874454 16076 net.cpp:425] inception_4c/relu_1x1 <- inception_4c/1x1
I0403 15:49:04.874471 16076 net.cpp:386] inception_4c/relu_1x1 -> inception_4c/1x1 (in-place)
I0403 15:49:04.874670 16076 net.cpp:141] Setting up inception_4c/relu_1x1
I0403 15:49:04.874696 16076 net.cpp:148] Top shape: 24 128 14 14 (602112)
I0403 15:49:04.874711 16076 net.cpp:156] Memory required for data: 1033209120
I0403 15:49:04.874724 16076 layer_factory.hpp:77] Creating layer inception_4c/3x3_reduce
I0403 15:49:04.874747 16076 net.cpp:91] Creating Layer inception_4c/3x3_reduce
I0403 15:49:04.874764 16076 net.cpp:425] inception_4c/3x3_reduce <- inception_4b/output_inception_4b/output_0_split_1
I0403 15:49:04.874785 16076 net.cpp:399] inception_4c/3x3_reduce -> inception_4c/3x3_reduce
I0403 15:49:04.881629 16076 net.cpp:141] Setting up inception_4c/3x3_reduce
I0403 15:49:04.881660 16076 net.cpp:148] Top shape: 24 128 14 14 (602112)
I0403 15:49:04.881678 16076 net.cpp:156] Memory required for data: 1035617568
I0403 15:49:04.881697 16076 layer_factory.hpp:77] Creating layer inception_4c/relu_3x3_reduce
I0403 15:49:04.881718 16076 net.cpp:91] Creating Layer inception_4c/relu_3x3_reduce
I0403 15:49:04.881737 16076 net.cpp:425] inception_4c/relu_3x3_reduce <- inception_4c/3x3_reduce
I0403 15:49:04.881757 16076 net.cpp:386] inception_4c/relu_3x3_reduce -> inception_4c/3x3_reduce (in-place)
I0403 15:49:04.882056 16076 net.cpp:141] Setting up inception_4c/relu_3x3_reduce
I0403 15:49:04.882084 16076 net.cpp:148] Top shape: 24 128 14 14 (602112)
I0403 15:49:04.882100 16076 net.cpp:156] Memory required for data: 1038026016
I0403 15:49:04.882114 16076 layer_factory.hpp:77] Creating layer inception_4c/3x3
I0403 15:49:04.882138 16076 net.cpp:91] Creating Layer inception_4c/3x3
I0403 15:49:04.882158 16076 net.cpp:425] inception_4c/3x3 <- inception_4c/3x3_reduce
I0403 15:49:04.882179 16076 net.cpp:399] inception_4c/3x3 -> inception_4c/3x3
I0403 15:49:04.885918 16076 net.cpp:141] Setting up inception_4c/3x3
I0403 15:49:04.885965 16076 net.cpp:148] Top shape: 24 256 14 14 (1204224)
I0403 15:49:04.885984 16076 net.cpp:156] Memory required for data: 1042842912
I0403 15:49:04.886018 16076 layer_factory.hpp:77] Creating layer inception_4c/relu_3x3
I0403 15:49:04.886041 16076 net.cpp:91] Creating Layer inception_4c/relu_3x3
I0403 15:49:04.886059 16076 net.cpp:425] inception_4c/relu_3x3 <- inception_4c/3x3
I0403 15:49:04.886077 16076 net.cpp:386] inception_4c/relu_3x3 -> inception_4c/3x3 (in-place)
I0403 15:49:04.886265 16076 net.cpp:141] Setting up inception_4c/relu_3x3
I0403 15:49:04.886294 16076 net.cpp:148] Top shape: 24 256 14 14 (1204224)
I0403 15:49:04.886312 16076 net.cpp:156] Memory required for data: 1047659808
I0403 15:49:04.886327 16076 layer_factory.hpp:77] Creating layer inception_4c/5x5_reduce
I0403 15:49:04.886349 16076 net.cpp:91] Creating Layer inception_4c/5x5_reduce
I0403 15:49:04.886368 16076 net.cpp:425] inception_4c/5x5_reduce <- inception_4b/output_inception_4b/output_0_split_2
I0403 15:49:04.886387 16076 net.cpp:399] inception_4c/5x5_reduce -> inception_4c/5x5_reduce
I0403 15:49:04.887511 16076 net.cpp:141] Setting up inception_4c/5x5_reduce
I0403 15:49:04.887542 16076 net.cpp:148] Top shape: 24 24 14 14 (112896)
I0403 15:49:04.887558 16076 net.cpp:156] Memory required for data: 1048111392
I0403 15:49:04.887576 16076 layer_factory.hpp:77] Creating layer inception_4c/relu_5x5_reduce
I0403 15:49:04.887598 16076 net.cpp:91] Creating Layer inception_4c/relu_5x5_reduce
I0403 15:49:04.887620 16076 net.cpp:425] inception_4c/relu_5x5_reduce <- inception_4c/5x5_reduce
I0403 15:49:04.887639 16076 net.cpp:386] inception_4c/relu_5x5_reduce -> inception_4c/5x5_reduce (in-place)
I0403 15:49:04.887833 16076 net.cpp:141] Setting up inception_4c/relu_5x5_reduce
I0403 15:49:04.887861 16076 net.cpp:148] Top shape: 24 24 14 14 (112896)
I0403 15:49:04.887876 16076 net.cpp:156] Memory required for data: 1048562976
I0403 15:49:04.887892 16076 layer_factory.hpp:77] Creating layer inception_4c/5x5
I0403 15:49:04.887914 16076 net.cpp:91] Creating Layer inception_4c/5x5
I0403 15:49:04.887933 16076 net.cpp:425] inception_4c/5x5 <- inception_4c/5x5_reduce
I0403 15:49:04.887956 16076 net.cpp:399] inception_4c/5x5 -> inception_4c/5x5
I0403 15:49:04.891322 16076 net.cpp:141] Setting up inception_4c/5x5
I0403 15:49:04.891356 16076 net.cpp:148] Top shape: 24 64 14 14 (301056)
I0403 15:49:04.891374 16076 net.cpp:156] Memory required for data: 1049767200
I0403 15:49:04.891393 16076 layer_factory.hpp:77] Creating layer inception_4c/relu_5x5
I0403 15:49:04.891412 16076 net.cpp:91] Creating Layer inception_4c/relu_5x5
I0403 15:49:04.891427 16076 net.cpp:425] inception_4c/relu_5x5 <- inception_4c/5x5
I0403 15:49:04.891448 16076 net.cpp:386] inception_4c/relu_5x5 -> inception_4c/5x5 (in-place)
I0403 15:49:04.891749 16076 net.cpp:141] Setting up inception_4c/relu_5x5
I0403 15:49:04.891780 16076 net.cpp:148] Top shape: 24 64 14 14 (301056)
I0403 15:49:04.891796 16076 net.cpp:156] Memory required for data: 1050971424
I0403 15:49:04.891813 16076 layer_factory.hpp:77] Creating layer inception_4c/pool
I0403 15:49:04.891829 16076 net.cpp:91] Creating Layer inception_4c/pool
I0403 15:49:04.891845 16076 net.cpp:425] inception_4c/pool <- inception_4b/output_inception_4b/output_0_split_3
I0403 15:49:04.891865 16076 net.cpp:399] inception_4c/pool -> inception_4c/pool
I0403 15:49:04.891932 16076 net.cpp:141] Setting up inception_4c/pool
I0403 15:49:04.891958 16076 net.cpp:148] Top shape: 24 512 14 14 (2408448)
I0403 15:49:04.891973 16076 net.cpp:156] Memory required for data: 1060605216
I0403 15:49:04.891988 16076 layer_factory.hpp:77] Creating layer inception_4c/pool_proj
I0403 15:49:04.892010 16076 net.cpp:91] Creating Layer inception_4c/pool_proj
I0403 15:49:04.892027 16076 net.cpp:425] inception_4c/pool_proj <- inception_4c/pool
I0403 15:49:04.892046 16076 net.cpp:399] inception_4c/pool_proj -> inception_4c/pool_proj
I0403 15:49:04.893311 16076 net.cpp:141] Setting up inception_4c/pool_proj
I0403 15:49:04.893343 16076 net.cpp:148] Top shape: 24 64 14 14 (301056)
I0403 15:49:04.893375 16076 net.cpp:156] Memory required for data: 1061809440
I0403 15:49:04.893396 16076 layer_factory.hpp:77] Creating layer inception_4c/relu_pool_proj
I0403 15:49:04.893415 16076 net.cpp:91] Creating Layer inception_4c/relu_pool_proj
I0403 15:49:04.893434 16076 net.cpp:425] inception_4c/relu_pool_proj <- inception_4c/pool_proj
I0403 15:49:04.893450 16076 net.cpp:386] inception_4c/relu_pool_proj -> inception_4c/pool_proj (in-place)
I0403 15:49:04.893646 16076 net.cpp:141] Setting up inception_4c/relu_pool_proj
I0403 15:49:04.893673 16076 net.cpp:148] Top shape: 24 64 14 14 (301056)
I0403 15:49:04.893690 16076 net.cpp:156] Memory required for data: 1063013664
I0403 15:49:04.893705 16076 layer_factory.hpp:77] Creating layer inception_4c/output
I0403 15:49:04.893723 16076 net.cpp:91] Creating Layer inception_4c/output
I0403 15:49:04.893739 16076 net.cpp:425] inception_4c/output <- inception_4c/1x1
I0403 15:49:04.893756 16076 net.cpp:425] inception_4c/output <- inception_4c/3x3
I0403 15:49:04.893774 16076 net.cpp:425] inception_4c/output <- inception_4c/5x5
I0403 15:49:04.893790 16076 net.cpp:425] inception_4c/output <- inception_4c/pool_proj
I0403 15:49:04.893810 16076 net.cpp:399] inception_4c/output -> inception_4c/output
I0403 15:49:04.893859 16076 net.cpp:141] Setting up inception_4c/output
I0403 15:49:04.893884 16076 net.cpp:148] Top shape: 24 512 14 14 (2408448)
I0403 15:49:04.893899 16076 net.cpp:156] Memory required for data: 1072647456
I0403 15:49:04.893915 16076 layer_factory.hpp:77] Creating layer inception_4c/output_inception_4c/output_0_split
I0403 15:49:04.893935 16076 net.cpp:91] Creating Layer inception_4c/output_inception_4c/output_0_split
I0403 15:49:04.893952 16076 net.cpp:425] inception_4c/output_inception_4c/output_0_split <- inception_4c/output
I0403 15:49:04.893970 16076 net.cpp:399] inception_4c/output_inception_4c/output_0_split -> inception_4c/output_inception_4c/output_0_split_0
I0403 15:49:04.893990 16076 net.cpp:399] inception_4c/output_inception_4c/output_0_split -> inception_4c/output_inception_4c/output_0_split_1
I0403 15:49:04.894016 16076 net.cpp:399] inception_4c/output_inception_4c/output_0_split -> inception_4c/output_inception_4c/output_0_split_2
I0403 15:49:04.894038 16076 net.cpp:399] inception_4c/output_inception_4c/output_0_split -> inception_4c/output_inception_4c/output_0_split_3
I0403 15:49:04.894125 16076 net.cpp:141] Setting up inception_4c/output_inception_4c/output_0_split
I0403 15:49:04.894150 16076 net.cpp:148] Top shape: 24 512 14 14 (2408448)
I0403 15:49:04.894167 16076 net.cpp:148] Top shape: 24 512 14 14 (2408448)
I0403 15:49:04.894183 16076 net.cpp:148] Top shape: 24 512 14 14 (2408448)
I0403 15:49:04.894198 16076 net.cpp:148] Top shape: 24 512 14 14 (2408448)
I0403 15:49:04.894212 16076 net.cpp:156] Memory required for data: 1111182624
I0403 15:49:04.894227 16076 layer_factory.hpp:77] Creating layer inception_4d/1x1
I0403 15:49:04.894248 16076 net.cpp:91] Creating Layer inception_4d/1x1
I0403 15:49:04.894268 16076 net.cpp:425] inception_4d/1x1 <- inception_4c/output_inception_4c/output_0_split_0
I0403 15:49:04.894289 16076 net.cpp:399] inception_4d/1x1 -> inception_4d/1x1
I0403 15:49:04.895732 16076 net.cpp:141] Setting up inception_4d/1x1
I0403 15:49:04.895762 16076 net.cpp:148] Top shape: 24 112 14 14 (526848)
I0403 15:49:04.895779 16076 net.cpp:156] Memory required for data: 1113290016
I0403 15:49:04.895797 16076 layer_factory.hpp:77] Creating layer inception_4d/relu_1x1
I0403 15:49:04.895818 16076 net.cpp:91] Creating Layer inception_4d/relu_1x1
I0403 15:49:04.895836 16076 net.cpp:425] inception_4d/relu_1x1 <- inception_4d/1x1
I0403 15:49:04.895855 16076 net.cpp:386] inception_4d/relu_1x1 -> inception_4d/1x1 (in-place)
I0403 15:49:04.896046 16076 net.cpp:141] Setting up inception_4d/relu_1x1
I0403 15:49:04.896073 16076 net.cpp:148] Top shape: 24 112 14 14 (526848)
I0403 15:49:04.896088 16076 net.cpp:156] Memory required for data: 1115397408
I0403 15:49:04.896103 16076 layer_factory.hpp:77] Creating layer inception_4d/3x3_reduce
I0403 15:49:04.896142 16076 net.cpp:91] Creating Layer inception_4d/3x3_reduce
I0403 15:49:04.896162 16076 net.cpp:425] inception_4d/3x3_reduce <- inception_4c/output_inception_4c/output_0_split_1
I0403 15:49:04.896180 16076 net.cpp:399] inception_4d/3x3_reduce -> inception_4d/3x3_reduce
I0403 15:49:04.897759 16076 net.cpp:141] Setting up inception_4d/3x3_reduce
I0403 15:49:04.897789 16076 net.cpp:148] Top shape: 24 144 14 14 (677376)
I0403 15:49:04.897805 16076 net.cpp:156] Memory required for data: 1118106912
I0403 15:49:04.897825 16076 layer_factory.hpp:77] Creating layer inception_4d/relu_3x3_reduce
I0403 15:49:04.897852 16076 net.cpp:91] Creating Layer inception_4d/relu_3x3_reduce
I0403 15:49:04.897871 16076 net.cpp:425] inception_4d/relu_3x3_reduce <- inception_4d/3x3_reduce
I0403 15:49:04.897891 16076 net.cpp:386] inception_4d/relu_3x3_reduce -> inception_4d/3x3_reduce (in-place)
I0403 15:49:04.898191 16076 net.cpp:141] Setting up inception_4d/relu_3x3_reduce
I0403 15:49:04.898219 16076 net.cpp:148] Top shape: 24 144 14 14 (677376)
I0403 15:49:04.898236 16076 net.cpp:156] Memory required for data: 1120816416
I0403 15:49:04.898250 16076 layer_factory.hpp:77] Creating layer inception_4d/3x3
I0403 15:49:04.898274 16076 net.cpp:91] Creating Layer inception_4d/3x3
I0403 15:49:04.898294 16076 net.cpp:425] inception_4d/3x3 <- inception_4d/3x3_reduce
I0403 15:49:04.898315 16076 net.cpp:399] inception_4d/3x3 -> inception_4d/3x3
I0403 15:49:04.902732 16076 net.cpp:141] Setting up inception_4d/3x3
I0403 15:49:04.902762 16076 net.cpp:148] Top shape: 24 288 14 14 (1354752)
I0403 15:49:04.902781 16076 net.cpp:156] Memory required for data: 1126235424
I0403 15:49:04.902799 16076 layer_factory.hpp:77] Creating layer inception_4d/relu_3x3
I0403 15:49:04.902820 16076 net.cpp:91] Creating Layer inception_4d/relu_3x3
I0403 15:49:04.902839 16076 net.cpp:425] inception_4d/relu_3x3 <- inception_4d/3x3
I0403 15:49:04.902858 16076 net.cpp:386] inception_4d/relu_3x3 -> inception_4d/3x3 (in-place)
I0403 15:49:04.903045 16076 net.cpp:141] Setting up inception_4d/relu_3x3
I0403 15:49:04.903074 16076 net.cpp:148] Top shape: 24 288 14 14 (1354752)
I0403 15:49:04.903090 16076 net.cpp:156] Memory required for data: 1131654432
I0403 15:49:04.903106 16076 layer_factory.hpp:77] Creating layer inception_4d/5x5_reduce
I0403 15:49:04.903128 16076 net.cpp:91] Creating Layer inception_4d/5x5_reduce
I0403 15:49:04.903146 16076 net.cpp:425] inception_4d/5x5_reduce <- inception_4c/output_inception_4c/output_0_split_2
I0403 15:49:04.903165 16076 net.cpp:399] inception_4d/5x5_reduce -> inception_4d/5x5_reduce
I0403 15:49:04.904348 16076 net.cpp:141] Setting up inception_4d/5x5_reduce
I0403 15:49:04.904378 16076 net.cpp:148] Top shape: 24 32 14 14 (150528)
I0403 15:49:04.904395 16076 net.cpp:156] Memory required for data: 1132256544
I0403 15:49:04.904414 16076 layer_factory.hpp:77] Creating layer inception_4d/relu_5x5_reduce
I0403 15:49:04.904434 16076 net.cpp:91] Creating Layer inception_4d/relu_5x5_reduce
I0403 15:49:04.904453 16076 net.cpp:425] inception_4d/relu_5x5_reduce <- inception_4d/5x5_reduce
I0403 15:49:04.904470 16076 net.cpp:386] inception_4d/relu_5x5_reduce -> inception_4d/5x5_reduce (in-place)
I0403 15:49:04.904675 16076 net.cpp:141] Setting up inception_4d/relu_5x5_reduce
I0403 15:49:04.904702 16076 net.cpp:148] Top shape: 24 32 14 14 (150528)
I0403 15:49:04.904717 16076 net.cpp:156] Memory required for data: 1132858656
I0403 15:49:04.904733 16076 layer_factory.hpp:77] Creating layer inception_4d/5x5
I0403 15:49:04.904757 16076 net.cpp:91] Creating Layer inception_4d/5x5
I0403 15:49:04.904775 16076 net.cpp:425] inception_4d/5x5 <- inception_4d/5x5_reduce
I0403 15:49:04.904795 16076 net.cpp:399] inception_4d/5x5 -> inception_4d/5x5
I0403 15:49:04.906329 16076 net.cpp:141] Setting up inception_4d/5x5
I0403 15:49:04.906363 16076 net.cpp:148] Top shape: 24 64 14 14 (301056)
I0403 15:49:04.906380 16076 net.cpp:156] Memory required for data: 1134062880
I0403 15:49:04.906400 16076 layer_factory.hpp:77] Creating layer inception_4d/relu_5x5
I0403 15:49:04.906435 16076 net.cpp:91] Creating Layer inception_4d/relu_5x5
I0403 15:49:04.906452 16076 net.cpp:425] inception_4d/relu_5x5 <- inception_4d/5x5
I0403 15:49:04.906472 16076 net.cpp:386] inception_4d/relu_5x5 -> inception_4d/5x5 (in-place)
I0403 15:49:04.906795 16076 net.cpp:141] Setting up inception_4d/relu_5x5
I0403 15:49:04.906826 16076 net.cpp:148] Top shape: 24 64 14 14 (301056)
I0403 15:49:04.906849 16076 net.cpp:156] Memory required for data: 1135267104
I0403 15:49:04.906865 16076 layer_factory.hpp:77] Creating layer inception_4d/pool
I0403 15:49:04.906883 16076 net.cpp:91] Creating Layer inception_4d/pool
I0403 15:49:04.906901 16076 net.cpp:425] inception_4d/pool <- inception_4c/output_inception_4c/output_0_split_3
I0403 15:49:04.906924 16076 net.cpp:399] inception_4d/pool -> inception_4d/pool
I0403 15:49:04.906991 16076 net.cpp:141] Setting up inception_4d/pool
I0403 15:49:04.907018 16076 net.cpp:148] Top shape: 24 512 14 14 (2408448)
I0403 15:49:04.907033 16076 net.cpp:156] Memory required for data: 1144900896
I0403 15:49:04.907048 16076 layer_factory.hpp:77] Creating layer inception_4d/pool_proj
I0403 15:49:04.907070 16076 net.cpp:91] Creating Layer inception_4d/pool_proj
I0403 15:49:04.907088 16076 net.cpp:425] inception_4d/pool_proj <- inception_4d/pool
I0403 15:49:04.907109 16076 net.cpp:399] inception_4d/pool_proj -> inception_4d/pool_proj
I0403 15:49:04.908964 16076 net.cpp:141] Setting up inception_4d/pool_proj
I0403 15:49:04.908994 16076 net.cpp:148] Top shape: 24 64 14 14 (301056)
I0403 15:49:04.909011 16076 net.cpp:156] Memory required for data: 1146105120
I0403 15:49:04.909030 16076 layer_factory.hpp:77] Creating layer inception_4d/relu_pool_proj
I0403 15:49:04.909051 16076 net.cpp:91] Creating Layer inception_4d/relu_pool_proj
I0403 15:49:04.909070 16076 net.cpp:425] inception_4d/relu_pool_proj <- inception_4d/pool_proj
I0403 15:49:04.909086 16076 net.cpp:386] inception_4d/relu_pool_proj -> inception_4d/pool_proj (in-place)
I0403 15:49:04.909281 16076 net.cpp:141] Setting up inception_4d/relu_pool_proj
I0403 15:49:04.909307 16076 net.cpp:148] Top shape: 24 64 14 14 (301056)
I0403 15:49:04.909323 16076 net.cpp:156] Memory required for data: 1147309344
I0403 15:49:04.909338 16076 layer_factory.hpp:77] Creating layer inception_4d/output
I0403 15:49:04.909355 16076 net.cpp:91] Creating Layer inception_4d/output
I0403 15:49:04.909370 16076 net.cpp:425] inception_4d/output <- inception_4d/1x1
I0403 15:49:04.909386 16076 net.cpp:425] inception_4d/output <- inception_4d/3x3
I0403 15:49:04.909404 16076 net.cpp:425] inception_4d/output <- inception_4d/5x5
I0403 15:49:04.909418 16076 net.cpp:425] inception_4d/output <- inception_4d/pool_proj
I0403 15:49:04.909435 16076 net.cpp:399] inception_4d/output -> inception_4d/output
I0403 15:49:04.909485 16076 net.cpp:141] Setting up inception_4d/output
I0403 15:49:04.909508 16076 net.cpp:148] Top shape: 24 528 14 14 (2483712)
I0403 15:49:04.909523 16076 net.cpp:156] Memory required for data: 1157244192
I0403 15:49:04.909538 16076 layer_factory.hpp:77] Creating layer inception_4d/output_inception_4d/output_0_split
I0403 15:49:04.909566 16076 net.cpp:91] Creating Layer inception_4d/output_inception_4d/output_0_split
I0403 15:49:04.909582 16076 net.cpp:425] inception_4d/output_inception_4d/output_0_split <- inception_4d/output
I0403 15:49:04.909605 16076 net.cpp:399] inception_4d/output_inception_4d/output_0_split -> inception_4d/output_inception_4d/output_0_split_0
I0403 15:49:04.909627 16076 net.cpp:399] inception_4d/output_inception_4d/output_0_split -> inception_4d/output_inception_4d/output_0_split_1
I0403 15:49:04.909647 16076 net.cpp:399] inception_4d/output_inception_4d/output_0_split -> inception_4d/output_inception_4d/output_0_split_2
I0403 15:49:04.909670 16076 net.cpp:399] inception_4d/output_inception_4d/output_0_split -> inception_4d/output_inception_4d/output_0_split_3
I0403 15:49:04.909692 16076 net.cpp:399] inception_4d/output_inception_4d/output_0_split -> inception_4d/output_inception_4d/output_0_split_4
I0403 15:49:04.909798 16076 net.cpp:141] Setting up inception_4d/output_inception_4d/output_0_split
I0403 15:49:04.909840 16076 net.cpp:148] Top shape: 24 528 14 14 (2483712)
I0403 15:49:04.909858 16076 net.cpp:148] Top shape: 24 528 14 14 (2483712)
I0403 15:49:04.909873 16076 net.cpp:148] Top shape: 24 528 14 14 (2483712)
I0403 15:49:04.909888 16076 net.cpp:148] Top shape: 24 528 14 14 (2483712)
I0403 15:49:04.909904 16076 net.cpp:148] Top shape: 24 528 14 14 (2483712)
I0403 15:49:04.909917 16076 net.cpp:156] Memory required for data: 1206918432
I0403 15:49:04.909931 16076 layer_factory.hpp:77] Creating layer loss2/ave_pool
I0403 15:49:04.909951 16076 net.cpp:91] Creating Layer loss2/ave_pool
I0403 15:49:04.909968 16076 net.cpp:425] loss2/ave_pool <- inception_4d/output_inception_4d/output_0_split_0
I0403 15:49:04.909986 16076 net.cpp:399] loss2/ave_pool -> loss2/ave_pool
I0403 15:49:04.910310 16076 net.cpp:141] Setting up loss2/ave_pool
I0403 15:49:04.910336 16076 net.cpp:148] Top shape: 24 528 4 4 (202752)
I0403 15:49:04.910351 16076 net.cpp:156] Memory required for data: 1207729440
I0403 15:49:04.910365 16076 layer_factory.hpp:77] Creating layer loss2/conv
I0403 15:49:04.910388 16076 net.cpp:91] Creating Layer loss2/conv
I0403 15:49:04.910405 16076 net.cpp:425] loss2/conv <- loss2/ave_pool
I0403 15:49:04.910428 16076 net.cpp:399] loss2/conv -> loss2/conv
I0403 15:49:04.912358 16076 net.cpp:141] Setting up loss2/conv
I0403 15:49:04.912390 16076 net.cpp:148] Top shape: 24 128 4 4 (49152)
I0403 15:49:04.912407 16076 net.cpp:156] Memory required for data: 1207926048
I0403 15:49:04.912426 16076 layer_factory.hpp:77] Creating layer loss2/relu_conv
I0403 15:49:04.912444 16076 net.cpp:91] Creating Layer loss2/relu_conv
I0403 15:49:04.912459 16076 net.cpp:425] loss2/relu_conv <- loss2/conv
I0403 15:49:04.912479 16076 net.cpp:386] loss2/relu_conv -> loss2/conv (in-place)
I0403 15:49:04.912770 16076 net.cpp:141] Setting up loss2/relu_conv
I0403 15:49:04.912799 16076 net.cpp:148] Top shape: 24 128 4 4 (49152)
I0403 15:49:04.912817 16076 net.cpp:156] Memory required for data: 1208122656
I0403 15:49:04.912832 16076 layer_factory.hpp:77] Creating layer loss2/fc
I0403 15:49:04.912852 16076 net.cpp:91] Creating Layer loss2/fc
I0403 15:49:04.912868 16076 net.cpp:425] loss2/fc <- loss2/conv
I0403 15:49:04.912889 16076 net.cpp:399] loss2/fc -> loss2/fc
I0403 15:49:04.930588 16076 net.cpp:141] Setting up loss2/fc
I0403 15:49:04.930625 16076 net.cpp:148] Top shape: 24 1024 (24576)
I0403 15:49:04.930644 16076 net.cpp:156] Memory required for data: 1208220960
I0403 15:49:04.930661 16076 layer_factory.hpp:77] Creating layer loss2/relu_fc
I0403 15:49:04.930680 16076 net.cpp:91] Creating Layer loss2/relu_fc
I0403 15:49:04.930696 16076 net.cpp:425] loss2/relu_fc <- loss2/fc
I0403 15:49:04.930712 16076 net.cpp:386] loss2/relu_fc -> loss2/fc (in-place)
I0403 15:49:04.931005 16076 net.cpp:141] Setting up loss2/relu_fc
I0403 15:49:04.931031 16076 net.cpp:148] Top shape: 24 1024 (24576)
I0403 15:49:04.931046 16076 net.cpp:156] Memory required for data: 1208319264
I0403 15:49:04.931061 16076 layer_factory.hpp:77] Creating layer loss2/drop_fc
I0403 15:49:04.931082 16076 net.cpp:91] Creating Layer loss2/drop_fc
I0403 15:49:04.931097 16076 net.cpp:425] loss2/drop_fc <- loss2/fc
I0403 15:49:04.931114 16076 net.cpp:386] loss2/drop_fc -> loss2/fc (in-place)
I0403 15:49:04.931164 16076 net.cpp:141] Setting up loss2/drop_fc
I0403 15:49:04.931185 16076 net.cpp:148] Top shape: 24 1024 (24576)
I0403 15:49:04.931197 16076 net.cpp:156] Memory required for data: 1208417568
I0403 15:49:04.931210 16076 layer_factory.hpp:77] Creating layer loss2/classifier_plantvillage
I0403 15:49:04.931229 16076 net.cpp:91] Creating Layer loss2/classifier_plantvillage
I0403 15:49:04.931246 16076 net.cpp:425] loss2/classifier_plantvillage <- loss2/fc
I0403 15:49:04.931264 16076 net.cpp:399] loss2/classifier_plantvillage -> loss2/classifier_plantvillage
I0403 15:49:04.931663 16076 net.cpp:141] Setting up loss2/classifier_plantvillage
I0403 15:49:04.931687 16076 net.cpp:148] Top shape: 24 38 (912)
I0403 15:49:04.931718 16076 net.cpp:156] Memory required for data: 1208421216
I0403 15:49:04.931735 16076 layer_factory.hpp:77] Creating layer loss2/classifier_plantvillage_loss2/classifier_plantvillage_0_split
I0403 15:49:04.931753 16076 net.cpp:91] Creating Layer loss2/classifier_plantvillage_loss2/classifier_plantvillage_0_split
I0403 15:49:04.931768 16076 net.cpp:425] loss2/classifier_plantvillage_loss2/classifier_plantvillage_0_split <- loss2/classifier_plantvillage
I0403 15:49:04.931788 16076 net.cpp:399] loss2/classifier_plantvillage_loss2/classifier_plantvillage_0_split -> loss2/classifier_plantvillage_loss2/classifier_plantvillage_0_split_0
I0403 15:49:04.931808 16076 net.cpp:399] loss2/classifier_plantvillage_loss2/classifier_plantvillage_0_split -> loss2/classifier_plantvillage_loss2/classifier_plantvillage_0_split_1
I0403 15:49:04.931828 16076 net.cpp:399] loss2/classifier_plantvillage_loss2/classifier_plantvillage_0_split -> loss2/classifier_plantvillage_loss2/classifier_plantvillage_0_split_2
I0403 15:49:04.931903 16076 net.cpp:141] Setting up loss2/classifier_plantvillage_loss2/classifier_plantvillage_0_split
I0403 15:49:04.931928 16076 net.cpp:148] Top shape: 24 38 (912)
I0403 15:49:04.931944 16076 net.cpp:148] Top shape: 24 38 (912)
I0403 15:49:04.931958 16076 net.cpp:148] Top shape: 24 38 (912)
I0403 15:49:04.931972 16076 net.cpp:156] Memory required for data: 1208432160
I0403 15:49:04.931984 16076 layer_factory.hpp:77] Creating layer inception_4e/1x1
I0403 15:49:04.932005 16076 net.cpp:91] Creating Layer inception_4e/1x1
I0403 15:49:04.932021 16076 net.cpp:425] inception_4e/1x1 <- inception_4d/output_inception_4d/output_0_split_1
I0403 15:49:04.932039 16076 net.cpp:399] inception_4e/1x1 -> inception_4e/1x1
I0403 15:49:04.933847 16076 net.cpp:141] Setting up inception_4e/1x1
I0403 15:49:04.933877 16076 net.cpp:148] Top shape: 24 256 14 14 (1204224)
I0403 15:49:04.933893 16076 net.cpp:156] Memory required for data: 1213249056
I0403 15:49:04.933912 16076 layer_factory.hpp:77] Creating layer inception_4e/relu_1x1
I0403 15:49:04.933930 16076 net.cpp:91] Creating Layer inception_4e/relu_1x1
I0403 15:49:04.933946 16076 net.cpp:425] inception_4e/relu_1x1 <- inception_4e/1x1
I0403 15:49:04.933966 16076 net.cpp:386] inception_4e/relu_1x1 -> inception_4e/1x1 (in-place)
I0403 15:49:04.934253 16076 net.cpp:141] Setting up inception_4e/relu_1x1
I0403 15:49:04.934283 16076 net.cpp:148] Top shape: 24 256 14 14 (1204224)
I0403 15:49:04.934298 16076 net.cpp:156] Memory required for data: 1218065952
I0403 15:49:04.934311 16076 layer_factory.hpp:77] Creating layer inception_4e/3x3_reduce
I0403 15:49:04.934332 16076 net.cpp:91] Creating Layer inception_4e/3x3_reduce
I0403 15:49:04.934348 16076 net.cpp:425] inception_4e/3x3_reduce <- inception_4d/output_inception_4d/output_0_split_2
I0403 15:49:04.934366 16076 net.cpp:399] inception_4e/3x3_reduce -> inception_4e/3x3_reduce
I0403 15:49:04.936439 16076 net.cpp:141] Setting up inception_4e/3x3_reduce
I0403 15:49:04.936470 16076 net.cpp:148] Top shape: 24 160 14 14 (752640)
I0403 15:49:04.936486 16076 net.cpp:156] Memory required for data: 1221076512
I0403 15:49:04.936504 16076 layer_factory.hpp:77] Creating layer inception_4e/relu_3x3_reduce
I0403 15:49:04.936522 16076 net.cpp:91] Creating Layer inception_4e/relu_3x3_reduce
I0403 15:49:04.936537 16076 net.cpp:425] inception_4e/relu_3x3_reduce <- inception_4e/3x3_reduce
I0403 15:49:04.936553 16076 net.cpp:386] inception_4e/relu_3x3_reduce -> inception_4e/3x3_reduce (in-place)
I0403 15:49:04.936743 16076 net.cpp:141] Setting up inception_4e/relu_3x3_reduce
I0403 15:49:04.936767 16076 net.cpp:148] Top shape: 24 160 14 14 (752640)
I0403 15:49:04.936780 16076 net.cpp:156] Memory required for data: 1224087072
I0403 15:49:04.936794 16076 layer_factory.hpp:77] Creating layer inception_4e/3x3
I0403 15:49:04.936815 16076 net.cpp:91] Creating Layer inception_4e/3x3
I0403 15:49:04.936832 16076 net.cpp:425] inception_4e/3x3 <- inception_4e/3x3_reduce
I0403 15:49:04.936852 16076 net.cpp:399] inception_4e/3x3 -> inception_4e/3x3
I0403 15:49:04.941772 16076 net.cpp:141] Setting up inception_4e/3x3
I0403 15:49:04.941812 16076 net.cpp:148] Top shape: 24 320 14 14 (1505280)
I0403 15:49:04.941829 16076 net.cpp:156] Memory required for data: 1230108192
I0403 15:49:04.941854 16076 layer_factory.hpp:77] Creating layer inception_4e/relu_3x3
I0403 15:49:04.941872 16076 net.cpp:91] Creating Layer inception_4e/relu_3x3
I0403 15:49:04.941890 16076 net.cpp:425] inception_4e/relu_3x3 <- inception_4e/3x3
I0403 15:49:04.941905 16076 net.cpp:386] inception_4e/relu_3x3 -> inception_4e/3x3 (in-place)
I0403 15:49:04.942209 16076 net.cpp:141] Setting up inception_4e/relu_3x3
I0403 15:49:04.942234 16076 net.cpp:148] Top shape: 24 320 14 14 (1505280)
I0403 15:49:04.942247 16076 net.cpp:156] Memory required for data: 1236129312
I0403 15:49:04.942263 16076 layer_factory.hpp:77] Creating layer inception_4e/5x5_reduce
I0403 15:49:04.942284 16076 net.cpp:91] Creating Layer inception_4e/5x5_reduce
I0403 15:49:04.942301 16076 net.cpp:425] inception_4e/5x5_reduce <- inception_4d/output_inception_4d/output_0_split_3
I0403 15:49:04.942322 16076 net.cpp:399] inception_4e/5x5_reduce -> inception_4e/5x5_reduce
I0403 15:49:04.943366 16076 net.cpp:141] Setting up inception_4e/5x5_reduce
I0403 15:49:04.943395 16076 net.cpp:148] Top shape: 24 32 14 14 (150528)
I0403 15:49:04.943413 16076 net.cpp:156] Memory required for data: 1236731424
I0403 15:49:04.943430 16076 layer_factory.hpp:77] Creating layer inception_4e/relu_5x5_reduce
I0403 15:49:04.943447 16076 net.cpp:91] Creating Layer inception_4e/relu_5x5_reduce
I0403 15:49:04.943462 16076 net.cpp:425] inception_4e/relu_5x5_reduce <- inception_4e/5x5_reduce
I0403 15:49:04.943481 16076 net.cpp:386] inception_4e/relu_5x5_reduce -> inception_4e/5x5_reduce (in-place)
I0403 15:49:04.943779 16076 net.cpp:141] Setting up inception_4e/relu_5x5_reduce
I0403 15:49:04.943809 16076 net.cpp:148] Top shape: 24 32 14 14 (150528)
I0403 15:49:04.943825 16076 net.cpp:156] Memory required for data: 1237333536
I0403 15:49:04.943840 16076 layer_factory.hpp:77] Creating layer inception_4e/5x5
I0403 15:49:04.943879 16076 net.cpp:91] Creating Layer inception_4e/5x5
I0403 15:49:04.943898 16076 net.cpp:425] inception_4e/5x5 <- inception_4e/5x5_reduce
I0403 15:49:04.943917 16076 net.cpp:399] inception_4e/5x5 -> inception_4e/5x5
I0403 15:49:04.945730 16076 net.cpp:141] Setting up inception_4e/5x5
I0403 15:49:04.945758 16076 net.cpp:148] Top shape: 24 128 14 14 (602112)
I0403 15:49:04.945775 16076 net.cpp:156] Memory required for data: 1239741984
I0403 15:49:04.945792 16076 layer_factory.hpp:77] Creating layer inception_4e/relu_5x5
I0403 15:49:04.945812 16076 net.cpp:91] Creating Layer inception_4e/relu_5x5
I0403 15:49:04.945828 16076 net.cpp:425] inception_4e/relu_5x5 <- inception_4e/5x5
I0403 15:49:04.945848 16076 net.cpp:386] inception_4e/relu_5x5 -> inception_4e/5x5 (in-place)
I0403 15:49:04.946043 16076 net.cpp:141] Setting up inception_4e/relu_5x5
I0403 15:49:04.946068 16076 net.cpp:148] Top shape: 24 128 14 14 (602112)
I0403 15:49:04.946081 16076 net.cpp:156] Memory required for data: 1242150432
I0403 15:49:04.946094 16076 layer_factory.hpp:77] Creating layer inception_4e/pool
I0403 15:49:04.946111 16076 net.cpp:91] Creating Layer inception_4e/pool
I0403 15:49:04.946126 16076 net.cpp:425] inception_4e/pool <- inception_4d/output_inception_4d/output_0_split_4
I0403 15:49:04.946144 16076 net.cpp:399] inception_4e/pool -> inception_4e/pool
I0403 15:49:04.946213 16076 net.cpp:141] Setting up inception_4e/pool
I0403 15:49:04.946235 16076 net.cpp:148] Top shape: 24 528 14 14 (2483712)
I0403 15:49:04.946249 16076 net.cpp:156] Memory required for data: 1252085280
I0403 15:49:04.946264 16076 layer_factory.hpp:77] Creating layer inception_4e/pool_proj
I0403 15:49:04.946286 16076 net.cpp:91] Creating Layer inception_4e/pool_proj
I0403 15:49:04.946303 16076 net.cpp:425] inception_4e/pool_proj <- inception_4e/pool
I0403 15:49:04.946321 16076 net.cpp:399] inception_4e/pool_proj -> inception_4e/pool_proj
I0403 15:49:04.947788 16076 net.cpp:141] Setting up inception_4e/pool_proj
I0403 15:49:04.947827 16076 net.cpp:148] Top shape: 24 128 14 14 (602112)
I0403 15:49:04.947844 16076 net.cpp:156] Memory required for data: 1254493728
I0403 15:49:04.947861 16076 layer_factory.hpp:77] Creating layer inception_4e/relu_pool_proj
I0403 15:49:04.947882 16076 net.cpp:91] Creating Layer inception_4e/relu_pool_proj
I0403 15:49:04.947901 16076 net.cpp:425] inception_4e/relu_pool_proj <- inception_4e/pool_proj
I0403 15:49:04.947917 16076 net.cpp:386] inception_4e/relu_pool_proj -> inception_4e/pool_proj (in-place)
I0403 15:49:04.948204 16076 net.cpp:141] Setting up inception_4e/relu_pool_proj
I0403 15:49:04.948228 16076 net.cpp:148] Top shape: 24 128 14 14 (602112)
I0403 15:49:04.948241 16076 net.cpp:156] Memory required for data: 1256902176
I0403 15:49:04.948256 16076 layer_factory.hpp:77] Creating layer inception_4e/output
I0403 15:49:04.948274 16076 net.cpp:91] Creating Layer inception_4e/output
I0403 15:49:04.948290 16076 net.cpp:425] inception_4e/output <- inception_4e/1x1
I0403 15:49:04.948305 16076 net.cpp:425] inception_4e/output <- inception_4e/3x3
I0403 15:49:04.948320 16076 net.cpp:425] inception_4e/output <- inception_4e/5x5
I0403 15:49:04.948335 16076 net.cpp:425] inception_4e/output <- inception_4e/pool_proj
I0403 15:49:04.948351 16076 net.cpp:399] inception_4e/output -> inception_4e/output
I0403 15:49:04.948400 16076 net.cpp:141] Setting up inception_4e/output
I0403 15:49:04.948422 16076 net.cpp:148] Top shape: 24 832 14 14 (3913728)
I0403 15:49:04.948436 16076 net.cpp:156] Memory required for data: 1272557088
I0403 15:49:04.948448 16076 layer_factory.hpp:77] Creating layer pool4/3x3_s2
I0403 15:49:04.948464 16076 net.cpp:91] Creating Layer pool4/3x3_s2
I0403 15:49:04.948480 16076 net.cpp:425] pool4/3x3_s2 <- inception_4e/output
I0403 15:49:04.948499 16076 net.cpp:399] pool4/3x3_s2 -> pool4/3x3_s2
I0403 15:49:04.948565 16076 net.cpp:141] Setting up pool4/3x3_s2
I0403 15:49:04.948587 16076 net.cpp:148] Top shape: 24 832 7 7 (978432)
I0403 15:49:04.948606 16076 net.cpp:156] Memory required for data: 1276470816
I0403 15:49:04.948619 16076 layer_factory.hpp:77] Creating layer pool4/3x3_s2_pool4/3x3_s2_0_split
I0403 15:49:04.948639 16076 net.cpp:91] Creating Layer pool4/3x3_s2_pool4/3x3_s2_0_split
I0403 15:49:04.948655 16076 net.cpp:425] pool4/3x3_s2_pool4/3x3_s2_0_split <- pool4/3x3_s2
I0403 15:49:04.948673 16076 net.cpp:399] pool4/3x3_s2_pool4/3x3_s2_0_split -> pool4/3x3_s2_pool4/3x3_s2_0_split_0
I0403 15:49:04.948693 16076 net.cpp:399] pool4/3x3_s2_pool4/3x3_s2_0_split -> pool4/3x3_s2_pool4/3x3_s2_0_split_1
I0403 15:49:04.948711 16076 net.cpp:399] pool4/3x3_s2_pool4/3x3_s2_0_split -> pool4/3x3_s2_pool4/3x3_s2_0_split_2
I0403 15:49:04.948730 16076 net.cpp:399] pool4/3x3_s2_pool4/3x3_s2_0_split -> pool4/3x3_s2_pool4/3x3_s2_0_split_3
I0403 15:49:04.948817 16076 net.cpp:141] Setting up pool4/3x3_s2_pool4/3x3_s2_0_split
I0403 15:49:04.948839 16076 net.cpp:148] Top shape: 24 832 7 7 (978432)
I0403 15:49:04.948854 16076 net.cpp:148] Top shape: 24 832 7 7 (978432)
I0403 15:49:04.948868 16076 net.cpp:148] Top shape: 24 832 7 7 (978432)
I0403 15:49:04.948882 16076 net.cpp:148] Top shape: 24 832 7 7 (978432)
I0403 15:49:04.948894 16076 net.cpp:156] Memory required for data: 1292125728
I0403 15:49:04.948909 16076 layer_factory.hpp:77] Creating layer inception_5a/1x1
I0403 15:49:04.948928 16076 net.cpp:91] Creating Layer inception_5a/1x1
I0403 15:49:04.948946 16076 net.cpp:425] inception_5a/1x1 <- pool4/3x3_s2_pool4/3x3_s2_0_split_0
I0403 15:49:04.948967 16076 net.cpp:399] inception_5a/1x1 -> inception_5a/1x1
I0403 15:49:04.951757 16076 net.cpp:141] Setting up inception_5a/1x1
I0403 15:49:04.951788 16076 net.cpp:148] Top shape: 24 256 7 7 (301056)
I0403 15:49:04.951805 16076 net.cpp:156] Memory required for data: 1293329952
I0403 15:49:04.951822 16076 layer_factory.hpp:77] Creating layer inception_5a/relu_1x1
I0403 15:49:04.951839 16076 net.cpp:91] Creating Layer inception_5a/relu_1x1
I0403 15:49:04.951854 16076 net.cpp:425] inception_5a/relu_1x1 <- inception_5a/1x1
I0403 15:49:04.951871 16076 net.cpp:386] inception_5a/relu_1x1 -> inception_5a/1x1 (in-place)
I0403 15:49:04.952186 16076 net.cpp:141] Setting up inception_5a/relu_1x1
I0403 15:49:04.952214 16076 net.cpp:148] Top shape: 24 256 7 7 (301056)
I0403 15:49:04.952229 16076 net.cpp:156] Memory required for data: 1294534176
I0403 15:49:04.952253 16076 layer_factory.hpp:77] Creating layer inception_5a/3x3_reduce
I0403 15:49:04.952275 16076 net.cpp:91] Creating Layer inception_5a/3x3_reduce
I0403 15:49:04.952292 16076 net.cpp:425] inception_5a/3x3_reduce <- pool4/3x3_s2_pool4/3x3_s2_0_split_1
I0403 15:49:04.952311 16076 net.cpp:399] inception_5a/3x3_reduce -> inception_5a/3x3_reduce
I0403 15:49:04.954740 16076 net.cpp:141] Setting up inception_5a/3x3_reduce
I0403 15:49:04.954769 16076 net.cpp:148] Top shape: 24 160 7 7 (188160)
I0403 15:49:04.954785 16076 net.cpp:156] Memory required for data: 1295286816
I0403 15:49:04.954802 16076 layer_factory.hpp:77] Creating layer inception_5a/relu_3x3_reduce
I0403 15:49:04.954823 16076 net.cpp:91] Creating Layer inception_5a/relu_3x3_reduce
I0403 15:49:04.954849 16076 net.cpp:425] inception_5a/relu_3x3_reduce <- inception_5a/3x3_reduce
I0403 15:49:04.954866 16076 net.cpp:386] inception_5a/relu_3x3_reduce -> inception_5a/3x3_reduce (in-place)
I0403 15:49:04.955049 16076 net.cpp:141] Setting up inception_5a/relu_3x3_reduce
I0403 15:49:04.955075 16076 net.cpp:148] Top shape: 24 160 7 7 (188160)
I0403 15:49:04.955090 16076 net.cpp:156] Memory required for data: 1296039456
I0403 15:49:04.955104 16076 layer_factory.hpp:77] Creating layer inception_5a/3x3
I0403 15:49:04.955123 16076 net.cpp:91] Creating Layer inception_5a/3x3
I0403 15:49:04.955139 16076 net.cpp:425] inception_5a/3x3 <- inception_5a/3x3_reduce
I0403 15:49:04.955160 16076 net.cpp:399] inception_5a/3x3 -> inception_5a/3x3
I0403 15:49:04.960230 16076 net.cpp:141] Setting up inception_5a/3x3
I0403 15:49:04.960263 16076 net.cpp:148] Top shape: 24 320 7 7 (376320)
I0403 15:49:04.960279 16076 net.cpp:156] Memory required for data: 1297544736
I0403 15:49:04.960299 16076 layer_factory.hpp:77] Creating layer inception_5a/relu_3x3
I0403 15:49:04.960319 16076 net.cpp:91] Creating Layer inception_5a/relu_3x3
I0403 15:49:04.960335 16076 net.cpp:425] inception_5a/relu_3x3 <- inception_5a/3x3
I0403 15:49:04.960353 16076 net.cpp:386] inception_5a/relu_3x3 -> inception_5a/3x3 (in-place)
I0403 15:49:04.960655 16076 net.cpp:141] Setting up inception_5a/relu_3x3
I0403 15:49:04.960682 16076 net.cpp:148] Top shape: 24 320 7 7 (376320)
I0403 15:49:04.960698 16076 net.cpp:156] Memory required for data: 1299050016
I0403 15:49:04.960713 16076 layer_factory.hpp:77] Creating layer inception_5a/5x5_reduce
I0403 15:49:04.960738 16076 net.cpp:91] Creating Layer inception_5a/5x5_reduce
I0403 15:49:04.960757 16076 net.cpp:425] inception_5a/5x5_reduce <- pool4/3x3_s2_pool4/3x3_s2_0_split_2
I0403 15:49:04.960777 16076 net.cpp:399] inception_5a/5x5_reduce -> inception_5a/5x5_reduce
I0403 15:49:04.961962 16076 net.cpp:141] Setting up inception_5a/5x5_reduce
I0403 15:49:04.961993 16076 net.cpp:148] Top shape: 24 32 7 7 (37632)
I0403 15:49:04.962010 16076 net.cpp:156] Memory required for data: 1299200544
I0403 15:49:04.962029 16076 layer_factory.hpp:77] Creating layer inception_5a/relu_5x5_reduce
I0403 15:49:04.962047 16076 net.cpp:91] Creating Layer inception_5a/relu_5x5_reduce
I0403 15:49:04.962064 16076 net.cpp:425] inception_5a/relu_5x5_reduce <- inception_5a/5x5_reduce
I0403 15:49:04.962081 16076 net.cpp:386] inception_5a/relu_5x5_reduce -> inception_5a/5x5_reduce (in-place)
I0403 15:49:04.962389 16076 net.cpp:141] Setting up inception_5a/relu_5x5_reduce
I0403 15:49:04.962419 16076 net.cpp:148] Top shape: 24 32 7 7 (37632)
I0403 15:49:04.962435 16076 net.cpp:156] Memory required for data: 1299351072
I0403 15:49:04.962448 16076 layer_factory.hpp:77] Creating layer inception_5a/5x5
I0403 15:49:04.962471 16076 net.cpp:91] Creating Layer inception_5a/5x5
I0403 15:49:04.962487 16076 net.cpp:425] inception_5a/5x5 <- inception_5a/5x5_reduce
I0403 15:49:04.962508 16076 net.cpp:399] inception_5a/5x5 -> inception_5a/5x5
I0403 15:49:04.964285 16076 net.cpp:141] Setting up inception_5a/5x5
I0403 15:49:04.964326 16076 net.cpp:148] Top shape: 24 128 7 7 (150528)
I0403 15:49:04.964344 16076 net.cpp:156] Memory required for data: 1299953184
I0403 15:49:04.964361 16076 layer_factory.hpp:77] Creating layer inception_5a/relu_5x5
I0403 15:49:04.964385 16076 net.cpp:91] Creating Layer inception_5a/relu_5x5
I0403 15:49:04.964402 16076 net.cpp:425] inception_5a/relu_5x5 <- inception_5a/5x5
I0403 15:49:04.964419 16076 net.cpp:386] inception_5a/relu_5x5 -> inception_5a/5x5 (in-place)
I0403 15:49:04.964620 16076 net.cpp:141] Setting up inception_5a/relu_5x5
I0403 15:49:04.964646 16076 net.cpp:148] Top shape: 24 128 7 7 (150528)
I0403 15:49:04.964660 16076 net.cpp:156] Memory required for data: 1300555296
I0403 15:49:04.964674 16076 layer_factory.hpp:77] Creating layer inception_5a/pool
I0403 15:49:04.964694 16076 net.cpp:91] Creating Layer inception_5a/pool
I0403 15:49:04.964710 16076 net.cpp:425] inception_5a/pool <- pool4/3x3_s2_pool4/3x3_s2_0_split_3
I0403 15:49:04.964730 16076 net.cpp:399] inception_5a/pool -> inception_5a/pool
I0403 15:49:04.964800 16076 net.cpp:141] Setting up inception_5a/pool
I0403 15:49:04.964824 16076 net.cpp:148] Top shape: 24 832 7 7 (978432)
I0403 15:49:04.964838 16076 net.cpp:156] Memory required for data: 1304469024
I0403 15:49:04.964853 16076 layer_factory.hpp:77] Creating layer inception_5a/pool_proj
I0403 15:49:04.964874 16076 net.cpp:91] Creating Layer inception_5a/pool_proj
I0403 15:49:04.964892 16076 net.cpp:425] inception_5a/pool_proj <- inception_5a/pool
I0403 15:49:04.964910 16076 net.cpp:399] inception_5a/pool_proj -> inception_5a/pool_proj
I0403 15:49:04.967202 16076 net.cpp:141] Setting up inception_5a/pool_proj
I0403 15:49:04.967233 16076 net.cpp:148] Top shape: 24 128 7 7 (150528)
I0403 15:49:04.967250 16076 net.cpp:156] Memory required for data: 1305071136
I0403 15:49:04.967272 16076 layer_factory.hpp:77] Creating layer inception_5a/relu_pool_proj
I0403 15:49:04.967294 16076 net.cpp:91] Creating Layer inception_5a/relu_pool_proj
I0403 15:49:04.967314 16076 net.cpp:425] inception_5a/relu_pool_proj <- inception_5a/pool_proj
I0403 15:49:04.967330 16076 net.cpp:386] inception_5a/relu_pool_proj -> inception_5a/pool_proj (in-place)
I0403 15:49:04.967635 16076 net.cpp:141] Setting up inception_5a/relu_pool_proj
I0403 15:49:04.967663 16076 net.cpp:148] Top shape: 24 128 7 7 (150528)
I0403 15:49:04.967677 16076 net.cpp:156] Memory required for data: 1305673248
I0403 15:49:04.967691 16076 layer_factory.hpp:77] Creating layer inception_5a/output
I0403 15:49:04.967710 16076 net.cpp:91] Creating Layer inception_5a/output
I0403 15:49:04.967727 16076 net.cpp:425] inception_5a/output <- inception_5a/1x1
I0403 15:49:04.967743 16076 net.cpp:425] inception_5a/output <- inception_5a/3x3
I0403 15:49:04.967759 16076 net.cpp:425] inception_5a/output <- inception_5a/5x5
I0403 15:49:04.967774 16076 net.cpp:425] inception_5a/output <- inception_5a/pool_proj
I0403 15:49:04.967792 16076 net.cpp:399] inception_5a/output -> inception_5a/output
I0403 15:49:04.967842 16076 net.cpp:141] Setting up inception_5a/output
I0403 15:49:04.967865 16076 net.cpp:148] Top shape: 24 832 7 7 (978432)
I0403 15:49:04.967880 16076 net.cpp:156] Memory required for data: 1309586976
I0403 15:49:04.967893 16076 layer_factory.hpp:77] Creating layer inception_5a/output_inception_5a/output_0_split
I0403 15:49:04.967910 16076 net.cpp:91] Creating Layer inception_5a/output_inception_5a/output_0_split
I0403 15:49:04.967924 16076 net.cpp:425] inception_5a/output_inception_5a/output_0_split <- inception_5a/output
I0403 15:49:04.967943 16076 net.cpp:399] inception_5a/output_inception_5a/output_0_split -> inception_5a/output_inception_5a/output_0_split_0
I0403 15:49:04.967965 16076 net.cpp:399] inception_5a/output_inception_5a/output_0_split -> inception_5a/output_inception_5a/output_0_split_1
I0403 15:49:04.967986 16076 net.cpp:399] inception_5a/output_inception_5a/output_0_split -> inception_5a/output_inception_5a/output_0_split_2
I0403 15:49:04.968006 16076 net.cpp:399] inception_5a/output_inception_5a/output_0_split -> inception_5a/output_inception_5a/output_0_split_3
I0403 15:49:04.968117 16076 net.cpp:141] Setting up inception_5a/output_inception_5a/output_0_split
I0403 15:49:04.968144 16076 net.cpp:148] Top shape: 24 832 7 7 (978432)
I0403 15:49:04.968161 16076 net.cpp:148] Top shape: 24 832 7 7 (978432)
I0403 15:49:04.968176 16076 net.cpp:148] Top shape: 24 832 7 7 (978432)
I0403 15:49:04.968192 16076 net.cpp:148] Top shape: 24 832 7 7 (978432)
I0403 15:49:04.968205 16076 net.cpp:156] Memory required for data: 1325241888
I0403 15:49:04.968219 16076 layer_factory.hpp:77] Creating layer inception_5b/1x1
I0403 15:49:04.968241 16076 net.cpp:91] Creating Layer inception_5b/1x1
I0403 15:49:04.968261 16076 net.cpp:425] inception_5b/1x1 <- inception_5a/output_inception_5a/output_0_split_0
I0403 15:49:04.968279 16076 net.cpp:399] inception_5b/1x1 -> inception_5b/1x1
I0403 15:49:04.972092 16076 net.cpp:141] Setting up inception_5b/1x1
I0403 15:49:04.972123 16076 net.cpp:148] Top shape: 24 384 7 7 (451584)
I0403 15:49:04.972141 16076 net.cpp:156] Memory required for data: 1327048224
I0403 15:49:04.972160 16076 layer_factory.hpp:77] Creating layer inception_5b/relu_1x1
I0403 15:49:04.972182 16076 net.cpp:91] Creating Layer inception_5b/relu_1x1
I0403 15:49:04.972200 16076 net.cpp:425] inception_5b/relu_1x1 <- inception_5b/1x1
I0403 15:49:04.972218 16076 net.cpp:386] inception_5b/relu_1x1 -> inception_5b/1x1 (in-place)
I0403 15:49:04.972524 16076 net.cpp:141] Setting up inception_5b/relu_1x1
I0403 15:49:04.972553 16076 net.cpp:148] Top shape: 24 384 7 7 (451584)
I0403 15:49:04.972569 16076 net.cpp:156] Memory required for data: 1328854560
I0403 15:49:04.972584 16076 layer_factory.hpp:77] Creating layer inception_5b/3x3_reduce
I0403 15:49:04.972609 16076 net.cpp:91] Creating Layer inception_5b/3x3_reduce
I0403 15:49:04.972630 16076 net.cpp:425] inception_5b/3x3_reduce <- inception_5a/output_inception_5a/output_0_split_1
I0403 15:49:04.972654 16076 net.cpp:399] inception_5b/3x3_reduce -> inception_5b/3x3_reduce
I0403 15:49:04.975339 16076 net.cpp:141] Setting up inception_5b/3x3_reduce
I0403 15:49:04.975370 16076 net.cpp:148] Top shape: 24 192 7 7 (225792)
I0403 15:49:04.975386 16076 net.cpp:156] Memory required for data: 1329757728
I0403 15:49:04.975405 16076 layer_factory.hpp:77] Creating layer inception_5b/relu_3x3_reduce
I0403 15:49:04.975426 16076 net.cpp:91] Creating Layer inception_5b/relu_3x3_reduce
I0403 15:49:04.975445 16076 net.cpp:425] inception_5b/relu_3x3_reduce <- inception_5b/3x3_reduce
I0403 15:49:04.975463 16076 net.cpp:386] inception_5b/relu_3x3_reduce -> inception_5b/3x3_reduce (in-place)
I0403 15:49:04.975661 16076 net.cpp:141] Setting up inception_5b/relu_3x3_reduce
I0403 15:49:04.975689 16076 net.cpp:148] Top shape: 24 192 7 7 (225792)
I0403 15:49:04.975706 16076 net.cpp:156] Memory required for data: 1330660896
I0403 15:49:04.975723 16076 layer_factory.hpp:77] Creating layer inception_5b/3x3
I0403 15:49:04.975744 16076 net.cpp:91] Creating Layer inception_5b/3x3
I0403 15:49:04.975764 16076 net.cpp:425] inception_5b/3x3 <- inception_5b/3x3_reduce
I0403 15:49:04.975781 16076 net.cpp:399] inception_5b/3x3 -> inception_5b/3x3
I0403 15:49:04.982514 16076 net.cpp:141] Setting up inception_5b/3x3
I0403 15:49:04.982545 16076 net.cpp:148] Top shape: 24 384 7 7 (451584)
I0403 15:49:04.982563 16076 net.cpp:156] Memory required for data: 1332467232
I0403 15:49:04.982581 16076 layer_factory.hpp:77] Creating layer inception_5b/relu_3x3
I0403 15:49:04.982605 16076 net.cpp:91] Creating Layer inception_5b/relu_3x3
I0403 15:49:04.982625 16076 net.cpp:425] inception_5b/relu_3x3 <- inception_5b/3x3
I0403 15:49:04.982645 16076 net.cpp:386] inception_5b/relu_3x3 -> inception_5b/3x3 (in-place)
I0403 15:49:04.982947 16076 net.cpp:141] Setting up inception_5b/relu_3x3
I0403 15:49:04.982975 16076 net.cpp:148] Top shape: 24 384 7 7 (451584)
I0403 15:49:04.982991 16076 net.cpp:156] Memory required for data: 1334273568
I0403 15:49:04.983006 16076 layer_factory.hpp:77] Creating layer inception_5b/5x5_reduce
I0403 15:49:04.983048 16076 net.cpp:91] Creating Layer inception_5b/5x5_reduce
I0403 15:49:04.983068 16076 net.cpp:425] inception_5b/5x5_reduce <- inception_5a/output_inception_5a/output_0_split_2
I0403 15:49:04.983090 16076 net.cpp:399] inception_5b/5x5_reduce -> inception_5b/5x5_reduce
I0403 15:49:04.984382 16076 net.cpp:141] Setting up inception_5b/5x5_reduce
I0403 15:49:04.984411 16076 net.cpp:148] Top shape: 24 48 7 7 (56448)
I0403 15:49:04.984428 16076 net.cpp:156] Memory required for data: 1334499360
I0403 15:49:04.984447 16076 layer_factory.hpp:77] Creating layer inception_5b/relu_5x5_reduce
I0403 15:49:04.984468 16076 net.cpp:91] Creating Layer inception_5b/relu_5x5_reduce
I0403 15:49:04.984488 16076 net.cpp:425] inception_5b/relu_5x5_reduce <- inception_5b/5x5_reduce
I0403 15:49:04.984505 16076 net.cpp:386] inception_5b/relu_5x5_reduce -> inception_5b/5x5_reduce (in-place)
I0403 15:49:04.984894 16076 net.cpp:141] Setting up inception_5b/relu_5x5_reduce
I0403 15:49:04.984922 16076 net.cpp:148] Top shape: 24 48 7 7 (56448)
I0403 15:49:04.984940 16076 net.cpp:156] Memory required for data: 1334725152
I0403 15:49:04.984954 16076 layer_factory.hpp:77] Creating layer inception_5b/5x5
I0403 15:49:04.984975 16076 net.cpp:91] Creating Layer inception_5b/5x5
I0403 15:49:04.984993 16076 net.cpp:425] inception_5b/5x5 <- inception_5b/5x5_reduce
I0403 15:49:04.985013 16076 net.cpp:399] inception_5b/5x5 -> inception_5b/5x5
I0403 15:49:04.987110 16076 net.cpp:141] Setting up inception_5b/5x5
I0403 15:49:04.987140 16076 net.cpp:148] Top shape: 24 128 7 7 (150528)
I0403 15:49:04.987159 16076 net.cpp:156] Memory required for data: 1335327264
I0403 15:49:04.987177 16076 layer_factory.hpp:77] Creating layer inception_5b/relu_5x5
I0403 15:49:04.987195 16076 net.cpp:91] Creating Layer inception_5b/relu_5x5
I0403 15:49:04.987212 16076 net.cpp:425] inception_5b/relu_5x5 <- inception_5b/5x5
I0403 15:49:04.987229 16076 net.cpp:386] inception_5b/relu_5x5 -> inception_5b/5x5 (in-place)
I0403 15:49:04.987427 16076 net.cpp:141] Setting up inception_5b/relu_5x5
I0403 15:49:04.987457 16076 net.cpp:148] Top shape: 24 128 7 7 (150528)
I0403 15:49:04.987473 16076 net.cpp:156] Memory required for data: 1335929376
I0403 15:49:04.987488 16076 layer_factory.hpp:77] Creating layer inception_5b/pool
I0403 15:49:04.987505 16076 net.cpp:91] Creating Layer inception_5b/pool
I0403 15:49:04.987522 16076 net.cpp:425] inception_5b/pool <- inception_5a/output_inception_5a/output_0_split_3
I0403 15:49:04.987543 16076 net.cpp:399] inception_5b/pool -> inception_5b/pool
I0403 15:49:04.987623 16076 net.cpp:141] Setting up inception_5b/pool
I0403 15:49:04.987651 16076 net.cpp:148] Top shape: 24 832 7 7 (978432)
I0403 15:49:04.987668 16076 net.cpp:156] Memory required for data: 1339843104
I0403 15:49:04.987682 16076 layer_factory.hpp:77] Creating layer inception_5b/pool_proj
I0403 15:49:04.987704 16076 net.cpp:91] Creating Layer inception_5b/pool_proj
I0403 15:49:04.987720 16076 net.cpp:425] inception_5b/pool_proj <- inception_5b/pool
I0403 15:49:04.987740 16076 net.cpp:399] inception_5b/pool_proj -> inception_5b/pool_proj
I0403 15:49:04.990061 16076 net.cpp:141] Setting up inception_5b/pool_proj
I0403 15:49:04.990090 16076 net.cpp:148] Top shape: 24 128 7 7 (150528)
I0403 15:49:04.990108 16076 net.cpp:156] Memory required for data: 1340445216
I0403 15:49:04.990126 16076 layer_factory.hpp:77] Creating layer inception_5b/relu_pool_proj
I0403 15:49:04.990149 16076 net.cpp:91] Creating Layer inception_5b/relu_pool_proj
I0403 15:49:04.990167 16076 net.cpp:425] inception_5b/relu_pool_proj <- inception_5b/pool_proj
I0403 15:49:04.990185 16076 net.cpp:386] inception_5b/relu_pool_proj -> inception_5b/pool_proj (in-place)
I0403 15:49:04.990488 16076 net.cpp:141] Setting up inception_5b/relu_pool_proj
I0403 15:49:04.990514 16076 net.cpp:148] Top shape: 24 128 7 7 (150528)
I0403 15:49:04.990530 16076 net.cpp:156] Memory required for data: 1341047328
I0403 15:49:04.990545 16076 layer_factory.hpp:77] Creating layer inception_5b/output
I0403 15:49:04.990566 16076 net.cpp:91] Creating Layer inception_5b/output
I0403 15:49:04.990597 16076 net.cpp:425] inception_5b/output <- inception_5b/1x1
I0403 15:49:04.990620 16076 net.cpp:425] inception_5b/output <- inception_5b/3x3
I0403 15:49:04.990638 16076 net.cpp:425] inception_5b/output <- inception_5b/5x5
I0403 15:49:04.990653 16076 net.cpp:425] inception_5b/output <- inception_5b/pool_proj
I0403 15:49:04.990669 16076 net.cpp:399] inception_5b/output -> inception_5b/output
I0403 15:49:04.990723 16076 net.cpp:141] Setting up inception_5b/output
I0403 15:49:04.990746 16076 net.cpp:148] Top shape: 24 1024 7 7 (1204224)
I0403 15:49:04.990761 16076 net.cpp:156] Memory required for data: 1345864224
I0403 15:49:04.990775 16076 layer_factory.hpp:77] Creating layer pool5/7x7_s1
I0403 15:49:04.990792 16076 net.cpp:91] Creating Layer pool5/7x7_s1
I0403 15:49:04.990808 16076 net.cpp:425] pool5/7x7_s1 <- inception_5b/output
I0403 15:49:04.990828 16076 net.cpp:399] pool5/7x7_s1 -> pool5/7x7_s1
I0403 15:49:04.991044 16076 net.cpp:141] Setting up pool5/7x7_s1
I0403 15:49:04.991068 16076 net.cpp:148] Top shape: 24 1024 1 1 (24576)
I0403 15:49:04.991082 16076 net.cpp:156] Memory required for data: 1345962528
I0403 15:49:04.991096 16076 layer_factory.hpp:77] Creating layer pool5/drop_7x7_s1
I0403 15:49:04.991117 16076 net.cpp:91] Creating Layer pool5/drop_7x7_s1
I0403 15:49:04.991132 16076 net.cpp:425] pool5/drop_7x7_s1 <- pool5/7x7_s1
I0403 15:49:04.991149 16076 net.cpp:386] pool5/drop_7x7_s1 -> pool5/7x7_s1 (in-place)
I0403 15:49:04.991201 16076 net.cpp:141] Setting up pool5/drop_7x7_s1
I0403 15:49:04.991224 16076 net.cpp:148] Top shape: 24 1024 1 1 (24576)
I0403 15:49:04.991237 16076 net.cpp:156] Memory required for data: 1346060832
I0403 15:49:04.991251 16076 layer_factory.hpp:77] Creating layer loss3/classifier_plantvillage
I0403 15:49:04.991274 16076 net.cpp:91] Creating Layer loss3/classifier_plantvillage
I0403 15:49:04.991291 16076 net.cpp:425] loss3/classifier_plantvillage <- pool5/7x7_s1
I0403 15:49:04.991309 16076 net.cpp:399] loss3/classifier_plantvillage -> loss3/classifier_plantvillage
I0403 15:49:04.991744 16076 net.cpp:141] Setting up loss3/classifier_plantvillage
I0403 15:49:04.991767 16076 net.cpp:148] Top shape: 24 38 (912)
I0403 15:49:04.991781 16076 net.cpp:156] Memory required for data: 1346064480
I0403 15:49:04.991798 16076 layer_factory.hpp:77] Creating layer loss3/classifier_plantvillage_loss3/classifier_plantvillage_0_split
I0403 15:49:04.991816 16076 net.cpp:91] Creating Layer loss3/classifier_plantvillage_loss3/classifier_plantvillage_0_split
I0403 15:49:04.991832 16076 net.cpp:425] loss3/classifier_plantvillage_loss3/classifier_plantvillage_0_split <- loss3/classifier_plantvillage
I0403 15:49:04.991852 16076 net.cpp:399] loss3/classifier_plantvillage_loss3/classifier_plantvillage_0_split -> loss3/classifier_plantvillage_loss3/classifier_plantvillage_0_split_0
I0403 15:49:04.991874 16076 net.cpp:399] loss3/classifier_plantvillage_loss3/classifier_plantvillage_0_split -> loss3/classifier_plantvillage_loss3/classifier_plantvillage_0_split_1
I0403 15:49:04.991895 16076 net.cpp:399] loss3/classifier_plantvillage_loss3/classifier_plantvillage_0_split -> loss3/classifier_plantvillage_loss3/classifier_plantvillage_0_split_2
I0403 15:49:04.991915 16076 net.cpp:399] loss3/classifier_plantvillage_loss3/classifier_plantvillage_0_split -> loss3/classifier_plantvillage_loss3/classifier_plantvillage_0_split_3
I0403 15:49:04.992017 16076 net.cpp:141] Setting up loss3/classifier_plantvillage_loss3/classifier_plantvillage_0_split
I0403 15:49:04.992040 16076 net.cpp:148] Top shape: 24 38 (912)
I0403 15:49:04.992055 16076 net.cpp:148] Top shape: 24 38 (912)
I0403 15:49:04.992070 16076 net.cpp:148] Top shape: 24 38 (912)
I0403 15:49:04.992084 16076 net.cpp:148] Top shape: 24 38 (912)
I0403 15:49:04.992097 16076 net.cpp:156] Memory required for data: 1346079072
I0403 15:49:04.992111 16076 layer_factory.hpp:77] Creating layer loss1/loss
I0403 15:49:04.992132 16076 net.cpp:91] Creating Layer loss1/loss
I0403 15:49:04.992149 16076 net.cpp:425] loss1/loss <- loss1/classifier_plantvillage_loss1/classifier_plantvillage_0_split_0
I0403 15:49:04.992179 16076 net.cpp:425] loss1/loss <- label_data_1_split_0
…
