…
I0403 16:43:56.915988 19083 net.cpp:313] The NetState phase (1) differed from the phase (0) specified by a rule in layer data
I0403 16:43:56.917652 19083 net.cpp:49] Initializing net from parameters: 
state {
  phase: TEST
}
layer {
  name: "data"
  type: "Data"
  top: "data"
  top: "label"
  include {
    phase: TEST
  }
  transform_param {
    mirror: false
    crop_size: 224
    mean_file: "/home/mohanty/data/final_dataset/lmdb/segmented-20-80/mean.binaryproto"
  }
  data_param {
    source: "/home/mohanty/data/final_dataset/lmdb/segmented-20-80/test_db"
    batch_size: 24
    backend: LMDB
  }
}
layer {
  name: "conv1/7x7_s2"
  type: "Convolution"
  bottom: "data"
  top: "conv1/7x7_s2"
  param {
    lr_mult: 1
    decay_mult: 1
  }
  param {
    lr_mult: 2
    decay_mult: 0
  }
  convolution_param {
    num_output: 64
    pad: 3
    kernel_size: 7
    stride: 2
    weight_filler {
      type: "xavier"
      std: 0.1
    }
    bias_filler {
      type: "constant"
      value: 0.2
    }
  }
}
layer {
  name: "conv1/relu_7x7"
  type: "ReLU"
  bottom: "conv1/7x7_s2"
  top: "conv1/7x7_s2"
}
layer {
  name: "pool1/3x3_s2"
  type: "Pooling"
  bottom: "conv1/7x7_s2"
  top: "pool1/3x3_s2"
  pooling_param {
    pool: MAX
    kernel_size: 3
    stride: 2
  }
}
layer {
  name: "pool1/norm1"
  type: "LRN"
  bottom: "pool1/3x3_s2"
  top: "pool1/norm1"
  lrn_param {
    local_size: 5
    alpha: 0.0001
    beta: 0.75
  }
}
layer {
  name: "conv2/3x3_reduce"
  type: "Convolution"
  bottom: "pool1/norm1"
  top: "conv2/3x3_reduce"
  param {
    lr_mult: 1
    decay_mult: 1
  }
  param {
    lr_mult: 2
    decay_mult: 0
  }
  convolution_param {
    num_output: 64
    kernel_size: 1
    weight_filler {
      type: "xavier"
      std: 0.1
    }
    bias_filler {
      type: "constant"
      value: 0.2
    }
  }
}
layer {
  name: "conv2/relu_3x3_reduce"
  type: "ReLU"
  bottom: "conv2/3x3_reduce"
  top: "conv2/3x3_reduce"
}
layer {
  name: "conv2/3x3"
  type: "Convolution"
  bottom: "conv2/3x3_reduce"
  top: "conv2/3x3"
  param {
    lr_mult: 1
    decay_mult: 1
  }
  param {
    lr_mult: 2
    decay_mult: 0
  }
  convolution_param {
    num_output: 192
    pad: 1
    kernel_size: 3
    weight_filler {
      type: "xavier"
      std: 0.03
    }
    bias_filler {
      type: "constant"
      value: 0.2
    }
  }
}
layer {
  name: "conv2/relu_3x3"
  type: "ReLU"
  bottom: "conv2/3x3"
  top: "conv2/3x3"
}
layer {
  name: "conv2/norm2"
  type: "LRN"
  bottom: "conv2/3x3"
  top: "conv2/norm2"
  lrn_param {
    local_size: 5
    alpha: 0.0001
    beta: 0.75
  }
}
layer {
  name: "pool2/3x3_s2"
  type: "Pooling"
  bottom: "conv2/norm2"
  top: "pool2/3x3_s2"
  pooling_param {
    pool: MAX
    kernel_size: 3
    stride: 2
  }
}
layer {
  name: "inception_3a/1x1"
  type: "Convolution"
  bottom: "pool2/3x3_s2"
  top: "inception_3a/1x1"
  param {
    lr_mult: 1
    decay_mult: 1
  }
  param {
    lr_mult: 2
    decay_mult: 0
  }
  convolution_param {
    num_output: 64
    kernel_size: 1
    weight_filler {
      type: "xavier"
      std: 0.03
    }
    bias_filler {
      type: "constant"
      value: 0.2
    }
  }
}
layer {
  name: "inception_3a/relu_1x1"
  type: "ReLU"
  bottom: "inception_3a/1x1"
  top: "inception_3a/1x1"
}
layer {
  name: "inception_3a/3x3_reduce"
  type: "Convolution"
  bottom: "pool2/3x3_s2"
  top: "inception_3a/3x3_reduce"
  param {
    lr_mult: 1
    decay_mult: 1
  }
  param {
    lr_mult: 2
    decay_mult: 0
  }
  convolution_param {
    num_output: 96
    kernel_size: 1
    weight_filler {
      type: "xavier"
      std: 0.09
    }
    bias_filler {
      type: "constant"
      value: 0.2
    }
  }
}
layer {
  name: "inception_3a/relu_3x3_reduce"
  type: "ReLU"
  bottom: "inception_3a/3x3_reduce"
  top: "inception_3a/3x3_reduce"
}
layer {
  name: "inception_3a/3x3"
  type: "Convolution"
  bottom: "inception_3a/3x3_reduce"
  top: "inception_3a/3x3"
  param {
    lr_mult: 1
    decay_mult: 1
  }
  param {
    lr_mult: 2
    decay_mult: 0
  }
  convolution_param {
    num_output: 128
    pad: 1
    kernel_size: 3
    weight_filler {
      type: "xavier"
      std: 0.03
    }
    bias_filler {
      type: "constant"
      value: 0.2
    }
  }
}
layer {
  name: "inception_3a/relu_3x3"
  type: "ReLU"
  bottom: "inception_3a/3x3"
  top: "inception_3a/3x3"
}
layer {
  name: "inception_3a/5x5_reduce"
  type: "Convolution"
  bottom: "pool2/3x3_s2"
  top: "inception_3a/5x5_reduce"
  param {
    lr_mult: 1
    decay_mult: 1
  }
  param {
    lr_mult: 2
    decay_mult: 0
  }
  convolution_param {
    num_output: 16
    kernel_size: 1
    weight_filler {
      type: "xavier"
      std: 0.2
    }
    bias_filler {
      type: "constant"
      value: 0.2
    }
  }
}
layer {
  name: "inception_3a/relu_5x5_reduce"
  type: "ReLU"
  bottom: "inception_3a/5x5_reduce"
  top: "inception_3a/5x5_reduce"
}
layer {
  name: "inception_3a/5x5"
  type: "Convolution"
  bottom: "inception_3a/5x5_reduce"
  top: "inception_3a/5x5"
  param {
    lr_mult: 1
    decay_mult: 1
  }
  param {
    lr_mult: 2
    decay_mult: 0
  }
  convolution_param {
    num_output: 32
    pad: 2
    kernel_size: 5
    weight_filler {
      type: "xavier"
      std: 0.03
    }
    bias_filler {
      type: "constant"
      value: 0.2
    }
  }
}
layer {
  name: "inception_3a/relu_5x5"
  type: "ReLU"
  bottom: "inception_3a/5x5"
  top: "inception_3a/5x5"
}
layer {
  name: "inception_3a/pool"
  type: "Pooling"
  bottom: "pool2/3x3_s2"
  top: "inception_3a/pool"
  pooling_param {
    pool: MAX
    kernel_size: 3
    stride: 1
    pad: 1
  }
}
layer {
  name: "inception_3a/pool_proj"
  type: "Convolution"
  bottom: "inception_3a/pool"
  top: "inception_3a/pool_proj"
  param {
    lr_mult: 1
    decay_mult: 1
  }
  param {
    lr_mult: 2
    decay_mult: 0
  }
  convolution_param {
    num_output: 32
    kernel_size: 1
    weight_filler {
      type: "xavier"
      std: 0.1
    }
    bias_filler {
      type: "constant"
      value: 0.2
    }
  }
}
layer {
  name: "inception_3a/relu_pool_proj"
  type: "ReLU"
  bottom: "inception_3a/pool_proj"
  top: "inception_3a/pool_proj"
}
layer {
  name: "inception_3a/output"
  type: "Concat"
  bottom: "inception_3a/1x1"
  bottom: "inception_3a/3x3"
  bottom: "inception_3a/5x5"
  bottom: "inception_3a/pool_proj"
  top: "inception_3a/output"
}
layer {
  name: "inception_3b/1x1"
  type: "Convolution"
  bottom: "inception_3a/output"
  top: "inception_3b/1x1"
  param {
    lr_mult: 1
    decay_mult: 1
  }
  param {
    lr_mult: 2
    decay_mult: 0
  }
  convolution_param {
    num_output: 128
    kernel_size: 1
    weight_filler {
      type: "xavier"
      std: 0.03
    }
    bias_filler {
      type: "constant"
      value: 0.2
    }
  }
}
layer {
  name: "inception_3b/relu_1x1"
  type: "ReLU"
  bottom: "inception_3b/1x1"
  top: "inception_3b/1x1"
}
layer {
  name: "inception_3b/3x3_reduce"
  type: "Convolution"
  bottom: "inception_3a/output"
  top: "inception_3b/3x3_reduce"
  param {
    lr_mult: 1
    decay_mult: 1
  }
  param {
    lr_mult: 2
    decay_mult: 0
  }
  convolution_param {
    num_output: 128
    kernel_size: 1
    weight_filler {
      type: "xavier"
      std: 0.09
    }
    bias_filler {
      type: "constant"
      value: 0.2
    }
  }
}
layer {
  name: "inception_3b/relu_3x3_reduce"
  type: "ReLU"
  bottom: "inception_3b/3x3_reduce"
  top: "inception_3b/3x3_reduce"
}
layer {
  name: "inception_3b/3x3"
  type: "Convolution"
  bottom: "inception_3b/3x3_reduce"
  top: "inception_3b/3x3"
  param {
    lr_mult: 1
    decay_mult: 1
  }
  param {
    lr_mult: 2
    decay_mult: 0
  }
  convolution_param {
    num_output: 192
    pad: 1
    kernel_size: 3
    weight_filler {
      type: "xavier"
      std: 0.03
    }
    bias_filler {
      type: "constant"
      value: 0.2
    }
  }
}
layer {
  name: "inception_3b/relu_3x3"
  type: "ReLU"
  bottom: "inception_3b/3x3"
  top: "inception_3b/3x3"
}
layer {
  name: "inception_3b/5x5_reduce"
  type: "Convolution"
  bottom: "inception_3a/output"
  top: "inception_3b/5x5_reduce"
  param {
    lr_mult: 1
    decay_mult: 1
  }
  param {
    lr_mult: 2
    decay_mult: 0
  }
  convolution_param {
    num_output: 32
    kernel_size: 1
    weight_filler {
      type: "xavier"
      std: 0.2
    }
    bias_filler {
      type: "constant"
      value: 0.2
    }
  }
}
layer {
  name: "inception_3b/relu_5x5_reduce"
  type: "ReLU"
  bottom: "inception_3b/5x5_reduce"
  top: "inception_3b/5x5_reduce"
}
layer {
  name: "inception_3b/5x5"
  type: "Convolution"
  bottom: "inception_3b/5x5_reduce"
  top: "inception_3b/5x5"
  param {
    lr_mult: 1
    decay_mult: 1
  }
  param {
    lr_mult: 2
    decay_mult: 0
  }
  convolution_param {
    num_output: 96
    pad: 2
    kernel_size: 5
    weight_filler {
      type: "xavier"
      std: 0.03
    }
    bias_filler {
      type: "constant"
      value: 0.2
    }
  }
}
layer {
  name: "inception_3b/relu_5x5"
  type: "ReLU"
  bottom: "inception_3b/5x5"
  top: "inception_3b/5x5"
}
layer {
  name: "inception_3b/pool"
  type: "Pooling"
  bottom: "inception_3a/output"
  top: "inception_3b/pool"
  pooling_param {
    pool: MAX
    kernel_size: 3
    stride: 1
    pad: 1
  }
}
layer {
  name: "inception_3b/pool_proj"
  type: "Convolution"
  bottom: "inception_3b/pool"
  top: "inception_3b/pool_proj"
  param {
    lr_mult: 1
    decay_mult: 1
  }
  param {
    lr_mult: 2
    decay_mult: 0
  }
  convolution_param {
    num_output: 64
    kernel_size: 1
    weight_filler {
      type: "xavier"
      std: 0.1
    }
    bias_filler {
      type: "constant"
      value: 0.2
    }
  }
}
layer {
  name: "inception_3b/relu_pool_proj"
  type: "ReLU"
  bottom: "inception_3b/pool_proj"
  top: "inception_3b/pool_proj"
}
layer {
  name: "inception_3b/output"
  type: "Concat"
  bottom: "inception_3b/1x1"
  bottom: "inception_3b/3x3"
  bottom: "inception_3b/5x5"
  bottom: "inception_3b/pool_proj"
  top: "inception_3b/output"
}
layer {
  name: "pool3/3x3_s2"
  type: "Pooling"
  bottom: "inception_3b/output"
  top: "pool3/3x3_s2"
  pooling_param {
    pool: MAX
    kernel_size: 3
    stride: 2
  }
}
layer {
  name: "inception_4a/1x1"
  type: "Convolution"
  bottom: "pool3/3x3_s2"
  top: "inception_4a/1x1"
  param {
    lr_mult: 1
    decay_mult: 1
  }
  param {
    lr_mult: 2
    decay_mult: 0
  }
  convolution_param {
    num_output: 192
    kernel_size: 1
    weight_filler {
      type: "xavier"
      std: 0.03
    }
    bias_filler {
      type: "constant"
      value: 0.2
    }
  }
}
layer {
  name: "inception_4a/relu_1x1"
  type: "ReLU"
  bottom: "inception_4a/1x1"
  top: "inception_4a/1x1"
}
layer {
  name: "inception_4a/3x3_reduce"
  type: "Convolution"
  bottom: "pool3/3x3_s2"
  top: "inception_4a/3x3_reduce"
  param {
    lr_mult: 1
    decay_mult: 1
  }
  param {
    lr_mult: 2
    decay_mult: 0
  }
  convolution_param {
    num_output: 96
    kernel_size: 1
    weight_filler {
      type: "xavier"
      std: 0.09
    }
    bias_filler {
      type: "constant"
      value: 0.2
    }
  }
}
layer {
  name: "inception_4a/relu_3x3_reduce"
  type: "ReLU"
  bottom: "inception_4a/3x3_reduce"
  top: "inception_4a/3x3_reduce"
}
layer {
  name: "inception_4a/3x3"
  type: "Convolution"
  bottom: "inception_4a/3x3_reduce"
  top: "inception_4a/3x3"
  param {
    lr_mult: 1
    decay_mult: 1
  }
  param {
    lr_mult: 2
    decay_mult: 0
  }
  convolution_param {
    num_output: 208
    pad: 1
    kernel_size: 3
    weight_filler {
      type: "xavier"
      std: 0.03
    }
    bias_filler {
      type: "constant"
      value: 0.2
    }
  }
}
layer {
  name: "inception_4a/relu_3x3"
  type: "ReLU"
  bottom: "inception_4a/3x3"
  top: "inception_4a/3x3"
}
layer {
  name: "inception_4a/5x5_reduce"
  type: "Convolution"
  bottom: "pool3/3x3_s2"
  top: "inception_4a/5x5_reduce"
  param {
    lr_mult: 1
    decay_mult: 1
  }
  param {
    lr_mult: 2
    decay_mult: 0
  }
  convolution_param {
    num_output: 16
    kernel_size: 1
    weight_filler {
      type: "xavier"
      std: 0.2
    }
    bias_filler {
      type: "constant"
      value: 0.2
    }
  }
}
layer {
  name: "inception_4a/relu_5x5_reduce"
  type: "ReLU"
  bottom: "inception_4a/5x5_reduce"
  top: "inception_4a/5x5_reduce"
}
layer {
  name: "inception_4a/5x5"
  type: "Convolution"
  bottom: "inception_4a/5x5_reduce"
  top: "inception_4a/5x5"
  param {
    lr_mult: 1
    decay_mult: 1
  }
  param {
    lr_mult: 2
    decay_mult: 0
  }
  convolution_param {
    num_output: 48
    pad: 2
    kernel_size: 5
    weight_filler {
      type: "xavier"
      std: 0.03
    }
    bias_filler {
      type: "constant"
      value: 0.2
    }
  }
}
layer {
  name: "inception_4a/relu_5x5"
  type: "ReLU"
  bottom: "inception_4a/5x5"
  top: "inception_4a/5x5"
}
layer {
  name: "inception_4a/pool"
  type: "Pooling"
  bottom: "pool3/3x3_s2"
  top: "inception_4a/pool"
  pooling_param {
    pool: MAX
    kernel_size: 3
    stride: 1
    pad: 1
  }
}
layer {
  name: "inception_4a/pool_proj"
  type: "Convolution"
  bottom: "inception_4a/pool"
  top: "inception_4a/pool_proj"
  param {
    lr_mult: 1
    decay_mult: 1
  }
  param {
    lr_mult: 2
    decay_mult: 0
  }
  convolution_param {
    num_output: 64
    kernel_size: 1
    weight_filler {
      type: "xavier"
      std: 0.1
    }
    bias_filler {
      type: "constant"
      value: 0.2
    }
  }
}
layer {
  name: "inception_4a/relu_pool_proj"
  type: "ReLU"
  bottom: "inception_4a/pool_proj"
  top: "inception_4a/pool_proj"
}
layer {
  name: "inception_4a/output"
  type: "Concat"
  bottom: "inception_4a/1x1"
  bottom: "inception_4a/3x3"
  bottom: "inception_4a/5x5"
  bottom: "inception_4a/pool_proj"
  top: "inception_4a/output"
}
layer {
  name: "loss1/ave_pool"
  type: "Pooling"
  bottom: "inception_4a/output"
  top: "loss1/ave_pool"
  pooling_param {
    pool: AVE
    kernel_size: 5
    stride: 3
  }
}
layer {
  name: "loss1/conv"
  type: "Convolution"
  bottom: "loss1/ave_pool"
  top: "loss1/conv"
  param {
    lr_mult: 1
    decay_mult: 1
  }
  param {
    lr_mult: 2
    decay_mult: 0
  }
  convolution_param {
    num_output: 128
    kernel_size: 1
    weight_filler {
      type: "xavier"
      std: 0.08
    }
    bias_filler {
      type: "constant"
      value: 0.2
    }
  }
}
layer {
  name: "loss1/relu_conv"
  type: "ReLU"
  bottom: "loss1/conv"
  top: "loss1/conv"
}
layer {
  name: "loss1/fc"
  type: "InnerProduct"
  bottom: "loss1/conv"
  top: "loss1/fc"
  param {
    lr_mult: 1
    decay_mult: 1
  }
  param {
    lr_mult: 2
    decay_mult: 0
  }
  inner_product_param {
    num_output: 1024
    weight_filler {
      type: "xavier"
      std: 0.02
    }
    bias_filler {
      type: "constant"
      value: 0.2
    }
  }
}
layer {
  name: "loss1/relu_fc"
  type: "ReLU"
  bottom: "loss1/fc"
  top: "loss1/fc"
}
layer {
  name: "loss1/drop_fc"
  type: "Dropout"
  bottom: "loss1/fc"
  top: "loss1/fc"
  dropout_param {
    dropout_ratio: 0.7
  }
}
layer {
  name: "loss1/classifier_plantvillage"
  type: "InnerProduct"
  bottom: "loss1/fc"
  top: "loss1/classifier_plantvillage"
  param {
    lr_mult: 1
    decay_mult: 1
  }
  param {
    lr_mult: 2
    decay_mult: 0
  }
  inner_product_param {
    num_output: 38
    weight_filler {
      type: "xavier"
      std: 0.0009765625
    }
    bias_filler {
      type: "constant"
      value: 0
    }
  }
}
layer {
  name: "inception_4b/1x1"
  type: "Convolution"
  bottom: "inception_4a/output"
  top: "inception_4b/1x1"
  param {
    lr_mult: 1
    decay_mult: 1
  }
  param {
    lr_mult: 2
    decay_mult: 0
  }
  convolution_param {
    num_output: 160
    kernel_size: 1
    weight_filler {
      type: "xavier"
      std: 0.03
    }
    bias_filler {
      type: "constant"
      value: 0.2
    }
  }
}
layer {
  name: "inception_4b/relu_1x1"
  type: "ReLU"
  bottom: "inception_4b/1x1"
  top: "inception_4b/1x1"
}
layer {
  name: "inception_4b/3x3_reduce"
  type: "Convolution"
  bottom: "inception_4a/output"
  top: "inception_4b/3x3_reduce"
  param {
    lr_mult: 1
    decay_mult: 1
  }
  param {
    lr_mult: 2
    decay_mult: 0
  }
  convolution_param {
    num_output: 112
    kernel_size: 1
    weight_filler {
      type: "xavier"
      std: 0.09
    }
    bias_filler {
      type: "constant"
      value: 0.2
    }
  }
}
layer {
  name: "inception_4b/relu_3x3_reduce"
  type: "ReLU"
  bottom: "inception_4b/3x3_reduce"
  top: "inception_4b/3x3_reduce"
}
layer {
  name: "inception_4b/3x3"
  type: "Convolution"
  bottom: "inception_4b/3x3_reduce"
  top: "inception_4b/3x3"
  param {
    lr_mult: 1
    decay_mult: 1
  }
  param {
    lr_mult: 2
    decay_mult: 0
  }
  convolution_param {
    num_output: 224
    pad: 1
    kernel_size: 3
    weight_filler {
      type: "xavier"
      std: 0.03
    }
    bias_filler {
      type: "constant"
      value: 0.2
    }
  }
}
layer {
  name: "inception_4b/relu_3x3"
  type: "ReLU"
  bottom: "inception_4b/3x3"
  top: "inception_4b/3x3"
}
layer {
  name: "inception_4b/5x5_reduce"
  type: "Convolution"
  bottom: "inception_4a/output"
  top: "inception_4b/5x5_reduce"
  param {
    lr_mult: 1
    decay_mult: 1
  }
  param {
    lr_mult: 2
    decay_mult: 0
  }
  convolution_param {
    num_output: 24
    kernel_size: 1
    weight_filler {
      type: "xavier"
      std: 0.2
    }
    bias_filler {
      type: "constant"
      value: 0.2
    }
  }
}
layer {
  name: "inception_4b/relu_5x5_reduce"
  type: "ReLU"
  bottom: "inception_4b/5x5_reduce"
  top: "inception_4b/5x5_reduce"
}
layer {
  name: "inception_4b/5x5"
  type: "Convolution"
  bottom: "inception_4b/5x5_reduce"
  top: "inception_4b/5x5"
  param {
    lr_mult: 1
    decay_mult: 1
  }
  param {
    lr_mult: 2
    decay_mult: 0
  }
  convolution_param {
    num_output: 64
    pad: 2
    kernel_size: 5
    weight_filler {
      type: "xavier"
      std: 0.03
    }
    bias_filler {
      type: "constant"
      value: 0.2
    }
  }
}
layer {
  name: "inception_4b/relu_5x5"
  type: "ReLU"
  bottom: "inception_4b/5x5"
  top: "inception_4b/5x5"
}
layer {
  name: "inception_4b/pool"
  type: "Pooling"
  bottom: "inception_4a/output"
  top: "inception_4b/pool"
  pooling_param {
    pool: MAX
    kernel_size: 3
    stride: 1
    pad: 1
  }
}
layer {
  name: "inception_4b/pool_proj"
  type: "Convolution"
  bottom: "inception_4b/pool"
  top: "inception_4b/pool_proj"
  param {
    lr_mult: 1
    decay_mult: 1
  }
  param {
    lr_mult: 2
    decay_mult: 0
  }
  convolution_param {
    num_output: 64
    kernel_size: 1
    weight_filler {
      type: "xavier"
      std: 0.1
    }
    bias_filler {
      type: "constant"
      value: 0.2
    }
  }
}
layer {
  name: "inception_4b/relu_pool_proj"
  type: "ReLU"
  bottom: "inception_4b/pool_proj"
  top: "inception_4b/pool_proj"
}
layer {
  name: "inception_4b/output"
  type: "Concat"
  bottom: "inception_4b/1x1"
  bottom: "inception_4b/3x3"
  bottom: "inception_4b/5x5"
  bottom: "inception_4b/pool_proj"
  top: "inception_4b/output"
}
layer {
  name: "inception_4c/1x1"
  type: "Convolution"
  bottom: "inception_4b/output"
  top: "inception_4c/1x1"
  param {
    lr_mult: 1
    decay_mult: 1
  }
  param {
    lr_mult: 2
    decay_mult: 0
  }
  convolution_param {
    num_output: 128
    kernel_size: 1
    weight_filler {
      type: "xavier"
      std: 0.03
    }
    bias_filler {
      type: "constant"
      value: 0.2
    }
  }
}
layer {
  name: "inception_4c/relu_1x1"
  type: "ReLU"
  bottom: "inception_4c/1x1"
  top: "inception_4c/1x1"
}
layer {
  name: "inception_4c/3x3_reduce"
  type: "Convolution"
  bottom: "inception_4b/output"
  top: "inception_4c/3x3_reduce"
  param {
    lr_mult: 1
    decay_mult: 1
  }
  param {
    lr_mult: 2
    decay_mult: 0
  }
  convolution_param {
    num_output: 128
    kernel_size: 1
    weight_filler {
      type: "xavier"
      std: 0.09
    }
    bias_filler {
      type: "constant"
      value: 0.2
    }
  }
}
layer {
  name: "inception_4c/relu_3x3_reduce"
  type: "ReLU"
  bottom: "inception_4c/3x3_reduce"
  top: "inception_4c/3x3_reduce"
}
layer {
  name: "inception_4c/3x3"
  type: "Convolution"
  bottom: "inception_4c/3x3_reduce"
  top: "inception_4c/3x3"
  param {
    lr_mult: 1
    decay_mult: 1
  }
  param {
    lr_mult: 2
    decay_mult: 0
  }
  convolution_param {
    num_output: 256
    pad: 1
    kernel_size: 3
    weight_filler {
      type: "xavier"
      std: 0.03
    }
    bias_filler {
      type: "constant"
      value: 0.2
    }
  }
}
layer {
  name: "inception_4c/relu_3x3"
  type: "ReLU"
  bottom: "inception_4c/3x3"
  top: "inception_4c/3x3"
}
layer {
  name: "inception_4c/5x5_reduce"
  type: "Convolution"
  bottom: "inception_4b/output"
  top: "inception_4c/5x5_reduce"
  param {
    lr_mult: 1
    decay_mult: 1
  }
  param {
    lr_mult: 2
    decay_mult: 0
  }
  convolution_param {
    num_output: 24
    kernel_size: 1
    weight_filler {
      type: "xavier"
      std: 0.2
    }
    bias_filler {
      type: "constant"
      value: 0.2
    }
  }
}
layer {
  name: "inception_4c/relu_5x5_reduce"
  type: "ReLU"
  bottom: "inception_4c/5x5_reduce"
  top: "inception_4c/5x5_reduce"
}
layer {
  name: "inception_4c/5x5"
  type: "Convolution"
  bottom: "inception_4c/5x5_reduce"
  top: "inception_4c/5x5"
  param {
    lr_mult: 1
    decay_mult: 1
  }
  param {
    lr_mult: 2
    decay_mult: 0
  }
  convolution_param {
    num_output: 64
    pad: 2
    kernel_size: 5
    weight_filler {
      type: "xavier"
      std: 0.03
    }
    bias_filler {
      type: "constant"
      value: 0.2
    }
  }
}
layer {
  name: "inception_4c/relu_5x5"
  type: "ReLU"
  bottom: "inception_4c/5x5"
  top: "inception_4c/5x5"
}
layer {
  name: "inception_4c/pool"
  type: "Pooling"
  bottom: "inception_4b/output"
  top: "inception_4c/pool"
  pooling_param {
    pool: MAX
    kernel_size: 3
    stride: 1
    pad: 1
  }
}
layer {
  name: "inception_4c/pool_proj"
  type: "Convolution"
  bottom: "inception_4c/pool"
  top: "inception_4c/pool_proj"
  param {
    lr_mult: 1
    decay_mult: 1
  }
  param {
    lr_mult: 2
    decay_mult: 0
  }
  convolution_param {
    num_output: 64
    kernel_size: 1
    weight_filler {
      type: "xavier"
      std: 0.1
    }
    bias_filler {
      type: "constant"
      value: 0.2
    }
  }
}
layer {
  name: "inception_4c/relu_pool_proj"
  type: "ReLU"
  bottom: "inception_4c/pool_proj"
  top: "inception_4c/pool_proj"
}
layer {
  name: "inception_4c/output"
  type: "Concat"
  bottom: "inception_4c/1x1"
  bottom: "inception_4c/3x3"
  bottom: "inception_4c/5x5"
  bottom: "inception_4c/pool_proj"
  top: "inception_4c/output"
}
layer {
  name: "inception_4d/1x1"
  type: "Convolution"
  bottom: "inception_4c/output"
  top: "inception_4d/1x1"
  param {
    lr_mult: 1
    decay_mult: 1
  }
  param {
    lr_mult: 2
    decay_mult: 0
  }
  convolution_param {
    num_output: 112
    kernel_size: 1
    weight_filler {
      type: "xavier"
      std: 0.03
    }
    bias_filler {
      type: "constant"
      value: 0.2
    }
  }
}
layer {
  name: "inception_4d/relu_1x1"
  type: "ReLU"
  bottom: "inception_4d/1x1"
  top: "inception_4d/1x1"
}
layer {
  name: "inception_4d/3x3_reduce"
  type: "Convolution"
  bottom: "inception_4c/output"
  top: "inception_4d/3x3_reduce"
  param {
    lr_mult: 1
    decay_mult: 1
  }
  param {
    lr_mult: 2
    decay_mult: 0
  }
  convolution_param {
    num_output: 144
    kernel_size: 1
    weight_filler {
      type: "xavier"
      std: 0.09
    }
    bias_filler {
      type: "constant"
      value: 0.2
    }
  }
}
layer {
  name: "inception_4d/relu_3x3_reduce"
  type: "ReLU"
  bottom: "inception_4d/3x3_reduce"
  top: "inception_4d/3x3_reduce"
}
layer {
  name: "inception_4d/3x3"
  type: "Convolution"
  bottom: "inception_4d/3x3_reduce"
  top: "inception_4d/3x3"
  param {
    lr_mult: 1
    decay_mult: 1
  }
  param {
    lr_mult: 2
    decay_mult: 0
  }
  convolution_param {
    num_output: 288
    pad: 1
    kernel_size: 3
    weight_filler {
      type: "xavier"
      std: 0.03
    }
    bias_filler {
      type: "constant"
      value: 0.2
    }
  }
}
layer {
  name: "inception_4d/relu_3x3"
  type: "ReLU"
  bottom: "inception_4d/3x3"
  top: "inception_4d/3x3"
}
layer {
  name: "inception_4d/5x5_reduce"
  type: "Convolution"
  bottom: "inception_4c/output"
  top: "inception_4d/5x5_reduce"
  param {
    lr_mult: 1
    decay_mult: 1
  }
  param {
    lr_mult: 2
    decay_mult: 0
  }
  convolution_param {
    num_output: 32
    kernel_size: 1
    weight_filler {
      type: "xavier"
      std: 0.2
    }
    bias_filler {
      type: "constant"
      value: 0.2
    }
  }
}
layer {
  name: "inception_4d/relu_5x5_reduce"
  type: "ReLU"
  bottom: "inception_4d/5x5_reduce"
  top: "inception_4d/5x5_reduce"
}
layer {
  name: "inception_4d/5x5"
  type: "Convolution"
  bottom: "inception_4d/5x5_reduce"
  top: "inception_4d/5x5"
  param {
    lr_mult: 1
    decay_mult: 1
  }
  param {
    lr_mult: 2
    decay_mult: 0
  }
  convolution_param {
    num_output: 64
    pad: 2
    kernel_size: 5
    weight_filler {
      type: "xavier"
      std: 0.03
    }
    bias_filler {
      type: "constant"
      value: 0.2
    }
  }
}
layer {
  name: "inception_4d/relu_5x5"
  type: "ReLU"
  bottom: "inception_4d/5x5"
  top: "inception_4d/5x5"
}
layer {
  name: "inception_4d/pool"
  type: "Pooling"
  bottom: "inception_4c/output"
  top: "inception_4d/pool"
  pooling_param {
    pool: MAX
    kernel_size: 3
    stride: 1
    pad: 1
  }
}
layer {
  name: "inception_4d/pool_proj"
  type: "Convolution"
  bottom: "inception_4d/pool"
  top: "inception_4d/pool_proj"
  param {
    lr_mult: 1
    decay_mult: 1
  }
  param {
    lr_mult: 2
    decay_mult: 0
  }
  convolution_param {
    num_output: 64
    kernel_size: 1
    weight_filler {
      type: "xavier"
      std: 0.1
    }
    bias_filler {
      type: "constant"
      value: 0.2
    }
  }
}
layer {
  name: "inception_4d/relu_pool_proj"
  type: "ReLU"
  bottom: "inception_4d/pool_proj"
  top: "inception_4d/pool_proj"
}
layer {
  name: "inception_4d/output"
  type: "Concat"
  bottom: "inception_4d/1x1"
  bottom: "inception_4d/3x3"
  bottom: "inception_4d/5x5"
  bottom: "inception_4d/pool_proj"
  top: "inception_4d/output"
}
layer {
  name: "loss2/ave_pool"
  type: "Pooling"
  bottom: "inception_4d/output"
  top: "loss2/ave_pool"
  pooling_param {
    pool: AVE
    kernel_size: 5
    stride: 3
  }
}
layer {
  name: "loss2/conv"
  type: "Convolution"
  bottom: "loss2/ave_pool"
  top: "loss2/conv"
  param {
    lr_mult: 1
    decay_mult: 1
  }
  param {
    lr_mult: 2
    decay_mult: 0
  }
  convolution_param {
    num_output: 128
    kernel_size: 1
    weight_filler {
      type: "xavier"
      std: 0.08
    }
    bias_filler {
      type: "constant"
      value: 0.2
    }
  }
}
layer {
  name: "loss2/relu_conv"
  type: "ReLU"
  bottom: "loss2/conv"
  top: "loss2/conv"
}
layer {
  name: "loss2/fc"
  type: "InnerProduct"
  bottom: "loss2/conv"
  top: "loss2/fc"
  param {
    lr_mult: 1
    decay_mult: 1
  }
  param {
    lr_mult: 2
    decay_mult: 0
  }
  inner_product_param {
    num_output: 1024
    weight_filler {
      type: "xavier"
      std: 0.02
    }
    bias_filler {
      type: "constant"
      value: 0.2
    }
  }
}
layer {
  name: "loss2/relu_fc"
  type: "ReLU"
  bottom: "loss2/fc"
  top: "loss2/fc"
}
layer {
  name: "loss2/drop_fc"
  type: "Dropout"
  bottom: "loss2/fc"
  top: "loss2/fc"
  dropout_param {
    dropout_ratio: 0.7
  }
}
layer {
  name: "loss2/classifier_plantvillage"
  type: "InnerProduct"
  bottom: "loss2/fc"
  top: "loss2/classifier_plantvillage"
  param {
    lr_mult: 1
    decay_mult: 1
  }
  param {
    lr_mult: 2
    decay_mult: 0
  }
  inner_product_param {
    num_output: 38
    weight_filler {
      type: "xavier"
      std: 0.0009765625
    }
    bias_filler {
      type: "constant"
      value: 0
    }
  }
}
layer {
  name: "inception_4e/1x1"
  type: "Convolution"
  bottom: "inception_4d/output"
  top: "inception_4e/1x1"
  param {
    lr_mult: 1
    decay_mult: 1
  }
  param {
    lr_mult: 2
    decay_mult: 0
  }
  convolution_param {
    num_output: 256
    kernel_size: 1
    weight_filler {
      type: "xavier"
      std: 0.03
    }
    bias_filler {
      type: "constant"
      value: 0.2
    }
  }
}
layer {
  name: "inception_4e/relu_1x1"
  type: "ReLU"
  bottom: "inception_4e/1x1"
  top: "inception_4e/1x1"
}
layer {
  name: "inception_4e/3x3_reduce"
  type: "Convolution"
  bottom: "inception_4d/output"
  top: "inception_4e/3x3_reduce"
  param {
    lr_mult: 1
    decay_mult: 1
  }
  param {
    lr_mult: 2
    decay_mult: 0
  }
  convolution_param {
    num_output: 160
    kernel_size: 1
    weight_filler {
      type: "xavier"
      std: 0.09
    }
    bias_filler {
      type: "constant"
      value: 0.2
    }
  }
}
layer {
  name: "inception_4e/relu_3x3_reduce"
  type: "ReLU"
  bottom: "inception_4e/3x3_reduce"
  top: "inception_4e/3x3_reduce"
}
layer {
  name: "inception_4e/3x3"
  type: "Convolution"
  bottom: "inception_4e/3x3_reduce"
  top: "inception_4e/3x3"
  param {
    lr_mult: 1
    decay_mult: 1
  }
  param {
    lr_mult: 2
    decay_mult: 0
  }
  convolution_param {
    num_output: 320
    pad: 1
    kernel_size: 3
    weight_filler {
      type: "xavier"
      std: 0.03
    }
    bias_filler {
      type: "constant"
      value: 0.2
    }
  }
}
layer {
  name: "inception_4e/relu_3x3"
  type: "ReLU"
  bottom: "inception_4e/3x3"
  top: "inception_4e/3x3"
}
layer {
  name: "inception_4e/5x5_reduce"
  type: "Convolution"
  bottom: "inception_4d/output"
  top: "inception_4e/5x5_reduce"
  param {
    lr_mult: 1
    decay_mult: 1
  }
  param {
    lr_mult: 2
    decay_mult: 0
  }
  convolution_param {
    num_output: 32
    kernel_size: 1
    weight_filler {
      type: "xavier"
      std: 0.2
    }
    bias_filler {
      type: "constant"
      value: 0.2
    }
  }
}
layer {
  name: "inception_4e/relu_5x5_reduce"
  type: "ReLU"
  bottom: "inception_4e/5x5_reduce"
  top: "inception_4e/5x5_reduce"
}
layer {
  name: "inception_4e/5x5"
  type: "Convolution"
  bottom: "inception_4e/5x5_reduce"
  top: "inception_4e/
I0403 16:43:56.919597 19083 layer_factory.hpp:77] Creating layer data
I0403 16:43:56.920431 19083 net.cpp:91] Creating Layer data
I0403 16:43:56.920478 19083 net.cpp:399] data -> data
I0403 16:43:56.920547 19083 net.cpp:399] data -> label
I0403 16:43:56.920595 19083 data_transformer.cpp:25] Loading mean file from: /home/mohanty/data/final_dataset/lmdb/segmented-20-80/mean.binaryproto
I0403 16:43:56.922009 19086 db_lmdb.cpp:38] Opened lmdb /home/mohanty/data/final_dataset/lmdb/segmented-20-80/test_db
I0403 16:43:56.937144 19083 data_layer.cpp:41] output data size: 24,3,224,224
I0403 16:43:56.964213 19083 net.cpp:141] Setting up data
I0403 16:43:56.964290 19083 net.cpp:148] Top shape: 24 3 224 224 (3612672)
I0403 16:43:56.964311 19083 net.cpp:148] Top shape: 24 (24)
I0403 16:43:56.964326 19083 net.cpp:156] Memory required for data: 14450784
I0403 16:43:56.964351 19083 layer_factory.hpp:77] Creating layer label_data_1_split
I0403 16:43:56.964376 19083 net.cpp:91] Creating Layer label_data_1_split
I0403 16:43:56.964393 19083 net.cpp:425] label_data_1_split <- label
I0403 16:43:56.964426 19083 net.cpp:399] label_data_1_split -> label_data_1_split_0
I0403 16:43:56.964452 19083 net.cpp:399] label_data_1_split -> label_data_1_split_1
I0403 16:43:56.964473 19083 net.cpp:399] label_data_1_split -> label_data_1_split_2
I0403 16:43:56.964493 19083 net.cpp:399] label_data_1_split -> label_data_1_split_3
I0403 16:43:56.964512 19083 net.cpp:399] label_data_1_split -> label_data_1_split_4
I0403 16:43:56.964531 19083 net.cpp:399] label_data_1_split -> label_data_1_split_5
I0403 16:43:56.964550 19083 net.cpp:399] label_data_1_split -> label_data_1_split_6
I0403 16:43:56.964570 19083 net.cpp:399] label_data_1_split -> label_data_1_split_7
I0403 16:43:56.964588 19083 net.cpp:399] label_data_1_split -> label_data_1_split_8
I0403 16:43:56.964619 19083 net.cpp:399] label_data_1_split -> label_data_1_split_9
I0403 16:43:56.964737 19083 net.cpp:141] Setting up label_data_1_split
I0403 16:43:56.964759 19083 net.cpp:148] Top shape: 24 (24)
I0403 16:43:56.964776 19083 net.cpp:148] Top shape: 24 (24)
I0403 16:43:56.964792 19083 net.cpp:148] Top shape: 24 (24)
I0403 16:43:56.964807 19083 net.cpp:148] Top shape: 24 (24)
I0403 16:43:56.964821 19083 net.cpp:148] Top shape: 24 (24)
I0403 16:43:56.964835 19083 net.cpp:148] Top shape: 24 (24)
I0403 16:43:56.964850 19083 net.cpp:148] Top shape: 24 (24)
I0403 16:43:56.964864 19083 net.cpp:148] Top shape: 24 (24)
I0403 16:43:56.964879 19083 net.cpp:148] Top shape: 24 (24)
I0403 16:43:56.964895 19083 net.cpp:148] Top shape: 24 (24)
I0403 16:43:56.964946 19083 net.cpp:156] Memory required for data: 14451744
I0403 16:43:56.964962 19083 layer_factory.hpp:77] Creating layer conv1/7x7_s2
I0403 16:43:56.964992 19083 net.cpp:91] Creating Layer conv1/7x7_s2
I0403 16:43:56.965009 19083 net.cpp:425] conv1/7x7_s2 <- data
I0403 16:43:56.965029 19083 net.cpp:399] conv1/7x7_s2 -> conv1/7x7_s2
I0403 16:43:57.103714 19083 net.cpp:141] Setting up conv1/7x7_s2
I0403 16:43:57.103790 19083 net.cpp:148] Top shape: 24 64 112 112 (19267584)
I0403 16:43:57.103806 19083 net.cpp:156] Memory required for data: 91522080
I0403 16:43:57.103835 19083 layer_factory.hpp:77] Creating layer conv1/relu_7x7
I0403 16:43:57.103860 19083 net.cpp:91] Creating Layer conv1/relu_7x7
I0403 16:43:57.103878 19083 net.cpp:425] conv1/relu_7x7 <- conv1/7x7_s2
I0403 16:43:57.103896 19083 net.cpp:386] conv1/relu_7x7 -> conv1/7x7_s2 (in-place)
I0403 16:43:57.104145 19083 net.cpp:141] Setting up conv1/relu_7x7
I0403 16:43:57.104171 19083 net.cpp:148] Top shape: 24 64 112 112 (19267584)
I0403 16:43:57.104184 19083 net.cpp:156] Memory required for data: 168592416
I0403 16:43:57.104197 19083 layer_factory.hpp:77] Creating layer pool1/3x3_s2
I0403 16:43:57.104221 19083 net.cpp:91] Creating Layer pool1/3x3_s2
I0403 16:43:57.104238 19083 net.cpp:425] pool1/3x3_s2 <- conv1/7x7_s2
I0403 16:43:57.104255 19083 net.cpp:399] pool1/3x3_s2 -> pool1/3x3_s2
I0403 16:43:57.104326 19083 net.cpp:141] Setting up pool1/3x3_s2
I0403 16:43:57.104348 19083 net.cpp:148] Top shape: 24 64 56 56 (4816896)
I0403 16:43:57.104363 19083 net.cpp:156] Memory required for data: 187860000
I0403 16:43:57.104377 19083 layer_factory.hpp:77] Creating layer pool1/norm1
I0403 16:43:57.104399 19083 net.cpp:91] Creating Layer pool1/norm1
I0403 16:43:57.104416 19083 net.cpp:425] pool1/norm1 <- pool1/3x3_s2
I0403 16:43:57.104432 19083 net.cpp:399] pool1/norm1 -> pool1/norm1
I0403 16:43:57.104717 19083 net.cpp:141] Setting up pool1/norm1
I0403 16:43:57.104743 19083 net.cpp:148] Top shape: 24 64 56 56 (4816896)
I0403 16:43:57.104758 19083 net.cpp:156] Memory required for data: 207127584
I0403 16:43:57.104771 19083 layer_factory.hpp:77] Creating layer conv2/3x3_reduce
I0403 16:43:57.104794 19083 net.cpp:91] Creating Layer conv2/3x3_reduce
I0403 16:43:57.104810 19083 net.cpp:425] conv2/3x3_reduce <- pool1/norm1
I0403 16:43:57.104827 19083 net.cpp:399] conv2/3x3_reduce -> conv2/3x3_reduce
I0403 16:43:57.106107 19083 net.cpp:141] Setting up conv2/3x3_reduce
I0403 16:43:57.106137 19083 net.cpp:148] Top shape: 24 64 56 56 (4816896)
I0403 16:43:57.106151 19083 net.cpp:156] Memory required for data: 226395168
I0403 16:43:57.106171 19083 layer_factory.hpp:77] Creating layer conv2/relu_3x3_reduce
I0403 16:43:57.106189 19083 net.cpp:91] Creating Layer conv2/relu_3x3_reduce
I0403 16:43:57.106204 19083 net.cpp:425] conv2/relu_3x3_reduce <- conv2/3x3_reduce
I0403 16:43:57.106221 19083 net.cpp:386] conv2/relu_3x3_reduce -> conv2/3x3_reduce (in-place)
I0403 16:43:57.106462 19083 net.cpp:141] Setting up conv2/relu_3x3_reduce
I0403 16:43:57.106487 19083 net.cpp:148] Top shape: 24 64 56 56 (4816896)
I0403 16:43:57.106501 19083 net.cpp:156] Memory required for data: 245662752
I0403 16:43:57.106516 19083 layer_factory.hpp:77] Creating layer conv2/3x3
I0403 16:43:57.106537 19083 net.cpp:91] Creating Layer conv2/3x3
I0403 16:43:57.106554 19083 net.cpp:425] conv2/3x3 <- conv2/3x3_reduce
I0403 16:43:57.106571 19083 net.cpp:399] conv2/3x3 -> conv2/3x3
I0403 16:43:57.108727 19083 net.cpp:141] Setting up conv2/3x3
I0403 16:43:57.108757 19083 net.cpp:148] Top shape: 24 192 56 56 (14450688)
I0403 16:43:57.108772 19083 net.cpp:156] Memory required for data: 303465504
I0403 16:43:57.108791 19083 layer_factory.hpp:77] Creating layer conv2/relu_3x3
I0403 16:43:57.108809 19083 net.cpp:91] Creating Layer conv2/relu_3x3
I0403 16:43:57.108824 19083 net.cpp:425] conv2/relu_3x3 <- conv2/3x3
I0403 16:43:57.108840 19083 net.cpp:386] conv2/relu_3x3 -> conv2/3x3 (in-place)
I0403 16:43:57.108994 19083 net.cpp:141] Setting up conv2/relu_3x3
I0403 16:43:57.109019 19083 net.cpp:148] Top shape: 24 192 56 56 (14450688)
I0403 16:43:57.109071 19083 net.cpp:156] Memory required for data: 361268256
I0403 16:43:57.109086 19083 layer_factory.hpp:77] Creating layer conv2/norm2
I0403 16:43:57.109103 19083 net.cpp:91] Creating Layer conv2/norm2
I0403 16:43:57.109125 19083 net.cpp:425] conv2/norm2 <- conv2/3x3
I0403 16:43:57.109141 19083 net.cpp:399] conv2/norm2 -> conv2/norm2
I0403 16:43:57.109424 19083 net.cpp:141] Setting up conv2/norm2
I0403 16:43:57.109450 19083 net.cpp:148] Top shape: 24 192 56 56 (14450688)
I0403 16:43:57.109465 19083 net.cpp:156] Memory required for data: 419071008
I0403 16:43:57.109479 19083 layer_factory.hpp:77] Creating layer pool2/3x3_s2
I0403 16:43:57.109495 19083 net.cpp:91] Creating Layer pool2/3x3_s2
I0403 16:43:57.109510 19083 net.cpp:425] pool2/3x3_s2 <- conv2/norm2
I0403 16:43:57.109526 19083 net.cpp:399] pool2/3x3_s2 -> pool2/3x3_s2
I0403 16:43:57.109573 19083 net.cpp:141] Setting up pool2/3x3_s2
I0403 16:43:57.109596 19083 net.cpp:148] Top shape: 24 192 28 28 (3612672)
I0403 16:43:57.109614 19083 net.cpp:156] Memory required for data: 433521696
I0403 16:43:57.109628 19083 layer_factory.hpp:77] Creating layer pool2/3x3_s2_pool2/3x3_s2_0_split
I0403 16:43:57.109645 19083 net.cpp:91] Creating Layer pool2/3x3_s2_pool2/3x3_s2_0_split
I0403 16:43:57.109659 19083 net.cpp:425] pool2/3x3_s2_pool2/3x3_s2_0_split <- pool2/3x3_s2
I0403 16:43:57.109676 19083 net.cpp:399] pool2/3x3_s2_pool2/3x3_s2_0_split -> pool2/3x3_s2_pool2/3x3_s2_0_split_0
I0403 16:43:57.109695 19083 net.cpp:399] pool2/3x3_s2_pool2/3x3_s2_0_split -> pool2/3x3_s2_pool2/3x3_s2_0_split_1
I0403 16:43:57.109714 19083 net.cpp:399] pool2/3x3_s2_pool2/3x3_s2_0_split -> pool2/3x3_s2_pool2/3x3_s2_0_split_2
I0403 16:43:57.109731 19083 net.cpp:399] pool2/3x3_s2_pool2/3x3_s2_0_split -> pool2/3x3_s2_pool2/3x3_s2_0_split_3
I0403 16:43:57.109793 19083 net.cpp:141] Setting up pool2/3x3_s2_pool2/3x3_s2_0_split
I0403 16:43:57.109814 19083 net.cpp:148] Top shape: 24 192 28 28 (3612672)
I0403 16:43:57.109829 19083 net.cpp:148] Top shape: 24 192 28 28 (3612672)
I0403 16:43:57.109844 19083 net.cpp:148] Top shape: 24 192 28 28 (3612672)
I0403 16:43:57.109859 19083 net.cpp:148] Top shape: 24 192 28 28 (3612672)
I0403 16:43:57.109872 19083 net.cpp:156] Memory required for data: 491324448
I0403 16:43:57.109885 19083 layer_factory.hpp:77] Creating layer inception_3a/1x1
I0403 16:43:57.109905 19083 net.cpp:91] Creating Layer inception_3a/1x1
I0403 16:43:57.109920 19083 net.cpp:425] inception_3a/1x1 <- pool2/3x3_s2_pool2/3x3_s2_0_split_0
I0403 16:43:57.109938 19083 net.cpp:399] inception_3a/1x1 -> inception_3a/1x1
I0403 16:43:57.111405 19083 net.cpp:141] Setting up inception_3a/1x1
I0403 16:43:57.111434 19083 net.cpp:148] Top shape: 24 64 28 28 (1204224)
I0403 16:43:57.111449 19083 net.cpp:156] Memory required for data: 496141344
I0403 16:43:57.111466 19083 layer_factory.hpp:77] Creating layer inception_3a/relu_1x1
I0403 16:43:57.111485 19083 net.cpp:91] Creating Layer inception_3a/relu_1x1
I0403 16:43:57.111498 19083 net.cpp:425] inception_3a/relu_1x1 <- inception_3a/1x1
I0403 16:43:57.111517 19083 net.cpp:386] inception_3a/relu_1x1 -> inception_3a/1x1 (in-place)
I0403 16:43:57.111691 19083 net.cpp:141] Setting up inception_3a/relu_1x1
I0403 16:43:57.111716 19083 net.cpp:148] Top shape: 24 64 28 28 (1204224)
I0403 16:43:57.111729 19083 net.cpp:156] Memory required for data: 500958240
I0403 16:43:57.111743 19083 layer_factory.hpp:77] Creating layer inception_3a/3x3_reduce
I0403 16:43:57.111765 19083 net.cpp:91] Creating Layer inception_3a/3x3_reduce
I0403 16:43:57.111783 19083 net.cpp:425] inception_3a/3x3_reduce <- pool2/3x3_s2_pool2/3x3_s2_0_split_1
I0403 16:43:57.111804 19083 net.cpp:399] inception_3a/3x3_reduce -> inception_3a/3x3_reduce
I0403 16:43:57.113441 19083 net.cpp:141] Setting up inception_3a/3x3_reduce
I0403 16:43:57.113469 19083 net.cpp:148] Top shape: 24 96 28 28 (1806336)
I0403 16:43:57.113484 19083 net.cpp:156] Memory required for data: 508183584
I0403 16:43:57.113504 19083 layer_factory.hpp:77] Creating layer inception_3a/relu_3x3_reduce
I0403 16:43:57.113540 19083 net.cpp:91] Creating Layer inception_3a/relu_3x3_reduce
I0403 16:43:57.113557 19083 net.cpp:425] inception_3a/relu_3x3_reduce <- inception_3a/3x3_reduce
I0403 16:43:57.113574 19083 net.cpp:386] inception_3a/relu_3x3_reduce -> inception_3a/3x3_reduce (in-place)
I0403 16:43:57.113754 19083 net.cpp:141] Setting up inception_3a/relu_3x3_reduce
I0403 16:43:57.113778 19083 net.cpp:148] Top shape: 24 96 28 28 (1806336)
I0403 16:43:57.113792 19083 net.cpp:156] Memory required for data: 515408928
I0403 16:43:57.113806 19083 layer_factory.hpp:77] Creating layer inception_3a/3x3
I0403 16:43:57.113829 19083 net.cpp:91] Creating Layer inception_3a/3x3
I0403 16:43:57.113847 19083 net.cpp:425] inception_3a/3x3 <- inception_3a/3x3_reduce
I0403 16:43:57.113867 19083 net.cpp:399] inception_3a/3x3 -> inception_3a/3x3
I0403 16:43:57.115483 19083 net.cpp:141] Setting up inception_3a/3x3
I0403 16:43:57.115511 19083 net.cpp:148] Top shape: 24 128 28 28 (2408448)
I0403 16:43:57.115526 19083 net.cpp:156] Memory required for data: 525042720
I0403 16:43:57.115545 19083 layer_factory.hpp:77] Creating layer inception_3a/relu_3x3
I0403 16:43:57.115576 19083 net.cpp:91] Creating Layer inception_3a/relu_3x3
I0403 16:43:57.115592 19083 net.cpp:425] inception_3a/relu_3x3 <- inception_3a/3x3
I0403 16:43:57.115614 19083 net.cpp:386] inception_3a/relu_3x3 -> inception_3a/3x3 (in-place)
I0403 16:43:57.115881 19083 net.cpp:141] Setting up inception_3a/relu_3x3
I0403 16:43:57.115907 19083 net.cpp:148] Top shape: 24 128 28 28 (2408448)
I0403 16:43:57.115921 19083 net.cpp:156] Memory required for data: 534676512
I0403 16:43:57.115936 19083 layer_factory.hpp:77] Creating layer inception_3a/5x5_reduce
I0403 16:43:57.115957 19083 net.cpp:91] Creating Layer inception_3a/5x5_reduce
I0403 16:43:57.115973 19083 net.cpp:425] inception_3a/5x5_reduce <- pool2/3x3_s2_pool2/3x3_s2_0_split_2
I0403 16:43:57.115993 19083 net.cpp:399] inception_3a/5x5_reduce -> inception_3a/5x5_reduce
I0403 16:43:57.116927 19083 net.cpp:141] Setting up inception_3a/5x5_reduce
I0403 16:43:57.116953 19083 net.cpp:148] Top shape: 24 16 28 28 (301056)
I0403 16:43:57.116968 19083 net.cpp:156] Memory required for data: 535880736
I0403 16:43:57.116986 19083 layer_factory.hpp:77] Creating layer inception_3a/relu_5x5_reduce
I0403 16:43:57.117004 19083 net.cpp:91] Creating Layer inception_3a/relu_5x5_reduce
I0403 16:43:57.117020 19083 net.cpp:425] inception_3a/relu_5x5_reduce <- inception_3a/5x5_reduce
I0403 16:43:57.117038 19083 net.cpp:386] inception_3a/relu_5x5_reduce -> inception_3a/5x5_reduce (in-place)
I0403 16:43:57.117318 19083 net.cpp:141] Setting up inception_3a/relu_5x5_reduce
I0403 16:43:57.117346 19083 net.cpp:148] Top shape: 24 16 28 28 (301056)
I0403 16:43:57.117360 19083 net.cpp:156] Memory required for data: 537084960
I0403 16:43:57.117375 19083 layer_factory.hpp:77] Creating layer inception_3a/5x5
I0403 16:43:57.117398 19083 net.cpp:91] Creating Layer inception_3a/5x5
I0403 16:43:57.117413 19083 net.cpp:425] inception_3a/5x5 <- inception_3a/5x5_reduce
I0403 16:43:57.117431 19083 net.cpp:399] inception_3a/5x5 -> inception_3a/5x5
I0403 16:43:57.118410 19083 net.cpp:141] Setting up inception_3a/5x5
I0403 16:43:57.118438 19083 net.cpp:148] Top shape: 24 32 28 28 (602112)
I0403 16:43:57.118453 19083 net.cpp:156] Memory required for data: 539493408
I0403 16:43:57.118470 19083 layer_factory.hpp:77] Creating layer inception_3a/relu_5x5
I0403 16:43:57.118489 19083 net.cpp:91] Creating Layer inception_3a/relu_5x5
I0403 16:43:57.118505 19083 net.cpp:425] inception_3a/relu_5x5 <- inception_3a/5x5
I0403 16:43:57.118522 19083 net.cpp:386] inception_3a/relu_5x5 -> inception_3a/5x5 (in-place)
I0403 16:43:57.118693 19083 net.cpp:141] Setting up inception_3a/relu_5x5
I0403 16:43:57.118722 19083 net.cpp:148] Top shape: 24 32 28 28 (602112)
I0403 16:43:57.118737 19083 net.cpp:156] Memory required for data: 541901856
I0403 16:43:57.118752 19083 layer_factory.hpp:77] Creating layer inception_3a/pool
I0403 16:43:57.118768 19083 net.cpp:91] Creating Layer inception_3a/pool
I0403 16:43:57.118798 19083 net.cpp:425] inception_3a/pool <- pool2/3x3_s2_pool2/3x3_s2_0_split_3
I0403 16:43:57.118815 19083 net.cpp:399] inception_3a/pool -> inception_3a/pool
I0403 16:43:57.118871 19083 net.cpp:141] Setting up inception_3a/pool
I0403 16:43:57.118893 19083 net.cpp:148] Top shape: 24 192 28 28 (3612672)
I0403 16:43:57.118906 19083 net.cpp:156] Memory required for data: 556352544
I0403 16:43:57.118921 19083 layer_factory.hpp:77] Creating layer inception_3a/pool_proj
I0403 16:43:57.118940 19083 net.cpp:91] Creating Layer inception_3a/pool_proj
I0403 16:43:57.118957 19083 net.cpp:425] inception_3a/pool_proj <- inception_3a/pool
I0403 16:43:57.118978 19083 net.cpp:399] inception_3a/pool_proj -> inception_3a/pool_proj
I0403 16:43:57.119910 19083 net.cpp:141] Setting up inception_3a/pool_proj
I0403 16:43:57.119936 19083 net.cpp:148] Top shape: 24 32 28 28 (602112)
I0403 16:43:57.119952 19083 net.cpp:156] Memory required for data: 558760992
I0403 16:43:57.119972 19083 layer_factory.hpp:77] Creating layer inception_3a/relu_pool_proj
I0403 16:43:57.119992 19083 net.cpp:91] Creating Layer inception_3a/relu_pool_proj
I0403 16:43:57.120009 19083 net.cpp:425] inception_3a/relu_pool_proj <- inception_3a/pool_proj
I0403 16:43:57.120025 19083 net.cpp:386] inception_3a/relu_pool_proj -> inception_3a/pool_proj (in-place)
I0403 16:43:57.120287 19083 net.cpp:141] Setting up inception_3a/relu_pool_proj
I0403 16:43:57.120312 19083 net.cpp:148] Top shape: 24 32 28 28 (602112)
I0403 16:43:57.120326 19083 net.cpp:156] Memory required for data: 561169440
I0403 16:43:57.120340 19083 layer_factory.hpp:77] Creating layer inception_3a/output
I0403 16:43:57.120357 19083 net.cpp:91] Creating Layer inception_3a/output
I0403 16:43:57.120373 19083 net.cpp:425] inception_3a/output <- inception_3a/1x1
I0403 16:43:57.120390 19083 net.cpp:425] inception_3a/output <- inception_3a/3x3
I0403 16:43:57.120406 19083 net.cpp:425] inception_3a/output <- inception_3a/5x5
I0403 16:43:57.120421 19083 net.cpp:425] inception_3a/output <- inception_3a/pool_proj
I0403 16:43:57.120437 19083 net.cpp:399] inception_3a/output -> inception_3a/output
I0403 16:43:57.120483 19083 net.cpp:141] Setting up inception_3a/output
I0403 16:43:57.120506 19083 net.cpp:148] Top shape: 24 256 28 28 (4816896)
I0403 16:43:57.120519 19083 net.cpp:156] Memory required for data: 580437024
I0403 16:43:57.120533 19083 layer_factory.hpp:77] Creating layer inception_3a/output_inception_3a/output_0_split
I0403 16:43:57.120549 19083 net.cpp:91] Creating Layer inception_3a/output_inception_3a/output_0_split
I0403 16:43:57.120563 19083 net.cpp:425] inception_3a/output_inception_3a/output_0_split <- inception_3a/output
I0403 16:43:57.120582 19083 net.cpp:399] inception_3a/output_inception_3a/output_0_split -> inception_3a/output_inception_3a/output_0_split_0
I0403 16:43:57.120605 19083 net.cpp:399] inception_3a/output_inception_3a/output_0_split -> inception_3a/output_inception_3a/output_0_split_1
I0403 16:43:57.120630 19083 net.cpp:399] inception_3a/output_inception_3a/output_0_split -> inception_3a/output_inception_3a/output_0_split_2
I0403 16:43:57.120652 19083 net.cpp:399] inception_3a/output_inception_3a/output_0_split -> inception_3a/output_inception_3a/output_0_split_3
I0403 16:43:57.120725 19083 net.cpp:141] Setting up inception_3a/output_inception_3a/output_0_split
I0403 16:43:57.120748 19083 net.cpp:148] Top shape: 24 256 28 28 (4816896)
I0403 16:43:57.120762 19083 net.cpp:148] Top shape: 24 256 28 28 (4816896)
I0403 16:43:57.120777 19083 net.cpp:148] Top shape: 24 256 28 28 (4816896)
I0403 16:43:57.120792 19083 net.cpp:148] Top shape: 24 256 28 28 (4816896)
I0403 16:43:57.120805 19083 net.cpp:156] Memory required for data: 657507360
I0403 16:43:57.120821 19083 layer_factory.hpp:77] Creating layer inception_3b/1x1
I0403 16:43:57.120842 19083 net.cpp:91] Creating Layer inception_3b/1x1
I0403 16:43:57.120859 19083 net.cpp:425] inception_3b/1x1 <- inception_3a/output_inception_3a/output_0_split_0
I0403 16:43:57.120878 19083 net.cpp:399] inception_3b/1x1 -> inception_3b/1x1
I0403 16:43:57.121974 19083 net.cpp:141] Setting up inception_3b/1x1
I0403 16:43:57.122011 19083 net.cpp:148] Top shape: 24 128 28 28 (2408448)
I0403 16:43:57.122027 19083 net.cpp:156] Memory required for data: 667141152
I0403 16:43:57.122045 19083 layer_factory.hpp:77] Creating layer inception_3b/relu_1x1
I0403 16:43:57.122061 19083 net.cpp:91] Creating Layer inception_3b/relu_1x1
I0403 16:43:57.122081 19083 net.cpp:425] inception_3b/relu_1x1 <- inception_3b/1x1
I0403 16:43:57.122097 19083 net.cpp:386] inception_3b/relu_1x1 -> inception_3b/1x1 (in-place)
I0403 16:43:57.122269 19083 net.cpp:141] Setting up inception_3b/relu_1x1
I0403 16:43:57.122295 19083 net.cpp:148] Top shape: 24 128 28 28 (2408448)
I0403 16:43:57.122308 19083 net.cpp:156] Memory required for data: 676774944
I0403 16:43:57.122323 19083 layer_factory.hpp:77] Creating layer inception_3b/3x3_reduce
I0403 16:43:57.122344 19083 net.cpp:91] Creating Layer inception_3b/3x3_reduce
I0403 16:43:57.122360 19083 net.cpp:425] inception_3b/3x3_reduce <- inception_3a/output_inception_3a/output_0_split_1
I0403 16:43:57.122381 19083 net.cpp:399] inception_3b/3x3_reduce -> inception_3b/3x3_reduce
I0403 16:43:57.123517 19083 net.cpp:141] Setting up inception_3b/3x3_reduce
I0403 16:43:57.123544 19083 net.cpp:148] Top shape: 24 128 28 28 (2408448)
I0403 16:43:57.123559 19083 net.cpp:156] Memory required for data: 686408736
I0403 16:43:57.123576 19083 layer_factory.hpp:77] Creating layer inception_3b/relu_3x3_reduce
I0403 16:43:57.123594 19083 net.cpp:91] Creating Layer inception_3b/relu_3x3_reduce
I0403 16:43:57.123615 19083 net.cpp:425] inception_3b/relu_3x3_reduce <- inception_3b/3x3_reduce
I0403 16:43:57.123636 19083 net.cpp:386] inception_3b/relu_3x3_reduce -> inception_3b/3x3_reduce (in-place)
I0403 16:43:57.123811 19083 net.cpp:141] Setting up inception_3b/relu_3x3_reduce
I0403 16:43:57.123836 19083 net.cpp:148] Top shape: 24 128 28 28 (2408448)
I0403 16:43:57.123849 19083 net.cpp:156] Memory required for data: 696042528
I0403 16:43:57.123864 19083 layer_factory.hpp:77] Creating layer inception_3b/3x3
I0403 16:43:57.123889 19083 net.cpp:91] Creating Layer inception_3b/3x3
I0403 16:43:57.123908 19083 net.cpp:425] inception_3b/3x3 <- inception_3b/3x3_reduce
I0403 16:43:57.123925 19083 net.cpp:399] inception_3b/3x3 -> inception_3b/3x3
I0403 16:43:57.126844 19083 net.cpp:141] Setting up inception_3b/3x3
I0403 16:43:57.126873 19083 net.cpp:148] Top shape: 24 192 28 28 (3612672)
I0403 16:43:57.126888 19083 net.cpp:156] Memory required for data: 710493216
I0403 16:43:57.126906 19083 layer_factory.hpp:77] Creating layer inception_3b/relu_3x3
I0403 16:43:57.126926 19083 net.cpp:91] Creating Layer inception_3b/relu_3x3
I0403 16:43:57.126942 19083 net.cpp:425] inception_3b/relu_3x3 <- inception_3b/3x3
I0403 16:43:57.126960 19083 net.cpp:386] inception_3b/relu_3x3 -> inception_3b/3x3 (in-place)
I0403 16:43:57.127236 19083 net.cpp:141] Setting up inception_3b/relu_3x3
I0403 16:43:57.127264 19083 net.cpp:148] Top shape: 24 192 28 28 (3612672)
I0403 16:43:57.127277 19083 net.cpp:156] Memory required for data: 724943904
I0403 16:43:57.127292 19083 layer_factory.hpp:77] Creating layer inception_3b/5x5_reduce
I0403 16:43:57.127315 19083 net.cpp:91] Creating Layer inception_3b/5x5_reduce
I0403 16:43:57.127332 19083 net.cpp:425] inception_3b/5x5_reduce <- inception_3a/output_inception_3a/output_0_split_2
I0403 16:43:57.127353 19083 net.cpp:399] inception_3b/5x5_reduce -> inception_3b/5x5_reduce
I0403 16:43:57.128340 19083 net.cpp:141] Setting up inception_3b/5x5_reduce
I0403 16:43:57.128367 19083 net.cpp:148] Top shape: 24 32 28 28 (602112)
I0403 16:43:57.128382 19083 net.cpp:156] Memory required for data: 727352352
I0403 16:43:57.128401 19083 layer_factory.hpp:77] Creating layer inception_3b/relu_5x5_reduce
I0403 16:43:57.128419 19083 net.cpp:91] Creating Layer inception_3b/relu_5x5_reduce
I0403 16:43:57.128437 19083 net.cpp:425] inception_3b/relu_5x5_reduce <- inception_3b/5x5_reduce
I0403 16:43:57.128453 19083 net.cpp:386] inception_3b/relu_5x5_reduce -> inception_3b/5x5_reduce (in-place)
I0403 16:43:57.128646 19083 net.cpp:141] Setting up inception_3b/relu_5x5_reduce
I0403 16:43:57.128674 19083 net.cpp:148] Top shape: 24 32 28 28 (602112)
I0403 16:43:57.128690 19083 net.cpp:156] Memory required for data: 729760800
I0403 16:43:57.128705 19083 layer_factory.hpp:77] Creating layer inception_3b/5x5
I0403 16:43:57.128726 19083 net.cpp:91] Creating Layer inception_3b/5x5
I0403 16:43:57.128743 19083 net.cpp:425] inception_3b/5x5 <- inception_3b/5x5_reduce
I0403 16:43:57.128762 19083 net.cpp:399] inception_3b/5x5 -> inception_3b/5x5
I0403 16:43:57.130734 19083 net.cpp:141] Setting up inception_3b/5x5
I0403 16:43:57.130762 19083 net.cpp:148] Top shape: 24 96 28 28 (1806336)
I0403 16:43:57.130779 19083 net.cpp:156] Memory required for data: 736986144
I0403 16:43:57.130796 19083 layer_factory.hpp:77] Creating layer inception_3b/relu_5x5
I0403 16:43:57.130813 19083 net.cpp:91] Creating Layer inception_3b/relu_5x5
I0403 16:43:57.130830 19083 net.cpp:425] inception_3b/relu_5x5 <- inception_3b/5x5
I0403 16:43:57.130848 19083 net.cpp:386] inception_3b/relu_5x5 -> inception_3b/5x5 (in-place)
I0403 16:43:57.131039 19083 net.cpp:141] Setting up inception_3b/relu_5x5
I0403 16:43:57.131064 19083 net.cpp:148] Top shape: 24 96 28 28 (1806336)
I0403 16:43:57.131078 19083 net.cpp:156] Memory required for data: 744211488
I0403 16:43:57.131093 19083 layer_factory.hpp:77] Creating layer inception_3b/pool
I0403 16:43:57.131110 19083 net.cpp:91] Creating Layer inception_3b/pool
I0403 16:43:57.131125 19083 net.cpp:425] inception_3b/pool <- inception_3a/output_inception_3a/output_0_split_3
I0403 16:43:57.131144 19083 net.cpp:399] inception_3b/pool -> inception_3b/pool
I0403 16:43:57.131198 19083 net.cpp:141] Setting up inception_3b/pool
I0403 16:43:57.131220 19083 net.cpp:148] Top shape: 24 256 28 28 (4816896)
I0403 16:43:57.131234 19083 net.cpp:156] Memory required for data: 763479072
I0403 16:43:57.131247 19083 layer_factory.hpp:77] Creating layer inception_3b/pool_proj
I0403 16:43:57.131269 19083 net.cpp:91] Creating Layer inception_3b/pool_proj
I0403 16:43:57.131286 19083 net.cpp:425] inception_3b/pool_proj <- inception_3b/pool
I0403 16:43:57.131309 19083 net.cpp:399] inception_3b/pool_proj -> inception_3b/pool_proj
I0403 16:43:57.132352 19083 net.cpp:141] Setting up inception_3b/pool_proj
I0403 16:43:57.132382 19083 net.cpp:148] Top shape: 24 64 28 28 (1204224)
I0403 16:43:57.132398 19083 net.cpp:156] Memory required for data: 768295968
I0403 16:43:57.132416 19083 layer_factory.hpp:77] Creating layer inception_3b/relu_pool_proj
I0403 16:43:57.132434 19083 net.cpp:91] Creating Layer inception_3b/relu_pool_proj
I0403 16:43:57.132450 19083 net.cpp:425] inception_3b/relu_pool_proj <- inception_3b/pool_proj
I0403 16:43:57.132467 19083 net.cpp:386] inception_3b/relu_pool_proj -> inception_3b/pool_proj (in-place)
I0403 16:43:57.132861 19083 net.cpp:141] Setting up inception_3b/relu_pool_proj
I0403 16:43:57.132887 19083 net.cpp:148] Top shape: 24 64 28 28 (1204224)
I0403 16:43:57.132902 19083 net.cpp:156] Memory required for data: 773112864
I0403 16:43:57.132917 19083 layer_factory.hpp:77] Creating layer inception_3b/output
I0403 16:43:57.132944 19083 net.cpp:91] Creating Layer inception_3b/output
I0403 16:43:57.132961 19083 net.cpp:425] inception_3b/output <- inception_3b/1x1
I0403 16:43:57.132977 19083 net.cpp:425] inception_3b/output <- inception_3b/3x3
I0403 16:43:57.132992 19083 net.cpp:425] inception_3b/output <- inception_3b/5x5
I0403 16:43:57.133008 19083 net.cpp:425] inception_3b/output <- inception_3b/pool_proj
I0403 16:43:57.133024 19083 net.cpp:399] inception_3b/output -> inception_3b/output
I0403 16:43:57.133069 19083 net.cpp:141] Setting up inception_3b/output
I0403 16:43:57.133092 19083 net.cpp:148] Top shape: 24 480 28 28 (9031680)
I0403 16:43:57.133105 19083 net.cpp:156] Memory required for data: 809239584
I0403 16:43:57.133119 19083 layer_factory.hpp:77] Creating layer pool3/3x3_s2
I0403 16:43:57.133136 19083 net.cpp:91] Creating Layer pool3/3x3_s2
I0403 16:43:57.133152 19083 net.cpp:425] pool3/3x3_s2 <- inception_3b/output
I0403 16:43:57.133185 19083 net.cpp:399] pool3/3x3_s2 -> pool3/3x3_s2
I0403 16:43:57.133244 19083 net.cpp:141] Setting up pool3/3x3_s2
I0403 16:43:57.133267 19083 net.cpp:148] Top shape: 24 480 14 14 (2257920)
I0403 16:43:57.133281 19083 net.cpp:156] Memory required for data: 818271264
I0403 16:43:57.133296 19083 layer_factory.hpp:77] Creating layer pool3/3x3_s2_pool3/3x3_s2_0_split
I0403 16:43:57.133316 19083 net.cpp:91] Creating Layer pool3/3x3_s2_pool3/3x3_s2_0_split
I0403 16:43:57.133332 19083 net.cpp:425] pool3/3x3_s2_pool3/3x3_s2_0_split <- pool3/3x3_s2
I0403 16:43:57.133350 19083 net.cpp:399] pool3/3x3_s2_pool3/3x3_s2_0_split -> pool3/3x3_s2_pool3/3x3_s2_0_split_0
I0403 16:43:57.133370 19083 net.cpp:399] pool3/3x3_s2_pool3/3x3_s2_0_split -> pool3/3x3_s2_pool3/3x3_s2_0_split_1
I0403 16:43:57.133389 19083 net.cpp:399] pool3/3x3_s2_pool3/3x3_s2_0_split -> pool3/3x3_s2_pool3/3x3_s2_0_split_2
I0403 16:43:57.133409 19083 net.cpp:399] pool3/3x3_s2_pool3/3x3_s2_0_split -> pool3/3x3_s2_pool3/3x3_s2_0_split_3
I0403 16:43:57.133482 19083 net.cpp:141] Setting up pool3/3x3_s2_pool3/3x3_s2_0_split
I0403 16:43:57.133507 19083 net.cpp:148] Top shape: 24 480 14 14 (2257920)
I0403 16:43:57.133524 19083 net.cpp:148] Top shape: 24 480 14 14 (2257920)
I0403 16:43:57.133539 19083 net.cpp:148] Top shape: 24 480 14 14 (2257920)
I0403 16:43:57.133554 19083 net.cpp:148] Top shape: 24 480 14 14 (2257920)
I0403 16:43:57.133568 19083 net.cpp:156] Memory required for data: 854397984
I0403 16:43:57.133582 19083 layer_factory.hpp:77] Creating layer inception_4a/1x1
I0403 16:43:57.133607 19083 net.cpp:91] Creating Layer inception_4a/1x1
I0403 16:43:57.133625 19083 net.cpp:425] inception_4a/1x1 <- pool3/3x3_s2_pool3/3x3_s2_0_split_0
I0403 16:43:57.133644 19083 net.cpp:399] inception_4a/1x1 -> inception_4a/1x1
I0403 16:43:57.135211 19083 net.cpp:141] Setting up inception_4a/1x1
I0403 16:43:57.135241 19083 net.cpp:148] Top shape: 24 192 14 14 (903168)
I0403 16:43:57.135257 19083 net.cpp:156] Memory required for data: 858010656
I0403 16:43:57.135275 19083 layer_factory.hpp:77] Creating layer inception_4a/relu_1x1
I0403 16:43:57.135294 19083 net.cpp:91] Creating Layer inception_4a/relu_1x1
I0403 16:43:57.135310 19083 net.cpp:425] inception_4a/relu_1x1 <- inception_4a/1x1
I0403 16:43:57.135329 19083 net.cpp:386] inception_4a/relu_1x1 -> inception_4a/1x1 (in-place)
I0403 16:43:57.135504 19083 net.cpp:141] Setting up inception_4a/relu_1x1
I0403 16:43:57.135529 19083 net.cpp:148] Top shape: 24 192 14 14 (903168)
I0403 16:43:57.135543 19083 net.cpp:156] Memory required for data: 861623328
I0403 16:43:57.135557 19083 layer_factory.hpp:77] Creating layer inception_4a/3x3_reduce
I0403 16:43:57.135579 19083 net.cpp:91] Creating Layer inception_4a/3x3_reduce
I0403 16:43:57.135596 19083 net.cpp:425] inception_4a/3x3_reduce <- pool3/3x3_s2_pool3/3x3_s2_0_split_1
I0403 16:43:57.135622 19083 net.cpp:399] inception_4a/3x3_reduce -> inception_4a/3x3_reduce
I0403 16:43:57.136886 19083 net.cpp:141] Setting up inception_4a/3x3_reduce
I0403 16:43:57.136919 19083 net.cpp:148] Top shape: 24 96 14 14 (451584)
I0403 16:43:57.136935 19083 net.cpp:156] Memory required for data: 863429664
I0403 16:43:57.136960 19083 layer_factory.hpp:77] Creating layer inception_4a/relu_3x3_reduce
I0403 16:43:57.136979 19083 net.cpp:91] Creating Layer inception_4a/relu_3x3_reduce
I0403 16:43:57.136996 19083 net.cpp:425] inception_4a/relu_3x3_reduce <- inception_4a/3x3_reduce
I0403 16:43:57.137012 19083 net.cpp:386] inception_4a/relu_3x3_reduce -> inception_4a/3x3_reduce (in-place)
I0403 16:43:57.137188 19083 net.cpp:141] Setting up inception_4a/relu_3x3_reduce
I0403 16:43:57.137212 19083 net.cpp:148] Top shape: 24 96 14 14 (451584)
I0403 16:43:57.137226 19083 net.cpp:156] Memory required for data: 865236000
I0403 16:43:57.137240 19083 layer_factory.hpp:77] Creating layer inception_4a/3x3
I0403 16:43:57.137262 19083 net.cpp:91] Creating Layer inception_4a/3x3
I0403 16:43:57.137279 19083 net.cpp:425] inception_4a/3x3 <- inception_4a/3x3_reduce
I0403 16:43:57.137301 19083 net.cpp:399] inception_4a/3x3 -> inception_4a/3x3
I0403 16:43:57.139988 19083 net.cpp:141] Setting up inception_4a/3x3
I0403 16:43:57.140017 19083 net.cpp:148] Top shape: 24 208 14 14 (978432)
I0403 16:43:57.140033 19083 net.cpp:156] Memory required for data: 869149728
I0403 16:43:57.140049 19083 layer_factory.hpp:77] Creating layer inception_4a/relu_3x3
I0403 16:43:57.140067 19083 net.cpp:91] Creating Layer inception_4a/relu_3x3
I0403 16:43:57.140084 19083 net.cpp:425] inception_4a/relu_3x3 <- inception_4a/3x3
I0403 16:43:57.140102 19083 net.cpp:386] inception_4a/relu_3x3 -> inception_4a/3x3 (in-place)
I0403 16:43:57.140386 19083 net.cpp:141] Setting up inception_4a/relu_3x3
I0403 16:43:57.140413 19083 net.cpp:148] Top shape: 24 208 14 14 (978432)
I0403 16:43:57.140427 19083 net.cpp:156] Memory required for data: 873063456
I0403 16:43:57.140442 19083 layer_factory.hpp:77] Creating layer inception_4a/5x5_reduce
I0403 16:43:57.140463 19083 net.cpp:91] Creating Layer inception_4a/5x5_reduce
I0403 16:43:57.140481 19083 net.cpp:425] inception_4a/5x5_reduce <- pool3/3x3_s2_pool3/3x3_s2_0_split_2
I0403 16:43:57.140503 19083 net.cpp:399] inception_4a/5x5_reduce -> inception_4a/5x5_reduce
I0403 16:43:57.141590 19083 net.cpp:141] Setting up inception_4a/5x5_reduce
I0403 16:43:57.141621 19083 net.cpp:148] Top shape: 24 16 14 14 (75264)
I0403 16:43:57.141638 19083 net.cpp:156] Memory required for data: 873364512
I0403 16:43:57.141656 19083 layer_factory.hpp:77] Creating layer inception_4a/relu_5x5_reduce
I0403 16:43:57.141675 19083 net.cpp:91] Creating Layer inception_4a/relu_5x5_reduce
I0403 16:43:57.141692 19083 net.cpp:425] inception_4a/relu_5x5_reduce <- inception_4a/5x5_reduce
I0403 16:43:57.141721 19083 net.cpp:386] inception_4a/relu_5x5_reduce -> inception_4a/5x5_reduce (in-place)
I0403 16:43:57.141891 19083 net.cpp:141] Setting up inception_4a/relu_5x5_reduce
I0403 16:43:57.141918 19083 net.cpp:148] Top shape: 24 16 14 14 (75264)
I0403 16:43:57.141933 19083 net.cpp:156] Memory required for data: 873665568
I0403 16:43:57.141948 19083 layer_factory.hpp:77] Creating layer inception_4a/5x5
I0403 16:43:57.141968 19083 net.cpp:91] Creating Layer inception_4a/5x5
I0403 16:43:57.141983 19083 net.cpp:425] inception_4a/5x5 <- inception_4a/5x5_reduce
I0403 16:43:57.142004 19083 net.cpp:399] inception_4a/5x5 -> inception_4a/5x5
I0403 16:43:57.143054 19083 net.cpp:141] Setting up inception_4a/5x5
I0403 16:43:57.143081 19083 net.cpp:148] Top shape: 24 48 14 14 (225792)
I0403 16:43:57.143096 19083 net.cpp:156] Memory required for data: 874568736
I0403 16:43:57.143113 19083 layer_factory.hpp:77] Creating layer inception_4a/relu_5x5
I0403 16:43:57.143132 19083 net.cpp:91] Creating Layer inception_4a/relu_5x5
I0403 16:43:57.143148 19083 net.cpp:425] inception_4a/relu_5x5 <- inception_4a/5x5
I0403 16:43:57.143165 19083 net.cpp:386] inception_4a/relu_5x5 -> inception_4a/5x5 (in-place)
I0403 16:43:57.143337 19083 net.cpp:141] Setting up inception_4a/relu_5x5
I0403 16:43:57.143360 19083 net.cpp:148] Top shape: 24 48 14 14 (225792)
I0403 16:43:57.143373 19083 net.cpp:156] Memory required for data: 875471904
I0403 16:43:57.143388 19083 layer_factory.hpp:77] Creating layer inception_4a/pool
I0403 16:43:57.143404 19083 net.cpp:91] Creating Layer inception_4a/pool
I0403 16:43:57.143419 19083 net.cpp:425] inception_4a/pool <- pool3/3x3_s2_pool3/3x3_s2_0_split_3
I0403 16:43:57.143440 19083 net.cpp:399] inception_4a/pool -> inception_4a/pool
I0403 16:43:57.143501 19083 net.cpp:141] Setting up inception_4a/pool
I0403 16:43:57.143523 19083 net.cpp:148] Top shape: 24 480 14 14 (2257920)
I0403 16:43:57.143537 19083 net.cpp:156] Memory required for data: 884503584
I0403 16:43:57.143551 19083 layer_factory.hpp:77] Creating layer inception_4a/pool_proj
I0403 16:43:57.143573 19083 net.cpp:91] Creating Layer inception_4a/pool_proj
I0403 16:43:57.143591 19083 net.cpp:425] inception_4a/pool_proj <- inception_4a/pool
I0403 16:43:57.143615 19083 net.cpp:399] inception_4a/pool_proj -> inception_4a/pool_proj
I0403 16:43:57.144744 19083 net.cpp:141] Setting up inception_4a/pool_proj
I0403 16:43:57.144774 19083 net.cpp:148] Top shape: 24 64 14 14 (301056)
I0403 16:43:57.144804 19083 net.cpp:156] Memory required for data: 885707808
I0403 16:43:57.144821 19083 layer_factory.hpp:77] Creating layer inception_4a/relu_pool_proj
I0403 16:43:57.144840 19083 net.cpp:91] Creating Layer inception_4a/relu_pool_proj
I0403 16:43:57.144855 19083 net.cpp:425] inception_4a/relu_pool_proj <- inception_4a/pool_proj
I0403 16:43:57.144876 19083 net.cpp:386] inception_4a/relu_pool_proj -> inception_4a/pool_proj (in-place)
I0403 16:43:57.145146 19083 net.cpp:141] Setting up inception_4a/relu_pool_proj
I0403 16:43:57.145174 19083 net.cpp:148] Top shape: 24 64 14 14 (301056)
I0403 16:43:57.145190 19083 net.cpp:156] Memory required for data: 886912032
I0403 16:43:57.145203 19083 layer_factory.hpp:77] Creating layer inception_4a/output
I0403 16:43:57.145220 19083 net.cpp:91] Creating Layer inception_4a/output
I0403 16:43:57.145234 19083 net.cpp:425] inception_4a/output <- inception_4a/1x1
I0403 16:43:57.145249 19083 net.cpp:425] inception_4a/output <- inception_4a/3x3
I0403 16:43:57.145264 19083 net.cpp:425] inception_4a/output <- inception_4a/5x5
I0403 16:43:57.145278 19083 net.cpp:425] inception_4a/output <- inception_4a/pool_proj
I0403 16:43:57.145299 19083 net.cpp:399] inception_4a/output -> inception_4a/output
I0403 16:43:57.145342 19083 net.cpp:141] Setting up inception_4a/output
I0403 16:43:57.145364 19083 net.cpp:148] Top shape: 24 512 14 14 (2408448)
I0403 16:43:57.145377 19083 net.cpp:156] Memory required for data: 896545824
I0403 16:43:57.145391 19083 layer_factory.hpp:77] Creating layer inception_4a/output_inception_4a/output_0_split
I0403 16:43:57.145411 19083 net.cpp:91] Creating Layer inception_4a/output_inception_4a/output_0_split
I0403 16:43:57.145426 19083 net.cpp:425] inception_4a/output_inception_4a/output_0_split <- inception_4a/output
I0403 16:43:57.145442 19083 net.cpp:399] inception_4a/output_inception_4a/output_0_split -> inception_4a/output_inception_4a/output_0_split_0
I0403 16:43:57.145460 19083 net.cpp:399] inception_4a/output_inception_4a/output_0_split -> inception_4a/output_inception_4a/output_0_split_1
I0403 16:43:57.145483 19083 net.cpp:399] inception_4a/output_inception_4a/output_0_split -> inception_4a/output_inception_4a/output_0_split_2
I0403 16:43:57.145503 19083 net.cpp:399] inception_4a/output_inception_4a/output_0_split -> inception_4a/output_inception_4a/output_0_split_3
I0403 16:43:57.145521 19083 net.cpp:399] inception_4a/output_inception_4a/output_0_split -> inception_4a/output_inception_4a/output_0_split_4
I0403 16:43:57.145613 19083 net.cpp:141] Setting up inception_4a/output_inception_4a/output_0_split
I0403 16:43:57.145637 19083 net.cpp:148] Top shape: 24 512 14 14 (2408448)
I0403 16:43:57.145651 19083 net.cpp:148] Top shape: 24 512 14 14 (2408448)
I0403 16:43:57.145666 19083 net.cpp:148] Top shape: 24 512 14 14 (2408448)
I0403 16:43:57.145681 19083 net.cpp:148] Top shape: 24 512 14 14 (2408448)
I0403 16:43:57.145695 19083 net.cpp:148] Top shape: 24 512 14 14 (2408448)
I0403 16:43:57.145709 19083 net.cpp:156] Memory required for data: 944714784
I0403 16:43:57.145721 19083 layer_factory.hpp:77] Creating layer loss1/ave_pool
I0403 16:43:57.145738 19083 net.cpp:91] Creating Layer loss1/ave_pool
I0403 16:43:57.145753 19083 net.cpp:425] loss1/ave_pool <- inception_4a/output_inception_4a/output_0_split_0
I0403 16:43:57.145772 19083 net.cpp:399] loss1/ave_pool -> loss1/ave_pool
I0403 16:43:57.145969 19083 net.cpp:141] Setting up loss1/ave_pool
I0403 16:43:57.145995 19083 net.cpp:148] Top shape: 24 512 4 4 (196608)
I0403 16:43:57.146010 19083 net.cpp:156] Memory required for data: 945501216
I0403 16:43:57.146024 19083 layer_factory.hpp:77] Creating layer loss1/conv
I0403 16:43:57.146045 19083 net.cpp:91] Creating Layer loss1/conv
I0403 16:43:57.146061 19083 net.cpp:425] loss1/conv <- loss1/ave_pool
I0403 16:43:57.146080 19083 net.cpp:399] loss1/conv -> loss1/conv
I0403 16:43:57.147436 19083 net.cpp:141] Setting up loss1/conv
I0403 16:43:57.147464 19083 net.cpp:148] Top shape: 24 128 4 4 (49152)
I0403 16:43:57.147491 19083 net.cpp:156] Memory required for data: 945697824
I0403 16:43:57.147511 19083 layer_factory.hpp:77] Creating layer loss1/relu_conv
I0403 16:43:57.147527 19083 net.cpp:91] Creating Layer loss1/relu_conv
I0403 16:43:57.147542 19083 net.cpp:425] loss1/relu_conv <- loss1/conv
I0403 16:43:57.147560 19083 net.cpp:386] loss1/relu_conv -> loss1/conv (in-place)
I0403 16:43:57.147837 19083 net.cpp:141] Setting up loss1/relu_conv
I0403 16:43:57.147862 19083 net.cpp:148] Top shape: 24 128 4 4 (49152)
I0403 16:43:57.147877 19083 net.cpp:156] Memory required for data: 945894432
I0403 16:43:57.147891 19083 layer_factory.hpp:77] Creating layer loss1/fc
I0403 16:43:57.147914 19083 net.cpp:91] Creating Layer loss1/fc
I0403 16:43:57.147932 19083 net.cpp:425] loss1/fc <- loss1/conv
I0403 16:43:57.147951 19083 net.cpp:399] loss1/fc -> loss1/fc
I0403 16:43:57.165246 19083 net.cpp:141] Setting up loss1/fc
I0403 16:43:57.165278 19083 net.cpp:148] Top shape: 24 1024 (24576)
I0403 16:43:57.165294 19083 net.cpp:156] Memory required for data: 945992736
I0403 16:43:57.165312 19083 layer_factory.hpp:77] Creating layer loss1/relu_fc
I0403 16:43:57.165328 19083 net.cpp:91] Creating Layer loss1/relu_fc
I0403 16:43:57.165344 19083 net.cpp:425] loss1/relu_fc <- loss1/fc
I0403 16:43:57.165360 19083 net.cpp:386] loss1/relu_fc -> loss1/fc (in-place)
I0403 16:43:57.165542 19083 net.cpp:141] Setting up loss1/relu_fc
I0403 16:43:57.165566 19083 net.cpp:148] Top shape: 24 1024 (24576)
I0403 16:43:57.165580 19083 net.cpp:156] Memory required for data: 946091040
I0403 16:43:57.165594 19083 layer_factory.hpp:77] Creating layer loss1/drop_fc
I0403 16:43:57.165624 19083 net.cpp:91] Creating Layer loss1/drop_fc
I0403 16:43:57.165642 19083 net.cpp:425] loss1/drop_fc <- loss1/fc
I0403 16:43:57.165660 19083 net.cpp:386] loss1/drop_fc -> loss1/fc (in-place)
I0403 16:43:57.165710 19083 net.cpp:141] Setting up loss1/drop_fc
I0403 16:43:57.165732 19083 net.cpp:148] Top shape: 24 1024 (24576)
I0403 16:43:57.165751 19083 net.cpp:156] Memory required for data: 946189344
I0403 16:43:57.165766 19083 layer_factory.hpp:77] Creating layer loss1/classifier_plantvillage
I0403 16:43:57.165783 19083 net.cpp:91] Creating Layer loss1/classifier_plantvillage
I0403 16:43:57.165798 19083 net.cpp:425] loss1/classifier_plantvillage <- loss1/fc
I0403 16:43:57.165820 19083 net.cpp:399] loss1/classifier_plantvillage -> loss1/classifier_plantvillage
I0403 16:43:57.166708 19083 net.cpp:141] Setting up loss1/classifier_plantvillage
I0403 16:43:57.166735 19083 net.cpp:148] Top shape: 24 38 (912)
I0403 16:43:57.166750 19083 net.cpp:156] Memory required for data: 946192992
I0403 16:43:57.166767 19083 layer_factory.hpp:77] Creating layer loss1/classifier_plantvillage_loss1/classifier_plantvillage_0_split
I0403 16:43:57.166785 19083 net.cpp:91] Creating Layer loss1/classifier_plantvillage_loss1/classifier_plantvillage_0_split
I0403 16:43:57.166800 19083 net.cpp:425] loss1/classifier_plantvillage_loss1/classifier_plantvillage_0_split <- loss1/classifier_plantvillage
I0403 16:43:57.166818 19083 net.cpp:399] loss1/classifier_plantvillage_loss1/classifier_plantvillage_0_split -> loss1/classifier_plantvillage_loss1/classifier_plantvillage_0_split_0
I0403 16:43:57.166838 19083 net.cpp:399] loss1/classifier_plantvillage_loss1/classifier_plantvillage_0_split -> loss1/classifier_plantvillage_loss1/classifier_plantvillage_0_split_1
I0403 16:43:57.166857 19083 net.cpp:399] loss1/classifier_plantvillage_loss1/classifier_plantvillage_0_split -> loss1/classifier_plantvillage_loss1/classifier_plantvillage_0_split_2
I0403 16:43:57.166921 19083 net.cpp:141] Setting up loss1/classifier_plantvillage_loss1/classifier_plantvillage_0_split
I0403 16:43:57.166944 19083 net.cpp:148] Top shape: 24 38 (912)
I0403 16:43:57.166959 19083 net.cpp:148] Top shape: 24 38 (912)
I0403 16:43:57.166973 19083 net.cpp:148] Top shape: 24 38 (912)
I0403 16:43:57.166986 19083 net.cpp:156] Memory required for data: 946203936
I0403 16:43:57.167001 19083 layer_factory.hpp:77] Creating layer inception_4b/1x1
I0403 16:43:57.167021 19083 net.cpp:91] Creating Layer inception_4b/1x1
I0403 16:43:57.167053 19083 net.cpp:425] inception_4b/1x1 <- inception_4a/output_inception_4a/output_0_split_1
I0403 16:43:57.167073 19083 net.cpp:399] inception_4b/1x1 -> inception_4b/1x1
I0403 16:43:57.168659 19083 net.cpp:141] Setting up inception_4b/1x1
I0403 16:43:57.168687 19083 net.cpp:148] Top shape: 24 160 14 14 (752640)
I0403 16:43:57.168702 19083 net.cpp:156] Memory required for data: 949214496
I0403 16:43:57.168720 19083 layer_factory.hpp:77] Creating layer inception_4b/relu_1x1
I0403 16:43:57.168738 19083 net.cpp:91] Creating Layer inception_4b/relu_1x1
I0403 16:43:57.168754 19083 net.cpp:425] inception_4b/relu_1x1 <- inception_4b/1x1
I0403 16:43:57.168771 19083 net.cpp:386] inception_4b/relu_1x1 -> inception_4b/1x1 (in-place)
I0403 16:43:57.168946 19083 net.cpp:141] Setting up inception_4b/relu_1x1
I0403 16:43:57.168968 19083 net.cpp:148] Top shape: 24 160 14 14 (752640)
I0403 16:43:57.168985 19083 net.cpp:156] Memory required for data: 952225056
I0403 16:43:57.168999 19083 layer_factory.hpp:77] Creating layer inception_4b/3x3_reduce
I0403 16:43:57.169018 19083 net.cpp:91] Creating Layer inception_4b/3x3_reduce
I0403 16:43:57.169034 19083 net.cpp:425] inception_4b/3x3_reduce <- inception_4a/output_inception_4a/output_0_split_2
I0403 16:43:57.169055 19083 net.cpp:399] inception_4b/3x3_reduce -> inception_4b/3x3_reduce
I0403 16:43:57.170375 19083 net.cpp:141] Setting up inception_4b/3x3_reduce
I0403 16:43:57.170403 19083 net.cpp:148] Top shape: 24 112 14 14 (526848)
I0403 16:43:57.170418 19083 net.cpp:156] Memory required for data: 954332448
I0403 16:43:57.170436 19083 layer_factory.hpp:77] Creating layer inception_4b/relu_3x3_reduce
I0403 16:43:57.170459 19083 net.cpp:91] Creating Layer inception_4b/relu_3x3_reduce
I0403 16:43:57.170475 19083 net.cpp:425] inception_4b/relu_3x3_reduce <- inception_4b/3x3_reduce
I0403 16:43:57.170491 19083 net.cpp:386] inception_4b/relu_3x3_reduce -> inception_4b/3x3_reduce (in-place)
I0403 16:43:57.170809 19083 net.cpp:141] Setting up inception_4b/relu_3x3_reduce
I0403 16:43:57.170835 19083 net.cpp:148] Top shape: 24 112 14 14 (526848)
I0403 16:43:57.170850 19083 net.cpp:156] Memory required for data: 956439840
I0403 16:43:57.170866 19083 layer_factory.hpp:77] Creating layer inception_4b/3x3
I0403 16:43:57.170889 19083 net.cpp:91] Creating Layer inception_4b/3x3
I0403 16:43:57.170907 19083 net.cpp:425] inception_4b/3x3 <- inception_4b/3x3_reduce
I0403 16:43:57.170929 19083 net.cpp:399] inception_4b/3x3 -> inception_4b/3x3
I0403 16:43:57.173938 19083 net.cpp:141] Setting up inception_4b/3x3
I0403 16:43:57.173966 19083 net.cpp:148] Top shape: 24 224 14 14 (1053696)
I0403 16:43:57.173982 19083 net.cpp:156] Memory required for data: 960654624
I0403 16:43:57.174000 19083 layer_factory.hpp:77] Creating layer inception_4b/relu_3x3
I0403 16:43:57.174017 19083 net.cpp:91] Creating Layer inception_4b/relu_3x3
I0403 16:43:57.174033 19083 net.cpp:425] inception_4b/relu_3x3 <- inception_4b/3x3
I0403 16:43:57.174053 19083 net.cpp:386] inception_4b/relu_3x3 -> inception_4b/3x3 (in-place)
I0403 16:43:57.174240 19083 net.cpp:141] Setting up inception_4b/relu_3x3
I0403 16:43:57.174264 19083 net.cpp:148] Top shape: 24 224 14 14 (1053696)
I0403 16:43:57.174279 19083 net.cpp:156] Memory required for data: 964869408
I0403 16:43:57.174293 19083 layer_factory.hpp:77] Creating layer inception_4b/5x5_reduce
I0403 16:43:57.174316 19083 net.cpp:91] Creating Layer inception_4b/5x5_reduce
I0403 16:43:57.174335 19083 net.cpp:425] inception_4b/5x5_reduce <- inception_4a/output_inception_4a/output_0_split_3
I0403 16:43:57.174355 19083 net.cpp:399] inception_4b/5x5_reduce -> inception_4b/5x5_reduce
I0403 16:43:57.175446 19083 net.cpp:141] Setting up inception_4b/5x5_reduce
I0403 16:43:57.175474 19083 net.cpp:148] Top shape: 24 24 14 14 (112896)
I0403 16:43:57.175489 19083 net.cpp:156] Memory required for data: 965320992
I0403 16:43:57.175508 19083 layer_factory.hpp:77] Creating layer inception_4b/relu_5x5_reduce
I0403 16:43:57.175528 19083 net.cpp:91] Creating Layer inception_4b/relu_5x5_reduce
I0403 16:43:57.175559 19083 net.cpp:425] inception_4b/relu_5x5_reduce <- inception_4b/5x5_reduce
I0403 16:43:57.175576 19083 net.cpp:386] inception_4b/relu_5x5_reduce -> inception_4b/5x5_reduce (in-place)
I0403 16:43:57.175765 19083 net.cpp:141] Setting up inception_4b/relu_5x5_reduce
I0403 16:43:57.175792 19083 net.cpp:148] Top shape: 24 24 14 14 (112896)
I0403 16:43:57.175808 19083 net.cpp:156] Memory required for data: 965772576
I0403 16:43:57.175823 19083 layer_factory.hpp:77] Creating layer inception_4b/5x5
I0403 16:43:57.175845 19083 net.cpp:91] Creating Layer inception_4b/5x5
I0403 16:43:57.175863 19083 net.cpp:425] inception_4b/5x5 <- inception_4b/5x5_reduce
I0403 16:43:57.175881 19083 net.cpp:399] inception_4b/5x5 -> inception_4b/5x5
I0403 16:43:57.177108 19083 net.cpp:141] Setting up inception_4b/5x5
I0403 16:43:57.177135 19083 net.cpp:148] Top shape: 24 64 14 14 (301056)
I0403 16:43:57.177151 19083 net.cpp:156] Memory required for data: 966976800
I0403 16:43:57.177168 19083 layer_factory.hpp:77] Creating layer inception_4b/relu_5x5
I0403 16:43:57.177188 19083 net.cpp:91] Creating Layer inception_4b/relu_5x5
I0403 16:43:57.177204 19083 net.cpp:425] inception_4b/relu_5x5 <- inception_4b/5x5
I0403 16:43:57.177222 19083 net.cpp:386] inception_4b/relu_5x5 -> inception_4b/5x5 (in-place)
I0403 16:43:57.177507 19083 net.cpp:141] Setting up inception_4b/relu_5x5
I0403 16:43:57.177532 19083 net.cpp:148] Top shape: 24 64 14 14 (301056)
I0403 16:43:57.177547 19083 net.cpp:156] Memory required for data: 968181024
I0403 16:43:57.177562 19083 layer_factory.hpp:77] Creating layer inception_4b/pool
I0403 16:43:57.177579 19083 net.cpp:91] Creating Layer inception_4b/pool
I0403 16:43:57.177595 19083 net.cpp:425] inception_4b/pool <- inception_4a/output_inception_4a/output_0_split_4
I0403 16:43:57.177623 19083 net.cpp:399] inception_4b/pool -> inception_4b/pool
I0403 16:43:57.177691 19083 net.cpp:141] Setting up inception_4b/pool
I0403 16:43:57.177716 19083 net.cpp:148] Top shape: 24 512 14 14 (2408448)
I0403 16:43:57.177729 19083 net.cpp:156] Memory required for data: 977814816
I0403 16:43:57.177743 19083 layer_factory.hpp:77] Creating layer inception_4b/pool_proj
I0403 16:43:57.177767 19083 net.cpp:91] Creating Layer inception_4b/pool_proj
I0403 16:43:57.177784 19083 net.cpp:425] inception_4b/pool_proj <- inception_4b/pool
I0403 16:43:57.177803 19083 net.cpp:399] inception_4b/pool_proj -> inception_4b/pool_proj
I0403 16:43:57.179003 19083 net.cpp:141] Setting up inception_4b/pool_proj
I0403 16:43:57.179030 19083 net.cpp:148] Top shape: 24 64 14 14 (301056)
I0403 16:43:57.179046 19083 net.cpp:156] Memory required for data: 979019040
I0403 16:43:57.179064 19083 layer_factory.hpp:77] Creating layer inception_4b/relu_pool_proj
I0403 16:43:57.179083 19083 net.cpp:91] Creating Layer inception_4b/relu_pool_proj
I0403 16:43:57.179100 19083 net.cpp:425] inception_4b/relu_pool_proj <- inception_4b/pool_proj
I0403 16:43:57.179117 19083 net.cpp:386] inception_4b/relu_pool_proj -> inception_4b/pool_proj (in-place)
I0403 16:43:57.179298 19083 net.cpp:141] Setting up inception_4b/relu_pool_proj
I0403 16:43:57.179324 19083 net.cpp:148] Top shape: 24 64 14 14 (301056)
I0403 16:43:57.179340 19083 net.cpp:156] Memory required for data: 980223264
I0403 16:43:57.179354 19083 layer_factory.hpp:77] Creating layer inception_4b/output
I0403 16:43:57.179371 19083 net.cpp:91] Creating Layer inception_4b/output
I0403 16:43:57.179386 19083 net.cpp:425] inception_4b/output <- inception_4b/1x1
I0403 16:43:57.179402 19083 net.cpp:425] inception_4b/output <- inception_4b/3x3
I0403 16:43:57.179419 19083 net.cpp:425] inception_4b/output <- inception_4b/5x5
I0403 16:43:57.179433 19083 net.cpp:425] inception_4b/output <- inception_4b/pool_proj
I0403 16:43:57.179450 19083 net.cpp:399] inception_4b/output -> inception_4b/output
I0403 16:43:57.179496 19083 net.cpp:141] Setting up inception_4b/output
I0403 16:43:57.179519 19083 net.cpp:148] Top shape: 24 512 14 14 (2408448)
I0403 16:43:57.179533 19083 net.cpp:156] Memory required for data: 989857056
I0403 16:43:57.179563 19083 layer_factory.hpp:77] Creating layer inception_4b/output_inception_4b/output_0_split
I0403 16:43:57.179584 19083 net.cpp:91] Creating Layer inception_4b/output_inception_4b/output_0_split
I0403 16:43:57.179603 19083 net.cpp:425] inception_4b/output_inception_4b/output_0_split <- inception_4b/output
I0403 16:43:57.179623 19083 net.cpp:399] inception_4b/output_inception_4b/output_0_split -> inception_4b/output_inception_4b/output_0_split_0
I0403 16:43:57.179643 19083 net.cpp:399] inception_4b/output_inception_4b/output_0_split -> inception_4b/output_inception_4b/output_0_split_1
I0403 16:43:57.179664 19083 net.cpp:399] inception_4b/output_inception_4b/output_0_split -> inception_4b/output_inception_4b/output_0_split_2
I0403 16:43:57.179684 19083 net.cpp:399] inception_4b/output_inception_4b/output_0_split -> inception_4b/output_inception_4b/output_0_split_3
I0403 16:43:57.179771 19083 net.cpp:141] Setting up inception_4b/output_inception_4b/output_0_split
I0403 16:43:57.179795 19083 net.cpp:148] Top shape: 24 512 14 14 (2408448)
I0403 16:43:57.179810 19083 net.cpp:148] Top shape: 24 512 14 14 (2408448)
I0403 16:43:57.179824 19083 net.cpp:148] Top shape: 24 512 14 14 (2408448)
I0403 16:43:57.179841 19083 net.cpp:148] Top shape: 24 512 14 14 (2408448)
I0403 16:43:57.179854 19083 net.cpp:156] Memory required for data: 1028392224
I0403 16:43:57.179868 19083 layer_factory.hpp:77] Creating layer inception_4c/1x1
I0403 16:43:57.179890 19083 net.cpp:91] Creating Layer inception_4c/1x1
I0403 16:43:57.179908 19083 net.cpp:425] inception_4c/1x1 <- inception_4b/output_inception_4b/output_0_split_0
I0403 16:43:57.179929 19083 net.cpp:399] inception_4c/1x1 -> inception_4c/1x1
I0403 16:43:57.181361 19083 net.cpp:141] Setting up inception_4c/1x1
I0403 16:43:57.181402 19083 net.cpp:148] Top shape: 24 128 14 14 (602112)
I0403 16:43:57.181421 19083 net.cpp:156] Memory required for data: 1030800672
I0403 16:43:57.181438 19083 layer_factory.hpp:77] Creating layer inception_4c/relu_1x1
I0403 16:43:57.181460 19083 net.cpp:91] Creating Layer inception_4c/relu_1x1
I0403 16:43:57.181475 19083 net.cpp:425] inception_4c/relu_1x1 <- inception_4c/1x1
I0403 16:43:57.181493 19083 net.cpp:386] inception_4c/relu_1x1 -> inception_4c/1x1 (in-place)
I0403 16:43:57.181681 19083 net.cpp:141] Setting up inception_4c/relu_1x1
I0403 16:43:57.181705 19083 net.cpp:148] Top shape: 24 128 14 14 (602112)
I0403 16:43:57.181720 19083 net.cpp:156] Memory required for data: 1033209120
I0403 16:43:57.181743 19083 layer_factory.hpp:77] Creating layer inception_4c/3x3_reduce
I0403 16:43:57.181764 19083 net.cpp:91] Creating Layer inception_4c/3x3_reduce
I0403 16:43:57.181782 19083 net.cpp:425] inception_4c/3x3_reduce <- inception_4b/output_inception_4b/output_0_split_1
I0403 16:43:57.181805 19083 net.cpp:399] inception_4c/3x3_reduce -> inception_4c/3x3_reduce
I0403 16:43:57.183764 19083 net.cpp:141] Setting up inception_4c/3x3_reduce
I0403 16:43:57.183792 19083 net.cpp:148] Top shape: 24 128 14 14 (602112)
I0403 16:43:57.183807 19083 net.cpp:156] Memory required for data: 1035617568
I0403 16:43:57.183825 19083 layer_factory.hpp:77] Creating layer inception_4c/relu_3x3_reduce
I0403 16:43:57.183845 19083 net.cpp:91] Creating Layer inception_4c/relu_3x3_reduce
I0403 16:43:57.183862 19083 net.cpp:425] inception_4c/relu_3x3_reduce <- inception_4c/3x3_reduce
I0403 16:43:57.183881 19083 net.cpp:386] inception_4c/relu_3x3_reduce -> inception_4c/3x3_reduce (in-place)
I0403 16:43:57.184171 19083 net.cpp:141] Setting up inception_4c/relu_3x3_reduce
I0403 16:43:57.184197 19083 net.cpp:148] Top shape: 24 128 14 14 (602112)
I0403 16:43:57.184211 19083 net.cpp:156] Memory required for data: 1038026016
I0403 16:43:57.184226 19083 layer_factory.hpp:77] Creating layer inception_4c/3x3
I0403 16:43:57.184248 19083 net.cpp:91] Creating Layer inception_4c/3x3
I0403 16:43:57.184267 19083 net.cpp:425] inception_4c/3x3 <- inception_4c/3x3_reduce
I0403 16:43:57.184288 19083 net.cpp:399] inception_4c/3x3 -> inception_4c/3x3
I0403 16:43:57.187929 19083 net.cpp:141] Setting up inception_4c/3x3
I0403 16:43:57.187970 19083 net.cpp:148] Top shape: 24 256 14 14 (1204224)
I0403 16:43:57.187986 19083 net.cpp:156] Memory required for data: 1042842912
I0403 16:43:57.188017 19083 layer_factory.hpp:77] Creating layer inception_4c/relu_3x3
I0403 16:43:57.188040 19083 net.cpp:91] Creating Layer inception_4c/relu_3x3
I0403 16:43:57.188056 19083 net.cpp:425] inception_4c/relu_3x3 <- inception_4c/3x3
I0403 16:43:57.188074 19083 net.cpp:386] inception_4c/relu_3x3 -> inception_4c/3x3 (in-place)
I0403 16:43:57.188258 19083 net.cpp:141] Setting up inception_4c/relu_3x3
I0403 16:43:57.188283 19083 net.cpp:148] Top shape: 24 256 14 14 (1204224)
I0403 16:43:57.188297 19083 net.cpp:156] Memory required for data: 1047659808
I0403 16:43:57.188311 19083 layer_factory.hpp:77] Creating layer inception_4c/5x5_reduce
I0403 16:43:57.188333 19083 net.cpp:91] Creating Layer inception_4c/5x5_reduce
I0403 16:43:57.188350 19083 net.cpp:425] inception_4c/5x5_reduce <- inception_4b/output_inception_4b/output_0_split_2
I0403 16:43:57.188371 19083 net.cpp:399] inception_4c/5x5_reduce -> inception_4c/5x5_reduce
I0403 16:43:57.189509 19083 net.cpp:141] Setting up inception_4c/5x5_reduce
I0403 16:43:57.189537 19083 net.cpp:148] Top shape: 24 24 14 14 (112896)
I0403 16:43:57.189553 19083 net.cpp:156] Memory required for data: 1048111392
I0403 16:43:57.189569 19083 layer_factory.hpp:77] Creating layer inception_4c/relu_5x5_reduce
I0403 16:43:57.189592 19083 net.cpp:91] Creating Layer inception_4c/relu_5x5_reduce
I0403 16:43:57.189615 19083 net.cpp:425] inception_4c/relu_5x5_reduce <- inception_4c/5x5_reduce
I0403 16:43:57.189632 19083 net.cpp:386] inception_4c/relu_5x5_reduce -> inception_4c/5x5_reduce (in-place)
I0403 16:43:57.189815 19083 net.cpp:141] Setting up inception_4c/relu_5x5_reduce
I0403 16:43:57.189838 19083 net.cpp:148] Top shape: 24 24 14 14 (112896)
I0403 16:43:57.189852 19083 net.cpp:156] Memory required for data: 1048562976
I0403 16:43:57.189865 19083 layer_factory.hpp:77] Creating layer inception_4c/5x5
I0403 16:43:57.189888 19083 net.cpp:91] Creating Layer inception_4c/5x5
I0403 16:43:57.189905 19083 net.cpp:425] inception_4c/5x5 <- inception_4c/5x5_reduce
I0403 16:43:57.189924 19083 net.cpp:399] inception_4c/5x5 -> inception_4c/5x5
I0403 16:43:57.191139 19083 net.cpp:141] Setting up inception_4c/5x5
I0403 16:43:57.191169 19083 net.cpp:148] Top shape: 24 64 14 14 (301056)
I0403 16:43:57.191184 19083 net.cpp:156] Memory required for data: 1049767200
I0403 16:43:57.191201 19083 layer_factory.hpp:77] Creating layer inception_4c/relu_5x5
I0403 16:43:57.191218 19083 net.cpp:91] Creating Layer inception_4c/relu_5x5
I0403 16:43:57.191233 19083 net.cpp:425] inception_4c/relu_5x5 <- inception_4c/5x5
I0403 16:43:57.191251 19083 net.cpp:386] inception_4c/relu_5x5 -> inception_4c/5x5 (in-place)
I0403 16:43:57.191534 19083 net.cpp:141] Setting up inception_4c/relu_5x5
I0403 16:43:57.191561 19083 net.cpp:148] Top shape: 24 64 14 14 (301056)
I0403 16:43:57.191576 19083 net.cpp:156] Memory required for data: 1050971424
I0403 16:43:57.191591 19083 layer_factory.hpp:77] Creating layer inception_4c/pool
I0403 16:43:57.191614 19083 net.cpp:91] Creating Layer inception_4c/pool
I0403 16:43:57.191630 19083 net.cpp:425] inception_4c/pool <- inception_4b/output_inception_4b/output_0_split_3
I0403 16:43:57.191648 19083 net.cpp:399] inception_4c/pool -> inception_4c/pool
I0403 16:43:57.191714 19083 net.cpp:141] Setting up inception_4c/pool
I0403 16:43:57.191735 19083 net.cpp:148] Top shape: 24 512 14 14 (2408448)
I0403 16:43:57.191750 19083 net.cpp:156] Memory required for data: 1060605216
I0403 16:43:57.191762 19083 layer_factory.hpp:77] Creating layer inception_4c/pool_proj
I0403 16:43:57.191784 19083 net.cpp:91] Creating Layer inception_4c/pool_proj
I0403 16:43:57.191802 19083 net.cpp:425] inception_4c/pool_proj <- inception_4c/pool
I0403 16:43:57.191822 19083 net.cpp:399] inception_4c/pool_proj -> inception_4c/pool_proj
I0403 16:43:57.193017 19083 net.cpp:141] Setting up inception_4c/pool_proj
I0403 16:43:57.193044 19083 net.cpp:148] Top shape: 24 64 14 14 (301056)
I0403 16:43:57.193073 19083 net.cpp:156] Memory required for data: 1061809440
I0403 16:43:57.193091 19083 layer_factory.hpp:77] Creating layer inception_4c/relu_pool_proj
I0403 16:43:57.193116 19083 net.cpp:91] Creating Layer inception_4c/relu_pool_proj
I0403 16:43:57.193135 19083 net.cpp:425] inception_4c/relu_pool_proj <- inception_4c/pool_proj
I0403 16:43:57.193151 19083 net.cpp:386] inception_4c/relu_pool_proj -> inception_4c/pool_proj (in-place)
I0403 16:43:57.193331 19083 net.cpp:141] Setting up inception_4c/relu_pool_proj
I0403 16:43:57.193357 19083 net.cpp:148] Top shape: 24 64 14 14 (301056)
I0403 16:43:57.193372 19083 net.cpp:156] Memory required for data: 1063013664
I0403 16:43:57.193387 19083 layer_factory.hpp:77] Creating layer inception_4c/output
I0403 16:43:57.193403 19083 net.cpp:91] Creating Layer inception_4c/output
I0403 16:43:57.193418 19083 net.cpp:425] inception_4c/output <- inception_4c/1x1
I0403 16:43:57.193433 19083 net.cpp:425] inception_4c/output <- inception_4c/3x3
I0403 16:43:57.193447 19083 net.cpp:425] inception_4c/output <- inception_4c/5x5
I0403 16:43:57.193462 19083 net.cpp:425] inception_4c/output <- inception_4c/pool_proj
I0403 16:43:57.193478 19083 net.cpp:399] inception_4c/output -> inception_4c/output
I0403 16:43:57.193526 19083 net.cpp:141] Setting up inception_4c/output
I0403 16:43:57.193547 19083 net.cpp:148] Top shape: 24 512 14 14 (2408448)
I0403 16:43:57.193560 19083 net.cpp:156] Memory required for data: 1072647456
I0403 16:43:57.193574 19083 layer_factory.hpp:77] Creating layer inception_4c/output_inception_4c/output_0_split
I0403 16:43:57.193593 19083 net.cpp:91] Creating Layer inception_4c/output_inception_4c/output_0_split
I0403 16:43:57.193614 19083 net.cpp:425] inception_4c/output_inception_4c/output_0_split <- inception_4c/output
I0403 16:43:57.193632 19083 net.cpp:399] inception_4c/output_inception_4c/output_0_split -> inception_4c/output_inception_4c/output_0_split_0
I0403 16:43:57.193652 19083 net.cpp:399] inception_4c/output_inception_4c/output_0_split -> inception_4c/output_inception_4c/output_0_split_1
I0403 16:43:57.193671 19083 net.cpp:399] inception_4c/output_inception_4c/output_0_split -> inception_4c/output_inception_4c/output_0_split_2
I0403 16:43:57.193691 19083 net.cpp:399] inception_4c/output_inception_4c/output_0_split -> inception_4c/output_inception_4c/output_0_split_3
I0403 16:43:57.193773 19083 net.cpp:141] Setting up inception_4c/output_inception_4c/output_0_split
I0403 16:43:57.193795 19083 net.cpp:148] Top shape: 24 512 14 14 (2408448)
I0403 16:43:57.193810 19083 net.cpp:148] Top shape: 24 512 14 14 (2408448)
I0403 16:43:57.193825 19083 net.cpp:148] Top shape: 24 512 14 14 (2408448)
I0403 16:43:57.193840 19083 net.cpp:148] Top shape: 24 512 14 14 (2408448)
I0403 16:43:57.193852 19083 net.cpp:156] Memory required for data: 1111182624
I0403 16:43:57.193866 19083 layer_factory.hpp:77] Creating layer inception_4d/1x1
I0403 16:43:57.193888 19083 net.cpp:91] Creating Layer inception_4d/1x1
I0403 16:43:57.193905 19083 net.cpp:425] inception_4d/1x1 <- inception_4c/output_inception_4c/output_0_split_0
I0403 16:43:57.193925 19083 net.cpp:399] inception_4d/1x1 -> inception_4d/1x1
I0403 16:43:57.195305 19083 net.cpp:141] Setting up inception_4d/1x1
I0403 16:43:57.195333 19083 net.cpp:148] Top shape: 24 112 14 14 (526848)
I0403 16:43:57.195349 19083 net.cpp:156] Memory required for data: 1113290016
I0403 16:43:57.195368 19083 layer_factory.hpp:77] Creating layer inception_4d/relu_1x1
I0403 16:43:57.195384 19083 net.cpp:91] Creating Layer inception_4d/relu_1x1
I0403 16:43:57.195401 19083 net.cpp:425] inception_4d/relu_1x1 <- inception_4d/1x1
I0403 16:43:57.195420 19083 net.cpp:386] inception_4d/relu_1x1 -> inception_4d/1x1 (in-place)
I0403 16:43:57.195619 19083 net.cpp:141] Setting up inception_4d/relu_1x1
I0403 16:43:57.195643 19083 net.cpp:148] Top shape: 24 112 14 14 (526848)
I0403 16:43:57.195657 19083 net.cpp:156] Memory required for data: 1115397408
I0403 16:43:57.195672 19083 layer_factory.hpp:77] Creating layer inception_4d/3x3_reduce
I0403 16:43:57.195708 19083 net.cpp:91] Creating Layer inception_4d/3x3_reduce
I0403 16:43:57.195725 19083 net.cpp:425] inception_4d/3x3_reduce <- inception_4c/output_inception_4c/output_0_split_1
I0403 16:43:57.195746 19083 net.cpp:399] inception_4d/3x3_reduce -> inception_4d/3x3_reduce
I0403 16:43:57.197227 19083 net.cpp:141] Setting up inception_4d/3x3_reduce
I0403 16:43:57.197254 19083 net.cpp:148] Top shape: 24 144 14 14 (677376)
I0403 16:43:57.197270 19083 net.cpp:156] Memory required for data: 1118106912
I0403 16:43:57.197288 19083 layer_factory.hpp:77] Creating layer inception_4d/relu_3x3_reduce
I0403 16:43:57.197305 19083 net.cpp:91] Creating Layer inception_4d/relu_3x3_reduce
I0403 16:43:57.197321 19083 net.cpp:425] inception_4d/relu_3x3_reduce <- inception_4d/3x3_reduce
I0403 16:43:57.197340 19083 net.cpp:386] inception_4d/relu_3x3_reduce -> inception_4d/3x3_reduce (in-place)
I0403 16:43:57.197628 19083 net.cpp:141] Setting up inception_4d/relu_3x3_reduce
I0403 16:43:57.197655 19083 net.cpp:148] Top shape: 24 144 14 14 (677376)
I0403 16:43:57.197670 19083 net.cpp:156] Memory required for data: 1120816416
I0403 16:43:57.197685 19083 layer_factory.hpp:77] Creating layer inception_4d/3x3
I0403 16:43:57.197705 19083 net.cpp:91] Creating Layer inception_4d/3x3
I0403 16:43:57.197722 19083 net.cpp:425] inception_4d/3x3 <- inception_4d/3x3_reduce
I0403 16:43:57.197741 19083 net.cpp:399] inception_4d/3x3 -> inception_4d/3x3
I0403 16:43:57.201900 19083 net.cpp:141] Setting up inception_4d/3x3
I0403 16:43:57.201930 19083 net.cpp:148] Top shape: 24 288 14 14 (1354752)
I0403 16:43:57.201946 19083 net.cpp:156] Memory required for data: 1126235424
I0403 16:43:57.201964 19083 layer_factory.hpp:77] Creating layer inception_4d/relu_3x3
I0403 16:43:57.201982 19083 net.cpp:91] Creating Layer inception_4d/relu_3x3
I0403 16:43:57.202000 19083 net.cpp:425] inception_4d/relu_3x3 <- inception_4d/3x3
I0403 16:43:57.202018 19083 net.cpp:386] inception_4d/relu_3x3 -> inception_4d/3x3 (in-place)
I0403 16:43:57.202198 19083 net.cpp:141] Setting up inception_4d/relu_3x3
I0403 16:43:57.202222 19083 net.cpp:148] Top shape: 24 288 14 14 (1354752)
I0403 16:43:57.202236 19083 net.cpp:156] Memory required for data: 1131654432
I0403 16:43:57.202250 19083 layer_factory.hpp:77] Creating layer inception_4d/5x5_reduce
I0403 16:43:57.202271 19083 net.cpp:91] Creating Layer inception_4d/5x5_reduce
I0403 16:43:57.202288 19083 net.cpp:425] inception_4d/5x5_reduce <- inception_4c/output_inception_4c/output_0_split_2
I0403 16:43:57.202309 19083 net.cpp:399] inception_4d/5x5_reduce -> inception_4d/5x5_reduce
I0403 16:43:57.203435 19083 net.cpp:141] Setting up inception_4d/5x5_reduce
I0403 16:43:57.203462 19083 net.cpp:148] Top shape: 24 32 14 14 (150528)
I0403 16:43:57.203477 19083 net.cpp:156] Memory required for data: 1132256544
I0403 16:43:57.203495 19083 layer_factory.hpp:77] Creating layer inception_4d/relu_5x5_reduce
I0403 16:43:57.203511 19083 net.cpp:91] Creating Layer inception_4d/relu_5x5_reduce
I0403 16:43:57.203527 19083 net.cpp:425] inception_4d/relu_5x5_reduce <- inception_4d/5x5_reduce
I0403 16:43:57.203547 19083 net.cpp:386] inception_4d/relu_5x5_reduce -> inception_4d/5x5_reduce (in-place)
I0403 16:43:57.203737 19083 net.cpp:141] Setting up inception_4d/relu_5x5_reduce
I0403 16:43:57.203760 19083 net.cpp:148] Top shape: 24 32 14 14 (150528)
I0403 16:43:57.203774 19083 net.cpp:156] Memory required for data: 1132858656
I0403 16:43:57.203788 19083 layer_factory.hpp:77] Creating layer inception_4d/5x5
I0403 16:43:57.203814 19083 net.cpp:91] Creating Layer inception_4d/5x5
I0403 16:43:57.203830 19083 net.cpp:425] inception_4d/5x5 <- inception_4d/5x5_reduce
I0403 16:43:57.203850 19083 net.cpp:399] inception_4d/5x5 -> inception_4d/5x5
I0403 16:43:57.205292 19083 net.cpp:141] Setting up inception_4d/5x5
I0403 16:43:57.205320 19083 net.cpp:148] Top shape: 24 64 14 14 (301056)
I0403 16:43:57.205335 19083 net.cpp:156] Memory required for data: 1134062880
I0403 16:43:57.205353 19083 layer_factory.hpp:77] Creating layer inception_4d/relu_5x5
I0403 16:43:57.205387 19083 net.cpp:91] Creating Layer inception_4d/relu_5x5
I0403 16:43:57.205404 19083 net.cpp:425] inception_4d/relu_5x5 <- inception_4d/5x5
I0403 16:43:57.205422 19083 net.cpp:386] inception_4d/relu_5x5 -> inception_4d/5x5 (in-place)
I0403 16:43:57.205721 19083 net.cpp:141] Setting up inception_4d/relu_5x5
I0403 16:43:57.205746 19083 net.cpp:148] Top shape: 24 64 14 14 (301056)
I0403 16:43:57.205760 19083 net.cpp:156] Memory required for data: 1135267104
I0403 16:43:57.205775 19083 layer_factory.hpp:77] Creating layer inception_4d/pool
I0403 16:43:57.205795 19083 net.cpp:91] Creating Layer inception_4d/pool
I0403 16:43:57.205811 19083 net.cpp:425] inception_4d/pool <- inception_4c/output_inception_4c/output_0_split_3
I0403 16:43:57.205827 19083 net.cpp:399] inception_4d/pool -> inception_4d/pool
I0403 16:43:57.205893 19083 net.cpp:141] Setting up inception_4d/pool
I0403 16:43:57.205916 19083 net.cpp:148] Top shape: 24 512 14 14 (2408448)
I0403 16:43:57.205930 19083 net.cpp:156] Memory required for data: 1144900896
I0403 16:43:57.205945 19083 layer_factory.hpp:77] Creating layer inception_4d/pool_proj
I0403 16:43:57.205966 19083 net.cpp:91] Creating Layer inception_4d/pool_proj
I0403 16:43:57.205983 19083 net.cpp:425] inception_4d/pool_proj <- inception_4d/pool
I0403 16:43:57.206004 19083 net.cpp:399] inception_4d/pool_proj -> inception_4d/pool_proj
I0403 16:43:57.207741 19083 net.cpp:141] Setting up inception_4d/pool_proj
I0403 16:43:57.207768 19083 net.cpp:148] Top shape: 24 64 14 14 (301056)
I0403 16:43:57.207782 19083 net.cpp:156] Memory required for data: 1146105120
I0403 16:43:57.207800 19083 layer_factory.hpp:77] Creating layer inception_4d/relu_pool_proj
I0403 16:43:57.207818 19083 net.cpp:91] Creating Layer inception_4d/relu_pool_proj
I0403 16:43:57.207840 19083 net.cpp:425] inception_4d/relu_pool_proj <- inception_4d/pool_proj
I0403 16:43:57.207857 19083 net.cpp:386] inception_4d/relu_pool_proj -> inception_4d/pool_proj (in-place)
I0403 16:43:57.208037 19083 net.cpp:141] Setting up inception_4d/relu_pool_proj
I0403 16:43:57.208060 19083 net.cpp:148] Top shape: 24 64 14 14 (301056)
I0403 16:43:57.208076 19083 net.cpp:156] Memory required for data: 1147309344
I0403 16:43:57.208089 19083 layer_factory.hpp:77] Creating layer inception_4d/output
I0403 16:43:57.208107 19083 net.cpp:91] Creating Layer inception_4d/output
I0403 16:43:57.208123 19083 net.cpp:425] inception_4d/output <- inception_4d/1x1
I0403 16:43:57.208139 19083 net.cpp:425] inception_4d/output <- inception_4d/3x3
I0403 16:43:57.208155 19083 net.cpp:425] inception_4d/output <- inception_4d/5x5
I0403 16:43:57.208171 19083 net.cpp:425] inception_4d/output <- inception_4d/pool_proj
I0403 16:43:57.208187 19083 net.cpp:399] inception_4d/output -> inception_4d/output
I0403 16:43:57.208235 19083 net.cpp:141] Setting up inception_4d/output
I0403 16:43:57.208258 19083 net.cpp:148] Top shape: 24 528 14 14 (2483712)
I0403 16:43:57.208272 19083 net.cpp:156] Memory required for data: 1157244192
I0403 16:43:57.208287 19083 layer_factory.hpp:77] Creating layer inception_4d/output_inception_4d/output_0_split
I0403 16:43:57.208302 19083 net.cpp:91] Creating Layer inception_4d/output_inception_4d/output_0_split
I0403 16:43:57.208317 19083 net.cpp:425] inception_4d/output_inception_4d/output_0_split <- inception_4d/output
I0403 16:43:57.208336 19083 net.cpp:399] inception_4d/output_inception_4d/output_0_split -> inception_4d/output_inception_4d/output_0_split_0
I0403 16:43:57.208358 19083 net.cpp:399] inception_4d/output_inception_4d/output_0_split -> inception_4d/output_inception_4d/output_0_split_1
I0403 16:43:57.208377 19083 net.cpp:399] inception_4d/output_inception_4d/output_0_split -> inception_4d/output_inception_4d/output_0_split_2
I0403 16:43:57.208397 19083 net.cpp:399] inception_4d/output_inception_4d/output_0_split -> inception_4d/output_inception_4d/output_0_split_3
I0403 16:43:57.208415 19083 net.cpp:399] inception_4d/output_inception_4d/output_0_split -> inception_4d/output_inception_4d/output_0_split_4
I0403 16:43:57.208518 19083 net.cpp:141] Setting up inception_4d/output_inception_4d/output_0_split
I0403 16:43:57.208552 19083 net.cpp:148] Top shape: 24 528 14 14 (2483712)
I0403 16:43:57.208570 19083 net.cpp:148] Top shape: 24 528 14 14 (2483712)
I0403 16:43:57.208585 19083 net.cpp:148] Top shape: 24 528 14 14 (2483712)
I0403 16:43:57.208606 19083 net.cpp:148] Top shape: 24 528 14 14 (2483712)
I0403 16:43:57.208634 19083 net.cpp:148] Top shape: 24 528 14 14 (2483712)
I0403 16:43:57.208648 19083 net.cpp:156] Memory required for data: 1206918432
I0403 16:43:57.208662 19083 layer_factory.hpp:77] Creating layer loss2/ave_pool
I0403 16:43:57.208693 19083 net.cpp:91] Creating Layer loss2/ave_pool
I0403 16:43:57.208709 19083 net.cpp:425] loss2/ave_pool <- inception_4d/output_inception_4d/output_0_split_0
I0403 16:43:57.208729 19083 net.cpp:399] loss2/ave_pool -> loss2/ave_pool
I0403 16:43:57.209063 19083 net.cpp:141] Setting up loss2/ave_pool
I0403 16:43:57.209089 19083 net.cpp:148] Top shape: 24 528 4 4 (202752)
I0403 16:43:57.209102 19083 net.cpp:156] Memory required for data: 1207729440
I0403 16:43:57.209117 19083 layer_factory.hpp:77] Creating layer loss2/conv
I0403 16:43:57.209138 19083 net.cpp:91] Creating Layer loss2/conv
I0403 16:43:57.209156 19083 net.cpp:425] loss2/conv <- loss2/ave_pool
I0403 16:43:57.209177 19083 net.cpp:399] loss2/conv -> loss2/conv
I0403 16:43:57.211096 19083 net.cpp:141] Setting up loss2/conv
I0403 16:43:57.211124 19083 net.cpp:148] Top shape: 24 128 4 4 (49152)
I0403 16:43:57.211141 19083 net.cpp:156] Memory required for data: 1207926048
I0403 16:43:57.211159 19083 layer_factory.hpp:77] Creating layer loss2/relu_conv
I0403 16:43:57.211179 19083 net.cpp:91] Creating Layer loss2/relu_conv
I0403 16:43:57.211196 19083 net.cpp:425] loss2/relu_conv <- loss2/conv
I0403 16:43:57.211213 19083 net.cpp:386] loss2/relu_conv -> loss2/conv (in-place)
I0403 16:43:57.211500 19083 net.cpp:141] Setting up loss2/relu_conv
I0403 16:43:57.211527 19083 net.cpp:148] Top shape: 24 128 4 4 (49152)
I0403 16:43:57.211542 19083 net.cpp:156] Memory required for data: 1208122656
I0403 16:43:57.211556 19083 layer_factory.hpp:77] Creating layer loss2/fc
I0403 16:43:57.211577 19083 net.cpp:91] Creating Layer loss2/fc
I0403 16:43:57.211596 19083 net.cpp:425] loss2/fc <- loss2/conv
I0403 16:43:57.211622 19083 net.cpp:399] loss2/fc -> loss2/fc
I0403 16:43:57.229377 19083 net.cpp:141] Setting up loss2/fc
I0403 16:43:57.229408 19083 net.cpp:148] Top shape: 24 1024 (24576)
I0403 16:43:57.229423 19083 net.cpp:156] Memory required for data: 1208220960
I0403 16:43:57.229439 19083 layer_factory.hpp:77] Creating layer loss2/relu_fc
I0403 16:43:57.229456 19083 net.cpp:91] Creating Layer loss2/relu_fc
I0403 16:43:57.229472 19083 net.cpp:425] loss2/relu_fc <- loss2/fc
I0403 16:43:57.229491 19083 net.cpp:386] loss2/relu_fc -> loss2/fc (in-place)
I0403 16:43:57.229796 19083 net.cpp:141] Setting up loss2/relu_fc
I0403 16:43:57.229821 19083 net.cpp:148] Top shape: 24 1024 (24576)
I0403 16:43:57.229835 19083 net.cpp:156] Memory required for data: 1208319264
I0403 16:43:57.229849 19083 layer_factory.hpp:77] Creating layer loss2/drop_fc
I0403 16:43:57.229866 19083 net.cpp:91] Creating Layer loss2/drop_fc
I0403 16:43:57.229882 19083 net.cpp:425] loss2/drop_fc <- loss2/fc
I0403 16:43:57.229900 19083 net.cpp:386] loss2/drop_fc -> loss2/fc (in-place)
I0403 16:43:57.229948 19083 net.cpp:141] Setting up loss2/drop_fc
I0403 16:43:57.229974 19083 net.cpp:148] Top shape: 24 1024 (24576)
I0403 16:43:57.229986 19083 net.cpp:156] Memory required for data: 1208417568
I0403 16:43:57.230000 19083 layer_factory.hpp:77] Creating layer loss2/classifier_plantvillage
I0403 16:43:57.230018 19083 net.cpp:91] Creating Layer loss2/classifier_plantvillage
I0403 16:43:57.230034 19083 net.cpp:425] loss2/classifier_plantvillage <- loss2/fc
I0403 16:43:57.230058 19083 net.cpp:399] loss2/classifier_plantvillage -> loss2/classifier_plantvillage
I0403 16:43:57.230450 19083 net.cpp:141] Setting up loss2/classifier_plantvillage
I0403 16:43:57.230474 19083 net.cpp:148] Top shape: 24 38 (912)
I0403 16:43:57.230504 19083 net.cpp:156] Memory required for data: 1208421216
I0403 16:43:57.230522 19083 layer_factory.hpp:77] Creating layer loss2/classifier_plantvillage_loss2/classifier_plantvillage_0_split
I0403 16:43:57.230541 19083 net.cpp:91] Creating Layer loss2/classifier_plantvillage_loss2/classifier_plantvillage_0_split
I0403 16:43:57.230558 19083 net.cpp:425] loss2/classifier_plantvillage_loss2/classifier_plantvillage_0_split <- loss2/classifier_plantvillage
I0403 16:43:57.230576 19083 net.cpp:399] loss2/classifier_plantvillage_loss2/classifier_plantvillage_0_split -> loss2/classifier_plantvillage_loss2/classifier_plantvillage_0_split_0
I0403 16:43:57.230602 19083 net.cpp:399] loss2/classifier_plantvillage_loss2/classifier_plantvillage_0_split -> loss2/classifier_plantvillage_loss2/classifier_plantvillage_0_split_1
I0403 16:43:57.230624 19083 net.cpp:399] loss2/classifier_plantvillage_loss2/classifier_plantvillage_0_split -> loss2/classifier_plantvillage_loss2/classifier_plantvillage_0_split_2
I0403 16:43:57.230700 19083 net.cpp:141] Setting up loss2/classifier_plantvillage_loss2/classifier_plantvillage_0_split
I0403 16:43:57.230722 19083 net.cpp:148] Top shape: 24 38 (912)
I0403 16:43:57.230737 19083 net.cpp:148] Top shape: 24 38 (912)
I0403 16:43:57.230752 19083 net.cpp:148] Top shape: 24 38 (912)
I0403 16:43:57.230765 19083 net.cpp:156] Memory required for data: 1208432160
I0403 16:43:57.230778 19083 layer_factory.hpp:77] Creating layer inception_4e/1x1
I0403 16:43:57.230800 19083 net.cpp:91] Creating Layer inception_4e/1x1
I0403 16:43:57.230818 19083 net.cpp:425] inception_4e/1x1 <- inception_4d/output_inception_4d/output_0_split_1
I0403 16:43:57.230835 19083 net.cpp:399] inception_4e/1x1 -> inception_4e/1x1
I0403 16:43:57.232609 19083 net.cpp:141] Setting up inception_4e/1x1
I0403 16:43:57.232638 19083 net.cpp:148] Top shape: 24 256 14 14 (1204224)
I0403 16:43:57.232655 19083 net.cpp:156] Memory required for data: 1213249056
I0403 16:43:57.232672 19083 layer_factory.hpp:77] Creating layer inception_4e/relu_1x1
I0403 16:43:57.232689 19083 net.cpp:91] Creating Layer inception_4e/relu_1x1
I0403 16:43:57.232704 19083 net.cpp:425] inception_4e/relu_1x1 <- inception_4e/1x1
I0403 16:43:57.232722 19083 net.cpp:386] inception_4e/relu_1x1 -> inception_4e/1x1 (in-place)
I0403 16:43:57.233013 19083 net.cpp:141] Setting up inception_4e/relu_1x1
I0403 16:43:57.233041 19083 net.cpp:148] Top shape: 24 256 14 14 (1204224)
I0403 16:43:57.233057 19083 net.cpp:156] Memory required for data: 1218065952
I0403 16:43:57.233070 19083 layer_factory.hpp:77] Creating layer inception_4e/3x3_reduce
I0403 16:43:57.233088 19083 net.cpp:91] Creating Layer inception_4e/3x3_reduce
I0403 16:43:57.233104 19083 net.cpp:425] inception_4e/3x3_reduce <- inception_4d/output_inception_4d/output_0_split_2
I0403 16:43:57.233124 19083 net.cpp:399] inception_4e/3x3_reduce -> inception_4e/3x3_reduce
I0403 16:43:57.235213 19083 net.cpp:141] Setting up inception_4e/3x3_reduce
I0403 16:43:57.235240 19083 net.cpp:148] Top shape: 24 160 14 14 (752640)
I0403 16:43:57.235255 19083 net.cpp:156] Memory required for data: 1221076512
I0403 16:43:57.235272 19083 layer_factory.hpp:77] Creating layer inception_4e/relu_3x3_reduce
I0403 16:43:57.235291 19083 net.cpp:91] Creating Layer inception_4e/relu_3x3_reduce
I0403 16:43:57.235308 19083 net.cpp:425] inception_4e/relu_3x3_reduce <- inception_4e/3x3_reduce
I0403 16:43:57.235324 19083 net.cpp:386] inception_4e/relu_3x3_reduce -> inception_4e/3x3_reduce (in-place)
I0403 16:43:57.235505 19083 net.cpp:141] Setting up inception_4e/relu_3x3_reduce
I0403 16:43:57.235532 19083 net.cpp:148] Top shape: 24 160 14 14 (752640)
I0403 16:43:57.235546 19083 net.cpp:156] Memory required for data: 1224087072
I0403 16:43:57.235560 19083 layer_factory.hpp:77] Creating layer inception_4e/3x3
I0403 16:43:57.235581 19083 net.cpp:91] Creating Layer inception_4e/3x3
I0403 16:43:57.235604 19083 net.cpp:425] inception_4e/3x3 <- inception_4e/3x3_reduce
I0403 16:43:57.235623 19083 net.cpp:399] inception_4e/3x3 -> inception_4e/3x3
I0403 16:43:57.240519 19083 net.cpp:141] Setting up inception_4e/3x3
I0403 16:43:57.240566 19083 net.cpp:148] Top shape: 24 320 14 14 (1505280)
I0403 16:43:57.240581 19083 net.cpp:156] Memory required for data: 1230108192
I0403 16:43:57.240604 19083 layer_factory.hpp:77] Creating layer inception_4e/relu_3x3
I0403 16:43:57.240623 19083 net.cpp:91] Creating Layer inception_4e/relu_3x3
I0403 16:43:57.240639 19083 net.cpp:425] inception_4e/relu_3x3 <- inception_4e/3x3
I0403 16:43:57.240655 19083 net.cpp:386] inception_4e/relu_3x3 -> inception_4e/3x3 (in-place)
I0403 16:43:57.240949 19083 net.cpp:141] Setting up inception_4e/relu_3x3
I0403 16:43:57.240974 19083 net.cpp:148] Top shape: 24 320 14 14 (1505280)
I0403 16:43:57.240989 19083 net.cpp:156] Memory required for data: 1236129312
I0403 16:43:57.241004 19083 layer_factory.hpp:77] Creating layer inception_4e/5x5_reduce
I0403 16:43:57.241026 19083 net.cpp:91] Creating Layer inception_4e/5x5_reduce
I0403 16:43:57.241044 19083 net.cpp:425] inception_4e/5x5_reduce <- inception_4d/output_inception_4d/output_0_split_3
I0403 16:43:57.241065 19083 net.cpp:399] inception_4e/5x5_reduce -> inception_4e/5x5_reduce
I0403 16:43:57.242139 19083 net.cpp:141] Setting up inception_4e/5x5_reduce
I0403 16:43:57.242166 19083 net.cpp:148] Top shape: 24 32 14 14 (150528)
I0403 16:43:57.242180 19083 net.cpp:156] Memory required for data: 1236731424
I0403 16:43:57.242198 19083 layer_factory.hpp:77] Creating layer inception_4e/relu_5x5_reduce
I0403 16:43:57.242218 19083 net.cpp:91] Creating Layer inception_4e/relu_5x5_reduce
I0403 16:43:57.242234 19083 net.cpp:425] inception_4e/relu_5x5_reduce <- inception_4e/5x5_reduce
I0403 16:43:57.242250 19083 net.cpp:386] inception_4e/relu_5x5_reduce -> inception_4e/5x5_reduce (in-place)
I0403 16:43:57.242543 19083 net.cpp:141] Setting up inception_4e/relu_5x5_reduce
I0403 16:43:57.242568 19083 net.cpp:148] Top shape: 24 32 14 14 (150528)
I0403 16:43:57.242583 19083 net.cpp:156] Memory required for data: 1237333536
I0403 16:43:57.242596 19083 layer_factory.hpp:77] Creating layer inception_4e/5x5
I0403 16:43:57.242641 19083 net.cpp:91] Creating Layer inception_4e/5x5
I0403 16:43:57.242660 19083 net.cpp:425] inception_4e/5x5 <- inception_4e/5x5_reduce
I0403 16:43:57.242681 19083 net.cpp:399] inception_4e/5x5 -> inception_4e/5x5
I0403 16:43:57.244475 19083 net.cpp:141] Setting up inception_4e/5x5
I0403 16:43:57.244503 19083 net.cpp:148] Top shape: 24 128 14 14 (602112)
I0403 16:43:57.244518 19083 net.cpp:156] Memory required for data: 1239741984
I0403 16:43:57.244536 19083 layer_factory.hpp:77] Creating layer inception_4e/relu_5x5
I0403 16:43:57.244556 19083 net.cpp:91] Creating Layer inception_4e/relu_5x5
I0403 16:43:57.244573 19083 net.cpp:425] inception_4e/relu_5x5 <- inception_4e/5x5
I0403 16:43:57.244590 19083 net.cpp:386] inception_4e/relu_5x5 -> inception_4e/5x5 (in-place)
I0403 16:43:57.244794 19083 net.cpp:141] Setting up inception_4e/relu_5x5
I0403 16:43:57.244819 19083 net.cpp:148] Top shape: 24 128 14 14 (602112)
I0403 16:43:57.244833 19083 net.cpp:156] Memory required for data: 1242150432
I0403 16:43:57.244848 19083 layer_factory.hpp:77] Creating layer inception_4e/pool
I0403 16:43:57.244866 19083 net.cpp:91] Creating Layer inception_4e/pool
I0403 16:43:57.244882 19083 net.cpp:425] inception_4e/pool <- inception_4d/output_inception_4d/output_0_split_4
I0403 16:43:57.244900 19083 net.cpp:399] inception_4e/pool -> inception_4e/pool
I0403 16:43:57.244968 19083 net.cpp:141] Setting up inception_4e/pool
I0403 16:43:57.244992 19083 net.cpp:148] Top shape: 24 528 14 14 (2483712)
I0403 16:43:57.245005 19083 net.cpp:156] Memory required for data: 1252085280
I0403 16:43:57.245019 19083 layer_factory.hpp:77] Creating layer inception_4e/pool_proj
I0403 16:43:57.245039 19083 net.cpp:91] Creating Layer inception_4e/pool_proj
I0403 16:43:57.245056 19083 net.cpp:425] inception_4e/pool_proj <- inception_4e/pool
I0403 16:43:57.245076 19083 net.cpp:399] inception_4e/pool_proj -> inception_4e/pool_proj
I0403 16:43:57.246542 19083 net.cpp:141] Setting up inception_4e/pool_proj
I0403 16:43:57.246579 19083 net.cpp:148] Top shape: 24 128 14 14 (602112)
I0403 16:43:57.246594 19083 net.cpp:156] Memory required for data: 1254493728
I0403 16:43:57.246619 19083 layer_factory.hpp:77] Creating layer inception_4e/relu_pool_proj
I0403 16:43:57.246640 19083 net.cpp:91] Creating Layer inception_4e/relu_pool_proj
I0403 16:43:57.246657 19083 net.cpp:425] inception_4e/relu_pool_proj <- inception_4e/pool_proj
I0403 16:43:57.246673 19083 net.cpp:386] inception_4e/relu_pool_proj -> inception_4e/pool_proj (in-place)
I0403 16:43:57.246958 19083 net.cpp:141] Setting up inception_4e/relu_pool_proj
I0403 16:43:57.246984 19083 net.cpp:148] Top shape: 24 128 14 14 (602112)
I0403 16:43:57.246997 19083 net.cpp:156] Memory required for data: 1256902176
I0403 16:43:57.247011 19083 layer_factory.hpp:77] Creating layer inception_4e/output
I0403 16:43:57.247028 19083 net.cpp:91] Creating Layer inception_4e/output
I0403 16:43:57.247043 19083 net.cpp:425] inception_4e/output <- inception_4e/1x1
I0403 16:43:57.247058 19083 net.cpp:425] inception_4e/output <- inception_4e/3x3
I0403 16:43:57.247074 19083 net.cpp:425] inception_4e/output <- inception_4e/5x5
I0403 16:43:57.247089 19083 net.cpp:425] inception_4e/output <- inception_4e/pool_proj
I0403 16:43:57.247108 19083 net.cpp:399] inception_4e/output -> inception_4e/output
I0403 16:43:57.247158 19083 net.cpp:141] Setting up inception_4e/output
I0403 16:43:57.247182 19083 net.cpp:148] Top shape: 24 832 14 14 (3913728)
I0403 16:43:57.247197 19083 net.cpp:156] Memory required for data: 1272557088
I0403 16:43:57.247211 19083 layer_factory.hpp:77] Creating layer pool4/3x3_s2
I0403 16:43:57.247227 19083 net.cpp:91] Creating Layer pool4/3x3_s2
I0403 16:43:57.247243 19083 net.cpp:425] pool4/3x3_s2 <- inception_4e/output
I0403 16:43:57.247263 19083 net.cpp:399] pool4/3x3_s2 -> pool4/3x3_s2
I0403 16:43:57.247328 19083 net.cpp:141] Setting up pool4/3x3_s2
I0403 16:43:57.247350 19083 net.cpp:148] Top shape: 24 832 7 7 (978432)
I0403 16:43:57.247364 19083 net.cpp:156] Memory required for data: 1276470816
I0403 16:43:57.247378 19083 layer_factory.hpp:77] Creating layer pool4/3x3_s2_pool4/3x3_s2_0_split
I0403 16:43:57.247397 19083 net.cpp:91] Creating Layer pool4/3x3_s2_pool4/3x3_s2_0_split
I0403 16:43:57.247413 19083 net.cpp:425] pool4/3x3_s2_pool4/3x3_s2_0_split <- pool4/3x3_s2
I0403 16:43:57.247431 19083 net.cpp:399] pool4/3x3_s2_pool4/3x3_s2_0_split -> pool4/3x3_s2_pool4/3x3_s2_0_split_0
I0403 16:43:57.247449 19083 net.cpp:399] pool4/3x3_s2_pool4/3x3_s2_0_split -> pool4/3x3_s2_pool4/3x3_s2_0_split_1
I0403 16:43:57.247468 19083 net.cpp:399] pool4/3x3_s2_pool4/3x3_s2_0_split -> pool4/3x3_s2_pool4/3x3_s2_0_split_2
I0403 16:43:57.247493 19083 net.cpp:399] pool4/3x3_s2_pool4/3x3_s2_0_split -> pool4/3x3_s2_pool4/3x3_s2_0_split_3
I0403 16:43:57.247582 19083 net.cpp:141] Setting up pool4/3x3_s2_pool4/3x3_s2_0_split
I0403 16:43:57.247611 19083 net.cpp:148] Top shape: 24 832 7 7 (978432)
I0403 16:43:57.247627 19083 net.cpp:148] Top shape: 24 832 7 7 (978432)
I0403 16:43:57.247642 19083 net.cpp:148] Top shape: 24 832 7 7 (978432)
I0403 16:43:57.247656 19083 net.cpp:148] Top shape: 24 832 7 7 (978432)
I0403 16:43:57.247668 19083 net.cpp:156] Memory required for data: 1292125728
I0403 16:43:57.247683 19083 layer_factory.hpp:77] Creating layer inception_5a/1x1
I0403 16:43:57.247704 19083 net.cpp:91] Creating Layer inception_5a/1x1
I0403 16:43:57.247720 19083 net.cpp:425] inception_5a/1x1 <- pool4/3x3_s2_pool4/3x3_s2_0_split_0
I0403 16:43:57.247741 19083 net.cpp:399] inception_5a/1x1 -> inception_5a/1x1
I0403 16:43:57.250537 19083 net.cpp:141] Setting up inception_5a/1x1
I0403 16:43:57.250566 19083 net.cpp:148] Top shape: 24 256 7 7 (301056)
I0403 16:43:57.250581 19083 net.cpp:156] Memory required for data: 1293329952
I0403 16:43:57.250604 19083 layer_factory.hpp:77] Creating layer inception_5a/relu_1x1
I0403 16:43:57.250625 19083 net.cpp:91] Creating Layer inception_5a/relu_1x1
I0403 16:43:57.250641 19083 net.cpp:425] inception_5a/relu_1x1 <- inception_5a/1x1
I0403 16:43:57.250658 19083 net.cpp:386] inception_5a/relu_1x1 -> inception_5a/1x1 (in-place)
I0403 16:43:57.250962 19083 net.cpp:141] Setting up inception_5a/relu_1x1
I0403 16:43:57.250988 19083 net.cpp:148] Top shape: 24 256 7 7 (301056)
I0403 16:43:57.251001 19083 net.cpp:156] Memory required for data: 1294534176
I0403 16:43:57.251015 19083 layer_factory.hpp:77] Creating layer inception_5a/3x3_reduce
I0403 16:43:57.251036 19083 net.cpp:91] Creating Layer inception_5a/3x3_reduce
I0403 16:43:57.251054 19083 net.cpp:425] inception_5a/3x3_reduce <- pool4/3x3_s2_pool4/3x3_s2_0_split_1
I0403 16:43:57.251075 19083 net.cpp:399] inception_5a/3x3_reduce -> inception_5a/3x3_reduce
I0403 16:43:57.253484 19083 net.cpp:141] Setting up inception_5a/3x3_reduce
I0403 16:43:57.253514 19083 net.cpp:148] Top shape: 24 160 7 7 (188160)
I0403 16:43:57.253530 19083 net.cpp:156] Memory required for data: 1295286816
I0403 16:43:57.253548 19083 layer_factory.hpp:77] Creating layer inception_5a/relu_3x3_reduce
I0403 16:43:57.253566 19083 net.cpp:91] Creating Layer inception_5a/relu_3x3_reduce
I0403 16:43:57.253582 19083 net.cpp:425] inception_5a/relu_3x3_reduce <- inception_5a/3x3_reduce
I0403 16:43:57.253605 19083 net.cpp:386] inception_5a/relu_3x3_reduce -> inception_5a/3x3_reduce (in-place)
I0403 16:43:57.253790 19083 net.cpp:141] Setting up inception_5a/relu_3x3_reduce
I0403 16:43:57.253813 19083 net.cpp:148] Top shape: 24 160 7 7 (188160)
I0403 16:43:57.253828 19083 net.cpp:156] Memory required for data: 1296039456
I0403 16:43:57.253841 19083 layer_factory.hpp:77] Creating layer inception_5a/3x3
I0403 16:43:57.253862 19083 net.cpp:91] Creating Layer inception_5a/3x3
I0403 16:43:57.253878 19083 net.cpp:425] inception_5a/3x3 <- inception_5a/3x3_reduce
I0403 16:43:57.253901 19083 net.cpp:399] inception_5a/3x3 -> inception_5a/3x3
I0403 16:43:57.258844 19083 net.cpp:141] Setting up inception_5a/3x3
I0403 16:43:57.258873 19083 net.cpp:148] Top shape: 24 320 7 7 (376320)
I0403 16:43:57.258888 19083 net.cpp:156] Memory required for data: 1297544736
I0403 16:43:57.258906 19083 layer_factory.hpp:77] Creating layer inception_5a/relu_3x3
I0403 16:43:57.258925 19083 net.cpp:91] Creating Layer inception_5a/relu_3x3
I0403 16:43:57.258941 19083 net.cpp:425] inception_5a/relu_3x3 <- inception_5a/3x3
I0403 16:43:57.258958 19083 net.cpp:386] inception_5a/relu_3x3 -> inception_5a/3x3 (in-place)
I0403 16:43:57.259253 19083 net.cpp:141] Setting up inception_5a/relu_3x3
I0403 16:43:57.259277 19083 net.cpp:148] Top shape: 24 320 7 7 (376320)
I0403 16:43:57.259291 19083 net.cpp:156] Memory required for data: 1299050016
I0403 16:43:57.259305 19083 layer_factory.hpp:77] Creating layer inception_5a/5x5_reduce
I0403 16:43:57.259327 19083 net.cpp:91] Creating Layer inception_5a/5x5_reduce
I0403 16:43:57.259346 19083 net.cpp:425] inception_5a/5x5_reduce <- pool4/3x3_s2_pool4/3x3_s2_0_split_2
I0403 16:43:57.259366 19083 net.cpp:399] inception_5a/5x5_reduce -> inception_5a/5x5_reduce
I0403 16:43:57.260517 19083 net.cpp:141] Setting up inception_5a/5x5_reduce
I0403 16:43:57.260545 19083 net.cpp:148] Top shape: 24 32 7 7 (37632)
I0403 16:43:57.260560 19083 net.cpp:156] Memory required for data: 1299200544
I0403 16:43:57.260578 19083 layer_factory.hpp:77] Creating layer inception_5a/relu_5x5_reduce
I0403 16:43:57.260597 19083 net.cpp:91] Creating Layer inception_5a/relu_5x5_reduce
I0403 16:43:57.260620 19083 net.cpp:425] inception_5a/relu_5x5_reduce <- inception_5a/5x5_reduce
I0403 16:43:57.260637 19083 net.cpp:386] inception_5a/relu_5x5_reduce -> inception_5a/5x5_reduce (in-place)
I0403 16:43:57.260937 19083 net.cpp:141] Setting up inception_5a/relu_5x5_reduce
I0403 16:43:57.260962 19083 net.cpp:148] Top shape: 24 32 7 7 (37632)
I0403 16:43:57.260977 19083 net.cpp:156] Memory required for data: 1299351072
I0403 16:43:57.260990 19083 layer_factory.hpp:77] Creating layer inception_5a/5x5
I0403 16:43:57.261013 19083 net.cpp:91] Creating Layer inception_5a/5x5
I0403 16:43:57.261031 19083 net.cpp:425] inception_5a/5x5 <- inception_5a/5x5_reduce
I0403 16:43:57.261049 19083 net.cpp:399] inception_5a/5x5 -> inception_5a/5x5
I0403 16:43:57.262756 19083 net.cpp:141] Setting up inception_5a/5x5
I0403 16:43:57.262794 19083 net.cpp:148] Top shape: 24 128 7 7 (150528)
I0403 16:43:57.262809 19083 net.cpp:156] Memory required for data: 1299953184
I0403 16:43:57.262827 19083 layer_factory.hpp:77] Creating layer inception_5a/relu_5x5
I0403 16:43:57.262846 19083 net.cpp:91] Creating Layer inception_5a/relu_5x5
I0403 16:43:57.262863 19083 net.cpp:425] inception_5a/relu_5x5 <- inception_5a/5x5
I0403 16:43:57.262879 19083 net.cpp:386] inception_5a/relu_5x5 -> inception_5a/5x5 (in-place)
I0403 16:43:57.263065 19083 net.cpp:141] Setting up inception_5a/relu_5x5
I0403 16:43:57.263089 19083 net.cpp:148] Top shape: 24 128 7 7 (150528)
I0403 16:43:57.263103 19083 net.cpp:156] Memory required for data: 1300555296
I0403 16:43:57.263118 19083 layer_factory.hpp:77] Creating layer inception_5a/pool
I0403 16:43:57.263135 19083 net.cpp:91] Creating Layer inception_5a/pool
I0403 16:43:57.263152 19083 net.cpp:425] inception_5a/pool <- pool4/3x3_s2_pool4/3x3_s2_0_split_3
I0403 16:43:57.263170 19083 net.cpp:399] inception_5a/pool -> inception_5a/pool
I0403 16:43:57.263241 19083 net.cpp:141] Setting up inception_5a/pool
I0403 16:43:57.263263 19083 net.cpp:148] Top shape: 24 832 7 7 (978432)
I0403 16:43:57.263278 19083 net.cpp:156] Memory required for data: 1304469024
I0403 16:43:57.263291 19083 layer_factory.hpp:77] Creating layer inception_5a/pool_proj
I0403 16:43:57.263312 19083 net.cpp:91] Creating Layer inception_5a/pool_proj
I0403 16:43:57.263329 19083 net.cpp:425] inception_5a/pool_proj <- inception_5a/pool
I0403 16:43:57.263350 19083 net.cpp:399] inception_5a/pool_proj -> inception_5a/pool_proj
I0403 16:43:57.265635 19083 net.cpp:141] Setting up inception_5a/pool_proj
I0403 16:43:57.265663 19083 net.cpp:148] Top shape: 24 128 7 7 (150528)
I0403 16:43:57.265679 19083 net.cpp:156] Memory required for data: 1305071136
I0403 16:43:57.265697 19083 layer_factory.hpp:77] Creating layer inception_5a/relu_pool_proj
I0403 16:43:57.265713 19083 net.cpp:91] Creating Layer inception_5a/relu_pool_proj
I0403 16:43:57.265729 19083 net.cpp:425] inception_5a/relu_pool_proj <- inception_5a/pool_proj
I0403 16:43:57.265748 19083 net.cpp:386] inception_5a/relu_pool_proj -> inception_5a/pool_proj (in-place)
I0403 16:43:57.266041 19083 net.cpp:141] Setting up inception_5a/relu_pool_proj
I0403 16:43:57.266067 19083 net.cpp:148] Top shape: 24 128 7 7 (150528)
I0403 16:43:57.266080 19083 net.cpp:156] Memory required for data: 1305673248
I0403 16:43:57.266093 19083 layer_factory.hpp:77] Creating layer inception_5a/output
I0403 16:43:57.266110 19083 net.cpp:91] Creating Layer inception_5a/output
I0403 16:43:57.266125 19083 net.cpp:425] inception_5a/output <- inception_5a/1x1
I0403 16:43:57.266141 19083 net.cpp:425] inception_5a/output <- inception_5a/3x3
I0403 16:43:57.266156 19083 net.cpp:425] inception_5a/output <- inception_5a/5x5
I0403 16:43:57.266172 19083 net.cpp:425] inception_5a/output <- inception_5a/pool_proj
I0403 16:43:57.266191 19083 net.cpp:399] inception_5a/output -> inception_5a/output
I0403 16:43:57.266240 19083 net.cpp:141] Setting up inception_5a/output
I0403 16:43:57.266265 19083 net.cpp:148] Top shape: 24 832 7 7 (978432)
I0403 16:43:57.266280 19083 net.cpp:156] Memory required for data: 1309586976
I0403 16:43:57.266294 19083 layer_factory.hpp:77] Creating layer inception_5a/output_inception_5a/output_0_split
I0403 16:43:57.266311 19083 net.cpp:91] Creating Layer inception_5a/output_inception_5a/output_0_split
I0403 16:43:57.266327 19083 net.cpp:425] inception_5a/output_inception_5a/output_0_split <- inception_5a/output
I0403 16:43:57.266345 19083 net.cpp:399] inception_5a/output_inception_5a/output_0_split -> inception_5a/output_inception_5a/output_0_split_0
I0403 16:43:57.266366 19083 net.cpp:399] inception_5a/output_inception_5a/output_0_split -> inception_5a/output_inception_5a/output_0_split_1
I0403 16:43:57.266386 19083 net.cpp:399] inception_5a/output_inception_5a/output_0_split -> inception_5a/output_inception_5a/output_0_split_2
I0403 16:43:57.266407 19083 net.cpp:399] inception_5a/output_inception_5a/output_0_split -> inception_5a/output_inception_5a/output_0_split_3
I0403 16:43:57.266518 19083 net.cpp:141] Setting up inception_5a/output_inception_5a/output_0_split
I0403 16:43:57.266541 19083 net.cpp:148] Top shape: 24 832 7 7 (978432)
I0403 16:43:57.266556 19083 net.cpp:148] Top shape: 24 832 7 7 (978432)
I0403 16:43:57.266571 19083 net.cpp:148] Top shape: 24 832 7 7 (978432)
I0403 16:43:57.266585 19083 net.cpp:148] Top shape: 24 832 7 7 (978432)
I0403 16:43:57.266607 19083 net.cpp:156] Memory required for data: 1325241888
I0403 16:43:57.266635 19083 layer_factory.hpp:77] Creating layer inception_5b/1x1
I0403 16:43:57.266659 19083 net.cpp:91] Creating Layer inception_5b/1x1
I0403 16:43:57.266690 19083 net.cpp:425] inception_5b/1x1 <- inception_5a/output_inception_5a/output_0_split_0
I0403 16:43:57.266710 19083 net.cpp:399] inception_5b/1x1 -> inception_5b/1x1
I0403 16:43:57.270521 19083 net.cpp:141] Setting up inception_5b/1x1
I0403 16:43:57.270555 19083 net.cpp:148] Top shape: 24 384 7 7 (451584)
I0403 16:43:57.270572 19083 net.cpp:156] Memory required for data: 1327048224
I0403 16:43:57.270591 19083 layer_factory.hpp:77] Creating layer inception_5b/relu_1x1
I0403 16:43:57.270615 19083 net.cpp:91] Creating Layer inception_5b/relu_1x1
I0403 16:43:57.270633 19083 net.cpp:425] inception_5b/relu_1x1 <- inception_5b/1x1
I0403 16:43:57.270653 19083 net.cpp:386] inception_5b/relu_1x1 -> inception_5b/1x1 (in-place)
I0403 16:43:57.270958 19083 net.cpp:141] Setting up inception_5b/relu_1x1
I0403 16:43:57.270985 19083 net.cpp:148] Top shape: 24 384 7 7 (451584)
I0403 16:43:57.271010 19083 net.cpp:156] Memory required for data: 1328854560
I0403 16:43:57.271025 19083 layer_factory.hpp:77] Creating layer inception_5b/3x3_reduce
I0403 16:43:57.271047 19083 net.cpp:91] Creating Layer inception_5b/3x3_reduce
I0403 16:43:57.271065 19083 net.cpp:425] inception_5b/3x3_reduce <- inception_5a/output_inception_5a/output_0_split_1
I0403 16:43:57.271086 19083 net.cpp:399] inception_5b/3x3_reduce -> inception_5b/3x3_reduce
I0403 16:43:57.273803 19083 net.cpp:141] Setting up inception_5b/3x3_reduce
I0403 16:43:57.273833 19083 net.cpp:148] Top shape: 24 192 7 7 (225792)
I0403 16:43:57.273847 19083 net.cpp:156] Memory required for data: 1329757728
I0403 16:43:57.273865 19083 layer_factory.hpp:77] Creating layer inception_5b/relu_3x3_reduce
I0403 16:43:57.273882 19083 net.cpp:91] Creating Layer inception_5b/relu_3x3_reduce
I0403 16:43:57.273897 19083 net.cpp:425] inception_5b/relu_3x3_reduce <- inception_5b/3x3_reduce
I0403 16:43:57.273916 19083 net.cpp:386] inception_5b/relu_3x3_reduce -> inception_5b/3x3_reduce (in-place)
I0403 16:43:57.274102 19083 net.cpp:141] Setting up inception_5b/relu_3x3_reduce
I0403 16:43:57.274127 19083 net.cpp:148] Top shape: 24 192 7 7 (225792)
I0403 16:43:57.274140 19083 net.cpp:156] Memory required for data: 1330660896
I0403 16:43:57.274154 19083 layer_factory.hpp:77] Creating layer inception_5b/3x3
I0403 16:43:57.274174 19083 net.cpp:91] Creating Layer inception_5b/3x3
I0403 16:43:57.274191 19083 net.cpp:425] inception_5b/3x3 <- inception_5b/3x3_reduce
I0403 16:43:57.274212 19083 net.cpp:399] inception_5b/3x3 -> inception_5b/3x3
I0403 16:43:57.280819 19083 net.cpp:141] Setting up inception_5b/3x3
I0403 16:43:57.280846 19083 net.cpp:148] Top shape: 24 384 7 7 (451584)
I0403 16:43:57.280861 19083 net.cpp:156] Memory required for data: 1332467232
I0403 16:43:57.280879 19083 layer_factory.hpp:77] Creating layer inception_5b/relu_3x3
I0403 16:43:57.280896 19083 net.cpp:91] Creating Layer inception_5b/relu_3x3
I0403 16:43:57.280912 19083 net.cpp:425] inception_5b/relu_3x3 <- inception_5b/3x3
I0403 16:43:57.280931 19083 net.cpp:386] inception_5b/relu_3x3 -> inception_5b/3x3 (in-place)
I0403 16:43:57.281224 19083 net.cpp:141] Setting up inception_5b/relu_3x3
I0403 16:43:57.281250 19083 net.cpp:148] Top shape: 24 384 7 7 (451584)
I0403 16:43:57.281265 19083 net.cpp:156] Memory required for data: 1334273568
I0403 16:43:57.281278 19083 layer_factory.hpp:77] Creating layer inception_5b/5x5_reduce
I0403 16:43:57.281316 19083 net.cpp:91] Creating Layer inception_5b/5x5_reduce
I0403 16:43:57.281335 19083 net.cpp:425] inception_5b/5x5_reduce <- inception_5a/output_inception_5a/output_0_split_2
I0403 16:43:57.281360 19083 net.cpp:399] inception_5b/5x5_reduce -> inception_5b/5x5_reduce
I0403 16:43:57.282626 19083 net.cpp:141] Setting up inception_5b/5x5_reduce
I0403 16:43:57.282655 19083 net.cpp:148] Top shape: 24 48 7 7 (56448)
I0403 16:43:57.282670 19083 net.cpp:156] Memory required for data: 1334499360
I0403 16:43:57.282687 19083 layer_factory.hpp:77] Creating layer inception_5b/relu_5x5_reduce
I0403 16:43:57.282707 19083 net.cpp:91] Creating Layer inception_5b/relu_5x5_reduce
I0403 16:43:57.282724 19083 net.cpp:425] inception_5b/relu_5x5_reduce <- inception_5b/5x5_reduce
I0403 16:43:57.282740 19083 net.cpp:386] inception_5b/relu_5x5_reduce -> inception_5b/5x5_reduce (in-place)
I0403 16:43:57.283107 19083 net.cpp:141] Setting up inception_5b/relu_5x5_reduce
I0403 16:43:57.283133 19083 net.cpp:148] Top shape: 24 48 7 7 (56448)
I0403 16:43:57.283148 19083 net.cpp:156] Memory required for data: 1334725152
I0403 16:43:57.283161 19083 layer_factory.hpp:77] Creating layer inception_5b/5x5
I0403 16:43:57.283181 19083 net.cpp:91] Creating Layer inception_5b/5x5
I0403 16:43:57.283197 19083 net.cpp:425] inception_5b/5x5 <- inception_5b/5x5_reduce
I0403 16:43:57.283215 19083 net.cpp:399] inception_5b/5x5 -> inception_5b/5x5
I0403 16:43:57.285251 19083 net.cpp:141] Setting up inception_5b/5x5
I0403 16:43:57.285279 19083 net.cpp:148] Top shape: 24 128 7 7 (150528)
I0403 16:43:57.285292 19083 net.cpp:156] Memory required for data: 1335327264
I0403 16:43:57.285310 19083 layer_factory.hpp:77] Creating layer inception_5b/relu_5x5
I0403 16:43:57.285328 19083 net.cpp:91] Creating Layer inception_5b/relu_5x5
I0403 16:43:57.285344 19083 net.cpp:425] inception_5b/relu_5x5 <- inception_5b/5x5
I0403 16:43:57.285361 19083 net.cpp:386] inception_5b/relu_5x5 -> inception_5b/5x5 (in-place)
I0403 16:43:57.285545 19083 net.cpp:141] Setting up inception_5b/relu_5x5
I0403 16:43:57.285570 19083 net.cpp:148] Top shape: 24 128 7 7 (150528)
I0403 16:43:57.285584 19083 net.cpp:156] Memory required for data: 1335929376
I0403 16:43:57.285604 19083 layer_factory.hpp:77] Creating layer inception_5b/pool
I0403 16:43:57.285621 19083 net.cpp:91] Creating Layer inception_5b/pool
I0403 16:43:57.285637 19083 net.cpp:425] inception_5b/pool <- inception_5a/output_inception_5a/output_0_split_3
I0403 16:43:57.285653 19083 net.cpp:399] inception_5b/pool -> inception_5b/pool
I0403 16:43:57.285724 19083 net.cpp:141] Setting up inception_5b/pool
I0403 16:43:57.285747 19083 net.cpp:148] Top shape: 24 832 7 7 (978432)
I0403 16:43:57.285760 19083 net.cpp:156] Memory required for data: 1339843104
I0403 16:43:57.285773 19083 layer_factory.hpp:77] Creating layer inception_5b/pool_proj
I0403 16:43:57.285794 19083 net.cpp:91] Creating Layer inception_5b/pool_proj
I0403 16:43:57.285809 19083 net.cpp:425] inception_5b/pool_proj <- inception_5b/pool
I0403 16:43:57.285830 19083 net.cpp:399] inception_5b/pool_proj -> inception_5b/pool_proj
I0403 16:43:57.288050 19083 net.cpp:141] Setting up inception_5b/pool_proj
I0403 16:43:57.288079 19083 net.cpp:148] Top shape: 24 128 7 7 (150528)
I0403 16:43:57.288094 19083 net.cpp:156] Memory required for data: 1340445216
I0403 16:43:57.288110 19083 layer_factory.hpp:77] Creating layer inception_5b/relu_pool_proj
I0403 16:43:57.288130 19083 net.cpp:91] Creating Layer inception_5b/relu_pool_proj
I0403 16:43:57.288146 19083 net.cpp:425] inception_5b/relu_pool_proj <- inception_5b/pool_proj
I0403 16:43:57.288161 19083 net.cpp:386] inception_5b/relu_pool_proj -> inception_5b/pool_proj (in-place)
I0403 16:43:57.288447 19083 net.cpp:141] Setting up inception_5b/relu_pool_proj
I0403 16:43:57.288472 19083 net.cpp:148] Top shape: 24 128 7 7 (150528)
I0403 16:43:57.288486 19083 net.cpp:156] Memory required for data: 1341047328
I0403 16:43:57.288499 19083 layer_factory.hpp:77] Creating layer inception_5b/output
I0403 16:43:57.288516 19083 net.cpp:91] Creating Layer inception_5b/output
I0403 16:43:57.288544 19083 net.cpp:425] inception_5b/output <- inception_5b/1x1
I0403 16:43:57.288560 19083 net.cpp:425] inception_5b/output <- inception_5b/3x3
I0403 16:43:57.288576 19083 net.cpp:425] inception_5b/output <- inception_5b/5x5
I0403 16:43:57.288591 19083 net.cpp:425] inception_5b/output <- inception_5b/pool_proj
I0403 16:43:57.288616 19083 net.cpp:399] inception_5b/output -> inception_5b/output
I0403 16:43:57.288667 19083 net.cpp:141] Setting up inception_5b/output
I0403 16:43:57.288691 19083 net.cpp:148] Top shape: 24 1024 7 7 (1204224)
I0403 16:43:57.288707 19083 net.cpp:156] Memory required for data: 1345864224
I0403 16:43:57.288719 19083 layer_factory.hpp:77] Creating layer pool5/7x7_s1
I0403 16:43:57.288735 19083 net.cpp:91] Creating Layer pool5/7x7_s1
I0403 16:43:57.288749 19083 net.cpp:425] pool5/7x7_s1 <- inception_5b/output
I0403 16:43:57.288769 19083 net.cpp:399] pool5/7x7_s1 -> pool5/7x7_s1
I0403 16:43:57.288974 19083 net.cpp:141] Setting up pool5/7x7_s1
I0403 16:43:57.288997 19083 net.cpp:148] Top shape: 24 1024 1 1 (24576)
I0403 16:43:57.289011 19083 net.cpp:156] Memory required for data: 1345962528
I0403 16:43:57.289026 19083 layer_factory.hpp:77] Creating layer pool5/drop_7x7_s1
I0403 16:43:57.289044 19083 net.cpp:91] Creating Layer pool5/drop_7x7_s1
I0403 16:43:57.289059 19083 net.cpp:425] pool5/drop_7x7_s1 <- pool5/7x7_s1
I0403 16:43:57.289077 19083 net.cpp:386] pool5/drop_7x7_s1 -> pool5/7x7_s1 (in-place)
I0403 16:43:57.289122 19083 net.cpp:141] Setting up pool5/drop_7x7_s1
I0403 16:43:57.289145 19083 net.cpp:148] Top shape: 24 1024 1 1 (24576)
I0403 16:43:57.289160 19083 net.cpp:156] Memory required for data: 1346060832
I0403 16:43:57.289172 19083 layer_factory.hpp:77] Creating layer loss3/classifier_plantvillage
I0403 16:43:57.289191 19083 net.cpp:91] Creating Layer loss3/classifier_plantvillage
I0403 16:43:57.289206 19083 net.cpp:425] loss3/classifier_plantvillage <- pool5/7x7_s1
I0403 16:43:57.289224 19083 net.cpp:399] loss3/classifier_plantvillage -> loss3/classifier_plantvillage
I0403 16:43:57.289639 19083 net.cpp:141] Setting up loss3/classifier_plantvillage
I0403 16:43:57.289664 19083 net.cpp:148] Top shape: 24 38 (912)
I0403 16:43:57.289676 19083 net.cpp:156] Memory required for data: 1346064480
I0403 16:43:57.289692 19083 layer_factory.hpp:77] Creating layer loss3/classifier_plantvillage_loss3/classifier_plantvillage_0_split
I0403 16:43:57.289710 19083 net.cpp:91] Creating Layer loss3/classifier_plantvillage_loss3/classifier_plantvillage_0_split
I0403 16:43:57.289724 19083 net.cpp:425] loss3/classifier_plantvillage_loss3/classifier_plantvillage_0_split <- loss3/classifier_plantvillage
I0403 16:43:57.289741 19083 net.cpp:399] loss3/classifier_plantvillage_loss3/classifier_plantvillage_0_split -> loss3/classifier_plantvillage_loss3/classifier_plantvillage_0_split_0
I0403 16:43:57.289763 19083 net.cpp:399] loss3/classifier_plantvillage_loss3/classifier_plantvillage_0_split -> loss3/classifier_plantvillage_loss3/classifier_plantvillage_0_split_1
I0403 16:43:57.289784 19083 net.cpp:399] loss3/classifier_plantvillage_loss3/classifier_plantvillage_0_split -> loss3/classifier_plantvillage_loss3/classifier_plantvillage_0_split_2
I0403 16:43:57.289803 19083 net.cpp:399] loss3/classifier_plantvillage_loss3/classifier_plantvillage_0_split -> loss3/classifier_plantvillage_loss3/classifier_plantvillage_0_split_3
I0403 16:43:57.289901 19083 net.cpp:141] Setting up loss3/classifier_plantvillage_loss3/classifier_plantvillage_0_split
I0403 16:43:57.289923 19083 net.cpp:148] Top shape: 24 38 (912)
I0403 16:43:57.289938 19083 net.cpp:148] Top shape: 24 38 (912)
I0403 16:43:57.289952 19083 net.cpp:148] Top shape: 24 38 (912)
I0403 16:43:57.289966 19083 net.cpp:148] Top shape: 24 38 (912)
I0403 16:43:57.289979 19083 net.cpp:156] Memory required for data: 1346079072
I0403 16:43:57.289993 19083 layer_factory.hpp:77] Creating layer loss1/loss
I0403 16:43:57.290014 19083 net.cpp:91] Creating Layer loss1/loss
I0403 16:43:57.290031 19083 net.cpp:425] loss1/loss <- loss1/classifier_plantvillage_loss1/classifier_plantvillage_0_split_0
I0403 16:43:57.290060 19083 net.cpp:425] loss1/loss <- label_data_1_split_0
…
