…
I0403 16:49:23.484133 19372 net.cpp:313] The NetState phase (1) differed from the phase (0) specified by a rule in layer data
I0403 16:49:23.485252 19372 net.cpp:49] Initializing net from parameters: 
state {
  phase: TEST
}
layer {
  name: "data"
  type: "Data"
  top: "data"
  top: "label"
  include {
    phase: TEST
  }
  transform_param {
    mirror: false
    crop_size: 224
    mean_file: "/home/mohanty/data/final_dataset/lmdb/segmented-20-80/mean.binaryproto"
  }
  data_param {
    source: "/home/mohanty/data/final_dataset/lmdb/segmented-20-80/test_db"
    batch_size: 24
    backend: LMDB
  }
}
layer {
  name: "conv1/7x7_s2"
  type: "Convolution"
  bottom: "data"
  top: "conv1/7x7_s2"
  param {
    lr_mult: 1
    decay_mult: 1
  }
  param {
    lr_mult: 2
    decay_mult: 0
  }
  convolution_param {
    num_output: 64
    pad: 3
    kernel_size: 7
    stride: 2
    weight_filler {
      type: "xavier"
      std: 0.1
    }
    bias_filler {
      type: "constant"
      value: 0.2
    }
  }
}
layer {
  name: "conv1/relu_7x7"
  type: "ReLU"
  bottom: "conv1/7x7_s2"
  top: "conv1/7x7_s2"
}
layer {
  name: "pool1/3x3_s2"
  type: "Pooling"
  bottom: "conv1/7x7_s2"
  top: "pool1/3x3_s2"
  pooling_param {
    pool: MAX
    kernel_size: 3
    stride: 2
  }
}
layer {
  name: "pool1/norm1"
  type: "LRN"
  bottom: "pool1/3x3_s2"
  top: "pool1/norm1"
  lrn_param {
    local_size: 5
    alpha: 0.0001
    beta: 0.75
  }
}
layer {
  name: "conv2/3x3_reduce"
  type: "Convolution"
  bottom: "pool1/norm1"
  top: "conv2/3x3_reduce"
  param {
    lr_mult: 1
    decay_mult: 1
  }
  param {
    lr_mult: 2
    decay_mult: 0
  }
  convolution_param {
    num_output: 64
    kernel_size: 1
    weight_filler {
      type: "xavier"
      std: 0.1
    }
    bias_filler {
      type: "constant"
      value: 0.2
    }
  }
}
layer {
  name: "conv2/relu_3x3_reduce"
  type: "ReLU"
  bottom: "conv2/3x3_reduce"
  top: "conv2/3x3_reduce"
}
layer {
  name: "conv2/3x3"
  type: "Convolution"
  bottom: "conv2/3x3_reduce"
  top: "conv2/3x3"
  param {
    lr_mult: 1
    decay_mult: 1
  }
  param {
    lr_mult: 2
    decay_mult: 0
  }
  convolution_param {
    num_output: 192
    pad: 1
    kernel_size: 3
    weight_filler {
      type: "xavier"
      std: 0.03
    }
    bias_filler {
      type: "constant"
      value: 0.2
    }
  }
}
layer {
  name: "conv2/relu_3x3"
  type: "ReLU"
  bottom: "conv2/3x3"
  top: "conv2/3x3"
}
layer {
  name: "conv2/norm2"
  type: "LRN"
  bottom: "conv2/3x3"
  top: "conv2/norm2"
  lrn_param {
    local_size: 5
    alpha: 0.0001
    beta: 0.75
  }
}
layer {
  name: "pool2/3x3_s2"
  type: "Pooling"
  bottom: "conv2/norm2"
  top: "pool2/3x3_s2"
  pooling_param {
    pool: MAX
    kernel_size: 3
    stride: 2
  }
}
layer {
  name: "inception_3a/1x1"
  type: "Convolution"
  bottom: "pool2/3x3_s2"
  top: "inception_3a/1x1"
  param {
    lr_mult: 1
    decay_mult: 1
  }
  param {
    lr_mult: 2
    decay_mult: 0
  }
  convolution_param {
    num_output: 64
    kernel_size: 1
    weight_filler {
      type: "xavier"
      std: 0.03
    }
    bias_filler {
      type: "constant"
      value: 0.2
    }
  }
}
layer {
  name: "inception_3a/relu_1x1"
  type: "ReLU"
  bottom: "inception_3a/1x1"
  top: "inception_3a/1x1"
}
layer {
  name: "inception_3a/3x3_reduce"
  type: "Convolution"
  bottom: "pool2/3x3_s2"
  top: "inception_3a/3x3_reduce"
  param {
    lr_mult: 1
    decay_mult: 1
  }
  param {
    lr_mult: 2
    decay_mult: 0
  }
  convolution_param {
    num_output: 96
    kernel_size: 1
    weight_filler {
      type: "xavier"
      std: 0.09
    }
    bias_filler {
      type: "constant"
      value: 0.2
    }
  }
}
layer {
  name: "inception_3a/relu_3x3_reduce"
  type: "ReLU"
  bottom: "inception_3a/3x3_reduce"
  top: "inception_3a/3x3_reduce"
}
layer {
  name: "inception_3a/3x3"
  type: "Convolution"
  bottom: "inception_3a/3x3_reduce"
  top: "inception_3a/3x3"
  param {
    lr_mult: 1
    decay_mult: 1
  }
  param {
    lr_mult: 2
    decay_mult: 0
  }
  convolution_param {
    num_output: 128
    pad: 1
    kernel_size: 3
    weight_filler {
      type: "xavier"
      std: 0.03
    }
    bias_filler {
      type: "constant"
      value: 0.2
    }
  }
}
layer {
  name: "inception_3a/relu_3x3"
  type: "ReLU"
  bottom: "inception_3a/3x3"
  top: "inception_3a/3x3"
}
layer {
  name: "inception_3a/5x5_reduce"
  type: "Convolution"
  bottom: "pool2/3x3_s2"
  top: "inception_3a/5x5_reduce"
  param {
    lr_mult: 1
    decay_mult: 1
  }
  param {
    lr_mult: 2
    decay_mult: 0
  }
  convolution_param {
    num_output: 16
    kernel_size: 1
    weight_filler {
      type: "xavier"
      std: 0.2
    }
    bias_filler {
      type: "constant"
      value: 0.2
    }
  }
}
layer {
  name: "inception_3a/relu_5x5_reduce"
  type: "ReLU"
  bottom: "inception_3a/5x5_reduce"
  top: "inception_3a/5x5_reduce"
}
layer {
  name: "inception_3a/5x5"
  type: "Convolution"
  bottom: "inception_3a/5x5_reduce"
  top: "inception_3a/5x5"
  param {
    lr_mult: 1
    decay_mult: 1
  }
  param {
    lr_mult: 2
    decay_mult: 0
  }
  convolution_param {
    num_output: 32
    pad: 2
    kernel_size: 5
    weight_filler {
      type: "xavier"
      std: 0.03
    }
    bias_filler {
      type: "constant"
      value: 0.2
    }
  }
}
layer {
  name: "inception_3a/relu_5x5"
  type: "ReLU"
  bottom: "inception_3a/5x5"
  top: "inception_3a/5x5"
}
layer {
  name: "inception_3a/pool"
  type: "Pooling"
  bottom: "pool2/3x3_s2"
  top: "inception_3a/pool"
  pooling_param {
    pool: MAX
    kernel_size: 3
    stride: 1
    pad: 1
  }
}
layer {
  name: "inception_3a/pool_proj"
  type: "Convolution"
  bottom: "inception_3a/pool"
  top: "inception_3a/pool_proj"
  param {
    lr_mult: 1
    decay_mult: 1
  }
  param {
    lr_mult: 2
    decay_mult: 0
  }
  convolution_param {
    num_output: 32
    kernel_size: 1
    weight_filler {
      type: "xavier"
      std: 0.1
    }
    bias_filler {
      type: "constant"
      value: 0.2
    }
  }
}
layer {
  name: "inception_3a/relu_pool_proj"
  type: "ReLU"
  bottom: "inception_3a/pool_proj"
  top: "inception_3a/pool_proj"
}
layer {
  name: "inception_3a/output"
  type: "Concat"
  bottom: "inception_3a/1x1"
  bottom: "inception_3a/3x3"
  bottom: "inception_3a/5x5"
  bottom: "inception_3a/pool_proj"
  top: "inception_3a/output"
}
layer {
  name: "inception_3b/1x1"
  type: "Convolution"
  bottom: "inception_3a/output"
  top: "inception_3b/1x1"
  param {
    lr_mult: 1
    decay_mult: 1
  }
  param {
    lr_mult: 2
    decay_mult: 0
  }
  convolution_param {
    num_output: 128
    kernel_size: 1
    weight_filler {
      type: "xavier"
      std: 0.03
    }
    bias_filler {
      type: "constant"
      value: 0.2
    }
  }
}
layer {
  name: "inception_3b/relu_1x1"
  type: "ReLU"
  bottom: "inception_3b/1x1"
  top: "inception_3b/1x1"
}
layer {
  name: "inception_3b/3x3_reduce"
  type: "Convolution"
  bottom: "inception_3a/output"
  top: "inception_3b/3x3_reduce"
  param {
    lr_mult: 1
    decay_mult: 1
  }
  param {
    lr_mult: 2
    decay_mult: 0
  }
  convolution_param {
    num_output: 128
    kernel_size: 1
    weight_filler {
      type: "xavier"
      std: 0.09
    }
    bias_filler {
      type: "constant"
      value: 0.2
    }
  }
}
layer {
  name: "inception_3b/relu_3x3_reduce"
  type: "ReLU"
  bottom: "inception_3b/3x3_reduce"
  top: "inception_3b/3x3_reduce"
}
layer {
  name: "inception_3b/3x3"
  type: "Convolution"
  bottom: "inception_3b/3x3_reduce"
  top: "inception_3b/3x3"
  param {
    lr_mult: 1
    decay_mult: 1
  }
  param {
    lr_mult: 2
    decay_mult: 0
  }
  convolution_param {
    num_output: 192
    pad: 1
    kernel_size: 3
    weight_filler {
      type: "xavier"
      std: 0.03
    }
    bias_filler {
      type: "constant"
      value: 0.2
    }
  }
}
layer {
  name: "inception_3b/relu_3x3"
  type: "ReLU"
  bottom: "inception_3b/3x3"
  top: "inception_3b/3x3"
}
layer {
  name: "inception_3b/5x5_reduce"
  type: "Convolution"
  bottom: "inception_3a/output"
  top: "inception_3b/5x5_reduce"
  param {
    lr_mult: 1
    decay_mult: 1
  }
  param {
    lr_mult: 2
    decay_mult: 0
  }
  convolution_param {
    num_output: 32
    kernel_size: 1
    weight_filler {
      type: "xavier"
      std: 0.2
    }
    bias_filler {
      type: "constant"
      value: 0.2
    }
  }
}
layer {
  name: "inception_3b/relu_5x5_reduce"
  type: "ReLU"
  bottom: "inception_3b/5x5_reduce"
  top: "inception_3b/5x5_reduce"
}
layer {
  name: "inception_3b/5x5"
  type: "Convolution"
  bottom: "inception_3b/5x5_reduce"
  top: "inception_3b/5x5"
  param {
    lr_mult: 1
    decay_mult: 1
  }
  param {
    lr_mult: 2
    decay_mult: 0
  }
  convolution_param {
    num_output: 96
    pad: 2
    kernel_size: 5
    weight_filler {
      type: "xavier"
      std: 0.03
    }
    bias_filler {
      type: "constant"
      value: 0.2
    }
  }
}
layer {
  name: "inception_3b/relu_5x5"
  type: "ReLU"
  bottom: "inception_3b/5x5"
  top: "inception_3b/5x5"
}
layer {
  name: "inception_3b/pool"
  type: "Pooling"
  bottom: "inception_3a/output"
  top: "inception_3b/pool"
  pooling_param {
    pool: MAX
    kernel_size: 3
    stride: 1
    pad: 1
  }
}
layer {
  name: "inception_3b/pool_proj"
  type: "Convolution"
  bottom: "inception_3b/pool"
  top: "inception_3b/pool_proj"
  param {
    lr_mult: 1
    decay_mult: 1
  }
  param {
    lr_mult: 2
    decay_mult: 0
  }
  convolution_param {
    num_output: 64
    kernel_size: 1
    weight_filler {
      type: "xavier"
      std: 0.1
    }
    bias_filler {
      type: "constant"
      value: 0.2
    }
  }
}
layer {
  name: "inception_3b/relu_pool_proj"
  type: "ReLU"
  bottom: "inception_3b/pool_proj"
  top: "inception_3b/pool_proj"
}
layer {
  name: "inception_3b/output"
  type: "Concat"
  bottom: "inception_3b/1x1"
  bottom: "inception_3b/3x3"
  bottom: "inception_3b/5x5"
  bottom: "inception_3b/pool_proj"
  top: "inception_3b/output"
}
layer {
  name: "pool3/3x3_s2"
  type: "Pooling"
  bottom: "inception_3b/output"
  top: "pool3/3x3_s2"
  pooling_param {
    pool: MAX
    kernel_size: 3
    stride: 2
  }
}
layer {
  name: "inception_4a/1x1"
  type: "Convolution"
  bottom: "pool3/3x3_s2"
  top: "inception_4a/1x1"
  param {
    lr_mult: 1
    decay_mult: 1
  }
  param {
    lr_mult: 2
    decay_mult: 0
  }
  convolution_param {
    num_output: 192
    kernel_size: 1
    weight_filler {
      type: "xavier"
      std: 0.03
    }
    bias_filler {
      type: "constant"
      value: 0.2
    }
  }
}
layer {
  name: "inception_4a/relu_1x1"
  type: "ReLU"
  bottom: "inception_4a/1x1"
  top: "inception_4a/1x1"
}
layer {
  name: "inception_4a/3x3_reduce"
  type: "Convolution"
  bottom: "pool3/3x3_s2"
  top: "inception_4a/3x3_reduce"
  param {
    lr_mult: 1
    decay_mult: 1
  }
  param {
    lr_mult: 2
    decay_mult: 0
  }
  convolution_param {
    num_output: 96
    kernel_size: 1
    weight_filler {
      type: "xavier"
      std: 0.09
    }
    bias_filler {
      type: "constant"
      value: 0.2
    }
  }
}
layer {
  name: "inception_4a/relu_3x3_reduce"
  type: "ReLU"
  bottom: "inception_4a/3x3_reduce"
  top: "inception_4a/3x3_reduce"
}
layer {
  name: "inception_4a/3x3"
  type: "Convolution"
  bottom: "inception_4a/3x3_reduce"
  top: "inception_4a/3x3"
  param {
    lr_mult: 1
    decay_mult: 1
  }
  param {
    lr_mult: 2
    decay_mult: 0
  }
  convolution_param {
    num_output: 208
    pad: 1
    kernel_size: 3
    weight_filler {
      type: "xavier"
      std: 0.03
    }
    bias_filler {
      type: "constant"
      value: 0.2
    }
  }
}
layer {
  name: "inception_4a/relu_3x3"
  type: "ReLU"
  bottom: "inception_4a/3x3"
  top: "inception_4a/3x3"
}
layer {
  name: "inception_4a/5x5_reduce"
  type: "Convolution"
  bottom: "pool3/3x3_s2"
  top: "inception_4a/5x5_reduce"
  param {
    lr_mult: 1
    decay_mult: 1
  }
  param {
    lr_mult: 2
    decay_mult: 0
  }
  convolution_param {
    num_output: 16
    kernel_size: 1
    weight_filler {
      type: "xavier"
      std: 0.2
    }
    bias_filler {
      type: "constant"
      value: 0.2
    }
  }
}
layer {
  name: "inception_4a/relu_5x5_reduce"
  type: "ReLU"
  bottom: "inception_4a/5x5_reduce"
  top: "inception_4a/5x5_reduce"
}
layer {
  name: "inception_4a/5x5"
  type: "Convolution"
  bottom: "inception_4a/5x5_reduce"
  top: "inception_4a/5x5"
  param {
    lr_mult: 1
    decay_mult: 1
  }
  param {
    lr_mult: 2
    decay_mult: 0
  }
  convolution_param {
    num_output: 48
    pad: 2
    kernel_size: 5
    weight_filler {
      type: "xavier"
      std: 0.03
    }
    bias_filler {
      type: "constant"
      value: 0.2
    }
  }
}
layer {
  name: "inception_4a/relu_5x5"
  type: "ReLU"
  bottom: "inception_4a/5x5"
  top: "inception_4a/5x5"
}
layer {
  name: "inception_4a/pool"
  type: "Pooling"
  bottom: "pool3/3x3_s2"
  top: "inception_4a/pool"
  pooling_param {
    pool: MAX
    kernel_size: 3
    stride: 1
    pad: 1
  }
}
layer {
  name: "inception_4a/pool_proj"
  type: "Convolution"
  bottom: "inception_4a/pool"
  top: "inception_4a/pool_proj"
  param {
    lr_mult: 1
    decay_mult: 1
  }
  param {
    lr_mult: 2
    decay_mult: 0
  }
  convolution_param {
    num_output: 64
    kernel_size: 1
    weight_filler {
      type: "xavier"
      std: 0.1
    }
    bias_filler {
      type: "constant"
      value: 0.2
    }
  }
}
layer {
  name: "inception_4a/relu_pool_proj"
  type: "ReLU"
  bottom: "inception_4a/pool_proj"
  top: "inception_4a/pool_proj"
}
layer {
  name: "inception_4a/output"
  type: "Concat"
  bottom: "inception_4a/1x1"
  bottom: "inception_4a/3x3"
  bottom: "inception_4a/5x5"
  bottom: "inception_4a/pool_proj"
  top: "inception_4a/output"
}
layer {
  name: "loss1/ave_pool"
  type: "Pooling"
  bottom: "inception_4a/output"
  top: "loss1/ave_pool"
  pooling_param {
    pool: AVE
    kernel_size: 5
    stride: 3
  }
}
layer {
  name: "loss1/conv"
  type: "Convolution"
  bottom: "loss1/ave_pool"
  top: "loss1/conv"
  param {
    lr_mult: 1
    decay_mult: 1
  }
  param {
    lr_mult: 2
    decay_mult: 0
  }
  convolution_param {
    num_output: 128
    kernel_size: 1
    weight_filler {
      type: "xavier"
      std: 0.08
    }
    bias_filler {
      type: "constant"
      value: 0.2
    }
  }
}
layer {
  name: "loss1/relu_conv"
  type: "ReLU"
  bottom: "loss1/conv"
  top: "loss1/conv"
}
layer {
  name: "loss1/fc"
  type: "InnerProduct"
  bottom: "loss1/conv"
  top: "loss1/fc"
  param {
    lr_mult: 1
    decay_mult: 1
  }
  param {
    lr_mult: 2
    decay_mult: 0
  }
  inner_product_param {
    num_output: 1024
    weight_filler {
      type: "xavier"
      std: 0.02
    }
    bias_filler {
      type: "constant"
      value: 0.2
    }
  }
}
layer {
  name: "loss1/relu_fc"
  type: "ReLU"
  bottom: "loss1/fc"
  top: "loss1/fc"
}
layer {
  name: "loss1/drop_fc"
  type: "Dropout"
  bottom: "loss1/fc"
  top: "loss1/fc"
  dropout_param {
    dropout_ratio: 0.7
  }
}
layer {
  name: "loss1/classifier_plantvillage"
  type: "InnerProduct"
  bottom: "loss1/fc"
  top: "loss1/classifier_plantvillage"
  param {
    lr_mult: 1
    decay_mult: 1
  }
  param {
    lr_mult: 2
    decay_mult: 0
  }
  inner_product_param {
    num_output: 38
    weight_filler {
      type: "xavier"
      std: 0.0009765625
    }
    bias_filler {
      type: "constant"
      value: 0
    }
  }
}
layer {
  name: "inception_4b/1x1"
  type: "Convolution"
  bottom: "inception_4a/output"
  top: "inception_4b/1x1"
  param {
    lr_mult: 1
    decay_mult: 1
  }
  param {
    lr_mult: 2
    decay_mult: 0
  }
  convolution_param {
    num_output: 160
    kernel_size: 1
    weight_filler {
      type: "xavier"
      std: 0.03
    }
    bias_filler {
      type: "constant"
      value: 0.2
    }
  }
}
layer {
  name: "inception_4b/relu_1x1"
  type: "ReLU"
  bottom: "inception_4b/1x1"
  top: "inception_4b/1x1"
}
layer {
  name: "inception_4b/3x3_reduce"
  type: "Convolution"
  bottom: "inception_4a/output"
  top: "inception_4b/3x3_reduce"
  param {
    lr_mult: 1
    decay_mult: 1
  }
  param {
    lr_mult: 2
    decay_mult: 0
  }
  convolution_param {
    num_output: 112
    kernel_size: 1
    weight_filler {
      type: "xavier"
      std: 0.09
    }
    bias_filler {
      type: "constant"
      value: 0.2
    }
  }
}
layer {
  name: "inception_4b/relu_3x3_reduce"
  type: "ReLU"
  bottom: "inception_4b/3x3_reduce"
  top: "inception_4b/3x3_reduce"
}
layer {
  name: "inception_4b/3x3"
  type: "Convolution"
  bottom: "inception_4b/3x3_reduce"
  top: "inception_4b/3x3"
  param {
    lr_mult: 1
    decay_mult: 1
  }
  param {
    lr_mult: 2
    decay_mult: 0
  }
  convolution_param {
    num_output: 224
    pad: 1
    kernel_size: 3
    weight_filler {
      type: "xavier"
      std: 0.03
    }
    bias_filler {
      type: "constant"
      value: 0.2
    }
  }
}
layer {
  name: "inception_4b/relu_3x3"
  type: "ReLU"
  bottom: "inception_4b/3x3"
  top: "inception_4b/3x3"
}
layer {
  name: "inception_4b/5x5_reduce"
  type: "Convolution"
  bottom: "inception_4a/output"
  top: "inception_4b/5x5_reduce"
  param {
    lr_mult: 1
    decay_mult: 1
  }
  param {
    lr_mult: 2
    decay_mult: 0
  }
  convolution_param {
    num_output: 24
    kernel_size: 1
    weight_filler {
      type: "xavier"
      std: 0.2
    }
    bias_filler {
      type: "constant"
      value: 0.2
    }
  }
}
layer {
  name: "inception_4b/relu_5x5_reduce"
  type: "ReLU"
  bottom: "inception_4b/5x5_reduce"
  top: "inception_4b/5x5_reduce"
}
layer {
  name: "inception_4b/5x5"
  type: "Convolution"
  bottom: "inception_4b/5x5_reduce"
  top: "inception_4b/5x5"
  param {
    lr_mult: 1
    decay_mult: 1
  }
  param {
    lr_mult: 2
    decay_mult: 0
  }
  convolution_param {
    num_output: 64
    pad: 2
    kernel_size: 5
    weight_filler {
      type: "xavier"
      std: 0.03
    }
    bias_filler {
      type: "constant"
      value: 0.2
    }
  }
}
layer {
  name: "inception_4b/relu_5x5"
  type: "ReLU"
  bottom: "inception_4b/5x5"
  top: "inception_4b/5x5"
}
layer {
  name: "inception_4b/pool"
  type: "Pooling"
  bottom: "inception_4a/output"
  top: "inception_4b/pool"
  pooling_param {
    pool: MAX
    kernel_size: 3
    stride: 1
    pad: 1
  }
}
layer {
  name: "inception_4b/pool_proj"
  type: "Convolution"
  bottom: "inception_4b/pool"
  top: "inception_4b/pool_proj"
  param {
    lr_mult: 1
    decay_mult: 1
  }
  param {
    lr_mult: 2
    decay_mult: 0
  }
  convolution_param {
    num_output: 64
    kernel_size: 1
    weight_filler {
      type: "xavier"
      std: 0.1
    }
    bias_filler {
      type: "constant"
      value: 0.2
    }
  }
}
layer {
  name: "inception_4b/relu_pool_proj"
  type: "ReLU"
  bottom: "inception_4b/pool_proj"
  top: "inception_4b/pool_proj"
}
layer {
  name: "inception_4b/output"
  type: "Concat"
  bottom: "inception_4b/1x1"
  bottom: "inception_4b/3x3"
  bottom: "inception_4b/5x5"
  bottom: "inception_4b/pool_proj"
  top: "inception_4b/output"
}
layer {
  name: "inception_4c/1x1"
  type: "Convolution"
  bottom: "inception_4b/output"
  top: "inception_4c/1x1"
  param {
    lr_mult: 1
    decay_mult: 1
  }
  param {
    lr_mult: 2
    decay_mult: 0
  }
  convolution_param {
    num_output: 128
    kernel_size: 1
    weight_filler {
      type: "xavier"
      std: 0.03
    }
    bias_filler {
      type: "constant"
      value: 0.2
    }
  }
}
layer {
  name: "inception_4c/relu_1x1"
  type: "ReLU"
  bottom: "inception_4c/1x1"
  top: "inception_4c/1x1"
}
layer {
  name: "inception_4c/3x3_reduce"
  type: "Convolution"
  bottom: "inception_4b/output"
  top: "inception_4c/3x3_reduce"
  param {
    lr_mult: 1
    decay_mult: 1
  }
  param {
    lr_mult: 2
    decay_mult: 0
  }
  convolution_param {
    num_output: 128
    kernel_size: 1
    weight_filler {
      type: "xavier"
      std: 0.09
    }
    bias_filler {
      type: "constant"
      value: 0.2
    }
  }
}
layer {
  name: "inception_4c/relu_3x3_reduce"
  type: "ReLU"
  bottom: "inception_4c/3x3_reduce"
  top: "inception_4c/3x3_reduce"
}
layer {
  name: "inception_4c/3x3"
  type: "Convolution"
  bottom: "inception_4c/3x3_reduce"
  top: "inception_4c/3x3"
  param {
    lr_mult: 1
    decay_mult: 1
  }
  param {
    lr_mult: 2
    decay_mult: 0
  }
  convolution_param {
    num_output: 256
    pad: 1
    kernel_size: 3
    weight_filler {
      type: "xavier"
      std: 0.03
    }
    bias_filler {
      type: "constant"
      value: 0.2
    }
  }
}
layer {
  name: "inception_4c/relu_3x3"
  type: "ReLU"
  bottom: "inception_4c/3x3"
  top: "inception_4c/3x3"
}
layer {
  name: "inception_4c/5x5_reduce"
  type: "Convolution"
  bottom: "inception_4b/output"
  top: "inception_4c/5x5_reduce"
  param {
    lr_mult: 1
    decay_mult: 1
  }
  param {
    lr_mult: 2
    decay_mult: 0
  }
  convolution_param {
    num_output: 24
    kernel_size: 1
    weight_filler {
      type: "xavier"
      std: 0.2
    }
    bias_filler {
      type: "constant"
      value: 0.2
    }
  }
}
layer {
  name: "inception_4c/relu_5x5_reduce"
  type: "ReLU"
  bottom: "inception_4c/5x5_reduce"
  top: "inception_4c/5x5_reduce"
}
layer {
  name: "inception_4c/5x5"
  type: "Convolution"
  bottom: "inception_4c/5x5_reduce"
  top: "inception_4c/5x5"
  param {
    lr_mult: 1
    decay_mult: 1
  }
  param {
    lr_mult: 2
    decay_mult: 0
  }
  convolution_param {
    num_output: 64
    pad: 2
    kernel_size: 5
    weight_filler {
      type: "xavier"
      std: 0.03
    }
    bias_filler {
      type: "constant"
      value: 0.2
    }
  }
}
layer {
  name: "inception_4c/relu_5x5"
  type: "ReLU"
  bottom: "inception_4c/5x5"
  top: "inception_4c/5x5"
}
layer {
  name: "inception_4c/pool"
  type: "Pooling"
  bottom: "inception_4b/output"
  top: "inception_4c/pool"
  pooling_param {
    pool: MAX
    kernel_size: 3
    stride: 1
    pad: 1
  }
}
layer {
  name: "inception_4c/pool_proj"
  type: "Convolution"
  bottom: "inception_4c/pool"
  top: "inception_4c/pool_proj"
  param {
    lr_mult: 1
    decay_mult: 1
  }
  param {
    lr_mult: 2
    decay_mult: 0
  }
  convolution_param {
    num_output: 64
    kernel_size: 1
    weight_filler {
      type: "xavier"
      std: 0.1
    }
    bias_filler {
      type: "constant"
      value: 0.2
    }
  }
}
layer {
  name: "inception_4c/relu_pool_proj"
  type: "ReLU"
  bottom: "inception_4c/pool_proj"
  top: "inception_4c/pool_proj"
}
layer {
  name: "inception_4c/output"
  type: "Concat"
  bottom: "inception_4c/1x1"
  bottom: "inception_4c/3x3"
  bottom: "inception_4c/5x5"
  bottom: "inception_4c/pool_proj"
  top: "inception_4c/output"
}
layer {
  name: "inception_4d/1x1"
  type: "Convolution"
  bottom: "inception_4c/output"
  top: "inception_4d/1x1"
  param {
    lr_mult: 1
    decay_mult: 1
  }
  param {
    lr_mult: 2
    decay_mult: 0
  }
  convolution_param {
    num_output: 112
    kernel_size: 1
    weight_filler {
      type: "xavier"
      std: 0.03
    }
    bias_filler {
      type: "constant"
      value: 0.2
    }
  }
}
layer {
  name: "inception_4d/relu_1x1"
  type: "ReLU"
  bottom: "inception_4d/1x1"
  top: "inception_4d/1x1"
}
layer {
  name: "inception_4d/3x3_reduce"
  type: "Convolution"
  bottom: "inception_4c/output"
  top: "inception_4d/3x3_reduce"
  param {
    lr_mult: 1
    decay_mult: 1
  }
  param {
    lr_mult: 2
    decay_mult: 0
  }
  convolution_param {
    num_output: 144
    kernel_size: 1
    weight_filler {
      type: "xavier"
      std: 0.09
    }
    bias_filler {
      type: "constant"
      value: 0.2
    }
  }
}
layer {
  name: "inception_4d/relu_3x3_reduce"
  type: "ReLU"
  bottom: "inception_4d/3x3_reduce"
  top: "inception_4d/3x3_reduce"
}
layer {
  name: "inception_4d/3x3"
  type: "Convolution"
  bottom: "inception_4d/3x3_reduce"
  top: "inception_4d/3x3"
  param {
    lr_mult: 1
    decay_mult: 1
  }
  param {
    lr_mult: 2
    decay_mult: 0
  }
  convolution_param {
    num_output: 288
    pad: 1
    kernel_size: 3
    weight_filler {
      type: "xavier"
      std: 0.03
    }
    bias_filler {
      type: "constant"
      value: 0.2
    }
  }
}
layer {
  name: "inception_4d/relu_3x3"
  type: "ReLU"
  bottom: "inception_4d/3x3"
  top: "inception_4d/3x3"
}
layer {
  name: "inception_4d/5x5_reduce"
  type: "Convolution"
  bottom: "inception_4c/output"
  top: "inception_4d/5x5_reduce"
  param {
    lr_mult: 1
    decay_mult: 1
  }
  param {
    lr_mult: 2
    decay_mult: 0
  }
  convolution_param {
    num_output: 32
    kernel_size: 1
    weight_filler {
      type: "xavier"
      std: 0.2
    }
    bias_filler {
      type: "constant"
      value: 0.2
    }
  }
}
layer {
  name: "inception_4d/relu_5x5_reduce"
  type: "ReLU"
  bottom: "inception_4d/5x5_reduce"
  top: "inception_4d/5x5_reduce"
}
layer {
  name: "inception_4d/5x5"
  type: "Convolution"
  bottom: "inception_4d/5x5_reduce"
  top: "inception_4d/5x5"
  param {
    lr_mult: 1
    decay_mult: 1
  }
  param {
    lr_mult: 2
    decay_mult: 0
  }
  convolution_param {
    num_output: 64
    pad: 2
    kernel_size: 5
    weight_filler {
      type: "xavier"
      std: 0.03
    }
    bias_filler {
      type: "constant"
      value: 0.2
    }
  }
}
layer {
  name: "inception_4d/relu_5x5"
  type: "ReLU"
  bottom: "inception_4d/5x5"
  top: "inception_4d/5x5"
}
layer {
  name: "inception_4d/pool"
  type: "Pooling"
  bottom: "inception_4c/output"
  top: "inception_4d/pool"
  pooling_param {
    pool: MAX
    kernel_size: 3
    stride: 1
    pad: 1
  }
}
layer {
  name: "inception_4d/pool_proj"
  type: "Convolution"
  bottom: "inception_4d/pool"
  top: "inception_4d/pool_proj"
  param {
    lr_mult: 1
    decay_mult: 1
  }
  param {
    lr_mult: 2
    decay_mult: 0
  }
  convolution_param {
    num_output: 64
    kernel_size: 1
    weight_filler {
      type: "xavier"
      std: 0.1
    }
    bias_filler {
      type: "constant"
      value: 0.2
    }
  }
}
layer {
  name: "inception_4d/relu_pool_proj"
  type: "ReLU"
  bottom: "inception_4d/pool_proj"
  top: "inception_4d/pool_proj"
}
layer {
  name: "inception_4d/output"
  type: "Concat"
  bottom: "inception_4d/1x1"
  bottom: "inception_4d/3x3"
  bottom: "inception_4d/5x5"
  bottom: "inception_4d/pool_proj"
  top: "inception_4d/output"
}
layer {
  name: "loss2/ave_pool"
  type: "Pooling"
  bottom: "inception_4d/output"
  top: "loss2/ave_pool"
  pooling_param {
    pool: AVE
    kernel_size: 5
    stride: 3
  }
}
layer {
  name: "loss2/conv"
  type: "Convolution"
  bottom: "loss2/ave_pool"
  top: "loss2/conv"
  param {
    lr_mult: 1
    decay_mult: 1
  }
  param {
    lr_mult: 2
    decay_mult: 0
  }
  convolution_param {
    num_output: 128
    kernel_size: 1
    weight_filler {
      type: "xavier"
      std: 0.08
    }
    bias_filler {
      type: "constant"
      value: 0.2
    }
  }
}
layer {
  name: "loss2/relu_conv"
  type: "ReLU"
  bottom: "loss2/conv"
  top: "loss2/conv"
}
layer {
  name: "loss2/fc"
  type: "InnerProduct"
  bottom: "loss2/conv"
  top: "loss2/fc"
  param {
    lr_mult: 1
    decay_mult: 1
  }
  param {
    lr_mult: 2
    decay_mult: 0
  }
  inner_product_param {
    num_output: 1024
    weight_filler {
      type: "xavier"
      std: 0.02
    }
    bias_filler {
      type: "constant"
      value: 0.2
    }
  }
}
layer {
  name: "loss2/relu_fc"
  type: "ReLU"
  bottom: "loss2/fc"
  top: "loss2/fc"
}
layer {
  name: "loss2/drop_fc"
  type: "Dropout"
  bottom: "loss2/fc"
  top: "loss2/fc"
  dropout_param {
    dropout_ratio: 0.7
  }
}
layer {
  name: "loss2/classifier_plantvillage"
  type: "InnerProduct"
  bottom: "loss2/fc"
  top: "loss2/classifier_plantvillage"
  param {
    lr_mult: 1
    decay_mult: 1
  }
  param {
    lr_mult: 2
    decay_mult: 0
  }
  inner_product_param {
    num_output: 38
    weight_filler {
      type: "xavier"
      std: 0.0009765625
    }
    bias_filler {
      type: "constant"
      value: 0
    }
  }
}
layer {
  name: "inception_4e/1x1"
  type: "Convolution"
  bottom: "inception_4d/output"
  top: "inception_4e/1x1"
  param {
    lr_mult: 1
    decay_mult: 1
  }
  param {
    lr_mult: 2
    decay_mult: 0
  }
  convolution_param {
    num_output: 256
    kernel_size: 1
    weight_filler {
      type: "xavier"
      std: 0.03
    }
    bias_filler {
      type: "constant"
      value: 0.2
    }
  }
}
layer {
  name: "inception_4e/relu_1x1"
  type: "ReLU"
  bottom: "inception_4e/1x1"
  top: "inception_4e/1x1"
}
layer {
  name: "inception_4e/3x3_reduce"
  type: "Convolution"
  bottom: "inception_4d/output"
  top: "inception_4e/3x3_reduce"
  param {
    lr_mult: 1
    decay_mult: 1
  }
  param {
    lr_mult: 2
    decay_mult: 0
  }
  convolution_param {
    num_output: 160
    kernel_size: 1
    weight_filler {
      type: "xavier"
      std: 0.09
    }
    bias_filler {
      type: "constant"
      value: 0.2
    }
  }
}
layer {
  name: "inception_4e/relu_3x3_reduce"
  type: "ReLU"
  bottom: "inception_4e/3x3_reduce"
  top: "inception_4e/3x3_reduce"
}
layer {
  name: "inception_4e/3x3"
  type: "Convolution"
  bottom: "inception_4e/3x3_reduce"
  top: "inception_4e/3x3"
  param {
    lr_mult: 1
    decay_mult: 1
  }
  param {
    lr_mult: 2
    decay_mult: 0
  }
  convolution_param {
    num_output: 320
    pad: 1
    kernel_size: 3
    weight_filler {
      type: "xavier"
      std: 0.03
    }
    bias_filler {
      type: "constant"
      value: 0.2
    }
  }
}
layer {
  name: "inception_4e/relu_3x3"
  type: "ReLU"
  bottom: "inception_4e/3x3"
  top: "inception_4e/3x3"
}
layer {
  name: "inception_4e/5x5_reduce"
  type: "Convolution"
  bottom: "inception_4d/output"
  top: "inception_4e/5x5_reduce"
  param {
    lr_mult: 1
    decay_mult: 1
  }
  param {
    lr_mult: 2
    decay_mult: 0
  }
  convolution_param {
    num_output: 32
    kernel_size: 1
    weight_filler {
      type: "xavier"
      std: 0.2
    }
    bias_filler {
      type: "constant"
      value: 0.2
    }
  }
}
layer {
  name: "inception_4e/relu_5x5_reduce"
  type: "ReLU"
  bottom: "inception_4e/5x5_reduce"
  top: "inception_4e/5x5_reduce"
}
layer {
  name: "inception_4e/5x5"
  type: "Convolution"
  bottom: "inception_4e/5x5_reduce"
  top: "inception_4e/
I0403 16:49:23.486536 19372 layer_factory.hpp:77] Creating layer data
I0403 16:49:23.487133 19372 net.cpp:91] Creating Layer data
I0403 16:49:23.487164 19372 net.cpp:399] data -> data
I0403 16:49:23.487212 19372 net.cpp:399] data -> label
I0403 16:49:23.487249 19372 data_transformer.cpp:25] Loading mean file from: /home/mohanty/data/final_dataset/lmdb/segmented-20-80/mean.binaryproto
I0403 16:49:23.488392 19374 db_lmdb.cpp:38] Opened lmdb /home/mohanty/data/final_dataset/lmdb/segmented-20-80/test_db
I0403 16:49:23.499904 19372 data_layer.cpp:41] output data size: 24,3,224,224
I0403 16:49:23.526778 19372 net.cpp:141] Setting up data
I0403 16:49:23.526856 19372 net.cpp:148] Top shape: 24 3 224 224 (3612672)
I0403 16:49:23.526878 19372 net.cpp:148] Top shape: 24 (24)
I0403 16:49:23.526893 19372 net.cpp:156] Memory required for data: 14450784
I0403 16:49:23.526921 19372 layer_factory.hpp:77] Creating layer label_data_1_split
I0403 16:49:23.526947 19372 net.cpp:91] Creating Layer label_data_1_split
I0403 16:49:23.526963 19372 net.cpp:425] label_data_1_split <- label
I0403 16:49:23.526994 19372 net.cpp:399] label_data_1_split -> label_data_1_split_0
I0403 16:49:23.527022 19372 net.cpp:399] label_data_1_split -> label_data_1_split_1
I0403 16:49:23.527043 19372 net.cpp:399] label_data_1_split -> label_data_1_split_2
I0403 16:49:23.527065 19372 net.cpp:399] label_data_1_split -> label_data_1_split_3
I0403 16:49:23.527083 19372 net.cpp:399] label_data_1_split -> label_data_1_split_4
I0403 16:49:23.527102 19372 net.cpp:399] label_data_1_split -> label_data_1_split_5
I0403 16:49:23.527120 19372 net.cpp:399] label_data_1_split -> label_data_1_split_6
I0403 16:49:23.527140 19372 net.cpp:399] label_data_1_split -> label_data_1_split_7
I0403 16:49:23.527159 19372 net.cpp:399] label_data_1_split -> label_data_1_split_8
I0403 16:49:23.527179 19372 net.cpp:399] label_data_1_split -> label_data_1_split_9
I0403 16:49:23.527294 19372 net.cpp:141] Setting up label_data_1_split
I0403 16:49:23.527318 19372 net.cpp:148] Top shape: 24 (24)
I0403 16:49:23.527333 19372 net.cpp:148] Top shape: 24 (24)
I0403 16:49:23.527348 19372 net.cpp:148] Top shape: 24 (24)
I0403 16:49:23.527364 19372 net.cpp:148] Top shape: 24 (24)
I0403 16:49:23.527379 19372 net.cpp:148] Top shape: 24 (24)
I0403 16:49:23.527393 19372 net.cpp:148] Top shape: 24 (24)
I0403 16:49:23.527408 19372 net.cpp:148] Top shape: 24 (24)
I0403 16:49:23.527423 19372 net.cpp:148] Top shape: 24 (24)
I0403 16:49:23.527438 19372 net.cpp:148] Top shape: 24 (24)
I0403 16:49:23.527453 19372 net.cpp:148] Top shape: 24 (24)
I0403 16:49:23.527498 19372 net.cpp:156] Memory required for data: 14451744
I0403 16:49:23.527513 19372 layer_factory.hpp:77] Creating layer conv1/7x7_s2
I0403 16:49:23.527542 19372 net.cpp:91] Creating Layer conv1/7x7_s2
I0403 16:49:23.527559 19372 net.cpp:425] conv1/7x7_s2 <- data
I0403 16:49:23.527582 19372 net.cpp:399] conv1/7x7_s2 -> conv1/7x7_s2
I0403 16:49:23.664077 19372 net.cpp:141] Setting up conv1/7x7_s2
I0403 16:49:23.664152 19372 net.cpp:148] Top shape: 24 64 112 112 (19267584)
I0403 16:49:23.664170 19372 net.cpp:156] Memory required for data: 91522080
I0403 16:49:23.664198 19372 layer_factory.hpp:77] Creating layer conv1/relu_7x7
I0403 16:49:23.664224 19372 net.cpp:91] Creating Layer conv1/relu_7x7
I0403 16:49:23.664242 19372 net.cpp:425] conv1/relu_7x7 <- conv1/7x7_s2
I0403 16:49:23.664260 19372 net.cpp:386] conv1/relu_7x7 -> conv1/7x7_s2 (in-place)
I0403 16:49:23.664504 19372 net.cpp:141] Setting up conv1/relu_7x7
I0403 16:49:23.664530 19372 net.cpp:148] Top shape: 24 64 112 112 (19267584)
I0403 16:49:23.664543 19372 net.cpp:156] Memory required for data: 168592416
I0403 16:49:23.664558 19372 layer_factory.hpp:77] Creating layer pool1/3x3_s2
I0403 16:49:23.664592 19372 net.cpp:91] Creating Layer pool1/3x3_s2
I0403 16:49:23.664611 19372 net.cpp:425] pool1/3x3_s2 <- conv1/7x7_s2
I0403 16:49:23.664629 19372 net.cpp:399] pool1/3x3_s2 -> pool1/3x3_s2
I0403 16:49:23.664701 19372 net.cpp:141] Setting up pool1/3x3_s2
I0403 16:49:23.664724 19372 net.cpp:148] Top shape: 24 64 56 56 (4816896)
I0403 16:49:23.664739 19372 net.cpp:156] Memory required for data: 187860000
I0403 16:49:23.664752 19372 layer_factory.hpp:77] Creating layer pool1/norm1
I0403 16:49:23.664775 19372 net.cpp:91] Creating Layer pool1/norm1
I0403 16:49:23.664793 19372 net.cpp:425] pool1/norm1 <- pool1/3x3_s2
I0403 16:49:23.664809 19372 net.cpp:399] pool1/norm1 -> pool1/norm1
I0403 16:49:23.665076 19372 net.cpp:141] Setting up pool1/norm1
I0403 16:49:23.665102 19372 net.cpp:148] Top shape: 24 64 56 56 (4816896)
I0403 16:49:23.665117 19372 net.cpp:156] Memory required for data: 207127584
I0403 16:49:23.665132 19372 layer_factory.hpp:77] Creating layer conv2/3x3_reduce
I0403 16:49:23.665154 19372 net.cpp:91] Creating Layer conv2/3x3_reduce
I0403 16:49:23.665170 19372 net.cpp:425] conv2/3x3_reduce <- pool1/norm1
I0403 16:49:23.665192 19372 net.cpp:399] conv2/3x3_reduce -> conv2/3x3_reduce
I0403 16:49:23.666571 19372 net.cpp:141] Setting up conv2/3x3_reduce
I0403 16:49:23.666600 19372 net.cpp:148] Top shape: 24 64 56 56 (4816896)
I0403 16:49:23.666616 19372 net.cpp:156] Memory required for data: 226395168
I0403 16:49:23.666636 19372 layer_factory.hpp:77] Creating layer conv2/relu_3x3_reduce
I0403 16:49:23.666657 19372 net.cpp:91] Creating Layer conv2/relu_3x3_reduce
I0403 16:49:23.666673 19372 net.cpp:425] conv2/relu_3x3_reduce <- conv2/3x3_reduce
I0403 16:49:23.666690 19372 net.cpp:386] conv2/relu_3x3_reduce -> conv2/3x3_reduce (in-place)
I0403 16:49:23.666952 19372 net.cpp:141] Setting up conv2/relu_3x3_reduce
I0403 16:49:23.666978 19372 net.cpp:148] Top shape: 24 64 56 56 (4816896)
I0403 16:49:23.666993 19372 net.cpp:156] Memory required for data: 245662752
I0403 16:49:23.667007 19372 layer_factory.hpp:77] Creating layer conv2/3x3
I0403 16:49:23.667031 19372 net.cpp:91] Creating Layer conv2/3x3
I0403 16:49:23.667047 19372 net.cpp:425] conv2/3x3 <- conv2/3x3_reduce
I0403 16:49:23.667069 19372 net.cpp:399] conv2/3x3 -> conv2/3x3
I0403 16:49:23.669335 19372 net.cpp:141] Setting up conv2/3x3
I0403 16:49:23.669364 19372 net.cpp:148] Top shape: 24 192 56 56 (14450688)
I0403 16:49:23.669379 19372 net.cpp:156] Memory required for data: 303465504
I0403 16:49:23.669400 19372 layer_factory.hpp:77] Creating layer conv2/relu_3x3
I0403 16:49:23.669420 19372 net.cpp:91] Creating Layer conv2/relu_3x3
I0403 16:49:23.669436 19372 net.cpp:425] conv2/relu_3x3 <- conv2/3x3
I0403 16:49:23.669453 19372 net.cpp:386] conv2/relu_3x3 -> conv2/3x3 (in-place)
I0403 16:49:23.669627 19372 net.cpp:141] Setting up conv2/relu_3x3
I0403 16:49:23.669656 19372 net.cpp:148] Top shape: 24 192 56 56 (14450688)
I0403 16:49:23.669703 19372 net.cpp:156] Memory required for data: 361268256
I0403 16:49:23.669718 19372 layer_factory.hpp:77] Creating layer conv2/norm2
I0403 16:49:23.669735 19372 net.cpp:91] Creating Layer conv2/norm2
I0403 16:49:23.669750 19372 net.cpp:425] conv2/norm2 <- conv2/3x3
I0403 16:49:23.669770 19372 net.cpp:399] conv2/norm2 -> conv2/norm2
I0403 16:49:23.670073 19372 net.cpp:141] Setting up conv2/norm2
I0403 16:49:23.670099 19372 net.cpp:148] Top shape: 24 192 56 56 (14450688)
I0403 16:49:23.670114 19372 net.cpp:156] Memory required for data: 419071008
I0403 16:49:23.670127 19372 layer_factory.hpp:77] Creating layer pool2/3x3_s2
I0403 16:49:23.670145 19372 net.cpp:91] Creating Layer pool2/3x3_s2
I0403 16:49:23.670161 19372 net.cpp:425] pool2/3x3_s2 <- conv2/norm2
I0403 16:49:23.670179 19372 net.cpp:399] pool2/3x3_s2 -> pool2/3x3_s2
I0403 16:49:23.670231 19372 net.cpp:141] Setting up pool2/3x3_s2
I0403 16:49:23.670254 19372 net.cpp:148] Top shape: 24 192 28 28 (3612672)
I0403 16:49:23.670269 19372 net.cpp:156] Memory required for data: 433521696
I0403 16:49:23.670282 19372 layer_factory.hpp:77] Creating layer pool2/3x3_s2_pool2/3x3_s2_0_split
I0403 16:49:23.670301 19372 net.cpp:91] Creating Layer pool2/3x3_s2_pool2/3x3_s2_0_split
I0403 16:49:23.670318 19372 net.cpp:425] pool2/3x3_s2_pool2/3x3_s2_0_split <- pool2/3x3_s2
I0403 16:49:23.670337 19372 net.cpp:399] pool2/3x3_s2_pool2/3x3_s2_0_split -> pool2/3x3_s2_pool2/3x3_s2_0_split_0
I0403 16:49:23.670356 19372 net.cpp:399] pool2/3x3_s2_pool2/3x3_s2_0_split -> pool2/3x3_s2_pool2/3x3_s2_0_split_1
I0403 16:49:23.670377 19372 net.cpp:399] pool2/3x3_s2_pool2/3x3_s2_0_split -> pool2/3x3_s2_pool2/3x3_s2_0_split_2
I0403 16:49:23.670394 19372 net.cpp:399] pool2/3x3_s2_pool2/3x3_s2_0_split -> pool2/3x3_s2_pool2/3x3_s2_0_split_3
I0403 16:49:23.670464 19372 net.cpp:141] Setting up pool2/3x3_s2_pool2/3x3_s2_0_split
I0403 16:49:23.670485 19372 net.cpp:148] Top shape: 24 192 28 28 (3612672)
I0403 16:49:23.670501 19372 net.cpp:148] Top shape: 24 192 28 28 (3612672)
I0403 16:49:23.670517 19372 net.cpp:148] Top shape: 24 192 28 28 (3612672)
I0403 16:49:23.670532 19372 net.cpp:148] Top shape: 24 192 28 28 (3612672)
I0403 16:49:23.670545 19372 net.cpp:156] Memory required for data: 491324448
I0403 16:49:23.670559 19372 layer_factory.hpp:77] Creating layer inception_3a/1x1
I0403 16:49:23.670586 19372 net.cpp:91] Creating Layer inception_3a/1x1
I0403 16:49:23.670604 19372 net.cpp:425] inception_3a/1x1 <- pool2/3x3_s2_pool2/3x3_s2_0_split_0
I0403 16:49:23.670624 19372 net.cpp:399] inception_3a/1x1 -> inception_3a/1x1
I0403 16:49:23.672175 19372 net.cpp:141] Setting up inception_3a/1x1
I0403 16:49:23.672205 19372 net.cpp:148] Top shape: 24 64 28 28 (1204224)
I0403 16:49:23.672220 19372 net.cpp:156] Memory required for data: 496141344
I0403 16:49:23.672238 19372 layer_factory.hpp:77] Creating layer inception_3a/relu_1x1
I0403 16:49:23.672258 19372 net.cpp:91] Creating Layer inception_3a/relu_1x1
I0403 16:49:23.672274 19372 net.cpp:425] inception_3a/relu_1x1 <- inception_3a/1x1
I0403 16:49:23.672291 19372 net.cpp:386] inception_3a/relu_1x1 -> inception_3a/1x1 (in-place)
I0403 16:49:23.672462 19372 net.cpp:141] Setting up inception_3a/relu_1x1
I0403 16:49:23.672487 19372 net.cpp:148] Top shape: 24 64 28 28 (1204224)
I0403 16:49:23.672500 19372 net.cpp:156] Memory required for data: 500958240
I0403 16:49:23.672514 19372 layer_factory.hpp:77] Creating layer inception_3a/3x3_reduce
I0403 16:49:23.672538 19372 net.cpp:91] Creating Layer inception_3a/3x3_reduce
I0403 16:49:23.672554 19372 net.cpp:425] inception_3a/3x3_reduce <- pool2/3x3_s2_pool2/3x3_s2_0_split_1
I0403 16:49:23.672576 19372 net.cpp:399] inception_3a/3x3_reduce -> inception_3a/3x3_reduce
I0403 16:49:23.674247 19372 net.cpp:141] Setting up inception_3a/3x3_reduce
I0403 16:49:23.674276 19372 net.cpp:148] Top shape: 24 96 28 28 (1806336)
I0403 16:49:23.674293 19372 net.cpp:156] Memory required for data: 508183584
I0403 16:49:23.674312 19372 layer_factory.hpp:77] Creating layer inception_3a/relu_3x3_reduce
I0403 16:49:23.674350 19372 net.cpp:91] Creating Layer inception_3a/relu_3x3_reduce
I0403 16:49:23.674368 19372 net.cpp:425] inception_3a/relu_3x3_reduce <- inception_3a/3x3_reduce
I0403 16:49:23.674386 19372 net.cpp:386] inception_3a/relu_3x3_reduce -> inception_3a/3x3_reduce (in-place)
I0403 16:49:23.674561 19372 net.cpp:141] Setting up inception_3a/relu_3x3_reduce
I0403 16:49:23.674602 19372 net.cpp:148] Top shape: 24 96 28 28 (1806336)
I0403 16:49:23.674618 19372 net.cpp:156] Memory required for data: 515408928
I0403 16:49:23.674631 19372 layer_factory.hpp:77] Creating layer inception_3a/3x3
I0403 16:49:23.674652 19372 net.cpp:91] Creating Layer inception_3a/3x3
I0403 16:49:23.674669 19372 net.cpp:425] inception_3a/3x3 <- inception_3a/3x3_reduce
I0403 16:49:23.674691 19372 net.cpp:399] inception_3a/3x3 -> inception_3a/3x3
I0403 16:49:23.676322 19372 net.cpp:141] Setting up inception_3a/3x3
I0403 16:49:23.676349 19372 net.cpp:148] Top shape: 24 128 28 28 (2408448)
I0403 16:49:23.676364 19372 net.cpp:156] Memory required for data: 525042720
I0403 16:49:23.676383 19372 layer_factory.hpp:77] Creating layer inception_3a/relu_3x3
I0403 16:49:23.676403 19372 net.cpp:91] Creating Layer inception_3a/relu_3x3
I0403 16:49:23.676419 19372 net.cpp:425] inception_3a/relu_3x3 <- inception_3a/3x3
I0403 16:49:23.676435 19372 net.cpp:386] inception_3a/relu_3x3 -> inception_3a/3x3 (in-place)
I0403 16:49:23.676707 19372 net.cpp:141] Setting up inception_3a/relu_3x3
I0403 16:49:23.676733 19372 net.cpp:148] Top shape: 24 128 28 28 (2408448)
I0403 16:49:23.676748 19372 net.cpp:156] Memory required for data: 534676512
I0403 16:49:23.676762 19372 layer_factory.hpp:77] Creating layer inception_3a/5x5_reduce
I0403 16:49:23.676784 19372 net.cpp:91] Creating Layer inception_3a/5x5_reduce
I0403 16:49:23.676800 19372 net.cpp:425] inception_3a/5x5_reduce <- pool2/3x3_s2_pool2/3x3_s2_0_split_2
I0403 16:49:23.676821 19372 net.cpp:399] inception_3a/5x5_reduce -> inception_3a/5x5_reduce
I0403 16:49:23.677768 19372 net.cpp:141] Setting up inception_3a/5x5_reduce
I0403 16:49:23.677795 19372 net.cpp:148] Top shape: 24 16 28 28 (301056)
I0403 16:49:23.677814 19372 net.cpp:156] Memory required for data: 535880736
I0403 16:49:23.677831 19372 layer_factory.hpp:77] Creating layer inception_3a/relu_5x5_reduce
I0403 16:49:23.677848 19372 net.cpp:91] Creating Layer inception_3a/relu_5x5_reduce
I0403 16:49:23.677865 19372 net.cpp:425] inception_3a/relu_5x5_reduce <- inception_3a/5x5_reduce
I0403 16:49:23.677881 19372 net.cpp:386] inception_3a/relu_5x5_reduce -> inception_3a/5x5_reduce (in-place)
I0403 16:49:23.678166 19372 net.cpp:141] Setting up inception_3a/relu_5x5_reduce
I0403 16:49:23.678194 19372 net.cpp:148] Top shape: 24 16 28 28 (301056)
I0403 16:49:23.678210 19372 net.cpp:156] Memory required for data: 537084960
I0403 16:49:23.678225 19372 layer_factory.hpp:77] Creating layer inception_3a/5x5
I0403 16:49:23.678246 19372 net.cpp:91] Creating Layer inception_3a/5x5
I0403 16:49:23.678264 19372 net.cpp:425] inception_3a/5x5 <- inception_3a/5x5_reduce
I0403 16:49:23.678282 19372 net.cpp:399] inception_3a/5x5 -> inception_3a/5x5
I0403 16:49:23.679276 19372 net.cpp:141] Setting up inception_3a/5x5
I0403 16:49:23.679303 19372 net.cpp:148] Top shape: 24 32 28 28 (602112)
I0403 16:49:23.679318 19372 net.cpp:156] Memory required for data: 539493408
I0403 16:49:23.679337 19372 layer_factory.hpp:77] Creating layer inception_3a/relu_5x5
I0403 16:49:23.679357 19372 net.cpp:91] Creating Layer inception_3a/relu_5x5
I0403 16:49:23.679373 19372 net.cpp:425] inception_3a/relu_5x5 <- inception_3a/5x5
I0403 16:49:23.679388 19372 net.cpp:386] inception_3a/relu_5x5 -> inception_3a/5x5 (in-place)
I0403 16:49:23.679558 19372 net.cpp:141] Setting up inception_3a/relu_5x5
I0403 16:49:23.679586 19372 net.cpp:148] Top shape: 24 32 28 28 (602112)
I0403 16:49:23.679601 19372 net.cpp:156] Memory required for data: 541901856
I0403 16:49:23.679615 19372 layer_factory.hpp:77] Creating layer inception_3a/pool
I0403 16:49:23.679635 19372 net.cpp:91] Creating Layer inception_3a/pool
I0403 16:49:23.679664 19372 net.cpp:425] inception_3a/pool <- pool2/3x3_s2_pool2/3x3_s2_0_split_3
I0403 16:49:23.679683 19372 net.cpp:399] inception_3a/pool -> inception_3a/pool
I0403 16:49:23.679740 19372 net.cpp:141] Setting up inception_3a/pool
I0403 16:49:23.679764 19372 net.cpp:148] Top shape: 24 192 28 28 (3612672)
I0403 16:49:23.679777 19372 net.cpp:156] Memory required for data: 556352544
I0403 16:49:23.679791 19372 layer_factory.hpp:77] Creating layer inception_3a/pool_proj
I0403 16:49:23.679812 19372 net.cpp:91] Creating Layer inception_3a/pool_proj
I0403 16:49:23.679829 19372 net.cpp:425] inception_3a/pool_proj <- inception_3a/pool
I0403 16:49:23.679850 19372 net.cpp:399] inception_3a/pool_proj -> inception_3a/pool_proj
I0403 16:49:23.680806 19372 net.cpp:141] Setting up inception_3a/pool_proj
I0403 16:49:23.680835 19372 net.cpp:148] Top shape: 24 32 28 28 (602112)
I0403 16:49:23.680850 19372 net.cpp:156] Memory required for data: 558760992
I0403 16:49:23.680872 19372 layer_factory.hpp:77] Creating layer inception_3a/relu_pool_proj
I0403 16:49:23.680892 19372 net.cpp:91] Creating Layer inception_3a/relu_pool_proj
I0403 16:49:23.680907 19372 net.cpp:425] inception_3a/relu_pool_proj <- inception_3a/pool_proj
I0403 16:49:23.680923 19372 net.cpp:386] inception_3a/relu_pool_proj -> inception_3a/pool_proj (in-place)
I0403 16:49:23.681182 19372 net.cpp:141] Setting up inception_3a/relu_pool_proj
I0403 16:49:23.681207 19372 net.cpp:148] Top shape: 24 32 28 28 (602112)
I0403 16:49:23.681222 19372 net.cpp:156] Memory required for data: 561169440
I0403 16:49:23.681236 19372 layer_factory.hpp:77] Creating layer inception_3a/output
I0403 16:49:23.681255 19372 net.cpp:91] Creating Layer inception_3a/output
I0403 16:49:23.681270 19372 net.cpp:425] inception_3a/output <- inception_3a/1x1
I0403 16:49:23.681285 19372 net.cpp:425] inception_3a/output <- inception_3a/3x3
I0403 16:49:23.681300 19372 net.cpp:425] inception_3a/output <- inception_3a/5x5
I0403 16:49:23.681315 19372 net.cpp:425] inception_3a/output <- inception_3a/pool_proj
I0403 16:49:23.681330 19372 net.cpp:399] inception_3a/output -> inception_3a/output
I0403 16:49:23.681376 19372 net.cpp:141] Setting up inception_3a/output
I0403 16:49:23.681398 19372 net.cpp:148] Top shape: 24 256 28 28 (4816896)
I0403 16:49:23.681412 19372 net.cpp:156] Memory required for data: 580437024
I0403 16:49:23.681426 19372 layer_factory.hpp:77] Creating layer inception_3a/output_inception_3a/output_0_split
I0403 16:49:23.681442 19372 net.cpp:91] Creating Layer inception_3a/output_inception_3a/output_0_split
I0403 16:49:23.681455 19372 net.cpp:425] inception_3a/output_inception_3a/output_0_split <- inception_3a/output
I0403 16:49:23.681473 19372 net.cpp:399] inception_3a/output_inception_3a/output_0_split -> inception_3a/output_inception_3a/output_0_split_0
I0403 16:49:23.681493 19372 net.cpp:399] inception_3a/output_inception_3a/output_0_split -> inception_3a/output_inception_3a/output_0_split_1
I0403 16:49:23.681514 19372 net.cpp:399] inception_3a/output_inception_3a/output_0_split -> inception_3a/output_inception_3a/output_0_split_2
I0403 16:49:23.681535 19372 net.cpp:399] inception_3a/output_inception_3a/output_0_split -> inception_3a/output_inception_3a/output_0_split_3
I0403 16:49:23.681609 19372 net.cpp:141] Setting up inception_3a/output_inception_3a/output_0_split
I0403 16:49:23.681632 19372 net.cpp:148] Top shape: 24 256 28 28 (4816896)
I0403 16:49:23.681648 19372 net.cpp:148] Top shape: 24 256 28 28 (4816896)
I0403 16:49:23.681663 19372 net.cpp:148] Top shape: 24 256 28 28 (4816896)
I0403 16:49:23.681676 19372 net.cpp:148] Top shape: 24 256 28 28 (4816896)
I0403 16:49:23.681689 19372 net.cpp:156] Memory required for data: 657507360
I0403 16:49:23.681704 19372 layer_factory.hpp:77] Creating layer inception_3b/1x1
I0403 16:49:23.681723 19372 net.cpp:91] Creating Layer inception_3b/1x1
I0403 16:49:23.681740 19372 net.cpp:425] inception_3b/1x1 <- inception_3a/output_inception_3a/output_0_split_0
I0403 16:49:23.681759 19372 net.cpp:399] inception_3b/1x1 -> inception_3b/1x1
I0403 16:49:23.682855 19372 net.cpp:141] Setting up inception_3b/1x1
I0403 16:49:23.682893 19372 net.cpp:148] Top shape: 24 128 28 28 (2408448)
I0403 16:49:23.682909 19372 net.cpp:156] Memory required for data: 667141152
I0403 16:49:23.682925 19372 layer_factory.hpp:77] Creating layer inception_3b/relu_1x1
I0403 16:49:23.682942 19372 net.cpp:91] Creating Layer inception_3b/relu_1x1
I0403 16:49:23.682957 19372 net.cpp:425] inception_3b/relu_1x1 <- inception_3b/1x1
I0403 16:49:23.682976 19372 net.cpp:386] inception_3b/relu_1x1 -> inception_3b/1x1 (in-place)
I0403 16:49:23.683145 19372 net.cpp:141] Setting up inception_3b/relu_1x1
I0403 16:49:23.683168 19372 net.cpp:148] Top shape: 24 128 28 28 (2408448)
I0403 16:49:23.683182 19372 net.cpp:156] Memory required for data: 676774944
I0403 16:49:23.683195 19372 layer_factory.hpp:77] Creating layer inception_3b/3x3_reduce
I0403 16:49:23.683217 19372 net.cpp:91] Creating Layer inception_3b/3x3_reduce
I0403 16:49:23.683233 19372 net.cpp:425] inception_3b/3x3_reduce <- inception_3a/output_inception_3a/output_0_split_1
I0403 16:49:23.683253 19372 net.cpp:399] inception_3b/3x3_reduce -> inception_3b/3x3_reduce
I0403 16:49:23.684345 19372 net.cpp:141] Setting up inception_3b/3x3_reduce
I0403 16:49:23.684371 19372 net.cpp:148] Top shape: 24 128 28 28 (2408448)
I0403 16:49:23.684386 19372 net.cpp:156] Memory required for data: 686408736
I0403 16:49:23.684402 19372 layer_factory.hpp:77] Creating layer inception_3b/relu_3x3_reduce
I0403 16:49:23.684422 19372 net.cpp:91] Creating Layer inception_3b/relu_3x3_reduce
I0403 16:49:23.684437 19372 net.cpp:425] inception_3b/relu_3x3_reduce <- inception_3b/3x3_reduce
I0403 16:49:23.684453 19372 net.cpp:386] inception_3b/relu_3x3_reduce -> inception_3b/3x3_reduce (in-place)
I0403 16:49:23.684625 19372 net.cpp:141] Setting up inception_3b/relu_3x3_reduce
I0403 16:49:23.684650 19372 net.cpp:148] Top shape: 24 128 28 28 (2408448)
I0403 16:49:23.684664 19372 net.cpp:156] Memory required for data: 696042528
I0403 16:49:23.684677 19372 layer_factory.hpp:77] Creating layer inception_3b/3x3
I0403 16:49:23.684702 19372 net.cpp:91] Creating Layer inception_3b/3x3
I0403 16:49:23.684720 19372 net.cpp:425] inception_3b/3x3 <- inception_3b/3x3_reduce
I0403 16:49:23.684736 19372 net.cpp:399] inception_3b/3x3 -> inception_3b/3x3
I0403 16:49:23.687490 19372 net.cpp:141] Setting up inception_3b/3x3
I0403 16:49:23.687517 19372 net.cpp:148] Top shape: 24 192 28 28 (3612672)
I0403 16:49:23.687531 19372 net.cpp:156] Memory required for data: 710493216
I0403 16:49:23.687547 19372 layer_factory.hpp:77] Creating layer inception_3b/relu_3x3
I0403 16:49:23.687566 19372 net.cpp:91] Creating Layer inception_3b/relu_3x3
I0403 16:49:23.687587 19372 net.cpp:425] inception_3b/relu_3x3 <- inception_3b/3x3
I0403 16:49:23.687602 19372 net.cpp:386] inception_3b/relu_3x3 -> inception_3b/3x3 (in-place)
I0403 16:49:23.687865 19372 net.cpp:141] Setting up inception_3b/relu_3x3
I0403 16:49:23.687891 19372 net.cpp:148] Top shape: 24 192 28 28 (3612672)
I0403 16:49:23.687904 19372 net.cpp:156] Memory required for data: 724943904
I0403 16:49:23.687917 19372 layer_factory.hpp:77] Creating layer inception_3b/5x5_reduce
I0403 16:49:23.687938 19372 net.cpp:91] Creating Layer inception_3b/5x5_reduce
I0403 16:49:23.687954 19372 net.cpp:425] inception_3b/5x5_reduce <- inception_3a/output_inception_3a/output_0_split_2
I0403 16:49:23.687974 19372 net.cpp:399] inception_3b/5x5_reduce -> inception_3b/5x5_reduce
I0403 16:49:23.688910 19372 net.cpp:141] Setting up inception_3b/5x5_reduce
I0403 16:49:23.688936 19372 net.cpp:148] Top shape: 24 32 28 28 (602112)
I0403 16:49:23.688951 19372 net.cpp:156] Memory required for data: 727352352
I0403 16:49:23.688967 19372 layer_factory.hpp:77] Creating layer inception_3b/relu_5x5_reduce
I0403 16:49:23.688985 19372 net.cpp:91] Creating Layer inception_3b/relu_5x5_reduce
I0403 16:49:23.689000 19372 net.cpp:425] inception_3b/relu_5x5_reduce <- inception_3b/5x5_reduce
I0403 16:49:23.689016 19372 net.cpp:386] inception_3b/relu_5x5_reduce -> inception_3b/5x5_reduce (in-place)
I0403 16:49:23.689196 19372 net.cpp:141] Setting up inception_3b/relu_5x5_reduce
I0403 16:49:23.689220 19372 net.cpp:148] Top shape: 24 32 28 28 (602112)
I0403 16:49:23.689234 19372 net.cpp:156] Memory required for data: 729760800
I0403 16:49:23.689247 19372 layer_factory.hpp:77] Creating layer inception_3b/5x5
I0403 16:49:23.689270 19372 net.cpp:91] Creating Layer inception_3b/5x5
I0403 16:49:23.689286 19372 net.cpp:425] inception_3b/5x5 <- inception_3b/5x5_reduce
I0403 16:49:23.689303 19372 net.cpp:399] inception_3b/5x5 -> inception_3b/5x5
I0403 16:49:23.691154 19372 net.cpp:141] Setting up inception_3b/5x5
I0403 16:49:23.691181 19372 net.cpp:148] Top shape: 24 96 28 28 (1806336)
I0403 16:49:23.691195 19372 net.cpp:156] Memory required for data: 736986144
I0403 16:49:23.691212 19372 layer_factory.hpp:77] Creating layer inception_3b/relu_5x5
I0403 16:49:23.691228 19372 net.cpp:91] Creating Layer inception_3b/relu_5x5
I0403 16:49:23.691274 19372 net.cpp:425] inception_3b/relu_5x5 <- inception_3b/5x5
I0403 16:49:23.691292 19372 net.cpp:386] inception_3b/relu_5x5 -> inception_3b/5x5 (in-place)
I0403 16:49:23.691471 19372 net.cpp:141] Setting up inception_3b/relu_5x5
I0403 16:49:23.691496 19372 net.cpp:148] Top shape: 24 96 28 28 (1806336)
I0403 16:49:23.691510 19372 net.cpp:156] Memory required for data: 744211488
I0403 16:49:23.691536 19372 layer_factory.hpp:77] Creating layer inception_3b/pool
I0403 16:49:23.691552 19372 net.cpp:91] Creating Layer inception_3b/pool
I0403 16:49:23.691570 19372 net.cpp:425] inception_3b/pool <- inception_3a/output_inception_3a/output_0_split_3
I0403 16:49:23.691588 19372 net.cpp:399] inception_3b/pool -> inception_3b/pool
I0403 16:49:23.691643 19372 net.cpp:141] Setting up inception_3b/pool
I0403 16:49:23.691665 19372 net.cpp:148] Top shape: 24 256 28 28 (4816896)
I0403 16:49:23.691679 19372 net.cpp:156] Memory required for data: 763479072
I0403 16:49:23.691692 19372 layer_factory.hpp:77] Creating layer inception_3b/pool_proj
I0403 16:49:23.691712 19372 net.cpp:91] Creating Layer inception_3b/pool_proj
I0403 16:49:23.691728 19372 net.cpp:425] inception_3b/pool_proj <- inception_3b/pool
I0403 16:49:23.691747 19372 net.cpp:399] inception_3b/pool_proj -> inception_3b/pool_proj
I0403 16:49:23.692733 19372 net.cpp:141] Setting up inception_3b/pool_proj
I0403 16:49:23.692760 19372 net.cpp:148] Top shape: 24 64 28 28 (1204224)
I0403 16:49:23.692775 19372 net.cpp:156] Memory required for data: 768295968
I0403 16:49:23.692791 19372 layer_factory.hpp:77] Creating layer inception_3b/relu_pool_proj
I0403 16:49:23.692808 19372 net.cpp:91] Creating Layer inception_3b/relu_pool_proj
I0403 16:49:23.692823 19372 net.cpp:425] inception_3b/relu_pool_proj <- inception_3b/pool_proj
I0403 16:49:23.692842 19372 net.cpp:386] inception_3b/relu_pool_proj -> inception_3b/pool_proj (in-place)
I0403 16:49:23.693200 19372 net.cpp:141] Setting up inception_3b/relu_pool_proj
I0403 16:49:23.693227 19372 net.cpp:148] Top shape: 24 64 28 28 (1204224)
I0403 16:49:23.693240 19372 net.cpp:156] Memory required for data: 773112864
I0403 16:49:23.693254 19372 layer_factory.hpp:77] Creating layer inception_3b/output
I0403 16:49:23.693270 19372 net.cpp:91] Creating Layer inception_3b/output
I0403 16:49:23.693284 19372 net.cpp:425] inception_3b/output <- inception_3b/1x1
I0403 16:49:23.693300 19372 net.cpp:425] inception_3b/output <- inception_3b/3x3
I0403 16:49:23.693313 19372 net.cpp:425] inception_3b/output <- inception_3b/5x5
I0403 16:49:23.693327 19372 net.cpp:425] inception_3b/output <- inception_3b/pool_proj
I0403 16:49:23.693342 19372 net.cpp:399] inception_3b/output -> inception_3b/output
I0403 16:49:23.693387 19372 net.cpp:141] Setting up inception_3b/output
I0403 16:49:23.693408 19372 net.cpp:148] Top shape: 24 480 28 28 (9031680)
I0403 16:49:23.693421 19372 net.cpp:156] Memory required for data: 809239584
I0403 16:49:23.693434 19372 layer_factory.hpp:77] Creating layer pool3/3x3_s2
I0403 16:49:23.693451 19372 net.cpp:91] Creating Layer pool3/3x3_s2
I0403 16:49:23.693466 19372 net.cpp:425] pool3/3x3_s2 <- inception_3b/output
I0403 16:49:23.693497 19372 net.cpp:399] pool3/3x3_s2 -> pool3/3x3_s2
I0403 16:49:23.693552 19372 net.cpp:141] Setting up pool3/3x3_s2
I0403 16:49:23.693578 19372 net.cpp:148] Top shape: 24 480 14 14 (2257920)
I0403 16:49:23.693593 19372 net.cpp:156] Memory required for data: 818271264
I0403 16:49:23.693605 19372 layer_factory.hpp:77] Creating layer pool3/3x3_s2_pool3/3x3_s2_0_split
I0403 16:49:23.693620 19372 net.cpp:91] Creating Layer pool3/3x3_s2_pool3/3x3_s2_0_split
I0403 16:49:23.693634 19372 net.cpp:425] pool3/3x3_s2_pool3/3x3_s2_0_split <- pool3/3x3_s2
I0403 16:49:23.693652 19372 net.cpp:399] pool3/3x3_s2_pool3/3x3_s2_0_split -> pool3/3x3_s2_pool3/3x3_s2_0_split_0
I0403 16:49:23.693670 19372 net.cpp:399] pool3/3x3_s2_pool3/3x3_s2_0_split -> pool3/3x3_s2_pool3/3x3_s2_0_split_1
I0403 16:49:23.693688 19372 net.cpp:399] pool3/3x3_s2_pool3/3x3_s2_0_split -> pool3/3x3_s2_pool3/3x3_s2_0_split_2
I0403 16:49:23.693706 19372 net.cpp:399] pool3/3x3_s2_pool3/3x3_s2_0_split -> pool3/3x3_s2_pool3/3x3_s2_0_split_3
I0403 16:49:23.693778 19372 net.cpp:141] Setting up pool3/3x3_s2_pool3/3x3_s2_0_split
I0403 16:49:23.693801 19372 net.cpp:148] Top shape: 24 480 14 14 (2257920)
I0403 16:49:23.693817 19372 net.cpp:148] Top shape: 24 480 14 14 (2257920)
I0403 16:49:23.693831 19372 net.cpp:148] Top shape: 24 480 14 14 (2257920)
I0403 16:49:23.693846 19372 net.cpp:148] Top shape: 24 480 14 14 (2257920)
I0403 16:49:23.693858 19372 net.cpp:156] Memory required for data: 854397984
I0403 16:49:23.693871 19372 layer_factory.hpp:77] Creating layer inception_4a/1x1
I0403 16:49:23.693892 19372 net.cpp:91] Creating Layer inception_4a/1x1
I0403 16:49:23.693907 19372 net.cpp:425] inception_4a/1x1 <- pool3/3x3_s2_pool3/3x3_s2_0_split_0
I0403 16:49:23.693924 19372 net.cpp:399] inception_4a/1x1 -> inception_4a/1x1
I0403 16:49:23.695399 19372 net.cpp:141] Setting up inception_4a/1x1
I0403 16:49:23.695427 19372 net.cpp:148] Top shape: 24 192 14 14 (903168)
I0403 16:49:23.695442 19372 net.cpp:156] Memory required for data: 858010656
I0403 16:49:23.695459 19372 layer_factory.hpp:77] Creating layer inception_4a/relu_1x1
I0403 16:49:23.695475 19372 net.cpp:91] Creating Layer inception_4a/relu_1x1
I0403 16:49:23.695490 19372 net.cpp:425] inception_4a/relu_1x1 <- inception_4a/1x1
I0403 16:49:23.695508 19372 net.cpp:386] inception_4a/relu_1x1 -> inception_4a/1x1 (in-place)
I0403 16:49:23.695677 19372 net.cpp:141] Setting up inception_4a/relu_1x1
I0403 16:49:23.695700 19372 net.cpp:148] Top shape: 24 192 14 14 (903168)
I0403 16:49:23.695713 19372 net.cpp:156] Memory required for data: 861623328
I0403 16:49:23.695727 19372 layer_factory.hpp:77] Creating layer inception_4a/3x3_reduce
I0403 16:49:23.695747 19372 net.cpp:91] Creating Layer inception_4a/3x3_reduce
I0403 16:49:23.695763 19372 net.cpp:425] inception_4a/3x3_reduce <- pool3/3x3_s2_pool3/3x3_s2_0_split_1
I0403 16:49:23.695783 19372 net.cpp:399] inception_4a/3x3_reduce -> inception_4a/3x3_reduce
I0403 16:49:23.697000 19372 net.cpp:141] Setting up inception_4a/3x3_reduce
I0403 16:49:23.697029 19372 net.cpp:148] Top shape: 24 96 14 14 (451584)
I0403 16:49:23.697046 19372 net.cpp:156] Memory required for data: 863429664
I0403 16:49:23.697067 19372 layer_factory.hpp:77] Creating layer inception_4a/relu_3x3_reduce
I0403 16:49:23.697088 19372 net.cpp:91] Creating Layer inception_4a/relu_3x3_reduce
I0403 16:49:23.697104 19372 net.cpp:425] inception_4a/relu_3x3_reduce <- inception_4a/3x3_reduce
I0403 16:49:23.697120 19372 net.cpp:386] inception_4a/relu_3x3_reduce -> inception_4a/3x3_reduce (in-place)
I0403 16:49:23.697291 19372 net.cpp:141] Setting up inception_4a/relu_3x3_reduce
I0403 16:49:23.697315 19372 net.cpp:148] Top shape: 24 96 14 14 (451584)
I0403 16:49:23.697329 19372 net.cpp:156] Memory required for data: 865236000
I0403 16:49:23.697343 19372 layer_factory.hpp:77] Creating layer inception_4a/3x3
I0403 16:49:23.697365 19372 net.cpp:91] Creating Layer inception_4a/3x3
I0403 16:49:23.697381 19372 net.cpp:425] inception_4a/3x3 <- inception_4a/3x3_reduce
I0403 16:49:23.697401 19372 net.cpp:399] inception_4a/3x3 -> inception_4a/3x3
I0403 16:49:23.699987 19372 net.cpp:141] Setting up inception_4a/3x3
I0403 16:49:23.700016 19372 net.cpp:148] Top shape: 24 208 14 14 (978432)
I0403 16:49:23.700031 19372 net.cpp:156] Memory required for data: 869149728
I0403 16:49:23.700047 19372 layer_factory.hpp:77] Creating layer inception_4a/relu_3x3
I0403 16:49:23.700067 19372 net.cpp:91] Creating Layer inception_4a/relu_3x3
I0403 16:49:23.700083 19372 net.cpp:425] inception_4a/relu_3x3 <- inception_4a/3x3
I0403 16:49:23.700099 19372 net.cpp:386] inception_4a/relu_3x3 -> inception_4a/3x3 (in-place)
I0403 16:49:23.700371 19372 net.cpp:141] Setting up inception_4a/relu_3x3
I0403 16:49:23.700395 19372 net.cpp:148] Top shape: 24 208 14 14 (978432)
I0403 16:49:23.700409 19372 net.cpp:156] Memory required for data: 873063456
I0403 16:49:23.700424 19372 layer_factory.hpp:77] Creating layer inception_4a/5x5_reduce
I0403 16:49:23.700448 19372 net.cpp:91] Creating Layer inception_4a/5x5_reduce
I0403 16:49:23.700464 19372 net.cpp:425] inception_4a/5x5_reduce <- pool3/3x3_s2_pool3/3x3_s2_0_split_2
I0403 16:49:23.700484 19372 net.cpp:399] inception_4a/5x5_reduce -> inception_4a/5x5_reduce
I0403 16:49:23.701468 19372 net.cpp:141] Setting up inception_4a/5x5_reduce
I0403 16:49:23.701494 19372 net.cpp:148] Top shape: 24 16 14 14 (75264)
I0403 16:49:23.701509 19372 net.cpp:156] Memory required for data: 873364512
I0403 16:49:23.701527 19372 layer_factory.hpp:77] Creating layer inception_4a/relu_5x5_reduce
I0403 16:49:23.701550 19372 net.cpp:91] Creating Layer inception_4a/relu_5x5_reduce
I0403 16:49:23.701566 19372 net.cpp:425] inception_4a/relu_5x5_reduce <- inception_4a/5x5_reduce
I0403 16:49:23.701587 19372 net.cpp:386] inception_4a/relu_5x5_reduce -> inception_4a/5x5_reduce (in-place)
I0403 16:49:23.701759 19372 net.cpp:141] Setting up inception_4a/relu_5x5_reduce
I0403 16:49:23.701783 19372 net.cpp:148] Top shape: 24 16 14 14 (75264)
I0403 16:49:23.701797 19372 net.cpp:156] Memory required for data: 873665568
I0403 16:49:23.701810 19372 layer_factory.hpp:77] Creating layer inception_4a/5x5
I0403 16:49:23.701833 19372 net.cpp:91] Creating Layer inception_4a/5x5
I0403 16:49:23.701850 19372 net.cpp:425] inception_4a/5x5 <- inception_4a/5x5_reduce
I0403 16:49:23.701867 19372 net.cpp:399] inception_4a/5x5 -> inception_4a/5x5
I0403 16:49:23.702915 19372 net.cpp:141] Setting up inception_4a/5x5
I0403 16:49:23.702944 19372 net.cpp:148] Top shape: 24 48 14 14 (225792)
I0403 16:49:23.702960 19372 net.cpp:156] Memory required for data: 874568736
I0403 16:49:23.702976 19372 layer_factory.hpp:77] Creating layer inception_4a/relu_5x5
I0403 16:49:23.702993 19372 net.cpp:91] Creating Layer inception_4a/relu_5x5
I0403 16:49:23.703008 19372 net.cpp:425] inception_4a/relu_5x5 <- inception_4a/5x5
I0403 16:49:23.703024 19372 net.cpp:386] inception_4a/relu_5x5 -> inception_4a/5x5 (in-place)
I0403 16:49:23.703194 19372 net.cpp:141] Setting up inception_4a/relu_5x5
I0403 16:49:23.703220 19372 net.cpp:148] Top shape: 24 48 14 14 (225792)
I0403 16:49:23.703234 19372 net.cpp:156] Memory required for data: 875471904
I0403 16:49:23.703248 19372 layer_factory.hpp:77] Creating layer inception_4a/pool
I0403 16:49:23.703266 19372 net.cpp:91] Creating Layer inception_4a/pool
I0403 16:49:23.703281 19372 net.cpp:425] inception_4a/pool <- pool3/3x3_s2_pool3/3x3_s2_0_split_3
I0403 16:49:23.703299 19372 net.cpp:399] inception_4a/pool -> inception_4a/pool
I0403 16:49:23.703356 19372 net.cpp:141] Setting up inception_4a/pool
I0403 16:49:23.703382 19372 net.cpp:148] Top shape: 24 480 14 14 (2257920)
I0403 16:49:23.703395 19372 net.cpp:156] Memory required for data: 884503584
I0403 16:49:23.703409 19372 layer_factory.hpp:77] Creating layer inception_4a/pool_proj
I0403 16:49:23.703430 19372 net.cpp:91] Creating Layer inception_4a/pool_proj
I0403 16:49:23.703446 19372 net.cpp:425] inception_4a/pool_proj <- inception_4a/pool
I0403 16:49:23.703464 19372 net.cpp:399] inception_4a/pool_proj -> inception_4a/pool_proj
I0403 16:49:23.704593 19372 net.cpp:141] Setting up inception_4a/pool_proj
I0403 16:49:23.704623 19372 net.cpp:148] Top shape: 24 64 14 14 (301056)
I0403 16:49:23.704653 19372 net.cpp:156] Memory required for data: 885707808
I0403 16:49:23.704670 19372 layer_factory.hpp:77] Creating layer inception_4a/relu_pool_proj
I0403 16:49:23.704687 19372 net.cpp:91] Creating Layer inception_4a/relu_pool_proj
I0403 16:49:23.704702 19372 net.cpp:425] inception_4a/relu_pool_proj <- inception_4a/pool_proj
I0403 16:49:23.704725 19372 net.cpp:386] inception_4a/relu_pool_proj -> inception_4a/pool_proj (in-place)
I0403 16:49:23.704994 19372 net.cpp:141] Setting up inception_4a/relu_pool_proj
I0403 16:49:23.705021 19372 net.cpp:148] Top shape: 24 64 14 14 (301056)
I0403 16:49:23.705036 19372 net.cpp:156] Memory required for data: 886912032
I0403 16:49:23.705050 19372 layer_factory.hpp:77] Creating layer inception_4a/output
I0403 16:49:23.705067 19372 net.cpp:91] Creating Layer inception_4a/output
I0403 16:49:23.705081 19372 net.cpp:425] inception_4a/output <- inception_4a/1x1
I0403 16:49:23.705097 19372 net.cpp:425] inception_4a/output <- inception_4a/3x3
I0403 16:49:23.705111 19372 net.cpp:425] inception_4a/output <- inception_4a/5x5
I0403 16:49:23.705127 19372 net.cpp:425] inception_4a/output <- inception_4a/pool_proj
I0403 16:49:23.705142 19372 net.cpp:399] inception_4a/output -> inception_4a/output
I0403 16:49:23.705186 19372 net.cpp:141] Setting up inception_4a/output
I0403 16:49:23.705209 19372 net.cpp:148] Top shape: 24 512 14 14 (2408448)
I0403 16:49:23.705222 19372 net.cpp:156] Memory required for data: 896545824
I0403 16:49:23.705235 19372 layer_factory.hpp:77] Creating layer inception_4a/output_inception_4a/output_0_split
I0403 16:49:23.705255 19372 net.cpp:91] Creating Layer inception_4a/output_inception_4a/output_0_split
I0403 16:49:23.705271 19372 net.cpp:425] inception_4a/output_inception_4a/output_0_split <- inception_4a/output
I0403 16:49:23.705287 19372 net.cpp:399] inception_4a/output_inception_4a/output_0_split -> inception_4a/output_inception_4a/output_0_split_0
I0403 16:49:23.705307 19372 net.cpp:399] inception_4a/output_inception_4a/output_0_split -> inception_4a/output_inception_4a/output_0_split_1
I0403 16:49:23.705327 19372 net.cpp:399] inception_4a/output_inception_4a/output_0_split -> inception_4a/output_inception_4a/output_0_split_2
I0403 16:49:23.705348 19372 net.cpp:399] inception_4a/output_inception_4a/output_0_split -> inception_4a/output_inception_4a/output_0_split_3
I0403 16:49:23.705368 19372 net.cpp:399] inception_4a/output_inception_4a/output_0_split -> inception_4a/output_inception_4a/output_0_split_4
I0403 16:49:23.705456 19372 net.cpp:141] Setting up inception_4a/output_inception_4a/output_0_split
I0403 16:49:23.705478 19372 net.cpp:148] Top shape: 24 512 14 14 (2408448)
I0403 16:49:23.705493 19372 net.cpp:148] Top shape: 24 512 14 14 (2408448)
I0403 16:49:23.705508 19372 net.cpp:148] Top shape: 24 512 14 14 (2408448)
I0403 16:49:23.705523 19372 net.cpp:148] Top shape: 24 512 14 14 (2408448)
I0403 16:49:23.705536 19372 net.cpp:148] Top shape: 24 512 14 14 (2408448)
I0403 16:49:23.705549 19372 net.cpp:156] Memory required for data: 944714784
I0403 16:49:23.705564 19372 layer_factory.hpp:77] Creating layer loss1/ave_pool
I0403 16:49:23.705587 19372 net.cpp:91] Creating Layer loss1/ave_pool
I0403 16:49:23.705605 19372 net.cpp:425] loss1/ave_pool <- inception_4a/output_inception_4a/output_0_split_0
I0403 16:49:23.705621 19372 net.cpp:399] loss1/ave_pool -> loss1/ave_pool
I0403 16:49:23.705816 19372 net.cpp:141] Setting up loss1/ave_pool
I0403 16:49:23.705842 19372 net.cpp:148] Top shape: 24 512 4 4 (196608)
I0403 16:49:23.705864 19372 net.cpp:156] Memory required for data: 945501216
I0403 16:49:23.705878 19372 layer_factory.hpp:77] Creating layer loss1/conv
I0403 16:49:23.705899 19372 net.cpp:91] Creating Layer loss1/conv
I0403 16:49:23.705915 19372 net.cpp:425] loss1/conv <- loss1/ave_pool
I0403 16:49:23.705932 19372 net.cpp:399] loss1/conv -> loss1/conv
I0403 16:49:23.707283 19372 net.cpp:141] Setting up loss1/conv
I0403 16:49:23.707309 19372 net.cpp:148] Top shape: 24 128 4 4 (49152)
I0403 16:49:23.707337 19372 net.cpp:156] Memory required for data: 945697824
I0403 16:49:23.707356 19372 layer_factory.hpp:77] Creating layer loss1/relu_conv
I0403 16:49:23.707376 19372 net.cpp:91] Creating Layer loss1/relu_conv
I0403 16:49:23.707391 19372 net.cpp:425] loss1/relu_conv <- loss1/conv
I0403 16:49:23.707406 19372 net.cpp:386] loss1/relu_conv -> loss1/conv (in-place)
I0403 16:49:23.707682 19372 net.cpp:141] Setting up loss1/relu_conv
I0403 16:49:23.707708 19372 net.cpp:148] Top shape: 24 128 4 4 (49152)
I0403 16:49:23.707722 19372 net.cpp:156] Memory required for data: 945894432
I0403 16:49:23.707737 19372 layer_factory.hpp:77] Creating layer loss1/fc
I0403 16:49:23.707762 19372 net.cpp:91] Creating Layer loss1/fc
I0403 16:49:23.707778 19372 net.cpp:425] loss1/fc <- loss1/conv
I0403 16:49:23.707797 19372 net.cpp:399] loss1/fc -> loss1/fc
I0403 16:49:23.724903 19372 net.cpp:141] Setting up loss1/fc
I0403 16:49:23.724933 19372 net.cpp:148] Top shape: 24 1024 (24576)
I0403 16:49:23.724948 19372 net.cpp:156] Memory required for data: 945992736
I0403 16:49:23.724966 19372 layer_factory.hpp:77] Creating layer loss1/relu_fc
I0403 16:49:23.724982 19372 net.cpp:91] Creating Layer loss1/relu_fc
I0403 16:49:23.724997 19372 net.cpp:425] loss1/relu_fc <- loss1/fc
I0403 16:49:23.725014 19372 net.cpp:386] loss1/relu_fc -> loss1/fc (in-place)
I0403 16:49:23.725188 19372 net.cpp:141] Setting up loss1/relu_fc
I0403 16:49:23.725213 19372 net.cpp:148] Top shape: 24 1024 (24576)
I0403 16:49:23.725226 19372 net.cpp:156] Memory required for data: 946091040
I0403 16:49:23.725239 19372 layer_factory.hpp:77] Creating layer loss1/drop_fc
I0403 16:49:23.725262 19372 net.cpp:91] Creating Layer loss1/drop_fc
I0403 16:49:23.725281 19372 net.cpp:425] loss1/drop_fc <- loss1/fc
I0403 16:49:23.725297 19372 net.cpp:386] loss1/drop_fc -> loss1/fc (in-place)
I0403 16:49:23.725345 19372 net.cpp:141] Setting up loss1/drop_fc
I0403 16:49:23.725368 19372 net.cpp:148] Top shape: 24 1024 (24576)
I0403 16:49:23.725380 19372 net.cpp:156] Memory required for data: 946189344
I0403 16:49:23.725394 19372 layer_factory.hpp:77] Creating layer loss1/classifier_plantvillage
I0403 16:49:23.725414 19372 net.cpp:91] Creating Layer loss1/classifier_plantvillage
I0403 16:49:23.725430 19372 net.cpp:425] loss1/classifier_plantvillage <- loss1/fc
I0403 16:49:23.725448 19372 net.cpp:399] loss1/classifier_plantvillage -> loss1/classifier_plantvillage
I0403 16:49:23.726317 19372 net.cpp:141] Setting up loss1/classifier_plantvillage
I0403 16:49:23.726344 19372 net.cpp:148] Top shape: 24 38 (912)
I0403 16:49:23.726359 19372 net.cpp:156] Memory required for data: 946192992
I0403 16:49:23.726375 19372 layer_factory.hpp:77] Creating layer loss1/classifier_plantvillage_loss1/classifier_plantvillage_0_split
I0403 16:49:23.726392 19372 net.cpp:91] Creating Layer loss1/classifier_plantvillage_loss1/classifier_plantvillage_0_split
I0403 16:49:23.726408 19372 net.cpp:425] loss1/classifier_plantvillage_loss1/classifier_plantvillage_0_split <- loss1/classifier_plantvillage
I0403 16:49:23.726425 19372 net.cpp:399] loss1/classifier_plantvillage_loss1/classifier_plantvillage_0_split -> loss1/classifier_plantvillage_loss1/classifier_plantvillage_0_split_0
I0403 16:49:23.726445 19372 net.cpp:399] loss1/classifier_plantvillage_loss1/classifier_plantvillage_0_split -> loss1/classifier_plantvillage_loss1/classifier_plantvillage_0_split_1
I0403 16:49:23.726464 19372 net.cpp:399] loss1/classifier_plantvillage_loss1/classifier_plantvillage_0_split -> loss1/classifier_plantvillage_loss1/classifier_plantvillage_0_split_2
I0403 16:49:23.726526 19372 net.cpp:141] Setting up loss1/classifier_plantvillage_loss1/classifier_plantvillage_0_split
I0403 16:49:23.726548 19372 net.cpp:148] Top shape: 24 38 (912)
I0403 16:49:23.726564 19372 net.cpp:148] Top shape: 24 38 (912)
I0403 16:49:23.726583 19372 net.cpp:148] Top shape: 24 38 (912)
I0403 16:49:23.726598 19372 net.cpp:156] Memory required for data: 946203936
I0403 16:49:23.726610 19372 layer_factory.hpp:77] Creating layer inception_4b/1x1
I0403 16:49:23.726629 19372 net.cpp:91] Creating Layer inception_4b/1x1
I0403 16:49:23.726660 19372 net.cpp:425] inception_4b/1x1 <- inception_4a/output_inception_4a/output_0_split_1
I0403 16:49:23.726680 19372 net.cpp:399] inception_4b/1x1 -> inception_4b/1x1
I0403 16:49:23.728211 19372 net.cpp:141] Setting up inception_4b/1x1
I0403 16:49:23.728237 19372 net.cpp:148] Top shape: 24 160 14 14 (752640)
I0403 16:49:23.728252 19372 net.cpp:156] Memory required for data: 949214496
I0403 16:49:23.728271 19372 layer_factory.hpp:77] Creating layer inception_4b/relu_1x1
I0403 16:49:23.728288 19372 net.cpp:91] Creating Layer inception_4b/relu_1x1
I0403 16:49:23.728304 19372 net.cpp:425] inception_4b/relu_1x1 <- inception_4b/1x1
I0403 16:49:23.728320 19372 net.cpp:386] inception_4b/relu_1x1 -> inception_4b/1x1 (in-place)
I0403 16:49:23.728488 19372 net.cpp:141] Setting up inception_4b/relu_1x1
I0403 16:49:23.728513 19372 net.cpp:148] Top shape: 24 160 14 14 (752640)
I0403 16:49:23.728526 19372 net.cpp:156] Memory required for data: 952225056
I0403 16:49:23.728539 19372 layer_factory.hpp:77] Creating layer inception_4b/3x3_reduce
I0403 16:49:23.728561 19372 net.cpp:91] Creating Layer inception_4b/3x3_reduce
I0403 16:49:23.728595 19372 net.cpp:425] inception_4b/3x3_reduce <- inception_4a/output_inception_4a/output_0_split_2
I0403 16:49:23.728615 19372 net.cpp:399] inception_4b/3x3_reduce -> inception_4b/3x3_reduce
I0403 16:49:23.729898 19372 net.cpp:141] Setting up inception_4b/3x3_reduce
I0403 16:49:23.729924 19372 net.cpp:148] Top shape: 24 112 14 14 (526848)
I0403 16:49:23.729938 19372 net.cpp:156] Memory required for data: 954332448
I0403 16:49:23.729955 19372 layer_factory.hpp:77] Creating layer inception_4b/relu_3x3_reduce
I0403 16:49:23.729975 19372 net.cpp:91] Creating Layer inception_4b/relu_3x3_reduce
I0403 16:49:23.729991 19372 net.cpp:425] inception_4b/relu_3x3_reduce <- inception_4b/3x3_reduce
I0403 16:49:23.730007 19372 net.cpp:386] inception_4b/relu_3x3_reduce -> inception_4b/3x3_reduce (in-place)
I0403 16:49:23.730279 19372 net.cpp:141] Setting up inception_4b/relu_3x3_reduce
I0403 16:49:23.730304 19372 net.cpp:148] Top shape: 24 112 14 14 (526848)
I0403 16:49:23.730319 19372 net.cpp:156] Memory required for data: 956439840
I0403 16:49:23.730331 19372 layer_factory.hpp:77] Creating layer inception_4b/3x3
I0403 16:49:23.730355 19372 net.cpp:91] Creating Layer inception_4b/3x3
I0403 16:49:23.730370 19372 net.cpp:425] inception_4b/3x3 <- inception_4b/3x3_reduce
I0403 16:49:23.730387 19372 net.cpp:399] inception_4b/3x3 -> inception_4b/3x3
I0403 16:49:23.733245 19372 net.cpp:141] Setting up inception_4b/3x3
I0403 16:49:23.733276 19372 net.cpp:148] Top shape: 24 224 14 14 (1053696)
I0403 16:49:23.733291 19372 net.cpp:156] Memory required for data: 960654624
I0403 16:49:23.733309 19372 layer_factory.hpp:77] Creating layer inception_4b/relu_3x3
I0403 16:49:23.733325 19372 net.cpp:91] Creating Layer inception_4b/relu_3x3
I0403 16:49:23.733340 19372 net.cpp:425] inception_4b/relu_3x3 <- inception_4b/3x3
I0403 16:49:23.733358 19372 net.cpp:386] inception_4b/relu_3x3 -> inception_4b/3x3 (in-place)
I0403 16:49:23.733525 19372 net.cpp:141] Setting up inception_4b/relu_3x3
I0403 16:49:23.733549 19372 net.cpp:148] Top shape: 24 224 14 14 (1053696)
I0403 16:49:23.733562 19372 net.cpp:156] Memory required for data: 964869408
I0403 16:49:23.733580 19372 layer_factory.hpp:77] Creating layer inception_4b/5x5_reduce
I0403 16:49:23.733603 19372 net.cpp:91] Creating Layer inception_4b/5x5_reduce
I0403 16:49:23.733618 19372 net.cpp:425] inception_4b/5x5_reduce <- inception_4a/output_inception_4a/output_0_split_3
I0403 16:49:23.733639 19372 net.cpp:399] inception_4b/5x5_reduce -> inception_4b/5x5_reduce
I0403 16:49:23.734669 19372 net.cpp:141] Setting up inception_4b/5x5_reduce
I0403 16:49:23.734695 19372 net.cpp:148] Top shape: 24 24 14 14 (112896)
I0403 16:49:23.734710 19372 net.cpp:156] Memory required for data: 965320992
I0403 16:49:23.734726 19372 layer_factory.hpp:77] Creating layer inception_4b/relu_5x5_reduce
I0403 16:49:23.734748 19372 net.cpp:91] Creating Layer inception_4b/relu_5x5_reduce
I0403 16:49:23.734777 19372 net.cpp:425] inception_4b/relu_5x5_reduce <- inception_4b/5x5_reduce
I0403 16:49:23.734794 19372 net.cpp:386] inception_4b/relu_5x5_reduce -> inception_4b/5x5_reduce (in-place)
I0403 16:49:23.734964 19372 net.cpp:141] Setting up inception_4b/relu_5x5_reduce
I0403 16:49:23.734990 19372 net.cpp:148] Top shape: 24 24 14 14 (112896)
I0403 16:49:23.735004 19372 net.cpp:156] Memory required for data: 965772576
I0403 16:49:23.735018 19372 layer_factory.hpp:77] Creating layer inception_4b/5x5
I0403 16:49:23.735038 19372 net.cpp:91] Creating Layer inception_4b/5x5
I0403 16:49:23.735054 19372 net.cpp:425] inception_4b/5x5 <- inception_4b/5x5_reduce
I0403 16:49:23.735071 19372 net.cpp:399] inception_4b/5x5 -> inception_4b/5x5
I0403 16:49:23.736228 19372 net.cpp:141] Setting up inception_4b/5x5
I0403 16:49:23.736254 19372 net.cpp:148] Top shape: 24 64 14 14 (301056)
I0403 16:49:23.736269 19372 net.cpp:156] Memory required for data: 966976800
I0403 16:49:23.736286 19372 layer_factory.hpp:77] Creating layer inception_4b/relu_5x5
I0403 16:49:23.736304 19372 net.cpp:91] Creating Layer inception_4b/relu_5x5
I0403 16:49:23.736320 19372 net.cpp:425] inception_4b/relu_5x5 <- inception_4b/5x5
I0403 16:49:23.736335 19372 net.cpp:386] inception_4b/relu_5x5 -> inception_4b/5x5 (in-place)
I0403 16:49:23.736623 19372 net.cpp:141] Setting up inception_4b/relu_5x5
I0403 16:49:23.736649 19372 net.cpp:148] Top shape: 24 64 14 14 (301056)
I0403 16:49:23.736661 19372 net.cpp:156] Memory required for data: 968181024
I0403 16:49:23.736675 19372 layer_factory.hpp:77] Creating layer inception_4b/pool
I0403 16:49:23.736695 19372 net.cpp:91] Creating Layer inception_4b/pool
I0403 16:49:23.736711 19372 net.cpp:425] inception_4b/pool <- inception_4a/output_inception_4a/output_0_split_4
I0403 16:49:23.736727 19372 net.cpp:399] inception_4b/pool -> inception_4b/pool
I0403 16:49:23.736790 19372 net.cpp:141] Setting up inception_4b/pool
I0403 16:49:23.736814 19372 net.cpp:148] Top shape: 24 512 14 14 (2408448)
I0403 16:49:23.736826 19372 net.cpp:156] Memory required for data: 977814816
I0403 16:49:23.736840 19372 layer_factory.hpp:77] Creating layer inception_4b/pool_proj
I0403 16:49:23.736860 19372 net.cpp:91] Creating Layer inception_4b/pool_proj
I0403 16:49:23.736889 19372 net.cpp:425] inception_4b/pool_proj <- inception_4b/pool
I0403 16:49:23.736908 19372 net.cpp:399] inception_4b/pool_proj -> inception_4b/pool_proj
I0403 16:49:23.738044 19372 net.cpp:141] Setting up inception_4b/pool_proj
I0403 16:49:23.738070 19372 net.cpp:148] Top shape: 24 64 14 14 (301056)
I0403 16:49:23.738085 19372 net.cpp:156] Memory required for data: 979019040
I0403 16:49:23.738101 19372 layer_factory.hpp:77] Creating layer inception_4b/relu_pool_proj
I0403 16:49:23.738121 19372 net.cpp:91] Creating Layer inception_4b/relu_pool_proj
I0403 16:49:23.738137 19372 net.cpp:425] inception_4b/relu_pool_proj <- inception_4b/pool_proj
I0403 16:49:23.738153 19372 net.cpp:386] inception_4b/relu_pool_proj -> inception_4b/pool_proj (in-place)
I0403 16:49:23.738327 19372 net.cpp:141] Setting up inception_4b/relu_pool_proj
I0403 16:49:23.738351 19372 net.cpp:148] Top shape: 24 64 14 14 (301056)
I0403 16:49:23.738365 19372 net.cpp:156] Memory required for data: 980223264
I0403 16:49:23.738379 19372 layer_factory.hpp:77] Creating layer inception_4b/output
I0403 16:49:23.738395 19372 net.cpp:91] Creating Layer inception_4b/output
I0403 16:49:23.738409 19372 net.cpp:425] inception_4b/output <- inception_4b/1x1
I0403 16:49:23.738425 19372 net.cpp:425] inception_4b/output <- inception_4b/3x3
I0403 16:49:23.738438 19372 net.cpp:425] inception_4b/output <- inception_4b/5x5
I0403 16:49:23.738452 19372 net.cpp:425] inception_4b/output <- inception_4b/pool_proj
I0403 16:49:23.738468 19372 net.cpp:399] inception_4b/output -> inception_4b/output
I0403 16:49:23.738512 19372 net.cpp:141] Setting up inception_4b/output
I0403 16:49:23.738533 19372 net.cpp:148] Top shape: 24 512 14 14 (2408448)
I0403 16:49:23.738548 19372 net.cpp:156] Memory required for data: 989857056
I0403 16:49:23.738577 19372 layer_factory.hpp:77] Creating layer inception_4b/output_inception_4b/output_0_split
I0403 16:49:23.738595 19372 net.cpp:91] Creating Layer inception_4b/output_inception_4b/output_0_split
I0403 16:49:23.738608 19372 net.cpp:425] inception_4b/output_inception_4b/output_0_split <- inception_4b/output
I0403 16:49:23.738626 19372 net.cpp:399] inception_4b/output_inception_4b/output_0_split -> inception_4b/output_inception_4b/output_0_split_0
I0403 16:49:23.738646 19372 net.cpp:399] inception_4b/output_inception_4b/output_0_split -> inception_4b/output_inception_4b/output_0_split_1
I0403 16:49:23.738665 19372 net.cpp:399] inception_4b/output_inception_4b/output_0_split -> inception_4b/output_inception_4b/output_0_split_2
I0403 16:49:23.738685 19372 net.cpp:399] inception_4b/output_inception_4b/output_0_split -> inception_4b/output_inception_4b/output_0_split_3
I0403 16:49:23.738765 19372 net.cpp:141] Setting up inception_4b/output_inception_4b/output_0_split
I0403 16:49:23.738787 19372 net.cpp:148] Top shape: 24 512 14 14 (2408448)
I0403 16:49:23.738802 19372 net.cpp:148] Top shape: 24 512 14 14 (2408448)
I0403 16:49:23.738816 19372 net.cpp:148] Top shape: 24 512 14 14 (2408448)
I0403 16:49:23.738831 19372 net.cpp:148] Top shape: 24 512 14 14 (2408448)
I0403 16:49:23.738843 19372 net.cpp:156] Memory required for data: 1028392224
I0403 16:49:23.738855 19372 layer_factory.hpp:77] Creating layer inception_4c/1x1
I0403 16:49:23.738876 19372 net.cpp:91] Creating Layer inception_4c/1x1
I0403 16:49:23.738893 19372 net.cpp:425] inception_4c/1x1 <- inception_4b/output_inception_4b/output_0_split_0
I0403 16:49:23.738910 19372 net.cpp:399] inception_4c/1x1 -> inception_4c/1x1
I0403 16:49:23.740262 19372 net.cpp:141] Setting up inception_4c/1x1
I0403 16:49:23.740290 19372 net.cpp:148] Top shape: 24 128 14 14 (602112)
I0403 16:49:23.740306 19372 net.cpp:156] Memory required for data: 1030800672
I0403 16:49:23.740322 19372 layer_factory.hpp:77] Creating layer inception_4c/relu_1x1
I0403 16:49:23.740339 19372 net.cpp:91] Creating Layer inception_4c/relu_1x1
I0403 16:49:23.740353 19372 net.cpp:425] inception_4c/relu_1x1 <- inception_4c/1x1
I0403 16:49:23.740371 19372 net.cpp:386] inception_4c/relu_1x1 -> inception_4c/1x1 (in-place)
I0403 16:49:23.740540 19372 net.cpp:141] Setting up inception_4c/relu_1x1
I0403 16:49:23.740563 19372 net.cpp:148] Top shape: 24 128 14 14 (602112)
I0403 16:49:23.740594 19372 net.cpp:156] Memory required for data: 1033209120
I0403 16:49:23.740609 19372 layer_factory.hpp:77] Creating layer inception_4c/3x3_reduce
I0403 16:49:23.740630 19372 net.cpp:91] Creating Layer inception_4c/3x3_reduce
I0403 16:49:23.740648 19372 net.cpp:425] inception_4c/3x3_reduce <- inception_4b/output_inception_4b/output_0_split_1
I0403 16:49:23.740667 19372 net.cpp:399] inception_4c/3x3_reduce -> inception_4c/3x3_reduce
I0403 16:49:23.742522 19372 net.cpp:141] Setting up inception_4c/3x3_reduce
I0403 16:49:23.742549 19372 net.cpp:148] Top shape: 24 128 14 14 (602112)
I0403 16:49:23.742563 19372 net.cpp:156] Memory required for data: 1035617568
I0403 16:49:23.742585 19372 layer_factory.hpp:77] Creating layer inception_4c/relu_3x3_reduce
I0403 16:49:23.742605 19372 net.cpp:91] Creating Layer inception_4c/relu_3x3_reduce
I0403 16:49:23.742620 19372 net.cpp:425] inception_4c/relu_3x3_reduce <- inception_4c/3x3_reduce
I0403 16:49:23.742636 19372 net.cpp:386] inception_4c/relu_3x3_reduce -> inception_4c/3x3_reduce (in-place)
I0403 16:49:23.742905 19372 net.cpp:141] Setting up inception_4c/relu_3x3_reduce
I0403 16:49:23.742929 19372 net.cpp:148] Top shape: 24 128 14 14 (602112)
I0403 16:49:23.742944 19372 net.cpp:156] Memory required for data: 1038026016
I0403 16:49:23.742959 19372 layer_factory.hpp:77] Creating layer inception_4c/3x3
I0403 16:49:23.742980 19372 net.cpp:91] Creating Layer inception_4c/3x3
I0403 16:49:23.742995 19372 net.cpp:425] inception_4c/3x3 <- inception_4c/3x3_reduce
I0403 16:49:23.743016 19372 net.cpp:399] inception_4c/3x3 -> inception_4c/3x3
I0403 16:49:23.746573 19372 net.cpp:141] Setting up inception_4c/3x3
I0403 16:49:23.746614 19372 net.cpp:148] Top shape: 24 256 14 14 (1204224)
I0403 16:49:23.746630 19372 net.cpp:156] Memory required for data: 1042842912
I0403 16:49:23.746660 19372 layer_factory.hpp:77] Creating layer inception_4c/relu_3x3
I0403 16:49:23.746681 19372 net.cpp:91] Creating Layer inception_4c/relu_3x3
I0403 16:49:23.746697 19372 net.cpp:425] inception_4c/relu_3x3 <- inception_4c/3x3
I0403 16:49:23.746714 19372 net.cpp:386] inception_4c/relu_3x3 -> inception_4c/3x3 (in-place)
I0403 16:49:23.746889 19372 net.cpp:141] Setting up inception_4c/relu_3x3
I0403 16:49:23.746913 19372 net.cpp:148] Top shape: 24 256 14 14 (1204224)
I0403 16:49:23.746927 19372 net.cpp:156] Memory required for data: 1047659808
I0403 16:49:23.746942 19372 layer_factory.hpp:77] Creating layer inception_4c/5x5_reduce
I0403 16:49:23.746963 19372 net.cpp:91] Creating Layer inception_4c/5x5_reduce
I0403 16:49:23.746979 19372 net.cpp:425] inception_4c/5x5_reduce <- inception_4b/output_inception_4b/output_0_split_2
I0403 16:49:23.747000 19372 net.cpp:399] inception_4c/5x5_reduce -> inception_4c/5x5_reduce
I0403 16:49:23.748069 19372 net.cpp:141] Setting up inception_4c/5x5_reduce
I0403 16:49:23.748095 19372 net.cpp:148] Top shape: 24 24 14 14 (112896)
I0403 16:49:23.748109 19372 net.cpp:156] Memory required for data: 1048111392
I0403 16:49:23.748126 19372 layer_factory.hpp:77] Creating layer inception_4c/relu_5x5_reduce
I0403 16:49:23.748147 19372 net.cpp:91] Creating Layer inception_4c/relu_5x5_reduce
I0403 16:49:23.748162 19372 net.cpp:425] inception_4c/relu_5x5_reduce <- inception_4c/5x5_reduce
I0403 16:49:23.748178 19372 net.cpp:386] inception_4c/relu_5x5_reduce -> inception_4c/5x5_reduce (in-place)
I0403 16:49:23.748358 19372 net.cpp:141] Setting up inception_4c/relu_5x5_reduce
I0403 16:49:23.748383 19372 net.cpp:148] Top shape: 24 24 14 14 (112896)
I0403 16:49:23.748399 19372 net.cpp:156] Memory required for data: 1048562976
I0403 16:49:23.748411 19372 layer_factory.hpp:77] Creating layer inception_4c/5x5
I0403 16:49:23.748432 19372 net.cpp:91] Creating Layer inception_4c/5x5
I0403 16:49:23.748450 19372 net.cpp:425] inception_4c/5x5 <- inception_4c/5x5_reduce
I0403 16:49:23.748466 19372 net.cpp:399] inception_4c/5x5 -> inception_4c/5x5
I0403 16:49:23.749721 19372 net.cpp:141] Setting up inception_4c/5x5
I0403 16:49:23.749749 19372 net.cpp:148] Top shape: 24 64 14 14 (301056)
I0403 16:49:23.749764 19372 net.cpp:156] Memory required for data: 1049767200
I0403 16:49:23.749781 19372 layer_factory.hpp:77] Creating layer inception_4c/relu_5x5
I0403 16:49:23.749799 19372 net.cpp:91] Creating Layer inception_4c/relu_5x5
I0403 16:49:23.749814 19372 net.cpp:425] inception_4c/relu_5x5 <- inception_4c/5x5
I0403 16:49:23.749831 19372 net.cpp:386] inception_4c/relu_5x5 -> inception_4c/5x5 (in-place)
I0403 16:49:23.750110 19372 net.cpp:141] Setting up inception_4c/relu_5x5
I0403 16:49:23.750138 19372 net.cpp:148] Top shape: 24 64 14 14 (301056)
I0403 16:49:23.750152 19372 net.cpp:156] Memory required for data: 1050971424
I0403 16:49:23.750166 19372 layer_factory.hpp:77] Creating layer inception_4c/pool
I0403 16:49:23.750183 19372 net.cpp:91] Creating Layer inception_4c/pool
I0403 16:49:23.750198 19372 net.cpp:425] inception_4c/pool <- inception_4b/output_inception_4b/output_0_split_3
I0403 16:49:23.750217 19372 net.cpp:399] inception_4c/pool -> inception_4c/pool
I0403 16:49:23.750280 19372 net.cpp:141] Setting up inception_4c/pool
I0403 16:49:23.750303 19372 net.cpp:148] Top shape: 24 512 14 14 (2408448)
I0403 16:49:23.750316 19372 net.cpp:156] Memory required for data: 1060605216
I0403 16:49:23.750330 19372 layer_factory.hpp:77] Creating layer inception_4c/pool_proj
I0403 16:49:23.750351 19372 net.cpp:91] Creating Layer inception_4c/pool_proj
I0403 16:49:23.750367 19372 net.cpp:425] inception_4c/pool_proj <- inception_4c/pool
I0403 16:49:23.750386 19372 net.cpp:399] inception_4c/pool_proj -> inception_4c/pool_proj
I0403 16:49:23.751642 19372 net.cpp:141] Setting up inception_4c/pool_proj
I0403 16:49:23.751669 19372 net.cpp:148] Top shape: 24 64 14 14 (301056)
I0403 16:49:23.751696 19372 net.cpp:156] Memory required for data: 1061809440
I0403 16:49:23.751715 19372 layer_factory.hpp:77] Creating layer inception_4c/relu_pool_proj
I0403 16:49:23.751736 19372 net.cpp:91] Creating Layer inception_4c/relu_pool_proj
I0403 16:49:23.751752 19372 net.cpp:425] inception_4c/relu_pool_proj <- inception_4c/pool_proj
I0403 16:49:23.751768 19372 net.cpp:386] inception_4c/relu_pool_proj -> inception_4c/pool_proj (in-place)
I0403 16:49:23.751947 19372 net.cpp:141] Setting up inception_4c/relu_pool_proj
I0403 16:49:23.751973 19372 net.cpp:148] Top shape: 24 64 14 14 (301056)
I0403 16:49:23.751988 19372 net.cpp:156] Memory required for data: 1063013664
I0403 16:49:23.752002 19372 layer_factory.hpp:77] Creating layer inception_4c/output
I0403 16:49:23.752017 19372 net.cpp:91] Creating Layer inception_4c/output
I0403 16:49:23.752032 19372 net.cpp:425] inception_4c/output <- inception_4c/1x1
I0403 16:49:23.752046 19372 net.cpp:425] inception_4c/output <- inception_4c/3x3
I0403 16:49:23.752061 19372 net.cpp:425] inception_4c/output <- inception_4c/5x5
I0403 16:49:23.752076 19372 net.cpp:425] inception_4c/output <- inception_4c/pool_proj
I0403 16:49:23.752091 19372 net.cpp:399] inception_4c/output -> inception_4c/output
I0403 16:49:23.752137 19372 net.cpp:141] Setting up inception_4c/output
I0403 16:49:23.752159 19372 net.cpp:148] Top shape: 24 512 14 14 (2408448)
I0403 16:49:23.752173 19372 net.cpp:156] Memory required for data: 1072647456
I0403 16:49:23.752187 19372 layer_factory.hpp:77] Creating layer inception_4c/output_inception_4c/output_0_split
I0403 16:49:23.752202 19372 net.cpp:91] Creating Layer inception_4c/output_inception_4c/output_0_split
I0403 16:49:23.752216 19372 net.cpp:425] inception_4c/output_inception_4c/output_0_split <- inception_4c/output
I0403 16:49:23.752235 19372 net.cpp:399] inception_4c/output_inception_4c/output_0_split -> inception_4c/output_inception_4c/output_0_split_0
I0403 16:49:23.752254 19372 net.cpp:399] inception_4c/output_inception_4c/output_0_split -> inception_4c/output_inception_4c/output_0_split_1
I0403 16:49:23.752274 19372 net.cpp:399] inception_4c/output_inception_4c/output_0_split -> inception_4c/output_inception_4c/output_0_split_2
I0403 16:49:23.752293 19372 net.cpp:399] inception_4c/output_inception_4c/output_0_split -> inception_4c/output_inception_4c/output_0_split_3
I0403 16:49:23.752380 19372 net.cpp:141] Setting up inception_4c/output_inception_4c/output_0_split
I0403 16:49:23.752403 19372 net.cpp:148] Top shape: 24 512 14 14 (2408448)
I0403 16:49:23.752418 19372 net.cpp:148] Top shape: 24 512 14 14 (2408448)
I0403 16:49:23.752434 19372 net.cpp:148] Top shape: 24 512 14 14 (2408448)
I0403 16:49:23.752447 19372 net.cpp:148] Top shape: 24 512 14 14 (2408448)
I0403 16:49:23.752460 19372 net.cpp:156] Memory required for data: 1111182624
I0403 16:49:23.752473 19372 layer_factory.hpp:77] Creating layer inception_4d/1x1
I0403 16:49:23.752495 19372 net.cpp:91] Creating Layer inception_4d/1x1
I0403 16:49:23.752511 19372 net.cpp:425] inception_4d/1x1 <- inception_4c/output_inception_4c/output_0_split_0
I0403 16:49:23.752531 19372 net.cpp:399] inception_4d/1x1 -> inception_4d/1x1
I0403 16:49:23.753904 19372 net.cpp:141] Setting up inception_4d/1x1
I0403 16:49:23.753931 19372 net.cpp:148] Top shape: 24 112 14 14 (526848)
I0403 16:49:23.753945 19372 net.cpp:156] Memory required for data: 1113290016
I0403 16:49:23.753962 19372 layer_factory.hpp:77] Creating layer inception_4d/relu_1x1
I0403 16:49:23.753979 19372 net.cpp:91] Creating Layer inception_4d/relu_1x1
I0403 16:49:23.753994 19372 net.cpp:425] inception_4d/relu_1x1 <- inception_4d/1x1
I0403 16:49:23.754012 19372 net.cpp:386] inception_4d/relu_1x1 -> inception_4d/1x1 (in-place)
I0403 16:49:23.754190 19372 net.cpp:141] Setting up inception_4d/relu_1x1
I0403 16:49:23.754215 19372 net.cpp:148] Top shape: 24 112 14 14 (526848)
I0403 16:49:23.754227 19372 net.cpp:156] Memory required for data: 1115397408
I0403 16:49:23.754241 19372 layer_factory.hpp:77] Creating layer inception_4d/3x3_reduce
I0403 16:49:23.754277 19372 net.cpp:91] Creating Layer inception_4d/3x3_reduce
I0403 16:49:23.754295 19372 net.cpp:425] inception_4d/3x3_reduce <- inception_4c/output_inception_4c/output_0_split_1
I0403 16:49:23.754314 19372 net.cpp:399] inception_4d/3x3_reduce -> inception_4d/3x3_reduce
I0403 16:49:23.755791 19372 net.cpp:141] Setting up inception_4d/3x3_reduce
I0403 16:49:23.755820 19372 net.cpp:148] Top shape: 24 144 14 14 (677376)
I0403 16:49:23.755836 19372 net.cpp:156] Memory required for data: 1118106912
I0403 16:49:23.755853 19372 layer_factory.hpp:77] Creating layer inception_4d/relu_3x3_reduce
I0403 16:49:23.755870 19372 net.cpp:91] Creating Layer inception_4d/relu_3x3_reduce
I0403 16:49:23.755885 19372 net.cpp:425] inception_4d/relu_3x3_reduce <- inception_4d/3x3_reduce
I0403 16:49:23.755902 19372 net.cpp:386] inception_4d/relu_3x3_reduce -> inception_4d/3x3_reduce (in-place)
I0403 16:49:23.756183 19372 net.cpp:141] Setting up inception_4d/relu_3x3_reduce
I0403 16:49:23.756211 19372 net.cpp:148] Top shape: 24 144 14 14 (677376)
I0403 16:49:23.756227 19372 net.cpp:156] Memory required for data: 1120816416
I0403 16:49:23.756240 19372 layer_factory.hpp:77] Creating layer inception_4d/3x3
I0403 16:49:23.756261 19372 net.cpp:91] Creating Layer inception_4d/3x3
I0403 16:49:23.756278 19372 net.cpp:425] inception_4d/3x3 <- inception_4d/3x3_reduce
I0403 16:49:23.756296 19372 net.cpp:399] inception_4d/3x3 -> inception_4d/3x3
I0403 16:49:23.760499 19372 net.cpp:141] Setting up inception_4d/3x3
I0403 16:49:23.760527 19372 net.cpp:148] Top shape: 24 288 14 14 (1354752)
I0403 16:49:23.760542 19372 net.cpp:156] Memory required for data: 1126235424
I0403 16:49:23.760560 19372 layer_factory.hpp:77] Creating layer inception_4d/relu_3x3
I0403 16:49:23.760594 19372 net.cpp:91] Creating Layer inception_4d/relu_3x3
I0403 16:49:23.760612 19372 net.cpp:425] inception_4d/relu_3x3 <- inception_4d/3x3
I0403 16:49:23.760630 19372 net.cpp:386] inception_4d/relu_3x3 -> inception_4d/3x3 (in-place)
I0403 16:49:23.760812 19372 net.cpp:141] Setting up inception_4d/relu_3x3
I0403 16:49:23.760838 19372 net.cpp:148] Top shape: 24 288 14 14 (1354752)
I0403 16:49:23.760853 19372 net.cpp:156] Memory required for data: 1131654432
I0403 16:49:23.760879 19372 layer_factory.hpp:77] Creating layer inception_4d/5x5_reduce
I0403 16:49:23.760900 19372 net.cpp:91] Creating Layer inception_4d/5x5_reduce
I0403 16:49:23.760916 19372 net.cpp:425] inception_4d/5x5_reduce <- inception_4c/output_inception_4c/output_0_split_2
I0403 16:49:23.760936 19372 net.cpp:399] inception_4d/5x5_reduce -> inception_4d/5x5_reduce
I0403 16:49:23.762049 19372 net.cpp:141] Setting up inception_4d/5x5_reduce
I0403 16:49:23.762075 19372 net.cpp:148] Top shape: 24 32 14 14 (150528)
I0403 16:49:23.762089 19372 net.cpp:156] Memory required for data: 1132256544
I0403 16:49:23.762106 19372 layer_factory.hpp:77] Creating layer inception_4d/relu_5x5_reduce
I0403 16:49:23.762122 19372 net.cpp:91] Creating Layer inception_4d/relu_5x5_reduce
I0403 16:49:23.762140 19372 net.cpp:425] inception_4d/relu_5x5_reduce <- inception_4d/5x5_reduce
I0403 16:49:23.762156 19372 net.cpp:386] inception_4d/relu_5x5_reduce -> inception_4d/5x5_reduce (in-place)
I0403 16:49:23.762329 19372 net.cpp:141] Setting up inception_4d/relu_5x5_reduce
I0403 16:49:23.762352 19372 net.cpp:148] Top shape: 24 32 14 14 (150528)
I0403 16:49:23.762367 19372 net.cpp:156] Memory required for data: 1132858656
I0403 16:49:23.762380 19372 layer_factory.hpp:77] Creating layer inception_4d/5x5
I0403 16:49:23.762400 19372 net.cpp:91] Creating Layer inception_4d/5x5
I0403 16:49:23.762416 19372 net.cpp:425] inception_4d/5x5 <- inception_4d/5x5_reduce
I0403 16:49:23.762436 19372 net.cpp:399] inception_4d/5x5 -> inception_4d/5x5
I0403 16:49:23.763839 19372 net.cpp:141] Setting up inception_4d/5x5
I0403 16:49:23.763865 19372 net.cpp:148] Top shape: 24 64 14 14 (301056)
I0403 16:49:23.763880 19372 net.cpp:156] Memory required for data: 1134062880
I0403 16:49:23.763896 19372 layer_factory.hpp:77] Creating layer inception_4d/relu_5x5
I0403 16:49:23.763933 19372 net.cpp:91] Creating Layer inception_4d/relu_5x5
I0403 16:49:23.763950 19372 net.cpp:425] inception_4d/relu_5x5 <- inception_4d/5x5
I0403 16:49:23.763967 19372 net.cpp:386] inception_4d/relu_5x5 -> inception_4d/5x5 (in-place)
I0403 16:49:23.764256 19372 net.cpp:141] Setting up inception_4d/relu_5x5
I0403 16:49:23.764281 19372 net.cpp:148] Top shape: 24 64 14 14 (301056)
I0403 16:49:23.764295 19372 net.cpp:156] Memory required for data: 1135267104
I0403 16:49:23.764309 19372 layer_factory.hpp:77] Creating layer inception_4d/pool
I0403 16:49:23.764328 19372 net.cpp:91] Creating Layer inception_4d/pool
I0403 16:49:23.764343 19372 net.cpp:425] inception_4d/pool <- inception_4c/output_inception_4c/output_0_split_3
I0403 16:49:23.764360 19372 net.cpp:399] inception_4d/pool -> inception_4d/pool
I0403 16:49:23.764423 19372 net.cpp:141] Setting up inception_4d/pool
I0403 16:49:23.764446 19372 net.cpp:148] Top shape: 24 512 14 14 (2408448)
I0403 16:49:23.764458 19372 net.cpp:156] Memory required for data: 1144900896
I0403 16:49:23.764472 19372 layer_factory.hpp:77] Creating layer inception_4d/pool_proj
I0403 16:49:23.764492 19372 net.cpp:91] Creating Layer inception_4d/pool_proj
I0403 16:49:23.764508 19372 net.cpp:425] inception_4d/pool_proj <- inception_4d/pool
I0403 16:49:23.764528 19372 net.cpp:399] inception_4d/pool_proj -> inception_4d/pool_proj
I0403 16:49:23.766250 19372 net.cpp:141] Setting up inception_4d/pool_proj
I0403 16:49:23.766278 19372 net.cpp:148] Top shape: 24 64 14 14 (301056)
I0403 16:49:23.766294 19372 net.cpp:156] Memory required for data: 1146105120
I0403 16:49:23.766310 19372 layer_factory.hpp:77] Creating layer inception_4d/relu_pool_proj
I0403 16:49:23.766326 19372 net.cpp:91] Creating Layer inception_4d/relu_pool_proj
I0403 16:49:23.766341 19372 net.cpp:425] inception_4d/relu_pool_proj <- inception_4d/pool_proj
I0403 16:49:23.766358 19372 net.cpp:386] inception_4d/relu_pool_proj -> inception_4d/pool_proj (in-place)
I0403 16:49:23.766537 19372 net.cpp:141] Setting up inception_4d/relu_pool_proj
I0403 16:49:23.766561 19372 net.cpp:148] Top shape: 24 64 14 14 (301056)
I0403 16:49:23.766578 19372 net.cpp:156] Memory required for data: 1147309344
I0403 16:49:23.766593 19372 layer_factory.hpp:77] Creating layer inception_4d/output
I0403 16:49:23.766612 19372 net.cpp:91] Creating Layer inception_4d/output
I0403 16:49:23.766628 19372 net.cpp:425] inception_4d/output <- inception_4d/1x1
I0403 16:49:23.766641 19372 net.cpp:425] inception_4d/output <- inception_4d/3x3
I0403 16:49:23.766656 19372 net.cpp:425] inception_4d/output <- inception_4d/5x5
I0403 16:49:23.766670 19372 net.cpp:425] inception_4d/output <- inception_4d/pool_proj
I0403 16:49:23.766686 19372 net.cpp:399] inception_4d/output -> inception_4d/output
I0403 16:49:23.766731 19372 net.cpp:141] Setting up inception_4d/output
I0403 16:49:23.766753 19372 net.cpp:148] Top shape: 24 528 14 14 (2483712)
I0403 16:49:23.766767 19372 net.cpp:156] Memory required for data: 1157244192
I0403 16:49:23.766779 19372 layer_factory.hpp:77] Creating layer inception_4d/output_inception_4d/output_0_split
I0403 16:49:23.766795 19372 net.cpp:91] Creating Layer inception_4d/output_inception_4d/output_0_split
I0403 16:49:23.766809 19372 net.cpp:425] inception_4d/output_inception_4d/output_0_split <- inception_4d/output
I0403 16:49:23.766826 19372 net.cpp:399] inception_4d/output_inception_4d/output_0_split -> inception_4d/output_inception_4d/output_0_split_0
I0403 16:49:23.766846 19372 net.cpp:399] inception_4d/output_inception_4d/output_0_split -> inception_4d/output_inception_4d/output_0_split_1
I0403 16:49:23.766866 19372 net.cpp:399] inception_4d/output_inception_4d/output_0_split -> inception_4d/output_inception_4d/output_0_split_2
I0403 16:49:23.766885 19372 net.cpp:399] inception_4d/output_inception_4d/output_0_split -> inception_4d/output_inception_4d/output_0_split_3
I0403 16:49:23.766903 19372 net.cpp:399] inception_4d/output_inception_4d/output_0_split -> inception_4d/output_inception_4d/output_0_split_4
I0403 16:49:23.767000 19372 net.cpp:141] Setting up inception_4d/output_inception_4d/output_0_split
I0403 16:49:23.767033 19372 net.cpp:148] Top shape: 24 528 14 14 (2483712)
I0403 16:49:23.767051 19372 net.cpp:148] Top shape: 24 528 14 14 (2483712)
I0403 16:49:23.767067 19372 net.cpp:148] Top shape: 24 528 14 14 (2483712)
I0403 16:49:23.767081 19372 net.cpp:148] Top shape: 24 528 14 14 (2483712)
I0403 16:49:23.767096 19372 net.cpp:148] Top shape: 24 528 14 14 (2483712)
I0403 16:49:23.767108 19372 net.cpp:156] Memory required for data: 1206918432
I0403 16:49:23.767122 19372 layer_factory.hpp:77] Creating layer loss2/ave_pool
I0403 16:49:23.767138 19372 net.cpp:91] Creating Layer loss2/ave_pool
I0403 16:49:23.767153 19372 net.cpp:425] loss2/ave_pool <- inception_4d/output_inception_4d/output_0_split_0
I0403 16:49:23.767171 19372 net.cpp:399] loss2/ave_pool -> loss2/ave_pool
I0403 16:49:23.767467 19372 net.cpp:141] Setting up loss2/ave_pool
I0403 16:49:23.767493 19372 net.cpp:148] Top shape: 24 528 4 4 (202752)
I0403 16:49:23.767506 19372 net.cpp:156] Memory required for data: 1207729440
I0403 16:49:23.767520 19372 layer_factory.hpp:77] Creating layer loss2/conv
I0403 16:49:23.767540 19372 net.cpp:91] Creating Layer loss2/conv
I0403 16:49:23.767557 19372 net.cpp:425] loss2/conv <- loss2/ave_pool
I0403 16:49:23.767580 19372 net.cpp:399] loss2/conv -> loss2/conv
I0403 16:49:23.769412 19372 net.cpp:141] Setting up loss2/conv
I0403 16:49:23.769438 19372 net.cpp:148] Top shape: 24 128 4 4 (49152)
I0403 16:49:23.769456 19372 net.cpp:156] Memory required for data: 1207926048
I0403 16:49:23.769472 19372 layer_factory.hpp:77] Creating layer loss2/relu_conv
I0403 16:49:23.769490 19372 net.cpp:91] Creating Layer loss2/relu_conv
I0403 16:49:23.769505 19372 net.cpp:425] loss2/relu_conv <- loss2/conv
I0403 16:49:23.769520 19372 net.cpp:386] loss2/relu_conv -> loss2/conv (in-place)
I0403 16:49:23.769798 19372 net.cpp:141] Setting up loss2/relu_conv
I0403 16:49:23.769822 19372 net.cpp:148] Top shape: 24 128 4 4 (49152)
I0403 16:49:23.769840 19372 net.cpp:156] Memory required for data: 1208122656
I0403 16:49:23.769852 19372 layer_factory.hpp:77] Creating layer loss2/fc
I0403 16:49:23.769870 19372 net.cpp:91] Creating Layer loss2/fc
I0403 16:49:23.769884 19372 net.cpp:425] loss2/fc <- loss2/conv
I0403 16:49:23.769903 19372 net.cpp:399] loss2/fc -> loss2/fc
I0403 16:49:23.786815 19372 net.cpp:141] Setting up loss2/fc
I0403 16:49:23.786846 19372 net.cpp:148] Top shape: 24 1024 (24576)
I0403 16:49:23.786860 19372 net.cpp:156] Memory required for data: 1208220960
I0403 16:49:23.786877 19372 layer_factory.hpp:77] Creating layer loss2/relu_fc
I0403 16:49:23.786895 19372 net.cpp:91] Creating Layer loss2/relu_fc
I0403 16:49:23.786912 19372 net.cpp:425] loss2/relu_fc <- loss2/fc
I0403 16:49:23.786928 19372 net.cpp:386] loss2/relu_fc -> loss2/fc (in-place)
I0403 16:49:23.787209 19372 net.cpp:141] Setting up loss2/relu_fc
I0403 16:49:23.787232 19372 net.cpp:148] Top shape: 24 1024 (24576)
I0403 16:49:23.787246 19372 net.cpp:156] Memory required for data: 1208319264
I0403 16:49:23.787261 19372 layer_factory.hpp:77] Creating layer loss2/drop_fc
I0403 16:49:23.787278 19372 net.cpp:91] Creating Layer loss2/drop_fc
I0403 16:49:23.787297 19372 net.cpp:425] loss2/drop_fc <- loss2/fc
I0403 16:49:23.787312 19372 net.cpp:386] loss2/drop_fc -> loss2/fc (in-place)
I0403 16:49:23.787358 19372 net.cpp:141] Setting up loss2/drop_fc
I0403 16:49:23.787381 19372 net.cpp:148] Top shape: 24 1024 (24576)
I0403 16:49:23.787395 19372 net.cpp:156] Memory required for data: 1208417568
I0403 16:49:23.787410 19372 layer_factory.hpp:77] Creating layer loss2/classifier_plantvillage
I0403 16:49:23.787425 19372 net.cpp:91] Creating Layer loss2/classifier_plantvillage
I0403 16:49:23.787439 19372 net.cpp:425] loss2/classifier_plantvillage <- loss2/fc
I0403 16:49:23.787458 19372 net.cpp:399] loss2/classifier_plantvillage -> loss2/classifier_plantvillage
I0403 16:49:23.787842 19372 net.cpp:141] Setting up loss2/classifier_plantvillage
I0403 16:49:23.787866 19372 net.cpp:148] Top shape: 24 38 (912)
I0403 16:49:23.787896 19372 net.cpp:156] Memory required for data: 1208421216
I0403 16:49:23.787914 19372 layer_factory.hpp:77] Creating layer loss2/classifier_plantvillage_loss2/classifier_plantvillage_0_split
I0403 16:49:23.787931 19372 net.cpp:91] Creating Layer loss2/classifier_plantvillage_loss2/classifier_plantvillage_0_split
I0403 16:49:23.787945 19372 net.cpp:425] loss2/classifier_plantvillage_loss2/classifier_plantvillage_0_split <- loss2/classifier_plantvillage
I0403 16:49:23.787961 19372 net.cpp:399] loss2/classifier_plantvillage_loss2/classifier_plantvillage_0_split -> loss2/classifier_plantvillage_loss2/classifier_plantvillage_0_split_0
I0403 16:49:23.787979 19372 net.cpp:399] loss2/classifier_plantvillage_loss2/classifier_plantvillage_0_split -> loss2/classifier_plantvillage_loss2/classifier_plantvillage_0_split_1
I0403 16:49:23.788002 19372 net.cpp:399] loss2/classifier_plantvillage_loss2/classifier_plantvillage_0_split -> loss2/classifier_plantvillage_loss2/classifier_plantvillage_0_split_2
I0403 16:49:23.788079 19372 net.cpp:141] Setting up loss2/classifier_plantvillage_loss2/classifier_plantvillage_0_split
I0403 16:49:23.788100 19372 net.cpp:148] Top shape: 24 38 (912)
I0403 16:49:23.788115 19372 net.cpp:148] Top shape: 24 38 (912)
I0403 16:49:23.788130 19372 net.cpp:148] Top shape: 24 38 (912)
I0403 16:49:23.788141 19372 net.cpp:156] Memory required for data: 1208432160
I0403 16:49:23.788156 19372 layer_factory.hpp:77] Creating layer inception_4e/1x1
I0403 16:49:23.788175 19372 net.cpp:91] Creating Layer inception_4e/1x1
I0403 16:49:23.788192 19372 net.cpp:425] inception_4e/1x1 <- inception_4d/output_inception_4d/output_0_split_1
I0403 16:49:23.788211 19372 net.cpp:399] inception_4e/1x1 -> inception_4e/1x1
I0403 16:49:23.789958 19372 net.cpp:141] Setting up inception_4e/1x1
I0403 16:49:23.789983 19372 net.cpp:148] Top shape: 24 256 14 14 (1204224)
I0403 16:49:23.789999 19372 net.cpp:156] Memory required for data: 1213249056
I0403 16:49:23.790014 19372 layer_factory.hpp:77] Creating layer inception_4e/relu_1x1
I0403 16:49:23.790033 19372 net.cpp:91] Creating Layer inception_4e/relu_1x1
I0403 16:49:23.790048 19372 net.cpp:425] inception_4e/relu_1x1 <- inception_4e/1x1
I0403 16:49:23.790065 19372 net.cpp:386] inception_4e/relu_1x1 -> inception_4e/1x1 (in-place)
I0403 16:49:23.790343 19372 net.cpp:141] Setting up inception_4e/relu_1x1
I0403 16:49:23.790367 19372 net.cpp:148] Top shape: 24 256 14 14 (1204224)
I0403 16:49:23.790381 19372 net.cpp:156] Memory required for data: 1218065952
I0403 16:49:23.790395 19372 layer_factory.hpp:77] Creating layer inception_4e/3x3_reduce
I0403 16:49:23.790416 19372 net.cpp:91] Creating Layer inception_4e/3x3_reduce
I0403 16:49:23.790432 19372 net.cpp:425] inception_4e/3x3_reduce <- inception_4d/output_inception_4d/output_0_split_2
I0403 16:49:23.790449 19372 net.cpp:399] inception_4e/3x3_reduce -> inception_4e/3x3_reduce
I0403 16:49:23.792474 19372 net.cpp:141] Setting up inception_4e/3x3_reduce
I0403 16:49:23.792500 19372 net.cpp:148] Top shape: 24 160 14 14 (752640)
I0403 16:49:23.792515 19372 net.cpp:156] Memory required for data: 1221076512
I0403 16:49:23.792532 19372 layer_factory.hpp:77] Creating layer inception_4e/relu_3x3_reduce
I0403 16:49:23.792551 19372 net.cpp:91] Creating Layer inception_4e/relu_3x3_reduce
I0403 16:49:23.792569 19372 net.cpp:425] inception_4e/relu_3x3_reduce <- inception_4e/3x3_reduce
I0403 16:49:23.792600 19372 net.cpp:386] inception_4e/relu_3x3_reduce -> inception_4e/3x3_reduce (in-place)
I0403 16:49:23.792785 19372 net.cpp:141] Setting up inception_4e/relu_3x3_reduce
I0403 16:49:23.792812 19372 net.cpp:148] Top shape: 24 160 14 14 (752640)
I0403 16:49:23.792826 19372 net.cpp:156] Memory required for data: 1224087072
I0403 16:49:23.792840 19372 layer_factory.hpp:77] Creating layer inception_4e/3x3
I0403 16:49:23.792873 19372 net.cpp:91] Creating Layer inception_4e/3x3
I0403 16:49:23.792889 19372 net.cpp:425] inception_4e/3x3 <- inception_4e/3x3_reduce
I0403 16:49:23.792906 19372 net.cpp:399] inception_4e/3x3 -> inception_4e/3x3
I0403 16:49:23.797693 19372 net.cpp:141] Setting up inception_4e/3x3
I0403 16:49:23.797734 19372 net.cpp:148] Top shape: 24 320 14 14 (1505280)
I0403 16:49:23.797751 19372 net.cpp:156] Memory required for data: 1230108192
I0403 16:49:23.797768 19372 layer_factory.hpp:77] Creating layer inception_4e/relu_3x3
I0403 16:49:23.797785 19372 net.cpp:91] Creating Layer inception_4e/relu_3x3
I0403 16:49:23.797799 19372 net.cpp:425] inception_4e/relu_3x3 <- inception_4e/3x3
I0403 16:49:23.797817 19372 net.cpp:386] inception_4e/relu_3x3 -> inception_4e/3x3 (in-place)
I0403 16:49:23.798105 19372 net.cpp:141] Setting up inception_4e/relu_3x3
I0403 16:49:23.798128 19372 net.cpp:148] Top shape: 24 320 14 14 (1505280)
I0403 16:49:23.798144 19372 net.cpp:156] Memory required for data: 1236129312
I0403 16:49:23.798157 19372 layer_factory.hpp:77] Creating layer inception_4e/5x5_reduce
I0403 16:49:23.798179 19372 net.cpp:91] Creating Layer inception_4e/5x5_reduce
I0403 16:49:23.798195 19372 net.cpp:425] inception_4e/5x5_reduce <- inception_4d/output_inception_4d/output_0_split_3
I0403 16:49:23.798215 19372 net.cpp:399] inception_4e/5x5_reduce -> inception_4e/5x5_reduce
I0403 16:49:23.799268 19372 net.cpp:141] Setting up inception_4e/5x5_reduce
I0403 16:49:23.799295 19372 net.cpp:148] Top shape: 24 32 14 14 (150528)
I0403 16:49:23.799310 19372 net.cpp:156] Memory required for data: 1236731424
I0403 16:49:23.799326 19372 layer_factory.hpp:77] Creating layer inception_4e/relu_5x5_reduce
I0403 16:49:23.799346 19372 net.cpp:91] Creating Layer inception_4e/relu_5x5_reduce
I0403 16:49:23.799362 19372 net.cpp:425] inception_4e/relu_5x5_reduce <- inception_4e/5x5_reduce
I0403 16:49:23.799378 19372 net.cpp:386] inception_4e/relu_5x5_reduce -> inception_4e/5x5_reduce (in-place)
I0403 16:49:23.799671 19372 net.cpp:141] Setting up inception_4e/relu_5x5_reduce
I0403 16:49:23.799696 19372 net.cpp:148] Top shape: 24 32 14 14 (150528)
I0403 16:49:23.799711 19372 net.cpp:156] Memory required for data: 1237333536
I0403 16:49:23.799726 19372 layer_factory.hpp:77] Creating layer inception_4e/5x5
I0403 16:49:23.799762 19372 net.cpp:91] Creating Layer inception_4e/5x5
I0403 16:49:23.799780 19372 net.cpp:425] inception_4e/5x5 <- inception_4e/5x5_reduce
I0403 16:49:23.799799 19372 net.cpp:399] inception_4e/5x5 -> inception_4e/5x5
I0403 16:49:23.801628 19372 net.cpp:141] Setting up inception_4e/5x5
I0403 16:49:23.801654 19372 net.cpp:148] Top shape: 24 128 14 14 (602112)
I0403 16:49:23.801669 19372 net.cpp:156] Memory required for data: 1239741984
I0403 16:49:23.801687 19372 layer_factory.hpp:77] Creating layer inception_4e/relu_5x5
I0403 16:49:23.801707 19372 net.cpp:91] Creating Layer inception_4e/relu_5x5
I0403 16:49:23.801723 19372 net.cpp:425] inception_4e/relu_5x5 <- inception_4e/5x5
I0403 16:49:23.801740 19372 net.cpp:386] inception_4e/relu_5x5 -> inception_4e/5x5 (in-place)
I0403 16:49:23.801934 19372 net.cpp:141] Setting up inception_4e/relu_5x5
I0403 16:49:23.801960 19372 net.cpp:148] Top shape: 24 128 14 14 (602112)
I0403 16:49:23.801975 19372 net.cpp:156] Memory required for data: 1242150432
I0403 16:49:23.801990 19372 layer_factory.hpp:77] Creating layer inception_4e/pool
I0403 16:49:23.802006 19372 net.cpp:91] Creating Layer inception_4e/pool
I0403 16:49:23.802021 19372 net.cpp:425] inception_4e/pool <- inception_4d/output_inception_4d/output_0_split_4
I0403 16:49:23.802037 19372 net.cpp:399] inception_4e/pool -> inception_4e/pool
I0403 16:49:23.802105 19372 net.cpp:141] Setting up inception_4e/pool
I0403 16:49:23.802129 19372 net.cpp:148] Top shape: 24 528 14 14 (2483712)
I0403 16:49:23.802142 19372 net.cpp:156] Memory required for data: 1252085280
I0403 16:49:23.802156 19372 layer_factory.hpp:77] Creating layer inception_4e/pool_proj
I0403 16:49:23.802178 19372 net.cpp:91] Creating Layer inception_4e/pool_proj
I0403 16:49:23.802194 19372 net.cpp:425] inception_4e/pool_proj <- inception_4e/pool
I0403 16:49:23.802213 19372 net.cpp:399] inception_4e/pool_proj -> inception_4e/pool_proj
I0403 16:49:23.803681 19372 net.cpp:141] Setting up inception_4e/pool_proj
I0403 16:49:23.803719 19372 net.cpp:148] Top shape: 24 128 14 14 (602112)
I0403 16:49:23.803735 19372 net.cpp:156] Memory required for data: 1254493728
I0403 16:49:23.803753 19372 layer_factory.hpp:77] Creating layer inception_4e/relu_pool_proj
I0403 16:49:23.803771 19372 net.cpp:91] Creating Layer inception_4e/relu_pool_proj
I0403 16:49:23.803786 19372 net.cpp:425] inception_4e/relu_pool_proj <- inception_4e/pool_proj
I0403 16:49:23.803803 19372 net.cpp:386] inception_4e/relu_pool_proj -> inception_4e/pool_proj (in-place)
I0403 16:49:23.804088 19372 net.cpp:141] Setting up inception_4e/relu_pool_proj
I0403 16:49:23.804113 19372 net.cpp:148] Top shape: 24 128 14 14 (602112)
I0403 16:49:23.804128 19372 net.cpp:156] Memory required for data: 1256902176
I0403 16:49:23.804142 19372 layer_factory.hpp:77] Creating layer inception_4e/output
I0403 16:49:23.804158 19372 net.cpp:91] Creating Layer inception_4e/output
I0403 16:49:23.804173 19372 net.cpp:425] inception_4e/output <- inception_4e/1x1
I0403 16:49:23.804188 19372 net.cpp:425] inception_4e/output <- inception_4e/3x3
I0403 16:49:23.804203 19372 net.cpp:425] inception_4e/output <- inception_4e/5x5
I0403 16:49:23.804219 19372 net.cpp:425] inception_4e/output <- inception_4e/pool_proj
I0403 16:49:23.804236 19372 net.cpp:399] inception_4e/output -> inception_4e/output
I0403 16:49:23.804294 19372 net.cpp:141] Setting up inception_4e/output
I0403 16:49:23.804319 19372 net.cpp:148] Top shape: 24 832 14 14 (3913728)
I0403 16:49:23.804333 19372 net.cpp:156] Memory required for data: 1272557088
I0403 16:49:23.804347 19372 layer_factory.hpp:77] Creating layer pool4/3x3_s2
I0403 16:49:23.804363 19372 net.cpp:91] Creating Layer pool4/3x3_s2
I0403 16:49:23.804378 19372 net.cpp:425] pool4/3x3_s2 <- inception_4e/output
I0403 16:49:23.804397 19372 net.cpp:399] pool4/3x3_s2 -> pool4/3x3_s2
I0403 16:49:23.804463 19372 net.cpp:141] Setting up pool4/3x3_s2
I0403 16:49:23.804486 19372 net.cpp:148] Top shape: 24 832 7 7 (978432)
I0403 16:49:23.804500 19372 net.cpp:156] Memory required for data: 1276470816
I0403 16:49:23.804513 19372 layer_factory.hpp:77] Creating layer pool4/3x3_s2_pool4/3x3_s2_0_split
I0403 16:49:23.804532 19372 net.cpp:91] Creating Layer pool4/3x3_s2_pool4/3x3_s2_0_split
I0403 16:49:23.804546 19372 net.cpp:425] pool4/3x3_s2_pool4/3x3_s2_0_split <- pool4/3x3_s2
I0403 16:49:23.804563 19372 net.cpp:399] pool4/3x3_s2_pool4/3x3_s2_0_split -> pool4/3x3_s2_pool4/3x3_s2_0_split_0
I0403 16:49:23.804607 19372 net.cpp:399] pool4/3x3_s2_pool4/3x3_s2_0_split -> pool4/3x3_s2_pool4/3x3_s2_0_split_1
I0403 16:49:23.804632 19372 net.cpp:399] pool4/3x3_s2_pool4/3x3_s2_0_split -> pool4/3x3_s2_pool4/3x3_s2_0_split_2
I0403 16:49:23.804653 19372 net.cpp:399] pool4/3x3_s2_pool4/3x3_s2_0_split -> pool4/3x3_s2_pool4/3x3_s2_0_split_3
I0403 16:49:23.804745 19372 net.cpp:141] Setting up pool4/3x3_s2_pool4/3x3_s2_0_split
I0403 16:49:23.804769 19372 net.cpp:148] Top shape: 24 832 7 7 (978432)
I0403 16:49:23.804785 19372 net.cpp:148] Top shape: 24 832 7 7 (978432)
I0403 16:49:23.804798 19372 net.cpp:148] Top shape: 24 832 7 7 (978432)
I0403 16:49:23.804813 19372 net.cpp:148] Top shape: 24 832 7 7 (978432)
I0403 16:49:23.804827 19372 net.cpp:156] Memory required for data: 1292125728
I0403 16:49:23.804841 19372 layer_factory.hpp:77] Creating layer inception_5a/1x1
I0403 16:49:23.804863 19372 net.cpp:91] Creating Layer inception_5a/1x1
I0403 16:49:23.804891 19372 net.cpp:425] inception_5a/1x1 <- pool4/3x3_s2_pool4/3x3_s2_0_split_0
I0403 16:49:23.804911 19372 net.cpp:399] inception_5a/1x1 -> inception_5a/1x1
I0403 16:49:23.807785 19372 net.cpp:141] Setting up inception_5a/1x1
I0403 16:49:23.807816 19372 net.cpp:148] Top shape: 24 256 7 7 (301056)
I0403 16:49:23.807832 19372 net.cpp:156] Memory required for data: 1293329952
I0403 16:49:23.807848 19372 layer_factory.hpp:77] Creating layer inception_5a/relu_1x1
I0403 16:49:23.807868 19372 net.cpp:91] Creating Layer inception_5a/relu_1x1
I0403 16:49:23.807883 19372 net.cpp:425] inception_5a/relu_1x1 <- inception_5a/1x1
I0403 16:49:23.807900 19372 net.cpp:386] inception_5a/relu_1x1 -> inception_5a/1x1 (in-place)
I0403 16:49:23.808208 19372 net.cpp:141] Setting up inception_5a/relu_1x1
I0403 16:49:23.808233 19372 net.cpp:148] Top shape: 24 256 7 7 (301056)
I0403 16:49:23.808248 19372 net.cpp:156] Memory required for data: 1294534176
I0403 16:49:23.808264 19372 layer_factory.hpp:77] Creating layer inception_5a/3x3_reduce
I0403 16:49:23.808284 19372 net.cpp:91] Creating Layer inception_5a/3x3_reduce
I0403 16:49:23.808301 19372 net.cpp:425] inception_5a/3x3_reduce <- pool4/3x3_s2_pool4/3x3_s2_0_split_1
I0403 16:49:23.808322 19372 net.cpp:399] inception_5a/3x3_reduce -> inception_5a/3x3_reduce
I0403 16:49:23.810854 19372 net.cpp:141] Setting up inception_5a/3x3_reduce
I0403 16:49:23.810883 19372 net.cpp:148] Top shape: 24 160 7 7 (188160)
I0403 16:49:23.810899 19372 net.cpp:156] Memory required for data: 1295286816
I0403 16:49:23.810916 19372 layer_factory.hpp:77] Creating layer inception_5a/relu_3x3_reduce
I0403 16:49:23.810933 19372 net.cpp:91] Creating Layer inception_5a/relu_3x3_reduce
I0403 16:49:23.810950 19372 net.cpp:425] inception_5a/relu_3x3_reduce <- inception_5a/3x3_reduce
I0403 16:49:23.810967 19372 net.cpp:386] inception_5a/relu_3x3_reduce -> inception_5a/3x3_reduce (in-place)
I0403 16:49:23.811156 19372 net.cpp:141] Setting up inception_5a/relu_3x3_reduce
I0403 16:49:23.811179 19372 net.cpp:148] Top shape: 24 160 7 7 (188160)
I0403 16:49:23.811193 19372 net.cpp:156] Memory required for data: 1296039456
I0403 16:49:23.811208 19372 layer_factory.hpp:77] Creating layer inception_5a/3x3
I0403 16:49:23.811228 19372 net.cpp:91] Creating Layer inception_5a/3x3
I0403 16:49:23.811245 19372 net.cpp:425] inception_5a/3x3 <- inception_5a/3x3_reduce
I0403 16:49:23.811267 19372 net.cpp:399] inception_5a/3x3 -> inception_5a/3x3
I0403 16:49:23.816268 19372 net.cpp:141] Setting up inception_5a/3x3
I0403 16:49:23.816298 19372 net.cpp:148] Top shape: 24 320 7 7 (376320)
I0403 16:49:23.816311 19372 net.cpp:156] Memory required for data: 1297544736
I0403 16:49:23.816329 19372 layer_factory.hpp:77] Creating layer inception_5a/relu_3x3
I0403 16:49:23.816347 19372 net.cpp:91] Creating Layer inception_5a/relu_3x3
I0403 16:49:23.816364 19372 net.cpp:425] inception_5a/relu_3x3 <- inception_5a/3x3
I0403 16:49:23.816380 19372 net.cpp:386] inception_5a/relu_3x3 -> inception_5a/3x3 (in-place)
I0403 16:49:23.816684 19372 net.cpp:141] Setting up inception_5a/relu_3x3
I0403 16:49:23.816709 19372 net.cpp:148] Top shape: 24 320 7 7 (376320)
I0403 16:49:23.816722 19372 net.cpp:156] Memory required for data: 1299050016
I0403 16:49:23.816736 19372 layer_factory.hpp:77] Creating layer inception_5a/5x5_reduce
I0403 16:49:23.816758 19372 net.cpp:91] Creating Layer inception_5a/5x5_reduce
I0403 16:49:23.816774 19372 net.cpp:425] inception_5a/5x5_reduce <- pool4/3x3_s2_pool4/3x3_s2_0_split_2
I0403 16:49:23.816797 19372 net.cpp:399] inception_5a/5x5_reduce -> inception_5a/5x5_reduce
I0403 16:49:23.817929 19372 net.cpp:141] Setting up inception_5a/5x5_reduce
I0403 16:49:23.817957 19372 net.cpp:148] Top shape: 24 32 7 7 (37632)
I0403 16:49:23.817972 19372 net.cpp:156] Memory required for data: 1299200544
I0403 16:49:23.817989 19372 layer_factory.hpp:77] Creating layer inception_5a/relu_5x5_reduce
I0403 16:49:23.818006 19372 net.cpp:91] Creating Layer inception_5a/relu_5x5_reduce
I0403 16:49:23.818022 19372 net.cpp:425] inception_5a/relu_5x5_reduce <- inception_5a/5x5_reduce
I0403 16:49:23.818037 19372 net.cpp:386] inception_5a/relu_5x5_reduce -> inception_5a/5x5_reduce (in-place)
I0403 16:49:23.818323 19372 net.cpp:141] Setting up inception_5a/relu_5x5_reduce
I0403 16:49:23.818347 19372 net.cpp:148] Top shape: 24 32 7 7 (37632)
I0403 16:49:23.818364 19372 net.cpp:156] Memory required for data: 1299351072
I0403 16:49:23.818378 19372 layer_factory.hpp:77] Creating layer inception_5a/5x5
I0403 16:49:23.818397 19372 net.cpp:91] Creating Layer inception_5a/5x5
I0403 16:49:23.818413 19372 net.cpp:425] inception_5a/5x5 <- inception_5a/5x5_reduce
I0403 16:49:23.818431 19372 net.cpp:399] inception_5a/5x5 -> inception_5a/5x5
I0403 16:49:23.820075 19372 net.cpp:141] Setting up inception_5a/5x5
I0403 16:49:23.820113 19372 net.cpp:148] Top shape: 24 128 7 7 (150528)
I0403 16:49:23.820128 19372 net.cpp:156] Memory required for data: 1299953184
I0403 16:49:23.820145 19372 layer_factory.hpp:77] Creating layer inception_5a/relu_5x5
I0403 16:49:23.820164 19372 net.cpp:91] Creating Layer inception_5a/relu_5x5
I0403 16:49:23.820180 19372 net.cpp:425] inception_5a/relu_5x5 <- inception_5a/5x5
I0403 16:49:23.820196 19372 net.cpp:386] inception_5a/relu_5x5 -> inception_5a/5x5 (in-place)
I0403 16:49:23.820380 19372 net.cpp:141] Setting up inception_5a/relu_5x5
I0403 16:49:23.820406 19372 net.cpp:148] Top shape: 24 128 7 7 (150528)
I0403 16:49:23.820420 19372 net.cpp:156] Memory required for data: 1300555296
I0403 16:49:23.820435 19372 layer_factory.hpp:77] Creating layer inception_5a/pool
I0403 16:49:23.820451 19372 net.cpp:91] Creating Layer inception_5a/pool
I0403 16:49:23.820466 19372 net.cpp:425] inception_5a/pool <- pool4/3x3_s2_pool4/3x3_s2_0_split_3
I0403 16:49:23.820482 19372 net.cpp:399] inception_5a/pool -> inception_5a/pool
I0403 16:49:23.820549 19372 net.cpp:141] Setting up inception_5a/pool
I0403 16:49:23.820575 19372 net.cpp:148] Top shape: 24 832 7 7 (978432)
I0403 16:49:23.820603 19372 net.cpp:156] Memory required for data: 1304469024
I0403 16:49:23.820617 19372 layer_factory.hpp:77] Creating layer inception_5a/pool_proj
I0403 16:49:23.820638 19372 net.cpp:91] Creating Layer inception_5a/pool_proj
I0403 16:49:23.820654 19372 net.cpp:425] inception_5a/pool_proj <- inception_5a/pool
I0403 16:49:23.820674 19372 net.cpp:399] inception_5a/pool_proj -> inception_5a/pool_proj
I0403 16:49:23.822875 19372 net.cpp:141] Setting up inception_5a/pool_proj
I0403 16:49:23.822901 19372 net.cpp:148] Top shape: 24 128 7 7 (150528)
I0403 16:49:23.822916 19372 net.cpp:156] Memory required for data: 1305071136
I0403 16:49:23.822933 19372 layer_factory.hpp:77] Creating layer inception_5a/relu_pool_proj
I0403 16:49:23.822952 19372 net.cpp:91] Creating Layer inception_5a/relu_pool_proj
I0403 16:49:23.822968 19372 net.cpp:425] inception_5a/relu_pool_proj <- inception_5a/pool_proj
I0403 16:49:23.822984 19372 net.cpp:386] inception_5a/relu_pool_proj -> inception_5a/pool_proj (in-place)
I0403 16:49:23.823268 19372 net.cpp:141] Setting up inception_5a/relu_pool_proj
I0403 16:49:23.823293 19372 net.cpp:148] Top shape: 24 128 7 7 (150528)
I0403 16:49:23.823307 19372 net.cpp:156] Memory required for data: 1305673248
I0403 16:49:23.823320 19372 layer_factory.hpp:77] Creating layer inception_5a/output
I0403 16:49:23.823336 19372 net.cpp:91] Creating Layer inception_5a/output
I0403 16:49:23.823351 19372 net.cpp:425] inception_5a/output <- inception_5a/1x1
I0403 16:49:23.823367 19372 net.cpp:425] inception_5a/output <- inception_5a/3x3
I0403 16:49:23.823382 19372 net.cpp:425] inception_5a/output <- inception_5a/5x5
I0403 16:49:23.823396 19372 net.cpp:425] inception_5a/output <- inception_5a/pool_proj
I0403 16:49:23.823415 19372 net.cpp:399] inception_5a/output -> inception_5a/output
I0403 16:49:23.823462 19372 net.cpp:141] Setting up inception_5a/output
I0403 16:49:23.823489 19372 net.cpp:148] Top shape: 24 832 7 7 (978432)
I0403 16:49:23.823504 19372 net.cpp:156] Memory required for data: 1309586976
I0403 16:49:23.823518 19372 layer_factory.hpp:77] Creating layer inception_5a/output_inception_5a/output_0_split
I0403 16:49:23.823534 19372 net.cpp:91] Creating Layer inception_5a/output_inception_5a/output_0_split
I0403 16:49:23.823547 19372 net.cpp:425] inception_5a/output_inception_5a/output_0_split <- inception_5a/output
I0403 16:49:23.823570 19372 net.cpp:399] inception_5a/output_inception_5a/output_0_split -> inception_5a/output_inception_5a/output_0_split_0
I0403 16:49:23.823591 19372 net.cpp:399] inception_5a/output_inception_5a/output_0_split -> inception_5a/output_inception_5a/output_0_split_1
I0403 16:49:23.823611 19372 net.cpp:399] inception_5a/output_inception_5a/output_0_split -> inception_5a/output_inception_5a/output_0_split_2
I0403 16:49:23.823631 19372 net.cpp:399] inception_5a/output_inception_5a/output_0_split -> inception_5a/output_inception_5a/output_0_split_3
I0403 16:49:23.823735 19372 net.cpp:141] Setting up inception_5a/output_inception_5a/output_0_split
I0403 16:49:23.823757 19372 net.cpp:148] Top shape: 24 832 7 7 (978432)
I0403 16:49:23.823775 19372 net.cpp:148] Top shape: 24 832 7 7 (978432)
I0403 16:49:23.823789 19372 net.cpp:148] Top shape: 24 832 7 7 (978432)
I0403 16:49:23.823803 19372 net.cpp:148] Top shape: 24 832 7 7 (978432)
I0403 16:49:23.823815 19372 net.cpp:156] Memory required for data: 1325241888
I0403 16:49:23.823829 19372 layer_factory.hpp:77] Creating layer inception_5b/1x1
I0403 16:49:23.823848 19372 net.cpp:91] Creating Layer inception_5b/1x1
I0403 16:49:23.823863 19372 net.cpp:425] inception_5b/1x1 <- inception_5a/output_inception_5a/output_0_split_0
I0403 16:49:23.823881 19372 net.cpp:399] inception_5b/1x1 -> inception_5b/1x1
I0403 16:49:23.827512 19372 net.cpp:141] Setting up inception_5b/1x1
I0403 16:49:23.827539 19372 net.cpp:148] Top shape: 24 384 7 7 (451584)
I0403 16:49:23.827554 19372 net.cpp:156] Memory required for data: 1327048224
I0403 16:49:23.827574 19372 layer_factory.hpp:77] Creating layer inception_5b/relu_1x1
I0403 16:49:23.827594 19372 net.cpp:91] Creating Layer inception_5b/relu_1x1
I0403 16:49:23.827608 19372 net.cpp:425] inception_5b/relu_1x1 <- inception_5b/1x1
I0403 16:49:23.827627 19372 net.cpp:386] inception_5b/relu_1x1 -> inception_5b/1x1 (in-place)
I0403 16:49:23.827919 19372 net.cpp:141] Setting up inception_5b/relu_1x1
I0403 16:49:23.827944 19372 net.cpp:148] Top shape: 24 384 7 7 (451584)
I0403 16:49:23.827957 19372 net.cpp:156] Memory required for data: 1328854560
I0403 16:49:23.827970 19372 layer_factory.hpp:77] Creating layer inception_5b/3x3_reduce
I0403 16:49:23.827991 19372 net.cpp:91] Creating Layer inception_5b/3x3_reduce
I0403 16:49:23.828008 19372 net.cpp:425] inception_5b/3x3_reduce <- inception_5a/output_inception_5a/output_0_split_1
I0403 16:49:23.828029 19372 net.cpp:399] inception_5b/3x3_reduce -> inception_5b/3x3_reduce
I0403 16:49:23.830657 19372 net.cpp:141] Setting up inception_5b/3x3_reduce
I0403 16:49:23.830685 19372 net.cpp:148] Top shape: 24 192 7 7 (225792)
I0403 16:49:23.830700 19372 net.cpp:156] Memory required for data: 1329757728
I0403 16:49:23.830718 19372 layer_factory.hpp:77] Creating layer inception_5b/relu_3x3_reduce
I0403 16:49:23.830734 19372 net.cpp:91] Creating Layer inception_5b/relu_3x3_reduce
I0403 16:49:23.830754 19372 net.cpp:425] inception_5b/relu_3x3_reduce <- inception_5b/3x3_reduce
I0403 16:49:23.830770 19372 net.cpp:386] inception_5b/relu_3x3_reduce -> inception_5b/3x3_reduce (in-place)
I0403 16:49:23.830965 19372 net.cpp:141] Setting up inception_5b/relu_3x3_reduce
I0403 16:49:23.830989 19372 net.cpp:148] Top shape: 24 192 7 7 (225792)
I0403 16:49:23.831002 19372 net.cpp:156] Memory required for data: 1330660896
I0403 16:49:23.831015 19372 layer_factory.hpp:77] Creating layer inception_5b/3x3
I0403 16:49:23.831037 19372 net.cpp:91] Creating Layer inception_5b/3x3
I0403 16:49:23.831053 19372 net.cpp:425] inception_5b/3x3 <- inception_5b/3x3_reduce
I0403 16:49:23.831074 19372 net.cpp:399] inception_5b/3x3 -> inception_5b/3x3
I0403 16:49:23.837584 19372 net.cpp:141] Setting up inception_5b/3x3
I0403 16:49:23.837610 19372 net.cpp:148] Top shape: 24 384 7 7 (451584)
I0403 16:49:23.837625 19372 net.cpp:156] Memory required for data: 1332467232
I0403 16:49:23.837641 19372 layer_factory.hpp:77] Creating layer inception_5b/relu_3x3
I0403 16:49:23.837659 19372 net.cpp:91] Creating Layer inception_5b/relu_3x3
I0403 16:49:23.837677 19372 net.cpp:425] inception_5b/relu_3x3 <- inception_5b/3x3
I0403 16:49:23.837692 19372 net.cpp:386] inception_5b/relu_3x3 -> inception_5b/3x3 (in-place)
I0403 16:49:23.837978 19372 net.cpp:141] Setting up inception_5b/relu_3x3
I0403 16:49:23.838003 19372 net.cpp:148] Top shape: 24 384 7 7 (451584)
I0403 16:49:23.838016 19372 net.cpp:156] Memory required for data: 1334273568
I0403 16:49:23.838030 19372 layer_factory.hpp:77] Creating layer inception_5b/5x5_reduce
I0403 16:49:23.838065 19372 net.cpp:91] Creating Layer inception_5b/5x5_reduce
I0403 16:49:23.838083 19372 net.cpp:425] inception_5b/5x5_reduce <- inception_5a/output_inception_5a/output_0_split_2
I0403 16:49:23.838104 19372 net.cpp:399] inception_5b/5x5_reduce -> inception_5b/5x5_reduce
I0403 16:49:23.839364 19372 net.cpp:141] Setting up inception_5b/5x5_reduce
I0403 16:49:23.839390 19372 net.cpp:148] Top shape: 24 48 7 7 (56448)
I0403 16:49:23.839404 19372 net.cpp:156] Memory required for data: 1334499360
I0403 16:49:23.839421 19372 layer_factory.hpp:77] Creating layer inception_5b/relu_5x5_reduce
I0403 16:49:23.839437 19372 net.cpp:91] Creating Layer inception_5b/relu_5x5_reduce
I0403 16:49:23.839453 19372 net.cpp:425] inception_5b/relu_5x5_reduce <- inception_5b/5x5_reduce
I0403 16:49:23.839471 19372 net.cpp:386] inception_5b/relu_5x5_reduce -> inception_5b/5x5_reduce (in-place)
I0403 16:49:23.839844 19372 net.cpp:141] Setting up inception_5b/relu_5x5_reduce
I0403 16:49:23.839869 19372 net.cpp:148] Top shape: 24 48 7 7 (56448)
I0403 16:49:23.839884 19372 net.cpp:156] Memory required for data: 1334725152
I0403 16:49:23.839897 19372 layer_factory.hpp:77] Creating layer inception_5b/5x5
I0403 16:49:23.839916 19372 net.cpp:91] Creating Layer inception_5b/5x5
I0403 16:49:23.839932 19372 net.cpp:425] inception_5b/5x5 <- inception_5b/5x5_reduce
I0403 16:49:23.839949 19372 net.cpp:399] inception_5b/5x5 -> inception_5b/5x5
I0403 16:49:23.841933 19372 net.cpp:141] Setting up inception_5b/5x5
I0403 16:49:23.841959 19372 net.cpp:148] Top shape: 24 128 7 7 (150528)
I0403 16:49:23.841974 19372 net.cpp:156] Memory required for data: 1335327264
I0403 16:49:23.841990 19372 layer_factory.hpp:77] Creating layer inception_5b/relu_5x5
I0403 16:49:23.842010 19372 net.cpp:91] Creating Layer inception_5b/relu_5x5
I0403 16:49:23.842025 19372 net.cpp:425] inception_5b/relu_5x5 <- inception_5b/5x5
I0403 16:49:23.842041 19372 net.cpp:386] inception_5b/relu_5x5 -> inception_5b/5x5 (in-place)
I0403 16:49:23.842229 19372 net.cpp:141] Setting up inception_5b/relu_5x5
I0403 16:49:23.842254 19372 net.cpp:148] Top shape: 24 128 7 7 (150528)
I0403 16:49:23.842269 19372 net.cpp:156] Memory required for data: 1335929376
I0403 16:49:23.842283 19372 layer_factory.hpp:77] Creating layer inception_5b/pool
I0403 16:49:23.842298 19372 net.cpp:91] Creating Layer inception_5b/pool
I0403 16:49:23.842314 19372 net.cpp:425] inception_5b/pool <- inception_5a/output_inception_5a/output_0_split_3
I0403 16:49:23.842332 19372 net.cpp:399] inception_5b/pool -> inception_5b/pool
I0403 16:49:23.842401 19372 net.cpp:141] Setting up inception_5b/pool
I0403 16:49:23.842423 19372 net.cpp:148] Top shape: 24 832 7 7 (978432)
I0403 16:49:23.842437 19372 net.cpp:156] Memory required for data: 1339843104
I0403 16:49:23.842449 19372 layer_factory.hpp:77] Creating layer inception_5b/pool_proj
I0403 16:49:23.842469 19372 net.cpp:91] Creating Layer inception_5b/pool_proj
I0403 16:49:23.842486 19372 net.cpp:425] inception_5b/pool_proj <- inception_5b/pool
I0403 16:49:23.842505 19372 net.cpp:399] inception_5b/pool_proj -> inception_5b/pool_proj
I0403 16:49:23.844792 19372 net.cpp:141] Setting up inception_5b/pool_proj
I0403 16:49:23.844821 19372 net.cpp:148] Top shape: 24 128 7 7 (150528)
I0403 16:49:23.844836 19372 net.cpp:156] Memory required for data: 1340445216
I0403 16:49:23.844854 19372 layer_factory.hpp:77] Creating layer inception_5b/relu_pool_proj
I0403 16:49:23.844885 19372 net.cpp:91] Creating Layer inception_5b/relu_pool_proj
I0403 16:49:23.844902 19372 net.cpp:425] inception_5b/relu_pool_proj <- inception_5b/pool_proj
I0403 16:49:23.844918 19372 net.cpp:386] inception_5b/relu_pool_proj -> inception_5b/pool_proj (in-place)
I0403 16:49:23.845218 19372 net.cpp:141] Setting up inception_5b/relu_pool_proj
I0403 16:49:23.845242 19372 net.cpp:148] Top shape: 24 128 7 7 (150528)
I0403 16:49:23.845255 19372 net.cpp:156] Memory required for data: 1341047328
I0403 16:49:23.845269 19372 layer_factory.hpp:77] Creating layer inception_5b/output
I0403 16:49:23.845284 19372 net.cpp:91] Creating Layer inception_5b/output
I0403 16:49:23.845314 19372 net.cpp:425] inception_5b/output <- inception_5b/1x1
I0403 16:49:23.845329 19372 net.cpp:425] inception_5b/output <- inception_5b/3x3
I0403 16:49:23.845343 19372 net.cpp:425] inception_5b/output <- inception_5b/5x5
I0403 16:49:23.845358 19372 net.cpp:425] inception_5b/output <- inception_5b/pool_proj
I0403 16:49:23.845376 19372 net.cpp:399] inception_5b/output -> inception_5b/output
I0403 16:49:23.845424 19372 net.cpp:141] Setting up inception_5b/output
I0403 16:49:23.845453 19372 net.cpp:148] Top shape: 24 1024 7 7 (1204224)
I0403 16:49:23.845466 19372 net.cpp:156] Memory required for data: 1345864224
I0403 16:49:23.845479 19372 layer_factory.hpp:77] Creating layer pool5/7x7_s1
I0403 16:49:23.845495 19372 net.cpp:91] Creating Layer pool5/7x7_s1
I0403 16:49:23.845510 19372 net.cpp:425] pool5/7x7_s1 <- inception_5b/output
I0403 16:49:23.845530 19372 net.cpp:399] pool5/7x7_s1 -> pool5/7x7_s1
I0403 16:49:23.845741 19372 net.cpp:141] Setting up pool5/7x7_s1
I0403 16:49:23.845763 19372 net.cpp:148] Top shape: 24 1024 1 1 (24576)
I0403 16:49:23.845777 19372 net.cpp:156] Memory required for data: 1345962528
I0403 16:49:23.845790 19372 layer_factory.hpp:77] Creating layer pool5/drop_7x7_s1
I0403 16:49:23.845806 19372 net.cpp:91] Creating Layer pool5/drop_7x7_s1
I0403 16:49:23.845823 19372 net.cpp:425] pool5/drop_7x7_s1 <- pool5/7x7_s1
I0403 16:49:23.845840 19372 net.cpp:386] pool5/drop_7x7_s1 -> pool5/7x7_s1 (in-place)
I0403 16:49:23.845890 19372 net.cpp:141] Setting up pool5/drop_7x7_s1
I0403 16:49:23.845912 19372 net.cpp:148] Top shape: 24 1024 1 1 (24576)
I0403 16:49:23.845926 19372 net.cpp:156] Memory required for data: 1346060832
I0403 16:49:23.845938 19372 layer_factory.hpp:77] Creating layer loss3/classifier_plantvillage
I0403 16:49:23.845957 19372 net.cpp:91] Creating Layer loss3/classifier_plantvillage
I0403 16:49:23.845971 19372 net.cpp:425] loss3/classifier_plantvillage <- pool5/7x7_s1
I0403 16:49:23.845990 19372 net.cpp:399] loss3/classifier_plantvillage -> loss3/classifier_plantvillage
I0403 16:49:23.846395 19372 net.cpp:141] Setting up loss3/classifier_plantvillage
I0403 16:49:23.846417 19372 net.cpp:148] Top shape: 24 38 (912)
I0403 16:49:23.846431 19372 net.cpp:156] Memory required for data: 1346064480
I0403 16:49:23.846447 19372 layer_factory.hpp:77] Creating layer loss3/classifier_plantvillage_loss3/classifier_plantvillage_0_split
I0403 16:49:23.846467 19372 net.cpp:91] Creating Layer loss3/classifier_plantvillage_loss3/classifier_plantvillage_0_split
I0403 16:49:23.846483 19372 net.cpp:425] loss3/classifier_plantvillage_loss3/classifier_plantvillage_0_split <- loss3/classifier_plantvillage
I0403 16:49:23.846501 19372 net.cpp:399] loss3/classifier_plantvillage_loss3/classifier_plantvillage_0_split -> loss3/classifier_plantvillage_loss3/classifier_plantvillage_0_split_0
I0403 16:49:23.846520 19372 net.cpp:399] loss3/classifier_plantvillage_loss3/classifier_plantvillage_0_split -> loss3/classifier_plantvillage_loss3/classifier_plantvillage_0_split_1
I0403 16:49:23.846539 19372 net.cpp:399] loss3/classifier_plantvillage_loss3/classifier_plantvillage_0_split -> loss3/classifier_plantvillage_loss3/classifier_plantvillage_0_split_2
I0403 16:49:23.846556 19372 net.cpp:399] loss3/classifier_plantvillage_loss3/classifier_plantvillage_0_split -> loss3/classifier_plantvillage_loss3/classifier_plantvillage_0_split_3
I0403 16:49:23.846675 19372 net.cpp:141] Setting up loss3/classifier_plantvillage_loss3/classifier_plantvillage_0_split
I0403 16:49:23.846698 19372 net.cpp:148] Top shape: 24 38 (912)
I0403 16:49:23.846714 19372 net.cpp:148] Top shape: 24 38 (912)
I0403 16:49:23.846730 19372 net.cpp:148] Top shape: 24 38 (912)
I0403 16:49:23.846745 19372 net.cpp:148] Top shape: 24 38 (912)
I0403 16:49:23.846758 19372 net.cpp:156] Memory required for data: 1346079072
I0403 16:49:23.846772 19372 layer_factory.hpp:77] Creating layer loss1/loss
I0403 16:49:23.846793 19372 net.cpp:91] Creating Layer loss1/loss
I0403 16:49:23.846810 19372 net.cpp:425] loss1/loss <- loss1/classifier_plantvillage_loss1/classifier_plantvillage_0_split_0
I0403 16:49:23.846840 19372 net.cpp:425] loss1/loss <- label_data_1_split_0
…
