…
I0403 16:32:59.064484 18492 net.cpp:313] The NetState phase (1) differed from the phase (0) specified by a rule in layer data
I0403 16:32:59.065701 18492 net.cpp:49] Initializing net from parameters: 
state {
  phase: TEST
}
layer {
  name: "data"
  type: "Data"
  top: "data"
  top: "label"
  include {
    phase: TEST
  }
  transform_param {
    mirror: false
    crop_size: 224
    mean_file: "/home/mohanty/data/final_dataset/lmdb/segmented-20-80/mean.binaryproto"
  }
  data_param {
    source: "/home/mohanty/data/final_dataset/lmdb/segmented-20-80/test_db"
    batch_size: 24
    backend: LMDB
  }
}
layer {
  name: "conv1/7x7_s2"
  type: "Convolution"
  bottom: "data"
  top: "conv1/7x7_s2"
  param {
    lr_mult: 1
    decay_mult: 1
  }
  param {
    lr_mult: 2
    decay_mult: 0
  }
  convolution_param {
    num_output: 64
    pad: 3
    kernel_size: 7
    stride: 2
    weight_filler {
      type: "xavier"
      std: 0.1
    }
    bias_filler {
      type: "constant"
      value: 0.2
    }
  }
}
layer {
  name: "conv1/relu_7x7"
  type: "ReLU"
  bottom: "conv1/7x7_s2"
  top: "conv1/7x7_s2"
}
layer {
  name: "pool1/3x3_s2"
  type: "Pooling"
  bottom: "conv1/7x7_s2"
  top: "pool1/3x3_s2"
  pooling_param {
    pool: MAX
    kernel_size: 3
    stride: 2
  }
}
layer {
  name: "pool1/norm1"
  type: "LRN"
  bottom: "pool1/3x3_s2"
  top: "pool1/norm1"
  lrn_param {
    local_size: 5
    alpha: 0.0001
    beta: 0.75
  }
}
layer {
  name: "conv2/3x3_reduce"
  type: "Convolution"
  bottom: "pool1/norm1"
  top: "conv2/3x3_reduce"
  param {
    lr_mult: 1
    decay_mult: 1
  }
  param {
    lr_mult: 2
    decay_mult: 0
  }
  convolution_param {
    num_output: 64
    kernel_size: 1
    weight_filler {
      type: "xavier"
      std: 0.1
    }
    bias_filler {
      type: "constant"
      value: 0.2
    }
  }
}
layer {
  name: "conv2/relu_3x3_reduce"
  type: "ReLU"
  bottom: "conv2/3x3_reduce"
  top: "conv2/3x3_reduce"
}
layer {
  name: "conv2/3x3"
  type: "Convolution"
  bottom: "conv2/3x3_reduce"
  top: "conv2/3x3"
  param {
    lr_mult: 1
    decay_mult: 1
  }
  param {
    lr_mult: 2
    decay_mult: 0
  }
  convolution_param {
    num_output: 192
    pad: 1
    kernel_size: 3
    weight_filler {
      type: "xavier"
      std: 0.03
    }
    bias_filler {
      type: "constant"
      value: 0.2
    }
  }
}
layer {
  name: "conv2/relu_3x3"
  type: "ReLU"
  bottom: "conv2/3x3"
  top: "conv2/3x3"
}
layer {
  name: "conv2/norm2"
  type: "LRN"
  bottom: "conv2/3x3"
  top: "conv2/norm2"
  lrn_param {
    local_size: 5
    alpha: 0.0001
    beta: 0.75
  }
}
layer {
  name: "pool2/3x3_s2"
  type: "Pooling"
  bottom: "conv2/norm2"
  top: "pool2/3x3_s2"
  pooling_param {
    pool: MAX
    kernel_size: 3
    stride: 2
  }
}
layer {
  name: "inception_3a/1x1"
  type: "Convolution"
  bottom: "pool2/3x3_s2"
  top: "inception_3a/1x1"
  param {
    lr_mult: 1
    decay_mult: 1
  }
  param {
    lr_mult: 2
    decay_mult: 0
  }
  convolution_param {
    num_output: 64
    kernel_size: 1
    weight_filler {
      type: "xavier"
      std: 0.03
    }
    bias_filler {
      type: "constant"
      value: 0.2
    }
  }
}
layer {
  name: "inception_3a/relu_1x1"
  type: "ReLU"
  bottom: "inception_3a/1x1"
  top: "inception_3a/1x1"
}
layer {
  name: "inception_3a/3x3_reduce"
  type: "Convolution"
  bottom: "pool2/3x3_s2"
  top: "inception_3a/3x3_reduce"
  param {
    lr_mult: 1
    decay_mult: 1
  }
  param {
    lr_mult: 2
    decay_mult: 0
  }
  convolution_param {
    num_output: 96
    kernel_size: 1
    weight_filler {
      type: "xavier"
      std: 0.09
    }
    bias_filler {
      type: "constant"
      value: 0.2
    }
  }
}
layer {
  name: "inception_3a/relu_3x3_reduce"
  type: "ReLU"
  bottom: "inception_3a/3x3_reduce"
  top: "inception_3a/3x3_reduce"
}
layer {
  name: "inception_3a/3x3"
  type: "Convolution"
  bottom: "inception_3a/3x3_reduce"
  top: "inception_3a/3x3"
  param {
    lr_mult: 1
    decay_mult: 1
  }
  param {
    lr_mult: 2
    decay_mult: 0
  }
  convolution_param {
    num_output: 128
    pad: 1
    kernel_size: 3
    weight_filler {
      type: "xavier"
      std: 0.03
    }
    bias_filler {
      type: "constant"
      value: 0.2
    }
  }
}
layer {
  name: "inception_3a/relu_3x3"
  type: "ReLU"
  bottom: "inception_3a/3x3"
  top: "inception_3a/3x3"
}
layer {
  name: "inception_3a/5x5_reduce"
  type: "Convolution"
  bottom: "pool2/3x3_s2"
  top: "inception_3a/5x5_reduce"
  param {
    lr_mult: 1
    decay_mult: 1
  }
  param {
    lr_mult: 2
    decay_mult: 0
  }
  convolution_param {
    num_output: 16
    kernel_size: 1
    weight_filler {
      type: "xavier"
      std: 0.2
    }
    bias_filler {
      type: "constant"
      value: 0.2
    }
  }
}
layer {
  name: "inception_3a/relu_5x5_reduce"
  type: "ReLU"
  bottom: "inception_3a/5x5_reduce"
  top: "inception_3a/5x5_reduce"
}
layer {
  name: "inception_3a/5x5"
  type: "Convolution"
  bottom: "inception_3a/5x5_reduce"
  top: "inception_3a/5x5"
  param {
    lr_mult: 1
    decay_mult: 1
  }
  param {
    lr_mult: 2
    decay_mult: 0
  }
  convolution_param {
    num_output: 32
    pad: 2
    kernel_size: 5
    weight_filler {
      type: "xavier"
      std: 0.03
    }
    bias_filler {
      type: "constant"
      value: 0.2
    }
  }
}
layer {
  name: "inception_3a/relu_5x5"
  type: "ReLU"
  bottom: "inception_3a/5x5"
  top: "inception_3a/5x5"
}
layer {
  name: "inception_3a/pool"
  type: "Pooling"
  bottom: "pool2/3x3_s2"
  top: "inception_3a/pool"
  pooling_param {
    pool: MAX
    kernel_size: 3
    stride: 1
    pad: 1
  }
}
layer {
  name: "inception_3a/pool_proj"
  type: "Convolution"
  bottom: "inception_3a/pool"
  top: "inception_3a/pool_proj"
  param {
    lr_mult: 1
    decay_mult: 1
  }
  param {
    lr_mult: 2
    decay_mult: 0
  }
  convolution_param {
    num_output: 32
    kernel_size: 1
    weight_filler {
      type: "xavier"
      std: 0.1
    }
    bias_filler {
      type: "constant"
      value: 0.2
    }
  }
}
layer {
  name: "inception_3a/relu_pool_proj"
  type: "ReLU"
  bottom: "inception_3a/pool_proj"
  top: "inception_3a/pool_proj"
}
layer {
  name: "inception_3a/output"
  type: "Concat"
  bottom: "inception_3a/1x1"
  bottom: "inception_3a/3x3"
  bottom: "inception_3a/5x5"
  bottom: "inception_3a/pool_proj"
  top: "inception_3a/output"
}
layer {
  name: "inception_3b/1x1"
  type: "Convolution"
  bottom: "inception_3a/output"
  top: "inception_3b/1x1"
  param {
    lr_mult: 1
    decay_mult: 1
  }
  param {
    lr_mult: 2
    decay_mult: 0
  }
  convolution_param {
    num_output: 128
    kernel_size: 1
    weight_filler {
      type: "xavier"
      std: 0.03
    }
    bias_filler {
      type: "constant"
      value: 0.2
    }
  }
}
layer {
  name: "inception_3b/relu_1x1"
  type: "ReLU"
  bottom: "inception_3b/1x1"
  top: "inception_3b/1x1"
}
layer {
  name: "inception_3b/3x3_reduce"
  type: "Convolution"
  bottom: "inception_3a/output"
  top: "inception_3b/3x3_reduce"
  param {
    lr_mult: 1
    decay_mult: 1
  }
  param {
    lr_mult: 2
    decay_mult: 0
  }
  convolution_param {
    num_output: 128
    kernel_size: 1
    weight_filler {
      type: "xavier"
      std: 0.09
    }
    bias_filler {
      type: "constant"
      value: 0.2
    }
  }
}
layer {
  name: "inception_3b/relu_3x3_reduce"
  type: "ReLU"
  bottom: "inception_3b/3x3_reduce"
  top: "inception_3b/3x3_reduce"
}
layer {
  name: "inception_3b/3x3"
  type: "Convolution"
  bottom: "inception_3b/3x3_reduce"
  top: "inception_3b/3x3"
  param {
    lr_mult: 1
    decay_mult: 1
  }
  param {
    lr_mult: 2
    decay_mult: 0
  }
  convolution_param {
    num_output: 192
    pad: 1
    kernel_size: 3
    weight_filler {
      type: "xavier"
      std: 0.03
    }
    bias_filler {
      type: "constant"
      value: 0.2
    }
  }
}
layer {
  name: "inception_3b/relu_3x3"
  type: "ReLU"
  bottom: "inception_3b/3x3"
  top: "inception_3b/3x3"
}
layer {
  name: "inception_3b/5x5_reduce"
  type: "Convolution"
  bottom: "inception_3a/output"
  top: "inception_3b/5x5_reduce"
  param {
    lr_mult: 1
    decay_mult: 1
  }
  param {
    lr_mult: 2
    decay_mult: 0
  }
  convolution_param {
    num_output: 32
    kernel_size: 1
    weight_filler {
      type: "xavier"
      std: 0.2
    }
    bias_filler {
      type: "constant"
      value: 0.2
    }
  }
}
layer {
  name: "inception_3b/relu_5x5_reduce"
  type: "ReLU"
  bottom: "inception_3b/5x5_reduce"
  top: "inception_3b/5x5_reduce"
}
layer {
  name: "inception_3b/5x5"
  type: "Convolution"
  bottom: "inception_3b/5x5_reduce"
  top: "inception_3b/5x5"
  param {
    lr_mult: 1
    decay_mult: 1
  }
  param {
    lr_mult: 2
    decay_mult: 0
  }
  convolution_param {
    num_output: 96
    pad: 2
    kernel_size: 5
    weight_filler {
      type: "xavier"
      std: 0.03
    }
    bias_filler {
      type: "constant"
      value: 0.2
    }
  }
}
layer {
  name: "inception_3b/relu_5x5"
  type: "ReLU"
  bottom: "inception_3b/5x5"
  top: "inception_3b/5x5"
}
layer {
  name: "inception_3b/pool"
  type: "Pooling"
  bottom: "inception_3a/output"
  top: "inception_3b/pool"
  pooling_param {
    pool: MAX
    kernel_size: 3
    stride: 1
    pad: 1
  }
}
layer {
  name: "inception_3b/pool_proj"
  type: "Convolution"
  bottom: "inception_3b/pool"
  top: "inception_3b/pool_proj"
  param {
    lr_mult: 1
    decay_mult: 1
  }
  param {
    lr_mult: 2
    decay_mult: 0
  }
  convolution_param {
    num_output: 64
    kernel_size: 1
    weight_filler {
      type: "xavier"
      std: 0.1
    }
    bias_filler {
      type: "constant"
      value: 0.2
    }
  }
}
layer {
  name: "inception_3b/relu_pool_proj"
  type: "ReLU"
  bottom: "inception_3b/pool_proj"
  top: "inception_3b/pool_proj"
}
layer {
  name: "inception_3b/output"
  type: "Concat"
  bottom: "inception_3b/1x1"
  bottom: "inception_3b/3x3"
  bottom: "inception_3b/5x5"
  bottom: "inception_3b/pool_proj"
  top: "inception_3b/output"
}
layer {
  name: "pool3/3x3_s2"
  type: "Pooling"
  bottom: "inception_3b/output"
  top: "pool3/3x3_s2"
  pooling_param {
    pool: MAX
    kernel_size: 3
    stride: 2
  }
}
layer {
  name: "inception_4a/1x1"
  type: "Convolution"
  bottom: "pool3/3x3_s2"
  top: "inception_4a/1x1"
  param {
    lr_mult: 1
    decay_mult: 1
  }
  param {
    lr_mult: 2
    decay_mult: 0
  }
  convolution_param {
    num_output: 192
    kernel_size: 1
    weight_filler {
      type: "xavier"
      std: 0.03
    }
    bias_filler {
      type: "constant"
      value: 0.2
    }
  }
}
layer {
  name: "inception_4a/relu_1x1"
  type: "ReLU"
  bottom: "inception_4a/1x1"
  top: "inception_4a/1x1"
}
layer {
  name: "inception_4a/3x3_reduce"
  type: "Convolution"
  bottom: "pool3/3x3_s2"
  top: "inception_4a/3x3_reduce"
  param {
    lr_mult: 1
    decay_mult: 1
  }
  param {
    lr_mult: 2
    decay_mult: 0
  }
  convolution_param {
    num_output: 96
    kernel_size: 1
    weight_filler {
      type: "xavier"
      std: 0.09
    }
    bias_filler {
      type: "constant"
      value: 0.2
    }
  }
}
layer {
  name: "inception_4a/relu_3x3_reduce"
  type: "ReLU"
  bottom: "inception_4a/3x3_reduce"
  top: "inception_4a/3x3_reduce"
}
layer {
  name: "inception_4a/3x3"
  type: "Convolution"
  bottom: "inception_4a/3x3_reduce"
  top: "inception_4a/3x3"
  param {
    lr_mult: 1
    decay_mult: 1
  }
  param {
    lr_mult: 2
    decay_mult: 0
  }
  convolution_param {
    num_output: 208
    pad: 1
    kernel_size: 3
    weight_filler {
      type: "xavier"
      std: 0.03
    }
    bias_filler {
      type: "constant"
      value: 0.2
    }
  }
}
layer {
  name: "inception_4a/relu_3x3"
  type: "ReLU"
  bottom: "inception_4a/3x3"
  top: "inception_4a/3x3"
}
layer {
  name: "inception_4a/5x5_reduce"
  type: "Convolution"
  bottom: "pool3/3x3_s2"
  top: "inception_4a/5x5_reduce"
  param {
    lr_mult: 1
    decay_mult: 1
  }
  param {
    lr_mult: 2
    decay_mult: 0
  }
  convolution_param {
    num_output: 16
    kernel_size: 1
    weight_filler {
      type: "xavier"
      std: 0.2
    }
    bias_filler {
      type: "constant"
      value: 0.2
    }
  }
}
layer {
  name: "inception_4a/relu_5x5_reduce"
  type: "ReLU"
  bottom: "inception_4a/5x5_reduce"
  top: "inception_4a/5x5_reduce"
}
layer {
  name: "inception_4a/5x5"
  type: "Convolution"
  bottom: "inception_4a/5x5_reduce"
  top: "inception_4a/5x5"
  param {
    lr_mult: 1
    decay_mult: 1
  }
  param {
    lr_mult: 2
    decay_mult: 0
  }
  convolution_param {
    num_output: 48
    pad: 2
    kernel_size: 5
    weight_filler {
      type: "xavier"
      std: 0.03
    }
    bias_filler {
      type: "constant"
      value: 0.2
    }
  }
}
layer {
  name: "inception_4a/relu_5x5"
  type: "ReLU"
  bottom: "inception_4a/5x5"
  top: "inception_4a/5x5"
}
layer {
  name: "inception_4a/pool"
  type: "Pooling"
  bottom: "pool3/3x3_s2"
  top: "inception_4a/pool"
  pooling_param {
    pool: MAX
    kernel_size: 3
    stride: 1
    pad: 1
  }
}
layer {
  name: "inception_4a/pool_proj"
  type: "Convolution"
  bottom: "inception_4a/pool"
  top: "inception_4a/pool_proj"
  param {
    lr_mult: 1
    decay_mult: 1
  }
  param {
    lr_mult: 2
    decay_mult: 0
  }
  convolution_param {
    num_output: 64
    kernel_size: 1
    weight_filler {
      type: "xavier"
      std: 0.1
    }
    bias_filler {
      type: "constant"
      value: 0.2
    }
  }
}
layer {
  name: "inception_4a/relu_pool_proj"
  type: "ReLU"
  bottom: "inception_4a/pool_proj"
  top: "inception_4a/pool_proj"
}
layer {
  name: "inception_4a/output"
  type: "Concat"
  bottom: "inception_4a/1x1"
  bottom: "inception_4a/3x3"
  bottom: "inception_4a/5x5"
  bottom: "inception_4a/pool_proj"
  top: "inception_4a/output"
}
layer {
  name: "loss1/ave_pool"
  type: "Pooling"
  bottom: "inception_4a/output"
  top: "loss1/ave_pool"
  pooling_param {
    pool: AVE
    kernel_size: 5
    stride: 3
  }
}
layer {
  name: "loss1/conv"
  type: "Convolution"
  bottom: "loss1/ave_pool"
  top: "loss1/conv"
  param {
    lr_mult: 1
    decay_mult: 1
  }
  param {
    lr_mult: 2
    decay_mult: 0
  }
  convolution_param {
    num_output: 128
    kernel_size: 1
    weight_filler {
      type: "xavier"
      std: 0.08
    }
    bias_filler {
      type: "constant"
      value: 0.2
    }
  }
}
layer {
  name: "loss1/relu_conv"
  type: "ReLU"
  bottom: "loss1/conv"
  top: "loss1/conv"
}
layer {
  name: "loss1/fc"
  type: "InnerProduct"
  bottom: "loss1/conv"
  top: "loss1/fc"
  param {
    lr_mult: 1
    decay_mult: 1
  }
  param {
    lr_mult: 2
    decay_mult: 0
  }
  inner_product_param {
    num_output: 1024
    weight_filler {
      type: "xavier"
      std: 0.02
    }
    bias_filler {
      type: "constant"
      value: 0.2
    }
  }
}
layer {
  name: "loss1/relu_fc"
  type: "ReLU"
  bottom: "loss1/fc"
  top: "loss1/fc"
}
layer {
  name: "loss1/drop_fc"
  type: "Dropout"
  bottom: "loss1/fc"
  top: "loss1/fc"
  dropout_param {
    dropout_ratio: 0.7
  }
}
layer {
  name: "loss1/classifier_plantvillage"
  type: "InnerProduct"
  bottom: "loss1/fc"
  top: "loss1/classifier_plantvillage"
  param {
    lr_mult: 1
    decay_mult: 1
  }
  param {
    lr_mult: 2
    decay_mult: 0
  }
  inner_product_param {
    num_output: 38
    weight_filler {
      type: "xavier"
      std: 0.0009765625
    }
    bias_filler {
      type: "constant"
      value: 0
    }
  }
}
layer {
  name: "inception_4b/1x1"
  type: "Convolution"
  bottom: "inception_4a/output"
  top: "inception_4b/1x1"
  param {
    lr_mult: 1
    decay_mult: 1
  }
  param {
    lr_mult: 2
    decay_mult: 0
  }
  convolution_param {
    num_output: 160
    kernel_size: 1
    weight_filler {
      type: "xavier"
      std: 0.03
    }
    bias_filler {
      type: "constant"
      value: 0.2
    }
  }
}
layer {
  name: "inception_4b/relu_1x1"
  type: "ReLU"
  bottom: "inception_4b/1x1"
  top: "inception_4b/1x1"
}
layer {
  name: "inception_4b/3x3_reduce"
  type: "Convolution"
  bottom: "inception_4a/output"
  top: "inception_4b/3x3_reduce"
  param {
    lr_mult: 1
    decay_mult: 1
  }
  param {
    lr_mult: 2
    decay_mult: 0
  }
  convolution_param {
    num_output: 112
    kernel_size: 1
    weight_filler {
      type: "xavier"
      std: 0.09
    }
    bias_filler {
      type: "constant"
      value: 0.2
    }
  }
}
layer {
  name: "inception_4b/relu_3x3_reduce"
  type: "ReLU"
  bottom: "inception_4b/3x3_reduce"
  top: "inception_4b/3x3_reduce"
}
layer {
  name: "inception_4b/3x3"
  type: "Convolution"
  bottom: "inception_4b/3x3_reduce"
  top: "inception_4b/3x3"
  param {
    lr_mult: 1
    decay_mult: 1
  }
  param {
    lr_mult: 2
    decay_mult: 0
  }
  convolution_param {
    num_output: 224
    pad: 1
    kernel_size: 3
    weight_filler {
      type: "xavier"
      std: 0.03
    }
    bias_filler {
      type: "constant"
      value: 0.2
    }
  }
}
layer {
  name: "inception_4b/relu_3x3"
  type: "ReLU"
  bottom: "inception_4b/3x3"
  top: "inception_4b/3x3"
}
layer {
  name: "inception_4b/5x5_reduce"
  type: "Convolution"
  bottom: "inception_4a/output"
  top: "inception_4b/5x5_reduce"
  param {
    lr_mult: 1
    decay_mult: 1
  }
  param {
    lr_mult: 2
    decay_mult: 0
  }
  convolution_param {
    num_output: 24
    kernel_size: 1
    weight_filler {
      type: "xavier"
      std: 0.2
    }
    bias_filler {
      type: "constant"
      value: 0.2
    }
  }
}
layer {
  name: "inception_4b/relu_5x5_reduce"
  type: "ReLU"
  bottom: "inception_4b/5x5_reduce"
  top: "inception_4b/5x5_reduce"
}
layer {
  name: "inception_4b/5x5"
  type: "Convolution"
  bottom: "inception_4b/5x5_reduce"
  top: "inception_4b/5x5"
  param {
    lr_mult: 1
    decay_mult: 1
  }
  param {
    lr_mult: 2
    decay_mult: 0
  }
  convolution_param {
    num_output: 64
    pad: 2
    kernel_size: 5
    weight_filler {
      type: "xavier"
      std: 0.03
    }
    bias_filler {
      type: "constant"
      value: 0.2
    }
  }
}
layer {
  name: "inception_4b/relu_5x5"
  type: "ReLU"
  bottom: "inception_4b/5x5"
  top: "inception_4b/5x5"
}
layer {
  name: "inception_4b/pool"
  type: "Pooling"
  bottom: "inception_4a/output"
  top: "inception_4b/pool"
  pooling_param {
    pool: MAX
    kernel_size: 3
    stride: 1
    pad: 1
  }
}
layer {
  name: "inception_4b/pool_proj"
  type: "Convolution"
  bottom: "inception_4b/pool"
  top: "inception_4b/pool_proj"
  param {
    lr_mult: 1
    decay_mult: 1
  }
  param {
    lr_mult: 2
    decay_mult: 0
  }
  convolution_param {
    num_output: 64
    kernel_size: 1
    weight_filler {
      type: "xavier"
      std: 0.1
    }
    bias_filler {
      type: "constant"
      value: 0.2
    }
  }
}
layer {
  name: "inception_4b/relu_pool_proj"
  type: "ReLU"
  bottom: "inception_4b/pool_proj"
  top: "inception_4b/pool_proj"
}
layer {
  name: "inception_4b/output"
  type: "Concat"
  bottom: "inception_4b/1x1"
  bottom: "inception_4b/3x3"
  bottom: "inception_4b/5x5"
  bottom: "inception_4b/pool_proj"
  top: "inception_4b/output"
}
layer {
  name: "inception_4c/1x1"
  type: "Convolution"
  bottom: "inception_4b/output"
  top: "inception_4c/1x1"
  param {
    lr_mult: 1
    decay_mult: 1
  }
  param {
    lr_mult: 2
    decay_mult: 0
  }
  convolution_param {
    num_output: 128
    kernel_size: 1
    weight_filler {
      type: "xavier"
      std: 0.03
    }
    bias_filler {
      type: "constant"
      value: 0.2
    }
  }
}
layer {
  name: "inception_4c/relu_1x1"
  type: "ReLU"
  bottom: "inception_4c/1x1"
  top: "inception_4c/1x1"
}
layer {
  name: "inception_4c/3x3_reduce"
  type: "Convolution"
  bottom: "inception_4b/output"
  top: "inception_4c/3x3_reduce"
  param {
    lr_mult: 1
    decay_mult: 1
  }
  param {
    lr_mult: 2
    decay_mult: 0
  }
  convolution_param {
    num_output: 128
    kernel_size: 1
    weight_filler {
      type: "xavier"
      std: 0.09
    }
    bias_filler {
      type: "constant"
      value: 0.2
    }
  }
}
layer {
  name: "inception_4c/relu_3x3_reduce"
  type: "ReLU"
  bottom: "inception_4c/3x3_reduce"
  top: "inception_4c/3x3_reduce"
}
layer {
  name: "inception_4c/3x3"
  type: "Convolution"
  bottom: "inception_4c/3x3_reduce"
  top: "inception_4c/3x3"
  param {
    lr_mult: 1
    decay_mult: 1
  }
  param {
    lr_mult: 2
    decay_mult: 0
  }
  convolution_param {
    num_output: 256
    pad: 1
    kernel_size: 3
    weight_filler {
      type: "xavier"
      std: 0.03
    }
    bias_filler {
      type: "constant"
      value: 0.2
    }
  }
}
layer {
  name: "inception_4c/relu_3x3"
  type: "ReLU"
  bottom: "inception_4c/3x3"
  top: "inception_4c/3x3"
}
layer {
  name: "inception_4c/5x5_reduce"
  type: "Convolution"
  bottom: "inception_4b/output"
  top: "inception_4c/5x5_reduce"
  param {
    lr_mult: 1
    decay_mult: 1
  }
  param {
    lr_mult: 2
    decay_mult: 0
  }
  convolution_param {
    num_output: 24
    kernel_size: 1
    weight_filler {
      type: "xavier"
      std: 0.2
    }
    bias_filler {
      type: "constant"
      value: 0.2
    }
  }
}
layer {
  name: "inception_4c/relu_5x5_reduce"
  type: "ReLU"
  bottom: "inception_4c/5x5_reduce"
  top: "inception_4c/5x5_reduce"
}
layer {
  name: "inception_4c/5x5"
  type: "Convolution"
  bottom: "inception_4c/5x5_reduce"
  top: "inception_4c/5x5"
  param {
    lr_mult: 1
    decay_mult: 1
  }
  param {
    lr_mult: 2
    decay_mult: 0
  }
  convolution_param {
    num_output: 64
    pad: 2
    kernel_size: 5
    weight_filler {
      type: "xavier"
      std: 0.03
    }
    bias_filler {
      type: "constant"
      value: 0.2
    }
  }
}
layer {
  name: "inception_4c/relu_5x5"
  type: "ReLU"
  bottom: "inception_4c/5x5"
  top: "inception_4c/5x5"
}
layer {
  name: "inception_4c/pool"
  type: "Pooling"
  bottom: "inception_4b/output"
  top: "inception_4c/pool"
  pooling_param {
    pool: MAX
    kernel_size: 3
    stride: 1
    pad: 1
  }
}
layer {
  name: "inception_4c/pool_proj"
  type: "Convolution"
  bottom: "inception_4c/pool"
  top: "inception_4c/pool_proj"
  param {
    lr_mult: 1
    decay_mult: 1
  }
  param {
    lr_mult: 2
    decay_mult: 0
  }
  convolution_param {
    num_output: 64
    kernel_size: 1
    weight_filler {
      type: "xavier"
      std: 0.1
    }
    bias_filler {
      type: "constant"
      value: 0.2
    }
  }
}
layer {
  name: "inception_4c/relu_pool_proj"
  type: "ReLU"
  bottom: "inception_4c/pool_proj"
  top: "inception_4c/pool_proj"
}
layer {
  name: "inception_4c/output"
  type: "Concat"
  bottom: "inception_4c/1x1"
  bottom: "inception_4c/3x3"
  bottom: "inception_4c/5x5"
  bottom: "inception_4c/pool_proj"
  top: "inception_4c/output"
}
layer {
  name: "inception_4d/1x1"
  type: "Convolution"
  bottom: "inception_4c/output"
  top: "inception_4d/1x1"
  param {
    lr_mult: 1
    decay_mult: 1
  }
  param {
    lr_mult: 2
    decay_mult: 0
  }
  convolution_param {
    num_output: 112
    kernel_size: 1
    weight_filler {
      type: "xavier"
      std: 0.03
    }
    bias_filler {
      type: "constant"
      value: 0.2
    }
  }
}
layer {
  name: "inception_4d/relu_1x1"
  type: "ReLU"
  bottom: "inception_4d/1x1"
  top: "inception_4d/1x1"
}
layer {
  name: "inception_4d/3x3_reduce"
  type: "Convolution"
  bottom: "inception_4c/output"
  top: "inception_4d/3x3_reduce"
  param {
    lr_mult: 1
    decay_mult: 1
  }
  param {
    lr_mult: 2
    decay_mult: 0
  }
  convolution_param {
    num_output: 144
    kernel_size: 1
    weight_filler {
      type: "xavier"
      std: 0.09
    }
    bias_filler {
      type: "constant"
      value: 0.2
    }
  }
}
layer {
  name: "inception_4d/relu_3x3_reduce"
  type: "ReLU"
  bottom: "inception_4d/3x3_reduce"
  top: "inception_4d/3x3_reduce"
}
layer {
  name: "inception_4d/3x3"
  type: "Convolution"
  bottom: "inception_4d/3x3_reduce"
  top: "inception_4d/3x3"
  param {
    lr_mult: 1
    decay_mult: 1
  }
  param {
    lr_mult: 2
    decay_mult: 0
  }
  convolution_param {
    num_output: 288
    pad: 1
    kernel_size: 3
    weight_filler {
      type: "xavier"
      std: 0.03
    }
    bias_filler {
      type: "constant"
      value: 0.2
    }
  }
}
layer {
  name: "inception_4d/relu_3x3"
  type: "ReLU"
  bottom: "inception_4d/3x3"
  top: "inception_4d/3x3"
}
layer {
  name: "inception_4d/5x5_reduce"
  type: "Convolution"
  bottom: "inception_4c/output"
  top: "inception_4d/5x5_reduce"
  param {
    lr_mult: 1
    decay_mult: 1
  }
  param {
    lr_mult: 2
    decay_mult: 0
  }
  convolution_param {
    num_output: 32
    kernel_size: 1
    weight_filler {
      type: "xavier"
      std: 0.2
    }
    bias_filler {
      type: "constant"
      value: 0.2
    }
  }
}
layer {
  name: "inception_4d/relu_5x5_reduce"
  type: "ReLU"
  bottom: "inception_4d/5x5_reduce"
  top: "inception_4d/5x5_reduce"
}
layer {
  name: "inception_4d/5x5"
  type: "Convolution"
  bottom: "inception_4d/5x5_reduce"
  top: "inception_4d/5x5"
  param {
    lr_mult: 1
    decay_mult: 1
  }
  param {
    lr_mult: 2
    decay_mult: 0
  }
  convolution_param {
    num_output: 64
    pad: 2
    kernel_size: 5
    weight_filler {
      type: "xavier"
      std: 0.03
    }
    bias_filler {
      type: "constant"
      value: 0.2
    }
  }
}
layer {
  name: "inception_4d/relu_5x5"
  type: "ReLU"
  bottom: "inception_4d/5x5"
  top: "inception_4d/5x5"
}
layer {
  name: "inception_4d/pool"
  type: "Pooling"
  bottom: "inception_4c/output"
  top: "inception_4d/pool"
  pooling_param {
    pool: MAX
    kernel_size: 3
    stride: 1
    pad: 1
  }
}
layer {
  name: "inception_4d/pool_proj"
  type: "Convolution"
  bottom: "inception_4d/pool"
  top: "inception_4d/pool_proj"
  param {
    lr_mult: 1
    decay_mult: 1
  }
  param {
    lr_mult: 2
    decay_mult: 0
  }
  convolution_param {
    num_output: 64
    kernel_size: 1
    weight_filler {
      type: "xavier"
      std: 0.1
    }
    bias_filler {
      type: "constant"
      value: 0.2
    }
  }
}
layer {
  name: "inception_4d/relu_pool_proj"
  type: "ReLU"
  bottom: "inception_4d/pool_proj"
  top: "inception_4d/pool_proj"
}
layer {
  name: "inception_4d/output"
  type: "Concat"
  bottom: "inception_4d/1x1"
  bottom: "inception_4d/3x3"
  bottom: "inception_4d/5x5"
  bottom: "inception_4d/pool_proj"
  top: "inception_4d/output"
}
layer {
  name: "loss2/ave_pool"
  type: "Pooling"
  bottom: "inception_4d/output"
  top: "loss2/ave_pool"
  pooling_param {
    pool: AVE
    kernel_size: 5
    stride: 3
  }
}
layer {
  name: "loss2/conv"
  type: "Convolution"
  bottom: "loss2/ave_pool"
  top: "loss2/conv"
  param {
    lr_mult: 1
    decay_mult: 1
  }
  param {
    lr_mult: 2
    decay_mult: 0
  }
  convolution_param {
    num_output: 128
    kernel_size: 1
    weight_filler {
      type: "xavier"
      std: 0.08
    }
    bias_filler {
      type: "constant"
      value: 0.2
    }
  }
}
layer {
  name: "loss2/relu_conv"
  type: "ReLU"
  bottom: "loss2/conv"
  top: "loss2/conv"
}
layer {
  name: "loss2/fc"
  type: "InnerProduct"
  bottom: "loss2/conv"
  top: "loss2/fc"
  param {
    lr_mult: 1
    decay_mult: 1
  }
  param {
    lr_mult: 2
    decay_mult: 0
  }
  inner_product_param {
    num_output: 1024
    weight_filler {
      type: "xavier"
      std: 0.02
    }
    bias_filler {
      type: "constant"
      value: 0.2
    }
  }
}
layer {
  name: "loss2/relu_fc"
  type: "ReLU"
  bottom: "loss2/fc"
  top: "loss2/fc"
}
layer {
  name: "loss2/drop_fc"
  type: "Dropout"
  bottom: "loss2/fc"
  top: "loss2/fc"
  dropout_param {
    dropout_ratio: 0.7
  }
}
layer {
  name: "loss2/classifier_plantvillage"
  type: "InnerProduct"
  bottom: "loss2/fc"
  top: "loss2/classifier_plantvillage"
  param {
    lr_mult: 1
    decay_mult: 1
  }
  param {
    lr_mult: 2
    decay_mult: 0
  }
  inner_product_param {
    num_output: 38
    weight_filler {
      type: "xavier"
      std: 0.0009765625
    }
    bias_filler {
      type: "constant"
      value: 0
    }
  }
}
layer {
  name: "inception_4e/1x1"
  type: "Convolution"
  bottom: "inception_4d/output"
  top: "inception_4e/1x1"
  param {
    lr_mult: 1
    decay_mult: 1
  }
  param {
    lr_mult: 2
    decay_mult: 0
  }
  convolution_param {
    num_output: 256
    kernel_size: 1
    weight_filler {
      type: "xavier"
      std: 0.03
    }
    bias_filler {
      type: "constant"
      value: 0.2
    }
  }
}
layer {
  name: "inception_4e/relu_1x1"
  type: "ReLU"
  bottom: "inception_4e/1x1"
  top: "inception_4e/1x1"
}
layer {
  name: "inception_4e/3x3_reduce"
  type: "Convolution"
  bottom: "inception_4d/output"
  top: "inception_4e/3x3_reduce"
  param {
    lr_mult: 1
    decay_mult: 1
  }
  param {
    lr_mult: 2
    decay_mult: 0
  }
  convolution_param {
    num_output: 160
    kernel_size: 1
    weight_filler {
      type: "xavier"
      std: 0.09
    }
    bias_filler {
      type: "constant"
      value: 0.2
    }
  }
}
layer {
  name: "inception_4e/relu_3x3_reduce"
  type: "ReLU"
  bottom: "inception_4e/3x3_reduce"
  top: "inception_4e/3x3_reduce"
}
layer {
  name: "inception_4e/3x3"
  type: "Convolution"
  bottom: "inception_4e/3x3_reduce"
  top: "inception_4e/3x3"
  param {
    lr_mult: 1
    decay_mult: 1
  }
  param {
    lr_mult: 2
    decay_mult: 0
  }
  convolution_param {
    num_output: 320
    pad: 1
    kernel_size: 3
    weight_filler {
      type: "xavier"
      std: 0.03
    }
    bias_filler {
      type: "constant"
      value: 0.2
    }
  }
}
layer {
  name: "inception_4e/relu_3x3"
  type: "ReLU"
  bottom: "inception_4e/3x3"
  top: "inception_4e/3x3"
}
layer {
  name: "inception_4e/5x5_reduce"
  type: "Convolution"
  bottom: "inception_4d/output"
  top: "inception_4e/5x5_reduce"
  param {
    lr_mult: 1
    decay_mult: 1
  }
  param {
    lr_mult: 2
    decay_mult: 0
  }
  convolution_param {
    num_output: 32
    kernel_size: 1
    weight_filler {
      type: "xavier"
      std: 0.2
    }
    bias_filler {
      type: "constant"
      value: 0.2
    }
  }
}
layer {
  name: "inception_4e/relu_5x5_reduce"
  type: "ReLU"
  bottom: "inception_4e/5x5_reduce"
  top: "inception_4e/5x5_reduce"
}
layer {
  name: "inception_4e/5x5"
  type: "Convolution"
  bottom: "inception_4e/5x5_reduce"
  top: "inception_4e/
I0403 16:32:59.067217 18492 layer_factory.hpp:77] Creating layer data
I0403 16:32:59.067790 18492 net.cpp:91] Creating Layer data
I0403 16:32:59.067821 18492 net.cpp:399] data -> data
I0403 16:32:59.067868 18492 net.cpp:399] data -> label
I0403 16:32:59.067903 18492 data_transformer.cpp:25] Loading mean file from: /home/mohanty/data/final_dataset/lmdb/segmented-20-80/mean.binaryproto
I0403 16:32:59.069097 18495 db_lmdb.cpp:38] Opened lmdb /home/mohanty/data/final_dataset/lmdb/segmented-20-80/test_db
I0403 16:32:59.080376 18492 data_layer.cpp:41] output data size: 24,3,224,224
I0403 16:32:59.106812 18492 net.cpp:141] Setting up data
I0403 16:32:59.106890 18492 net.cpp:148] Top shape: 24 3 224 224 (3612672)
I0403 16:32:59.106914 18492 net.cpp:148] Top shape: 24 (24)
I0403 16:32:59.106930 18492 net.cpp:156] Memory required for data: 14450784
I0403 16:32:59.106957 18492 layer_factory.hpp:77] Creating layer label_data_1_split
I0403 16:32:59.106983 18492 net.cpp:91] Creating Layer label_data_1_split
I0403 16:32:59.107002 18492 net.cpp:425] label_data_1_split <- label
I0403 16:32:59.107031 18492 net.cpp:399] label_data_1_split -> label_data_1_split_0
I0403 16:32:59.107059 18492 net.cpp:399] label_data_1_split -> label_data_1_split_1
I0403 16:32:59.107081 18492 net.cpp:399] label_data_1_split -> label_data_1_split_2
I0403 16:32:59.107103 18492 net.cpp:399] label_data_1_split -> label_data_1_split_3
I0403 16:32:59.107122 18492 net.cpp:399] label_data_1_split -> label_data_1_split_4
I0403 16:32:59.107141 18492 net.cpp:399] label_data_1_split -> label_data_1_split_5
I0403 16:32:59.107161 18492 net.cpp:399] label_data_1_split -> label_data_1_split_6
I0403 16:32:59.107182 18492 net.cpp:399] label_data_1_split -> label_data_1_split_7
I0403 16:32:59.107200 18492 net.cpp:399] label_data_1_split -> label_data_1_split_8
I0403 16:32:59.107221 18492 net.cpp:399] label_data_1_split -> label_data_1_split_9
I0403 16:32:59.107332 18492 net.cpp:141] Setting up label_data_1_split
I0403 16:32:59.107354 18492 net.cpp:148] Top shape: 24 (24)
I0403 16:32:59.107370 18492 net.cpp:148] Top shape: 24 (24)
I0403 16:32:59.107385 18492 net.cpp:148] Top shape: 24 (24)
I0403 16:32:59.107400 18492 net.cpp:148] Top shape: 24 (24)
I0403 16:32:59.107414 18492 net.cpp:148] Top shape: 24 (24)
I0403 16:32:59.107429 18492 net.cpp:148] Top shape: 24 (24)
I0403 16:32:59.107444 18492 net.cpp:148] Top shape: 24 (24)
I0403 16:32:59.107457 18492 net.cpp:148] Top shape: 24 (24)
I0403 16:32:59.107472 18492 net.cpp:148] Top shape: 24 (24)
I0403 16:32:59.107486 18492 net.cpp:148] Top shape: 24 (24)
I0403 16:32:59.107540 18492 net.cpp:156] Memory required for data: 14451744
I0403 16:32:59.107555 18492 layer_factory.hpp:77] Creating layer conv1/7x7_s2
I0403 16:32:59.107585 18492 net.cpp:91] Creating Layer conv1/7x7_s2
I0403 16:32:59.107607 18492 net.cpp:425] conv1/7x7_s2 <- data
I0403 16:32:59.107632 18492 net.cpp:399] conv1/7x7_s2 -> conv1/7x7_s2
I0403 16:32:59.243623 18492 net.cpp:141] Setting up conv1/7x7_s2
I0403 16:32:59.243700 18492 net.cpp:148] Top shape: 24 64 112 112 (19267584)
I0403 16:32:59.243717 18492 net.cpp:156] Memory required for data: 91522080
I0403 16:32:59.243746 18492 layer_factory.hpp:77] Creating layer conv1/relu_7x7
I0403 16:32:59.243772 18492 net.cpp:91] Creating Layer conv1/relu_7x7
I0403 16:32:59.243788 18492 net.cpp:425] conv1/relu_7x7 <- conv1/7x7_s2
I0403 16:32:59.243809 18492 net.cpp:386] conv1/relu_7x7 -> conv1/7x7_s2 (in-place)
I0403 16:32:59.244068 18492 net.cpp:141] Setting up conv1/relu_7x7
I0403 16:32:59.244093 18492 net.cpp:148] Top shape: 24 64 112 112 (19267584)
I0403 16:32:59.244108 18492 net.cpp:156] Memory required for data: 168592416
I0403 16:32:59.244122 18492 layer_factory.hpp:77] Creating layer pool1/3x3_s2
I0403 16:32:59.244146 18492 net.cpp:91] Creating Layer pool1/3x3_s2
I0403 16:32:59.244164 18492 net.cpp:425] pool1/3x3_s2 <- conv1/7x7_s2
I0403 16:32:59.244181 18492 net.cpp:399] pool1/3x3_s2 -> pool1/3x3_s2
I0403 16:32:59.244254 18492 net.cpp:141] Setting up pool1/3x3_s2
I0403 16:32:59.244278 18492 net.cpp:148] Top shape: 24 64 56 56 (4816896)
I0403 16:32:59.244292 18492 net.cpp:156] Memory required for data: 187860000
I0403 16:32:59.244305 18492 layer_factory.hpp:77] Creating layer pool1/norm1
I0403 16:32:59.244329 18492 net.cpp:91] Creating Layer pool1/norm1
I0403 16:32:59.244346 18492 net.cpp:425] pool1/norm1 <- pool1/3x3_s2
I0403 16:32:59.244362 18492 net.cpp:399] pool1/norm1 -> pool1/norm1
I0403 16:32:59.244648 18492 net.cpp:141] Setting up pool1/norm1
I0403 16:32:59.244674 18492 net.cpp:148] Top shape: 24 64 56 56 (4816896)
I0403 16:32:59.244688 18492 net.cpp:156] Memory required for data: 207127584
I0403 16:32:59.244704 18492 layer_factory.hpp:77] Creating layer conv2/3x3_reduce
I0403 16:32:59.244729 18492 net.cpp:91] Creating Layer conv2/3x3_reduce
I0403 16:32:59.244745 18492 net.cpp:425] conv2/3x3_reduce <- pool1/norm1
I0403 16:32:59.244763 18492 net.cpp:399] conv2/3x3_reduce -> conv2/3x3_reduce
I0403 16:32:59.246071 18492 net.cpp:141] Setting up conv2/3x3_reduce
I0403 16:32:59.246101 18492 net.cpp:148] Top shape: 24 64 56 56 (4816896)
I0403 16:32:59.246116 18492 net.cpp:156] Memory required for data: 226395168
I0403 16:32:59.246135 18492 layer_factory.hpp:77] Creating layer conv2/relu_3x3_reduce
I0403 16:32:59.246153 18492 net.cpp:91] Creating Layer conv2/relu_3x3_reduce
I0403 16:32:59.246168 18492 net.cpp:425] conv2/relu_3x3_reduce <- conv2/3x3_reduce
I0403 16:32:59.246189 18492 net.cpp:386] conv2/relu_3x3_reduce -> conv2/3x3_reduce (in-place)
I0403 16:32:59.246440 18492 net.cpp:141] Setting up conv2/relu_3x3_reduce
I0403 16:32:59.246464 18492 net.cpp:148] Top shape: 24 64 56 56 (4816896)
I0403 16:32:59.246479 18492 net.cpp:156] Memory required for data: 245662752
I0403 16:32:59.246493 18492 layer_factory.hpp:77] Creating layer conv2/3x3
I0403 16:32:59.246515 18492 net.cpp:91] Creating Layer conv2/3x3
I0403 16:32:59.246532 18492 net.cpp:425] conv2/3x3 <- conv2/3x3_reduce
I0403 16:32:59.246552 18492 net.cpp:399] conv2/3x3 -> conv2/3x3
I0403 16:32:59.248725 18492 net.cpp:141] Setting up conv2/3x3
I0403 16:32:59.248754 18492 net.cpp:148] Top shape: 24 192 56 56 (14450688)
I0403 16:32:59.248769 18492 net.cpp:156] Memory required for data: 303465504
I0403 16:32:59.248790 18492 layer_factory.hpp:77] Creating layer conv2/relu_3x3
I0403 16:32:59.248807 18492 net.cpp:91] Creating Layer conv2/relu_3x3
I0403 16:32:59.248822 18492 net.cpp:425] conv2/relu_3x3 <- conv2/3x3
I0403 16:32:59.248841 18492 net.cpp:386] conv2/relu_3x3 -> conv2/3x3 (in-place)
I0403 16:32:59.249002 18492 net.cpp:141] Setting up conv2/relu_3x3
I0403 16:32:59.249027 18492 net.cpp:148] Top shape: 24 192 56 56 (14450688)
I0403 16:32:59.249081 18492 net.cpp:156] Memory required for data: 361268256
I0403 16:32:59.249095 18492 layer_factory.hpp:77] Creating layer conv2/norm2
I0403 16:32:59.249114 18492 net.cpp:91] Creating Layer conv2/norm2
I0403 16:32:59.249130 18492 net.cpp:425] conv2/norm2 <- conv2/3x3
I0403 16:32:59.249146 18492 net.cpp:399] conv2/norm2 -> conv2/norm2
I0403 16:32:59.249434 18492 net.cpp:141] Setting up conv2/norm2
I0403 16:32:59.249462 18492 net.cpp:148] Top shape: 24 192 56 56 (14450688)
I0403 16:32:59.249478 18492 net.cpp:156] Memory required for data: 419071008
I0403 16:32:59.249492 18492 layer_factory.hpp:77] Creating layer pool2/3x3_s2
I0403 16:32:59.249508 18492 net.cpp:91] Creating Layer pool2/3x3_s2
I0403 16:32:59.249523 18492 net.cpp:425] pool2/3x3_s2 <- conv2/norm2
I0403 16:32:59.249539 18492 net.cpp:399] pool2/3x3_s2 -> pool2/3x3_s2
I0403 16:32:59.249588 18492 net.cpp:141] Setting up pool2/3x3_s2
I0403 16:32:59.249614 18492 net.cpp:148] Top shape: 24 192 28 28 (3612672)
I0403 16:32:59.249629 18492 net.cpp:156] Memory required for data: 433521696
I0403 16:32:59.249642 18492 layer_factory.hpp:77] Creating layer pool2/3x3_s2_pool2/3x3_s2_0_split
I0403 16:32:59.249660 18492 net.cpp:91] Creating Layer pool2/3x3_s2_pool2/3x3_s2_0_split
I0403 16:32:59.249673 18492 net.cpp:425] pool2/3x3_s2_pool2/3x3_s2_0_split <- pool2/3x3_s2
I0403 16:32:59.249691 18492 net.cpp:399] pool2/3x3_s2_pool2/3x3_s2_0_split -> pool2/3x3_s2_pool2/3x3_s2_0_split_0
I0403 16:32:59.249711 18492 net.cpp:399] pool2/3x3_s2_pool2/3x3_s2_0_split -> pool2/3x3_s2_pool2/3x3_s2_0_split_1
I0403 16:32:59.249732 18492 net.cpp:399] pool2/3x3_s2_pool2/3x3_s2_0_split -> pool2/3x3_s2_pool2/3x3_s2_0_split_2
I0403 16:32:59.249752 18492 net.cpp:399] pool2/3x3_s2_pool2/3x3_s2_0_split -> pool2/3x3_s2_pool2/3x3_s2_0_split_3
I0403 16:32:59.249819 18492 net.cpp:141] Setting up pool2/3x3_s2_pool2/3x3_s2_0_split
I0403 16:32:59.249840 18492 net.cpp:148] Top shape: 24 192 28 28 (3612672)
I0403 16:32:59.249855 18492 net.cpp:148] Top shape: 24 192 28 28 (3612672)
I0403 16:32:59.249868 18492 net.cpp:148] Top shape: 24 192 28 28 (3612672)
I0403 16:32:59.249883 18492 net.cpp:148] Top shape: 24 192 28 28 (3612672)
I0403 16:32:59.249897 18492 net.cpp:156] Memory required for data: 491324448
I0403 16:32:59.249909 18492 layer_factory.hpp:77] Creating layer inception_3a/1x1
I0403 16:32:59.249930 18492 net.cpp:91] Creating Layer inception_3a/1x1
I0403 16:32:59.249946 18492 net.cpp:425] inception_3a/1x1 <- pool2/3x3_s2_pool2/3x3_s2_0_split_0
I0403 16:32:59.249966 18492 net.cpp:399] inception_3a/1x1 -> inception_3a/1x1
I0403 16:32:59.251410 18492 net.cpp:141] Setting up inception_3a/1x1
I0403 16:32:59.251441 18492 net.cpp:148] Top shape: 24 64 28 28 (1204224)
I0403 16:32:59.251457 18492 net.cpp:156] Memory required for data: 496141344
I0403 16:32:59.251474 18492 layer_factory.hpp:77] Creating layer inception_3a/relu_1x1
I0403 16:32:59.251492 18492 net.cpp:91] Creating Layer inception_3a/relu_1x1
I0403 16:32:59.251507 18492 net.cpp:425] inception_3a/relu_1x1 <- inception_3a/1x1
I0403 16:32:59.251528 18492 net.cpp:386] inception_3a/relu_1x1 -> inception_3a/1x1 (in-place)
I0403 16:32:59.251693 18492 net.cpp:141] Setting up inception_3a/relu_1x1
I0403 16:32:59.251718 18492 net.cpp:148] Top shape: 24 64 28 28 (1204224)
I0403 16:32:59.251731 18492 net.cpp:156] Memory required for data: 500958240
I0403 16:32:59.251745 18492 layer_factory.hpp:77] Creating layer inception_3a/3x3_reduce
I0403 16:32:59.251765 18492 net.cpp:91] Creating Layer inception_3a/3x3_reduce
I0403 16:32:59.251782 18492 net.cpp:425] inception_3a/3x3_reduce <- pool2/3x3_s2_pool2/3x3_s2_0_split_1
I0403 16:32:59.251801 18492 net.cpp:399] inception_3a/3x3_reduce -> inception_3a/3x3_reduce
I0403 16:32:59.253381 18492 net.cpp:141] Setting up inception_3a/3x3_reduce
I0403 16:32:59.253409 18492 net.cpp:148] Top shape: 24 96 28 28 (1806336)
I0403 16:32:59.253424 18492 net.cpp:156] Memory required for data: 508183584
I0403 16:32:59.253443 18492 layer_factory.hpp:77] Creating layer inception_3a/relu_3x3_reduce
I0403 16:32:59.253479 18492 net.cpp:91] Creating Layer inception_3a/relu_3x3_reduce
I0403 16:32:59.253496 18492 net.cpp:425] inception_3a/relu_3x3_reduce <- inception_3a/3x3_reduce
I0403 16:32:59.253514 18492 net.cpp:386] inception_3a/relu_3x3_reduce -> inception_3a/3x3_reduce (in-place)
I0403 16:32:59.253682 18492 net.cpp:141] Setting up inception_3a/relu_3x3_reduce
I0403 16:32:59.253710 18492 net.cpp:148] Top shape: 24 96 28 28 (1806336)
I0403 16:32:59.253726 18492 net.cpp:156] Memory required for data: 515408928
I0403 16:32:59.253739 18492 layer_factory.hpp:77] Creating layer inception_3a/3x3
I0403 16:32:59.253759 18492 net.cpp:91] Creating Layer inception_3a/3x3
I0403 16:32:59.253777 18492 net.cpp:425] inception_3a/3x3 <- inception_3a/3x3_reduce
I0403 16:32:59.253794 18492 net.cpp:399] inception_3a/3x3 -> inception_3a/3x3
I0403 16:32:59.255331 18492 net.cpp:141] Setting up inception_3a/3x3
I0403 16:32:59.255358 18492 net.cpp:148] Top shape: 24 128 28 28 (2408448)
I0403 16:32:59.255374 18492 net.cpp:156] Memory required for data: 525042720
I0403 16:32:59.255391 18492 layer_factory.hpp:77] Creating layer inception_3a/relu_3x3
I0403 16:32:59.255409 18492 net.cpp:91] Creating Layer inception_3a/relu_3x3
I0403 16:32:59.255455 18492 net.cpp:425] inception_3a/relu_3x3 <- inception_3a/3x3
I0403 16:32:59.255472 18492 net.cpp:386] inception_3a/relu_3x3 -> inception_3a/3x3 (in-place)
I0403 16:32:59.255749 18492 net.cpp:141] Setting up inception_3a/relu_3x3
I0403 16:32:59.255774 18492 net.cpp:148] Top shape: 24 128 28 28 (2408448)
I0403 16:32:59.255789 18492 net.cpp:156] Memory required for data: 534676512
I0403 16:32:59.255802 18492 layer_factory.hpp:77] Creating layer inception_3a/5x5_reduce
I0403 16:32:59.255823 18492 net.cpp:91] Creating Layer inception_3a/5x5_reduce
I0403 16:32:59.255839 18492 net.cpp:425] inception_3a/5x5_reduce <- pool2/3x3_s2_pool2/3x3_s2_0_split_2
I0403 16:32:59.255859 18492 net.cpp:399] inception_3a/5x5_reduce -> inception_3a/5x5_reduce
I0403 16:32:59.256748 18492 net.cpp:141] Setting up inception_3a/5x5_reduce
I0403 16:32:59.256775 18492 net.cpp:148] Top shape: 24 16 28 28 (301056)
I0403 16:32:59.256790 18492 net.cpp:156] Memory required for data: 535880736
I0403 16:32:59.256808 18492 layer_factory.hpp:77] Creating layer inception_3a/relu_5x5_reduce
I0403 16:32:59.256826 18492 net.cpp:91] Creating Layer inception_3a/relu_5x5_reduce
I0403 16:32:59.256842 18492 net.cpp:425] inception_3a/relu_5x5_reduce <- inception_3a/5x5_reduce
I0403 16:32:59.256858 18492 net.cpp:386] inception_3a/relu_5x5_reduce -> inception_3a/5x5_reduce (in-place)
I0403 16:32:59.257128 18492 net.cpp:141] Setting up inception_3a/relu_5x5_reduce
I0403 16:32:59.257153 18492 net.cpp:148] Top shape: 24 16 28 28 (301056)
I0403 16:32:59.257167 18492 net.cpp:156] Memory required for data: 537084960
I0403 16:32:59.257180 18492 layer_factory.hpp:77] Creating layer inception_3a/5x5
I0403 16:32:59.257205 18492 net.cpp:91] Creating Layer inception_3a/5x5
I0403 16:32:59.257220 18492 net.cpp:425] inception_3a/5x5 <- inception_3a/5x5_reduce
I0403 16:32:59.257239 18492 net.cpp:399] inception_3a/5x5 -> inception_3a/5x5
I0403 16:32:59.258177 18492 net.cpp:141] Setting up inception_3a/5x5
I0403 16:32:59.258205 18492 net.cpp:148] Top shape: 24 32 28 28 (602112)
I0403 16:32:59.258220 18492 net.cpp:156] Memory required for data: 539493408
I0403 16:32:59.258239 18492 layer_factory.hpp:77] Creating layer inception_3a/relu_5x5
I0403 16:32:59.258255 18492 net.cpp:91] Creating Layer inception_3a/relu_5x5
I0403 16:32:59.258270 18492 net.cpp:425] inception_3a/relu_5x5 <- inception_3a/5x5
I0403 16:32:59.258288 18492 net.cpp:386] inception_3a/relu_5x5 -> inception_3a/5x5 (in-place)
I0403 16:32:59.258446 18492 net.cpp:141] Setting up inception_3a/relu_5x5
I0403 16:32:59.258469 18492 net.cpp:148] Top shape: 24 32 28 28 (602112)
I0403 16:32:59.258482 18492 net.cpp:156] Memory required for data: 541901856
I0403 16:32:59.258496 18492 layer_factory.hpp:77] Creating layer inception_3a/pool
I0403 16:32:59.258513 18492 net.cpp:91] Creating Layer inception_3a/pool
I0403 16:32:59.258541 18492 net.cpp:425] inception_3a/pool <- pool2/3x3_s2_pool2/3x3_s2_0_split_3
I0403 16:32:59.258563 18492 net.cpp:399] inception_3a/pool -> inception_3a/pool
I0403 16:32:59.258621 18492 net.cpp:141] Setting up inception_3a/pool
I0403 16:32:59.258644 18492 net.cpp:148] Top shape: 24 192 28 28 (3612672)
I0403 16:32:59.258658 18492 net.cpp:156] Memory required for data: 556352544
I0403 16:32:59.258671 18492 layer_factory.hpp:77] Creating layer inception_3a/pool_proj
I0403 16:32:59.258692 18492 net.cpp:91] Creating Layer inception_3a/pool_proj
I0403 16:32:59.258708 18492 net.cpp:425] inception_3a/pool_proj <- inception_3a/pool
I0403 16:32:59.258728 18492 net.cpp:399] inception_3a/pool_proj -> inception_3a/pool_proj
I0403 16:32:59.259623 18492 net.cpp:141] Setting up inception_3a/pool_proj
I0403 16:32:59.259649 18492 net.cpp:148] Top shape: 24 32 28 28 (602112)
I0403 16:32:59.259665 18492 net.cpp:156] Memory required for data: 558760992
I0403 16:32:59.259686 18492 layer_factory.hpp:77] Creating layer inception_3a/relu_pool_proj
I0403 16:32:59.259707 18492 net.cpp:91] Creating Layer inception_3a/relu_pool_proj
I0403 16:32:59.259722 18492 net.cpp:425] inception_3a/relu_pool_proj <- inception_3a/pool_proj
I0403 16:32:59.259739 18492 net.cpp:386] inception_3a/relu_pool_proj -> inception_3a/pool_proj (in-place)
I0403 16:32:59.259997 18492 net.cpp:141] Setting up inception_3a/relu_pool_proj
I0403 16:32:59.260022 18492 net.cpp:148] Top shape: 24 32 28 28 (602112)
I0403 16:32:59.260037 18492 net.cpp:156] Memory required for data: 561169440
I0403 16:32:59.260051 18492 layer_factory.hpp:77] Creating layer inception_3a/output
I0403 16:32:59.260067 18492 net.cpp:91] Creating Layer inception_3a/output
I0403 16:32:59.260082 18492 net.cpp:425] inception_3a/output <- inception_3a/1x1
I0403 16:32:59.260097 18492 net.cpp:425] inception_3a/output <- inception_3a/3x3
I0403 16:32:59.260112 18492 net.cpp:425] inception_3a/output <- inception_3a/5x5
I0403 16:32:59.260128 18492 net.cpp:425] inception_3a/output <- inception_3a/pool_proj
I0403 16:32:59.260145 18492 net.cpp:399] inception_3a/output -> inception_3a/output
I0403 16:32:59.260188 18492 net.cpp:141] Setting up inception_3a/output
I0403 16:32:59.260212 18492 net.cpp:148] Top shape: 24 256 28 28 (4816896)
I0403 16:32:59.260227 18492 net.cpp:156] Memory required for data: 580437024
I0403 16:32:59.260241 18492 layer_factory.hpp:77] Creating layer inception_3a/output_inception_3a/output_0_split
I0403 16:32:59.260257 18492 net.cpp:91] Creating Layer inception_3a/output_inception_3a/output_0_split
I0403 16:32:59.260272 18492 net.cpp:425] inception_3a/output_inception_3a/output_0_split <- inception_3a/output
I0403 16:32:59.260287 18492 net.cpp:399] inception_3a/output_inception_3a/output_0_split -> inception_3a/output_inception_3a/output_0_split_0
I0403 16:32:59.260308 18492 net.cpp:399] inception_3a/output_inception_3a/output_0_split -> inception_3a/output_inception_3a/output_0_split_1
I0403 16:32:59.260329 18492 net.cpp:399] inception_3a/output_inception_3a/output_0_split -> inception_3a/output_inception_3a/output_0_split_2
I0403 16:32:59.260349 18492 net.cpp:399] inception_3a/output_inception_3a/output_0_split -> inception_3a/output_inception_3a/output_0_split_3
I0403 16:32:59.260416 18492 net.cpp:141] Setting up inception_3a/output_inception_3a/output_0_split
I0403 16:32:59.260439 18492 net.cpp:148] Top shape: 24 256 28 28 (4816896)
I0403 16:32:59.260455 18492 net.cpp:148] Top shape: 24 256 28 28 (4816896)
I0403 16:32:59.260470 18492 net.cpp:148] Top shape: 24 256 28 28 (4816896)
I0403 16:32:59.260484 18492 net.cpp:148] Top shape: 24 256 28 28 (4816896)
I0403 16:32:59.260498 18492 net.cpp:156] Memory required for data: 657507360
I0403 16:32:59.260510 18492 layer_factory.hpp:77] Creating layer inception_3b/1x1
I0403 16:32:59.260530 18492 net.cpp:91] Creating Layer inception_3b/1x1
I0403 16:32:59.260547 18492 net.cpp:425] inception_3b/1x1 <- inception_3a/output_inception_3a/output_0_split_0
I0403 16:32:59.260566 18492 net.cpp:399] inception_3b/1x1 -> inception_3b/1x1
I0403 16:32:59.261634 18492 net.cpp:141] Setting up inception_3b/1x1
I0403 16:32:59.261674 18492 net.cpp:148] Top shape: 24 128 28 28 (2408448)
I0403 16:32:59.261690 18492 net.cpp:156] Memory required for data: 667141152
I0403 16:32:59.261708 18492 layer_factory.hpp:77] Creating layer inception_3b/relu_1x1
I0403 16:32:59.261724 18492 net.cpp:91] Creating Layer inception_3b/relu_1x1
I0403 16:32:59.261739 18492 net.cpp:425] inception_3b/relu_1x1 <- inception_3b/1x1
I0403 16:32:59.261754 18492 net.cpp:386] inception_3b/relu_1x1 -> inception_3b/1x1 (in-place)
I0403 16:32:59.261919 18492 net.cpp:141] Setting up inception_3b/relu_1x1
I0403 16:32:59.261941 18492 net.cpp:148] Top shape: 24 128 28 28 (2408448)
I0403 16:32:59.261955 18492 net.cpp:156] Memory required for data: 676774944
I0403 16:32:59.261968 18492 layer_factory.hpp:77] Creating layer inception_3b/3x3_reduce
I0403 16:32:59.261989 18492 net.cpp:91] Creating Layer inception_3b/3x3_reduce
I0403 16:32:59.262006 18492 net.cpp:425] inception_3b/3x3_reduce <- inception_3a/output_inception_3a/output_0_split_1
I0403 16:32:59.262025 18492 net.cpp:399] inception_3b/3x3_reduce -> inception_3b/3x3_reduce
I0403 16:32:59.263109 18492 net.cpp:141] Setting up inception_3b/3x3_reduce
I0403 16:32:59.263137 18492 net.cpp:148] Top shape: 24 128 28 28 (2408448)
I0403 16:32:59.263152 18492 net.cpp:156] Memory required for data: 686408736
I0403 16:32:59.263170 18492 layer_factory.hpp:77] Creating layer inception_3b/relu_3x3_reduce
I0403 16:32:59.263186 18492 net.cpp:91] Creating Layer inception_3b/relu_3x3_reduce
I0403 16:32:59.263201 18492 net.cpp:425] inception_3b/relu_3x3_reduce <- inception_3b/3x3_reduce
I0403 16:32:59.263221 18492 net.cpp:386] inception_3b/relu_3x3_reduce -> inception_3b/3x3_reduce (in-place)
I0403 16:32:59.263383 18492 net.cpp:141] Setting up inception_3b/relu_3x3_reduce
I0403 16:32:59.263406 18492 net.cpp:148] Top shape: 24 128 28 28 (2408448)
I0403 16:32:59.263420 18492 net.cpp:156] Memory required for data: 696042528
I0403 16:32:59.263433 18492 layer_factory.hpp:77] Creating layer inception_3b/3x3
I0403 16:32:59.263458 18492 net.cpp:91] Creating Layer inception_3b/3x3
I0403 16:32:59.263474 18492 net.cpp:425] inception_3b/3x3 <- inception_3b/3x3_reduce
I0403 16:32:59.263492 18492 net.cpp:399] inception_3b/3x3 -> inception_3b/3x3
I0403 16:32:59.266248 18492 net.cpp:141] Setting up inception_3b/3x3
I0403 16:32:59.266278 18492 net.cpp:148] Top shape: 24 192 28 28 (3612672)
I0403 16:32:59.266294 18492 net.cpp:156] Memory required for data: 710493216
I0403 16:32:59.266310 18492 layer_factory.hpp:77] Creating layer inception_3b/relu_3x3
I0403 16:32:59.266326 18492 net.cpp:91] Creating Layer inception_3b/relu_3x3
I0403 16:32:59.266341 18492 net.cpp:425] inception_3b/relu_3x3 <- inception_3b/3x3
I0403 16:32:59.266360 18492 net.cpp:386] inception_3b/relu_3x3 -> inception_3b/3x3 (in-place)
I0403 16:32:59.266633 18492 net.cpp:141] Setting up inception_3b/relu_3x3
I0403 16:32:59.266669 18492 net.cpp:148] Top shape: 24 192 28 28 (3612672)
I0403 16:32:59.266685 18492 net.cpp:156] Memory required for data: 724943904
I0403 16:32:59.266698 18492 layer_factory.hpp:77] Creating layer inception_3b/5x5_reduce
I0403 16:32:59.266721 18492 net.cpp:91] Creating Layer inception_3b/5x5_reduce
I0403 16:32:59.266738 18492 net.cpp:425] inception_3b/5x5_reduce <- inception_3a/output_inception_3a/output_0_split_2
I0403 16:32:59.266758 18492 net.cpp:399] inception_3b/5x5_reduce -> inception_3b/5x5_reduce
I0403 16:32:59.267709 18492 net.cpp:141] Setting up inception_3b/5x5_reduce
I0403 16:32:59.267737 18492 net.cpp:148] Top shape: 24 32 28 28 (602112)
I0403 16:32:59.267753 18492 net.cpp:156] Memory required for data: 727352352
I0403 16:32:59.267771 18492 layer_factory.hpp:77] Creating layer inception_3b/relu_5x5_reduce
I0403 16:32:59.267787 18492 net.cpp:91] Creating Layer inception_3b/relu_5x5_reduce
I0403 16:32:59.267802 18492 net.cpp:425] inception_3b/relu_5x5_reduce <- inception_3b/5x5_reduce
I0403 16:32:59.267819 18492 net.cpp:386] inception_3b/relu_5x5_reduce -> inception_3b/5x5_reduce (in-place)
I0403 16:32:59.268002 18492 net.cpp:141] Setting up inception_3b/relu_5x5_reduce
I0403 16:32:59.268024 18492 net.cpp:148] Top shape: 24 32 28 28 (602112)
I0403 16:32:59.268038 18492 net.cpp:156] Memory required for data: 729760800
I0403 16:32:59.268052 18492 layer_factory.hpp:77] Creating layer inception_3b/5x5
I0403 16:32:59.268074 18492 net.cpp:91] Creating Layer inception_3b/5x5
I0403 16:32:59.268090 18492 net.cpp:425] inception_3b/5x5 <- inception_3b/5x5_reduce
I0403 16:32:59.268108 18492 net.cpp:399] inception_3b/5x5 -> inception_3b/5x5
I0403 16:32:59.269968 18492 net.cpp:141] Setting up inception_3b/5x5
I0403 16:32:59.269996 18492 net.cpp:148] Top shape: 24 96 28 28 (1806336)
I0403 16:32:59.270014 18492 net.cpp:156] Memory required for data: 736986144
I0403 16:32:59.270030 18492 layer_factory.hpp:77] Creating layer inception_3b/relu_5x5
I0403 16:32:59.270048 18492 net.cpp:91] Creating Layer inception_3b/relu_5x5
I0403 16:32:59.270063 18492 net.cpp:425] inception_3b/relu_5x5 <- inception_3b/5x5
I0403 16:32:59.270081 18492 net.cpp:386] inception_3b/relu_5x5 -> inception_3b/5x5 (in-place)
I0403 16:32:59.270262 18492 net.cpp:141] Setting up inception_3b/relu_5x5
I0403 16:32:59.270284 18492 net.cpp:148] Top shape: 24 96 28 28 (1806336)
I0403 16:32:59.270298 18492 net.cpp:156] Memory required for data: 744211488
I0403 16:32:59.270313 18492 layer_factory.hpp:77] Creating layer inception_3b/pool
I0403 16:32:59.270329 18492 net.cpp:91] Creating Layer inception_3b/pool
I0403 16:32:59.270344 18492 net.cpp:425] inception_3b/pool <- inception_3a/output_inception_3a/output_0_split_3
I0403 16:32:59.270360 18492 net.cpp:399] inception_3b/pool -> inception_3b/pool
I0403 16:32:59.270412 18492 net.cpp:141] Setting up inception_3b/pool
I0403 16:32:59.270434 18492 net.cpp:148] Top shape: 24 256 28 28 (4816896)
I0403 16:32:59.270447 18492 net.cpp:156] Memory required for data: 763479072
I0403 16:32:59.270460 18492 layer_factory.hpp:77] Creating layer inception_3b/pool_proj
I0403 16:32:59.270483 18492 net.cpp:91] Creating Layer inception_3b/pool_proj
I0403 16:32:59.270499 18492 net.cpp:425] inception_3b/pool_proj <- inception_3b/pool
I0403 16:32:59.270516 18492 net.cpp:399] inception_3b/pool_proj -> inception_3b/pool_proj
I0403 16:32:59.271500 18492 net.cpp:141] Setting up inception_3b/pool_proj
I0403 16:32:59.271528 18492 net.cpp:148] Top shape: 24 64 28 28 (1204224)
I0403 16:32:59.271541 18492 net.cpp:156] Memory required for data: 768295968
I0403 16:32:59.271559 18492 layer_factory.hpp:77] Creating layer inception_3b/relu_pool_proj
I0403 16:32:59.271577 18492 net.cpp:91] Creating Layer inception_3b/relu_pool_proj
I0403 16:32:59.271594 18492 net.cpp:425] inception_3b/relu_pool_proj <- inception_3b/pool_proj
I0403 16:32:59.271617 18492 net.cpp:386] inception_3b/relu_pool_proj -> inception_3b/pool_proj (in-place)
I0403 16:32:59.271984 18492 net.cpp:141] Setting up inception_3b/relu_pool_proj
I0403 16:32:59.272009 18492 net.cpp:148] Top shape: 24 64 28 28 (1204224)
I0403 16:32:59.272023 18492 net.cpp:156] Memory required for data: 773112864
I0403 16:32:59.272037 18492 layer_factory.hpp:77] Creating layer inception_3b/output
I0403 16:32:59.272053 18492 net.cpp:91] Creating Layer inception_3b/output
I0403 16:32:59.272070 18492 net.cpp:425] inception_3b/output <- inception_3b/1x1
I0403 16:32:59.272086 18492 net.cpp:425] inception_3b/output <- inception_3b/3x3
I0403 16:32:59.272101 18492 net.cpp:425] inception_3b/output <- inception_3b/5x5
I0403 16:32:59.272115 18492 net.cpp:425] inception_3b/output <- inception_3b/pool_proj
I0403 16:32:59.272131 18492 net.cpp:399] inception_3b/output -> inception_3b/output
I0403 16:32:59.272171 18492 net.cpp:141] Setting up inception_3b/output
I0403 16:32:59.272194 18492 net.cpp:148] Top shape: 24 480 28 28 (9031680)
I0403 16:32:59.272209 18492 net.cpp:156] Memory required for data: 809239584
I0403 16:32:59.272223 18492 layer_factory.hpp:77] Creating layer pool3/3x3_s2
I0403 16:32:59.272239 18492 net.cpp:91] Creating Layer pool3/3x3_s2
I0403 16:32:59.272253 18492 net.cpp:425] pool3/3x3_s2 <- inception_3b/output
I0403 16:32:59.272287 18492 net.cpp:399] pool3/3x3_s2 -> pool3/3x3_s2
I0403 16:32:59.272341 18492 net.cpp:141] Setting up pool3/3x3_s2
I0403 16:32:59.272366 18492 net.cpp:148] Top shape: 24 480 14 14 (2257920)
I0403 16:32:59.272379 18492 net.cpp:156] Memory required for data: 818271264
I0403 16:32:59.272393 18492 layer_factory.hpp:77] Creating layer pool3/3x3_s2_pool3/3x3_s2_0_split
I0403 16:32:59.272409 18492 net.cpp:91] Creating Layer pool3/3x3_s2_pool3/3x3_s2_0_split
I0403 16:32:59.272423 18492 net.cpp:425] pool3/3x3_s2_pool3/3x3_s2_0_split <- pool3/3x3_s2
I0403 16:32:59.272439 18492 net.cpp:399] pool3/3x3_s2_pool3/3x3_s2_0_split -> pool3/3x3_s2_pool3/3x3_s2_0_split_0
I0403 16:32:59.272456 18492 net.cpp:399] pool3/3x3_s2_pool3/3x3_s2_0_split -> pool3/3x3_s2_pool3/3x3_s2_0_split_1
I0403 16:32:59.272477 18492 net.cpp:399] pool3/3x3_s2_pool3/3x3_s2_0_split -> pool3/3x3_s2_pool3/3x3_s2_0_split_2
I0403 16:32:59.272496 18492 net.cpp:399] pool3/3x3_s2_pool3/3x3_s2_0_split -> pool3/3x3_s2_pool3/3x3_s2_0_split_3
I0403 16:32:59.272567 18492 net.cpp:141] Setting up pool3/3x3_s2_pool3/3x3_s2_0_split
I0403 16:32:59.272588 18492 net.cpp:148] Top shape: 24 480 14 14 (2257920)
I0403 16:32:59.272608 18492 net.cpp:148] Top shape: 24 480 14 14 (2257920)
I0403 16:32:59.272624 18492 net.cpp:148] Top shape: 24 480 14 14 (2257920)
I0403 16:32:59.272639 18492 net.cpp:148] Top shape: 24 480 14 14 (2257920)
I0403 16:32:59.272651 18492 net.cpp:156] Memory required for data: 854397984
I0403 16:32:59.272665 18492 layer_factory.hpp:77] Creating layer inception_4a/1x1
I0403 16:32:59.272686 18492 net.cpp:91] Creating Layer inception_4a/1x1
I0403 16:32:59.272701 18492 net.cpp:425] inception_4a/1x1 <- pool3/3x3_s2_pool3/3x3_s2_0_split_0
I0403 16:32:59.272722 18492 net.cpp:399] inception_4a/1x1 -> inception_4a/1x1
I0403 16:32:59.274188 18492 net.cpp:141] Setting up inception_4a/1x1
I0403 16:32:59.274215 18492 net.cpp:148] Top shape: 24 192 14 14 (903168)
I0403 16:32:59.274230 18492 net.cpp:156] Memory required for data: 858010656
I0403 16:32:59.274247 18492 layer_factory.hpp:77] Creating layer inception_4a/relu_1x1
I0403 16:32:59.274266 18492 net.cpp:91] Creating Layer inception_4a/relu_1x1
I0403 16:32:59.274283 18492 net.cpp:425] inception_4a/relu_1x1 <- inception_4a/1x1
I0403 16:32:59.274299 18492 net.cpp:386] inception_4a/relu_1x1 -> inception_4a/1x1 (in-place)
I0403 16:32:59.274466 18492 net.cpp:141] Setting up inception_4a/relu_1x1
I0403 16:32:59.274492 18492 net.cpp:148] Top shape: 24 192 14 14 (903168)
I0403 16:32:59.274507 18492 net.cpp:156] Memory required for data: 861623328
I0403 16:32:59.274520 18492 layer_factory.hpp:77] Creating layer inception_4a/3x3_reduce
I0403 16:32:59.274540 18492 net.cpp:91] Creating Layer inception_4a/3x3_reduce
I0403 16:32:59.274556 18492 net.cpp:425] inception_4a/3x3_reduce <- pool3/3x3_s2_pool3/3x3_s2_0_split_1
I0403 16:32:59.274574 18492 net.cpp:399] inception_4a/3x3_reduce -> inception_4a/3x3_reduce
I0403 16:32:59.275775 18492 net.cpp:141] Setting up inception_4a/3x3_reduce
I0403 16:32:59.275802 18492 net.cpp:148] Top shape: 24 96 14 14 (451584)
I0403 16:32:59.275817 18492 net.cpp:156] Memory required for data: 863429664
I0403 16:32:59.275840 18492 layer_factory.hpp:77] Creating layer inception_4a/relu_3x3_reduce
I0403 16:32:59.275861 18492 net.cpp:91] Creating Layer inception_4a/relu_3x3_reduce
I0403 16:32:59.275877 18492 net.cpp:425] inception_4a/relu_3x3_reduce <- inception_4a/3x3_reduce
I0403 16:32:59.275894 18492 net.cpp:386] inception_4a/relu_3x3_reduce -> inception_4a/3x3_reduce (in-place)
I0403 16:32:59.276057 18492 net.cpp:141] Setting up inception_4a/relu_3x3_reduce
I0403 16:32:59.276082 18492 net.cpp:148] Top shape: 24 96 14 14 (451584)
I0403 16:32:59.276098 18492 net.cpp:156] Memory required for data: 865236000
I0403 16:32:59.276111 18492 layer_factory.hpp:77] Creating layer inception_4a/3x3
I0403 16:32:59.276132 18492 net.cpp:91] Creating Layer inception_4a/3x3
I0403 16:32:59.276149 18492 net.cpp:425] inception_4a/3x3 <- inception_4a/3x3_reduce
I0403 16:32:59.276166 18492 net.cpp:399] inception_4a/3x3 -> inception_4a/3x3
I0403 16:32:59.278692 18492 net.cpp:141] Setting up inception_4a/3x3
I0403 16:32:59.278720 18492 net.cpp:148] Top shape: 24 208 14 14 (978432)
I0403 16:32:59.278736 18492 net.cpp:156] Memory required for data: 869149728
I0403 16:32:59.278753 18492 layer_factory.hpp:77] Creating layer inception_4a/relu_3x3
I0403 16:32:59.278771 18492 net.cpp:91] Creating Layer inception_4a/relu_3x3
I0403 16:32:59.278786 18492 net.cpp:425] inception_4a/relu_3x3 <- inception_4a/3x3
I0403 16:32:59.278805 18492 net.cpp:386] inception_4a/relu_3x3 -> inception_4a/3x3 (in-place)
I0403 16:32:59.279072 18492 net.cpp:141] Setting up inception_4a/relu_3x3
I0403 16:32:59.279099 18492 net.cpp:148] Top shape: 24 208 14 14 (978432)
I0403 16:32:59.279114 18492 net.cpp:156] Memory required for data: 873063456
I0403 16:32:59.279129 18492 layer_factory.hpp:77] Creating layer inception_4a/5x5_reduce
I0403 16:32:59.279150 18492 net.cpp:91] Creating Layer inception_4a/5x5_reduce
I0403 16:32:59.279167 18492 net.cpp:425] inception_4a/5x5_reduce <- pool3/3x3_s2_pool3/3x3_s2_0_split_2
I0403 16:32:59.279186 18492 net.cpp:399] inception_4a/5x5_reduce -> inception_4a/5x5_reduce
I0403 16:32:59.280138 18492 net.cpp:141] Setting up inception_4a/5x5_reduce
I0403 16:32:59.280166 18492 net.cpp:148] Top shape: 24 16 14 14 (75264)
I0403 16:32:59.280182 18492 net.cpp:156] Memory required for data: 873364512
I0403 16:32:59.280200 18492 layer_factory.hpp:77] Creating layer inception_4a/relu_5x5_reduce
I0403 16:32:59.280216 18492 net.cpp:91] Creating Layer inception_4a/relu_5x5_reduce
I0403 16:32:59.280231 18492 net.cpp:425] inception_4a/relu_5x5_reduce <- inception_4a/5x5_reduce
I0403 16:32:59.280249 18492 net.cpp:386] inception_4a/relu_5x5_reduce -> inception_4a/5x5_reduce (in-place)
I0403 16:32:59.280414 18492 net.cpp:141] Setting up inception_4a/relu_5x5_reduce
I0403 16:32:59.280437 18492 net.cpp:148] Top shape: 24 16 14 14 (75264)
I0403 16:32:59.280452 18492 net.cpp:156] Memory required for data: 873665568
I0403 16:32:59.280465 18492 layer_factory.hpp:77] Creating layer inception_4a/5x5
I0403 16:32:59.280486 18492 net.cpp:91] Creating Layer inception_4a/5x5
I0403 16:32:59.280503 18492 net.cpp:425] inception_4a/5x5 <- inception_4a/5x5_reduce
I0403 16:32:59.280522 18492 net.cpp:399] inception_4a/5x5 -> inception_4a/5x5
I0403 16:32:59.281548 18492 net.cpp:141] Setting up inception_4a/5x5
I0403 16:32:59.281575 18492 net.cpp:148] Top shape: 24 48 14 14 (225792)
I0403 16:32:59.281589 18492 net.cpp:156] Memory required for data: 874568736
I0403 16:32:59.281613 18492 layer_factory.hpp:77] Creating layer inception_4a/relu_5x5
I0403 16:32:59.281635 18492 net.cpp:91] Creating Layer inception_4a/relu_5x5
I0403 16:32:59.281651 18492 net.cpp:425] inception_4a/relu_5x5 <- inception_4a/5x5
I0403 16:32:59.281667 18492 net.cpp:386] inception_4a/relu_5x5 -> inception_4a/5x5 (in-place)
I0403 16:32:59.281832 18492 net.cpp:141] Setting up inception_4a/relu_5x5
I0403 16:32:59.281855 18492 net.cpp:148] Top shape: 24 48 14 14 (225792)
I0403 16:32:59.281869 18492 net.cpp:156] Memory required for data: 875471904
I0403 16:32:59.281883 18492 layer_factory.hpp:77] Creating layer inception_4a/pool
I0403 16:32:59.281903 18492 net.cpp:91] Creating Layer inception_4a/pool
I0403 16:32:59.281919 18492 net.cpp:425] inception_4a/pool <- pool3/3x3_s2_pool3/3x3_s2_0_split_3
I0403 16:32:59.281934 18492 net.cpp:399] inception_4a/pool -> inception_4a/pool
I0403 16:32:59.281993 18492 net.cpp:141] Setting up inception_4a/pool
I0403 16:32:59.282016 18492 net.cpp:148] Top shape: 24 480 14 14 (2257920)
I0403 16:32:59.282029 18492 net.cpp:156] Memory required for data: 884503584
I0403 16:32:59.282042 18492 layer_factory.hpp:77] Creating layer inception_4a/pool_proj
I0403 16:32:59.282063 18492 net.cpp:91] Creating Layer inception_4a/pool_proj
I0403 16:32:59.282079 18492 net.cpp:425] inception_4a/pool_proj <- inception_4a/pool
I0403 16:32:59.282099 18492 net.cpp:399] inception_4a/pool_proj -> inception_4a/pool_proj
I0403 16:32:59.283193 18492 net.cpp:141] Setting up inception_4a/pool_proj
I0403 16:32:59.283221 18492 net.cpp:148] Top shape: 24 64 14 14 (301056)
I0403 16:32:59.283251 18492 net.cpp:156] Memory required for data: 885707808
I0403 16:32:59.283268 18492 layer_factory.hpp:77] Creating layer inception_4a/relu_pool_proj
I0403 16:32:59.283289 18492 net.cpp:91] Creating Layer inception_4a/relu_pool_proj
I0403 16:32:59.283305 18492 net.cpp:425] inception_4a/relu_pool_proj <- inception_4a/pool_proj
I0403 16:32:59.283323 18492 net.cpp:386] inception_4a/relu_pool_proj -> inception_4a/pool_proj (in-place)
I0403 16:32:59.283588 18492 net.cpp:141] Setting up inception_4a/relu_pool_proj
I0403 16:32:59.283618 18492 net.cpp:148] Top shape: 24 64 14 14 (301056)
I0403 16:32:59.283633 18492 net.cpp:156] Memory required for data: 886912032
I0403 16:32:59.283646 18492 layer_factory.hpp:77] Creating layer inception_4a/output
I0403 16:32:59.283664 18492 net.cpp:91] Creating Layer inception_4a/output
I0403 16:32:59.283680 18492 net.cpp:425] inception_4a/output <- inception_4a/1x1
I0403 16:32:59.283696 18492 net.cpp:425] inception_4a/output <- inception_4a/3x3
I0403 16:32:59.283711 18492 net.cpp:425] inception_4a/output <- inception_4a/5x5
I0403 16:32:59.283725 18492 net.cpp:425] inception_4a/output <- inception_4a/pool_proj
I0403 16:32:59.283741 18492 net.cpp:399] inception_4a/output -> inception_4a/output
I0403 16:32:59.283784 18492 net.cpp:141] Setting up inception_4a/output
I0403 16:32:59.283807 18492 net.cpp:148] Top shape: 24 512 14 14 (2408448)
I0403 16:32:59.283820 18492 net.cpp:156] Memory required for data: 896545824
I0403 16:32:59.283833 18492 layer_factory.hpp:77] Creating layer inception_4a/output_inception_4a/output_0_split
I0403 16:32:59.283850 18492 net.cpp:91] Creating Layer inception_4a/output_inception_4a/output_0_split
I0403 16:32:59.283864 18492 net.cpp:425] inception_4a/output_inception_4a/output_0_split <- inception_4a/output
I0403 16:32:59.283882 18492 net.cpp:399] inception_4a/output_inception_4a/output_0_split -> inception_4a/output_inception_4a/output_0_split_0
I0403 16:32:59.283903 18492 net.cpp:399] inception_4a/output_inception_4a/output_0_split -> inception_4a/output_inception_4a/output_0_split_1
I0403 16:32:59.283923 18492 net.cpp:399] inception_4a/output_inception_4a/output_0_split -> inception_4a/output_inception_4a/output_0_split_2
I0403 16:32:59.283943 18492 net.cpp:399] inception_4a/output_inception_4a/output_0_split -> inception_4a/output_inception_4a/output_0_split_3
I0403 16:32:59.283962 18492 net.cpp:399] inception_4a/output_inception_4a/output_0_split -> inception_4a/output_inception_4a/output_0_split_4
I0403 16:32:59.284050 18492 net.cpp:141] Setting up inception_4a/output_inception_4a/output_0_split
I0403 16:32:59.284072 18492 net.cpp:148] Top shape: 24 512 14 14 (2408448)
I0403 16:32:59.284090 18492 net.cpp:148] Top shape: 24 512 14 14 (2408448)
I0403 16:32:59.284106 18492 net.cpp:148] Top shape: 24 512 14 14 (2408448)
I0403 16:32:59.284121 18492 net.cpp:148] Top shape: 24 512 14 14 (2408448)
I0403 16:32:59.284135 18492 net.cpp:148] Top shape: 24 512 14 14 (2408448)
I0403 16:32:59.284147 18492 net.cpp:156] Memory required for data: 944714784
I0403 16:32:59.284173 18492 layer_factory.hpp:77] Creating layer loss1/ave_pool
I0403 16:32:59.284190 18492 net.cpp:91] Creating Layer loss1/ave_pool
I0403 16:32:59.284205 18492 net.cpp:425] loss1/ave_pool <- inception_4a/output_inception_4a/output_0_split_0
I0403 16:32:59.284225 18492 net.cpp:399] loss1/ave_pool -> loss1/ave_pool
I0403 16:32:59.284421 18492 net.cpp:141] Setting up loss1/ave_pool
I0403 16:32:59.284454 18492 net.cpp:148] Top shape: 24 512 4 4 (196608)
I0403 16:32:59.284468 18492 net.cpp:156] Memory required for data: 945501216
I0403 16:32:59.284484 18492 layer_factory.hpp:77] Creating layer loss1/conv
I0403 16:32:59.284505 18492 net.cpp:91] Creating Layer loss1/conv
I0403 16:32:59.284521 18492 net.cpp:425] loss1/conv <- loss1/ave_pool
I0403 16:32:59.284541 18492 net.cpp:399] loss1/conv -> loss1/conv
I0403 16:32:59.285877 18492 net.cpp:141] Setting up loss1/conv
I0403 16:32:59.285907 18492 net.cpp:148] Top shape: 24 128 4 4 (49152)
I0403 16:32:59.285934 18492 net.cpp:156] Memory required for data: 945697824
I0403 16:32:59.285953 18492 layer_factory.hpp:77] Creating layer loss1/relu_conv
I0403 16:32:59.285970 18492 net.cpp:91] Creating Layer loss1/relu_conv
I0403 16:32:59.285985 18492 net.cpp:425] loss1/relu_conv <- loss1/conv
I0403 16:32:59.286005 18492 net.cpp:386] loss1/relu_conv -> loss1/conv (in-place)
I0403 16:32:59.286263 18492 net.cpp:141] Setting up loss1/relu_conv
I0403 16:32:59.286290 18492 net.cpp:148] Top shape: 24 128 4 4 (49152)
I0403 16:32:59.286306 18492 net.cpp:156] Memory required for data: 945894432
I0403 16:32:59.286319 18492 layer_factory.hpp:77] Creating layer loss1/fc
I0403 16:32:59.286341 18492 net.cpp:91] Creating Layer loss1/fc
I0403 16:32:59.286358 18492 net.cpp:425] loss1/fc <- loss1/conv
I0403 16:32:59.286377 18492 net.cpp:399] loss1/fc -> loss1/fc
I0403 16:32:59.303169 18492 net.cpp:141] Setting up loss1/fc
I0403 16:32:59.303201 18492 net.cpp:148] Top shape: 24 1024 (24576)
I0403 16:32:59.303217 18492 net.cpp:156] Memory required for data: 945992736
I0403 16:32:59.303236 18492 layer_factory.hpp:77] Creating layer loss1/relu_fc
I0403 16:32:59.303254 18492 net.cpp:91] Creating Layer loss1/relu_fc
I0403 16:32:59.303270 18492 net.cpp:425] loss1/relu_fc <- loss1/fc
I0403 16:32:59.303287 18492 net.cpp:386] loss1/relu_fc -> loss1/fc (in-place)
I0403 16:32:59.303457 18492 net.cpp:141] Setting up loss1/relu_fc
I0403 16:32:59.303481 18492 net.cpp:148] Top shape: 24 1024 (24576)
I0403 16:32:59.303495 18492 net.cpp:156] Memory required for data: 946091040
I0403 16:32:59.303509 18492 layer_factory.hpp:77] Creating layer loss1/drop_fc
I0403 16:32:59.303532 18492 net.cpp:91] Creating Layer loss1/drop_fc
I0403 16:32:59.303550 18492 net.cpp:425] loss1/drop_fc <- loss1/fc
I0403 16:32:59.303568 18492 net.cpp:386] loss1/drop_fc -> loss1/fc (in-place)
I0403 16:32:59.303622 18492 net.cpp:141] Setting up loss1/drop_fc
I0403 16:32:59.303643 18492 net.cpp:148] Top shape: 24 1024 (24576)
I0403 16:32:59.303658 18492 net.cpp:156] Memory required for data: 946189344
I0403 16:32:59.303671 18492 layer_factory.hpp:77] Creating layer loss1/classifier_plantvillage
I0403 16:32:59.303692 18492 net.cpp:91] Creating Layer loss1/classifier_plantvillage
I0403 16:32:59.303709 18492 net.cpp:425] loss1/classifier_plantvillage <- loss1/fc
I0403 16:32:59.303725 18492 net.cpp:399] loss1/classifier_plantvillage -> loss1/classifier_plantvillage
I0403 16:32:59.304585 18492 net.cpp:141] Setting up loss1/classifier_plantvillage
I0403 16:32:59.304622 18492 net.cpp:148] Top shape: 24 38 (912)
I0403 16:32:59.304639 18492 net.cpp:156] Memory required for data: 946192992
I0403 16:32:59.304656 18492 layer_factory.hpp:77] Creating layer loss1/classifier_plantvillage_loss1/classifier_plantvillage_0_split
I0403 16:32:59.304675 18492 net.cpp:91] Creating Layer loss1/classifier_plantvillage_loss1/classifier_plantvillage_0_split
I0403 16:32:59.304692 18492 net.cpp:425] loss1/classifier_plantvillage_loss1/classifier_plantvillage_0_split <- loss1/classifier_plantvillage
I0403 16:32:59.304708 18492 net.cpp:399] loss1/classifier_plantvillage_loss1/classifier_plantvillage_0_split -> loss1/classifier_plantvillage_loss1/classifier_plantvillage_0_split_0
I0403 16:32:59.304730 18492 net.cpp:399] loss1/classifier_plantvillage_loss1/classifier_plantvillage_0_split -> loss1/classifier_plantvillage_loss1/classifier_plantvillage_0_split_1
I0403 16:32:59.304751 18492 net.cpp:399] loss1/classifier_plantvillage_loss1/classifier_plantvillage_0_split -> loss1/classifier_plantvillage_loss1/classifier_plantvillage_0_split_2
I0403 16:32:59.304816 18492 net.cpp:141] Setting up loss1/classifier_plantvillage_loss1/classifier_plantvillage_0_split
I0403 16:32:59.304836 18492 net.cpp:148] Top shape: 24 38 (912)
I0403 16:32:59.304852 18492 net.cpp:148] Top shape: 24 38 (912)
I0403 16:32:59.304865 18492 net.cpp:148] Top shape: 24 38 (912)
I0403 16:32:59.304877 18492 net.cpp:156] Memory required for data: 946203936
I0403 16:32:59.304891 18492 layer_factory.hpp:77] Creating layer inception_4b/1x1
I0403 16:32:59.304911 18492 net.cpp:91] Creating Layer inception_4b/1x1
I0403 16:32:59.304944 18492 net.cpp:425] inception_4b/1x1 <- inception_4a/output_inception_4a/output_0_split_1
I0403 16:32:59.304962 18492 net.cpp:399] inception_4b/1x1 -> inception_4b/1x1
I0403 16:32:59.306491 18492 net.cpp:141] Setting up inception_4b/1x1
I0403 16:32:59.306524 18492 net.cpp:148] Top shape: 24 160 14 14 (752640)
I0403 16:32:59.306540 18492 net.cpp:156] Memory required for data: 949214496
I0403 16:32:59.306557 18492 layer_factory.hpp:77] Creating layer inception_4b/relu_1x1
I0403 16:32:59.306574 18492 net.cpp:91] Creating Layer inception_4b/relu_1x1
I0403 16:32:59.306588 18492 net.cpp:425] inception_4b/relu_1x1 <- inception_4b/1x1
I0403 16:32:59.306613 18492 net.cpp:386] inception_4b/relu_1x1 -> inception_4b/1x1 (in-place)
I0403 16:32:59.306783 18492 net.cpp:141] Setting up inception_4b/relu_1x1
I0403 16:32:59.306807 18492 net.cpp:148] Top shape: 24 160 14 14 (752640)
I0403 16:32:59.306820 18492 net.cpp:156] Memory required for data: 952225056
I0403 16:32:59.306834 18492 layer_factory.hpp:77] Creating layer inception_4b/3x3_reduce
I0403 16:32:59.306854 18492 net.cpp:91] Creating Layer inception_4b/3x3_reduce
I0403 16:32:59.306870 18492 net.cpp:425] inception_4b/3x3_reduce <- inception_4a/output_inception_4a/output_0_split_2
I0403 16:32:59.306890 18492 net.cpp:399] inception_4b/3x3_reduce -> inception_4b/3x3_reduce
I0403 16:32:59.308187 18492 net.cpp:141] Setting up inception_4b/3x3_reduce
I0403 16:32:59.308213 18492 net.cpp:148] Top shape: 24 112 14 14 (526848)
I0403 16:32:59.308228 18492 net.cpp:156] Memory required for data: 954332448
I0403 16:32:59.308244 18492 layer_factory.hpp:77] Creating layer inception_4b/relu_3x3_reduce
I0403 16:32:59.308261 18492 net.cpp:91] Creating Layer inception_4b/relu_3x3_reduce
I0403 16:32:59.308276 18492 net.cpp:425] inception_4b/relu_3x3_reduce <- inception_4b/3x3_reduce
I0403 16:32:59.308295 18492 net.cpp:386] inception_4b/relu_3x3_reduce -> inception_4b/3x3_reduce (in-place)
I0403 16:32:59.308562 18492 net.cpp:141] Setting up inception_4b/relu_3x3_reduce
I0403 16:32:59.308586 18492 net.cpp:148] Top shape: 24 112 14 14 (526848)
I0403 16:32:59.308607 18492 net.cpp:156] Memory required for data: 956439840
I0403 16:32:59.308622 18492 layer_factory.hpp:77] Creating layer inception_4b/3x3
I0403 16:32:59.308643 18492 net.cpp:91] Creating Layer inception_4b/3x3
I0403 16:32:59.308660 18492 net.cpp:425] inception_4b/3x3 <- inception_4b/3x3_reduce
I0403 16:32:59.308679 18492 net.cpp:399] inception_4b/3x3 -> inception_4b/3x3
I0403 16:32:59.311497 18492 net.cpp:141] Setting up inception_4b/3x3
I0403 16:32:59.311524 18492 net.cpp:148] Top shape: 24 224 14 14 (1053696)
I0403 16:32:59.311539 18492 net.cpp:156] Memory required for data: 960654624
I0403 16:32:59.311556 18492 layer_factory.hpp:77] Creating layer inception_4b/relu_3x3
I0403 16:32:59.311575 18492 net.cpp:91] Creating Layer inception_4b/relu_3x3
I0403 16:32:59.311592 18492 net.cpp:425] inception_4b/relu_3x3 <- inception_4b/3x3
I0403 16:32:59.311615 18492 net.cpp:386] inception_4b/relu_3x3 -> inception_4b/3x3 (in-place)
I0403 16:32:59.311786 18492 net.cpp:141] Setting up inception_4b/relu_3x3
I0403 16:32:59.311811 18492 net.cpp:148] Top shape: 24 224 14 14 (1053696)
I0403 16:32:59.311825 18492 net.cpp:156] Memory required for data: 964869408
I0403 16:32:59.311838 18492 layer_factory.hpp:77] Creating layer inception_4b/5x5_reduce
I0403 16:32:59.311858 18492 net.cpp:91] Creating Layer inception_4b/5x5_reduce
I0403 16:32:59.311875 18492 net.cpp:425] inception_4b/5x5_reduce <- inception_4a/output_inception_4a/output_0_split_3
I0403 16:32:59.311897 18492 net.cpp:399] inception_4b/5x5_reduce -> inception_4b/5x5_reduce
I0403 16:32:59.312994 18492 net.cpp:141] Setting up inception_4b/5x5_reduce
I0403 16:32:59.313020 18492 net.cpp:148] Top shape: 24 24 14 14 (112896)
I0403 16:32:59.313035 18492 net.cpp:156] Memory required for data: 965320992
I0403 16:32:59.313052 18492 layer_factory.hpp:77] Creating layer inception_4b/relu_5x5_reduce
I0403 16:32:59.313069 18492 net.cpp:91] Creating Layer inception_4b/relu_5x5_reduce
I0403 16:32:59.313098 18492 net.cpp:425] inception_4b/relu_5x5_reduce <- inception_4b/5x5_reduce
I0403 16:32:59.313118 18492 net.cpp:386] inception_4b/relu_5x5_reduce -> inception_4b/5x5_reduce (in-place)
I0403 16:32:59.313288 18492 net.cpp:141] Setting up inception_4b/relu_5x5_reduce
I0403 16:32:59.313311 18492 net.cpp:148] Top shape: 24 24 14 14 (112896)
I0403 16:32:59.313325 18492 net.cpp:156] Memory required for data: 965772576
I0403 16:32:59.313339 18492 layer_factory.hpp:77] Creating layer inception_4b/5x5
I0403 16:32:59.313359 18492 net.cpp:91] Creating Layer inception_4b/5x5
I0403 16:32:59.313375 18492 net.cpp:425] inception_4b/5x5 <- inception_4b/5x5_reduce
I0403 16:32:59.313395 18492 net.cpp:399] inception_4b/5x5 -> inception_4b/5x5
I0403 16:32:59.314551 18492 net.cpp:141] Setting up inception_4b/5x5
I0403 16:32:59.314580 18492 net.cpp:148] Top shape: 24 64 14 14 (301056)
I0403 16:32:59.314595 18492 net.cpp:156] Memory required for data: 966976800
I0403 16:32:59.314626 18492 layer_factory.hpp:77] Creating layer inception_4b/relu_5x5
I0403 16:32:59.314646 18492 net.cpp:91] Creating Layer inception_4b/relu_5x5
I0403 16:32:59.314661 18492 net.cpp:425] inception_4b/relu_5x5 <- inception_4b/5x5
I0403 16:32:59.314679 18492 net.cpp:386] inception_4b/relu_5x5 -> inception_4b/5x5 (in-place)
I0403 16:32:59.314946 18492 net.cpp:141] Setting up inception_4b/relu_5x5
I0403 16:32:59.314975 18492 net.cpp:148] Top shape: 24 64 14 14 (301056)
I0403 16:32:59.314990 18492 net.cpp:156] Memory required for data: 968181024
I0403 16:32:59.315006 18492 layer_factory.hpp:77] Creating layer inception_4b/pool
I0403 16:32:59.315021 18492 net.cpp:91] Creating Layer inception_4b/pool
I0403 16:32:59.315037 18492 net.cpp:425] inception_4b/pool <- inception_4a/output_inception_4a/output_0_split_4
I0403 16:32:59.315055 18492 net.cpp:399] inception_4b/pool -> inception_4b/pool
I0403 16:32:59.315114 18492 net.cpp:141] Setting up inception_4b/pool
I0403 16:32:59.315138 18492 net.cpp:148] Top shape: 24 512 14 14 (2408448)
I0403 16:32:59.315152 18492 net.cpp:156] Memory required for data: 977814816
I0403 16:32:59.315167 18492 layer_factory.hpp:77] Creating layer inception_4b/pool_proj
I0403 16:32:59.315186 18492 net.cpp:91] Creating Layer inception_4b/pool_proj
I0403 16:32:59.315201 18492 net.cpp:425] inception_4b/pool_proj <- inception_4b/pool
I0403 16:32:59.315219 18492 net.cpp:399] inception_4b/pool_proj -> inception_4b/pool_proj
I0403 16:32:59.316365 18492 net.cpp:141] Setting up inception_4b/pool_proj
I0403 16:32:59.316392 18492 net.cpp:148] Top shape: 24 64 14 14 (301056)
I0403 16:32:59.316407 18492 net.cpp:156] Memory required for data: 979019040
I0403 16:32:59.316426 18492 layer_factory.hpp:77] Creating layer inception_4b/relu_pool_proj
I0403 16:32:59.316443 18492 net.cpp:91] Creating Layer inception_4b/relu_pool_proj
I0403 16:32:59.316458 18492 net.cpp:425] inception_4b/relu_pool_proj <- inception_4b/pool_proj
I0403 16:32:59.316478 18492 net.cpp:386] inception_4b/relu_pool_proj -> inception_4b/pool_proj (in-place)
I0403 16:32:59.316665 18492 net.cpp:141] Setting up inception_4b/relu_pool_proj
I0403 16:32:59.316689 18492 net.cpp:148] Top shape: 24 64 14 14 (301056)
I0403 16:32:59.316702 18492 net.cpp:156] Memory required for data: 980223264
I0403 16:32:59.316715 18492 layer_factory.hpp:77] Creating layer inception_4b/output
I0403 16:32:59.316730 18492 net.cpp:91] Creating Layer inception_4b/output
I0403 16:32:59.316745 18492 net.cpp:425] inception_4b/output <- inception_4b/1x1
I0403 16:32:59.316762 18492 net.cpp:425] inception_4b/output <- inception_4b/3x3
I0403 16:32:59.316778 18492 net.cpp:425] inception_4b/output <- inception_4b/5x5
I0403 16:32:59.316793 18492 net.cpp:425] inception_4b/output <- inception_4b/pool_proj
I0403 16:32:59.316809 18492 net.cpp:399] inception_4b/output -> inception_4b/output
I0403 16:32:59.316854 18492 net.cpp:141] Setting up inception_4b/output
I0403 16:32:59.316875 18492 net.cpp:148] Top shape: 24 512 14 14 (2408448)
I0403 16:32:59.316889 18492 net.cpp:156] Memory required for data: 989857056
I0403 16:32:59.316915 18492 layer_factory.hpp:77] Creating layer inception_4b/output_inception_4b/output_0_split
I0403 16:32:59.316932 18492 net.cpp:91] Creating Layer inception_4b/output_inception_4b/output_0_split
I0403 16:32:59.316947 18492 net.cpp:425] inception_4b/output_inception_4b/output_0_split <- inception_4b/output
I0403 16:32:59.316969 18492 net.cpp:399] inception_4b/output_inception_4b/output_0_split -> inception_4b/output_inception_4b/output_0_split_0
I0403 16:32:59.316990 18492 net.cpp:399] inception_4b/output_inception_4b/output_0_split -> inception_4b/output_inception_4b/output_0_split_1
I0403 16:32:59.317009 18492 net.cpp:399] inception_4b/output_inception_4b/output_0_split -> inception_4b/output_inception_4b/output_0_split_2
I0403 16:32:59.317029 18492 net.cpp:399] inception_4b/output_inception_4b/output_0_split -> inception_4b/output_inception_4b/output_0_split_3
I0403 16:32:59.317107 18492 net.cpp:141] Setting up inception_4b/output_inception_4b/output_0_split
I0403 16:32:59.317131 18492 net.cpp:148] Top shape: 24 512 14 14 (2408448)
I0403 16:32:59.317147 18492 net.cpp:148] Top shape: 24 512 14 14 (2408448)
I0403 16:32:59.317162 18492 net.cpp:148] Top shape: 24 512 14 14 (2408448)
I0403 16:32:59.317176 18492 net.cpp:148] Top shape: 24 512 14 14 (2408448)
I0403 16:32:59.317190 18492 net.cpp:156] Memory required for data: 1028392224
I0403 16:32:59.317203 18492 layer_factory.hpp:77] Creating layer inception_4c/1x1
I0403 16:32:59.317224 18492 net.cpp:91] Creating Layer inception_4c/1x1
I0403 16:32:59.317240 18492 net.cpp:425] inception_4c/1x1 <- inception_4b/output_inception_4b/output_0_split_0
I0403 16:32:59.317257 18492 net.cpp:399] inception_4c/1x1 -> inception_4c/1x1
I0403 16:32:59.318641 18492 net.cpp:141] Setting up inception_4c/1x1
I0403 16:32:59.318667 18492 net.cpp:148] Top shape: 24 128 14 14 (602112)
I0403 16:32:59.318682 18492 net.cpp:156] Memory required for data: 1030800672
I0403 16:32:59.318699 18492 layer_factory.hpp:77] Creating layer inception_4c/relu_1x1
I0403 16:32:59.318719 18492 net.cpp:91] Creating Layer inception_4c/relu_1x1
I0403 16:32:59.318737 18492 net.cpp:425] inception_4c/relu_1x1 <- inception_4c/1x1
I0403 16:32:59.318753 18492 net.cpp:386] inception_4c/relu_1x1 -> inception_4c/1x1 (in-place)
I0403 16:32:59.318918 18492 net.cpp:141] Setting up inception_4c/relu_1x1
I0403 16:32:59.318943 18492 net.cpp:148] Top shape: 24 128 14 14 (602112)
I0403 16:32:59.318958 18492 net.cpp:156] Memory required for data: 1033209120
I0403 16:32:59.318971 18492 layer_factory.hpp:77] Creating layer inception_4c/3x3_reduce
I0403 16:32:59.318991 18492 net.cpp:91] Creating Layer inception_4c/3x3_reduce
I0403 16:32:59.319008 18492 net.cpp:425] inception_4c/3x3_reduce <- inception_4b/output_inception_4b/output_0_split_1
I0403 16:32:59.319026 18492 net.cpp:399] inception_4c/3x3_reduce -> inception_4c/3x3_reduce
I0403 16:32:59.320874 18492 net.cpp:141] Setting up inception_4c/3x3_reduce
I0403 16:32:59.320905 18492 net.cpp:148] Top shape: 24 128 14 14 (602112)
I0403 16:32:59.320920 18492 net.cpp:156] Memory required for data: 1035617568
I0403 16:32:59.320936 18492 layer_factory.hpp:77] Creating layer inception_4c/relu_3x3_reduce
I0403 16:32:59.320953 18492 net.cpp:91] Creating Layer inception_4c/relu_3x3_reduce
I0403 16:32:59.320968 18492 net.cpp:425] inception_4c/relu_3x3_reduce <- inception_4c/3x3_reduce
I0403 16:32:59.320986 18492 net.cpp:386] inception_4c/relu_3x3_reduce -> inception_4c/3x3_reduce (in-place)
I0403 16:32:59.321256 18492 net.cpp:141] Setting up inception_4c/relu_3x3_reduce
I0403 16:32:59.321296 18492 net.cpp:148] Top shape: 24 128 14 14 (602112)
I0403 16:32:59.321311 18492 net.cpp:156] Memory required for data: 1038026016
I0403 16:32:59.321326 18492 layer_factory.hpp:77] Creating layer inception_4c/3x3
I0403 16:32:59.321348 18492 net.cpp:91] Creating Layer inception_4c/3x3
I0403 16:32:59.321365 18492 net.cpp:425] inception_4c/3x3 <- inception_4c/3x3_reduce
I0403 16:32:59.321387 18492 net.cpp:399] inception_4c/3x3 -> inception_4c/3x3
I0403 16:32:59.324831 18492 net.cpp:141] Setting up inception_4c/3x3
I0403 16:32:59.324870 18492 net.cpp:148] Top shape: 24 256 14 14 (1204224)
I0403 16:32:59.324887 18492 net.cpp:156] Memory required for data: 1042842912
I0403 16:32:59.324919 18492 layer_factory.hpp:77] Creating layer inception_4c/relu_3x3
I0403 16:32:59.324939 18492 net.cpp:91] Creating Layer inception_4c/relu_3x3
I0403 16:32:59.324955 18492 net.cpp:425] inception_4c/relu_3x3 <- inception_4c/3x3
I0403 16:32:59.324973 18492 net.cpp:386] inception_4c/relu_3x3 -> inception_4c/3x3 (in-place)
I0403 16:32:59.325144 18492 net.cpp:141] Setting up inception_4c/relu_3x3
I0403 16:32:59.325167 18492 net.cpp:148] Top shape: 24 256 14 14 (1204224)
I0403 16:32:59.325181 18492 net.cpp:156] Memory required for data: 1047659808
I0403 16:32:59.325194 18492 layer_factory.hpp:77] Creating layer inception_4c/5x5_reduce
I0403 16:32:59.325217 18492 net.cpp:91] Creating Layer inception_4c/5x5_reduce
I0403 16:32:59.325232 18492 net.cpp:425] inception_4c/5x5_reduce <- inception_4b/output_inception_4b/output_0_split_2
I0403 16:32:59.325253 18492 net.cpp:399] inception_4c/5x5_reduce -> inception_4c/5x5_reduce
I0403 16:32:59.326323 18492 net.cpp:141] Setting up inception_4c/5x5_reduce
I0403 16:32:59.326350 18492 net.cpp:148] Top shape: 24 24 14 14 (112896)
I0403 16:32:59.326365 18492 net.cpp:156] Memory required for data: 1048111392
I0403 16:32:59.326382 18492 layer_factory.hpp:77] Creating layer inception_4c/relu_5x5_reduce
I0403 16:32:59.326400 18492 net.cpp:91] Creating Layer inception_4c/relu_5x5_reduce
I0403 16:32:59.326414 18492 net.cpp:425] inception_4c/relu_5x5_reduce <- inception_4c/5x5_reduce
I0403 16:32:59.326432 18492 net.cpp:386] inception_4c/relu_5x5_reduce -> inception_4c/5x5_reduce (in-place)
I0403 16:32:59.326611 18492 net.cpp:141] Setting up inception_4c/relu_5x5_reduce
I0403 16:32:59.326634 18492 net.cpp:148] Top shape: 24 24 14 14 (112896)
I0403 16:32:59.326647 18492 net.cpp:156] Memory required for data: 1048562976
I0403 16:32:59.326661 18492 layer_factory.hpp:77] Creating layer inception_4c/5x5
I0403 16:32:59.326683 18492 net.cpp:91] Creating Layer inception_4c/5x5
I0403 16:32:59.326699 18492 net.cpp:425] inception_4c/5x5 <- inception_4c/5x5_reduce
I0403 16:32:59.326719 18492 net.cpp:399] inception_4c/5x5 -> inception_4c/5x5
I0403 16:32:59.327958 18492 net.cpp:141] Setting up inception_4c/5x5
I0403 16:32:59.327986 18492 net.cpp:148] Top shape: 24 64 14 14 (301056)
I0403 16:32:59.328001 18492 net.cpp:156] Memory required for data: 1049767200
I0403 16:32:59.328018 18492 layer_factory.hpp:77] Creating layer inception_4c/relu_5x5
I0403 16:32:59.328038 18492 net.cpp:91] Creating Layer inception_4c/relu_5x5
I0403 16:32:59.328055 18492 net.cpp:425] inception_4c/relu_5x5 <- inception_4c/5x5
I0403 16:32:59.328071 18492 net.cpp:386] inception_4c/relu_5x5 -> inception_4c/5x5 (in-place)
I0403 16:32:59.328366 18492 net.cpp:141] Setting up inception_4c/relu_5x5
I0403 16:32:59.328390 18492 net.cpp:148] Top shape: 24 64 14 14 (301056)
I0403 16:32:59.328404 18492 net.cpp:156] Memory required for data: 1050971424
I0403 16:32:59.328418 18492 layer_factory.hpp:77] Creating layer inception_4c/pool
I0403 16:32:59.328438 18492 net.cpp:91] Creating Layer inception_4c/pool
I0403 16:32:59.328452 18492 net.cpp:425] inception_4c/pool <- inception_4b/output_inception_4b/output_0_split_3
I0403 16:32:59.328469 18492 net.cpp:399] inception_4c/pool -> inception_4c/pool
I0403 16:32:59.328531 18492 net.cpp:141] Setting up inception_4c/pool
I0403 16:32:59.328554 18492 net.cpp:148] Top shape: 24 512 14 14 (2408448)
I0403 16:32:59.328567 18492 net.cpp:156] Memory required for data: 1060605216
I0403 16:32:59.328580 18492 layer_factory.hpp:77] Creating layer inception_4c/pool_proj
I0403 16:32:59.328606 18492 net.cpp:91] Creating Layer inception_4c/pool_proj
I0403 16:32:59.328624 18492 net.cpp:425] inception_4c/pool_proj <- inception_4c/pool
I0403 16:32:59.328644 18492 net.cpp:399] inception_4c/pool_proj -> inception_4c/pool_proj
I0403 16:32:59.329800 18492 net.cpp:141] Setting up inception_4c/pool_proj
I0403 16:32:59.329829 18492 net.cpp:148] Top shape: 24 64 14 14 (301056)
I0403 16:32:59.329857 18492 net.cpp:156] Memory required for data: 1061809440
I0403 16:32:59.329888 18492 layer_factory.hpp:77] Creating layer inception_4c/relu_pool_proj
I0403 16:32:59.329906 18492 net.cpp:91] Creating Layer inception_4c/relu_pool_proj
I0403 16:32:59.329922 18492 net.cpp:425] inception_4c/relu_pool_proj <- inception_4c/pool_proj
I0403 16:32:59.329941 18492 net.cpp:386] inception_4c/relu_pool_proj -> inception_4c/pool_proj (in-place)
I0403 16:32:59.330119 18492 net.cpp:141] Setting up inception_4c/relu_pool_proj
I0403 16:32:59.330143 18492 net.cpp:148] Top shape: 24 64 14 14 (301056)
I0403 16:32:59.330157 18492 net.cpp:156] Memory required for data: 1063013664
I0403 16:32:59.330171 18492 layer_factory.hpp:77] Creating layer inception_4c/output
I0403 16:32:59.330188 18492 net.cpp:91] Creating Layer inception_4c/output
I0403 16:32:59.330202 18492 net.cpp:425] inception_4c/output <- inception_4c/1x1
I0403 16:32:59.330217 18492 net.cpp:425] inception_4c/output <- inception_4c/3x3
I0403 16:32:59.330234 18492 net.cpp:425] inception_4c/output <- inception_4c/5x5
I0403 16:32:59.330248 18492 net.cpp:425] inception_4c/output <- inception_4c/pool_proj
I0403 16:32:59.330267 18492 net.cpp:399] inception_4c/output -> inception_4c/output
I0403 16:32:59.330315 18492 net.cpp:141] Setting up inception_4c/output
I0403 16:32:59.330338 18492 net.cpp:148] Top shape: 24 512 14 14 (2408448)
I0403 16:32:59.330351 18492 net.cpp:156] Memory required for data: 1072647456
I0403 16:32:59.330364 18492 layer_factory.hpp:77] Creating layer inception_4c/output_inception_4c/output_0_split
I0403 16:32:59.330380 18492 net.cpp:91] Creating Layer inception_4c/output_inception_4c/output_0_split
I0403 16:32:59.330395 18492 net.cpp:425] inception_4c/output_inception_4c/output_0_split <- inception_4c/output
I0403 16:32:59.330413 18492 net.cpp:399] inception_4c/output_inception_4c/output_0_split -> inception_4c/output_inception_4c/output_0_split_0
I0403 16:32:59.330433 18492 net.cpp:399] inception_4c/output_inception_4c/output_0_split -> inception_4c/output_inception_4c/output_0_split_1
I0403 16:32:59.330453 18492 net.cpp:399] inception_4c/output_inception_4c/output_0_split -> inception_4c/output_inception_4c/output_0_split_2
I0403 16:32:59.330472 18492 net.cpp:399] inception_4c/output_inception_4c/output_0_split -> inception_4c/output_inception_4c/output_0_split_3
I0403 16:32:59.330567 18492 net.cpp:141] Setting up inception_4c/output_inception_4c/output_0_split
I0403 16:32:59.330591 18492 net.cpp:148] Top shape: 24 512 14 14 (2408448)
I0403 16:32:59.330612 18492 net.cpp:148] Top shape: 24 512 14 14 (2408448)
I0403 16:32:59.330627 18492 net.cpp:148] Top shape: 24 512 14 14 (2408448)
I0403 16:32:59.330641 18492 net.cpp:148] Top shape: 24 512 14 14 (2408448)
I0403 16:32:59.330654 18492 net.cpp:156] Memory required for data: 1111182624
I0403 16:32:59.330667 18492 layer_factory.hpp:77] Creating layer inception_4d/1x1
I0403 16:32:59.330687 18492 net.cpp:91] Creating Layer inception_4d/1x1
I0403 16:32:59.330704 18492 net.cpp:425] inception_4d/1x1 <- inception_4c/output_inception_4c/output_0_split_0
I0403 16:32:59.330721 18492 net.cpp:399] inception_4d/1x1 -> inception_4d/1x1
I0403 16:32:59.332027 18492 net.cpp:141] Setting up inception_4d/1x1
I0403 16:32:59.332054 18492 net.cpp:148] Top shape: 24 112 14 14 (526848)
I0403 16:32:59.332069 18492 net.cpp:156] Memory required for data: 1113290016
I0403 16:32:59.332085 18492 layer_factory.hpp:77] Creating layer inception_4d/relu_1x1
I0403 16:32:59.332105 18492 net.cpp:91] Creating Layer inception_4d/relu_1x1
I0403 16:32:59.332123 18492 net.cpp:425] inception_4d/relu_1x1 <- inception_4d/1x1
I0403 16:32:59.332139 18492 net.cpp:386] inception_4d/relu_1x1 -> inception_4d/1x1 (in-place)
I0403 16:32:59.332317 18492 net.cpp:141] Setting up inception_4d/relu_1x1
I0403 16:32:59.332340 18492 net.cpp:148] Top shape: 24 112 14 14 (526848)
I0403 16:32:59.332355 18492 net.cpp:156] Memory required for data: 1115397408
I0403 16:32:59.332367 18492 layer_factory.hpp:77] Creating layer inception_4d/3x3_reduce
I0403 16:32:59.332401 18492 net.cpp:91] Creating Layer inception_4d/3x3_reduce
I0403 16:32:59.332420 18492 net.cpp:425] inception_4d/3x3_reduce <- inception_4c/output_inception_4c/output_0_split_1
I0403 16:32:59.332440 18492 net.cpp:399] inception_4d/3x3_reduce -> inception_4d/3x3_reduce
I0403 16:32:59.333878 18492 net.cpp:141] Setting up inception_4d/3x3_reduce
I0403 16:32:59.333904 18492 net.cpp:148] Top shape: 24 144 14 14 (677376)
I0403 16:32:59.333917 18492 net.cpp:156] Memory required for data: 1118106912
I0403 16:32:59.333935 18492 layer_factory.hpp:77] Creating layer inception_4d/relu_3x3_reduce
I0403 16:32:59.333955 18492 net.cpp:91] Creating Layer inception_4d/relu_3x3_reduce
I0403 16:32:59.333971 18492 net.cpp:425] inception_4d/relu_3x3_reduce <- inception_4d/3x3_reduce
I0403 16:32:59.333987 18492 net.cpp:386] inception_4d/relu_3x3_reduce -> inception_4d/3x3_reduce (in-place)
I0403 16:32:59.334261 18492 net.cpp:141] Setting up inception_4d/relu_3x3_reduce
I0403 16:32:59.334300 18492 net.cpp:148] Top shape: 24 144 14 14 (677376)
I0403 16:32:59.334314 18492 net.cpp:156] Memory required for data: 1120816416
I0403 16:32:59.334328 18492 layer_factory.hpp:77] Creating layer inception_4d/3x3
I0403 16:32:59.334350 18492 net.cpp:91] Creating Layer inception_4d/3x3
I0403 16:32:59.334367 18492 net.cpp:425] inception_4d/3x3 <- inception_4d/3x3_reduce
I0403 16:32:59.334386 18492 net.cpp:399] inception_4d/3x3 -> inception_4d/3x3
I0403 16:32:59.338456 18492 net.cpp:141] Setting up inception_4d/3x3
I0403 16:32:59.338487 18492 net.cpp:148] Top shape: 24 288 14 14 (1354752)
I0403 16:32:59.338503 18492 net.cpp:156] Memory required for data: 1126235424
I0403 16:32:59.338521 18492 layer_factory.hpp:77] Creating layer inception_4d/relu_3x3
I0403 16:32:59.338537 18492 net.cpp:91] Creating Layer inception_4d/relu_3x3
I0403 16:32:59.338552 18492 net.cpp:425] inception_4d/relu_3x3 <- inception_4d/3x3
I0403 16:32:59.338568 18492 net.cpp:386] inception_4d/relu_3x3 -> inception_4d/3x3 (in-place)
I0403 16:32:59.338749 18492 net.cpp:141] Setting up inception_4d/relu_3x3
I0403 16:32:59.338773 18492 net.cpp:148] Top shape: 24 288 14 14 (1354752)
I0403 16:32:59.338786 18492 net.cpp:156] Memory required for data: 1131654432
I0403 16:32:59.338800 18492 layer_factory.hpp:77] Creating layer inception_4d/5x5_reduce
I0403 16:32:59.338824 18492 net.cpp:91] Creating Layer inception_4d/5x5_reduce
I0403 16:32:59.338840 18492 net.cpp:425] inception_4d/5x5_reduce <- inception_4c/output_inception_4c/output_0_split_2
I0403 16:32:59.338861 18492 net.cpp:399] inception_4d/5x5_reduce -> inception_4d/5x5_reduce
I0403 16:32:59.339984 18492 net.cpp:141] Setting up inception_4d/5x5_reduce
I0403 16:32:59.340013 18492 net.cpp:148] Top shape: 24 32 14 14 (150528)
I0403 16:32:59.340029 18492 net.cpp:156] Memory required for data: 1132256544
I0403 16:32:59.340045 18492 layer_factory.hpp:77] Creating layer inception_4d/relu_5x5_reduce
I0403 16:32:59.340062 18492 net.cpp:91] Creating Layer inception_4d/relu_5x5_reduce
I0403 16:32:59.340077 18492 net.cpp:425] inception_4d/relu_5x5_reduce <- inception_4d/5x5_reduce
I0403 16:32:59.340095 18492 net.cpp:386] inception_4d/relu_5x5_reduce -> inception_4d/5x5_reduce (in-place)
I0403 16:32:59.340273 18492 net.cpp:141] Setting up inception_4d/relu_5x5_reduce
I0403 16:32:59.340296 18492 net.cpp:148] Top shape: 24 32 14 14 (150528)
I0403 16:32:59.340311 18492 net.cpp:156] Memory required for data: 1132858656
I0403 16:32:59.340324 18492 layer_factory.hpp:77] Creating layer inception_4d/5x5
I0403 16:32:59.340344 18492 net.cpp:91] Creating Layer inception_4d/5x5
I0403 16:32:59.340361 18492 net.cpp:425] inception_4d/5x5 <- inception_4d/5x5_reduce
I0403 16:32:59.340381 18492 net.cpp:399] inception_4d/5x5 -> inception_4d/5x5
I0403 16:32:59.341797 18492 net.cpp:141] Setting up inception_4d/5x5
I0403 16:32:59.341823 18492 net.cpp:148] Top shape: 24 64 14 14 (301056)
I0403 16:32:59.341838 18492 net.cpp:156] Memory required for data: 1134062880
I0403 16:32:59.341856 18492 layer_factory.hpp:77] Creating layer inception_4d/relu_5x5
I0403 16:32:59.341886 18492 net.cpp:91] Creating Layer inception_4d/relu_5x5
I0403 16:32:59.341904 18492 net.cpp:425] inception_4d/relu_5x5 <- inception_4d/5x5
I0403 16:32:59.341922 18492 net.cpp:386] inception_4d/relu_5x5 -> inception_4d/5x5 (in-place)
I0403 16:32:59.342214 18492 net.cpp:141] Setting up inception_4d/relu_5x5
I0403 16:32:59.342239 18492 net.cpp:148] Top shape: 24 64 14 14 (301056)
I0403 16:32:59.342253 18492 net.cpp:156] Memory required for data: 1135267104
I0403 16:32:59.342267 18492 layer_factory.hpp:77] Creating layer inception_4d/pool
I0403 16:32:59.342283 18492 net.cpp:91] Creating Layer inception_4d/pool
I0403 16:32:59.342298 18492 net.cpp:425] inception_4d/pool <- inception_4c/output_inception_4c/output_0_split_3
I0403 16:32:59.342317 18492 net.cpp:399] inception_4d/pool -> inception_4d/pool
I0403 16:32:59.342381 18492 net.cpp:141] Setting up inception_4d/pool
I0403 16:32:59.342402 18492 net.cpp:148] Top shape: 24 512 14 14 (2408448)
I0403 16:32:59.342416 18492 net.cpp:156] Memory required for data: 1144900896
I0403 16:32:59.342429 18492 layer_factory.hpp:77] Creating layer inception_4d/pool_proj
I0403 16:32:59.342454 18492 net.cpp:91] Creating Layer inception_4d/pool_proj
I0403 16:32:59.342471 18492 net.cpp:425] inception_4d/pool_proj <- inception_4d/pool
I0403 16:32:59.342489 18492 net.cpp:399] inception_4d/pool_proj -> inception_4d/pool_proj
I0403 16:32:59.344214 18492 net.cpp:141] Setting up inception_4d/pool_proj
I0403 16:32:59.344244 18492 net.cpp:148] Top shape: 24 64 14 14 (301056)
I0403 16:32:59.344259 18492 net.cpp:156] Memory required for data: 1146105120
I0403 16:32:59.344277 18492 layer_factory.hpp:77] Creating layer inception_4d/relu_pool_proj
I0403 16:32:59.344295 18492 net.cpp:91] Creating Layer inception_4d/relu_pool_proj
I0403 16:32:59.344310 18492 net.cpp:425] inception_4d/relu_pool_proj <- inception_4d/pool_proj
I0403 16:32:59.344326 18492 net.cpp:386] inception_4d/relu_pool_proj -> inception_4d/pool_proj (in-place)
I0403 16:32:59.344506 18492 net.cpp:141] Setting up inception_4d/relu_pool_proj
I0403 16:32:59.344528 18492 net.cpp:148] Top shape: 24 64 14 14 (301056)
I0403 16:32:59.344542 18492 net.cpp:156] Memory required for data: 1147309344
I0403 16:32:59.344555 18492 layer_factory.hpp:77] Creating layer inception_4d/output
I0403 16:32:59.344571 18492 net.cpp:91] Creating Layer inception_4d/output
I0403 16:32:59.344585 18492 net.cpp:425] inception_4d/output <- inception_4d/1x1
I0403 16:32:59.344611 18492 net.cpp:425] inception_4d/output <- inception_4d/3x3
I0403 16:32:59.344630 18492 net.cpp:425] inception_4d/output <- inception_4d/5x5
I0403 16:32:59.344646 18492 net.cpp:425] inception_4d/output <- inception_4d/pool_proj
I0403 16:32:59.344665 18492 net.cpp:399] inception_4d/output -> inception_4d/output
I0403 16:32:59.344709 18492 net.cpp:141] Setting up inception_4d/output
I0403 16:32:59.344733 18492 net.cpp:148] Top shape: 24 528 14 14 (2483712)
I0403 16:32:59.344748 18492 net.cpp:156] Memory required for data: 1157244192
I0403 16:32:59.344763 18492 layer_factory.hpp:77] Creating layer inception_4d/output_inception_4d/output_0_split
I0403 16:32:59.344779 18492 net.cpp:91] Creating Layer inception_4d/output_inception_4d/output_0_split
I0403 16:32:59.344792 18492 net.cpp:425] inception_4d/output_inception_4d/output_0_split <- inception_4d/output
I0403 16:32:59.344812 18492 net.cpp:399] inception_4d/output_inception_4d/output_0_split -> inception_4d/output_inception_4d/output_0_split_0
I0403 16:32:59.344833 18492 net.cpp:399] inception_4d/output_inception_4d/output_0_split -> inception_4d/output_inception_4d/output_0_split_1
I0403 16:32:59.344852 18492 net.cpp:399] inception_4d/output_inception_4d/output_0_split -> inception_4d/output_inception_4d/output_0_split_2
I0403 16:32:59.344872 18492 net.cpp:399] inception_4d/output_inception_4d/output_0_split -> inception_4d/output_inception_4d/output_0_split_3
I0403 16:32:59.344890 18492 net.cpp:399] inception_4d/output_inception_4d/output_0_split -> inception_4d/output_inception_4d/output_0_split_4
I0403 16:32:59.344986 18492 net.cpp:141] Setting up inception_4d/output_inception_4d/output_0_split
I0403 16:32:59.345021 18492 net.cpp:148] Top shape: 24 528 14 14 (2483712)
I0403 16:32:59.345036 18492 net.cpp:148] Top shape: 24 528 14 14 (2483712)
I0403 16:32:59.345052 18492 net.cpp:148] Top shape: 24 528 14 14 (2483712)
I0403 16:32:59.345065 18492 net.cpp:148] Top shape: 24 528 14 14 (2483712)
I0403 16:32:59.345079 18492 net.cpp:148] Top shape: 24 528 14 14 (2483712)
I0403 16:32:59.345093 18492 net.cpp:156] Memory required for data: 1206918432
I0403 16:32:59.345105 18492 layer_factory.hpp:77] Creating layer loss2/ave_pool
I0403 16:32:59.345125 18492 net.cpp:91] Creating Layer loss2/ave_pool
I0403 16:32:59.345141 18492 net.cpp:425] loss2/ave_pool <- inception_4d/output_inception_4d/output_0_split_0
I0403 16:32:59.345158 18492 net.cpp:399] loss2/ave_pool -> loss2/ave_pool
I0403 16:32:59.345456 18492 net.cpp:141] Setting up loss2/ave_pool
I0403 16:32:59.345484 18492 net.cpp:148] Top shape: 24 528 4 4 (202752)
I0403 16:32:59.345499 18492 net.cpp:156] Memory required for data: 1207729440
I0403 16:32:59.345513 18492 layer_factory.hpp:77] Creating layer loss2/conv
I0403 16:32:59.345535 18492 net.cpp:91] Creating Layer loss2/conv
I0403 16:32:59.345551 18492 net.cpp:425] loss2/conv <- loss2/ave_pool
I0403 16:32:59.345569 18492 net.cpp:399] loss2/conv -> loss2/conv
I0403 16:32:59.347419 18492 net.cpp:141] Setting up loss2/conv
I0403 16:32:59.347446 18492 net.cpp:148] Top shape: 24 128 4 4 (49152)
I0403 16:32:59.347461 18492 net.cpp:156] Memory required for data: 1207926048
I0403 16:32:59.347478 18492 layer_factory.hpp:77] Creating layer loss2/relu_conv
I0403 16:32:59.347498 18492 net.cpp:91] Creating Layer loss2/relu_conv
I0403 16:32:59.347515 18492 net.cpp:425] loss2/relu_conv <- loss2/conv
I0403 16:32:59.347532 18492 net.cpp:386] loss2/relu_conv -> loss2/conv (in-place)
I0403 16:32:59.347808 18492 net.cpp:141] Setting up loss2/relu_conv
I0403 16:32:59.347833 18492 net.cpp:148] Top shape: 24 128 4 4 (49152)
I0403 16:32:59.347848 18492 net.cpp:156] Memory required for data: 1208122656
I0403 16:32:59.347862 18492 layer_factory.hpp:77] Creating layer loss2/fc
I0403 16:32:59.347883 18492 net.cpp:91] Creating Layer loss2/fc
I0403 16:32:59.347900 18492 net.cpp:425] loss2/fc <- loss2/conv
I0403 16:32:59.347918 18492 net.cpp:399] loss2/fc -> loss2/fc
I0403 16:32:59.364975 18492 net.cpp:141] Setting up loss2/fc
I0403 16:32:59.365008 18492 net.cpp:148] Top shape: 24 1024 (24576)
I0403 16:32:59.365025 18492 net.cpp:156] Memory required for data: 1208220960
I0403 16:32:59.365041 18492 layer_factory.hpp:77] Creating layer loss2/relu_fc
I0403 16:32:59.365059 18492 net.cpp:91] Creating Layer loss2/relu_fc
I0403 16:32:59.365075 18492 net.cpp:425] loss2/relu_fc <- loss2/fc
I0403 16:32:59.365094 18492 net.cpp:386] loss2/relu_fc -> loss2/fc (in-place)
I0403 16:32:59.365386 18492 net.cpp:141] Setting up loss2/relu_fc
I0403 16:32:59.365414 18492 net.cpp:148] Top shape: 24 1024 (24576)
I0403 16:32:59.365429 18492 net.cpp:156] Memory required for data: 1208319264
I0403 16:32:59.365443 18492 layer_factory.hpp:77] Creating layer loss2/drop_fc
I0403 16:32:59.365460 18492 net.cpp:91] Creating Layer loss2/drop_fc
I0403 16:32:59.365475 18492 net.cpp:425] loss2/drop_fc <- loss2/fc
I0403 16:32:59.365494 18492 net.cpp:386] loss2/drop_fc -> loss2/fc (in-place)
I0403 16:32:59.365542 18492 net.cpp:141] Setting up loss2/drop_fc
I0403 16:32:59.365566 18492 net.cpp:148] Top shape: 24 1024 (24576)
I0403 16:32:59.365578 18492 net.cpp:156] Memory required for data: 1208417568
I0403 16:32:59.365592 18492 layer_factory.hpp:77] Creating layer loss2/classifier_plantvillage
I0403 16:32:59.365620 18492 net.cpp:91] Creating Layer loss2/classifier_plantvillage
I0403 16:32:59.365638 18492 net.cpp:425] loss2/classifier_plantvillage <- loss2/fc
I0403 16:32:59.365658 18492 net.cpp:399] loss2/classifier_plantvillage -> loss2/classifier_plantvillage
I0403 16:32:59.366050 18492 net.cpp:141] Setting up loss2/classifier_plantvillage
I0403 16:32:59.366072 18492 net.cpp:148] Top shape: 24 38 (912)
I0403 16:32:59.366102 18492 net.cpp:156] Memory required for data: 1208421216
I0403 16:32:59.366122 18492 layer_factory.hpp:77] Creating layer loss2/classifier_plantvillage_loss2/classifier_plantvillage_0_split
I0403 16:32:59.366142 18492 net.cpp:91] Creating Layer loss2/classifier_plantvillage_loss2/classifier_plantvillage_0_split
I0403 16:32:59.366158 18492 net.cpp:425] loss2/classifier_plantvillage_loss2/classifier_plantvillage_0_split <- loss2/classifier_plantvillage
I0403 16:32:59.366175 18492 net.cpp:399] loss2/classifier_plantvillage_loss2/classifier_plantvillage_0_split -> loss2/classifier_plantvillage_loss2/classifier_plantvillage_0_split_0
I0403 16:32:59.366194 18492 net.cpp:399] loss2/classifier_plantvillage_loss2/classifier_plantvillage_0_split -> loss2/classifier_plantvillage_loss2/classifier_plantvillage_0_split_1
I0403 16:32:59.366214 18492 net.cpp:399] loss2/classifier_plantvillage_loss2/classifier_plantvillage_0_split -> loss2/classifier_plantvillage_loss2/classifier_plantvillage_0_split_2
I0403 16:32:59.366297 18492 net.cpp:141] Setting up loss2/classifier_plantvillage_loss2/classifier_plantvillage_0_split
I0403 16:32:59.366319 18492 net.cpp:148] Top shape: 24 38 (912)
I0403 16:32:59.366334 18492 net.cpp:148] Top shape: 24 38 (912)
I0403 16:32:59.366349 18492 net.cpp:148] Top shape: 24 38 (912)
I0403 16:32:59.366363 18492 net.cpp:156] Memory required for data: 1208432160
I0403 16:32:59.366376 18492 layer_factory.hpp:77] Creating layer inception_4e/1x1
I0403 16:32:59.366395 18492 net.cpp:91] Creating Layer inception_4e/1x1
I0403 16:32:59.366411 18492 net.cpp:425] inception_4e/1x1 <- inception_4d/output_inception_4d/output_0_split_1
I0403 16:32:59.366431 18492 net.cpp:399] inception_4e/1x1 -> inception_4e/1x1
I0403 16:32:59.368208 18492 net.cpp:141] Setting up inception_4e/1x1
I0403 16:32:59.368237 18492 net.cpp:148] Top shape: 24 256 14 14 (1204224)
I0403 16:32:59.368252 18492 net.cpp:156] Memory required for data: 1213249056
I0403 16:32:59.368268 18492 layer_factory.hpp:77] Creating layer inception_4e/relu_1x1
I0403 16:32:59.368288 18492 net.cpp:91] Creating Layer inception_4e/relu_1x1
I0403 16:32:59.368305 18492 net.cpp:425] inception_4e/relu_1x1 <- inception_4e/1x1
I0403 16:32:59.368321 18492 net.cpp:386] inception_4e/relu_1x1 -> inception_4e/1x1 (in-place)
I0403 16:32:59.368619 18492 net.cpp:141] Setting up inception_4e/relu_1x1
I0403 16:32:59.368644 18492 net.cpp:148] Top shape: 24 256 14 14 (1204224)
I0403 16:32:59.368659 18492 net.cpp:156] Memory required for data: 1218065952
I0403 16:32:59.368674 18492 layer_factory.hpp:77] Creating layer inception_4e/3x3_reduce
I0403 16:32:59.368695 18492 net.cpp:91] Creating Layer inception_4e/3x3_reduce
I0403 16:32:59.368711 18492 net.cpp:425] inception_4e/3x3_reduce <- inception_4d/output_inception_4d/output_0_split_2
I0403 16:32:59.368732 18492 net.cpp:399] inception_4e/3x3_reduce -> inception_4e/3x3_reduce
I0403 16:32:59.370820 18492 net.cpp:141] Setting up inception_4e/3x3_reduce
I0403 16:32:59.370847 18492 net.cpp:148] Top shape: 24 160 14 14 (752640)
I0403 16:32:59.370862 18492 net.cpp:156] Memory required for data: 1221076512
I0403 16:32:59.370880 18492 layer_factory.hpp:77] Creating layer inception_4e/relu_3x3_reduce
I0403 16:32:59.370899 18492 net.cpp:91] Creating Layer inception_4e/relu_3x3_reduce
I0403 16:32:59.370916 18492 net.cpp:425] inception_4e/relu_3x3_reduce <- inception_4e/3x3_reduce
I0403 16:32:59.370934 18492 net.cpp:386] inception_4e/relu_3x3_reduce -> inception_4e/3x3_reduce (in-place)
I0403 16:32:59.371114 18492 net.cpp:141] Setting up inception_4e/relu_3x3_reduce
I0403 16:32:59.371139 18492 net.cpp:148] Top shape: 24 160 14 14 (752640)
I0403 16:32:59.371153 18492 net.cpp:156] Memory required for data: 1224087072
I0403 16:32:59.371167 18492 layer_factory.hpp:77] Creating layer inception_4e/3x3
I0403 16:32:59.371188 18492 net.cpp:91] Creating Layer inception_4e/3x3
I0403 16:32:59.371204 18492 net.cpp:425] inception_4e/3x3 <- inception_4e/3x3_reduce
I0403 16:32:59.371224 18492 net.cpp:399] inception_4e/3x3 -> inception_4e/3x3
I0403 16:32:59.376021 18492 net.cpp:141] Setting up inception_4e/3x3
I0403 16:32:59.376060 18492 net.cpp:148] Top shape: 24 320 14 14 (1505280)
I0403 16:32:59.376076 18492 net.cpp:156] Memory required for data: 1230108192
I0403 16:32:59.376093 18492 layer_factory.hpp:77] Creating layer inception_4e/relu_3x3
I0403 16:32:59.376113 18492 net.cpp:91] Creating Layer inception_4e/relu_3x3
I0403 16:32:59.376129 18492 net.cpp:425] inception_4e/relu_3x3 <- inception_4e/3x3
I0403 16:32:59.376145 18492 net.cpp:386] inception_4e/relu_3x3 -> inception_4e/3x3 (in-place)
I0403 16:32:59.376431 18492 net.cpp:141] Setting up inception_4e/relu_3x3
I0403 16:32:59.376456 18492 net.cpp:148] Top shape: 24 320 14 14 (1505280)
I0403 16:32:59.376471 18492 net.cpp:156] Memory required for data: 1236129312
I0403 16:32:59.376485 18492 layer_factory.hpp:77] Creating layer inception_4e/5x5_reduce
I0403 16:32:59.376508 18492 net.cpp:91] Creating Layer inception_4e/5x5_reduce
I0403 16:32:59.376525 18492 net.cpp:425] inception_4e/5x5_reduce <- inception_4d/output_inception_4d/output_0_split_3
I0403 16:32:59.376543 18492 net.cpp:399] inception_4e/5x5_reduce -> inception_4e/5x5_reduce
I0403 16:32:59.377565 18492 net.cpp:141] Setting up inception_4e/5x5_reduce
I0403 16:32:59.377593 18492 net.cpp:148] Top shape: 24 32 14 14 (150528)
I0403 16:32:59.377614 18492 net.cpp:156] Memory required for data: 1236731424
I0403 16:32:59.377630 18492 layer_factory.hpp:77] Creating layer inception_4e/relu_5x5_reduce
I0403 16:32:59.377648 18492 net.cpp:91] Creating Layer inception_4e/relu_5x5_reduce
I0403 16:32:59.377663 18492 net.cpp:425] inception_4e/relu_5x5_reduce <- inception_4e/5x5_reduce
I0403 16:32:59.377681 18492 net.cpp:386] inception_4e/relu_5x5_reduce -> inception_4e/5x5_reduce (in-place)
I0403 16:32:59.377970 18492 net.cpp:141] Setting up inception_4e/relu_5x5_reduce
I0403 16:32:59.377995 18492 net.cpp:148] Top shape: 24 32 14 14 (150528)
I0403 16:32:59.378010 18492 net.cpp:156] Memory required for data: 1237333536
I0403 16:32:59.378023 18492 layer_factory.hpp:77] Creating layer inception_4e/5x5
I0403 16:32:59.378058 18492 net.cpp:91] Creating Layer inception_4e/5x5
I0403 16:32:59.378077 18492 net.cpp:425] inception_4e/5x5 <- inception_4e/5x5_reduce
I0403 16:32:59.378094 18492 net.cpp:399] inception_4e/5x5 -> inception_4e/5x5
I0403 16:32:59.379880 18492 net.cpp:141] Setting up inception_4e/5x5
I0403 16:32:59.379907 18492 net.cpp:148] Top shape: 24 128 14 14 (602112)
I0403 16:32:59.379922 18492 net.cpp:156] Memory required for data: 1239741984
I0403 16:32:59.379940 18492 layer_factory.hpp:77] Creating layer inception_4e/relu_5x5
I0403 16:32:59.379956 18492 net.cpp:91] Creating Layer inception_4e/relu_5x5
I0403 16:32:59.379971 18492 net.cpp:425] inception_4e/relu_5x5 <- inception_4e/5x5
I0403 16:32:59.379989 18492 net.cpp:386] inception_4e/relu_5x5 -> inception_4e/5x5 (in-place)
I0403 16:32:59.380177 18492 net.cpp:141] Setting up inception_4e/relu_5x5
I0403 16:32:59.380199 18492 net.cpp:148] Top shape: 24 128 14 14 (602112)
I0403 16:32:59.380213 18492 net.cpp:156] Memory required for data: 1242150432
I0403 16:32:59.380226 18492 layer_factory.hpp:77] Creating layer inception_4e/pool
I0403 16:32:59.380245 18492 net.cpp:91] Creating Layer inception_4e/pool
I0403 16:32:59.380261 18492 net.cpp:425] inception_4e/pool <- inception_4d/output_inception_4d/output_0_split_4
I0403 16:32:59.380277 18492 net.cpp:399] inception_4e/pool -> inception_4e/pool
I0403 16:32:59.380342 18492 net.cpp:141] Setting up inception_4e/pool
I0403 16:32:59.380365 18492 net.cpp:148] Top shape: 24 528 14 14 (2483712)
I0403 16:32:59.380378 18492 net.cpp:156] Memory required for data: 1252085280
I0403 16:32:59.380393 18492 layer_factory.hpp:77] Creating layer inception_4e/pool_proj
I0403 16:32:59.380412 18492 net.cpp:91] Creating Layer inception_4e/pool_proj
I0403 16:32:59.380429 18492 net.cpp:425] inception_4e/pool_proj <- inception_4e/pool
I0403 16:32:59.380448 18492 net.cpp:399] inception_4e/pool_proj -> inception_4e/pool_proj
I0403 16:32:59.381880 18492 net.cpp:141] Setting up inception_4e/pool_proj
I0403 16:32:59.381921 18492 net.cpp:148] Top shape: 24 128 14 14 (602112)
I0403 16:32:59.381937 18492 net.cpp:156] Memory required for data: 1254493728
I0403 16:32:59.381954 18492 layer_factory.hpp:77] Creating layer inception_4e/relu_pool_proj
I0403 16:32:59.381971 18492 net.cpp:91] Creating Layer inception_4e/relu_pool_proj
I0403 16:32:59.381988 18492 net.cpp:425] inception_4e/relu_pool_proj <- inception_4e/pool_proj
I0403 16:32:59.382002 18492 net.cpp:386] inception_4e/relu_pool_proj -> inception_4e/pool_proj (in-place)
I0403 16:32:59.382298 18492 net.cpp:141] Setting up inception_4e/relu_pool_proj
I0403 16:32:59.382326 18492 net.cpp:148] Top shape: 24 128 14 14 (602112)
I0403 16:32:59.382341 18492 net.cpp:156] Memory required for data: 1256902176
I0403 16:32:59.382356 18492 layer_factory.hpp:77] Creating layer inception_4e/output
I0403 16:32:59.382372 18492 net.cpp:91] Creating Layer inception_4e/output
I0403 16:32:59.382388 18492 net.cpp:425] inception_4e/output <- inception_4e/1x1
I0403 16:32:59.382403 18492 net.cpp:425] inception_4e/output <- inception_4e/3x3
I0403 16:32:59.382419 18492 net.cpp:425] inception_4e/output <- inception_4e/5x5
I0403 16:32:59.382434 18492 net.cpp:425] inception_4e/output <- inception_4e/pool_proj
I0403 16:32:59.382452 18492 net.cpp:399] inception_4e/output -> inception_4e/output
I0403 16:32:59.382500 18492 net.cpp:141] Setting up inception_4e/output
I0403 16:32:59.382522 18492 net.cpp:148] Top shape: 24 832 14 14 (3913728)
I0403 16:32:59.382536 18492 net.cpp:156] Memory required for data: 1272557088
I0403 16:32:59.382562 18492 layer_factory.hpp:77] Creating layer pool4/3x3_s2
I0403 16:32:59.382580 18492 net.cpp:91] Creating Layer pool4/3x3_s2
I0403 16:32:59.382596 18492 net.cpp:425] pool4/3x3_s2 <- inception_4e/output
I0403 16:32:59.382618 18492 net.cpp:399] pool4/3x3_s2 -> pool4/3x3_s2
I0403 16:32:59.382683 18492 net.cpp:141] Setting up pool4/3x3_s2
I0403 16:32:59.382706 18492 net.cpp:148] Top shape: 24 832 7 7 (978432)
I0403 16:32:59.382720 18492 net.cpp:156] Memory required for data: 1276470816
I0403 16:32:59.382733 18492 layer_factory.hpp:77] Creating layer pool4/3x3_s2_pool4/3x3_s2_0_split
I0403 16:32:59.382750 18492 net.cpp:91] Creating Layer pool4/3x3_s2_pool4/3x3_s2_0_split
I0403 16:32:59.382764 18492 net.cpp:425] pool4/3x3_s2_pool4/3x3_s2_0_split <- pool4/3x3_s2
I0403 16:32:59.382782 18492 net.cpp:399] pool4/3x3_s2_pool4/3x3_s2_0_split -> pool4/3x3_s2_pool4/3x3_s2_0_split_0
I0403 16:32:59.382802 18492 net.cpp:399] pool4/3x3_s2_pool4/3x3_s2_0_split -> pool4/3x3_s2_pool4/3x3_s2_0_split_1
I0403 16:32:59.382820 18492 net.cpp:399] pool4/3x3_s2_pool4/3x3_s2_0_split -> pool4/3x3_s2_pool4/3x3_s2_0_split_2
I0403 16:32:59.382839 18492 net.cpp:399] pool4/3x3_s2_pool4/3x3_s2_0_split -> pool4/3x3_s2_pool4/3x3_s2_0_split_3
I0403 16:32:59.382926 18492 net.cpp:141] Setting up pool4/3x3_s2_pool4/3x3_s2_0_split
I0403 16:32:59.382951 18492 net.cpp:148] Top shape: 24 832 7 7 (978432)
I0403 16:32:59.382966 18492 net.cpp:148] Top shape: 24 832 7 7 (978432)
I0403 16:32:59.382980 18492 net.cpp:148] Top shape: 24 832 7 7 (978432)
I0403 16:32:59.382995 18492 net.cpp:148] Top shape: 24 832 7 7 (978432)
I0403 16:32:59.383008 18492 net.cpp:156] Memory required for data: 1292125728
I0403 16:32:59.383021 18492 layer_factory.hpp:77] Creating layer inception_5a/1x1
I0403 16:32:59.383041 18492 net.cpp:91] Creating Layer inception_5a/1x1
I0403 16:32:59.383059 18492 net.cpp:425] inception_5a/1x1 <- pool4/3x3_s2_pool4/3x3_s2_0_split_0
I0403 16:32:59.383075 18492 net.cpp:399] inception_5a/1x1 -> inception_5a/1x1
I0403 16:32:59.385809 18492 net.cpp:141] Setting up inception_5a/1x1
I0403 16:32:59.385836 18492 net.cpp:148] Top shape: 24 256 7 7 (301056)
I0403 16:32:59.385851 18492 net.cpp:156] Memory required for data: 1293329952
I0403 16:32:59.385869 18492 layer_factory.hpp:77] Creating layer inception_5a/relu_1x1
I0403 16:32:59.385886 18492 net.cpp:91] Creating Layer inception_5a/relu_1x1
I0403 16:32:59.385901 18492 net.cpp:425] inception_5a/relu_1x1 <- inception_5a/1x1
I0403 16:32:59.385920 18492 net.cpp:386] inception_5a/relu_1x1 -> inception_5a/1x1 (in-place)
I0403 16:32:59.386224 18492 net.cpp:141] Setting up inception_5a/relu_1x1
I0403 16:32:59.386248 18492 net.cpp:148] Top shape: 24 256 7 7 (301056)
I0403 16:32:59.386262 18492 net.cpp:156] Memory required for data: 1294534176
I0403 16:32:59.386276 18492 layer_factory.hpp:77] Creating layer inception_5a/3x3_reduce
I0403 16:32:59.386297 18492 net.cpp:91] Creating Layer inception_5a/3x3_reduce
I0403 16:32:59.386314 18492 net.cpp:425] inception_5a/3x3_reduce <- pool4/3x3_s2_pool4/3x3_s2_0_split_1
I0403 16:32:59.386334 18492 net.cpp:399] inception_5a/3x3_reduce -> inception_5a/3x3_reduce
I0403 16:32:59.388698 18492 net.cpp:141] Setting up inception_5a/3x3_reduce
I0403 16:32:59.388728 18492 net.cpp:148] Top shape: 24 160 7 7 (188160)
I0403 16:32:59.388744 18492 net.cpp:156] Memory required for data: 1295286816
I0403 16:32:59.388762 18492 layer_factory.hpp:77] Creating layer inception_5a/relu_3x3_reduce
I0403 16:32:59.388779 18492 net.cpp:91] Creating Layer inception_5a/relu_3x3_reduce
I0403 16:32:59.388793 18492 net.cpp:425] inception_5a/relu_3x3_reduce <- inception_5a/3x3_reduce
I0403 16:32:59.388809 18492 net.cpp:386] inception_5a/relu_3x3_reduce -> inception_5a/3x3_reduce (in-place)
I0403 16:32:59.388989 18492 net.cpp:141] Setting up inception_5a/relu_3x3_reduce
I0403 16:32:59.389015 18492 net.cpp:148] Top shape: 24 160 7 7 (188160)
I0403 16:32:59.389030 18492 net.cpp:156] Memory required for data: 1296039456
I0403 16:32:59.389044 18492 layer_factory.hpp:77] Creating layer inception_5a/3x3
I0403 16:32:59.389065 18492 net.cpp:91] Creating Layer inception_5a/3x3
I0403 16:32:59.389080 18492 net.cpp:425] inception_5a/3x3 <- inception_5a/3x3_reduce
I0403 16:32:59.389101 18492 net.cpp:399] inception_5a/3x3 -> inception_5a/3x3
I0403 16:32:59.393909 18492 net.cpp:141] Setting up inception_5a/3x3
I0403 16:32:59.393939 18492 net.cpp:148] Top shape: 24 320 7 7 (376320)
I0403 16:32:59.393954 18492 net.cpp:156] Memory required for data: 1297544736
I0403 16:32:59.393970 18492 layer_factory.hpp:77] Creating layer inception_5a/relu_3x3
I0403 16:32:59.393988 18492 net.cpp:91] Creating Layer inception_5a/relu_3x3
I0403 16:32:59.394003 18492 net.cpp:425] inception_5a/relu_3x3 <- inception_5a/3x3
I0403 16:32:59.394021 18492 net.cpp:386] inception_5a/relu_3x3 -> inception_5a/3x3 (in-place)
I0403 16:32:59.394304 18492 net.cpp:141] Setting up inception_5a/relu_3x3
I0403 16:32:59.394328 18492 net.cpp:148] Top shape: 24 320 7 7 (376320)
I0403 16:32:59.394342 18492 net.cpp:156] Memory required for data: 1299050016
I0403 16:32:59.394356 18492 layer_factory.hpp:77] Creating layer inception_5a/5x5_reduce
I0403 16:32:59.394377 18492 net.cpp:91] Creating Layer inception_5a/5x5_reduce
I0403 16:32:59.394394 18492 net.cpp:425] inception_5a/5x5_reduce <- pool4/3x3_s2_pool4/3x3_s2_0_split_2
I0403 16:32:59.394414 18492 net.cpp:399] inception_5a/5x5_reduce -> inception_5a/5x5_reduce
I0403 16:32:59.395537 18492 net.cpp:141] Setting up inception_5a/5x5_reduce
I0403 16:32:59.395567 18492 net.cpp:148] Top shape: 24 32 7 7 (37632)
I0403 16:32:59.395583 18492 net.cpp:156] Memory required for data: 1299200544
I0403 16:32:59.395606 18492 layer_factory.hpp:77] Creating layer inception_5a/relu_5x5_reduce
I0403 16:32:59.395627 18492 net.cpp:91] Creating Layer inception_5a/relu_5x5_reduce
I0403 16:32:59.395643 18492 net.cpp:425] inception_5a/relu_5x5_reduce <- inception_5a/5x5_reduce
I0403 16:32:59.395659 18492 net.cpp:386] inception_5a/relu_5x5_reduce -> inception_5a/5x5_reduce (in-place)
I0403 16:32:59.395943 18492 net.cpp:141] Setting up inception_5a/relu_5x5_reduce
I0403 16:32:59.395968 18492 net.cpp:148] Top shape: 24 32 7 7 (37632)
I0403 16:32:59.395982 18492 net.cpp:156] Memory required for data: 1299351072
I0403 16:32:59.395997 18492 layer_factory.hpp:77] Creating layer inception_5a/5x5
I0403 16:32:59.396018 18492 net.cpp:91] Creating Layer inception_5a/5x5
I0403 16:32:59.396034 18492 net.cpp:425] inception_5a/5x5 <- inception_5a/5x5_reduce
I0403 16:32:59.396054 18492 net.cpp:399] inception_5a/5x5 -> inception_5a/5x5
I0403 16:32:59.397696 18492 net.cpp:141] Setting up inception_5a/5x5
I0403 16:32:59.397734 18492 net.cpp:148] Top shape: 24 128 7 7 (150528)
I0403 16:32:59.397750 18492 net.cpp:156] Memory required for data: 1299953184
I0403 16:32:59.397768 18492 layer_factory.hpp:77] Creating layer inception_5a/relu_5x5
I0403 16:32:59.397783 18492 net.cpp:91] Creating Layer inception_5a/relu_5x5
I0403 16:32:59.397799 18492 net.cpp:425] inception_5a/relu_5x5 <- inception_5a/5x5
I0403 16:32:59.397817 18492 net.cpp:386] inception_5a/relu_5x5 -> inception_5a/5x5 (in-place)
I0403 16:32:59.398000 18492 net.cpp:141] Setting up inception_5a/relu_5x5
I0403 16:32:59.398023 18492 net.cpp:148] Top shape: 24 128 7 7 (150528)
I0403 16:32:59.398036 18492 net.cpp:156] Memory required for data: 1300555296
I0403 16:32:59.398051 18492 layer_factory.hpp:77] Creating layer inception_5a/pool
I0403 16:32:59.398069 18492 net.cpp:91] Creating Layer inception_5a/pool
I0403 16:32:59.398085 18492 net.cpp:425] inception_5a/pool <- pool4/3x3_s2_pool4/3x3_s2_0_split_3
I0403 16:32:59.398102 18492 net.cpp:399] inception_5a/pool -> inception_5a/pool
I0403 16:32:59.398169 18492 net.cpp:141] Setting up inception_5a/pool
I0403 16:32:59.398191 18492 net.cpp:148] Top shape: 24 832 7 7 (978432)
I0403 16:32:59.398205 18492 net.cpp:156] Memory required for data: 1304469024
I0403 16:32:59.398219 18492 layer_factory.hpp:77] Creating layer inception_5a/pool_proj
I0403 16:32:59.398241 18492 net.cpp:91] Creating Layer inception_5a/pool_proj
I0403 16:32:59.398257 18492 net.cpp:425] inception_5a/pool_proj <- inception_5a/pool
I0403 16:32:59.398277 18492 net.cpp:399] inception_5a/pool_proj -> inception_5a/pool_proj
I0403 16:32:59.400466 18492 net.cpp:141] Setting up inception_5a/pool_proj
I0403 16:32:59.400496 18492 net.cpp:148] Top shape: 24 128 7 7 (150528)
I0403 16:32:59.400513 18492 net.cpp:156] Memory required for data: 1305071136
I0403 16:32:59.400530 18492 layer_factory.hpp:77] Creating layer inception_5a/relu_pool_proj
I0403 16:32:59.400548 18492 net.cpp:91] Creating Layer inception_5a/relu_pool_proj
I0403 16:32:59.400563 18492 net.cpp:425] inception_5a/relu_pool_proj <- inception_5a/pool_proj
I0403 16:32:59.400581 18492 net.cpp:386] inception_5a/relu_pool_proj -> inception_5a/pool_proj (in-place)
I0403 16:32:59.400864 18492 net.cpp:141] Setting up inception_5a/relu_pool_proj
I0403 16:32:59.400892 18492 net.cpp:148] Top shape: 24 128 7 7 (150528)
I0403 16:32:59.400907 18492 net.cpp:156] Memory required for data: 1305673248
I0403 16:32:59.400921 18492 layer_factory.hpp:77] Creating layer inception_5a/output
I0403 16:32:59.400938 18492 net.cpp:91] Creating Layer inception_5a/output
I0403 16:32:59.400952 18492 net.cpp:425] inception_5a/output <- inception_5a/1x1
I0403 16:32:59.400967 18492 net.cpp:425] inception_5a/output <- inception_5a/3x3
I0403 16:32:59.400982 18492 net.cpp:425] inception_5a/output <- inception_5a/5x5
I0403 16:32:59.400997 18492 net.cpp:425] inception_5a/output <- inception_5a/pool_proj
I0403 16:32:59.401015 18492 net.cpp:399] inception_5a/output -> inception_5a/output
I0403 16:32:59.401062 18492 net.cpp:141] Setting up inception_5a/output
I0403 16:32:59.401085 18492 net.cpp:148] Top shape: 24 832 7 7 (978432)
I0403 16:32:59.401098 18492 net.cpp:156] Memory required for data: 1309586976
I0403 16:32:59.401111 18492 layer_factory.hpp:77] Creating layer inception_5a/output_inception_5a/output_0_split
I0403 16:32:59.401130 18492 net.cpp:91] Creating Layer inception_5a/output_inception_5a/output_0_split
I0403 16:32:59.401145 18492 net.cpp:425] inception_5a/output_inception_5a/output_0_split <- inception_5a/output
I0403 16:32:59.401162 18492 net.cpp:399] inception_5a/output_inception_5a/output_0_split -> inception_5a/output_inception_5a/output_0_split_0
I0403 16:32:59.401181 18492 net.cpp:399] inception_5a/output_inception_5a/output_0_split -> inception_5a/output_inception_5a/output_0_split_1
I0403 16:32:59.401201 18492 net.cpp:399] inception_5a/output_inception_5a/output_0_split -> inception_5a/output_inception_5a/output_0_split_2
I0403 16:32:59.401223 18492 net.cpp:399] inception_5a/output_inception_5a/output_0_split -> inception_5a/output_inception_5a/output_0_split_3
I0403 16:32:59.401330 18492 net.cpp:141] Setting up inception_5a/output_inception_5a/output_0_split
I0403 16:32:59.401352 18492 net.cpp:148] Top shape: 24 832 7 7 (978432)
I0403 16:32:59.401367 18492 net.cpp:148] Top shape: 24 832 7 7 (978432)
I0403 16:32:59.401381 18492 net.cpp:148] Top shape: 24 832 7 7 (978432)
I0403 16:32:59.401396 18492 net.cpp:148] Top shape: 24 832 7 7 (978432)
I0403 16:32:59.401408 18492 net.cpp:156] Memory required for data: 1325241888
I0403 16:32:59.401422 18492 layer_factory.hpp:77] Creating layer inception_5b/1x1
I0403 16:32:59.401443 18492 net.cpp:91] Creating Layer inception_5b/1x1
I0403 16:32:59.401459 18492 net.cpp:425] inception_5b/1x1 <- inception_5a/output_inception_5a/output_0_split_0
I0403 16:32:59.401479 18492 net.cpp:399] inception_5b/1x1 -> inception_5b/1x1
I0403 16:32:59.405071 18492 net.cpp:141] Setting up inception_5b/1x1
I0403 16:32:59.405102 18492 net.cpp:148] Top shape: 24 384 7 7 (451584)
I0403 16:32:59.405117 18492 net.cpp:156] Memory required for data: 1327048224
I0403 16:32:59.405134 18492 layer_factory.hpp:77] Creating layer inception_5b/relu_1x1
I0403 16:32:59.405151 18492 net.cpp:91] Creating Layer inception_5b/relu_1x1
I0403 16:32:59.405166 18492 net.cpp:425] inception_5b/relu_1x1 <- inception_5b/1x1
I0403 16:32:59.405184 18492 net.cpp:386] inception_5b/relu_1x1 -> inception_5b/1x1 (in-place)
I0403 16:32:59.405478 18492 net.cpp:141] Setting up inception_5b/relu_1x1
I0403 16:32:59.405504 18492 net.cpp:148] Top shape: 24 384 7 7 (451584)
I0403 16:32:59.405519 18492 net.cpp:156] Memory required for data: 1328854560
I0403 16:32:59.405534 18492 layer_factory.hpp:77] Creating layer inception_5b/3x3_reduce
I0403 16:32:59.405555 18492 net.cpp:91] Creating Layer inception_5b/3x3_reduce
I0403 16:32:59.405571 18492 net.cpp:425] inception_5b/3x3_reduce <- inception_5a/output_inception_5a/output_0_split_1
I0403 16:32:59.405589 18492 net.cpp:399] inception_5b/3x3_reduce -> inception_5b/3x3_reduce
I0403 16:32:59.408169 18492 net.cpp:141] Setting up inception_5b/3x3_reduce
I0403 16:32:59.408200 18492 net.cpp:148] Top shape: 24 192 7 7 (225792)
I0403 16:32:59.408215 18492 net.cpp:156] Memory required for data: 1329757728
I0403 16:32:59.408233 18492 layer_factory.hpp:77] Creating layer inception_5b/relu_3x3_reduce
I0403 16:32:59.408251 18492 net.cpp:91] Creating Layer inception_5b/relu_3x3_reduce
I0403 16:32:59.408267 18492 net.cpp:425] inception_5b/relu_3x3_reduce <- inception_5b/3x3_reduce
I0403 16:32:59.408285 18492 net.cpp:386] inception_5b/relu_3x3_reduce -> inception_5b/3x3_reduce (in-place)
I0403 16:32:59.408465 18492 net.cpp:141] Setting up inception_5b/relu_3x3_reduce
I0403 16:32:59.408489 18492 net.cpp:148] Top shape: 24 192 7 7 (225792)
I0403 16:32:59.408502 18492 net.cpp:156] Memory required for data: 1330660896
I0403 16:32:59.408515 18492 layer_factory.hpp:77] Creating layer inception_5b/3x3
I0403 16:32:59.408540 18492 net.cpp:91] Creating Layer inception_5b/3x3
I0403 16:32:59.408556 18492 net.cpp:425] inception_5b/3x3 <- inception_5b/3x3_reduce
I0403 16:32:59.408578 18492 net.cpp:399] inception_5b/3x3 -> inception_5b/3x3
I0403 16:32:59.415012 18492 net.cpp:141] Setting up inception_5b/3x3
I0403 16:32:59.415043 18492 net.cpp:148] Top shape: 24 384 7 7 (451584)
I0403 16:32:59.415060 18492 net.cpp:156] Memory required for data: 1332467232
I0403 16:32:59.415077 18492 layer_factory.hpp:77] Creating layer inception_5b/relu_3x3
I0403 16:32:59.415094 18492 net.cpp:91] Creating Layer inception_5b/relu_3x3
I0403 16:32:59.415109 18492 net.cpp:425] inception_5b/relu_3x3 <- inception_5b/3x3
I0403 16:32:59.415128 18492 net.cpp:386] inception_5b/relu_3x3 -> inception_5b/3x3 (in-place)
I0403 16:32:59.415432 18492 net.cpp:141] Setting up inception_5b/relu_3x3
I0403 16:32:59.415460 18492 net.cpp:148] Top shape: 24 384 7 7 (451584)
I0403 16:32:59.415477 18492 net.cpp:156] Memory required for data: 1334273568
I0403 16:32:59.415490 18492 layer_factory.hpp:77] Creating layer inception_5b/5x5_reduce
I0403 16:32:59.415529 18492 net.cpp:91] Creating Layer inception_5b/5x5_reduce
I0403 16:32:59.415547 18492 net.cpp:425] inception_5b/5x5_reduce <- inception_5a/output_inception_5a/output_0_split_2
I0403 16:32:59.415575 18492 net.cpp:399] inception_5b/5x5_reduce -> inception_5b/5x5_reduce
I0403 16:32:59.416821 18492 net.cpp:141] Setting up inception_5b/5x5_reduce
I0403 16:32:59.416849 18492 net.cpp:148] Top shape: 24 48 7 7 (56448)
I0403 16:32:59.416865 18492 net.cpp:156] Memory required for data: 1334499360
I0403 16:32:59.416882 18492 layer_factory.hpp:77] Creating layer inception_5b/relu_5x5_reduce
I0403 16:32:59.416899 18492 net.cpp:91] Creating Layer inception_5b/relu_5x5_reduce
I0403 16:32:59.416915 18492 net.cpp:425] inception_5b/relu_5x5_reduce <- inception_5b/5x5_reduce
I0403 16:32:59.416931 18492 net.cpp:386] inception_5b/relu_5x5_reduce -> inception_5b/5x5_reduce (in-place)
I0403 16:32:59.417295 18492 net.cpp:141] Setting up inception_5b/relu_5x5_reduce
I0403 16:32:59.417320 18492 net.cpp:148] Top shape: 24 48 7 7 (56448)
I0403 16:32:59.417335 18492 net.cpp:156] Memory required for data: 1334725152
I0403 16:32:59.417348 18492 layer_factory.hpp:77] Creating layer inception_5b/5x5
I0403 16:32:59.417367 18492 net.cpp:91] Creating Layer inception_5b/5x5
I0403 16:32:59.417383 18492 net.cpp:425] inception_5b/5x5 <- inception_5b/5x5_reduce
I0403 16:32:59.417400 18492 net.cpp:399] inception_5b/5x5 -> inception_5b/5x5
I0403 16:32:59.419370 18492 net.cpp:141] Setting up inception_5b/5x5
I0403 16:32:59.419397 18492 net.cpp:148] Top shape: 24 128 7 7 (150528)
I0403 16:32:59.419412 18492 net.cpp:156] Memory required for data: 1335327264
I0403 16:32:59.419430 18492 layer_factory.hpp:77] Creating layer inception_5b/relu_5x5
I0403 16:32:59.419446 18492 net.cpp:91] Creating Layer inception_5b/relu_5x5
I0403 16:32:59.419461 18492 net.cpp:425] inception_5b/relu_5x5 <- inception_5b/5x5
I0403 16:32:59.419479 18492 net.cpp:386] inception_5b/relu_5x5 -> inception_5b/5x5 (in-place)
I0403 16:32:59.419673 18492 net.cpp:141] Setting up inception_5b/relu_5x5
I0403 16:32:59.419697 18492 net.cpp:148] Top shape: 24 128 7 7 (150528)
I0403 16:32:59.419711 18492 net.cpp:156] Memory required for data: 1335929376
I0403 16:32:59.419725 18492 layer_factory.hpp:77] Creating layer inception_5b/pool
I0403 16:32:59.419744 18492 net.cpp:91] Creating Layer inception_5b/pool
I0403 16:32:59.419760 18492 net.cpp:425] inception_5b/pool <- inception_5a/output_inception_5a/output_0_split_3
I0403 16:32:59.419777 18492 net.cpp:399] inception_5b/pool -> inception_5b/pool
I0403 16:32:59.419847 18492 net.cpp:141] Setting up inception_5b/pool
I0403 16:32:59.419870 18492 net.cpp:148] Top shape: 24 832 7 7 (978432)
I0403 16:32:59.419884 18492 net.cpp:156] Memory required for data: 1339843104
I0403 16:32:59.419898 18492 layer_factory.hpp:77] Creating layer inception_5b/pool_proj
I0403 16:32:59.419919 18492 net.cpp:91] Creating Layer inception_5b/pool_proj
I0403 16:32:59.419935 18492 net.cpp:425] inception_5b/pool_proj <- inception_5b/pool
I0403 16:32:59.419967 18492 net.cpp:399] inception_5b/pool_proj -> inception_5b/pool_proj
I0403 16:32:59.422211 18492 net.cpp:141] Setting up inception_5b/pool_proj
I0403 16:32:59.422240 18492 net.cpp:148] Top shape: 24 128 7 7 (150528)
I0403 16:32:59.422256 18492 net.cpp:156] Memory required for data: 1340445216
I0403 16:32:59.422273 18492 layer_factory.hpp:77] Creating layer inception_5b/relu_pool_proj
I0403 16:32:59.422291 18492 net.cpp:91] Creating Layer inception_5b/relu_pool_proj
I0403 16:32:59.422305 18492 net.cpp:425] inception_5b/relu_pool_proj <- inception_5b/pool_proj
I0403 16:32:59.422323 18492 net.cpp:386] inception_5b/relu_pool_proj -> inception_5b/pool_proj (in-place)
I0403 16:32:59.422617 18492 net.cpp:141] Setting up inception_5b/relu_pool_proj
I0403 16:32:59.422644 18492 net.cpp:148] Top shape: 24 128 7 7 (150528)
I0403 16:32:59.422658 18492 net.cpp:156] Memory required for data: 1341047328
I0403 16:32:59.422672 18492 layer_factory.hpp:77] Creating layer inception_5b/output
I0403 16:32:59.422688 18492 net.cpp:91] Creating Layer inception_5b/output
I0403 16:32:59.422718 18492 net.cpp:425] inception_5b/output <- inception_5b/1x1
I0403 16:32:59.422734 18492 net.cpp:425] inception_5b/output <- inception_5b/3x3
I0403 16:32:59.422750 18492 net.cpp:425] inception_5b/output <- inception_5b/5x5
I0403 16:32:59.422765 18492 net.cpp:425] inception_5b/output <- inception_5b/pool_proj
I0403 16:32:59.422781 18492 net.cpp:399] inception_5b/output -> inception_5b/output
I0403 16:32:59.422832 18492 net.cpp:141] Setting up inception_5b/output
I0403 16:32:59.422868 18492 net.cpp:148] Top shape: 24 1024 7 7 (1204224)
I0403 16:32:59.422881 18492 net.cpp:156] Memory required for data: 1345864224
I0403 16:32:59.422896 18492 layer_factory.hpp:77] Creating layer pool5/7x7_s1
I0403 16:32:59.422915 18492 net.cpp:91] Creating Layer pool5/7x7_s1
I0403 16:32:59.422931 18492 net.cpp:425] pool5/7x7_s1 <- inception_5b/output
I0403 16:32:59.422948 18492 net.cpp:399] pool5/7x7_s1 -> pool5/7x7_s1
I0403 16:32:59.423177 18492 net.cpp:141] Setting up pool5/7x7_s1
I0403 16:32:59.423214 18492 net.cpp:148] Top shape: 24 1024 1 1 (24576)
I0403 16:32:59.423228 18492 net.cpp:156] Memory required for data: 1345962528
I0403 16:32:59.423243 18492 layer_factory.hpp:77] Creating layer pool5/drop_7x7_s1
I0403 16:32:59.423259 18492 net.cpp:91] Creating Layer pool5/drop_7x7_s1
I0403 16:32:59.423274 18492 net.cpp:425] pool5/drop_7x7_s1 <- pool5/7x7_s1
I0403 16:32:59.423292 18492 net.cpp:386] pool5/drop_7x7_s1 -> pool5/7x7_s1 (in-place)
I0403 16:32:59.423341 18492 net.cpp:141] Setting up pool5/drop_7x7_s1
I0403 16:32:59.423365 18492 net.cpp:148] Top shape: 24 1024 1 1 (24576)
I0403 16:32:59.423379 18492 net.cpp:156] Memory required for data: 1346060832
I0403 16:32:59.423393 18492 layer_factory.hpp:77] Creating layer loss3/classifier_plantvillage
I0403 16:32:59.423413 18492 net.cpp:91] Creating Layer loss3/classifier_plantvillage
I0403 16:32:59.423427 18492 net.cpp:425] loss3/classifier_plantvillage <- pool5/7x7_s1
I0403 16:32:59.423462 18492 net.cpp:399] loss3/classifier_plantvillage -> loss3/classifier_plantvillage
I0403 16:32:59.423876 18492 net.cpp:141] Setting up loss3/classifier_plantvillage
I0403 16:32:59.423898 18492 net.cpp:148] Top shape: 24 38 (912)
I0403 16:32:59.423912 18492 net.cpp:156] Memory required for data: 1346064480
I0403 16:32:59.423928 18492 layer_factory.hpp:77] Creating layer loss3/classifier_plantvillage_loss3/classifier_plantvillage_0_split
I0403 16:32:59.423949 18492 net.cpp:91] Creating Layer loss3/classifier_plantvillage_loss3/classifier_plantvillage_0_split
I0403 16:32:59.423964 18492 net.cpp:425] loss3/classifier_plantvillage_loss3/classifier_plantvillage_0_split <- loss3/classifier_plantvillage
I0403 16:32:59.423981 18492 net.cpp:399] loss3/classifier_plantvillage_loss3/classifier_plantvillage_0_split -> loss3/classifier_plantvillage_loss3/classifier_plantvillage_0_split_0
I0403 16:32:59.424000 18492 net.cpp:399] loss3/classifier_plantvillage_loss3/classifier_plantvillage_0_split -> loss3/classifier_plantvillage_loss3/classifier_plantvillage_0_split_1
I0403 16:32:59.424022 18492 net.cpp:399] loss3/classifier_plantvillage_loss3/classifier_plantvillage_0_split -> loss3/classifier_plantvillage_loss3/classifier_plantvillage_0_split_2
I0403 16:32:59.424041 18492 net.cpp:399] loss3/classifier_plantvillage_loss3/classifier_plantvillage_0_split -> loss3/classifier_plantvillage_loss3/classifier_plantvillage_0_split_3
I0403 16:32:59.424137 18492 net.cpp:141] Setting up loss3/classifier_plantvillage_loss3/classifier_plantvillage_0_split
I0403 16:32:59.424160 18492 net.cpp:148] Top shape: 24 38 (912)
I0403 16:32:59.424175 18492 net.cpp:148] Top shape: 24 38 (912)
I0403 16:32:59.424190 18492 net.cpp:148] Top shape: 24 38 (912)
I0403 16:32:59.424203 18492 net.cpp:148] Top shape: 24 38 (912)
I0403 16:32:59.424216 18492 net.cpp:156] Memory required for data: 1346079072
I0403 16:32:59.424228 18492 layer_factory.hpp:77] Creating layer loss1/loss
I0403 16:32:59.424248 18492 net.cpp:91] Creating Layer loss1/loss
I0403 16:32:59.424276 18492 net.cpp:425] loss1/loss <- loss1/classifier_plantvillage_loss1/classifier_plantvillage_0_split_0
I0403 16:32:59.424307 18492 net.cpp:425] loss1/loss <- label_data_1_split_0
…
