…
I0403 16:19:16.305856 17713 net.cpp:313] The NetState phase (1) differed from the phase (0) specified by a rule in layer data
I0403 16:19:16.307050 17713 net.cpp:49] Initializing net from parameters: 
state {
  phase: TEST
}
layer {
  name: "data"
  type: "Data"
  top: "data"
  top: "label"
  include {
    phase: TEST
  }
  transform_param {
    mirror: false
    crop_size: 224
    mean_file: "/home/mohanty/data/final_dataset/lmdb/segmented-20-80/mean.binaryproto"
  }
  data_param {
    source: "/home/mohanty/data/final_dataset/lmdb/segmented-20-80/test_db"
    batch_size: 24
    backend: LMDB
  }
}
layer {
  name: "conv1/7x7_s2"
  type: "Convolution"
  bottom: "data"
  top: "conv1/7x7_s2"
  param {
    lr_mult: 1
    decay_mult: 1
  }
  param {
    lr_mult: 2
    decay_mult: 0
  }
  convolution_param {
    num_output: 64
    pad: 3
    kernel_size: 7
    stride: 2
    weight_filler {
      type: "xavier"
      std: 0.1
    }
    bias_filler {
      type: "constant"
      value: 0.2
    }
  }
}
layer {
  name: "conv1/relu_7x7"
  type: "ReLU"
  bottom: "conv1/7x7_s2"
  top: "conv1/7x7_s2"
}
layer {
  name: "pool1/3x3_s2"
  type: "Pooling"
  bottom: "conv1/7x7_s2"
  top: "pool1/3x3_s2"
  pooling_param {
    pool: MAX
    kernel_size: 3
    stride: 2
  }
}
layer {
  name: "pool1/norm1"
  type: "LRN"
  bottom: "pool1/3x3_s2"
  top: "pool1/norm1"
  lrn_param {
    local_size: 5
    alpha: 0.0001
    beta: 0.75
  }
}
layer {
  name: "conv2/3x3_reduce"
  type: "Convolution"
  bottom: "pool1/norm1"
  top: "conv2/3x3_reduce"
  param {
    lr_mult: 1
    decay_mult: 1
  }
  param {
    lr_mult: 2
    decay_mult: 0
  }
  convolution_param {
    num_output: 64
    kernel_size: 1
    weight_filler {
      type: "xavier"
      std: 0.1
    }
    bias_filler {
      type: "constant"
      value: 0.2
    }
  }
}
layer {
  name: "conv2/relu_3x3_reduce"
  type: "ReLU"
  bottom: "conv2/3x3_reduce"
  top: "conv2/3x3_reduce"
}
layer {
  name: "conv2/3x3"
  type: "Convolution"
  bottom: "conv2/3x3_reduce"
  top: "conv2/3x3"
  param {
    lr_mult: 1
    decay_mult: 1
  }
  param {
    lr_mult: 2
    decay_mult: 0
  }
  convolution_param {
    num_output: 192
    pad: 1
    kernel_size: 3
    weight_filler {
      type: "xavier"
      std: 0.03
    }
    bias_filler {
      type: "constant"
      value: 0.2
    }
  }
}
layer {
  name: "conv2/relu_3x3"
  type: "ReLU"
  bottom: "conv2/3x3"
  top: "conv2/3x3"
}
layer {
  name: "conv2/norm2"
  type: "LRN"
  bottom: "conv2/3x3"
  top: "conv2/norm2"
  lrn_param {
    local_size: 5
    alpha: 0.0001
    beta: 0.75
  }
}
layer {
  name: "pool2/3x3_s2"
  type: "Pooling"
  bottom: "conv2/norm2"
  top: "pool2/3x3_s2"
  pooling_param {
    pool: MAX
    kernel_size: 3
    stride: 2
  }
}
layer {
  name: "inception_3a/1x1"
  type: "Convolution"
  bottom: "pool2/3x3_s2"
  top: "inception_3a/1x1"
  param {
    lr_mult: 1
    decay_mult: 1
  }
  param {
    lr_mult: 2
    decay_mult: 0
  }
  convolution_param {
    num_output: 64
    kernel_size: 1
    weight_filler {
      type: "xavier"
      std: 0.03
    }
    bias_filler {
      type: "constant"
      value: 0.2
    }
  }
}
layer {
  name: "inception_3a/relu_1x1"
  type: "ReLU"
  bottom: "inception_3a/1x1"
  top: "inception_3a/1x1"
}
layer {
  name: "inception_3a/3x3_reduce"
  type: "Convolution"
  bottom: "pool2/3x3_s2"
  top: "inception_3a/3x3_reduce"
  param {
    lr_mult: 1
    decay_mult: 1
  }
  param {
    lr_mult: 2
    decay_mult: 0
  }
  convolution_param {
    num_output: 96
    kernel_size: 1
    weight_filler {
      type: "xavier"
      std: 0.09
    }
    bias_filler {
      type: "constant"
      value: 0.2
    }
  }
}
layer {
  name: "inception_3a/relu_3x3_reduce"
  type: "ReLU"
  bottom: "inception_3a/3x3_reduce"
  top: "inception_3a/3x3_reduce"
}
layer {
  name: "inception_3a/3x3"
  type: "Convolution"
  bottom: "inception_3a/3x3_reduce"
  top: "inception_3a/3x3"
  param {
    lr_mult: 1
    decay_mult: 1
  }
  param {
    lr_mult: 2
    decay_mult: 0
  }
  convolution_param {
    num_output: 128
    pad: 1
    kernel_size: 3
    weight_filler {
      type: "xavier"
      std: 0.03
    }
    bias_filler {
      type: "constant"
      value: 0.2
    }
  }
}
layer {
  name: "inception_3a/relu_3x3"
  type: "ReLU"
  bottom: "inception_3a/3x3"
  top: "inception_3a/3x3"
}
layer {
  name: "inception_3a/5x5_reduce"
  type: "Convolution"
  bottom: "pool2/3x3_s2"
  top: "inception_3a/5x5_reduce"
  param {
    lr_mult: 1
    decay_mult: 1
  }
  param {
    lr_mult: 2
    decay_mult: 0
  }
  convolution_param {
    num_output: 16
    kernel_size: 1
    weight_filler {
      type: "xavier"
      std: 0.2
    }
    bias_filler {
      type: "constant"
      value: 0.2
    }
  }
}
layer {
  name: "inception_3a/relu_5x5_reduce"
  type: "ReLU"
  bottom: "inception_3a/5x5_reduce"
  top: "inception_3a/5x5_reduce"
}
layer {
  name: "inception_3a/5x5"
  type: "Convolution"
  bottom: "inception_3a/5x5_reduce"
  top: "inception_3a/5x5"
  param {
    lr_mult: 1
    decay_mult: 1
  }
  param {
    lr_mult: 2
    decay_mult: 0
  }
  convolution_param {
    num_output: 32
    pad: 2
    kernel_size: 5
    weight_filler {
      type: "xavier"
      std: 0.03
    }
    bias_filler {
      type: "constant"
      value: 0.2
    }
  }
}
layer {
  name: "inception_3a/relu_5x5"
  type: "ReLU"
  bottom: "inception_3a/5x5"
  top: "inception_3a/5x5"
}
layer {
  name: "inception_3a/pool"
  type: "Pooling"
  bottom: "pool2/3x3_s2"
  top: "inception_3a/pool"
  pooling_param {
    pool: MAX
    kernel_size: 3
    stride: 1
    pad: 1
  }
}
layer {
  name: "inception_3a/pool_proj"
  type: "Convolution"
  bottom: "inception_3a/pool"
  top: "inception_3a/pool_proj"
  param {
    lr_mult: 1
    decay_mult: 1
  }
  param {
    lr_mult: 2
    decay_mult: 0
  }
  convolution_param {
    num_output: 32
    kernel_size: 1
    weight_filler {
      type: "xavier"
      std: 0.1
    }
    bias_filler {
      type: "constant"
      value: 0.2
    }
  }
}
layer {
  name: "inception_3a/relu_pool_proj"
  type: "ReLU"
  bottom: "inception_3a/pool_proj"
  top: "inception_3a/pool_proj"
}
layer {
  name: "inception_3a/output"
  type: "Concat"
  bottom: "inception_3a/1x1"
  bottom: "inception_3a/3x3"
  bottom: "inception_3a/5x5"
  bottom: "inception_3a/pool_proj"
  top: "inception_3a/output"
}
layer {
  name: "inception_3b/1x1"
  type: "Convolution"
  bottom: "inception_3a/output"
  top: "inception_3b/1x1"
  param {
    lr_mult: 1
    decay_mult: 1
  }
  param {
    lr_mult: 2
    decay_mult: 0
  }
  convolution_param {
    num_output: 128
    kernel_size: 1
    weight_filler {
      type: "xavier"
      std: 0.03
    }
    bias_filler {
      type: "constant"
      value: 0.2
    }
  }
}
layer {
  name: "inception_3b/relu_1x1"
  type: "ReLU"
  bottom: "inception_3b/1x1"
  top: "inception_3b/1x1"
}
layer {
  name: "inception_3b/3x3_reduce"
  type: "Convolution"
  bottom: "inception_3a/output"
  top: "inception_3b/3x3_reduce"
  param {
    lr_mult: 1
    decay_mult: 1
  }
  param {
    lr_mult: 2
    decay_mult: 0
  }
  convolution_param {
    num_output: 128
    kernel_size: 1
    weight_filler {
      type: "xavier"
      std: 0.09
    }
    bias_filler {
      type: "constant"
      value: 0.2
    }
  }
}
layer {
  name: "inception_3b/relu_3x3_reduce"
  type: "ReLU"
  bottom: "inception_3b/3x3_reduce"
  top: "inception_3b/3x3_reduce"
}
layer {
  name: "inception_3b/3x3"
  type: "Convolution"
  bottom: "inception_3b/3x3_reduce"
  top: "inception_3b/3x3"
  param {
    lr_mult: 1
    decay_mult: 1
  }
  param {
    lr_mult: 2
    decay_mult: 0
  }
  convolution_param {
    num_output: 192
    pad: 1
    kernel_size: 3
    weight_filler {
      type: "xavier"
      std: 0.03
    }
    bias_filler {
      type: "constant"
      value: 0.2
    }
  }
}
layer {
  name: "inception_3b/relu_3x3"
  type: "ReLU"
  bottom: "inception_3b/3x3"
  top: "inception_3b/3x3"
}
layer {
  name: "inception_3b/5x5_reduce"
  type: "Convolution"
  bottom: "inception_3a/output"
  top: "inception_3b/5x5_reduce"
  param {
    lr_mult: 1
    decay_mult: 1
  }
  param {
    lr_mult: 2
    decay_mult: 0
  }
  convolution_param {
    num_output: 32
    kernel_size: 1
    weight_filler {
      type: "xavier"
      std: 0.2
    }
    bias_filler {
      type: "constant"
      value: 0.2
    }
  }
}
layer {
  name: "inception_3b/relu_5x5_reduce"
  type: "ReLU"
  bottom: "inception_3b/5x5_reduce"
  top: "inception_3b/5x5_reduce"
}
layer {
  name: "inception_3b/5x5"
  type: "Convolution"
  bottom: "inception_3b/5x5_reduce"
  top: "inception_3b/5x5"
  param {
    lr_mult: 1
    decay_mult: 1
  }
  param {
    lr_mult: 2
    decay_mult: 0
  }
  convolution_param {
    num_output: 96
    pad: 2
    kernel_size: 5
    weight_filler {
      type: "xavier"
      std: 0.03
    }
    bias_filler {
      type: "constant"
      value: 0.2
    }
  }
}
layer {
  name: "inception_3b/relu_5x5"
  type: "ReLU"
  bottom: "inception_3b/5x5"
  top: "inception_3b/5x5"
}
layer {
  name: "inception_3b/pool"
  type: "Pooling"
  bottom: "inception_3a/output"
  top: "inception_3b/pool"
  pooling_param {
    pool: MAX
    kernel_size: 3
    stride: 1
    pad: 1
  }
}
layer {
  name: "inception_3b/pool_proj"
  type: "Convolution"
  bottom: "inception_3b/pool"
  top: "inception_3b/pool_proj"
  param {
    lr_mult: 1
    decay_mult: 1
  }
  param {
    lr_mult: 2
    decay_mult: 0
  }
  convolution_param {
    num_output: 64
    kernel_size: 1
    weight_filler {
      type: "xavier"
      std: 0.1
    }
    bias_filler {
      type: "constant"
      value: 0.2
    }
  }
}
layer {
  name: "inception_3b/relu_pool_proj"
  type: "ReLU"
  bottom: "inception_3b/pool_proj"
  top: "inception_3b/pool_proj"
}
layer {
  name: "inception_3b/output"
  type: "Concat"
  bottom: "inception_3b/1x1"
  bottom: "inception_3b/3x3"
  bottom: "inception_3b/5x5"
  bottom: "inception_3b/pool_proj"
  top: "inception_3b/output"
}
layer {
  name: "pool3/3x3_s2"
  type: "Pooling"
  bottom: "inception_3b/output"
  top: "pool3/3x3_s2"
  pooling_param {
    pool: MAX
    kernel_size: 3
    stride: 2
  }
}
layer {
  name: "inception_4a/1x1"
  type: "Convolution"
  bottom: "pool3/3x3_s2"
  top: "inception_4a/1x1"
  param {
    lr_mult: 1
    decay_mult: 1
  }
  param {
    lr_mult: 2
    decay_mult: 0
  }
  convolution_param {
    num_output: 192
    kernel_size: 1
    weight_filler {
      type: "xavier"
      std: 0.03
    }
    bias_filler {
      type: "constant"
      value: 0.2
    }
  }
}
layer {
  name: "inception_4a/relu_1x1"
  type: "ReLU"
  bottom: "inception_4a/1x1"
  top: "inception_4a/1x1"
}
layer {
  name: "inception_4a/3x3_reduce"
  type: "Convolution"
  bottom: "pool3/3x3_s2"
  top: "inception_4a/3x3_reduce"
  param {
    lr_mult: 1
    decay_mult: 1
  }
  param {
    lr_mult: 2
    decay_mult: 0
  }
  convolution_param {
    num_output: 96
    kernel_size: 1
    weight_filler {
      type: "xavier"
      std: 0.09
    }
    bias_filler {
      type: "constant"
      value: 0.2
    }
  }
}
layer {
  name: "inception_4a/relu_3x3_reduce"
  type: "ReLU"
  bottom: "inception_4a/3x3_reduce"
  top: "inception_4a/3x3_reduce"
}
layer {
  name: "inception_4a/3x3"
  type: "Convolution"
  bottom: "inception_4a/3x3_reduce"
  top: "inception_4a/3x3"
  param {
    lr_mult: 1
    decay_mult: 1
  }
  param {
    lr_mult: 2
    decay_mult: 0
  }
  convolution_param {
    num_output: 208
    pad: 1
    kernel_size: 3
    weight_filler {
      type: "xavier"
      std: 0.03
    }
    bias_filler {
      type: "constant"
      value: 0.2
    }
  }
}
layer {
  name: "inception_4a/relu_3x3"
  type: "ReLU"
  bottom: "inception_4a/3x3"
  top: "inception_4a/3x3"
}
layer {
  name: "inception_4a/5x5_reduce"
  type: "Convolution"
  bottom: "pool3/3x3_s2"
  top: "inception_4a/5x5_reduce"
  param {
    lr_mult: 1
    decay_mult: 1
  }
  param {
    lr_mult: 2
    decay_mult: 0
  }
  convolution_param {
    num_output: 16
    kernel_size: 1
    weight_filler {
      type: "xavier"
      std: 0.2
    }
    bias_filler {
      type: "constant"
      value: 0.2
    }
  }
}
layer {
  name: "inception_4a/relu_5x5_reduce"
  type: "ReLU"
  bottom: "inception_4a/5x5_reduce"
  top: "inception_4a/5x5_reduce"
}
layer {
  name: "inception_4a/5x5"
  type: "Convolution"
  bottom: "inception_4a/5x5_reduce"
  top: "inception_4a/5x5"
  param {
    lr_mult: 1
    decay_mult: 1
  }
  param {
    lr_mult: 2
    decay_mult: 0
  }
  convolution_param {
    num_output: 48
    pad: 2
    kernel_size: 5
    weight_filler {
      type: "xavier"
      std: 0.03
    }
    bias_filler {
      type: "constant"
      value: 0.2
    }
  }
}
layer {
  name: "inception_4a/relu_5x5"
  type: "ReLU"
  bottom: "inception_4a/5x5"
  top: "inception_4a/5x5"
}
layer {
  name: "inception_4a/pool"
  type: "Pooling"
  bottom: "pool3/3x3_s2"
  top: "inception_4a/pool"
  pooling_param {
    pool: MAX
    kernel_size: 3
    stride: 1
    pad: 1
  }
}
layer {
  name: "inception_4a/pool_proj"
  type: "Convolution"
  bottom: "inception_4a/pool"
  top: "inception_4a/pool_proj"
  param {
    lr_mult: 1
    decay_mult: 1
  }
  param {
    lr_mult: 2
    decay_mult: 0
  }
  convolution_param {
    num_output: 64
    kernel_size: 1
    weight_filler {
      type: "xavier"
      std: 0.1
    }
    bias_filler {
      type: "constant"
      value: 0.2
    }
  }
}
layer {
  name: "inception_4a/relu_pool_proj"
  type: "ReLU"
  bottom: "inception_4a/pool_proj"
  top: "inception_4a/pool_proj"
}
layer {
  name: "inception_4a/output"
  type: "Concat"
  bottom: "inception_4a/1x1"
  bottom: "inception_4a/3x3"
  bottom: "inception_4a/5x5"
  bottom: "inception_4a/pool_proj"
  top: "inception_4a/output"
}
layer {
  name: "loss1/ave_pool"
  type: "Pooling"
  bottom: "inception_4a/output"
  top: "loss1/ave_pool"
  pooling_param {
    pool: AVE
    kernel_size: 5
    stride: 3
  }
}
layer {
  name: "loss1/conv"
  type: "Convolution"
  bottom: "loss1/ave_pool"
  top: "loss1/conv"
  param {
    lr_mult: 1
    decay_mult: 1
  }
  param {
    lr_mult: 2
    decay_mult: 0
  }
  convolution_param {
    num_output: 128
    kernel_size: 1
    weight_filler {
      type: "xavier"
      std: 0.08
    }
    bias_filler {
      type: "constant"
      value: 0.2
    }
  }
}
layer {
  name: "loss1/relu_conv"
  type: "ReLU"
  bottom: "loss1/conv"
  top: "loss1/conv"
}
layer {
  name: "loss1/fc"
  type: "InnerProduct"
  bottom: "loss1/conv"
  top: "loss1/fc"
  param {
    lr_mult: 1
    decay_mult: 1
  }
  param {
    lr_mult: 2
    decay_mult: 0
  }
  inner_product_param {
    num_output: 1024
    weight_filler {
      type: "xavier"
      std: 0.02
    }
    bias_filler {
      type: "constant"
      value: 0.2
    }
  }
}
layer {
  name: "loss1/relu_fc"
  type: "ReLU"
  bottom: "loss1/fc"
  top: "loss1/fc"
}
layer {
  name: "loss1/drop_fc"
  type: "Dropout"
  bottom: "loss1/fc"
  top: "loss1/fc"
  dropout_param {
    dropout_ratio: 0.7
  }
}
layer {
  name: "loss1/classifier_plantvillage"
  type: "InnerProduct"
  bottom: "loss1/fc"
  top: "loss1/classifier_plantvillage"
  param {
    lr_mult: 1
    decay_mult: 1
  }
  param {
    lr_mult: 2
    decay_mult: 0
  }
  inner_product_param {
    num_output: 38
    weight_filler {
      type: "xavier"
      std: 0.0009765625
    }
    bias_filler {
      type: "constant"
      value: 0
    }
  }
}
layer {
  name: "inception_4b/1x1"
  type: "Convolution"
  bottom: "inception_4a/output"
  top: "inception_4b/1x1"
  param {
    lr_mult: 1
    decay_mult: 1
  }
  param {
    lr_mult: 2
    decay_mult: 0
  }
  convolution_param {
    num_output: 160
    kernel_size: 1
    weight_filler {
      type: "xavier"
      std: 0.03
    }
    bias_filler {
      type: "constant"
      value: 0.2
    }
  }
}
layer {
  name: "inception_4b/relu_1x1"
  type: "ReLU"
  bottom: "inception_4b/1x1"
  top: "inception_4b/1x1"
}
layer {
  name: "inception_4b/3x3_reduce"
  type: "Convolution"
  bottom: "inception_4a/output"
  top: "inception_4b/3x3_reduce"
  param {
    lr_mult: 1
    decay_mult: 1
  }
  param {
    lr_mult: 2
    decay_mult: 0
  }
  convolution_param {
    num_output: 112
    kernel_size: 1
    weight_filler {
      type: "xavier"
      std: 0.09
    }
    bias_filler {
      type: "constant"
      value: 0.2
    }
  }
}
layer {
  name: "inception_4b/relu_3x3_reduce"
  type: "ReLU"
  bottom: "inception_4b/3x3_reduce"
  top: "inception_4b/3x3_reduce"
}
layer {
  name: "inception_4b/3x3"
  type: "Convolution"
  bottom: "inception_4b/3x3_reduce"
  top: "inception_4b/3x3"
  param {
    lr_mult: 1
    decay_mult: 1
  }
  param {
    lr_mult: 2
    decay_mult: 0
  }
  convolution_param {
    num_output: 224
    pad: 1
    kernel_size: 3
    weight_filler {
      type: "xavier"
      std: 0.03
    }
    bias_filler {
      type: "constant"
      value: 0.2
    }
  }
}
layer {
  name: "inception_4b/relu_3x3"
  type: "ReLU"
  bottom: "inception_4b/3x3"
  top: "inception_4b/3x3"
}
layer {
  name: "inception_4b/5x5_reduce"
  type: "Convolution"
  bottom: "inception_4a/output"
  top: "inception_4b/5x5_reduce"
  param {
    lr_mult: 1
    decay_mult: 1
  }
  param {
    lr_mult: 2
    decay_mult: 0
  }
  convolution_param {
    num_output: 24
    kernel_size: 1
    weight_filler {
      type: "xavier"
      std: 0.2
    }
    bias_filler {
      type: "constant"
      value: 0.2
    }
  }
}
layer {
  name: "inception_4b/relu_5x5_reduce"
  type: "ReLU"
  bottom: "inception_4b/5x5_reduce"
  top: "inception_4b/5x5_reduce"
}
layer {
  name: "inception_4b/5x5"
  type: "Convolution"
  bottom: "inception_4b/5x5_reduce"
  top: "inception_4b/5x5"
  param {
    lr_mult: 1
    decay_mult: 1
  }
  param {
    lr_mult: 2
    decay_mult: 0
  }
  convolution_param {
    num_output: 64
    pad: 2
    kernel_size: 5
    weight_filler {
      type: "xavier"
      std: 0.03
    }
    bias_filler {
      type: "constant"
      value: 0.2
    }
  }
}
layer {
  name: "inception_4b/relu_5x5"
  type: "ReLU"
  bottom: "inception_4b/5x5"
  top: "inception_4b/5x5"
}
layer {
  name: "inception_4b/pool"
  type: "Pooling"
  bottom: "inception_4a/output"
  top: "inception_4b/pool"
  pooling_param {
    pool: MAX
    kernel_size: 3
    stride: 1
    pad: 1
  }
}
layer {
  name: "inception_4b/pool_proj"
  type: "Convolution"
  bottom: "inception_4b/pool"
  top: "inception_4b/pool_proj"
  param {
    lr_mult: 1
    decay_mult: 1
  }
  param {
    lr_mult: 2
    decay_mult: 0
  }
  convolution_param {
    num_output: 64
    kernel_size: 1
    weight_filler {
      type: "xavier"
      std: 0.1
    }
    bias_filler {
      type: "constant"
      value: 0.2
    }
  }
}
layer {
  name: "inception_4b/relu_pool_proj"
  type: "ReLU"
  bottom: "inception_4b/pool_proj"
  top: "inception_4b/pool_proj"
}
layer {
  name: "inception_4b/output"
  type: "Concat"
  bottom: "inception_4b/1x1"
  bottom: "inception_4b/3x3"
  bottom: "inception_4b/5x5"
  bottom: "inception_4b/pool_proj"
  top: "inception_4b/output"
}
layer {
  name: "inception_4c/1x1"
  type: "Convolution"
  bottom: "inception_4b/output"
  top: "inception_4c/1x1"
  param {
    lr_mult: 1
    decay_mult: 1
  }
  param {
    lr_mult: 2
    decay_mult: 0
  }
  convolution_param {
    num_output: 128
    kernel_size: 1
    weight_filler {
      type: "xavier"
      std: 0.03
    }
    bias_filler {
      type: "constant"
      value: 0.2
    }
  }
}
layer {
  name: "inception_4c/relu_1x1"
  type: "ReLU"
  bottom: "inception_4c/1x1"
  top: "inception_4c/1x1"
}
layer {
  name: "inception_4c/3x3_reduce"
  type: "Convolution"
  bottom: "inception_4b/output"
  top: "inception_4c/3x3_reduce"
  param {
    lr_mult: 1
    decay_mult: 1
  }
  param {
    lr_mult: 2
    decay_mult: 0
  }
  convolution_param {
    num_output: 128
    kernel_size: 1
    weight_filler {
      type: "xavier"
      std: 0.09
    }
    bias_filler {
      type: "constant"
      value: 0.2
    }
  }
}
layer {
  name: "inception_4c/relu_3x3_reduce"
  type: "ReLU"
  bottom: "inception_4c/3x3_reduce"
  top: "inception_4c/3x3_reduce"
}
layer {
  name: "inception_4c/3x3"
  type: "Convolution"
  bottom: "inception_4c/3x3_reduce"
  top: "inception_4c/3x3"
  param {
    lr_mult: 1
    decay_mult: 1
  }
  param {
    lr_mult: 2
    decay_mult: 0
  }
  convolution_param {
    num_output: 256
    pad: 1
    kernel_size: 3
    weight_filler {
      type: "xavier"
      std: 0.03
    }
    bias_filler {
      type: "constant"
      value: 0.2
    }
  }
}
layer {
  name: "inception_4c/relu_3x3"
  type: "ReLU"
  bottom: "inception_4c/3x3"
  top: "inception_4c/3x3"
}
layer {
  name: "inception_4c/5x5_reduce"
  type: "Convolution"
  bottom: "inception_4b/output"
  top: "inception_4c/5x5_reduce"
  param {
    lr_mult: 1
    decay_mult: 1
  }
  param {
    lr_mult: 2
    decay_mult: 0
  }
  convolution_param {
    num_output: 24
    kernel_size: 1
    weight_filler {
      type: "xavier"
      std: 0.2
    }
    bias_filler {
      type: "constant"
      value: 0.2
    }
  }
}
layer {
  name: "inception_4c/relu_5x5_reduce"
  type: "ReLU"
  bottom: "inception_4c/5x5_reduce"
  top: "inception_4c/5x5_reduce"
}
layer {
  name: "inception_4c/5x5"
  type: "Convolution"
  bottom: "inception_4c/5x5_reduce"
  top: "inception_4c/5x5"
  param {
    lr_mult: 1
    decay_mult: 1
  }
  param {
    lr_mult: 2
    decay_mult: 0
  }
  convolution_param {
    num_output: 64
    pad: 2
    kernel_size: 5
    weight_filler {
      type: "xavier"
      std: 0.03
    }
    bias_filler {
      type: "constant"
      value: 0.2
    }
  }
}
layer {
  name: "inception_4c/relu_5x5"
  type: "ReLU"
  bottom: "inception_4c/5x5"
  top: "inception_4c/5x5"
}
layer {
  name: "inception_4c/pool"
  type: "Pooling"
  bottom: "inception_4b/output"
  top: "inception_4c/pool"
  pooling_param {
    pool: MAX
    kernel_size: 3
    stride: 1
    pad: 1
  }
}
layer {
  name: "inception_4c/pool_proj"
  type: "Convolution"
  bottom: "inception_4c/pool"
  top: "inception_4c/pool_proj"
  param {
    lr_mult: 1
    decay_mult: 1
  }
  param {
    lr_mult: 2
    decay_mult: 0
  }
  convolution_param {
    num_output: 64
    kernel_size: 1
    weight_filler {
      type: "xavier"
      std: 0.1
    }
    bias_filler {
      type: "constant"
      value: 0.2
    }
  }
}
layer {
  name: "inception_4c/relu_pool_proj"
  type: "ReLU"
  bottom: "inception_4c/pool_proj"
  top: "inception_4c/pool_proj"
}
layer {
  name: "inception_4c/output"
  type: "Concat"
  bottom: "inception_4c/1x1"
  bottom: "inception_4c/3x3"
  bottom: "inception_4c/5x5"
  bottom: "inception_4c/pool_proj"
  top: "inception_4c/output"
}
layer {
  name: "inception_4d/1x1"
  type: "Convolution"
  bottom: "inception_4c/output"
  top: "inception_4d/1x1"
  param {
    lr_mult: 1
    decay_mult: 1
  }
  param {
    lr_mult: 2
    decay_mult: 0
  }
  convolution_param {
    num_output: 112
    kernel_size: 1
    weight_filler {
      type: "xavier"
      std: 0.03
    }
    bias_filler {
      type: "constant"
      value: 0.2
    }
  }
}
layer {
  name: "inception_4d/relu_1x1"
  type: "ReLU"
  bottom: "inception_4d/1x1"
  top: "inception_4d/1x1"
}
layer {
  name: "inception_4d/3x3_reduce"
  type: "Convolution"
  bottom: "inception_4c/output"
  top: "inception_4d/3x3_reduce"
  param {
    lr_mult: 1
    decay_mult: 1
  }
  param {
    lr_mult: 2
    decay_mult: 0
  }
  convolution_param {
    num_output: 144
    kernel_size: 1
    weight_filler {
      type: "xavier"
      std: 0.09
    }
    bias_filler {
      type: "constant"
      value: 0.2
    }
  }
}
layer {
  name: "inception_4d/relu_3x3_reduce"
  type: "ReLU"
  bottom: "inception_4d/3x3_reduce"
  top: "inception_4d/3x3_reduce"
}
layer {
  name: "inception_4d/3x3"
  type: "Convolution"
  bottom: "inception_4d/3x3_reduce"
  top: "inception_4d/3x3"
  param {
    lr_mult: 1
    decay_mult: 1
  }
  param {
    lr_mult: 2
    decay_mult: 0
  }
  convolution_param {
    num_output: 288
    pad: 1
    kernel_size: 3
    weight_filler {
      type: "xavier"
      std: 0.03
    }
    bias_filler {
      type: "constant"
      value: 0.2
    }
  }
}
layer {
  name: "inception_4d/relu_3x3"
  type: "ReLU"
  bottom: "inception_4d/3x3"
  top: "inception_4d/3x3"
}
layer {
  name: "inception_4d/5x5_reduce"
  type: "Convolution"
  bottom: "inception_4c/output"
  top: "inception_4d/5x5_reduce"
  param {
    lr_mult: 1
    decay_mult: 1
  }
  param {
    lr_mult: 2
    decay_mult: 0
  }
  convolution_param {
    num_output: 32
    kernel_size: 1
    weight_filler {
      type: "xavier"
      std: 0.2
    }
    bias_filler {
      type: "constant"
      value: 0.2
    }
  }
}
layer {
  name: "inception_4d/relu_5x5_reduce"
  type: "ReLU"
  bottom: "inception_4d/5x5_reduce"
  top: "inception_4d/5x5_reduce"
}
layer {
  name: "inception_4d/5x5"
  type: "Convolution"
  bottom: "inception_4d/5x5_reduce"
  top: "inception_4d/5x5"
  param {
    lr_mult: 1
    decay_mult: 1
  }
  param {
    lr_mult: 2
    decay_mult: 0
  }
  convolution_param {
    num_output: 64
    pad: 2
    kernel_size: 5
    weight_filler {
      type: "xavier"
      std: 0.03
    }
    bias_filler {
      type: "constant"
      value: 0.2
    }
  }
}
layer {
  name: "inception_4d/relu_5x5"
  type: "ReLU"
  bottom: "inception_4d/5x5"
  top: "inception_4d/5x5"
}
layer {
  name: "inception_4d/pool"
  type: "Pooling"
  bottom: "inception_4c/output"
  top: "inception_4d/pool"
  pooling_param {
    pool: MAX
    kernel_size: 3
    stride: 1
    pad: 1
  }
}
layer {
  name: "inception_4d/pool_proj"
  type: "Convolution"
  bottom: "inception_4d/pool"
  top: "inception_4d/pool_proj"
  param {
    lr_mult: 1
    decay_mult: 1
  }
  param {
    lr_mult: 2
    decay_mult: 0
  }
  convolution_param {
    num_output: 64
    kernel_size: 1
    weight_filler {
      type: "xavier"
      std: 0.1
    }
    bias_filler {
      type: "constant"
      value: 0.2
    }
  }
}
layer {
  name: "inception_4d/relu_pool_proj"
  type: "ReLU"
  bottom: "inception_4d/pool_proj"
  top: "inception_4d/pool_proj"
}
layer {
  name: "inception_4d/output"
  type: "Concat"
  bottom: "inception_4d/1x1"
  bottom: "inception_4d/3x3"
  bottom: "inception_4d/5x5"
  bottom: "inception_4d/pool_proj"
  top: "inception_4d/output"
}
layer {
  name: "loss2/ave_pool"
  type: "Pooling"
  bottom: "inception_4d/output"
  top: "loss2/ave_pool"
  pooling_param {
    pool: AVE
    kernel_size: 5
    stride: 3
  }
}
layer {
  name: "loss2/conv"
  type: "Convolution"
  bottom: "loss2/ave_pool"
  top: "loss2/conv"
  param {
    lr_mult: 1
    decay_mult: 1
  }
  param {
    lr_mult: 2
    decay_mult: 0
  }
  convolution_param {
    num_output: 128
    kernel_size: 1
    weight_filler {
      type: "xavier"
      std: 0.08
    }
    bias_filler {
      type: "constant"
      value: 0.2
    }
  }
}
layer {
  name: "loss2/relu_conv"
  type: "ReLU"
  bottom: "loss2/conv"
  top: "loss2/conv"
}
layer {
  name: "loss2/fc"
  type: "InnerProduct"
  bottom: "loss2/conv"
  top: "loss2/fc"
  param {
    lr_mult: 1
    decay_mult: 1
  }
  param {
    lr_mult: 2
    decay_mult: 0
  }
  inner_product_param {
    num_output: 1024
    weight_filler {
      type: "xavier"
      std: 0.02
    }
    bias_filler {
      type: "constant"
      value: 0.2
    }
  }
}
layer {
  name: "loss2/relu_fc"
  type: "ReLU"
  bottom: "loss2/fc"
  top: "loss2/fc"
}
layer {
  name: "loss2/drop_fc"
  type: "Dropout"
  bottom: "loss2/fc"
  top: "loss2/fc"
  dropout_param {
    dropout_ratio: 0.7
  }
}
layer {
  name: "loss2/classifier_plantvillage"
  type: "InnerProduct"
  bottom: "loss2/fc"
  top: "loss2/classifier_plantvillage"
  param {
    lr_mult: 1
    decay_mult: 1
  }
  param {
    lr_mult: 2
    decay_mult: 0
  }
  inner_product_param {
    num_output: 38
    weight_filler {
      type: "xavier"
      std: 0.0009765625
    }
    bias_filler {
      type: "constant"
      value: 0
    }
  }
}
layer {
  name: "inception_4e/1x1"
  type: "Convolution"
  bottom: "inception_4d/output"
  top: "inception_4e/1x1"
  param {
    lr_mult: 1
    decay_mult: 1
  }
  param {
    lr_mult: 2
    decay_mult: 0
  }
  convolution_param {
    num_output: 256
    kernel_size: 1
    weight_filler {
      type: "xavier"
      std: 0.03
    }
    bias_filler {
      type: "constant"
      value: 0.2
    }
  }
}
layer {
  name: "inception_4e/relu_1x1"
  type: "ReLU"
  bottom: "inception_4e/1x1"
  top: "inception_4e/1x1"
}
layer {
  name: "inception_4e/3x3_reduce"
  type: "Convolution"
  bottom: "inception_4d/output"
  top: "inception_4e/3x3_reduce"
  param {
    lr_mult: 1
    decay_mult: 1
  }
  param {
    lr_mult: 2
    decay_mult: 0
  }
  convolution_param {
    num_output: 160
    kernel_size: 1
    weight_filler {
      type: "xavier"
      std: 0.09
    }
    bias_filler {
      type: "constant"
      value: 0.2
    }
  }
}
layer {
  name: "inception_4e/relu_3x3_reduce"
  type: "ReLU"
  bottom: "inception_4e/3x3_reduce"
  top: "inception_4e/3x3_reduce"
}
layer {
  name: "inception_4e/3x3"
  type: "Convolution"
  bottom: "inception_4e/3x3_reduce"
  top: "inception_4e/3x3"
  param {
    lr_mult: 1
    decay_mult: 1
  }
  param {
    lr_mult: 2
    decay_mult: 0
  }
  convolution_param {
    num_output: 320
    pad: 1
    kernel_size: 3
    weight_filler {
      type: "xavier"
      std: 0.03
    }
    bias_filler {
      type: "constant"
      value: 0.2
    }
  }
}
layer {
  name: "inception_4e/relu_3x3"
  type: "ReLU"
  bottom: "inception_4e/3x3"
  top: "inception_4e/3x3"
}
layer {
  name: "inception_4e/5x5_reduce"
  type: "Convolution"
  bottom: "inception_4d/output"
  top: "inception_4e/5x5_reduce"
  param {
    lr_mult: 1
    decay_mult: 1
  }
  param {
    lr_mult: 2
    decay_mult: 0
  }
  convolution_param {
    num_output: 32
    kernel_size: 1
    weight_filler {
      type: "xavier"
      std: 0.2
    }
    bias_filler {
      type: "constant"
      value: 0.2
    }
  }
}
layer {
  name: "inception_4e/relu_5x5_reduce"
  type: "ReLU"
  bottom: "inception_4e/5x5_reduce"
  top: "inception_4e/5x5_reduce"
}
layer {
  name: "inception_4e/5x5"
  type: "Convolution"
  bottom: "inception_4e/5x5_reduce"
  top: "inception_4e/
I0403 16:19:16.308465 17713 layer_factory.hpp:77] Creating layer data
I0403 16:19:16.309051 17713 net.cpp:91] Creating Layer data
I0403 16:19:16.309084 17713 net.cpp:399] data -> data
I0403 16:19:16.309134 17713 net.cpp:399] data -> label
I0403 16:19:16.309170 17713 data_transformer.cpp:25] Loading mean file from: /home/mohanty/data/final_dataset/lmdb/segmented-20-80/mean.binaryproto
I0403 16:19:16.310364 17718 db_lmdb.cpp:38] Opened lmdb /home/mohanty/data/final_dataset/lmdb/segmented-20-80/test_db
I0403 16:19:16.321967 17713 data_layer.cpp:41] output data size: 24,3,224,224
I0403 16:19:16.348865 17713 net.cpp:141] Setting up data
I0403 16:19:16.348942 17713 net.cpp:148] Top shape: 24 3 224 224 (3612672)
I0403 16:19:16.348964 17713 net.cpp:148] Top shape: 24 (24)
I0403 16:19:16.348979 17713 net.cpp:156] Memory required for data: 14450784
I0403 16:19:16.349006 17713 layer_factory.hpp:77] Creating layer label_data_1_split
I0403 16:19:16.349032 17713 net.cpp:91] Creating Layer label_data_1_split
I0403 16:19:16.349050 17713 net.cpp:425] label_data_1_split <- label
I0403 16:19:16.349081 17713 net.cpp:399] label_data_1_split -> label_data_1_split_0
I0403 16:19:16.349108 17713 net.cpp:399] label_data_1_split -> label_data_1_split_1
I0403 16:19:16.349130 17713 net.cpp:399] label_data_1_split -> label_data_1_split_2
I0403 16:19:16.349151 17713 net.cpp:399] label_data_1_split -> label_data_1_split_3
I0403 16:19:16.349170 17713 net.cpp:399] label_data_1_split -> label_data_1_split_4
I0403 16:19:16.349190 17713 net.cpp:399] label_data_1_split -> label_data_1_split_5
I0403 16:19:16.349210 17713 net.cpp:399] label_data_1_split -> label_data_1_split_6
I0403 16:19:16.349228 17713 net.cpp:399] label_data_1_split -> label_data_1_split_7
I0403 16:19:16.349247 17713 net.cpp:399] label_data_1_split -> label_data_1_split_8
I0403 16:19:16.349268 17713 net.cpp:399] label_data_1_split -> label_data_1_split_9
I0403 16:19:16.349381 17713 net.cpp:141] Setting up label_data_1_split
I0403 16:19:16.349405 17713 net.cpp:148] Top shape: 24 (24)
I0403 16:19:16.349422 17713 net.cpp:148] Top shape: 24 (24)
I0403 16:19:16.349438 17713 net.cpp:148] Top shape: 24 (24)
I0403 16:19:16.349454 17713 net.cpp:148] Top shape: 24 (24)
I0403 16:19:16.349470 17713 net.cpp:148] Top shape: 24 (24)
I0403 16:19:16.349485 17713 net.cpp:148] Top shape: 24 (24)
I0403 16:19:16.349500 17713 net.cpp:148] Top shape: 24 (24)
I0403 16:19:16.349515 17713 net.cpp:148] Top shape: 24 (24)
I0403 16:19:16.349529 17713 net.cpp:148] Top shape: 24 (24)
I0403 16:19:16.349545 17713 net.cpp:148] Top shape: 24 (24)
I0403 16:19:16.349601 17713 net.cpp:156] Memory required for data: 14451744
I0403 16:19:16.349617 17713 layer_factory.hpp:77] Creating layer conv1/7x7_s2
I0403 16:19:16.349647 17713 net.cpp:91] Creating Layer conv1/7x7_s2
I0403 16:19:16.349664 17713 net.cpp:425] conv1/7x7_s2 <- data
I0403 16:19:16.349684 17713 net.cpp:399] conv1/7x7_s2 -> conv1/7x7_s2
I0403 16:19:16.489626 17713 net.cpp:141] Setting up conv1/7x7_s2
I0403 16:19:16.489693 17713 net.cpp:148] Top shape: 24 64 112 112 (19267584)
I0403 16:19:16.489713 17713 net.cpp:156] Memory required for data: 91522080
I0403 16:19:16.489749 17713 layer_factory.hpp:77] Creating layer conv1/relu_7x7
I0403 16:19:16.489781 17713 net.cpp:91] Creating Layer conv1/relu_7x7
I0403 16:19:16.489804 17713 net.cpp:425] conv1/relu_7x7 <- conv1/7x7_s2
I0403 16:19:16.489826 17713 net.cpp:386] conv1/relu_7x7 -> conv1/7x7_s2 (in-place)
I0403 16:19:16.490125 17713 net.cpp:141] Setting up conv1/relu_7x7
I0403 16:19:16.490157 17713 net.cpp:148] Top shape: 24 64 112 112 (19267584)
I0403 16:19:16.490176 17713 net.cpp:156] Memory required for data: 168592416
I0403 16:19:16.490195 17713 layer_factory.hpp:77] Creating layer pool1/3x3_s2
I0403 16:19:16.490223 17713 net.cpp:91] Creating Layer pool1/3x3_s2
I0403 16:19:16.490244 17713 net.cpp:425] pool1/3x3_s2 <- conv1/7x7_s2
I0403 16:19:16.490268 17713 net.cpp:399] pool1/3x3_s2 -> pool1/3x3_s2
I0403 16:19:16.490355 17713 net.cpp:141] Setting up pool1/3x3_s2
I0403 16:19:16.490382 17713 net.cpp:148] Top shape: 24 64 56 56 (4816896)
I0403 16:19:16.490401 17713 net.cpp:156] Memory required for data: 187860000
I0403 16:19:16.490418 17713 layer_factory.hpp:77] Creating layer pool1/norm1
I0403 16:19:16.490447 17713 net.cpp:91] Creating Layer pool1/norm1
I0403 16:19:16.490466 17713 net.cpp:425] pool1/norm1 <- pool1/3x3_s2
I0403 16:19:16.490488 17713 net.cpp:399] pool1/norm1 -> pool1/norm1
I0403 16:19:16.490824 17713 net.cpp:141] Setting up pool1/norm1
I0403 16:19:16.490857 17713 net.cpp:148] Top shape: 24 64 56 56 (4816896)
I0403 16:19:16.490876 17713 net.cpp:156] Memory required for data: 207127584
I0403 16:19:16.490895 17713 layer_factory.hpp:77] Creating layer conv2/3x3_reduce
I0403 16:19:16.490923 17713 net.cpp:91] Creating Layer conv2/3x3_reduce
I0403 16:19:16.490943 17713 net.cpp:425] conv2/3x3_reduce <- pool1/norm1
I0403 16:19:16.490965 17713 net.cpp:399] conv2/3x3_reduce -> conv2/3x3_reduce
I0403 16:19:16.492586 17713 net.cpp:141] Setting up conv2/3x3_reduce
I0403 16:19:16.492621 17713 net.cpp:148] Top shape: 24 64 56 56 (4816896)
I0403 16:19:16.492643 17713 net.cpp:156] Memory required for data: 226395168
I0403 16:19:16.492669 17713 layer_factory.hpp:77] Creating layer conv2/relu_3x3_reduce
I0403 16:19:16.492692 17713 net.cpp:91] Creating Layer conv2/relu_3x3_reduce
I0403 16:19:16.492710 17713 net.cpp:425] conv2/relu_3x3_reduce <- conv2/3x3_reduce
I0403 16:19:16.492732 17713 net.cpp:386] conv2/relu_3x3_reduce -> conv2/3x3_reduce (in-place)
I0403 16:19:16.493051 17713 net.cpp:141] Setting up conv2/relu_3x3_reduce
I0403 16:19:16.493084 17713 net.cpp:148] Top shape: 24 64 56 56 (4816896)
I0403 16:19:16.493104 17713 net.cpp:156] Memory required for data: 245662752
I0403 16:19:16.493122 17713 layer_factory.hpp:77] Creating layer conv2/3x3
I0403 16:19:16.493151 17713 net.cpp:91] Creating Layer conv2/3x3
I0403 16:19:16.493172 17713 net.cpp:425] conv2/3x3 <- conv2/3x3_reduce
I0403 16:19:16.493196 17713 net.cpp:399] conv2/3x3 -> conv2/3x3
I0403 16:19:16.495692 17713 net.cpp:141] Setting up conv2/3x3
I0403 16:19:16.495723 17713 net.cpp:148] Top shape: 24 192 56 56 (14450688)
I0403 16:19:16.495738 17713 net.cpp:156] Memory required for data: 303465504
I0403 16:19:16.495759 17713 layer_factory.hpp:77] Creating layer conv2/relu_3x3
I0403 16:19:16.495776 17713 net.cpp:91] Creating Layer conv2/relu_3x3
I0403 16:19:16.495791 17713 net.cpp:425] conv2/relu_3x3 <- conv2/3x3
I0403 16:19:16.495808 17713 net.cpp:386] conv2/relu_3x3 -> conv2/3x3 (in-place)
I0403 16:19:16.495977 17713 net.cpp:141] Setting up conv2/relu_3x3
I0403 16:19:16.496001 17713 net.cpp:148] Top shape: 24 192 56 56 (14450688)
I0403 16:19:16.496064 17713 net.cpp:156] Memory required for data: 361268256
I0403 16:19:16.496080 17713 layer_factory.hpp:77] Creating layer conv2/norm2
I0403 16:19:16.496101 17713 net.cpp:91] Creating Layer conv2/norm2
I0403 16:19:16.496119 17713 net.cpp:425] conv2/norm2 <- conv2/3x3
I0403 16:19:16.496135 17713 net.cpp:399] conv2/norm2 -> conv2/norm2
I0403 16:19:16.496444 17713 net.cpp:141] Setting up conv2/norm2
I0403 16:19:16.496470 17713 net.cpp:148] Top shape: 24 192 56 56 (14450688)
I0403 16:19:16.496485 17713 net.cpp:156] Memory required for data: 419071008
I0403 16:19:16.496500 17713 layer_factory.hpp:77] Creating layer pool2/3x3_s2
I0403 16:19:16.496520 17713 net.cpp:91] Creating Layer pool2/3x3_s2
I0403 16:19:16.496537 17713 net.cpp:425] pool2/3x3_s2 <- conv2/norm2
I0403 16:19:16.496554 17713 net.cpp:399] pool2/3x3_s2 -> pool2/3x3_s2
I0403 16:19:16.496614 17713 net.cpp:141] Setting up pool2/3x3_s2
I0403 16:19:16.496637 17713 net.cpp:148] Top shape: 24 192 28 28 (3612672)
I0403 16:19:16.496652 17713 net.cpp:156] Memory required for data: 433521696
I0403 16:19:16.496667 17713 layer_factory.hpp:77] Creating layer pool2/3x3_s2_pool2/3x3_s2_0_split
I0403 16:19:16.496685 17713 net.cpp:91] Creating Layer pool2/3x3_s2_pool2/3x3_s2_0_split
I0403 16:19:16.496701 17713 net.cpp:425] pool2/3x3_s2_pool2/3x3_s2_0_split <- pool2/3x3_s2
I0403 16:19:16.496719 17713 net.cpp:399] pool2/3x3_s2_pool2/3x3_s2_0_split -> pool2/3x3_s2_pool2/3x3_s2_0_split_0
I0403 16:19:16.496740 17713 net.cpp:399] pool2/3x3_s2_pool2/3x3_s2_0_split -> pool2/3x3_s2_pool2/3x3_s2_0_split_1
I0403 16:19:16.496759 17713 net.cpp:399] pool2/3x3_s2_pool2/3x3_s2_0_split -> pool2/3x3_s2_pool2/3x3_s2_0_split_2
I0403 16:19:16.496778 17713 net.cpp:399] pool2/3x3_s2_pool2/3x3_s2_0_split -> pool2/3x3_s2_pool2/3x3_s2_0_split_3
I0403 16:19:16.496850 17713 net.cpp:141] Setting up pool2/3x3_s2_pool2/3x3_s2_0_split
I0403 16:19:16.496873 17713 net.cpp:148] Top shape: 24 192 28 28 (3612672)
I0403 16:19:16.496891 17713 net.cpp:148] Top shape: 24 192 28 28 (3612672)
I0403 16:19:16.496906 17713 net.cpp:148] Top shape: 24 192 28 28 (3612672)
I0403 16:19:16.496922 17713 net.cpp:148] Top shape: 24 192 28 28 (3612672)
I0403 16:19:16.496934 17713 net.cpp:156] Memory required for data: 491324448
I0403 16:19:16.496948 17713 layer_factory.hpp:77] Creating layer inception_3a/1x1
I0403 16:19:16.496970 17713 net.cpp:91] Creating Layer inception_3a/1x1
I0403 16:19:16.496987 17713 net.cpp:425] inception_3a/1x1 <- pool2/3x3_s2_pool2/3x3_s2_0_split_0
I0403 16:19:16.497006 17713 net.cpp:399] inception_3a/1x1 -> inception_3a/1x1
I0403 16:19:16.498522 17713 net.cpp:141] Setting up inception_3a/1x1
I0403 16:19:16.498551 17713 net.cpp:148] Top shape: 24 64 28 28 (1204224)
I0403 16:19:16.498571 17713 net.cpp:156] Memory required for data: 496141344
I0403 16:19:16.498591 17713 layer_factory.hpp:77] Creating layer inception_3a/relu_1x1
I0403 16:19:16.498612 17713 net.cpp:91] Creating Layer inception_3a/relu_1x1
I0403 16:19:16.498630 17713 net.cpp:425] inception_3a/relu_1x1 <- inception_3a/1x1
I0403 16:19:16.498647 17713 net.cpp:386] inception_3a/relu_1x1 -> inception_3a/1x1 (in-place)
I0403 16:19:16.498814 17713 net.cpp:141] Setting up inception_3a/relu_1x1
I0403 16:19:16.498841 17713 net.cpp:148] Top shape: 24 64 28 28 (1204224)
I0403 16:19:16.498854 17713 net.cpp:156] Memory required for data: 500958240
I0403 16:19:16.498869 17713 layer_factory.hpp:77] Creating layer inception_3a/3x3_reduce
I0403 16:19:16.498893 17713 net.cpp:91] Creating Layer inception_3a/3x3_reduce
I0403 16:19:16.498909 17713 net.cpp:425] inception_3a/3x3_reduce <- pool2/3x3_s2_pool2/3x3_s2_0_split_1
I0403 16:19:16.498930 17713 net.cpp:399] inception_3a/3x3_reduce -> inception_3a/3x3_reduce
I0403 16:19:16.500588 17713 net.cpp:141] Setting up inception_3a/3x3_reduce
I0403 16:19:16.500618 17713 net.cpp:148] Top shape: 24 96 28 28 (1806336)
I0403 16:19:16.500634 17713 net.cpp:156] Memory required for data: 508183584
I0403 16:19:16.500655 17713 layer_factory.hpp:77] Creating layer inception_3a/relu_3x3_reduce
I0403 16:19:16.500692 17713 net.cpp:91] Creating Layer inception_3a/relu_3x3_reduce
I0403 16:19:16.500710 17713 net.cpp:425] inception_3a/relu_3x3_reduce <- inception_3a/3x3_reduce
I0403 16:19:16.500730 17713 net.cpp:386] inception_3a/relu_3x3_reduce -> inception_3a/3x3_reduce (in-place)
I0403 16:19:16.500903 17713 net.cpp:141] Setting up inception_3a/relu_3x3_reduce
I0403 16:19:16.500926 17713 net.cpp:148] Top shape: 24 96 28 28 (1806336)
I0403 16:19:16.500941 17713 net.cpp:156] Memory required for data: 515408928
I0403 16:19:16.500955 17713 layer_factory.hpp:77] Creating layer inception_3a/3x3
I0403 16:19:16.500977 17713 net.cpp:91] Creating Layer inception_3a/3x3
I0403 16:19:16.500993 17713 net.cpp:425] inception_3a/3x3 <- inception_3a/3x3_reduce
I0403 16:19:16.501014 17713 net.cpp:399] inception_3a/3x3 -> inception_3a/3x3
I0403 16:19:16.502593 17713 net.cpp:141] Setting up inception_3a/3x3
I0403 16:19:16.502621 17713 net.cpp:148] Top shape: 24 128 28 28 (2408448)
I0403 16:19:16.502637 17713 net.cpp:156] Memory required for data: 525042720
I0403 16:19:16.502655 17713 layer_factory.hpp:77] Creating layer inception_3a/relu_3x3
I0403 16:19:16.502673 17713 net.cpp:91] Creating Layer inception_3a/relu_3x3
I0403 16:19:16.502688 17713 net.cpp:425] inception_3a/relu_3x3 <- inception_3a/3x3
I0403 16:19:16.502707 17713 net.cpp:386] inception_3a/relu_3x3 -> inception_3a/3x3 (in-place)
I0403 16:19:16.502971 17713 net.cpp:141] Setting up inception_3a/relu_3x3
I0403 16:19:16.502998 17713 net.cpp:148] Top shape: 24 128 28 28 (2408448)
I0403 16:19:16.503013 17713 net.cpp:156] Memory required for data: 534676512
I0403 16:19:16.503028 17713 layer_factory.hpp:77] Creating layer inception_3a/5x5_reduce
I0403 16:19:16.503049 17713 net.cpp:91] Creating Layer inception_3a/5x5_reduce
I0403 16:19:16.503067 17713 net.cpp:425] inception_3a/5x5_reduce <- pool2/3x3_s2_pool2/3x3_s2_0_split_2
I0403 16:19:16.503084 17713 net.cpp:399] inception_3a/5x5_reduce -> inception_3a/5x5_reduce
I0403 16:19:16.504005 17713 net.cpp:141] Setting up inception_3a/5x5_reduce
I0403 16:19:16.504034 17713 net.cpp:148] Top shape: 24 16 28 28 (301056)
I0403 16:19:16.504050 17713 net.cpp:156] Memory required for data: 535880736
I0403 16:19:16.504067 17713 layer_factory.hpp:77] Creating layer inception_3a/relu_5x5_reduce
I0403 16:19:16.504084 17713 net.cpp:91] Creating Layer inception_3a/relu_5x5_reduce
I0403 16:19:16.504099 17713 net.cpp:425] inception_3a/relu_5x5_reduce <- inception_3a/5x5_reduce
I0403 16:19:16.504120 17713 net.cpp:386] inception_3a/relu_5x5_reduce -> inception_3a/5x5_reduce (in-place)
I0403 16:19:16.504397 17713 net.cpp:141] Setting up inception_3a/relu_5x5_reduce
I0403 16:19:16.504422 17713 net.cpp:148] Top shape: 24 16 28 28 (301056)
I0403 16:19:16.504437 17713 net.cpp:156] Memory required for data: 537084960
I0403 16:19:16.504451 17713 layer_factory.hpp:77] Creating layer inception_3a/5x5
I0403 16:19:16.504473 17713 net.cpp:91] Creating Layer inception_3a/5x5
I0403 16:19:16.504492 17713 net.cpp:425] inception_3a/5x5 <- inception_3a/5x5_reduce
I0403 16:19:16.504511 17713 net.cpp:399] inception_3a/5x5 -> inception_3a/5x5
I0403 16:19:16.505486 17713 net.cpp:141] Setting up inception_3a/5x5
I0403 16:19:16.505511 17713 net.cpp:148] Top shape: 24 32 28 28 (602112)
I0403 16:19:16.505527 17713 net.cpp:156] Memory required for data: 539493408
I0403 16:19:16.505554 17713 layer_factory.hpp:77] Creating layer inception_3a/relu_5x5
I0403 16:19:16.505592 17713 net.cpp:91] Creating Layer inception_3a/relu_5x5
I0403 16:19:16.505611 17713 net.cpp:425] inception_3a/relu_5x5 <- inception_3a/5x5
I0403 16:19:16.505638 17713 net.cpp:386] inception_3a/relu_5x5 -> inception_3a/5x5 (in-place)
I0403 16:19:16.505815 17713 net.cpp:141] Setting up inception_3a/relu_5x5
I0403 16:19:16.505839 17713 net.cpp:148] Top shape: 24 32 28 28 (602112)
I0403 16:19:16.505854 17713 net.cpp:156] Memory required for data: 541901856
I0403 16:19:16.505869 17713 layer_factory.hpp:77] Creating layer inception_3a/pool
I0403 16:19:16.505887 17713 net.cpp:91] Creating Layer inception_3a/pool
I0403 16:19:16.505926 17713 net.cpp:425] inception_3a/pool <- pool2/3x3_s2_pool2/3x3_s2_0_split_3
I0403 16:19:16.505949 17713 net.cpp:399] inception_3a/pool -> inception_3a/pool
I0403 16:19:16.506005 17713 net.cpp:141] Setting up inception_3a/pool
I0403 16:19:16.506027 17713 net.cpp:148] Top shape: 24 192 28 28 (3612672)
I0403 16:19:16.506042 17713 net.cpp:156] Memory required for data: 556352544
I0403 16:19:16.506057 17713 layer_factory.hpp:77] Creating layer inception_3a/pool_proj
I0403 16:19:16.506081 17713 net.cpp:91] Creating Layer inception_3a/pool_proj
I0403 16:19:16.506098 17713 net.cpp:425] inception_3a/pool_proj <- inception_3a/pool
I0403 16:19:16.506116 17713 net.cpp:399] inception_3a/pool_proj -> inception_3a/pool_proj
I0403 16:19:16.507066 17713 net.cpp:141] Setting up inception_3a/pool_proj
I0403 16:19:16.507092 17713 net.cpp:148] Top shape: 24 32 28 28 (602112)
I0403 16:19:16.507107 17713 net.cpp:156] Memory required for data: 558760992
I0403 16:19:16.507131 17713 layer_factory.hpp:77] Creating layer inception_3a/relu_pool_proj
I0403 16:19:16.507151 17713 net.cpp:91] Creating Layer inception_3a/relu_pool_proj
I0403 16:19:16.507169 17713 net.cpp:425] inception_3a/relu_pool_proj <- inception_3a/pool_proj
I0403 16:19:16.507187 17713 net.cpp:386] inception_3a/relu_pool_proj -> inception_3a/pool_proj (in-place)
I0403 16:19:16.507457 17713 net.cpp:141] Setting up inception_3a/relu_pool_proj
I0403 16:19:16.507484 17713 net.cpp:148] Top shape: 24 32 28 28 (602112)
I0403 16:19:16.507499 17713 net.cpp:156] Memory required for data: 561169440
I0403 16:19:16.507514 17713 layer_factory.hpp:77] Creating layer inception_3a/output
I0403 16:19:16.507532 17713 net.cpp:91] Creating Layer inception_3a/output
I0403 16:19:16.507547 17713 net.cpp:425] inception_3a/output <- inception_3a/1x1
I0403 16:19:16.507563 17713 net.cpp:425] inception_3a/output <- inception_3a/3x3
I0403 16:19:16.507585 17713 net.cpp:425] inception_3a/output <- inception_3a/5x5
I0403 16:19:16.507601 17713 net.cpp:425] inception_3a/output <- inception_3a/pool_proj
I0403 16:19:16.507617 17713 net.cpp:399] inception_3a/output -> inception_3a/output
I0403 16:19:16.507665 17713 net.cpp:141] Setting up inception_3a/output
I0403 16:19:16.507688 17713 net.cpp:148] Top shape: 24 256 28 28 (4816896)
I0403 16:19:16.507702 17713 net.cpp:156] Memory required for data: 580437024
I0403 16:19:16.507716 17713 layer_factory.hpp:77] Creating layer inception_3a/output_inception_3a/output_0_split
I0403 16:19:16.507732 17713 net.cpp:91] Creating Layer inception_3a/output_inception_3a/output_0_split
I0403 16:19:16.507747 17713 net.cpp:425] inception_3a/output_inception_3a/output_0_split <- inception_3a/output
I0403 16:19:16.507767 17713 net.cpp:399] inception_3a/output_inception_3a/output_0_split -> inception_3a/output_inception_3a/output_0_split_0
I0403 16:19:16.507787 17713 net.cpp:399] inception_3a/output_inception_3a/output_0_split -> inception_3a/output_inception_3a/output_0_split_1
I0403 16:19:16.507812 17713 net.cpp:399] inception_3a/output_inception_3a/output_0_split -> inception_3a/output_inception_3a/output_0_split_2
I0403 16:19:16.507833 17713 net.cpp:399] inception_3a/output_inception_3a/output_0_split -> inception_3a/output_inception_3a/output_0_split_3
I0403 16:19:16.507904 17713 net.cpp:141] Setting up inception_3a/output_inception_3a/output_0_split
I0403 16:19:16.507926 17713 net.cpp:148] Top shape: 24 256 28 28 (4816896)
I0403 16:19:16.507946 17713 net.cpp:148] Top shape: 24 256 28 28 (4816896)
I0403 16:19:16.507962 17713 net.cpp:148] Top shape: 24 256 28 28 (4816896)
I0403 16:19:16.507977 17713 net.cpp:148] Top shape: 24 256 28 28 (4816896)
I0403 16:19:16.507992 17713 net.cpp:156] Memory required for data: 657507360
I0403 16:19:16.508005 17713 layer_factory.hpp:77] Creating layer inception_3b/1x1
I0403 16:19:16.508024 17713 net.cpp:91] Creating Layer inception_3b/1x1
I0403 16:19:16.508041 17713 net.cpp:425] inception_3b/1x1 <- inception_3a/output_inception_3a/output_0_split_0
I0403 16:19:16.508062 17713 net.cpp:399] inception_3b/1x1 -> inception_3b/1x1
I0403 16:19:16.509177 17713 net.cpp:141] Setting up inception_3b/1x1
I0403 16:19:16.509217 17713 net.cpp:148] Top shape: 24 128 28 28 (2408448)
I0403 16:19:16.509233 17713 net.cpp:156] Memory required for data: 667141152
I0403 16:19:16.509250 17713 layer_factory.hpp:77] Creating layer inception_3b/relu_1x1
I0403 16:19:16.509271 17713 net.cpp:91] Creating Layer inception_3b/relu_1x1
I0403 16:19:16.509289 17713 net.cpp:425] inception_3b/relu_1x1 <- inception_3b/1x1
I0403 16:19:16.509306 17713 net.cpp:386] inception_3b/relu_1x1 -> inception_3b/1x1 (in-place)
I0403 16:19:16.509482 17713 net.cpp:141] Setting up inception_3b/relu_1x1
I0403 16:19:16.509508 17713 net.cpp:148] Top shape: 24 128 28 28 (2408448)
I0403 16:19:16.509524 17713 net.cpp:156] Memory required for data: 676774944
I0403 16:19:16.509538 17713 layer_factory.hpp:77] Creating layer inception_3b/3x3_reduce
I0403 16:19:16.509560 17713 net.cpp:91] Creating Layer inception_3b/3x3_reduce
I0403 16:19:16.509582 17713 net.cpp:425] inception_3b/3x3_reduce <- inception_3a/output_inception_3a/output_0_split_1
I0403 16:19:16.509603 17713 net.cpp:399] inception_3b/3x3_reduce -> inception_3b/3x3_reduce
I0403 16:19:16.510730 17713 net.cpp:141] Setting up inception_3b/3x3_reduce
I0403 16:19:16.510756 17713 net.cpp:148] Top shape: 24 128 28 28 (2408448)
I0403 16:19:16.510771 17713 net.cpp:156] Memory required for data: 686408736
I0403 16:19:16.510789 17713 layer_factory.hpp:77] Creating layer inception_3b/relu_3x3_reduce
I0403 16:19:16.510809 17713 net.cpp:91] Creating Layer inception_3b/relu_3x3_reduce
I0403 16:19:16.510826 17713 net.cpp:425] inception_3b/relu_3x3_reduce <- inception_3b/3x3_reduce
I0403 16:19:16.510843 17713 net.cpp:386] inception_3b/relu_3x3_reduce -> inception_3b/3x3_reduce (in-place)
I0403 16:19:16.511013 17713 net.cpp:141] Setting up inception_3b/relu_3x3_reduce
I0403 16:19:16.511041 17713 net.cpp:148] Top shape: 24 128 28 28 (2408448)
I0403 16:19:16.511057 17713 net.cpp:156] Memory required for data: 696042528
I0403 16:19:16.511072 17713 layer_factory.hpp:77] Creating layer inception_3b/3x3
I0403 16:19:16.511096 17713 net.cpp:91] Creating Layer inception_3b/3x3
I0403 16:19:16.511114 17713 net.cpp:425] inception_3b/3x3 <- inception_3b/3x3_reduce
I0403 16:19:16.511135 17713 net.cpp:399] inception_3b/3x3 -> inception_3b/3x3
I0403 16:19:16.514035 17713 net.cpp:141] Setting up inception_3b/3x3
I0403 16:19:16.514065 17713 net.cpp:148] Top shape: 24 192 28 28 (3612672)
I0403 16:19:16.514082 17713 net.cpp:156] Memory required for data: 710493216
I0403 16:19:16.514101 17713 layer_factory.hpp:77] Creating layer inception_3b/relu_3x3
I0403 16:19:16.514117 17713 net.cpp:91] Creating Layer inception_3b/relu_3x3
I0403 16:19:16.514133 17713 net.cpp:425] inception_3b/relu_3x3 <- inception_3b/3x3
I0403 16:19:16.514153 17713 net.cpp:386] inception_3b/relu_3x3 -> inception_3b/3x3 (in-place)
I0403 16:19:16.514425 17713 net.cpp:141] Setting up inception_3b/relu_3x3
I0403 16:19:16.514452 17713 net.cpp:148] Top shape: 24 192 28 28 (3612672)
I0403 16:19:16.514469 17713 net.cpp:156] Memory required for data: 724943904
I0403 16:19:16.514483 17713 layer_factory.hpp:77] Creating layer inception_3b/5x5_reduce
I0403 16:19:16.514508 17713 net.cpp:91] Creating Layer inception_3b/5x5_reduce
I0403 16:19:16.514524 17713 net.cpp:425] inception_3b/5x5_reduce <- inception_3a/output_inception_3a/output_0_split_2
I0403 16:19:16.514544 17713 net.cpp:399] inception_3b/5x5_reduce -> inception_3b/5x5_reduce
I0403 16:19:16.515532 17713 net.cpp:141] Setting up inception_3b/5x5_reduce
I0403 16:19:16.515560 17713 net.cpp:148] Top shape: 24 32 28 28 (602112)
I0403 16:19:16.515580 17713 net.cpp:156] Memory required for data: 727352352
I0403 16:19:16.515601 17713 layer_factory.hpp:77] Creating layer inception_3b/relu_5x5_reduce
I0403 16:19:16.515620 17713 net.cpp:91] Creating Layer inception_3b/relu_5x5_reduce
I0403 16:19:16.515636 17713 net.cpp:425] inception_3b/relu_5x5_reduce <- inception_3b/5x5_reduce
I0403 16:19:16.515653 17713 net.cpp:386] inception_3b/relu_5x5_reduce -> inception_3b/5x5_reduce (in-place)
I0403 16:19:16.515843 17713 net.cpp:141] Setting up inception_3b/relu_5x5_reduce
I0403 16:19:16.515868 17713 net.cpp:148] Top shape: 24 32 28 28 (602112)
I0403 16:19:16.515882 17713 net.cpp:156] Memory required for data: 729760800
I0403 16:19:16.515897 17713 layer_factory.hpp:77] Creating layer inception_3b/5x5
I0403 16:19:16.515918 17713 net.cpp:91] Creating Layer inception_3b/5x5
I0403 16:19:16.515935 17713 net.cpp:425] inception_3b/5x5 <- inception_3b/5x5_reduce
I0403 16:19:16.515956 17713 net.cpp:399] inception_3b/5x5 -> inception_3b/5x5
I0403 16:19:16.517917 17713 net.cpp:141] Setting up inception_3b/5x5
I0403 16:19:16.517946 17713 net.cpp:148] Top shape: 24 96 28 28 (1806336)
I0403 16:19:16.517961 17713 net.cpp:156] Memory required for data: 736986144
I0403 16:19:16.517978 17713 layer_factory.hpp:77] Creating layer inception_3b/relu_5x5
I0403 16:19:16.517997 17713 net.cpp:91] Creating Layer inception_3b/relu_5x5
I0403 16:19:16.518014 17713 net.cpp:425] inception_3b/relu_5x5 <- inception_3b/5x5
I0403 16:19:16.518033 17713 net.cpp:386] inception_3b/relu_5x5 -> inception_3b/5x5 (in-place)
I0403 16:19:16.518221 17713 net.cpp:141] Setting up inception_3b/relu_5x5
I0403 16:19:16.518245 17713 net.cpp:148] Top shape: 24 96 28 28 (1806336)
I0403 16:19:16.518260 17713 net.cpp:156] Memory required for data: 744211488
I0403 16:19:16.518275 17713 layer_factory.hpp:77] Creating layer inception_3b/pool
I0403 16:19:16.518292 17713 net.cpp:91] Creating Layer inception_3b/pool
I0403 16:19:16.518308 17713 net.cpp:425] inception_3b/pool <- inception_3a/output_inception_3a/output_0_split_3
I0403 16:19:16.518326 17713 net.cpp:399] inception_3b/pool -> inception_3b/pool
I0403 16:19:16.518381 17713 net.cpp:141] Setting up inception_3b/pool
I0403 16:19:16.518404 17713 net.cpp:148] Top shape: 24 256 28 28 (4816896)
I0403 16:19:16.518419 17713 net.cpp:156] Memory required for data: 763479072
I0403 16:19:16.518432 17713 layer_factory.hpp:77] Creating layer inception_3b/pool_proj
I0403 16:19:16.518455 17713 net.cpp:91] Creating Layer inception_3b/pool_proj
I0403 16:19:16.518472 17713 net.cpp:425] inception_3b/pool_proj <- inception_3b/pool
I0403 16:19:16.518492 17713 net.cpp:399] inception_3b/pool_proj -> inception_3b/pool_proj
I0403 16:19:16.519538 17713 net.cpp:141] Setting up inception_3b/pool_proj
I0403 16:19:16.519565 17713 net.cpp:148] Top shape: 24 64 28 28 (1204224)
I0403 16:19:16.519587 17713 net.cpp:156] Memory required for data: 768295968
I0403 16:19:16.519605 17713 layer_factory.hpp:77] Creating layer inception_3b/relu_pool_proj
I0403 16:19:16.519623 17713 net.cpp:91] Creating Layer inception_3b/relu_pool_proj
I0403 16:19:16.519639 17713 net.cpp:425] inception_3b/relu_pool_proj <- inception_3b/pool_proj
I0403 16:19:16.519657 17713 net.cpp:386] inception_3b/relu_pool_proj -> inception_3b/pool_proj (in-place)
I0403 16:19:16.520045 17713 net.cpp:141] Setting up inception_3b/relu_pool_proj
I0403 16:19:16.520073 17713 net.cpp:148] Top shape: 24 64 28 28 (1204224)
I0403 16:19:16.520089 17713 net.cpp:156] Memory required for data: 773112864
I0403 16:19:16.520104 17713 layer_factory.hpp:77] Creating layer inception_3b/output
I0403 16:19:16.520123 17713 net.cpp:91] Creating Layer inception_3b/output
I0403 16:19:16.520138 17713 net.cpp:425] inception_3b/output <- inception_3b/1x1
I0403 16:19:16.520153 17713 net.cpp:425] inception_3b/output <- inception_3b/3x3
I0403 16:19:16.520169 17713 net.cpp:425] inception_3b/output <- inception_3b/5x5
I0403 16:19:16.520184 17713 net.cpp:425] inception_3b/output <- inception_3b/pool_proj
I0403 16:19:16.520205 17713 net.cpp:399] inception_3b/output -> inception_3b/output
I0403 16:19:16.520247 17713 net.cpp:141] Setting up inception_3b/output
I0403 16:19:16.520270 17713 net.cpp:148] Top shape: 24 480 28 28 (9031680)
I0403 16:19:16.520284 17713 net.cpp:156] Memory required for data: 809239584
I0403 16:19:16.520298 17713 layer_factory.hpp:77] Creating layer pool3/3x3_s2
I0403 16:19:16.520318 17713 net.cpp:91] Creating Layer pool3/3x3_s2
I0403 16:19:16.520334 17713 net.cpp:425] pool3/3x3_s2 <- inception_3b/output
I0403 16:19:16.520367 17713 net.cpp:399] pool3/3x3_s2 -> pool3/3x3_s2
I0403 16:19:16.520426 17713 net.cpp:141] Setting up pool3/3x3_s2
I0403 16:19:16.520448 17713 net.cpp:148] Top shape: 24 480 14 14 (2257920)
I0403 16:19:16.520462 17713 net.cpp:156] Memory required for data: 818271264
I0403 16:19:16.520476 17713 layer_factory.hpp:77] Creating layer pool3/3x3_s2_pool3/3x3_s2_0_split
I0403 16:19:16.520495 17713 net.cpp:91] Creating Layer pool3/3x3_s2_pool3/3x3_s2_0_split
I0403 16:19:16.520511 17713 net.cpp:425] pool3/3x3_s2_pool3/3x3_s2_0_split <- pool3/3x3_s2
I0403 16:19:16.520529 17713 net.cpp:399] pool3/3x3_s2_pool3/3x3_s2_0_split -> pool3/3x3_s2_pool3/3x3_s2_0_split_0
I0403 16:19:16.520547 17713 net.cpp:399] pool3/3x3_s2_pool3/3x3_s2_0_split -> pool3/3x3_s2_pool3/3x3_s2_0_split_1
I0403 16:19:16.520570 17713 net.cpp:399] pool3/3x3_s2_pool3/3x3_s2_0_split -> pool3/3x3_s2_pool3/3x3_s2_0_split_2
I0403 16:19:16.520591 17713 net.cpp:399] pool3/3x3_s2_pool3/3x3_s2_0_split -> pool3/3x3_s2_pool3/3x3_s2_0_split_3
I0403 16:19:16.520668 17713 net.cpp:141] Setting up pool3/3x3_s2_pool3/3x3_s2_0_split
I0403 16:19:16.520691 17713 net.cpp:148] Top shape: 24 480 14 14 (2257920)
I0403 16:19:16.520707 17713 net.cpp:148] Top shape: 24 480 14 14 (2257920)
I0403 16:19:16.520722 17713 net.cpp:148] Top shape: 24 480 14 14 (2257920)
I0403 16:19:16.520736 17713 net.cpp:148] Top shape: 24 480 14 14 (2257920)
I0403 16:19:16.520750 17713 net.cpp:156] Memory required for data: 854397984
I0403 16:19:16.520763 17713 layer_factory.hpp:77] Creating layer inception_4a/1x1
I0403 16:19:16.520786 17713 net.cpp:91] Creating Layer inception_4a/1x1
I0403 16:19:16.520802 17713 net.cpp:425] inception_4a/1x1 <- pool3/3x3_s2_pool3/3x3_s2_0_split_0
I0403 16:19:16.520823 17713 net.cpp:399] inception_4a/1x1 -> inception_4a/1x1
I0403 16:19:16.522373 17713 net.cpp:141] Setting up inception_4a/1x1
I0403 16:19:16.522400 17713 net.cpp:148] Top shape: 24 192 14 14 (903168)
I0403 16:19:16.522415 17713 net.cpp:156] Memory required for data: 858010656
I0403 16:19:16.522433 17713 layer_factory.hpp:77] Creating layer inception_4a/relu_1x1
I0403 16:19:16.522451 17713 net.cpp:91] Creating Layer inception_4a/relu_1x1
I0403 16:19:16.522466 17713 net.cpp:425] inception_4a/relu_1x1 <- inception_4a/1x1
I0403 16:19:16.522485 17713 net.cpp:386] inception_4a/relu_1x1 -> inception_4a/1x1 (in-place)
I0403 16:19:16.522662 17713 net.cpp:141] Setting up inception_4a/relu_1x1
I0403 16:19:16.522687 17713 net.cpp:148] Top shape: 24 192 14 14 (903168)
I0403 16:19:16.522701 17713 net.cpp:156] Memory required for data: 861623328
I0403 16:19:16.522716 17713 layer_factory.hpp:77] Creating layer inception_4a/3x3_reduce
I0403 16:19:16.522738 17713 net.cpp:91] Creating Layer inception_4a/3x3_reduce
I0403 16:19:16.522755 17713 net.cpp:425] inception_4a/3x3_reduce <- pool3/3x3_s2_pool3/3x3_s2_0_split_1
I0403 16:19:16.522776 17713 net.cpp:399] inception_4a/3x3_reduce -> inception_4a/3x3_reduce
I0403 16:19:16.524040 17713 net.cpp:141] Setting up inception_4a/3x3_reduce
I0403 16:19:16.524067 17713 net.cpp:148] Top shape: 24 96 14 14 (451584)
I0403 16:19:16.524082 17713 net.cpp:156] Memory required for data: 863429664
I0403 16:19:16.524106 17713 layer_factory.hpp:77] Creating layer inception_4a/relu_3x3_reduce
I0403 16:19:16.524126 17713 net.cpp:91] Creating Layer inception_4a/relu_3x3_reduce
I0403 16:19:16.524140 17713 net.cpp:425] inception_4a/relu_3x3_reduce <- inception_4a/3x3_reduce
I0403 16:19:16.524160 17713 net.cpp:386] inception_4a/relu_3x3_reduce -> inception_4a/3x3_reduce (in-place)
I0403 16:19:16.524327 17713 net.cpp:141] Setting up inception_4a/relu_3x3_reduce
I0403 16:19:16.524350 17713 net.cpp:148] Top shape: 24 96 14 14 (451584)
I0403 16:19:16.524365 17713 net.cpp:156] Memory required for data: 865236000
I0403 16:19:16.524379 17713 layer_factory.hpp:77] Creating layer inception_4a/3x3
I0403 16:19:16.524400 17713 net.cpp:91] Creating Layer inception_4a/3x3
I0403 16:19:16.524418 17713 net.cpp:425] inception_4a/3x3 <- inception_4a/3x3_reduce
I0403 16:19:16.524440 17713 net.cpp:399] inception_4a/3x3 -> inception_4a/3x3
I0403 16:19:16.527042 17713 net.cpp:141] Setting up inception_4a/3x3
I0403 16:19:16.527070 17713 net.cpp:148] Top shape: 24 208 14 14 (978432)
I0403 16:19:16.527086 17713 net.cpp:156] Memory required for data: 869149728
I0403 16:19:16.527103 17713 layer_factory.hpp:77] Creating layer inception_4a/relu_3x3
I0403 16:19:16.527122 17713 net.cpp:91] Creating Layer inception_4a/relu_3x3
I0403 16:19:16.527138 17713 net.cpp:425] inception_4a/relu_3x3 <- inception_4a/3x3
I0403 16:19:16.527155 17713 net.cpp:386] inception_4a/relu_3x3 -> inception_4a/3x3 (in-place)
I0403 16:19:16.527428 17713 net.cpp:141] Setting up inception_4a/relu_3x3
I0403 16:19:16.527453 17713 net.cpp:148] Top shape: 24 208 14 14 (978432)
I0403 16:19:16.527468 17713 net.cpp:156] Memory required for data: 873063456
I0403 16:19:16.527482 17713 layer_factory.hpp:77] Creating layer inception_4a/5x5_reduce
I0403 16:19:16.527504 17713 net.cpp:91] Creating Layer inception_4a/5x5_reduce
I0403 16:19:16.527524 17713 net.cpp:425] inception_4a/5x5_reduce <- pool3/3x3_s2_pool3/3x3_s2_0_split_2
I0403 16:19:16.527542 17713 net.cpp:399] inception_4a/5x5_reduce -> inception_4a/5x5_reduce
I0403 16:19:16.528573 17713 net.cpp:141] Setting up inception_4a/5x5_reduce
I0403 16:19:16.528599 17713 net.cpp:148] Top shape: 24 16 14 14 (75264)
I0403 16:19:16.528614 17713 net.cpp:156] Memory required for data: 873364512
I0403 16:19:16.528631 17713 layer_factory.hpp:77] Creating layer inception_4a/relu_5x5_reduce
I0403 16:19:16.528650 17713 net.cpp:91] Creating Layer inception_4a/relu_5x5_reduce
I0403 16:19:16.528666 17713 net.cpp:425] inception_4a/relu_5x5_reduce <- inception_4a/5x5_reduce
I0403 16:19:16.528683 17713 net.cpp:386] inception_4a/relu_5x5_reduce -> inception_4a/5x5_reduce (in-place)
I0403 16:19:16.528852 17713 net.cpp:141] Setting up inception_4a/relu_5x5_reduce
I0403 16:19:16.528877 17713 net.cpp:148] Top shape: 24 16 14 14 (75264)
I0403 16:19:16.528890 17713 net.cpp:156] Memory required for data: 873665568
I0403 16:19:16.528904 17713 layer_factory.hpp:77] Creating layer inception_4a/5x5
I0403 16:19:16.528925 17713 net.cpp:91] Creating Layer inception_4a/5x5
I0403 16:19:16.528942 17713 net.cpp:425] inception_4a/5x5 <- inception_4a/5x5_reduce
I0403 16:19:16.528962 17713 net.cpp:399] inception_4a/5x5 -> inception_4a/5x5
I0403 16:19:16.530009 17713 net.cpp:141] Setting up inception_4a/5x5
I0403 16:19:16.530036 17713 net.cpp:148] Top shape: 24 48 14 14 (225792)
I0403 16:19:16.530051 17713 net.cpp:156] Memory required for data: 874568736
I0403 16:19:16.530069 17713 layer_factory.hpp:77] Creating layer inception_4a/relu_5x5
I0403 16:19:16.530086 17713 net.cpp:91] Creating Layer inception_4a/relu_5x5
I0403 16:19:16.530102 17713 net.cpp:425] inception_4a/relu_5x5 <- inception_4a/5x5
I0403 16:19:16.530122 17713 net.cpp:386] inception_4a/relu_5x5 -> inception_4a/5x5 (in-place)
I0403 16:19:16.530292 17713 net.cpp:141] Setting up inception_4a/relu_5x5
I0403 16:19:16.530314 17713 net.cpp:148] Top shape: 24 48 14 14 (225792)
I0403 16:19:16.530329 17713 net.cpp:156] Memory required for data: 875471904
I0403 16:19:16.530344 17713 layer_factory.hpp:77] Creating layer inception_4a/pool
I0403 16:19:16.530366 17713 net.cpp:91] Creating Layer inception_4a/pool
I0403 16:19:16.530382 17713 net.cpp:425] inception_4a/pool <- pool3/3x3_s2_pool3/3x3_s2_0_split_3
I0403 16:19:16.530400 17713 net.cpp:399] inception_4a/pool -> inception_4a/pool
I0403 16:19:16.530459 17713 net.cpp:141] Setting up inception_4a/pool
I0403 16:19:16.530483 17713 net.cpp:148] Top shape: 24 480 14 14 (2257920)
I0403 16:19:16.530495 17713 net.cpp:156] Memory required for data: 884503584
I0403 16:19:16.530509 17713 layer_factory.hpp:77] Creating layer inception_4a/pool_proj
I0403 16:19:16.530530 17713 net.cpp:91] Creating Layer inception_4a/pool_proj
I0403 16:19:16.530546 17713 net.cpp:425] inception_4a/pool_proj <- inception_4a/pool
I0403 16:19:16.530565 17713 net.cpp:399] inception_4a/pool_proj -> inception_4a/pool_proj
I0403 16:19:16.531687 17713 net.cpp:141] Setting up inception_4a/pool_proj
I0403 16:19:16.531714 17713 net.cpp:148] Top shape: 24 64 14 14 (301056)
I0403 16:19:16.531744 17713 net.cpp:156] Memory required for data: 885707808
I0403 16:19:16.531764 17713 layer_factory.hpp:77] Creating layer inception_4a/relu_pool_proj
I0403 16:19:16.531783 17713 net.cpp:91] Creating Layer inception_4a/relu_pool_proj
I0403 16:19:16.531800 17713 net.cpp:425] inception_4a/relu_pool_proj <- inception_4a/pool_proj
I0403 16:19:16.531817 17713 net.cpp:386] inception_4a/relu_pool_proj -> inception_4a/pool_proj (in-place)
I0403 16:19:16.532086 17713 net.cpp:141] Setting up inception_4a/relu_pool_proj
I0403 16:19:16.532111 17713 net.cpp:148] Top shape: 24 64 14 14 (301056)
I0403 16:19:16.532125 17713 net.cpp:156] Memory required for data: 886912032
I0403 16:19:16.532140 17713 layer_factory.hpp:77] Creating layer inception_4a/output
I0403 16:19:16.532156 17713 net.cpp:91] Creating Layer inception_4a/output
I0403 16:19:16.532171 17713 net.cpp:425] inception_4a/output <- inception_4a/1x1
I0403 16:19:16.532187 17713 net.cpp:425] inception_4a/output <- inception_4a/3x3
I0403 16:19:16.532203 17713 net.cpp:425] inception_4a/output <- inception_4a/5x5
I0403 16:19:16.532218 17713 net.cpp:425] inception_4a/output <- inception_4a/pool_proj
I0403 16:19:16.532238 17713 net.cpp:399] inception_4a/output -> inception_4a/output
I0403 16:19:16.532279 17713 net.cpp:141] Setting up inception_4a/output
I0403 16:19:16.532304 17713 net.cpp:148] Top shape: 24 512 14 14 (2408448)
I0403 16:19:16.532318 17713 net.cpp:156] Memory required for data: 896545824
I0403 16:19:16.532332 17713 layer_factory.hpp:77] Creating layer inception_4a/output_inception_4a/output_0_split
I0403 16:19:16.532349 17713 net.cpp:91] Creating Layer inception_4a/output_inception_4a/output_0_split
I0403 16:19:16.532364 17713 net.cpp:425] inception_4a/output_inception_4a/output_0_split <- inception_4a/output
I0403 16:19:16.532383 17713 net.cpp:399] inception_4a/output_inception_4a/output_0_split -> inception_4a/output_inception_4a/output_0_split_0
I0403 16:19:16.532403 17713 net.cpp:399] inception_4a/output_inception_4a/output_0_split -> inception_4a/output_inception_4a/output_0_split_1
I0403 16:19:16.532423 17713 net.cpp:399] inception_4a/output_inception_4a/output_0_split -> inception_4a/output_inception_4a/output_0_split_2
I0403 16:19:16.532443 17713 net.cpp:399] inception_4a/output_inception_4a/output_0_split -> inception_4a/output_inception_4a/output_0_split_3
I0403 16:19:16.532461 17713 net.cpp:399] inception_4a/output_inception_4a/output_0_split -> inception_4a/output_inception_4a/output_0_split_4
I0403 16:19:16.532549 17713 net.cpp:141] Setting up inception_4a/output_inception_4a/output_0_split
I0403 16:19:16.532575 17713 net.cpp:148] Top shape: 24 512 14 14 (2408448)
I0403 16:19:16.532595 17713 net.cpp:148] Top shape: 24 512 14 14 (2408448)
I0403 16:19:16.532611 17713 net.cpp:148] Top shape: 24 512 14 14 (2408448)
I0403 16:19:16.532626 17713 net.cpp:148] Top shape: 24 512 14 14 (2408448)
I0403 16:19:16.532640 17713 net.cpp:148] Top shape: 24 512 14 14 (2408448)
I0403 16:19:16.532654 17713 net.cpp:156] Memory required for data: 944714784
I0403 16:19:16.532668 17713 layer_factory.hpp:77] Creating layer loss1/ave_pool
I0403 16:19:16.532685 17713 net.cpp:91] Creating Layer loss1/ave_pool
I0403 16:19:16.532699 17713 net.cpp:425] loss1/ave_pool <- inception_4a/output_inception_4a/output_0_split_0
I0403 16:19:16.532718 17713 net.cpp:399] loss1/ave_pool -> loss1/ave_pool
I0403 16:19:16.532910 17713 net.cpp:141] Setting up loss1/ave_pool
I0403 16:19:16.532935 17713 net.cpp:148] Top shape: 24 512 4 4 (196608)
I0403 16:19:16.532950 17713 net.cpp:156] Memory required for data: 945501216
I0403 16:19:16.532964 17713 layer_factory.hpp:77] Creating layer loss1/conv
I0403 16:19:16.532985 17713 net.cpp:91] Creating Layer loss1/conv
I0403 16:19:16.533002 17713 net.cpp:425] loss1/conv <- loss1/ave_pool
I0403 16:19:16.533025 17713 net.cpp:399] loss1/conv -> loss1/conv
I0403 16:19:16.534427 17713 net.cpp:141] Setting up loss1/conv
I0403 16:19:16.534456 17713 net.cpp:148] Top shape: 24 128 4 4 (49152)
I0403 16:19:16.534484 17713 net.cpp:156] Memory required for data: 945697824
I0403 16:19:16.534503 17713 layer_factory.hpp:77] Creating layer loss1/relu_conv
I0403 16:19:16.534523 17713 net.cpp:91] Creating Layer loss1/relu_conv
I0403 16:19:16.534540 17713 net.cpp:425] loss1/relu_conv <- loss1/conv
I0403 16:19:16.534557 17713 net.cpp:386] loss1/relu_conv -> loss1/conv (in-place)
I0403 16:19:16.534848 17713 net.cpp:141] Setting up loss1/relu_conv
I0403 16:19:16.534874 17713 net.cpp:148] Top shape: 24 128 4 4 (49152)
I0403 16:19:16.534890 17713 net.cpp:156] Memory required for data: 945894432
I0403 16:19:16.534904 17713 layer_factory.hpp:77] Creating layer loss1/fc
I0403 16:19:16.534929 17713 net.cpp:91] Creating Layer loss1/fc
I0403 16:19:16.534946 17713 net.cpp:425] loss1/fc <- loss1/conv
I0403 16:19:16.534966 17713 net.cpp:399] loss1/fc -> loss1/fc
I0403 16:19:16.552677 17713 net.cpp:141] Setting up loss1/fc
I0403 16:19:16.552709 17713 net.cpp:148] Top shape: 24 1024 (24576)
I0403 16:19:16.552726 17713 net.cpp:156] Memory required for data: 945992736
I0403 16:19:16.552743 17713 layer_factory.hpp:77] Creating layer loss1/relu_fc
I0403 16:19:16.552762 17713 net.cpp:91] Creating Layer loss1/relu_fc
I0403 16:19:16.552777 17713 net.cpp:425] loss1/relu_fc <- loss1/fc
I0403 16:19:16.552796 17713 net.cpp:386] loss1/relu_fc -> loss1/fc (in-place)
I0403 16:19:16.552975 17713 net.cpp:141] Setting up loss1/relu_fc
I0403 16:19:16.552999 17713 net.cpp:148] Top shape: 24 1024 (24576)
I0403 16:19:16.553017 17713 net.cpp:156] Memory required for data: 946091040
I0403 16:19:16.553031 17713 layer_factory.hpp:77] Creating layer loss1/drop_fc
I0403 16:19:16.553056 17713 net.cpp:91] Creating Layer loss1/drop_fc
I0403 16:19:16.553072 17713 net.cpp:425] loss1/drop_fc <- loss1/fc
I0403 16:19:16.553091 17713 net.cpp:386] loss1/drop_fc -> loss1/fc (in-place)
I0403 16:19:16.553140 17713 net.cpp:141] Setting up loss1/drop_fc
I0403 16:19:16.553163 17713 net.cpp:148] Top shape: 24 1024 (24576)
I0403 16:19:16.553176 17713 net.cpp:156] Memory required for data: 946189344
I0403 16:19:16.553190 17713 layer_factory.hpp:77] Creating layer loss1/classifier_plantvillage
I0403 16:19:16.553208 17713 net.cpp:91] Creating Layer loss1/classifier_plantvillage
I0403 16:19:16.553223 17713 net.cpp:425] loss1/classifier_plantvillage <- loss1/fc
I0403 16:19:16.553248 17713 net.cpp:399] loss1/classifier_plantvillage -> loss1/classifier_plantvillage
I0403 16:19:16.554138 17713 net.cpp:141] Setting up loss1/classifier_plantvillage
I0403 16:19:16.554164 17713 net.cpp:148] Top shape: 24 38 (912)
I0403 16:19:16.554179 17713 net.cpp:156] Memory required for data: 946192992
I0403 16:19:16.554198 17713 layer_factory.hpp:77] Creating layer loss1/classifier_plantvillage_loss1/classifier_plantvillage_0_split
I0403 16:19:16.554216 17713 net.cpp:91] Creating Layer loss1/classifier_plantvillage_loss1/classifier_plantvillage_0_split
I0403 16:19:16.554234 17713 net.cpp:425] loss1/classifier_plantvillage_loss1/classifier_plantvillage_0_split <- loss1/classifier_plantvillage
I0403 16:19:16.554251 17713 net.cpp:399] loss1/classifier_plantvillage_loss1/classifier_plantvillage_0_split -> loss1/classifier_plantvillage_loss1/classifier_plantvillage_0_split_0
I0403 16:19:16.554271 17713 net.cpp:399] loss1/classifier_plantvillage_loss1/classifier_plantvillage_0_split -> loss1/classifier_plantvillage_loss1/classifier_plantvillage_0_split_1
I0403 16:19:16.554291 17713 net.cpp:399] loss1/classifier_plantvillage_loss1/classifier_plantvillage_0_split -> loss1/classifier_plantvillage_loss1/classifier_plantvillage_0_split_2
I0403 16:19:16.554357 17713 net.cpp:141] Setting up loss1/classifier_plantvillage_loss1/classifier_plantvillage_0_split
I0403 16:19:16.554379 17713 net.cpp:148] Top shape: 24 38 (912)
I0403 16:19:16.554395 17713 net.cpp:148] Top shape: 24 38 (912)
I0403 16:19:16.554410 17713 net.cpp:148] Top shape: 24 38 (912)
I0403 16:19:16.554424 17713 net.cpp:156] Memory required for data: 946203936
I0403 16:19:16.554437 17713 layer_factory.hpp:77] Creating layer inception_4b/1x1
I0403 16:19:16.554460 17713 net.cpp:91] Creating Layer inception_4b/1x1
I0403 16:19:16.554491 17713 net.cpp:425] inception_4b/1x1 <- inception_4a/output_inception_4a/output_0_split_1
I0403 16:19:16.554512 17713 net.cpp:399] inception_4b/1x1 -> inception_4b/1x1
I0403 16:19:16.556102 17713 net.cpp:141] Setting up inception_4b/1x1
I0403 16:19:16.556128 17713 net.cpp:148] Top shape: 24 160 14 14 (752640)
I0403 16:19:16.556144 17713 net.cpp:156] Memory required for data: 949214496
I0403 16:19:16.556161 17713 layer_factory.hpp:77] Creating layer inception_4b/relu_1x1
I0403 16:19:16.556181 17713 net.cpp:91] Creating Layer inception_4b/relu_1x1
I0403 16:19:16.556198 17713 net.cpp:425] inception_4b/relu_1x1 <- inception_4b/1x1
I0403 16:19:16.556216 17713 net.cpp:386] inception_4b/relu_1x1 -> inception_4b/1x1 (in-place)
I0403 16:19:16.556390 17713 net.cpp:141] Setting up inception_4b/relu_1x1
I0403 16:19:16.556413 17713 net.cpp:148] Top shape: 24 160 14 14 (752640)
I0403 16:19:16.556427 17713 net.cpp:156] Memory required for data: 952225056
I0403 16:19:16.556442 17713 layer_factory.hpp:77] Creating layer inception_4b/3x3_reduce
I0403 16:19:16.556466 17713 net.cpp:91] Creating Layer inception_4b/3x3_reduce
I0403 16:19:16.556483 17713 net.cpp:425] inception_4b/3x3_reduce <- inception_4a/output_inception_4a/output_0_split_2
I0403 16:19:16.556504 17713 net.cpp:399] inception_4b/3x3_reduce -> inception_4b/3x3_reduce
I0403 16:19:16.557817 17713 net.cpp:141] Setting up inception_4b/3x3_reduce
I0403 16:19:16.557847 17713 net.cpp:148] Top shape: 24 112 14 14 (526848)
I0403 16:19:16.557862 17713 net.cpp:156] Memory required for data: 954332448
I0403 16:19:16.557879 17713 layer_factory.hpp:77] Creating layer inception_4b/relu_3x3_reduce
I0403 16:19:16.557898 17713 net.cpp:91] Creating Layer inception_4b/relu_3x3_reduce
I0403 16:19:16.557914 17713 net.cpp:425] inception_4b/relu_3x3_reduce <- inception_4b/3x3_reduce
I0403 16:19:16.557932 17713 net.cpp:386] inception_4b/relu_3x3_reduce -> inception_4b/3x3_reduce (in-place)
I0403 16:19:16.558202 17713 net.cpp:141] Setting up inception_4b/relu_3x3_reduce
I0403 16:19:16.558229 17713 net.cpp:148] Top shape: 24 112 14 14 (526848)
I0403 16:19:16.558244 17713 net.cpp:156] Memory required for data: 956439840
I0403 16:19:16.558261 17713 layer_factory.hpp:77] Creating layer inception_4b/3x3
I0403 16:19:16.558284 17713 net.cpp:91] Creating Layer inception_4b/3x3
I0403 16:19:16.558300 17713 net.cpp:425] inception_4b/3x3 <- inception_4b/3x3_reduce
I0403 16:19:16.558320 17713 net.cpp:399] inception_4b/3x3 -> inception_4b/3x3
I0403 16:19:16.561203 17713 net.cpp:141] Setting up inception_4b/3x3
I0403 16:19:16.561233 17713 net.cpp:148] Top shape: 24 224 14 14 (1053696)
I0403 16:19:16.561247 17713 net.cpp:156] Memory required for data: 960654624
I0403 16:19:16.561266 17713 layer_factory.hpp:77] Creating layer inception_4b/relu_3x3
I0403 16:19:16.561286 17713 net.cpp:91] Creating Layer inception_4b/relu_3x3
I0403 16:19:16.561302 17713 net.cpp:425] inception_4b/relu_3x3 <- inception_4b/3x3
I0403 16:19:16.561321 17713 net.cpp:386] inception_4b/relu_3x3 -> inception_4b/3x3 (in-place)
I0403 16:19:16.561496 17713 net.cpp:141] Setting up inception_4b/relu_3x3
I0403 16:19:16.561520 17713 net.cpp:148] Top shape: 24 224 14 14 (1053696)
I0403 16:19:16.561535 17713 net.cpp:156] Memory required for data: 964869408
I0403 16:19:16.561550 17713 layer_factory.hpp:77] Creating layer inception_4b/5x5_reduce
I0403 16:19:16.561573 17713 net.cpp:91] Creating Layer inception_4b/5x5_reduce
I0403 16:19:16.561591 17713 net.cpp:425] inception_4b/5x5_reduce <- inception_4a/output_inception_4a/output_0_split_3
I0403 16:19:16.561612 17713 net.cpp:399] inception_4b/5x5_reduce -> inception_4b/5x5_reduce
I0403 16:19:16.562659 17713 net.cpp:141] Setting up inception_4b/5x5_reduce
I0403 16:19:16.562687 17713 net.cpp:148] Top shape: 24 24 14 14 (112896)
I0403 16:19:16.562703 17713 net.cpp:156] Memory required for data: 965320992
I0403 16:19:16.562721 17713 layer_factory.hpp:77] Creating layer inception_4b/relu_5x5_reduce
I0403 16:19:16.562737 17713 net.cpp:91] Creating Layer inception_4b/relu_5x5_reduce
I0403 16:19:16.562767 17713 net.cpp:425] inception_4b/relu_5x5_reduce <- inception_4b/5x5_reduce
I0403 16:19:16.562785 17713 net.cpp:386] inception_4b/relu_5x5_reduce -> inception_4b/5x5_reduce (in-place)
I0403 16:19:16.562963 17713 net.cpp:141] Setting up inception_4b/relu_5x5_reduce
I0403 16:19:16.562988 17713 net.cpp:148] Top shape: 24 24 14 14 (112896)
I0403 16:19:16.563001 17713 net.cpp:156] Memory required for data: 965772576
I0403 16:19:16.563015 17713 layer_factory.hpp:77] Creating layer inception_4b/5x5
I0403 16:19:16.563037 17713 net.cpp:91] Creating Layer inception_4b/5x5
I0403 16:19:16.563053 17713 net.cpp:425] inception_4b/5x5 <- inception_4b/5x5_reduce
I0403 16:19:16.563073 17713 net.cpp:399] inception_4b/5x5 -> inception_4b/5x5
I0403 16:19:16.564246 17713 net.cpp:141] Setting up inception_4b/5x5
I0403 16:19:16.564275 17713 net.cpp:148] Top shape: 24 64 14 14 (301056)
I0403 16:19:16.564290 17713 net.cpp:156] Memory required for data: 966976800
I0403 16:19:16.564307 17713 layer_factory.hpp:77] Creating layer inception_4b/relu_5x5
I0403 16:19:16.564327 17713 net.cpp:91] Creating Layer inception_4b/relu_5x5
I0403 16:19:16.564343 17713 net.cpp:425] inception_4b/relu_5x5 <- inception_4b/5x5
I0403 16:19:16.564360 17713 net.cpp:386] inception_4b/relu_5x5 -> inception_4b/5x5 (in-place)
I0403 16:19:16.564642 17713 net.cpp:141] Setting up inception_4b/relu_5x5
I0403 16:19:16.564668 17713 net.cpp:148] Top shape: 24 64 14 14 (301056)
I0403 16:19:16.564682 17713 net.cpp:156] Memory required for data: 968181024
I0403 16:19:16.564697 17713 layer_factory.hpp:77] Creating layer inception_4b/pool
I0403 16:19:16.564719 17713 net.cpp:91] Creating Layer inception_4b/pool
I0403 16:19:16.564735 17713 net.cpp:425] inception_4b/pool <- inception_4a/output_inception_4a/output_0_split_4
I0403 16:19:16.564754 17713 net.cpp:399] inception_4b/pool -> inception_4b/pool
I0403 16:19:16.564816 17713 net.cpp:141] Setting up inception_4b/pool
I0403 16:19:16.564838 17713 net.cpp:148] Top shape: 24 512 14 14 (2408448)
I0403 16:19:16.564853 17713 net.cpp:156] Memory required for data: 977814816
I0403 16:19:16.564867 17713 layer_factory.hpp:77] Creating layer inception_4b/pool_proj
I0403 16:19:16.564888 17713 net.cpp:91] Creating Layer inception_4b/pool_proj
I0403 16:19:16.564904 17713 net.cpp:425] inception_4b/pool_proj <- inception_4b/pool
I0403 16:19:16.564924 17713 net.cpp:399] inception_4b/pool_proj -> inception_4b/pool_proj
I0403 16:19:16.566076 17713 net.cpp:141] Setting up inception_4b/pool_proj
I0403 16:19:16.566104 17713 net.cpp:148] Top shape: 24 64 14 14 (301056)
I0403 16:19:16.566120 17713 net.cpp:156] Memory required for data: 979019040
I0403 16:19:16.566138 17713 layer_factory.hpp:77] Creating layer inception_4b/relu_pool_proj
I0403 16:19:16.566155 17713 net.cpp:91] Creating Layer inception_4b/relu_pool_proj
I0403 16:19:16.566171 17713 net.cpp:425] inception_4b/relu_pool_proj <- inception_4b/pool_proj
I0403 16:19:16.566190 17713 net.cpp:386] inception_4b/relu_pool_proj -> inception_4b/pool_proj (in-place)
I0403 16:19:16.566360 17713 net.cpp:141] Setting up inception_4b/relu_pool_proj
I0403 16:19:16.566385 17713 net.cpp:148] Top shape: 24 64 14 14 (301056)
I0403 16:19:16.566398 17713 net.cpp:156] Memory required for data: 980223264
I0403 16:19:16.566412 17713 layer_factory.hpp:77] Creating layer inception_4b/output
I0403 16:19:16.566429 17713 net.cpp:91] Creating Layer inception_4b/output
I0403 16:19:16.566444 17713 net.cpp:425] inception_4b/output <- inception_4b/1x1
I0403 16:19:16.566459 17713 net.cpp:425] inception_4b/output <- inception_4b/3x3
I0403 16:19:16.566474 17713 net.cpp:425] inception_4b/output <- inception_4b/5x5
I0403 16:19:16.566490 17713 net.cpp:425] inception_4b/output <- inception_4b/pool_proj
I0403 16:19:16.566509 17713 net.cpp:399] inception_4b/output -> inception_4b/output
I0403 16:19:16.566552 17713 net.cpp:141] Setting up inception_4b/output
I0403 16:19:16.566581 17713 net.cpp:148] Top shape: 24 512 14 14 (2408448)
I0403 16:19:16.566596 17713 net.cpp:156] Memory required for data: 989857056
I0403 16:19:16.566624 17713 layer_factory.hpp:77] Creating layer inception_4b/output_inception_4b/output_0_split
I0403 16:19:16.566642 17713 net.cpp:91] Creating Layer inception_4b/output_inception_4b/output_0_split
I0403 16:19:16.566656 17713 net.cpp:425] inception_4b/output_inception_4b/output_0_split <- inception_4b/output
I0403 16:19:16.566673 17713 net.cpp:399] inception_4b/output_inception_4b/output_0_split -> inception_4b/output_inception_4b/output_0_split_0
I0403 16:19:16.566692 17713 net.cpp:399] inception_4b/output_inception_4b/output_0_split -> inception_4b/output_inception_4b/output_0_split_1
I0403 16:19:16.566715 17713 net.cpp:399] inception_4b/output_inception_4b/output_0_split -> inception_4b/output_inception_4b/output_0_split_2
I0403 16:19:16.566735 17713 net.cpp:399] inception_4b/output_inception_4b/output_0_split -> inception_4b/output_inception_4b/output_0_split_3
I0403 16:19:16.566815 17713 net.cpp:141] Setting up inception_4b/output_inception_4b/output_0_split
I0403 16:19:16.566838 17713 net.cpp:148] Top shape: 24 512 14 14 (2408448)
I0403 16:19:16.566854 17713 net.cpp:148] Top shape: 24 512 14 14 (2408448)
I0403 16:19:16.566869 17713 net.cpp:148] Top shape: 24 512 14 14 (2408448)
I0403 16:19:16.566884 17713 net.cpp:148] Top shape: 24 512 14 14 (2408448)
I0403 16:19:16.566896 17713 net.cpp:156] Memory required for data: 1028392224
I0403 16:19:16.566910 17713 layer_factory.hpp:77] Creating layer inception_4c/1x1
I0403 16:19:16.566931 17713 net.cpp:91] Creating Layer inception_4c/1x1
I0403 16:19:16.566948 17713 net.cpp:425] inception_4c/1x1 <- inception_4b/output_inception_4b/output_0_split_0
I0403 16:19:16.566968 17713 net.cpp:399] inception_4c/1x1 -> inception_4c/1x1
I0403 16:19:16.568351 17713 net.cpp:141] Setting up inception_4c/1x1
I0403 16:19:16.568377 17713 net.cpp:148] Top shape: 24 128 14 14 (602112)
I0403 16:19:16.568392 17713 net.cpp:156] Memory required for data: 1030800672
I0403 16:19:16.568410 17713 layer_factory.hpp:77] Creating layer inception_4c/relu_1x1
I0403 16:19:16.568428 17713 net.cpp:91] Creating Layer inception_4c/relu_1x1
I0403 16:19:16.568444 17713 net.cpp:425] inception_4c/relu_1x1 <- inception_4c/1x1
I0403 16:19:16.568461 17713 net.cpp:386] inception_4c/relu_1x1 -> inception_4c/1x1 (in-place)
I0403 16:19:16.568642 17713 net.cpp:141] Setting up inception_4c/relu_1x1
I0403 16:19:16.568665 17713 net.cpp:148] Top shape: 24 128 14 14 (602112)
I0403 16:19:16.568681 17713 net.cpp:156] Memory required for data: 1033209120
I0403 16:19:16.568694 17713 layer_factory.hpp:77] Creating layer inception_4c/3x3_reduce
I0403 16:19:16.568717 17713 net.cpp:91] Creating Layer inception_4c/3x3_reduce
I0403 16:19:16.568733 17713 net.cpp:425] inception_4c/3x3_reduce <- inception_4b/output_inception_4b/output_0_split_1
I0403 16:19:16.568753 17713 net.cpp:399] inception_4c/3x3_reduce -> inception_4c/3x3_reduce
I0403 16:19:16.570672 17713 net.cpp:141] Setting up inception_4c/3x3_reduce
I0403 16:19:16.570700 17713 net.cpp:148] Top shape: 24 128 14 14 (602112)
I0403 16:19:16.570716 17713 net.cpp:156] Memory required for data: 1035617568
I0403 16:19:16.570734 17713 layer_factory.hpp:77] Creating layer inception_4c/relu_3x3_reduce
I0403 16:19:16.570755 17713 net.cpp:91] Creating Layer inception_4c/relu_3x3_reduce
I0403 16:19:16.570770 17713 net.cpp:425] inception_4c/relu_3x3_reduce <- inception_4c/3x3_reduce
I0403 16:19:16.570786 17713 net.cpp:386] inception_4c/relu_3x3_reduce -> inception_4c/3x3_reduce (in-place)
I0403 16:19:16.571064 17713 net.cpp:141] Setting up inception_4c/relu_3x3_reduce
I0403 16:19:16.571089 17713 net.cpp:148] Top shape: 24 128 14 14 (602112)
I0403 16:19:16.571107 17713 net.cpp:156] Memory required for data: 1038026016
I0403 16:19:16.571122 17713 layer_factory.hpp:77] Creating layer inception_4c/3x3
I0403 16:19:16.571141 17713 net.cpp:91] Creating Layer inception_4c/3x3
I0403 16:19:16.571157 17713 net.cpp:425] inception_4c/3x3 <- inception_4c/3x3_reduce
I0403 16:19:16.571179 17713 net.cpp:399] inception_4c/3x3 -> inception_4c/3x3
I0403 16:19:16.574705 17713 net.cpp:141] Setting up inception_4c/3x3
I0403 16:19:16.574745 17713 net.cpp:148] Top shape: 24 256 14 14 (1204224)
I0403 16:19:16.574761 17713 net.cpp:156] Memory required for data: 1042842912
I0403 16:19:16.574792 17713 layer_factory.hpp:77] Creating layer inception_4c/relu_3x3
I0403 16:19:16.574815 17713 net.cpp:91] Creating Layer inception_4c/relu_3x3
I0403 16:19:16.574831 17713 net.cpp:425] inception_4c/relu_3x3 <- inception_4c/3x3
I0403 16:19:16.574847 17713 net.cpp:386] inception_4c/relu_3x3 -> inception_4c/3x3 (in-place)
I0403 16:19:16.575026 17713 net.cpp:141] Setting up inception_4c/relu_3x3
I0403 16:19:16.575052 17713 net.cpp:148] Top shape: 24 256 14 14 (1204224)
I0403 16:19:16.575067 17713 net.cpp:156] Memory required for data: 1047659808
I0403 16:19:16.575080 17713 layer_factory.hpp:77] Creating layer inception_4c/5x5_reduce
I0403 16:19:16.575103 17713 net.cpp:91] Creating Layer inception_4c/5x5_reduce
I0403 16:19:16.575119 17713 net.cpp:425] inception_4c/5x5_reduce <- inception_4b/output_inception_4b/output_0_split_2
I0403 16:19:16.575137 17713 net.cpp:399] inception_4c/5x5_reduce -> inception_4c/5x5_reduce
I0403 16:19:16.576200 17713 net.cpp:141] Setting up inception_4c/5x5_reduce
I0403 16:19:16.576230 17713 net.cpp:148] Top shape: 24 24 14 14 (112896)
I0403 16:19:16.576244 17713 net.cpp:156] Memory required for data: 1048111392
I0403 16:19:16.576263 17713 layer_factory.hpp:77] Creating layer inception_4c/relu_5x5_reduce
I0403 16:19:16.576282 17713 net.cpp:91] Creating Layer inception_4c/relu_5x5_reduce
I0403 16:19:16.576297 17713 net.cpp:425] inception_4c/relu_5x5_reduce <- inception_4c/5x5_reduce
I0403 16:19:16.576313 17713 net.cpp:386] inception_4c/relu_5x5_reduce -> inception_4c/5x5_reduce (in-place)
I0403 16:19:16.576493 17713 net.cpp:141] Setting up inception_4c/relu_5x5_reduce
I0403 16:19:16.576517 17713 net.cpp:148] Top shape: 24 24 14 14 (112896)
I0403 16:19:16.576531 17713 net.cpp:156] Memory required for data: 1048562976
I0403 16:19:16.576545 17713 layer_factory.hpp:77] Creating layer inception_4c/5x5
I0403 16:19:16.576570 17713 net.cpp:91] Creating Layer inception_4c/5x5
I0403 16:19:16.576589 17713 net.cpp:425] inception_4c/5x5 <- inception_4c/5x5_reduce
I0403 16:19:16.576611 17713 net.cpp:399] inception_4c/5x5 -> inception_4c/5x5
I0403 16:19:16.577810 17713 net.cpp:141] Setting up inception_4c/5x5
I0403 16:19:16.577836 17713 net.cpp:148] Top shape: 24 64 14 14 (301056)
I0403 16:19:16.577852 17713 net.cpp:156] Memory required for data: 1049767200
I0403 16:19:16.577869 17713 layer_factory.hpp:77] Creating layer inception_4c/relu_5x5
I0403 16:19:16.577886 17713 net.cpp:91] Creating Layer inception_4c/relu_5x5
I0403 16:19:16.577903 17713 net.cpp:425] inception_4c/relu_5x5 <- inception_4c/5x5
I0403 16:19:16.577921 17713 net.cpp:386] inception_4c/relu_5x5 -> inception_4c/5x5 (in-place)
I0403 16:19:16.578202 17713 net.cpp:141] Setting up inception_4c/relu_5x5
I0403 16:19:16.578227 17713 net.cpp:148] Top shape: 24 64 14 14 (301056)
I0403 16:19:16.578241 17713 net.cpp:156] Memory required for data: 1050971424
I0403 16:19:16.578256 17713 layer_factory.hpp:77] Creating layer inception_4c/pool
I0403 16:19:16.578274 17713 net.cpp:91] Creating Layer inception_4c/pool
I0403 16:19:16.578289 17713 net.cpp:425] inception_4c/pool <- inception_4b/output_inception_4b/output_0_split_3
I0403 16:19:16.578308 17713 net.cpp:399] inception_4c/pool -> inception_4c/pool
I0403 16:19:16.578372 17713 net.cpp:141] Setting up inception_4c/pool
I0403 16:19:16.578394 17713 net.cpp:148] Top shape: 24 512 14 14 (2408448)
I0403 16:19:16.578409 17713 net.cpp:156] Memory required for data: 1060605216
I0403 16:19:16.578423 17713 layer_factory.hpp:77] Creating layer inception_4c/pool_proj
I0403 16:19:16.578445 17713 net.cpp:91] Creating Layer inception_4c/pool_proj
I0403 16:19:16.578462 17713 net.cpp:425] inception_4c/pool_proj <- inception_4c/pool
I0403 16:19:16.578480 17713 net.cpp:399] inception_4c/pool_proj -> inception_4c/pool_proj
I0403 16:19:16.579671 17713 net.cpp:141] Setting up inception_4c/pool_proj
I0403 16:19:16.579699 17713 net.cpp:148] Top shape: 24 64 14 14 (301056)
I0403 16:19:16.579730 17713 net.cpp:156] Memory required for data: 1061809440
I0403 16:19:16.579751 17713 layer_factory.hpp:77] Creating layer inception_4c/relu_pool_proj
I0403 16:19:16.579769 17713 net.cpp:91] Creating Layer inception_4c/relu_pool_proj
I0403 16:19:16.579787 17713 net.cpp:425] inception_4c/relu_pool_proj <- inception_4c/pool_proj
I0403 16:19:16.579803 17713 net.cpp:386] inception_4c/relu_pool_proj -> inception_4c/pool_proj (in-place)
I0403 16:19:16.579982 17713 net.cpp:141] Setting up inception_4c/relu_pool_proj
I0403 16:19:16.580005 17713 net.cpp:148] Top shape: 24 64 14 14 (301056)
I0403 16:19:16.580020 17713 net.cpp:156] Memory required for data: 1063013664
I0403 16:19:16.580034 17713 layer_factory.hpp:77] Creating layer inception_4c/output
I0403 16:19:16.580051 17713 net.cpp:91] Creating Layer inception_4c/output
I0403 16:19:16.580065 17713 net.cpp:425] inception_4c/output <- inception_4c/1x1
I0403 16:19:16.580081 17713 net.cpp:425] inception_4c/output <- inception_4c/3x3
I0403 16:19:16.580097 17713 net.cpp:425] inception_4c/output <- inception_4c/5x5
I0403 16:19:16.580113 17713 net.cpp:425] inception_4c/output <- inception_4c/pool_proj
I0403 16:19:16.580132 17713 net.cpp:399] inception_4c/output -> inception_4c/output
I0403 16:19:16.580178 17713 net.cpp:141] Setting up inception_4c/output
I0403 16:19:16.580202 17713 net.cpp:148] Top shape: 24 512 14 14 (2408448)
I0403 16:19:16.580217 17713 net.cpp:156] Memory required for data: 1072647456
I0403 16:19:16.580232 17713 layer_factory.hpp:77] Creating layer inception_4c/output_inception_4c/output_0_split
I0403 16:19:16.580248 17713 net.cpp:91] Creating Layer inception_4c/output_inception_4c/output_0_split
I0403 16:19:16.580265 17713 net.cpp:425] inception_4c/output_inception_4c/output_0_split <- inception_4c/output
I0403 16:19:16.580281 17713 net.cpp:399] inception_4c/output_inception_4c/output_0_split -> inception_4c/output_inception_4c/output_0_split_0
I0403 16:19:16.580301 17713 net.cpp:399] inception_4c/output_inception_4c/output_0_split -> inception_4c/output_inception_4c/output_0_split_1
I0403 16:19:16.580322 17713 net.cpp:399] inception_4c/output_inception_4c/output_0_split -> inception_4c/output_inception_4c/output_0_split_2
I0403 16:19:16.580341 17713 net.cpp:399] inception_4c/output_inception_4c/output_0_split -> inception_4c/output_inception_4c/output_0_split_3
I0403 16:19:16.580426 17713 net.cpp:141] Setting up inception_4c/output_inception_4c/output_0_split
I0403 16:19:16.580448 17713 net.cpp:148] Top shape: 24 512 14 14 (2408448)
I0403 16:19:16.580464 17713 net.cpp:148] Top shape: 24 512 14 14 (2408448)
I0403 16:19:16.580478 17713 net.cpp:148] Top shape: 24 512 14 14 (2408448)
I0403 16:19:16.580493 17713 net.cpp:148] Top shape: 24 512 14 14 (2408448)
I0403 16:19:16.580507 17713 net.cpp:156] Memory required for data: 1111182624
I0403 16:19:16.580520 17713 layer_factory.hpp:77] Creating layer inception_4d/1x1
I0403 16:19:16.580543 17713 net.cpp:91] Creating Layer inception_4d/1x1
I0403 16:19:16.580559 17713 net.cpp:425] inception_4d/1x1 <- inception_4c/output_inception_4c/output_0_split_0
I0403 16:19:16.580585 17713 net.cpp:399] inception_4d/1x1 -> inception_4d/1x1
I0403 16:19:16.581919 17713 net.cpp:141] Setting up inception_4d/1x1
I0403 16:19:16.581946 17713 net.cpp:148] Top shape: 24 112 14 14 (526848)
I0403 16:19:16.581962 17713 net.cpp:156] Memory required for data: 1113290016
I0403 16:19:16.581979 17713 layer_factory.hpp:77] Creating layer inception_4d/relu_1x1
I0403 16:19:16.582000 17713 net.cpp:91] Creating Layer inception_4d/relu_1x1
I0403 16:19:16.582015 17713 net.cpp:425] inception_4d/relu_1x1 <- inception_4d/1x1
I0403 16:19:16.582032 17713 net.cpp:386] inception_4d/relu_1x1 -> inception_4d/1x1 (in-place)
I0403 16:19:16.582208 17713 net.cpp:141] Setting up inception_4d/relu_1x1
I0403 16:19:16.582234 17713 net.cpp:148] Top shape: 24 112 14 14 (526848)
I0403 16:19:16.582249 17713 net.cpp:156] Memory required for data: 1115397408
I0403 16:19:16.582265 17713 layer_factory.hpp:77] Creating layer inception_4d/3x3_reduce
I0403 16:19:16.582300 17713 net.cpp:91] Creating Layer inception_4d/3x3_reduce
I0403 16:19:16.582317 17713 net.cpp:425] inception_4d/3x3_reduce <- inception_4c/output_inception_4c/output_0_split_1
I0403 16:19:16.582336 17713 net.cpp:399] inception_4d/3x3_reduce -> inception_4d/3x3_reduce
I0403 16:19:16.583806 17713 net.cpp:141] Setting up inception_4d/3x3_reduce
I0403 16:19:16.583833 17713 net.cpp:148] Top shape: 24 144 14 14 (677376)
I0403 16:19:16.583847 17713 net.cpp:156] Memory required for data: 1118106912
I0403 16:19:16.583865 17713 layer_factory.hpp:77] Creating layer inception_4d/relu_3x3_reduce
I0403 16:19:16.583884 17713 net.cpp:91] Creating Layer inception_4d/relu_3x3_reduce
I0403 16:19:16.583900 17713 net.cpp:425] inception_4d/relu_3x3_reduce <- inception_4d/3x3_reduce
I0403 16:19:16.583917 17713 net.cpp:386] inception_4d/relu_3x3_reduce -> inception_4d/3x3_reduce (in-place)
I0403 16:19:16.584197 17713 net.cpp:141] Setting up inception_4d/relu_3x3_reduce
I0403 16:19:16.584223 17713 net.cpp:148] Top shape: 24 144 14 14 (677376)
I0403 16:19:16.584238 17713 net.cpp:156] Memory required for data: 1120816416
I0403 16:19:16.584251 17713 layer_factory.hpp:77] Creating layer inception_4d/3x3
I0403 16:19:16.584275 17713 net.cpp:91] Creating Layer inception_4d/3x3
I0403 16:19:16.584292 17713 net.cpp:425] inception_4d/3x3 <- inception_4d/3x3_reduce
I0403 16:19:16.584312 17713 net.cpp:399] inception_4d/3x3 -> inception_4d/3x3
I0403 16:19:16.588616 17713 net.cpp:141] Setting up inception_4d/3x3
I0403 16:19:16.588645 17713 net.cpp:148] Top shape: 24 288 14 14 (1354752)
I0403 16:19:16.588661 17713 net.cpp:156] Memory required for data: 1126235424
I0403 16:19:16.588680 17713 layer_factory.hpp:77] Creating layer inception_4d/relu_3x3
I0403 16:19:16.588698 17713 net.cpp:91] Creating Layer inception_4d/relu_3x3
I0403 16:19:16.588714 17713 net.cpp:425] inception_4d/relu_3x3 <- inception_4d/3x3
I0403 16:19:16.588732 17713 net.cpp:386] inception_4d/relu_3x3 -> inception_4d/3x3 (in-place)
I0403 16:19:16.588914 17713 net.cpp:141] Setting up inception_4d/relu_3x3
I0403 16:19:16.588942 17713 net.cpp:148] Top shape: 24 288 14 14 (1354752)
I0403 16:19:16.588958 17713 net.cpp:156] Memory required for data: 1131654432
I0403 16:19:16.588971 17713 layer_factory.hpp:77] Creating layer inception_4d/5x5_reduce
I0403 16:19:16.588992 17713 net.cpp:91] Creating Layer inception_4d/5x5_reduce
I0403 16:19:16.589010 17713 net.cpp:425] inception_4d/5x5_reduce <- inception_4c/output_inception_4c/output_0_split_2
I0403 16:19:16.589030 17713 net.cpp:399] inception_4d/5x5_reduce -> inception_4d/5x5_reduce
I0403 16:19:16.590183 17713 net.cpp:141] Setting up inception_4d/5x5_reduce
I0403 16:19:16.590209 17713 net.cpp:148] Top shape: 24 32 14 14 (150528)
I0403 16:19:16.590224 17713 net.cpp:156] Memory required for data: 1132256544
I0403 16:19:16.590242 17713 layer_factory.hpp:77] Creating layer inception_4d/relu_5x5_reduce
I0403 16:19:16.590261 17713 net.cpp:91] Creating Layer inception_4d/relu_5x5_reduce
I0403 16:19:16.590278 17713 net.cpp:425] inception_4d/relu_5x5_reduce <- inception_4d/5x5_reduce
I0403 16:19:16.590296 17713 net.cpp:386] inception_4d/relu_5x5_reduce -> inception_4d/5x5_reduce (in-place)
I0403 16:19:16.590483 17713 net.cpp:141] Setting up inception_4d/relu_5x5_reduce
I0403 16:19:16.590512 17713 net.cpp:148] Top shape: 24 32 14 14 (150528)
I0403 16:19:16.590528 17713 net.cpp:156] Memory required for data: 1132858656
I0403 16:19:16.590543 17713 layer_factory.hpp:77] Creating layer inception_4d/5x5
I0403 16:19:16.590564 17713 net.cpp:91] Creating Layer inception_4d/5x5
I0403 16:19:16.590586 17713 net.cpp:425] inception_4d/5x5 <- inception_4d/5x5_reduce
I0403 16:19:16.590605 17713 net.cpp:399] inception_4d/5x5 -> inception_4d/5x5
I0403 16:19:16.592067 17713 net.cpp:141] Setting up inception_4d/5x5
I0403 16:19:16.592097 17713 net.cpp:148] Top shape: 24 64 14 14 (301056)
I0403 16:19:16.592113 17713 net.cpp:156] Memory required for data: 1134062880
I0403 16:19:16.592131 17713 layer_factory.hpp:77] Creating layer inception_4d/relu_5x5
I0403 16:19:16.592165 17713 net.cpp:91] Creating Layer inception_4d/relu_5x5
I0403 16:19:16.592182 17713 net.cpp:425] inception_4d/relu_5x5 <- inception_4d/5x5
I0403 16:19:16.592201 17713 net.cpp:386] inception_4d/relu_5x5 -> inception_4d/5x5 (in-place)
I0403 16:19:16.592499 17713 net.cpp:141] Setting up inception_4d/relu_5x5
I0403 16:19:16.592527 17713 net.cpp:148] Top shape: 24 64 14 14 (301056)
I0403 16:19:16.592541 17713 net.cpp:156] Memory required for data: 1135267104
I0403 16:19:16.592556 17713 layer_factory.hpp:77] Creating layer inception_4d/pool
I0403 16:19:16.592578 17713 net.cpp:91] Creating Layer inception_4d/pool
I0403 16:19:16.592597 17713 net.cpp:425] inception_4d/pool <- inception_4c/output_inception_4c/output_0_split_3
I0403 16:19:16.592617 17713 net.cpp:399] inception_4d/pool -> inception_4d/pool
I0403 16:19:16.592684 17713 net.cpp:141] Setting up inception_4d/pool
I0403 16:19:16.592707 17713 net.cpp:148] Top shape: 24 512 14 14 (2408448)
I0403 16:19:16.592721 17713 net.cpp:156] Memory required for data: 1144900896
I0403 16:19:16.592736 17713 layer_factory.hpp:77] Creating layer inception_4d/pool_proj
I0403 16:19:16.592759 17713 net.cpp:91] Creating Layer inception_4d/pool_proj
I0403 16:19:16.592777 17713 net.cpp:425] inception_4d/pool_proj <- inception_4d/pool
I0403 16:19:16.592795 17713 net.cpp:399] inception_4d/pool_proj -> inception_4d/pool_proj
I0403 16:19:16.594559 17713 net.cpp:141] Setting up inception_4d/pool_proj
I0403 16:19:16.594599 17713 net.cpp:148] Top shape: 24 64 14 14 (301056)
I0403 16:19:16.594615 17713 net.cpp:156] Memory required for data: 1146105120
I0403 16:19:16.594635 17713 layer_factory.hpp:77] Creating layer inception_4d/relu_pool_proj
I0403 16:19:16.594658 17713 net.cpp:91] Creating Layer inception_4d/relu_pool_proj
I0403 16:19:16.594676 17713 net.cpp:425] inception_4d/relu_pool_proj <- inception_4d/pool_proj
I0403 16:19:16.594693 17713 net.cpp:386] inception_4d/relu_pool_proj -> inception_4d/pool_proj (in-place)
I0403 16:19:16.594878 17713 net.cpp:141] Setting up inception_4d/relu_pool_proj
I0403 16:19:16.594905 17713 net.cpp:148] Top shape: 24 64 14 14 (301056)
I0403 16:19:16.594921 17713 net.cpp:156] Memory required for data: 1147309344
I0403 16:19:16.594935 17713 layer_factory.hpp:77] Creating layer inception_4d/output
I0403 16:19:16.594952 17713 net.cpp:91] Creating Layer inception_4d/output
I0403 16:19:16.594967 17713 net.cpp:425] inception_4d/output <- inception_4d/1x1
I0403 16:19:16.594983 17713 net.cpp:425] inception_4d/output <- inception_4d/3x3
I0403 16:19:16.595000 17713 net.cpp:425] inception_4d/output <- inception_4d/5x5
I0403 16:19:16.595016 17713 net.cpp:425] inception_4d/output <- inception_4d/pool_proj
I0403 16:19:16.595032 17713 net.cpp:399] inception_4d/output -> inception_4d/output
I0403 16:19:16.595082 17713 net.cpp:141] Setting up inception_4d/output
I0403 16:19:16.595103 17713 net.cpp:148] Top shape: 24 528 14 14 (2483712)
I0403 16:19:16.595118 17713 net.cpp:156] Memory required for data: 1157244192
I0403 16:19:16.595132 17713 layer_factory.hpp:77] Creating layer inception_4d/output_inception_4d/output_0_split
I0403 16:19:16.595151 17713 net.cpp:91] Creating Layer inception_4d/output_inception_4d/output_0_split
I0403 16:19:16.595167 17713 net.cpp:425] inception_4d/output_inception_4d/output_0_split <- inception_4d/output
I0403 16:19:16.595185 17713 net.cpp:399] inception_4d/output_inception_4d/output_0_split -> inception_4d/output_inception_4d/output_0_split_0
I0403 16:19:16.595206 17713 net.cpp:399] inception_4d/output_inception_4d/output_0_split -> inception_4d/output_inception_4d/output_0_split_1
I0403 16:19:16.595229 17713 net.cpp:399] inception_4d/output_inception_4d/output_0_split -> inception_4d/output_inception_4d/output_0_split_2
I0403 16:19:16.595252 17713 net.cpp:399] inception_4d/output_inception_4d/output_0_split -> inception_4d/output_inception_4d/output_0_split_3
I0403 16:19:16.595273 17713 net.cpp:399] inception_4d/output_inception_4d/output_0_split -> inception_4d/output_inception_4d/output_0_split_4
I0403 16:19:16.595372 17713 net.cpp:141] Setting up inception_4d/output_inception_4d/output_0_split
I0403 16:19:16.595407 17713 net.cpp:148] Top shape: 24 528 14 14 (2483712)
I0403 16:19:16.595424 17713 net.cpp:148] Top shape: 24 528 14 14 (2483712)
I0403 16:19:16.595439 17713 net.cpp:148] Top shape: 24 528 14 14 (2483712)
I0403 16:19:16.595455 17713 net.cpp:148] Top shape: 24 528 14 14 (2483712)
I0403 16:19:16.595471 17713 net.cpp:148] Top shape: 24 528 14 14 (2483712)
I0403 16:19:16.595484 17713 net.cpp:156] Memory required for data: 1206918432
I0403 16:19:16.595499 17713 layer_factory.hpp:77] Creating layer loss2/ave_pool
I0403 16:19:16.595515 17713 net.cpp:91] Creating Layer loss2/ave_pool
I0403 16:19:16.595531 17713 net.cpp:425] loss2/ave_pool <- inception_4d/output_inception_4d/output_0_split_0
I0403 16:19:16.595551 17713 net.cpp:399] loss2/ave_pool -> loss2/ave_pool
I0403 16:19:16.595865 17713 net.cpp:141] Setting up loss2/ave_pool
I0403 16:19:16.595891 17713 net.cpp:148] Top shape: 24 528 4 4 (202752)
I0403 16:19:16.595906 17713 net.cpp:156] Memory required for data: 1207729440
I0403 16:19:16.595921 17713 layer_factory.hpp:77] Creating layer loss2/conv
I0403 16:19:16.595943 17713 net.cpp:91] Creating Layer loss2/conv
I0403 16:19:16.595960 17713 net.cpp:425] loss2/conv <- loss2/ave_pool
I0403 16:19:16.595980 17713 net.cpp:399] loss2/conv -> loss2/conv
I0403 16:19:16.597889 17713 net.cpp:141] Setting up loss2/conv
I0403 16:19:16.597920 17713 net.cpp:148] Top shape: 24 128 4 4 (49152)
I0403 16:19:16.597937 17713 net.cpp:156] Memory required for data: 1207926048
I0403 16:19:16.597956 17713 layer_factory.hpp:77] Creating layer loss2/relu_conv
I0403 16:19:16.597973 17713 net.cpp:91] Creating Layer loss2/relu_conv
I0403 16:19:16.597990 17713 net.cpp:425] loss2/relu_conv <- loss2/conv
I0403 16:19:16.598011 17713 net.cpp:386] loss2/relu_conv -> loss2/conv (in-place)
I0403 16:19:16.598296 17713 net.cpp:141] Setting up loss2/relu_conv
I0403 16:19:16.598325 17713 net.cpp:148] Top shape: 24 128 4 4 (49152)
I0403 16:19:16.598340 17713 net.cpp:156] Memory required for data: 1208122656
I0403 16:19:16.598356 17713 layer_factory.hpp:77] Creating layer loss2/fc
I0403 16:19:16.598373 17713 net.cpp:91] Creating Layer loss2/fc
I0403 16:19:16.598390 17713 net.cpp:425] loss2/fc <- loss2/conv
I0403 16:19:16.598412 17713 net.cpp:399] loss2/fc -> loss2/fc
I0403 16:19:16.615767 17713 net.cpp:141] Setting up loss2/fc
I0403 16:19:16.615798 17713 net.cpp:148] Top shape: 24 1024 (24576)
I0403 16:19:16.615813 17713 net.cpp:156] Memory required for data: 1208220960
I0403 16:19:16.615831 17713 layer_factory.hpp:77] Creating layer loss2/relu_fc
I0403 16:19:16.615851 17713 net.cpp:91] Creating Layer loss2/relu_fc
I0403 16:19:16.615869 17713 net.cpp:425] loss2/relu_fc <- loss2/fc
I0403 16:19:16.615886 17713 net.cpp:386] loss2/relu_fc -> loss2/fc (in-place)
I0403 16:19:16.616175 17713 net.cpp:141] Setting up loss2/relu_fc
I0403 16:19:16.616200 17713 net.cpp:148] Top shape: 24 1024 (24576)
I0403 16:19:16.616215 17713 net.cpp:156] Memory required for data: 1208319264
I0403 16:19:16.616230 17713 layer_factory.hpp:77] Creating layer loss2/drop_fc
I0403 16:19:16.616250 17713 net.cpp:91] Creating Layer loss2/drop_fc
I0403 16:19:16.616266 17713 net.cpp:425] loss2/drop_fc <- loss2/fc
I0403 16:19:16.616283 17713 net.cpp:386] loss2/drop_fc -> loss2/fc (in-place)
I0403 16:19:16.616336 17713 net.cpp:141] Setting up loss2/drop_fc
I0403 16:19:16.616358 17713 net.cpp:148] Top shape: 24 1024 (24576)
I0403 16:19:16.616372 17713 net.cpp:156] Memory required for data: 1208417568
I0403 16:19:16.616386 17713 layer_factory.hpp:77] Creating layer loss2/classifier_plantvillage
I0403 16:19:16.616406 17713 net.cpp:91] Creating Layer loss2/classifier_plantvillage
I0403 16:19:16.616422 17713 net.cpp:425] loss2/classifier_plantvillage <- loss2/fc
I0403 16:19:16.616441 17713 net.cpp:399] loss2/classifier_plantvillage -> loss2/classifier_plantvillage
I0403 16:19:16.616837 17713 net.cpp:141] Setting up loss2/classifier_plantvillage
I0403 16:19:16.616860 17713 net.cpp:148] Top shape: 24 38 (912)
I0403 16:19:16.616891 17713 net.cpp:156] Memory required for data: 1208421216
I0403 16:19:16.616910 17713 layer_factory.hpp:77] Creating layer loss2/classifier_plantvillage_loss2/classifier_plantvillage_0_split
I0403 16:19:16.616927 17713 net.cpp:91] Creating Layer loss2/classifier_plantvillage_loss2/classifier_plantvillage_0_split
I0403 16:19:16.616942 17713 net.cpp:425] loss2/classifier_plantvillage_loss2/classifier_plantvillage_0_split <- loss2/classifier_plantvillage
I0403 16:19:16.616961 17713 net.cpp:399] loss2/classifier_plantvillage_loss2/classifier_plantvillage_0_split -> loss2/classifier_plantvillage_loss2/classifier_plantvillage_0_split_0
I0403 16:19:16.616981 17713 net.cpp:399] loss2/classifier_plantvillage_loss2/classifier_plantvillage_0_split -> loss2/classifier_plantvillage_loss2/classifier_plantvillage_0_split_1
I0403 16:19:16.617002 17713 net.cpp:399] loss2/classifier_plantvillage_loss2/classifier_plantvillage_0_split -> loss2/classifier_plantvillage_loss2/classifier_plantvillage_0_split_2
I0403 16:19:16.617077 17713 net.cpp:141] Setting up loss2/classifier_plantvillage_loss2/classifier_plantvillage_0_split
I0403 16:19:16.617101 17713 net.cpp:148] Top shape: 24 38 (912)
I0403 16:19:16.617117 17713 net.cpp:148] Top shape: 24 38 (912)
I0403 16:19:16.617132 17713 net.cpp:148] Top shape: 24 38 (912)
I0403 16:19:16.617146 17713 net.cpp:156] Memory required for data: 1208432160
I0403 16:19:16.617161 17713 layer_factory.hpp:77] Creating layer inception_4e/1x1
I0403 16:19:16.617179 17713 net.cpp:91] Creating Layer inception_4e/1x1
I0403 16:19:16.617194 17713 net.cpp:425] inception_4e/1x1 <- inception_4d/output_inception_4d/output_0_split_1
I0403 16:19:16.617213 17713 net.cpp:399] inception_4e/1x1 -> inception_4e/1x1
I0403 16:19:16.618983 17713 net.cpp:141] Setting up inception_4e/1x1
I0403 16:19:16.619009 17713 net.cpp:148] Top shape: 24 256 14 14 (1204224)
I0403 16:19:16.619025 17713 net.cpp:156] Memory required for data: 1213249056
I0403 16:19:16.619042 17713 layer_factory.hpp:77] Creating layer inception_4e/relu_1x1
I0403 16:19:16.619060 17713 net.cpp:91] Creating Layer inception_4e/relu_1x1
I0403 16:19:16.619076 17713 net.cpp:425] inception_4e/relu_1x1 <- inception_4e/1x1
I0403 16:19:16.619093 17713 net.cpp:386] inception_4e/relu_1x1 -> inception_4e/1x1 (in-place)
I0403 16:19:16.619382 17713 net.cpp:141] Setting up inception_4e/relu_1x1
I0403 16:19:16.619407 17713 net.cpp:148] Top shape: 24 256 14 14 (1204224)
I0403 16:19:16.619423 17713 net.cpp:156] Memory required for data: 1218065952
I0403 16:19:16.619437 17713 layer_factory.hpp:77] Creating layer inception_4e/3x3_reduce
I0403 16:19:16.619458 17713 net.cpp:91] Creating Layer inception_4e/3x3_reduce
I0403 16:19:16.619475 17713 net.cpp:425] inception_4e/3x3_reduce <- inception_4d/output_inception_4d/output_0_split_2
I0403 16:19:16.619495 17713 net.cpp:399] inception_4e/3x3_reduce -> inception_4e/3x3_reduce
I0403 16:19:16.621572 17713 net.cpp:141] Setting up inception_4e/3x3_reduce
I0403 16:19:16.621603 17713 net.cpp:148] Top shape: 24 160 14 14 (752640)
I0403 16:19:16.621619 17713 net.cpp:156] Memory required for data: 1221076512
I0403 16:19:16.621636 17713 layer_factory.hpp:77] Creating layer inception_4e/relu_3x3_reduce
I0403 16:19:16.621654 17713 net.cpp:91] Creating Layer inception_4e/relu_3x3_reduce
I0403 16:19:16.621670 17713 net.cpp:425] inception_4e/relu_3x3_reduce <- inception_4e/3x3_reduce
I0403 16:19:16.621688 17713 net.cpp:386] inception_4e/relu_3x3_reduce -> inception_4e/3x3_reduce (in-place)
I0403 16:19:16.621870 17713 net.cpp:141] Setting up inception_4e/relu_3x3_reduce
I0403 16:19:16.621893 17713 net.cpp:148] Top shape: 24 160 14 14 (752640)
I0403 16:19:16.621907 17713 net.cpp:156] Memory required for data: 1224087072
I0403 16:19:16.621922 17713 layer_factory.hpp:77] Creating layer inception_4e/3x3
I0403 16:19:16.621942 17713 net.cpp:91] Creating Layer inception_4e/3x3
I0403 16:19:16.621959 17713 net.cpp:425] inception_4e/3x3 <- inception_4e/3x3_reduce
I0403 16:19:16.621980 17713 net.cpp:399] inception_4e/3x3 -> inception_4e/3x3
I0403 16:19:16.626876 17713 net.cpp:141] Setting up inception_4e/3x3
I0403 16:19:16.626916 17713 net.cpp:148] Top shape: 24 320 14 14 (1505280)
I0403 16:19:16.626932 17713 net.cpp:156] Memory required for data: 1230108192
I0403 16:19:16.626950 17713 layer_factory.hpp:77] Creating layer inception_4e/relu_3x3
I0403 16:19:16.626968 17713 net.cpp:91] Creating Layer inception_4e/relu_3x3
I0403 16:19:16.626983 17713 net.cpp:425] inception_4e/relu_3x3 <- inception_4e/3x3
I0403 16:19:16.627002 17713 net.cpp:386] inception_4e/relu_3x3 -> inception_4e/3x3 (in-place)
I0403 16:19:16.627295 17713 net.cpp:141] Setting up inception_4e/relu_3x3
I0403 16:19:16.627321 17713 net.cpp:148] Top shape: 24 320 14 14 (1505280)
I0403 16:19:16.627334 17713 net.cpp:156] Memory required for data: 1236129312
I0403 16:19:16.627349 17713 layer_factory.hpp:77] Creating layer inception_4e/5x5_reduce
I0403 16:19:16.627373 17713 net.cpp:91] Creating Layer inception_4e/5x5_reduce
I0403 16:19:16.627390 17713 net.cpp:425] inception_4e/5x5_reduce <- inception_4d/output_inception_4d/output_0_split_3
I0403 16:19:16.627413 17713 net.cpp:399] inception_4e/5x5_reduce -> inception_4e/5x5_reduce
I0403 16:19:16.628474 17713 net.cpp:141] Setting up inception_4e/5x5_reduce
I0403 16:19:16.628504 17713 net.cpp:148] Top shape: 24 32 14 14 (150528)
I0403 16:19:16.628520 17713 net.cpp:156] Memory required for data: 1236731424
I0403 16:19:16.628538 17713 layer_factory.hpp:77] Creating layer inception_4e/relu_5x5_reduce
I0403 16:19:16.628572 17713 net.cpp:91] Creating Layer inception_4e/relu_5x5_reduce
I0403 16:19:16.628589 17713 net.cpp:425] inception_4e/relu_5x5_reduce <- inception_4e/5x5_reduce
I0403 16:19:16.628608 17713 net.cpp:386] inception_4e/relu_5x5_reduce -> inception_4e/5x5_reduce (in-place)
I0403 16:19:16.628895 17713 net.cpp:141] Setting up inception_4e/relu_5x5_reduce
I0403 16:19:16.628922 17713 net.cpp:148] Top shape: 24 32 14 14 (150528)
I0403 16:19:16.628937 17713 net.cpp:156] Memory required for data: 1237333536
I0403 16:19:16.628952 17713 layer_factory.hpp:77] Creating layer inception_4e/5x5
I0403 16:19:16.628990 17713 net.cpp:91] Creating Layer inception_4e/5x5
I0403 16:19:16.629009 17713 net.cpp:425] inception_4e/5x5 <- inception_4e/5x5_reduce
I0403 16:19:16.629027 17713 net.cpp:399] inception_4e/5x5 -> inception_4e/5x5
I0403 16:19:16.630827 17713 net.cpp:141] Setting up inception_4e/5x5
I0403 16:19:16.630856 17713 net.cpp:148] Top shape: 24 128 14 14 (602112)
I0403 16:19:16.630872 17713 net.cpp:156] Memory required for data: 1239741984
I0403 16:19:16.630890 17713 layer_factory.hpp:77] Creating layer inception_4e/relu_5x5
I0403 16:19:16.630908 17713 net.cpp:91] Creating Layer inception_4e/relu_5x5
I0403 16:19:16.630923 17713 net.cpp:425] inception_4e/relu_5x5 <- inception_4e/5x5
I0403 16:19:16.630939 17713 net.cpp:386] inception_4e/relu_5x5 -> inception_4e/5x5 (in-place)
I0403 16:19:16.631130 17713 net.cpp:141] Setting up inception_4e/relu_5x5
I0403 16:19:16.631156 17713 net.cpp:148] Top shape: 24 128 14 14 (602112)
I0403 16:19:16.631172 17713 net.cpp:156] Memory required for data: 1242150432
I0403 16:19:16.631186 17713 layer_factory.hpp:77] Creating layer inception_4e/pool
I0403 16:19:16.631203 17713 net.cpp:91] Creating Layer inception_4e/pool
I0403 16:19:16.631218 17713 net.cpp:425] inception_4e/pool <- inception_4d/output_inception_4d/output_0_split_4
I0403 16:19:16.631237 17713 net.cpp:399] inception_4e/pool -> inception_4e/pool
I0403 16:19:16.631305 17713 net.cpp:141] Setting up inception_4e/pool
I0403 16:19:16.631330 17713 net.cpp:148] Top shape: 24 528 14 14 (2483712)
I0403 16:19:16.631345 17713 net.cpp:156] Memory required for data: 1252085280
I0403 16:19:16.631359 17713 layer_factory.hpp:77] Creating layer inception_4e/pool_proj
I0403 16:19:16.631377 17713 net.cpp:91] Creating Layer inception_4e/pool_proj
I0403 16:19:16.631393 17713 net.cpp:425] inception_4e/pool_proj <- inception_4e/pool
I0403 16:19:16.631413 17713 net.cpp:399] inception_4e/pool_proj -> inception_4e/pool_proj
I0403 16:19:16.632894 17713 net.cpp:141] Setting up inception_4e/pool_proj
I0403 16:19:16.632931 17713 net.cpp:148] Top shape: 24 128 14 14 (602112)
I0403 16:19:16.632947 17713 net.cpp:156] Memory required for data: 1254493728
I0403 16:19:16.632966 17713 layer_factory.hpp:77] Creating layer inception_4e/relu_pool_proj
I0403 16:19:16.632985 17713 net.cpp:91] Creating Layer inception_4e/relu_pool_proj
I0403 16:19:16.633002 17713 net.cpp:425] inception_4e/relu_pool_proj <- inception_4e/pool_proj
I0403 16:19:16.633018 17713 net.cpp:386] inception_4e/relu_pool_proj -> inception_4e/pool_proj (in-place)
I0403 16:19:16.633309 17713 net.cpp:141] Setting up inception_4e/relu_pool_proj
I0403 16:19:16.633334 17713 net.cpp:148] Top shape: 24 128 14 14 (602112)
I0403 16:19:16.633349 17713 net.cpp:156] Memory required for data: 1256902176
I0403 16:19:16.633363 17713 layer_factory.hpp:77] Creating layer inception_4e/output
I0403 16:19:16.633381 17713 net.cpp:91] Creating Layer inception_4e/output
I0403 16:19:16.633397 17713 net.cpp:425] inception_4e/output <- inception_4e/1x1
I0403 16:19:16.633414 17713 net.cpp:425] inception_4e/output <- inception_4e/3x3
I0403 16:19:16.633430 17713 net.cpp:425] inception_4e/output <- inception_4e/5x5
I0403 16:19:16.633445 17713 net.cpp:425] inception_4e/output <- inception_4e/pool_proj
I0403 16:19:16.633460 17713 net.cpp:399] inception_4e/output -> inception_4e/output
I0403 16:19:16.633510 17713 net.cpp:141] Setting up inception_4e/output
I0403 16:19:16.633533 17713 net.cpp:148] Top shape: 24 832 14 14 (3913728)
I0403 16:19:16.633548 17713 net.cpp:156] Memory required for data: 1272557088
I0403 16:19:16.633561 17713 layer_factory.hpp:77] Creating layer pool4/3x3_s2
I0403 16:19:16.633584 17713 net.cpp:91] Creating Layer pool4/3x3_s2
I0403 16:19:16.633600 17713 net.cpp:425] pool4/3x3_s2 <- inception_4e/output
I0403 16:19:16.633620 17713 net.cpp:399] pool4/3x3_s2 -> pool4/3x3_s2
I0403 16:19:16.633687 17713 net.cpp:141] Setting up pool4/3x3_s2
I0403 16:19:16.633711 17713 net.cpp:148] Top shape: 24 832 7 7 (978432)
I0403 16:19:16.633725 17713 net.cpp:156] Memory required for data: 1276470816
I0403 16:19:16.633740 17713 layer_factory.hpp:77] Creating layer pool4/3x3_s2_pool4/3x3_s2_0_split
I0403 16:19:16.633755 17713 net.cpp:91] Creating Layer pool4/3x3_s2_pool4/3x3_s2_0_split
I0403 16:19:16.633770 17713 net.cpp:425] pool4/3x3_s2_pool4/3x3_s2_0_split <- pool4/3x3_s2
I0403 16:19:16.633787 17713 net.cpp:399] pool4/3x3_s2_pool4/3x3_s2_0_split -> pool4/3x3_s2_pool4/3x3_s2_0_split_0
I0403 16:19:16.633811 17713 net.cpp:399] pool4/3x3_s2_pool4/3x3_s2_0_split -> pool4/3x3_s2_pool4/3x3_s2_0_split_1
I0403 16:19:16.633831 17713 net.cpp:399] pool4/3x3_s2_pool4/3x3_s2_0_split -> pool4/3x3_s2_pool4/3x3_s2_0_split_2
I0403 16:19:16.633852 17713 net.cpp:399] pool4/3x3_s2_pool4/3x3_s2_0_split -> pool4/3x3_s2_pool4/3x3_s2_0_split_3
I0403 16:19:16.633940 17713 net.cpp:141] Setting up pool4/3x3_s2_pool4/3x3_s2_0_split
I0403 16:19:16.633962 17713 net.cpp:148] Top shape: 24 832 7 7 (978432)
I0403 16:19:16.633978 17713 net.cpp:148] Top shape: 24 832 7 7 (978432)
I0403 16:19:16.633993 17713 net.cpp:148] Top shape: 24 832 7 7 (978432)
I0403 16:19:16.634009 17713 net.cpp:148] Top shape: 24 832 7 7 (978432)
I0403 16:19:16.634023 17713 net.cpp:156] Memory required for data: 1292125728
I0403 16:19:16.634037 17713 layer_factory.hpp:77] Creating layer inception_5a/1x1
I0403 16:19:16.634058 17713 net.cpp:91] Creating Layer inception_5a/1x1
I0403 16:19:16.634075 17713 net.cpp:425] inception_5a/1x1 <- pool4/3x3_s2_pool4/3x3_s2_0_split_0
I0403 16:19:16.634093 17713 net.cpp:399] inception_5a/1x1 -> inception_5a/1x1
I0403 16:19:16.636893 17713 net.cpp:141] Setting up inception_5a/1x1
I0403 16:19:16.636922 17713 net.cpp:148] Top shape: 24 256 7 7 (301056)
I0403 16:19:16.636940 17713 net.cpp:156] Memory required for data: 1293329952
I0403 16:19:16.636957 17713 layer_factory.hpp:77] Creating layer inception_5a/relu_1x1
I0403 16:19:16.636976 17713 net.cpp:91] Creating Layer inception_5a/relu_1x1
I0403 16:19:16.636991 17713 net.cpp:425] inception_5a/relu_1x1 <- inception_5a/1x1
I0403 16:19:16.637009 17713 net.cpp:386] inception_5a/relu_1x1 -> inception_5a/1x1 (in-place)
I0403 16:19:16.637311 17713 net.cpp:141] Setting up inception_5a/relu_1x1
I0403 16:19:16.637338 17713 net.cpp:148] Top shape: 24 256 7 7 (301056)
I0403 16:19:16.637353 17713 net.cpp:156] Memory required for data: 1294534176
I0403 16:19:16.637368 17713 layer_factory.hpp:77] Creating layer inception_5a/3x3_reduce
I0403 16:19:16.637389 17713 net.cpp:91] Creating Layer inception_5a/3x3_reduce
I0403 16:19:16.637406 17713 net.cpp:425] inception_5a/3x3_reduce <- pool4/3x3_s2_pool4/3x3_s2_0_split_1
I0403 16:19:16.637425 17713 net.cpp:399] inception_5a/3x3_reduce -> inception_5a/3x3_reduce
I0403 16:19:16.639850 17713 net.cpp:141] Setting up inception_5a/3x3_reduce
I0403 16:19:16.639878 17713 net.cpp:148] Top shape: 24 160 7 7 (188160)
I0403 16:19:16.639894 17713 net.cpp:156] Memory required for data: 1295286816
I0403 16:19:16.639911 17713 layer_factory.hpp:77] Creating layer inception_5a/relu_3x3_reduce
I0403 16:19:16.639931 17713 net.cpp:91] Creating Layer inception_5a/relu_3x3_reduce
I0403 16:19:16.639947 17713 net.cpp:425] inception_5a/relu_3x3_reduce <- inception_5a/3x3_reduce
I0403 16:19:16.639964 17713 net.cpp:386] inception_5a/relu_3x3_reduce -> inception_5a/3x3_reduce (in-place)
I0403 16:19:16.640147 17713 net.cpp:141] Setting up inception_5a/relu_3x3_reduce
I0403 16:19:16.640172 17713 net.cpp:148] Top shape: 24 160 7 7 (188160)
I0403 16:19:16.640187 17713 net.cpp:156] Memory required for data: 1296039456
I0403 16:19:16.640200 17713 layer_factory.hpp:77] Creating layer inception_5a/3x3
I0403 16:19:16.640223 17713 net.cpp:91] Creating Layer inception_5a/3x3
I0403 16:19:16.640240 17713 net.cpp:425] inception_5a/3x3 <- inception_5a/3x3_reduce
I0403 16:19:16.640259 17713 net.cpp:399] inception_5a/3x3 -> inception_5a/3x3
I0403 16:19:16.645206 17713 net.cpp:141] Setting up inception_5a/3x3
I0403 16:19:16.645237 17713 net.cpp:148] Top shape: 24 320 7 7 (376320)
I0403 16:19:16.645254 17713 net.cpp:156] Memory required for data: 1297544736
I0403 16:19:16.645273 17713 layer_factory.hpp:77] Creating layer inception_5a/relu_3x3
I0403 16:19:16.645292 17713 net.cpp:91] Creating Layer inception_5a/relu_3x3
I0403 16:19:16.645306 17713 net.cpp:425] inception_5a/relu_3x3 <- inception_5a/3x3
I0403 16:19:16.645323 17713 net.cpp:386] inception_5a/relu_3x3 -> inception_5a/3x3 (in-place)
I0403 16:19:16.645634 17713 net.cpp:141] Setting up inception_5a/relu_3x3
I0403 16:19:16.645663 17713 net.cpp:148] Top shape: 24 320 7 7 (376320)
I0403 16:19:16.645678 17713 net.cpp:156] Memory required for data: 1299050016
I0403 16:19:16.645694 17713 layer_factory.hpp:77] Creating layer inception_5a/5x5_reduce
I0403 16:19:16.645716 17713 net.cpp:91] Creating Layer inception_5a/5x5_reduce
I0403 16:19:16.645735 17713 net.cpp:425] inception_5a/5x5_reduce <- pool4/3x3_s2_pool4/3x3_s2_0_split_2
I0403 16:19:16.645753 17713 net.cpp:399] inception_5a/5x5_reduce -> inception_5a/5x5_reduce
I0403 16:19:16.646945 17713 net.cpp:141] Setting up inception_5a/5x5_reduce
I0403 16:19:16.646975 17713 net.cpp:148] Top shape: 24 32 7 7 (37632)
I0403 16:19:16.646991 17713 net.cpp:156] Memory required for data: 1299200544
I0403 16:19:16.647009 17713 layer_factory.hpp:77] Creating layer inception_5a/relu_5x5_reduce
I0403 16:19:16.647027 17713 net.cpp:91] Creating Layer inception_5a/relu_5x5_reduce
I0403 16:19:16.647043 17713 net.cpp:425] inception_5a/relu_5x5_reduce <- inception_5a/5x5_reduce
I0403 16:19:16.647063 17713 net.cpp:386] inception_5a/relu_5x5_reduce -> inception_5a/5x5_reduce (in-place)
I0403 16:19:16.647367 17713 net.cpp:141] Setting up inception_5a/relu_5x5_reduce
I0403 16:19:16.647394 17713 net.cpp:148] Top shape: 24 32 7 7 (37632)
I0403 16:19:16.647410 17713 net.cpp:156] Memory required for data: 1299351072
I0403 16:19:16.647425 17713 layer_factory.hpp:77] Creating layer inception_5a/5x5
I0403 16:19:16.647447 17713 net.cpp:91] Creating Layer inception_5a/5x5
I0403 16:19:16.647470 17713 net.cpp:425] inception_5a/5x5 <- inception_5a/5x5_reduce
I0403 16:19:16.647490 17713 net.cpp:399] inception_5a/5x5 -> inception_5a/5x5
I0403 16:19:16.649250 17713 net.cpp:141] Setting up inception_5a/5x5
I0403 16:19:16.649293 17713 net.cpp:148] Top shape: 24 128 7 7 (150528)
I0403 16:19:16.649310 17713 net.cpp:156] Memory required for data: 1299953184
I0403 16:19:16.649328 17713 layer_factory.hpp:77] Creating layer inception_5a/relu_5x5
I0403 16:19:16.649345 17713 net.cpp:91] Creating Layer inception_5a/relu_5x5
I0403 16:19:16.649361 17713 net.cpp:425] inception_5a/relu_5x5 <- inception_5a/5x5
I0403 16:19:16.649379 17713 net.cpp:386] inception_5a/relu_5x5 -> inception_5a/5x5 (in-place)
I0403 16:19:16.649580 17713 net.cpp:141] Setting up inception_5a/relu_5x5
I0403 16:19:16.649606 17713 net.cpp:148] Top shape: 24 128 7 7 (150528)
I0403 16:19:16.649622 17713 net.cpp:156] Memory required for data: 1300555296
I0403 16:19:16.649636 17713 layer_factory.hpp:77] Creating layer inception_5a/pool
I0403 16:19:16.649654 17713 net.cpp:91] Creating Layer inception_5a/pool
I0403 16:19:16.649670 17713 net.cpp:425] inception_5a/pool <- pool4/3x3_s2_pool4/3x3_s2_0_split_3
I0403 16:19:16.649690 17713 net.cpp:399] inception_5a/pool -> inception_5a/pool
I0403 16:19:16.649761 17713 net.cpp:141] Setting up inception_5a/pool
I0403 16:19:16.649786 17713 net.cpp:148] Top shape: 24 832 7 7 (978432)
I0403 16:19:16.649802 17713 net.cpp:156] Memory required for data: 1304469024
I0403 16:19:16.649816 17713 layer_factory.hpp:77] Creating layer inception_5a/pool_proj
I0403 16:19:16.649837 17713 net.cpp:91] Creating Layer inception_5a/pool_proj
I0403 16:19:16.649854 17713 net.cpp:425] inception_5a/pool_proj <- inception_5a/pool
I0403 16:19:16.649873 17713 net.cpp:399] inception_5a/pool_proj -> inception_5a/pool_proj
I0403 16:19:16.652186 17713 net.cpp:141] Setting up inception_5a/pool_proj
I0403 16:19:16.652215 17713 net.cpp:148] Top shape: 24 128 7 7 (150528)
I0403 16:19:16.652231 17713 net.cpp:156] Memory required for data: 1305071136
I0403 16:19:16.652250 17713 layer_factory.hpp:77] Creating layer inception_5a/relu_pool_proj
I0403 16:19:16.652269 17713 net.cpp:91] Creating Layer inception_5a/relu_pool_proj
I0403 16:19:16.652287 17713 net.cpp:425] inception_5a/relu_pool_proj <- inception_5a/pool_proj
I0403 16:19:16.652303 17713 net.cpp:386] inception_5a/relu_pool_proj -> inception_5a/pool_proj (in-place)
I0403 16:19:16.652609 17713 net.cpp:141] Setting up inception_5a/relu_pool_proj
I0403 16:19:16.652636 17713 net.cpp:148] Top shape: 24 128 7 7 (150528)
I0403 16:19:16.652650 17713 net.cpp:156] Memory required for data: 1305673248
I0403 16:19:16.652665 17713 layer_factory.hpp:77] Creating layer inception_5a/output
I0403 16:19:16.652684 17713 net.cpp:91] Creating Layer inception_5a/output
I0403 16:19:16.652700 17713 net.cpp:425] inception_5a/output <- inception_5a/1x1
I0403 16:19:16.652717 17713 net.cpp:425] inception_5a/output <- inception_5a/3x3
I0403 16:19:16.652734 17713 net.cpp:425] inception_5a/output <- inception_5a/5x5
I0403 16:19:16.652750 17713 net.cpp:425] inception_5a/output <- inception_5a/pool_proj
I0403 16:19:16.652766 17713 net.cpp:399] inception_5a/output -> inception_5a/output
I0403 16:19:16.652817 17713 net.cpp:141] Setting up inception_5a/output
I0403 16:19:16.652840 17713 net.cpp:148] Top shape: 24 832 7 7 (978432)
I0403 16:19:16.652854 17713 net.cpp:156] Memory required for data: 1309586976
I0403 16:19:16.652869 17713 layer_factory.hpp:77] Creating layer inception_5a/output_inception_5a/output_0_split
I0403 16:19:16.652886 17713 net.cpp:91] Creating Layer inception_5a/output_inception_5a/output_0_split
I0403 16:19:16.652901 17713 net.cpp:425] inception_5a/output_inception_5a/output_0_split <- inception_5a/output
I0403 16:19:16.652921 17713 net.cpp:399] inception_5a/output_inception_5a/output_0_split -> inception_5a/output_inception_5a/output_0_split_0
I0403 16:19:16.652942 17713 net.cpp:399] inception_5a/output_inception_5a/output_0_split -> inception_5a/output_inception_5a/output_0_split_1
I0403 16:19:16.652962 17713 net.cpp:399] inception_5a/output_inception_5a/output_0_split -> inception_5a/output_inception_5a/output_0_split_2
I0403 16:19:16.652983 17713 net.cpp:399] inception_5a/output_inception_5a/output_0_split -> inception_5a/output_inception_5a/output_0_split_3
I0403 16:19:16.653097 17713 net.cpp:141] Setting up inception_5a/output_inception_5a/output_0_split
I0403 16:19:16.653122 17713 net.cpp:148] Top shape: 24 832 7 7 (978432)
I0403 16:19:16.653139 17713 net.cpp:148] Top shape: 24 832 7 7 (978432)
I0403 16:19:16.653156 17713 net.cpp:148] Top shape: 24 832 7 7 (978432)
I0403 16:19:16.653172 17713 net.cpp:148] Top shape: 24 832 7 7 (978432)
I0403 16:19:16.653184 17713 net.cpp:156] Memory required for data: 1325241888
I0403 16:19:16.653199 17713 layer_factory.hpp:77] Creating layer inception_5b/1x1
I0403 16:19:16.653221 17713 net.cpp:91] Creating Layer inception_5b/1x1
I0403 16:19:16.653239 17713 net.cpp:425] inception_5b/1x1 <- inception_5a/output_inception_5a/output_0_split_0
I0403 16:19:16.653257 17713 net.cpp:399] inception_5b/1x1 -> inception_5b/1x1
I0403 16:19:16.657070 17713 net.cpp:141] Setting up inception_5b/1x1
I0403 16:19:16.657100 17713 net.cpp:148] Top shape: 24 384 7 7 (451584)
I0403 16:19:16.657115 17713 net.cpp:156] Memory required for data: 1327048224
I0403 16:19:16.657133 17713 layer_factory.hpp:77] Creating layer inception_5b/relu_1x1
I0403 16:19:16.657155 17713 net.cpp:91] Creating Layer inception_5b/relu_1x1
I0403 16:19:16.657171 17713 net.cpp:425] inception_5b/relu_1x1 <- inception_5b/1x1
I0403 16:19:16.657188 17713 net.cpp:386] inception_5b/relu_1x1 -> inception_5b/1x1 (in-place)
I0403 16:19:16.657493 17713 net.cpp:141] Setting up inception_5b/relu_1x1
I0403 16:19:16.657519 17713 net.cpp:148] Top shape: 24 384 7 7 (451584)
I0403 16:19:16.657534 17713 net.cpp:156] Memory required for data: 1328854560
I0403 16:19:16.657549 17713 layer_factory.hpp:77] Creating layer inception_5b/3x3_reduce
I0403 16:19:16.657577 17713 net.cpp:91] Creating Layer inception_5b/3x3_reduce
I0403 16:19:16.657596 17713 net.cpp:425] inception_5b/3x3_reduce <- inception_5a/output_inception_5a/output_0_split_1
I0403 16:19:16.657618 17713 net.cpp:399] inception_5b/3x3_reduce -> inception_5b/3x3_reduce
I0403 16:19:16.660351 17713 net.cpp:141] Setting up inception_5b/3x3_reduce
I0403 16:19:16.660382 17713 net.cpp:148] Top shape: 24 192 7 7 (225792)
I0403 16:19:16.660398 17713 net.cpp:156] Memory required for data: 1329757728
I0403 16:19:16.660415 17713 layer_factory.hpp:77] Creating layer inception_5b/relu_3x3_reduce
I0403 16:19:16.660435 17713 net.cpp:91] Creating Layer inception_5b/relu_3x3_reduce
I0403 16:19:16.660452 17713 net.cpp:425] inception_5b/relu_3x3_reduce <- inception_5b/3x3_reduce
I0403 16:19:16.660470 17713 net.cpp:386] inception_5b/relu_3x3_reduce -> inception_5b/3x3_reduce (in-place)
I0403 16:19:16.660668 17713 net.cpp:141] Setting up inception_5b/relu_3x3_reduce
I0403 16:19:16.660694 17713 net.cpp:148] Top shape: 24 192 7 7 (225792)
I0403 16:19:16.660711 17713 net.cpp:156] Memory required for data: 1330660896
I0403 16:19:16.660725 17713 layer_factory.hpp:77] Creating layer inception_5b/3x3
I0403 16:19:16.660748 17713 net.cpp:91] Creating Layer inception_5b/3x3
I0403 16:19:16.660765 17713 net.cpp:425] inception_5b/3x3 <- inception_5b/3x3_reduce
I0403 16:19:16.660784 17713 net.cpp:399] inception_5b/3x3 -> inception_5b/3x3
I0403 16:19:16.667500 17713 net.cpp:141] Setting up inception_5b/3x3
I0403 16:19:16.667528 17713 net.cpp:148] Top shape: 24 384 7 7 (451584)
I0403 16:19:16.667542 17713 net.cpp:156] Memory required for data: 1332467232
I0403 16:19:16.667559 17713 layer_factory.hpp:77] Creating layer inception_5b/relu_3x3
I0403 16:19:16.667585 17713 net.cpp:91] Creating Layer inception_5b/relu_3x3
I0403 16:19:16.667603 17713 net.cpp:425] inception_5b/relu_3x3 <- inception_5b/3x3
I0403 16:19:16.667619 17713 net.cpp:386] inception_5b/relu_3x3 -> inception_5b/3x3 (in-place)
I0403 16:19:16.667901 17713 net.cpp:141] Setting up inception_5b/relu_3x3
I0403 16:19:16.667927 17713 net.cpp:148] Top shape: 24 384 7 7 (451584)
I0403 16:19:16.667940 17713 net.cpp:156] Memory required for data: 1334273568
I0403 16:19:16.667955 17713 layer_factory.hpp:77] Creating layer inception_5b/5x5_reduce
I0403 16:19:16.667994 17713 net.cpp:91] Creating Layer inception_5b/5x5_reduce
I0403 16:19:16.668015 17713 net.cpp:425] inception_5b/5x5_reduce <- inception_5a/output_inception_5a/output_0_split_2
I0403 16:19:16.668035 17713 net.cpp:399] inception_5b/5x5_reduce -> inception_5b/5x5_reduce
I0403 16:19:16.669284 17713 net.cpp:141] Setting up inception_5b/5x5_reduce
I0403 16:19:16.669311 17713 net.cpp:148] Top shape: 24 48 7 7 (56448)
I0403 16:19:16.669327 17713 net.cpp:156] Memory required for data: 1334499360
I0403 16:19:16.669343 17713 layer_factory.hpp:77] Creating layer inception_5b/relu_5x5_reduce
I0403 16:19:16.669363 17713 net.cpp:91] Creating Layer inception_5b/relu_5x5_reduce
I0403 16:19:16.669378 17713 net.cpp:425] inception_5b/relu_5x5_reduce <- inception_5b/5x5_reduce
I0403 16:19:16.669394 17713 net.cpp:386] inception_5b/relu_5x5_reduce -> inception_5b/5x5_reduce (in-place)
I0403 16:19:16.669759 17713 net.cpp:141] Setting up inception_5b/relu_5x5_reduce
I0403 16:19:16.669783 17713 net.cpp:148] Top shape: 24 48 7 7 (56448)
I0403 16:19:16.669798 17713 net.cpp:156] Memory required for data: 1334725152
I0403 16:19:16.669811 17713 layer_factory.hpp:77] Creating layer inception_5b/5x5
I0403 16:19:16.669831 17713 net.cpp:91] Creating Layer inception_5b/5x5
I0403 16:19:16.669847 17713 net.cpp:425] inception_5b/5x5 <- inception_5b/5x5_reduce
I0403 16:19:16.669863 17713 net.cpp:399] inception_5b/5x5 -> inception_5b/5x5
I0403 16:19:16.671851 17713 net.cpp:141] Setting up inception_5b/5x5
I0403 16:19:16.671879 17713 net.cpp:148] Top shape: 24 128 7 7 (150528)
I0403 16:19:16.671895 17713 net.cpp:156] Memory required for data: 1335327264
I0403 16:19:16.671911 17713 layer_factory.hpp:77] Creating layer inception_5b/relu_5x5
I0403 16:19:16.671928 17713 net.cpp:91] Creating Layer inception_5b/relu_5x5
I0403 16:19:16.671943 17713 net.cpp:425] inception_5b/relu_5x5 <- inception_5b/5x5
I0403 16:19:16.671962 17713 net.cpp:386] inception_5b/relu_5x5 -> inception_5b/5x5 (in-place)
I0403 16:19:16.672144 17713 net.cpp:141] Setting up inception_5b/relu_5x5
I0403 16:19:16.672168 17713 net.cpp:148] Top shape: 24 128 7 7 (150528)
I0403 16:19:16.672183 17713 net.cpp:156] Memory required for data: 1335929376
I0403 16:19:16.672196 17713 layer_factory.hpp:77] Creating layer inception_5b/pool
I0403 16:19:16.672214 17713 net.cpp:91] Creating Layer inception_5b/pool
I0403 16:19:16.672229 17713 net.cpp:425] inception_5b/pool <- inception_5a/output_inception_5a/output_0_split_3
I0403 16:19:16.672248 17713 net.cpp:399] inception_5b/pool -> inception_5b/pool
I0403 16:19:16.672317 17713 net.cpp:141] Setting up inception_5b/pool
I0403 16:19:16.672339 17713 net.cpp:148] Top shape: 24 832 7 7 (978432)
I0403 16:19:16.672353 17713 net.cpp:156] Memory required for data: 1339843104
I0403 16:19:16.672366 17713 layer_factory.hpp:77] Creating layer inception_5b/pool_proj
I0403 16:19:16.672389 17713 net.cpp:91] Creating Layer inception_5b/pool_proj
I0403 16:19:16.672405 17713 net.cpp:425] inception_5b/pool_proj <- inception_5b/pool
I0403 16:19:16.672423 17713 net.cpp:399] inception_5b/pool_proj -> inception_5b/pool_proj
I0403 16:19:16.674674 17713 net.cpp:141] Setting up inception_5b/pool_proj
I0403 16:19:16.674701 17713 net.cpp:148] Top shape: 24 128 7 7 (150528)
I0403 16:19:16.674720 17713 net.cpp:156] Memory required for data: 1340445216
I0403 16:19:16.674737 17713 layer_factory.hpp:77] Creating layer inception_5b/relu_pool_proj
I0403 16:19:16.674754 17713 net.cpp:91] Creating Layer inception_5b/relu_pool_proj
I0403 16:19:16.674770 17713 net.cpp:425] inception_5b/relu_pool_proj <- inception_5b/pool_proj
I0403 16:19:16.674787 17713 net.cpp:386] inception_5b/relu_pool_proj -> inception_5b/pool_proj (in-place)
I0403 16:19:16.675072 17713 net.cpp:141] Setting up inception_5b/relu_pool_proj
I0403 16:19:16.675096 17713 net.cpp:148] Top shape: 24 128 7 7 (150528)
I0403 16:19:16.675113 17713 net.cpp:156] Memory required for data: 1341047328
I0403 16:19:16.675127 17713 layer_factory.hpp:77] Creating layer inception_5b/output
I0403 16:19:16.675144 17713 net.cpp:91] Creating Layer inception_5b/output
I0403 16:19:16.675173 17713 net.cpp:425] inception_5b/output <- inception_5b/1x1
I0403 16:19:16.675189 17713 net.cpp:425] inception_5b/output <- inception_5b/3x3
I0403 16:19:16.675205 17713 net.cpp:425] inception_5b/output <- inception_5b/5x5
I0403 16:19:16.675220 17713 net.cpp:425] inception_5b/output <- inception_5b/pool_proj
I0403 16:19:16.675236 17713 net.cpp:399] inception_5b/output -> inception_5b/output
I0403 16:19:16.675287 17713 net.cpp:141] Setting up inception_5b/output
I0403 16:19:16.675309 17713 net.cpp:148] Top shape: 24 1024 7 7 (1204224)
I0403 16:19:16.675323 17713 net.cpp:156] Memory required for data: 1345864224
I0403 16:19:16.675338 17713 layer_factory.hpp:77] Creating layer pool5/7x7_s1
I0403 16:19:16.675355 17713 net.cpp:91] Creating Layer pool5/7x7_s1
I0403 16:19:16.675370 17713 net.cpp:425] pool5/7x7_s1 <- inception_5b/output
I0403 16:19:16.675387 17713 net.cpp:399] pool5/7x7_s1 -> pool5/7x7_s1
I0403 16:19:16.675598 17713 net.cpp:141] Setting up pool5/7x7_s1
I0403 16:19:16.675624 17713 net.cpp:148] Top shape: 24 1024 1 1 (24576)
I0403 16:19:16.675639 17713 net.cpp:156] Memory required for data: 1345962528
I0403 16:19:16.675652 17713 layer_factory.hpp:77] Creating layer pool5/drop_7x7_s1
I0403 16:19:16.675669 17713 net.cpp:91] Creating Layer pool5/drop_7x7_s1
I0403 16:19:16.675684 17713 net.cpp:425] pool5/drop_7x7_s1 <- pool5/7x7_s1
I0403 16:19:16.675700 17713 net.cpp:386] pool5/drop_7x7_s1 -> pool5/7x7_s1 (in-place)
I0403 16:19:16.675748 17713 net.cpp:141] Setting up pool5/drop_7x7_s1
I0403 16:19:16.675770 17713 net.cpp:148] Top shape: 24 1024 1 1 (24576)
I0403 16:19:16.675782 17713 net.cpp:156] Memory required for data: 1346060832
I0403 16:19:16.675796 17713 layer_factory.hpp:77] Creating layer loss3/classifier_plantvillage
I0403 16:19:16.675817 17713 net.cpp:91] Creating Layer loss3/classifier_plantvillage
I0403 16:19:16.675832 17713 net.cpp:425] loss3/classifier_plantvillage <- pool5/7x7_s1
I0403 16:19:16.675849 17713 net.cpp:399] loss3/classifier_plantvillage -> loss3/classifier_plantvillage
I0403 16:19:16.676251 17713 net.cpp:141] Setting up loss3/classifier_plantvillage
I0403 16:19:16.676275 17713 net.cpp:148] Top shape: 24 38 (912)
I0403 16:19:16.676288 17713 net.cpp:156] Memory required for data: 1346064480
I0403 16:19:16.676304 17713 layer_factory.hpp:77] Creating layer loss3/classifier_plantvillage_loss3/classifier_plantvillage_0_split
I0403 16:19:16.676321 17713 net.cpp:91] Creating Layer loss3/classifier_plantvillage_loss3/classifier_plantvillage_0_split
I0403 16:19:16.676337 17713 net.cpp:425] loss3/classifier_plantvillage_loss3/classifier_plantvillage_0_split <- loss3/classifier_plantvillage
I0403 16:19:16.676355 17713 net.cpp:399] loss3/classifier_plantvillage_loss3/classifier_plantvillage_0_split -> loss3/classifier_plantvillage_loss3/classifier_plantvillage_0_split_0
I0403 16:19:16.676375 17713 net.cpp:399] loss3/classifier_plantvillage_loss3/classifier_plantvillage_0_split -> loss3/classifier_plantvillage_loss3/classifier_plantvillage_0_split_1
I0403 16:19:16.676394 17713 net.cpp:399] loss3/classifier_plantvillage_loss3/classifier_plantvillage_0_split -> loss3/classifier_plantvillage_loss3/classifier_plantvillage_0_split_2
I0403 16:19:16.676414 17713 net.cpp:399] loss3/classifier_plantvillage_loss3/classifier_plantvillage_0_split -> loss3/classifier_plantvillage_loss3/classifier_plantvillage_0_split_3
I0403 16:19:16.676512 17713 net.cpp:141] Setting up loss3/classifier_plantvillage_loss3/classifier_plantvillage_0_split
I0403 16:19:16.676534 17713 net.cpp:148] Top shape: 24 38 (912)
I0403 16:19:16.676550 17713 net.cpp:148] Top shape: 24 38 (912)
I0403 16:19:16.676564 17713 net.cpp:148] Top shape: 24 38 (912)
I0403 16:19:16.676586 17713 net.cpp:148] Top shape: 24 38 (912)
I0403 16:19:16.676599 17713 net.cpp:156] Memory required for data: 1346079072
I0403 16:19:16.676612 17713 layer_factory.hpp:77] Creating layer loss1/loss
I0403 16:19:16.676632 17713 net.cpp:91] Creating Layer loss1/loss
I0403 16:19:16.676648 17713 net.cpp:425] loss1/loss <- loss1/classifier_plantvillage_loss1/classifier_plantvillage_0_split_0
I0403 16:19:16.676677 17713 net.cpp:425] loss1/loss <- label_data_1_split_0
…
