…
I0403 16:46:41.182862 19233 net.cpp:313] The NetState phase (1) differed from the phase (0) specified by a rule in layer data
I0403 16:46:41.185120 19233 net.cpp:49] Initializing net from parameters: 
state {
  phase: TEST
}
layer {
  name: "data"
  type: "Data"
  top: "data"
  top: "label"
  include {
    phase: TEST
  }
  transform_param {
    mirror: false
    crop_size: 224
    mean_file: "/home/mohanty/data/final_dataset/lmdb/segmented-20-80/mean.binaryproto"
  }
  data_param {
    source: "/home/mohanty/data/final_dataset/lmdb/segmented-20-80/test_db"
    batch_size: 24
    backend: LMDB
  }
}
layer {
  name: "conv1/7x7_s2"
  type: "Convolution"
  bottom: "data"
  top: "conv1/7x7_s2"
  param {
    lr_mult: 1
    decay_mult: 1
  }
  param {
    lr_mult: 2
    decay_mult: 0
  }
  convolution_param {
    num_output: 64
    pad: 3
    kernel_size: 7
    stride: 2
    weight_filler {
      type: "xavier"
      std: 0.1
    }
    bias_filler {
      type: "constant"
      value: 0.2
    }
  }
}
layer {
  name: "conv1/relu_7x7"
  type: "ReLU"
  bottom: "conv1/7x7_s2"
  top: "conv1/7x7_s2"
}
layer {
  name: "pool1/3x3_s2"
  type: "Pooling"
  bottom: "conv1/7x7_s2"
  top: "pool1/3x3_s2"
  pooling_param {
    pool: MAX
    kernel_size: 3
    stride: 2
  }
}
layer {
  name: "pool1/norm1"
  type: "LRN"
  bottom: "pool1/3x3_s2"
  top: "pool1/norm1"
  lrn_param {
    local_size: 5
    alpha: 0.0001
    beta: 0.75
  }
}
layer {
  name: "conv2/3x3_reduce"
  type: "Convolution"
  bottom: "pool1/norm1"
  top: "conv2/3x3_reduce"
  param {
    lr_mult: 1
    decay_mult: 1
  }
  param {
    lr_mult: 2
    decay_mult: 0
  }
  convolution_param {
    num_output: 64
    kernel_size: 1
    weight_filler {
      type: "xavier"
      std: 0.1
    }
    bias_filler {
      type: "constant"
      value: 0.2
    }
  }
}
layer {
  name: "conv2/relu_3x3_reduce"
  type: "ReLU"
  bottom: "conv2/3x3_reduce"
  top: "conv2/3x3_reduce"
}
layer {
  name: "conv2/3x3"
  type: "Convolution"
  bottom: "conv2/3x3_reduce"
  top: "conv2/3x3"
  param {
    lr_mult: 1
    decay_mult: 1
  }
  param {
    lr_mult: 2
    decay_mult: 0
  }
  convolution_param {
    num_output: 192
    pad: 1
    kernel_size: 3
    weight_filler {
      type: "xavier"
      std: 0.03
    }
    bias_filler {
      type: "constant"
      value: 0.2
    }
  }
}
layer {
  name: "conv2/relu_3x3"
  type: "ReLU"
  bottom: "conv2/3x3"
  top: "conv2/3x3"
}
layer {
  name: "conv2/norm2"
  type: "LRN"
  bottom: "conv2/3x3"
  top: "conv2/norm2"
  lrn_param {
    local_size: 5
    alpha: 0.0001
    beta: 0.75
  }
}
layer {
  name: "pool2/3x3_s2"
  type: "Pooling"
  bottom: "conv2/norm2"
  top: "pool2/3x3_s2"
  pooling_param {
    pool: MAX
    kernel_size: 3
    stride: 2
  }
}
layer {
  name: "inception_3a/1x1"
  type: "Convolution"
  bottom: "pool2/3x3_s2"
  top: "inception_3a/1x1"
  param {
    lr_mult: 1
    decay_mult: 1
  }
  param {
    lr_mult: 2
    decay_mult: 0
  }
  convolution_param {
    num_output: 64
    kernel_size: 1
    weight_filler {
      type: "xavier"
      std: 0.03
    }
    bias_filler {
      type: "constant"
      value: 0.2
    }
  }
}
layer {
  name: "inception_3a/relu_1x1"
  type: "ReLU"
  bottom: "inception_3a/1x1"
  top: "inception_3a/1x1"
}
layer {
  name: "inception_3a/3x3_reduce"
  type: "Convolution"
  bottom: "pool2/3x3_s2"
  top: "inception_3a/3x3_reduce"
  param {
    lr_mult: 1
    decay_mult: 1
  }
  param {
    lr_mult: 2
    decay_mult: 0
  }
  convolution_param {
    num_output: 96
    kernel_size: 1
    weight_filler {
      type: "xavier"
      std: 0.09
    }
    bias_filler {
      type: "constant"
      value: 0.2
    }
  }
}
layer {
  name: "inception_3a/relu_3x3_reduce"
  type: "ReLU"
  bottom: "inception_3a/3x3_reduce"
  top: "inception_3a/3x3_reduce"
}
layer {
  name: "inception_3a/3x3"
  type: "Convolution"
  bottom: "inception_3a/3x3_reduce"
  top: "inception_3a/3x3"
  param {
    lr_mult: 1
    decay_mult: 1
  }
  param {
    lr_mult: 2
    decay_mult: 0
  }
  convolution_param {
    num_output: 128
    pad: 1
    kernel_size: 3
    weight_filler {
      type: "xavier"
      std: 0.03
    }
    bias_filler {
      type: "constant"
      value: 0.2
    }
  }
}
layer {
  name: "inception_3a/relu_3x3"
  type: "ReLU"
  bottom: "inception_3a/3x3"
  top: "inception_3a/3x3"
}
layer {
  name: "inception_3a/5x5_reduce"
  type: "Convolution"
  bottom: "pool2/3x3_s2"
  top: "inception_3a/5x5_reduce"
  param {
    lr_mult: 1
    decay_mult: 1
  }
  param {
    lr_mult: 2
    decay_mult: 0
  }
  convolution_param {
    num_output: 16
    kernel_size: 1
    weight_filler {
      type: "xavier"
      std: 0.2
    }
    bias_filler {
      type: "constant"
      value: 0.2
    }
  }
}
layer {
  name: "inception_3a/relu_5x5_reduce"
  type: "ReLU"
  bottom: "inception_3a/5x5_reduce"
  top: "inception_3a/5x5_reduce"
}
layer {
  name: "inception_3a/5x5"
  type: "Convolution"
  bottom: "inception_3a/5x5_reduce"
  top: "inception_3a/5x5"
  param {
    lr_mult: 1
    decay_mult: 1
  }
  param {
    lr_mult: 2
    decay_mult: 0
  }
  convolution_param {
    num_output: 32
    pad: 2
    kernel_size: 5
    weight_filler {
      type: "xavier"
      std: 0.03
    }
    bias_filler {
      type: "constant"
      value: 0.2
    }
  }
}
layer {
  name: "inception_3a/relu_5x5"
  type: "ReLU"
  bottom: "inception_3a/5x5"
  top: "inception_3a/5x5"
}
layer {
  name: "inception_3a/pool"
  type: "Pooling"
  bottom: "pool2/3x3_s2"
  top: "inception_3a/pool"
  pooling_param {
    pool: MAX
    kernel_size: 3
    stride: 1
    pad: 1
  }
}
layer {
  name: "inception_3a/pool_proj"
  type: "Convolution"
  bottom: "inception_3a/pool"
  top: "inception_3a/pool_proj"
  param {
    lr_mult: 1
    decay_mult: 1
  }
  param {
    lr_mult: 2
    decay_mult: 0
  }
  convolution_param {
    num_output: 32
    kernel_size: 1
    weight_filler {
      type: "xavier"
      std: 0.1
    }
    bias_filler {
      type: "constant"
      value: 0.2
    }
  }
}
layer {
  name: "inception_3a/relu_pool_proj"
  type: "ReLU"
  bottom: "inception_3a/pool_proj"
  top: "inception_3a/pool_proj"
}
layer {
  name: "inception_3a/output"
  type: "Concat"
  bottom: "inception_3a/1x1"
  bottom: "inception_3a/3x3"
  bottom: "inception_3a/5x5"
  bottom: "inception_3a/pool_proj"
  top: "inception_3a/output"
}
layer {
  name: "inception_3b/1x1"
  type: "Convolution"
  bottom: "inception_3a/output"
  top: "inception_3b/1x1"
  param {
    lr_mult: 1
    decay_mult: 1
  }
  param {
    lr_mult: 2
    decay_mult: 0
  }
  convolution_param {
    num_output: 128
    kernel_size: 1
    weight_filler {
      type: "xavier"
      std: 0.03
    }
    bias_filler {
      type: "constant"
      value: 0.2
    }
  }
}
layer {
  name: "inception_3b/relu_1x1"
  type: "ReLU"
  bottom: "inception_3b/1x1"
  top: "inception_3b/1x1"
}
layer {
  name: "inception_3b/3x3_reduce"
  type: "Convolution"
  bottom: "inception_3a/output"
  top: "inception_3b/3x3_reduce"
  param {
    lr_mult: 1
    decay_mult: 1
  }
  param {
    lr_mult: 2
    decay_mult: 0
  }
  convolution_param {
    num_output: 128
    kernel_size: 1
    weight_filler {
      type: "xavier"
      std: 0.09
    }
    bias_filler {
      type: "constant"
      value: 0.2
    }
  }
}
layer {
  name: "inception_3b/relu_3x3_reduce"
  type: "ReLU"
  bottom: "inception_3b/3x3_reduce"
  top: "inception_3b/3x3_reduce"
}
layer {
  name: "inception_3b/3x3"
  type: "Convolution"
  bottom: "inception_3b/3x3_reduce"
  top: "inception_3b/3x3"
  param {
    lr_mult: 1
    decay_mult: 1
  }
  param {
    lr_mult: 2
    decay_mult: 0
  }
  convolution_param {
    num_output: 192
    pad: 1
    kernel_size: 3
    weight_filler {
      type: "xavier"
      std: 0.03
    }
    bias_filler {
      type: "constant"
      value: 0.2
    }
  }
}
layer {
  name: "inception_3b/relu_3x3"
  type: "ReLU"
  bottom: "inception_3b/3x3"
  top: "inception_3b/3x3"
}
layer {
  name: "inception_3b/5x5_reduce"
  type: "Convolution"
  bottom: "inception_3a/output"
  top: "inception_3b/5x5_reduce"
  param {
    lr_mult: 1
    decay_mult: 1
  }
  param {
    lr_mult: 2
    decay_mult: 0
  }
  convolution_param {
    num_output: 32
    kernel_size: 1
    weight_filler {
      type: "xavier"
      std: 0.2
    }
    bias_filler {
      type: "constant"
      value: 0.2
    }
  }
}
layer {
  name: "inception_3b/relu_5x5_reduce"
  type: "ReLU"
  bottom: "inception_3b/5x5_reduce"
  top: "inception_3b/5x5_reduce"
}
layer {
  name: "inception_3b/5x5"
  type: "Convolution"
  bottom: "inception_3b/5x5_reduce"
  top: "inception_3b/5x5"
  param {
    lr_mult: 1
    decay_mult: 1
  }
  param {
    lr_mult: 2
    decay_mult: 0
  }
  convolution_param {
    num_output: 96
    pad: 2
    kernel_size: 5
    weight_filler {
      type: "xavier"
      std: 0.03
    }
    bias_filler {
      type: "constant"
      value: 0.2
    }
  }
}
layer {
  name: "inception_3b/relu_5x5"
  type: "ReLU"
  bottom: "inception_3b/5x5"
  top: "inception_3b/5x5"
}
layer {
  name: "inception_3b/pool"
  type: "Pooling"
  bottom: "inception_3a/output"
  top: "inception_3b/pool"
  pooling_param {
    pool: MAX
    kernel_size: 3
    stride: 1
    pad: 1
  }
}
layer {
  name: "inception_3b/pool_proj"
  type: "Convolution"
  bottom: "inception_3b/pool"
  top: "inception_3b/pool_proj"
  param {
    lr_mult: 1
    decay_mult: 1
  }
  param {
    lr_mult: 2
    decay_mult: 0
  }
  convolution_param {
    num_output: 64
    kernel_size: 1
    weight_filler {
      type: "xavier"
      std: 0.1
    }
    bias_filler {
      type: "constant"
      value: 0.2
    }
  }
}
layer {
  name: "inception_3b/relu_pool_proj"
  type: "ReLU"
  bottom: "inception_3b/pool_proj"
  top: "inception_3b/pool_proj"
}
layer {
  name: "inception_3b/output"
  type: "Concat"
  bottom: "inception_3b/1x1"
  bottom: "inception_3b/3x3"
  bottom: "inception_3b/5x5"
  bottom: "inception_3b/pool_proj"
  top: "inception_3b/output"
}
layer {
  name: "pool3/3x3_s2"
  type: "Pooling"
  bottom: "inception_3b/output"
  top: "pool3/3x3_s2"
  pooling_param {
    pool: MAX
    kernel_size: 3
    stride: 2
  }
}
layer {
  name: "inception_4a/1x1"
  type: "Convolution"
  bottom: "pool3/3x3_s2"
  top: "inception_4a/1x1"
  param {
    lr_mult: 1
    decay_mult: 1
  }
  param {
    lr_mult: 2
    decay_mult: 0
  }
  convolution_param {
    num_output: 192
    kernel_size: 1
    weight_filler {
      type: "xavier"
      std: 0.03
    }
    bias_filler {
      type: "constant"
      value: 0.2
    }
  }
}
layer {
  name: "inception_4a/relu_1x1"
  type: "ReLU"
  bottom: "inception_4a/1x1"
  top: "inception_4a/1x1"
}
layer {
  name: "inception_4a/3x3_reduce"
  type: "Convolution"
  bottom: "pool3/3x3_s2"
  top: "inception_4a/3x3_reduce"
  param {
    lr_mult: 1
    decay_mult: 1
  }
  param {
    lr_mult: 2
    decay_mult: 0
  }
  convolution_param {
    num_output: 96
    kernel_size: 1
    weight_filler {
      type: "xavier"
      std: 0.09
    }
    bias_filler {
      type: "constant"
      value: 0.2
    }
  }
}
layer {
  name: "inception_4a/relu_3x3_reduce"
  type: "ReLU"
  bottom: "inception_4a/3x3_reduce"
  top: "inception_4a/3x3_reduce"
}
layer {
  name: "inception_4a/3x3"
  type: "Convolution"
  bottom: "inception_4a/3x3_reduce"
  top: "inception_4a/3x3"
  param {
    lr_mult: 1
    decay_mult: 1
  }
  param {
    lr_mult: 2
    decay_mult: 0
  }
  convolution_param {
    num_output: 208
    pad: 1
    kernel_size: 3
    weight_filler {
      type: "xavier"
      std: 0.03
    }
    bias_filler {
      type: "constant"
      value: 0.2
    }
  }
}
layer {
  name: "inception_4a/relu_3x3"
  type: "ReLU"
  bottom: "inception_4a/3x3"
  top: "inception_4a/3x3"
}
layer {
  name: "inception_4a/5x5_reduce"
  type: "Convolution"
  bottom: "pool3/3x3_s2"
  top: "inception_4a/5x5_reduce"
  param {
    lr_mult: 1
    decay_mult: 1
  }
  param {
    lr_mult: 2
    decay_mult: 0
  }
  convolution_param {
    num_output: 16
    kernel_size: 1
    weight_filler {
      type: "xavier"
      std: 0.2
    }
    bias_filler {
      type: "constant"
      value: 0.2
    }
  }
}
layer {
  name: "inception_4a/relu_5x5_reduce"
  type: "ReLU"
  bottom: "inception_4a/5x5_reduce"
  top: "inception_4a/5x5_reduce"
}
layer {
  name: "inception_4a/5x5"
  type: "Convolution"
  bottom: "inception_4a/5x5_reduce"
  top: "inception_4a/5x5"
  param {
    lr_mult: 1
    decay_mult: 1
  }
  param {
    lr_mult: 2
    decay_mult: 0
  }
  convolution_param {
    num_output: 48
    pad: 2
    kernel_size: 5
    weight_filler {
      type: "xavier"
      std: 0.03
    }
    bias_filler {
      type: "constant"
      value: 0.2
    }
  }
}
layer {
  name: "inception_4a/relu_5x5"
  type: "ReLU"
  bottom: "inception_4a/5x5"
  top: "inception_4a/5x5"
}
layer {
  name: "inception_4a/pool"
  type: "Pooling"
  bottom: "pool3/3x3_s2"
  top: "inception_4a/pool"
  pooling_param {
    pool: MAX
    kernel_size: 3
    stride: 1
    pad: 1
  }
}
layer {
  name: "inception_4a/pool_proj"
  type: "Convolution"
  bottom: "inception_4a/pool"
  top: "inception_4a/pool_proj"
  param {
    lr_mult: 1
    decay_mult: 1
  }
  param {
    lr_mult: 2
    decay_mult: 0
  }
  convolution_param {
    num_output: 64
    kernel_size: 1
    weight_filler {
      type: "xavier"
      std: 0.1
    }
    bias_filler {
      type: "constant"
      value: 0.2
    }
  }
}
layer {
  name: "inception_4a/relu_pool_proj"
  type: "ReLU"
  bottom: "inception_4a/pool_proj"
  top: "inception_4a/pool_proj"
}
layer {
  name: "inception_4a/output"
  type: "Concat"
  bottom: "inception_4a/1x1"
  bottom: "inception_4a/3x3"
  bottom: "inception_4a/5x5"
  bottom: "inception_4a/pool_proj"
  top: "inception_4a/output"
}
layer {
  name: "loss1/ave_pool"
  type: "Pooling"
  bottom: "inception_4a/output"
  top: "loss1/ave_pool"
  pooling_param {
    pool: AVE
    kernel_size: 5
    stride: 3
  }
}
layer {
  name: "loss1/conv"
  type: "Convolution"
  bottom: "loss1/ave_pool"
  top: "loss1/conv"
  param {
    lr_mult: 1
    decay_mult: 1
  }
  param {
    lr_mult: 2
    decay_mult: 0
  }
  convolution_param {
    num_output: 128
    kernel_size: 1
    weight_filler {
      type: "xavier"
      std: 0.08
    }
    bias_filler {
      type: "constant"
      value: 0.2
    }
  }
}
layer {
  name: "loss1/relu_conv"
  type: "ReLU"
  bottom: "loss1/conv"
  top: "loss1/conv"
}
layer {
  name: "loss1/fc"
  type: "InnerProduct"
  bottom: "loss1/conv"
  top: "loss1/fc"
  param {
    lr_mult: 1
    decay_mult: 1
  }
  param {
    lr_mult: 2
    decay_mult: 0
  }
  inner_product_param {
    num_output: 1024
    weight_filler {
      type: "xavier"
      std: 0.02
    }
    bias_filler {
      type: "constant"
      value: 0.2
    }
  }
}
layer {
  name: "loss1/relu_fc"
  type: "ReLU"
  bottom: "loss1/fc"
  top: "loss1/fc"
}
layer {
  name: "loss1/drop_fc"
  type: "Dropout"
  bottom: "loss1/fc"
  top: "loss1/fc"
  dropout_param {
    dropout_ratio: 0.7
  }
}
layer {
  name: "loss1/classifier_plantvillage"
  type: "InnerProduct"
  bottom: "loss1/fc"
  top: "loss1/classifier_plantvillage"
  param {
    lr_mult: 1
    decay_mult: 1
  }
  param {
    lr_mult: 2
    decay_mult: 0
  }
  inner_product_param {
    num_output: 38
    weight_filler {
      type: "xavier"
      std: 0.0009765625
    }
    bias_filler {
      type: "constant"
      value: 0
    }
  }
}
layer {
  name: "inception_4b/1x1"
  type: "Convolution"
  bottom: "inception_4a/output"
  top: "inception_4b/1x1"
  param {
    lr_mult: 1
    decay_mult: 1
  }
  param {
    lr_mult: 2
    decay_mult: 0
  }
  convolution_param {
    num_output: 160
    kernel_size: 1
    weight_filler {
      type: "xavier"
      std: 0.03
    }
    bias_filler {
      type: "constant"
      value: 0.2
    }
  }
}
layer {
  name: "inception_4b/relu_1x1"
  type: "ReLU"
  bottom: "inception_4b/1x1"
  top: "inception_4b/1x1"
}
layer {
  name: "inception_4b/3x3_reduce"
  type: "Convolution"
  bottom: "inception_4a/output"
  top: "inception_4b/3x3_reduce"
  param {
    lr_mult: 1
    decay_mult: 1
  }
  param {
    lr_mult: 2
    decay_mult: 0
  }
  convolution_param {
    num_output: 112
    kernel_size: 1
    weight_filler {
      type: "xavier"
      std: 0.09
    }
    bias_filler {
      type: "constant"
      value: 0.2
    }
  }
}
layer {
  name: "inception_4b/relu_3x3_reduce"
  type: "ReLU"
  bottom: "inception_4b/3x3_reduce"
  top: "inception_4b/3x3_reduce"
}
layer {
  name: "inception_4b/3x3"
  type: "Convolution"
  bottom: "inception_4b/3x3_reduce"
  top: "inception_4b/3x3"
  param {
    lr_mult: 1
    decay_mult: 1
  }
  param {
    lr_mult: 2
    decay_mult: 0
  }
  convolution_param {
    num_output: 224
    pad: 1
    kernel_size: 3
    weight_filler {
      type: "xavier"
      std: 0.03
    }
    bias_filler {
      type: "constant"
      value: 0.2
    }
  }
}
layer {
  name: "inception_4b/relu_3x3"
  type: "ReLU"
  bottom: "inception_4b/3x3"
  top: "inception_4b/3x3"
}
layer {
  name: "inception_4b/5x5_reduce"
  type: "Convolution"
  bottom: "inception_4a/output"
  top: "inception_4b/5x5_reduce"
  param {
    lr_mult: 1
    decay_mult: 1
  }
  param {
    lr_mult: 2
    decay_mult: 0
  }
  convolution_param {
    num_output: 24
    kernel_size: 1
    weight_filler {
      type: "xavier"
      std: 0.2
    }
    bias_filler {
      type: "constant"
      value: 0.2
    }
  }
}
layer {
  name: "inception_4b/relu_5x5_reduce"
  type: "ReLU"
  bottom: "inception_4b/5x5_reduce"
  top: "inception_4b/5x5_reduce"
}
layer {
  name: "inception_4b/5x5"
  type: "Convolution"
  bottom: "inception_4b/5x5_reduce"
  top: "inception_4b/5x5"
  param {
    lr_mult: 1
    decay_mult: 1
  }
  param {
    lr_mult: 2
    decay_mult: 0
  }
  convolution_param {
    num_output: 64
    pad: 2
    kernel_size: 5
    weight_filler {
      type: "xavier"
      std: 0.03
    }
    bias_filler {
      type: "constant"
      value: 0.2
    }
  }
}
layer {
  name: "inception_4b/relu_5x5"
  type: "ReLU"
  bottom: "inception_4b/5x5"
  top: "inception_4b/5x5"
}
layer {
  name: "inception_4b/pool"
  type: "Pooling"
  bottom: "inception_4a/output"
  top: "inception_4b/pool"
  pooling_param {
    pool: MAX
    kernel_size: 3
    stride: 1
    pad: 1
  }
}
layer {
  name: "inception_4b/pool_proj"
  type: "Convolution"
  bottom: "inception_4b/pool"
  top: "inception_4b/pool_proj"
  param {
    lr_mult: 1
    decay_mult: 1
  }
  param {
    lr_mult: 2
    decay_mult: 0
  }
  convolution_param {
    num_output: 64
    kernel_size: 1
    weight_filler {
      type: "xavier"
      std: 0.1
    }
    bias_filler {
      type: "constant"
      value: 0.2
    }
  }
}
layer {
  name: "inception_4b/relu_pool_proj"
  type: "ReLU"
  bottom: "inception_4b/pool_proj"
  top: "inception_4b/pool_proj"
}
layer {
  name: "inception_4b/output"
  type: "Concat"
  bottom: "inception_4b/1x1"
  bottom: "inception_4b/3x3"
  bottom: "inception_4b/5x5"
  bottom: "inception_4b/pool_proj"
  top: "inception_4b/output"
}
layer {
  name: "inception_4c/1x1"
  type: "Convolution"
  bottom: "inception_4b/output"
  top: "inception_4c/1x1"
  param {
    lr_mult: 1
    decay_mult: 1
  }
  param {
    lr_mult: 2
    decay_mult: 0
  }
  convolution_param {
    num_output: 128
    kernel_size: 1
    weight_filler {
      type: "xavier"
      std: 0.03
    }
    bias_filler {
      type: "constant"
      value: 0.2
    }
  }
}
layer {
  name: "inception_4c/relu_1x1"
  type: "ReLU"
  bottom: "inception_4c/1x1"
  top: "inception_4c/1x1"
}
layer {
  name: "inception_4c/3x3_reduce"
  type: "Convolution"
  bottom: "inception_4b/output"
  top: "inception_4c/3x3_reduce"
  param {
    lr_mult: 1
    decay_mult: 1
  }
  param {
    lr_mult: 2
    decay_mult: 0
  }
  convolution_param {
    num_output: 128
    kernel_size: 1
    weight_filler {
      type: "xavier"
      std: 0.09
    }
    bias_filler {
      type: "constant"
      value: 0.2
    }
  }
}
layer {
  name: "inception_4c/relu_3x3_reduce"
  type: "ReLU"
  bottom: "inception_4c/3x3_reduce"
  top: "inception_4c/3x3_reduce"
}
layer {
  name: "inception_4c/3x3"
  type: "Convolution"
  bottom: "inception_4c/3x3_reduce"
  top: "inception_4c/3x3"
  param {
    lr_mult: 1
    decay_mult: 1
  }
  param {
    lr_mult: 2
    decay_mult: 0
  }
  convolution_param {
    num_output: 256
    pad: 1
    kernel_size: 3
    weight_filler {
      type: "xavier"
      std: 0.03
    }
    bias_filler {
      type: "constant"
      value: 0.2
    }
  }
}
layer {
  name: "inception_4c/relu_3x3"
  type: "ReLU"
  bottom: "inception_4c/3x3"
  top: "inception_4c/3x3"
}
layer {
  name: "inception_4c/5x5_reduce"
  type: "Convolution"
  bottom: "inception_4b/output"
  top: "inception_4c/5x5_reduce"
  param {
    lr_mult: 1
    decay_mult: 1
  }
  param {
    lr_mult: 2
    decay_mult: 0
  }
  convolution_param {
    num_output: 24
    kernel_size: 1
    weight_filler {
      type: "xavier"
      std: 0.2
    }
    bias_filler {
      type: "constant"
      value: 0.2
    }
  }
}
layer {
  name: "inception_4c/relu_5x5_reduce"
  type: "ReLU"
  bottom: "inception_4c/5x5_reduce"
  top: "inception_4c/5x5_reduce"
}
layer {
  name: "inception_4c/5x5"
  type: "Convolution"
  bottom: "inception_4c/5x5_reduce"
  top: "inception_4c/5x5"
  param {
    lr_mult: 1
    decay_mult: 1
  }
  param {
    lr_mult: 2
    decay_mult: 0
  }
  convolution_param {
    num_output: 64
    pad: 2
    kernel_size: 5
    weight_filler {
      type: "xavier"
      std: 0.03
    }
    bias_filler {
      type: "constant"
      value: 0.2
    }
  }
}
layer {
  name: "inception_4c/relu_5x5"
  type: "ReLU"
  bottom: "inception_4c/5x5"
  top: "inception_4c/5x5"
}
layer {
  name: "inception_4c/pool"
  type: "Pooling"
  bottom: "inception_4b/output"
  top: "inception_4c/pool"
  pooling_param {
    pool: MAX
    kernel_size: 3
    stride: 1
    pad: 1
  }
}
layer {
  name: "inception_4c/pool_proj"
  type: "Convolution"
  bottom: "inception_4c/pool"
  top: "inception_4c/pool_proj"
  param {
    lr_mult: 1
    decay_mult: 1
  }
  param {
    lr_mult: 2
    decay_mult: 0
  }
  convolution_param {
    num_output: 64
    kernel_size: 1
    weight_filler {
      type: "xavier"
      std: 0.1
    }
    bias_filler {
      type: "constant"
      value: 0.2
    }
  }
}
layer {
  name: "inception_4c/relu_pool_proj"
  type: "ReLU"
  bottom: "inception_4c/pool_proj"
  top: "inception_4c/pool_proj"
}
layer {
  name: "inception_4c/output"
  type: "Concat"
  bottom: "inception_4c/1x1"
  bottom: "inception_4c/3x3"
  bottom: "inception_4c/5x5"
  bottom: "inception_4c/pool_proj"
  top: "inception_4c/output"
}
layer {
  name: "inception_4d/1x1"
  type: "Convolution"
  bottom: "inception_4c/output"
  top: "inception_4d/1x1"
  param {
    lr_mult: 1
    decay_mult: 1
  }
  param {
    lr_mult: 2
    decay_mult: 0
  }
  convolution_param {
    num_output: 112
    kernel_size: 1
    weight_filler {
      type: "xavier"
      std: 0.03
    }
    bias_filler {
      type: "constant"
      value: 0.2
    }
  }
}
layer {
  name: "inception_4d/relu_1x1"
  type: "ReLU"
  bottom: "inception_4d/1x1"
  top: "inception_4d/1x1"
}
layer {
  name: "inception_4d/3x3_reduce"
  type: "Convolution"
  bottom: "inception_4c/output"
  top: "inception_4d/3x3_reduce"
  param {
    lr_mult: 1
    decay_mult: 1
  }
  param {
    lr_mult: 2
    decay_mult: 0
  }
  convolution_param {
    num_output: 144
    kernel_size: 1
    weight_filler {
      type: "xavier"
      std: 0.09
    }
    bias_filler {
      type: "constant"
      value: 0.2
    }
  }
}
layer {
  name: "inception_4d/relu_3x3_reduce"
  type: "ReLU"
  bottom: "inception_4d/3x3_reduce"
  top: "inception_4d/3x3_reduce"
}
layer {
  name: "inception_4d/3x3"
  type: "Convolution"
  bottom: "inception_4d/3x3_reduce"
  top: "inception_4d/3x3"
  param {
    lr_mult: 1
    decay_mult: 1
  }
  param {
    lr_mult: 2
    decay_mult: 0
  }
  convolution_param {
    num_output: 288
    pad: 1
    kernel_size: 3
    weight_filler {
      type: "xavier"
      std: 0.03
    }
    bias_filler {
      type: "constant"
      value: 0.2
    }
  }
}
layer {
  name: "inception_4d/relu_3x3"
  type: "ReLU"
  bottom: "inception_4d/3x3"
  top: "inception_4d/3x3"
}
layer {
  name: "inception_4d/5x5_reduce"
  type: "Convolution"
  bottom: "inception_4c/output"
  top: "inception_4d/5x5_reduce"
  param {
    lr_mult: 1
    decay_mult: 1
  }
  param {
    lr_mult: 2
    decay_mult: 0
  }
  convolution_param {
    num_output: 32
    kernel_size: 1
    weight_filler {
      type: "xavier"
      std: 0.2
    }
    bias_filler {
      type: "constant"
      value: 0.2
    }
  }
}
layer {
  name: "inception_4d/relu_5x5_reduce"
  type: "ReLU"
  bottom: "inception_4d/5x5_reduce"
  top: "inception_4d/5x5_reduce"
}
layer {
  name: "inception_4d/5x5"
  type: "Convolution"
  bottom: "inception_4d/5x5_reduce"
  top: "inception_4d/5x5"
  param {
    lr_mult: 1
    decay_mult: 1
  }
  param {
    lr_mult: 2
    decay_mult: 0
  }
  convolution_param {
    num_output: 64
    pad: 2
    kernel_size: 5
    weight_filler {
      type: "xavier"
      std: 0.03
    }
    bias_filler {
      type: "constant"
      value: 0.2
    }
  }
}
layer {
  name: "inception_4d/relu_5x5"
  type: "ReLU"
  bottom: "inception_4d/5x5"
  top: "inception_4d/5x5"
}
layer {
  name: "inception_4d/pool"
  type: "Pooling"
  bottom: "inception_4c/output"
  top: "inception_4d/pool"
  pooling_param {
    pool: MAX
    kernel_size: 3
    stride: 1
    pad: 1
  }
}
layer {
  name: "inception_4d/pool_proj"
  type: "Convolution"
  bottom: "inception_4d/pool"
  top: "inception_4d/pool_proj"
  param {
    lr_mult: 1
    decay_mult: 1
  }
  param {
    lr_mult: 2
    decay_mult: 0
  }
  convolution_param {
    num_output: 64
    kernel_size: 1
    weight_filler {
      type: "xavier"
      std: 0.1
    }
    bias_filler {
      type: "constant"
      value: 0.2
    }
  }
}
layer {
  name: "inception_4d/relu_pool_proj"
  type: "ReLU"
  bottom: "inception_4d/pool_proj"
  top: "inception_4d/pool_proj"
}
layer {
  name: "inception_4d/output"
  type: "Concat"
  bottom: "inception_4d/1x1"
  bottom: "inception_4d/3x3"
  bottom: "inception_4d/5x5"
  bottom: "inception_4d/pool_proj"
  top: "inception_4d/output"
}
layer {
  name: "loss2/ave_pool"
  type: "Pooling"
  bottom: "inception_4d/output"
  top: "loss2/ave_pool"
  pooling_param {
    pool: AVE
    kernel_size: 5
    stride: 3
  }
}
layer {
  name: "loss2/conv"
  type: "Convolution"
  bottom: "loss2/ave_pool"
  top: "loss2/conv"
  param {
    lr_mult: 1
    decay_mult: 1
  }
  param {
    lr_mult: 2
    decay_mult: 0
  }
  convolution_param {
    num_output: 128
    kernel_size: 1
    weight_filler {
      type: "xavier"
      std: 0.08
    }
    bias_filler {
      type: "constant"
      value: 0.2
    }
  }
}
layer {
  name: "loss2/relu_conv"
  type: "ReLU"
  bottom: "loss2/conv"
  top: "loss2/conv"
}
layer {
  name: "loss2/fc"
  type: "InnerProduct"
  bottom: "loss2/conv"
  top: "loss2/fc"
  param {
    lr_mult: 1
    decay_mult: 1
  }
  param {
    lr_mult: 2
    decay_mult: 0
  }
  inner_product_param {
    num_output: 1024
    weight_filler {
      type: "xavier"
      std: 0.02
    }
    bias_filler {
      type: "constant"
      value: 0.2
    }
  }
}
layer {
  name: "loss2/relu_fc"
  type: "ReLU"
  bottom: "loss2/fc"
  top: "loss2/fc"
}
layer {
  name: "loss2/drop_fc"
  type: "Dropout"
  bottom: "loss2/fc"
  top: "loss2/fc"
  dropout_param {
    dropout_ratio: 0.7
  }
}
layer {
  name: "loss2/classifier_plantvillage"
  type: "InnerProduct"
  bottom: "loss2/fc"
  top: "loss2/classifier_plantvillage"
  param {
    lr_mult: 1
    decay_mult: 1
  }
  param {
    lr_mult: 2
    decay_mult: 0
  }
  inner_product_param {
    num_output: 38
    weight_filler {
      type: "xavier"
      std: 0.0009765625
    }
    bias_filler {
      type: "constant"
      value: 0
    }
  }
}
layer {
  name: "inception_4e/1x1"
  type: "Convolution"
  bottom: "inception_4d/output"
  top: "inception_4e/1x1"
  param {
    lr_mult: 1
    decay_mult: 1
  }
  param {
    lr_mult: 2
    decay_mult: 0
  }
  convolution_param {
    num_output: 256
    kernel_size: 1
    weight_filler {
      type: "xavier"
      std: 0.03
    }
    bias_filler {
      type: "constant"
      value: 0.2
    }
  }
}
layer {
  name: "inception_4e/relu_1x1"
  type: "ReLU"
  bottom: "inception_4e/1x1"
  top: "inception_4e/1x1"
}
layer {
  name: "inception_4e/3x3_reduce"
  type: "Convolution"
  bottom: "inception_4d/output"
  top: "inception_4e/3x3_reduce"
  param {
    lr_mult: 1
    decay_mult: 1
  }
  param {
    lr_mult: 2
    decay_mult: 0
  }
  convolution_param {
    num_output: 160
    kernel_size: 1
    weight_filler {
      type: "xavier"
      std: 0.09
    }
    bias_filler {
      type: "constant"
      value: 0.2
    }
  }
}
layer {
  name: "inception_4e/relu_3x3_reduce"
  type: "ReLU"
  bottom: "inception_4e/3x3_reduce"
  top: "inception_4e/3x3_reduce"
}
layer {
  name: "inception_4e/3x3"
  type: "Convolution"
  bottom: "inception_4e/3x3_reduce"
  top: "inception_4e/3x3"
  param {
    lr_mult: 1
    decay_mult: 1
  }
  param {
    lr_mult: 2
    decay_mult: 0
  }
  convolution_param {
    num_output: 320
    pad: 1
    kernel_size: 3
    weight_filler {
      type: "xavier"
      std: 0.03
    }
    bias_filler {
      type: "constant"
      value: 0.2
    }
  }
}
layer {
  name: "inception_4e/relu_3x3"
  type: "ReLU"
  bottom: "inception_4e/3x3"
  top: "inception_4e/3x3"
}
layer {
  name: "inception_4e/5x5_reduce"
  type: "Convolution"
  bottom: "inception_4d/output"
  top: "inception_4e/5x5_reduce"
  param {
    lr_mult: 1
    decay_mult: 1
  }
  param {
    lr_mult: 2
    decay_mult: 0
  }
  convolution_param {
    num_output: 32
    kernel_size: 1
    weight_filler {
      type: "xavier"
      std: 0.2
    }
    bias_filler {
      type: "constant"
      value: 0.2
    }
  }
}
layer {
  name: "inception_4e/relu_5x5_reduce"
  type: "ReLU"
  bottom: "inception_4e/5x5_reduce"
  top: "inception_4e/5x5_reduce"
}
layer {
  name: "inception_4e/5x5"
  type: "Convolution"
  bottom: "inception_4e/5x5_reduce"
  top: "inception_4e/
I0403 16:46:41.186527 19233 layer_factory.hpp:77] Creating layer data
I0403 16:46:41.187109 19233 net.cpp:91] Creating Layer data
I0403 16:46:41.187139 19233 net.cpp:399] data -> data
I0403 16:46:41.187188 19233 net.cpp:399] data -> label
I0403 16:46:41.187224 19233 data_transformer.cpp:25] Loading mean file from: /home/mohanty/data/final_dataset/lmdb/segmented-20-80/mean.binaryproto
I0403 16:46:41.188432 19236 db_lmdb.cpp:38] Opened lmdb /home/mohanty/data/final_dataset/lmdb/segmented-20-80/test_db
I0403 16:46:41.200088 19233 data_layer.cpp:41] output data size: 24,3,224,224
I0403 16:46:41.227249 19233 net.cpp:141] Setting up data
I0403 16:46:41.227329 19233 net.cpp:148] Top shape: 24 3 224 224 (3612672)
I0403 16:46:41.227349 19233 net.cpp:148] Top shape: 24 (24)
I0403 16:46:41.227365 19233 net.cpp:156] Memory required for data: 14450784
I0403 16:46:41.227391 19233 layer_factory.hpp:77] Creating layer label_data_1_split
I0403 16:46:41.227416 19233 net.cpp:91] Creating Layer label_data_1_split
I0403 16:46:41.227434 19233 net.cpp:425] label_data_1_split <- label
I0403 16:46:41.227466 19233 net.cpp:399] label_data_1_split -> label_data_1_split_0
I0403 16:46:41.227494 19233 net.cpp:399] label_data_1_split -> label_data_1_split_1
I0403 16:46:41.227514 19233 net.cpp:399] label_data_1_split -> label_data_1_split_2
I0403 16:46:41.227533 19233 net.cpp:399] label_data_1_split -> label_data_1_split_3
I0403 16:46:41.227552 19233 net.cpp:399] label_data_1_split -> label_data_1_split_4
I0403 16:46:41.227572 19233 net.cpp:399] label_data_1_split -> label_data_1_split_5
I0403 16:46:41.227591 19233 net.cpp:399] label_data_1_split -> label_data_1_split_6
I0403 16:46:41.227629 19233 net.cpp:399] label_data_1_split -> label_data_1_split_7
I0403 16:46:41.227649 19233 net.cpp:399] label_data_1_split -> label_data_1_split_8
I0403 16:46:41.227669 19233 net.cpp:399] label_data_1_split -> label_data_1_split_9
I0403 16:46:41.227787 19233 net.cpp:141] Setting up label_data_1_split
I0403 16:46:41.227810 19233 net.cpp:148] Top shape: 24 (24)
I0403 16:46:41.227828 19233 net.cpp:148] Top shape: 24 (24)
I0403 16:46:41.227843 19233 net.cpp:148] Top shape: 24 (24)
I0403 16:46:41.227859 19233 net.cpp:148] Top shape: 24 (24)
I0403 16:46:41.227874 19233 net.cpp:148] Top shape: 24 (24)
I0403 16:46:41.227888 19233 net.cpp:148] Top shape: 24 (24)
I0403 16:46:41.227916 19233 net.cpp:148] Top shape: 24 (24)
I0403 16:46:41.227931 19233 net.cpp:148] Top shape: 24 (24)
I0403 16:46:41.227944 19233 net.cpp:148] Top shape: 24 (24)
I0403 16:46:41.227959 19233 net.cpp:148] Top shape: 24 (24)
I0403 16:46:41.228005 19233 net.cpp:156] Memory required for data: 14451744
I0403 16:46:41.228020 19233 layer_factory.hpp:77] Creating layer conv1/7x7_s2
I0403 16:46:41.228051 19233 net.cpp:91] Creating Layer conv1/7x7_s2
I0403 16:46:41.228070 19233 net.cpp:425] conv1/7x7_s2 <- data
I0403 16:46:41.228087 19233 net.cpp:399] conv1/7x7_s2 -> conv1/7x7_s2
I0403 16:46:41.364900 19233 net.cpp:141] Setting up conv1/7x7_s2
I0403 16:46:41.364995 19233 net.cpp:148] Top shape: 24 64 112 112 (19267584)
I0403 16:46:41.365012 19233 net.cpp:156] Memory required for data: 91522080
I0403 16:46:41.365044 19233 layer_factory.hpp:77] Creating layer conv1/relu_7x7
I0403 16:46:41.365072 19233 net.cpp:91] Creating Layer conv1/relu_7x7
I0403 16:46:41.365088 19233 net.cpp:425] conv1/relu_7x7 <- conv1/7x7_s2
I0403 16:46:41.365108 19233 net.cpp:386] conv1/relu_7x7 -> conv1/7x7_s2 (in-place)
I0403 16:46:41.365371 19233 net.cpp:141] Setting up conv1/relu_7x7
I0403 16:46:41.365397 19233 net.cpp:148] Top shape: 24 64 112 112 (19267584)
I0403 16:46:41.365411 19233 net.cpp:156] Memory required for data: 168592416
I0403 16:46:41.365427 19233 layer_factory.hpp:77] Creating layer pool1/3x3_s2
I0403 16:46:41.365453 19233 net.cpp:91] Creating Layer pool1/3x3_s2
I0403 16:46:41.365469 19233 net.cpp:425] pool1/3x3_s2 <- conv1/7x7_s2
I0403 16:46:41.365488 19233 net.cpp:399] pool1/3x3_s2 -> pool1/3x3_s2
I0403 16:46:41.365562 19233 net.cpp:141] Setting up pool1/3x3_s2
I0403 16:46:41.365586 19233 net.cpp:148] Top shape: 24 64 56 56 (4816896)
I0403 16:46:41.365603 19233 net.cpp:156] Memory required for data: 187860000
I0403 16:46:41.365619 19233 layer_factory.hpp:77] Creating layer pool1/norm1
I0403 16:46:41.365645 19233 net.cpp:91] Creating Layer pool1/norm1
I0403 16:46:41.365663 19233 net.cpp:425] pool1/norm1 <- pool1/3x3_s2
I0403 16:46:41.365679 19233 net.cpp:399] pool1/norm1 -> pool1/norm1
I0403 16:46:41.365974 19233 net.cpp:141] Setting up pool1/norm1
I0403 16:46:41.366000 19233 net.cpp:148] Top shape: 24 64 56 56 (4816896)
I0403 16:46:41.366014 19233 net.cpp:156] Memory required for data: 207127584
I0403 16:46:41.366029 19233 layer_factory.hpp:77] Creating layer conv2/3x3_reduce
I0403 16:46:41.366056 19233 net.cpp:91] Creating Layer conv2/3x3_reduce
I0403 16:46:41.366073 19233 net.cpp:425] conv2/3x3_reduce <- pool1/norm1
I0403 16:46:41.366091 19233 net.cpp:399] conv2/3x3_reduce -> conv2/3x3_reduce
I0403 16:46:41.367475 19233 net.cpp:141] Setting up conv2/3x3_reduce
I0403 16:46:41.367504 19233 net.cpp:148] Top shape: 24 64 56 56 (4816896)
I0403 16:46:41.367519 19233 net.cpp:156] Memory required for data: 226395168
I0403 16:46:41.367539 19233 layer_factory.hpp:77] Creating layer conv2/relu_3x3_reduce
I0403 16:46:41.367558 19233 net.cpp:91] Creating Layer conv2/relu_3x3_reduce
I0403 16:46:41.367575 19233 net.cpp:425] conv2/relu_3x3_reduce <- conv2/3x3_reduce
I0403 16:46:41.367591 19233 net.cpp:386] conv2/relu_3x3_reduce -> conv2/3x3_reduce (in-place)
I0403 16:46:41.367897 19233 net.cpp:141] Setting up conv2/relu_3x3_reduce
I0403 16:46:41.367923 19233 net.cpp:148] Top shape: 24 64 56 56 (4816896)
I0403 16:46:41.367936 19233 net.cpp:156] Memory required for data: 245662752
I0403 16:46:41.367950 19233 layer_factory.hpp:77] Creating layer conv2/3x3
I0403 16:46:41.367974 19233 net.cpp:91] Creating Layer conv2/3x3
I0403 16:46:41.367990 19233 net.cpp:425] conv2/3x3 <- conv2/3x3_reduce
I0403 16:46:41.368010 19233 net.cpp:399] conv2/3x3 -> conv2/3x3
I0403 16:46:41.370291 19233 net.cpp:141] Setting up conv2/3x3
I0403 16:46:41.370321 19233 net.cpp:148] Top shape: 24 192 56 56 (14450688)
I0403 16:46:41.370337 19233 net.cpp:156] Memory required for data: 303465504
I0403 16:46:41.370355 19233 layer_factory.hpp:77] Creating layer conv2/relu_3x3
I0403 16:46:41.370376 19233 net.cpp:91] Creating Layer conv2/relu_3x3
I0403 16:46:41.370393 19233 net.cpp:425] conv2/relu_3x3 <- conv2/3x3
I0403 16:46:41.370409 19233 net.cpp:386] conv2/relu_3x3 -> conv2/3x3 (in-place)
I0403 16:46:41.370579 19233 net.cpp:141] Setting up conv2/relu_3x3
I0403 16:46:41.370607 19233 net.cpp:148] Top shape: 24 192 56 56 (14450688)
I0403 16:46:41.370654 19233 net.cpp:156] Memory required for data: 361268256
I0403 16:46:41.370669 19233 layer_factory.hpp:77] Creating layer conv2/norm2
I0403 16:46:41.370692 19233 net.cpp:91] Creating Layer conv2/norm2
I0403 16:46:41.370707 19233 net.cpp:425] conv2/norm2 <- conv2/3x3
I0403 16:46:41.370726 19233 net.cpp:399] conv2/norm2 -> conv2/norm2
I0403 16:46:41.371032 19233 net.cpp:141] Setting up conv2/norm2
I0403 16:46:41.371060 19233 net.cpp:148] Top shape: 24 192 56 56 (14450688)
I0403 16:46:41.371075 19233 net.cpp:156] Memory required for data: 419071008
I0403 16:46:41.371089 19233 layer_factory.hpp:77] Creating layer pool2/3x3_s2
I0403 16:46:41.371105 19233 net.cpp:91] Creating Layer pool2/3x3_s2
I0403 16:46:41.371119 19233 net.cpp:425] pool2/3x3_s2 <- conv2/norm2
I0403 16:46:41.371136 19233 net.cpp:399] pool2/3x3_s2 -> pool2/3x3_s2
I0403 16:46:41.371188 19233 net.cpp:141] Setting up pool2/3x3_s2
I0403 16:46:41.371212 19233 net.cpp:148] Top shape: 24 192 28 28 (3612672)
I0403 16:46:41.371227 19233 net.cpp:156] Memory required for data: 433521696
I0403 16:46:41.371239 19233 layer_factory.hpp:77] Creating layer pool2/3x3_s2_pool2/3x3_s2_0_split
I0403 16:46:41.371255 19233 net.cpp:91] Creating Layer pool2/3x3_s2_pool2/3x3_s2_0_split
I0403 16:46:41.371268 19233 net.cpp:425] pool2/3x3_s2_pool2/3x3_s2_0_split <- pool2/3x3_s2
I0403 16:46:41.371284 19233 net.cpp:399] pool2/3x3_s2_pool2/3x3_s2_0_split -> pool2/3x3_s2_pool2/3x3_s2_0_split_0
I0403 16:46:41.371301 19233 net.cpp:399] pool2/3x3_s2_pool2/3x3_s2_0_split -> pool2/3x3_s2_pool2/3x3_s2_0_split_1
I0403 16:46:41.371322 19233 net.cpp:399] pool2/3x3_s2_pool2/3x3_s2_0_split -> pool2/3x3_s2_pool2/3x3_s2_0_split_2
I0403 16:46:41.371341 19233 net.cpp:399] pool2/3x3_s2_pool2/3x3_s2_0_split -> pool2/3x3_s2_pool2/3x3_s2_0_split_3
I0403 16:46:41.371408 19233 net.cpp:141] Setting up pool2/3x3_s2_pool2/3x3_s2_0_split
I0403 16:46:41.371429 19233 net.cpp:148] Top shape: 24 192 28 28 (3612672)
I0403 16:46:41.371443 19233 net.cpp:148] Top shape: 24 192 28 28 (3612672)
I0403 16:46:41.371457 19233 net.cpp:148] Top shape: 24 192 28 28 (3612672)
I0403 16:46:41.371471 19233 net.cpp:148] Top shape: 24 192 28 28 (3612672)
I0403 16:46:41.371484 19233 net.cpp:156] Memory required for data: 491324448
I0403 16:46:41.371497 19233 layer_factory.hpp:77] Creating layer inception_3a/1x1
I0403 16:46:41.371517 19233 net.cpp:91] Creating Layer inception_3a/1x1
I0403 16:46:41.371533 19233 net.cpp:425] inception_3a/1x1 <- pool2/3x3_s2_pool2/3x3_s2_0_split_0
I0403 16:46:41.371552 19233 net.cpp:399] inception_3a/1x1 -> inception_3a/1x1
I0403 16:46:41.373057 19233 net.cpp:141] Setting up inception_3a/1x1
I0403 16:46:41.373085 19233 net.cpp:148] Top shape: 24 64 28 28 (1204224)
I0403 16:46:41.373100 19233 net.cpp:156] Memory required for data: 496141344
I0403 16:46:41.373117 19233 layer_factory.hpp:77] Creating layer inception_3a/relu_1x1
I0403 16:46:41.373134 19233 net.cpp:91] Creating Layer inception_3a/relu_1x1
I0403 16:46:41.373148 19233 net.cpp:425] inception_3a/relu_1x1 <- inception_3a/1x1
I0403 16:46:41.373167 19233 net.cpp:386] inception_3a/relu_1x1 -> inception_3a/1x1 (in-place)
I0403 16:46:41.373347 19233 net.cpp:141] Setting up inception_3a/relu_1x1
I0403 16:46:41.373371 19233 net.cpp:148] Top shape: 24 64 28 28 (1204224)
I0403 16:46:41.373385 19233 net.cpp:156] Memory required for data: 500958240
I0403 16:46:41.373399 19233 layer_factory.hpp:77] Creating layer inception_3a/3x3_reduce
I0403 16:46:41.373420 19233 net.cpp:91] Creating Layer inception_3a/3x3_reduce
I0403 16:46:41.373436 19233 net.cpp:425] inception_3a/3x3_reduce <- pool2/3x3_s2_pool2/3x3_s2_0_split_1
I0403 16:46:41.373456 19233 net.cpp:399] inception_3a/3x3_reduce -> inception_3a/3x3_reduce
I0403 16:46:41.375093 19233 net.cpp:141] Setting up inception_3a/3x3_reduce
I0403 16:46:41.375121 19233 net.cpp:148] Top shape: 24 96 28 28 (1806336)
I0403 16:46:41.375136 19233 net.cpp:156] Memory required for data: 508183584
I0403 16:46:41.375156 19233 layer_factory.hpp:77] Creating layer inception_3a/relu_3x3_reduce
I0403 16:46:41.375191 19233 net.cpp:91] Creating Layer inception_3a/relu_3x3_reduce
I0403 16:46:41.375208 19233 net.cpp:425] inception_3a/relu_3x3_reduce <- inception_3a/3x3_reduce
I0403 16:46:41.375226 19233 net.cpp:386] inception_3a/relu_3x3_reduce -> inception_3a/3x3_reduce (in-place)
I0403 16:46:41.375394 19233 net.cpp:141] Setting up inception_3a/relu_3x3_reduce
I0403 16:46:41.375419 19233 net.cpp:148] Top shape: 24 96 28 28 (1806336)
I0403 16:46:41.375434 19233 net.cpp:156] Memory required for data: 515408928
I0403 16:46:41.375447 19233 layer_factory.hpp:77] Creating layer inception_3a/3x3
I0403 16:46:41.375473 19233 net.cpp:91] Creating Layer inception_3a/3x3
I0403 16:46:41.375490 19233 net.cpp:425] inception_3a/3x3 <- inception_3a/3x3_reduce
I0403 16:46:41.375507 19233 net.cpp:399] inception_3a/3x3 -> inception_3a/3x3
I0403 16:46:41.377097 19233 net.cpp:141] Setting up inception_3a/3x3
I0403 16:46:41.377123 19233 net.cpp:148] Top shape: 24 128 28 28 (2408448)
I0403 16:46:41.377137 19233 net.cpp:156] Memory required for data: 525042720
I0403 16:46:41.377154 19233 layer_factory.hpp:77] Creating layer inception_3a/relu_3x3
I0403 16:46:41.377176 19233 net.cpp:91] Creating Layer inception_3a/relu_3x3
I0403 16:46:41.377190 19233 net.cpp:425] inception_3a/relu_3x3 <- inception_3a/3x3
I0403 16:46:41.377207 19233 net.cpp:386] inception_3a/relu_3x3 -> inception_3a/3x3 (in-place)
I0403 16:46:41.377465 19233 net.cpp:141] Setting up inception_3a/relu_3x3
I0403 16:46:41.377490 19233 net.cpp:148] Top shape: 24 128 28 28 (2408448)
I0403 16:46:41.377503 19233 net.cpp:156] Memory required for data: 534676512
I0403 16:46:41.377516 19233 layer_factory.hpp:77] Creating layer inception_3a/5x5_reduce
I0403 16:46:41.377537 19233 net.cpp:91] Creating Layer inception_3a/5x5_reduce
I0403 16:46:41.377554 19233 net.cpp:425] inception_3a/5x5_reduce <- pool2/3x3_s2_pool2/3x3_s2_0_split_2
I0403 16:46:41.377573 19233 net.cpp:399] inception_3a/5x5_reduce -> inception_3a/5x5_reduce
I0403 16:46:41.378481 19233 net.cpp:141] Setting up inception_3a/5x5_reduce
I0403 16:46:41.378507 19233 net.cpp:148] Top shape: 24 16 28 28 (301056)
I0403 16:46:41.378521 19233 net.cpp:156] Memory required for data: 535880736
I0403 16:46:41.378538 19233 layer_factory.hpp:77] Creating layer inception_3a/relu_5x5_reduce
I0403 16:46:41.378557 19233 net.cpp:91] Creating Layer inception_3a/relu_5x5_reduce
I0403 16:46:41.378573 19233 net.cpp:425] inception_3a/relu_5x5_reduce <- inception_3a/5x5_reduce
I0403 16:46:41.378589 19233 net.cpp:386] inception_3a/relu_5x5_reduce -> inception_3a/5x5_reduce (in-place)
I0403 16:46:41.378870 19233 net.cpp:141] Setting up inception_3a/relu_5x5_reduce
I0403 16:46:41.378893 19233 net.cpp:148] Top shape: 24 16 28 28 (301056)
I0403 16:46:41.378907 19233 net.cpp:156] Memory required for data: 537084960
I0403 16:46:41.378921 19233 layer_factory.hpp:77] Creating layer inception_3a/5x5
I0403 16:46:41.378945 19233 net.cpp:91] Creating Layer inception_3a/5x5
I0403 16:46:41.378962 19233 net.cpp:425] inception_3a/5x5 <- inception_3a/5x5_reduce
I0403 16:46:41.378979 19233 net.cpp:399] inception_3a/5x5 -> inception_3a/5x5
I0403 16:46:41.379935 19233 net.cpp:141] Setting up inception_3a/5x5
I0403 16:46:41.379961 19233 net.cpp:148] Top shape: 24 32 28 28 (602112)
I0403 16:46:41.379974 19233 net.cpp:156] Memory required for data: 539493408
I0403 16:46:41.379992 19233 layer_factory.hpp:77] Creating layer inception_3a/relu_5x5
I0403 16:46:41.380008 19233 net.cpp:91] Creating Layer inception_3a/relu_5x5
I0403 16:46:41.380023 19233 net.cpp:425] inception_3a/relu_5x5 <- inception_3a/5x5
I0403 16:46:41.380041 19233 net.cpp:386] inception_3a/relu_5x5 -> inception_3a/5x5 (in-place)
I0403 16:46:41.380203 19233 net.cpp:141] Setting up inception_3a/relu_5x5
I0403 16:46:41.380226 19233 net.cpp:148] Top shape: 24 32 28 28 (602112)
I0403 16:46:41.380239 19233 net.cpp:156] Memory required for data: 541901856
I0403 16:46:41.380254 19233 layer_factory.hpp:77] Creating layer inception_3a/pool
I0403 16:46:41.380272 19233 net.cpp:91] Creating Layer inception_3a/pool
I0403 16:46:41.380313 19233 net.cpp:425] inception_3a/pool <- pool2/3x3_s2_pool2/3x3_s2_0_split_3
I0403 16:46:41.380331 19233 net.cpp:399] inception_3a/pool -> inception_3a/pool
I0403 16:46:41.380388 19233 net.cpp:141] Setting up inception_3a/pool
I0403 16:46:41.380410 19233 net.cpp:148] Top shape: 24 192 28 28 (3612672)
I0403 16:46:41.380424 19233 net.cpp:156] Memory required for data: 556352544
I0403 16:46:41.380439 19233 layer_factory.hpp:77] Creating layer inception_3a/pool_proj
I0403 16:46:41.380460 19233 net.cpp:91] Creating Layer inception_3a/pool_proj
I0403 16:46:41.380476 19233 net.cpp:425] inception_3a/pool_proj <- inception_3a/pool
I0403 16:46:41.380496 19233 net.cpp:399] inception_3a/pool_proj -> inception_3a/pool_proj
I0403 16:46:41.381419 19233 net.cpp:141] Setting up inception_3a/pool_proj
I0403 16:46:41.381448 19233 net.cpp:148] Top shape: 24 32 28 28 (602112)
I0403 16:46:41.381464 19233 net.cpp:156] Memory required for data: 558760992
I0403 16:46:41.381484 19233 layer_factory.hpp:77] Creating layer inception_3a/relu_pool_proj
I0403 16:46:41.381502 19233 net.cpp:91] Creating Layer inception_3a/relu_pool_proj
I0403 16:46:41.381517 19233 net.cpp:425] inception_3a/relu_pool_proj <- inception_3a/pool_proj
I0403 16:46:41.381533 19233 net.cpp:386] inception_3a/relu_pool_proj -> inception_3a/pool_proj (in-place)
I0403 16:46:41.381803 19233 net.cpp:141] Setting up inception_3a/relu_pool_proj
I0403 16:46:41.381829 19233 net.cpp:148] Top shape: 24 32 28 28 (602112)
I0403 16:46:41.381841 19233 net.cpp:156] Memory required for data: 561169440
I0403 16:46:41.381855 19233 layer_factory.hpp:77] Creating layer inception_3a/output
I0403 16:46:41.381872 19233 net.cpp:91] Creating Layer inception_3a/output
I0403 16:46:41.381886 19233 net.cpp:425] inception_3a/output <- inception_3a/1x1
I0403 16:46:41.381901 19233 net.cpp:425] inception_3a/output <- inception_3a/3x3
I0403 16:46:41.381916 19233 net.cpp:425] inception_3a/output <- inception_3a/5x5
I0403 16:46:41.381929 19233 net.cpp:425] inception_3a/output <- inception_3a/pool_proj
I0403 16:46:41.381947 19233 net.cpp:399] inception_3a/output -> inception_3a/output
I0403 16:46:41.381995 19233 net.cpp:141] Setting up inception_3a/output
I0403 16:46:41.382016 19233 net.cpp:148] Top shape: 24 256 28 28 (4816896)
I0403 16:46:41.382030 19233 net.cpp:156] Memory required for data: 580437024
I0403 16:46:41.382043 19233 layer_factory.hpp:77] Creating layer inception_3a/output_inception_3a/output_0_split
I0403 16:46:41.382058 19233 net.cpp:91] Creating Layer inception_3a/output_inception_3a/output_0_split
I0403 16:46:41.382072 19233 net.cpp:425] inception_3a/output_inception_3a/output_0_split <- inception_3a/output
I0403 16:46:41.382089 19233 net.cpp:399] inception_3a/output_inception_3a/output_0_split -> inception_3a/output_inception_3a/output_0_split_0
I0403 16:46:41.382109 19233 net.cpp:399] inception_3a/output_inception_3a/output_0_split -> inception_3a/output_inception_3a/output_0_split_1
I0403 16:46:41.382130 19233 net.cpp:399] inception_3a/output_inception_3a/output_0_split -> inception_3a/output_inception_3a/output_0_split_2
I0403 16:46:41.382149 19233 net.cpp:399] inception_3a/output_inception_3a/output_0_split -> inception_3a/output_inception_3a/output_0_split_3
I0403 16:46:41.382223 19233 net.cpp:141] Setting up inception_3a/output_inception_3a/output_0_split
I0403 16:46:41.382244 19233 net.cpp:148] Top shape: 24 256 28 28 (4816896)
I0403 16:46:41.382261 19233 net.cpp:148] Top shape: 24 256 28 28 (4816896)
I0403 16:46:41.382275 19233 net.cpp:148] Top shape: 24 256 28 28 (4816896)
I0403 16:46:41.382290 19233 net.cpp:148] Top shape: 24 256 28 28 (4816896)
I0403 16:46:41.382302 19233 net.cpp:156] Memory required for data: 657507360
I0403 16:46:41.382315 19233 layer_factory.hpp:77] Creating layer inception_3b/1x1
I0403 16:46:41.382336 19233 net.cpp:91] Creating Layer inception_3b/1x1
I0403 16:46:41.382352 19233 net.cpp:425] inception_3b/1x1 <- inception_3a/output_inception_3a/output_0_split_0
I0403 16:46:41.382370 19233 net.cpp:399] inception_3b/1x1 -> inception_3b/1x1
I0403 16:46:41.383450 19233 net.cpp:141] Setting up inception_3b/1x1
I0403 16:46:41.383488 19233 net.cpp:148] Top shape: 24 128 28 28 (2408448)
I0403 16:46:41.383504 19233 net.cpp:156] Memory required for data: 667141152
I0403 16:46:41.383522 19233 layer_factory.hpp:77] Creating layer inception_3b/relu_1x1
I0403 16:46:41.383538 19233 net.cpp:91] Creating Layer inception_3b/relu_1x1
I0403 16:46:41.383553 19233 net.cpp:425] inception_3b/relu_1x1 <- inception_3b/1x1
I0403 16:46:41.383572 19233 net.cpp:386] inception_3b/relu_1x1 -> inception_3b/1x1 (in-place)
I0403 16:46:41.383739 19233 net.cpp:141] Setting up inception_3b/relu_1x1
I0403 16:46:41.383764 19233 net.cpp:148] Top shape: 24 128 28 28 (2408448)
I0403 16:46:41.383776 19233 net.cpp:156] Memory required for data: 676774944
I0403 16:46:41.383790 19233 layer_factory.hpp:77] Creating layer inception_3b/3x3_reduce
I0403 16:46:41.383810 19233 net.cpp:91] Creating Layer inception_3b/3x3_reduce
I0403 16:46:41.383826 19233 net.cpp:425] inception_3b/3x3_reduce <- inception_3a/output_inception_3a/output_0_split_1
I0403 16:46:41.383846 19233 net.cpp:399] inception_3b/3x3_reduce -> inception_3b/3x3_reduce
I0403 16:46:41.384968 19233 net.cpp:141] Setting up inception_3b/3x3_reduce
I0403 16:46:41.384994 19233 net.cpp:148] Top shape: 24 128 28 28 (2408448)
I0403 16:46:41.385007 19233 net.cpp:156] Memory required for data: 686408736
I0403 16:46:41.385025 19233 layer_factory.hpp:77] Creating layer inception_3b/relu_3x3_reduce
I0403 16:46:41.385041 19233 net.cpp:91] Creating Layer inception_3b/relu_3x3_reduce
I0403 16:46:41.385056 19233 net.cpp:425] inception_3b/relu_3x3_reduce <- inception_3b/3x3_reduce
I0403 16:46:41.385074 19233 net.cpp:386] inception_3b/relu_3x3_reduce -> inception_3b/3x3_reduce (in-place)
I0403 16:46:41.385236 19233 net.cpp:141] Setting up inception_3b/relu_3x3_reduce
I0403 16:46:41.385259 19233 net.cpp:148] Top shape: 24 128 28 28 (2408448)
I0403 16:46:41.385272 19233 net.cpp:156] Memory required for data: 696042528
I0403 16:46:41.385285 19233 layer_factory.hpp:77] Creating layer inception_3b/3x3
I0403 16:46:41.385313 19233 net.cpp:91] Creating Layer inception_3b/3x3
I0403 16:46:41.385330 19233 net.cpp:425] inception_3b/3x3 <- inception_3b/3x3_reduce
I0403 16:46:41.385349 19233 net.cpp:399] inception_3b/3x3 -> inception_3b/3x3
I0403 16:46:41.388103 19233 net.cpp:141] Setting up inception_3b/3x3
I0403 16:46:41.388128 19233 net.cpp:148] Top shape: 24 192 28 28 (3612672)
I0403 16:46:41.388144 19233 net.cpp:156] Memory required for data: 710493216
I0403 16:46:41.388159 19233 layer_factory.hpp:77] Creating layer inception_3b/relu_3x3
I0403 16:46:41.388180 19233 net.cpp:91] Creating Layer inception_3b/relu_3x3
I0403 16:46:41.388195 19233 net.cpp:425] inception_3b/relu_3x3 <- inception_3b/3x3
I0403 16:46:41.388212 19233 net.cpp:386] inception_3b/relu_3x3 -> inception_3b/3x3 (in-place)
I0403 16:46:41.388487 19233 net.cpp:141] Setting up inception_3b/relu_3x3
I0403 16:46:41.388512 19233 net.cpp:148] Top shape: 24 192 28 28 (3612672)
I0403 16:46:41.388526 19233 net.cpp:156] Memory required for data: 724943904
I0403 16:46:41.388540 19233 layer_factory.hpp:77] Creating layer inception_3b/5x5_reduce
I0403 16:46:41.388562 19233 net.cpp:91] Creating Layer inception_3b/5x5_reduce
I0403 16:46:41.388592 19233 net.cpp:425] inception_3b/5x5_reduce <- inception_3a/output_inception_3a/output_0_split_2
I0403 16:46:41.388615 19233 net.cpp:399] inception_3b/5x5_reduce -> inception_3b/5x5_reduce
I0403 16:46:41.389549 19233 net.cpp:141] Setting up inception_3b/5x5_reduce
I0403 16:46:41.389576 19233 net.cpp:148] Top shape: 24 32 28 28 (602112)
I0403 16:46:41.389590 19233 net.cpp:156] Memory required for data: 727352352
I0403 16:46:41.389611 19233 layer_factory.hpp:77] Creating layer inception_3b/relu_5x5_reduce
I0403 16:46:41.389631 19233 net.cpp:91] Creating Layer inception_3b/relu_5x5_reduce
I0403 16:46:41.389647 19233 net.cpp:425] inception_3b/relu_5x5_reduce <- inception_3b/5x5_reduce
I0403 16:46:41.389664 19233 net.cpp:386] inception_3b/relu_5x5_reduce -> inception_3b/5x5_reduce (in-place)
I0403 16:46:41.389847 19233 net.cpp:141] Setting up inception_3b/relu_5x5_reduce
I0403 16:46:41.389869 19233 net.cpp:148] Top shape: 24 32 28 28 (602112)
I0403 16:46:41.389886 19233 net.cpp:156] Memory required for data: 729760800
I0403 16:46:41.389900 19233 layer_factory.hpp:77] Creating layer inception_3b/5x5
I0403 16:46:41.389919 19233 net.cpp:91] Creating Layer inception_3b/5x5
I0403 16:46:41.389933 19233 net.cpp:425] inception_3b/5x5 <- inception_3b/5x5_reduce
I0403 16:46:41.389953 19233 net.cpp:399] inception_3b/5x5 -> inception_3b/5x5
I0403 16:46:41.391871 19233 net.cpp:141] Setting up inception_3b/5x5
I0403 16:46:41.391899 19233 net.cpp:148] Top shape: 24 96 28 28 (1806336)
I0403 16:46:41.391913 19233 net.cpp:156] Memory required for data: 736986144
I0403 16:46:41.391932 19233 layer_factory.hpp:77] Creating layer inception_3b/relu_5x5
I0403 16:46:41.391947 19233 net.cpp:91] Creating Layer inception_3b/relu_5x5
I0403 16:46:41.391963 19233 net.cpp:425] inception_3b/relu_5x5 <- inception_3b/5x5
I0403 16:46:41.391980 19233 net.cpp:386] inception_3b/relu_5x5 -> inception_3b/5x5 (in-place)
I0403 16:46:41.392169 19233 net.cpp:141] Setting up inception_3b/relu_5x5
I0403 16:46:41.392194 19233 net.cpp:148] Top shape: 24 96 28 28 (1806336)
I0403 16:46:41.392209 19233 net.cpp:156] Memory required for data: 744211488
I0403 16:46:41.392222 19233 layer_factory.hpp:77] Creating layer inception_3b/pool
I0403 16:46:41.392240 19233 net.cpp:91] Creating Layer inception_3b/pool
I0403 16:46:41.392254 19233 net.cpp:425] inception_3b/pool <- inception_3a/output_inception_3a/output_0_split_3
I0403 16:46:41.392272 19233 net.cpp:399] inception_3b/pool -> inception_3b/pool
I0403 16:46:41.392341 19233 net.cpp:141] Setting up inception_3b/pool
I0403 16:46:41.392365 19233 net.cpp:148] Top shape: 24 256 28 28 (4816896)
I0403 16:46:41.392379 19233 net.cpp:156] Memory required for data: 763479072
I0403 16:46:41.392395 19233 layer_factory.hpp:77] Creating layer inception_3b/pool_proj
I0403 16:46:41.392416 19233 net.cpp:91] Creating Layer inception_3b/pool_proj
I0403 16:46:41.392432 19233 net.cpp:425] inception_3b/pool_proj <- inception_3b/pool
I0403 16:46:41.392453 19233 net.cpp:399] inception_3b/pool_proj -> inception_3b/pool_proj
I0403 16:46:41.393488 19233 net.cpp:141] Setting up inception_3b/pool_proj
I0403 16:46:41.393517 19233 net.cpp:148] Top shape: 24 64 28 28 (1204224)
I0403 16:46:41.393532 19233 net.cpp:156] Memory required for data: 768295968
I0403 16:46:41.393550 19233 layer_factory.hpp:77] Creating layer inception_3b/relu_pool_proj
I0403 16:46:41.393566 19233 net.cpp:91] Creating Layer inception_3b/relu_pool_proj
I0403 16:46:41.393581 19233 net.cpp:425] inception_3b/relu_pool_proj <- inception_3b/pool_proj
I0403 16:46:41.393601 19233 net.cpp:386] inception_3b/relu_pool_proj -> inception_3b/pool_proj (in-place)
I0403 16:46:41.393978 19233 net.cpp:141] Setting up inception_3b/relu_pool_proj
I0403 16:46:41.394003 19233 net.cpp:148] Top shape: 24 64 28 28 (1204224)
I0403 16:46:41.394017 19233 net.cpp:156] Memory required for data: 773112864
I0403 16:46:41.394031 19233 layer_factory.hpp:77] Creating layer inception_3b/output
I0403 16:46:41.394049 19233 net.cpp:91] Creating Layer inception_3b/output
I0403 16:46:41.394064 19233 net.cpp:425] inception_3b/output <- inception_3b/1x1
I0403 16:46:41.394079 19233 net.cpp:425] inception_3b/output <- inception_3b/3x3
I0403 16:46:41.394094 19233 net.cpp:425] inception_3b/output <- inception_3b/5x5
I0403 16:46:41.394110 19233 net.cpp:425] inception_3b/output <- inception_3b/pool_proj
I0403 16:46:41.394125 19233 net.cpp:399] inception_3b/output -> inception_3b/output
I0403 16:46:41.394168 19233 net.cpp:141] Setting up inception_3b/output
I0403 16:46:41.394191 19233 net.cpp:148] Top shape: 24 480 28 28 (9031680)
I0403 16:46:41.394204 19233 net.cpp:156] Memory required for data: 809239584
I0403 16:46:41.394218 19233 layer_factory.hpp:77] Creating layer pool3/3x3_s2
I0403 16:46:41.394234 19233 net.cpp:91] Creating Layer pool3/3x3_s2
I0403 16:46:41.394249 19233 net.cpp:425] pool3/3x3_s2 <- inception_3b/output
I0403 16:46:41.394284 19233 net.cpp:399] pool3/3x3_s2 -> pool3/3x3_s2
I0403 16:46:41.394342 19233 net.cpp:141] Setting up pool3/3x3_s2
I0403 16:46:41.394364 19233 net.cpp:148] Top shape: 24 480 14 14 (2257920)
I0403 16:46:41.394378 19233 net.cpp:156] Memory required for data: 818271264
I0403 16:46:41.394392 19233 layer_factory.hpp:77] Creating layer pool3/3x3_s2_pool3/3x3_s2_0_split
I0403 16:46:41.394410 19233 net.cpp:91] Creating Layer pool3/3x3_s2_pool3/3x3_s2_0_split
I0403 16:46:41.394424 19233 net.cpp:425] pool3/3x3_s2_pool3/3x3_s2_0_split <- pool3/3x3_s2
I0403 16:46:41.394443 19233 net.cpp:399] pool3/3x3_s2_pool3/3x3_s2_0_split -> pool3/3x3_s2_pool3/3x3_s2_0_split_0
I0403 16:46:41.394462 19233 net.cpp:399] pool3/3x3_s2_pool3/3x3_s2_0_split -> pool3/3x3_s2_pool3/3x3_s2_0_split_1
I0403 16:46:41.394481 19233 net.cpp:399] pool3/3x3_s2_pool3/3x3_s2_0_split -> pool3/3x3_s2_pool3/3x3_s2_0_split_2
I0403 16:46:41.394500 19233 net.cpp:399] pool3/3x3_s2_pool3/3x3_s2_0_split -> pool3/3x3_s2_pool3/3x3_s2_0_split_3
I0403 16:46:41.394574 19233 net.cpp:141] Setting up pool3/3x3_s2_pool3/3x3_s2_0_split
I0403 16:46:41.394595 19233 net.cpp:148] Top shape: 24 480 14 14 (2257920)
I0403 16:46:41.394625 19233 net.cpp:148] Top shape: 24 480 14 14 (2257920)
I0403 16:46:41.394641 19233 net.cpp:148] Top shape: 24 480 14 14 (2257920)
I0403 16:46:41.394655 19233 net.cpp:148] Top shape: 24 480 14 14 (2257920)
I0403 16:46:41.394668 19233 net.cpp:156] Memory required for data: 854397984
I0403 16:46:41.394682 19233 layer_factory.hpp:77] Creating layer inception_4a/1x1
I0403 16:46:41.394701 19233 net.cpp:91] Creating Layer inception_4a/1x1
I0403 16:46:41.394716 19233 net.cpp:425] inception_4a/1x1 <- pool3/3x3_s2_pool3/3x3_s2_0_split_0
I0403 16:46:41.394737 19233 net.cpp:399] inception_4a/1x1 -> inception_4a/1x1
I0403 16:46:41.396255 19233 net.cpp:141] Setting up inception_4a/1x1
I0403 16:46:41.396284 19233 net.cpp:148] Top shape: 24 192 14 14 (903168)
I0403 16:46:41.396301 19233 net.cpp:156] Memory required for data: 858010656
I0403 16:46:41.396318 19233 layer_factory.hpp:77] Creating layer inception_4a/relu_1x1
I0403 16:46:41.396335 19233 net.cpp:91] Creating Layer inception_4a/relu_1x1
I0403 16:46:41.396350 19233 net.cpp:425] inception_4a/relu_1x1 <- inception_4a/1x1
I0403 16:46:41.396366 19233 net.cpp:386] inception_4a/relu_1x1 -> inception_4a/1x1 (in-place)
I0403 16:46:41.396543 19233 net.cpp:141] Setting up inception_4a/relu_1x1
I0403 16:46:41.396566 19233 net.cpp:148] Top shape: 24 192 14 14 (903168)
I0403 16:46:41.396580 19233 net.cpp:156] Memory required for data: 861623328
I0403 16:46:41.396594 19233 layer_factory.hpp:77] Creating layer inception_4a/3x3_reduce
I0403 16:46:41.396618 19233 net.cpp:91] Creating Layer inception_4a/3x3_reduce
I0403 16:46:41.396636 19233 net.cpp:425] inception_4a/3x3_reduce <- pool3/3x3_s2_pool3/3x3_s2_0_split_1
I0403 16:46:41.396656 19233 net.cpp:399] inception_4a/3x3_reduce -> inception_4a/3x3_reduce
I0403 16:46:41.397884 19233 net.cpp:141] Setting up inception_4a/3x3_reduce
I0403 16:46:41.397913 19233 net.cpp:148] Top shape: 24 96 14 14 (451584)
I0403 16:46:41.397928 19233 net.cpp:156] Memory required for data: 863429664
I0403 16:46:41.397953 19233 layer_factory.hpp:77] Creating layer inception_4a/relu_3x3_reduce
I0403 16:46:41.397971 19233 net.cpp:91] Creating Layer inception_4a/relu_3x3_reduce
I0403 16:46:41.397986 19233 net.cpp:425] inception_4a/relu_3x3_reduce <- inception_4a/3x3_reduce
I0403 16:46:41.398002 19233 net.cpp:386] inception_4a/relu_3x3_reduce -> inception_4a/3x3_reduce (in-place)
I0403 16:46:41.398175 19233 net.cpp:141] Setting up inception_4a/relu_3x3_reduce
I0403 16:46:41.398201 19233 net.cpp:148] Top shape: 24 96 14 14 (451584)
I0403 16:46:41.398216 19233 net.cpp:156] Memory required for data: 865236000
I0403 16:46:41.398231 19233 layer_factory.hpp:77] Creating layer inception_4a/3x3
I0403 16:46:41.398252 19233 net.cpp:91] Creating Layer inception_4a/3x3
I0403 16:46:41.398268 19233 net.cpp:425] inception_4a/3x3 <- inception_4a/3x3_reduce
I0403 16:46:41.398286 19233 net.cpp:399] inception_4a/3x3 -> inception_4a/3x3
I0403 16:46:41.400907 19233 net.cpp:141] Setting up inception_4a/3x3
I0403 16:46:41.400934 19233 net.cpp:148] Top shape: 24 208 14 14 (978432)
I0403 16:46:41.400949 19233 net.cpp:156] Memory required for data: 869149728
I0403 16:46:41.400966 19233 layer_factory.hpp:77] Creating layer inception_4a/relu_3x3
I0403 16:46:41.400984 19233 net.cpp:91] Creating Layer inception_4a/relu_3x3
I0403 16:46:41.401000 19233 net.cpp:425] inception_4a/relu_3x3 <- inception_4a/3x3
I0403 16:46:41.401018 19233 net.cpp:386] inception_4a/relu_3x3 -> inception_4a/3x3 (in-place)
I0403 16:46:41.401293 19233 net.cpp:141] Setting up inception_4a/relu_3x3
I0403 16:46:41.401317 19233 net.cpp:148] Top shape: 24 208 14 14 (978432)
I0403 16:46:41.401331 19233 net.cpp:156] Memory required for data: 873063456
I0403 16:46:41.401346 19233 layer_factory.hpp:77] Creating layer inception_4a/5x5_reduce
I0403 16:46:41.401366 19233 net.cpp:91] Creating Layer inception_4a/5x5_reduce
I0403 16:46:41.401384 19233 net.cpp:425] inception_4a/5x5_reduce <- pool3/3x3_s2_pool3/3x3_s2_0_split_2
I0403 16:46:41.401406 19233 net.cpp:399] inception_4a/5x5_reduce -> inception_4a/5x5_reduce
I0403 16:46:41.402415 19233 net.cpp:141] Setting up inception_4a/5x5_reduce
I0403 16:46:41.402441 19233 net.cpp:148] Top shape: 24 16 14 14 (75264)
I0403 16:46:41.402456 19233 net.cpp:156] Memory required for data: 873364512
I0403 16:46:41.402473 19233 layer_factory.hpp:77] Creating layer inception_4a/relu_5x5_reduce
I0403 16:46:41.402490 19233 net.cpp:91] Creating Layer inception_4a/relu_5x5_reduce
I0403 16:46:41.402505 19233 net.cpp:425] inception_4a/relu_5x5_reduce <- inception_4a/5x5_reduce
I0403 16:46:41.402524 19233 net.cpp:386] inception_4a/relu_5x5_reduce -> inception_4a/5x5_reduce (in-place)
I0403 16:46:41.402700 19233 net.cpp:141] Setting up inception_4a/relu_5x5_reduce
I0403 16:46:41.402724 19233 net.cpp:148] Top shape: 24 16 14 14 (75264)
I0403 16:46:41.402739 19233 net.cpp:156] Memory required for data: 873665568
I0403 16:46:41.402752 19233 layer_factory.hpp:77] Creating layer inception_4a/5x5
I0403 16:46:41.402775 19233 net.cpp:91] Creating Layer inception_4a/5x5
I0403 16:46:41.402791 19233 net.cpp:425] inception_4a/5x5 <- inception_4a/5x5_reduce
I0403 16:46:41.402811 19233 net.cpp:399] inception_4a/5x5 -> inception_4a/5x5
I0403 16:46:41.403870 19233 net.cpp:141] Setting up inception_4a/5x5
I0403 16:46:41.403897 19233 net.cpp:148] Top shape: 24 48 14 14 (225792)
I0403 16:46:41.403910 19233 net.cpp:156] Memory required for data: 874568736
I0403 16:46:41.403928 19233 layer_factory.hpp:77] Creating layer inception_4a/relu_5x5
I0403 16:46:41.403946 19233 net.cpp:91] Creating Layer inception_4a/relu_5x5
I0403 16:46:41.403962 19233 net.cpp:425] inception_4a/relu_5x5 <- inception_4a/5x5
I0403 16:46:41.403978 19233 net.cpp:386] inception_4a/relu_5x5 -> inception_4a/5x5 (in-place)
I0403 16:46:41.404150 19233 net.cpp:141] Setting up inception_4a/relu_5x5
I0403 16:46:41.404176 19233 net.cpp:148] Top shape: 24 48 14 14 (225792)
I0403 16:46:41.404191 19233 net.cpp:156] Memory required for data: 875471904
I0403 16:46:41.404206 19233 layer_factory.hpp:77] Creating layer inception_4a/pool
I0403 16:46:41.404222 19233 net.cpp:91] Creating Layer inception_4a/pool
I0403 16:46:41.404237 19233 net.cpp:425] inception_4a/pool <- pool3/3x3_s2_pool3/3x3_s2_0_split_3
I0403 16:46:41.404255 19233 net.cpp:399] inception_4a/pool -> inception_4a/pool
I0403 16:46:41.404315 19233 net.cpp:141] Setting up inception_4a/pool
I0403 16:46:41.404338 19233 net.cpp:148] Top shape: 24 480 14 14 (2257920)
I0403 16:46:41.404352 19233 net.cpp:156] Memory required for data: 884503584
I0403 16:46:41.404366 19233 layer_factory.hpp:77] Creating layer inception_4a/pool_proj
I0403 16:46:41.404387 19233 net.cpp:91] Creating Layer inception_4a/pool_proj
I0403 16:46:41.404404 19233 net.cpp:425] inception_4a/pool_proj <- inception_4a/pool
I0403 16:46:41.404422 19233 net.cpp:399] inception_4a/pool_proj -> inception_4a/pool_proj
I0403 16:46:41.405560 19233 net.cpp:141] Setting up inception_4a/pool_proj
I0403 16:46:41.405604 19233 net.cpp:148] Top shape: 24 64 14 14 (301056)
I0403 16:46:41.405637 19233 net.cpp:156] Memory required for data: 885707808
I0403 16:46:41.405659 19233 layer_factory.hpp:77] Creating layer inception_4a/relu_pool_proj
I0403 16:46:41.405678 19233 net.cpp:91] Creating Layer inception_4a/relu_pool_proj
I0403 16:46:41.405694 19233 net.cpp:425] inception_4a/relu_pool_proj <- inception_4a/pool_proj
I0403 16:46:41.405711 19233 net.cpp:386] inception_4a/relu_pool_proj -> inception_4a/pool_proj (in-place)
I0403 16:46:41.406002 19233 net.cpp:141] Setting up inception_4a/relu_pool_proj
I0403 16:46:41.406029 19233 net.cpp:148] Top shape: 24 64 14 14 (301056)
I0403 16:46:41.406044 19233 net.cpp:156] Memory required for data: 886912032
I0403 16:46:41.406059 19233 layer_factory.hpp:77] Creating layer inception_4a/output
I0403 16:46:41.406075 19233 net.cpp:91] Creating Layer inception_4a/output
I0403 16:46:41.406090 19233 net.cpp:425] inception_4a/output <- inception_4a/1x1
I0403 16:46:41.406105 19233 net.cpp:425] inception_4a/output <- inception_4a/3x3
I0403 16:46:41.406121 19233 net.cpp:425] inception_4a/output <- inception_4a/5x5
I0403 16:46:41.406136 19233 net.cpp:425] inception_4a/output <- inception_4a/pool_proj
I0403 16:46:41.406150 19233 net.cpp:399] inception_4a/output -> inception_4a/output
I0403 16:46:41.406194 19233 net.cpp:141] Setting up inception_4a/output
I0403 16:46:41.406216 19233 net.cpp:148] Top shape: 24 512 14 14 (2408448)
I0403 16:46:41.406230 19233 net.cpp:156] Memory required for data: 896545824
I0403 16:46:41.406244 19233 layer_factory.hpp:77] Creating layer inception_4a/output_inception_4a/output_0_split
I0403 16:46:41.406260 19233 net.cpp:91] Creating Layer inception_4a/output_inception_4a/output_0_split
I0403 16:46:41.406275 19233 net.cpp:425] inception_4a/output_inception_4a/output_0_split <- inception_4a/output
I0403 16:46:41.406293 19233 net.cpp:399] inception_4a/output_inception_4a/output_0_split -> inception_4a/output_inception_4a/output_0_split_0
I0403 16:46:41.406313 19233 net.cpp:399] inception_4a/output_inception_4a/output_0_split -> inception_4a/output_inception_4a/output_0_split_1
I0403 16:46:41.406333 19233 net.cpp:399] inception_4a/output_inception_4a/output_0_split -> inception_4a/output_inception_4a/output_0_split_2
I0403 16:46:41.406357 19233 net.cpp:399] inception_4a/output_inception_4a/output_0_split -> inception_4a/output_inception_4a/output_0_split_3
I0403 16:46:41.406375 19233 net.cpp:399] inception_4a/output_inception_4a/output_0_split -> inception_4a/output_inception_4a/output_0_split_4
I0403 16:46:41.406468 19233 net.cpp:141] Setting up inception_4a/output_inception_4a/output_0_split
I0403 16:46:41.406491 19233 net.cpp:148] Top shape: 24 512 14 14 (2408448)
I0403 16:46:41.406505 19233 net.cpp:148] Top shape: 24 512 14 14 (2408448)
I0403 16:46:41.406520 19233 net.cpp:148] Top shape: 24 512 14 14 (2408448)
I0403 16:46:41.406534 19233 net.cpp:148] Top shape: 24 512 14 14 (2408448)
I0403 16:46:41.406548 19233 net.cpp:148] Top shape: 24 512 14 14 (2408448)
I0403 16:46:41.406561 19233 net.cpp:156] Memory required for data: 944714784
I0403 16:46:41.406575 19233 layer_factory.hpp:77] Creating layer loss1/ave_pool
I0403 16:46:41.406591 19233 net.cpp:91] Creating Layer loss1/ave_pool
I0403 16:46:41.406611 19233 net.cpp:425] loss1/ave_pool <- inception_4a/output_inception_4a/output_0_split_0
I0403 16:46:41.406631 19233 net.cpp:399] loss1/ave_pool -> loss1/ave_pool
I0403 16:46:41.406832 19233 net.cpp:141] Setting up loss1/ave_pool
I0403 16:46:41.406859 19233 net.cpp:148] Top shape: 24 512 4 4 (196608)
I0403 16:46:41.406874 19233 net.cpp:156] Memory required for data: 945501216
I0403 16:46:41.406888 19233 layer_factory.hpp:77] Creating layer loss1/conv
I0403 16:46:41.406910 19233 net.cpp:91] Creating Layer loss1/conv
I0403 16:46:41.406926 19233 net.cpp:425] loss1/conv <- loss1/ave_pool
I0403 16:46:41.406944 19233 net.cpp:399] loss1/conv -> loss1/conv
I0403 16:46:41.408314 19233 net.cpp:141] Setting up loss1/conv
I0403 16:46:41.408340 19233 net.cpp:148] Top shape: 24 128 4 4 (49152)
I0403 16:46:41.408378 19233 net.cpp:156] Memory required for data: 945697824
I0403 16:46:41.408396 19233 layer_factory.hpp:77] Creating layer loss1/relu_conv
I0403 16:46:41.408413 19233 net.cpp:91] Creating Layer loss1/relu_conv
I0403 16:46:41.408428 19233 net.cpp:425] loss1/relu_conv <- loss1/conv
I0403 16:46:41.408447 19233 net.cpp:386] loss1/relu_conv -> loss1/conv (in-place)
I0403 16:46:41.408720 19233 net.cpp:141] Setting up loss1/relu_conv
I0403 16:46:41.408745 19233 net.cpp:148] Top shape: 24 128 4 4 (49152)
I0403 16:46:41.408757 19233 net.cpp:156] Memory required for data: 945894432
I0403 16:46:41.408771 19233 layer_factory.hpp:77] Creating layer loss1/fc
I0403 16:46:41.408793 19233 net.cpp:91] Creating Layer loss1/fc
I0403 16:46:41.408810 19233 net.cpp:425] loss1/fc <- loss1/conv
I0403 16:46:41.408829 19233 net.cpp:399] loss1/fc -> loss1/fc
I0403 16:46:41.425762 19233 net.cpp:141] Setting up loss1/fc
I0403 16:46:41.425792 19233 net.cpp:148] Top shape: 24 1024 (24576)
I0403 16:46:41.425807 19233 net.cpp:156] Memory required for data: 945992736
I0403 16:46:41.425824 19233 layer_factory.hpp:77] Creating layer loss1/relu_fc
I0403 16:46:41.425842 19233 net.cpp:91] Creating Layer loss1/relu_fc
I0403 16:46:41.425856 19233 net.cpp:425] loss1/relu_fc <- loss1/fc
I0403 16:46:41.425873 19233 net.cpp:386] loss1/relu_fc -> loss1/fc (in-place)
I0403 16:46:41.426064 19233 net.cpp:141] Setting up loss1/relu_fc
I0403 16:46:41.426086 19233 net.cpp:148] Top shape: 24 1024 (24576)
I0403 16:46:41.426100 19233 net.cpp:156] Memory required for data: 946091040
I0403 16:46:41.426113 19233 layer_factory.hpp:77] Creating layer loss1/drop_fc
I0403 16:46:41.426136 19233 net.cpp:91] Creating Layer loss1/drop_fc
I0403 16:46:41.426152 19233 net.cpp:425] loss1/drop_fc <- loss1/fc
I0403 16:46:41.426170 19233 net.cpp:386] loss1/drop_fc -> loss1/fc (in-place)
I0403 16:46:41.426218 19233 net.cpp:141] Setting up loss1/drop_fc
I0403 16:46:41.426239 19233 net.cpp:148] Top shape: 24 1024 (24576)
I0403 16:46:41.426252 19233 net.cpp:156] Memory required for data: 946189344
I0403 16:46:41.426267 19233 layer_factory.hpp:77] Creating layer loss1/classifier_plantvillage
I0403 16:46:41.426287 19233 net.cpp:91] Creating Layer loss1/classifier_plantvillage
I0403 16:46:41.426303 19233 net.cpp:425] loss1/classifier_plantvillage <- loss1/fc
I0403 16:46:41.426319 19233 net.cpp:399] loss1/classifier_plantvillage -> loss1/classifier_plantvillage
I0403 16:46:41.427184 19233 net.cpp:141] Setting up loss1/classifier_plantvillage
I0403 16:46:41.427211 19233 net.cpp:148] Top shape: 24 38 (912)
I0403 16:46:41.427225 19233 net.cpp:156] Memory required for data: 946192992
I0403 16:46:41.427242 19233 layer_factory.hpp:77] Creating layer loss1/classifier_plantvillage_loss1/classifier_plantvillage_0_split
I0403 16:46:41.427259 19233 net.cpp:91] Creating Layer loss1/classifier_plantvillage_loss1/classifier_plantvillage_0_split
I0403 16:46:41.427273 19233 net.cpp:425] loss1/classifier_plantvillage_loss1/classifier_plantvillage_0_split <- loss1/classifier_plantvillage
I0403 16:46:41.427289 19233 net.cpp:399] loss1/classifier_plantvillage_loss1/classifier_plantvillage_0_split -> loss1/classifier_plantvillage_loss1/classifier_plantvillage_0_split_0
I0403 16:46:41.427310 19233 net.cpp:399] loss1/classifier_plantvillage_loss1/classifier_plantvillage_0_split -> loss1/classifier_plantvillage_loss1/classifier_plantvillage_0_split_1
I0403 16:46:41.427331 19233 net.cpp:399] loss1/classifier_plantvillage_loss1/classifier_plantvillage_0_split -> loss1/classifier_plantvillage_loss1/classifier_plantvillage_0_split_2
I0403 16:46:41.427394 19233 net.cpp:141] Setting up loss1/classifier_plantvillage_loss1/classifier_plantvillage_0_split
I0403 16:46:41.427417 19233 net.cpp:148] Top shape: 24 38 (912)
I0403 16:46:41.427431 19233 net.cpp:148] Top shape: 24 38 (912)
I0403 16:46:41.427445 19233 net.cpp:148] Top shape: 24 38 (912)
I0403 16:46:41.427459 19233 net.cpp:156] Memory required for data: 946203936
I0403 16:46:41.427471 19233 layer_factory.hpp:77] Creating layer inception_4b/1x1
I0403 16:46:41.427490 19233 net.cpp:91] Creating Layer inception_4b/1x1
I0403 16:46:41.427520 19233 net.cpp:425] inception_4b/1x1 <- inception_4a/output_inception_4a/output_0_split_1
I0403 16:46:41.427542 19233 net.cpp:399] inception_4b/1x1 -> inception_4b/1x1
I0403 16:46:41.429113 19233 net.cpp:141] Setting up inception_4b/1x1
I0403 16:46:41.429141 19233 net.cpp:148] Top shape: 24 160 14 14 (752640)
I0403 16:46:41.429155 19233 net.cpp:156] Memory required for data: 949214496
I0403 16:46:41.429172 19233 layer_factory.hpp:77] Creating layer inception_4b/relu_1x1
I0403 16:46:41.429188 19233 net.cpp:91] Creating Layer inception_4b/relu_1x1
I0403 16:46:41.429203 19233 net.cpp:425] inception_4b/relu_1x1 <- inception_4b/1x1
I0403 16:46:41.429222 19233 net.cpp:386] inception_4b/relu_1x1 -> inception_4b/1x1 (in-place)
I0403 16:46:41.429394 19233 net.cpp:141] Setting up inception_4b/relu_1x1
I0403 16:46:41.429416 19233 net.cpp:148] Top shape: 24 160 14 14 (752640)
I0403 16:46:41.429430 19233 net.cpp:156] Memory required for data: 952225056
I0403 16:46:41.429445 19233 layer_factory.hpp:77] Creating layer inception_4b/3x3_reduce
I0403 16:46:41.429464 19233 net.cpp:91] Creating Layer inception_4b/3x3_reduce
I0403 16:46:41.429481 19233 net.cpp:425] inception_4b/3x3_reduce <- inception_4a/output_inception_4a/output_0_split_2
I0403 16:46:41.429502 19233 net.cpp:399] inception_4b/3x3_reduce -> inception_4b/3x3_reduce
I0403 16:46:41.430836 19233 net.cpp:141] Setting up inception_4b/3x3_reduce
I0403 16:46:41.430862 19233 net.cpp:148] Top shape: 24 112 14 14 (526848)
I0403 16:46:41.430877 19233 net.cpp:156] Memory required for data: 954332448
I0403 16:46:41.430894 19233 layer_factory.hpp:77] Creating layer inception_4b/relu_3x3_reduce
I0403 16:46:41.430914 19233 net.cpp:91] Creating Layer inception_4b/relu_3x3_reduce
I0403 16:46:41.430929 19233 net.cpp:425] inception_4b/relu_3x3_reduce <- inception_4b/3x3_reduce
I0403 16:46:41.430946 19233 net.cpp:386] inception_4b/relu_3x3_reduce -> inception_4b/3x3_reduce (in-place)
I0403 16:46:41.431216 19233 net.cpp:141] Setting up inception_4b/relu_3x3_reduce
I0403 16:46:41.431241 19233 net.cpp:148] Top shape: 24 112 14 14 (526848)
I0403 16:46:41.431254 19233 net.cpp:156] Memory required for data: 956439840
I0403 16:46:41.431267 19233 layer_factory.hpp:77] Creating layer inception_4b/3x3
I0403 16:46:41.431288 19233 net.cpp:91] Creating Layer inception_4b/3x3
I0403 16:46:41.431304 19233 net.cpp:425] inception_4b/3x3 <- inception_4b/3x3_reduce
I0403 16:46:41.431324 19233 net.cpp:399] inception_4b/3x3 -> inception_4b/3x3
I0403 16:46:41.434193 19233 net.cpp:141] Setting up inception_4b/3x3
I0403 16:46:41.434222 19233 net.cpp:148] Top shape: 24 224 14 14 (1053696)
I0403 16:46:41.434238 19233 net.cpp:156] Memory required for data: 960654624
I0403 16:46:41.434255 19233 layer_factory.hpp:77] Creating layer inception_4b/relu_3x3
I0403 16:46:41.434273 19233 net.cpp:91] Creating Layer inception_4b/relu_3x3
I0403 16:46:41.434288 19233 net.cpp:425] inception_4b/relu_3x3 <- inception_4b/3x3
I0403 16:46:41.434303 19233 net.cpp:386] inception_4b/relu_3x3 -> inception_4b/3x3 (in-place)
I0403 16:46:41.434475 19233 net.cpp:141] Setting up inception_4b/relu_3x3
I0403 16:46:41.434499 19233 net.cpp:148] Top shape: 24 224 14 14 (1053696)
I0403 16:46:41.434512 19233 net.cpp:156] Memory required for data: 964869408
I0403 16:46:41.434525 19233 layer_factory.hpp:77] Creating layer inception_4b/5x5_reduce
I0403 16:46:41.434547 19233 net.cpp:91] Creating Layer inception_4b/5x5_reduce
I0403 16:46:41.434563 19233 net.cpp:425] inception_4b/5x5_reduce <- inception_4a/output_inception_4a/output_0_split_3
I0403 16:46:41.434583 19233 net.cpp:399] inception_4b/5x5_reduce -> inception_4b/5x5_reduce
I0403 16:46:41.435626 19233 net.cpp:141] Setting up inception_4b/5x5_reduce
I0403 16:46:41.435652 19233 net.cpp:148] Top shape: 24 24 14 14 (112896)
I0403 16:46:41.435665 19233 net.cpp:156] Memory required for data: 965320992
I0403 16:46:41.435683 19233 layer_factory.hpp:77] Creating layer inception_4b/relu_5x5_reduce
I0403 16:46:41.435700 19233 net.cpp:91] Creating Layer inception_4b/relu_5x5_reduce
I0403 16:46:41.435730 19233 net.cpp:425] inception_4b/relu_5x5_reduce <- inception_4b/5x5_reduce
I0403 16:46:41.435747 19233 net.cpp:386] inception_4b/relu_5x5_reduce -> inception_4b/5x5_reduce (in-place)
I0403 16:46:41.435921 19233 net.cpp:141] Setting up inception_4b/relu_5x5_reduce
I0403 16:46:41.435945 19233 net.cpp:148] Top shape: 24 24 14 14 (112896)
I0403 16:46:41.435957 19233 net.cpp:156] Memory required for data: 965772576
I0403 16:46:41.435971 19233 layer_factory.hpp:77] Creating layer inception_4b/5x5
I0403 16:46:41.435992 19233 net.cpp:91] Creating Layer inception_4b/5x5
I0403 16:46:41.436009 19233 net.cpp:425] inception_4b/5x5 <- inception_4b/5x5_reduce
I0403 16:46:41.436028 19233 net.cpp:399] inception_4b/5x5 -> inception_4b/5x5
I0403 16:46:41.437228 19233 net.cpp:141] Setting up inception_4b/5x5
I0403 16:46:41.437255 19233 net.cpp:148] Top shape: 24 64 14 14 (301056)
I0403 16:46:41.437269 19233 net.cpp:156] Memory required for data: 966976800
I0403 16:46:41.437288 19233 layer_factory.hpp:77] Creating layer inception_4b/relu_5x5
I0403 16:46:41.437304 19233 net.cpp:91] Creating Layer inception_4b/relu_5x5
I0403 16:46:41.437319 19233 net.cpp:425] inception_4b/relu_5x5 <- inception_4b/5x5
I0403 16:46:41.437336 19233 net.cpp:386] inception_4b/relu_5x5 -> inception_4b/5x5 (in-place)
I0403 16:46:41.437631 19233 net.cpp:141] Setting up inception_4b/relu_5x5
I0403 16:46:41.437657 19233 net.cpp:148] Top shape: 24 64 14 14 (301056)
I0403 16:46:41.437672 19233 net.cpp:156] Memory required for data: 968181024
I0403 16:46:41.437687 19233 layer_factory.hpp:77] Creating layer inception_4b/pool
I0403 16:46:41.437705 19233 net.cpp:91] Creating Layer inception_4b/pool
I0403 16:46:41.437721 19233 net.cpp:425] inception_4b/pool <- inception_4a/output_inception_4a/output_0_split_4
I0403 16:46:41.437741 19233 net.cpp:399] inception_4b/pool -> inception_4b/pool
I0403 16:46:41.437804 19233 net.cpp:141] Setting up inception_4b/pool
I0403 16:46:41.437829 19233 net.cpp:148] Top shape: 24 512 14 14 (2408448)
I0403 16:46:41.437842 19233 net.cpp:156] Memory required for data: 977814816
I0403 16:46:41.437856 19233 layer_factory.hpp:77] Creating layer inception_4b/pool_proj
I0403 16:46:41.437880 19233 net.cpp:91] Creating Layer inception_4b/pool_proj
I0403 16:46:41.437908 19233 net.cpp:425] inception_4b/pool_proj <- inception_4b/pool
I0403 16:46:41.437925 19233 net.cpp:399] inception_4b/pool_proj -> inception_4b/pool_proj
I0403 16:46:41.439101 19233 net.cpp:141] Setting up inception_4b/pool_proj
I0403 16:46:41.439128 19233 net.cpp:148] Top shape: 24 64 14 14 (301056)
I0403 16:46:41.439143 19233 net.cpp:156] Memory required for data: 979019040
I0403 16:46:41.439162 19233 layer_factory.hpp:77] Creating layer inception_4b/relu_pool_proj
I0403 16:46:41.439180 19233 net.cpp:91] Creating Layer inception_4b/relu_pool_proj
I0403 16:46:41.439196 19233 net.cpp:425] inception_4b/relu_pool_proj <- inception_4b/pool_proj
I0403 16:46:41.439213 19233 net.cpp:386] inception_4b/relu_pool_proj -> inception_4b/pool_proj (in-place)
I0403 16:46:41.439388 19233 net.cpp:141] Setting up inception_4b/relu_pool_proj
I0403 16:46:41.439415 19233 net.cpp:148] Top shape: 24 64 14 14 (301056)
I0403 16:46:41.439429 19233 net.cpp:156] Memory required for data: 980223264
I0403 16:46:41.439445 19233 layer_factory.hpp:77] Creating layer inception_4b/output
I0403 16:46:41.439460 19233 net.cpp:91] Creating Layer inception_4b/output
I0403 16:46:41.439474 19233 net.cpp:425] inception_4b/output <- inception_4b/1x1
I0403 16:46:41.439491 19233 net.cpp:425] inception_4b/output <- inception_4b/3x3
I0403 16:46:41.439505 19233 net.cpp:425] inception_4b/output <- inception_4b/5x5
I0403 16:46:41.439520 19233 net.cpp:425] inception_4b/output <- inception_4b/pool_proj
I0403 16:46:41.439537 19233 net.cpp:399] inception_4b/output -> inception_4b/output
I0403 16:46:41.439581 19233 net.cpp:141] Setting up inception_4b/output
I0403 16:46:41.439607 19233 net.cpp:148] Top shape: 24 512 14 14 (2408448)
I0403 16:46:41.439622 19233 net.cpp:156] Memory required for data: 989857056
I0403 16:46:41.439651 19233 layer_factory.hpp:77] Creating layer inception_4b/output_inception_4b/output_0_split
I0403 16:46:41.439667 19233 net.cpp:91] Creating Layer inception_4b/output_inception_4b/output_0_split
I0403 16:46:41.439682 19233 net.cpp:425] inception_4b/output_inception_4b/output_0_split <- inception_4b/output
I0403 16:46:41.439702 19233 net.cpp:399] inception_4b/output_inception_4b/output_0_split -> inception_4b/output_inception_4b/output_0_split_0
I0403 16:46:41.439721 19233 net.cpp:399] inception_4b/output_inception_4b/output_0_split -> inception_4b/output_inception_4b/output_0_split_1
I0403 16:46:41.439741 19233 net.cpp:399] inception_4b/output_inception_4b/output_0_split -> inception_4b/output_inception_4b/output_0_split_2
I0403 16:46:41.439760 19233 net.cpp:399] inception_4b/output_inception_4b/output_0_split -> inception_4b/output_inception_4b/output_0_split_3
I0403 16:46:41.439847 19233 net.cpp:141] Setting up inception_4b/output_inception_4b/output_0_split
I0403 16:46:41.439869 19233 net.cpp:148] Top shape: 24 512 14 14 (2408448)
I0403 16:46:41.439884 19233 net.cpp:148] Top shape: 24 512 14 14 (2408448)
I0403 16:46:41.439899 19233 net.cpp:148] Top shape: 24 512 14 14 (2408448)
I0403 16:46:41.439913 19233 net.cpp:148] Top shape: 24 512 14 14 (2408448)
I0403 16:46:41.439926 19233 net.cpp:156] Memory required for data: 1028392224
I0403 16:46:41.439940 19233 layer_factory.hpp:77] Creating layer inception_4c/1x1
I0403 16:46:41.439962 19233 net.cpp:91] Creating Layer inception_4c/1x1
I0403 16:46:41.439980 19233 net.cpp:425] inception_4c/1x1 <- inception_4b/output_inception_4b/output_0_split_0
I0403 16:46:41.439998 19233 net.cpp:399] inception_4c/1x1 -> inception_4c/1x1
I0403 16:46:41.441395 19233 net.cpp:141] Setting up inception_4c/1x1
I0403 16:46:41.441426 19233 net.cpp:148] Top shape: 24 128 14 14 (602112)
I0403 16:46:41.441440 19233 net.cpp:156] Memory required for data: 1030800672
I0403 16:46:41.441458 19233 layer_factory.hpp:77] Creating layer inception_4c/relu_1x1
I0403 16:46:41.441475 19233 net.cpp:91] Creating Layer inception_4c/relu_1x1
I0403 16:46:41.441489 19233 net.cpp:425] inception_4c/relu_1x1 <- inception_4c/1x1
I0403 16:46:41.441505 19233 net.cpp:386] inception_4c/relu_1x1 -> inception_4c/1x1 (in-place)
I0403 16:46:41.441705 19233 net.cpp:141] Setting up inception_4c/relu_1x1
I0403 16:46:41.441732 19233 net.cpp:148] Top shape: 24 128 14 14 (602112)
I0403 16:46:41.441748 19233 net.cpp:156] Memory required for data: 1033209120
I0403 16:46:41.441763 19233 layer_factory.hpp:77] Creating layer inception_4c/3x3_reduce
I0403 16:46:41.441786 19233 net.cpp:91] Creating Layer inception_4c/3x3_reduce
I0403 16:46:41.441802 19233 net.cpp:425] inception_4c/3x3_reduce <- inception_4b/output_inception_4b/output_0_split_1
I0403 16:46:41.441823 19233 net.cpp:399] inception_4c/3x3_reduce -> inception_4c/3x3_reduce
I0403 16:46:41.443744 19233 net.cpp:141] Setting up inception_4c/3x3_reduce
I0403 16:46:41.443773 19233 net.cpp:148] Top shape: 24 128 14 14 (602112)
I0403 16:46:41.443788 19233 net.cpp:156] Memory required for data: 1035617568
I0403 16:46:41.443804 19233 layer_factory.hpp:77] Creating layer inception_4c/relu_3x3_reduce
I0403 16:46:41.443821 19233 net.cpp:91] Creating Layer inception_4c/relu_3x3_reduce
I0403 16:46:41.443840 19233 net.cpp:425] inception_4c/relu_3x3_reduce <- inception_4c/3x3_reduce
I0403 16:46:41.443856 19233 net.cpp:386] inception_4c/relu_3x3_reduce -> inception_4c/3x3_reduce (in-place)
I0403 16:46:41.444142 19233 net.cpp:141] Setting up inception_4c/relu_3x3_reduce
I0403 16:46:41.444169 19233 net.cpp:148] Top shape: 24 128 14 14 (602112)
I0403 16:46:41.444181 19233 net.cpp:156] Memory required for data: 1038026016
I0403 16:46:41.444195 19233 layer_factory.hpp:77] Creating layer inception_4c/3x3
I0403 16:46:41.444217 19233 net.cpp:91] Creating Layer inception_4c/3x3
I0403 16:46:41.444234 19233 net.cpp:425] inception_4c/3x3 <- inception_4c/3x3_reduce
I0403 16:46:41.444255 19233 net.cpp:399] inception_4c/3x3 -> inception_4c/3x3
I0403 16:46:41.447831 19233 net.cpp:141] Setting up inception_4c/3x3
I0403 16:46:41.447870 19233 net.cpp:148] Top shape: 24 256 14 14 (1204224)
I0403 16:46:41.447886 19233 net.cpp:156] Memory required for data: 1042842912
I0403 16:46:41.447917 19233 layer_factory.hpp:77] Creating layer inception_4c/relu_3x3
I0403 16:46:41.447937 19233 net.cpp:91] Creating Layer inception_4c/relu_3x3
I0403 16:46:41.447953 19233 net.cpp:425] inception_4c/relu_3x3 <- inception_4c/3x3
I0403 16:46:41.447974 19233 net.cpp:386] inception_4c/relu_3x3 -> inception_4c/3x3 (in-place)
I0403 16:46:41.448155 19233 net.cpp:141] Setting up inception_4c/relu_3x3
I0403 16:46:41.448179 19233 net.cpp:148] Top shape: 24 256 14 14 (1204224)
I0403 16:46:41.448192 19233 net.cpp:156] Memory required for data: 1047659808
I0403 16:46:41.448207 19233 layer_factory.hpp:77] Creating layer inception_4c/5x5_reduce
I0403 16:46:41.448228 19233 net.cpp:91] Creating Layer inception_4c/5x5_reduce
I0403 16:46:41.448245 19233 net.cpp:425] inception_4c/5x5_reduce <- inception_4b/output_inception_4b/output_0_split_2
I0403 16:46:41.448266 19233 net.cpp:399] inception_4c/5x5_reduce -> inception_4c/5x5_reduce
I0403 16:46:41.449342 19233 net.cpp:141] Setting up inception_4c/5x5_reduce
I0403 16:46:41.449368 19233 net.cpp:148] Top shape: 24 24 14 14 (112896)
I0403 16:46:41.449383 19233 net.cpp:156] Memory required for data: 1048111392
I0403 16:46:41.449400 19233 layer_factory.hpp:77] Creating layer inception_4c/relu_5x5_reduce
I0403 16:46:41.449419 19233 net.cpp:91] Creating Layer inception_4c/relu_5x5_reduce
I0403 16:46:41.449436 19233 net.cpp:425] inception_4c/relu_5x5_reduce <- inception_4c/5x5_reduce
I0403 16:46:41.449452 19233 net.cpp:386] inception_4c/relu_5x5_reduce -> inception_4c/5x5_reduce (in-place)
I0403 16:46:41.449651 19233 net.cpp:141] Setting up inception_4c/relu_5x5_reduce
I0403 16:46:41.449676 19233 net.cpp:148] Top shape: 24 24 14 14 (112896)
I0403 16:46:41.449689 19233 net.cpp:156] Memory required for data: 1048562976
I0403 16:46:41.449704 19233 layer_factory.hpp:77] Creating layer inception_4c/5x5
I0403 16:46:41.449728 19233 net.cpp:91] Creating Layer inception_4c/5x5
I0403 16:46:41.449744 19233 net.cpp:425] inception_4c/5x5 <- inception_4c/5x5_reduce
I0403 16:46:41.449762 19233 net.cpp:399] inception_4c/5x5 -> inception_4c/5x5
I0403 16:46:41.450999 19233 net.cpp:141] Setting up inception_4c/5x5
I0403 16:46:41.451025 19233 net.cpp:148] Top shape: 24 64 14 14 (301056)
I0403 16:46:41.451043 19233 net.cpp:156] Memory required for data: 1049767200
I0403 16:46:41.451061 19233 layer_factory.hpp:77] Creating layer inception_4c/relu_5x5
I0403 16:46:41.451078 19233 net.cpp:91] Creating Layer inception_4c/relu_5x5
I0403 16:46:41.451092 19233 net.cpp:425] inception_4c/relu_5x5 <- inception_4c/5x5
I0403 16:46:41.451108 19233 net.cpp:386] inception_4c/relu_5x5 -> inception_4c/5x5 (in-place)
I0403 16:46:41.451396 19233 net.cpp:141] Setting up inception_4c/relu_5x5
I0403 16:46:41.451421 19233 net.cpp:148] Top shape: 24 64 14 14 (301056)
I0403 16:46:41.451438 19233 net.cpp:156] Memory required for data: 1050971424
I0403 16:46:41.451453 19233 layer_factory.hpp:77] Creating layer inception_4c/pool
I0403 16:46:41.451469 19233 net.cpp:91] Creating Layer inception_4c/pool
I0403 16:46:41.451484 19233 net.cpp:425] inception_4c/pool <- inception_4b/output_inception_4b/output_0_split_3
I0403 16:46:41.451501 19233 net.cpp:399] inception_4c/pool -> inception_4c/pool
I0403 16:46:41.451565 19233 net.cpp:141] Setting up inception_4c/pool
I0403 16:46:41.451588 19233 net.cpp:148] Top shape: 24 512 14 14 (2408448)
I0403 16:46:41.451606 19233 net.cpp:156] Memory required for data: 1060605216
I0403 16:46:41.451622 19233 layer_factory.hpp:77] Creating layer inception_4c/pool_proj
I0403 16:46:41.451642 19233 net.cpp:91] Creating Layer inception_4c/pool_proj
I0403 16:46:41.451658 19233 net.cpp:425] inception_4c/pool_proj <- inception_4c/pool
I0403 16:46:41.451678 19233 net.cpp:399] inception_4c/pool_proj -> inception_4c/pool_proj
I0403 16:46:41.452877 19233 net.cpp:141] Setting up inception_4c/pool_proj
I0403 16:46:41.452904 19233 net.cpp:148] Top shape: 24 64 14 14 (301056)
I0403 16:46:41.452932 19233 net.cpp:156] Memory required for data: 1061809440
I0403 16:46:41.452951 19233 layer_factory.hpp:77] Creating layer inception_4c/relu_pool_proj
I0403 16:46:41.452970 19233 net.cpp:91] Creating Layer inception_4c/relu_pool_proj
I0403 16:46:41.452985 19233 net.cpp:425] inception_4c/relu_pool_proj <- inception_4c/pool_proj
I0403 16:46:41.453004 19233 net.cpp:386] inception_4c/relu_pool_proj -> inception_4c/pool_proj (in-place)
I0403 16:46:41.453183 19233 net.cpp:141] Setting up inception_4c/relu_pool_proj
I0403 16:46:41.453207 19233 net.cpp:148] Top shape: 24 64 14 14 (301056)
I0403 16:46:41.453222 19233 net.cpp:156] Memory required for data: 1063013664
I0403 16:46:41.453235 19233 layer_factory.hpp:77] Creating layer inception_4c/output
I0403 16:46:41.453254 19233 net.cpp:91] Creating Layer inception_4c/output
I0403 16:46:41.453271 19233 net.cpp:425] inception_4c/output <- inception_4c/1x1
I0403 16:46:41.453287 19233 net.cpp:425] inception_4c/output <- inception_4c/3x3
I0403 16:46:41.453304 19233 net.cpp:425] inception_4c/output <- inception_4c/5x5
I0403 16:46:41.453317 19233 net.cpp:425] inception_4c/output <- inception_4c/pool_proj
I0403 16:46:41.453333 19233 net.cpp:399] inception_4c/output -> inception_4c/output
I0403 16:46:41.453379 19233 net.cpp:141] Setting up inception_4c/output
I0403 16:46:41.453402 19233 net.cpp:148] Top shape: 24 512 14 14 (2408448)
I0403 16:46:41.453416 19233 net.cpp:156] Memory required for data: 1072647456
I0403 16:46:41.453430 19233 layer_factory.hpp:77] Creating layer inception_4c/output_inception_4c/output_0_split
I0403 16:46:41.453445 19233 net.cpp:91] Creating Layer inception_4c/output_inception_4c/output_0_split
I0403 16:46:41.453460 19233 net.cpp:425] inception_4c/output_inception_4c/output_0_split <- inception_4c/output
I0403 16:46:41.453479 19233 net.cpp:399] inception_4c/output_inception_4c/output_0_split -> inception_4c/output_inception_4c/output_0_split_0
I0403 16:46:41.453498 19233 net.cpp:399] inception_4c/output_inception_4c/output_0_split -> inception_4c/output_inception_4c/output_0_split_1
I0403 16:46:41.453518 19233 net.cpp:399] inception_4c/output_inception_4c/output_0_split -> inception_4c/output_inception_4c/output_0_split_2
I0403 16:46:41.453537 19233 net.cpp:399] inception_4c/output_inception_4c/output_0_split -> inception_4c/output_inception_4c/output_0_split_3
I0403 16:46:41.453639 19233 net.cpp:141] Setting up inception_4c/output_inception_4c/output_0_split
I0403 16:46:41.453662 19233 net.cpp:148] Top shape: 24 512 14 14 (2408448)
I0403 16:46:41.453678 19233 net.cpp:148] Top shape: 24 512 14 14 (2408448)
I0403 16:46:41.453693 19233 net.cpp:148] Top shape: 24 512 14 14 (2408448)
I0403 16:46:41.453708 19233 net.cpp:148] Top shape: 24 512 14 14 (2408448)
I0403 16:46:41.453722 19233 net.cpp:156] Memory required for data: 1111182624
I0403 16:46:41.453737 19233 layer_factory.hpp:77] Creating layer inception_4d/1x1
I0403 16:46:41.453758 19233 net.cpp:91] Creating Layer inception_4d/1x1
I0403 16:46:41.453776 19233 net.cpp:425] inception_4d/1x1 <- inception_4c/output_inception_4c/output_0_split_0
I0403 16:46:41.453797 19233 net.cpp:399] inception_4d/1x1 -> inception_4d/1x1
I0403 16:46:41.455159 19233 net.cpp:141] Setting up inception_4d/1x1
I0403 16:46:41.455186 19233 net.cpp:148] Top shape: 24 112 14 14 (526848)
I0403 16:46:41.455201 19233 net.cpp:156] Memory required for data: 1113290016
I0403 16:46:41.455219 19233 layer_factory.hpp:77] Creating layer inception_4d/relu_1x1
I0403 16:46:41.455235 19233 net.cpp:91] Creating Layer inception_4d/relu_1x1
I0403 16:46:41.455250 19233 net.cpp:425] inception_4d/relu_1x1 <- inception_4d/1x1
I0403 16:46:41.455268 19233 net.cpp:386] inception_4d/relu_1x1 -> inception_4d/1x1 (in-place)
I0403 16:46:41.455451 19233 net.cpp:141] Setting up inception_4d/relu_1x1
I0403 16:46:41.455473 19233 net.cpp:148] Top shape: 24 112 14 14 (526848)
I0403 16:46:41.455487 19233 net.cpp:156] Memory required for data: 1115397408
I0403 16:46:41.455499 19233 layer_factory.hpp:77] Creating layer inception_4d/3x3_reduce
I0403 16:46:41.455533 19233 net.cpp:91] Creating Layer inception_4d/3x3_reduce
I0403 16:46:41.455551 19233 net.cpp:425] inception_4d/3x3_reduce <- inception_4c/output_inception_4c/output_0_split_1
I0403 16:46:41.455571 19233 net.cpp:399] inception_4d/3x3_reduce -> inception_4d/3x3_reduce
I0403 16:46:41.457026 19233 net.cpp:141] Setting up inception_4d/3x3_reduce
I0403 16:46:41.457051 19233 net.cpp:148] Top shape: 24 144 14 14 (677376)
I0403 16:46:41.457065 19233 net.cpp:156] Memory required for data: 1118106912
I0403 16:46:41.457082 19233 layer_factory.hpp:77] Creating layer inception_4d/relu_3x3_reduce
I0403 16:46:41.457100 19233 net.cpp:91] Creating Layer inception_4d/relu_3x3_reduce
I0403 16:46:41.457118 19233 net.cpp:425] inception_4d/relu_3x3_reduce <- inception_4d/3x3_reduce
I0403 16:46:41.457134 19233 net.cpp:386] inception_4d/relu_3x3_reduce -> inception_4d/3x3_reduce (in-place)
I0403 16:46:41.457408 19233 net.cpp:141] Setting up inception_4d/relu_3x3_reduce
I0403 16:46:41.457432 19233 net.cpp:148] Top shape: 24 144 14 14 (677376)
I0403 16:46:41.457447 19233 net.cpp:156] Memory required for data: 1120816416
I0403 16:46:41.457459 19233 layer_factory.hpp:77] Creating layer inception_4d/3x3
I0403 16:46:41.457482 19233 net.cpp:91] Creating Layer inception_4d/3x3
I0403 16:46:41.457499 19233 net.cpp:425] inception_4d/3x3 <- inception_4d/3x3_reduce
I0403 16:46:41.457515 19233 net.cpp:399] inception_4d/3x3 -> inception_4d/3x3
I0403 16:46:41.461618 19233 net.cpp:141] Setting up inception_4d/3x3
I0403 16:46:41.461649 19233 net.cpp:148] Top shape: 24 288 14 14 (1354752)
I0403 16:46:41.461665 19233 net.cpp:156] Memory required for data: 1126235424
I0403 16:46:41.461683 19233 layer_factory.hpp:77] Creating layer inception_4d/relu_3x3
I0403 16:46:41.461700 19233 net.cpp:91] Creating Layer inception_4d/relu_3x3
I0403 16:46:41.461716 19233 net.cpp:425] inception_4d/relu_3x3 <- inception_4d/3x3
I0403 16:46:41.461735 19233 net.cpp:386] inception_4d/relu_3x3 -> inception_4d/3x3 (in-place)
I0403 16:46:41.461928 19233 net.cpp:141] Setting up inception_4d/relu_3x3
I0403 16:46:41.461951 19233 net.cpp:148] Top shape: 24 288 14 14 (1354752)
I0403 16:46:41.461966 19233 net.cpp:156] Memory required for data: 1131654432
I0403 16:46:41.461978 19233 layer_factory.hpp:77] Creating layer inception_4d/5x5_reduce
I0403 16:46:41.461998 19233 net.cpp:91] Creating Layer inception_4d/5x5_reduce
I0403 16:46:41.462015 19233 net.cpp:425] inception_4d/5x5_reduce <- inception_4c/output_inception_4c/output_0_split_2
I0403 16:46:41.462035 19233 net.cpp:399] inception_4d/5x5_reduce -> inception_4d/5x5_reduce
I0403 16:46:41.463160 19233 net.cpp:141] Setting up inception_4d/5x5_reduce
I0403 16:46:41.463186 19233 net.cpp:148] Top shape: 24 32 14 14 (150528)
I0403 16:46:41.463209 19233 net.cpp:156] Memory required for data: 1132256544
I0403 16:46:41.463225 19233 layer_factory.hpp:77] Creating layer inception_4d/relu_5x5_reduce
I0403 16:46:41.463243 19233 net.cpp:91] Creating Layer inception_4d/relu_5x5_reduce
I0403 16:46:41.463258 19233 net.cpp:425] inception_4d/relu_5x5_reduce <- inception_4d/5x5_reduce
I0403 16:46:41.463275 19233 net.cpp:386] inception_4d/relu_5x5_reduce -> inception_4d/5x5_reduce (in-place)
I0403 16:46:41.463464 19233 net.cpp:141] Setting up inception_4d/relu_5x5_reduce
I0403 16:46:41.463487 19233 net.cpp:148] Top shape: 24 32 14 14 (150528)
I0403 16:46:41.463501 19233 net.cpp:156] Memory required for data: 1132858656
I0403 16:46:41.463515 19233 layer_factory.hpp:77] Creating layer inception_4d/5x5
I0403 16:46:41.463534 19233 net.cpp:91] Creating Layer inception_4d/5x5
I0403 16:46:41.463551 19233 net.cpp:425] inception_4d/5x5 <- inception_4d/5x5_reduce
I0403 16:46:41.463570 19233 net.cpp:399] inception_4d/5x5 -> inception_4d/5x5
I0403 16:46:41.464990 19233 net.cpp:141] Setting up inception_4d/5x5
I0403 16:46:41.465016 19233 net.cpp:148] Top shape: 24 64 14 14 (301056)
I0403 16:46:41.465031 19233 net.cpp:156] Memory required for data: 1134062880
I0403 16:46:41.465049 19233 layer_factory.hpp:77] Creating layer inception_4d/relu_5x5
I0403 16:46:41.465081 19233 net.cpp:91] Creating Layer inception_4d/relu_5x5
I0403 16:46:41.465097 19233 net.cpp:425] inception_4d/relu_5x5 <- inception_4d/5x5
I0403 16:46:41.465113 19233 net.cpp:386] inception_4d/relu_5x5 -> inception_4d/5x5 (in-place)
I0403 16:46:41.465402 19233 net.cpp:141] Setting up inception_4d/relu_5x5
I0403 16:46:41.465426 19233 net.cpp:148] Top shape: 24 64 14 14 (301056)
I0403 16:46:41.465440 19233 net.cpp:156] Memory required for data: 1135267104
I0403 16:46:41.465454 19233 layer_factory.hpp:77] Creating layer inception_4d/pool
I0403 16:46:41.465472 19233 net.cpp:91] Creating Layer inception_4d/pool
I0403 16:46:41.465488 19233 net.cpp:425] inception_4d/pool <- inception_4c/output_inception_4c/output_0_split_3
I0403 16:46:41.465505 19233 net.cpp:399] inception_4d/pool -> inception_4d/pool
I0403 16:46:41.465569 19233 net.cpp:141] Setting up inception_4d/pool
I0403 16:46:41.465592 19233 net.cpp:148] Top shape: 24 512 14 14 (2408448)
I0403 16:46:41.465623 19233 net.cpp:156] Memory required for data: 1144900896
I0403 16:46:41.465638 19233 layer_factory.hpp:77] Creating layer inception_4d/pool_proj
I0403 16:46:41.465659 19233 net.cpp:91] Creating Layer inception_4d/pool_proj
I0403 16:46:41.465677 19233 net.cpp:425] inception_4d/pool_proj <- inception_4d/pool
I0403 16:46:41.465700 19233 net.cpp:399] inception_4d/pool_proj -> inception_4d/pool_proj
I0403 16:46:41.467412 19233 net.cpp:141] Setting up inception_4d/pool_proj
I0403 16:46:41.467442 19233 net.cpp:148] Top shape: 24 64 14 14 (301056)
I0403 16:46:41.467465 19233 net.cpp:156] Memory required for data: 1146105120
I0403 16:46:41.467483 19233 layer_factory.hpp:77] Creating layer inception_4d/relu_pool_proj
I0403 16:46:41.467499 19233 net.cpp:91] Creating Layer inception_4d/relu_pool_proj
I0403 16:46:41.467514 19233 net.cpp:425] inception_4d/relu_pool_proj <- inception_4d/pool_proj
I0403 16:46:41.467532 19233 net.cpp:386] inception_4d/relu_pool_proj -> inception_4d/pool_proj (in-place)
I0403 16:46:41.467713 19233 net.cpp:141] Setting up inception_4d/relu_pool_proj
I0403 16:46:41.467736 19233 net.cpp:148] Top shape: 24 64 14 14 (301056)
I0403 16:46:41.467761 19233 net.cpp:156] Memory required for data: 1147309344
I0403 16:46:41.467773 19233 layer_factory.hpp:77] Creating layer inception_4d/output
I0403 16:46:41.467790 19233 net.cpp:91] Creating Layer inception_4d/output
I0403 16:46:41.467804 19233 net.cpp:425] inception_4d/output <- inception_4d/1x1
I0403 16:46:41.467818 19233 net.cpp:425] inception_4d/output <- inception_4d/3x3
I0403 16:46:41.467833 19233 net.cpp:425] inception_4d/output <- inception_4d/5x5
I0403 16:46:41.467847 19233 net.cpp:425] inception_4d/output <- inception_4d/pool_proj
I0403 16:46:41.467865 19233 net.cpp:399] inception_4d/output -> inception_4d/output
I0403 16:46:41.467914 19233 net.cpp:141] Setting up inception_4d/output
I0403 16:46:41.467936 19233 net.cpp:148] Top shape: 24 528 14 14 (2483712)
I0403 16:46:41.467948 19233 net.cpp:156] Memory required for data: 1157244192
I0403 16:46:41.467962 19233 layer_factory.hpp:77] Creating layer inception_4d/output_inception_4d/output_0_split
I0403 16:46:41.467978 19233 net.cpp:91] Creating Layer inception_4d/output_inception_4d/output_0_split
I0403 16:46:41.467991 19233 net.cpp:425] inception_4d/output_inception_4d/output_0_split <- inception_4d/output
I0403 16:46:41.468011 19233 net.cpp:399] inception_4d/output_inception_4d/output_0_split -> inception_4d/output_inception_4d/output_0_split_0
I0403 16:46:41.468031 19233 net.cpp:399] inception_4d/output_inception_4d/output_0_split -> inception_4d/output_inception_4d/output_0_split_1
I0403 16:46:41.468050 19233 net.cpp:399] inception_4d/output_inception_4d/output_0_split -> inception_4d/output_inception_4d/output_0_split_2
I0403 16:46:41.468070 19233 net.cpp:399] inception_4d/output_inception_4d/output_0_split -> inception_4d/output_inception_4d/output_0_split_3
I0403 16:46:41.468088 19233 net.cpp:399] inception_4d/output_inception_4d/output_0_split -> inception_4d/output_inception_4d/output_0_split_4
I0403 16:46:41.468184 19233 net.cpp:141] Setting up inception_4d/output_inception_4d/output_0_split
I0403 16:46:41.468220 19233 net.cpp:148] Top shape: 24 528 14 14 (2483712)
I0403 16:46:41.468236 19233 net.cpp:148] Top shape: 24 528 14 14 (2483712)
I0403 16:46:41.468251 19233 net.cpp:148] Top shape: 24 528 14 14 (2483712)
I0403 16:46:41.468266 19233 net.cpp:148] Top shape: 24 528 14 14 (2483712)
I0403 16:46:41.468281 19233 net.cpp:148] Top shape: 24 528 14 14 (2483712)
I0403 16:46:41.468292 19233 net.cpp:156] Memory required for data: 1206918432
I0403 16:46:41.468305 19233 layer_factory.hpp:77] Creating layer loss2/ave_pool
I0403 16:46:41.468322 19233 net.cpp:91] Creating Layer loss2/ave_pool
I0403 16:46:41.468336 19233 net.cpp:425] loss2/ave_pool <- inception_4d/output_inception_4d/output_0_split_0
I0403 16:46:41.468356 19233 net.cpp:399] loss2/ave_pool -> loss2/ave_pool
I0403 16:46:41.468672 19233 net.cpp:141] Setting up loss2/ave_pool
I0403 16:46:41.468698 19233 net.cpp:148] Top shape: 24 528 4 4 (202752)
I0403 16:46:41.468713 19233 net.cpp:156] Memory required for data: 1207729440
I0403 16:46:41.468726 19233 layer_factory.hpp:77] Creating layer loss2/conv
I0403 16:46:41.468756 19233 net.cpp:91] Creating Layer loss2/conv
I0403 16:46:41.468772 19233 net.cpp:425] loss2/conv <- loss2/ave_pool
I0403 16:46:41.468791 19233 net.cpp:399] loss2/conv -> loss2/conv
I0403 16:46:41.470654 19233 net.cpp:141] Setting up loss2/conv
I0403 16:46:41.470679 19233 net.cpp:148] Top shape: 24 128 4 4 (49152)
I0403 16:46:41.470695 19233 net.cpp:156] Memory required for data: 1207926048
I0403 16:46:41.470712 19233 layer_factory.hpp:77] Creating layer loss2/relu_conv
I0403 16:46:41.470731 19233 net.cpp:91] Creating Layer loss2/relu_conv
I0403 16:46:41.470746 19233 net.cpp:425] loss2/relu_conv <- loss2/conv
I0403 16:46:41.470767 19233 net.cpp:386] loss2/relu_conv -> loss2/conv (in-place)
I0403 16:46:41.471042 19233 net.cpp:141] Setting up loss2/relu_conv
I0403 16:46:41.471067 19233 net.cpp:148] Top shape: 24 128 4 4 (49152)
I0403 16:46:41.471082 19233 net.cpp:156] Memory required for data: 1208122656
I0403 16:46:41.471096 19233 layer_factory.hpp:77] Creating layer loss2/fc
I0403 16:46:41.471117 19233 net.cpp:91] Creating Layer loss2/fc
I0403 16:46:41.471132 19233 net.cpp:425] loss2/fc <- loss2/conv
I0403 16:46:41.471151 19233 net.cpp:399] loss2/fc -> loss2/fc
I0403 16:46:41.488716 19233 net.cpp:141] Setting up loss2/fc
I0403 16:46:41.488747 19233 net.cpp:148] Top shape: 24 1024 (24576)
I0403 16:46:41.488761 19233 net.cpp:156] Memory required for data: 1208220960
I0403 16:46:41.488778 19233 layer_factory.hpp:77] Creating layer loss2/relu_fc
I0403 16:46:41.488795 19233 net.cpp:91] Creating Layer loss2/relu_fc
I0403 16:46:41.488819 19233 net.cpp:425] loss2/relu_fc <- loss2/fc
I0403 16:46:41.488837 19233 net.cpp:386] loss2/relu_fc -> loss2/fc (in-place)
I0403 16:46:41.489128 19233 net.cpp:141] Setting up loss2/relu_fc
I0403 16:46:41.489152 19233 net.cpp:148] Top shape: 24 1024 (24576)
I0403 16:46:41.489166 19233 net.cpp:156] Memory required for data: 1208319264
I0403 16:46:41.489179 19233 layer_factory.hpp:77] Creating layer loss2/drop_fc
I0403 16:46:41.489197 19233 net.cpp:91] Creating Layer loss2/drop_fc
I0403 16:46:41.489210 19233 net.cpp:425] loss2/drop_fc <- loss2/fc
I0403 16:46:41.489229 19233 net.cpp:386] loss2/drop_fc -> loss2/fc (in-place)
I0403 16:46:41.489275 19233 net.cpp:141] Setting up loss2/drop_fc
I0403 16:46:41.489298 19233 net.cpp:148] Top shape: 24 1024 (24576)
I0403 16:46:41.489312 19233 net.cpp:156] Memory required for data: 1208417568
I0403 16:46:41.489336 19233 layer_factory.hpp:77] Creating layer loss2/classifier_plantvillage
I0403 16:46:41.489352 19233 net.cpp:91] Creating Layer loss2/classifier_plantvillage
I0403 16:46:41.489368 19233 net.cpp:425] loss2/classifier_plantvillage <- loss2/fc
I0403 16:46:41.489388 19233 net.cpp:399] loss2/classifier_plantvillage -> loss2/classifier_plantvillage
I0403 16:46:41.489796 19233 net.cpp:141] Setting up loss2/classifier_plantvillage
I0403 16:46:41.489820 19233 net.cpp:148] Top shape: 24 38 (912)
I0403 16:46:41.489850 19233 net.cpp:156] Memory required for data: 1208421216
I0403 16:46:41.489868 19233 layer_factory.hpp:77] Creating layer loss2/classifier_plantvillage_loss2/classifier_plantvillage_0_split
I0403 16:46:41.489888 19233 net.cpp:91] Creating Layer loss2/classifier_plantvillage_loss2/classifier_plantvillage_0_split
I0403 16:46:41.489917 19233 net.cpp:425] loss2/classifier_plantvillage_loss2/classifier_plantvillage_0_split <- loss2/classifier_plantvillage
I0403 16:46:41.489934 19233 net.cpp:399] loss2/classifier_plantvillage_loss2/classifier_plantvillage_0_split -> loss2/classifier_plantvillage_loss2/classifier_plantvillage_0_split_0
I0403 16:46:41.489953 19233 net.cpp:399] loss2/classifier_plantvillage_loss2/classifier_plantvillage_0_split -> loss2/classifier_plantvillage_loss2/classifier_plantvillage_0_split_1
I0403 16:46:41.489975 19233 net.cpp:399] loss2/classifier_plantvillage_loss2/classifier_plantvillage_0_split -> loss2/classifier_plantvillage_loss2/classifier_plantvillage_0_split_2
I0403 16:46:41.490048 19233 net.cpp:141] Setting up loss2/classifier_plantvillage_loss2/classifier_plantvillage_0_split
I0403 16:46:41.490070 19233 net.cpp:148] Top shape: 24 38 (912)
I0403 16:46:41.490085 19233 net.cpp:148] Top shape: 24 38 (912)
I0403 16:46:41.490098 19233 net.cpp:148] Top shape: 24 38 (912)
I0403 16:46:41.490111 19233 net.cpp:156] Memory required for data: 1208432160
I0403 16:46:41.490124 19233 layer_factory.hpp:77] Creating layer inception_4e/1x1
I0403 16:46:41.490144 19233 net.cpp:91] Creating Layer inception_4e/1x1
I0403 16:46:41.490160 19233 net.cpp:425] inception_4e/1x1 <- inception_4d/output_inception_4d/output_0_split_1
I0403 16:46:41.490178 19233 net.cpp:399] inception_4e/1x1 -> inception_4e/1x1
I0403 16:46:41.491945 19233 net.cpp:141] Setting up inception_4e/1x1
I0403 16:46:41.491971 19233 net.cpp:148] Top shape: 24 256 14 14 (1204224)
I0403 16:46:41.491986 19233 net.cpp:156] Memory required for data: 1213249056
I0403 16:46:41.492002 19233 layer_factory.hpp:77] Creating layer inception_4e/relu_1x1
I0403 16:46:41.492022 19233 net.cpp:91] Creating Layer inception_4e/relu_1x1
I0403 16:46:41.492038 19233 net.cpp:425] inception_4e/relu_1x1 <- inception_4e/1x1
I0403 16:46:41.492053 19233 net.cpp:386] inception_4e/relu_1x1 -> inception_4e/1x1 (in-place)
I0403 16:46:41.492336 19233 net.cpp:141] Setting up inception_4e/relu_1x1
I0403 16:46:41.492359 19233 net.cpp:148] Top shape: 24 256 14 14 (1204224)
I0403 16:46:41.492372 19233 net.cpp:156] Memory required for data: 1218065952
I0403 16:46:41.492386 19233 layer_factory.hpp:77] Creating layer inception_4e/3x3_reduce
I0403 16:46:41.492408 19233 net.cpp:91] Creating Layer inception_4e/3x3_reduce
I0403 16:46:41.492424 19233 net.cpp:425] inception_4e/3x3_reduce <- inception_4d/output_inception_4d/output_0_split_2
I0403 16:46:41.492446 19233 net.cpp:399] inception_4e/3x3_reduce -> inception_4e/3x3_reduce
I0403 16:46:41.494519 19233 net.cpp:141] Setting up inception_4e/3x3_reduce
I0403 16:46:41.494547 19233 net.cpp:148] Top shape: 24 160 14 14 (752640)
I0403 16:46:41.494561 19233 net.cpp:156] Memory required for data: 1221076512
I0403 16:46:41.494578 19233 layer_factory.hpp:77] Creating layer inception_4e/relu_3x3_reduce
I0403 16:46:41.494606 19233 net.cpp:91] Creating Layer inception_4e/relu_3x3_reduce
I0403 16:46:41.494626 19233 net.cpp:425] inception_4e/relu_3x3_reduce <- inception_4e/3x3_reduce
I0403 16:46:41.494642 19233 net.cpp:386] inception_4e/relu_3x3_reduce -> inception_4e/3x3_reduce (in-place)
I0403 16:46:41.494818 19233 net.cpp:141] Setting up inception_4e/relu_3x3_reduce
I0403 16:46:41.494844 19233 net.cpp:148] Top shape: 24 160 14 14 (752640)
I0403 16:46:41.494859 19233 net.cpp:156] Memory required for data: 1224087072
I0403 16:46:41.494874 19233 layer_factory.hpp:77] Creating layer inception_4e/3x3
I0403 16:46:41.494894 19233 net.cpp:91] Creating Layer inception_4e/3x3
I0403 16:46:41.494910 19233 net.cpp:425] inception_4e/3x3 <- inception_4e/3x3_reduce
I0403 16:46:41.494928 19233 net.cpp:399] inception_4e/3x3 -> inception_4e/3x3
I0403 16:46:41.499781 19233 net.cpp:141] Setting up inception_4e/3x3
I0403 16:46:41.499825 19233 net.cpp:148] Top shape: 24 320 14 14 (1505280)
I0403 16:46:41.499841 19233 net.cpp:156] Memory required for data: 1230108192
I0403 16:46:41.499860 19233 layer_factory.hpp:77] Creating layer inception_4e/relu_3x3
I0403 16:46:41.499876 19233 net.cpp:91] Creating Layer inception_4e/relu_3x3
I0403 16:46:41.499904 19233 net.cpp:425] inception_4e/relu_3x3 <- inception_4e/3x3
I0403 16:46:41.499920 19233 net.cpp:386] inception_4e/relu_3x3 -> inception_4e/3x3 (in-place)
I0403 16:46:41.500208 19233 net.cpp:141] Setting up inception_4e/relu_3x3
I0403 16:46:41.500233 19233 net.cpp:148] Top shape: 24 320 14 14 (1505280)
I0403 16:46:41.500247 19233 net.cpp:156] Memory required for data: 1236129312
I0403 16:46:41.500262 19233 layer_factory.hpp:77] Creating layer inception_4e/5x5_reduce
I0403 16:46:41.500283 19233 net.cpp:91] Creating Layer inception_4e/5x5_reduce
I0403 16:46:41.500300 19233 net.cpp:425] inception_4e/5x5_reduce <- inception_4d/output_inception_4d/output_0_split_3
I0403 16:46:41.500320 19233 net.cpp:399] inception_4e/5x5_reduce -> inception_4e/5x5_reduce
I0403 16:46:41.501384 19233 net.cpp:141] Setting up inception_4e/5x5_reduce
I0403 16:46:41.501410 19233 net.cpp:148] Top shape: 24 32 14 14 (150528)
I0403 16:46:41.501423 19233 net.cpp:156] Memory required for data: 1236731424
I0403 16:46:41.501440 19233 layer_factory.hpp:77] Creating layer inception_4e/relu_5x5_reduce
I0403 16:46:41.501458 19233 net.cpp:91] Creating Layer inception_4e/relu_5x5_reduce
I0403 16:46:41.501474 19233 net.cpp:425] inception_4e/relu_5x5_reduce <- inception_4e/5x5_reduce
I0403 16:46:41.501490 19233 net.cpp:386] inception_4e/relu_5x5_reduce -> inception_4e/5x5_reduce (in-place)
I0403 16:46:41.501801 19233 net.cpp:141] Setting up inception_4e/relu_5x5_reduce
I0403 16:46:41.501826 19233 net.cpp:148] Top shape: 24 32 14 14 (150528)
I0403 16:46:41.501839 19233 net.cpp:156] Memory required for data: 1237333536
I0403 16:46:41.501853 19233 layer_factory.hpp:77] Creating layer inception_4e/5x5
I0403 16:46:41.501891 19233 net.cpp:91] Creating Layer inception_4e/5x5
I0403 16:46:41.501922 19233 net.cpp:425] inception_4e/5x5 <- inception_4e/5x5_reduce
I0403 16:46:41.501940 19233 net.cpp:399] inception_4e/5x5 -> inception_4e/5x5
I0403 16:46:41.503715 19233 net.cpp:141] Setting up inception_4e/5x5
I0403 16:46:41.503741 19233 net.cpp:148] Top shape: 24 128 14 14 (602112)
I0403 16:46:41.503756 19233 net.cpp:156] Memory required for data: 1239741984
I0403 16:46:41.503774 19233 layer_factory.hpp:77] Creating layer inception_4e/relu_5x5
I0403 16:46:41.503793 19233 net.cpp:91] Creating Layer inception_4e/relu_5x5
I0403 16:46:41.503810 19233 net.cpp:425] inception_4e/relu_5x5 <- inception_4e/5x5
I0403 16:46:41.503826 19233 net.cpp:386] inception_4e/relu_5x5 -> inception_4e/5x5 (in-place)
I0403 16:46:41.504029 19233 net.cpp:141] Setting up inception_4e/relu_5x5
I0403 16:46:41.504053 19233 net.cpp:148] Top shape: 24 128 14 14 (602112)
I0403 16:46:41.504066 19233 net.cpp:156] Memory required for data: 1242150432
I0403 16:46:41.504081 19233 layer_factory.hpp:77] Creating layer inception_4e/pool
I0403 16:46:41.504099 19233 net.cpp:91] Creating Layer inception_4e/pool
I0403 16:46:41.504115 19233 net.cpp:425] inception_4e/pool <- inception_4d/output_inception_4d/output_0_split_4
I0403 16:46:41.504133 19233 net.cpp:399] inception_4e/pool -> inception_4e/pool
I0403 16:46:41.504200 19233 net.cpp:141] Setting up inception_4e/pool
I0403 16:46:41.504222 19233 net.cpp:148] Top shape: 24 528 14 14 (2483712)
I0403 16:46:41.504236 19233 net.cpp:156] Memory required for data: 1252085280
I0403 16:46:41.504250 19233 layer_factory.hpp:77] Creating layer inception_4e/pool_proj
I0403 16:46:41.504271 19233 net.cpp:91] Creating Layer inception_4e/pool_proj
I0403 16:46:41.504287 19233 net.cpp:425] inception_4e/pool_proj <- inception_4e/pool
I0403 16:46:41.504307 19233 net.cpp:399] inception_4e/pool_proj -> inception_4e/pool_proj
I0403 16:46:41.505779 19233 net.cpp:141] Setting up inception_4e/pool_proj
I0403 16:46:41.505816 19233 net.cpp:148] Top shape: 24 128 14 14 (602112)
I0403 16:46:41.505832 19233 net.cpp:156] Memory required for data: 1254493728
I0403 16:46:41.505849 19233 layer_factory.hpp:77] Creating layer inception_4e/relu_pool_proj
I0403 16:46:41.505867 19233 net.cpp:91] Creating Layer inception_4e/relu_pool_proj
I0403 16:46:41.505883 19233 net.cpp:425] inception_4e/relu_pool_proj <- inception_4e/pool_proj
I0403 16:46:41.505913 19233 net.cpp:386] inception_4e/relu_pool_proj -> inception_4e/pool_proj (in-place)
I0403 16:46:41.506203 19233 net.cpp:141] Setting up inception_4e/relu_pool_proj
I0403 16:46:41.506228 19233 net.cpp:148] Top shape: 24 128 14 14 (602112)
I0403 16:46:41.506242 19233 net.cpp:156] Memory required for data: 1256902176
I0403 16:46:41.506256 19233 layer_factory.hpp:77] Creating layer inception_4e/output
I0403 16:46:41.506271 19233 net.cpp:91] Creating Layer inception_4e/output
I0403 16:46:41.506285 19233 net.cpp:425] inception_4e/output <- inception_4e/1x1
I0403 16:46:41.506301 19233 net.cpp:425] inception_4e/output <- inception_4e/3x3
I0403 16:46:41.506315 19233 net.cpp:425] inception_4e/output <- inception_4e/5x5
I0403 16:46:41.506330 19233 net.cpp:425] inception_4e/output <- inception_4e/pool_proj
I0403 16:46:41.506347 19233 net.cpp:399] inception_4e/output -> inception_4e/output
I0403 16:46:41.506394 19233 net.cpp:141] Setting up inception_4e/output
I0403 16:46:41.506417 19233 net.cpp:148] Top shape: 24 832 14 14 (3913728)
I0403 16:46:41.506429 19233 net.cpp:156] Memory required for data: 1272557088
I0403 16:46:41.506443 19233 layer_factory.hpp:77] Creating layer pool4/3x3_s2
I0403 16:46:41.506461 19233 net.cpp:91] Creating Layer pool4/3x3_s2
I0403 16:46:41.506476 19233 net.cpp:425] pool4/3x3_s2 <- inception_4e/output
I0403 16:46:41.506494 19233 net.cpp:399] pool4/3x3_s2 -> pool4/3x3_s2
I0403 16:46:41.506561 19233 net.cpp:141] Setting up pool4/3x3_s2
I0403 16:46:41.506583 19233 net.cpp:148] Top shape: 24 832 7 7 (978432)
I0403 16:46:41.506597 19233 net.cpp:156] Memory required for data: 1276470816
I0403 16:46:41.506615 19233 layer_factory.hpp:77] Creating layer pool4/3x3_s2_pool4/3x3_s2_0_split
I0403 16:46:41.506633 19233 net.cpp:91] Creating Layer pool4/3x3_s2_pool4/3x3_s2_0_split
I0403 16:46:41.506649 19233 net.cpp:425] pool4/3x3_s2_pool4/3x3_s2_0_split <- pool4/3x3_s2
I0403 16:46:41.506665 19233 net.cpp:399] pool4/3x3_s2_pool4/3x3_s2_0_split -> pool4/3x3_s2_pool4/3x3_s2_0_split_0
I0403 16:46:41.506685 19233 net.cpp:399] pool4/3x3_s2_pool4/3x3_s2_0_split -> pool4/3x3_s2_pool4/3x3_s2_0_split_1
I0403 16:46:41.506702 19233 net.cpp:399] pool4/3x3_s2_pool4/3x3_s2_0_split -> pool4/3x3_s2_pool4/3x3_s2_0_split_2
I0403 16:46:41.506721 19233 net.cpp:399] pool4/3x3_s2_pool4/3x3_s2_0_split -> pool4/3x3_s2_pool4/3x3_s2_0_split_3
I0403 16:46:41.506808 19233 net.cpp:141] Setting up pool4/3x3_s2_pool4/3x3_s2_0_split
I0403 16:46:41.506830 19233 net.cpp:148] Top shape: 24 832 7 7 (978432)
I0403 16:46:41.506844 19233 net.cpp:148] Top shape: 24 832 7 7 (978432)
I0403 16:46:41.506858 19233 net.cpp:148] Top shape: 24 832 7 7 (978432)
I0403 16:46:41.506871 19233 net.cpp:148] Top shape: 24 832 7 7 (978432)
I0403 16:46:41.506883 19233 net.cpp:156] Memory required for data: 1292125728
I0403 16:46:41.506896 19233 layer_factory.hpp:77] Creating layer inception_5a/1x1
I0403 16:46:41.506917 19233 net.cpp:91] Creating Layer inception_5a/1x1
I0403 16:46:41.506933 19233 net.cpp:425] inception_5a/1x1 <- pool4/3x3_s2_pool4/3x3_s2_0_split_0
I0403 16:46:41.506953 19233 net.cpp:399] inception_5a/1x1 -> inception_5a/1x1
I0403 16:46:41.509737 19233 net.cpp:141] Setting up inception_5a/1x1
I0403 16:46:41.509765 19233 net.cpp:148] Top shape: 24 256 7 7 (301056)
I0403 16:46:41.509780 19233 net.cpp:156] Memory required for data: 1293329952
I0403 16:46:41.509798 19233 layer_factory.hpp:77] Creating layer inception_5a/relu_1x1
I0403 16:46:41.509817 19233 net.cpp:91] Creating Layer inception_5a/relu_1x1
I0403 16:46:41.509834 19233 net.cpp:425] inception_5a/relu_1x1 <- inception_5a/1x1
I0403 16:46:41.509850 19233 net.cpp:386] inception_5a/relu_1x1 -> inception_5a/1x1 (in-place)
I0403 16:46:41.510164 19233 net.cpp:141] Setting up inception_5a/relu_1x1
I0403 16:46:41.510188 19233 net.cpp:148] Top shape: 24 256 7 7 (301056)
I0403 16:46:41.510202 19233 net.cpp:156] Memory required for data: 1294534176
I0403 16:46:41.510216 19233 layer_factory.hpp:77] Creating layer inception_5a/3x3_reduce
I0403 16:46:41.510236 19233 net.cpp:91] Creating Layer inception_5a/3x3_reduce
I0403 16:46:41.510252 19233 net.cpp:425] inception_5a/3x3_reduce <- pool4/3x3_s2_pool4/3x3_s2_0_split_1
I0403 16:46:41.510273 19233 net.cpp:399] inception_5a/3x3_reduce -> inception_5a/3x3_reduce
I0403 16:46:41.512671 19233 net.cpp:141] Setting up inception_5a/3x3_reduce
I0403 16:46:41.512701 19233 net.cpp:148] Top shape: 24 160 7 7 (188160)
I0403 16:46:41.512717 19233 net.cpp:156] Memory required for data: 1295286816
I0403 16:46:41.512734 19233 layer_factory.hpp:77] Creating layer inception_5a/relu_3x3_reduce
I0403 16:46:41.512750 19233 net.cpp:91] Creating Layer inception_5a/relu_3x3_reduce
I0403 16:46:41.512765 19233 net.cpp:425] inception_5a/relu_3x3_reduce <- inception_5a/3x3_reduce
I0403 16:46:41.512784 19233 net.cpp:386] inception_5a/relu_3x3_reduce -> inception_5a/3x3_reduce (in-place)
I0403 16:46:41.512964 19233 net.cpp:141] Setting up inception_5a/relu_3x3_reduce
I0403 16:46:41.512986 19233 net.cpp:148] Top shape: 24 160 7 7 (188160)
I0403 16:46:41.513000 19233 net.cpp:156] Memory required for data: 1296039456
I0403 16:46:41.513015 19233 layer_factory.hpp:77] Creating layer inception_5a/3x3
I0403 16:46:41.513036 19233 net.cpp:91] Creating Layer inception_5a/3x3
I0403 16:46:41.513052 19233 net.cpp:425] inception_5a/3x3 <- inception_5a/3x3_reduce
I0403 16:46:41.513073 19233 net.cpp:399] inception_5a/3x3 -> inception_5a/3x3
I0403 16:46:41.517985 19233 net.cpp:141] Setting up inception_5a/3x3
I0403 16:46:41.518013 19233 net.cpp:148] Top shape: 24 320 7 7 (376320)
I0403 16:46:41.518028 19233 net.cpp:156] Memory required for data: 1297544736
I0403 16:46:41.518044 19233 layer_factory.hpp:77] Creating layer inception_5a/relu_3x3
I0403 16:46:41.518064 19233 net.cpp:91] Creating Layer inception_5a/relu_3x3
I0403 16:46:41.518079 19233 net.cpp:425] inception_5a/relu_3x3 <- inception_5a/3x3
I0403 16:46:41.518095 19233 net.cpp:386] inception_5a/relu_3x3 -> inception_5a/3x3 (in-place)
I0403 16:46:41.518393 19233 net.cpp:141] Setting up inception_5a/relu_3x3
I0403 16:46:41.518419 19233 net.cpp:148] Top shape: 24 320 7 7 (376320)
I0403 16:46:41.518432 19233 net.cpp:156] Memory required for data: 1299050016
I0403 16:46:41.518446 19233 layer_factory.hpp:77] Creating layer inception_5a/5x5_reduce
I0403 16:46:41.518467 19233 net.cpp:91] Creating Layer inception_5a/5x5_reduce
I0403 16:46:41.518484 19233 net.cpp:425] inception_5a/5x5_reduce <- pool4/3x3_s2_pool4/3x3_s2_0_split_2
I0403 16:46:41.518507 19233 net.cpp:399] inception_5a/5x5_reduce -> inception_5a/5x5_reduce
I0403 16:46:41.519665 19233 net.cpp:141] Setting up inception_5a/5x5_reduce
I0403 16:46:41.519691 19233 net.cpp:148] Top shape: 24 32 7 7 (37632)
I0403 16:46:41.519706 19233 net.cpp:156] Memory required for data: 1299200544
I0403 16:46:41.519724 19233 layer_factory.hpp:77] Creating layer inception_5a/relu_5x5_reduce
I0403 16:46:41.519747 19233 net.cpp:91] Creating Layer inception_5a/relu_5x5_reduce
I0403 16:46:41.519763 19233 net.cpp:425] inception_5a/relu_5x5_reduce <- inception_5a/5x5_reduce
I0403 16:46:41.519780 19233 net.cpp:386] inception_5a/relu_5x5_reduce -> inception_5a/5x5_reduce (in-place)
I0403 16:46:41.520087 19233 net.cpp:141] Setting up inception_5a/relu_5x5_reduce
I0403 16:46:41.520110 19233 net.cpp:148] Top shape: 24 32 7 7 (37632)
I0403 16:46:41.520124 19233 net.cpp:156] Memory required for data: 1299351072
I0403 16:46:41.520139 19233 layer_factory.hpp:77] Creating layer inception_5a/5x5
I0403 16:46:41.520160 19233 net.cpp:91] Creating Layer inception_5a/5x5
I0403 16:46:41.520176 19233 net.cpp:425] inception_5a/5x5 <- inception_5a/5x5_reduce
I0403 16:46:41.520195 19233 net.cpp:399] inception_5a/5x5 -> inception_5a/5x5
I0403 16:46:41.521879 19233 net.cpp:141] Setting up inception_5a/5x5
I0403 16:46:41.521929 19233 net.cpp:148] Top shape: 24 128 7 7 (150528)
I0403 16:46:41.521944 19233 net.cpp:156] Memory required for data: 1299953184
I0403 16:46:41.521960 19233 layer_factory.hpp:77] Creating layer inception_5a/relu_5x5
I0403 16:46:41.521981 19233 net.cpp:91] Creating Layer inception_5a/relu_5x5
I0403 16:46:41.521996 19233 net.cpp:425] inception_5a/relu_5x5 <- inception_5a/5x5
I0403 16:46:41.522012 19233 net.cpp:386] inception_5a/relu_5x5 -> inception_5a/5x5 (in-place)
I0403 16:46:41.522195 19233 net.cpp:141] Setting up inception_5a/relu_5x5
I0403 16:46:41.522219 19233 net.cpp:148] Top shape: 24 128 7 7 (150528)
I0403 16:46:41.522233 19233 net.cpp:156] Memory required for data: 1300555296
I0403 16:46:41.522246 19233 layer_factory.hpp:77] Creating layer inception_5a/pool
I0403 16:46:41.522266 19233 net.cpp:91] Creating Layer inception_5a/pool
I0403 16:46:41.522281 19233 net.cpp:425] inception_5a/pool <- pool4/3x3_s2_pool4/3x3_s2_0_split_3
I0403 16:46:41.522299 19233 net.cpp:399] inception_5a/pool -> inception_5a/pool
I0403 16:46:41.522367 19233 net.cpp:141] Setting up inception_5a/pool
I0403 16:46:41.522389 19233 net.cpp:148] Top shape: 24 832 7 7 (978432)
I0403 16:46:41.522403 19233 net.cpp:156] Memory required for data: 1304469024
I0403 16:46:41.522415 19233 layer_factory.hpp:77] Creating layer inception_5a/pool_proj
I0403 16:46:41.522436 19233 net.cpp:91] Creating Layer inception_5a/pool_proj
I0403 16:46:41.522452 19233 net.cpp:425] inception_5a/pool_proj <- inception_5a/pool
I0403 16:46:41.522471 19233 net.cpp:399] inception_5a/pool_proj -> inception_5a/pool_proj
I0403 16:46:41.524724 19233 net.cpp:141] Setting up inception_5a/pool_proj
I0403 16:46:41.524755 19233 net.cpp:148] Top shape: 24 128 7 7 (150528)
I0403 16:46:41.524770 19233 net.cpp:156] Memory required for data: 1305071136
I0403 16:46:41.524786 19233 layer_factory.hpp:77] Creating layer inception_5a/relu_pool_proj
I0403 16:46:41.524803 19233 net.cpp:91] Creating Layer inception_5a/relu_pool_proj
I0403 16:46:41.524818 19233 net.cpp:425] inception_5a/relu_pool_proj <- inception_5a/pool_proj
I0403 16:46:41.524837 19233 net.cpp:386] inception_5a/relu_pool_proj -> inception_5a/pool_proj (in-place)
I0403 16:46:41.525122 19233 net.cpp:141] Setting up inception_5a/relu_pool_proj
I0403 16:46:41.525147 19233 net.cpp:148] Top shape: 24 128 7 7 (150528)
I0403 16:46:41.525161 19233 net.cpp:156] Memory required for data: 1305673248
I0403 16:46:41.525174 19233 layer_factory.hpp:77] Creating layer inception_5a/output
I0403 16:46:41.525190 19233 net.cpp:91] Creating Layer inception_5a/output
I0403 16:46:41.525205 19233 net.cpp:425] inception_5a/output <- inception_5a/1x1
I0403 16:46:41.525220 19233 net.cpp:425] inception_5a/output <- inception_5a/3x3
I0403 16:46:41.525235 19233 net.cpp:425] inception_5a/output <- inception_5a/5x5
I0403 16:46:41.525249 19233 net.cpp:425] inception_5a/output <- inception_5a/pool_proj
I0403 16:46:41.525269 19233 net.cpp:399] inception_5a/output -> inception_5a/output
I0403 16:46:41.525315 19233 net.cpp:141] Setting up inception_5a/output
I0403 16:46:41.525339 19233 net.cpp:148] Top shape: 24 832 7 7 (978432)
I0403 16:46:41.525354 19233 net.cpp:156] Memory required for data: 1309586976
I0403 16:46:41.525368 19233 layer_factory.hpp:77] Creating layer inception_5a/output_inception_5a/output_0_split
I0403 16:46:41.525384 19233 net.cpp:91] Creating Layer inception_5a/output_inception_5a/output_0_split
I0403 16:46:41.525398 19233 net.cpp:425] inception_5a/output_inception_5a/output_0_split <- inception_5a/output
I0403 16:46:41.525415 19233 net.cpp:399] inception_5a/output_inception_5a/output_0_split -> inception_5a/output_inception_5a/output_0_split_0
I0403 16:46:41.525434 19233 net.cpp:399] inception_5a/output_inception_5a/output_0_split -> inception_5a/output_inception_5a/output_0_split_1
I0403 16:46:41.525454 19233 net.cpp:399] inception_5a/output_inception_5a/output_0_split -> inception_5a/output_inception_5a/output_0_split_2
I0403 16:46:41.525475 19233 net.cpp:399] inception_5a/output_inception_5a/output_0_split -> inception_5a/output_inception_5a/output_0_split_3
I0403 16:46:41.525586 19233 net.cpp:141] Setting up inception_5a/output_inception_5a/output_0_split
I0403 16:46:41.525624 19233 net.cpp:148] Top shape: 24 832 7 7 (978432)
I0403 16:46:41.525641 19233 net.cpp:148] Top shape: 24 832 7 7 (978432)
I0403 16:46:41.525655 19233 net.cpp:148] Top shape: 24 832 7 7 (978432)
I0403 16:46:41.525671 19233 net.cpp:148] Top shape: 24 832 7 7 (978432)
I0403 16:46:41.525683 19233 net.cpp:156] Memory required for data: 1325241888
I0403 16:46:41.525697 19233 layer_factory.hpp:77] Creating layer inception_5b/1x1
I0403 16:46:41.525718 19233 net.cpp:91] Creating Layer inception_5b/1x1
I0403 16:46:41.525735 19233 net.cpp:425] inception_5b/1x1 <- inception_5a/output_inception_5a/output_0_split_0
I0403 16:46:41.525755 19233 net.cpp:399] inception_5b/1x1 -> inception_5b/1x1
I0403 16:46:41.529407 19233 net.cpp:141] Setting up inception_5b/1x1
I0403 16:46:41.529438 19233 net.cpp:148] Top shape: 24 384 7 7 (451584)
I0403 16:46:41.529454 19233 net.cpp:156] Memory required for data: 1327048224
I0403 16:46:41.529471 19233 layer_factory.hpp:77] Creating layer inception_5b/relu_1x1
I0403 16:46:41.529489 19233 net.cpp:91] Creating Layer inception_5b/relu_1x1
I0403 16:46:41.529503 19233 net.cpp:425] inception_5b/relu_1x1 <- inception_5b/1x1
I0403 16:46:41.529521 19233 net.cpp:386] inception_5b/relu_1x1 -> inception_5b/1x1 (in-place)
I0403 16:46:41.529837 19233 net.cpp:141] Setting up inception_5b/relu_1x1
I0403 16:46:41.529865 19233 net.cpp:148] Top shape: 24 384 7 7 (451584)
I0403 16:46:41.529881 19233 net.cpp:156] Memory required for data: 1328854560
I0403 16:46:41.529906 19233 layer_factory.hpp:77] Creating layer inception_5b/3x3_reduce
I0403 16:46:41.529927 19233 net.cpp:91] Creating Layer inception_5b/3x3_reduce
I0403 16:46:41.529942 19233 net.cpp:425] inception_5b/3x3_reduce <- inception_5a/output_inception_5a/output_0_split_1
I0403 16:46:41.529960 19233 net.cpp:399] inception_5b/3x3_reduce -> inception_5b/3x3_reduce
I0403 16:46:41.532552 19233 net.cpp:141] Setting up inception_5b/3x3_reduce
I0403 16:46:41.532580 19233 net.cpp:148] Top shape: 24 192 7 7 (225792)
I0403 16:46:41.532594 19233 net.cpp:156] Memory required for data: 1329757728
I0403 16:46:41.532629 19233 layer_factory.hpp:77] Creating layer inception_5b/relu_3x3_reduce
I0403 16:46:41.532646 19233 net.cpp:91] Creating Layer inception_5b/relu_3x3_reduce
I0403 16:46:41.532662 19233 net.cpp:425] inception_5b/relu_3x3_reduce <- inception_5b/3x3_reduce
I0403 16:46:41.532681 19233 net.cpp:386] inception_5b/relu_3x3_reduce -> inception_5b/3x3_reduce (in-place)
I0403 16:46:41.532871 19233 net.cpp:141] Setting up inception_5b/relu_3x3_reduce
I0403 16:46:41.532894 19233 net.cpp:148] Top shape: 24 192 7 7 (225792)
I0403 16:46:41.532919 19233 net.cpp:156] Memory required for data: 1330660896
I0403 16:46:41.532933 19233 layer_factory.hpp:77] Creating layer inception_5b/3x3
I0403 16:46:41.532954 19233 net.cpp:91] Creating Layer inception_5b/3x3
I0403 16:46:41.532971 19233 net.cpp:425] inception_5b/3x3 <- inception_5b/3x3_reduce
I0403 16:46:41.532991 19233 net.cpp:399] inception_5b/3x3 -> inception_5b/3x3
I0403 16:46:41.539822 19233 net.cpp:141] Setting up inception_5b/3x3
I0403 16:46:41.539851 19233 net.cpp:148] Top shape: 24 384 7 7 (451584)
I0403 16:46:41.539878 19233 net.cpp:156] Memory required for data: 1332467232
I0403 16:46:41.539896 19233 layer_factory.hpp:77] Creating layer inception_5b/relu_3x3
I0403 16:46:41.539914 19233 net.cpp:91] Creating Layer inception_5b/relu_3x3
I0403 16:46:41.539930 19233 net.cpp:425] inception_5b/relu_3x3 <- inception_5b/3x3
I0403 16:46:41.539949 19233 net.cpp:386] inception_5b/relu_3x3 -> inception_5b/3x3 (in-place)
I0403 16:46:41.540244 19233 net.cpp:141] Setting up inception_5b/relu_3x3
I0403 16:46:41.540271 19233 net.cpp:148] Top shape: 24 384 7 7 (451584)
I0403 16:46:41.540285 19233 net.cpp:156] Memory required for data: 1334273568
I0403 16:46:41.540299 19233 layer_factory.hpp:77] Creating layer inception_5b/5x5_reduce
I0403 16:46:41.540336 19233 net.cpp:91] Creating Layer inception_5b/5x5_reduce
I0403 16:46:41.540354 19233 net.cpp:425] inception_5b/5x5_reduce <- inception_5a/output_inception_5a/output_0_split_2
I0403 16:46:41.540377 19233 net.cpp:399] inception_5b/5x5_reduce -> inception_5b/5x5_reduce
I0403 16:46:41.541661 19233 net.cpp:141] Setting up inception_5b/5x5_reduce
I0403 16:46:41.541690 19233 net.cpp:148] Top shape: 24 48 7 7 (56448)
I0403 16:46:41.541705 19233 net.cpp:156] Memory required for data: 1334499360
I0403 16:46:41.541723 19233 layer_factory.hpp:77] Creating layer inception_5b/relu_5x5_reduce
I0403 16:46:41.541741 19233 net.cpp:91] Creating Layer inception_5b/relu_5x5_reduce
I0403 16:46:41.541757 19233 net.cpp:425] inception_5b/relu_5x5_reduce <- inception_5b/5x5_reduce
I0403 16:46:41.541776 19233 net.cpp:386] inception_5b/relu_5x5_reduce -> inception_5b/5x5_reduce (in-place)
I0403 16:46:41.542158 19233 net.cpp:141] Setting up inception_5b/relu_5x5_reduce
I0403 16:46:41.542184 19233 net.cpp:148] Top shape: 24 48 7 7 (56448)
I0403 16:46:41.542198 19233 net.cpp:156] Memory required for data: 1334725152
I0403 16:46:41.542212 19233 layer_factory.hpp:77] Creating layer inception_5b/5x5
I0403 16:46:41.542232 19233 net.cpp:91] Creating Layer inception_5b/5x5
I0403 16:46:41.542248 19233 net.cpp:425] inception_5b/5x5 <- inception_5b/5x5_reduce
I0403 16:46:41.542268 19233 net.cpp:399] inception_5b/5x5 -> inception_5b/5x5
I0403 16:46:41.544328 19233 net.cpp:141] Setting up inception_5b/5x5
I0403 16:46:41.544355 19233 net.cpp:148] Top shape: 24 128 7 7 (150528)
I0403 16:46:41.544370 19233 net.cpp:156] Memory required for data: 1335327264
I0403 16:46:41.544389 19233 layer_factory.hpp:77] Creating layer inception_5b/relu_5x5
I0403 16:46:41.544416 19233 net.cpp:91] Creating Layer inception_5b/relu_5x5
I0403 16:46:41.544432 19233 net.cpp:425] inception_5b/relu_5x5 <- inception_5b/5x5
I0403 16:46:41.544448 19233 net.cpp:386] inception_5b/relu_5x5 -> inception_5b/5x5 (in-place)
I0403 16:46:41.544652 19233 net.cpp:141] Setting up inception_5b/relu_5x5
I0403 16:46:41.544677 19233 net.cpp:148] Top shape: 24 128 7 7 (150528)
I0403 16:46:41.544694 19233 net.cpp:156] Memory required for data: 1335929376
I0403 16:46:41.544709 19233 layer_factory.hpp:77] Creating layer inception_5b/pool
I0403 16:46:41.544725 19233 net.cpp:91] Creating Layer inception_5b/pool
I0403 16:46:41.544741 19233 net.cpp:425] inception_5b/pool <- inception_5a/output_inception_5a/output_0_split_3
I0403 16:46:41.544759 19233 net.cpp:399] inception_5b/pool -> inception_5b/pool
I0403 16:46:41.544831 19233 net.cpp:141] Setting up inception_5b/pool
I0403 16:46:41.544853 19233 net.cpp:148] Top shape: 24 832 7 7 (978432)
I0403 16:46:41.544867 19233 net.cpp:156] Memory required for data: 1339843104
I0403 16:46:41.544881 19233 layer_factory.hpp:77] Creating layer inception_5b/pool_proj
I0403 16:46:41.544901 19233 net.cpp:91] Creating Layer inception_5b/pool_proj
I0403 16:46:41.544919 19233 net.cpp:425] inception_5b/pool_proj <- inception_5b/pool
I0403 16:46:41.544940 19233 net.cpp:399] inception_5b/pool_proj -> inception_5b/pool_proj
I0403 16:46:41.547246 19233 net.cpp:141] Setting up inception_5b/pool_proj
I0403 16:46:41.547276 19233 net.cpp:148] Top shape: 24 128 7 7 (150528)
I0403 16:46:41.547291 19233 net.cpp:156] Memory required for data: 1340445216
I0403 16:46:41.547308 19233 layer_factory.hpp:77] Creating layer inception_5b/relu_pool_proj
I0403 16:46:41.547325 19233 net.cpp:91] Creating Layer inception_5b/relu_pool_proj
I0403 16:46:41.547344 19233 net.cpp:425] inception_5b/relu_pool_proj <- inception_5b/pool_proj
I0403 16:46:41.547361 19233 net.cpp:386] inception_5b/relu_pool_proj -> inception_5b/pool_proj (in-place)
I0403 16:46:41.547675 19233 net.cpp:141] Setting up inception_5b/relu_pool_proj
I0403 16:46:41.547701 19233 net.cpp:148] Top shape: 24 128 7 7 (150528)
I0403 16:46:41.547716 19233 net.cpp:156] Memory required for data: 1341047328
I0403 16:46:41.547730 19233 layer_factory.hpp:77] Creating layer inception_5b/output
I0403 16:46:41.547747 19233 net.cpp:91] Creating Layer inception_5b/output
I0403 16:46:41.547777 19233 net.cpp:425] inception_5b/output <- inception_5b/1x1
I0403 16:46:41.547796 19233 net.cpp:425] inception_5b/output <- inception_5b/3x3
I0403 16:46:41.547811 19233 net.cpp:425] inception_5b/output <- inception_5b/5x5
I0403 16:46:41.547827 19233 net.cpp:425] inception_5b/output <- inception_5b/pool_proj
I0403 16:46:41.547847 19233 net.cpp:399] inception_5b/output -> inception_5b/output
I0403 16:46:41.547909 19233 net.cpp:141] Setting up inception_5b/output
I0403 16:46:41.547935 19233 net.cpp:148] Top shape: 24 1024 7 7 (1204224)
I0403 16:46:41.547950 19233 net.cpp:156] Memory required for data: 1345864224
I0403 16:46:41.547963 19233 layer_factory.hpp:77] Creating layer pool5/7x7_s1
I0403 16:46:41.547979 19233 net.cpp:91] Creating Layer pool5/7x7_s1
I0403 16:46:41.547994 19233 net.cpp:425] pool5/7x7_s1 <- inception_5b/output
I0403 16:46:41.548014 19233 net.cpp:399] pool5/7x7_s1 -> pool5/7x7_s1
I0403 16:46:41.548228 19233 net.cpp:141] Setting up pool5/7x7_s1
I0403 16:46:41.548252 19233 net.cpp:148] Top shape: 24 1024 1 1 (24576)
I0403 16:46:41.548267 19233 net.cpp:156] Memory required for data: 1345962528
I0403 16:46:41.548281 19233 layer_factory.hpp:77] Creating layer pool5/drop_7x7_s1
I0403 16:46:41.548298 19233 net.cpp:91] Creating Layer pool5/drop_7x7_s1
I0403 16:46:41.548313 19233 net.cpp:425] pool5/drop_7x7_s1 <- pool5/7x7_s1
I0403 16:46:41.548332 19233 net.cpp:386] pool5/drop_7x7_s1 -> pool5/7x7_s1 (in-place)
I0403 16:46:41.548382 19233 net.cpp:141] Setting up pool5/drop_7x7_s1
I0403 16:46:41.548405 19233 net.cpp:148] Top shape: 24 1024 1 1 (24576)
I0403 16:46:41.548419 19233 net.cpp:156] Memory required for data: 1346060832
I0403 16:46:41.548434 19233 layer_factory.hpp:77] Creating layer loss3/classifier_plantvillage
I0403 16:46:41.548451 19233 net.cpp:91] Creating Layer loss3/classifier_plantvillage
I0403 16:46:41.548467 19233 net.cpp:425] loss3/classifier_plantvillage <- pool5/7x7_s1
I0403 16:46:41.548486 19233 net.cpp:399] loss3/classifier_plantvillage -> loss3/classifier_plantvillage
I0403 16:46:41.548910 19233 net.cpp:141] Setting up loss3/classifier_plantvillage
I0403 16:46:41.548936 19233 net.cpp:148] Top shape: 24 38 (912)
I0403 16:46:41.548951 19233 net.cpp:156] Memory required for data: 1346064480
I0403 16:46:41.548969 19233 layer_factory.hpp:77] Creating layer loss3/classifier_plantvillage_loss3/classifier_plantvillage_0_split
I0403 16:46:41.548985 19233 net.cpp:91] Creating Layer loss3/classifier_plantvillage_loss3/classifier_plantvillage_0_split
I0403 16:46:41.549000 19233 net.cpp:425] loss3/classifier_plantvillage_loss3/classifier_plantvillage_0_split <- loss3/classifier_plantvillage
I0403 16:46:41.549016 19233 net.cpp:399] loss3/classifier_plantvillage_loss3/classifier_plantvillage_0_split -> loss3/classifier_plantvillage_loss3/classifier_plantvillage_0_split_0
I0403 16:46:41.549036 19233 net.cpp:399] loss3/classifier_plantvillage_loss3/classifier_plantvillage_0_split -> loss3/classifier_plantvillage_loss3/classifier_plantvillage_0_split_1
I0403 16:46:41.549057 19233 net.cpp:399] loss3/classifier_plantvillage_loss3/classifier_plantvillage_0_split -> loss3/classifier_plantvillage_loss3/classifier_plantvillage_0_split_2
I0403 16:46:41.549078 19233 net.cpp:399] loss3/classifier_plantvillage_loss3/classifier_plantvillage_0_split -> loss3/classifier_plantvillage_loss3/classifier_plantvillage_0_split_3
I0403 16:46:41.549180 19233 net.cpp:141] Setting up loss3/classifier_plantvillage_loss3/classifier_plantvillage_0_split
I0403 16:46:41.549202 19233 net.cpp:148] Top shape: 24 38 (912)
I0403 16:46:41.549218 19233 net.cpp:148] Top shape: 24 38 (912)
I0403 16:46:41.549232 19233 net.cpp:148] Top shape: 24 38 (912)
I0403 16:46:41.549247 19233 net.cpp:148] Top shape: 24 38 (912)
I0403 16:46:41.549260 19233 net.cpp:156] Memory required for data: 1346079072
I0403 16:46:41.549273 19233 layer_factory.hpp:77] Creating layer loss1/loss
I0403 16:46:41.549296 19233 net.cpp:91] Creating Layer loss1/loss
I0403 16:46:41.549314 19233 net.cpp:425] loss1/loss <- loss1/classifier_plantvillage_loss1/classifier_plantvillage_0_split_0
I0403 16:46:41.549343 19233 net.cpp:425] loss1/loss <- label_data_1_split_0
…
