…
I0403 15:54:34.387480 16322 net.cpp:313] The NetState phase (1) differed from the phase (0) specified by a rule in layer data
I0403 15:54:34.388571 16322 net.cpp:49] Initializing net from parameters: 
state {
  phase: TEST
}
layer {
  name: "data"
  type: "Data"
  top: "data"
  top: "label"
  include {
    phase: TEST
  }
  transform_param {
    mirror: false
    crop_size: 224
    mean_file: "/home/mohanty/data/final_dataset/lmdb/segmented-20-80/mean.binaryproto"
  }
  data_param {
    source: "/home/mohanty/data/final_dataset/lmdb/segmented-20-80/test_db"
    batch_size: 24
    backend: LMDB
  }
}
layer {
  name: "conv1/7x7_s2"
  type: "Convolution"
  bottom: "data"
  top: "conv1/7x7_s2"
  param {
    lr_mult: 1
    decay_mult: 1
  }
  param {
    lr_mult: 2
    decay_mult: 0
  }
  convolution_param {
    num_output: 64
    pad: 3
    kernel_size: 7
    stride: 2
    weight_filler {
      type: "xavier"
      std: 0.1
    }
    bias_filler {
      type: "constant"
      value: 0.2
    }
  }
}
layer {
  name: "conv1/relu_7x7"
  type: "ReLU"
  bottom: "conv1/7x7_s2"
  top: "conv1/7x7_s2"
}
layer {
  name: "pool1/3x3_s2"
  type: "Pooling"
  bottom: "conv1/7x7_s2"
  top: "pool1/3x3_s2"
  pooling_param {
    pool: MAX
    kernel_size: 3
    stride: 2
  }
}
layer {
  name: "pool1/norm1"
  type: "LRN"
  bottom: "pool1/3x3_s2"
  top: "pool1/norm1"
  lrn_param {
    local_size: 5
    alpha: 0.0001
    beta: 0.75
  }
}
layer {
  name: "conv2/3x3_reduce"
  type: "Convolution"
  bottom: "pool1/norm1"
  top: "conv2/3x3_reduce"
  param {
    lr_mult: 1
    decay_mult: 1
  }
  param {
    lr_mult: 2
    decay_mult: 0
  }
  convolution_param {
    num_output: 64
    kernel_size: 1
    weight_filler {
      type: "xavier"
      std: 0.1
    }
    bias_filler {
      type: "constant"
      value: 0.2
    }
  }
}
layer {
  name: "conv2/relu_3x3_reduce"
  type: "ReLU"
  bottom: "conv2/3x3_reduce"
  top: "conv2/3x3_reduce"
}
layer {
  name: "conv2/3x3"
  type: "Convolution"
  bottom: "conv2/3x3_reduce"
  top: "conv2/3x3"
  param {
    lr_mult: 1
    decay_mult: 1
  }
  param {
    lr_mult: 2
    decay_mult: 0
  }
  convolution_param {
    num_output: 192
    pad: 1
    kernel_size: 3
    weight_filler {
      type: "xavier"
      std: 0.03
    }
    bias_filler {
      type: "constant"
      value: 0.2
    }
  }
}
layer {
  name: "conv2/relu_3x3"
  type: "ReLU"
  bottom: "conv2/3x3"
  top: "conv2/3x3"
}
layer {
  name: "conv2/norm2"
  type: "LRN"
  bottom: "conv2/3x3"
  top: "conv2/norm2"
  lrn_param {
    local_size: 5
    alpha: 0.0001
    beta: 0.75
  }
}
layer {
  name: "pool2/3x3_s2"
  type: "Pooling"
  bottom: "conv2/norm2"
  top: "pool2/3x3_s2"
  pooling_param {
    pool: MAX
    kernel_size: 3
    stride: 2
  }
}
layer {
  name: "inception_3a/1x1"
  type: "Convolution"
  bottom: "pool2/3x3_s2"
  top: "inception_3a/1x1"
  param {
    lr_mult: 1
    decay_mult: 1
  }
  param {
    lr_mult: 2
    decay_mult: 0
  }
  convolution_param {
    num_output: 64
    kernel_size: 1
    weight_filler {
      type: "xavier"
      std: 0.03
    }
    bias_filler {
      type: "constant"
      value: 0.2
    }
  }
}
layer {
  name: "inception_3a/relu_1x1"
  type: "ReLU"
  bottom: "inception_3a/1x1"
  top: "inception_3a/1x1"
}
layer {
  name: "inception_3a/3x3_reduce"
  type: "Convolution"
  bottom: "pool2/3x3_s2"
  top: "inception_3a/3x3_reduce"
  param {
    lr_mult: 1
    decay_mult: 1
  }
  param {
    lr_mult: 2
    decay_mult: 0
  }
  convolution_param {
    num_output: 96
    kernel_size: 1
    weight_filler {
      type: "xavier"
      std: 0.09
    }
    bias_filler {
      type: "constant"
      value: 0.2
    }
  }
}
layer {
  name: "inception_3a/relu_3x3_reduce"
  type: "ReLU"
  bottom: "inception_3a/3x3_reduce"
  top: "inception_3a/3x3_reduce"
}
layer {
  name: "inception_3a/3x3"
  type: "Convolution"
  bottom: "inception_3a/3x3_reduce"
  top: "inception_3a/3x3"
  param {
    lr_mult: 1
    decay_mult: 1
  }
  param {
    lr_mult: 2
    decay_mult: 0
  }
  convolution_param {
    num_output: 128
    pad: 1
    kernel_size: 3
    weight_filler {
      type: "xavier"
      std: 0.03
    }
    bias_filler {
      type: "constant"
      value: 0.2
    }
  }
}
layer {
  name: "inception_3a/relu_3x3"
  type: "ReLU"
  bottom: "inception_3a/3x3"
  top: "inception_3a/3x3"
}
layer {
  name: "inception_3a/5x5_reduce"
  type: "Convolution"
  bottom: "pool2/3x3_s2"
  top: "inception_3a/5x5_reduce"
  param {
    lr_mult: 1
    decay_mult: 1
  }
  param {
    lr_mult: 2
    decay_mult: 0
  }
  convolution_param {
    num_output: 16
    kernel_size: 1
    weight_filler {
      type: "xavier"
      std: 0.2
    }
    bias_filler {
      type: "constant"
      value: 0.2
    }
  }
}
layer {
  name: "inception_3a/relu_5x5_reduce"
  type: "ReLU"
  bottom: "inception_3a/5x5_reduce"
  top: "inception_3a/5x5_reduce"
}
layer {
  name: "inception_3a/5x5"
  type: "Convolution"
  bottom: "inception_3a/5x5_reduce"
  top: "inception_3a/5x5"
  param {
    lr_mult: 1
    decay_mult: 1
  }
  param {
    lr_mult: 2
    decay_mult: 0
  }
  convolution_param {
    num_output: 32
    pad: 2
    kernel_size: 5
    weight_filler {
      type: "xavier"
      std: 0.03
    }
    bias_filler {
      type: "constant"
      value: 0.2
    }
  }
}
layer {
  name: "inception_3a/relu_5x5"
  type: "ReLU"
  bottom: "inception_3a/5x5"
  top: "inception_3a/5x5"
}
layer {
  name: "inception_3a/pool"
  type: "Pooling"
  bottom: "pool2/3x3_s2"
  top: "inception_3a/pool"
  pooling_param {
    pool: MAX
    kernel_size: 3
    stride: 1
    pad: 1
  }
}
layer {
  name: "inception_3a/pool_proj"
  type: "Convolution"
  bottom: "inception_3a/pool"
  top: "inception_3a/pool_proj"
  param {
    lr_mult: 1
    decay_mult: 1
  }
  param {
    lr_mult: 2
    decay_mult: 0
  }
  convolution_param {
    num_output: 32
    kernel_size: 1
    weight_filler {
      type: "xavier"
      std: 0.1
    }
    bias_filler {
      type: "constant"
      value: 0.2
    }
  }
}
layer {
  name: "inception_3a/relu_pool_proj"
  type: "ReLU"
  bottom: "inception_3a/pool_proj"
  top: "inception_3a/pool_proj"
}
layer {
  name: "inception_3a/output"
  type: "Concat"
  bottom: "inception_3a/1x1"
  bottom: "inception_3a/3x3"
  bottom: "inception_3a/5x5"
  bottom: "inception_3a/pool_proj"
  top: "inception_3a/output"
}
layer {
  name: "inception_3b/1x1"
  type: "Convolution"
  bottom: "inception_3a/output"
  top: "inception_3b/1x1"
  param {
    lr_mult: 1
    decay_mult: 1
  }
  param {
    lr_mult: 2
    decay_mult: 0
  }
  convolution_param {
    num_output: 128
    kernel_size: 1
    weight_filler {
      type: "xavier"
      std: 0.03
    }
    bias_filler {
      type: "constant"
      value: 0.2
    }
  }
}
layer {
  name: "inception_3b/relu_1x1"
  type: "ReLU"
  bottom: "inception_3b/1x1"
  top: "inception_3b/1x1"
}
layer {
  name: "inception_3b/3x3_reduce"
  type: "Convolution"
  bottom: "inception_3a/output"
  top: "inception_3b/3x3_reduce"
  param {
    lr_mult: 1
    decay_mult: 1
  }
  param {
    lr_mult: 2
    decay_mult: 0
  }
  convolution_param {
    num_output: 128
    kernel_size: 1
    weight_filler {
      type: "xavier"
      std: 0.09
    }
    bias_filler {
      type: "constant"
      value: 0.2
    }
  }
}
layer {
  name: "inception_3b/relu_3x3_reduce"
  type: "ReLU"
  bottom: "inception_3b/3x3_reduce"
  top: "inception_3b/3x3_reduce"
}
layer {
  name: "inception_3b/3x3"
  type: "Convolution"
  bottom: "inception_3b/3x3_reduce"
  top: "inception_3b/3x3"
  param {
    lr_mult: 1
    decay_mult: 1
  }
  param {
    lr_mult: 2
    decay_mult: 0
  }
  convolution_param {
    num_output: 192
    pad: 1
    kernel_size: 3
    weight_filler {
      type: "xavier"
      std: 0.03
    }
    bias_filler {
      type: "constant"
      value: 0.2
    }
  }
}
layer {
  name: "inception_3b/relu_3x3"
  type: "ReLU"
  bottom: "inception_3b/3x3"
  top: "inception_3b/3x3"
}
layer {
  name: "inception_3b/5x5_reduce"
  type: "Convolution"
  bottom: "inception_3a/output"
  top: "inception_3b/5x5_reduce"
  param {
    lr_mult: 1
    decay_mult: 1
  }
  param {
    lr_mult: 2
    decay_mult: 0
  }
  convolution_param {
    num_output: 32
    kernel_size: 1
    weight_filler {
      type: "xavier"
      std: 0.2
    }
    bias_filler {
      type: "constant"
      value: 0.2
    }
  }
}
layer {
  name: "inception_3b/relu_5x5_reduce"
  type: "ReLU"
  bottom: "inception_3b/5x5_reduce"
  top: "inception_3b/5x5_reduce"
}
layer {
  name: "inception_3b/5x5"
  type: "Convolution"
  bottom: "inception_3b/5x5_reduce"
  top: "inception_3b/5x5"
  param {
    lr_mult: 1
    decay_mult: 1
  }
  param {
    lr_mult: 2
    decay_mult: 0
  }
  convolution_param {
    num_output: 96
    pad: 2
    kernel_size: 5
    weight_filler {
      type: "xavier"
      std: 0.03
    }
    bias_filler {
      type: "constant"
      value: 0.2
    }
  }
}
layer {
  name: "inception_3b/relu_5x5"
  type: "ReLU"
  bottom: "inception_3b/5x5"
  top: "inception_3b/5x5"
}
layer {
  name: "inception_3b/pool"
  type: "Pooling"
  bottom: "inception_3a/output"
  top: "inception_3b/pool"
  pooling_param {
    pool: MAX
    kernel_size: 3
    stride: 1
    pad: 1
  }
}
layer {
  name: "inception_3b/pool_proj"
  type: "Convolution"
  bottom: "inception_3b/pool"
  top: "inception_3b/pool_proj"
  param {
    lr_mult: 1
    decay_mult: 1
  }
  param {
    lr_mult: 2
    decay_mult: 0
  }
  convolution_param {
    num_output: 64
    kernel_size: 1
    weight_filler {
      type: "xavier"
      std: 0.1
    }
    bias_filler {
      type: "constant"
      value: 0.2
    }
  }
}
layer {
  name: "inception_3b/relu_pool_proj"
  type: "ReLU"
  bottom: "inception_3b/pool_proj"
  top: "inception_3b/pool_proj"
}
layer {
  name: "inception_3b/output"
  type: "Concat"
  bottom: "inception_3b/1x1"
  bottom: "inception_3b/3x3"
  bottom: "inception_3b/5x5"
  bottom: "inception_3b/pool_proj"
  top: "inception_3b/output"
}
layer {
  name: "pool3/3x3_s2"
  type: "Pooling"
  bottom: "inception_3b/output"
  top: "pool3/3x3_s2"
  pooling_param {
    pool: MAX
    kernel_size: 3
    stride: 2
  }
}
layer {
  name: "inception_4a/1x1"
  type: "Convolution"
  bottom: "pool3/3x3_s2"
  top: "inception_4a/1x1"
  param {
    lr_mult: 1
    decay_mult: 1
  }
  param {
    lr_mult: 2
    decay_mult: 0
  }
  convolution_param {
    num_output: 192
    kernel_size: 1
    weight_filler {
      type: "xavier"
      std: 0.03
    }
    bias_filler {
      type: "constant"
      value: 0.2
    }
  }
}
layer {
  name: "inception_4a/relu_1x1"
  type: "ReLU"
  bottom: "inception_4a/1x1"
  top: "inception_4a/1x1"
}
layer {
  name: "inception_4a/3x3_reduce"
  type: "Convolution"
  bottom: "pool3/3x3_s2"
  top: "inception_4a/3x3_reduce"
  param {
    lr_mult: 1
    decay_mult: 1
  }
  param {
    lr_mult: 2
    decay_mult: 0
  }
  convolution_param {
    num_output: 96
    kernel_size: 1
    weight_filler {
      type: "xavier"
      std: 0.09
    }
    bias_filler {
      type: "constant"
      value: 0.2
    }
  }
}
layer {
  name: "inception_4a/relu_3x3_reduce"
  type: "ReLU"
  bottom: "inception_4a/3x3_reduce"
  top: "inception_4a/3x3_reduce"
}
layer {
  name: "inception_4a/3x3"
  type: "Convolution"
  bottom: "inception_4a/3x3_reduce"
  top: "inception_4a/3x3"
  param {
    lr_mult: 1
    decay_mult: 1
  }
  param {
    lr_mult: 2
    decay_mult: 0
  }
  convolution_param {
    num_output: 208
    pad: 1
    kernel_size: 3
    weight_filler {
      type: "xavier"
      std: 0.03
    }
    bias_filler {
      type: "constant"
      value: 0.2
    }
  }
}
layer {
  name: "inception_4a/relu_3x3"
  type: "ReLU"
  bottom: "inception_4a/3x3"
  top: "inception_4a/3x3"
}
layer {
  name: "inception_4a/5x5_reduce"
  type: "Convolution"
  bottom: "pool3/3x3_s2"
  top: "inception_4a/5x5_reduce"
  param {
    lr_mult: 1
    decay_mult: 1
  }
  param {
    lr_mult: 2
    decay_mult: 0
  }
  convolution_param {
    num_output: 16
    kernel_size: 1
    weight_filler {
      type: "xavier"
      std: 0.2
    }
    bias_filler {
      type: "constant"
      value: 0.2
    }
  }
}
layer {
  name: "inception_4a/relu_5x5_reduce"
  type: "ReLU"
  bottom: "inception_4a/5x5_reduce"
  top: "inception_4a/5x5_reduce"
}
layer {
  name: "inception_4a/5x5"
  type: "Convolution"
  bottom: "inception_4a/5x5_reduce"
  top: "inception_4a/5x5"
  param {
    lr_mult: 1
    decay_mult: 1
  }
  param {
    lr_mult: 2
    decay_mult: 0
  }
  convolution_param {
    num_output: 48
    pad: 2
    kernel_size: 5
    weight_filler {
      type: "xavier"
      std: 0.03
    }
    bias_filler {
      type: "constant"
      value: 0.2
    }
  }
}
layer {
  name: "inception_4a/relu_5x5"
  type: "ReLU"
  bottom: "inception_4a/5x5"
  top: "inception_4a/5x5"
}
layer {
  name: "inception_4a/pool"
  type: "Pooling"
  bottom: "pool3/3x3_s2"
  top: "inception_4a/pool"
  pooling_param {
    pool: MAX
    kernel_size: 3
    stride: 1
    pad: 1
  }
}
layer {
  name: "inception_4a/pool_proj"
  type: "Convolution"
  bottom: "inception_4a/pool"
  top: "inception_4a/pool_proj"
  param {
    lr_mult: 1
    decay_mult: 1
  }
  param {
    lr_mult: 2
    decay_mult: 0
  }
  convolution_param {
    num_output: 64
    kernel_size: 1
    weight_filler {
      type: "xavier"
      std: 0.1
    }
    bias_filler {
      type: "constant"
      value: 0.2
    }
  }
}
layer {
  name: "inception_4a/relu_pool_proj"
  type: "ReLU"
  bottom: "inception_4a/pool_proj"
  top: "inception_4a/pool_proj"
}
layer {
  name: "inception_4a/output"
  type: "Concat"
  bottom: "inception_4a/1x1"
  bottom: "inception_4a/3x3"
  bottom: "inception_4a/5x5"
  bottom: "inception_4a/pool_proj"
  top: "inception_4a/output"
}
layer {
  name: "loss1/ave_pool"
  type: "Pooling"
  bottom: "inception_4a/output"
  top: "loss1/ave_pool"
  pooling_param {
    pool: AVE
    kernel_size: 5
    stride: 3
  }
}
layer {
  name: "loss1/conv"
  type: "Convolution"
  bottom: "loss1/ave_pool"
  top: "loss1/conv"
  param {
    lr_mult: 1
    decay_mult: 1
  }
  param {
    lr_mult: 2
    decay_mult: 0
  }
  convolution_param {
    num_output: 128
    kernel_size: 1
    weight_filler {
      type: "xavier"
      std: 0.08
    }
    bias_filler {
      type: "constant"
      value: 0.2
    }
  }
}
layer {
  name: "loss1/relu_conv"
  type: "ReLU"
  bottom: "loss1/conv"
  top: "loss1/conv"
}
layer {
  name: "loss1/fc"
  type: "InnerProduct"
  bottom: "loss1/conv"
  top: "loss1/fc"
  param {
    lr_mult: 1
    decay_mult: 1
  }
  param {
    lr_mult: 2
    decay_mult: 0
  }
  inner_product_param {
    num_output: 1024
    weight_filler {
      type: "xavier"
      std: 0.02
    }
    bias_filler {
      type: "constant"
      value: 0.2
    }
  }
}
layer {
  name: "loss1/relu_fc"
  type: "ReLU"
  bottom: "loss1/fc"
  top: "loss1/fc"
}
layer {
  name: "loss1/drop_fc"
  type: "Dropout"
  bottom: "loss1/fc"
  top: "loss1/fc"
  dropout_param {
    dropout_ratio: 0.7
  }
}
layer {
  name: "loss1/classifier_plantvillage"
  type: "InnerProduct"
  bottom: "loss1/fc"
  top: "loss1/classifier_plantvillage"
  param {
    lr_mult: 1
    decay_mult: 1
  }
  param {
    lr_mult: 2
    decay_mult: 0
  }
  inner_product_param {
    num_output: 38
    weight_filler {
      type: "xavier"
      std: 0.0009765625
    }
    bias_filler {
      type: "constant"
      value: 0
    }
  }
}
layer {
  name: "inception_4b/1x1"
  type: "Convolution"
  bottom: "inception_4a/output"
  top: "inception_4b/1x1"
  param {
    lr_mult: 1
    decay_mult: 1
  }
  param {
    lr_mult: 2
    decay_mult: 0
  }
  convolution_param {
    num_output: 160
    kernel_size: 1
    weight_filler {
      type: "xavier"
      std: 0.03
    }
    bias_filler {
      type: "constant"
      value: 0.2
    }
  }
}
layer {
  name: "inception_4b/relu_1x1"
  type: "ReLU"
  bottom: "inception_4b/1x1"
  top: "inception_4b/1x1"
}
layer {
  name: "inception_4b/3x3_reduce"
  type: "Convolution"
  bottom: "inception_4a/output"
  top: "inception_4b/3x3_reduce"
  param {
    lr_mult: 1
    decay_mult: 1
  }
  param {
    lr_mult: 2
    decay_mult: 0
  }
  convolution_param {
    num_output: 112
    kernel_size: 1
    weight_filler {
      type: "xavier"
      std: 0.09
    }
    bias_filler {
      type: "constant"
      value: 0.2
    }
  }
}
layer {
  name: "inception_4b/relu_3x3_reduce"
  type: "ReLU"
  bottom: "inception_4b/3x3_reduce"
  top: "inception_4b/3x3_reduce"
}
layer {
  name: "inception_4b/3x3"
  type: "Convolution"
  bottom: "inception_4b/3x3_reduce"
  top: "inception_4b/3x3"
  param {
    lr_mult: 1
    decay_mult: 1
  }
  param {
    lr_mult: 2
    decay_mult: 0
  }
  convolution_param {
    num_output: 224
    pad: 1
    kernel_size: 3
    weight_filler {
      type: "xavier"
      std: 0.03
    }
    bias_filler {
      type: "constant"
      value: 0.2
    }
  }
}
layer {
  name: "inception_4b/relu_3x3"
  type: "ReLU"
  bottom: "inception_4b/3x3"
  top: "inception_4b/3x3"
}
layer {
  name: "inception_4b/5x5_reduce"
  type: "Convolution"
  bottom: "inception_4a/output"
  top: "inception_4b/5x5_reduce"
  param {
    lr_mult: 1
    decay_mult: 1
  }
  param {
    lr_mult: 2
    decay_mult: 0
  }
  convolution_param {
    num_output: 24
    kernel_size: 1
    weight_filler {
      type: "xavier"
      std: 0.2
    }
    bias_filler {
      type: "constant"
      value: 0.2
    }
  }
}
layer {
  name: "inception_4b/relu_5x5_reduce"
  type: "ReLU"
  bottom: "inception_4b/5x5_reduce"
  top: "inception_4b/5x5_reduce"
}
layer {
  name: "inception_4b/5x5"
  type: "Convolution"
  bottom: "inception_4b/5x5_reduce"
  top: "inception_4b/5x5"
  param {
    lr_mult: 1
    decay_mult: 1
  }
  param {
    lr_mult: 2
    decay_mult: 0
  }
  convolution_param {
    num_output: 64
    pad: 2
    kernel_size: 5
    weight_filler {
      type: "xavier"
      std: 0.03
    }
    bias_filler {
      type: "constant"
      value: 0.2
    }
  }
}
layer {
  name: "inception_4b/relu_5x5"
  type: "ReLU"
  bottom: "inception_4b/5x5"
  top: "inception_4b/5x5"
}
layer {
  name: "inception_4b/pool"
  type: "Pooling"
  bottom: "inception_4a/output"
  top: "inception_4b/pool"
  pooling_param {
    pool: MAX
    kernel_size: 3
    stride: 1
    pad: 1
  }
}
layer {
  name: "inception_4b/pool_proj"
  type: "Convolution"
  bottom: "inception_4b/pool"
  top: "inception_4b/pool_proj"
  param {
    lr_mult: 1
    decay_mult: 1
  }
  param {
    lr_mult: 2
    decay_mult: 0
  }
  convolution_param {
    num_output: 64
    kernel_size: 1
    weight_filler {
      type: "xavier"
      std: 0.1
    }
    bias_filler {
      type: "constant"
      value: 0.2
    }
  }
}
layer {
  name: "inception_4b/relu_pool_proj"
  type: "ReLU"
  bottom: "inception_4b/pool_proj"
  top: "inception_4b/pool_proj"
}
layer {
  name: "inception_4b/output"
  type: "Concat"
  bottom: "inception_4b/1x1"
  bottom: "inception_4b/3x3"
  bottom: "inception_4b/5x5"
  bottom: "inception_4b/pool_proj"
  top: "inception_4b/output"
}
layer {
  name: "inception_4c/1x1"
  type: "Convolution"
  bottom: "inception_4b/output"
  top: "inception_4c/1x1"
  param {
    lr_mult: 1
    decay_mult: 1
  }
  param {
    lr_mult: 2
    decay_mult: 0
  }
  convolution_param {
    num_output: 128
    kernel_size: 1
    weight_filler {
      type: "xavier"
      std: 0.03
    }
    bias_filler {
      type: "constant"
      value: 0.2
    }
  }
}
layer {
  name: "inception_4c/relu_1x1"
  type: "ReLU"
  bottom: "inception_4c/1x1"
  top: "inception_4c/1x1"
}
layer {
  name: "inception_4c/3x3_reduce"
  type: "Convolution"
  bottom: "inception_4b/output"
  top: "inception_4c/3x3_reduce"
  param {
    lr_mult: 1
    decay_mult: 1
  }
  param {
    lr_mult: 2
    decay_mult: 0
  }
  convolution_param {
    num_output: 128
    kernel_size: 1
    weight_filler {
      type: "xavier"
      std: 0.09
    }
    bias_filler {
      type: "constant"
      value: 0.2
    }
  }
}
layer {
  name: "inception_4c/relu_3x3_reduce"
  type: "ReLU"
  bottom: "inception_4c/3x3_reduce"
  top: "inception_4c/3x3_reduce"
}
layer {
  name: "inception_4c/3x3"
  type: "Convolution"
  bottom: "inception_4c/3x3_reduce"
  top: "inception_4c/3x3"
  param {
    lr_mult: 1
    decay_mult: 1
  }
  param {
    lr_mult: 2
    decay_mult: 0
  }
  convolution_param {
    num_output: 256
    pad: 1
    kernel_size: 3
    weight_filler {
      type: "xavier"
      std: 0.03
    }
    bias_filler {
      type: "constant"
      value: 0.2
    }
  }
}
layer {
  name: "inception_4c/relu_3x3"
  type: "ReLU"
  bottom: "inception_4c/3x3"
  top: "inception_4c/3x3"
}
layer {
  name: "inception_4c/5x5_reduce"
  type: "Convolution"
  bottom: "inception_4b/output"
  top: "inception_4c/5x5_reduce"
  param {
    lr_mult: 1
    decay_mult: 1
  }
  param {
    lr_mult: 2
    decay_mult: 0
  }
  convolution_param {
    num_output: 24
    kernel_size: 1
    weight_filler {
      type: "xavier"
      std: 0.2
    }
    bias_filler {
      type: "constant"
      value: 0.2
    }
  }
}
layer {
  name: "inception_4c/relu_5x5_reduce"
  type: "ReLU"
  bottom: "inception_4c/5x5_reduce"
  top: "inception_4c/5x5_reduce"
}
layer {
  name: "inception_4c/5x5"
  type: "Convolution"
  bottom: "inception_4c/5x5_reduce"
  top: "inception_4c/5x5"
  param {
    lr_mult: 1
    decay_mult: 1
  }
  param {
    lr_mult: 2
    decay_mult: 0
  }
  convolution_param {
    num_output: 64
    pad: 2
    kernel_size: 5
    weight_filler {
      type: "xavier"
      std: 0.03
    }
    bias_filler {
      type: "constant"
      value: 0.2
    }
  }
}
layer {
  name: "inception_4c/relu_5x5"
  type: "ReLU"
  bottom: "inception_4c/5x5"
  top: "inception_4c/5x5"
}
layer {
  name: "inception_4c/pool"
  type: "Pooling"
  bottom: "inception_4b/output"
  top: "inception_4c/pool"
  pooling_param {
    pool: MAX
    kernel_size: 3
    stride: 1
    pad: 1
  }
}
layer {
  name: "inception_4c/pool_proj"
  type: "Convolution"
  bottom: "inception_4c/pool"
  top: "inception_4c/pool_proj"
  param {
    lr_mult: 1
    decay_mult: 1
  }
  param {
    lr_mult: 2
    decay_mult: 0
  }
  convolution_param {
    num_output: 64
    kernel_size: 1
    weight_filler {
      type: "xavier"
      std: 0.1
    }
    bias_filler {
      type: "constant"
      value: 0.2
    }
  }
}
layer {
  name: "inception_4c/relu_pool_proj"
  type: "ReLU"
  bottom: "inception_4c/pool_proj"
  top: "inception_4c/pool_proj"
}
layer {
  name: "inception_4c/output"
  type: "Concat"
  bottom: "inception_4c/1x1"
  bottom: "inception_4c/3x3"
  bottom: "inception_4c/5x5"
  bottom: "inception_4c/pool_proj"
  top: "inception_4c/output"
}
layer {
  name: "inception_4d/1x1"
  type: "Convolution"
  bottom: "inception_4c/output"
  top: "inception_4d/1x1"
  param {
    lr_mult: 1
    decay_mult: 1
  }
  param {
    lr_mult: 2
    decay_mult: 0
  }
  convolution_param {
    num_output: 112
    kernel_size: 1
    weight_filler {
      type: "xavier"
      std: 0.03
    }
    bias_filler {
      type: "constant"
      value: 0.2
    }
  }
}
layer {
  name: "inception_4d/relu_1x1"
  type: "ReLU"
  bottom: "inception_4d/1x1"
  top: "inception_4d/1x1"
}
layer {
  name: "inception_4d/3x3_reduce"
  type: "Convolution"
  bottom: "inception_4c/output"
  top: "inception_4d/3x3_reduce"
  param {
    lr_mult: 1
    decay_mult: 1
  }
  param {
    lr_mult: 2
    decay_mult: 0
  }
  convolution_param {
    num_output: 144
    kernel_size: 1
    weight_filler {
      type: "xavier"
      std: 0.09
    }
    bias_filler {
      type: "constant"
      value: 0.2
    }
  }
}
layer {
  name: "inception_4d/relu_3x3_reduce"
  type: "ReLU"
  bottom: "inception_4d/3x3_reduce"
  top: "inception_4d/3x3_reduce"
}
layer {
  name: "inception_4d/3x3"
  type: "Convolution"
  bottom: "inception_4d/3x3_reduce"
  top: "inception_4d/3x3"
  param {
    lr_mult: 1
    decay_mult: 1
  }
  param {
    lr_mult: 2
    decay_mult: 0
  }
  convolution_param {
    num_output: 288
    pad: 1
    kernel_size: 3
    weight_filler {
      type: "xavier"
      std: 0.03
    }
    bias_filler {
      type: "constant"
      value: 0.2
    }
  }
}
layer {
  name: "inception_4d/relu_3x3"
  type: "ReLU"
  bottom: "inception_4d/3x3"
  top: "inception_4d/3x3"
}
layer {
  name: "inception_4d/5x5_reduce"
  type: "Convolution"
  bottom: "inception_4c/output"
  top: "inception_4d/5x5_reduce"
  param {
    lr_mult: 1
    decay_mult: 1
  }
  param {
    lr_mult: 2
    decay_mult: 0
  }
  convolution_param {
    num_output: 32
    kernel_size: 1
    weight_filler {
      type: "xavier"
      std: 0.2
    }
    bias_filler {
      type: "constant"
      value: 0.2
    }
  }
}
layer {
  name: "inception_4d/relu_5x5_reduce"
  type: "ReLU"
  bottom: "inception_4d/5x5_reduce"
  top: "inception_4d/5x5_reduce"
}
layer {
  name: "inception_4d/5x5"
  type: "Convolution"
  bottom: "inception_4d/5x5_reduce"
  top: "inception_4d/5x5"
  param {
    lr_mult: 1
    decay_mult: 1
  }
  param {
    lr_mult: 2
    decay_mult: 0
  }
  convolution_param {
    num_output: 64
    pad: 2
    kernel_size: 5
    weight_filler {
      type: "xavier"
      std: 0.03
    }
    bias_filler {
      type: "constant"
      value: 0.2
    }
  }
}
layer {
  name: "inception_4d/relu_5x5"
  type: "ReLU"
  bottom: "inception_4d/5x5"
  top: "inception_4d/5x5"
}
layer {
  name: "inception_4d/pool"
  type: "Pooling"
  bottom: "inception_4c/output"
  top: "inception_4d/pool"
  pooling_param {
    pool: MAX
    kernel_size: 3
    stride: 1
    pad: 1
  }
}
layer {
  name: "inception_4d/pool_proj"
  type: "Convolution"
  bottom: "inception_4d/pool"
  top: "inception_4d/pool_proj"
  param {
    lr_mult: 1
    decay_mult: 1
  }
  param {
    lr_mult: 2
    decay_mult: 0
  }
  convolution_param {
    num_output: 64
    kernel_size: 1
    weight_filler {
      type: "xavier"
      std: 0.1
    }
    bias_filler {
      type: "constant"
      value: 0.2
    }
  }
}
layer {
  name: "inception_4d/relu_pool_proj"
  type: "ReLU"
  bottom: "inception_4d/pool_proj"
  top: "inception_4d/pool_proj"
}
layer {
  name: "inception_4d/output"
  type: "Concat"
  bottom: "inception_4d/1x1"
  bottom: "inception_4d/3x3"
  bottom: "inception_4d/5x5"
  bottom: "inception_4d/pool_proj"
  top: "inception_4d/output"
}
layer {
  name: "loss2/ave_pool"
  type: "Pooling"
  bottom: "inception_4d/output"
  top: "loss2/ave_pool"
  pooling_param {
    pool: AVE
    kernel_size: 5
    stride: 3
  }
}
layer {
  name: "loss2/conv"
  type: "Convolution"
  bottom: "loss2/ave_pool"
  top: "loss2/conv"
  param {
    lr_mult: 1
    decay_mult: 1
  }
  param {
    lr_mult: 2
    decay_mult: 0
  }
  convolution_param {
    num_output: 128
    kernel_size: 1
    weight_filler {
      type: "xavier"
      std: 0.08
    }
    bias_filler {
      type: "constant"
      value: 0.2
    }
  }
}
layer {
  name: "loss2/relu_conv"
  type: "ReLU"
  bottom: "loss2/conv"
  top: "loss2/conv"
}
layer {
  name: "loss2/fc"
  type: "InnerProduct"
  bottom: "loss2/conv"
  top: "loss2/fc"
  param {
    lr_mult: 1
    decay_mult: 1
  }
  param {
    lr_mult: 2
    decay_mult: 0
  }
  inner_product_param {
    num_output: 1024
    weight_filler {
      type: "xavier"
      std: 0.02
    }
    bias_filler {
      type: "constant"
      value: 0.2
    }
  }
}
layer {
  name: "loss2/relu_fc"
  type: "ReLU"
  bottom: "loss2/fc"
  top: "loss2/fc"
}
layer {
  name: "loss2/drop_fc"
  type: "Dropout"
  bottom: "loss2/fc"
  top: "loss2/fc"
  dropout_param {
    dropout_ratio: 0.7
  }
}
layer {
  name: "loss2/classifier_plantvillage"
  type: "InnerProduct"
  bottom: "loss2/fc"
  top: "loss2/classifier_plantvillage"
  param {
    lr_mult: 1
    decay_mult: 1
  }
  param {
    lr_mult: 2
    decay_mult: 0
  }
  inner_product_param {
    num_output: 38
    weight_filler {
      type: "xavier"
      std: 0.0009765625
    }
    bias_filler {
      type: "constant"
      value: 0
    }
  }
}
layer {
  name: "inception_4e/1x1"
  type: "Convolution"
  bottom: "inception_4d/output"
  top: "inception_4e/1x1"
  param {
    lr_mult: 1
    decay_mult: 1
  }
  param {
    lr_mult: 2
    decay_mult: 0
  }
  convolution_param {
    num_output: 256
    kernel_size: 1
    weight_filler {
      type: "xavier"
      std: 0.03
    }
    bias_filler {
      type: "constant"
      value: 0.2
    }
  }
}
layer {
  name: "inception_4e/relu_1x1"
  type: "ReLU"
  bottom: "inception_4e/1x1"
  top: "inception_4e/1x1"
}
layer {
  name: "inception_4e/3x3_reduce"
  type: "Convolution"
  bottom: "inception_4d/output"
  top: "inception_4e/3x3_reduce"
  param {
    lr_mult: 1
    decay_mult: 1
  }
  param {
    lr_mult: 2
    decay_mult: 0
  }
  convolution_param {
    num_output: 160
    kernel_size: 1
    weight_filler {
      type: "xavier"
      std: 0.09
    }
    bias_filler {
      type: "constant"
      value: 0.2
    }
  }
}
layer {
  name: "inception_4e/relu_3x3_reduce"
  type: "ReLU"
  bottom: "inception_4e/3x3_reduce"
  top: "inception_4e/3x3_reduce"
}
layer {
  name: "inception_4e/3x3"
  type: "Convolution"
  bottom: "inception_4e/3x3_reduce"
  top: "inception_4e/3x3"
  param {
    lr_mult: 1
    decay_mult: 1
  }
  param {
    lr_mult: 2
    decay_mult: 0
  }
  convolution_param {
    num_output: 320
    pad: 1
    kernel_size: 3
    weight_filler {
      type: "xavier"
      std: 0.03
    }
    bias_filler {
      type: "constant"
      value: 0.2
    }
  }
}
layer {
  name: "inception_4e/relu_3x3"
  type: "ReLU"
  bottom: "inception_4e/3x3"
  top: "inception_4e/3x3"
}
layer {
  name: "inception_4e/5x5_reduce"
  type: "Convolution"
  bottom: "inception_4d/output"
  top: "inception_4e/5x5_reduce"
  param {
    lr_mult: 1
    decay_mult: 1
  }
  param {
    lr_mult: 2
    decay_mult: 0
  }
  convolution_param {
    num_output: 32
    kernel_size: 1
    weight_filler {
      type: "xavier"
      std: 0.2
    }
    bias_filler {
      type: "constant"
      value: 0.2
    }
  }
}
layer {
  name: "inception_4e/relu_5x5_reduce"
  type: "ReLU"
  bottom: "inception_4e/5x5_reduce"
  top: "inception_4e/5x5_reduce"
}
layer {
  name: "inception_4e/5x5"
  type: "Convolution"
  bottom: "inception_4e/5x5_reduce"
  top: "inception_4e/
I0403 15:54:34.389771 16322 layer_factory.hpp:77] Creating layer data
I0403 15:54:34.390367 16322 net.cpp:91] Creating Layer data
I0403 15:54:34.390398 16322 net.cpp:399] data -> data
I0403 15:54:34.390449 16322 net.cpp:399] data -> label
I0403 15:54:34.390486 16322 data_transformer.cpp:25] Loading mean file from: /home/mohanty/data/final_dataset/lmdb/segmented-20-80/mean.binaryproto
I0403 15:54:34.391984 16326 db_lmdb.cpp:38] Opened lmdb /home/mohanty/data/final_dataset/lmdb/segmented-20-80/test_db
I0403 15:54:34.403471 16322 data_layer.cpp:41] output data size: 24,3,224,224
I0403 15:54:34.431041 16322 net.cpp:141] Setting up data
I0403 15:54:34.431113 16322 net.cpp:148] Top shape: 24 3 224 224 (3612672)
I0403 15:54:34.431133 16322 net.cpp:148] Top shape: 24 (24)
I0403 15:54:34.431149 16322 net.cpp:156] Memory required for data: 14450784
I0403 15:54:34.431176 16322 layer_factory.hpp:77] Creating layer label_data_1_split
I0403 15:54:34.431202 16322 net.cpp:91] Creating Layer label_data_1_split
I0403 15:54:34.431219 16322 net.cpp:425] label_data_1_split <- label
I0403 15:54:34.431252 16322 net.cpp:399] label_data_1_split -> label_data_1_split_0
I0403 15:54:34.431278 16322 net.cpp:399] label_data_1_split -> label_data_1_split_1
I0403 15:54:34.431299 16322 net.cpp:399] label_data_1_split -> label_data_1_split_2
I0403 15:54:34.431320 16322 net.cpp:399] label_data_1_split -> label_data_1_split_3
I0403 15:54:34.431339 16322 net.cpp:399] label_data_1_split -> label_data_1_split_4
I0403 15:54:34.431359 16322 net.cpp:399] label_data_1_split -> label_data_1_split_5
I0403 15:54:34.431377 16322 net.cpp:399] label_data_1_split -> label_data_1_split_6
I0403 15:54:34.431397 16322 net.cpp:399] label_data_1_split -> label_data_1_split_7
I0403 15:54:34.431416 16322 net.cpp:399] label_data_1_split -> label_data_1_split_8
I0403 15:54:34.431437 16322 net.cpp:399] label_data_1_split -> label_data_1_split_9
I0403 15:54:34.431548 16322 net.cpp:141] Setting up label_data_1_split
I0403 15:54:34.431571 16322 net.cpp:148] Top shape: 24 (24)
I0403 15:54:34.431591 16322 net.cpp:148] Top shape: 24 (24)
I0403 15:54:34.431612 16322 net.cpp:148] Top shape: 24 (24)
I0403 15:54:34.431628 16322 net.cpp:148] Top shape: 24 (24)
I0403 15:54:34.431643 16322 net.cpp:148] Top shape: 24 (24)
I0403 15:54:34.431658 16322 net.cpp:148] Top shape: 24 (24)
I0403 15:54:34.431673 16322 net.cpp:148] Top shape: 24 (24)
I0403 15:54:34.431687 16322 net.cpp:148] Top shape: 24 (24)
I0403 15:54:34.431701 16322 net.cpp:148] Top shape: 24 (24)
I0403 15:54:34.431716 16322 net.cpp:148] Top shape: 24 (24)
I0403 15:54:34.431763 16322 net.cpp:156] Memory required for data: 14451744
I0403 15:54:34.431778 16322 layer_factory.hpp:77] Creating layer conv1/7x7_s2
I0403 15:54:34.431809 16322 net.cpp:91] Creating Layer conv1/7x7_s2
I0403 15:54:34.431830 16322 net.cpp:425] conv1/7x7_s2 <- data
I0403 15:54:34.431850 16322 net.cpp:399] conv1/7x7_s2 -> conv1/7x7_s2
I0403 15:54:34.568722 16322 net.cpp:141] Setting up conv1/7x7_s2
I0403 15:54:34.568781 16322 net.cpp:148] Top shape: 24 64 112 112 (19267584)
I0403 15:54:34.568799 16322 net.cpp:156] Memory required for data: 91522080
I0403 15:54:34.568826 16322 layer_factory.hpp:77] Creating layer conv1/relu_7x7
I0403 15:54:34.568853 16322 net.cpp:91] Creating Layer conv1/relu_7x7
I0403 15:54:34.568871 16322 net.cpp:425] conv1/relu_7x7 <- conv1/7x7_s2
I0403 15:54:34.568888 16322 net.cpp:386] conv1/relu_7x7 -> conv1/7x7_s2 (in-place)
I0403 15:54:34.569146 16322 net.cpp:141] Setting up conv1/relu_7x7
I0403 15:54:34.569175 16322 net.cpp:148] Top shape: 24 64 112 112 (19267584)
I0403 15:54:34.569190 16322 net.cpp:156] Memory required for data: 168592416
I0403 15:54:34.569205 16322 layer_factory.hpp:77] Creating layer pool1/3x3_s2
I0403 15:54:34.569228 16322 net.cpp:91] Creating Layer pool1/3x3_s2
I0403 15:54:34.569245 16322 net.cpp:425] pool1/3x3_s2 <- conv1/7x7_s2
I0403 15:54:34.569267 16322 net.cpp:399] pool1/3x3_s2 -> pool1/3x3_s2
I0403 15:54:34.569340 16322 net.cpp:141] Setting up pool1/3x3_s2
I0403 15:54:34.569363 16322 net.cpp:148] Top shape: 24 64 56 56 (4816896)
I0403 15:54:34.569377 16322 net.cpp:156] Memory required for data: 187860000
I0403 15:54:34.569391 16322 layer_factory.hpp:77] Creating layer pool1/norm1
I0403 15:54:34.569413 16322 net.cpp:91] Creating Layer pool1/norm1
I0403 15:54:34.569430 16322 net.cpp:425] pool1/norm1 <- pool1/3x3_s2
I0403 15:54:34.569450 16322 net.cpp:399] pool1/norm1 -> pool1/norm1
I0403 15:54:34.569742 16322 net.cpp:141] Setting up pool1/norm1
I0403 15:54:34.569768 16322 net.cpp:148] Top shape: 24 64 56 56 (4816896)
I0403 15:54:34.569783 16322 net.cpp:156] Memory required for data: 207127584
I0403 15:54:34.569797 16322 layer_factory.hpp:77] Creating layer conv2/3x3_reduce
I0403 15:54:34.569823 16322 net.cpp:91] Creating Layer conv2/3x3_reduce
I0403 15:54:34.569839 16322 net.cpp:425] conv2/3x3_reduce <- pool1/norm1
I0403 15:54:34.569859 16322 net.cpp:399] conv2/3x3_reduce -> conv2/3x3_reduce
I0403 15:54:34.571187 16322 net.cpp:141] Setting up conv2/3x3_reduce
I0403 15:54:34.571214 16322 net.cpp:148] Top shape: 24 64 56 56 (4816896)
I0403 15:54:34.571230 16322 net.cpp:156] Memory required for data: 226395168
I0403 15:54:34.571250 16322 layer_factory.hpp:77] Creating layer conv2/relu_3x3_reduce
I0403 15:54:34.571270 16322 net.cpp:91] Creating Layer conv2/relu_3x3_reduce
I0403 15:54:34.571285 16322 net.cpp:425] conv2/relu_3x3_reduce <- conv2/3x3_reduce
I0403 15:54:34.571302 16322 net.cpp:386] conv2/relu_3x3_reduce -> conv2/3x3_reduce (in-place)
I0403 15:54:34.571559 16322 net.cpp:141] Setting up conv2/relu_3x3_reduce
I0403 15:54:34.571585 16322 net.cpp:148] Top shape: 24 64 56 56 (4816896)
I0403 15:54:34.571604 16322 net.cpp:156] Memory required for data: 245662752
I0403 15:54:34.571619 16322 layer_factory.hpp:77] Creating layer conv2/3x3
I0403 15:54:34.571645 16322 net.cpp:91] Creating Layer conv2/3x3
I0403 15:54:34.571662 16322 net.cpp:425] conv2/3x3 <- conv2/3x3_reduce
I0403 15:54:34.571681 16322 net.cpp:399] conv2/3x3 -> conv2/3x3
I0403 15:54:34.573866 16322 net.cpp:141] Setting up conv2/3x3
I0403 15:54:34.573895 16322 net.cpp:148] Top shape: 24 192 56 56 (14450688)
I0403 15:54:34.573911 16322 net.cpp:156] Memory required for data: 303465504
I0403 15:54:34.573931 16322 layer_factory.hpp:77] Creating layer conv2/relu_3x3
I0403 15:54:34.573951 16322 net.cpp:91] Creating Layer conv2/relu_3x3
I0403 15:54:34.573968 16322 net.cpp:425] conv2/relu_3x3 <- conv2/3x3
I0403 15:54:34.573984 16322 net.cpp:386] conv2/relu_3x3 -> conv2/3x3 (in-place)
I0403 15:54:34.574151 16322 net.cpp:141] Setting up conv2/relu_3x3
I0403 15:54:34.574175 16322 net.cpp:148] Top shape: 24 192 56 56 (14450688)
I0403 15:54:34.574221 16322 net.cpp:156] Memory required for data: 361268256
I0403 15:54:34.574237 16322 layer_factory.hpp:77] Creating layer conv2/norm2
I0403 15:54:34.574255 16322 net.cpp:91] Creating Layer conv2/norm2
I0403 15:54:34.574271 16322 net.cpp:425] conv2/norm2 <- conv2/3x3
I0403 15:54:34.574296 16322 net.cpp:399] conv2/norm2 -> conv2/norm2
I0403 15:54:34.574584 16322 net.cpp:141] Setting up conv2/norm2
I0403 15:54:34.574635 16322 net.cpp:148] Top shape: 24 192 56 56 (14450688)
I0403 15:54:34.574652 16322 net.cpp:156] Memory required for data: 419071008
I0403 15:54:34.574667 16322 layer_factory.hpp:77] Creating layer pool2/3x3_s2
I0403 15:54:34.574684 16322 net.cpp:91] Creating Layer pool2/3x3_s2
I0403 15:54:34.574699 16322 net.cpp:425] pool2/3x3_s2 <- conv2/norm2
I0403 15:54:34.574719 16322 net.cpp:399] pool2/3x3_s2 -> pool2/3x3_s2
I0403 15:54:34.574774 16322 net.cpp:141] Setting up pool2/3x3_s2
I0403 15:54:34.574796 16322 net.cpp:148] Top shape: 24 192 28 28 (3612672)
I0403 15:54:34.574810 16322 net.cpp:156] Memory required for data: 433521696
I0403 15:54:34.574825 16322 layer_factory.hpp:77] Creating layer pool2/3x3_s2_pool2/3x3_s2_0_split
I0403 15:54:34.574847 16322 net.cpp:91] Creating Layer pool2/3x3_s2_pool2/3x3_s2_0_split
I0403 15:54:34.574863 16322 net.cpp:425] pool2/3x3_s2_pool2/3x3_s2_0_split <- pool2/3x3_s2
I0403 15:54:34.574883 16322 net.cpp:399] pool2/3x3_s2_pool2/3x3_s2_0_split -> pool2/3x3_s2_pool2/3x3_s2_0_split_0
I0403 15:54:34.574903 16322 net.cpp:399] pool2/3x3_s2_pool2/3x3_s2_0_split -> pool2/3x3_s2_pool2/3x3_s2_0_split_1
I0403 15:54:34.574923 16322 net.cpp:399] pool2/3x3_s2_pool2/3x3_s2_0_split -> pool2/3x3_s2_pool2/3x3_s2_0_split_2
I0403 15:54:34.574942 16322 net.cpp:399] pool2/3x3_s2_pool2/3x3_s2_0_split -> pool2/3x3_s2_pool2/3x3_s2_0_split_3
I0403 15:54:34.575011 16322 net.cpp:141] Setting up pool2/3x3_s2_pool2/3x3_s2_0_split
I0403 15:54:34.575036 16322 net.cpp:148] Top shape: 24 192 28 28 (3612672)
I0403 15:54:34.575052 16322 net.cpp:148] Top shape: 24 192 28 28 (3612672)
I0403 15:54:34.575068 16322 net.cpp:148] Top shape: 24 192 28 28 (3612672)
I0403 15:54:34.575083 16322 net.cpp:148] Top shape: 24 192 28 28 (3612672)
I0403 15:54:34.575098 16322 net.cpp:156] Memory required for data: 491324448
I0403 15:54:34.575110 16322 layer_factory.hpp:77] Creating layer inception_3a/1x1
I0403 15:54:34.575132 16322 net.cpp:91] Creating Layer inception_3a/1x1
I0403 15:54:34.575150 16322 net.cpp:425] inception_3a/1x1 <- pool2/3x3_s2_pool2/3x3_s2_0_split_0
I0403 15:54:34.575167 16322 net.cpp:399] inception_3a/1x1 -> inception_3a/1x1
I0403 15:54:34.576656 16322 net.cpp:141] Setting up inception_3a/1x1
I0403 15:54:34.576685 16322 net.cpp:148] Top shape: 24 64 28 28 (1204224)
I0403 15:54:34.576701 16322 net.cpp:156] Memory required for data: 496141344
I0403 15:54:34.576719 16322 layer_factory.hpp:77] Creating layer inception_3a/relu_1x1
I0403 15:54:34.576740 16322 net.cpp:91] Creating Layer inception_3a/relu_1x1
I0403 15:54:34.576756 16322 net.cpp:425] inception_3a/relu_1x1 <- inception_3a/1x1
I0403 15:54:34.576773 16322 net.cpp:386] inception_3a/relu_1x1 -> inception_3a/1x1 (in-place)
I0403 15:54:34.576944 16322 net.cpp:141] Setting up inception_3a/relu_1x1
I0403 15:54:34.576972 16322 net.cpp:148] Top shape: 24 64 28 28 (1204224)
I0403 15:54:34.576987 16322 net.cpp:156] Memory required for data: 500958240
I0403 15:54:34.577000 16322 layer_factory.hpp:77] Creating layer inception_3a/3x3_reduce
I0403 15:54:34.577023 16322 net.cpp:91] Creating Layer inception_3a/3x3_reduce
I0403 15:54:34.577040 16322 net.cpp:425] inception_3a/3x3_reduce <- pool2/3x3_s2_pool2/3x3_s2_0_split_1
I0403 15:54:34.577059 16322 net.cpp:399] inception_3a/3x3_reduce -> inception_3a/3x3_reduce
I0403 15:54:34.578707 16322 net.cpp:141] Setting up inception_3a/3x3_reduce
I0403 15:54:34.578737 16322 net.cpp:148] Top shape: 24 96 28 28 (1806336)
I0403 15:54:34.578752 16322 net.cpp:156] Memory required for data: 508183584
I0403 15:54:34.578773 16322 layer_factory.hpp:77] Creating layer inception_3a/relu_3x3_reduce
I0403 15:54:34.578809 16322 net.cpp:91] Creating Layer inception_3a/relu_3x3_reduce
I0403 15:54:34.578829 16322 net.cpp:425] inception_3a/relu_3x3_reduce <- inception_3a/3x3_reduce
I0403 15:54:34.578847 16322 net.cpp:386] inception_3a/relu_3x3_reduce -> inception_3a/3x3_reduce (in-place)
I0403 15:54:34.579025 16322 net.cpp:141] Setting up inception_3a/relu_3x3_reduce
I0403 15:54:34.579049 16322 net.cpp:148] Top shape: 24 96 28 28 (1806336)
I0403 15:54:34.579063 16322 net.cpp:156] Memory required for data: 515408928
I0403 15:54:34.579078 16322 layer_factory.hpp:77] Creating layer inception_3a/3x3
I0403 15:54:34.579099 16322 net.cpp:91] Creating Layer inception_3a/3x3
I0403 15:54:34.579116 16322 net.cpp:425] inception_3a/3x3 <- inception_3a/3x3_reduce
I0403 15:54:34.579138 16322 net.cpp:399] inception_3a/3x3 -> inception_3a/3x3
I0403 15:54:34.580755 16322 net.cpp:141] Setting up inception_3a/3x3
I0403 15:54:34.580785 16322 net.cpp:148] Top shape: 24 128 28 28 (2408448)
I0403 15:54:34.580802 16322 net.cpp:156] Memory required for data: 525042720
I0403 15:54:34.580821 16322 layer_factory.hpp:77] Creating layer inception_3a/relu_3x3
I0403 15:54:34.580838 16322 net.cpp:91] Creating Layer inception_3a/relu_3x3
I0403 15:54:34.580853 16322 net.cpp:425] inception_3a/relu_3x3 <- inception_3a/3x3
I0403 15:54:34.580870 16322 net.cpp:386] inception_3a/relu_3x3 -> inception_3a/3x3 (in-place)
I0403 15:54:34.581146 16322 net.cpp:141] Setting up inception_3a/relu_3x3
I0403 15:54:34.581176 16322 net.cpp:148] Top shape: 24 128 28 28 (2408448)
I0403 15:54:34.581192 16322 net.cpp:156] Memory required for data: 534676512
I0403 15:54:34.581205 16322 layer_factory.hpp:77] Creating layer inception_3a/5x5_reduce
I0403 15:54:34.581225 16322 net.cpp:91] Creating Layer inception_3a/5x5_reduce
I0403 15:54:34.581241 16322 net.cpp:425] inception_3a/5x5_reduce <- pool2/3x3_s2_pool2/3x3_s2_0_split_2
I0403 15:54:34.581262 16322 net.cpp:399] inception_3a/5x5_reduce -> inception_3a/5x5_reduce
I0403 15:54:34.582204 16322 net.cpp:141] Setting up inception_3a/5x5_reduce
I0403 15:54:34.582233 16322 net.cpp:148] Top shape: 24 16 28 28 (301056)
I0403 15:54:34.582249 16322 net.cpp:156] Memory required for data: 535880736
I0403 15:54:34.582267 16322 layer_factory.hpp:77] Creating layer inception_3a/relu_5x5_reduce
I0403 15:54:34.582285 16322 net.cpp:91] Creating Layer inception_3a/relu_5x5_reduce
I0403 15:54:34.582301 16322 net.cpp:425] inception_3a/relu_5x5_reduce <- inception_3a/5x5_reduce
I0403 15:54:34.582319 16322 net.cpp:386] inception_3a/relu_5x5_reduce -> inception_3a/5x5_reduce (in-place)
I0403 15:54:34.582612 16322 net.cpp:141] Setting up inception_3a/relu_5x5_reduce
I0403 15:54:34.582638 16322 net.cpp:148] Top shape: 24 16 28 28 (301056)
I0403 15:54:34.582653 16322 net.cpp:156] Memory required for data: 537084960
I0403 15:54:34.582667 16322 layer_factory.hpp:77] Creating layer inception_3a/5x5
I0403 15:54:34.582690 16322 net.cpp:91] Creating Layer inception_3a/5x5
I0403 15:54:34.582706 16322 net.cpp:425] inception_3a/5x5 <- inception_3a/5x5_reduce
I0403 15:54:34.582727 16322 net.cpp:399] inception_3a/5x5 -> inception_3a/5x5
I0403 15:54:34.583722 16322 net.cpp:141] Setting up inception_3a/5x5
I0403 15:54:34.583750 16322 net.cpp:148] Top shape: 24 32 28 28 (602112)
I0403 15:54:34.583765 16322 net.cpp:156] Memory required for data: 539493408
I0403 15:54:34.583783 16322 layer_factory.hpp:77] Creating layer inception_3a/relu_5x5
I0403 15:54:34.583803 16322 net.cpp:91] Creating Layer inception_3a/relu_5x5
I0403 15:54:34.583820 16322 net.cpp:425] inception_3a/relu_5x5 <- inception_3a/5x5
I0403 15:54:34.583837 16322 net.cpp:386] inception_3a/relu_5x5 -> inception_3a/5x5 (in-place)
I0403 15:54:34.584008 16322 net.cpp:141] Setting up inception_3a/relu_5x5
I0403 15:54:34.584038 16322 net.cpp:148] Top shape: 24 32 28 28 (602112)
I0403 15:54:34.584054 16322 net.cpp:156] Memory required for data: 541901856
I0403 15:54:34.584069 16322 layer_factory.hpp:77] Creating layer inception_3a/pool
I0403 15:54:34.584087 16322 net.cpp:91] Creating Layer inception_3a/pool
I0403 15:54:34.584116 16322 net.cpp:425] inception_3a/pool <- pool2/3x3_s2_pool2/3x3_s2_0_split_3
I0403 15:54:34.584138 16322 net.cpp:399] inception_3a/pool -> inception_3a/pool
I0403 15:54:34.584195 16322 net.cpp:141] Setting up inception_3a/pool
I0403 15:54:34.584218 16322 net.cpp:148] Top shape: 24 192 28 28 (3612672)
I0403 15:54:34.584233 16322 net.cpp:156] Memory required for data: 556352544
I0403 15:54:34.584247 16322 layer_factory.hpp:77] Creating layer inception_3a/pool_proj
I0403 15:54:34.584269 16322 net.cpp:91] Creating Layer inception_3a/pool_proj
I0403 15:54:34.584285 16322 net.cpp:425] inception_3a/pool_proj <- inception_3a/pool
I0403 15:54:34.584307 16322 net.cpp:399] inception_3a/pool_proj -> inception_3a/pool_proj
I0403 15:54:34.585249 16322 net.cpp:141] Setting up inception_3a/pool_proj
I0403 15:54:34.585278 16322 net.cpp:148] Top shape: 24 32 28 28 (602112)
I0403 15:54:34.585292 16322 net.cpp:156] Memory required for data: 558760992
I0403 15:54:34.585316 16322 layer_factory.hpp:77] Creating layer inception_3a/relu_pool_proj
I0403 15:54:34.585336 16322 net.cpp:91] Creating Layer inception_3a/relu_pool_proj
I0403 15:54:34.585352 16322 net.cpp:425] inception_3a/relu_pool_proj <- inception_3a/pool_proj
I0403 15:54:34.585369 16322 net.cpp:386] inception_3a/relu_pool_proj -> inception_3a/pool_proj (in-place)
I0403 15:54:34.585640 16322 net.cpp:141] Setting up inception_3a/relu_pool_proj
I0403 15:54:34.585669 16322 net.cpp:148] Top shape: 24 32 28 28 (602112)
I0403 15:54:34.585685 16322 net.cpp:156] Memory required for data: 561169440
I0403 15:54:34.585700 16322 layer_factory.hpp:77] Creating layer inception_3a/output
I0403 15:54:34.585717 16322 net.cpp:91] Creating Layer inception_3a/output
I0403 15:54:34.585732 16322 net.cpp:425] inception_3a/output <- inception_3a/1x1
I0403 15:54:34.585748 16322 net.cpp:425] inception_3a/output <- inception_3a/3x3
I0403 15:54:34.585764 16322 net.cpp:425] inception_3a/output <- inception_3a/5x5
I0403 15:54:34.585779 16322 net.cpp:425] inception_3a/output <- inception_3a/pool_proj
I0403 15:54:34.585796 16322 net.cpp:399] inception_3a/output -> inception_3a/output
I0403 15:54:34.585844 16322 net.cpp:141] Setting up inception_3a/output
I0403 15:54:34.585866 16322 net.cpp:148] Top shape: 24 256 28 28 (4816896)
I0403 15:54:34.585880 16322 net.cpp:156] Memory required for data: 580437024
I0403 15:54:34.585896 16322 layer_factory.hpp:77] Creating layer inception_3a/output_inception_3a/output_0_split
I0403 15:54:34.585911 16322 net.cpp:91] Creating Layer inception_3a/output_inception_3a/output_0_split
I0403 15:54:34.585927 16322 net.cpp:425] inception_3a/output_inception_3a/output_0_split <- inception_3a/output
I0403 15:54:34.585945 16322 net.cpp:399] inception_3a/output_inception_3a/output_0_split -> inception_3a/output_inception_3a/output_0_split_0
I0403 15:54:34.585965 16322 net.cpp:399] inception_3a/output_inception_3a/output_0_split -> inception_3a/output_inception_3a/output_0_split_1
I0403 15:54:34.585990 16322 net.cpp:399] inception_3a/output_inception_3a/output_0_split -> inception_3a/output_inception_3a/output_0_split_2
I0403 15:54:34.586012 16322 net.cpp:399] inception_3a/output_inception_3a/output_0_split -> inception_3a/output_inception_3a/output_0_split_3
I0403 15:54:34.586084 16322 net.cpp:141] Setting up inception_3a/output_inception_3a/output_0_split
I0403 15:54:34.586107 16322 net.cpp:148] Top shape: 24 256 28 28 (4816896)
I0403 15:54:34.586124 16322 net.cpp:148] Top shape: 24 256 28 28 (4816896)
I0403 15:54:34.586140 16322 net.cpp:148] Top shape: 24 256 28 28 (4816896)
I0403 15:54:34.586154 16322 net.cpp:148] Top shape: 24 256 28 28 (4816896)
I0403 15:54:34.586169 16322 net.cpp:156] Memory required for data: 657507360
I0403 15:54:34.586182 16322 layer_factory.hpp:77] Creating layer inception_3b/1x1
I0403 15:54:34.586211 16322 net.cpp:91] Creating Layer inception_3b/1x1
I0403 15:54:34.586230 16322 net.cpp:425] inception_3b/1x1 <- inception_3a/output_inception_3a/output_0_split_0
I0403 15:54:34.586251 16322 net.cpp:399] inception_3b/1x1 -> inception_3b/1x1
I0403 15:54:34.587363 16322 net.cpp:141] Setting up inception_3b/1x1
I0403 15:54:34.587402 16322 net.cpp:148] Top shape: 24 128 28 28 (2408448)
I0403 15:54:34.587419 16322 net.cpp:156] Memory required for data: 667141152
I0403 15:54:34.587436 16322 layer_factory.hpp:77] Creating layer inception_3b/relu_1x1
I0403 15:54:34.587457 16322 net.cpp:91] Creating Layer inception_3b/relu_1x1
I0403 15:54:34.587473 16322 net.cpp:425] inception_3b/relu_1x1 <- inception_3b/1x1
I0403 15:54:34.587491 16322 net.cpp:386] inception_3b/relu_1x1 -> inception_3b/1x1 (in-place)
I0403 15:54:34.587671 16322 net.cpp:141] Setting up inception_3b/relu_1x1
I0403 15:54:34.587697 16322 net.cpp:148] Top shape: 24 128 28 28 (2408448)
I0403 15:54:34.587713 16322 net.cpp:156] Memory required for data: 676774944
I0403 15:54:34.587728 16322 layer_factory.hpp:77] Creating layer inception_3b/3x3_reduce
I0403 15:54:34.587746 16322 net.cpp:91] Creating Layer inception_3b/3x3_reduce
I0403 15:54:34.587764 16322 net.cpp:425] inception_3b/3x3_reduce <- inception_3a/output_inception_3a/output_0_split_1
I0403 15:54:34.587785 16322 net.cpp:399] inception_3b/3x3_reduce -> inception_3b/3x3_reduce
I0403 15:54:34.588896 16322 net.cpp:141] Setting up inception_3b/3x3_reduce
I0403 15:54:34.588922 16322 net.cpp:148] Top shape: 24 128 28 28 (2408448)
I0403 15:54:34.588938 16322 net.cpp:156] Memory required for data: 686408736
I0403 15:54:34.588956 16322 layer_factory.hpp:77] Creating layer inception_3b/relu_3x3_reduce
I0403 15:54:34.588976 16322 net.cpp:91] Creating Layer inception_3b/relu_3x3_reduce
I0403 15:54:34.588994 16322 net.cpp:425] inception_3b/relu_3x3_reduce <- inception_3b/3x3_reduce
I0403 15:54:34.589011 16322 net.cpp:386] inception_3b/relu_3x3_reduce -> inception_3b/3x3_reduce (in-place)
I0403 15:54:34.589179 16322 net.cpp:141] Setting up inception_3b/relu_3x3_reduce
I0403 15:54:34.589203 16322 net.cpp:148] Top shape: 24 128 28 28 (2408448)
I0403 15:54:34.589218 16322 net.cpp:156] Memory required for data: 696042528
I0403 15:54:34.589232 16322 layer_factory.hpp:77] Creating layer inception_3b/3x3
I0403 15:54:34.589257 16322 net.cpp:91] Creating Layer inception_3b/3x3
I0403 15:54:34.589275 16322 net.cpp:425] inception_3b/3x3 <- inception_3b/3x3_reduce
I0403 15:54:34.589296 16322 net.cpp:399] inception_3b/3x3 -> inception_3b/3x3
I0403 15:54:34.592157 16322 net.cpp:141] Setting up inception_3b/3x3
I0403 15:54:34.592188 16322 net.cpp:148] Top shape: 24 192 28 28 (3612672)
I0403 15:54:34.592205 16322 net.cpp:156] Memory required for data: 710493216
I0403 15:54:34.592222 16322 layer_factory.hpp:77] Creating layer inception_3b/relu_3x3
I0403 15:54:34.592242 16322 net.cpp:91] Creating Layer inception_3b/relu_3x3
I0403 15:54:34.592257 16322 net.cpp:425] inception_3b/relu_3x3 <- inception_3b/3x3
I0403 15:54:34.592274 16322 net.cpp:386] inception_3b/relu_3x3 -> inception_3b/3x3 (in-place)
I0403 15:54:34.592547 16322 net.cpp:141] Setting up inception_3b/relu_3x3
I0403 15:54:34.592576 16322 net.cpp:148] Top shape: 24 192 28 28 (3612672)
I0403 15:54:34.592591 16322 net.cpp:156] Memory required for data: 724943904
I0403 15:54:34.592610 16322 layer_factory.hpp:77] Creating layer inception_3b/5x5_reduce
I0403 15:54:34.592631 16322 net.cpp:91] Creating Layer inception_3b/5x5_reduce
I0403 15:54:34.592649 16322 net.cpp:425] inception_3b/5x5_reduce <- inception_3a/output_inception_3a/output_0_split_2
I0403 15:54:34.592670 16322 net.cpp:399] inception_3b/5x5_reduce -> inception_3b/5x5_reduce
I0403 15:54:34.593653 16322 net.cpp:141] Setting up inception_3b/5x5_reduce
I0403 15:54:34.593682 16322 net.cpp:148] Top shape: 24 32 28 28 (602112)
I0403 15:54:34.593696 16322 net.cpp:156] Memory required for data: 727352352
I0403 15:54:34.593714 16322 layer_factory.hpp:77] Creating layer inception_3b/relu_5x5_reduce
I0403 15:54:34.593747 16322 net.cpp:91] Creating Layer inception_3b/relu_5x5_reduce
I0403 15:54:34.593763 16322 net.cpp:425] inception_3b/relu_5x5_reduce <- inception_3b/5x5_reduce
I0403 15:54:34.593780 16322 net.cpp:386] inception_3b/relu_5x5_reduce -> inception_3b/5x5_reduce (in-place)
I0403 15:54:34.593968 16322 net.cpp:141] Setting up inception_3b/relu_5x5_reduce
I0403 15:54:34.593994 16322 net.cpp:148] Top shape: 24 32 28 28 (602112)
I0403 15:54:34.594009 16322 net.cpp:156] Memory required for data: 729760800
I0403 15:54:34.594023 16322 layer_factory.hpp:77] Creating layer inception_3b/5x5
I0403 15:54:34.594044 16322 net.cpp:91] Creating Layer inception_3b/5x5
I0403 15:54:34.594061 16322 net.cpp:425] inception_3b/5x5 <- inception_3b/5x5_reduce
I0403 15:54:34.594079 16322 net.cpp:399] inception_3b/5x5 -> inception_3b/5x5
I0403 15:54:34.595993 16322 net.cpp:141] Setting up inception_3b/5x5
I0403 15:54:34.596021 16322 net.cpp:148] Top shape: 24 96 28 28 (1806336)
I0403 15:54:34.596036 16322 net.cpp:156] Memory required for data: 736986144
I0403 15:54:34.596055 16322 layer_factory.hpp:77] Creating layer inception_3b/relu_5x5
I0403 15:54:34.596074 16322 net.cpp:91] Creating Layer inception_3b/relu_5x5
I0403 15:54:34.596091 16322 net.cpp:425] inception_3b/relu_5x5 <- inception_3b/5x5
I0403 15:54:34.596107 16322 net.cpp:386] inception_3b/relu_5x5 -> inception_3b/5x5 (in-place)
I0403 15:54:34.596289 16322 net.cpp:141] Setting up inception_3b/relu_5x5
I0403 15:54:34.596314 16322 net.cpp:148] Top shape: 24 96 28 28 (1806336)
I0403 15:54:34.596328 16322 net.cpp:156] Memory required for data: 744211488
I0403 15:54:34.596343 16322 layer_factory.hpp:77] Creating layer inception_3b/pool
I0403 15:54:34.596359 16322 net.cpp:91] Creating Layer inception_3b/pool
I0403 15:54:34.596374 16322 net.cpp:425] inception_3b/pool <- inception_3a/output_inception_3a/output_0_split_3
I0403 15:54:34.596391 16322 net.cpp:399] inception_3b/pool -> inception_3b/pool
I0403 15:54:34.596446 16322 net.cpp:141] Setting up inception_3b/pool
I0403 15:54:34.596467 16322 net.cpp:148] Top shape: 24 256 28 28 (4816896)
I0403 15:54:34.596482 16322 net.cpp:156] Memory required for data: 763479072
I0403 15:54:34.596495 16322 layer_factory.hpp:77] Creating layer inception_3b/pool_proj
I0403 15:54:34.596516 16322 net.cpp:91] Creating Layer inception_3b/pool_proj
I0403 15:54:34.596534 16322 net.cpp:425] inception_3b/pool_proj <- inception_3b/pool
I0403 15:54:34.596554 16322 net.cpp:399] inception_3b/pool_proj -> inception_3b/pool_proj
I0403 15:54:34.597579 16322 net.cpp:141] Setting up inception_3b/pool_proj
I0403 15:54:34.597612 16322 net.cpp:148] Top shape: 24 64 28 28 (1204224)
I0403 15:54:34.597630 16322 net.cpp:156] Memory required for data: 768295968
I0403 15:54:34.597647 16322 layer_factory.hpp:77] Creating layer inception_3b/relu_pool_proj
I0403 15:54:34.597664 16322 net.cpp:91] Creating Layer inception_3b/relu_pool_proj
I0403 15:54:34.597679 16322 net.cpp:425] inception_3b/relu_pool_proj <- inception_3b/pool_proj
I0403 15:54:34.597698 16322 net.cpp:386] inception_3b/relu_pool_proj -> inception_3b/pool_proj (in-place)
I0403 15:54:34.598079 16322 net.cpp:141] Setting up inception_3b/relu_pool_proj
I0403 15:54:34.598107 16322 net.cpp:148] Top shape: 24 64 28 28 (1204224)
I0403 15:54:34.598122 16322 net.cpp:156] Memory required for data: 773112864
I0403 15:54:34.598136 16322 layer_factory.hpp:77] Creating layer inception_3b/output
I0403 15:54:34.598152 16322 net.cpp:91] Creating Layer inception_3b/output
I0403 15:54:34.598167 16322 net.cpp:425] inception_3b/output <- inception_3b/1x1
I0403 15:54:34.598183 16322 net.cpp:425] inception_3b/output <- inception_3b/3x3
I0403 15:54:34.598198 16322 net.cpp:425] inception_3b/output <- inception_3b/5x5
I0403 15:54:34.598213 16322 net.cpp:425] inception_3b/output <- inception_3b/pool_proj
I0403 15:54:34.598229 16322 net.cpp:399] inception_3b/output -> inception_3b/output
I0403 15:54:34.598273 16322 net.cpp:141] Setting up inception_3b/output
I0403 15:54:34.598299 16322 net.cpp:148] Top shape: 24 480 28 28 (9031680)
I0403 15:54:34.598315 16322 net.cpp:156] Memory required for data: 809239584
I0403 15:54:34.598328 16322 layer_factory.hpp:77] Creating layer pool3/3x3_s2
I0403 15:54:34.598347 16322 net.cpp:91] Creating Layer pool3/3x3_s2
I0403 15:54:34.598363 16322 net.cpp:425] pool3/3x3_s2 <- inception_3b/output
I0403 15:54:34.598395 16322 net.cpp:399] pool3/3x3_s2 -> pool3/3x3_s2
I0403 15:54:34.598453 16322 net.cpp:141] Setting up pool3/3x3_s2
I0403 15:54:34.598476 16322 net.cpp:148] Top shape: 24 480 14 14 (2257920)
I0403 15:54:34.598490 16322 net.cpp:156] Memory required for data: 818271264
I0403 15:54:34.598503 16322 layer_factory.hpp:77] Creating layer pool3/3x3_s2_pool3/3x3_s2_0_split
I0403 15:54:34.598520 16322 net.cpp:91] Creating Layer pool3/3x3_s2_pool3/3x3_s2_0_split
I0403 15:54:34.598533 16322 net.cpp:425] pool3/3x3_s2_pool3/3x3_s2_0_split <- pool3/3x3_s2
I0403 15:54:34.598554 16322 net.cpp:399] pool3/3x3_s2_pool3/3x3_s2_0_split -> pool3/3x3_s2_pool3/3x3_s2_0_split_0
I0403 15:54:34.598575 16322 net.cpp:399] pool3/3x3_s2_pool3/3x3_s2_0_split -> pool3/3x3_s2_pool3/3x3_s2_0_split_1
I0403 15:54:34.598594 16322 net.cpp:399] pool3/3x3_s2_pool3/3x3_s2_0_split -> pool3/3x3_s2_pool3/3x3_s2_0_split_2
I0403 15:54:34.598618 16322 net.cpp:399] pool3/3x3_s2_pool3/3x3_s2_0_split -> pool3/3x3_s2_pool3/3x3_s2_0_split_3
I0403 15:54:34.598693 16322 net.cpp:141] Setting up pool3/3x3_s2_pool3/3x3_s2_0_split
I0403 15:54:34.598717 16322 net.cpp:148] Top shape: 24 480 14 14 (2257920)
I0403 15:54:34.598733 16322 net.cpp:148] Top shape: 24 480 14 14 (2257920)
I0403 15:54:34.598748 16322 net.cpp:148] Top shape: 24 480 14 14 (2257920)
I0403 15:54:34.598762 16322 net.cpp:148] Top shape: 24 480 14 14 (2257920)
I0403 15:54:34.598775 16322 net.cpp:156] Memory required for data: 854397984
I0403 15:54:34.598789 16322 layer_factory.hpp:77] Creating layer inception_4a/1x1
I0403 15:54:34.598810 16322 net.cpp:91] Creating Layer inception_4a/1x1
I0403 15:54:34.598826 16322 net.cpp:425] inception_4a/1x1 <- pool3/3x3_s2_pool3/3x3_s2_0_split_0
I0403 15:54:34.598845 16322 net.cpp:399] inception_4a/1x1 -> inception_4a/1x1
I0403 15:54:34.600353 16322 net.cpp:141] Setting up inception_4a/1x1
I0403 15:54:34.600379 16322 net.cpp:148] Top shape: 24 192 14 14 (903168)
I0403 15:54:34.600394 16322 net.cpp:156] Memory required for data: 858010656
I0403 15:54:34.600411 16322 layer_factory.hpp:77] Creating layer inception_4a/relu_1x1
I0403 15:54:34.600430 16322 net.cpp:91] Creating Layer inception_4a/relu_1x1
I0403 15:54:34.600445 16322 net.cpp:425] inception_4a/relu_1x1 <- inception_4a/1x1
I0403 15:54:34.600463 16322 net.cpp:386] inception_4a/relu_1x1 -> inception_4a/1x1 (in-place)
I0403 15:54:34.600638 16322 net.cpp:141] Setting up inception_4a/relu_1x1
I0403 15:54:34.600662 16322 net.cpp:148] Top shape: 24 192 14 14 (903168)
I0403 15:54:34.600677 16322 net.cpp:156] Memory required for data: 861623328
I0403 15:54:34.600690 16322 layer_factory.hpp:77] Creating layer inception_4a/3x3_reduce
I0403 15:54:34.600711 16322 net.cpp:91] Creating Layer inception_4a/3x3_reduce
I0403 15:54:34.600728 16322 net.cpp:425] inception_4a/3x3_reduce <- pool3/3x3_s2_pool3/3x3_s2_0_split_1
I0403 15:54:34.600749 16322 net.cpp:399] inception_4a/3x3_reduce -> inception_4a/3x3_reduce
I0403 15:54:34.601969 16322 net.cpp:141] Setting up inception_4a/3x3_reduce
I0403 15:54:34.601994 16322 net.cpp:148] Top shape: 24 96 14 14 (451584)
I0403 15:54:34.602010 16322 net.cpp:156] Memory required for data: 863429664
I0403 15:54:34.602036 16322 layer_factory.hpp:77] Creating layer inception_4a/relu_3x3_reduce
I0403 15:54:34.602056 16322 net.cpp:91] Creating Layer inception_4a/relu_3x3_reduce
I0403 15:54:34.602072 16322 net.cpp:425] inception_4a/relu_3x3_reduce <- inception_4a/3x3_reduce
I0403 15:54:34.602090 16322 net.cpp:386] inception_4a/relu_3x3_reduce -> inception_4a/3x3_reduce (in-place)
I0403 15:54:34.602257 16322 net.cpp:141] Setting up inception_4a/relu_3x3_reduce
I0403 15:54:34.602282 16322 net.cpp:148] Top shape: 24 96 14 14 (451584)
I0403 15:54:34.602295 16322 net.cpp:156] Memory required for data: 865236000
I0403 15:54:34.602309 16322 layer_factory.hpp:77] Creating layer inception_4a/3x3
I0403 15:54:34.602330 16322 net.cpp:91] Creating Layer inception_4a/3x3
I0403 15:54:34.602347 16322 net.cpp:425] inception_4a/3x3 <- inception_4a/3x3_reduce
I0403 15:54:34.602367 16322 net.cpp:399] inception_4a/3x3 -> inception_4a/3x3
I0403 15:54:34.604943 16322 net.cpp:141] Setting up inception_4a/3x3
I0403 15:54:34.604971 16322 net.cpp:148] Top shape: 24 208 14 14 (978432)
I0403 15:54:34.604987 16322 net.cpp:156] Memory required for data: 869149728
I0403 15:54:34.605005 16322 layer_factory.hpp:77] Creating layer inception_4a/relu_3x3
I0403 15:54:34.605025 16322 net.cpp:91] Creating Layer inception_4a/relu_3x3
I0403 15:54:34.605041 16322 net.cpp:425] inception_4a/relu_3x3 <- inception_4a/3x3
I0403 15:54:34.605057 16322 net.cpp:386] inception_4a/relu_3x3 -> inception_4a/3x3 (in-place)
I0403 15:54:34.605327 16322 net.cpp:141] Setting up inception_4a/relu_3x3
I0403 15:54:34.605352 16322 net.cpp:148] Top shape: 24 208 14 14 (978432)
I0403 15:54:34.605367 16322 net.cpp:156] Memory required for data: 873063456
I0403 15:54:34.605381 16322 layer_factory.hpp:77] Creating layer inception_4a/5x5_reduce
I0403 15:54:34.605402 16322 net.cpp:91] Creating Layer inception_4a/5x5_reduce
I0403 15:54:34.605419 16322 net.cpp:425] inception_4a/5x5_reduce <- pool3/3x3_s2_pool3/3x3_s2_0_split_2
I0403 15:54:34.605439 16322 net.cpp:399] inception_4a/5x5_reduce -> inception_4a/5x5_reduce
I0403 15:54:34.606458 16322 net.cpp:141] Setting up inception_4a/5x5_reduce
I0403 15:54:34.606485 16322 net.cpp:148] Top shape: 24 16 14 14 (75264)
I0403 15:54:34.606500 16322 net.cpp:156] Memory required for data: 873364512
I0403 15:54:34.606519 16322 layer_factory.hpp:77] Creating layer inception_4a/relu_5x5_reduce
I0403 15:54:34.606539 16322 net.cpp:91] Creating Layer inception_4a/relu_5x5_reduce
I0403 15:54:34.606555 16322 net.cpp:425] inception_4a/relu_5x5_reduce <- inception_4a/5x5_reduce
I0403 15:54:34.606572 16322 net.cpp:386] inception_4a/relu_5x5_reduce -> inception_4a/5x5_reduce (in-place)
I0403 15:54:34.606753 16322 net.cpp:141] Setting up inception_4a/relu_5x5_reduce
I0403 15:54:34.606781 16322 net.cpp:148] Top shape: 24 16 14 14 (75264)
I0403 15:54:34.606796 16322 net.cpp:156] Memory required for data: 873665568
I0403 15:54:34.606812 16322 layer_factory.hpp:77] Creating layer inception_4a/5x5
I0403 15:54:34.606833 16322 net.cpp:91] Creating Layer inception_4a/5x5
I0403 15:54:34.606850 16322 net.cpp:425] inception_4a/5x5 <- inception_4a/5x5_reduce
I0403 15:54:34.606868 16322 net.cpp:399] inception_4a/5x5 -> inception_4a/5x5
I0403 15:54:34.607936 16322 net.cpp:141] Setting up inception_4a/5x5
I0403 15:54:34.607966 16322 net.cpp:148] Top shape: 24 48 14 14 (225792)
I0403 15:54:34.607983 16322 net.cpp:156] Memory required for data: 874568736
I0403 15:54:34.608001 16322 layer_factory.hpp:77] Creating layer inception_4a/relu_5x5
I0403 15:54:34.608018 16322 net.cpp:91] Creating Layer inception_4a/relu_5x5
I0403 15:54:34.608034 16322 net.cpp:425] inception_4a/relu_5x5 <- inception_4a/5x5
I0403 15:54:34.608053 16322 net.cpp:386] inception_4a/relu_5x5 -> inception_4a/5x5 (in-place)
I0403 15:54:34.608229 16322 net.cpp:141] Setting up inception_4a/relu_5x5
I0403 15:54:34.608254 16322 net.cpp:148] Top shape: 24 48 14 14 (225792)
I0403 15:54:34.608269 16322 net.cpp:156] Memory required for data: 875471904
I0403 15:54:34.608284 16322 layer_factory.hpp:77] Creating layer inception_4a/pool
I0403 15:54:34.608301 16322 net.cpp:91] Creating Layer inception_4a/pool
I0403 15:54:34.608316 16322 net.cpp:425] inception_4a/pool <- pool3/3x3_s2_pool3/3x3_s2_0_split_3
I0403 15:54:34.608337 16322 net.cpp:399] inception_4a/pool -> inception_4a/pool
I0403 15:54:34.608402 16322 net.cpp:141] Setting up inception_4a/pool
I0403 15:54:34.608425 16322 net.cpp:148] Top shape: 24 480 14 14 (2257920)
I0403 15:54:34.608439 16322 net.cpp:156] Memory required for data: 884503584
I0403 15:54:34.608453 16322 layer_factory.hpp:77] Creating layer inception_4a/pool_proj
I0403 15:54:34.608475 16322 net.cpp:91] Creating Layer inception_4a/pool_proj
I0403 15:54:34.608492 16322 net.cpp:425] inception_4a/pool_proj <- inception_4a/pool
I0403 15:54:34.608513 16322 net.cpp:399] inception_4a/pool_proj -> inception_4a/pool_proj
I0403 15:54:34.609663 16322 net.cpp:141] Setting up inception_4a/pool_proj
I0403 15:54:34.609691 16322 net.cpp:148] Top shape: 24 64 14 14 (301056)
I0403 15:54:34.609720 16322 net.cpp:156] Memory required for data: 885707808
I0403 15:54:34.609740 16322 layer_factory.hpp:77] Creating layer inception_4a/relu_pool_proj
I0403 15:54:34.609758 16322 net.cpp:91] Creating Layer inception_4a/relu_pool_proj
I0403 15:54:34.609774 16322 net.cpp:425] inception_4a/relu_pool_proj <- inception_4a/pool_proj
I0403 15:54:34.609796 16322 net.cpp:386] inception_4a/relu_pool_proj -> inception_4a/pool_proj (in-place)
I0403 15:54:34.610080 16322 net.cpp:141] Setting up inception_4a/relu_pool_proj
I0403 15:54:34.610106 16322 net.cpp:148] Top shape: 24 64 14 14 (301056)
I0403 15:54:34.610121 16322 net.cpp:156] Memory required for data: 886912032
I0403 15:54:34.610136 16322 layer_factory.hpp:77] Creating layer inception_4a/output
I0403 15:54:34.610152 16322 net.cpp:91] Creating Layer inception_4a/output
I0403 15:54:34.610167 16322 net.cpp:425] inception_4a/output <- inception_4a/1x1
I0403 15:54:34.610183 16322 net.cpp:425] inception_4a/output <- inception_4a/3x3
I0403 15:54:34.610199 16322 net.cpp:425] inception_4a/output <- inception_4a/5x5
I0403 15:54:34.610214 16322 net.cpp:425] inception_4a/output <- inception_4a/pool_proj
I0403 15:54:34.610234 16322 net.cpp:399] inception_4a/output -> inception_4a/output
I0403 15:54:34.610282 16322 net.cpp:141] Setting up inception_4a/output
I0403 15:54:34.610308 16322 net.cpp:148] Top shape: 24 512 14 14 (2408448)
I0403 15:54:34.610323 16322 net.cpp:156] Memory required for data: 896545824
I0403 15:54:34.610337 16322 layer_factory.hpp:77] Creating layer inception_4a/output_inception_4a/output_0_split
I0403 15:54:34.610354 16322 net.cpp:91] Creating Layer inception_4a/output_inception_4a/output_0_split
I0403 15:54:34.610370 16322 net.cpp:425] inception_4a/output_inception_4a/output_0_split <- inception_4a/output
I0403 15:54:34.610388 16322 net.cpp:399] inception_4a/output_inception_4a/output_0_split -> inception_4a/output_inception_4a/output_0_split_0
I0403 15:54:34.610409 16322 net.cpp:399] inception_4a/output_inception_4a/output_0_split -> inception_4a/output_inception_4a/output_0_split_1
I0403 15:54:34.610431 16322 net.cpp:399] inception_4a/output_inception_4a/output_0_split -> inception_4a/output_inception_4a/output_0_split_2
I0403 15:54:34.610451 16322 net.cpp:399] inception_4a/output_inception_4a/output_0_split -> inception_4a/output_inception_4a/output_0_split_3
I0403 15:54:34.610471 16322 net.cpp:399] inception_4a/output_inception_4a/output_0_split -> inception_4a/output_inception_4a/output_0_split_4
I0403 15:54:34.610561 16322 net.cpp:141] Setting up inception_4a/output_inception_4a/output_0_split
I0403 15:54:34.610584 16322 net.cpp:148] Top shape: 24 512 14 14 (2408448)
I0403 15:54:34.610605 16322 net.cpp:148] Top shape: 24 512 14 14 (2408448)
I0403 15:54:34.610621 16322 net.cpp:148] Top shape: 24 512 14 14 (2408448)
I0403 15:54:34.610636 16322 net.cpp:148] Top shape: 24 512 14 14 (2408448)
I0403 15:54:34.610651 16322 net.cpp:148] Top shape: 24 512 14 14 (2408448)
I0403 15:54:34.610664 16322 net.cpp:156] Memory required for data: 944714784
I0403 15:54:34.610678 16322 layer_factory.hpp:77] Creating layer loss1/ave_pool
I0403 15:54:34.610698 16322 net.cpp:91] Creating Layer loss1/ave_pool
I0403 15:54:34.610714 16322 net.cpp:425] loss1/ave_pool <- inception_4a/output_inception_4a/output_0_split_0
I0403 15:54:34.610733 16322 net.cpp:399] loss1/ave_pool -> loss1/ave_pool
I0403 15:54:34.610937 16322 net.cpp:141] Setting up loss1/ave_pool
I0403 15:54:34.610962 16322 net.cpp:148] Top shape: 24 512 4 4 (196608)
I0403 15:54:34.610976 16322 net.cpp:156] Memory required for data: 945501216
I0403 15:54:34.610991 16322 layer_factory.hpp:77] Creating layer loss1/conv
I0403 15:54:34.611013 16322 net.cpp:91] Creating Layer loss1/conv
I0403 15:54:34.611030 16322 net.cpp:425] loss1/conv <- loss1/ave_pool
I0403 15:54:34.611050 16322 net.cpp:399] loss1/conv -> loss1/conv
I0403 15:54:34.612455 16322 net.cpp:141] Setting up loss1/conv
I0403 15:54:34.612483 16322 net.cpp:148] Top shape: 24 128 4 4 (49152)
I0403 15:54:34.612512 16322 net.cpp:156] Memory required for data: 945697824
I0403 15:54:34.612531 16322 layer_factory.hpp:77] Creating layer loss1/relu_conv
I0403 15:54:34.612552 16322 net.cpp:91] Creating Layer loss1/relu_conv
I0403 15:54:34.612571 16322 net.cpp:425] loss1/relu_conv <- loss1/conv
I0403 15:54:34.612587 16322 net.cpp:386] loss1/relu_conv -> loss1/conv (in-place)
I0403 15:54:34.612875 16322 net.cpp:141] Setting up loss1/relu_conv
I0403 15:54:34.612901 16322 net.cpp:148] Top shape: 24 128 4 4 (49152)
I0403 15:54:34.612915 16322 net.cpp:156] Memory required for data: 945894432
I0403 15:54:34.612931 16322 layer_factory.hpp:77] Creating layer loss1/fc
I0403 15:54:34.612956 16322 net.cpp:91] Creating Layer loss1/fc
I0403 15:54:34.612973 16322 net.cpp:425] loss1/fc <- loss1/conv
I0403 15:54:34.612993 16322 net.cpp:399] loss1/fc -> loss1/fc
I0403 15:54:34.630506 16322 net.cpp:141] Setting up loss1/fc
I0403 15:54:34.630537 16322 net.cpp:148] Top shape: 24 1024 (24576)
I0403 15:54:34.630553 16322 net.cpp:156] Memory required for data: 945992736
I0403 15:54:34.630571 16322 layer_factory.hpp:77] Creating layer loss1/relu_fc
I0403 15:54:34.630589 16322 net.cpp:91] Creating Layer loss1/relu_fc
I0403 15:54:34.630609 16322 net.cpp:425] loss1/relu_fc <- loss1/fc
I0403 15:54:34.630628 16322 net.cpp:386] loss1/relu_fc -> loss1/fc (in-place)
I0403 15:54:34.630815 16322 net.cpp:141] Setting up loss1/relu_fc
I0403 15:54:34.630838 16322 net.cpp:148] Top shape: 24 1024 (24576)
I0403 15:54:34.630853 16322 net.cpp:156] Memory required for data: 946091040
I0403 15:54:34.630867 16322 layer_factory.hpp:77] Creating layer loss1/drop_fc
I0403 15:54:34.630893 16322 net.cpp:91] Creating Layer loss1/drop_fc
I0403 15:54:34.630911 16322 net.cpp:425] loss1/drop_fc <- loss1/fc
I0403 15:54:34.630928 16322 net.cpp:386] loss1/drop_fc -> loss1/fc (in-place)
I0403 15:54:34.630975 16322 net.cpp:141] Setting up loss1/drop_fc
I0403 15:54:34.631001 16322 net.cpp:148] Top shape: 24 1024 (24576)
I0403 15:54:34.631016 16322 net.cpp:156] Memory required for data: 946189344
I0403 15:54:34.631031 16322 layer_factory.hpp:77] Creating layer loss1/classifier_plantvillage
I0403 15:54:34.631049 16322 net.cpp:91] Creating Layer loss1/classifier_plantvillage
I0403 15:54:34.631064 16322 net.cpp:425] loss1/classifier_plantvillage <- loss1/fc
I0403 15:54:34.631083 16322 net.cpp:399] loss1/classifier_plantvillage -> loss1/classifier_plantvillage
I0403 15:54:34.631968 16322 net.cpp:141] Setting up loss1/classifier_plantvillage
I0403 15:54:34.631994 16322 net.cpp:148] Top shape: 24 38 (912)
I0403 15:54:34.632009 16322 net.cpp:156] Memory required for data: 946192992
I0403 15:54:34.632026 16322 layer_factory.hpp:77] Creating layer loss1/classifier_plantvillage_loss1/classifier_plantvillage_0_split
I0403 15:54:34.632046 16322 net.cpp:91] Creating Layer loss1/classifier_plantvillage_loss1/classifier_plantvillage_0_split
I0403 15:54:34.632062 16322 net.cpp:425] loss1/classifier_plantvillage_loss1/classifier_plantvillage_0_split <- loss1/classifier_plantvillage
I0403 15:54:34.632078 16322 net.cpp:399] loss1/classifier_plantvillage_loss1/classifier_plantvillage_0_split -> loss1/classifier_plantvillage_loss1/classifier_plantvillage_0_split_0
I0403 15:54:34.632098 16322 net.cpp:399] loss1/classifier_plantvillage_loss1/classifier_plantvillage_0_split -> loss1/classifier_plantvillage_loss1/classifier_plantvillage_0_split_1
I0403 15:54:34.632118 16322 net.cpp:399] loss1/classifier_plantvillage_loss1/classifier_plantvillage_0_split -> loss1/classifier_plantvillage_loss1/classifier_plantvillage_0_split_2
I0403 15:54:34.632182 16322 net.cpp:141] Setting up loss1/classifier_plantvillage_loss1/classifier_plantvillage_0_split
I0403 15:54:34.632206 16322 net.cpp:148] Top shape: 24 38 (912)
I0403 15:54:34.632222 16322 net.cpp:148] Top shape: 24 38 (912)
I0403 15:54:34.632236 16322 net.cpp:148] Top shape: 24 38 (912)
I0403 15:54:34.632249 16322 net.cpp:156] Memory required for data: 946203936
I0403 15:54:34.632263 16322 layer_factory.hpp:77] Creating layer inception_4b/1x1
I0403 15:54:34.632282 16322 net.cpp:91] Creating Layer inception_4b/1x1
I0403 15:54:34.632315 16322 net.cpp:425] inception_4b/1x1 <- inception_4a/output_inception_4a/output_0_split_1
I0403 15:54:34.632334 16322 net.cpp:399] inception_4b/1x1 -> inception_4b/1x1
I0403 15:54:34.633915 16322 net.cpp:141] Setting up inception_4b/1x1
I0403 15:54:34.633942 16322 net.cpp:148] Top shape: 24 160 14 14 (752640)
I0403 15:54:34.633957 16322 net.cpp:156] Memory required for data: 949214496
I0403 15:54:34.633975 16322 layer_factory.hpp:77] Creating layer inception_4b/relu_1x1
I0403 15:54:34.633996 16322 net.cpp:91] Creating Layer inception_4b/relu_1x1
I0403 15:54:34.634011 16322 net.cpp:425] inception_4b/relu_1x1 <- inception_4b/1x1
I0403 15:54:34.634027 16322 net.cpp:386] inception_4b/relu_1x1 -> inception_4b/1x1 (in-place)
I0403 15:54:34.634199 16322 net.cpp:141] Setting up inception_4b/relu_1x1
I0403 15:54:34.634225 16322 net.cpp:148] Top shape: 24 160 14 14 (752640)
I0403 15:54:34.634240 16322 net.cpp:156] Memory required for data: 952225056
I0403 15:54:34.634254 16322 layer_factory.hpp:77] Creating layer inception_4b/3x3_reduce
I0403 15:54:34.634276 16322 net.cpp:91] Creating Layer inception_4b/3x3_reduce
I0403 15:54:34.634292 16322 net.cpp:425] inception_4b/3x3_reduce <- inception_4a/output_inception_4a/output_0_split_2
I0403 15:54:34.634310 16322 net.cpp:399] inception_4b/3x3_reduce -> inception_4b/3x3_reduce
I0403 15:54:34.635617 16322 net.cpp:141] Setting up inception_4b/3x3_reduce
I0403 15:54:34.635649 16322 net.cpp:148] Top shape: 24 112 14 14 (526848)
I0403 15:54:34.635665 16322 net.cpp:156] Memory required for data: 954332448
I0403 15:54:34.635684 16322 layer_factory.hpp:77] Creating layer inception_4b/relu_3x3_reduce
I0403 15:54:34.635700 16322 net.cpp:91] Creating Layer inception_4b/relu_3x3_reduce
I0403 15:54:34.635716 16322 net.cpp:425] inception_4b/relu_3x3_reduce <- inception_4b/3x3_reduce
I0403 15:54:34.635735 16322 net.cpp:386] inception_4b/relu_3x3_reduce -> inception_4b/3x3_reduce (in-place)
I0403 15:54:34.636004 16322 net.cpp:141] Setting up inception_4b/relu_3x3_reduce
I0403 15:54:34.636031 16322 net.cpp:148] Top shape: 24 112 14 14 (526848)
I0403 15:54:34.636046 16322 net.cpp:156] Memory required for data: 956439840
I0403 15:54:34.636060 16322 layer_factory.hpp:77] Creating layer inception_4b/3x3
I0403 15:54:34.636081 16322 net.cpp:91] Creating Layer inception_4b/3x3
I0403 15:54:34.636098 16322 net.cpp:425] inception_4b/3x3 <- inception_4b/3x3_reduce
I0403 15:54:34.636116 16322 net.cpp:399] inception_4b/3x3 -> inception_4b/3x3
I0403 15:54:34.638990 16322 net.cpp:141] Setting up inception_4b/3x3
I0403 15:54:34.639017 16322 net.cpp:148] Top shape: 24 224 14 14 (1053696)
I0403 15:54:34.639032 16322 net.cpp:156] Memory required for data: 960654624
I0403 15:54:34.639050 16322 layer_factory.hpp:77] Creating layer inception_4b/relu_3x3
I0403 15:54:34.639070 16322 net.cpp:91] Creating Layer inception_4b/relu_3x3
I0403 15:54:34.639086 16322 net.cpp:425] inception_4b/relu_3x3 <- inception_4b/3x3
I0403 15:54:34.639102 16322 net.cpp:386] inception_4b/relu_3x3 -> inception_4b/3x3 (in-place)
I0403 15:54:34.639277 16322 net.cpp:141] Setting up inception_4b/relu_3x3
I0403 15:54:34.639302 16322 net.cpp:148] Top shape: 24 224 14 14 (1053696)
I0403 15:54:34.639315 16322 net.cpp:156] Memory required for data: 964869408
I0403 15:54:34.639329 16322 layer_factory.hpp:77] Creating layer inception_4b/5x5_reduce
I0403 15:54:34.639351 16322 net.cpp:91] Creating Layer inception_4b/5x5_reduce
I0403 15:54:34.639369 16322 net.cpp:425] inception_4b/5x5_reduce <- inception_4a/output_inception_4a/output_0_split_3
I0403 15:54:34.639389 16322 net.cpp:399] inception_4b/5x5_reduce -> inception_4b/5x5_reduce
I0403 15:54:34.640434 16322 net.cpp:141] Setting up inception_4b/5x5_reduce
I0403 15:54:34.640460 16322 net.cpp:148] Top shape: 24 24 14 14 (112896)
I0403 15:54:34.640475 16322 net.cpp:156] Memory required for data: 965320992
I0403 15:54:34.640493 16322 layer_factory.hpp:77] Creating layer inception_4b/relu_5x5_reduce
I0403 15:54:34.640512 16322 net.cpp:91] Creating Layer inception_4b/relu_5x5_reduce
I0403 15:54:34.640543 16322 net.cpp:425] inception_4b/relu_5x5_reduce <- inception_4b/5x5_reduce
I0403 15:54:34.640561 16322 net.cpp:386] inception_4b/relu_5x5_reduce -> inception_4b/5x5_reduce (in-place)
I0403 15:54:34.640739 16322 net.cpp:141] Setting up inception_4b/relu_5x5_reduce
I0403 15:54:34.640763 16322 net.cpp:148] Top shape: 24 24 14 14 (112896)
I0403 15:54:34.640777 16322 net.cpp:156] Memory required for data: 965772576
I0403 15:54:34.640791 16322 layer_factory.hpp:77] Creating layer inception_4b/5x5
I0403 15:54:34.640812 16322 net.cpp:91] Creating Layer inception_4b/5x5
I0403 15:54:34.640830 16322 net.cpp:425] inception_4b/5x5 <- inception_4b/5x5_reduce
I0403 15:54:34.640849 16322 net.cpp:399] inception_4b/5x5 -> inception_4b/5x5
I0403 15:54:34.642037 16322 net.cpp:141] Setting up inception_4b/5x5
I0403 15:54:34.642065 16322 net.cpp:148] Top shape: 24 64 14 14 (301056)
I0403 15:54:34.642079 16322 net.cpp:156] Memory required for data: 966976800
I0403 15:54:34.642097 16322 layer_factory.hpp:77] Creating layer inception_4b/relu_5x5
I0403 15:54:34.642117 16322 net.cpp:91] Creating Layer inception_4b/relu_5x5
I0403 15:54:34.642132 16322 net.cpp:425] inception_4b/relu_5x5 <- inception_4b/5x5
I0403 15:54:34.642149 16322 net.cpp:386] inception_4b/relu_5x5 -> inception_4b/5x5 (in-place)
I0403 15:54:34.642431 16322 net.cpp:141] Setting up inception_4b/relu_5x5
I0403 15:54:34.642455 16322 net.cpp:148] Top shape: 24 64 14 14 (301056)
I0403 15:54:34.642469 16322 net.cpp:156] Memory required for data: 968181024
I0403 15:54:34.642483 16322 layer_factory.hpp:77] Creating layer inception_4b/pool
I0403 15:54:34.642503 16322 net.cpp:91] Creating Layer inception_4b/pool
I0403 15:54:34.642521 16322 net.cpp:425] inception_4b/pool <- inception_4a/output_inception_4a/output_0_split_4
I0403 15:54:34.642539 16322 net.cpp:399] inception_4b/pool -> inception_4b/pool
I0403 15:54:34.642608 16322 net.cpp:141] Setting up inception_4b/pool
I0403 15:54:34.642632 16322 net.cpp:148] Top shape: 24 512 14 14 (2408448)
I0403 15:54:34.642647 16322 net.cpp:156] Memory required for data: 977814816
I0403 15:54:34.642660 16322 layer_factory.hpp:77] Creating layer inception_4b/pool_proj
I0403 15:54:34.642683 16322 net.cpp:91] Creating Layer inception_4b/pool_proj
I0403 15:54:34.642699 16322 net.cpp:425] inception_4b/pool_proj <- inception_4b/pool
I0403 15:54:34.642719 16322 net.cpp:399] inception_4b/pool_proj -> inception_4b/pool_proj
I0403 15:54:34.643878 16322 net.cpp:141] Setting up inception_4b/pool_proj
I0403 15:54:34.643904 16322 net.cpp:148] Top shape: 24 64 14 14 (301056)
I0403 15:54:34.643923 16322 net.cpp:156] Memory required for data: 979019040
I0403 15:54:34.643941 16322 layer_factory.hpp:77] Creating layer inception_4b/relu_pool_proj
I0403 15:54:34.643959 16322 net.cpp:91] Creating Layer inception_4b/relu_pool_proj
I0403 15:54:34.643975 16322 net.cpp:425] inception_4b/relu_pool_proj <- inception_4b/pool_proj
I0403 15:54:34.643991 16322 net.cpp:386] inception_4b/relu_pool_proj -> inception_4b/pool_proj (in-place)
I0403 15:54:34.644165 16322 net.cpp:141] Setting up inception_4b/relu_pool_proj
I0403 15:54:34.644191 16322 net.cpp:148] Top shape: 24 64 14 14 (301056)
I0403 15:54:34.644207 16322 net.cpp:156] Memory required for data: 980223264
I0403 15:54:34.644220 16322 layer_factory.hpp:77] Creating layer inception_4b/output
I0403 15:54:34.644237 16322 net.cpp:91] Creating Layer inception_4b/output
I0403 15:54:34.644251 16322 net.cpp:425] inception_4b/output <- inception_4b/1x1
I0403 15:54:34.644268 16322 net.cpp:425] inception_4b/output <- inception_4b/3x3
I0403 15:54:34.644282 16322 net.cpp:425] inception_4b/output <- inception_4b/5x5
I0403 15:54:34.644297 16322 net.cpp:425] inception_4b/output <- inception_4b/pool_proj
I0403 15:54:34.644315 16322 net.cpp:399] inception_4b/output -> inception_4b/output
I0403 15:54:34.644359 16322 net.cpp:141] Setting up inception_4b/output
I0403 15:54:34.644382 16322 net.cpp:148] Top shape: 24 512 14 14 (2408448)
I0403 15:54:34.644397 16322 net.cpp:156] Memory required for data: 989857056
I0403 15:54:34.644424 16322 layer_factory.hpp:77] Creating layer inception_4b/output_inception_4b/output_0_split
I0403 15:54:34.644444 16322 net.cpp:91] Creating Layer inception_4b/output_inception_4b/output_0_split
I0403 15:54:34.644460 16322 net.cpp:425] inception_4b/output_inception_4b/output_0_split <- inception_4b/output
I0403 15:54:34.644476 16322 net.cpp:399] inception_4b/output_inception_4b/output_0_split -> inception_4b/output_inception_4b/output_0_split_0
I0403 15:54:34.644496 16322 net.cpp:399] inception_4b/output_inception_4b/output_0_split -> inception_4b/output_inception_4b/output_0_split_1
I0403 15:54:34.644520 16322 net.cpp:399] inception_4b/output_inception_4b/output_0_split -> inception_4b/output_inception_4b/output_0_split_2
I0403 15:54:34.644539 16322 net.cpp:399] inception_4b/output_inception_4b/output_0_split -> inception_4b/output_inception_4b/output_0_split_3
I0403 15:54:34.644630 16322 net.cpp:141] Setting up inception_4b/output_inception_4b/output_0_split
I0403 15:54:34.644654 16322 net.cpp:148] Top shape: 24 512 14 14 (2408448)
I0403 15:54:34.644670 16322 net.cpp:148] Top shape: 24 512 14 14 (2408448)
I0403 15:54:34.644685 16322 net.cpp:148] Top shape: 24 512 14 14 (2408448)
I0403 15:54:34.644700 16322 net.cpp:148] Top shape: 24 512 14 14 (2408448)
I0403 15:54:34.644711 16322 net.cpp:156] Memory required for data: 1028392224
I0403 15:54:34.644726 16322 layer_factory.hpp:77] Creating layer inception_4c/1x1
I0403 15:54:34.644747 16322 net.cpp:91] Creating Layer inception_4c/1x1
I0403 15:54:34.644763 16322 net.cpp:425] inception_4c/1x1 <- inception_4b/output_inception_4b/output_0_split_0
I0403 15:54:34.644783 16322 net.cpp:399] inception_4c/1x1 -> inception_4c/1x1
I0403 15:54:34.646160 16322 net.cpp:141] Setting up inception_4c/1x1
I0403 15:54:34.646193 16322 net.cpp:148] Top shape: 24 128 14 14 (602112)
I0403 15:54:34.646209 16322 net.cpp:156] Memory required for data: 1030800672
I0403 15:54:34.646227 16322 layer_factory.hpp:77] Creating layer inception_4c/relu_1x1
I0403 15:54:34.646245 16322 net.cpp:91] Creating Layer inception_4c/relu_1x1
I0403 15:54:34.646260 16322 net.cpp:425] inception_4c/relu_1x1 <- inception_4c/1x1
I0403 15:54:34.646278 16322 net.cpp:386] inception_4c/relu_1x1 -> inception_4c/1x1 (in-place)
I0403 15:54:34.646450 16322 net.cpp:141] Setting up inception_4c/relu_1x1
I0403 15:54:34.646474 16322 net.cpp:148] Top shape: 24 128 14 14 (602112)
I0403 15:54:34.646488 16322 net.cpp:156] Memory required for data: 1033209120
I0403 15:54:34.646502 16322 layer_factory.hpp:77] Creating layer inception_4c/3x3_reduce
I0403 15:54:34.646523 16322 net.cpp:91] Creating Layer inception_4c/3x3_reduce
I0403 15:54:34.646540 16322 net.cpp:425] inception_4c/3x3_reduce <- inception_4b/output_inception_4b/output_0_split_1
I0403 15:54:34.646560 16322 net.cpp:399] inception_4c/3x3_reduce -> inception_4c/3x3_reduce
I0403 15:54:34.648430 16322 net.cpp:141] Setting up inception_4c/3x3_reduce
I0403 15:54:34.648458 16322 net.cpp:148] Top shape: 24 128 14 14 (602112)
I0403 15:54:34.648473 16322 net.cpp:156] Memory required for data: 1035617568
I0403 15:54:34.648490 16322 layer_factory.hpp:77] Creating layer inception_4c/relu_3x3_reduce
I0403 15:54:34.648509 16322 net.cpp:91] Creating Layer inception_4c/relu_3x3_reduce
I0403 15:54:34.648526 16322 net.cpp:425] inception_4c/relu_3x3_reduce <- inception_4c/3x3_reduce
I0403 15:54:34.648543 16322 net.cpp:386] inception_4c/relu_3x3_reduce -> inception_4c/3x3_reduce (in-place)
I0403 15:54:34.648823 16322 net.cpp:141] Setting up inception_4c/relu_3x3_reduce
I0403 15:54:34.648847 16322 net.cpp:148] Top shape: 24 128 14 14 (602112)
I0403 15:54:34.648861 16322 net.cpp:156] Memory required for data: 1038026016
I0403 15:54:34.648875 16322 layer_factory.hpp:77] Creating layer inception_4c/3x3
I0403 15:54:34.648897 16322 net.cpp:91] Creating Layer inception_4c/3x3
I0403 15:54:34.648915 16322 net.cpp:425] inception_4c/3x3 <- inception_4c/3x3_reduce
I0403 15:54:34.648936 16322 net.cpp:399] inception_4c/3x3 -> inception_4c/3x3
I0403 15:54:34.652508 16322 net.cpp:141] Setting up inception_4c/3x3
I0403 15:54:34.652549 16322 net.cpp:148] Top shape: 24 256 14 14 (1204224)
I0403 15:54:34.652565 16322 net.cpp:156] Memory required for data: 1042842912
I0403 15:54:34.652596 16322 layer_factory.hpp:77] Creating layer inception_4c/relu_3x3
I0403 15:54:34.652623 16322 net.cpp:91] Creating Layer inception_4c/relu_3x3
I0403 15:54:34.652640 16322 net.cpp:425] inception_4c/relu_3x3 <- inception_4c/3x3
I0403 15:54:34.652658 16322 net.cpp:386] inception_4c/relu_3x3 -> inception_4c/3x3 (in-place)
I0403 15:54:34.652838 16322 net.cpp:141] Setting up inception_4c/relu_3x3
I0403 15:54:34.652863 16322 net.cpp:148] Top shape: 24 256 14 14 (1204224)
I0403 15:54:34.652878 16322 net.cpp:156] Memory required for data: 1047659808
I0403 15:54:34.652894 16322 layer_factory.hpp:77] Creating layer inception_4c/5x5_reduce
I0403 15:54:34.652918 16322 net.cpp:91] Creating Layer inception_4c/5x5_reduce
I0403 15:54:34.652936 16322 net.cpp:425] inception_4c/5x5_reduce <- inception_4b/output_inception_4b/output_0_split_2
I0403 15:54:34.652956 16322 net.cpp:399] inception_4c/5x5_reduce -> inception_4c/5x5_reduce
I0403 15:54:34.654059 16322 net.cpp:141] Setting up inception_4c/5x5_reduce
I0403 15:54:34.654088 16322 net.cpp:148] Top shape: 24 24 14 14 (112896)
I0403 15:54:34.654103 16322 net.cpp:156] Memory required for data: 1048111392
I0403 15:54:34.654121 16322 layer_factory.hpp:77] Creating layer inception_4c/relu_5x5_reduce
I0403 15:54:34.654145 16322 net.cpp:91] Creating Layer inception_4c/relu_5x5_reduce
I0403 15:54:34.654161 16322 net.cpp:425] inception_4c/relu_5x5_reduce <- inception_4c/5x5_reduce
I0403 15:54:34.654178 16322 net.cpp:386] inception_4c/relu_5x5_reduce -> inception_4c/5x5_reduce (in-place)
I0403 15:54:34.654359 16322 net.cpp:141] Setting up inception_4c/relu_5x5_reduce
I0403 15:54:34.654386 16322 net.cpp:148] Top shape: 24 24 14 14 (112896)
I0403 15:54:34.654399 16322 net.cpp:156] Memory required for data: 1048562976
I0403 15:54:34.654414 16322 layer_factory.hpp:77] Creating layer inception_4c/5x5
I0403 15:54:34.654436 16322 net.cpp:91] Creating Layer inception_4c/5x5
I0403 15:54:34.654454 16322 net.cpp:425] inception_4c/5x5 <- inception_4c/5x5_reduce
I0403 15:54:34.654475 16322 net.cpp:399] inception_4c/5x5 -> inception_4c/5x5
I0403 15:54:34.655738 16322 net.cpp:141] Setting up inception_4c/5x5
I0403 15:54:34.655768 16322 net.cpp:148] Top shape: 24 64 14 14 (301056)
I0403 15:54:34.655784 16322 net.cpp:156] Memory required for data: 1049767200
I0403 15:54:34.655802 16322 layer_factory.hpp:77] Creating layer inception_4c/relu_5x5
I0403 15:54:34.655822 16322 net.cpp:91] Creating Layer inception_4c/relu_5x5
I0403 15:54:34.655836 16322 net.cpp:425] inception_4c/relu_5x5 <- inception_4c/5x5
I0403 15:54:34.655856 16322 net.cpp:386] inception_4c/relu_5x5 -> inception_4c/5x5 (in-place)
I0403 15:54:34.656147 16322 net.cpp:141] Setting up inception_4c/relu_5x5
I0403 15:54:34.656173 16322 net.cpp:148] Top shape: 24 64 14 14 (301056)
I0403 15:54:34.656189 16322 net.cpp:156] Memory required for data: 1050971424
I0403 15:54:34.656204 16322 layer_factory.hpp:77] Creating layer inception_4c/pool
I0403 15:54:34.656221 16322 net.cpp:91] Creating Layer inception_4c/pool
I0403 15:54:34.656237 16322 net.cpp:425] inception_4c/pool <- inception_4b/output_inception_4b/output_0_split_3
I0403 15:54:34.656257 16322 net.cpp:399] inception_4c/pool -> inception_4c/pool
I0403 15:54:34.656322 16322 net.cpp:141] Setting up inception_4c/pool
I0403 15:54:34.656347 16322 net.cpp:148] Top shape: 24 512 14 14 (2408448)
I0403 15:54:34.656363 16322 net.cpp:156] Memory required for data: 1060605216
I0403 15:54:34.656378 16322 layer_factory.hpp:77] Creating layer inception_4c/pool_proj
I0403 15:54:34.656397 16322 net.cpp:91] Creating Layer inception_4c/pool_proj
I0403 15:54:34.656414 16322 net.cpp:425] inception_4c/pool_proj <- inception_4c/pool
I0403 15:54:34.656435 16322 net.cpp:399] inception_4c/pool_proj -> inception_4c/pool_proj
I0403 15:54:34.657651 16322 net.cpp:141] Setting up inception_4c/pool_proj
I0403 15:54:34.657678 16322 net.cpp:148] Top shape: 24 64 14 14 (301056)
I0403 15:54:34.657708 16322 net.cpp:156] Memory required for data: 1061809440
I0403 15:54:34.657727 16322 layer_factory.hpp:77] Creating layer inception_4c/relu_pool_proj
I0403 15:54:34.657749 16322 net.cpp:91] Creating Layer inception_4c/relu_pool_proj
I0403 15:54:34.657765 16322 net.cpp:425] inception_4c/relu_pool_proj <- inception_4c/pool_proj
I0403 15:54:34.657783 16322 net.cpp:386] inception_4c/relu_pool_proj -> inception_4c/pool_proj (in-place)
I0403 15:54:34.657965 16322 net.cpp:141] Setting up inception_4c/relu_pool_proj
I0403 15:54:34.657994 16322 net.cpp:148] Top shape: 24 64 14 14 (301056)
I0403 15:54:34.658009 16322 net.cpp:156] Memory required for data: 1063013664
I0403 15:54:34.658023 16322 layer_factory.hpp:77] Creating layer inception_4c/output
I0403 15:54:34.658041 16322 net.cpp:91] Creating Layer inception_4c/output
I0403 15:54:34.658056 16322 net.cpp:425] inception_4c/output <- inception_4c/1x1
I0403 15:54:34.658071 16322 net.cpp:425] inception_4c/output <- inception_4c/3x3
I0403 15:54:34.658087 16322 net.cpp:425] inception_4c/output <- inception_4c/5x5
I0403 15:54:34.658102 16322 net.cpp:425] inception_4c/output <- inception_4c/pool_proj
I0403 15:54:34.658121 16322 net.cpp:399] inception_4c/output -> inception_4c/output
I0403 15:54:34.658167 16322 net.cpp:141] Setting up inception_4c/output
I0403 15:54:34.658190 16322 net.cpp:148] Top shape: 24 512 14 14 (2408448)
I0403 15:54:34.658205 16322 net.cpp:156] Memory required for data: 1072647456
I0403 15:54:34.658220 16322 layer_factory.hpp:77] Creating layer inception_4c/output_inception_4c/output_0_split
I0403 15:54:34.658238 16322 net.cpp:91] Creating Layer inception_4c/output_inception_4c/output_0_split
I0403 15:54:34.658254 16322 net.cpp:425] inception_4c/output_inception_4c/output_0_split <- inception_4c/output
I0403 15:54:34.658272 16322 net.cpp:399] inception_4c/output_inception_4c/output_0_split -> inception_4c/output_inception_4c/output_0_split_0
I0403 15:54:34.658291 16322 net.cpp:399] inception_4c/output_inception_4c/output_0_split -> inception_4c/output_inception_4c/output_0_split_1
I0403 15:54:34.658320 16322 net.cpp:399] inception_4c/output_inception_4c/output_0_split -> inception_4c/output_inception_4c/output_0_split_2
I0403 15:54:34.658341 16322 net.cpp:399] inception_4c/output_inception_4c/output_0_split -> inception_4c/output_inception_4c/output_0_split_3
I0403 15:54:34.658426 16322 net.cpp:141] Setting up inception_4c/output_inception_4c/output_0_split
I0403 15:54:34.658448 16322 net.cpp:148] Top shape: 24 512 14 14 (2408448)
I0403 15:54:34.658464 16322 net.cpp:148] Top shape: 24 512 14 14 (2408448)
I0403 15:54:34.658478 16322 net.cpp:148] Top shape: 24 512 14 14 (2408448)
I0403 15:54:34.658494 16322 net.cpp:148] Top shape: 24 512 14 14 (2408448)
I0403 15:54:34.658507 16322 net.cpp:156] Memory required for data: 1111182624
I0403 15:54:34.658521 16322 layer_factory.hpp:77] Creating layer inception_4d/1x1
I0403 15:54:34.658543 16322 net.cpp:91] Creating Layer inception_4d/1x1
I0403 15:54:34.658560 16322 net.cpp:425] inception_4d/1x1 <- inception_4c/output_inception_4c/output_0_split_0
I0403 15:54:34.658581 16322 net.cpp:399] inception_4d/1x1 -> inception_4d/1x1
I0403 15:54:34.659992 16322 net.cpp:141] Setting up inception_4d/1x1
I0403 15:54:34.660020 16322 net.cpp:148] Top shape: 24 112 14 14 (526848)
I0403 15:54:34.660037 16322 net.cpp:156] Memory required for data: 1113290016
I0403 15:54:34.660054 16322 layer_factory.hpp:77] Creating layer inception_4d/relu_1x1
I0403 15:54:34.660084 16322 net.cpp:91] Creating Layer inception_4d/relu_1x1
I0403 15:54:34.660100 16322 net.cpp:425] inception_4d/relu_1x1 <- inception_4d/1x1
I0403 15:54:34.660118 16322 net.cpp:386] inception_4d/relu_1x1 -> inception_4d/1x1 (in-place)
I0403 15:54:34.660297 16322 net.cpp:141] Setting up inception_4d/relu_1x1
I0403 15:54:34.660322 16322 net.cpp:148] Top shape: 24 112 14 14 (526848)
I0403 15:54:34.660336 16322 net.cpp:156] Memory required for data: 1115397408
I0403 15:54:34.660351 16322 layer_factory.hpp:77] Creating layer inception_4d/3x3_reduce
I0403 15:54:34.660395 16322 net.cpp:91] Creating Layer inception_4d/3x3_reduce
I0403 15:54:34.660414 16322 net.cpp:425] inception_4d/3x3_reduce <- inception_4c/output_inception_4c/output_0_split_1
I0403 15:54:34.660432 16322 net.cpp:399] inception_4d/3x3_reduce -> inception_4d/3x3_reduce
I0403 15:54:34.661931 16322 net.cpp:141] Setting up inception_4d/3x3_reduce
I0403 15:54:34.661957 16322 net.cpp:148] Top shape: 24 144 14 14 (677376)
I0403 15:54:34.661972 16322 net.cpp:156] Memory required for data: 1118106912
I0403 15:54:34.661991 16322 layer_factory.hpp:77] Creating layer inception_4d/relu_3x3_reduce
I0403 15:54:34.662009 16322 net.cpp:91] Creating Layer inception_4d/relu_3x3_reduce
I0403 15:54:34.662024 16322 net.cpp:425] inception_4d/relu_3x3_reduce <- inception_4d/3x3_reduce
I0403 15:54:34.662044 16322 net.cpp:386] inception_4d/relu_3x3_reduce -> inception_4d/3x3_reduce (in-place)
I0403 15:54:34.662328 16322 net.cpp:141] Setting up inception_4d/relu_3x3_reduce
I0403 15:54:34.662353 16322 net.cpp:148] Top shape: 24 144 14 14 (677376)
I0403 15:54:34.662367 16322 net.cpp:156] Memory required for data: 1120816416
I0403 15:54:34.662382 16322 layer_factory.hpp:77] Creating layer inception_4d/3x3
I0403 15:54:34.662410 16322 net.cpp:91] Creating Layer inception_4d/3x3
I0403 15:54:34.662441 16322 net.cpp:425] inception_4d/3x3 <- inception_4d/3x3_reduce
I0403 15:54:34.662461 16322 net.cpp:399] inception_4d/3x3 -> inception_4d/3x3
I0403 15:54:34.666765 16322 net.cpp:141] Setting up inception_4d/3x3
I0403 15:54:34.666797 16322 net.cpp:148] Top shape: 24 288 14 14 (1354752)
I0403 15:54:34.666812 16322 net.cpp:156] Memory required for data: 1126235424
I0403 15:54:34.666831 16322 layer_factory.hpp:77] Creating layer inception_4d/relu_3x3
I0403 15:54:34.666851 16322 net.cpp:91] Creating Layer inception_4d/relu_3x3
I0403 15:54:34.666867 16322 net.cpp:425] inception_4d/relu_3x3 <- inception_4d/3x3
I0403 15:54:34.666884 16322 net.cpp:386] inception_4d/relu_3x3 -> inception_4d/3x3 (in-place)
I0403 15:54:34.667064 16322 net.cpp:141] Setting up inception_4d/relu_3x3
I0403 15:54:34.667093 16322 net.cpp:148] Top shape: 24 288 14 14 (1354752)
I0403 15:54:34.667107 16322 net.cpp:156] Memory required for data: 1131654432
I0403 15:54:34.667122 16322 layer_factory.hpp:77] Creating layer inception_4d/5x5_reduce
I0403 15:54:34.667143 16322 net.cpp:91] Creating Layer inception_4d/5x5_reduce
I0403 15:54:34.667161 16322 net.cpp:425] inception_4d/5x5_reduce <- inception_4c/output_inception_4c/output_0_split_2
I0403 15:54:34.667181 16322 net.cpp:399] inception_4d/5x5_reduce -> inception_4d/5x5_reduce
I0403 15:54:34.668316 16322 net.cpp:141] Setting up inception_4d/5x5_reduce
I0403 15:54:34.668344 16322 net.cpp:148] Top shape: 24 32 14 14 (150528)
I0403 15:54:34.668360 16322 net.cpp:156] Memory required for data: 1132256544
I0403 15:54:34.668380 16322 layer_factory.hpp:77] Creating layer inception_4d/relu_5x5_reduce
I0403 15:54:34.668400 16322 net.cpp:91] Creating Layer inception_4d/relu_5x5_reduce
I0403 15:54:34.668417 16322 net.cpp:425] inception_4d/relu_5x5_reduce <- inception_4d/5x5_reduce
I0403 15:54:34.668434 16322 net.cpp:386] inception_4d/relu_5x5_reduce -> inception_4d/5x5_reduce (in-place)
I0403 15:54:34.668627 16322 net.cpp:141] Setting up inception_4d/relu_5x5_reduce
I0403 15:54:34.668659 16322 net.cpp:148] Top shape: 24 32 14 14 (150528)
I0403 15:54:34.668673 16322 net.cpp:156] Memory required for data: 1132858656
I0403 15:54:34.668689 16322 layer_factory.hpp:77] Creating layer inception_4d/5x5
I0403 15:54:34.668714 16322 net.cpp:91] Creating Layer inception_4d/5x5
I0403 15:54:34.668732 16322 net.cpp:425] inception_4d/5x5 <- inception_4d/5x5_reduce
I0403 15:54:34.668751 16322 net.cpp:399] inception_4d/5x5 -> inception_4d/5x5
I0403 15:54:34.670186 16322 net.cpp:141] Setting up inception_4d/5x5
I0403 15:54:34.670214 16322 net.cpp:148] Top shape: 24 64 14 14 (301056)
I0403 15:54:34.670230 16322 net.cpp:156] Memory required for data: 1134062880
I0403 15:54:34.670248 16322 layer_factory.hpp:77] Creating layer inception_4d/relu_5x5
I0403 15:54:34.670280 16322 net.cpp:91] Creating Layer inception_4d/relu_5x5
I0403 15:54:34.670297 16322 net.cpp:425] inception_4d/relu_5x5 <- inception_4d/5x5
I0403 15:54:34.670316 16322 net.cpp:386] inception_4d/relu_5x5 -> inception_4d/5x5 (in-place)
I0403 15:54:34.670614 16322 net.cpp:141] Setting up inception_4d/relu_5x5
I0403 15:54:34.670640 16322 net.cpp:148] Top shape: 24 64 14 14 (301056)
I0403 15:54:34.670655 16322 net.cpp:156] Memory required for data: 1135267104
I0403 15:54:34.670670 16322 layer_factory.hpp:77] Creating layer inception_4d/pool
I0403 15:54:34.670686 16322 net.cpp:91] Creating Layer inception_4d/pool
I0403 15:54:34.670702 16322 net.cpp:425] inception_4d/pool <- inception_4c/output_inception_4c/output_0_split_3
I0403 15:54:34.670722 16322 net.cpp:399] inception_4d/pool -> inception_4d/pool
I0403 15:54:34.670788 16322 net.cpp:141] Setting up inception_4d/pool
I0403 15:54:34.670811 16322 net.cpp:148] Top shape: 24 512 14 14 (2408448)
I0403 15:54:34.670825 16322 net.cpp:156] Memory required for data: 1144900896
I0403 15:54:34.670838 16322 layer_factory.hpp:77] Creating layer inception_4d/pool_proj
I0403 15:54:34.670861 16322 net.cpp:91] Creating Layer inception_4d/pool_proj
I0403 15:54:34.670876 16322 net.cpp:425] inception_4d/pool_proj <- inception_4d/pool
I0403 15:54:34.670897 16322 net.cpp:399] inception_4d/pool_proj -> inception_4d/pool_proj
I0403 15:54:34.672612 16322 net.cpp:141] Setting up inception_4d/pool_proj
I0403 15:54:34.672641 16322 net.cpp:148] Top shape: 24 64 14 14 (301056)
I0403 15:54:34.672655 16322 net.cpp:156] Memory required for data: 1146105120
I0403 15:54:34.672672 16322 layer_factory.hpp:77] Creating layer inception_4d/relu_pool_proj
I0403 15:54:34.672693 16322 net.cpp:91] Creating Layer inception_4d/relu_pool_proj
I0403 15:54:34.672710 16322 net.cpp:425] inception_4d/relu_pool_proj <- inception_4d/pool_proj
I0403 15:54:34.672726 16322 net.cpp:386] inception_4d/relu_pool_proj -> inception_4d/pool_proj (in-place)
I0403 15:54:34.672907 16322 net.cpp:141] Setting up inception_4d/relu_pool_proj
I0403 15:54:34.672933 16322 net.cpp:148] Top shape: 24 64 14 14 (301056)
I0403 15:54:34.672950 16322 net.cpp:156] Memory required for data: 1147309344
I0403 15:54:34.672962 16322 layer_factory.hpp:77] Creating layer inception_4d/output
I0403 15:54:34.672979 16322 net.cpp:91] Creating Layer inception_4d/output
I0403 15:54:34.672994 16322 net.cpp:425] inception_4d/output <- inception_4d/1x1
I0403 15:54:34.673010 16322 net.cpp:425] inception_4d/output <- inception_4d/3x3
I0403 15:54:34.673025 16322 net.cpp:425] inception_4d/output <- inception_4d/5x5
I0403 15:54:34.673040 16322 net.cpp:425] inception_4d/output <- inception_4d/pool_proj
I0403 15:54:34.673058 16322 net.cpp:399] inception_4d/output -> inception_4d/output
I0403 15:54:34.673105 16322 net.cpp:141] Setting up inception_4d/output
I0403 15:54:34.673128 16322 net.cpp:148] Top shape: 24 528 14 14 (2483712)
I0403 15:54:34.673143 16322 net.cpp:156] Memory required for data: 1157244192
I0403 15:54:34.673156 16322 layer_factory.hpp:77] Creating layer inception_4d/output_inception_4d/output_0_split
I0403 15:54:34.673176 16322 net.cpp:91] Creating Layer inception_4d/output_inception_4d/output_0_split
I0403 15:54:34.673192 16322 net.cpp:425] inception_4d/output_inception_4d/output_0_split <- inception_4d/output
I0403 15:54:34.673208 16322 net.cpp:399] inception_4d/output_inception_4d/output_0_split -> inception_4d/output_inception_4d/output_0_split_0
I0403 15:54:34.673228 16322 net.cpp:399] inception_4d/output_inception_4d/output_0_split -> inception_4d/output_inception_4d/output_0_split_1
I0403 15:54:34.673249 16322 net.cpp:399] inception_4d/output_inception_4d/output_0_split -> inception_4d/output_inception_4d/output_0_split_2
I0403 15:54:34.673269 16322 net.cpp:399] inception_4d/output_inception_4d/output_0_split -> inception_4d/output_inception_4d/output_0_split_3
I0403 15:54:34.673290 16322 net.cpp:399] inception_4d/output_inception_4d/output_0_split -> inception_4d/output_inception_4d/output_0_split_4
I0403 15:54:34.673393 16322 net.cpp:141] Setting up inception_4d/output_inception_4d/output_0_split
I0403 15:54:34.673427 16322 net.cpp:148] Top shape: 24 528 14 14 (2483712)
I0403 15:54:34.673444 16322 net.cpp:148] Top shape: 24 528 14 14 (2483712)
I0403 15:54:34.673460 16322 net.cpp:148] Top shape: 24 528 14 14 (2483712)
I0403 15:54:34.673473 16322 net.cpp:148] Top shape: 24 528 14 14 (2483712)
I0403 15:54:34.673487 16322 net.cpp:148] Top shape: 24 528 14 14 (2483712)
I0403 15:54:34.673501 16322 net.cpp:156] Memory required for data: 1206918432
I0403 15:54:34.673513 16322 layer_factory.hpp:77] Creating layer loss2/ave_pool
I0403 15:54:34.673532 16322 net.cpp:91] Creating Layer loss2/ave_pool
I0403 15:54:34.673548 16322 net.cpp:425] loss2/ave_pool <- inception_4d/output_inception_4d/output_0_split_0
I0403 15:54:34.673596 16322 net.cpp:399] loss2/ave_pool -> loss2/ave_pool
I0403 15:54:34.673923 16322 net.cpp:141] Setting up loss2/ave_pool
I0403 15:54:34.673949 16322 net.cpp:148] Top shape: 24 528 4 4 (202752)
I0403 15:54:34.673964 16322 net.cpp:156] Memory required for data: 1207729440
I0403 15:54:34.673977 16322 layer_factory.hpp:77] Creating layer loss2/conv
I0403 15:54:34.673998 16322 net.cpp:91] Creating Layer loss2/conv
I0403 15:54:34.674015 16322 net.cpp:425] loss2/conv <- loss2/ave_pool
I0403 15:54:34.674036 16322 net.cpp:399] loss2/conv -> loss2/conv
I0403 15:54:34.675899 16322 net.cpp:141] Setting up loss2/conv
I0403 15:54:34.675928 16322 net.cpp:148] Top shape: 24 128 4 4 (49152)
I0403 15:54:34.675945 16322 net.cpp:156] Memory required for data: 1207926048
I0403 15:54:34.675963 16322 layer_factory.hpp:77] Creating layer loss2/relu_conv
I0403 15:54:34.675981 16322 net.cpp:91] Creating Layer loss2/relu_conv
I0403 15:54:34.675997 16322 net.cpp:425] loss2/relu_conv <- loss2/conv
I0403 15:54:34.676014 16322 net.cpp:386] loss2/relu_conv -> loss2/conv (in-place)
I0403 15:54:34.676288 16322 net.cpp:141] Setting up loss2/relu_conv
I0403 15:54:34.676316 16322 net.cpp:148] Top shape: 24 128 4 4 (49152)
I0403 15:54:34.676331 16322 net.cpp:156] Memory required for data: 1208122656
I0403 15:54:34.676345 16322 layer_factory.hpp:77] Creating layer loss2/fc
I0403 15:54:34.676363 16322 net.cpp:91] Creating Layer loss2/fc
I0403 15:54:34.676379 16322 net.cpp:425] loss2/fc <- loss2/conv
I0403 15:54:34.676398 16322 net.cpp:399] loss2/fc -> loss2/fc
I0403 15:54:34.693550 16322 net.cpp:141] Setting up loss2/fc
I0403 15:54:34.693581 16322 net.cpp:148] Top shape: 24 1024 (24576)
I0403 15:54:34.693598 16322 net.cpp:156] Memory required for data: 1208220960
I0403 15:54:34.693619 16322 layer_factory.hpp:77] Creating layer loss2/relu_fc
I0403 15:54:34.693640 16322 net.cpp:91] Creating Layer loss2/relu_fc
I0403 15:54:34.693656 16322 net.cpp:425] loss2/relu_fc <- loss2/fc
I0403 15:54:34.693673 16322 net.cpp:386] loss2/relu_fc -> loss2/fc (in-place)
I0403 15:54:34.693965 16322 net.cpp:141] Setting up loss2/relu_fc
I0403 15:54:34.693991 16322 net.cpp:148] Top shape: 24 1024 (24576)
I0403 15:54:34.694005 16322 net.cpp:156] Memory required for data: 1208319264
I0403 15:54:34.694020 16322 layer_factory.hpp:77] Creating layer loss2/drop_fc
I0403 15:54:34.694039 16322 net.cpp:91] Creating Layer loss2/drop_fc
I0403 15:54:34.694056 16322 net.cpp:425] loss2/drop_fc <- loss2/fc
I0403 15:54:34.694073 16322 net.cpp:386] loss2/drop_fc -> loss2/fc (in-place)
I0403 15:54:34.694123 16322 net.cpp:141] Setting up loss2/drop_fc
I0403 15:54:34.694145 16322 net.cpp:148] Top shape: 24 1024 (24576)
I0403 15:54:34.694160 16322 net.cpp:156] Memory required for data: 1208417568
I0403 15:54:34.694175 16322 layer_factory.hpp:77] Creating layer loss2/classifier_plantvillage
I0403 15:54:34.694191 16322 net.cpp:91] Creating Layer loss2/classifier_plantvillage
I0403 15:54:34.694211 16322 net.cpp:425] loss2/classifier_plantvillage <- loss2/fc
I0403 15:54:34.694227 16322 net.cpp:399] loss2/classifier_plantvillage -> loss2/classifier_plantvillage
I0403 15:54:34.694634 16322 net.cpp:141] Setting up loss2/classifier_plantvillage
I0403 15:54:34.694659 16322 net.cpp:148] Top shape: 24 38 (912)
I0403 15:54:34.694689 16322 net.cpp:156] Memory required for data: 1208421216
I0403 15:54:34.694708 16322 layer_factory.hpp:77] Creating layer loss2/classifier_plantvillage_loss2/classifier_plantvillage_0_split
I0403 15:54:34.694726 16322 net.cpp:91] Creating Layer loss2/classifier_plantvillage_loss2/classifier_plantvillage_0_split
I0403 15:54:34.694741 16322 net.cpp:425] loss2/classifier_plantvillage_loss2/classifier_plantvillage_0_split <- loss2/classifier_plantvillage
I0403 15:54:34.694761 16322 net.cpp:399] loss2/classifier_plantvillage_loss2/classifier_plantvillage_0_split -> loss2/classifier_plantvillage_loss2/classifier_plantvillage_0_split_0
I0403 15:54:34.694782 16322 net.cpp:399] loss2/classifier_plantvillage_loss2/classifier_plantvillage_0_split -> loss2/classifier_plantvillage_loss2/classifier_plantvillage_0_split_1
I0403 15:54:34.694802 16322 net.cpp:399] loss2/classifier_plantvillage_loss2/classifier_plantvillage_0_split -> loss2/classifier_plantvillage_loss2/classifier_plantvillage_0_split_2
I0403 15:54:34.694878 16322 net.cpp:141] Setting up loss2/classifier_plantvillage_loss2/classifier_plantvillage_0_split
I0403 15:54:34.694902 16322 net.cpp:148] Top shape: 24 38 (912)
I0403 15:54:34.694918 16322 net.cpp:148] Top shape: 24 38 (912)
I0403 15:54:34.694933 16322 net.cpp:148] Top shape: 24 38 (912)
I0403 15:54:34.694947 16322 net.cpp:156] Memory required for data: 1208432160
I0403 15:54:34.694960 16322 layer_factory.hpp:77] Creating layer inception_4e/1x1
I0403 15:54:34.694983 16322 net.cpp:91] Creating Layer inception_4e/1x1
I0403 15:54:34.695000 16322 net.cpp:425] inception_4e/1x1 <- inception_4d/output_inception_4d/output_0_split_1
I0403 15:54:34.695019 16322 net.cpp:399] inception_4e/1x1 -> inception_4e/1x1
I0403 15:54:34.696777 16322 net.cpp:141] Setting up inception_4e/1x1
I0403 15:54:34.696806 16322 net.cpp:148] Top shape: 24 256 14 14 (1204224)
I0403 15:54:34.696823 16322 net.cpp:156] Memory required for data: 1213249056
I0403 15:54:34.696841 16322 layer_factory.hpp:77] Creating layer inception_4e/relu_1x1
I0403 15:54:34.696858 16322 net.cpp:91] Creating Layer inception_4e/relu_1x1
I0403 15:54:34.696874 16322 net.cpp:425] inception_4e/relu_1x1 <- inception_4e/1x1
I0403 15:54:34.696893 16322 net.cpp:386] inception_4e/relu_1x1 -> inception_4e/1x1 (in-place)
I0403 15:54:34.697178 16322 net.cpp:141] Setting up inception_4e/relu_1x1
I0403 15:54:34.697206 16322 net.cpp:148] Top shape: 24 256 14 14 (1204224)
I0403 15:54:34.697221 16322 net.cpp:156] Memory required for data: 1218065952
I0403 15:54:34.697235 16322 layer_factory.hpp:77] Creating layer inception_4e/3x3_reduce
I0403 15:54:34.697257 16322 net.cpp:91] Creating Layer inception_4e/3x3_reduce
I0403 15:54:34.697274 16322 net.cpp:425] inception_4e/3x3_reduce <- inception_4d/output_inception_4d/output_0_split_2
I0403 15:54:34.697293 16322 net.cpp:399] inception_4e/3x3_reduce -> inception_4e/3x3_reduce
I0403 15:54:34.699334 16322 net.cpp:141] Setting up inception_4e/3x3_reduce
I0403 15:54:34.699368 16322 net.cpp:148] Top shape: 24 160 14 14 (752640)
I0403 15:54:34.699383 16322 net.cpp:156] Memory required for data: 1221076512
I0403 15:54:34.699401 16322 layer_factory.hpp:77] Creating layer inception_4e/relu_3x3_reduce
I0403 15:54:34.699419 16322 net.cpp:91] Creating Layer inception_4e/relu_3x3_reduce
I0403 15:54:34.699434 16322 net.cpp:425] inception_4e/relu_3x3_reduce <- inception_4e/3x3_reduce
I0403 15:54:34.699451 16322 net.cpp:386] inception_4e/relu_3x3_reduce -> inception_4e/3x3_reduce (in-place)
I0403 15:54:34.699635 16322 net.cpp:141] Setting up inception_4e/relu_3x3_reduce
I0403 15:54:34.699661 16322 net.cpp:148] Top shape: 24 160 14 14 (752640)
I0403 15:54:34.699678 16322 net.cpp:156] Memory required for data: 1224087072
I0403 15:54:34.699692 16322 layer_factory.hpp:77] Creating layer inception_4e/3x3
I0403 15:54:34.699712 16322 net.cpp:91] Creating Layer inception_4e/3x3
I0403 15:54:34.699729 16322 net.cpp:425] inception_4e/3x3 <- inception_4e/3x3_reduce
I0403 15:54:34.699751 16322 net.cpp:399] inception_4e/3x3 -> inception_4e/3x3
I0403 15:54:34.704748 16322 net.cpp:141] Setting up inception_4e/3x3
I0403 15:54:34.704788 16322 net.cpp:148] Top shape: 24 320 14 14 (1505280)
I0403 15:54:34.704805 16322 net.cpp:156] Memory required for data: 1230108192
I0403 15:54:34.704823 16322 layer_factory.hpp:77] Creating layer inception_4e/relu_3x3
I0403 15:54:34.704841 16322 net.cpp:91] Creating Layer inception_4e/relu_3x3
I0403 15:54:34.704857 16322 net.cpp:425] inception_4e/relu_3x3 <- inception_4e/3x3
I0403 15:54:34.704877 16322 net.cpp:386] inception_4e/relu_3x3 -> inception_4e/3x3 (in-place)
I0403 15:54:34.705178 16322 net.cpp:141] Setting up inception_4e/relu_3x3
I0403 15:54:34.705204 16322 net.cpp:148] Top shape: 24 320 14 14 (1505280)
I0403 15:54:34.705219 16322 net.cpp:156] Memory required for data: 1236129312
I0403 15:54:34.705232 16322 layer_factory.hpp:77] Creating layer inception_4e/5x5_reduce
I0403 15:54:34.705255 16322 net.cpp:91] Creating Layer inception_4e/5x5_reduce
I0403 15:54:34.705273 16322 net.cpp:425] inception_4e/5x5_reduce <- inception_4d/output_inception_4d/output_0_split_3
I0403 15:54:34.705294 16322 net.cpp:399] inception_4e/5x5_reduce -> inception_4e/5x5_reduce
I0403 15:54:34.706360 16322 net.cpp:141] Setting up inception_4e/5x5_reduce
I0403 15:54:34.706390 16322 net.cpp:148] Top shape: 24 32 14 14 (150528)
I0403 15:54:34.706406 16322 net.cpp:156] Memory required for data: 1236731424
I0403 15:54:34.706424 16322 layer_factory.hpp:77] Creating layer inception_4e/relu_5x5_reduce
I0403 15:54:34.706442 16322 net.cpp:91] Creating Layer inception_4e/relu_5x5_reduce
I0403 15:54:34.706459 16322 net.cpp:425] inception_4e/relu_5x5_reduce <- inception_4e/5x5_reduce
I0403 15:54:34.706478 16322 net.cpp:386] inception_4e/relu_5x5_reduce -> inception_4e/5x5_reduce (in-place)
I0403 15:54:34.706780 16322 net.cpp:141] Setting up inception_4e/relu_5x5_reduce
I0403 15:54:34.706809 16322 net.cpp:148] Top shape: 24 32 14 14 (150528)
I0403 15:54:34.706825 16322 net.cpp:156] Memory required for data: 1237333536
I0403 15:54:34.706840 16322 layer_factory.hpp:77] Creating layer inception_4e/5x5
I0403 15:54:34.706877 16322 net.cpp:91] Creating Layer inception_4e/5x5
I0403 15:54:34.706897 16322 net.cpp:425] inception_4e/5x5 <- inception_4e/5x5_reduce
I0403 15:54:34.706917 16322 net.cpp:399] inception_4e/5x5 -> inception_4e/5x5
I0403 15:54:34.708745 16322 net.cpp:141] Setting up inception_4e/5x5
I0403 15:54:34.708771 16322 net.cpp:148] Top shape: 24 128 14 14 (602112)
I0403 15:54:34.708787 16322 net.cpp:156] Memory required for data: 1239741984
I0403 15:54:34.708806 16322 layer_factory.hpp:77] Creating layer inception_4e/relu_5x5
I0403 15:54:34.708829 16322 net.cpp:91] Creating Layer inception_4e/relu_5x5
I0403 15:54:34.708847 16322 net.cpp:425] inception_4e/relu_5x5 <- inception_4e/5x5
I0403 15:54:34.708864 16322 net.cpp:386] inception_4e/relu_5x5 -> inception_4e/5x5 (in-place)
I0403 15:54:34.709058 16322 net.cpp:141] Setting up inception_4e/relu_5x5
I0403 15:54:34.709085 16322 net.cpp:148] Top shape: 24 128 14 14 (602112)
I0403 15:54:34.709100 16322 net.cpp:156] Memory required for data: 1242150432
I0403 15:54:34.709115 16322 layer_factory.hpp:77] Creating layer inception_4e/pool
I0403 15:54:34.709132 16322 net.cpp:91] Creating Layer inception_4e/pool
I0403 15:54:34.709148 16322 net.cpp:425] inception_4e/pool <- inception_4d/output_inception_4d/output_0_split_4
I0403 15:54:34.709169 16322 net.cpp:399] inception_4e/pool -> inception_4e/pool
I0403 15:54:34.709239 16322 net.cpp:141] Setting up inception_4e/pool
I0403 15:54:34.709264 16322 net.cpp:148] Top shape: 24 528 14 14 (2483712)
I0403 15:54:34.709278 16322 net.cpp:156] Memory required for data: 1252085280
I0403 15:54:34.709292 16322 layer_factory.hpp:77] Creating layer inception_4e/pool_proj
I0403 15:54:34.709314 16322 net.cpp:91] Creating Layer inception_4e/pool_proj
I0403 15:54:34.709331 16322 net.cpp:425] inception_4e/pool_proj <- inception_4e/pool
I0403 15:54:34.709352 16322 net.cpp:399] inception_4e/pool_proj -> inception_4e/pool_proj
I0403 15:54:34.710847 16322 net.cpp:141] Setting up inception_4e/pool_proj
I0403 15:54:34.710886 16322 net.cpp:148] Top shape: 24 128 14 14 (602112)
I0403 15:54:34.710902 16322 net.cpp:156] Memory required for data: 1254493728
I0403 15:54:34.710921 16322 layer_factory.hpp:77] Creating layer inception_4e/relu_pool_proj
I0403 15:54:34.710940 16322 net.cpp:91] Creating Layer inception_4e/relu_pool_proj
I0403 15:54:34.710958 16322 net.cpp:425] inception_4e/relu_pool_proj <- inception_4e/pool_proj
I0403 15:54:34.710974 16322 net.cpp:386] inception_4e/relu_pool_proj -> inception_4e/pool_proj (in-place)
I0403 15:54:34.711264 16322 net.cpp:141] Setting up inception_4e/relu_pool_proj
I0403 15:54:34.711290 16322 net.cpp:148] Top shape: 24 128 14 14 (602112)
I0403 15:54:34.711305 16322 net.cpp:156] Memory required for data: 1256902176
I0403 15:54:34.711319 16322 layer_factory.hpp:77] Creating layer inception_4e/output
I0403 15:54:34.711338 16322 net.cpp:91] Creating Layer inception_4e/output
I0403 15:54:34.711354 16322 net.cpp:425] inception_4e/output <- inception_4e/1x1
I0403 15:54:34.711369 16322 net.cpp:425] inception_4e/output <- inception_4e/3x3
I0403 15:54:34.711385 16322 net.cpp:425] inception_4e/output <- inception_4e/5x5
I0403 15:54:34.711400 16322 net.cpp:425] inception_4e/output <- inception_4e/pool_proj
I0403 15:54:34.711419 16322 net.cpp:399] inception_4e/output -> inception_4e/output
I0403 15:54:34.711472 16322 net.cpp:141] Setting up inception_4e/output
I0403 15:54:34.711494 16322 net.cpp:148] Top shape: 24 832 14 14 (3913728)
I0403 15:54:34.711509 16322 net.cpp:156] Memory required for data: 1272557088
I0403 15:54:34.711524 16322 layer_factory.hpp:77] Creating layer pool4/3x3_s2
I0403 15:54:34.711539 16322 net.cpp:91] Creating Layer pool4/3x3_s2
I0403 15:54:34.711555 16322 net.cpp:425] pool4/3x3_s2 <- inception_4e/output
I0403 15:54:34.711575 16322 net.cpp:399] pool4/3x3_s2 -> pool4/3x3_s2
I0403 15:54:34.711647 16322 net.cpp:141] Setting up pool4/3x3_s2
I0403 15:54:34.711671 16322 net.cpp:148] Top shape: 24 832 7 7 (978432)
I0403 15:54:34.711685 16322 net.cpp:156] Memory required for data: 1276470816
I0403 15:54:34.711699 16322 layer_factory.hpp:77] Creating layer pool4/3x3_s2_pool4/3x3_s2_0_split
I0403 15:54:34.711719 16322 net.cpp:91] Creating Layer pool4/3x3_s2_pool4/3x3_s2_0_split
I0403 15:54:34.711736 16322 net.cpp:425] pool4/3x3_s2_pool4/3x3_s2_0_split <- pool4/3x3_s2
I0403 15:54:34.711755 16322 net.cpp:399] pool4/3x3_s2_pool4/3x3_s2_0_split -> pool4/3x3_s2_pool4/3x3_s2_0_split_0
I0403 15:54:34.711776 16322 net.cpp:399] pool4/3x3_s2_pool4/3x3_s2_0_split -> pool4/3x3_s2_pool4/3x3_s2_0_split_1
I0403 15:54:34.711797 16322 net.cpp:399] pool4/3x3_s2_pool4/3x3_s2_0_split -> pool4/3x3_s2_pool4/3x3_s2_0_split_2
I0403 15:54:34.711818 16322 net.cpp:399] pool4/3x3_s2_pool4/3x3_s2_0_split -> pool4/3x3_s2_pool4/3x3_s2_0_split_3
I0403 15:54:34.711910 16322 net.cpp:141] Setting up pool4/3x3_s2_pool4/3x3_s2_0_split
I0403 15:54:34.711932 16322 net.cpp:148] Top shape: 24 832 7 7 (978432)
I0403 15:54:34.711948 16322 net.cpp:148] Top shape: 24 832 7 7 (978432)
I0403 15:54:34.711963 16322 net.cpp:148] Top shape: 24 832 7 7 (978432)
I0403 15:54:34.711978 16322 net.cpp:148] Top shape: 24 832 7 7 (978432)
I0403 15:54:34.711992 16322 net.cpp:156] Memory required for data: 1292125728
I0403 15:54:34.712005 16322 layer_factory.hpp:77] Creating layer inception_5a/1x1
I0403 15:54:34.712028 16322 net.cpp:91] Creating Layer inception_5a/1x1
I0403 15:54:34.712044 16322 net.cpp:425] inception_5a/1x1 <- pool4/3x3_s2_pool4/3x3_s2_0_split_0
I0403 15:54:34.712065 16322 net.cpp:399] inception_5a/1x1 -> inception_5a/1x1
I0403 15:54:34.714921 16322 net.cpp:141] Setting up inception_5a/1x1
I0403 15:54:34.714951 16322 net.cpp:148] Top shape: 24 256 7 7 (301056)
I0403 15:54:34.714969 16322 net.cpp:156] Memory required for data: 1293329952
I0403 15:54:34.714988 16322 layer_factory.hpp:77] Creating layer inception_5a/relu_1x1
I0403 15:54:34.715006 16322 net.cpp:91] Creating Layer inception_5a/relu_1x1
I0403 15:54:34.715023 16322 net.cpp:425] inception_5a/relu_1x1 <- inception_5a/1x1
I0403 15:54:34.715039 16322 net.cpp:386] inception_5a/relu_1x1 -> inception_5a/1x1 (in-place)
I0403 15:54:34.715350 16322 net.cpp:141] Setting up inception_5a/relu_1x1
I0403 15:54:34.715376 16322 net.cpp:148] Top shape: 24 256 7 7 (301056)
I0403 15:54:34.715394 16322 net.cpp:156] Memory required for data: 1294534176
I0403 15:54:34.715409 16322 layer_factory.hpp:77] Creating layer inception_5a/3x3_reduce
I0403 15:54:34.715428 16322 net.cpp:91] Creating Layer inception_5a/3x3_reduce
I0403 15:54:34.715445 16322 net.cpp:425] inception_5a/3x3_reduce <- pool4/3x3_s2_pool4/3x3_s2_0_split_1
I0403 15:54:34.715466 16322 net.cpp:399] inception_5a/3x3_reduce -> inception_5a/3x3_reduce
I0403 15:54:34.717968 16322 net.cpp:141] Setting up inception_5a/3x3_reduce
I0403 15:54:34.717996 16322 net.cpp:148] Top shape: 24 160 7 7 (188160)
I0403 15:54:34.718013 16322 net.cpp:156] Memory required for data: 1295286816
I0403 15:54:34.718029 16322 layer_factory.hpp:77] Creating layer inception_5a/relu_3x3_reduce
I0403 15:54:34.718047 16322 net.cpp:91] Creating Layer inception_5a/relu_3x3_reduce
I0403 15:54:34.718063 16322 net.cpp:425] inception_5a/relu_3x3_reduce <- inception_5a/3x3_reduce
I0403 15:54:34.718085 16322 net.cpp:386] inception_5a/relu_3x3_reduce -> inception_5a/3x3_reduce (in-place)
I0403 15:54:34.718271 16322 net.cpp:141] Setting up inception_5a/relu_3x3_reduce
I0403 15:54:34.718297 16322 net.cpp:148] Top shape: 24 160 7 7 (188160)
I0403 15:54:34.718312 16322 net.cpp:156] Memory required for data: 1296039456
I0403 15:54:34.718327 16322 layer_factory.hpp:77] Creating layer inception_5a/3x3
I0403 15:54:34.718348 16322 net.cpp:91] Creating Layer inception_5a/3x3
I0403 15:54:34.718365 16322 net.cpp:425] inception_5a/3x3 <- inception_5a/3x3_reduce
I0403 15:54:34.718387 16322 net.cpp:399] inception_5a/3x3 -> inception_5a/3x3
I0403 15:54:34.723316 16322 net.cpp:141] Setting up inception_5a/3x3
I0403 15:54:34.723345 16322 net.cpp:148] Top shape: 24 320 7 7 (376320)
I0403 15:54:34.723361 16322 net.cpp:156] Memory required for data: 1297544736
I0403 15:54:34.723379 16322 layer_factory.hpp:77] Creating layer inception_5a/relu_3x3
I0403 15:54:34.723399 16322 net.cpp:91] Creating Layer inception_5a/relu_3x3
I0403 15:54:34.723415 16322 net.cpp:425] inception_5a/relu_3x3 <- inception_5a/3x3
I0403 15:54:34.723433 16322 net.cpp:386] inception_5a/relu_3x3 -> inception_5a/3x3 (in-place)
I0403 15:54:34.723723 16322 net.cpp:141] Setting up inception_5a/relu_3x3
I0403 15:54:34.723749 16322 net.cpp:148] Top shape: 24 320 7 7 (376320)
I0403 15:54:34.723763 16322 net.cpp:156] Memory required for data: 1299050016
I0403 15:54:34.723778 16322 layer_factory.hpp:77] Creating layer inception_5a/5x5_reduce
I0403 15:54:34.723801 16322 net.cpp:91] Creating Layer inception_5a/5x5_reduce
I0403 15:54:34.723819 16322 net.cpp:425] inception_5a/5x5_reduce <- pool4/3x3_s2_pool4/3x3_s2_0_split_2
I0403 15:54:34.723837 16322 net.cpp:399] inception_5a/5x5_reduce -> inception_5a/5x5_reduce
I0403 15:54:34.724974 16322 net.cpp:141] Setting up inception_5a/5x5_reduce
I0403 15:54:34.725004 16322 net.cpp:148] Top shape: 24 32 7 7 (37632)
I0403 15:54:34.725020 16322 net.cpp:156] Memory required for data: 1299200544
I0403 15:54:34.725039 16322 layer_factory.hpp:77] Creating layer inception_5a/relu_5x5_reduce
I0403 15:54:34.725056 16322 net.cpp:91] Creating Layer inception_5a/relu_5x5_reduce
I0403 15:54:34.725072 16322 net.cpp:425] inception_5a/relu_5x5_reduce <- inception_5a/5x5_reduce
I0403 15:54:34.725090 16322 net.cpp:386] inception_5a/relu_5x5_reduce -> inception_5a/5x5_reduce (in-place)
I0403 15:54:34.725380 16322 net.cpp:141] Setting up inception_5a/relu_5x5_reduce
I0403 15:54:34.725407 16322 net.cpp:148] Top shape: 24 32 7 7 (37632)
I0403 15:54:34.725424 16322 net.cpp:156] Memory required for data: 1299351072
I0403 15:54:34.725437 16322 layer_factory.hpp:77] Creating layer inception_5a/5x5
I0403 15:54:34.725458 16322 net.cpp:91] Creating Layer inception_5a/5x5
I0403 15:54:34.725476 16322 net.cpp:425] inception_5a/5x5 <- inception_5a/5x5_reduce
I0403 15:54:34.725495 16322 net.cpp:399] inception_5a/5x5 -> inception_5a/5x5
I0403 15:54:34.727165 16322 net.cpp:141] Setting up inception_5a/5x5
I0403 15:54:34.727203 16322 net.cpp:148] Top shape: 24 128 7 7 (150528)
I0403 15:54:34.727219 16322 net.cpp:156] Memory required for data: 1299953184
I0403 15:54:34.727237 16322 layer_factory.hpp:77] Creating layer inception_5a/relu_5x5
I0403 15:54:34.727258 16322 net.cpp:91] Creating Layer inception_5a/relu_5x5
I0403 15:54:34.727274 16322 net.cpp:425] inception_5a/relu_5x5 <- inception_5a/5x5
I0403 15:54:34.727291 16322 net.cpp:386] inception_5a/relu_5x5 -> inception_5a/5x5 (in-place)
I0403 15:54:34.727476 16322 net.cpp:141] Setting up inception_5a/relu_5x5
I0403 15:54:34.727504 16322 net.cpp:148] Top shape: 24 128 7 7 (150528)
I0403 15:54:34.727519 16322 net.cpp:156] Memory required for data: 1300555296
I0403 15:54:34.727532 16322 layer_factory.hpp:77] Creating layer inception_5a/pool
I0403 15:54:34.727551 16322 net.cpp:91] Creating Layer inception_5a/pool
I0403 15:54:34.727566 16322 net.cpp:425] inception_5a/pool <- pool4/3x3_s2_pool4/3x3_s2_0_split_3
I0403 15:54:34.727586 16322 net.cpp:399] inception_5a/pool -> inception_5a/pool
I0403 15:54:34.727659 16322 net.cpp:141] Setting up inception_5a/pool
I0403 15:54:34.727682 16322 net.cpp:148] Top shape: 24 832 7 7 (978432)
I0403 15:54:34.727696 16322 net.cpp:156] Memory required for data: 1304469024
I0403 15:54:34.727710 16322 layer_factory.hpp:77] Creating layer inception_5a/pool_proj
I0403 15:54:34.727732 16322 net.cpp:91] Creating Layer inception_5a/pool_proj
I0403 15:54:34.727749 16322 net.cpp:425] inception_5a/pool_proj <- inception_5a/pool
I0403 15:54:34.727766 16322 net.cpp:399] inception_5a/pool_proj -> inception_5a/pool_proj
I0403 15:54:34.729977 16322 net.cpp:141] Setting up inception_5a/pool_proj
I0403 15:54:34.730006 16322 net.cpp:148] Top shape: 24 128 7 7 (150528)
I0403 15:54:34.730021 16322 net.cpp:156] Memory required for data: 1305071136
I0403 15:54:34.730039 16322 layer_factory.hpp:77] Creating layer inception_5a/relu_pool_proj
I0403 15:54:34.730059 16322 net.cpp:91] Creating Layer inception_5a/relu_pool_proj
I0403 15:54:34.730075 16322 net.cpp:425] inception_5a/relu_pool_proj <- inception_5a/pool_proj
I0403 15:54:34.730093 16322 net.cpp:386] inception_5a/relu_pool_proj -> inception_5a/pool_proj (in-place)
I0403 15:54:34.730381 16322 net.cpp:141] Setting up inception_5a/relu_pool_proj
I0403 15:54:34.730406 16322 net.cpp:148] Top shape: 24 128 7 7 (150528)
I0403 15:54:34.730422 16322 net.cpp:156] Memory required for data: 1305673248
I0403 15:54:34.730435 16322 layer_factory.hpp:77] Creating layer inception_5a/output
I0403 15:54:34.730453 16322 net.cpp:91] Creating Layer inception_5a/output
I0403 15:54:34.730470 16322 net.cpp:425] inception_5a/output <- inception_5a/1x1
I0403 15:54:34.730486 16322 net.cpp:425] inception_5a/output <- inception_5a/3x3
I0403 15:54:34.730502 16322 net.cpp:425] inception_5a/output <- inception_5a/5x5
I0403 15:54:34.730518 16322 net.cpp:425] inception_5a/output <- inception_5a/pool_proj
I0403 15:54:34.730535 16322 net.cpp:399] inception_5a/output -> inception_5a/output
I0403 15:54:34.730586 16322 net.cpp:141] Setting up inception_5a/output
I0403 15:54:34.730612 16322 net.cpp:148] Top shape: 24 832 7 7 (978432)
I0403 15:54:34.730628 16322 net.cpp:156] Memory required for data: 1309586976
I0403 15:54:34.730641 16322 layer_factory.hpp:77] Creating layer inception_5a/output_inception_5a/output_0_split
I0403 15:54:34.730657 16322 net.cpp:91] Creating Layer inception_5a/output_inception_5a/output_0_split
I0403 15:54:34.730672 16322 net.cpp:425] inception_5a/output_inception_5a/output_0_split <- inception_5a/output
I0403 15:54:34.730692 16322 net.cpp:399] inception_5a/output_inception_5a/output_0_split -> inception_5a/output_inception_5a/output_0_split_0
I0403 15:54:34.730712 16322 net.cpp:399] inception_5a/output_inception_5a/output_0_split -> inception_5a/output_inception_5a/output_0_split_1
I0403 15:54:34.730732 16322 net.cpp:399] inception_5a/output_inception_5a/output_0_split -> inception_5a/output_inception_5a/output_0_split_2
I0403 15:54:34.730752 16322 net.cpp:399] inception_5a/output_inception_5a/output_0_split -> inception_5a/output_inception_5a/output_0_split_3
I0403 15:54:34.730861 16322 net.cpp:141] Setting up inception_5a/output_inception_5a/output_0_split
I0403 15:54:34.730887 16322 net.cpp:148] Top shape: 24 832 7 7 (978432)
I0403 15:54:34.730904 16322 net.cpp:148] Top shape: 24 832 7 7 (978432)
I0403 15:54:34.730918 16322 net.cpp:148] Top shape: 24 832 7 7 (978432)
I0403 15:54:34.730933 16322 net.cpp:148] Top shape: 24 832 7 7 (978432)
I0403 15:54:34.730945 16322 net.cpp:156] Memory required for data: 1325241888
I0403 15:54:34.730959 16322 layer_factory.hpp:77] Creating layer inception_5b/1x1
I0403 15:54:34.730980 16322 net.cpp:91] Creating Layer inception_5b/1x1
I0403 15:54:34.730998 16322 net.cpp:425] inception_5b/1x1 <- inception_5a/output_inception_5a/output_0_split_0
I0403 15:54:34.731016 16322 net.cpp:399] inception_5b/1x1 -> inception_5b/1x1
I0403 15:54:34.734709 16322 net.cpp:141] Setting up inception_5b/1x1
I0403 15:54:34.734737 16322 net.cpp:148] Top shape: 24 384 7 7 (451584)
I0403 15:54:34.734752 16322 net.cpp:156] Memory required for data: 1327048224
I0403 15:54:34.734769 16322 layer_factory.hpp:77] Creating layer inception_5b/relu_1x1
I0403 15:54:34.734787 16322 net.cpp:91] Creating Layer inception_5b/relu_1x1
I0403 15:54:34.734802 16322 net.cpp:425] inception_5b/relu_1x1 <- inception_5b/1x1
I0403 15:54:34.734822 16322 net.cpp:386] inception_5b/relu_1x1 -> inception_5b/1x1 (in-place)
I0403 15:54:34.735124 16322 net.cpp:141] Setting up inception_5b/relu_1x1
I0403 15:54:34.735149 16322 net.cpp:148] Top shape: 24 384 7 7 (451584)
I0403 15:54:34.735163 16322 net.cpp:156] Memory required for data: 1328854560
I0403 15:54:34.735177 16322 layer_factory.hpp:77] Creating layer inception_5b/3x3_reduce
I0403 15:54:34.735199 16322 net.cpp:91] Creating Layer inception_5b/3x3_reduce
I0403 15:54:34.735216 16322 net.cpp:425] inception_5b/3x3_reduce <- inception_5a/output_inception_5a/output_0_split_1
I0403 15:54:34.735239 16322 net.cpp:399] inception_5b/3x3_reduce -> inception_5b/3x3_reduce
I0403 15:54:34.737834 16322 net.cpp:141] Setting up inception_5b/3x3_reduce
I0403 15:54:34.737864 16322 net.cpp:148] Top shape: 24 192 7 7 (225792)
I0403 15:54:34.737879 16322 net.cpp:156] Memory required for data: 1329757728
I0403 15:54:34.737895 16322 layer_factory.hpp:77] Creating layer inception_5b/relu_3x3_reduce
I0403 15:54:34.737916 16322 net.cpp:91] Creating Layer inception_5b/relu_3x3_reduce
I0403 15:54:34.737932 16322 net.cpp:425] inception_5b/relu_3x3_reduce <- inception_5b/3x3_reduce
I0403 15:54:34.737949 16322 net.cpp:386] inception_5b/relu_3x3_reduce -> inception_5b/3x3_reduce (in-place)
I0403 15:54:34.738134 16322 net.cpp:141] Setting up inception_5b/relu_3x3_reduce
I0403 15:54:34.738159 16322 net.cpp:148] Top shape: 24 192 7 7 (225792)
I0403 15:54:34.738178 16322 net.cpp:156] Memory required for data: 1330660896
I0403 15:54:34.738193 16322 layer_factory.hpp:77] Creating layer inception_5b/3x3
I0403 15:54:34.738215 16322 net.cpp:91] Creating Layer inception_5b/3x3
I0403 15:54:34.738234 16322 net.cpp:425] inception_5b/3x3 <- inception_5b/3x3_reduce
I0403 15:54:34.738251 16322 net.cpp:399] inception_5b/3x3 -> inception_5b/3x3
I0403 15:54:34.744807 16322 net.cpp:141] Setting up inception_5b/3x3
I0403 15:54:34.744833 16322 net.cpp:148] Top shape: 24 384 7 7 (451584)
I0403 15:54:34.744849 16322 net.cpp:156] Memory required for data: 1332467232
I0403 15:54:34.744866 16322 layer_factory.hpp:77] Creating layer inception_5b/relu_3x3
I0403 15:54:34.744886 16322 net.cpp:91] Creating Layer inception_5b/relu_3x3
I0403 15:54:34.744902 16322 net.cpp:425] inception_5b/relu_3x3 <- inception_5b/3x3
I0403 15:54:34.744920 16322 net.cpp:386] inception_5b/relu_3x3 -> inception_5b/3x3 (in-place)
I0403 15:54:34.745211 16322 net.cpp:141] Setting up inception_5b/relu_3x3
I0403 15:54:34.745237 16322 net.cpp:148] Top shape: 24 384 7 7 (451584)
I0403 15:54:34.745251 16322 net.cpp:156] Memory required for data: 1334273568
I0403 15:54:34.745265 16322 layer_factory.hpp:77] Creating layer inception_5b/5x5_reduce
I0403 15:54:34.745301 16322 net.cpp:91] Creating Layer inception_5b/5x5_reduce
I0403 15:54:34.745319 16322 net.cpp:425] inception_5b/5x5_reduce <- inception_5a/output_inception_5a/output_0_split_2
I0403 15:54:34.745340 16322 net.cpp:399] inception_5b/5x5_reduce -> inception_5b/5x5_reduce
I0403 15:54:34.746587 16322 net.cpp:141] Setting up inception_5b/5x5_reduce
I0403 15:54:34.746616 16322 net.cpp:148] Top shape: 24 48 7 7 (56448)
I0403 15:54:34.746633 16322 net.cpp:156] Memory required for data: 1334499360
I0403 15:54:34.746649 16322 layer_factory.hpp:77] Creating layer inception_5b/relu_5x5_reduce
I0403 15:54:34.746670 16322 net.cpp:91] Creating Layer inception_5b/relu_5x5_reduce
I0403 15:54:34.746686 16322 net.cpp:425] inception_5b/relu_5x5_reduce <- inception_5b/5x5_reduce
I0403 15:54:34.746703 16322 net.cpp:386] inception_5b/relu_5x5_reduce -> inception_5b/5x5_reduce (in-place)
I0403 15:54:34.747072 16322 net.cpp:141] Setting up inception_5b/relu_5x5_reduce
I0403 15:54:34.747098 16322 net.cpp:148] Top shape: 24 48 7 7 (56448)
I0403 15:54:34.747112 16322 net.cpp:156] Memory required for data: 1334725152
I0403 15:54:34.747126 16322 layer_factory.hpp:77] Creating layer inception_5b/5x5
I0403 15:54:34.747146 16322 net.cpp:91] Creating Layer inception_5b/5x5
I0403 15:54:34.747164 16322 net.cpp:425] inception_5b/5x5 <- inception_5b/5x5_reduce
I0403 15:54:34.747181 16322 net.cpp:399] inception_5b/5x5 -> inception_5b/5x5
I0403 15:54:34.749183 16322 net.cpp:141] Setting up inception_5b/5x5
I0403 15:54:34.749210 16322 net.cpp:148] Top shape: 24 128 7 7 (150528)
I0403 15:54:34.749228 16322 net.cpp:156] Memory required for data: 1335327264
I0403 15:54:34.749246 16322 layer_factory.hpp:77] Creating layer inception_5b/relu_5x5
I0403 15:54:34.749274 16322 net.cpp:91] Creating Layer inception_5b/relu_5x5
I0403 15:54:34.749291 16322 net.cpp:425] inception_5b/relu_5x5 <- inception_5b/5x5
I0403 15:54:34.749308 16322 net.cpp:386] inception_5b/relu_5x5 -> inception_5b/5x5 (in-place)
I0403 15:54:34.749498 16322 net.cpp:141] Setting up inception_5b/relu_5x5
I0403 15:54:34.749526 16322 net.cpp:148] Top shape: 24 128 7 7 (150528)
I0403 15:54:34.749541 16322 net.cpp:156] Memory required for data: 1335929376
I0403 15:54:34.749564 16322 layer_factory.hpp:77] Creating layer inception_5b/pool
I0403 15:54:34.749582 16322 net.cpp:91] Creating Layer inception_5b/pool
I0403 15:54:34.749596 16322 net.cpp:425] inception_5b/pool <- inception_5a/output_inception_5a/output_0_split_3
I0403 15:54:34.749621 16322 net.cpp:399] inception_5b/pool -> inception_5b/pool
I0403 15:54:34.749692 16322 net.cpp:141] Setting up inception_5b/pool
I0403 15:54:34.749718 16322 net.cpp:148] Top shape: 24 832 7 7 (978432)
I0403 15:54:34.749732 16322 net.cpp:156] Memory required for data: 1339843104
I0403 15:54:34.749747 16322 layer_factory.hpp:77] Creating layer inception_5b/pool_proj
I0403 15:54:34.749766 16322 net.cpp:91] Creating Layer inception_5b/pool_proj
I0403 15:54:34.749783 16322 net.cpp:425] inception_5b/pool_proj <- inception_5b/pool
I0403 15:54:34.749804 16322 net.cpp:399] inception_5b/pool_proj -> inception_5b/pool_proj
I0403 15:54:34.752109 16322 net.cpp:141] Setting up inception_5b/pool_proj
I0403 15:54:34.752137 16322 net.cpp:148] Top shape: 24 128 7 7 (150528)
I0403 15:54:34.752153 16322 net.cpp:156] Memory required for data: 1340445216
I0403 15:54:34.752171 16322 layer_factory.hpp:77] Creating layer inception_5b/relu_pool_proj
I0403 15:54:34.752192 16322 net.cpp:91] Creating Layer inception_5b/relu_pool_proj
I0403 15:54:34.752210 16322 net.cpp:425] inception_5b/relu_pool_proj <- inception_5b/pool_proj
I0403 15:54:34.752228 16322 net.cpp:386] inception_5b/relu_pool_proj -> inception_5b/pool_proj (in-place)
I0403 15:54:34.752527 16322 net.cpp:141] Setting up inception_5b/relu_pool_proj
I0403 15:54:34.752555 16322 net.cpp:148] Top shape: 24 128 7 7 (150528)
I0403 15:54:34.752570 16322 net.cpp:156] Memory required for data: 1341047328
I0403 15:54:34.752585 16322 layer_factory.hpp:77] Creating layer inception_5b/output
I0403 15:54:34.752607 16322 net.cpp:91] Creating Layer inception_5b/output
I0403 15:54:34.752640 16322 net.cpp:425] inception_5b/output <- inception_5b/1x1
I0403 15:54:34.752657 16322 net.cpp:425] inception_5b/output <- inception_5b/3x3
I0403 15:54:34.752674 16322 net.cpp:425] inception_5b/output <- inception_5b/5x5
I0403 15:54:34.752691 16322 net.cpp:425] inception_5b/output <- inception_5b/pool_proj
I0403 15:54:34.752708 16322 net.cpp:399] inception_5b/output -> inception_5b/output
I0403 15:54:34.752763 16322 net.cpp:141] Setting up inception_5b/output
I0403 15:54:34.752786 16322 net.cpp:148] Top shape: 24 1024 7 7 (1204224)
I0403 15:54:34.752801 16322 net.cpp:156] Memory required for data: 1345864224
I0403 15:54:34.752815 16322 layer_factory.hpp:77] Creating layer pool5/7x7_s1
I0403 15:54:34.752832 16322 net.cpp:91] Creating Layer pool5/7x7_s1
I0403 15:54:34.752848 16322 net.cpp:425] pool5/7x7_s1 <- inception_5b/output
I0403 15:54:34.752869 16322 net.cpp:399] pool5/7x7_s1 -> pool5/7x7_s1
I0403 15:54:34.753087 16322 net.cpp:141] Setting up pool5/7x7_s1
I0403 15:54:34.753111 16322 net.cpp:148] Top shape: 24 1024 1 1 (24576)
I0403 15:54:34.753126 16322 net.cpp:156] Memory required for data: 1345962528
I0403 15:54:34.753141 16322 layer_factory.hpp:77] Creating layer pool5/drop_7x7_s1
I0403 15:54:34.753161 16322 net.cpp:91] Creating Layer pool5/drop_7x7_s1
I0403 15:54:34.753177 16322 net.cpp:425] pool5/drop_7x7_s1 <- pool5/7x7_s1
I0403 15:54:34.753196 16322 net.cpp:386] pool5/drop_7x7_s1 -> pool5/7x7_s1 (in-place)
I0403 15:54:34.753248 16322 net.cpp:141] Setting up pool5/drop_7x7_s1
I0403 15:54:34.753271 16322 net.cpp:148] Top shape: 24 1024 1 1 (24576)
I0403 15:54:34.753285 16322 net.cpp:156] Memory required for data: 1346060832
I0403 15:54:34.753299 16322 layer_factory.hpp:77] Creating layer loss3/classifier_plantvillage
I0403 15:54:34.753317 16322 net.cpp:91] Creating Layer loss3/classifier_plantvillage
I0403 15:54:34.753334 16322 net.cpp:425] loss3/classifier_plantvillage <- pool5/7x7_s1
I0403 15:54:34.753353 16322 net.cpp:399] loss3/classifier_plantvillage -> loss3/classifier_plantvillage
I0403 15:54:34.753790 16322 net.cpp:141] Setting up loss3/classifier_plantvillage
I0403 15:54:34.753828 16322 net.cpp:148] Top shape: 24 38 (912)
I0403 15:54:34.753844 16322 net.cpp:156] Memory required for data: 1346064480
I0403 15:54:34.753861 16322 layer_factory.hpp:77] Creating layer loss3/classifier_plantvillage_loss3/classifier_plantvillage_0_split
I0403 15:54:34.753880 16322 net.cpp:91] Creating Layer loss3/classifier_plantvillage_loss3/classifier_plantvillage_0_split
I0403 15:54:34.753896 16322 net.cpp:425] loss3/classifier_plantvillage_loss3/classifier_plantvillage_0_split <- loss3/classifier_plantvillage
I0403 15:54:34.753916 16322 net.cpp:399] loss3/classifier_plantvillage_loss3/classifier_plantvillage_0_split -> loss3/classifier_plantvillage_loss3/classifier_plantvillage_0_split_0
I0403 15:54:34.753938 16322 net.cpp:399] loss3/classifier_plantvillage_loss3/classifier_plantvillage_0_split -> loss3/classifier_plantvillage_loss3/classifier_plantvillage_0_split_1
I0403 15:54:34.753959 16322 net.cpp:399] loss3/classifier_plantvillage_loss3/classifier_plantvillage_0_split -> loss3/classifier_plantvillage_loss3/classifier_plantvillage_0_split_2
I0403 15:54:34.753980 16322 net.cpp:399] loss3/classifier_plantvillage_loss3/classifier_plantvillage_0_split -> loss3/classifier_plantvillage_loss3/classifier_plantvillage_0_split_3
I0403 15:54:34.754084 16322 net.cpp:141] Setting up loss3/classifier_plantvillage_loss3/classifier_plantvillage_0_split
I0403 15:54:34.754119 16322 net.cpp:148] Top shape: 24 38 (912)
I0403 15:54:34.754135 16322 net.cpp:148] Top shape: 24 38 (912)
I0403 15:54:34.754150 16322 net.cpp:148] Top shape: 24 38 (912)
I0403 15:54:34.754164 16322 net.cpp:148] Top shape: 24 38 (912)
I0403 15:54:34.754178 16322 net.cpp:156] Memory required for data: 1346079072
I0403 15:54:34.754191 16322 layer_factory.hpp:77] Creating layer loss1/loss
I0403 15:54:34.754212 16322 net.cpp:91] Creating Layer loss1/loss
I0403 15:54:34.754230 16322 net.cpp:425] loss1/loss <- loss1/classifier_plantvillage_loss1/classifier_plantvillage_0_split_0
I0403 15:54:34.754261 16322 net.cpp:425] loss1/loss <- label_data_1_split_0
…
